…
W0924 03:09:27.510536 16481 upgrade_proto.cpp:71] Note that future Caffe releases will only support input layers and not input fields.
I0924 03:09:27.510577 16491 net.cpp:49] Initializing net from parameters: 
name: "s2vt:features_to_lstm"
state {
  phase: TEST
}
layer {
  name: "input"
  type: "Input"
  top: "frames_fc7"
  top: "cont_sentence"
  top: "input_sentence"
  top: "stage_indicator"
  input_param {
    shape {
      dim: 1
      dim: 4096
    }
    shape {
      dim: 1
      dim: 1
    }
    shape {
      dim: 1
      dim: 1
    }
    shape {
      dim: 1
      dim: 1
    }
  }
}
layer {
  name: "embed_encoder"
  type: "InnerProduct"
  bottom: "frames_fc7"
  top: "embedded_in_frames"
  param {
    lr_mult: 1
    decay_mult: 1
  }
  param {
    lr_mult: 2
    decay_mult: 0
  }
  inner_product_param {
    num_output: 500
    weight_filler {
      type: "xavier"
    }
    bias_filler {
      type: "constant"
      value: 0.2
    }
  }
}
layer {
  name: "reshape_frames"
  type: "Reshape"
  bottom: "embedded_in_frames"
  top: "embedded_input_frames"
  reshape_param {
    shape {
      dim: 1
      dim: 1
      dim: 500
    }
  }
}
layer {
  name: "reshape_stage_indicator"
  type: "Reshape"
  bottom: "stage_indicator"
  top: "reshaped_stage_indicator"
  reshape_param {
    shape {
      dim: 1
      dim: 1
      dim: 1
    }
  }
}
layer {
  name: "embedding"
  type: "Embed"
  bottom: "input_sentence"
  top: "embedded_input_sentence"
  param {
    lr_mult: 1
  }
  embed_param {
    num_output: 500
    input_dim: 46168
    bias_term: false
    weight_filler {
      type: "uniform"
      min: -0.08
      max: 0.08
    }
  }
}
layer {
  name: "lstm1"
  type: "LSTM"
  bottom: "embedded_input_frames"
  bottom: "cont_sentence"
  top: "lstm1"
  recurrent_param {
    num_output: 1000
    weight_filler {
      type: "uniform"
      min: -0.08
      max: 0.08
    }
    bias_filler {
      type: "constant"
      value: 0
    }
  }
}
layer {
  name: "concat"
  type: "Concat"
  bottom: "lstm1"
  bottom: "embedded_input_sentence"
  bottom: "reshaped_stage_indicator"
  top: "lstm1_video_sequence"
  concat_param {
    concat_dim: 2
  }
}
layer {
  name: "lstm2"
  type: "LSTM"
  bottom: "lstm1_video_sequence"
  bottom: "cont_sentence"
  top: "lstm2"
  recurrent_param {
    num_output: 1000
    weight_filler {
      type: "uniform"
      min: -0.08
      max: 0.08
    }
    bias_filler {
      type: "constant"
      value: 0
    }
  }
}
layer {
  name: "predict"
  type: "InnerProduct"
  bottom: "lstm2"
  top: "predict"
  param {
    lr_mult: 1
    decay_mult: 1
  }
  param {
    lr_mult: 2
    decay_mult: 0
  }
  inner_product_param {
    num_output: 46168
    weight_filler {
      type: "uniform"
      min: -0.08
      max: 0.08
    }
    bias_filler {
      type: "constant"
      value: 0
    }
    axis: 2
  }
}
layer {
  name: "probs"
  type: "Softmax"
  bottom: "predict"
  top: "probs"
  softmax_param {
    axis: 2
  }
}
I0924 03:09:27.510660 16507 net.cpp:49] Initializing net from parameters: 
name: "CaffeNet"
state {
  phase: TEST
}
layer {
  name: "data"
  type: "Input"
  top: "data"
  input_param {
    shape {
      dim: 10
      dim: 3
      dim: 227
      dim: 227
    }
  }
}
layer {
  name: "conv1"
  type: "Convolution"
  bottom: "data"
  top: "conv1"
  convolution_param {
    num_output: 96
    kernel_size: 11
    stride: 4
  }
}
layer {
  name: "relu1"
  type: "ReLU"
  bottom: "conv1"
  top: "conv1"
}
layer {
  name: "pool1"
  type: "Pooling"
  bottom: "conv1"
  top: "pool1"
  pooling_param {
    pool: MAX
    kernel_size: 3
    stride: 2
  }
}
layer {
  name: "norm1"
  type: "LRN"
  bottom: "pool1"
  top: "norm1"
  lrn_param {
    local_size: 5
    alpha: 0.0001
    beta: 0.75
  }
}
layer {
  name: "conv2"
  type: "Convolution"
  bottom: "norm1"
  top: "conv2"
  convolution_param {
    num_output: 256
    pad: 2
    kernel_size: 5
    group: 2
  }
}
layer {
  name: "relu2"
  type: "ReLU"
  bottom: "conv2"
  top: "conv2"
}
layer {
  name: "pool2"
  type: "Pooling"
  bottom: "conv2"
  top: "pool2"
  pooling_param {
    pool: MAX
    kernel_size: 3
    stride: 2
  }
}
layer {
  name: "norm2"
  type: "LRN"
  bottom: "pool2"
  top: "norm2"
  lrn_param {
    local_size: 5
    alpha: 0.0001
    beta: 0.75
  }
}
layer {
  name: "conv3"
  type: "Convolution"
  bottom: "norm2"
  top: "conv3"
  convolution_param {
    num_output: 384
    pad: 1
    kernel_size: 3
  }
}
layer {
  name: "relu3"
  type: "ReLU"
  bottom: "conv3"
  top: "conv3"
}
layer {
  name: "conv4"
  type: "Convolution"
  bottom: "conv3"
  top: "conv4"
  convolution_param {
    num_output: 384
    pad: 1
    kernel_size: 3
    group: 2
  }
}
layer {
  name: "relu4"
  type: "ReLU"
  bottom: "conv4"
  top: "conv4"
}
layer {
  name: "conv5"
  type: "Convolution"
  bottom: "conv4"
  top: "conv5"
  convolution_param {
    num_output: 256
    pad: 1
    kernel_size: 3
    group: 2
  }
}
layer {
  name: "relu5"
  type: "ReLU"
  bottom: "conv5"
  top: "conv5"
}
layer {
  name: "pool5"
  type: "Pooling"
  bottom: "conv5"
  top: "pool5"
  pooling_param {
    pool: MAX
    kernel_size: 3
    stride: 2
  }
}
layer {
  name: "fc6"
  type: "InnerProduct"
  bottom: "pool5"
  top: "fc6"
  inner_product_param {
    num_output: 4096
  }
}
layer {
  name: "relu6"
  type: "ReLU"
  bottom: "fc6"
  top: "fc6"
}
layer {
  name: "drop6"
  type: "Dropout"
  bottom: "fc6"
  top: "fc6"
  dropout_param {
    dropout_ratio: 0.5
  }
}
layer {
  name: "fc7"
  type: "InnerProduct"
  bottom: "fc6"
  top: "fc7"
  inner_product_param {
    num_output: 4096
  }
}
layer {
  name: "relu7"
  type: "ReLU"
  bottom: "fc7"
  top: "fc7"
}
layer {
  name: "drop7"
  type: "Dropout"
  bottom: "fc7"
  top: "fc7"
  dropout_param {
    dropout_ratio: 0.5
  }
}
layer {
  name: "fc8"
  type: "InnerProduct"
  bottom: "fc7"
  top: "fc8"
  inner_product_param {
    num_output: 1000
  }
}
layer {
  name: "prob"
  type: "Softmax"
  bottom: "fc8"
  top: "prob"
}
I0924 03:09:27.510720 16491 layer_factory.hpp:77] Creating layer input
I0924 03:09:27.510746 16491 net.cpp:91] Creating Layer input
I0924 03:09:27.510756 16491 net.cpp:399] input -> frames_fc7
I0924 03:09:27.510789 16491 net.cpp:399] input -> cont_sentence
I0924 03:09:27.510769 16515 net.cpp:49] Initializing net from parameters: 
name: "s2vt:features_to_lstm"
state {
  phase: TEST
}
layer {
  name: "input"
  type: "Input"
  top: "frames_fc7"
  top: "cont_sentence"
  top: "input_sentence"
  top: "stage_indicator"
  input_param {
    shape {
      dim: 1
      dim: 4096
    }
    shape {
      dim: 1
      dim: 1
    }
    shape {
      dim: 1
      dim: 1
    }
    shape {
      dim: 1
      dim: 1
    }
  }
}
layer {
  name: "embed_encoder"
  type: "InnerProduct"
  bottom: "frames_fc7"
  top: "embedded_in_frames"
  param {
    lr_mult: 1
    decay_mult: 1
  }
  param {
    lr_mult: 2
    decay_mult: 0
  }
  inner_product_param {
    num_output: 500
    weight_filler {
      type: "xavier"
    }
    bias_filler {
      type: "constant"
      value: 0.2
    }
  }
}
layer {
  name: "reshape_frames"
  type: "Reshape"
  bottom: "embedded_in_frames"
  top: "embedded_input_frames"
  reshape_param {
    shape {
      dim: 1
      dim: 1
      dim: 500
    }
  }
}
layer {
  name: "reshape_stage_indicator"
  type: "Reshape"
  bottom: "stage_indicator"
  top: "reshaped_stage_indicator"
  reshape_param {
    shape {
      dim: 1
      dim: 1
      dim: 1
    }
  }
}
layer {
  name: "embedding"
  type: "Embed"
  bottom: "input_sentence"
  top: "embedded_input_sentence"
  param {
    lr_mult: 1
  }
  embed_param {
    num_output: 500
    input_dim: 46168
    bias_term: false
    weight_filler {
      type: "uniform"
      min: -0.08
      max: 0.08
    }
  }
}
layer {
  name: "lstm1"
  type: "LSTM"
  bottom: "embedded_input_frames"
  bottom: "cont_sentence"
  top: "lstm1"
  recurrent_param {
    num_output: 1000
    weight_filler {
      type: "uniform"
      min: -0.08
      max: 0.08
    }
    bias_filler {
      type: "constant"
      value: 0
    }
  }
}
layer {
  name: "concat"
  type: "Concat"
  bottom: "lstm1"
  bottom: "embedded_input_sentence"
  bottom: "reshaped_stage_indicator"
  top: "lstm1_video_sequence"
  concat_param {
    concat_dim: 2
  }
}
layer {
  name: "lstm2"
  type: "LSTM"
  bottom: "lstm1_video_sequence"
  bottom: "cont_sentence"
  top: "lstm2"
  recurrent_param {
    num_output: 1000
    weight_filler {
      type: "uniform"
      min: -0.08
      max: 0.08
    }
    bias_filler {
      type: "constant"
      value: 0
    }
  }
}
layer {
  name: "predict"
  type: "InnerProduct"
  bottom: "lstm2"
  top: "predict"
  param {
    lr_mult: 1
    decay_mult: 1
  }
  param {
    lr_mult: 2
    decay_mult: 0
  }
  inner_product_param {
    num_output: 46168
    weight_filler {
      type: "uniform"
      min: -0.08
      max: 0.08
    }
    bias_filler {
      type: "constant"
      value: 0
    }
    axis: 2
  }
}
layer {
  name: "probs"
  type: "Softmax"
  bottom: "predict"
  top: "probs"
  softmax_param {
    axis: 2
  }
}
I0924 03:09:27.510769 16485 net.cpp:49] Initializing net from parameters: 
name: "s2vt:features_to_lstm"
state {
  phase: TEST
}
layer {
  name: "input"
  type: "Input"
  top: "frames_fc7"
  top: "cont_sentence"
  top: "input_sentence"
  top: "stage_indicator"
  input_param {
    shape {
      dim: 1
      dim: 4096
    }
    shape {
      dim: 1
      dim: 1
    }
    shape {
      dim: 1
      dim: 1
    }
    shape {
      dim: 1
      dim: 1
    }
  }
}
layer {
  name: "embed_encoder"
  type: "InnerProduct"
  bottom: "frames_fc7"
  top: "embedded_in_frames"
  param {
    lr_mult: 1
    decay_mult: 1
  }
  param {
    lr_mult: 2
    decay_mult: 0
  }
  inner_product_param {
    num_output: 500
    weight_filler {
      type: "xavier"
    }
    bias_filler {
      type: "constant"
      value: 0.2
    }
  }
}
layer {
  name: "reshape_frames"
  type: "Reshape"
  bottom: "embedded_in_frames"
  top: "embedded_input_frames"
  reshape_param {
    shape {
      dim: 1
      dim: 1
      dim: 500
    }
  }
}
layer {
  name: "reshape_stage_indicator"
  type: "Reshape"
  bottom: "stage_indicator"
  top: "reshaped_stage_indicator"
  reshape_param {
    shape {
      dim: 1
      dim: 1
      dim: 1
    }
  }
}
layer {
  name: "embedding"
  type: "Embed"
  bottom: "input_sentence"
  top: "embedded_input_sentence"
  param {
    lr_mult: 1
  }
  embed_param {
    num_output: 500
    input_dim: 46168
    bias_term: false
    weight_filler {
      type: "uniform"
      min: -0.08
      max: 0.08
    }
  }
}
layer {
  name: "lstm1"
  type: "LSTM"
  bottom: "embedded_input_frames"
  bottom: "cont_sentence"
  top: "lstm1"
  recurrent_param {
    num_output: 1000
    weight_filler {
      type: "uniform"
      min: -0.08
      max: 0.08
    }
    bias_filler {
      type: "constant"
      value: 0
    }
  }
}
layer {
  name: "concat"
  type: "Concat"
  bottom: "lstm1"
  bottom: "embedded_input_sentence"
  bottom: "reshaped_stage_indicator"
  top: "lstm1_video_sequence"
  concat_param {
    concat_dim: 2
  }
}
layer {
  name: "lstm2"
  type: "LSTM"
  bottom: "lstm1_video_sequence"
  bottom: "cont_sentence"
  top: "lstm2"
  recurrent_param {
    num_output: 1000
    weight_filler {
      type: "uniform"
      min: -0.08
      max: 0.08
    }
    bias_filler {
      type: "constant"
      value: 0
    }
  }
}
layer {
  name: "predict"
  type: "InnerProduct"
  bottom: "lstm2"
  top: "predict"
  param {
    lr_mult: 1
    decay_mult: 1
  }
  param {
    lr_mult: 2
    decay_mult: 0
  }
  inner_product_param {
    num_output: 46168
    weight_filler {
      type: "uniform"
      min: -0.08
      max: 0.08
    }
    bias_filler {
      type: "constant"
      value: 0
    }
    axis: 2
  }
}
layer {
  name: "probs"
  type: "Softmax"
  bottom: "predict"
  top: "probs"
  softmax_param {
    axis: 2
  }
}
I0924 03:09:27.510812 16507 layer_factory.hpp:77] Creating layer data
I0924 03:09:27.510818 16491 net.cpp:399] input -> input_sentence
I0924 03:09:27.510831 16491 net.cpp:399] input -> stage_indicator
I0924 03:09:27.510833 16507 net.cpp:91] Creating Layer data
I0924 03:09:27.510844 16507 net.cpp:399] data -> data
I0924 03:09:27.510849 16509 net.cpp:49] Initializing net from parameters: 
name: "s2vt:features_to_lstm"
state {
  phase: TEST
}
layer {
  name: "input"
  type: "Input"
  top: "frames_fc7"
  top: "cont_sentence"
  top: "input_sentence"
  top: "stage_indicator"
  input_param {
    shape {
      dim: 1
      dim: 4096
    }
    shape {
      dim: 1
      dim: 1
    }
    shape {
      dim: 1
      dim: 1
    }
    shape {
      dim: 1
      dim: 1
    }
  }
}
layer {
  name: "embed_encoder"
  type: "InnerProduct"
  bottom: "frames_fc7"
  top: "embedded_in_frames"
  param {
    lr_mult: 1
    decay_mult: 1
  }
  param {
    lr_mult: 2
    decay_mult: 0
  }
  inner_product_param {
    num_output: 500
    weight_filler {
      type: "xavier"
    }
    bias_filler {
      type: "constant"
      value: 0.2
    }
  }
}
layer {
  name: "reshape_frames"
  type: "Reshape"
  bottom: "embedded_in_frames"
  top: "embedded_input_frames"
  reshape_param {
    shape {
      dim: 1
      dim: 1
      dim: 500
    }
  }
}
layer {
  name: "reshape_stage_indicator"
  type: "Reshape"
  bottom: "stage_indicator"
  top: "reshaped_stage_indicator"
  reshape_param {
    shape {
      dim: 1
      dim: 1
      dim: 1
    }
  }
}
layer {
  name: "embedding"
  type: "Embed"
  bottom: "input_sentence"
  top: "embedded_input_sentence"
  param {
    lr_mult: 1
  }
  embed_param {
    num_output: 500
    input_dim: 46168
    bias_term: false
    weight_filler {
      type: "uniform"
      min: -0.08
      max: 0.08
    }
  }
}
layer {
  name: "lstm1"
  type: "LSTM"
  bottom: "embedded_input_frames"
  bottom: "cont_sentence"
  top: "lstm1"
  recurrent_param {
    num_output: 1000
    weight_filler {
      type: "uniform"
      min: -0.08
      max: 0.08
    }
    bias_filler {
      type: "constant"
      value: 0
    }
  }
}
layer {
  name: "concat"
  type: "Concat"
  bottom: "lstm1"
  bottom: "embedded_input_sentence"
  bottom: "reshaped_stage_indicator"
  top: "lstm1_video_sequence"
  concat_param {
    concat_dim: 2
  }
}
layer {
  name: "lstm2"
  type: "LSTM"
  bottom: "lstm1_video_sequence"
  bottom: "cont_sentence"
  top: "lstm2"
  recurrent_param {
    num_output: 1000
    weight_filler {
      type: "uniform"
      min: -0.08
      max: 0.08
    }
    bias_filler {
      type: "constant"
      value: 0
    }
  }
}
layer {
  name: "predict"
  type: "InnerProduct"
  bottom: "lstm2"
  top: "predict"
  param {
    lr_mult: 1
    decay_mult: 1
  }
  param {
    lr_mult: 2
    decay_mult: 0
  }
  inner_product_param {
    num_output: 46168
    weight_filler {
      type: "uniform"
      min: -0.08
      max: 0.08
    }
    bias_filler {
      type: "constant"
      value: 0
    }
    axis: 2
  }
}
layer {
  name: "probs"
  type: "Softmax"
  bottom: "predict"
  top: "probs"
  softmax_param {
    axis: 2
  }
}
I0924 03:09:27.510913 16485 layer_factory.hpp:77] Creating layer input
I0924 03:09:27.510913 16515 layer_factory.hpp:77] Creating layer input
I0924 03:09:27.510916 16483 net.cpp:49] Initializing net from parameters: 
name: "s2vt:features_to_lstm"
state {
  phase: TEST
}
layer {
  name: "input"
  type: "Input"
  top: "frames_fc7"
  top: "cont_sentence"
  top: "input_sentence"
  top: "stage_indicator"
  input_param {
    shape {
      dim: 1
      dim: 4096
    }
    shape {
      dim: 1
      dim: 1
    }
    shape {
      dim: 1
      dim: 1
    }
    shape {
      dim: 1
      dim: 1
    }
  }
}
layer {
  name: "embed_encoder"
  type: "InnerProduct"
  bottom: "frames_fc7"
  top: "embedded_in_frames"
  param {
    lr_mult: 1
    decay_mult: 1
  }
  param {
    lr_mult: 2
    decay_mult: 0
  }
  inner_product_param {
    num_output: 500
    weight_filler {
      type: "xavier"
    }
    bias_filler {
      type: "constant"
      value: 0.2
    }
  }
}
layer {
  name: "reshape_frames"
  type: "Reshape"
  bottom: "embedded_in_frames"
  top: "embedded_input_frames"
  reshape_param {
    shape {
      dim: 1
      dim: 1
      dim: 500
    }
  }
}
layer {
  name: "reshape_stage_indicator"
  type: "Reshape"
  bottom: "stage_indicator"
  top: "reshaped_stage_indicator"
  reshape_param {
    shape {
      dim: 1
      dim: 1
      dim: 1
    }
  }
}
layer {
  name: "embedding"
  type: "Embed"
  bottom: "input_sentence"
  top: "embedded_input_sentence"
  param {
    lr_mult: 1
  }
  embed_param {
    num_output: 500
    input_dim: 46168
    bias_term: false
    weight_filler {
      type: "uniform"
      min: -0.08
      max: 0.08
    }
  }
}
layer {
  name: "lstm1"
  type: "LSTM"
  bottom: "embedded_input_frames"
  bottom: "cont_sentence"
  top: "lstm1"
  recurrent_param {
    num_output: 1000
    weight_filler {
      type: "uniform"
      min: -0.08
      max: 0.08
    }
    bias_filler {
      type: "constant"
      value: 0
    }
  }
}
layer {
  name: "concat"
  type: "Concat"
  bottom: "lstm1"
  bottom: "embedded_input_sentence"
  bottom: "reshaped_stage_indicator"
  top: "lstm1_video_sequence"
  concat_param {
    concat_dim: 2
  }
}
layer {
  name: "lstm2"
  type: "LSTM"
  bottom: "lstm1_video_sequence"
  bottom: "cont_sentence"
  top: "lstm2"
  recurrent_param {
    num_output: 1000
    weight_filler {
      type: "uniform"
      min: -0.08
      max: 0.08
    }
    bias_filler {
      type: "constant"
      value: 0
    }
  }
}
layer {
  name: "predict"
  type: "InnerProduct"
  bottom: "lstm2"
  top: "predict"
  param {
    lr_mult: 1
    decay_mult: 1
  }
  param {
    lr_mult: 2
    decay_mult: 0
  }
  inner_product_param {
    num_output: 46168
    weight_filler {
      type: "uniform"
      min: -0.08
      max: 0.08
    }
    bias_filler {
      type: "constant"
      value: 0
    }
    axis: 2
  }
}
layer {
  name: "probs"
  type: "Softmax"
  bottom: "predict"
  top: "probs"
  softmax_param {
    axis: 2
  }
}
I0924 03:09:27.510944 16481 net.cpp:49] Initializing net from parameters: 
name: "s2vt:features_to_lstm"
state {
  phase: TEST
}
layer {
  name: "input"
  type: "Input"
  top: "frames_fc7"
  top: "cont_sentence"
  top: "input_sentence"
  top: "stage_indicator"
  input_param {
    shape {
      dim: 1
      dim: 4096
    }
    shape {
      dim: 1
      dim: 1
    }
    shape {
      dim: 1
      dim: 1
    }
    shape {
      dim: 1
      dim: 1
    }
  }
}
layer {
  name: "embed_encoder"
  type: "InnerProduct"
  bottom: "frames_fc7"
  top: "embedded_in_frames"
  param {
    lr_mult: 1
    decay_mult: 1
  }
  param {
    lr_mult: 2
    decay_mult: 0
  }
  inner_product_param {
    num_output: 500
    weight_filler {
      type: "xavier"
    }
    bias_filler {
      type: "constant"
      value: 0.2
    }
  }
}
layer {
  name: "reshape_frames"
  type: "Reshape"
  bottom: "embedded_in_frames"
  top: "embedded_input_frames"
  reshape_param {
    shape {
      dim: 1
      dim: 1
      dim: 500
    }
  }
}
layer {
  name: "reshape_stage_indicator"
  type: "Reshape"
  bottom: "stage_indicator"
  top: "reshaped_stage_indicator"
  reshape_param {
    shape {
      dim: 1
      dim: 1
      dim: 1
    }
  }
}
layer {
  name: "embedding"
  type: "Embed"
  bottom: "input_sentence"
  top: "embedded_input_sentence"
  param {
    lr_mult: 1
  }
  embed_param {
    num_output: 500
    input_dim: 46168
    bias_term: false
    weight_filler {
      type: "uniform"
      min: -0.08
      max: 0.08
    }
  }
}
layer {
  name: "lstm1"
  type: "LSTM"
  bottom: "embedded_input_frames"
  bottom: "cont_sentence"
  top: "lstm1"
  recurrent_param {
    num_output: 1000
    weight_filler {
      type: "uniform"
      min: -0.08
      max: 0.08
    }
    bias_filler {
      type: "constant"
      value: 0
    }
  }
}
layer {
  name: "concat"
  type: "Concat"
  bottom: "lstm1"
  bottom: "embedded_input_sentence"
  bottom: "reshaped_stage_indicator"
  top: "lstm1_video_sequence"
  concat_param {
    concat_dim: 2
  }
}
layer {
  name: "lstm2"
  type: "LSTM"
  bottom: "lstm1_video_sequence"
  bottom: "cont_sentence"
  top: "lstm2"
  recurrent_param {
    num_output: 1000
    weight_filler {
      type: "uniform"
      min: -0.08
      max: 0.08
    }
    bias_filler {
      type: "constant"
      value: 0
    }
  }
}
layer {
  name: "predict"
  type: "InnerProduct"
  bottom: "lstm2"
  top: "predict"
  param {
    lr_mult: 1
    decay_mult: 1
  }
  param {
    lr_mult: 2
    decay_mult: 0
  }
  inner_product_param {
    num_output: 46168
    weight_filler {
      type: "uniform"
      min: -0.08
      max: 0.08
    }
    bias_filler {
      type: "constant"
      value: 0
    }
    axis: 2
  }
}
layer {
  name: "probs"
  type: "Softmax"
  bottom: "predict"
  top: "probs"
  softmax_param {
    axis: 2
  }
}
I0924 03:09:27.510946 16485 net.cpp:91] Creating Layer input
I0924 03:09:27.510947 16515 net.cpp:91] Creating Layer input
I0924 03:09:27.510983 16485 net.cpp:399] input -> frames_fc7
I0924 03:09:27.510987 16515 net.cpp:399] input -> frames_fc7
I0924 03:09:27.511001 16509 layer_factory.hpp:77] Creating layer input
I0924 03:09:27.511004 16485 net.cpp:399] input -> cont_sentence
…
I0924 03:09:27.511164 16481 net.cpp:399] input -> frames_fc7
I0924 03:09:27.511153 16509 net.cpp:399] input -> stage_indicator
I0924 03:09:27.511185 16483 net.cpp:399] input -> cont_sentence
I0924 03:09:27.511185 16481 net.cpp:399] input -> cont_sentence
I0924 03:09:27.511209 16483 net.cpp:399] input -> input_sentence
I0924 03:09:27.511227 16483 net.cpp:399] input -> stage_indicator
I0924 03:09:27.511227 16481 net.cpp:399] input -> input_sentence
I0924 03:09:27.511255 16481 net.cpp:399] input -> stage_indicator
I0924 03:09:28.185642 16507 net.cpp:141] Setting up data
I0924 03:09:28.185735 16507 net.cpp:148] Top shape: 10 3 227 227 (1545870)
I0924 03:09:28.185750 16507 net.cpp:156] Memory required for data: 6183480
I0924 03:09:28.185765 16515 net.cpp:141] Setting up input
I0924 03:09:28.185781 16507 layer_factory.hpp:77] Creating layer conv1
I0924 03:09:28.185788 16515 net.cpp:148] Top shape: 1 4096 (4096)
I0924 03:09:28.185802 16515 net.cpp:148] Top shape: 1 1 (1)
I0924 03:09:28.185813 16515 net.cpp:148] Top shape: 1 1 (1)
I0924 03:09:28.185820 16515 net.cpp:148] Top shape: 1 1 (1)
I0924 03:09:28.185822 16507 net.cpp:91] Creating Layer conv1
I0924 03:09:28.185825 16515 net.cpp:156] Memory required for data: 16396
I0924 03:09:28.185844 16515 layer_factory.hpp:77] Creating layer cont_sentence_input_1_split
I0924 03:09:28.185878 16515 net.cpp:91] Creating Layer cont_sentence_input_1_split
I0924 03:09:28.185885 16515 net.cpp:425] cont_sentence_input_1_split <- cont_sentence
I0924 03:09:28.185889 16485 net.cpp:141] Setting up input
I0924 03:09:28.185910 16485 net.cpp:148] Top shape: 1 4096 (4096)
I0924 03:09:28.185911 16515 net.cpp:399] cont_sentence_input_1_split -> cont_sentence_input_1_split_0
I0924 03:09:28.185927 16485 net.cpp:148] Top shape: 1 1 (1)
I0924 03:09:28.185938 16515 net.cpp:399] cont_sentence_input_1_split -> cont_sentence_input_1_split_1
I0924 03:09:28.185938 16485 net.cpp:148] Top shape: 1 1 (1)
I0924 03:09:28.185950 16485 net.cpp:148] Top shape: 1 1 (1)
I0924 03:09:28.185958 16485 net.cpp:156] Memory required for data: 16396
I0924 03:09:28.185968 16485 layer_factory.hpp:77] Creating layer cont_sentence_input_1_split
I0924 03:09:28.185983 16485 net.cpp:91] Creating Layer cont_sentence_input_1_split
I0924 03:09:28.185992 16485 net.cpp:425] cont_sentence_input_1_split <- cont_sentence
I0924 03:09:28.186008 16485 net.cpp:399] cont_sentence_input_1_split -> cont_sentence_input_1_split_0
I0924 03:09:28.186022 16515 net.cpp:141] Setting up cont_sentence_input_1_split
I0924 03:09:28.186025 16485 net.cpp:399] cont_sentence_input_1_split -> cont_sentence_input_1_split_1
I0924 03:09:28.186034 16515 net.cpp:148] Top shape: 1 1 (1)
I0924 03:09:28.186041 16515 net.cpp:148] Top shape: 1 1 (1)
I0924 03:09:28.186046 16515 net.cpp:156] Memory required for data: 16404
I0924 03:09:28.186053 16515 layer_factory.hpp:77] Creating layer embed_encoder
I0924 03:09:28.186074 16515 net.cpp:91] Creating Layer embed_encoder
I0924 03:09:28.186084 16515 net.cpp:425] embed_encoder <- frames_fc7
I0924 03:09:28.186099 16515 net.cpp:399] embed_encoder -> embedded_in_frames
I0924 03:09:28.186290 16509 net.cpp:141] Setting up input
I0924 03:09:28.186333 16509 net.cpp:148] Top shape: 1 4096 (4096)
I0924 03:09:28.186347 16509 net.cpp:148] Top shape: 1 1 (1)
I0924 03:09:28.186358 16509 net.cpp:148] Top shape: 1 1 (1)
I0924 03:09:28.186368 16509 net.cpp:148] Top shape: 1 1 (1)
I0924 03:09:28.186378 16509 net.cpp:156] Memory required for data: 16396
I0924 03:09:28.186390 16509 layer_factory.hpp:77] Creating layer cont_sentence_input_1_split
I0924 03:09:28.186414 16509 net.cpp:91] Creating Layer cont_sentence_input_1_split
I0924 03:09:28.186424 16509 net.cpp:425] cont_sentence_input_1_split <- cont_sentence
I0924 03:09:28.186442 16509 net.cpp:399] cont_sentence_input_1_split -> cont_sentence_input_1_split_0
I0924 03:09:28.186463 16509 net.cpp:399] cont_sentence_input_1_split -> cont_sentence_input_1_split_1
I0924 03:09:28.186529 16509 net.cpp:141] Setting up cont_sentence_input_1_split
I0924 03:09:28.186545 16509 net.cpp:148] Top shape: 1 1 (1)
I0924 03:09:28.186555 16509 net.cpp:148] Top shape: 1 1 (1)
I0924 03:09:28.186564 16509 net.cpp:156] Memory required for data: 16404
I0924 03:09:28.186573 16509 layer_factory.hpp:77] Creating layer embed_encoder
I0924 03:09:28.186609 16509 net.cpp:91] Creating Layer embed_encoder
I0924 03:09:28.186621 16509 net.cpp:425] embed_encoder <- frames_fc7
I0924 03:09:28.186640 16509 net.cpp:399] embed_encoder -> embedded_in_frames
I0924 03:09:28.185843 16507 net.cpp:425] conv1 <- data
I0924 03:09:28.186671 16507 net.cpp:399] conv1 -> conv1
I0924 03:09:28.186802 16491 net.cpp:141] Setting up input
I0924 03:09:28.186821 16491 net.cpp:148] Top shape: 1 4096 (4096)
I0924 03:09:28.186830 16491 net.cpp:148] Top shape: 1 1 (1)
I0924 03:09:28.186836 16491 net.cpp:148] Top shape: 1 1 (1)
I0924 03:09:28.186841 16491 net.cpp:148] Top shape: 1 1 (1)
I0924 03:09:28.186846 16491 net.cpp:156] Memory required for data: 16396
I0924 03:09:28.186852 16491 layer_factory.hpp:77] Creating layer cont_sentence_input_1_split
I0924 03:09:28.186863 16491 net.cpp:91] Creating Layer cont_sentence_input_1_split
I0924 03:09:28.186868 16491 net.cpp:425] cont_sentence_input_1_split <- cont_sentence
I0924 03:09:28.186877 16491 net.cpp:399] cont_sentence_input_1_split -> cont_sentence_input_1_split_0
I0924 03:09:28.186887 16491 net.cpp:399] cont_sentence_input_1_split -> cont_sentence_input_1_split_1
I0924 03:09:28.186885 16481 net.cpp:141] Setting up input
I0924 03:09:28.186908 16481 net.cpp:148] Top shape: 1 4096 (4096)
I0924 03:09:28.186920 16481 net.cpp:148] Top shape: 1 1 (1)
I0924 03:09:28.186933 16481 net.cpp:148] Top shape: 1 1 (1)
I0924 03:09:28.186944 16481 net.cpp:148] Top shape: 1 1 (1)
I0924 03:09:28.186951 16481 net.cpp:156] Memory required for data: 16396
I0924 03:09:28.186961 16481 layer_factory.hpp:77] Creating layer cont_sentence_input_1_split
I0924 03:09:28.186976 16481 net.cpp:91] Creating Layer cont_sentence_input_1_split
I0924 03:09:28.186985 16481 net.cpp:425] cont_sentence_input_1_split <- cont_sentence
I0924 03:09:28.186998 16481 net.cpp:399] cont_sentence_input_1_split -> cont_sentence_input_1_split_0
I0924 03:09:28.187016 16481 net.cpp:399] cont_sentence_input_1_split -> cont_sentence_input_1_split_1
I0924 03:09:28.196509 16485 net.cpp:141] Setting up cont_sentence_input_1_split
I0924 03:09:28.196526 16491 net.cpp:141] Setting up cont_sentence_input_1_split
I0924 03:09:28.196559 16485 net.cpp:148] Top shape: 1 1 (1)
I0924 03:09:28.196563 16491 net.cpp:148] Top shape: 1 1 (1)
I0924 03:09:28.196576 16485 net.cpp:148] Top shape: 1 1 (1)
I0924 03:09:28.196578 16491 net.cpp:148] Top shape: 1 1 (1)
I0924 03:09:28.196589 16485 net.cpp:156] Memory required for data: 16404
I0924 03:09:28.196594 16491 net.cpp:156] Memory required for data: 16404
I0924 03:09:28.196604 16491 layer_factory.hpp:77] Creating layer embed_encoder
I0924 03:09:28.196604 16485 layer_factory.hpp:77] Creating layer embed_encoder
I0924 03:09:28.196599 16481 net.cpp:141] Setting up cont_sentence_input_1_split
I0924 03:09:28.196624 16491 net.cpp:91] Creating Layer embed_encoder
I0924 03:09:28.196627 16485 net.cpp:91] Creating Layer embed_encoder
I0924 03:09:28.196633 16491 net.cpp:425] embed_encoder <- frames_fc7
I0924 03:09:28.196638 16485 net.cpp:425] embed_encoder <- frames_fc7
I0924 03:09:28.196645 16481 net.cpp:148] Top shape: 1 1 (1)
I0924 03:09:28.196651 16491 net.cpp:399] embed_encoder -> embedded_in_frames
I0924 03:09:28.196655 16485 net.cpp:399] embed_encoder -> embedded_in_frames
I0924 03:09:28.196660 16483 net.cpp:141] Setting up input
I0924 03:09:28.196662 16481 net.cpp:148] Top shape: 1 1 (1)
I0924 03:09:28.196679 16483 net.cpp:148] Top shape: 1 4096 (4096)
I0924 03:09:28.196679 16481 net.cpp:156] Memory required for data: 16404
I0924 03:09:28.196696 16483 net.cpp:148] Top shape: 1 1 (1)
I0924 03:09:28.196699 16481 layer_factory.hpp:77] Creating layer embed_encoder
I0924 03:09:28.196707 16483 net.cpp:148] Top shape: 1 1 (1)
I0924 03:09:28.196717 16483 net.cpp:148] Top shape: 1 1 (1)
I0924 03:09:28.196724 16483 net.cpp:156] Memory required for data: 16396
I0924 03:09:28.196730 16481 net.cpp:91] Creating Layer embed_encoder
I0924 03:09:28.196733 16483 layer_factory.hpp:77] Creating layer cont_sentence_input_1_split
I0924 03:09:28.196741 16481 net.cpp:425] embed_encoder <- frames_fc7
I0924 03:09:28.196763 16481 net.cpp:399] embed_encoder -> embedded_in_frames
I0924 03:09:28.196763 16483 net.cpp:91] Creating Layer cont_sentence_input_1_split
I0924 03:09:28.196794 16483 net.cpp:425] cont_sentence_input_1_split <- cont_sentence
I0924 03:09:28.196810 16483 net.cpp:399] cont_sentence_input_1_split -> cont_sentence_input_1_split_0
I0924 03:09:28.196827 16483 net.cpp:399] cont_sentence_input_1_split -> cont_sentence_input_1_split_1
I0924 03:09:28.197605 16483 net.cpp:141] Setting up cont_sentence_input_1_split
I0924 03:09:28.197619 16483 net.cpp:148] Top shape: 1 1 (1)
I0924 03:09:28.197626 16483 net.cpp:148] Top shape: 1 1 (1)
I0924 03:09:28.197631 16483 net.cpp:156] Memory required for data: 16404
I0924 03:09:28.197638 16483 layer_factory.hpp:77] Creating layer embed_encoder
I0924 03:09:28.197662 16483 net.cpp:91] Creating Layer embed_encoder
I0924 03:09:28.197669 16483 net.cpp:425] embed_encoder <- frames_fc7
I0924 03:09:28.197677 16483 net.cpp:399] embed_encoder -> embedded_in_frames
I0924 03:09:28.218317 16515 net.cpp:141] Setting up embed_encoder
I0924 03:09:28.218369 16515 net.cpp:148] Top shape: 1 500 (500)
I0924 03:09:28.218376 16515 net.cpp:156] Memory required for data: 18404
I0924 03:09:28.218401 16515 layer_factory.hpp:77] Creating layer reshape_frames
I0924 03:09:28.218430 16515 net.cpp:91] Creating Layer reshape_frames
I0924 03:09:28.218438 16515 net.cpp:425] reshape_frames <- embedded_in_frames
I0924 03:09:28.218449 16515 net.cpp:399] reshape_frames -> embedded_input_frames
I0924 03:09:28.218536 16515 net.cpp:141] Setting up reshape_frames
I0924 03:09:28.218550 16515 net.cpp:148] Top shape: 1 1 500 (500)
I0924 03:09:28.218555 16515 net.cpp:156] Memory required for data: 20404
I0924 03:09:28.218560 16515 layer_factory.hpp:77] Creating layer reshape_stage_indicator
I0924 03:09:28.218572 16515 net.cpp:91] Creating Layer reshape_stage_indicator
I0924 03:09:28.218577 16515 net.cpp:425] reshape_stage_indicator <- stage_indicator
I0924 03:09:28.218586 16515 net.cpp:399] reshape_stage_indicator -> reshaped_stage_indicator
I0924 03:09:28.218636 16515 net.cpp:141] Setting up reshape_stage_indicator
I0924 03:09:28.218647 16515 net.cpp:148] Top shape: 1 1 1 (1)
I0924 03:09:28.218652 16515 net.cpp:156] Memory required for data: 20408
I0924 03:09:28.218657 16515 layer_factory.hpp:77] Creating layer embedding
I0924 03:09:28.218672 16515 net.cpp:91] Creating Layer embedding
I0924 03:09:28.218677 16515 net.cpp:425] embedding <- input_sentence
I0924 03:09:28.218685 16515 net.cpp:399] embedding -> embedded_input_sentence
I0924 03:09:28.262192 16483 net.cpp:141] Setting up embed_encoder
I0924 03:09:28.262210 16509 net.cpp:141] Setting up embed_encoder
I0924 03:09:28.262272 16483 net.cpp:148] Top shape: 1 500 (500)
I0924 03:09:28.262280 16481 net.cpp:141] Setting up embed_encoder
I0924 03:09:28.262290 16483 net.cpp:156] Memory required for data: 18404
I0924 03:09:28.262274 16509 net.cpp:148] Top shape: 1 500 (500)
I0924 03:09:28.262302 16481 net.cpp:148] Top shape: 1 500 (500)
I0924 03:09:28.262310 16509 net.cpp:156] Memory required for data: 18404
I0924 03:09:28.262311 16481 net.cpp:156] Memory required for data: 18404
I0924 03:09:28.262326 16483 layer_factory.hpp:77] Creating layer reshape_frames
I0924 03:09:28.262341 16481 layer_factory.hpp:77] Creating layer reshape_frames
I0924 03:09:28.262341 16509 layer_factory.hpp:77] Creating layer reshape_frames
I0924 03:09:28.262365 16481 net.cpp:91] Creating Layer reshape_frames
I0924 03:09:28.262368 16509 net.cpp:91] Creating Layer reshape_frames
I0924 03:09:28.262383 16481 net.cpp:425] reshape_frames <- embedded_in_frames
I0924 03:09:28.262374 16483 net.cpp:91] Creating Layer reshape_frames
I0924 03:09:28.262394 16509 net.cpp:425] reshape_frames <- embedded_in_frames
I0924 03:09:28.262400 16483 net.cpp:425] reshape_frames <- embedded_in_frames
I0924 03:09:28.262403 16481 net.cpp:399] reshape_frames -> embedded_input_frames
I0924 03:09:28.262413 16509 net.cpp:399] reshape_frames -> embedded_input_frames
I0924 03:09:28.262418 16483 net.cpp:399] reshape_frames -> embedded_input_frames
I0924 03:09:28.262439 16485 net.cpp:141] Setting up embed_encoder
I0924 03:09:28.262481 16509 net.cpp:141] Setting up reshape_frames
I0924 03:09:28.262493 16509 net.cpp:148] Top shape: 1 1 500 (500)
I0924 03:09:28.262500 16509 net.cpp:156] Memory required for data: 20404
I0924 03:09:28.262501 16485 net.cpp:148] Top shape: 1 500 (500)
I0924 03:09:28.262506 16509 layer_factory.hpp:77] Creating layer reshape_stage_indicator
I0924 03:09:28.262527 16485 net.cpp:156] Memory required for data: 18404
I0924 03:09:28.262542 16509 net.cpp:91] Creating Layer reshape_stage_indicator
I0924 03:09:28.262552 16509 net.cpp:425] reshape_stage_indicator <- stage_indicator
I0924 03:09:28.262568 16509 net.cpp:399] reshape_stage_indicator -> reshaped_stage_indicator
I0924 03:09:28.262569 16485 layer_factory.hpp:77] Creating layer reshape_frames
I0924 03:09:28.262588 16481 net.cpp:141] Setting up reshape_frames
I0924 03:09:28.262617 16481 net.cpp:148] Top shape: 1 1 500 (500)
I0924 03:09:28.262624 16481 net.cpp:156] Memory required for data: 20404
I0924 03:09:28.262631 16481 layer_factory.hpp:77] Creating layer reshape_stage_indicator
I0924 03:09:28.262626 16485 net.cpp:91] Creating Layer reshape_frames
I0924 03:09:28.262639 16483 net.cpp:141] Setting up reshape_frames
I0924 03:09:28.262643 16481 net.cpp:91] Creating Layer reshape_stage_indicator
I0924 03:09:28.262650 16485 net.cpp:425] reshape_frames <- embedded_in_frames
I0924 03:09:28.262662 16481 net.cpp:425] reshape_stage_indicator <- stage_indicator
I0924 03:09:28.262661 16483 net.cpp:148] Top shape: 1 1 500 (500)
I0924 03:09:28.262678 16481 net.cpp:399] reshape_stage_indicator -> reshaped_stage_indicator
I0924 03:09:28.262682 16483 net.cpp:156] Memory required for data: 20404
I0924 03:09:28.262688 16485 net.cpp:399] reshape_frames -> embedded_input_frames
I0924 03:09:28.262692 16483 layer_factory.hpp:77] Creating layer reshape_stage_indicator
I0924 03:09:28.262737 16483 net.cpp:91] Creating Layer reshape_stage_indicator
I0924 03:09:28.262748 16483 net.cpp:425] reshape_stage_indicator <- stage_indicator
I0924 03:09:28.262781 16491 net.cpp:141] Setting up embed_encoder
I0924 03:09:28.262799 16481 net.cpp:141] Setting up reshape_stage_indicator
I0924 03:09:28.262799 16483 net.cpp:399] reshape_stage_indicator -> reshaped_stage_indicator
I0924 03:09:28.262805 16491 net.cpp:148] Top shape: 1 500 (500)
I0924 03:09:28.262825 16481 net.cpp:148] Top shape: 1 1 1 (1)
I0924 03:09:28.262836 16481 net.cpp:156] Memory required for data: 20408
I0924 03:09:28.262831 16509 net.cpp:141] Setting up reshape_stage_indicator
I0924 03:09:28.262851 16481 layer_factory.hpp:77] Creating layer embedding
I0924 03:09:28.262831 16491 net.cpp:156] Memory required for data: 18404
I0924 03:09:28.262861 16509 net.cpp:148] Top shape: 1 1 1 (1)
I0924 03:09:28.262871 16481 net.cpp:91] Creating Layer embedding
I0924 03:09:28.262871 16509 net.cpp:156] Memory required for data: 20408
I0924 03:09:28.262881 16491 layer_factory.hpp:77] Creating layer reshape_frames
I0924 03:09:28.262884 16481 net.cpp:425] embedding <- input_sentence
I0924 03:09:28.262889 16509 layer_factory.hpp:77] Creating layer embedding
I0924 03:09:28.262892 16485 net.cpp:141] Setting up reshape_frames
I0924 03:09:28.262902 16481 net.cpp:399] embedding -> embedded_input_sentence
I0924 03:09:28.262904 16509 net.cpp:91] Creating Layer embedding
I0924 03:09:28.262898 16491 net.cpp:91] Creating Layer reshape_frames
I0924 03:09:28.262914 16509 net.cpp:425] embedding <- input_sentence
I0924 03:09:28.262918 16485 net.cpp:148] Top shape: 1 1 500 (500)
I0924 03:09:28.262920 16491 net.cpp:425] reshape_frames <- embedded_in_frames
I0924 03:09:28.262930 16509 net.cpp:399] embedding -> embedded_input_sentence
I0924 03:09:28.262935 16485 net.cpp:156] Memory required for data: 20404
I0924 03:09:28.262943 16483 net.cpp:141] Setting up reshape_stage_indicator
I0924 03:09:28.262948 16485 layer_factory.hpp:77] Creating layer reshape_stage_indicator
I0924 03:09:28.262953 16491 net.cpp:399] reshape_frames -> embedded_input_frames
I0924 03:09:28.262962 16483 net.cpp:148] Top shape: 1 1 1 (1)
I0924 03:09:28.262969 16485 net.cpp:91] Creating Layer reshape_stage_indicator
I0924 03:09:28.262971 16483 net.cpp:156] Memory required for data: 20408
I0924 03:09:28.262981 16485 net.cpp:425] reshape_stage_indicator <- stage_indicator
I0924 03:09:28.262984 16483 layer_factory.hpp:77] Creating layer embedding
I0924 03:09:28.263005 16485 net.cpp:399] reshape_stage_indicator -> reshaped_stage_indicator
I0924 03:09:28.263015 16483 net.cpp:91] Creating Layer embedding
I0924 03:09:28.263025 16483 net.cpp:425] embedding <- input_sentence
I0924 03:09:28.263049 16483 net.cpp:399] embedding -> embedded_input_sentence
I0924 03:09:28.352172 16491 net.cpp:141] Setting up reshape_frames
I0924 03:09:28.352222 16485 net.cpp:141] Setting up reshape_stage_indicator
I0924 03:09:28.352234 16491 net.cpp:148] Top shape: 1 1 500 (500)
I0924 03:09:28.352246 16491 net.cpp:156] Memory required for data: 20404
I0924 03:09:28.352246 16485 net.cpp:148] Top shape: 1 1 1 (1)
I0924 03:09:28.352257 16485 net.cpp:156] Memory required for data: 20408
I0924 03:09:28.352258 16491 layer_factory.hpp:77] Creating layer reshape_stage_indicator
I0924 03:09:28.352267 16485 layer_factory.hpp:77] Creating layer embedding
I0924 03:09:28.352285 16491 net.cpp:91] Creating Layer reshape_stage_indicator
I0924 03:09:28.352285 16485 net.cpp:91] Creating Layer embedding
I0924 03:09:28.352319 16491 net.cpp:425] reshape_stage_indicator <- stage_indicator
I0924 03:09:28.352324 16485 net.cpp:425] embedding <- input_sentence
I0924 03:09:28.352335 16491 net.cpp:399] reshape_stage_indicator -> reshaped_stage_indicator
I0924 03:09:28.352341 16485 net.cpp:399] embedding -> embedded_input_sentence
I0924 03:09:28.400329 16491 net.cpp:141] Setting up reshape_stage_indicator
I0924 03:09:28.400439 16491 net.cpp:148] Top shape: 1 1 1 (1)
I0924 03:09:28.400454 16491 net.cpp:156] Memory required for data: 20408
I0924 03:09:28.400471 16491 layer_factory.hpp:77] Creating layer embedding
I0924 03:09:28.400522 16491 net.cpp:91] Creating Layer embedding
I0924 03:09:28.400543 16491 net.cpp:425] embedding <- input_sentence
I0924 03:09:28.400569 16491 net.cpp:399] embedding -> embedded_input_sentence
I0924 03:09:28.497750 16509 net.cpp:141] Setting up embedding
I0924 03:09:28.497817 16509 net.cpp:148] Top shape: 1 1 500 (500)
I0924 03:09:28.497826 16509 net.cpp:156] Memory required for data: 22408
I0924 03:09:28.497853 16509 layer_factory.hpp:77] Creating layer lstm1
I0924 03:09:28.497846 16515 net.cpp:141] Setting up embedding
I0924 03:09:28.497882 16509 net.cpp:91] Creating Layer lstm1
I0924 03:09:28.497911 16509 net.cpp:425] lstm1 <- embedded_input_frames
I0924 03:09:28.497920 16515 net.cpp:148] Top shape: 1 1 500 (500)
I0924 03:09:28.497923 16509 net.cpp:425] lstm1 <- cont_sentence_input_1_split_0
I0924 03:09:28.497941 16515 net.cpp:156] Memory required for data: 22408
I0924 03:09:28.497956 16509 net.cpp:399] lstm1 -> lstm1
I0924 03:09:28.497979 16515 layer_factory.hpp:77] Creating layer lstm1
I0924 03:09:28.498013 16509 recurrent_layer.cpp:20] Initializing recurrent layer: assuming input batch contains 1 timesteps of 1 independent streams.
I0924 03:09:28.498018 16515 net.cpp:91] Creating Layer lstm1
I0924 03:09:28.498034 16515 net.cpp:425] lstm1 <- embedded_input_frames
I0924 03:09:28.498049 16515 net.cpp:425] lstm1 <- cont_sentence_input_1_split_0
I0924 03:09:28.498071 16515 net.cpp:399] lstm1 -> lstm1
I0924 03:09:28.498103 16515 recurrent_layer.cpp:20] Initializing recurrent layer: assuming input batch contains 1 timesteps of 1 independent streams.
I0924 03:09:28.498461 16509 net.cpp:49] Initializing net from parameters: 
layer {
  name: "lstm1_"
  type: "Input"
  top: "x"
  top: "cont"
  input_param {
    shape {
      dim: 1
      dim: 1
      dim: 500
    }
    shape {
      dim: 1
      dim: 1
    }
  }
}
layer {
  name: "lstm1_"
  type: "Input"
  top: "c_0"
  top: "h_0"
  input_param {
    shape {
      dim: 1
      dim: 1
      dim: 1000
    }
    shape {
      dim: 1
      dim: 1
      dim: 1000
    }
  }
}
layer {
  name: "lstm1_cont_slice"
  type: "Slice"
  bottom: "cont"
  top: "cont_1"
  slice_param {
    axis: 0
  }
}
layer {
  name: "lstm1_x_transform"
  type: "InnerProduct"
  bottom: "x"
  top: "W_xc_x"
  param {
    name: "W_xc"
  }
  param {
    name: "b_c"
  }
  propagate_down: true
  inner_product_param {
    num_output: 4000
    bias_term: true
    weight_filler {
      type: "uniform"
      min: -0.08
      max: 0.08
    }
    bias_filler {
      type: "constant"
      value: 0
    }
    axis: 2
  }
}
layer {
  name: "lstm1_W_xc_x_slice"
  type: "Slice"
  bottom: "W_xc_x"
  top: "W_xc_x_1"
  slice_param {
    axis: 0
  }
}
layer {
  name: "lstm1_h_conted_0"
  type: "Scale"
  bottom: "h_0"
  bottom: "cont_1"
  top: "h_conted_0"
  scale_param {
    axis: 0
  }
}
layer {
  name: "lstm1_transform_1"
  type: "InnerProduct"
  bottom: "h_conted_0"
  top: "W_hc_h_0"
  param {
    name: "W_hc"
  }
  inner_product_param {
    num_output: 4000
    bias_term: false
    weight_filler {
      type: "uniform"
      min: -0.08
      max: 0.08
    }
    axis: 2
  }
}
layer {
  name: "lstm1_gate_input_1"
  type: "Eltwise"
  bottom: "W_hc_h_0"
  bottom: "W_xc_x_1"
  top: "gate_input_1"
  eltwise_param {
    operation: SUM
  }
}
layer {
  name: "lstm1_unit_1"
  type: "LSTMUnit"
  bottom: "c_0"
  bottom: "gate_input_1"
  bottom: "cont_1"
  top: "c_1"
  top: "h_1"
}
layer {
  name: "lstm1_"
  type: "Split"
  bottom: "c_1"
  top: "c_T"
}
layer {
  name: "lstm1_h_concat"
  type: "Concat"
  bottom: "h_1"
  top: "h"
  concat_param {
    axis: 0
  }
}
layer {
  name: "h_pseudoloss"
  type: "Reduction"
  bottom: "h"
  top: "h_pseudoloss"
  loss_weight: 1
}
I0924 03:09:28.498563 16509 layer_factory.hpp:77] Creating layer lstm1_
I0924 03:09:28.498576 16509 net.cpp:91] Creating Layer lstm1_
I0924 03:09:28.498584 16509 net.cpp:399] lstm1_ -> x
I0924 03:09:28.498610 16509 net.cpp:399] lstm1_ -> cont
I0924 03:09:28.498648 16515 net.cpp:49] Initializing net from parameters: 
layer {
  name: "lstm1_"
  type: "Input"
  top: "x"
  top: "cont"
  input_param {
    shape {
      dim: 1
      dim: 1
      dim: 500
    }
    shape {
      dim: 1
      dim: 1
    }
  }
}
layer {
  name: "lstm1_"
  type: "Input"
  top: "c_0"
  top: "h_0"
  input_param {
    shape {
      dim: 1
      dim: 1
      dim: 1000
    }
    shape {
      dim: 1
      dim: 1
      dim: 1000
    }
  }
}
layer {
  name: "lstm1_cont_slice"
  type: "Slice"
  bottom: "cont"
  top: "cont_1"
  slice_param {
    axis: 0
  }
}
layer {
  name: "lstm1_x_transform"
  type: "InnerProduct"
  bottom: "x"
  top: "W_xc_x"
  param {
    name: "W_xc"
  }
  param {
    name: "b_c"
  }
  propagate_down: true
  inner_product_param {
    num_output: 4000
    bias_term: true
    weight_filler {
      type: "uniform"
      min: -0.08
      max: 0.08
    }
    bias_filler {
      type: "constant"
      value: 0
    }
    axis: 2
  }
}
layer {
  name: "lstm1_W_xc_x_slice"
  type: "Slice"
  bottom: "W_xc_x"
  top: "W_xc_x_1"
  slice_param {
    axis: 0
  }
}
layer {
  name: "lstm1_h_conted_0"
  type: "Scale"
  bottom: "h_0"
  bottom: "cont_1"
  top: "h_conted_0"
  scale_param {
    axis: 0
  }
}
layer {
  name: "lstm1_transform_1"
  type: "InnerProduct"
  bottom: "h_conted_0"
  top: "W_hc_h_0"
  param {
    name: "W_hc"
  }
  inner_product_param {
    num_output: 4000
    bias_term: false
    weight_filler {
      type: "uniform"
      min: -0.08
      max: 0.08
    }
    axis: 2
  }
}
layer {
  name: "lstm1_gate_input_1"
  type: "Eltwise"
  bottom: "W_hc_h_0"
  bottom: "W_xc_x_1"
  top: "gate_input_1"
  eltwise_param {
    operation: SUM
  }
}
layer {
  name: "lstm1_unit_1"
  type: "LSTMUnit"
  bottom: "c_0"
  bottom: "gate_input_1"
  bottom: "cont_1"
  top: "c_1"
  top: "h_1"
}
layer {
  name: "lstm1_"
  type: "Split"
  bottom: "c_1"
  top: "c_T"
}
layer {
  name: "lstm1_h_concat"
  type: "Concat"
  bottom: "h_1"
  top: "h"
  concat_param {
    axis: 0
  }
}
layer {
  name: "h_pseudoloss"
  type: "Reduction"
  bottom: "h"
  top: "h_pseudoloss"
  loss_weight: 1
}
I0924 03:09:28.498831 16515 layer_factory.hpp:77] Creating layer lstm1_
I0924 03:09:28.498857 16515 net.cpp:91] Creating Layer lstm1_
I0924 03:09:28.498870 16515 net.cpp:399] lstm1_ -> x
I0924 03:09:28.498894 16515 net.cpp:399] lstm1_ -> cont
I0924 03:09:28.499841 16509 net.cpp:141] Setting up lstm1_
I0924 03:09:28.499874 16509 net.cpp:148] Top shape: 1 1 500 (500)
I0924 03:09:28.499886 16509 net.cpp:148] Top shape: 1 1 (1)
I0924 03:09:28.499893 16509 net.cpp:156] Memory required for data: 2004
I0924 03:09:28.499903 16509 layer_factory.hpp:77] Creating layer lstm1_
I0924 03:09:28.499918 16509 net.cpp:91] Creating Layer lstm1_
I0924 03:09:28.499929 16509 net.cpp:399] lstm1_ -> c_0
I0924 03:09:28.499948 16509 net.cpp:399] lstm1_ -> h_0
I0924 03:09:28.500033 16509 net.cpp:141] Setting up lstm1_
I0924 03:09:28.500046 16509 net.cpp:148] Top shape: 1 1 1000 (1000)
I0924 03:09:28.500056 16509 net.cpp:148] Top shape: 1 1 1000 (1000)
I0924 03:09:28.500063 16509 net.cpp:156] Memory required for data: 10004
I0924 03:09:28.500071 16509 layer_factory.hpp:77] Creating layer lstm1_cont_slice
I0924 03:09:28.500084 16509 net.cpp:91] Creating Layer lstm1_cont_slice
I0924 03:09:28.500092 16509 net.cpp:425] lstm1_cont_slice <- cont
I0924 03:09:28.500108 16509 net.cpp:399] lstm1_cont_slice -> cont_1
I0924 03:09:28.500190 16515 net.cpp:141] Setting up lstm1_
I0924 03:09:28.500237 16515 net.cpp:148] Top shape: 1 1 500 (500)
I0924 03:09:28.500239 16509 net.cpp:141] Setting up lstm1_cont_slice
I0924 03:09:28.500269 16515 net.cpp:148] Top shape: 1 1 (1)
I0924 03:09:28.500274 16509 net.cpp:148] Top shape: 1 1 (1)
I0924 03:09:28.500283 16509 net.cpp:156] Memory required for data: 10008
I0924 03:09:28.500282 16515 net.cpp:156] Memory required for data: 2004
I0924 03:09:28.500291 16509 layer_factory.hpp:77] Creating layer cont_1_lstm1_cont_slice_0_split
I0924 03:09:28.500301 16515 layer_factory.hpp:77] Creating layer lstm1_
I0924 03:09:28.500305 16509 net.cpp:91] Creating Layer cont_1_lstm1_cont_slice_0_split
I0924 03:09:28.500332 16509 net.cpp:425] cont_1_lstm1_cont_slice_0_split <- cont_1
I0924 03:09:28.500344 16509 net.cpp:399] cont_1_lstm1_cont_slice_0_split -> cont_1_lstm1_cont_slice_0_split_0
I0924 03:09:28.500346 16515 net.cpp:91] Creating Layer lstm1_
I0924 03:09:28.500361 16509 net.cpp:399] cont_1_lstm1_cont_slice_0_split -> cont_1_lstm1_cont_slice_0_split_1
I0924 03:09:28.500375 16515 net.cpp:399] lstm1_ -> c_0
I0924 03:09:28.500408 16515 net.cpp:399] lstm1_ -> h_0
I0924 03:09:28.500928 16509 net.cpp:141] Setting up cont_1_lstm1_cont_slice_0_split
I0924 03:09:28.500942 16509 net.cpp:148] Top shape: 1 1 (1)
I0924 03:09:28.500952 16509 net.cpp:148] Top shape: 1 1 (1)
I0924 03:09:28.500959 16509 net.cpp:156] Memory required for data: 10016
I0924 03:09:28.500967 16509 layer_factory.hpp:77] Creating layer lstm1_x_transform
I0924 03:09:28.500988 16509 net.cpp:91] Creating Layer lstm1_x_transform
I0924 03:09:28.500996 16509 net.cpp:425] lstm1_x_transform <- x
I0924 03:09:28.501008 16509 net.cpp:399] lstm1_x_transform -> W_xc_x
I0924 03:09:28.501037 16515 net.cpp:141] Setting up lstm1_
I0924 03:09:28.501055 16515 net.cpp:148] Top shape: 1 1 1000 (1000)
I0924 03:09:28.501065 16515 net.cpp:148] Top shape: 1 1 1000 (1000)
I0924 03:09:28.501072 16515 net.cpp:156] Memory required for data: 10004
I0924 03:09:28.501080 16515 layer_factory.hpp:77] Creating layer lstm1_cont_slice
I0924 03:09:28.501096 16515 net.cpp:91] Creating Layer lstm1_cont_slice
I0924 03:09:28.501103 16515 net.cpp:425] lstm1_cont_slice <- cont
I0924 03:09:28.501116 16515 net.cpp:399] lstm1_cont_slice -> cont_1
I0924 03:09:28.508361 16515 net.cpp:141] Setting up lstm1_cont_slice
I0924 03:09:28.508407 16515 net.cpp:148] Top shape: 1 1 (1)
I0924 03:09:28.508415 16515 net.cpp:156] Memory required for data: 10008
I0924 03:09:28.508427 16515 layer_factory.hpp:77] Creating layer cont_1_lstm1_cont_slice_0_split
I0924 03:09:28.508448 16515 net.cpp:91] Creating Layer cont_1_lstm1_cont_slice_0_split
I0924 03:09:28.508458 16515 net.cpp:425] cont_1_lstm1_cont_slice_0_split <- cont_1
I0924 03:09:28.508472 16515 net.cpp:399] cont_1_lstm1_cont_slice_0_split -> cont_1_lstm1_cont_slice_0_split_0
I0924 03:09:28.508489 16515 net.cpp:399] cont_1_lstm1_cont_slice_0_split -> cont_1_lstm1_cont_slice_0_split_1
I0924 03:09:28.513447 16515 net.cpp:141] Setting up cont_1_lstm1_cont_slice_0_split
I0924 03:09:28.513483 16515 net.cpp:148] Top shape: 1 1 (1)
I0924 03:09:28.513491 16515 net.cpp:148] Top shape: 1 1 (1)
I0924 03:09:28.513499 16515 net.cpp:156] Memory required for data: 10016
I0924 03:09:28.513509 16515 layer_factory.hpp:77] Creating layer lstm1_x_transform
I0924 03:09:28.513533 16515 net.cpp:91] Creating Layer lstm1_x_transform
I0924 03:09:28.513542 16515 net.cpp:425] lstm1_x_transform <- x
I0924 03:09:28.513559 16515 net.cpp:399] lstm1_x_transform -> W_xc_x
I0924 03:09:28.533867 16509 net.cpp:141] Setting up lstm1_x_transform
I0924 03:09:28.533923 16509 net.cpp:148] Top shape: 1 1 4000 (4000)
I0924 03:09:28.533933 16509 net.cpp:156] Memory required for data: 26016
I0924 03:09:28.533964 16509 layer_factory.hpp:77] Creating layer lstm1_W_xc_x_slice
I0924 03:09:28.533989 16509 net.cpp:91] Creating Layer lstm1_W_xc_x_slice
I0924 03:09:28.534001 16509 net.cpp:425] lstm1_W_xc_x_slice <- W_xc_x
I0924 03:09:28.534018 16509 net.cpp:399] lstm1_W_xc_x_slice -> W_xc_x_1
I0924 03:09:28.534088 16509 net.cpp:141] Setting up lstm1_W_xc_x_slice
I0924 03:09:28.534104 16509 net.cpp:148] Top shape: 1 1 4000 (4000)
I0924 03:09:28.534112 16509 net.cpp:156] Memory required for data: 42016
I0924 03:09:28.534121 16509 layer_factory.hpp:77] Creating layer lstm1_h_conted_0
I0924 03:09:28.534149 16509 net.cpp:91] Creating Layer lstm1_h_conted_0
I0924 03:09:28.534159 16509 net.cpp:425] lstm1_h_conted_0 <- h_0
I0924 03:09:28.534169 16509 net.cpp:425] lstm1_h_conted_0 <- cont_1_lstm1_cont_slice_0_split_0
I0924 03:09:28.534183 16509 net.cpp:399] lstm1_h_conted_0 -> h_conted_0
I0924 03:09:28.534620 16509 net.cpp:141] Setting up lstm1_h_conted_0
I0924 03:09:28.534638 16509 net.cpp:148] Top shape: 1 1 1000 (1000)
I0924 03:09:28.534646 16509 net.cpp:156] Memory required for data: 46016
I0924 03:09:28.534654 16509 layer_factory.hpp:77] Creating layer lstm1_transform_1
I0924 03:09:28.534674 16509 net.cpp:91] Creating Layer lstm1_transform_1
I0924 03:09:28.534683 16509 net.cpp:425] lstm1_transform_1 <- h_conted_0
I0924 03:09:28.534698 16509 net.cpp:399] lstm1_transform_1 -> W_hc_h_0
I0924 03:09:28.554471 16515 net.cpp:141] Setting up lstm1_x_transform
I0924 03:09:28.554520 16515 net.cpp:148] Top shape: 1 1 4000 (4000)
I0924 03:09:28.554530 16515 net.cpp:156] Memory required for data: 26016
I0924 03:09:28.554556 16515 layer_factory.hpp:77] Creating layer lstm1_W_xc_x_slice
I0924 03:09:28.554575 16515 net.cpp:91] Creating Layer lstm1_W_xc_x_slice
I0924 03:09:28.554586 16515 net.cpp:425] lstm1_W_xc_x_slice <- W_xc_x
I0924 03:09:28.554616 16515 net.cpp:399] lstm1_W_xc_x_slice -> W_xc_x_1
I0924 03:09:28.555922 16515 net.cpp:141] Setting up lstm1_W_xc_x_slice
I0924 03:09:28.555943 16515 net.cpp:148] Top shape: 1 1 4000 (4000)
I0924 03:09:28.555951 16515 net.cpp:156] Memory required for data: 42016
I0924 03:09:28.555960 16515 layer_factory.hpp:77] Creating layer lstm1_h_conted_0
I0924 03:09:28.555977 16515 net.cpp:91] Creating Layer lstm1_h_conted_0
I0924 03:09:28.555989 16515 net.cpp:425] lstm1_h_conted_0 <- h_0
I0924 03:09:28.555999 16515 net.cpp:425] lstm1_h_conted_0 <- cont_1_lstm1_cont_slice_0_split_0
I0924 03:09:28.556012 16515 net.cpp:399] lstm1_h_conted_0 -> h_conted_0
I0924 03:09:28.556356 16515 net.cpp:141] Setting up lstm1_h_conted_0
I0924 03:09:28.556377 16515 net.cpp:148] Top shape: 1 1 1000 (1000)
I0924 03:09:28.556386 16515 net.cpp:156] Memory required for data: 46016
I0924 03:09:28.556396 16515 layer_factory.hpp:77] Creating layer lstm1_transform_1
I0924 03:09:28.556416 16515 net.cpp:91] Creating Layer lstm1_transform_1
I0924 03:09:28.556426 16515 net.cpp:425] lstm1_transform_1 <- h_conted_0
I0924 03:09:28.556443 16515 net.cpp:399] lstm1_transform_1 -> W_hc_h_0
I0924 03:09:28.575768 16481 net.cpp:141] Setting up embedding
I0924 03:09:28.575829 16481 net.cpp:148] Top shape: 1 1 500 (500)
I0924 03:09:28.575842 16481 net.cpp:156] Memory required for data: 22408
I0924 03:09:28.575870 16481 layer_factory.hpp:77] Creating layer lstm1
I0924 03:09:28.575901 16481 net.cpp:91] Creating Layer lstm1
I0924 03:09:28.575916 16481 net.cpp:425] lstm1 <- embedded_input_frames
I0924 03:09:28.575930 16481 net.cpp:425] lstm1 <- cont_sentence_input_1_split_0
I0924 03:09:28.575948 16481 net.cpp:399] lstm1 -> lstm1
I0924 03:09:28.575976 16481 recurrent_layer.cpp:20] Initializing recurrent layer: assuming input batch contains 1 timesteps of 1 independent streams.
I0924 03:09:28.576468 16481 net.cpp:49] Initializing net from parameters: 
layer {
  name: "lstm1_"
  type: "Input"
  top: "x"
  top: "cont"
  input_param {
    shape {
      dim: 1
      dim: 1
      dim: 500
    }
    shape {
      dim: 1
      dim: 1
    }
  }
}
layer {
  name: "lstm1_"
  type: "Input"
  top: "c_0"
  top: "h_0"
  input_param {
    shape {
      dim: 1
      dim: 1
      dim: 1000
    }
    shape {
      dim: 1
      dim: 1
      dim: 1000
    }
  }
}
layer {
  name: "lstm1_cont_slice"
  type: "Slice"
  bottom: "cont"
  top: "cont_1"
  slice_param {
    axis: 0
  }
}
layer {
  name: "lstm1_x_transform"
  type: "InnerProduct"
  bottom: "x"
  top: "W_xc_x"
  param {
    name: "W_xc"
  }
  param {
    name: "b_c"
  }
  propagate_down: true
  inner_product_param {
    num_output: 4000
    bias_term: true
    weight_filler {
      type: "uniform"
      min: -0.08
      max: 0.08
    }
    bias_filler {
      type: "constant"
      value: 0
    }
    axis: 2
  }
}
layer {
  name: "lstm1_W_xc_x_slice"
  type: "Slice"
  bottom: "W_xc_x"
  top: "W_xc_x_1"
  slice_param {
    axis: 0
  }
}
layer {
  name: "lstm1_h_conted_0"
  type: "Scale"
  bottom: "h_0"
  bottom: "cont_1"
  top: "h_conted_0"
  scale_param {
    axis: 0
  }
}
layer {
  name: "lstm1_transform_1"
  type: "InnerProduct"
  bottom: "h_conted_0"
  top: "W_hc_h_0"
  param {
    name: "W_hc"
  }
  inner_product_param {
    num_output: 4000
    bias_term: false
    weight_filler {
      type: "uniform"
      min: -0.08
      max: 0.08
    }
    axis: 2
  }
}
layer {
  name: "lstm1_gate_input_1"
  type: "Eltwise"
  bottom: "W_hc_h_0"
  bottom: "W_xc_x_1"
  top: "gate_input_1"
  eltwise_param {
    operation: SUM
  }
}
layer {
  name: "lstm1_unit_1"
  type: "LSTMUnit"
  bottom: "c_0"
  bottom: "gate_input_1"
  bottom: "cont_1"
  top: "c_1"
  top: "h_1"
}
layer {
  name: "lstm1_"
  type: "Split"
  bottom: "c_1"
  top: "c_T"
}
layer {
  name: "lstm1_h_concat"
  type: "Concat"
  bottom: "h_1"
  top: "h"
  concat_param {
    axis: 0
  }
}
layer {
  name: "h_pseudoloss"
  type: "Reduction"
  bottom: "h"
  top: "h_pseudoloss"
  loss_weight: 1
}
I0924 03:09:28.576572 16481 layer_factory.hpp:77] Creating layer lstm1_
I0924 03:09:28.576587 16481 net.cpp:91] Creating Layer lstm1_
I0924 03:09:28.576594 16481 net.cpp:399] lstm1_ -> x
I0924 03:09:28.576608 16481 net.cpp:399] lstm1_ -> cont
I0924 03:09:28.585068 16481 net.cpp:141] Setting up lstm1_
I0924 03:09:28.585113 16481 net.cpp:148] Top shape: 1 1 500 (500)
I0924 03:09:28.585120 16481 net.cpp:148] Top shape: 1 1 (1)
I0924 03:09:28.585125 16481 net.cpp:156] Memory required for data: 2004
I0924 03:09:28.585135 16481 layer_factory.hpp:77] Creating layer lstm1_
I0924 03:09:28.585163 16481 net.cpp:91] Creating Layer lstm1_
I0924 03:09:28.585160 16509 net.cpp:141] Setting up lstm1_transform_1
I0924 03:09:28.585185 16481 net.cpp:399] lstm1_ -> c_0
I0924 03:09:28.585211 16509 net.cpp:148] Top shape: 1 1 4000 (4000)
I0924 03:09:28.585218 16509 net.cpp:156] Memory required for data: 62016
I0924 03:09:28.585221 16481 net.cpp:399] lstm1_ -> h_0
I0924 03:09:28.585238 16509 layer_factory.hpp:77] Creating layer lstm1_gate_input_1
I0924 03:09:28.585259 16509 net.cpp:91] Creating Layer lstm1_gate_input_1
I0924 03:09:28.585268 16509 net.cpp:425] lstm1_gate_input_1 <- W_hc_h_0
I0924 03:09:28.585275 16509 net.cpp:425] lstm1_gate_input_1 <- W_xc_x_1
I0924 03:09:28.585283 16509 net.cpp:399] lstm1_gate_input_1 -> gate_input_1
I0924 03:09:28.585328 16481 net.cpp:141] Setting up lstm1_
I0924 03:09:28.585341 16481 net.cpp:148] Top shape: 1 1 1000 (1000)
I0924 03:09:28.585348 16481 net.cpp:148] Top shape: 1 1 1000 (1000)
I0924 03:09:28.585352 16481 net.cpp:156] Memory required for data: 10004
I0924 03:09:28.585358 16481 layer_factory.hpp:77] Creating layer lstm1_cont_slice
I0924 03:09:28.585366 16509 net.cpp:141] Setting up lstm1_gate_input_1
I0924 03:09:28.585369 16481 net.cpp:91] Creating Layer lstm1_cont_slice
I0924 03:09:28.585381 16509 net.cpp:148] Top shape: 1 1 4000 (4000)
I0924 03:09:28.585386 16481 net.cpp:425] lstm1_cont_slice <- cont
I0924 03:09:28.585387 16509 net.cpp:156] Memory required for data: 78016
I0924 03:09:28.585407 16509 layer_factory.hpp:77] Creating layer lstm1_unit_1
I0924 03:09:28.585407 16481 net.cpp:399] lstm1_cont_slice -> cont_1
I0924 03:09:28.585434 16509 net.cpp:91] Creating Layer lstm1_unit_1
I0924 03:09:28.585441 16509 net.cpp:425] lstm1_unit_1 <- c_0
I0924 03:09:28.585448 16509 net.cpp:425] lstm1_unit_1 <- gate_input_1
I0924 03:09:28.585454 16509 net.cpp:425] lstm1_unit_1 <- cont_1_lstm1_cont_slice_0_split_1
I0924 03:09:28.585461 16509 net.cpp:399] lstm1_unit_1 -> c_1
I0924 03:09:28.585471 16509 net.cpp:399] lstm1_unit_1 -> h_1
I0924 03:09:28.585474 16481 net.cpp:141] Setting up lstm1_cont_slice
I0924 03:09:28.585485 16481 net.cpp:148] Top shape: 1 1 (1)
I0924 03:09:28.585490 16481 net.cpp:156] Memory required for data: 10008
I0924 03:09:28.585495 16481 layer_factory.hpp:77] Creating layer cont_1_lstm1_cont_slice_0_split
I0924 03:09:28.585505 16481 net.cpp:91] Creating Layer cont_1_lstm1_cont_slice_0_split
I0924 03:09:28.585510 16481 net.cpp:425] cont_1_lstm1_cont_slice_0_split <- cont_1
I0924 03:09:28.585517 16481 net.cpp:399] cont_1_lstm1_cont_slice_0_split -> cont_1_lstm1_cont_slice_0_split_0
I0924 03:09:28.585525 16481 net.cpp:399] cont_1_lstm1_cont_slice_0_split -> cont_1_lstm1_cont_slice_0_split_1
I0924 03:09:28.585594 16509 net.cpp:141] Setting up lstm1_unit_1
I0924 03:09:28.585608 16509 net.cpp:148] Top shape: 1 1 1000 (1000)
I0924 03:09:28.585614 16509 net.cpp:148] Top shape: 1 1 1000 (1000)
I0924 03:09:28.585619 16509 net.cpp:156] Memory required for data: 86016
I0924 03:09:28.585625 16509 layer_factory.hpp:77] Creating layer lstm1_
I0924 03:09:28.585634 16509 net.cpp:91] Creating Layer lstm1_
I0924 03:09:28.585639 16509 net.cpp:425] lstm1_ <- c_1
I0924 03:09:28.585647 16509 net.cpp:399] lstm1_ -> c_T
I0924 03:09:28.585705 16509 net.cpp:141] Setting up lstm1_
I0924 03:09:28.585716 16509 net.cpp:148] Top shape: 1 1 1000 (1000)
I0924 03:09:28.585721 16509 net.cpp:156] Memory required for data: 90016
I0924 03:09:28.585726 16509 layer_factory.hpp:77] Creating layer lstm1_h_concat
I0924 03:09:28.585739 16509 net.cpp:91] Creating Layer lstm1_h_concat
I0924 03:09:28.585744 16509 net.cpp:425] lstm1_h_concat <- h_1
I0924 03:09:28.585752 16509 net.cpp:399] lstm1_h_concat -> h
I0924 03:09:28.585757 16481 net.cpp:141] Setting up cont_1_lstm1_cont_slice_0_split
I0924 03:09:28.585769 16481 net.cpp:148] Top shape: 1 1 (1)
I0924 03:09:28.585777 16481 net.cpp:148] Top shape: 1 1 (1)
I0924 03:09:28.585782 16481 net.cpp:156] Memory required for data: 10016
I0924 03:09:28.585788 16481 layer_factory.hpp:77] Creating layer lstm1_x_transform
I0924 03:09:28.585818 16481 net.cpp:91] Creating Layer lstm1_x_transform
I0924 03:09:28.585824 16481 net.cpp:425] lstm1_x_transform <- x
I0924 03:09:28.585827 16509 net.cpp:141] Setting up lstm1_h_concat
I0924 03:09:28.585836 16481 net.cpp:399] lstm1_x_transform -> W_xc_x
I0924 03:09:28.585839 16509 net.cpp:148] Top shape: 1 1 1000 (1000)
I0924 03:09:28.585844 16509 net.cpp:156] Memory required for data: 94016
I0924 03:09:28.585850 16509 layer_factory.hpp:77] Creating layer h_pseudoloss
I0924 03:09:28.585881 16509 net.cpp:91] Creating Layer h_pseudoloss
I0924 03:09:28.585889 16509 net.cpp:425] h_pseudoloss <- h
I0924 03:09:28.585899 16509 net.cpp:399] h_pseudoloss -> h_pseudoloss
I0924 03:09:28.591166 16509 net.cpp:141] Setting up h_pseudoloss
…
I0924 03:09:28.591421 16509 net.cpp:219] lstm1_ does not need backward computation.
I0924 03:09:28.591428 16509 net.cpp:261] This network produces output c_T
I0924 03:09:28.591439 16509 net.cpp:261] This network produces output h_pseudoloss
I0924 03:09:28.591472 16509 net.cpp:274] Network initialization done.
I0924 03:09:28.591572 16509 recurrent_layer.cpp:150] Adding parameter 0: W_xc
I0924 03:09:28.591584 16509 recurrent_layer.cpp:150] Adding parameter 1: b_c
I0924 03:09:28.591593 16509 recurrent_layer.cpp:150] Adding parameter 2: W_hc
I0924 03:09:28.592068 16509 net.cpp:141] Setting up lstm1
I0924 03:09:28.592087 16509 net.cpp:148] Top shape: 1 1 1000 (1000)
I0924 03:09:28.592094 16509 net.cpp:156] Memory required for data: 26408
I0924 03:09:28.592119 16509 layer_factory.hpp:77] Creating layer concat
I0924 03:09:28.592142 16509 net.cpp:91] Creating Layer concat
I0924 03:09:28.592154 16509 net.cpp:425] concat <- lstm1
I0924 03:09:28.592165 16509 net.cpp:425] concat <- embedded_input_sentence
I0924 03:09:28.592175 16509 net.cpp:425] concat <- reshaped_stage_indicator
I0924 03:09:28.592188 16509 net.cpp:399] concat -> lstm1_video_sequence
I0924 03:09:28.595752 16509 net.cpp:141] Setting up concat
I0924 03:09:28.595774 16509 net.cpp:148] Top shape: 1 1 1501 (1501)
I0924 03:09:28.595782 16509 net.cpp:156] Memory required for data: 32412
I0924 03:09:28.595791 16509 layer_factory.hpp:77] Creating layer lstm2
I0924 03:09:28.595815 16509 net.cpp:91] Creating Layer lstm2
I0924 03:09:28.595825 16509 net.cpp:425] lstm2 <- lstm1_video_sequence
I0924 03:09:28.595836 16509 net.cpp:425] lstm2 <- cont_sentence_input_1_split_1
I0924 03:09:28.595849 16509 net.cpp:399] lstm2 -> lstm2
I0924 03:09:28.595867 16509 recurrent_layer.cpp:20] Initializing recurrent layer: assuming input batch contains 1 timesteps of 1 independent streams.
I0924 03:09:28.596273 16509 net.cpp:49] Initializing net from parameters: 
layer {
  name: "lstm2_"
  type: "Input"
  top: "x"
  top: "cont"
  input_param {
    shape {
      dim: 1
      dim: 1
      dim: 1501
    }
    shape {
      dim: 1
      dim: 1
    }
  }
}
layer {
  name: "lstm2_"
  type: "Input"
  top: "c_0"
  top: "h_0"
  input_param {
    shape {
      dim: 1
      dim: 1
      dim: 1000
    }
    shape {
      dim: 1
      dim: 1
      dim: 1000
    }
  }
}
layer {
  name: "lstm2_cont_slice"
  type: "Slice"
  bottom: "cont"
  top: "cont_1"
  slice_param {
    axis: 0
  }
}
layer {
  name: "lstm2_x_transform"
  type: "InnerProduct"
  bottom: "x"
  top: "W_xc_x"
  param {
    name: "W_xc"
  }
  param {
    name: "b_c"
  }
  propagate_down: true
  inner_product_param {
    num_output: 4000
    bias_term: true
    weight_filler {
      type: "uniform"
      min: -0.08
      max: 0.08
    }
    bias_filler {
      type: "constant"
      value: 0
    }
    axis: 2
  }
}
layer {
  name: "lstm2_W_xc_x_slice"
  type: "Slice"
  bottom: "W_xc_x"
  top: "W_xc_x_1"
  slice_param {
    axis: 0
  }
}
layer {
  name: "lstm2_h_conted_0"
  type: "Scale"
  bottom: "h_0"
  bottom: "cont_1"
  top: "h_conted_0"
  scale_param {
    axis: 0
  }
}
layer {
  name: "lstm2_transform_1"
  type: "InnerProduct"
  bottom: "h_conted_0"
  top: "W_hc_h_0"
  param {
    name: "W_hc"
  }
  inner_product_param {
    num_output: 4000
    bias_term: false
    weight_filler {
      type: "uniform"
      min: -0.08
      max: 0.08
    }
    axis: 2
  }
}
layer {
  name: "lstm2_gate_input_1"
  type: "Eltwise"
  bottom: "W_hc_h_0"
  bottom: "W_xc_x_1"
  top: "gate_input_1"
  eltwise_param {
    operation: SUM
  }
}
layer {
  name: "lstm2_unit_1"
  type: "LSTMUnit"
  bottom: "c_0"
  bottom: "gate_input_1"
  bottom: "cont_1"
  top: "c_1"
  top: "h_1"
}
layer {
  name: "lstm2_"
  type: "Split"
  bottom: "c_1"
  top: "c_T"
}
layer {
  name: "lstm2_h_concat"
  type: "Concat"
  bottom: "h_1"
  top: "h"
  concat_param {
    axis: 0
  }
}
layer {
  name: "h_pseudoloss"
  type: "Reduction"
  bottom: "h"
  top: "h_pseudoloss"
  loss_weight: 1
}
I0924 03:09:28.596415 16509 layer_factory.hpp:77] Creating layer lstm2_
I0924 03:09:28.596434 16509 net.cpp:91] Creating Layer lstm2_
I0924 03:09:28.596446 16509 net.cpp:399] lstm2_ -> x
I0924 03:09:28.596463 16509 net.cpp:399] lstm2_ -> cont
I0924 03:09:28.598866 16509 net.cpp:141] Setting up lstm2_
I0924 03:09:28.598896 16509 net.cpp:148] Top shape: 1 1 1501 (1501)
I0924 03:09:28.598909 16509 net.cpp:148] Top shape: 1 1 (1)
I0924 03:09:28.598917 16509 net.cpp:156] Memory required for data: 6008
I0924 03:09:28.598929 16509 layer_factory.hpp:77] Creating layer lstm2_
I0924 03:09:28.598949 16509 net.cpp:91] Creating Layer lstm2_
I0924 03:09:28.598963 16509 net.cpp:399] lstm2_ -> c_0
I0924 03:09:28.598984 16509 net.cpp:399] lstm2_ -> h_0
I0924 03:09:28.600724 16509 net.cpp:141] Setting up lstm2_
I0924 03:09:28.600742 16509 net.cpp:148] Top shape: 1 1 1000 (1000)
I0924 03:09:28.600752 16509 net.cpp:148] Top shape: 1 1 1000 (1000)
I0924 03:09:28.600760 16509 net.cpp:156] Memory required for data: 14008
I0924 03:09:28.600769 16509 layer_factory.hpp:77] Creating layer lstm2_cont_slice
I0924 03:09:28.600785 16509 net.cpp:91] Creating Layer lstm2_cont_slice
I0924 03:09:28.600795 16509 net.cpp:425] lstm2_cont_slice <- cont
I0924 03:09:28.600813 16509 net.cpp:399] lstm2_cont_slice -> cont_1
I0924 03:09:28.605954 16509 net.cpp:141] Setting up lstm2_cont_slice
I0924 03:09:28.606005 16509 net.cpp:148] Top shape: 1 1 (1)
I0924 03:09:28.606016 16509 net.cpp:156] Memory required for data: 14012
I0924 03:09:28.606021 16483 net.cpp:141] Setting up embedding
I0924 03:09:28.606029 16509 layer_factory.hpp:77] Creating layer cont_1_lstm2_cont_slice_0_split
I0924 03:09:28.606043 16483 net.cpp:148] Top shape: 1 1 500 (500)
I0924 03:09:28.606052 16483 net.cpp:156] Memory required for data: 22408
I0924 03:09:28.606056 16509 net.cpp:91] Creating Layer cont_1_lstm2_cont_slice_0_split
I0924 03:09:28.606070 16509 net.cpp:425] cont_1_lstm2_cont_slice_0_split <- cont_1
I0924 03:09:28.606072 16483 layer_factory.hpp:77] Creating layer lstm1
I0924 03:09:28.606086 16509 net.cpp:399] cont_1_lstm2_cont_slice_0_split -> cont_1_lstm2_cont_slice_0_split_0
I0924 03:09:28.606092 16483 net.cpp:91] Creating Layer lstm1
I0924 03:09:28.606102 16483 net.cpp:425] lstm1 <- embedded_input_frames
I0924 03:09:28.606108 16509 net.cpp:399] cont_1_lstm2_cont_slice_0_split -> cont_1_lstm2_cont_slice_0_split_1
I0924 03:09:28.606112 16483 net.cpp:425] lstm1 <- cont_sentence_input_1_split_0
I0924 03:09:28.606129 16483 net.cpp:399] lstm1 -> lstm1
I0924 03:09:28.606148 16483 recurrent_layer.cpp:20] Initializing recurrent layer: assuming input batch contains 1 timesteps of 1 independent streams.
I0924 03:09:28.606575 16483 net.cpp:49] Initializing net from parameters: 
layer {
  name: "lstm1_"
  type: "Input"
  top: "x"
  top: "cont"
  input_param {
    shape {
      dim: 1
      dim: 1
      dim: 500
    }
    shape {
      dim: 1
      dim: 1
    }
  }
}
layer {
  name: "lstm1_"
  type: "Input"
  top: "c_0"
  top: "h_0"
  input_param {
    shape {
      dim: 1
      dim: 1
      dim: 1000
    }
    shape {
      dim: 1
      dim: 1
      dim: 1000
    }
  }
}
layer {
  name: "lstm1_cont_slice"
  type: "Slice"
  bottom: "cont"
  top: "cont_1"
  slice_param {
    axis: 0
  }
}
layer {
  name: "lstm1_x_transform"
  type: "InnerProduct"
  bottom: "x"
  top: "W_xc_x"
  param {
    name: "W_xc"
  }
  param {
    name: "b_c"
  }
  propagate_down: true
  inner_product_param {
    num_output: 4000
    bias_term: true
    weight_filler {
      type: "uniform"
      min: -0.08
      max: 0.08
    }
    bias_filler {
      type: "constant"
      value: 0
    }
    axis: 2
  }
}
layer {
  name: "lstm1_W_xc_x_slice"
  type: "Slice"
  bottom: "W_xc_x"
  top: "W_xc_x_1"
  slice_param {
    axis: 0
  }
}
layer {
  name: "lstm1_h_conted_0"
  type: "Scale"
  bottom: "h_0"
  bottom: "cont_1"
  top: "h_conted_0"
  scale_param {
    axis: 0
  }
}
layer {
  name: "lstm1_transform_1"
  type: "InnerProduct"
  bottom: "h_conted_0"
  top: "W_hc_h_0"
  param {
    name: "W_hc"
  }
  inner_product_param {
    num_output: 4000
    bias_term: false
    weight_filler {
      type: "uniform"
      min: -0.08
      max: 0.08
    }
    axis: 2
  }
}
layer {
  name: "lstm1_gate_input_1"
  type: "Eltwise"
  bottom: "W_hc_h_0"
  bottom: "W_xc_x_1"
  top: "gate_input_1"
  eltwise_param {
    operation: SUM
  }
}
layer {
  name: "lstm1_unit_1"
  type: "LSTMUnit"
  bottom: "c_0"
  bottom: "gate_input_1"
  bottom: "cont_1"
  top: "c_1"
  top: "h_1"
}
layer {
  name: "lstm1_"
  type: "Split"
  bottom: "c_1"
  top: "c_T"
}
layer {
  name: "lstm1_h_concat"
  type: "Concat"
  bottom: "h_1"
  top: "h"
  concat_param {
    axis: 0
  }
}
layer {
  name: "h_pseudoloss"
  type: "Reduction"
  bottom: "h"
  top: "h_pseudoloss"
  loss_weight: 1
}
I0924 03:09:28.606729 16483 layer_factory.hpp:77] Creating layer lstm1_
I0924 03:09:28.606748 16483 net.cpp:91] Creating Layer lstm1_
I0924 03:09:28.606760 16483 net.cpp:399] lstm1_ -> x
I0924 03:09:28.606776 16483 net.cpp:399] lstm1_ -> cont
I0924 03:09:28.609192 16509 net.cpp:141] Setting up cont_1_lstm2_cont_slice_0_split
I0924 03:09:28.609220 16509 net.cpp:148] Top shape: 1 1 (1)
I0924 03:09:28.609222 16483 net.cpp:141] Setting up lstm1_
I0924 03:09:28.609235 16509 net.cpp:148] Top shape: 1 1 (1)
I0924 03:09:28.609238 16483 net.cpp:148] Top shape: 1 1 500 (500)
I0924 03:09:28.609243 16509 net.cpp:156] Memory required for data: 14020
I0924 03:09:28.609249 16483 net.cpp:148] Top shape: 1 1 (1)
I0924 03:09:28.609256 16509 layer_factory.hpp:77] Creating layer lstm2_x_transform
I0924 03:09:28.609257 16483 net.cpp:156] Memory required for data: 2004
I0924 03:09:28.609267 16483 layer_factory.hpp:77] Creating layer lstm1_
I0924 03:09:28.609282 16483 net.cpp:91] Creating Layer lstm1_
I0924 03:09:28.609284 16509 net.cpp:91] Creating Layer lstm2_x_transform
I0924 03:09:28.609295 16509 net.cpp:425] lstm2_x_transform <- x
I0924 03:09:28.609299 16483 net.cpp:399] lstm1_ -> c_0
I0924 03:09:28.609313 16509 net.cpp:399] lstm2_x_transform -> W_xc_x
I0924 03:09:28.609318 16483 net.cpp:399] lstm1_ -> h_0
I0924 03:09:28.609410 16483 net.cpp:141] Setting up lstm1_
I0924 03:09:28.609423 16483 net.cpp:148] Top shape: 1 1 1000 (1000)
I0924 03:09:28.609433 16483 net.cpp:148] Top shape: 1 1 1000 (1000)
I0924 03:09:28.609441 16483 net.cpp:156] Memory required for data: 10004
I0924 03:09:28.609448 16483 layer_factory.hpp:77] Creating layer lstm1_cont_slice
I0924 03:09:28.609465 16483 net.cpp:91] Creating Layer lstm1_cont_slice
I0924 03:09:28.609473 16483 net.cpp:425] lstm1_cont_slice <- cont
I0924 03:09:28.609488 16483 net.cpp:399] lstm1_cont_slice -> cont_1
I0924 03:09:28.609539 16481 net.cpp:141] Setting up lstm1_x_transform
I0924 03:09:28.609578 16481 net.cpp:148] Top shape: 1 1 4000 (4000)
I0924 03:09:28.609588 16481 net.cpp:156] Memory required for data: 26016
I0924 03:09:28.609614 16481 layer_factory.hpp:77] Creating layer lstm1_W_xc_x_slice
I0924 03:09:28.609634 16481 net.cpp:91] Creating Layer lstm1_W_xc_x_slice
I0924 03:09:28.609644 16481 net.cpp:425] lstm1_W_xc_x_slice <- W_xc_x
I0924 03:09:28.609671 16481 net.cpp:399] lstm1_W_xc_x_slice -> W_xc_x_1
I0924 03:09:28.613556 16483 net.cpp:141] Setting up lstm1_cont_slice
I0924 03:09:28.613598 16481 net.cpp:141] Setting up lstm1_W_xc_x_slice
I0924 03:09:28.613617 16483 net.cpp:148] Top shape: 1 1 (1)
I0924 03:09:28.613626 16481 net.cpp:148] Top shape: 1 1 4000 (4000)
I0924 03:09:28.613631 16483 net.cpp:156] Memory required for data: 10008
I0924 03:09:28.613636 16481 net.cpp:156] Memory required for data: 42016
I0924 03:09:28.613646 16481 layer_factory.hpp:77] Creating layer lstm1_h_conted_0
I0924 03:09:28.613646 16483 layer_factory.hpp:77] Creating layer cont_1_lstm1_cont_slice_0_split
I0924 03:09:28.613664 16481 net.cpp:91] Creating Layer lstm1_h_conted_0
I0924 03:09:28.613703 16481 net.cpp:425] lstm1_h_conted_0 <- h_0
I0924 03:09:28.613715 16481 net.cpp:425] lstm1_h_conted_0 <- cont_1_lstm1_cont_slice_0_split_0
I0924 03:09:28.613724 16483 net.cpp:91] Creating Layer cont_1_lstm1_cont_slice_0_split
I0924 03:09:28.613737 16481 net.cpp:399] lstm1_h_conted_0 -> h_conted_0
I0924 03:09:28.613741 16483 net.cpp:425] cont_1_lstm1_cont_slice_0_split <- cont_1
I0924 03:09:28.613759 16483 net.cpp:399] cont_1_lstm1_cont_slice_0_split -> cont_1_lstm1_cont_slice_0_split_0
I0924 03:09:28.613795 16483 net.cpp:399] cont_1_lstm1_cont_slice_0_split -> cont_1_lstm1_cont_slice_0_split_1
I0924 03:09:28.613889 16481 net.cpp:141] Setting up lstm1_h_conted_0
I0924 03:09:28.613905 16481 net.cpp:148] Top shape: 1 1 1000 (1000)
I0924 03:09:28.613914 16481 net.cpp:156] Memory required for data: 46016
I0924 03:09:28.613922 16481 layer_factory.hpp:77] Creating layer lstm1_transform_1
I0924 03:09:28.613960 16481 net.cpp:91] Creating Layer lstm1_transform_1
I0924 03:09:28.613968 16481 net.cpp:425] lstm1_transform_1 <- h_conted_0
I0924 03:09:28.613982 16481 net.cpp:399] lstm1_transform_1 -> W_hc_h_0
I0924 03:09:28.637250 16483 net.cpp:141] Setting up cont_1_lstm1_cont_slice_0_split
I0924 03:09:28.637306 16483 net.cpp:148] Top shape: 1 1 (1)
I0924 03:09:28.637315 16483 net.cpp:148] Top shape: 1 1 (1)
I0924 03:09:28.637321 16483 net.cpp:156] Memory required for data: 10016
I0924 03:09:28.637337 16483 layer_factory.hpp:77] Creating layer lstm1_x_transform
I0924 03:09:28.637368 16483 net.cpp:91] Creating Layer lstm1_x_transform
I0924 03:09:28.637377 16483 net.cpp:425] lstm1_x_transform <- x
I0924 03:09:28.637398 16483 net.cpp:399] lstm1_x_transform -> W_xc_x
I0924 03:09:28.637397 16515 net.cpp:141] Setting up lstm1_transform_1
I0924 03:09:28.637416 16515 net.cpp:148] Top shape: 1 1 4000 (4000)
I0924 03:09:28.637423 16515 net.cpp:156] Memory required for data: 62016
I0924 03:09:28.637439 16515 layer_factory.hpp:77] Creating layer lstm1_gate_input_1
I0924 03:09:28.637459 16515 net.cpp:91] Creating Layer lstm1_gate_input_1
I0924 03:09:28.637467 16515 net.cpp:425] lstm1_gate_input_1 <- W_hc_h_0
I0924 03:09:28.637475 16515 net.cpp:425] lstm1_gate_input_1 <- W_xc_x_1
I0924 03:09:28.637483 16515 net.cpp:399] lstm1_gate_input_1 -> gate_input_1
I0924 03:09:28.649914 16515 net.cpp:141] Setting up lstm1_gate_input_1
I0924 03:09:28.649961 16515 net.cpp:148] Top shape: 1 1 4000 (4000)
I0924 03:09:28.649969 16515 net.cpp:156] Memory required for data: 78016
I0924 03:09:28.649978 16515 layer_factory.hpp:77] Creating layer lstm1_unit_1
I0924 03:09:28.649998 16515 net.cpp:91] Creating Layer lstm1_unit_1
I0924 03:09:28.650007 16515 net.cpp:425] lstm1_unit_1 <- c_0
I0924 03:09:28.650007 16485 net.cpp:141] Setting up embedding
I0924 03:09:28.650041 16515 net.cpp:425] lstm1_unit_1 <- gate_input_1
I0924 03:09:28.650064 16515 net.cpp:425] lstm1_unit_1 <- cont_1_lstm1_cont_slice_0_split_1
I0924 03:09:28.650065 16485 net.cpp:148] Top shape: 1 1 500 (500)
I0924 03:09:28.650076 16485 net.cpp:156] Memory required for data: 22408
I0924 03:09:28.650084 16515 net.cpp:399] lstm1_unit_1 -> c_1
I0924 03:09:28.650100 16485 layer_factory.hpp:77] Creating layer lstm1
I0924 03:09:28.650104 16515 net.cpp:399] lstm1_unit_1 -> h_1
I0924 03:09:28.650132 16485 net.cpp:91] Creating Layer lstm1
I0924 03:09:28.650144 16485 net.cpp:425] lstm1 <- embedded_input_frames
I0924 03:09:28.650156 16485 net.cpp:425] lstm1 <- cont_sentence_input_1_split_0
I0924 03:09:28.650173 16485 net.cpp:399] lstm1 -> lstm1
I0924 03:09:28.650195 16485 recurrent_layer.cpp:20] Initializing recurrent layer: assuming input batch contains 1 timesteps of 1 independent streams.
I0924 03:09:28.650581 16485 net.cpp:49] Initializing net from parameters: 
layer {
  name: "lstm1_"
  type: "Input"
  top: "x"
  top: "cont"
  input_param {
    shape {
      dim: 1
      dim: 1
      dim: 500
    }
    shape {
      dim: 1
      dim: 1
    }
  }
}
layer {
  name: "lstm1_"
  type: "Input"
  top: "c_0"
  top: "h_0"
  input_param {
    shape {
      dim: 1
      dim: 1
      dim: 1000
    }
    shape {
      dim: 1
      dim: 1
      dim: 1000
    }
  }
}
layer {
  name: "lstm1_cont_slice"
  type: "Slice"
  bottom: "cont"
  top: "cont_1"
  slice_param {
    axis: 0
  }
}
layer {
  name: "lstm1_x_transform"
  type: "InnerProduct"
  bottom: "x"
  top: "W_xc_x"
  param {
    name: "W_xc"
  }
  param {
    name: "b_c"
  }
  propagate_down: true
  inner_product_param {
    num_output: 4000
    bias_term: true
    weight_filler {
      type: "uniform"
      min: -0.08
      max: 0.08
    }
    bias_filler {
      type: "constant"
      value: 0
    }
    axis: 2
  }
}
layer {
  name: "lstm1_W_xc_x_slice"
  type: "Slice"
  bottom: "W_xc_x"
  top: "W_xc_x_1"
  slice_param {
    axis: 0
  }
}
layer {
  name: "lstm1_h_conted_0"
  type: "Scale"
  bottom: "h_0"
  bottom: "cont_1"
  top: "h_conted_0"
  scale_param {
    axis: 0
  }
}
layer {
  name: "lstm1_transform_1"
  type: "InnerProduct"
  bottom: "h_conted_0"
  top: "W_hc_h_0"
  param {
    name: "W_hc"
  }
  inner_product_param {
    num_output: 4000
    bias_term: false
    weight_filler {
      type: "uniform"
      min: -0.08
      max: 0.08
    }
    axis: 2
  }
}
layer {
  name: "lstm1_gate_input_1"
  type: "Eltwise"
  bottom: "W_hc_h_0"
  bottom: "W_xc_x_1"
  top: "gate_input_1"
  eltwise_param {
    operation: SUM
  }
}
layer {
  name: "lstm1_unit_1"
  type: "LSTMUnit"
  bottom: "c_0"
  bottom: "gate_input_1"
  bottom: "cont_1"
  top: "c_1"
  top: "h_1"
}
layer {
  name: "lstm1_"
  type: "Split"
  bottom: "c_1"
  top: "c_T"
}
layer {
  name: "lstm1_h_concat"
  type: "Concat"
  bottom: "h_1"
  top: "h"
  concat_param {
    axis: 0
  }
}
layer {
  name: "h_pseudoloss"
  type: "Reduction"
  bottom: "h"
  top: "h_pseudoloss"
  loss_weight: 1
}
I0924 03:09:28.650730 16485 layer_factory.hpp:77] Creating layer lstm1_
I0924 03:09:28.650750 16485 net.cpp:91] Creating Layer lstm1_
I0924 03:09:28.650761 16485 net.cpp:399] lstm1_ -> x
I0924 03:09:28.650779 16485 net.cpp:399] lstm1_ -> cont
I0924 03:09:28.653062 16515 net.cpp:141] Setting up lstm1_unit_1
I0924 03:09:28.653112 16515 net.cpp:148] Top shape: 1 1 1000 (1000)
I0924 03:09:28.653123 16515 net.cpp:148] Top shape: 1 1 1000 (1000)
I0924 03:09:28.653131 16515 net.cpp:156] Memory required for data: 86016
I0924 03:09:28.653144 16515 layer_factory.hpp:77] Creating layer lstm1_
I0924 03:09:28.653167 16515 net.cpp:91] Creating Layer lstm1_
I0924 03:09:28.653177 16515 net.cpp:425] lstm1_ <- c_1
I0924 03:09:28.653194 16515 net.cpp:399] lstm1_ -> c_T
I0924 03:09:28.653252 16515 net.cpp:141] Setting up lstm1_
I0924 03:09:28.653266 16515 net.cpp:148] Top shape: 1 1 1000 (1000)
I0924 03:09:28.653273 16515 net.cpp:156] Memory required for data: 90016
I0924 03:09:28.653281 16515 layer_factory.hpp:77] Creating layer lstm1_h_concat
I0924 03:09:28.653297 16515 net.cpp:91] Creating Layer lstm1_h_concat
I0924 03:09:28.653309 16515 net.cpp:425] lstm1_h_concat <- h_1
I0924 03:09:28.653321 16515 net.cpp:399] lstm1_h_concat -> h
I0924 03:09:28.653367 16515 net.cpp:141] Setting up lstm1_h_concat
I0924 03:09:28.653379 16515 net.cpp:148] Top shape: 1 1 1000 (1000)
I0924 03:09:28.653388 16515 net.cpp:156] Memory required for data: 94016
I0924 03:09:28.653395 16515 layer_factory.hpp:77] Creating layer h_pseudoloss
I0924 03:09:28.653414 16515 net.cpp:91] Creating Layer h_pseudoloss
I0924 03:09:28.653421 16515 net.cpp:425] h_pseudoloss <- h
I0924 03:09:28.653432 16515 net.cpp:399] h_pseudoloss -> h_pseudoloss
I0924 03:09:28.653568 16515 net.cpp:141] Setting up h_pseudoloss
…
I0924 03:09:28.653726 16515 net.cpp:219] lstm1_ does not need backward computation.
I0924 03:09:28.653733 16515 net.cpp:261] This network produces output c_T
I0924 03:09:28.653740 16515 net.cpp:261] This network produces output h_pseudoloss
I0924 03:09:28.653769 16515 net.cpp:274] Network initialization done.
I0924 03:09:28.653849 16515 recurrent_layer.cpp:150] Adding parameter 0: W_xc
I0924 03:09:28.653859 16515 recurrent_layer.cpp:150] Adding parameter 1: b_c
I0924 03:09:28.653867 16515 recurrent_layer.cpp:150] Adding parameter 2: W_hc
I0924 03:09:28.654013 16515 net.cpp:141] Setting up lstm1
I0924 03:09:28.654029 16515 net.cpp:148] Top shape: 1 1 1000 (1000)
I0924 03:09:28.654037 16515 net.cpp:156] Memory required for data: 26408
I0924 03:09:28.654060 16515 layer_factory.hpp:77] Creating layer concat
I0924 03:09:28.654074 16515 net.cpp:91] Creating Layer concat
I0924 03:09:28.654084 16515 net.cpp:425] concat <- lstm1
I0924 03:09:28.654095 16515 net.cpp:425] concat <- embedded_input_sentence
I0924 03:09:28.654104 16515 net.cpp:425] concat <- reshaped_stage_indicator
I0924 03:09:28.654115 16515 net.cpp:399] concat -> lstm1_video_sequence
I0924 03:09:28.654160 16515 net.cpp:141] Setting up concat
I0924 03:09:28.654172 16515 net.cpp:148] Top shape: 1 1 1501 (1501)
I0924 03:09:28.654181 16515 net.cpp:156] Memory required for data: 32412
I0924 03:09:28.654191 16515 layer_factory.hpp:77] Creating layer lstm2
I0924 03:09:28.654211 16515 net.cpp:91] Creating Layer lstm2
I0924 03:09:28.654219 16515 net.cpp:425] lstm2 <- lstm1_video_sequence
I0924 03:09:28.654229 16515 net.cpp:425] lstm2 <- cont_sentence_input_1_split_1
I0924 03:09:28.654242 16515 net.cpp:399] lstm2 -> lstm2
I0924 03:09:28.654258 16515 recurrent_layer.cpp:20] Initializing recurrent layer: assuming input batch contains 1 timesteps of 1 independent streams.
I0924 03:09:28.654661 16515 net.cpp:49] Initializing net from parameters: 
layer {
  name: "lstm2_"
  type: "Input"
  top: "x"
  top: "cont"
  input_param {
    shape {
      dim: 1
      dim: 1
      dim: 1501
    }
    shape {
      dim: 1
      dim: 1
    }
  }
}
layer {
  name: "lstm2_"
  type: "Input"
  top: "c_0"
  top: "h_0"
  input_param {
    shape {
      dim: 1
      dim: 1
      dim: 1000
    }
    shape {
      dim: 1
      dim: 1
      dim: 1000
    }
  }
}
layer {
  name: "lstm2_cont_slice"
  type: "Slice"
  bottom: "cont"
  top: "cont_1"
  slice_param {
    axis: 0
  }
}
layer {
  name: "lstm2_x_transform"
  type: "InnerProduct"
  bottom: "x"
  top: "W_xc_x"
  param {
    name: "W_xc"
  }
  param {
    name: "b_c"
  }
  propagate_down: true
  inner_product_param {
    num_output: 4000
    bias_term: true
    weight_filler {
      type: "uniform"
      min: -0.08
      max: 0.08
    }
    bias_filler {
      type: "constant"
      value: 0
    }
    axis: 2
  }
}
layer {
  name: "lstm2_W_xc_x_slice"
  type: "Slice"
  bottom: "W_xc_x"
  top: "W_xc_x_1"
  slice_param {
    axis: 0
  }
}
layer {
  name: "lstm2_h_conted_0"
  type: "Scale"
  bottom: "h_0"
  bottom: "cont_1"
  top: "h_conted_0"
  scale_param {
    axis: 0
  }
}
layer {
  name: "lstm2_transform_1"
  type: "InnerProduct"
  bottom: "h_conted_0"
  top: "W_hc_h_0"
  param {
    name: "W_hc"
  }
  inner_product_param {
    num_output: 4000
    bias_term: false
    weight_filler {
      type: "uniform"
      min: -0.08
      max: 0.08
    }
    axis: 2
  }
}
layer {
  name: "lstm2_gate_input_1"
  type: "Eltwise"
  bottom: "W_hc_h_0"
  bottom: "W_xc_x_1"
  top: "gate_input_1"
  eltwise_param {
    operation: SUM
  }
}
layer {
  name: "lstm2_unit_1"
  type: "LSTMUnit"
  bottom: "c_0"
  bottom: "gate_input_1"
  bottom: "cont_1"
  top: "c_1"
  top: "h_1"
}
layer {
  name: "lstm2_"
  type: "Split"
  bottom: "c_1"
  top: "c_T"
}
layer {
  name: "lstm2_h_concat"
  type: "Concat"
  bottom: "h_1"
  top: "h"
  concat_param {
    axis: 0
  }
}
layer {
  name: "h_pseudoloss"
  type: "Reduction"
  bottom: "h"
  top: "h_pseudoloss"
  loss_weight: 1
}
I0924 03:09:28.654793 16515 layer_factory.hpp:77] Creating layer lstm2_
I0924 03:09:28.654809 16515 net.cpp:91] Creating Layer lstm2_
I0924 03:09:28.654820 16515 net.cpp:399] lstm2_ -> x
I0924 03:09:28.654836 16515 net.cpp:399] lstm2_ -> cont
I0924 03:09:28.654908 16515 net.cpp:141] Setting up lstm2_
I0924 03:09:28.654922 16515 net.cpp:148] Top shape: 1 1 1501 (1501)
I0924 03:09:28.654932 16515 net.cpp:148] Top shape: 1 1 (1)
I0924 03:09:28.654939 16515 net.cpp:156] Memory required for data: 6008
I0924 03:09:28.654947 16515 layer_factory.hpp:77] Creating layer lstm2_
I0924 03:09:28.654960 16515 net.cpp:91] Creating Layer lstm2_
I0924 03:09:28.654974 16515 net.cpp:399] lstm2_ -> c_0
I0924 03:09:28.654990 16515 net.cpp:399] lstm2_ -> h_0
I0924 03:09:28.655062 16515 net.cpp:141] Setting up lstm2_
I0924 03:09:28.655076 16515 net.cpp:148] Top shape: 1 1 1000 (1000)
I0924 03:09:28.655086 16515 net.cpp:148] Top shape: 1 1 1000 (1000)
I0924 03:09:28.655092 16515 net.cpp:156] Memory required for data: 14008
I0924 03:09:28.655100 16515 layer_factory.hpp:77] Creating layer lstm2_cont_slice
I0924 03:09:28.655120 16515 net.cpp:91] Creating Layer lstm2_cont_slice
I0924 03:09:28.655128 16515 net.cpp:425] lstm2_cont_slice <- cont
I0924 03:09:28.655139 16515 net.cpp:399] lstm2_cont_slice -> cont_1
I0924 03:09:28.655185 16515 net.cpp:141] Setting up lstm2_cont_slice
I0924 03:09:28.655199 16515 net.cpp:148] Top shape: 1 1 (1)
I0924 03:09:28.655206 16515 net.cpp:156] Memory required for data: 14012
I0924 03:09:28.655215 16515 layer_factory.hpp:77] Creating layer cont_1_lstm2_cont_slice_0_split
I0924 03:09:28.655225 16515 net.cpp:91] Creating Layer cont_1_lstm2_cont_slice_0_split
I0924 03:09:28.655232 16515 net.cpp:425] cont_1_lstm2_cont_slice_0_split <- cont_1
I0924 03:09:28.655247 16515 net.cpp:399] cont_1_lstm2_cont_slice_0_split -> cont_1_lstm2_cont_slice_0_split_0
I0924 03:09:28.655261 16515 net.cpp:399] cont_1_lstm2_cont_slice_0_split -> cont_1_lstm2_cont_slice_0_split_1
I0924 03:09:28.655326 16515 net.cpp:141] Setting up cont_1_lstm2_cont_slice_0_split
I0924 03:09:28.655339 16515 net.cpp:148] Top shape: 1 1 (1)
I0924 03:09:28.655349 16515 net.cpp:148] Top shape: 1 1 (1)
I0924 03:09:28.655355 16515 net.cpp:156] Memory required for data: 14020
I0924 03:09:28.655364 16515 layer_factory.hpp:77] Creating layer lstm2_x_transform
I0924 03:09:28.655382 16515 net.cpp:91] Creating Layer lstm2_x_transform
I0924 03:09:28.655390 16515 net.cpp:425] lstm2_x_transform <- x
I0924 03:09:28.655402 16515 net.cpp:399] lstm2_x_transform -> W_xc_x
I0924 03:09:28.669884 16485 net.cpp:141] Setting up lstm1_
I0924 03:09:28.669934 16485 net.cpp:148] Top shape: 1 1 500 (500)
I0924 03:09:28.669942 16485 net.cpp:148] Top shape: 1 1 (1)
I0924 03:09:28.669950 16485 net.cpp:156] Memory required for data: 2004
I0924 03:09:28.669962 16485 layer_factory.hpp:77] Creating layer lstm1_
I0924 03:09:28.669992 16485 net.cpp:91] Creating Layer lstm1_
I0924 03:09:28.670012 16485 net.cpp:399] lstm1_ -> c_0
I0924 03:09:28.670037 16485 net.cpp:399] lstm1_ -> h_0
I0924 03:09:28.670159 16483 net.cpp:141] Setting up lstm1_x_transform
I0924 03:09:28.670208 16483 net.cpp:148] Top shape: 1 1 4000 (4000)
I0924 03:09:28.670219 16483 net.cpp:156] Memory required for data: 26016
I0924 03:09:28.670243 16485 net.cpp:141] Setting up lstm1_
I0924 03:09:28.670250 16483 layer_factory.hpp:77] Creating layer lstm1_W_xc_x_slice
I0924 03:09:28.670264 16485 net.cpp:148] Top shape: 1 1 1000 (1000)
I0924 03:09:28.670276 16485 net.cpp:148] Top shape: 1 1 1000 (1000)
I0924 03:09:28.670276 16483 net.cpp:91] Creating Layer lstm1_W_xc_x_slice
I0924 03:09:28.670305 16485 net.cpp:156] Memory required for data: 10004
I0924 03:09:28.670323 16483 net.cpp:425] lstm1_W_xc_x_slice <- W_xc_x
I0924 03:09:28.670330 16485 layer_factory.hpp:77] Creating layer lstm1_cont_slice
I0924 03:09:28.670346 16483 net.cpp:399] lstm1_W_xc_x_slice -> W_xc_x_1
I0924 03:09:28.670352 16485 net.cpp:91] Creating Layer lstm1_cont_slice
I0924 03:09:28.670363 16485 net.cpp:425] lstm1_cont_slice <- cont
I0924 03:09:28.670377 16485 net.cpp:399] lstm1_cont_slice -> cont_1
I0924 03:09:28.672255 16483 net.cpp:141] Setting up lstm1_W_xc_x_slice
I0924 03:09:28.672281 16483 net.cpp:148] Top shape: 1 1 4000 (4000)
I0924 03:09:28.672289 16483 net.cpp:156] Memory required for data: 42016
I0924 03:09:28.672299 16483 layer_factory.hpp:77] Creating layer lstm1_h_conted_0
I0924 03:09:28.672324 16483 net.cpp:91] Creating Layer lstm1_h_conted_0
I0924 03:09:28.672335 16483 net.cpp:425] lstm1_h_conted_0 <- h_0
I0924 03:09:28.672348 16483 net.cpp:425] lstm1_h_conted_0 <- cont_1_lstm1_cont_slice_0_split_0
I0924 03:09:28.672345 16485 net.cpp:141] Setting up lstm1_cont_slice
I0924 03:09:28.672363 16483 net.cpp:399] lstm1_h_conted_0 -> h_conted_0
I0924 03:09:28.672397 16485 net.cpp:148] Top shape: 1 1 (1)
I0924 03:09:28.672408 16485 net.cpp:156] Memory required for data: 10008
I0924 03:09:28.672420 16485 layer_factory.hpp:77] Creating layer cont_1_lstm1_cont_slice_0_split
I0924 03:09:28.672441 16485 net.cpp:91] Creating Layer cont_1_lstm1_cont_slice_0_split
I0924 03:09:28.672452 16485 net.cpp:425] cont_1_lstm1_cont_slice_0_split <- cont_1
I0924 03:09:28.672469 16485 net.cpp:399] cont_1_lstm1_cont_slice_0_split -> cont_1_lstm1_cont_slice_0_split_0
I0924 03:09:28.672488 16485 net.cpp:399] cont_1_lstm1_cont_slice_0_split -> cont_1_lstm1_cont_slice_0_split_1
I0924 03:09:28.678750 16485 net.cpp:141] Setting up cont_1_lstm1_cont_slice_0_split
I0924 03:09:28.678793 16485 net.cpp:148] Top shape: 1 1 (1)
I0924 03:09:28.678802 16485 net.cpp:148] Top shape: 1 1 (1)
I0924 03:09:28.678808 16485 net.cpp:156] Memory required for data: 10016
I0924 03:09:28.678817 16485 layer_factory.hpp:77] Creating layer lstm1_x_transform
I0924 03:09:28.678846 16485 net.cpp:91] Creating Layer lstm1_x_transform
I0924 03:09:28.678855 16485 net.cpp:425] lstm1_x_transform <- x
I0924 03:09:28.678869 16485 net.cpp:399] lstm1_x_transform -> W_xc_x
I0924 03:09:28.678925 16483 net.cpp:141] Setting up lstm1_h_conted_0
I0924 03:09:28.678967 16483 net.cpp:148] Top shape: 1 1 1000 (1000)
I0924 03:09:28.678977 16483 net.cpp:156] Memory required for data: 46016
I0924 03:09:28.678989 16483 layer_factory.hpp:77] Creating layer lstm1_transform_1
I0924 03:09:28.679014 16483 net.cpp:91] Creating Layer lstm1_transform_1
I0924 03:09:28.679026 16483 net.cpp:425] lstm1_transform_1 <- h_conted_0
I0924 03:09:28.679044 16483 net.cpp:399] lstm1_transform_1 -> W_hc_h_0
I0924 03:09:28.689687 16481 net.cpp:141] Setting up lstm1_transform_1
I0924 03:09:28.689735 16481 net.cpp:148] Top shape: 1 1 4000 (4000)
I0924 03:09:28.689745 16481 net.cpp:156] Memory required for data: 62016
I0924 03:09:28.689772 16481 layer_factory.hpp:77] Creating layer lstm1_gate_input_1
I0924 03:09:28.689854 16481 net.cpp:91] Creating Layer lstm1_gate_input_1
I0924 03:09:28.689870 16481 net.cpp:425] lstm1_gate_input_1 <- W_hc_h_0
I0924 03:09:28.689882 16481 net.cpp:425] lstm1_gate_input_1 <- W_xc_x_1
I0924 03:09:28.689896 16481 net.cpp:399] lstm1_gate_input_1 -> gate_input_1
I0924 03:09:28.704124 16481 net.cpp:141] Setting up lstm1_gate_input_1
I0924 03:09:28.704180 16481 net.cpp:148] Top shape: 1 1 4000 (4000)
I0924 03:09:28.704190 16481 net.cpp:156] Memory required for data: 78016
I0924 03:09:28.704201 16481 layer_factory.hpp:77] Creating layer lstm1_unit_1
I0924 03:09:28.704249 16481 net.cpp:91] Creating Layer lstm1_unit_1
I0924 03:09:28.704263 16481 net.cpp:425] lstm1_unit_1 <- c_0
I0924 03:09:28.704277 16481 net.cpp:425] lstm1_unit_1 <- gate_input_1
I0924 03:09:28.704288 16481 net.cpp:425] lstm1_unit_1 <- cont_1_lstm1_cont_slice_0_split_1
I0924 03:09:28.704299 16481 net.cpp:399] lstm1_unit_1 -> c_1
I0924 03:09:28.704319 16481 net.cpp:399] lstm1_unit_1 -> h_1
I0924 03:09:28.704341 16485 net.cpp:141] Setting up lstm1_x_transform
I0924 03:09:28.704362 16485 net.cpp:148] Top shape: 1 1 4000 (4000)
I0924 03:09:28.704370 16485 net.cpp:156] Memory required for data: 26016
I0924 03:09:28.704390 16485 layer_factory.hpp:77] Creating layer lstm1_W_xc_x_slice
I0924 03:09:28.704401 16485 net.cpp:91] Creating Layer lstm1_W_xc_x_slice
I0924 03:09:28.704411 16485 net.cpp:425] lstm1_W_xc_x_slice <- W_xc_x
I0924 03:09:28.704424 16485 net.cpp:399] lstm1_W_xc_x_slice -> W_xc_x_1
I0924 03:09:28.704447 16481 net.cpp:141] Setting up lstm1_unit_1
I0924 03:09:28.704465 16481 net.cpp:148] Top shape: 1 1 1000 (1000)
I0924 03:09:28.704476 16481 net.cpp:148] Top shape: 1 1 1000 (1000)
I0924 03:09:28.704480 16485 net.cpp:141] Setting up lstm1_W_xc_x_slice
I0924 03:09:28.704484 16481 net.cpp:156] Memory required for data: 86016
I0924 03:09:28.704494 16485 net.cpp:148] Top shape: 1 1 4000 (4000)
I0924 03:09:28.704495 16481 layer_factory.hpp:77] Creating layer lstm1_
I0924 03:09:28.704500 16485 net.cpp:156] Memory required for data: 42016
I0924 03:09:28.704506 16485 layer_factory.hpp:77] Creating layer lstm1_h_conted_0
I0924 03:09:28.704510 16481 net.cpp:91] Creating Layer lstm1_
I0924 03:09:28.704520 16481 net.cpp:425] lstm1_ <- c_1
I0924 03:09:28.704521 16485 net.cpp:91] Creating Layer lstm1_h_conted_0
I0924 03:09:28.704531 16485 net.cpp:425] lstm1_h_conted_0 <- h_0
I0924 03:09:28.704560 16485 net.cpp:425] lstm1_h_conted_0 <- cont_1_lstm1_cont_slice_0_split_0
I0924 03:09:28.704531 16481 net.cpp:399] lstm1_ -> c_T
I0924 03:09:28.704569 16485 net.cpp:399] lstm1_h_conted_0 -> h_conted_0
I0924 03:09:28.705754 16481 net.cpp:141] Setting up lstm1_
I0924 03:09:28.705773 16481 net.cpp:148] Top shape: 1 1 1000 (1000)
I0924 03:09:28.705782 16481 net.cpp:156] Memory required for data: 90016
I0924 03:09:28.705791 16481 layer_factory.hpp:77] Creating layer lstm1_h_concat
I0924 03:09:28.705806 16481 net.cpp:91] Creating Layer lstm1_h_concat
I0924 03:09:28.705814 16481 net.cpp:425] lstm1_h_concat <- h_1
I0924 03:09:28.705826 16481 net.cpp:399] lstm1_h_concat -> h
I0924 03:09:28.706010 16509 net.cpp:141] Setting up lstm2_x_transform
I0924 03:09:28.706053 16509 net.cpp:148] Top shape: 1 1 4000 (4000)
I0924 03:09:28.706063 16509 net.cpp:156] Memory required for data: 30020
I0924 03:09:28.706089 16509 layer_factory.hpp:77] Creating layer lstm2_W_xc_x_slice
I0924 03:09:28.706110 16509 net.cpp:91] Creating Layer lstm2_W_xc_x_slice
I0924 03:09:28.706120 16509 net.cpp:425] lstm2_W_xc_x_slice <- W_xc_x
I0924 03:09:28.706138 16509 net.cpp:399] lstm2_W_xc_x_slice -> W_xc_x_1
I0924 03:09:28.707986 16481 net.cpp:141] Setting up lstm1_h_concat
I0924 03:09:28.708011 16481 net.cpp:148] Top shape: 1 1 1000 (1000)
I0924 03:09:28.708022 16481 net.cpp:156] Memory required for data: 94016
I0924 03:09:28.708034 16481 layer_factory.hpp:77] Creating layer h_pseudoloss
I0924 03:09:28.708051 16481 net.cpp:91] Creating Layer h_pseudoloss
I0924 03:09:28.708063 16481 net.cpp:425] h_pseudoloss <- h
I0924 03:09:28.708078 16481 net.cpp:399] h_pseudoloss -> h_pseudoloss
I0924 03:09:28.708123 16485 net.cpp:141] Setting up lstm1_h_conted_0
I0924 03:09:28.708142 16485 net.cpp:148] Top shape: 1 1 1000 (1000)
I0924 03:09:28.708151 16485 net.cpp:156] Memory required for data: 46016
I0924 03:09:28.708160 16485 layer_factory.hpp:77] Creating layer lstm1_transform_1
I0924 03:09:28.708179 16485 net.cpp:91] Creating Layer lstm1_transform_1
I0924 03:09:28.708190 16485 net.cpp:425] lstm1_transform_1 <- h_conted_0
I0924 03:09:28.708206 16485 net.cpp:399] lstm1_transform_1 -> W_hc_h_0
I0924 03:09:28.708282 16481 net.cpp:141] Setting up h_pseudoloss
…
I0924 03:09:28.715271 16481 net.cpp:219] lstm1_ does not need backward computation.
I0924 03:09:28.715278 16481 net.cpp:261] This network produces output c_T
I0924 03:09:28.715289 16481 net.cpp:261] This network produces output h_pseudoloss
I0924 03:09:28.715318 16481 net.cpp:274] Network initialization done.
I0924 03:09:28.715407 16481 recurrent_layer.cpp:150] Adding parameter 0: W_xc
I0924 03:09:28.715421 16481 recurrent_layer.cpp:150] Adding parameter 1: b_c
I0924 03:09:28.715428 16481 recurrent_layer.cpp:150] Adding parameter 2: W_hc
I0924 03:09:28.716192 16509 net.cpp:141] Setting up lstm2_W_xc_x_slice
I0924 03:09:28.716234 16509 net.cpp:148] Top shape: 1 1 4000 (4000)
I0924 03:09:28.716241 16509 net.cpp:156] Memory required for data: 46020
I0924 03:09:28.716251 16509 layer_factory.hpp:77] Creating layer lstm2_h_conted_0
I0924 03:09:28.716272 16509 net.cpp:91] Creating Layer lstm2_h_conted_0
I0924 03:09:28.716280 16509 net.cpp:425] lstm2_h_conted_0 <- h_0
I0924 03:09:28.716290 16509 net.cpp:425] lstm2_h_conted_0 <- cont_1_lstm2_cont_slice_0_split_0
I0924 03:09:28.716306 16509 net.cpp:399] lstm2_h_conted_0 -> h_conted_0
I0924 03:09:28.717809 16509 net.cpp:141] Setting up lstm2_h_conted_0
I0924 03:09:28.717841 16509 net.cpp:148] Top shape: 1 1 1000 (1000)
I0924 03:09:28.717854 16509 net.cpp:156] Memory required for data: 50020
I0924 03:09:28.717864 16509 layer_factory.hpp:77] Creating layer lstm2_transform_1
I0924 03:09:28.717893 16509 net.cpp:91] Creating Layer lstm2_transform_1
I0924 03:09:28.717906 16509 net.cpp:425] lstm2_transform_1 <- h_conted_0
I0924 03:09:28.717900 16481 net.cpp:141] Setting up lstm1
I0924 03:09:28.717924 16509 net.cpp:399] lstm2_transform_1 -> W_hc_h_0
I0924 03:09:28.717933 16481 net.cpp:148] Top shape: 1 1 1000 (1000)
I0924 03:09:28.717941 16481 net.cpp:156] Memory required for data: 26408
I0924 03:09:28.717962 16481 layer_factory.hpp:77] Creating layer concat
I0924 03:09:28.717979 16481 net.cpp:91] Creating Layer concat
I0924 03:09:28.717988 16481 net.cpp:425] concat <- lstm1
I0924 03:09:28.718004 16481 net.cpp:425] concat <- embedded_input_sentence
I0924 03:09:28.718016 16481 net.cpp:425] concat <- reshaped_stage_indicator
I0924 03:09:28.718031 16481 net.cpp:399] concat -> lstm1_video_sequence
I0924 03:09:28.721761 16481 net.cpp:141] Setting up concat
I0924 03:09:28.721792 16481 net.cpp:148] Top shape: 1 1 1501 (1501)
I0924 03:09:28.721801 16481 net.cpp:156] Memory required for data: 32412
I0924 03:09:28.721812 16481 layer_factory.hpp:77] Creating layer lstm2
I0924 03:09:28.721835 16481 net.cpp:91] Creating Layer lstm2
I0924 03:09:28.721845 16481 net.cpp:425] lstm2 <- lstm1_video_sequence
I0924 03:09:28.721856 16481 net.cpp:425] lstm2 <- cont_sentence_input_1_split_1
I0924 03:09:28.721873 16481 net.cpp:399] lstm2 -> lstm2
I0924 03:09:28.721894 16481 recurrent_layer.cpp:20] Initializing recurrent layer: assuming input batch contains 1 timesteps of 1 independent streams.
I0924 03:09:28.721892 16491 net.cpp:141] Setting up embedding
I0924 03:09:28.721935 16491 net.cpp:148] Top shape: 1 1 500 (500)
I0924 03:09:28.721943 16491 net.cpp:156] Memory required for data: 22408
I0924 03:09:28.721961 16491 layer_factory.hpp:77] Creating layer lstm1
I0924 03:09:28.721982 16491 net.cpp:91] Creating Layer lstm1
I0924 03:09:28.721992 16491 net.cpp:425] lstm1 <- embedded_input_frames
I0924 03:09:28.722003 16491 net.cpp:425] lstm1 <- cont_sentence_input_1_split_0
I0924 03:09:28.722017 16491 net.cpp:399] lstm1 -> lstm1
I0924 03:09:28.722031 16491 recurrent_layer.cpp:20] Initializing recurrent layer: assuming input batch contains 1 timesteps of 1 independent streams.
I0924 03:09:28.728672 16481 net.cpp:49] Initializing net from parameters: 
layer {
  name: "lstm2_"
  type: "Input"
  top: "x"
  top: "cont"
  input_param {
    shape {
      dim: 1
      dim: 1
      dim: 1501
    }
    shape {
      dim: 1
      dim: 1
    }
  }
}
layer {
  name: "lstm2_"
  type: "Input"
  top: "c_0"
  top: "h_0"
  input_param {
    shape {
      dim: 1
      dim: 1
      dim: 1000
    }
    shape {
      dim: 1
      dim: 1
      dim: 1000
    }
  }
}
layer {
  name: "lstm2_cont_slice"
  type: "Slice"
  bottom: "cont"
  top: "cont_1"
  slice_param {
    axis: 0
  }
}
layer {
  name: "lstm2_x_transform"
  type: "InnerProduct"
  bottom: "x"
  top: "W_xc_x"
  param {
    name: "W_xc"
  }
  param {
    name: "b_c"
  }
  propagate_down: true
  inner_product_param {
    num_output: 4000
    bias_term: true
    weight_filler {
      type: "uniform"
      min: -0.08
      max: 0.08
    }
    bias_filler {
      type: "constant"
      value: 0
    }
    axis: 2
  }
}
layer {
  name: "lstm2_W_xc_x_slice"
  type: "Slice"
  bottom: "W_xc_x"
  top: "W_xc_x_1"
  slice_param {
    axis: 0
  }
}
layer {
  name: "lstm2_h_conted_0"
  type: "Scale"
  bottom: "h_0"
  bottom: "cont_1"
  top: "h_conted_0"
  scale_param {
    axis: 0
  }
}
layer {
  name: "lstm2_transform_1"
  type: "InnerProduct"
  bottom: "h_conted_0"
  top: "W_hc_h_0"
  param {
    name: "W_hc"
  }
  inner_product_param {
    num_output: 4000
    bias_term: false
    weight_filler {
      type: "uniform"
      min: -0.08
      max: 0.08
    }
    axis: 2
  }
}
layer {
  name: "lstm2_gate_input_1"
  type: "Eltwise"
  bottom: "W_hc_h_0"
  bottom: "W_xc_x_1"
  top: "gate_input_1"
  eltwise_param {
    operation: SUM
  }
}
layer {
  name: "lstm2_unit_1"
  type: "LSTMUnit"
  bottom: "c_0"
  bottom: "gate_input_1"
  bottom: "cont_1"
  top: "c_1"
  top: "h_1"
}
layer {
  name: "lstm2_"
  type: "Split"
  bottom: "c_1"
  top: "c_T"
}
layer {
  name: "lstm2_h_concat"
  type: "Concat"
  bottom: "h_1"
  top: "h"
  concat_param {
    axis: 0
  }
}
layer {
  name: "h_pseudoloss"
  type: "Reduction"
  bottom: "h"
  top: "h_pseudoloss"
  loss_weight: 1
}
I0924 03:09:28.728915 16481 layer_factory.hpp:77] Creating layer lstm2_
I0924 03:09:28.728924 16491 net.cpp:49] Initializing net from parameters: 
layer {
  name: "lstm1_"
  type: "Input"
  top: "x"
  top: "cont"
  input_param {
    shape {
      dim: 1
      dim: 1
      dim: 500
    }
    shape {
      dim: 1
      dim: 1
    }
  }
}
layer {
  name: "lstm1_"
  type: "Input"
  top: "c_0"
  top: "h_0"
  input_param {
    shape {
      dim: 1
      dim: 1
      dim: 1000
    }
    shape {
      dim: 1
      dim: 1
      dim: 1000
    }
  }
}
layer {
  name: "lstm1_cont_slice"
  type: "Slice"
  bottom: "cont"
  top: "cont_1"
  slice_param {
    axis: 0
  }
}
layer {
  name: "lstm1_x_transform"
  type: "InnerProduct"
  bottom: "x"
  top: "W_xc_x"
  param {
    name: "W_xc"
  }
  param {
    name: "b_c"
  }
  propagate_down: true
  inner_product_param {
    num_output: 4000
    bias_term: true
    weight_filler {
      type: "uniform"
      min: -0.08
      max: 0.08
    }
    bias_filler {
      type: "constant"
      value: 0
    }
    axis: 2
  }
}
layer {
  name: "lstm1_W_xc_x_slice"
  type: "Slice"
  bottom: "W_xc_x"
  top: "W_xc_x_1"
  slice_param {
    axis: 0
  }
}
layer {
  name: "lstm1_h_conted_0"
  type: "Scale"
  bottom: "h_0"
  bottom: "cont_1"
  top: "h_conted_0"
  scale_param {
    axis: 0
  }
}
layer {
  name: "lstm1_transform_1"
  type: "InnerProduct"
  bottom: "h_conted_0"
  top: "W_hc_h_0"
  param {
    name: "W_hc"
  }
  inner_product_param {
    num_output: 4000
    bias_term: false
    weight_filler {
      type: "uniform"
      min: -0.08
      max: 0.08
    }
    axis: 2
  }
}
layer {
  name: "lstm1_gate_input_1"
  type: "Eltwise"
  bottom: "W_hc_h_0"
  bottom: "W_xc_x_1"
  top: "gate_input_1"
  eltwise_param {
    operation: SUM
  }
}
layer {
  name: "lstm1_unit_1"
  type: "LSTMUnit"
  bottom: "c_0"
  bottom: "gate_input_1"
  bottom: "cont_1"
  top: "c_1"
  top: "h_1"
}
layer {
  name: "lstm1_"
  type: "Split"
  bottom: "c_1"
  top: "c_T"
}
layer {
  name: "lstm1_h_concat"
  type: "Concat"
  bottom: "h_1"
  top: "h"
  concat_param {
    axis: 0
  }
}
layer {
  name: "h_pseudoloss"
  type: "Reduction"
  bottom: "h"
  top: "h_pseudoloss"
  loss_weight: 1
}
I0924 03:09:28.728941 16481 net.cpp:91] Creating Layer lstm2_
I0924 03:09:28.728953 16481 net.cpp:399] lstm2_ -> x
I0924 03:09:28.728977 16481 net.cpp:399] lstm2_ -> cont
I0924 03:09:28.729045 16491 layer_factory.hpp:77] Creating layer lstm1_
I0924 03:09:28.729070 16491 net.cpp:91] Creating Layer lstm1_
I0924 03:09:28.729091 16491 net.cpp:399] lstm1_ -> x
I0924 03:09:28.729125 16491 net.cpp:399] lstm1_ -> cont
I0924 03:09:28.729490 16491 net.cpp:141] Setting up lstm1_
I0924 03:09:28.729511 16491 net.cpp:148] Top shape: 1 1 500 (500)
I0924 03:09:28.729517 16491 net.cpp:148] Top shape: 1 1 (1)
I0924 03:09:28.729522 16491 net.cpp:156] Memory required for data: 2004
I0924 03:09:28.729528 16491 layer_factory.hpp:77] Creating layer lstm1_
I0924 03:09:28.729539 16491 net.cpp:91] Creating Layer lstm1_
I0924 03:09:28.729545 16491 net.cpp:399] lstm1_ -> c_0
I0924 03:09:28.729562 16491 net.cpp:399] lstm1_ -> h_0
I0924 03:09:28.729558 16481 net.cpp:141] Setting up lstm2_
I0924 03:09:28.729580 16481 net.cpp:148] Top shape: 1 1 1501 (1501)
I0924 03:09:28.729596 16481 net.cpp:148] Top shape: 1 1 (1)
I0924 03:09:28.729605 16481 net.cpp:156] Memory required for data: 6008
I0924 03:09:28.729616 16481 layer_factory.hpp:77] Creating layer lstm2_
I0924 03:09:28.729646 16481 net.cpp:91] Creating Layer lstm2_
I0924 03:09:28.729665 16481 net.cpp:399] lstm2_ -> c_0
I0924 03:09:28.729686 16481 net.cpp:399] lstm2_ -> h_0
I0924 03:09:28.735837 16491 net.cpp:141] Setting up lstm1_
I0924 03:09:28.735882 16491 net.cpp:148] Top shape: 1 1 1000 (1000)
I0924 03:09:28.735891 16491 net.cpp:148] Top shape: 1 1 1000 (1000)
I0924 03:09:28.735899 16491 net.cpp:156] Memory required for data: 10004
I0924 03:09:28.735909 16491 layer_factory.hpp:77] Creating layer lstm1_cont_slice
I0924 03:09:28.735944 16491 net.cpp:91] Creating Layer lstm1_cont_slice
I0924 03:09:28.735954 16491 net.cpp:425] lstm1_cont_slice <- cont
I0924 03:09:28.735970 16491 net.cpp:399] lstm1_cont_slice -> cont_1
I0924 03:09:28.736768 16491 net.cpp:141] Setting up lstm1_cont_slice
I0924 03:09:28.736783 16491 net.cpp:148] Top shape: 1 1 (1)
I0924 03:09:28.736791 16491 net.cpp:156] Memory required for data: 10008
I0924 03:09:28.736799 16491 layer_factory.hpp:77] Creating layer cont_1_lstm1_cont_slice_0_split
I0924 03:09:28.736810 16491 net.cpp:91] Creating Layer cont_1_lstm1_cont_slice_0_split
I0924 03:09:28.736817 16491 net.cpp:425] cont_1_lstm1_cont_slice_0_split <- cont_1
I0924 03:09:28.736838 16491 net.cpp:399] cont_1_lstm1_cont_slice_0_split -> cont_1_lstm1_cont_slice_0_split_0
I0924 03:09:28.736851 16491 net.cpp:399] cont_1_lstm1_cont_slice_0_split -> cont_1_lstm1_cont_slice_0_split_1
I0924 03:09:28.739502 16491 net.cpp:141] Setting up cont_1_lstm1_cont_slice_0_split
I0924 03:09:28.739517 16491 net.cpp:148] Top shape: 1 1 (1)
I0924 03:09:28.739527 16491 net.cpp:148] Top shape: 1 1 (1)
I0924 03:09:28.739534 16491 net.cpp:156] Memory required for data: 10016
I0924 03:09:28.739542 16491 layer_factory.hpp:77] Creating layer lstm1_x_transform
I0924 03:09:28.739567 16491 net.cpp:91] Creating Layer lstm1_x_transform
I0924 03:09:28.739575 16491 net.cpp:425] lstm1_x_transform <- x
I0924 03:09:28.739588 16491 net.cpp:399] lstm1_x_transform -> W_xc_x
I0924 03:09:28.768934 16483 net.cpp:141] Setting up lstm1_transform_1
I0924 03:09:28.768990 16483 net.cpp:148] Top shape: 1 1 4000 (4000)
I0924 03:09:28.768999 16483 net.cpp:156] Memory required for data: 62016
I0924 03:09:28.769028 16483 layer_factory.hpp:77] Creating layer lstm1_gate_input_1
I0924 03:09:28.769042 16485 net.cpp:141] Setting up lstm1_transform_1
I0924 03:09:28.769063 16483 net.cpp:91] Creating Layer lstm1_gate_input_1
I0924 03:09:28.769078 16485 net.cpp:148] Top shape: 1 1 4000 (4000)
I0924 03:09:28.769091 16485 net.cpp:156] Memory required for data: 62016
I0924 03:09:28.769078 16483 net.cpp:425] lstm1_gate_input_1 <- W_hc_h_0
I0924 03:09:28.769107 16483 net.cpp:425] lstm1_gate_input_1 <- W_xc_x_1
I0924 03:09:28.769111 16485 layer_factory.hpp:77] Creating layer lstm1_gate_input_1
I0924 03:09:28.769112 16509 net.cpp:141] Setting up lstm2_transform_1
I0924 03:09:28.769122 16483 net.cpp:399] lstm1_gate_input_1 -> gate_input_1
I0924 03:09:28.769132 16509 net.cpp:148] Top shape: 1 1 4000 (4000)
I0924 03:09:28.769134 16485 net.cpp:91] Creating Layer lstm1_gate_input_1
I0924 03:09:28.769145 16509 net.cpp:156] Memory required for data: 66020
I0924 03:09:28.769158 16485 net.cpp:425] lstm1_gate_input_1 <- W_hc_h_0
I0924 03:09:28.769167 16485 net.cpp:425] lstm1_gate_input_1 <- W_xc_x_1
I0924 03:09:28.769171 16509 layer_factory.hpp:77] Creating layer lstm2_gate_input_1
I0924 03:09:28.769176 16485 net.cpp:399] lstm1_gate_input_1 -> gate_input_1
I0924 03:09:28.769187 16509 net.cpp:91] Creating Layer lstm2_gate_input_1
I0924 03:09:28.769196 16509 net.cpp:425] lstm2_gate_input_1 <- W_hc_h_0
I0924 03:09:28.769203 16509 net.cpp:425] lstm2_gate_input_1 <- W_xc_x_1
I0924 03:09:28.769212 16509 net.cpp:399] lstm2_gate_input_1 -> gate_input_1
I0924 03:09:28.769289 16481 net.cpp:141] Setting up lstm2_
I0924 03:09:28.769309 16481 net.cpp:148] Top shape: 1 1 1000 (1000)
I0924 03:09:28.769316 16481 net.cpp:148] Top shape: 1 1 1000 (1000)
I0924 03:09:28.769321 16481 net.cpp:156] Memory required for data: 14008
I0924 03:09:28.769327 16481 layer_factory.hpp:77] Creating layer lstm2_cont_slice
I0924 03:09:28.769336 16483 net.cpp:141] Setting up lstm1_gate_input_1
I0924 03:09:28.769341 16481 net.cpp:91] Creating Layer lstm2_cont_slice
I0924 03:09:28.769359 16483 net.cpp:148] Top shape: 1 1 4000 (4000)
I0924 03:09:28.769362 16481 net.cpp:425] lstm2_cont_slice <- cont
I0924 03:09:28.769372 16483 net.cpp:156] Memory required for data: 78016
I0924 03:09:28.769382 16481 net.cpp:399] lstm2_cont_slice -> cont_1
I0924 03:09:28.769383 16483 layer_factory.hpp:77] Creating layer lstm1_unit_1
I0924 03:09:28.769398 16483 net.cpp:91] Creating Layer lstm1_unit_1
I0924 03:09:28.769407 16483 net.cpp:425] lstm1_unit_1 <- c_0
I0924 03:09:28.769418 16483 net.cpp:425] lstm1_unit_1 <- gate_input_1
I0924 03:09:28.769426 16483 net.cpp:425] lstm1_unit_1 <- cont_1_lstm1_cont_slice_0_split_1
I0924 03:09:28.769438 16483 net.cpp:399] lstm1_unit_1 -> c_1
I0924 03:09:28.769443 16485 net.cpp:141] Setting up lstm1_gate_input_1
I0924 03:09:28.769454 16483 net.cpp:399] lstm1_unit_1 -> h_1
I0924 03:09:28.769456 16485 net.cpp:148] Top shape: 1 1 4000 (4000)
I0924 03:09:28.769462 16485 net.cpp:156] Memory required for data: 78016
I0924 03:09:28.769469 16485 layer_factory.hpp:77] Creating layer lstm1_unit_1
I0924 03:09:28.769477 16485 net.cpp:91] Creating Layer lstm1_unit_1
I0924 03:09:28.769484 16485 net.cpp:425] lstm1_unit_1 <- c_0
I0924 03:09:28.769486 16509 net.cpp:141] Setting up lstm2_gate_input_1
I0924 03:09:28.769490 16485 net.cpp:425] lstm1_unit_1 <- gate_input_1
I0924 03:09:28.769498 16485 net.cpp:425] lstm1_unit_1 <- cont_1_lstm1_cont_slice_0_split_1
I0924 03:09:28.769498 16509 net.cpp:148] Top shape: 1 1 4000 (4000)
I0924 03:09:28.769510 16485 net.cpp:399] lstm1_unit_1 -> c_1
I0924 03:09:28.769515 16509 net.cpp:156] Memory required for data: 82020
I0924 03:09:28.769521 16509 layer_factory.hpp:77] Creating layer lstm2_unit_1
I0924 03:09:28.769522 16485 net.cpp:399] lstm1_unit_1 -> h_1
I0924 03:09:28.769538 16509 net.cpp:91] Creating Layer lstm2_unit_1
I0924 03:09:28.769546 16509 net.cpp:425] lstm2_unit_1 <- c_0
I0924 03:09:28.769551 16509 net.cpp:425] lstm2_unit_1 <- gate_input_1
I0924 03:09:28.769557 16509 net.cpp:425] lstm2_unit_1 <- cont_1_lstm2_cont_slice_0_split_1
I0924 03:09:28.769565 16509 net.cpp:399] lstm2_unit_1 -> c_1
I0924 03:09:28.769574 16509 net.cpp:399] lstm2_unit_1 -> h_1
I0924 03:09:28.769625 16485 net.cpp:141] Setting up lstm1_unit_1
I0924 03:09:28.769639 16485 net.cpp:148] Top shape: 1 1 1000 (1000)
I0924 03:09:28.769646 16485 net.cpp:148] Top shape: 1 1 1000 (1000)
I0924 03:09:28.769651 16485 net.cpp:156] Memory required for data: 86016
I0924 03:09:28.769656 16485 layer_factory.hpp:77] Creating layer lstm1_
I0924 03:09:28.769667 16485 net.cpp:91] Creating Layer lstm1_
I0924 03:09:28.769673 16485 net.cpp:425] lstm1_ <- c_1
I0924 03:09:28.769680 16485 net.cpp:399] lstm1_ -> c_T
I0924 03:09:28.769696 16481 net.cpp:141] Setting up lstm2_cont_slice
I0924 03:09:28.769709 16481 net.cpp:148] Top shape: 1 1 (1)
I0924 03:09:28.769714 16481 net.cpp:156] Memory required for data: 14012
I0924 03:09:28.769721 16481 layer_factory.hpp:77] Creating layer cont_1_lstm2_cont_slice_0_split
I0924 03:09:28.769728 16485 net.cpp:141] Setting up lstm1_
I0924 03:09:28.769734 16481 net.cpp:91] Creating Layer cont_1_lstm2_cont_slice_0_split
I0924 03:09:28.769739 16485 net.cpp:148] Top shape: 1 1 1000 (1000)
I0924 03:09:28.769740 16481 net.cpp:425] cont_1_lstm2_cont_slice_0_split <- cont_1
I0924 03:09:28.769744 16485 net.cpp:156] Memory required for data: 90016
I0924 03:09:28.769749 16481 net.cpp:399] cont_1_lstm2_cont_slice_0_split -> cont_1_lstm2_cont_slice_0_split_0
I0924 03:09:28.769750 16485 layer_factory.hpp:77] Creating layer lstm1_h_concat
I0924 03:09:28.769760 16485 net.cpp:91] Creating Layer lstm1_h_concat
I0924 03:09:28.769762 16481 net.cpp:399] cont_1_lstm2_cont_slice_0_split -> cont_1_lstm2_cont_slice_0_split_1
I0924 03:09:28.769767 16485 net.cpp:425] lstm1_h_concat <- h_1
I0924 03:09:28.769778 16485 net.cpp:399] lstm1_h_concat -> h
I0924 03:09:28.769932 16483 net.cpp:141] Setting up lstm1_unit_1
I0924 03:09:28.769950 16483 net.cpp:148] Top shape: 1 1 1000 (1000)
I0924 03:09:28.769961 16483 net.cpp:148] Top shape: 1 1 1000 (1000)
I0924 03:09:28.769969 16483 net.cpp:156] Memory required for data: 86016
I0924 03:09:28.769979 16483 layer_factory.hpp:77] Creating layer lstm1_
I0924 03:09:28.769996 16483 net.cpp:91] Creating Layer lstm1_
I0924 03:09:28.770005 16483 net.cpp:425] lstm1_ <- c_1
I0924 03:09:28.770016 16483 net.cpp:399] lstm1_ -> c_T
I0924 03:09:28.770047 16485 net.cpp:141] Setting up lstm1_h_concat
I0924 03:09:28.770059 16485 net.cpp:148] Top shape: 1 1 1000 (1000)
I0924 03:09:28.770063 16485 net.cpp:156] Memory required for data: 94016
I0924 03:09:28.770069 16485 layer_factory.hpp:77] Creating layer h_pseudoloss
I0924 03:09:28.770078 16485 net.cpp:91] Creating Layer h_pseudoloss
I0924 03:09:28.770084 16485 net.cpp:425] h_pseudoloss <- h
I0924 03:09:28.770092 16485 net.cpp:399] h_pseudoloss -> h_pseudoloss
I0924 03:09:28.770114 16509 net.cpp:141] Setting up lstm2_unit_1
I0924 03:09:28.770128 16509 net.cpp:148] Top shape: 1 1 1000 (1000)
I0924 03:09:28.770134 16509 net.cpp:148] Top shape: 1 1 1000 (1000)
I0924 03:09:28.770139 16509 net.cpp:156] Memory required for data: 90020
I0924 03:09:28.770145 16509 layer_factory.hpp:77] Creating layer lstm2_
I0924 03:09:28.770153 16509 net.cpp:91] Creating Layer lstm2_
I0924 03:09:28.770159 16509 net.cpp:425] lstm2_ <- c_1
I0924 03:09:28.770167 16509 net.cpp:399] lstm2_ -> c_T
I0924 03:09:28.770229 16481 net.cpp:141] Setting up cont_1_lstm2_cont_slice_0_split
I0924 03:09:28.770242 16481 net.cpp:148] Top shape: 1 1 (1)
I0924 03:09:28.770249 16481 net.cpp:148] Top shape: 1 1 (1)
I0924 03:09:28.770253 16481 net.cpp:156] Memory required for data: 14020
I0924 03:09:28.770259 16481 layer_factory.hpp:77] Creating layer lstm2_x_transform
I0924 03:09:28.770277 16481 net.cpp:91] Creating Layer lstm2_x_transform
I0924 03:09:28.770282 16481 net.cpp:425] lstm2_x_transform <- x
I0924 03:09:28.770290 16481 net.cpp:399] lstm2_x_transform -> W_xc_x
I0924 03:09:28.770308 16483 net.cpp:141] Setting up lstm1_
I0924 03:09:28.770335 16483 net.cpp:148] Top shape: 1 1 1000 (1000)
I0924 03:09:28.770349 16483 net.cpp:156] Memory required for data: 90016
I0924 03:09:28.770361 16483 layer_factory.hpp:77] Creating layer lstm1_h_concat
I0924 03:09:28.770378 16483 net.cpp:91] Creating Layer lstm1_h_concat
I0924 03:09:28.770387 16483 net.cpp:425] lstm1_h_concat <- h_1
I0924 03:09:28.770406 16483 net.cpp:399] lstm1_h_concat -> h
I0924 03:09:28.770409 16515 net.cpp:141] Setting up lstm2_x_transform
I0924 03:09:28.770433 16515 net.cpp:148] Top shape: 1 1 4000 (4000)
I0924 03:09:28.770442 16515 net.cpp:156] Memory required for data: 30020
I0924 03:09:28.770447 16509 net.cpp:141] Setting up lstm2_
I0924 03:09:28.770458 16509 net.cpp:148] Top shape: 1 1 1000 (1000)
I0924 03:09:28.770463 16509 net.cpp:156] Memory required for data: 94020
I0924 03:09:28.770464 16515 layer_factory.hpp:77] Creating layer lstm2_W_xc_x_slice
I0924 03:09:28.770469 16509 layer_factory.hpp:77] Creating layer lstm2_h_concat
I0924 03:09:28.770479 16509 net.cpp:91] Creating Layer lstm2_h_concat
I0924 03:09:28.770483 16515 net.cpp:91] Creating Layer lstm2_W_xc_x_slice
I0924 03:09:28.770489 16485 net.cpp:141] Setting up h_pseudoloss
I0924 03:09:28.770485 16509 net.cpp:425] lstm2_h_concat <- h_1
I0924 03:09:28.770500 16515 net.cpp:425] lstm2_W_xc_x_slice <- W_xc_x
I0924 03:09:28.770506 16509 net.cpp:399] lstm2_h_concat -> h
I0924 03:09:28.770503 16485 net.cpp:148] Top shape: (1)
I0924 03:09:28.770520 16515 net.cpp:399] lstm2_W_xc_x_slice -> W_xc_x_1
I0924 03:09:28.770517 16485 net.cpp:151]     with loss weight 1
I0924 03:09:28.770539 16485 net.cpp:156] Memory required for data: 94020
I0924 03:09:28.770545 16485 net.cpp:217] h_pseudoloss needs backward computation.
I0924 03:09:28.770544 16491 net.cpp:141] Setting up lstm1_x_transform
I0924 03:09:28.770550 16485 net.cpp:217] lstm1_h_concat needs backward computation.
I0924 03:09:28.770567 16491 net.cpp:148] Top shape: 1 1 4000 (4000)
I0924 03:09:28.770570 16485 net.cpp:219] lstm1_ does not need backward computation.
I0924 03:09:28.770579 16491 net.cpp:156] Memory required for data: 26016
I0924 03:09:28.770581 16485 net.cpp:217] lstm1_unit_1 needs backward computation.
I0924 03:09:28.770606 16485 net.cpp:217] lstm1_gate_input_1 needs backward computation.
I0924 03:09:28.770613 16485 net.cpp:217] lstm1_transform_1 needs backward computation.
…
I0924 03:09:28.782712 16509 net.cpp:217] lstm2_x_transform needs backward computation.
I0924 03:09:28.782718 16509 net.cpp:219] cont_1_lstm2_cont_slice_0_split does not need backward computation.
I0924 03:09:28.782724 16509 net.cpp:219] lstm2_cont_slice does not need backward computation.
I0924 03:09:28.782732 16509 net.cpp:219] lstm2_ does not need backward computation.
I0924 03:09:28.782743 16509 net.cpp:219] lstm2_ does not need backward computation.
I0924 03:09:28.782728 16491 net.cpp:141] Setting up lstm1_h_conted_0
I0924 03:09:28.782748 16509 net.cpp:261] This network produces output c_T
I0924 03:09:28.782763 16491 net.cpp:148] Top shape: 1 1 1000 (1000)
I0924 03:09:28.782765 16509 net.cpp:261] This network produces output h_pseudoloss
I0924 03:09:28.782776 16491 net.cpp:156] Memory required for data: 46016
I0924 03:09:28.782785 16491 layer_factory.hpp:77] Creating layer lstm1_transform_1
I0924 03:09:28.782795 16509 net.cpp:274] Network initialization done.
I0924 03:09:28.782814 16491 net.cpp:91] Creating Layer lstm1_transform_1
I0924 03:09:28.782825 16491 net.cpp:425] lstm1_transform_1 <- h_conted_0
I0924 03:09:28.782840 16491 net.cpp:399] lstm1_transform_1 -> W_hc_h_0
I0924 03:09:28.782853 16509 recurrent_layer.cpp:150] Adding parameter 0: W_xc
I0924 03:09:28.782861 16509 recurrent_layer.cpp:150] Adding parameter 1: b_c
I0924 03:09:28.782866 16509 recurrent_layer.cpp:150] Adding parameter 2: W_hc
I0924 03:09:28.782902 16485 net.cpp:141] Setting up lstm1
I0924 03:09:28.782925 16485 net.cpp:148] Top shape: 1 1 1000 (1000)
I0924 03:09:28.782934 16485 net.cpp:156] Memory required for data: 26408
I0924 03:09:28.782960 16485 layer_factory.hpp:77] Creating layer concat
I0924 03:09:28.783113 16485 net.cpp:91] Creating Layer concat
I0924 03:09:28.783128 16485 net.cpp:425] concat <- lstm1
I0924 03:09:28.783139 16485 net.cpp:425] concat <- embedded_input_sentence
I0924 03:09:28.783150 16485 net.cpp:425] concat <- reshaped_stage_indicator
I0924 03:09:28.783162 16485 net.cpp:399] concat -> lstm1_video_sequence
I0924 03:09:28.793037 16483 net.cpp:141] Setting up h_pseudoloss
I0924 03:09:28.793079 16509 net.cpp:141] Setting up lstm2
I0924 03:09:28.793090 16483 net.cpp:148] Top shape: (1)
I0924 03:09:28.793099 16509 net.cpp:148] Top shape: 1 1 1000 (1000)
I0924 03:09:28.793107 16509 net.cpp:156] Memory required for data: 36412
I0924 03:09:28.793102 16483 net.cpp:151]     with loss weight 1
I0924 03:09:28.793124 16483 net.cpp:156] Memory required for data: 94020
I0924 03:09:28.793130 16509 layer_factory.hpp:77] Creating layer predict
I0924 03:09:28.793138 16483 net.cpp:217] h_pseudoloss needs backward computation.
I0924 03:09:28.793149 16483 net.cpp:217] lstm1_h_concat needs backward computation.
I0924 03:09:28.793160 16483 net.cpp:219] lstm1_ does not need backward computation.
I0924 03:09:28.793170 16483 net.cpp:217] lstm1_unit_1 needs backward computation.
I0924 03:09:28.793156 16509 net.cpp:91] Creating Layer predict
I0924 03:09:28.793155 16485 net.cpp:141] Setting up concat
I0924 03:09:28.793184 16509 net.cpp:425] predict <- lstm2
I0924 03:09:28.793184 16483 net.cpp:217] lstm1_gate_input_1 needs backward computation.
I0924 03:09:28.793215 16485 net.cpp:148] Top shape: 1 1 1501 (1501)
I0924 03:09:28.793221 16509 net.cpp:399] predict -> predict
I0924 03:09:28.793226 16483 net.cpp:217] lstm1_transform_1 needs backward computation.
I0924 03:09:28.793239 16515 net.cpp:141] Setting up lstm2_h_conted_0
I0924 03:09:28.793227 16485 net.cpp:156] Memory required for data: 32412
I0924 03:09:28.793252 16483 net.cpp:219] lstm1_h_conted_0 does not need backward computation.
I0924 03:09:28.793264 16515 net.cpp:148] Top shape: 1 1 1000 (1000)
I0924 03:09:28.793270 16483 net.cpp:217] lstm1_W_xc_x_slice needs backward computation.
I0924 03:09:28.793265 16485 layer_factory.hpp:77] Creating layer lstm2
I0924 03:09:28.793282 16483 net.cpp:217] lstm1_x_transform needs backward computation.
I0924 03:09:28.793282 16515 net.cpp:156] Memory required for data: 50020
I0924 03:09:28.793293 16483 net.cpp:219] cont_1_lstm1_cont_slice_0_split does not need backward computation.
…
I0924 03:09:28.793469 16483 recurrent_layer.cpp:150] Adding parameter 2: W_hc
I0924 03:09:28.793669 16485 net.cpp:49] Initializing net from parameters: 
layer {
  name: "lstm2_"
  type: "Input"
  top: "x"
  top: "cont"
  input_param {
    shape {
      dim: 1
      dim: 1
      dim: 1501
    }
    shape {
      dim: 1
      dim: 1
    }
  }
}
layer {
  name: "lstm2_"
  type: "Input"
  top: "c_0"
  top: "h_0"
  input_param {
    shape {
      dim: 1
      dim: 1
      dim: 1000
    }
    shape {
      dim: 1
      dim: 1
      dim: 1000
    }
  }
}
layer {
  name: "lstm2_cont_slice"
  type: "Slice"
  bottom: "cont"
  top: "cont_1"
  slice_param {
    axis: 0
  }
}
layer {
  name: "lstm2_x_transform"
  type: "InnerProduct"
  bottom: "x"
  top: "W_xc_x"
  param {
    name: "W_xc"
  }
  param {
    name: "b_c"
  }
  propagate_down: true
  inner_product_param {
    num_output: 4000
    bias_term: true
    weight_filler {
      type: "uniform"
      min: -0.08
      max: 0.08
    }
    bias_filler {
      type: "constant"
      value: 0
    }
    axis: 2
  }
}
layer {
  name: "lstm2_W_xc_x_slice"
  type: "Slice"
  bottom: "W_xc_x"
  top: "W_xc_x_1"
  slice_param {
    axis: 0
  }
}
layer {
  name: "lstm2_h_conted_0"
  type: "Scale"
  bottom: "h_0"
  bottom: "cont_1"
  top: "h_conted_0"
  scale_param {
    axis: 0
  }
}
layer {
  name: "lstm2_transform_1"
  type: "InnerProduct"
  bottom: "h_conted_0"
  top: "W_hc_h_0"
  param {
    name: "W_hc"
  }
  inner_product_param {
    num_output: 4000
    bias_term: false
    weight_filler {
      type: "uniform"
      min: -0.08
      max: 0.08
    }
    axis: 2
  }
}
layer {
  name: "lstm2_gate_input_1"
  type: "Eltwise"
  bottom: "W_hc_h_0"
  bottom: "W_xc_x_1"
  top: "gate_input_1"
  eltwise_param {
    operation: SUM
  }
}
layer {
  name: "lstm2_unit_1"
  type: "LSTMUnit"
  bottom: "c_0"
  bottom: "gate_input_1"
  bottom: "cont_1"
  top: "c_1"
  top: "h_1"
}
layer {
  name: "lstm2_"
  type: "Split"
  bottom: "c_1"
  top: "c_T"
}
layer {
  name: "lstm2_h_concat"
  type: "Concat"
  bottom: "h_1"
  top: "h"
  concat_param {
    axis: 0
  }
}
layer {
  name: "h_pseudoloss"
  type: "Reduction"
  bottom: "h"
  top: "h_pseudoloss"
  loss_weight: 1
}
I0924 03:09:28.793766 16485 layer_factory.hpp:77] Creating layer lstm2_
I0924 03:09:28.793778 16485 net.cpp:91] Creating Layer lstm2_
I0924 03:09:28.793784 16485 net.cpp:399] lstm2_ -> x
I0924 03:09:28.793797 16485 net.cpp:399] lstm2_ -> cont
I0924 03:09:28.884423 16491 net.cpp:141] Setting up lstm1_transform_1
I0924 03:09:28.884479 16491 net.cpp:148] Top shape: 1 1 4000 (4000)
I0924 03:09:28.884485 16491 net.cpp:156] Memory required for data: 62016
I0924 03:09:28.884506 16491 layer_factory.hpp:77] Creating layer lstm1_gate_input_1
I0924 03:09:28.884531 16491 net.cpp:91] Creating Layer lstm1_gate_input_1
I0924 03:09:28.884539 16491 net.cpp:425] lstm1_gate_input_1 <- W_hc_h_0
I0924 03:09:28.884548 16491 net.cpp:425] lstm1_gate_input_1 <- W_xc_x_1
I0924 03:09:28.884559 16491 net.cpp:399] lstm1_gate_input_1 -> gate_input_1
I0924 03:09:28.884608 16491 net.cpp:141] Setting up lstm1_gate_input_1
I0924 03:09:28.884618 16491 net.cpp:148] Top shape: 1 1 4000 (4000)
I0924 03:09:28.884623 16491 net.cpp:156] Memory required for data: 78016
I0924 03:09:28.884627 16491 layer_factory.hpp:77] Creating layer lstm1_unit_1
I0924 03:09:28.884644 16491 net.cpp:91] Creating Layer lstm1_unit_1
I0924 03:09:28.884650 16491 net.cpp:425] lstm1_unit_1 <- c_0
I0924 03:09:28.884656 16491 net.cpp:425] lstm1_unit_1 <- gate_input_1
I0924 03:09:28.884662 16491 net.cpp:425] lstm1_unit_1 <- cont_1_lstm1_cont_slice_0_split_1
I0924 03:09:28.884670 16491 net.cpp:399] lstm1_unit_1 -> c_1
I0924 03:09:28.884680 16491 net.cpp:399] lstm1_unit_1 -> h_1
I0924 03:09:28.884747 16491 net.cpp:141] Setting up lstm1_unit_1
I0924 03:09:28.884757 16491 net.cpp:148] Top shape: 1 1 1000 (1000)
I0924 03:09:28.884763 16491 net.cpp:148] Top shape: 1 1 1000 (1000)
I0924 03:09:28.884768 16491 net.cpp:156] Memory required for data: 86016
I0924 03:09:28.884773 16491 layer_factory.hpp:77] Creating layer lstm1_
I0924 03:09:28.884784 16491 net.cpp:91] Creating Layer lstm1_
I0924 03:09:28.884789 16491 net.cpp:425] lstm1_ <- c_1
I0924 03:09:28.884801 16491 net.cpp:399] lstm1_ -> c_T
I0924 03:09:28.884834 16491 net.cpp:141] Setting up lstm1_
I0924 03:09:28.884842 16491 net.cpp:148] Top shape: 1 1 1000 (1000)
I0924 03:09:28.884848 16491 net.cpp:156] Memory required for data: 90016
I0924 03:09:28.884853 16491 layer_factory.hpp:77] Creating layer lstm1_h_concat
I0924 03:09:28.884865 16491 net.cpp:91] Creating Layer lstm1_h_concat
I0924 03:09:28.884871 16491 net.cpp:425] lstm1_h_concat <- h_1
I0924 03:09:28.884878 16491 net.cpp:399] lstm1_h_concat -> h
I0924 03:09:28.884917 16491 net.cpp:141] Setting up lstm1_h_concat
I0924 03:09:28.884928 16491 net.cpp:148] Top shape: 1 1 1000 (1000)
I0924 03:09:28.884933 16491 net.cpp:156] Memory required for data: 94016
I0924 03:09:28.884939 16491 layer_factory.hpp:77] Creating layer h_pseudoloss
I0924 03:09:28.884950 16491 net.cpp:91] Creating Layer h_pseudoloss
I0924 03:09:28.884956 16491 net.cpp:425] h_pseudoloss <- h
I0924 03:09:28.884964 16491 net.cpp:399] h_pseudoloss -> h_pseudoloss
I0924 03:09:28.885145 16491 net.cpp:141] Setting up h_pseudoloss
…
I0924 03:09:28.885254 16491 net.cpp:219] lstm1_ does not need backward computation.
I0924 03:09:28.885258 16491 net.cpp:261] This network produces output c_T
I0924 03:09:28.885263 16491 net.cpp:261] This network produces output h_pseudoloss
I0924 03:09:28.885278 16491 net.cpp:274] Network initialization done.
I0924 03:09:28.885329 16491 recurrent_layer.cpp:150] Adding parameter 0: W_xc
I0924 03:09:28.885336 16491 recurrent_layer.cpp:150] Adding parameter 1: b_c
I0924 03:09:28.885341 16491 recurrent_layer.cpp:150] Adding parameter 2: W_hc
I0924 03:09:28.885465 16491 net.cpp:141] Setting up lstm1
I0924 03:09:28.885480 16491 net.cpp:148] Top shape: 1 1 1000 (1000)
I0924 03:09:28.885485 16491 net.cpp:156] Memory required for data: 26408
I0924 03:09:28.885499 16491 layer_factory.hpp:77] Creating layer concat
I0924 03:09:28.885510 16491 net.cpp:91] Creating Layer concat
I0924 03:09:28.885521 16491 net.cpp:425] concat <- lstm1
I0924 03:09:28.885532 16491 net.cpp:425] concat <- embedded_input_sentence
I0924 03:09:28.885543 16491 net.cpp:425] concat <- reshaped_stage_indicator
I0924 03:09:28.885556 16491 net.cpp:399] concat -> lstm1_video_sequence
I0924 03:09:28.885607 16491 net.cpp:141] Setting up concat
I0924 03:09:28.885619 16491 net.cpp:148] Top shape: 1 1 1501 (1501)
I0924 03:09:28.885625 16491 net.cpp:156] Memory required for data: 32412
I0924 03:09:28.885630 16491 layer_factory.hpp:77] Creating layer lstm2
I0924 03:09:28.885646 16491 net.cpp:91] Creating Layer lstm2
I0924 03:09:28.885653 16491 net.cpp:425] lstm2 <- lstm1_video_sequence
I0924 03:09:28.885660 16491 net.cpp:425] lstm2 <- cont_sentence_input_1_split_1
I0924 03:09:28.885668 16491 net.cpp:399] lstm2 -> lstm2
I0924 03:09:28.885680 16491 recurrent_layer.cpp:20] Initializing recurrent layer: assuming input batch contains 1 timesteps of 1 independent streams.
I0924 03:09:28.885893 16485 net.cpp:141] Setting up lstm2_
I0924 03:09:28.885916 16485 net.cpp:148] Top shape: 1 1 1501 (1501)
I0924 03:09:28.885924 16485 net.cpp:148] Top shape: 1 1 (1)
I0924 03:09:28.885931 16485 net.cpp:156] Memory required for data: 6008
I0924 03:09:28.885936 16485 layer_factory.hpp:77] Creating layer lstm2_
I0924 03:09:28.885949 16485 net.cpp:91] Creating Layer lstm2_
I0924 03:09:28.885967 16485 net.cpp:399] lstm2_ -> c_0
I0924 03:09:28.885972 16491 net.cpp:49] Initializing net from parameters: 
layer {
  name: "lstm2_"
  type: "Input"
  top: "x"
  top: "cont"
  input_param {
    shape {
      dim: 1
      dim: 1
      dim: 1501
    }
    shape {
      dim: 1
      dim: 1
    }
  }
}
layer {
  name: "lstm2_"
  type: "Input"
  top: "c_0"
  top: "h_0"
  input_param {
    shape {
      dim: 1
      dim: 1
      dim: 1000
    }
    shape {
      dim: 1
      dim: 1
      dim: 1000
    }
  }
}
layer {
  name: "lstm2_cont_slice"
  type: "Slice"
  bottom: "cont"
  top: "cont_1"
  slice_param {
    axis: 0
  }
}
layer {
  name: "lstm2_x_transform"
  type: "InnerProduct"
  bottom: "x"
  top: "W_xc_x"
  param {
    name: "W_xc"
  }
  param {
    name: "b_c"
  }
  propagate_down: true
  inner_product_param {
    num_output: 4000
    bias_term: true
    weight_filler {
      type: "uniform"
      min: -0.08
      max: 0.08
    }
    bias_filler {
      type: "constant"
      value: 0
    }
    axis: 2
  }
}
layer {
  name: "lstm2_W_xc_x_slice"
  type: "Slice"
  bottom: "W_xc_x"
  top: "W_xc_x_1"
  slice_param {
    axis: 0
  }
}
layer {
  name: "lstm2_h_conted_0"
  type: "Scale"
  bottom: "h_0"
  bottom: "cont_1"
  top: "h_conted_0"
  scale_param {
    axis: 0
  }
}
layer {
  name: "lstm2_transform_1"
  type: "InnerProduct"
  bottom: "h_conted_0"
  top: "W_hc_h_0"
  param {
    name: "W_hc"
  }
  inner_product_param {
    num_output: 4000
    bias_term: false
    weight_filler {
      type: "uniform"
      min: -0.08
      max: 0.08
    }
    axis: 2
  }
}
layer {
  name: "lstm2_gate_input_1"
  type: "Eltwise"
  bottom: "W_hc_h_0"
  bottom: "W_xc_x_1"
  top: "gate_input_1"
  eltwise_param {
    operation: SUM
  }
}
layer {
  name: "lstm2_unit_1"
  type: "LSTMUnit"
  bottom: "c_0"
  bottom: "gate_input_1"
  bottom: "cont_1"
  top: "c_1"
  top: "h_1"
}
layer {
  name: "lstm2_"
  type: "Split"
  bottom: "c_1"
  top: "c_T"
}
layer {
  name: "lstm2_h_concat"
  type: "Concat"
  bottom: "h_1"
  top: "h"
  concat_param {
    axis: 0
  }
}
layer {
  name: "h_pseudoloss"
  type: "Reduction"
  bottom: "h"
  top: "h_pseudoloss"
  loss_weight: 1
}
I0924 03:09:28.885982 16485 net.cpp:399] lstm2_ -> h_0
I0924 03:09:28.886078 16491 layer_factory.hpp:77] Creating layer lstm2_
I0924 03:09:28.886091 16491 net.cpp:91] Creating Layer lstm2_
I0924 03:09:28.886098 16491 net.cpp:399] lstm2_ -> x
I0924 03:09:28.886109 16491 net.cpp:399] lstm2_ -> cont
I0924 03:09:28.886118 16481 net.cpp:141] Setting up lstm2_x_transform
I0924 03:09:28.886160 16481 net.cpp:148] Top shape: 1 1 4000 (4000)
I0924 03:09:28.886170 16481 net.cpp:156] Memory required for data: 30020
I0924 03:09:28.886196 16481 layer_factory.hpp:77] Creating layer lstm2_W_xc_x_slice
I0924 03:09:28.886217 16481 net.cpp:91] Creating Layer lstm2_W_xc_x_slice
I0924 03:09:28.886229 16481 net.cpp:425] lstm2_W_xc_x_slice <- W_xc_x
I0924 03:09:28.886243 16481 net.cpp:399] lstm2_W_xc_x_slice -> W_xc_x_1
I0924 03:09:28.886369 16481 net.cpp:141] Setting up lstm2_W_xc_x_slice
I0924 03:09:28.886387 16481 net.cpp:148] Top shape: 1 1 4000 (4000)
I0924 03:09:28.886395 16481 net.cpp:156] Memory required for data: 46020
I0924 03:09:28.886404 16481 layer_factory.hpp:77] Creating layer lstm2_h_conted_0
I0924 03:09:28.886420 16481 net.cpp:91] Creating Layer lstm2_h_conted_0
I0924 03:09:28.886423 16485 net.cpp:141] Setting up lstm2_
I0924 03:09:28.886430 16481 net.cpp:425] lstm2_h_conted_0 <- h_0
I0924 03:09:28.886437 16485 net.cpp:148] Top shape: 1 1 1000 (1000)
I0924 03:09:28.886441 16481 net.cpp:425] lstm2_h_conted_0 <- cont_1_lstm2_cont_slice_0_split_0
I0924 03:09:28.886445 16485 net.cpp:148] Top shape: 1 1 1000 (1000)
I0924 03:09:28.886457 16491 net.cpp:141] Setting up lstm2_
I0924 03:09:28.886463 16485 net.cpp:156] Memory required for data: 14008
I0924 03:09:28.886481 16491 net.cpp:148] Top shape: 1 1 1501 (1501)
I0924 03:09:28.886462 16481 net.cpp:399] lstm2_h_conted_0 -> h_conted_0
I0924 03:09:28.886492 16491 net.cpp:148] Top shape: 1 1 (1)
I0924 03:09:28.886487 16485 layer_factory.hpp:77] Creating layer lstm2_cont_slice
I0924 03:09:28.886502 16491 net.cpp:156] Memory required for data: 6008
I0924 03:09:28.886514 16491 layer_factory.hpp:77] Creating layer lstm2_
I0924 03:09:28.886514 16485 net.cpp:91] Creating Layer lstm2_cont_slice
I0924 03:09:28.886518 16483 net.cpp:141] Setting up lstm1
I0924 03:09:28.886525 16485 net.cpp:425] lstm2_cont_slice <- cont
I0924 03:09:28.886548 16483 net.cpp:148] Top shape: 1 1 1000 (1000)
I0924 03:09:28.886554 16485 net.cpp:399] lstm2_cont_slice -> cont_1
I0924 03:09:28.886559 16483 net.cpp:156] Memory required for data: 26408
I0924 03:09:28.886562 16491 net.cpp:91] Creating Layer lstm2_
I0924 03:09:28.886580 16491 net.cpp:399] lstm2_ -> c_0
I0924 03:09:28.886586 16483 layer_factory.hpp:77] Creating layer concat
I0924 03:09:28.886620 16491 net.cpp:399] lstm2_ -> h_0
I0924 03:09:28.886637 16483 net.cpp:91] Creating Layer concat
I0924 03:09:28.886651 16483 net.cpp:425] concat <- lstm1
I0924 03:09:28.886664 16483 net.cpp:425] concat <- embedded_input_sentence
I0924 03:09:28.886675 16483 net.cpp:425] concat <- reshaped_stage_indicator
I0924 03:09:28.886688 16483 net.cpp:399] concat -> lstm1_video_sequence
I0924 03:09:28.886694 16481 net.cpp:141] Setting up lstm2_h_conted_0
I0924 03:09:28.886713 16481 net.cpp:148] Top shape: 1 1 1000 (1000)
I0924 03:09:28.886719 16481 net.cpp:156] Memory required for data: 50020
I0924 03:09:28.886729 16481 layer_factory.hpp:77] Creating layer lstm2_transform_1
I0924 03:09:28.886740 16485 net.cpp:141] Setting up lstm2_cont_slice
I0924 03:09:28.886749 16481 net.cpp:91] Creating Layer lstm2_transform_1
I0924 03:09:28.886756 16485 net.cpp:148] Top shape: 1 1 (1)
I0924 03:09:28.886760 16481 net.cpp:425] lstm2_transform_1 <- h_conted_0
I0924 03:09:28.886762 16485 net.cpp:156] Memory required for data: 14012
I0924 03:09:28.886783 16481 net.cpp:399] lstm2_transform_1 -> W_hc_h_0
I0924 03:09:28.886790 16485 layer_factory.hpp:77] Creating layer cont_1_lstm2_cont_slice_0_split
I0924 03:09:28.886809 16485 net.cpp:91] Creating Layer cont_1_lstm2_cont_slice_0_split
I0924 03:09:28.886816 16485 net.cpp:425] cont_1_lstm2_cont_slice_0_split <- cont_1
I0924 03:09:28.886826 16485 net.cpp:399] cont_1_lstm2_cont_slice_0_split -> cont_1_lstm2_cont_slice_0_split_0
I0924 03:09:28.886840 16485 net.cpp:399] cont_1_lstm2_cont_slice_0_split -> cont_1_lstm2_cont_slice_0_split_1
I0924 03:09:28.886855 16491 net.cpp:141] Setting up lstm2_
I0924 03:09:28.886874 16491 net.cpp:148] Top shape: 1 1 1000 (1000)
I0924 03:09:28.886886 16491 net.cpp:148] Top shape: 1 1 1000 (1000)
I0924 03:09:28.886895 16491 net.cpp:156] Memory required for data: 14008
I0924 03:09:28.886904 16491 layer_factory.hpp:77] Creating layer lstm2_cont_slice
I0924 03:09:28.886919 16491 net.cpp:91] Creating Layer lstm2_cont_slice
I0924 03:09:28.886921 16485 net.cpp:141] Setting up cont_1_lstm2_cont_slice_0_split
I0924 03:09:28.886931 16491 net.cpp:425] lstm2_cont_slice <- cont
I0924 03:09:28.886936 16485 net.cpp:148] Top shape: 1 1 (1)
I0924 03:09:28.886960 16485 net.cpp:148] Top shape: 1 1 (1)
I0924 03:09:28.886965 16485 net.cpp:156] Memory required for data: 14020
I0924 03:09:28.886963 16491 net.cpp:399] lstm2_cont_slice -> cont_1
I0924 03:09:28.886971 16485 layer_factory.hpp:77] Creating layer lstm2_x_transform
I0924 03:09:28.886997 16485 net.cpp:91] Creating Layer lstm2_x_transform
I0924 03:09:28.886997 16483 net.cpp:141] Setting up concat
I0924 03:09:28.887004 16485 net.cpp:425] lstm2_x_transform <- x
I0924 03:09:28.887023 16483 net.cpp:148] Top shape: 1 1 1501 (1501)
I0924 03:09:28.887033 16483 net.cpp:156] Memory required for data: 32412
I0924 03:09:28.887034 16485 net.cpp:399] lstm2_x_transform -> W_xc_x
I0924 03:09:28.887043 16483 layer_factory.hpp:77] Creating layer lstm2
I0924 03:09:28.887065 16483 net.cpp:91] Creating Layer lstm2
I0924 03:09:28.887074 16483 net.cpp:425] lstm2 <- lstm1_video_sequence
I0924 03:09:28.887086 16483 net.cpp:425] lstm2 <- cont_sentence_input_1_split_1
I0924 03:09:28.887099 16483 net.cpp:399] lstm2 -> lstm2
I0924 03:09:28.887117 16483 recurrent_layer.cpp:20] Initializing recurrent layer: assuming input batch contains 1 timesteps of 1 independent streams.
I0924 03:09:28.887219 16491 net.cpp:141] Setting up lstm2_cont_slice
I0924 03:09:28.887250 16491 net.cpp:148] Top shape: 1 1 (1)
I0924 03:09:28.887267 16491 net.cpp:156] Memory required for data: 14012
I0924 03:09:28.887284 16491 layer_factory.hpp:77] Creating layer cont_1_lstm2_cont_slice_0_split
I0924 03:09:28.887305 16491 net.cpp:91] Creating Layer cont_1_lstm2_cont_slice_0_split
I0924 03:09:28.887320 16491 net.cpp:425] cont_1_lstm2_cont_slice_0_split <- cont_1
I0924 03:09:28.887351 16491 net.cpp:399] cont_1_lstm2_cont_slice_0_split -> cont_1_lstm2_cont_slice_0_split_0
I0924 03:09:28.887379 16491 net.cpp:399] cont_1_lstm2_cont_slice_0_split -> cont_1_lstm2_cont_slice_0_split_1
I0924 03:09:28.887529 16483 net.cpp:49] Initializing net from parameters: 
layer {
  name: "lstm2_"
  type: "Input"
  top: "x"
  top: "cont"
  input_param {
    shape {
      dim: 1
      dim: 1
      dim: 1501
    }
    shape {
      dim: 1
      dim: 1
    }
  }
}
layer {
  name: "lstm2_"
  type: "Input"
  top: "c_0"
  top: "h_0"
  input_param {
    shape {
      dim: 1
      dim: 1
      dim: 1000
    }
    shape {
      dim: 1
      dim: 1
      dim: 1000
    }
  }
}
layer {
  name: "lstm2_cont_slice"
  type: "Slice"
  bottom: "cont"
  top: "cont_1"
  slice_param {
    axis: 0
  }
}
layer {
  name: "lstm2_x_transform"
  type: "InnerProduct"
  bottom: "x"
  top: "W_xc_x"
  param {
    name: "W_xc"
  }
  param {
    name: "b_c"
  }
  propagate_down: true
  inner_product_param {
    num_output: 4000
    bias_term: true
    weight_filler {
      type: "uniform"
      min: -0.08
      max: 0.08
    }
    bias_filler {
      type: "constant"
      value: 0
    }
    axis: 2
  }
}
layer {
  name: "lstm2_W_xc_x_slice"
  type: "Slice"
  bottom: "W_xc_x"
  top: "W_xc_x_1"
  slice_param {
    axis: 0
  }
}
layer {
  name: "lstm2_h_conted_0"
  type: "Scale"
  bottom: "h_0"
  bottom: "cont_1"
  top: "h_conted_0"
  scale_param {
    axis: 0
  }
}
layer {
  name: "lstm2_transform_1"
  type: "InnerProduct"
  bottom: "h_conted_0"
  top: "W_hc_h_0"
  param {
    name: "W_hc"
  }
  inner_product_param {
    num_output: 4000
    bias_term: false
    weight_filler {
      type: "uniform"
      min: -0.08
      max: 0.08
    }
    axis: 2
  }
}
layer {
  name: "lstm2_gate_input_1"
  type: "Eltwise"
  bottom: "W_hc_h_0"
  bottom: "W_xc_x_1"
  top: "gate_input_1"
  eltwise_param {
    operation: SUM
  }
}
layer {
  name: "lstm2_unit_1"
  type: "LSTMUnit"
  bottom: "c_0"
  bottom: "gate_input_1"
  bottom: "cont_1"
  top: "c_1"
  top: "h_1"
}
layer {
  name: "lstm2_"
  type: "Split"
  bottom: "c_1"
  top: "c_T"
}
layer {
  name: "lstm2_h_concat"
  type: "Concat"
  bottom: "h_1"
  top: "h"
  concat_param {
    axis: 0
  }
}
layer {
  name: "h_pseudoloss"
  type: "Reduction"
  bottom: "h"
  top: "h_pseudoloss"
  loss_weight: 1
}
I0924 03:09:28.887661 16483 layer_factory.hpp:77] Creating layer lstm2_
I0924 03:09:28.887678 16483 net.cpp:91] Creating Layer lstm2_
I0924 03:09:28.887689 16483 net.cpp:399] lstm2_ -> x
I0924 03:09:28.887706 16483 net.cpp:399] lstm2_ -> cont
I0924 03:09:28.908890 16491 net.cpp:141] Setting up cont_1_lstm2_cont_slice_0_split
I0924 03:09:28.908943 16491 net.cpp:148] Top shape: 1 1 (1)
I0924 03:09:28.908937 16483 net.cpp:141] Setting up lstm2_
I0924 03:09:28.908957 16491 net.cpp:148] Top shape: 1 1 (1)
I0924 03:09:28.908983 16491 net.cpp:156] Memory required for data: 14020
I0924 03:09:28.908984 16483 net.cpp:148] Top shape: 1 1 1501 (1501)
I0924 03:09:28.909004 16491 layer_factory.hpp:77] Creating layer lstm2_x_transform
I0924 03:09:28.909013 16483 net.cpp:148] Top shape: 1 1 (1)
I0924 03:09:28.909023 16483 net.cpp:156] Memory required for data: 6008
I0924 03:09:28.909036 16483 layer_factory.hpp:77] Creating layer lstm2_
I0924 03:09:28.909036 16491 net.cpp:91] Creating Layer lstm2_x_transform
I0924 03:09:28.909063 16491 net.cpp:425] lstm2_x_transform <- x
I0924 03:09:28.909073 16483 net.cpp:91] Creating Layer lstm2_
I0924 03:09:28.909097 16491 net.cpp:399] lstm2_x_transform -> W_xc_x
I0924 03:09:28.909107 16483 net.cpp:399] lstm2_ -> c_0
I0924 03:09:28.909137 16483 net.cpp:399] lstm2_ -> h_0
I0924 03:09:28.909297 16483 net.cpp:141] Setting up lstm2_
I0924 03:09:28.909313 16483 net.cpp:148] Top shape: 1 1 1000 (1000)
I0924 03:09:28.909323 16483 net.cpp:148] Top shape: 1 1 1000 (1000)
I0924 03:09:28.909330 16483 net.cpp:156] Memory required for data: 14008
I0924 03:09:28.909339 16483 layer_factory.hpp:77] Creating layer lstm2_cont_slice
I0924 03:09:28.909355 16483 net.cpp:91] Creating Layer lstm2_cont_slice
I0924 03:09:28.909364 16483 net.cpp:425] lstm2_cont_slice <- cont
I0924 03:09:28.909378 16483 net.cpp:399] lstm2_cont_slice -> cont_1
I0924 03:09:28.924283 16483 net.cpp:141] Setting up lstm2_cont_slice
I0924 03:09:28.924340 16483 net.cpp:148] Top shape: 1 1 (1)
I0924 03:09:28.924350 16483 net.cpp:156] Memory required for data: 14012
I0924 03:09:28.924363 16483 layer_factory.hpp:77] Creating layer cont_1_lstm2_cont_slice_0_split
I0924 03:09:28.924391 16483 net.cpp:91] Creating Layer cont_1_lstm2_cont_slice_0_split
I0924 03:09:28.924402 16483 net.cpp:425] cont_1_lstm2_cont_slice_0_split <- cont_1
I0924 03:09:28.924418 16483 net.cpp:399] cont_1_lstm2_cont_slice_0_split -> cont_1_lstm2_cont_slice_0_split_0
I0924 03:09:28.924438 16483 net.cpp:399] cont_1_lstm2_cont_slice_0_split -> cont_1_lstm2_cont_slice_0_split_1
I0924 03:09:28.924553 16483 net.cpp:141] Setting up cont_1_lstm2_cont_slice_0_split
I0924 03:09:28.924568 16483 net.cpp:148] Top shape: 1 1 (1)
I0924 03:09:28.924579 16483 net.cpp:148] Top shape: 1 1 (1)
I0924 03:09:28.924587 16483 net.cpp:156] Memory required for data: 14020
I0924 03:09:28.924595 16483 layer_factory.hpp:77] Creating layer lstm2_x_transform
I0924 03:09:28.924624 16483 net.cpp:91] Creating Layer lstm2_x_transform
I0924 03:09:28.924634 16483 net.cpp:425] lstm2_x_transform <- x
I0924 03:09:28.924649 16483 net.cpp:399] lstm2_x_transform -> W_xc_x
I0924 03:09:28.938300 16481 net.cpp:141] Setting up lstm2_transform_1
I0924 03:09:28.938372 16481 net.cpp:148] Top shape: 1 1 4000 (4000)
I0924 03:09:28.938387 16481 net.cpp:156] Memory required for data: 66020
I0924 03:09:28.938421 16481 layer_factory.hpp:77] Creating layer lstm2_gate_input_1
I0924 03:09:28.938396 16515 net.cpp:141] Setting up lstm2_transform_1
I0924 03:09:28.938457 16481 net.cpp:91] Creating Layer lstm2_gate_input_1
I0924 03:09:28.938458 16515 net.cpp:148] Top shape: 1 1 4000 (4000)
I0924 03:09:28.938482 16481 net.cpp:425] lstm2_gate_input_1 <- W_hc_h_0
I0924 03:09:28.938488 16515 net.cpp:156] Memory required for data: 66020
I0924 03:09:28.938496 16481 net.cpp:425] lstm2_gate_input_1 <- W_xc_x_1
I0924 03:09:28.938508 16481 net.cpp:399] lstm2_gate_input_1 -> gate_input_1
I0924 03:09:28.938570 16515 layer_factory.hpp:77] Creating layer lstm2_gate_input_1
I0924 03:09:28.938616 16481 net.cpp:141] Setting up lstm2_gate_input_1
I0924 03:09:28.938633 16481 net.cpp:148] Top shape: 1 1 4000 (4000)
I0924 03:09:28.938642 16481 net.cpp:156] Memory required for data: 82020
I0924 03:09:28.938648 16481 layer_factory.hpp:77] Creating layer lstm2_unit_1
I0924 03:09:28.938663 16481 net.cpp:91] Creating Layer lstm2_unit_1
I0924 03:09:28.938662 16515 net.cpp:91] Creating Layer lstm2_gate_input_1
I0924 03:09:28.938669 16481 net.cpp:425] lstm2_unit_1 <- c_0
I0924 03:09:28.938678 16481 net.cpp:425] lstm2_unit_1 <- gate_input_1
I0924 03:09:28.938678 16515 net.cpp:425] lstm2_gate_input_1 <- W_hc_h_0
I0924 03:09:28.938683 16481 net.cpp:425] lstm2_unit_1 <- cont_1_lstm2_cont_slice_0_split_1
I0924 03:09:28.938691 16481 net.cpp:399] lstm2_unit_1 -> c_1
I0924 03:09:28.938691 16515 net.cpp:425] lstm2_gate_input_1 <- W_xc_x_1
I0924 03:09:28.938711 16481 net.cpp:399] lstm2_unit_1 -> h_1
I0924 03:09:28.938722 16515 net.cpp:399] lstm2_gate_input_1 -> gate_input_1
I0924 03:09:28.938807 16515 net.cpp:141] Setting up lstm2_gate_input_1
I0924 03:09:28.938818 16515 net.cpp:148] Top shape: 1 1 4000 (4000)
I0924 03:09:28.938823 16515 net.cpp:156] Memory required for data: 82020
I0924 03:09:28.938829 16515 layer_factory.hpp:77] Creating layer lstm2_unit_1
I0924 03:09:28.938839 16515 net.cpp:91] Creating Layer lstm2_unit_1
I0924 03:09:28.938845 16515 net.cpp:425] lstm2_unit_1 <- c_0
I0924 03:09:28.938856 16515 net.cpp:425] lstm2_unit_1 <- gate_input_1
I0924 03:09:28.938868 16515 net.cpp:425] lstm2_unit_1 <- cont_1_lstm2_cont_slice_0_split_1
I0924 03:09:28.938880 16515 net.cpp:399] lstm2_unit_1 -> c_1
I0924 03:09:28.938897 16515 net.cpp:399] lstm2_unit_1 -> h_1
I0924 03:09:28.938899 16481 net.cpp:141] Setting up lstm2_unit_1
I0924 03:09:28.938922 16481 net.cpp:148] Top shape: 1 1 1000 (1000)
I0924 03:09:28.938930 16481 net.cpp:148] Top shape: 1 1 1000 (1000)
I0924 03:09:28.938935 16481 net.cpp:156] Memory required for data: 90020
I0924 03:09:28.938940 16481 layer_factory.hpp:77] Creating layer lstm2_
I0924 03:09:28.938951 16481 net.cpp:91] Creating Layer lstm2_
I0924 03:09:28.938956 16481 net.cpp:425] lstm2_ <- c_1
I0924 03:09:28.938962 16481 net.cpp:399] lstm2_ -> c_T
I0924 03:09:28.939018 16481 net.cpp:141] Setting up lstm2_
I0924 03:09:28.939026 16481 net.cpp:148] Top shape: 1 1 1000 (1000)
I0924 03:09:28.939033 16481 net.cpp:156] Memory required for data: 94020
I0924 03:09:28.939038 16481 layer_factory.hpp:77] Creating layer lstm2_h_concat
I0924 03:09:28.939070 16481 net.cpp:91] Creating Layer lstm2_h_concat
I0924 03:09:28.939077 16481 net.cpp:425] lstm2_h_concat <- h_1
I0924 03:09:28.939087 16481 net.cpp:399] lstm2_h_concat -> h
I0924 03:09:28.939131 16515 net.cpp:141] Setting up lstm2_unit_1
I0924 03:09:28.939151 16515 net.cpp:148] Top shape: 1 1 1000 (1000)
I0924 03:09:28.939162 16515 net.cpp:148] Top shape: 1 1 1000 (1000)
I0924 03:09:28.939168 16515 net.cpp:156] Memory required for data: 90020
I0924 03:09:28.939177 16515 layer_factory.hpp:77] Creating layer lstm2_
I0924 03:09:28.939177 16481 net.cpp:141] Setting up lstm2_h_concat
I0924 03:09:28.939200 16515 net.cpp:91] Creating Layer lstm2_
I0924 03:09:28.939201 16481 net.cpp:148] Top shape: 1 1 1000 (1000)
I0924 03:09:28.939213 16515 net.cpp:425] lstm2_ <- c_1
I0924 03:09:28.939227 16481 net.cpp:156] Memory required for data: 98020
I0924 03:09:28.939244 16481 layer_factory.hpp:77] Creating layer h_pseudoloss
I0924 03:09:28.939242 16515 net.cpp:399] lstm2_ -> c_T
I0924 03:09:28.939260 16481 net.cpp:91] Creating Layer h_pseudoloss
I0924 03:09:28.939265 16481 net.cpp:425] h_pseudoloss <- h
I0924 03:09:28.939283 16481 net.cpp:399] h_pseudoloss -> h_pseudoloss
I0924 03:09:28.939323 16515 net.cpp:141] Setting up lstm2_
I0924 03:09:28.939338 16515 net.cpp:148] Top shape: 1 1 1000 (1000)
I0924 03:09:28.939345 16515 net.cpp:156] Memory required for data: 94020
I0924 03:09:28.939353 16515 layer_factory.hpp:77] Creating layer lstm2_h_concat
I0924 03:09:28.939366 16515 net.cpp:91] Creating Layer lstm2_h_concat
I0924 03:09:28.939374 16515 net.cpp:425] lstm2_h_concat <- h_1
I0924 03:09:28.939389 16515 net.cpp:399] lstm2_h_concat -> h
…
I0924 03:10:40.085924 16794 net.cpp:148] Top shape: 1 1 1000 (1000)
I0924 03:10:40.085934 16794 net.cpp:148] Top shape: 1 1 1000 (1000)
I0924 03:10:40.085942 16794 net.cpp:156] Memory required for data: 90020
I0924 03:10:40.085952 16794 layer_factory.hpp:77] Creating layer lstm2_
I0924 03:10:40.085963 16794 net.cpp:91] Creating Layer lstm2_
I0924 03:10:40.085971 16794 net.cpp:425] lstm2_ <- c_1
I0924 03:10:40.085974 16768 net.cpp:141] Setting up cont_1_lstm2_cont_slice_0_split
I0924 03:10:40.085985 16768 net.cpp:148] Top shape: 1 1 (1)
I0924 03:10:40.085988 16794 net.cpp:399] lstm2_ -> c_T
I0924 03:10:40.085994 16768 net.cpp:148] Top shape: 1 1 (1)
I0924 03:10:40.085994 16766 recurrent_layer.cpp:150] Adding parameter 0: W_xc
I0924 03:10:40.085999 16768 net.cpp:156] Memory required for data: 14020
I0924 03:10:40.086011 16766 recurrent_layer.cpp:150] Adding parameter 1: b_c
I0924 03:10:40.086016 16768 layer_factory.hpp:77] Creating layer lstm2_x_transform
I0924 03:10:40.086020 16766 recurrent_layer.cpp:150] Adding parameter 2: W_hc
I0924 03:10:40.086037 16768 net.cpp:91] Creating Layer lstm2_x_transform
I0924 03:10:40.086045 16768 net.cpp:425] lstm2_x_transform <- x
I0924 03:10:40.086052 16768 net.cpp:399] lstm2_x_transform -> W_xc_x
I0924 03:10:40.086057 16794 net.cpp:141] Setting up lstm2_
I0924 03:10:40.086072 16794 net.cpp:148] Top shape: 1 1 1000 (1000)
I0924 03:10:40.086081 16794 net.cpp:156] Memory required for data: 94020
I0924 03:10:40.086088 16794 layer_factory.hpp:77] Creating layer lstm2_h_concat
I0924 03:10:40.086102 16794 net.cpp:91] Creating Layer lstm2_h_concat
I0924 03:10:40.086109 16794 net.cpp:425] lstm2_h_concat <- h_1
I0924 03:10:40.086122 16794 net.cpp:399] lstm2_h_concat -> h
I0924 03:10:40.086199 16794 net.cpp:141] Setting up lstm2_h_concat
I0924 03:10:40.086212 16794 net.cpp:148] Top shape: 1 1 1000 (1000)
I0924 03:10:40.086220 16794 net.cpp:156] Memory required for data: 98020
I0924 03:10:40.086227 16794 layer_factory.hpp:77] Creating layer h_pseudoloss
I0924 03:10:40.086241 16794 net.cpp:91] Creating Layer h_pseudoloss
I0924 03:10:40.086248 16794 net.cpp:425] h_pseudoloss <- h
I0924 03:10:40.086261 16794 net.cpp:399] h_pseudoloss -> h_pseudoloss
I0924 03:10:40.100953 16776 net.cpp:141] Setting up lstm1_transform_1
I0924 03:10:40.101012 16776 net.cpp:148] Top shape: 1 1 4000 (4000)
I0924 03:10:40.101022 16776 net.cpp:156] Memory required for data: 62016
I0924 03:10:40.101053 16776 layer_factory.hpp:77] Creating layer lstm1_gate_input_1
I0924 03:10:40.101052 16766 net.cpp:141] Setting up lstm2
I0924 03:10:40.101086 16794 net.cpp:141] Setting up h_pseudoloss
I0924 03:10:40.101111 16776 net.cpp:91] Creating Layer lstm1_gate_input_1
I0924 03:10:40.101114 16766 net.cpp:148] Top shape: 1 1 1000 (1000)
I0924 03:10:40.101125 16794 net.cpp:148] Top shape: (1)
I0924 03:10:40.101126 16776 net.cpp:425] lstm1_gate_input_1 <- W_hc_h_0
I0924 03:10:40.101127 16766 net.cpp:156] Memory required for data: 36412
I0924 03:10:40.101169 16776 net.cpp:425] lstm1_gate_input_1 <- W_xc_x_1
I0924 03:10:40.101150 16794 net.cpp:151]     with loss weight 1
I0924 03:10:40.101186 16776 net.cpp:399] lstm1_gate_input_1 -> gate_input_1
…
I0924 03:10:40.101358 16794 net.cpp:219] lstm2_ does not need backward computation.
I0924 03:10:40.101363 16794 net.cpp:261] This network produces output c_T
I0924 03:10:40.101369 16794 net.cpp:261] This network produces output h_pseudoloss
I0924 03:10:40.101387 16794 net.cpp:274] Network initialization done.
I0924 03:10:40.101445 16794 recurrent_layer.cpp:150] Adding parameter 0: W_xc
I0924 03:10:40.101454 16794 recurrent_layer.cpp:150] Adding parameter 1: b_c
I0924 03:10:40.101459 16794 recurrent_layer.cpp:150] Adding parameter 2: W_hc
I0924 03:10:40.103168 16776 net.cpp:141] Setting up lstm1_gate_input_1
I0924 03:10:40.103215 16776 net.cpp:148] Top shape: 1 1 4000 (4000)
I0924 03:10:40.103229 16776 net.cpp:156] Memory required for data: 78016
I0924 03:10:40.103242 16776 layer_factory.hpp:77] Creating layer lstm1_unit_1
I0924 03:10:40.103271 16776 net.cpp:91] Creating Layer lstm1_unit_1
I0924 03:10:40.103286 16776 net.cpp:425] lstm1_unit_1 <- c_0
I0924 03:10:40.103303 16776 net.cpp:425] lstm1_unit_1 <- gate_input_1
I0924 03:10:40.103315 16776 net.cpp:425] lstm1_unit_1 <- cont_1_lstm1_cont_slice_0_split_1
I0924 03:10:40.103332 16776 net.cpp:399] lstm1_unit_1 -> c_1
I0924 03:10:40.103353 16776 net.cpp:399] lstm1_unit_1 -> h_1
I0924 03:10:40.188781 16800 net.cpp:141] Setting up lstm2_x_transform
I0924 03:10:40.188843 16800 net.cpp:148] Top shape: 1 1 4000 (4000)
I0924 03:10:40.188851 16800 net.cpp:156] Memory required for data: 30020
I0924 03:10:40.188881 16800 layer_factory.hpp:77] Creating layer lstm2_W_xc_x_slice
I0924 03:10:40.188902 16800 net.cpp:91] Creating Layer lstm2_W_xc_x_slice
I0924 03:10:40.188912 16800 net.cpp:425] lstm2_W_xc_x_slice <- W_xc_x
I0924 03:10:40.188935 16800 net.cpp:399] lstm2_W_xc_x_slice -> W_xc_x_1
I0924 03:10:40.188993 16800 net.cpp:141] Setting up lstm2_W_xc_x_slice
I0924 03:10:40.189007 16800 net.cpp:148] Top shape: 1 1 4000 (4000)
I0924 03:10:40.189013 16800 net.cpp:156] Memory required for data: 46020
I0924 03:10:40.189021 16800 layer_factory.hpp:77] Creating layer lstm2_h_conted_0
I0924 03:10:40.189035 16800 net.cpp:91] Creating Layer lstm2_h_conted_0
I0924 03:10:40.189043 16800 net.cpp:425] lstm2_h_conted_0 <- h_0
I0924 03:10:40.189052 16800 net.cpp:425] lstm2_h_conted_0 <- cont_1_lstm2_cont_slice_0_split_0
I0924 03:10:40.189067 16800 net.cpp:399] lstm2_h_conted_0 -> h_conted_0
I0924 03:10:40.189208 16800 net.cpp:141] Setting up lstm2_h_conted_0
I0924 03:10:40.189220 16800 net.cpp:148] Top shape: 1 1 1000 (1000)
I0924 03:10:40.189227 16800 net.cpp:156] Memory required for data: 50020
I0924 03:10:40.189234 16800 layer_factory.hpp:77] Creating layer lstm2_transform_1
I0924 03:10:40.189255 16800 net.cpp:91] Creating Layer lstm2_transform_1
I0924 03:10:40.189263 16800 net.cpp:425] lstm2_transform_1 <- h_conted_0
I0924 03:10:40.189275 16800 net.cpp:399] lstm2_transform_1 -> W_hc_h_0
I0924 03:10:40.198690 16794 net.cpp:141] Setting up lstm2
I0924 03:10:40.198767 16794 net.cpp:148] Top shape: 1 1 1000 (1000)
I0924 03:10:40.198788 16794 net.cpp:156] Memory required for data: 36412
I0924 03:10:40.198837 16794 layer_factory.hpp:77] Creating layer predict
I0924 03:10:40.198848 16770 net.cpp:141] Setting up lstm2_transform_1
I0924 03:10:40.198879 16794 net.cpp:91] Creating Layer predict
I0924 03:10:40.198891 16770 net.cpp:148] Top shape: 1 1 4000 (4000)
I0924 03:10:40.198900 16770 net.cpp:156] Memory required for data: 66020
I0924 03:10:40.198904 16794 net.cpp:425] predict <- lstm2
I0924 03:10:40.198925 16770 layer_factory.hpp:77] Creating layer lstm2_gate_input_1
I0924 03:10:40.198922 16776 net.cpp:141] Setting up lstm1_unit_1
I0924 03:10:40.198963 16770 net.cpp:91] Creating Layer lstm2_gate_input_1
I0924 03:10:40.198967 16776 net.cpp:148] Top shape: 1 1 1000 (1000)
I0924 03:10:40.198977 16770 net.cpp:425] lstm2_gate_input_1 <- W_hc_h_0
I0924 03:10:40.198983 16776 net.cpp:148] Top shape: 1 1 1000 (1000)
I0924 03:10:40.198989 16770 net.cpp:425] lstm2_gate_input_1 <- W_xc_x_1
I0924 03:10:40.198993 16776 net.cpp:156] Memory required for data: 86016
I0924 03:10:40.199003 16770 net.cpp:399] lstm2_gate_input_1 -> gate_input_1
I0924 03:10:40.199003 16776 layer_factory.hpp:77] Creating layer lstm1_
I0924 03:10:40.199021 16776 net.cpp:91] Creating Layer lstm1_
I0924 03:10:40.199033 16768 net.cpp:141] Setting up lstm2_x_transform
I0924 03:10:40.199033 16776 net.cpp:425] lstm1_ <- c_1
I0924 03:10:40.199057 16768 net.cpp:148] Top shape: 1 1 4000 (4000)
I0924 03:10:40.199065 16776 net.cpp:399] lstm1_ -> c_T
I0924 03:10:40.199072 16770 net.cpp:141] Setting up lstm2_gate_input_1
I0924 03:10:40.199066 16768 net.cpp:156] Memory required for data: 30020
I0924 03:10:40.199091 16770 net.cpp:148] Top shape: 1 1 4000 (4000)
I0924 03:10:40.199101 16770 net.cpp:156] Memory required for data: 82020
I0924 03:10:40.199105 16768 layer_factory.hpp:77] Creating layer lstm2_W_xc_x_slice
I0924 03:10:40.199110 16770 layer_factory.hpp:77] Creating layer lstm2_unit_1
I0924 03:10:40.199131 16776 net.cpp:141] Setting up lstm1_
I0924 03:10:40.199141 16770 net.cpp:91] Creating Layer lstm2_unit_1
I0924 03:10:40.199147 16776 net.cpp:148] Top shape: 1 1 1000 (1000)
I0924 03:10:40.199141 16768 net.cpp:91] Creating Layer lstm2_W_xc_x_slice
I0924 03:10:40.199156 16770 net.cpp:425] lstm2_unit_1 <- c_0
I0924 03:10:40.199162 16768 net.cpp:425] lstm2_W_xc_x_slice <- W_xc_x
I0924 03:10:40.199156 16776 net.cpp:156] Memory required for data: 90016
I0924 03:10:40.199173 16770 net.cpp:425] lstm2_unit_1 <- gate_input_1
I0924 03:10:40.199177 16768 net.cpp:399] lstm2_W_xc_x_slice -> W_xc_x_1
I0924 03:10:40.199184 16770 net.cpp:425] lstm2_unit_1 <- cont_1_lstm2_cont_slice_0_split_1
I0924 03:10:40.199177 16776 layer_factory.hpp:77] Creating layer lstm1_h_concat
I0924 03:10:40.199230 16776 net.cpp:91] Creating Layer lstm1_h_concat
I0924 03:10:40.199236 16770 net.cpp:399] lstm2_unit_1 -> c_1
I0924 03:10:40.199241 16776 net.cpp:425] lstm1_h_concat <- h_1
I0924 03:10:40.199261 16770 net.cpp:399] lstm2_unit_1 -> h_1
I0924 03:10:40.199261 16776 net.cpp:399] lstm1_h_concat -> h
I0924 03:10:40.199465 16768 net.cpp:141] Setting up lstm2_W_xc_x_slice
I0924 03:10:40.199479 16768 net.cpp:148] Top shape: 1 1 4000 (4000)
I0924 03:10:40.199484 16768 net.cpp:156] Memory required for data: 46020
I0924 03:10:40.199491 16768 layer_factory.hpp:77] Creating layer lstm2_h_conted_0
I0924 03:10:40.199504 16768 net.cpp:91] Creating Layer lstm2_h_conted_0
I0924 03:10:40.199512 16768 net.cpp:425] lstm2_h_conted_0 <- h_0
I0924 03:10:40.199519 16768 net.cpp:425] lstm2_h_conted_0 <- cont_1_lstm2_cont_slice_0_split_0
I0924 03:10:40.199532 16768 net.cpp:399] lstm2_h_conted_0 -> h_conted_0
I0924 03:10:40.199559 16770 net.cpp:141] Setting up lstm2_unit_1
I0924 03:10:40.199576 16770 net.cpp:148] Top shape: 1 1 1000 (1000)
I0924 03:10:40.199585 16770 net.cpp:148] Top shape: 1 1 1000 (1000)
I0924 03:10:40.199590 16776 net.cpp:141] Setting up lstm1_h_concat
I0924 03:10:40.199594 16770 net.cpp:156] Memory required for data: 90020
I0924 03:10:40.199611 16776 net.cpp:148] Top shape: 1 1 1000 (1000)
I0924 03:10:40.199611 16770 layer_factory.hpp:77] Creating layer lstm2_
I0924 03:10:40.199623 16776 net.cpp:156] Memory required for data: 94016
I0924 03:10:40.199630 16770 net.cpp:91] Creating Layer lstm2_
I0924 03:10:40.199633 16776 layer_factory.hpp:77] Creating layer h_pseudoloss
I0924 03:10:40.199640 16770 net.cpp:425] lstm2_ <- c_1
I0924 03:10:40.199650 16776 net.cpp:91] Creating Layer h_pseudoloss
I0924 03:10:40.199651 16770 net.cpp:399] lstm2_ -> c_T
I0924 03:10:40.199662 16776 net.cpp:425] h_pseudoloss <- h
I0924 03:10:40.199681 16776 net.cpp:399] h_pseudoloss -> h_pseudoloss
I0924 03:10:40.199759 16768 net.cpp:141] Setting up lstm2_h_conted_0
I0924 03:10:40.199776 16768 net.cpp:148] Top shape: 1 1 1000 (1000)
I0924 03:10:40.199785 16768 net.cpp:156] Memory required for data: 50020
I0924 03:10:40.199795 16768 layer_factory.hpp:77] Creating layer lstm2_transform_1
I0924 03:10:40.199815 16768 net.cpp:91] Creating Layer lstm2_transform_1
I0924 03:10:40.199820 16768 net.cpp:425] lstm2_transform_1 <- h_conted_0
I0924 03:10:40.199827 16770 net.cpp:141] Setting up lstm2_
I0924 03:10:40.199838 16768 net.cpp:399] lstm2_transform_1 -> W_hc_h_0
I0924 03:10:40.199844 16770 net.cpp:148] Top shape: 1 1 1000 (1000)
I0924 03:10:40.199852 16770 net.cpp:156] Memory required for data: 94020
I0924 03:10:40.199867 16770 layer_factory.hpp:77] Creating layer lstm2_h_concat
I0924 03:10:40.199887 16770 net.cpp:91] Creating Layer lstm2_h_concat
I0924 03:10:40.199897 16770 net.cpp:425] lstm2_h_concat <- h_1
I0924 03:10:40.199911 16770 net.cpp:399] lstm2_h_concat -> h
I0924 03:10:40.200109 16770 net.cpp:141] Setting up lstm2_h_concat
I0924 03:10:40.200126 16770 net.cpp:148] Top shape: 1 1 1000 (1000)
I0924 03:10:40.200132 16770 net.cpp:156] Memory required for data: 98020
I0924 03:10:40.200139 16770 layer_factory.hpp:77] Creating layer h_pseudoloss
I0924 03:10:40.200150 16776 net.cpp:141] Setting up h_pseudoloss
I0924 03:10:40.200163 16770 net.cpp:91] Creating Layer h_pseudoloss
I0924 03:10:40.200173 16776 net.cpp:148] Top shape: (1)
I0924 03:10:40.200173 16770 net.cpp:425] h_pseudoloss <- h
…
I0924 03:10:40.200350 16776 net.cpp:261] This network produces output c_T
I0924 03:10:40.200361 16776 net.cpp:261] This network produces output h_pseudoloss
I0924 03:10:40.200392 16776 net.cpp:274] Network initialization done.
I0924 03:10:40.200475 16776 recurrent_layer.cpp:150] Adding parameter 0: W_xc
I0924 03:10:40.200487 16776 recurrent_layer.cpp:150] Adding parameter 1: b_c
I0924 03:10:40.200497 16776 recurrent_layer.cpp:150] Adding parameter 2: W_hc
I0924 03:10:40.198935 16794 net.cpp:399] predict -> predict
I0924 03:10:40.218715 16776 net.cpp:141] Setting up lstm1
I0924 03:10:40.218763 16776 net.cpp:148] Top shape: 1 1 1000 (1000)
I0924 03:10:40.218771 16776 net.cpp:156] Memory required for data: 26408
I0924 03:10:40.218801 16776 layer_factory.hpp:77] Creating layer concat
I0924 03:10:40.218822 16776 net.cpp:91] Creating Layer concat
I0924 03:10:40.218832 16776 net.cpp:425] concat <- lstm1
I0924 03:10:40.218844 16776 net.cpp:425] concat <- embedded_input_sentence
I0924 03:10:40.218853 16776 net.cpp:425] concat <- reshaped_stage_indicator
I0924 03:10:40.218865 16776 net.cpp:399] concat -> lstm1_video_sequence
I0924 03:10:40.218927 16776 net.cpp:141] Setting up concat
I0924 03:10:40.218940 16776 net.cpp:148] Top shape: 1 1 1501 (1501)
I0924 03:10:40.218947 16776 net.cpp:156] Memory required for data: 32412
I0924 03:10:40.218955 16776 layer_factory.hpp:77] Creating layer lstm2
I0924 03:10:40.218976 16776 net.cpp:91] Creating Layer lstm2
I0924 03:10:40.218983 16776 net.cpp:425] lstm2 <- lstm1_video_sequence
I0924 03:10:40.218992 16776 net.cpp:425] lstm2 <- cont_sentence_input_1_split_1
I0924 03:10:40.219005 16776 net.cpp:399] lstm2 -> lstm2
I0924 03:10:40.219022 16776 recurrent_layer.cpp:20] Initializing recurrent layer: assuming input batch contains 1 timesteps of 1 independent streams.
I0924 03:10:40.219400 16776 net.cpp:49] Initializing net from parameters: 
layer {
  name: "lstm2_"
  type: "Input"
  top: "x"
  top: "cont"
  input_param {
    shape {
      dim: 1
      dim: 1
      dim: 1501
    }
    shape {
      dim: 1
      dim: 1
    }
  }
}
layer {
  name: "lstm2_"
  type: "Input"
  top: "c_0"
  top: "h_0"
  input_param {
    shape {
      dim: 1
      dim: 1
      dim: 1000
    }
    shape {
      dim: 1
      dim: 1
      dim: 1000
    }
  }
}
layer {
  name: "lstm2_cont_slice"
  type: "Slice"
  bottom: "cont"
  top: "cont_1"
  slice_param {
    axis: 0
  }
}
layer {
  name: "lstm2_x_transform"
  type: "InnerProduct"
  bottom: "x"
  top: "W_xc_x"
  param {
    name: "W_xc"
  }
  param {
    name: "b_c"
  }
  propagate_down: true
  inner_product_param {
    num_output: 4000
    bias_term: true
    weight_filler {
      type: "uniform"
      min: -0.08
      max: 0.08
    }
    bias_filler {
      type: "constant"
      value: 0
    }
    axis: 2
  }
}
layer {
  name: "lstm2_W_xc_x_slice"
  type: "Slice"
  bottom: "W_xc_x"
  top: "W_xc_x_1"
  slice_param {
    axis: 0
  }
}
layer {
  name: "lstm2_h_conted_0"
  type: "Scale"
  bottom: "h_0"
  bottom: "cont_1"
  top: "h_conted_0"
  scale_param {
    axis: 0
  }
}
layer {
  name: "lstm2_transform_1"
  type: "InnerProduct"
  bottom: "h_conted_0"
  top: "W_hc_h_0"
  param {
    name: "W_hc"
  }
  inner_product_param {
    num_output: 4000
    bias_term: false
    weight_filler {
      type: "uniform"
      min: -0.08
      max: 0.08
    }
    axis: 2
  }
}
layer {
  name: "lstm2_gate_input_1"
  type: "Eltwise"
  bottom: "W_hc_h_0"
  bottom: "W_xc_x_1"
  top: "gate_input_1"
  eltwise_param {
    operation: SUM
  }
}
layer {
  name: "lstm2_unit_1"
  type: "LSTMUnit"
  bottom: "c_0"
  bottom: "gate_input_1"
  bottom: "cont_1"
  top: "c_1"
  top: "h_1"
}
layer {
  name: "lstm2_"
  type: "Split"
  bottom: "c_1"
  top: "c_T"
}
layer {
  name: "lstm2_h_concat"
  type: "Concat"
  bottom: "h_1"
  top: "h"
  concat_param {
    axis: 0
  }
}
layer {
  name: "h_pseudoloss"
  type: "Reduction"
  bottom: "h"
  top: "h_pseudoloss"
  loss_weight: 1
}
I0924 03:10:40.219527 16776 layer_factory.hpp:77] Creating layer lstm2_
I0924 03:10:40.219542 16776 net.cpp:91] Creating Layer lstm2_
I0924 03:10:40.219552 16776 net.cpp:399] lstm2_ -> x
I0924 03:10:40.219568 16776 net.cpp:399] lstm2_ -> cont
I0924 03:10:40.219645 16776 net.cpp:141] Setting up lstm2_
I0924 03:10:40.219660 16776 net.cpp:148] Top shape: 1 1 1501 (1501)
I0924 03:10:40.219669 16776 net.cpp:148] Top shape: 1 1 (1)
I0924 03:10:40.219676 16776 net.cpp:156] Memory required for data: 6008
I0924 03:10:40.219683 16776 layer_factory.hpp:77] Creating layer lstm2_
I0924 03:10:40.219696 16776 net.cpp:91] Creating Layer lstm2_
I0924 03:10:40.219707 16776 net.cpp:399] lstm2_ -> c_0
I0924 03:10:40.219722 16776 net.cpp:399] lstm2_ -> h_0
I0924 03:10:40.219804 16776 net.cpp:141] Setting up lstm2_
I0924 03:10:40.219816 16776 net.cpp:148] Top shape: 1 1 1000 (1000)
I0924 03:10:40.219825 16776 net.cpp:148] Top shape: 1 1 1000 (1000)
I0924 03:10:40.219831 16776 net.cpp:156] Memory required for data: 14008
I0924 03:10:40.219840 16776 layer_factory.hpp:77] Creating layer lstm2_cont_slice
I0924 03:10:40.219852 16776 net.cpp:91] Creating Layer lstm2_cont_slice
I0924 03:10:40.219859 16776 net.cpp:425] lstm2_cont_slice <- cont
I0924 03:10:40.219874 16776 net.cpp:399] lstm2_cont_slice -> cont_1
I0924 03:10:40.219921 16776 net.cpp:141] Setting up lstm2_cont_slice
I0924 03:10:40.219934 16776 net.cpp:148] Top shape: 1 1 (1)
I0924 03:10:40.219941 16776 net.cpp:156] Memory required for data: 14012
I0924 03:10:40.219949 16776 layer_factory.hpp:77] Creating layer cont_1_lstm2_cont_slice_0_split
I0924 03:10:40.219960 16776 net.cpp:91] Creating Layer cont_1_lstm2_cont_slice_0_split
I0924 03:10:40.219969 16776 net.cpp:425] cont_1_lstm2_cont_slice_0_split <- cont_1
I0924 03:10:40.219979 16776 net.cpp:399] cont_1_lstm2_cont_slice_0_split -> cont_1_lstm2_cont_slice_0_split_0
I0924 03:10:40.219990 16776 net.cpp:399] cont_1_lstm2_cont_slice_0_split -> cont_1_lstm2_cont_slice_0_split_1
I0924 03:10:40.220062 16776 net.cpp:141] Setting up cont_1_lstm2_cont_slice_0_split
I0924 03:10:40.220075 16776 net.cpp:148] Top shape: 1 1 (1)
I0924 03:10:40.220084 16776 net.cpp:148] Top shape: 1 1 (1)
I0924 03:10:40.220090 16776 net.cpp:156] Memory required for data: 14020
I0924 03:10:40.220098 16776 layer_factory.hpp:77] Creating layer lstm2_x_transform
I0924 03:10:40.220115 16776 net.cpp:91] Creating Layer lstm2_x_transform
I0924 03:10:40.220124 16776 net.cpp:425] lstm2_x_transform <- x
I0924 03:10:40.220135 16776 net.cpp:399] lstm2_x_transform -> W_xc_x
I0924 03:10:40.237546 16770 net.cpp:141] Setting up h_pseudoloss
…
I0924 03:10:40.237735 16770 net.cpp:219] lstm2_ does not need backward computation.
I0924 03:10:40.237741 16770 net.cpp:261] This network produces output c_T
I0924 03:10:40.237749 16770 net.cpp:261] This network produces output h_pseudoloss
I0924 03:10:40.317723 16770 net.cpp:274] Network initialization done.
I0924 03:10:40.317849 16770 recurrent_layer.cpp:150] Adding parameter 0: W_xc
I0924 03:10:40.317858 16770 recurrent_layer.cpp:150] Adding parameter 1: b_c
I0924 03:10:40.317863 16770 recurrent_layer.cpp:150] Adding parameter 2: W_hc
I0924 03:10:40.325734 16800 net.cpp:141] Setting up lstm2_transform_1
I0924 03:10:40.325791 16800 net.cpp:148] Top shape: 1 1 4000 (4000)
I0924 03:10:40.325801 16800 net.cpp:156] Memory required for data: 66020
I0924 03:10:40.325834 16800 layer_factory.hpp:77] Creating layer lstm2_gate_input_1
I0924 03:10:40.325923 16800 net.cpp:91] Creating Layer lstm2_gate_input_1
I0924 03:10:40.325937 16800 net.cpp:425] lstm2_gate_input_1 <- W_hc_h_0
I0924 03:10:40.325953 16800 net.cpp:425] lstm2_gate_input_1 <- W_xc_x_1
I0924 03:10:40.325965 16800 net.cpp:399] lstm2_gate_input_1 -> gate_input_1
I0924 03:10:40.329288 16768 net.cpp:141] Setting up lstm2_transform_1
I0924 03:10:40.329391 16768 net.cpp:148] Top shape: 1 1 4000 (4000)
I0924 03:10:40.329411 16768 net.cpp:156] Memory required for data: 66020
I0924 03:10:40.329457 16768 layer_factory.hpp:77] Creating layer lstm2_gate_input_1
I0924 03:10:40.329521 16768 net.cpp:91] Creating Layer lstm2_gate_input_1
I0924 03:10:40.329545 16768 net.cpp:425] lstm2_gate_input_1 <- W_hc_h_0
I0924 03:10:40.329567 16768 net.cpp:425] lstm2_gate_input_1 <- W_xc_x_1
I0924 03:10:40.329601 16768 net.cpp:399] lstm2_gate_input_1 -> gate_input_1
I0924 03:10:40.329640 16770 net.cpp:141] Setting up lstm2
I0924 03:10:40.329686 16770 net.cpp:148] Top shape: 1 1 1000 (1000)
I0924 03:10:40.329694 16770 net.cpp:156] Memory required for data: 36412
I0924 03:10:40.329721 16770 layer_factory.hpp:77] Creating layer predict
I0924 03:10:40.329743 16770 net.cpp:91] Creating Layer predict
I0924 03:10:40.329753 16770 net.cpp:425] predict <- lstm2
I0924 03:10:40.329757 16768 net.cpp:141] Setting up lstm2_gate_input_1
I0924 03:10:40.329797 16768 net.cpp:148] Top shape: 1 1 4000 (4000)
I0924 03:10:40.329766 16770 net.cpp:399] predict -> predict
I0924 03:10:40.329815 16768 net.cpp:156] Memory required for data: 82020
I0924 03:10:40.330765 16768 layer_factory.hpp:77] Creating layer lstm2_unit_1
I0924 03:10:40.330790 16768 net.cpp:91] Creating Layer lstm2_unit_1
I0924 03:10:40.330798 16768 net.cpp:425] lstm2_unit_1 <- c_0
I0924 03:10:40.330809 16768 net.cpp:425] lstm2_unit_1 <- gate_input_1
I0924 03:10:40.330817 16768 net.cpp:425] lstm2_unit_1 <- cont_1_lstm2_cont_slice_0_split_1
I0924 03:10:40.330828 16768 net.cpp:399] lstm2_unit_1 -> c_1
I0924 03:10:40.330842 16768 net.cpp:399] lstm2_unit_1 -> h_1
I0924 03:10:40.409114 16776 net.cpp:141] Setting up lstm2_x_transform
I0924 03:10:40.409168 16776 net.cpp:148] Top shape: 1 1 4000 (4000)
I0924 03:10:40.409176 16776 net.cpp:156] Memory required for data: 30020
I0924 03:10:40.409205 16776 layer_factory.hpp:77] Creating layer lstm2_W_xc_x_slice
I0924 03:10:40.409227 16776 net.cpp:91] Creating Layer lstm2_W_xc_x_slice
I0924 03:10:40.409238 16776 net.cpp:425] lstm2_W_xc_x_slice <- W_xc_x
I0924 03:10:40.409256 16776 net.cpp:399] lstm2_W_xc_x_slice -> W_xc_x_1
I0924 03:10:40.409306 16800 net.cpp:141] Setting up lstm2_gate_input_1
I0924 03:10:40.409337 16776 net.cpp:141] Setting up lstm2_W_xc_x_slice
I0924 03:10:40.409381 16776 net.cpp:148] Top shape: 1 1 4000 (4000)
I0924 03:10:40.409389 16800 net.cpp:148] Top shape: 1 1 4000 (4000)
I0924 03:10:40.409390 16776 net.cpp:156] Memory required for data: 46020
I0924 03:10:40.409430 16768 net.cpp:141] Setting up lstm2_unit_1
I0924 03:10:40.409433 16800 net.cpp:156] Memory required for data: 82020
I0924 03:10:40.409469 16768 net.cpp:148] Top shape: 1 1 1000 (1000)
I0924 03:10:40.409438 16776 layer_factory.hpp:77] Creating layer lstm2_h_conted_0
I0924 03:10:40.409482 16768 net.cpp:148] Top shape: 1 1 1000 (1000)
I0924 03:10:40.409492 16768 net.cpp:156] Memory required for data: 90020
I0924 03:10:40.409489 16800 layer_factory.hpp:77] Creating layer lstm2_unit_1
I0924 03:10:40.409502 16768 layer_factory.hpp:77] Creating layer lstm2_
I0924 03:10:40.409497 16776 net.cpp:91] Creating Layer lstm2_h_conted_0
I0924 03:10:40.409519 16776 net.cpp:425] lstm2_h_conted_0 <- h_0
I0924 03:10:40.409523 16768 net.cpp:91] Creating Layer lstm2_
I0924 03:10:40.409533 16768 net.cpp:425] lstm2_ <- c_1
I0924 03:10:40.409535 16776 net.cpp:425] lstm2_h_conted_0 <- cont_1_lstm2_cont_slice_0_split_0
I0924 03:10:40.409577 16768 net.cpp:399] lstm2_ -> c_T
I0924 03:10:40.409584 16776 net.cpp:399] lstm2_h_conted_0 -> h_conted_0
I0924 03:10:40.409585 16800 net.cpp:91] Creating Layer lstm2_unit_1
I0924 03:10:40.409610 16800 net.cpp:425] lstm2_unit_1 <- c_0
I0924 03:10:40.409631 16800 net.cpp:425] lstm2_unit_1 <- gate_input_1
I0924 03:10:40.409648 16800 net.cpp:425] lstm2_unit_1 <- cont_1_lstm2_cont_slice_0_split_1
I0924 03:10:40.409675 16800 net.cpp:399] lstm2_unit_1 -> c_1
I0924 03:10:40.409704 16800 net.cpp:399] lstm2_unit_1 -> h_1
I0924 03:10:40.411571 16768 net.cpp:141] Setting up lstm2_
I0924 03:10:40.411609 16768 net.cpp:148] Top shape: 1 1 1000 (1000)
I0924 03:10:40.411618 16768 net.cpp:156] Memory required for data: 94020
I0924 03:10:40.411629 16768 layer_factory.hpp:77] Creating layer lstm2_h_concat
I0924 03:10:40.411649 16768 net.cpp:91] Creating Layer lstm2_h_concat
I0924 03:10:40.411660 16768 net.cpp:425] lstm2_h_concat <- h_1
I0924 03:10:40.411676 16768 net.cpp:399] lstm2_h_concat -> h
I0924 03:10:40.411761 16776 net.cpp:141] Setting up lstm2_h_conted_0
I0924 03:10:40.411778 16776 net.cpp:148] Top shape: 1 1 1000 (1000)
I0924 03:10:40.411787 16776 net.cpp:156] Memory required for data: 50020
I0924 03:10:40.411795 16776 layer_factory.hpp:77] Creating layer lstm2_transform_1
I0924 03:10:40.411818 16776 net.cpp:91] Creating Layer lstm2_transform_1
I0924 03:10:40.411825 16776 net.cpp:425] lstm2_transform_1 <- h_conted_0
I0924 03:10:40.411839 16776 net.cpp:399] lstm2_transform_1 -> W_hc_h_0
I0924 03:10:40.411921 16768 net.cpp:141] Setting up lstm2_h_concat
I0924 03:10:40.411941 16768 net.cpp:148] Top shape: 1 1 1000 (1000)
I0924 03:10:40.411950 16768 net.cpp:156] Memory required for data: 98020
I0924 03:10:40.411959 16768 layer_factory.hpp:77] Creating layer h_pseudoloss
I0924 03:10:40.411976 16768 net.cpp:91] Creating Layer h_pseudoloss
I0924 03:10:40.411988 16768 net.cpp:425] h_pseudoloss <- h
I0924 03:10:40.412003 16768 net.cpp:399] h_pseudoloss -> h_pseudoloss
I0924 03:10:40.422518 16800 net.cpp:141] Setting up lstm2_unit_1
I0924 03:10:40.422557 16768 net.cpp:141] Setting up h_pseudoloss
I0924 03:10:40.422631 16768 net.cpp:148] Top shape: (1)
I0924 03:10:40.422632 16800 net.cpp:148] Top shape: 1 1 1000 (1000)
I0924 03:10:40.422643 16768 net.cpp:151]     with loss weight 1
I0924 03:10:40.422659 16800 net.cpp:148] Top shape: 1 1 1000 (1000)
I0924 03:10:40.422664 16768 net.cpp:156] Memory required for data: 98024
I0924 03:10:40.422685 16800 net.cpp:156] Memory required for data: 90020
I0924 03:10:40.422694 16768 net.cpp:217] h_pseudoloss needs backward computation.
I0924 03:10:40.422708 16768 net.cpp:217] lstm2_h_concat needs backward computation.
I0924 03:10:40.422706 16800 layer_factory.hpp:77] Creating layer lstm2_
I0924 03:10:40.422718 16768 net.cpp:219] lstm2_ does not need backward computation.
…
I0924 03:10:40.507942 16800 net.cpp:261] This network produces output h_pseudoloss
I0924 03:10:40.507966 16800 net.cpp:274] Network initialization done.
I0924 03:10:40.508045 16800 recurrent_layer.cpp:150] Adding parameter 0: W_xc
I0924 03:10:40.508055 16800 recurrent_layer.cpp:150] Adding parameter 1: b_c
I0924 03:10:40.508064 16800 recurrent_layer.cpp:150] Adding parameter 2: W_hc
I0924 03:10:40.507741 16776 net.cpp:425] lstm2_gate_input_1 <- W_xc_x_1
I0924 03:10:40.508159 16776 net.cpp:399] lstm2_gate_input_1 -> gate_input_1
I0924 03:10:40.516222 16776 net.cpp:141] Setting up lstm2_gate_input_1
I0924 03:10:40.516278 16776 net.cpp:148] Top shape: 1 1 4000 (4000)
I0924 03:10:40.516286 16776 net.cpp:156] Memory required for data: 82020
I0924 03:10:40.516297 16776 layer_factory.hpp:77] Creating layer lstm2_unit_1
I0924 03:10:40.516331 16776 net.cpp:91] Creating Layer lstm2_unit_1
I0924 03:10:40.516343 16776 net.cpp:425] lstm2_unit_1 <- c_0
I0924 03:10:40.516358 16776 net.cpp:425] lstm2_unit_1 <- gate_input_1
I0924 03:10:40.516367 16776 net.cpp:425] lstm2_unit_1 <- cont_1_lstm2_cont_slice_0_split_1
I0924 03:10:40.516379 16776 net.cpp:399] lstm2_unit_1 -> c_1
I0924 03:10:40.516396 16776 net.cpp:399] lstm2_unit_1 -> h_1
I0924 03:10:40.516405 16800 net.cpp:141] Setting up lstm2
I0924 03:10:40.516424 16800 net.cpp:148] Top shape: 1 1 1000 (1000)
I0924 03:10:40.516433 16800 net.cpp:156] Memory required for data: 36412
I0924 03:10:40.516458 16800 layer_factory.hpp:77] Creating layer predict
I0924 03:10:40.516479 16800 net.cpp:91] Creating Layer predict
I0924 03:10:40.516490 16800 net.cpp:425] predict <- lstm2
I0924 03:10:40.516502 16800 net.cpp:399] predict -> predict
I0924 03:10:40.516571 16776 net.cpp:141] Setting up lstm2_unit_1
I0924 03:10:40.516587 16776 net.cpp:148] Top shape: 1 1 1000 (1000)
I0924 03:10:40.516597 16776 net.cpp:148] Top shape: 1 1 1000 (1000)
I0924 03:10:40.516603 16776 net.cpp:156] Memory required for data: 90020
I0924 03:10:40.516611 16776 layer_factory.hpp:77] Creating layer lstm2_
I0924 03:10:40.516624 16776 net.cpp:91] Creating Layer lstm2_
I0924 03:10:40.516631 16776 net.cpp:425] lstm2_ <- c_1
I0924 03:10:40.516645 16776 net.cpp:399] lstm2_ -> c_T
I0924 03:10:40.621254 16776 net.cpp:141] Setting up lstm2_
I0924 03:10:40.621312 16776 net.cpp:148] Top shape: 1 1 1000 (1000)
I0924 03:10:40.621320 16776 net.cpp:156] Memory required for data: 94020
I0924 03:10:40.621328 16776 layer_factory.hpp:77] Creating layer lstm2_h_concat
I0924 03:10:40.621346 16776 net.cpp:91] Creating Layer lstm2_h_concat
I0924 03:10:40.621353 16776 net.cpp:425] lstm2_h_concat <- h_1
I0924 03:10:40.621366 16776 net.cpp:399] lstm2_h_concat -> h
I0924 03:10:40.621434 16776 net.cpp:141] Setting up lstm2_h_concat
I0924 03:10:40.621444 16776 net.cpp:148] Top shape: 1 1 1000 (1000)
I0924 03:10:40.621448 16776 net.cpp:156] Memory required for data: 98020
I0924 03:10:40.621454 16776 layer_factory.hpp:77] Creating layer h_pseudoloss
I0924 03:10:40.621464 16776 net.cpp:91] Creating Layer h_pseudoloss
I0924 03:10:40.621469 16776 net.cpp:425] h_pseudoloss <- h
I0924 03:10:40.621476 16776 net.cpp:399] h_pseudoloss -> h_pseudoloss
I0924 03:10:40.621572 16776 net.cpp:141] Setting up h_pseudoloss
…
I0924 03:10:40.621681 16776 net.cpp:219] lstm2_ does not need backward computation.
I0924 03:10:40.621686 16776 net.cpp:261] This network produces output c_T
I0924 03:10:40.621690 16776 net.cpp:261] This network produces output h_pseudoloss
I0924 03:10:40.621707 16776 net.cpp:274] Network initialization done.
I0924 03:10:40.621762 16776 recurrent_layer.cpp:150] Adding parameter 0: W_xc
I0924 03:10:40.621768 16776 recurrent_layer.cpp:150] Adding parameter 1: b_c
I0924 03:10:40.621773 16776 recurrent_layer.cpp:150] Adding parameter 2: W_hc
I0924 03:10:40.621888 16776 net.cpp:141] Setting up lstm2
I0924 03:10:40.621899 16776 net.cpp:148] Top shape: 1 1 1000 (1000)
I0924 03:10:40.621904 16776 net.cpp:156] Memory required for data: 36412
I0924 03:10:40.621920 16776 layer_factory.hpp:77] Creating layer predict
I0924 03:10:40.621932 16776 net.cpp:91] Creating Layer predict
I0924 03:10:40.621938 16776 net.cpp:425] predict <- lstm2
I0924 03:10:40.621947 16776 net.cpp:399] predict -> predict
I0924 03:10:40.705505 16766 net.cpp:141] Setting up predict
I0924 03:10:40.705560 16766 net.cpp:148] Top shape: 1 1 46168 (46168)
I0924 03:10:40.705571 16766 net.cpp:156] Memory required for data: 221084
I0924 03:10:40.705595 16766 layer_factory.hpp:77] Creating layer probs
I0924 03:10:40.705621 16766 net.cpp:91] Creating Layer probs
I0924 03:10:40.705632 16766 net.cpp:425] probs <- predict
I0924 03:10:40.705649 16766 net.cpp:399] probs -> probs
I0924 03:10:40.750959 16794 net.cpp:141] Setting up predict
I0924 03:10:40.751019 16794 net.cpp:148] Top shape: 1 1 46168 (46168)
I0924 03:10:40.751029 16794 net.cpp:156] Memory required for data: 221084
I0924 03:10:40.751050 16794 layer_factory.hpp:77] Creating layer probs
I0924 03:10:40.751075 16794 net.cpp:91] Creating Layer probs
I0924 03:10:40.751085 16794 net.cpp:425] probs <- predict
I0924 03:10:40.751101 16794 net.cpp:399] probs -> probs
I0924 03:10:40.797598 16770 net.cpp:141] Setting up predict
I0924 03:10:40.797655 16770 net.cpp:148] Top shape: 1 1 46168 (46168)
I0924 03:10:40.797664 16770 net.cpp:156] Memory required for data: 221084
I0924 03:10:40.797684 16770 layer_factory.hpp:77] Creating layer probs
I0924 03:10:40.797706 16770 net.cpp:91] Creating Layer probs
I0924 03:10:40.797716 16770 net.cpp:425] probs <- predict
I0924 03:10:40.797729 16770 net.cpp:399] probs -> probs
I0924 03:10:40.832352 16794 net.cpp:141] Setting up probs
I0924 03:10:40.832414 16794 net.cpp:148] Top shape: 1 1 46168 (46168)
I0924 03:10:40.832423 16794 net.cpp:156] Memory required for data: 405756
I0924 03:10:40.832433 16794 net.cpp:219] probs does not need backward computation.
I0924 03:10:40.832442 16794 net.cpp:219] predict does not need backward computation.
I0924 03:10:40.832448 16794 net.cpp:219] lstm2 does not need backward computation.
I0924 03:10:40.832454 16794 net.cpp:219] concat does not need backward computation.
I0924 03:10:40.832461 16794 net.cpp:219] lstm1 does not need backward computation.
I0924 03:10:40.832468 16794 net.cpp:219] embedding does not need backward computation.
I0924 03:10:40.832473 16794 net.cpp:219] reshape_stage_indicator does not need backward computation.
I0924 03:10:40.832479 16794 net.cpp:219] reshape_frames does not need backward computation.
I0924 03:10:40.832486 16794 net.cpp:219] embed_encoder does not need backward computation.
I0924 03:10:40.832495 16794 net.cpp:219] cont_sentence_input_1_split does not need backward computation.
I0924 03:10:40.832505 16794 net.cpp:219] input does not need backward computation.
I0924 03:10:40.832512 16794 net.cpp:261] This network produces output probs
I0924 03:10:40.832542 16794 net.cpp:274] Network initialization done.
I0924 03:10:40.833884 16770 net.cpp:141] Setting up probs
I0924 03:10:40.833902 16770 net.cpp:148] Top shape: 1 1 46168 (46168)
I0924 03:10:40.833909 16770 net.cpp:156] Memory required for data: 405756
I0924 03:10:40.833919 16770 net.cpp:219] probs does not need backward computation.
I0924 03:10:40.833930 16770 net.cpp:219] predict does not need backward computation.
I0924 03:10:40.833935 16770 net.cpp:219] lstm2 does not need backward computation.
I0924 03:10:40.833941 16770 net.cpp:219] concat does not need backward computation.
I0924 03:10:40.833948 16770 net.cpp:219] lstm1 does not need backward computation.
I0924 03:10:40.833955 16770 net.cpp:219] embedding does not need backward computation.
I0924 03:10:40.833959 16770 net.cpp:219] reshape_stage_indicator does not need backward computation.
I0924 03:10:40.833966 16770 net.cpp:219] reshape_frames does not need backward computation.
I0924 03:10:40.833973 16770 net.cpp:219] embed_encoder does not need backward computation.
I0924 03:10:40.833983 16770 net.cpp:219] cont_sentence_input_1_split does not need backward computation.
I0924 03:10:40.833991 16770 net.cpp:219] input does not need backward computation.
I0924 03:10:40.833994 16770 net.cpp:261] This network produces output probs
I0924 03:10:40.834017 16770 net.cpp:274] Network initialization done.
I0924 03:10:40.834313 16766 net.cpp:141] Setting up probs
I0924 03:10:40.834336 16766 net.cpp:148] Top shape: 1 1 46168 (46168)
I0924 03:10:40.834347 16766 net.cpp:156] Memory required for data: 405756
I0924 03:10:40.834357 16766 net.cpp:219] probs does not need backward computation.
I0924 03:10:40.834368 16766 net.cpp:219] predict does not need backward computation.
I0924 03:10:40.834379 16766 net.cpp:219] lstm2 does not need backward computation.
I0924 03:10:40.834390 16766 net.cpp:219] concat does not need backward computation.
I0924 03:10:40.834403 16766 net.cpp:219] lstm1 does not need backward computation.
I0924 03:10:40.834414 16766 net.cpp:219] embedding does not need backward computation.
I0924 03:10:40.834426 16766 net.cpp:219] reshape_stage_indicator does not need backward computation.
I0924 03:10:40.834439 16766 net.cpp:219] reshape_frames does not need backward computation.
I0924 03:10:40.834450 16766 net.cpp:219] embed_encoder does not need backward computation.
I0924 03:10:40.834462 16766 net.cpp:219] cont_sentence_input_1_split does not need backward computation.
I0924 03:10:40.834472 16766 net.cpp:219] input does not need backward computation.
I0924 03:10:40.834481 16766 net.cpp:261] This network produces output probs
I0924 03:10:40.834508 16766 net.cpp:274] Network initialization done.
I0924 03:10:40.834810 16792 net.cpp:141] Setting up conv1
I0924 03:10:40.834833 16792 net.cpp:148] Top shape: 10 96 55 55 (2904000)
I0924 03:10:40.834842 16792 net.cpp:156] Memory required for data: 17799480
I0924 03:10:40.834867 16792 layer_factory.hpp:77] Creating layer relu1
I0924 03:10:40.834890 16792 net.cpp:91] Creating Layer relu1
I0924 03:10:40.834900 16792 net.cpp:425] relu1 <- conv1
I0924 03:10:40.834911 16792 net.cpp:386] relu1 -> conv1 (in-place)
I0924 03:10:40.835528 16792 net.cpp:141] Setting up relu1
I0924 03:10:40.835552 16792 net.cpp:148] Top shape: 10 96 55 55 (2904000)
I0924 03:10:40.835561 16792 net.cpp:156] Memory required for data: 29415480
I0924 03:10:40.835571 16792 layer_factory.hpp:77] Creating layer pool1
I0924 03:10:40.835592 16792 net.cpp:91] Creating Layer pool1
I0924 03:10:40.835599 16792 net.cpp:425] pool1 <- conv1
I0924 03:10:40.835613 16792 net.cpp:399] pool1 -> pool1
I0924 03:10:40.835755 16792 net.cpp:141] Setting up pool1
I0924 03:10:40.835772 16792 net.cpp:148] Top shape: 10 96 27 27 (699840)
I0924 03:10:40.835779 16792 net.cpp:156] Memory required for data: 32214840
I0924 03:10:40.835788 16792 layer_factory.hpp:77] Creating layer norm1
I0924 03:10:40.835813 16792 net.cpp:91] Creating Layer norm1
I0924 03:10:40.835822 16792 net.cpp:425] norm1 <- pool1
I0924 03:10:40.835834 16792 net.cpp:399] norm1 -> norm1
I0924 03:10:40.836237 16792 net.cpp:141] Setting up norm1
I0924 03:10:40.836254 16792 net.cpp:148] Top shape: 10 96 27 27 (699840)
I0924 03:10:40.836262 16792 net.cpp:156] Memory required for data: 35014200
I0924 03:10:40.836272 16792 layer_factory.hpp:77] Creating layer conv2
I0924 03:10:40.836292 16792 net.cpp:91] Creating Layer conv2
I0924 03:10:40.836300 16792 net.cpp:425] conv2 <- norm1
I0924 03:10:40.836313 16792 net.cpp:399] conv2 -> conv2
I0924 03:10:40.841249 16792 net.cpp:141] Setting up conv2
I0924 03:10:40.841315 16792 net.cpp:148] Top shape: 10 256 27 27 (1866240)
I0924 03:10:40.841325 16792 net.cpp:156] Memory required for data: 42479160
I0924 03:10:40.841358 16792 layer_factory.hpp:77] Creating layer relu2
I0924 03:10:40.841383 16792 net.cpp:91] Creating Layer relu2
I0924 03:10:40.841394 16792 net.cpp:425] relu2 <- conv2
I0924 03:10:40.841408 16792 net.cpp:386] relu2 -> conv2 (in-place)
I0924 03:10:40.841781 16792 net.cpp:141] Setting up relu2
I0924 03:10:40.841799 16792 net.cpp:148] Top shape: 10 256 27 27 (1866240)
I0924 03:10:40.841806 16792 net.cpp:156] Memory required for data: 49944120
I0924 03:10:40.841814 16792 layer_factory.hpp:77] Creating layer pool2
I0924 03:10:40.841832 16792 net.cpp:91] Creating Layer pool2
I0924 03:10:40.841840 16792 net.cpp:425] pool2 <- conv2
I0924 03:10:40.841853 16792 net.cpp:399] pool2 -> pool2
I0924 03:10:40.841974 16792 net.cpp:141] Setting up pool2
I0924 03:10:40.841990 16792 net.cpp:148] Top shape: 10 256 13 13 (432640)
I0924 03:10:40.841997 16792 net.cpp:156] Memory required for data: 51674680
I0924 03:10:40.842006 16792 layer_factory.hpp:77] Creating layer norm2
I0924 03:10:40.842027 16792 net.cpp:91] Creating Layer norm2
I0924 03:10:40.842036 16792 net.cpp:425] norm2 <- pool2
I0924 03:10:40.842049 16792 net.cpp:399] norm2 -> norm2
I0924 03:10:40.843153 16792 net.cpp:141] Setting up norm2
I0924 03:10:40.843183 16792 net.cpp:148] Top shape: 10 256 13 13 (432640)
I0924 03:10:40.843191 16792 net.cpp:156] Memory required for data: 53405240
I0924 03:10:40.843200 16792 layer_factory.hpp:77] Creating layer conv3
I0924 03:10:40.843226 16792 net.cpp:91] Creating Layer conv3
I0924 03:10:40.843236 16792 net.cpp:425] conv3 <- norm2
I0924 03:10:40.843257 16792 net.cpp:399] conv3 -> conv3
I0924 03:10:40.862494 16792 net.cpp:141] Setting up conv3
I0924 03:10:40.862553 16792 net.cpp:148] Top shape: 10 384 13 13 (648960)
I0924 03:10:40.862560 16792 net.cpp:156] Memory required for data: 56001080
I0924 03:10:40.862583 16792 layer_factory.hpp:77] Creating layer relu3
I0924 03:10:40.862617 16792 net.cpp:91] Creating Layer relu3
I0924 03:10:40.862629 16792 net.cpp:425] relu3 <- conv3
I0924 03:10:40.862648 16792 net.cpp:386] relu3 -> conv3 (in-place)
I0924 03:10:40.863993 16792 net.cpp:141] Setting up relu3
I0924 03:10:40.864019 16792 net.cpp:148] Top shape: 10 384 13 13 (648960)
I0924 03:10:40.864025 16792 net.cpp:156] Memory required for data: 58596920
I0924 03:10:40.864032 16792 layer_factory.hpp:77] Creating layer conv4
I0924 03:10:40.864536 16792 net.cpp:91] Creating Layer conv4
I0924 03:10:40.864553 16792 net.cpp:425] conv4 <- conv3
I0924 03:10:40.864569 16792 net.cpp:399] conv4 -> conv4
I0924 03:10:40.908757 16792 net.cpp:141] Setting up conv4
I0924 03:10:40.908815 16792 net.cpp:148] Top shape: 10 384 13 13 (648960)
I0924 03:10:40.908823 16792 net.cpp:156] Memory required for data: 61192760
I0924 03:10:40.908843 16792 layer_factory.hpp:77] Creating layer relu4
I0924 03:10:40.909411 16792 net.cpp:91] Creating Layer relu4
I0924 03:10:40.909432 16792 net.cpp:425] relu4 <- conv4
I0924 03:10:40.909445 16792 net.cpp:386] relu4 -> conv4 (in-place)
I0924 03:10:40.910198 16792 net.cpp:141] Setting up relu4
I0924 03:10:40.910221 16792 net.cpp:148] Top shape: 10 384 13 13 (648960)
I0924 03:10:40.910228 16792 net.cpp:156] Memory required for data: 63788600
I0924 03:10:40.910233 16792 layer_factory.hpp:77] Creating layer conv5
I0924 03:10:40.910248 16792 net.cpp:91] Creating Layer conv5
I0924 03:10:40.910254 16792 net.cpp:425] conv5 <- conv4
I0924 03:10:40.910281 16792 net.cpp:399] conv5 -> conv5
I0924 03:10:40.915235 16792 net.cpp:141] Setting up conv5
I0924 03:10:40.915292 16792 net.cpp:148] Top shape: 10 256 13 13 (432640)
I0924 03:10:40.915300 16792 net.cpp:156] Memory required for data: 65519160
I0924 03:10:40.915325 16792 layer_factory.hpp:77] Creating layer relu5
I0924 03:10:40.915345 16792 net.cpp:91] Creating Layer relu5
I0924 03:10:40.915354 16792 net.cpp:425] relu5 <- conv5
I0924 03:10:40.915372 16792 net.cpp:386] relu5 -> conv5 (in-place)
I0924 03:10:40.915617 16792 net.cpp:141] Setting up relu5
I0924 03:10:40.915632 16792 net.cpp:148] Top shape: 10 256 13 13 (432640)
I0924 03:10:40.915637 16792 net.cpp:156] Memory required for data: 67249720
I0924 03:10:40.915642 16792 layer_factory.hpp:77] Creating layer pool5
I0924 03:10:40.915654 16792 net.cpp:91] Creating Layer pool5
I0924 03:10:40.915659 16792 net.cpp:425] pool5 <- conv5
I0924 03:10:40.915668 16792 net.cpp:399] pool5 -> pool5
I0924 03:10:40.915748 16792 net.cpp:141] Setting up pool5
I0924 03:10:40.915763 16792 net.cpp:148] Top shape: 10 256 6 6 (92160)
I0924 03:10:40.915771 16792 net.cpp:156] Memory required for data: 67618360
I0924 03:10:40.915781 16792 layer_factory.hpp:77] Creating layer fc6
I0924 03:10:40.915809 16792 net.cpp:91] Creating Layer fc6
I0924 03:10:40.915819 16792 net.cpp:425] fc6 <- pool5
I0924 03:10:40.915832 16792 net.cpp:399] fc6 -> fc6
I0924 03:10:40.986291 16768 net.cpp:141] Setting up predict
I0924 03:10:40.986383 16768 net.cpp:148] Top shape: 1 1 46168 (46168)
I0924 03:10:40.986397 16768 net.cpp:156] Memory required for data: 221084
I0924 03:10:40.986424 16768 layer_factory.hpp:77] Creating layer probs
I0924 03:10:40.986456 16768 net.cpp:91] Creating Layer probs
I0924 03:10:40.986471 16768 net.cpp:425] probs <- predict
I0924 03:10:40.986491 16768 net.cpp:399] probs -> probs
I0924 03:10:40.987943 16768 net.cpp:141] Setting up probs
I0924 03:10:40.988008 16768 net.cpp:148] Top shape: 1 1 46168 (46168)
I0924 03:10:40.988018 16768 net.cpp:156] Memory required for data: 405756
I0924 03:10:40.988034 16768 net.cpp:219] probs does not need backward computation.
I0924 03:10:40.988049 16768 net.cpp:219] predict does not need backward computation.
I0924 03:10:40.988059 16768 net.cpp:219] lstm2 does not need backward computation.
I0924 03:10:40.988070 16768 net.cpp:219] concat does not need backward computation.
I0924 03:10:40.988080 16768 net.cpp:219] lstm1 does not need backward computation.
I0924 03:10:40.988092 16768 net.cpp:219] embedding does not need backward computation.
I0924 03:10:40.988101 16768 net.cpp:219] reshape_stage_indicator does not need backward computation.
I0924 03:10:40.988113 16768 net.cpp:219] reshape_frames does not need backward computation.
I0924 03:10:40.988122 16768 net.cpp:219] embed_encoder does not need backward computation.
I0924 03:10:40.988132 16768 net.cpp:219] cont_sentence_input_1_split does not need backward computation.
I0924 03:10:40.988142 16768 net.cpp:219] input does not need backward computation.
I0924 03:10:40.988150 16768 net.cpp:261] This network produces output probs
I0924 03:10:40.988184 16768 net.cpp:274] Network initialization done.
I0924 03:10:40.989212 16800 net.cpp:141] Setting up predict
I0924 03:10:40.989264 16800 net.cpp:148] Top shape: 1 1 46168 (46168)
I0924 03:10:40.989270 16800 net.cpp:156] Memory required for data: 221084
I0924 03:10:40.989291 16800 layer_factory.hpp:77] Creating layer probs
I0924 03:10:40.989312 16800 net.cpp:91] Creating Layer probs
I0924 03:10:40.989325 16800 net.cpp:425] probs <- predict
I0924 03:10:40.989338 16800 net.cpp:399] probs -> probs
I0924 03:10:40.991638 16800 net.cpp:141] Setting up probs
I0924 03:10:40.991698 16800 net.cpp:148] Top shape: 1 1 46168 (46168)
I0924 03:10:40.991704 16800 net.cpp:156] Memory required for data: 405756
I0924 03:10:40.991714 16800 net.cpp:219] probs does not need backward computation.
I0924 03:10:40.991724 16800 net.cpp:219] predict does not need backward computation.
I0924 03:10:40.991731 16800 net.cpp:219] lstm2 does not need backward computation.
I0924 03:10:40.991739 16800 net.cpp:219] concat does not need backward computation.
I0924 03:10:40.991745 16800 net.cpp:219] lstm1 does not need backward computation.
I0924 03:10:40.991752 16800 net.cpp:219] embedding does not need backward computation.
I0924 03:10:40.991757 16800 net.cpp:219] reshape_stage_indicator does not need backward computation.
I0924 03:10:40.991763 16800 net.cpp:219] reshape_frames does not need backward computation.
I0924 03:10:40.991770 16800 net.cpp:219] embed_encoder does not need backward computation.
I0924 03:10:40.991781 16800 net.cpp:219] cont_sentence_input_1_split does not need backward computation.
I0924 03:10:40.991793 16800 net.cpp:219] input does not need backward computation.
I0924 03:10:40.991801 16800 net.cpp:261] This network produces output probs
I0924 03:10:40.991827 16800 net.cpp:274] Network initialization done.
I0924 03:10:41.033656 16792 net.cpp:141] Setting up fc6
I0924 03:10:41.033716 16792 net.cpp:148] Top shape: 10 4096 (40960)
I0924 03:10:41.033725 16792 net.cpp:156] Memory required for data: 67782200
I0924 03:10:41.033746 16792 layer_factory.hpp:77] Creating layer relu6
I0924 03:10:41.033766 16792 net.cpp:91] Creating Layer relu6
I0924 03:10:41.033776 16792 net.cpp:425] relu6 <- fc6
I0924 03:10:41.033792 16792 net.cpp:386] relu6 -> fc6 (in-place)
I0924 03:10:41.034711 16792 net.cpp:141] Setting up relu6
I0924 03:10:41.034732 16792 net.cpp:148] Top shape: 10 4096 (40960)
I0924 03:10:41.034740 16792 net.cpp:156] Memory required for data: 67946040
I0924 03:10:41.034749 16792 layer_factory.hpp:77] Creating layer drop6
I0924 03:10:41.034762 16792 net.cpp:91] Creating Layer drop6
I0924 03:10:41.034770 16792 net.cpp:425] drop6 <- fc6
I0924 03:10:41.034785 16792 net.cpp:386] drop6 -> fc6 (in-place)
I0924 03:10:41.034862 16792 net.cpp:141] Setting up drop6
I0924 03:10:41.034878 16792 net.cpp:148] Top shape: 10 4096 (40960)
I0924 03:10:41.034886 16792 net.cpp:156] Memory required for data: 68109880
I0924 03:10:41.034894 16792 layer_factory.hpp:77] Creating layer fc7
I0924 03:10:41.034907 16792 net.cpp:91] Creating Layer fc7
I0924 03:10:41.034914 16792 net.cpp:425] fc7 <- fc6
I0924 03:10:41.034924 16792 net.cpp:399] fc7 -> fc7
I0924 03:10:41.088518 16792 net.cpp:141] Setting up fc7
I0924 03:10:41.088580 16792 net.cpp:148] Top shape: 10 4096 (40960)
I0924 03:10:41.088590 16792 net.cpp:156] Memory required for data: 68273720
I0924 03:10:41.088613 16792 layer_factory.hpp:77] Creating layer relu7
I0924 03:10:41.089073 16792 net.cpp:91] Creating Layer relu7
I0924 03:10:41.089092 16792 net.cpp:425] relu7 <- fc7
I0924 03:10:41.089109 16792 net.cpp:386] relu7 -> fc7 (in-place)
I0924 03:10:41.090675 16792 net.cpp:141] Setting up relu7
I0924 03:10:41.090730 16792 net.cpp:148] Top shape: 10 4096 (40960)
I0924 03:10:41.090740 16792 net.cpp:156] Memory required for data: 68437560
I0924 03:10:41.090754 16792 layer_factory.hpp:77] Creating layer drop7
I0924 03:10:41.090778 16792 net.cpp:91] Creating Layer drop7
I0924 03:10:41.090788 16792 net.cpp:425] drop7 <- fc7
I0924 03:10:41.091190 16792 net.cpp:386] drop7 -> fc7 (in-place)
I0924 03:10:41.091354 16792 net.cpp:141] Setting up drop7
I0924 03:10:41.091374 16792 net.cpp:148] Top shape: 10 4096 (40960)
I0924 03:10:41.091382 16792 net.cpp:156] Memory required for data: 68601400
I0924 03:10:41.091392 16792 layer_factory.hpp:77] Creating layer fc8
I0924 03:10:41.091408 16792 net.cpp:91] Creating Layer fc8
I0924 03:10:41.091415 16792 net.cpp:425] fc8 <- fc7
I0924 03:10:41.091428 16792 net.cpp:399] fc8 -> fc8
I0924 03:10:41.108249 16792 net.cpp:141] Setting up fc8
I0924 03:10:41.108314 16792 net.cpp:148] Top shape: 10 1000 (10000)
I0924 03:10:41.108325 16792 net.cpp:156] Memory required for data: 68641400
I0924 03:10:41.108353 16792 layer_factory.hpp:77] Creating layer prob
I0924 03:10:41.108388 16792 net.cpp:91] Creating Layer prob
I0924 03:10:41.108402 16792 net.cpp:425] prob <- fc8
I0924 03:10:41.108419 16792 net.cpp:399] prob -> prob
I0924 03:10:41.114584 16792 net.cpp:141] Setting up prob
I0924 03:10:41.114660 16792 net.cpp:148] Top shape: 10 1000 (10000)
I0924 03:10:41.114671 16792 net.cpp:156] Memory required for data: 68681400
I0924 03:10:41.114687 16792 net.cpp:219] prob does not need backward computation.
I0924 03:10:41.114701 16792 net.cpp:219] fc8 does not need backward computation.
I0924 03:10:41.114711 16792 net.cpp:219] drop7 does not need backward computation.
I0924 03:10:41.114719 16792 net.cpp:219] relu7 does not need backward computation.
…
