…
Java HotSpot(TM) 64-Bit Server VM warning: You have loaded library /tmp/cvld96642128117067698/libopencv_java310.xine1.so which might have disabled stack guard. The VM will try to fix the stack guard now.
It's highly recommended that you fix the library with 'execstack -c <libfile>', or link it with '-z noexecstack'.
WARNING: Logging before InitGoogleLogging() is written to STDERR
I0731 21:58:26.148502  3168 net.cpp:49] Initializing net from parameters: 
name: "CaffeNet"
state {
  phase: TEST
}
layer {
  name: "data"
  type: "Input"
  top: "data"
  input_param {
    shape {
      dim: 10
      dim: 3
      dim: 227
      dim: 227
    }
  }
}
layer {
  name: "conv1"
  type: "Convolution"
  bottom: "data"
  top: "conv1"
  convolution_param {
    num_output: 96
    kernel_size: 11
    stride: 4
  }
}
layer {
  name: "relu1"
  type: "ReLU"
  bottom: "conv1"
  top: "conv1"
}
layer {
  name: "pool1"
  type: "Pooling"
  bottom: "conv1"
  top: "pool1"
  pooling_param {
    pool: MAX
    kernel_size: 3
    stride: 2
  }
}
layer {
  name: "norm1"
  type: "LRN"
  bottom: "pool1"
  top: "norm1"
  lrn_param {
    local_size: 5
    alpha: 0.0001
    beta: 0.75
  }
}
layer {
  name: "conv2"
  type: "Convolution"
  bottom: "norm1"
  top: "conv2"
  convolution_param {
    num_output: 256
    pad: 2
    kernel_size: 5
    group: 2
  }
}
layer {
  name: "relu2"
  type: "ReLU"
  bottom: "conv2"
  top: "conv2"
}
layer {
  name: "pool2"
  type: "Pooling"
  bottom: "conv2"
  top: "pool2"
  pooling_param {
    pool: MAX
    kernel_size: 3
    stride: 2
  }
}
layer {
  name: "norm2"
  type: "LRN"
  bottom: "pool2"
  top: "norm2"
  lrn_param {
    local_size: 5
    alpha: 0.0001
    beta: 0.75
  }
}
layer {
  name: "conv3"
  type: "Convolution"
  bottom: "norm2"
  top: "conv3"
  convolution_param {
    num_output: 384
    pad: 1
    kernel_size: 3
  }
}
layer {
  name: "relu3"
  type: "ReLU"
  bottom: "conv3"
  top: "conv3"
}
layer {
  name: "conv4"
  type: "Convolution"
  bottom: "conv3"
  top: "conv4"
  convolution_param {
    num_output: 384
    pad: 1
    kernel_size: 3
    group: 2
  }
}
layer {
  name: "relu4"
  type: "ReLU"
  bottom: "conv4"
  top: "conv4"
}
layer {
  name: "conv5"
  type: "Convolution"
  bottom: "conv4"
  top: "conv5"
  convolution_param {
    num_output: 256
    pad: 1
    kernel_size: 3
    group: 2
  }
}
layer {
  name: "relu5"
  type: "ReLU"
  bottom: "conv5"
  top: "conv5"
}
layer {
  name: "pool5"
  type: "Pooling"
  bottom: "conv5"
  top: "pool5"
  pooling_param {
    pool: MAX
    kernel_size: 3
    stride: 2
  }
}
layer {
  name: "fc6"
  type: "InnerProduct"
  bottom: "pool5"
  top: "fc6"
  inner_product_param {
    num_output: 4096
  }
}
layer {
  name: "relu6"
  type: "ReLU"
  bottom: "fc6"
  top: "fc6"
}
layer {
  name: "drop6"
  type: "Dropout"
  bottom: "fc6"
  top: "fc6"
  dropout_param {
    dropout_ratio: 0.5
  }
}
layer {
  name: "fc7"
  type: "InnerProduct"
  bottom: "fc6"
  top: "fc7"
  inner_product_param {
    num_output: 4096
  }
}
layer {
  name: "relu7"
  type: "ReLU"
  bottom: "fc7"
  top: "fc7"
}
layer {
  name: "drop7"
  type: "Dropout"
  bottom: "fc7"
  top: "fc7"
  dropout_param {
    dropout_ratio: 0.5
  }
}
layer {
  name: "fc8"
  type: "InnerProduct"
  bottom: "fc7"
  top: "fc8"
  inner_product_param {
    num_output: 1000
  }
}
layer {
  name: "prob"
  type: "Softmax"
  bottom: "fc8"
  top: "prob"
}
I0731 21:58:26.148686  3168 layer_factory.hpp:77] Creating layer data
I0731 21:58:26.148710  3168 net.cpp:91] Creating Layer data
I0731 21:58:26.148720  3168 net.cpp:399] data -> data
I0731 21:58:26.580763  3158 upgrade_proto.cpp:66] Attempting to upgrade input file specified using deprecated input fields: /tmp/cvld96642128117067698/s2vt.words_to_preds.prototxt
I0731 21:58:26.580842  3158 upgrade_proto.cpp:69] Successfully upgraded file specified using deprecated input fields.
W0731 21:58:26.580857  3158 upgrade_proto.cpp:71] Note that future Caffe releases will only support input layers and not input fields.
I0731 21:58:26.581297  3158 net.cpp:49] Initializing net from parameters: 
name: "s2vt:features_to_lstm"
state {
  phase: TEST
}
layer {
  name: "input"
  type: "Input"
  top: "frames_fc7"
  top: "cont_sentence"
  top: "input_sentence"
  top: "stage_indicator"
  input_param {
    shape {
      dim: 1
      dim: 4096
    }
    shape {
      dim: 1
      dim: 1
    }
    shape {
      dim: 1
      dim: 1
    }
    shape {
      dim: 1
      dim: 1
    }
  }
}
layer {
  name: "embed_encoder"
  type: "InnerProduct"
  bottom: "frames_fc7"
  top: "embedded_in_frames"
  param {
    lr_mult: 1
    decay_mult: 1
  }
  param {
    lr_mult: 2
    decay_mult: 0
  }
  inner_product_param {
    num_output: 500
    weight_filler {
      type: "xavier"
    }
    bias_filler {
      type: "constant"
      value: 0.2
    }
  }
}
layer {
  name: "reshape_frames"
  type: "Reshape"
  bottom: "embedded_in_frames"
  top: "embedded_input_frames"
  reshape_param {
    shape {
      dim: 1
      dim: 1
      dim: 500
    }
  }
}
layer {
  name: "reshape_stage_indicator"
  type: "Reshape"
  bottom: "stage_indicator"
  top: "reshaped_stage_indicator"
  reshape_param {
    shape {
      dim: 1
      dim: 1
      dim: 1
    }
  }
}
layer {
  name: "embedding"
  type: "Embed"
  bottom: "input_sentence"
  top: "embedded_input_sentence"
  param {
    lr_mult: 1
  }
  embed_param {
    num_output: 500
    input_dim: 46168
    bias_term: false
    weight_filler {
      type: "uniform"
      min: -0.08
      max: 0.08
    }
  }
}
layer {
  name: "lstm1"
  type: "LSTM"
  bottom: "embedded_input_frames"
  bottom: "cont_sentence"
  top: "lstm1"
  recurrent_param {
    num_output: 1000
    weight_filler {
      type: "uniform"
      min: -0.08
      max: 0.08
    }
    bias_filler {
      type: "constant"
      value: 0
    }
  }
}
layer {
  name: "concat"
  type: "Concat"
  bottom: "lstm1"
  bottom: "embedded_input_sentence"
  bottom: "reshaped_stage_indicator"
  top: "lstm1_video_sequence"
  concat_param {
    concat_dim: 2
  }
}
layer {
  name: "lstm2"
  type: "LSTM"
  bottom: "lstm1_video_sequence"
  bottom: "cont_sentence"
  top: "lstm2"
  recurrent_param {
    num_output: 1000
    weight_filler {
      type: "uniform"
      min: -0.08
      max: 0.08
    }
    bias_filler {
      type: "constant"
      value: 0
    }
  }
}
layer {
  name: "predict"
  type: "InnerProduct"
  bottom: "lstm2"
  top: "predict"
  param {
    lr_mult: 1
    decay_mult: 1
  }
  param {
    lr_mult: 2
    decay_mult: 0
  }
  inner_product_param {
    num_output: 46168
    weight_filler {
      type: "uniform"
      min: -0.08
      max: 0.08
    }
    bias_filler {
      type: "constant"
      value: 0
    }
    axis: 2
  }
}
layer {
  name: "probs"
  type: "Softmax"
  bottom: "predict"
  top: "probs"
  softmax_param {
    axis: 2
  }
}
I0731 21:58:26.581452  3158 layer_factory.hpp:77] Creating layer input
I0731 21:58:26.581470  3158 net.cpp:91] Creating Layer input
I0731 21:58:26.581477  3158 net.cpp:399] input -> frames_fc7
I0731 21:58:26.581493  3158 net.cpp:399] input -> cont_sentence
I0731 21:58:26.581507  3158 net.cpp:399] input -> input_sentence
I0731 21:58:26.581517  3158 net.cpp:399] input -> stage_indicator
I0731 21:58:26.678954  3168 net.cpp:141] Setting up data
I0731 21:58:26.679008  3158 net.cpp:141] Setting up input
I0731 21:58:26.679023  3168 net.cpp:148] Top shape: 10 3 227 227 (1545870)
I0731 21:58:26.679028  3158 net.cpp:148] Top shape: 1 4096 (4096)
I0731 21:58:26.679029  3168 net.cpp:156] Memory required for data: 6183480
I0731 21:58:26.679035  3158 net.cpp:148] Top shape: 1 1 (1)
I0731 21:58:26.679049  3158 net.cpp:148] Top shape: 1 1 (1)
I0731 21:58:26.679054  3168 layer_factory.hpp:77] Creating layer conv1
I0731 21:58:26.679054  3158 net.cpp:148] Top shape: 1 1 (1)
I0731 21:58:26.679064  3158 net.cpp:156] Memory required for data: 16396
I0731 21:58:26.679069  3158 layer_factory.hpp:77] Creating layer cont_sentence_input_1_split
I0731 21:58:26.679083  3168 net.cpp:91] Creating Layer conv1
I0731 21:58:26.679092  3168 net.cpp:425] conv1 <- data
I0731 21:58:26.679111  3168 net.cpp:399] conv1 -> conv1
I0731 21:58:26.689985  3158 net.cpp:91] Creating Layer cont_sentence_input_1_split
I0731 21:58:26.690001  3158 net.cpp:425] cont_sentence_input_1_split <- cont_sentence
I0731 21:58:26.690023  3158 net.cpp:399] cont_sentence_input_1_split -> cont_sentence_input_1_split_0
I0731 21:58:26.690035  3158 net.cpp:399] cont_sentence_input_1_split -> cont_sentence_input_1_split_1
I0731 21:58:26.690095  3158 net.cpp:141] Setting up cont_sentence_input_1_split
I0731 21:58:26.690105  3158 net.cpp:148] Top shape: 1 1 (1)
I0731 21:58:26.690112  3158 net.cpp:148] Top shape: 1 1 (1)
I0731 21:58:26.690116  3158 net.cpp:156] Memory required for data: 16404
I0731 21:58:26.690121  3158 layer_factory.hpp:77] Creating layer embed_encoder
I0731 21:58:26.691875  3158 net.cpp:91] Creating Layer embed_encoder
I0731 21:58:26.691887  3158 net.cpp:425] embed_encoder <- frames_fc7
I0731 21:58:26.691897  3158 net.cpp:399] embed_encoder -> embedded_in_frames
I0731 21:58:26.747520  3158 net.cpp:141] Setting up embed_encoder
I0731 21:58:26.747577  3158 net.cpp:148] Top shape: 1 500 (500)
I0731 21:58:26.747583  3158 net.cpp:156] Memory required for data: 18404
I0731 21:58:26.747607  3158 layer_factory.hpp:77] Creating layer reshape_frames
I0731 21:58:26.747912  3158 net.cpp:91] Creating Layer reshape_frames
I0731 21:58:26.747941  3158 net.cpp:425] reshape_frames <- embedded_in_frames
I0731 21:58:26.747956  3158 net.cpp:399] reshape_frames -> embedded_input_frames
I0731 21:58:26.748033  3158 net.cpp:141] Setting up reshape_frames
I0731 21:58:26.748044  3158 net.cpp:148] Top shape: 1 1 500 (500)
I0731 21:58:26.748049  3158 net.cpp:156] Memory required for data: 20404
I0731 21:58:26.748054  3158 layer_factory.hpp:77] Creating layer reshape_stage_indicator
I0731 21:58:26.748065  3158 net.cpp:91] Creating Layer reshape_stage_indicator
I0731 21:58:26.748071  3158 net.cpp:425] reshape_stage_indicator <- stage_indicator
I0731 21:58:26.748102  3158 net.cpp:399] reshape_stage_indicator -> reshaped_stage_indicator
I0731 21:58:26.748173  3158 net.cpp:141] Setting up reshape_stage_indicator
I0731 21:58:26.748191  3158 net.cpp:148] Top shape: 1 1 1 (1)
I0731 21:58:26.748199  3158 net.cpp:156] Memory required for data: 20408
I0731 21:58:26.748208  3158 layer_factory.hpp:77] Creating layer embedding
I0731 21:58:26.748241  3158 net.cpp:91] Creating Layer embedding
I0731 21:58:26.748246  3158 net.cpp:425] embedding <- input_sentence
I0731 21:58:26.748255  3158 net.cpp:399] embedding -> embedded_input_sentence
I0731 21:58:26.978289  3158 net.cpp:141] Setting up embedding
I0731 21:58:26.978345  3158 net.cpp:148] Top shape: 1 1 500 (500)
I0731 21:58:26.978351  3158 net.cpp:156] Memory required for data: 22408
I0731 21:58:26.978368  3158 layer_factory.hpp:77] Creating layer lstm1
I0731 21:58:26.978384  3158 net.cpp:91] Creating Layer lstm1
I0731 21:58:26.978391  3158 net.cpp:425] lstm1 <- embedded_input_frames
I0731 21:58:26.978399  3158 net.cpp:425] lstm1 <- cont_sentence_input_1_split_0
I0731 21:58:26.978410  3158 net.cpp:399] lstm1 -> lstm1
I0731 21:58:26.978906  3158 recurrent_layer.cpp:20] Initializing recurrent layer: assuming input batch contains 1 timesteps of 1 independent streams.
I0731 21:58:26.979292  3158 net.cpp:49] Initializing net from parameters: 
layer {
  name: "lstm1_"
  type: "Input"
  top: "x"
  top: "cont"
  input_param {
    shape {
      dim: 1
      dim: 1
      dim: 500
    }
    shape {
      dim: 1
      dim: 1
    }
  }
}
layer {
  name: "lstm1_"
  type: "Input"
  top: "c_0"
  top: "h_0"
  input_param {
    shape {
      dim: 1
      dim: 1
      dim: 1000
    }
    shape {
      dim: 1
      dim: 1
      dim: 1000
    }
  }
}
layer {
  name: "lstm1_cont_slice"
  type: "Slice"
  bottom: "cont"
  top: "cont_1"
  slice_param {
    axis: 0
  }
}
layer {
  name: "lstm1_x_transform"
  type: "InnerProduct"
  bottom: "x"
  top: "W_xc_x"
  param {
    name: "W_xc"
  }
  param {
    name: "b_c"
  }
  propagate_down: true
  inner_product_param {
    num_output: 4000
    bias_term: true
    weight_filler {
      type: "uniform"
      min: -0.08
      max: 0.08
    }
    bias_filler {
      type: "constant"
      value: 0
    }
    axis: 2
  }
}
layer {
  name: "lstm1_W_xc_x_slice"
  type: "Slice"
  bottom: "W_xc_x"
  top: "W_xc_x_1"
  slice_param {
    axis: 0
  }
}
layer {
  name: "lstm1_h_conted_0"
  type: "Scale"
  bottom: "h_0"
  bottom: "cont_1"
  top: "h_conted_0"
  scale_param {
    axis: 0
  }
}
layer {
  name: "lstm1_transform_1"
  type: "InnerProduct"
  bottom: "h_conted_0"
  top: "W_hc_h_0"
  param {
    name: "W_hc"
  }
  inner_product_param {
    num_output: 4000
    bias_term: false
    weight_filler {
      type: "uniform"
      min: -0.08
      max: 0.08
    }
    axis: 2
  }
}
layer {
  name: "lstm1_gate_input_1"
  type: "Eltwise"
  bottom: "W_hc_h_0"
  bottom: "W_xc_x_1"
  top: "gate_input_1"
  eltwise_param {
    operation: SUM
  }
}
layer {
  name: "lstm1_unit_1"
  type: "LSTMUnit"
  bottom: "c_0"
  bottom: "gate_input_1"
  bottom: "cont_1"
  top: "c_1"
  top: "h_1"
}
layer {
  name: "lstm1_"
  type: "Split"
  bottom: "c_1"
  top: "c_T"
}
layer {
  name: "lstm1_h_concat"
  type: "Concat"
  bottom: "h_1"
  top: "h"
  concat_param {
    axis: 0
  }
}
layer {
  name: "h_pseudoloss"
  type: "Reduction"
  bottom: "h"
  top: "h_pseudoloss"
  loss_weight: 1
}
I0731 21:58:26.979392  3158 layer_factory.hpp:77] Creating layer lstm1_
I0731 21:58:26.979403  3158 net.cpp:91] Creating Layer lstm1_
I0731 21:58:26.979410  3158 net.cpp:399] lstm1_ -> x
I0731 21:58:26.979421  3158 net.cpp:399] lstm1_ -> cont
I0731 21:58:26.998162  3158 net.cpp:141] Setting up lstm1_
I0731 21:58:26.998191  3158 net.cpp:148] Top shape: 1 1 500 (500)
I0731 21:58:26.998198  3158 net.cpp:148] Top shape: 1 1 (1)
I0731 21:58:26.998203  3158 net.cpp:156] Memory required for data: 2004
I0731 21:58:26.998211  3158 layer_factory.hpp:77] Creating layer lstm1_
I0731 21:58:26.998232  3158 net.cpp:91] Creating Layer lstm1_
I0731 21:58:26.998245  3158 net.cpp:399] lstm1_ -> c_0
I0731 21:58:26.998257  3158 net.cpp:399] lstm1_ -> h_0
I0731 21:58:27.017361  3158 net.cpp:141] Setting up lstm1_
I0731 21:58:27.017408  3158 net.cpp:148] Top shape: 1 1 1000 (1000)
I0731 21:58:27.017423  3158 net.cpp:148] Top shape: 1 1 1000 (1000)
I0731 21:58:27.017431  3158 net.cpp:156] Memory required for data: 10004
I0731 21:58:27.017443  3158 layer_factory.hpp:77] Creating layer lstm1_cont_slice
I0731 21:58:27.017474  3158 net.cpp:91] Creating Layer lstm1_cont_slice
I0731 21:58:27.017485  3158 net.cpp:425] lstm1_cont_slice <- cont
I0731 21:58:27.017500  3158 net.cpp:399] lstm1_cont_slice -> cont_1
I0731 21:58:27.024252  3158 net.cpp:141] Setting up lstm1_cont_slice
I0731 21:58:27.024272  3158 net.cpp:148] Top shape: 1 1 (1)
I0731 21:58:27.024277  3158 net.cpp:156] Memory required for data: 10008
I0731 21:58:27.024283  3158 layer_factory.hpp:77] Creating layer cont_1_lstm1_cont_slice_0_split
I0731 21:58:27.024292  3158 net.cpp:91] Creating Layer cont_1_lstm1_cont_slice_0_split
I0731 21:58:27.024298  3158 net.cpp:425] cont_1_lstm1_cont_slice_0_split <- cont_1
I0731 21:58:27.024310  3158 net.cpp:399] cont_1_lstm1_cont_slice_0_split -> cont_1_lstm1_cont_slice_0_split_0
I0731 21:58:27.024320  3158 net.cpp:399] cont_1_lstm1_cont_slice_0_split -> cont_1_lstm1_cont_slice_0_split_1
I0731 21:58:27.029877  3158 net.cpp:141] Setting up cont_1_lstm1_cont_slice_0_split
I0731 21:58:27.029909  3158 net.cpp:148] Top shape: 1 1 (1)
I0731 21:58:27.029917  3158 net.cpp:148] Top shape: 1 1 (1)
I0731 21:58:27.029922  3158 net.cpp:156] Memory required for data: 10016
I0731 21:58:27.029927  3158 layer_factory.hpp:77] Creating layer lstm1_x_transform
I0731 21:58:27.029945  3158 net.cpp:91] Creating Layer lstm1_x_transform
I0731 21:58:27.029950  3158 net.cpp:425] lstm1_x_transform <- x
I0731 21:58:27.029959  3158 net.cpp:399] lstm1_x_transform -> W_xc_x
I0731 21:58:27.087473  3158 net.cpp:141] Setting up lstm1_x_transform
I0731 21:58:27.087514  3158 net.cpp:148] Top shape: 1 1 4000 (4000)
I0731 21:58:27.087520  3158 net.cpp:156] Memory required for data: 26016
I0731 21:58:27.087538  3158 layer_factory.hpp:77] Creating layer lstm1_W_xc_x_slice
I0731 21:58:27.087553  3158 net.cpp:91] Creating Layer lstm1_W_xc_x_slice
I0731 21:58:27.087560  3158 net.cpp:425] lstm1_W_xc_x_slice <- W_xc_x
I0731 21:58:27.087569  3158 net.cpp:399] lstm1_W_xc_x_slice -> W_xc_x_1
I0731 21:58:27.087625  3158 net.cpp:141] Setting up lstm1_W_xc_x_slice
I0731 21:58:27.087636  3158 net.cpp:148] Top shape: 1 1 4000 (4000)
I0731 21:58:27.087641  3158 net.cpp:156] Memory required for data: 42016
I0731 21:58:27.087646  3158 layer_factory.hpp:77] Creating layer lstm1_h_conted_0
I0731 21:58:27.087663  3158 net.cpp:91] Creating Layer lstm1_h_conted_0
I0731 21:58:27.087669  3158 net.cpp:425] lstm1_h_conted_0 <- h_0
I0731 21:58:27.087676  3158 net.cpp:425] lstm1_h_conted_0 <- cont_1_lstm1_cont_slice_0_split_0
I0731 21:58:27.087682  3158 net.cpp:399] lstm1_h_conted_0 -> h_conted_0
I0731 21:58:27.087828  3158 net.cpp:141] Setting up lstm1_h_conted_0
I0731 21:58:27.087839  3158 net.cpp:148] Top shape: 1 1 1000 (1000)
I0731 21:58:27.087844  3158 net.cpp:156] Memory required for data: 46016
I0731 21:58:27.087849  3158 layer_factory.hpp:77] Creating layer lstm1_transform_1
I0731 21:58:27.087862  3158 net.cpp:91] Creating Layer lstm1_transform_1
I0731 21:58:27.087867  3158 net.cpp:425] lstm1_transform_1 <- h_conted_0
I0731 21:58:27.087878  3158 net.cpp:399] lstm1_transform_1 -> W_hc_h_0
I0731 21:58:27.140836  3158 net.cpp:141] Setting up lstm1_transform_1
I0731 21:58:27.140880  3158 net.cpp:148] Top shape: 1 1 4000 (4000)
I0731 21:58:27.140887  3158 net.cpp:156] Memory required for data: 62016
I0731 21:58:27.140907  3158 layer_factory.hpp:77] Creating layer lstm1_gate_input_1
I0731 21:58:27.140923  3158 net.cpp:91] Creating Layer lstm1_gate_input_1
I0731 21:58:27.140930  3158 net.cpp:425] lstm1_gate_input_1 <- W_hc_h_0
I0731 21:58:27.140938  3158 net.cpp:425] lstm1_gate_input_1 <- W_xc_x_1
I0731 21:58:27.140949  3158 net.cpp:399] lstm1_gate_input_1 -> gate_input_1
I0731 21:58:27.154523  3158 net.cpp:141] Setting up lstm1_gate_input_1
I0731 21:58:27.154543  3158 net.cpp:148] Top shape: 1 1 4000 (4000)
I0731 21:58:27.154548  3158 net.cpp:156] Memory required for data: 78016
I0731 21:58:27.154553  3158 layer_factory.hpp:77] Creating layer lstm1_unit_1
I0731 21:58:27.154572  3158 net.cpp:91] Creating Layer lstm1_unit_1
I0731 21:58:27.154577  3158 net.cpp:425] lstm1_unit_1 <- c_0
I0731 21:58:27.154584  3158 net.cpp:425] lstm1_unit_1 <- gate_input_1
I0731 21:58:27.154590  3158 net.cpp:425] lstm1_unit_1 <- cont_1_lstm1_cont_slice_0_split_1
I0731 21:58:27.154599  3158 net.cpp:399] lstm1_unit_1 -> c_1
I0731 21:58:27.154609  3158 net.cpp:399] lstm1_unit_1 -> h_1
I0731 21:58:27.162415  3158 net.cpp:141] Setting up lstm1_unit_1
I0731 21:58:27.162434  3158 net.cpp:148] Top shape: 1 1 1000 (1000)
I0731 21:58:27.162441  3158 net.cpp:148] Top shape: 1 1 1000 (1000)
I0731 21:58:27.162446  3158 net.cpp:156] Memory required for data: 86016
I0731 21:58:27.162451  3158 layer_factory.hpp:77] Creating layer lstm1_
I0731 21:58:27.162461  3158 net.cpp:91] Creating Layer lstm1_
I0731 21:58:27.162466  3158 net.cpp:425] lstm1_ <- c_1
I0731 21:58:27.162473  3158 net.cpp:399] lstm1_ -> c_T
I0731 21:58:27.171674  3158 net.cpp:141] Setting up lstm1_
I0731 21:58:27.171694  3158 net.cpp:148] Top shape: 1 1 1000 (1000)
I0731 21:58:27.171699  3158 net.cpp:156] Memory required for data: 90016
I0731 21:58:27.171705  3158 layer_factory.hpp:77] Creating layer lstm1_h_concat
I0731 21:58:27.171715  3158 net.cpp:91] Creating Layer lstm1_h_concat
I0731 21:58:27.171720  3158 net.cpp:425] lstm1_h_concat <- h_1
I0731 21:58:27.171730  3158 net.cpp:399] lstm1_h_concat -> h
I0731 21:58:27.189894  3158 net.cpp:141] Setting up lstm1_h_concat
I0731 21:58:27.189918  3158 net.cpp:148] Top shape: 1 1 1000 (1000)
I0731 21:58:27.189924  3158 net.cpp:156] Memory required for data: 94016
I0731 21:58:27.189929  3158 layer_factory.hpp:77] Creating layer h_pseudoloss
I0731 21:58:27.198021  3158 net.cpp:91] Creating Layer h_pseudoloss
I0731 21:58:27.198038  3158 net.cpp:425] h_pseudoloss <- h
I0731 21:58:27.198050  3158 net.cpp:399] h_pseudoloss -> h_pseudoloss
I0731 21:58:27.217033  3158 net.cpp:141] Setting up h_pseudoloss
…
I0731 21:58:27.217207  3158 net.cpp:219] lstm1_ does not need backward computation.
I0731 21:58:27.217211  3158 net.cpp:261] This network produces output c_T
I0731 21:58:27.217216  3158 net.cpp:261] This network produces output h_pseudoloss
I0731 21:58:27.217237  3158 net.cpp:274] Network initialization done.
I0731 21:58:27.217300  3158 recurrent_layer.cpp:150] Adding parameter 0: W_xc
I0731 21:58:27.217308  3158 recurrent_layer.cpp:150] Adding parameter 1: b_c
I0731 21:58:27.217313  3158 recurrent_layer.cpp:150] Adding parameter 2: W_hc
I0731 21:58:27.217429  3158 net.cpp:141] Setting up lstm1
I0731 21:58:27.217443  3158 net.cpp:148] Top shape: 1 1 1000 (1000)
I0731 21:58:27.217447  3158 net.cpp:156] Memory required for data: 26408
I0731 21:58:27.217463  3158 layer_factory.hpp:77] Creating layer concat
I0731 21:58:27.217476  3158 net.cpp:91] Creating Layer concat
I0731 21:58:27.217483  3158 net.cpp:425] concat <- lstm1
I0731 21:58:27.217490  3158 net.cpp:425] concat <- embedded_input_sentence
I0731 21:58:27.217495  3158 net.cpp:425] concat <- reshaped_stage_indicator
I0731 21:58:27.217504  3158 net.cpp:399] concat -> lstm1_video_sequence
I0731 21:58:27.388281  3158 net.cpp:141] Setting up concat
I0731 21:58:27.388327  3158 net.cpp:148] Top shape: 1 1 1501 (1501)
I0731 21:58:27.388334  3158 net.cpp:156] Memory required for data: 32412
I0731 21:58:27.388341  3158 layer_factory.hpp:77] Creating layer lstm2
I0731 21:58:27.388365  3158 net.cpp:91] Creating Layer lstm2
I0731 21:58:27.388373  3158 net.cpp:425] lstm2 <- lstm1_video_sequence
I0731 21:58:27.388382  3158 net.cpp:425] lstm2 <- cont_sentence_input_1_split_1
I0731 21:58:27.388392  3158 net.cpp:399] lstm2 -> lstm2
I0731 21:58:27.388411  3158 recurrent_layer.cpp:20] Initializing recurrent layer: assuming input batch contains 1 timesteps of 1 independent streams.
I0731 21:58:27.388677  3158 net.cpp:49] Initializing net from parameters: 
layer {
  name: "lstm2_"
  type: "Input"
  top: "x"
  top: "cont"
  input_param {
    shape {
      dim: 1
      dim: 1
      dim: 1501
    }
    shape {
      dim: 1
      dim: 1
    }
  }
}
layer {
  name: "lstm2_"
  type: "Input"
  top: "c_0"
  top: "h_0"
  input_param {
    shape {
      dim: 1
      dim: 1
      dim: 1000
    }
    shape {
      dim: 1
      dim: 1
      dim: 1000
    }
  }
}
layer {
  name: "lstm2_cont_slice"
  type: "Slice"
  bottom: "cont"
  top: "cont_1"
  slice_param {
    axis: 0
  }
}
layer {
  name: "lstm2_x_transform"
  type: "InnerProduct"
  bottom: "x"
  top: "W_xc_x"
  param {
    name: "W_xc"
  }
  param {
    name: "b_c"
  }
  propagate_down: true
  inner_product_param {
    num_output: 4000
    bias_term: true
    weight_filler {
      type: "uniform"
      min: -0.08
      max: 0.08
    }
    bias_filler {
      type: "constant"
      value: 0
    }
    axis: 2
  }
}
layer {
  name: "lstm2_W_xc_x_slice"
  type: "Slice"
  bottom: "W_xc_x"
  top: "W_xc_x_1"
  slice_param {
    axis: 0
  }
}
layer {
  name: "lstm2_h_conted_0"
  type: "Scale"
  bottom: "h_0"
  bottom: "cont_1"
  top: "h_conted_0"
  scale_param {
    axis: 0
  }
}
layer {
  name: "lstm2_transform_1"
  type: "InnerProduct"
  bottom: "h_conted_0"
  top: "W_hc_h_0"
  param {
    name: "W_hc"
  }
  inner_product_param {
    num_output: 4000
    bias_term: false
    weight_filler {
      type: "uniform"
      min: -0.08
      max: 0.08
    }
    axis: 2
  }
}
layer {
  name: "lstm2_gate_input_1"
  type: "Eltwise"
  bottom: "W_hc_h_0"
  bottom: "W_xc_x_1"
  top: "gate_input_1"
  eltwise_param {
    operation: SUM
  }
}
layer {
  name: "lstm2_unit_1"
  type: "LSTMUnit"
  bottom: "c_0"
  bottom: "gate_input_1"
  bottom: "cont_1"
  top: "c_1"
  top: "h_1"
}
layer {
  name: "lstm2_"
  type: "Split"
  bottom: "c_1"
  top: "c_T"
}
layer {
  name: "lstm2_h_concat"
  type: "Concat"
  bottom: "h_1"
  top: "h"
  concat_param {
    axis: 0
  }
}
layer {
  name: "h_pseudoloss"
  type: "Reduction"
  bottom: "h"
  top: "h_pseudoloss"
  loss_weight: 1
}
I0731 21:58:27.388762  3158 layer_factory.hpp:77] Creating layer lstm2_
I0731 21:58:27.388774  3158 net.cpp:91] Creating Layer lstm2_
I0731 21:58:27.388780  3158 net.cpp:399] lstm2_ -> x
I0731 21:58:27.388792  3158 net.cpp:399] lstm2_ -> cont
I0731 21:58:27.417186  3158 net.cpp:141] Setting up lstm2_
I0731 21:58:27.417232  3158 net.cpp:148] Top shape: 1 1 1501 (1501)
I0731 21:58:27.417240  3158 net.cpp:148] Top shape: 1 1 (1)
I0731 21:58:27.417244  3158 net.cpp:156] Memory required for data: 6008
I0731 21:58:27.417253  3158 layer_factory.hpp:77] Creating layer lstm2_
I0731 21:58:27.417274  3158 net.cpp:91] Creating Layer lstm2_
I0731 21:58:27.417287  3158 net.cpp:399] lstm2_ -> c_0
I0731 21:58:27.417304  3158 net.cpp:399] lstm2_ -> h_0
I0731 21:58:27.417409  3158 net.cpp:141] Setting up lstm2_
I0731 21:58:27.417421  3158 net.cpp:148] Top shape: 1 1 1000 (1000)
I0731 21:58:27.417428  3158 net.cpp:148] Top shape: 1 1 1000 (1000)
I0731 21:58:27.417433  3158 net.cpp:156] Memory required for data: 14008
I0731 21:58:27.417438  3158 layer_factory.hpp:77] Creating layer lstm2_cont_slice
I0731 21:58:27.417454  3158 net.cpp:91] Creating Layer lstm2_cont_slice
I0731 21:58:27.417459  3158 net.cpp:425] lstm2_cont_slice <- cont
I0731 21:58:27.417467  3158 net.cpp:399] lstm2_cont_slice -> cont_1
I0731 21:58:27.429405  3158 net.cpp:141] Setting up lstm2_cont_slice
I0731 21:58:27.429428  3158 net.cpp:148] Top shape: 1 1 (1)
I0731 21:58:27.429435  3158 net.cpp:156] Memory required for data: 14012
I0731 21:58:27.429440  3158 layer_factory.hpp:77] Creating layer cont_1_lstm2_cont_slice_0_split
I0731 21:58:27.429450  3158 net.cpp:91] Creating Layer cont_1_lstm2_cont_slice_0_split
I0731 21:58:27.429455  3158 net.cpp:425] cont_1_lstm2_cont_slice_0_split <- cont_1
I0731 21:58:27.429468  3158 net.cpp:399] cont_1_lstm2_cont_slice_0_split -> cont_1_lstm2_cont_slice_0_split_0
I0731 21:58:27.429478  3158 net.cpp:399] cont_1_lstm2_cont_slice_0_split -> cont_1_lstm2_cont_slice_0_split_1
I0731 21:58:27.448802  3158 net.cpp:141] Setting up cont_1_lstm2_cont_slice_0_split
I0731 21:58:27.448823  3158 net.cpp:148] Top shape: 1 1 (1)
I0731 21:58:27.448830  3158 net.cpp:148] Top shape: 1 1 (1)
I0731 21:58:27.448834  3158 net.cpp:156] Memory required for data: 14020
I0731 21:58:27.448839  3158 layer_factory.hpp:77] Creating layer lstm2_x_transform
I0731 21:58:27.448858  3158 net.cpp:91] Creating Layer lstm2_x_transform
I0731 21:58:27.448863  3158 net.cpp:425] lstm2_x_transform <- x
I0731 21:58:27.448873  3158 net.cpp:399] lstm2_x_transform -> W_xc_x
I0731 21:58:27.518100  3158 net.cpp:141] Setting up lstm2_x_transform
I0731 21:58:27.518157  3158 net.cpp:148] Top shape: 1 1 4000 (4000)
I0731 21:58:27.518163  3158 net.cpp:156] Memory required for data: 30020
I0731 21:58:27.518182  3158 layer_factory.hpp:77] Creating layer lstm2_W_xc_x_slice
I0731 21:58:27.518198  3158 net.cpp:91] Creating Layer lstm2_W_xc_x_slice
I0731 21:58:27.518203  3158 net.cpp:425] lstm2_W_xc_x_slice <- W_xc_x
I0731 21:58:27.518213  3158 net.cpp:399] lstm2_W_xc_x_slice -> W_xc_x_1
I0731 21:58:27.530419  3158 net.cpp:141] Setting up lstm2_W_xc_x_slice
I0731 21:58:27.530439  3158 net.cpp:148] Top shape: 1 1 4000 (4000)
I0731 21:58:27.530444  3158 net.cpp:156] Memory required for data: 46020
I0731 21:58:27.530449  3158 layer_factory.hpp:77] Creating layer lstm2_h_conted_0
I0731 21:58:27.530467  3158 net.cpp:91] Creating Layer lstm2_h_conted_0
I0731 21:58:27.530472  3158 net.cpp:425] lstm2_h_conted_0 <- h_0
I0731 21:58:27.530479  3158 net.cpp:425] lstm2_h_conted_0 <- cont_1_lstm2_cont_slice_0_split_0
I0731 21:58:27.530486  3158 net.cpp:399] lstm2_h_conted_0 -> h_conted_0
I0731 21:58:27.550370  3158 net.cpp:141] Setting up lstm2_h_conted_0
I0731 21:58:27.550390  3158 net.cpp:148] Top shape: 1 1 1000 (1000)
I0731 21:58:27.550395  3158 net.cpp:156] Memory required for data: 50020
I0731 21:58:27.550400  3158 layer_factory.hpp:77] Creating layer lstm2_transform_1
I0731 21:58:27.550413  3158 net.cpp:91] Creating Layer lstm2_transform_1
I0731 21:58:27.550418  3158 net.cpp:425] lstm2_transform_1 <- h_conted_0
I0731 21:58:27.550427  3158 net.cpp:399] lstm2_transform_1 -> W_hc_h_0
I0731 21:58:27.610697  3158 net.cpp:141] Setting up lstm2_transform_1
I0731 21:58:27.610746  3158 net.cpp:148] Top shape: 1 1 4000 (4000)
I0731 21:58:27.610757  3158 net.cpp:156] Memory required for data: 66020
I0731 21:58:27.610782  3158 layer_factory.hpp:77] Creating layer lstm2_gate_input_1
I0731 21:58:27.610810  3158 net.cpp:91] Creating Layer lstm2_gate_input_1
I0731 21:58:27.610821  3158 net.cpp:425] lstm2_gate_input_1 <- W_hc_h_0
I0731 21:58:27.610832  3158 net.cpp:425] lstm2_gate_input_1 <- W_xc_x_1
I0731 21:58:27.610844  3158 net.cpp:399] lstm2_gate_input_1 -> gate_input_1
I0731 21:58:27.625735  3158 net.cpp:141] Setting up lstm2_gate_input_1
I0731 21:58:27.625758  3158 net.cpp:148] Top shape: 1 1 4000 (4000)
I0731 21:58:27.625764  3158 net.cpp:156] Memory required for data: 82020
I0731 21:58:27.625771  3158 layer_factory.hpp:77] Creating layer lstm2_unit_1
I0731 21:58:27.625782  3158 net.cpp:91] Creating Layer lstm2_unit_1
I0731 21:58:27.625787  3158 net.cpp:425] lstm2_unit_1 <- c_0
I0731 21:58:27.625794  3158 net.cpp:425] lstm2_unit_1 <- gate_input_1
I0731 21:58:27.625800  3158 net.cpp:425] lstm2_unit_1 <- cont_1_lstm2_cont_slice_0_split_1
I0731 21:58:27.625808  3158 net.cpp:399] lstm2_unit_1 -> c_1
I0731 21:58:27.625818  3158 net.cpp:399] lstm2_unit_1 -> h_1
I0731 21:58:27.628016  3158 net.cpp:141] Setting up lstm2_unit_1
I0731 21:58:27.628036  3158 net.cpp:148] Top shape: 1 1 1000 (1000)
I0731 21:58:27.628043  3158 net.cpp:148] Top shape: 1 1 1000 (1000)
I0731 21:58:27.628047  3158 net.cpp:156] Memory required for data: 90020
I0731 21:58:27.628053  3158 layer_factory.hpp:77] Creating layer lstm2_
I0731 21:58:27.628065  3158 net.cpp:91] Creating Layer lstm2_
I0731 21:58:27.628072  3158 net.cpp:425] lstm2_ <- c_1
I0731 21:58:27.628079  3158 net.cpp:399] lstm2_ -> c_T
I0731 21:58:27.628150  3158 net.cpp:141] Setting up lstm2_
I0731 21:58:27.628160  3158 net.cpp:148] Top shape: 1 1 1000 (1000)
I0731 21:58:27.628165  3158 net.cpp:156] Memory required for data: 94020
I0731 21:58:27.628170  3158 layer_factory.hpp:77] Creating layer lstm2_h_concat
I0731 21:58:27.628180  3158 net.cpp:91] Creating Layer lstm2_h_concat
I0731 21:58:27.628185  3158 net.cpp:425] lstm2_h_concat <- h_1
I0731 21:58:27.628196  3158 net.cpp:399] lstm2_h_concat -> h
I0731 21:58:27.636759  3158 net.cpp:141] Setting up lstm2_h_concat
I0731 21:58:27.636777  3158 net.cpp:148] Top shape: 1 1 1000 (1000)
I0731 21:58:27.636782  3158 net.cpp:156] Memory required for data: 98020
I0731 21:58:27.636787  3158 layer_factory.hpp:77] Creating layer h_pseudoloss
I0731 21:58:27.636797  3158 net.cpp:91] Creating Layer h_pseudoloss
I0731 21:58:27.636803  3158 net.cpp:425] h_pseudoloss <- h
I0731 21:58:27.636813  3158 net.cpp:399] h_pseudoloss -> h_pseudoloss
I0731 21:58:27.655947  3158 net.cpp:141] Setting up h_pseudoloss
…
I0731 21:58:27.656092  3158 net.cpp:219] lstm2_ does not need backward computation.
I0731 21:58:27.656096  3158 net.cpp:261] This network produces output c_T
I0731 21:58:27.656101  3158 net.cpp:261] This network produces output h_pseudoloss
I0731 21:58:27.656118  3158 net.cpp:274] Network initialization done.
I0731 21:58:27.656169  3158 recurrent_layer.cpp:150] Adding parameter 0: W_xc
I0731 21:58:27.656175  3158 recurrent_layer.cpp:150] Adding parameter 1: b_c
I0731 21:58:27.656180  3158 recurrent_layer.cpp:150] Adding parameter 2: W_hc
I0731 21:58:27.696415  3158 net.cpp:141] Setting up lstm2
I0731 21:58:27.696450  3158 net.cpp:148] Top shape: 1 1 1000 (1000)
I0731 21:58:27.696455  3158 net.cpp:156] Memory required for data: 36412
I0731 21:58:27.696472  3158 layer_factory.hpp:77] Creating layer predict
I0731 21:58:27.696490  3158 net.cpp:91] Creating Layer predict
I0731 21:58:27.696496  3158 net.cpp:425] predict <- lstm2
I0731 21:58:27.696504  3158 net.cpp:399] predict -> predict
I0731 21:58:28.206581  3158 net.cpp:141] Setting up predict
I0731 21:58:28.206629  3158 net.cpp:148] Top shape: 1 1 46168 (46168)
I0731 21:58:28.206635  3158 net.cpp:156] Memory required for data: 221084
I0731 21:58:28.206648  3158 layer_factory.hpp:77] Creating layer probs
I0731 21:58:28.206662  3158 net.cpp:91] Creating Layer probs
I0731 21:58:28.206670  3158 net.cpp:425] probs <- predict
I0731 21:58:28.206681  3158 net.cpp:399] probs -> probs
I0731 21:58:28.362076  3158 net.cpp:141] Setting up probs
I0731 21:58:28.362133  3158 net.cpp:148] Top shape: 1 1 46168 (46168)
I0731 21:58:28.362140  3158 net.cpp:156] Memory required for data: 405756
I0731 21:58:28.362149  3158 net.cpp:219] probs does not need backward computation.
I0731 21:58:28.362156  3158 net.cpp:219] predict does not need backward computation.
I0731 21:58:28.362161  3158 net.cpp:219] lstm2 does not need backward computation.
I0731 21:58:28.362167  3158 net.cpp:219] concat does not need backward computation.
I0731 21:58:28.362174  3158 net.cpp:219] lstm1 does not need backward computation.
I0731 21:58:28.362179  3158 net.cpp:219] embedding does not need backward computation.
I0731 21:58:28.362185  3158 net.cpp:219] reshape_stage_indicator does not need backward computation.
I0731 21:58:28.362190  3158 net.cpp:219] reshape_frames does not need backward computation.
I0731 21:58:28.362195  3158 net.cpp:219] embed_encoder does not need backward computation.
I0731 21:58:28.362200  3158 net.cpp:219] cont_sentence_input_1_split does not need backward computation.
I0731 21:58:28.362205  3158 net.cpp:219] input does not need backward computation.
I0731 21:58:28.362208  3158 net.cpp:261] This network produces output probs
I0731 21:58:28.362227  3158 net.cpp:274] Network initialization done.
I0731 21:58:28.371386  3168 net.cpp:141] Setting up conv1
I0731 21:58:28.371435  3168 net.cpp:148] Top shape: 10 96 55 55 (2904000)
I0731 21:58:28.371443  3168 net.cpp:156] Memory required for data: 17799480
I0731 21:58:28.371481  3168 layer_factory.hpp:77] Creating layer relu1
I0731 21:58:28.371496  3168 net.cpp:91] Creating Layer relu1
I0731 21:58:28.371505  3168 net.cpp:425] relu1 <- conv1
I0731 21:58:28.371513  3168 net.cpp:386] relu1 -> conv1 (in-place)
I0731 21:58:28.372052  3168 net.cpp:141] Setting up relu1
I0731 21:58:28.372066  3168 net.cpp:148] Top shape: 10 96 55 55 (2904000)
I0731 21:58:28.372071  3168 net.cpp:156] Memory required for data: 29415480
I0731 21:58:28.372077  3168 layer_factory.hpp:77] Creating layer pool1
I0731 21:58:28.372090  3168 net.cpp:91] Creating Layer pool1
I0731 21:58:28.372095  3168 net.cpp:425] pool1 <- conv1
I0731 21:58:28.372105  3168 net.cpp:399] pool1 -> pool1
I0731 21:58:28.372215  3168 net.cpp:141] Setting up pool1
I0731 21:58:28.372226  3168 net.cpp:148] Top shape: 10 96 27 27 (699840)
I0731 21:58:28.372231  3168 net.cpp:156] Memory required for data: 32214840
I0731 21:58:28.372236  3168 layer_factory.hpp:77] Creating layer norm1
I0731 21:58:28.372254  3168 net.cpp:91] Creating Layer norm1
I0731 21:58:28.372259  3168 net.cpp:425] norm1 <- pool1
I0731 21:58:28.372267  3168 net.cpp:399] norm1 -> norm1
I0731 21:58:28.372547  3168 net.cpp:141] Setting up norm1
I0731 21:58:28.372560  3168 net.cpp:148] Top shape: 10 96 27 27 (699840)
I0731 21:58:28.372565  3168 net.cpp:156] Memory required for data: 35014200
I0731 21:58:28.372570  3168 layer_factory.hpp:77] Creating layer conv2
I0731 21:58:28.372586  3168 net.cpp:91] Creating Layer conv2
I0731 21:58:28.372592  3168 net.cpp:425] conv2 <- norm1
I0731 21:58:28.372601  3168 net.cpp:399] conv2 -> conv2
I0731 21:58:28.376119  3168 net.cpp:141] Setting up conv2
I0731 21:58:28.376149  3168 net.cpp:148] Top shape: 10 256 27 27 (1866240)
I0731 21:58:28.376155  3168 net.cpp:156] Memory required for data: 42479160
I0731 21:58:28.376170  3168 layer_factory.hpp:77] Creating layer relu2
I0731 21:58:28.376184  3168 net.cpp:91] Creating Layer relu2
I0731 21:58:28.376190  3168 net.cpp:425] relu2 <- conv2
I0731 21:58:28.376199  3168 net.cpp:386] relu2 -> conv2 (in-place)
I0731 21:58:28.376436  3168 net.cpp:141] Setting up relu2
I0731 21:58:28.376448  3168 net.cpp:148] Top shape: 10 256 27 27 (1866240)
I0731 21:58:28.376452  3168 net.cpp:156] Memory required for data: 49944120
I0731 21:58:28.376458  3168 layer_factory.hpp:77] Creating layer pool2
I0731 21:58:28.376467  3168 net.cpp:91] Creating Layer pool2
I0731 21:58:28.376472  3168 net.cpp:425] pool2 <- conv2
I0731 21:58:28.376480  3168 net.cpp:399] pool2 -> pool2
I0731 21:58:28.376538  3168 net.cpp:141] Setting up pool2
I0731 21:58:28.376548  3168 net.cpp:148] Top shape: 10 256 13 13 (432640)
I0731 21:58:28.376552  3168 net.cpp:156] Memory required for data: 51674680
I0731 21:58:28.376557  3168 layer_factory.hpp:77] Creating layer norm2
I0731 21:58:28.376569  3168 net.cpp:91] Creating Layer norm2
I0731 21:58:28.376574  3168 net.cpp:425] norm2 <- pool2
I0731 21:58:28.376582  3168 net.cpp:399] norm2 -> norm2
I0731 21:58:28.377066  3168 net.cpp:141] Setting up norm2
I0731 21:58:28.377079  3168 net.cpp:148] Top shape: 10 256 13 13 (432640)
I0731 21:58:28.377084  3168 net.cpp:156] Memory required for data: 53405240
I0731 21:58:28.377090  3168 layer_factory.hpp:77] Creating layer conv3
I0731 21:58:28.377107  3168 net.cpp:91] Creating Layer conv3
I0731 21:58:28.377113  3168 net.cpp:425] conv3 <- norm2
I0731 21:58:28.377121  3168 net.cpp:399] conv3 -> conv3
I0731 21:58:28.389747  3168 net.cpp:141] Setting up conv3
I0731 21:58:28.389816  3168 net.cpp:148] Top shape: 10 384 13 13 (648960)
I0731 21:58:28.389822  3168 net.cpp:156] Memory required for data: 56001080
I0731 21:58:28.389847  3168 layer_factory.hpp:77] Creating layer relu3
I0731 21:58:28.389860  3168 net.cpp:91] Creating Layer relu3
I0731 21:58:28.389866  3168 net.cpp:425] relu3 <- conv3
I0731 21:58:28.389875  3168 net.cpp:386] relu3 -> conv3 (in-place)
I0731 21:58:28.390633  3168 net.cpp:141] Setting up relu3
I0731 21:58:28.390651  3168 net.cpp:148] Top shape: 10 384 13 13 (648960)
I0731 21:58:28.390656  3168 net.cpp:156] Memory required for data: 58596920
I0731 21:58:28.390661  3168 layer_factory.hpp:77] Creating layer conv4
I0731 21:58:28.390678  3168 net.cpp:91] Creating Layer conv4
I0731 21:58:28.390684  3168 net.cpp:425] conv4 <- conv3
I0731 21:58:28.390692  3168 net.cpp:399] conv4 -> conv4
I0731 21:58:28.398347  3168 net.cpp:141] Setting up conv4
I0731 21:58:28.398412  3168 net.cpp:148] Top shape: 10 384 13 13 (648960)
I0731 21:58:28.398419  3168 net.cpp:156] Memory required for data: 61192760
I0731 21:58:28.398433  3168 layer_factory.hpp:77] Creating layer relu4
I0731 21:58:28.398947  3168 net.cpp:91] Creating Layer relu4
I0731 21:58:28.398963  3168 net.cpp:425] relu4 <- conv4
I0731 21:58:28.398977  3168 net.cpp:386] relu4 -> conv4 (in-place)
I0731 21:58:28.399230  3168 net.cpp:141] Setting up relu4
I0731 21:58:28.399242  3168 net.cpp:148] Top shape: 10 384 13 13 (648960)
I0731 21:58:28.399247  3168 net.cpp:156] Memory required for data: 63788600
I0731 21:58:28.399253  3168 layer_factory.hpp:77] Creating layer conv5
I0731 21:58:28.399272  3168 net.cpp:91] Creating Layer conv5
I0731 21:58:28.399278  3168 net.cpp:425] conv5 <- conv4
I0731 21:58:28.399288  3168 net.cpp:399] conv5 -> conv5
I0731 21:58:28.407847  3168 net.cpp:141] Setting up conv5
I0731 21:58:28.407896  3168 net.cpp:148] Top shape: 10 256 13 13 (432640)
I0731 21:58:28.407902  3168 net.cpp:156] Memory required for data: 65519160
I0731 21:58:28.407925  3168 layer_factory.hpp:77] Creating layer relu5
I0731 21:58:28.407941  3168 net.cpp:91] Creating Layer relu5
I0731 21:58:28.407948  3168 net.cpp:425] relu5 <- conv5
I0731 21:58:28.407959  3168 net.cpp:386] relu5 -> conv5 (in-place)
I0731 21:58:28.408587  3168 net.cpp:141] Setting up relu5
I0731 21:58:28.408604  3168 net.cpp:148] Top shape: 10 256 13 13 (432640)
I0731 21:58:28.408610  3168 net.cpp:156] Memory required for data: 67249720
I0731 21:58:28.408615  3168 layer_factory.hpp:77] Creating layer pool5
I0731 21:58:28.408633  3168 net.cpp:91] Creating Layer pool5
I0731 21:58:28.408638  3168 net.cpp:425] pool5 <- conv5
I0731 21:58:28.408646  3168 net.cpp:399] pool5 -> pool5
I0731 21:58:28.408721  3168 net.cpp:141] Setting up pool5
I0731 21:58:28.408731  3168 net.cpp:148] Top shape: 10 256 6 6 (92160)
I0731 21:58:28.408735  3168 net.cpp:156] Memory required for data: 67618360
I0731 21:58:28.408740  3168 layer_factory.hpp:77] Creating layer fc6
I0731 21:58:28.408757  3168 net.cpp:91] Creating Layer fc6
I0731 21:58:28.408762  3168 net.cpp:425] fc6 <- pool5
I0731 21:58:28.408769  3168 net.cpp:399] fc6 -> fc6
I0731 21:58:28.516185  3168 net.cpp:141] Setting up fc6
I0731 21:58:28.516233  3168 net.cpp:148] Top shape: 10 4096 (40960)
I0731 21:58:28.516239  3168 net.cpp:156] Memory required for data: 67782200
I0731 21:58:28.516253  3168 layer_factory.hpp:77] Creating layer relu6
I0731 21:58:28.516275  3168 net.cpp:91] Creating Layer relu6
I0731 21:58:28.516283  3168 net.cpp:425] relu6 <- fc6
I0731 21:58:28.516291  3168 net.cpp:386] relu6 -> fc6 (in-place)
I0731 21:58:28.517125  3168 net.cpp:141] Setting up relu6
I0731 21:58:28.517138  3168 net.cpp:148] Top shape: 10 4096 (40960)
I0731 21:58:28.517143  3168 net.cpp:156] Memory required for data: 67946040
I0731 21:58:28.517151  3168 layer_factory.hpp:77] Creating layer drop6
I0731 21:58:28.517169  3168 net.cpp:91] Creating Layer drop6
I0731 21:58:28.517174  3168 net.cpp:425] drop6 <- fc6
I0731 21:58:28.517184  3168 net.cpp:386] drop6 -> fc6 (in-place)
I0731 21:58:28.517237  3168 net.cpp:141] Setting up drop6
I0731 21:58:28.517246  3168 net.cpp:148] Top shape: 10 4096 (40960)
I0731 21:58:28.517251  3168 net.cpp:156] Memory required for data: 68109880
I0731 21:58:28.517256  3168 layer_factory.hpp:77] Creating layer fc7
I0731 21:58:28.517282  3168 net.cpp:91] Creating Layer fc7
I0731 21:58:28.517288  3168 net.cpp:425] fc7 <- fc6
I0731 21:58:28.517297  3168 net.cpp:399] fc7 -> fc7
I0731 21:58:28.566104  3168 net.cpp:141] Setting up fc7
I0731 21:58:28.566162  3168 net.cpp:148] Top shape: 10 4096 (40960)
I0731 21:58:28.566169  3168 net.cpp:156] Memory required for data: 68273720
I0731 21:58:28.566185  3168 layer_factory.hpp:77] Creating layer relu7
I0731 21:58:28.566210  3168 net.cpp:91] Creating Layer relu7
I0731 21:58:28.566216  3168 net.cpp:425] relu7 <- fc7
I0731 21:58:28.566226  3168 net.cpp:386] relu7 -> fc7 (in-place)
I0731 21:58:28.567330  3168 net.cpp:141] Setting up relu7
I0731 21:58:28.567349  3168 net.cpp:148] Top shape: 10 4096 (40960)
I0731 21:58:28.567354  3168 net.cpp:156] Memory required for data: 68437560
I0731 21:58:28.567359  3168 layer_factory.hpp:77] Creating layer drop7
I0731 21:58:28.567371  3168 net.cpp:91] Creating Layer drop7
I0731 21:58:28.567378  3168 net.cpp:425] drop7 <- fc7
I0731 21:58:28.567385  3168 net.cpp:386] drop7 -> fc7 (in-place)
I0731 21:58:28.567428  3168 net.cpp:141] Setting up drop7
I0731 21:58:28.567437  3168 net.cpp:148] Top shape: 10 4096 (40960)
I0731 21:58:28.567441  3168 net.cpp:156] Memory required for data: 68601400
I0731 21:58:28.567445  3168 layer_factory.hpp:77] Creating layer fc8
I0731 21:58:28.567461  3168 net.cpp:91] Creating Layer fc8
I0731 21:58:28.567466  3168 net.cpp:425] fc8 <- fc7
I0731 21:58:28.567473  3168 net.cpp:399] fc8 -> fc8
I0731 21:58:28.578518  3168 net.cpp:141] Setting up fc8
I0731 21:58:28.578584  3168 net.cpp:148] Top shape: 10 1000 (10000)
I0731 21:58:28.578591  3168 net.cpp:156] Memory required for data: 68641400
I0731 21:58:28.578604  3168 layer_factory.hpp:77] Creating layer prob
I0731 21:58:28.578624  3168 net.cpp:91] Creating Layer prob
I0731 21:58:28.578629  3168 net.cpp:425] prob <- fc8
I0731 21:58:28.578640  3168 net.cpp:399] prob -> prob
I0731 21:58:28.579695  3168 net.cpp:141] Setting up prob
I0731 21:58:28.579710  3168 net.cpp:148] Top shape: 10 1000 (10000)
I0731 21:58:28.579715  3168 net.cpp:156] Memory required for data: 68681400
I0731 21:58:28.579720  3168 net.cpp:219] prob does not need backward computation.
I0731 21:58:28.579725  3168 net.cpp:219] fc8 does not need backward computation.
I0731 21:58:28.579730  3168 net.cpp:219] drop7 does not need backward computation.
I0731 21:58:28.579735  3168 net.cpp:219] relu7 does not need backward computation.
…
