…
Java HotSpot(TM) 64-Bit Server VM warning: You have loaded library /tmp/cvld8918821012642159062/libopencv_java310.xine1.so which might have disabled stack guard. The VM will try to fix the stack guard now.
It's highly recommended that you fix the library with 'execstack -c <libfile>', or link it with '-z noexecstack'.
WARNING: Logging before InitGoogleLogging() is written to STDERR
I0714 20:58:57.698318 10614 net.cpp:49] Initializing net from parameters: 
name: "GoogleNet"
state {
  phase: TEST
}
layer {
  name: "data"
  type: "Input"
  top: "data"
  input_param {
    shape {
      dim: 10
      dim: 3
      dim: 224
      dim: 224
    }
  }
}
layer {
  name: "conv1/7x7_s2"
  type: "Convolution"
  bottom: "data"
  top: "conv1/7x7_s2"
  param {
    lr_mult: 1
    decay_mult: 1
  }
  param {
    lr_mult: 2
    decay_mult: 0
  }
  convolution_param {
    num_output: 64
    pad: 3
    kernel_size: 7
    stride: 2
    weight_filler {
      type: "xavier"
      std: 0.1
    }
    bias_filler {
      type: "constant"
      value: 0.2
    }
  }
}
layer {
  name: "conv1/relu_7x7"
  type: "ReLU"
  bottom: "conv1/7x7_s2"
  top: "conv1/7x7_s2"
}
layer {
  name: "pool1/3x3_s2"
  type: "Pooling"
  bottom: "conv1/7x7_s2"
  top: "pool1/3x3_s2"
  pooling_param {
    pool: MAX
    kernel_size: 3
    stride: 2
  }
}
layer {
  name: "pool1/norm1"
  type: "LRN"
  bottom: "pool1/3x3_s2"
  top: "pool1/norm1"
  lrn_param {
    local_size: 5
    alpha: 0.0001
    beta: 0.75
  }
}
layer {
  name: "conv2/3x3_reduce"
  type: "Convolution"
  bottom: "pool1/norm1"
  top: "conv2/3x3_reduce"
  param {
    lr_mult: 1
    decay_mult: 1
  }
  param {
    lr_mult: 2
    decay_mult: 0
  }
  convolution_param {
    num_output: 64
    kernel_size: 1
    weight_filler {
      type: "xavier"
      std: 0.1
    }
    bias_filler {
      type: "constant"
      value: 0.2
    }
  }
}
layer {
  name: "conv2/relu_3x3_reduce"
  type: "ReLU"
  bottom: "conv2/3x3_reduce"
  top: "conv2/3x3_reduce"
}
layer {
  name: "conv2/3x3"
  type: "Convolution"
  bottom: "conv2/3x3_reduce"
  top: "conv2/3x3"
  param {
    lr_mult: 1
    decay_mult: 1
  }
  param {
    lr_mult: 2
    decay_mult: 0
  }
  convolution_param {
    num_output: 192
    pad: 1
    kernel_size: 3
    weight_filler {
      type: "xavier"
      std: 0.03
    }
    bias_filler {
      type: "constant"
      value: 0.2
    }
  }
}
layer {
  name: "conv2/relu_3x3"
  type: "ReLU"
  bottom: "conv2/3x3"
  top: "conv2/3x3"
}
layer {
  name: "conv2/norm2"
  type: "LRN"
  bottom: "conv2/3x3"
  top: "conv2/norm2"
  lrn_param {
    local_size: 5
    alpha: 0.0001
    beta: 0.75
  }
}
layer {
  name: "pool2/3x3_s2"
  type: "Pooling"
  bottom: "conv2/norm2"
  top: "pool2/3x3_s2"
  pooling_param {
    pool: MAX
    kernel_size: 3
    stride: 2
  }
}
layer {
  name: "inception_3a/1x1"
  type: "Convolution"
  bottom: "pool2/3x3_s2"
  top: "inception_3a/1x1"
  param {
    lr_mult: 1
    decay_mult: 1
  }
  param {
    lr_mult: 2
    decay_mult: 0
  }
  convolution_param {
    num_output: 64
    kernel_size: 1
    weight_filler {
      type: "xavier"
      std: 0.03
    }
    bias_filler {
      type: "constant"
      value: 0.2
    }
  }
}
layer {
  name: "inception_3a/relu_1x1"
  type: "ReLU"
  bottom: "inception_3a/1x1"
  top: "inception_3a/1x1"
}
layer {
  name: "inception_3a/3x3_reduce"
  type: "Convolution"
  bottom: "pool2/3x3_s2"
  top: "inception_3a/3x3_reduce"
  param {
    lr_mult: 1
    decay_mult: 1
  }
  param {
    lr_mult: 2
    decay_mult: 0
  }
  convolution_param {
    num_output: 96
    kernel_size: 1
    weight_filler {
      type: "xavier"
      std: 0.09
    }
    bias_filler {
      type: "constant"
      value: 0.2
    }
  }
}
layer {
  name: "inception_3a/relu_3x3_reduce"
  type: "ReLU"
  bottom: "inception_3a/3x3_reduce"
  top: "inception_3a/3x3_reduce"
}
layer {
  name: "inception_3a/3x3"
  type: "Convolution"
  bottom: "inception_3a/3x3_reduce"
  top: "inception_3a/3x3"
  param {
    lr_mult: 1
    decay_mult: 1
  }
  param {
    lr_mult: 2
    decay_mult: 0
  }
  convolution_param {
    num_output: 128
    pad: 1
    kernel_size: 3
    weight_filler {
      type: "xavier"
      std: 0.03
    }
    bias_filler {
      type: "constant"
      value: 0.2
    }
  }
}
layer {
  name: "inception_3a/relu_3x3"
  type: "ReLU"
  bottom: "inception_3a/3x3"
  top: "inception_3a/3x3"
}
layer {
  name: "inception_3a/5x5_reduce"
  type: "Convolution"
  bottom: "pool2/3x3_s2"
  top: "inception_3a/5x5_reduce"
  param {
    lr_mult: 1
    decay_mult: 1
  }
  param {
    lr_mult: 2
    decay_mult: 0
  }
  convolution_param {
    num_output: 16
    kernel_size: 1
    weight_filler {
      type: "xavier"
      std: 0.2
    }
    bias_filler {
      type: "constant"
      value: 0.2
    }
  }
}
layer {
  name: "inception_3a/relu_5x5_reduce"
  type: "ReLU"
  bottom: "inception_3a/5x5_reduce"
  top: "inception_3a/5x5_reduce"
}
layer {
  name: "inception_3a/5x5"
  type: "Convolution"
  bottom: "inception_3a/5x5_reduce"
  top: "inception_3a/5x5"
  param {
    lr_mult: 1
    decay_mult: 1
  }
  param {
    lr_mult: 2
    decay_mult: 0
  }
  convolution_param {
    num_output: 32
    pad: 2
    kernel_size: 5
    weight_filler {
      type: "xavier"
      std: 0.03
    }
    bias_filler {
      type: "constant"
      value: 0.2
    }
  }
}
layer {
  name: "inception_3a/relu_5x5"
  type: "ReLU"
  bottom: "inception_3a/5x5"
  top: "inception_3a/5x5"
}
layer {
  name: "inception_3a/pool"
  type: "Pooling"
  bottom: "pool2/3x3_s2"
  top: "inception_3a/pool"
  pooling_param {
    pool: MAX
    kernel_size: 3
    stride: 1
    pad: 1
  }
}
layer {
  name: "inception_3a/pool_proj"
  type: "Convolution"
  bottom: "inception_3a/pool"
  top: "inception_3a/pool_proj"
  param {
    lr_mult: 1
    decay_mult: 1
  }
  param {
    lr_mult: 2
    decay_mult: 0
  }
  convolution_param {
    num_output: 32
    kernel_size: 1
    weight_filler {
      type: "xavier"
      std: 0.1
    }
    bias_filler {
      type: "constant"
      value: 0.2
    }
  }
}
layer {
  name: "inception_3a/relu_pool_proj"
  type: "ReLU"
  bottom: "inception_3a/pool_proj"
  top: "inception_3a/pool_proj"
}
layer {
  name: "inception_3a/output"
  type: "Concat"
  bottom: "inception_3a/1x1"
  bottom: "inception_3a/3x3"
  bottom: "inception_3a/5x5"
  bottom: "inception_3a/pool_proj"
  top: "inception_3a/output"
}
layer {
  name: "inception_3b/1x1"
  type: "Convolution"
  bottom: "inception_3a/output"
  top: "inception_3b/1x1"
  param {
    lr_mult: 1
    decay_mult: 1
  }
  param {
    lr_mult: 2
    decay_mult: 0
  }
  convolution_param {
    num_output: 128
    kernel_size: 1
    weight_filler {
      type: "xavier"
      std: 0.03
    }
    bias_filler {
      type: "constant"
      value: 0.2
    }
  }
}
layer {
  name: "inception_3b/relu_1x1"
  type: "ReLU"
  bottom: "inception_3b/1x1"
  top: "inception_3b/1x1"
}
layer {
  name: "inception_3b/3x3_reduce"
  type: "Convolution"
  bottom: "inception_3a/output"
  top: "inception_3b/3x3_reduce"
  param {
    lr_mult: 1
    decay_mult: 1
  }
  param {
    lr_mult: 2
    decay_mult: 0
  }
  convolution_param {
    num_output: 128
    kernel_size: 1
    weight_filler {
      type: "xavier"
      std: 0.09
    }
    bias_filler {
      type: "constant"
      value: 0.2
    }
  }
}
layer {
  name: "inception_3b/relu_3x3_reduce"
  type: "ReLU"
  bottom: "inception_3b/3x3_reduce"
  top: "inception_3b/3x3_reduce"
}
layer {
  name: "inception_3b/3x3"
  type: "Convolution"
  bottom: "inception_3b/3x3_reduce"
  top: "inception_3b/3x3"
  param {
    lr_mult: 1
    decay_mult: 1
  }
  param {
    lr_mult: 2
    decay_mult: 0
  }
  convolution_param {
    num_output: 192
    pad: 1
    kernel_size: 3
    weight_filler {
      type: "xavier"
      std: 0.03
    }
    bias_filler {
      type: "constant"
      value: 0.2
    }
  }
}
layer {
  name: "inception_3b/relu_3x3"
  type: "ReLU"
  bottom: "inception_3b/3x3"
  top: "inception_3b/3x3"
}
layer {
  name: "inception_3b/5x5_reduce"
  type: "Convolution"
  bottom: "inception_3a/output"
  top: "inception_3b/5x5_reduce"
  param {
    lr_mult: 1
    decay_mult: 1
  }
  param {
    lr_mult: 2
    decay_mult: 0
  }
  convolution_param {
    num_output: 32
    kernel_size: 1
    weight_filler {
      type: "xavier"
      std: 0.2
    }
    bias_filler {
      type: "constant"
      value: 0.2
    }
  }
}
layer {
  name: "inception_3b/relu_5x5_reduce"
  type: "ReLU"
  bottom: "inception_3b/5x5_reduce"
  top: "inception_3b/5x5_reduce"
}
layer {
  name: "inception_3b/5x5"
  type: "Convolution"
  bottom: "inception_3b/5x5_reduce"
  top: "inception_3b/5x5"
  param {
    lr_mult: 1
    decay_mult: 1
  }
  param {
    lr_mult: 2
    decay_mult: 0
  }
  convolution_param {
    num_output: 96
    pad: 2
    kernel_size: 5
    weight_filler {
      type: "xavier"
      std: 0.03
    }
    bias_filler {
      type: "constant"
      value: 0.2
    }
  }
}
layer {
  name: "inception_3b/relu_5x5"
  type: "ReLU"
  bottom: "inception_3b/5x5"
  top: "inception_3b/5x5"
}
layer {
  name: "inception_3b/pool"
  type: "Pooling"
  bottom: "inception_3a/output"
  top: "inception_3b/pool"
  pooling_param {
    pool: MAX
    kernel_size: 3
    stride: 1
    pad: 1
  }
}
layer {
  name: "inception_3b/pool_proj"
  type: "Convolution"
  bottom: "inception_3b/pool"
  top: "inception_3b/pool_proj"
  param {
    lr_mult: 1
    decay_mult: 1
  }
  param {
    lr_mult: 2
    decay_mult: 0
  }
  convolution_param {
    num_output: 64
    kernel_size: 1
    weight_filler {
      type: "xavier"
      std: 0.1
    }
    bias_filler {
      type: "constant"
      value: 0.2
    }
  }
}
layer {
  name: "inception_3b/relu_pool_proj"
  type: "ReLU"
  bottom: "inception_3b/pool_proj"
  top: "inception_3b/pool_proj"
}
layer {
  name: "inception_3b/output"
  type: "Concat"
  bottom: "inception_3b/1x1"
  bottom: "inception_3b/3x3"
  bottom: "inception_3b/5x5"
  bottom: "inception_3b/pool_proj"
  top: "inception_3b/output"
}
layer {
  name: "pool3/3x3_s2"
  type: "Pooling"
  bottom: "inception_3b/output"
  top: "pool3/3x3_s2"
  pooling_param {
    pool: MAX
    kernel_size: 3
    stride: 2
  }
}
layer {
  name: "inception_4a/1x1"
  type: "Convolution"
  bottom: "pool3/3x3_s2"
  top: "inception_4a/1x1"
  param {
    lr_mult: 1
    decay_mult: 1
  }
  param {
    lr_mult: 2
    decay_mult: 0
  }
  convolution_param {
    num_output: 192
    kernel_size: 1
    weight_filler {
      type: "xavier"
      std: 0.03
    }
    bias_filler {
      type: "constant"
      value: 0.2
    }
  }
}
layer {
  name: "inception_4a/relu_1x1"
  type: "ReLU"
  bottom: "inception_4a/1x1"
  top: "inception_4a/1x1"
}
layer {
  name: "inception_4a/3x3_reduce"
  type: "Convolution"
  bottom: "pool3/3x3_s2"
  top: "inception_4a/3x3_reduce"
  param {
    lr_mult: 1
    decay_mult: 1
  }
  param {
    lr_mult: 2
    decay_mult: 0
  }
  convolution_param {
    num_output: 96
    kernel_size: 1
    weight_filler {
      type: "xavier"
      std: 0.09
    }
    bias_filler {
      type: "constant"
      value: 0.2
    }
  }
}
layer {
  name: "inception_4a/relu_3x3_reduce"
  type: "ReLU"
  bottom: "inception_4a/3x3_reduce"
  top: "inception_4a/3x3_reduce"
}
layer {
  name: "inception_4a/3x3"
  type: "Convolution"
  bottom: "inception_4a/3x3_reduce"
  top: "inception_4a/3x3"
  param {
    lr_mult: 1
    decay_mult: 1
  }
  param {
    lr_mult: 2
    decay_mult: 0
  }
  convolution_param {
    num_output: 208
    pad: 1
    kernel_size: 3
    weight_filler {
      type: "xavier"
      std: 0.03
    }
    bias_filler {
      type: "constant"
      value: 0.2
    }
  }
}
layer {
  name: "inception_4a/relu_3x3"
  type: "ReLU"
  bottom: "inception_4a/3x3"
  top: "inception_4a/3x3"
}
layer {
  name: "inception_4a/5x5_reduce"
  type: "Convolution"
  bottom: "pool3/3x3_s2"
  top: "inception_4a/5x5_reduce"
  param {
    lr_mult: 1
    decay_mult: 1
  }
  param {
    lr_mult: 2
    decay_mult: 0
  }
  convolution_param {
    num_output: 16
    kernel_size: 1
    weight_filler {
      type: "xavier"
      std: 0.2
    }
    bias_filler {
      type: "constant"
      value: 0.2
    }
  }
}
layer {
  name: "inception_4a/relu_5x5_reduce"
  type: "ReLU"
  bottom: "inception_4a/5x5_reduce"
  top: "inception_4a/5x5_reduce"
}
layer {
  name: "inception_4a/5x5"
  type: "Convolution"
  bottom: "inception_4a/5x5_reduce"
  top: "inception_4a/5x5"
  param {
    lr_mult: 1
    decay_mult: 1
  }
  param {
    lr_mult: 2
    decay_mult: 0
  }
  convolution_param {
    num_output: 48
    pad: 2
    kernel_size: 5
    weight_filler {
      type: "xavier"
      std: 0.03
    }
    bias_filler {
      type: "constant"
      value: 0.2
    }
  }
}
layer {
  name: "inception_4a/relu_5x5"
  type: "ReLU"
  bottom: "inception_4a/5x5"
  top: "inception_4a/5x5"
}
layer {
  name: "inception_4a/pool"
  type: "Pooling"
  bottom: "pool3/3x3_s2"
  top: "inception_4a/pool"
  pooling_param {
    pool: MAX
    kernel_size: 3
    stride: 1
    pad: 1
  }
}
layer {
  name: "inception_4a/pool_proj"
  type: "Convolution"
  bottom: "inception_4a/pool"
  top: "inception_4a/pool_proj"
  param {
    lr_mult: 1
    decay_mult: 1
  }
  param {
    lr_mult: 2
    decay_mult: 0
  }
  convolution_param {
    num_output: 64
    kernel_size: 1
    weight_filler {
      type: "xavier"
      std: 0.1
    }
    bias_filler {
      type: "constant"
      value: 0.2
    }
  }
}
layer {
  name: "inception_4a/relu_pool_proj"
  type: "ReLU"
  bottom: "inception_4a/pool_proj"
  top: "inception_4a/pool_proj"
}
layer {
  name: "inception_4a/output"
  type: "Concat"
  bottom: "inception_4a/1x1"
  bottom: "inception_4a/3x3"
  bottom: "inception_4a/5x5"
  bottom: "inception_4a/pool_proj"
  top: "inception_4a/output"
}
layer {
  name: "inception_4b/1x1"
  type: "Convolution"
  bottom: "inception_4a/output"
  top: "inception_4b/1x1"
  param {
    lr_mult: 1
    decay_mult: 1
  }
  param {
    lr_mult: 2
    decay_mult: 0
  }
  convolution_param {
    num_output: 160
    kernel_size: 1
    weight_filler {
      type: "xavier"
      std: 0.03
    }
    bias_filler {
      type: "constant"
      value: 0.2
    }
  }
}
layer {
  name: "inception_4b/relu_1x1"
  type: "ReLU"
  bottom: "inception_4b/1x1"
  top: "inception_4b/1x1"
}
layer {
  name: "inception_4b/3x3_reduce"
  type: "Convolution"
  bottom: "inception_4a/output"
  top: "inception_4b/3x3_reduce"
  param {
    lr_mult: 1
    decay_mult: 1
  }
  param {
    lr_mult: 2
    decay_mult: 0
  }
  convolution_param {
    num_output: 112
    kernel_size: 1
    weight_filler {
      type: "xavier"
      std: 0.09
    }
    bias_filler {
      type: "constant"
      value: 0.2
    }
  }
}
layer {
  name: "inception_4b/relu_3x3_reduce"
  type: "ReLU"
  bottom: "inception_4b/3x3_reduce"
  top: "inception_4b/3x3_reduce"
}
layer {
  name: "inception_4b/3x3"
  type: "Convolution"
  bottom: "inception_4b/3x3_reduce"
  top: "inception_4b/3x3"
  param {
    lr_mult: 1
    decay_mult: 1
  }
  param {
    lr_mult: 2
    decay_mult: 0
  }
  convolution_param {
    num_output: 224
    pad: 1
    kernel_size: 3
    weight_filler {
      type: "xavier"
      std: 0.03
    }
    bias_filler {
      type: "constant"
      value: 0.2
    }
  }
}
layer {
  name: "inception_4b/relu_3x3"
  type: "ReLU"
  bottom: "inception_4b/3x3"
  top: "inception_4b/3x3"
}
layer {
  name: "inception_4b/5x5_reduce"
  type: "Convolution"
  bottom: "inception_4a/output"
  top: "inception_4b/5x5_reduce"
  param {
    lr_mult: 1
    decay_mult: 1
  }
  param {
    lr_mult: 2
    decay_mult: 0
  }
  convolution_param {
    num_output: 24
    kernel_size: 1
    weight_filler {
      type: "xavier"
      std: 0.2
    }
    bias_filler {
      type: "constant"
      value: 0.2
    }
  }
}
layer {
  name: "inception_4b/relu_5x5_reduce"
  type: "ReLU"
  bottom: "inception_4b/5x5_reduce"
  top: "inception_4b/5x5_reduce"
}
layer {
  name: "inception_4b/5x5"
  type: "Convolution"
  bottom: "inception_4b/5x5_reduce"
  top: "inception_4b/5x5"
  param {
    lr_mult: 1
    decay_mult: 1
  }
  param {
    lr_mult: 2
    decay_mult: 0
  }
  convolution_param {
    num_output: 64
    pad: 2
    kernel_size: 5
    weight_filler {
      type: "xavier"
      std: 0.03
    }
    bias_filler {
      type: "constant"
      value: 0.2
    }
  }
}
layer {
  name: "inception_4b/relu_5x5"
  type: "ReLU"
  bottom: "inception_4b/5x5"
  top: "inception_4b/5x5"
}
layer {
  name: "inception_4b/pool"
  type: "Pooling"
  bottom: "inception_4a/output"
  top: "inception_4b/pool"
  pooling_param {
    pool: MAX
    kernel_size: 3
    stride: 1
    pad: 1
  }
}
layer {
  name: "inception_4b/pool_proj"
  type: "Convolution"
  bottom: "inception_4b/pool"
  top: "inception_4b/pool_proj"
  param {
    lr_mult: 1
    decay_mult: 1
  }
  param {
    lr_mult: 2
    decay_mult: 0
  }
  convolution_param {
    num_output: 64
    kernel_size: 1
    weight_filler {
      type: "xavier"
      std: 0.1
    }
    bias_filler {
      type: "constant"
      value: 0.2
    }
  }
}
layer {
  name: "inception_4b/relu_pool_proj"
  type: "ReLU"
  bottom: "inception_4b/pool_proj"
  top: "inception_4b/pool_proj"
}
layer {
  name: "inception_4b/output"
  type: "Concat"
  bottom: "inception_4b/1x1"
  bottom: "inception_4b/3x3"
  bottom: "inception_4b/5x5"
  bottom: "inception_4b/pool_proj"
  top: "inception_4b/output"
}
layer {
  name: "inception_4c/1x1"
  type: "Convolution"
  bottom: "inception_4b/output"
  top: "inception_4c/1x1"
  param {
    lr_mult: 1
    decay_mult: 1
  }
  param {
    lr_mult: 2
    decay_mult: 0
  }
  convolution_param {
    num_output: 128
    kernel_size: 1
    weight_filler {
      type: "xavier"
      std: 0.03
    }
    bias_filler {
      type: "constant"
      value: 0.2
    }
  }
}
layer {
  name: "inception_4c/relu_1x1"
  type: "ReLU"
  bottom: "inception_4c/1x1"
  top: "inception_4c/1x1"
}
layer {
  name: "inception_4c/3x3_reduce"
  type: "Convolution"
  bottom: "inception_4b/output"
  top: "inception_4c/3x3_reduce"
  param {
    lr_mult: 1
    decay_mult: 1
  }
  param {
    lr_mult: 2
    decay_mult: 0
  }
  convolution_param {
    num_output: 128
    kernel_size: 1
    weight_filler {
      type: "xavier"
      std: 0.09
    }
    bias_filler {
      type: "constant"
      value: 0.2
    }
  }
}
layer {
  name: "inception_4c/relu_3x3_reduce"
  type: "ReLU"
  bottom: "inception_4c/3x3_reduce"
  top: "inception_4c/3x3_reduce"
}
layer {
  name: "inception_4c/3x3"
  type: "Convolution"
  bottom: "inception_4c/3x3_reduce"
  top: "inception_4c/3x3"
  param {
    lr_mult: 1
    decay_mult: 1
  }
  param {
    lr_mult: 2
    decay_mult: 0
  }
  convolution_param {
    num_output: 256
    pad: 1
    kernel_size: 3
    weight_filler {
      type: "xavier"
      std: 0.03
    }
    bias_filler {
      type: "constant"
      value: 0.2
    }
  }
}
layer {
  name: "inception_4c/relu_3x3"
  type: "ReLU"
  bottom: "inception_4c/3x3"
  top: "inception_4c/3x3"
}
layer {
  name: "inception_4c/5x5_reduce"
  type: "Convolution"
  bottom: "inception_4b/output"
  top: "inception_4c/5x5_reduce"
  param {
    lr_mult: 1
    decay_mult: 1
  }
  param {
    lr_mult: 2
    decay_mult: 0
  }
  convolution_param {
    num_output: 24
    kernel_size: 1
    weight_filler {
      type: "xavier"
      std: 0.2
    }
    bias_filler {
      type: "constant"
      value: 0.2
    }
  }
}
layer {
  name: "inception_4c/relu_5x5_reduce"
  type: "ReLU"
  bottom: "inception_4c/5x5_reduce"
  top: "inception_4c/5x5_reduce"
}
layer {
  name: "inception_4c/5x5"
  type: "Convolution"
  bottom: "inception_4c/5x5_reduce"
  top: "inception_4c/5x5"
  param {
    lr_mult: 1
    decay_mult: 1
  }
  param {
    lr_mult: 2
    decay_mult: 0
  }
  convolution_param {
    num_output: 64
    pad: 2
    kernel_size: 5
    weight_filler {
      type: "xavier"
      std: 0.03
    }
    bias_filler {
      type: "constant"
      value: 0.2
    }
  }
}
layer {
  name: "inception_4c/relu_5x5"
  type: "ReLU"
  bottom: "inception_4c/5x5"
  top: "inception_4c/5x5"
}
layer {
  name: "inception_4c/pool"
  type: "Pooling"
  bottom: "inception_4b/output"
  top: "inception_4c/pool"
  pooling_param {
    pool: MAX
    kernel_size: 3
    stride: 1
    pad: 1
  }
}
layer {
  name: "inception_4c/pool_proj"
  type: "Convolution"
  bottom: "inception_4c/pool"
  top: "inception_4c/pool_proj"
  param {
    lr_mult: 1
    decay_mult: 1
  }
  param {
    lr_mult: 2
    decay_mult: 0
  }
  convolution_param {
    num_output: 64
    kernel_size: 1
    weight_filler {
      type: "xavier"
      std: 0.1
    }
    bias_filler {
      type: "constant"
      value: 0.2
    }
  }
}
layer {
  name: "inception_4c/relu_pool_proj"
  type: "ReLU"
  bottom: "inception_4c/pool_proj"
  top: "inception_4c/pool_proj"
}
layer {
  name: "inception_4c/output"
  type: "Concat"
  bottom: "inception_4c/1x1"
  bottom: "inception_4c/3x3"
  bottom: "inception_4c/5x5"
  bottom: "inception_4c/pool_proj"
  top: "inception_4c/output"
}
layer {
  name: "inception_4d/1x1"
  type: "Convolution"
  bottom: "inception_4c/output"
  top: "inception_4d/1x1"
  param {
    lr_mult: 1
    decay_mult: 1
  }
  param {
    lr_mult: 2
    decay_mult: 0
  }
  convolution_param {
    num_output: 112
    kernel_size: 1
    weight_filler {
      type: "xavier"
      std: 0.03
    }
    bias_filler {
      type: "constant"
      value: 0.2
    }
  }
}
layer {
  name: "inception_4d/relu_1x1"
  type: "ReLU"
  bottom: "inception_4d/1x1"
  top: "inception_4d/1x1"
}
layer {
  name: "inception_4d/3x3_reduce"
  type: "Convolution"
  bottom: "inception_4c/output"
  top: "inception_4d/3x3_reduce"
  param {
    lr_mult: 1
    decay_mult: 1
  }
  param {
    lr_mult: 2
    decay_mult: 0
  }
  convolution_param {
    num_output: 144
    kernel_size: 1
    weight_filler {
      type: "xavier"
      std: 0.09
    }
    bias_filler {
      type: "constant"
      value: 0.2
    }
  }
}
layer {
  name: "inception_4d/relu_3x3_reduce"
  type: "ReLU"
  bottom: "inception_4d/3x3_reduce"
  top: "inception_4d/3x3_reduce"
}
layer {
  name: "inception_4d/3x3"
  type: "Convolution"
  bottom: "inception_4d/3x3_reduce"
  top: "inception_4d/3x3"
  param {
    lr_mult: 1
    decay_mult: 1
  }
  param {
    lr_mult: 2
    decay_mult: 0
  }
  convolution_param {
    num_output: 288
    pad: 1
    kernel_size: 3
    weight_filler {
      type: "xavier"
      std: 0.03
    }
    bias_filler {
      type: "constant"
      value: 0.2
    }
  }
}
layer {
  name: "inception_4d/relu_3x3"
  type: "ReLU"
  bottom: "inception_4d/3x3"
  top: "inception_4d/3x3"
}
layer {
  name: "inception_4d/5x5_reduce"
  type: "Convolution"
  bottom: "inception_4c/output"
  top: "inception_4d/5x5_reduce"
  param {
    lr_mult: 1
    decay_mult: 1
  }
  param {
    lr_mult: 2
    decay_mult: 0
  }
  convolution_param {
    num_output: 32
    kernel_size: 1
    weight_filler {
      type: "xavier"
      std: 0.2
    }
    bias_filler {
      type: "constant"
      value: 0.2
    }
  }
}
layer {
  name: "inception_4d/relu_5x5_reduce"
  type: "ReLU"
  bottom: "inception_4d/5x5_reduce"
  top: "inception_4d/5x5_reduce"
}
layer {
  name: "inception_4d/5x5"
  type: "Convolution"
  bottom: "inception_4d/5x5_reduce"
  top: "inception_4d/5x5"
  param {
    lr_mult: 1
    decay_mult: 1
  }
  param {
    lr_mult: 2
    decay_mult: 0
  }
  convolution_param {
    num_output: 64
    pad: 2
    kernel_size: 5
    weight_filler {
      type: "xavier"
      std: 0.03
    }
    bias_filler {
      type: "constant"
      value: 0.2
    }
  }
}
layer {
  name: "inception_4d/relu_5x5"
  type: "ReLU"
  bottom: "inception_4d/5x5"
  top: "inception_4d/5x5"
}
layer {
  name: "inception_4d/pool"
  type: "Pooling"
  bottom: "inception_4c/output"
  top: "inception_4d/pool"
  pooling_param {
    pool: MAX
    kernel_size: 3
    stride: 1
    pad: 1
  }
}
layer {
  name: "inception_4d/pool_proj"
  type: "Convolution"
  bottom: "inception_4d/pool"
  top: "inception_4d/pool_proj"
  param {
    lr_mult: 1
    decay_mult: 1
  }
  param {
    lr_mult: 2
    decay_mult: 0
  }
  convolution_param {
    num_output: 64
    kernel_size: 1
    weight_filler {
      type: "xavier"
      std: 0.1
    }
    bias_filler {
      type: "constant"
      value: 0.2
    }
  }
}
layer {
  name: "inception_4d/relu_pool_proj"
  type: "ReLU"
  bottom: "inception_4d/pool_proj"
  top: "inception_4d/pool_proj"
}
layer {
  name: "inception_4d/output"
  type: "Concat"
  bottom: "inception_4d/1x1"
  bottom: "inception_4d/3x3"
  bottom: "inception_4d/5x5"
  bottom: "inception_4d/pool_proj"
  top: "inception_4d/output"
}
layer {
  name: "inception_4e/1x1"
  type: "Convolution"
  bottom: "inception_4d/output"
  top: "inception_4e/1x1"
  param {
    lr_mult: 1
    decay_mult: 1
  }
  param {
    lr_mult: 2
    decay_mult: 0
  }
  convolution_param {
    num_output: 256
    kernel_size: 1
    weight_filler {
      type: "xavier"
      std: 0.03
    }
    bias_filler {
      type: "constant"
      value: 0.2
    }
  }
}
layer {
  name: "inception_4e/relu_1x1"
  type: "ReLU"
  bottom: "inception_4e/1x1"
  top: "inception_4e/1x1"
}
layer {
  name: "inception_4e/3x3_reduce"
  type: "Convolution"
  bottom: "inception_4d/output"
  top: "inception_4e/3x3_reduce"
  param {
    lr_mult: 1
    decay_mult: 1
  }
  param {
    lr_mult: 2
    decay_mult: 0
  }
  convolution_param {
    num_output: 160
    kernel_size: 1
    weight_filler {
      type: "xavier"
      std: 0.09
    }
    bias_filler {
      type: "constant"
      value: 0.2
    }
  }
}
layer {
  name: "inception_4e/relu_3x3_reduce"
  type: "ReLU"
  bottom: "inception_4e/3x3_reduce"
  top: "inception_4e/3x3_reduce"
}
layer {
  name: "inception_4e/3x3"
  type: "Convolution"
  bottom: "inception_4e/3x3_reduce"
  top: "inception_4e/3x3"
  param {
    lr_mult: 1
    decay_mult: 1
  }
  param {
    lr_mult: 2
    decay_mult: 0
  }
  convolution_param {
    num_output: 320
    pad: 1
    kernel_size: 3
    weight_filler {
      type: "xavier"
      std: 0.03
    }
    bias_filler {
      type: "constant"
      value: 0.2
    }
  }
}
layer {
  name: "inception_4e/relu_3x3"
  type: "ReLU"
  bottom: "inception_4e/3x3"
  top: "inception_4e/3x3"
}
layer {
  name: "inception_4e/5x5_reduce"
  type: "Convolution"
  bottom: "inception_4d/output"
  top: "inception_4e/5x5_reduce"
  param {
    lr_mult: 1
    decay_mult: 1
  }
  param {
    lr_mult: 2
    decay_mult: 0
  }
  convolution_param {
    num_output: 32
    kernel_size: 1
    weight_filler {
      type: "xavier"
      std: 0.2
    }
    bias_filler {
      type: "constant"
      value: 0.2
    }
  }
}
layer {
  name: "inception_4e/relu_5x5_reduce"
  type: "ReLU"
  bottom: "inception_4e/5x5_reduce"
  top: "inception_4e/5x5_reduce"
}
layer {
  name: "inception_4e/5x5"
  type: "Convolution"
  bottom: "inception_4e/5x5_reduce"
  top: "inception_4e/5x5"
  param {
    lr_mult: 1
    decay_mult: 1
  }
  param {
    lr_mult: 2
    decay_mult: 0
  }
  convolution_param {
    num_output: 128
    pad: 2
    kernel_size: 5
    weight_filler {
      type: "xavier"
      std: 0.03
    }
    bias_filler {
      type: "constant"
      value: 0.2
    }
  }
}
layer {
  name: "inception_4e/relu_5x5"
  type: "ReLU"
  bottom: "inception_4e/5x5"
  top: "inception_4e/5x5"
}
layer {
  name: "inception_4e/pool"
  type: "Pooling"
  bottom: "inception_4d/output"
  top: "inception_4e/pool"
  pooling_param {
    pool: MAX
    kernel_size: 3
    stride: 1
    pad: 1
  }
}
layer {
  name: "inception_4e/pool_proj"
  type: "Convolution"
  bottom: "inception_4e/pool"
  top: "inception_4e/pool_proj"
  param {
    lr_mult: 1
    decay_mult: 1
  }
  param {
    lr_mult: 2
    decay_mult: 0
  }
  convolution_param {
    num_output: 128
    kernel_size: 1
    weight_filler {
      type: "xavier"
      std: 0.1
    }
    bias_filler {
      type: "constant"
      value: 0.2
    }
  }
}
layer {
  name: "inception_4e/relu_pool_proj"
  type: "ReLU"
  bottom: "inception_4e/pool_proj"
  top: "inception_4e/pool_proj"
}
layer {
  name: "inception_4e/output"
  type: "Concat"
  bottom: "inception_4e/1x1"
  bottom: "inception_4e/3x3"
  bottom: "inception_4e/5x5"
  bottom: "inception_4e/pool_proj"
  top: "inception_4e/output"
}
layer {
  name: "pool4/3x3_s2"
  type: "Pooling"
  bottom: "inception_4e/output"
  top: "pool4/3x3_s2"
  pooling_param {
    pool: MAX
    kernel_size: 3
    stride: 2
  }
}
layer {
  name: "inception_5a/1x1"
  type: "Convolution"
  bottom: "pool4/3x3_s2"
  top: "inception_5a/1x1"
  param {
    lr_mult: 1
    decay_mult: 1
  }
  param {
    lr_mult: 2
    decay_mult: 0
  }
  convolution_param {
    num_output: 256
    kernel_size: 1
    weight_filler {
      type: "xavier"
      std: 0.03
    }
    bias_filler {
      type: "constant"
      value: 0.2
    }
  }
}
layer {
  name: "inception_5a/relu_1x1"
  type: "ReLU"
  bottom: "inception_5a/1x1"
  top: "inception_5a/1x1"
}
layer {
  name: "inception_5a/3x3_reduce"
  type: "Convolution"
  bottom: "pool4/3x3_s2"
  top: "inception_5a/3x3_reduce"
  param {
    lr_mult: 1
    decay_mult: 1
  }
  param {
    lr_mult: 2
    decay_mult: 0
  }
  convolution_param {
    num_output: 160
    kernel_size: 1
    weight_filler {
      type: "xavier"
      std: 0.09
    }
    bias_filler {
      type: "constant"
      value: 0.2
    }
  }
}
layer {
  name: "inception_5a/relu_3x3_reduce"
  type: "ReLU"
  bottom: "inception_5a/3x3_reduce"
  top: "inception_5a/3x3_reduce"
}
layer {
  name: "inception_5a/3x3"
  type: "Convolution"
  bottom: "inception_5a/3x3_reduce"
  top: "inception_5a/3x3"
  param {
    lr_mult: 1
    decay_mult: 1
  }
  param {
    lr_mult: 2
    decay_mult: 0
  }
  convolution_param {
    num_output: 320
    pad: 1
    kernel_size: 3
    weight_filler {
      type: "xavier"
      std: 0.03
    }
    bias_filler {
      type: "constant"
      value: 0.2
    }
  }
}
layer {
  name: "inception_5a/relu_3x3"
  type: "ReLU"
  bottom: "inception_5a/3x3"
  top: "inception_5a/3x3"
}
layer {
  name: "inception_5a/5x5_reduce"
  type: "Convolution"
  bottom: "pool4/3x3_s2"
  top: "inception_5a/5x5_reduce"
  param {
    lr_mult: 1
    decay_mult: 1
  }
  param {
    lr_mult: 2
    decay_mult: 0
  }
  convolution_param {
    num_output: 32
    kernel_size: 1
    weight_filler {
      type: "xavier"
      std: 0.2
    }
    bias_filler {
      type: "constant"
      value: 0.2
    }
I0714 20:58:57.699919 10614 layer_factory.hpp:77] Creating layer data
I0714 20:58:57.699998 10614 net.cpp:91] Creating Layer data
I0714 20:58:57.700019 10614 net.cpp:399] data -> data
I0714 20:58:57.700608 10618 net.cpp:49] Initializing net from parameters: 
name: "GoogleNet"
state {
  phase: TEST
}
layer {
  name: "data"
  type: "Input"
  top: "data"
  input_param {
    shape {
      dim: 10
      dim: 3
      dim: 224
      dim: 224
    }
  }
}
layer {
  name: "conv1/7x7_s2"
  type: "Convolution"
  bottom: "data"
  top: "conv1/7x7_s2"
  param {
    lr_mult: 1
    decay_mult: 1
  }
  param {
    lr_mult: 2
    decay_mult: 0
  }
  convolution_param {
    num_output: 64
    pad: 3
    kernel_size: 7
    stride: 2
    weight_filler {
      type: "xavier"
      std: 0.1
    }
    bias_filler {
      type: "constant"
      value: 0.2
    }
  }
}
layer {
  name: "conv1/relu_7x7"
  type: "ReLU"
  bottom: "conv1/7x7_s2"
  top: "conv1/7x7_s2"
}
layer {
  name: "pool1/3x3_s2"
  type: "Pooling"
  bottom: "conv1/7x7_s2"
  top: "pool1/3x3_s2"
  pooling_param {
    pool: MAX
    kernel_size: 3
    stride: 2
  }
}
layer {
  name: "pool1/norm1"
  type: "LRN"
  bottom: "pool1/3x3_s2"
  top: "pool1/norm1"
  lrn_param {
    local_size: 5
    alpha: 0.0001
    beta: 0.75
  }
}
layer {
  name: "conv2/3x3_reduce"
  type: "Convolution"
  bottom: "pool1/norm1"
  top: "conv2/3x3_reduce"
  param {
    lr_mult: 1
    decay_mult: 1
  }
  param {
    lr_mult: 2
    decay_mult: 0
  }
  convolution_param {
    num_output: 64
    kernel_size: 1
    weight_filler {
      type: "xavier"
      std: 0.1
    }
    bias_filler {
      type: "constant"
      value: 0.2
    }
  }
}
layer {
  name: "conv2/relu_3x3_reduce"
  type: "ReLU"
  bottom: "conv2/3x3_reduce"
  top: "conv2/3x3_reduce"
}
layer {
  name: "conv2/3x3"
  type: "Convolution"
  bottom: "conv2/3x3_reduce"
  top: "conv2/3x3"
  param {
    lr_mult: 1
    decay_mult: 1
  }
  param {
    lr_mult: 2
    decay_mult: 0
  }
  convolution_param {
    num_output: 192
    pad: 1
    kernel_size: 3
    weight_filler {
      type: "xavier"
      std: 0.03
    }
    bias_filler {
      type: "constant"
      value: 0.2
    }
  }
}
layer {
  name: "conv2/relu_3x3"
  type: "ReLU"
  bottom: "conv2/3x3"
  top: "conv2/3x3"
}
layer {
  name: "conv2/norm2"
  type: "LRN"
  bottom: "conv2/3x3"
  top: "conv2/norm2"
  lrn_param {
    local_size: 5
    alpha: 0.0001
    beta: 0.75
  }
}
layer {
  name: "pool2/3x3_s2"
  type: "Pooling"
  bottom: "conv2/norm2"
  top: "pool2/3x3_s2"
  pooling_param {
    pool: MAX
    kernel_size: 3
    stride: 2
  }
}
layer {
  name: "inception_3a/1x1"
  type: "Convolution"
  bottom: "pool2/3x3_s2"
  top: "inception_3a/1x1"
  param {
    lr_mult: 1
    decay_mult: 1
  }
  param {
    lr_mult: 2
    decay_mult: 0
  }
  convolution_param {
    num_output: 64
    kernel_size: 1
    weight_filler {
      type: "xavier"
      std: 0.03
    }
    bias_filler {
      type: "constant"
      value: 0.2
    }
  }
}
layer {
  name: "inception_3a/relu_1x1"
  type: "ReLU"
  bottom: "inception_3a/1x1"
  top: "inception_3a/1x1"
}
layer {
  name: "inception_3a/3x3_reduce"
  type: "Convolution"
  bottom: "pool2/3x3_s2"
  top: "inception_3a/3x3_reduce"
  param {
    lr_mult: 1
    decay_mult: 1
  }
  param {
    lr_mult: 2
    decay_mult: 0
  }
  convolution_param {
    num_output: 96
    kernel_size: 1
    weight_filler {
      type: "xavier"
      std: 0.09
    }
    bias_filler {
      type: "constant"
      value: 0.2
    }
  }
}
layer {
  name: "inception_3a/relu_3x3_reduce"
  type: "ReLU"
  bottom: "inception_3a/3x3_reduce"
  top: "inception_3a/3x3_reduce"
}
layer {
  name: "inception_3a/3x3"
  type: "Convolution"
  bottom: "inception_3a/3x3_reduce"
  top: "inception_3a/3x3"
  param {
    lr_mult: 1
    decay_mult: 1
  }
  param {
    lr_mult: 2
    decay_mult: 0
  }
  convolution_param {
    num_output: 128
    pad: 1
    kernel_size: 3
    weight_filler {
      type: "xavier"
      std: 0.03
    }
    bias_filler {
      type: "constant"
      value: 0.2
    }
  }
}
layer {
  name: "inception_3a/relu_3x3"
  type: "ReLU"
  bottom: "inception_3a/3x3"
  top: "inception_3a/3x3"
}
layer {
  name: "inception_3a/5x5_reduce"
  type: "Convolution"
  bottom: "pool2/3x3_s2"
  top: "inception_3a/5x5_reduce"
  param {
    lr_mult: 1
    decay_mult: 1
  }
  param {
    lr_mult: 2
    decay_mult: 0
  }
  convolution_param {
    num_output: 16
    kernel_size: 1
    weight_filler {
      type: "xavier"
      std: 0.2
    }
    bias_filler {
      type: "constant"
      value: 0.2
    }
  }
}
layer {
  name: "inception_3a/relu_5x5_reduce"
  type: "ReLU"
  bottom: "inception_3a/5x5_reduce"
  top: "inception_3a/5x5_reduce"
}
layer {
  name: "inception_3a/5x5"
  type: "Convolution"
  bottom: "inception_3a/5x5_reduce"
  top: "inception_3a/5x5"
  param {
    lr_mult: 1
    decay_mult: 1
  }
  param {
    lr_mult: 2
    decay_mult: 0
  }
  convolution_param {
    num_output: 32
    pad: 2
    kernel_size: 5
    weight_filler {
      type: "xavier"
      std: 0.03
    }
    bias_filler {
      type: "constant"
      value: 0.2
    }
  }
}
layer {
  name: "inception_3a/relu_5x5"
  type: "ReLU"
  bottom: "inception_3a/5x5"
  top: "inception_3a/5x5"
}
layer {
  name: "inception_3a/pool"
  type: "Pooling"
  bottom: "pool2/3x3_s2"
  top: "inception_3a/pool"
  pooling_param {
    pool: MAX
    kernel_size: 3
    stride: 1
    pad: 1
  }
}
layer {
  name: "inception_3a/pool_proj"
  type: "Convolution"
  bottom: "inception_3a/pool"
  top: "inception_3a/pool_proj"
  param {
    lr_mult: 1
    decay_mult: 1
  }
  param {
    lr_mult: 2
    decay_mult: 0
  }
  convolution_param {
    num_output: 32
    kernel_size: 1
    weight_filler {
      type: "xavier"
      std: 0.1
    }
    bias_filler {
      type: "constant"
      value: 0.2
    }
  }
}
layer {
  name: "inception_3a/relu_pool_proj"
  type: "ReLU"
  bottom: "inception_3a/pool_proj"
  top: "inception_3a/pool_proj"
}
layer {
  name: "inception_3a/output"
  type: "Concat"
  bottom: "inception_3a/1x1"
  bottom: "inception_3a/3x3"
  bottom: "inception_3a/5x5"
  bottom: "inception_3a/pool_proj"
  top: "inception_3a/output"
}
layer {
  name: "inception_3b/1x1"
  type: "Convolution"
  bottom: "inception_3a/output"
  top: "inception_3b/1x1"
  param {
    lr_mult: 1
    decay_mult: 1
  }
  param {
    lr_mult: 2
    decay_mult: 0
  }
  convolution_param {
    num_output: 128
    kernel_size: 1
    weight_filler {
      type: "xavier"
      std: 0.03
    }
    bias_filler {
      type: "constant"
      value: 0.2
    }
  }
}
layer {
  name: "inception_3b/relu_1x1"
  type: "ReLU"
  bottom: "inception_3b/1x1"
  top: "inception_3b/1x1"
}
layer {
  name: "inception_3b/3x3_reduce"
  type: "Convolution"
  bottom: "inception_3a/output"
  top: "inception_3b/3x3_reduce"
  param {
    lr_mult: 1
    decay_mult: 1
  }
  param {
    lr_mult: 2
    decay_mult: 0
  }
  convolution_param {
    num_output: 128
    kernel_size: 1
    weight_filler {
      type: "xavier"
      std: 0.09
    }
    bias_filler {
      type: "constant"
      value: 0.2
    }
  }
}
layer {
  name: "inception_3b/relu_3x3_reduce"
  type: "ReLU"
  bottom: "inception_3b/3x3_reduce"
  top: "inception_3b/3x3_reduce"
}
layer {
  name: "inception_3b/3x3"
  type: "Convolution"
  bottom: "inception_3b/3x3_reduce"
  top: "inception_3b/3x3"
  param {
    lr_mult: 1
    decay_mult: 1
  }
  param {
    lr_mult: 2
    decay_mult: 0
  }
  convolution_param {
    num_output: 192
    pad: 1
    kernel_size: 3
    weight_filler {
      type: "xavier"
      std: 0.03
    }
    bias_filler {
      type: "constant"
      value: 0.2
    }
  }
}
layer {
  name: "inception_3b/relu_3x3"
  type: "ReLU"
  bottom: "inception_3b/3x3"
  top: "inception_3b/3x3"
}
layer {
  name: "inception_3b/5x5_reduce"
  type: "Convolution"
  bottom: "inception_3a/output"
  top: "inception_3b/5x5_reduce"
  param {
    lr_mult: 1
    decay_mult: 1
  }
  param {
    lr_mult: 2
    decay_mult: 0
  }
  convolution_param {
    num_output: 32
    kernel_size: 1
    weight_filler {
      type: "xavier"
      std: 0.2
    }
    bias_filler {
      type: "constant"
      value: 0.2
    }
  }
}
layer {
  name: "inception_3b/relu_5x5_reduce"
  type: "ReLU"
  bottom: "inception_3b/5x5_reduce"
  top: "inception_3b/5x5_reduce"
}
layer {
  name: "inception_3b/5x5"
  type: "Convolution"
  bottom: "inception_3b/5x5_reduce"
  top: "inception_3b/5x5"
  param {
    lr_mult: 1
    decay_mult: 1
  }
  param {
    lr_mult: 2
    decay_mult: 0
  }
  convolution_param {
    num_output: 96
    pad: 2
    kernel_size: 5
    weight_filler {
      type: "xavier"
      std: 0.03
    }
    bias_filler {
      type: "constant"
      value: 0.2
    }
  }
}
layer {
  name: "inception_3b/relu_5x5"
  type: "ReLU"
  bottom: "inception_3b/5x5"
  top: "inception_3b/5x5"
}
layer {
  name: "inception_3b/pool"
  type: "Pooling"
  bottom: "inception_3a/output"
  top: "inception_3b/pool"
  pooling_param {
    pool: MAX
    kernel_size: 3
    stride: 1
    pad: 1
  }
}
layer {
  name: "inception_3b/pool_proj"
  type: "Convolution"
  bottom: "inception_3b/pool"
  top: "inception_3b/pool_proj"
  param {
    lr_mult: 1
    decay_mult: 1
  }
  param {
    lr_mult: 2
    decay_mult: 0
  }
  convolution_param {
    num_output: 64
    kernel_size: 1
    weight_filler {
      type: "xavier"
      std: 0.1
    }
    bias_filler {
      type: "constant"
      value: 0.2
    }
  }
}
layer {
  name: "inception_3b/relu_pool_proj"
  type: "ReLU"
  bottom: "inception_3b/pool_proj"
  top: "inception_3b/pool_proj"
}
layer {
  name: "inception_3b/output"
  type: "Concat"
  bottom: "inception_3b/1x1"
  bottom: "inception_3b/3x3"
  bottom: "inception_3b/5x5"
  bottom: "inception_3b/pool_proj"
  top: "inception_3b/output"
}
layer {
  name: "pool3/3x3_s2"
  type: "Pooling"
  bottom: "inception_3b/output"
  top: "pool3/3x3_s2"
  pooling_param {
    pool: MAX
    kernel_size: 3
    stride: 2
  }
}
layer {
  name: "inception_4a/1x1"
  type: "Convolution"
  bottom: "pool3/3x3_s2"
  top: "inception_4a/1x1"
  param {
    lr_mult: 1
    decay_mult: 1
  }
  param {
    lr_mult: 2
    decay_mult: 0
  }
  convolution_param {
    num_output: 192
    kernel_size: 1
    weight_filler {
      type: "xavier"
      std: 0.03
    }
    bias_filler {
      type: "constant"
      value: 0.2
    }
  }
}
layer {
  name: "inception_4a/relu_1x1"
  type: "ReLU"
  bottom: "inception_4a/1x1"
  top: "inception_4a/1x1"
}
layer {
  name: "inception_4a/3x3_reduce"
  type: "Convolution"
  bottom: "pool3/3x3_s2"
  top: "inception_4a/3x3_reduce"
  param {
    lr_mult: 1
    decay_mult: 1
  }
  param {
    lr_mult: 2
    decay_mult: 0
  }
  convolution_param {
    num_output: 96
    kernel_size: 1
    weight_filler {
      type: "xavier"
      std: 0.09
    }
    bias_filler {
      type: "constant"
      value: 0.2
    }
  }
}
layer {
  name: "inception_4a/relu_3x3_reduce"
  type: "ReLU"
  bottom: "inception_4a/3x3_reduce"
  top: "inception_4a/3x3_reduce"
}
layer {
  name: "inception_4a/3x3"
  type: "Convolution"
  bottom: "inception_4a/3x3_reduce"
  top: "inception_4a/3x3"
  param {
    lr_mult: 1
    decay_mult: 1
  }
  param {
    lr_mult: 2
    decay_mult: 0
  }
  convolution_param {
    num_output: 208
    pad: 1
    kernel_size: 3
    weight_filler {
      type: "xavier"
      std: 0.03
    }
    bias_filler {
      type: "constant"
      value: 0.2
    }
  }
}
layer {
  name: "inception_4a/relu_3x3"
  type: "ReLU"
  bottom: "inception_4a/3x3"
  top: "inception_4a/3x3"
}
layer {
  name: "inception_4a/5x5_reduce"
  type: "Convolution"
  bottom: "pool3/3x3_s2"
  top: "inception_4a/5x5_reduce"
  param {
    lr_mult: 1
    decay_mult: 1
  }
  param {
    lr_mult: 2
    decay_mult: 0
  }
  convolution_param {
    num_output: 16
    kernel_size: 1
    weight_filler {
      type: "xavier"
      std: 0.2
    }
    bias_filler {
      type: "constant"
      value: 0.2
    }
  }
}
layer {
  name: "inception_4a/relu_5x5_reduce"
  type: "ReLU"
  bottom: "inception_4a/5x5_reduce"
  top: "inception_4a/5x5_reduce"
}
layer {
  name: "inception_4a/5x5"
  type: "Convolution"
  bottom: "inception_4a/5x5_reduce"
  top: "inception_4a/5x5"
  param {
    lr_mult: 1
    decay_mult: 1
  }
  param {
    lr_mult: 2
    decay_mult: 0
  }
  convolution_param {
    num_output: 48
    pad: 2
    kernel_size: 5
    weight_filler {
      type: "xavier"
      std: 0.03
    }
    bias_filler {
      type: "constant"
      value: 0.2
    }
  }
}
layer {
  name: "inception_4a/relu_5x5"
  type: "ReLU"
  bottom: "inception_4a/5x5"
  top: "inception_4a/5x5"
}
layer {
  name: "inception_4a/pool"
  type: "Pooling"
  bottom: "pool3/3x3_s2"
  top: "inception_4a/pool"
  pooling_param {
    pool: MAX
    kernel_size: 3
    stride: 1
    pad: 1
  }
}
layer {
  name: "inception_4a/pool_proj"
  type: "Convolution"
  bottom: "inception_4a/pool"
  top: "inception_4a/pool_proj"
  param {
    lr_mult: 1
    decay_mult: 1
  }
  param {
    lr_mult: 2
    decay_mult: 0
  }
  convolution_param {
    num_output: 64
    kernel_size: 1
    weight_filler {
      type: "xavier"
      std: 0.1
    }
    bias_filler {
      type: "constant"
      value: 0.2
    }
  }
}
layer {
  name: "inception_4a/relu_pool_proj"
  type: "ReLU"
  bottom: "inception_4a/pool_proj"
  top: "inception_4a/pool_proj"
}
layer {
  name: "inception_4a/output"
  type: "Concat"
  bottom: "inception_4a/1x1"
  bottom: "inception_4a/3x3"
  bottom: "inception_4a/5x5"
  bottom: "inception_4a/pool_proj"
  top: "inception_4a/output"
}
layer {
  name: "inception_4b/1x1"
  type: "Convolution"
  bottom: "inception_4a/output"
  top: "inception_4b/1x1"
  param {
    lr_mult: 1
    decay_mult: 1
  }
  param {
    lr_mult: 2
    decay_mult: 0
  }
  convolution_param {
    num_output: 160
    kernel_size: 1
    weight_filler {
      type: "xavier"
      std: 0.03
    }
    bias_filler {
      type: "constant"
      value: 0.2
    }
  }
}
layer {
  name: "inception_4b/relu_1x1"
  type: "ReLU"
  bottom: "inception_4b/1x1"
  top: "inception_4b/1x1"
}
layer {
  name: "inception_4b/3x3_reduce"
  type: "Convolution"
  bottom: "inception_4a/output"
  top: "inception_4b/3x3_reduce"
  param {
    lr_mult: 1
    decay_mult: 1
  }
  param {
    lr_mult: 2
    decay_mult: 0
  }
  convolution_param {
    num_output: 112
    kernel_size: 1
    weight_filler {
      type: "xavier"
      std: 0.09
    }
    bias_filler {
      type: "constant"
      value: 0.2
    }
  }
}
layer {
  name: "inception_4b/relu_3x3_reduce"
  type: "ReLU"
  bottom: "inception_4b/3x3_reduce"
  top: "inception_4b/3x3_reduce"
}
layer {
  name: "inception_4b/3x3"
  type: "Convolution"
  bottom: "inception_4b/3x3_reduce"
  top: "inception_4b/3x3"
  param {
    lr_mult: 1
    decay_mult: 1
  }
  param {
    lr_mult: 2
    decay_mult: 0
  }
  convolution_param {
    num_output: 224
    pad: 1
    kernel_size: 3
    weight_filler {
      type: "xavier"
      std: 0.03
    }
    bias_filler {
      type: "constant"
      value: 0.2
    }
  }
}
layer {
  name: "inception_4b/relu_3x3"
  type: "ReLU"
  bottom: "inception_4b/3x3"
  top: "inception_4b/3x3"
}
layer {
  name: "inception_4b/5x5_reduce"
  type: "Convolution"
  bottom: "inception_4a/output"
  top: "inception_4b/5x5_reduce"
  param {
    lr_mult: 1
    decay_mult: 1
  }
  param {
    lr_mult: 2
    decay_mult: 0
  }
  convolution_param {
    num_output: 24
    kernel_size: 1
    weight_filler {
      type: "xavier"
      std: 0.2
    }
    bias_filler {
      type: "constant"
      value: 0.2
    }
  }
}
layer {
  name: "inception_4b/relu_5x5_reduce"
  type: "ReLU"
  bottom: "inception_4b/5x5_reduce"
  top: "inception_4b/5x5_reduce"
}
layer {
  name: "inception_4b/5x5"
  type: "Convolution"
  bottom: "inception_4b/5x5_reduce"
  top: "inception_4b/5x5"
  param {
    lr_mult: 1
    decay_mult: 1
  }
  param {
    lr_mult: 2
    decay_mult: 0
  }
  convolution_param {
    num_output: 64
    pad: 2
    kernel_size: 5
    weight_filler {
      type: "xavier"
      std: 0.03
    }
    bias_filler {
      type: "constant"
      value: 0.2
    }
  }
}
layer {
  name: "inception_4b/relu_5x5"
  type: "ReLU"
  bottom: "inception_4b/5x5"
  top: "inception_4b/5x5"
}
layer {
  name: "inception_4b/pool"
  type: "Pooling"
  bottom: "inception_4a/output"
  top: "inception_4b/pool"
  pooling_param {
    pool: MAX
    kernel_size: 3
    stride: 1
    pad: 1
  }
}
layer {
  name: "inception_4b/pool_proj"
  type: "Convolution"
  bottom: "inception_4b/pool"
  top: "inception_4b/pool_proj"
  param {
    lr_mult: 1
    decay_mult: 1
  }
  param {
    lr_mult: 2
    decay_mult: 0
  }
  convolution_param {
    num_output: 64
    kernel_size: 1
    weight_filler {
      type: "xavier"
      std: 0.1
    }
    bias_filler {
      type: "constant"
      value: 0.2
    }
  }
}
layer {
  name: "inception_4b/relu_pool_proj"
  type: "ReLU"
  bottom: "inception_4b/pool_proj"
  top: "inception_4b/pool_proj"
}
layer {
  name: "inception_4b/output"
  type: "Concat"
  bottom: "inception_4b/1x1"
  bottom: "inception_4b/3x3"
  bottom: "inception_4b/5x5"
  bottom: "inception_4b/pool_proj"
  top: "inception_4b/output"
}
layer {
  name: "inception_4c/1x1"
  type: "Convolution"
  bottom: "inception_4b/output"
  top: "inception_4c/1x1"
  param {
    lr_mult: 1
    decay_mult: 1
  }
  param {
    lr_mult: 2
    decay_mult: 0
  }
  convolution_param {
    num_output: 128
    kernel_size: 1
    weight_filler {
      type: "xavier"
      std: 0.03
    }
    bias_filler {
      type: "constant"
      value: 0.2
    }
  }
}
layer {
  name: "inception_4c/relu_1x1"
  type: "ReLU"
  bottom: "inception_4c/1x1"
  top: "inception_4c/1x1"
}
layer {
  name: "inception_4c/3x3_reduce"
  type: "Convolution"
  bottom: "inception_4b/output"
  top: "inception_4c/3x3_reduce"
  param {
    lr_mult: 1
    decay_mult: 1
  }
  param {
    lr_mult: 2
    decay_mult: 0
  }
  convolution_param {
    num_output: 128
    kernel_size: 1
    weight_filler {
      type: "xavier"
      std: 0.09
    }
    bias_filler {
      type: "constant"
      value: 0.2
    }
  }
}
layer {
  name: "inception_4c/relu_3x3_reduce"
  type: "ReLU"
  bottom: "inception_4c/3x3_reduce"
  top: "inception_4c/3x3_reduce"
}
layer {
  name: "inception_4c/3x3"
  type: "Convolution"
  bottom: "inception_4c/3x3_reduce"
  top: "inception_4c/3x3"
  param {
    lr_mult: 1
    decay_mult: 1
  }
  param {
    lr_mult: 2
    decay_mult: 0
  }
  convolution_param {
    num_output: 256
    pad: 1
    kernel_size: 3
    weight_filler {
      type: "xavier"
      std: 0.03
    }
    bias_filler {
      type: "constant"
      value: 0.2
    }
  }
}
layer {
  name: "inception_4c/relu_3x3"
  type: "ReLU"
  bottom: "inception_4c/3x3"
  top: "inception_4c/3x3"
}
layer {
  name: "inception_4c/5x5_reduce"
  type: "Convolution"
  bottom: "inception_4b/output"
  top: "inception_4c/5x5_reduce"
  param {
    lr_mult: 1
    decay_mult: 1
  }
  param {
    lr_mult: 2
    decay_mult: 0
  }
  convolution_param {
    num_output: 24
    kernel_size: 1
    weight_filler {
      type: "xavier"
      std: 0.2
    }
    bias_filler {
      type: "constant"
      value: 0.2
    }
  }
}
layer {
  name: "inception_4c/relu_5x5_reduce"
  type: "ReLU"
  bottom: "inception_4c/5x5_reduce"
  top: "inception_4c/5x5_reduce"
}
layer {
  name: "inception_4c/5x5"
  type: "Convolution"
  bottom: "inception_4c/5x5_reduce"
  top: "inception_4c/5x5"
  param {
    lr_mult: 1
    decay_mult: 1
  }
  param {
    lr_mult: 2
    decay_mult: 0
  }
  convolution_param {
    num_output: 64
    pad: 2
    kernel_size: 5
    weight_filler {
      type: "xavier"
      std: 0.03
    }
    bias_filler {
      type: "constant"
      value: 0.2
    }
  }
}
layer {
  name: "inception_4c/relu_5x5"
  type: "ReLU"
  bottom: "inception_4c/5x5"
  top: "inception_4c/5x5"
}
layer {
  name: "inception_4c/pool"
  type: "Pooling"
  bottom: "inception_4b/output"
  top: "inception_4c/pool"
  pooling_param {
    pool: MAX
    kernel_size: 3
    stride: 1
    pad: 1
  }
}
layer {
  name: "inception_4c/pool_proj"
  type: "Convolution"
  bottom: "inception_4c/pool"
  top: "inception_4c/pool_proj"
  param {
    lr_mult: 1
    decay_mult: 1
  }
  param {
    lr_mult: 2
    decay_mult: 0
  }
  convolution_param {
    num_output: 64
    kernel_size: 1
    weight_filler {
      type: "xavier"
      std: 0.1
    }
    bias_filler {
      type: "constant"
      value: 0.2
    }
  }
}
layer {
  name: "inception_4c/relu_pool_proj"
  type: "ReLU"
  bottom: "inception_4c/pool_proj"
  top: "inception_4c/pool_proj"
}
layer {
  name: "inception_4c/output"
  type: "Concat"
  bottom: "inception_4c/1x1"
  bottom: "inception_4c/3x3"
  bottom: "inception_4c/5x5"
  bottom: "inception_4c/pool_proj"
  top: "inception_4c/output"
}
layer {
  name: "inception_4d/1x1"
  type: "Convolution"
  bottom: "inception_4c/output"
  top: "inception_4d/1x1"
  param {
    lr_mult: 1
    decay_mult: 1
  }
  param {
    lr_mult: 2
    decay_mult: 0
  }
  convolution_param {
    num_output: 112
    kernel_size: 1
    weight_filler {
      type: "xavier"
      std: 0.03
    }
    bias_filler {
      type: "constant"
      value: 0.2
    }
  }
}
layer {
  name: "inception_4d/relu_1x1"
  type: "ReLU"
  bottom: "inception_4d/1x1"
  top: "inception_4d/1x1"
}
layer {
  name: "inception_4d/3x3_reduce"
  type: "Convolution"
  bottom: "inception_4c/output"
  top: "inception_4d/3x3_reduce"
  param {
    lr_mult: 1
    decay_mult: 1
  }
  param {
    lr_mult: 2
    decay_mult: 0
  }
  convolution_param {
    num_output: 144
    kernel_size: 1
    weight_filler {
      type: "xavier"
      std: 0.09
    }
    bias_filler {
      type: "constant"
      value: 0.2
    }
  }
}
layer {
  name: "inception_4d/relu_3x3_reduce"
  type: "ReLU"
  bottom: "inception_4d/3x3_reduce"
  top: "inception_4d/3x3_reduce"
}
layer {
  name: "inception_4d/3x3"
  type: "Convolution"
  bottom: "inception_4d/3x3_reduce"
  top: "inception_4d/3x3"
  param {
    lr_mult: 1
    decay_mult: 1
  }
  param {
    lr_mult: 2
    decay_mult: 0
  }
  convolution_param {
    num_output: 288
    pad: 1
    kernel_size: 3
    weight_filler {
      type: "xavier"
      std: 0.03
    }
    bias_filler {
      type: "constant"
      value: 0.2
    }
  }
}
layer {
  name: "inception_4d/relu_3x3"
  type: "ReLU"
  bottom: "inception_4d/3x3"
  top: "inception_4d/3x3"
}
layer {
  name: "inception_4d/5x5_reduce"
  type: "Convolution"
  bottom: "inception_4c/output"
  top: "inception_4d/5x5_reduce"
  param {
    lr_mult: 1
    decay_mult: 1
  }
  param {
    lr_mult: 2
    decay_mult: 0
  }
  convolution_param {
    num_output: 32
    kernel_size: 1
    weight_filler {
      type: "xavier"
      std: 0.2
    }
    bias_filler {
      type: "constant"
      value: 0.2
    }
  }
}
layer {
  name: "inception_4d/relu_5x5_reduce"
  type: "ReLU"
  bottom: "inception_4d/5x5_reduce"
  top: "inception_4d/5x5_reduce"
}
layer {
  name: "inception_4d/5x5"
  type: "Convolution"
  bottom: "inception_4d/5x5_reduce"
  top: "inception_4d/5x5"
  param {
    lr_mult: 1
    decay_mult: 1
  }
  param {
    lr_mult: 2
    decay_mult: 0
  }
  convolution_param {
    num_output: 64
    pad: 2
    kernel_size: 5
    weight_filler {
      type: "xavier"
      std: 0.03
    }
    bias_filler {
      type: "constant"
      value: 0.2
    }
  }
}
layer {
  name: "inception_4d/relu_5x5"
  type: "ReLU"
  bottom: "inception_4d/5x5"
  top: "inception_4d/5x5"
}
layer {
  name: "inception_4d/pool"
  type: "Pooling"
  bottom: "inception_4c/output"
  top: "inception_4d/pool"
  pooling_param {
    pool: MAX
    kernel_size: 3
    stride: 1
    pad: 1
  }
}
layer {
  name: "inception_4d/pool_proj"
  type: "Convolution"
  bottom: "inception_4d/pool"
  top: "inception_4d/pool_proj"
  param {
    lr_mult: 1
    decay_mult: 1
  }
  param {
    lr_mult: 2
    decay_mult: 0
  }
  convolution_param {
    num_output: 64
    kernel_size: 1
    weight_filler {
      type: "xavier"
      std: 0.1
    }
    bias_filler {
      type: "constant"
      value: 0.2
    }
  }
}
layer {
  name: "inception_4d/relu_pool_proj"
  type: "ReLU"
  bottom: "inception_4d/pool_proj"
  top: "inception_4d/pool_proj"
}
layer {
  name: "inception_4d/output"
  type: "Concat"
  bottom: "inception_4d/1x1"
  bottom: "inception_4d/3x3"
  bottom: "inception_4d/5x5"
  bottom: "inception_4d/pool_proj"
  top: "inception_4d/output"
}
layer {
  name: "inception_4e/1x1"
  type: "Convolution"
  bottom: "inception_4d/output"
  top: "inception_4e/1x1"
  param {
    lr_mult: 1
    decay_mult: 1
  }
  param {
    lr_mult: 2
    decay_mult: 0
  }
  convolution_param {
    num_output: 256
    kernel_size: 1
    weight_filler {
      type: "xavier"
      std: 0.03
    }
    bias_filler {
      type: "constant"
      value: 0.2
    }
  }
}
layer {
  name: "inception_4e/relu_1x1"
  type: "ReLU"
  bottom: "inception_4e/1x1"
  top: "inception_4e/1x1"
}
layer {
  name: "inception_4e/3x3_reduce"
  type: "Convolution"
  bottom: "inception_4d/output"
  top: "inception_4e/3x3_reduce"
  param {
    lr_mult: 1
    decay_mult: 1
  }
  param {
    lr_mult: 2
    decay_mult: 0
  }
  convolution_param {
    num_output: 160
    kernel_size: 1
    weight_filler {
      type: "xavier"
      std: 0.09
    }
    bias_filler {
      type: "constant"
      value: 0.2
    }
  }
}
layer {
  name: "inception_4e/relu_3x3_reduce"
  type: "ReLU"
  bottom: "inception_4e/3x3_reduce"
  top: "inception_4e/3x3_reduce"
}
layer {
  name: "inception_4e/3x3"
  type: "Convolution"
  bottom: "inception_4e/3x3_reduce"
  top: "inception_4e/3x3"
  param {
    lr_mult: 1
    decay_mult: 1
  }
  param {
    lr_mult: 2
    decay_mult: 0
  }
  convolution_param {
    num_output: 320
    pad: 1
    kernel_size: 3
    weight_filler {
      type: "xavier"
      std: 0.03
    }
    bias_filler {
      type: "constant"
      value: 0.2
    }
  }
}
layer {
  name: "inception_4e/relu_3x3"
  type: "ReLU"
  bottom: "inception_4e/3x3"
  top: "inception_4e/3x3"
}
layer {
  name: "inception_4e/5x5_reduce"
  type: "Convolution"
  bottom: "inception_4d/output"
  top: "inception_4e/5x5_reduce"
  param {
    lr_mult: 1
    decay_mult: 1
  }
  param {
    lr_mult: 2
    decay_mult: 0
  }
  convolution_param {
    num_output: 32
    kernel_size: 1
    weight_filler {
      type: "xavier"
      std: 0.2
    }
    bias_filler {
      type: "constant"
      value: 0.2
    }
  }
}
layer {
  name: "inception_4e/relu_5x5_reduce"
  type: "ReLU"
  bottom: "inception_4e/5x5_reduce"
  top: "inception_4e/5x5_reduce"
}
layer {
  name: "inception_4e/5x5"
  type: "Convolution"
  bottom: "inception_4e/5x5_reduce"
  top: "inception_4e/5x5"
  param {
    lr_mult: 1
    decay_mult: 1
  }
  param {
    lr_mult: 2
    decay_mult: 0
  }
  convolution_param {
    num_output: 128
    pad: 2
    kernel_size: 5
    weight_filler {
      type: "xavier"
      std: 0.03
    }
    bias_filler {
      type: "constant"
      value: 0.2
    }
  }
}
layer {
  name: "inception_4e/relu_5x5"
  type: "ReLU"
  bottom: "inception_4e/5x5"
  top: "inception_4e/5x5"
}
layer {
  name: "inception_4e/pool"
  type: "Pooling"
  bottom: "inception_4d/output"
  top: "inception_4e/pool"
  pooling_param {
    pool: MAX
    kernel_size: 3
    stride: 1
    pad: 1
  }
}
layer {
  name: "inception_4e/pool_proj"
  type: "Convolution"
  bottom: "inception_4e/pool"
  top: "inception_4e/pool_proj"
  param {
    lr_mult: 1
    decay_mult: 1
  }
  param {
    lr_mult: 2
    decay_mult: 0
  }
  convolution_param {
    num_output: 128
    kernel_size: 1
    weight_filler {
      type: "xavier"
      std: 0.1
    }
    bias_filler {
      type: "constant"
      value: 0.2
    }
  }
}
layer {
  name: "inception_4e/relu_pool_proj"
  type: "ReLU"
  bottom: "inception_4e/pool_proj"
  top: "inception_4e/pool_proj"
}
layer {
  name: "inception_4e/output"
  type: "Concat"
  bottom: "inception_4e/1x1"
  bottom: "inception_4e/3x3"
  bottom: "inception_4e/5x5"
  bottom: "inception_4e/pool_proj"
  top: "inception_4e/output"
}
layer {
  name: "pool4/3x3_s2"
  type: "Pooling"
  bottom: "inception_4e/output"
  top: "pool4/3x3_s2"
  pooling_param {
    pool: MAX
    kernel_size: 3
    stride: 2
  }
}
layer {
  name: "inception_5a/1x1"
  type: "Convolution"
  bottom: "pool4/3x3_s2"
  top: "inception_5a/1x1"
  param {
    lr_mult: 1
    decay_mult: 1
  }
  param {
    lr_mult: 2
    decay_mult: 0
  }
  convolution_param {
    num_output: 256
    kernel_size: 1
    weight_filler {
      type: "xavier"
      std: 0.03
    }
    bias_filler {
      type: "constant"
      value: 0.2
    }
  }
}
layer {
  name: "inception_5a/relu_1x1"
  type: "ReLU"
  bottom: "inception_5a/1x1"
  top: "inception_5a/1x1"
}
layer {
  name: "inception_5a/3x3_reduce"
  type: "Convolution"
  bottom: "pool4/3x3_s2"
  top: "inception_5a/3x3_reduce"
  param {
    lr_mult: 1
    decay_mult: 1
  }
  param {
    lr_mult: 2
    decay_mult: 0
  }
  convolution_param {
    num_output: 160
    kernel_size: 1
    weight_filler {
      type: "xavier"
      std: 0.09
    }
    bias_filler {
      type: "constant"
      value: 0.2
    }
  }
}
layer {
  name: "inception_5a/relu_3x3_reduce"
  type: "ReLU"
  bottom: "inception_5a/3x3_reduce"
  top: "inception_5a/3x3_reduce"
}
layer {
  name: "inception_5a/3x3"
  type: "Convolution"
  bottom: "inception_5a/3x3_reduce"
  top: "inception_5a/3x3"
  param {
    lr_mult: 1
    decay_mult: 1
  }
  param {
    lr_mult: 2
    decay_mult: 0
  }
  convolution_param {
    num_output: 320
    pad: 1
    kernel_size: 3
    weight_filler {
      type: "xavier"
      std: 0.03
    }
    bias_filler {
      type: "constant"
      value: 0.2
    }
  }
}
layer {
  name: "inception_5a/relu_3x3"
  type: "ReLU"
  bottom: "inception_5a/3x3"
  top: "inception_5a/3x3"
}
layer {
  name: "inception_5a/5x5_reduce"
  type: "Convolution"
  bottom: "pool4/3x3_s2"
  top: "inception_5a/5x5_reduce"
  param {
    lr_mult: 1
    decay_mult: 1
  }
  param {
    lr_mult: 2
    decay_mult: 0
  }
  convolution_param {
    num_output: 32
    kernel_size: 1
    weight_filler {
      type: "xavier"
      std: 0.2
    }
    bias_filler {
      type: "constant"
      value: 0.2
    }
I0714 20:58:57.701529 10618 layer_factory.hpp:77] Creating layer data
I0714 20:58:57.701546 10618 net.cpp:91] Creating Layer data
I0714 20:58:57.701555 10618 net.cpp:399] data -> data
I0714 20:58:58.766827 10614 net.cpp:141] Setting up data
I0714 20:58:58.766952 10614 net.cpp:148] Top shape: 10 3 224 224 (1505280)
I0714 20:58:58.766960 10614 net.cpp:156] Memory required for data: 6021120
I0714 20:58:58.767000 10614 layer_factory.hpp:77] Creating layer conv1/7x7_s2
I0714 20:58:58.767052 10614 net.cpp:91] Creating Layer conv1/7x7_s2
I0714 20:58:58.767063 10614 net.cpp:425] conv1/7x7_s2 <- data
I0714 20:58:58.767081 10614 net.cpp:399] conv1/7x7_s2 -> conv1/7x7_s2
I0714 20:58:58.770756 10618 net.cpp:141] Setting up data
I0714 20:58:58.770804 10618 net.cpp:148] Top shape: 10 3 224 224 (1505280)
I0714 20:58:58.770810 10618 net.cpp:156] Memory required for data: 6021120
I0714 20:58:58.770825 10618 layer_factory.hpp:77] Creating layer conv1/7x7_s2
I0714 20:58:58.770856 10618 net.cpp:91] Creating Layer conv1/7x7_s2
I0714 20:58:58.770864 10618 net.cpp:425] conv1/7x7_s2 <- data
I0714 20:58:58.770875 10618 net.cpp:399] conv1/7x7_s2 -> conv1/7x7_s2
I0714 20:58:59.204133 10614 net.cpp:141] Setting up conv1/7x7_s2
I0714 20:58:59.204182 10614 net.cpp:148] Top shape: 10 64 112 112 (8028160)
I0714 20:58:59.204190 10614 net.cpp:156] Memory required for data: 38133760
I0714 20:58:59.204218 10614 layer_factory.hpp:77] Creating layer conv1/relu_7x7
I0714 20:58:59.204236 10614 net.cpp:91] Creating Layer conv1/relu_7x7
I0714 20:58:59.204243 10614 net.cpp:425] conv1/relu_7x7 <- conv1/7x7_s2
I0714 20:58:59.204252 10614 net.cpp:386] conv1/relu_7x7 -> conv1/7x7_s2 (in-place)
I0714 20:58:59.205652 10614 net.cpp:141] Setting up conv1/relu_7x7
I0714 20:58:59.205672 10614 net.cpp:148] Top shape: 10 64 112 112 (8028160)
I0714 20:58:59.205677 10614 net.cpp:156] Memory required for data: 70246400
I0714 20:58:59.205683 10614 layer_factory.hpp:77] Creating layer pool1/3x3_s2
I0714 20:58:59.205688 10618 net.cpp:141] Setting up conv1/7x7_s2
I0714 20:58:59.205698 10614 net.cpp:91] Creating Layer pool1/3x3_s2
I0714 20:58:59.205713 10614 net.cpp:425] pool1/3x3_s2 <- conv1/7x7_s2
I0714 20:58:59.205713 10618 net.cpp:148] Top shape: 10 64 112 112 (8028160)
I0714 20:58:59.205720 10618 net.cpp:156] Memory required for data: 38133760
I0714 20:58:59.205721 10614 net.cpp:399] pool1/3x3_s2 -> pool1/3x3_s2
I0714 20:58:59.205736 10618 layer_factory.hpp:77] Creating layer conv1/relu_7x7
I0714 20:58:59.205747 10618 net.cpp:91] Creating Layer conv1/relu_7x7
I0714 20:58:59.205754 10618 net.cpp:425] conv1/relu_7x7 <- conv1/7x7_s2
I0714 20:58:59.205762 10618 net.cpp:386] conv1/relu_7x7 -> conv1/7x7_s2 (in-place)
I0714 20:58:59.206625 10614 net.cpp:141] Setting up pool1/3x3_s2
I0714 20:58:59.206642 10614 net.cpp:148] Top shape: 10 64 56 56 (2007040)
I0714 20:58:59.206648 10614 net.cpp:156] Memory required for data: 78274560
I0714 20:58:59.206655 10614 layer_factory.hpp:77] Creating layer pool1/norm1
I0714 20:58:59.206673 10614 net.cpp:91] Creating Layer pool1/norm1
I0714 20:58:59.206679 10614 net.cpp:425] pool1/norm1 <- pool1/3x3_s2
I0714 20:58:59.206701 10614 net.cpp:399] pool1/norm1 -> pool1/norm1
I0714 20:58:59.206709 10618 net.cpp:141] Setting up conv1/relu_7x7
I0714 20:58:59.206724 10618 net.cpp:148] Top shape: 10 64 112 112 (8028160)
I0714 20:58:59.206730 10618 net.cpp:156] Memory required for data: 70246400
I0714 20:58:59.206737 10618 layer_factory.hpp:77] Creating layer pool1/3x3_s2
I0714 20:58:59.206746 10618 net.cpp:91] Creating Layer pool1/3x3_s2
I0714 20:58:59.206753 10618 net.cpp:425] pool1/3x3_s2 <- conv1/7x7_s2
I0714 20:58:59.206761 10618 net.cpp:399] pool1/3x3_s2 -> pool1/3x3_s2
I0714 20:58:59.207536 10618 net.cpp:141] Setting up pool1/3x3_s2
I0714 20:58:59.207552 10618 net.cpp:148] Top shape: 10 64 56 56 (2007040)
I0714 20:58:59.207557 10618 net.cpp:156] Memory required for data: 78274560
I0714 20:58:59.207563 10618 layer_factory.hpp:77] Creating layer pool1/norm1
I0714 20:58:59.207574 10618 net.cpp:91] Creating Layer pool1/norm1
I0714 20:58:59.207581 10618 net.cpp:425] pool1/norm1 <- pool1/3x3_s2
I0714 20:58:59.207588 10618 net.cpp:399] pool1/norm1 -> pool1/norm1
I0714 20:58:59.208403 10614 net.cpp:141] Setting up pool1/norm1
I0714 20:58:59.208421 10614 net.cpp:148] Top shape: 10 64 56 56 (2007040)
I0714 20:58:59.208427 10614 net.cpp:156] Memory required for data: 86302720
I0714 20:58:59.208433 10614 layer_factory.hpp:77] Creating layer conv2/3x3_reduce
I0714 20:58:59.208456 10614 net.cpp:91] Creating Layer conv2/3x3_reduce
I0714 20:58:59.208461 10614 net.cpp:425] conv2/3x3_reduce <- pool1/norm1
I0714 20:58:59.208470 10614 net.cpp:399] conv2/3x3_reduce -> conv2/3x3_reduce
I0714 20:58:59.208564 10618 net.cpp:141] Setting up pool1/norm1
I0714 20:58:59.208580 10618 net.cpp:148] Top shape: 10 64 56 56 (2007040)
I0714 20:58:59.208585 10618 net.cpp:156] Memory required for data: 86302720
I0714 20:58:59.208590 10618 layer_factory.hpp:77] Creating layer conv2/3x3_reduce
I0714 20:58:59.208606 10618 net.cpp:91] Creating Layer conv2/3x3_reduce
I0714 20:58:59.208612 10618 net.cpp:425] conv2/3x3_reduce <- pool1/norm1
I0714 20:58:59.208621 10618 net.cpp:399] conv2/3x3_reduce -> conv2/3x3_reduce
I0714 20:58:59.213963 10614 net.cpp:141] Setting up conv2/3x3_reduce
I0714 20:58:59.213989 10614 net.cpp:148] Top shape: 10 64 56 56 (2007040)
I0714 20:58:59.213996 10614 net.cpp:156] Memory required for data: 94330880
I0714 20:58:59.214012 10614 layer_factory.hpp:77] Creating layer conv2/relu_3x3_reduce
I0714 20:58:59.214025 10614 net.cpp:91] Creating Layer conv2/relu_3x3_reduce
I0714 20:58:59.214030 10614 net.cpp:425] conv2/relu_3x3_reduce <- conv2/3x3_reduce
I0714 20:58:59.214038 10614 net.cpp:386] conv2/relu_3x3_reduce -> conv2/3x3_reduce (in-place)
I0714 20:58:59.214967 10614 net.cpp:141] Setting up conv2/relu_3x3_reduce
I0714 20:58:59.214984 10614 net.cpp:148] Top shape: 10 64 56 56 (2007040)
I0714 20:58:59.214990 10614 net.cpp:156] Memory required for data: 102359040
I0714 20:58:59.214996 10614 layer_factory.hpp:77] Creating layer conv2/3x3
I0714 20:58:59.215013 10614 net.cpp:91] Creating Layer conv2/3x3
I0714 20:58:59.215020 10614 net.cpp:425] conv2/3x3 <- conv2/3x3_reduce
I0714 20:58:59.215030 10614 net.cpp:399] conv2/3x3 -> conv2/3x3
I0714 20:58:59.217876 10618 net.cpp:141] Setting up conv2/3x3_reduce
I0714 20:58:59.217902 10618 net.cpp:148] Top shape: 10 64 56 56 (2007040)
I0714 20:58:59.217908 10618 net.cpp:156] Memory required for data: 94330880
I0714 20:58:59.217924 10618 layer_factory.hpp:77] Creating layer conv2/relu_3x3_reduce
I0714 20:58:59.217936 10618 net.cpp:91] Creating Layer conv2/relu_3x3_reduce
I0714 20:58:59.217942 10618 net.cpp:425] conv2/relu_3x3_reduce <- conv2/3x3_reduce
I0714 20:58:59.217952 10618 net.cpp:386] conv2/relu_3x3_reduce -> conv2/3x3_reduce (in-place)
I0714 20:58:59.218849 10618 net.cpp:141] Setting up conv2/relu_3x3_reduce
I0714 20:58:59.218868 10618 net.cpp:148] Top shape: 10 64 56 56 (2007040)
I0714 20:58:59.218873 10618 net.cpp:156] Memory required for data: 102359040
I0714 20:58:59.218879 10618 layer_factory.hpp:77] Creating layer conv2/3x3
I0714 20:58:59.218895 10618 net.cpp:91] Creating Layer conv2/3x3
I0714 20:58:59.218901 10618 net.cpp:425] conv2/3x3 <- conv2/3x3_reduce
I0714 20:58:59.218912 10618 net.cpp:399] conv2/3x3 -> conv2/3x3
I0714 20:58:59.222950 10614 net.cpp:141] Setting up conv2/3x3
I0714 20:58:59.222972 10614 net.cpp:148] Top shape: 10 192 56 56 (6021120)
I0714 20:58:59.222978 10614 net.cpp:156] Memory required for data: 126443520
I0714 20:58:59.222995 10614 layer_factory.hpp:77] Creating layer conv2/relu_3x3
I0714 20:58:59.223006 10614 net.cpp:91] Creating Layer conv2/relu_3x3
I0714 20:58:59.223012 10614 net.cpp:425] conv2/relu_3x3 <- conv2/3x3
I0714 20:58:59.223021 10614 net.cpp:386] conv2/relu_3x3 -> conv2/3x3 (in-place)
I0714 20:58:59.223376 10614 net.cpp:141] Setting up conv2/relu_3x3
I0714 20:58:59.223389 10614 net.cpp:148] Top shape: 10 192 56 56 (6021120)
I0714 20:58:59.223394 10614 net.cpp:156] Memory required for data: 150528000
I0714 20:58:59.223400 10614 layer_factory.hpp:77] Creating layer conv2/norm2
I0714 20:58:59.223415 10614 net.cpp:91] Creating Layer conv2/norm2
I0714 20:58:59.223420 10614 net.cpp:425] conv2/norm2 <- conv2/3x3
I0714 20:58:59.223429 10614 net.cpp:399] conv2/norm2 -> conv2/norm2
I0714 20:58:59.224858 10614 net.cpp:141] Setting up conv2/norm2
I0714 20:58:59.224874 10614 net.cpp:148] Top shape: 10 192 56 56 (6021120)
I0714 20:58:59.224880 10614 net.cpp:156] Memory required for data: 174612480
I0714 20:58:59.224886 10614 layer_factory.hpp:77] Creating layer pool2/3x3_s2
I0714 20:58:59.224900 10614 net.cpp:91] Creating Layer pool2/3x3_s2
I0714 20:58:59.224905 10614 net.cpp:425] pool2/3x3_s2 <- conv2/norm2
I0714 20:58:59.224915 10614 net.cpp:399] pool2/3x3_s2 -> pool2/3x3_s2
I0714 20:58:59.225716 10614 net.cpp:141] Setting up pool2/3x3_s2
I0714 20:58:59.225730 10614 net.cpp:148] Top shape: 10 192 28 28 (1505280)
I0714 20:58:59.225735 10614 net.cpp:156] Memory required for data: 180633600
I0714 20:58:59.225741 10614 layer_factory.hpp:77] Creating layer pool2/3x3_s2_pool2/3x3_s2_0_split
I0714 20:58:59.225762 10614 net.cpp:91] Creating Layer pool2/3x3_s2_pool2/3x3_s2_0_split
I0714 20:58:59.225769 10614 net.cpp:425] pool2/3x3_s2_pool2/3x3_s2_0_split <- pool2/3x3_s2
I0714 20:58:59.225776 10614 net.cpp:399] pool2/3x3_s2_pool2/3x3_s2_0_split -> pool2/3x3_s2_pool2/3x3_s2_0_split_0
I0714 20:58:59.225788 10614 net.cpp:399] pool2/3x3_s2_pool2/3x3_s2_0_split -> pool2/3x3_s2_pool2/3x3_s2_0_split_1
I0714 20:58:59.225798 10614 net.cpp:399] pool2/3x3_s2_pool2/3x3_s2_0_split -> pool2/3x3_s2_pool2/3x3_s2_0_split_2
I0714 20:58:59.225807 10614 net.cpp:399] pool2/3x3_s2_pool2/3x3_s2_0_split -> pool2/3x3_s2_pool2/3x3_s2_0_split_3
I0714 20:58:59.226157 10614 net.cpp:141] Setting up pool2/3x3_s2_pool2/3x3_s2_0_split
I0714 20:58:59.226171 10614 net.cpp:148] Top shape: 10 192 28 28 (1505280)
I0714 20:58:59.226177 10614 net.cpp:148] Top shape: 10 192 28 28 (1505280)
I0714 20:58:59.226183 10614 net.cpp:148] Top shape: 10 192 28 28 (1505280)
I0714 20:58:59.226188 10614 net.cpp:148] Top shape: 10 192 28 28 (1505280)
I0714 20:58:59.226193 10614 net.cpp:156] Memory required for data: 204718080
I0714 20:58:59.226198 10614 layer_factory.hpp:77] Creating layer inception_3a/1x1
I0714 20:58:59.226217 10614 net.cpp:91] Creating Layer inception_3a/1x1
I0714 20:58:59.226223 10614 net.cpp:425] inception_3a/1x1 <- pool2/3x3_s2_pool2/3x3_s2_0_split_0
I0714 20:58:59.226253 10614 net.cpp:399] inception_3a/1x1 -> inception_3a/1x1
I0714 20:58:59.226919 10618 net.cpp:141] Setting up conv2/3x3
I0714 20:58:59.226939 10618 net.cpp:148] Top shape: 10 192 56 56 (6021120)
I0714 20:58:59.226945 10618 net.cpp:156] Memory required for data: 126443520
I0714 20:58:59.226961 10618 layer_factory.hpp:77] Creating layer conv2/relu_3x3
I0714 20:58:59.226974 10618 net.cpp:91] Creating Layer conv2/relu_3x3
I0714 20:58:59.226979 10618 net.cpp:425] conv2/relu_3x3 <- conv2/3x3
I0714 20:58:59.226987 10618 net.cpp:386] conv2/relu_3x3 -> conv2/3x3 (in-place)
I0714 20:58:59.227419 10618 net.cpp:141] Setting up conv2/relu_3x3
I0714 20:58:59.227432 10618 net.cpp:148] Top shape: 10 192 56 56 (6021120)
I0714 20:58:59.227437 10618 net.cpp:156] Memory required for data: 150528000
I0714 20:58:59.227443 10618 layer_factory.hpp:77] Creating layer conv2/norm2
I0714 20:58:59.227454 10618 net.cpp:91] Creating Layer conv2/norm2
I0714 20:58:59.227459 10618 net.cpp:425] conv2/norm2 <- conv2/3x3
I0714 20:58:59.227468 10618 net.cpp:399] conv2/norm2 -> conv2/norm2
I0714 20:58:59.228644 10618 net.cpp:141] Setting up conv2/norm2
I0714 20:58:59.228659 10618 net.cpp:148] Top shape: 10 192 56 56 (6021120)
I0714 20:58:59.228665 10618 net.cpp:156] Memory required for data: 174612480
I0714 20:58:59.228670 10618 layer_factory.hpp:77] Creating layer pool2/3x3_s2
I0714 20:58:59.228682 10618 net.cpp:91] Creating Layer pool2/3x3_s2
I0714 20:58:59.228687 10618 net.cpp:425] pool2/3x3_s2 <- conv2/norm2
I0714 20:58:59.228694 10618 net.cpp:399] pool2/3x3_s2 -> pool2/3x3_s2
I0714 20:58:59.229856 10618 net.cpp:141] Setting up pool2/3x3_s2
I0714 20:58:59.229871 10618 net.cpp:148] Top shape: 10 192 28 28 (1505280)
I0714 20:58:59.229876 10618 net.cpp:156] Memory required for data: 180633600
I0714 20:58:59.229882 10618 layer_factory.hpp:77] Creating layer pool2/3x3_s2_pool2/3x3_s2_0_split
I0714 20:58:59.229892 10618 net.cpp:91] Creating Layer pool2/3x3_s2_pool2/3x3_s2_0_split
I0714 20:58:59.229897 10618 net.cpp:425] pool2/3x3_s2_pool2/3x3_s2_0_split <- pool2/3x3_s2
I0714 20:58:59.229904 10618 net.cpp:399] pool2/3x3_s2_pool2/3x3_s2_0_split -> pool2/3x3_s2_pool2/3x3_s2_0_split_0
I0714 20:58:59.229917 10618 net.cpp:399] pool2/3x3_s2_pool2/3x3_s2_0_split -> pool2/3x3_s2_pool2/3x3_s2_0_split_1
I0714 20:58:59.229925 10618 net.cpp:399] pool2/3x3_s2_pool2/3x3_s2_0_split -> pool2/3x3_s2_pool2/3x3_s2_0_split_2
I0714 20:58:59.229934 10618 net.cpp:399] pool2/3x3_s2_pool2/3x3_s2_0_split -> pool2/3x3_s2_pool2/3x3_s2_0_split_3
I0714 20:58:59.230875 10618 net.cpp:141] Setting up pool2/3x3_s2_pool2/3x3_s2_0_split
I0714 20:58:59.230891 10618 net.cpp:148] Top shape: 10 192 28 28 (1505280)
I0714 20:58:59.230898 10618 net.cpp:148] Top shape: 10 192 28 28 (1505280)
I0714 20:58:59.230904 10618 net.cpp:148] Top shape: 10 192 28 28 (1505280)
I0714 20:58:59.230911 10618 net.cpp:148] Top shape: 10 192 28 28 (1505280)
I0714 20:58:59.230914 10618 net.cpp:156] Memory required for data: 204718080
I0714 20:58:59.230919 10618 layer_factory.hpp:77] Creating layer inception_3a/1x1
I0714 20:58:59.230937 10618 net.cpp:91] Creating Layer inception_3a/1x1
I0714 20:58:59.230943 10618 net.cpp:425] inception_3a/1x1 <- pool2/3x3_s2_pool2/3x3_s2_0_split_0
I0714 20:58:59.230957 10618 net.cpp:399] inception_3a/1x1 -> inception_3a/1x1
I0714 20:58:59.233628 10614 net.cpp:141] Setting up inception_3a/1x1
I0714 20:58:59.233650 10614 net.cpp:148] Top shape: 10 64 28 28 (501760)
I0714 20:58:59.233656 10614 net.cpp:156] Memory required for data: 206725120
I0714 20:58:59.233667 10614 layer_factory.hpp:77] Creating layer inception_3a/relu_1x1
I0714 20:58:59.233677 10614 net.cpp:91] Creating Layer inception_3a/relu_1x1
I0714 20:58:59.233683 10614 net.cpp:425] inception_3a/relu_1x1 <- inception_3a/1x1
I0714 20:58:59.233692 10614 net.cpp:386] inception_3a/relu_1x1 -> inception_3a/1x1 (in-place)
I0714 20:58:59.234060 10614 net.cpp:141] Setting up inception_3a/relu_1x1
I0714 20:58:59.234073 10614 net.cpp:148] Top shape: 10 64 28 28 (501760)
I0714 20:58:59.234078 10614 net.cpp:156] Memory required for data: 208732160
I0714 20:58:59.234083 10614 layer_factory.hpp:77] Creating layer inception_3a/3x3_reduce
I0714 20:58:59.234100 10614 net.cpp:91] Creating Layer inception_3a/3x3_reduce
I0714 20:58:59.234107 10614 net.cpp:425] inception_3a/3x3_reduce <- pool2/3x3_s2_pool2/3x3_s2_0_split_1
I0714 20:58:59.234119 10614 net.cpp:399] inception_3a/3x3_reduce -> inception_3a/3x3_reduce
I0714 20:58:59.241246 10618 net.cpp:141] Setting up inception_3a/1x1
I0714 20:58:59.241268 10618 net.cpp:148] Top shape: 10 64 28 28 (501760)
I0714 20:58:59.241274 10618 net.cpp:156] Memory required for data: 206725120
I0714 20:58:59.241291 10618 layer_factory.hpp:77] Creating layer inception_3a/relu_1x1
I0714 20:58:59.241300 10618 net.cpp:91] Creating Layer inception_3a/relu_1x1
I0714 20:58:59.241307 10618 net.cpp:425] inception_3a/relu_1x1 <- inception_3a/1x1
I0714 20:58:59.241320 10618 net.cpp:386] inception_3a/relu_1x1 -> inception_3a/1x1 (in-place)
I0714 20:58:59.241600 10618 net.cpp:141] Setting up inception_3a/relu_1x1
I0714 20:58:59.241613 10618 net.cpp:148] Top shape: 10 64 28 28 (501760)
I0714 20:58:59.241618 10618 net.cpp:156] Memory required for data: 208732160
I0714 20:58:59.241624 10618 layer_factory.hpp:77] Creating layer inception_3a/3x3_reduce
I0714 20:58:59.241642 10618 net.cpp:91] Creating Layer inception_3a/3x3_reduce
I0714 20:58:59.241648 10618 net.cpp:425] inception_3a/3x3_reduce <- pool2/3x3_s2_pool2/3x3_s2_0_split_1
I0714 20:58:59.241662 10618 net.cpp:399] inception_3a/3x3_reduce -> inception_3a/3x3_reduce
I0714 20:58:59.244264 10614 net.cpp:141] Setting up inception_3a/3x3_reduce
I0714 20:58:59.244284 10614 net.cpp:148] Top shape: 10 96 28 28 (752640)
I0714 20:58:59.244290 10614 net.cpp:156] Memory required for data: 211742720
I0714 20:58:59.244307 10614 layer_factory.hpp:77] Creating layer inception_3a/relu_3x3_reduce
I0714 20:58:59.244316 10614 net.cpp:91] Creating Layer inception_3a/relu_3x3_reduce
I0714 20:58:59.244325 10614 net.cpp:425] inception_3a/relu_3x3_reduce <- inception_3a/3x3_reduce
I0714 20:58:59.244333 10614 net.cpp:386] inception_3a/relu_3x3_reduce -> inception_3a/3x3_reduce (in-place)
I0714 20:58:59.244694 10614 net.cpp:141] Setting up inception_3a/relu_3x3_reduce
I0714 20:58:59.244707 10614 net.cpp:148] Top shape: 10 96 28 28 (752640)
I0714 20:58:59.244712 10614 net.cpp:156] Memory required for data: 214753280
I0714 20:58:59.244717 10614 layer_factory.hpp:77] Creating layer inception_3a/3x3
I0714 20:58:59.244741 10614 net.cpp:91] Creating Layer inception_3a/3x3
I0714 20:58:59.244747 10614 net.cpp:425] inception_3a/3x3 <- inception_3a/3x3_reduce
I0714 20:58:59.244757 10614 net.cpp:399] inception_3a/3x3 -> inception_3a/3x3
I0714 20:58:59.247262 10618 net.cpp:141] Setting up inception_3a/3x3_reduce
I0714 20:58:59.247282 10618 net.cpp:148] Top shape: 10 96 28 28 (752640)
I0714 20:58:59.247287 10618 net.cpp:156] Memory required for data: 211742720
I0714 20:58:59.247301 10618 layer_factory.hpp:77] Creating layer inception_3a/relu_3x3_reduce
I0714 20:58:59.247314 10618 net.cpp:91] Creating Layer inception_3a/relu_3x3_reduce
I0714 20:58:59.247321 10618 net.cpp:425] inception_3a/relu_3x3_reduce <- inception_3a/3x3_reduce
I0714 20:58:59.247329 10618 net.cpp:386] inception_3a/relu_3x3_reduce -> inception_3a/3x3_reduce (in-place)
I0714 20:58:59.247603 10618 net.cpp:141] Setting up inception_3a/relu_3x3_reduce
I0714 20:58:59.247617 10618 net.cpp:148] Top shape: 10 96 28 28 (752640)
I0714 20:58:59.247622 10618 net.cpp:156] Memory required for data: 214753280
I0714 20:58:59.247627 10618 layer_factory.hpp:77] Creating layer inception_3a/3x3
I0714 20:58:59.247645 10618 net.cpp:91] Creating Layer inception_3a/3x3
I0714 20:58:59.247653 10618 net.cpp:425] inception_3a/3x3 <- inception_3a/3x3_reduce
I0714 20:58:59.247664 10618 net.cpp:399] inception_3a/3x3 -> inception_3a/3x3
I0714 20:58:59.249753 10614 net.cpp:141] Setting up inception_3a/3x3
I0714 20:58:59.249773 10614 net.cpp:148] Top shape: 10 128 28 28 (1003520)
I0714 20:58:59.249778 10614 net.cpp:156] Memory required for data: 218767360
I0714 20:58:59.249788 10614 layer_factory.hpp:77] Creating layer inception_3a/relu_3x3
I0714 20:58:59.249802 10614 net.cpp:91] Creating Layer inception_3a/relu_3x3
I0714 20:58:59.249809 10614 net.cpp:425] inception_3a/relu_3x3 <- inception_3a/3x3
I0714 20:58:59.249817 10614 net.cpp:386] inception_3a/relu_3x3 -> inception_3a/3x3 (in-place)
I0714 20:58:59.250708 10614 net.cpp:141] Setting up inception_3a/relu_3x3
I0714 20:58:59.250726 10614 net.cpp:148] Top shape: 10 128 28 28 (1003520)
I0714 20:58:59.250732 10614 net.cpp:156] Memory required for data: 222781440
I0714 20:58:59.250738 10614 layer_factory.hpp:77] Creating layer inception_3a/5x5_reduce
I0714 20:58:59.250758 10614 net.cpp:91] Creating Layer inception_3a/5x5_reduce
I0714 20:58:59.250766 10614 net.cpp:425] inception_3a/5x5_reduce <- pool2/3x3_s2_pool2/3x3_s2_0_split_2
I0714 20:58:59.250777 10614 net.cpp:399] inception_3a/5x5_reduce -> inception_3a/5x5_reduce
I0714 20:58:59.254106 10618 net.cpp:141] Setting up inception_3a/3x3
I0714 20:58:59.254125 10618 net.cpp:148] Top shape: 10 128 28 28 (1003520)
I0714 20:58:59.254132 10618 net.cpp:156] Memory required for data: 218767360
I0714 20:58:59.254142 10618 layer_factory.hpp:77] Creating layer inception_3a/relu_3x3
I0714 20:58:59.254151 10618 net.cpp:91] Creating Layer inception_3a/relu_3x3
I0714 20:58:59.254158 10618 net.cpp:425] inception_3a/relu_3x3 <- inception_3a/3x3
I0714 20:58:59.254165 10618 net.cpp:386] inception_3a/relu_3x3 -> inception_3a/3x3 (in-place)
I0714 20:58:59.255005 10618 net.cpp:141] Setting up inception_3a/relu_3x3
I0714 20:58:59.255023 10618 net.cpp:148] Top shape: 10 128 28 28 (1003520)
I0714 20:58:59.255028 10618 net.cpp:156] Memory required for data: 222781440
I0714 20:58:59.255034 10618 layer_factory.hpp:77] Creating layer inception_3a/5x5_reduce
I0714 20:58:59.255053 10618 net.cpp:91] Creating Layer inception_3a/5x5_reduce
I0714 20:58:59.255059 10618 net.cpp:425] inception_3a/5x5_reduce <- pool2/3x3_s2_pool2/3x3_s2_0_split_2
I0714 20:58:59.255071 10618 net.cpp:399] inception_3a/5x5_reduce -> inception_3a/5x5_reduce
I0714 20:58:59.256119 10614 net.cpp:141] Setting up inception_3a/5x5_reduce
I0714 20:58:59.256139 10614 net.cpp:148] Top shape: 10 16 28 28 (125440)
I0714 20:58:59.256144 10614 net.cpp:156] Memory required for data: 223283200
I0714 20:58:59.256153 10614 layer_factory.hpp:77] Creating layer inception_3a/relu_5x5_reduce
I0714 20:58:59.256167 10614 net.cpp:91] Creating Layer inception_3a/relu_5x5_reduce
I0714 20:58:59.256173 10614 net.cpp:425] inception_3a/relu_5x5_reduce <- inception_3a/5x5_reduce
I0714 20:58:59.256184 10614 net.cpp:386] inception_3a/relu_5x5_reduce -> inception_3a/5x5_reduce (in-place)
I0714 20:58:59.256548 10614 net.cpp:141] Setting up inception_3a/relu_5x5_reduce
I0714 20:58:59.256561 10614 net.cpp:148] Top shape: 10 16 28 28 (125440)
I0714 20:58:59.256566 10614 net.cpp:156] Memory required for data: 223784960
I0714 20:58:59.256572 10614 layer_factory.hpp:77] Creating layer inception_3a/5x5
I0714 20:58:59.256588 10614 net.cpp:91] Creating Layer inception_3a/5x5
I0714 20:58:59.256595 10614 net.cpp:425] inception_3a/5x5 <- inception_3a/5x5_reduce
I0714 20:58:59.256608 10614 net.cpp:399] inception_3a/5x5 -> inception_3a/5x5
I0714 20:58:59.258910 10618 net.cpp:141] Setting up inception_3a/5x5_reduce
I0714 20:58:59.258929 10618 net.cpp:148] Top shape: 10 16 28 28 (125440)
I0714 20:58:59.258934 10618 net.cpp:156] Memory required for data: 223283200
I0714 20:58:59.258944 10618 layer_factory.hpp:77] Creating layer inception_3a/relu_5x5_reduce
I0714 20:58:59.258952 10618 net.cpp:91] Creating Layer inception_3a/relu_5x5_reduce
I0714 20:58:59.258960 10618 net.cpp:425] inception_3a/relu_5x5_reduce <- inception_3a/5x5_reduce
I0714 20:58:59.258978 10618 net.cpp:386] inception_3a/relu_5x5_reduce -> inception_3a/5x5_reduce (in-place)
I0714 20:58:59.259253 10618 net.cpp:141] Setting up inception_3a/relu_5x5_reduce
I0714 20:58:59.259268 10618 net.cpp:148] Top shape: 10 16 28 28 (125440)
I0714 20:58:59.259273 10618 net.cpp:156] Memory required for data: 223784960
I0714 20:58:59.259277 10618 layer_factory.hpp:77] Creating layer inception_3a/5x5
I0714 20:58:59.259294 10618 net.cpp:91] Creating Layer inception_3a/5x5
I0714 20:58:59.259300 10618 net.cpp:425] inception_3a/5x5 <- inception_3a/5x5_reduce
I0714 20:58:59.259310 10618 net.cpp:399] inception_3a/5x5 -> inception_3a/5x5
I0714 20:58:59.264143 10614 net.cpp:141] Setting up inception_3a/5x5
I0714 20:58:59.264163 10614 net.cpp:148] Top shape: 10 32 28 28 (250880)
I0714 20:58:59.264169 10614 net.cpp:156] Memory required for data: 224788480
I0714 20:58:59.264179 10614 layer_factory.hpp:77] Creating layer inception_3a/relu_5x5
I0714 20:58:59.264189 10614 net.cpp:91] Creating Layer inception_3a/relu_5x5
I0714 20:58:59.264194 10614 net.cpp:425] inception_3a/relu_5x5 <- inception_3a/5x5
I0714 20:58:59.264207 10614 net.cpp:386] inception_3a/relu_5x5 -> inception_3a/5x5 (in-place)
I0714 20:58:59.264516 10614 net.cpp:141] Setting up inception_3a/relu_5x5
I0714 20:58:59.264529 10614 net.cpp:148] Top shape: 10 32 28 28 (250880)
I0714 20:58:59.264534 10614 net.cpp:156] Memory required for data: 225792000
I0714 20:58:59.264539 10614 layer_factory.hpp:77] Creating layer inception_3a/pool
I0714 20:58:59.264554 10614 net.cpp:91] Creating Layer inception_3a/pool
I0714 20:58:59.264559 10614 net.cpp:425] inception_3a/pool <- pool2/3x3_s2_pool2/3x3_s2_0_split_3
I0714 20:58:59.264567 10614 net.cpp:399] inception_3a/pool -> inception_3a/pool
I0714 20:58:59.265106 10614 net.cpp:141] Setting up inception_3a/pool
I0714 20:58:59.265121 10614 net.cpp:148] Top shape: 10 192 28 28 (1505280)
I0714 20:58:59.265126 10614 net.cpp:156] Memory required for data: 231813120
I0714 20:58:59.265132 10614 layer_factory.hpp:77] Creating layer inception_3a/pool_proj
I0714 20:58:59.265148 10614 net.cpp:91] Creating Layer inception_3a/pool_proj
I0714 20:58:59.265156 10614 net.cpp:425] inception_3a/pool_proj <- inception_3a/pool
I0714 20:58:59.265168 10614 net.cpp:399] inception_3a/pool_proj -> inception_3a/pool_proj
I0714 20:58:59.266448 10618 net.cpp:141] Setting up inception_3a/5x5
I0714 20:58:59.266469 10618 net.cpp:148] Top shape: 10 32 28 28 (250880)
I0714 20:58:59.266474 10618 net.cpp:156] Memory required for data: 224788480
I0714 20:58:59.266484 10618 layer_factory.hpp:77] Creating layer inception_3a/relu_5x5
I0714 20:58:59.266496 10618 net.cpp:91] Creating Layer inception_3a/relu_5x5
I0714 20:58:59.266502 10618 net.cpp:425] inception_3a/relu_5x5 <- inception_3a/5x5
I0714 20:58:59.266510 10618 net.cpp:386] inception_3a/relu_5x5 -> inception_3a/5x5 (in-place)
I0714 20:58:59.266917 10618 net.cpp:141] Setting up inception_3a/relu_5x5
I0714 20:58:59.266930 10618 net.cpp:148] Top shape: 10 32 28 28 (250880)
I0714 20:58:59.266937 10618 net.cpp:156] Memory required for data: 225792000
I0714 20:58:59.266942 10618 layer_factory.hpp:77] Creating layer inception_3a/pool
I0714 20:58:59.266955 10618 net.cpp:91] Creating Layer inception_3a/pool
I0714 20:58:59.266962 10618 net.cpp:425] inception_3a/pool <- pool2/3x3_s2_pool2/3x3_s2_0_split_3
I0714 20:58:59.266973 10618 net.cpp:399] inception_3a/pool -> inception_3a/pool
I0714 20:58:59.267702 10618 net.cpp:141] Setting up inception_3a/pool
I0714 20:58:59.267716 10618 net.cpp:148] Top shape: 10 192 28 28 (1505280)
I0714 20:58:59.267721 10618 net.cpp:156] Memory required for data: 231813120
I0714 20:58:59.267727 10618 layer_factory.hpp:77] Creating layer inception_3a/pool_proj
I0714 20:58:59.267746 10618 net.cpp:91] Creating Layer inception_3a/pool_proj
I0714 20:58:59.267752 10618 net.cpp:425] inception_3a/pool_proj <- inception_3a/pool
I0714 20:58:59.267762 10618 net.cpp:399] inception_3a/pool_proj -> inception_3a/pool_proj
I0714 20:58:59.270325 10614 net.cpp:141] Setting up inception_3a/pool_proj
I0714 20:58:59.270344 10614 net.cpp:148] Top shape: 10 32 28 28 (250880)
I0714 20:58:59.270349 10614 net.cpp:156] Memory required for data: 232816640
I0714 20:58:59.270366 10614 layer_factory.hpp:77] Creating layer inception_3a/relu_pool_proj
I0714 20:58:59.270376 10614 net.cpp:91] Creating Layer inception_3a/relu_pool_proj
I0714 20:58:59.270382 10614 net.cpp:425] inception_3a/relu_pool_proj <- inception_3a/pool_proj
I0714 20:58:59.270390 10614 net.cpp:386] inception_3a/relu_pool_proj -> inception_3a/pool_proj (in-place)
I0714 20:58:59.271334 10614 net.cpp:141] Setting up inception_3a/relu_pool_proj
I0714 20:58:59.271355 10614 net.cpp:148] Top shape: 10 32 28 28 (250880)
I0714 20:58:59.271361 10614 net.cpp:156] Memory required for data: 233820160
I0714 20:58:59.271368 10614 layer_factory.hpp:77] Creating layer inception_3a/output
I0714 20:58:59.271389 10614 net.cpp:91] Creating Layer inception_3a/output
I0714 20:58:59.271394 10614 net.cpp:425] inception_3a/output <- inception_3a/1x1
I0714 20:58:59.271401 10614 net.cpp:425] inception_3a/output <- inception_3a/3x3
I0714 20:58:59.271407 10614 net.cpp:425] inception_3a/output <- inception_3a/5x5
I0714 20:58:59.271412 10614 net.cpp:425] inception_3a/output <- inception_3a/pool_proj
I0714 20:58:59.271420 10614 net.cpp:399] inception_3a/output -> inception_3a/output
I0714 20:58:59.271666 10614 net.cpp:141] Setting up inception_3a/output
I0714 20:58:59.271678 10614 net.cpp:148] Top shape: 10 256 28 28 (2007040)
I0714 20:58:59.271683 10614 net.cpp:156] Memory required for data: 241848320
I0714 20:58:59.271688 10614 layer_factory.hpp:77] Creating layer inception_3a/output_inception_3a/output_0_split
I0714 20:58:59.271697 10614 net.cpp:91] Creating Layer inception_3a/output_inception_3a/output_0_split
I0714 20:58:59.271703 10614 net.cpp:425] inception_3a/output_inception_3a/output_0_split <- inception_3a/output
I0714 20:58:59.271710 10614 net.cpp:399] inception_3a/output_inception_3a/output_0_split -> inception_3a/output_inception_3a/output_0_split_0
I0714 20:58:59.271723 10614 net.cpp:399] inception_3a/output_inception_3a/output_0_split -> inception_3a/output_inception_3a/output_0_split_1
I0714 20:58:59.271733 10614 net.cpp:399] inception_3a/output_inception_3a/output_0_split -> inception_3a/output_inception_3a/output_0_split_2
I0714 20:58:59.271742 10614 net.cpp:399] inception_3a/output_inception_3a/output_0_split -> inception_3a/output_inception_3a/output_0_split_3
I0714 20:58:59.272163 10614 net.cpp:141] Setting up inception_3a/output_inception_3a/output_0_split
I0714 20:58:59.272176 10614 net.cpp:148] Top shape: 10 256 28 28 (2007040)
I0714 20:58:59.272182 10614 net.cpp:148] Top shape: 10 256 28 28 (2007040)
I0714 20:58:59.272188 10614 net.cpp:148] Top shape: 10 256 28 28 (2007040)
I0714 20:58:59.272194 10614 net.cpp:148] Top shape: 10 256 28 28 (2007040)
I0714 20:58:59.272198 10614 net.cpp:156] Memory required for data: 273960960
I0714 20:58:59.272203 10614 layer_factory.hpp:77] Creating layer inception_3b/1x1
I0714 20:58:59.272219 10614 net.cpp:91] Creating Layer inception_3b/1x1
I0714 20:58:59.272227 10614 net.cpp:425] inception_3b/1x1 <- inception_3a/output_inception_3a/output_0_split_0
I0714 20:58:59.272248 10614 net.cpp:399] inception_3b/1x1 -> inception_3b/1x1
I0714 20:58:59.272800 10618 net.cpp:141] Setting up inception_3a/pool_proj
I0714 20:58:59.272816 10618 net.cpp:148] Top shape: 10 32 28 28 (250880)
I0714 20:58:59.272821 10618 net.cpp:156] Memory required for data: 232816640
I0714 20:58:59.272840 10618 layer_factory.hpp:77] Creating layer inception_3a/relu_pool_proj
I0714 20:58:59.272850 10618 net.cpp:91] Creating Layer inception_3a/relu_pool_proj
I0714 20:58:59.272855 10618 net.cpp:425] inception_3a/relu_pool_proj <- inception_3a/pool_proj
I0714 20:58:59.272866 10618 net.cpp:386] inception_3a/relu_pool_proj -> inception_3a/pool_proj (in-place)
I0714 20:58:59.273790 10618 net.cpp:141] Setting up inception_3a/relu_pool_proj
I0714 20:58:59.273807 10618 net.cpp:148] Top shape: 10 32 28 28 (250880)
I0714 20:58:59.273811 10618 net.cpp:156] Memory required for data: 233820160
I0714 20:58:59.273818 10618 layer_factory.hpp:77] Creating layer inception_3a/output
I0714 20:58:59.273828 10618 net.cpp:91] Creating Layer inception_3a/output
I0714 20:58:59.273833 10618 net.cpp:425] inception_3a/output <- inception_3a/1x1
I0714 20:58:59.273840 10618 net.cpp:425] inception_3a/output <- inception_3a/3x3
I0714 20:58:59.273846 10618 net.cpp:425] inception_3a/output <- inception_3a/5x5
I0714 20:58:59.273851 10618 net.cpp:425] inception_3a/output <- inception_3a/pool_proj
I0714 20:58:59.273862 10618 net.cpp:399] inception_3a/output -> inception_3a/output
I0714 20:58:59.273955 10618 net.cpp:141] Setting up inception_3a/output
I0714 20:58:59.273967 10618 net.cpp:148] Top shape: 10 256 28 28 (2007040)
I0714 20:58:59.273972 10618 net.cpp:156] Memory required for data: 241848320
I0714 20:58:59.273977 10618 layer_factory.hpp:77] Creating layer inception_3a/output_inception_3a/output_0_split
I0714 20:58:59.273986 10618 net.cpp:91] Creating Layer inception_3a/output_inception_3a/output_0_split
I0714 20:58:59.273991 10618 net.cpp:425] inception_3a/output_inception_3a/output_0_split <- inception_3a/output
I0714 20:58:59.274001 10618 net.cpp:399] inception_3a/output_inception_3a/output_0_split -> inception_3a/output_inception_3a/output_0_split_0
I0714 20:58:59.274011 10618 net.cpp:399] inception_3a/output_inception_3a/output_0_split -> inception_3a/output_inception_3a/output_0_split_1
I0714 20:58:59.274020 10618 net.cpp:399] inception_3a/output_inception_3a/output_0_split -> inception_3a/output_inception_3a/output_0_split_2
I0714 20:58:59.274029 10618 net.cpp:399] inception_3a/output_inception_3a/output_0_split -> inception_3a/output_inception_3a/output_0_split_3
I0714 20:58:59.275012 10618 net.cpp:141] Setting up inception_3a/output_inception_3a/output_0_split
I0714 20:58:59.275024 10618 net.cpp:148] Top shape: 10 256 28 28 (2007040)
I0714 20:58:59.275030 10618 net.cpp:148] Top shape: 10 256 28 28 (2007040)
I0714 20:58:59.275037 10618 net.cpp:148] Top shape: 10 256 28 28 (2007040)
I0714 20:58:59.275043 10618 net.cpp:148] Top shape: 10 256 28 28 (2007040)
I0714 20:58:59.275046 10618 net.cpp:156] Memory required for data: 273960960
I0714 20:58:59.275051 10618 layer_factory.hpp:77] Creating layer inception_3b/1x1
I0714 20:58:59.275069 10618 net.cpp:91] Creating Layer inception_3b/1x1
I0714 20:58:59.275077 10618 net.cpp:425] inception_3b/1x1 <- inception_3a/output_inception_3a/output_0_split_0
I0714 20:58:59.275087 10618 net.cpp:399] inception_3b/1x1 -> inception_3b/1x1
I0714 20:58:59.276506 10614 net.cpp:141] Setting up inception_3b/1x1
I0714 20:58:59.276525 10614 net.cpp:148] Top shape: 10 128 28 28 (1003520)
I0714 20:58:59.276531 10614 net.cpp:156] Memory required for data: 277975040
I0714 20:58:59.276541 10614 layer_factory.hpp:77] Creating layer inception_3b/relu_1x1
I0714 20:58:59.276554 10614 net.cpp:91] Creating Layer inception_3b/relu_1x1
I0714 20:58:59.276561 10614 net.cpp:425] inception_3b/relu_1x1 <- inception_3b/1x1
I0714 20:58:59.276571 10614 net.cpp:386] inception_3b/relu_1x1 -> inception_3b/1x1 (in-place)
I0714 20:58:59.276928 10614 net.cpp:141] Setting up inception_3b/relu_1x1
I0714 20:58:59.276942 10614 net.cpp:148] Top shape: 10 128 28 28 (1003520)
I0714 20:58:59.276947 10614 net.cpp:156] Memory required for data: 281989120
I0714 20:58:59.276952 10614 layer_factory.hpp:77] Creating layer inception_3b/3x3_reduce
I0714 20:58:59.276970 10614 net.cpp:91] Creating Layer inception_3b/3x3_reduce
I0714 20:58:59.276978 10614 net.cpp:425] inception_3b/3x3_reduce <- inception_3a/output_inception_3a/output_0_split_1
I0714 20:58:59.276989 10614 net.cpp:399] inception_3b/3x3_reduce -> inception_3b/3x3_reduce
I0714 20:58:59.280232 10618 net.cpp:141] Setting up inception_3b/1x1
I0714 20:58:59.280251 10618 net.cpp:148] Top shape: 10 128 28 28 (1003520)
I0714 20:58:59.280256 10618 net.cpp:156] Memory required for data: 277975040
I0714 20:58:59.280266 10618 layer_factory.hpp:77] Creating layer inception_3b/relu_1x1
I0714 20:58:59.280275 10618 net.cpp:91] Creating Layer inception_3b/relu_1x1
I0714 20:58:59.280282 10618 net.cpp:425] inception_3b/relu_1x1 <- inception_3b/1x1
I0714 20:58:59.280293 10618 net.cpp:386] inception_3b/relu_1x1 -> inception_3b/1x1 (in-place)
I0714 20:58:59.280614 10618 net.cpp:141] Setting up inception_3b/relu_1x1
I0714 20:58:59.280627 10618 net.cpp:148] Top shape: 10 128 28 28 (1003520)
I0714 20:58:59.280632 10618 net.cpp:156] Memory required for data: 281989120
I0714 20:58:59.280637 10618 layer_factory.hpp:77] Creating layer inception_3b/3x3_reduce
I0714 20:58:59.280652 10618 net.cpp:91] Creating Layer inception_3b/3x3_reduce
I0714 20:58:59.280658 10618 net.cpp:425] inception_3b/3x3_reduce <- inception_3a/output_inception_3a/output_0_split_1
I0714 20:58:59.280671 10618 net.cpp:399] inception_3b/3x3_reduce -> inception_3b/3x3_reduce
I0714 20:58:59.281947 10614 net.cpp:141] Setting up inception_3b/3x3_reduce
I0714 20:58:59.281970 10614 net.cpp:148] Top shape: 10 128 28 28 (1003520)
I0714 20:58:59.281975 10614 net.cpp:156] Memory required for data: 286003200
I0714 20:58:59.281985 10614 layer_factory.hpp:77] Creating layer inception_3b/relu_3x3_reduce
I0714 20:58:59.281994 10614 net.cpp:91] Creating Layer inception_3b/relu_3x3_reduce
I0714 20:58:59.282001 10614 net.cpp:425] inception_3b/relu_3x3_reduce <- inception_3b/3x3_reduce
I0714 20:58:59.282009 10614 net.cpp:386] inception_3b/relu_3x3_reduce -> inception_3b/3x3_reduce (in-place)
I0714 20:58:59.282382 10614 net.cpp:141] Setting up inception_3b/relu_3x3_reduce
I0714 20:58:59.282394 10614 net.cpp:148] Top shape: 10 128 28 28 (1003520)
I0714 20:58:59.282399 10614 net.cpp:156] Memory required for data: 290017280
I0714 20:58:59.282405 10614 layer_factory.hpp:77] Creating layer inception_3b/3x3
I0714 20:58:59.282423 10614 net.cpp:91] Creating Layer inception_3b/3x3
I0714 20:58:59.282429 10614 net.cpp:425] inception_3b/3x3 <- inception_3b/3x3_reduce
I0714 20:58:59.282444 10614 net.cpp:399] inception_3b/3x3 -> inception_3b/3x3
I0714 20:58:59.286495 10618 net.cpp:141] Setting up inception_3b/3x3_reduce
I0714 20:58:59.286514 10618 net.cpp:148] Top shape: 10 128 28 28 (1003520)
I0714 20:58:59.286520 10618 net.cpp:156] Memory required for data: 286003200
I0714 20:58:59.286535 10618 layer_factory.hpp:77] Creating layer inception_3b/relu_3x3_reduce
I0714 20:58:59.286545 10618 net.cpp:91] Creating Layer inception_3b/relu_3x3_reduce
I0714 20:58:59.286551 10618 net.cpp:425] inception_3b/relu_3x3_reduce <- inception_3b/3x3_reduce
I0714 20:58:59.286561 10618 net.cpp:386] inception_3b/relu_3x3_reduce -> inception_3b/3x3_reduce (in-place)
I0714 20:58:59.286842 10618 net.cpp:141] Setting up inception_3b/relu_3x3_reduce
I0714 20:58:59.286854 10618 net.cpp:148] Top shape: 10 128 28 28 (1003520)
I0714 20:58:59.286859 10618 net.cpp:156] Memory required for data: 290017280
I0714 20:58:59.286866 10618 layer_factory.hpp:77] Creating layer inception_3b/3x3
I0714 20:58:59.286885 10618 net.cpp:91] Creating Layer inception_3b/3x3
I0714 20:58:59.286892 10618 net.cpp:425] inception_3b/3x3 <- inception_3b/3x3_reduce
I0714 20:58:59.286902 10618 net.cpp:399] inception_3b/3x3 -> inception_3b/3x3
I0714 20:58:59.293007 10614 net.cpp:141] Setting up inception_3b/3x3
I0714 20:58:59.293030 10614 net.cpp:148] Top shape: 10 192 28 28 (1505280)
I0714 20:58:59.293036 10614 net.cpp:156] Memory required for data: 296038400
I0714 20:58:59.293046 10614 layer_factory.hpp:77] Creating layer inception_3b/relu_3x3
I0714 20:58:59.293068 10614 net.cpp:91] Creating Layer inception_3b/relu_3x3
I0714 20:58:59.293076 10614 net.cpp:425] inception_3b/relu_3x3 <- inception_3b/3x3
I0714 20:58:59.293087 10614 net.cpp:386] inception_3b/relu_3x3 -> inception_3b/3x3 (in-place)
I0714 20:58:59.294101 10614 net.cpp:141] Setting up inception_3b/relu_3x3
I0714 20:58:59.294119 10614 net.cpp:148] Top shape: 10 192 28 28 (1505280)
I0714 20:58:59.294124 10614 net.cpp:156] Memory required for data: 302059520
I0714 20:58:59.294131 10614 layer_factory.hpp:77] Creating layer inception_3b/5x5_reduce
I0714 20:58:59.294147 10614 net.cpp:91] Creating Layer inception_3b/5x5_reduce
I0714 20:58:59.294154 10614 net.cpp:425] inception_3b/5x5_reduce <- inception_3a/output_inception_3a/output_0_split_2
I0714 20:58:59.294169 10614 net.cpp:399] inception_3b/5x5_reduce -> inception_3b/5x5_reduce
I0714 20:58:59.294201 10618 net.cpp:141] Setting up inception_3b/3x3
I0714 20:58:59.294219 10618 net.cpp:148] Top shape: 10 192 28 28 (1505280)
I0714 20:58:59.294224 10618 net.cpp:156] Memory required for data: 296038400
I0714 20:58:59.294234 10618 layer_factory.hpp:77] Creating layer inception_3b/relu_3x3
I0714 20:58:59.294247 10618 net.cpp:91] Creating Layer inception_3b/relu_3x3
I0714 20:58:59.294253 10618 net.cpp:425] inception_3b/relu_3x3 <- inception_3b/3x3
I0714 20:58:59.294265 10618 net.cpp:386] inception_3b/relu_3x3 -> inception_3b/3x3 (in-place)
I0714 20:58:59.295248 10618 net.cpp:141] Setting up inception_3b/relu_3x3
I0714 20:58:59.295264 10618 net.cpp:148] Top shape: 10 192 28 28 (1505280)
I0714 20:58:59.295269 10618 net.cpp:156] Memory required for data: 302059520
I0714 20:58:59.295274 10618 layer_factory.hpp:77] Creating layer inception_3b/5x5_reduce
I0714 20:58:59.295292 10618 net.cpp:91] Creating Layer inception_3b/5x5_reduce
I0714 20:58:59.295300 10618 net.cpp:425] inception_3b/5x5_reduce <- inception_3a/output_inception_3a/output_0_split_2
I0714 20:58:59.295312 10618 net.cpp:399] inception_3b/5x5_reduce -> inception_3b/5x5_reduce
I0714 20:58:59.299561 10614 net.cpp:141] Setting up inception_3b/5x5_reduce
I0714 20:58:59.299582 10614 net.cpp:148] Top shape: 10 32 28 28 (250880)
I0714 20:58:59.299587 10614 net.cpp:156] Memory required for data: 303063040
I0714 20:58:59.299597 10614 layer_factory.hpp:77] Creating layer inception_3b/relu_5x5_reduce
I0714 20:58:59.299607 10614 net.cpp:91] Creating Layer inception_3b/relu_5x5_reduce
I0714 20:58:59.299612 10614 net.cpp:425] inception_3b/relu_5x5_reduce <- inception_3b/5x5_reduce
I0714 20:58:59.299626 10614 net.cpp:386] inception_3b/relu_5x5_reduce -> inception_3b/5x5_reduce (in-place)
I0714 20:58:59.300055 10614 net.cpp:141] Setting up inception_3b/relu_5x5_reduce
I0714 20:58:59.300067 10614 net.cpp:148] Top shape: 10 32 28 28 (250880)
I0714 20:58:59.300072 10614 net.cpp:156] Memory required for data: 304066560
I0714 20:58:59.300078 10614 layer_factory.hpp:77] Creating layer inception_3b/5x5
I0714 20:58:59.300099 10614 net.cpp:91] Creating Layer inception_3b/5x5
I0714 20:58:59.300106 10614 net.cpp:425] inception_3b/5x5 <- inception_3b/5x5_reduce
I0714 20:58:59.300117 10614 net.cpp:399] inception_3b/5x5 -> inception_3b/5x5
I0714 20:58:59.300149 10618 net.cpp:141] Setting up inception_3b/5x5_reduce
I0714 20:58:59.300165 10618 net.cpp:148] Top shape: 10 32 28 28 (250880)
I0714 20:58:59.300171 10618 net.cpp:156] Memory required for data: 303063040
I0714 20:58:59.300181 10618 layer_factory.hpp:77] Creating layer inception_3b/relu_5x5_reduce
I0714 20:58:59.300190 10618 net.cpp:91] Creating Layer inception_3b/relu_5x5_reduce
I0714 20:58:59.300196 10618 net.cpp:425] inception_3b/relu_5x5_reduce <- inception_3b/5x5_reduce
I0714 20:58:59.300209 10618 net.cpp:386] inception_3b/relu_5x5_reduce -> inception_3b/5x5_reduce (in-place)
I0714 20:58:59.300611 10618 net.cpp:141] Setting up inception_3b/relu_5x5_reduce
I0714 20:58:59.300626 10618 net.cpp:148] Top shape: 10 32 28 28 (250880)
I0714 20:58:59.300631 10618 net.cpp:156] Memory required for data: 304066560
I0714 20:58:59.300637 10618 layer_factory.hpp:77] Creating layer inception_3b/5x5
I0714 20:58:59.300654 10618 net.cpp:91] Creating Layer inception_3b/5x5
I0714 20:58:59.300662 10618 net.cpp:425] inception_3b/5x5 <- inception_3b/5x5_reduce
I0714 20:58:59.300670 10618 net.cpp:399] inception_3b/5x5 -> inception_3b/5x5
I0714 20:58:59.307777 10614 net.cpp:141] Setting up inception_3b/5x5
I0714 20:58:59.307801 10614 net.cpp:148] Top shape: 10 96 28 28 (752640)
I0714 20:58:59.307807 10614 net.cpp:156] Memory required for data: 307077120
I0714 20:58:59.307817 10614 layer_factory.hpp:77] Creating layer inception_3b/relu_5x5
I0714 20:58:59.307828 10614 net.cpp:91] Creating Layer inception_3b/relu_5x5
I0714 20:58:59.307834 10614 net.cpp:425] inception_3b/relu_5x5 <- inception_3b/5x5
I0714 20:58:59.307847 10614 net.cpp:386] inception_3b/relu_5x5 -> inception_3b/5x5 (in-place)
I0714 20:58:59.308143 10618 net.cpp:141] Setting up inception_3b/5x5
I0714 20:58:59.308161 10618 net.cpp:148] Top shape: 10 96 28 28 (752640)
I0714 20:58:59.308166 10618 net.cpp:156] Memory required for data: 307077120
I0714 20:58:59.308176 10618 layer_factory.hpp:77] Creating layer inception_3b/relu_5x5
I0714 20:58:59.308187 10618 net.cpp:91] Creating Layer inception_3b/relu_5x5
I0714 20:58:59.308193 10618 net.cpp:425] inception_3b/relu_5x5 <- inception_3b/5x5
I0714 20:58:59.308202 10618 net.cpp:386] inception_3b/relu_5x5 -> inception_3b/5x5 (in-place)
I0714 20:58:59.308212 10614 net.cpp:141] Setting up inception_3b/relu_5x5
I0714 20:58:59.308228 10614 net.cpp:148] Top shape: 10 96 28 28 (752640)
I0714 20:58:59.308233 10614 net.cpp:156] Memory required for data: 310087680
I0714 20:58:59.308238 10614 layer_factory.hpp:77] Creating layer inception_3b/pool
I0714 20:58:59.308251 10614 net.cpp:91] Creating Layer inception_3b/pool
I0714 20:58:59.308257 10614 net.cpp:425] inception_3b/pool <- inception_3a/output_inception_3a/output_0_split_3
I0714 20:58:59.308265 10614 net.cpp:399] inception_3b/pool -> inception_3b/pool
I0714 20:58:59.308501 10614 net.cpp:141] Setting up inception_3b/pool
I0714 20:58:59.308513 10614 net.cpp:148] Top shape: 10 256 28 28 (2007040)
I0714 20:58:59.308518 10614 net.cpp:156] Memory required for data: 318115840
I0714 20:58:59.308523 10614 layer_factory.hpp:77] Creating layer inception_3b/pool_proj
I0714 20:58:59.308542 10614 net.cpp:91] Creating Layer inception_3b/pool_proj
I0714 20:58:59.308548 10614 net.cpp:425] inception_3b/pool_proj <- inception_3b/pool
I0714 20:58:59.308562 10614 net.cpp:399] inception_3b/pool_proj -> inception_3b/pool_proj
I0714 20:58:59.308567 10618 net.cpp:141] Setting up inception_3b/relu_5x5
I0714 20:58:59.308579 10618 net.cpp:148] Top shape: 10 96 28 28 (752640)
I0714 20:58:59.308584 10618 net.cpp:156] Memory required for data: 310087680
I0714 20:58:59.308590 10618 layer_factory.hpp:77] Creating layer inception_3b/pool
I0714 20:58:59.308604 10618 net.cpp:91] Creating Layer inception_3b/pool
I0714 20:58:59.308609 10618 net.cpp:425] inception_3b/pool <- inception_3a/output_inception_3a/output_0_split_3
I0714 20:58:59.308620 10618 net.cpp:399] inception_3b/pool -> inception_3b/pool
I0714 20:58:59.308863 10618 net.cpp:141] Setting up inception_3b/pool
I0714 20:58:59.308876 10618 net.cpp:148] Top shape: 10 256 28 28 (2007040)
I0714 20:58:59.308881 10618 net.cpp:156] Memory required for data: 318115840
I0714 20:58:59.308887 10618 layer_factory.hpp:77] Creating layer inception_3b/pool_proj
I0714 20:58:59.308905 10618 net.cpp:91] Creating Layer inception_3b/pool_proj
I0714 20:58:59.308912 10618 net.cpp:425] inception_3b/pool_proj <- inception_3b/pool
I0714 20:58:59.308922 10618 net.cpp:399] inception_3b/pool_proj -> inception_3b/pool_proj
I0714 20:58:59.312643 10614 net.cpp:141] Setting up inception_3b/pool_proj
I0714 20:58:59.312662 10614 net.cpp:148] Top shape: 10 64 28 28 (501760)
I0714 20:58:59.312669 10614 net.cpp:156] Memory required for data: 320122880
I0714 20:58:59.312680 10614 layer_factory.hpp:77] Creating layer inception_3b/relu_pool_proj
I0714 20:58:59.312688 10614 net.cpp:91] Creating Layer inception_3b/relu_pool_proj
I0714 20:58:59.312695 10614 net.cpp:425] inception_3b/relu_pool_proj <- inception_3b/pool_proj
I0714 20:58:59.312705 10614 net.cpp:386] inception_3b/relu_pool_proj -> inception_3b/pool_proj (in-place)
I0714 20:58:59.313663 10614 net.cpp:141] Setting up inception_3b/relu_pool_proj
I0714 20:58:59.313679 10614 net.cpp:148] Top shape: 10 64 28 28 (501760)
I0714 20:58:59.313684 10614 net.cpp:156] Memory required for data: 322129920
I0714 20:58:59.313690 10614 layer_factory.hpp:77] Creating layer inception_3b/output
I0714 20:58:59.313700 10614 net.cpp:91] Creating Layer inception_3b/output
I0714 20:58:59.313706 10614 net.cpp:425] inception_3b/output <- inception_3b/1x1
I0714 20:58:59.313714 10614 net.cpp:425] inception_3b/output <- inception_3b/3x3
I0714 20:58:59.313719 10614 net.cpp:425] inception_3b/output <- inception_3b/5x5
I0714 20:58:59.313725 10614 net.cpp:425] inception_3b/output <- inception_3b/pool_proj
I0714 20:58:59.313736 10614 net.cpp:399] inception_3b/output -> inception_3b/output
I0714 20:58:59.313760 10618 net.cpp:141] Setting up inception_3b/pool_proj
I0714 20:58:59.313776 10618 net.cpp:148] Top shape: 10 64 28 28 (501760)
I0714 20:58:59.313782 10618 net.cpp:156] Memory required for data: 320122880
I0714 20:58:59.313792 10618 layer_factory.hpp:77] Creating layer inception_3b/relu_pool_proj
I0714 20:58:59.313802 10618 net.cpp:91] Creating Layer inception_3b/relu_pool_proj
I0714 20:58:59.313807 10618 net.cpp:425] inception_3b/relu_pool_proj <- inception_3b/pool_proj
I0714 20:58:59.313813 10614 net.cpp:141] Setting up inception_3b/output
I0714 20:58:59.313819 10618 net.cpp:386] inception_3b/relu_pool_proj -> inception_3b/pool_proj (in-place)
I0714 20:58:59.313825 10614 net.cpp:148] Top shape: 10 480 28 28 (3763200)
I0714 20:58:59.313830 10614 net.cpp:156] Memory required for data: 337182720
I0714 20:58:59.313835 10614 layer_factory.hpp:77] Creating layer pool3/3x3_s2
I0714 20:58:59.313846 10614 net.cpp:91] Creating Layer pool3/3x3_s2
I0714 20:58:59.313853 10614 net.cpp:425] pool3/3x3_s2 <- inception_3b/output
I0714 20:58:59.313860 10614 net.cpp:399] pool3/3x3_s2 -> pool3/3x3_s2
I0714 20:58:59.314672 10614 net.cpp:141] Setting up pool3/3x3_s2
I0714 20:58:59.314695 10614 net.cpp:148] Top shape: 10 480 14 14 (940800)
I0714 20:58:59.314702 10614 net.cpp:156] Memory required for data: 340945920
I0714 20:58:59.314707 10614 layer_factory.hpp:77] Creating layer pool3/3x3_s2_pool3/3x3_s2_0_split
I0714 20:58:59.314716 10614 net.cpp:91] Creating Layer pool3/3x3_s2_pool3/3x3_s2_0_split
I0714 20:58:59.314721 10614 net.cpp:425] pool3/3x3_s2_pool3/3x3_s2_0_split <- pool3/3x3_s2
I0714 20:58:59.314729 10614 net.cpp:399] pool3/3x3_s2_pool3/3x3_s2_0_split -> pool3/3x3_s2_pool3/3x3_s2_0_split_0
I0714 20:58:59.314738 10614 net.cpp:399] pool3/3x3_s2_pool3/3x3_s2_0_split -> pool3/3x3_s2_pool3/3x3_s2_0_split_1
I0714 20:58:59.314746 10618 net.cpp:141] Setting up inception_3b/relu_pool_proj
I0714 20:58:59.314751 10614 net.cpp:399] pool3/3x3_s2_pool3/3x3_s2_0_split -> pool3/3x3_s2_pool3/3x3_s2_0_split_2
I0714 20:58:59.314764 10618 net.cpp:148] Top shape: 10 64 28 28 (501760)
I0714 20:58:59.314769 10614 net.cpp:399] pool3/3x3_s2_pool3/3x3_s2_0_split -> pool3/3x3_s2_pool3/3x3_s2_0_split_3
I0714 20:58:59.314770 10618 net.cpp:156] Memory required for data: 322129920
I0714 20:58:59.314784 10618 layer_factory.hpp:77] Creating layer inception_3b/output
I0714 20:58:59.314792 10618 net.cpp:91] Creating Layer inception_3b/output
I0714 20:58:59.314798 10618 net.cpp:425] inception_3b/output <- inception_3b/1x1
I0714 20:58:59.314810 10618 net.cpp:425] inception_3b/output <- inception_3b/3x3
I0714 20:58:59.314817 10618 net.cpp:425] inception_3b/output <- inception_3b/5x5
I0714 20:58:59.314823 10618 net.cpp:425] inception_3b/output <- inception_3b/pool_proj
I0714 20:58:59.314831 10618 net.cpp:399] inception_3b/output -> inception_3b/output
I0714 20:58:59.314935 10618 net.cpp:141] Setting up inception_3b/output
I0714 20:58:59.314947 10618 net.cpp:148] Top shape: 10 480 28 28 (3763200)
I0714 20:58:59.314952 10618 net.cpp:156] Memory required for data: 337182720
I0714 20:58:59.314957 10618 layer_factory.hpp:77] Creating layer pool3/3x3_s2
I0714 20:58:59.314971 10618 net.cpp:91] Creating Layer pool3/3x3_s2
I0714 20:58:59.314977 10618 net.cpp:425] pool3/3x3_s2 <- inception_3b/output
I0714 20:58:59.314985 10618 net.cpp:399] pool3/3x3_s2 -> pool3/3x3_s2
I0714 20:58:59.315019 10614 net.cpp:141] Setting up pool3/3x3_s2_pool3/3x3_s2_0_split
I0714 20:58:59.315034 10614 net.cpp:148] Top shape: 10 480 14 14 (940800)
I0714 20:58:59.315042 10614 net.cpp:148] Top shape: 10 480 14 14 (940800)
I0714 20:58:59.315047 10614 net.cpp:148] Top shape: 10 480 14 14 (940800)
I0714 20:58:59.315053 10614 net.cpp:148] Top shape: 10 480 14 14 (940800)
I0714 20:58:59.315057 10614 net.cpp:156] Memory required for data: 355998720
I0714 20:58:59.315062 10614 layer_factory.hpp:77] Creating layer inception_4a/1x1
I0714 20:58:59.315076 10614 net.cpp:91] Creating Layer inception_4a/1x1
I0714 20:58:59.315083 10614 net.cpp:425] inception_4a/1x1 <- pool3/3x3_s2_pool3/3x3_s2_0_split_0
I0714 20:58:59.315091 10614 net.cpp:399] inception_4a/1x1 -> inception_4a/1x1
I0714 20:58:59.315109 10618 net.cpp:141] Setting up pool3/3x3_s2
I0714 20:58:59.315124 10618 net.cpp:148] Top shape: 10 480 14 14 (940800)
I0714 20:58:59.315129 10618 net.cpp:156] Memory required for data: 340945920
I0714 20:58:59.315134 10618 layer_factory.hpp:77] Creating layer pool3/3x3_s2_pool3/3x3_s2_0_split
I0714 20:58:59.315143 10618 net.cpp:91] Creating Layer pool3/3x3_s2_pool3/3x3_s2_0_split
I0714 20:58:59.315148 10618 net.cpp:425] pool3/3x3_s2_pool3/3x3_s2_0_split <- pool3/3x3_s2
I0714 20:58:59.315158 10618 net.cpp:399] pool3/3x3_s2_pool3/3x3_s2_0_split -> pool3/3x3_s2_pool3/3x3_s2_0_split_0
I0714 20:58:59.315167 10618 net.cpp:399] pool3/3x3_s2_pool3/3x3_s2_0_split -> pool3/3x3_s2_pool3/3x3_s2_0_split_1
I0714 20:58:59.315176 10618 net.cpp:399] pool3/3x3_s2_pool3/3x3_s2_0_split -> pool3/3x3_s2_pool3/3x3_s2_0_split_2
I0714 20:58:59.315184 10618 net.cpp:399] pool3/3x3_s2_pool3/3x3_s2_0_split -> pool3/3x3_s2_pool3/3x3_s2_0_split_3
I0714 20:58:59.315593 10618 net.cpp:141] Setting up pool3/3x3_s2_pool3/3x3_s2_0_split
I0714 20:58:59.315605 10618 net.cpp:148] Top shape: 10 480 14 14 (940800)
I0714 20:58:59.315611 10618 net.cpp:148] Top shape: 10 480 14 14 (940800)
I0714 20:58:59.315616 10618 net.cpp:148] Top shape: 10 480 14 14 (940800)
I0714 20:58:59.315623 10618 net.cpp:148] Top shape: 10 480 14 14 (940800)
I0714 20:58:59.315626 10618 net.cpp:156] Memory required for data: 355998720
I0714 20:58:59.315631 10618 layer_factory.hpp:77] Creating layer inception_4a/1x1
I0714 20:58:59.315649 10618 net.cpp:91] Creating Layer inception_4a/1x1
I0714 20:58:59.315655 10618 net.cpp:425] inception_4a/1x1 <- pool3/3x3_s2_pool3/3x3_s2_0_split_0
I0714 20:58:59.315665 10618 net.cpp:399] inception_4a/1x1 -> inception_4a/1x1
I0714 20:58:59.320921 10614 net.cpp:141] Setting up inception_4a/1x1
I0714 20:58:59.320950 10614 net.cpp:148] Top shape: 10 192 14 14 (376320)
I0714 20:58:59.320955 10614 net.cpp:156] Memory required for data: 357504000
I0714 20:58:59.320966 10614 layer_factory.hpp:77] Creating layer inception_4a/relu_1x1
I0714 20:58:59.320976 10614 net.cpp:91] Creating Layer inception_4a/relu_1x1
I0714 20:58:59.320983 10614 net.cpp:425] inception_4a/relu_1x1 <- inception_4a/1x1
I0714 20:58:59.320991 10614 net.cpp:386] inception_4a/relu_1x1 -> inception_4a/1x1 (in-place)
I0714 20:58:59.321041 10618 net.cpp:141] Setting up inception_4a/1x1
I0714 20:58:59.321058 10618 net.cpp:148] Top shape: 10 192 14 14 (376320)
I0714 20:58:59.321063 10618 net.cpp:156] Memory required for data: 357504000
I0714 20:58:59.321074 10618 layer_factory.hpp:77] Creating layer inception_4a/relu_1x1
I0714 20:58:59.321087 10618 net.cpp:91] Creating Layer inception_4a/relu_1x1
I0714 20:58:59.321094 10618 net.cpp:425] inception_4a/relu_1x1 <- inception_4a/1x1
I0714 20:58:59.321105 10618 net.cpp:386] inception_4a/relu_1x1 -> inception_4a/1x1 (in-place)
I0714 20:58:59.321367 10614 net.cpp:141] Setting up inception_4a/relu_1x1
I0714 20:58:59.321382 10614 net.cpp:148] Top shape: 10 192 14 14 (376320)
I0714 20:58:59.321387 10614 net.cpp:156] Memory required for data: 359009280
I0714 20:58:59.321393 10614 layer_factory.hpp:77] Creating layer inception_4a/3x3_reduce
I0714 20:58:59.321409 10614 net.cpp:91] Creating Layer inception_4a/3x3_reduce
I0714 20:58:59.321416 10614 net.cpp:425] inception_4a/3x3_reduce <- pool3/3x3_s2_pool3/3x3_s2_0_split_1
I0714 20:58:59.321430 10614 net.cpp:399] inception_4a/3x3_reduce -> inception_4a/3x3_reduce
I0714 20:58:59.321437 10618 net.cpp:141] Setting up inception_4a/relu_1x1
I0714 20:58:59.321450 10618 net.cpp:148] Top shape: 10 192 14 14 (376320)
I0714 20:58:59.321455 10618 net.cpp:156] Memory required for data: 359009280
I0714 20:58:59.321460 10618 layer_factory.hpp:77] Creating layer inception_4a/3x3_reduce
I0714 20:58:59.321477 10618 net.cpp:91] Creating Layer inception_4a/3x3_reduce
I0714 20:58:59.321485 10618 net.cpp:425] inception_4a/3x3_reduce <- pool3/3x3_s2_pool3/3x3_s2_0_split_1
I0714 20:58:59.321496 10618 net.cpp:399] inception_4a/3x3_reduce -> inception_4a/3x3_reduce
I0714 20:58:59.325872 10614 net.cpp:141] Setting up inception_4a/3x3_reduce
I0714 20:58:59.325893 10614 net.cpp:148] Top shape: 10 96 14 14 (188160)
I0714 20:58:59.325899 10614 net.cpp:156] Memory required for data: 359761920
I0714 20:58:59.325923 10614 layer_factory.hpp:77] Creating layer inception_4a/relu_3x3_reduce
I0714 20:58:59.325934 10614 net.cpp:91] Creating Layer inception_4a/relu_3x3_reduce
I0714 20:58:59.325940 10614 net.cpp:425] inception_4a/relu_3x3_reduce <- inception_4a/3x3_reduce
I0714 20:58:59.325948 10614 net.cpp:386] inception_4a/relu_3x3_reduce -> inception_4a/3x3_reduce (in-place)
I0714 20:58:59.326232 10618 net.cpp:141] Setting up inception_4a/3x3_reduce
I0714 20:58:59.326248 10618 net.cpp:148] Top shape: 10 96 14 14 (188160)
I0714 20:58:59.326253 10618 net.cpp:156] Memory required for data: 359761920
I0714 20:58:59.326274 10618 layer_factory.hpp:77] Creating layer inception_4a/relu_3x3_reduce
I0714 20:58:59.326284 10618 net.cpp:91] Creating Layer inception_4a/relu_3x3_reduce
I0714 20:58:59.326292 10618 net.cpp:425] inception_4a/relu_3x3_reduce <- inception_4a/3x3_reduce
I0714 20:58:59.326297 10614 net.cpp:141] Setting up inception_4a/relu_3x3_reduce
I0714 20:58:59.326303 10618 net.cpp:386] inception_4a/relu_3x3_reduce -> inception_4a/3x3_reduce (in-place)
I0714 20:58:59.326311 10614 net.cpp:148] Top shape: 10 96 14 14 (188160)
I0714 20:58:59.326316 10614 net.cpp:156] Memory required for data: 360514560
I0714 20:58:59.326323 10614 layer_factory.hpp:77] Creating layer inception_4a/3x3
I0714 20:58:59.326339 10614 net.cpp:91] Creating Layer inception_4a/3x3
I0714 20:58:59.326346 10614 net.cpp:425] inception_4a/3x3 <- inception_4a/3x3_reduce
I0714 20:58:59.326359 10614 net.cpp:399] inception_4a/3x3 -> inception_4a/3x3
I0714 20:58:59.326727 10618 net.cpp:141] Setting up inception_4a/relu_3x3_reduce
I0714 20:58:59.326741 10618 net.cpp:148] Top shape: 10 96 14 14 (188160)
I0714 20:58:59.326746 10618 net.cpp:156] Memory required for data: 360514560
I0714 20:58:59.326751 10618 layer_factory.hpp:77] Creating layer inception_4a/3x3
I0714 20:58:59.326771 10618 net.cpp:91] Creating Layer inception_4a/3x3
I0714 20:58:59.326778 10618 net.cpp:425] inception_4a/3x3 <- inception_4a/3x3_reduce
I0714 20:58:59.326787 10618 net.cpp:399] inception_4a/3x3 -> inception_4a/3x3
I0714 20:58:59.334401 10614 net.cpp:141] Setting up inception_4a/3x3
I0714 20:58:59.334425 10614 net.cpp:148] Top shape: 10 208 14 14 (407680)
I0714 20:58:59.334430 10614 net.cpp:156] Memory required for data: 362145280
I0714 20:58:59.334441 10614 layer_factory.hpp:77] Creating layer inception_4a/relu_3x3
I0714 20:58:59.334451 10614 net.cpp:91] Creating Layer inception_4a/relu_3x3
I0714 20:58:59.334458 10614 net.cpp:425] inception_4a/relu_3x3 <- inception_4a/3x3
I0714 20:58:59.334470 10614 net.cpp:386] inception_4a/relu_3x3 -> inception_4a/3x3 (in-place)
I0714 20:58:59.335484 10614 net.cpp:141] Setting up inception_4a/relu_3x3
I0714 20:58:59.335500 10614 net.cpp:148] Top shape: 10 208 14 14 (407680)
I0714 20:58:59.335505 10614 net.cpp:156] Memory required for data: 363776000
I0714 20:58:59.335511 10614 layer_factory.hpp:77] Creating layer inception_4a/5x5_reduce
I0714 20:58:59.335528 10614 net.cpp:91] Creating Layer inception_4a/5x5_reduce
I0714 20:58:59.335536 10614 net.cpp:425] inception_4a/5x5_reduce <- pool3/3x3_s2_pool3/3x3_s2_0_split_2
I0714 20:58:59.335549 10614 net.cpp:399] inception_4a/5x5_reduce -> inception_4a/5x5_reduce
I0714 20:58:59.335674 10618 net.cpp:141] Setting up inception_4a/3x3
I0714 20:58:59.335690 10618 net.cpp:148] Top shape: 10 208 14 14 (407680)
I0714 20:58:59.335695 10618 net.cpp:156] Memory required for data: 362145280
I0714 20:58:59.335705 10618 layer_factory.hpp:77] Creating layer inception_4a/relu_3x3
I0714 20:58:59.335716 10618 net.cpp:91] Creating Layer inception_4a/relu_3x3
I0714 20:58:59.335721 10618 net.cpp:425] inception_4a/relu_3x3 <- inception_4a/3x3
I0714 20:58:59.335733 10618 net.cpp:386] inception_4a/relu_3x3 -> inception_4a/3x3 (in-place)
I0714 20:58:59.336699 10618 net.cpp:141] Setting up inception_4a/relu_3x3
I0714 20:58:59.336714 10618 net.cpp:148] Top shape: 10 208 14 14 (407680)
I0714 20:58:59.336720 10618 net.cpp:156] Memory required for data: 363776000
I0714 20:58:59.336725 10618 layer_factory.hpp:77] Creating layer inception_4a/5x5_reduce
I0714 20:58:59.336745 10618 net.cpp:91] Creating Layer inception_4a/5x5_reduce
I0714 20:58:59.336752 10618 net.cpp:425] inception_4a/5x5_reduce <- pool3/3x3_s2_pool3/3x3_s2_0_split_2
I0714 20:58:59.336762 10618 net.cpp:399] inception_4a/5x5_reduce -> inception_4a/5x5_reduce
I0714 20:58:59.341109 10614 net.cpp:141] Setting up inception_4a/5x5_reduce
I0714 20:58:59.341128 10614 net.cpp:148] Top shape: 10 16 14 14 (31360)
I0714 20:58:59.341135 10614 net.cpp:156] Memory required for data: 363901440
I0714 20:58:59.341145 10614 layer_factory.hpp:77] Creating layer inception_4a/relu_5x5_reduce
I0714 20:58:59.341157 10614 net.cpp:91] Creating Layer inception_4a/relu_5x5_reduce
I0714 20:58:59.341164 10614 net.cpp:425] inception_4a/relu_5x5_reduce <- inception_4a/5x5_reduce
I0714 20:58:59.341172 10614 net.cpp:386] inception_4a/relu_5x5_reduce -> inception_4a/5x5_reduce (in-place)
I0714 20:58:59.341615 10614 net.cpp:141] Setting up inception_4a/relu_5x5_reduce
I0714 20:58:59.341629 10614 net.cpp:148] Top shape: 10 16 14 14 (31360)
I0714 20:58:59.341634 10614 net.cpp:156] Memory required for data: 364026880
I0714 20:58:59.341640 10614 layer_factory.hpp:77] Creating layer inception_4a/5x5
I0714 20:58:59.341663 10614 net.cpp:91] Creating Layer inception_4a/5x5
I0714 20:58:59.341670 10614 net.cpp:425] inception_4a/5x5 <- inception_4a/5x5_reduce
I0714 20:58:59.341681 10614 net.cpp:399] inception_4a/5x5 -> inception_4a/5x5
I0714 20:58:59.341711 10618 net.cpp:141] Setting up inception_4a/5x5_reduce
I0714 20:58:59.341727 10618 net.cpp:148] Top shape: 10 16 14 14 (31360)
I0714 20:58:59.341733 10618 net.cpp:156] Memory required for data: 363901440
I0714 20:58:59.341742 10618 layer_factory.hpp:77] Creating layer inception_4a/relu_5x5_reduce
I0714 20:58:59.341756 10618 net.cpp:91] Creating Layer inception_4a/relu_5x5_reduce
I0714 20:58:59.341763 10618 net.cpp:425] inception_4a/relu_5x5_reduce <- inception_4a/5x5_reduce
I0714 20:58:59.341771 10618 net.cpp:386] inception_4a/relu_5x5_reduce -> inception_4a/5x5_reduce (in-place)
I0714 20:58:59.342195 10618 net.cpp:141] Setting up inception_4a/relu_5x5_reduce
I0714 20:58:59.342208 10618 net.cpp:148] Top shape: 10 16 14 14 (31360)
I0714 20:58:59.342213 10618 net.cpp:156] Memory required for data: 364026880
I0714 20:58:59.342219 10618 layer_factory.hpp:77] Creating layer inception_4a/5x5
I0714 20:58:59.342236 10618 net.cpp:91] Creating Layer inception_4a/5x5
I0714 20:58:59.342243 10618 net.cpp:425] inception_4a/5x5 <- inception_4a/5x5_reduce
I0714 20:58:59.342255 10618 net.cpp:399] inception_4a/5x5 -> inception_4a/5x5
I0714 20:58:59.346050 10614 net.cpp:141] Setting up inception_4a/5x5
I0714 20:58:59.346070 10614 net.cpp:148] Top shape: 10 48 14 14 (94080)
I0714 20:58:59.346074 10614 net.cpp:156] Memory required for data: 364403200
I0714 20:58:59.346084 10614 layer_factory.hpp:77] Creating layer inception_4a/relu_5x5
I0714 20:58:59.346094 10614 net.cpp:91] Creating Layer inception_4a/relu_5x5
I0714 20:58:59.346101 10614 net.cpp:425] inception_4a/relu_5x5 <- inception_4a/5x5
I0714 20:58:59.346109 10614 net.cpp:386] inception_4a/relu_5x5 -> inception_4a/5x5 (in-place)
I0714 20:58:59.346508 10618 net.cpp:141] Setting up inception_4a/5x5
I0714 20:58:59.346524 10618 net.cpp:148] Top shape: 10 48 14 14 (94080)
I0714 20:58:59.346529 10618 net.cpp:156] Memory required for data: 364403200
I0714 20:58:59.346525 10614 net.cpp:141] Setting up inception_4a/relu_5x5
I0714 20:58:59.346541 10618 layer_factory.hpp:77] Creating layer inception_4a/relu_5x5
I0714 20:58:59.346546 10614 net.cpp:148] Top shape: 10 48 14 14 (94080)
I0714 20:58:59.346551 10614 net.cpp:156] Memory required for data: 364779520
I0714 20:58:59.346551 10618 net.cpp:91] Creating Layer inception_4a/relu_5x5
I0714 20:58:59.346561 10614 layer_factory.hpp:77] Creating layer inception_4a/pool
I0714 20:58:59.346565 10618 net.cpp:425] inception_4a/relu_5x5 <- inception_4a/5x5
I0714 20:58:59.346575 10614 net.cpp:91] Creating Layer inception_4a/pool
I0714 20:58:59.346577 10618 net.cpp:386] inception_4a/relu_5x5 -> inception_4a/5x5 (in-place)
I0714 20:58:59.346581 10614 net.cpp:425] inception_4a/pool <- pool3/3x3_s2_pool3/3x3_s2_0_split_3
I0714 20:58:59.346590 10614 net.cpp:399] inception_4a/pool -> inception_4a/pool
I0714 20:58:59.346901 10614 net.cpp:141] Setting up inception_4a/pool
I0714 20:58:59.346915 10614 net.cpp:148] Top shape: 10 480 14 14 (940800)
I0714 20:58:59.346920 10614 net.cpp:156] Memory required for data: 368542720
I0714 20:58:59.346925 10614 layer_factory.hpp:77] Creating layer inception_4a/pool_proj
I0714 20:58:59.346942 10614 net.cpp:91] Creating Layer inception_4a/pool_proj
I0714 20:58:59.346949 10614 net.cpp:425] inception_4a/pool_proj <- inception_4a/pool
I0714 20:58:59.346963 10614 net.cpp:399] inception_4a/pool_proj -> inception_4a/pool_proj
I0714 20:58:59.346968 10618 net.cpp:141] Setting up inception_4a/relu_5x5
I0714 20:58:59.346982 10618 net.cpp:148] Top shape: 10 48 14 14 (94080)
I0714 20:58:59.346987 10618 net.cpp:156] Memory required for data: 364779520
I0714 20:58:59.346992 10618 layer_factory.hpp:77] Creating layer inception_4a/pool
I0714 20:58:59.347005 10618 net.cpp:91] Creating Layer inception_4a/pool
I0714 20:58:59.347012 10618 net.cpp:425] inception_4a/pool <- pool3/3x3_s2_pool3/3x3_s2_0_split_3
I0714 20:58:59.347020 10618 net.cpp:399] inception_4a/pool -> inception_4a/pool
I0714 20:58:59.347230 10618 net.cpp:141] Setting up inception_4a/pool
I0714 20:58:59.347242 10618 net.cpp:148] Top shape: 10 480 14 14 (940800)
I0714 20:58:59.347247 10618 net.cpp:156] Memory required for data: 368542720
I0714 20:58:59.347252 10618 layer_factory.hpp:77] Creating layer inception_4a/pool_proj
I0714 20:58:59.347272 10618 net.cpp:91] Creating Layer inception_4a/pool_proj
I0714 20:58:59.347278 10618 net.cpp:425] inception_4a/pool_proj <- inception_4a/pool
I0714 20:58:59.347288 10618 net.cpp:399] inception_4a/pool_proj -> inception_4a/pool_proj
I0714 20:58:59.351097 10614 net.cpp:141] Setting up inception_4a/pool_proj
I0714 20:58:59.351116 10614 net.cpp:148] Top shape: 10 64 14 14 (125440)
I0714 20:58:59.351121 10614 net.cpp:156] Memory required for data: 369044480
I0714 20:58:59.351132 10614 layer_factory.hpp:77] Creating layer inception_4a/relu_pool_proj
I0714 20:58:59.351145 10614 net.cpp:91] Creating Layer inception_4a/relu_pool_proj
I0714 20:58:59.351151 10614 net.cpp:425] inception_4a/relu_pool_proj <- inception_4a/pool_proj
I0714 20:58:59.351160 10614 net.cpp:386] inception_4a/relu_pool_proj -> inception_4a/pool_proj (in-place)
I0714 20:58:59.352236 10614 net.cpp:141] Setting up inception_4a/relu_pool_proj
I0714 20:58:59.352253 10614 net.cpp:148] Top shape: 10 64 14 14 (125440)
I0714 20:58:59.352258 10614 net.cpp:156] Memory required for data: 369546240
I0714 20:58:59.352264 10614 layer_factory.hpp:77] Creating layer inception_4a/output
I0714 20:58:59.352262 10618 net.cpp:141] Setting up inception_4a/pool_proj
I0714 20:58:59.352277 10614 net.cpp:91] Creating Layer inception_4a/output
I0714 20:58:59.352278 10618 net.cpp:148] Top shape: 10 64 14 14 (125440)
I0714 20:58:59.352288 10614 net.cpp:425] inception_4a/output <- inception_4a/1x1
I0714 20:58:59.352290 10618 net.cpp:156] Memory required for data: 369044480
I0714 20:58:59.352295 10614 net.cpp:425] inception_4a/output <- inception_4a/3x3
I0714 20:58:59.352303 10618 layer_factory.hpp:77] Creating layer inception_4a/relu_pool_proj
I0714 20:58:59.352303 10614 net.cpp:425] inception_4a/output <- inception_4a/5x5
I0714 20:58:59.352318 10614 net.cpp:425] inception_4a/output <- inception_4a/pool_proj
I0714 20:58:59.352320 10618 net.cpp:91] Creating Layer inception_4a/relu_pool_proj
I0714 20:58:59.352325 10614 net.cpp:399] inception_4a/output -> inception_4a/output
I0714 20:58:59.352327 10618 net.cpp:425] inception_4a/relu_pool_proj <- inception_4a/pool_proj
I0714 20:58:59.352336 10618 net.cpp:386] inception_4a/relu_pool_proj -> inception_4a/pool_proj (in-place)
I0714 20:58:59.353147 10614 net.cpp:141] Setting up inception_4a/output
I0714 20:58:59.353163 10614 net.cpp:148] Top shape: 10 512 14 14 (1003520)
I0714 20:58:59.353168 10614 net.cpp:156] Memory required for data: 373560320
I0714 20:58:59.353174 10614 layer_factory.hpp:77] Creating layer inception_4a/output_inception_4a/output_0_split
I0714 20:58:59.353183 10614 net.cpp:91] Creating Layer inception_4a/output_inception_4a/output_0_split
I0714 20:58:59.353188 10614 net.cpp:425] inception_4a/output_inception_4a/output_0_split <- inception_4a/output
I0714 20:58:59.353196 10614 net.cpp:399] inception_4a/output_inception_4a/output_0_split -> inception_4a/output_inception_4a/output_0_split_0
I0714 20:58:59.353206 10614 net.cpp:399] inception_4a/output_inception_4a/output_0_split -> inception_4a/output_inception_4a/output_0_split_1
I0714 20:58:59.353219 10614 net.cpp:399] inception_4a/output_inception_4a/output_0_split -> inception_4a/output_inception_4a/output_0_split_2
I0714 20:58:59.353229 10614 net.cpp:399] inception_4a/output_inception_4a/output_0_split -> inception_4a/output_inception_4a/output_0_split_3
I0714 20:58:59.353248 10618 net.cpp:141] Setting up inception_4a/relu_pool_proj
I0714 20:58:59.353262 10618 net.cpp:148] Top shape: 10 64 14 14 (125440)
I0714 20:58:59.353267 10618 net.cpp:156] Memory required for data: 369546240
I0714 20:58:59.353272 10618 layer_factory.hpp:77] Creating layer inception_4a/output
I0714 20:58:59.353286 10618 net.cpp:91] Creating Layer inception_4a/output
I0714 20:58:59.353291 10618 net.cpp:425] inception_4a/output <- inception_4a/1x1
I0714 20:58:59.353299 10618 net.cpp:425] inception_4a/output <- inception_4a/3x3
I0714 20:58:59.353305 10618 net.cpp:425] inception_4a/output <- inception_4a/5x5
I0714 20:58:59.353310 10618 net.cpp:425] inception_4a/output <- inception_4a/pool_proj
I0714 20:58:59.353318 10618 net.cpp:399] inception_4a/output -> inception_4a/output
I0714 20:58:59.353466 10618 net.cpp:141] Setting up inception_4a/output
I0714 20:58:59.353478 10618 net.cpp:148] Top shape: 10 512 14 14 (1003520)
I0714 20:58:59.353483 10618 net.cpp:156] Memory required for data: 373560320
I0714 20:58:59.353488 10618 layer_factory.hpp:77] Creating layer inception_4a/output_inception_4a/output_0_split
I0714 20:58:59.353487 10614 net.cpp:141] Setting up inception_4a/output_inception_4a/output_0_split
I0714 20:58:59.353498 10618 net.cpp:91] Creating Layer inception_4a/output_inception_4a/output_0_split
I0714 20:58:59.353502 10614 net.cpp:148] Top shape: 10 512 14 14 (1003520)
I0714 20:58:59.353503 10618 net.cpp:425] inception_4a/output_inception_4a/output_0_split <- inception_4a/output
I0714 20:58:59.353513 10614 net.cpp:148] Top shape: 10 512 14 14 (1003520)
I0714 20:58:59.353520 10614 net.cpp:148] Top shape: 10 512 14 14 (1003520)
I0714 20:58:59.353521 10618 net.cpp:399] inception_4a/output_inception_4a/output_0_split -> inception_4a/output_inception_4a/output_0_split_0
I0714 20:58:59.353526 10614 net.cpp:148] Top shape: 10 512 14 14 (1003520)
I0714 20:58:59.353530 10614 net.cpp:156] Memory required for data: 389616640
I0714 20:58:59.353533 10618 net.cpp:399] inception_4a/output_inception_4a/output_0_split -> inception_4a/output_inception_4a/output_0_split_1
I0714 20:58:59.353536 10614 layer_factory.hpp:77] Creating layer inception_4b/1x1
I0714 20:58:59.353543 10618 net.cpp:399] inception_4a/output_inception_4a/output_0_split -> inception_4a/output_inception_4a/output_0_split_2
I0714 20:58:59.353551 10618 net.cpp:399] inception_4a/output_inception_4a/output_0_split -> inception_4a/output_inception_4a/output_0_split_3
I0714 20:58:59.353552 10614 net.cpp:91] Creating Layer inception_4b/1x1
I0714 20:58:59.353559 10614 net.cpp:425] inception_4b/1x1 <- inception_4a/output_inception_4a/output_0_split_0
I0714 20:58:59.353569 10614 net.cpp:399] inception_4b/1x1 -> inception_4b/1x1
I0714 20:58:59.353946 10618 net.cpp:141] Setting up inception_4a/output_inception_4a/output_0_split
I0714 20:58:59.353960 10618 net.cpp:148] Top shape: 10 512 14 14 (1003520)
I0714 20:58:59.353965 10618 net.cpp:148] Top shape: 10 512 14 14 (1003520)
I0714 20:58:59.353971 10618 net.cpp:148] Top shape: 10 512 14 14 (1003520)
I0714 20:58:59.353977 10618 net.cpp:148] Top shape: 10 512 14 14 (1003520)
I0714 20:58:59.353981 10618 net.cpp:156] Memory required for data: 389616640
I0714 20:58:59.353986 10618 layer_factory.hpp:77] Creating layer inception_4b/1x1
I0714 20:58:59.354004 10618 net.cpp:91] Creating Layer inception_4b/1x1
I0714 20:58:59.354010 10618 net.cpp:425] inception_4b/1x1 <- inception_4a/output_inception_4a/output_0_split_0
I0714 20:58:59.354022 10618 net.cpp:399] inception_4b/1x1 -> inception_4b/1x1
I0714 20:58:59.358189 10614 net.cpp:141] Setting up inception_4b/1x1
I0714 20:58:59.358209 10614 net.cpp:148] Top shape: 10 160 14 14 (313600)
I0714 20:58:59.358214 10614 net.cpp:156] Memory required for data: 390871040
I0714 20:58:59.358224 10614 layer_factory.hpp:77] Creating layer inception_4b/relu_1x1
I0714 20:58:59.358235 10614 net.cpp:91] Creating Layer inception_4b/relu_1x1
I0714 20:58:59.358242 10614 net.cpp:425] inception_4b/relu_1x1 <- inception_4b/1x1
I0714 20:58:59.358253 10614 net.cpp:386] inception_4b/relu_1x1 -> inception_4b/1x1 (in-place)
I0714 20:58:59.358556 10618 net.cpp:141] Setting up inception_4b/1x1
I0714 20:58:59.358572 10618 net.cpp:148] Top shape: 10 160 14 14 (313600)
I0714 20:58:59.358577 10618 net.cpp:156] Memory required for data: 390871040
I0714 20:58:59.358587 10618 layer_factory.hpp:77] Creating layer inception_4b/relu_1x1
I0714 20:58:59.358597 10618 net.cpp:91] Creating Layer inception_4b/relu_1x1
I0714 20:58:59.358603 10618 net.cpp:425] inception_4b/relu_1x1 <- inception_4b/1x1
I0714 20:58:59.358613 10618 net.cpp:386] inception_4b/relu_1x1 -> inception_4b/1x1 (in-place)
I0714 20:58:59.358624 10614 net.cpp:141] Setting up inception_4b/relu_1x1
I0714 20:58:59.358639 10614 net.cpp:148] Top shape: 10 160 14 14 (313600)
I0714 20:58:59.358644 10614 net.cpp:156] Memory required for data: 392125440
I0714 20:58:59.358649 10614 layer_factory.hpp:77] Creating layer inception_4b/3x3_reduce
I0714 20:58:59.358669 10614 net.cpp:91] Creating Layer inception_4b/3x3_reduce
I0714 20:58:59.358675 10614 net.cpp:425] inception_4b/3x3_reduce <- inception_4a/output_inception_4a/output_0_split_1
I0714 20:58:59.358696 10614 net.cpp:399] inception_4b/3x3_reduce -> inception_4b/3x3_reduce
I0714 20:58:59.359045 10618 net.cpp:141] Setting up inception_4b/relu_1x1
I0714 20:58:59.359058 10618 net.cpp:148] Top shape: 10 160 14 14 (313600)
I0714 20:58:59.359063 10618 net.cpp:156] Memory required for data: 392125440
I0714 20:58:59.359069 10618 layer_factory.hpp:77] Creating layer inception_4b/3x3_reduce
I0714 20:58:59.359086 10618 net.cpp:91] Creating Layer inception_4b/3x3_reduce
I0714 20:58:59.359092 10618 net.cpp:425] inception_4b/3x3_reduce <- inception_4a/output_inception_4a/output_0_split_1
I0714 20:58:59.359102 10618 net.cpp:399] inception_4b/3x3_reduce -> inception_4b/3x3_reduce
I0714 20:58:59.363343 10614 net.cpp:141] Setting up inception_4b/3x3_reduce
I0714 20:58:59.363360 10614 net.cpp:148] Top shape: 10 112 14 14 (219520)
I0714 20:58:59.363366 10614 net.cpp:156] Memory required for data: 393003520
I0714 20:58:59.363376 10614 layer_factory.hpp:77] Creating layer inception_4b/relu_3x3_reduce
I0714 20:58:59.363385 10614 net.cpp:91] Creating Layer inception_4b/relu_3x3_reduce
I0714 20:58:59.363394 10614 net.cpp:425] inception_4b/relu_3x3_reduce <- inception_4b/3x3_reduce
I0714 20:58:59.363407 10614 net.cpp:386] inception_4b/relu_3x3_reduce -> inception_4b/3x3_reduce (in-place)
I0714 20:58:59.363747 10618 net.cpp:141] Setting up inception_4b/3x3_reduce
I0714 20:58:59.363764 10618 net.cpp:148] Top shape: 10 112 14 14 (219520)
I0714 20:58:59.363768 10618 net.cpp:156] Memory required for data: 393003520
I0714 20:58:59.363778 10618 layer_factory.hpp:77] Creating layer inception_4b/relu_3x3_reduce
I0714 20:58:59.363783 10614 net.cpp:141] Setting up inception_4b/relu_3x3_reduce
I0714 20:58:59.363790 10618 net.cpp:91] Creating Layer inception_4b/relu_3x3_reduce
I0714 20:58:59.363796 10614 net.cpp:148] Top shape: 10 112 14 14 (219520)
I0714 20:58:59.363797 10618 net.cpp:425] inception_4b/relu_3x3_reduce <- inception_4b/3x3_reduce
I0714 20:58:59.363806 10614 net.cpp:156] Memory required for data: 393881600
I0714 20:58:59.363812 10614 layer_factory.hpp:77] Creating layer inception_4b/3x3
I0714 20:58:59.363813 10618 net.cpp:386] inception_4b/relu_3x3_reduce -> inception_4b/3x3_reduce (in-place)
I0714 20:58:59.363829 10614 net.cpp:91] Creating Layer inception_4b/3x3
I0714 20:58:59.363837 10614 net.cpp:425] inception_4b/3x3 <- inception_4b/3x3_reduce
I0714 20:58:59.363849 10614 net.cpp:399] inception_4b/3x3 -> inception_4b/3x3
I0714 20:58:59.364261 10618 net.cpp:141] Setting up inception_4b/relu_3x3_reduce
I0714 20:58:59.364274 10618 net.cpp:148] Top shape: 10 112 14 14 (219520)
I0714 20:58:59.364279 10618 net.cpp:156] Memory required for data: 393881600
I0714 20:58:59.364285 10618 layer_factory.hpp:77] Creating layer inception_4b/3x3
I0714 20:58:59.364305 10618 net.cpp:91] Creating Layer inception_4b/3x3
I0714 20:58:59.364312 10618 net.cpp:425] inception_4b/3x3 <- inception_4b/3x3_reduce
I0714 20:58:59.364321 10618 net.cpp:399] inception_4b/3x3 -> inception_4b/3x3
I0714 20:58:59.372723 10614 net.cpp:141] Setting up inception_4b/3x3
I0714 20:58:59.372745 10614 net.cpp:148] Top shape: 10 224 14 14 (439040)
I0714 20:58:59.372750 10614 net.cpp:156] Memory required for data: 395637760
I0714 20:58:59.372761 10614 layer_factory.hpp:77] Creating layer inception_4b/relu_3x3
I0714 20:58:59.372769 10614 net.cpp:91] Creating Layer inception_4b/relu_3x3
I0714 20:58:59.372776 10614 net.cpp:425] inception_4b/relu_3x3 <- inception_4b/3x3
I0714 20:58:59.372786 10614 net.cpp:386] inception_4b/relu_3x3 -> inception_4b/3x3 (in-place)
I0714 20:58:59.374276 10614 net.cpp:141] Setting up inception_4b/relu_3x3
I0714 20:58:59.374294 10614 net.cpp:148] Top shape: 10 224 14 14 (439040)
I0714 20:58:59.374300 10614 net.cpp:156] Memory required for data: 397393920
I0714 20:58:59.374305 10614 layer_factory.hpp:77] Creating layer inception_4b/5x5_reduce
I0714 20:58:59.374338 10614 net.cpp:91] Creating Layer inception_4b/5x5_reduce
I0714 20:58:59.374346 10614 net.cpp:425] inception_4b/5x5_reduce <- inception_4a/output_inception_4a/output_0_split_2
I0714 20:58:59.374356 10614 net.cpp:399] inception_4b/5x5_reduce -> inception_4b/5x5_reduce
I0714 20:58:59.374392 10618 net.cpp:141] Setting up inception_4b/3x3
I0714 20:58:59.374409 10618 net.cpp:148] Top shape: 10 224 14 14 (439040)
I0714 20:58:59.374414 10618 net.cpp:156] Memory required for data: 395637760
I0714 20:58:59.374424 10618 layer_factory.hpp:77] Creating layer inception_4b/relu_3x3
I0714 20:58:59.374438 10618 net.cpp:91] Creating Layer inception_4b/relu_3x3
I0714 20:58:59.374444 10618 net.cpp:425] inception_4b/relu_3x3 <- inception_4b/3x3
I0714 20:58:59.374451 10618 net.cpp:386] inception_4b/relu_3x3 -> inception_4b/3x3 (in-place)
I0714 20:58:59.375469 10618 net.cpp:141] Setting up inception_4b/relu_3x3
I0714 20:58:59.375486 10618 net.cpp:148] Top shape: 10 224 14 14 (439040)
I0714 20:58:59.375491 10618 net.cpp:156] Memory required for data: 397393920
I0714 20:58:59.375497 10618 layer_factory.hpp:77] Creating layer inception_4b/5x5_reduce
I0714 20:58:59.375530 10618 net.cpp:91] Creating Layer inception_4b/5x5_reduce
I0714 20:58:59.375536 10618 net.cpp:425] inception_4b/5x5_reduce <- inception_4a/output_inception_4a/output_0_split_2
I0714 20:58:59.375550 10618 net.cpp:399] inception_4b/5x5_reduce -> inception_4b/5x5_reduce
I0714 20:58:59.380067 10614 net.cpp:141] Setting up inception_4b/5x5_reduce
I0714 20:58:59.380092 10614 net.cpp:148] Top shape: 10 24 14 14 (47040)
I0714 20:58:59.380098 10614 net.cpp:156] Memory required for data: 397582080
I0714 20:58:59.380110 10614 layer_factory.hpp:77] Creating layer inception_4b/relu_5x5_reduce
I0714 20:58:59.380121 10614 net.cpp:91] Creating Layer inception_4b/relu_5x5_reduce
I0714 20:58:59.380127 10614 net.cpp:425] inception_4b/relu_5x5_reduce <- inception_4b/5x5_reduce
I0714 20:58:59.380136 10614 net.cpp:386] inception_4b/relu_5x5_reduce -> inception_4b/5x5_reduce (in-place)
I0714 20:58:59.380560 10614 net.cpp:141] Setting up inception_4b/relu_5x5_reduce
I0714 20:58:59.380576 10614 net.cpp:148] Top shape: 10 24 14 14 (47040)
I0714 20:58:59.380581 10614 net.cpp:156] Memory required for data: 397770240
I0714 20:58:59.380587 10614 layer_factory.hpp:77] Creating layer inception_4b/5x5
I0714 20:58:59.380605 10614 net.cpp:91] Creating Layer inception_4b/5x5
I0714 20:58:59.380612 10614 net.cpp:425] inception_4b/5x5 <- inception_4b/5x5_reduce
I0714 20:58:59.380625 10614 net.cpp:399] inception_4b/5x5 -> inception_4b/5x5
I0714 20:58:59.380657 10618 net.cpp:141] Setting up inception_4b/5x5_reduce
I0714 20:58:59.380676 10618 net.cpp:148] Top shape: 10 24 14 14 (47040)
I0714 20:58:59.380681 10618 net.cpp:156] Memory required for data: 397582080
I0714 20:58:59.380692 10618 layer_factory.hpp:77] Creating layer inception_4b/relu_5x5_reduce
I0714 20:58:59.380702 10618 net.cpp:91] Creating Layer inception_4b/relu_5x5_reduce
I0714 20:58:59.380707 10618 net.cpp:425] inception_4b/relu_5x5_reduce <- inception_4b/5x5_reduce
I0714 20:58:59.380714 10618 net.cpp:386] inception_4b/relu_5x5_reduce -> inception_4b/5x5_reduce (in-place)
I0714 20:58:59.381186 10618 net.cpp:141] Setting up inception_4b/relu_5x5_reduce
I0714 20:58:59.381199 10618 net.cpp:148] Top shape: 10 24 14 14 (47040)
I0714 20:58:59.381203 10618 net.cpp:156] Memory required for data: 397770240
I0714 20:58:59.381209 10618 layer_factory.hpp:77] Creating layer inception_4b/5x5
I0714 20:58:59.381225 10618 net.cpp:91] Creating Layer inception_4b/5x5
I0714 20:58:59.381232 10618 net.cpp:425] inception_4b/5x5 <- inception_4b/5x5_reduce
I0714 20:58:59.381245 10618 net.cpp:399] inception_4b/5x5 -> inception_4b/5x5
I0714 20:58:59.388532 10614 net.cpp:141] Setting up inception_4b/5x5
I0714 20:58:59.388551 10614 net.cpp:148] Top shape: 10 64 14 14 (125440)
I0714 20:58:59.388557 10614 net.cpp:156] Memory required for data: 398272000
I0714 20:58:59.388567 10614 layer_factory.hpp:77] Creating layer inception_4b/relu_5x5
I0714 20:58:59.388581 10614 net.cpp:91] Creating Layer inception_4b/relu_5x5
I0714 20:58:59.388587 10614 net.cpp:425] inception_4b/relu_5x5 <- inception_4b/5x5
I0714 20:58:59.388595 10614 net.cpp:386] inception_4b/relu_5x5 -> inception_4b/5x5 (in-place)
I0714 20:58:59.389006 10618 net.cpp:141] Setting up inception_4b/5x5
I0714 20:58:59.389022 10618 net.cpp:148] Top shape: 10 64 14 14 (125440)
I0714 20:58:59.389029 10618 net.cpp:156] Memory required for data: 398272000
I0714 20:58:59.389027 10614 net.cpp:141] Setting up inception_4b/relu_5x5
I0714 20:58:59.389039 10618 layer_factory.hpp:77] Creating layer inception_4b/relu_5x5
I0714 20:58:59.389040 10614 net.cpp:148] Top shape: 10 64 14 14 (125440)
I0714 20:58:59.389046 10614 net.cpp:156] Memory required for data: 398773760
I0714 20:58:59.389051 10614 layer_factory.hpp:77] Creating layer inception_4b/pool
I0714 20:58:59.389052 10618 net.cpp:91] Creating Layer inception_4b/relu_5x5
I0714 20:58:59.389060 10618 net.cpp:425] inception_4b/relu_5x5 <- inception_4b/5x5
I0714 20:58:59.389067 10614 net.cpp:91] Creating Layer inception_4b/pool
I0714 20:58:59.389068 10618 net.cpp:386] inception_4b/relu_5x5 -> inception_4b/5x5 (in-place)
I0714 20:58:59.389078 10614 net.cpp:425] inception_4b/pool <- inception_4a/output_inception_4a/output_0_split_3
I0714 20:58:59.389091 10614 net.cpp:399] inception_4b/pool -> inception_4b/pool
I0714 20:58:59.389403 10614 net.cpp:141] Setting up inception_4b/pool
I0714 20:58:59.389415 10614 net.cpp:148] Top shape: 10 512 14 14 (1003520)
I0714 20:58:59.389420 10614 net.cpp:156] Memory required for data: 402787840
I0714 20:58:59.389425 10614 layer_factory.hpp:77] Creating layer inception_4b/pool_proj
I0714 20:58:59.389446 10614 net.cpp:91] Creating Layer inception_4b/pool_proj
I0714 20:58:59.389452 10614 net.cpp:425] inception_4b/pool_proj <- inception_4b/pool
I0714 20:58:59.389462 10614 net.cpp:399] inception_4b/pool_proj -> inception_4b/pool_proj
I0714 20:58:59.389477 10618 net.cpp:141] Setting up inception_4b/relu_5x5
I0714 20:58:59.389492 10618 net.cpp:148] Top shape: 10 64 14 14 (125440)
I0714 20:58:59.389497 10618 net.cpp:156] Memory required for data: 398773760
I0714 20:58:59.389502 10618 layer_factory.hpp:77] Creating layer inception_4b/pool
I0714 20:58:59.389510 10618 net.cpp:91] Creating Layer inception_4b/pool
I0714 20:58:59.389516 10618 net.cpp:425] inception_4b/pool <- inception_4a/output_inception_4a/output_0_split_3
I0714 20:58:59.389528 10618 net.cpp:399] inception_4b/pool -> inception_4b/pool
I0714 20:58:59.389801 10618 net.cpp:141] Setting up inception_4b/pool
I0714 20:58:59.389814 10618 net.cpp:148] Top shape: 10 512 14 14 (1003520)
I0714 20:58:59.389819 10618 net.cpp:156] Memory required for data: 402787840
I0714 20:58:59.389824 10618 layer_factory.hpp:77] Creating layer inception_4b/pool_proj
I0714 20:58:59.389842 10618 net.cpp:91] Creating Layer inception_4b/pool_proj
I0714 20:58:59.389848 10618 net.cpp:425] inception_4b/pool_proj <- inception_4b/pool
I0714 20:58:59.389859 10618 net.cpp:399] inception_4b/pool_proj -> inception_4b/pool_proj
I0714 20:58:59.393654 10614 net.cpp:141] Setting up inception_4b/pool_proj
I0714 20:58:59.393673 10614 net.cpp:148] Top shape: 10 64 14 14 (125440)
I0714 20:58:59.393679 10614 net.cpp:156] Memory required for data: 403289600
I0714 20:58:59.393689 10614 layer_factory.hpp:77] Creating layer inception_4b/relu_pool_proj
I0714 20:58:59.393703 10614 net.cpp:91] Creating Layer inception_4b/relu_pool_proj
I0714 20:58:59.393710 10614 net.cpp:425] inception_4b/relu_pool_proj <- inception_4b/pool_proj
I0714 20:58:59.393718 10614 net.cpp:386] inception_4b/relu_pool_proj -> inception_4b/pool_proj (in-place)
I0714 20:58:59.395076 10614 net.cpp:141] Setting up inception_4b/relu_pool_proj
I0714 20:58:59.395093 10614 net.cpp:148] Top shape: 10 64 14 14 (125440)
I0714 20:58:59.395098 10614 net.cpp:156] Memory required for data: 403791360
I0714 20:58:59.395104 10614 layer_factory.hpp:77] Creating layer inception_4b/output
I0714 20:58:59.395125 10614 net.cpp:91] Creating Layer inception_4b/output
I0714 20:58:59.395126 10618 net.cpp:141] Setting up inception_4b/pool_proj
I0714 20:58:59.395133 10614 net.cpp:425] inception_4b/output <- inception_4b/1x1
I0714 20:58:59.395148 10618 net.cpp:148] Top shape: 10 64 14 14 (125440)
I0714 20:58:59.395150 10614 net.cpp:425] inception_4b/output <- inception_4b/3x3
I0714 20:58:59.395153 10618 net.cpp:156] Memory required for data: 403289600
I0714 20:58:59.395158 10614 net.cpp:425] inception_4b/output <- inception_4b/5x5
I0714 20:58:59.395164 10618 layer_factory.hpp:77] Creating layer inception_4b/relu_pool_proj
I0714 20:58:59.395164 10614 net.cpp:425] inception_4b/output <- inception_4b/pool_proj
I0714 20:58:59.395174 10618 net.cpp:91] Creating Layer inception_4b/relu_pool_proj
I0714 20:58:59.395176 10614 net.cpp:399] inception_4b/output -> inception_4b/output
I0714 20:58:59.395181 10618 net.cpp:425] inception_4b/relu_pool_proj <- inception_4b/pool_proj
I0714 20:58:59.395190 10618 net.cpp:386] inception_4b/relu_pool_proj -> inception_4b/pool_proj (in-place)
I0714 20:58:59.395998 10614 net.cpp:141] Setting up inception_4b/output
I0714 20:58:59.396009 10614 net.cpp:148] Top shape: 10 512 14 14 (1003520)
I0714 20:58:59.396014 10614 net.cpp:156] Memory required for data: 407805440
I0714 20:58:59.396020 10614 layer_factory.hpp:77] Creating layer inception_4b/output_inception_4b/output_0_split
I0714 20:58:59.396034 10614 net.cpp:91] Creating Layer inception_4b/output_inception_4b/output_0_split
I0714 20:58:59.396040 10614 net.cpp:425] inception_4b/output_inception_4b/output_0_split <- inception_4b/output
I0714 20:58:59.396051 10614 net.cpp:399] inception_4b/output_inception_4b/output_0_split -> inception_4b/output_inception_4b/output_0_split_0
I0714 20:58:59.396061 10614 net.cpp:399] inception_4b/output_inception_4b/output_0_split -> inception_4b/output_inception_4b/output_0_split_1
I0714 20:58:59.396070 10614 net.cpp:399] inception_4b/output_inception_4b/output_0_split -> inception_4b/output_inception_4b/output_0_split_2
I0714 20:58:59.396080 10614 net.cpp:399] inception_4b/output_inception_4b/output_0_split -> inception_4b/output_inception_4b/output_0_split_3
I0714 20:58:59.396109 10618 net.cpp:141] Setting up inception_4b/relu_pool_proj
I0714 20:58:59.396123 10618 net.cpp:148] Top shape: 10 64 14 14 (125440)
I0714 20:58:59.396128 10618 net.cpp:156] Memory required for data: 403791360
I0714 20:58:59.396134 10618 layer_factory.hpp:77] Creating layer inception_4b/output
I0714 20:58:59.396144 10618 net.cpp:91] Creating Layer inception_4b/output
I0714 20:58:59.396149 10618 net.cpp:425] inception_4b/output <- inception_4b/1x1
I0714 20:58:59.396157 10618 net.cpp:425] inception_4b/output <- inception_4b/3x3
I0714 20:58:59.396162 10618 net.cpp:425] inception_4b/output <- inception_4b/5x5
I0714 20:58:59.396168 10618 net.cpp:425] inception_4b/output <- inception_4b/pool_proj
I0714 20:58:59.396174 10618 net.cpp:399] inception_4b/output -> inception_4b/output
I0714 20:58:59.396329 10618 net.cpp:141] Setting up inception_4b/output
I0714 20:58:59.396342 10618 net.cpp:148] Top shape: 10 512 14 14 (1003520)
I0714 20:58:59.396347 10618 net.cpp:156] Memory required for data: 407805440
I0714 20:58:59.396352 10618 layer_factory.hpp:77] Creating layer inception_4b/output_inception_4b/output_0_split
…
I0714 20:58:59.528426 10618 net.cpp:141] Setting up inception_4e/relu_5x5_reduce
I0714 20:58:59.528440 10618 net.cpp:148] Top shape: 10 32 14 14 (62720)
I0714 20:58:59.528445 10618 net.cpp:156] Memory required for data: 506150400
I0714 20:58:59.528451 10618 layer_factory.hpp:77] Creating layer inception_4e/5x5
I0714 20:58:59.528467 10618 net.cpp:91] Creating Layer inception_4e/5x5
I0714 20:58:59.528475 10618 net.cpp:425] inception_4e/5x5 <- inception_4e/5x5_reduce
I0714 20:58:59.528489 10618 net.cpp:399] inception_4e/5x5 -> inception_4e/5x5
I0714 20:58:59.536697 10614 net.cpp:141] Setting up inception_4e/5x5
I0714 20:58:59.536723 10614 net.cpp:148] Top shape: 10 128 14 14 (250880)
I0714 20:58:59.536730 10614 net.cpp:156] Memory required for data: 507153920
I0714 20:58:59.536741 10614 layer_factory.hpp:77] Creating layer inception_4e/relu_5x5
I0714 20:58:59.536752 10614 net.cpp:91] Creating Layer inception_4e/relu_5x5
I0714 20:58:59.536758 10614 net.cpp:425] inception_4e/relu_5x5 <- inception_4e/5x5
I0714 20:58:59.536772 10614 net.cpp:386] inception_4e/relu_5x5 -> inception_4e/5x5 (in-place)
I0714 20:58:59.537236 10618 net.cpp:141] Setting up inception_4e/5x5
I0714 20:58:59.537255 10618 net.cpp:148] Top shape: 10 128 14 14 (250880)
I0714 20:58:59.537261 10618 net.cpp:156] Memory required for data: 507153920
I0714 20:58:59.537261 10614 net.cpp:141] Setting up inception_4e/relu_5x5
I0714 20:58:59.537271 10618 layer_factory.hpp:77] Creating layer inception_4e/relu_5x5
I0714 20:58:59.537277 10614 net.cpp:148] Top shape: 10 128 14 14 (250880)
I0714 20:58:59.537283 10614 net.cpp:156] Memory required for data: 508157440
I0714 20:58:59.537286 10618 net.cpp:91] Creating Layer inception_4e/relu_5x5
I0714 20:58:59.537289 10614 layer_factory.hpp:77] Creating layer inception_4e/pool
I0714 20:58:59.537293 10618 net.cpp:425] inception_4e/relu_5x5 <- inception_4e/5x5
I0714 20:58:59.537302 10618 net.cpp:386] inception_4e/relu_5x5 -> inception_4e/5x5 (in-place)
I0714 20:58:59.537302 10614 net.cpp:91] Creating Layer inception_4e/pool
I0714 20:58:59.537322 10614 net.cpp:425] inception_4e/pool <- inception_4d/output_inception_4d/output_0_split_3
I0714 20:58:59.537331 10614 net.cpp:399] inception_4e/pool -> inception_4e/pool
I0714 20:58:59.537672 10614 net.cpp:141] Setting up inception_4e/pool
I0714 20:58:59.537686 10614 net.cpp:148] Top shape: 10 528 14 14 (1034880)
I0714 20:58:59.537691 10614 net.cpp:156] Memory required for data: 512296960
I0714 20:58:59.537696 10614 layer_factory.hpp:77] Creating layer inception_4e/pool_proj
I0714 20:58:59.537715 10614 net.cpp:91] Creating Layer inception_4e/pool_proj
I0714 20:58:59.537722 10614 net.cpp:425] inception_4e/pool_proj <- inception_4e/pool
I0714 20:58:59.537732 10614 net.cpp:399] inception_4e/pool_proj -> inception_4e/pool_proj
I0714 20:58:59.537755 10618 net.cpp:141] Setting up inception_4e/relu_5x5
I0714 20:58:59.537770 10618 net.cpp:148] Top shape: 10 128 14 14 (250880)
I0714 20:58:59.537775 10618 net.cpp:156] Memory required for data: 508157440
I0714 20:58:59.537780 10618 layer_factory.hpp:77] Creating layer inception_4e/pool
I0714 20:58:59.537789 10618 net.cpp:91] Creating Layer inception_4e/pool
I0714 20:58:59.537796 10618 net.cpp:425] inception_4e/pool <- inception_4d/output_inception_4d/output_0_split_3
I0714 20:58:59.537806 10618 net.cpp:399] inception_4e/pool -> inception_4e/pool
I0714 20:58:59.538177 10618 net.cpp:141] Setting up inception_4e/pool
I0714 20:58:59.538189 10618 net.cpp:148] Top shape: 10 528 14 14 (1034880)
I0714 20:58:59.538193 10618 net.cpp:156] Memory required for data: 512296960
I0714 20:58:59.538199 10618 layer_factory.hpp:77] Creating layer inception_4e/pool_proj
I0714 20:58:59.538218 10618 net.cpp:91] Creating Layer inception_4e/pool_proj
I0714 20:58:59.538225 10618 net.cpp:425] inception_4e/pool_proj <- inception_4e/pool
I0714 20:58:59.538235 10618 net.cpp:399] inception_4e/pool_proj -> inception_4e/pool_proj
I0714 20:58:59.543143 10614 net.cpp:141] Setting up inception_4e/pool_proj
I0714 20:58:59.543165 10614 net.cpp:148] Top shape: 10 128 14 14 (250880)
I0714 20:58:59.543170 10614 net.cpp:156] Memory required for data: 513300480
I0714 20:58:59.543181 10614 layer_factory.hpp:77] Creating layer inception_4e/relu_pool_proj
I0714 20:58:59.543195 10614 net.cpp:91] Creating Layer inception_4e/relu_pool_proj
I0714 20:58:59.543201 10614 net.cpp:425] inception_4e/relu_pool_proj <- inception_4e/pool_proj
I0714 20:58:59.543210 10614 net.cpp:386] inception_4e/relu_pool_proj -> inception_4e/pool_proj (in-place)
I0714 20:58:59.544314 10614 net.cpp:141] Setting up inception_4e/relu_pool_proj
I0714 20:58:59.544332 10614 net.cpp:148] Top shape: 10 128 14 14 (250880)
I0714 20:58:59.544337 10614 net.cpp:156] Memory required for data: 514304000
I0714 20:58:59.544342 10614 layer_factory.hpp:77] Creating layer inception_4e/output
I0714 20:58:59.544358 10614 net.cpp:91] Creating Layer inception_4e/output
I0714 20:58:59.544365 10614 net.cpp:425] inception_4e/output <- inception_4e/1x1
I0714 20:58:59.544373 10614 net.cpp:425] inception_4e/output <- inception_4e/3x3
I0714 20:58:59.544379 10614 net.cpp:425] inception_4e/output <- inception_4e/5x5
I0714 20:58:59.544385 10614 net.cpp:425] inception_4e/output <- inception_4e/pool_proj
I0714 20:58:59.544392 10614 net.cpp:399] inception_4e/output -> inception_4e/output
I0714 20:58:59.544392 10618 net.cpp:141] Setting up inception_4e/pool_proj
I0714 20:58:59.544409 10618 net.cpp:148] Top shape: 10 128 14 14 (250880)
I0714 20:58:59.544415 10618 net.cpp:156] Memory required for data: 513300480
I0714 20:58:59.544425 10618 layer_factory.hpp:77] Creating layer inception_4e/relu_pool_proj
I0714 20:58:59.544438 10618 net.cpp:91] Creating Layer inception_4e/relu_pool_proj
I0714 20:58:59.544445 10618 net.cpp:425] inception_4e/relu_pool_proj <- inception_4e/pool_proj
I0714 20:58:59.544453 10618 net.cpp:386] inception_4e/relu_pool_proj -> inception_4e/pool_proj (in-place)
I0714 20:58:59.544499 10614 net.cpp:141] Setting up inception_4e/output
I0714 20:58:59.544514 10614 net.cpp:148] Top shape: 10 832 14 14 (1630720)
I0714 20:58:59.544518 10614 net.cpp:156] Memory required for data: 520826880
I0714 20:58:59.544524 10614 layer_factory.hpp:77] Creating layer pool4/3x3_s2
I0714 20:58:59.544533 10614 net.cpp:91] Creating Layer pool4/3x3_s2
I0714 20:58:59.544539 10614 net.cpp:425] pool4/3x3_s2 <- inception_4e/output
I0714 20:58:59.544548 10614 net.cpp:399] pool4/3x3_s2 -> pool4/3x3_s2
I0714 20:58:59.545410 10614 net.cpp:141] Setting up pool4/3x3_s2
I0714 20:58:59.545423 10614 net.cpp:148] Top shape: 10 832 7 7 (407680)
I0714 20:58:59.545428 10614 net.cpp:156] Memory required for data: 522457600
I0714 20:58:59.545433 10614 layer_factory.hpp:77] Creating layer pool4/3x3_s2_pool4/3x3_s2_0_split
I0714 20:58:59.545446 10614 net.cpp:91] Creating Layer pool4/3x3_s2_pool4/3x3_s2_0_split
I0714 20:58:59.545452 10614 net.cpp:425] pool4/3x3_s2_pool4/3x3_s2_0_split <- pool4/3x3_s2
I0714 20:58:59.545460 10614 net.cpp:399] pool4/3x3_s2_pool4/3x3_s2_0_split -> pool4/3x3_s2_pool4/3x3_s2_0_split_0
I0714 20:58:59.545469 10614 net.cpp:399] pool4/3x3_s2_pool4/3x3_s2_0_split -> pool4/3x3_s2_pool4/3x3_s2_0_split_1
I0714 20:58:59.545478 10614 net.cpp:399] pool4/3x3_s2_pool4/3x3_s2_0_split -> pool4/3x3_s2_pool4/3x3_s2_0_split_2
I0714 20:58:59.545486 10614 net.cpp:399] pool4/3x3_s2_pool4/3x3_s2_0_split -> pool4/3x3_s2_pool4/3x3_s2_0_split_3
I0714 20:58:59.545493 10618 net.cpp:141] Setting up inception_4e/relu_pool_proj
I0714 20:58:59.545509 10618 net.cpp:148] Top shape: 10 128 14 14 (250880)
I0714 20:58:59.545514 10618 net.cpp:156] Memory required for data: 514304000
I0714 20:58:59.545519 10618 layer_factory.hpp:77] Creating layer inception_4e/output
I0714 20:58:59.545532 10618 net.cpp:91] Creating Layer inception_4e/output
I0714 20:58:59.545539 10618 net.cpp:425] inception_4e/output <- inception_4e/1x1
I0714 20:58:59.545547 10618 net.cpp:425] inception_4e/output <- inception_4e/3x3
I0714 20:58:59.545552 10618 net.cpp:425] inception_4e/output <- inception_4e/5x5
I0714 20:58:59.545558 10618 net.cpp:425] inception_4e/output <- inception_4e/pool_proj
I0714 20:58:59.545565 10618 net.cpp:399] inception_4e/output -> inception_4e/output
I0714 20:58:59.545758 10618 net.cpp:141] Setting up inception_4e/output
I0714 20:58:59.545771 10618 net.cpp:148] Top shape: 10 832 14 14 (1630720)
I0714 20:58:59.545778 10618 net.cpp:156] Memory required for data: 520826880
I0714 20:58:59.545783 10618 layer_factory.hpp:77] Creating layer pool4/3x3_s2
I0714 20:58:59.545794 10618 net.cpp:91] Creating Layer pool4/3x3_s2
I0714 20:58:59.545801 10618 net.cpp:425] pool4/3x3_s2 <- inception_4e/output
I0714 20:58:59.545812 10618 net.cpp:399] pool4/3x3_s2 -> pool4/3x3_s2
I0714 20:58:59.545855 10614 net.cpp:141] Setting up pool4/3x3_s2_pool4/3x3_s2_0_split
I0714 20:58:59.545868 10614 net.cpp:148] Top shape: 10 832 7 7 (407680)
I0714 20:58:59.545874 10614 net.cpp:148] Top shape: 10 832 7 7 (407680)
I0714 20:58:59.545879 10614 net.cpp:148] Top shape: 10 832 7 7 (407680)
I0714 20:58:59.545886 10614 net.cpp:148] Top shape: 10 832 7 7 (407680)
I0714 20:58:59.545889 10614 net.cpp:156] Memory required for data: 528980480
I0714 20:58:59.545894 10614 layer_factory.hpp:77] Creating layer inception_5a/1x1
I0714 20:58:59.545913 10614 net.cpp:91] Creating Layer inception_5a/1x1
I0714 20:58:59.545920 10614 net.cpp:425] inception_5a/1x1 <- pool4/3x3_s2_pool4/3x3_s2_0_split_0
I0714 20:58:59.545930 10614 net.cpp:399] inception_5a/1x1 -> inception_5a/1x1
I0714 20:58:59.546037 10618 net.cpp:141] Setting up pool4/3x3_s2
I0714 20:58:59.546051 10618 net.cpp:148] Top shape: 10 832 7 7 (407680)
I0714 20:58:59.546054 10618 net.cpp:156] Memory required for data: 522457600
I0714 20:58:59.546061 10618 layer_factory.hpp:77] Creating layer pool4/3x3_s2_pool4/3x3_s2_0_split
I0714 20:58:59.546072 10618 net.cpp:91] Creating Layer pool4/3x3_s2_pool4/3x3_s2_0_split
I0714 20:58:59.546078 10618 net.cpp:425] pool4/3x3_s2_pool4/3x3_s2_0_split <- pool4/3x3_s2
I0714 20:58:59.546088 10618 net.cpp:399] pool4/3x3_s2_pool4/3x3_s2_0_split -> pool4/3x3_s2_pool4/3x3_s2_0_split_0
I0714 20:58:59.546098 10618 net.cpp:399] pool4/3x3_s2_pool4/3x3_s2_0_split -> pool4/3x3_s2_pool4/3x3_s2_0_split_1
I0714 20:58:59.546108 10618 net.cpp:399] pool4/3x3_s2_pool4/3x3_s2_0_split -> pool4/3x3_s2_pool4/3x3_s2_0_split_2
I0714 20:58:59.546116 10618 net.cpp:399] pool4/3x3_s2_pool4/3x3_s2_0_split -> pool4/3x3_s2_pool4/3x3_s2_0_split_3
I0714 20:58:59.546792 10618 net.cpp:141] Setting up pool4/3x3_s2_pool4/3x3_s2_0_split
I0714 20:58:59.546805 10618 net.cpp:148] Top shape: 10 832 7 7 (407680)
I0714 20:58:59.546813 10618 net.cpp:148] Top shape: 10 832 7 7 (407680)
I0714 20:58:59.546818 10618 net.cpp:148] Top shape: 10 832 7 7 (407680)
I0714 20:58:59.546823 10618 net.cpp:148] Top shape: 10 832 7 7 (407680)
I0714 20:58:59.546828 10618 net.cpp:156] Memory required for data: 528980480
I0714 20:58:59.546833 10618 layer_factory.hpp:77] Creating layer inception_5a/1x1
I0714 20:58:59.546850 10618 net.cpp:91] Creating Layer inception_5a/1x1
I0714 20:58:59.546857 10618 net.cpp:425] inception_5a/1x1 <- pool4/3x3_s2_pool4/3x3_s2_0_split_0
I0714 20:58:59.546867 10618 net.cpp:399] inception_5a/1x1 -> inception_5a/1x1
I0714 20:58:59.555882 10614 net.cpp:141] Setting up inception_5a/1x1
I0714 20:58:59.555922 10614 net.cpp:148] Top shape: 10 256 7 7 (125440)
I0714 20:58:59.555928 10614 net.cpp:156] Memory required for data: 529482240
I0714 20:58:59.555943 10614 layer_factory.hpp:77] Creating layer inception_5a/relu_1x1
I0714 20:58:59.555958 10614 net.cpp:91] Creating Layer inception_5a/relu_1x1
I0714 20:58:59.555966 10614 net.cpp:425] inception_5a/relu_1x1 <- inception_5a/1x1
I0714 20:58:59.555981 10614 net.cpp:386] inception_5a/relu_1x1 -> inception_5a/1x1 (in-place)
I0714 20:58:59.556349 10614 net.cpp:141] Setting up inception_5a/relu_1x1
I0714 20:58:59.556365 10614 net.cpp:148] Top shape: 10 256 7 7 (125440)
I0714 20:58:59.556370 10614 net.cpp:156] Memory required for data: 529984000
I0714 20:58:59.556376 10614 layer_factory.hpp:77] Creating layer inception_5a/3x3_reduce
I0714 20:58:59.556394 10614 net.cpp:91] Creating Layer inception_5a/3x3_reduce
I0714 20:58:59.556402 10614 net.cpp:425] inception_5a/3x3_reduce <- pool4/3x3_s2_pool4/3x3_s2_0_split_1
I0714 20:58:59.556416 10614 net.cpp:399] inception_5a/3x3_reduce -> inception_5a/3x3_reduce
I0714 20:58:59.561491 10618 net.cpp:141] Setting up inception_5a/1x1
I0714 20:58:59.561517 10618 net.cpp:148] Top shape: 10 256 7 7 (125440)
I0714 20:58:59.561522 10618 net.cpp:156] Memory required for data: 529482240
I0714 20:58:59.561533 10618 layer_factory.hpp:77] Creating layer inception_5a/relu_1x1
I0714 20:58:59.561547 10618 net.cpp:91] Creating Layer inception_5a/relu_1x1
I0714 20:58:59.561554 10618 net.cpp:425] inception_5a/relu_1x1 <- inception_5a/1x1
I0714 20:58:59.561563 10618 net.cpp:386] inception_5a/relu_1x1 -> inception_5a/1x1 (in-place)
I0714 20:58:59.561872 10618 net.cpp:141] Setting up inception_5a/relu_1x1
I0714 20:58:59.561885 10618 net.cpp:148] Top shape: 10 256 7 7 (125440)
I0714 20:58:59.561889 10618 net.cpp:156] Memory required for data: 529984000
I0714 20:58:59.561895 10618 layer_factory.hpp:77] Creating layer inception_5a/3x3_reduce
I0714 20:58:59.561915 10618 net.cpp:91] Creating Layer inception_5a/3x3_reduce
I0714 20:58:59.561923 10618 net.cpp:425] inception_5a/3x3_reduce <- pool4/3x3_s2_pool4/3x3_s2_0_split_1
I0714 20:58:59.561933 10618 net.cpp:399] inception_5a/3x3_reduce -> inception_5a/3x3_reduce
I0714 20:58:59.567211 10614 net.cpp:141] Setting up inception_5a/3x3_reduce
I0714 20:58:59.567245 10614 net.cpp:148] Top shape: 10 160 7 7 (78400)
I0714 20:58:59.567250 10614 net.cpp:156] Memory required for data: 530297600
I0714 20:58:59.567262 10614 layer_factory.hpp:77] Creating layer inception_5a/relu_3x3_reduce
I0714 20:58:59.567276 10614 net.cpp:91] Creating Layer inception_5a/relu_3x3_reduce
I0714 20:58:59.567283 10614 net.cpp:425] inception_5a/relu_3x3_reduce <- inception_5a/3x3_reduce
I0714 20:58:59.567296 10614 net.cpp:386] inception_5a/relu_3x3_reduce -> inception_5a/3x3_reduce (in-place)
I0714 20:58:59.567618 10614 net.cpp:141] Setting up inception_5a/relu_3x3_reduce
I0714 20:58:59.567631 10614 net.cpp:148] Top shape: 10 160 7 7 (78400)
I0714 20:58:59.567636 10614 net.cpp:156] Memory required for data: 530611200
I0714 20:58:59.567641 10614 layer_factory.hpp:77] Creating layer inception_5a/3x3
I0714 20:58:59.567664 10614 net.cpp:91] Creating Layer inception_5a/3x3
I0714 20:58:59.567672 10614 net.cpp:425] inception_5a/3x3 <- inception_5a/3x3_reduce
I0714 20:58:59.567680 10614 net.cpp:399] inception_5a/3x3 -> inception_5a/3x3
I0714 20:58:59.572625 10618 net.cpp:141] Setting up inception_5a/3x3_reduce
I0714 20:58:59.572648 10618 net.cpp:148] Top shape: 10 160 7 7 (78400)
I0714 20:58:59.572654 10618 net.cpp:156] Memory required for data: 530297600
I0714 20:58:59.572664 10618 layer_factory.hpp:77] Creating layer inception_5a/relu_3x3_reduce
I0714 20:58:59.572674 10618 net.cpp:91] Creating Layer inception_5a/relu_3x3_reduce
I0714 20:58:59.572680 10618 net.cpp:425] inception_5a/relu_3x3_reduce <- inception_5a/3x3_reduce
I0714 20:58:59.572693 10618 net.cpp:386] inception_5a/relu_3x3_reduce -> inception_5a/3x3_reduce (in-place)
I0714 20:58:59.573002 10618 net.cpp:141] Setting up inception_5a/relu_3x3_reduce
I0714 20:58:59.573014 10618 net.cpp:148] Top shape: 10 160 7 7 (78400)
I0714 20:58:59.573019 10618 net.cpp:156] Memory required for data: 530611200
I0714 20:58:59.573025 10618 layer_factory.hpp:77] Creating layer inception_5a/3x3
I0714 20:58:59.573043 10618 net.cpp:91] Creating Layer inception_5a/3x3
I0714 20:58:59.573050 10618 net.cpp:425] inception_5a/3x3 <- inception_5a/3x3_reduce
I0714 20:58:59.573060 10618 net.cpp:399] inception_5a/3x3 -> inception_5a/3x3
I0714 20:58:59.581265 10614 net.cpp:141] Setting up inception_5a/3x3
I0714 20:58:59.581301 10614 net.cpp:148] Top shape: 10 320 7 7 (156800)
I0714 20:58:59.581308 10614 net.cpp:156] Memory required for data: 531238400
I0714 20:58:59.581321 10614 layer_factory.hpp:77] Creating layer inception_5a/relu_3x3
I0714 20:58:59.581333 10614 net.cpp:91] Creating Layer inception_5a/relu_3x3
I0714 20:58:59.581341 10614 net.cpp:425] inception_5a/relu_3x3 <- inception_5a/3x3
I0714 20:58:59.581351 10614 net.cpp:386] inception_5a/relu_3x3 -> inception_5a/3x3 (in-place)
I0714 20:58:59.582828 10614 net.cpp:141] Setting up inception_5a/relu_3x3
I0714 20:58:59.582846 10614 net.cpp:148] Top shape: 10 320 7 7 (156800)
I0714 20:58:59.582852 10614 net.cpp:156] Memory required for data: 531865600
I0714 20:58:59.582857 10614 layer_factory.hpp:77] Creating layer inception_5a/5x5_reduce
I0714 20:58:59.582880 10614 net.cpp:91] Creating Layer inception_5a/5x5_reduce
I0714 20:58:59.582887 10614 net.cpp:425] inception_5a/5x5_reduce <- pool4/3x3_s2_pool4/3x3_s2_0_split_2
I0714 20:58:59.582901 10614 net.cpp:399] inception_5a/5x5_reduce -> inception_5a/5x5_reduce
I0714 20:58:59.585407 10618 net.cpp:141] Setting up inception_5a/3x3
I0714 20:58:59.585432 10618 net.cpp:148] Top shape: 10 320 7 7 (156800)
I0714 20:58:59.585438 10618 net.cpp:156] Memory required for data: 531238400
I0714 20:58:59.585449 10618 layer_factory.hpp:77] Creating layer inception_5a/relu_3x3
I0714 20:58:59.585459 10618 net.cpp:91] Creating Layer inception_5a/relu_3x3
I0714 20:58:59.585466 10618 net.cpp:425] inception_5a/relu_3x3 <- inception_5a/3x3
I0714 20:58:59.585477 10618 net.cpp:386] inception_5a/relu_3x3 -> inception_5a/3x3 (in-place)
I0714 20:58:59.586453 10618 net.cpp:141] Setting up inception_5a/relu_3x3
I0714 20:58:59.586472 10618 net.cpp:148] Top shape: 10 320 7 7 (156800)
I0714 20:58:59.586477 10618 net.cpp:156] Memory required for data: 531865600
I0714 20:58:59.586483 10618 layer_factory.hpp:77] Creating layer inception_5a/5x5_reduce
I0714 20:58:59.586499 10618 net.cpp:91] Creating Layer inception_5a/5x5_reduce
I0714 20:58:59.586506 10618 net.cpp:425] inception_5a/5x5_reduce <- pool4/3x3_s2_pool4/3x3_s2_0_split_2
I0714 20:58:59.586521 10618 net.cpp:399] inception_5a/5x5_reduce -> inception_5a/5x5_reduce
I0714 20:58:59.589108 10614 net.cpp:141] Setting up inception_5a/5x5_reduce
I0714 20:58:59.589136 10614 net.cpp:148] Top shape: 10 32 7 7 (15680)
I0714 20:58:59.589143 10614 net.cpp:156] Memory required for data: 531928320
I0714 20:58:59.589154 10614 layer_factory.hpp:77] Creating layer inception_5a/relu_5x5_reduce
I0714 20:58:59.589174 10614 net.cpp:91] Creating Layer inception_5a/relu_5x5_reduce
I0714 20:58:59.589180 10614 net.cpp:425] inception_5a/relu_5x5_reduce <- inception_5a/5x5_reduce
I0714 20:58:59.589190 10614 net.cpp:386] inception_5a/relu_5x5_reduce -> inception_5a/5x5_reduce (in-place)
I0714 20:58:59.589727 10614 net.cpp:141] Setting up inception_5a/relu_5x5_reduce
I0714 20:58:59.589742 10614 net.cpp:148] Top shape: 10 32 7 7 (15680)
I0714 20:58:59.589748 10614 net.cpp:156] Memory required for data: 531991040
I0714 20:58:59.589753 10614 layer_factory.hpp:77] Creating layer inception_5a/5x5
I0714 20:58:59.589773 10614 net.cpp:91] Creating Layer inception_5a/5x5
I0714 20:58:59.589781 10614 net.cpp:425] inception_5a/5x5 <- inception_5a/5x5_reduce
I0714 20:58:59.589794 10614 net.cpp:399] inception_5a/5x5 -> inception_5a/5x5
I0714 20:58:59.592478 10618 net.cpp:141] Setting up inception_5a/5x5_reduce
I0714 20:58:59.592501 10618 net.cpp:148] Top shape: 10 32 7 7 (15680)
I0714 20:58:59.592506 10618 net.cpp:156] Memory required for data: 531928320
I0714 20:58:59.592517 10618 layer_factory.hpp:77] Creating layer inception_5a/relu_5x5_reduce
I0714 20:58:59.592530 10618 net.cpp:91] Creating Layer inception_5a/relu_5x5_reduce
I0714 20:58:59.592537 10618 net.cpp:425] inception_5a/relu_5x5_reduce <- inception_5a/5x5_reduce
I0714 20:58:59.592548 10618 net.cpp:386] inception_5a/relu_5x5_reduce -> inception_5a/5x5_reduce (in-place)
I0714 20:58:59.592851 10618 net.cpp:141] Setting up inception_5a/relu_5x5_reduce
I0714 20:58:59.592864 10618 net.cpp:148] Top shape: 10 32 7 7 (15680)
I0714 20:58:59.592869 10618 net.cpp:156] Memory required for data: 531991040
I0714 20:58:59.592875 10618 layer_factory.hpp:77] Creating layer inception_5a/5x5
I0714 20:58:59.592891 10618 net.cpp:91] Creating Layer inception_5a/5x5
I0714 20:58:59.592898 10618 net.cpp:425] inception_5a/5x5 <- inception_5a/5x5_reduce
I0714 20:58:59.592911 10618 net.cpp:399] inception_5a/5x5 -> inception_5a/5x5
I0714 20:58:59.597672 10614 net.cpp:141] Setting up inception_5a/5x5
I0714 20:58:59.597697 10614 net.cpp:148] Top shape: 10 128 7 7 (62720)
I0714 20:58:59.597702 10614 net.cpp:156] Memory required for data: 532241920
I0714 20:58:59.597713 10614 layer_factory.hpp:77] Creating layer inception_5a/relu_5x5
I0714 20:58:59.597764 10614 net.cpp:91] Creating Layer inception_5a/relu_5x5
I0714 20:58:59.597771 10614 net.cpp:425] inception_5a/relu_5x5 <- inception_5a/5x5
I0714 20:58:59.597781 10614 net.cpp:386] inception_5a/relu_5x5 -> inception_5a/5x5 (in-place)
I0714 20:58:59.598152 10614 net.cpp:141] Setting up inception_5a/relu_5x5
I0714 20:58:59.598166 10614 net.cpp:148] Top shape: 10 128 7 7 (62720)
I0714 20:58:59.598171 10614 net.cpp:156] Memory required for data: 532492800
I0714 20:58:59.598177 10614 layer_factory.hpp:77] Creating layer inception_5a/pool
I0714 20:58:59.598189 10614 net.cpp:91] Creating Layer inception_5a/pool
I0714 20:58:59.598196 10614 net.cpp:425] inception_5a/pool <- pool4/3x3_s2_pool4/3x3_s2_0_split_3
I0714 20:58:59.598207 10614 net.cpp:399] inception_5a/pool -> inception_5a/pool
I0714 20:58:59.598783 10614 net.cpp:141] Setting up inception_5a/pool
I0714 20:58:59.598799 10614 net.cpp:148] Top shape: 10 832 7 7 (407680)
I0714 20:58:59.598804 10614 net.cpp:156] Memory required for data: 534123520
I0714 20:58:59.598810 10614 layer_factory.hpp:77] Creating layer inception_5a/pool_proj
I0714 20:58:59.598829 10614 net.cpp:91] Creating Layer inception_5a/pool_proj
I0714 20:58:59.598835 10614 net.cpp:425] inception_5a/pool_proj <- inception_5a/pool
I0714 20:58:59.598845 10614 net.cpp:399] inception_5a/pool_proj -> inception_5a/pool_proj
I0714 20:58:59.599731 10618 net.cpp:141] Setting up inception_5a/5x5
I0714 20:58:59.599753 10618 net.cpp:148] Top shape: 10 128 7 7 (62720)
I0714 20:58:59.599759 10618 net.cpp:156] Memory required for data: 532241920
I0714 20:58:59.599769 10618 layer_factory.hpp:77] Creating layer inception_5a/relu_5x5
I0714 20:58:59.599809 10618 net.cpp:91] Creating Layer inception_5a/relu_5x5
I0714 20:58:59.599817 10618 net.cpp:425] inception_5a/relu_5x5 <- inception_5a/5x5
I0714 20:58:59.599827 10618 net.cpp:386] inception_5a/relu_5x5 -> inception_5a/5x5 (in-place)
I0714 20:58:59.600683 10618 net.cpp:141] Setting up inception_5a/relu_5x5
I0714 20:58:59.600698 10618 net.cpp:148] Top shape: 10 128 7 7 (62720)
I0714 20:58:59.600704 10618 net.cpp:156] Memory required for data: 532492800
I0714 20:58:59.600710 10618 layer_factory.hpp:77] Creating layer inception_5a/pool
I0714 20:58:59.600720 10618 net.cpp:91] Creating Layer inception_5a/pool
I0714 20:58:59.600726 10618 net.cpp:425] inception_5a/pool <- pool4/3x3_s2_pool4/3x3_s2_0_split_3
I0714 20:58:59.600739 10618 net.cpp:399] inception_5a/pool -> inception_5a/pool
I0714 20:58:59.602396 10618 net.cpp:141] Setting up inception_5a/pool
I0714 20:58:59.602421 10618 net.cpp:148] Top shape: 10 832 7 7 (407680)
I0714 20:58:59.602427 10618 net.cpp:156] Memory required for data: 534123520
I0714 20:58:59.602432 10618 layer_factory.hpp:77] Creating layer inception_5a/pool_proj
I0714 20:58:59.602452 10618 net.cpp:91] Creating Layer inception_5a/pool_proj
I0714 20:58:59.602460 10618 net.cpp:425] inception_5a/pool_proj <- inception_5a/pool
I0714 20:58:59.602473 10618 net.cpp:399] inception_5a/pool_proj -> inception_5a/pool_proj
I0714 20:58:59.609133 10614 net.cpp:141] Setting up inception_5a/pool_proj
I0714 20:58:59.609163 10614 net.cpp:148] Top shape: 10 128 7 7 (62720)
I0714 20:58:59.609169 10614 net.cpp:156] Memory required for data: 534374400
I0714 20:58:59.609184 10614 layer_factory.hpp:77] Creating layer inception_5a/relu_pool_proj
I0714 20:58:59.609196 10614 net.cpp:91] Creating Layer inception_5a/relu_pool_proj
I0714 20:58:59.609205 10614 net.cpp:425] inception_5a/relu_pool_proj <- inception_5a/pool_proj
I0714 20:58:59.609218 10614 net.cpp:386] inception_5a/relu_pool_proj -> inception_5a/pool_proj (in-place)
I0714 20:58:59.610373 10614 net.cpp:141] Setting up inception_5a/relu_pool_proj
I0714 20:58:59.610390 10614 net.cpp:148] Top shape: 10 128 7 7 (62720)
I0714 20:58:59.610395 10614 net.cpp:156] Memory required for data: 534625280
I0714 20:58:59.610401 10614 layer_factory.hpp:77] Creating layer inception_5a/output
I0714 20:58:59.610414 10614 net.cpp:91] Creating Layer inception_5a/output
I0714 20:58:59.610422 10614 net.cpp:425] inception_5a/output <- inception_5a/1x1
I0714 20:58:59.610430 10614 net.cpp:425] inception_5a/output <- inception_5a/3x3
I0714 20:58:59.610437 10614 net.cpp:425] inception_5a/output <- inception_5a/5x5
I0714 20:58:59.610443 10614 net.cpp:425] inception_5a/output <- inception_5a/pool_proj
I0714 20:58:59.610450 10614 net.cpp:399] inception_5a/output -> inception_5a/output
I0714 20:58:59.610450 10618 net.cpp:141] Setting up inception_5a/pool_proj
I0714 20:58:59.610468 10618 net.cpp:148] Top shape: 10 128 7 7 (62720)
I0714 20:58:59.610476 10618 net.cpp:156] Memory required for data: 534374400
I0714 20:58:59.610488 10618 layer_factory.hpp:77] Creating layer inception_5a/relu_pool_proj
I0714 20:58:59.610498 10618 net.cpp:91] Creating Layer inception_5a/relu_pool_proj
I0714 20:58:59.610505 10618 net.cpp:425] inception_5a/relu_pool_proj <- inception_5a/pool_proj
I0714 20:58:59.610514 10618 net.cpp:386] inception_5a/relu_pool_proj -> inception_5a/pool_proj (in-place)
I0714 20:58:59.610558 10614 net.cpp:141] Setting up inception_5a/output
I0714 20:58:59.610570 10614 net.cpp:148] Top shape: 10 832 7 7 (407680)
I0714 20:58:59.610575 10614 net.cpp:156] Memory required for data: 536256000
I0714 20:58:59.610580 10614 layer_factory.hpp:77] Creating layer inception_5a/output_inception_5a/output_0_split
I0714 20:58:59.610599 10614 net.cpp:91] Creating Layer inception_5a/output_inception_5a/output_0_split
I0714 20:58:59.610605 10614 net.cpp:425] inception_5a/output_inception_5a/output_0_split <- inception_5a/output
I0714 20:58:59.610612 10614 net.cpp:399] inception_5a/output_inception_5a/output_0_split -> inception_5a/output_inception_5a/output_0_split_0
I0714 20:58:59.610625 10614 net.cpp:399] inception_5a/output_inception_5a/output_0_split -> inception_5a/output_inception_5a/output_0_split_1
I0714 20:58:59.610635 10614 net.cpp:399] inception_5a/output_inception_5a/output_0_split -> inception_5a/output_inception_5a/output_0_split_2
I0714 20:58:59.610644 10614 net.cpp:399] inception_5a/output_inception_5a/output_0_split -> inception_5a/output_inception_5a/output_0_split_3
I0714 20:58:59.611652 10618 net.cpp:141] Setting up inception_5a/relu_pool_proj
I0714 20:58:59.611680 10618 net.cpp:148] Top shape: 10 128 7 7 (62720)
I0714 20:58:59.611685 10618 net.cpp:156] Memory required for data: 534625280
I0714 20:58:59.611685 10614 net.cpp:141] Setting up inception_5a/output_inception_5a/output_0_split
I0714 20:58:59.611692 10618 layer_factory.hpp:77] Creating layer inception_5a/output
I0714 20:58:59.611706 10614 net.cpp:148] Top shape: 10 832 7 7 (407680)
I0714 20:58:59.611711 10618 net.cpp:91] Creating Layer inception_5a/output
I0714 20:58:59.611712 10614 net.cpp:148] Top shape: 10 832 7 7 (407680)
I0714 20:58:59.611717 10618 net.cpp:425] inception_5a/output <- inception_5a/1x1
I0714 20:58:59.611719 10614 net.cpp:148] Top shape: 10 832 7 7 (407680)
I0714 20:58:59.611726 10614 net.cpp:148] Top shape: 10 832 7 7 (407680)
I0714 20:58:59.611726 10618 net.cpp:425] inception_5a/output <- inception_5a/3x3
I0714 20:58:59.611731 10614 net.cpp:156] Memory required for data: 542778880
I0714 20:58:59.611733 10618 net.cpp:425] inception_5a/output <- inception_5a/5x5
I0714 20:58:59.611737 10614 layer_factory.hpp:77] Creating layer inception_5b/1x1
I0714 20:58:59.611740 10618 net.cpp:425] inception_5a/output <- inception_5a/pool_proj
I0714 20:58:59.611747 10618 net.cpp:399] inception_5a/output -> inception_5a/output
I0714 20:58:59.611757 10614 net.cpp:91] Creating Layer inception_5b/1x1
I0714 20:58:59.611764 10614 net.cpp:425] inception_5b/1x1 <- inception_5a/output_inception_5a/output_0_split_0
I0714 20:58:59.611778 10614 net.cpp:399] inception_5b/1x1 -> inception_5b/1x1
I0714 20:58:59.611884 10618 net.cpp:141] Setting up inception_5a/output
I0714 20:58:59.611897 10618 net.cpp:148] Top shape: 10 832 7 7 (407680)
I0714 20:58:59.611902 10618 net.cpp:156] Memory required for data: 536256000
I0714 20:58:59.611907 10618 layer_factory.hpp:77] Creating layer inception_5a/output_inception_5a/output_0_split
I0714 20:58:59.611917 10618 net.cpp:91] Creating Layer inception_5a/output_inception_5a/output_0_split
I0714 20:58:59.611922 10618 net.cpp:425] inception_5a/output_inception_5a/output_0_split <- inception_5a/output
I0714 20:58:59.611930 10618 net.cpp:399] inception_5a/output_inception_5a/output_0_split -> inception_5a/output_inception_5a/output_0_split_0
I0714 20:58:59.611943 10618 net.cpp:399] inception_5a/output_inception_5a/output_0_split -> inception_5a/output_inception_5a/output_0_split_1
I0714 20:58:59.611953 10618 net.cpp:399] inception_5a/output_inception_5a/output_0_split -> inception_5a/output_inception_5a/output_0_split_2
I0714 20:58:59.611963 10618 net.cpp:399] inception_5a/output_inception_5a/output_0_split -> inception_5a/output_inception_5a/output_0_split_3
I0714 20:58:59.612617 10618 net.cpp:141] Setting up inception_5a/output_inception_5a/output_0_split
I0714 20:58:59.612630 10618 net.cpp:148] Top shape: 10 832 7 7 (407680)
I0714 20:58:59.612637 10618 net.cpp:148] Top shape: 10 832 7 7 (407680)
I0714 20:58:59.612643 10618 net.cpp:148] Top shape: 10 832 7 7 (407680)
I0714 20:58:59.612648 10618 net.cpp:148] Top shape: 10 832 7 7 (407680)
I0714 20:58:59.612651 10618 net.cpp:156] Memory required for data: 542778880
I0714 20:58:59.612656 10618 layer_factory.hpp:77] Creating layer inception_5b/1x1
I0714 20:58:59.612673 10618 net.cpp:91] Creating Layer inception_5b/1x1
I0714 20:58:59.612680 10618 net.cpp:425] inception_5b/1x1 <- inception_5a/output_inception_5a/output_0_split_0
I0714 20:58:59.612694 10618 net.cpp:399] inception_5b/1x1 -> inception_5b/1x1
I0714 20:58:59.622069 10614 net.cpp:141] Setting up inception_5b/1x1
I0714 20:58:59.622097 10614 net.cpp:148] Top shape: 10 384 7 7 (188160)
I0714 20:58:59.622103 10614 net.cpp:156] Memory required for data: 543531520
I0714 20:58:59.622115 10614 layer_factory.hpp:77] Creating layer inception_5b/relu_1x1
I0714 20:58:59.622128 10614 net.cpp:91] Creating Layer inception_5b/relu_1x1
I0714 20:58:59.622140 10614 net.cpp:425] inception_5b/relu_1x1 <- inception_5b/1x1
I0714 20:58:59.622149 10614 net.cpp:386] inception_5b/relu_1x1 -> inception_5b/1x1 (in-place)
I0714 20:58:59.622521 10614 net.cpp:141] Setting up inception_5b/relu_1x1
I0714 20:58:59.622534 10614 net.cpp:148] Top shape: 10 384 7 7 (188160)
I0714 20:58:59.622539 10614 net.cpp:156] Memory required for data: 544284160
I0714 20:58:59.622545 10614 layer_factory.hpp:77] Creating layer inception_5b/3x3_reduce
I0714 20:58:59.622566 10614 net.cpp:91] Creating Layer inception_5b/3x3_reduce
I0714 20:58:59.622573 10614 net.cpp:425] inception_5b/3x3_reduce <- inception_5a/output_inception_5a/output_0_split_1
I0714 20:58:59.622584 10614 net.cpp:399] inception_5b/3x3_reduce -> inception_5b/3x3_reduce
I0714 20:58:59.625636 10618 net.cpp:141] Setting up inception_5b/1x1
I0714 20:58:59.625659 10618 net.cpp:148] Top shape: 10 384 7 7 (188160)
I0714 20:58:59.625666 10618 net.cpp:156] Memory required for data: 543531520
I0714 20:58:59.625677 10618 layer_factory.hpp:77] Creating layer inception_5b/relu_1x1
I0714 20:58:59.625691 10618 net.cpp:91] Creating Layer inception_5b/relu_1x1
I0714 20:58:59.625699 10618 net.cpp:425] inception_5b/relu_1x1 <- inception_5b/1x1
I0714 20:58:59.625708 10618 net.cpp:386] inception_5b/relu_1x1 -> inception_5b/1x1 (in-place)
I0714 20:58:59.626024 10618 net.cpp:141] Setting up inception_5b/relu_1x1
I0714 20:58:59.626036 10618 net.cpp:148] Top shape: 10 384 7 7 (188160)
I0714 20:58:59.626041 10618 net.cpp:156] Memory required for data: 544284160
I0714 20:58:59.626046 10618 layer_factory.hpp:77] Creating layer inception_5b/3x3_reduce
I0714 20:58:59.626065 10618 net.cpp:91] Creating Layer inception_5b/3x3_reduce
I0714 20:58:59.626072 10618 net.cpp:425] inception_5b/3x3_reduce <- inception_5a/output_inception_5a/output_0_split_1
I0714 20:58:59.626085 10618 net.cpp:399] inception_5b/3x3_reduce -> inception_5b/3x3_reduce
I0714 20:58:59.632153 10614 net.cpp:141] Setting up inception_5b/3x3_reduce
I0714 20:58:59.632174 10614 net.cpp:148] Top shape: 10 192 7 7 (94080)
I0714 20:58:59.632179 10614 net.cpp:156] Memory required for data: 544660480
I0714 20:58:59.632190 10614 layer_factory.hpp:77] Creating layer inception_5b/relu_3x3_reduce
I0714 20:58:59.632211 10614 net.cpp:91] Creating Layer inception_5b/relu_3x3_reduce
I0714 20:58:59.632220 10614 net.cpp:425] inception_5b/relu_3x3_reduce <- inception_5b/3x3_reduce
I0714 20:58:59.632228 10614 net.cpp:386] inception_5b/relu_3x3_reduce -> inception_5b/3x3_reduce (in-place)
I0714 20:58:59.632565 10614 net.cpp:141] Setting up inception_5b/relu_3x3_reduce
I0714 20:58:59.632578 10614 net.cpp:148] Top shape: 10 192 7 7 (94080)
I0714 20:58:59.632583 10614 net.cpp:156] Memory required for data: 545036800
I0714 20:58:59.632588 10614 layer_factory.hpp:77] Creating layer inception_5b/3x3
I0714 20:58:59.632607 10614 net.cpp:91] Creating Layer inception_5b/3x3
I0714 20:58:59.632614 10614 net.cpp:425] inception_5b/3x3 <- inception_5b/3x3_reduce
I0714 20:58:59.632627 10614 net.cpp:399] inception_5b/3x3 -> inception_5b/3x3
I0714 20:58:59.636477 10618 net.cpp:141] Setting up inception_5b/3x3_reduce
I0714 20:58:59.636499 10618 net.cpp:148] Top shape: 10 192 7 7 (94080)
I0714 20:58:59.636505 10618 net.cpp:156] Memory required for data: 544660480
I0714 20:58:59.636517 10618 layer_factory.hpp:77] Creating layer inception_5b/relu_3x3_reduce
I0714 20:58:59.636526 10618 net.cpp:91] Creating Layer inception_5b/relu_3x3_reduce
I0714 20:58:59.636533 10618 net.cpp:425] inception_5b/relu_3x3_reduce <- inception_5b/3x3_reduce
I0714 20:58:59.636541 10618 net.cpp:386] inception_5b/relu_3x3_reduce -> inception_5b/3x3_reduce (in-place)
I0714 20:58:59.636857 10618 net.cpp:141] Setting up inception_5b/relu_3x3_reduce
I0714 20:58:59.636870 10618 net.cpp:148] Top shape: 10 192 7 7 (94080)
I0714 20:58:59.636875 10618 net.cpp:156] Memory required for data: 545036800
I0714 20:58:59.636880 10618 layer_factory.hpp:77] Creating layer inception_5b/3x3
I0714 20:58:59.636898 10618 net.cpp:91] Creating Layer inception_5b/3x3
I0714 20:58:59.636904 10618 net.cpp:425] inception_5b/3x3 <- inception_5b/3x3_reduce
I0714 20:58:59.636919 10618 net.cpp:399] inception_5b/3x3 -> inception_5b/3x3
I0714 20:58:59.644651 10614 net.cpp:141] Setting up inception_5b/3x3
I0714 20:58:59.644675 10614 net.cpp:148] Top shape: 10 384 7 7 (188160)
I0714 20:58:59.644681 10614 net.cpp:156] Memory required for data: 545789440
I0714 20:58:59.644692 10614 layer_factory.hpp:77] Creating layer inception_5b/relu_3x3
I0714 20:58:59.644706 10614 net.cpp:91] Creating Layer inception_5b/relu_3x3
I0714 20:58:59.644712 10614 net.cpp:425] inception_5b/relu_3x3 <- inception_5b/3x3
I0714 20:58:59.644721 10614 net.cpp:386] inception_5b/relu_3x3 -> inception_5b/3x3 (in-place)
I0714 20:58:59.645592 10614 net.cpp:141] Setting up inception_5b/relu_3x3
I0714 20:58:59.645611 10614 net.cpp:148] Top shape: 10 384 7 7 (188160)
I0714 20:58:59.645615 10614 net.cpp:156] Memory required for data: 546542080
I0714 20:58:59.645622 10614 layer_factory.hpp:77] Creating layer inception_5b/5x5_reduce
I0714 20:58:59.645648 10614 net.cpp:91] Creating Layer inception_5b/5x5_reduce
I0714 20:58:59.645658 10614 net.cpp:425] inception_5b/5x5_reduce <- inception_5a/output_inception_5a/output_0_split_2
I0714 20:58:59.645671 10614 net.cpp:399] inception_5b/5x5_reduce -> inception_5b/5x5_reduce
I0714 20:58:59.649140 10618 net.cpp:141] Setting up inception_5b/3x3
I0714 20:58:59.649161 10618 net.cpp:148] Top shape: 10 384 7 7 (188160)
I0714 20:58:59.649166 10618 net.cpp:156] Memory required for data: 545789440
I0714 20:58:59.649178 10618 layer_factory.hpp:77] Creating layer inception_5b/relu_3x3
I0714 20:58:59.649191 10618 net.cpp:91] Creating Layer inception_5b/relu_3x3
I0714 20:58:59.649199 10618 net.cpp:425] inception_5b/relu_3x3 <- inception_5b/3x3
I0714 20:58:59.649207 10618 net.cpp:386] inception_5b/relu_3x3 -> inception_5b/3x3 (in-place)
I0714 20:58:59.650424 10618 net.cpp:141] Setting up inception_5b/relu_3x3
I0714 20:58:59.650441 10618 net.cpp:148] Top shape: 10 384 7 7 (188160)
I0714 20:58:59.650447 10618 net.cpp:156] Memory required for data: 546542080
I0714 20:58:59.650454 10618 layer_factory.hpp:77] Creating layer inception_5b/5x5_reduce
I0714 20:58:59.650473 10618 net.cpp:91] Creating Layer inception_5b/5x5_reduce
I0714 20:58:59.650480 10618 net.cpp:425] inception_5b/5x5_reduce <- inception_5a/output_inception_5a/output_0_split_2
I0714 20:58:59.650490 10618 net.cpp:399] inception_5b/5x5_reduce -> inception_5b/5x5_reduce
I0714 20:58:59.651767 10614 net.cpp:141] Setting up inception_5b/5x5_reduce
I0714 20:58:59.651787 10614 net.cpp:148] Top shape: 10 48 7 7 (23520)
I0714 20:58:59.651792 10614 net.cpp:156] Memory required for data: 546636160
I0714 20:58:59.651801 10614 layer_factory.hpp:77] Creating layer inception_5b/relu_5x5_reduce
I0714 20:58:59.651811 10614 net.cpp:91] Creating Layer inception_5b/relu_5x5_reduce
I0714 20:58:59.651818 10614 net.cpp:425] inception_5b/relu_5x5_reduce <- inception_5b/5x5_reduce
I0714 20:58:59.651829 10614 net.cpp:386] inception_5b/relu_5x5_reduce -> inception_5b/5x5_reduce (in-place)
I0714 20:58:59.652235 10614 net.cpp:141] Setting up inception_5b/relu_5x5_reduce
I0714 20:58:59.652247 10614 net.cpp:148] Top shape: 10 48 7 7 (23520)
I0714 20:58:59.652252 10614 net.cpp:156] Memory required for data: 546730240
I0714 20:58:59.652258 10614 layer_factory.hpp:77] Creating layer inception_5b/5x5
I0714 20:58:59.652287 10614 net.cpp:91] Creating Layer inception_5b/5x5
I0714 20:58:59.652294 10614 net.cpp:425] inception_5b/5x5 <- inception_5b/5x5_reduce
I0714 20:58:59.652307 10614 net.cpp:399] inception_5b/5x5 -> inception_5b/5x5
I0714 20:58:59.655241 10618 net.cpp:141] Setting up inception_5b/5x5_reduce
I0714 20:58:59.655262 10618 net.cpp:148] Top shape: 10 48 7 7 (23520)
I0714 20:58:59.655268 10618 net.cpp:156] Memory required for data: 546636160
I0714 20:58:59.655278 10618 layer_factory.hpp:77] Creating layer inception_5b/relu_5x5_reduce
I0714 20:58:59.655292 10618 net.cpp:91] Creating Layer inception_5b/relu_5x5_reduce
I0714 20:58:59.655299 10618 net.cpp:425] inception_5b/relu_5x5_reduce <- inception_5b/5x5_reduce
I0714 20:58:59.655308 10618 net.cpp:386] inception_5b/relu_5x5_reduce -> inception_5b/5x5_reduce (in-place)
I0714 20:58:59.655617 10618 net.cpp:141] Setting up inception_5b/relu_5x5_reduce
I0714 20:58:59.655632 10618 net.cpp:148] Top shape: 10 48 7 7 (23520)
I0714 20:58:59.655637 10618 net.cpp:156] Memory required for data: 546730240
I0714 20:58:59.655643 10618 layer_factory.hpp:77] Creating layer inception_5b/5x5
I0714 20:58:59.655661 10618 net.cpp:91] Creating Layer inception_5b/5x5
I0714 20:58:59.655668 10618 net.cpp:425] inception_5b/5x5 <- inception_5b/5x5_reduce
I0714 20:58:59.655678 10618 net.cpp:399] inception_5b/5x5 -> inception_5b/5x5
I0714 20:58:59.660976 10614 net.cpp:141] Setting up inception_5b/5x5
I0714 20:58:59.660995 10614 net.cpp:148] Top shape: 10 128 7 7 (62720)
I0714 20:58:59.661001 10614 net.cpp:156] Memory required for data: 546981120
I0714 20:58:59.661011 10614 layer_factory.hpp:77] Creating layer inception_5b/relu_5x5
I0714 20:58:59.661020 10614 net.cpp:91] Creating Layer inception_5b/relu_5x5
I0714 20:58:59.661027 10614 net.cpp:425] inception_5b/relu_5x5 <- inception_5b/5x5
I0714 20:58:59.661046 10614 net.cpp:386] inception_5b/relu_5x5 -> inception_5b/5x5 (in-place)
I0714 20:58:59.661442 10614 net.cpp:141] Setting up inception_5b/relu_5x5
I0714 20:58:59.661460 10614 net.cpp:148] Top shape: 10 128 7 7 (62720)
I0714 20:58:59.661465 10614 net.cpp:156] Memory required for data: 547232000
I0714 20:58:59.661471 10614 layer_factory.hpp:77] Creating layer inception_5b/pool
I0714 20:58:59.661483 10614 net.cpp:91] Creating Layer inception_5b/pool
I0714 20:58:59.661489 10614 net.cpp:425] inception_5b/pool <- inception_5a/output_inception_5a/output_0_split_3
I0714 20:58:59.661497 10614 net.cpp:399] inception_5b/pool -> inception_5b/pool
I0714 20:58:59.662250 10614 net.cpp:141] Setting up inception_5b/pool
I0714 20:58:59.662264 10614 net.cpp:148] Top shape: 10 832 7 7 (407680)
I0714 20:58:59.662268 10614 net.cpp:156] Memory required for data: 548862720
I0714 20:58:59.662274 10614 layer_factory.hpp:77] Creating layer inception_5b/pool_proj
I0714 20:58:59.662291 10614 net.cpp:91] Creating Layer inception_5b/pool_proj
I0714 20:58:59.662297 10614 net.cpp:425] inception_5b/pool_proj <- inception_5b/pool
I0714 20:58:59.662312 10614 net.cpp:399] inception_5b/pool_proj -> inception_5b/pool_proj
I0714 20:58:59.663071 10618 net.cpp:141] Setting up inception_5b/5x5
I0714 20:58:59.663089 10618 net.cpp:148] Top shape: 10 128 7 7 (62720)
I0714 20:58:59.663097 10618 net.cpp:156] Memory required for data: 546981120
I0714 20:58:59.663108 10618 layer_factory.hpp:77] Creating layer inception_5b/relu_5x5
I0714 20:58:59.663117 10618 net.cpp:91] Creating Layer inception_5b/relu_5x5
I0714 20:58:59.663125 10618 net.cpp:425] inception_5b/relu_5x5 <- inception_5b/5x5
I0714 20:58:59.663132 10618 net.cpp:386] inception_5b/relu_5x5 -> inception_5b/5x5 (in-place)
I0714 20:58:59.664024 10618 net.cpp:141] Setting up inception_5b/relu_5x5
I0714 20:58:59.664041 10618 net.cpp:148] Top shape: 10 128 7 7 (62720)
I0714 20:58:59.664046 10618 net.cpp:156] Memory required for data: 547232000
I0714 20:58:59.664050 10618 layer_factory.hpp:77] Creating layer inception_5b/pool
I0714 20:58:59.664060 10618 net.cpp:91] Creating Layer inception_5b/pool
I0714 20:58:59.664067 10618 net.cpp:425] inception_5b/pool <- inception_5a/output_inception_5a/output_0_split_3
I0714 20:58:59.664078 10618 net.cpp:399] inception_5b/pool -> inception_5b/pool
I0714 20:58:59.665352 10618 net.cpp:141] Setting up inception_5b/pool
I0714 20:58:59.665367 10618 net.cpp:148] Top shape: 10 832 7 7 (407680)
I0714 20:58:59.665372 10618 net.cpp:156] Memory required for data: 548862720
I0714 20:58:59.665377 10618 layer_factory.hpp:77] Creating layer inception_5b/pool_proj
I0714 20:58:59.665395 10618 net.cpp:91] Creating Layer inception_5b/pool_proj
I0714 20:58:59.665401 10618 net.cpp:425] inception_5b/pool_proj <- inception_5b/pool
I0714 20:58:59.665411 10618 net.cpp:399] inception_5b/pool_proj -> inception_5b/pool_proj
I0714 20:58:59.671203 10614 net.cpp:141] Setting up inception_5b/pool_proj
I0714 20:58:59.671226 10614 net.cpp:148] Top shape: 10 128 7 7 (62720)
I0714 20:58:59.671232 10614 net.cpp:156] Memory required for data: 549113600
I0714 20:58:59.671243 10614 layer_factory.hpp:77] Creating layer inception_5b/relu_pool_proj
I0714 20:58:59.671258 10614 net.cpp:91] Creating Layer inception_5b/relu_pool_proj
I0714 20:58:59.671265 10614 net.cpp:425] inception_5b/relu_pool_proj <- inception_5b/pool_proj
I0714 20:58:59.671274 10614 net.cpp:386] inception_5b/relu_pool_proj -> inception_5b/pool_proj (in-place)
I0714 20:58:59.672350 10614 net.cpp:141] Setting up inception_5b/relu_pool_proj
I0714 20:58:59.672369 10614 net.cpp:148] Top shape: 10 128 7 7 (62720)
I0714 20:58:59.672374 10614 net.cpp:156] Memory required for data: 549364480
I0714 20:58:59.672379 10614 layer_factory.hpp:77] Creating layer inception_5b/output
I0714 20:58:59.672394 10614 net.cpp:91] Creating Layer inception_5b/output
I0714 20:58:59.672400 10614 net.cpp:425] inception_5b/output <- inception_5b/1x1
I0714 20:58:59.672408 10614 net.cpp:425] inception_5b/output <- inception_5b/3x3
I0714 20:58:59.672415 10614 net.cpp:425] inception_5b/output <- inception_5b/5x5
I0714 20:58:59.672420 10614 net.cpp:425] inception_5b/output <- inception_5b/pool_proj
I0714 20:58:59.672427 10614 net.cpp:399] inception_5b/output -> inception_5b/output
I0714 20:58:59.672437 10618 net.cpp:141] Setting up inception_5b/pool_proj
I0714 20:58:59.672456 10618 net.cpp:148] Top shape: 10 128 7 7 (62720)
I0714 20:58:59.672461 10618 net.cpp:156] Memory required for data: 549113600
I0714 20:58:59.672471 10618 layer_factory.hpp:77] Creating layer inception_5b/relu_pool_proj
I0714 20:58:59.672480 10618 net.cpp:91] Creating Layer inception_5b/relu_pool_proj
I0714 20:58:59.672487 10618 net.cpp:425] inception_5b/relu_pool_proj <- inception_5b/pool_proj
I0714 20:58:59.672494 10618 net.cpp:386] inception_5b/relu_pool_proj -> inception_5b/pool_proj (in-place)
I0714 20:58:59.672525 10614 net.cpp:141] Setting up inception_5b/output
I0714 20:58:59.672538 10614 net.cpp:148] Top shape: 10 1024 7 7 (501760)
I0714 20:58:59.672543 10614 net.cpp:156] Memory required for data: 551371520
I0714 20:58:59.672549 10614 layer_factory.hpp:77] Creating layer pool5/7x7_s1
I0714 20:58:59.672562 10614 net.cpp:91] Creating Layer pool5/7x7_s1
I0714 20:58:59.672569 10614 net.cpp:425] pool5/7x7_s1 <- inception_5b/output
I0714 20:58:59.672580 10614 net.cpp:399] pool5/7x7_s1 -> pool5/7x7_s1
I0714 20:58:59.673332 10614 net.cpp:141] Setting up pool5/7x7_s1
I0714 20:58:59.673346 10614 net.cpp:148] Top shape: 10 1024 1 1 (10240)
I0714 20:58:59.673352 10614 net.cpp:156] Memory required for data: 551412480
I0714 20:58:59.673357 10614 layer_factory.hpp:77] Creating layer pool5/drop_7x7_s1
I0714 20:58:59.673367 10614 net.cpp:91] Creating Layer pool5/drop_7x7_s1
I0714 20:58:59.673372 10614 net.cpp:425] pool5/drop_7x7_s1 <- pool5/7x7_s1
I0714 20:58:59.673387 10614 net.cpp:386] pool5/drop_7x7_s1 -> pool5/7x7_s1 (in-place)
I0714 20:58:59.673454 10618 net.cpp:141] Setting up inception_5b/relu_pool_proj
I0714 20:58:59.673470 10618 net.cpp:148] Top shape: 10 128 7 7 (62720)
I0714 20:58:59.673475 10618 net.cpp:156] Memory required for data: 549364480
I0714 20:58:59.673480 10618 layer_factory.hpp:77] Creating layer inception_5b/output
I0714 20:58:59.673482 10614 net.cpp:141] Setting up pool5/drop_7x7_s1
I0714 20:58:59.673490 10618 net.cpp:91] Creating Layer inception_5b/output
I0714 20:58:59.673494 10614 net.cpp:148] Top shape: 10 1024 1 1 (10240)
I0714 20:58:59.673496 10618 net.cpp:425] inception_5b/output <- inception_5b/1x1
I0714 20:58:59.673499 10614 net.cpp:156] Memory required for data: 551453440
I0714 20:58:59.673503 10618 net.cpp:425] inception_5b/output <- inception_5b/3x3
I0714 20:58:59.673506 10614 layer_factory.hpp:77] Creating layer loss3/classifier
I0714 20:58:59.673509 10618 net.cpp:425] inception_5b/output <- inception_5b/5x5
I0714 20:58:59.673516 10618 net.cpp:425] inception_5b/output <- inception_5b/pool_proj
I0714 20:58:59.673533 10614 net.cpp:91] Creating Layer loss3/classifier
I0714 20:58:59.673534 10618 net.cpp:399] inception_5b/output -> inception_5b/output
I0714 20:58:59.673542 10614 net.cpp:425] loss3/classifier <- pool5/7x7_s1
I0714 20:58:59.673550 10614 net.cpp:399] loss3/classifier -> loss3/classifier
I0714 20:58:59.673660 10618 net.cpp:141] Setting up inception_5b/output
I0714 20:58:59.673672 10618 net.cpp:148] Top shape: 10 1024 7 7 (501760)
I0714 20:58:59.673677 10618 net.cpp:156] Memory required for data: 551371520
I0714 20:58:59.673682 10618 layer_factory.hpp:77] Creating layer pool5/7x7_s1
I0714 20:58:59.673691 10618 net.cpp:91] Creating Layer pool5/7x7_s1
I0714 20:58:59.673697 10618 net.cpp:425] pool5/7x7_s1 <- inception_5b/output
I0714 20:58:59.673710 10618 net.cpp:399] pool5/7x7_s1 -> pool5/7x7_s1
I0714 20:58:59.676403 10618 net.cpp:141] Setting up pool5/7x7_s1
I0714 20:58:59.676424 10618 net.cpp:148] Top shape: 10 1024 1 1 (10240)
I0714 20:58:59.676430 10618 net.cpp:156] Memory required for data: 551412480
I0714 20:58:59.676436 10618 layer_factory.hpp:77] Creating layer pool5/drop_7x7_s1
I0714 20:58:59.676445 10618 net.cpp:91] Creating Layer pool5/drop_7x7_s1
I0714 20:58:59.676451 10618 net.cpp:425] pool5/drop_7x7_s1 <- pool5/7x7_s1
I0714 20:58:59.676458 10618 net.cpp:386] pool5/drop_7x7_s1 -> pool5/7x7_s1 (in-place)
I0714 20:58:59.677134 10618 net.cpp:141] Setting up pool5/drop_7x7_s1
I0714 20:58:59.677151 10618 net.cpp:148] Top shape: 10 1024 1 1 (10240)
I0714 20:58:59.677156 10618 net.cpp:156] Memory required for data: 551453440
I0714 20:58:59.677161 10618 layer_factory.hpp:77] Creating layer loss3/classifier
I0714 20:58:59.677172 10618 net.cpp:91] Creating Layer loss3/classifier
I0714 20:58:59.677178 10618 net.cpp:425] loss3/classifier <- pool5/7x7_s1
I0714 20:58:59.677191 10618 net.cpp:399] loss3/classifier -> loss3/classifier
I0714 20:58:59.686040 10614 net.cpp:141] Setting up loss3/classifier
I0714 20:58:59.686069 10614 net.cpp:148] Top shape: 10 1000 (10000)
I0714 20:58:59.686074 10614 net.cpp:156] Memory required for data: 551493440
I0714 20:58:59.686085 10614 layer_factory.hpp:77] Creating layer prob
I0714 20:58:59.686101 10614 net.cpp:91] Creating Layer prob
I0714 20:58:59.686110 10614 net.cpp:425] prob <- loss3/classifier
I0714 20:58:59.686118 10614 net.cpp:399] prob -> prob
I0714 20:58:59.687516 10614 net.cpp:141] Setting up prob
I0714 20:58:59.687536 10614 net.cpp:148] Top shape: 10 1000 (10000)
I0714 20:58:59.687541 10614 net.cpp:156] Memory required for data: 551533440
I0714 20:58:59.687546 10614 net.cpp:219] prob does not need backward computation.
I0714 20:58:59.687552 10614 net.cpp:219] loss3/classifier does not need backward computation.
I0714 20:58:59.687562 10614 net.cpp:219] pool5/drop_7x7_s1 does not need backward computation.
I0714 20:58:59.687567 10614 net.cpp:219] pool5/7x7_s1 does not need backward computation.
…
