…
2016-08-02 06:54:59.579 STDERR [INFO] I0802 06:54:59.556704 26126 net.cpp:91] Creating Layer input
2016-08-02 06:54:59.579 STDERR [INFO] I0802 06:54:59.556713 26126 net.cpp:399] input -> frames_fc7
2016-08-02 06:54:59.579 STDERR [INFO] I0802 06:54:59.556730 26126 net.cpp:399] input -> cont_sentence
2016-08-02 06:54:59.579 STDERR [INFO] I0802 06:54:59.556742 26126 net.cpp:399] input -> input_sentence
2016-08-02 06:54:59.579 STDERR [INFO] I0802 06:54:59.556752 26126 net.cpp:399] input -> stage_indicator
2016-08-02 06:54:59.579 STDERR [INFO] I0802 06:54:59.558720 26126 net.cpp:141] Setting up input
2016-08-02 06:54:59.580 STDERR [INFO] I0802 06:54:59.558744 26126 net.cpp:148] Top shape: 1 4096 (4096)
2016-08-02 06:54:59.580 STDERR [INFO] I0802 06:54:59.558758 26126 net.cpp:148] Top shape: 1 1 (1)
2016-08-02 06:54:59.580 STDERR [INFO] I0802 06:54:59.558770 26126 net.cpp:148] Top shape: 1 1 (1)
2016-08-02 06:54:59.580 STDERR [INFO] I0802 06:54:59.558779 26126 net.cpp:148] Top shape: 1 1 (1)
2016-08-02 06:54:59.580 STDERR [INFO] I0802 06:54:59.558782 26126 net.cpp:156] Memory required for data: 16396
2016-08-02 06:54:59.580 STDERR [INFO] I0802 06:54:59.558789 26126 layer_factory.hpp:77] Creating layer cont_sentence_input_1_split
2016-08-02 06:54:59.580 STDERR [INFO] I0802 06:54:59.558810 26126 net.cpp:91] Creating Layer cont_sentence_input_1_split
2016-08-02 06:54:59.580 STDERR [INFO] I0802 06:54:59.558822 26126 net.cpp:425] cont_sentence_input_1_split <- cont_sentence
2016-08-02 06:54:59.580 STDERR [INFO] I0802 06:54:59.558853 26126 net.cpp:399] cont_sentence_input_1_split -> cont_sentence_input_1_split_0
2016-08-02 06:54:59.580 STDERR [INFO] I0802 06:54:59.558871 26126 net.cpp:399] cont_sentence_input_1_split -> cont_sentence_input_1_split_1
2016-08-02 06:54:59.581 STDERR [INFO] I0802 06:54:59.559345 26126 net.cpp:141] Setting up cont_sentence_input_1_split
2016-08-02 06:54:59.581 STDERR [INFO] I0802 06:54:59.559360 26126 net.cpp:148] Top shape: 1 1 (1)
2016-08-02 06:54:59.581 STDERR [INFO] I0802 06:54:59.559365 26126 net.cpp:148] Top shape: 1 1 (1)
2016-08-02 06:54:59.581 STDERR [INFO] I0802 06:54:59.559370 26126 net.cpp:156] Memory required for data: 16404
2016-08-02 06:54:59.581 STDERR [INFO] I0802 06:54:59.559376 26126 layer_factory.hpp:77] Creating layer embed_encoder
2016-08-02 06:54:59.581 STDERR [INFO] I0802 06:54:59.559391 26126 net.cpp:91] Creating Layer embed_encoder
2016-08-02 06:54:59.581 STDERR [INFO] I0802 06:54:59.559396 26126 net.cpp:425] embed_encoder <- frames_fc7
2016-08-02 06:54:59.581 STDERR [INFO] I0802 06:54:59.559407 26126 net.cpp:399] embed_encoder -> embedded_in_frames
2016-08-02 06:54:59.585 STDERR [INFO] I0802 06:54:59.585124 26126 net.cpp:141] Setting up embed_encoder
2016-08-02 06:54:59.585 STDERR [INFO] I0802 06:54:59.585180 26126 net.cpp:148] Top shape: 1 500 (500)
2016-08-02 06:54:59.585 STDERR [INFO] I0802 06:54:59.585192 26126 net.cpp:156] Memory required for data: 18404
2016-08-02 06:54:59.585 STDERR [INFO] I0802 06:54:59.585233 26126 layer_factory.hpp:77] Creating layer reshape_frames
2016-08-02 06:54:59.585 STDERR [INFO] I0802 06:54:59.585273 26126 net.cpp:91] Creating Layer reshape_frames
2016-08-02 06:54:59.586 STDERR [INFO] I0802 06:54:59.585286 26126 net.cpp:425] reshape_frames <- embedded_in_frames
2016-08-02 06:54:59.586 STDERR [INFO] I0802 06:54:59.585304 26126 net.cpp:399] reshape_frames -> embedded_input_frames
2016-08-02 06:54:59.588 STDERR [INFO] I0802 06:54:59.587976 26126 net.cpp:141] Setting up reshape_frames
2016-08-02 06:54:59.588 STDERR [INFO] I0802 06:54:59.588002 26126 net.cpp:148] Top shape: 1 1 500 (500)
2016-08-02 06:54:59.588 STDERR [INFO] I0802 06:54:59.588029 26126 net.cpp:156] Memory required for data: 20404
2016-08-02 06:54:59.588 STDERR [INFO] I0802 06:54:59.588040 26126 layer_factory.hpp:77] Creating layer reshape_stage_indicator
2016-08-02 06:54:59.588 STDERR [INFO] I0802 06:54:59.588058 26126 net.cpp:91] Creating Layer reshape_stage_indicator
2016-08-02 06:54:59.588 STDERR [INFO] I0802 06:54:59.588068 26126 net.cpp:425] reshape_stage_indicator <- stage_indicator
2016-08-02 06:54:59.588 STDERR [INFO] I0802 06:54:59.588089 26126 net.cpp:399] reshape_stage_indicator -> reshaped_stage_indicator
2016-08-02 06:54:59.589 STDERR [INFO] I0802 06:54:59.589361 26126 net.cpp:141] Setting up reshape_stage_indicator
2016-08-02 06:54:59.589 STDERR [INFO] I0802 06:54:59.589383 26126 net.cpp:148] Top shape: 1 1 1 (1)
2016-08-02 06:54:59.590 STDERR [INFO] I0802 06:54:59.589392 26126 net.cpp:156] Memory required for data: 20408
2016-08-02 06:54:59.590 STDERR [INFO] I0802 06:54:59.589402 26126 layer_factory.hpp:77] Creating layer embedding
2016-08-02 06:54:59.590 STDERR [INFO] I0802 06:54:59.589421 26126 net.cpp:91] Creating Layer embedding
2016-08-02 06:54:59.590 STDERR [INFO] I0802 06:54:59.589432 26126 net.cpp:425] embedding <- input_sentence
…
2016-08-02 06:54:59.614 n.t.s.b.CVParticleBolt [INFO] [Timing] RequestID: 0 StreamID: home_peifeng_work_data_frame_320x240_jpg SequenceNr: 92 Entering scale: 1470135299614
2016-08-02 06:54:59.616 n.t.s.b.CVParticleBolt [INFO] [Timing] RequestID: 0 StreamID: home_peifeng_work_data_frame_320x240_jpg SequenceNr: 91 Leaving scale: 1470135299616 Size: 3530
2016-08-02 06:54:59.619 n.t.s.b.CVParticleBolt [INFO] [Timing] RequestID: 0 StreamID: home_peifeng_work_data_frame_320x240_jpg SequenceNr: 92 Leaving scale: 1470135299619 Size: 3530
2016-08-02 06:54:59.669 STDERR [INFO] I0802 06:54:59.669739 26136 net.cpp:141] Setting up conv1
2016-08-02 06:54:59.670 STDERR [INFO] I0802 06:54:59.669790 26136 net.cpp:148] Top shape: 10 96 55 55 (2904000)
2016-08-02 06:54:59.670 STDERR [INFO] I0802 06:54:59.669798 26136 net.cpp:156] Memory required for data: 17799480
2016-08-02 06:54:59.670 STDERR [INFO] I0802 06:54:59.669822 26136 layer_factory.hpp:77] Creating layer relu1
2016-08-02 06:54:59.670 STDERR [INFO] I0802 06:54:59.669842 26136 net.cpp:91] Creating Layer relu1
2016-08-02 06:54:59.670 STDERR [INFO] I0802 06:54:59.669848 26136 net.cpp:425] relu1 <- conv1
2016-08-02 06:54:59.670 STDERR [INFO] I0802 06:54:59.669857 26136 net.cpp:386] relu1 -> conv1 (in-place)
2016-08-02 06:54:59.670 STDERR [INFO] I0802 06:54:59.670333 26136 net.cpp:141] Setting up relu1
2016-08-02 06:54:59.671 STDERR [INFO] I0802 06:54:59.670348 26136 net.cpp:148] Top shape: 10 96 55 55 (2904000)
2016-08-02 06:54:59.671 STDERR [INFO] I0802 06:54:59.670354 26136 net.cpp:156] Memory required for data: 29415480
2016-08-02 06:54:59.671 STDERR [INFO] I0802 06:54:59.670361 26136 layer_factory.hpp:77] Creating layer pool1
2016-08-02 06:54:59.671 STDERR [INFO] I0802 06:54:59.670373 26136 net.cpp:91] Creating Layer pool1
2016-08-02 06:54:59.671 STDERR [INFO] I0802 06:54:59.670379 26136 net.cpp:425] pool1 <- conv1
2016-08-02 06:54:59.671 STDERR [INFO] I0802 06:54:59.670387 26136 net.cpp:399] pool1 -> pool1
2016-08-02 06:54:59.671 STDERR [INFO] I0802 06:54:59.670459 26136 net.cpp:141] Setting up pool1
2016-08-02 06:54:59.671 STDERR [INFO] I0802 06:54:59.670470 26136 net.cpp:148] Top shape: 10 96 27 27 (699840)
2016-08-02 06:54:59.671 STDERR [INFO] I0802 06:54:59.670476 26136 net.cpp:156] Memory required for data: 32214840
2016-08-02 06:54:59.671 STDERR [INFO] I0802 06:54:59.670481 26136 layer_factory.hpp:77] Creating layer norm1
2016-08-02 06:54:59.671 STDERR [INFO] I0802 06:54:59.670497 26136 net.cpp:91] Creating Layer norm1
2016-08-02 06:54:59.671 STDERR [INFO] I0802 06:54:59.670503 26136 net.cpp:425] norm1 <- pool1
2016-08-02 06:54:59.672 STDERR [INFO] I0802 06:54:59.670511 26136 net.cpp:399] norm1 -> norm1
2016-08-02 06:54:59.672 STDERR [INFO] I0802 06:54:59.671020 26136 net.cpp:141] Setting up norm1
2016-08-02 06:54:59.672 STDERR [INFO] I0802 06:54:59.671036 26136 net.cpp:148] Top shape: 10 96 27 27 (699840)
2016-08-02 06:54:59.672 STDERR [INFO] I0802 06:54:59.671041 26136 net.cpp:156] Memory required for data: 35014200
2016-08-02 06:54:59.672 STDERR [INFO] I0802 06:54:59.671046 26136 layer_factory.hpp:77] Creating layer conv2
2016-08-02 06:54:59.672 STDERR [INFO] I0802 06:54:59.671061 26136 net.cpp:91] Creating Layer conv2
2016-08-02 06:54:59.672 STDERR [INFO] I0802 06:54:59.671067 26136 net.cpp:425] conv2 <- norm1
2016-08-02 06:54:59.672 STDERR [INFO] I0802 06:54:59.671075 26136 net.cpp:399] conv2 -> conv2
2016-08-02 06:54:59.674 STDERR [INFO] I0802 06:54:59.674502 26136 net.cpp:141] Setting up conv2
2016-08-02 06:54:59.674 STDERR [INFO] I0802 06:54:59.674525 26136 net.cpp:148] Top shape: 10 256 27 27 (1866240)
2016-08-02 06:54:59.674 STDERR [INFO] I0802 06:54:59.674531 26136 net.cpp:156] Memory required for data: 42479160
2016-08-02 06:54:59.675 STDERR [INFO] I0802 06:54:59.674546 26136 layer_factory.hpp:77] Creating layer relu2
2016-08-02 06:54:59.675 STDERR [INFO] I0802 06:54:59.674556 26136 net.cpp:91] Creating Layer relu2
2016-08-02 06:54:59.675 STDERR [INFO] I0802 06:54:59.674561 26136 net.cpp:425] relu2 <- conv2
2016-08-02 06:54:59.675 STDERR [INFO] I0802 06:54:59.674569 26136 net.cpp:386] relu2 -> conv2 (in-place)
2016-08-02 06:54:59.675 STDERR [INFO] I0802 06:54:59.675048 26136 net.cpp:141] Setting up relu2
2016-08-02 06:54:59.675 STDERR [INFO] I0802 06:54:59.675062 26136 net.cpp:148] Top shape: 10 256 27 27 (1866240)
2016-08-02 06:54:59.675 STDERR [INFO] I0802 06:54:59.675068 26136 net.cpp:156] Memory required for data: 49944120
2016-08-02 06:54:59.675 STDERR [INFO] I0802 06:54:59.675074 26136 layer_factory.hpp:77] Creating layer pool2
2016-08-02 06:54:59.675 STDERR [INFO] I0802 06:54:59.675083 26136 net.cpp:91] Creating Layer pool2
2016-08-02 06:54:59.675 STDERR [INFO] I0802 06:54:59.675089 26136 net.cpp:425] pool2 <- conv2
2016-08-02 06:54:59.676 STDERR [INFO] I0802 06:54:59.675097 26136 net.cpp:399] pool2 -> pool2
2016-08-02 06:54:59.676 STDERR [INFO] I0802 06:54:59.675151 26136 net.cpp:141] Setting up pool2
2016-08-02 06:54:59.676 STDERR [INFO] I0802 06:54:59.675163 26136 net.cpp:148] Top shape: 10 256 13 13 (432640)
2016-08-02 06:54:59.676 STDERR [INFO] I0802 06:54:59.675168 26136 net.cpp:156] Memory required for data: 51674680
2016-08-02 06:54:59.676 STDERR [INFO] I0802 06:54:59.675173 26136 layer_factory.hpp:77] Creating layer norm2
2016-08-02 06:54:59.676 STDERR [INFO] I0802 06:54:59.675182 26136 net.cpp:91] Creating Layer norm2
2016-08-02 06:54:59.676 STDERR [INFO] I0802 06:54:59.675189 26136 net.cpp:425] norm2 <- pool2
2016-08-02 06:54:59.676 STDERR [INFO] I0802 06:54:59.675195 26136 net.cpp:399] norm2 -> norm2
2016-08-02 06:54:59.676 STDERR [INFO] I0802 06:54:59.675462 26136 net.cpp:141] Setting up norm2
2016-08-02 06:54:59.676 STDERR [INFO] I0802 06:54:59.675475 26136 net.cpp:148] Top shape: 10 256 13 13 (432640)
2016-08-02 06:54:59.676 STDERR [INFO] I0802 06:54:59.675482 26136 net.cpp:156] Memory required for data: 53405240
2016-08-02 06:54:59.676 STDERR [INFO] I0802 06:54:59.675487 26136 layer_factory.hpp:77] Creating layer conv3
2016-08-02 06:54:59.677 STDERR [INFO] I0802 06:54:59.675498 26136 net.cpp:91] Creating Layer conv3
2016-08-02 06:54:59.677 STDERR [INFO] I0802 06:54:59.675504 26136 net.cpp:425] conv3 <- norm2
2016-08-02 06:54:59.677 STDERR [INFO] I0802 06:54:59.675513 26136 net.cpp:399] conv3 -> conv3
2016-08-02 06:54:59.679 STDERR [INFO] I0802 06:54:59.679522 26136 net.cpp:141] Setting up conv3
2016-08-02 06:54:59.679 STDERR [INFO] I0802 06:54:59.679545 26136 net.cpp:148] Top shape: 10 384 13 13 (648960)
2016-08-02 06:54:59.679 STDERR [INFO] I0802 06:54:59.679551 26136 net.cpp:156] Memory required for data: 56001080
2016-08-02 06:54:59.680 STDERR [INFO] I0802 06:54:59.679566 26136 layer_factory.hpp:77] Creating layer relu3
2016-08-02 06:54:59.680 STDERR [INFO] I0802 06:54:59.679576 26136 net.cpp:91] Creating Layer relu3
2016-08-02 06:54:59.680 STDERR [INFO] I0802 06:54:59.679582 26136 net.cpp:425] relu3 <- conv3
2016-08-02 06:54:59.680 STDERR [INFO] I0802 06:54:59.679590 26136 net.cpp:386] relu3 -> conv3 (in-place)
2016-08-02 06:54:59.680 STDERR [INFO] I0802 06:54:59.680088 26136 net.cpp:141] Setting up relu3
2016-08-02 06:54:59.680 STDERR [INFO] I0802 06:54:59.680102 26136 net.cpp:148] Top shape: 10 384 13 13 (648960)
2016-08-02 06:54:59.680 STDERR [INFO] I0802 06:54:59.680109 26136 net.cpp:156] Memory required for data: 58596920
2016-08-02 06:54:59.680 STDERR [INFO] I0802 06:54:59.680114 26136 layer_factory.hpp:77] Creating layer conv4
2016-08-02 06:54:59.680 STDERR [INFO] I0802 06:54:59.680130 26136 net.cpp:91] Creating Layer conv4
2016-08-02 06:54:59.680 STDERR [INFO] I0802 06:54:59.680135 26136 net.cpp:425] conv4 <- conv3
2016-08-02 06:54:59.681 STDERR [INFO] I0802 06:54:59.680146 26136 net.cpp:399] conv4 -> conv4
2016-08-02 06:54:59.684 STDERR [INFO] I0802 06:54:59.684706 26136 net.cpp:141] Setting up conv4
2016-08-02 06:54:59.685 STDERR [INFO] I0802 06:54:59.684731 26136 net.cpp:148] Top shape: 10 384 13 13 (648960)
2016-08-02 06:54:59.685 STDERR [INFO] I0802 06:54:59.684741 26136 net.cpp:156] Memory required for data: 61192760
2016-08-02 06:54:59.685 STDERR [INFO] I0802 06:54:59.684751 26136 layer_factory.hpp:77] Creating layer relu4
2016-08-02 06:54:59.685 STDERR [INFO] I0802 06:54:59.684762 26136 net.cpp:91] Creating Layer relu4
2016-08-02 06:54:59.685 STDERR [INFO] I0802 06:54:59.684768 26136 net.cpp:425] relu4 <- conv4
2016-08-02 06:54:59.685 STDERR [INFO] I0802 06:54:59.684777 26136 net.cpp:386] relu4 -> conv4 (in-place)
2016-08-02 06:54:59.685 STDERR [INFO] I0802 06:54:59.685269 26136 net.cpp:141] Setting up relu4
2016-08-02 06:54:59.685 STDERR [INFO] I0802 06:54:59.685287 26136 net.cpp:148] Top shape: 10 384 13 13 (648960)
2016-08-02 06:54:59.685 STDERR [INFO] I0802 06:54:59.685292 26136 net.cpp:156] Memory required for data: 63788600
2016-08-02 06:54:59.685 STDERR [INFO] I0802 06:54:59.685298 26136 layer_factory.hpp:77] Creating layer conv5
2016-08-02 06:54:59.686 STDERR [INFO] I0802 06:54:59.685310 26136 net.cpp:91] Creating Layer conv5
2016-08-02 06:54:59.686 STDERR [INFO] I0802 06:54:59.685317 26136 net.cpp:425] conv5 <- conv4
2016-08-02 06:54:59.686 STDERR [INFO] I0802 06:54:59.685328 26136 net.cpp:399] conv5 -> conv5
2016-08-02 06:54:59.689 STDERR [INFO] I0802 06:54:59.689700 26136 net.cpp:141] Setting up conv5
2016-08-02 06:54:59.690 STDERR [INFO] I0802 06:54:59.689721 26136 net.cpp:148] Top shape: 10 256 13 13 (432640)
2016-08-02 06:54:59.690 STDERR [INFO] I0802 06:54:59.689728 26136 net.cpp:156] Memory required for data: 65519160
2016-08-02 06:54:59.690 STDERR [INFO] I0802 06:54:59.689745 26136 layer_factory.hpp:77] Creating layer relu5
2016-08-02 06:54:59.690 STDERR [INFO] I0802 06:54:59.689756 26136 net.cpp:91] Creating Layer relu5
2016-08-02 06:54:59.690 STDERR [INFO] I0802 06:54:59.689761 26136 net.cpp:425] relu5 <- conv5
2016-08-02 06:54:59.690 STDERR [INFO] I0802 06:54:59.689769 26136 net.cpp:386] relu5 -> conv5 (in-place)
2016-08-02 06:54:59.690 STDERR [INFO] I0802 06:54:59.690276 26136 net.cpp:141] Setting up relu5
2016-08-02 06:54:59.690 STDERR [INFO] I0802 06:54:59.690291 26136 net.cpp:148] Top shape: 10 256 13 13 (432640)
2016-08-02 06:54:59.690 STDERR [INFO] I0802 06:54:59.690296 26136 net.cpp:156] Memory required for data: 67249720
2016-08-02 06:54:59.690 STDERR [INFO] I0802 06:54:59.690302 26136 layer_factory.hpp:77] Creating layer pool5
2016-08-02 06:54:59.691 STDERR [INFO] I0802 06:54:59.690312 26136 net.cpp:91] Creating Layer pool5
2016-08-02 06:54:59.691 STDERR [INFO] I0802 06:54:59.690318 26136 net.cpp:425] pool5 <- conv5
2016-08-02 06:54:59.691 STDERR [INFO] I0802 06:54:59.690326 26136 net.cpp:399] pool5 -> pool5
2016-08-02 06:54:59.691 STDERR [INFO] I0802 06:54:59.690395 26136 net.cpp:141] Setting up pool5
2016-08-02 06:54:59.691 STDERR [INFO] I0802 06:54:59.690407 26136 net.cpp:148] Top shape: 10 256 6 6 (92160)
2016-08-02 06:54:59.691 STDERR [INFO] I0802 06:54:59.690412 26136 net.cpp:156] Memory required for data: 67618360
2016-08-02 06:54:59.691 STDERR [INFO] I0802 06:54:59.690417 26136 layer_factory.hpp:77] Creating layer fc6
2016-08-02 06:54:59.691 STDERR [INFO] I0802 06:54:59.690433 26136 net.cpp:91] Creating Layer fc6
2016-08-02 06:54:59.691 STDERR [INFO] I0802 06:54:59.690439 26136 net.cpp:425] fc6 <- pool5
2016-08-02 06:54:59.691 STDERR [INFO] I0802 06:54:59.690448 26136 net.cpp:399] fc6 -> fc6
2016-08-02 06:54:59.800 n.t.s.f.RefreshingImageFetcher$ImageReader [INFO] [Timing] RequestID: 0 StreamID: home_peifeng_work_data_frame_320x240_jpg SequenceNr: 93 Entering queue: 1470135299800
2016-08-02 06:54:59.800 n.t.s.f.RefreshingImageFetcher$ImageReader [INFO] [Timing] RequestID: 0 StreamID: home_peifeng_work_data_frame_320x240_jpg SequenceNr: 94 Entering queue: 1470135299800
2016-08-02 06:54:59.800 n.t.s.f.RefreshingImageFetcher$ImageReader [INFO] [Timing] RequestID: 0 StreamID: home_peifeng_work_data_frame_320x240_jpg SequenceNr: 95 Entering queue: 1470135299800
2016-08-02 06:54:59.800 n.t.s.f.RefreshingImageFetcher$ImageReader [INFO] [Timing] RequestID: 0 StreamID: home_peifeng_work_data_frame_320x240_jpg SequenceNr: 96 Entering queue: 1470135299800
2016-08-02 06:54:59.800 STDERR [INFO] I0802 06:54:59.800601 26136 net.cpp:141] Setting up fc6
2016-08-02 06:54:59.801 STDERR [INFO] I0802 06:54:59.800652 26136 net.cpp:148] Top shape: 10 4096 (40960)
2016-08-02 06:54:59.801 STDERR [INFO] I0802 06:54:59.800658 26136 net.cpp:156] Memory required for data: 67782200
2016-08-02 06:54:59.801 STDERR [INFO] I0802 06:54:59.800673 26136 layer_factory.hpp:77] Creating layer relu6
2016-08-02 06:54:59.801 STDERR [INFO] I0802 06:54:59.800689 26136 net.cpp:91] Creating Layer relu6
2016-08-02 06:54:59.801 STDERR [INFO] I0802 06:54:59.800695 26136 net.cpp:425] relu6 <- fc6
2016-08-02 06:54:59.801 STDERR [INFO] I0802 06:54:59.800709 26136 net.cpp:386] relu6 -> fc6 (in-place)
2016-08-02 06:54:59.801 STDERR [INFO] I0802 06:54:59.801060 26136 net.cpp:141] Setting up relu6
2016-08-02 06:54:59.801 STDERR [INFO] I0802 06:54:59.801075 26136 net.cpp:148] Top shape: 10 4096 (40960)
2016-08-02 06:54:59.801 STDERR [INFO] I0802 06:54:59.801080 26136 net.cpp:156] Memory required for data: 67946040
2016-08-02 06:54:59.802 STDERR [INFO] I0802 06:54:59.801086 26136 layer_factory.hpp:77] Creating layer drop6
2016-08-02 06:54:59.802 STDERR [INFO] I0802 06:54:59.801097 26136 net.cpp:91] Creating Layer drop6
2016-08-02 06:54:59.802 STDERR [INFO] I0802 06:54:59.801102 26136 net.cpp:425] drop6 <- fc6
2016-08-02 06:54:59.802 STDERR [INFO] I0802 06:54:59.801110 26136 net.cpp:386] drop6 -> fc6 (in-place)
2016-08-02 06:54:59.802 STDERR [INFO] I0802 06:54:59.801177 26136 net.cpp:141] Setting up drop6
2016-08-02 06:54:59.802 STDERR [INFO] I0802 06:54:59.801187 26136 net.cpp:148] Top shape: 10 4096 (40960)
2016-08-02 06:54:59.802 STDERR [INFO] I0802 06:54:59.801192 26136 net.cpp:156] Memory required for data: 68109880
2016-08-02 06:54:59.802 STDERR [INFO] I0802 06:54:59.801198 26136 layer_factory.hpp:77] Creating layer fc7
2016-08-02 06:54:59.802 STDERR [INFO] I0802 06:54:59.801213 26136 net.cpp:91] Creating Layer fc7
2016-08-02 06:54:59.802 STDERR [INFO] I0802 06:54:59.801219 26136 net.cpp:425] fc7 <- fc6
…
2016-08-02 06:54:59.850 STDERR [INFO] }
2016-08-02 06:54:59.850 STDERR [INFO] I0802 06:54:59.836026 26126 layer_factory.hpp:77] Creating layer lstm1_
2016-08-02 06:54:59.850 STDERR [INFO] I0802 06:54:59.836041 26126 net.cpp:91] Creating Layer lstm1_
2016-08-02 06:54:59.850 STDERR [INFO] I0802 06:54:59.836048 26126 net.cpp:399] lstm1_ -> x
2016-08-02 06:54:59.850 STDERR [INFO] I0802 06:54:59.836061 26126 net.cpp:399] lstm1_ -> cont
2016-08-02 06:54:59.851 STDERR [INFO] I0802 06:54:59.836133 26126 net.cpp:141] Setting up lstm1_
2016-08-02 06:54:59.851 STDERR [INFO] I0802 06:54:59.836145 26126 net.cpp:148] Top shape: 1 1 500 (500)
2016-08-02 06:54:59.851 STDERR [INFO] I0802 06:54:59.836153 26126 net.cpp:148] Top shape: 1 1 (1)
2016-08-02 06:54:59.851 STDERR [INFO] I0802 06:54:59.836158 26126 net.cpp:156] Memory required for data: 2004
2016-08-02 06:54:59.851 STDERR [INFO] I0802 06:54:59.836163 26126 layer_factory.hpp:77] Creating layer lstm1_
2016-08-02 06:54:59.851 STDERR [INFO] I0802 06:54:59.836172 26126 net.cpp:91] Creating Layer lstm1_
2016-08-02 06:54:59.851 STDERR [INFO] I0802 06:54:59.836184 26126 net.cpp:399] lstm1_ -> c_0
2016-08-02 06:54:59.851 STDERR [INFO] I0802 06:54:59.836194 26126 net.cpp:399] lstm1_ -> h_0
2016-08-02 06:54:59.851 STDERR [INFO] I0802 06:54:59.836256 26126 net.cpp:141] Setting up lstm1_
2016-08-02 06:54:59.851 STDERR [INFO] I0802 06:54:59.836268 26126 net.cpp:148] Top shape: 1 1 1000 (1000)
2016-08-02 06:54:59.851 STDERR [INFO] I0802 06:54:59.836274 26126 net.cpp:148] Top shape: 1 1 1000 (1000)
2016-08-02 06:54:59.852 STDERR [INFO] I0802 06:54:59.836279 26126 net.cpp:156] Memory required for data: 10004
2016-08-02 06:54:59.852 STDERR [INFO] I0802 06:54:59.836284 26126 layer_factory.hpp:77] Creating layer lstm1_cont_slice
2016-08-02 06:54:59.852 STDERR [INFO] I0802 06:54:59.836294 26126 net.cpp:91] Creating Layer lstm1_cont_slice
2016-08-02 06:54:59.852 STDERR [INFO] I0802 06:54:59.836299 26126 net.cpp:425] lstm1_cont_slice <- cont
2016-08-02 06:54:59.852 STDERR [INFO] I0802 06:54:59.836310 26126 net.cpp:399] lstm1_cont_slice -> cont_1
2016-08-02 06:54:59.852 STDERR [INFO] I0802 06:54:59.836349 26126 net.cpp:141] Setting up lstm1_cont_slice
2016-08-02 06:54:59.852 STDERR [INFO] I0802 06:54:59.836359 26126 net.cpp:148] Top shape: 1 1 (1)
2016-08-02 06:54:59.852 STDERR [INFO] I0802 06:54:59.836364 26126 net.cpp:156] Memory required for data: 10008
2016-08-02 06:54:59.852 STDERR [INFO] I0802 06:54:59.836369 26126 layer_factory.hpp:77] Creating layer cont_1_lstm1_cont_slice_0_split
2016-08-02 06:54:59.852 STDERR [INFO] I0802 06:54:59.836381 26126 net.cpp:91] Creating Layer cont_1_lstm1_cont_slice_0_split
2016-08-02 06:54:59.852 STDERR [INFO] I0802 06:54:59.836386 26126 net.cpp:425] cont_1_lstm1_cont_slice_0_split <- cont_1
2016-08-02 06:54:59.853 STDERR [INFO] I0802 06:54:59.836395 26126 net.cpp:399] cont_1_lstm1_cont_slice_0_split -> cont_1_lstm1_cont_slice_0_split_0
2016-08-02 06:54:59.853 STDERR [INFO] I0802 06:54:59.836405 26126 net.cpp:399] cont_1_lstm1_cont_slice_0_split -> cont_1_lstm1_cont_slice_0_split_1
2016-08-02 06:54:59.853 STDERR [INFO] I0802 06:54:59.836462 26126 net.cpp:141] Setting up cont_1_lstm1_cont_slice_0_split
2016-08-02 06:54:59.853 STDERR [INFO] I0802 06:54:59.836472 26126 net.cpp:148] Top shape: 1 1 (1)
2016-08-02 06:54:59.853 STDERR [INFO] I0802 06:54:59.836478 26126 net.cpp:148] Top shape: 1 1 (1)
2016-08-02 06:54:59.853 STDERR [INFO] I0802 06:54:59.836483 26126 net.cpp:156] Memory required for data: 10016
2016-08-02 06:54:59.853 STDERR [INFO] I0802 06:54:59.836488 26126 layer_factory.hpp:77] Creating layer lstm1_x_transform
2016-08-02 06:54:59.853 STDERR [INFO] I0802 06:54:59.836500 26126 net.cpp:91] Creating Layer lstm1_x_transform
2016-08-02 06:54:59.853 STDERR [INFO] I0802 06:54:59.836506 26126 net.cpp:425] lstm1_x_transform <- x
2016-08-02 06:54:59.853 STDERR [INFO] I0802 06:54:59.836515 26126 net.cpp:399] lstm1_x_transform -> W_xc_x
2016-08-02 06:54:59.854 STDERR [INFO] I0802 06:54:59.854313 26136 net.cpp:141] Setting up fc7
2016-08-02 06:54:59.854 STDERR [INFO] I0802 06:54:59.854362 26136 net.cpp:148] Top shape: 10 4096 (40960)
2016-08-02 06:54:59.854 STDERR [INFO] I0802 06:54:59.854368 26136 net.cpp:156] Memory required for data: 68273720
2016-08-02 06:54:59.854 STDERR [INFO] I0802 06:54:59.854384 26136 layer_factory.hpp:77] Creating layer relu7
2016-08-02 06:54:59.855 STDERR [INFO] I0802 06:54:59.854400 26136 net.cpp:91] Creating Layer relu7
2016-08-02 06:54:59.855 STDERR [INFO] I0802 06:54:59.854408 26136 net.cpp:425] relu7 <- fc7
2016-08-02 06:54:59.855 STDERR [INFO] I0802 06:54:59.854421 26136 net.cpp:386] relu7 -> fc7 (in-place)
2016-08-02 06:54:59.855 STDERR [INFO] I0802 06:54:59.855273 26136 net.cpp:141] Setting up relu7
2016-08-02 06:54:59.855 STDERR [INFO] I0802 06:54:59.855288 26136 net.cpp:148] Top shape: 10 4096 (40960)
2016-08-02 06:54:59.855 STDERR [INFO] I0802 06:54:59.855293 26136 net.cpp:156] Memory required for data: 68437560
2016-08-02 06:54:59.856 STDERR [INFO] I0802 06:54:59.855299 26136 layer_factory.hpp:77] Creating layer drop7
2016-08-02 06:54:59.856 STDERR [INFO] I0802 06:54:59.855310 26136 net.cpp:91] Creating Layer drop7
2016-08-02 06:54:59.856 STDERR [INFO] I0802 06:54:59.855315 26136 net.cpp:425] drop7 <- fc7
2016-08-02 06:54:59.856 STDERR [INFO] I0802 06:54:59.855327 26136 net.cpp:386] drop7 -> fc7 (in-place)
2016-08-02 06:54:59.856 STDERR [INFO] I0802 06:54:59.855373 26136 net.cpp:141] Setting up drop7
2016-08-02 06:54:59.856 STDERR [INFO] I0802 06:54:59.855383 26136 net.cpp:148] Top shape: 10 4096 (40960)
2016-08-02 06:54:59.856 STDERR [INFO] I0802 06:54:59.855388 26136 net.cpp:156] Memory required for data: 68601400
2016-08-02 06:54:59.857 STDERR [INFO] I0802 06:54:59.855393 26136 layer_factory.hpp:77] Creating layer fc8
2016-08-02 06:54:59.857 STDERR [INFO] I0802 06:54:59.855404 26136 net.cpp:91] Creating Layer fc8
2016-08-02 06:54:59.857 STDERR [INFO] I0802 06:54:59.855409 26136 net.cpp:425] fc8 <- fc7
2016-08-02 06:54:59.857 STDERR [INFO] I0802 06:54:59.855418 26136 net.cpp:399] fc8 -> fc8
2016-08-02 06:54:59.864 STDERR [INFO] I0802 06:54:59.863852 26126 net.cpp:141] Setting up lstm1_x_transform
2016-08-02 06:54:59.864 STDERR [INFO] I0802 06:54:59.863908 26126 net.cpp:148] Top shape: 1 1 4000 (4000)
2016-08-02 06:54:59.864 STDERR [INFO] I0802 06:54:59.863914 26126 net.cpp:156] Memory required for data: 26016
2016-08-02 06:54:59.864 STDERR [INFO] I0802 06:54:59.863936 26126 layer_factory.hpp:77] Creating layer lstm1_W_xc_x_slice
2016-08-02 06:54:59.864 STDERR [INFO] I0802 06:54:59.863956 26126 net.cpp:91] Creating Layer lstm1_W_xc_x_slice
2016-08-02 06:54:59.864 STDERR [INFO] I0802 06:54:59.863965 26126 net.cpp:425] lstm1_W_xc_x_slice <- W_xc_x
2016-08-02 06:54:59.865 STDERR [INFO] I0802 06:54:59.863976 26126 net.cpp:399] lstm1_W_xc_x_slice -> W_xc_x_1
2016-08-02 06:54:59.865 STDERR [INFO] I0802 06:54:59.864037 26126 net.cpp:141] Setting up lstm1_W_xc_x_slice
2016-08-02 06:54:59.865 STDERR [INFO] I0802 06:54:59.864050 26126 net.cpp:148] Top shape: 1 1 4000 (4000)
2016-08-02 06:54:59.865 STDERR [INFO] I0802 06:54:59.864055 26126 net.cpp:156] Memory required for data: 42016
2016-08-02 06:54:59.865 STDERR [INFO] I0802 06:54:59.864060 26126 layer_factory.hpp:77] Creating layer lstm1_h_conted_0
2016-08-02 06:54:59.865 STDERR [INFO] I0802 06:54:59.864074 26126 net.cpp:91] Creating Layer lstm1_h_conted_0
2016-08-02 06:54:59.865 STDERR [INFO] I0802 06:54:59.864081 26126 net.cpp:425] lstm1_h_conted_0 <- h_0
2016-08-02 06:54:59.865 STDERR [INFO] I0802 06:54:59.864089 26126 net.cpp:425] lstm1_h_conted_0 <- cont_1_lstm1_cont_slice_0_split_0
2016-08-02 06:54:59.865 STDERR [INFO] I0802 06:54:59.864096 26126 net.cpp:399] lstm1_h_conted_0 -> h_conted_0
2016-08-02 06:54:59.865 STDERR [INFO] I0802 06:54:59.864197 26126 net.cpp:141] Setting up lstm1_h_conted_0
2016-08-02 06:54:59.866 STDERR [INFO] I0802 06:54:59.864207 26126 net.cpp:148] Top shape: 1 1 1000 (1000)
2016-08-02 06:54:59.866 STDERR [INFO] I0802 06:54:59.864212 26126 net.cpp:156] Memory required for data: 46016
2016-08-02 06:54:59.866 STDERR [INFO] I0802 06:54:59.864217 26126 layer_factory.hpp:77] Creating layer lstm1_transform_1
2016-08-02 06:54:59.866 STDERR [INFO] I0802 06:54:59.864233 26126 net.cpp:91] Creating Layer lstm1_transform_1
2016-08-02 06:54:59.866 STDERR [INFO] I0802 06:54:59.864239 26126 net.cpp:425] lstm1_transform_1 <- h_conted_0
2016-08-02 06:54:59.866 STDERR [INFO] I0802 06:54:59.864248 26126 net.cpp:399] lstm1_transform_1 -> W_hc_h_0
2016-08-02 06:54:59.873 STDERR [INFO] I0802 06:54:59.872856 26136 net.cpp:141] Setting up fc8
2016-08-02 06:54:59.873 STDERR [INFO] I0802 06:54:59.872905 26136 net.cpp:148] Top shape: 10 1000 (10000)
2016-08-02 06:54:59.873 STDERR [INFO] I0802 06:54:59.872911 26136 net.cpp:156] Memory required for data: 68641400
2016-08-02 06:54:59.873 STDERR [INFO] I0802 06:54:59.872925 26136 layer_factory.hpp:77] Creating layer prob
2016-08-02 06:54:59.873 STDERR [INFO] I0802 06:54:59.872946 26136 net.cpp:91] Creating Layer prob
2016-08-02 06:54:59.873 STDERR [INFO] I0802 06:54:59.872953 26136 net.cpp:425] prob <- fc8
2016-08-02 06:54:59.873 STDERR [INFO] I0802 06:54:59.872963 26136 net.cpp:399] prob -> prob
2016-08-02 06:54:59.874 STDERR [INFO] I0802 06:54:59.873426 26136 net.cpp:141] Setting up prob
2016-08-02 06:54:59.874 STDERR [INFO] I0802 06:54:59.873440 26136 net.cpp:148] Top shape: 10 1000 (10000)
2016-08-02 06:54:59.874 STDERR [INFO] I0802 06:54:59.873445 26136 net.cpp:156] Memory required for data: 68681400
2016-08-02 06:54:59.874 STDERR [INFO] I0802 06:54:59.873451 26136 net.cpp:219] prob does not need backward computation.
2016-08-02 06:54:59.874 STDERR [INFO] I0802 06:54:59.873457 26136 net.cpp:219] fc8 does not need backward computation.
2016-08-02 06:54:59.874 STDERR [INFO] I0802 06:54:59.873462 26136 net.cpp:219] drop7 does not need backward computation.
…
2016-08-02 06:54:59.876 STDERR [INFO] I0802 06:54:59.873564 26136 net.cpp:219] conv1 does not need backward computation.
2016-08-02 06:54:59.876 STDERR [INFO] I0802 06:54:59.873572 26136 net.cpp:219] data does not need backward computation.
2016-08-02 06:54:59.876 STDERR [INFO] I0802 06:54:59.873577 26136 net.cpp:261] This network produces output prob
2016-08-02 06:54:59.876 STDERR [INFO] I0802 06:54:59.873600 26136 net.cpp:274] Network initialization done.
2016-08-02 06:54:59.908 STDERR [INFO] I0802 06:54:59.908282 26126 net.cpp:141] Setting up lstm1_transform_1
2016-08-02 06:54:59.908 STDERR [INFO] I0802 06:54:59.908329 26126 net.cpp:148] Top shape: 1 1 4000 (4000)
2016-08-02 06:54:59.908 STDERR [INFO] I0802 06:54:59.908335 26126 net.cpp:156] Memory required for data: 62016
2016-08-02 06:54:59.909 STDERR [INFO] I0802 06:54:59.908354 26126 layer_factory.hpp:77] Creating layer lstm1_gate_input_1
2016-08-02 06:54:59.909 STDERR [INFO] I0802 06:54:59.908376 26126 net.cpp:91] Creating Layer lstm1_gate_input_1
2016-08-02 06:54:59.909 STDERR [INFO] I0802 06:54:59.908385 26126 net.cpp:425] lstm1_gate_input_1 <- W_hc_h_0
2016-08-02 06:54:59.909 STDERR [INFO] I0802 06:54:59.908395 26126 net.cpp:425] lstm1_gate_input_1 <- W_xc_x_1
2016-08-02 06:54:59.909 STDERR [INFO] I0802 06:54:59.908402 26126 net.cpp:399] lstm1_gate_input_1 -> gate_input_1
2016-08-02 06:54:59.909 STDERR [INFO] I0802 06:54:59.908459 26126 net.cpp:141] Setting up lstm1_gate_input_1
2016-08-02 06:54:59.909 STDERR [INFO] I0802 06:54:59.908470 26126 net.cpp:148] Top shape: 1 1 4000 (4000)
2016-08-02 06:54:59.909 STDERR [INFO] I0802 06:54:59.908475 26126 net.cpp:156] Memory required for data: 78016
2016-08-02 06:54:59.909 STDERR [INFO] I0802 06:54:59.908480 26126 layer_factory.hpp:77] Creating layer lstm1_unit_1
2016-08-02 06:54:59.909 STDERR [INFO] I0802 06:54:59.908493 26126 net.cpp:91] Creating Layer lstm1_unit_1
2016-08-02 06:54:59.910 STDERR [INFO] I0802 06:54:59.908499 26126 net.cpp:425] lstm1_unit_1 <- c_0
2016-08-02 06:54:59.910 STDERR [INFO] I0802 06:54:59.908506 26126 net.cpp:425] lstm1_unit_1 <- gate_input_1
2016-08-02 06:54:59.910 STDERR [INFO] I0802 06:54:59.908512 26126 net.cpp:425] lstm1_unit_1 <- cont_1_lstm1_cont_slice_0_split_1
2016-08-02 06:54:59.910 STDERR [INFO] I0802 06:54:59.908519 26126 net.cpp:399] lstm1_unit_1 -> c_1
2016-08-02 06:54:59.910 STDERR [INFO] I0802 06:54:59.908529 26126 net.cpp:399] lstm1_unit_1 -> h_1
2016-08-02 06:54:59.910 STDERR [INFO] I0802 06:54:59.908598 26126 net.cpp:141] Setting up lstm1_unit_1
2016-08-02 06:54:59.910 STDERR [INFO] I0802 06:54:59.908609 26126 net.cpp:148] Top shape: 1 1 1000 (1000)
2016-08-02 06:54:59.910 STDERR [INFO] I0802 06:54:59.908615 26126 net.cpp:148] Top shape: 1 1 1000 (1000)
2016-08-02 06:54:59.910 STDERR [INFO] I0802 06:54:59.908620 26126 net.cpp:156] Memory required for data: 86016
2016-08-02 06:54:59.910 STDERR [INFO] I0802 06:54:59.908625 26126 layer_factory.hpp:77] Creating layer lstm1_
2016-08-02 06:54:59.910 STDERR [INFO] I0802 06:54:59.908634 26126 net.cpp:91] Creating Layer lstm1_
2016-08-02 06:54:59.911 STDERR [INFO] I0802 06:54:59.908639 26126 net.cpp:425] lstm1_ <- c_1
2016-08-02 06:54:59.911 STDERR [INFO] I0802 06:54:59.908648 26126 net.cpp:399] lstm1_ -> c_T
2016-08-02 06:54:59.911 STDERR [INFO] I0802 06:54:59.908684 26126 net.cpp:141] Setting up lstm1_
2016-08-02 06:54:59.911 STDERR [INFO] I0802 06:54:59.908694 26126 net.cpp:148] Top shape: 1 1 1000 (1000)
2016-08-02 06:54:59.911 STDERR [INFO] I0802 06:54:59.908699 26126 net.cpp:156] Memory required for data: 90016
2016-08-02 06:54:59.911 STDERR [INFO] I0802 06:54:59.908704 26126 layer_factory.hpp:77] Creating layer lstm1_h_concat
2016-08-02 06:54:59.911 STDERR [INFO] I0802 06:54:59.908722 26126 net.cpp:91] Creating Layer lstm1_h_concat
2016-08-02 06:54:59.911 STDERR [INFO] I0802 06:54:59.908728 26126 net.cpp:425] lstm1_h_concat <- h_1
2016-08-02 06:54:59.911 STDERR [INFO] I0802 06:54:59.908736 26126 net.cpp:399] lstm1_h_concat -> h
2016-08-02 06:54:59.911 STDERR [INFO] I0802 06:54:59.908777 26126 net.cpp:141] Setting up lstm1_h_concat
2016-08-02 06:54:59.911 STDERR [INFO] I0802 06:54:59.908787 26126 net.cpp:148] Top shape: 1 1 1000 (1000)
2016-08-02 06:54:59.911 STDERR [INFO] I0802 06:54:59.908792 26126 net.cpp:156] Memory required for data: 94016
2016-08-02 06:54:59.911 STDERR [INFO] I0802 06:54:59.908797 26126 layer_factory.hpp:77] Creating layer h_pseudoloss
2016-08-02 06:54:59.912 STDERR [INFO] I0802 06:54:59.908807 26126 net.cpp:91] Creating Layer h_pseudoloss
2016-08-02 06:54:59.912 STDERR [INFO] I0802 06:54:59.908812 26126 net.cpp:425] h_pseudoloss <- h
…
2016-08-02 06:54:59.928 STDERR [INFO] }
2016-08-02 06:54:59.928 STDERR [INFO] I0802 06:54:59.909801 26126 layer_factory.hpp:77] Creating layer lstm2_
2016-08-02 06:54:59.928 STDERR [INFO] I0802 06:54:59.909814 26126 net.cpp:91] Creating Layer lstm2_
2016-08-02 06:54:59.928 STDERR [INFO] I0802 06:54:59.909821 26126 net.cpp:399] lstm2_ -> x
2016-08-02 06:54:59.928 STDERR [INFO] I0802 06:54:59.909833 26126 net.cpp:399] lstm2_ -> cont
2016-08-02 06:54:59.928 STDERR [INFO] I0802 06:54:59.909894 26126 net.cpp:141] Setting up lstm2_
2016-08-02 06:54:59.928 STDERR [INFO] I0802 06:54:59.909905 26126 net.cpp:148] Top shape: 1 1 1501 (1501)
2016-08-02 06:54:59.928 STDERR [INFO] I0802 06:54:59.909912 26126 net.cpp:148] Top shape: 1 1 (1)
2016-08-02 06:54:59.928 STDERR [INFO] I0802 06:54:59.909916 26126 net.cpp:156] Memory required for data: 6008
2016-08-02 06:54:59.928 STDERR [INFO] I0802 06:54:59.909922 26126 layer_factory.hpp:77] Creating layer lstm2_
2016-08-02 06:54:59.928 STDERR [INFO] I0802 06:54:59.909935 26126 net.cpp:91] Creating Layer lstm2_
2016-08-02 06:54:59.929 STDERR [INFO] I0802 06:54:59.909942 26126 net.cpp:399] lstm2_ -> c_0
2016-08-02 06:54:59.929 STDERR [INFO] I0802 06:54:59.909953 26126 net.cpp:399] lstm2_ -> h_0
2016-08-02 06:54:59.929 STDERR [INFO] I0802 06:54:59.910008 26126 net.cpp:141] Setting up lstm2_
2016-08-02 06:54:59.929 STDERR [INFO] I0802 06:54:59.910018 26126 net.cpp:148] Top shape: 1 1 1000 (1000)
2016-08-02 06:54:59.929 STDERR [INFO] I0802 06:54:59.910024 26126 net.cpp:148] Top shape: 1 1 1000 (1000)
2016-08-02 06:54:59.929 STDERR [INFO] I0802 06:54:59.910029 26126 net.cpp:156] Memory required for data: 14008
2016-08-02 06:54:59.929 STDERR [INFO] I0802 06:54:59.910034 26126 layer_factory.hpp:77] Creating layer lstm2_cont_slice
2016-08-02 06:54:59.929 STDERR [INFO] I0802 06:54:59.910043 26126 net.cpp:91] Creating Layer lstm2_cont_slice
2016-08-02 06:54:59.929 STDERR [INFO] I0802 06:54:59.910048 26126 net.cpp:425] lstm2_cont_slice <- cont
2016-08-02 06:54:59.929 STDERR [INFO] I0802 06:54:59.910056 26126 net.cpp:399] lstm2_cont_slice -> cont_1
2016-08-02 06:54:59.929 STDERR [INFO] I0802 06:54:59.910091 26126 net.cpp:141] Setting up lstm2_cont_slice
2016-08-02 06:54:59.930 STDERR [INFO] I0802 06:54:59.910101 26126 net.cpp:148] Top shape: 1 1 (1)
2016-08-02 06:54:59.930 STDERR [INFO] I0802 06:54:59.910106 26126 net.cpp:156] Memory required for data: 14012
2016-08-02 06:54:59.930 STDERR [INFO] I0802 06:54:59.910111 26126 layer_factory.hpp:77] Creating layer cont_1_lstm2_cont_slice_0_split
2016-08-02 06:54:59.930 STDERR [INFO] I0802 06:54:59.910122 26126 net.cpp:91] Creating Layer cont_1_lstm2_cont_slice_0_split
2016-08-02 06:54:59.930 STDERR [INFO] I0802 06:54:59.910127 26126 net.cpp:425] cont_1_lstm2_cont_slice_0_split <- cont_1
2016-08-02 06:54:59.930 STDERR [INFO] I0802 06:54:59.910135 26126 net.cpp:399] cont_1_lstm2_cont_slice_0_split -> cont_1_lstm2_cont_slice_0_split_0
2016-08-02 06:54:59.930 STDERR [INFO] I0802 06:54:59.910146 26126 net.cpp:399] cont_1_lstm2_cont_slice_0_split -> cont_1_lstm2_cont_slice_0_split_1
2016-08-02 06:54:59.930 STDERR [INFO] I0802 06:54:59.910197 26126 net.cpp:141] Setting up cont_1_lstm2_cont_slice_0_split
2016-08-02 06:54:59.930 STDERR [INFO] I0802 06:54:59.910205 26126 net.cpp:148] Top shape: 1 1 (1)
2016-08-02 06:54:59.930 STDERR [INFO] I0802 06:54:59.910212 26126 net.cpp:148] Top shape: 1 1 (1)
2016-08-02 06:54:59.930 STDERR [INFO] I0802 06:54:59.910217 26126 net.cpp:156] Memory required for data: 14020
2016-08-02 06:54:59.930 STDERR [INFO] I0802 06:54:59.910221 26126 layer_factory.hpp:77] Creating layer lstm2_x_transform
2016-08-02 06:54:59.931 STDERR [INFO] I0802 06:54:59.910238 26126 net.cpp:91] Creating Layer lstm2_x_transform
2016-08-02 06:54:59.931 STDERR [INFO] I0802 06:54:59.910243 26126 net.cpp:425] lstm2_x_transform <- x
2016-08-02 06:54:59.931 STDERR [INFO] I0802 06:54:59.910254 26126 net.cpp:399] lstm2_x_transform -> W_xc_x
2016-08-02 06:54:59.974 STDERR [INFO] I0802 06:54:59.974437 26126 net.cpp:141] Setting up lstm2_x_transform
2016-08-02 06:54:59.975 STDERR [INFO] I0802 06:54:59.974493 26126 net.cpp:148] Top shape: 1 1 4000 (4000)
2016-08-02 06:54:59.975 STDERR [INFO] I0802 06:54:59.974500 26126 net.cpp:156] Memory required for data: 30020
2016-08-02 06:54:59.975 STDERR [INFO] I0802 06:54:59.974522 26126 layer_factory.hpp:77] Creating layer lstm2_W_xc_x_slice
2016-08-02 06:54:59.975 STDERR [INFO] I0802 06:54:59.974540 26126 net.cpp:91] Creating Layer lstm2_W_xc_x_slice
2016-08-02 06:54:59.975 STDERR [INFO] I0802 06:54:59.974548 26126 net.cpp:425] lstm2_W_xc_x_slice <- W_xc_x
2016-08-02 06:54:59.975 STDERR [INFO] I0802 06:54:59.974560 26126 net.cpp:399] lstm2_W_xc_x_slice -> W_xc_x_1
2016-08-02 06:54:59.975 STDERR [INFO] I0802 06:54:59.974614 26126 net.cpp:141] Setting up lstm2_W_xc_x_slice
2016-08-02 06:54:59.975 STDERR [INFO] I0802 06:54:59.974627 26126 net.cpp:148] Top shape: 1 1 4000 (4000)
2016-08-02 06:54:59.975 STDERR [INFO] I0802 06:54:59.974632 26126 net.cpp:156] Memory required for data: 46020
2016-08-02 06:54:59.975 STDERR [INFO] I0802 06:54:59.974637 26126 layer_factory.hpp:77] Creating layer lstm2_h_conted_0
2016-08-02 06:54:59.975 STDERR [INFO] I0802 06:54:59.974648 26126 net.cpp:91] Creating Layer lstm2_h_conted_0
2016-08-02 06:54:59.976 STDERR [INFO] I0802 06:54:59.974653 26126 net.cpp:425] lstm2_h_conted_0 <- h_0
2016-08-02 06:54:59.976 STDERR [INFO] I0802 06:54:59.974660 26126 net.cpp:425] lstm2_h_conted_0 <- cont_1_lstm2_cont_slice_0_split_0
2016-08-02 06:54:59.976 STDERR [INFO] I0802 06:54:59.974668 26126 net.cpp:399] lstm2_h_conted_0 -> h_conted_0
2016-08-02 06:54:59.976 STDERR [INFO] I0802 06:54:59.974771 26126 net.cpp:141] Setting up lstm2_h_conted_0
2016-08-02 06:54:59.976 STDERR [INFO] I0802 06:54:59.974781 26126 net.cpp:148] Top shape: 1 1 1000 (1000)
2016-08-02 06:54:59.976 STDERR [INFO] I0802 06:54:59.974786 26126 net.cpp:156] Memory required for data: 50020
2016-08-02 06:54:59.976 STDERR [INFO] I0802 06:54:59.974792 26126 layer_factory.hpp:77] Creating layer lstm2_transform_1
2016-08-02 06:54:59.976 STDERR [INFO] I0802 06:54:59.974804 26126 net.cpp:91] Creating Layer lstm2_transform_1
2016-08-02 06:54:59.976 STDERR [INFO] I0802 06:54:59.974810 26126 net.cpp:425] lstm2_transform_1 <- h_conted_0
…
