…
Java HotSpot(TM) 64-Bit Server VM warning: You have loaded library /tmp/cvld5628281527268223957/libopencv_java310.xine1.so which might have disabled stack guard. The VM will try to fix the stack guard now.
It's highly recommended that you fix the library with 'execstack -c <libfile>', or link it with '-z noexecstack'.
WARNING: Logging before InitGoogleLogging() is written to STDERR
I0802 06:54:58.863394 26136 net.cpp:49] Initializing net from parameters: 
name: "CaffeNet"
state {
  phase: TEST
}
layer {
  name: "data"
  type: "Input"
  top: "data"
  input_param {
    shape {
      dim: 10
      dim: 3
      dim: 227
      dim: 227
    }
  }
}
layer {
  name: "conv1"
  type: "Convolution"
  bottom: "data"
  top: "conv1"
  convolution_param {
    num_output: 96
    kernel_size: 11
    stride: 4
  }
}
layer {
  name: "relu1"
  type: "ReLU"
  bottom: "conv1"
  top: "conv1"
}
layer {
  name: "pool1"
  type: "Pooling"
  bottom: "conv1"
  top: "pool1"
  pooling_param {
    pool: MAX
    kernel_size: 3
    stride: 2
  }
}
layer {
  name: "norm1"
  type: "LRN"
  bottom: "pool1"
  top: "norm1"
  lrn_param {
    local_size: 5
    alpha: 0.0001
    beta: 0.75
  }
}
layer {
  name: "conv2"
  type: "Convolution"
  bottom: "norm1"
  top: "conv2"
  convolution_param {
    num_output: 256
    pad: 2
    kernel_size: 5
    group: 2
  }
}
layer {
  name: "relu2"
  type: "ReLU"
  bottom: "conv2"
  top: "conv2"
}
layer {
  name: "pool2"
  type: "Pooling"
  bottom: "conv2"
  top: "pool2"
  pooling_param {
    pool: MAX
    kernel_size: 3
    stride: 2
  }
}
layer {
  name: "norm2"
  type: "LRN"
  bottom: "pool2"
  top: "norm2"
  lrn_param {
    local_size: 5
    alpha: 0.0001
    beta: 0.75
  }
}
layer {
  name: "conv3"
  type: "Convolution"
  bottom: "norm2"
  top: "conv3"
  convolution_param {
    num_output: 384
    pad: 1
    kernel_size: 3
  }
}
layer {
  name: "relu3"
  type: "ReLU"
  bottom: "conv3"
  top: "conv3"
}
layer {
  name: "conv4"
  type: "Convolution"
  bottom: "conv3"
  top: "conv4"
  convolution_param {
    num_output: 384
    pad: 1
    kernel_size: 3
    group: 2
  }
}
layer {
  name: "relu4"
  type: "ReLU"
  bottom: "conv4"
  top: "conv4"
}
layer {
  name: "conv5"
  type: "Convolution"
  bottom: "conv4"
  top: "conv5"
  convolution_param {
    num_output: 256
    pad: 1
    kernel_size: 3
    group: 2
  }
}
layer {
  name: "relu5"
  type: "ReLU"
  bottom: "conv5"
  top: "conv5"
}
layer {
  name: "pool5"
  type: "Pooling"
  bottom: "conv5"
  top: "pool5"
  pooling_param {
    pool: MAX
    kernel_size: 3
    stride: 2
  }
}
layer {
  name: "fc6"
  type: "InnerProduct"
  bottom: "pool5"
  top: "fc6"
  inner_product_param {
    num_output: 4096
  }
}
layer {
  name: "relu6"
  type: "ReLU"
  bottom: "fc6"
  top: "fc6"
}
layer {
  name: "drop6"
  type: "Dropout"
  bottom: "fc6"
  top: "fc6"
  dropout_param {
    dropout_ratio: 0.5
  }
}
layer {
  name: "fc7"
  type: "InnerProduct"
  bottom: "fc6"
  top: "fc7"
  inner_product_param {
    num_output: 4096
  }
}
layer {
  name: "relu7"
  type: "ReLU"
  bottom: "fc7"
  top: "fc7"
}
layer {
  name: "drop7"
  type: "Dropout"
  bottom: "fc7"
  top: "fc7"
  dropout_param {
    dropout_ratio: 0.5
  }
}
layer {
  name: "fc8"
  type: "InnerProduct"
  bottom: "fc7"
  top: "fc8"
  inner_product_param {
    num_output: 1000
  }
}
layer {
  name: "prob"
  type: "Softmax"
  bottom: "fc8"
  top: "prob"
}
I0802 06:54:58.863608 26136 layer_factory.hpp:77] Creating layer data
I0802 06:54:58.863641 26136 net.cpp:91] Creating Layer data
I0802 06:54:58.863652 26136 net.cpp:399] data -> data
I0802 06:54:59.396899 26136 net.cpp:141] Setting up data
I0802 06:54:59.397003 26136 net.cpp:148] Top shape: 10 3 227 227 (1545870)
I0802 06:54:59.397011 26136 net.cpp:156] Memory required for data: 6183480
I0802 06:54:59.397032 26136 layer_factory.hpp:77] Creating layer conv1
I0802 06:54:59.397060 26136 net.cpp:91] Creating Layer conv1
I0802 06:54:59.397071 26136 net.cpp:425] conv1 <- data
I0802 06:54:59.397085 26136 net.cpp:399] conv1 -> conv1
I0802 06:54:59.556244 26126 upgrade_proto.cpp:66] Attempting to upgrade input file specified using deprecated input fields: /tmp/cvld5628281527268223957/s2vt.words_to_preds.prototxt
I0802 06:54:59.556299 26126 upgrade_proto.cpp:69] Successfully upgraded file specified using deprecated input fields.
W0802 06:54:59.556308 26126 upgrade_proto.cpp:71] Note that future Caffe releases will only support input layers and not input fields.
I0802 06:54:59.556581 26126 net.cpp:49] Initializing net from parameters: 
name: "s2vt:features_to_lstm"
state {
  phase: TEST
}
layer {
  name: "input"
  type: "Input"
  top: "frames_fc7"
  top: "cont_sentence"
  top: "input_sentence"
  top: "stage_indicator"
  input_param {
    shape {
      dim: 1
      dim: 4096
    }
    shape {
      dim: 1
      dim: 1
    }
    shape {
      dim: 1
      dim: 1
    }
    shape {
      dim: 1
      dim: 1
    }
  }
}
layer {
  name: "embed_encoder"
  type: "InnerProduct"
  bottom: "frames_fc7"
  top: "embedded_in_frames"
  param {
    lr_mult: 1
    decay_mult: 1
  }
  param {
    lr_mult: 2
    decay_mult: 0
  }
  inner_product_param {
    num_output: 500
    weight_filler {
      type: "xavier"
    }
    bias_filler {
      type: "constant"
      value: 0.2
    }
  }
}
layer {
  name: "reshape_frames"
  type: "Reshape"
  bottom: "embedded_in_frames"
  top: "embedded_input_frames"
  reshape_param {
    shape {
      dim: 1
      dim: 1
      dim: 500
    }
  }
}
layer {
  name: "reshape_stage_indicator"
  type: "Reshape"
  bottom: "stage_indicator"
  top: "reshaped_stage_indicator"
  reshape_param {
    shape {
      dim: 1
      dim: 1
      dim: 1
    }
  }
}
layer {
  name: "embedding"
  type: "Embed"
  bottom: "input_sentence"
  top: "embedded_input_sentence"
  param {
    lr_mult: 1
  }
  embed_param {
    num_output: 500
    input_dim: 46168
    bias_term: false
    weight_filler {
      type: "uniform"
      min: -0.08
      max: 0.08
    }
  }
}
layer {
  name: "lstm1"
  type: "LSTM"
  bottom: "embedded_input_frames"
  bottom: "cont_sentence"
  top: "lstm1"
  recurrent_param {
    num_output: 1000
    weight_filler {
      type: "uniform"
      min: -0.08
      max: 0.08
    }
    bias_filler {
      type: "constant"
      value: 0
    }
  }
}
layer {
  name: "concat"
  type: "Concat"
  bottom: "lstm1"
  bottom: "embedded_input_sentence"
  bottom: "reshaped_stage_indicator"
  top: "lstm1_video_sequence"
  concat_param {
    concat_dim: 2
  }
}
layer {
  name: "lstm2"
  type: "LSTM"
  bottom: "lstm1_video_sequence"
  bottom: "cont_sentence"
  top: "lstm2"
  recurrent_param {
    num_output: 1000
    weight_filler {
      type: "uniform"
      min: -0.08
      max: 0.08
    }
    bias_filler {
      type: "constant"
      value: 0
    }
  }
}
layer {
  name: "predict"
  type: "InnerProduct"
  bottom: "lstm2"
  top: "predict"
  param {
    lr_mult: 1
    decay_mult: 1
  }
  param {
    lr_mult: 2
    decay_mult: 0
  }
  inner_product_param {
    num_output: 46168
    weight_filler {
      type: "uniform"
      min: -0.08
      max: 0.08
    }
    bias_filler {
      type: "constant"
      value: 0
    }
    axis: 2
  }
}
layer {
  name: "probs"
  type: "Softmax"
  bottom: "predict"
  top: "probs"
  softmax_param {
    axis: 2
  }
}
I0802 06:54:59.556687 26126 layer_factory.hpp:77] Creating layer input
I0802 06:54:59.556704 26126 net.cpp:91] Creating Layer input
I0802 06:54:59.556713 26126 net.cpp:399] input -> frames_fc7
I0802 06:54:59.556730 26126 net.cpp:399] input -> cont_sentence
I0802 06:54:59.556742 26126 net.cpp:399] input -> input_sentence
I0802 06:54:59.556752 26126 net.cpp:399] input -> stage_indicator
I0802 06:54:59.558720 26126 net.cpp:141] Setting up input
I0802 06:54:59.558744 26126 net.cpp:148] Top shape: 1 4096 (4096)
I0802 06:54:59.558758 26126 net.cpp:148] Top shape: 1 1 (1)
I0802 06:54:59.558770 26126 net.cpp:148] Top shape: 1 1 (1)
I0802 06:54:59.558779 26126 net.cpp:148] Top shape: 1 1 (1)
I0802 06:54:59.558782 26126 net.cpp:156] Memory required for data: 16396
I0802 06:54:59.558789 26126 layer_factory.hpp:77] Creating layer cont_sentence_input_1_split
I0802 06:54:59.558810 26126 net.cpp:91] Creating Layer cont_sentence_input_1_split
I0802 06:54:59.558822 26126 net.cpp:425] cont_sentence_input_1_split <- cont_sentence
I0802 06:54:59.558853 26126 net.cpp:399] cont_sentence_input_1_split -> cont_sentence_input_1_split_0
I0802 06:54:59.558871 26126 net.cpp:399] cont_sentence_input_1_split -> cont_sentence_input_1_split_1
I0802 06:54:59.559345 26126 net.cpp:141] Setting up cont_sentence_input_1_split
I0802 06:54:59.559360 26126 net.cpp:148] Top shape: 1 1 (1)
I0802 06:54:59.559365 26126 net.cpp:148] Top shape: 1 1 (1)
I0802 06:54:59.559370 26126 net.cpp:156] Memory required for data: 16404
I0802 06:54:59.559376 26126 layer_factory.hpp:77] Creating layer embed_encoder
I0802 06:54:59.559391 26126 net.cpp:91] Creating Layer embed_encoder
I0802 06:54:59.559396 26126 net.cpp:425] embed_encoder <- frames_fc7
I0802 06:54:59.559407 26126 net.cpp:399] embed_encoder -> embedded_in_frames
I0802 06:54:59.585124 26126 net.cpp:141] Setting up embed_encoder
I0802 06:54:59.585180 26126 net.cpp:148] Top shape: 1 500 (500)
I0802 06:54:59.585192 26126 net.cpp:156] Memory required for data: 18404
I0802 06:54:59.585233 26126 layer_factory.hpp:77] Creating layer reshape_frames
I0802 06:54:59.585273 26126 net.cpp:91] Creating Layer reshape_frames
I0802 06:54:59.585286 26126 net.cpp:425] reshape_frames <- embedded_in_frames
I0802 06:54:59.585304 26126 net.cpp:399] reshape_frames -> embedded_input_frames
I0802 06:54:59.587976 26126 net.cpp:141] Setting up reshape_frames
I0802 06:54:59.588002 26126 net.cpp:148] Top shape: 1 1 500 (500)
I0802 06:54:59.588029 26126 net.cpp:156] Memory required for data: 20404
I0802 06:54:59.588040 26126 layer_factory.hpp:77] Creating layer reshape_stage_indicator
I0802 06:54:59.588058 26126 net.cpp:91] Creating Layer reshape_stage_indicator
I0802 06:54:59.588068 26126 net.cpp:425] reshape_stage_indicator <- stage_indicator
I0802 06:54:59.588089 26126 net.cpp:399] reshape_stage_indicator -> reshaped_stage_indicator
I0802 06:54:59.589361 26126 net.cpp:141] Setting up reshape_stage_indicator
I0802 06:54:59.589383 26126 net.cpp:148] Top shape: 1 1 1 (1)
I0802 06:54:59.589392 26126 net.cpp:156] Memory required for data: 20408
I0802 06:54:59.589402 26126 layer_factory.hpp:77] Creating layer embedding
I0802 06:54:59.589421 26126 net.cpp:91] Creating Layer embedding
I0802 06:54:59.589432 26126 net.cpp:425] embedding <- input_sentence
I0802 06:54:59.589452 26126 net.cpp:399] embedding -> embedded_input_sentence
I0802 06:54:59.669739 26136 net.cpp:141] Setting up conv1
I0802 06:54:59.669790 26136 net.cpp:148] Top shape: 10 96 55 55 (2904000)
I0802 06:54:59.669798 26136 net.cpp:156] Memory required for data: 17799480
I0802 06:54:59.669822 26136 layer_factory.hpp:77] Creating layer relu1
I0802 06:54:59.669842 26136 net.cpp:91] Creating Layer relu1
I0802 06:54:59.669848 26136 net.cpp:425] relu1 <- conv1
I0802 06:54:59.669857 26136 net.cpp:386] relu1 -> conv1 (in-place)
I0802 06:54:59.670333 26136 net.cpp:141] Setting up relu1
I0802 06:54:59.670348 26136 net.cpp:148] Top shape: 10 96 55 55 (2904000)
I0802 06:54:59.670354 26136 net.cpp:156] Memory required for data: 29415480
I0802 06:54:59.670361 26136 layer_factory.hpp:77] Creating layer pool1
I0802 06:54:59.670373 26136 net.cpp:91] Creating Layer pool1
I0802 06:54:59.670379 26136 net.cpp:425] pool1 <- conv1
I0802 06:54:59.670387 26136 net.cpp:399] pool1 -> pool1
I0802 06:54:59.670459 26136 net.cpp:141] Setting up pool1
I0802 06:54:59.670470 26136 net.cpp:148] Top shape: 10 96 27 27 (699840)
I0802 06:54:59.670476 26136 net.cpp:156] Memory required for data: 32214840
I0802 06:54:59.670481 26136 layer_factory.hpp:77] Creating layer norm1
I0802 06:54:59.670497 26136 net.cpp:91] Creating Layer norm1
I0802 06:54:59.670503 26136 net.cpp:425] norm1 <- pool1
I0802 06:54:59.670511 26136 net.cpp:399] norm1 -> norm1
I0802 06:54:59.671020 26136 net.cpp:141] Setting up norm1
I0802 06:54:59.671036 26136 net.cpp:148] Top shape: 10 96 27 27 (699840)
I0802 06:54:59.671041 26136 net.cpp:156] Memory required for data: 35014200
I0802 06:54:59.671046 26136 layer_factory.hpp:77] Creating layer conv2
I0802 06:54:59.671061 26136 net.cpp:91] Creating Layer conv2
I0802 06:54:59.671067 26136 net.cpp:425] conv2 <- norm1
I0802 06:54:59.671075 26136 net.cpp:399] conv2 -> conv2
I0802 06:54:59.674502 26136 net.cpp:141] Setting up conv2
I0802 06:54:59.674525 26136 net.cpp:148] Top shape: 10 256 27 27 (1866240)
I0802 06:54:59.674531 26136 net.cpp:156] Memory required for data: 42479160
I0802 06:54:59.674546 26136 layer_factory.hpp:77] Creating layer relu2
I0802 06:54:59.674556 26136 net.cpp:91] Creating Layer relu2
I0802 06:54:59.674561 26136 net.cpp:425] relu2 <- conv2
I0802 06:54:59.674569 26136 net.cpp:386] relu2 -> conv2 (in-place)
I0802 06:54:59.675048 26136 net.cpp:141] Setting up relu2
I0802 06:54:59.675062 26136 net.cpp:148] Top shape: 10 256 27 27 (1866240)
I0802 06:54:59.675068 26136 net.cpp:156] Memory required for data: 49944120
I0802 06:54:59.675074 26136 layer_factory.hpp:77] Creating layer pool2
I0802 06:54:59.675083 26136 net.cpp:91] Creating Layer pool2
I0802 06:54:59.675089 26136 net.cpp:425] pool2 <- conv2
I0802 06:54:59.675097 26136 net.cpp:399] pool2 -> pool2
I0802 06:54:59.675151 26136 net.cpp:141] Setting up pool2
I0802 06:54:59.675163 26136 net.cpp:148] Top shape: 10 256 13 13 (432640)
I0802 06:54:59.675168 26136 net.cpp:156] Memory required for data: 51674680
I0802 06:54:59.675173 26136 layer_factory.hpp:77] Creating layer norm2
I0802 06:54:59.675182 26136 net.cpp:91] Creating Layer norm2
I0802 06:54:59.675189 26136 net.cpp:425] norm2 <- pool2
I0802 06:54:59.675195 26136 net.cpp:399] norm2 -> norm2
I0802 06:54:59.675462 26136 net.cpp:141] Setting up norm2
I0802 06:54:59.675475 26136 net.cpp:148] Top shape: 10 256 13 13 (432640)
I0802 06:54:59.675482 26136 net.cpp:156] Memory required for data: 53405240
I0802 06:54:59.675487 26136 layer_factory.hpp:77] Creating layer conv3
I0802 06:54:59.675498 26136 net.cpp:91] Creating Layer conv3
I0802 06:54:59.675504 26136 net.cpp:425] conv3 <- norm2
I0802 06:54:59.675513 26136 net.cpp:399] conv3 -> conv3
I0802 06:54:59.679522 26136 net.cpp:141] Setting up conv3
I0802 06:54:59.679545 26136 net.cpp:148] Top shape: 10 384 13 13 (648960)
I0802 06:54:59.679551 26136 net.cpp:156] Memory required for data: 56001080
I0802 06:54:59.679566 26136 layer_factory.hpp:77] Creating layer relu3
I0802 06:54:59.679576 26136 net.cpp:91] Creating Layer relu3
I0802 06:54:59.679582 26136 net.cpp:425] relu3 <- conv3
I0802 06:54:59.679590 26136 net.cpp:386] relu3 -> conv3 (in-place)
I0802 06:54:59.680088 26136 net.cpp:141] Setting up relu3
I0802 06:54:59.680102 26136 net.cpp:148] Top shape: 10 384 13 13 (648960)
I0802 06:54:59.680109 26136 net.cpp:156] Memory required for data: 58596920
I0802 06:54:59.680114 26136 layer_factory.hpp:77] Creating layer conv4
I0802 06:54:59.680130 26136 net.cpp:91] Creating Layer conv4
I0802 06:54:59.680135 26136 net.cpp:425] conv4 <- conv3
I0802 06:54:59.680146 26136 net.cpp:399] conv4 -> conv4
I0802 06:54:59.684706 26136 net.cpp:141] Setting up conv4
I0802 06:54:59.684731 26136 net.cpp:148] Top shape: 10 384 13 13 (648960)
I0802 06:54:59.684741 26136 net.cpp:156] Memory required for data: 61192760
I0802 06:54:59.684751 26136 layer_factory.hpp:77] Creating layer relu4
I0802 06:54:59.684762 26136 net.cpp:91] Creating Layer relu4
I0802 06:54:59.684768 26136 net.cpp:425] relu4 <- conv4
I0802 06:54:59.684777 26136 net.cpp:386] relu4 -> conv4 (in-place)
I0802 06:54:59.685269 26136 net.cpp:141] Setting up relu4
I0802 06:54:59.685287 26136 net.cpp:148] Top shape: 10 384 13 13 (648960)
I0802 06:54:59.685292 26136 net.cpp:156] Memory required for data: 63788600
I0802 06:54:59.685298 26136 layer_factory.hpp:77] Creating layer conv5
I0802 06:54:59.685310 26136 net.cpp:91] Creating Layer conv5
I0802 06:54:59.685317 26136 net.cpp:425] conv5 <- conv4
I0802 06:54:59.685328 26136 net.cpp:399] conv5 -> conv5
I0802 06:54:59.689700 26136 net.cpp:141] Setting up conv5
I0802 06:54:59.689721 26136 net.cpp:148] Top shape: 10 256 13 13 (432640)
I0802 06:54:59.689728 26136 net.cpp:156] Memory required for data: 65519160
I0802 06:54:59.689745 26136 layer_factory.hpp:77] Creating layer relu5
I0802 06:54:59.689756 26136 net.cpp:91] Creating Layer relu5
I0802 06:54:59.689761 26136 net.cpp:425] relu5 <- conv5
I0802 06:54:59.689769 26136 net.cpp:386] relu5 -> conv5 (in-place)
I0802 06:54:59.690276 26136 net.cpp:141] Setting up relu5
I0802 06:54:59.690291 26136 net.cpp:148] Top shape: 10 256 13 13 (432640)
I0802 06:54:59.690296 26136 net.cpp:156] Memory required for data: 67249720
I0802 06:54:59.690302 26136 layer_factory.hpp:77] Creating layer pool5
I0802 06:54:59.690312 26136 net.cpp:91] Creating Layer pool5
I0802 06:54:59.690318 26136 net.cpp:425] pool5 <- conv5
I0802 06:54:59.690326 26136 net.cpp:399] pool5 -> pool5
I0802 06:54:59.690395 26136 net.cpp:141] Setting up pool5
I0802 06:54:59.690407 26136 net.cpp:148] Top shape: 10 256 6 6 (92160)
I0802 06:54:59.690412 26136 net.cpp:156] Memory required for data: 67618360
I0802 06:54:59.690417 26136 layer_factory.hpp:77] Creating layer fc6
I0802 06:54:59.690433 26136 net.cpp:91] Creating Layer fc6
I0802 06:54:59.690439 26136 net.cpp:425] fc6 <- pool5
I0802 06:54:59.690448 26136 net.cpp:399] fc6 -> fc6
I0802 06:54:59.800601 26136 net.cpp:141] Setting up fc6
I0802 06:54:59.800652 26136 net.cpp:148] Top shape: 10 4096 (40960)
I0802 06:54:59.800658 26136 net.cpp:156] Memory required for data: 67782200
I0802 06:54:59.800673 26136 layer_factory.hpp:77] Creating layer relu6
I0802 06:54:59.800689 26136 net.cpp:91] Creating Layer relu6
I0802 06:54:59.800695 26136 net.cpp:425] relu6 <- fc6
I0802 06:54:59.800709 26136 net.cpp:386] relu6 -> fc6 (in-place)
I0802 06:54:59.801060 26136 net.cpp:141] Setting up relu6
I0802 06:54:59.801075 26136 net.cpp:148] Top shape: 10 4096 (40960)
I0802 06:54:59.801080 26136 net.cpp:156] Memory required for data: 67946040
I0802 06:54:59.801086 26136 layer_factory.hpp:77] Creating layer drop6
I0802 06:54:59.801097 26136 net.cpp:91] Creating Layer drop6
I0802 06:54:59.801102 26136 net.cpp:425] drop6 <- fc6
I0802 06:54:59.801110 26136 net.cpp:386] drop6 -> fc6 (in-place)
I0802 06:54:59.801177 26136 net.cpp:141] Setting up drop6
I0802 06:54:59.801187 26136 net.cpp:148] Top shape: 10 4096 (40960)
I0802 06:54:59.801192 26136 net.cpp:156] Memory required for data: 68109880
I0802 06:54:59.801198 26136 layer_factory.hpp:77] Creating layer fc7
I0802 06:54:59.801213 26136 net.cpp:91] Creating Layer fc7
I0802 06:54:59.801219 26136 net.cpp:425] fc7 <- fc6
I0802 06:54:59.801228 26136 net.cpp:399] fc7 -> fc7
I0802 06:54:59.835366 26126 net.cpp:141] Setting up embedding
I0802 06:54:59.835417 26126 net.cpp:148] Top shape: 1 1 500 (500)
I0802 06:54:59.835423 26126 net.cpp:156] Memory required for data: 22408
I0802 06:54:59.835444 26126 layer_factory.hpp:77] Creating layer lstm1
I0802 06:54:59.835464 26126 net.cpp:91] Creating Layer lstm1
I0802 06:54:59.835472 26126 net.cpp:425] lstm1 <- embedded_input_frames
I0802 06:54:59.835484 26126 net.cpp:425] lstm1 <- cont_sentence_input_1_split_0
I0802 06:54:59.835496 26126 net.cpp:399] lstm1 -> lstm1
I0802 06:54:59.835523 26126 recurrent_layer.cpp:20] Initializing recurrent layer: assuming input batch contains 1 timesteps of 1 independent streams.
I0802 06:54:59.835911 26126 net.cpp:49] Initializing net from parameters: 
layer {
  name: "lstm1_"
  type: "Input"
  top: "x"
  top: "cont"
  input_param {
    shape {
      dim: 1
      dim: 1
      dim: 500
    }
    shape {
      dim: 1
      dim: 1
    }
  }
}
layer {
  name: "lstm1_"
  type: "Input"
  top: "c_0"
  top: "h_0"
  input_param {
    shape {
      dim: 1
      dim: 1
      dim: 1000
    }
    shape {
      dim: 1
      dim: 1
      dim: 1000
    }
  }
}
layer {
  name: "lstm1_cont_slice"
  type: "Slice"
  bottom: "cont"
  top: "cont_1"
  slice_param {
    axis: 0
  }
}
layer {
  name: "lstm1_x_transform"
  type: "InnerProduct"
  bottom: "x"
  top: "W_xc_x"
  param {
    name: "W_xc"
  }
  param {
    name: "b_c"
  }
  propagate_down: true
  inner_product_param {
    num_output: 4000
    bias_term: true
    weight_filler {
      type: "uniform"
      min: -0.08
      max: 0.08
    }
    bias_filler {
      type: "constant"
      value: 0
    }
    axis: 2
  }
}
layer {
  name: "lstm1_W_xc_x_slice"
  type: "Slice"
  bottom: "W_xc_x"
  top: "W_xc_x_1"
  slice_param {
    axis: 0
  }
}
layer {
  name: "lstm1_h_conted_0"
  type: "Scale"
  bottom: "h_0"
  bottom: "cont_1"
  top: "h_conted_0"
  scale_param {
    axis: 0
  }
}
layer {
  name: "lstm1_transform_1"
  type: "InnerProduct"
  bottom: "h_conted_0"
  top: "W_hc_h_0"
  param {
    name: "W_hc"
  }
  inner_product_param {
    num_output: 4000
    bias_term: false
    weight_filler {
      type: "uniform"
      min: -0.08
      max: 0.08
    }
    axis: 2
  }
}
layer {
  name: "lstm1_gate_input_1"
  type: "Eltwise"
  bottom: "W_hc_h_0"
  bottom: "W_xc_x_1"
  top: "gate_input_1"
  eltwise_param {
    operation: SUM
  }
}
layer {
  name: "lstm1_unit_1"
  type: "LSTMUnit"
  bottom: "c_0"
  bottom: "gate_input_1"
  bottom: "cont_1"
  top: "c_1"
  top: "h_1"
}
layer {
  name: "lstm1_"
  type: "Split"
  bottom: "c_1"
  top: "c_T"
}
layer {
  name: "lstm1_h_concat"
  type: "Concat"
  bottom: "h_1"
  top: "h"
  concat_param {
    axis: 0
  }
}
layer {
  name: "h_pseudoloss"
  type: "Reduction"
  bottom: "h"
  top: "h_pseudoloss"
  loss_weight: 1
}
I0802 06:54:59.836026 26126 layer_factory.hpp:77] Creating layer lstm1_
I0802 06:54:59.836041 26126 net.cpp:91] Creating Layer lstm1_
I0802 06:54:59.836048 26126 net.cpp:399] lstm1_ -> x
I0802 06:54:59.836061 26126 net.cpp:399] lstm1_ -> cont
I0802 06:54:59.836133 26126 net.cpp:141] Setting up lstm1_
I0802 06:54:59.836145 26126 net.cpp:148] Top shape: 1 1 500 (500)
I0802 06:54:59.836153 26126 net.cpp:148] Top shape: 1 1 (1)
I0802 06:54:59.836158 26126 net.cpp:156] Memory required for data: 2004
I0802 06:54:59.836163 26126 layer_factory.hpp:77] Creating layer lstm1_
I0802 06:54:59.836172 26126 net.cpp:91] Creating Layer lstm1_
I0802 06:54:59.836184 26126 net.cpp:399] lstm1_ -> c_0
I0802 06:54:59.836194 26126 net.cpp:399] lstm1_ -> h_0
I0802 06:54:59.836256 26126 net.cpp:141] Setting up lstm1_
I0802 06:54:59.836268 26126 net.cpp:148] Top shape: 1 1 1000 (1000)
I0802 06:54:59.836274 26126 net.cpp:148] Top shape: 1 1 1000 (1000)
I0802 06:54:59.836279 26126 net.cpp:156] Memory required for data: 10004
I0802 06:54:59.836284 26126 layer_factory.hpp:77] Creating layer lstm1_cont_slice
I0802 06:54:59.836294 26126 net.cpp:91] Creating Layer lstm1_cont_slice
I0802 06:54:59.836299 26126 net.cpp:425] lstm1_cont_slice <- cont
I0802 06:54:59.836310 26126 net.cpp:399] lstm1_cont_slice -> cont_1
I0802 06:54:59.836349 26126 net.cpp:141] Setting up lstm1_cont_slice
I0802 06:54:59.836359 26126 net.cpp:148] Top shape: 1 1 (1)
I0802 06:54:59.836364 26126 net.cpp:156] Memory required for data: 10008
I0802 06:54:59.836369 26126 layer_factory.hpp:77] Creating layer cont_1_lstm1_cont_slice_0_split
I0802 06:54:59.836381 26126 net.cpp:91] Creating Layer cont_1_lstm1_cont_slice_0_split
I0802 06:54:59.836386 26126 net.cpp:425] cont_1_lstm1_cont_slice_0_split <- cont_1
I0802 06:54:59.836395 26126 net.cpp:399] cont_1_lstm1_cont_slice_0_split -> cont_1_lstm1_cont_slice_0_split_0
I0802 06:54:59.836405 26126 net.cpp:399] cont_1_lstm1_cont_slice_0_split -> cont_1_lstm1_cont_slice_0_split_1
I0802 06:54:59.836462 26126 net.cpp:141] Setting up cont_1_lstm1_cont_slice_0_split
I0802 06:54:59.836472 26126 net.cpp:148] Top shape: 1 1 (1)
I0802 06:54:59.836478 26126 net.cpp:148] Top shape: 1 1 (1)
I0802 06:54:59.836483 26126 net.cpp:156] Memory required for data: 10016
I0802 06:54:59.836488 26126 layer_factory.hpp:77] Creating layer lstm1_x_transform
I0802 06:54:59.836500 26126 net.cpp:91] Creating Layer lstm1_x_transform
I0802 06:54:59.836506 26126 net.cpp:425] lstm1_x_transform <- x
I0802 06:54:59.836515 26126 net.cpp:399] lstm1_x_transform -> W_xc_x
I0802 06:54:59.854313 26136 net.cpp:141] Setting up fc7
I0802 06:54:59.854362 26136 net.cpp:148] Top shape: 10 4096 (40960)
I0802 06:54:59.854368 26136 net.cpp:156] Memory required for data: 68273720
I0802 06:54:59.854384 26136 layer_factory.hpp:77] Creating layer relu7
I0802 06:54:59.854400 26136 net.cpp:91] Creating Layer relu7
I0802 06:54:59.854408 26136 net.cpp:425] relu7 <- fc7
I0802 06:54:59.854421 26136 net.cpp:386] relu7 -> fc7 (in-place)
I0802 06:54:59.855273 26136 net.cpp:141] Setting up relu7
I0802 06:54:59.855288 26136 net.cpp:148] Top shape: 10 4096 (40960)
I0802 06:54:59.855293 26136 net.cpp:156] Memory required for data: 68437560
I0802 06:54:59.855299 26136 layer_factory.hpp:77] Creating layer drop7
I0802 06:54:59.855310 26136 net.cpp:91] Creating Layer drop7
I0802 06:54:59.855315 26136 net.cpp:425] drop7 <- fc7
I0802 06:54:59.855327 26136 net.cpp:386] drop7 -> fc7 (in-place)
I0802 06:54:59.855373 26136 net.cpp:141] Setting up drop7
I0802 06:54:59.855383 26136 net.cpp:148] Top shape: 10 4096 (40960)
I0802 06:54:59.855388 26136 net.cpp:156] Memory required for data: 68601400
I0802 06:54:59.855393 26136 layer_factory.hpp:77] Creating layer fc8
I0802 06:54:59.855404 26136 net.cpp:91] Creating Layer fc8
I0802 06:54:59.855409 26136 net.cpp:425] fc8 <- fc7
I0802 06:54:59.855418 26136 net.cpp:399] fc8 -> fc8
I0802 06:54:59.863852 26126 net.cpp:141] Setting up lstm1_x_transform
I0802 06:54:59.863908 26126 net.cpp:148] Top shape: 1 1 4000 (4000)
I0802 06:54:59.863914 26126 net.cpp:156] Memory required for data: 26016
I0802 06:54:59.863936 26126 layer_factory.hpp:77] Creating layer lstm1_W_xc_x_slice
I0802 06:54:59.863956 26126 net.cpp:91] Creating Layer lstm1_W_xc_x_slice
I0802 06:54:59.863965 26126 net.cpp:425] lstm1_W_xc_x_slice <- W_xc_x
I0802 06:54:59.863976 26126 net.cpp:399] lstm1_W_xc_x_slice -> W_xc_x_1
I0802 06:54:59.864037 26126 net.cpp:141] Setting up lstm1_W_xc_x_slice
I0802 06:54:59.864050 26126 net.cpp:148] Top shape: 1 1 4000 (4000)
I0802 06:54:59.864055 26126 net.cpp:156] Memory required for data: 42016
I0802 06:54:59.864060 26126 layer_factory.hpp:77] Creating layer lstm1_h_conted_0
I0802 06:54:59.864074 26126 net.cpp:91] Creating Layer lstm1_h_conted_0
I0802 06:54:59.864081 26126 net.cpp:425] lstm1_h_conted_0 <- h_0
I0802 06:54:59.864089 26126 net.cpp:425] lstm1_h_conted_0 <- cont_1_lstm1_cont_slice_0_split_0
I0802 06:54:59.864096 26126 net.cpp:399] lstm1_h_conted_0 -> h_conted_0
I0802 06:54:59.864197 26126 net.cpp:141] Setting up lstm1_h_conted_0
I0802 06:54:59.864207 26126 net.cpp:148] Top shape: 1 1 1000 (1000)
I0802 06:54:59.864212 26126 net.cpp:156] Memory required for data: 46016
I0802 06:54:59.864217 26126 layer_factory.hpp:77] Creating layer lstm1_transform_1
I0802 06:54:59.864233 26126 net.cpp:91] Creating Layer lstm1_transform_1
I0802 06:54:59.864239 26126 net.cpp:425] lstm1_transform_1 <- h_conted_0
I0802 06:54:59.864248 26126 net.cpp:399] lstm1_transform_1 -> W_hc_h_0
I0802 06:54:59.872856 26136 net.cpp:141] Setting up fc8
I0802 06:54:59.872905 26136 net.cpp:148] Top shape: 10 1000 (10000)
I0802 06:54:59.872911 26136 net.cpp:156] Memory required for data: 68641400
I0802 06:54:59.872925 26136 layer_factory.hpp:77] Creating layer prob
I0802 06:54:59.872946 26136 net.cpp:91] Creating Layer prob
I0802 06:54:59.872953 26136 net.cpp:425] prob <- fc8
I0802 06:54:59.872963 26136 net.cpp:399] prob -> prob
I0802 06:54:59.873426 26136 net.cpp:141] Setting up prob
I0802 06:54:59.873440 26136 net.cpp:148] Top shape: 10 1000 (10000)
I0802 06:54:59.873445 26136 net.cpp:156] Memory required for data: 68681400
I0802 06:54:59.873451 26136 net.cpp:219] prob does not need backward computation.
I0802 06:54:59.873457 26136 net.cpp:219] fc8 does not need backward computation.
I0802 06:54:59.873462 26136 net.cpp:219] drop7 does not need backward computation.
I0802 06:54:59.873467 26136 net.cpp:219] relu7 does not need backward computation.
…
I0802 06:54:59.873548 26136 net.cpp:219] norm1 does not need backward computation.
I0802 06:54:59.873553 26136 net.cpp:219] pool1 does not need backward computation.
I0802 06:54:59.873558 26136 net.cpp:219] relu1 does not need backward computation.
I0802 06:54:59.873564 26136 net.cpp:219] conv1 does not need backward computation.
I0802 06:54:59.873572 26136 net.cpp:219] data does not need backward computation.
I0802 06:54:59.873577 26136 net.cpp:261] This network produces output prob
I0802 06:54:59.873600 26136 net.cpp:274] Network initialization done.
I0802 06:54:59.908282 26126 net.cpp:141] Setting up lstm1_transform_1
I0802 06:54:59.908329 26126 net.cpp:148] Top shape: 1 1 4000 (4000)
I0802 06:54:59.908335 26126 net.cpp:156] Memory required for data: 62016
I0802 06:54:59.908354 26126 layer_factory.hpp:77] Creating layer lstm1_gate_input_1
I0802 06:54:59.908376 26126 net.cpp:91] Creating Layer lstm1_gate_input_1
I0802 06:54:59.908385 26126 net.cpp:425] lstm1_gate_input_1 <- W_hc_h_0
I0802 06:54:59.908395 26126 net.cpp:425] lstm1_gate_input_1 <- W_xc_x_1
I0802 06:54:59.908402 26126 net.cpp:399] lstm1_gate_input_1 -> gate_input_1
I0802 06:54:59.908459 26126 net.cpp:141] Setting up lstm1_gate_input_1
I0802 06:54:59.908470 26126 net.cpp:148] Top shape: 1 1 4000 (4000)
I0802 06:54:59.908475 26126 net.cpp:156] Memory required for data: 78016
I0802 06:54:59.908480 26126 layer_factory.hpp:77] Creating layer lstm1_unit_1
I0802 06:54:59.908493 26126 net.cpp:91] Creating Layer lstm1_unit_1
I0802 06:54:59.908499 26126 net.cpp:425] lstm1_unit_1 <- c_0
I0802 06:54:59.908506 26126 net.cpp:425] lstm1_unit_1 <- gate_input_1
I0802 06:54:59.908512 26126 net.cpp:425] lstm1_unit_1 <- cont_1_lstm1_cont_slice_0_split_1
I0802 06:54:59.908519 26126 net.cpp:399] lstm1_unit_1 -> c_1
I0802 06:54:59.908529 26126 net.cpp:399] lstm1_unit_1 -> h_1
I0802 06:54:59.908598 26126 net.cpp:141] Setting up lstm1_unit_1
I0802 06:54:59.908609 26126 net.cpp:148] Top shape: 1 1 1000 (1000)
I0802 06:54:59.908615 26126 net.cpp:148] Top shape: 1 1 1000 (1000)
I0802 06:54:59.908620 26126 net.cpp:156] Memory required for data: 86016
I0802 06:54:59.908625 26126 layer_factory.hpp:77] Creating layer lstm1_
I0802 06:54:59.908634 26126 net.cpp:91] Creating Layer lstm1_
I0802 06:54:59.908639 26126 net.cpp:425] lstm1_ <- c_1
I0802 06:54:59.908648 26126 net.cpp:399] lstm1_ -> c_T
I0802 06:54:59.908684 26126 net.cpp:141] Setting up lstm1_
I0802 06:54:59.908694 26126 net.cpp:148] Top shape: 1 1 1000 (1000)
I0802 06:54:59.908699 26126 net.cpp:156] Memory required for data: 90016
I0802 06:54:59.908704 26126 layer_factory.hpp:77] Creating layer lstm1_h_concat
I0802 06:54:59.908722 26126 net.cpp:91] Creating Layer lstm1_h_concat
I0802 06:54:59.908728 26126 net.cpp:425] lstm1_h_concat <- h_1
I0802 06:54:59.908736 26126 net.cpp:399] lstm1_h_concat -> h
I0802 06:54:59.908777 26126 net.cpp:141] Setting up lstm1_h_concat
I0802 06:54:59.908787 26126 net.cpp:148] Top shape: 1 1 1000 (1000)
I0802 06:54:59.908792 26126 net.cpp:156] Memory required for data: 94016
I0802 06:54:59.908797 26126 layer_factory.hpp:77] Creating layer h_pseudoloss
I0802 06:54:59.908807 26126 net.cpp:91] Creating Layer h_pseudoloss
I0802 06:54:59.908812 26126 net.cpp:425] h_pseudoloss <- h
I0802 06:54:59.908819 26126 net.cpp:399] h_pseudoloss -> h_pseudoloss
I0802 06:54:59.908912 26126 net.cpp:141] Setting up h_pseudoloss
…
I0802 06:54:59.909046 26126 net.cpp:219] lstm1_ does not need backward computation.
I0802 06:54:59.909050 26126 net.cpp:261] This network produces output c_T
I0802 06:54:59.909055 26126 net.cpp:261] This network produces output h_pseudoloss
I0802 06:54:59.909070 26126 net.cpp:274] Network initialization done.
I0802 06:54:59.909126 26126 recurrent_layer.cpp:150] Adding parameter 0: W_xc
I0802 06:54:59.909132 26126 recurrent_layer.cpp:150] Adding parameter 1: b_c
I0802 06:54:59.909137 26126 recurrent_layer.cpp:150] Adding parameter 2: W_hc
I0802 06:54:59.909250 26126 net.cpp:141] Setting up lstm1
I0802 06:54:59.909263 26126 net.cpp:148] Top shape: 1 1 1000 (1000)
I0802 06:54:59.909268 26126 net.cpp:156] Memory required for data: 26408
I0802 06:54:59.909283 26126 layer_factory.hpp:77] Creating layer concat
I0802 06:54:59.909294 26126 net.cpp:91] Creating Layer concat
I0802 06:54:59.909301 26126 net.cpp:425] concat <- lstm1
I0802 06:54:59.909309 26126 net.cpp:425] concat <- embedded_input_sentence
I0802 06:54:59.909315 26126 net.cpp:425] concat <- reshaped_stage_indicator
I0802 06:54:59.909323 26126 net.cpp:399] concat -> lstm1_video_sequence
I0802 06:54:59.909360 26126 net.cpp:141] Setting up concat
I0802 06:54:59.909370 26126 net.cpp:148] Top shape: 1 1 1501 (1501)
I0802 06:54:59.909375 26126 net.cpp:156] Memory required for data: 32412
I0802 06:54:59.909380 26126 layer_factory.hpp:77] Creating layer lstm2
I0802 06:54:59.909394 26126 net.cpp:91] Creating Layer lstm2
I0802 06:54:59.909399 26126 net.cpp:425] lstm2 <- lstm1_video_sequence
I0802 06:54:59.909406 26126 net.cpp:425] lstm2 <- cont_sentence_input_1_split_1
I0802 06:54:59.909413 26126 net.cpp:399] lstm2 -> lstm2
I0802 06:54:59.909425 26126 recurrent_layer.cpp:20] Initializing recurrent layer: assuming input batch contains 1 timesteps of 1 independent streams.
I0802 06:54:59.909706 26126 net.cpp:49] Initializing net from parameters: 
layer {
  name: "lstm2_"
  type: "Input"
  top: "x"
  top: "cont"
  input_param {
    shape {
      dim: 1
      dim: 1
      dim: 1501
    }
    shape {
      dim: 1
      dim: 1
    }
  }
}
layer {
  name: "lstm2_"
  type: "Input"
  top: "c_0"
  top: "h_0"
  input_param {
    shape {
      dim: 1
      dim: 1
      dim: 1000
    }
    shape {
      dim: 1
      dim: 1
      dim: 1000
    }
  }
}
layer {
  name: "lstm2_cont_slice"
  type: "Slice"
  bottom: "cont"
  top: "cont_1"
  slice_param {
    axis: 0
  }
}
layer {
  name: "lstm2_x_transform"
  type: "InnerProduct"
  bottom: "x"
  top: "W_xc_x"
  param {
    name: "W_xc"
  }
  param {
    name: "b_c"
  }
  propagate_down: true
  inner_product_param {
    num_output: 4000
    bias_term: true
    weight_filler {
      type: "uniform"
      min: -0.08
      max: 0.08
    }
    bias_filler {
      type: "constant"
      value: 0
    }
    axis: 2
  }
}
layer {
  name: "lstm2_W_xc_x_slice"
  type: "Slice"
  bottom: "W_xc_x"
  top: "W_xc_x_1"
  slice_param {
    axis: 0
  }
}
layer {
  name: "lstm2_h_conted_0"
  type: "Scale"
  bottom: "h_0"
  bottom: "cont_1"
  top: "h_conted_0"
  scale_param {
    axis: 0
  }
}
layer {
  name: "lstm2_transform_1"
  type: "InnerProduct"
  bottom: "h_conted_0"
  top: "W_hc_h_0"
  param {
    name: "W_hc"
  }
  inner_product_param {
    num_output: 4000
    bias_term: false
    weight_filler {
      type: "uniform"
      min: -0.08
      max: 0.08
    }
    axis: 2
  }
}
layer {
  name: "lstm2_gate_input_1"
  type: "Eltwise"
  bottom: "W_hc_h_0"
  bottom: "W_xc_x_1"
  top: "gate_input_1"
  eltwise_param {
    operation: SUM
  }
}
layer {
  name: "lstm2_unit_1"
  type: "LSTMUnit"
  bottom: "c_0"
  bottom: "gate_input_1"
  bottom: "cont_1"
  top: "c_1"
  top: "h_1"
}
layer {
  name: "lstm2_"
  type: "Split"
  bottom: "c_1"
  top: "c_T"
}
layer {
  name: "lstm2_h_concat"
  type: "Concat"
  bottom: "h_1"
  top: "h"
  concat_param {
    axis: 0
  }
}
layer {
  name: "h_pseudoloss"
  type: "Reduction"
  bottom: "h"
  top: "h_pseudoloss"
  loss_weight: 1
}
I0802 06:54:59.909801 26126 layer_factory.hpp:77] Creating layer lstm2_
I0802 06:54:59.909814 26126 net.cpp:91] Creating Layer lstm2_
I0802 06:54:59.909821 26126 net.cpp:399] lstm2_ -> x
I0802 06:54:59.909833 26126 net.cpp:399] lstm2_ -> cont
I0802 06:54:59.909894 26126 net.cpp:141] Setting up lstm2_
I0802 06:54:59.909905 26126 net.cpp:148] Top shape: 1 1 1501 (1501)
I0802 06:54:59.909912 26126 net.cpp:148] Top shape: 1 1 (1)
I0802 06:54:59.909916 26126 net.cpp:156] Memory required for data: 6008
I0802 06:54:59.909922 26126 layer_factory.hpp:77] Creating layer lstm2_
I0802 06:54:59.909935 26126 net.cpp:91] Creating Layer lstm2_
I0802 06:54:59.909942 26126 net.cpp:399] lstm2_ -> c_0
I0802 06:54:59.909953 26126 net.cpp:399] lstm2_ -> h_0
I0802 06:54:59.910008 26126 net.cpp:141] Setting up lstm2_
I0802 06:54:59.910018 26126 net.cpp:148] Top shape: 1 1 1000 (1000)
I0802 06:54:59.910024 26126 net.cpp:148] Top shape: 1 1 1000 (1000)
I0802 06:54:59.910029 26126 net.cpp:156] Memory required for data: 14008
I0802 06:54:59.910034 26126 layer_factory.hpp:77] Creating layer lstm2_cont_slice
I0802 06:54:59.910043 26126 net.cpp:91] Creating Layer lstm2_cont_slice
I0802 06:54:59.910048 26126 net.cpp:425] lstm2_cont_slice <- cont
I0802 06:54:59.910056 26126 net.cpp:399] lstm2_cont_slice -> cont_1
I0802 06:54:59.910091 26126 net.cpp:141] Setting up lstm2_cont_slice
I0802 06:54:59.910101 26126 net.cpp:148] Top shape: 1 1 (1)
I0802 06:54:59.910106 26126 net.cpp:156] Memory required for data: 14012
I0802 06:54:59.910111 26126 layer_factory.hpp:77] Creating layer cont_1_lstm2_cont_slice_0_split
I0802 06:54:59.910122 26126 net.cpp:91] Creating Layer cont_1_lstm2_cont_slice_0_split
I0802 06:54:59.910127 26126 net.cpp:425] cont_1_lstm2_cont_slice_0_split <- cont_1
I0802 06:54:59.910135 26126 net.cpp:399] cont_1_lstm2_cont_slice_0_split -> cont_1_lstm2_cont_slice_0_split_0
I0802 06:54:59.910146 26126 net.cpp:399] cont_1_lstm2_cont_slice_0_split -> cont_1_lstm2_cont_slice_0_split_1
I0802 06:54:59.910197 26126 net.cpp:141] Setting up cont_1_lstm2_cont_slice_0_split
I0802 06:54:59.910205 26126 net.cpp:148] Top shape: 1 1 (1)
I0802 06:54:59.910212 26126 net.cpp:148] Top shape: 1 1 (1)
I0802 06:54:59.910217 26126 net.cpp:156] Memory required for data: 14020
I0802 06:54:59.910221 26126 layer_factory.hpp:77] Creating layer lstm2_x_transform
I0802 06:54:59.910238 26126 net.cpp:91] Creating Layer lstm2_x_transform
I0802 06:54:59.910243 26126 net.cpp:425] lstm2_x_transform <- x
I0802 06:54:59.910254 26126 net.cpp:399] lstm2_x_transform -> W_xc_x
I0802 06:54:59.974437 26126 net.cpp:141] Setting up lstm2_x_transform
I0802 06:54:59.974493 26126 net.cpp:148] Top shape: 1 1 4000 (4000)
I0802 06:54:59.974500 26126 net.cpp:156] Memory required for data: 30020
I0802 06:54:59.974522 26126 layer_factory.hpp:77] Creating layer lstm2_W_xc_x_slice
I0802 06:54:59.974540 26126 net.cpp:91] Creating Layer lstm2_W_xc_x_slice
I0802 06:54:59.974548 26126 net.cpp:425] lstm2_W_xc_x_slice <- W_xc_x
I0802 06:54:59.974560 26126 net.cpp:399] lstm2_W_xc_x_slice -> W_xc_x_1
I0802 06:54:59.974614 26126 net.cpp:141] Setting up lstm2_W_xc_x_slice
I0802 06:54:59.974627 26126 net.cpp:148] Top shape: 1 1 4000 (4000)
I0802 06:54:59.974632 26126 net.cpp:156] Memory required for data: 46020
I0802 06:54:59.974637 26126 layer_factory.hpp:77] Creating layer lstm2_h_conted_0
I0802 06:54:59.974648 26126 net.cpp:91] Creating Layer lstm2_h_conted_0
I0802 06:54:59.974653 26126 net.cpp:425] lstm2_h_conted_0 <- h_0
I0802 06:54:59.974660 26126 net.cpp:425] lstm2_h_conted_0 <- cont_1_lstm2_cont_slice_0_split_0
I0802 06:54:59.974668 26126 net.cpp:399] lstm2_h_conted_0 -> h_conted_0
I0802 06:54:59.974771 26126 net.cpp:141] Setting up lstm2_h_conted_0
I0802 06:54:59.974781 26126 net.cpp:148] Top shape: 1 1 1000 (1000)
I0802 06:54:59.974786 26126 net.cpp:156] Memory required for data: 50020
I0802 06:54:59.974792 26126 layer_factory.hpp:77] Creating layer lstm2_transform_1
I0802 06:54:59.974804 26126 net.cpp:91] Creating Layer lstm2_transform_1
I0802 06:54:59.974810 26126 net.cpp:425] lstm2_transform_1 <- h_conted_0
I0802 06:54:59.974818 26126 net.cpp:399] lstm2_transform_1 -> W_hc_h_0
I0802 06:55:00.018929 26126 net.cpp:141] Setting up lstm2_transform_1
I0802 06:55:00.018978 26126 net.cpp:148] Top shape: 1 1 4000 (4000)
I0802 06:55:00.018985 26126 net.cpp:156] Memory required for data: 66020
I0802 06:55:00.019003 26126 layer_factory.hpp:77] Creating layer lstm2_gate_input_1
I0802 06:55:00.019022 26126 net.cpp:91] Creating Layer lstm2_gate_input_1
I0802 06:55:00.019031 26126 net.cpp:425] lstm2_gate_input_1 <- W_hc_h_0
I0802 06:55:00.019039 26126 net.cpp:425] lstm2_gate_input_1 <- W_xc_x_1
I0802 06:55:00.019050 26126 net.cpp:399] lstm2_gate_input_1 -> gate_input_1
I0802 06:55:00.019100 26126 net.cpp:141] Setting up lstm2_gate_input_1
I0802 06:55:00.019114 26126 net.cpp:148] Top shape: 1 1 4000 (4000)
I0802 06:55:00.019119 26126 net.cpp:156] Memory required for data: 82020
I0802 06:55:00.019124 26126 layer_factory.hpp:77] Creating layer lstm2_unit_1
I0802 06:55:00.019134 26126 net.cpp:91] Creating Layer lstm2_unit_1
I0802 06:55:00.019140 26126 net.cpp:425] lstm2_unit_1 <- c_0
I0802 06:55:00.019145 26126 net.cpp:425] lstm2_unit_1 <- gate_input_1
I0802 06:55:00.019151 26126 net.cpp:425] lstm2_unit_1 <- cont_1_lstm2_cont_slice_0_split_1
I0802 06:55:00.019158 26126 net.cpp:399] lstm2_unit_1 -> c_1
I0802 06:55:00.019167 26126 net.cpp:399] lstm2_unit_1 -> h_1
I0802 06:55:00.019235 26126 net.cpp:141] Setting up lstm2_unit_1
I0802 06:55:00.019245 26126 net.cpp:148] Top shape: 1 1 1000 (1000)
I0802 06:55:00.019253 26126 net.cpp:148] Top shape: 1 1 1000 (1000)
I0802 06:55:00.019256 26126 net.cpp:156] Memory required for data: 90020
I0802 06:55:00.019263 26126 layer_factory.hpp:77] Creating layer lstm2_
I0802 06:55:00.019270 26126 net.cpp:91] Creating Layer lstm2_
I0802 06:55:00.019275 26126 net.cpp:425] lstm2_ <- c_1
I0802 06:55:00.019284 26126 net.cpp:399] lstm2_ -> c_T
I0802 06:55:00.019316 26126 net.cpp:141] Setting up lstm2_
I0802 06:55:00.019325 26126 net.cpp:148] Top shape: 1 1 1000 (1000)
I0802 06:55:00.019330 26126 net.cpp:156] Memory required for data: 94020
I0802 06:55:00.019335 26126 layer_factory.hpp:77] Creating layer lstm2_h_concat
I0802 06:55:00.019348 26126 net.cpp:91] Creating Layer lstm2_h_concat
I0802 06:55:00.019354 26126 net.cpp:425] lstm2_h_concat <- h_1
I0802 06:55:00.019364 26126 net.cpp:399] lstm2_h_concat -> h
I0802 06:55:00.019400 26126 net.cpp:141] Setting up lstm2_h_concat
I0802 06:55:00.019409 26126 net.cpp:148] Top shape: 1 1 1000 (1000)
I0802 06:55:00.019414 26126 net.cpp:156] Memory required for data: 98020
I0802 06:55:00.019419 26126 layer_factory.hpp:77] Creating layer h_pseudoloss
I0802 06:55:00.019433 26126 net.cpp:91] Creating Layer h_pseudoloss
I0802 06:55:00.019438 26126 net.cpp:425] h_pseudoloss <- h
I0802 06:55:00.019445 26126 net.cpp:399] h_pseudoloss -> h_pseudoloss
I0802 06:55:00.019539 26126 net.cpp:141] Setting up h_pseudoloss
…
