…
W0802 20:49:35.743716  4722 upgrade_proto.cpp:71] Note that future Caffe releases will only support input layers and not input fields.
I0802 20:49:35.743975  4722 net.cpp:49] Initializing net from parameters: 
name: "s2vt:features_to_lstm"
state {
  phase: TEST
}
layer {
  name: "input"
  type: "Input"
  top: "frames_fc7"
  top: "cont_sentence"
  top: "input_sentence"
  top: "stage_indicator"
  input_param {
    shape {
      dim: 1
      dim: 4096
    }
    shape {
      dim: 1
      dim: 1
    }
    shape {
      dim: 1
      dim: 1
    }
    shape {
      dim: 1
      dim: 1
    }
  }
}
layer {
  name: "embed_encoder"
  type: "InnerProduct"
  bottom: "frames_fc7"
  top: "embedded_in_frames"
  param {
    lr_mult: 1
    decay_mult: 1
  }
  param {
    lr_mult: 2
    decay_mult: 0
  }
  inner_product_param {
    num_output: 500
    weight_filler {
      type: "xavier"
    }
    bias_filler {
      type: "constant"
      value: 0.2
    }
  }
}
layer {
  name: "reshape_frames"
  type: "Reshape"
  bottom: "embedded_in_frames"
  top: "embedded_input_frames"
  reshape_param {
    shape {
      dim: 1
      dim: 1
      dim: 500
    }
  }
}
layer {
  name: "reshape_stage_indicator"
  type: "Reshape"
  bottom: "stage_indicator"
  top: "reshaped_stage_indicator"
  reshape_param {
    shape {
      dim: 1
      dim: 1
      dim: 1
    }
  }
}
layer {
  name: "embedding"
  type: "Embed"
  bottom: "input_sentence"
  top: "embedded_input_sentence"
  param {
    lr_mult: 1
  }
  embed_param {
    num_output: 500
    input_dim: 46168
    bias_term: false
    weight_filler {
      type: "uniform"
      min: -0.08
      max: 0.08
    }
  }
}
layer {
  name: "lstm1"
  type: "LSTM"
  bottom: "embedded_input_frames"
  bottom: "cont_sentence"
  top: "lstm1"
  recurrent_param {
    num_output: 1000
    weight_filler {
      type: "uniform"
      min: -0.08
      max: 0.08
    }
    bias_filler {
      type: "constant"
      value: 0
    }
  }
}
layer {
  name: "concat"
  type: "Concat"
  bottom: "lstm1"
  bottom: "embedded_input_sentence"
  bottom: "reshaped_stage_indicator"
  top: "lstm1_video_sequence"
  concat_param {
    concat_dim: 2
  }
}
layer {
  name: "lstm2"
  type: "LSTM"
  bottom: "lstm1_video_sequence"
  bottom: "cont_sentence"
  top: "lstm2"
  recurrent_param {
    num_output: 1000
    weight_filler {
      type: "uniform"
      min: -0.08
      max: 0.08
    }
    bias_filler {
      type: "constant"
      value: 0
    }
  }
}
layer {
  name: "predict"
  type: "InnerProduct"
  bottom: "lstm2"
  top: "predict"
  param {
    lr_mult: 1
    decay_mult: 1
  }
  param {
    lr_mult: 2
    decay_mult: 0
  }
  inner_product_param {
    num_output: 46168
    weight_filler {
      type: "uniform"
      min: -0.08
      max: 0.08
    }
    bias_filler {
      type: "constant"
      value: 0
    }
    axis: 2
  }
}
layer {
  name: "probs"
  type: "Softmax"
  bottom: "predict"
  top: "probs"
  softmax_param {
    axis: 2
  }
}
I0802 20:49:35.743980  4732 net.cpp:49] Initializing net from parameters: 
name: "CaffeNet"
state {
  phase: TEST
}
layer {
  name: "data"
  type: "Input"
  top: "data"
  input_param {
    shape {
      dim: 10
      dim: 3
      dim: 227
      dim: 227
    }
  }
}
layer {
  name: "conv1"
  type: "Convolution"
  bottom: "data"
  top: "conv1"
  convolution_param {
    num_output: 96
    kernel_size: 11
    stride: 4
  }
}
layer {
  name: "relu1"
  type: "ReLU"
  bottom: "conv1"
  top: "conv1"
}
layer {
  name: "pool1"
  type: "Pooling"
  bottom: "conv1"
  top: "pool1"
  pooling_param {
    pool: MAX
    kernel_size: 3
    stride: 2
  }
}
layer {
  name: "norm1"
  type: "LRN"
  bottom: "pool1"
  top: "norm1"
  lrn_param {
    local_size: 5
    alpha: 0.0001
    beta: 0.75
  }
}
layer {
  name: "conv2"
  type: "Convolution"
  bottom: "norm1"
  top: "conv2"
  convolution_param {
    num_output: 256
    pad: 2
    kernel_size: 5
    group: 2
  }
}
layer {
  name: "relu2"
  type: "ReLU"
  bottom: "conv2"
  top: "conv2"
}
layer {
  name: "pool2"
  type: "Pooling"
  bottom: "conv2"
  top: "pool2"
  pooling_param {
    pool: MAX
    kernel_size: 3
    stride: 2
  }
}
layer {
  name: "norm2"
  type: "LRN"
  bottom: "pool2"
  top: "norm2"
  lrn_param {
    local_size: 5
    alpha: 0.0001
    beta: 0.75
  }
}
layer {
  name: "conv3"
  type: "Convolution"
  bottom: "norm2"
  top: "conv3"
  convolution_param {
    num_output: 384
    pad: 1
    kernel_size: 3
  }
}
layer {
  name: "relu3"
  type: "ReLU"
  bottom: "conv3"
  top: "conv3"
}
layer {
  name: "conv4"
  type: "Convolution"
  bottom: "conv3"
  top: "conv4"
  convolution_param {
    num_output: 384
    pad: 1
    kernel_size: 3
    group: 2
  }
}
layer {
  name: "relu4"
  type: "ReLU"
  bottom: "conv4"
  top: "conv4"
}
layer {
  name: "conv5"
  type: "Convolution"
  bottom: "conv4"
  top: "conv5"
  convolution_param {
    num_output: 256
    pad: 1
    kernel_size: 3
    group: 2
  }
}
layer {
  name: "relu5"
  type: "ReLU"
  bottom: "conv5"
  top: "conv5"
}
layer {
  name: "pool5"
  type: "Pooling"
  bottom: "conv5"
  top: "pool5"
  pooling_param {
    pool: MAX
    kernel_size: 3
    stride: 2
  }
}
layer {
  name: "fc6"
  type: "InnerProduct"
  bottom: "pool5"
  top: "fc6"
  inner_product_param {
    num_output: 4096
  }
}
layer {
  name: "relu6"
  type: "ReLU"
  bottom: "fc6"
  top: "fc6"
}
layer {
  name: "drop6"
  type: "Dropout"
  bottom: "fc6"
  top: "fc6"
  dropout_param {
    dropout_ratio: 0.5
  }
}
layer {
  name: "fc7"
  type: "InnerProduct"
  bottom: "fc6"
  top: "fc7"
  inner_product_param {
    num_output: 4096
  }
}
layer {
  name: "relu7"
  type: "ReLU"
  bottom: "fc7"
  top: "fc7"
}
layer {
  name: "drop7"
  type: "Dropout"
  bottom: "fc7"
  top: "fc7"
  dropout_param {
    dropout_ratio: 0.5
  }
}
layer {
  name: "fc8"
  type: "InnerProduct"
  bottom: "fc7"
  top: "fc8"
  inner_product_param {
    num_output: 1000
  }
}
layer {
  name: "prob"
  type: "Softmax"
  bottom: "fc8"
  top: "prob"
}
I0802 20:49:35.744129  4722 layer_factory.hpp:77] Creating layer input
I0802 20:49:35.744132  4732 layer_factory.hpp:77] Creating layer data
I0802 20:49:35.744160  4732 net.cpp:91] Creating Layer data
I0802 20:49:35.744160  4722 net.cpp:91] Creating Layer input
I0802 20:49:35.744179  4732 net.cpp:399] data -> data
I0802 20:49:35.744181  4722 net.cpp:399] input -> frames_fc7
I0802 20:49:35.744215  4722 net.cpp:399] input -> cont_sentence
I0802 20:49:35.744230  4722 net.cpp:399] input -> input_sentence
I0802 20:49:35.744240  4722 net.cpp:399] input -> stage_indicator
I0802 20:49:36.294756  4732 net.cpp:141] Setting up data
I0802 20:49:36.294833  4722 net.cpp:141] Setting up input
I0802 20:49:36.294864  4722 net.cpp:148] Top shape: 1 4096 (4096)
I0802 20:49:36.294864  4732 net.cpp:148] Top shape: 10 3 227 227 (1545870)
I0802 20:49:36.294875  4722 net.cpp:148] Top shape: 1 1 (1)
I0802 20:49:36.294883  4722 net.cpp:148] Top shape: 1 1 (1)
I0802 20:49:36.294875  4732 net.cpp:156] Memory required for data: 6183480
I0802 20:49:36.294894  4722 net.cpp:148] Top shape: 1 1 (1)
I0802 20:49:36.294900  4722 net.cpp:156] Memory required for data: 16396
I0802 20:49:36.294912  4722 layer_factory.hpp:77] Creating layer cont_sentence_input_1_split
I0802 20:49:36.294914  4732 layer_factory.hpp:77] Creating layer conv1
I0802 20:49:36.294940  4722 net.cpp:91] Creating Layer cont_sentence_input_1_split
I0802 20:49:36.294945  4732 net.cpp:91] Creating Layer conv1
I0802 20:49:36.294951  4722 net.cpp:425] cont_sentence_input_1_split <- cont_sentence
I0802 20:49:36.294952  4732 net.cpp:425] conv1 <- data
I0802 20:49:36.294966  4732 net.cpp:399] conv1 -> conv1
I0802 20:49:36.294977  4722 net.cpp:399] cont_sentence_input_1_split -> cont_sentence_input_1_split_0
I0802 20:49:36.294989  4722 net.cpp:399] cont_sentence_input_1_split -> cont_sentence_input_1_split_1
I0802 20:49:36.295222  4722 net.cpp:141] Setting up cont_sentence_input_1_split
I0802 20:49:36.295235  4722 net.cpp:148] Top shape: 1 1 (1)
I0802 20:49:36.295241  4722 net.cpp:148] Top shape: 1 1 (1)
I0802 20:49:36.295246  4722 net.cpp:156] Memory required for data: 16404
I0802 20:49:36.295251  4722 layer_factory.hpp:77] Creating layer embed_encoder
I0802 20:49:36.295289  4722 net.cpp:91] Creating Layer embed_encoder
I0802 20:49:36.295297  4722 net.cpp:425] embed_encoder <- frames_fc7
I0802 20:49:36.295306  4722 net.cpp:399] embed_encoder -> embedded_in_frames
I0802 20:49:36.322515  4722 net.cpp:141] Setting up embed_encoder
I0802 20:49:36.322558  4722 net.cpp:148] Top shape: 1 500 (500)
I0802 20:49:36.322566  4722 net.cpp:156] Memory required for data: 18404
I0802 20:49:36.322592  4722 layer_factory.hpp:77] Creating layer reshape_frames
I0802 20:49:36.322619  4722 net.cpp:91] Creating Layer reshape_frames
I0802 20:49:36.322629  4722 net.cpp:425] reshape_frames <- embedded_in_frames
I0802 20:49:36.322641  4722 net.cpp:399] reshape_frames -> embedded_input_frames
I0802 20:49:36.323408  4722 net.cpp:141] Setting up reshape_frames
I0802 20:49:36.323433  4722 net.cpp:148] Top shape: 1 1 500 (500)
I0802 20:49:36.323439  4722 net.cpp:156] Memory required for data: 20404
I0802 20:49:36.323446  4722 layer_factory.hpp:77] Creating layer reshape_stage_indicator
I0802 20:49:36.323460  4722 net.cpp:91] Creating Layer reshape_stage_indicator
I0802 20:49:36.323467  4722 net.cpp:425] reshape_stage_indicator <- stage_indicator
I0802 20:49:36.323477  4722 net.cpp:399] reshape_stage_indicator -> reshaped_stage_indicator
I0802 20:49:36.325721  4722 net.cpp:141] Setting up reshape_stage_indicator
I0802 20:49:36.325742  4722 net.cpp:148] Top shape: 1 1 1 (1)
I0802 20:49:36.325747  4722 net.cpp:156] Memory required for data: 20408
I0802 20:49:36.325753  4722 layer_factory.hpp:77] Creating layer embedding
I0802 20:49:36.325767  4722 net.cpp:91] Creating Layer embedding
I0802 20:49:36.325773  4722 net.cpp:425] embedding <- input_sentence
I0802 20:49:36.325783  4722 net.cpp:399] embedding -> embedded_input_sentence
I0802 20:49:36.574785  4732 net.cpp:141] Setting up conv1
I0802 20:49:36.574842  4732 net.cpp:148] Top shape: 10 96 55 55 (2904000)
I0802 20:49:36.574849  4732 net.cpp:156] Memory required for data: 17799480
I0802 20:49:36.574877  4732 layer_factory.hpp:77] Creating layer relu1
I0802 20:49:36.574913  4732 net.cpp:91] Creating Layer relu1
I0802 20:49:36.574920  4732 net.cpp:425] relu1 <- conv1
I0802 20:49:36.574929  4732 net.cpp:386] relu1 -> conv1 (in-place)
I0802 20:49:36.575356  4722 net.cpp:141] Setting up embedding
I0802 20:49:36.575377  4722 net.cpp:148] Top shape: 1 1 500 (500)
I0802 20:49:36.575393  4722 net.cpp:156] Memory required for data: 22408
I0802 20:49:36.575408  4722 layer_factory.hpp:77] Creating layer lstm1
I0802 20:49:36.575426  4722 net.cpp:91] Creating Layer lstm1
I0802 20:49:36.575425  4732 net.cpp:141] Setting up relu1
I0802 20:49:36.575435  4722 net.cpp:425] lstm1 <- embedded_input_frames
I0802 20:49:36.575441  4732 net.cpp:148] Top shape: 10 96 55 55 (2904000)
I0802 20:49:36.575444  4722 net.cpp:425] lstm1 <- cont_sentence_input_1_split_0
I0802 20:49:36.575448  4732 net.cpp:156] Memory required for data: 29415480
I0802 20:49:36.575453  4722 net.cpp:399] lstm1 -> lstm1
I0802 20:49:36.575465  4732 layer_factory.hpp:77] Creating layer pool1
I0802 20:49:36.575479  4732 net.cpp:91] Creating Layer pool1
I0802 20:49:36.575486  4732 net.cpp:425] pool1 <- conv1
I0802 20:49:36.575485  4722 recurrent_layer.cpp:20] Initializing recurrent layer: assuming input batch contains 1 timesteps of 1 independent streams.
I0802 20:49:36.575495  4732 net.cpp:399] pool1 -> pool1
I0802 20:49:36.575574  4732 net.cpp:141] Setting up pool1
I0802 20:49:36.575587  4732 net.cpp:148] Top shape: 10 96 27 27 (699840)
I0802 20:49:36.575592  4732 net.cpp:156] Memory required for data: 32214840
I0802 20:49:36.575598  4732 layer_factory.hpp:77] Creating layer norm1
I0802 20:49:36.575616  4732 net.cpp:91] Creating Layer norm1
I0802 20:49:36.575623  4732 net.cpp:425] norm1 <- pool1
I0802 20:49:36.575630  4732 net.cpp:399] norm1 -> norm1
I0802 20:49:36.576131  4732 net.cpp:141] Setting up norm1
I0802 20:49:36.576146  4732 net.cpp:148] Top shape: 10 96 27 27 (699840)
I0802 20:49:36.576153  4732 net.cpp:156] Memory required for data: 35014200
I0802 20:49:36.576160  4732 layer_factory.hpp:77] Creating layer conv2
I0802 20:49:36.576179  4732 net.cpp:91] Creating Layer conv2
I0802 20:49:36.576184  4732 net.cpp:425] conv2 <- norm1
I0802 20:49:36.576192  4732 net.cpp:399] conv2 -> conv2
I0802 20:49:36.576202  4722 net.cpp:49] Initializing net from parameters: 
layer {
  name: "lstm1_"
  type: "Input"
  top: "x"
  top: "cont"
  input_param {
    shape {
      dim: 1
      dim: 1
      dim: 500
    }
    shape {
      dim: 1
      dim: 1
    }
  }
}
layer {
  name: "lstm1_"
  type: "Input"
  top: "c_0"
  top: "h_0"
  input_param {
    shape {
      dim: 1
      dim: 1
      dim: 1000
    }
    shape {
      dim: 1
      dim: 1
      dim: 1000
    }
  }
}
layer {
  name: "lstm1_cont_slice"
  type: "Slice"
  bottom: "cont"
  top: "cont_1"
  slice_param {
    axis: 0
  }
}
layer {
  name: "lstm1_x_transform"
  type: "InnerProduct"
  bottom: "x"
  top: "W_xc_x"
  param {
    name: "W_xc"
  }
  param {
    name: "b_c"
  }
  propagate_down: true
  inner_product_param {
    num_output: 4000
    bias_term: true
    weight_filler {
      type: "uniform"
      min: -0.08
      max: 0.08
    }
    bias_filler {
      type: "constant"
      value: 0
    }
    axis: 2
  }
}
layer {
  name: "lstm1_W_xc_x_slice"
  type: "Slice"
  bottom: "W_xc_x"
  top: "W_xc_x_1"
  slice_param {
    axis: 0
  }
}
layer {
  name: "lstm1_h_conted_0"
  type: "Scale"
  bottom: "h_0"
  bottom: "cont_1"
  top: "h_conted_0"
  scale_param {
    axis: 0
  }
}
layer {
  name: "lstm1_transform_1"
  type: "InnerProduct"
  bottom: "h_conted_0"
  top: "W_hc_h_0"
  param {
    name: "W_hc"
  }
  inner_product_param {
    num_output: 4000
    bias_term: false
    weight_filler {
      type: "uniform"
      min: -0.08
      max: 0.08
    }
    axis: 2
  }
}
layer {
  name: "lstm1_gate_input_1"
  type: "Eltwise"
  bottom: "W_hc_h_0"
  bottom: "W_xc_x_1"
  top: "gate_input_1"
  eltwise_param {
    operation: SUM
  }
}
layer {
  name: "lstm1_unit_1"
  type: "LSTMUnit"
  bottom: "c_0"
  bottom: "gate_input_1"
  bottom: "cont_1"
  top: "c_1"
  top: "h_1"
}
layer {
  name: "lstm1_"
  type: "Split"
  bottom: "c_1"
  top: "c_T"
}
layer {
  name: "lstm1_h_concat"
  type: "Concat"
  bottom: "h_1"
  top: "h"
  concat_param {
    axis: 0
  }
}
layer {
  name: "h_pseudoloss"
  type: "Reduction"
  bottom: "h"
  top: "h_pseudoloss"
  loss_weight: 1
}
I0802 20:49:36.576325  4722 layer_factory.hpp:77] Creating layer lstm1_
I0802 20:49:36.576339  4722 net.cpp:91] Creating Layer lstm1_
I0802 20:49:36.576349  4722 net.cpp:399] lstm1_ -> x
I0802 20:49:36.576360  4722 net.cpp:399] lstm1_ -> cont
I0802 20:49:36.577208  4722 net.cpp:141] Setting up lstm1_
I0802 20:49:36.577219  4722 net.cpp:148] Top shape: 1 1 500 (500)
I0802 20:49:36.577225  4722 net.cpp:148] Top shape: 1 1 (1)
I0802 20:49:36.577230  4722 net.cpp:156] Memory required for data: 2004
I0802 20:49:36.577236  4722 layer_factory.hpp:77] Creating layer lstm1_
I0802 20:49:36.577245  4722 net.cpp:91] Creating Layer lstm1_
I0802 20:49:36.577252  4722 net.cpp:399] lstm1_ -> c_0
I0802 20:49:36.577270  4722 net.cpp:399] lstm1_ -> h_0
I0802 20:49:36.577319  4722 net.cpp:141] Setting up lstm1_
I0802 20:49:36.577329  4722 net.cpp:148] Top shape: 1 1 1000 (1000)
I0802 20:49:36.577335  4722 net.cpp:148] Top shape: 1 1 1000 (1000)
I0802 20:49:36.577339  4722 net.cpp:156] Memory required for data: 10004
I0802 20:49:36.577344  4722 layer_factory.hpp:77] Creating layer lstm1_cont_slice
I0802 20:49:36.577353  4722 net.cpp:91] Creating Layer lstm1_cont_slice
I0802 20:49:36.577358  4722 net.cpp:425] lstm1_cont_slice <- cont
I0802 20:49:36.577370  4722 net.cpp:399] lstm1_cont_slice -> cont_1
I0802 20:49:36.577430  4722 net.cpp:141] Setting up lstm1_cont_slice
I0802 20:49:36.577442  4722 net.cpp:148] Top shape: 1 1 (1)
I0802 20:49:36.577447  4722 net.cpp:156] Memory required for data: 10008
I0802 20:49:36.577452  4722 layer_factory.hpp:77] Creating layer cont_1_lstm1_cont_slice_0_split
I0802 20:49:36.577461  4722 net.cpp:91] Creating Layer cont_1_lstm1_cont_slice_0_split
I0802 20:49:36.577466  4722 net.cpp:425] cont_1_lstm1_cont_slice_0_split <- cont_1
I0802 20:49:36.577472  4722 net.cpp:399] cont_1_lstm1_cont_slice_0_split -> cont_1_lstm1_cont_slice_0_split_0
I0802 20:49:36.577481  4722 net.cpp:399] cont_1_lstm1_cont_slice_0_split -> cont_1_lstm1_cont_slice_0_split_1
I0802 20:49:36.577631  4722 net.cpp:141] Setting up cont_1_lstm1_cont_slice_0_split
I0802 20:49:36.577643  4722 net.cpp:148] Top shape: 1 1 (1)
I0802 20:49:36.577649  4722 net.cpp:148] Top shape: 1 1 (1)
I0802 20:49:36.577654  4722 net.cpp:156] Memory required for data: 10016
I0802 20:49:36.577658  4722 layer_factory.hpp:77] Creating layer lstm1_x_transform
I0802 20:49:36.577675  4722 net.cpp:91] Creating Layer lstm1_x_transform
I0802 20:49:36.577682  4722 net.cpp:425] lstm1_x_transform <- x
I0802 20:49:36.577692  4722 net.cpp:399] lstm1_x_transform -> W_xc_x
I0802 20:49:36.583642  4732 net.cpp:141] Setting up conv2
I0802 20:49:36.583667  4732 net.cpp:148] Top shape: 10 256 27 27 (1866240)
I0802 20:49:36.583672  4732 net.cpp:156] Memory required for data: 42479160
I0802 20:49:36.583691  4732 layer_factory.hpp:77] Creating layer relu2
I0802 20:49:36.583729  4732 net.cpp:91] Creating Layer relu2
I0802 20:49:36.583735  4732 net.cpp:425] relu2 <- conv2
I0802 20:49:36.583745  4732 net.cpp:386] relu2 -> conv2 (in-place)
I0802 20:49:36.584197  4732 net.cpp:141] Setting up relu2
I0802 20:49:36.584211  4732 net.cpp:148] Top shape: 10 256 27 27 (1866240)
I0802 20:49:36.584216  4732 net.cpp:156] Memory required for data: 49944120
I0802 20:49:36.584221  4732 layer_factory.hpp:77] Creating layer pool2
I0802 20:49:36.584241  4732 net.cpp:91] Creating Layer pool2
I0802 20:49:36.584247  4732 net.cpp:425] pool2 <- conv2
I0802 20:49:36.584259  4732 net.cpp:399] pool2 -> pool2
I0802 20:49:36.584321  4732 net.cpp:141] Setting up pool2
I0802 20:49:36.584334  4732 net.cpp:148] Top shape: 10 256 13 13 (432640)
I0802 20:49:36.584338  4732 net.cpp:156] Memory required for data: 51674680
I0802 20:49:36.584344  4732 layer_factory.hpp:77] Creating layer norm2
I0802 20:49:36.584353  4732 net.cpp:91] Creating Layer norm2
I0802 20:49:36.584358  4732 net.cpp:425] norm2 <- pool2
I0802 20:49:36.584369  4732 net.cpp:399] norm2 -> norm2
I0802 20:49:36.584650  4732 net.cpp:141] Setting up norm2
I0802 20:49:36.584663  4732 net.cpp:148] Top shape: 10 256 13 13 (432640)
I0802 20:49:36.584668  4732 net.cpp:156] Memory required for data: 53405240
I0802 20:49:36.584673  4732 layer_factory.hpp:77] Creating layer conv3
I0802 20:49:36.584687  4732 net.cpp:91] Creating Layer conv3
I0802 20:49:36.584692  4732 net.cpp:425] conv3 <- norm2
I0802 20:49:36.584703  4732 net.cpp:399] conv3 -> conv3
I0802 20:49:36.588551  4732 net.cpp:141] Setting up conv3
I0802 20:49:36.588572  4732 net.cpp:148] Top shape: 10 384 13 13 (648960)
I0802 20:49:36.588577  4732 net.cpp:156] Memory required for data: 56001080
I0802 20:49:36.588590  4732 layer_factory.hpp:77] Creating layer relu3
I0802 20:49:36.588613  4732 net.cpp:91] Creating Layer relu3
I0802 20:49:36.588619  4732 net.cpp:425] relu3 <- conv3
I0802 20:49:36.588626  4732 net.cpp:386] relu3 -> conv3 (in-place)
I0802 20:49:36.589063  4732 net.cpp:141] Setting up relu3
I0802 20:49:36.589077  4732 net.cpp:148] Top shape: 10 384 13 13 (648960)
I0802 20:49:36.589082  4732 net.cpp:156] Memory required for data: 58596920
I0802 20:49:36.589087  4732 layer_factory.hpp:77] Creating layer conv4
I0802 20:49:36.589098  4732 net.cpp:91] Creating Layer conv4
I0802 20:49:36.589103  4732 net.cpp:425] conv4 <- conv3
I0802 20:49:36.589115  4732 net.cpp:399] conv4 -> conv4
I0802 20:49:36.593291  4732 net.cpp:141] Setting up conv4
I0802 20:49:36.593309  4732 net.cpp:148] Top shape: 10 384 13 13 (648960)
I0802 20:49:36.593315  4732 net.cpp:156] Memory required for data: 61192760
I0802 20:49:36.593336  4732 layer_factory.hpp:77] Creating layer relu4
I0802 20:49:36.593346  4732 net.cpp:91] Creating Layer relu4
I0802 20:49:36.593353  4732 net.cpp:425] relu4 <- conv4
I0802 20:49:36.593359  4732 net.cpp:386] relu4 -> conv4 (in-place)
I0802 20:49:36.593793  4732 net.cpp:141] Setting up relu4
I0802 20:49:36.593809  4732 net.cpp:148] Top shape: 10 384 13 13 (648960)
I0802 20:49:36.593814  4732 net.cpp:156] Memory required for data: 63788600
I0802 20:49:36.593819  4732 layer_factory.hpp:77] Creating layer conv5
I0802 20:49:36.593840  4732 net.cpp:91] Creating Layer conv5
I0802 20:49:36.593847  4732 net.cpp:425] conv5 <- conv4
I0802 20:49:36.593858  4732 net.cpp:399] conv5 -> conv5
I0802 20:49:36.597741  4732 net.cpp:141] Setting up conv5
I0802 20:49:36.597757  4732 net.cpp:148] Top shape: 10 256 13 13 (432640)
I0802 20:49:36.597762  4732 net.cpp:156] Memory required for data: 65519160
I0802 20:49:36.597776  4732 layer_factory.hpp:77] Creating layer relu5
I0802 20:49:36.597791  4732 net.cpp:91] Creating Layer relu5
I0802 20:49:36.597798  4732 net.cpp:425] relu5 <- conv5
I0802 20:49:36.597805  4732 net.cpp:386] relu5 -> conv5 (in-place)
I0802 20:49:36.598244  4732 net.cpp:141] Setting up relu5
I0802 20:49:36.598258  4732 net.cpp:148] Top shape: 10 256 13 13 (432640)
I0802 20:49:36.598263  4732 net.cpp:156] Memory required for data: 67249720
I0802 20:49:36.598268  4732 layer_factory.hpp:77] Creating layer pool5
I0802 20:49:36.598283  4732 net.cpp:91] Creating Layer pool5
I0802 20:49:36.598289  4732 net.cpp:425] pool5 <- conv5
I0802 20:49:36.598295  4732 net.cpp:399] pool5 -> pool5
I0802 20:49:36.598364  4732 net.cpp:141] Setting up pool5
I0802 20:49:36.598376  4732 net.cpp:148] Top shape: 10 256 6 6 (92160)
I0802 20:49:36.598379  4732 net.cpp:156] Memory required for data: 67618360
I0802 20:49:36.598410  4732 layer_factory.hpp:77] Creating layer fc6
I0802 20:49:36.598428  4732 net.cpp:91] Creating Layer fc6
I0802 20:49:36.598433  4732 net.cpp:425] fc6 <- pool5
I0802 20:49:36.598440  4732 net.cpp:399] fc6 -> fc6
I0802 20:49:36.669176  4722 net.cpp:141] Setting up lstm1_x_transform
I0802 20:49:36.669229  4722 net.cpp:148] Top shape: 1 1 4000 (4000)
I0802 20:49:36.669235  4722 net.cpp:156] Memory required for data: 26016
I0802 20:49:36.669258  4722 layer_factory.hpp:77] Creating layer lstm1_W_xc_x_slice
I0802 20:49:36.669275  4722 net.cpp:91] Creating Layer lstm1_W_xc_x_slice
I0802 20:49:36.669284  4722 net.cpp:425] lstm1_W_xc_x_slice <- W_xc_x
I0802 20:49:36.669298  4722 net.cpp:399] lstm1_W_xc_x_slice -> W_xc_x_1
I0802 20:49:36.669349  4722 net.cpp:141] Setting up lstm1_W_xc_x_slice
I0802 20:49:36.669360  4722 net.cpp:148] Top shape: 1 1 4000 (4000)
I0802 20:49:36.669365  4722 net.cpp:156] Memory required for data: 42016
I0802 20:49:36.669371  4722 layer_factory.hpp:77] Creating layer lstm1_h_conted_0
I0802 20:49:36.669383  4722 net.cpp:91] Creating Layer lstm1_h_conted_0
I0802 20:49:36.669389  4722 net.cpp:425] lstm1_h_conted_0 <- h_0
I0802 20:49:36.669395  4722 net.cpp:425] lstm1_h_conted_0 <- cont_1_lstm1_cont_slice_0_split_0
I0802 20:49:36.669406  4722 net.cpp:399] lstm1_h_conted_0 -> h_conted_0
I0802 20:49:36.669507  4722 net.cpp:141] Setting up lstm1_h_conted_0
I0802 20:49:36.669518  4722 net.cpp:148] Top shape: 1 1 1000 (1000)
I0802 20:49:36.669523  4722 net.cpp:156] Memory required for data: 46016
I0802 20:49:36.669528  4722 layer_factory.hpp:77] Creating layer lstm1_transform_1
I0802 20:49:36.669543  4722 net.cpp:91] Creating Layer lstm1_transform_1
I0802 20:49:36.669548  4722 net.cpp:425] lstm1_transform_1 <- h_conted_0
I0802 20:49:36.669559  4722 net.cpp:399] lstm1_transform_1 -> W_hc_h_0
I0802 20:49:36.708681  4732 net.cpp:141] Setting up fc6
I0802 20:49:36.708735  4732 net.cpp:148] Top shape: 10 4096 (40960)
I0802 20:49:36.708741  4732 net.cpp:156] Memory required for data: 67782200
I0802 20:49:36.708758  4732 layer_factory.hpp:77] Creating layer relu6
I0802 20:49:36.708828  4732 net.cpp:91] Creating Layer relu6
I0802 20:49:36.708838  4732 net.cpp:425] relu6 <- fc6
I0802 20:49:36.708850  4732 net.cpp:386] relu6 -> fc6 (in-place)
I0802 20:49:36.709233  4732 net.cpp:141] Setting up relu6
I0802 20:49:36.709246  4732 net.cpp:148] Top shape: 10 4096 (40960)
I0802 20:49:36.709251  4732 net.cpp:156] Memory required for data: 67946040
I0802 20:49:36.709256  4732 layer_factory.hpp:77] Creating layer drop6
I0802 20:49:36.709270  4732 net.cpp:91] Creating Layer drop6
I0802 20:49:36.709275  4732 net.cpp:425] drop6 <- fc6
I0802 20:49:36.709291  4732 net.cpp:386] drop6 -> fc6 (in-place)
I0802 20:49:36.709347  4732 net.cpp:141] Setting up drop6
I0802 20:49:36.709362  4732 net.cpp:148] Top shape: 10 4096 (40960)
I0802 20:49:36.709367  4732 net.cpp:156] Memory required for data: 68109880
I0802 20:49:36.709372  4732 layer_factory.hpp:77] Creating layer fc7
I0802 20:49:36.709383  4732 net.cpp:91] Creating Layer fc7
I0802 20:49:36.709388  4732 net.cpp:425] fc7 <- fc6
I0802 20:49:36.709395  4732 net.cpp:399] fc7 -> fc7
I0802 20:49:36.741462  4722 net.cpp:141] Setting up lstm1_transform_1
I0802 20:49:36.741516  4722 net.cpp:148] Top shape: 1 1 4000 (4000)
I0802 20:49:36.741523  4722 net.cpp:156] Memory required for data: 62016
I0802 20:49:36.741546  4722 layer_factory.hpp:77] Creating layer lstm1_gate_input_1
I0802 20:49:36.741567  4722 net.cpp:91] Creating Layer lstm1_gate_input_1
I0802 20:49:36.741575  4722 net.cpp:425] lstm1_gate_input_1 <- W_hc_h_0
I0802 20:49:36.741585  4722 net.cpp:425] lstm1_gate_input_1 <- W_xc_x_1
I0802 20:49:36.741596  4722 net.cpp:399] lstm1_gate_input_1 -> gate_input_1
I0802 20:49:36.741673  4722 net.cpp:141] Setting up lstm1_gate_input_1
I0802 20:49:36.741684  4722 net.cpp:148] Top shape: 1 1 4000 (4000)
I0802 20:49:36.741688  4722 net.cpp:156] Memory required for data: 78016
I0802 20:49:36.741693  4722 layer_factory.hpp:77] Creating layer lstm1_unit_1
I0802 20:49:36.741703  4722 net.cpp:91] Creating Layer lstm1_unit_1
I0802 20:49:36.741708  4722 net.cpp:425] lstm1_unit_1 <- c_0
I0802 20:49:36.741714  4722 net.cpp:425] lstm1_unit_1 <- gate_input_1
I0802 20:49:36.741719  4722 net.cpp:425] lstm1_unit_1 <- cont_1_lstm1_cont_slice_0_split_1
I0802 20:49:36.741726  4722 net.cpp:399] lstm1_unit_1 -> c_1
I0802 20:49:36.741739  4722 net.cpp:399] lstm1_unit_1 -> h_1
I0802 20:49:36.741811  4722 net.cpp:141] Setting up lstm1_unit_1
I0802 20:49:36.741821  4722 net.cpp:148] Top shape: 1 1 1000 (1000)
I0802 20:49:36.741827  4722 net.cpp:148] Top shape: 1 1 1000 (1000)
I0802 20:49:36.741832  4722 net.cpp:156] Memory required for data: 86016
I0802 20:49:36.741837  4722 layer_factory.hpp:77] Creating layer lstm1_
I0802 20:49:36.741845  4722 net.cpp:91] Creating Layer lstm1_
I0802 20:49:36.741850  4722 net.cpp:425] lstm1_ <- c_1
I0802 20:49:36.741858  4722 net.cpp:399] lstm1_ -> c_T
I0802 20:49:36.741899  4722 net.cpp:141] Setting up lstm1_
I0802 20:49:36.741909  4722 net.cpp:148] Top shape: 1 1 1000 (1000)
I0802 20:49:36.741914  4722 net.cpp:156] Memory required for data: 90016
I0802 20:49:36.741919  4722 layer_factory.hpp:77] Creating layer lstm1_h_concat
I0802 20:49:36.741940  4722 net.cpp:91] Creating Layer lstm1_h_concat
I0802 20:49:36.741945  4722 net.cpp:425] lstm1_h_concat <- h_1
I0802 20:49:36.741952  4722 net.cpp:399] lstm1_h_concat -> h
I0802 20:49:36.741989  4722 net.cpp:141] Setting up lstm1_h_concat
I0802 20:49:36.741998  4722 net.cpp:148] Top shape: 1 1 1000 (1000)
I0802 20:49:36.742003  4722 net.cpp:156] Memory required for data: 94016
I0802 20:49:36.742008  4722 layer_factory.hpp:77] Creating layer h_pseudoloss
I0802 20:49:36.742028  4722 net.cpp:91] Creating Layer h_pseudoloss
I0802 20:49:36.742034  4722 net.cpp:425] h_pseudoloss <- h
I0802 20:49:36.742041  4722 net.cpp:399] h_pseudoloss -> h_pseudoloss
I0802 20:49:36.742146  4722 net.cpp:141] Setting up h_pseudoloss
…
I0802 20:49:36.742272  4722 net.cpp:219] lstm1_ does not need backward computation.
I0802 20:49:36.742276  4722 net.cpp:261] This network produces output c_T
I0802 20:49:36.742280  4722 net.cpp:261] This network produces output h_pseudoloss
I0802 20:49:36.742303  4722 net.cpp:274] Network initialization done.
I0802 20:49:36.742369  4722 recurrent_layer.cpp:150] Adding parameter 0: W_xc
I0802 20:49:36.742375  4722 recurrent_layer.cpp:150] Adding parameter 1: b_c
I0802 20:49:36.742379  4722 recurrent_layer.cpp:150] Adding parameter 2: W_hc
I0802 20:49:36.742506  4722 net.cpp:141] Setting up lstm1
I0802 20:49:36.742519  4722 net.cpp:148] Top shape: 1 1 1000 (1000)
I0802 20:49:36.742523  4722 net.cpp:156] Memory required for data: 26408
I0802 20:49:36.742538  4722 layer_factory.hpp:77] Creating layer concat
I0802 20:49:36.742552  4722 net.cpp:91] Creating Layer concat
I0802 20:49:36.742559  4722 net.cpp:425] concat <- lstm1
I0802 20:49:36.742566  4722 net.cpp:425] concat <- embedded_input_sentence
I0802 20:49:36.742573  4722 net.cpp:425] concat <- reshaped_stage_indicator
I0802 20:49:36.742579  4722 net.cpp:399] concat -> lstm1_video_sequence
I0802 20:49:36.742616  4722 net.cpp:141] Setting up concat
I0802 20:49:36.742625  4722 net.cpp:148] Top shape: 1 1 1501 (1501)
I0802 20:49:36.742630  4722 net.cpp:156] Memory required for data: 32412
I0802 20:49:36.742635  4722 layer_factory.hpp:77] Creating layer lstm2
I0802 20:49:36.742647  4722 net.cpp:91] Creating Layer lstm2
I0802 20:49:36.742653  4722 net.cpp:425] lstm2 <- lstm1_video_sequence
I0802 20:49:36.742660  4722 net.cpp:425] lstm2 <- cont_sentence_input_1_split_1
I0802 20:49:36.742666  4722 net.cpp:399] lstm2 -> lstm2
I0802 20:49:36.742677  4722 recurrent_layer.cpp:20] Initializing recurrent layer: assuming input batch contains 1 timesteps of 1 independent streams.
I0802 20:49:36.742946  4722 net.cpp:49] Initializing net from parameters: 
layer {
  name: "lstm2_"
  type: "Input"
  top: "x"
  top: "cont"
  input_param {
    shape {
      dim: 1
      dim: 1
      dim: 1501
    }
    shape {
      dim: 1
      dim: 1
    }
  }
}
layer {
  name: "lstm2_"
  type: "Input"
  top: "c_0"
  top: "h_0"
  input_param {
    shape {
      dim: 1
      dim: 1
      dim: 1000
    }
    shape {
      dim: 1
      dim: 1
      dim: 1000
    }
  }
}
layer {
  name: "lstm2_cont_slice"
  type: "Slice"
  bottom: "cont"
  top: "cont_1"
  slice_param {
    axis: 0
  }
}
layer {
  name: "lstm2_x_transform"
  type: "InnerProduct"
  bottom: "x"
  top: "W_xc_x"
  param {
    name: "W_xc"
  }
  param {
    name: "b_c"
  }
  propagate_down: true
  inner_product_param {
    num_output: 4000
    bias_term: true
    weight_filler {
      type: "uniform"
      min: -0.08
      max: 0.08
    }
    bias_filler {
      type: "constant"
      value: 0
    }
    axis: 2
  }
}
layer {
  name: "lstm2_W_xc_x_slice"
  type: "Slice"
  bottom: "W_xc_x"
  top: "W_xc_x_1"
  slice_param {
    axis: 0
  }
}
layer {
  name: "lstm2_h_conted_0"
  type: "Scale"
  bottom: "h_0"
  bottom: "cont_1"
  top: "h_conted_0"
  scale_param {
    axis: 0
  }
}
layer {
  name: "lstm2_transform_1"
  type: "InnerProduct"
  bottom: "h_conted_0"
  top: "W_hc_h_0"
  param {
    name: "W_hc"
  }
  inner_product_param {
    num_output: 4000
    bias_term: false
    weight_filler {
      type: "uniform"
      min: -0.08
      max: 0.08
    }
    axis: 2
  }
}
layer {
  name: "lstm2_gate_input_1"
  type: "Eltwise"
  bottom: "W_hc_h_0"
  bottom: "W_xc_x_1"
  top: "gate_input_1"
  eltwise_param {
    operation: SUM
  }
}
layer {
  name: "lstm2_unit_1"
  type: "LSTMUnit"
  bottom: "c_0"
  bottom: "gate_input_1"
  bottom: "cont_1"
  top: "c_1"
  top: "h_1"
}
layer {
  name: "lstm2_"
  type: "Split"
  bottom: "c_1"
  top: "c_T"
}
layer {
  name: "lstm2_h_concat"
  type: "Concat"
  bottom: "h_1"
  top: "h"
  concat_param {
    axis: 0
  }
}
layer {
  name: "h_pseudoloss"
  type: "Reduction"
  bottom: "h"
  top: "h_pseudoloss"
  loss_weight: 1
}
I0802 20:49:36.743041  4722 layer_factory.hpp:77] Creating layer lstm2_
I0802 20:49:36.743053  4722 net.cpp:91] Creating Layer lstm2_
I0802 20:49:36.743059  4722 net.cpp:399] lstm2_ -> x
I0802 20:49:36.743072  4722 net.cpp:399] lstm2_ -> cont
I0802 20:49:36.743129  4722 net.cpp:141] Setting up lstm2_
I0802 20:49:36.743139  4722 net.cpp:148] Top shape: 1 1 1501 (1501)
I0802 20:49:36.743146  4722 net.cpp:148] Top shape: 1 1 (1)
I0802 20:49:36.743150  4722 net.cpp:156] Memory required for data: 6008
I0802 20:49:36.743155  4722 layer_factory.hpp:77] Creating layer lstm2_
I0802 20:49:36.743163  4722 net.cpp:91] Creating Layer lstm2_
I0802 20:49:36.743171  4722 net.cpp:399] lstm2_ -> c_0
I0802 20:49:36.743185  4722 net.cpp:399] lstm2_ -> h_0
I0802 20:49:36.743234  4722 net.cpp:141] Setting up lstm2_
I0802 20:49:36.743243  4722 net.cpp:148] Top shape: 1 1 1000 (1000)
I0802 20:49:36.743249  4722 net.cpp:148] Top shape: 1 1 1000 (1000)
I0802 20:49:36.743254  4722 net.cpp:156] Memory required for data: 14008
I0802 20:49:36.743258  4722 layer_factory.hpp:77] Creating layer lstm2_cont_slice
I0802 20:49:36.743273  4722 net.cpp:91] Creating Layer lstm2_cont_slice
I0802 20:49:36.743279  4722 net.cpp:425] lstm2_cont_slice <- cont
I0802 20:49:36.743286  4722 net.cpp:399] lstm2_cont_slice -> cont_1
I0802 20:49:36.743322  4722 net.cpp:141] Setting up lstm2_cont_slice
I0802 20:49:36.743332  4722 net.cpp:148] Top shape: 1 1 (1)
I0802 20:49:36.743336  4722 net.cpp:156] Memory required for data: 14012
I0802 20:49:36.743341  4722 layer_factory.hpp:77] Creating layer cont_1_lstm2_cont_slice_0_split
I0802 20:49:36.743348  4722 net.cpp:91] Creating Layer cont_1_lstm2_cont_slice_0_split
I0802 20:49:36.743353  4722 net.cpp:425] cont_1_lstm2_cont_slice_0_split <- cont_1
I0802 20:49:36.743365  4722 net.cpp:399] cont_1_lstm2_cont_slice_0_split -> cont_1_lstm2_cont_slice_0_split_0
I0802 20:49:36.743373  4722 net.cpp:399] cont_1_lstm2_cont_slice_0_split -> cont_1_lstm2_cont_slice_0_split_1
I0802 20:49:36.743425  4722 net.cpp:141] Setting up cont_1_lstm2_cont_slice_0_split
I0802 20:49:36.743434  4722 net.cpp:148] Top shape: 1 1 (1)
I0802 20:49:36.743440  4722 net.cpp:148] Top shape: 1 1 (1)
I0802 20:49:36.743444  4722 net.cpp:156] Memory required for data: 14020
I0802 20:49:36.743449  4722 layer_factory.hpp:77] Creating layer lstm2_x_transform
I0802 20:49:36.743463  4722 net.cpp:91] Creating Layer lstm2_x_transform
I0802 20:49:36.743469  4722 net.cpp:425] lstm2_x_transform <- x
I0802 20:49:36.743477  4722 net.cpp:399] lstm2_x_transform -> W_xc_x
I0802 20:49:36.759390  4732 net.cpp:141] Setting up fc7
I0802 20:49:36.759446  4732 net.cpp:148] Top shape: 10 4096 (40960)
I0802 20:49:36.759452  4732 net.cpp:156] Memory required for data: 68273720
I0802 20:49:36.759471  4732 layer_factory.hpp:77] Creating layer relu7
I0802 20:49:36.759491  4732 net.cpp:91] Creating Layer relu7
I0802 20:49:36.759500  4732 net.cpp:425] relu7 <- fc7
I0802 20:49:36.759511  4732 net.cpp:386] relu7 -> fc7 (in-place)
I0802 20:49:36.760267  4732 net.cpp:141] Setting up relu7
I0802 20:49:36.760282  4732 net.cpp:148] Top shape: 10 4096 (40960)
I0802 20:49:36.760287  4732 net.cpp:156] Memory required for data: 68437560
I0802 20:49:36.760293  4732 layer_factory.hpp:77] Creating layer drop7
I0802 20:49:36.760352  4732 net.cpp:91] Creating Layer drop7
I0802 20:49:36.760360  4732 net.cpp:425] drop7 <- fc7
I0802 20:49:36.760370  4732 net.cpp:386] drop7 -> fc7 (in-place)
I0802 20:49:36.760414  4732 net.cpp:141] Setting up drop7
I0802 20:49:36.760423  4732 net.cpp:148] Top shape: 10 4096 (40960)
I0802 20:49:36.760428  4732 net.cpp:156] Memory required for data: 68601400
I0802 20:49:36.760433  4732 layer_factory.hpp:77] Creating layer fc8
I0802 20:49:36.760453  4732 net.cpp:91] Creating Layer fc8
I0802 20:49:36.760459  4732 net.cpp:425] fc8 <- fc7
I0802 20:49:36.760468  4732 net.cpp:399] fc8 -> fc8
I0802 20:49:36.772752  4732 net.cpp:141] Setting up fc8
I0802 20:49:36.772806  4732 net.cpp:148] Top shape: 10 1000 (10000)
I0802 20:49:36.772812  4732 net.cpp:156] Memory required for data: 68641400
I0802 20:49:36.772830  4732 layer_factory.hpp:77] Creating layer prob
I0802 20:49:36.772848  4732 net.cpp:91] Creating Layer prob
I0802 20:49:36.772856  4732 net.cpp:425] prob <- fc8
I0802 20:49:36.772874  4732 net.cpp:399] prob -> prob
I0802 20:49:36.773355  4732 net.cpp:141] Setting up prob
I0802 20:49:36.773368  4732 net.cpp:148] Top shape: 10 1000 (10000)
I0802 20:49:36.773373  4732 net.cpp:156] Memory required for data: 68681400
I0802 20:49:36.773380  4732 net.cpp:219] prob does not need backward computation.
I0802 20:49:36.773386  4732 net.cpp:219] fc8 does not need backward computation.
I0802 20:49:36.773391  4732 net.cpp:219] drop7 does not need backward computation.
I0802 20:49:36.773396  4732 net.cpp:219] relu7 does not need backward computation.
…
I0802 20:49:36.773475  4732 net.cpp:219] norm1 does not need backward computation.
I0802 20:49:36.773480  4732 net.cpp:219] pool1 does not need backward computation.
I0802 20:49:36.773485  4732 net.cpp:219] relu1 does not need backward computation.
I0802 20:49:36.773490  4732 net.cpp:219] conv1 does not need backward computation.
I0802 20:49:36.773495  4732 net.cpp:219] data does not need backward computation.
I0802 20:49:36.773499  4732 net.cpp:261] This network produces output prob
I0802 20:49:36.773520  4732 net.cpp:274] Network initialization done.
I0802 20:49:36.809653  4722 net.cpp:141] Setting up lstm2_x_transform
I0802 20:49:36.809718  4722 net.cpp:148] Top shape: 1 1 4000 (4000)
I0802 20:49:36.809725  4722 net.cpp:156] Memory required for data: 30020
I0802 20:49:36.809753  4722 layer_factory.hpp:77] Creating layer lstm2_W_xc_x_slice
I0802 20:49:36.809774  4722 net.cpp:91] Creating Layer lstm2_W_xc_x_slice
I0802 20:49:36.809782  4722 net.cpp:425] lstm2_W_xc_x_slice <- W_xc_x
I0802 20:49:36.809797  4722 net.cpp:399] lstm2_W_xc_x_slice -> W_xc_x_1
I0802 20:49:36.809862  4722 net.cpp:141] Setting up lstm2_W_xc_x_slice
I0802 20:49:36.809875  4722 net.cpp:148] Top shape: 1 1 4000 (4000)
I0802 20:49:36.809878  4722 net.cpp:156] Memory required for data: 46020
I0802 20:49:36.809883  4722 layer_factory.hpp:77] Creating layer lstm2_h_conted_0
I0802 20:49:36.809896  4722 net.cpp:91] Creating Layer lstm2_h_conted_0
I0802 20:49:36.809902  4722 net.cpp:425] lstm2_h_conted_0 <- h_0
I0802 20:49:36.809908  4722 net.cpp:425] lstm2_h_conted_0 <- cont_1_lstm2_cont_slice_0_split_0
I0802 20:49:36.809921  4722 net.cpp:399] lstm2_h_conted_0 -> h_conted_0
I0802 20:49:36.810034  4722 net.cpp:141] Setting up lstm2_h_conted_0
I0802 20:49:36.810045  4722 net.cpp:148] Top shape: 1 1 1000 (1000)
I0802 20:49:36.810050  4722 net.cpp:156] Memory required for data: 50020
I0802 20:49:36.810055  4722 layer_factory.hpp:77] Creating layer lstm2_transform_1
I0802 20:49:36.810075  4722 net.cpp:91] Creating Layer lstm2_transform_1
I0802 20:49:36.810081  4722 net.cpp:425] lstm2_transform_1 <- h_conted_0
I0802 20:49:36.810089  4722 net.cpp:399] lstm2_transform_1 -> W_hc_h_0
I0802 20:49:36.854110  4722 net.cpp:141] Setting up lstm2_transform_1
I0802 20:49:36.854173  4722 net.cpp:148] Top shape: 1 1 4000 (4000)
I0802 20:49:36.854181  4722 net.cpp:156] Memory required for data: 66020
I0802 20:49:36.854207  4722 layer_factory.hpp:77] Creating layer lstm2_gate_input_1
I0802 20:49:36.854236  4722 net.cpp:91] Creating Layer lstm2_gate_input_1
I0802 20:49:36.854245  4722 net.cpp:425] lstm2_gate_input_1 <- W_hc_h_0
I0802 20:49:36.854254  4722 net.cpp:425] lstm2_gate_input_1 <- W_xc_x_1
I0802 20:49:36.854264  4722 net.cpp:399] lstm2_gate_input_1 -> gate_input_1
I0802 20:49:36.854336  4722 net.cpp:141] Setting up lstm2_gate_input_1
I0802 20:49:36.854346  4722 net.cpp:148] Top shape: 1 1 4000 (4000)
I0802 20:49:36.854351  4722 net.cpp:156] Memory required for data: 82020
I0802 20:49:36.854356  4722 layer_factory.hpp:77] Creating layer lstm2_unit_1
I0802 20:49:36.854365  4722 net.cpp:91] Creating Layer lstm2_unit_1
I0802 20:49:36.854370  4722 net.cpp:425] lstm2_unit_1 <- c_0
I0802 20:49:36.854377  4722 net.cpp:425] lstm2_unit_1 <- gate_input_1
I0802 20:49:36.854382  4722 net.cpp:425] lstm2_unit_1 <- cont_1_lstm2_cont_slice_0_split_1
I0802 20:49:36.854393  4722 net.cpp:399] lstm2_unit_1 -> c_1
I0802 20:49:36.854403  4722 net.cpp:399] lstm2_unit_1 -> h_1
I0802 20:49:36.854476  4722 net.cpp:141] Setting up lstm2_unit_1
I0802 20:49:36.854486  4722 net.cpp:148] Top shape: 1 1 1000 (1000)
I0802 20:49:36.854492  4722 net.cpp:148] Top shape: 1 1 1000 (1000)
I0802 20:49:36.854496  4722 net.cpp:156] Memory required for data: 90020
I0802 20:49:36.854501  4722 layer_factory.hpp:77] Creating layer lstm2_
I0802 20:49:36.854511  4722 net.cpp:91] Creating Layer lstm2_
I0802 20:49:36.854517  4722 net.cpp:425] lstm2_ <- c_1
I0802 20:49:36.854524  4722 net.cpp:399] lstm2_ -> c_T
I0802 20:49:36.855092  4722 net.cpp:141] Setting up lstm2_
I0802 20:49:36.855111  4722 net.cpp:148] Top shape: 1 1 1000 (1000)
I0802 20:49:36.855118  4722 net.cpp:156] Memory required for data: 94020
I0802 20:49:36.855123  4722 layer_factory.hpp:77] Creating layer lstm2_h_concat
I0802 20:49:36.855136  4722 net.cpp:91] Creating Layer lstm2_h_concat
I0802 20:49:36.855141  4722 net.cpp:425] lstm2_h_concat <- h_1
I0802 20:49:36.855150  4722 net.cpp:399] lstm2_h_concat -> h
I0802 20:49:36.855206  4722 net.cpp:141] Setting up lstm2_h_concat
I0802 20:49:36.855216  4722 net.cpp:148] Top shape: 1 1 1000 (1000)
I0802 20:49:36.855221  4722 net.cpp:156] Memory required for data: 98020
I0802 20:49:36.855226  4722 layer_factory.hpp:77] Creating layer h_pseudoloss
I0802 20:49:36.855242  4722 net.cpp:91] Creating Layer h_pseudoloss
I0802 20:49:36.855247  4722 net.cpp:425] h_pseudoloss <- h
I0802 20:49:36.855254  4722 net.cpp:399] h_pseudoloss -> h_pseudoloss
I0802 20:49:36.855361  4722 net.cpp:141] Setting up h_pseudoloss
…
