…
Java HotSpot(TM) 64-Bit Server VM warning: You have loaded library /tmp/cvld2638186904882823565/libopencv_java310.xine1.so which might have disabled stack guard. The VM will try to fix the stack guard now.
It's highly recommended that you fix the library with 'execstack -c <libfile>', or link it with '-z noexecstack'.
WARNING: Logging before InitGoogleLogging() is written to STDERR
I0714 20:43:37.706113  5410 net.cpp:49] Initializing net from parameters: 
name: "GoogleNet"
state {
  phase: TEST
}
layer {
  name: "data"
  type: "Input"
  top: "data"
  input_param {
    shape {
      dim: 10
      dim: 3
      dim: 224
      dim: 224
    }
  }
}
layer {
  name: "conv1/7x7_s2"
  type: "Convolution"
  bottom: "data"
  top: "conv1/7x7_s2"
  param {
    lr_mult: 1
    decay_mult: 1
  }
  param {
    lr_mult: 2
    decay_mult: 0
  }
  convolution_param {
    num_output: 64
    pad: 3
    kernel_size: 7
    stride: 2
    weight_filler {
      type: "xavier"
      std: 0.1
    }
    bias_filler {
      type: "constant"
      value: 0.2
    }
  }
}
layer {
  name: "conv1/relu_7x7"
  type: "ReLU"
  bottom: "conv1/7x7_s2"
  top: "conv1/7x7_s2"
}
layer {
  name: "pool1/3x3_s2"
  type: "Pooling"
  bottom: "conv1/7x7_s2"
  top: "pool1/3x3_s2"
  pooling_param {
    pool: MAX
    kernel_size: 3
    stride: 2
  }
}
layer {
  name: "pool1/norm1"
  type: "LRN"
  bottom: "pool1/3x3_s2"
  top: "pool1/norm1"
  lrn_param {
    local_size: 5
    alpha: 0.0001
    beta: 0.75
  }
}
layer {
  name: "conv2/3x3_reduce"
  type: "Convolution"
  bottom: "pool1/norm1"
  top: "conv2/3x3_reduce"
  param {
    lr_mult: 1
    decay_mult: 1
  }
  param {
    lr_mult: 2
    decay_mult: 0
  }
  convolution_param {
    num_output: 64
    kernel_size: 1
    weight_filler {
      type: "xavier"
      std: 0.1
    }
    bias_filler {
      type: "constant"
      value: 0.2
    }
  }
}
layer {
  name: "conv2/relu_3x3_reduce"
  type: "ReLU"
  bottom: "conv2/3x3_reduce"
  top: "conv2/3x3_reduce"
}
layer {
  name: "conv2/3x3"
  type: "Convolution"
  bottom: "conv2/3x3_reduce"
  top: "conv2/3x3"
  param {
    lr_mult: 1
    decay_mult: 1
  }
  param {
    lr_mult: 2
    decay_mult: 0
  }
  convolution_param {
    num_output: 192
    pad: 1
    kernel_size: 3
    weight_filler {
      type: "xavier"
      std: 0.03
    }
    bias_filler {
      type: "constant"
      value: 0.2
    }
  }
}
layer {
  name: "conv2/relu_3x3"
  type: "ReLU"
  bottom: "conv2/3x3"
  top: "conv2/3x3"
}
layer {
  name: "conv2/norm2"
  type: "LRN"
  bottom: "conv2/3x3"
  top: "conv2/norm2"
  lrn_param {
    local_size: 5
    alpha: 0.0001
    beta: 0.75
  }
}
layer {
  name: "pool2/3x3_s2"
  type: "Pooling"
  bottom: "conv2/norm2"
  top: "pool2/3x3_s2"
  pooling_param {
    pool: MAX
    kernel_size: 3
    stride: 2
  }
}
layer {
  name: "inception_3a/1x1"
  type: "Convolution"
  bottom: "pool2/3x3_s2"
  top: "inception_3a/1x1"
  param {
    lr_mult: 1
    decay_mult: 1
  }
  param {
    lr_mult: 2
    decay_mult: 0
  }
  convolution_param {
    num_output: 64
    kernel_size: 1
    weight_filler {
      type: "xavier"
      std: 0.03
    }
    bias_filler {
      type: "constant"
      value: 0.2
    }
  }
}
layer {
  name: "inception_3a/relu_1x1"
  type: "ReLU"
  bottom: "inception_3a/1x1"
  top: "inception_3a/1x1"
}
layer {
  name: "inception_3a/3x3_reduce"
  type: "Convolution"
  bottom: "pool2/3x3_s2"
  top: "inception_3a/3x3_reduce"
  param {
    lr_mult: 1
    decay_mult: 1
  }
  param {
    lr_mult: 2
    decay_mult: 0
  }
  convolution_param {
    num_output: 96
    kernel_size: 1
    weight_filler {
      type: "xavier"
      std: 0.09
    }
    bias_filler {
      type: "constant"
      value: 0.2
    }
  }
}
layer {
  name: "inception_3a/relu_3x3_reduce"
  type: "ReLU"
  bottom: "inception_3a/3x3_reduce"
  top: "inception_3a/3x3_reduce"
}
layer {
  name: "inception_3a/3x3"
  type: "Convolution"
  bottom: "inception_3a/3x3_reduce"
  top: "inception_3a/3x3"
  param {
    lr_mult: 1
    decay_mult: 1
  }
  param {
    lr_mult: 2
    decay_mult: 0
  }
  convolution_param {
    num_output: 128
    pad: 1
    kernel_size: 3
    weight_filler {
      type: "xavier"
      std: 0.03
    }
    bias_filler {
      type: "constant"
      value: 0.2
    }
  }
}
layer {
  name: "inception_3a/relu_3x3"
  type: "ReLU"
  bottom: "inception_3a/3x3"
  top: "inception_3a/3x3"
}
layer {
  name: "inception_3a/5x5_reduce"
  type: "Convolution"
  bottom: "pool2/3x3_s2"
  top: "inception_3a/5x5_reduce"
  param {
    lr_mult: 1
    decay_mult: 1
  }
  param {
    lr_mult: 2
    decay_mult: 0
  }
  convolution_param {
    num_output: 16
    kernel_size: 1
    weight_filler {
      type: "xavier"
      std: 0.2
    }
    bias_filler {
      type: "constant"
      value: 0.2
    }
  }
}
layer {
  name: "inception_3a/relu_5x5_reduce"
  type: "ReLU"
  bottom: "inception_3a/5x5_reduce"
  top: "inception_3a/5x5_reduce"
}
layer {
  name: "inception_3a/5x5"
  type: "Convolution"
  bottom: "inception_3a/5x5_reduce"
  top: "inception_3a/5x5"
  param {
    lr_mult: 1
    decay_mult: 1
  }
  param {
    lr_mult: 2
    decay_mult: 0
  }
  convolution_param {
    num_output: 32
    pad: 2
    kernel_size: 5
    weight_filler {
      type: "xavier"
      std: 0.03
    }
    bias_filler {
      type: "constant"
      value: 0.2
    }
  }
}
layer {
  name: "inception_3a/relu_5x5"
  type: "ReLU"
  bottom: "inception_3a/5x5"
  top: "inception_3a/5x5"
}
layer {
  name: "inception_3a/pool"
  type: "Pooling"
  bottom: "pool2/3x3_s2"
  top: "inception_3a/pool"
  pooling_param {
    pool: MAX
    kernel_size: 3
    stride: 1
    pad: 1
  }
}
layer {
  name: "inception_3a/pool_proj"
  type: "Convolution"
  bottom: "inception_3a/pool"
  top: "inception_3a/pool_proj"
  param {
    lr_mult: 1
    decay_mult: 1
  }
  param {
    lr_mult: 2
    decay_mult: 0
  }
  convolution_param {
    num_output: 32
    kernel_size: 1
    weight_filler {
      type: "xavier"
      std: 0.1
    }
    bias_filler {
      type: "constant"
      value: 0.2
    }
  }
}
layer {
  name: "inception_3a/relu_pool_proj"
  type: "ReLU"
  bottom: "inception_3a/pool_proj"
  top: "inception_3a/pool_proj"
}
layer {
  name: "inception_3a/output"
  type: "Concat"
  bottom: "inception_3a/1x1"
  bottom: "inception_3a/3x3"
  bottom: "inception_3a/5x5"
  bottom: "inception_3a/pool_proj"
  top: "inception_3a/output"
}
layer {
  name: "inception_3b/1x1"
  type: "Convolution"
  bottom: "inception_3a/output"
  top: "inception_3b/1x1"
  param {
    lr_mult: 1
    decay_mult: 1
  }
  param {
    lr_mult: 2
    decay_mult: 0
  }
  convolution_param {
    num_output: 128
    kernel_size: 1
    weight_filler {
      type: "xavier"
      std: 0.03
    }
    bias_filler {
      type: "constant"
      value: 0.2
    }
  }
}
layer {
  name: "inception_3b/relu_1x1"
  type: "ReLU"
  bottom: "inception_3b/1x1"
  top: "inception_3b/1x1"
}
layer {
  name: "inception_3b/3x3_reduce"
  type: "Convolution"
  bottom: "inception_3a/output"
  top: "inception_3b/3x3_reduce"
  param {
    lr_mult: 1
    decay_mult: 1
  }
  param {
    lr_mult: 2
    decay_mult: 0
  }
  convolution_param {
    num_output: 128
    kernel_size: 1
    weight_filler {
      type: "xavier"
      std: 0.09
    }
    bias_filler {
      type: "constant"
      value: 0.2
    }
  }
}
layer {
  name: "inception_3b/relu_3x3_reduce"
  type: "ReLU"
  bottom: "inception_3b/3x3_reduce"
  top: "inception_3b/3x3_reduce"
}
layer {
  name: "inception_3b/3x3"
  type: "Convolution"
  bottom: "inception_3b/3x3_reduce"
  top: "inception_3b/3x3"
  param {
    lr_mult: 1
    decay_mult: 1
  }
  param {
    lr_mult: 2
    decay_mult: 0
  }
  convolution_param {
    num_output: 192
    pad: 1
    kernel_size: 3
    weight_filler {
      type: "xavier"
      std: 0.03
    }
    bias_filler {
      type: "constant"
      value: 0.2
    }
  }
}
layer {
  name: "inception_3b/relu_3x3"
  type: "ReLU"
  bottom: "inception_3b/3x3"
  top: "inception_3b/3x3"
}
layer {
  name: "inception_3b/5x5_reduce"
  type: "Convolution"
  bottom: "inception_3a/output"
  top: "inception_3b/5x5_reduce"
  param {
    lr_mult: 1
    decay_mult: 1
  }
  param {
    lr_mult: 2
    decay_mult: 0
  }
  convolution_param {
    num_output: 32
    kernel_size: 1
    weight_filler {
      type: "xavier"
      std: 0.2
    }
    bias_filler {
      type: "constant"
      value: 0.2
    }
  }
}
layer {
  name: "inception_3b/relu_5x5_reduce"
  type: "ReLU"
  bottom: "inception_3b/5x5_reduce"
  top: "inception_3b/5x5_reduce"
}
layer {
  name: "inception_3b/5x5"
  type: "Convolution"
  bottom: "inception_3b/5x5_reduce"
  top: "inception_3b/5x5"
  param {
    lr_mult: 1
    decay_mult: 1
  }
  param {
    lr_mult: 2
    decay_mult: 0
  }
  convolution_param {
    num_output: 96
    pad: 2
    kernel_size: 5
    weight_filler {
      type: "xavier"
      std: 0.03
    }
    bias_filler {
      type: "constant"
      value: 0.2
    }
  }
}
layer {
  name: "inception_3b/relu_5x5"
  type: "ReLU"
  bottom: "inception_3b/5x5"
  top: "inception_3b/5x5"
}
layer {
  name: "inception_3b/pool"
  type: "Pooling"
  bottom: "inception_3a/output"
  top: "inception_3b/pool"
  pooling_param {
    pool: MAX
    kernel_size: 3
    stride: 1
    pad: 1
  }
}
layer {
  name: "inception_3b/pool_proj"
  type: "Convolution"
  bottom: "inception_3b/pool"
  top: "inception_3b/pool_proj"
  param {
    lr_mult: 1
    decay_mult: 1
  }
  param {
    lr_mult: 2
    decay_mult: 0
  }
  convolution_param {
    num_output: 64
    kernel_size: 1
    weight_filler {
      type: "xavier"
      std: 0.1
    }
    bias_filler {
      type: "constant"
      value: 0.2
    }
  }
}
layer {
  name: "inception_3b/relu_pool_proj"
  type: "ReLU"
  bottom: "inception_3b/pool_proj"
  top: "inception_3b/pool_proj"
}
layer {
  name: "inception_3b/output"
  type: "Concat"
  bottom: "inception_3b/1x1"
  bottom: "inception_3b/3x3"
  bottom: "inception_3b/5x5"
  bottom: "inception_3b/pool_proj"
  top: "inception_3b/output"
}
layer {
  name: "pool3/3x3_s2"
  type: "Pooling"
  bottom: "inception_3b/output"
  top: "pool3/3x3_s2"
  pooling_param {
    pool: MAX
    kernel_size: 3
    stride: 2
  }
}
layer {
  name: "inception_4a/1x1"
  type: "Convolution"
  bottom: "pool3/3x3_s2"
  top: "inception_4a/1x1"
  param {
    lr_mult: 1
    decay_mult: 1
  }
  param {
    lr_mult: 2
    decay_mult: 0
  }
  convolution_param {
    num_output: 192
    kernel_size: 1
    weight_filler {
      type: "xavier"
      std: 0.03
    }
    bias_filler {
      type: "constant"
      value: 0.2
    }
  }
}
layer {
  name: "inception_4a/relu_1x1"
  type: "ReLU"
  bottom: "inception_4a/1x1"
  top: "inception_4a/1x1"
}
layer {
  name: "inception_4a/3x3_reduce"
  type: "Convolution"
  bottom: "pool3/3x3_s2"
  top: "inception_4a/3x3_reduce"
  param {
    lr_mult: 1
    decay_mult: 1
  }
  param {
    lr_mult: 2
    decay_mult: 0
  }
  convolution_param {
    num_output: 96
    kernel_size: 1
    weight_filler {
      type: "xavier"
      std: 0.09
    }
    bias_filler {
      type: "constant"
      value: 0.2
    }
  }
}
layer {
  name: "inception_4a/relu_3x3_reduce"
  type: "ReLU"
  bottom: "inception_4a/3x3_reduce"
  top: "inception_4a/3x3_reduce"
}
layer {
  name: "inception_4a/3x3"
  type: "Convolution"
  bottom: "inception_4a/3x3_reduce"
  top: "inception_4a/3x3"
  param {
    lr_mult: 1
    decay_mult: 1
  }
  param {
    lr_mult: 2
    decay_mult: 0
  }
  convolution_param {
    num_output: 208
    pad: 1
    kernel_size: 3
    weight_filler {
      type: "xavier"
      std: 0.03
    }
    bias_filler {
      type: "constant"
      value: 0.2
    }
  }
}
layer {
  name: "inception_4a/relu_3x3"
  type: "ReLU"
  bottom: "inception_4a/3x3"
  top: "inception_4a/3x3"
}
layer {
  name: "inception_4a/5x5_reduce"
  type: "Convolution"
  bottom: "pool3/3x3_s2"
  top: "inception_4a/5x5_reduce"
  param {
    lr_mult: 1
    decay_mult: 1
  }
  param {
    lr_mult: 2
    decay_mult: 0
  }
  convolution_param {
    num_output: 16
    kernel_size: 1
    weight_filler {
      type: "xavier"
      std: 0.2
    }
    bias_filler {
      type: "constant"
      value: 0.2
    }
  }
}
layer {
  name: "inception_4a/relu_5x5_reduce"
  type: "ReLU"
  bottom: "inception_4a/5x5_reduce"
  top: "inception_4a/5x5_reduce"
}
layer {
  name: "inception_4a/5x5"
  type: "Convolution"
  bottom: "inception_4a/5x5_reduce"
  top: "inception_4a/5x5"
  param {
    lr_mult: 1
    decay_mult: 1
  }
  param {
    lr_mult: 2
    decay_mult: 0
  }
  convolution_param {
    num_output: 48
    pad: 2
    kernel_size: 5
    weight_filler {
      type: "xavier"
      std: 0.03
    }
    bias_filler {
      type: "constant"
      value: 0.2
    }
  }
}
layer {
  name: "inception_4a/relu_5x5"
  type: "ReLU"
  bottom: "inception_4a/5x5"
  top: "inception_4a/5x5"
}
layer {
  name: "inception_4a/pool"
  type: "Pooling"
  bottom: "pool3/3x3_s2"
  top: "inception_4a/pool"
  pooling_param {
    pool: MAX
    kernel_size: 3
    stride: 1
    pad: 1
  }
}
layer {
  name: "inception_4a/pool_proj"
  type: "Convolution"
  bottom: "inception_4a/pool"
  top: "inception_4a/pool_proj"
  param {
    lr_mult: 1
    decay_mult: 1
  }
  param {
    lr_mult: 2
    decay_mult: 0
  }
  convolution_param {
    num_output: 64
    kernel_size: 1
    weight_filler {
      type: "xavier"
      std: 0.1
    }
    bias_filler {
      type: "constant"
      value: 0.2
    }
  }
}
layer {
  name: "inception_4a/relu_pool_proj"
  type: "ReLU"
  bottom: "inception_4a/pool_proj"
  top: "inception_4a/pool_proj"
}
layer {
  name: "inception_4a/output"
  type: "Concat"
  bottom: "inception_4a/1x1"
  bottom: "inception_4a/3x3"
  bottom: "inception_4a/5x5"
  bottom: "inception_4a/pool_proj"
  top: "inception_4a/output"
}
layer {
  name: "inception_4b/1x1"
  type: "Convolution"
  bottom: "inception_4a/output"
  top: "inception_4b/1x1"
  param {
    lr_mult: 1
    decay_mult: 1
  }
  param {
    lr_mult: 2
    decay_mult: 0
  }
  convolution_param {
    num_output: 160
    kernel_size: 1
    weight_filler {
      type: "xavier"
      std: 0.03
    }
    bias_filler {
      type: "constant"
      value: 0.2
    }
  }
}
layer {
  name: "inception_4b/relu_1x1"
  type: "ReLU"
  bottom: "inception_4b/1x1"
  top: "inception_4b/1x1"
}
layer {
  name: "inception_4b/3x3_reduce"
  type: "Convolution"
  bottom: "inception_4a/output"
  top: "inception_4b/3x3_reduce"
  param {
    lr_mult: 1
    decay_mult: 1
  }
  param {
    lr_mult: 2
    decay_mult: 0
  }
  convolution_param {
    num_output: 112
    kernel_size: 1
    weight_filler {
      type: "xavier"
      std: 0.09
    }
    bias_filler {
      type: "constant"
      value: 0.2
    }
  }
}
layer {
  name: "inception_4b/relu_3x3_reduce"
  type: "ReLU"
  bottom: "inception_4b/3x3_reduce"
  top: "inception_4b/3x3_reduce"
}
layer {
  name: "inception_4b/3x3"
  type: "Convolution"
  bottom: "inception_4b/3x3_reduce"
  top: "inception_4b/3x3"
  param {
    lr_mult: 1
    decay_mult: 1
  }
  param {
    lr_mult: 2
    decay_mult: 0
  }
  convolution_param {
    num_output: 224
    pad: 1
    kernel_size: 3
    weight_filler {
      type: "xavier"
      std: 0.03
    }
    bias_filler {
      type: "constant"
      value: 0.2
    }
  }
}
layer {
  name: "inception_4b/relu_3x3"
  type: "ReLU"
  bottom: "inception_4b/3x3"
  top: "inception_4b/3x3"
}
layer {
  name: "inception_4b/5x5_reduce"
  type: "Convolution"
  bottom: "inception_4a/output"
  top: "inception_4b/5x5_reduce"
  param {
    lr_mult: 1
    decay_mult: 1
  }
  param {
    lr_mult: 2
    decay_mult: 0
  }
  convolution_param {
    num_output: 24
    kernel_size: 1
    weight_filler {
      type: "xavier"
      std: 0.2
    }
    bias_filler {
      type: "constant"
      value: 0.2
    }
  }
}
layer {
  name: "inception_4b/relu_5x5_reduce"
  type: "ReLU"
  bottom: "inception_4b/5x5_reduce"
  top: "inception_4b/5x5_reduce"
}
layer {
  name: "inception_4b/5x5"
  type: "Convolution"
  bottom: "inception_4b/5x5_reduce"
  top: "inception_4b/5x5"
  param {
    lr_mult: 1
    decay_mult: 1
  }
  param {
    lr_mult: 2
    decay_mult: 0
  }
  convolution_param {
    num_output: 64
    pad: 2
    kernel_size: 5
    weight_filler {
      type: "xavier"
      std: 0.03
    }
    bias_filler {
      type: "constant"
      value: 0.2
    }
  }
}
layer {
  name: "inception_4b/relu_5x5"
  type: "ReLU"
  bottom: "inception_4b/5x5"
  top: "inception_4b/5x5"
}
layer {
  name: "inception_4b/pool"
  type: "Pooling"
  bottom: "inception_4a/output"
  top: "inception_4b/pool"
  pooling_param {
    pool: MAX
    kernel_size: 3
    stride: 1
    pad: 1
  }
}
layer {
  name: "inception_4b/pool_proj"
  type: "Convolution"
  bottom: "inception_4b/pool"
  top: "inception_4b/pool_proj"
  param {
    lr_mult: 1
    decay_mult: 1
  }
  param {
    lr_mult: 2
    decay_mult: 0
  }
  convolution_param {
    num_output: 64
    kernel_size: 1
    weight_filler {
      type: "xavier"
      std: 0.1
    }
    bias_filler {
      type: "constant"
      value: 0.2
    }
  }
}
layer {
  name: "inception_4b/relu_pool_proj"
  type: "ReLU"
  bottom: "inception_4b/pool_proj"
  top: "inception_4b/pool_proj"
}
layer {
  name: "inception_4b/output"
  type: "Concat"
  bottom: "inception_4b/1x1"
  bottom: "inception_4b/3x3"
  bottom: "inception_4b/5x5"
  bottom: "inception_4b/pool_proj"
  top: "inception_4b/output"
}
layer {
  name: "inception_4c/1x1"
  type: "Convolution"
  bottom: "inception_4b/output"
  top: "inception_4c/1x1"
  param {
    lr_mult: 1
    decay_mult: 1
  }
  param {
    lr_mult: 2
    decay_mult: 0
  }
  convolution_param {
    num_output: 128
    kernel_size: 1
    weight_filler {
      type: "xavier"
      std: 0.03
    }
    bias_filler {
      type: "constant"
      value: 0.2
    }
  }
}
layer {
  name: "inception_4c/relu_1x1"
  type: "ReLU"
  bottom: "inception_4c/1x1"
  top: "inception_4c/1x1"
}
layer {
  name: "inception_4c/3x3_reduce"
  type: "Convolution"
  bottom: "inception_4b/output"
  top: "inception_4c/3x3_reduce"
  param {
    lr_mult: 1
    decay_mult: 1
  }
  param {
    lr_mult: 2
    decay_mult: 0
  }
  convolution_param {
    num_output: 128
    kernel_size: 1
    weight_filler {
      type: "xavier"
      std: 0.09
    }
    bias_filler {
      type: "constant"
      value: 0.2
    }
  }
}
layer {
  name: "inception_4c/relu_3x3_reduce"
  type: "ReLU"
  bottom: "inception_4c/3x3_reduce"
  top: "inception_4c/3x3_reduce"
}
layer {
  name: "inception_4c/3x3"
  type: "Convolution"
  bottom: "inception_4c/3x3_reduce"
  top: "inception_4c/3x3"
  param {
    lr_mult: 1
    decay_mult: 1
  }
  param {
    lr_mult: 2
    decay_mult: 0
  }
  convolution_param {
    num_output: 256
    pad: 1
    kernel_size: 3
    weight_filler {
      type: "xavier"
      std: 0.03
    }
    bias_filler {
      type: "constant"
      value: 0.2
    }
  }
}
layer {
  name: "inception_4c/relu_3x3"
  type: "ReLU"
  bottom: "inception_4c/3x3"
  top: "inception_4c/3x3"
}
layer {
  name: "inception_4c/5x5_reduce"
  type: "Convolution"
  bottom: "inception_4b/output"
  top: "inception_4c/5x5_reduce"
  param {
    lr_mult: 1
    decay_mult: 1
  }
  param {
    lr_mult: 2
    decay_mult: 0
  }
  convolution_param {
    num_output: 24
    kernel_size: 1
    weight_filler {
      type: "xavier"
      std: 0.2
    }
    bias_filler {
      type: "constant"
      value: 0.2
    }
  }
}
layer {
  name: "inception_4c/relu_5x5_reduce"
  type: "ReLU"
  bottom: "inception_4c/5x5_reduce"
  top: "inception_4c/5x5_reduce"
}
layer {
  name: "inception_4c/5x5"
  type: "Convolution"
  bottom: "inception_4c/5x5_reduce"
  top: "inception_4c/5x5"
  param {
    lr_mult: 1
    decay_mult: 1
  }
  param {
    lr_mult: 2
    decay_mult: 0
  }
  convolution_param {
    num_output: 64
    pad: 2
    kernel_size: 5
    weight_filler {
      type: "xavier"
      std: 0.03
    }
    bias_filler {
      type: "constant"
      value: 0.2
    }
  }
}
layer {
  name: "inception_4c/relu_5x5"
  type: "ReLU"
  bottom: "inception_4c/5x5"
  top: "inception_4c/5x5"
}
layer {
  name: "inception_4c/pool"
  type: "Pooling"
  bottom: "inception_4b/output"
  top: "inception_4c/pool"
  pooling_param {
    pool: MAX
    kernel_size: 3
    stride: 1
    pad: 1
  }
}
layer {
  name: "inception_4c/pool_proj"
  type: "Convolution"
  bottom: "inception_4c/pool"
  top: "inception_4c/pool_proj"
  param {
    lr_mult: 1
    decay_mult: 1
  }
  param {
    lr_mult: 2
    decay_mult: 0
  }
  convolution_param {
    num_output: 64
    kernel_size: 1
    weight_filler {
      type: "xavier"
      std: 0.1
    }
    bias_filler {
      type: "constant"
      value: 0.2
    }
  }
}
layer {
  name: "inception_4c/relu_pool_proj"
  type: "ReLU"
  bottom: "inception_4c/pool_proj"
  top: "inception_4c/pool_proj"
}
layer {
  name: "inception_4c/output"
  type: "Concat"
  bottom: "inception_4c/1x1"
  bottom: "inception_4c/3x3"
  bottom: "inception_4c/5x5"
  bottom: "inception_4c/pool_proj"
  top: "inception_4c/output"
}
layer {
  name: "inception_4d/1x1"
  type: "Convolution"
  bottom: "inception_4c/output"
  top: "inception_4d/1x1"
  param {
    lr_mult: 1
    decay_mult: 1
  }
  param {
    lr_mult: 2
    decay_mult: 0
  }
  convolution_param {
    num_output: 112
    kernel_size: 1
    weight_filler {
      type: "xavier"
      std: 0.03
    }
    bias_filler {
      type: "constant"
      value: 0.2
    }
  }
}
layer {
  name: "inception_4d/relu_1x1"
  type: "ReLU"
  bottom: "inception_4d/1x1"
  top: "inception_4d/1x1"
}
layer {
  name: "inception_4d/3x3_reduce"
  type: "Convolution"
  bottom: "inception_4c/output"
  top: "inception_4d/3x3_reduce"
  param {
    lr_mult: 1
    decay_mult: 1
  }
  param {
    lr_mult: 2
    decay_mult: 0
  }
  convolution_param {
    num_output: 144
    kernel_size: 1
    weight_filler {
      type: "xavier"
      std: 0.09
    }
    bias_filler {
      type: "constant"
      value: 0.2
    }
  }
}
layer {
  name: "inception_4d/relu_3x3_reduce"
  type: "ReLU"
  bottom: "inception_4d/3x3_reduce"
  top: "inception_4d/3x3_reduce"
}
layer {
  name: "inception_4d/3x3"
  type: "Convolution"
  bottom: "inception_4d/3x3_reduce"
  top: "inception_4d/3x3"
  param {
    lr_mult: 1
    decay_mult: 1
  }
  param {
    lr_mult: 2
    decay_mult: 0
  }
  convolution_param {
    num_output: 288
    pad: 1
    kernel_size: 3
    weight_filler {
      type: "xavier"
      std: 0.03
    }
    bias_filler {
      type: "constant"
      value: 0.2
    }
  }
}
layer {
  name: "inception_4d/relu_3x3"
  type: "ReLU"
  bottom: "inception_4d/3x3"
  top: "inception_4d/3x3"
}
layer {
  name: "inception_4d/5x5_reduce"
  type: "Convolution"
  bottom: "inception_4c/output"
  top: "inception_4d/5x5_reduce"
  param {
    lr_mult: 1
    decay_mult: 1
  }
  param {
    lr_mult: 2
    decay_mult: 0
  }
  convolution_param {
    num_output: 32
    kernel_size: 1
    weight_filler {
      type: "xavier"
      std: 0.2
    }
    bias_filler {
      type: "constant"
      value: 0.2
    }
  }
}
layer {
  name: "inception_4d/relu_5x5_reduce"
  type: "ReLU"
  bottom: "inception_4d/5x5_reduce"
  top: "inception_4d/5x5_reduce"
}
layer {
  name: "inception_4d/5x5"
  type: "Convolution"
  bottom: "inception_4d/5x5_reduce"
  top: "inception_4d/5x5"
  param {
    lr_mult: 1
    decay_mult: 1
  }
  param {
    lr_mult: 2
    decay_mult: 0
  }
  convolution_param {
    num_output: 64
    pad: 2
    kernel_size: 5
    weight_filler {
      type: "xavier"
      std: 0.03
    }
    bias_filler {
      type: "constant"
      value: 0.2
    }
  }
}
layer {
  name: "inception_4d/relu_5x5"
  type: "ReLU"
  bottom: "inception_4d/5x5"
  top: "inception_4d/5x5"
}
layer {
  name: "inception_4d/pool"
  type: "Pooling"
  bottom: "inception_4c/output"
  top: "inception_4d/pool"
  pooling_param {
    pool: MAX
    kernel_size: 3
    stride: 1
    pad: 1
  }
}
layer {
  name: "inception_4d/pool_proj"
  type: "Convolution"
  bottom: "inception_4d/pool"
  top: "inception_4d/pool_proj"
  param {
    lr_mult: 1
    decay_mult: 1
  }
  param {
    lr_mult: 2
    decay_mult: 0
  }
  convolution_param {
    num_output: 64
    kernel_size: 1
    weight_filler {
      type: "xavier"
      std: 0.1
    }
    bias_filler {
      type: "constant"
      value: 0.2
    }
  }
}
layer {
  name: "inception_4d/relu_pool_proj"
  type: "ReLU"
  bottom: "inception_4d/pool_proj"
  top: "inception_4d/pool_proj"
}
layer {
  name: "inception_4d/output"
  type: "Concat"
  bottom: "inception_4d/1x1"
  bottom: "inception_4d/3x3"
  bottom: "inception_4d/5x5"
  bottom: "inception_4d/pool_proj"
  top: "inception_4d/output"
}
layer {
  name: "inception_4e/1x1"
  type: "Convolution"
  bottom: "inception_4d/output"
  top: "inception_4e/1x1"
  param {
    lr_mult: 1
    decay_mult: 1
  }
  param {
    lr_mult: 2
    decay_mult: 0
  }
  convolution_param {
    num_output: 256
    kernel_size: 1
    weight_filler {
      type: "xavier"
      std: 0.03
    }
    bias_filler {
      type: "constant"
      value: 0.2
    }
  }
}
layer {
  name: "inception_4e/relu_1x1"
  type: "ReLU"
  bottom: "inception_4e/1x1"
  top: "inception_4e/1x1"
}
layer {
  name: "inception_4e/3x3_reduce"
  type: "Convolution"
  bottom: "inception_4d/output"
  top: "inception_4e/3x3_reduce"
  param {
    lr_mult: 1
    decay_mult: 1
  }
  param {
    lr_mult: 2
    decay_mult: 0
  }
  convolution_param {
    num_output: 160
    kernel_size: 1
    weight_filler {
      type: "xavier"
      std: 0.09
    }
    bias_filler {
      type: "constant"
      value: 0.2
    }
  }
}
layer {
  name: "inception_4e/relu_3x3_reduce"
  type: "ReLU"
  bottom: "inception_4e/3x3_reduce"
  top: "inception_4e/3x3_reduce"
}
layer {
  name: "inception_4e/3x3"
  type: "Convolution"
  bottom: "inception_4e/3x3_reduce"
  top: "inception_4e/3x3"
  param {
    lr_mult: 1
    decay_mult: 1
  }
  param {
    lr_mult: 2
    decay_mult: 0
  }
  convolution_param {
    num_output: 320
    pad: 1
    kernel_size: 3
    weight_filler {
      type: "xavier"
      std: 0.03
    }
    bias_filler {
      type: "constant"
      value: 0.2
    }
  }
}
layer {
  name: "inception_4e/relu_3x3"
  type: "ReLU"
  bottom: "inception_4e/3x3"
  top: "inception_4e/3x3"
}
layer {
  name: "inception_4e/5x5_reduce"
  type: "Convolution"
  bottom: "inception_4d/output"
  top: "inception_4e/5x5_reduce"
  param {
    lr_mult: 1
    decay_mult: 1
  }
  param {
    lr_mult: 2
    decay_mult: 0
  }
  convolution_param {
    num_output: 32
    kernel_size: 1
    weight_filler {
      type: "xavier"
      std: 0.2
    }
    bias_filler {
      type: "constant"
      value: 0.2
    }
  }
}
layer {
  name: "inception_4e/relu_5x5_reduce"
  type: "ReLU"
  bottom: "inception_4e/5x5_reduce"
  top: "inception_4e/5x5_reduce"
}
layer {
  name: "inception_4e/5x5"
  type: "Convolution"
  bottom: "inception_4e/5x5_reduce"
  top: "inception_4e/5x5"
  param {
    lr_mult: 1
    decay_mult: 1
  }
  param {
    lr_mult: 2
    decay_mult: 0
  }
  convolution_param {
    num_output: 128
    pad: 2
    kernel_size: 5
    weight_filler {
      type: "xavier"
      std: 0.03
    }
    bias_filler {
      type: "constant"
      value: 0.2
    }
  }
}
layer {
  name: "inception_4e/relu_5x5"
  type: "ReLU"
  bottom: "inception_4e/5x5"
  top: "inception_4e/5x5"
}
layer {
  name: "inception_4e/pool"
  type: "Pooling"
  bottom: "inception_4d/output"
  top: "inception_4e/pool"
  pooling_param {
    pool: MAX
    kernel_size: 3
    stride: 1
    pad: 1
  }
}
layer {
  name: "inception_4e/pool_proj"
  type: "Convolution"
  bottom: "inception_4e/pool"
  top: "inception_4e/pool_proj"
  param {
    lr_mult: 1
    decay_mult: 1
  }
  param {
    lr_mult: 2
    decay_mult: 0
  }
  convolution_param {
    num_output: 128
    kernel_size: 1
    weight_filler {
      type: "xavier"
      std: 0.1
    }
    bias_filler {
      type: "constant"
      value: 0.2
    }
  }
}
layer {
  name: "inception_4e/relu_pool_proj"
  type: "ReLU"
  bottom: "inception_4e/pool_proj"
  top: "inception_4e/pool_proj"
}
layer {
  name: "inception_4e/output"
  type: "Concat"
  bottom: "inception_4e/1x1"
  bottom: "inception_4e/3x3"
  bottom: "inception_4e/5x5"
  bottom: "inception_4e/pool_proj"
  top: "inception_4e/output"
}
layer {
  name: "pool4/3x3_s2"
  type: "Pooling"
  bottom: "inception_4e/output"
  top: "pool4/3x3_s2"
  pooling_param {
    pool: MAX
    kernel_size: 3
    stride: 2
  }
}
layer {
  name: "inception_5a/1x1"
  type: "Convolution"
  bottom: "pool4/3x3_s2"
  top: "inception_5a/1x1"
  param {
    lr_mult: 1
    decay_mult: 1
  }
  param {
    lr_mult: 2
    decay_mult: 0
  }
  convolution_param {
    num_output: 256
    kernel_size: 1
    weight_filler {
      type: "xavier"
      std: 0.03
    }
    bias_filler {
      type: "constant"
      value: 0.2
    }
  }
}
layer {
  name: "inception_5a/relu_1x1"
  type: "ReLU"
  bottom: "inception_5a/1x1"
  top: "inception_5a/1x1"
}
layer {
  name: "inception_5a/3x3_reduce"
  type: "Convolution"
  bottom: "pool4/3x3_s2"
  top: "inception_5a/3x3_reduce"
  param {
    lr_mult: 1
    decay_mult: 1
  }
  param {
    lr_mult: 2
    decay_mult: 0
  }
  convolution_param {
    num_output: 160
    kernel_size: 1
    weight_filler {
      type: "xavier"
      std: 0.09
    }
    bias_filler {
      type: "constant"
      value: 0.2
    }
  }
}
layer {
  name: "inception_5a/relu_3x3_reduce"
  type: "ReLU"
  bottom: "inception_5a/3x3_reduce"
  top: "inception_5a/3x3_reduce"
}
layer {
  name: "inception_5a/3x3"
  type: "Convolution"
  bottom: "inception_5a/3x3_reduce"
  top: "inception_5a/3x3"
  param {
    lr_mult: 1
    decay_mult: 1
  }
  param {
    lr_mult: 2
    decay_mult: 0
  }
  convolution_param {
    num_output: 320
    pad: 1
    kernel_size: 3
    weight_filler {
      type: "xavier"
      std: 0.03
    }
    bias_filler {
      type: "constant"
      value: 0.2
    }
  }
}
layer {
  name: "inception_5a/relu_3x3"
  type: "ReLU"
  bottom: "inception_5a/3x3"
  top: "inception_5a/3x3"
}
layer {
  name: "inception_5a/5x5_reduce"
  type: "Convolution"
  bottom: "pool4/3x3_s2"
  top: "inception_5a/5x5_reduce"
  param {
    lr_mult: 1
    decay_mult: 1
  }
  param {
    lr_mult: 2
    decay_mult: 0
  }
  convolution_param {
    num_output: 32
    kernel_size: 1
    weight_filler {
      type: "xavier"
      std: 0.2
    }
    bias_filler {
      type: "constant"
      value: 0.2
    }
I0714 20:43:37.707495  5410 layer_factory.hpp:77] Creating layer data
I0714 20:43:37.707537  5410 net.cpp:91] Creating Layer data
I0714 20:43:37.707552  5410 net.cpp:399] data -> data
I0714 20:43:37.719185  5406 net.cpp:49] Initializing net from parameters: 
name: "GoogleNet"
state {
  phase: TEST
}
layer {
  name: "data"
  type: "Input"
  top: "data"
  input_param {
    shape {
      dim: 10
      dim: 3
      dim: 224
      dim: 224
    }
  }
}
layer {
  name: "conv1/7x7_s2"
  type: "Convolution"
  bottom: "data"
  top: "conv1/7x7_s2"
  param {
    lr_mult: 1
    decay_mult: 1
  }
  param {
    lr_mult: 2
    decay_mult: 0
  }
  convolution_param {
    num_output: 64
    pad: 3
    kernel_size: 7
    stride: 2
    weight_filler {
      type: "xavier"
      std: 0.1
    }
    bias_filler {
      type: "constant"
      value: 0.2
    }
  }
}
layer {
  name: "conv1/relu_7x7"
  type: "ReLU"
  bottom: "conv1/7x7_s2"
  top: "conv1/7x7_s2"
}
layer {
  name: "pool1/3x3_s2"
  type: "Pooling"
  bottom: "conv1/7x7_s2"
  top: "pool1/3x3_s2"
  pooling_param {
    pool: MAX
    kernel_size: 3
    stride: 2
  }
}
layer {
  name: "pool1/norm1"
  type: "LRN"
  bottom: "pool1/3x3_s2"
  top: "pool1/norm1"
  lrn_param {
    local_size: 5
    alpha: 0.0001
    beta: 0.75
  }
}
layer {
  name: "conv2/3x3_reduce"
  type: "Convolution"
  bottom: "pool1/norm1"
  top: "conv2/3x3_reduce"
  param {
    lr_mult: 1
    decay_mult: 1
  }
  param {
    lr_mult: 2
    decay_mult: 0
  }
  convolution_param {
    num_output: 64
    kernel_size: 1
    weight_filler {
      type: "xavier"
      std: 0.1
    }
    bias_filler {
      type: "constant"
      value: 0.2
    }
  }
}
layer {
  name: "conv2/relu_3x3_reduce"
  type: "ReLU"
  bottom: "conv2/3x3_reduce"
  top: "conv2/3x3_reduce"
}
layer {
  name: "conv2/3x3"
  type: "Convolution"
  bottom: "conv2/3x3_reduce"
  top: "conv2/3x3"
  param {
    lr_mult: 1
    decay_mult: 1
  }
  param {
    lr_mult: 2
    decay_mult: 0
  }
  convolution_param {
    num_output: 192
    pad: 1
    kernel_size: 3
    weight_filler {
      type: "xavier"
      std: 0.03
    }
    bias_filler {
      type: "constant"
      value: 0.2
    }
  }
}
layer {
  name: "conv2/relu_3x3"
  type: "ReLU"
  bottom: "conv2/3x3"
  top: "conv2/3x3"
}
layer {
  name: "conv2/norm2"
  type: "LRN"
  bottom: "conv2/3x3"
  top: "conv2/norm2"
  lrn_param {
    local_size: 5
    alpha: 0.0001
    beta: 0.75
  }
}
layer {
  name: "pool2/3x3_s2"
  type: "Pooling"
  bottom: "conv2/norm2"
  top: "pool2/3x3_s2"
  pooling_param {
    pool: MAX
    kernel_size: 3
    stride: 2
  }
}
layer {
  name: "inception_3a/1x1"
  type: "Convolution"
  bottom: "pool2/3x3_s2"
  top: "inception_3a/1x1"
  param {
    lr_mult: 1
    decay_mult: 1
  }
  param {
    lr_mult: 2
    decay_mult: 0
  }
  convolution_param {
    num_output: 64
    kernel_size: 1
    weight_filler {
      type: "xavier"
      std: 0.03
    }
    bias_filler {
      type: "constant"
      value: 0.2
    }
  }
}
layer {
  name: "inception_3a/relu_1x1"
  type: "ReLU"
  bottom: "inception_3a/1x1"
  top: "inception_3a/1x1"
}
layer {
  name: "inception_3a/3x3_reduce"
  type: "Convolution"
  bottom: "pool2/3x3_s2"
  top: "inception_3a/3x3_reduce"
  param {
    lr_mult: 1
    decay_mult: 1
  }
  param {
    lr_mult: 2
    decay_mult: 0
  }
  convolution_param {
    num_output: 96
    kernel_size: 1
    weight_filler {
      type: "xavier"
      std: 0.09
    }
    bias_filler {
      type: "constant"
      value: 0.2
    }
  }
}
layer {
  name: "inception_3a/relu_3x3_reduce"
  type: "ReLU"
  bottom: "inception_3a/3x3_reduce"
  top: "inception_3a/3x3_reduce"
}
layer {
  name: "inception_3a/3x3"
  type: "Convolution"
  bottom: "inception_3a/3x3_reduce"
  top: "inception_3a/3x3"
  param {
    lr_mult: 1
    decay_mult: 1
  }
  param {
    lr_mult: 2
    decay_mult: 0
  }
  convolution_param {
    num_output: 128
    pad: 1
    kernel_size: 3
    weight_filler {
      type: "xavier"
      std: 0.03
    }
    bias_filler {
      type: "constant"
      value: 0.2
    }
  }
}
layer {
  name: "inception_3a/relu_3x3"
  type: "ReLU"
  bottom: "inception_3a/3x3"
  top: "inception_3a/3x3"
}
layer {
  name: "inception_3a/5x5_reduce"
  type: "Convolution"
  bottom: "pool2/3x3_s2"
  top: "inception_3a/5x5_reduce"
  param {
    lr_mult: 1
    decay_mult: 1
  }
  param {
    lr_mult: 2
    decay_mult: 0
  }
  convolution_param {
    num_output: 16
    kernel_size: 1
    weight_filler {
      type: "xavier"
      std: 0.2
    }
    bias_filler {
      type: "constant"
      value: 0.2
    }
  }
}
layer {
  name: "inception_3a/relu_5x5_reduce"
  type: "ReLU"
  bottom: "inception_3a/5x5_reduce"
  top: "inception_3a/5x5_reduce"
}
layer {
  name: "inception_3a/5x5"
  type: "Convolution"
  bottom: "inception_3a/5x5_reduce"
  top: "inception_3a/5x5"
  param {
    lr_mult: 1
    decay_mult: 1
  }
  param {
    lr_mult: 2
    decay_mult: 0
  }
  convolution_param {
    num_output: 32
    pad: 2
    kernel_size: 5
    weight_filler {
      type: "xavier"
      std: 0.03
    }
    bias_filler {
      type: "constant"
      value: 0.2
    }
  }
}
layer {
  name: "inception_3a/relu_5x5"
  type: "ReLU"
  bottom: "inception_3a/5x5"
  top: "inception_3a/5x5"
}
layer {
  name: "inception_3a/pool"
  type: "Pooling"
  bottom: "pool2/3x3_s2"
  top: "inception_3a/pool"
  pooling_param {
    pool: MAX
    kernel_size: 3
    stride: 1
    pad: 1
  }
}
layer {
  name: "inception_3a/pool_proj"
  type: "Convolution"
  bottom: "inception_3a/pool"
  top: "inception_3a/pool_proj"
  param {
    lr_mult: 1
    decay_mult: 1
  }
  param {
    lr_mult: 2
    decay_mult: 0
  }
  convolution_param {
    num_output: 32
    kernel_size: 1
    weight_filler {
      type: "xavier"
      std: 0.1
    }
    bias_filler {
      type: "constant"
      value: 0.2
    }
  }
}
layer {
  name: "inception_3a/relu_pool_proj"
  type: "ReLU"
  bottom: "inception_3a/pool_proj"
  top: "inception_3a/pool_proj"
}
layer {
  name: "inception_3a/output"
  type: "Concat"
  bottom: "inception_3a/1x1"
  bottom: "inception_3a/3x3"
  bottom: "inception_3a/5x5"
  bottom: "inception_3a/pool_proj"
  top: "inception_3a/output"
}
layer {
  name: "inception_3b/1x1"
  type: "Convolution"
  bottom: "inception_3a/output"
  top: "inception_3b/1x1"
  param {
    lr_mult: 1
    decay_mult: 1
  }
  param {
    lr_mult: 2
    decay_mult: 0
  }
  convolution_param {
    num_output: 128
    kernel_size: 1
    weight_filler {
      type: "xavier"
      std: 0.03
    }
    bias_filler {
      type: "constant"
      value: 0.2
    }
  }
}
layer {
  name: "inception_3b/relu_1x1"
  type: "ReLU"
  bottom: "inception_3b/1x1"
  top: "inception_3b/1x1"
}
layer {
  name: "inception_3b/3x3_reduce"
  type: "Convolution"
  bottom: "inception_3a/output"
  top: "inception_3b/3x3_reduce"
  param {
    lr_mult: 1
    decay_mult: 1
  }
  param {
    lr_mult: 2
    decay_mult: 0
  }
  convolution_param {
    num_output: 128
    kernel_size: 1
    weight_filler {
      type: "xavier"
      std: 0.09
    }
    bias_filler {
      type: "constant"
      value: 0.2
    }
  }
}
layer {
  name: "inception_3b/relu_3x3_reduce"
  type: "ReLU"
  bottom: "inception_3b/3x3_reduce"
  top: "inception_3b/3x3_reduce"
}
layer {
  name: "inception_3b/3x3"
  type: "Convolution"
  bottom: "inception_3b/3x3_reduce"
  top: "inception_3b/3x3"
  param {
    lr_mult: 1
    decay_mult: 1
  }
  param {
    lr_mult: 2
    decay_mult: 0
  }
  convolution_param {
    num_output: 192
    pad: 1
    kernel_size: 3
    weight_filler {
      type: "xavier"
      std: 0.03
    }
    bias_filler {
      type: "constant"
      value: 0.2
    }
  }
}
layer {
  name: "inception_3b/relu_3x3"
  type: "ReLU"
  bottom: "inception_3b/3x3"
  top: "inception_3b/3x3"
}
layer {
  name: "inception_3b/5x5_reduce"
  type: "Convolution"
  bottom: "inception_3a/output"
  top: "inception_3b/5x5_reduce"
  param {
    lr_mult: 1
    decay_mult: 1
  }
  param {
    lr_mult: 2
    decay_mult: 0
  }
  convolution_param {
    num_output: 32
    kernel_size: 1
    weight_filler {
      type: "xavier"
      std: 0.2
    }
    bias_filler {
      type: "constant"
      value: 0.2
    }
  }
}
layer {
  name: "inception_3b/relu_5x5_reduce"
  type: "ReLU"
  bottom: "inception_3b/5x5_reduce"
  top: "inception_3b/5x5_reduce"
}
layer {
  name: "inception_3b/5x5"
  type: "Convolution"
  bottom: "inception_3b/5x5_reduce"
  top: "inception_3b/5x5"
  param {
    lr_mult: 1
    decay_mult: 1
  }
  param {
    lr_mult: 2
    decay_mult: 0
  }
  convolution_param {
    num_output: 96
    pad: 2
    kernel_size: 5
    weight_filler {
      type: "xavier"
      std: 0.03
    }
    bias_filler {
      type: "constant"
      value: 0.2
    }
  }
}
layer {
  name: "inception_3b/relu_5x5"
  type: "ReLU"
  bottom: "inception_3b/5x5"
  top: "inception_3b/5x5"
}
layer {
  name: "inception_3b/pool"
  type: "Pooling"
  bottom: "inception_3a/output"
  top: "inception_3b/pool"
  pooling_param {
    pool: MAX
    kernel_size: 3
    stride: 1
    pad: 1
  }
}
layer {
  name: "inception_3b/pool_proj"
  type: "Convolution"
  bottom: "inception_3b/pool"
  top: "inception_3b/pool_proj"
  param {
    lr_mult: 1
    decay_mult: 1
  }
  param {
    lr_mult: 2
    decay_mult: 0
  }
  convolution_param {
    num_output: 64
    kernel_size: 1
    weight_filler {
      type: "xavier"
      std: 0.1
    }
    bias_filler {
      type: "constant"
      value: 0.2
    }
  }
}
layer {
  name: "inception_3b/relu_pool_proj"
  type: "ReLU"
  bottom: "inception_3b/pool_proj"
  top: "inception_3b/pool_proj"
}
layer {
  name: "inception_3b/output"
  type: "Concat"
  bottom: "inception_3b/1x1"
  bottom: "inception_3b/3x3"
  bottom: "inception_3b/5x5"
  bottom: "inception_3b/pool_proj"
  top: "inception_3b/output"
}
layer {
  name: "pool3/3x3_s2"
  type: "Pooling"
  bottom: "inception_3b/output"
  top: "pool3/3x3_s2"
  pooling_param {
    pool: MAX
    kernel_size: 3
    stride: 2
  }
}
layer {
  name: "inception_4a/1x1"
  type: "Convolution"
  bottom: "pool3/3x3_s2"
  top: "inception_4a/1x1"
  param {
    lr_mult: 1
    decay_mult: 1
  }
  param {
    lr_mult: 2
    decay_mult: 0
  }
  convolution_param {
    num_output: 192
    kernel_size: 1
    weight_filler {
      type: "xavier"
      std: 0.03
    }
    bias_filler {
      type: "constant"
      value: 0.2
    }
  }
}
layer {
  name: "inception_4a/relu_1x1"
  type: "ReLU"
  bottom: "inception_4a/1x1"
  top: "inception_4a/1x1"
}
layer {
  name: "inception_4a/3x3_reduce"
  type: "Convolution"
  bottom: "pool3/3x3_s2"
  top: "inception_4a/3x3_reduce"
  param {
    lr_mult: 1
    decay_mult: 1
  }
  param {
    lr_mult: 2
    decay_mult: 0
  }
  convolution_param {
    num_output: 96
    kernel_size: 1
    weight_filler {
      type: "xavier"
      std: 0.09
    }
    bias_filler {
      type: "constant"
      value: 0.2
    }
  }
}
layer {
  name: "inception_4a/relu_3x3_reduce"
  type: "ReLU"
  bottom: "inception_4a/3x3_reduce"
  top: "inception_4a/3x3_reduce"
}
layer {
  name: "inception_4a/3x3"
  type: "Convolution"
  bottom: "inception_4a/3x3_reduce"
  top: "inception_4a/3x3"
  param {
    lr_mult: 1
    decay_mult: 1
  }
  param {
    lr_mult: 2
    decay_mult: 0
  }
  convolution_param {
    num_output: 208
    pad: 1
    kernel_size: 3
    weight_filler {
      type: "xavier"
      std: 0.03
    }
    bias_filler {
      type: "constant"
      value: 0.2
    }
  }
}
layer {
  name: "inception_4a/relu_3x3"
  type: "ReLU"
  bottom: "inception_4a/3x3"
  top: "inception_4a/3x3"
}
layer {
  name: "inception_4a/5x5_reduce"
  type: "Convolution"
  bottom: "pool3/3x3_s2"
  top: "inception_4a/5x5_reduce"
  param {
    lr_mult: 1
    decay_mult: 1
  }
  param {
    lr_mult: 2
    decay_mult: 0
  }
  convolution_param {
    num_output: 16
    kernel_size: 1
    weight_filler {
      type: "xavier"
      std: 0.2
    }
    bias_filler {
      type: "constant"
      value: 0.2
    }
  }
}
layer {
  name: "inception_4a/relu_5x5_reduce"
  type: "ReLU"
  bottom: "inception_4a/5x5_reduce"
  top: "inception_4a/5x5_reduce"
}
layer {
  name: "inception_4a/5x5"
  type: "Convolution"
  bottom: "inception_4a/5x5_reduce"
  top: "inception_4a/5x5"
  param {
    lr_mult: 1
    decay_mult: 1
  }
  param {
    lr_mult: 2
    decay_mult: 0
  }
  convolution_param {
    num_output: 48
    pad: 2
    kernel_size: 5
    weight_filler {
      type: "xavier"
      std: 0.03
    }
    bias_filler {
      type: "constant"
      value: 0.2
    }
  }
}
layer {
  name: "inception_4a/relu_5x5"
  type: "ReLU"
  bottom: "inception_4a/5x5"
  top: "inception_4a/5x5"
}
layer {
  name: "inception_4a/pool"
  type: "Pooling"
  bottom: "pool3/3x3_s2"
  top: "inception_4a/pool"
  pooling_param {
    pool: MAX
    kernel_size: 3
    stride: 1
    pad: 1
  }
}
layer {
  name: "inception_4a/pool_proj"
  type: "Convolution"
  bottom: "inception_4a/pool"
  top: "inception_4a/pool_proj"
  param {
    lr_mult: 1
    decay_mult: 1
  }
  param {
    lr_mult: 2
    decay_mult: 0
  }
  convolution_param {
    num_output: 64
    kernel_size: 1
    weight_filler {
      type: "xavier"
      std: 0.1
    }
    bias_filler {
      type: "constant"
      value: 0.2
    }
  }
}
layer {
  name: "inception_4a/relu_pool_proj"
  type: "ReLU"
  bottom: "inception_4a/pool_proj"
  top: "inception_4a/pool_proj"
}
layer {
  name: "inception_4a/output"
  type: "Concat"
  bottom: "inception_4a/1x1"
  bottom: "inception_4a/3x3"
  bottom: "inception_4a/5x5"
  bottom: "inception_4a/pool_proj"
  top: "inception_4a/output"
}
layer {
  name: "inception_4b/1x1"
  type: "Convolution"
  bottom: "inception_4a/output"
  top: "inception_4b/1x1"
  param {
    lr_mult: 1
    decay_mult: 1
  }
  param {
    lr_mult: 2
    decay_mult: 0
  }
  convolution_param {
    num_output: 160
    kernel_size: 1
    weight_filler {
      type: "xavier"
      std: 0.03
    }
    bias_filler {
      type: "constant"
      value: 0.2
    }
  }
}
layer {
  name: "inception_4b/relu_1x1"
  type: "ReLU"
  bottom: "inception_4b/1x1"
  top: "inception_4b/1x1"
}
layer {
  name: "inception_4b/3x3_reduce"
  type: "Convolution"
  bottom: "inception_4a/output"
  top: "inception_4b/3x3_reduce"
  param {
    lr_mult: 1
    decay_mult: 1
  }
  param {
    lr_mult: 2
    decay_mult: 0
  }
  convolution_param {
    num_output: 112
    kernel_size: 1
    weight_filler {
      type: "xavier"
      std: 0.09
    }
    bias_filler {
      type: "constant"
      value: 0.2
    }
  }
}
layer {
  name: "inception_4b/relu_3x3_reduce"
  type: "ReLU"
  bottom: "inception_4b/3x3_reduce"
  top: "inception_4b/3x3_reduce"
}
layer {
  name: "inception_4b/3x3"
  type: "Convolution"
  bottom: "inception_4b/3x3_reduce"
  top: "inception_4b/3x3"
  param {
    lr_mult: 1
    decay_mult: 1
  }
  param {
    lr_mult: 2
    decay_mult: 0
  }
  convolution_param {
    num_output: 224
    pad: 1
    kernel_size: 3
    weight_filler {
      type: "xavier"
      std: 0.03
    }
    bias_filler {
      type: "constant"
      value: 0.2
    }
  }
}
layer {
  name: "inception_4b/relu_3x3"
  type: "ReLU"
  bottom: "inception_4b/3x3"
  top: "inception_4b/3x3"
}
layer {
  name: "inception_4b/5x5_reduce"
  type: "Convolution"
  bottom: "inception_4a/output"
  top: "inception_4b/5x5_reduce"
  param {
    lr_mult: 1
    decay_mult: 1
  }
  param {
    lr_mult: 2
    decay_mult: 0
  }
  convolution_param {
    num_output: 24
    kernel_size: 1
    weight_filler {
      type: "xavier"
      std: 0.2
    }
    bias_filler {
      type: "constant"
      value: 0.2
    }
  }
}
layer {
  name: "inception_4b/relu_5x5_reduce"
  type: "ReLU"
  bottom: "inception_4b/5x5_reduce"
  top: "inception_4b/5x5_reduce"
}
layer {
  name: "inception_4b/5x5"
  type: "Convolution"
  bottom: "inception_4b/5x5_reduce"
  top: "inception_4b/5x5"
  param {
    lr_mult: 1
    decay_mult: 1
  }
  param {
    lr_mult: 2
    decay_mult: 0
  }
  convolution_param {
    num_output: 64
    pad: 2
    kernel_size: 5
    weight_filler {
      type: "xavier"
      std: 0.03
    }
    bias_filler {
      type: "constant"
      value: 0.2
    }
  }
}
layer {
  name: "inception_4b/relu_5x5"
  type: "ReLU"
  bottom: "inception_4b/5x5"
  top: "inception_4b/5x5"
}
layer {
  name: "inception_4b/pool"
  type: "Pooling"
  bottom: "inception_4a/output"
  top: "inception_4b/pool"
  pooling_param {
    pool: MAX
    kernel_size: 3
    stride: 1
    pad: 1
  }
}
layer {
  name: "inception_4b/pool_proj"
  type: "Convolution"
  bottom: "inception_4b/pool"
  top: "inception_4b/pool_proj"
  param {
    lr_mult: 1
    decay_mult: 1
  }
  param {
    lr_mult: 2
    decay_mult: 0
  }
  convolution_param {
    num_output: 64
    kernel_size: 1
    weight_filler {
      type: "xavier"
      std: 0.1
    }
    bias_filler {
      type: "constant"
      value: 0.2
    }
  }
}
layer {
  name: "inception_4b/relu_pool_proj"
  type: "ReLU"
  bottom: "inception_4b/pool_proj"
  top: "inception_4b/pool_proj"
}
layer {
  name: "inception_4b/output"
  type: "Concat"
  bottom: "inception_4b/1x1"
  bottom: "inception_4b/3x3"
  bottom: "inception_4b/5x5"
  bottom: "inception_4b/pool_proj"
  top: "inception_4b/output"
}
layer {
  name: "inception_4c/1x1"
  type: "Convolution"
  bottom: "inception_4b/output"
  top: "inception_4c/1x1"
  param {
    lr_mult: 1
    decay_mult: 1
  }
  param {
    lr_mult: 2
    decay_mult: 0
  }
  convolution_param {
    num_output: 128
    kernel_size: 1
    weight_filler {
      type: "xavier"
      std: 0.03
    }
    bias_filler {
      type: "constant"
      value: 0.2
    }
  }
}
layer {
  name: "inception_4c/relu_1x1"
  type: "ReLU"
  bottom: "inception_4c/1x1"
  top: "inception_4c/1x1"
}
layer {
  name: "inception_4c/3x3_reduce"
  type: "Convolution"
  bottom: "inception_4b/output"
  top: "inception_4c/3x3_reduce"
  param {
    lr_mult: 1
    decay_mult: 1
  }
  param {
    lr_mult: 2
    decay_mult: 0
  }
  convolution_param {
    num_output: 128
    kernel_size: 1
    weight_filler {
      type: "xavier"
      std: 0.09
    }
    bias_filler {
      type: "constant"
      value: 0.2
    }
  }
}
layer {
  name: "inception_4c/relu_3x3_reduce"
  type: "ReLU"
  bottom: "inception_4c/3x3_reduce"
  top: "inception_4c/3x3_reduce"
}
layer {
  name: "inception_4c/3x3"
  type: "Convolution"
  bottom: "inception_4c/3x3_reduce"
  top: "inception_4c/3x3"
  param {
    lr_mult: 1
    decay_mult: 1
  }
  param {
    lr_mult: 2
    decay_mult: 0
  }
  convolution_param {
    num_output: 256
    pad: 1
    kernel_size: 3
    weight_filler {
      type: "xavier"
      std: 0.03
    }
    bias_filler {
      type: "constant"
      value: 0.2
    }
  }
}
layer {
  name: "inception_4c/relu_3x3"
  type: "ReLU"
  bottom: "inception_4c/3x3"
  top: "inception_4c/3x3"
}
layer {
  name: "inception_4c/5x5_reduce"
  type: "Convolution"
  bottom: "inception_4b/output"
  top: "inception_4c/5x5_reduce"
  param {
    lr_mult: 1
    decay_mult: 1
  }
  param {
    lr_mult: 2
    decay_mult: 0
  }
  convolution_param {
    num_output: 24
    kernel_size: 1
    weight_filler {
      type: "xavier"
      std: 0.2
    }
    bias_filler {
      type: "constant"
      value: 0.2
    }
  }
}
layer {
  name: "inception_4c/relu_5x5_reduce"
  type: "ReLU"
  bottom: "inception_4c/5x5_reduce"
  top: "inception_4c/5x5_reduce"
}
layer {
  name: "inception_4c/5x5"
  type: "Convolution"
  bottom: "inception_4c/5x5_reduce"
  top: "inception_4c/5x5"
  param {
    lr_mult: 1
    decay_mult: 1
  }
  param {
    lr_mult: 2
    decay_mult: 0
  }
  convolution_param {
    num_output: 64
    pad: 2
    kernel_size: 5
    weight_filler {
      type: "xavier"
      std: 0.03
    }
    bias_filler {
      type: "constant"
      value: 0.2
    }
  }
}
layer {
  name: "inception_4c/relu_5x5"
  type: "ReLU"
  bottom: "inception_4c/5x5"
  top: "inception_4c/5x5"
}
layer {
  name: "inception_4c/pool"
  type: "Pooling"
  bottom: "inception_4b/output"
  top: "inception_4c/pool"
  pooling_param {
    pool: MAX
    kernel_size: 3
    stride: 1
    pad: 1
  }
}
layer {
  name: "inception_4c/pool_proj"
  type: "Convolution"
  bottom: "inception_4c/pool"
  top: "inception_4c/pool_proj"
  param {
    lr_mult: 1
    decay_mult: 1
  }
  param {
    lr_mult: 2
    decay_mult: 0
  }
  convolution_param {
    num_output: 64
    kernel_size: 1
    weight_filler {
      type: "xavier"
      std: 0.1
    }
    bias_filler {
      type: "constant"
      value: 0.2
    }
  }
}
layer {
  name: "inception_4c/relu_pool_proj"
  type: "ReLU"
  bottom: "inception_4c/pool_proj"
  top: "inception_4c/pool_proj"
}
layer {
  name: "inception_4c/output"
  type: "Concat"
  bottom: "inception_4c/1x1"
  bottom: "inception_4c/3x3"
  bottom: "inception_4c/5x5"
  bottom: "inception_4c/pool_proj"
  top: "inception_4c/output"
}
layer {
  name: "inception_4d/1x1"
  type: "Convolution"
  bottom: "inception_4c/output"
  top: "inception_4d/1x1"
  param {
    lr_mult: 1
    decay_mult: 1
  }
  param {
    lr_mult: 2
    decay_mult: 0
  }
  convolution_param {
    num_output: 112
    kernel_size: 1
    weight_filler {
      type: "xavier"
      std: 0.03
    }
    bias_filler {
      type: "constant"
      value: 0.2
    }
  }
}
layer {
  name: "inception_4d/relu_1x1"
  type: "ReLU"
  bottom: "inception_4d/1x1"
  top: "inception_4d/1x1"
}
layer {
  name: "inception_4d/3x3_reduce"
  type: "Convolution"
  bottom: "inception_4c/output"
  top: "inception_4d/3x3_reduce"
  param {
    lr_mult: 1
    decay_mult: 1
  }
  param {
    lr_mult: 2
    decay_mult: 0
  }
  convolution_param {
    num_output: 144
    kernel_size: 1
    weight_filler {
      type: "xavier"
      std: 0.09
    }
    bias_filler {
      type: "constant"
      value: 0.2
    }
  }
}
layer {
  name: "inception_4d/relu_3x3_reduce"
  type: "ReLU"
  bottom: "inception_4d/3x3_reduce"
  top: "inception_4d/3x3_reduce"
}
layer {
  name: "inception_4d/3x3"
  type: "Convolution"
  bottom: "inception_4d/3x3_reduce"
  top: "inception_4d/3x3"
  param {
    lr_mult: 1
    decay_mult: 1
  }
  param {
    lr_mult: 2
    decay_mult: 0
  }
  convolution_param {
    num_output: 288
    pad: 1
    kernel_size: 3
    weight_filler {
      type: "xavier"
      std: 0.03
    }
    bias_filler {
      type: "constant"
      value: 0.2
    }
  }
}
layer {
  name: "inception_4d/relu_3x3"
  type: "ReLU"
  bottom: "inception_4d/3x3"
  top: "inception_4d/3x3"
}
layer {
  name: "inception_4d/5x5_reduce"
  type: "Convolution"
  bottom: "inception_4c/output"
  top: "inception_4d/5x5_reduce"
  param {
    lr_mult: 1
    decay_mult: 1
  }
  param {
    lr_mult: 2
    decay_mult: 0
  }
  convolution_param {
    num_output: 32
    kernel_size: 1
    weight_filler {
      type: "xavier"
      std: 0.2
    }
    bias_filler {
      type: "constant"
      value: 0.2
    }
  }
}
layer {
  name: "inception_4d/relu_5x5_reduce"
  type: "ReLU"
  bottom: "inception_4d/5x5_reduce"
  top: "inception_4d/5x5_reduce"
}
layer {
  name: "inception_4d/5x5"
  type: "Convolution"
  bottom: "inception_4d/5x5_reduce"
  top: "inception_4d/5x5"
  param {
    lr_mult: 1
    decay_mult: 1
  }
  param {
    lr_mult: 2
    decay_mult: 0
  }
  convolution_param {
    num_output: 64
    pad: 2
    kernel_size: 5
    weight_filler {
      type: "xavier"
      std: 0.03
    }
    bias_filler {
      type: "constant"
      value: 0.2
    }
  }
}
layer {
  name: "inception_4d/relu_5x5"
  type: "ReLU"
  bottom: "inception_4d/5x5"
  top: "inception_4d/5x5"
}
layer {
  name: "inception_4d/pool"
  type: "Pooling"
  bottom: "inception_4c/output"
  top: "inception_4d/pool"
  pooling_param {
    pool: MAX
    kernel_size: 3
    stride: 1
    pad: 1
  }
}
layer {
  name: "inception_4d/pool_proj"
  type: "Convolution"
  bottom: "inception_4d/pool"
  top: "inception_4d/pool_proj"
  param {
    lr_mult: 1
    decay_mult: 1
  }
  param {
    lr_mult: 2
    decay_mult: 0
  }
  convolution_param {
    num_output: 64
    kernel_size: 1
    weight_filler {
      type: "xavier"
      std: 0.1
    }
    bias_filler {
      type: "constant"
      value: 0.2
    }
  }
}
layer {
  name: "inception_4d/relu_pool_proj"
  type: "ReLU"
  bottom: "inception_4d/pool_proj"
  top: "inception_4d/pool_proj"
}
layer {
  name: "inception_4d/output"
  type: "Concat"
  bottom: "inception_4d/1x1"
  bottom: "inception_4d/3x3"
  bottom: "inception_4d/5x5"
  bottom: "inception_4d/pool_proj"
  top: "inception_4d/output"
}
layer {
  name: "inception_4e/1x1"
  type: "Convolution"
  bottom: "inception_4d/output"
  top: "inception_4e/1x1"
  param {
    lr_mult: 1
    decay_mult: 1
  }
  param {
    lr_mult: 2
    decay_mult: 0
  }
  convolution_param {
    num_output: 256
    kernel_size: 1
    weight_filler {
      type: "xavier"
      std: 0.03
    }
    bias_filler {
      type: "constant"
      value: 0.2
    }
  }
}
layer {
  name: "inception_4e/relu_1x1"
  type: "ReLU"
  bottom: "inception_4e/1x1"
  top: "inception_4e/1x1"
}
layer {
  name: "inception_4e/3x3_reduce"
  type: "Convolution"
  bottom: "inception_4d/output"
  top: "inception_4e/3x3_reduce"
  param {
    lr_mult: 1
    decay_mult: 1
  }
  param {
    lr_mult: 2
    decay_mult: 0
  }
  convolution_param {
    num_output: 160
    kernel_size: 1
    weight_filler {
      type: "xavier"
      std: 0.09
    }
    bias_filler {
      type: "constant"
      value: 0.2
    }
  }
}
layer {
  name: "inception_4e/relu_3x3_reduce"
  type: "ReLU"
  bottom: "inception_4e/3x3_reduce"
  top: "inception_4e/3x3_reduce"
}
layer {
  name: "inception_4e/3x3"
  type: "Convolution"
  bottom: "inception_4e/3x3_reduce"
  top: "inception_4e/3x3"
  param {
    lr_mult: 1
    decay_mult: 1
  }
  param {
    lr_mult: 2
    decay_mult: 0
  }
  convolution_param {
    num_output: 320
    pad: 1
    kernel_size: 3
    weight_filler {
      type: "xavier"
      std: 0.03
    }
    bias_filler {
      type: "constant"
      value: 0.2
    }
  }
}
layer {
  name: "inception_4e/relu_3x3"
  type: "ReLU"
  bottom: "inception_4e/3x3"
  top: "inception_4e/3x3"
}
layer {
  name: "inception_4e/5x5_reduce"
  type: "Convolution"
  bottom: "inception_4d/output"
  top: "inception_4e/5x5_reduce"
  param {
    lr_mult: 1
    decay_mult: 1
  }
  param {
    lr_mult: 2
    decay_mult: 0
  }
  convolution_param {
    num_output: 32
    kernel_size: 1
    weight_filler {
      type: "xavier"
      std: 0.2
    }
    bias_filler {
      type: "constant"
      value: 0.2
    }
  }
}
layer {
  name: "inception_4e/relu_5x5_reduce"
  type: "ReLU"
  bottom: "inception_4e/5x5_reduce"
  top: "inception_4e/5x5_reduce"
}
layer {
  name: "inception_4e/5x5"
  type: "Convolution"
  bottom: "inception_4e/5x5_reduce"
  top: "inception_4e/5x5"
  param {
    lr_mult: 1
    decay_mult: 1
  }
  param {
    lr_mult: 2
    decay_mult: 0
  }
  convolution_param {
    num_output: 128
    pad: 2
    kernel_size: 5
    weight_filler {
      type: "xavier"
      std: 0.03
    }
    bias_filler {
      type: "constant"
      value: 0.2
    }
  }
}
layer {
  name: "inception_4e/relu_5x5"
  type: "ReLU"
  bottom: "inception_4e/5x5"
  top: "inception_4e/5x5"
}
layer {
  name: "inception_4e/pool"
  type: "Pooling"
  bottom: "inception_4d/output"
  top: "inception_4e/pool"
  pooling_param {
    pool: MAX
    kernel_size: 3
    stride: 1
    pad: 1
  }
}
layer {
  name: "inception_4e/pool_proj"
  type: "Convolution"
  bottom: "inception_4e/pool"
  top: "inception_4e/pool_proj"
  param {
    lr_mult: 1
    decay_mult: 1
  }
  param {
    lr_mult: 2
    decay_mult: 0
  }
  convolution_param {
    num_output: 128
    kernel_size: 1
    weight_filler {
      type: "xavier"
      std: 0.1
    }
    bias_filler {
      type: "constant"
      value: 0.2
    }
  }
}
layer {
  name: "inception_4e/relu_pool_proj"
  type: "ReLU"
  bottom: "inception_4e/pool_proj"
  top: "inception_4e/pool_proj"
}
layer {
  name: "inception_4e/output"
  type: "Concat"
  bottom: "inception_4e/1x1"
  bottom: "inception_4e/3x3"
  bottom: "inception_4e/5x5"
  bottom: "inception_4e/pool_proj"
  top: "inception_4e/output"
}
layer {
  name: "pool4/3x3_s2"
  type: "Pooling"
  bottom: "inception_4e/output"
  top: "pool4/3x3_s2"
  pooling_param {
    pool: MAX
    kernel_size: 3
    stride: 2
  }
}
layer {
  name: "inception_5a/1x1"
  type: "Convolution"
  bottom: "pool4/3x3_s2"
  top: "inception_5a/1x1"
  param {
    lr_mult: 1
    decay_mult: 1
  }
  param {
    lr_mult: 2
    decay_mult: 0
  }
  convolution_param {
    num_output: 256
    kernel_size: 1
    weight_filler {
      type: "xavier"
      std: 0.03
    }
    bias_filler {
      type: "constant"
      value: 0.2
    }
  }
}
layer {
  name: "inception_5a/relu_1x1"
  type: "ReLU"
  bottom: "inception_5a/1x1"
  top: "inception_5a/1x1"
}
layer {
  name: "inception_5a/3x3_reduce"
  type: "Convolution"
  bottom: "pool4/3x3_s2"
  top: "inception_5a/3x3_reduce"
  param {
    lr_mult: 1
    decay_mult: 1
  }
  param {
    lr_mult: 2
    decay_mult: 0
  }
  convolution_param {
    num_output: 160
    kernel_size: 1
    weight_filler {
      type: "xavier"
      std: 0.09
    }
    bias_filler {
      type: "constant"
      value: 0.2
    }
  }
}
layer {
  name: "inception_5a/relu_3x3_reduce"
  type: "ReLU"
  bottom: "inception_5a/3x3_reduce"
  top: "inception_5a/3x3_reduce"
}
layer {
  name: "inception_5a/3x3"
  type: "Convolution"
  bottom: "inception_5a/3x3_reduce"
  top: "inception_5a/3x3"
  param {
    lr_mult: 1
    decay_mult: 1
  }
  param {
    lr_mult: 2
    decay_mult: 0
  }
  convolution_param {
    num_output: 320
    pad: 1
    kernel_size: 3
    weight_filler {
      type: "xavier"
      std: 0.03
    }
    bias_filler {
      type: "constant"
      value: 0.2
    }
  }
}
layer {
  name: "inception_5a/relu_3x3"
  type: "ReLU"
  bottom: "inception_5a/3x3"
  top: "inception_5a/3x3"
}
layer {
  name: "inception_5a/5x5_reduce"
  type: "Convolution"
  bottom: "pool4/3x3_s2"
  top: "inception_5a/5x5_reduce"
  param {
    lr_mult: 1
    decay_mult: 1
  }
  param {
    lr_mult: 2
    decay_mult: 0
  }
  convolution_param {
    num_output: 32
    kernel_size: 1
    weight_filler {
      type: "xavier"
      std: 0.2
    }
    bias_filler {
      type: "constant"
      value: 0.2
    }
I0714 20:43:37.720031  5406 layer_factory.hpp:77] Creating layer data
I0714 20:43:37.720052  5406 net.cpp:91] Creating Layer data
I0714 20:43:37.720060  5406 net.cpp:399] data -> data
I0714 20:43:38.835947  5410 net.cpp:141] Setting up data
I0714 20:43:38.836040  5410 net.cpp:148] Top shape: 10 3 224 224 (1505280)
I0714 20:43:38.836047  5410 net.cpp:156] Memory required for data: 6021120
I0714 20:43:38.836071  5410 layer_factory.hpp:77] Creating layer conv1/7x7_s2
I0714 20:43:38.836110  5410 net.cpp:91] Creating Layer conv1/7x7_s2
I0714 20:43:38.836120  5410 net.cpp:425] conv1/7x7_s2 <- data
I0714 20:43:38.836136  5410 net.cpp:399] conv1/7x7_s2 -> conv1/7x7_s2
I0714 20:43:38.839682  5406 net.cpp:141] Setting up data
I0714 20:43:38.839707  5406 net.cpp:148] Top shape: 10 3 224 224 (1505280)
I0714 20:43:38.839715  5406 net.cpp:156] Memory required for data: 6021120
I0714 20:43:38.839722  5406 layer_factory.hpp:77] Creating layer conv1/7x7_s2
I0714 20:43:38.839743  5406 net.cpp:91] Creating Layer conv1/7x7_s2
I0714 20:43:38.839751  5406 net.cpp:425] conv1/7x7_s2 <- data
I0714 20:43:38.839761  5406 net.cpp:399] conv1/7x7_s2 -> conv1/7x7_s2
I0714 20:43:39.284760  5410 net.cpp:141] Setting up conv1/7x7_s2
I0714 20:43:39.284813  5410 net.cpp:148] Top shape: 10 64 112 112 (8028160)
I0714 20:43:39.284821  5410 net.cpp:156] Memory required for data: 38133760
I0714 20:43:39.284849  5410 layer_factory.hpp:77] Creating layer conv1/relu_7x7
I0714 20:43:39.284868  5410 net.cpp:91] Creating Layer conv1/relu_7x7
I0714 20:43:39.284876  5410 net.cpp:425] conv1/relu_7x7 <- conv1/7x7_s2
I0714 20:43:39.284884  5410 net.cpp:386] conv1/relu_7x7 -> conv1/7x7_s2 (in-place)
I0714 20:43:39.286324  5410 net.cpp:141] Setting up conv1/relu_7x7
I0714 20:43:39.286344  5410 net.cpp:148] Top shape: 10 64 112 112 (8028160)
I0714 20:43:39.286350  5410 net.cpp:156] Memory required for data: 70246400
I0714 20:43:39.286350  5406 net.cpp:141] Setting up conv1/7x7_s2
I0714 20:43:39.286355  5410 layer_factory.hpp:77] Creating layer pool1/3x3_s2
I0714 20:43:39.286375  5406 net.cpp:148] Top shape: 10 64 112 112 (8028160)
I0714 20:43:39.286382  5406 net.cpp:156] Memory required for data: 38133760
I0714 20:43:39.286384  5410 net.cpp:91] Creating Layer pool1/3x3_s2
I0714 20:43:39.286391  5410 net.cpp:425] pool1/3x3_s2 <- conv1/7x7_s2
I0714 20:43:39.286401  5410 net.cpp:399] pool1/3x3_s2 -> pool1/3x3_s2
I0714 20:43:39.286401  5406 layer_factory.hpp:77] Creating layer conv1/relu_7x7
I0714 20:43:39.286420  5406 net.cpp:91] Creating Layer conv1/relu_7x7
I0714 20:43:39.286427  5406 net.cpp:425] conv1/relu_7x7 <- conv1/7x7_s2
I0714 20:43:39.286435  5406 net.cpp:386] conv1/relu_7x7 -> conv1/7x7_s2 (in-place)
I0714 20:43:39.287235  5410 net.cpp:141] Setting up pool1/3x3_s2
I0714 20:43:39.287251  5410 net.cpp:148] Top shape: 10 64 56 56 (2007040)
I0714 20:43:39.287257  5410 net.cpp:156] Memory required for data: 78274560
I0714 20:43:39.287263  5410 layer_factory.hpp:77] Creating layer pool1/norm1
I0714 20:43:39.287281  5410 net.cpp:91] Creating Layer pool1/norm1
I0714 20:43:39.287287  5410 net.cpp:425] pool1/norm1 <- pool1/3x3_s2
I0714 20:43:39.287295  5410 net.cpp:399] pool1/norm1 -> pool1/norm1
I0714 20:43:39.287299  5406 net.cpp:141] Setting up conv1/relu_7x7
I0714 20:43:39.287315  5406 net.cpp:148] Top shape: 10 64 112 112 (8028160)
I0714 20:43:39.287320  5406 net.cpp:156] Memory required for data: 70246400
I0714 20:43:39.287327  5406 layer_factory.hpp:77] Creating layer pool1/3x3_s2
I0714 20:43:39.287338  5406 net.cpp:91] Creating Layer pool1/3x3_s2
I0714 20:43:39.287343  5406 net.cpp:425] pool1/3x3_s2 <- conv1/7x7_s2
I0714 20:43:39.287350  5406 net.cpp:399] pool1/3x3_s2 -> pool1/3x3_s2
I0714 20:43:39.288105  5406 net.cpp:141] Setting up pool1/3x3_s2
I0714 20:43:39.288120  5406 net.cpp:148] Top shape: 10 64 56 56 (2007040)
I0714 20:43:39.288125  5406 net.cpp:156] Memory required for data: 78274560
I0714 20:43:39.288131  5406 layer_factory.hpp:77] Creating layer pool1/norm1
I0714 20:43:39.288143  5406 net.cpp:91] Creating Layer pool1/norm1
I0714 20:43:39.288149  5406 net.cpp:425] pool1/norm1 <- pool1/3x3_s2
I0714 20:43:39.288156  5406 net.cpp:399] pool1/norm1 -> pool1/norm1
I0714 20:43:39.288978  5410 net.cpp:141] Setting up pool1/norm1
I0714 20:43:39.288996  5410 net.cpp:148] Top shape: 10 64 56 56 (2007040)
I0714 20:43:39.289001  5410 net.cpp:156] Memory required for data: 86302720
I0714 20:43:39.289007  5410 layer_factory.hpp:77] Creating layer conv2/3x3_reduce
I0714 20:43:39.289031  5410 net.cpp:91] Creating Layer conv2/3x3_reduce
I0714 20:43:39.289036  5410 net.cpp:425] conv2/3x3_reduce <- pool1/norm1
I0714 20:43:39.289047  5410 net.cpp:399] conv2/3x3_reduce -> conv2/3x3_reduce
I0714 20:43:39.289136  5406 net.cpp:141] Setting up pool1/norm1
I0714 20:43:39.289151  5406 net.cpp:148] Top shape: 10 64 56 56 (2007040)
I0714 20:43:39.289157  5406 net.cpp:156] Memory required for data: 86302720
I0714 20:43:39.289163  5406 layer_factory.hpp:77] Creating layer conv2/3x3_reduce
I0714 20:43:39.289180  5406 net.cpp:91] Creating Layer conv2/3x3_reduce
I0714 20:43:39.289186  5406 net.cpp:425] conv2/3x3_reduce <- pool1/norm1
I0714 20:43:39.289194  5406 net.cpp:399] conv2/3x3_reduce -> conv2/3x3_reduce
I0714 20:43:39.295500  5410 net.cpp:141] Setting up conv2/3x3_reduce
I0714 20:43:39.295533  5410 net.cpp:148] Top shape: 10 64 56 56 (2007040)
I0714 20:43:39.295541  5410 net.cpp:156] Memory required for data: 94330880
I0714 20:43:39.295555  5410 layer_factory.hpp:77] Creating layer conv2/relu_3x3_reduce
I0714 20:43:39.295567  5410 net.cpp:91] Creating Layer conv2/relu_3x3_reduce
I0714 20:43:39.295572  5410 net.cpp:425] conv2/relu_3x3_reduce <- conv2/3x3_reduce
I0714 20:43:39.295580  5410 net.cpp:386] conv2/relu_3x3_reduce -> conv2/3x3_reduce (in-place)
I0714 20:43:39.296541  5406 net.cpp:141] Setting up conv2/3x3_reduce
I0714 20:43:39.296560  5410 net.cpp:141] Setting up conv2/relu_3x3_reduce
I0714 20:43:39.296564  5406 net.cpp:148] Top shape: 10 64 56 56 (2007040)
I0714 20:43:39.296578  5410 net.cpp:148] Top shape: 10 64 56 56 (2007040)
I0714 20:43:39.296578  5406 net.cpp:156] Memory required for data: 94330880
I0714 20:43:39.296584  5410 net.cpp:156] Memory required for data: 102359040
I0714 20:43:39.296591  5410 layer_factory.hpp:77] Creating layer conv2/3x3
I0714 20:43:39.296594  5406 layer_factory.hpp:77] Creating layer conv2/relu_3x3_reduce
I0714 20:43:39.296604  5406 net.cpp:91] Creating Layer conv2/relu_3x3_reduce
I0714 20:43:39.296610  5410 net.cpp:91] Creating Layer conv2/3x3
I0714 20:43:39.296610  5406 net.cpp:425] conv2/relu_3x3_reduce <- conv2/3x3_reduce
I0714 20:43:39.296619  5410 net.cpp:425] conv2/3x3 <- conv2/3x3_reduce
I0714 20:43:39.296627  5406 net.cpp:386] conv2/relu_3x3_reduce -> conv2/3x3_reduce (in-place)
I0714 20:43:39.296633  5410 net.cpp:399] conv2/3x3 -> conv2/3x3
I0714 20:43:39.297617  5406 net.cpp:141] Setting up conv2/relu_3x3_reduce
I0714 20:43:39.297636  5406 net.cpp:148] Top shape: 10 64 56 56 (2007040)
I0714 20:43:39.297641  5406 net.cpp:156] Memory required for data: 102359040
I0714 20:43:39.297646  5406 layer_factory.hpp:77] Creating layer conv2/3x3
I0714 20:43:39.297665  5406 net.cpp:91] Creating Layer conv2/3x3
I0714 20:43:39.297672  5406 net.cpp:425] conv2/3x3 <- conv2/3x3_reduce
I0714 20:43:39.297682  5406 net.cpp:399] conv2/3x3 -> conv2/3x3
I0714 20:43:39.305284  5410 net.cpp:141] Setting up conv2/3x3
I0714 20:43:39.305308  5410 net.cpp:148] Top shape: 10 192 56 56 (6021120)
I0714 20:43:39.305315  5410 net.cpp:156] Memory required for data: 126443520
I0714 20:43:39.305330  5410 layer_factory.hpp:77] Creating layer conv2/relu_3x3
I0714 20:43:39.305349  5410 net.cpp:91] Creating Layer conv2/relu_3x3
I0714 20:43:39.305356  5410 net.cpp:425] conv2/relu_3x3 <- conv2/3x3
I0714 20:43:39.305364  5410 net.cpp:386] conv2/relu_3x3 -> conv2/3x3 (in-place)
I0714 20:43:39.305655  5410 net.cpp:141] Setting up conv2/relu_3x3
I0714 20:43:39.305668  5410 net.cpp:148] Top shape: 10 192 56 56 (6021120)
I0714 20:43:39.305673  5410 net.cpp:156] Memory required for data: 150528000
I0714 20:43:39.305680  5410 layer_factory.hpp:77] Creating layer conv2/norm2
I0714 20:43:39.305694  5410 net.cpp:91] Creating Layer conv2/norm2
I0714 20:43:39.305701  5410 net.cpp:425] conv2/norm2 <- conv2/3x3
I0714 20:43:39.305708  5410 net.cpp:399] conv2/norm2 -> conv2/norm2
I0714 20:43:39.307546  5410 net.cpp:141] Setting up conv2/norm2
I0714 20:43:39.307548  5406 net.cpp:141] Setting up conv2/3x3
I0714 20:43:39.307565  5410 net.cpp:148] Top shape: 10 192 56 56 (6021120)
I0714 20:43:39.307572  5410 net.cpp:156] Memory required for data: 174612480
I0714 20:43:39.307572  5406 net.cpp:148] Top shape: 10 192 56 56 (6021120)
I0714 20:43:39.307579  5410 layer_factory.hpp:77] Creating layer pool2/3x3_s2
I0714 20:43:39.307579  5406 net.cpp:156] Memory required for data: 126443520
I0714 20:43:39.307590  5410 net.cpp:91] Creating Layer pool2/3x3_s2
I0714 20:43:39.307595  5410 net.cpp:425] pool2/3x3_s2 <- conv2/norm2
I0714 20:43:39.307595  5406 layer_factory.hpp:77] Creating layer conv2/relu_3x3
I0714 20:43:39.307611  5410 net.cpp:399] pool2/3x3_s2 -> pool2/3x3_s2
I0714 20:43:39.307618  5406 net.cpp:91] Creating Layer conv2/relu_3x3
I0714 20:43:39.307624  5406 net.cpp:425] conv2/relu_3x3 <- conv2/3x3
I0714 20:43:39.307633  5406 net.cpp:386] conv2/relu_3x3 -> conv2/3x3 (in-place)
I0714 20:43:39.307932  5410 net.cpp:141] Setting up pool2/3x3_s2
I0714 20:43:39.307945  5410 net.cpp:148] Top shape: 10 192 28 28 (1505280)
I0714 20:43:39.307950  5410 net.cpp:156] Memory required for data: 180633600
I0714 20:43:39.307955  5410 layer_factory.hpp:77] Creating layer pool2/3x3_s2_pool2/3x3_s2_0_split
I0714 20:43:39.307965  5410 net.cpp:91] Creating Layer pool2/3x3_s2_pool2/3x3_s2_0_split
I0714 20:43:39.307971  5410 net.cpp:425] pool2/3x3_s2_pool2/3x3_s2_0_split <- pool2/3x3_s2
I0714 20:43:39.307977  5410 net.cpp:399] pool2/3x3_s2_pool2/3x3_s2_0_split -> pool2/3x3_s2_pool2/3x3_s2_0_split_0
I0714 20:43:39.307998  5410 net.cpp:399] pool2/3x3_s2_pool2/3x3_s2_0_split -> pool2/3x3_s2_pool2/3x3_s2_0_split_1
I0714 20:43:39.308003  5406 net.cpp:141] Setting up conv2/relu_3x3
I0714 20:43:39.308010  5410 net.cpp:399] pool2/3x3_s2_pool2/3x3_s2_0_split -> pool2/3x3_s2_pool2/3x3_s2_0_split_2
I0714 20:43:39.308017  5406 net.cpp:148] Top shape: 10 192 56 56 (6021120)
I0714 20:43:39.308018  5410 net.cpp:399] pool2/3x3_s2_pool2/3x3_s2_0_split -> pool2/3x3_s2_pool2/3x3_s2_0_split_3
I0714 20:43:39.308022  5406 net.cpp:156] Memory required for data: 150528000
I0714 20:43:39.308029  5406 layer_factory.hpp:77] Creating layer conv2/norm2
I0714 20:43:39.308043  5406 net.cpp:91] Creating Layer conv2/norm2
I0714 20:43:39.308049  5406 net.cpp:425] conv2/norm2 <- conv2/3x3
I0714 20:43:39.308056  5406 net.cpp:399] conv2/norm2 -> conv2/norm2
I0714 20:43:39.308920  5410 net.cpp:141] Setting up pool2/3x3_s2_pool2/3x3_s2_0_split
I0714 20:43:39.308933  5410 net.cpp:148] Top shape: 10 192 28 28 (1505280)
I0714 20:43:39.308940  5410 net.cpp:148] Top shape: 10 192 28 28 (1505280)
I0714 20:43:39.308946  5410 net.cpp:148] Top shape: 10 192 28 28 (1505280)
I0714 20:43:39.308953  5410 net.cpp:148] Top shape: 10 192 28 28 (1505280)
I0714 20:43:39.308956  5410 net.cpp:156] Memory required for data: 204718080
I0714 20:43:39.308961  5410 layer_factory.hpp:77] Creating layer inception_3a/1x1
I0714 20:43:39.308982  5410 net.cpp:91] Creating Layer inception_3a/1x1
I0714 20:43:39.308990  5410 net.cpp:425] inception_3a/1x1 <- pool2/3x3_s2_pool2/3x3_s2_0_split_0
I0714 20:43:39.309026  5410 net.cpp:399] inception_3a/1x1 -> inception_3a/1x1
I0714 20:43:39.309108  5406 net.cpp:141] Setting up conv2/norm2
I0714 20:43:39.309123  5406 net.cpp:148] Top shape: 10 192 56 56 (6021120)
I0714 20:43:39.309128  5406 net.cpp:156] Memory required for data: 174612480
I0714 20:43:39.309134  5406 layer_factory.hpp:77] Creating layer pool2/3x3_s2
I0714 20:43:39.309144  5406 net.cpp:91] Creating Layer pool2/3x3_s2
I0714 20:43:39.309149  5406 net.cpp:425] pool2/3x3_s2 <- conv2/norm2
I0714 20:43:39.309157  5406 net.cpp:399] pool2/3x3_s2 -> pool2/3x3_s2
I0714 20:43:39.309391  5406 net.cpp:141] Setting up pool2/3x3_s2
I0714 20:43:39.309406  5406 net.cpp:148] Top shape: 10 192 28 28 (1505280)
I0714 20:43:39.309412  5406 net.cpp:156] Memory required for data: 180633600
I0714 20:43:39.309417  5406 layer_factory.hpp:77] Creating layer pool2/3x3_s2_pool2/3x3_s2_0_split
I0714 20:43:39.309427  5406 net.cpp:91] Creating Layer pool2/3x3_s2_pool2/3x3_s2_0_split
I0714 20:43:39.309432  5406 net.cpp:425] pool2/3x3_s2_pool2/3x3_s2_0_split <- pool2/3x3_s2
I0714 20:43:39.309439  5406 net.cpp:399] pool2/3x3_s2_pool2/3x3_s2_0_split -> pool2/3x3_s2_pool2/3x3_s2_0_split_0
I0714 20:43:39.309454  5406 net.cpp:399] pool2/3x3_s2_pool2/3x3_s2_0_split -> pool2/3x3_s2_pool2/3x3_s2_0_split_1
I0714 20:43:39.309463  5406 net.cpp:399] pool2/3x3_s2_pool2/3x3_s2_0_split -> pool2/3x3_s2_pool2/3x3_s2_0_split_2
I0714 20:43:39.309473  5406 net.cpp:399] pool2/3x3_s2_pool2/3x3_s2_0_split -> pool2/3x3_s2_pool2/3x3_s2_0_split_3
I0714 20:43:39.309669  5406 net.cpp:141] Setting up pool2/3x3_s2_pool2/3x3_s2_0_split
I0714 20:43:39.309681  5406 net.cpp:148] Top shape: 10 192 28 28 (1505280)
I0714 20:43:39.309687  5406 net.cpp:148] Top shape: 10 192 28 28 (1505280)
I0714 20:43:39.309694  5406 net.cpp:148] Top shape: 10 192 28 28 (1505280)
I0714 20:43:39.309700  5406 net.cpp:148] Top shape: 10 192 28 28 (1505280)
I0714 20:43:39.309703  5406 net.cpp:156] Memory required for data: 204718080
I0714 20:43:39.309708  5406 layer_factory.hpp:77] Creating layer inception_3a/1x1
I0714 20:43:39.309726  5406 net.cpp:91] Creating Layer inception_3a/1x1
I0714 20:43:39.309732  5406 net.cpp:425] inception_3a/1x1 <- pool2/3x3_s2_pool2/3x3_s2_0_split_0
I0714 20:43:39.309749  5406 net.cpp:399] inception_3a/1x1 -> inception_3a/1x1
I0714 20:43:39.318552  5410 net.cpp:141] Setting up inception_3a/1x1
I0714 20:43:39.318593  5410 net.cpp:148] Top shape: 10 64 28 28 (501760)
I0714 20:43:39.318599  5410 net.cpp:156] Memory required for data: 206725120
I0714 20:43:39.318614  5410 layer_factory.hpp:77] Creating layer inception_3a/relu_1x1
I0714 20:43:39.318637  5410 net.cpp:91] Creating Layer inception_3a/relu_1x1
I0714 20:43:39.318646  5410 net.cpp:425] inception_3a/relu_1x1 <- inception_3a/1x1
I0714 20:43:39.318656  5410 net.cpp:386] inception_3a/relu_1x1 -> inception_3a/1x1 (in-place)
I0714 20:43:39.319278  5410 net.cpp:141] Setting up inception_3a/relu_1x1
I0714 20:43:39.319293  5410 net.cpp:148] Top shape: 10 64 28 28 (501760)
I0714 20:43:39.319298  5410 net.cpp:156] Memory required for data: 208732160
I0714 20:43:39.319303  5410 layer_factory.hpp:77] Creating layer inception_3a/3x3_reduce
I0714 20:43:39.319327  5410 net.cpp:91] Creating Layer inception_3a/3x3_reduce
I0714 20:43:39.319334  5410 net.cpp:425] inception_3a/3x3_reduce <- pool2/3x3_s2_pool2/3x3_s2_0_split_1
I0714 20:43:39.319347  5410 net.cpp:399] inception_3a/3x3_reduce -> inception_3a/3x3_reduce
I0714 20:43:39.321347  5406 net.cpp:141] Setting up inception_3a/1x1
I0714 20:43:39.321372  5406 net.cpp:148] Top shape: 10 64 28 28 (501760)
I0714 20:43:39.321377  5406 net.cpp:156] Memory required for data: 206725120
I0714 20:43:39.321393  5406 layer_factory.hpp:77] Creating layer inception_3a/relu_1x1
I0714 20:43:39.321408  5406 net.cpp:91] Creating Layer inception_3a/relu_1x1
I0714 20:43:39.321415  5406 net.cpp:425] inception_3a/relu_1x1 <- inception_3a/1x1
I0714 20:43:39.321424  5406 net.cpp:386] inception_3a/relu_1x1 -> inception_3a/1x1 (in-place)
I0714 20:43:39.321897  5406 net.cpp:141] Setting up inception_3a/relu_1x1
I0714 20:43:39.321912  5406 net.cpp:148] Top shape: 10 64 28 28 (501760)
I0714 20:43:39.321916  5406 net.cpp:156] Memory required for data: 208732160
I0714 20:43:39.321921  5406 layer_factory.hpp:77] Creating layer inception_3a/3x3_reduce
I0714 20:43:39.322422  5406 net.cpp:91] Creating Layer inception_3a/3x3_reduce
I0714 20:43:39.322432  5406 net.cpp:425] inception_3a/3x3_reduce <- pool2/3x3_s2_pool2/3x3_s2_0_split_1
I0714 20:43:39.322445  5406 net.cpp:399] inception_3a/3x3_reduce -> inception_3a/3x3_reduce
I0714 20:43:39.328984  5410 net.cpp:141] Setting up inception_3a/3x3_reduce
I0714 20:43:39.329010  5410 net.cpp:148] Top shape: 10 96 28 28 (752640)
I0714 20:43:39.329015  5410 net.cpp:156] Memory required for data: 211742720
I0714 20:43:39.329035  5410 layer_factory.hpp:77] Creating layer inception_3a/relu_3x3_reduce
I0714 20:43:39.329047  5410 net.cpp:91] Creating Layer inception_3a/relu_3x3_reduce
I0714 20:43:39.329053  5410 net.cpp:425] inception_3a/relu_3x3_reduce <- inception_3a/3x3_reduce
I0714 20:43:39.329071  5410 net.cpp:386] inception_3a/relu_3x3_reduce -> inception_3a/3x3_reduce (in-place)
I0714 20:43:39.329366  5410 net.cpp:141] Setting up inception_3a/relu_3x3_reduce
I0714 20:43:39.329382  5410 net.cpp:148] Top shape: 10 96 28 28 (752640)
I0714 20:43:39.329387  5410 net.cpp:156] Memory required for data: 214753280
I0714 20:43:39.329393  5410 layer_factory.hpp:77] Creating layer inception_3a/3x3
I0714 20:43:39.329417  5410 net.cpp:91] Creating Layer inception_3a/3x3
I0714 20:43:39.329423  5410 net.cpp:425] inception_3a/3x3 <- inception_3a/3x3_reduce
I0714 20:43:39.329437  5410 net.cpp:399] inception_3a/3x3 -> inception_3a/3x3
I0714 20:43:39.330529  5406 net.cpp:141] Setting up inception_3a/3x3_reduce
I0714 20:43:39.330554  5406 net.cpp:148] Top shape: 10 96 28 28 (752640)
I0714 20:43:39.330559  5406 net.cpp:156] Memory required for data: 211742720
I0714 20:43:39.330577  5406 layer_factory.hpp:77] Creating layer inception_3a/relu_3x3_reduce
I0714 20:43:39.330588  5406 net.cpp:91] Creating Layer inception_3a/relu_3x3_reduce
I0714 20:43:39.330595  5406 net.cpp:425] inception_3a/relu_3x3_reduce <- inception_3a/3x3_reduce
I0714 20:43:39.330607  5406 net.cpp:386] inception_3a/relu_3x3_reduce -> inception_3a/3x3_reduce (in-place)
I0714 20:43:39.330899  5406 net.cpp:141] Setting up inception_3a/relu_3x3_reduce
I0714 20:43:39.330915  5406 net.cpp:148] Top shape: 10 96 28 28 (752640)
I0714 20:43:39.330920  5406 net.cpp:156] Memory required for data: 214753280
I0714 20:43:39.330926  5406 layer_factory.hpp:77] Creating layer inception_3a/3x3
I0714 20:43:39.330955  5406 net.cpp:91] Creating Layer inception_3a/3x3
I0714 20:43:39.330960  5406 net.cpp:425] inception_3a/3x3 <- inception_3a/3x3_reduce
I0714 20:43:39.330972  5406 net.cpp:399] inception_3a/3x3 -> inception_3a/3x3
I0714 20:43:39.334872  5410 net.cpp:141] Setting up inception_3a/3x3
I0714 20:43:39.334900  5410 net.cpp:148] Top shape: 10 128 28 28 (1003520)
I0714 20:43:39.334908  5410 net.cpp:156] Memory required for data: 218767360
I0714 20:43:39.334920  5410 layer_factory.hpp:77] Creating layer inception_3a/relu_3x3
I0714 20:43:39.334933  5410 net.cpp:91] Creating Layer inception_3a/relu_3x3
I0714 20:43:39.334939  5410 net.cpp:425] inception_3a/relu_3x3 <- inception_3a/3x3
I0714 20:43:39.334947  5410 net.cpp:386] inception_3a/relu_3x3 -> inception_3a/3x3 (in-place)
I0714 20:43:39.335975  5410 net.cpp:141] Setting up inception_3a/relu_3x3
I0714 20:43:39.335996  5410 net.cpp:148] Top shape: 10 128 28 28 (1003520)
I0714 20:43:39.336002  5410 net.cpp:156] Memory required for data: 222781440
I0714 20:43:39.336009  5410 layer_factory.hpp:77] Creating layer inception_3a/5x5_reduce
I0714 20:43:39.336030  5410 net.cpp:91] Creating Layer inception_3a/5x5_reduce
I0714 20:43:39.336037  5410 net.cpp:425] inception_3a/5x5_reduce <- pool2/3x3_s2_pool2/3x3_s2_0_split_2
I0714 20:43:39.336037  5406 net.cpp:141] Setting up inception_3a/3x3
I0714 20:43:39.336050  5410 net.cpp:399] inception_3a/5x5_reduce -> inception_3a/5x5_reduce
I0714 20:43:39.336055  5406 net.cpp:148] Top shape: 10 128 28 28 (1003520)
I0714 20:43:39.336061  5406 net.cpp:156] Memory required for data: 218767360
I0714 20:43:39.336072  5406 layer_factory.hpp:77] Creating layer inception_3a/relu_3x3
I0714 20:43:39.336086  5406 net.cpp:91] Creating Layer inception_3a/relu_3x3
I0714 20:43:39.336092  5406 net.cpp:425] inception_3a/relu_3x3 <- inception_3a/3x3
I0714 20:43:39.336100  5406 net.cpp:386] inception_3a/relu_3x3 -> inception_3a/3x3 (in-place)
I0714 20:43:39.337121  5406 net.cpp:141] Setting up inception_3a/relu_3x3
I0714 20:43:39.337141  5406 net.cpp:148] Top shape: 10 128 28 28 (1003520)
I0714 20:43:39.337146  5406 net.cpp:156] Memory required for data: 222781440
I0714 20:43:39.337152  5406 layer_factory.hpp:77] Creating layer inception_3a/5x5_reduce
I0714 20:43:39.337172  5406 net.cpp:91] Creating Layer inception_3a/5x5_reduce
I0714 20:43:39.337179  5406 net.cpp:425] inception_3a/5x5_reduce <- pool2/3x3_s2_pool2/3x3_s2_0_split_2
I0714 20:43:39.337190  5406 net.cpp:399] inception_3a/5x5_reduce -> inception_3a/5x5_reduce
I0714 20:43:39.341509  5410 net.cpp:141] Setting up inception_3a/5x5_reduce
I0714 20:43:39.341531  5410 net.cpp:148] Top shape: 10 16 28 28 (125440)
I0714 20:43:39.341537  5410 net.cpp:156] Memory required for data: 223283200
I0714 20:43:39.341548  5410 layer_factory.hpp:77] Creating layer inception_3a/relu_5x5_reduce
I0714 20:43:39.341559  5410 net.cpp:91] Creating Layer inception_3a/relu_5x5_reduce
I0714 20:43:39.341567  5410 net.cpp:425] inception_3a/relu_5x5_reduce <- inception_3a/5x5_reduce
I0714 20:43:39.341575  5410 net.cpp:386] inception_3a/relu_5x5_reduce -> inception_3a/5x5_reduce (in-place)
I0714 20:43:39.342005  5410 net.cpp:141] Setting up inception_3a/relu_5x5_reduce
I0714 20:43:39.342020  5410 net.cpp:148] Top shape: 10 16 28 28 (125440)
I0714 20:43:39.342025  5410 net.cpp:156] Memory required for data: 223784960
I0714 20:43:39.342031  5410 layer_factory.hpp:77] Creating layer inception_3a/5x5
I0714 20:43:39.342049  5410 net.cpp:91] Creating Layer inception_3a/5x5
I0714 20:43:39.342056  5410 net.cpp:425] inception_3a/5x5 <- inception_3a/5x5_reduce
I0714 20:43:39.342069  5410 net.cpp:399] inception_3a/5x5 -> inception_3a/5x5
I0714 20:43:39.342098  5406 net.cpp:141] Setting up inception_3a/5x5_reduce
I0714 20:43:39.342115  5406 net.cpp:148] Top shape: 10 16 28 28 (125440)
I0714 20:43:39.342120  5406 net.cpp:156] Memory required for data: 223283200
I0714 20:43:39.342131  5406 layer_factory.hpp:77] Creating layer inception_3a/relu_5x5_reduce
I0714 20:43:39.342141  5406 net.cpp:91] Creating Layer inception_3a/relu_5x5_reduce
I0714 20:43:39.342149  5406 net.cpp:425] inception_3a/relu_5x5_reduce <- inception_3a/5x5_reduce
I0714 20:43:39.342156  5406 net.cpp:386] inception_3a/relu_5x5_reduce -> inception_3a/5x5_reduce (in-place)
I0714 20:43:39.342676  5406 net.cpp:141] Setting up inception_3a/relu_5x5_reduce
I0714 20:43:39.342711  5406 net.cpp:148] Top shape: 10 16 28 28 (125440)
I0714 20:43:39.342721  5406 net.cpp:156] Memory required for data: 223784960
I0714 20:43:39.342731  5406 layer_factory.hpp:77] Creating layer inception_3a/5x5
I0714 20:43:39.342761  5406 net.cpp:91] Creating Layer inception_3a/5x5
I0714 20:43:39.342773  5406 net.cpp:425] inception_3a/5x5 <- inception_3a/5x5_reduce
I0714 20:43:39.342797  5406 net.cpp:399] inception_3a/5x5 -> inception_3a/5x5
I0714 20:43:39.349449  5410 net.cpp:141] Setting up inception_3a/5x5
I0714 20:43:39.349495  5410 net.cpp:148] Top shape: 10 32 28 28 (250880)
I0714 20:43:39.349503  5410 net.cpp:156] Memory required for data: 224788480
I0714 20:43:39.349524  5410 layer_factory.hpp:77] Creating layer inception_3a/relu_5x5
I0714 20:43:39.349539  5410 net.cpp:91] Creating Layer inception_3a/relu_5x5
I0714 20:43:39.349548  5410 net.cpp:425] inception_3a/relu_5x5 <- inception_3a/5x5
I0714 20:43:39.349561  5410 net.cpp:386] inception_3a/relu_5x5 -> inception_3a/5x5 (in-place)
I0714 20:43:39.349903  5410 net.cpp:141] Setting up inception_3a/relu_5x5
I0714 20:43:39.349917  5410 net.cpp:148] Top shape: 10 32 28 28 (250880)
I0714 20:43:39.349922  5410 net.cpp:156] Memory required for data: 225792000
I0714 20:43:39.349927  5410 layer_factory.hpp:77] Creating layer inception_3a/pool
I0714 20:43:39.349944  5410 net.cpp:91] Creating Layer inception_3a/pool
I0714 20:43:39.349951  5410 net.cpp:425] inception_3a/pool <- pool2/3x3_s2_pool2/3x3_s2_0_split_3
I0714 20:43:39.349961  5410 net.cpp:399] inception_3a/pool -> inception_3a/pool
I0714 20:43:39.350432  5410 net.cpp:141] Setting up inception_3a/pool
I0714 20:43:39.350445  5410 net.cpp:148] Top shape: 10 192 28 28 (1505280)
I0714 20:43:39.350450  5410 net.cpp:156] Memory required for data: 231813120
I0714 20:43:39.350455  5410 layer_factory.hpp:77] Creating layer inception_3a/pool_proj
I0714 20:43:39.350481  5410 net.cpp:91] Creating Layer inception_3a/pool_proj
I0714 20:43:39.350487  5410 net.cpp:425] inception_3a/pool_proj <- inception_3a/pool
I0714 20:43:39.350499  5410 net.cpp:399] inception_3a/pool_proj -> inception_3a/pool_proj
I0714 20:43:39.352668  5406 net.cpp:141] Setting up inception_3a/5x5
I0714 20:43:39.352710  5406 net.cpp:148] Top shape: 10 32 28 28 (250880)
I0714 20:43:39.352720  5406 net.cpp:156] Memory required for data: 224788480
I0714 20:43:39.352748  5406 layer_factory.hpp:77] Creating layer inception_3a/relu_5x5
I0714 20:43:39.352766  5406 net.cpp:91] Creating Layer inception_3a/relu_5x5
I0714 20:43:39.352780  5406 net.cpp:425] inception_3a/relu_5x5 <- inception_3a/5x5
I0714 20:43:39.352799  5406 net.cpp:386] inception_3a/relu_5x5 -> inception_3a/5x5 (in-place)
I0714 20:43:39.353451  5406 net.cpp:141] Setting up inception_3a/relu_5x5
I0714 20:43:39.353474  5406 net.cpp:148] Top shape: 10 32 28 28 (250880)
I0714 20:43:39.353483  5406 net.cpp:156] Memory required for data: 225792000
I0714 20:43:39.353493  5406 layer_factory.hpp:77] Creating layer inception_3a/pool
I0714 20:43:39.353516  5406 net.cpp:91] Creating Layer inception_3a/pool
I0714 20:43:39.353528  5406 net.cpp:425] inception_3a/pool <- pool2/3x3_s2_pool2/3x3_s2_0_split_3
I0714 20:43:39.353543  5406 net.cpp:399] inception_3a/pool -> inception_3a/pool
I0714 20:43:39.354753  5406 net.cpp:141] Setting up inception_3a/pool
I0714 20:43:39.354779  5406 net.cpp:148] Top shape: 10 192 28 28 (1505280)
I0714 20:43:39.354787  5406 net.cpp:156] Memory required for data: 231813120
I0714 20:43:39.354799  5406 layer_factory.hpp:77] Creating layer inception_3a/pool_proj
I0714 20:43:39.354830  5406 net.cpp:91] Creating Layer inception_3a/pool_proj
I0714 20:43:39.354840  5406 net.cpp:425] inception_3a/pool_proj <- inception_3a/pool
I0714 20:43:39.354861  5406 net.cpp:399] inception_3a/pool_proj -> inception_3a/pool_proj
I0714 20:43:39.359311  5410 net.cpp:141] Setting up inception_3a/pool_proj
I0714 20:43:39.359346  5410 net.cpp:148] Top shape: 10 32 28 28 (250880)
I0714 20:43:39.359356  5410 net.cpp:156] Memory required for data: 232816640
I0714 20:43:39.359385  5410 layer_factory.hpp:77] Creating layer inception_3a/relu_pool_proj
I0714 20:43:39.359424  5410 net.cpp:91] Creating Layer inception_3a/relu_pool_proj
I0714 20:43:39.359437  5410 net.cpp:425] inception_3a/relu_pool_proj <- inception_3a/pool_proj
I0714 20:43:39.359452  5410 net.cpp:386] inception_3a/relu_pool_proj -> inception_3a/pool_proj (in-place)
I0714 20:43:39.361969  5410 net.cpp:141] Setting up inception_3a/relu_pool_proj
I0714 20:43:39.361999  5410 net.cpp:148] Top shape: 10 32 28 28 (250880)
I0714 20:43:39.362009  5410 net.cpp:156] Memory required for data: 233820160
I0714 20:43:39.362018  5410 layer_factory.hpp:77] Creating layer inception_3a/output
I0714 20:43:39.362058  5410 net.cpp:91] Creating Layer inception_3a/output
I0714 20:43:39.362071  5410 net.cpp:425] inception_3a/output <- inception_3a/1x1
I0714 20:43:39.362084  5410 net.cpp:425] inception_3a/output <- inception_3a/3x3
I0714 20:43:39.362094  5410 net.cpp:425] inception_3a/output <- inception_3a/5x5
I0714 20:43:39.362103  5410 net.cpp:425] inception_3a/output <- inception_3a/pool_proj
I0714 20:43:39.362117  5410 net.cpp:399] inception_3a/output -> inception_3a/output
I0714 20:43:39.362149  5406 net.cpp:141] Setting up inception_3a/pool_proj
I0714 20:43:39.362180  5406 net.cpp:148] Top shape: 10 32 28 28 (250880)
I0714 20:43:39.362190  5406 net.cpp:156] Memory required for data: 232816640
I0714 20:43:39.362216  5406 layer_factory.hpp:77] Creating layer inception_3a/relu_pool_proj
I0714 20:43:39.362239  5406 net.cpp:91] Creating Layer inception_3a/relu_pool_proj
I0714 20:43:39.362241  5410 net.cpp:141] Setting up inception_3a/output
I0714 20:43:39.362251  5406 net.cpp:425] inception_3a/relu_pool_proj <- inception_3a/pool_proj
I0714 20:43:39.362262  5410 net.cpp:148] Top shape: 10 256 28 28 (2007040)
I0714 20:43:39.362265  5406 net.cpp:386] inception_3a/relu_pool_proj -> inception_3a/pool_proj (in-place)
I0714 20:43:39.362270  5410 net.cpp:156] Memory required for data: 241848320
I0714 20:43:39.362279  5410 layer_factory.hpp:77] Creating layer inception_3a/output_inception_3a/output_0_split
I0714 20:43:39.362303  5410 net.cpp:91] Creating Layer inception_3a/output_inception_3a/output_0_split
I0714 20:43:39.362313  5410 net.cpp:425] inception_3a/output_inception_3a/output_0_split <- inception_3a/output
I0714 20:43:39.362330  5410 net.cpp:399] inception_3a/output_inception_3a/output_0_split -> inception_3a/output_inception_3a/output_0_split_0
I0714 20:43:39.362349  5410 net.cpp:399] inception_3a/output_inception_3a/output_0_split -> inception_3a/output_inception_3a/output_0_split_1
I0714 20:43:39.362365  5410 net.cpp:399] inception_3a/output_inception_3a/output_0_split -> inception_3a/output_inception_3a/output_0_split_2
I0714 20:43:39.362380  5410 net.cpp:399] inception_3a/output_inception_3a/output_0_split -> inception_3a/output_inception_3a/output_0_split_3
I0714 20:43:39.363867  5410 net.cpp:141] Setting up inception_3a/output_inception_3a/output_0_split
I0714 20:43:39.363889  5410 net.cpp:148] Top shape: 10 256 28 28 (2007040)
I0714 20:43:39.363893  5406 net.cpp:141] Setting up inception_3a/relu_pool_proj
I0714 20:43:39.363900  5410 net.cpp:148] Top shape: 10 256 28 28 (2007040)
I0714 20:43:39.363921  5406 net.cpp:148] Top shape: 10 32 28 28 (250880)
I0714 20:43:39.363922  5410 net.cpp:148] Top shape: 10 256 28 28 (2007040)
I0714 20:43:39.363934  5406 net.cpp:156] Memory required for data: 233820160
I0714 20:43:39.363943  5410 net.cpp:148] Top shape: 10 256 28 28 (2007040)
I0714 20:43:39.363945  5406 layer_factory.hpp:77] Creating layer inception_3a/output
I0714 20:43:39.363951  5410 net.cpp:156] Memory required for data: 273960960
I0714 20:43:39.363961  5410 layer_factory.hpp:77] Creating layer inception_3b/1x1
I0714 20:43:39.363967  5406 net.cpp:91] Creating Layer inception_3a/output
I0714 20:43:39.363978  5406 net.cpp:425] inception_3a/output <- inception_3a/1x1
I0714 20:43:39.363989  5410 net.cpp:91] Creating Layer inception_3b/1x1
I0714 20:43:39.363991  5406 net.cpp:425] inception_3a/output <- inception_3a/3x3
I0714 20:43:39.364006  5410 net.cpp:425] inception_3b/1x1 <- inception_3a/output_inception_3a/output_0_split_0
I0714 20:43:39.364013  5406 net.cpp:425] inception_3a/output <- inception_3a/5x5
I0714 20:43:39.364023  5406 net.cpp:425] inception_3a/output <- inception_3a/pool_proj
I0714 20:43:39.364027  5410 net.cpp:399] inception_3b/1x1 -> inception_3b/1x1
I0714 20:43:39.364034  5406 net.cpp:399] inception_3a/output -> inception_3a/output
I0714 20:43:39.364243  5406 net.cpp:141] Setting up inception_3a/output
I0714 20:43:39.364264  5406 net.cpp:148] Top shape: 10 256 28 28 (2007040)
I0714 20:43:39.364270  5406 net.cpp:156] Memory required for data: 241848320
I0714 20:43:39.364279  5406 layer_factory.hpp:77] Creating layer inception_3a/output_inception_3a/output_0_split
I0714 20:43:39.364301  5406 net.cpp:91] Creating Layer inception_3a/output_inception_3a/output_0_split
I0714 20:43:39.364311  5406 net.cpp:425] inception_3a/output_inception_3a/output_0_split <- inception_3a/output
I0714 20:43:39.364323  5406 net.cpp:399] inception_3a/output_inception_3a/output_0_split -> inception_3a/output_inception_3a/output_0_split_0
I0714 20:43:39.364343  5406 net.cpp:399] inception_3a/output_inception_3a/output_0_split -> inception_3a/output_inception_3a/output_0_split_1
I0714 20:43:39.364359  5406 net.cpp:399] inception_3a/output_inception_3a/output_0_split -> inception_3a/output_inception_3a/output_0_split_2
I0714 20:43:39.364373  5406 net.cpp:399] inception_3a/output_inception_3a/output_0_split -> inception_3a/output_inception_3a/output_0_split_3
I0714 20:43:39.365034  5406 net.cpp:141] Setting up inception_3a/output_inception_3a/output_0_split
I0714 20:43:39.365056  5406 net.cpp:148] Top shape: 10 256 28 28 (2007040)
I0714 20:43:39.365066  5406 net.cpp:148] Top shape: 10 256 28 28 (2007040)
I0714 20:43:39.365075  5406 net.cpp:148] Top shape: 10 256 28 28 (2007040)
I0714 20:43:39.365084  5406 net.cpp:148] Top shape: 10 256 28 28 (2007040)
I0714 20:43:39.365092  5406 net.cpp:156] Memory required for data: 273960960
I0714 20:43:39.365099  5406 layer_factory.hpp:77] Creating layer inception_3b/1x1
I0714 20:43:39.365128  5406 net.cpp:91] Creating Layer inception_3b/1x1
I0714 20:43:39.365139  5406 net.cpp:425] inception_3b/1x1 <- inception_3a/output_inception_3a/output_0_split_0
I0714 20:43:39.365157  5406 net.cpp:399] inception_3b/1x1 -> inception_3b/1x1
I0714 20:43:39.371747  5410 net.cpp:141] Setting up inception_3b/1x1
I0714 20:43:39.371781  5410 net.cpp:148] Top shape: 10 128 28 28 (1003520)
I0714 20:43:39.371791  5410 net.cpp:156] Memory required for data: 277975040
I0714 20:43:39.371809  5410 layer_factory.hpp:77] Creating layer inception_3b/relu_1x1
I0714 20:43:39.371825  5410 net.cpp:91] Creating Layer inception_3b/relu_1x1
I0714 20:43:39.371835  5410 net.cpp:425] inception_3b/relu_1x1 <- inception_3b/1x1
I0714 20:43:39.371850  5410 net.cpp:386] inception_3b/relu_1x1 -> inception_3b/1x1 (in-place)
I0714 20:43:39.372550  5410 net.cpp:141] Setting up inception_3b/relu_1x1
I0714 20:43:39.372570  5410 net.cpp:148] Top shape: 10 128 28 28 (1003520)
I0714 20:43:39.372578  5410 net.cpp:156] Memory required for data: 281989120
I0714 20:43:39.372587  5410 layer_factory.hpp:77] Creating layer inception_3b/3x3_reduce
I0714 20:43:39.372613  5410 net.cpp:91] Creating Layer inception_3b/3x3_reduce
I0714 20:43:39.372623  5410 net.cpp:425] inception_3b/3x3_reduce <- inception_3a/output_inception_3a/output_0_split_1
I0714 20:43:39.372645  5410 net.cpp:399] inception_3b/3x3_reduce -> inception_3b/3x3_reduce
I0714 20:43:39.372709  5406 net.cpp:141] Setting up inception_3b/1x1
I0714 20:43:39.372742  5406 net.cpp:148] Top shape: 10 128 28 28 (1003520)
I0714 20:43:39.372751  5406 net.cpp:156] Memory required for data: 277975040
I0714 20:43:39.372767  5406 layer_factory.hpp:77] Creating layer inception_3b/relu_1x1
I0714 20:43:39.372781  5406 net.cpp:91] Creating Layer inception_3b/relu_1x1
I0714 20:43:39.372792  5406 net.cpp:425] inception_3b/relu_1x1 <- inception_3b/1x1
I0714 20:43:39.372804  5406 net.cpp:386] inception_3b/relu_1x1 -> inception_3b/1x1 (in-place)
I0714 20:43:39.373492  5406 net.cpp:141] Setting up inception_3b/relu_1x1
I0714 20:43:39.373514  5406 net.cpp:148] Top shape: 10 128 28 28 (1003520)
I0714 20:43:39.373522  5406 net.cpp:156] Memory required for data: 281989120
I0714 20:43:39.373531  5406 layer_factory.hpp:77] Creating layer inception_3b/3x3_reduce
I0714 20:43:39.373556  5406 net.cpp:91] Creating Layer inception_3b/3x3_reduce
I0714 20:43:39.373566  5406 net.cpp:425] inception_3b/3x3_reduce <- inception_3a/output_inception_3a/output_0_split_1
I0714 20:43:39.373589  5406 net.cpp:399] inception_3b/3x3_reduce -> inception_3b/3x3_reduce
I0714 20:43:39.379467  5410 net.cpp:141] Setting up inception_3b/3x3_reduce
I0714 20:43:39.379497  5410 net.cpp:148] Top shape: 10 128 28 28 (1003520)
I0714 20:43:39.379505  5410 net.cpp:156] Memory required for data: 286003200
I0714 20:43:39.379519  5410 layer_factory.hpp:77] Creating layer inception_3b/relu_3x3_reduce
I0714 20:43:39.379540  5410 net.cpp:91] Creating Layer inception_3b/relu_3x3_reduce
I0714 20:43:39.379550  5410 net.cpp:425] inception_3b/relu_3x3_reduce <- inception_3b/3x3_reduce
I0714 20:43:39.379562  5410 net.cpp:386] inception_3b/relu_3x3_reduce -> inception_3b/3x3_reduce (in-place)
I0714 20:43:39.380055  5406 net.cpp:141] Setting up inception_3b/3x3_reduce
I0714 20:43:39.380081  5406 net.cpp:148] Top shape: 10 128 28 28 (1003520)
I0714 20:43:39.380089  5406 net.cpp:156] Memory required for data: 286003200
I0714 20:43:39.380105  5406 layer_factory.hpp:77] Creating layer inception_3b/relu_3x3_reduce
I0714 20:43:39.380117  5410 net.cpp:141] Setting up inception_3b/relu_3x3_reduce
I0714 20:43:39.380123  5406 net.cpp:91] Creating Layer inception_3b/relu_3x3_reduce
I0714 20:43:39.380143  5410 net.cpp:148] Top shape: 10 128 28 28 (1003520)
I0714 20:43:39.380146  5406 net.cpp:425] inception_3b/relu_3x3_reduce <- inception_3b/3x3_reduce
I0714 20:43:39.380151  5410 net.cpp:156] Memory required for data: 290017280
I0714 20:43:39.380159  5406 net.cpp:386] inception_3b/relu_3x3_reduce -> inception_3b/3x3_reduce (in-place)
I0714 20:43:39.380159  5410 layer_factory.hpp:77] Creating layer inception_3b/3x3
I0714 20:43:39.380188  5410 net.cpp:91] Creating Layer inception_3b/3x3
I0714 20:43:39.380198  5410 net.cpp:425] inception_3b/3x3 <- inception_3b/3x3_reduce
I0714 20:43:39.380218  5410 net.cpp:399] inception_3b/3x3 -> inception_3b/3x3
I0714 20:43:39.380965  5406 net.cpp:141] Setting up inception_3b/relu_3x3_reduce
I0714 20:43:39.380987  5406 net.cpp:148] Top shape: 10 128 28 28 (1003520)
I0714 20:43:39.380995  5406 net.cpp:156] Memory required for data: 290017280
I0714 20:43:39.381003  5406 layer_factory.hpp:77] Creating layer inception_3b/3x3
I0714 20:43:39.381029  5406 net.cpp:91] Creating Layer inception_3b/3x3
I0714 20:43:39.381039  5406 net.cpp:425] inception_3b/3x3 <- inception_3b/3x3_reduce
I0714 20:43:39.381058  5406 net.cpp:399] inception_3b/3x3 -> inception_3b/3x3
I0714 20:43:39.392230  5410 net.cpp:141] Setting up inception_3b/3x3
I0714 20:43:39.392263  5410 net.cpp:148] Top shape: 10 192 28 28 (1505280)
I0714 20:43:39.392271  5410 net.cpp:156] Memory required for data: 296038400
I0714 20:43:39.392287  5410 layer_factory.hpp:77] Creating layer inception_3b/relu_3x3
I0714 20:43:39.392310  5410 net.cpp:91] Creating Layer inception_3b/relu_3x3
I0714 20:43:39.392320  5410 net.cpp:425] inception_3b/relu_3x3 <- inception_3b/3x3
I0714 20:43:39.392333  5410 net.cpp:386] inception_3b/relu_3x3 -> inception_3b/3x3 (in-place)
I0714 20:43:39.393733  5410 net.cpp:141] Setting up inception_3b/relu_3x3
I0714 20:43:39.393757  5410 net.cpp:148] Top shape: 10 192 28 28 (1505280)
I0714 20:43:39.393765  5410 net.cpp:156] Memory required for data: 302059520
I0714 20:43:39.393774  5410 layer_factory.hpp:77] Creating layer inception_3b/5x5_reduce
I0714 20:43:39.393798  5410 net.cpp:91] Creating Layer inception_3b/5x5_reduce
I0714 20:43:39.393807  5410 net.cpp:425] inception_3b/5x5_reduce <- inception_3a/output_inception_3a/output_0_split_2
I0714 20:43:39.393826  5410 net.cpp:399] inception_3b/5x5_reduce -> inception_3b/5x5_reduce
I0714 20:43:39.393878  5406 net.cpp:141] Setting up inception_3b/3x3
I0714 20:43:39.393903  5406 net.cpp:148] Top shape: 10 192 28 28 (1505280)
I0714 20:43:39.393910  5406 net.cpp:156] Memory required for data: 296038400
I0714 20:43:39.393924  5406 layer_factory.hpp:77] Creating layer inception_3b/relu_3x3
I0714 20:43:39.393947  5406 net.cpp:91] Creating Layer inception_3b/relu_3x3
I0714 20:43:39.393956  5406 net.cpp:425] inception_3b/relu_3x3 <- inception_3b/3x3
I0714 20:43:39.393967  5406 net.cpp:386] inception_3b/relu_3x3 -> inception_3b/3x3 (in-place)
I0714 20:43:39.395323  5406 net.cpp:141] Setting up inception_3b/relu_3x3
I0714 20:43:39.395346  5406 net.cpp:148] Top shape: 10 192 28 28 (1505280)
I0714 20:43:39.395354  5406 net.cpp:156] Memory required for data: 302059520
I0714 20:43:39.395362  5406 layer_factory.hpp:77] Creating layer inception_3b/5x5_reduce
I0714 20:43:39.395388  5406 net.cpp:91] Creating Layer inception_3b/5x5_reduce
I0714 20:43:39.395397  5406 net.cpp:425] inception_3b/5x5_reduce <- inception_3a/output_inception_3a/output_0_split_2
I0714 20:43:39.395414  5406 net.cpp:399] inception_3b/5x5_reduce -> inception_3b/5x5_reduce
I0714 20:43:39.401227  5410 net.cpp:141] Setting up inception_3b/5x5_reduce
I0714 20:43:39.401253  5410 net.cpp:148] Top shape: 10 32 28 28 (250880)
I0714 20:43:39.401263  5410 net.cpp:156] Memory required for data: 303063040
I0714 20:43:39.401280  5410 layer_factory.hpp:77] Creating layer inception_3b/relu_5x5_reduce
I0714 20:43:39.401290  5410 net.cpp:91] Creating Layer inception_3b/relu_5x5_reduce
I0714 20:43:39.401298  5410 net.cpp:425] inception_3b/relu_5x5_reduce <- inception_3b/5x5_reduce
I0714 20:43:39.401305  5410 net.cpp:386] inception_3b/relu_5x5_reduce -> inception_3b/5x5_reduce (in-place)
I0714 20:43:39.401788  5410 net.cpp:141] Setting up inception_3b/relu_5x5_reduce
I0714 20:43:39.401804  5410 net.cpp:148] Top shape: 10 32 28 28 (250880)
I0714 20:43:39.401810  5410 net.cpp:156] Memory required for data: 304066560
I0714 20:43:39.401815  5410 layer_factory.hpp:77] Creating layer inception_3b/5x5
I0714 20:43:39.401834  5410 net.cpp:91] Creating Layer inception_3b/5x5
I0714 20:43:39.401840  5410 net.cpp:425] inception_3b/5x5 <- inception_3b/5x5_reduce
I0714 20:43:39.401854  5410 net.cpp:399] inception_3b/5x5 -> inception_3b/5x5
I0714 20:43:39.401850  5406 net.cpp:141] Setting up inception_3b/5x5_reduce
I0714 20:43:39.401870  5406 net.cpp:148] Top shape: 10 32 28 28 (250880)
I0714 20:43:39.401876  5406 net.cpp:156] Memory required for data: 303063040
I0714 20:43:39.401887  5406 layer_factory.hpp:77] Creating layer inception_3b/relu_5x5_reduce
I0714 20:43:39.401897  5406 net.cpp:91] Creating Layer inception_3b/relu_5x5_reduce
I0714 20:43:39.401904  5406 net.cpp:425] inception_3b/relu_5x5_reduce <- inception_3b/5x5_reduce
I0714 20:43:39.401912  5406 net.cpp:386] inception_3b/relu_5x5_reduce -> inception_3b/5x5_reduce (in-place)
I0714 20:43:39.402346  5406 net.cpp:141] Setting up inception_3b/relu_5x5_reduce
I0714 20:43:39.402360  5406 net.cpp:148] Top shape: 10 32 28 28 (250880)
I0714 20:43:39.402365  5406 net.cpp:156] Memory required for data: 304066560
I0714 20:43:39.402370  5406 layer_factory.hpp:77] Creating layer inception_3b/5x5
I0714 20:43:39.402389  5406 net.cpp:91] Creating Layer inception_3b/5x5
I0714 20:43:39.402395  5406 net.cpp:425] inception_3b/5x5 <- inception_3b/5x5_reduce
I0714 20:43:39.402408  5406 net.cpp:399] inception_3b/5x5 -> inception_3b/5x5
I0714 20:43:39.411612  5410 net.cpp:141] Setting up inception_3b/5x5
I0714 20:43:39.411648  5410 net.cpp:148] Top shape: 10 96 28 28 (752640)
I0714 20:43:39.411653  5410 net.cpp:156] Memory required for data: 307077120
I0714 20:43:39.411667  5410 layer_factory.hpp:77] Creating layer inception_3b/relu_5x5
I0714 20:43:39.411680  5410 net.cpp:91] Creating Layer inception_3b/relu_5x5
I0714 20:43:39.411687  5410 net.cpp:425] inception_3b/relu_5x5 <- inception_3b/5x5
I0714 20:43:39.411700  5410 net.cpp:386] inception_3b/relu_5x5 -> inception_3b/5x5 (in-place)
I0714 20:43:39.411986  5406 net.cpp:141] Setting up inception_3b/5x5
I0714 20:43:39.412004  5406 net.cpp:148] Top shape: 10 96 28 28 (752640)
I0714 20:43:39.412010  5406 net.cpp:156] Memory required for data: 307077120
I0714 20:43:39.412021  5406 layer_factory.hpp:77] Creating layer inception_3b/relu_5x5
I0714 20:43:39.412030  5406 net.cpp:91] Creating Layer inception_3b/relu_5x5
I0714 20:43:39.412037  5406 net.cpp:425] inception_3b/relu_5x5 <- inception_3b/5x5
I0714 20:43:39.412048  5406 net.cpp:386] inception_3b/relu_5x5 -> inception_3b/5x5 (in-place)
I0714 20:43:39.412217  5410 net.cpp:141] Setting up inception_3b/relu_5x5
I0714 20:43:39.412252  5410 net.cpp:148] Top shape: 10 96 28 28 (752640)
I0714 20:43:39.412258  5410 net.cpp:156] Memory required for data: 310087680
I0714 20:43:39.412268  5410 layer_factory.hpp:77] Creating layer inception_3b/pool
I0714 20:43:39.412288  5410 net.cpp:91] Creating Layer inception_3b/pool
I0714 20:43:39.412297  5410 net.cpp:425] inception_3b/pool <- inception_3a/output_inception_3a/output_0_split_3
I0714 20:43:39.412310  5410 net.cpp:399] inception_3b/pool -> inception_3b/pool
I0714 20:43:39.412380  5406 net.cpp:141] Setting up inception_3b/relu_5x5
I0714 20:43:39.412395  5406 net.cpp:148] Top shape: 10 96 28 28 (752640)
I0714 20:43:39.412400  5406 net.cpp:156] Memory required for data: 310087680
I0714 20:43:39.412405  5406 layer_factory.hpp:77] Creating layer inception_3b/pool
I0714 20:43:39.412420  5406 net.cpp:91] Creating Layer inception_3b/pool
I0714 20:43:39.412426  5406 net.cpp:425] inception_3b/pool <- inception_3a/output_inception_3a/output_0_split_3
I0714 20:43:39.412436  5406 net.cpp:399] inception_3b/pool -> inception_3b/pool
I0714 20:43:39.412560  5410 net.cpp:141] Setting up inception_3b/pool
I0714 20:43:39.412575  5410 net.cpp:148] Top shape: 10 256 28 28 (2007040)
I0714 20:43:39.412580  5410 net.cpp:156] Memory required for data: 318115840
I0714 20:43:39.412585  5410 layer_factory.hpp:77] Creating layer inception_3b/pool_proj
I0714 20:43:39.412611  5410 net.cpp:91] Creating Layer inception_3b/pool_proj
I0714 20:43:39.412621  5410 net.cpp:425] inception_3b/pool_proj <- inception_3b/pool
I0714 20:43:39.412631  5410 net.cpp:399] inception_3b/pool_proj -> inception_3b/pool_proj
I0714 20:43:39.412652  5406 net.cpp:141] Setting up inception_3b/pool
I0714 20:43:39.412665  5406 net.cpp:148] Top shape: 10 256 28 28 (2007040)
I0714 20:43:39.412670  5406 net.cpp:156] Memory required for data: 318115840
I0714 20:43:39.412675  5406 layer_factory.hpp:77] Creating layer inception_3b/pool_proj
I0714 20:43:39.412694  5406 net.cpp:91] Creating Layer inception_3b/pool_proj
I0714 20:43:39.412701  5406 net.cpp:425] inception_3b/pool_proj <- inception_3b/pool
I0714 20:43:39.412714  5406 net.cpp:399] inception_3b/pool_proj -> inception_3b/pool_proj
I0714 20:43:39.418637  5410 net.cpp:141] Setting up inception_3b/pool_proj
I0714 20:43:39.418673  5410 net.cpp:148] Top shape: 10 64 28 28 (501760)
I0714 20:43:39.418696  5410 net.cpp:156] Memory required for data: 320122880
I0714 20:43:39.418721  5410 layer_factory.hpp:77] Creating layer inception_3b/relu_pool_proj
I0714 20:43:39.418741  5410 net.cpp:91] Creating Layer inception_3b/relu_pool_proj
I0714 20:43:39.418754  5410 net.cpp:425] inception_3b/relu_pool_proj <- inception_3b/pool_proj
I0714 20:43:39.418771  5410 net.cpp:386] inception_3b/relu_pool_proj -> inception_3b/pool_proj (in-place)
I0714 20:43:39.420240  5406 net.cpp:141] Setting up inception_3b/pool_proj
I0714 20:43:39.420271  5406 net.cpp:148] Top shape: 10 64 28 28 (501760)
I0714 20:43:39.420279  5406 net.cpp:156] Memory required for data: 320122880
I0714 20:43:39.420289  5406 layer_factory.hpp:77] Creating layer inception_3b/relu_pool_proj
I0714 20:43:39.420301  5406 net.cpp:91] Creating Layer inception_3b/relu_pool_proj
I0714 20:43:39.420310  5406 net.cpp:425] inception_3b/relu_pool_proj <- inception_3b/pool_proj
I0714 20:43:39.420318  5406 net.cpp:386] inception_3b/relu_pool_proj -> inception_3b/pool_proj (in-place)
I0714 20:43:39.420424  5410 net.cpp:141] Setting up inception_3b/relu_pool_proj
I0714 20:43:39.420452  5410 net.cpp:148] Top shape: 10 64 28 28 (501760)
I0714 20:43:39.420464  5410 net.cpp:156] Memory required for data: 322129920
I0714 20:43:39.420475  5410 layer_factory.hpp:77] Creating layer inception_3b/output
I0714 20:43:39.420491  5410 net.cpp:91] Creating Layer inception_3b/output
I0714 20:43:39.420503  5410 net.cpp:425] inception_3b/output <- inception_3b/1x1
I0714 20:43:39.420518  5410 net.cpp:425] inception_3b/output <- inception_3b/3x3
I0714 20:43:39.420531  5410 net.cpp:425] inception_3b/output <- inception_3b/5x5
I0714 20:43:39.420543  5410 net.cpp:425] inception_3b/output <- inception_3b/pool_proj
I0714 20:43:39.420570  5410 net.cpp:399] inception_3b/output -> inception_3b/output
I0714 20:43:39.421396  5410 net.cpp:141] Setting up inception_3b/output
I0714 20:43:39.421419  5410 net.cpp:148] Top shape: 10 480 28 28 (3763200)
I0714 20:43:39.421430  5410 net.cpp:156] Memory required for data: 337182720
I0714 20:43:39.421440  5410 layer_factory.hpp:77] Creating layer pool3/3x3_s2
I0714 20:43:39.421458  5410 net.cpp:91] Creating Layer pool3/3x3_s2
I0714 20:43:39.421469  5410 net.cpp:425] pool3/3x3_s2 <- inception_3b/output
I0714 20:43:39.421494  5410 net.cpp:399] pool3/3x3_s2 -> pool3/3x3_s2
I0714 20:43:39.421512  5406 net.cpp:141] Setting up inception_3b/relu_pool_proj
I0714 20:43:39.421530  5406 net.cpp:148] Top shape: 10 64 28 28 (501760)
I0714 20:43:39.421535  5406 net.cpp:156] Memory required for data: 322129920
I0714 20:43:39.421541  5406 layer_factory.hpp:77] Creating layer inception_3b/output
I0714 20:43:39.421551  5406 net.cpp:91] Creating Layer inception_3b/output
I0714 20:43:39.421557  5406 net.cpp:425] inception_3b/output <- inception_3b/1x1
I0714 20:43:39.421566  5406 net.cpp:425] inception_3b/output <- inception_3b/3x3
I0714 20:43:39.421571  5406 net.cpp:425] inception_3b/output <- inception_3b/5x5
I0714 20:43:39.421577  5406 net.cpp:425] inception_3b/output <- inception_3b/pool_proj
I0714 20:43:39.421599  5406 net.cpp:399] inception_3b/output -> inception_3b/output
I0714 20:43:39.421741  5410 net.cpp:141] Setting up pool3/3x3_s2
I0714 20:43:39.421764  5410 net.cpp:148] Top shape: 10 480 14 14 (940800)
I0714 20:43:39.421769  5406 net.cpp:141] Setting up inception_3b/output
I0714 20:43:39.421774  5410 net.cpp:156] Memory required for data: 340945920
I0714 20:43:39.421783  5406 net.cpp:148] Top shape: 10 480 28 28 (3763200)
I0714 20:43:39.421785  5410 layer_factory.hpp:77] Creating layer pool3/3x3_s2_pool3/3x3_s2_0_split
I0714 20:43:39.421789  5406 net.cpp:156] Memory required for data: 337182720
I0714 20:43:39.421797  5406 layer_factory.hpp:77] Creating layer pool3/3x3_s2
I0714 20:43:39.421807  5406 net.cpp:91] Creating Layer pool3/3x3_s2
I0714 20:43:39.421809  5410 net.cpp:91] Creating Layer pool3/3x3_s2_pool3/3x3_s2_0_split
I0714 20:43:39.421813  5406 net.cpp:425] pool3/3x3_s2 <- inception_3b/output
I0714 20:43:39.421826  5410 net.cpp:425] pool3/3x3_s2_pool3/3x3_s2_0_split <- pool3/3x3_s2
I0714 20:43:39.421841  5406 net.cpp:399] pool3/3x3_s2 -> pool3/3x3_s2
I0714 20:43:39.421843  5410 net.cpp:399] pool3/3x3_s2_pool3/3x3_s2_0_split -> pool3/3x3_s2_pool3/3x3_s2_0_split_0
I0714 20:43:39.421865  5410 net.cpp:399] pool3/3x3_s2_pool3/3x3_s2_0_split -> pool3/3x3_s2_pool3/3x3_s2_0_split_1
I0714 20:43:39.421883  5410 net.cpp:399] pool3/3x3_s2_pool3/3x3_s2_0_split -> pool3/3x3_s2_pool3/3x3_s2_0_split_2
I0714 20:43:39.421900  5410 net.cpp:399] pool3/3x3_s2_pool3/3x3_s2_0_split -> pool3/3x3_s2_pool3/3x3_s2_0_split_3
I0714 20:43:39.422045  5406 net.cpp:141] Setting up pool3/3x3_s2
I0714 20:43:39.422060  5406 net.cpp:148] Top shape: 10 480 14 14 (940800)
I0714 20:43:39.422065  5406 net.cpp:156] Memory required for data: 340945920
I0714 20:43:39.422070  5406 layer_factory.hpp:77] Creating layer pool3/3x3_s2_pool3/3x3_s2_0_split
I0714 20:43:39.422096  5406 net.cpp:91] Creating Layer pool3/3x3_s2_pool3/3x3_s2_0_split
I0714 20:43:39.422102  5406 net.cpp:425] pool3/3x3_s2_pool3/3x3_s2_0_split <- pool3/3x3_s2
I0714 20:43:39.422111  5406 net.cpp:399] pool3/3x3_s2_pool3/3x3_s2_0_split -> pool3/3x3_s2_pool3/3x3_s2_0_split_0
I0714 20:43:39.422121  5406 net.cpp:399] pool3/3x3_s2_pool3/3x3_s2_0_split -> pool3/3x3_s2_pool3/3x3_s2_0_split_1
I0714 20:43:39.422132  5406 net.cpp:399] pool3/3x3_s2_pool3/3x3_s2_0_split -> pool3/3x3_s2_pool3/3x3_s2_0_split_2
I0714 20:43:39.422140  5406 net.cpp:399] pool3/3x3_s2_pool3/3x3_s2_0_split -> pool3/3x3_s2_pool3/3x3_s2_0_split_3
I0714 20:43:39.422546  5410 net.cpp:141] Setting up pool3/3x3_s2_pool3/3x3_s2_0_split
I0714 20:43:39.422564  5406 net.cpp:141] Setting up pool3/3x3_s2_pool3/3x3_s2_0_split
I0714 20:43:39.422570  5410 net.cpp:148] Top shape: 10 480 14 14 (940800)
I0714 20:43:39.422577  5406 net.cpp:148] Top shape: 10 480 14 14 (940800)
I0714 20:43:39.422585  5406 net.cpp:148] Top shape: 10 480 14 14 (940800)
I0714 20:43:39.422587  5410 net.cpp:148] Top shape: 10 480 14 14 (940800)
I0714 20:43:39.422592  5406 net.cpp:148] Top shape: 10 480 14 14 (940800)
I0714 20:43:39.422601  5406 net.cpp:148] Top shape: 10 480 14 14 (940800)
I0714 20:43:39.422602  5410 net.cpp:148] Top shape: 10 480 14 14 (940800)
I0714 20:43:39.422605  5406 net.cpp:156] Memory required for data: 355998720
I0714 20:43:39.422621  5406 layer_factory.hpp:77] Creating layer inception_4a/1x1
I0714 20:43:39.422621  5410 net.cpp:148] Top shape: 10 480 14 14 (940800)
I0714 20:43:39.422648  5410 net.cpp:156] Memory required for data: 355998720
I0714 20:43:39.422652  5406 net.cpp:91] Creating Layer inception_4a/1x1
I0714 20:43:39.422663  5410 layer_factory.hpp:77] Creating layer inception_4a/1x1
I0714 20:43:39.422667  5406 net.cpp:425] inception_4a/1x1 <- pool3/3x3_s2_pool3/3x3_s2_0_split_0
I0714 20:43:39.422696  5406 net.cpp:399] inception_4a/1x1 -> inception_4a/1x1
I0714 20:43:39.422718  5410 net.cpp:91] Creating Layer inception_4a/1x1
I0714 20:43:39.422734  5410 net.cpp:425] inception_4a/1x1 <- pool3/3x3_s2_pool3/3x3_s2_0_split_0
I0714 20:43:39.422752  5410 net.cpp:399] inception_4a/1x1 -> inception_4a/1x1
I0714 20:43:39.430979  5406 net.cpp:141] Setting up inception_4a/1x1
I0714 20:43:39.431004  5406 net.cpp:148] Top shape: 10 192 14 14 (376320)
I0714 20:43:39.431010  5406 net.cpp:156] Memory required for data: 357504000
I0714 20:43:39.431020  5406 layer_factory.hpp:77] Creating layer inception_4a/relu_1x1
I0714 20:43:39.431035  5406 net.cpp:91] Creating Layer inception_4a/relu_1x1
I0714 20:43:39.431042  5406 net.cpp:425] inception_4a/relu_1x1 <- inception_4a/1x1
I0714 20:43:39.431051  5406 net.cpp:386] inception_4a/relu_1x1 -> inception_4a/1x1 (in-place)
I0714 20:43:39.431594  5406 net.cpp:141] Setting up inception_4a/relu_1x1
I0714 20:43:39.431610  5406 net.cpp:148] Top shape: 10 192 14 14 (376320)
I0714 20:43:39.431617  5406 net.cpp:156] Memory required for data: 359009280
I0714 20:43:39.431622  5406 layer_factory.hpp:77] Creating layer inception_4a/3x3_reduce
I0714 20:43:39.431640  5406 net.cpp:91] Creating Layer inception_4a/3x3_reduce
I0714 20:43:39.431648  5406 net.cpp:425] inception_4a/3x3_reduce <- pool3/3x3_s2_pool3/3x3_s2_0_split_1
I0714 20:43:39.431661  5406 net.cpp:399] inception_4a/3x3_reduce -> inception_4a/3x3_reduce
I0714 20:43:39.432018  5410 net.cpp:141] Setting up inception_4a/1x1
I0714 20:43:39.432054  5410 net.cpp:148] Top shape: 10 192 14 14 (376320)
I0714 20:43:39.432060  5410 net.cpp:156] Memory required for data: 357504000
I0714 20:43:39.432075  5410 layer_factory.hpp:77] Creating layer inception_4a/relu_1x1
I0714 20:43:39.432091  5410 net.cpp:91] Creating Layer inception_4a/relu_1x1
I0714 20:43:39.432101  5410 net.cpp:425] inception_4a/relu_1x1 <- inception_4a/1x1
I0714 20:43:39.432111  5410 net.cpp:386] inception_4a/relu_1x1 -> inception_4a/1x1 (in-place)
I0714 20:43:39.432629  5410 net.cpp:141] Setting up inception_4a/relu_1x1
I0714 20:43:39.432646  5410 net.cpp:148] Top shape: 10 192 14 14 (376320)
I0714 20:43:39.432651  5410 net.cpp:156] Memory required for data: 359009280
I0714 20:43:39.432658  5410 layer_factory.hpp:77] Creating layer inception_4a/3x3_reduce
I0714 20:43:39.432682  5410 net.cpp:91] Creating Layer inception_4a/3x3_reduce
I0714 20:43:39.432689  5410 net.cpp:425] inception_4a/3x3_reduce <- pool3/3x3_s2_pool3/3x3_s2_0_split_1
I0714 20:43:39.432703  5410 net.cpp:399] inception_4a/3x3_reduce -> inception_4a/3x3_reduce
I0714 20:43:39.437160  5406 net.cpp:141] Setting up inception_4a/3x3_reduce
I0714 20:43:39.437186  5406 net.cpp:148] Top shape: 10 96 14 14 (188160)
I0714 20:43:39.437191  5406 net.cpp:156] Memory required for data: 359761920
I0714 20:43:39.437211  5406 layer_factory.hpp:77] Creating layer inception_4a/relu_3x3_reduce
I0714 20:43:39.437228  5406 net.cpp:91] Creating Layer inception_4a/relu_3x3_reduce
I0714 20:43:39.437235  5406 net.cpp:425] inception_4a/relu_3x3_reduce <- inception_4a/3x3_reduce
I0714 20:43:39.437244  5406 net.cpp:386] inception_4a/relu_3x3_reduce -> inception_4a/3x3_reduce (in-place)
I0714 20:43:39.437614  5410 net.cpp:141] Setting up inception_4a/3x3_reduce
I0714 20:43:39.437634  5410 net.cpp:148] Top shape: 10 96 14 14 (188160)
I0714 20:43:39.437641  5410 net.cpp:156] Memory required for data: 359761920
I0714 20:43:39.437659  5406 net.cpp:141] Setting up inception_4a/relu_3x3_reduce
I0714 20:43:39.437661  5410 layer_factory.hpp:77] Creating layer inception_4a/relu_3x3_reduce
I0714 20:43:39.437675  5406 net.cpp:148] Top shape: 10 96 14 14 (188160)
I0714 20:43:39.437681  5406 net.cpp:156] Memory required for data: 360514560
I0714 20:43:39.437686  5406 layer_factory.hpp:77] Creating layer inception_4a/3x3
I0714 20:43:39.437690  5410 net.cpp:91] Creating Layer inception_4a/relu_3x3_reduce
I0714 20:43:39.437697  5410 net.cpp:425] inception_4a/relu_3x3_reduce <- inception_4a/3x3_reduce
I0714 20:43:39.437705  5406 net.cpp:91] Creating Layer inception_4a/3x3
I0714 20:43:39.437706  5410 net.cpp:386] inception_4a/relu_3x3_reduce -> inception_4a/3x3_reduce (in-place)
I0714 20:43:39.437716  5406 net.cpp:425] inception_4a/3x3 <- inception_4a/3x3_reduce
I0714 20:43:39.437731  5406 net.cpp:399] inception_4a/3x3 -> inception_4a/3x3
I0714 20:43:39.438241  5410 net.cpp:141] Setting up inception_4a/relu_3x3_reduce
I0714 20:43:39.438256  5410 net.cpp:148] Top shape: 10 96 14 14 (188160)
I0714 20:43:39.438261  5410 net.cpp:156] Memory required for data: 360514560
I0714 20:43:39.438266  5410 layer_factory.hpp:77] Creating layer inception_4a/3x3
I0714 20:43:39.438285  5410 net.cpp:91] Creating Layer inception_4a/3x3
I0714 20:43:39.438292  5410 net.cpp:425] inception_4a/3x3 <- inception_4a/3x3_reduce
I0714 20:43:39.438304  5410 net.cpp:399] inception_4a/3x3 -> inception_4a/3x3
I0714 20:43:39.446382  5406 net.cpp:141] Setting up inception_4a/3x3
I0714 20:43:39.446403  5406 net.cpp:148] Top shape: 10 208 14 14 (407680)
I0714 20:43:39.446409  5406 net.cpp:156] Memory required for data: 362145280
I0714 20:43:39.446420  5406 layer_factory.hpp:77] Creating layer inception_4a/relu_3x3
I0714 20:43:39.446429  5406 net.cpp:91] Creating Layer inception_4a/relu_3x3
I0714 20:43:39.446436  5406 net.cpp:425] inception_4a/relu_3x3 <- inception_4a/3x3
I0714 20:43:39.446444  5406 net.cpp:386] inception_4a/relu_3x3 -> inception_4a/3x3 (in-place)
I0714 20:43:39.447607  5406 net.cpp:141] Setting up inception_4a/relu_3x3
I0714 20:43:39.447624  5406 net.cpp:148] Top shape: 10 208 14 14 (407680)
I0714 20:43:39.447630  5406 net.cpp:156] Memory required for data: 363776000
I0714 20:43:39.447635  5406 layer_factory.hpp:77] Creating layer inception_4a/5x5_reduce
I0714 20:43:39.447654  5406 net.cpp:91] Creating Layer inception_4a/5x5_reduce
I0714 20:43:39.447662  5406 net.cpp:425] inception_4a/5x5_reduce <- pool3/3x3_s2_pool3/3x3_s2_0_split_2
I0714 20:43:39.447679  5406 net.cpp:399] inception_4a/5x5_reduce -> inception_4a/5x5_reduce
I0714 20:43:39.447720  5410 net.cpp:141] Setting up inception_4a/3x3
I0714 20:43:39.447738  5410 net.cpp:148] Top shape: 10 208 14 14 (407680)
I0714 20:43:39.447743  5410 net.cpp:156] Memory required for data: 362145280
I0714 20:43:39.447753  5410 layer_factory.hpp:77] Creating layer inception_4a/relu_3x3
I0714 20:43:39.447763  5410 net.cpp:91] Creating Layer inception_4a/relu_3x3
I0714 20:43:39.447770  5410 net.cpp:425] inception_4a/relu_3x3 <- inception_4a/3x3
I0714 20:43:39.447782  5410 net.cpp:386] inception_4a/relu_3x3 -> inception_4a/3x3 (in-place)
I0714 20:43:39.448869  5410 net.cpp:141] Setting up inception_4a/relu_3x3
I0714 20:43:39.448889  5410 net.cpp:148] Top shape: 10 208 14 14 (407680)
I0714 20:43:39.448894  5410 net.cpp:156] Memory required for data: 363776000
I0714 20:43:39.448900  5410 layer_factory.hpp:77] Creating layer inception_4a/5x5_reduce
I0714 20:43:39.448920  5410 net.cpp:91] Creating Layer inception_4a/5x5_reduce
I0714 20:43:39.448927  5410 net.cpp:425] inception_4a/5x5_reduce <- pool3/3x3_s2_pool3/3x3_s2_0_split_2
I0714 20:43:39.448940  5410 net.cpp:399] inception_4a/5x5_reduce -> inception_4a/5x5_reduce
I0714 20:43:39.453296  5406 net.cpp:141] Setting up inception_4a/5x5_reduce
I0714 20:43:39.453318  5406 net.cpp:148] Top shape: 10 16 14 14 (31360)
I0714 20:43:39.453323  5406 net.cpp:156] Memory required for data: 363901440
I0714 20:43:39.453335  5406 layer_factory.hpp:77] Creating layer inception_4a/relu_5x5_reduce
I0714 20:43:39.453343  5406 net.cpp:91] Creating Layer inception_4a/relu_5x5_reduce
I0714 20:43:39.453349  5406 net.cpp:425] inception_4a/relu_5x5_reduce <- inception_4a/5x5_reduce
I0714 20:43:39.453361  5406 net.cpp:386] inception_4a/relu_5x5_reduce -> inception_4a/5x5_reduce (in-place)
I0714 20:43:39.453781  5406 net.cpp:141] Setting up inception_4a/relu_5x5_reduce
I0714 20:43:39.453800  5406 net.cpp:148] Top shape: 10 16 14 14 (31360)
I0714 20:43:39.453806  5406 net.cpp:156] Memory required for data: 364026880
I0714 20:43:39.453812  5406 layer_factory.hpp:77] Creating layer inception_4a/5x5
I0714 20:43:39.453831  5406 net.cpp:91] Creating Layer inception_4a/5x5
I0714 20:43:39.453837  5406 net.cpp:425] inception_4a/5x5 <- inception_4a/5x5_reduce
I0714 20:43:39.453847  5406 net.cpp:399] inception_4a/5x5 -> inception_4a/5x5
I0714 20:43:39.455292  5410 net.cpp:141] Setting up inception_4a/5x5_reduce
I0714 20:43:39.455314  5410 net.cpp:148] Top shape: 10 16 14 14 (31360)
I0714 20:43:39.455320  5410 net.cpp:156] Memory required for data: 363901440
I0714 20:43:39.455330  5410 layer_factory.hpp:77] Creating layer inception_4a/relu_5x5_reduce
I0714 20:43:39.455340  5410 net.cpp:91] Creating Layer inception_4a/relu_5x5_reduce
I0714 20:43:39.455346  5410 net.cpp:425] inception_4a/relu_5x5_reduce <- inception_4a/5x5_reduce
I0714 20:43:39.455359  5410 net.cpp:386] inception_4a/relu_5x5_reduce -> inception_4a/5x5_reduce (in-place)
I0714 20:43:39.455763  5410 net.cpp:141] Setting up inception_4a/relu_5x5_reduce
I0714 20:43:39.455780  5410 net.cpp:148] Top shape: 10 16 14 14 (31360)
I0714 20:43:39.455785  5410 net.cpp:156] Memory required for data: 364026880
I0714 20:43:39.455790  5410 layer_factory.hpp:77] Creating layer inception_4a/5x5
I0714 20:43:39.455809  5410 net.cpp:91] Creating Layer inception_4a/5x5
I0714 20:43:39.455816  5410 net.cpp:425] inception_4a/5x5 <- inception_4a/5x5_reduce
I0714 20:43:39.455826  5410 net.cpp:399] inception_4a/5x5 -> inception_4a/5x5
I0714 20:43:39.458766  5406 net.cpp:141] Setting up inception_4a/5x5
I0714 20:43:39.458787  5406 net.cpp:148] Top shape: 10 48 14 14 (94080)
I0714 20:43:39.458793  5406 net.cpp:156] Memory required for data: 364403200
I0714 20:43:39.458803  5406 layer_factory.hpp:77] Creating layer inception_4a/relu_5x5
I0714 20:43:39.458817  5406 net.cpp:91] Creating Layer inception_4a/relu_5x5
I0714 20:43:39.458824  5406 net.cpp:425] inception_4a/relu_5x5 <- inception_4a/5x5
I0714 20:43:39.458832  5406 net.cpp:386] inception_4a/relu_5x5 -> inception_4a/5x5 (in-place)
I0714 20:43:39.459131  5406 net.cpp:141] Setting up inception_4a/relu_5x5
I0714 20:43:39.459143  5406 net.cpp:148] Top shape: 10 48 14 14 (94080)
I0714 20:43:39.459148  5406 net.cpp:156] Memory required for data: 364779520
I0714 20:43:39.459153  5406 layer_factory.hpp:77] Creating layer inception_4a/pool
I0714 20:43:39.459163  5406 net.cpp:91] Creating Layer inception_4a/pool
I0714 20:43:39.459169  5406 net.cpp:425] inception_4a/pool <- pool3/3x3_s2_pool3/3x3_s2_0_split_3
I0714 20:43:39.459182  5406 net.cpp:399] inception_4a/pool -> inception_4a/pool
I0714 20:43:39.459622  5406 net.cpp:141] Setting up inception_4a/pool
I0714 20:43:39.459638  5406 net.cpp:148] Top shape: 10 480 14 14 (940800)
I0714 20:43:39.459642  5406 net.cpp:156] Memory required for data: 368542720
I0714 20:43:39.459648  5406 layer_factory.hpp:77] Creating layer inception_4a/pool_proj
I0714 20:43:39.459666  5406 net.cpp:91] Creating Layer inception_4a/pool_proj
I0714 20:43:39.459672  5406 net.cpp:425] inception_4a/pool_proj <- inception_4a/pool
I0714 20:43:39.459684  5406 net.cpp:399] inception_4a/pool_proj -> inception_4a/pool_proj
I0714 20:43:39.461660  5410 net.cpp:141] Setting up inception_4a/5x5
I0714 20:43:39.461683  5410 net.cpp:148] Top shape: 10 48 14 14 (94080)
I0714 20:43:39.461688  5410 net.cpp:156] Memory required for data: 364403200
I0714 20:43:39.461697  5410 layer_factory.hpp:77] Creating layer inception_4a/relu_5x5
I0714 20:43:39.461712  5410 net.cpp:91] Creating Layer inception_4a/relu_5x5
I0714 20:43:39.461719  5410 net.cpp:425] inception_4a/relu_5x5 <- inception_4a/5x5
I0714 20:43:39.461730  5410 net.cpp:386] inception_4a/relu_5x5 -> inception_4a/5x5 (in-place)
I0714 20:43:39.462136  5410 net.cpp:141] Setting up inception_4a/relu_5x5
I0714 20:43:39.462149  5410 net.cpp:148] Top shape: 10 48 14 14 (94080)
I0714 20:43:39.462154  5410 net.cpp:156] Memory required for data: 364779520
I0714 20:43:39.462160  5410 layer_factory.hpp:77] Creating layer inception_4a/pool
I0714 20:43:39.462172  5410 net.cpp:91] Creating Layer inception_4a/pool
I0714 20:43:39.462177  5410 net.cpp:425] inception_4a/pool <- pool3/3x3_s2_pool3/3x3_s2_0_split_3
I0714 20:43:39.462190  5410 net.cpp:399] inception_4a/pool -> inception_4a/pool
I0714 20:43:39.462962  5410 net.cpp:141] Setting up inception_4a/pool
I0714 20:43:39.462978  5410 net.cpp:148] Top shape: 10 480 14 14 (940800)
I0714 20:43:39.462983  5410 net.cpp:156] Memory required for data: 368542720
I0714 20:43:39.462988  5410 layer_factory.hpp:77] Creating layer inception_4a/pool_proj
I0714 20:43:39.463007  5410 net.cpp:91] Creating Layer inception_4a/pool_proj
I0714 20:43:39.463014  5410 net.cpp:425] inception_4a/pool_proj <- inception_4a/pool
I0714 20:43:39.463027  5410 net.cpp:399] inception_4a/pool_proj -> inception_4a/pool_proj
I0714 20:43:39.465061  5406 net.cpp:141] Setting up inception_4a/pool_proj
I0714 20:43:39.465083  5406 net.cpp:148] Top shape: 10 64 14 14 (125440)
I0714 20:43:39.465088  5406 net.cpp:156] Memory required for data: 369044480
I0714 20:43:39.465098  5406 layer_factory.hpp:77] Creating layer inception_4a/relu_pool_proj
I0714 20:43:39.465107  5406 net.cpp:91] Creating Layer inception_4a/relu_pool_proj
I0714 20:43:39.465114  5406 net.cpp:425] inception_4a/relu_pool_proj <- inception_4a/pool_proj
I0714 20:43:39.465126  5406 net.cpp:386] inception_4a/relu_pool_proj -> inception_4a/pool_proj (in-place)
I0714 20:43:39.466096  5406 net.cpp:141] Setting up inception_4a/relu_pool_proj
I0714 20:43:39.466114  5406 net.cpp:148] Top shape: 10 64 14 14 (125440)
I0714 20:43:39.466120  5406 net.cpp:156] Memory required for data: 369546240
I0714 20:43:39.466125  5406 layer_factory.hpp:77] Creating layer inception_4a/output
I0714 20:43:39.466136  5406 net.cpp:91] Creating Layer inception_4a/output
I0714 20:43:39.466142  5406 net.cpp:425] inception_4a/output <- inception_4a/1x1
I0714 20:43:39.466150  5406 net.cpp:425] inception_4a/output <- inception_4a/3x3
I0714 20:43:39.466156  5406 net.cpp:425] inception_4a/output <- inception_4a/5x5
I0714 20:43:39.466161  5406 net.cpp:425] inception_4a/output <- inception_4a/pool_proj
I0714 20:43:39.466172  5406 net.cpp:399] inception_4a/output -> inception_4a/output
I0714 20:43:39.466851  5406 net.cpp:141] Setting up inception_4a/output
I0714 20:43:39.466867  5406 net.cpp:148] Top shape: 10 512 14 14 (1003520)
I0714 20:43:39.466872  5406 net.cpp:156] Memory required for data: 373560320
I0714 20:43:39.466877  5406 layer_factory.hpp:77] Creating layer inception_4a/output_inception_4a/output_0_split
I0714 20:43:39.466892  5406 net.cpp:91] Creating Layer inception_4a/output_inception_4a/output_0_split
I0714 20:43:39.466899  5406 net.cpp:425] inception_4a/output_inception_4a/output_0_split <- inception_4a/output
I0714 20:43:39.466907  5406 net.cpp:399] inception_4a/output_inception_4a/output_0_split -> inception_4a/output_inception_4a/output_0_split_0
I0714 20:43:39.466917  5406 net.cpp:399] inception_4a/output_inception_4a/output_0_split -> inception_4a/output_inception_4a/output_0_split_1
I0714 20:43:39.466929  5406 net.cpp:399] inception_4a/output_inception_4a/output_0_split -> inception_4a/output_inception_4a/output_0_split_2
I0714 20:43:39.466938  5406 net.cpp:399] inception_4a/output_inception_4a/output_0_split -> inception_4a/output_inception_4a/output_0_split_3
I0714 20:43:39.467998  5406 net.cpp:141] Setting up inception_4a/output_inception_4a/output_0_split
I0714 20:43:39.468013  5406 net.cpp:148] Top shape: 10 512 14 14 (1003520)
I0714 20:43:39.468019  5406 net.cpp:148] Top shape: 10 512 14 14 (1003520)
I0714 20:43:39.468024  5406 net.cpp:148] Top shape: 10 512 14 14 (1003520)
I0714 20:43:39.468030  5406 net.cpp:148] Top shape: 10 512 14 14 (1003520)
I0714 20:43:39.468034  5406 net.cpp:156] Memory required for data: 389616640
I0714 20:43:39.468040  5406 layer_factory.hpp:77] Creating layer inception_4b/1x1
I0714 20:43:39.468057  5406 net.cpp:91] Creating Layer inception_4b/1x1
I0714 20:43:39.468065  5406 net.cpp:425] inception_4b/1x1 <- inception_4a/output_inception_4a/output_0_split_0
I0714 20:43:39.468075  5406 net.cpp:399] inception_4b/1x1 -> inception_4b/1x1
I0714 20:43:39.469347  5410 net.cpp:141] Setting up inception_4a/pool_proj
I0714 20:43:39.469367  5410 net.cpp:148] Top shape: 10 64 14 14 (125440)
I0714 20:43:39.469372  5410 net.cpp:156] Memory required for data: 369044480
I0714 20:43:39.469383  5410 layer_factory.hpp:77] Creating layer inception_4a/relu_pool_proj
I0714 20:43:39.469393  5410 net.cpp:91] Creating Layer inception_4a/relu_pool_proj
I0714 20:43:39.469399  5410 net.cpp:425] inception_4a/relu_pool_proj <- inception_4a/pool_proj
I0714 20:43:39.469411  5410 net.cpp:386] inception_4a/relu_pool_proj -> inception_4a/pool_proj (in-place)
I0714 20:43:39.470361  5410 net.cpp:141] Setting up inception_4a/relu_pool_proj
I0714 20:43:39.470376  5410 net.cpp:148] Top shape: 10 64 14 14 (125440)
I0714 20:43:39.470381  5410 net.cpp:156] Memory required for data: 369546240
I0714 20:43:39.470388  5410 layer_factory.hpp:77] Creating layer inception_4a/output
I0714 20:43:39.470403  5410 net.cpp:91] Creating Layer inception_4a/output
I0714 20:43:39.470410  5410 net.cpp:425] inception_4a/output <- inception_4a/1x1
I0714 20:43:39.470417  5410 net.cpp:425] inception_4a/output <- inception_4a/3x3
I0714 20:43:39.470424  5410 net.cpp:425] inception_4a/output <- inception_4a/5x5
I0714 20:43:39.470429  5410 net.cpp:425] inception_4a/output <- inception_4a/pool_proj
I0714 20:43:39.470438  5410 net.cpp:399] inception_4a/output -> inception_4a/output
I0714 20:43:39.470568  5410 net.cpp:141] Setting up inception_4a/output
I0714 20:43:39.470582  5410 net.cpp:148] Top shape: 10 512 14 14 (1003520)
I0714 20:43:39.470585  5410 net.cpp:156] Memory required for data: 373560320
I0714 20:43:39.470592  5410 layer_factory.hpp:77] Creating layer inception_4a/output_inception_4a/output_0_split
I0714 20:43:39.470607  5410 net.cpp:91] Creating Layer inception_4a/output_inception_4a/output_0_split
I0714 20:43:39.470613  5410 net.cpp:425] inception_4a/output_inception_4a/output_0_split <- inception_4a/output
I0714 20:43:39.470621  5410 net.cpp:399] inception_4a/output_inception_4a/output_0_split -> inception_4a/output_inception_4a/output_0_split_0
I0714 20:43:39.470634  5410 net.cpp:399] inception_4a/output_inception_4a/output_0_split -> inception_4a/output_inception_4a/output_0_split_1
I0714 20:43:39.470643  5410 net.cpp:399] inception_4a/output_inception_4a/output_0_split -> inception_4a/output_inception_4a/output_0_split_2
I0714 20:43:39.470652  5410 net.cpp:399] inception_4a/output_inception_4a/output_0_split -> inception_4a/output_inception_4a/output_0_split_3
I0714 20:43:39.471722  5410 net.cpp:141] Setting up inception_4a/output_inception_4a/output_0_split
I0714 20:43:39.471738  5410 net.cpp:148] Top shape: 10 512 14 14 (1003520)
I0714 20:43:39.471745  5410 net.cpp:148] Top shape: 10 512 14 14 (1003520)
I0714 20:43:39.471750  5410 net.cpp:148] Top shape: 10 512 14 14 (1003520)
I0714 20:43:39.471756  5410 net.cpp:148] Top shape: 10 512 14 14 (1003520)
I0714 20:43:39.471761  5410 net.cpp:156] Memory required for data: 389616640
I0714 20:43:39.471766  5410 layer_factory.hpp:77] Creating layer inception_4b/1x1
I0714 20:43:39.471786  5410 net.cpp:91] Creating Layer inception_4b/1x1
I0714 20:43:39.471791  5410 net.cpp:425] inception_4b/1x1 <- inception_4a/output_inception_4a/output_0_split_0
I0714 20:43:39.471804  5410 net.cpp:399] inception_4b/1x1 -> inception_4b/1x1
I0714 20:43:39.473546  5406 net.cpp:141] Setting up inception_4b/1x1
I0714 20:43:39.473567  5406 net.cpp:148] Top shape: 10 160 14 14 (313600)
I0714 20:43:39.473572  5406 net.cpp:156] Memory required for data: 390871040
I0714 20:43:39.473582  5406 layer_factory.hpp:77] Creating layer inception_4b/relu_1x1
I0714 20:43:39.473593  5406 net.cpp:91] Creating Layer inception_4b/relu_1x1
I0714 20:43:39.473599  5406 net.cpp:425] inception_4b/relu_1x1 <- inception_4b/1x1
I0714 20:43:39.473608  5406 net.cpp:386] inception_4b/relu_1x1 -> inception_4b/1x1 (in-place)
I0714 20:43:39.473901  5406 net.cpp:141] Setting up inception_4b/relu_1x1
I0714 20:43:39.473914  5406 net.cpp:148] Top shape: 10 160 14 14 (313600)
I0714 20:43:39.473918  5406 net.cpp:156] Memory required for data: 392125440
I0714 20:43:39.473924  5406 layer_factory.hpp:77] Creating layer inception_4b/3x3_reduce
I0714 20:43:39.473940  5406 net.cpp:91] Creating Layer inception_4b/3x3_reduce
I0714 20:43:39.473947  5406 net.cpp:425] inception_4b/3x3_reduce <- inception_4a/output_inception_4a/output_0_split_1
I0714 20:43:39.473960  5406 net.cpp:399] inception_4b/3x3_reduce -> inception_4b/3x3_reduce
I0714 20:43:39.478482  5410 net.cpp:141] Setting up inception_4b/1x1
I0714 20:43:39.478504  5410 net.cpp:148] Top shape: 10 160 14 14 (313600)
I0714 20:43:39.478510  5410 net.cpp:156] Memory required for data: 390871040
I0714 20:43:39.478520  5410 layer_factory.hpp:77] Creating layer inception_4b/relu_1x1
I0714 20:43:39.478530  5410 net.cpp:91] Creating Layer inception_4b/relu_1x1
I0714 20:43:39.478538  5410 net.cpp:425] inception_4b/relu_1x1 <- inception_4b/1x1
I0714 20:43:39.478554  5410 net.cpp:386] inception_4b/relu_1x1 -> inception_4b/1x1 (in-place)
I0714 20:43:39.478953  5406 net.cpp:141] Setting up inception_4b/3x3_reduce
I0714 20:43:39.478971  5406 net.cpp:148] Top shape: 10 112 14 14 (219520)
I0714 20:43:39.478976  5406 net.cpp:156] Memory required for data: 393003520
I0714 20:43:39.478986  5406 layer_factory.hpp:77] Creating layer inception_4b/relu_3x3_reduce
I0714 20:43:39.478999  5406 net.cpp:91] Creating Layer inception_4b/relu_3x3_reduce
I0714 20:43:39.478998  5410 net.cpp:141] Setting up inception_4b/relu_1x1
I0714 20:43:39.479009  5406 net.cpp:425] inception_4b/relu_3x3_reduce <- inception_4b/3x3_reduce
I0714 20:43:39.479014  5410 net.cpp:148] Top shape: 10 160 14 14 (313600)
I0714 20:43:39.479020  5410 net.cpp:156] Memory required for data: 392125440
I0714 20:43:39.479022  5406 net.cpp:386] inception_4b/relu_3x3_reduce -> inception_4b/3x3_reduce (in-place)
I0714 20:43:39.479027  5410 layer_factory.hpp:77] Creating layer inception_4b/3x3_reduce
I0714 20:43:39.479046  5410 net.cpp:91] Creating Layer inception_4b/3x3_reduce
I0714 20:43:39.479053  5410 net.cpp:425] inception_4b/3x3_reduce <- inception_4a/output_inception_4a/output_0_split_1
I0714 20:43:39.479068  5410 net.cpp:399] inception_4b/3x3_reduce -> inception_4b/3x3_reduce
I0714 20:43:39.479488  5406 net.cpp:141] Setting up inception_4b/relu_3x3_reduce
I0714 20:43:39.479502  5406 net.cpp:148] Top shape: 10 112 14 14 (219520)
I0714 20:43:39.479507  5406 net.cpp:156] Memory required for data: 393881600
I0714 20:43:39.479512  5406 layer_factory.hpp:77] Creating layer inception_4b/3x3
I0714 20:43:39.479539  5406 net.cpp:91] Creating Layer inception_4b/3x3
I0714 20:43:39.479547  5406 net.cpp:425] inception_4b/3x3 <- inception_4b/3x3_reduce
I0714 20:43:39.479560  5406 net.cpp:399] inception_4b/3x3 -> inception_4b/3x3
I0714 20:43:39.486253  5410 net.cpp:141] Setting up inception_4b/3x3_reduce
I0714 20:43:39.486273  5410 net.cpp:148] Top shape: 10 112 14 14 (219520)
I0714 20:43:39.486279  5410 net.cpp:156] Memory required for data: 393003520
I0714 20:43:39.486289  5410 layer_factory.hpp:77] Creating layer inception_4b/relu_3x3_reduce
I0714 20:43:39.486299  5410 net.cpp:91] Creating Layer inception_4b/relu_3x3_reduce
I0714 20:43:39.486305  5410 net.cpp:425] inception_4b/relu_3x3_reduce <- inception_4b/3x3_reduce
I0714 20:43:39.486316  5410 net.cpp:386] inception_4b/relu_3x3_reduce -> inception_4b/3x3_reduce (in-place)
I0714 20:43:39.486611  5410 net.cpp:141] Setting up inception_4b/relu_3x3_reduce
I0714 20:43:39.486624  5410 net.cpp:148] Top shape: 10 112 14 14 (219520)
I0714 20:43:39.486629  5410 net.cpp:156] Memory required for data: 393881600
I0714 20:43:39.486634  5410 layer_factory.hpp:77] Creating layer inception_4b/3x3
I0714 20:43:39.486655  5410 net.cpp:91] Creating Layer inception_4b/3x3
I0714 20:43:39.486662  5410 net.cpp:425] inception_4b/3x3 <- inception_4b/3x3_reduce
I0714 20:43:39.486672  5410 net.cpp:399] inception_4b/3x3 -> inception_4b/3x3
I0714 20:43:39.489944  5406 net.cpp:141] Setting up inception_4b/3x3
I0714 20:43:39.489966  5406 net.cpp:148] Top shape: 10 224 14 14 (439040)
I0714 20:43:39.489972  5406 net.cpp:156] Memory required for data: 395637760
I0714 20:43:39.489982  5406 layer_factory.hpp:77] Creating layer inception_4b/relu_3x3
I0714 20:43:39.489996  5406 net.cpp:91] Creating Layer inception_4b/relu_3x3
I0714 20:43:39.490005  5406 net.cpp:425] inception_4b/relu_3x3 <- inception_4b/3x3
I0714 20:43:39.490012  5406 net.cpp:386] inception_4b/relu_3x3 -> inception_4b/3x3 (in-place)
I0714 20:43:39.490877  5406 net.cpp:141] Setting up inception_4b/relu_3x3
I0714 20:43:39.490897  5406 net.cpp:148] Top shape: 10 224 14 14 (439040)
I0714 20:43:39.490903  5406 net.cpp:156] Memory required for data: 397393920
I0714 20:43:39.490911  5406 layer_factory.hpp:77] Creating layer inception_4b/5x5_reduce
I0714 20:43:39.490942  5406 net.cpp:91] Creating Layer inception_4b/5x5_reduce
I0714 20:43:39.490948  5406 net.cpp:425] inception_4b/5x5_reduce <- inception_4a/output_inception_4a/output_0_split_2
I0714 20:43:39.490958  5406 net.cpp:399] inception_4b/5x5_reduce -> inception_4b/5x5_reduce
I0714 20:43:39.495477  5406 net.cpp:141] Setting up inception_4b/5x5_reduce
I0714 20:43:39.495496  5406 net.cpp:148] Top shape: 10 24 14 14 (47040)
I0714 20:43:39.495501  5406 net.cpp:156] Memory required for data: 397582080
I0714 20:43:39.495512  5406 layer_factory.hpp:77] Creating layer inception_4b/relu_5x5_reduce
I0714 20:43:39.495524  5406 net.cpp:91] Creating Layer inception_4b/relu_5x5_reduce
I0714 20:43:39.495532  5406 net.cpp:425] inception_4b/relu_5x5_reduce <- inception_4b/5x5_reduce
I0714 20:43:39.495539  5406 net.cpp:386] inception_4b/relu_5x5_reduce -> inception_4b/5x5_reduce (in-place)
I0714 20:43:39.495956  5410 net.cpp:141] Setting up inception_4b/3x3
I0714 20:43:39.495978  5410 net.cpp:148] Top shape: 10 224 14 14 (439040)
I0714 20:43:39.495985  5410 net.cpp:156] Memory required for data: 395637760
I0714 20:43:39.495995  5410 layer_factory.hpp:77] Creating layer inception_4b/relu_3x3
I0714 20:43:39.496013  5406 net.cpp:141] Setting up inception_4b/relu_5x5_reduce
I0714 20:43:39.496021  5410 net.cpp:91] Creating Layer inception_4b/relu_3x3
I0714 20:43:39.496027  5406 net.cpp:148] Top shape: 10 24 14 14 (47040)
I0714 20:43:39.496029  5410 net.cpp:425] inception_4b/relu_3x3 <- inception_4b/3x3
I0714 20:43:39.496037  5406 net.cpp:156] Memory required for data: 397770240
I0714 20:43:39.496050  5410 net.cpp:386] inception_4b/relu_3x3 -> inception_4b/3x3 (in-place)
I0714 20:43:39.496054  5406 layer_factory.hpp:77] Creating layer inception_4b/5x5
I0714 20:43:39.496083  5406 net.cpp:91] Creating Layer inception_4b/5x5
I0714 20:43:39.496091  5406 net.cpp:425] inception_4b/5x5 <- inception_4b/5x5_reduce
I0714 20:43:39.496101  5406 net.cpp:399] inception_4b/5x5 -> inception_4b/5x5
I0714 20:43:39.497099  5410 net.cpp:141] Setting up inception_4b/relu_3x3
I0714 20:43:39.497119  5410 net.cpp:148] Top shape: 10 224 14 14 (439040)
I0714 20:43:39.497124  5410 net.cpp:156] Memory required for data: 397393920
I0714 20:43:39.497130  5410 layer_factory.hpp:77] Creating layer inception_4b/5x5_reduce
I0714 20:43:39.497164  5410 net.cpp:91] Creating Layer inception_4b/5x5_reduce
I0714 20:43:39.497172  5410 net.cpp:425] inception_4b/5x5_reduce <- inception_4a/output_inception_4a/output_0_split_2
I0714 20:43:39.497182  5410 net.cpp:399] inception_4b/5x5_reduce -> inception_4b/5x5_reduce
I0714 20:43:39.503152  5406 net.cpp:141] Setting up inception_4b/5x5
I0714 20:43:39.503175  5406 net.cpp:148] Top shape: 10 64 14 14 (125440)
I0714 20:43:39.503180  5406 net.cpp:156] Memory required for data: 398272000
I0714 20:43:39.503190  5406 layer_factory.hpp:77] Creating layer inception_4b/relu_5x5
I0714 20:43:39.503199  5406 net.cpp:91] Creating Layer inception_4b/relu_5x5
I0714 20:43:39.503206  5406 net.cpp:425] inception_4b/relu_5x5 <- inception_4b/5x5
I0714 20:43:39.503218  5406 net.cpp:386] inception_4b/relu_5x5 -> inception_4b/5x5 (in-place)
I0714 20:43:39.503686  5406 net.cpp:141] Setting up inception_4b/relu_5x5
I0714 20:43:39.503700  5410 net.cpp:141] Setting up inception_4b/5x5_reduce
I0714 20:43:39.503703  5406 net.cpp:148] Top shape: 10 64 14 14 (125440)
I0714 20:43:39.503720  5410 net.cpp:148] Top shape: 10 24 14 14 (47040)
I0714 20:43:39.503720  5406 net.cpp:156] Memory required for data: 398773760
I0714 20:43:39.503728  5410 net.cpp:156] Memory required for data: 397582080
I0714 20:43:39.503734  5406 layer_factory.hpp:77] Creating layer inception_4b/pool
I0714 20:43:39.503741  5410 layer_factory.hpp:77] Creating layer inception_4b/relu_5x5_reduce
I0714 20:43:39.503746  5406 net.cpp:91] Creating Layer inception_4b/pool
I0714 20:43:39.503752  5406 net.cpp:425] inception_4b/pool <- inception_4a/output_inception_4a/output_0_split_3
I0714 20:43:39.503754  5410 net.cpp:91] Creating Layer inception_4b/relu_5x5_reduce
I0714 20:43:39.503762  5406 net.cpp:399] inception_4b/pool -> inception_4b/pool
I0714 20:43:39.503762  5410 net.cpp:425] inception_4b/relu_5x5_reduce <- inception_4b/5x5_reduce
I0714 20:43:39.503780  5410 net.cpp:386] inception_4b/relu_5x5_reduce -> inception_4b/5x5_reduce (in-place)
I0714 20:43:39.504155  5406 net.cpp:141] Setting up inception_4b/pool
I0714 20:43:39.504168  5406 net.cpp:148] Top shape: 10 512 14 14 (1003520)
I0714 20:43:39.504173  5406 net.cpp:156] Memory required for data: 402787840
I0714 20:43:39.504179  5406 layer_factory.hpp:77] Creating layer inception_4b/pool_proj
I0714 20:43:39.504194  5406 net.cpp:91] Creating Layer inception_4b/pool_proj
I0714 20:43:39.504201  5406 net.cpp:425] inception_4b/pool_proj <- inception_4b/pool
I0714 20:43:39.504215  5406 net.cpp:399] inception_4b/pool_proj -> inception_4b/pool_proj
I0714 20:43:39.504231  5410 net.cpp:141] Setting up inception_4b/relu_5x5_reduce
I0714 20:43:39.504246  5410 net.cpp:148] Top shape: 10 24 14 14 (47040)
I0714 20:43:39.504251  5410 net.cpp:156] Memory required for data: 397770240
I0714 20:43:39.504256  5410 layer_factory.hpp:77] Creating layer inception_4b/5x5
I0714 20:43:39.504277  5410 net.cpp:91] Creating Layer inception_4b/5x5
I0714 20:43:39.504284  5410 net.cpp:425] inception_4b/5x5 <- inception_4b/5x5_reduce
I0714 20:43:39.504294  5410 net.cpp:399] inception_4b/5x5 -> inception_4b/5x5
I0714 20:43:39.511029  5406 net.cpp:141] Setting up inception_4b/pool_proj
I0714 20:43:39.511049  5406 net.cpp:148] Top shape: 10 64 14 14 (125440)
I0714 20:43:39.511055  5406 net.cpp:156] Memory required for data: 403289600
I0714 20:43:39.511065  5406 layer_factory.hpp:77] Creating layer inception_4b/relu_pool_proj
I0714 20:43:39.511077  5406 net.cpp:91] Creating Layer inception_4b/relu_pool_proj
I0714 20:43:39.511085  5406 net.cpp:425] inception_4b/relu_pool_proj <- inception_4b/pool_proj
I0714 20:43:39.511092  5406 net.cpp:386] inception_4b/relu_pool_proj -> inception_4b/pool_proj (in-place)
I0714 20:43:39.511997  5410 net.cpp:141] Setting up inception_4b/5x5
I0714 20:43:39.512018  5410 net.cpp:148] Top shape: 10 64 14 14 (125440)
I0714 20:43:39.512024  5410 net.cpp:156] Memory required for data: 398272000
I0714 20:43:39.512034  5410 layer_factory.hpp:77] Creating layer inception_4b/relu_5x5
I0714 20:43:39.512044  5410 net.cpp:91] Creating Layer inception_4b/relu_5x5
I0714 20:43:39.512050  5410 net.cpp:425] inception_4b/relu_5x5 <- inception_4b/5x5
I0714 20:43:39.512063  5410 net.cpp:386] inception_4b/relu_5x5 -> inception_4b/5x5 (in-place)
I0714 20:43:39.512073  5406 net.cpp:141] Setting up inception_4b/relu_pool_proj
I0714 20:43:39.512089  5406 net.cpp:148] Top shape: 10 64 14 14 (125440)
I0714 20:43:39.512094  5406 net.cpp:156] Memory required for data: 403791360
I0714 20:43:39.512099  5406 layer_factory.hpp:77] Creating layer inception_4b/output
I0714 20:43:39.512110  5406 net.cpp:91] Creating Layer inception_4b/output
I0714 20:43:39.512116  5406 net.cpp:425] inception_4b/output <- inception_4b/1x1
I0714 20:43:39.512125  5406 net.cpp:425] inception_4b/output <- inception_4b/3x3
I0714 20:43:39.512130  5406 net.cpp:425] inception_4b/output <- inception_4b/5x5
I0714 20:43:39.512135  5406 net.cpp:425] inception_4b/output <- inception_4b/pool_proj
I0714 20:43:39.512142  5406 net.cpp:399] inception_4b/output -> inception_4b/output
I0714 20:43:39.512341  5406 net.cpp:141] Setting up inception_4b/output
I0714 20:43:39.512356  5406 net.cpp:148] Top shape: 10 512 14 14 (1003520)
I0714 20:43:39.512361  5406 net.cpp:156] Memory required for data: 407805440
I0714 20:43:39.512367  5406 layer_factory.hpp:77] Creating layer inception_4b/output_inception_4b/output_0_split
I0714 20:43:39.512374  5406 net.cpp:91] Creating Layer inception_4b/output_inception_4b/output_0_split
I0714 20:43:39.512380  5406 net.cpp:425] inception_4b/output_inception_4b/output_0_split <- inception_4b/output
I0714 20:43:39.512388  5406 net.cpp:399] inception_4b/output_inception_4b/output_0_split -> inception_4b/output_inception_4b/output_0_split_0
I0714 20:43:39.512398  5406 net.cpp:399] inception_4b/output_inception_4b/output_0_split -> inception_4b/output_inception_4b/output_0_split_1
I0714 20:43:39.512411  5406 net.cpp:399] inception_4b/output_inception_4b/output_0_split -> inception_4b/output_inception_4b/output_0_split_2
I0714 20:43:39.512420  5406 net.cpp:399] inception_4b/output_inception_4b/output_0_split -> inception_4b/output_inception_4b/output_0_split_3
I0714 20:43:39.512444  5410 net.cpp:141] Setting up inception_4b/relu_5x5
I0714 20:43:39.512459  5410 net.cpp:148] Top shape: 10 64 14 14 (125440)
I0714 20:43:39.512465  5410 net.cpp:156] Memory required for data: 398773760
I0714 20:43:39.512471  5410 layer_factory.hpp:77] Creating layer inception_4b/pool
I0714 20:43:39.512482  5410 net.cpp:91] Creating Layer inception_4b/pool
I0714 20:43:39.512488  5410 net.cpp:425] inception_4b/pool <- inception_4a/output_inception_4a/output_0_split_3
I0714 20:43:39.512497  5410 net.cpp:399] inception_4b/pool -> inception_4b/pool
I0714 20:43:39.512807  5410 net.cpp:141] Setting up inception_4b/pool
I0714 20:43:39.512820  5410 net.cpp:148] Top shape: 10 512 14 14 (1003520)
I0714 20:43:39.512825  5410 net.cpp:156] Memory required for data: 402787840
I0714 20:43:39.512830  5410 layer_factory.hpp:77] Creating layer inception_4b/pool_proj
I0714 20:43:39.512832  5406 net.cpp:141] Setting up inception_4b/output_inception_4b/output_0_split
I0714 20:43:39.512845  5406 net.cpp:148] Top shape: 10 512 14 14 (1003520)
I0714 20:43:39.512848  5410 net.cpp:91] Creating Layer inception_4b/pool_proj
I0714 20:43:39.512853  5406 net.cpp:148] Top shape: 10 512 14 14 (1003520)
I0714 20:43:39.512856  5410 net.cpp:425] inception_4b/pool_proj <- inception_4b/pool
I0714 20:43:39.512861  5406 net.cpp:148] Top shape: 10 512 14 14 (1003520)
I0714 20:43:39.512867  5406 net.cpp:148] Top shape: 10 512 14 14 (1003520)
I0714 20:43:39.512871  5410 net.cpp:399] inception_4b/pool_proj -> inception_4b/pool_proj
I0714 20:43:39.512872  5406 net.cpp:156] Memory required for data: 423861760
I0714 20:43:39.512888  5406 layer_factory.hpp:77] Creating layer inception_4c/1x1
I0714 20:43:39.512904  5406 net.cpp:91] Creating Layer inception_4c/1x1
I0714 20:43:39.512912  5406 net.cpp:425] inception_4c/1x1 <- inception_4b/output_inception_4b/output_0_split_0
I0714 20:43:39.512920  5406 net.cpp:399] inception_4c/1x1 -> inception_4c/1x1
I0714 20:43:39.518461  5410 net.cpp:141] Setting up inception_4b/pool_proj
I0714 20:43:39.518482  5410 net.cpp:148] Top shape: 10 64 14 14 (125440)
I0714 20:43:39.518488  5410 net.cpp:156] Memory required for data: 403289600
I0714 20:43:39.518498  5410 layer_factory.hpp:77] Creating layer inception_4b/relu_pool_proj
I0714 20:43:39.518512  5410 net.cpp:91] Creating Layer inception_4b/relu_pool_proj
I0714 20:43:39.518519  5410 net.cpp:425] inception_4b/relu_pool_proj <- inception_4b/pool_proj
I0714 20:43:39.518527  5410 net.cpp:386] inception_4b/relu_pool_proj -> inception_4b/pool_proj (in-place)
I0714 20:43:39.519673  5410 net.cpp:141] Setting up inception_4b/relu_pool_proj
I0714 20:43:39.519691  5410 net.cpp:148] Top shape: 10 64 14 14 (125440)
I0714 20:43:39.519697  5410 net.cpp:156] Memory required for data: 403791360
I0714 20:43:39.519702  5410 layer_factory.hpp:77] Creating layer inception_4b/output
…
I0714 20:43:39.654744  5406 net.cpp:141] Setting up inception_4e/5x5
I0714 20:43:39.654767  5406 net.cpp:148] Top shape: 10 128 14 14 (250880)
I0714 20:43:39.654772  5406 net.cpp:156] Memory required for data: 507153920
I0714 20:43:39.654783  5406 layer_factory.hpp:77] Creating layer inception_4e/relu_5x5
I0714 20:43:39.654793  5406 net.cpp:91] Creating Layer inception_4e/relu_5x5
I0714 20:43:39.654798  5406 net.cpp:425] inception_4e/relu_5x5 <- inception_4e/5x5
I0714 20:43:39.654809  5406 net.cpp:386] inception_4e/relu_5x5 -> inception_4e/5x5 (in-place)
I0714 20:43:39.654827  5410 net.cpp:141] Setting up inception_4e/relu_5x5_reduce
I0714 20:43:39.654842  5410 net.cpp:148] Top shape: 10 32 14 14 (62720)
I0714 20:43:39.654847  5410 net.cpp:156] Memory required for data: 506150400
I0714 20:43:39.654852  5410 layer_factory.hpp:77] Creating layer inception_4e/5x5
I0714 20:43:39.654877  5410 net.cpp:91] Creating Layer inception_4e/5x5
I0714 20:43:39.654884  5410 net.cpp:425] inception_4e/5x5 <- inception_4e/5x5_reduce
I0714 20:43:39.654894  5410 net.cpp:399] inception_4e/5x5 -> inception_4e/5x5
I0714 20:43:39.655297  5406 net.cpp:141] Setting up inception_4e/relu_5x5
I0714 20:43:39.655310  5406 net.cpp:148] Top shape: 10 128 14 14 (250880)
I0714 20:43:39.655315  5406 net.cpp:156] Memory required for data: 508157440
I0714 20:43:39.655321  5406 layer_factory.hpp:77] Creating layer inception_4e/pool
I0714 20:43:39.655336  5406 net.cpp:91] Creating Layer inception_4e/pool
I0714 20:43:39.655344  5406 net.cpp:425] inception_4e/pool <- inception_4d/output_inception_4d/output_0_split_3
I0714 20:43:39.655352  5406 net.cpp:399] inception_4e/pool -> inception_4e/pool
I0714 20:43:39.655740  5406 net.cpp:141] Setting up inception_4e/pool
I0714 20:43:39.655753  5406 net.cpp:148] Top shape: 10 528 14 14 (1034880)
I0714 20:43:39.655760  5406 net.cpp:156] Memory required for data: 512296960
I0714 20:43:39.655764  5406 layer_factory.hpp:77] Creating layer inception_4e/pool_proj
I0714 20:43:39.655782  5406 net.cpp:91] Creating Layer inception_4e/pool_proj
I0714 20:43:39.655789  5406 net.cpp:425] inception_4e/pool_proj <- inception_4e/pool
I0714 20:43:39.655802  5406 net.cpp:399] inception_4e/pool_proj -> inception_4e/pool_proj
I0714 20:43:39.662055  5406 net.cpp:141] Setting up inception_4e/pool_proj
I0714 20:43:39.662075  5406 net.cpp:148] Top shape: 10 128 14 14 (250880)
I0714 20:43:39.662081  5406 net.cpp:156] Memory required for data: 513300480
I0714 20:43:39.662091  5406 layer_factory.hpp:77] Creating layer inception_4e/relu_pool_proj
I0714 20:43:39.662101  5406 net.cpp:91] Creating Layer inception_4e/relu_pool_proj
I0714 20:43:39.662107  5406 net.cpp:425] inception_4e/relu_pool_proj <- inception_4e/pool_proj
I0714 20:43:39.662117  5406 net.cpp:386] inception_4e/relu_pool_proj -> inception_4e/pool_proj (in-place)
I0714 20:43:39.663107  5410 net.cpp:141] Setting up inception_4e/5x5
I0714 20:43:39.663130  5410 net.cpp:148] Top shape: 10 128 14 14 (250880)
I0714 20:43:39.663136  5410 net.cpp:156] Memory required for data: 507153920
I0714 20:43:39.663147  5410 layer_factory.hpp:77] Creating layer inception_4e/relu_5x5
I0714 20:43:39.663163  5410 net.cpp:91] Creating Layer inception_4e/relu_5x5
I0714 20:43:39.663170  5410 net.cpp:425] inception_4e/relu_5x5 <- inception_4e/5x5
I0714 20:43:39.663179  5410 net.cpp:386] inception_4e/relu_5x5 -> inception_4e/5x5 (in-place)
I0714 20:43:39.663192  5406 net.cpp:141] Setting up inception_4e/relu_pool_proj
I0714 20:43:39.663208  5406 net.cpp:148] Top shape: 10 128 14 14 (250880)
I0714 20:43:39.663213  5406 net.cpp:156] Memory required for data: 514304000
I0714 20:43:39.663218  5406 layer_factory.hpp:77] Creating layer inception_4e/output
I0714 20:43:39.663228  5406 net.cpp:91] Creating Layer inception_4e/output
I0714 20:43:39.663234  5406 net.cpp:425] inception_4e/output <- inception_4e/1x1
I0714 20:43:39.663241  5406 net.cpp:425] inception_4e/output <- inception_4e/3x3
I0714 20:43:39.663247  5406 net.cpp:425] inception_4e/output <- inception_4e/5x5
I0714 20:43:39.663254  5406 net.cpp:425] inception_4e/output <- inception_4e/pool_proj
I0714 20:43:39.663267  5406 net.cpp:399] inception_4e/output -> inception_4e/output
I0714 20:43:39.663475  5406 net.cpp:141] Setting up inception_4e/output
I0714 20:43:39.663488  5406 net.cpp:148] Top shape: 10 832 14 14 (1630720)
I0714 20:43:39.663493  5406 net.cpp:156] Memory required for data: 520826880
I0714 20:43:39.663498  5406 layer_factory.hpp:77] Creating layer pool4/3x3_s2
I0714 20:43:39.663509  5406 net.cpp:91] Creating Layer pool4/3x3_s2
I0714 20:43:39.663516  5406 net.cpp:425] pool4/3x3_s2 <- inception_4e/output
I0714 20:43:39.663527  5406 net.cpp:399] pool4/3x3_s2 -> pool4/3x3_s2
I0714 20:43:39.663600  5410 net.cpp:141] Setting up inception_4e/relu_5x5
I0714 20:43:39.663615  5410 net.cpp:148] Top shape: 10 128 14 14 (250880)
I0714 20:43:39.663620  5410 net.cpp:156] Memory required for data: 508157440
I0714 20:43:39.663625  5410 layer_factory.hpp:77] Creating layer inception_4e/pool
I0714 20:43:39.663637  5410 net.cpp:91] Creating Layer inception_4e/pool
I0714 20:43:39.663643  5410 net.cpp:425] inception_4e/pool <- inception_4d/output_inception_4d/output_0_split_3
I0714 20:43:39.663656  5410 net.cpp:399] inception_4e/pool -> inception_4e/pool
I0714 20:43:39.663691  5406 net.cpp:141] Setting up pool4/3x3_s2
I0714 20:43:39.663703  5406 net.cpp:148] Top shape: 10 832 7 7 (407680)
I0714 20:43:39.663708  5406 net.cpp:156] Memory required for data: 522457600
I0714 20:43:39.663713  5406 layer_factory.hpp:77] Creating layer pool4/3x3_s2_pool4/3x3_s2_0_split
I0714 20:43:39.663722  5406 net.cpp:91] Creating Layer pool4/3x3_s2_pool4/3x3_s2_0_split
I0714 20:43:39.663727  5406 net.cpp:425] pool4/3x3_s2_pool4/3x3_s2_0_split <- pool4/3x3_s2
I0714 20:43:39.663739  5406 net.cpp:399] pool4/3x3_s2_pool4/3x3_s2_0_split -> pool4/3x3_s2_pool4/3x3_s2_0_split_0
I0714 20:43:39.663749  5406 net.cpp:399] pool4/3x3_s2_pool4/3x3_s2_0_split -> pool4/3x3_s2_pool4/3x3_s2_0_split_1
I0714 20:43:39.663758  5406 net.cpp:399] pool4/3x3_s2_pool4/3x3_s2_0_split -> pool4/3x3_s2_pool4/3x3_s2_0_split_2
I0714 20:43:39.663766  5406 net.cpp:399] pool4/3x3_s2_pool4/3x3_s2_0_split -> pool4/3x3_s2_pool4/3x3_s2_0_split_3
I0714 20:43:39.663880  5410 net.cpp:141] Setting up inception_4e/pool
I0714 20:43:39.663894  5410 net.cpp:148] Top shape: 10 528 14 14 (1034880)
I0714 20:43:39.663899  5410 net.cpp:156] Memory required for data: 512296960
I0714 20:43:39.663904  5410 layer_factory.hpp:77] Creating layer inception_4e/pool_proj
I0714 20:43:39.663923  5410 net.cpp:91] Creating Layer inception_4e/pool_proj
I0714 20:43:39.663930  5410 net.cpp:425] inception_4e/pool_proj <- inception_4e/pool
I0714 20:43:39.663946  5410 net.cpp:399] inception_4e/pool_proj -> inception_4e/pool_proj
I0714 20:43:39.664209  5406 net.cpp:141] Setting up pool4/3x3_s2_pool4/3x3_s2_0_split
I0714 20:43:39.664222  5406 net.cpp:148] Top shape: 10 832 7 7 (407680)
I0714 20:43:39.664228  5406 net.cpp:148] Top shape: 10 832 7 7 (407680)
I0714 20:43:39.664234  5406 net.cpp:148] Top shape: 10 832 7 7 (407680)
I0714 20:43:39.664240  5406 net.cpp:148] Top shape: 10 832 7 7 (407680)
I0714 20:43:39.664244  5406 net.cpp:156] Memory required for data: 528980480
I0714 20:43:39.664250  5406 layer_factory.hpp:77] Creating layer inception_5a/1x1
I0714 20:43:39.664263  5406 net.cpp:91] Creating Layer inception_5a/1x1
I0714 20:43:39.664269  5406 net.cpp:425] inception_5a/1x1 <- pool4/3x3_s2_pool4/3x3_s2_0_split_0
I0714 20:43:39.664283  5406 net.cpp:399] inception_5a/1x1 -> inception_5a/1x1
I0714 20:43:39.672016  5410 net.cpp:141] Setting up inception_4e/pool_proj
I0714 20:43:39.672044  5410 net.cpp:148] Top shape: 10 128 14 14 (250880)
I0714 20:43:39.672050  5410 net.cpp:156] Memory required for data: 513300480
I0714 20:43:39.672061  5410 layer_factory.hpp:77] Creating layer inception_4e/relu_pool_proj
I0714 20:43:39.672073  5410 net.cpp:91] Creating Layer inception_4e/relu_pool_proj
I0714 20:43:39.672080  5410 net.cpp:425] inception_4e/relu_pool_proj <- inception_4e/pool_proj
I0714 20:43:39.672088  5410 net.cpp:386] inception_4e/relu_pool_proj -> inception_4e/pool_proj (in-place)
I0714 20:43:39.673285  5410 net.cpp:141] Setting up inception_4e/relu_pool_proj
I0714 20:43:39.673303  5410 net.cpp:148] Top shape: 10 128 14 14 (250880)
I0714 20:43:39.673308  5410 net.cpp:156] Memory required for data: 514304000
I0714 20:43:39.673315  5410 layer_factory.hpp:77] Creating layer inception_4e/output
I0714 20:43:39.673324  5410 net.cpp:91] Creating Layer inception_4e/output
I0714 20:43:39.673331  5410 net.cpp:425] inception_4e/output <- inception_4e/1x1
I0714 20:43:39.673339  5410 net.cpp:425] inception_4e/output <- inception_4e/3x3
I0714 20:43:39.673346  5410 net.cpp:425] inception_4e/output <- inception_4e/5x5
I0714 20:43:39.673352  5410 net.cpp:425] inception_4e/output <- inception_4e/pool_proj
I0714 20:43:39.673358  5410 net.cpp:399] inception_4e/output -> inception_4e/output
I0714 20:43:39.673372  5406 net.cpp:141] Setting up inception_5a/1x1
I0714 20:43:39.673389  5406 net.cpp:148] Top shape: 10 256 7 7 (125440)
I0714 20:43:39.673395  5406 net.cpp:156] Memory required for data: 529482240
I0714 20:43:39.673404  5406 layer_factory.hpp:77] Creating layer inception_5a/relu_1x1
I0714 20:43:39.673418  5406 net.cpp:91] Creating Layer inception_5a/relu_1x1
I0714 20:43:39.673425  5406 net.cpp:425] inception_5a/relu_1x1 <- inception_5a/1x1
I0714 20:43:39.673435  5406 net.cpp:386] inception_5a/relu_1x1 -> inception_5a/1x1 (in-place)
I0714 20:43:39.673475  5410 net.cpp:141] Setting up inception_4e/output
I0714 20:43:39.673488  5410 net.cpp:148] Top shape: 10 832 14 14 (1630720)
I0714 20:43:39.673492  5410 net.cpp:156] Memory required for data: 520826880
I0714 20:43:39.673498  5410 layer_factory.hpp:77] Creating layer pool4/3x3_s2
I0714 20:43:39.673508  5410 net.cpp:91] Creating Layer pool4/3x3_s2
I0714 20:43:39.673514  5410 net.cpp:425] pool4/3x3_s2 <- inception_4e/output
I0714 20:43:39.673527  5410 net.cpp:399] pool4/3x3_s2 -> pool4/3x3_s2
I0714 20:43:39.673826  5410 net.cpp:141] Setting up pool4/3x3_s2
I0714 20:43:39.673840  5410 net.cpp:148] Top shape: 10 832 7 7 (407680)
I0714 20:43:39.673845  5410 net.cpp:156] Memory required for data: 522457600
I0714 20:43:39.673849  5410 layer_factory.hpp:77] Creating layer pool4/3x3_s2_pool4/3x3_s2_0_split
I0714 20:43:39.673861  5410 net.cpp:91] Creating Layer pool4/3x3_s2_pool4/3x3_s2_0_split
I0714 20:43:39.673866  5410 net.cpp:425] pool4/3x3_s2_pool4/3x3_s2_0_split <- pool4/3x3_s2
I0714 20:43:39.673877  5410 net.cpp:399] pool4/3x3_s2_pool4/3x3_s2_0_split -> pool4/3x3_s2_pool4/3x3_s2_0_split_0
I0714 20:43:39.673888  5410 net.cpp:399] pool4/3x3_s2_pool4/3x3_s2_0_split -> pool4/3x3_s2_pool4/3x3_s2_0_split_1
I0714 20:43:39.673897  5410 net.cpp:399] pool4/3x3_s2_pool4/3x3_s2_0_split -> pool4/3x3_s2_pool4/3x3_s2_0_split_2
I0714 20:43:39.673905  5410 net.cpp:399] pool4/3x3_s2_pool4/3x3_s2_0_split -> pool4/3x3_s2_pool4/3x3_s2_0_split_3
I0714 20:43:39.673916  5406 net.cpp:141] Setting up inception_5a/relu_1x1
I0714 20:43:39.673931  5406 net.cpp:148] Top shape: 10 256 7 7 (125440)
I0714 20:43:39.673936  5406 net.cpp:156] Memory required for data: 529984000
I0714 20:43:39.673941  5406 layer_factory.hpp:77] Creating layer inception_5a/3x3_reduce
I0714 20:43:39.673960  5406 net.cpp:91] Creating Layer inception_5a/3x3_reduce
I0714 20:43:39.673969  5406 net.cpp:425] inception_5a/3x3_reduce <- pool4/3x3_s2_pool4/3x3_s2_0_split_1
I0714 20:43:39.673980  5406 net.cpp:399] inception_5a/3x3_reduce -> inception_5a/3x3_reduce
I0714 20:43:39.674439  5410 net.cpp:141] Setting up pool4/3x3_s2_pool4/3x3_s2_0_split
I0714 20:43:39.674453  5410 net.cpp:148] Top shape: 10 832 7 7 (407680)
I0714 20:43:39.674459  5410 net.cpp:148] Top shape: 10 832 7 7 (407680)
I0714 20:43:39.674465  5410 net.cpp:148] Top shape: 10 832 7 7 (407680)
I0714 20:43:39.674471  5410 net.cpp:148] Top shape: 10 832 7 7 (407680)
I0714 20:43:39.674475  5410 net.cpp:156] Memory required for data: 528980480
I0714 20:43:39.674481  5410 layer_factory.hpp:77] Creating layer inception_5a/1x1
I0714 20:43:39.674496  5410 net.cpp:91] Creating Layer inception_5a/1x1
I0714 20:43:39.674502  5410 net.cpp:425] inception_5a/1x1 <- pool4/3x3_s2_pool4/3x3_s2_0_split_0
I0714 20:43:39.674516  5410 net.cpp:399] inception_5a/1x1 -> inception_5a/1x1
I0714 20:43:39.683075  5406 net.cpp:141] Setting up inception_5a/3x3_reduce
I0714 20:43:39.683101  5406 net.cpp:148] Top shape: 10 160 7 7 (78400)
I0714 20:43:39.683107  5406 net.cpp:156] Memory required for data: 530297600
I0714 20:43:39.683117  5406 layer_factory.hpp:77] Creating layer inception_5a/relu_3x3_reduce
I0714 20:43:39.683127  5406 net.cpp:91] Creating Layer inception_5a/relu_3x3_reduce
I0714 20:43:39.683135  5406 net.cpp:425] inception_5a/relu_3x3_reduce <- inception_5a/3x3_reduce
I0714 20:43:39.683142  5406 net.cpp:386] inception_5a/relu_3x3_reduce -> inception_5a/3x3_reduce (in-place)
I0714 20:43:39.683604  5406 net.cpp:141] Setting up inception_5a/relu_3x3_reduce
I0714 20:43:39.683617  5406 net.cpp:148] Top shape: 10 160 7 7 (78400)
I0714 20:43:39.683622  5406 net.cpp:156] Memory required for data: 530611200
I0714 20:43:39.683627  5406 layer_factory.hpp:77] Creating layer inception_5a/3x3
I0714 20:43:39.683645  5406 net.cpp:91] Creating Layer inception_5a/3x3
I0714 20:43:39.683651  5406 net.cpp:425] inception_5a/3x3 <- inception_5a/3x3_reduce
I0714 20:43:39.683665  5406 net.cpp:399] inception_5a/3x3 -> inception_5a/3x3
I0714 20:43:39.686061  5410 net.cpp:141] Setting up inception_5a/1x1
I0714 20:43:39.686085  5410 net.cpp:148] Top shape: 10 256 7 7 (125440)
I0714 20:43:39.686091  5410 net.cpp:156] Memory required for data: 529482240
I0714 20:43:39.686102  5410 layer_factory.hpp:77] Creating layer inception_5a/relu_1x1
I0714 20:43:39.686117  5410 net.cpp:91] Creating Layer inception_5a/relu_1x1
I0714 20:43:39.686125  5410 net.cpp:425] inception_5a/relu_1x1 <- inception_5a/1x1
I0714 20:43:39.686133  5410 net.cpp:386] inception_5a/relu_1x1 -> inception_5a/1x1 (in-place)
I0714 20:43:39.686452  5410 net.cpp:141] Setting up inception_5a/relu_1x1
I0714 20:43:39.686465  5410 net.cpp:148] Top shape: 10 256 7 7 (125440)
I0714 20:43:39.686470  5410 net.cpp:156] Memory required for data: 529984000
I0714 20:43:39.686475  5410 layer_factory.hpp:77] Creating layer inception_5a/3x3_reduce
I0714 20:43:39.686493  5410 net.cpp:91] Creating Layer inception_5a/3x3_reduce
I0714 20:43:39.686501  5410 net.cpp:425] inception_5a/3x3_reduce <- pool4/3x3_s2_pool4/3x3_s2_0_split_1
I0714 20:43:39.686514  5410 net.cpp:399] inception_5a/3x3_reduce -> inception_5a/3x3_reduce
I0714 20:43:39.695076  5410 net.cpp:141] Setting up inception_5a/3x3_reduce
I0714 20:43:39.695096  5410 net.cpp:148] Top shape: 10 160 7 7 (78400)
I0714 20:43:39.695106  5410 net.cpp:156] Memory required for data: 530297600
I0714 20:43:39.695116  5410 layer_factory.hpp:77] Creating layer inception_5a/relu_3x3_reduce
I0714 20:43:39.695127  5410 net.cpp:91] Creating Layer inception_5a/relu_3x3_reduce
I0714 20:43:39.695133  5410 net.cpp:425] inception_5a/relu_3x3_reduce <- inception_5a/3x3_reduce
I0714 20:43:39.695142  5410 net.cpp:386] inception_5a/relu_3x3_reduce -> inception_5a/3x3_reduce (in-place)
I0714 20:43:39.695650  5410 net.cpp:141] Setting up inception_5a/relu_3x3_reduce
I0714 20:43:39.695667  5410 net.cpp:148] Top shape: 10 160 7 7 (78400)
I0714 20:43:39.695672  5410 net.cpp:156] Memory required for data: 530611200
I0714 20:43:39.695677  5410 layer_factory.hpp:77] Creating layer inception_5a/3x3
I0714 20:43:39.695696  5410 net.cpp:91] Creating Layer inception_5a/3x3
I0714 20:43:39.695703  5410 net.cpp:425] inception_5a/3x3 <- inception_5a/3x3_reduce
I0714 20:43:39.695718  5410 net.cpp:399] inception_5a/3x3 -> inception_5a/3x3
I0714 20:43:39.696586  5406 net.cpp:141] Setting up inception_5a/3x3
I0714 20:43:39.696609  5406 net.cpp:148] Top shape: 10 320 7 7 (156800)
I0714 20:43:39.696614  5406 net.cpp:156] Memory required for data: 531238400
I0714 20:43:39.696625  5406 layer_factory.hpp:77] Creating layer inception_5a/relu_3x3
I0714 20:43:39.696638  5406 net.cpp:91] Creating Layer inception_5a/relu_3x3
I0714 20:43:39.696646  5406 net.cpp:425] inception_5a/relu_3x3 <- inception_5a/3x3
I0714 20:43:39.696655  5406 net.cpp:386] inception_5a/relu_3x3 -> inception_5a/3x3 (in-place)
I0714 20:43:39.697787  5406 net.cpp:141] Setting up inception_5a/relu_3x3
I0714 20:43:39.697803  5406 net.cpp:148] Top shape: 10 320 7 7 (156800)
I0714 20:43:39.697809  5406 net.cpp:156] Memory required for data: 531865600
I0714 20:43:39.697814  5406 layer_factory.hpp:77] Creating layer inception_5a/5x5_reduce
I0714 20:43:39.697834  5406 net.cpp:91] Creating Layer inception_5a/5x5_reduce
I0714 20:43:39.697842  5406 net.cpp:425] inception_5a/5x5_reduce <- pool4/3x3_s2_pool4/3x3_s2_0_split_2
I0714 20:43:39.697852  5406 net.cpp:399] inception_5a/5x5_reduce -> inception_5a/5x5_reduce
I0714 20:43:39.703583  5406 net.cpp:141] Setting up inception_5a/5x5_reduce
I0714 20:43:39.703603  5406 net.cpp:148] Top shape: 10 32 7 7 (15680)
I0714 20:43:39.703608  5406 net.cpp:156] Memory required for data: 531928320
I0714 20:43:39.703619  5406 layer_factory.hpp:77] Creating layer inception_5a/relu_5x5_reduce
I0714 20:43:39.703627  5406 net.cpp:91] Creating Layer inception_5a/relu_5x5_reduce
I0714 20:43:39.703634  5406 net.cpp:425] inception_5a/relu_5x5_reduce <- inception_5a/5x5_reduce
I0714 20:43:39.703646  5406 net.cpp:386] inception_5a/relu_5x5_reduce -> inception_5a/5x5_reduce (in-place)
I0714 20:43:39.703949  5406 net.cpp:141] Setting up inception_5a/relu_5x5_reduce
I0714 20:43:39.703974  5406 net.cpp:148] Top shape: 10 32 7 7 (15680)
I0714 20:43:39.703979  5406 net.cpp:156] Memory required for data: 531991040
I0714 20:43:39.703985  5406 layer_factory.hpp:77] Creating layer inception_5a/5x5
I0714 20:43:39.704002  5406 net.cpp:91] Creating Layer inception_5a/5x5
I0714 20:43:39.704010  5406 net.cpp:425] inception_5a/5x5 <- inception_5a/5x5_reduce
I0714 20:43:39.704020  5406 net.cpp:399] inception_5a/5x5 -> inception_5a/5x5
I0714 20:43:39.710227  5410 net.cpp:141] Setting up inception_5a/3x3
I0714 20:43:39.710258  5410 net.cpp:148] Top shape: 10 320 7 7 (156800)
I0714 20:43:39.710264  5410 net.cpp:156] Memory required for data: 531238400
I0714 20:43:39.710278  5410 layer_factory.hpp:77] Creating layer inception_5a/relu_3x3
I0714 20:43:39.710290  5410 net.cpp:91] Creating Layer inception_5a/relu_3x3
I0714 20:43:39.710299  5410 net.cpp:425] inception_5a/relu_3x3 <- inception_5a/3x3
I0714 20:43:39.710311  5410 net.cpp:386] inception_5a/relu_3x3 -> inception_5a/3x3 (in-place)
I0714 20:43:39.711544  5410 net.cpp:141] Setting up inception_5a/relu_3x3
I0714 20:43:39.711562  5410 net.cpp:148] Top shape: 10 320 7 7 (156800)
I0714 20:43:39.711568  5410 net.cpp:156] Memory required for data: 531865600
I0714 20:43:39.711573  5410 layer_factory.hpp:77] Creating layer inception_5a/5x5_reduce
I0714 20:43:39.711594  5410 net.cpp:91] Creating Layer inception_5a/5x5_reduce
I0714 20:43:39.711606  5410 net.cpp:425] inception_5a/5x5_reduce <- pool4/3x3_s2_pool4/3x3_s2_0_split_2
I0714 20:43:39.711616  5410 net.cpp:399] inception_5a/5x5_reduce -> inception_5a/5x5_reduce
I0714 20:43:39.711976  5406 net.cpp:141] Setting up inception_5a/5x5
I0714 20:43:39.711997  5406 net.cpp:148] Top shape: 10 128 7 7 (62720)
I0714 20:43:39.712003  5406 net.cpp:156] Memory required for data: 532241920
I0714 20:43:39.712013  5406 layer_factory.hpp:77] Creating layer inception_5a/relu_5x5
I0714 20:43:39.712049  5406 net.cpp:91] Creating Layer inception_5a/relu_5x5
I0714 20:43:39.712055  5406 net.cpp:425] inception_5a/relu_5x5 <- inception_5a/5x5
I0714 20:43:39.712064  5406 net.cpp:386] inception_5a/relu_5x5 -> inception_5a/5x5 (in-place)
I0714 20:43:39.712565  5406 net.cpp:141] Setting up inception_5a/relu_5x5
I0714 20:43:39.712584  5406 net.cpp:148] Top shape: 10 128 7 7 (62720)
I0714 20:43:39.712589  5406 net.cpp:156] Memory required for data: 532492800
I0714 20:43:39.712595  5406 layer_factory.hpp:77] Creating layer inception_5a/pool
I0714 20:43:39.712606  5406 net.cpp:91] Creating Layer inception_5a/pool
I0714 20:43:39.712612  5406 net.cpp:425] inception_5a/pool <- pool4/3x3_s2_pool4/3x3_s2_0_split_3
I0714 20:43:39.712621  5406 net.cpp:399] inception_5a/pool -> inception_5a/pool
I0714 20:43:39.712913  5406 net.cpp:141] Setting up inception_5a/pool
I0714 20:43:39.712929  5406 net.cpp:148] Top shape: 10 832 7 7 (407680)
I0714 20:43:39.712934  5406 net.cpp:156] Memory required for data: 534123520
I0714 20:43:39.712940  5406 layer_factory.hpp:77] Creating layer inception_5a/pool_proj
I0714 20:43:39.712957  5406 net.cpp:91] Creating Layer inception_5a/pool_proj
I0714 20:43:39.712965  5406 net.cpp:425] inception_5a/pool_proj <- inception_5a/pool
I0714 20:43:39.712975  5406 net.cpp:399] inception_5a/pool_proj -> inception_5a/pool_proj
I0714 20:43:39.719743  5410 net.cpp:141] Setting up inception_5a/5x5_reduce
I0714 20:43:39.719766  5410 net.cpp:148] Top shape: 10 32 7 7 (15680)
I0714 20:43:39.719772  5410 net.cpp:156] Memory required for data: 531928320
I0714 20:43:39.719782  5410 layer_factory.hpp:77] Creating layer inception_5a/relu_5x5_reduce
I0714 20:43:39.719792  5410 net.cpp:91] Creating Layer inception_5a/relu_5x5_reduce
I0714 20:43:39.719799  5410 net.cpp:425] inception_5a/relu_5x5_reduce <- inception_5a/5x5_reduce
I0714 20:43:39.719812  5410 net.cpp:386] inception_5a/relu_5x5_reduce -> inception_5a/5x5_reduce (in-place)
I0714 20:43:39.720286  5410 net.cpp:141] Setting up inception_5a/relu_5x5_reduce
I0714 20:43:39.720300  5410 net.cpp:148] Top shape: 10 32 7 7 (15680)
I0714 20:43:39.720309  5410 net.cpp:156] Memory required for data: 531991040
I0714 20:43:39.720314  5410 layer_factory.hpp:77] Creating layer inception_5a/5x5
I0714 20:43:39.720329  5410 net.cpp:91] Creating Layer inception_5a/5x5
I0714 20:43:39.720336  5410 net.cpp:425] inception_5a/5x5 <- inception_5a/5x5_reduce
I0714 20:43:39.720350  5410 net.cpp:399] inception_5a/5x5 -> inception_5a/5x5
I0714 20:43:39.721338  5406 net.cpp:141] Setting up inception_5a/pool_proj
I0714 20:43:39.721360  5406 net.cpp:148] Top shape: 10 128 7 7 (62720)
I0714 20:43:39.721369  5406 net.cpp:156] Memory required for data: 534374400
I0714 20:43:39.721386  5406 layer_factory.hpp:77] Creating layer inception_5a/relu_pool_proj
I0714 20:43:39.721400  5406 net.cpp:91] Creating Layer inception_5a/relu_pool_proj
I0714 20:43:39.721411  5406 net.cpp:425] inception_5a/relu_pool_proj <- inception_5a/pool_proj
I0714 20:43:39.721428  5406 net.cpp:386] inception_5a/relu_pool_proj -> inception_5a/pool_proj (in-place)
I0714 20:43:39.722412  5406 net.cpp:141] Setting up inception_5a/relu_pool_proj
I0714 20:43:39.722430  5406 net.cpp:148] Top shape: 10 128 7 7 (62720)
I0714 20:43:39.722435  5406 net.cpp:156] Memory required for data: 534625280
I0714 20:43:39.722441  5406 layer_factory.hpp:77] Creating layer inception_5a/output
I0714 20:43:39.722450  5406 net.cpp:91] Creating Layer inception_5a/output
I0714 20:43:39.722457  5406 net.cpp:425] inception_5a/output <- inception_5a/1x1
I0714 20:43:39.722465  5406 net.cpp:425] inception_5a/output <- inception_5a/3x3
I0714 20:43:39.722473  5406 net.cpp:425] inception_5a/output <- inception_5a/5x5
I0714 20:43:39.722479  5406 net.cpp:425] inception_5a/output <- inception_5a/pool_proj
I0714 20:43:39.722487  5406 net.cpp:399] inception_5a/output -> inception_5a/output
I0714 20:43:39.722589  5406 net.cpp:141] Setting up inception_5a/output
I0714 20:43:39.722601  5406 net.cpp:148] Top shape: 10 832 7 7 (407680)
I0714 20:43:39.722606  5406 net.cpp:156] Memory required for data: 536256000
I0714 20:43:39.722611  5406 layer_factory.hpp:77] Creating layer inception_5a/output_inception_5a/output_0_split
I0714 20:43:39.722623  5406 net.cpp:91] Creating Layer inception_5a/output_inception_5a/output_0_split
I0714 20:43:39.722630  5406 net.cpp:425] inception_5a/output_inception_5a/output_0_split <- inception_5a/output
I0714 20:43:39.722636  5406 net.cpp:399] inception_5a/output_inception_5a/output_0_split -> inception_5a/output_inception_5a/output_0_split_0
I0714 20:43:39.722647  5406 net.cpp:399] inception_5a/output_inception_5a/output_0_split -> inception_5a/output_inception_5a/output_0_split_1
I0714 20:43:39.722656  5406 net.cpp:399] inception_5a/output_inception_5a/output_0_split -> inception_5a/output_inception_5a/output_0_split_2
I0714 20:43:39.722666  5406 net.cpp:399] inception_5a/output_inception_5a/output_0_split -> inception_5a/output_inception_5a/output_0_split_3
I0714 20:43:39.722918  5406 net.cpp:141] Setting up inception_5a/output_inception_5a/output_0_split
I0714 20:43:39.722929  5406 net.cpp:148] Top shape: 10 832 7 7 (407680)
I0714 20:43:39.722936  5406 net.cpp:148] Top shape: 10 832 7 7 (407680)
I0714 20:43:39.722942  5406 net.cpp:148] Top shape: 10 832 7 7 (407680)
I0714 20:43:39.722947  5406 net.cpp:148] Top shape: 10 832 7 7 (407680)
I0714 20:43:39.722952  5406 net.cpp:156] Memory required for data: 542778880
I0714 20:43:39.722957  5406 layer_factory.hpp:77] Creating layer inception_5b/1x1
I0714 20:43:39.722977  5406 net.cpp:91] Creating Layer inception_5b/1x1
I0714 20:43:39.722985  5406 net.cpp:425] inception_5b/1x1 <- inception_5a/output_inception_5a/output_0_split_0
I0714 20:43:39.722993  5406 net.cpp:399] inception_5b/1x1 -> inception_5b/1x1
I0714 20:43:39.727710  5410 net.cpp:141] Setting up inception_5a/5x5
I0714 20:43:39.727732  5410 net.cpp:148] Top shape: 10 128 7 7 (62720)
I0714 20:43:39.727738  5410 net.cpp:156] Memory required for data: 532241920
I0714 20:43:39.727749  5410 layer_factory.hpp:77] Creating layer inception_5a/relu_5x5
I0714 20:43:39.727789  5410 net.cpp:91] Creating Layer inception_5a/relu_5x5
I0714 20:43:39.727797  5410 net.cpp:425] inception_5a/relu_5x5 <- inception_5a/5x5
I0714 20:43:39.727805  5410 net.cpp:386] inception_5a/relu_5x5 -> inception_5a/5x5 (in-place)
I0714 20:43:39.728116  5410 net.cpp:141] Setting up inception_5a/relu_5x5
I0714 20:43:39.728128  5410 net.cpp:148] Top shape: 10 128 7 7 (62720)
I0714 20:43:39.728137  5410 net.cpp:156] Memory required for data: 532492800
I0714 20:43:39.728142  5410 layer_factory.hpp:77] Creating layer inception_5a/pool
I0714 20:43:39.728154  5410 net.cpp:91] Creating Layer inception_5a/pool
I0714 20:43:39.728160  5410 net.cpp:425] inception_5a/pool <- pool4/3x3_s2_pool4/3x3_s2_0_split_3
I0714 20:43:39.728169  5410 net.cpp:399] inception_5a/pool -> inception_5a/pool
I0714 20:43:39.728322  5410 net.cpp:141] Setting up inception_5a/pool
I0714 20:43:39.728333  5410 net.cpp:148] Top shape: 10 832 7 7 (407680)
I0714 20:43:39.728338  5410 net.cpp:156] Memory required for data: 534123520
I0714 20:43:39.728344  5410 layer_factory.hpp:77] Creating layer inception_5a/pool_proj
I0714 20:43:39.728360  5410 net.cpp:91] Creating Layer inception_5a/pool_proj
I0714 20:43:39.728368  5410 net.cpp:425] inception_5a/pool_proj <- inception_5a/pool
I0714 20:43:39.728380  5410 net.cpp:399] inception_5a/pool_proj -> inception_5a/pool_proj
I0714 20:43:39.734652  5406 net.cpp:141] Setting up inception_5b/1x1
I0714 20:43:39.734674  5406 net.cpp:148] Top shape: 10 384 7 7 (188160)
I0714 20:43:39.734680  5406 net.cpp:156] Memory required for data: 543531520
I0714 20:43:39.734700  5406 layer_factory.hpp:77] Creating layer inception_5b/relu_1x1
I0714 20:43:39.734711  5406 net.cpp:91] Creating Layer inception_5b/relu_1x1
I0714 20:43:39.734719  5406 net.cpp:425] inception_5b/relu_1x1 <- inception_5b/1x1
I0714 20:43:39.734726  5406 net.cpp:386] inception_5b/relu_1x1 -> inception_5b/1x1 (in-place)
I0714 20:43:39.735234  5406 net.cpp:141] Setting up inception_5b/relu_1x1
I0714 20:43:39.735251  5406 net.cpp:148] Top shape: 10 384 7 7 (188160)
I0714 20:43:39.735256  5406 net.cpp:156] Memory required for data: 544284160
I0714 20:43:39.735261  5406 layer_factory.hpp:77] Creating layer inception_5b/3x3_reduce
I0714 20:43:39.735281  5406 net.cpp:91] Creating Layer inception_5b/3x3_reduce
I0714 20:43:39.735287  5406 net.cpp:425] inception_5b/3x3_reduce <- inception_5a/output_inception_5a/output_0_split_1
I0714 20:43:39.735302  5406 net.cpp:399] inception_5b/3x3_reduce -> inception_5b/3x3_reduce
I0714 20:43:39.735455  5410 net.cpp:141] Setting up inception_5a/pool_proj
I0714 20:43:39.735472  5410 net.cpp:148] Top shape: 10 128 7 7 (62720)
I0714 20:43:39.735478  5410 net.cpp:156] Memory required for data: 534374400
I0714 20:43:39.735488  5410 layer_factory.hpp:77] Creating layer inception_5a/relu_pool_proj
I0714 20:43:39.735512  5410 net.cpp:91] Creating Layer inception_5a/relu_pool_proj
I0714 20:43:39.735520  5410 net.cpp:425] inception_5a/relu_pool_proj <- inception_5a/pool_proj
I0714 20:43:39.735532  5410 net.cpp:386] inception_5a/relu_pool_proj -> inception_5a/pool_proj (in-place)
I0714 20:43:39.736631  5410 net.cpp:141] Setting up inception_5a/relu_pool_proj
I0714 20:43:39.736650  5410 net.cpp:148] Top shape: 10 128 7 7 (62720)
I0714 20:43:39.736655  5410 net.cpp:156] Memory required for data: 534625280
I0714 20:43:39.736661  5410 layer_factory.hpp:77] Creating layer inception_5a/output
I0714 20:43:39.736672  5410 net.cpp:91] Creating Layer inception_5a/output
I0714 20:43:39.736678  5410 net.cpp:425] inception_5a/output <- inception_5a/1x1
I0714 20:43:39.736686  5410 net.cpp:425] inception_5a/output <- inception_5a/3x3
I0714 20:43:39.736692  5410 net.cpp:425] inception_5a/output <- inception_5a/5x5
I0714 20:43:39.736698  5410 net.cpp:425] inception_5a/output <- inception_5a/pool_proj
I0714 20:43:39.736708  5410 net.cpp:399] inception_5a/output -> inception_5a/output
I0714 20:43:39.736876  5410 net.cpp:141] Setting up inception_5a/output
I0714 20:43:39.736888  5410 net.cpp:148] Top shape: 10 832 7 7 (407680)
I0714 20:43:39.736893  5410 net.cpp:156] Memory required for data: 536256000
I0714 20:43:39.736898  5410 layer_factory.hpp:77] Creating layer inception_5a/output_inception_5a/output_0_split
I0714 20:43:39.736909  5410 net.cpp:91] Creating Layer inception_5a/output_inception_5a/output_0_split
I0714 20:43:39.736919  5410 net.cpp:425] inception_5a/output_inception_5a/output_0_split <- inception_5a/output
I0714 20:43:39.736927  5410 net.cpp:399] inception_5a/output_inception_5a/output_0_split -> inception_5a/output_inception_5a/output_0_split_0
I0714 20:43:39.736938  5410 net.cpp:399] inception_5a/output_inception_5a/output_0_split -> inception_5a/output_inception_5a/output_0_split_1
I0714 20:43:39.736948  5410 net.cpp:399] inception_5a/output_inception_5a/output_0_split -> inception_5a/output_inception_5a/output_0_split_2
I0714 20:43:39.736956  5410 net.cpp:399] inception_5a/output_inception_5a/output_0_split -> inception_5a/output_inception_5a/output_0_split_3
I0714 20:43:39.738883  5410 net.cpp:141] Setting up inception_5a/output_inception_5a/output_0_split
I0714 20:43:39.738900  5410 net.cpp:148] Top shape: 10 832 7 7 (407680)
I0714 20:43:39.738908  5410 net.cpp:148] Top shape: 10 832 7 7 (407680)
I0714 20:43:39.738914  5410 net.cpp:148] Top shape: 10 832 7 7 (407680)
I0714 20:43:39.738919  5410 net.cpp:148] Top shape: 10 832 7 7 (407680)
I0714 20:43:39.738924  5410 net.cpp:156] Memory required for data: 542778880
I0714 20:43:39.738929  5410 layer_factory.hpp:77] Creating layer inception_5b/1x1
I0714 20:43:39.738951  5410 net.cpp:91] Creating Layer inception_5b/1x1
I0714 20:43:39.738958  5410 net.cpp:425] inception_5b/1x1 <- inception_5a/output_inception_5a/output_0_split_0
I0714 20:43:39.738968  5410 net.cpp:399] inception_5b/1x1 -> inception_5b/1x1
I0714 20:43:39.744009  5406 net.cpp:141] Setting up inception_5b/3x3_reduce
I0714 20:43:39.744034  5406 net.cpp:148] Top shape: 10 192 7 7 (94080)
I0714 20:43:39.744040  5406 net.cpp:156] Memory required for data: 544660480
I0714 20:43:39.744050  5406 layer_factory.hpp:77] Creating layer inception_5b/relu_3x3_reduce
I0714 20:43:39.744062  5406 net.cpp:91] Creating Layer inception_5b/relu_3x3_reduce
I0714 20:43:39.744069  5406 net.cpp:425] inception_5b/relu_3x3_reduce <- inception_5b/3x3_reduce
I0714 20:43:39.744077  5406 net.cpp:386] inception_5b/relu_3x3_reduce -> inception_5b/3x3_reduce (in-place)
I0714 20:43:39.744535  5406 net.cpp:141] Setting up inception_5b/relu_3x3_reduce
I0714 20:43:39.744552  5406 net.cpp:148] Top shape: 10 192 7 7 (94080)
I0714 20:43:39.744557  5406 net.cpp:156] Memory required for data: 545036800
I0714 20:43:39.744563  5406 layer_factory.hpp:77] Creating layer inception_5b/3x3
I0714 20:43:39.744585  5406 net.cpp:91] Creating Layer inception_5b/3x3
I0714 20:43:39.744591  5406 net.cpp:425] inception_5b/3x3 <- inception_5b/3x3_reduce
I0714 20:43:39.744601  5406 net.cpp:399] inception_5b/3x3 -> inception_5b/3x3
I0714 20:43:39.750068  5410 net.cpp:141] Setting up inception_5b/1x1
I0714 20:43:39.750093  5410 net.cpp:148] Top shape: 10 384 7 7 (188160)
I0714 20:43:39.750099  5410 net.cpp:156] Memory required for data: 543531520
I0714 20:43:39.750110  5410 layer_factory.hpp:77] Creating layer inception_5b/relu_1x1
I0714 20:43:39.750120  5410 net.cpp:91] Creating Layer inception_5b/relu_1x1
I0714 20:43:39.750126  5410 net.cpp:425] inception_5b/relu_1x1 <- inception_5b/1x1
I0714 20:43:39.750134  5410 net.cpp:386] inception_5b/relu_1x1 -> inception_5b/1x1 (in-place)
I0714 20:43:39.750461  5410 net.cpp:141] Setting up inception_5b/relu_1x1
I0714 20:43:39.750474  5410 net.cpp:148] Top shape: 10 384 7 7 (188160)
I0714 20:43:39.750479  5410 net.cpp:156] Memory required for data: 544284160
I0714 20:43:39.750484  5410 layer_factory.hpp:77] Creating layer inception_5b/3x3_reduce
I0714 20:43:39.750501  5410 net.cpp:91] Creating Layer inception_5b/3x3_reduce
I0714 20:43:39.750509  5410 net.cpp:425] inception_5b/3x3_reduce <- inception_5a/output_inception_5a/output_0_split_1
I0714 20:43:39.750522  5410 net.cpp:399] inception_5b/3x3_reduce -> inception_5b/3x3_reduce
I0714 20:43:39.758116  5410 net.cpp:141] Setting up inception_5b/3x3_reduce
I0714 20:43:39.758141  5410 net.cpp:148] Top shape: 10 192 7 7 (94080)
I0714 20:43:39.758147  5410 net.cpp:156] Memory required for data: 544660480
I0714 20:43:39.758157  5410 layer_factory.hpp:77] Creating layer inception_5b/relu_3x3_reduce
I0714 20:43:39.758168  5410 net.cpp:91] Creating Layer inception_5b/relu_3x3_reduce
I0714 20:43:39.758174  5410 net.cpp:425] inception_5b/relu_3x3_reduce <- inception_5b/3x3_reduce
I0714 20:43:39.758186  5410 net.cpp:386] inception_5b/relu_3x3_reduce -> inception_5b/3x3_reduce (in-place)
I0714 20:43:39.758749  5410 net.cpp:141] Setting up inception_5b/relu_3x3_reduce
I0714 20:43:39.758765  5410 net.cpp:148] Top shape: 10 192 7 7 (94080)
I0714 20:43:39.758770  5410 net.cpp:156] Memory required for data: 545036800
I0714 20:43:39.758776  5410 layer_factory.hpp:77] Creating layer inception_5b/3x3
I0714 20:43:39.758801  5410 net.cpp:91] Creating Layer inception_5b/3x3
I0714 20:43:39.758810  5410 net.cpp:425] inception_5b/3x3 <- inception_5b/3x3_reduce
I0714 20:43:39.758819  5410 net.cpp:399] inception_5b/3x3 -> inception_5b/3x3
I0714 20:43:39.758898  5406 net.cpp:141] Setting up inception_5b/3x3
I0714 20:43:39.758915  5406 net.cpp:148] Top shape: 10 384 7 7 (188160)
I0714 20:43:39.758921  5406 net.cpp:156] Memory required for data: 545789440
I0714 20:43:39.758931  5406 layer_factory.hpp:77] Creating layer inception_5b/relu_3x3
I0714 20:43:39.758941  5406 net.cpp:91] Creating Layer inception_5b/relu_3x3
I0714 20:43:39.758949  5406 net.cpp:425] inception_5b/relu_3x3 <- inception_5b/3x3
I0714 20:43:39.758960  5406 net.cpp:386] inception_5b/relu_3x3 -> inception_5b/3x3 (in-place)
I0714 20:43:39.760015  5406 net.cpp:141] Setting up inception_5b/relu_3x3
I0714 20:43:39.760033  5406 net.cpp:148] Top shape: 10 384 7 7 (188160)
I0714 20:43:39.760038  5406 net.cpp:156] Memory required for data: 546542080
I0714 20:43:39.760045  5406 layer_factory.hpp:77] Creating layer inception_5b/5x5_reduce
I0714 20:43:39.760062  5406 net.cpp:91] Creating Layer inception_5b/5x5_reduce
I0714 20:43:39.760069  5406 net.cpp:425] inception_5b/5x5_reduce <- inception_5a/output_inception_5a/output_0_split_2
I0714 20:43:39.760083  5406 net.cpp:399] inception_5b/5x5_reduce -> inception_5b/5x5_reduce
I0714 20:43:39.766541  5406 net.cpp:141] Setting up inception_5b/5x5_reduce
I0714 20:43:39.766562  5406 net.cpp:148] Top shape: 10 48 7 7 (23520)
I0714 20:43:39.766567  5406 net.cpp:156] Memory required for data: 546636160
I0714 20:43:39.766577  5406 layer_factory.hpp:77] Creating layer inception_5b/relu_5x5_reduce
I0714 20:43:39.766587  5406 net.cpp:91] Creating Layer inception_5b/relu_5x5_reduce
I0714 20:43:39.766593  5406 net.cpp:425] inception_5b/relu_5x5_reduce <- inception_5b/5x5_reduce
I0714 20:43:39.766602  5406 net.cpp:386] inception_5b/relu_5x5_reduce -> inception_5b/5x5_reduce (in-place)
I0714 20:43:39.766927  5406 net.cpp:141] Setting up inception_5b/relu_5x5_reduce
I0714 20:43:39.766940  5406 net.cpp:148] Top shape: 10 48 7 7 (23520)
I0714 20:43:39.766947  5406 net.cpp:156] Memory required for data: 546730240
I0714 20:43:39.766952  5406 layer_factory.hpp:77] Creating layer inception_5b/5x5
I0714 20:43:39.766968  5406 net.cpp:91] Creating Layer inception_5b/5x5
I0714 20:43:39.766974  5406 net.cpp:425] inception_5b/5x5 <- inception_5b/5x5_reduce
I0714 20:43:39.766988  5406 net.cpp:399] inception_5b/5x5 -> inception_5b/5x5
I0714 20:43:39.773421  5410 net.cpp:141] Setting up inception_5b/3x3
I0714 20:43:39.773445  5410 net.cpp:148] Top shape: 10 384 7 7 (188160)
I0714 20:43:39.773452  5410 net.cpp:156] Memory required for data: 545789440
I0714 20:43:39.773463  5410 layer_factory.hpp:77] Creating layer inception_5b/relu_3x3
I0714 20:43:39.773473  5410 net.cpp:91] Creating Layer inception_5b/relu_3x3
I0714 20:43:39.773479  5410 net.cpp:425] inception_5b/relu_3x3 <- inception_5b/3x3
I0714 20:43:39.773488  5410 net.cpp:386] inception_5b/relu_3x3 -> inception_5b/3x3 (in-place)
I0714 20:43:39.774595  5410 net.cpp:141] Setting up inception_5b/relu_3x3
I0714 20:43:39.774613  5410 net.cpp:148] Top shape: 10 384 7 7 (188160)
I0714 20:43:39.774619  5410 net.cpp:156] Memory required for data: 546542080
I0714 20:43:39.774624  5410 layer_factory.hpp:77] Creating layer inception_5b/5x5_reduce
I0714 20:43:39.774646  5410 net.cpp:91] Creating Layer inception_5b/5x5_reduce
I0714 20:43:39.774652  5410 net.cpp:425] inception_5b/5x5_reduce <- inception_5a/output_inception_5a/output_0_split_2
I0714 20:43:39.774665  5410 net.cpp:399] inception_5b/5x5_reduce -> inception_5b/5x5_reduce
I0714 20:43:39.774811  5406 net.cpp:141] Setting up inception_5b/5x5
I0714 20:43:39.774828  5406 net.cpp:148] Top shape: 10 128 7 7 (62720)
I0714 20:43:39.774834  5406 net.cpp:156] Memory required for data: 546981120
I0714 20:43:39.774843  5406 layer_factory.hpp:77] Creating layer inception_5b/relu_5x5
I0714 20:43:39.774857  5406 net.cpp:91] Creating Layer inception_5b/relu_5x5
I0714 20:43:39.774864  5406 net.cpp:425] inception_5b/relu_5x5 <- inception_5b/5x5
I0714 20:43:39.774874  5406 net.cpp:386] inception_5b/relu_5x5 -> inception_5b/5x5 (in-place)
I0714 20:43:39.775424  5406 net.cpp:141] Setting up inception_5b/relu_5x5
I0714 20:43:39.775442  5406 net.cpp:148] Top shape: 10 128 7 7 (62720)
I0714 20:43:39.775447  5406 net.cpp:156] Memory required for data: 547232000
I0714 20:43:39.775454  5406 layer_factory.hpp:77] Creating layer inception_5b/pool
I0714 20:43:39.775468  5406 net.cpp:91] Creating Layer inception_5b/pool
I0714 20:43:39.775475  5406 net.cpp:425] inception_5b/pool <- inception_5a/output_inception_5a/output_0_split_3
I0714 20:43:39.775485  5406 net.cpp:399] inception_5b/pool -> inception_5b/pool
I0714 20:43:39.775806  5406 net.cpp:141] Setting up inception_5b/pool
I0714 20:43:39.775818  5406 net.cpp:148] Top shape: 10 832 7 7 (407680)
I0714 20:43:39.775823  5406 net.cpp:156] Memory required for data: 548862720
I0714 20:43:39.775830  5406 layer_factory.hpp:77] Creating layer inception_5b/pool_proj
I0714 20:43:39.775846  5406 net.cpp:91] Creating Layer inception_5b/pool_proj
I0714 20:43:39.775853  5406 net.cpp:425] inception_5b/pool_proj <- inception_5b/pool
I0714 20:43:39.775866  5406 net.cpp:399] inception_5b/pool_proj -> inception_5b/pool_proj
I0714 20:43:39.783417  5410 net.cpp:141] Setting up inception_5b/5x5_reduce
I0714 20:43:39.783447  5410 net.cpp:148] Top shape: 10 48 7 7 (23520)
I0714 20:43:39.783452  5410 net.cpp:156] Memory required for data: 546636160
I0714 20:43:39.783464  5410 layer_factory.hpp:77] Creating layer inception_5b/relu_5x5_reduce
I0714 20:43:39.783475  5410 net.cpp:91] Creating Layer inception_5b/relu_5x5_reduce
I0714 20:43:39.783484  5410 net.cpp:425] inception_5b/relu_5x5_reduce <- inception_5b/5x5_reduce
I0714 20:43:39.783493  5410 net.cpp:386] inception_5b/relu_5x5_reduce -> inception_5b/5x5_reduce (in-place)
I0714 20:43:39.783993  5410 net.cpp:141] Setting up inception_5b/relu_5x5_reduce
I0714 20:43:39.784010  5410 net.cpp:148] Top shape: 10 48 7 7 (23520)
I0714 20:43:39.784015  5410 net.cpp:156] Memory required for data: 546730240
I0714 20:43:39.784020  5410 layer_factory.hpp:77] Creating layer inception_5b/5x5
I0714 20:43:39.784042  5410 net.cpp:91] Creating Layer inception_5b/5x5
I0714 20:43:39.784049  5410 net.cpp:425] inception_5b/5x5 <- inception_5b/5x5_reduce
I0714 20:43:39.784060  5410 net.cpp:399] inception_5b/5x5 -> inception_5b/5x5
I0714 20:43:39.785631  5406 net.cpp:141] Setting up inception_5b/pool_proj
I0714 20:43:39.785656  5406 net.cpp:148] Top shape: 10 128 7 7 (62720)
I0714 20:43:39.785662  5406 net.cpp:156] Memory required for data: 549113600
I0714 20:43:39.785676  5406 layer_factory.hpp:77] Creating layer inception_5b/relu_pool_proj
I0714 20:43:39.785688  5406 net.cpp:91] Creating Layer inception_5b/relu_pool_proj
I0714 20:43:39.785697  5406 net.cpp:425] inception_5b/relu_pool_proj <- inception_5b/pool_proj
I0714 20:43:39.785706  5406 net.cpp:386] inception_5b/relu_pool_proj -> inception_5b/pool_proj (in-place)
I0714 20:43:39.786589  5406 net.cpp:141] Setting up inception_5b/relu_pool_proj
I0714 20:43:39.786608  5406 net.cpp:148] Top shape: 10 128 7 7 (62720)
I0714 20:43:39.786613  5406 net.cpp:156] Memory required for data: 549364480
I0714 20:43:39.786619  5406 layer_factory.hpp:77] Creating layer inception_5b/output
I0714 20:43:39.786633  5406 net.cpp:91] Creating Layer inception_5b/output
I0714 20:43:39.786638  5406 net.cpp:425] inception_5b/output <- inception_5b/1x1
I0714 20:43:39.786646  5406 net.cpp:425] inception_5b/output <- inception_5b/3x3
I0714 20:43:39.786653  5406 net.cpp:425] inception_5b/output <- inception_5b/5x5
I0714 20:43:39.786659  5406 net.cpp:425] inception_5b/output <- inception_5b/pool_proj
I0714 20:43:39.786666  5406 net.cpp:399] inception_5b/output -> inception_5b/output
I0714 20:43:39.786783  5406 net.cpp:141] Setting up inception_5b/output
I0714 20:43:39.786798  5406 net.cpp:148] Top shape: 10 1024 7 7 (501760)
I0714 20:43:39.786804  5406 net.cpp:156] Memory required for data: 551371520
I0714 20:43:39.786809  5406 layer_factory.hpp:77] Creating layer pool5/7x7_s1
I0714 20:43:39.786820  5406 net.cpp:91] Creating Layer pool5/7x7_s1
I0714 20:43:39.786826  5406 net.cpp:425] pool5/7x7_s1 <- inception_5b/output
I0714 20:43:39.786834  5406 net.cpp:399] pool5/7x7_s1 -> pool5/7x7_s1
I0714 20:43:39.788180  5406 net.cpp:141] Setting up pool5/7x7_s1
I0714 20:43:39.788209  5406 net.cpp:148] Top shape: 10 1024 1 1 (10240)
I0714 20:43:39.788218  5406 net.cpp:156] Memory required for data: 551412480
I0714 20:43:39.788228  5406 layer_factory.hpp:77] Creating layer pool5/drop_7x7_s1
I0714 20:43:39.788265  5406 net.cpp:91] Creating Layer pool5/drop_7x7_s1
I0714 20:43:39.788272  5406 net.cpp:425] pool5/drop_7x7_s1 <- pool5/7x7_s1
I0714 20:43:39.788292  5406 net.cpp:386] pool5/drop_7x7_s1 -> pool5/7x7_s1 (in-place)
I0714 20:43:39.788983  5406 net.cpp:141] Setting up pool5/drop_7x7_s1
I0714 20:43:39.788997  5406 net.cpp:148] Top shape: 10 1024 1 1 (10240)
I0714 20:43:39.789002  5406 net.cpp:156] Memory required for data: 551453440
I0714 20:43:39.789007  5406 layer_factory.hpp:77] Creating layer loss3/classifier
I0714 20:43:39.789026  5406 net.cpp:91] Creating Layer loss3/classifier
I0714 20:43:39.789031  5406 net.cpp:425] loss3/classifier <- pool5/7x7_s1
I0714 20:43:39.789041  5406 net.cpp:399] loss3/classifier -> loss3/classifier
I0714 20:43:39.795186  5410 net.cpp:141] Setting up inception_5b/5x5
I0714 20:43:39.795212  5410 net.cpp:148] Top shape: 10 128 7 7 (62720)
I0714 20:43:39.795219  5410 net.cpp:156] Memory required for data: 546981120
I0714 20:43:39.795229  5410 layer_factory.hpp:77] Creating layer inception_5b/relu_5x5
I0714 20:43:39.795243  5410 net.cpp:91] Creating Layer inception_5b/relu_5x5
I0714 20:43:39.795251  5410 net.cpp:425] inception_5b/relu_5x5 <- inception_5b/5x5
I0714 20:43:39.795260  5410 net.cpp:386] inception_5b/relu_5x5 -> inception_5b/5x5 (in-place)
I0714 20:43:39.795598  5410 net.cpp:141] Setting up inception_5b/relu_5x5
I0714 20:43:39.795610  5410 net.cpp:148] Top shape: 10 128 7 7 (62720)
I0714 20:43:39.795615  5410 net.cpp:156] Memory required for data: 547232000
I0714 20:43:39.795630  5410 layer_factory.hpp:77] Creating layer inception_5b/pool
I0714 20:43:39.795641  5410 net.cpp:91] Creating Layer inception_5b/pool
I0714 20:43:39.795649  5410 net.cpp:425] inception_5b/pool <- inception_5a/output_inception_5a/output_0_split_3
I0714 20:43:39.795660  5410 net.cpp:399] inception_5b/pool -> inception_5b/pool
I0714 20:43:39.795822  5410 net.cpp:141] Setting up inception_5b/pool
I0714 20:43:39.795835  5410 net.cpp:148] Top shape: 10 832 7 7 (407680)
I0714 20:43:39.795840  5410 net.cpp:156] Memory required for data: 548862720
I0714 20:43:39.795845  5410 layer_factory.hpp:77] Creating layer inception_5b/pool_proj
I0714 20:43:39.795863  5410 net.cpp:91] Creating Layer inception_5b/pool_proj
I0714 20:43:39.795869  5410 net.cpp:425] inception_5b/pool_proj <- inception_5b/pool
I0714 20:43:39.795881  5410 net.cpp:399] inception_5b/pool_proj -> inception_5b/pool_proj
I0714 20:43:39.801741  5410 net.cpp:141] Setting up inception_5b/pool_proj
I0714 20:43:39.801774  5410 net.cpp:148] Top shape: 10 128 7 7 (62720)
I0714 20:43:39.801779  5410 net.cpp:156] Memory required for data: 549113600
I0714 20:43:39.801790  5410 layer_factory.hpp:77] Creating layer inception_5b/relu_pool_proj
I0714 20:43:39.801800  5410 net.cpp:91] Creating Layer inception_5b/relu_pool_proj
I0714 20:43:39.801806  5410 net.cpp:425] inception_5b/relu_pool_proj <- inception_5b/pool_proj
I0714 20:43:39.801817  5410 net.cpp:386] inception_5b/relu_pool_proj -> inception_5b/pool_proj (in-place)
I0714 20:43:39.802695  5410 net.cpp:141] Setting up inception_5b/relu_pool_proj
I0714 20:43:39.802714  5410 net.cpp:148] Top shape: 10 128 7 7 (62720)
I0714 20:43:39.802719  5410 net.cpp:156] Memory required for data: 549364480
I0714 20:43:39.802726  5410 layer_factory.hpp:77] Creating layer inception_5b/output
I0714 20:43:39.802736  5410 net.cpp:91] Creating Layer inception_5b/output
I0714 20:43:39.802742  5410 net.cpp:425] inception_5b/output <- inception_5b/1x1
I0714 20:43:39.802762  5410 net.cpp:425] inception_5b/output <- inception_5b/3x3
I0714 20:43:39.802768  5410 net.cpp:425] inception_5b/output <- inception_5b/5x5
I0714 20:43:39.802774  5410 net.cpp:425] inception_5b/output <- inception_5b/pool_proj
I0714 20:43:39.802781  5410 net.cpp:399] inception_5b/output -> inception_5b/output
I0714 20:43:39.802886  5410 net.cpp:141] Setting up inception_5b/output
I0714 20:43:39.802898  5410 net.cpp:148] Top shape: 10 1024 7 7 (501760)
I0714 20:43:39.802903  5410 net.cpp:156] Memory required for data: 551371520
I0714 20:43:39.802908  5410 layer_factory.hpp:77] Creating layer pool5/7x7_s1
I0714 20:43:39.802920  5410 net.cpp:91] Creating Layer pool5/7x7_s1
I0714 20:43:39.802927  5410 net.cpp:425] pool5/7x7_s1 <- inception_5b/output
I0714 20:43:39.802935  5410 net.cpp:399] pool5/7x7_s1 -> pool5/7x7_s1
I0714 20:43:39.803320  5410 net.cpp:141] Setting up pool5/7x7_s1
I0714 20:43:39.803333  5410 net.cpp:148] Top shape: 10 1024 1 1 (10240)
I0714 20:43:39.803339  5410 net.cpp:156] Memory required for data: 551412480
I0714 20:43:39.803344  5410 layer_factory.hpp:77] Creating layer pool5/drop_7x7_s1
I0714 20:43:39.803359  5410 net.cpp:91] Creating Layer pool5/drop_7x7_s1
I0714 20:43:39.803364  5410 net.cpp:425] pool5/drop_7x7_s1 <- pool5/7x7_s1
I0714 20:43:39.803371  5410 net.cpp:386] pool5/drop_7x7_s1 -> pool5/7x7_s1 (in-place)
I0714 20:43:39.803458  5410 net.cpp:141] Setting up pool5/drop_7x7_s1
I0714 20:43:39.803474  5410 net.cpp:148] Top shape: 10 1024 1 1 (10240)
I0714 20:43:39.803479  5410 net.cpp:156] Memory required for data: 551453440
I0714 20:43:39.803484  5410 layer_factory.hpp:77] Creating layer loss3/classifier
I0714 20:43:39.803498  5410 net.cpp:91] Creating Layer loss3/classifier
I0714 20:43:39.803504  5410 net.cpp:425] loss3/classifier <- pool5/7x7_s1
I0714 20:43:39.803515  5410 net.cpp:399] loss3/classifier -> loss3/classifier
I0714 20:43:39.807502  5406 net.cpp:141] Setting up loss3/classifier
I0714 20:43:39.807531  5406 net.cpp:148] Top shape: 10 1000 (10000)
I0714 20:43:39.807538  5406 net.cpp:156] Memory required for data: 551493440
I0714 20:43:39.807551  5406 layer_factory.hpp:77] Creating layer prob
I0714 20:43:39.807577  5406 net.cpp:91] Creating Layer prob
I0714 20:43:39.807585  5406 net.cpp:425] prob <- loss3/classifier
I0714 20:43:39.807593  5406 net.cpp:399] prob -> prob
I0714 20:43:39.809159  5406 net.cpp:141] Setting up prob
I0714 20:43:39.809207  5406 net.cpp:148] Top shape: 10 1000 (10000)
I0714 20:43:39.809218  5406 net.cpp:156] Memory required for data: 551533440
I0714 20:43:39.809231  5406 net.cpp:219] prob does not need backward computation.
I0714 20:43:39.809242  5406 net.cpp:219] loss3/classifier does not need backward computation.
I0714 20:43:39.809252  5406 net.cpp:219] pool5/drop_7x7_s1 does not need backward computation.
I0714 20:43:39.809259  5406 net.cpp:219] pool5/7x7_s1 does not need backward computation.
…
