…
Java HotSpot(TM) 64-Bit Server VM warning: You have loaded library /tmp/cvld4812013879586640964/libopencv_java310.xine1.so which might have disabled stack guard. The VM will try to fix the stack guard now.
It's highly recommended that you fix the library with 'execstack -c <libfile>', or link it with '-z noexecstack'.
WARNING: Logging before InitGoogleLogging() is written to STDERR
I0720 11:44:00.915446  5119 net.cpp:49] Initializing net from parameters: 
name: "CaffeNet"
state {
  phase: TEST
}
layer {
  name: "data"
  type: "Input"
  top: "data"
  input_param {
    shape {
      dim: 10
      dim: 3
      dim: 227
      dim: 227
    }
  }
}
layer {
  name: "conv1"
  type: "Convolution"
  bottom: "data"
  top: "conv1"
  convolution_param {
    num_output: 96
    kernel_size: 11
    stride: 4
  }
}
layer {
  name: "relu1"
  type: "ReLU"
  bottom: "conv1"
  top: "conv1"
}
layer {
  name: "pool1"
  type: "Pooling"
  bottom: "conv1"
  top: "pool1"
  pooling_param {
    pool: MAX
    kernel_size: 3
    stride: 2
  }
}
layer {
  name: "norm1"
  type: "LRN"
  bottom: "pool1"
  top: "norm1"
  lrn_param {
    local_size: 5
    alpha: 0.0001
    beta: 0.75
  }
}
layer {
  name: "conv2"
  type: "Convolution"
  bottom: "norm1"
  top: "conv2"
  convolution_param {
    num_output: 256
    pad: 2
    kernel_size: 5
    group: 2
  }
}
layer {
  name: "relu2"
  type: "ReLU"
  bottom: "conv2"
  top: "conv2"
}
layer {
  name: "pool2"
  type: "Pooling"
  bottom: "conv2"
  top: "pool2"
  pooling_param {
    pool: MAX
    kernel_size: 3
    stride: 2
  }
}
layer {
  name: "norm2"
  type: "LRN"
  bottom: "pool2"
  top: "norm2"
  lrn_param {
    local_size: 5
    alpha: 0.0001
    beta: 0.75
  }
}
layer {
  name: "conv3"
  type: "Convolution"
  bottom: "norm2"
  top: "conv3"
  convolution_param {
    num_output: 384
    pad: 1
    kernel_size: 3
  }
}
layer {
  name: "relu3"
  type: "ReLU"
  bottom: "conv3"
  top: "conv3"
}
layer {
  name: "conv4"
  type: "Convolution"
  bottom: "conv3"
  top: "conv4"
  convolution_param {
    num_output: 384
    pad: 1
    kernel_size: 3
    group: 2
  }
}
layer {
  name: "relu4"
  type: "ReLU"
  bottom: "conv4"
  top: "conv4"
}
layer {
  name: "conv5"
  type: "Convolution"
  bottom: "conv4"
  top: "conv5"
  convolution_param {
    num_output: 256
    pad: 1
    kernel_size: 3
    group: 2
  }
}
layer {
  name: "relu5"
  type: "ReLU"
  bottom: "conv5"
  top: "conv5"
}
layer {
  name: "pool5"
  type: "Pooling"
  bottom: "conv5"
  top: "pool5"
  pooling_param {
    pool: MAX
    kernel_size: 3
    stride: 2
  }
}
layer {
  name: "fc6"
  type: "InnerProduct"
  bottom: "pool5"
  top: "fc6"
  inner_product_param {
    num_output: 4096
  }
}
layer {
  name: "relu6"
  type: "ReLU"
  bottom: "fc6"
  top: "fc6"
}
layer {
  name: "drop6"
  type: "Dropout"
  bottom: "fc6"
  top: "fc6"
  dropout_param {
    dropout_ratio: 0.5
  }
}
layer {
  name: "fc7"
  type: "InnerProduct"
  bottom: "fc6"
  top: "fc7"
  inner_product_param {
    num_output: 4096
  }
}
layer {
  name: "relu7"
  type: "ReLU"
  bottom: "fc7"
  top: "fc7"
}
layer {
  name: "drop7"
  type: "Dropout"
  bottom: "fc7"
  top: "fc7"
  dropout_param {
    dropout_ratio: 0.5
  }
}
layer {
  name: "fc8"
  type: "InnerProduct"
  bottom: "fc7"
  top: "fc8"
  inner_product_param {
    num_output: 1000
  }
}
layer {
  name: "prob"
  type: "Softmax"
  bottom: "fc8"
  top: "prob"
}
I0720 11:44:00.915621  5119 layer_factory.hpp:77] Creating layer data
I0720 11:44:00.915645  5119 net.cpp:91] Creating Layer data
I0720 11:44:00.915655  5119 net.cpp:399] data -> data
I0720 11:44:00.921917  5107 net.cpp:49] Initializing net from parameters: 
name: "CaffeNet"
state {
  phase: TEST
}
layer {
  name: "data"
  type: "Input"
  top: "data"
  input_param {
    shape {
      dim: 10
      dim: 3
      dim: 227
      dim: 227
    }
  }
}
layer {
  name: "conv1"
  type: "Convolution"
  bottom: "data"
  top: "conv1"
  convolution_param {
    num_output: 96
    kernel_size: 11
    stride: 4
  }
}
layer {
  name: "relu1"
  type: "ReLU"
  bottom: "conv1"
  top: "conv1"
}
layer {
  name: "pool1"
  type: "Pooling"
  bottom: "conv1"
  top: "pool1"
  pooling_param {
    pool: MAX
    kernel_size: 3
    stride: 2
  }
}
layer {
  name: "norm1"
  type: "LRN"
  bottom: "pool1"
  top: "norm1"
  lrn_param {
    local_size: 5
    alpha: 0.0001
    beta: 0.75
  }
}
layer {
  name: "conv2"
  type: "Convolution"
  bottom: "norm1"
  top: "conv2"
  convolution_param {
    num_output: 256
    pad: 2
    kernel_size: 5
    group: 2
  }
}
layer {
  name: "relu2"
  type: "ReLU"
  bottom: "conv2"
  top: "conv2"
}
layer {
  name: "pool2"
  type: "Pooling"
  bottom: "conv2"
  top: "pool2"
  pooling_param {
    pool: MAX
    kernel_size: 3
    stride: 2
  }
}
layer {
  name: "norm2"
  type: "LRN"
  bottom: "pool2"
  top: "norm2"
  lrn_param {
    local_size: 5
    alpha: 0.0001
    beta: 0.75
  }
}
layer {
  name: "conv3"
  type: "Convolution"
  bottom: "norm2"
  top: "conv3"
  convolution_param {
    num_output: 384
    pad: 1
    kernel_size: 3
  }
}
layer {
  name: "relu3"
  type: "ReLU"
  bottom: "conv3"
  top: "conv3"
}
layer {
  name: "conv4"
  type: "Convolution"
  bottom: "conv3"
  top: "conv4"
  convolution_param {
    num_output: 384
    pad: 1
    kernel_size: 3
    group: 2
  }
}
layer {
  name: "relu4"
  type: "ReLU"
  bottom: "conv4"
  top: "conv4"
}
layer {
  name: "conv5"
  type: "Convolution"
  bottom: "conv4"
  top: "conv5"
  convolution_param {
    num_output: 256
    pad: 1
    kernel_size: 3
    group: 2
  }
}
layer {
  name: "relu5"
  type: "ReLU"
  bottom: "conv5"
  top: "conv5"
}
layer {
  name: "pool5"
  type: "Pooling"
  bottom: "conv5"
  top: "pool5"
  pooling_param {
    pool: MAX
    kernel_size: 3
    stride: 2
  }
}
layer {
  name: "fc6"
  type: "InnerProduct"
  bottom: "pool5"
  top: "fc6"
  inner_product_param {
    num_output: 4096
  }
}
layer {
  name: "relu6"
  type: "ReLU"
  bottom: "fc6"
  top: "fc6"
}
layer {
  name: "drop6"
  type: "Dropout"
  bottom: "fc6"
  top: "fc6"
  dropout_param {
    dropout_ratio: 0.5
  }
}
layer {
  name: "fc7"
  type: "InnerProduct"
  bottom: "fc6"
  top: "fc7"
  inner_product_param {
    num_output: 4096
  }
}
layer {
  name: "relu7"
  type: "ReLU"
  bottom: "fc7"
  top: "fc7"
}
layer {
  name: "drop7"
  type: "Dropout"
  bottom: "fc7"
  top: "fc7"
  dropout_param {
    dropout_ratio: 0.5
  }
}
layer {
  name: "fc8"
  type: "InnerProduct"
  bottom: "fc7"
  top: "fc8"
  inner_product_param {
    num_output: 1000
  }
}
layer {
  name: "prob"
  type: "Softmax"
  bottom: "fc8"
  top: "prob"
}
I0720 11:44:00.922019  5107 layer_factory.hpp:77] Creating layer data
I0720 11:44:00.922032  5107 net.cpp:91] Creating Layer data
I0720 11:44:00.922039  5107 net.cpp:399] data -> data
I0720 11:44:01.114203  5109 upgrade_proto.cpp:66] Attempting to upgrade input file specified using deprecated input fields: /tmp/cvld4812013879586640964/s2vt.words_to_preds.prototxt
I0720 11:44:01.114248  5109 upgrade_proto.cpp:69] Successfully upgraded file specified using deprecated input fields.
W0720 11:44:01.114256  5109 upgrade_proto.cpp:71] Note that future Caffe releases will only support input layers and not input fields.
I0720 11:44:01.114533  5109 net.cpp:49] Initializing net from parameters: 
name: "s2vt:features_to_lstm"
state {
  phase: TEST
}
layer {
  name: "input"
  type: "Input"
  top: "frames_fc7"
  top: "cont_sentence"
  top: "input_sentence"
  top: "stage_indicator"
  input_param {
    shape {
      dim: 1
      dim: 4096
    }
    shape {
      dim: 1
      dim: 1
    }
    shape {
      dim: 1
      dim: 1
    }
    shape {
      dim: 1
      dim: 1
    }
  }
}
layer {
  name: "embed_encoder"
  type: "InnerProduct"
  bottom: "frames_fc7"
  top: "embedded_in_frames"
  param {
    lr_mult: 1
    decay_mult: 1
  }
  param {
    lr_mult: 2
    decay_mult: 0
  }
  inner_product_param {
    num_output: 500
    weight_filler {
      type: "xavier"
    }
    bias_filler {
      type: "constant"
      value: 0.2
    }
  }
}
layer {
  name: "reshape_frames"
  type: "Reshape"
  bottom: "embedded_in_frames"
  top: "embedded_input_frames"
  reshape_param {
    shape {
      dim: 1
      dim: 1
      dim: 500
    }
  }
}
layer {
  name: "reshape_stage_indicator"
  type: "Reshape"
  bottom: "stage_indicator"
  top: "reshaped_stage_indicator"
  reshape_param {
    shape {
      dim: 1
      dim: 1
      dim: 1
    }
  }
}
layer {
  name: "embedding"
  type: "Embed"
  bottom: "input_sentence"
  top: "embedded_input_sentence"
  param {
    lr_mult: 1
  }
  embed_param {
    num_output: 500
    input_dim: 46168
    bias_term: false
    weight_filler {
      type: "uniform"
      min: -0.08
      max: 0.08
    }
  }
}
layer {
  name: "lstm1"
  type: "LSTM"
  bottom: "embedded_input_frames"
  bottom: "cont_sentence"
  top: "lstm1"
  recurrent_param {
    num_output: 1000
    weight_filler {
      type: "uniform"
      min: -0.08
      max: 0.08
    }
    bias_filler {
      type: "constant"
      value: 0
    }
  }
}
layer {
  name: "concat"
  type: "Concat"
  bottom: "lstm1"
  bottom: "embedded_input_sentence"
  bottom: "reshaped_stage_indicator"
  top: "lstm1_video_sequence"
  concat_param {
    concat_dim: 2
  }
}
layer {
  name: "lstm2"
  type: "LSTM"
  bottom: "lstm1_video_sequence"
  bottom: "cont_sentence"
  top: "lstm2"
  recurrent_param {
    num_output: 1000
    weight_filler {
      type: "uniform"
      min: -0.08
      max: 0.08
    }
    bias_filler {
      type: "constant"
      value: 0
    }
  }
}
layer {
  name: "predict"
  type: "InnerProduct"
  bottom: "lstm2"
  top: "predict"
  param {
    lr_mult: 1
    decay_mult: 1
  }
  param {
    lr_mult: 2
    decay_mult: 0
  }
  inner_product_param {
    num_output: 46168
    weight_filler {
      type: "uniform"
      min: -0.08
      max: 0.08
    }
    bias_filler {
      type: "constant"
      value: 0
    }
    axis: 2
  }
}
layer {
  name: "probs"
  type: "Softmax"
  bottom: "predict"
  top: "probs"
  softmax_param {
    axis: 2
  }
}
I0720 11:44:01.114657  5109 layer_factory.hpp:77] Creating layer input
I0720 11:44:01.114672  5109 net.cpp:91] Creating Layer input
I0720 11:44:01.114681  5109 net.cpp:399] input -> frames_fc7
I0720 11:44:01.114713  5109 net.cpp:399] input -> cont_sentence
I0720 11:44:01.114737  5109 net.cpp:399] input -> input_sentence
I0720 11:44:01.114755  5109 net.cpp:399] input -> stage_indicator
I0720 11:44:01.119123  5113 upgrade_proto.cpp:66] Attempting to upgrade input file specified using deprecated input fields: /tmp/cvld4812013879586640964/s2vt.words_to_preds.prototxt
I0720 11:44:01.119143  5113 upgrade_proto.cpp:69] Successfully upgraded file specified using deprecated input fields.
W0720 11:44:01.119148  5113 upgrade_proto.cpp:71] Note that future Caffe releases will only support input layers and not input fields.
I0720 11:44:01.119346  5113 net.cpp:49] Initializing net from parameters: 
name: "s2vt:features_to_lstm"
state {
  phase: TEST
}
layer {
  name: "input"
  type: "Input"
  top: "frames_fc7"
  top: "cont_sentence"
  top: "input_sentence"
  top: "stage_indicator"
  input_param {
    shape {
      dim: 1
      dim: 4096
    }
    shape {
      dim: 1
      dim: 1
    }
    shape {
      dim: 1
      dim: 1
    }
    shape {
      dim: 1
      dim: 1
    }
  }
}
layer {
  name: "embed_encoder"
  type: "InnerProduct"
  bottom: "frames_fc7"
  top: "embedded_in_frames"
  param {
    lr_mult: 1
    decay_mult: 1
  }
  param {
    lr_mult: 2
    decay_mult: 0
  }
  inner_product_param {
    num_output: 500
    weight_filler {
      type: "xavier"
    }
    bias_filler {
      type: "constant"
      value: 0.2
    }
  }
}
layer {
  name: "reshape_frames"
  type: "Reshape"
  bottom: "embedded_in_frames"
  top: "embedded_input_frames"
  reshape_param {
    shape {
      dim: 1
      dim: 1
      dim: 500
    }
  }
}
layer {
  name: "reshape_stage_indicator"
  type: "Reshape"
  bottom: "stage_indicator"
  top: "reshaped_stage_indicator"
  reshape_param {
    shape {
      dim: 1
      dim: 1
      dim: 1
    }
  }
}
layer {
  name: "embedding"
  type: "Embed"
  bottom: "input_sentence"
  top: "embedded_input_sentence"
  param {
    lr_mult: 1
  }
  embed_param {
    num_output: 500
    input_dim: 46168
    bias_term: false
    weight_filler {
      type: "uniform"
      min: -0.08
      max: 0.08
    }
  }
}
layer {
  name: "lstm1"
  type: "LSTM"
  bottom: "embedded_input_frames"
  bottom: "cont_sentence"
  top: "lstm1"
  recurrent_param {
    num_output: 1000
    weight_filler {
      type: "uniform"
      min: -0.08
      max: 0.08
    }
    bias_filler {
      type: "constant"
      value: 0
    }
  }
}
layer {
  name: "concat"
  type: "Concat"
  bottom: "lstm1"
  bottom: "embedded_input_sentence"
  bottom: "reshaped_stage_indicator"
  top: "lstm1_video_sequence"
  concat_param {
    concat_dim: 2
  }
}
layer {
  name: "lstm2"
  type: "LSTM"
  bottom: "lstm1_video_sequence"
  bottom: "cont_sentence"
  top: "lstm2"
  recurrent_param {
    num_output: 1000
    weight_filler {
      type: "uniform"
      min: -0.08
      max: 0.08
    }
    bias_filler {
      type: "constant"
      value: 0
    }
  }
}
layer {
  name: "predict"
  type: "InnerProduct"
  bottom: "lstm2"
  top: "predict"
  param {
    lr_mult: 1
    decay_mult: 1
  }
  param {
    lr_mult: 2
    decay_mult: 0
  }
  inner_product_param {
    num_output: 46168
    weight_filler {
      type: "uniform"
      min: -0.08
      max: 0.08
    }
    bias_filler {
      type: "constant"
      value: 0
    }
    axis: 2
  }
}
layer {
  name: "probs"
  type: "Softmax"
  bottom: "predict"
  top: "probs"
  softmax_param {
    axis: 2
  }
}
I0720 11:44:01.119424  5113 layer_factory.hpp:77] Creating layer input
I0720 11:44:01.119437  5113 net.cpp:91] Creating Layer input
I0720 11:44:01.119444  5113 net.cpp:399] input -> frames_fc7
I0720 11:44:01.119457  5113 net.cpp:399] input -> cont_sentence
I0720 11:44:01.119467  5113 net.cpp:399] input -> input_sentence
I0720 11:44:01.119477  5113 net.cpp:399] input -> stage_indicator
I0720 11:44:01.937582  5119 net.cpp:141] Setting up data
I0720 11:44:01.937669  5119 net.cpp:148] Top shape: 10 3 227 227 (1545870)
I0720 11:44:01.937676  5119 net.cpp:156] Memory required for data: 6183480
I0720 11:44:01.937701  5119 layer_factory.hpp:77] Creating layer conv1
I0720 11:44:01.937741  5119 net.cpp:91] Creating Layer conv1
I0720 11:44:01.937752  5119 net.cpp:425] conv1 <- data
I0720 11:44:01.937767  5119 net.cpp:399] conv1 -> conv1
I0720 11:44:01.937866  5113 net.cpp:141] Setting up input
I0720 11:44:01.937901  5113 net.cpp:148] Top shape: 1 4096 (4096)
I0720 11:44:01.937908  5113 net.cpp:148] Top shape: 1 1 (1)
I0720 11:44:01.937913  5113 net.cpp:148] Top shape: 1 1 (1)
I0720 11:44:01.937918  5113 net.cpp:148] Top shape: 1 1 (1)
I0720 11:44:01.937922  5113 net.cpp:156] Memory required for data: 16396
I0720 11:44:01.937930  5113 layer_factory.hpp:77] Creating layer cont_sentence_input_1_split
I0720 11:44:01.937954  5113 net.cpp:91] Creating Layer cont_sentence_input_1_split
I0720 11:44:01.937963  5113 net.cpp:425] cont_sentence_input_1_split <- cont_sentence
I0720 11:44:01.937991  5113 net.cpp:399] cont_sentence_input_1_split -> cont_sentence_input_1_split_0
I0720 11:44:01.938005  5113 net.cpp:399] cont_sentence_input_1_split -> cont_sentence_input_1_split_1
I0720 11:44:01.938226  5113 net.cpp:141] Setting up cont_sentence_input_1_split
I0720 11:44:01.938236  5113 net.cpp:148] Top shape: 1 1 (1)
I0720 11:44:01.938242  5113 net.cpp:148] Top shape: 1 1 (1)
I0720 11:44:01.938246  5113 net.cpp:156] Memory required for data: 16404
I0720 11:44:01.938251  5113 layer_factory.hpp:77] Creating layer embed_encoder
I0720 11:44:01.938268  5113 net.cpp:91] Creating Layer embed_encoder
I0720 11:44:01.938274  5113 net.cpp:425] embed_encoder <- frames_fc7
I0720 11:44:01.938282  5113 net.cpp:399] embed_encoder -> embedded_in_frames
I0720 11:44:01.946036  5107 net.cpp:141] Setting up data
I0720 11:44:01.946074  5107 net.cpp:148] Top shape: 10 3 227 227 (1545870)
I0720 11:44:01.946080  5107 net.cpp:156] Memory required for data: 6183480
I0720 11:44:01.946090  5107 layer_factory.hpp:77] Creating layer conv1
I0720 11:44:01.946112  5107 net.cpp:91] Creating Layer conv1
I0720 11:44:01.946120  5107 net.cpp:425] conv1 <- data
I0720 11:44:01.946128  5107 net.cpp:399] conv1 -> conv1
I0720 11:44:01.947131  5109 net.cpp:141] Setting up input
I0720 11:44:01.947161  5109 net.cpp:148] Top shape: 1 4096 (4096)
I0720 11:44:01.947170  5109 net.cpp:148] Top shape: 1 1 (1)
I0720 11:44:01.947175  5109 net.cpp:148] Top shape: 1 1 (1)
I0720 11:44:01.947180  5109 net.cpp:148] Top shape: 1 1 (1)
I0720 11:44:01.947185  5109 net.cpp:156] Memory required for data: 16396
I0720 11:44:01.947191  5109 layer_factory.hpp:77] Creating layer cont_sentence_input_1_split
I0720 11:44:01.947204  5109 net.cpp:91] Creating Layer cont_sentence_input_1_split
I0720 11:44:01.947211  5109 net.cpp:425] cont_sentence_input_1_split <- cont_sentence
I0720 11:44:01.947219  5109 net.cpp:399] cont_sentence_input_1_split -> cont_sentence_input_1_split_0
I0720 11:44:01.947230  5109 net.cpp:399] cont_sentence_input_1_split -> cont_sentence_input_1_split_1
I0720 11:44:01.947825  5109 net.cpp:141] Setting up cont_sentence_input_1_split
I0720 11:44:01.947849  5109 net.cpp:148] Top shape: 1 1 (1)
I0720 11:44:01.947860  5109 net.cpp:148] Top shape: 1 1 (1)
I0720 11:44:01.947867  5109 net.cpp:156] Memory required for data: 16404
I0720 11:44:01.947876  5109 layer_factory.hpp:77] Creating layer embed_encoder
I0720 11:44:01.947898  5109 net.cpp:91] Creating Layer embed_encoder
I0720 11:44:01.947908  5109 net.cpp:425] embed_encoder <- frames_fc7
I0720 11:44:01.947926  5109 net.cpp:399] embed_encoder -> embedded_in_frames
I0720 11:44:01.997805  5113 net.cpp:141] Setting up embed_encoder
I0720 11:44:01.997848  5113 net.cpp:148] Top shape: 1 500 (500)
I0720 11:44:01.997853  5113 net.cpp:156] Memory required for data: 18404
I0720 11:44:01.997876  5113 layer_factory.hpp:77] Creating layer reshape_frames
I0720 11:44:01.997905  5113 net.cpp:91] Creating Layer reshape_frames
I0720 11:44:01.997912  5113 net.cpp:425] reshape_frames <- embedded_in_frames
I0720 11:44:01.997923  5113 net.cpp:399] reshape_frames -> embedded_input_frames
I0720 11:44:01.998924  5113 net.cpp:141] Setting up reshape_frames
I0720 11:44:01.998937  5113 net.cpp:148] Top shape: 1 1 500 (500)
I0720 11:44:01.998942  5113 net.cpp:156] Memory required for data: 20404
I0720 11:44:01.998947  5113 layer_factory.hpp:77] Creating layer reshape_stage_indicator
I0720 11:44:01.998958  5113 net.cpp:91] Creating Layer reshape_stage_indicator
I0720 11:44:01.998963  5113 net.cpp:425] reshape_stage_indicator <- stage_indicator
I0720 11:44:01.998973  5113 net.cpp:399] reshape_stage_indicator -> reshaped_stage_indicator
I0720 11:44:02.006512  5113 net.cpp:141] Setting up reshape_stage_indicator
I0720 11:44:02.006526  5113 net.cpp:148] Top shape: 1 1 1 (1)
I0720 11:44:02.006531  5113 net.cpp:156] Memory required for data: 20408
I0720 11:44:02.006536  5113 layer_factory.hpp:77] Creating layer embedding
I0720 11:44:02.006548  5113 net.cpp:91] Creating Layer embedding
I0720 11:44:02.006553  5113 net.cpp:425] embedding <- input_sentence
I0720 11:44:02.006561  5113 net.cpp:399] embedding -> embedded_input_sentence
I0720 11:44:02.010969  5109 net.cpp:141] Setting up embed_encoder
I0720 11:44:02.010998  5109 net.cpp:148] Top shape: 1 500 (500)
I0720 11:44:02.011008  5109 net.cpp:156] Memory required for data: 18404
I0720 11:44:02.011029  5109 layer_factory.hpp:77] Creating layer reshape_frames
I0720 11:44:02.011047  5109 net.cpp:91] Creating Layer reshape_frames
I0720 11:44:02.011060  5109 net.cpp:425] reshape_frames <- embedded_in_frames
I0720 11:44:02.011078  5109 net.cpp:399] reshape_frames -> embedded_input_frames
I0720 11:44:02.023080  5109 net.cpp:141] Setting up reshape_frames
I0720 11:44:02.023113  5109 net.cpp:148] Top shape: 1 1 500 (500)
I0720 11:44:02.023123  5109 net.cpp:156] Memory required for data: 20404
I0720 11:44:02.023133  5109 layer_factory.hpp:77] Creating layer reshape_stage_indicator
I0720 11:44:02.023149  5109 net.cpp:91] Creating Layer reshape_stage_indicator
I0720 11:44:02.023159  5109 net.cpp:425] reshape_stage_indicator <- stage_indicator
I0720 11:44:02.023181  5109 net.cpp:399] reshape_stage_indicator -> reshaped_stage_indicator
I0720 11:44:02.103454  5109 net.cpp:141] Setting up reshape_stage_indicator
I0720 11:44:02.103502  5109 net.cpp:148] Top shape: 1 1 1 (1)
I0720 11:44:02.103507  5109 net.cpp:156] Memory required for data: 20408
I0720 11:44:02.103515  5109 layer_factory.hpp:77] Creating layer embedding
I0720 11:44:02.103540  5109 net.cpp:91] Creating Layer embedding
I0720 11:44:02.103548  5109 net.cpp:425] embedding <- input_sentence
I0720 11:44:02.103569  5109 net.cpp:399] embedding -> embedded_input_sentence
I0720 11:44:02.253901  5113 net.cpp:141] Setting up embedding
I0720 11:44:02.253945  5113 net.cpp:148] Top shape: 1 1 500 (500)
I0720 11:44:02.253952  5113 net.cpp:156] Memory required for data: 22408
I0720 11:44:02.253968  5113 layer_factory.hpp:77] Creating layer lstm1
I0720 11:44:02.253984  5113 net.cpp:91] Creating Layer lstm1
I0720 11:44:02.253991  5113 net.cpp:425] lstm1 <- embedded_input_frames
I0720 11:44:02.254000  5113 net.cpp:425] lstm1 <- cont_sentence_input_1_split_0
I0720 11:44:02.254011  5113 net.cpp:399] lstm1 -> lstm1
I0720 11:44:02.254042  5113 recurrent_layer.cpp:20] Initializing recurrent layer: assuming input batch contains 1 timesteps of 1 independent streams.
I0720 11:44:02.254370  5113 net.cpp:49] Initializing net from parameters: 
layer {
  name: "lstm1_"
  type: "Input"
  top: "x"
  top: "cont"
  input_param {
    shape {
      dim: 1
      dim: 1
      dim: 500
    }
    shape {
      dim: 1
      dim: 1
    }
  }
}
layer {
  name: "lstm1_"
  type: "Input"
  top: "c_0"
  top: "h_0"
  input_param {
    shape {
      dim: 1
      dim: 1
      dim: 1000
    }
    shape {
      dim: 1
      dim: 1
      dim: 1000
    }
  }
}
layer {
  name: "lstm1_cont_slice"
  type: "Slice"
  bottom: "cont"
  top: "cont_1"
  slice_param {
    axis: 0
  }
}
layer {
  name: "lstm1_x_transform"
  type: "InnerProduct"
  bottom: "x"
  top: "W_xc_x"
  param {
    name: "W_xc"
  }
  param {
    name: "b_c"
  }
  propagate_down: true
  inner_product_param {
    num_output: 4000
    bias_term: true
    weight_filler {
      type: "uniform"
      min: -0.08
      max: 0.08
    }
    bias_filler {
      type: "constant"
      value: 0
    }
    axis: 2
  }
}
layer {
  name: "lstm1_W_xc_x_slice"
  type: "Slice"
  bottom: "W_xc_x"
  top: "W_xc_x_1"
  slice_param {
    axis: 0
  }
}
layer {
  name: "lstm1_h_conted_0"
  type: "Scale"
  bottom: "h_0"
  bottom: "cont_1"
  top: "h_conted_0"
  scale_param {
    axis: 0
  }
}
layer {
  name: "lstm1_transform_1"
  type: "InnerProduct"
  bottom: "h_conted_0"
  top: "W_hc_h_0"
  param {
    name: "W_hc"
  }
  inner_product_param {
    num_output: 4000
    bias_term: false
    weight_filler {
      type: "uniform"
      min: -0.08
      max: 0.08
    }
    axis: 2
  }
}
layer {
  name: "lstm1_gate_input_1"
  type: "Eltwise"
  bottom: "W_hc_h_0"
  bottom: "W_xc_x_1"
  top: "gate_input_1"
  eltwise_param {
    operation: SUM
  }
}
layer {
  name: "lstm1_unit_1"
  type: "LSTMUnit"
  bottom: "c_0"
  bottom: "gate_input_1"
  bottom: "cont_1"
  top: "c_1"
  top: "h_1"
}
layer {
  name: "lstm1_"
  type: "Split"
  bottom: "c_1"
  top: "c_T"
}
layer {
  name: "lstm1_h_concat"
  type: "Concat"
  bottom: "h_1"
  top: "h"
  concat_param {
    axis: 0
  }
}
layer {
  name: "h_pseudoloss"
  type: "Reduction"
  bottom: "h"
  top: "h_pseudoloss"
  loss_weight: 1
}
I0720 11:44:02.254458  5113 layer_factory.hpp:77] Creating layer lstm1_
I0720 11:44:02.254470  5113 net.cpp:91] Creating Layer lstm1_
I0720 11:44:02.254477  5113 net.cpp:399] lstm1_ -> x
I0720 11:44:02.254488  5113 net.cpp:399] lstm1_ -> cont
I0720 11:44:02.274684  5113 net.cpp:141] Setting up lstm1_
I0720 11:44:02.274736  5113 net.cpp:148] Top shape: 1 1 500 (500)
I0720 11:44:02.274744  5113 net.cpp:148] Top shape: 1 1 (1)
I0720 11:44:02.274749  5113 net.cpp:156] Memory required for data: 2004
I0720 11:44:02.274757  5113 layer_factory.hpp:77] Creating layer lstm1_
I0720 11:44:02.274780  5113 net.cpp:91] Creating Layer lstm1_
I0720 11:44:02.274787  5113 net.cpp:399] lstm1_ -> c_0
I0720 11:44:02.274804  5113 net.cpp:399] lstm1_ -> h_0
I0720 11:44:02.285368  5113 net.cpp:141] Setting up lstm1_
I0720 11:44:02.285410  5113 net.cpp:148] Top shape: 1 1 1000 (1000)
I0720 11:44:02.285418  5113 net.cpp:148] Top shape: 1 1 1000 (1000)
I0720 11:44:02.285421  5113 net.cpp:156] Memory required for data: 10004
I0720 11:44:02.285429  5113 layer_factory.hpp:77] Creating layer lstm1_cont_slice
I0720 11:44:02.285449  5113 net.cpp:91] Creating Layer lstm1_cont_slice
I0720 11:44:02.285455  5113 net.cpp:425] lstm1_cont_slice <- cont
I0720 11:44:02.285465  5113 net.cpp:399] lstm1_cont_slice -> cont_1
I0720 11:44:02.306318  5113 net.cpp:141] Setting up lstm1_cont_slice
I0720 11:44:02.306361  5113 net.cpp:148] Top shape: 1 1 (1)
I0720 11:44:02.306367  5113 net.cpp:156] Memory required for data: 10008
I0720 11:44:02.306375  5113 layer_factory.hpp:77] Creating layer cont_1_lstm1_cont_slice_0_split
I0720 11:44:02.306390  5113 net.cpp:91] Creating Layer cont_1_lstm1_cont_slice_0_split
I0720 11:44:02.306396  5113 net.cpp:425] cont_1_lstm1_cont_slice_0_split <- cont_1
I0720 11:44:02.306406  5113 net.cpp:399] cont_1_lstm1_cont_slice_0_split -> cont_1_lstm1_cont_slice_0_split_0
I0720 11:44:02.306418  5113 net.cpp:399] cont_1_lstm1_cont_slice_0_split -> cont_1_lstm1_cont_slice_0_split_1
I0720 11:44:02.307091  5113 net.cpp:141] Setting up cont_1_lstm1_cont_slice_0_split
I0720 11:44:02.307103  5113 net.cpp:148] Top shape: 1 1 (1)
I0720 11:44:02.307111  5113 net.cpp:148] Top shape: 1 1 (1)
I0720 11:44:02.307116  5113 net.cpp:156] Memory required for data: 10016
I0720 11:44:02.307121  5113 layer_factory.hpp:77] Creating layer lstm1_x_transform
I0720 11:44:02.307134  5113 net.cpp:91] Creating Layer lstm1_x_transform
I0720 11:44:02.307139  5113 net.cpp:425] lstm1_x_transform <- x
I0720 11:44:02.307149  5113 net.cpp:399] lstm1_x_transform -> W_xc_x
I0720 11:44:02.362303  5109 net.cpp:141] Setting up embedding
I0720 11:44:02.362347  5109 net.cpp:148] Top shape: 1 1 500 (500)
I0720 11:44:02.362354  5109 net.cpp:156] Memory required for data: 22408
I0720 11:44:02.362368  5109 layer_factory.hpp:77] Creating layer lstm1
I0720 11:44:02.362388  5109 net.cpp:91] Creating Layer lstm1
I0720 11:44:02.362396  5109 net.cpp:425] lstm1 <- embedded_input_frames
I0720 11:44:02.362403  5109 net.cpp:425] lstm1 <- cont_sentence_input_1_split_0
I0720 11:44:02.362411  5109 net.cpp:399] lstm1 -> lstm1
I0720 11:44:02.362426  5109 recurrent_layer.cpp:20] Initializing recurrent layer: assuming input batch contains 1 timesteps of 1 independent streams.
I0720 11:44:02.362715  5109 net.cpp:49] Initializing net from parameters: 
layer {
  name: "lstm1_"
  type: "Input"
  top: "x"
  top: "cont"
  input_param {
    shape {
      dim: 1
      dim: 1
      dim: 500
    }
    shape {
      dim: 1
      dim: 1
    }
  }
}
layer {
  name: "lstm1_"
  type: "Input"
  top: "c_0"
  top: "h_0"
  input_param {
    shape {
      dim: 1
      dim: 1
      dim: 1000
    }
    shape {
      dim: 1
      dim: 1
      dim: 1000
    }
  }
}
layer {
  name: "lstm1_cont_slice"
  type: "Slice"
  bottom: "cont"
  top: "cont_1"
  slice_param {
    axis: 0
  }
}
layer {
  name: "lstm1_x_transform"
  type: "InnerProduct"
  bottom: "x"
  top: "W_xc_x"
  param {
    name: "W_xc"
  }
  param {
    name: "b_c"
  }
  propagate_down: true
  inner_product_param {
    num_output: 4000
    bias_term: true
    weight_filler {
      type: "uniform"
      min: -0.08
      max: 0.08
    }
    bias_filler {
      type: "constant"
      value: 0
    }
    axis: 2
  }
}
layer {
  name: "lstm1_W_xc_x_slice"
  type: "Slice"
  bottom: "W_xc_x"
  top: "W_xc_x_1"
  slice_param {
    axis: 0
  }
}
layer {
  name: "lstm1_h_conted_0"
  type: "Scale"
  bottom: "h_0"
  bottom: "cont_1"
  top: "h_conted_0"
  scale_param {
    axis: 0
  }
}
layer {
  name: "lstm1_transform_1"
  type: "InnerProduct"
  bottom: "h_conted_0"
  top: "W_hc_h_0"
  param {
    name: "W_hc"
  }
  inner_product_param {
    num_output: 4000
    bias_term: false
    weight_filler {
      type: "uniform"
      min: -0.08
      max: 0.08
    }
    axis: 2
  }
}
layer {
  name: "lstm1_gate_input_1"
  type: "Eltwise"
  bottom: "W_hc_h_0"
  bottom: "W_xc_x_1"
  top: "gate_input_1"
  eltwise_param {
    operation: SUM
  }
}
layer {
  name: "lstm1_unit_1"
  type: "LSTMUnit"
  bottom: "c_0"
  bottom: "gate_input_1"
  bottom: "cont_1"
  top: "c_1"
  top: "h_1"
}
layer {
  name: "lstm1_"
  type: "Split"
  bottom: "c_1"
  top: "c_T"
}
layer {
  name: "lstm1_h_concat"
  type: "Concat"
  bottom: "h_1"
  top: "h"
  concat_param {
    axis: 0
  }
}
layer {
  name: "h_pseudoloss"
  type: "Reduction"
  bottom: "h"
  top: "h_pseudoloss"
  loss_weight: 1
}
I0720 11:44:02.362817  5109 layer_factory.hpp:77] Creating layer lstm1_
I0720 11:44:02.362829  5109 net.cpp:91] Creating Layer lstm1_
I0720 11:44:02.362835  5109 net.cpp:399] lstm1_ -> x
I0720 11:44:02.362846  5109 net.cpp:399] lstm1_ -> cont
I0720 11:44:02.370474  5109 net.cpp:141] Setting up lstm1_
I0720 11:44:02.370501  5109 net.cpp:148] Top shape: 1 1 500 (500)
I0720 11:44:02.370507  5109 net.cpp:148] Top shape: 1 1 (1)
I0720 11:44:02.370512  5109 net.cpp:156] Memory required for data: 2004
I0720 11:44:02.370518  5109 layer_factory.hpp:77] Creating layer lstm1_
I0720 11:44:02.370540  5109 net.cpp:91] Creating Layer lstm1_
I0720 11:44:02.370549  5109 net.cpp:399] lstm1_ -> c_0
I0720 11:44:02.370563  5109 net.cpp:399] lstm1_ -> h_0
I0720 11:44:02.391170  5109 net.cpp:141] Setting up lstm1_
I0720 11:44:02.391204  5109 net.cpp:148] Top shape: 1 1 1000 (1000)
I0720 11:44:02.391212  5109 net.cpp:148] Top shape: 1 1 1000 (1000)
I0720 11:44:02.391216  5109 net.cpp:156] Memory required for data: 10004
I0720 11:44:02.391223  5109 layer_factory.hpp:77] Creating layer lstm1_cont_slice
I0720 11:44:02.391242  5109 net.cpp:91] Creating Layer lstm1_cont_slice
I0720 11:44:02.391247  5109 net.cpp:425] lstm1_cont_slice <- cont
I0720 11:44:02.391257  5109 net.cpp:399] lstm1_cont_slice -> cont_1
I0720 11:44:02.392807  5113 net.cpp:141] Setting up lstm1_x_transform
I0720 11:44:02.392827  5113 net.cpp:148] Top shape: 1 1 4000 (4000)
I0720 11:44:02.392832  5113 net.cpp:156] Memory required for data: 26016
I0720 11:44:02.392846  5113 layer_factory.hpp:77] Creating layer lstm1_W_xc_x_slice
I0720 11:44:02.392855  5113 net.cpp:91] Creating Layer lstm1_W_xc_x_slice
I0720 11:44:02.392861  5113 net.cpp:425] lstm1_W_xc_x_slice <- W_xc_x
I0720 11:44:02.392868  5113 net.cpp:399] lstm1_W_xc_x_slice -> W_xc_x_1
I0720 11:44:02.396771  5109 net.cpp:141] Setting up lstm1_cont_slice
I0720 11:44:02.396796  5109 net.cpp:148] Top shape: 1 1 (1)
I0720 11:44:02.396802  5109 net.cpp:156] Memory required for data: 10008
I0720 11:44:02.396807  5109 layer_factory.hpp:77] Creating layer cont_1_lstm1_cont_slice_0_split
I0720 11:44:02.396817  5109 net.cpp:91] Creating Layer cont_1_lstm1_cont_slice_0_split
I0720 11:44:02.396822  5109 net.cpp:425] cont_1_lstm1_cont_slice_0_split <- cont_1
I0720 11:44:02.396831  5109 net.cpp:399] cont_1_lstm1_cont_slice_0_split -> cont_1_lstm1_cont_slice_0_split_0
I0720 11:44:02.396841  5109 net.cpp:399] cont_1_lstm1_cont_slice_0_split -> cont_1_lstm1_cont_slice_0_split_1
I0720 11:44:02.399722  5113 net.cpp:141] Setting up lstm1_W_xc_x_slice
I0720 11:44:02.399745  5113 net.cpp:148] Top shape: 1 1 4000 (4000)
I0720 11:44:02.399751  5113 net.cpp:156] Memory required for data: 42016
I0720 11:44:02.399757  5113 layer_factory.hpp:77] Creating layer lstm1_h_conted_0
I0720 11:44:02.399770  5113 net.cpp:91] Creating Layer lstm1_h_conted_0
I0720 11:44:02.399776  5113 net.cpp:425] lstm1_h_conted_0 <- h_0
I0720 11:44:02.399783  5113 net.cpp:425] lstm1_h_conted_0 <- cont_1_lstm1_cont_slice_0_split_0
I0720 11:44:02.399791  5113 net.cpp:399] lstm1_h_conted_0 -> h_conted_0
I0720 11:44:02.439905  5109 net.cpp:141] Setting up cont_1_lstm1_cont_slice_0_split
I0720 11:44:02.439949  5109 net.cpp:148] Top shape: 1 1 (1)
I0720 11:44:02.439955  5109 net.cpp:148] Top shape: 1 1 (1)
I0720 11:44:02.439960  5109 net.cpp:156] Memory required for data: 10016
I0720 11:44:02.439967  5109 layer_factory.hpp:77] Creating layer lstm1_x_transform
I0720 11:44:02.439993  5109 net.cpp:91] Creating Layer lstm1_x_transform
I0720 11:44:02.440001  5109 net.cpp:425] lstm1_x_transform <- x
I0720 11:44:02.440011  5109 net.cpp:399] lstm1_x_transform -> W_xc_x
I0720 11:44:02.458750  5113 net.cpp:141] Setting up lstm1_h_conted_0
I0720 11:44:02.458791  5113 net.cpp:148] Top shape: 1 1 1000 (1000)
I0720 11:44:02.458797  5113 net.cpp:156] Memory required for data: 46016
I0720 11:44:02.458806  5113 layer_factory.hpp:77] Creating layer lstm1_transform_1
I0720 11:44:02.458825  5113 net.cpp:91] Creating Layer lstm1_transform_1
I0720 11:44:02.458832  5113 net.cpp:425] lstm1_transform_1 <- h_conted_0
I0720 11:44:02.458844  5113 net.cpp:399] lstm1_transform_1 -> W_hc_h_0
I0720 11:44:02.505852  5113 net.cpp:141] Setting up lstm1_transform_1
I0720 11:44:02.505898  5113 net.cpp:148] Top shape: 1 1 4000 (4000)
I0720 11:44:02.505904  5113 net.cpp:156] Memory required for data: 62016
I0720 11:44:02.505921  5113 layer_factory.hpp:77] Creating layer lstm1_gate_input_1
I0720 11:44:02.505939  5113 net.cpp:91] Creating Layer lstm1_gate_input_1
I0720 11:44:02.505946  5113 net.cpp:425] lstm1_gate_input_1 <- W_hc_h_0
I0720 11:44:02.505954  5113 net.cpp:425] lstm1_gate_input_1 <- W_xc_x_1
I0720 11:44:02.505964  5113 net.cpp:399] lstm1_gate_input_1 -> gate_input_1
I0720 11:44:02.511864  5113 net.cpp:141] Setting up lstm1_gate_input_1
I0720 11:44:02.511891  5113 net.cpp:148] Top shape: 1 1 4000 (4000)
I0720 11:44:02.511896  5113 net.cpp:156] Memory required for data: 78016
I0720 11:44:02.511903  5113 layer_factory.hpp:77] Creating layer lstm1_unit_1
I0720 11:44:02.511927  5113 net.cpp:91] Creating Layer lstm1_unit_1
I0720 11:44:02.511934  5113 net.cpp:425] lstm1_unit_1 <- c_0
I0720 11:44:02.511941  5113 net.cpp:425] lstm1_unit_1 <- gate_input_1
I0720 11:44:02.511947  5113 net.cpp:425] lstm1_unit_1 <- cont_1_lstm1_cont_slice_0_split_1
I0720 11:44:02.511955  5113 net.cpp:399] lstm1_unit_1 -> c_1
I0720 11:44:02.511965  5113 net.cpp:399] lstm1_unit_1 -> h_1
I0720 11:44:02.527295  5109 net.cpp:141] Setting up lstm1_x_transform
I0720 11:44:02.527336  5109 net.cpp:148] Top shape: 1 1 4000 (4000)
I0720 11:44:02.527341  5109 net.cpp:156] Memory required for data: 26016
I0720 11:44:02.527362  5109 layer_factory.hpp:77] Creating layer lstm1_W_xc_x_slice
I0720 11:44:02.527377  5109 net.cpp:91] Creating Layer lstm1_W_xc_x_slice
I0720 11:44:02.527384  5109 net.cpp:425] lstm1_W_xc_x_slice <- W_xc_x
I0720 11:44:02.527392  5109 net.cpp:399] lstm1_W_xc_x_slice -> W_xc_x_1
I0720 11:44:02.534180  5109 net.cpp:141] Setting up lstm1_W_xc_x_slice
I0720 11:44:02.534216  5109 net.cpp:148] Top shape: 1 1 4000 (4000)
I0720 11:44:02.534222  5109 net.cpp:156] Memory required for data: 42016
I0720 11:44:02.534229  5109 layer_factory.hpp:77] Creating layer lstm1_h_conted_0
I0720 11:44:02.534241  5109 net.cpp:91] Creating Layer lstm1_h_conted_0
I0720 11:44:02.534246  5109 net.cpp:425] lstm1_h_conted_0 <- h_0
I0720 11:44:02.534255  5109 net.cpp:425] lstm1_h_conted_0 <- cont_1_lstm1_cont_slice_0_split_0
I0720 11:44:02.534261  5109 net.cpp:399] lstm1_h_conted_0 -> h_conted_0
I0720 11:44:02.535245  5113 net.cpp:141] Setting up lstm1_unit_1
I0720 11:44:02.535266  5113 net.cpp:148] Top shape: 1 1 1000 (1000)
I0720 11:44:02.535274  5113 net.cpp:148] Top shape: 1 1 1000 (1000)
I0720 11:44:02.535277  5113 net.cpp:156] Memory required for data: 86016
I0720 11:44:02.535284  5113 layer_factory.hpp:77] Creating layer lstm1_
I0720 11:44:02.535292  5113 net.cpp:91] Creating Layer lstm1_
I0720 11:44:02.535297  5113 net.cpp:425] lstm1_ <- c_1
I0720 11:44:02.535305  5113 net.cpp:399] lstm1_ -> c_T
I0720 11:44:02.537076  5113 net.cpp:141] Setting up lstm1_
I0720 11:44:02.537096  5113 net.cpp:148] Top shape: 1 1 1000 (1000)
I0720 11:44:02.537101  5113 net.cpp:156] Memory required for data: 90016
I0720 11:44:02.537106  5113 layer_factory.hpp:77] Creating layer lstm1_h_concat
I0720 11:44:02.537117  5113 net.cpp:91] Creating Layer lstm1_h_concat
I0720 11:44:02.537122  5113 net.cpp:425] lstm1_h_concat <- h_1
I0720 11:44:02.537132  5113 net.cpp:399] lstm1_h_concat -> h
I0720 11:44:02.537288  5113 net.cpp:141] Setting up lstm1_h_concat
I0720 11:44:02.537298  5113 net.cpp:148] Top shape: 1 1 1000 (1000)
I0720 11:44:02.537303  5113 net.cpp:156] Memory required for data: 94016
I0720 11:44:02.537307  5113 layer_factory.hpp:77] Creating layer h_pseudoloss
I0720 11:44:02.537322  5113 net.cpp:91] Creating Layer h_pseudoloss
I0720 11:44:02.537327  5113 net.cpp:425] h_pseudoloss <- h
I0720 11:44:02.537335  5113 net.cpp:399] h_pseudoloss -> h_pseudoloss
I0720 11:44:02.537657  5109 net.cpp:141] Setting up lstm1_h_conted_0
I0720 11:44:02.537674  5109 net.cpp:148] Top shape: 1 1 1000 (1000)
I0720 11:44:02.537679  5109 net.cpp:156] Memory required for data: 46016
I0720 11:44:02.537684  5109 layer_factory.hpp:77] Creating layer lstm1_transform_1
I0720 11:44:02.537700  5109 net.cpp:91] Creating Layer lstm1_transform_1
I0720 11:44:02.537706  5109 net.cpp:425] lstm1_transform_1 <- h_conted_0
I0720 11:44:02.537714  5109 net.cpp:399] lstm1_transform_1 -> W_hc_h_0
I0720 11:44:02.575676  5113 net.cpp:141] Setting up h_pseudoloss
…
I0720 11:44:02.575835  5113 net.cpp:219] lstm1_ does not need backward computation.
I0720 11:44:02.575839  5113 net.cpp:261] This network produces output c_T
I0720 11:44:02.575845  5113 net.cpp:261] This network produces output h_pseudoloss
I0720 11:44:02.575871  5113 net.cpp:274] Network initialization done.
I0720 11:44:02.575933  5113 recurrent_layer.cpp:150] Adding parameter 0: W_xc
I0720 11:44:02.575940  5113 recurrent_layer.cpp:150] Adding parameter 1: b_c
I0720 11:44:02.575945  5113 recurrent_layer.cpp:150] Adding parameter 2: W_hc
I0720 11:44:02.611562  5113 net.cpp:141] Setting up lstm1
I0720 11:44:02.611601  5113 net.cpp:148] Top shape: 1 1 1000 (1000)
I0720 11:44:02.611608  5113 net.cpp:156] Memory required for data: 26408
I0720 11:44:02.611626  5113 layer_factory.hpp:77] Creating layer concat
I0720 11:44:02.611642  5113 net.cpp:91] Creating Layer concat
I0720 11:44:02.611650  5113 net.cpp:425] concat <- lstm1
I0720 11:44:02.611660  5113 net.cpp:425] concat <- embedded_input_sentence
I0720 11:44:02.611665  5113 net.cpp:425] concat <- reshaped_stage_indicator
I0720 11:44:02.611671  5113 net.cpp:399] concat -> lstm1_video_sequence
I0720 11:44:02.618834  5109 net.cpp:141] Setting up lstm1_transform_1
I0720 11:44:02.618875  5109 net.cpp:148] Top shape: 1 1 4000 (4000)
I0720 11:44:02.618880  5109 net.cpp:156] Memory required for data: 62016
I0720 11:44:02.618898  5109 layer_factory.hpp:77] Creating layer lstm1_gate_input_1
I0720 11:44:02.618916  5109 net.cpp:91] Creating Layer lstm1_gate_input_1
I0720 11:44:02.618922  5109 net.cpp:425] lstm1_gate_input_1 <- W_hc_h_0
I0720 11:44:02.618930  5109 net.cpp:425] lstm1_gate_input_1 <- W_xc_x_1
I0720 11:44:02.618938  5109 net.cpp:399] lstm1_gate_input_1 -> gate_input_1
I0720 11:44:02.619935  5113 net.cpp:141] Setting up concat
I0720 11:44:02.619956  5113 net.cpp:148] Top shape: 1 1 1501 (1501)
I0720 11:44:02.619961  5113 net.cpp:156] Memory required for data: 32412
I0720 11:44:02.619966  5113 layer_factory.hpp:77] Creating layer lstm2
I0720 11:44:02.619982  5113 net.cpp:91] Creating Layer lstm2
I0720 11:44:02.619987  5113 net.cpp:425] lstm2 <- lstm1_video_sequence
I0720 11:44:02.619994  5113 net.cpp:425] lstm2 <- cont_sentence_input_1_split_1
I0720 11:44:02.620002  5113 net.cpp:399] lstm2 -> lstm2
I0720 11:44:02.620014  5113 recurrent_layer.cpp:20] Initializing recurrent layer: assuming input batch contains 1 timesteps of 1 independent streams.
I0720 11:44:02.620285  5113 net.cpp:49] Initializing net from parameters: 
layer {
  name: "lstm2_"
  type: "Input"
  top: "x"
  top: "cont"
  input_param {
    shape {
      dim: 1
      dim: 1
      dim: 1501
    }
    shape {
      dim: 1
      dim: 1
    }
  }
}
layer {
  name: "lstm2_"
  type: "Input"
  top: "c_0"
  top: "h_0"
  input_param {
    shape {
      dim: 1
      dim: 1
      dim: 1000
    }
    shape {
      dim: 1
      dim: 1
      dim: 1000
    }
  }
}
layer {
  name: "lstm2_cont_slice"
  type: "Slice"
  bottom: "cont"
  top: "cont_1"
  slice_param {
    axis: 0
  }
}
layer {
  name: "lstm2_x_transform"
  type: "InnerProduct"
  bottom: "x"
  top: "W_xc_x"
  param {
    name: "W_xc"
  }
  param {
    name: "b_c"
  }
  propagate_down: true
  inner_product_param {
    num_output: 4000
    bias_term: true
    weight_filler {
      type: "uniform"
      min: -0.08
      max: 0.08
    }
    bias_filler {
      type: "constant"
      value: 0
    }
    axis: 2
  }
}
layer {
  name: "lstm2_W_xc_x_slice"
  type: "Slice"
  bottom: "W_xc_x"
  top: "W_xc_x_1"
  slice_param {
    axis: 0
  }
}
layer {
  name: "lstm2_h_conted_0"
  type: "Scale"
  bottom: "h_0"
  bottom: "cont_1"
  top: "h_conted_0"
  scale_param {
    axis: 0
  }
}
layer {
  name: "lstm2_transform_1"
  type: "InnerProduct"
  bottom: "h_conted_0"
  top: "W_hc_h_0"
  param {
    name: "W_hc"
  }
  inner_product_param {
    num_output: 4000
    bias_term: false
    weight_filler {
      type: "uniform"
      min: -0.08
      max: 0.08
    }
    axis: 2
  }
}
layer {
  name: "lstm2_gate_input_1"
  type: "Eltwise"
  bottom: "W_hc_h_0"
  bottom: "W_xc_x_1"
  top: "gate_input_1"
  eltwise_param {
    operation: SUM
  }
}
layer {
  name: "lstm2_unit_1"
  type: "LSTMUnit"
  bottom: "c_0"
  bottom: "gate_input_1"
  bottom: "cont_1"
  top: "c_1"
  top: "h_1"
}
layer {
  name: "lstm2_"
  type: "Split"
  bottom: "c_1"
  top: "c_T"
}
layer {
  name: "lstm2_h_concat"
  type: "Concat"
  bottom: "h_1"
  top: "h"
  concat_param {
    axis: 0
  }
}
layer {
  name: "h_pseudoloss"
  type: "Reduction"
  bottom: "h"
  top: "h_pseudoloss"
  loss_weight: 1
}
I0720 11:44:02.620369  5113 layer_factory.hpp:77] Creating layer lstm2_
I0720 11:44:02.620381  5113 net.cpp:91] Creating Layer lstm2_
I0720 11:44:02.620388  5113 net.cpp:399] lstm2_ -> x
I0720 11:44:02.620398  5113 net.cpp:399] lstm2_ -> cont
I0720 11:44:02.620962  5109 net.cpp:141] Setting up lstm1_gate_input_1
I0720 11:44:02.620981  5109 net.cpp:148] Top shape: 1 1 4000 (4000)
I0720 11:44:02.620986  5109 net.cpp:156] Memory required for data: 78016
I0720 11:44:02.620991  5109 layer_factory.hpp:77] Creating layer lstm1_unit_1
I0720 11:44:02.621001  5109 net.cpp:91] Creating Layer lstm1_unit_1
I0720 11:44:02.621006  5109 net.cpp:425] lstm1_unit_1 <- c_0
I0720 11:44:02.621011  5109 net.cpp:425] lstm1_unit_1 <- gate_input_1
I0720 11:44:02.621016  5109 net.cpp:425] lstm1_unit_1 <- cont_1_lstm1_cont_slice_0_split_1
I0720 11:44:02.621022  5109 net.cpp:399] lstm1_unit_1 -> c_1
I0720 11:44:02.621032  5109 net.cpp:399] lstm1_unit_1 -> h_1
I0720 11:44:02.623448  5113 net.cpp:141] Setting up lstm2_
I0720 11:44:02.623468  5113 net.cpp:148] Top shape: 1 1 1501 (1501)
I0720 11:44:02.623476  5113 net.cpp:148] Top shape: 1 1 (1)
I0720 11:44:02.623479  5113 net.cpp:156] Memory required for data: 6008
I0720 11:44:02.623484  5113 layer_factory.hpp:77] Creating layer lstm2_
I0720 11:44:02.623497  5113 net.cpp:91] Creating Layer lstm2_
I0720 11:44:02.623504  5113 net.cpp:399] lstm2_ -> c_0
I0720 11:44:02.623517  5113 net.cpp:399] lstm2_ -> h_0
I0720 11:44:02.627151  5109 net.cpp:141] Setting up lstm1_unit_1
I0720 11:44:02.627192  5109 net.cpp:148] Top shape: 1 1 1000 (1000)
I0720 11:44:02.627207  5109 net.cpp:148] Top shape: 1 1 1000 (1000)
I0720 11:44:02.627215  5109 net.cpp:156] Memory required for data: 86016
I0720 11:44:02.627226  5109 layer_factory.hpp:77] Creating layer lstm1_
I0720 11:44:02.627245  5109 net.cpp:91] Creating Layer lstm1_
I0720 11:44:02.627256  5109 net.cpp:425] lstm1_ <- c_1
I0720 11:44:02.627272  5109 net.cpp:399] lstm1_ -> c_T
I0720 11:44:02.630666  5113 net.cpp:141] Setting up lstm2_
I0720 11:44:02.630717  5113 net.cpp:148] Top shape: 1 1 1000 (1000)
I0720 11:44:02.630730  5113 net.cpp:148] Top shape: 1 1 1000 (1000)
I0720 11:44:02.630738  5113 net.cpp:156] Memory required for data: 14008
I0720 11:44:02.630745  5113 layer_factory.hpp:77] Creating layer lstm2_cont_slice
I0720 11:44:02.630764  5113 net.cpp:91] Creating Layer lstm2_cont_slice
I0720 11:44:02.630771  5113 net.cpp:425] lstm2_cont_slice <- cont
I0720 11:44:02.630781  5113 net.cpp:399] lstm2_cont_slice -> cont_1
I0720 11:44:02.633180  5109 net.cpp:141] Setting up lstm1_
I0720 11:44:02.633208  5109 net.cpp:148] Top shape: 1 1 1000 (1000)
I0720 11:44:02.633216  5109 net.cpp:156] Memory required for data: 90016
I0720 11:44:02.633227  5109 layer_factory.hpp:77] Creating layer lstm1_h_concat
I0720 11:44:02.633247  5109 net.cpp:91] Creating Layer lstm1_h_concat
I0720 11:44:02.633256  5109 net.cpp:425] lstm1_h_concat <- h_1
I0720 11:44:02.633271  5109 net.cpp:399] lstm1_h_concat -> h
I0720 11:44:02.650107  5113 net.cpp:141] Setting up lstm2_cont_slice
I0720 11:44:02.650153  5113 net.cpp:148] Top shape: 1 1 (1)
I0720 11:44:02.650161  5113 net.cpp:156] Memory required for data: 14012
I0720 11:44:02.650173  5113 layer_factory.hpp:77] Creating layer cont_1_lstm2_cont_slice_0_split
I0720 11:44:02.650192  5113 net.cpp:91] Creating Layer cont_1_lstm2_cont_slice_0_split
I0720 11:44:02.650202  5113 net.cpp:425] cont_1_lstm2_cont_slice_0_split <- cont_1
I0720 11:44:02.650218  5113 net.cpp:399] cont_1_lstm2_cont_slice_0_split -> cont_1_lstm2_cont_slice_0_split_0
I0720 11:44:02.650235  5113 net.cpp:399] cont_1_lstm2_cont_slice_0_split -> cont_1_lstm2_cont_slice_0_split_1
I0720 11:44:02.651546  5109 net.cpp:141] Setting up lstm1_h_concat
I0720 11:44:02.651569  5109 net.cpp:148] Top shape: 1 1 1000 (1000)
I0720 11:44:02.651576  5109 net.cpp:156] Memory required for data: 94016
I0720 11:44:02.651581  5109 layer_factory.hpp:77] Creating layer h_pseudoloss
I0720 11:44:02.651590  5109 net.cpp:91] Creating Layer h_pseudoloss
I0720 11:44:02.651595  5109 net.cpp:425] h_pseudoloss <- h
I0720 11:44:02.651603  5109 net.cpp:399] h_pseudoloss -> h_pseudoloss
I0720 11:44:02.668361  5113 net.cpp:141] Setting up cont_1_lstm2_cont_slice_0_split
I0720 11:44:02.668406  5113 net.cpp:148] Top shape: 1 1 (1)
I0720 11:44:02.668413  5113 net.cpp:148] Top shape: 1 1 (1)
I0720 11:44:02.668417  5113 net.cpp:156] Memory required for data: 14020
I0720 11:44:02.668426  5113 layer_factory.hpp:77] Creating layer lstm2_x_transform
I0720 11:44:02.668450  5113 net.cpp:91] Creating Layer lstm2_x_transform
I0720 11:44:02.668457  5113 net.cpp:425] lstm2_x_transform <- x
I0720 11:44:02.668472  5113 net.cpp:399] lstm2_x_transform -> W_xc_x
I0720 11:44:02.670971  5109 net.cpp:141] Setting up h_pseudoloss
…
I0720 11:44:02.671082  5109 net.cpp:219] lstm1_ does not need backward computation.
I0720 11:44:02.671087  5109 net.cpp:261] This network produces output c_T
I0720 11:44:02.671092  5109 net.cpp:261] This network produces output h_pseudoloss
I0720 11:44:02.671108  5109 net.cpp:274] Network initialization done.
I0720 11:44:02.671154  5109 recurrent_layer.cpp:150] Adding parameter 0: W_xc
I0720 11:44:02.671161  5109 recurrent_layer.cpp:150] Adding parameter 1: b_c
I0720 11:44:02.671165  5109 recurrent_layer.cpp:150] Adding parameter 2: W_hc
I0720 11:44:02.719247  5109 net.cpp:141] Setting up lstm1
I0720 11:44:02.719759  5109 net.cpp:148] Top shape: 1 1 1000 (1000)
I0720 11:44:02.719774  5109 net.cpp:156] Memory required for data: 26408
I0720 11:44:02.719805  5109 layer_factory.hpp:77] Creating layer concat
I0720 11:44:02.719828  5109 net.cpp:91] Creating Layer concat
I0720 11:44:02.719842  5109 net.cpp:425] concat <- lstm1
I0720 11:44:02.719856  5109 net.cpp:425] concat <- embedded_input_sentence
I0720 11:44:02.719867  5109 net.cpp:425] concat <- reshaped_stage_indicator
I0720 11:44:02.719882  5109 net.cpp:399] concat -> lstm1_video_sequence
I0720 11:44:02.722028  5109 net.cpp:141] Setting up concat
I0720 11:44:02.722322  5109 net.cpp:148] Top shape: 1 1 1501 (1501)
I0720 11:44:02.722339  5109 net.cpp:156] Memory required for data: 32412
I0720 11:44:02.722349  5109 layer_factory.hpp:77] Creating layer lstm2
I0720 11:44:02.722371  5109 net.cpp:91] Creating Layer lstm2
I0720 11:44:02.722380  5109 net.cpp:425] lstm2 <- lstm1_video_sequence
I0720 11:44:02.722391  5109 net.cpp:425] lstm2 <- cont_sentence_input_1_split_1
I0720 11:44:02.722405  5109 net.cpp:399] lstm2 -> lstm2
I0720 11:44:02.722424  5109 recurrent_layer.cpp:20] Initializing recurrent layer: assuming input batch contains 1 timesteps of 1 independent streams.
I0720 11:44:02.722825  5109 net.cpp:49] Initializing net from parameters: 
layer {
  name: "lstm2_"
  type: "Input"
  top: "x"
  top: "cont"
  input_param {
    shape {
      dim: 1
      dim: 1
      dim: 1501
    }
    shape {
      dim: 1
      dim: 1
    }
  }
}
layer {
  name: "lstm2_"
  type: "Input"
  top: "c_0"
  top: "h_0"
  input_param {
    shape {
      dim: 1
      dim: 1
      dim: 1000
    }
    shape {
      dim: 1
      dim: 1
      dim: 1000
    }
  }
}
layer {
  name: "lstm2_cont_slice"
  type: "Slice"
  bottom: "cont"
  top: "cont_1"
  slice_param {
    axis: 0
  }
}
layer {
  name: "lstm2_x_transform"
  type: "InnerProduct"
  bottom: "x"
  top: "W_xc_x"
  param {
    name: "W_xc"
  }
  param {
    name: "b_c"
  }
  propagate_down: true
  inner_product_param {
    num_output: 4000
    bias_term: true
    weight_filler {
      type: "uniform"
      min: -0.08
      max: 0.08
    }
    bias_filler {
      type: "constant"
      value: 0
    }
    axis: 2
  }
}
layer {
  name: "lstm2_W_xc_x_slice"
  type: "Slice"
  bottom: "W_xc_x"
  top: "W_xc_x_1"
  slice_param {
    axis: 0
  }
}
layer {
  name: "lstm2_h_conted_0"
  type: "Scale"
  bottom: "h_0"
  bottom: "cont_1"
  top: "h_conted_0"
  scale_param {
    axis: 0
  }
}
layer {
  name: "lstm2_transform_1"
  type: "InnerProduct"
  bottom: "h_conted_0"
  top: "W_hc_h_0"
  param {
    name: "W_hc"
  }
  inner_product_param {
    num_output: 4000
    bias_term: false
    weight_filler {
      type: "uniform"
      min: -0.08
      max: 0.08
    }
    axis: 2
  }
}
layer {
  name: "lstm2_gate_input_1"
  type: "Eltwise"
  bottom: "W_hc_h_0"
  bottom: "W_xc_x_1"
  top: "gate_input_1"
  eltwise_param {
    operation: SUM
  }
}
layer {
  name: "lstm2_unit_1"
  type: "LSTMUnit"
  bottom: "c_0"
  bottom: "gate_input_1"
  bottom: "cont_1"
  top: "c_1"
  top: "h_1"
}
layer {
  name: "lstm2_"
  type: "Split"
  bottom: "c_1"
  top: "c_T"
}
layer {
  name: "lstm2_h_concat"
  type: "Concat"
  bottom: "h_1"
  top: "h"
  concat_param {
    axis: 0
  }
}
layer {
  name: "h_pseudoloss"
  type: "Reduction"
  bottom: "h"
  top: "h_pseudoloss"
  loss_weight: 1
}
I0720 11:44:02.722962  5109 layer_factory.hpp:77] Creating layer lstm2_
I0720 11:44:02.722982  5109 net.cpp:91] Creating Layer lstm2_
I0720 11:44:02.722993  5109 net.cpp:399] lstm2_ -> x
I0720 11:44:02.723012  5109 net.cpp:399] lstm2_ -> cont
I0720 11:44:02.743394  5109 net.cpp:141] Setting up lstm2_
I0720 11:44:02.743448  5109 net.cpp:148] Top shape: 1 1 1501 (1501)
I0720 11:44:02.743461  5109 net.cpp:148] Top shape: 1 1 (1)
I0720 11:44:02.743469  5109 net.cpp:156] Memory required for data: 6008
I0720 11:44:02.743481  5109 layer_factory.hpp:77] Creating layer lstm2_
I0720 11:44:02.743513  5109 net.cpp:91] Creating Layer lstm2_
I0720 11:44:02.743530  5109 net.cpp:399] lstm2_ -> c_0
I0720 11:44:02.743552  5109 net.cpp:399] lstm2_ -> h_0
I0720 11:44:02.749898  5109 net.cpp:141] Setting up lstm2_
I0720 11:44:02.749943  5109 net.cpp:148] Top shape: 1 1 1000 (1000)
I0720 11:44:02.749956  5109 net.cpp:148] Top shape: 1 1 1000 (1000)
I0720 11:44:02.749965  5109 net.cpp:156] Memory required for data: 14008
I0720 11:44:02.749976  5109 layer_factory.hpp:77] Creating layer lstm2_cont_slice
I0720 11:44:02.750000  5109 net.cpp:91] Creating Layer lstm2_cont_slice
I0720 11:44:02.750010  5109 net.cpp:425] lstm2_cont_slice <- cont
I0720 11:44:02.750023  5109 net.cpp:399] lstm2_cont_slice -> cont_1
I0720 11:44:02.758204  5109 net.cpp:141] Setting up lstm2_cont_slice
I0720 11:44:02.758251  5109 net.cpp:148] Top shape: 1 1 (1)
I0720 11:44:02.758261  5109 net.cpp:156] Memory required for data: 14012
I0720 11:44:02.758273  5109 layer_factory.hpp:77] Creating layer cont_1_lstm2_cont_slice_0_split
I0720 11:44:02.758291  5109 net.cpp:91] Creating Layer cont_1_lstm2_cont_slice_0_split
I0720 11:44:02.758301  5109 net.cpp:425] cont_1_lstm2_cont_slice_0_split <- cont_1
I0720 11:44:02.758317  5109 net.cpp:399] cont_1_lstm2_cont_slice_0_split -> cont_1_lstm2_cont_slice_0_split_0
I0720 11:44:02.758337  5109 net.cpp:399] cont_1_lstm2_cont_slice_0_split -> cont_1_lstm2_cont_slice_0_split_1
I0720 11:44:02.761723  5109 net.cpp:141] Setting up cont_1_lstm2_cont_slice_0_split
I0720 11:44:02.761756  5109 net.cpp:148] Top shape: 1 1 (1)
I0720 11:44:02.761768  5109 net.cpp:148] Top shape: 1 1 (1)
I0720 11:44:02.761777  5109 net.cpp:156] Memory required for data: 14020
I0720 11:44:02.761785  5109 layer_factory.hpp:77] Creating layer lstm2_x_transform
I0720 11:44:02.761808  5109 net.cpp:91] Creating Layer lstm2_x_transform
I0720 11:44:02.761809  5113 net.cpp:141] Setting up lstm2_x_transform
I0720 11:44:02.761818  5109 net.cpp:425] lstm2_x_transform <- x
I0720 11:44:02.761837  5113 net.cpp:148] Top shape: 1 1 4000 (4000)
I0720 11:44:02.761847  5113 net.cpp:156] Memory required for data: 30020
I0720 11:44:02.761848  5109 net.cpp:399] lstm2_x_transform -> W_xc_x
I0720 11:44:02.761868  5113 layer_factory.hpp:77] Creating layer lstm2_W_xc_x_slice
I0720 11:44:02.761888  5113 net.cpp:91] Creating Layer lstm2_W_xc_x_slice
I0720 11:44:02.761898  5113 net.cpp:425] lstm2_W_xc_x_slice <- W_xc_x
I0720 11:44:02.761911  5113 net.cpp:399] lstm2_W_xc_x_slice -> W_xc_x_1
I0720 11:44:02.763012  5113 net.cpp:141] Setting up lstm2_W_xc_x_slice
I0720 11:44:02.763036  5113 net.cpp:148] Top shape: 1 1 4000 (4000)
I0720 11:44:02.763046  5113 net.cpp:156] Memory required for data: 46020
I0720 11:44:02.763054  5113 layer_factory.hpp:77] Creating layer lstm2_h_conted_0
I0720 11:44:02.763069  5113 net.cpp:91] Creating Layer lstm2_h_conted_0
I0720 11:44:02.763079  5113 net.cpp:425] lstm2_h_conted_0 <- h_0
I0720 11:44:02.763090  5113 net.cpp:425] lstm2_h_conted_0 <- cont_1_lstm2_cont_slice_0_split_0
I0720 11:44:02.763103  5113 net.cpp:399] lstm2_h_conted_0 -> h_conted_0
I0720 11:44:02.776337  5113 net.cpp:141] Setting up lstm2_h_conted_0
I0720 11:44:02.776394  5113 net.cpp:148] Top shape: 1 1 1000 (1000)
I0720 11:44:02.776407  5113 net.cpp:156] Memory required for data: 50020
I0720 11:44:02.776419  5113 layer_factory.hpp:77] Creating layer lstm2_transform_1
I0720 11:44:02.776446  5113 net.cpp:91] Creating Layer lstm2_transform_1
I0720 11:44:02.776458  5113 net.cpp:425] lstm2_transform_1 <- h_conted_0
I0720 11:44:02.776481  5113 net.cpp:399] lstm2_transform_1 -> W_hc_h_0
I0720 11:44:02.804793  5107 net.cpp:141] Setting up conv1
I0720 11:44:02.804846  5107 net.cpp:148] Top shape: 10 96 55 55 (2904000)
I0720 11:44:02.804854  5107 net.cpp:156] Memory required for data: 17799480
I0720 11:44:02.804858  5119 net.cpp:141] Setting up conv1
I0720 11:44:02.804879  5119 net.cpp:148] Top shape: 10 96 55 55 (2904000)
I0720 11:44:02.804882  5107 layer_factory.hpp:77] Creating layer relu1
I0720 11:44:02.804885  5119 net.cpp:156] Memory required for data: 17799480
I0720 11:44:02.804903  5119 layer_factory.hpp:77] Creating layer relu1
I0720 11:44:02.804903  5107 net.cpp:91] Creating Layer relu1
I0720 11:44:02.804914  5119 net.cpp:91] Creating Layer relu1
I0720 11:44:02.804929  5119 net.cpp:425] relu1 <- conv1
I0720 11:44:02.804940  5119 net.cpp:386] relu1 -> conv1 (in-place)
I0720 11:44:02.805814  5119 net.cpp:141] Setting up relu1
I0720 11:44:02.805829  5119 net.cpp:148] Top shape: 10 96 55 55 (2904000)
I0720 11:44:02.805833  5119 net.cpp:156] Memory required for data: 29415480
I0720 11:44:02.805838  5119 layer_factory.hpp:77] Creating layer pool1
I0720 11:44:02.805853  5119 net.cpp:91] Creating Layer pool1
I0720 11:44:02.805858  5119 net.cpp:425] pool1 <- conv1
I0720 11:44:02.805866  5119 net.cpp:399] pool1 -> pool1
I0720 11:44:02.806016  5119 net.cpp:141] Setting up pool1
I0720 11:44:02.806027  5119 net.cpp:148] Top shape: 10 96 27 27 (699840)
I0720 11:44:02.806032  5119 net.cpp:156] Memory required for data: 32214840
I0720 11:44:02.806037  5119 layer_factory.hpp:77] Creating layer norm1
I0720 11:44:02.806056  5119 net.cpp:91] Creating Layer norm1
I0720 11:44:02.806061  5119 net.cpp:425] norm1 <- pool1
I0720 11:44:02.806067  5119 net.cpp:399] norm1 -> norm1
I0720 11:44:02.807039  5119 net.cpp:141] Setting up norm1
I0720 11:44:02.807056  5119 net.cpp:148] Top shape: 10 96 27 27 (699840)
I0720 11:44:02.807062  5119 net.cpp:156] Memory required for data: 35014200
I0720 11:44:02.807067  5119 layer_factory.hpp:77] Creating layer conv2
I0720 11:44:02.807085  5119 net.cpp:91] Creating Layer conv2
I0720 11:44:02.807090  5119 net.cpp:425] conv2 <- norm1
I0720 11:44:02.807098  5119 net.cpp:399] conv2 -> conv2
I0720 11:44:02.804914  5107 net.cpp:425] relu1 <- conv1
I0720 11:44:02.808523  5107 net.cpp:386] relu1 -> conv1 (in-place)
I0720 11:44:02.810590  5107 net.cpp:141] Setting up relu1
I0720 11:44:02.810621  5107 net.cpp:148] Top shape: 10 96 55 55 (2904000)
I0720 11:44:02.810628  5107 net.cpp:156] Memory required for data: 29415480
I0720 11:44:02.810638  5107 layer_factory.hpp:77] Creating layer pool1
I0720 11:44:02.810653  5107 net.cpp:91] Creating Layer pool1
I0720 11:44:02.810660  5107 net.cpp:425] pool1 <- conv1
I0720 11:44:02.810675  5107 net.cpp:399] pool1 -> pool1
I0720 11:44:02.810911  5107 net.cpp:141] Setting up pool1
I0720 11:44:02.810928  5107 net.cpp:148] Top shape: 10 96 27 27 (699840)
I0720 11:44:02.810935  5107 net.cpp:156] Memory required for data: 32214840
I0720 11:44:02.810942  5107 layer_factory.hpp:77] Creating layer norm1
I0720 11:44:02.810968  5107 net.cpp:91] Creating Layer norm1
I0720 11:44:02.810977  5107 net.cpp:425] norm1 <- pool1
I0720 11:44:02.810987  5107 net.cpp:399] norm1 -> norm1
I0720 11:44:02.812801  5107 net.cpp:141] Setting up norm1
I0720 11:44:02.812824  5107 net.cpp:148] Top shape: 10 96 27 27 (699840)
I0720 11:44:02.812831  5107 net.cpp:156] Memory required for data: 35014200
I0720 11:44:02.812839  5107 layer_factory.hpp:77] Creating layer conv2
I0720 11:44:02.812856  5107 net.cpp:91] Creating Layer conv2
I0720 11:44:02.812863  5107 net.cpp:425] conv2 <- norm1
I0720 11:44:02.812883  5107 net.cpp:399] conv2 -> conv2
I0720 11:44:02.818042  5113 net.cpp:141] Setting up lstm2_transform_1
I0720 11:44:02.818079  5113 net.cpp:148] Top shape: 1 1 4000 (4000)
I0720 11:44:02.818089  5113 net.cpp:156] Memory required for data: 66020
I0720 11:44:02.818109  5113 layer_factory.hpp:77] Creating layer lstm2_gate_input_1
I0720 11:44:02.818136  5113 net.cpp:91] Creating Layer lstm2_gate_input_1
I0720 11:44:02.818148  5113 net.cpp:425] lstm2_gate_input_1 <- W_hc_h_0
I0720 11:44:02.818159  5113 net.cpp:425] lstm2_gate_input_1 <- W_xc_x_1
I0720 11:44:02.818171  5113 net.cpp:399] lstm2_gate_input_1 -> gate_input_1
I0720 11:44:02.818173  5119 net.cpp:141] Setting up conv2
I0720 11:44:02.818191  5119 net.cpp:148] Top shape: 10 256 27 27 (1866240)
I0720 11:44:02.818195  5119 net.cpp:156] Memory required for data: 42479160
I0720 11:44:02.818209  5119 layer_factory.hpp:77] Creating layer relu2
I0720 11:44:02.818228  5119 net.cpp:91] Creating Layer relu2
I0720 11:44:02.818233  5119 net.cpp:425] relu2 <- conv2
I0720 11:44:02.818240  5119 net.cpp:386] relu2 -> conv2 (in-place)
I0720 11:44:02.819350  5113 net.cpp:141] Setting up lstm2_gate_input_1
I0720 11:44:02.819375  5113 net.cpp:148] Top shape: 1 1 4000 (4000)
I0720 11:44:02.819383  5113 net.cpp:156] Memory required for data: 82020
I0720 11:44:02.819393  5113 layer_factory.hpp:77] Creating layer lstm2_unit_1
I0720 11:44:02.819411  5113 net.cpp:91] Creating Layer lstm2_unit_1
I0720 11:44:02.819420  5113 net.cpp:425] lstm2_unit_1 <- c_0
I0720 11:44:02.819432  5113 net.cpp:425] lstm2_unit_1 <- gate_input_1
I0720 11:44:02.819443  5113 net.cpp:425] lstm2_unit_1 <- cont_1_lstm2_cont_slice_0_split_1
I0720 11:44:02.819461  5113 net.cpp:399] lstm2_unit_1 -> c_1
I0720 11:44:02.819479  5113 net.cpp:399] lstm2_unit_1 -> h_1
I0720 11:44:02.820989  5113 net.cpp:141] Setting up lstm2_unit_1
I0720 11:44:02.821010  5119 net.cpp:141] Setting up relu2
I0720 11:44:02.821015  5113 net.cpp:148] Top shape: 1 1 1000 (1000)
I0720 11:44:02.821030  5119 net.cpp:148] Top shape: 10 256 27 27 (1866240)
I0720 11:44:02.821036  5119 net.cpp:156] Memory required for data: 49944120
I0720 11:44:02.821038  5113 net.cpp:148] Top shape: 1 1 1000 (1000)
I0720 11:44:02.821043  5119 layer_factory.hpp:77] Creating layer pool2
I0720 11:44:02.821048  5113 net.cpp:156] Memory required for data: 90020
I0720 11:44:02.821058  5119 net.cpp:91] Creating Layer pool2
I0720 11:44:02.821058  5113 layer_factory.hpp:77] Creating layer lstm2_
I0720 11:44:02.821065  5119 net.cpp:425] pool2 <- conv2
I0720 11:44:02.821076  5119 net.cpp:399] pool2 -> pool2
I0720 11:44:02.821081  5113 net.cpp:91] Creating Layer lstm2_
I0720 11:44:02.821092  5113 net.cpp:425] lstm2_ <- c_1
I0720 11:44:02.821106  5113 net.cpp:399] lstm2_ -> c_T
I0720 11:44:02.822584  5113 net.cpp:141] Setting up lstm2_
I0720 11:44:02.822613  5113 net.cpp:148] Top shape: 1 1 1000 (1000)
I0720 11:44:02.822623  5113 net.cpp:156] Memory required for data: 94020
I0720 11:44:02.822633  5113 layer_factory.hpp:77] Creating layer lstm2_h_concat
I0720 11:44:02.822659  5113 net.cpp:91] Creating Layer lstm2_h_concat
I0720 11:44:02.822667  5119 net.cpp:141] Setting up pool2
I0720 11:44:02.822672  5113 net.cpp:425] lstm2_h_concat <- h_1
I0720 11:44:02.822682  5119 net.cpp:148] Top shape: 10 256 13 13 (432640)
I0720 11:44:02.822701  5113 net.cpp:399] lstm2_h_concat -> h
I0720 11:44:02.822705  5119 net.cpp:156] Memory required for data: 51674680
I0720 11:44:02.822716  5119 layer_factory.hpp:77] Creating layer norm2
I0720 11:44:02.822741  5119 net.cpp:91] Creating Layer norm2
I0720 11:44:02.822747  5119 net.cpp:425] norm2 <- pool2
I0720 11:44:02.822756  5119 net.cpp:399] norm2 -> norm2
I0720 11:44:02.823102  5113 net.cpp:141] Setting up lstm2_h_concat
I0720 11:44:02.823122  5113 net.cpp:148] Top shape: 1 1 1000 (1000)
I0720 11:44:02.823130  5113 net.cpp:156] Memory required for data: 98020
I0720 11:44:02.823140  5113 layer_factory.hpp:77] Creating layer h_pseudoloss
I0720 11:44:02.823154  5113 net.cpp:91] Creating Layer h_pseudoloss
I0720 11:44:02.823163  5113 net.cpp:425] h_pseudoloss <- h
I0720 11:44:02.823176  5113 net.cpp:399] h_pseudoloss -> h_pseudoloss
I0720 11:44:02.823339  5119 net.cpp:141] Setting up norm2
I0720 11:44:02.823353  5119 net.cpp:148] Top shape: 10 256 13 13 (432640)
I0720 11:44:02.823356  5119 net.cpp:156] Memory required for data: 53405240
I0720 11:44:02.823361  5119 layer_factory.hpp:77] Creating layer conv3
I0720 11:44:02.823379  5119 net.cpp:91] Creating Layer conv3
I0720 11:44:02.823385  5119 net.cpp:425] conv3 <- norm2
I0720 11:44:02.823392  5119 net.cpp:399] conv3 -> conv3
I0720 11:44:02.823567  5113 net.cpp:141] Setting up h_pseudoloss
…
I0720 11:44:02.823746  5113 net.cpp:219] lstm2_ does not need backward computation.
I0720 11:44:02.823755  5113 net.cpp:261] This network produces output c_T
I0720 11:44:02.823762  5113 net.cpp:261] This network produces output h_pseudoloss
I0720 11:44:02.823796  5113 net.cpp:274] Network initialization done.
I0720 11:44:02.823868  5113 recurrent_layer.cpp:150] Adding parameter 0: W_xc
I0720 11:44:02.823882  5113 recurrent_layer.cpp:150] Adding parameter 1: b_c
I0720 11:44:02.823891  5113 recurrent_layer.cpp:150] Adding parameter 2: W_hc
I0720 11:44:02.824159  5107 net.cpp:141] Setting up conv2
I0720 11:44:02.824179  5107 net.cpp:148] Top shape: 10 256 27 27 (1866240)
I0720 11:44:02.824187  5107 net.cpp:156] Memory required for data: 42479160
I0720 11:44:02.824242  5107 layer_factory.hpp:77] Creating layer relu2
I0720 11:44:02.824256  5107 net.cpp:91] Creating Layer relu2
I0720 11:44:02.824265  5107 net.cpp:425] relu2 <- conv2
I0720 11:44:02.824275  5107 net.cpp:386] relu2 -> conv2 (in-place)
I0720 11:44:02.826570  5107 net.cpp:141] Setting up relu2
I0720 11:44:02.826601  5107 net.cpp:148] Top shape: 10 256 27 27 (1866240)
I0720 11:44:02.826609  5107 net.cpp:156] Memory required for data: 49944120
I0720 11:44:02.826618  5107 layer_factory.hpp:77] Creating layer pool2
I0720 11:44:02.826634  5107 net.cpp:91] Creating Layer pool2
I0720 11:44:02.826643  5107 net.cpp:425] pool2 <- conv2
I0720 11:44:02.826654  5107 net.cpp:399] pool2 -> pool2
I0720 11:44:02.828323  5113 net.cpp:141] Setting up lstm2
I0720 11:44:02.828341  5107 net.cpp:141] Setting up pool2
I0720 11:44:02.828351  5113 net.cpp:148] Top shape: 1 1 1000 (1000)
I0720 11:44:02.828359  5107 net.cpp:148] Top shape: 10 256 13 13 (432640)
I0720 11:44:02.828361  5113 net.cpp:156] Memory required for data: 36412
I0720 11:44:02.828366  5107 net.cpp:156] Memory required for data: 51674680
I0720 11:44:02.828375  5107 layer_factory.hpp:77] Creating layer norm2
I0720 11:44:02.828392  5113 layer_factory.hpp:77] Creating layer predict
I0720 11:44:02.828392  5107 net.cpp:91] Creating Layer norm2
I0720 11:44:02.828410  5107 net.cpp:425] norm2 <- pool2
I0720 11:44:02.828418  5113 net.cpp:91] Creating Layer predict
I0720 11:44:02.828426  5107 net.cpp:399] norm2 -> norm2
I0720 11:44:02.828430  5113 net.cpp:425] predict <- lstm2
I0720 11:44:02.828445  5113 net.cpp:399] predict -> predict
I0720 11:44:02.913918  5107 net.cpp:141] Setting up norm2
I0720 11:44:02.913975  5107 net.cpp:148] Top shape: 10 256 13 13 (432640)
I0720 11:44:02.913983  5107 net.cpp:156] Memory required for data: 53405240
I0720 11:44:02.913996  5107 layer_factory.hpp:77] Creating layer conv3
I0720 11:44:02.914029  5107 net.cpp:91] Creating Layer conv3
I0720 11:44:02.914041  5107 net.cpp:425] conv3 <- norm2
I0720 11:44:02.914057  5107 net.cpp:399] conv3 -> conv3
I0720 11:44:02.915540  5109 net.cpp:141] Setting up lstm2_x_transform
I0720 11:44:02.915580  5109 net.cpp:148] Top shape: 1 1 4000 (4000)
I0720 11:44:02.915591  5109 net.cpp:156] Memory required for data: 30020
I0720 11:44:02.915619  5109 layer_factory.hpp:77] Creating layer lstm2_W_xc_x_slice
I0720 11:44:02.915642  5109 net.cpp:91] Creating Layer lstm2_W_xc_x_slice
I0720 11:44:02.915653  5109 net.cpp:425] lstm2_W_xc_x_slice <- W_xc_x
I0720 11:44:02.915668  5109 net.cpp:399] lstm2_W_xc_x_slice -> W_xc_x_1
I0720 11:44:02.915909  5109 net.cpp:141] Setting up lstm2_W_xc_x_slice
I0720 11:44:02.915925  5109 net.cpp:148] Top shape: 1 1 4000 (4000)
I0720 11:44:02.915933  5109 net.cpp:156] Memory required for data: 46020
I0720 11:44:02.915941  5109 layer_factory.hpp:77] Creating layer lstm2_h_conted_0
I0720 11:44:02.915963  5109 net.cpp:91] Creating Layer lstm2_h_conted_0
I0720 11:44:02.915974  5109 net.cpp:425] lstm2_h_conted_0 <- h_0
I0720 11:44:02.915984  5109 net.cpp:425] lstm2_h_conted_0 <- cont_1_lstm2_cont_slice_0_split_0
I0720 11:44:02.915998  5109 net.cpp:399] lstm2_h_conted_0 -> h_conted_0
I0720 11:44:02.920379  5109 net.cpp:141] Setting up lstm2_h_conted_0
I0720 11:44:02.920452  5109 net.cpp:148] Top shape: 1 1 1000 (1000)
I0720 11:44:02.920469  5109 net.cpp:156] Memory required for data: 50020
I0720 11:44:02.920487  5109 layer_factory.hpp:77] Creating layer lstm2_transform_1
I0720 11:44:02.920531  5109 net.cpp:91] Creating Layer lstm2_transform_1
I0720 11:44:02.920552  5109 net.cpp:425] lstm2_transform_1 <- h_conted_0
I0720 11:44:02.920577  5119 net.cpp:141] Setting up conv3
I0720 11:44:02.920579  5109 net.cpp:399] lstm2_transform_1 -> W_hc_h_0
I0720 11:44:02.920601  5119 net.cpp:148] Top shape: 10 384 13 13 (648960)
I0720 11:44:02.920616  5119 net.cpp:156] Memory required for data: 56001080
I0720 11:44:02.920639  5119 layer_factory.hpp:77] Creating layer relu3
I0720 11:44:02.920650  5119 net.cpp:91] Creating Layer relu3
I0720 11:44:02.920655  5119 net.cpp:425] relu3 <- conv3
I0720 11:44:02.920665  5119 net.cpp:386] relu3 -> conv3 (in-place)
I0720 11:44:02.929311  5119 net.cpp:141] Setting up relu3
I0720 11:44:02.929364  5119 net.cpp:148] Top shape: 10 384 13 13 (648960)
I0720 11:44:02.929370  5119 net.cpp:156] Memory required for data: 58596920
I0720 11:44:02.929379  5119 layer_factory.hpp:77] Creating layer conv4
I0720 11:44:02.929404  5119 net.cpp:91] Creating Layer conv4
I0720 11:44:02.929411  5119 net.cpp:425] conv4 <- conv3
I0720 11:44:02.929422  5119 net.cpp:399] conv4 -> conv4
I0720 11:44:02.941380  5107 net.cpp:141] Setting up conv3
I0720 11:44:02.941431  5107 net.cpp:148] Top shape: 10 384 13 13 (648960)
I0720 11:44:02.941438  5107 net.cpp:156] Memory required for data: 56001080
I0720 11:44:02.941463  5107 layer_factory.hpp:77] Creating layer relu3
I0720 11:44:02.941481  5107 net.cpp:91] Creating Layer relu3
I0720 11:44:02.941489  5107 net.cpp:425] relu3 <- conv3
I0720 11:44:02.941501  5107 net.cpp:386] relu3 -> conv3 (in-place)
I0720 11:44:02.943217  5107 net.cpp:141] Setting up relu3
I0720 11:44:02.943241  5107 net.cpp:148] Top shape: 10 384 13 13 (648960)
I0720 11:44:02.943248  5107 net.cpp:156] Memory required for data: 58596920
I0720 11:44:02.943258  5107 layer_factory.hpp:77] Creating layer conv4
I0720 11:44:02.943281  5107 net.cpp:91] Creating Layer conv4
I0720 11:44:02.943289  5107 net.cpp:425] conv4 <- conv3
I0720 11:44:02.943300  5107 net.cpp:399] conv4 -> conv4
I0720 11:44:02.948375  5119 net.cpp:141] Setting up conv4
I0720 11:44:02.948411  5119 net.cpp:148] Top shape: 10 384 13 13 (648960)
I0720 11:44:02.948417  5119 net.cpp:156] Memory required for data: 61192760
I0720 11:44:02.948431  5119 layer_factory.hpp:77] Creating layer relu4
I0720 11:44:02.948443  5119 net.cpp:91] Creating Layer relu4
I0720 11:44:02.948449  5119 net.cpp:425] relu4 <- conv4
I0720 11:44:02.948462  5119 net.cpp:386] relu4 -> conv4 (in-place)
I0720 11:44:02.949381  5119 net.cpp:141] Setting up relu4
I0720 11:44:02.949398  5119 net.cpp:148] Top shape: 10 384 13 13 (648960)
I0720 11:44:02.949404  5119 net.cpp:156] Memory required for data: 63788600
I0720 11:44:02.949409  5119 layer_factory.hpp:77] Creating layer conv5
I0720 11:44:02.949425  5119 net.cpp:91] Creating Layer conv5
I0720 11:44:02.949430  5119 net.cpp:425] conv5 <- conv4
I0720 11:44:02.949440  5119 net.cpp:399] conv5 -> conv5
I0720 11:44:02.957293  5107 net.cpp:141] Setting up conv4
I0720 11:44:02.957340  5107 net.cpp:148] Top shape: 10 384 13 13 (648960)
I0720 11:44:02.957348  5107 net.cpp:156] Memory required for data: 61192760
I0720 11:44:02.957366  5107 layer_factory.hpp:77] Creating layer relu4
I0720 11:44:02.957382  5107 net.cpp:91] Creating Layer relu4
I0720 11:44:02.957393  5107 net.cpp:425] relu4 <- conv4
I0720 11:44:02.957407  5107 net.cpp:386] relu4 -> conv4 (in-place)
I0720 11:44:02.958642  5107 net.cpp:141] Setting up relu4
I0720 11:44:02.958660  5107 net.cpp:148] Top shape: 10 384 13 13 (648960)
I0720 11:44:02.958667  5107 net.cpp:156] Memory required for data: 63788600
I0720 11:44:02.958676  5107 layer_factory.hpp:77] Creating layer conv5
I0720 11:44:02.958711  5107 net.cpp:91] Creating Layer conv5
I0720 11:44:02.958720  5107 net.cpp:425] conv5 <- conv4
I0720 11:44:02.958732  5107 net.cpp:399] conv5 -> conv5
I0720 11:44:02.963058  5119 net.cpp:141] Setting up conv5
I0720 11:44:02.963089  5119 net.cpp:148] Top shape: 10 256 13 13 (432640)
I0720 11:44:02.963095  5119 net.cpp:156] Memory required for data: 65519160
I0720 11:44:02.963112  5119 layer_factory.hpp:77] Creating layer relu5
I0720 11:44:02.963124  5119 net.cpp:91] Creating Layer relu5
I0720 11:44:02.963129  5119 net.cpp:425] relu5 <- conv5
I0720 11:44:02.963140  5119 net.cpp:386] relu5 -> conv5 (in-place)
I0720 11:44:02.964114  5119 net.cpp:141] Setting up relu5
I0720 11:44:02.964133  5119 net.cpp:148] Top shape: 10 256 13 13 (432640)
I0720 11:44:02.964138  5119 net.cpp:156] Memory required for data: 67249720
I0720 11:44:02.964143  5119 layer_factory.hpp:77] Creating layer pool5
I0720 11:44:02.964153  5119 net.cpp:91] Creating Layer pool5
I0720 11:44:02.964157  5119 net.cpp:425] pool5 <- conv5
I0720 11:44:02.964169  5119 net.cpp:399] pool5 -> pool5
I0720 11:44:02.964421  5119 net.cpp:141] Setting up pool5
I0720 11:44:02.964432  5119 net.cpp:148] Top shape: 10 256 6 6 (92160)
I0720 11:44:02.964435  5119 net.cpp:156] Memory required for data: 67618360
I0720 11:44:02.964440  5119 layer_factory.hpp:77] Creating layer fc6
I0720 11:44:02.964452  5119 net.cpp:91] Creating Layer fc6
I0720 11:44:02.964457  5119 net.cpp:425] fc6 <- pool5
I0720 11:44:02.964468  5119 net.cpp:399] fc6 -> fc6
I0720 11:44:03.032104  5109 net.cpp:141] Setting up lstm2_transform_1
I0720 11:44:03.032155  5109 net.cpp:148] Top shape: 1 1 4000 (4000)
I0720 11:44:03.032165  5109 net.cpp:156] Memory required for data: 66020
I0720 11:44:03.032189  5109 layer_factory.hpp:77] Creating layer lstm2_gate_input_1
I0720 11:44:03.032212  5109 net.cpp:91] Creating Layer lstm2_gate_input_1
I0720 11:44:03.032222  5109 net.cpp:425] lstm2_gate_input_1 <- W_hc_h_0
I0720 11:44:03.032233  5109 net.cpp:425] lstm2_gate_input_1 <- W_xc_x_1
I0720 11:44:03.032245  5109 net.cpp:399] lstm2_gate_input_1 -> gate_input_1
I0720 11:44:03.036022  5109 net.cpp:141] Setting up lstm2_gate_input_1
I0720 11:44:03.036059  5109 net.cpp:148] Top shape: 1 1 4000 (4000)
I0720 11:44:03.036065  5109 net.cpp:156] Memory required for data: 82020
I0720 11:44:03.036072  5109 layer_factory.hpp:77] Creating layer lstm2_unit_1
I0720 11:44:03.036087  5109 net.cpp:91] Creating Layer lstm2_unit_1
I0720 11:44:03.036092  5109 net.cpp:425] lstm2_unit_1 <- c_0
I0720 11:44:03.036100  5109 net.cpp:425] lstm2_unit_1 <- gate_input_1
I0720 11:44:03.036106  5109 net.cpp:425] lstm2_unit_1 <- cont_1_lstm2_cont_slice_0_split_1
I0720 11:44:03.036113  5109 net.cpp:399] lstm2_unit_1 -> c_1
I0720 11:44:03.036124  5109 net.cpp:399] lstm2_unit_1 -> h_1
I0720 11:44:03.036361  5109 net.cpp:141] Setting up lstm2_unit_1
I0720 11:44:03.036373  5109 net.cpp:148] Top shape: 1 1 1000 (1000)
I0720 11:44:03.036378  5109 net.cpp:148] Top shape: 1 1 1000 (1000)
I0720 11:44:03.036382  5109 net.cpp:156] Memory required for data: 90020
I0720 11:44:03.036387  5109 layer_factory.hpp:77] Creating layer lstm2_
I0720 11:44:03.036398  5109 net.cpp:91] Creating Layer lstm2_
I0720 11:44:03.036403  5109 net.cpp:425] lstm2_ <- c_1
I0720 11:44:03.036411  5109 net.cpp:399] lstm2_ -> c_T
I0720 11:44:03.036494  5109 net.cpp:141] Setting up lstm2_
I0720 11:44:03.036504  5109 net.cpp:148] Top shape: 1 1 1000 (1000)
I0720 11:44:03.036509  5109 net.cpp:156] Memory required for data: 94020
I0720 11:44:03.036514  5109 layer_factory.hpp:77] Creating layer lstm2_h_concat
I0720 11:44:03.036523  5109 net.cpp:91] Creating Layer lstm2_h_concat
I0720 11:44:03.036528  5109 net.cpp:425] lstm2_h_concat <- h_1
I0720 11:44:03.036537  5109 net.cpp:399] lstm2_h_concat -> h
I0720 11:44:03.036697  5109 net.cpp:141] Setting up lstm2_h_concat
I0720 11:44:03.036708  5109 net.cpp:148] Top shape: 1 1 1000 (1000)
I0720 11:44:03.036712  5109 net.cpp:156] Memory required for data: 98020
I0720 11:44:03.036717  5109 layer_factory.hpp:77] Creating layer h_pseudoloss
I0720 11:44:03.036725  5109 net.cpp:91] Creating Layer h_pseudoloss
I0720 11:44:03.036731  5109 net.cpp:425] h_pseudoloss <- h
I0720 11:44:03.036737  5109 net.cpp:399] h_pseudoloss -> h_pseudoloss
I0720 11:44:03.038861  5109 net.cpp:141] Setting up h_pseudoloss
…
I0720 11:44:03.038985  5109 net.cpp:219] lstm2_ does not need backward computation.
I0720 11:44:03.038988  5109 net.cpp:261] This network produces output c_T
I0720 11:44:03.038993  5109 net.cpp:261] This network produces output h_pseudoloss
I0720 11:44:03.039011  5109 net.cpp:274] Network initialization done.
I0720 11:44:03.039065  5109 recurrent_layer.cpp:150] Adding parameter 0: W_xc
I0720 11:44:03.039072  5109 recurrent_layer.cpp:150] Adding parameter 1: b_c
I0720 11:44:03.039077  5109 recurrent_layer.cpp:150] Adding parameter 2: W_hc
I0720 11:44:03.039337  5109 net.cpp:141] Setting up lstm2
I0720 11:44:03.039350  5109 net.cpp:148] Top shape: 1 1 1000 (1000)
I0720 11:44:03.039355  5109 net.cpp:156] Memory required for data: 36412
I0720 11:44:03.039371  5109 layer_factory.hpp:77] Creating layer predict
I0720 11:44:03.039387  5109 net.cpp:91] Creating Layer predict
I0720 11:44:03.039393  5109 net.cpp:425] predict <- lstm2
I0720 11:44:03.039402  5109 net.cpp:399] predict -> predict
I0720 11:44:03.130529  5119 net.cpp:141] Setting up fc6
I0720 11:44:03.130578  5119 net.cpp:148] Top shape: 10 4096 (40960)
I0720 11:44:03.130584  5119 net.cpp:156] Memory required for data: 67782200
I0720 11:44:03.130597  5119 layer_factory.hpp:77] Creating layer relu6
I0720 11:44:03.130614  5119 net.cpp:91] Creating Layer relu6
I0720 11:44:03.130620  5119 net.cpp:425] relu6 <- fc6
I0720 11:44:03.130633  5119 net.cpp:386] relu6 -> fc6 (in-place)
I0720 11:44:03.131104  5119 net.cpp:141] Setting up relu6
I0720 11:44:03.131117  5119 net.cpp:148] Top shape: 10 4096 (40960)
I0720 11:44:03.131122  5119 net.cpp:156] Memory required for data: 67946040
I0720 11:44:03.131127  5119 layer_factory.hpp:77] Creating layer drop6
I0720 11:44:03.131137  5119 net.cpp:91] Creating Layer drop6
I0720 11:44:03.131142  5119 net.cpp:425] drop6 <- fc6
I0720 11:44:03.131139  5107 net.cpp:141] Setting up conv5
I0720 11:44:03.131151  5119 net.cpp:386] drop6 -> fc6 (in-place)
I0720 11:44:03.131157  5107 net.cpp:148] Top shape: 10 256 13 13 (432640)
I0720 11:44:03.131163  5107 net.cpp:156] Memory required for data: 65519160
I0720 11:44:03.131178  5107 layer_factory.hpp:77] Creating layer relu5
I0720 11:44:03.131191  5107 net.cpp:91] Creating Layer relu5
I0720 11:44:03.131196  5107 net.cpp:425] relu5 <- conv5
I0720 11:44:03.131203  5107 net.cpp:386] relu5 -> conv5 (in-place)
I0720 11:44:03.131229  5119 net.cpp:141] Setting up drop6
I0720 11:44:03.131240  5119 net.cpp:148] Top shape: 10 4096 (40960)
I0720 11:44:03.131244  5119 net.cpp:156] Memory required for data: 68109880
I0720 11:44:03.131249  5119 layer_factory.hpp:77] Creating layer fc7
I0720 11:44:03.131263  5119 net.cpp:91] Creating Layer fc7
I0720 11:44:03.131268  5119 net.cpp:425] fc7 <- fc6
I0720 11:44:03.131274  5119 net.cpp:399] fc7 -> fc7
I0720 11:44:03.132987  5107 net.cpp:141] Setting up relu5
I0720 11:44:03.133015  5107 net.cpp:148] Top shape: 10 256 13 13 (432640)
I0720 11:44:03.133020  5107 net.cpp:156] Memory required for data: 67249720
I0720 11:44:03.133028  5107 layer_factory.hpp:77] Creating layer pool5
I0720 11:44:03.133044  5107 net.cpp:91] Creating Layer pool5
I0720 11:44:03.133050  5107 net.cpp:425] pool5 <- conv5
I0720 11:44:03.133059  5107 net.cpp:399] pool5 -> pool5
I0720 11:44:03.165997  5107 net.cpp:141] Setting up pool5
I0720 11:44:03.166038  5107 net.cpp:148] Top shape: 10 256 6 6 (92160)
I0720 11:44:03.166043  5107 net.cpp:156] Memory required for data: 67618360
I0720 11:44:03.166051  5107 layer_factory.hpp:77] Creating layer fc6
I0720 11:44:03.166074  5107 net.cpp:91] Creating Layer fc6
I0720 11:44:03.166080  5107 net.cpp:425] fc6 <- pool5
I0720 11:44:03.166090  5107 net.cpp:399] fc6 -> fc6
I0720 11:44:03.235838  5119 net.cpp:141] Setting up fc7
I0720 11:44:03.235879  5119 net.cpp:148] Top shape: 10 4096 (40960)
I0720 11:44:03.235884  5119 net.cpp:156] Memory required for data: 68273720
I0720 11:44:03.235899  5119 layer_factory.hpp:77] Creating layer relu7
I0720 11:44:03.235918  5119 net.cpp:91] Creating Layer relu7
I0720 11:44:03.235925  5119 net.cpp:425] relu7 <- fc7
I0720 11:44:03.235934  5119 net.cpp:386] relu7 -> fc7 (in-place)
I0720 11:44:03.237337  5119 net.cpp:141] Setting up relu7
I0720 11:44:03.237370  5119 net.cpp:148] Top shape: 10 4096 (40960)
I0720 11:44:03.237375  5119 net.cpp:156] Memory required for data: 68437560
I0720 11:44:03.237382  5119 layer_factory.hpp:77] Creating layer drop7
I0720 11:44:03.237398  5119 net.cpp:91] Creating Layer drop7
I0720 11:44:03.237404  5119 net.cpp:425] drop7 <- fc7
I0720 11:44:03.237412  5119 net.cpp:386] drop7 -> fc7 (in-place)
I0720 11:44:03.237514  5119 net.cpp:141] Setting up drop7
I0720 11:44:03.237524  5119 net.cpp:148] Top shape: 10 4096 (40960)
I0720 11:44:03.237529  5119 net.cpp:156] Memory required for data: 68601400
I0720 11:44:03.237532  5119 layer_factory.hpp:77] Creating layer fc8
I0720 11:44:03.237547  5119 net.cpp:91] Creating Layer fc8
I0720 11:44:03.237552  5119 net.cpp:425] fc8 <- fc7
I0720 11:44:03.237561  5119 net.cpp:399] fc8 -> fc8
I0720 11:44:03.252789  5119 net.cpp:141] Setting up fc8
I0720 11:44:03.252837  5119 net.cpp:148] Top shape: 10 1000 (10000)
I0720 11:44:03.252843  5119 net.cpp:156] Memory required for data: 68641400
I0720 11:44:03.252858  5119 layer_factory.hpp:77] Creating layer prob
I0720 11:44:03.252874  5119 net.cpp:91] Creating Layer prob
I0720 11:44:03.252881  5119 net.cpp:425] prob <- fc8
I0720 11:44:03.252894  5119 net.cpp:399] prob -> prob
I0720 11:44:03.253427  5119 net.cpp:141] Setting up prob
I0720 11:44:03.253440  5119 net.cpp:148] Top shape: 10 1000 (10000)
I0720 11:44:03.253444  5119 net.cpp:156] Memory required for data: 68681400
I0720 11:44:03.253449  5119 net.cpp:219] prob does not need backward computation.
I0720 11:44:03.253454  5119 net.cpp:219] fc8 does not need backward computation.
I0720 11:44:03.253458  5119 net.cpp:219] drop7 does not need backward computation.
I0720 11:44:03.253463  5119 net.cpp:219] relu7 does not need backward computation.
…
I0720 11:44:03.253528  5119 net.cpp:219] norm1 does not need backward computation.
I0720 11:44:03.253532  5119 net.cpp:219] pool1 does not need backward computation.
I0720 11:44:03.253536  5119 net.cpp:219] relu1 does not need backward computation.
I0720 11:44:03.253540  5119 net.cpp:219] conv1 does not need backward computation.
I0720 11:44:03.253545  5119 net.cpp:219] data does not need backward computation.
I0720 11:44:03.253548  5119 net.cpp:261] This network produces output prob
I0720 11:44:03.253567  5119 net.cpp:274] Network initialization done.
I0720 11:44:03.274852  5107 net.cpp:141] Setting up fc6
I0720 11:44:03.274902  5107 net.cpp:148] Top shape: 10 4096 (40960)
I0720 11:44:03.274909  5107 net.cpp:156] Memory required for data: 67782200
I0720 11:44:03.274922  5107 layer_factory.hpp:77] Creating layer relu6
I0720 11:44:03.274936  5107 net.cpp:91] Creating Layer relu6
I0720 11:44:03.274942  5107 net.cpp:425] relu6 <- fc6
I0720 11:44:03.274950  5107 net.cpp:386] relu6 -> fc6 (in-place)
I0720 11:44:03.275367  5107 net.cpp:141] Setting up relu6
I0720 11:44:03.275378  5107 net.cpp:148] Top shape: 10 4096 (40960)
I0720 11:44:03.275382  5107 net.cpp:156] Memory required for data: 67946040
I0720 11:44:03.275388  5107 layer_factory.hpp:77] Creating layer drop6
I0720 11:44:03.275398  5107 net.cpp:91] Creating Layer drop6
I0720 11:44:03.275403  5107 net.cpp:425] drop6 <- fc6
I0720 11:44:03.275411  5107 net.cpp:386] drop6 -> fc6 (in-place)
I0720 11:44:03.275516  5107 net.cpp:141] Setting up drop6
I0720 11:44:03.275527  5107 net.cpp:148] Top shape: 10 4096 (40960)
I0720 11:44:03.275532  5107 net.cpp:156] Memory required for data: 68109880
I0720 11:44:03.275537  5107 layer_factory.hpp:77] Creating layer fc7
I0720 11:44:03.275548  5107 net.cpp:91] Creating Layer fc7
I0720 11:44:03.275552  5107 net.cpp:425] fc7 <- fc6
I0720 11:44:03.275559  5107 net.cpp:399] fc7 -> fc7
I0720 11:44:03.308403  5113 net.cpp:141] Setting up predict
I0720 11:44:03.308466  5113 net.cpp:148] Top shape: 1 1 46168 (46168)
I0720 11:44:03.308473  5113 net.cpp:156] Memory required for data: 221084
I0720 11:44:03.308492  5113 layer_factory.hpp:77] Creating layer probs
I0720 11:44:03.308513  5113 net.cpp:91] Creating Layer probs
I0720 11:44:03.308523  5113 net.cpp:425] probs <- predict
I0720 11:44:03.308537  5113 net.cpp:399] probs -> probs
I0720 11:44:03.310582  5113 net.cpp:141] Setting up probs
I0720 11:44:03.310603  5113 net.cpp:148] Top shape: 1 1 46168 (46168)
I0720 11:44:03.310609  5113 net.cpp:156] Memory required for data: 405756
I0720 11:44:03.310614  5113 net.cpp:219] probs does not need backward computation.
I0720 11:44:03.310621  5113 net.cpp:219] predict does not need backward computation.
I0720 11:44:03.310626  5113 net.cpp:219] lstm2 does not need backward computation.
I0720 11:44:03.310632  5113 net.cpp:219] concat does not need backward computation.
I0720 11:44:03.310639  5113 net.cpp:219] lstm1 does not need backward computation.
I0720 11:44:03.310647  5113 net.cpp:219] embedding does not need backward computation.
I0720 11:44:03.310652  5113 net.cpp:219] reshape_stage_indicator does not need backward computation.
I0720 11:44:03.310657  5113 net.cpp:219] reshape_frames does not need backward computation.
I0720 11:44:03.310662  5113 net.cpp:219] embed_encoder does not need backward computation.
I0720 11:44:03.310668  5113 net.cpp:219] cont_sentence_input_1_split does not need backward computation.
I0720 11:44:03.310673  5113 net.cpp:219] input does not need backward computation.
I0720 11:44:03.310678  5113 net.cpp:261] This network produces output probs
I0720 11:44:03.310711  5113 net.cpp:274] Network initialization done.
I0720 11:44:03.325413  5107 net.cpp:141] Setting up fc7
I0720 11:44:03.325467  5107 net.cpp:148] Top shape: 10 4096 (40960)
I0720 11:44:03.325472  5107 net.cpp:156] Memory required for data: 68273720
I0720 11:44:03.325486  5107 layer_factory.hpp:77] Creating layer relu7
I0720 11:44:03.325503  5107 net.cpp:91] Creating Layer relu7
I0720 11:44:03.325510  5107 net.cpp:425] relu7 <- fc7
I0720 11:44:03.325518  5107 net.cpp:386] relu7 -> fc7 (in-place)
I0720 11:44:03.327153  5107 net.cpp:141] Setting up relu7
I0720 11:44:03.327175  5107 net.cpp:148] Top shape: 10 4096 (40960)
I0720 11:44:03.327180  5107 net.cpp:156] Memory required for data: 68437560
I0720 11:44:03.327186  5107 layer_factory.hpp:77] Creating layer drop7
I0720 11:44:03.327196  5107 net.cpp:91] Creating Layer drop7
I0720 11:44:03.327201  5107 net.cpp:425] drop7 <- fc7
I0720 11:44:03.327213  5107 net.cpp:386] drop7 -> fc7 (in-place)
I0720 11:44:03.327289  5107 net.cpp:141] Setting up drop7
I0720 11:44:03.327298  5107 net.cpp:148] Top shape: 10 4096 (40960)
I0720 11:44:03.327302  5107 net.cpp:156] Memory required for data: 68601400
I0720 11:44:03.327307  5107 layer_factory.hpp:77] Creating layer fc8
I0720 11:44:03.327316  5107 net.cpp:91] Creating Layer fc8
I0720 11:44:03.327321  5107 net.cpp:425] fc8 <- fc7
I0720 11:44:03.327329  5107 net.cpp:399] fc8 -> fc8
I0720 11:44:03.342263  5107 net.cpp:141] Setting up fc8
I0720 11:44:03.342315  5107 net.cpp:148] Top shape: 10 1000 (10000)
I0720 11:44:03.342321  5107 net.cpp:156] Memory required for data: 68641400
I0720 11:44:03.342334  5107 layer_factory.hpp:77] Creating layer prob
I0720 11:44:03.342350  5107 net.cpp:91] Creating Layer prob
I0720 11:44:03.342357  5107 net.cpp:425] prob <- fc8
I0720 11:44:03.342367  5107 net.cpp:399] prob -> prob
I0720 11:44:03.343236  5107 net.cpp:141] Setting up prob
I0720 11:44:03.343250  5107 net.cpp:148] Top shape: 10 1000 (10000)
I0720 11:44:03.343255  5107 net.cpp:156] Memory required for data: 68681400
I0720 11:44:03.343261  5107 net.cpp:219] prob does not need backward computation.
I0720 11:44:03.343266  5107 net.cpp:219] fc8 does not need backward computation.
I0720 11:44:03.343271  5107 net.cpp:219] drop7 does not need backward computation.
I0720 11:44:03.343274  5107 net.cpp:219] relu7 does not need backward computation.
…
