…
Java HotSpot(TM) 64-Bit Server VM warning: You have loaded library /tmp/cvld6596985235882584688/libopencv_java310.so which might have disabled stack guard. The VM will try to fix the stack guard now.
It's highly recommended that you fix the library with 'execstack -c <libfile>', or link it with '-z noexecstack'.
WARNING: cuda not found in compile time, setting current GPU will not work.
WARNING: Logging before InitGoogleLogging() is written to STDERR
I0706 22:19:43.980001  4209 net.cpp:49] Initializing net from parameters: 
name: "GoogleNet"
state {
  phase: TEST
}
layer {
  name: "data"
  type: "Input"
  top: "data"
  input_param {
    shape {
      dim: 10
      dim: 3
      dim: 224
      dim: 224
    }
  }
}
layer {
  name: "conv1/7x7_s2"
  type: "Convolution"
  bottom: "data"
  top: "conv1/7x7_s2"
  param {
    lr_mult: 1
    decay_mult: 1
  }
  param {
    lr_mult: 2
    decay_mult: 0
  }
  convolution_param {
    num_output: 64
    pad: 3
    kernel_size: 7
    stride: 2
    weight_filler {
      type: "xavier"
      std: 0.1
    }
    bias_filler {
      type: "constant"
      value: 0.2
    }
  }
}
layer {
  name: "conv1/relu_7x7"
  type: "ReLU"
  bottom: "conv1/7x7_s2"
  top: "conv1/7x7_s2"
}
layer {
  name: "pool1/3x3_s2"
  type: "Pooling"
  bottom: "conv1/7x7_s2"
  top: "pool1/3x3_s2"
  pooling_param {
    pool: MAX
    kernel_size: 3
    stride: 2
  }
}
layer {
  name: "pool1/norm1"
  type: "LRN"
  bottom: "pool1/3x3_s2"
  top: "pool1/norm1"
  lrn_param {
    local_size: 5
    alpha: 0.0001
    beta: 0.75
  }
}
layer {
  name: "conv2/3x3_reduce"
  type: "Convolution"
  bottom: "pool1/norm1"
  top: "conv2/3x3_reduce"
  param {
    lr_mult: 1
    decay_mult: 1
  }
  param {
    lr_mult: 2
    decay_mult: 0
  }
  convolution_param {
    num_output: 64
    kernel_size: 1
    weight_filler {
      type: "xavier"
      std: 0.1
    }
    bias_filler {
      type: "constant"
      value: 0.2
    }
  }
}
layer {
  name: "conv2/relu_3x3_reduce"
  type: "ReLU"
  bottom: "conv2/3x3_reduce"
  top: "conv2/3x3_reduce"
}
layer {
  name: "conv2/3x3"
  type: "Convolution"
  bottom: "conv2/3x3_reduce"
  top: "conv2/3x3"
  param {
    lr_mult: 1
    decay_mult: 1
  }
  param {
    lr_mult: 2
    decay_mult: 0
  }
  convolution_param {
    num_output: 192
    pad: 1
    kernel_size: 3
    weight_filler {
      type: "xavier"
      std: 0.03
    }
    bias_filler {
      type: "constant"
      value: 0.2
    }
  }
}
layer {
  name: "conv2/relu_3x3"
  type: "ReLU"
  bottom: "conv2/3x3"
  top: "conv2/3x3"
}
layer {
  name: "conv2/norm2"
  type: "LRN"
  bottom: "conv2/3x3"
  top: "conv2/norm2"
  lrn_param {
    local_size: 5
    alpha: 0.0001
    beta: 0.75
  }
}
layer {
  name: "pool2/3x3_s2"
  type: "Pooling"
  bottom: "conv2/norm2"
  top: "pool2/3x3_s2"
  pooling_param {
    pool: MAX
    kernel_size: 3
    stride: 2
  }
}
layer {
  name: "inception_3a/1x1"
  type: "Convolution"
  bottom: "pool2/3x3_s2"
  top: "inception_3a/1x1"
  param {
    lr_mult: 1
    decay_mult: 1
  }
  param {
    lr_mult: 2
    decay_mult: 0
  }
  convolution_param {
    num_output: 64
    kernel_size: 1
    weight_filler {
      type: "xavier"
      std: 0.03
    }
    bias_filler {
      type: "constant"
      value: 0.2
    }
  }
}
layer {
  name: "inception_3a/relu_1x1"
  type: "ReLU"
  bottom: "inception_3a/1x1"
  top: "inception_3a/1x1"
}
layer {
  name: "inception_3a/3x3_reduce"
  type: "Convolution"
  bottom: "pool2/3x3_s2"
  top: "inception_3a/3x3_reduce"
  param {
    lr_mult: 1
    decay_mult: 1
  }
  param {
    lr_mult: 2
    decay_mult: 0
  }
  convolution_param {
    num_output: 96
    kernel_size: 1
    weight_filler {
      type: "xavier"
      std: 0.09
    }
    bias_filler {
      type: "constant"
      value: 0.2
    }
  }
}
layer {
  name: "inception_3a/relu_3x3_reduce"
  type: "ReLU"
  bottom: "inception_3a/3x3_reduce"
  top: "inception_3a/3x3_reduce"
}
layer {
  name: "inception_3a/3x3"
  type: "Convolution"
  bottom: "inception_3a/3x3_reduce"
  top: "inception_3a/3x3"
  param {
    lr_mult: 1
    decay_mult: 1
  }
  param {
    lr_mult: 2
    decay_mult: 0
  }
  convolution_param {
    num_output: 128
    pad: 1
    kernel_size: 3
    weight_filler {
      type: "xavier"
      std: 0.03
    }
    bias_filler {
      type: "constant"
      value: 0.2
    }
  }
}
layer {
  name: "inception_3a/relu_3x3"
  type: "ReLU"
  bottom: "inception_3a/3x3"
  top: "inception_3a/3x3"
}
layer {
  name: "inception_3a/5x5_reduce"
  type: "Convolution"
  bottom: "pool2/3x3_s2"
  top: "inception_3a/5x5_reduce"
  param {
    lr_mult: 1
    decay_mult: 1
  }
  param {
    lr_mult: 2
    decay_mult: 0
  }
  convolution_param {
    num_output: 16
    kernel_size: 1
    weight_filler {
      type: "xavier"
      std: 0.2
    }
    bias_filler {
      type: "constant"
      value: 0.2
    }
  }
}
layer {
  name: "inception_3a/relu_5x5_reduce"
  type: "ReLU"
  bottom: "inception_3a/5x5_reduce"
  top: "inception_3a/5x5_reduce"
}
layer {
  name: "inception_3a/5x5"
  type: "Convolution"
  bottom: "inception_3a/5x5_reduce"
  top: "inception_3a/5x5"
  param {
    lr_mult: 1
    decay_mult: 1
  }
  param {
    lr_mult: 2
    decay_mult: 0
  }
  convolution_param {
    num_output: 32
    pad: 2
    kernel_size: 5
    weight_filler {
      type: "xavier"
      std: 0.03
    }
    bias_filler {
      type: "constant"
      value: 0.2
    }
  }
}
layer {
  name: "inception_3a/relu_5x5"
  type: "ReLU"
  bottom: "inception_3a/5x5"
  top: "inception_3a/5x5"
}
layer {
  name: "inception_3a/pool"
  type: "Pooling"
  bottom: "pool2/3x3_s2"
  top: "inception_3a/pool"
  pooling_param {
    pool: MAX
    kernel_size: 3
    stride: 1
    pad: 1
  }
}
layer {
  name: "inception_3a/pool_proj"
  type: "Convolution"
  bottom: "inception_3a/pool"
  top: "inception_3a/pool_proj"
  param {
    lr_mult: 1
    decay_mult: 1
  }
  param {
    lr_mult: 2
    decay_mult: 0
  }
  convolution_param {
    num_output: 32
    kernel_size: 1
    weight_filler {
      type: "xavier"
      std: 0.1
    }
    bias_filler {
      type: "constant"
      value: 0.2
    }
  }
}
layer {
  name: "inception_3a/relu_pool_proj"
  type: "ReLU"
  bottom: "inception_3a/pool_proj"
  top: "inception_3a/pool_proj"
}
layer {
  name: "inception_3a/output"
  type: "Concat"
  bottom: "inception_3a/1x1"
  bottom: "inception_3a/3x3"
  bottom: "inception_3a/5x5"
  bottom: "inception_3a/pool_proj"
  top: "inception_3a/output"
}
layer {
  name: "inception_3b/1x1"
  type: "Convolution"
  bottom: "inception_3a/output"
  top: "inception_3b/1x1"
  param {
    lr_mult: 1
    decay_mult: 1
  }
  param {
    lr_mult: 2
    decay_mult: 0
  }
  convolution_param {
    num_output: 128
    kernel_size: 1
    weight_filler {
      type: "xavier"
      std: 0.03
    }
    bias_filler {
      type: "constant"
      value: 0.2
    }
  }
}
layer {
  name: "inception_3b/relu_1x1"
  type: "ReLU"
  bottom: "inception_3b/1x1"
  top: "inception_3b/1x1"
}
layer {
  name: "inception_3b/3x3_reduce"
  type: "Convolution"
  bottom: "inception_3a/output"
  top: "inception_3b/3x3_reduce"
  param {
    lr_mult: 1
    decay_mult: 1
  }
  param {
    lr_mult: 2
    decay_mult: 0
  }
  convolution_param {
    num_output: 128
    kernel_size: 1
    weight_filler {
      type: "xavier"
      std: 0.09
    }
    bias_filler {
      type: "constant"
      value: 0.2
    }
  }
}
layer {
  name: "inception_3b/relu_3x3_reduce"
  type: "ReLU"
  bottom: "inception_3b/3x3_reduce"
  top: "inception_3b/3x3_reduce"
}
layer {
  name: "inception_3b/3x3"
  type: "Convolution"
  bottom: "inception_3b/3x3_reduce"
  top: "inception_3b/3x3"
  param {
    lr_mult: 1
    decay_mult: 1
  }
  param {
    lr_mult: 2
    decay_mult: 0
  }
  convolution_param {
    num_output: 192
    pad: 1
    kernel_size: 3
    weight_filler {
      type: "xavier"
      std: 0.03
    }
    bias_filler {
      type: "constant"
      value: 0.2
    }
  }
}
layer {
  name: "inception_3b/relu_3x3"
  type: "ReLU"
  bottom: "inception_3b/3x3"
  top: "inception_3b/3x3"
}
layer {
  name: "inception_3b/5x5_reduce"
  type: "Convolution"
  bottom: "inception_3a/output"
  top: "inception_3b/5x5_reduce"
  param {
    lr_mult: 1
    decay_mult: 1
  }
  param {
    lr_mult: 2
    decay_mult: 0
  }
  convolution_param {
    num_output: 32
    kernel_size: 1
    weight_filler {
      type: "xavier"
      std: 0.2
    }
    bias_filler {
      type: "constant"
      value: 0.2
    }
  }
}
layer {
  name: "inception_3b/relu_5x5_reduce"
  type: "ReLU"
  bottom: "inception_3b/5x5_reduce"
  top: "inception_3b/5x5_reduce"
}
layer {
  name: "inception_3b/5x5"
  type: "Convolution"
  bottom: "inception_3b/5x5_reduce"
  top: "inception_3b/5x5"
  param {
    lr_mult: 1
    decay_mult: 1
  }
  param {
    lr_mult: 2
    decay_mult: 0
  }
  convolution_param {
    num_output: 96
    pad: 2
    kernel_size: 5
    weight_filler {
      type: "xavier"
      std: 0.03
    }
    bias_filler {
      type: "constant"
      value: 0.2
    }
  }
}
layer {
  name: "inception_3b/relu_5x5"
  type: "ReLU"
  bottom: "inception_3b/5x5"
  top: "inception_3b/5x5"
}
layer {
  name: "inception_3b/pool"
  type: "Pooling"
  bottom: "inception_3a/output"
  top: "inception_3b/pool"
  pooling_param {
    pool: MAX
    kernel_size: 3
    stride: 1
    pad: 1
  }
}
layer {
  name: "inception_3b/pool_proj"
  type: "Convolution"
  bottom: "inception_3b/pool"
  top: "inception_3b/pool_proj"
  param {
    lr_mult: 1
    decay_mult: 1
  }
  param {
    lr_mult: 2
    decay_mult: 0
  }
  convolution_param {
    num_output: 64
    kernel_size: 1
    weight_filler {
      type: "xavier"
      std: 0.1
    }
    bias_filler {
      type: "constant"
      value: 0.2
    }
  }
}
layer {
  name: "inception_3b/relu_pool_proj"
  type: "ReLU"
  bottom: "inception_3b/pool_proj"
  top: "inception_3b/pool_proj"
}
layer {
  name: "inception_3b/output"
  type: "Concat"
  bottom: "inception_3b/1x1"
  bottom: "inception_3b/3x3"
  bottom: "inception_3b/5x5"
  bottom: "inception_3b/pool_proj"
  top: "inception_3b/output"
}
layer {
  name: "pool3/3x3_s2"
  type: "Pooling"
  bottom: "inception_3b/output"
  top: "pool3/3x3_s2"
  pooling_param {
    pool: MAX
    kernel_size: 3
    stride: 2
  }
}
layer {
  name: "inception_4a/1x1"
  type: "Convolution"
  bottom: "pool3/3x3_s2"
  top: "inception_4a/1x1"
  param {
    lr_mult: 1
    decay_mult: 1
  }
  param {
    lr_mult: 2
    decay_mult: 0
  }
  convolution_param {
    num_output: 192
    kernel_size: 1
    weight_filler {
      type: "xavier"
      std: 0.03
    }
    bias_filler {
      type: "constant"
      value: 0.2
    }
  }
}
layer {
  name: "inception_4a/relu_1x1"
  type: "ReLU"
  bottom: "inception_4a/1x1"
  top: "inception_4a/1x1"
}
layer {
  name: "inception_4a/3x3_reduce"
  type: "Convolution"
  bottom: "pool3/3x3_s2"
  top: "inception_4a/3x3_reduce"
  param {
    lr_mult: 1
    decay_mult: 1
  }
  param {
    lr_mult: 2
    decay_mult: 0
  }
  convolution_param {
    num_output: 96
    kernel_size: 1
    weight_filler {
      type: "xavier"
      std: 0.09
    }
    bias_filler {
      type: "constant"
      value: 0.2
    }
  }
}
layer {
  name: "inception_4a/relu_3x3_reduce"
  type: "ReLU"
  bottom: "inception_4a/3x3_reduce"
  top: "inception_4a/3x3_reduce"
}
layer {
  name: "inception_4a/3x3"
  type: "Convolution"
  bottom: "inception_4a/3x3_reduce"
  top: "inception_4a/3x3"
  param {
    lr_mult: 1
    decay_mult: 1
  }
  param {
    lr_mult: 2
    decay_mult: 0
  }
  convolution_param {
    num_output: 208
    pad: 1
    kernel_size: 3
    weight_filler {
      type: "xavier"
      std: 0.03
    }
    bias_filler {
      type: "constant"
      value: 0.2
    }
  }
}
layer {
  name: "inception_4a/relu_3x3"
  type: "ReLU"
  bottom: "inception_4a/3x3"
  top: "inception_4a/3x3"
}
layer {
  name: "inception_4a/5x5_reduce"
  type: "Convolution"
  bottom: "pool3/3x3_s2"
  top: "inception_4a/5x5_reduce"
  param {
    lr_mult: 1
    decay_mult: 1
  }
  param {
    lr_mult: 2
    decay_mult: 0
  }
  convolution_param {
    num_output: 16
    kernel_size: 1
    weight_filler {
      type: "xavier"
      std: 0.2
    }
    bias_filler {
      type: "constant"
      value: 0.2
    }
  }
}
layer {
  name: "inception_4a/relu_5x5_reduce"
  type: "ReLU"
  bottom: "inception_4a/5x5_reduce"
  top: "inception_4a/5x5_reduce"
}
layer {
  name: "inception_4a/5x5"
  type: "Convolution"
  bottom: "inception_4a/5x5_reduce"
  top: "inception_4a/5x5"
  param {
    lr_mult: 1
    decay_mult: 1
  }
  param {
    lr_mult: 2
    decay_mult: 0
  }
  convolution_param {
    num_output: 48
    pad: 2
    kernel_size: 5
    weight_filler {
      type: "xavier"
      std: 0.03
    }
    bias_filler {
      type: "constant"
      value: 0.2
    }
  }
}
layer {
  name: "inception_4a/relu_5x5"
  type: "ReLU"
  bottom: "inception_4a/5x5"
  top: "inception_4a/5x5"
}
layer {
  name: "inception_4a/pool"
  type: "Pooling"
  bottom: "pool3/3x3_s2"
  top: "inception_4a/pool"
  pooling_param {
    pool: MAX
    kernel_size: 3
    stride: 1
    pad: 1
  }
}
layer {
  name: "inception_4a/pool_proj"
  type: "Convolution"
  bottom: "inception_4a/pool"
  top: "inception_4a/pool_proj"
  param {
    lr_mult: 1
    decay_mult: 1
  }
  param {
    lr_mult: 2
    decay_mult: 0
  }
  convolution_param {
    num_output: 64
    kernel_size: 1
    weight_filler {
      type: "xavier"
      std: 0.1
    }
    bias_filler {
      type: "constant"
      value: 0.2
    }
  }
}
layer {
  name: "inception_4a/relu_pool_proj"
  type: "ReLU"
  bottom: "inception_4a/pool_proj"
  top: "inception_4a/pool_proj"
}
layer {
  name: "inception_4a/output"
  type: "Concat"
  bottom: "inception_4a/1x1"
  bottom: "inception_4a/3x3"
  bottom: "inception_4a/5x5"
  bottom: "inception_4a/pool_proj"
  top: "inception_4a/output"
}
layer {
  name: "inception_4b/1x1"
  type: "Convolution"
  bottom: "inception_4a/output"
  top: "inception_4b/1x1"
  param {
    lr_mult: 1
    decay_mult: 1
  }
  param {
    lr_mult: 2
    decay_mult: 0
  }
  convolution_param {
    num_output: 160
    kernel_size: 1
    weight_filler {
      type: "xavier"
      std: 0.03
    }
    bias_filler {
      type: "constant"
      value: 0.2
    }
  }
}
layer {
  name: "inception_4b/relu_1x1"
  type: "ReLU"
  bottom: "inception_4b/1x1"
  top: "inception_4b/1x1"
}
layer {
  name: "inception_4b/3x3_reduce"
  type: "Convolution"
  bottom: "inception_4a/output"
  top: "inception_4b/3x3_reduce"
  param {
    lr_mult: 1
    decay_mult: 1
  }
  param {
    lr_mult: 2
    decay_mult: 0
  }
  convolution_param {
    num_output: 112
    kernel_size: 1
    weight_filler {
      type: "xavier"
      std: 0.09
    }
    bias_filler {
      type: "constant"
      value: 0.2
    }
  }
}
layer {
  name: "inception_4b/relu_3x3_reduce"
  type: "ReLU"
  bottom: "inception_4b/3x3_reduce"
  top: "inception_4b/3x3_reduce"
}
layer {
  name: "inception_4b/3x3"
  type: "Convolution"
  bottom: "inception_4b/3x3_reduce"
  top: "inception_4b/3x3"
  param {
    lr_mult: 1
    decay_mult: 1
  }
  param {
    lr_mult: 2
    decay_mult: 0
  }
  convolution_param {
    num_output: 224
    pad: 1
    kernel_size: 3
    weight_filler {
      type: "xavier"
      std: 0.03
    }
    bias_filler {
      type: "constant"
      value: 0.2
    }
  }
}
layer {
  name: "inception_4b/relu_3x3"
  type: "ReLU"
  bottom: "inception_4b/3x3"
  top: "inception_4b/3x3"
}
layer {
  name: "inception_4b/5x5_reduce"
  type: "Convolution"
  bottom: "inception_4a/output"
  top: "inception_4b/5x5_reduce"
  param {
    lr_mult: 1
    decay_mult: 1
  }
  param {
    lr_mult: 2
    decay_mult: 0
  }
  convolution_param {
    num_output: 24
    kernel_size: 1
    weight_filler {
      type: "xavier"
      std: 0.2
    }
    bias_filler {
      type: "constant"
      value: 0.2
    }
  }
}
layer {
  name: "inception_4b/relu_5x5_reduce"
  type: "ReLU"
  bottom: "inception_4b/5x5_reduce"
  top: "inception_4b/5x5_reduce"
}
layer {
  name: "inception_4b/5x5"
  type: "Convolution"
  bottom: "inception_4b/5x5_reduce"
  top: "inception_4b/5x5"
  param {
    lr_mult: 1
    decay_mult: 1
  }
  param {
    lr_mult: 2
    decay_mult: 0
  }
  convolution_param {
    num_output: 64
    pad: 2
    kernel_size: 5
    weight_filler {
      type: "xavier"
      std: 0.03
    }
    bias_filler {
      type: "constant"
      value: 0.2
    }
  }
}
layer {
  name: "inception_4b/relu_5x5"
  type: "ReLU"
  bottom: "inception_4b/5x5"
  top: "inception_4b/5x5"
}
layer {
  name: "inception_4b/pool"
  type: "Pooling"
  bottom: "inception_4a/output"
  top: "inception_4b/pool"
  pooling_param {
    pool: MAX
    kernel_size: 3
    stride: 1
    pad: 1
  }
}
layer {
  name: "inception_4b/pool_proj"
  type: "Convolution"
  bottom: "inception_4b/pool"
  top: "inception_4b/pool_proj"
  param {
    lr_mult: 1
    decay_mult: 1
  }
  param {
    lr_mult: 2
    decay_mult: 0
  }
  convolution_param {
    num_output: 64
    kernel_size: 1
    weight_filler {
      type: "xavier"
      std: 0.1
    }
    bias_filler {
      type: "constant"
      value: 0.2
    }
  }
}
layer {
  name: "inception_4b/relu_pool_proj"
  type: "ReLU"
  bottom: "inception_4b/pool_proj"
  top: "inception_4b/pool_proj"
}
layer {
  name: "inception_4b/output"
  type: "Concat"
  bottom: "inception_4b/1x1"
  bottom: "inception_4b/3x3"
  bottom: "inception_4b/5x5"
  bottom: "inception_4b/pool_proj"
  top: "inception_4b/output"
}
layer {
  name: "inception_4c/1x1"
  type: "Convolution"
  bottom: "inception_4b/output"
  top: "inception_4c/1x1"
  param {
    lr_mult: 1
    decay_mult: 1
  }
  param {
    lr_mult: 2
    decay_mult: 0
  }
  convolution_param {
    num_output: 128
    kernel_size: 1
    weight_filler {
      type: "xavier"
      std: 0.03
    }
    bias_filler {
      type: "constant"
      value: 0.2
    }
  }
}
layer {
  name: "inception_4c/relu_1x1"
  type: "ReLU"
  bottom: "inception_4c/1x1"
  top: "inception_4c/1x1"
}
layer {
  name: "inception_4c/3x3_reduce"
  type: "Convolution"
  bottom: "inception_4b/output"
  top: "inception_4c/3x3_reduce"
  param {
    lr_mult: 1
    decay_mult: 1
  }
  param {
    lr_mult: 2
    decay_mult: 0
  }
  convolution_param {
    num_output: 128
    kernel_size: 1
    weight_filler {
      type: "xavier"
      std: 0.09
    }
    bias_filler {
      type: "constant"
      value: 0.2
    }
  }
}
layer {
  name: "inception_4c/relu_3x3_reduce"
  type: "ReLU"
  bottom: "inception_4c/3x3_reduce"
  top: "inception_4c/3x3_reduce"
}
layer {
  name: "inception_4c/3x3"
  type: "Convolution"
  bottom: "inception_4c/3x3_reduce"
  top: "inception_4c/3x3"
  param {
    lr_mult: 1
    decay_mult: 1
  }
  param {
    lr_mult: 2
    decay_mult: 0
  }
  convolution_param {
    num_output: 256
    pad: 1
    kernel_size: 3
    weight_filler {
      type: "xavier"
      std: 0.03
    }
    bias_filler {
      type: "constant"
      value: 0.2
    }
  }
}
layer {
  name: "inception_4c/relu_3x3"
  type: "ReLU"
  bottom: "inception_4c/3x3"
  top: "inception_4c/3x3"
}
layer {
  name: "inception_4c/5x5_reduce"
  type: "Convolution"
  bottom: "inception_4b/output"
  top: "inception_4c/5x5_reduce"
  param {
    lr_mult: 1
    decay_mult: 1
  }
  param {
    lr_mult: 2
    decay_mult: 0
  }
  convolution_param {
    num_output: 24
    kernel_size: 1
    weight_filler {
      type: "xavier"
      std: 0.2
    }
    bias_filler {
      type: "constant"
      value: 0.2
    }
  }
}
layer {
  name: "inception_4c/relu_5x5_reduce"
  type: "ReLU"
  bottom: "inception_4c/5x5_reduce"
  top: "inception_4c/5x5_reduce"
}
layer {
  name: "inception_4c/5x5"
  type: "Convolution"
  bottom: "inception_4c/5x5_reduce"
  top: "inception_4c/5x5"
  param {
    lr_mult: 1
    decay_mult: 1
  }
  param {
    lr_mult: 2
    decay_mult: 0
  }
  convolution_param {
    num_output: 64
    pad: 2
    kernel_size: 5
    weight_filler {
      type: "xavier"
      std: 0.03
    }
    bias_filler {
      type: "constant"
      value: 0.2
    }
  }
}
layer {
  name: "inception_4c/relu_5x5"
  type: "ReLU"
  bottom: "inception_4c/5x5"
  top: "inception_4c/5x5"
}
layer {
  name: "inception_4c/pool"
  type: "Pooling"
  bottom: "inception_4b/output"
  top: "inception_4c/pool"
  pooling_param {
    pool: MAX
    kernel_size: 3
    stride: 1
    pad: 1
  }
}
layer {
  name: "inception_4c/pool_proj"
  type: "Convolution"
  bottom: "inception_4c/pool"
  top: "inception_4c/pool_proj"
  param {
    lr_mult: 1
    decay_mult: 1
  }
  param {
    lr_mult: 2
    decay_mult: 0
  }
  convolution_param {
    num_output: 64
    kernel_size: 1
    weight_filler {
      type: "xavier"
      std: 0.1
    }
    bias_filler {
      type: "constant"
      value: 0.2
    }
  }
}
layer {
  name: "inception_4c/relu_pool_proj"
  type: "ReLU"
  bottom: "inception_4c/pool_proj"
  top: "inception_4c/pool_proj"
}
layer {
  name: "inception_4c/output"
  type: "Concat"
  bottom: "inception_4c/1x1"
  bottom: "inception_4c/3x3"
  bottom: "inception_4c/5x5"
  bottom: "inception_4c/pool_proj"
  top: "inception_4c/output"
}
layer {
  name: "inception_4d/1x1"
  type: "Convolution"
  bottom: "inception_4c/output"
  top: "inception_4d/1x1"
  param {
    lr_mult: 1
    decay_mult: 1
  }
  param {
    lr_mult: 2
    decay_mult: 0
  }
  convolution_param {
    num_output: 112
    kernel_size: 1
    weight_filler {
      type: "xavier"
      std: 0.03
    }
    bias_filler {
      type: "constant"
      value: 0.2
    }
  }
}
layer {
  name: "inception_4d/relu_1x1"
  type: "ReLU"
  bottom: "inception_4d/1x1"
  top: "inception_4d/1x1"
}
layer {
  name: "inception_4d/3x3_reduce"
  type: "Convolution"
  bottom: "inception_4c/output"
  top: "inception_4d/3x3_reduce"
  param {
    lr_mult: 1
    decay_mult: 1
  }
  param {
    lr_mult: 2
    decay_mult: 0
  }
  convolution_param {
    num_output: 144
    kernel_size: 1
    weight_filler {
      type: "xavier"
      std: 0.09
    }
    bias_filler {
      type: "constant"
      value: 0.2
    }
  }
}
layer {
  name: "inception_4d/relu_3x3_reduce"
  type: "ReLU"
  bottom: "inception_4d/3x3_reduce"
  top: "inception_4d/3x3_reduce"
}
layer {
  name: "inception_4d/3x3"
  type: "Convolution"
  bottom: "inception_4d/3x3_reduce"
  top: "inception_4d/3x3"
  param {
    lr_mult: 1
    decay_mult: 1
  }
  param {
    lr_mult: 2
    decay_mult: 0
  }
  convolution_param {
    num_output: 288
    pad: 1
    kernel_size: 3
    weight_filler {
      type: "xavier"
      std: 0.03
    }
    bias_filler {
      type: "constant"
      value: 0.2
    }
  }
}
layer {
  name: "inception_4d/relu_3x3"
  type: "ReLU"
  bottom: "inception_4d/3x3"
  top: "inception_4d/3x3"
}
layer {
  name: "inception_4d/5x5_reduce"
  type: "Convolution"
  bottom: "inception_4c/output"
  top: "inception_4d/5x5_reduce"
  param {
    lr_mult: 1
    decay_mult: 1
  }
  param {
    lr_mult: 2
    decay_mult: 0
  }
  convolution_param {
    num_output: 32
    kernel_size: 1
    weight_filler {
      type: "xavier"
      std: 0.2
    }
    bias_filler {
      type: "constant"
      value: 0.2
    }
  }
}
layer {
  name: "inception_4d/relu_5x5_reduce"
  type: "ReLU"
  bottom: "inception_4d/5x5_reduce"
  top: "inception_4d/5x5_reduce"
}
layer {
  name: "inception_4d/5x5"
  type: "Convolution"
  bottom: "inception_4d/5x5_reduce"
  top: "inception_4d/5x5"
  param {
    lr_mult: 1
    decay_mult: 1
  }
  param {
    lr_mult: 2
    decay_mult: 0
  }
  convolution_param {
    num_output: 64
    pad: 2
    kernel_size: 5
    weight_filler {
      type: "xavier"
      std: 0.03
    }
    bias_filler {
      type: "constant"
      value: 0.2
    }
  }
}
layer {
  name: "inception_4d/relu_5x5"
  type: "ReLU"
  bottom: "inception_4d/5x5"
  top: "inception_4d/5x5"
}
layer {
  name: "inception_4d/pool"
  type: "Pooling"
  bottom: "inception_4c/output"
  top: "inception_4d/pool"
  pooling_param {
    pool: MAX
    kernel_size: 3
    stride: 1
    pad: 1
  }
}
layer {
  name: "inception_4d/pool_proj"
  type: "Convolution"
  bottom: "inception_4d/pool"
  top: "inception_4d/pool_proj"
  param {
    lr_mult: 1
    decay_mult: 1
  }
  param {
    lr_mult: 2
    decay_mult: 0
  }
  convolution_param {
    num_output: 64
    kernel_size: 1
    weight_filler {
      type: "xavier"
      std: 0.1
    }
    bias_filler {
      type: "constant"
      value: 0.2
    }
  }
}
layer {
  name: "inception_4d/relu_pool_proj"
  type: "ReLU"
  bottom: "inception_4d/pool_proj"
  top: "inception_4d/pool_proj"
}
layer {
  name: "inception_4d/output"
  type: "Concat"
  bottom: "inception_4d/1x1"
  bottom: "inception_4d/3x3"
  bottom: "inception_4d/5x5"
  bottom: "inception_4d/pool_proj"
  top: "inception_4d/output"
}
layer {
  name: "inception_4e/1x1"
  type: "Convolution"
  bottom: "inception_4d/output"
  top: "inception_4e/1x1"
  param {
    lr_mult: 1
    decay_mult: 1
  }
  param {
    lr_mult: 2
    decay_mult: 0
  }
  convolution_param {
    num_output: 256
    kernel_size: 1
    weight_filler {
      type: "xavier"
      std: 0.03
    }
    bias_filler {
      type: "constant"
      value: 0.2
    }
  }
}
layer {
  name: "inception_4e/relu_1x1"
  type: "ReLU"
  bottom: "inception_4e/1x1"
  top: "inception_4e/1x1"
}
layer {
  name: "inception_4e/3x3_reduce"
  type: "Convolution"
  bottom: "inception_4d/output"
  top: "inception_4e/3x3_reduce"
  param {
    lr_mult: 1
    decay_mult: 1
  }
  param {
    lr_mult: 2
    decay_mult: 0
  }
  convolution_param {
    num_output: 160
    kernel_size: 1
    weight_filler {
      type: "xavier"
      std: 0.09
    }
    bias_filler {
      type: "constant"
      value: 0.2
    }
  }
}
layer {
  name: "inception_4e/relu_3x3_reduce"
  type: "ReLU"
  bottom: "inception_4e/3x3_reduce"
  top: "inception_4e/3x3_reduce"
}
layer {
  name: "inception_4e/3x3"
  type: "Convolution"
  bottom: "inception_4e/3x3_reduce"
  top: "inception_4e/3x3"
  param {
    lr_mult: 1
    decay_mult: 1
  }
  param {
    lr_mult: 2
    decay_mult: 0
  }
  convolution_param {
    num_output: 320
    pad: 1
    kernel_size: 3
    weight_filler {
      type: "xavier"
      std: 0.03
    }
    bias_filler {
      type: "constant"
      value: 0.2
    }
  }
}
layer {
  name: "inception_4e/relu_3x3"
  type: "ReLU"
  bottom: "inception_4e/3x3"
  top: "inception_4e/3x3"
}
layer {
  name: "inception_4e/5x5_reduce"
  type: "Convolution"
  bottom: "inception_4d/output"
  top: "inception_4e/5x5_reduce"
  param {
    lr_mult: 1
    decay_mult: 1
  }
  param {
    lr_mult: 2
    decay_mult: 0
  }
  convolution_param {
    num_output: 32
    kernel_size: 1
    weight_filler {
      type: "xavier"
      std: 0.2
    }
    bias_filler {
      type: "constant"
      value: 0.2
    }
  }
}
layer {
  name: "inception_4e/relu_5x5_reduce"
  type: "ReLU"
  bottom: "inception_4e/5x5_reduce"
  top: "inception_4e/5x5_reduce"
}
layer {
  name: "inception_4e/5x5"
  type: "Convolution"
  bottom: "inception_4e/5x5_reduce"
  top: "inception_4e/5x5"
  param {
    lr_mult: 1
    decay_mult: 1
  }
  param {
    lr_mult: 2
    decay_mult: 0
  }
  convolution_param {
    num_output: 128
    pad: 2
    kernel_size: 5
    weight_filler {
      type: "xavier"
      std: 0.03
    }
    bias_filler {
      type: "constant"
      value: 0.2
    }
  }
}
layer {
  name: "inception_4e/relu_5x5"
  type: "ReLU"
  bottom: "inception_4e/5x5"
  top: "inception_4e/5x5"
}
layer {
  name: "inception_4e/pool"
  type: "Pooling"
  bottom: "inception_4d/output"
  top: "inception_4e/pool"
  pooling_param {
    pool: MAX
    kernel_size: 3
    stride: 1
    pad: 1
  }
}
layer {
  name: "inception_4e/pool_proj"
  type: "Convolution"
  bottom: "inception_4e/pool"
  top: "inception_4e/pool_proj"
  param {
    lr_mult: 1
    decay_mult: 1
  }
  param {
    lr_mult: 2
    decay_mult: 0
  }
  convolution_param {
    num_output: 128
    kernel_size: 1
    weight_filler {
      type: "xavier"
      std: 0.1
    }
    bias_filler {
      type: "constant"
      value: 0.2
    }
  }
}
layer {
  name: "inception_4e/relu_pool_proj"
  type: "ReLU"
  bottom: "inception_4e/pool_proj"
  top: "inception_4e/pool_proj"
}
layer {
  name: "inception_4e/output"
  type: "Concat"
  bottom: "inception_4e/1x1"
  bottom: "inception_4e/3x3"
  bottom: "inception_4e/5x5"
  bottom: "inception_4e/pool_proj"
  top: "inception_4e/output"
}
layer {
  name: "pool4/3x3_s2"
  type: "Pooling"
  bottom: "inception_4e/output"
  top: "pool4/3x3_s2"
  pooling_param {
    pool: MAX
    kernel_size: 3
    stride: 2
  }
}
layer {
  name: "inception_5a/1x1"
  type: "Convolution"
  bottom: "pool4/3x3_s2"
  top: "inception_5a/1x1"
  param {
    lr_mult: 1
    decay_mult: 1
  }
  param {
    lr_mult: 2
    decay_mult: 0
  }
  convolution_param {
    num_output: 256
    kernel_size: 1
    weight_filler {
      type: "xavier"
      std: 0.03
    }
    bias_filler {
      type: "constant"
      value: 0.2
    }
  }
}
layer {
  name: "inception_5a/relu_1x1"
  type: "ReLU"
  bottom: "inception_5a/1x1"
  top: "inception_5a/1x1"
}
layer {
  name: "inception_5a/3x3_reduce"
  type: "Convolution"
  bottom: "pool4/3x3_s2"
  top: "inception_5a/3x3_reduce"
  param {
    lr_mult: 1
    decay_mult: 1
  }
  param {
    lr_mult: 2
    decay_mult: 0
  }
  convolution_param {
    num_output: 160
    kernel_size: 1
    weight_filler {
      type: "xavier"
      std: 0.09
    }
    bias_filler {
      type: "constant"
      value: 0.2
    }
  }
}
layer {
  name: "inception_5a/relu_3x3_reduce"
  type: "ReLU"
  bottom: "inception_5a/3x3_reduce"
  top: "inception_5a/3x3_reduce"
}
layer {
  name: "inception_5a/3x3"
  type: "Convolution"
  bottom: "inception_5a/3x3_reduce"
  top: "inception_5a/3x3"
  param {
    lr_mult: 1
    decay_mult: 1
  }
  param {
    lr_mult: 2
    decay_mult: 0
  }
  convolution_param {
    num_output: 320
    pad: 1
    kernel_size: 3
    weight_filler {
      type: "xavier"
      std: 0.03
    }
    bias_filler {
      type: "constant"
      value: 0.2
    }
  }
}
layer {
  name: "inception_5a/relu_3x3"
  type: "ReLU"
  bottom: "inception_5a/3x3"
  top: "inception_5a/3x3"
}
layer {
  name: "inception_5a/5x5_reduce"
  type: "Convolution"
  bottom: "pool4/3x3_s2"
  top: "inception_5a/5x5_reduce"
  param {
    lr_mult: 1
    decay_mult: 1
  }
  param {
    lr_mult: 2
    decay_mult: 0
  }
  convolution_param {
    num_output: 32
    kernel_size: 1
    weight_filler {
      type: "xavier"
      std: 0.2
    }
    bias_filler {
      type: "constant"
      value: 0.2
    }
I0706 22:19:43.980856  4209 layer_factory.hpp:77] Creating layer data
I0706 22:19:43.980881  4209 net.cpp:91] Creating Layer data
I0706 22:19:43.980890  4209 net.cpp:399] data -> data
I0706 22:19:44.586769  4209 net.cpp:141] Setting up data
I0706 22:19:44.586859  4209 net.cpp:148] Top shape: 10 3 224 224 (1505280)
I0706 22:19:44.586866  4209 net.cpp:156] Memory required for data: 6021120
I0706 22:19:44.586886  4209 layer_factory.hpp:77] Creating layer conv1/7x7_s2
I0706 22:19:44.586923  4209 net.cpp:91] Creating Layer conv1/7x7_s2
I0706 22:19:44.586931  4209 net.cpp:425] conv1/7x7_s2 <- data
I0706 22:19:44.586944  4209 net.cpp:399] conv1/7x7_s2 -> conv1/7x7_s2
I0706 22:19:44.801585  4209 net.cpp:141] Setting up conv1/7x7_s2
I0706 22:19:44.801651  4209 net.cpp:148] Top shape: 10 64 112 112 (8028160)
I0706 22:19:44.801656  4209 net.cpp:156] Memory required for data: 38133760
I0706 22:19:44.801683  4209 layer_factory.hpp:77] Creating layer conv1/relu_7x7
I0706 22:19:44.801702  4209 net.cpp:91] Creating Layer conv1/relu_7x7
I0706 22:19:44.801708  4209 net.cpp:425] conv1/relu_7x7 <- conv1/7x7_s2
I0706 22:19:44.801715  4209 net.cpp:386] conv1/relu_7x7 -> conv1/7x7_s2 (in-place)
I0706 22:19:44.802484  4209 net.cpp:141] Setting up conv1/relu_7x7
I0706 22:19:44.802501  4209 net.cpp:148] Top shape: 10 64 112 112 (8028160)
I0706 22:19:44.802506  4209 net.cpp:156] Memory required for data: 70246400
I0706 22:19:44.802512  4209 layer_factory.hpp:77] Creating layer pool1/3x3_s2
I0706 22:19:44.802525  4209 net.cpp:91] Creating Layer pool1/3x3_s2
I0706 22:19:44.802530  4209 net.cpp:425] pool1/3x3_s2 <- conv1/7x7_s2
I0706 22:19:44.802536  4209 net.cpp:399] pool1/3x3_s2 -> pool1/3x3_s2
I0706 22:19:44.802606  4209 net.cpp:141] Setting up pool1/3x3_s2
I0706 22:19:44.802616  4209 net.cpp:148] Top shape: 10 64 56 56 (2007040)
I0706 22:19:44.802621  4209 net.cpp:156] Memory required for data: 78274560
I0706 22:19:44.802625  4209 layer_factory.hpp:77] Creating layer pool1/norm1
I0706 22:19:44.802639  4209 net.cpp:91] Creating Layer pool1/norm1
I0706 22:19:44.802644  4209 net.cpp:425] pool1/norm1 <- pool1/3x3_s2
I0706 22:19:44.802651  4209 net.cpp:399] pool1/norm1 -> pool1/norm1
I0706 22:19:44.803443  4209 net.cpp:141] Setting up pool1/norm1
I0706 22:19:44.803468  4209 net.cpp:148] Top shape: 10 64 56 56 (2007040)
I0706 22:19:44.803478  4209 net.cpp:156] Memory required for data: 86302720
I0706 22:19:44.803488  4209 layer_factory.hpp:77] Creating layer conv2/3x3_reduce
I0706 22:19:44.803514  4209 net.cpp:91] Creating Layer conv2/3x3_reduce
I0706 22:19:44.803524  4209 net.cpp:425] conv2/3x3_reduce <- pool1/norm1
I0706 22:19:44.803534  4209 net.cpp:399] conv2/3x3_reduce -> conv2/3x3_reduce
I0706 22:19:44.809602  4209 net.cpp:141] Setting up conv2/3x3_reduce
I0706 22:19:44.809658  4209 net.cpp:148] Top shape: 10 64 56 56 (2007040)
I0706 22:19:44.809665  4209 net.cpp:156] Memory required for data: 94330880
I0706 22:19:44.809689  4209 layer_factory.hpp:77] Creating layer conv2/relu_3x3_reduce
I0706 22:19:44.809708  4209 net.cpp:91] Creating Layer conv2/relu_3x3_reduce
I0706 22:19:44.809718  4209 net.cpp:425] conv2/relu_3x3_reduce <- conv2/3x3_reduce
I0706 22:19:44.809729  4209 net.cpp:386] conv2/relu_3x3_reduce -> conv2/3x3_reduce (in-place)
I0706 22:19:44.810493  4209 net.cpp:141] Setting up conv2/relu_3x3_reduce
I0706 22:19:44.810508  4209 net.cpp:148] Top shape: 10 64 56 56 (2007040)
I0706 22:19:44.810513  4209 net.cpp:156] Memory required for data: 102359040
I0706 22:19:44.810518  4209 layer_factory.hpp:77] Creating layer conv2/3x3
I0706 22:19:44.810535  4209 net.cpp:91] Creating Layer conv2/3x3
I0706 22:19:44.810540  4209 net.cpp:425] conv2/3x3 <- conv2/3x3_reduce
I0706 22:19:44.810549  4209 net.cpp:399] conv2/3x3 -> conv2/3x3
I0706 22:19:44.814883  4209 net.cpp:141] Setting up conv2/3x3
I0706 22:19:44.814901  4209 net.cpp:148] Top shape: 10 192 56 56 (6021120)
I0706 22:19:44.814906  4209 net.cpp:156] Memory required for data: 126443520
I0706 22:19:44.814918  4209 layer_factory.hpp:77] Creating layer conv2/relu_3x3
I0706 22:19:44.814929  4209 net.cpp:91] Creating Layer conv2/relu_3x3
I0706 22:19:44.814934  4209 net.cpp:425] conv2/relu_3x3 <- conv2/3x3
I0706 22:19:44.814944  4209 net.cpp:386] conv2/relu_3x3 -> conv2/3x3 (in-place)
I0706 22:19:44.815186  4209 net.cpp:141] Setting up conv2/relu_3x3
I0706 22:19:44.815199  4209 net.cpp:148] Top shape: 10 192 56 56 (6021120)
I0706 22:19:44.815203  4209 net.cpp:156] Memory required for data: 150528000
I0706 22:19:44.815207  4209 layer_factory.hpp:77] Creating layer conv2/norm2
I0706 22:19:44.815218  4209 net.cpp:91] Creating Layer conv2/norm2
I0706 22:19:44.815223  4209 net.cpp:425] conv2/norm2 <- conv2/3x3
I0706 22:19:44.815232  4209 net.cpp:399] conv2/norm2 -> conv2/norm2
I0706 22:19:44.815978  4209 net.cpp:141] Setting up conv2/norm2
I0706 22:19:44.815994  4209 net.cpp:148] Top shape: 10 192 56 56 (6021120)
I0706 22:19:44.815999  4209 net.cpp:156] Memory required for data: 174612480
I0706 22:19:44.816004  4209 layer_factory.hpp:77] Creating layer pool2/3x3_s2
I0706 22:19:44.816014  4209 net.cpp:91] Creating Layer pool2/3x3_s2
I0706 22:19:44.816018  4209 net.cpp:425] pool2/3x3_s2 <- conv2/norm2
I0706 22:19:44.816030  4209 net.cpp:399] pool2/3x3_s2 -> pool2/3x3_s2
I0706 22:19:44.816082  4209 net.cpp:141] Setting up pool2/3x3_s2
I0706 22:19:44.816090  4209 net.cpp:148] Top shape: 10 192 28 28 (1505280)
I0706 22:19:44.816094  4209 net.cpp:156] Memory required for data: 180633600
I0706 22:19:44.816098  4209 layer_factory.hpp:77] Creating layer pool2/3x3_s2_pool2/3x3_s2_0_split
I0706 22:19:44.816121  4209 net.cpp:91] Creating Layer pool2/3x3_s2_pool2/3x3_s2_0_split
I0706 22:19:44.816128  4209 net.cpp:425] pool2/3x3_s2_pool2/3x3_s2_0_split <- pool2/3x3_s2
I0706 22:19:44.816135  4209 net.cpp:399] pool2/3x3_s2_pool2/3x3_s2_0_split -> pool2/3x3_s2_pool2/3x3_s2_0_split_0
I0706 22:19:44.816145  4209 net.cpp:399] pool2/3x3_s2_pool2/3x3_s2_0_split -> pool2/3x3_s2_pool2/3x3_s2_0_split_1
I0706 22:19:44.816154  4209 net.cpp:399] pool2/3x3_s2_pool2/3x3_s2_0_split -> pool2/3x3_s2_pool2/3x3_s2_0_split_2
I0706 22:19:44.816161  4209 net.cpp:399] pool2/3x3_s2_pool2/3x3_s2_0_split -> pool2/3x3_s2_pool2/3x3_s2_0_split_3
I0706 22:19:44.816236  4209 net.cpp:141] Setting up pool2/3x3_s2_pool2/3x3_s2_0_split
I0706 22:19:44.816246  4209 net.cpp:148] Top shape: 10 192 28 28 (1505280)
I0706 22:19:44.816252  4209 net.cpp:148] Top shape: 10 192 28 28 (1505280)
I0706 22:19:44.816257  4209 net.cpp:148] Top shape: 10 192 28 28 (1505280)
I0706 22:19:44.816262  4209 net.cpp:148] Top shape: 10 192 28 28 (1505280)
I0706 22:19:44.816267  4209 net.cpp:156] Memory required for data: 204718080
I0706 22:19:44.816272  4209 layer_factory.hpp:77] Creating layer inception_3a/1x1
I0706 22:19:44.816285  4209 net.cpp:91] Creating Layer inception_3a/1x1
I0706 22:19:44.816290  4209 net.cpp:425] inception_3a/1x1 <- pool2/3x3_s2_pool2/3x3_s2_0_split_0
I0706 22:19:44.816329  4209 net.cpp:399] inception_3a/1x1 -> inception_3a/1x1
I0706 22:19:44.819769  4209 net.cpp:141] Setting up inception_3a/1x1
I0706 22:19:44.819787  4209 net.cpp:148] Top shape: 10 64 28 28 (501760)
I0706 22:19:44.819790  4209 net.cpp:156] Memory required for data: 206725120
I0706 22:19:44.819815  4209 layer_factory.hpp:77] Creating layer inception_3a/relu_1x1
I0706 22:19:44.819824  4209 net.cpp:91] Creating Layer inception_3a/relu_1x1
I0706 22:19:44.819829  4209 net.cpp:425] inception_3a/relu_1x1 <- inception_3a/1x1
I0706 22:19:44.819836  4209 net.cpp:386] inception_3a/relu_1x1 -> inception_3a/1x1 (in-place)
I0706 22:19:44.820068  4209 net.cpp:141] Setting up inception_3a/relu_1x1
I0706 22:19:44.820078  4209 net.cpp:148] Top shape: 10 64 28 28 (501760)
I0706 22:19:44.820083  4209 net.cpp:156] Memory required for data: 208732160
I0706 22:19:44.820087  4209 layer_factory.hpp:77] Creating layer inception_3a/3x3_reduce
I0706 22:19:44.820101  4209 net.cpp:91] Creating Layer inception_3a/3x3_reduce
I0706 22:19:44.820107  4209 net.cpp:425] inception_3a/3x3_reduce <- pool2/3x3_s2_pool2/3x3_s2_0_split_1
I0706 22:19:44.820116  4209 net.cpp:399] inception_3a/3x3_reduce -> inception_3a/3x3_reduce
I0706 22:19:44.823084  4209 net.cpp:141] Setting up inception_3a/3x3_reduce
I0706 22:19:44.823101  4209 net.cpp:148] Top shape: 10 96 28 28 (752640)
I0706 22:19:44.823106  4209 net.cpp:156] Memory required for data: 211742720
I0706 22:19:44.823132  4209 layer_factory.hpp:77] Creating layer inception_3a/relu_3x3_reduce
I0706 22:19:44.823143  4209 net.cpp:91] Creating Layer inception_3a/relu_3x3_reduce
I0706 22:19:44.823148  4209 net.cpp:425] inception_3a/relu_3x3_reduce <- inception_3a/3x3_reduce
I0706 22:19:44.823156  4209 net.cpp:386] inception_3a/relu_3x3_reduce -> inception_3a/3x3_reduce (in-place)
I0706 22:19:44.823370  4209 net.cpp:141] Setting up inception_3a/relu_3x3_reduce
I0706 22:19:44.823381  4209 net.cpp:148] Top shape: 10 96 28 28 (752640)
I0706 22:19:44.823385  4209 net.cpp:156] Memory required for data: 214753280
I0706 22:19:44.823390  4209 layer_factory.hpp:77] Creating layer inception_3a/3x3
I0706 22:19:44.823407  4209 net.cpp:91] Creating Layer inception_3a/3x3
I0706 22:19:44.823413  4209 net.cpp:425] inception_3a/3x3 <- inception_3a/3x3_reduce
I0706 22:19:44.823421  4209 net.cpp:399] inception_3a/3x3 -> inception_3a/3x3
I0706 22:19:44.826102  4209 net.cpp:141] Setting up inception_3a/3x3
I0706 22:19:44.826117  4209 net.cpp:148] Top shape: 10 128 28 28 (1003520)
I0706 22:19:44.826122  4209 net.cpp:156] Memory required for data: 218767360
I0706 22:19:44.826143  4209 layer_factory.hpp:77] Creating layer inception_3a/relu_3x3
I0706 22:19:44.826153  4209 net.cpp:91] Creating Layer inception_3a/relu_3x3
I0706 22:19:44.826159  4209 net.cpp:425] inception_3a/relu_3x3 <- inception_3a/3x3
I0706 22:19:44.826165  4209 net.cpp:386] inception_3a/relu_3x3 -> inception_3a/3x3 (in-place)
I0706 22:19:44.826858  4209 net.cpp:141] Setting up inception_3a/relu_3x3
I0706 22:19:44.826872  4209 net.cpp:148] Top shape: 10 128 28 28 (1003520)
I0706 22:19:44.826877  4209 net.cpp:156] Memory required for data: 222781440
I0706 22:19:44.826882  4209 layer_factory.hpp:77] Creating layer inception_3a/5x5_reduce
I0706 22:19:44.826897  4209 net.cpp:91] Creating Layer inception_3a/5x5_reduce
I0706 22:19:44.826903  4209 net.cpp:425] inception_3a/5x5_reduce <- pool2/3x3_s2_pool2/3x3_s2_0_split_2
I0706 22:19:44.826918  4209 net.cpp:399] inception_3a/5x5_reduce -> inception_3a/5x5_reduce
I0706 22:19:44.828820  4209 net.cpp:141] Setting up inception_3a/5x5_reduce
I0706 22:19:44.828835  4209 net.cpp:148] Top shape: 10 16 28 28 (125440)
I0706 22:19:44.828840  4209 net.cpp:156] Memory required for data: 223283200
I0706 22:19:44.828861  4209 layer_factory.hpp:77] Creating layer inception_3a/relu_5x5_reduce
I0706 22:19:44.828869  4209 net.cpp:91] Creating Layer inception_3a/relu_5x5_reduce
I0706 22:19:44.828874  4209 net.cpp:425] inception_3a/relu_5x5_reduce <- inception_3a/5x5_reduce
I0706 22:19:44.828886  4209 net.cpp:386] inception_3a/relu_5x5_reduce -> inception_3a/5x5_reduce (in-place)
I0706 22:19:44.829138  4209 net.cpp:141] Setting up inception_3a/relu_5x5_reduce
I0706 22:19:44.829150  4209 net.cpp:148] Top shape: 10 16 28 28 (125440)
I0706 22:19:44.829155  4209 net.cpp:156] Memory required for data: 223784960
I0706 22:19:44.829160  4209 layer_factory.hpp:77] Creating layer inception_3a/5x5
I0706 22:19:44.829175  4209 net.cpp:91] Creating Layer inception_3a/5x5
I0706 22:19:44.829180  4209 net.cpp:425] inception_3a/5x5 <- inception_3a/5x5_reduce
I0706 22:19:44.829190  4209 net.cpp:399] inception_3a/5x5 -> inception_3a/5x5
I0706 22:19:44.832275  4209 net.cpp:141] Setting up inception_3a/5x5
I0706 22:19:44.832293  4209 net.cpp:148] Top shape: 10 32 28 28 (250880)
I0706 22:19:44.832298  4209 net.cpp:156] Memory required for data: 224788480
I0706 22:19:44.832319  4209 layer_factory.hpp:77] Creating layer inception_3a/relu_5x5
I0706 22:19:44.832326  4209 net.cpp:91] Creating Layer inception_3a/relu_5x5
I0706 22:19:44.832331  4209 net.cpp:425] inception_3a/relu_5x5 <- inception_3a/5x5
I0706 22:19:44.832341  4209 net.cpp:386] inception_3a/relu_5x5 -> inception_3a/5x5 (in-place)
I0706 22:19:44.832564  4209 net.cpp:141] Setting up inception_3a/relu_5x5
I0706 22:19:44.832581  4209 net.cpp:148] Top shape: 10 32 28 28 (250880)
I0706 22:19:44.832584  4209 net.cpp:156] Memory required for data: 225792000
I0706 22:19:44.832588  4209 layer_factory.hpp:77] Creating layer inception_3a/pool
I0706 22:19:44.832597  4209 net.cpp:91] Creating Layer inception_3a/pool
I0706 22:19:44.832602  4209 net.cpp:425] inception_3a/pool <- pool2/3x3_s2_pool2/3x3_s2_0_split_3
I0706 22:19:44.832608  4209 net.cpp:399] inception_3a/pool -> inception_3a/pool
I0706 22:19:44.832664  4209 net.cpp:141] Setting up inception_3a/pool
I0706 22:19:44.832674  4209 net.cpp:148] Top shape: 10 192 28 28 (1505280)
I0706 22:19:44.832677  4209 net.cpp:156] Memory required for data: 231813120
I0706 22:19:44.832681  4209 layer_factory.hpp:77] Creating layer inception_3a/pool_proj
I0706 22:19:44.832695  4209 net.cpp:91] Creating Layer inception_3a/pool_proj
I0706 22:19:44.832700  4209 net.cpp:425] inception_3a/pool_proj <- inception_3a/pool
I0706 22:19:44.832710  4209 net.cpp:399] inception_3a/pool_proj -> inception_3a/pool_proj
I0706 22:19:44.834583  4209 net.cpp:141] Setting up inception_3a/pool_proj
I0706 22:19:44.834599  4209 net.cpp:148] Top shape: 10 32 28 28 (250880)
I0706 22:19:44.834604  4209 net.cpp:156] Memory required for data: 232816640
I0706 22:19:44.834632  4209 layer_factory.hpp:77] Creating layer inception_3a/relu_pool_proj
I0706 22:19:44.834642  4209 net.cpp:91] Creating Layer inception_3a/relu_pool_proj
I0706 22:19:44.834648  4209 net.cpp:425] inception_3a/relu_pool_proj <- inception_3a/pool_proj
I0706 22:19:44.834655  4209 net.cpp:386] inception_3a/relu_pool_proj -> inception_3a/pool_proj (in-place)
I0706 22:19:44.835361  4209 net.cpp:141] Setting up inception_3a/relu_pool_proj
I0706 22:19:44.835376  4209 net.cpp:148] Top shape: 10 32 28 28 (250880)
I0706 22:19:44.835381  4209 net.cpp:156] Memory required for data: 233820160
I0706 22:19:44.835386  4209 layer_factory.hpp:77] Creating layer inception_3a/output
I0706 22:19:44.835403  4209 net.cpp:91] Creating Layer inception_3a/output
I0706 22:19:44.835408  4209 net.cpp:425] inception_3a/output <- inception_3a/1x1
I0706 22:19:44.835414  4209 net.cpp:425] inception_3a/output <- inception_3a/3x3
I0706 22:19:44.835419  4209 net.cpp:425] inception_3a/output <- inception_3a/5x5
I0706 22:19:44.835424  4209 net.cpp:425] inception_3a/output <- inception_3a/pool_proj
I0706 22:19:44.835430  4209 net.cpp:399] inception_3a/output -> inception_3a/output
I0706 22:19:44.835472  4209 net.cpp:141] Setting up inception_3a/output
I0706 22:19:44.835482  4209 net.cpp:148] Top shape: 10 256 28 28 (2007040)
I0706 22:19:44.835486  4209 net.cpp:156] Memory required for data: 241848320
I0706 22:19:44.835490  4209 layer_factory.hpp:77] Creating layer inception_3a/output_inception_3a/output_0_split
I0706 22:19:44.835500  4209 net.cpp:91] Creating Layer inception_3a/output_inception_3a/output_0_split
I0706 22:19:44.835505  4209 net.cpp:425] inception_3a/output_inception_3a/output_0_split <- inception_3a/output
I0706 22:19:44.835512  4209 net.cpp:399] inception_3a/output_inception_3a/output_0_split -> inception_3a/output_inception_3a/output_0_split_0
I0706 22:19:44.835521  4209 net.cpp:399] inception_3a/output_inception_3a/output_0_split -> inception_3a/output_inception_3a/output_0_split_1
I0706 22:19:44.835530  4209 net.cpp:399] inception_3a/output_inception_3a/output_0_split -> inception_3a/output_inception_3a/output_0_split_2
I0706 22:19:44.835536  4209 net.cpp:399] inception_3a/output_inception_3a/output_0_split -> inception_3a/output_inception_3a/output_0_split_3
I0706 22:19:44.835609  4209 net.cpp:141] Setting up inception_3a/output_inception_3a/output_0_split
I0706 22:19:44.835620  4209 net.cpp:148] Top shape: 10 256 28 28 (2007040)
I0706 22:19:44.835625  4209 net.cpp:148] Top shape: 10 256 28 28 (2007040)
I0706 22:19:44.835630  4209 net.cpp:148] Top shape: 10 256 28 28 (2007040)
I0706 22:19:44.835649  4209 net.cpp:148] Top shape: 10 256 28 28 (2007040)
I0706 22:19:44.835652  4209 net.cpp:156] Memory required for data: 273960960
I0706 22:19:44.835656  4209 layer_factory.hpp:77] Creating layer inception_3b/1x1
I0706 22:19:44.835667  4209 net.cpp:91] Creating Layer inception_3b/1x1
I0706 22:19:44.835672  4209 net.cpp:425] inception_3b/1x1 <- inception_3a/output_inception_3a/output_0_split_0
I0706 22:19:44.835683  4209 net.cpp:399] inception_3b/1x1 -> inception_3b/1x1
I0706 22:19:44.839056  4209 net.cpp:141] Setting up inception_3b/1x1
I0706 22:19:44.839097  4209 net.cpp:148] Top shape: 10 128 28 28 (1003520)
I0706 22:19:44.839105  4209 net.cpp:156] Memory required for data: 277975040
I0706 22:19:44.839119  4209 layer_factory.hpp:77] Creating layer inception_3b/relu_1x1
I0706 22:19:44.839143  4209 net.cpp:91] Creating Layer inception_3b/relu_1x1
I0706 22:19:44.839153  4209 net.cpp:425] inception_3b/relu_1x1 <- inception_3b/1x1
I0706 22:19:44.839169  4209 net.cpp:386] inception_3b/relu_1x1 -> inception_3b/1x1 (in-place)
I0706 22:19:44.839531  4209 net.cpp:141] Setting up inception_3b/relu_1x1
I0706 22:19:44.839551  4209 net.cpp:148] Top shape: 10 128 28 28 (1003520)
I0706 22:19:44.839558  4209 net.cpp:156] Memory required for data: 281989120
I0706 22:19:44.839566  4209 layer_factory.hpp:77] Creating layer inception_3b/3x3_reduce
I0706 22:19:44.839591  4209 net.cpp:91] Creating Layer inception_3b/3x3_reduce
I0706 22:19:44.839601  4209 net.cpp:425] inception_3b/3x3_reduce <- inception_3a/output_inception_3a/output_0_split_1
I0706 22:19:44.839614  4209 net.cpp:399] inception_3b/3x3_reduce -> inception_3b/3x3_reduce
I0706 22:19:44.842793  4209 net.cpp:141] Setting up inception_3b/3x3_reduce
I0706 22:19:44.842818  4209 net.cpp:148] Top shape: 10 128 28 28 (1003520)
I0706 22:19:44.842826  4209 net.cpp:156] Memory required for data: 286003200
I0706 22:19:44.842841  4209 layer_factory.hpp:77] Creating layer inception_3b/relu_3x3_reduce
I0706 22:19:44.842857  4209 net.cpp:91] Creating Layer inception_3b/relu_3x3_reduce
I0706 22:19:44.842869  4209 net.cpp:425] inception_3b/relu_3x3_reduce <- inception_3b/3x3_reduce
I0706 22:19:44.842886  4209 net.cpp:386] inception_3b/relu_3x3_reduce -> inception_3b/3x3_reduce (in-place)
I0706 22:19:44.843243  4209 net.cpp:141] Setting up inception_3b/relu_3x3_reduce
I0706 22:19:44.843262  4209 net.cpp:148] Top shape: 10 128 28 28 (1003520)
I0706 22:19:44.843271  4209 net.cpp:156] Memory required for data: 290017280
I0706 22:19:44.843278  4209 layer_factory.hpp:77] Creating layer inception_3b/3x3
I0706 22:19:44.843299  4209 net.cpp:91] Creating Layer inception_3b/3x3
I0706 22:19:44.843309  4209 net.cpp:425] inception_3b/3x3 <- inception_3b/3x3_reduce
I0706 22:19:44.843322  4209 net.cpp:399] inception_3b/3x3 -> inception_3b/3x3
I0706 22:19:44.848280  4209 net.cpp:141] Setting up inception_3b/3x3
I0706 22:19:44.848299  4209 net.cpp:148] Top shape: 10 192 28 28 (1505280)
I0706 22:19:44.848304  4209 net.cpp:156] Memory required for data: 296038400
I0706 22:19:44.848325  4209 layer_factory.hpp:77] Creating layer inception_3b/relu_3x3
I0706 22:19:44.848340  4209 net.cpp:91] Creating Layer inception_3b/relu_3x3
I0706 22:19:44.848345  4209 net.cpp:425] inception_3b/relu_3x3 <- inception_3b/3x3
I0706 22:19:44.848352  4209 net.cpp:386] inception_3b/relu_3x3 -> inception_3b/3x3 (in-place)
I0706 22:19:44.849025  4209 net.cpp:141] Setting up inception_3b/relu_3x3
I0706 22:19:44.849042  4209 net.cpp:148] Top shape: 10 192 28 28 (1505280)
I0706 22:19:44.849047  4209 net.cpp:156] Memory required for data: 302059520
I0706 22:19:44.849052  4209 layer_factory.hpp:77] Creating layer inception_3b/5x5_reduce
I0706 22:19:44.849076  4209 net.cpp:91] Creating Layer inception_3b/5x5_reduce
I0706 22:19:44.849082  4209 net.cpp:425] inception_3b/5x5_reduce <- inception_3a/output_inception_3a/output_0_split_2
I0706 22:19:44.849094  4209 net.cpp:399] inception_3b/5x5_reduce -> inception_3b/5x5_reduce
I0706 22:19:44.851145  4209 net.cpp:141] Setting up inception_3b/5x5_reduce
I0706 22:19:44.851161  4209 net.cpp:148] Top shape: 10 32 28 28 (250880)
I0706 22:19:44.851166  4209 net.cpp:156] Memory required for data: 303063040
I0706 22:19:44.851187  4209 layer_factory.hpp:77] Creating layer inception_3b/relu_5x5_reduce
I0706 22:19:44.851196  4209 net.cpp:91] Creating Layer inception_3b/relu_5x5_reduce
I0706 22:19:44.851202  4209 net.cpp:425] inception_3b/relu_5x5_reduce <- inception_3b/5x5_reduce
I0706 22:19:44.851212  4209 net.cpp:386] inception_3b/relu_5x5_reduce -> inception_3b/5x5_reduce (in-place)
I0706 22:19:44.851430  4209 net.cpp:141] Setting up inception_3b/relu_5x5_reduce
I0706 22:19:44.851444  4209 net.cpp:148] Top shape: 10 32 28 28 (250880)
I0706 22:19:44.851447  4209 net.cpp:156] Memory required for data: 304066560
I0706 22:19:44.851451  4209 layer_factory.hpp:77] Creating layer inception_3b/5x5
I0706 22:19:44.851465  4209 net.cpp:91] Creating Layer inception_3b/5x5
I0706 22:19:44.851471  4209 net.cpp:425] inception_3b/5x5 <- inception_3b/5x5_reduce
I0706 22:19:44.851480  4209 net.cpp:399] inception_3b/5x5 -> inception_3b/5x5
I0706 22:19:44.854837  4209 net.cpp:141] Setting up inception_3b/5x5
I0706 22:19:44.854854  4209 net.cpp:148] Top shape: 10 96 28 28 (752640)
I0706 22:19:44.854859  4209 net.cpp:156] Memory required for data: 307077120
I0706 22:19:44.854868  4209 layer_factory.hpp:77] Creating layer inception_3b/relu_5x5
I0706 22:19:44.854879  4209 net.cpp:91] Creating Layer inception_3b/relu_5x5
I0706 22:19:44.854885  4209 net.cpp:425] inception_3b/relu_5x5 <- inception_3b/5x5
I0706 22:19:44.854892  4209 net.cpp:386] inception_3b/relu_5x5 -> inception_3b/5x5 (in-place)
I0706 22:19:44.855134  4209 net.cpp:141] Setting up inception_3b/relu_5x5
I0706 22:19:44.855149  4209 net.cpp:148] Top shape: 10 96 28 28 (752640)
I0706 22:19:44.855154  4209 net.cpp:156] Memory required for data: 310087680
I0706 22:19:44.855159  4209 layer_factory.hpp:77] Creating layer inception_3b/pool
I0706 22:19:44.855167  4209 net.cpp:91] Creating Layer inception_3b/pool
I0706 22:19:44.855172  4209 net.cpp:425] inception_3b/pool <- inception_3a/output_inception_3a/output_0_split_3
I0706 22:19:44.855182  4209 net.cpp:399] inception_3b/pool -> inception_3b/pool
I0706 22:19:44.855243  4209 net.cpp:141] Setting up inception_3b/pool
I0706 22:19:44.855254  4209 net.cpp:148] Top shape: 10 256 28 28 (2007040)
I0706 22:19:44.855258  4209 net.cpp:156] Memory required for data: 318115840
I0706 22:19:44.855263  4209 layer_factory.hpp:77] Creating layer inception_3b/pool_proj
I0706 22:19:44.855274  4209 net.cpp:91] Creating Layer inception_3b/pool_proj
I0706 22:19:44.855279  4209 net.cpp:425] inception_3b/pool_proj <- inception_3b/pool
I0706 22:19:44.855290  4209 net.cpp:399] inception_3b/pool_proj -> inception_3b/pool_proj
I0706 22:19:44.857324  4209 net.cpp:141] Setting up inception_3b/pool_proj
I0706 22:19:44.857339  4209 net.cpp:148] Top shape: 10 64 28 28 (501760)
I0706 22:19:44.857344  4209 net.cpp:156] Memory required for data: 320122880
I0706 22:19:44.857365  4209 layer_factory.hpp:77] Creating layer inception_3b/relu_pool_proj
I0706 22:19:44.857374  4209 net.cpp:91] Creating Layer inception_3b/relu_pool_proj
I0706 22:19:44.857379  4209 net.cpp:425] inception_3b/relu_pool_proj <- inception_3b/pool_proj
I0706 22:19:44.857386  4209 net.cpp:386] inception_3b/relu_pool_proj -> inception_3b/pool_proj (in-place)
I0706 22:19:44.858060  4209 net.cpp:141] Setting up inception_3b/relu_pool_proj
I0706 22:19:44.858088  4209 net.cpp:148] Top shape: 10 64 28 28 (501760)
I0706 22:19:44.858093  4209 net.cpp:156] Memory required for data: 322129920
I0706 22:19:44.858096  4209 layer_factory.hpp:77] Creating layer inception_3b/output
I0706 22:19:44.858104  4209 net.cpp:91] Creating Layer inception_3b/output
I0706 22:19:44.858108  4209 net.cpp:425] inception_3b/output <- inception_3b/1x1
I0706 22:19:44.858114  4209 net.cpp:425] inception_3b/output <- inception_3b/3x3
I0706 22:19:44.858119  4209 net.cpp:425] inception_3b/output <- inception_3b/5x5
I0706 22:19:44.858124  4209 net.cpp:425] inception_3b/output <- inception_3b/pool_proj
I0706 22:19:44.858146  4209 net.cpp:399] inception_3b/output -> inception_3b/output
I0706 22:19:44.858187  4209 net.cpp:141] Setting up inception_3b/output
I0706 22:19:44.858198  4209 net.cpp:148] Top shape: 10 480 28 28 (3763200)
I0706 22:19:44.858202  4209 net.cpp:156] Memory required for data: 337182720
I0706 22:19:44.858207  4209 layer_factory.hpp:77] Creating layer pool3/3x3_s2
I0706 22:19:44.858214  4209 net.cpp:91] Creating Layer pool3/3x3_s2
I0706 22:19:44.858219  4209 net.cpp:425] pool3/3x3_s2 <- inception_3b/output
I0706 22:19:44.858227  4209 net.cpp:399] pool3/3x3_s2 -> pool3/3x3_s2
I0706 22:19:44.858285  4209 net.cpp:141] Setting up pool3/3x3_s2
I0706 22:19:44.858294  4209 net.cpp:148] Top shape: 10 480 14 14 (940800)
I0706 22:19:44.858299  4209 net.cpp:156] Memory required for data: 340945920
I0706 22:19:44.858302  4209 layer_factory.hpp:77] Creating layer pool3/3x3_s2_pool3/3x3_s2_0_split
I0706 22:19:44.858314  4209 net.cpp:91] Creating Layer pool3/3x3_s2_pool3/3x3_s2_0_split
I0706 22:19:44.858319  4209 net.cpp:425] pool3/3x3_s2_pool3/3x3_s2_0_split <- pool3/3x3_s2
I0706 22:19:44.858325  4209 net.cpp:399] pool3/3x3_s2_pool3/3x3_s2_0_split -> pool3/3x3_s2_pool3/3x3_s2_0_split_0
I0706 22:19:44.858335  4209 net.cpp:399] pool3/3x3_s2_pool3/3x3_s2_0_split -> pool3/3x3_s2_pool3/3x3_s2_0_split_1
I0706 22:19:44.858345  4209 net.cpp:399] pool3/3x3_s2_pool3/3x3_s2_0_split -> pool3/3x3_s2_pool3/3x3_s2_0_split_2
I0706 22:19:44.858351  4209 net.cpp:399] pool3/3x3_s2_pool3/3x3_s2_0_split -> pool3/3x3_s2_pool3/3x3_s2_0_split_3
I0706 22:19:44.858428  4209 net.cpp:141] Setting up pool3/3x3_s2_pool3/3x3_s2_0_split
I0706 22:19:44.858438  4209 net.cpp:148] Top shape: 10 480 14 14 (940800)
I0706 22:19:44.858443  4209 net.cpp:148] Top shape: 10 480 14 14 (940800)
I0706 22:19:44.858460  4209 net.cpp:148] Top shape: 10 480 14 14 (940800)
I0706 22:19:44.858465  4209 net.cpp:148] Top shape: 10 480 14 14 (940800)
I0706 22:19:44.858469  4209 net.cpp:156] Memory required for data: 355998720
I0706 22:19:44.858474  4209 layer_factory.hpp:77] Creating layer inception_4a/1x1
I0706 22:19:44.858485  4209 net.cpp:91] Creating Layer inception_4a/1x1
I0706 22:19:44.858491  4209 net.cpp:425] inception_4a/1x1 <- pool3/3x3_s2_pool3/3x3_s2_0_split_0
I0706 22:19:44.858501  4209 net.cpp:399] inception_4a/1x1 -> inception_4a/1x1
I0706 22:19:44.861668  4209 net.cpp:141] Setting up inception_4a/1x1
I0706 22:19:44.861685  4209 net.cpp:148] Top shape: 10 192 14 14 (376320)
I0706 22:19:44.861690  4209 net.cpp:156] Memory required for data: 357504000
I0706 22:19:44.861711  4209 layer_factory.hpp:77] Creating layer inception_4a/relu_1x1
I0706 22:19:44.861722  4209 net.cpp:91] Creating Layer inception_4a/relu_1x1
I0706 22:19:44.861728  4209 net.cpp:425] inception_4a/relu_1x1 <- inception_4a/1x1
I0706 22:19:44.861737  4209 net.cpp:386] inception_4a/relu_1x1 -> inception_4a/1x1 (in-place)
I0706 22:19:44.861959  4209 net.cpp:141] Setting up inception_4a/relu_1x1
I0706 22:19:44.861970  4209 net.cpp:148] Top shape: 10 192 14 14 (376320)
I0706 22:19:44.861974  4209 net.cpp:156] Memory required for data: 359009280
I0706 22:19:44.861979  4209 layer_factory.hpp:77] Creating layer inception_4a/3x3_reduce
I0706 22:19:44.861992  4209 net.cpp:91] Creating Layer inception_4a/3x3_reduce
I0706 22:19:44.861999  4209 net.cpp:425] inception_4a/3x3_reduce <- pool3/3x3_s2_pool3/3x3_s2_0_split_1
I0706 22:19:44.862009  4209 net.cpp:399] inception_4a/3x3_reduce -> inception_4a/3x3_reduce
I0706 22:19:44.864255  4209 net.cpp:141] Setting up inception_4a/3x3_reduce
I0706 22:19:44.864270  4209 net.cpp:148] Top shape: 10 96 14 14 (188160)
I0706 22:19:44.864275  4209 net.cpp:156] Memory required for data: 359761920
I0706 22:19:44.864310  4209 layer_factory.hpp:77] Creating layer inception_4a/relu_3x3_reduce
I0706 22:19:44.864320  4209 net.cpp:91] Creating Layer inception_4a/relu_3x3_reduce
I0706 22:19:44.864325  4209 net.cpp:425] inception_4a/relu_3x3_reduce <- inception_4a/3x3_reduce
I0706 22:19:44.864331  4209 net.cpp:386] inception_4a/relu_3x3_reduce -> inception_4a/3x3_reduce (in-place)
I0706 22:19:44.864549  4209 net.cpp:141] Setting up inception_4a/relu_3x3_reduce
I0706 22:19:44.864559  4209 net.cpp:148] Top shape: 10 96 14 14 (188160)
I0706 22:19:44.864563  4209 net.cpp:156] Memory required for data: 360514560
I0706 22:19:44.864568  4209 layer_factory.hpp:77] Creating layer inception_4a/3x3
I0706 22:19:44.864581  4209 net.cpp:91] Creating Layer inception_4a/3x3
I0706 22:19:44.864588  4209 net.cpp:425] inception_4a/3x3 <- inception_4a/3x3_reduce
I0706 22:19:44.864598  4209 net.cpp:399] inception_4a/3x3 -> inception_4a/3x3
I0706 22:19:44.868746  4209 net.cpp:141] Setting up inception_4a/3x3
I0706 22:19:44.868763  4209 net.cpp:148] Top shape: 10 208 14 14 (407680)
I0706 22:19:44.868767  4209 net.cpp:156] Memory required for data: 362145280
I0706 22:19:44.868788  4209 layer_factory.hpp:77] Creating layer inception_4a/relu_3x3
I0706 22:19:44.868798  4209 net.cpp:91] Creating Layer inception_4a/relu_3x3
I0706 22:19:44.868803  4209 net.cpp:425] inception_4a/relu_3x3 <- inception_4a/3x3
I0706 22:19:44.868813  4209 net.cpp:386] inception_4a/relu_3x3 -> inception_4a/3x3 (in-place)
I0706 22:19:44.869479  4209 net.cpp:141] Setting up inception_4a/relu_3x3
I0706 22:19:44.869494  4209 net.cpp:148] Top shape: 10 208 14 14 (407680)
I0706 22:19:44.869499  4209 net.cpp:156] Memory required for data: 363776000
I0706 22:19:44.869503  4209 layer_factory.hpp:77] Creating layer inception_4a/5x5_reduce
I0706 22:19:44.869518  4209 net.cpp:91] Creating Layer inception_4a/5x5_reduce
I0706 22:19:44.869524  4209 net.cpp:425] inception_4a/5x5_reduce <- pool3/3x3_s2_pool3/3x3_s2_0_split_2
I0706 22:19:44.869534  4209 net.cpp:399] inception_4a/5x5_reduce -> inception_4a/5x5_reduce
I0706 22:19:44.871549  4209 net.cpp:141] Setting up inception_4a/5x5_reduce
I0706 22:19:44.871564  4209 net.cpp:148] Top shape: 10 16 14 14 (31360)
I0706 22:19:44.871569  4209 net.cpp:156] Memory required for data: 363901440
I0706 22:19:44.871590  4209 layer_factory.hpp:77] Creating layer inception_4a/relu_5x5_reduce
I0706 22:19:44.871598  4209 net.cpp:91] Creating Layer inception_4a/relu_5x5_reduce
I0706 22:19:44.871604  4209 net.cpp:425] inception_4a/relu_5x5_reduce <- inception_4a/5x5_reduce
I0706 22:19:44.871614  4209 net.cpp:386] inception_4a/relu_5x5_reduce -> inception_4a/5x5_reduce (in-place)
I0706 22:19:44.871832  4209 net.cpp:141] Setting up inception_4a/relu_5x5_reduce
I0706 22:19:44.871845  4209 net.cpp:148] Top shape: 10 16 14 14 (31360)
I0706 22:19:44.871850  4209 net.cpp:156] Memory required for data: 364026880
I0706 22:19:44.871855  4209 layer_factory.hpp:77] Creating layer inception_4a/5x5
I0706 22:19:44.871868  4209 net.cpp:91] Creating Layer inception_4a/5x5
I0706 22:19:44.871873  4209 net.cpp:425] inception_4a/5x5 <- inception_4a/5x5_reduce
I0706 22:19:44.871881  4209 net.cpp:399] inception_4a/5x5 -> inception_4a/5x5
I0706 22:19:44.873881  4209 net.cpp:141] Setting up inception_4a/5x5
I0706 22:19:44.873898  4209 net.cpp:148] Top shape: 10 48 14 14 (94080)
I0706 22:19:44.873901  4209 net.cpp:156] Memory required for data: 364403200
I0706 22:19:44.873924  4209 layer_factory.hpp:77] Creating layer inception_4a/relu_5x5
I0706 22:19:44.873934  4209 net.cpp:91] Creating Layer inception_4a/relu_5x5
I0706 22:19:44.873940  4209 net.cpp:425] inception_4a/relu_5x5 <- inception_4a/5x5
I0706 22:19:44.873946  4209 net.cpp:386] inception_4a/relu_5x5 -> inception_4a/5x5 (in-place)
I0706 22:19:44.874169  4209 net.cpp:141] Setting up inception_4a/relu_5x5
I0706 22:19:44.874179  4209 net.cpp:148] Top shape: 10 48 14 14 (94080)
I0706 22:19:44.874183  4209 net.cpp:156] Memory required for data: 364779520
I0706 22:19:44.874188  4209 layer_factory.hpp:77] Creating layer inception_4a/pool
I0706 22:19:44.874197  4209 net.cpp:91] Creating Layer inception_4a/pool
I0706 22:19:44.874202  4209 net.cpp:425] inception_4a/pool <- pool3/3x3_s2_pool3/3x3_s2_0_split_3
I0706 22:19:44.874213  4209 net.cpp:399] inception_4a/pool -> inception_4a/pool
I0706 22:19:44.874272  4209 net.cpp:141] Setting up inception_4a/pool
I0706 22:19:44.874284  4209 net.cpp:148] Top shape: 10 480 14 14 (940800)
I0706 22:19:44.874287  4209 net.cpp:156] Memory required for data: 368542720
I0706 22:19:44.874291  4209 layer_factory.hpp:77] Creating layer inception_4a/pool_proj
I0706 22:19:44.874301  4209 net.cpp:91] Creating Layer inception_4a/pool_proj
I0706 22:19:44.874306  4209 net.cpp:425] inception_4a/pool_proj <- inception_4a/pool
I0706 22:19:44.874316  4209 net.cpp:399] inception_4a/pool_proj -> inception_4a/pool_proj
I0706 22:19:44.876935  4209 net.cpp:141] Setting up inception_4a/pool_proj
I0706 22:19:44.876953  4209 net.cpp:148] Top shape: 10 64 14 14 (125440)
I0706 22:19:44.876958  4209 net.cpp:156] Memory required for data: 369044480
I0706 22:19:44.876981  4209 layer_factory.hpp:77] Creating layer inception_4a/relu_pool_proj
I0706 22:19:44.876992  4209 net.cpp:91] Creating Layer inception_4a/relu_pool_proj
I0706 22:19:44.876998  4209 net.cpp:425] inception_4a/relu_pool_proj <- inception_4a/pool_proj
I0706 22:19:44.877005  4209 net.cpp:386] inception_4a/relu_pool_proj -> inception_4a/pool_proj (in-place)
I0706 22:19:44.877732  4209 net.cpp:141] Setting up inception_4a/relu_pool_proj
I0706 22:19:44.877748  4209 net.cpp:148] Top shape: 10 64 14 14 (125440)
I0706 22:19:44.877753  4209 net.cpp:156] Memory required for data: 369546240
I0706 22:19:44.877758  4209 layer_factory.hpp:77] Creating layer inception_4a/output
I0706 22:19:44.877771  4209 net.cpp:91] Creating Layer inception_4a/output
I0706 22:19:44.877777  4209 net.cpp:425] inception_4a/output <- inception_4a/1x1
I0706 22:19:44.877784  4209 net.cpp:425] inception_4a/output <- inception_4a/3x3
I0706 22:19:44.877789  4209 net.cpp:425] inception_4a/output <- inception_4a/5x5
I0706 22:19:44.877794  4209 net.cpp:425] inception_4a/output <- inception_4a/pool_proj
I0706 22:19:44.877800  4209 net.cpp:399] inception_4a/output -> inception_4a/output
I0706 22:19:44.877845  4209 net.cpp:141] Setting up inception_4a/output
I0706 22:19:44.877854  4209 net.cpp:148] Top shape: 10 512 14 14 (1003520)
I0706 22:19:44.877858  4209 net.cpp:156] Memory required for data: 373560320
I0706 22:19:44.877862  4209 layer_factory.hpp:77] Creating layer inception_4a/output_inception_4a/output_0_split
I0706 22:19:44.877871  4209 net.cpp:91] Creating Layer inception_4a/output_inception_4a/output_0_split
I0706 22:19:44.877874  4209 net.cpp:425] inception_4a/output_inception_4a/output_0_split <- inception_4a/output
I0706 22:19:44.877885  4209 net.cpp:399] inception_4a/output_inception_4a/output_0_split -> inception_4a/output_inception_4a/output_0_split_0
I0706 22:19:44.877894  4209 net.cpp:399] inception_4a/output_inception_4a/output_0_split -> inception_4a/output_inception_4a/output_0_split_1
I0706 22:19:44.877902  4209 net.cpp:399] inception_4a/output_inception_4a/output_0_split -> inception_4a/output_inception_4a/output_0_split_2
I0706 22:19:44.877912  4209 net.cpp:399] inception_4a/output_inception_4a/output_0_split -> inception_4a/output_inception_4a/output_0_split_3
I0706 22:19:44.878000  4209 net.cpp:141] Setting up inception_4a/output_inception_4a/output_0_split
I0706 22:19:44.878008  4209 net.cpp:148] Top shape: 10 512 14 14 (1003520)
I0706 22:19:44.878013  4209 net.cpp:148] Top shape: 10 512 14 14 (1003520)
I0706 22:19:44.878018  4209 net.cpp:148] Top shape: 10 512 14 14 (1003520)
I0706 22:19:44.878023  4209 net.cpp:148] Top shape: 10 512 14 14 (1003520)
I0706 22:19:44.878027  4209 net.cpp:156] Memory required for data: 389616640
I0706 22:19:44.878031  4209 layer_factory.hpp:77] Creating layer inception_4b/1x1
I0706 22:19:44.878044  4209 net.cpp:91] Creating Layer inception_4b/1x1
I0706 22:19:44.878051  4209 net.cpp:425] inception_4b/1x1 <- inception_4a/output_inception_4a/output_0_split_0
I0706 22:19:44.878058  4209 net.cpp:399] inception_4b/1x1 -> inception_4b/1x1
I0706 22:19:44.880728  4209 net.cpp:141] Setting up inception_4b/1x1
I0706 22:19:44.880758  4209 net.cpp:148] Top shape: 10 160 14 14 (313600)
I0706 22:19:44.880764  4209 net.cpp:156] Memory required for data: 390871040
I0706 22:19:44.880772  4209 layer_factory.hpp:77] Creating layer inception_4b/relu_1x1
I0706 22:19:44.880781  4209 net.cpp:91] Creating Layer inception_4b/relu_1x1
I0706 22:19:44.880787  4209 net.cpp:425] inception_4b/relu_1x1 <- inception_4b/1x1
I0706 22:19:44.880795  4209 net.cpp:386] inception_4b/relu_1x1 -> inception_4b/1x1 (in-place)
I0706 22:19:44.881041  4209 net.cpp:141] Setting up inception_4b/relu_1x1
I0706 22:19:44.881052  4209 net.cpp:148] Top shape: 10 160 14 14 (313600)
I0706 22:19:44.881057  4209 net.cpp:156] Memory required for data: 392125440
I0706 22:19:44.881062  4209 layer_factory.hpp:77] Creating layer inception_4b/3x3_reduce
I0706 22:19:44.881077  4209 net.cpp:91] Creating Layer inception_4b/3x3_reduce
I0706 22:19:44.881081  4209 net.cpp:425] inception_4b/3x3_reduce <- inception_4a/output_inception_4a/output_0_split_1
I0706 22:19:44.881093  4209 net.cpp:399] inception_4b/3x3_reduce -> inception_4b/3x3_reduce
I0706 22:19:44.883522  4209 net.cpp:141] Setting up inception_4b/3x3_reduce
I0706 22:19:44.883540  4209 net.cpp:148] Top shape: 10 112 14 14 (219520)
I0706 22:19:44.883558  4209 net.cpp:156] Memory required for data: 393003520
I0706 22:19:44.883566  4209 layer_factory.hpp:77] Creating layer inception_4b/relu_3x3_reduce
I0706 22:19:44.883574  4209 net.cpp:91] Creating Layer inception_4b/relu_3x3_reduce
I0706 22:19:44.883580  4209 net.cpp:425] inception_4b/relu_3x3_reduce <- inception_4b/3x3_reduce
I0706 22:19:44.883586  4209 net.cpp:386] inception_4b/relu_3x3_reduce -> inception_4b/3x3_reduce (in-place)
I0706 22:19:44.883815  4209 net.cpp:141] Setting up inception_4b/relu_3x3_reduce
I0706 22:19:44.883826  4209 net.cpp:148] Top shape: 10 112 14 14 (219520)
I0706 22:19:44.883829  4209 net.cpp:156] Memory required for data: 393881600
I0706 22:19:44.883833  4209 layer_factory.hpp:77] Creating layer inception_4b/3x3
I0706 22:19:44.883847  4209 net.cpp:91] Creating Layer inception_4b/3x3
I0706 22:19:44.883852  4209 net.cpp:425] inception_4b/3x3 <- inception_4b/3x3_reduce
I0706 22:19:44.883863  4209 net.cpp:399] inception_4b/3x3 -> inception_4b/3x3
I0706 22:19:44.888891  4209 net.cpp:141] Setting up inception_4b/3x3
I0706 22:19:44.888907  4209 net.cpp:148] Top shape: 10 224 14 14 (439040)
I0706 22:19:44.888912  4209 net.cpp:156] Memory required for data: 395637760
I0706 22:19:44.888934  4209 layer_factory.hpp:77] Creating layer inception_4b/relu_3x3
I0706 22:19:44.888944  4209 net.cpp:91] Creating Layer inception_4b/relu_3x3
I0706 22:19:44.888950  4209 net.cpp:425] inception_4b/relu_3x3 <- inception_4b/3x3
I0706 22:19:44.888957  4209 net.cpp:386] inception_4b/relu_3x3 -> inception_4b/3x3 (in-place)
I0706 22:19:44.889650  4209 net.cpp:141] Setting up inception_4b/relu_3x3
I0706 22:19:44.889665  4209 net.cpp:148] Top shape: 10 224 14 14 (439040)
I0706 22:19:44.889669  4209 net.cpp:156] Memory required for data: 397393920
I0706 22:19:44.889674  4209 layer_factory.hpp:77] Creating layer inception_4b/5x5_reduce
I0706 22:19:44.889699  4209 net.cpp:91] Creating Layer inception_4b/5x5_reduce
I0706 22:19:44.889706  4209 net.cpp:425] inception_4b/5x5_reduce <- inception_4a/output_inception_4a/output_0_split_2
I0706 22:19:44.889715  4209 net.cpp:399] inception_4b/5x5_reduce -> inception_4b/5x5_reduce
I0706 22:19:44.891867  4209 net.cpp:141] Setting up inception_4b/5x5_reduce
I0706 22:19:44.891885  4209 net.cpp:148] Top shape: 10 24 14 14 (47040)
I0706 22:19:44.891888  4209 net.cpp:156] Memory required for data: 397582080
I0706 22:19:44.891911  4209 layer_factory.hpp:77] Creating layer inception_4b/relu_5x5_reduce
I0706 22:19:44.891921  4209 net.cpp:91] Creating Layer inception_4b/relu_5x5_reduce
I0706 22:19:44.891927  4209 net.cpp:425] inception_4b/relu_5x5_reduce <- inception_4b/5x5_reduce
I0706 22:19:44.891933  4209 net.cpp:386] inception_4b/relu_5x5_reduce -> inception_4b/5x5_reduce (in-place)
I0706 22:19:44.892159  4209 net.cpp:141] Setting up inception_4b/relu_5x5_reduce
I0706 22:19:44.892170  4209 net.cpp:148] Top shape: 10 24 14 14 (47040)
I0706 22:19:44.892174  4209 net.cpp:156] Memory required for data: 397770240
I0706 22:19:44.892179  4209 layer_factory.hpp:77] Creating layer inception_4b/5x5
I0706 22:19:44.892194  4209 net.cpp:91] Creating Layer inception_4b/5x5
I0706 22:19:44.892199  4209 net.cpp:425] inception_4b/5x5 <- inception_4b/5x5_reduce
I0706 22:19:44.892210  4209 net.cpp:399] inception_4b/5x5 -> inception_4b/5x5
I0706 22:19:44.895416  4209 net.cpp:141] Setting up inception_4b/5x5
I0706 22:19:44.895431  4209 net.cpp:148] Top shape: 10 64 14 14 (125440)
I0706 22:19:44.895436  4209 net.cpp:156] Memory required for data: 398272000
I0706 22:19:44.895457  4209 layer_factory.hpp:77] Creating layer inception_4b/relu_5x5
I0706 22:19:44.895468  4209 net.cpp:91] Creating Layer inception_4b/relu_5x5
I0706 22:19:44.895474  4209 net.cpp:425] inception_4b/relu_5x5 <- inception_4b/5x5
I0706 22:19:44.895480  4209 net.cpp:386] inception_4b/relu_5x5 -> inception_4b/5x5 (in-place)
I0706 22:19:44.895709  4209 net.cpp:141] Setting up inception_4b/relu_5x5
I0706 22:19:44.895720  4209 net.cpp:148] Top shape: 10 64 14 14 (125440)
I0706 22:19:44.895723  4209 net.cpp:156] Memory required for data: 398773760
I0706 22:19:44.895728  4209 layer_factory.hpp:77] Creating layer inception_4b/pool
I0706 22:19:44.895736  4209 net.cpp:91] Creating Layer inception_4b/pool
I0706 22:19:44.895742  4209 net.cpp:425] inception_4b/pool <- inception_4a/output_inception_4a/output_0_split_3
I0706 22:19:44.895751  4209 net.cpp:399] inception_4b/pool -> inception_4b/pool
I0706 22:19:44.895814  4209 net.cpp:141] Setting up inception_4b/pool
I0706 22:19:44.895825  4209 net.cpp:148] Top shape: 10 512 14 14 (1003520)
I0706 22:19:44.895829  4209 net.cpp:156] Memory required for data: 402787840
I0706 22:19:44.895833  4209 layer_factory.hpp:77] Creating layer inception_4b/pool_proj
I0706 22:19:44.895845  4209 net.cpp:91] Creating Layer inception_4b/pool_proj
I0706 22:19:44.895850  4209 net.cpp:425] inception_4b/pool_proj <- inception_4b/pool
I0706 22:19:44.895860  4209 net.cpp:399] inception_4b/pool_proj -> inception_4b/pool_proj
I0706 22:19:44.898022  4209 net.cpp:141] Setting up inception_4b/pool_proj
I0706 22:19:44.898038  4209 net.cpp:148] Top shape: 10 64 14 14 (125440)
I0706 22:19:44.898042  4209 net.cpp:156] Memory required for data: 403289600
I0706 22:19:44.898063  4209 layer_factory.hpp:77] Creating layer inception_4b/relu_pool_proj
I0706 22:19:44.898072  4209 net.cpp:91] Creating Layer inception_4b/relu_pool_proj
I0706 22:19:44.898077  4209 net.cpp:425] inception_4b/relu_pool_proj <- inception_4b/pool_proj
I0706 22:19:44.898087  4209 net.cpp:386] inception_4b/relu_pool_proj -> inception_4b/pool_proj (in-place)
I0706 22:19:44.898799  4209 net.cpp:141] Setting up inception_4b/relu_pool_proj
I0706 22:19:44.898814  4209 net.cpp:148] Top shape: 10 64 14 14 (125440)
I0706 22:19:44.898819  4209 net.cpp:156] Memory required for data: 403791360
I0706 22:19:44.898824  4209 layer_factory.hpp:77] Creating layer inception_4b/output
I0706 22:19:44.898851  4209 net.cpp:91] Creating Layer inception_4b/output
I0706 22:19:44.898857  4209 net.cpp:425] inception_4b/output <- inception_4b/1x1
I0706 22:19:44.898864  4209 net.cpp:425] inception_4b/output <- inception_4b/3x3
I0706 22:19:44.898869  4209 net.cpp:425] inception_4b/output <- inception_4b/5x5
I0706 22:19:44.898874  4209 net.cpp:425] inception_4b/output <- inception_4b/pool_proj
I0706 22:19:44.898880  4209 net.cpp:399] inception_4b/output -> inception_4b/output
I0706 22:19:44.898926  4209 net.cpp:141] Setting up inception_4b/output
I0706 22:19:44.898936  4209 net.cpp:148] Top shape: 10 512 14 14 (1003520)
I0706 22:19:44.898939  4209 net.cpp:156] Memory required for data: 407805440
I0706 22:19:44.898943  4209 layer_factory.hpp:77] Creating layer inception_4b/output_inception_4b/output_0_split
I0706 22:19:44.898950  4209 net.cpp:91] Creating Layer inception_4b/output_inception_4b/output_0_split
I0706 22:19:44.898955  4209 net.cpp:425] inception_4b/output_inception_4b/output_0_split <- inception_4b/output
I0706 22:19:44.898965  4209 net.cpp:399] inception_4b/output_inception_4b/output_0_split -> inception_4b/output_inception_4b/output_0_split_0
I0706 22:19:44.898975  4209 net.cpp:399] inception_4b/output_inception_4b/output_0_split -> inception_4b/output_inception_4b/output_0_split_1
I0706 22:19:44.898983  4209 net.cpp:399] inception_4b/output_inception_4b/output_0_split -> inception_4b/output_inception_4b/output_0_split_2
I0706 22:19:44.898991  4209 net.cpp:399] inception_4b/output_inception_4b/output_0_split -> inception_4b/output_inception_4b/output_0_split_3
I0706 22:19:44.899091  4209 net.cpp:141] Setting up inception_4b/output_inception_4b/output_0_split
I0706 22:19:44.899101  4209 net.cpp:148] Top shape: 10 512 14 14 (1003520)
I0706 22:19:44.899106  4209 net.cpp:148] Top shape: 10 512 14 14 (1003520)
I0706 22:19:44.899111  4209 net.cpp:148] Top shape: 10 512 14 14 (1003520)
I0706 22:19:44.899116  4209 net.cpp:148] Top shape: 10 512 14 14 (1003520)
I0706 22:19:44.899118  4209 net.cpp:156] Memory required for data: 423861760
I0706 22:19:44.899122  4209 layer_factory.hpp:77] Creating layer inception_4c/1x1
I0706 22:19:44.899138  4209 net.cpp:91] Creating Layer inception_4c/1x1
I0706 22:19:44.899143  4209 net.cpp:425] inception_4c/1x1 <- inception_4b/output_inception_4b/output_0_split_0
I0706 22:19:44.899152  4209 net.cpp:399] inception_4c/1x1 -> inception_4c/1x1
I0706 22:19:44.901557  4209 net.cpp:141] Setting up inception_4c/1x1
I0706 22:19:44.901574  4209 net.cpp:148] Top shape: 10 128 14 14 (250880)
I0706 22:19:44.901592  4209 net.cpp:156] Memory required for data: 424865280
I0706 22:19:44.901600  4209 layer_factory.hpp:77] Creating layer inception_4c/relu_1x1
I0706 22:19:44.901612  4209 net.cpp:91] Creating Layer inception_4c/relu_1x1
I0706 22:19:44.901618  4209 net.cpp:425] inception_4c/relu_1x1 <- inception_4c/1x1
I0706 22:19:44.901625  4209 net.cpp:386] inception_4c/relu_1x1 -> inception_4c/1x1 (in-place)
I0706 22:19:44.901859  4209 net.cpp:141] Setting up inception_4c/relu_1x1
I0706 22:19:44.901870  4209 net.cpp:148] Top shape: 10 128 14 14 (250880)
I0706 22:19:44.901873  4209 net.cpp:156] Memory required for data: 425868800
I0706 22:19:44.901878  4209 layer_factory.hpp:77] Creating layer inception_4c/3x3_reduce
I0706 22:19:44.901892  4209 net.cpp:91] Creating Layer inception_4c/3x3_reduce
I0706 22:19:44.901898  4209 net.cpp:425] inception_4c/3x3_reduce <- inception_4b/output_inception_4b/output_0_split_1
I0706 22:19:44.901909  4209 net.cpp:399] inception_4c/3x3_reduce -> inception_4c/3x3_reduce
I0706 22:19:44.904353  4209 net.cpp:141] Setting up inception_4c/3x3_reduce
I0706 22:19:44.904368  4209 net.cpp:148] Top shape: 10 128 14 14 (250880)
I0706 22:19:44.904373  4209 net.cpp:156] Memory required for data: 426872320
I0706 22:19:44.904394  4209 layer_factory.hpp:77] Creating layer inception_4c/relu_3x3_reduce
I0706 22:19:44.904409  4209 net.cpp:91] Creating Layer inception_4c/relu_3x3_reduce
I0706 22:19:44.904415  4209 net.cpp:425] inception_4c/relu_3x3_reduce <- inception_4c/3x3_reduce
I0706 22:19:44.904422  4209 net.cpp:386] inception_4c/relu_3x3_reduce -> inception_4c/3x3_reduce (in-place)
I0706 22:19:44.904646  4209 net.cpp:141] Setting up inception_4c/relu_3x3_reduce
I0706 22:19:44.904657  4209 net.cpp:148] Top shape: 10 128 14 14 (250880)
I0706 22:19:44.904661  4209 net.cpp:156] Memory required for data: 427875840
I0706 22:19:44.904665  4209 layer_factory.hpp:77] Creating layer inception_4c/3x3
I0706 22:19:44.904680  4209 net.cpp:91] Creating Layer inception_4c/3x3
I0706 22:19:44.904685  4209 net.cpp:425] inception_4c/3x3 <- inception_4c/3x3_reduce
I0706 22:19:44.904695  4209 net.cpp:399] inception_4c/3x3 -> inception_4c/3x3
I0706 22:19:44.909744  4209 net.cpp:141] Setting up inception_4c/3x3
I0706 22:19:44.909764  4209 net.cpp:148] Top shape: 10 256 14 14 (501760)
I0706 22:19:44.909768  4209 net.cpp:156] Memory required for data: 429882880
I0706 22:19:44.909777  4209 layer_factory.hpp:77] Creating layer inception_4c/relu_3x3
I0706 22:19:44.909788  4209 net.cpp:91] Creating Layer inception_4c/relu_3x3
I0706 22:19:44.909795  4209 net.cpp:425] inception_4c/relu_3x3 <- inception_4c/3x3
I0706 22:19:44.909801  4209 net.cpp:386] inception_4c/relu_3x3 -> inception_4c/3x3 (in-place)
I0706 22:19:44.910768  4209 net.cpp:141] Setting up inception_4c/relu_3x3
I0706 22:19:44.910796  4209 net.cpp:148] Top shape: 10 256 14 14 (501760)
I0706 22:19:44.910806  4209 net.cpp:156] Memory required for data: 431889920
I0706 22:19:44.910815  4209 layer_factory.hpp:77] Creating layer inception_4c/5x5_reduce
I0706 22:19:44.910836  4209 net.cpp:91] Creating Layer inception_4c/5x5_reduce
I0706 22:19:44.910846  4209 net.cpp:425] inception_4c/5x5_reduce <- inception_4b/output_inception_4b/output_0_split_2
I0706 22:19:44.910864  4209 net.cpp:399] inception_4c/5x5_reduce -> inception_4c/5x5_reduce
I0706 22:19:44.913599  4209 net.cpp:141] Setting up inception_4c/5x5_reduce
I0706 22:19:44.913620  4209 net.cpp:148] Top shape: 10 24 14 14 (47040)
I0706 22:19:44.913625  4209 net.cpp:156] Memory required for data: 432078080
I0706 22:19:44.913635  4209 layer_factory.hpp:77] Creating layer inception_4c/relu_5x5_reduce
I0706 22:19:44.913647  4209 net.cpp:91] Creating Layer inception_4c/relu_5x5_reduce
I0706 22:19:44.913655  4209 net.cpp:425] inception_4c/relu_5x5_reduce <- inception_4c/5x5_reduce
I0706 22:19:44.913661  4209 net.cpp:386] inception_4c/relu_5x5_reduce -> inception_4c/5x5_reduce (in-place)
I0706 22:19:44.913903  4209 net.cpp:141] Setting up inception_4c/relu_5x5_reduce
I0706 22:19:44.913915  4209 net.cpp:148] Top shape: 10 24 14 14 (47040)
I0706 22:19:44.913919  4209 net.cpp:156] Memory required for data: 432266240
I0706 22:19:44.913924  4209 layer_factory.hpp:77] Creating layer inception_4c/5x5
I0706 22:19:44.913939  4209 net.cpp:91] Creating Layer inception_4c/5x5
I0706 22:19:44.913945  4209 net.cpp:425] inception_4c/5x5 <- inception_4c/5x5_reduce
I0706 22:19:44.913956  4209 net.cpp:399] inception_4c/5x5 -> inception_4c/5x5
I0706 22:19:44.917161  4209 net.cpp:141] Setting up inception_4c/5x5
I0706 22:19:44.917181  4209 net.cpp:148] Top shape: 10 64 14 14 (125440)
I0706 22:19:44.917186  4209 net.cpp:156] Memory required for data: 432768000
I0706 22:19:44.917196  4209 layer_factory.hpp:77] Creating layer inception_4c/relu_5x5
I0706 22:19:44.917204  4209 net.cpp:91] Creating Layer inception_4c/relu_5x5
I0706 22:19:44.917212  4209 net.cpp:425] inception_4c/relu_5x5 <- inception_4c/5x5
I0706 22:19:44.917220  4209 net.cpp:386] inception_4c/relu_5x5 -> inception_4c/5x5 (in-place)
I0706 22:19:44.917464  4209 net.cpp:141] Setting up inception_4c/relu_5x5
I0706 22:19:44.917480  4209 net.cpp:148] Top shape: 10 64 14 14 (125440)
I0706 22:19:44.917489  4209 net.cpp:156] Memory required for data: 433269760
I0706 22:19:44.917496  4209 layer_factory.hpp:77] Creating layer inception_4c/pool
I0706 22:19:44.917517  4209 net.cpp:91] Creating Layer inception_4c/pool
I0706 22:19:44.917526  4209 net.cpp:425] inception_4c/pool <- inception_4b/output_inception_4b/output_0_split_3
I0706 22:19:44.917541  4209 net.cpp:399] inception_4c/pool -> inception_4c/pool
I0706 22:19:44.917654  4209 net.cpp:141] Setting up inception_4c/pool
I0706 22:19:44.917672  4209 net.cpp:148] Top shape: 10 512 14 14 (1003520)
I0706 22:19:44.917680  4209 net.cpp:156] Memory required for data: 437283840
I0706 22:19:44.917688  4209 layer_factory.hpp:77] Creating layer inception_4c/pool_proj
I0706 22:19:44.917712  4209 net.cpp:91] Creating Layer inception_4c/pool_proj
I0706 22:19:44.917723  4209 net.cpp:425] inception_4c/pool_proj <- inception_4c/pool
I0706 22:19:44.917745  4209 net.cpp:399] inception_4c/pool_proj -> inception_4c/pool_proj
I0706 22:19:44.922032  4209 net.cpp:141] Setting up inception_4c/pool_proj
I0706 22:19:44.922058  4209 net.cpp:148] Top shape: 10 64 14 14 (125440)
I0706 22:19:44.922063  4209 net.cpp:156] Memory required for data: 437785600
I0706 22:19:44.922091  4209 layer_factory.hpp:77] Creating layer inception_4c/relu_pool_proj
I0706 22:19:44.922101  4209 net.cpp:91] Creating Layer inception_4c/relu_pool_proj
I0706 22:19:44.922108  4209 net.cpp:425] inception_4c/relu_pool_proj <- inception_4c/pool_proj
I0706 22:19:44.922116  4209 net.cpp:386] inception_4c/relu_pool_proj -> inception_4c/pool_proj (in-place)
I0706 22:19:44.922838  4209 net.cpp:141] Setting up inception_4c/relu_pool_proj
I0706 22:19:44.922854  4209 net.cpp:148] Top shape: 10 64 14 14 (125440)
I0706 22:19:44.922859  4209 net.cpp:156] Memory required for data: 438287360
I0706 22:19:44.922865  4209 layer_factory.hpp:77] Creating layer inception_4c/output
I0706 22:19:44.922874  4209 net.cpp:91] Creating Layer inception_4c/output
I0706 22:19:44.922880  4209 net.cpp:425] inception_4c/output <- inception_4c/1x1
I0706 22:19:44.922886  4209 net.cpp:425] inception_4c/output <- inception_4c/3x3
I0706 22:19:44.922893  4209 net.cpp:425] inception_4c/output <- inception_4c/5x5
I0706 22:19:44.922897  4209 net.cpp:425] inception_4c/output <- inception_4c/pool_proj
I0706 22:19:44.922907  4209 net.cpp:399] inception_4c/output -> inception_4c/output
I0706 22:19:44.922955  4209 net.cpp:141] Setting up inception_4c/output
I0706 22:19:44.922966  4209 net.cpp:148] Top shape: 10 512 14 14 (1003520)
I0706 22:19:44.922971  4209 net.cpp:156] Memory required for data: 442301440
I0706 22:19:44.922976  4209 layer_factory.hpp:77] Creating layer inception_4c/output_inception_4c/output_0_split
I0706 22:19:44.922984  4209 net.cpp:91] Creating Layer inception_4c/output_inception_4c/output_0_split
I0706 22:19:44.922989  4209 net.cpp:425] inception_4c/output_inception_4c/output_0_split <- inception_4c/output
I0706 22:19:44.922996  4209 net.cpp:399] inception_4c/output_inception_4c/output_0_split -> inception_4c/output_inception_4c/output_0_split_0
I0706 22:19:44.923004  4209 net.cpp:399] inception_4c/output_inception_4c/output_0_split -> inception_4c/output_inception_4c/output_0_split_1
I0706 22:19:44.923017  4209 net.cpp:399] inception_4c/output_inception_4c/output_0_split -> inception_4c/output_inception_4c/output_0_split_2
I0706 22:19:44.923025  4209 net.cpp:399] inception_4c/output_inception_4c/output_0_split -> inception_4c/output_inception_4c/output_0_split_3
I0706 22:19:44.923120  4209 net.cpp:141] Setting up inception_4c/output_inception_4c/output_0_split
I0706 22:19:44.923130  4209 net.cpp:148] Top shape: 10 512 14 14 (1003520)
I0706 22:19:44.923135  4209 net.cpp:148] Top shape: 10 512 14 14 (1003520)
I0706 22:19:44.923141  4209 net.cpp:148] Top shape: 10 512 14 14 (1003520)
I0706 22:19:44.923146  4209 net.cpp:148] Top shape: 10 512 14 14 (1003520)
I0706 22:19:44.923148  4209 net.cpp:156] Memory required for data: 458357760
I0706 22:19:44.923153  4209 layer_factory.hpp:77] Creating layer inception_4d/1x1
I0706 22:19:44.923167  4209 net.cpp:91] Creating Layer inception_4d/1x1
I0706 22:19:44.923173  4209 net.cpp:425] inception_4d/1x1 <- inception_4c/output_inception_4c/output_0_split_0
I0706 22:19:44.923183  4209 net.cpp:399] inception_4d/1x1 -> inception_4d/1x1
I0706 22:19:44.926674  4209 net.cpp:141] Setting up inception_4d/1x1
I0706 22:19:44.926723  4209 net.cpp:148] Top shape: 10 112 14 14 (219520)
I0706 22:19:44.926728  4209 net.cpp:156] Memory required for data: 459235840
I0706 22:19:44.926738  4209 layer_factory.hpp:77] Creating layer inception_4d/relu_1x1
I0706 22:19:44.926746  4209 net.cpp:91] Creating Layer inception_4d/relu_1x1
I0706 22:19:44.926753  4209 net.cpp:425] inception_4d/relu_1x1 <- inception_4d/1x1
I0706 22:19:44.926764  4209 net.cpp:386] inception_4d/relu_1x1 -> inception_4d/1x1 (in-place)
I0706 22:19:44.927068  4209 net.cpp:141] Setting up inception_4d/relu_1x1
I0706 22:19:44.927086  4209 net.cpp:148] Top shape: 10 112 14 14 (219520)
I0706 22:19:44.927095  4209 net.cpp:156] Memory required for data: 460113920
I0706 22:19:44.927105  4209 layer_factory.hpp:77] Creating layer inception_4d/3x3_reduce
I0706 22:19:44.927132  4209 net.cpp:91] Creating Layer inception_4d/3x3_reduce
I0706 22:19:44.927145  4209 net.cpp:425] inception_4d/3x3_reduce <- inception_4c/output_inception_4c/output_0_split_1
I0706 22:19:44.927161  4209 net.cpp:399] inception_4d/3x3_reduce -> inception_4d/3x3_reduce
I0706 22:19:44.930441  4209 net.cpp:141] Setting up inception_4d/3x3_reduce
I0706 22:19:44.930474  4209 net.cpp:148] Top shape: 10 144 14 14 (282240)
I0706 22:19:44.930480  4209 net.cpp:156] Memory required for data: 461242880
I0706 22:19:44.930490  4209 layer_factory.hpp:77] Creating layer inception_4d/relu_3x3_reduce
I0706 22:19:44.930501  4209 net.cpp:91] Creating Layer inception_4d/relu_3x3_reduce
I0706 22:19:44.930507  4209 net.cpp:425] inception_4d/relu_3x3_reduce <- inception_4d/3x3_reduce
I0706 22:19:44.930516  4209 net.cpp:386] inception_4d/relu_3x3_reduce -> inception_4d/3x3_reduce (in-place)
I0706 22:19:44.930779  4209 net.cpp:141] Setting up inception_4d/relu_3x3_reduce
I0706 22:19:44.930793  4209 net.cpp:148] Top shape: 10 144 14 14 (282240)
I0706 22:19:44.930796  4209 net.cpp:156] Memory required for data: 462371840
I0706 22:19:44.930801  4209 layer_factory.hpp:77] Creating layer inception_4d/3x3
I0706 22:19:44.930819  4209 net.cpp:91] Creating Layer inception_4d/3x3
I0706 22:19:44.930825  4209 net.cpp:425] inception_4d/3x3 <- inception_4d/3x3_reduce
I0706 22:19:44.930833  4209 net.cpp:399] inception_4d/3x3 -> inception_4d/3x3
I0706 22:19:44.937181  4209 net.cpp:141] Setting up inception_4d/3x3
I0706 22:19:44.937207  4209 net.cpp:148] Top shape: 10 288 14 14 (564480)
I0706 22:19:44.937212  4209 net.cpp:156] Memory required for data: 464629760
I0706 22:19:44.937222  4209 layer_factory.hpp:77] Creating layer inception_4d/relu_3x3
I0706 22:19:44.937232  4209 net.cpp:91] Creating Layer inception_4d/relu_3x3
I0706 22:19:44.937238  4209 net.cpp:425] inception_4d/relu_3x3 <- inception_4d/3x3
I0706 22:19:44.937250  4209 net.cpp:386] inception_4d/relu_3x3 -> inception_4d/3x3 (in-place)
I0706 22:19:44.937965  4209 net.cpp:141] Setting up inception_4d/relu_3x3
I0706 22:19:44.937980  4209 net.cpp:148] Top shape: 10 288 14 14 (564480)
I0706 22:19:44.937985  4209 net.cpp:156] Memory required for data: 466887680
I0706 22:19:44.937990  4209 layer_factory.hpp:77] Creating layer inception_4d/5x5_reduce
I0706 22:19:44.938007  4209 net.cpp:91] Creating Layer inception_4d/5x5_reduce
I0706 22:19:44.938014  4209 net.cpp:425] inception_4d/5x5_reduce <- inception_4c/output_inception_4c/output_0_split_2
I0706 22:19:44.938026  4209 net.cpp:399] inception_4d/5x5_reduce -> inception_4d/5x5_reduce
I0706 22:19:44.940840  4209 net.cpp:141] Setting up inception_4d/5x5_reduce
I0706 22:19:44.940860  4209 net.cpp:148] Top shape: 10 32 14 14 (62720)
I0706 22:19:44.940865  4209 net.cpp:156] Memory required for data: 467138560
I0706 22:19:44.940874  4209 layer_factory.hpp:77] Creating layer inception_4d/relu_5x5_reduce
I0706 22:19:44.940883  4209 net.cpp:91] Creating Layer inception_4d/relu_5x5_reduce
I0706 22:19:44.940889  4209 net.cpp:425] inception_4d/relu_5x5_reduce <- inception_4d/5x5_reduce
I0706 22:19:44.940899  4209 net.cpp:386] inception_4d/relu_5x5_reduce -> inception_4d/5x5_reduce (in-place)
I0706 22:19:44.941154  4209 net.cpp:141] Setting up inception_4d/relu_5x5_reduce
I0706 22:19:44.941165  4209 net.cpp:148] Top shape: 10 32 14 14 (62720)
I0706 22:19:44.941169  4209 net.cpp:156] Memory required for data: 467389440
I0706 22:19:44.941174  4209 layer_factory.hpp:77] Creating layer inception_4d/5x5
I0706 22:19:44.941192  4209 net.cpp:91] Creating Layer inception_4d/5x5
I0706 22:19:44.941198  4209 net.cpp:425] inception_4d/5x5 <- inception_4d/5x5_reduce
I0706 22:19:44.941207  4209 net.cpp:399] inception_4d/5x5 -> inception_4d/5x5
I0706 22:19:44.943933  4209 net.cpp:141] Setting up inception_4d/5x5
I0706 22:19:44.943963  4209 net.cpp:148] Top shape: 10 64 14 14 (125440)
I0706 22:19:44.943972  4209 net.cpp:156] Memory required for data: 467891200
I0706 22:19:44.943989  4209 layer_factory.hpp:77] Creating layer inception_4d/relu_5x5
I0706 22:19:44.944010  4209 net.cpp:91] Creating Layer inception_4d/relu_5x5
I0706 22:19:44.944021  4209 net.cpp:425] inception_4d/relu_5x5 <- inception_4d/5x5
I0706 22:19:44.944036  4209 net.cpp:386] inception_4d/relu_5x5 -> inception_4d/5x5 (in-place)
I0706 22:19:44.944406  4209 net.cpp:141] Setting up inception_4d/relu_5x5
I0706 22:19:44.944425  4209 net.cpp:148] Top shape: 10 64 14 14 (125440)
I0706 22:19:44.944433  4209 net.cpp:156] Memory required for data: 468392960
I0706 22:19:44.944442  4209 layer_factory.hpp:77] Creating layer inception_4d/pool
I0706 22:19:44.944463  4209 net.cpp:91] Creating Layer inception_4d/pool
I0706 22:19:44.944473  4209 net.cpp:425] inception_4d/pool <- inception_4c/output_inception_4c/output_0_split_3
I0706 22:19:44.944489  4209 net.cpp:399] inception_4d/pool -> inception_4d/pool
I0706 22:19:44.944609  4209 net.cpp:141] Setting up inception_4d/pool
I0706 22:19:44.944622  4209 net.cpp:148] Top shape: 10 512 14 14 (1003520)
I0706 22:19:44.944627  4209 net.cpp:156] Memory required for data: 472407040
I0706 22:19:44.944631  4209 layer_factory.hpp:77] Creating layer inception_4d/pool_proj
I0706 22:19:44.944646  4209 net.cpp:91] Creating Layer inception_4d/pool_proj
I0706 22:19:44.944653  4209 net.cpp:425] inception_4d/pool_proj <- inception_4d/pool
I0706 22:19:44.944661  4209 net.cpp:399] inception_4d/pool_proj -> inception_4d/pool_proj
I0706 22:19:44.947805  4209 net.cpp:141] Setting up inception_4d/pool_proj
I0706 22:19:44.947834  4209 net.cpp:148] Top shape: 10 64 14 14 (125440)
I0706 22:19:44.947844  4209 net.cpp:156] Memory required for data: 472908800
I0706 22:19:44.947861  4209 layer_factory.hpp:77] Creating layer inception_4d/relu_pool_proj
I0706 22:19:44.947881  4209 net.cpp:91] Creating Layer inception_4d/relu_pool_proj
I0706 22:19:44.947893  4209 net.cpp:425] inception_4d/relu_pool_proj <- inception_4d/pool_proj
I0706 22:19:44.947906  4209 net.cpp:386] inception_4d/relu_pool_proj -> inception_4d/pool_proj (in-place)
I0706 22:19:44.948982  4209 net.cpp:141] Setting up inception_4d/relu_pool_proj
I0706 22:19:44.949000  4209 net.cpp:148] Top shape: 10 64 14 14 (125440)
I0706 22:19:44.949005  4209 net.cpp:156] Memory required for data: 473410560
I0706 22:19:44.949010  4209 layer_factory.hpp:77] Creating layer inception_4d/output
I0706 22:19:44.949023  4209 net.cpp:91] Creating Layer inception_4d/output
I0706 22:19:44.949028  4209 net.cpp:425] inception_4d/output <- inception_4d/1x1
I0706 22:19:44.949035  4209 net.cpp:425] inception_4d/output <- inception_4d/3x3
I0706 22:19:44.949040  4209 net.cpp:425] inception_4d/output <- inception_4d/5x5
I0706 22:19:44.949046  4209 net.cpp:425] inception_4d/output <- inception_4d/pool_proj
I0706 22:19:44.949053  4209 net.cpp:399] inception_4d/output -> inception_4d/output
I0706 22:19:44.949115  4209 net.cpp:141] Setting up inception_4d/output
I0706 22:19:44.949126  4209 net.cpp:148] Top shape: 10 528 14 14 (1034880)
I0706 22:19:44.949129  4209 net.cpp:156] Memory required for data: 477550080
I0706 22:19:44.949134  4209 layer_factory.hpp:77] Creating layer inception_4d/output_inception_4d/output_0_split
I0706 22:19:44.949146  4209 net.cpp:91] Creating Layer inception_4d/output_inception_4d/output_0_split
I0706 22:19:44.949156  4209 net.cpp:425] inception_4d/output_inception_4d/output_0_split <- inception_4d/output
I0706 22:19:44.949167  4209 net.cpp:399] inception_4d/output_inception_4d/output_0_split -> inception_4d/output_inception_4d/output_0_split_0
I0706 22:19:44.949177  4209 net.cpp:399] inception_4d/output_inception_4d/output_0_split -> inception_4d/output_inception_4d/output_0_split_1
I0706 22:19:44.949185  4209 net.cpp:399] inception_4d/output_inception_4d/output_0_split -> inception_4d/output_inception_4d/output_0_split_2
I0706 22:19:44.949194  4209 net.cpp:399] inception_4d/output_inception_4d/output_0_split -> inception_4d/output_inception_4d/output_0_split_3
I0706 22:19:44.949296  4209 net.cpp:141] Setting up inception_4d/output_inception_4d/output_0_split
I0706 22:19:44.949308  4209 net.cpp:148] Top shape: 10 528 14 14 (1034880)
I0706 22:19:44.949314  4209 net.cpp:148] Top shape: 10 528 14 14 (1034880)
I0706 22:19:44.949319  4209 net.cpp:148] Top shape: 10 528 14 14 (1034880)
I0706 22:19:44.949324  4209 net.cpp:148] Top shape: 10 528 14 14 (1034880)
I0706 22:19:44.949328  4209 net.cpp:156] Memory required for data: 494108160
I0706 22:19:44.949333  4209 layer_factory.hpp:77] Creating layer inception_4e/1x1
I0706 22:19:44.949347  4209 net.cpp:91] Creating Layer inception_4e/1x1
I0706 22:19:44.949353  4209 net.cpp:425] inception_4e/1x1 <- inception_4d/output_inception_4d/output_0_split_0
I0706 22:19:44.949362  4209 net.cpp:399] inception_4e/1x1 -> inception_4e/1x1
I0706 22:19:44.954077  4209 net.cpp:141] Setting up inception_4e/1x1
I0706 22:19:44.954099  4209 net.cpp:148] Top shape: 10 256 14 14 (501760)
I0706 22:19:44.954105  4209 net.cpp:156] Memory required for data: 496115200
I0706 22:19:44.954114  4209 layer_factory.hpp:77] Creating layer inception_4e/relu_1x1
I0706 22:19:44.954123  4209 net.cpp:91] Creating Layer inception_4e/relu_1x1
I0706 22:19:44.954128  4209 net.cpp:425] inception_4e/relu_1x1 <- inception_4e/1x1
I0706 22:19:44.954136  4209 net.cpp:386] inception_4e/relu_1x1 -> inception_4e/1x1 (in-place)
I0706 22:19:44.954394  4209 net.cpp:141] Setting up inception_4e/relu_1x1
I0706 22:19:44.954406  4209 net.cpp:148] Top shape: 10 256 14 14 (501760)
I0706 22:19:44.954411  4209 net.cpp:156] Memory required for data: 498122240
I0706 22:19:44.954416  4209 layer_factory.hpp:77] Creating layer inception_4e/3x3_reduce
I0706 22:19:44.954429  4209 net.cpp:91] Creating Layer inception_4e/3x3_reduce
I0706 22:19:44.954435  4209 net.cpp:425] inception_4e/3x3_reduce <- inception_4d/output_inception_4d/output_0_split_1
I0706 22:19:44.954447  4209 net.cpp:399] inception_4e/3x3_reduce -> inception_4e/3x3_reduce
I0706 22:19:44.957198  4209 net.cpp:141] Setting up inception_4e/3x3_reduce
I0706 22:19:44.957217  4209 net.cpp:148] Top shape: 10 160 14 14 (313600)
I0706 22:19:44.957222  4209 net.cpp:156] Memory required for data: 499376640
I0706 22:19:44.957231  4209 layer_factory.hpp:77] Creating layer inception_4e/relu_3x3_reduce
I0706 22:19:44.957239  4209 net.cpp:91] Creating Layer inception_4e/relu_3x3_reduce
I0706 22:19:44.957245  4209 net.cpp:425] inception_4e/relu_3x3_reduce <- inception_4e/3x3_reduce
I0706 22:19:44.957253  4209 net.cpp:386] inception_4e/relu_3x3_reduce -> inception_4e/3x3_reduce (in-place)
I0706 22:19:44.957496  4209 net.cpp:141] Setting up inception_4e/relu_3x3_reduce
I0706 22:19:44.957507  4209 net.cpp:148] Top shape: 10 160 14 14 (313600)
I0706 22:19:44.957512  4209 net.cpp:156] Memory required for data: 500631040
I0706 22:19:44.957516  4209 layer_factory.hpp:77] Creating layer inception_4e/3x3
I0706 22:19:44.957530  4209 net.cpp:91] Creating Layer inception_4e/3x3
I0706 22:19:44.957536  4209 net.cpp:425] inception_4e/3x3 <- inception_4e/3x3_reduce
I0706 22:19:44.957548  4209 net.cpp:399] inception_4e/3x3 -> inception_4e/3x3
I0706 22:19:44.964376  4209 net.cpp:141] Setting up inception_4e/3x3
I0706 22:19:44.964396  4209 net.cpp:148] Top shape: 10 320 14 14 (627200)
I0706 22:19:44.964401  4209 net.cpp:156] Memory required for data: 503139840
I0706 22:19:44.964409  4209 layer_factory.hpp:77] Creating layer inception_4e/relu_3x3
I0706 22:19:44.964421  4209 net.cpp:91] Creating Layer inception_4e/relu_3x3
I0706 22:19:44.964439  4209 net.cpp:425] inception_4e/relu_3x3 <- inception_4e/3x3
I0706 22:19:44.964447  4209 net.cpp:386] inception_4e/relu_3x3 -> inception_4e/3x3 (in-place)
I0706 22:19:44.965153  4209 net.cpp:141] Setting up inception_4e/relu_3x3
I0706 22:19:44.965181  4209 net.cpp:148] Top shape: 10 320 14 14 (627200)
I0706 22:19:44.965185  4209 net.cpp:156] Memory required for data: 505648640
I0706 22:19:44.965190  4209 layer_factory.hpp:77] Creating layer inception_4e/5x5_reduce
I0706 22:19:44.965204  4209 net.cpp:91] Creating Layer inception_4e/5x5_reduce
I0706 22:19:44.965210  4209 net.cpp:425] inception_4e/5x5_reduce <- inception_4d/output_inception_4d/output_0_split_2
I0706 22:19:44.965221  4209 net.cpp:399] inception_4e/5x5_reduce -> inception_4e/5x5_reduce
I0706 22:19:44.967417  4209 net.cpp:141] Setting up inception_4e/5x5_reduce
I0706 22:19:44.967433  4209 net.cpp:148] Top shape: 10 32 14 14 (62720)
I0706 22:19:44.967437  4209 net.cpp:156] Memory required for data: 505899520
I0706 22:19:44.967459  4209 layer_factory.hpp:77] Creating layer inception_4e/relu_5x5_reduce
I0706 22:19:44.967468  4209 net.cpp:91] Creating Layer inception_4e/relu_5x5_reduce
I0706 22:19:44.967473  4209 net.cpp:425] inception_4e/relu_5x5_reduce <- inception_4e/5x5_reduce
I0706 22:19:44.967481  4209 net.cpp:386] inception_4e/relu_5x5_reduce -> inception_4e/5x5_reduce (in-place)
I0706 22:19:44.967717  4209 net.cpp:141] Setting up inception_4e/relu_5x5_reduce
I0706 22:19:44.967728  4209 net.cpp:148] Top shape: 10 32 14 14 (62720)
I0706 22:19:44.967732  4209 net.cpp:156] Memory required for data: 506150400
I0706 22:19:44.967736  4209 layer_factory.hpp:77] Creating layer inception_4e/5x5
I0706 22:19:44.967751  4209 net.cpp:91] Creating Layer inception_4e/5x5
I0706 22:19:44.967756  4209 net.cpp:425] inception_4e/5x5 <- inception_4e/5x5_reduce
I0706 22:19:44.967767  4209 net.cpp:399] inception_4e/5x5 -> inception_4e/5x5
I0706 22:19:44.971441  4209 net.cpp:141] Setting up inception_4e/5x5
I0706 22:19:44.971459  4209 net.cpp:148] Top shape: 10 128 14 14 (250880)
I0706 22:19:44.971477  4209 net.cpp:156] Memory required for data: 507153920
I0706 22:19:44.971487  4209 layer_factory.hpp:77] Creating layer inception_4e/relu_5x5
I0706 22:19:44.971494  4209 net.cpp:91] Creating Layer inception_4e/relu_5x5
I0706 22:19:44.971499  4209 net.cpp:425] inception_4e/relu_5x5 <- inception_4e/5x5
I0706 22:19:44.971510  4209 net.cpp:386] inception_4e/relu_5x5 -> inception_4e/5x5 (in-place)
I0706 22:19:44.971748  4209 net.cpp:141] Setting up inception_4e/relu_5x5
I0706 22:19:44.971760  4209 net.cpp:148] Top shape: 10 128 14 14 (250880)
I0706 22:19:44.971763  4209 net.cpp:156] Memory required for data: 508157440
I0706 22:19:44.971767  4209 layer_factory.hpp:77] Creating layer inception_4e/pool
I0706 22:19:44.971779  4209 net.cpp:91] Creating Layer inception_4e/pool
I0706 22:19:44.971786  4209 net.cpp:425] inception_4e/pool <- inception_4d/output_inception_4d/output_0_split_3
I0706 22:19:44.971792  4209 net.cpp:399] inception_4e/pool -> inception_4e/pool
I0706 22:19:44.971863  4209 net.cpp:141] Setting up inception_4e/pool
I0706 22:19:44.971873  4209 net.cpp:148] Top shape: 10 528 14 14 (1034880)
I0706 22:19:44.971878  4209 net.cpp:156] Memory required for data: 512296960
I0706 22:19:44.971881  4209 layer_factory.hpp:77] Creating layer inception_4e/pool_proj
I0706 22:19:44.971895  4209 net.cpp:91] Creating Layer inception_4e/pool_proj
I0706 22:19:44.971900  4209 net.cpp:425] inception_4e/pool_proj <- inception_4e/pool
I0706 22:19:44.971910  4209 net.cpp:399] inception_4e/pool_proj -> inception_4e/pool_proj
I0706 22:19:44.974545  4209 net.cpp:141] Setting up inception_4e/pool_proj
I0706 22:19:44.974562  4209 net.cpp:148] Top shape: 10 128 14 14 (250880)
I0706 22:19:44.974566  4209 net.cpp:156] Memory required for data: 513300480
I0706 22:19:44.974588  4209 layer_factory.hpp:77] Creating layer inception_4e/relu_pool_proj
I0706 22:19:44.974601  4209 net.cpp:91] Creating Layer inception_4e/relu_pool_proj
I0706 22:19:44.974606  4209 net.cpp:425] inception_4e/relu_pool_proj <- inception_4e/pool_proj
I0706 22:19:44.974613  4209 net.cpp:386] inception_4e/relu_pool_proj -> inception_4e/pool_proj (in-place)
I0706 22:19:44.975397  4209 net.cpp:141] Setting up inception_4e/relu_pool_proj
I0706 22:19:44.975414  4209 net.cpp:148] Top shape: 10 128 14 14 (250880)
I0706 22:19:44.975419  4209 net.cpp:156] Memory required for data: 514304000
I0706 22:19:44.975424  4209 layer_factory.hpp:77] Creating layer inception_4e/output
I0706 22:19:44.975435  4209 net.cpp:91] Creating Layer inception_4e/output
I0706 22:19:44.975441  4209 net.cpp:425] inception_4e/output <- inception_4e/1x1
I0706 22:19:44.975447  4209 net.cpp:425] inception_4e/output <- inception_4e/3x3
I0706 22:19:44.975452  4209 net.cpp:425] inception_4e/output <- inception_4e/5x5
I0706 22:19:44.975458  4209 net.cpp:425] inception_4e/output <- inception_4e/pool_proj
I0706 22:19:44.975467  4209 net.cpp:399] inception_4e/output -> inception_4e/output
I0706 22:19:44.975515  4209 net.cpp:141] Setting up inception_4e/output
I0706 22:19:44.975524  4209 net.cpp:148] Top shape: 10 832 14 14 (1630720)
I0706 22:19:44.975528  4209 net.cpp:156] Memory required for data: 520826880
I0706 22:19:44.975533  4209 layer_factory.hpp:77] Creating layer pool4/3x3_s2
I0706 22:19:44.975545  4209 net.cpp:91] Creating Layer pool4/3x3_s2
I0706 22:19:44.975550  4209 net.cpp:425] pool4/3x3_s2 <- inception_4e/output
I0706 22:19:44.975561  4209 net.cpp:399] pool4/3x3_s2 -> pool4/3x3_s2
I0706 22:19:44.975637  4209 net.cpp:141] Setting up pool4/3x3_s2
I0706 22:19:44.975648  4209 net.cpp:148] Top shape: 10 832 7 7 (407680)
I0706 22:19:44.975652  4209 net.cpp:156] Memory required for data: 522457600
I0706 22:19:44.975656  4209 layer_factory.hpp:77] Creating layer pool4/3x3_s2_pool4/3x3_s2_0_split
I0706 22:19:44.975664  4209 net.cpp:91] Creating Layer pool4/3x3_s2_pool4/3x3_s2_0_split
I0706 22:19:44.975669  4209 net.cpp:425] pool4/3x3_s2_pool4/3x3_s2_0_split <- pool4/3x3_s2
I0706 22:19:44.975678  4209 net.cpp:399] pool4/3x3_s2_pool4/3x3_s2_0_split -> pool4/3x3_s2_pool4/3x3_s2_0_split_0
I0706 22:19:44.975687  4209 net.cpp:399] pool4/3x3_s2_pool4/3x3_s2_0_split -> pool4/3x3_s2_pool4/3x3_s2_0_split_1
I0706 22:19:44.975695  4209 net.cpp:399] pool4/3x3_s2_pool4/3x3_s2_0_split -> pool4/3x3_s2_pool4/3x3_s2_0_split_2
I0706 22:19:44.975703  4209 net.cpp:399] pool4/3x3_s2_pool4/3x3_s2_0_split -> pool4/3x3_s2_pool4/3x3_s2_0_split_3
I0706 22:19:44.975802  4209 net.cpp:141] Setting up pool4/3x3_s2_pool4/3x3_s2_0_split
I0706 22:19:44.975811  4209 net.cpp:148] Top shape: 10 832 7 7 (407680)
I0706 22:19:44.975817  4209 net.cpp:148] Top shape: 10 832 7 7 (407680)
I0706 22:19:44.975822  4209 net.cpp:148] Top shape: 10 832 7 7 (407680)
I0706 22:19:44.975826  4209 net.cpp:148] Top shape: 10 832 7 7 (407680)
I0706 22:19:44.975831  4209 net.cpp:156] Memory required for data: 528980480
I0706 22:19:44.975836  4209 layer_factory.hpp:77] Creating layer inception_5a/1x1
I0706 22:19:44.975849  4209 net.cpp:91] Creating Layer inception_5a/1x1
I0706 22:19:44.975855  4209 net.cpp:425] inception_5a/1x1 <- pool4/3x3_s2_pool4/3x3_s2_0_split_0
I0706 22:19:44.975863  4209 net.cpp:399] inception_5a/1x1 -> inception_5a/1x1
I0706 22:19:44.980535  4209 net.cpp:141] Setting up inception_5a/1x1
I0706 22:19:44.980567  4209 net.cpp:148] Top shape: 10 256 7 7 (125440)
I0706 22:19:44.980573  4209 net.cpp:156] Memory required for data: 529482240
I0706 22:19:44.980582  4209 layer_factory.hpp:77] Creating layer inception_5a/relu_1x1
I0706 22:19:44.980593  4209 net.cpp:91] Creating Layer inception_5a/relu_1x1
I0706 22:19:44.980599  4209 net.cpp:425] inception_5a/relu_1x1 <- inception_5a/1x1
I0706 22:19:44.980607  4209 net.cpp:386] inception_5a/relu_1x1 -> inception_5a/1x1 (in-place)
I0706 22:19:44.980854  4209 net.cpp:141] Setting up inception_5a/relu_1x1
I0706 22:19:44.980866  4209 net.cpp:148] Top shape: 10 256 7 7 (125440)
I0706 22:19:44.980870  4209 net.cpp:156] Memory required for data: 529984000
I0706 22:19:44.980875  4209 layer_factory.hpp:77] Creating layer inception_5a/3x3_reduce
I0706 22:19:44.980891  4209 net.cpp:91] Creating Layer inception_5a/3x3_reduce
I0706 22:19:44.980897  4209 net.cpp:425] inception_5a/3x3_reduce <- pool4/3x3_s2_pool4/3x3_s2_0_split_1
I0706 22:19:44.980906  4209 net.cpp:399] inception_5a/3x3_reduce -> inception_5a/3x3_reduce
I0706 22:19:44.985023  4209 net.cpp:141] Setting up inception_5a/3x3_reduce
I0706 22:19:44.985054  4209 net.cpp:148] Top shape: 10 160 7 7 (78400)
I0706 22:19:44.985060  4209 net.cpp:156] Memory required for data: 530297600
I0706 22:19:44.985069  4209 layer_factory.hpp:77] Creating layer inception_5a/relu_3x3_reduce
I0706 22:19:44.985077  4209 net.cpp:91] Creating Layer inception_5a/relu_3x3_reduce
I0706 22:19:44.985083  4209 net.cpp:425] inception_5a/relu_3x3_reduce <- inception_5a/3x3_reduce
I0706 22:19:44.985095  4209 net.cpp:386] inception_5a/relu_3x3_reduce -> inception_5a/3x3_reduce (in-place)
I0706 22:19:44.985345  4209 net.cpp:141] Setting up inception_5a/relu_3x3_reduce
I0706 22:19:44.985358  4209 net.cpp:148] Top shape: 10 160 7 7 (78400)
I0706 22:19:44.985363  4209 net.cpp:156] Memory required for data: 530611200
I0706 22:19:44.985368  4209 layer_factory.hpp:77] Creating layer inception_5a/3x3
I0706 22:19:44.985383  4209 net.cpp:91] Creating Layer inception_5a/3x3
I0706 22:19:44.985388  4209 net.cpp:425] inception_5a/3x3 <- inception_5a/3x3_reduce
I0706 22:19:44.985396  4209 net.cpp:399] inception_5a/3x3 -> inception_5a/3x3
I0706 22:19:44.993355  4209 net.cpp:141] Setting up inception_5a/3x3
I0706 22:19:44.993387  4209 net.cpp:148] Top shape: 10 320 7 7 (156800)
I0706 22:19:44.993392  4209 net.cpp:156] Memory required for data: 531238400
I0706 22:19:44.993402  4209 layer_factory.hpp:77] Creating layer inception_5a/relu_3x3
I0706 22:19:44.993410  4209 net.cpp:91] Creating Layer inception_5a/relu_3x3
I0706 22:19:44.993417  4209 net.cpp:425] inception_5a/relu_3x3 <- inception_5a/3x3
I0706 22:19:44.993427  4209 net.cpp:386] inception_5a/relu_3x3 -> inception_5a/3x3 (in-place)
I0706 22:19:44.994180  4209 net.cpp:141] Setting up inception_5a/relu_3x3
I0706 22:19:44.994195  4209 net.cpp:148] Top shape: 10 320 7 7 (156800)
I0706 22:19:44.994200  4209 net.cpp:156] Memory required for data: 531865600
I0706 22:19:44.994205  4209 layer_factory.hpp:77] Creating layer inception_5a/5x5_reduce
I0706 22:19:44.994220  4209 net.cpp:91] Creating Layer inception_5a/5x5_reduce
I0706 22:19:44.994226  4209 net.cpp:425] inception_5a/5x5_reduce <- pool4/3x3_s2_pool4/3x3_s2_0_split_2
I0706 22:19:44.994240  4209 net.cpp:399] inception_5a/5x5_reduce -> inception_5a/5x5_reduce
I0706 22:19:44.996649  4209 net.cpp:141] Setting up inception_5a/5x5_reduce
I0706 22:19:44.996671  4209 net.cpp:148] Top shape: 10 32 7 7 (15680)
I0706 22:19:44.996676  4209 net.cpp:156] Memory required for data: 531928320
I0706 22:19:44.996685  4209 layer_factory.hpp:77] Creating layer inception_5a/relu_5x5_reduce
I0706 22:19:44.996693  4209 net.cpp:91] Creating Layer inception_5a/relu_5x5_reduce
I0706 22:19:44.996700  4209 net.cpp:425] inception_5a/relu_5x5_reduce <- inception_5a/5x5_reduce
I0706 22:19:44.996706  4209 net.cpp:386] inception_5a/relu_5x5_reduce -> inception_5a/5x5_reduce (in-place)
I0706 22:19:44.996958  4209 net.cpp:141] Setting up inception_5a/relu_5x5_reduce
I0706 22:19:44.996968  4209 net.cpp:148] Top shape: 10 32 7 7 (15680)
I0706 22:19:44.996973  4209 net.cpp:156] Memory required for data: 531991040
I0706 22:19:44.996978  4209 layer_factory.hpp:77] Creating layer inception_5a/5x5
I0706 22:19:44.996991  4209 net.cpp:91] Creating Layer inception_5a/5x5
I0706 22:19:44.996997  4209 net.cpp:425] inception_5a/5x5 <- inception_5a/5x5_reduce
I0706 22:19:44.997009  4209 net.cpp:399] inception_5a/5x5 -> inception_5a/5x5
I0706 22:19:44.999984  4209 net.cpp:141] Setting up inception_5a/5x5
I0706 22:19:45.000005  4209 net.cpp:148] Top shape: 10 128 7 7 (62720)
I0706 22:19:45.000010  4209 net.cpp:156] Memory required for data: 532241920
I0706 22:19:45.000018  4209 layer_factory.hpp:77] Creating layer inception_5a/relu_5x5
I0706 22:19:45.000051  4209 net.cpp:91] Creating Layer inception_5a/relu_5x5
I0706 22:19:45.000059  4209 net.cpp:425] inception_5a/relu_5x5 <- inception_5a/5x5
I0706 22:19:45.000067  4209 net.cpp:386] inception_5a/relu_5x5 -> inception_5a/5x5 (in-place)
I0706 22:19:45.000319  4209 net.cpp:141] Setting up inception_5a/relu_5x5
I0706 22:19:45.000335  4209 net.cpp:148] Top shape: 10 128 7 7 (62720)
I0706 22:19:45.000344  4209 net.cpp:156] Memory required for data: 532492800
I0706 22:19:45.000352  4209 layer_factory.hpp:77] Creating layer inception_5a/pool
I0706 22:19:45.000361  4209 net.cpp:91] Creating Layer inception_5a/pool
I0706 22:19:45.000367  4209 net.cpp:425] inception_5a/pool <- pool4/3x3_s2_pool4/3x3_s2_0_split_3
I0706 22:19:45.000380  4209 net.cpp:399] inception_5a/pool -> inception_5a/pool
I0706 22:19:45.000457  4209 net.cpp:141] Setting up inception_5a/pool
I0706 22:19:45.000465  4209 net.cpp:148] Top shape: 10 832 7 7 (407680)
I0706 22:19:45.000469  4209 net.cpp:156] Memory required for data: 534123520
I0706 22:19:45.000474  4209 layer_factory.hpp:77] Creating layer inception_5a/pool_proj
I0706 22:19:45.000491  4209 net.cpp:91] Creating Layer inception_5a/pool_proj
I0706 22:19:45.000497  4209 net.cpp:425] inception_5a/pool_proj <- inception_5a/pool
I0706 22:19:45.000506  4209 net.cpp:399] inception_5a/pool_proj -> inception_5a/pool_proj
I0706 22:19:45.004667  4209 net.cpp:141] Setting up inception_5a/pool_proj
I0706 22:19:45.004691  4209 net.cpp:148] Top shape: 10 128 7 7 (62720)
I0706 22:19:45.004696  4209 net.cpp:156] Memory required for data: 534374400
I0706 22:19:45.004706  4209 layer_factory.hpp:77] Creating layer inception_5a/relu_pool_proj
I0706 22:19:45.004719  4209 net.cpp:91] Creating Layer inception_5a/relu_pool_proj
I0706 22:19:45.004726  4209 net.cpp:425] inception_5a/relu_pool_proj <- inception_5a/pool_proj
I0706 22:19:45.004734  4209 net.cpp:386] inception_5a/relu_pool_proj -> inception_5a/pool_proj (in-place)
I0706 22:19:45.005780  4209 net.cpp:141] Setting up inception_5a/relu_pool_proj
I0706 22:19:45.005805  4209 net.cpp:148] Top shape: 10 128 7 7 (62720)
I0706 22:19:45.005813  4209 net.cpp:156] Memory required for data: 534625280
I0706 22:19:45.005822  4209 layer_factory.hpp:77] Creating layer inception_5a/output
I0706 22:19:45.005841  4209 net.cpp:91] Creating Layer inception_5a/output
I0706 22:19:45.005851  4209 net.cpp:425] inception_5a/output <- inception_5a/1x1
I0706 22:19:45.005861  4209 net.cpp:425] inception_5a/output <- inception_5a/3x3
I0706 22:19:45.005872  4209 net.cpp:425] inception_5a/output <- inception_5a/5x5
I0706 22:19:45.005882  4209 net.cpp:425] inception_5a/output <- inception_5a/pool_proj
I0706 22:19:45.005892  4209 net.cpp:399] inception_5a/output -> inception_5a/output
I0706 22:19:45.005971  4209 net.cpp:141] Setting up inception_5a/output
I0706 22:19:45.005985  4209 net.cpp:148] Top shape: 10 832 7 7 (407680)
I0706 22:19:45.005993  4209 net.cpp:156] Memory required for data: 536256000
I0706 22:19:45.006000  4209 layer_factory.hpp:77] Creating layer inception_5a/output_inception_5a/output_0_split
I0706 22:19:45.006013  4209 net.cpp:91] Creating Layer inception_5a/output_inception_5a/output_0_split
I0706 22:19:45.006023  4209 net.cpp:425] inception_5a/output_inception_5a/output_0_split <- inception_5a/output
I0706 22:19:45.006041  4209 net.cpp:399] inception_5a/output_inception_5a/output_0_split -> inception_5a/output_inception_5a/output_0_split_0
I0706 22:19:45.006057  4209 net.cpp:399] inception_5a/output_inception_5a/output_0_split -> inception_5a/output_inception_5a/output_0_split_1
I0706 22:19:45.006072  4209 net.cpp:399] inception_5a/output_inception_5a/output_0_split -> inception_5a/output_inception_5a/output_0_split_2
I0706 22:19:45.006088  4209 net.cpp:399] inception_5a/output_inception_5a/output_0_split -> inception_5a/output_inception_5a/output_0_split_3
I0706 22:19:45.006278  4209 net.cpp:141] Setting up inception_5a/output_inception_5a/output_0_split
I0706 22:19:45.006295  4209 net.cpp:148] Top shape: 10 832 7 7 (407680)
I0706 22:19:45.006305  4209 net.cpp:148] Top shape: 10 832 7 7 (407680)
I0706 22:19:45.006315  4209 net.cpp:148] Top shape: 10 832 7 7 (407680)
I0706 22:19:45.006326  4209 net.cpp:148] Top shape: 10 832 7 7 (407680)
I0706 22:19:45.006333  4209 net.cpp:156] Memory required for data: 542778880
I0706 22:19:45.006341  4209 layer_factory.hpp:77] Creating layer inception_5b/1x1
I0706 22:19:45.006369  4209 net.cpp:91] Creating Layer inception_5b/1x1
I0706 22:19:45.006381  4209 net.cpp:425] inception_5b/1x1 <- inception_5a/output_inception_5a/output_0_split_0
I0706 22:19:45.006399  4209 net.cpp:399] inception_5b/1x1 -> inception_5b/1x1
I0706 22:19:45.012518  4209 net.cpp:141] Setting up inception_5b/1x1
I0706 22:19:45.012547  4209 net.cpp:148] Top shape: 10 384 7 7 (188160)
I0706 22:19:45.012552  4209 net.cpp:156] Memory required for data: 543531520
I0706 22:19:45.012562  4209 layer_factory.hpp:77] Creating layer inception_5b/relu_1x1
I0706 22:19:45.012573  4209 net.cpp:91] Creating Layer inception_5b/relu_1x1
I0706 22:19:45.012578  4209 net.cpp:425] inception_5b/relu_1x1 <- inception_5b/1x1
I0706 22:19:45.012590  4209 net.cpp:386] inception_5b/relu_1x1 -> inception_5b/1x1 (in-place)
I0706 22:19:45.012859  4209 net.cpp:141] Setting up inception_5b/relu_1x1
I0706 22:19:45.012879  4209 net.cpp:148] Top shape: 10 384 7 7 (188160)
I0706 22:19:45.012887  4209 net.cpp:156] Memory required for data: 544284160
I0706 22:19:45.012895  4209 layer_factory.hpp:77] Creating layer inception_5b/3x3_reduce
I0706 22:19:45.012923  4209 net.cpp:91] Creating Layer inception_5b/3x3_reduce
I0706 22:19:45.012936  4209 net.cpp:425] inception_5b/3x3_reduce <- inception_5a/output_inception_5a/output_0_split_1
I0706 22:19:45.012955  4209 net.cpp:399] inception_5b/3x3_reduce -> inception_5b/3x3_reduce
I0706 22:19:45.022398  4209 net.cpp:141] Setting up inception_5b/3x3_reduce
I0706 22:19:45.022456  4209 net.cpp:148] Top shape: 10 192 7 7 (94080)
I0706 22:19:45.022465  4209 net.cpp:156] Memory required for data: 544660480
I0706 22:19:45.022482  4209 layer_factory.hpp:77] Creating layer inception_5b/relu_3x3_reduce
I0706 22:19:45.022505  4209 net.cpp:91] Creating Layer inception_5b/relu_3x3_reduce
I0706 22:19:45.022516  4209 net.cpp:425] inception_5b/relu_3x3_reduce <- inception_5b/3x3_reduce
I0706 22:19:45.022528  4209 net.cpp:386] inception_5b/relu_3x3_reduce -> inception_5b/3x3_reduce (in-place)
I0706 22:19:45.022882  4209 net.cpp:141] Setting up inception_5b/relu_3x3_reduce
I0706 22:19:45.022897  4209 net.cpp:148] Top shape: 10 192 7 7 (94080)
I0706 22:19:45.022904  4209 net.cpp:156] Memory required for data: 545036800
I0706 22:19:45.022912  4209 layer_factory.hpp:77] Creating layer inception_5b/3x3
I0706 22:19:45.022936  4209 net.cpp:91] Creating Layer inception_5b/3x3
I0706 22:19:45.022944  4209 net.cpp:425] inception_5b/3x3 <- inception_5b/3x3_reduce
I0706 22:19:45.022960  4209 net.cpp:399] inception_5b/3x3 -> inception_5b/3x3
I0706 22:19:45.032840  4209 net.cpp:141] Setting up inception_5b/3x3
I0706 22:19:45.032883  4209 net.cpp:148] Top shape: 10 384 7 7 (188160)
I0706 22:19:45.032889  4209 net.cpp:156] Memory required for data: 545789440
I0706 22:19:45.032899  4209 layer_factory.hpp:77] Creating layer inception_5b/relu_3x3
I0706 22:19:45.032915  4209 net.cpp:91] Creating Layer inception_5b/relu_3x3
I0706 22:19:45.032922  4209 net.cpp:425] inception_5b/relu_3x3 <- inception_5b/3x3
I0706 22:19:45.032932  4209 net.cpp:386] inception_5b/relu_3x3 -> inception_5b/3x3 (in-place)
I0706 22:19:45.033679  4209 net.cpp:141] Setting up inception_5b/relu_3x3
I0706 22:19:45.033692  4209 net.cpp:148] Top shape: 10 384 7 7 (188160)
I0706 22:19:45.033697  4209 net.cpp:156] Memory required for data: 546542080
I0706 22:19:45.033702  4209 layer_factory.hpp:77] Creating layer inception_5b/5x5_reduce
I0706 22:19:45.033721  4209 net.cpp:91] Creating Layer inception_5b/5x5_reduce
I0706 22:19:45.033728  4209 net.cpp:425] inception_5b/5x5_reduce <- inception_5a/output_inception_5a/output_0_split_2
I0706 22:19:45.033738  4209 net.cpp:399] inception_5b/5x5_reduce -> inception_5b/5x5_reduce
I0706 22:19:45.036584  4209 net.cpp:141] Setting up inception_5b/5x5_reduce
I0706 22:19:45.036617  4209 net.cpp:148] Top shape: 10 48 7 7 (23520)
I0706 22:19:45.036622  4209 net.cpp:156] Memory required for data: 546636160
I0706 22:19:45.036631  4209 layer_factory.hpp:77] Creating layer inception_5b/relu_5x5_reduce
I0706 22:19:45.036640  4209 net.cpp:91] Creating Layer inception_5b/relu_5x5_reduce
I0706 22:19:45.036646  4209 net.cpp:425] inception_5b/relu_5x5_reduce <- inception_5b/5x5_reduce
I0706 22:19:45.036656  4209 net.cpp:386] inception_5b/relu_5x5_reduce -> inception_5b/5x5_reduce (in-place)
I0706 22:19:45.036907  4209 net.cpp:141] Setting up inception_5b/relu_5x5_reduce
I0706 22:19:45.036918  4209 net.cpp:148] Top shape: 10 48 7 7 (23520)
I0706 22:19:45.036922  4209 net.cpp:156] Memory required for data: 546730240
I0706 22:19:45.036927  4209 layer_factory.hpp:77] Creating layer inception_5b/5x5
I0706 22:19:45.036943  4209 net.cpp:91] Creating Layer inception_5b/5x5
I0706 22:19:45.036949  4209 net.cpp:425] inception_5b/5x5 <- inception_5b/5x5_reduce
I0706 22:19:45.036959  4209 net.cpp:399] inception_5b/5x5 -> inception_5b/5x5
I0706 22:19:45.040787  4209 net.cpp:141] Setting up inception_5b/5x5
I0706 22:19:45.040804  4209 net.cpp:148] Top shape: 10 128 7 7 (62720)
I0706 22:19:45.040809  4209 net.cpp:156] Memory required for data: 546981120
I0706 22:19:45.040817  4209 layer_factory.hpp:77] Creating layer inception_5b/relu_5x5
I0706 22:19:45.040828  4209 net.cpp:91] Creating Layer inception_5b/relu_5x5
I0706 22:19:45.040834  4209 net.cpp:425] inception_5b/relu_5x5 <- inception_5b/5x5
I0706 22:19:45.040841  4209 net.cpp:386] inception_5b/relu_5x5 -> inception_5b/5x5 (in-place)
I0706 22:19:45.041121  4209 net.cpp:141] Setting up inception_5b/relu_5x5
I0706 22:19:45.041132  4209 net.cpp:148] Top shape: 10 128 7 7 (62720)
I0706 22:19:45.041137  4209 net.cpp:156] Memory required for data: 547232000
I0706 22:19:45.041142  4209 layer_factory.hpp:77] Creating layer inception_5b/pool
I0706 22:19:45.041155  4209 net.cpp:91] Creating Layer inception_5b/pool
I0706 22:19:45.041162  4209 net.cpp:425] inception_5b/pool <- inception_5a/output_inception_5a/output_0_split_3
I0706 22:19:45.041172  4209 net.cpp:399] inception_5b/pool -> inception_5b/pool
I0706 22:19:45.041250  4209 net.cpp:141] Setting up inception_5b/pool
I0706 22:19:45.041260  4209 net.cpp:148] Top shape: 10 832 7 7 (407680)
I0706 22:19:45.041265  4209 net.cpp:156] Memory required for data: 548862720
I0706 22:19:45.041268  4209 layer_factory.hpp:77] Creating layer inception_5b/pool_proj
I0706 22:19:45.041282  4209 net.cpp:91] Creating Layer inception_5b/pool_proj
I0706 22:19:45.041287  4209 net.cpp:425] inception_5b/pool_proj <- inception_5b/pool
I0706 22:19:45.041299  4209 net.cpp:399] inception_5b/pool_proj -> inception_5b/pool_proj
I0706 22:19:45.045249  4209 net.cpp:141] Setting up inception_5b/pool_proj
I0706 22:19:45.045280  4209 net.cpp:148] Top shape: 10 128 7 7 (62720)
I0706 22:19:45.045286  4209 net.cpp:156] Memory required for data: 549113600
I0706 22:19:45.045295  4209 layer_factory.hpp:77] Creating layer inception_5b/relu_pool_proj
I0706 22:19:45.045308  4209 net.cpp:91] Creating Layer inception_5b/relu_pool_proj
I0706 22:19:45.045315  4209 net.cpp:425] inception_5b/relu_pool_proj <- inception_5b/pool_proj
I0706 22:19:45.045322  4209 net.cpp:386] inception_5b/relu_pool_proj -> inception_5b/pool_proj (in-place)
I0706 22:19:45.046061  4209 net.cpp:141] Setting up inception_5b/relu_pool_proj
I0706 22:19:45.046075  4209 net.cpp:148] Top shape: 10 128 7 7 (62720)
I0706 22:19:45.046093  4209 net.cpp:156] Memory required for data: 549364480
I0706 22:19:45.046098  4209 layer_factory.hpp:77] Creating layer inception_5b/output
I0706 22:19:45.046110  4209 net.cpp:91] Creating Layer inception_5b/output
I0706 22:19:45.046116  4209 net.cpp:425] inception_5b/output <- inception_5b/1x1
I0706 22:19:45.046123  4209 net.cpp:425] inception_5b/output <- inception_5b/3x3
I0706 22:19:45.046128  4209 net.cpp:425] inception_5b/output <- inception_5b/5x5
I0706 22:19:45.046133  4209 net.cpp:425] inception_5b/output <- inception_5b/pool_proj
I0706 22:19:45.046140  4209 net.cpp:399] inception_5b/output -> inception_5b/output
I0706 22:19:45.046195  4209 net.cpp:141] Setting up inception_5b/output
I0706 22:19:45.046205  4209 net.cpp:148] Top shape: 10 1024 7 7 (501760)
I0706 22:19:45.046210  4209 net.cpp:156] Memory required for data: 551371520
I0706 22:19:45.046213  4209 layer_factory.hpp:77] Creating layer pool5/7x7_s1
I0706 22:19:45.046221  4209 net.cpp:91] Creating Layer pool5/7x7_s1
I0706 22:19:45.046226  4209 net.cpp:425] pool5/7x7_s1 <- inception_5b/output
I0706 22:19:45.046237  4209 net.cpp:399] pool5/7x7_s1 -> pool5/7x7_s1
I0706 22:19:45.046720  4209 net.cpp:141] Setting up pool5/7x7_s1
I0706 22:19:45.046733  4209 net.cpp:148] Top shape: 10 1024 1 1 (10240)
I0706 22:19:45.046737  4209 net.cpp:156] Memory required for data: 551412480
I0706 22:19:45.046742  4209 layer_factory.hpp:77] Creating layer pool5/drop_7x7_s1
I0706 22:19:45.046761  4209 net.cpp:91] Creating Layer pool5/drop_7x7_s1
I0706 22:19:45.046766  4209 net.cpp:425] pool5/drop_7x7_s1 <- pool5/7x7_s1
I0706 22:19:45.046775  4209 net.cpp:386] pool5/drop_7x7_s1 -> pool5/7x7_s1 (in-place)
I0706 22:19:45.046828  4209 net.cpp:141] Setting up pool5/drop_7x7_s1
I0706 22:19:45.046836  4209 net.cpp:148] Top shape: 10 1024 1 1 (10240)
I0706 22:19:45.046840  4209 net.cpp:156] Memory required for data: 551453440
I0706 22:19:45.046844  4209 layer_factory.hpp:77] Creating layer loss3/classifier
I0706 22:19:45.046864  4209 net.cpp:91] Creating Layer loss3/classifier
I0706 22:19:45.046870  4209 net.cpp:425] loss3/classifier <- pool5/7x7_s1
I0706 22:19:45.046880  4209 net.cpp:399] loss3/classifier -> loss3/classifier
I0706 22:19:45.056807  4209 net.cpp:141] Setting up loss3/classifier
I0706 22:19:45.056828  4209 net.cpp:148] Top shape: 10 1000 (10000)
I0706 22:19:45.056833  4209 net.cpp:156] Memory required for data: 551493440
I0706 22:19:45.056840  4209 layer_factory.hpp:77] Creating layer prob
I0706 22:19:45.056850  4209 net.cpp:91] Creating Layer prob
I0706 22:19:45.056855  4209 net.cpp:425] prob <- loss3/classifier
I0706 22:19:45.056862  4209 net.cpp:399] prob -> prob
I0706 22:19:45.057750  4209 net.cpp:141] Setting up prob
I0706 22:19:45.057768  4209 net.cpp:148] Top shape: 10 1000 (10000)
I0706 22:19:45.057773  4209 net.cpp:156] Memory required for data: 551533440
I0706 22:19:45.057778  4209 net.cpp:219] prob does not need backward computation.
I0706 22:19:45.057782  4209 net.cpp:219] loss3/classifier does not need backward computation.
I0706 22:19:45.057787  4209 net.cpp:219] pool5/drop_7x7_s1 does not need backward computation.
I0706 22:19:45.057791  4209 net.cpp:219] pool5/7x7_s1 does not need backward computation.
…
