…
W0925 22:22:38.336161 28210 upgrade_proto.cpp:71] Note that future Caffe releases will only support input layers and not input fields.
I0925 22:22:38.336197 28200 net.cpp:49] Initializing net from parameters: 
name: "s2vt:features_to_lstm"
state {
  phase: TEST
}
layer {
  name: "input"
  type: "Input"
  top: "frames_fc7"
  top: "cont_sentence"
  top: "input_sentence"
  top: "stage_indicator"
  input_param {
    shape {
      dim: 1
      dim: 4096
    }
    shape {
      dim: 1
      dim: 1
    }
    shape {
      dim: 1
      dim: 1
    }
    shape {
      dim: 1
      dim: 1
    }
  }
}
layer {
  name: "embed_encoder"
  type: "InnerProduct"
  bottom: "frames_fc7"
  top: "embedded_in_frames"
  param {
    lr_mult: 1
    decay_mult: 1
  }
  param {
    lr_mult: 2
    decay_mult: 0
  }
  inner_product_param {
    num_output: 500
    weight_filler {
      type: "xavier"
    }
    bias_filler {
      type: "constant"
      value: 0.2
    }
  }
}
layer {
  name: "reshape_frames"
  type: "Reshape"
  bottom: "embedded_in_frames"
  top: "embedded_input_frames"
  reshape_param {
    shape {
      dim: 1
      dim: 1
      dim: 500
    }
  }
}
layer {
  name: "reshape_stage_indicator"
  type: "Reshape"
  bottom: "stage_indicator"
  top: "reshaped_stage_indicator"
  reshape_param {
    shape {
      dim: 1
      dim: 1
      dim: 1
    }
  }
}
layer {
  name: "embedding"
  type: "Embed"
  bottom: "input_sentence"
  top: "embedded_input_sentence"
  param {
    lr_mult: 1
  }
  embed_param {
    num_output: 500
    input_dim: 46168
    bias_term: false
    weight_filler {
      type: "uniform"
      min: -0.08
      max: 0.08
    }
  }
}
layer {
  name: "lstm1"
  type: "LSTM"
  bottom: "embedded_input_frames"
  bottom: "cont_sentence"
  top: "lstm1"
  recurrent_param {
    num_output: 1000
    weight_filler {
      type: "uniform"
      min: -0.08
      max: 0.08
    }
    bias_filler {
      type: "constant"
      value: 0
    }
  }
}
layer {
  name: "concat"
  type: "Concat"
  bottom: "lstm1"
  bottom: "embedded_input_sentence"
  bottom: "reshaped_stage_indicator"
  top: "lstm1_video_sequence"
  concat_param {
    concat_dim: 2
  }
}
layer {
  name: "lstm2"
  type: "LSTM"
  bottom: "lstm1_video_sequence"
  bottom: "cont_sentence"
  top: "lstm2"
  recurrent_param {
    num_output: 1000
    weight_filler {
      type: "uniform"
      min: -0.08
      max: 0.08
    }
    bias_filler {
      type: "constant"
      value: 0
    }
  }
}
layer {
  name: "predict"
  type: "InnerProduct"
  bottom: "lstm2"
  top: "predict"
  param {
    lr_mult: 1
    decay_mult: 1
  }
  param {
    lr_mult: 2
    decay_mult: 0
  }
  inner_product_param {
    num_output: 46168
    weight_filler {
      type: "uniform"
      min: -0.08
      max: 0.08
    }
    bias_filler {
      type: "constant"
      value: 0
    }
    axis: 2
  }
}
layer {
  name: "probs"
  type: "Softmax"
  bottom: "predict"
  top: "probs"
  softmax_param {
    axis: 2
  }
}
I0925 22:22:38.336278 28244 net.cpp:49] Initializing net from parameters: 
name: "s2vt:features_to_lstm"
state {
  phase: TEST
}
layer {
  name: "input"
  type: "Input"
  top: "frames_fc7"
  top: "cont_sentence"
  top: "input_sentence"
  top: "stage_indicator"
  input_param {
    shape {
      dim: 1
      dim: 4096
    }
    shape {
      dim: 1
      dim: 1
    }
    shape {
      dim: 1
      dim: 1
    }
    shape {
      dim: 1
      dim: 1
    }
  }
}
layer {
  name: "embed_encoder"
  type: "InnerProduct"
  bottom: "frames_fc7"
  top: "embedded_in_frames"
  param {
    lr_mult: 1
    decay_mult: 1
  }
  param {
    lr_mult: 2
    decay_mult: 0
  }
  inner_product_param {
    num_output: 500
    weight_filler {
      type: "xavier"
    }
    bias_filler {
      type: "constant"
      value: 0.2
    }
  }
}
layer {
  name: "reshape_frames"
  type: "Reshape"
  bottom: "embedded_in_frames"
  top: "embedded_input_frames"
  reshape_param {
    shape {
      dim: 1
      dim: 1
      dim: 500
    }
  }
}
layer {
  name: "reshape_stage_indicator"
  type: "Reshape"
  bottom: "stage_indicator"
  top: "reshaped_stage_indicator"
  reshape_param {
    shape {
      dim: 1
      dim: 1
      dim: 1
    }
  }
}
layer {
  name: "embedding"
  type: "Embed"
  bottom: "input_sentence"
  top: "embedded_input_sentence"
  param {
    lr_mult: 1
  }
  embed_param {
    num_output: 500
    input_dim: 46168
    bias_term: false
    weight_filler {
      type: "uniform"
      min: -0.08
      max: 0.08
    }
  }
}
layer {
  name: "lstm1"
  type: "LSTM"
  bottom: "embedded_input_frames"
  bottom: "cont_sentence"
  top: "lstm1"
  recurrent_param {
    num_output: 1000
    weight_filler {
      type: "uniform"
      min: -0.08
      max: 0.08
    }
    bias_filler {
      type: "constant"
      value: 0
    }
  }
}
layer {
  name: "concat"
  type: "Concat"
  bottom: "lstm1"
  bottom: "embedded_input_sentence"
  bottom: "reshaped_stage_indicator"
  top: "lstm1_video_sequence"
  concat_param {
    concat_dim: 2
  }
}
layer {
  name: "lstm2"
  type: "LSTM"
  bottom: "lstm1_video_sequence"
  bottom: "cont_sentence"
  top: "lstm2"
  recurrent_param {
    num_output: 1000
    weight_filler {
      type: "uniform"
      min: -0.08
      max: 0.08
    }
    bias_filler {
      type: "constant"
      value: 0
    }
  }
}
layer {
  name: "predict"
  type: "InnerProduct"
  bottom: "lstm2"
  top: "predict"
  param {
    lr_mult: 1
    decay_mult: 1
  }
  param {
    lr_mult: 2
    decay_mult: 0
  }
  inner_product_param {
    num_output: 46168
    weight_filler {
      type: "uniform"
      min: -0.08
      max: 0.08
    }
    bias_filler {
      type: "constant"
      value: 0
    }
    axis: 2
  }
}
layer {
  name: "probs"
  type: "Softmax"
  bottom: "predict"
  top: "probs"
  softmax_param {
    axis: 2
  }
}
I0925 22:22:38.336302 28206 net.cpp:49] Initializing net from parameters: 
name: "s2vt:features_to_lstm"
state {
  phase: TEST
}
layer {
  name: "input"
  type: "Input"
  top: "frames_fc7"
  top: "cont_sentence"
  top: "input_sentence"
  top: "stage_indicator"
  input_param {
    shape {
      dim: 1
      dim: 4096
    }
    shape {
      dim: 1
      dim: 1
    }
    shape {
      dim: 1
      dim: 1
    }
    shape {
      dim: 1
      dim: 1
    }
  }
}
layer {
  name: "embed_encoder"
  type: "InnerProduct"
  bottom: "frames_fc7"
  top: "embedded_in_frames"
  param {
    lr_mult: 1
    decay_mult: 1
  }
  param {
    lr_mult: 2
    decay_mult: 0
  }
  inner_product_param {
    num_output: 500
    weight_filler {
      type: "xavier"
    }
    bias_filler {
      type: "constant"
      value: 0.2
    }
  }
}
layer {
  name: "reshape_frames"
  type: "Reshape"
  bottom: "embedded_in_frames"
  top: "embedded_input_frames"
  reshape_param {
    shape {
      dim: 1
      dim: 1
      dim: 500
    }
  }
}
layer {
  name: "reshape_stage_indicator"
  type: "Reshape"
  bottom: "stage_indicator"
  top: "reshaped_stage_indicator"
  reshape_param {
    shape {
      dim: 1
      dim: 1
      dim: 1
    }
  }
}
layer {
  name: "embedding"
  type: "Embed"
  bottom: "input_sentence"
  top: "embedded_input_sentence"
  param {
    lr_mult: 1
  }
  embed_param {
    num_output: 500
    input_dim: 46168
    bias_term: false
    weight_filler {
      type: "uniform"
      min: -0.08
      max: 0.08
    }
  }
}
layer {
  name: "lstm1"
  type: "LSTM"
  bottom: "embedded_input_frames"
  bottom: "cont_sentence"
  top: "lstm1"
  recurrent_param {
    num_output: 1000
    weight_filler {
      type: "uniform"
      min: -0.08
      max: 0.08
    }
    bias_filler {
      type: "constant"
      value: 0
    }
  }
}
layer {
  name: "concat"
  type: "Concat"
  bottom: "lstm1"
  bottom: "embedded_input_sentence"
  bottom: "reshaped_stage_indicator"
  top: "lstm1_video_sequence"
  concat_param {
    concat_dim: 2
  }
}
layer {
  name: "lstm2"
  type: "LSTM"
  bottom: "lstm1_video_sequence"
  bottom: "cont_sentence"
  top: "lstm2"
  recurrent_param {
    num_output: 1000
    weight_filler {
      type: "uniform"
      min: -0.08
      max: 0.08
    }
    bias_filler {
      type: "constant"
      value: 0
    }
  }
}
layer {
  name: "predict"
  type: "InnerProduct"
  bottom: "lstm2"
  top: "predict"
  param {
    lr_mult: 1
    decay_mult: 1
  }
  param {
    lr_mult: 2
    decay_mult: 0
  }
  inner_product_param {
    num_output: 46168
    weight_filler {
      type: "uniform"
      min: -0.08
      max: 0.08
    }
    bias_filler {
      type: "constant"
      value: 0
    }
    axis: 2
  }
}
layer {
  name: "probs"
  type: "Softmax"
  bottom: "predict"
  top: "probs"
  softmax_param {
    axis: 2
  }
}
I0925 22:22:38.336302 28238 net.cpp:49] Initializing net from parameters: 
name: "s2vt:features_to_lstm"
state {
  phase: TEST
}
layer {
  name: "input"
  type: "Input"
  top: "frames_fc7"
  top: "cont_sentence"
  top: "input_sentence"
  top: "stage_indicator"
  input_param {
    shape {
      dim: 1
      dim: 4096
    }
    shape {
      dim: 1
      dim: 1
    }
    shape {
      dim: 1
      dim: 1
    }
    shape {
      dim: 1
      dim: 1
    }
  }
}
layer {
  name: "embed_encoder"
  type: "InnerProduct"
  bottom: "frames_fc7"
  top: "embedded_in_frames"
  param {
    lr_mult: 1
    decay_mult: 1
  }
  param {
    lr_mult: 2
    decay_mult: 0
  }
  inner_product_param {
    num_output: 500
    weight_filler {
      type: "xavier"
    }
    bias_filler {
      type: "constant"
      value: 0.2
    }
  }
}
layer {
  name: "reshape_frames"
  type: "Reshape"
  bottom: "embedded_in_frames"
  top: "embedded_input_frames"
  reshape_param {
    shape {
      dim: 1
      dim: 1
      dim: 500
    }
  }
}
layer {
  name: "reshape_stage_indicator"
  type: "Reshape"
  bottom: "stage_indicator"
  top: "reshaped_stage_indicator"
  reshape_param {
    shape {
      dim: 1
      dim: 1
      dim: 1
    }
  }
}
layer {
  name: "embedding"
  type: "Embed"
  bottom: "input_sentence"
  top: "embedded_input_sentence"
  param {
    lr_mult: 1
  }
  embed_param {
    num_output: 500
    input_dim: 46168
    bias_term: false
    weight_filler {
      type: "uniform"
      min: -0.08
      max: 0.08
    }
  }
}
layer {
  name: "lstm1"
  type: "LSTM"
  bottom: "embedded_input_frames"
  bottom: "cont_sentence"
  top: "lstm1"
  recurrent_param {
    num_output: 1000
    weight_filler {
      type: "uniform"
      min: -0.08
      max: 0.08
    }
    bias_filler {
      type: "constant"
      value: 0
    }
  }
}
layer {
  name: "concat"
  type: "Concat"
  bottom: "lstm1"
  bottom: "embedded_input_sentence"
  bottom: "reshaped_stage_indicator"
  top: "lstm1_video_sequence"
  concat_param {
    concat_dim: 2
  }
}
layer {
  name: "lstm2"
  type: "LSTM"
  bottom: "lstm1_video_sequence"
  bottom: "cont_sentence"
  top: "lstm2"
  recurrent_param {
    num_output: 1000
    weight_filler {
      type: "uniform"
      min: -0.08
      max: 0.08
    }
    bias_filler {
      type: "constant"
      value: 0
    }
  }
}
layer {
  name: "predict"
  type: "InnerProduct"
  bottom: "lstm2"
  top: "predict"
  param {
    lr_mult: 1
    decay_mult: 1
  }
  param {
    lr_mult: 2
    decay_mult: 0
  }
  inner_product_param {
    num_output: 46168
    weight_filler {
      type: "uniform"
      min: -0.08
      max: 0.08
    }
    bias_filler {
      type: "constant"
      value: 0
    }
    axis: 2
  }
}
layer {
  name: "probs"
  type: "Softmax"
  bottom: "predict"
  top: "probs"
  softmax_param {
    axis: 2
  }
}
I0925 22:22:38.336295 28204 net.cpp:49] Initializing net from parameters: 
name: "s2vt:features_to_lstm"
state {
  phase: TEST
}
layer {
  name: "input"
  type: "Input"
  top: "frames_fc7"
  top: "cont_sentence"
  top: "input_sentence"
  top: "stage_indicator"
  input_param {
    shape {
      dim: 1
      dim: 4096
    }
    shape {
      dim: 1
      dim: 1
    }
    shape {
      dim: 1
      dim: 1
    }
    shape {
      dim: 1
      dim: 1
    }
  }
}
layer {
  name: "embed_encoder"
  type: "InnerProduct"
  bottom: "frames_fc7"
  top: "embedded_in_frames"
  param {
    lr_mult: 1
    decay_mult: 1
  }
  param {
    lr_mult: 2
    decay_mult: 0
  }
  inner_product_param {
    num_output: 500
    weight_filler {
      type: "xavier"
    }
    bias_filler {
      type: "constant"
      value: 0.2
    }
  }
}
layer {
  name: "reshape_frames"
  type: "Reshape"
  bottom: "embedded_in_frames"
  top: "embedded_input_frames"
  reshape_param {
    shape {
      dim: 1
      dim: 1
      dim: 500
    }
  }
}
layer {
  name: "reshape_stage_indicator"
  type: "Reshape"
  bottom: "stage_indicator"
  top: "reshaped_stage_indicator"
  reshape_param {
    shape {
      dim: 1
      dim: 1
      dim: 1
    }
  }
}
layer {
  name: "embedding"
  type: "Embed"
  bottom: "input_sentence"
  top: "embedded_input_sentence"
  param {
    lr_mult: 1
  }
  embed_param {
    num_output: 500
    input_dim: 46168
    bias_term: false
    weight_filler {
      type: "uniform"
      min: -0.08
      max: 0.08
    }
  }
}
layer {
  name: "lstm1"
  type: "LSTM"
  bottom: "embedded_input_frames"
  bottom: "cont_sentence"
  top: "lstm1"
  recurrent_param {
    num_output: 1000
    weight_filler {
      type: "uniform"
      min: -0.08
      max: 0.08
    }
    bias_filler {
      type: "constant"
      value: 0
    }
  }
}
layer {
  name: "concat"
  type: "Concat"
  bottom: "lstm1"
  bottom: "embedded_input_sentence"
  bottom: "reshaped_stage_indicator"
  top: "lstm1_video_sequence"
  concat_param {
    concat_dim: 2
  }
}
layer {
  name: "lstm2"
  type: "LSTM"
  bottom: "lstm1_video_sequence"
  bottom: "cont_sentence"
  top: "lstm2"
  recurrent_param {
    num_output: 1000
    weight_filler {
      type: "uniform"
      min: -0.08
      max: 0.08
    }
    bias_filler {
      type: "constant"
      value: 0
    }
  }
}
layer {
  name: "predict"
  type: "InnerProduct"
  bottom: "lstm2"
  top: "predict"
  param {
    lr_mult: 1
    decay_mult: 1
  }
  param {
    lr_mult: 2
    decay_mult: 0
  }
  inner_product_param {
    num_output: 46168
    weight_filler {
      type: "uniform"
      min: -0.08
      max: 0.08
    }
    bias_filler {
      type: "constant"
      value: 0
    }
    axis: 2
  }
}
layer {
  name: "probs"
  type: "Softmax"
  bottom: "predict"
  top: "probs"
  softmax_param {
    axis: 2
  }
}
I0925 22:22:38.336424 28200 layer_factory.hpp:77] Creating layer input
I0925 22:22:38.336431 28206 layer_factory.hpp:77] Creating layer input
I0925 22:22:38.336427 28238 layer_factory.hpp:77] Creating layer input
I0925 22:22:38.336452 28204 layer_factory.hpp:77] Creating layer input
I0925 22:22:38.336452 28244 layer_factory.hpp:77] Creating layer input
…
I0925 22:22:38.336549 28244 net.cpp:399] input -> frames_fc7
I0925 22:22:38.336554 28204 net.cpp:399] input -> cont_sentence
I0925 22:22:38.336549 28218 net.cpp:49] Initializing net from parameters: 
name: "s2vt:features_to_lstm"
state {
  phase: TEST
}
layer {
  name: "input"
  type: "Input"
  top: "frames_fc7"
  top: "cont_sentence"
  top: "input_sentence"
  top: "stage_indicator"
  input_param {
    shape {
      dim: 1
      dim: 4096
    }
    shape {
      dim: 1
      dim: 1
    }
    shape {
      dim: 1
      dim: 1
    }
    shape {
      dim: 1
      dim: 1
    }
  }
}
layer {
  name: "embed_encoder"
  type: "InnerProduct"
  bottom: "frames_fc7"
  top: "embedded_in_frames"
  param {
    lr_mult: 1
    decay_mult: 1
  }
  param {
    lr_mult: 2
    decay_mult: 0
  }
  inner_product_param {
    num_output: 500
    weight_filler {
      type: "xavier"
    }
    bias_filler {
      type: "constant"
      value: 0.2
    }
  }
}
layer {
  name: "reshape_frames"
  type: "Reshape"
  bottom: "embedded_in_frames"
  top: "embedded_input_frames"
  reshape_param {
    shape {
      dim: 1
      dim: 1
      dim: 500
    }
  }
}
layer {
  name: "reshape_stage_indicator"
  type: "Reshape"
  bottom: "stage_indicator"
  top: "reshaped_stage_indicator"
  reshape_param {
    shape {
      dim: 1
      dim: 1
      dim: 1
    }
  }
}
layer {
  name: "embedding"
  type: "Embed"
  bottom: "input_sentence"
  top: "embedded_input_sentence"
  param {
    lr_mult: 1
  }
  embed_param {
    num_output: 500
    input_dim: 46168
    bias_term: false
    weight_filler {
      type: "uniform"
      min: -0.08
      max: 0.08
    }
  }
}
layer {
  name: "lstm1"
  type: "LSTM"
  bottom: "embedded_input_frames"
  bottom: "cont_sentence"
  top: "lstm1"
  recurrent_param {
    num_output: 1000
    weight_filler {
      type: "uniform"
      min: -0.08
      max: 0.08
    }
    bias_filler {
      type: "constant"
      value: 0
    }
  }
}
layer {
  name: "concat"
  type: "Concat"
  bottom: "lstm1"
  bottom: "embedded_input_sentence"
  bottom: "reshaped_stage_indicator"
  top: "lstm1_video_sequence"
  concat_param {
    concat_dim: 2
  }
}
layer {
  name: "lstm2"
  type: "LSTM"
  bottom: "lstm1_video_sequence"
  bottom: "cont_sentence"
  top: "lstm2"
  recurrent_param {
    num_output: 1000
    weight_filler {
      type: "uniform"
      min: -0.08
      max: 0.08
    }
    bias_filler {
      type: "constant"
      value: 0
    }
  }
}
layer {
  name: "predict"
  type: "InnerProduct"
  bottom: "lstm2"
  top: "predict"
  param {
    lr_mult: 1
    decay_mult: 1
  }
  param {
    lr_mult: 2
    decay_mult: 0
  }
  inner_product_param {
    num_output: 46168
    weight_filler {
      type: "uniform"
      min: -0.08
      max: 0.08
    }
    bias_filler {
      type: "constant"
      value: 0
    }
    axis: 2
  }
}
layer {
  name: "probs"
  type: "Softmax"
  bottom: "predict"
  top: "probs"
  softmax_param {
    axis: 2
  }
}
I0925 22:22:38.336555 28238 net.cpp:399] input -> cont_sentence
I0925 22:22:38.336571 28244 net.cpp:399] input -> cont_sentence
I0925 22:22:38.336575 28204 net.cpp:399] input -> input_sentence
I0925 22:22:38.336556 28200 net.cpp:399] input -> cont_sentence
I0925 22:22:38.336555 28206 net.cpp:399] input -> cont_sentence
I0925 22:22:38.336591 28238 net.cpp:399] input -> input_sentence
I0925 22:22:38.336596 28204 net.cpp:399] input -> stage_indicator
I0925 22:22:38.336596 28244 net.cpp:399] input -> input_sentence
I0925 22:22:38.336593 28212 net.cpp:49] Initializing net from parameters: 
name: "CaffeNet"
state {
  phase: TEST
}
layer {
  name: "data"
  type: "Input"
  top: "data"
  input_param {
    shape {
      dim: 10
      dim: 3
      dim: 227
      dim: 227
    }
  }
}
layer {
  name: "conv1"
  type: "Convolution"
  bottom: "data"
  top: "conv1"
  convolution_param {
    num_output: 96
    kernel_size: 11
    stride: 4
  }
}
layer {
  name: "relu1"
  type: "ReLU"
  bottom: "conv1"
  top: "conv1"
}
layer {
  name: "pool1"
  type: "Pooling"
  bottom: "conv1"
  top: "pool1"
  pooling_param {
    pool: MAX
    kernel_size: 3
    stride: 2
  }
}
layer {
  name: "norm1"
  type: "LRN"
  bottom: "pool1"
  top: "norm1"
  lrn_param {
    local_size: 5
    alpha: 0.0001
    beta: 0.75
  }
}
layer {
  name: "conv2"
  type: "Convolution"
  bottom: "norm1"
  top: "conv2"
  convolution_param {
    num_output: 256
    pad: 2
    kernel_size: 5
    group: 2
  }
}
layer {
  name: "relu2"
  type: "ReLU"
  bottom: "conv2"
  top: "conv2"
}
layer {
  name: "pool2"
  type: "Pooling"
  bottom: "conv2"
  top: "pool2"
  pooling_param {
    pool: MAX
    kernel_size: 3
    stride: 2
  }
}
layer {
  name: "norm2"
  type: "LRN"
  bottom: "pool2"
  top: "norm2"
  lrn_param {
    local_size: 5
    alpha: 0.0001
    beta: 0.75
  }
}
layer {
  name: "conv3"
  type: "Convolution"
  bottom: "norm2"
  top: "conv3"
  convolution_param {
    num_output: 384
    pad: 1
    kernel_size: 3
  }
}
layer {
  name: "relu3"
  type: "ReLU"
  bottom: "conv3"
  top: "conv3"
}
layer {
  name: "conv4"
  type: "Convolution"
  bottom: "conv3"
  top: "conv4"
  convolution_param {
    num_output: 384
    pad: 1
    kernel_size: 3
    group: 2
  }
}
layer {
  name: "relu4"
  type: "ReLU"
  bottom: "conv4"
  top: "conv4"
}
layer {
  name: "conv5"
  type: "Convolution"
  bottom: "conv4"
  top: "conv5"
  convolution_param {
    num_output: 256
    pad: 1
    kernel_size: 3
    group: 2
  }
}
layer {
  name: "relu5"
  type: "ReLU"
  bottom: "conv5"
  top: "conv5"
}
layer {
  name: "pool5"
  type: "Pooling"
  bottom: "conv5"
  top: "pool5"
  pooling_param {
    pool: MAX
    kernel_size: 3
    stride: 2
  }
}
layer {
  name: "fc6"
  type: "InnerProduct"
  bottom: "pool5"
  top: "fc6"
  inner_product_param {
    num_output: 4096
  }
}
layer {
  name: "relu6"
  type: "ReLU"
  bottom: "fc6"
  top: "fc6"
}
layer {
  name: "drop6"
  type: "Dropout"
  bottom: "fc6"
  top: "fc6"
  dropout_param {
    dropout_ratio: 0.5
  }
}
layer {
  name: "fc7"
  type: "InnerProduct"
  bottom: "fc6"
  top: "fc7"
  inner_product_param {
    num_output: 4096
  }
}
layer {
  name: "relu7"
  type: "ReLU"
  bottom: "fc7"
  top: "fc7"
}
layer {
  name: "drop7"
  type: "Dropout"
  bottom: "fc7"
  top: "fc7"
  dropout_param {
    dropout_ratio: 0.5
  }
}
layer {
  name: "fc8"
  type: "InnerProduct"
  bottom: "fc7"
  top: "fc8"
  inner_product_param {
    num_output: 1000
  }
}
layer {
  name: "prob"
  type: "Softmax"
  bottom: "fc8"
  top: "prob"
}
I0925 22:22:38.336609 28200 net.cpp:399] input -> input_sentence
I0925 22:22:38.336611 28238 net.cpp:399] input -> stage_indicator
I0925 22:22:38.336619 28244 net.cpp:399] input -> stage_indicator
I0925 22:22:38.336586 28210 net.cpp:49] Initializing net from parameters: 
name: "s2vt:features_to_lstm"
state {
  phase: TEST
}
layer {
  name: "input"
  type: "Input"
  top: "frames_fc7"
  top: "cont_sentence"
  top: "input_sentence"
  top: "stage_indicator"
  input_param {
    shape {
      dim: 1
      dim: 4096
    }
    shape {
      dim: 1
      dim: 1
    }
    shape {
      dim: 1
      dim: 1
    }
    shape {
      dim: 1
      dim: 1
    }
  }
}
layer {
  name: "embed_encoder"
  type: "InnerProduct"
  bottom: "frames_fc7"
  top: "embedded_in_frames"
  param {
    lr_mult: 1
    decay_mult: 1
  }
  param {
    lr_mult: 2
    decay_mult: 0
  }
  inner_product_param {
    num_output: 500
    weight_filler {
      type: "xavier"
    }
    bias_filler {
      type: "constant"
      value: 0.2
    }
  }
}
layer {
  name: "reshape_frames"
  type: "Reshape"
  bottom: "embedded_in_frames"
  top: "embedded_input_frames"
  reshape_param {
    shape {
      dim: 1
      dim: 1
      dim: 500
    }
  }
}
layer {
  name: "reshape_stage_indicator"
  type: "Reshape"
  bottom: "stage_indicator"
  top: "reshaped_stage_indicator"
  reshape_param {
    shape {
      dim: 1
      dim: 1
      dim: 1
    }
  }
}
layer {
  name: "embedding"
  type: "Embed"
  bottom: "input_sentence"
  top: "embedded_input_sentence"
  param {
    lr_mult: 1
  }
  embed_param {
    num_output: 500
    input_dim: 46168
    bias_term: false
    weight_filler {
      type: "uniform"
      min: -0.08
      max: 0.08
    }
  }
}
layer {
  name: "lstm1"
  type: "LSTM"
  bottom: "embedded_input_frames"
  bottom: "cont_sentence"
  top: "lstm1"
  recurrent_param {
    num_output: 1000
    weight_filler {
      type: "uniform"
      min: -0.08
      max: 0.08
    }
    bias_filler {
      type: "constant"
      value: 0
    }
  }
}
layer {
  name: "concat"
  type: "Concat"
  bottom: "lstm1"
  bottom: "embedded_input_sentence"
  bottom: "reshaped_stage_indicator"
  top: "lstm1_video_sequence"
  concat_param {
    concat_dim: 2
  }
}
layer {
  name: "lstm2"
  type: "LSTM"
  bottom: "lstm1_video_sequence"
  bottom: "cont_sentence"
  top: "lstm2"
  recurrent_param {
    num_output: 1000
    weight_filler {
      type: "uniform"
      min: -0.08
      max: 0.08
    }
    bias_filler {
      type: "constant"
      value: 0
    }
  }
}
layer {
  name: "predict"
  type: "InnerProduct"
  bottom: "lstm2"
  top: "predict"
  param {
    lr_mult: 1
    decay_mult: 1
  }
  param {
    lr_mult: 2
    decay_mult: 0
  }
  inner_product_param {
    num_output: 46168
    weight_filler {
      type: "uniform"
      min: -0.08
      max: 0.08
    }
    bias_filler {
      type: "constant"
      value: 0
    }
    axis: 2
  }
}
layer {
  name: "probs"
  type: "Softmax"
  bottom: "predict"
  top: "probs"
  softmax_param {
    axis: 2
  }
}
I0925 22:22:38.336634 28200 net.cpp:399] input -> stage_indicator
I0925 22:22:38.336616 28206 net.cpp:399] input -> input_sentence
I0925 22:22:38.336669 28206 net.cpp:399] input -> stage_indicator
I0925 22:22:38.336709 28218 layer_factory.hpp:77] Creating layer input
I0925 22:22:38.336735 28218 net.cpp:91] Creating Layer input
I0925 22:22:38.336755 28218 net.cpp:399] input -> frames_fc7
I0925 22:22:38.336757 28212 layer_factory.hpp:77] Creating layer data
I0925 22:22:38.336778 28212 net.cpp:91] Creating Layer data
I0925 22:22:38.336784 28218 net.cpp:399] input -> cont_sentence
I0925 22:22:38.336791 28212 net.cpp:399] data -> data
I0925 22:22:38.336809 28218 net.cpp:399] input -> input_sentence
I0925 22:22:38.336807 28210 layer_factory.hpp:77] Creating layer input
I0925 22:22:38.336838 28218 net.cpp:399] input -> stage_indicator
I0925 22:22:38.336846 28210 net.cpp:91] Creating Layer input
I0925 22:22:38.336860 28210 net.cpp:399] input -> frames_fc7
I0925 22:22:38.336880 28210 net.cpp:399] input -> cont_sentence
I0925 22:22:38.336899 28210 net.cpp:399] input -> input_sentence
I0925 22:22:38.336920 28210 net.cpp:399] input -> stage_indicator
I0925 22:22:39.162431 28204 net.cpp:141] Setting up input
I0925 22:22:39.162547 28204 net.cpp:148] Top shape: 1 4096 (4096)
I0925 22:22:39.162564 28204 net.cpp:148] Top shape: 1 1 (1)
I0925 22:22:39.162575 28204 net.cpp:148] Top shape: 1 1 (1)
I0925 22:22:39.162575 28212 net.cpp:141] Setting up data
I0925 22:22:39.162585 28204 net.cpp:148] Top shape: 1 1 (1)
I0925 22:22:39.162609 28212 net.cpp:148] Top shape: 10 3 227 227 (1545870)
I0925 22:22:39.162592 28204 net.cpp:156] Memory required for data: 16396
I0925 22:22:39.162619 28212 net.cpp:156] Memory required for data: 6183480
I0925 22:22:39.162654 28204 layer_factory.hpp:77] Creating layer cont_sentence_input_1_split
I0925 22:22:39.162654 28212 layer_factory.hpp:77] Creating layer conv1
I0925 22:22:39.162703 28204 net.cpp:91] Creating Layer cont_sentence_input_1_split
I0925 22:22:39.162705 28206 net.cpp:141] Setting up input
I0925 22:22:39.162719 28204 net.cpp:425] cont_sentence_input_1_split <- cont_sentence
I0925 22:22:39.162710 28212 net.cpp:91] Creating Layer conv1
I0925 22:22:39.162734 28212 net.cpp:425] conv1 <- data
I0925 22:22:39.162734 28206 net.cpp:148] Top shape: 1 4096 (4096)
I0925 22:22:39.162749 28206 net.cpp:148] Top shape: 1 1 (1)
I0925 22:22:39.162751 28212 net.cpp:399] conv1 -> conv1
I0925 22:22:39.162752 28204 net.cpp:399] cont_sentence_input_1_split -> cont_sentence_input_1_split_0
I0925 22:22:39.162760 28206 net.cpp:148] Top shape: 1 1 (1)
I0925 22:22:39.162768 28206 net.cpp:148] Top shape: 1 1 (1)
I0925 22:22:39.162773 28206 net.cpp:156] Memory required for data: 16396
I0925 22:22:39.162775 28204 net.cpp:399] cont_sentence_input_1_split -> cont_sentence_input_1_split_1
I0925 22:22:39.162778 28206 layer_factory.hpp:77] Creating layer cont_sentence_input_1_split
I0925 22:22:39.162789 28206 net.cpp:91] Creating Layer cont_sentence_input_1_split
I0925 22:22:39.162794 28206 net.cpp:425] cont_sentence_input_1_split <- cont_sentence
I0925 22:22:39.162806 28206 net.cpp:399] cont_sentence_input_1_split -> cont_sentence_input_1_split_0
I0925 22:22:39.162817 28206 net.cpp:399] cont_sentence_input_1_split -> cont_sentence_input_1_split_1
I0925 22:22:39.162891 28206 net.cpp:141] Setting up cont_sentence_input_1_split
I0925 22:22:39.162909 28206 net.cpp:148] Top shape: 1 1 (1)
I0925 22:22:39.162919 28206 net.cpp:148] Top shape: 1 1 (1)
I0925 22:22:39.162927 28206 net.cpp:156] Memory required for data: 16404
I0925 22:22:39.162932 28206 layer_factory.hpp:77] Creating layer embed_encoder
I0925 22:22:39.162955 28206 net.cpp:91] Creating Layer embed_encoder
I0925 22:22:39.162953 28200 net.cpp:141] Setting up input
I0925 22:22:39.162961 28206 net.cpp:425] embed_encoder <- frames_fc7
I0925 22:22:39.162979 28200 net.cpp:148] Top shape: 1 4096 (4096)
I0925 22:22:39.162982 28206 net.cpp:399] embed_encoder -> embedded_in_frames
I0925 22:22:39.162995 28200 net.cpp:148] Top shape: 1 1 (1)
I0925 22:22:39.163007 28200 net.cpp:148] Top shape: 1 1 (1)
I0925 22:22:39.163015 28200 net.cpp:148] Top shape: 1 1 (1)
I0925 22:22:39.163023 28200 net.cpp:156] Memory required for data: 16396
I0925 22:22:39.163033 28200 layer_factory.hpp:77] Creating layer cont_sentence_input_1_split
I0925 22:22:39.163048 28200 net.cpp:91] Creating Layer cont_sentence_input_1_split
I0925 22:22:39.163059 28200 net.cpp:425] cont_sentence_input_1_split <- cont_sentence
I0925 22:22:39.163074 28200 net.cpp:399] cont_sentence_input_1_split -> cont_sentence_input_1_split_0
I0925 22:22:39.163090 28200 net.cpp:399] cont_sentence_input_1_split -> cont_sentence_input_1_split_1
I0925 22:22:39.163204 28244 net.cpp:141] Setting up input
I0925 22:22:39.163219 28244 net.cpp:148] Top shape: 1 4096 (4096)
I0925 22:22:39.163225 28244 net.cpp:148] Top shape: 1 1 (1)
I0925 22:22:39.163231 28244 net.cpp:148] Top shape: 1 1 (1)
I0925 22:22:39.163233 28204 net.cpp:141] Setting up cont_sentence_input_1_split
I0925 22:22:39.163238 28244 net.cpp:148] Top shape: 1 1 (1)
I0925 22:22:39.163250 28244 net.cpp:156] Memory required for data: 16396
I0925 22:22:39.163254 28204 net.cpp:148] Top shape: 1 1 (1)
I0925 22:22:39.163256 28244 layer_factory.hpp:77] Creating layer cont_sentence_input_1_split
I0925 22:22:39.163264 28204 net.cpp:148] Top shape: 1 1 (1)
I0925 22:22:39.163271 28204 net.cpp:156] Memory required for data: 16404
I0925 22:22:39.163278 28244 net.cpp:91] Creating Layer cont_sentence_input_1_split
I0925 22:22:39.163280 28204 layer_factory.hpp:77] Creating layer embed_encoder
I0925 22:22:39.163285 28244 net.cpp:425] cont_sentence_input_1_split <- cont_sentence
I0925 22:22:39.163292 28244 net.cpp:399] cont_sentence_input_1_split -> cont_sentence_input_1_split_0
I0925 22:22:39.163298 28204 net.cpp:91] Creating Layer embed_encoder
I0925 22:22:39.163303 28244 net.cpp:399] cont_sentence_input_1_split -> cont_sentence_input_1_split_1
I0925 22:22:39.163307 28204 net.cpp:425] embed_encoder <- frames_fc7
I0925 22:22:39.163322 28204 net.cpp:399] embed_encoder -> embedded_in_frames
I0925 22:22:39.163395 28238 net.cpp:141] Setting up input
I0925 22:22:39.163411 28238 net.cpp:148] Top shape: 1 4096 (4096)
I0925 22:22:39.163421 28238 net.cpp:148] Top shape: 1 1 (1)
I0925 22:22:39.163431 28238 net.cpp:148] Top shape: 1 1 (1)
I0925 22:22:39.163440 28238 net.cpp:148] Top shape: 1 1 (1)
I0925 22:22:39.163447 28238 net.cpp:156] Memory required for data: 16396
I0925 22:22:39.163455 28238 layer_factory.hpp:77] Creating layer cont_sentence_input_1_split
I0925 22:22:39.163467 28238 net.cpp:91] Creating Layer cont_sentence_input_1_split
I0925 22:22:39.163475 28238 net.cpp:425] cont_sentence_input_1_split <- cont_sentence
I0925 22:22:39.163486 28238 net.cpp:399] cont_sentence_input_1_split -> cont_sentence_input_1_split_0
I0925 22:22:39.163501 28238 net.cpp:399] cont_sentence_input_1_split -> cont_sentence_input_1_split_1
I0925 22:22:39.167155 28210 net.cpp:141] Setting up input
I0925 22:22:39.167204 28210 net.cpp:148] Top shape: 1 4096 (4096)
I0925 22:22:39.167219 28210 net.cpp:148] Top shape: 1 1 (1)
I0925 22:22:39.167232 28210 net.cpp:148] Top shape: 1 1 (1)
I0925 22:22:39.167243 28210 net.cpp:148] Top shape: 1 1 (1)
I0925 22:22:39.167251 28210 net.cpp:156] Memory required for data: 16396
I0925 22:22:39.167268 28210 layer_factory.hpp:77] Creating layer cont_sentence_input_1_split
I0925 22:22:39.167276 28218 net.cpp:141] Setting up input
I0925 22:22:39.167292 28218 net.cpp:148] Top shape: 1 4096 (4096)
I0925 22:22:39.167294 28210 net.cpp:91] Creating Layer cont_sentence_input_1_split
I0925 22:22:39.167313 28218 net.cpp:148] Top shape: 1 1 (1)
I0925 22:22:39.167315 28210 net.cpp:425] cont_sentence_input_1_split <- cont_sentence
I0925 22:22:39.167330 28218 net.cpp:148] Top shape: 1 1 (1)
I0925 22:22:39.167341 28218 net.cpp:148] Top shape: 1 1 (1)
I0925 22:22:39.167341 28210 net.cpp:399] cont_sentence_input_1_split -> cont_sentence_input_1_split_0
I0925 22:22:39.167361 28218 net.cpp:156] Memory required for data: 16396
I0925 22:22:39.167372 28218 layer_factory.hpp:77] Creating layer cont_sentence_input_1_split
I0925 22:22:39.167373 28210 net.cpp:399] cont_sentence_input_1_split -> cont_sentence_input_1_split_1
I0925 22:22:39.167394 28218 net.cpp:91] Creating Layer cont_sentence_input_1_split
I0925 22:22:39.167407 28218 net.cpp:425] cont_sentence_input_1_split <- cont_sentence
I0925 22:22:39.167423 28218 net.cpp:399] cont_sentence_input_1_split -> cont_sentence_input_1_split_0
I0925 22:22:39.167435 28218 net.cpp:399] cont_sentence_input_1_split -> cont_sentence_input_1_split_1
I0925 22:22:39.167440 28244 net.cpp:141] Setting up cont_sentence_input_1_split
I0925 22:22:39.167490 28244 net.cpp:148] Top shape: 1 1 (1)
I0925 22:22:39.167510 28244 net.cpp:148] Top shape: 1 1 (1)
I0925 22:22:39.167520 28200 net.cpp:141] Setting up cont_sentence_input_1_split
I0925 22:22:39.167522 28244 net.cpp:156] Memory required for data: 16404
I0925 22:22:39.167557 28200 net.cpp:148] Top shape: 1 1 (1)
I0925 22:22:39.167568 28200 net.cpp:148] Top shape: 1 1 (1)
I0925 22:22:39.167569 28244 layer_factory.hpp:77] Creating layer embed_encoder
I0925 22:22:39.167577 28200 net.cpp:156] Memory required for data: 16404
I0925 22:22:39.167608 28200 layer_factory.hpp:77] Creating layer embed_encoder
I0925 22:22:39.167628 28200 net.cpp:91] Creating Layer embed_encoder
I0925 22:22:39.167637 28200 net.cpp:425] embed_encoder <- frames_fc7
I0925 22:22:39.167652 28200 net.cpp:399] embed_encoder -> embedded_in_frames
I0925 22:22:39.167661 28244 net.cpp:91] Creating Layer embed_encoder
I0925 22:22:39.167683 28244 net.cpp:425] embed_encoder <- frames_fc7
I0925 22:22:39.167708 28244 net.cpp:399] embed_encoder -> embedded_in_frames
I0925 22:22:39.172905 28210 net.cpp:141] Setting up cont_sentence_input_1_split
I0925 22:22:39.172931 28210 net.cpp:148] Top shape: 1 1 (1)
I0925 22:22:39.172945 28210 net.cpp:148] Top shape: 1 1 (1)
I0925 22:22:39.172955 28210 net.cpp:156] Memory required for data: 16404
I0925 22:22:39.172965 28210 layer_factory.hpp:77] Creating layer embed_encoder
I0925 22:22:39.172971 28218 net.cpp:141] Setting up cont_sentence_input_1_split
I0925 22:22:39.172987 28218 net.cpp:148] Top shape: 1 1 (1)
I0925 22:22:39.172994 28210 net.cpp:91] Creating Layer embed_encoder
I0925 22:22:39.173001 28218 net.cpp:148] Top shape: 1 1 (1)
I0925 22:22:39.173004 28210 net.cpp:425] embed_encoder <- frames_fc7
I0925 22:22:39.173008 28218 net.cpp:156] Memory required for data: 16404
I0925 22:22:39.173017 28218 layer_factory.hpp:77] Creating layer embed_encoder
I0925 22:22:39.173018 28210 net.cpp:399] embed_encoder -> embedded_in_frames
I0925 22:22:39.173037 28218 net.cpp:91] Creating Layer embed_encoder
I0925 22:22:39.173046 28218 net.cpp:425] embed_encoder <- frames_fc7
I0925 22:22:39.173063 28218 net.cpp:399] embed_encoder -> embedded_in_frames
I0925 22:22:39.194427 28238 net.cpp:141] Setting up cont_sentence_input_1_split
I0925 22:22:39.194481 28238 net.cpp:148] Top shape: 1 1 (1)
I0925 22:22:39.194494 28238 net.cpp:148] Top shape: 1 1 (1)
I0925 22:22:39.194502 28238 net.cpp:156] Memory required for data: 16404
I0925 22:22:39.194516 28238 layer_factory.hpp:77] Creating layer embed_encoder
I0925 22:22:39.194555 28238 net.cpp:91] Creating Layer embed_encoder
I0925 22:22:39.194568 28238 net.cpp:425] embed_encoder <- frames_fc7
I0925 22:22:39.194588 28238 net.cpp:399] embed_encoder -> embedded_in_frames
I0925 22:22:39.202061 28206 net.cpp:141] Setting up embed_encoder
I0925 22:22:39.202083 28204 net.cpp:141] Setting up embed_encoder
I0925 22:22:39.202117 28206 net.cpp:148] Top shape: 1 500 (500)
I0925 22:22:39.202121 28204 net.cpp:148] Top shape: 1 500 (500)
I0925 22:22:39.202127 28206 net.cpp:156] Memory required for data: 18404
I0925 22:22:39.202131 28204 net.cpp:156] Memory required for data: 18404
I0925 22:22:39.202165 28204 layer_factory.hpp:77] Creating layer reshape_frames
I0925 22:22:39.202168 28206 layer_factory.hpp:77] Creating layer reshape_frames
I0925 22:22:39.202210 28206 net.cpp:91] Creating Layer reshape_frames
I0925 22:22:39.202214 28204 net.cpp:91] Creating Layer reshape_frames
I0925 22:22:39.202219 28206 net.cpp:425] reshape_frames <- embedded_in_frames
I0925 22:22:39.202224 28204 net.cpp:425] reshape_frames <- embedded_in_frames
I0925 22:22:39.202231 28206 net.cpp:399] reshape_frames -> embedded_input_frames
I0925 22:22:39.202239 28204 net.cpp:399] reshape_frames -> embedded_input_frames
I0925 22:22:39.202292 28206 net.cpp:141] Setting up reshape_frames
I0925 22:22:39.202302 28206 net.cpp:148] Top shape: 1 1 500 (500)
I0925 22:22:39.202306 28206 net.cpp:156] Memory required for data: 20404
I0925 22:22:39.202311 28206 layer_factory.hpp:77] Creating layer reshape_stage_indicator
I0925 22:22:39.202327 28206 net.cpp:91] Creating Layer reshape_stage_indicator
I0925 22:22:39.202327 28204 net.cpp:141] Setting up reshape_frames
I0925 22:22:39.202332 28206 net.cpp:425] reshape_stage_indicator <- stage_indicator
I0925 22:22:39.202347 28204 net.cpp:148] Top shape: 1 1 500 (500)
I0925 22:22:39.202350 28206 net.cpp:399] reshape_stage_indicator -> reshaped_stage_indicator
I0925 22:22:39.202354 28204 net.cpp:156] Memory required for data: 20404
I0925 22:22:39.202363 28204 layer_factory.hpp:77] Creating layer reshape_stage_indicator
I0925 22:22:39.202379 28204 net.cpp:91] Creating Layer reshape_stage_indicator
I0925 22:22:39.202388 28206 net.cpp:141] Setting up reshape_stage_indicator
I0925 22:22:39.202389 28204 net.cpp:425] reshape_stage_indicator <- stage_indicator
I0925 22:22:39.202396 28206 net.cpp:148] Top shape: 1 1 1 (1)
I0925 22:22:39.202401 28206 net.cpp:156] Memory required for data: 20408
I0925 22:22:39.202406 28206 layer_factory.hpp:77] Creating layer embedding
I0925 22:22:39.202405 28204 net.cpp:399] reshape_stage_indicator -> reshaped_stage_indicator
I0925 22:22:39.202419 28206 net.cpp:91] Creating Layer embedding
I0925 22:22:39.202425 28206 net.cpp:425] embedding <- input_sentence
I0925 22:22:39.202435 28206 net.cpp:399] embedding -> embedded_input_sentence
I0925 22:22:39.202461 28204 net.cpp:141] Setting up reshape_stage_indicator
I0925 22:22:39.202477 28204 net.cpp:148] Top shape: 1 1 1 (1)
I0925 22:22:39.202484 28204 net.cpp:156] Memory required for data: 20408
I0925 22:22:39.202494 28204 layer_factory.hpp:77] Creating layer embedding
I0925 22:22:39.202508 28204 net.cpp:91] Creating Layer embedding
I0925 22:22:39.202517 28204 net.cpp:425] embedding <- input_sentence
I0925 22:22:39.202534 28204 net.cpp:399] embedding -> embedded_input_sentence
I0925 22:22:39.291802 28218 net.cpp:141] Setting up embed_encoder
I0925 22:22:39.291864 28218 net.cpp:148] Top shape: 1 500 (500)
I0925 22:22:39.291874 28218 net.cpp:156] Memory required for data: 18404
I0925 22:22:39.291906 28218 layer_factory.hpp:77] Creating layer reshape_frames
I0925 22:22:39.291939 28218 net.cpp:91] Creating Layer reshape_frames
I0925 22:22:39.291954 28218 net.cpp:425] reshape_frames <- embedded_in_frames
I0925 22:22:39.291972 28218 net.cpp:399] reshape_frames -> embedded_input_frames
I0925 22:22:39.292043 28218 net.cpp:141] Setting up reshape_frames
I0925 22:22:39.292062 28218 net.cpp:148] Top shape: 1 1 500 (500)
I0925 22:22:39.292070 28218 net.cpp:156] Memory required for data: 20404
I0925 22:22:39.292081 28218 layer_factory.hpp:77] Creating layer reshape_stage_indicator
I0925 22:22:39.292100 28218 net.cpp:91] Creating Layer reshape_stage_indicator
I0925 22:22:39.292111 28218 net.cpp:425] reshape_stage_indicator <- stage_indicator
I0925 22:22:39.292131 28218 net.cpp:399] reshape_stage_indicator -> reshaped_stage_indicator
I0925 22:22:39.292201 28218 net.cpp:141] Setting up reshape_stage_indicator
I0925 22:22:39.292217 28218 net.cpp:148] Top shape: 1 1 1 (1)
I0925 22:22:39.292227 28218 net.cpp:156] Memory required for data: 20408
I0925 22:22:39.292234 28218 layer_factory.hpp:77] Creating layer embedding
I0925 22:22:39.292255 28218 net.cpp:91] Creating Layer embedding
I0925 22:22:39.292265 28218 net.cpp:425] embedding <- input_sentence
I0925 22:22:39.292284 28218 net.cpp:399] embedding -> embedded_input_sentence
I0925 22:22:39.339377 28238 net.cpp:141] Setting up embed_encoder
I0925 22:22:39.339431 28238 net.cpp:148] Top shape: 1 500 (500)
I0925 22:22:39.339437 28238 net.cpp:156] Memory required for data: 18404
I0925 22:22:39.339460 28238 layer_factory.hpp:77] Creating layer reshape_frames
I0925 22:22:39.339488 28238 net.cpp:91] Creating Layer reshape_frames
I0925 22:22:39.339506 28238 net.cpp:425] reshape_frames <- embedded_in_frames
I0925 22:22:39.339524 28238 net.cpp:399] reshape_frames -> embedded_input_frames
I0925 22:22:39.339635 28210 net.cpp:141] Setting up embed_encoder
I0925 22:22:39.339680 28238 net.cpp:141] Setting up reshape_frames
I0925 22:22:39.339658 28244 net.cpp:141] Setting up embed_encoder
I0925 22:22:39.339702 28210 net.cpp:148] Top shape: 1 500 (500)
I0925 22:22:39.339709 28238 net.cpp:148] Top shape: 1 1 500 (500)
I0925 22:22:39.339718 28210 net.cpp:156] Memory required for data: 18404
I0925 22:22:39.339718 28244 net.cpp:148] Top shape: 1 500 (500)
I0925 22:22:39.339720 28238 net.cpp:156] Memory required for data: 20404
I0925 22:22:39.339745 28244 net.cpp:156] Memory required for data: 18404
I0925 22:22:39.339753 28238 layer_factory.hpp:77] Creating layer reshape_stage_indicator
I0925 22:22:39.339759 28210 layer_factory.hpp:77] Creating layer reshape_frames
I0925 22:22:39.339752 28200 net.cpp:141] Setting up embed_encoder
I0925 22:22:39.339771 28244 layer_factory.hpp:77] Creating layer reshape_frames
I0925 22:22:39.339790 28200 net.cpp:148] Top shape: 1 500 (500)
I0925 22:22:39.339793 28210 net.cpp:91] Creating Layer reshape_frames
I0925 22:22:39.339802 28200 net.cpp:156] Memory required for data: 18404
I0925 22:22:39.339807 28210 net.cpp:425] reshape_frames <- embedded_in_frames
I0925 22:22:39.339818 28238 net.cpp:91] Creating Layer reshape_stage_indicator
I0925 22:22:39.339826 28244 net.cpp:91] Creating Layer reshape_frames
I0925 22:22:39.339828 28210 net.cpp:399] reshape_frames -> embedded_input_frames
I0925 22:22:39.339828 28200 layer_factory.hpp:77] Creating layer reshape_frames
I0925 22:22:39.339851 28244 net.cpp:425] reshape_frames <- embedded_in_frames
I0925 22:22:39.339830 28238 net.cpp:425] reshape_stage_indicator <- stage_indicator
I0925 22:22:39.339864 28200 net.cpp:91] Creating Layer reshape_frames
I0925 22:22:39.339869 28244 net.cpp:399] reshape_frames -> embedded_input_frames
I0925 22:22:39.339874 28200 net.cpp:425] reshape_frames <- embedded_in_frames
I0925 22:22:39.339879 28238 net.cpp:399] reshape_stage_indicator -> reshaped_stage_indicator
I0925 22:22:39.339893 28200 net.cpp:399] reshape_frames -> embedded_input_frames
I0925 22:22:39.342195 28244 net.cpp:141] Setting up reshape_frames
I0925 22:22:39.342211 28244 net.cpp:148] Top shape: 1 1 500 (500)
I0925 22:22:39.342217 28244 net.cpp:156] Memory required for data: 20404
I0925 22:22:39.342226 28244 layer_factory.hpp:77] Creating layer reshape_stage_indicator
I0925 22:22:39.342226 28238 net.cpp:141] Setting up reshape_stage_indicator
I0925 22:22:39.342242 28244 net.cpp:91] Creating Layer reshape_stage_indicator
I0925 22:22:39.342227 28210 net.cpp:141] Setting up reshape_frames
I0925 22:22:39.342258 28200 net.cpp:141] Setting up reshape_frames
I0925 22:22:39.342247 28238 net.cpp:148] Top shape: 1 1 1 (1)
I0925 22:22:39.342250 28244 net.cpp:425] reshape_stage_indicator <- stage_indicator
I0925 22:22:39.342281 28238 net.cpp:156] Memory required for data: 20408
I0925 22:22:39.342293 28238 layer_factory.hpp:77] Creating layer embedding
I0925 22:22:39.342300 28210 net.cpp:148] Top shape: 1 1 500 (500)
I0925 22:22:39.342278 28200 net.cpp:148] Top shape: 1 1 500 (500)
I0925 22:22:39.342321 28210 net.cpp:156] Memory required for data: 20404
I0925 22:22:39.342324 28244 net.cpp:399] reshape_stage_indicator -> reshaped_stage_indicator
I0925 22:22:39.342329 28200 net.cpp:156] Memory required for data: 20404
I0925 22:22:39.342336 28210 layer_factory.hpp:77] Creating layer reshape_stage_indicator
I0925 22:22:39.342340 28200 layer_factory.hpp:77] Creating layer reshape_stage_indicator
I0925 22:22:39.342356 28200 net.cpp:91] Creating Layer reshape_stage_indicator
I0925 22:22:39.342360 28238 net.cpp:91] Creating Layer embedding
I0925 22:22:39.342367 28210 net.cpp:91] Creating Layer reshape_stage_indicator
I0925 22:22:39.342372 28238 net.cpp:425] embedding <- input_sentence
I0925 22:22:39.342368 28200 net.cpp:425] reshape_stage_indicator <- stage_indicator
I0925 22:22:39.342387 28210 net.cpp:425] reshape_stage_indicator <- stage_indicator
I0925 22:22:39.342399 28200 net.cpp:399] reshape_stage_indicator -> reshaped_stage_indicator
I0925 22:22:39.342388 28238 net.cpp:399] embedding -> embedded_input_sentence
I0925 22:22:39.342417 28210 net.cpp:399] reshape_stage_indicator -> reshaped_stage_indicator
I0925 22:22:39.344249 28244 net.cpp:141] Setting up reshape_stage_indicator
I0925 22:22:39.344266 28244 net.cpp:148] Top shape: 1 1 1 (1)
I0925 22:22:39.344274 28244 net.cpp:156] Memory required for data: 20408
I0925 22:22:39.344282 28244 layer_factory.hpp:77] Creating layer embedding
I0925 22:22:39.344296 28244 net.cpp:91] Creating Layer embedding
I0925 22:22:39.344298 28200 net.cpp:141] Setting up reshape_stage_indicator
I0925 22:22:39.344303 28244 net.cpp:425] embedding <- input_sentence
I0925 22:22:39.344328 28200 net.cpp:148] Top shape: 1 1 1 (1)
I0925 22:22:39.344339 28200 net.cpp:156] Memory required for data: 20408
I0925 22:22:39.344348 28200 layer_factory.hpp:77] Creating layer embedding
I0925 22:22:39.344353 28244 net.cpp:399] embedding -> embedded_input_sentence
I0925 22:22:39.344364 28200 net.cpp:91] Creating Layer embedding
I0925 22:22:39.344373 28200 net.cpp:425] embedding <- input_sentence
I0925 22:22:39.344389 28200 net.cpp:399] embedding -> embedded_input_sentence
I0925 22:22:39.387807 28210 net.cpp:141] Setting up reshape_stage_indicator
I0925 22:22:39.387868 28210 net.cpp:148] Top shape: 1 1 1 (1)
I0925 22:22:39.387876 28210 net.cpp:156] Memory required for data: 20408
I0925 22:22:39.387888 28210 layer_factory.hpp:77] Creating layer embedding
I0925 22:22:39.387914 28210 net.cpp:91] Creating Layer embedding
I0925 22:22:39.387923 28210 net.cpp:425] embedding <- input_sentence
I0925 22:22:39.387939 28210 net.cpp:399] embedding -> embedded_input_sentence
I0925 22:22:39.556515 28204 net.cpp:141] Setting up embedding
I0925 22:22:39.556548 28206 net.cpp:141] Setting up embedding
I0925 22:22:39.556571 28206 net.cpp:148] Top shape: 1 1 500 (500)
I0925 22:22:39.556571 28204 net.cpp:148] Top shape: 1 1 500 (500)
I0925 22:22:39.556581 28206 net.cpp:156] Memory required for data: 22408
I0925 22:22:39.556582 28204 net.cpp:156] Memory required for data: 22408
I0925 22:22:39.556607 28206 layer_factory.hpp:77] Creating layer lstm1
I0925 22:22:39.556607 28204 layer_factory.hpp:77] Creating layer lstm1
I0925 22:22:39.556648 28204 net.cpp:91] Creating Layer lstm1
I0925 22:22:39.556653 28206 net.cpp:91] Creating Layer lstm1
…
I0925 22:22:39.556756 28206 recurrent_layer.cpp:20] Initializing recurrent layer: assuming input batch contains 1 timesteps of 1 independent streams.
I0925 22:22:39.557271 28206 net.cpp:49] Initializing net from parameters: 
layer {
  name: "lstm1_"
  type: "Input"
  top: "x"
  top: "cont"
  input_param {
    shape {
      dim: 1
      dim: 1
      dim: 500
    }
    shape {
      dim: 1
      dim: 1
    }
  }
}
layer {
  name: "lstm1_"
  type: "Input"
  top: "c_0"
  top: "h_0"
  input_param {
    shape {
      dim: 1
      dim: 1
      dim: 1000
    }
    shape {
      dim: 1
      dim: 1
      dim: 1000
    }
  }
}
layer {
  name: "lstm1_cont_slice"
  type: "Slice"
  bottom: "cont"
  top: "cont_1"
  slice_param {
    axis: 0
  }
}
layer {
  name: "lstm1_x_transform"
  type: "InnerProduct"
  bottom: "x"
  top: "W_xc_x"
  param {
    name: "W_xc"
  }
  param {
    name: "b_c"
  }
  propagate_down: true
  inner_product_param {
    num_output: 4000
    bias_term: true
    weight_filler {
      type: "uniform"
      min: -0.08
      max: 0.08
    }
    bias_filler {
      type: "constant"
      value: 0
    }
    axis: 2
  }
}
layer {
  name: "lstm1_W_xc_x_slice"
  type: "Slice"
  bottom: "W_xc_x"
  top: "W_xc_x_1"
  slice_param {
    axis: 0
  }
}
layer {
  name: "lstm1_h_conted_0"
  type: "Scale"
  bottom: "h_0"
  bottom: "cont_1"
  top: "h_conted_0"
  scale_param {
    axis: 0
  }
}
layer {
  name: "lstm1_transform_1"
  type: "InnerProduct"
  bottom: "h_conted_0"
  top: "W_hc_h_0"
  param {
    name: "W_hc"
  }
  inner_product_param {
    num_output: 4000
    bias_term: false
    weight_filler {
      type: "uniform"
      min: -0.08
      max: 0.08
    }
    axis: 2
  }
}
layer {
  name: "lstm1_gate_input_1"
  type: "Eltwise"
  bottom: "W_hc_h_0"
  bottom: "W_xc_x_1"
  top: "gate_input_1"
  eltwise_param {
    operation: SUM
  }
}
layer {
  name: "lstm1_unit_1"
  type: "LSTMUnit"
  bottom: "c_0"
  bottom: "gate_input_1"
  bottom: "cont_1"
  top: "c_1"
  top: "h_1"
}
layer {
  name: "lstm1_"
  type: "Split"
  bottom: "c_1"
  top: "c_T"
}
layer {
  name: "lstm1_h_concat"
  type: "Concat"
  bottom: "h_1"
  top: "h"
  concat_param {
    axis: 0
  }
}
layer {
  name: "h_pseudoloss"
  type: "Reduction"
  bottom: "h"
  top: "h_pseudoloss"
  loss_weight: 1
}
I0925 22:22:39.557274 28204 net.cpp:49] Initializing net from parameters: 
layer {
  name: "lstm1_"
  type: "Input"
  top: "x"
  top: "cont"
  input_param {
    shape {
      dim: 1
      dim: 1
      dim: 500
    }
    shape {
      dim: 1
      dim: 1
    }
  }
}
layer {
  name: "lstm1_"
  type: "Input"
  top: "c_0"
  top: "h_0"
  input_param {
    shape {
      dim: 1
      dim: 1
      dim: 1000
    }
    shape {
      dim: 1
      dim: 1
      dim: 1000
    }
  }
}
layer {
  name: "lstm1_cont_slice"
  type: "Slice"
  bottom: "cont"
  top: "cont_1"
  slice_param {
    axis: 0
  }
}
layer {
  name: "lstm1_x_transform"
  type: "InnerProduct"
  bottom: "x"
  top: "W_xc_x"
  param {
    name: "W_xc"
  }
  param {
    name: "b_c"
  }
  propagate_down: true
  inner_product_param {
    num_output: 4000
    bias_term: true
    weight_filler {
      type: "uniform"
      min: -0.08
      max: 0.08
    }
    bias_filler {
      type: "constant"
      value: 0
    }
    axis: 2
  }
}
layer {
  name: "lstm1_W_xc_x_slice"
  type: "Slice"
  bottom: "W_xc_x"
  top: "W_xc_x_1"
  slice_param {
    axis: 0
  }
}
layer {
  name: "lstm1_h_conted_0"
  type: "Scale"
  bottom: "h_0"
  bottom: "cont_1"
  top: "h_conted_0"
  scale_param {
    axis: 0
  }
}
layer {
  name: "lstm1_transform_1"
  type: "InnerProduct"
  bottom: "h_conted_0"
  top: "W_hc_h_0"
  param {
    name: "W_hc"
  }
  inner_product_param {
    num_output: 4000
    bias_term: false
    weight_filler {
      type: "uniform"
      min: -0.08
      max: 0.08
    }
    axis: 2
  }
}
layer {
  name: "lstm1_gate_input_1"
  type: "Eltwise"
  bottom: "W_hc_h_0"
  bottom: "W_xc_x_1"
  top: "gate_input_1"
  eltwise_param {
    operation: SUM
  }
}
layer {
  name: "lstm1_unit_1"
  type: "LSTMUnit"
  bottom: "c_0"
  bottom: "gate_input_1"
  bottom: "cont_1"
  top: "c_1"
  top: "h_1"
}
layer {
  name: "lstm1_"
  type: "Split"
  bottom: "c_1"
  top: "c_T"
}
layer {
  name: "lstm1_h_concat"
  type: "Concat"
  bottom: "h_1"
  top: "h"
  concat_param {
    axis: 0
  }
}
layer {
  name: "h_pseudoloss"
  type: "Reduction"
  bottom: "h"
  top: "h_pseudoloss"
  loss_weight: 1
}
I0925 22:22:39.557401 28206 layer_factory.hpp:77] Creating layer lstm1_
I0925 22:22:39.557420 28206 net.cpp:91] Creating Layer lstm1_
I0925 22:22:39.557420 28204 layer_factory.hpp:77] Creating layer lstm1_
I0925 22:22:39.557430 28206 net.cpp:399] lstm1_ -> x
I0925 22:22:39.557442 28204 net.cpp:91] Creating Layer lstm1_
I0925 22:22:39.557446 28206 net.cpp:399] lstm1_ -> cont
I0925 22:22:39.557457 28204 net.cpp:399] lstm1_ -> x
I0925 22:22:39.557477 28204 net.cpp:399] lstm1_ -> cont
I0925 22:22:39.557538 28206 net.cpp:141] Setting up lstm1_
I0925 22:22:39.557552 28206 net.cpp:148] Top shape: 1 1 500 (500)
I0925 22:22:39.557561 28206 net.cpp:148] Top shape: 1 1 (1)
I0925 22:22:39.557569 28206 net.cpp:156] Memory required for data: 2004
I0925 22:22:39.557575 28206 layer_factory.hpp:77] Creating layer lstm1_
I0925 22:22:39.557591 28206 net.cpp:91] Creating Layer lstm1_
I0925 22:22:39.557601 28206 net.cpp:399] lstm1_ -> c_0
I0925 22:22:39.557620 28206 net.cpp:399] lstm1_ -> h_0
I0925 22:22:39.557624 28204 net.cpp:141] Setting up lstm1_
I0925 22:22:39.557644 28204 net.cpp:148] Top shape: 1 1 500 (500)
I0925 22:22:39.557657 28204 net.cpp:148] Top shape: 1 1 (1)
I0925 22:22:39.557665 28204 net.cpp:156] Memory required for data: 2004
I0925 22:22:39.557674 28204 layer_factory.hpp:77] Creating layer lstm1_
I0925 22:22:39.557690 28204 net.cpp:91] Creating Layer lstm1_
I0925 22:22:39.557693 28206 net.cpp:141] Setting up lstm1_
I0925 22:22:39.557708 28206 net.cpp:148] Top shape: 1 1 1000 (1000)
I0925 22:22:39.557708 28204 net.cpp:399] lstm1_ -> c_0
I0925 22:22:39.557716 28206 net.cpp:148] Top shape: 1 1 1000 (1000)
I0925 22:22:39.557723 28206 net.cpp:156] Memory required for data: 10004
I0925 22:22:39.557730 28206 layer_factory.hpp:77] Creating layer lstm1_cont_slice
I0925 22:22:39.557730 28204 net.cpp:399] lstm1_ -> h_0
I0925 22:22:39.557745 28206 net.cpp:91] Creating Layer lstm1_cont_slice
I0925 22:22:39.557754 28206 net.cpp:425] lstm1_cont_slice <- cont
I0925 22:22:39.557765 28206 net.cpp:399] lstm1_cont_slice -> cont_1
I0925 22:22:39.558064 28206 net.cpp:141] Setting up lstm1_cont_slice
I0925 22:22:39.558079 28206 net.cpp:148] Top shape: 1 1 (1)
I0925 22:22:39.558086 28206 net.cpp:156] Memory required for data: 10008
I0925 22:22:39.558094 28206 layer_factory.hpp:77] Creating layer cont_1_lstm1_cont_slice_0_split
I0925 22:22:39.558104 28206 net.cpp:91] Creating Layer cont_1_lstm1_cont_slice_0_split
I0925 22:22:39.558111 28206 net.cpp:425] cont_1_lstm1_cont_slice_0_split <- cont_1
I0925 22:22:39.558114 28204 net.cpp:141] Setting up lstm1_
I0925 22:22:39.558125 28206 net.cpp:399] cont_1_lstm1_cont_slice_0_split -> cont_1_lstm1_cont_slice_0_split_0
I0925 22:22:39.558133 28204 net.cpp:148] Top shape: 1 1 1000 (1000)
I0925 22:22:39.558137 28206 net.cpp:399] cont_1_lstm1_cont_slice_0_split -> cont_1_lstm1_cont_slice_0_split_1
I0925 22:22:39.558146 28204 net.cpp:148] Top shape: 1 1 1000 (1000)
I0925 22:22:39.558154 28204 net.cpp:156] Memory required for data: 10004
I0925 22:22:39.558162 28204 layer_factory.hpp:77] Creating layer lstm1_cont_slice
I0925 22:22:39.558176 28204 net.cpp:91] Creating Layer lstm1_cont_slice
I0925 22:22:39.558184 28204 net.cpp:425] lstm1_cont_slice <- cont
I0925 22:22:39.558203 28204 net.cpp:399] lstm1_cont_slice -> cont_1
I0925 22:22:39.558325 28206 net.cpp:141] Setting up cont_1_lstm1_cont_slice_0_split
I0925 22:22:39.558338 28206 net.cpp:148] Top shape: 1 1 (1)
I0925 22:22:39.558347 28206 net.cpp:148] Top shape: 1 1 (1)
I0925 22:22:39.558354 28206 net.cpp:156] Memory required for data: 10016
I0925 22:22:39.558362 28206 layer_factory.hpp:77] Creating layer lstm1_x_transform
I0925 22:22:39.558367 28204 net.cpp:141] Setting up lstm1_cont_slice
I0925 22:22:39.558378 28206 net.cpp:91] Creating Layer lstm1_x_transform
I0925 22:22:39.558387 28206 net.cpp:425] lstm1_x_transform <- x
I0925 22:22:39.558387 28204 net.cpp:148] Top shape: 1 1 (1)
I0925 22:22:39.558398 28204 net.cpp:156] Memory required for data: 10008
I0925 22:22:39.558401 28206 net.cpp:399] lstm1_x_transform -> W_xc_x
I0925 22:22:39.558408 28204 layer_factory.hpp:77] Creating layer cont_1_lstm1_cont_slice_0_split
I0925 22:22:39.558425 28204 net.cpp:91] Creating Layer cont_1_lstm1_cont_slice_0_split
I0925 22:22:39.558436 28204 net.cpp:425] cont_1_lstm1_cont_slice_0_split <- cont_1
I0925 22:22:39.558450 28204 net.cpp:399] cont_1_lstm1_cont_slice_0_split -> cont_1_lstm1_cont_slice_0_split_0
I0925 22:22:39.558467 28204 net.cpp:399] cont_1_lstm1_cont_slice_0_split -> cont_1_lstm1_cont_slice_0_split_1
I0925 22:22:39.563999 28204 net.cpp:141] Setting up cont_1_lstm1_cont_slice_0_split
I0925 22:22:39.564052 28204 net.cpp:148] Top shape: 1 1 (1)
I0925 22:22:39.564069 28204 net.cpp:148] Top shape: 1 1 (1)
I0925 22:22:39.564079 28204 net.cpp:156] Memory required for data: 10016
I0925 22:22:39.564091 28204 layer_factory.hpp:77] Creating layer lstm1_x_transform
I0925 22:22:39.564126 28204 net.cpp:91] Creating Layer lstm1_x_transform
I0925 22:22:39.564138 28204 net.cpp:425] lstm1_x_transform <- x
I0925 22:22:39.564162 28204 net.cpp:399] lstm1_x_transform -> W_xc_x
I0925 22:22:39.585739 28218 net.cpp:141] Setting up embedding
I0925 22:22:39.585798 28218 net.cpp:148] Top shape: 1 1 500 (500)
I0925 22:22:39.585813 28218 net.cpp:156] Memory required for data: 22408
I0925 22:22:39.585844 28218 layer_factory.hpp:77] Creating layer lstm1
I0925 22:22:39.585877 28218 net.cpp:91] Creating Layer lstm1
I0925 22:22:39.585893 28218 net.cpp:425] lstm1 <- embedded_input_frames
I0925 22:22:39.585911 28218 net.cpp:425] lstm1 <- cont_sentence_input_1_split_0
I0925 22:22:39.585934 28218 net.cpp:399] lstm1 -> lstm1
I0925 22:22:39.585966 28218 recurrent_layer.cpp:20] Initializing recurrent layer: assuming input batch contains 1 timesteps of 1 independent streams.
I0925 22:22:39.586503 28218 net.cpp:49] Initializing net from parameters: 
layer {
  name: "lstm1_"
  type: "Input"
  top: "x"
  top: "cont"
  input_param {
    shape {
      dim: 1
      dim: 1
      dim: 500
    }
    shape {
      dim: 1
      dim: 1
    }
  }
}
layer {
  name: "lstm1_"
  type: "Input"
  top: "c_0"
  top: "h_0"
  input_param {
    shape {
      dim: 1
      dim: 1
      dim: 1000
    }
    shape {
      dim: 1
      dim: 1
      dim: 1000
    }
  }
}
layer {
  name: "lstm1_cont_slice"
  type: "Slice"
  bottom: "cont"
  top: "cont_1"
  slice_param {
    axis: 0
  }
}
layer {
  name: "lstm1_x_transform"
  type: "InnerProduct"
  bottom: "x"
  top: "W_xc_x"
  param {
    name: "W_xc"
  }
  param {
    name: "b_c"
  }
  propagate_down: true
  inner_product_param {
    num_output: 4000
    bias_term: true
    weight_filler {
      type: "uniform"
      min: -0.08
      max: 0.08
    }
    bias_filler {
      type: "constant"
      value: 0
    }
    axis: 2
  }
}
layer {
  name: "lstm1_W_xc_x_slice"
  type: "Slice"
  bottom: "W_xc_x"
  top: "W_xc_x_1"
  slice_param {
    axis: 0
  }
}
layer {
  name: "lstm1_h_conted_0"
  type: "Scale"
  bottom: "h_0"
  bottom: "cont_1"
  top: "h_conted_0"
  scale_param {
    axis: 0
  }
}
layer {
  name: "lstm1_transform_1"
  type: "InnerProduct"
  bottom: "h_conted_0"
  top: "W_hc_h_0"
  param {
    name: "W_hc"
  }
  inner_product_param {
    num_output: 4000
    bias_term: false
    weight_filler {
      type: "uniform"
      min: -0.08
      max: 0.08
    }
    axis: 2
  }
}
layer {
  name: "lstm1_gate_input_1"
  type: "Eltwise"
  bottom: "W_hc_h_0"
  bottom: "W_xc_x_1"
  top: "gate_input_1"
  eltwise_param {
    operation: SUM
  }
}
layer {
  name: "lstm1_unit_1"
  type: "LSTMUnit"
  bottom: "c_0"
  bottom: "gate_input_1"
  bottom: "cont_1"
  top: "c_1"
  top: "h_1"
}
layer {
  name: "lstm1_"
  type: "Split"
  bottom: "c_1"
  top: "c_T"
}
layer {
  name: "lstm1_h_concat"
  type: "Concat"
  bottom: "h_1"
  top: "h"
  concat_param {
    axis: 0
  }
}
layer {
  name: "h_pseudoloss"
  type: "Reduction"
  bottom: "h"
  top: "h_pseudoloss"
  loss_weight: 1
}
I0925 22:22:39.586710 28218 layer_factory.hpp:77] Creating layer lstm1_
I0925 22:22:39.586737 28218 net.cpp:91] Creating Layer lstm1_
I0925 22:22:39.586753 28218 net.cpp:399] lstm1_ -> x
I0925 22:22:39.586779 28218 net.cpp:399] lstm1_ -> cont
I0925 22:22:39.587807 28218 net.cpp:141] Setting up lstm1_
I0925 22:22:39.587831 28218 net.cpp:148] Top shape: 1 1 500 (500)
I0925 22:22:39.587846 28218 net.cpp:148] Top shape: 1 1 (1)
I0925 22:22:39.587855 28218 net.cpp:156] Memory required for data: 2004
I0925 22:22:39.587867 28218 layer_factory.hpp:77] Creating layer lstm1_
I0925 22:22:39.587895 28218 net.cpp:91] Creating Layer lstm1_
I0925 22:22:39.587919 28218 net.cpp:399] lstm1_ -> c_0
I0925 22:22:39.587944 28218 net.cpp:399] lstm1_ -> h_0
I0925 22:22:39.590942 28218 net.cpp:141] Setting up lstm1_
I0925 22:22:39.590972 28218 net.cpp:148] Top shape: 1 1 1000 (1000)
I0925 22:22:39.590988 28218 net.cpp:148] Top shape: 1 1 1000 (1000)
I0925 22:22:39.590998 28218 net.cpp:156] Memory required for data: 10004
I0925 22:22:39.591009 28218 layer_factory.hpp:77] Creating layer lstm1_cont_slice
I0925 22:22:39.591032 28218 net.cpp:91] Creating Layer lstm1_cont_slice
I0925 22:22:39.591047 28218 net.cpp:425] lstm1_cont_slice <- cont
I0925 22:22:39.591069 28218 net.cpp:399] lstm1_cont_slice -> cont_1
I0925 22:22:39.597831 28206 net.cpp:141] Setting up lstm1_x_transform
I0925 22:22:39.597879 28206 net.cpp:148] Top shape: 1 1 4000 (4000)
I0925 22:22:39.597888 28206 net.cpp:156] Memory required for data: 26016
I0925 22:22:39.597919 28206 layer_factory.hpp:77] Creating layer lstm1_W_xc_x_slice
I0925 22:22:39.597940 28206 net.cpp:91] Creating Layer lstm1_W_xc_x_slice
I0925 22:22:39.597949 28206 net.cpp:425] lstm1_W_xc_x_slice <- W_xc_x
I0925 22:22:39.597966 28206 net.cpp:399] lstm1_W_xc_x_slice -> W_xc_x_1
I0925 22:22:39.598021 28206 net.cpp:141] Setting up lstm1_W_xc_x_slice
I0925 22:22:39.598034 28206 net.cpp:148] Top shape: 1 1 4000 (4000)
I0925 22:22:39.598042 28206 net.cpp:156] Memory required for data: 42016
I0925 22:22:39.598048 28206 layer_factory.hpp:77] Creating layer lstm1_h_conted_0
I0925 22:22:39.598062 28206 net.cpp:91] Creating Layer lstm1_h_conted_0
I0925 22:22:39.598069 28206 net.cpp:425] lstm1_h_conted_0 <- h_0
I0925 22:22:39.598078 28206 net.cpp:425] lstm1_h_conted_0 <- cont_1_lstm1_cont_slice_0_split_0
I0925 22:22:39.598093 28206 net.cpp:399] lstm1_h_conted_0 -> h_conted_0
I0925 22:22:39.598235 28206 net.cpp:141] Setting up lstm1_h_conted_0
I0925 22:22:39.598248 28206 net.cpp:148] Top shape: 1 1 1000 (1000)
I0925 22:22:39.598255 28206 net.cpp:156] Memory required for data: 46016
I0925 22:22:39.598263 28206 layer_factory.hpp:77] Creating layer lstm1_transform_1
I0925 22:22:39.598279 28206 net.cpp:91] Creating Layer lstm1_transform_1
I0925 22:22:39.598287 28206 net.cpp:425] lstm1_transform_1 <- h_conted_0
I0925 22:22:39.598301 28206 net.cpp:399] lstm1_transform_1 -> W_hc_h_0
I0925 22:22:39.609113 28204 net.cpp:141] Setting up lstm1_x_transform
I0925 22:22:39.609164 28204 net.cpp:148] Top shape: 1 1 4000 (4000)
I0925 22:22:39.609172 28204 net.cpp:156] Memory required for data: 26016
I0925 22:22:39.609203 28204 layer_factory.hpp:77] Creating layer lstm1_W_xc_x_slice
I0925 22:22:39.609225 28204 net.cpp:91] Creating Layer lstm1_W_xc_x_slice
I0925 22:22:39.609236 28204 net.cpp:425] lstm1_W_xc_x_slice <- W_xc_x
I0925 22:22:39.609249 28204 net.cpp:399] lstm1_W_xc_x_slice -> W_xc_x_1
I0925 22:22:39.609310 28204 net.cpp:141] Setting up lstm1_W_xc_x_slice
I0925 22:22:39.609324 28204 net.cpp:148] Top shape: 1 1 4000 (4000)
I0925 22:22:39.609331 28204 net.cpp:156] Memory required for data: 42016
I0925 22:22:39.609339 28204 layer_factory.hpp:77] Creating layer lstm1_h_conted_0
I0925 22:22:39.609354 28204 net.cpp:91] Creating Layer lstm1_h_conted_0
I0925 22:22:39.609362 28204 net.cpp:425] lstm1_h_conted_0 <- h_0
I0925 22:22:39.609371 28204 net.cpp:425] lstm1_h_conted_0 <- cont_1_lstm1_cont_slice_0_split_0
I0925 22:22:39.609382 28204 net.cpp:399] lstm1_h_conted_0 -> h_conted_0
I0925 22:22:39.609508 28204 net.cpp:141] Setting up lstm1_h_conted_0
I0925 22:22:39.609521 28204 net.cpp:148] Top shape: 1 1 1000 (1000)
I0925 22:22:39.609529 28204 net.cpp:156] Memory required for data: 46016
I0925 22:22:39.609535 28204 layer_factory.hpp:77] Creating layer lstm1_transform_1
I0925 22:22:39.609552 28204 net.cpp:91] Creating Layer lstm1_transform_1
I0925 22:22:39.609560 28204 net.cpp:425] lstm1_transform_1 <- h_conted_0
I0925 22:22:39.609572 28204 net.cpp:399] lstm1_transform_1 -> W_hc_h_0
I0925 22:22:39.617975 28238 net.cpp:141] Setting up embedding
I0925 22:22:39.617991 28218 net.cpp:141] Setting up lstm1_cont_slice
I0925 22:22:39.618043 28238 net.cpp:148] Top shape: 1 1 500 (500)
I0925 22:22:39.618055 28218 net.cpp:148] Top shape: 1 1 (1)
I0925 22:22:39.618055 28238 net.cpp:156] Memory required for data: 22408
I0925 22:22:39.618083 28218 net.cpp:156] Memory required for data: 10008
I0925 22:22:39.618093 28218 layer_factory.hpp:77] Creating layer cont_1_lstm1_cont_slice_0_split
I0925 22:22:39.618108 28238 layer_factory.hpp:77] Creating layer lstm1
I0925 22:22:39.618120 28218 net.cpp:91] Creating Layer cont_1_lstm1_cont_slice_0_split
…
I0925 22:22:39.618214 28238 recurrent_layer.cpp:20] Initializing recurrent layer: assuming input batch contains 1 timesteps of 1 independent streams.
I0925 22:22:39.618742 28238 net.cpp:49] Initializing net from parameters: 
layer {
  name: "lstm1_"
  type: "Input"
  top: "x"
  top: "cont"
  input_param {
    shape {
      dim: 1
      dim: 1
      dim: 500
    }
    shape {
      dim: 1
      dim: 1
    }
  }
}
layer {
  name: "lstm1_"
  type: "Input"
  top: "c_0"
  top: "h_0"
  input_param {
    shape {
      dim: 1
      dim: 1
      dim: 1000
    }
    shape {
      dim: 1
      dim: 1
      dim: 1000
    }
  }
}
layer {
  name: "lstm1_cont_slice"
  type: "Slice"
  bottom: "cont"
  top: "cont_1"
  slice_param {
    axis: 0
  }
}
layer {
  name: "lstm1_x_transform"
  type: "InnerProduct"
  bottom: "x"
  top: "W_xc_x"
  param {
    name: "W_xc"
  }
  param {
    name: "b_c"
  }
  propagate_down: true
  inner_product_param {
    num_output: 4000
    bias_term: true
    weight_filler {
      type: "uniform"
      min: -0.08
      max: 0.08
    }
    bias_filler {
      type: "constant"
      value: 0
    }
    axis: 2
  }
}
layer {
  name: "lstm1_W_xc_x_slice"
  type: "Slice"
  bottom: "W_xc_x"
  top: "W_xc_x_1"
  slice_param {
    axis: 0
  }
}
layer {
  name: "lstm1_h_conted_0"
  type: "Scale"
  bottom: "h_0"
  bottom: "cont_1"
  top: "h_conted_0"
  scale_param {
    axis: 0
  }
}
layer {
  name: "lstm1_transform_1"
  type: "InnerProduct"
  bottom: "h_conted_0"
  top: "W_hc_h_0"
  param {
    name: "W_hc"
  }
  inner_product_param {
    num_output: 4000
    bias_term: false
    weight_filler {
      type: "uniform"
      min: -0.08
      max: 0.08
    }
    axis: 2
  }
}
layer {
  name: "lstm1_gate_input_1"
  type: "Eltwise"
  bottom: "W_hc_h_0"
  bottom: "W_xc_x_1"
  top: "gate_input_1"
  eltwise_param {
    operation: SUM
  }
}
layer {
  name: "lstm1_unit_1"
  type: "LSTMUnit"
  bottom: "c_0"
  bottom: "gate_input_1"
  bottom: "cont_1"
  top: "c_1"
  top: "h_1"
}
layer {
  name: "lstm1_"
  type: "Split"
  bottom: "c_1"
  top: "c_T"
}
layer {
  name: "lstm1_h_concat"
  type: "Concat"
  bottom: "h_1"
  top: "h"
  concat_param {
    axis: 0
  }
}
layer {
  name: "h_pseudoloss"
  type: "Reduction"
  bottom: "h"
  top: "h_pseudoloss"
  loss_weight: 1
}
I0925 22:22:39.618945 28238 layer_factory.hpp:77] Creating layer lstm1_
I0925 22:22:39.618980 28238 net.cpp:91] Creating Layer lstm1_
I0925 22:22:39.618989 28238 net.cpp:399] lstm1_ -> x
I0925 22:22:39.619009 28238 net.cpp:399] lstm1_ -> cont
I0925 22:22:39.628725 28218 net.cpp:141] Setting up cont_1_lstm1_cont_slice_0_split
I0925 22:22:39.628746 28238 net.cpp:141] Setting up lstm1_
I0925 22:22:39.628782 28218 net.cpp:148] Top shape: 1 1 (1)
I0925 22:22:39.628782 28238 net.cpp:148] Top shape: 1 1 500 (500)
I0925 22:22:39.628799 28218 net.cpp:148] Top shape: 1 1 (1)
I0925 22:22:39.628805 28238 net.cpp:148] Top shape: 1 1 (1)
I0925 22:22:39.628808 28218 net.cpp:156] Memory required for data: 10016
I0925 22:22:39.628813 28238 net.cpp:156] Memory required for data: 2004
I0925 22:22:39.628821 28238 layer_factory.hpp:77] Creating layer lstm1_
I0925 22:22:39.628823 28218 layer_factory.hpp:77] Creating layer lstm1_x_transform
I0925 22:22:39.628849 28218 net.cpp:91] Creating Layer lstm1_x_transform
I0925 22:22:39.628860 28218 net.cpp:425] lstm1_x_transform <- x
I0925 22:22:39.628880 28218 net.cpp:399] lstm1_x_transform -> W_xc_x
I0925 22:22:39.628900 28238 net.cpp:91] Creating Layer lstm1_
I0925 22:22:39.628921 28238 net.cpp:399] lstm1_ -> c_0
I0925 22:22:39.628940 28238 net.cpp:399] lstm1_ -> h_0
I0925 22:22:39.647589 28238 net.cpp:141] Setting up lstm1_
I0925 22:22:39.647653 28238 net.cpp:148] Top shape: 1 1 1000 (1000)
I0925 22:22:39.647670 28238 net.cpp:148] Top shape: 1 1 1000 (1000)
I0925 22:22:39.647680 28238 net.cpp:156] Memory required for data: 10004
I0925 22:22:39.647692 28238 layer_factory.hpp:77] Creating layer lstm1_cont_slice
I0925 22:22:39.647717 28238 net.cpp:91] Creating Layer lstm1_cont_slice
I0925 22:22:39.647730 28238 net.cpp:425] lstm1_cont_slice <- cont
I0925 22:22:39.647748 28238 net.cpp:399] lstm1_cont_slice -> cont_1
I0925 22:22:39.653823 28238 net.cpp:141] Setting up lstm1_cont_slice
I0925 22:22:39.653879 28238 net.cpp:148] Top shape: 1 1 (1)
I0925 22:22:39.653889 28238 net.cpp:156] Memory required for data: 10008
I0925 22:22:39.653903 28238 layer_factory.hpp:77] Creating layer cont_1_lstm1_cont_slice_0_split
I0925 22:22:39.653924 28238 net.cpp:91] Creating Layer cont_1_lstm1_cont_slice_0_split
I0925 22:22:39.653936 28238 net.cpp:425] cont_1_lstm1_cont_slice_0_split <- cont_1
I0925 22:22:39.653955 28238 net.cpp:399] cont_1_lstm1_cont_slice_0_split -> cont_1_lstm1_cont_slice_0_split_0
I0925 22:22:39.653975 28238 net.cpp:399] cont_1_lstm1_cont_slice_0_split -> cont_1_lstm1_cont_slice_0_split_1
I0925 22:22:39.654029 28206 net.cpp:141] Setting up lstm1_transform_1
I0925 22:22:39.654079 28206 net.cpp:148] Top shape: 1 1 4000 (4000)
I0925 22:22:39.654089 28206 net.cpp:156] Memory required for data: 62016
I0925 22:22:39.654119 28238 net.cpp:141] Setting up cont_1_lstm1_cont_slice_0_split
I0925 22:22:39.657832 28238 net.cpp:148] Top shape: 1 1 (1)
I0925 22:22:39.657838 28206 layer_factory.hpp:77] Creating layer lstm1_gate_input_1
I0925 22:22:39.657845 28238 net.cpp:148] Top shape: 1 1 (1)
I0925 22:22:39.657855 28238 net.cpp:156] Memory required for data: 10016
I0925 22:22:39.657866 28238 layer_factory.hpp:77] Creating layer lstm1_x_transform
I0925 22:22:39.657896 28238 net.cpp:91] Creating Layer lstm1_x_transform
I0925 22:22:39.657905 28238 net.cpp:425] lstm1_x_transform <- x
I0925 22:22:39.657955 28238 net.cpp:399] lstm1_x_transform -> W_xc_x
I0925 22:22:39.658718 28206 net.cpp:91] Creating Layer lstm1_gate_input_1
I0925 22:22:39.658738 28206 net.cpp:425] lstm1_gate_input_1 <- W_hc_h_0
I0925 22:22:39.658751 28206 net.cpp:425] lstm1_gate_input_1 <- W_xc_x_1
I0925 22:22:39.658764 28206 net.cpp:399] lstm1_gate_input_1 -> gate_input_1
I0925 22:22:39.659757 28204 net.cpp:141] Setting up lstm1_transform_1
I0925 22:22:39.659783 28204 net.cpp:148] Top shape: 1 1 4000 (4000)
I0925 22:22:39.659791 28204 net.cpp:156] Memory required for data: 62016
I0925 22:22:39.659806 28204 layer_factory.hpp:77] Creating layer lstm1_gate_input_1
I0925 22:22:39.659826 28204 net.cpp:91] Creating Layer lstm1_gate_input_1
I0925 22:22:39.659835 28204 net.cpp:425] lstm1_gate_input_1 <- W_hc_h_0
I0925 22:22:39.659845 28204 net.cpp:425] lstm1_gate_input_1 <- W_xc_x_1
I0925 22:22:39.659857 28204 net.cpp:399] lstm1_gate_input_1 -> gate_input_1
I0925 22:22:39.659916 28204 net.cpp:141] Setting up lstm1_gate_input_1
I0925 22:22:39.659929 28204 net.cpp:148] Top shape: 1 1 4000 (4000)
I0925 22:22:39.659936 28204 net.cpp:156] Memory required for data: 78016
I0925 22:22:39.659943 28204 layer_factory.hpp:77] Creating layer lstm1_unit_1
I0925 22:22:39.659970 28204 net.cpp:91] Creating Layer lstm1_unit_1
I0925 22:22:39.659977 28204 net.cpp:425] lstm1_unit_1 <- c_0
I0925 22:22:39.659986 28204 net.cpp:425] lstm1_unit_1 <- gate_input_1
I0925 22:22:39.659994 28204 net.cpp:425] lstm1_unit_1 <- cont_1_lstm1_cont_slice_0_split_1
I0925 22:22:39.660004 28204 net.cpp:399] lstm1_unit_1 -> c_1
I0925 22:22:39.660017 28204 net.cpp:399] lstm1_unit_1 -> h_1
I0925 22:22:39.660106 28204 net.cpp:141] Setting up lstm1_unit_1
I0925 22:22:39.660120 28204 net.cpp:148] Top shape: 1 1 1000 (1000)
I0925 22:22:39.660128 28204 net.cpp:148] Top shape: 1 1 1000 (1000)
I0925 22:22:39.660135 28204 net.cpp:156] Memory required for data: 86016
I0925 22:22:39.660142 28204 layer_factory.hpp:77] Creating layer lstm1_
I0925 22:22:39.660156 28204 net.cpp:91] Creating Layer lstm1_
I0925 22:22:39.660163 28204 net.cpp:425] lstm1_ <- c_1
I0925 22:22:39.660174 28204 net.cpp:399] lstm1_ -> c_T
I0925 22:22:39.660214 28204 net.cpp:141] Setting up lstm1_
I0925 22:22:39.660226 28204 net.cpp:148] Top shape: 1 1 1000 (1000)
I0925 22:22:39.660233 28204 net.cpp:156] Memory required for data: 90016
I0925 22:22:39.660240 28204 layer_factory.hpp:77] Creating layer lstm1_h_concat
I0925 22:22:39.660254 28204 net.cpp:91] Creating Layer lstm1_h_concat
I0925 22:22:39.660260 28204 net.cpp:425] lstm1_h_concat <- h_1
I0925 22:22:39.660274 28204 net.cpp:399] lstm1_h_concat -> h
I0925 22:22:39.660327 28204 net.cpp:141] Setting up lstm1_h_concat
I0925 22:22:39.660341 28204 net.cpp:148] Top shape: 1 1 1000 (1000)
I0925 22:22:39.660346 28204 net.cpp:156] Memory required for data: 94016
I0925 22:22:39.660353 28204 layer_factory.hpp:77] Creating layer h_pseudoloss
I0925 22:22:39.660372 28204 net.cpp:91] Creating Layer h_pseudoloss
I0925 22:22:39.660379 28204 net.cpp:425] h_pseudoloss <- h
I0925 22:22:39.660390 28204 net.cpp:399] h_pseudoloss -> h_pseudoloss
I0925 22:22:39.660507 28204 net.cpp:141] Setting up h_pseudoloss
…
I0925 22:22:39.660681 28204 net.cpp:219] lstm1_ does not need backward computation.
I0925 22:22:39.660687 28204 net.cpp:261] This network produces output c_T
I0925 22:22:39.660694 28204 net.cpp:261] This network produces output h_pseudoloss
I0925 22:22:39.660719 28204 net.cpp:274] Network initialization done.
I0925 22:22:39.660799 28204 recurrent_layer.cpp:150] Adding parameter 0: W_xc
I0925 22:22:39.660809 28204 recurrent_layer.cpp:150] Adding parameter 1: b_c
I0925 22:22:39.660817 28204 recurrent_layer.cpp:150] Adding parameter 2: W_hc
I0925 22:22:39.660969 28204 net.cpp:141] Setting up lstm1
I0925 22:22:39.660985 28204 net.cpp:148] Top shape: 1 1 1000 (1000)
I0925 22:22:39.660992 28204 net.cpp:156] Memory required for data: 26408
I0925 22:22:39.661012 28204 layer_factory.hpp:77] Creating layer concat
I0925 22:22:39.661025 28204 net.cpp:91] Creating Layer concat
I0925 22:22:39.661033 28204 net.cpp:425] concat <- lstm1
I0925 22:22:39.661043 28204 net.cpp:425] concat <- embedded_input_sentence
I0925 22:22:39.661051 28204 net.cpp:425] concat <- reshaped_stage_indicator
I0925 22:22:39.661062 28204 net.cpp:399] concat -> lstm1_video_sequence
I0925 22:22:39.661108 28204 net.cpp:141] Setting up concat
I0925 22:22:39.661120 28204 net.cpp:148] Top shape: 1 1 1501 (1501)
I0925 22:22:39.661126 28204 net.cpp:156] Memory required for data: 32412
I0925 22:22:39.661135 28204 layer_factory.hpp:77] Creating layer lstm2
I0925 22:22:39.661151 28204 net.cpp:91] Creating Layer lstm2
I0925 22:22:39.661159 28204 net.cpp:425] lstm2 <- lstm1_video_sequence
I0925 22:22:39.661167 28204 net.cpp:425] lstm2 <- cont_sentence_input_1_split_1
I0925 22:22:39.661180 28204 net.cpp:399] lstm2 -> lstm2
I0925 22:22:39.661195 28204 recurrent_layer.cpp:20] Initializing recurrent layer: assuming input batch contains 1 timesteps of 1 independent streams.
I0925 22:22:39.661562 28204 net.cpp:49] Initializing net from parameters: 
layer {
  name: "lstm2_"
  type: "Input"
  top: "x"
  top: "cont"
  input_param {
    shape {
      dim: 1
      dim: 1
      dim: 1501
    }
    shape {
      dim: 1
      dim: 1
    }
  }
}
layer {
  name: "lstm2_"
  type: "Input"
  top: "c_0"
  top: "h_0"
  input_param {
    shape {
      dim: 1
      dim: 1
      dim: 1000
    }
    shape {
      dim: 1
      dim: 1
      dim: 1000
    }
  }
}
layer {
  name: "lstm2_cont_slice"
  type: "Slice"
  bottom: "cont"
  top: "cont_1"
  slice_param {
    axis: 0
  }
}
layer {
  name: "lstm2_x_transform"
  type: "InnerProduct"
  bottom: "x"
  top: "W_xc_x"
  param {
    name: "W_xc"
  }
  param {
    name: "b_c"
  }
  propagate_down: true
  inner_product_param {
    num_output: 4000
    bias_term: true
    weight_filler {
      type: "uniform"
      min: -0.08
      max: 0.08
    }
    bias_filler {
      type: "constant"
      value: 0
    }
    axis: 2
  }
}
layer {
  name: "lstm2_W_xc_x_slice"
  type: "Slice"
  bottom: "W_xc_x"
  top: "W_xc_x_1"
  slice_param {
    axis: 0
  }
}
layer {
  name: "lstm2_h_conted_0"
  type: "Scale"
  bottom: "h_0"
  bottom: "cont_1"
  top: "h_conted_0"
  scale_param {
    axis: 0
  }
}
layer {
  name: "lstm2_transform_1"
  type: "InnerProduct"
  bottom: "h_conted_0"
  top: "W_hc_h_0"
  param {
    name: "W_hc"
  }
  inner_product_param {
    num_output: 4000
    bias_term: false
    weight_filler {
      type: "uniform"
      min: -0.08
      max: 0.08
    }
    axis: 2
  }
}
layer {
  name: "lstm2_gate_input_1"
  type: "Eltwise"
  bottom: "W_hc_h_0"
  bottom: "W_xc_x_1"
  top: "gate_input_1"
  eltwise_param {
    operation: SUM
  }
}
layer {
  name: "lstm2_unit_1"
  type: "LSTMUnit"
  bottom: "c_0"
  bottom: "gate_input_1"
  bottom: "cont_1"
  top: "c_1"
  top: "h_1"
}
layer {
  name: "lstm2_"
  type: "Split"
  bottom: "c_1"
  top: "c_T"
}
layer {
  name: "lstm2_h_concat"
  type: "Concat"
  bottom: "h_1"
  top: "h"
  concat_param {
    axis: 0
  }
}
layer {
  name: "h_pseudoloss"
  type: "Reduction"
  bottom: "h"
  top: "h_pseudoloss"
  loss_weight: 1
}
I0925 22:22:39.661684 28204 layer_factory.hpp:77] Creating layer lstm2_
I0925 22:22:39.661703 28204 net.cpp:91] Creating Layer lstm2_
I0925 22:22:39.661713 28204 net.cpp:399] lstm2_ -> x
I0925 22:22:39.661728 28204 net.cpp:399] lstm2_ -> cont
I0925 22:22:39.661803 28204 net.cpp:141] Setting up lstm2_
I0925 22:22:39.661818 28204 net.cpp:148] Top shape: 1 1 1501 (1501)
I0925 22:22:39.661828 28204 net.cpp:148] Top shape: 1 1 (1)
I0925 22:22:39.661836 28204 net.cpp:156] Memory required for data: 6008
I0925 22:22:39.661844 28204 layer_factory.hpp:77] Creating layer lstm2_
I0925 22:22:39.661856 28204 net.cpp:91] Creating Layer lstm2_
I0925 22:22:39.661872 28204 net.cpp:399] lstm2_ -> c_0
I0925 22:22:39.661888 28204 net.cpp:399] lstm2_ -> h_0
I0925 22:22:39.661957 28204 net.cpp:141] Setting up lstm2_
I0925 22:22:39.661972 28204 net.cpp:148] Top shape: 1 1 1000 (1000)
I0925 22:22:39.661980 28204 net.cpp:148] Top shape: 1 1 1000 (1000)
I0925 22:22:39.661986 28204 net.cpp:156] Memory required for data: 14008
I0925 22:22:39.661994 28204 layer_factory.hpp:77] Creating layer lstm2_cont_slice
I0925 22:22:39.662006 28204 net.cpp:91] Creating Layer lstm2_cont_slice
I0925 22:22:39.662014 28204 net.cpp:425] lstm2_cont_slice <- cont
I0925 22:22:39.662024 28204 net.cpp:399] lstm2_cont_slice -> cont_1
I0925 22:22:39.662073 28204 net.cpp:141] Setting up lstm2_cont_slice
I0925 22:22:39.662089 28204 net.cpp:148] Top shape: 1 1 (1)
I0925 22:22:39.662096 28204 net.cpp:156] Memory required for data: 14012
I0925 22:22:39.662103 28204 layer_factory.hpp:77] Creating layer cont_1_lstm2_cont_slice_0_split
I0925 22:22:39.662114 28204 net.cpp:91] Creating Layer cont_1_lstm2_cont_slice_0_split
I0925 22:22:39.662122 28204 net.cpp:425] cont_1_lstm2_cont_slice_0_split <- cont_1
I0925 22:22:39.662132 28204 net.cpp:399] cont_1_lstm2_cont_slice_0_split -> cont_1_lstm2_cont_slice_0_split_0
I0925 22:22:39.662144 28204 net.cpp:399] cont_1_lstm2_cont_slice_0_split -> cont_1_lstm2_cont_slice_0_split_1
I0925 22:22:39.662211 28204 net.cpp:141] Setting up cont_1_lstm2_cont_slice_0_split
I0925 22:22:39.662225 28204 net.cpp:148] Top shape: 1 1 (1)
I0925 22:22:39.662235 28204 net.cpp:148] Top shape: 1 1 (1)
I0925 22:22:39.662241 28204 net.cpp:156] Memory required for data: 14020
I0925 22:22:39.662248 28204 layer_factory.hpp:77] Creating layer lstm2_x_transform
I0925 22:22:39.662266 28204 net.cpp:91] Creating Layer lstm2_x_transform
I0925 22:22:39.662274 28204 net.cpp:425] lstm2_x_transform <- x
I0925 22:22:39.662286 28204 net.cpp:399] lstm2_x_transform -> W_xc_x
I0925 22:22:39.662365 28244 net.cpp:141] Setting up embedding
I0925 22:22:39.662384 28244 net.cpp:148] Top shape: 1 1 500 (500)
I0925 22:22:39.662389 28244 net.cpp:156] Memory required for data: 22408
I0925 22:22:39.662400 28244 layer_factory.hpp:77] Creating layer lstm1
I0925 22:22:39.662410 28244 net.cpp:91] Creating Layer lstm1
I0925 22:22:39.662416 28244 net.cpp:425] lstm1 <- embedded_input_frames
I0925 22:22:39.662423 28244 net.cpp:425] lstm1 <- cont_sentence_input_1_split_0
I0925 22:22:39.662442 28244 net.cpp:399] lstm1 -> lstm1
I0925 22:22:39.662454 28244 recurrent_layer.cpp:20] Initializing recurrent layer: assuming input batch contains 1 timesteps of 1 independent streams.
I0925 22:22:39.662734 28244 net.cpp:49] Initializing net from parameters: 
layer {
  name: "lstm1_"
  type: "Input"
  top: "x"
  top: "cont"
  input_param {
    shape {
      dim: 1
      dim: 1
      dim: 500
    }
    shape {
      dim: 1
      dim: 1
    }
  }
}
layer {
  name: "lstm1_"
  type: "Input"
  top: "c_0"
  top: "h_0"
  input_param {
    shape {
      dim: 1
      dim: 1
      dim: 1000
    }
    shape {
      dim: 1
      dim: 1
      dim: 1000
    }
  }
}
layer {
  name: "lstm1_cont_slice"
  type: "Slice"
  bottom: "cont"
  top: "cont_1"
  slice_param {
    axis: 0
  }
}
layer {
  name: "lstm1_x_transform"
  type: "InnerProduct"
  bottom: "x"
  top: "W_xc_x"
  param {
    name: "W_xc"
  }
  param {
    name: "b_c"
  }
  propagate_down: true
  inner_product_param {
    num_output: 4000
    bias_term: true
    weight_filler {
      type: "uniform"
      min: -0.08
      max: 0.08
    }
    bias_filler {
      type: "constant"
      value: 0
    }
    axis: 2
  }
}
layer {
  name: "lstm1_W_xc_x_slice"
  type: "Slice"
  bottom: "W_xc_x"
  top: "W_xc_x_1"
  slice_param {
    axis: 0
  }
}
layer {
  name: "lstm1_h_conted_0"
  type: "Scale"
  bottom: "h_0"
  bottom: "cont_1"
  top: "h_conted_0"
  scale_param {
    axis: 0
  }
}
layer {
  name: "lstm1_transform_1"
  type: "InnerProduct"
  bottom: "h_conted_0"
  top: "W_hc_h_0"
  param {
    name: "W_hc"
  }
  inner_product_param {
    num_output: 4000
    bias_term: false
    weight_filler {
      type: "uniform"
      min: -0.08
      max: 0.08
    }
    axis: 2
  }
}
layer {
  name: "lstm1_gate_input_1"
  type: "Eltwise"
  bottom: "W_hc_h_0"
  bottom: "W_xc_x_1"
  top: "gate_input_1"
  eltwise_param {
    operation: SUM
  }
}
layer {
  name: "lstm1_unit_1"
  type: "LSTMUnit"
  bottom: "c_0"
  bottom: "gate_input_1"
  bottom: "cont_1"
  top: "c_1"
  top: "h_1"
}
layer {
  name: "lstm1_"
  type: "Split"
  bottom: "c_1"
  top: "c_T"
}
layer {
  name: "lstm1_h_concat"
  type: "Concat"
  bottom: "h_1"
  top: "h"
  concat_param {
    axis: 0
  }
}
layer {
  name: "h_pseudoloss"
  type: "Reduction"
  bottom: "h"
  top: "h_pseudoloss"
  loss_weight: 1
}
I0925 22:22:39.662824 28244 layer_factory.hpp:77] Creating layer lstm1_
I0925 22:22:39.662837 28244 net.cpp:91] Creating Layer lstm1_
I0925 22:22:39.662842 28244 net.cpp:399] lstm1_ -> x
I0925 22:22:39.662853 28244 net.cpp:399] lstm1_ -> cont
I0925 22:22:39.668287 28206 net.cpp:141] Setting up lstm1_gate_input_1
I0925 22:22:39.668311 28206 net.cpp:148] Top shape: 1 1 4000 (4000)
I0925 22:22:39.668319 28206 net.cpp:156] Memory required for data: 78016
I0925 22:22:39.668328 28206 layer_factory.hpp:77] Creating layer lstm1_unit_1
I0925 22:22:39.668342 28206 net.cpp:91] Creating Layer lstm1_unit_1
I0925 22:22:39.668350 28206 net.cpp:425] lstm1_unit_1 <- c_0
I0925 22:22:39.668361 28206 net.cpp:425] lstm1_unit_1 <- gate_input_1
I0925 22:22:39.668370 28206 net.cpp:425] lstm1_unit_1 <- cont_1_lstm1_cont_slice_0_split_1
I0925 22:22:39.668385 28206 net.cpp:399] lstm1_unit_1 -> c_1
I0925 22:22:39.668401 28206 net.cpp:399] lstm1_unit_1 -> h_1
I0925 22:22:39.683042 28244 net.cpp:141] Setting up lstm1_
I0925 22:22:39.683110 28244 net.cpp:148] Top shape: 1 1 500 (500)
I0925 22:22:39.683131 28244 net.cpp:148] Top shape: 1 1 (1)
I0925 22:22:39.683145 28244 net.cpp:156] Memory required for data: 2004
I0925 22:22:39.683166 28244 layer_factory.hpp:77] Creating layer lstm1_
I0925 22:22:39.683223 28244 net.cpp:91] Creating Layer lstm1_
I0925 22:22:39.683259 28244 net.cpp:399] lstm1_ -> c_0
I0925 22:22:39.683167 28206 net.cpp:141] Setting up lstm1_unit_1
I0925 22:22:39.683295 28206 net.cpp:148] Top shape: 1 1 1000 (1000)
I0925 22:22:39.683306 28206 net.cpp:148] Top shape: 1 1 1000 (1000)
I0925 22:22:39.683305 28244 net.cpp:399] lstm1_ -> h_0
I0925 22:22:39.683313 28206 net.cpp:156] Memory required for data: 86016
I0925 22:22:39.683322 28206 layer_factory.hpp:77] Creating layer lstm1_
I0925 22:22:39.683334 28206 net.cpp:91] Creating Layer lstm1_
I0925 22:22:39.683344 28206 net.cpp:425] lstm1_ <- c_1
I0925 22:22:39.683357 28206 net.cpp:399] lstm1_ -> c_T
I0925 22:22:39.683485 28244 net.cpp:141] Setting up lstm1_
I0925 22:22:39.683512 28244 net.cpp:148] Top shape: 1 1 1000 (1000)
I0925 22:22:39.683532 28244 net.cpp:148] Top shape: 1 1 1000 (1000)
I0925 22:22:39.683544 28244 net.cpp:156] Memory required for data: 10004
I0925 22:22:39.683557 28244 layer_factory.hpp:77] Creating layer lstm1_cont_slice
I0925 22:22:39.683573 28218 net.cpp:141] Setting up lstm1_x_transform
I0925 22:22:39.683583 28244 net.cpp:91] Creating Layer lstm1_cont_slice
I0925 22:22:39.683589 28218 net.cpp:148] Top shape: 1 1 4000 (4000)
I0925 22:22:39.683598 28218 net.cpp:156] Memory required for data: 26016
I0925 22:22:39.683599 28244 net.cpp:425] lstm1_cont_slice <- cont
I0925 22:22:39.683619 28218 layer_factory.hpp:77] Creating layer lstm1_W_xc_x_slice
I0925 22:22:39.683629 28244 net.cpp:399] lstm1_cont_slice -> cont_1
I0925 22:22:39.683634 28218 net.cpp:91] Creating Layer lstm1_W_xc_x_slice
I0925 22:22:39.683660 28218 net.cpp:425] lstm1_W_xc_x_slice <- W_xc_x
I0925 22:22:39.683673 28218 net.cpp:399] lstm1_W_xc_x_slice -> W_xc_x_1
I0925 22:22:39.684569 28244 net.cpp:141] Setting up lstm1_cont_slice
I0925 22:22:39.684599 28244 net.cpp:148] Top shape: 1 1 (1)
I0925 22:22:39.684614 28244 net.cpp:156] Memory required for data: 10008
I0925 22:22:39.684639 28244 layer_factory.hpp:77] Creating layer cont_1_lstm1_cont_slice_0_split
I0925 22:22:39.684667 28206 net.cpp:141] Setting up lstm1_
I0925 22:22:39.684670 28244 net.cpp:91] Creating Layer cont_1_lstm1_cont_slice_0_split
I0925 22:22:39.684684 28206 net.cpp:148] Top shape: 1 1 1000 (1000)
I0925 22:22:39.684689 28244 net.cpp:425] cont_1_lstm1_cont_slice_0_split <- cont_1
I0925 22:22:39.684615 28218 net.cpp:141] Setting up lstm1_W_xc_x_slice
I0925 22:22:39.684707 28218 net.cpp:148] Top shape: 1 1 4000 (4000)
I0925 22:22:39.684715 28218 net.cpp:156] Memory required for data: 42016
I0925 22:22:39.684720 28244 net.cpp:399] cont_1_lstm1_cont_slice_0_split -> cont_1_lstm1_cont_slice_0_split_0
I0925 22:22:39.684723 28218 layer_factory.hpp:77] Creating layer lstm1_h_conted_0
I0925 22:22:39.684692 28206 net.cpp:156] Memory required for data: 90016
I0925 22:22:39.684765 28206 layer_factory.hpp:77] Creating layer lstm1_h_concat
I0925 22:22:39.684756 28244 net.cpp:399] cont_1_lstm1_cont_slice_0_split -> cont_1_lstm1_cont_slice_0_split_1
I0925 22:22:39.684780 28206 net.cpp:91] Creating Layer lstm1_h_concat
I0925 22:22:39.684789 28206 net.cpp:425] lstm1_h_concat <- h_1
I0925 22:22:39.684800 28206 net.cpp:399] lstm1_h_concat -> h
I0925 22:22:39.684756 28218 net.cpp:91] Creating Layer lstm1_h_conted_0
I0925 22:22:39.684835 28218 net.cpp:425] lstm1_h_conted_0 <- h_0
I0925 22:22:39.684845 28218 net.cpp:425] lstm1_h_conted_0 <- cont_1_lstm1_cont_slice_0_split_0
I0925 22:22:39.684857 28218 net.cpp:399] lstm1_h_conted_0 -> h_conted_0
I0925 22:22:39.685027 28244 net.cpp:141] Setting up cont_1_lstm1_cont_slice_0_split
I0925 22:22:39.685055 28244 net.cpp:148] Top shape: 1 1 (1)
I0925 22:22:39.685072 28244 net.cpp:148] Top shape: 1 1 (1)
I0925 22:22:39.685084 28244 net.cpp:156] Memory required for data: 10016
I0925 22:22:39.685098 28244 layer_factory.hpp:77] Creating layer lstm1_x_transform
I0925 22:22:39.685130 28244 net.cpp:91] Creating Layer lstm1_x_transform
I0925 22:22:39.685148 28244 net.cpp:425] lstm1_x_transform <- x
I0925 22:22:39.685171 28244 net.cpp:399] lstm1_x_transform -> W_xc_x
I0925 22:22:39.694612 28206 net.cpp:141] Setting up lstm1_h_concat
I0925 22:22:39.694665 28206 net.cpp:148] Top shape: 1 1 1000 (1000)
I0925 22:22:39.694674 28206 net.cpp:156] Memory required for data: 94016
I0925 22:22:39.694690 28206 layer_factory.hpp:77] Creating layer h_pseudoloss
I0925 22:22:39.694713 28206 net.cpp:91] Creating Layer h_pseudoloss
I0925 22:22:39.694723 28206 net.cpp:425] h_pseudoloss <- h
I0925 22:22:39.694741 28206 net.cpp:399] h_pseudoloss -> h_pseudoloss
I0925 22:22:39.694875 28238 net.cpp:141] Setting up lstm1_x_transform
I0925 22:22:39.694918 28238 net.cpp:148] Top shape: 1 1 4000 (4000)
I0925 22:22:39.694927 28238 net.cpp:156] Memory required for data: 26016
I0925 22:22:39.694958 28238 layer_factory.hpp:77] Creating layer lstm1_W_xc_x_slice
I0925 22:22:39.694983 28238 net.cpp:91] Creating Layer lstm1_W_xc_x_slice
I0925 22:22:39.694995 28238 net.cpp:425] lstm1_W_xc_x_slice <- W_xc_x
I0925 22:22:39.695011 28238 net.cpp:399] lstm1_W_xc_x_slice -> W_xc_x_1
I0925 22:22:39.695035 28206 net.cpp:141] Setting up h_pseudoloss
…
I0925 22:22:39.695116 28206 net.cpp:217] lstm1_unit_1 needs backward computation.
I0925 22:22:39.695125 28206 net.cpp:217] lstm1_gate_input_1 needs backward computation.
I0925 22:22:39.695133 28206 net.cpp:217] lstm1_transform_1 needs backward computation.
I0925 22:22:39.695129 28238 net.cpp:141] Setting up lstm1_W_xc_x_slice
I0925 22:22:39.695142 28206 net.cpp:219] lstm1_h_conted_0 does not need backward computation.
I0925 22:22:39.695153 28206 net.cpp:217] lstm1_W_xc_x_slice needs backward computation.
I0925 22:22:39.695163 28206 net.cpp:217] lstm1_x_transform needs backward computation.
I0925 22:22:39.695163 28238 net.cpp:148] Top shape: 1 1 4000 (4000)
I0925 22:22:39.695175 28206 net.cpp:219] cont_1_lstm1_cont_slice_0_split does not need backward computation.
I0925 22:22:39.695180 28238 net.cpp:156] Memory required for data: 42016
I0925 22:22:39.695186 28206 net.cpp:219] lstm1_cont_slice does not need backward computation.
I0925 22:22:39.695209 28238 layer_factory.hpp:77] Creating layer lstm1_h_conted_0
I0925 22:22:39.695215 28206 net.cpp:219] lstm1_ does not need backward computation.
I0925 22:22:39.695235 28206 net.cpp:219] lstm1_ does not need backward computation.
I0925 22:22:39.695242 28206 net.cpp:261] This network produces output c_T
I0925 22:22:39.695245 28238 net.cpp:91] Creating Layer lstm1_h_conted_0
I0925 22:22:39.695251 28206 net.cpp:261] This network produces output h_pseudoloss
I0925 22:22:39.695263 28218 net.cpp:141] Setting up lstm1_h_conted_0
I0925 22:22:39.695271 28238 net.cpp:425] lstm1_h_conted_0 <- h_0
I0925 22:22:39.695284 28218 net.cpp:148] Top shape: 1 1 1000 (1000)
I0925 22:22:39.695291 28206 net.cpp:274] Network initialization done.
I0925 22:22:39.695293 28218 net.cpp:156] Memory required for data: 46016
I0925 22:22:39.695293 28238 net.cpp:425] lstm1_h_conted_0 <- cont_1_lstm1_cont_slice_0_split_0
I0925 22:22:39.695304 28218 layer_factory.hpp:77] Creating layer lstm1_transform_1
I0925 22:22:39.695324 28218 net.cpp:91] Creating Layer lstm1_transform_1
I0925 22:22:39.695322 28238 net.cpp:399] lstm1_h_conted_0 -> h_conted_0
I0925 22:22:39.695336 28218 net.cpp:425] lstm1_transform_1 <- h_conted_0
I0925 22:22:39.695351 28218 net.cpp:399] lstm1_transform_1 -> W_hc_h_0
I0925 22:22:39.695363 28206 recurrent_layer.cpp:150] Adding parameter 0: W_xc
I0925 22:22:39.695374 28206 recurrent_layer.cpp:150] Adding parameter 1: b_c
I0925 22:22:39.695382 28206 recurrent_layer.cpp:150] Adding parameter 2: W_hc
I0925 22:22:39.703395 28200 net.cpp:141] Setting up embedding
I0925 22:22:39.703446 28200 net.cpp:148] Top shape: 1 1 500 (500)
I0925 22:22:39.703454 28200 net.cpp:156] Memory required for data: 22408
I0925 22:22:39.703474 28200 layer_factory.hpp:77] Creating layer lstm1
I0925 22:22:39.703495 28200 net.cpp:91] Creating Layer lstm1
I0925 22:22:39.703502 28200 net.cpp:425] lstm1 <- embedded_input_frames
I0925 22:22:39.703516 28200 net.cpp:425] lstm1 <- cont_sentence_input_1_split_0
I0925 22:22:39.703531 28200 net.cpp:399] lstm1 -> lstm1
I0925 22:22:39.703554 28200 recurrent_layer.cpp:20] Initializing recurrent layer: assuming input batch contains 1 timesteps of 1 independent streams.
I0925 22:22:39.703575 28238 net.cpp:141] Setting up lstm1_h_conted_0
I0925 22:22:39.703603 28206 net.cpp:141] Setting up lstm1
I0925 22:22:39.703639 28206 net.cpp:148] Top shape: 1 1 1000 (1000)
I0925 22:22:39.703608 28238 net.cpp:148] Top shape: 1 1 1000 (1000)
I0925 22:22:39.703646 28206 net.cpp:156] Memory required for data: 26408
I0925 22:22:39.703671 28238 net.cpp:156] Memory required for data: 46016
I0925 22:22:39.703686 28206 layer_factory.hpp:77] Creating layer concat
I0925 22:22:39.703691 28238 layer_factory.hpp:77] Creating layer lstm1_transform_1
I0925 22:22:39.703699 28206 net.cpp:91] Creating Layer concat
I0925 22:22:39.703706 28206 net.cpp:425] concat <- lstm1
I0925 22:22:39.703713 28206 net.cpp:425] concat <- embedded_input_sentence
I0925 22:22:39.703719 28206 net.cpp:425] concat <- reshaped_stage_indicator
I0925 22:22:39.703717 28238 net.cpp:91] Creating Layer lstm1_transform_1
I0925 22:22:39.703727 28206 net.cpp:399] concat -> lstm1_video_sequence
I0925 22:22:39.703732 28238 net.cpp:425] lstm1_transform_1 <- h_conted_0
I0925 22:22:39.703764 28238 net.cpp:399] lstm1_transform_1 -> W_hc_h_0
I0925 22:22:39.703858 28200 net.cpp:49] Initializing net from parameters: 
layer {
  name: "lstm1_"
  type: "Input"
  top: "x"
  top: "cont"
  input_param {
    shape {
      dim: 1
      dim: 1
      dim: 500
    }
    shape {
      dim: 1
      dim: 1
    }
  }
}
layer {
  name: "lstm1_"
  type: "Input"
  top: "c_0"
  top: "h_0"
  input_param {
    shape {
      dim: 1
      dim: 1
      dim: 1000
    }
    shape {
      dim: 1
      dim: 1
      dim: 1000
    }
  }
}
layer {
  name: "lstm1_cont_slice"
  type: "Slice"
  bottom: "cont"
  top: "cont_1"
  slice_param {
    axis: 0
  }
}
layer {
  name: "lstm1_x_transform"
  type: "InnerProduct"
  bottom: "x"
  top: "W_xc_x"
  param {
    name: "W_xc"
  }
  param {
    name: "b_c"
  }
  propagate_down: true
  inner_product_param {
    num_output: 4000
    bias_term: true
    weight_filler {
      type: "uniform"
      min: -0.08
      max: 0.08
    }
    bias_filler {
      type: "constant"
      value: 0
    }
    axis: 2
  }
}
layer {
  name: "lstm1_W_xc_x_slice"
  type: "Slice"
  bottom: "W_xc_x"
  top: "W_xc_x_1"
  slice_param {
    axis: 0
  }
}
layer {
  name: "lstm1_h_conted_0"
  type: "Scale"
  bottom: "h_0"
  bottom: "cont_1"
  top: "h_conted_0"
  scale_param {
    axis: 0
  }
}
layer {
  name: "lstm1_transform_1"
  type: "InnerProduct"
  bottom: "h_conted_0"
  top: "W_hc_h_0"
  param {
    name: "W_hc"
  }
  inner_product_param {
    num_output: 4000
    bias_term: false
    weight_filler {
      type: "uniform"
      min: -0.08
      max: 0.08
    }
    axis: 2
  }
}
layer {
  name: "lstm1_gate_input_1"
  type: "Eltwise"
  bottom: "W_hc_h_0"
  bottom: "W_xc_x_1"
  top: "gate_input_1"
  eltwise_param {
    operation: SUM
  }
}
layer {
  name: "lstm1_unit_1"
  type: "LSTMUnit"
  bottom: "c_0"
  bottom: "gate_input_1"
  bottom: "cont_1"
  top: "c_1"
  top: "h_1"
}
layer {
  name: "lstm1_"
  type: "Split"
  bottom: "c_1"
  top: "c_T"
}
layer {
  name: "lstm1_h_concat"
  type: "Concat"
  bottom: "h_1"
  top: "h"
  concat_param {
    axis: 0
  }
}
layer {
  name: "h_pseudoloss"
  type: "Reduction"
  bottom: "h"
  top: "h_pseudoloss"
  loss_weight: 1
}
I0925 22:22:39.703951 28200 layer_factory.hpp:77] Creating layer lstm1_
I0925 22:22:39.703964 28200 net.cpp:91] Creating Layer lstm1_
I0925 22:22:39.703970 28200 net.cpp:399] lstm1_ -> x
I0925 22:22:39.703982 28200 net.cpp:399] lstm1_ -> cont
I0925 22:22:39.706369 28206 net.cpp:141] Setting up concat
I0925 22:22:39.706416 28206 net.cpp:148] Top shape: 1 1 1501 (1501)
I0925 22:22:39.706423 28206 net.cpp:156] Memory required for data: 32412
I0925 22:22:39.706431 28206 layer_factory.hpp:77] Creating layer lstm2
I0925 22:22:39.706456 28206 net.cpp:91] Creating Layer lstm2
I0925 22:22:39.706465 28206 net.cpp:425] lstm2 <- lstm1_video_sequence
I0925 22:22:39.706475 28206 net.cpp:425] lstm2 <- cont_sentence_input_1_split_1
I0925 22:22:39.706485 28206 net.cpp:399] lstm2 -> lstm2
I0925 22:22:39.706506 28206 recurrent_layer.cpp:20] Initializing recurrent layer: assuming input batch contains 1 timesteps of 1 independent streams.
I0925 22:22:39.706828 28206 net.cpp:49] Initializing net from parameters: 
layer {
  name: "lstm2_"
  type: "Input"
  top: "x"
  top: "cont"
  input_param {
    shape {
      dim: 1
      dim: 1
      dim: 1501
    }
    shape {
      dim: 1
      dim: 1
    }
  }
}
layer {
  name: "lstm2_"
  type: "Input"
  top: "c_0"
  top: "h_0"
  input_param {
    shape {
      dim: 1
      dim: 1
      dim: 1000
    }
    shape {
      dim: 1
      dim: 1
      dim: 1000
    }
  }
}
layer {
  name: "lstm2_cont_slice"
  type: "Slice"
  bottom: "cont"
  top: "cont_1"
  slice_param {
    axis: 0
  }
}
layer {
  name: "lstm2_x_transform"
  type: "InnerProduct"
  bottom: "x"
  top: "W_xc_x"
  param {
    name: "W_xc"
  }
  param {
    name: "b_c"
  }
  propagate_down: true
  inner_product_param {
    num_output: 4000
    bias_term: true
    weight_filler {
      type: "uniform"
      min: -0.08
      max: 0.08
    }
    bias_filler {
      type: "constant"
      value: 0
    }
    axis: 2
  }
}
layer {
  name: "lstm2_W_xc_x_slice"
  type: "Slice"
  bottom: "W_xc_x"
  top: "W_xc_x_1"
  slice_param {
    axis: 0
  }
}
layer {
  name: "lstm2_h_conted_0"
  type: "Scale"
  bottom: "h_0"
  bottom: "cont_1"
  top: "h_conted_0"
  scale_param {
    axis: 0
  }
}
layer {
  name: "lstm2_transform_1"
  type: "InnerProduct"
  bottom: "h_conted_0"
  top: "W_hc_h_0"
  param {
    name: "W_hc"
  }
  inner_product_param {
    num_output: 4000
    bias_term: false
    weight_filler {
      type: "uniform"
      min: -0.08
      max: 0.08
    }
    axis: 2
  }
}
layer {
  name: "lstm2_gate_input_1"
  type: "Eltwise"
  bottom: "W_hc_h_0"
  bottom: "W_xc_x_1"
  top: "gate_input_1"
  eltwise_param {
    operation: SUM
  }
}
layer {
  name: "lstm2_unit_1"
  type: "LSTMUnit"
  bottom: "c_0"
  bottom: "gate_input_1"
  bottom: "cont_1"
  top: "c_1"
  top: "h_1"
}
layer {
  name: "lstm2_"
  type: "Split"
  bottom: "c_1"
  top: "c_T"
}
layer {
  name: "lstm2_h_concat"
  type: "Concat"
  bottom: "h_1"
  top: "h"
  concat_param {
    axis: 0
  }
}
layer {
  name: "h_pseudoloss"
  type: "Reduction"
  bottom: "h"
  top: "h_pseudoloss"
  loss_weight: 1
}
I0925 22:22:39.706925 28206 layer_factory.hpp:77] Creating layer lstm2_
I0925 22:22:39.706938 28206 net.cpp:91] Creating Layer lstm2_
I0925 22:22:39.706943 28206 net.cpp:399] lstm2_ -> x
I0925 22:22:39.706955 28206 net.cpp:399] lstm2_ -> cont
I0925 22:22:39.719027 28200 net.cpp:141] Setting up lstm1_
I0925 22:22:39.719080 28200 net.cpp:148] Top shape: 1 1 500 (500)
I0925 22:22:39.719079 28206 net.cpp:141] Setting up lstm2_
I0925 22:22:39.719102 28200 net.cpp:148] Top shape: 1 1 (1)
I0925 22:22:39.719106 28206 net.cpp:148] Top shape: 1 1 1501 (1501)
I0925 22:22:39.719111 28200 net.cpp:156] Memory required for data: 2004
I0925 22:22:39.719117 28206 net.cpp:148] Top shape: 1 1 (1)
I0925 22:22:39.719123 28206 net.cpp:156] Memory required for data: 6008
I0925 22:22:39.719126 28200 layer_factory.hpp:77] Creating layer lstm1_
I0925 22:22:39.719132 28206 layer_factory.hpp:77] Creating layer lstm2_
I0925 22:22:39.719156 28200 net.cpp:91] Creating Layer lstm1_
I0925 22:22:39.719156 28206 net.cpp:91] Creating Layer lstm2_
I0925 22:22:39.719182 28200 net.cpp:399] lstm1_ -> c_0
I0925 22:22:39.719184 28206 net.cpp:399] lstm2_ -> c_0
I0925 22:22:39.719218 28206 net.cpp:399] lstm2_ -> h_0
I0925 22:22:39.719218 28200 net.cpp:399] lstm1_ -> h_0
I0925 22:22:39.719413 28206 net.cpp:141] Setting up lstm2_
I0925 22:22:39.719431 28206 net.cpp:148] Top shape: 1 1 1000 (1000)
I0925 22:22:39.719444 28206 net.cpp:148] Top shape: 1 1 1000 (1000)
I0925 22:22:39.719450 28206 net.cpp:156] Memory required for data: 14008
I0925 22:22:39.719458 28206 layer_factory.hpp:77] Creating layer lstm2_cont_slice
I0925 22:22:39.719476 28206 net.cpp:91] Creating Layer lstm2_cont_slice
I0925 22:22:39.719486 28206 net.cpp:425] lstm2_cont_slice <- cont
I0925 22:22:39.719501 28206 net.cpp:399] lstm2_cont_slice -> cont_1
I0925 22:22:39.719534 28200 net.cpp:141] Setting up lstm1_
I0925 22:22:39.719552 28200 net.cpp:148] Top shape: 1 1 1000 (1000)
I0925 22:22:39.719558 28206 net.cpp:141] Setting up lstm2_cont_slice
I0925 22:22:39.719563 28200 net.cpp:148] Top shape: 1 1 1000 (1000)
I0925 22:22:39.719571 28206 net.cpp:148] Top shape: 1 1 (1)
I0925 22:22:39.719571 28200 net.cpp:156] Memory required for data: 10004
I0925 22:22:39.719586 28206 net.cpp:156] Memory required for data: 14012
I0925 22:22:39.719609 28206 layer_factory.hpp:77] Creating layer cont_1_lstm2_cont_slice_0_split
I0925 22:22:39.719591 28200 layer_factory.hpp:77] Creating layer lstm1_cont_slice
I0925 22:22:39.719625 28200 net.cpp:91] Creating Layer lstm1_cont_slice
I0925 22:22:39.719627 28206 net.cpp:91] Creating Layer cont_1_lstm2_cont_slice_0_split
I0925 22:22:39.719646 28200 net.cpp:425] lstm1_cont_slice <- cont
I0925 22:22:39.719651 28206 net.cpp:425] cont_1_lstm2_cont_slice_0_split <- cont_1
I0925 22:22:39.719660 28200 net.cpp:399] lstm1_cont_slice -> cont_1
I0925 22:22:39.719662 28206 net.cpp:399] cont_1_lstm2_cont_slice_0_split -> cont_1_lstm2_cont_slice_0_split_0
I0925 22:22:39.719676 28206 net.cpp:399] cont_1_lstm2_cont_slice_0_split -> cont_1_lstm2_cont_slice_0_split_1
I0925 22:22:39.722470 28244 net.cpp:141] Setting up lstm1_x_transform
I0925 22:22:39.722512 28244 net.cpp:148] Top shape: 1 1 4000 (4000)
I0925 22:22:39.722522 28244 net.cpp:156] Memory required for data: 26016
I0925 22:22:39.722527 28206 net.cpp:141] Setting up cont_1_lstm2_cont_slice_0_split
I0925 22:22:39.722540 28206 net.cpp:148] Top shape: 1 1 (1)
I0925 22:22:39.722550 28206 net.cpp:148] Top shape: 1 1 (1)
I0925 22:22:39.722549 28244 layer_factory.hpp:77] Creating layer lstm1_W_xc_x_slice
I0925 22:22:39.722573 28206 net.cpp:156] Memory required for data: 14020
I0925 22:22:39.722580 28206 layer_factory.hpp:77] Creating layer lstm2_x_transform
I0925 22:22:39.722589 28244 net.cpp:91] Creating Layer lstm1_W_xc_x_slice
I0925 22:22:39.722615 28244 net.cpp:425] lstm1_W_xc_x_slice <- W_xc_x
I0925 22:22:39.722620 28206 net.cpp:91] Creating Layer lstm2_x_transform
I0925 22:22:39.722627 28206 net.cpp:425] lstm2_x_transform <- x
I0925 22:22:39.722631 28244 net.cpp:399] lstm1_W_xc_x_slice -> W_xc_x_1
I0925 22:22:39.722641 28206 net.cpp:399] lstm2_x_transform -> W_xc_x
I0925 22:22:39.723652 28244 net.cpp:141] Setting up lstm1_W_xc_x_slice
I0925 22:22:39.723672 28244 net.cpp:148] Top shape: 1 1 4000 (4000)
I0925 22:22:39.723680 28244 net.cpp:156] Memory required for data: 42016
I0925 22:22:39.723690 28244 layer_factory.hpp:77] Creating layer lstm1_h_conted_0
I0925 22:22:39.723704 28244 net.cpp:91] Creating Layer lstm1_h_conted_0
I0925 22:22:39.723711 28244 net.cpp:425] lstm1_h_conted_0 <- h_0
I0925 22:22:39.723717 28244 net.cpp:425] lstm1_h_conted_0 <- cont_1_lstm1_cont_slice_0_split_0
I0925 22:22:39.723727 28244 net.cpp:399] lstm1_h_conted_0 -> h_conted_0
I0925 22:22:39.723737 28200 net.cpp:141] Setting up lstm1_cont_slice
I0925 22:22:39.723760 28200 net.cpp:148] Top shape: 1 1 (1)
I0925 22:22:39.723768 28200 net.cpp:156] Memory required for data: 10008
I0925 22:22:39.723776 28200 layer_factory.hpp:77] Creating layer cont_1_lstm1_cont_slice_0_split
I0925 22:22:39.723834 28200 net.cpp:91] Creating Layer cont_1_lstm1_cont_slice_0_split
I0925 22:22:39.723845 28200 net.cpp:425] cont_1_lstm1_cont_slice_0_split <- cont_1
I0925 22:22:39.723855 28200 net.cpp:399] cont_1_lstm1_cont_slice_0_split -> cont_1_lstm1_cont_slice_0_split_0
I0925 22:22:39.723870 28200 net.cpp:399] cont_1_lstm1_cont_slice_0_split -> cont_1_lstm1_cont_slice_0_split_1
I0925 22:22:39.737922 28244 net.cpp:141] Setting up lstm1_h_conted_0
I0925 22:22:39.737975 28244 net.cpp:148] Top shape: 1 1 1000 (1000)
I0925 22:22:39.737987 28244 net.cpp:156] Memory required for data: 46016
I0925 22:22:39.738000 28244 layer_factory.hpp:77] Creating layer lstm1_transform_1
I0925 22:22:39.738030 28244 net.cpp:91] Creating Layer lstm1_transform_1
I0925 22:22:39.738044 28244 net.cpp:425] lstm1_transform_1 <- h_conted_0
I0925 22:22:39.738065 28244 net.cpp:399] lstm1_transform_1 -> W_hc_h_0
I0925 22:22:39.749127 28200 net.cpp:141] Setting up cont_1_lstm1_cont_slice_0_split
I0925 22:22:39.749189 28200 net.cpp:148] Top shape: 1 1 (1)
I0925 22:22:39.749202 28200 net.cpp:148] Top shape: 1 1 (1)
I0925 22:22:39.749209 28200 net.cpp:156] Memory required for data: 10016
I0925 22:22:39.749222 28200 layer_factory.hpp:77] Creating layer lstm1_x_transform
I0925 22:22:39.749255 28200 net.cpp:91] Creating Layer lstm1_x_transform
I0925 22:22:39.749265 28200 net.cpp:425] lstm1_x_transform <- x
I0925 22:22:39.749286 28200 net.cpp:399] lstm1_x_transform -> W_xc_x
I0925 22:22:39.755014 28218 net.cpp:141] Setting up lstm1_transform_1
I0925 22:22:39.755067 28218 net.cpp:148] Top shape: 1 1 4000 (4000)
I0925 22:22:39.755077 28218 net.cpp:156] Memory required for data: 62016
I0925 22:22:39.755100 28218 layer_factory.hpp:77] Creating layer lstm1_gate_input_1
I0925 22:22:39.755129 28218 net.cpp:91] Creating Layer lstm1_gate_input_1
I0925 22:22:39.755141 28218 net.cpp:425] lstm1_gate_input_1 <- W_hc_h_0
I0925 22:22:39.755149 28218 net.cpp:425] lstm1_gate_input_1 <- W_xc_x_1
I0925 22:22:39.755159 28218 net.cpp:399] lstm1_gate_input_1 -> gate_input_1
I0925 22:22:39.755192 28204 net.cpp:141] Setting up lstm2_x_transform
I0925 22:22:39.755216 28204 net.cpp:148] Top shape: 1 1 4000 (4000)
I0925 22:22:39.755226 28204 net.cpp:156] Memory required for data: 30020
I0925 22:22:39.755228 28218 net.cpp:141] Setting up lstm1_gate_input_1
I0925 22:22:39.755244 28218 net.cpp:148] Top shape: 1 1 4000 (4000)
I0925 22:22:39.755249 28204 layer_factory.hpp:77] Creating layer lstm2_W_xc_x_slice
I0925 22:22:39.755254 28218 net.cpp:156] Memory required for data: 78016
I0925 22:22:39.755260 28218 layer_factory.hpp:77] Creating layer lstm1_unit_1
I0925 22:22:39.755271 28218 net.cpp:91] Creating Layer lstm1_unit_1
I0925 22:22:39.755270 28204 net.cpp:91] Creating Layer lstm2_W_xc_x_slice
I0925 22:22:39.755277 28218 net.cpp:425] lstm1_unit_1 <- c_0
I0925 22:22:39.755283 28204 net.cpp:425] lstm2_W_xc_x_slice <- W_xc_x
I0925 22:22:39.755307 28204 net.cpp:399] lstm2_W_xc_x_slice -> W_xc_x_1
I0925 22:22:39.755285 28218 net.cpp:425] lstm1_unit_1 <- gate_input_1
I0925 22:22:39.755342 28218 net.cpp:425] lstm1_unit_1 <- cont_1_lstm1_cont_slice_0_split_1
I0925 22:22:39.755359 28218 net.cpp:399] lstm1_unit_1 -> c_1
I0925 22:22:39.755378 28218 net.cpp:399] lstm1_unit_1 -> h_1
I0925 22:22:39.756584 28204 net.cpp:141] Setting up lstm2_W_xc_x_slice
I0925 22:22:39.756603 28204 net.cpp:148] Top shape: 1 1 4000 (4000)
I0925 22:22:39.756613 28204 net.cpp:156] Memory required for data: 46020
I0925 22:22:39.756621 28204 layer_factory.hpp:77] Creating layer lstm2_h_conted_0
I0925 22:22:39.756639 28204 net.cpp:91] Creating Layer lstm2_h_conted_0
I0925 22:22:39.756650 28204 net.cpp:425] lstm2_h_conted_0 <- h_0
I0925 22:22:39.756664 28204 net.cpp:425] lstm2_h_conted_0 <- cont_1_lstm2_cont_slice_0_split_0
I0925 22:22:39.756682 28204 net.cpp:399] lstm2_h_conted_0 -> h_conted_0
I0925 22:22:39.756682 28218 net.cpp:141] Setting up lstm1_unit_1
I0925 22:22:39.756705 28218 net.cpp:148] Top shape: 1 1 1000 (1000)
I0925 22:22:39.756719 28218 net.cpp:148] Top shape: 1 1 1000 (1000)
I0925 22:22:39.756729 28218 net.cpp:156] Memory required for data: 86016
I0925 22:22:39.756736 28218 layer_factory.hpp:77] Creating layer lstm1_
I0925 22:22:39.756752 28218 net.cpp:91] Creating Layer lstm1_
I0925 22:22:39.756763 28218 net.cpp:425] lstm1_ <- c_1
I0925 22:22:39.756780 28218 net.cpp:399] lstm1_ -> c_T
I0925 22:22:39.762254 28218 net.cpp:141] Setting up lstm1_
I0925 22:22:39.762295 28218 net.cpp:148] Top shape: 1 1 1000 (1000)
I0925 22:22:39.762307 28218 net.cpp:156] Memory required for data: 90016
I0925 22:22:39.762317 28218 layer_factory.hpp:77] Creating layer lstm1_h_concat
I0925 22:22:39.762333 28218 net.cpp:91] Creating Layer lstm1_h_concat
I0925 22:22:39.762341 28218 net.cpp:425] lstm1_h_concat <- h_1
I0925 22:22:39.762363 28218 net.cpp:399] lstm1_h_concat -> h
I0925 22:22:39.762368 28204 net.cpp:141] Setting up lstm2_h_conted_0
I0925 22:22:39.762389 28204 net.cpp:148] Top shape: 1 1 1000 (1000)
I0925 22:22:39.762398 28204 net.cpp:156] Memory required for data: 50020
I0925 22:22:39.762408 28204 layer_factory.hpp:77] Creating layer lstm2_transform_1
I0925 22:22:39.762428 28204 net.cpp:91] Creating Layer lstm2_transform_1
I0925 22:22:39.762434 28218 net.cpp:141] Setting up lstm1_h_concat
I0925 22:22:39.762439 28204 net.cpp:425] lstm2_transform_1 <- h_conted_0
I0925 22:22:39.762446 28218 net.cpp:148] Top shape: 1 1 1000 (1000)
I0925 22:22:39.762451 28218 net.cpp:156] Memory required for data: 94016
I0925 22:22:39.762457 28218 layer_factory.hpp:77] Creating layer h_pseudoloss
I0925 22:22:39.762459 28204 net.cpp:399] lstm2_transform_1 -> W_hc_h_0
I0925 22:22:39.762470 28218 net.cpp:91] Creating Layer h_pseudoloss
I0925 22:22:39.762480 28218 net.cpp:425] h_pseudoloss <- h
I0925 22:22:39.762491 28218 net.cpp:399] h_pseudoloss -> h_pseudoloss
…
I0925 22:22:39.762884 28218 net.cpp:261] This network produces output c_T
I0925 22:22:39.762893 28218 net.cpp:261] This network produces output h_pseudoloss
I0925 22:22:39.762912 28218 net.cpp:274] Network initialization done.
I0925 22:22:39.762975 28218 recurrent_layer.cpp:150] Adding parameter 0: W_xc
I0925 22:22:39.762984 28218 recurrent_layer.cpp:150] Adding parameter 1: b_c
I0925 22:22:39.762990 28218 recurrent_layer.cpp:150] Adding parameter 2: W_hc
I0925 22:22:39.784471 28218 net.cpp:141] Setting up lstm1
I0925 22:22:39.784716 28200 net.cpp:141] Setting up lstm1_x_transform
I0925 22:22:39.786890 28218 net.cpp:148] Top shape: 1 1 1000 (1000)
I0925 22:22:39.786960 28218 net.cpp:156] Memory required for data: 26408
I0925 22:22:39.786967 28200 net.cpp:148] Top shape: 1 1 4000 (4000)
I0925 22:22:39.786983 28200 net.cpp:156] Memory required for data: 26016
I0925 22:22:39.786998 28218 layer_factory.hpp:77] Creating layer concat
I0925 22:22:39.787014 28200 layer_factory.hpp:77] Creating layer lstm1_W_xc_x_slice
I0925 22:22:39.787024 28218 net.cpp:91] Creating Layer concat
I0925 22:22:39.787035 28200 net.cpp:91] Creating Layer lstm1_W_xc_x_slice
I0925 22:22:39.787036 28218 net.cpp:425] concat <- lstm1
I0925 22:22:39.787046 28200 net.cpp:425] lstm1_W_xc_x_slice <- W_xc_x
I0925 22:22:39.787052 28218 net.cpp:425] concat <- embedded_input_sentence
I0925 22:22:39.787063 28218 net.cpp:425] concat <- reshaped_stage_indicator
I0925 22:22:39.787066 28200 net.cpp:399] lstm1_W_xc_x_slice -> W_xc_x_1
I0925 22:22:39.787077 28218 net.cpp:399] concat -> lstm1_video_sequence
I0925 22:22:39.796809 28200 net.cpp:141] Setting up lstm1_W_xc_x_slice
I0925 22:22:39.796866 28200 net.cpp:148] Top shape: 1 1 4000 (4000)
I0925 22:22:39.796875 28200 net.cpp:156] Memory required for data: 42016
I0925 22:22:39.796887 28200 layer_factory.hpp:77] Creating layer lstm1_h_conted_0
I0925 22:22:39.796911 28200 net.cpp:91] Creating Layer lstm1_h_conted_0
I0925 22:22:39.796919 28200 net.cpp:425] lstm1_h_conted_0 <- h_0
I0925 22:22:39.796932 28200 net.cpp:425] lstm1_h_conted_0 <- cont_1_lstm1_cont_slice_0_split_0
I0925 22:22:39.796944 28200 net.cpp:399] lstm1_h_conted_0 -> h_conted_0
I0925 22:22:39.797112 28200 net.cpp:141] Setting up lstm1_h_conted_0
I0925 22:22:39.797127 28200 net.cpp:148] Top shape: 1 1 1000 (1000)
I0925 22:22:39.797134 28200 net.cpp:156] Memory required for data: 46016
I0925 22:22:39.797142 28200 layer_factory.hpp:77] Creating layer lstm1_transform_1
I0925 22:22:39.797158 28200 net.cpp:91] Creating Layer lstm1_transform_1
I0925 22:22:39.797165 28200 net.cpp:425] lstm1_transform_1 <- h_conted_0
I0925 22:22:39.797179 28200 net.cpp:399] lstm1_transform_1 -> W_hc_h_0
I0925 22:22:39.805366 28238 net.cpp:141] Setting up lstm1_transform_1
I0925 22:22:39.805431 28238 net.cpp:148] Top shape: 1 1 4000 (4000)
I0925 22:22:39.805443 28238 net.cpp:156] Memory required for data: 62016
I0925 22:22:39.805472 28238 layer_factory.hpp:77] Creating layer lstm1_gate_input_1
I0925 22:22:39.805505 28238 net.cpp:91] Creating Layer lstm1_gate_input_1
I0925 22:22:39.805517 28238 net.cpp:425] lstm1_gate_input_1 <- W_hc_h_0
I0925 22:22:39.805531 28238 net.cpp:425] lstm1_gate_input_1 <- W_xc_x_1
I0925 22:22:39.806550 28238 net.cpp:399] lstm1_gate_input_1 -> gate_input_1
I0925 22:22:39.806737 28238 net.cpp:141] Setting up lstm1_gate_input_1
I0925 22:22:39.806758 28238 net.cpp:148] Top shape: 1 1 4000 (4000)
I0925 22:22:39.806767 28238 net.cpp:156] Memory required for data: 78016
I0925 22:22:39.806777 28238 layer_factory.hpp:77] Creating layer lstm1_unit_1
I0925 22:22:39.806794 28238 net.cpp:91] Creating Layer lstm1_unit_1
I0925 22:22:39.806803 28238 net.cpp:425] lstm1_unit_1 <- c_0
I0925 22:22:39.806804 28218 net.cpp:141] Setting up concat
I0925 22:22:39.806814 28238 net.cpp:425] lstm1_unit_1 <- gate_input_1
I0925 22:22:39.806825 28238 net.cpp:425] lstm1_unit_1 <- cont_1_lstm1_cont_slice_0_split_1
I0925 22:22:39.806828 28218 net.cpp:148] Top shape: 1 1 1501 (1501)
I0925 22:22:39.806838 28218 net.cpp:156] Memory required for data: 32412
I0925 22:22:39.806849 28218 layer_factory.hpp:77] Creating layer lstm2
I0925 22:22:39.806870 28218 net.cpp:91] Creating Layer lstm2
I0925 22:22:39.806881 28218 net.cpp:425] lstm2 <- lstm1_video_sequence
I0925 22:22:39.806893 28218 net.cpp:425] lstm2 <- cont_sentence_input_1_split_1
I0925 22:22:39.806908 28218 net.cpp:399] lstm2 -> lstm2
I0925 22:22:39.806929 28218 recurrent_layer.cpp:20] Initializing recurrent layer: assuming input batch contains 1 timesteps of 1 independent streams.
I0925 22:22:39.808498 28238 net.cpp:399] lstm1_unit_1 -> c_1
I0925 22:22:39.808506 28244 net.cpp:141] Setting up lstm1_transform_1
I0925 22:22:39.808547 28238 net.cpp:399] lstm1_unit_1 -> h_1
I0925 22:22:39.808549 28244 net.cpp:148] Top shape: 1 1 4000 (4000)
I0925 22:22:39.808578 28244 net.cpp:156] Memory required for data: 62016
I0925 22:22:39.808604 28244 layer_factory.hpp:77] Creating layer lstm1_gate_input_1
I0925 22:22:39.808631 28244 net.cpp:91] Creating Layer lstm1_gate_input_1
I0925 22:22:39.808642 28244 net.cpp:425] lstm1_gate_input_1 <- W_hc_h_0
I0925 22:22:39.808655 28244 net.cpp:425] lstm1_gate_input_1 <- W_xc_x_1
I0925 22:22:39.808666 28244 net.cpp:399] lstm1_gate_input_1 -> gate_input_1
I0925 22:22:39.808502 28218 net.cpp:49] Initializing net from parameters: 
layer {
  name: "lstm2_"
  type: "Input"
  top: "x"
  top: "cont"
  input_param {
    shape {
      dim: 1
      dim: 1
      dim: 1501
    }
    shape {
      dim: 1
      dim: 1
    }
  }
}
layer {
  name: "lstm2_"
  type: "Input"
  top: "c_0"
  top: "h_0"
  input_param {
    shape {
      dim: 1
      dim: 1
      dim: 1000
    }
    shape {
      dim: 1
      dim: 1
      dim: 1000
    }
  }
}
layer {
  name: "lstm2_cont_slice"
  type: "Slice"
  bottom: "cont"
  top: "cont_1"
  slice_param {
    axis: 0
  }
}
layer {
  name: "lstm2_x_transform"
  type: "InnerProduct"
  bottom: "x"
  top: "W_xc_x"
  param {
    name: "W_xc"
  }
  param {
    name: "b_c"
  }
  propagate_down: true
  inner_product_param {
    num_output: 4000
    bias_term: true
    weight_filler {
      type: "uniform"
      min: -0.08
      max: 0.08
    }
    bias_filler {
      type: "constant"
      value: 0
    }
    axis: 2
  }
}
layer {
  name: "lstm2_W_xc_x_slice"
  type: "Slice"
  bottom: "W_xc_x"
  top: "W_xc_x_1"
  slice_param {
    axis: 0
  }
}
layer {
  name: "lstm2_h_conted_0"
  type: "Scale"
  bottom: "h_0"
  bottom: "cont_1"
  top: "h_conted_0"
  scale_param {
    axis: 0
  }
}
layer {
  name: "lstm2_transform_1"
  type: "InnerProduct"
  bottom: "h_conted_0"
  top: "W_hc_h_0"
  param {
    name: "W_hc"
  }
  inner_product_param {
    num_output: 4000
    bias_term: false
    weight_filler {
      type: "uniform"
      min: -0.08
      max: 0.08
    }
    axis: 2
  }
}
layer {
  name: "lstm2_gate_input_1"
  type: "Eltwise"
  bottom: "W_hc_h_0"
  bottom: "W_xc_x_1"
  top: "gate_input_1"
  eltwise_param {
    operation: SUM
  }
}
layer {
  name: "lstm2_unit_1"
  type: "LSTMUnit"
  bottom: "c_0"
  bottom: "gate_input_1"
  bottom: "cont_1"
  top: "c_1"
  top: "h_1"
}
layer {
  name: "lstm2_"
  type: "Split"
  bottom: "c_1"
  top: "c_T"
}
layer {
  name: "lstm2_h_concat"
  type: "Concat"
  bottom: "h_1"
  top: "h"
  concat_param {
    axis: 0
  }
}
layer {
  name: "h_pseudoloss"
  type: "Reduction"
  bottom: "h"
  top: "h_pseudoloss"
  loss_weight: 1
}
I0925 22:22:39.809839 28218 layer_factory.hpp:77] Creating layer lstm2_
I0925 22:22:39.809862 28218 net.cpp:91] Creating Layer lstm2_
I0925 22:22:39.809875 28218 net.cpp:399] lstm2_ -> x
I0925 22:22:39.809895 28218 net.cpp:399] lstm2_ -> cont
I0925 22:22:39.813942 28244 net.cpp:141] Setting up lstm1_gate_input_1
I0925 22:22:39.813984 28244 net.cpp:148] Top shape: 1 1 4000 (4000)
I0925 22:22:39.813993 28244 net.cpp:156] Memory required for data: 78016
I0925 22:22:39.814004 28244 layer_factory.hpp:77] Creating layer lstm1_unit_1
I0925 22:22:39.814025 28244 net.cpp:91] Creating Layer lstm1_unit_1
I0925 22:22:39.814035 28244 net.cpp:425] lstm1_unit_1 <- c_0
I0925 22:22:39.814048 28244 net.cpp:425] lstm1_unit_1 <- gate_input_1
I0925 22:22:39.814055 28244 net.cpp:425] lstm1_unit_1 <- cont_1_lstm1_cont_slice_0_split_1
I0925 22:22:39.814067 28244 net.cpp:399] lstm1_unit_1 -> c_1
I0925 22:22:39.814085 28244 net.cpp:399] lstm1_unit_1 -> h_1
I0925 22:22:39.814198 28206 net.cpp:141] Setting up lstm2_x_transform
I0925 22:22:39.814223 28206 net.cpp:148] Top shape: 1 1 4000 (4000)
I0925 22:22:39.814231 28206 net.cpp:156] Memory required for data: 30020
I0925 22:22:39.814255 28206 layer_factory.hpp:77] Creating layer lstm2_W_xc_x_slice
I0925 22:22:39.814272 28218 net.cpp:141] Setting up lstm2_
I0925 22:22:39.814273 28206 net.cpp:91] Creating Layer lstm2_W_xc_x_slice
I0925 22:22:39.814318 28218 net.cpp:148] Top shape: 1 1 1501 (1501)
I0925 22:22:39.814321 28206 net.cpp:425] lstm2_W_xc_x_slice <- W_xc_x
I0925 22:22:39.814333 28218 net.cpp:148] Top shape: 1 1 (1)
I0925 22:22:39.814337 28206 net.cpp:399] lstm2_W_xc_x_slice -> W_xc_x_1
I0925 22:22:39.814342 28218 net.cpp:156] Memory required for data: 6008
I0925 22:22:39.814354 28218 layer_factory.hpp:77] Creating layer lstm2_
I0925 22:22:39.814375 28218 net.cpp:91] Creating Layer lstm2_
I0925 22:22:39.814391 28218 net.cpp:399] lstm2_ -> c_0
I0925 22:22:39.814393 28244 net.cpp:141] Setting up lstm1_unit_1
I0925 22:22:39.814409 28244 net.cpp:148] Top shape: 1 1 1000 (1000)
I0925 22:22:39.814414 28218 net.cpp:399] lstm2_ -> h_0
I0925 22:22:39.814420 28244 net.cpp:148] Top shape: 1 1 1000 (1000)
I0925 22:22:39.814429 28244 net.cpp:156] Memory required for data: 86016
I0925 22:22:39.814435 28244 layer_factory.hpp:77] Creating layer lstm1_
I0925 22:22:39.814451 28244 net.cpp:91] Creating Layer lstm1_
I0925 22:22:39.814458 28244 net.cpp:425] lstm1_ <- c_1
I0925 22:22:39.814469 28244 net.cpp:399] lstm1_ -> c_T
I0925 22:22:39.814517 28206 net.cpp:141] Setting up lstm2_W_xc_x_slice
I0925 22:22:39.814535 28206 net.cpp:148] Top shape: 1 1 4000 (4000)
I0925 22:22:39.814543 28206 net.cpp:156] Memory required for data: 46020
I0925 22:22:39.814553 28206 layer_factory.hpp:77] Creating layer lstm2_h_conted_0
I0925 22:22:39.814568 28206 net.cpp:91] Creating Layer lstm2_h_conted_0
I0925 22:22:39.814576 28206 net.cpp:425] lstm2_h_conted_0 <- h_0
I0925 22:22:39.814587 28206 net.cpp:425] lstm2_h_conted_0 <- cont_1_lstm2_cont_slice_0_split_0
I0925 22:22:39.814617 28206 net.cpp:399] lstm2_h_conted_0 -> h_conted_0
I0925 22:22:39.814782 28206 net.cpp:141] Setting up lstm2_h_conted_0
I0925 22:22:39.814800 28206 net.cpp:148] Top shape: 1 1 1000 (1000)
I0925 22:22:39.814807 28206 net.cpp:156] Memory required for data: 50020
I0925 22:22:39.814815 28206 layer_factory.hpp:77] Creating layer lstm2_transform_1
I0925 22:22:39.814834 28206 net.cpp:91] Creating Layer lstm2_transform_1
I0925 22:22:39.814843 28206 net.cpp:425] lstm2_transform_1 <- h_conted_0
I0925 22:22:39.814857 28206 net.cpp:399] lstm2_transform_1 -> W_hc_h_0
I0925 22:22:39.822794 28238 net.cpp:141] Setting up lstm1_unit_1
I0925 22:22:39.822849 28238 net.cpp:148] Top shape: 1 1 1000 (1000)
I0925 22:22:39.822861 28238 net.cpp:148] Top shape: 1 1 1000 (1000)
I0925 22:22:39.822870 28238 net.cpp:156] Memory required for data: 86016
I0925 22:22:39.822883 28238 layer_factory.hpp:77] Creating layer lstm1_
I0925 22:22:39.822907 28238 net.cpp:91] Creating Layer lstm1_
I0925 22:22:39.822919 28238 net.cpp:425] lstm1_ <- c_1
I0925 22:22:39.822978 28238 net.cpp:399] lstm1_ -> c_T
I0925 22:22:39.823088 28238 net.cpp:141] Setting up lstm1_
I0925 22:22:39.823109 28238 net.cpp:148] Top shape: 1 1 1000 (1000)
I0925 22:22:39.823118 28238 net.cpp:156] Memory required for data: 90016
I0925 22:22:39.823129 28238 layer_factory.hpp:77] Creating layer lstm1_h_concat
I0925 22:22:39.823146 28238 net.cpp:91] Creating Layer lstm1_h_concat
I0925 22:22:39.823155 28238 net.cpp:425] lstm1_h_concat <- h_1
I0925 22:22:39.823173 28238 net.cpp:399] lstm1_h_concat -> h
I0925 22:22:39.823236 28238 net.cpp:141] Setting up lstm1_h_concat
I0925 22:22:39.823252 28238 net.cpp:148] Top shape: 1 1 1000 (1000)
I0925 22:22:39.823261 28238 net.cpp:156] Memory required for data: 94016
I0925 22:22:39.823269 28238 layer_factory.hpp:77] Creating layer h_pseudoloss
I0925 22:22:39.823326 28238 net.cpp:91] Creating Layer h_pseudoloss
I0925 22:22:39.823339 28238 net.cpp:425] h_pseudoloss <- h
I0925 22:22:39.823354 28238 net.cpp:399] h_pseudoloss -> h_pseudoloss
I0925 22:22:39.823442 28244 net.cpp:141] Setting up lstm1_
I0925 22:22:39.823485 28244 net.cpp:148] Top shape: 1 1 1000 (1000)
I0925 22:22:39.823495 28244 net.cpp:156] Memory required for data: 90016
I0925 22:22:39.823506 28244 layer_factory.hpp:77] Creating layer lstm1_h_concat
I0925 22:22:39.823528 28244 net.cpp:91] Creating Layer lstm1_h_concat
I0925 22:22:39.823537 28244 net.cpp:425] lstm1_h_concat <- h_1
I0925 22:22:39.827339 28210 net.cpp:141] Setting up embedding
I0925 22:22:39.827369 28210 net.cpp:148] Top shape: 1 1 500 (500)
I0925 22:22:39.827375 28210 net.cpp:156] Memory required for data: 22408
I0925 22:22:39.827391 28210 layer_factory.hpp:77] Creating layer lstm1
I0925 22:22:39.827407 28210 net.cpp:91] Creating Layer lstm1
I0925 22:22:39.827414 28210 net.cpp:425] lstm1 <- embedded_input_frames
I0925 22:22:39.827427 28210 net.cpp:425] lstm1 <- cont_sentence_input_1_split_0
I0925 22:22:39.827437 28210 net.cpp:399] lstm1 -> lstm1
I0925 22:22:39.827451 28210 recurrent_layer.cpp:20] Initializing recurrent layer: assuming input batch contains 1 timesteps of 1 independent streams.
I0925 22:22:39.827750 28244 net.cpp:399] lstm1_h_concat -> h
I0925 22:22:39.827909 28210 net.cpp:49] Initializing net from parameters: 
layer {
  name: "lstm1_"
  type: "Input"
  top: "x"
  top: "cont"
  input_param {
    shape {
      dim: 1
      dim: 1
      dim: 500
    }
    shape {
      dim: 1
      dim: 1
    }
  }
}
layer {
  name: "lstm1_"
  type: "Input"
  top: "c_0"
  top: "h_0"
  input_param {
    shape {
      dim: 1
      dim: 1
      dim: 1000
    }
    shape {
      dim: 1
      dim: 1
      dim: 1000
    }
  }
}
layer {
  name: "lstm1_cont_slice"
  type: "Slice"
  bottom: "cont"
  top: "cont_1"
  slice_param {
    axis: 0
  }
}
layer {
  name: "lstm1_x_transform"
  type: "InnerProduct"
  bottom: "x"
  top: "W_xc_x"
  param {
    name: "W_xc"
  }
  param {
    name: "b_c"
  }
  propagate_down: true
  inner_product_param {
    num_output: 4000
    bias_term: true
    weight_filler {
      type: "uniform"
      min: -0.08
      max: 0.08
    }
    bias_filler {
      type: "constant"
      value: 0
    }
    axis: 2
  }
}
layer {
  name: "lstm1_W_xc_x_slice"
  type: "Slice"
  bottom: "W_xc_x"
  top: "W_xc_x_1"
  slice_param {
    axis: 0
  }
}
layer {
  name: "lstm1_h_conted_0"
  type: "Scale"
  bottom: "h_0"
  bottom: "cont_1"
  top: "h_conted_0"
  scale_param {
    axis: 0
  }
}
layer {
  name: "lstm1_transform_1"
  type: "InnerProduct"
  bottom: "h_conted_0"
  top: "W_hc_h_0"
  param {
    name: "W_hc"
  }
  inner_product_param {
    num_output: 4000
    bias_term: false
    weight_filler {
      type: "uniform"
      min: -0.08
      max: 0.08
    }
    axis: 2
  }
}
layer {
  name: "lstm1_gate_input_1"
  type: "Eltwise"
  bottom: "W_hc_h_0"
  bottom: "W_xc_x_1"
  top: "gate_input_1"
  eltwise_param {
    operation: SUM
  }
}
layer {
  name: "lstm1_unit_1"
  type: "LSTMUnit"
  bottom: "c_0"
  bottom: "gate_input_1"
  bottom: "cont_1"
  top: "c_1"
  top: "h_1"
}
layer {
  name: "lstm1_"
  type: "Split"
  bottom: "c_1"
  top: "c_T"
}
layer {
  name: "lstm1_h_concat"
  type: "Concat"
  bottom: "h_1"
  top: "h"
  concat_param {
    axis: 0
  }
}
layer {
  name: "h_pseudoloss"
  type: "Reduction"
  bottom: "h"
  top: "h_pseudoloss"
  loss_weight: 1
}
I0925 22:22:39.828025 28210 layer_factory.hpp:77] Creating layer lstm1_
I0925 22:22:39.828042 28210 net.cpp:91] Creating Layer lstm1_
I0925 22:22:39.828050 28210 net.cpp:399] lstm1_ -> x
I0925 22:22:39.828064 28210 net.cpp:399] lstm1_ -> cont
I0925 22:22:39.832782 28204 net.cpp:141] Setting up lstm2_transform_1
I0925 22:22:39.832828 28204 net.cpp:148] Top shape: 1 1 4000 (4000)
I0925 22:22:39.832839 28204 net.cpp:156] Memory required for data: 66020
I0925 22:22:39.832865 28204 layer_factory.hpp:77] Creating layer lstm2_gate_input_1
I0925 22:22:39.832896 28204 net.cpp:91] Creating Layer lstm2_gate_input_1
I0925 22:22:39.832908 28204 net.cpp:425] lstm2_gate_input_1 <- W_hc_h_0
I0925 22:22:39.832911 28218 net.cpp:141] Setting up lstm2_
I0925 22:22:39.832921 28204 net.cpp:425] lstm2_gate_input_1 <- W_xc_x_1
I0925 22:22:39.832957 28218 net.cpp:148] Top shape: 1 1 1000 (1000)
I0925 22:22:39.832965 28204 net.cpp:399] lstm2_gate_input_1 -> gate_input_1
I0925 22:22:39.832970 28218 net.cpp:148] Top shape: 1 1 1000 (1000)
I0925 22:22:39.832979 28218 net.cpp:156] Memory required for data: 14008
I0925 22:22:39.832989 28218 layer_factory.hpp:77] Creating layer lstm2_cont_slice
I0925 22:22:39.832988 28244 net.cpp:141] Setting up lstm1_h_concat
I0925 22:22:39.833009 28244 net.cpp:148] Top shape: 1 1 1000 (1000)
I0925 22:22:39.833011 28218 net.cpp:91] Creating Layer lstm2_cont_slice
I0925 22:22:39.833017 28244 net.cpp:156] Memory required for data: 94016
I0925 22:22:39.833024 28218 net.cpp:425] lstm2_cont_slice <- cont
I0925 22:22:39.833027 28244 layer_factory.hpp:77] Creating layer h_pseudoloss
I0925 22:22:39.833039 28218 net.cpp:399] lstm2_cont_slice -> cont_1
I0925 22:22:39.833044 28244 net.cpp:91] Creating Layer h_pseudoloss
I0925 22:22:39.833052 28244 net.cpp:425] h_pseudoloss <- h
I0925 22:22:39.833065 28244 net.cpp:399] h_pseudoloss -> h_pseudoloss
I0925 22:22:39.833230 28244 net.cpp:141] Setting up h_pseudoloss
I0925 22:22:39.833245 28244 net.cpp:148] Top shape: (1)
I0925 22:22:39.833253 28244 net.cpp:151]     with loss weight 1
I0925 22:22:39.833276 28244 net.cpp:156] Memory required for data: 94020
I0925 22:22:39.833284 28244 net.cpp:217] h_pseudoloss needs backward computation.
I0925 22:22:39.833284 28218 net.cpp:141] Setting up lstm2_cont_slice
I0925 22:22:39.833292 28244 net.cpp:217] lstm1_h_concat needs backward computation.
I0925 22:22:39.833310 28218 net.cpp:148] Top shape: 1 1 (1)
I0925 22:22:39.833317 28218 net.cpp:156] Memory required for data: 14012
I0925 22:22:39.833317 28244 net.cpp:219] lstm1_ does not need backward computation.
I0925 22:22:39.833325 28218 layer_factory.hpp:77] Creating layer cont_1_lstm2_cont_slice_0_split
I0925 22:22:39.833328 28244 net.cpp:217] lstm1_unit_1 needs backward computation.
I0925 22:22:39.833338 28244 net.cpp:217] lstm1_gate_input_1 needs backward computation.
…
I0925 22:22:39.833432 28244 net.cpp:219] lstm1_ does not need backward computation.
I0925 22:22:39.833438 28244 net.cpp:261] This network produces output c_T
I0925 22:22:39.833446 28244 net.cpp:261] This network produces output h_pseudoloss
I0925 22:22:39.833468 28244 net.cpp:274] Network initialization done.
I0925 22:22:39.833539 28244 recurrent_layer.cpp:150] Adding parameter 0: W_xc
I0925 22:22:39.833549 28244 recurrent_layer.cpp:150] Adding parameter 1: b_c
I0925 22:22:39.833557 28244 recurrent_layer.cpp:150] Adding parameter 2: W_hc
I0925 22:22:39.833616 28204 net.cpp:141] Setting up lstm2_gate_input_1
I0925 22:22:39.833631 28204 net.cpp:148] Top shape: 1 1 4000 (4000)
I0925 22:22:39.833636 28204 net.cpp:156] Memory required for data: 82020
I0925 22:22:39.833641 28204 layer_factory.hpp:77] Creating layer lstm2_unit_1
I0925 22:22:39.833649 28204 net.cpp:91] Creating Layer lstm2_unit_1
I0925 22:22:39.833654 28204 net.cpp:425] lstm2_unit_1 <- c_0
I0925 22:22:39.833660 28204 net.cpp:425] lstm2_unit_1 <- gate_input_1
I0925 22:22:39.833667 28204 net.cpp:425] lstm2_unit_1 <- cont_1_lstm2_cont_slice_0_split_1
I0925 22:22:39.833670 28210 net.cpp:141] Setting up lstm1_
I0925 22:22:39.833676 28204 net.cpp:399] lstm2_unit_1 -> c_1
I0925 22:22:39.833698 28210 net.cpp:148] Top shape: 1 1 500 (500)
I0925 22:22:39.833708 28204 net.cpp:399] lstm2_unit_1 -> h_1
I0925 22:22:39.833711 28210 net.cpp:148] Top shape: 1 1 (1)
I0925 22:22:39.833722 28210 net.cpp:156] Memory required for data: 2004
I0925 22:22:39.833732 28210 layer_factory.hpp:77] Creating layer lstm1_
I0925 22:22:39.833758 28210 net.cpp:91] Creating Layer lstm1_
I0925 22:22:39.833775 28210 net.cpp:399] lstm1_ -> c_0
I0925 22:22:39.833794 28210 net.cpp:399] lstm1_ -> h_0
I0925 22:22:39.833942 28204 net.cpp:141] Setting up lstm2_unit_1
I0925 22:22:39.833956 28204 net.cpp:148] Top shape: 1 1 1000 (1000)
I0925 22:22:39.833961 28204 net.cpp:148] Top shape: 1 1 1000 (1000)
I0925 22:22:39.833966 28204 net.cpp:156] Memory required for data: 90020
I0925 22:22:39.833971 28204 layer_factory.hpp:77] Creating layer lstm2_
I0925 22:22:39.833986 28204 net.cpp:91] Creating Layer lstm2_
I0925 22:22:39.833991 28204 net.cpp:425] lstm2_ <- c_1
I0925 22:22:39.833998 28204 net.cpp:399] lstm2_ -> c_T
I0925 22:22:39.838513 28218 net.cpp:141] Setting up cont_1_lstm2_cont_slice_0_split
I0925 22:22:39.838543 28218 net.cpp:148] Top shape: 1 1 (1)
I0925 22:22:39.838557 28218 net.cpp:148] Top shape: 1 1 (1)
I0925 22:22:39.838563 28238 net.cpp:141] Setting up h_pseudoloss
I0925 22:22:39.838565 28218 net.cpp:156] Memory required for data: 14020
I0925 22:22:39.838587 28238 net.cpp:148] Top shape: (1)
I0925 22:22:39.838587 28218 layer_factory.hpp:77] Creating layer lstm2_x_transform
I0925 22:22:39.838614 28238 net.cpp:151]     with loss weight 1
I0925 22:22:39.838639 28238 net.cpp:156] Memory required for data: 94020
…
I0925 22:22:39.838784 28238 net.cpp:219] lstm1_ does not need backward computation.
I0925 22:22:39.838791 28238 net.cpp:261] This network produces output c_T
I0925 22:22:39.838801 28238 net.cpp:261] This network produces output h_pseudoloss
I0925 22:22:39.838857 28238 net.cpp:274] Network initialization done.
I0925 22:22:39.838949 28238 recurrent_layer.cpp:150] Adding parameter 0: W_xc
I0925 22:22:39.838964 28238 recurrent_layer.cpp:150] Adding parameter 1: b_c
I0925 22:22:39.838974 28238 recurrent_layer.cpp:150] Adding parameter 2: W_hc
I0925 22:22:39.851296 28244 net.cpp:141] Setting up lstm1
I0925 22:22:39.851361 28244 net.cpp:148] Top shape: 1 1 1000 (1000)
I0925 22:22:39.851372 28244 net.cpp:156] Memory required for data: 26408
I0925 22:22:39.851403 28244 layer_factory.hpp:77] Creating layer concat
I0925 22:22:39.851428 28244 net.cpp:91] Creating Layer concat
I0925 22:22:39.851438 28244 net.cpp:425] concat <- lstm1
I0925 22:22:39.851451 28244 net.cpp:425] concat <- embedded_input_sentence
I0925 22:22:39.851461 28244 net.cpp:425] concat <- reshaped_stage_indicator
I0925 22:22:39.851472 28244 net.cpp:399] concat -> lstm1_video_sequence
I0925 22:22:39.851539 28244 net.cpp:141] Setting up concat
I0925 22:22:39.851553 28244 net.cpp:148] Top shape: 1 1 1501 (1501)
I0925 22:22:39.851560 28244 net.cpp:156] Memory required for data: 32412
I0925 22:22:39.851568 28244 layer_factory.hpp:77] Creating layer lstm2
I0925 22:22:39.851588 28244 net.cpp:91] Creating Layer lstm2
I0925 22:22:39.851596 28244 net.cpp:425] lstm2 <- lstm1_video_sequence
I0925 22:22:39.851606 28244 net.cpp:425] lstm2 <- cont_sentence_input_1_split_1
I0925 22:22:39.851619 28244 net.cpp:399] lstm2 -> lstm2
I0925 22:22:39.851635 28244 recurrent_layer.cpp:20] Initializing recurrent layer: assuming input batch contains 1 timesteps of 1 independent streams.
I0925 22:22:39.852049 28244 net.cpp:49] Initializing net from parameters: 
layer {
  name: "lstm2_"
  type: "Input"
  top: "x"
  top: "cont"
  input_param {
    shape {
      dim: 1
      dim: 1
      dim: 1501
    }
    shape {
      dim: 1
      dim: 1
    }
  }
}
layer {
  name: "lstm2_"
  type: "Input"
  top: "c_0"
  top: "h_0"
  input_param {
    shape {
      dim: 1
      dim: 1
      dim: 1000
    }
    shape {
      dim: 1
      dim: 1
      dim: 1000
    }
  }
}
layer {
  name: "lstm2_cont_slice"
  type: "Slice"
  bottom: "cont"
  top: "cont_1"
  slice_param {
    axis: 0
  }
}
layer {
  name: "lstm2_x_transform"
  type: "InnerProduct"
  bottom: "x"
  top: "W_xc_x"
  param {
    name: "W_xc"
  }
  param {
    name: "b_c"
  }
  propagate_down: true
  inner_product_param {
    num_output: 4000
    bias_term: true
    weight_filler {
      type: "uniform"
      min: -0.08
      max: 0.08
    }
    bias_filler {
      type: "constant"
      value: 0
    }
    axis: 2
  }
}
layer {
  name: "lstm2_W_xc_x_slice"
  type: "Slice"
  bottom: "W_xc_x"
  top: "W_xc_x_1"
  slice_param {
    axis: 0
  }
}
layer {
  name: "lstm2_h_conted_0"
  type: "Scale"
  bottom: "h_0"
  bottom: "cont_1"
  top: "h_conted_0"
  scale_param {
    axis: 0
  }
}
layer {
  name: "lstm2_transform_1"
  type: "InnerProduct"
  bottom: "h_conted_0"
  top: "W_hc_h_0"
  param {
    name: "W_hc"
  }
  inner_product_param {
    num_output: 4000
    bias_term: false
    weight_filler {
      type: "uniform"
      min: -0.08
      max: 0.08
    }
    axis: 2
  }
}
layer {
  name: "lstm2_gate_input_1"
  type: "Eltwise"
  bottom: "W_hc_h_0"
  bottom: "W_xc_x_1"
  top: "gate_input_1"
  eltwise_param {
    operation: SUM
  }
}
layer {
  name: "lstm2_unit_1"
  type: "LSTMUnit"
  bottom: "c_0"
  bottom: "gate_input_1"
  bottom: "cont_1"
  top: "c_1"
  top: "h_1"
}
layer {
  name: "lstm2_"
  type: "Split"
  bottom: "c_1"
  top: "c_T"
}
layer {
  name: "lstm2_h_concat"
  type: "Concat"
  bottom: "h_1"
  top: "h"
  concat_param {
    axis: 0
  }
}
layer {
  name: "h_pseudoloss"
  type: "Reduction"
  bottom: "h"
  top: "h_pseudoloss"
  loss_weight: 1
}
I0925 22:22:39.852185 28244 layer_factory.hpp:77] Creating layer lstm2_
I0925 22:22:39.852202 28244 net.cpp:91] Creating Layer lstm2_
I0925 22:22:39.852212 28244 net.cpp:399] lstm2_ -> x
I0925 22:22:39.852229 28244 net.cpp:399] lstm2_ -> cont
I0925 22:22:39.852313 28244 net.cpp:141] Setting up lstm2_
I0925 22:22:39.852329 28244 net.cpp:148] Top shape: 1 1 1501 (1501)
I0925 22:22:39.852339 28244 net.cpp:148] Top shape: 1 1 (1)
I0925 22:22:39.852345 28244 net.cpp:156] Memory required for data: 6008
I0925 22:22:39.852354 28244 layer_factory.hpp:77] Creating layer lstm2_
I0925 22:22:39.852366 28244 net.cpp:91] Creating Layer lstm2_
I0925 22:22:39.852380 28244 net.cpp:399] lstm2_ -> c_0
I0925 22:22:39.852394 28244 net.cpp:399] lstm2_ -> h_0
I0925 22:22:39.852470 28244 net.cpp:141] Setting up lstm2_
I0925 22:22:39.852485 28244 net.cpp:148] Top shape: 1 1 1000 (1000)
I0925 22:22:39.852495 28244 net.cpp:148] Top shape: 1 1 1000 (1000)
I0925 22:22:39.852502 28244 net.cpp:156] Memory required for data: 14008
I0925 22:22:39.852509 28244 layer_factory.hpp:77] Creating layer lstm2_cont_slice
I0925 22:22:39.852522 28244 net.cpp:91] Creating Layer lstm2_cont_slice
I0925 22:22:39.852530 28244 net.cpp:425] lstm2_cont_slice <- cont
I0925 22:22:39.852541 28244 net.cpp:399] lstm2_cont_slice -> cont_1
I0925 22:22:39.852594 28244 net.cpp:141] Setting up lstm2_cont_slice
I0925 22:22:39.852608 28244 net.cpp:148] Top shape: 1 1 (1)
I0925 22:22:39.852615 28244 net.cpp:156] Memory required for data: 14012
I0925 22:22:39.852622 28244 layer_factory.hpp:77] Creating layer cont_1_lstm2_cont_slice_0_split
I0925 22:22:39.852636 28244 net.cpp:91] Creating Layer cont_1_lstm2_cont_slice_0_split
I0925 22:22:39.852643 28244 net.cpp:425] cont_1_lstm2_cont_slice_0_split <- cont_1
I0925 22:22:39.852654 28244 net.cpp:399] cont_1_lstm2_cont_slice_0_split -> cont_1_lstm2_cont_slice_0_split_0
I0925 22:22:39.852666 28244 net.cpp:399] cont_1_lstm2_cont_slice_0_split -> cont_1_lstm2_cont_slice_0_split_1
I0925 22:22:39.852741 28244 net.cpp:141] Setting up cont_1_lstm2_cont_slice_0_split
I0925 22:22:39.852756 28244 net.cpp:148] Top shape: 1 1 (1)
I0925 22:22:39.852764 28244 net.cpp:148] Top shape: 1 1 (1)
I0925 22:22:39.852772 28244 net.cpp:156] Memory required for data: 14020
I0925 22:22:39.852780 28244 layer_factory.hpp:77] Creating layer lstm2_x_transform
I0925 22:22:39.852798 28244 net.cpp:91] Creating Layer lstm2_x_transform
I0925 22:22:39.852807 28244 net.cpp:425] lstm2_x_transform <- x
I0925 22:22:39.852819 28244 net.cpp:399] lstm2_x_transform -> W_xc_x
I0925 22:22:39.865880 28200 net.cpp:141] Setting up lstm1_transform_1
I0925 22:22:39.865928 28200 net.cpp:148] Top shape: 1 1 4000 (4000)
I0925 22:22:39.865936 28200 net.cpp:156] Memory required for data: 62016
I0925 22:22:39.865959 28200 layer_factory.hpp:77] Creating layer lstm1_gate_input_1
I0925 22:22:39.865958 28206 net.cpp:141] Setting up lstm2_transform_1
I0925 22:22:39.865985 28200 net.cpp:91] Creating Layer lstm1_gate_input_1
I0925 22:22:39.865996 28200 net.cpp:425] lstm1_gate_input_1 <- W_hc_h_0
I0925 22:22:39.865998 28206 net.cpp:148] Top shape: 1 1 4000 (4000)
I0925 22:22:39.866005 28200 net.cpp:425] lstm1_gate_input_1 <- W_xc_x_1
I0925 22:22:39.866006 28206 net.cpp:156] Memory required for data: 66020
I0925 22:22:39.866016 28200 net.cpp:399] lstm1_gate_input_1 -> gate_input_1
I0925 22:22:39.866030 28206 layer_factory.hpp:77] Creating layer lstm2_gate_input_1
I0925 22:22:39.866060 28206 net.cpp:91] Creating Layer lstm2_gate_input_1
I0925 22:22:39.866070 28206 net.cpp:425] lstm2_gate_input_1 <- W_hc_h_0
I0925 22:22:39.866080 28206 net.cpp:425] lstm2_gate_input_1 <- W_xc_x_1
I0925 22:22:39.866091 28206 net.cpp:399] lstm2_gate_input_1 -> gate_input_1
I0925 22:22:39.866096 28200 net.cpp:141] Setting up lstm1_gate_input_1
I0925 22:22:39.866106 28200 net.cpp:148] Top shape: 1 1 4000 (4000)
I0925 22:22:39.866111 28200 net.cpp:156] Memory required for data: 78016
I0925 22:22:39.866117 28200 layer_factory.hpp:77] Creating layer lstm1_unit_1
I0925 22:22:39.866128 28200 net.cpp:91] Creating Layer lstm1_unit_1
I0925 22:22:39.866133 28200 net.cpp:425] lstm1_unit_1 <- c_0
I0925 22:22:39.866140 28200 net.cpp:425] lstm1_unit_1 <- gate_input_1
I0925 22:22:39.866147 28200 net.cpp:425] lstm1_unit_1 <- cont_1_lstm1_cont_slice_0_split_1
I0925 22:22:39.866158 28200 net.cpp:399] lstm1_unit_1 -> c_1
I0925 22:22:39.866164 28206 net.cpp:141] Setting up lstm2_gate_input_1
I0925 22:22:39.866169 28200 net.cpp:399] lstm1_unit_1 -> h_1
I0925 22:22:39.866188 28206 net.cpp:148] Top shape: 1 1 4000 (4000)
I0925 22:22:39.866201 28206 net.cpp:156] Memory required for data: 82020
I0925 22:22:39.866211 28206 layer_factory.hpp:77] Creating layer lstm2_unit_1
I0925 22:22:39.866227 28206 net.cpp:91] Creating Layer lstm2_unit_1
I0925 22:22:39.866235 28206 net.cpp:425] lstm2_unit_1 <- c_0
I0925 22:22:39.866242 28206 net.cpp:425] lstm2_unit_1 <- gate_input_1
I0925 22:22:39.866250 28206 net.cpp:425] lstm2_unit_1 <- cont_1_lstm2_cont_slice_0_split_1
I0925 22:22:39.866271 28206 net.cpp:399] lstm2_unit_1 -> c_1
I0925 22:22:39.866282 28200 net.cpp:141] Setting up lstm1_unit_1
I0925 22:22:39.866283 28206 net.cpp:399] lstm2_unit_1 -> h_1
I0925 22:22:39.866302 28200 net.cpp:148] Top shape: 1 1 1000 (1000)
I0925 22:22:39.866320 28200 net.cpp:148] Top shape: 1 1 1000 (1000)
I0925 22:22:39.866327 28200 net.cpp:156] Memory required for data: 86016
I0925 22:22:39.866333 28200 layer_factory.hpp:77] Creating layer lstm1_
I0925 22:22:39.866343 28200 net.cpp:91] Creating Layer lstm1_
I0925 22:22:39.866348 28200 net.cpp:425] lstm1_ <- c_1
I0925 22:22:39.866356 28200 net.cpp:399] lstm1_ -> c_T
I0925 22:22:39.866425 28206 net.cpp:141] Setting up lstm2_unit_1
I0925 22:22:39.866439 28206 net.cpp:148] Top shape: 1 1 1000 (1000)
I0925 22:22:39.866448 28206 net.cpp:148] Top shape: 1 1 1000 (1000)
I0925 22:22:39.866456 28206 net.cpp:156] Memory required for data: 90020
I0925 22:22:39.866462 28206 layer_factory.hpp:77] Creating layer lstm2_
I0925 22:22:39.866477 28206 net.cpp:91] Creating Layer lstm2_
I0925 22:22:39.866483 28206 net.cpp:425] lstm2_ <- c_1
I0925 22:22:39.866493 28206 net.cpp:399] lstm2_ -> c_T
I0925 22:22:39.866547 28238 net.cpp:141] Setting up lstm1
I0925 22:22:39.866565 28238 net.cpp:148] Top shape: 1 1 1000 (1000)
I0925 22:22:39.866571 28238 net.cpp:156] Memory required for data: 26408
I0925 22:22:39.866587 28238 layer_factory.hpp:77] Creating layer concat
I0925 22:22:39.866592 28200 net.cpp:141] Setting up lstm1_
I0925 22:22:39.866614 28238 net.cpp:91] Creating Layer concat
I0925 22:22:39.866623 28238 net.cpp:425] concat <- lstm1
I0925 22:22:39.866622 28200 net.cpp:148] Top shape: 1 1 1000 (1000)
I0925 22:22:39.866633 28238 net.cpp:425] concat <- embedded_input_sentence
I0925 22:22:39.866637 28200 net.cpp:156] Memory required for data: 90016
I0925 22:22:39.866641 28238 net.cpp:425] concat <- reshaped_stage_indicator
I0925 22:22:39.866660 28200 layer_factory.hpp:77] Creating layer lstm1_h_concat
I0925 22:22:39.866670 28238 net.cpp:399] concat -> lstm1_video_sequence
I0925 22:22:39.866680 28200 net.cpp:91] Creating Layer lstm1_h_concat
I0925 22:22:39.866691 28200 net.cpp:425] lstm1_h_concat <- h_1
I0925 22:22:39.866695 28210 net.cpp:141] Setting up lstm1_
I0925 22:22:39.866708 28200 net.cpp:399] lstm1_h_concat -> h
I0925 22:22:39.866714 28210 net.cpp:148] Top shape: 1 1 1000 (1000)
I0925 22:22:39.866726 28210 net.cpp:148] Top shape: 1 1 1000 (1000)
I0925 22:22:39.866734 28210 net.cpp:156] Memory required for data: 10004
I0925 22:22:39.866745 28210 layer_factory.hpp:77] Creating layer lstm1_cont_slice
I0925 22:22:39.866744 28206 net.cpp:141] Setting up lstm2_
I0925 22:22:39.866765 28210 net.cpp:91] Creating Layer lstm1_cont_slice
I0925 22:22:39.866772 28206 net.cpp:148] Top shape: 1 1 1000 (1000)
I0925 22:22:39.866781 28238 net.cpp:141] Setting up concat
I0925 22:22:39.866773 28210 net.cpp:425] lstm1_cont_slice <- cont
I0925 22:22:39.866794 28238 net.cpp:148] Top shape: 1 1 1501 (1501)
I0925 22:22:39.866799 28238 net.cpp:156] Memory required for data: 32412
I0925 22:22:39.866791 28206 net.cpp:156] Memory required for data: 94020
I0925 22:22:39.866816 28210 net.cpp:399] lstm1_cont_slice -> cont_1
I0925 22:22:39.866824 28206 layer_factory.hpp:77] Creating layer lstm2_h_concat
I0925 22:22:39.866808 28238 layer_factory.hpp:77] Creating layer lstm2
I0925 22:22:39.866843 28206 net.cpp:91] Creating Layer lstm2_h_concat
I0925 22:22:39.866848 28200 net.cpp:141] Setting up lstm1_h_concat
I0925 22:22:39.866852 28206 net.cpp:425] lstm2_h_concat <- h_1
I0925 22:22:39.866871 28200 net.cpp:148] Top shape: 1 1 1000 (1000)
I0925 22:22:39.866853 28238 net.cpp:91] Creating Layer lstm2
I0925 22:22:39.866883 28200 net.cpp:156] Memory required for data: 94016
I0925 22:22:39.866888 28238 net.cpp:425] lstm2 <- lstm1_video_sequence
I0925 22:22:39.866889 28210 net.cpp:141] Setting up lstm1_cont_slice
I0925 22:22:39.866896 28238 net.cpp:425] lstm2 <- cont_sentence_input_1_split_1
I0925 22:22:39.866889 28206 net.cpp:399] lstm2_h_concat -> h
I0925 22:22:39.866894 28200 layer_factory.hpp:77] Creating layer h_pseudoloss
I0925 22:22:39.866911 28238 net.cpp:399] lstm2 -> lstm2
I0925 22:22:39.866915 28210 net.cpp:148] Top shape: 1 1 (1)
I0925 22:22:39.866925 28210 net.cpp:156] Memory required for data: 10008
I0925 22:22:39.866930 28200 net.cpp:91] Creating Layer h_pseudoloss
I0925 22:22:39.866926 28238 recurrent_layer.cpp:20] Initializing recurrent layer: assuming input batch contains 1 timesteps of 1 independent streams.
I0925 22:22:39.866940 28210 layer_factory.hpp:77] Creating layer cont_1_lstm1_cont_slice_0_split
I0925 22:22:39.866940 28200 net.cpp:425] h_pseudoloss <- h
I0925 22:22:39.866960 28210 net.cpp:91] Creating Layer cont_1_lstm1_cont_slice_0_split
I0925 22:22:39.866963 28200 net.cpp:399] h_pseudoloss -> h_pseudoloss
I0925 22:22:39.866971 28210 net.cpp:425] cont_1_lstm1_cont_slice_0_split <- cont_1
I0925 22:22:39.866982 28210 net.cpp:399] cont_1_lstm1_cont_slice_0_split -> cont_1_lstm1_cont_slice_0_split_0
I0925 22:22:39.866999 28210 net.cpp:399] cont_1_lstm1_cont_slice_0_split -> cont_1_lstm1_cont_slice_0_split_1
I0925 22:22:39.867005 28206 net.cpp:141] Setting up lstm2_h_concat
I0925 22:22:39.867025 28206 net.cpp:148] Top shape: 1 1 1000 (1000)
I0925 22:22:39.867034 28206 net.cpp:156] Memory required for data: 98020
I0925 22:22:39.867045 28206 layer_factory.hpp:77] Creating layer h_pseudoloss
I0925 22:22:39.867060 28206 net.cpp:91] Creating Layer h_pseudoloss
I0925 22:22:39.867069 28206 net.cpp:425] h_pseudoloss <- h
I0925 22:22:39.867089 28206 net.cpp:399] h_pseudoloss -> h_pseudoloss
I0925 22:22:39.867151 28204 net.cpp:141] Setting up lstm2_
I0925 22:22:39.867182 28204 net.cpp:148] Top shape: 1 1 1000 (1000)
I0925 22:22:39.867193 28204 net.cpp:156] Memory required for data: 94020
I0925 22:22:39.867204 28204 layer_factory.hpp:77] Creating layer lstm2_h_concat
I0925 22:22:39.867223 28204 net.cpp:91] Creating Layer lstm2_h_concat
I0925 22:22:39.867234 28204 net.cpp:425] lstm2_h_concat <- h_1
I0925 22:22:39.867250 28204 net.cpp:399] lstm2_h_concat -> h
I0925 22:22:39.867269 28238 net.cpp:49] Initializing net from parameters: 
layer {
  name: "lstm2_"
  type: "Input"
  top: "x"
  top: "cont"
  input_param {
    shape {
      dim: 1
      dim: 1
      dim: 1501
    }
    shape {
      dim: 1
      dim: 1
    }
  }
}
layer {
  name: "lstm2_"
  type: "Input"
  top: "c_0"
  top: "h_0"
  input_param {
    shape {
      dim: 1
      dim: 1
      dim: 1000
    }
    shape {
      dim: 1
      dim: 1
      dim: 1000
    }
  }
}
layer {
  name: "lstm2_cont_slice"
  type: "Slice"
  bottom: "cont"
  top: "cont_1"
  slice_param {
    axis: 0
  }
}
layer {
  name: "lstm2_x_transform"
  type: "InnerProduct"
  bottom: "x"
  top: "W_xc_x"
  param {
    name: "W_xc"
  }
  param {
    name: "b_c"
  }
  propagate_down: true
  inner_product_param {
    num_output: 4000
    bias_term: true
    weight_filler {
      type: "uniform"
      min: -0.08
      max: 0.08
    }
    bias_filler {
      type: "constant"
      value: 0
    }
    axis: 2
  }
}
layer {
  name: "lstm2_W_xc_x_slice"
  type: "Slice"
  bottom: "W_xc_x"
  top: "W_xc_x_1"
  slice_param {
    axis: 0
  }
}
layer {
  name: "lstm2_h_conted_0"
  type: "Scale"
  bottom: "h_0"
  bottom: "cont_1"
  top: "h_conted_0"
  scale_param {
    axis: 0
  }
}
layer {
  name: "lstm2_transform_1"
  type: "InnerProduct"
  bottom: "h_conted_0"
  top: "W_hc_h_0"
  param {
    name: "W_hc"
  }
  inner_product_param {
    num_output: 4000
    bias_term: false
    weight_filler {
      type: "uniform"
      min: -0.08
      max: 0.08
    }
    axis: 2
  }
}
layer {
  name: "lstm2_gate_input_1"
  type: "Eltwise"
  bottom: "W_hc_h_0"
  bottom: "W_xc_x_1"
  top: "gate_input_1"
  eltwise_param {
    operation: SUM
  }
}
layer {
  name: "lstm2_unit_1"
  type: "LSTMUnit"
  bottom: "c_0"
  bottom: "gate_input_1"
  bottom: "cont_1"
  top: "c_1"
  top: "h_1"
}
layer {
  name: "lstm2_"
  type: "Split"
  bottom: "c_1"
  top: "c_T"
}
layer {
  name: "lstm2_h_concat"
  type: "Concat"
  bottom: "h_1"
  top: "h"
  concat_param {
    axis: 0
  }
}
layer {
  name: "h_pseudoloss"
  type: "Reduction"
  bottom: "h"
  top: "h_pseudoloss"
  loss_weight: 1
}
I0925 22:22:39.867277 28200 net.cpp:141] Setting up h_pseudoloss
I0925 22:22:39.867300 28200 net.cpp:148] Top shape: (1)
I0925 22:22:39.867306 28210 net.cpp:141] Setting up cont_1_lstm1_cont_slice_0_split
I0925 22:22:39.867319 28210 net.cpp:148] Top shape: 1 1 (1)
I0925 22:22:39.867311 28200 net.cpp:151]     with loss weight 1
I0925 22:22:39.867331 28210 net.cpp:148] Top shape: 1 1 (1)
I0925 22:22:39.867336 28200 net.cpp:156] Memory required for data: 94020
I0925 22:22:39.867339 28210 net.cpp:156] Memory required for data: 10016
I0925 22:22:39.867347 28200 net.cpp:217] h_pseudoloss needs backward computation.
I0925 22:22:39.867347 28210 layer_factory.hpp:77] Creating layer lstm1_x_transform
I0925 22:22:39.867362 28200 net.cpp:217] lstm1_h_concat needs backward computation.
…
I0925 22:22:39.867696 28206 net.cpp:219] lstm2_ does not need backward computation.
I0925 22:22:39.867703 28206 net.cpp:261] This network produces output c_T
I0925 22:22:39.867713 28206 net.cpp:261] This network produces output h_pseudoloss
I0925 22:22:39.867745 28206 net.cpp:274] Network initialization done.
I0925 22:22:39.867830 28206 recurrent_layer.cpp:150] Adding parameter 0: W_xc
I0925 22:22:39.867842 28206 recurrent_layer.cpp:150] Adding parameter 1: b_c
I0925 22:22:39.867851 28206 recurrent_layer.cpp:150] Adding parameter 2: W_hc
I0925 22:22:39.872663 28238 net.cpp:141] Setting up lstm2_
…
I0925 22:22:40.119757 28200 net.cpp:399] cont_1_lstm2_cont_slice_0_split -> cont_1_lstm2_cont_slice_0_split_0
I0925 22:22:40.119781 28200 net.cpp:399] cont_1_lstm2_cont_slice_0_split -> cont_1_lstm2_cont_slice_0_split_1
I0925 22:22:40.119779 28244 net.cpp:141] Setting up lstm2_
I0925 22:22:40.119797 28244 net.cpp:148] Top shape: 1 1 1000 (1000)
I0925 22:22:40.119806 28244 net.cpp:156] Memory required for data: 94020
I0925 22:22:40.119815 28244 layer_factory.hpp:77] Creating layer lstm2_h_concat
I0925 22:22:40.119842 28244 net.cpp:91] Creating Layer lstm2_h_concat
I0925 22:22:40.119850 28244 net.cpp:425] lstm2_h_concat <- h_1
I0925 22:22:40.119863 28244 net.cpp:399] lstm2_h_concat -> h
I0925 22:22:40.130998 28200 net.cpp:141] Setting up cont_1_lstm2_cont_slice_0_split
I0925 22:22:40.131057 28200 net.cpp:148] Top shape: 1 1 (1)
I0925 22:22:40.131070 28200 net.cpp:148] Top shape: 1 1 (1)
I0925 22:22:40.131078 28200 net.cpp:156] Memory required for data: 14020
I0925 22:22:40.131091 28200 layer_factory.hpp:77] Creating layer lstm2_x_transform
I0925 22:22:40.131105 28244 net.cpp:141] Setting up lstm2_h_concat
I0925 22:22:40.131132 28200 net.cpp:91] Creating Layer lstm2_x_transform
I0925 22:22:40.131146 28200 net.cpp:425] lstm2_x_transform <- x
I0925 22:22:40.131152 28244 net.cpp:148] Top shape: 1 1 1000 (1000)
I0925 22:22:40.131160 28244 net.cpp:156] Memory required for data: 98020
I0925 22:22:40.131168 28200 net.cpp:399] lstm2_x_transform -> W_xc_x
I0925 22:22:40.131173 28244 layer_factory.hpp:77] Creating layer h_pseudoloss
I0925 22:22:40.131244 28244 net.cpp:91] Creating Layer h_pseudoloss
I0925 22:22:40.131260 28244 net.cpp:425] h_pseudoloss <- h
I0925 22:22:40.131273 28244 net.cpp:399] h_pseudoloss -> h_pseudoloss
…
I0925 22:22:40.131734 28244 net.cpp:219] lstm2_ does not need backward computation.
I0925 22:22:40.131742 28244 net.cpp:261] This network produces output c_T
I0925 22:22:40.131752 28244 net.cpp:261] This network produces output h_pseudoloss
I0925 22:22:40.131779 28244 net.cpp:274] Network initialization done.
I0925 22:22:40.131880 28244 recurrent_layer.cpp:150] Adding parameter 0: W_xc
I0925 22:22:40.131893 28244 recurrent_layer.cpp:150] Adding parameter 1: b_c
I0925 22:22:40.131902 28244 recurrent_layer.cpp:150] Adding parameter 2: W_hc
I0925 22:22:40.162539 28210 net.cpp:141] Setting up lstm1_transform_1
I0925 22:22:40.162590 28210 net.cpp:148] Top shape: 1 1 4000 (4000)
I0925 22:22:40.162618 28210 net.cpp:156] Memory required for data: 62016
I0925 22:22:40.162647 28210 layer_factory.hpp:77] Creating layer lstm1_gate_input_1
I0925 22:22:40.162657 28238 net.cpp:141] Setting up lstm2_x_transform
I0925 22:22:40.162698 28238 net.cpp:148] Top shape: 1 1 4000 (4000)
I0925 22:22:40.162725 28238 net.cpp:156] Memory required for data: 30020
I0925 22:22:40.162696 28210 net.cpp:91] Creating Layer lstm1_gate_input_1
I0925 22:22:40.162744 28210 net.cpp:425] lstm1_gate_input_1 <- W_hc_h_0
I0925 22:22:40.162749 28238 layer_factory.hpp:77] Creating layer lstm2_W_xc_x_slice
I0925 22:22:40.162762 28210 net.cpp:425] lstm1_gate_input_1 <- W_xc_x_1
I0925 22:22:40.162777 28210 net.cpp:399] lstm1_gate_input_1 -> gate_input_1
I0925 22:22:40.162792 28238 net.cpp:91] Creating Layer lstm2_W_xc_x_slice
I0925 22:22:40.162803 28238 net.cpp:425] lstm2_W_xc_x_slice <- W_xc_x
I0925 22:22:40.162813 28238 net.cpp:399] lstm2_W_xc_x_slice -> W_xc_x_1
I0925 22:22:40.162875 28210 net.cpp:141] Setting up lstm1_gate_input_1
I0925 22:22:40.162890 28210 net.cpp:148] Top shape: 1 1 4000 (4000)
I0925 22:22:40.162897 28210 net.cpp:156] Memory required for data: 78016
I0925 22:22:40.162902 28210 layer_factory.hpp:77] Creating layer lstm1_unit_1
I0925 22:22:40.162915 28210 net.cpp:91] Creating Layer lstm1_unit_1
I0925 22:22:40.162920 28210 net.cpp:425] lstm1_unit_1 <- c_0
I0925 22:22:40.162930 28210 net.cpp:425] lstm1_unit_1 <- gate_input_1
I0925 22:22:40.162935 28210 net.cpp:425] lstm1_unit_1 <- cont_1_lstm1_cont_slice_0_split_1
I0925 22:22:40.162938 28238 net.cpp:141] Setting up lstm2_W_xc_x_slice
I0925 22:22:40.162948 28210 net.cpp:399] lstm1_unit_1 -> c_1
I0925 22:22:40.162957 28238 net.cpp:148] Top shape: 1 1 4000 (4000)
I0925 22:22:40.162961 28210 net.cpp:399] lstm1_unit_1 -> h_1
I0925 22:22:40.162984 28238 net.cpp:156] Memory required for data: 46020
I0925 22:22:40.162994 28238 layer_factory.hpp:77] Creating layer lstm2_h_conted_0
I0925 22:22:40.163028 28238 net.cpp:91] Creating Layer lstm2_h_conted_0
I0925 22:22:40.163036 28238 net.cpp:425] lstm2_h_conted_0 <- h_0
I0925 22:22:40.163044 28238 net.cpp:425] lstm2_h_conted_0 <- cont_1_lstm2_cont_slice_0_split_0
I0925 22:22:40.163054 28238 net.cpp:399] lstm2_h_conted_0 -> h_conted_0
I0925 22:22:40.163307 28244 net.cpp:141] Setting up lstm2
I0925 22:22:40.163336 28244 net.cpp:148] Top shape: 1 1 1000 (1000)
I0925 22:22:40.163347 28244 net.cpp:156] Memory required for data: 36412
I0925 22:22:40.163350 28210 net.cpp:141] Setting up lstm1_unit_1
I0925 22:22:40.163367 28210 net.cpp:148] Top shape: 1 1 1000 (1000)
I0925 22:22:40.163378 28210 net.cpp:148] Top shape: 1 1 1000 (1000)
I0925 22:22:40.163380 28244 layer_factory.hpp:77] Creating layer predict
I0925 22:22:40.163388 28210 net.cpp:156] Memory required for data: 86016
I0925 22:22:40.163396 28210 layer_factory.hpp:77] Creating layer lstm1_
I0925 22:22:40.163406 28244 net.cpp:91] Creating Layer predict
I0925 22:22:40.163409 28210 net.cpp:91] Creating Layer lstm1_
I0925 22:22:40.163417 28210 net.cpp:425] lstm1_ <- c_1
I0925 22:22:40.163419 28244 net.cpp:425] predict <- lstm2
I0925 22:22:40.163445 28238 net.cpp:141] Setting up lstm2_h_conted_0
I0925 22:22:40.163455 28244 net.cpp:399] predict -> predict
I0925 22:22:40.163446 28210 net.cpp:399] lstm1_ -> c_T
I0925 22:22:40.163468 28238 net.cpp:148] Top shape: 1 1 1000 (1000)
I0925 22:22:40.163477 28238 net.cpp:156] Memory required for data: 50020
I0925 22:22:40.163486 28238 layer_factory.hpp:77] Creating layer lstm2_transform_1
I0925 22:22:40.163509 28238 net.cpp:91] Creating Layer lstm2_transform_1
I0925 22:22:40.163516 28238 net.cpp:425] lstm2_transform_1 <- h_conted_0
I0925 22:22:40.163525 28238 net.cpp:399] lstm2_transform_1 -> W_hc_h_0
I0925 22:22:40.163543 28210 net.cpp:141] Setting up lstm1_
I0925 22:22:40.163558 28210 net.cpp:148] Top shape: 1 1 1000 (1000)
I0925 22:22:40.163563 28210 net.cpp:156] Memory required for data: 90016
I0925 22:22:40.163568 28210 layer_factory.hpp:77] Creating layer lstm1_h_concat
I0925 22:22:40.163580 28210 net.cpp:91] Creating Layer lstm1_h_concat
I0925 22:22:40.163585 28210 net.cpp:425] lstm1_h_concat <- h_1
I0925 22:22:40.163597 28210 net.cpp:399] lstm1_h_concat -> h
I0925 22:22:40.168139 28210 net.cpp:141] Setting up lstm1_h_concat
I0925 22:22:40.168200 28210 net.cpp:148] Top shape: 1 1 1000 (1000)
I0925 22:22:40.168210 28210 net.cpp:156] Memory required for data: 94016
I0925 22:22:40.168221 28210 layer_factory.hpp:77] Creating layer h_pseudoloss
I0925 22:22:40.168244 28210 net.cpp:91] Creating Layer h_pseudoloss
I0925 22:22:40.168256 28210 net.cpp:425] h_pseudoloss <- h
I0925 22:22:40.168272 28210 net.cpp:399] h_pseudoloss -> h_pseudoloss
I0925 22:22:40.275847 28218 net.cpp:141] Setting up lstm2_transform_1
I0925 22:22:40.275907 28218 net.cpp:148] Top shape: 1 1 4000 (4000)
I0925 22:22:40.275916 28218 net.cpp:156] Memory required for data: 66020
I0925 22:22:40.275940 28218 layer_factory.hpp:77] Creating layer lstm2_gate_input_1
I0925 22:22:40.275966 28210 net.cpp:141] Setting up h_pseudoloss
I0925 22:22:40.275974 28218 net.cpp:91] Creating Layer lstm2_gate_input_1
I0925 22:22:40.275992 28210 net.cpp:148] Top shape: (1)
I0925 22:22:40.275993 28218 net.cpp:425] lstm2_gate_input_1 <- W_hc_h_0
I0925 22:22:40.276013 28218 net.cpp:425] lstm2_gate_input_1 <- W_xc_x_1
I0925 22:22:40.276020 28238 net.cpp:141] Setting up lstm2_transform_1
I0925 22:22:40.276027 28218 net.cpp:399] lstm2_gate_input_1 -> gate_input_1
I0925 22:22:40.276044 28238 net.cpp:148] Top shape: 1 1 4000 (4000)
I0925 22:22:40.276002 28210 net.cpp:151]     with loss weight 1
I0925 22:22:40.276054 28238 net.cpp:156] Memory required for data: 66020
I0925 22:22:40.276060 28210 net.cpp:156] Memory required for data: 94020
I0925 22:22:40.276069 28210 net.cpp:217] h_pseudoloss needs backward computation.
I0925 22:22:40.276069 28238 layer_factory.hpp:77] Creating layer lstm2_gate_input_1
I0925 22:22:40.276078 28210 net.cpp:217] lstm1_h_concat needs backward computation.
…
I0925 22:22:40.276167 28210 net.cpp:219] lstm1_cont_slice does not need backward computation.
I0925 22:22:40.276175 28210 net.cpp:219] lstm1_ does not need backward computation.
I0925 22:22:40.276178 28210 net.cpp:219] lstm1_ does not need backward computation.
I0925 22:22:40.276188 28210 net.cpp:261] This network produces output c_T
I0925 22:22:40.276198 28210 net.cpp:261] This network produces output h_pseudoloss
I0925 22:22:40.276227 28210 net.cpp:274] Network initialization done.
I0925 22:22:40.276291 28218 net.cpp:141] Setting up lstm2_gate_input_1
I0925 22:22:40.276310 28210 recurrent_layer.cpp:150] Adding parameter 0: W_xc
I0925 22:22:40.276312 28218 net.cpp:148] Top shape: 1 1 4000 (4000)
I0925 22:22:40.276325 28210 recurrent_layer.cpp:150] Adding parameter 1: b_c
I0925 22:22:40.276340 28218 net.cpp:156] Memory required for data: 82020
I0925 22:22:40.276343 28210 recurrent_layer.cpp:150] Adding parameter 2: W_hc
I0925 22:22:40.276355 28218 layer_factory.hpp:77] Creating layer lstm2_unit_1
I0925 22:22:40.276353 28238 net.cpp:141] Setting up lstm2_gate_input_1
I0925 22:22:40.276372 28218 net.cpp:91] Creating Layer lstm2_unit_1
I0925 22:22:40.276376 28238 net.cpp:148] Top shape: 1 1 4000 (4000)
I0925 22:22:40.276382 28218 net.cpp:425] lstm2_unit_1 <- c_0
I0925 22:22:40.276387 28238 net.cpp:156] Memory required for data: 82020
I0925 22:22:40.276394 28218 net.cpp:425] lstm2_unit_1 <- gate_input_1
I0925 22:22:40.276397 28238 layer_factory.hpp:77] Creating layer lstm2_unit_1
I0925 22:22:40.276406 28218 net.cpp:425] lstm2_unit_1 <- cont_1_lstm2_cont_slice_0_split_1
I0925 22:22:40.276412 28238 net.cpp:91] Creating Layer lstm2_unit_1
I0925 22:22:40.276423 28238 net.cpp:425] lstm2_unit_1 <- c_0
I0925 22:22:40.276424 28218 net.cpp:399] lstm2_unit_1 -> c_1
I0925 22:22:40.276435 28238 net.cpp:425] lstm2_unit_1 <- gate_input_1
I0925 22:22:40.276444 28218 net.cpp:399] lstm2_unit_1 -> h_1
I0925 22:22:40.276448 28238 net.cpp:425] lstm2_unit_1 <- cont_1_lstm2_cont_slice_0_split_1
I0925 22:22:40.276463 28238 net.cpp:399] lstm2_unit_1 -> c_1
I0925 22:22:40.276459 28200 net.cpp:141] Setting up lstm2_x_transform
I0925 22:22:40.276480 28238 net.cpp:399] lstm2_unit_1 -> h_1
I0925 22:22:40.276487 28200 net.cpp:148] Top shape: 1 1 4000 (4000)
I0925 22:22:40.276499 28200 net.cpp:156] Memory required for data: 30020
I0925 22:22:40.276525 28200 layer_factory.hpp:77] Creating layer lstm2_W_xc_x_slice
I0925 22:22:40.276543 28200 net.cpp:91] Creating Layer lstm2_W_xc_x_slice
I0925 22:22:40.276551 28200 net.cpp:425] lstm2_W_xc_x_slice <- W_xc_x
I0925 22:22:40.276561 28200 net.cpp:399] lstm2_W_xc_x_slice -> W_xc_x_1
I0925 22:22:40.282511 28218 net.cpp:141] Setting up lstm2_unit_1
I0925 22:22:40.282531 28218 net.cpp:148] Top shape: 1 1 1000 (1000)
I0925 22:22:40.282539 28218 net.cpp:148] Top shape: 1 1 1000 (1000)
I0925 22:22:40.282544 28218 net.cpp:156] Memory required for data: 90020
I0925 22:22:40.282551 28218 layer_factory.hpp:77] Creating layer lstm2_
I0925 22:22:40.282555 28200 net.cpp:141] Setting up lstm2_W_xc_x_slice
I0925 22:22:40.282560 28218 net.cpp:91] Creating Layer lstm2_
I0925 22:22:40.282577 28218 net.cpp:425] lstm2_ <- c_1
I0925 22:22:40.282582 28200 net.cpp:148] Top shape: 1 1 4000 (4000)
I0925 22:22:40.282588 28218 net.cpp:399] lstm2_ -> c_T
I0925 22:22:40.282590 28200 net.cpp:156] Memory required for data: 46020
I0925 22:22:40.282610 28200 layer_factory.hpp:77] Creating layer lstm2_h_conted_0
I0925 22:22:40.282632 28200 net.cpp:91] Creating Layer lstm2_h_conted_0
I0925 22:22:40.282645 28200 net.cpp:425] lstm2_h_conted_0 <- h_0
I0925 22:22:40.282655 28200 net.cpp:425] lstm2_h_conted_0 <- cont_1_lstm2_cont_slice_0_split_0
I0925 22:22:40.282665 28200 net.cpp:399] lstm2_h_conted_0 -> h_conted_0
I0925 22:22:40.282733 28238 net.cpp:141] Setting up lstm2_unit_1
I0925 22:22:40.282753 28238 net.cpp:148] Top shape: 1 1 1000 (1000)
I0925 22:22:40.282762 28238 net.cpp:148] Top shape: 1 1 1000 (1000)
I0925 22:22:40.282766 28238 net.cpp:156] Memory required for data: 90020
I0925 22:22:40.282768 28218 net.cpp:141] Setting up lstm2_
I0925 22:22:40.282773 28238 layer_factory.hpp:77] Creating layer lstm2_
I0925 22:22:40.282781 28218 net.cpp:148] Top shape: 1 1 1000 (1000)
I0925 22:22:40.282788 28218 net.cpp:156] Memory required for data: 94020
I0925 22:22:40.282788 28238 net.cpp:91] Creating Layer lstm2_
I0925 22:22:40.282793 28218 layer_factory.hpp:77] Creating layer lstm2_h_concat
I0925 22:22:40.282794 28238 net.cpp:425] lstm2_ <- c_1
I0925 22:22:40.282804 28238 net.cpp:399] lstm2_ -> c_T
I0925 22:22:40.282804 28218 net.cpp:91] Creating Layer lstm2_h_concat
I0925 22:22:40.282819 28218 net.cpp:425] lstm2_h_concat <- h_1
I0925 22:22:40.282829 28218 net.cpp:399] lstm2_h_concat -> h
I0925 22:22:40.282850 28210 net.cpp:141] Setting up lstm1
I0925 22:22:40.282871 28210 net.cpp:148] Top shape: 1 1 1000 (1000)
I0925 22:22:40.282876 28210 net.cpp:156] Memory required for data: 26408
I0925 22:22:40.282884 28218 net.cpp:141] Setting up lstm2_h_concat
I0925 22:22:40.282896 28218 net.cpp:148] Top shape: 1 1 1000 (1000)
I0925 22:22:40.282901 28218 net.cpp:156] Memory required for data: 98020
I0925 22:22:40.282902 28210 layer_factory.hpp:77] Creating layer concat
I0925 22:22:40.282905 28218 layer_factory.hpp:77] Creating layer h_pseudoloss
I0925 22:22:40.282928 28210 net.cpp:91] Creating Layer concat
I0925 22:22:40.282928 28218 net.cpp:91] Creating Layer h_pseudoloss
I0925 22:22:40.282948 28210 net.cpp:425] concat <- lstm1
I0925 22:22:40.282946 28218 net.cpp:425] h_pseudoloss <- h
I0925 22:22:40.282959 28210 net.cpp:425] concat <- embedded_input_sentence
I0925 22:22:40.282966 28210 net.cpp:425] concat <- reshaped_stage_indicator
I0925 22:22:40.282963 28238 net.cpp:141] Setting up lstm2_
I0925 22:22:40.282975 28210 net.cpp:399] concat -> lstm1_video_sequence
I0925 22:22:40.282968 28218 net.cpp:399] h_pseudoloss -> h_pseudoloss
I0925 22:22:40.282984 28238 net.cpp:148] Top shape: 1 1 1000 (1000)
I0925 22:22:40.282990 28238 net.cpp:156] Memory required for data: 94020
I0925 22:22:40.282995 28238 layer_factory.hpp:77] Creating layer lstm2_h_concat
I0925 22:22:40.283006 28238 net.cpp:91] Creating Layer lstm2_h_concat
I0925 22:22:40.283011 28238 net.cpp:425] lstm2_h_concat <- h_1
I0925 22:22:40.283025 28238 net.cpp:399] lstm2_h_concat -> h
I0925 22:22:40.283077 28210 net.cpp:141] Setting up concat
I0925 22:22:40.283088 28210 net.cpp:148] Top shape: 1 1 1501 (1501)
I0925 22:22:40.283094 28210 net.cpp:156] Memory required for data: 32412
I0925 22:22:40.283100 28210 layer_factory.hpp:77] Creating layer lstm2
I0925 22:22:40.283114 28210 net.cpp:91] Creating Layer lstm2
I0925 22:22:40.283120 28210 net.cpp:425] lstm2 <- lstm1_video_sequence
I0925 22:22:40.283126 28210 net.cpp:425] lstm2 <- cont_sentence_input_1_split_1
I0925 22:22:40.283135 28210 net.cpp:399] lstm2 -> lstm2
I0925 22:22:40.283149 28210 recurrent_layer.cpp:20] Initializing recurrent layer: assuming input batch contains 1 timesteps of 1 independent streams.
I0925 22:22:40.283161 28200 net.cpp:141] Setting up lstm2_h_conted_0
I0925 22:22:40.283176 28200 net.cpp:148] Top shape: 1 1 1000 (1000)
I0925 22:22:40.283182 28200 net.cpp:156] Memory required for data: 50020
I0925 22:22:40.283188 28200 layer_factory.hpp:77] Creating layer lstm2_transform_1
I0925 22:22:40.283202 28200 net.cpp:91] Creating Layer lstm2_transform_1
I0925 22:22:40.283202 28238 net.cpp:141] Setting up lstm2_h_concat
I0925 22:22:40.283210 28200 net.cpp:425] lstm2_transform_1 <- h_conted_0
I0925 22:22:40.283215 28238 net.cpp:148] Top shape: 1 1 1000 (1000)
I0925 22:22:40.283221 28238 net.cpp:156] Memory required for data: 98020
I0925 22:22:40.283226 28238 layer_factory.hpp:77] Creating layer h_pseudoloss
I0925 22:22:40.283227 28200 net.cpp:399] lstm2_transform_1 -> W_hc_h_0
I0925 22:22:40.283237 28238 net.cpp:91] Creating Layer h_pseudoloss
I0925 22:22:40.283242 28238 net.cpp:425] h_pseudoloss <- h
I0925 22:22:40.283252 28238 net.cpp:399] h_pseudoloss -> h_pseudoloss
…
I0925 22:22:40.283385 28218 net.cpp:261] This network produces output h_pseudoloss
I0925 22:22:40.283402 28218 net.cpp:274] Network initialization done.
I0925 22:22:40.283440 28210 net.cpp:49] Initializing net from parameters: 
layer {
  name: "lstm2_"
  type: "Input"
  top: "x"
  top: "cont"
  input_param {
    shape {
      dim: 1
      dim: 1
      dim: 1501
    }
    shape {
      dim: 1
      dim: 1
    }
  }
}
layer {
  name: "lstm2_"
  type: "Input"
  top: "c_0"
  top: "h_0"
  input_param {
    shape {
      dim: 1
      dim: 1
      dim: 1000
    }
    shape {
      dim: 1
      dim: 1
      dim: 1000
    }
  }
}
layer {
  name: "lstm2_cont_slice"
  type: "Slice"
  bottom: "cont"
  top: "cont_1"
  slice_param {
    axis: 0
  }
}
layer {
  name: "lstm2_x_transform"
  type: "InnerProduct"
  bottom: "x"
  top: "W_xc_x"
  param {
    name: "W_xc"
  }
  param {
    name: "b_c"
  }
  propagate_down: true
  inner_product_param {
    num_output: 4000
    bias_term: true
    weight_filler {
      type: "uniform"
      min: -0.08
      max: 0.08
    }
    bias_filler {
      type: "constant"
      value: 0
    }
    axis: 2
  }
}
layer {
  name: "lstm2_W_xc_x_slice"
  type: "Slice"
  bottom: "W_xc_x"
  top: "W_xc_x_1"
  slice_param {
    axis: 0
  }
}
layer {
  name: "lstm2_h_conted_0"
  type: "Scale"
  bottom: "h_0"
  bottom: "cont_1"
  top: "h_conted_0"
  scale_param {
    axis: 0
  }
}
layer {
  name: "lstm2_transform_1"
  type: "InnerProduct"
  bottom: "h_conted_0"
  top: "W_hc_h_0"
  param {
    name: "W_hc"
  }
  inner_product_param {
    num_output: 4000
    bias_term: false
    weight_filler {
      type: "uniform"
      min: -0.08
      max: 0.08
    }
    axis: 2
  }
}
layer {
  name: "lstm2_gate_input_1"
  type: "Eltwise"
  bottom: "W_hc_h_0"
  bottom: "W_xc_x_1"
  top: "gate_input_1"
  eltwise_param {
    operation: SUM
  }
}
layer {
  name: "lstm2_unit_1"
  type: "LSTMUnit"
  bottom: "c_0"
  bottom: "gate_input_1"
  bottom: "cont_1"
  top: "c_1"
  top: "h_1"
}
layer {
  name: "lstm2_"
  type: "Split"
  bottom: "c_1"
  top: "c_T"
}
layer {
  name: "lstm2_h_concat"
  type: "Concat"
  bottom: "h_1"
  top: "h"
  concat_param {
    axis: 0
  }
}
layer {
  name: "h_pseudoloss"
  type: "Reduction"
  bottom: "h"
  top: "h_pseudoloss"
  loss_weight: 1
}
I0925 22:22:40.283496 28218 recurrent_layer.cpp:150] Adding parameter 0: W_xc
I0925 22:22:40.283505 28218 recurrent_layer.cpp:150] Adding parameter 1: b_c
I0925 22:22:40.283510 28218 recurrent_layer.cpp:150] Adding parameter 2: W_hc
I0925 22:22:40.291023 28210 layer_factory.hpp:77] Creating layer lstm2_
I0925 22:22:40.291085 28210 net.cpp:91] Creating Layer lstm2_
…
I0925 22:22:40.292521 28238 net.cpp:217] lstm2_x_transform needs backward computation.
I0925 22:22:40.292527 28238 net.cpp:219] cont_1_lstm2_cont_slice_0_split does not need backward computation.
I0925 22:22:40.292533 28238 net.cpp:219] lstm2_cont_slice does not need backward computation.
I0925 22:22:40.292539 28238 net.cpp:219] lstm2_ does not need backward computation.
I0925 22:22:40.292544 28238 net.cpp:219] lstm2_ does not need backward computation.
I0925 22:22:40.292544 28210 net.cpp:141] Setting up lstm2_
I0925 22:22:40.292548 28238 net.cpp:261] This network produces output c_T
I0925 22:22:40.292562 28210 net.cpp:148] Top shape: 1 1 1501 (1501)
I0925 22:22:40.292565 28238 net.cpp:261] This network produces output h_pseudoloss
I0925 22:22:40.292570 28210 net.cpp:148] Top shape: 1 1 (1)
I0925 22:22:40.292577 28210 net.cpp:156] Memory required for data: 6008
I0925 22:22:40.292582 28210 layer_factory.hpp:77] Creating layer lstm2_
I0925 22:22:40.292587 28238 net.cpp:274] Network initialization done.
I0925 22:22:40.292594 28210 net.cpp:91] Creating Layer lstm2_
I0925 22:22:40.292609 28210 net.cpp:399] lstm2_ -> c_0
I0925 22:22:40.292623 28210 net.cpp:399] lstm2_ -> h_0
I0925 22:22:40.292666 28238 recurrent_layer.cpp:150] Adding parameter 0: W_xc
I0925 22:22:40.292675 28238 recurrent_layer.cpp:150] Adding parameter 1: b_c
I0925 22:22:40.292680 28238 recurrent_layer.cpp:150] Adding parameter 2: W_hc
I0925 22:22:40.292786 28218 net.cpp:141] Setting up lstm2
I0925 22:22:40.292806 28218 net.cpp:148] Top shape: 1 1 1000 (1000)
I0925 22:22:40.292812 28218 net.cpp:156] Memory required for data: 36412
I0925 22:22:40.292832 28218 layer_factory.hpp:77] Creating layer predict
I0925 22:22:40.292848 28218 net.cpp:91] Creating Layer predict
I0925 22:22:40.292876 28218 net.cpp:425] predict <- lstm2
I0925 22:22:40.292886 28218 net.cpp:399] predict -> predict
I0925 22:22:40.292943 28210 net.cpp:141] Setting up lstm2_
I0925 22:22:40.292958 28210 net.cpp:148] Top shape: 1 1 1000 (1000)
I0925 22:22:40.292964 28210 net.cpp:148] Top shape: 1 1 1000 (1000)
I0925 22:22:40.292969 28210 net.cpp:156] Memory required for data: 14008
I0925 22:22:40.292975 28210 layer_factory.hpp:77] Creating layer lstm2_cont_slice
I0925 22:22:40.292989 28210 net.cpp:91] Creating Layer lstm2_cont_slice
I0925 22:22:40.292994 28210 net.cpp:425] lstm2_cont_slice <- cont
I0925 22:22:40.293002 28210 net.cpp:399] lstm2_cont_slice -> cont_1
I0925 22:22:40.293025 28238 net.cpp:141] Setting up lstm2
I0925 22:22:40.293057 28238 net.cpp:148] Top shape: 1 1 1000 (1000)
I0925 22:22:40.293059 28210 net.cpp:141] Setting up lstm2_cont_slice
I0925 22:22:40.293063 28238 net.cpp:156] Memory required for data: 36412
I0925 22:22:40.293071 28210 net.cpp:148] Top shape: 1 1 (1)
I0925 22:22:40.293077 28210 net.cpp:156] Memory required for data: 14012
I0925 22:22:40.293083 28210 layer_factory.hpp:77] Creating layer cont_1_lstm2_cont_slice_0_split
I0925 22:22:40.293097 28238 layer_factory.hpp:77] Creating layer predict
I0925 22:22:40.293097 28210 net.cpp:91] Creating Layer cont_1_lstm2_cont_slice_0_split
I0925 22:22:40.293114 28210 net.cpp:425] cont_1_lstm2_cont_slice_0_split <- cont_1
I0925 22:22:40.293115 28238 net.cpp:91] Creating Layer predict
I0925 22:22:40.293123 28210 net.cpp:399] cont_1_lstm2_cont_slice_0_split -> cont_1_lstm2_cont_slice_0_split_0
I0925 22:22:40.293134 28210 net.cpp:399] cont_1_lstm2_cont_slice_0_split -> cont_1_lstm2_cont_slice_0_split_1
I0925 22:22:40.293138 28238 net.cpp:425] predict <- lstm2
I0925 22:22:40.293148 28238 net.cpp:399] predict -> predict
I0925 22:22:40.387255 28200 net.cpp:141] Setting up lstm2_transform_1
I0925 22:22:40.387308 28200 net.cpp:148] Top shape: 1 1 4000 (4000)
I0925 22:22:40.387315 28200 net.cpp:156] Memory required for data: 66020
I0925 22:22:40.387338 28200 layer_factory.hpp:77] Creating layer lstm2_gate_input_1
I0925 22:22:40.387364 28200 net.cpp:91] Creating Layer lstm2_gate_input_1
I0925 22:22:40.387373 28200 net.cpp:425] lstm2_gate_input_1 <- W_hc_h_0
I0925 22:22:40.387382 28200 net.cpp:425] lstm2_gate_input_1 <- W_xc_x_1
I0925 22:22:40.387392 28200 net.cpp:399] lstm2_gate_input_1 -> gate_input_1
I0925 22:22:40.387465 28200 net.cpp:141] Setting up lstm2_gate_input_1
I0925 22:22:40.387476 28200 net.cpp:148] Top shape: 1 1 4000 (4000)
I0925 22:22:40.387481 28200 net.cpp:156] Memory required for data: 82020
I0925 22:22:40.387486 28200 layer_factory.hpp:77] Creating layer lstm2_unit_1
I0925 22:22:40.387498 28200 net.cpp:91] Creating Layer lstm2_unit_1
I0925 22:22:40.387503 28200 net.cpp:425] lstm2_unit_1 <- c_0
I0925 22:22:40.387511 28200 net.cpp:425] lstm2_unit_1 <- gate_input_1
I0925 22:22:40.387518 28200 net.cpp:425] lstm2_unit_1 <- cont_1_lstm2_cont_slice_0_split_1
I0925 22:22:40.387526 28200 net.cpp:399] lstm2_unit_1 -> c_1
I0925 22:22:40.387537 28200 net.cpp:399] lstm2_unit_1 -> h_1
I0925 22:22:40.387650 28200 net.cpp:141] Setting up lstm2_unit_1
I0925 22:22:40.387661 28200 net.cpp:148] Top shape: 1 1 1000 (1000)
I0925 22:22:40.387668 28200 net.cpp:148] Top shape: 1 1 1000 (1000)
I0925 22:22:40.387673 28200 net.cpp:156] Memory required for data: 90020
I0925 22:22:40.387679 28200 layer_factory.hpp:77] Creating layer lstm2_
I0925 22:22:40.387691 28200 net.cpp:91] Creating Layer lstm2_
I0925 22:22:40.387696 28200 net.cpp:425] lstm2_ <- c_1
I0925 22:22:40.387704 28200 net.cpp:399] lstm2_ -> c_T
I0925 22:22:40.387706 28210 net.cpp:141] Setting up cont_1_lstm2_cont_slice_0_split
I0925 22:22:40.387732 28210 net.cpp:148] Top shape: 1 1 (1)
I0925 22:22:40.387739 28210 net.cpp:148] Top shape: 1 1 (1)
I0925 22:22:40.387744 28210 net.cpp:156] Memory required for data: 14020
I0925 22:22:40.387750 28210 layer_factory.hpp:77] Creating layer lstm2_x_transform
I0925 22:22:40.387778 28210 net.cpp:91] Creating Layer lstm2_x_transform
I0925 22:22:40.387787 28210 net.cpp:425] lstm2_x_transform <- x
I0925 22:22:40.387797 28210 net.cpp:399] lstm2_x_transform -> W_xc_x
I0925 22:22:40.387869 28206 net.cpp:141] Setting up predict
I0925 22:22:40.387912 28206 net.cpp:148] Top shape: 1 1 46168 (46168)
I0925 22:22:40.387917 28206 net.cpp:156] Memory required for data: 221084
I0925 22:22:40.387922 28200 net.cpp:141] Setting up lstm2_
I0925 22:22:40.387934 28206 layer_factory.hpp:77] Creating layer probs
I0925 22:22:40.387934 28200 net.cpp:148] Top shape: 1 1 1000 (1000)
I0925 22:22:40.387954 28200 net.cpp:156] Memory required for data: 94020
I0925 22:22:40.387956 28206 net.cpp:91] Creating Layer probs
I0925 22:22:40.387960 28200 layer_factory.hpp:77] Creating layer lstm2_h_concat
I0925 22:22:40.387966 28206 net.cpp:425] probs <- predict
I0925 22:22:40.387974 28200 net.cpp:91] Creating Layer lstm2_h_concat
I0925 22:22:40.387977 28206 net.cpp:399] probs -> probs
I0925 22:22:40.387980 28200 net.cpp:425] lstm2_h_concat <- h_1
I0925 22:22:40.387994 28200 net.cpp:399] lstm2_h_concat -> h
I0925 22:22:40.492063 28200 net.cpp:141] Setting up lstm2_h_concat
I0925 22:22:40.492111 28200 net.cpp:148] Top shape: 1 1 1000 (1000)
I0925 22:22:40.492118 28200 net.cpp:156] Memory required for data: 98020
I0925 22:22:40.492128 28200 layer_factory.hpp:77] Creating layer h_pseudoloss
I0925 22:22:40.492159 28200 net.cpp:91] Creating Layer h_pseudoloss
I0925 22:22:40.492167 28200 net.cpp:425] h_pseudoloss <- h
I0925 22:22:40.492182 28200 net.cpp:399] h_pseudoloss -> h_pseudoloss
I0925 22:22:40.492997 28200 net.cpp:141] Setting up h_pseudoloss
I0925 22:22:40.493029 28200 net.cpp:148] Top shape: (1)
I0925 22:22:40.493036 28200 net.cpp:151]     with loss weight 1
I0925 22:22:40.493057 28200 net.cpp:156] Memory required for data: 98024
I0925 22:22:40.493067 28200 net.cpp:217] h_pseudoloss needs backward computation.
I0925 22:22:40.493072 28200 net.cpp:217] lstm2_h_concat needs backward computation.
I0925 22:22:40.493078 28200 net.cpp:219] lstm2_ does not need backward computation.
I0925 22:22:40.493084 28200 net.cpp:217] lstm2_unit_1 needs backward computation.
I0925 22:22:40.493093 28200 net.cpp:217] lstm2_gate_input_1 needs backward computation.
I0925 22:22:40.493098 28200 net.cpp:217] lstm2_transform_1 needs backward computation.
I0925 22:22:40.493096 28204 net.cpp:141] Setting up predict
I0925 22:22:40.493122 28200 net.cpp:219] lstm2_h_conted_0 does not need backward computation.
I0925 22:22:40.493145 28204 net.cpp:148] Top shape: 1 1 46168 (46168)
I0925 22:22:40.493152 28204 net.cpp:156] Memory required for data: 221084
I0925 22:22:40.493151 28200 net.cpp:217] lstm2_W_xc_x_slice needs backward computation.
I0925 22:22:40.493163 28200 net.cpp:217] lstm2_x_transform needs backward computation.
I0925 22:22:40.493168 28204 layer_factory.hpp:77] Creating layer probs
I0925 22:22:40.493170 28200 net.cpp:219] cont_1_lstm2_cont_slice_0_split does not need backward computation.
I0925 22:22:40.493180 28200 net.cpp:219] lstm2_cont_slice does not need backward computation.
I0925 22:22:40.493188 28200 net.cpp:219] lstm2_ does not need backward computation.
I0925 22:22:40.493188 28204 net.cpp:91] Creating Layer probs
I0925 22:22:40.493194 28200 net.cpp:219] lstm2_ does not need backward computation.
I0925 22:22:40.493197 28204 net.cpp:425] probs <- predict
I0925 22:22:40.493201 28200 net.cpp:261] This network produces output c_T
I0925 22:22:40.493208 28200 net.cpp:261] This network produces output h_pseudoloss
I0925 22:22:40.493209 28204 net.cpp:399] probs -> probs
I0925 22:22:40.493227 28200 net.cpp:274] Network initialization done.
I0925 22:22:40.493305 28200 recurrent_layer.cpp:150] Adding parameter 0: W_xc
I0925 22:22:40.493314 28200 recurrent_layer.cpp:150] Adding parameter 1: b_c
I0925 22:22:40.493319 28200 recurrent_layer.cpp:150] Adding parameter 2: W_hc
I0925 22:22:40.493605 28200 net.cpp:141] Setting up lstm2
I0925 22:22:40.493620 28200 net.cpp:148] Top shape: 1 1 1000 (1000)
I0925 22:22:40.493625 28200 net.cpp:156] Memory required for data: 36412
I0925 22:22:40.493645 28200 layer_factory.hpp:77] Creating layer predict
I0925 22:22:40.493665 28200 net.cpp:91] Creating Layer predict
I0925 22:22:40.493674 28200 net.cpp:425] predict <- lstm2
I0925 22:22:40.493700 28200 net.cpp:399] predict -> predict
I0925 22:22:40.588852 28210 net.cpp:141] Setting up lstm2_x_transform
I0925 22:22:40.588912 28210 net.cpp:148] Top shape: 1 1 4000 (4000)
I0925 22:22:40.588918 28210 net.cpp:156] Memory required for data: 30020
I0925 22:22:40.588943 28210 layer_factory.hpp:77] Creating layer lstm2_W_xc_x_slice
I0925 22:22:40.588969 28210 net.cpp:91] Creating Layer lstm2_W_xc_x_slice
I0925 22:22:40.588979 28210 net.cpp:425] lstm2_W_xc_x_slice <- W_xc_x
I0925 22:22:40.588989 28210 net.cpp:399] lstm2_W_xc_x_slice -> W_xc_x_1
I0925 22:22:40.592036 28210 net.cpp:141] Setting up lstm2_W_xc_x_slice
I0925 22:22:40.592056 28210 net.cpp:148] Top shape: 1 1 4000 (4000)
I0925 22:22:40.592061 28210 net.cpp:156] Memory required for data: 46020
I0925 22:22:40.592070 28210 layer_factory.hpp:77] Creating layer lstm2_h_conted_0
I0925 22:22:40.592084 28210 net.cpp:91] Creating Layer lstm2_h_conted_0
I0925 22:22:40.592090 28210 net.cpp:425] lstm2_h_conted_0 <- h_0
I0925 22:22:40.592098 28210 net.cpp:425] lstm2_h_conted_0 <- cont_1_lstm2_cont_slice_0_split_0
I0925 22:22:40.592108 28210 net.cpp:399] lstm2_h_conted_0 -> h_conted_0
I0925 22:22:40.595801 28210 net.cpp:141] Setting up lstm2_h_conted_0
I0925 22:22:40.595821 28210 net.cpp:148] Top shape: 1 1 1000 (1000)
I0925 22:22:40.595826 28210 net.cpp:156] Memory required for data: 50020
I0925 22:22:40.595832 28210 layer_factory.hpp:77] Creating layer lstm2_transform_1
I0925 22:22:40.595850 28210 net.cpp:91] Creating Layer lstm2_transform_1
I0925 22:22:40.595857 28210 net.cpp:425] lstm2_transform_1 <- h_conted_0
I0925 22:22:40.595867 28210 net.cpp:399] lstm2_transform_1 -> W_hc_h_0
I0925 22:22:40.637228 28244 net.cpp:141] Setting up predict
I0925 22:22:40.637277 28244 net.cpp:148] Top shape: 1 1 46168 (46168)
I0925 22:22:40.637284 28244 net.cpp:156] Memory required for data: 221084
I0925 22:22:40.637300 28244 layer_factory.hpp:77] Creating layer probs
I0925 22:22:40.637317 28244 net.cpp:91] Creating Layer probs
I0925 22:22:40.637326 28244 net.cpp:425] probs <- predict
I0925 22:22:40.637336 28244 net.cpp:399] probs -> probs
I0925 22:22:40.650169 28210 net.cpp:141] Setting up lstm2_transform_1
I0925 22:22:40.650224 28210 net.cpp:148] Top shape: 1 1 4000 (4000)
I0925 22:22:40.650231 28210 net.cpp:156] Memory required for data: 66020
I0925 22:22:40.650252 28210 layer_factory.hpp:77] Creating layer lstm2_gate_input_1
I0925 22:22:40.650280 28210 net.cpp:91] Creating Layer lstm2_gate_input_1
I0925 22:22:40.650290 28210 net.cpp:425] lstm2_gate_input_1 <- W_hc_h_0
I0925 22:22:40.650298 28210 net.cpp:425] lstm2_gate_input_1 <- W_xc_x_1
I0925 22:22:40.650307 28210 net.cpp:399] lstm2_gate_input_1 -> gate_input_1
I0925 22:22:40.652297 28210 net.cpp:141] Setting up lstm2_gate_input_1
I0925 22:22:40.652318 28210 net.cpp:148] Top shape: 1 1 4000 (4000)
I0925 22:22:40.652323 28210 net.cpp:156] Memory required for data: 82020
I0925 22:22:40.652331 28210 layer_factory.hpp:77] Creating layer lstm2_unit_1
I0925 22:22:40.652353 28210 net.cpp:91] Creating Layer lstm2_unit_1
I0925 22:22:40.652364 28210 net.cpp:425] lstm2_unit_1 <- c_0
I0925 22:22:40.652376 28210 net.cpp:425] lstm2_unit_1 <- gate_input_1
I0925 22:22:40.652385 28210 net.cpp:425] lstm2_unit_1 <- cont_1_lstm2_cont_slice_0_split_1
I0925 22:22:40.652395 28210 net.cpp:399] lstm2_unit_1 -> c_1
I0925 22:22:40.652406 28210 net.cpp:399] lstm2_unit_1 -> h_1
I0925 22:22:40.652561 28210 net.cpp:141] Setting up lstm2_unit_1
I0925 22:22:40.652575 28210 net.cpp:148] Top shape: 1 1 1000 (1000)
I0925 22:22:40.652581 28210 net.cpp:148] Top shape: 1 1 1000 (1000)
I0925 22:22:40.652586 28210 net.cpp:156] Memory required for data: 90020
I0925 22:22:40.652592 28210 layer_factory.hpp:77] Creating layer lstm2_
I0925 22:22:40.652611 28210 net.cpp:91] Creating Layer lstm2_
I0925 22:22:40.652616 28210 net.cpp:425] lstm2_ <- c_1
I0925 22:22:40.652624 28210 net.cpp:399] lstm2_ -> c_T
I0925 22:22:40.655935 28210 net.cpp:141] Setting up lstm2_
I0925 22:22:40.655956 28210 net.cpp:148] Top shape: 1 1 1000 (1000)
I0925 22:22:40.655962 28210 net.cpp:156] Memory required for data: 94020
I0925 22:22:40.655968 28210 layer_factory.hpp:77] Creating layer lstm2_h_concat
I0925 22:22:40.655990 28210 net.cpp:91] Creating Layer lstm2_h_concat
I0925 22:22:40.655997 28210 net.cpp:425] lstm2_h_concat <- h_1
I0925 22:22:40.656007 28210 net.cpp:399] lstm2_h_concat -> h
I0925 22:22:40.656111 28210 net.cpp:141] Setting up lstm2_h_concat
I0925 22:22:40.656122 28210 net.cpp:148] Top shape: 1 1 1000 (1000)
I0925 22:22:40.656127 28210 net.cpp:156] Memory required for data: 98020
I0925 22:22:40.656133 28210 layer_factory.hpp:77] Creating layer h_pseudoloss
I0925 22:22:40.656143 28210 net.cpp:91] Creating Layer h_pseudoloss
I0925 22:22:40.656148 28210 net.cpp:425] h_pseudoloss <- h
I0925 22:22:40.656174 28210 net.cpp:399] h_pseudoloss -> h_pseudoloss
I0925 22:22:40.659519 28210 net.cpp:141] Setting up h_pseudoloss
…
I0925 22:22:40.756106 28206 net.cpp:219] reshape_frames does not need backward computation.
I0925 22:22:40.756111 28206 net.cpp:219] embed_encoder does not need backward computation.
I0925 22:22:40.756116 28206 net.cpp:219] cont_sentence_input_1_split does not need backward computation.
I0925 22:22:40.756124 28206 net.cpp:219] input does not need backward computation.
I0925 22:22:40.756127 28206 net.cpp:261] This network produces output probs
I0925 22:22:40.756129 28244 net.cpp:274] Network initialization done.
I0925 22:22:40.756145 28206 net.cpp:274] Network initialization done.
I0925 22:22:40.756323 28204 net.cpp:141] Setting up probs
I0925 22:22:40.756347 28204 net.cpp:148] Top shape: 1 1 46168 (46168)
I0925 22:22:40.756356 28204 net.cpp:156] Memory required for data: 405756
I0925 22:22:40.756363 28204 net.cpp:219] probs does not need backward computation.
I0925 22:22:40.756371 28204 net.cpp:219] predict does not need backward computation.
I0925 22:22:40.756379 28204 net.cpp:219] lstm2 does not need backward computation.
I0925 22:22:40.756387 28204 net.cpp:219] concat does not need backward computation.
I0925 22:22:40.756397 28204 net.cpp:219] lstm1 does not need backward computation.
I0925 22:22:40.756404 28204 net.cpp:219] embedding does not need backward computation.
I0925 22:22:40.756412 28204 net.cpp:219] reshape_stage_indicator does not need backward computation.
I0925 22:22:40.756419 28204 net.cpp:219] reshape_frames does not need backward computation.
I0925 22:22:40.756428 28204 net.cpp:219] embed_encoder does not need backward computation.
I0925 22:22:40.756438 28204 net.cpp:219] cont_sentence_input_1_split does not need backward computation.
I0925 22:22:40.756446 28204 net.cpp:219] input does not need backward computation.
I0925 22:22:40.756453 28204 net.cpp:261] This network produces output probs
I0925 22:22:40.756475 28204 net.cpp:274] Network initialization done.
I0925 22:22:40.757248 28212 net.cpp:141] Setting up conv1
I0925 22:22:40.757267 28212 net.cpp:148] Top shape: 10 96 55 55 (2904000)
I0925 22:22:40.757273 28212 net.cpp:156] Memory required for data: 17799480
I0925 22:22:40.757295 28212 layer_factory.hpp:77] Creating layer relu1
I0925 22:22:40.757314 28212 net.cpp:91] Creating Layer relu1
I0925 22:22:40.757321 28212 net.cpp:425] relu1 <- conv1
I0925 22:22:40.757330 28212 net.cpp:386] relu1 -> conv1 (in-place)
I0925 22:22:40.757750 28212 net.cpp:141] Setting up relu1
I0925 22:22:40.757764 28212 net.cpp:148] Top shape: 10 96 55 55 (2904000)
I0925 22:22:40.757769 28212 net.cpp:156] Memory required for data: 29415480
I0925 22:22:40.757776 28212 layer_factory.hpp:77] Creating layer pool1
I0925 22:22:40.757791 28212 net.cpp:91] Creating Layer pool1
I0925 22:22:40.757797 28212 net.cpp:425] pool1 <- conv1
I0925 22:22:40.757805 28212 net.cpp:399] pool1 -> pool1
I0925 22:22:40.757885 28212 net.cpp:141] Setting up pool1
I0925 22:22:40.757896 28212 net.cpp:148] Top shape: 10 96 27 27 (699840)
I0925 22:22:40.757901 28212 net.cpp:156] Memory required for data: 32214840
I0925 22:22:40.757906 28212 layer_factory.hpp:77] Creating layer norm1
I0925 22:22:40.757925 28212 net.cpp:91] Creating Layer norm1
I0925 22:22:40.757930 28212 net.cpp:425] norm1 <- pool1
I0925 22:22:40.757937 28212 net.cpp:399] norm1 -> norm1
I0925 22:22:40.758208 28212 net.cpp:141] Setting up norm1
I0925 22:22:40.758221 28212 net.cpp:148] Top shape: 10 96 27 27 (699840)
I0925 22:22:40.758225 28212 net.cpp:156] Memory required for data: 35014200
I0925 22:22:40.758231 28212 layer_factory.hpp:77] Creating layer conv2
I0925 22:22:40.758246 28212 net.cpp:91] Creating Layer conv2
I0925 22:22:40.758251 28212 net.cpp:425] conv2 <- norm1
I0925 22:22:40.758260 28212 net.cpp:399] conv2 -> conv2
I0925 22:22:40.762269 28212 net.cpp:141] Setting up conv2
I0925 22:22:40.762295 28212 net.cpp:148] Top shape: 10 256 27 27 (1866240)
I0925 22:22:40.762300 28212 net.cpp:156] Memory required for data: 42479160
I0925 22:22:40.762317 28212 layer_factory.hpp:77] Creating layer relu2
I0925 22:22:40.762332 28212 net.cpp:91] Creating Layer relu2
I0925 22:22:40.762338 28212 net.cpp:425] relu2 <- conv2
I0925 22:22:40.762346 28212 net.cpp:386] relu2 -> conv2 (in-place)
I0925 22:22:40.762620 28212 net.cpp:141] Setting up relu2
I0925 22:22:40.762632 28212 net.cpp:148] Top shape: 10 256 27 27 (1866240)
I0925 22:22:40.762637 28212 net.cpp:156] Memory required for data: 49944120
I0925 22:22:40.762642 28212 layer_factory.hpp:77] Creating layer pool2
I0925 22:22:40.762665 28212 net.cpp:91] Creating Layer pool2
I0925 22:22:40.762670 28212 net.cpp:425] pool2 <- conv2
I0925 22:22:40.762679 28212 net.cpp:399] pool2 -> pool2
I0925 22:22:40.762748 28212 net.cpp:141] Setting up pool2
I0925 22:22:40.762758 28212 net.cpp:148] Top shape: 10 256 13 13 (432640)
I0925 22:22:40.762763 28212 net.cpp:156] Memory required for data: 51674680
I0925 22:22:40.762768 28212 layer_factory.hpp:77] Creating layer norm2
I0925 22:22:40.762780 28212 net.cpp:91] Creating Layer norm2
I0925 22:22:40.762785 28212 net.cpp:425] norm2 <- pool2
I0925 22:22:40.762795 28212 net.cpp:399] norm2 -> norm2
I0925 22:22:40.763233 28212 net.cpp:141] Setting up norm2
I0925 22:22:40.763247 28212 net.cpp:148] Top shape: 10 256 13 13 (432640)
I0925 22:22:40.763252 28212 net.cpp:156] Memory required for data: 53405240
I0925 22:22:40.763257 28212 layer_factory.hpp:77] Creating layer conv3
I0925 22:22:40.763272 28212 net.cpp:91] Creating Layer conv3
I0925 22:22:40.763276 28212 net.cpp:425] conv3 <- norm2
I0925 22:22:40.763284 28212 net.cpp:399] conv3 -> conv3
I0925 22:22:40.767395 28212 net.cpp:141] Setting up conv3
I0925 22:22:40.767441 28212 net.cpp:148] Top shape: 10 384 13 13 (648960)
I0925 22:22:40.767446 28212 net.cpp:156] Memory required for data: 56001080
I0925 22:22:40.767472 28212 layer_factory.hpp:77] Creating layer relu3
I0925 22:22:40.767488 28212 net.cpp:91] Creating Layer relu3
I0925 22:22:40.767495 28212 net.cpp:425] relu3 <- conv3
I0925 22:22:40.767509 28212 net.cpp:386] relu3 -> conv3 (in-place)
I0925 22:22:40.768010 28212 net.cpp:141] Setting up relu3
I0925 22:22:40.768024 28212 net.cpp:148] Top shape: 10 384 13 13 (648960)
I0925 22:22:40.768029 28212 net.cpp:156] Memory required for data: 58596920
I0925 22:22:40.768034 28212 layer_factory.hpp:77] Creating layer conv4
I0925 22:22:40.768048 28212 net.cpp:91] Creating Layer conv4
I0925 22:22:40.768054 28212 net.cpp:425] conv4 <- conv3
I0925 22:22:40.768064 28212 net.cpp:399] conv4 -> conv4
I0925 22:22:40.774402 28212 net.cpp:141] Setting up conv4
I0925 22:22:40.774451 28212 net.cpp:148] Top shape: 10 384 13 13 (648960)
I0925 22:22:40.774457 28212 net.cpp:156] Memory required for data: 61192760
I0925 22:22:40.774472 28212 layer_factory.hpp:77] Creating layer relu4
I0925 22:22:40.774497 28212 net.cpp:91] Creating Layer relu4
I0925 22:22:40.774503 28212 net.cpp:425] relu4 <- conv4
I0925 22:22:40.774513 28212 net.cpp:386] relu4 -> conv4 (in-place)
I0925 22:22:40.776489 28212 net.cpp:141] Setting up relu4
I0925 22:22:40.776507 28212 net.cpp:148] Top shape: 10 384 13 13 (648960)
I0925 22:22:40.776513 28212 net.cpp:156] Memory required for data: 63788600
I0925 22:22:40.776518 28212 layer_factory.hpp:77] Creating layer conv5
I0925 22:22:40.776540 28212 net.cpp:91] Creating Layer conv5
I0925 22:22:40.776546 28212 net.cpp:425] conv5 <- conv4
I0925 22:22:40.776554 28212 net.cpp:399] conv5 -> conv5
I0925 22:22:40.783087 28218 net.cpp:141] Setting up predict
I0925 22:22:40.783138 28218 net.cpp:148] Top shape: 1 1 46168 (46168)
I0925 22:22:40.783145 28218 net.cpp:156] Memory required for data: 221084
I0925 22:22:40.783160 28218 layer_factory.hpp:77] Creating layer probs
I0925 22:22:40.783179 28218 net.cpp:91] Creating Layer probs
I0925 22:22:40.783185 28218 net.cpp:425] probs <- predict
I0925 22:22:40.783196 28218 net.cpp:399] probs -> probs
I0925 22:22:40.783814 28212 net.cpp:141] Setting up conv5
I0925 22:22:40.783855 28212 net.cpp:148] Top shape: 10 256 13 13 (432640)
I0925 22:22:40.783861 28212 net.cpp:156] Memory required for data: 65519160
I0925 22:22:40.783882 28212 layer_factory.hpp:77] Creating layer relu5
I0925 22:22:40.783905 28212 net.cpp:91] Creating Layer relu5
I0925 22:22:40.783911 28212 net.cpp:425] relu5 <- conv5
I0925 22:22:40.783920 28212 net.cpp:386] relu5 -> conv5 (in-place)
I0925 22:22:40.784802 28212 net.cpp:141] Setting up relu5
I0925 22:22:40.784819 28212 net.cpp:148] Top shape: 10 256 13 13 (432640)
I0925 22:22:40.784826 28212 net.cpp:156] Memory required for data: 67249720
I0925 22:22:40.784831 28212 layer_factory.hpp:77] Creating layer pool5
I0925 22:22:40.784842 28212 net.cpp:91] Creating Layer pool5
I0925 22:22:40.784847 28212 net.cpp:425] pool5 <- conv5
I0925 22:22:40.784859 28212 net.cpp:399] pool5 -> pool5
I0925 22:22:40.785004 28212 net.cpp:141] Setting up pool5
I0925 22:22:40.785015 28212 net.cpp:148] Top shape: 10 256 6 6 (92160)
I0925 22:22:40.785020 28212 net.cpp:156] Memory required for data: 67618360
I0925 22:22:40.785025 28212 layer_factory.hpp:77] Creating layer fc6
I0925 22:22:40.785044 28212 net.cpp:91] Creating Layer fc6
I0925 22:22:40.785049 28212 net.cpp:425] fc6 <- pool5
I0925 22:22:40.785058 28212 net.cpp:399] fc6 -> fc6
I0925 22:22:40.785264 28218 net.cpp:141] Setting up probs
I0925 22:22:40.785280 28218 net.cpp:148] Top shape: 1 1 46168 (46168)
I0925 22:22:40.785285 28218 net.cpp:156] Memory required for data: 405756
I0925 22:22:40.785292 28218 net.cpp:219] probs does not need backward computation.
I0925 22:22:40.785297 28218 net.cpp:219] predict does not need backward computation.
I0925 22:22:40.785305 28218 net.cpp:219] lstm2 does not need backward computation.
I0925 22:22:40.785311 28218 net.cpp:219] concat does not need backward computation.
I0925 22:22:40.785320 28218 net.cpp:219] lstm1 does not need backward computation.
I0925 22:22:40.785326 28218 net.cpp:219] embedding does not need backward computation.
I0925 22:22:40.785332 28218 net.cpp:219] reshape_stage_indicator does not need backward computation.
I0925 22:22:40.785337 28218 net.cpp:219] reshape_frames does not need backward computation.
I0925 22:22:40.785343 28218 net.cpp:219] embed_encoder does not need backward computation.
I0925 22:22:40.785348 28218 net.cpp:219] cont_sentence_input_1_split does not need backward computation.
I0925 22:22:40.785354 28218 net.cpp:219] input does not need backward computation.
I0925 22:22:40.785359 28218 net.cpp:261] This network produces output probs
I0925 22:22:40.785377 28218 net.cpp:274] Network initialization done.
I0925 22:22:40.850291 28238 net.cpp:141] Setting up predict
I0925 22:22:40.850345 28238 net.cpp:148] Top shape: 1 1 46168 (46168)
I0925 22:22:40.850352 28238 net.cpp:156] Memory required for data: 221084
I0925 22:22:40.850368 28238 layer_factory.hpp:77] Creating layer probs
I0925 22:22:40.850389 28238 net.cpp:91] Creating Layer probs
I0925 22:22:40.850397 28238 net.cpp:425] probs <- predict
I0925 22:22:40.850409 28238 net.cpp:399] probs -> probs
I0925 22:22:40.852264 28238 net.cpp:141] Setting up probs
I0925 22:22:40.852314 28238 net.cpp:148] Top shape: 1 1 46168 (46168)
I0925 22:22:40.852320 28238 net.cpp:156] Memory required for data: 405756
I0925 22:22:40.852330 28238 net.cpp:219] probs does not need backward computation.
I0925 22:22:40.852339 28238 net.cpp:219] predict does not need backward computation.
I0925 22:22:40.852347 28238 net.cpp:219] lstm2 does not need backward computation.
I0925 22:22:40.852355 28238 net.cpp:219] concat does not need backward computation.
I0925 22:22:40.852361 28238 net.cpp:219] lstm1 does not need backward computation.
I0925 22:22:40.852373 28238 net.cpp:219] embedding does not need backward computation.
I0925 22:22:40.852378 28238 net.cpp:219] reshape_stage_indicator does not need backward computation.
I0925 22:22:40.852385 28238 net.cpp:219] reshape_frames does not need backward computation.
I0925 22:22:40.852391 28238 net.cpp:219] embed_encoder does not need backward computation.
I0925 22:22:40.852398 28238 net.cpp:219] cont_sentence_input_1_split does not need backward computation.
I0925 22:22:40.852403 28238 net.cpp:219] input does not need backward computation.
I0925 22:22:40.852408 28238 net.cpp:261] This network produces output probs
I0925 22:22:40.852432 28238 net.cpp:274] Network initialization done.
I0925 22:22:40.889961 28212 net.cpp:141] Setting up fc6
I0925 22:22:40.890007 28212 net.cpp:148] Top shape: 10 4096 (40960)
I0925 22:22:40.890012 28212 net.cpp:156] Memory required for data: 67782200
I0925 22:22:40.890028 28212 layer_factory.hpp:77] Creating layer relu6
I0925 22:22:40.890046 28212 net.cpp:91] Creating Layer relu6
I0925 22:22:40.890053 28212 net.cpp:425] relu6 <- fc6
I0925 22:22:40.890431 28212 net.cpp:386] relu6 -> fc6 (in-place)
I0925 22:22:40.891369 28212 net.cpp:141] Setting up relu6
I0925 22:22:40.891386 28212 net.cpp:148] Top shape: 10 4096 (40960)
I0925 22:22:40.891391 28212 net.cpp:156] Memory required for data: 67946040
I0925 22:22:40.891398 28212 layer_factory.hpp:77] Creating layer drop6
I0925 22:22:40.891412 28212 net.cpp:91] Creating Layer drop6
I0925 22:22:40.891417 28212 net.cpp:425] drop6 <- fc6
I0925 22:22:40.891427 28212 net.cpp:386] drop6 -> fc6 (in-place)
I0925 22:22:40.891504 28212 net.cpp:141] Setting up drop6
I0925 22:22:40.891515 28212 net.cpp:148] Top shape: 10 4096 (40960)
I0925 22:22:40.891520 28212 net.cpp:156] Memory required for data: 68109880
I0925 22:22:40.891525 28212 layer_factory.hpp:77] Creating layer fc7
I0925 22:22:40.891535 28212 net.cpp:91] Creating Layer fc7
I0925 22:22:40.891541 28212 net.cpp:425] fc7 <- fc6
I0925 22:22:40.891547 28212 net.cpp:399] fc7 -> fc7
I0925 22:22:40.942270 28212 net.cpp:141] Setting up fc7
I0925 22:22:40.942319 28212 net.cpp:148] Top shape: 10 4096 (40960)
I0925 22:22:40.942327 28212 net.cpp:156] Memory required for data: 68273720
I0925 22:22:40.942343 28212 layer_factory.hpp:77] Creating layer relu7
I0925 22:22:40.942361 28212 net.cpp:91] Creating Layer relu7
I0925 22:22:40.942369 28212 net.cpp:425] relu7 <- fc7
I0925 22:22:40.942381 28212 net.cpp:386] relu7 -> fc7 (in-place)
I0925 22:22:40.942739 28212 net.cpp:141] Setting up relu7
I0925 22:22:40.942751 28212 net.cpp:148] Top shape: 10 4096 (40960)
I0925 22:22:40.942756 28212 net.cpp:156] Memory required for data: 68437560
I0925 22:22:40.942761 28212 layer_factory.hpp:77] Creating layer drop7
I0925 22:22:40.942771 28212 net.cpp:91] Creating Layer drop7
I0925 22:22:40.942776 28212 net.cpp:425] drop7 <- fc7
I0925 22:22:40.942788 28212 net.cpp:386] drop7 -> fc7 (in-place)
I0925 22:22:40.942839 28212 net.cpp:141] Setting up drop7
I0925 22:22:40.942848 28212 net.cpp:148] Top shape: 10 4096 (40960)
I0925 22:22:40.942853 28212 net.cpp:156] Memory required for data: 68601400
I0925 22:22:40.942858 28212 layer_factory.hpp:77] Creating layer fc8
I0925 22:22:40.942868 28212 net.cpp:91] Creating Layer fc8
I0925 22:22:40.942873 28212 net.cpp:425] fc8 <- fc7
I0925 22:22:40.942879 28212 net.cpp:399] fc8 -> fc8
I0925 22:22:40.955580 28212 net.cpp:141] Setting up fc8
I0925 22:22:40.955627 28212 net.cpp:148] Top shape: 10 1000 (10000)
I0925 22:22:40.955633 28212 net.cpp:156] Memory required for data: 68641400
I0925 22:22:40.955647 28212 layer_factory.hpp:77] Creating layer prob
I0925 22:22:40.955688 28212 net.cpp:91] Creating Layer prob
I0925 22:22:40.955696 28212 net.cpp:425] prob <- fc8
I0925 22:22:40.955711 28212 net.cpp:399] prob -> prob
I0925 22:22:40.956670 28212 net.cpp:141] Setting up prob
I0925 22:22:40.956683 28212 net.cpp:148] Top shape: 10 1000 (10000)
I0925 22:22:40.956688 28212 net.cpp:156] Memory required for data: 68681400
I0925 22:22:40.956694 28212 net.cpp:219] prob does not need backward computation.
I0925 22:22:40.956701 28212 net.cpp:219] fc8 does not need backward computation.
I0925 22:22:40.956704 28212 net.cpp:219] drop7 does not need backward computation.
I0925 22:22:40.956708 28212 net.cpp:219] relu7 does not need backward computation.
…
