…
Java HotSpot(TM) 64-Bit Server VM warning: You have loaded library /tmp/cvld7097155365731214973/libopencv_java310.xine1.so which might have disabled stack guard. The VM will try to fix the stack guard now.
It's highly recommended that you fix the library with 'execstack -c <libfile>', or link it with '-z noexecstack'.
WARNING: Logging before InitGoogleLogging() is written to STDERR
I0804 10:02:29.915647  8927 net.cpp:49] Initializing net from parameters: 
name: "CaffeNet"
state {
  phase: TEST
}
layer {
  name: "data"
  type: "Input"
  top: "data"
  input_param {
    shape {
      dim: 10
      dim: 3
      dim: 227
      dim: 227
    }
  }
}
layer {
  name: "conv1"
  type: "Convolution"
  bottom: "data"
  top: "conv1"
  convolution_param {
    num_output: 96
    kernel_size: 11
    stride: 4
  }
}
layer {
  name: "relu1"
  type: "ReLU"
  bottom: "conv1"
  top: "conv1"
}
layer {
  name: "pool1"
  type: "Pooling"
  bottom: "conv1"
  top: "pool1"
  pooling_param {
    pool: MAX
    kernel_size: 3
    stride: 2
  }
}
layer {
  name: "norm1"
  type: "LRN"
  bottom: "pool1"
  top: "norm1"
  lrn_param {
    local_size: 5
    alpha: 0.0001
    beta: 0.75
  }
}
layer {
  name: "conv2"
  type: "Convolution"
  bottom: "norm1"
  top: "conv2"
  convolution_param {
    num_output: 256
    pad: 2
    kernel_size: 5
    group: 2
  }
}
layer {
  name: "relu2"
  type: "ReLU"
  bottom: "conv2"
  top: "conv2"
}
layer {
  name: "pool2"
  type: "Pooling"
  bottom: "conv2"
  top: "pool2"
  pooling_param {
    pool: MAX
    kernel_size: 3
    stride: 2
  }
}
layer {
  name: "norm2"
  type: "LRN"
  bottom: "pool2"
  top: "norm2"
  lrn_param {
    local_size: 5
    alpha: 0.0001
    beta: 0.75
  }
}
layer {
  name: "conv3"
  type: "Convolution"
  bottom: "norm2"
  top: "conv3"
  convolution_param {
    num_output: 384
    pad: 1
    kernel_size: 3
  }
}
layer {
  name: "relu3"
  type: "ReLU"
  bottom: "conv3"
  top: "conv3"
}
layer {
  name: "conv4"
  type: "Convolution"
  bottom: "conv3"
  top: "conv4"
  convolution_param {
    num_output: 384
    pad: 1
    kernel_size: 3
    group: 2
  }
}
layer {
  name: "relu4"
  type: "ReLU"
  bottom: "conv4"
  top: "conv4"
}
layer {
  name: "conv5"
  type: "Convolution"
  bottom: "conv4"
  top: "conv5"
  convolution_param {
    num_output: 256
    pad: 1
    kernel_size: 3
    group: 2
  }
}
layer {
  name: "relu5"
  type: "ReLU"
  bottom: "conv5"
  top: "conv5"
}
layer {
  name: "pool5"
  type: "Pooling"
  bottom: "conv5"
  top: "pool5"
  pooling_param {
    pool: MAX
    kernel_size: 3
    stride: 2
  }
}
layer {
  name: "fc6"
  type: "InnerProduct"
  bottom: "pool5"
  top: "fc6"
  inner_product_param {
    num_output: 4096
  }
}
layer {
  name: "relu6"
  type: "ReLU"
  bottom: "fc6"
  top: "fc6"
}
layer {
  name: "drop6"
  type: "Dropout"
  bottom: "fc6"
  top: "fc6"
  dropout_param {
    dropout_ratio: 0.5
  }
}
layer {
  name: "fc7"
  type: "InnerProduct"
  bottom: "fc6"
  top: "fc7"
  inner_product_param {
    num_output: 4096
  }
}
layer {
  name: "relu7"
  type: "ReLU"
  bottom: "fc7"
  top: "fc7"
}
layer {
  name: "drop7"
  type: "Dropout"
  bottom: "fc7"
  top: "fc7"
  dropout_param {
    dropout_ratio: 0.5
  }
}
layer {
  name: "fc8"
  type: "InnerProduct"
  bottom: "fc7"
  top: "fc8"
  inner_product_param {
    num_output: 1000
  }
}
layer {
  name: "prob"
  type: "Softmax"
  bottom: "fc8"
  top: "prob"
}
I0804 10:02:29.915843  8927 layer_factory.hpp:77] Creating layer data
I0804 10:02:29.915869  8927 net.cpp:91] Creating Layer data
I0804 10:02:29.915879  8927 net.cpp:399] data -> data
I0804 10:02:30.463230  8927 net.cpp:141] Setting up data
I0804 10:02:30.463330  8927 net.cpp:148] Top shape: 10 3 227 227 (1545870)
I0804 10:02:30.463336  8927 net.cpp:156] Memory required for data: 6183480
I0804 10:02:30.463353  8927 layer_factory.hpp:77] Creating layer conv1
I0804 10:02:30.463381  8927 net.cpp:91] Creating Layer conv1
I0804 10:02:30.463389  8927 net.cpp:425] conv1 <- data
I0804 10:02:30.463402  8927 net.cpp:399] conv1 -> conv1
I0804 10:02:30.521100  8917 upgrade_proto.cpp:66] Attempting to upgrade input file specified using deprecated input fields: /tmp/cvld7097155365731214973/s2vt.words_to_preds.prototxt
I0804 10:02:30.521158  8917 upgrade_proto.cpp:69] Successfully upgraded file specified using deprecated input fields.
W0804 10:02:30.521167  8917 upgrade_proto.cpp:71] Note that future Caffe releases will only support input layers and not input fields.
I0804 10:02:30.521414  8917 net.cpp:49] Initializing net from parameters: 
name: "s2vt:features_to_lstm"
state {
  phase: TEST
}
layer {
  name: "input"
  type: "Input"
  top: "frames_fc7"
  top: "cont_sentence"
  top: "input_sentence"
  top: "stage_indicator"
  input_param {
    shape {
      dim: 1
      dim: 4096
    }
    shape {
      dim: 1
      dim: 1
    }
    shape {
      dim: 1
      dim: 1
    }
    shape {
      dim: 1
      dim: 1
    }
  }
}
layer {
  name: "embed_encoder"
  type: "InnerProduct"
  bottom: "frames_fc7"
  top: "embedded_in_frames"
  param {
    lr_mult: 1
    decay_mult: 1
  }
  param {
    lr_mult: 2
    decay_mult: 0
  }
  inner_product_param {
    num_output: 500
    weight_filler {
      type: "xavier"
    }
    bias_filler {
      type: "constant"
      value: 0.2
    }
  }
}
layer {
  name: "reshape_frames"
  type: "Reshape"
  bottom: "embedded_in_frames"
  top: "embedded_input_frames"
  reshape_param {
    shape {
      dim: 1
      dim: 1
      dim: 500
    }
  }
}
layer {
  name: "reshape_stage_indicator"
  type: "Reshape"
  bottom: "stage_indicator"
  top: "reshaped_stage_indicator"
  reshape_param {
    shape {
      dim: 1
      dim: 1
      dim: 1
    }
  }
}
layer {
  name: "embedding"
  type: "Embed"
  bottom: "input_sentence"
  top: "embedded_input_sentence"
  param {
    lr_mult: 1
  }
  embed_param {
    num_output: 500
    input_dim: 46168
    bias_term: false
    weight_filler {
      type: "uniform"
      min: -0.08
      max: 0.08
    }
  }
}
layer {
  name: "lstm1"
  type: "LSTM"
  bottom: "embedded_input_frames"
  bottom: "cont_sentence"
  top: "lstm1"
  recurrent_param {
    num_output: 1000
    weight_filler {
      type: "uniform"
      min: -0.08
      max: 0.08
    }
    bias_filler {
      type: "constant"
      value: 0
    }
  }
}
layer {
  name: "concat"
  type: "Concat"
  bottom: "lstm1"
  bottom: "embedded_input_sentence"
  bottom: "reshaped_stage_indicator"
  top: "lstm1_video_sequence"
  concat_param {
    concat_dim: 2
  }
}
layer {
  name: "lstm2"
  type: "LSTM"
  bottom: "lstm1_video_sequence"
  bottom: "cont_sentence"
  top: "lstm2"
  recurrent_param {
    num_output: 1000
    weight_filler {
      type: "uniform"
      min: -0.08
      max: 0.08
    }
    bias_filler {
      type: "constant"
      value: 0
    }
  }
}
layer {
  name: "predict"
  type: "InnerProduct"
  bottom: "lstm2"
  top: "predict"
  param {
    lr_mult: 1
    decay_mult: 1
  }
  param {
    lr_mult: 2
    decay_mult: 0
  }
  inner_product_param {
    num_output: 46168
    weight_filler {
      type: "uniform"
      min: -0.08
      max: 0.08
    }
    bias_filler {
      type: "constant"
      value: 0
    }
    axis: 2
  }
}
layer {
  name: "probs"
  type: "Softmax"
  bottom: "predict"
  top: "probs"
  softmax_param {
    axis: 2
  }
}
I0804 10:02:30.521518  8917 layer_factory.hpp:77] Creating layer input
I0804 10:02:30.521534  8917 net.cpp:91] Creating Layer input
I0804 10:02:30.521543  8917 net.cpp:399] input -> frames_fc7
I0804 10:02:30.521559  8917 net.cpp:399] input -> cont_sentence
I0804 10:02:30.521570  8917 net.cpp:399] input -> input_sentence
I0804 10:02:30.521579  8917 net.cpp:399] input -> stage_indicator
I0804 10:02:30.526381  8917 net.cpp:141] Setting up input
I0804 10:02:30.526406  8917 net.cpp:148] Top shape: 1 4096 (4096)
I0804 10:02:30.526413  8917 net.cpp:148] Top shape: 1 1 (1)
I0804 10:02:30.526419  8917 net.cpp:148] Top shape: 1 1 (1)
I0804 10:02:30.526424  8917 net.cpp:148] Top shape: 1 1 (1)
I0804 10:02:30.526428  8917 net.cpp:156] Memory required for data: 16396
I0804 10:02:30.526434  8917 layer_factory.hpp:77] Creating layer cont_sentence_input_1_split
I0804 10:02:30.526458  8917 net.cpp:91] Creating Layer cont_sentence_input_1_split
I0804 10:02:30.526468  8917 net.cpp:425] cont_sentence_input_1_split <- cont_sentence
I0804 10:02:30.526495  8917 net.cpp:399] cont_sentence_input_1_split -> cont_sentence_input_1_split_0
I0804 10:02:30.526510  8917 net.cpp:399] cont_sentence_input_1_split -> cont_sentence_input_1_split_1
I0804 10:02:30.527271  8917 net.cpp:141] Setting up cont_sentence_input_1_split
I0804 10:02:30.527288  8917 net.cpp:148] Top shape: 1 1 (1)
I0804 10:02:30.527300  8917 net.cpp:148] Top shape: 1 1 (1)
I0804 10:02:30.527308  8917 net.cpp:156] Memory required for data: 16404
I0804 10:02:30.527314  8917 layer_factory.hpp:77] Creating layer embed_encoder
I0804 10:02:30.527328  8917 net.cpp:91] Creating Layer embed_encoder
I0804 10:02:30.527333  8917 net.cpp:425] embed_encoder <- frames_fc7
I0804 10:02:30.527341  8917 net.cpp:399] embed_encoder -> embedded_in_frames
I0804 10:02:30.552196  8917 net.cpp:141] Setting up embed_encoder
I0804 10:02:30.552234  8917 net.cpp:148] Top shape: 1 500 (500)
I0804 10:02:30.552239  8917 net.cpp:156] Memory required for data: 18404
I0804 10:02:30.552263  8917 layer_factory.hpp:77] Creating layer reshape_frames
I0804 10:02:30.552285  8917 net.cpp:91] Creating Layer reshape_frames
I0804 10:02:30.552292  8917 net.cpp:425] reshape_frames <- embedded_in_frames
I0804 10:02:30.552304  8917 net.cpp:399] reshape_frames -> embedded_input_frames
I0804 10:02:30.557199  8917 net.cpp:141] Setting up reshape_frames
I0804 10:02:30.557226  8917 net.cpp:148] Top shape: 1 1 500 (500)
I0804 10:02:30.557231  8917 net.cpp:156] Memory required for data: 20404
I0804 10:02:30.557245  8917 layer_factory.hpp:77] Creating layer reshape_stage_indicator
I0804 10:02:30.557260  8917 net.cpp:91] Creating Layer reshape_stage_indicator
I0804 10:02:30.557265  8917 net.cpp:425] reshape_stage_indicator <- stage_indicator
I0804 10:02:30.557274  8917 net.cpp:399] reshape_stage_indicator -> reshaped_stage_indicator
I0804 10:02:30.560834  8917 net.cpp:141] Setting up reshape_stage_indicator
I0804 10:02:30.560847  8917 net.cpp:148] Top shape: 1 1 1 (1)
I0804 10:02:30.560853  8917 net.cpp:156] Memory required for data: 20408
I0804 10:02:30.560858  8917 layer_factory.hpp:77] Creating layer embedding
I0804 10:02:30.560871  8917 net.cpp:91] Creating Layer embedding
I0804 10:02:30.560878  8917 net.cpp:425] embedding <- input_sentence
I0804 10:02:30.560885  8917 net.cpp:399] embedding -> embedded_input_sentence
I0804 10:02:30.718000  8927 net.cpp:141] Setting up conv1
I0804 10:02:30.718040  8927 net.cpp:148] Top shape: 10 96 55 55 (2904000)
I0804 10:02:30.718046  8927 net.cpp:156] Memory required for data: 17799480
I0804 10:02:30.718067  8927 layer_factory.hpp:77] Creating layer relu1
I0804 10:02:30.718082  8927 net.cpp:91] Creating Layer relu1
I0804 10:02:30.718089  8927 net.cpp:425] relu1 <- conv1
I0804 10:02:30.718097  8927 net.cpp:386] relu1 -> conv1 (in-place)
I0804 10:02:30.718464  8927 net.cpp:141] Setting up relu1
I0804 10:02:30.718477  8927 net.cpp:148] Top shape: 10 96 55 55 (2904000)
I0804 10:02:30.718482  8927 net.cpp:156] Memory required for data: 29415480
I0804 10:02:30.718487  8927 layer_factory.hpp:77] Creating layer pool1
I0804 10:02:30.718498  8927 net.cpp:91] Creating Layer pool1
I0804 10:02:30.718504  8927 net.cpp:425] pool1 <- conv1
I0804 10:02:30.718511  8927 net.cpp:399] pool1 -> pool1
I0804 10:02:30.718575  8927 net.cpp:141] Setting up pool1
I0804 10:02:30.718585  8927 net.cpp:148] Top shape: 10 96 27 27 (699840)
I0804 10:02:30.718593  8927 net.cpp:156] Memory required for data: 32214840
I0804 10:02:30.718601  8927 layer_factory.hpp:77] Creating layer norm1
I0804 10:02:30.718622  8927 net.cpp:91] Creating Layer norm1
I0804 10:02:30.718631  8927 net.cpp:425] norm1 <- pool1
I0804 10:02:30.718641  8927 net.cpp:399] norm1 -> norm1
I0804 10:02:30.719260  8927 net.cpp:141] Setting up norm1
I0804 10:02:30.719280  8927 net.cpp:148] Top shape: 10 96 27 27 (699840)
I0804 10:02:30.719288  8927 net.cpp:156] Memory required for data: 35014200
I0804 10:02:30.719296  8927 layer_factory.hpp:77] Creating layer conv2
I0804 10:02:30.719321  8927 net.cpp:91] Creating Layer conv2
I0804 10:02:30.719332  8927 net.cpp:425] conv2 <- norm1
I0804 10:02:30.719352  8927 net.cpp:399] conv2 -> conv2
I0804 10:02:30.723143  8927 net.cpp:141] Setting up conv2
I0804 10:02:30.723162  8927 net.cpp:148] Top shape: 10 256 27 27 (1866240)
I0804 10:02:30.723167  8927 net.cpp:156] Memory required for data: 42479160
I0804 10:02:30.723181  8927 layer_factory.hpp:77] Creating layer relu2
I0804 10:02:30.723191  8927 net.cpp:91] Creating Layer relu2
I0804 10:02:30.723196  8927 net.cpp:425] relu2 <- conv2
I0804 10:02:30.723207  8927 net.cpp:386] relu2 -> conv2 (in-place)
I0804 10:02:30.723688  8927 net.cpp:141] Setting up relu2
I0804 10:02:30.723707  8927 net.cpp:148] Top shape: 10 256 27 27 (1866240)
I0804 10:02:30.723716  8927 net.cpp:156] Memory required for data: 49944120
I0804 10:02:30.723724  8927 layer_factory.hpp:77] Creating layer pool2
I0804 10:02:30.723737  8927 net.cpp:91] Creating Layer pool2
I0804 10:02:30.723745  8927 net.cpp:425] pool2 <- conv2
I0804 10:02:30.723762  8927 net.cpp:399] pool2 -> pool2
I0804 10:02:30.723855  8927 net.cpp:141] Setting up pool2
I0804 10:02:30.723872  8927 net.cpp:148] Top shape: 10 256 13 13 (432640)
I0804 10:02:30.723881  8927 net.cpp:156] Memory required for data: 51674680
I0804 10:02:30.723889  8927 layer_factory.hpp:77] Creating layer norm2
I0804 10:02:30.723912  8927 net.cpp:91] Creating Layer norm2
I0804 10:02:30.723922  8927 net.cpp:425] norm2 <- pool2
I0804 10:02:30.723933  8927 net.cpp:399] norm2 -> norm2
I0804 10:02:30.724331  8927 net.cpp:141] Setting up norm2
I0804 10:02:30.724349  8927 net.cpp:148] Top shape: 10 256 13 13 (432640)
I0804 10:02:30.724359  8927 net.cpp:156] Memory required for data: 53405240
I0804 10:02:30.724367  8927 layer_factory.hpp:77] Creating layer conv3
I0804 10:02:30.724390  8927 net.cpp:91] Creating Layer conv3
I0804 10:02:30.724400  8927 net.cpp:425] conv3 <- norm2
I0804 10:02:30.724414  8927 net.cpp:399] conv3 -> conv3
I0804 10:02:30.728616  8927 net.cpp:141] Setting up conv3
I0804 10:02:30.728638  8927 net.cpp:148] Top shape: 10 384 13 13 (648960)
I0804 10:02:30.728644  8927 net.cpp:156] Memory required for data: 56001080
I0804 10:02:30.728664  8927 layer_factory.hpp:77] Creating layer relu3
I0804 10:02:30.728677  8927 net.cpp:91] Creating Layer relu3
I0804 10:02:30.728683  8927 net.cpp:425] relu3 <- conv3
I0804 10:02:30.728695  8927 net.cpp:386] relu3 -> conv3 (in-place)
I0804 10:02:30.729198  8927 net.cpp:141] Setting up relu3
I0804 10:02:30.729217  8927 net.cpp:148] Top shape: 10 384 13 13 (648960)
I0804 10:02:30.729225  8927 net.cpp:156] Memory required for data: 58596920
I0804 10:02:30.729234  8927 layer_factory.hpp:77] Creating layer conv4
I0804 10:02:30.729264  8927 net.cpp:91] Creating Layer conv4
I0804 10:02:30.729274  8927 net.cpp:425] conv4 <- conv3
I0804 10:02:30.729287  8927 net.cpp:399] conv4 -> conv4
I0804 10:02:30.733558  8927 net.cpp:141] Setting up conv4
I0804 10:02:30.733582  8927 net.cpp:148] Top shape: 10 384 13 13 (648960)
I0804 10:02:30.733588  8927 net.cpp:156] Memory required for data: 61192760
I0804 10:02:30.733598  8927 layer_factory.hpp:77] Creating layer relu4
I0804 10:02:30.733608  8927 net.cpp:91] Creating Layer relu4
I0804 10:02:30.733613  8927 net.cpp:425] relu4 <- conv4
I0804 10:02:30.733623  8927 net.cpp:386] relu4 -> conv4 (in-place)
I0804 10:02:30.734050  8927 net.cpp:141] Setting up relu4
I0804 10:02:30.734074  8927 net.cpp:148] Top shape: 10 384 13 13 (648960)
I0804 10:02:30.734083  8927 net.cpp:156] Memory required for data: 63788600
I0804 10:02:30.734092  8927 layer_factory.hpp:77] Creating layer conv5
I0804 10:02:30.734112  8927 net.cpp:91] Creating Layer conv5
I0804 10:02:30.734120  8927 net.cpp:425] conv5 <- conv4
I0804 10:02:30.734133  8927 net.cpp:399] conv5 -> conv5
I0804 10:02:30.738250  8927 net.cpp:141] Setting up conv5
I0804 10:02:30.738270  8927 net.cpp:148] Top shape: 10 256 13 13 (432640)
I0804 10:02:30.738275  8927 net.cpp:156] Memory required for data: 65519160
I0804 10:02:30.738291  8927 layer_factory.hpp:77] Creating layer relu5
I0804 10:02:30.738299  8927 net.cpp:91] Creating Layer relu5
I0804 10:02:30.738304  8927 net.cpp:425] relu5 <- conv5
I0804 10:02:30.738311  8927 net.cpp:386] relu5 -> conv5 (in-place)
I0804 10:02:30.738790  8927 net.cpp:141] Setting up relu5
I0804 10:02:30.738811  8927 net.cpp:148] Top shape: 10 256 13 13 (432640)
I0804 10:02:30.738821  8927 net.cpp:156] Memory required for data: 67249720
I0804 10:02:30.738831  8927 layer_factory.hpp:77] Creating layer pool5
I0804 10:02:30.738844  8927 net.cpp:91] Creating Layer pool5
I0804 10:02:30.738853  8927 net.cpp:425] pool5 <- conv5
I0804 10:02:30.738864  8927 net.cpp:399] pool5 -> pool5
I0804 10:02:30.738956  8927 net.cpp:141] Setting up pool5
I0804 10:02:30.738972  8927 net.cpp:148] Top shape: 10 256 6 6 (92160)
I0804 10:02:30.738979  8927 net.cpp:156] Memory required for data: 67618360
I0804 10:02:30.738988  8927 layer_factory.hpp:77] Creating layer fc6
I0804 10:02:30.739013  8927 net.cpp:91] Creating Layer fc6
I0804 10:02:30.739024  8927 net.cpp:425] fc6 <- pool5
I0804 10:02:30.739037  8927 net.cpp:399] fc6 -> fc6
I0804 10:02:30.803704  8917 net.cpp:141] Setting up embedding
I0804 10:02:30.803747  8917 net.cpp:148] Top shape: 1 1 500 (500)
I0804 10:02:30.803753  8917 net.cpp:156] Memory required for data: 22408
I0804 10:02:30.803772  8917 layer_factory.hpp:77] Creating layer lstm1
I0804 10:02:30.803794  8917 net.cpp:91] Creating Layer lstm1
I0804 10:02:30.803802  8917 net.cpp:425] lstm1 <- embedded_input_frames
I0804 10:02:30.803812  8917 net.cpp:425] lstm1 <- cont_sentence_input_1_split_0
I0804 10:02:30.803822  8917 net.cpp:399] lstm1 -> lstm1
I0804 10:02:30.803846  8917 recurrent_layer.cpp:20] Initializing recurrent layer: assuming input batch contains 1 timesteps of 1 independent streams.
I0804 10:02:30.804178  8917 net.cpp:49] Initializing net from parameters: 
layer {
  name: "lstm1_"
  type: "Input"
  top: "x"
  top: "cont"
  input_param {
    shape {
      dim: 1
      dim: 1
      dim: 500
    }
    shape {
      dim: 1
      dim: 1
    }
  }
}
layer {
  name: "lstm1_"
  type: "Input"
  top: "c_0"
  top: "h_0"
  input_param {
    shape {
      dim: 1
      dim: 1
      dim: 1000
    }
    shape {
      dim: 1
      dim: 1
      dim: 1000
    }
  }
}
layer {
  name: "lstm1_cont_slice"
  type: "Slice"
  bottom: "cont"
  top: "cont_1"
  slice_param {
    axis: 0
  }
}
layer {
  name: "lstm1_x_transform"
  type: "InnerProduct"
  bottom: "x"
  top: "W_xc_x"
  param {
    name: "W_xc"
  }
  param {
    name: "b_c"
  }
  propagate_down: true
  inner_product_param {
    num_output: 4000
    bias_term: true
    weight_filler {
      type: "uniform"
      min: -0.08
      max: 0.08
    }
    bias_filler {
      type: "constant"
      value: 0
    }
    axis: 2
  }
}
layer {
  name: "lstm1_W_xc_x_slice"
  type: "Slice"
  bottom: "W_xc_x"
  top: "W_xc_x_1"
  slice_param {
    axis: 0
  }
}
layer {
  name: "lstm1_h_conted_0"
  type: "Scale"
  bottom: "h_0"
  bottom: "cont_1"
  top: "h_conted_0"
  scale_param {
    axis: 0
  }
}
layer {
  name: "lstm1_transform_1"
  type: "InnerProduct"
  bottom: "h_conted_0"
  top: "W_hc_h_0"
  param {
    name: "W_hc"
  }
  inner_product_param {
    num_output: 4000
    bias_term: false
    weight_filler {
      type: "uniform"
      min: -0.08
      max: 0.08
    }
    axis: 2
  }
}
layer {
  name: "lstm1_gate_input_1"
  type: "Eltwise"
  bottom: "W_hc_h_0"
  bottom: "W_xc_x_1"
  top: "gate_input_1"
  eltwise_param {
    operation: SUM
  }
}
layer {
  name: "lstm1_unit_1"
  type: "LSTMUnit"
  bottom: "c_0"
  bottom: "gate_input_1"
  bottom: "cont_1"
  top: "c_1"
  top: "h_1"
}
layer {
  name: "lstm1_"
  type: "Split"
  bottom: "c_1"
  top: "c_T"
}
layer {
  name: "lstm1_h_concat"
  type: "Concat"
  bottom: "h_1"
  top: "h"
  concat_param {
    axis: 0
  }
}
layer {
  name: "h_pseudoloss"
  type: "Reduction"
  bottom: "h"
  top: "h_pseudoloss"
  loss_weight: 1
}
I0804 10:02:30.804270  8917 layer_factory.hpp:77] Creating layer lstm1_
I0804 10:02:30.804282  8917 net.cpp:91] Creating Layer lstm1_
I0804 10:02:30.804289  8917 net.cpp:399] lstm1_ -> x
I0804 10:02:30.804301  8917 net.cpp:399] lstm1_ -> cont
I0804 10:02:30.804373  8917 net.cpp:141] Setting up lstm1_
I0804 10:02:30.804383  8917 net.cpp:148] Top shape: 1 1 500 (500)
I0804 10:02:30.804388  8917 net.cpp:148] Top shape: 1 1 (1)
I0804 10:02:30.804392  8917 net.cpp:156] Memory required for data: 2004
I0804 10:02:30.804397  8917 layer_factory.hpp:77] Creating layer lstm1_
I0804 10:02:30.804409  8917 net.cpp:91] Creating Layer lstm1_
I0804 10:02:30.804416  8917 net.cpp:399] lstm1_ -> c_0
I0804 10:02:30.804426  8917 net.cpp:399] lstm1_ -> h_0
I0804 10:02:30.804476  8917 net.cpp:141] Setting up lstm1_
I0804 10:02:30.804487  8917 net.cpp:148] Top shape: 1 1 1000 (1000)
I0804 10:02:30.804493  8917 net.cpp:148] Top shape: 1 1 1000 (1000)
I0804 10:02:30.804497  8917 net.cpp:156] Memory required for data: 10004
I0804 10:02:30.804502  8917 layer_factory.hpp:77] Creating layer lstm1_cont_slice
I0804 10:02:30.804510  8917 net.cpp:91] Creating Layer lstm1_cont_slice
I0804 10:02:30.804514  8917 net.cpp:425] lstm1_cont_slice <- cont
I0804 10:02:30.804522  8917 net.cpp:399] lstm1_cont_slice -> cont_1
I0804 10:02:30.804559  8917 net.cpp:141] Setting up lstm1_cont_slice
I0804 10:02:30.804569  8917 net.cpp:148] Top shape: 1 1 (1)
I0804 10:02:30.804572  8917 net.cpp:156] Memory required for data: 10008
I0804 10:02:30.804576  8917 layer_factory.hpp:77] Creating layer cont_1_lstm1_cont_slice_0_split
I0804 10:02:30.804584  8917 net.cpp:91] Creating Layer cont_1_lstm1_cont_slice_0_split
I0804 10:02:30.804589  8917 net.cpp:425] cont_1_lstm1_cont_slice_0_split <- cont_1
I0804 10:02:30.804597  8917 net.cpp:399] cont_1_lstm1_cont_slice_0_split -> cont_1_lstm1_cont_slice_0_split_0
I0804 10:02:30.804605  8917 net.cpp:399] cont_1_lstm1_cont_slice_0_split -> cont_1_lstm1_cont_slice_0_split_1
I0804 10:02:30.804654  8917 net.cpp:141] Setting up cont_1_lstm1_cont_slice_0_split
I0804 10:02:30.804662  8917 net.cpp:148] Top shape: 1 1 (1)
I0804 10:02:30.804668  8917 net.cpp:148] Top shape: 1 1 (1)
I0804 10:02:30.804672  8917 net.cpp:156] Memory required for data: 10016
I0804 10:02:30.804677  8917 layer_factory.hpp:77] Creating layer lstm1_x_transform
I0804 10:02:30.804687  8917 net.cpp:91] Creating Layer lstm1_x_transform
I0804 10:02:30.804692  8917 net.cpp:425] lstm1_x_transform <- x
I0804 10:02:30.804700  8917 net.cpp:399] lstm1_x_transform -> W_xc_x
I0804 10:02:30.824905  8917 net.cpp:141] Setting up lstm1_x_transform
I0804 10:02:30.824947  8917 net.cpp:148] Top shape: 1 1 4000 (4000)
I0804 10:02:30.824952  8917 net.cpp:156] Memory required for data: 26016
I0804 10:02:30.824972  8917 layer_factory.hpp:77] Creating layer lstm1_W_xc_x_slice
I0804 10:02:30.824986  8917 net.cpp:91] Creating Layer lstm1_W_xc_x_slice
I0804 10:02:30.824993  8917 net.cpp:425] lstm1_W_xc_x_slice <- W_xc_x
I0804 10:02:30.825002  8917 net.cpp:399] lstm1_W_xc_x_slice -> W_xc_x_1
I0804 10:02:30.825047  8917 net.cpp:141] Setting up lstm1_W_xc_x_slice
I0804 10:02:30.825057  8917 net.cpp:148] Top shape: 1 1 4000 (4000)
I0804 10:02:30.825062  8917 net.cpp:156] Memory required for data: 42016
I0804 10:02:30.825067  8917 layer_factory.hpp:77] Creating layer lstm1_h_conted_0
I0804 10:02:30.825076  8917 net.cpp:91] Creating Layer lstm1_h_conted_0
I0804 10:02:30.825081  8917 net.cpp:425] lstm1_h_conted_0 <- h_0
I0804 10:02:30.825086  8917 net.cpp:425] lstm1_h_conted_0 <- cont_1_lstm1_cont_slice_0_split_0
I0804 10:02:30.825093  8917 net.cpp:399] lstm1_h_conted_0 -> h_conted_0
I0804 10:02:30.825181  8917 net.cpp:141] Setting up lstm1_h_conted_0
I0804 10:02:30.825191  8917 net.cpp:148] Top shape: 1 1 1000 (1000)
I0804 10:02:30.825194  8917 net.cpp:156] Memory required for data: 46016
I0804 10:02:30.825198  8917 layer_factory.hpp:77] Creating layer lstm1_transform_1
I0804 10:02:30.825211  8917 net.cpp:91] Creating Layer lstm1_transform_1
I0804 10:02:30.825214  8917 net.cpp:425] lstm1_transform_1 <- h_conted_0
I0804 10:02:30.825223  8917 net.cpp:399] lstm1_transform_1 -> W_hc_h_0
I0804 10:02:30.844288  8927 net.cpp:141] Setting up fc6
I0804 10:02:30.844334  8927 net.cpp:148] Top shape: 10 4096 (40960)
I0804 10:02:30.844341  8927 net.cpp:156] Memory required for data: 67782200
I0804 10:02:30.844353  8927 layer_factory.hpp:77] Creating layer relu6
I0804 10:02:30.844367  8927 net.cpp:91] Creating Layer relu6
I0804 10:02:30.844373  8927 net.cpp:425] relu6 <- fc6
I0804 10:02:30.844385  8927 net.cpp:386] relu6 -> fc6 (in-place)
I0804 10:02:30.844691  8927 net.cpp:141] Setting up relu6
I0804 10:02:30.844702  8927 net.cpp:148] Top shape: 10 4096 (40960)
I0804 10:02:30.844707  8927 net.cpp:156] Memory required for data: 67946040
I0804 10:02:30.844712  8927 layer_factory.hpp:77] Creating layer drop6
I0804 10:02:30.844724  8927 net.cpp:91] Creating Layer drop6
I0804 10:02:30.844729  8927 net.cpp:425] drop6 <- fc6
I0804 10:02:30.844736  8927 net.cpp:386] drop6 -> fc6 (in-place)
I0804 10:02:30.844792  8927 net.cpp:141] Setting up drop6
I0804 10:02:30.844801  8927 net.cpp:148] Top shape: 10 4096 (40960)
I0804 10:02:30.844805  8927 net.cpp:156] Memory required for data: 68109880
I0804 10:02:30.844810  8927 layer_factory.hpp:77] Creating layer fc7
I0804 10:02:30.844825  8927 net.cpp:91] Creating Layer fc7
I0804 10:02:30.844830  8927 net.cpp:425] fc7 <- fc6
I0804 10:02:30.844840  8927 net.cpp:399] fc7 -> fc7
I0804 10:02:30.874428  8917 net.cpp:141] Setting up lstm1_transform_1
I0804 10:02:30.874481  8917 net.cpp:148] Top shape: 1 1 4000 (4000)
I0804 10:02:30.874487  8917 net.cpp:156] Memory required for data: 62016
I0804 10:02:30.874510  8917 layer_factory.hpp:77] Creating layer lstm1_gate_input_1
I0804 10:02:30.874527  8917 net.cpp:91] Creating Layer lstm1_gate_input_1
I0804 10:02:30.874534  8917 net.cpp:425] lstm1_gate_input_1 <- W_hc_h_0
I0804 10:02:30.874542  8917 net.cpp:425] lstm1_gate_input_1 <- W_xc_x_1
I0804 10:02:30.874550  8917 net.cpp:399] lstm1_gate_input_1 -> gate_input_1
I0804 10:02:30.874615  8917 net.cpp:141] Setting up lstm1_gate_input_1
I0804 10:02:30.874625  8917 net.cpp:148] Top shape: 1 1 4000 (4000)
I0804 10:02:30.874629  8917 net.cpp:156] Memory required for data: 78016
I0804 10:02:30.874634  8917 layer_factory.hpp:77] Creating layer lstm1_unit_1
I0804 10:02:30.874644  8917 net.cpp:91] Creating Layer lstm1_unit_1
I0804 10:02:30.874650  8917 net.cpp:425] lstm1_unit_1 <- c_0
I0804 10:02:30.874655  8917 net.cpp:425] lstm1_unit_1 <- gate_input_1
I0804 10:02:30.874660  8917 net.cpp:425] lstm1_unit_1 <- cont_1_lstm1_cont_slice_0_split_1
I0804 10:02:30.874667  8917 net.cpp:399] lstm1_unit_1 -> c_1
I0804 10:02:30.874675  8917 net.cpp:399] lstm1_unit_1 -> h_1
I0804 10:02:30.874737  8917 net.cpp:141] Setting up lstm1_unit_1
I0804 10:02:30.874747  8917 net.cpp:148] Top shape: 1 1 1000 (1000)
I0804 10:02:30.874753  8917 net.cpp:148] Top shape: 1 1 1000 (1000)
I0804 10:02:30.874758  8917 net.cpp:156] Memory required for data: 86016
I0804 10:02:30.874761  8917 layer_factory.hpp:77] Creating layer lstm1_
I0804 10:02:30.874769  8917 net.cpp:91] Creating Layer lstm1_
I0804 10:02:30.874774  8917 net.cpp:425] lstm1_ <- c_1
I0804 10:02:30.874780  8917 net.cpp:399] lstm1_ -> c_T
I0804 10:02:30.874811  8917 net.cpp:141] Setting up lstm1_
I0804 10:02:30.874819  8917 net.cpp:148] Top shape: 1 1 1000 (1000)
I0804 10:02:30.874824  8917 net.cpp:156] Memory required for data: 90016
I0804 10:02:30.874827  8917 layer_factory.hpp:77] Creating layer lstm1_h_concat
I0804 10:02:30.874847  8917 net.cpp:91] Creating Layer lstm1_h_concat
I0804 10:02:30.874853  8917 net.cpp:425] lstm1_h_concat <- h_1
I0804 10:02:30.874860  8917 net.cpp:399] lstm1_h_concat -> h
I0804 10:02:30.874897  8917 net.cpp:141] Setting up lstm1_h_concat
I0804 10:02:30.874904  8917 net.cpp:148] Top shape: 1 1 1000 (1000)
I0804 10:02:30.874908  8917 net.cpp:156] Memory required for data: 94016
I0804 10:02:30.874913  8917 layer_factory.hpp:77] Creating layer h_pseudoloss
I0804 10:02:30.874922  8917 net.cpp:91] Creating Layer h_pseudoloss
I0804 10:02:30.874927  8917 net.cpp:425] h_pseudoloss <- h
I0804 10:02:30.874934  8917 net.cpp:399] h_pseudoloss -> h_pseudoloss
I0804 10:02:30.875020  8917 net.cpp:141] Setting up h_pseudoloss
…
I0804 10:02:30.875135  8917 net.cpp:219] lstm1_ does not need backward computation.
I0804 10:02:30.875138  8917 net.cpp:261] This network produces output c_T
I0804 10:02:30.875144  8917 net.cpp:261] This network produces output h_pseudoloss
I0804 10:02:30.875161  8917 net.cpp:274] Network initialization done.
I0804 10:02:30.875218  8917 recurrent_layer.cpp:150] Adding parameter 0: W_xc
I0804 10:02:30.875226  8917 recurrent_layer.cpp:150] Adding parameter 1: b_c
I0804 10:02:30.875229  8917 recurrent_layer.cpp:150] Adding parameter 2: W_hc
I0804 10:02:30.875336  8917 net.cpp:141] Setting up lstm1
I0804 10:02:30.875349  8917 net.cpp:148] Top shape: 1 1 1000 (1000)
I0804 10:02:30.875352  8917 net.cpp:156] Memory required for data: 26408
I0804 10:02:30.875365  8917 layer_factory.hpp:77] Creating layer concat
I0804 10:02:30.875373  8917 net.cpp:91] Creating Layer concat
I0804 10:02:30.875378  8917 net.cpp:425] concat <- lstm1
I0804 10:02:30.875385  8917 net.cpp:425] concat <- embedded_input_sentence
I0804 10:02:30.875391  8917 net.cpp:425] concat <- reshaped_stage_indicator
I0804 10:02:30.875397  8917 net.cpp:399] concat -> lstm1_video_sequence
I0804 10:02:30.875430  8917 net.cpp:141] Setting up concat
I0804 10:02:30.875439  8917 net.cpp:148] Top shape: 1 1 1501 (1501)
I0804 10:02:30.875443  8917 net.cpp:156] Memory required for data: 32412
I0804 10:02:30.875448  8917 layer_factory.hpp:77] Creating layer lstm2
I0804 10:02:30.875459  8917 net.cpp:91] Creating Layer lstm2
I0804 10:02:30.875465  8917 net.cpp:425] lstm2 <- lstm1_video_sequence
I0804 10:02:30.875471  8917 net.cpp:425] lstm2 <- cont_sentence_input_1_split_1
I0804 10:02:30.875478  8917 net.cpp:399] lstm2 -> lstm2
I0804 10:02:30.875489  8917 recurrent_layer.cpp:20] Initializing recurrent layer: assuming input batch contains 1 timesteps of 1 independent streams.
I0804 10:02:30.875721  8917 net.cpp:49] Initializing net from parameters: 
layer {
  name: "lstm2_"
  type: "Input"
  top: "x"
  top: "cont"
  input_param {
    shape {
      dim: 1
      dim: 1
      dim: 1501
    }
    shape {
      dim: 1
      dim: 1
    }
  }
}
layer {
  name: "lstm2_"
  type: "Input"
  top: "c_0"
  top: "h_0"
  input_param {
    shape {
      dim: 1
      dim: 1
      dim: 1000
    }
    shape {
      dim: 1
      dim: 1
      dim: 1000
    }
  }
}
layer {
  name: "lstm2_cont_slice"
  type: "Slice"
  bottom: "cont"
  top: "cont_1"
  slice_param {
    axis: 0
  }
}
layer {
  name: "lstm2_x_transform"
  type: "InnerProduct"
  bottom: "x"
  top: "W_xc_x"
  param {
    name: "W_xc"
  }
  param {
    name: "b_c"
  }
  propagate_down: true
  inner_product_param {
    num_output: 4000
    bias_term: true
    weight_filler {
      type: "uniform"
      min: -0.08
      max: 0.08
    }
    bias_filler {
      type: "constant"
      value: 0
    }
    axis: 2
  }
}
layer {
  name: "lstm2_W_xc_x_slice"
  type: "Slice"
  bottom: "W_xc_x"
  top: "W_xc_x_1"
  slice_param {
    axis: 0
  }
}
layer {
  name: "lstm2_h_conted_0"
  type: "Scale"
  bottom: "h_0"
  bottom: "cont_1"
  top: "h_conted_0"
  scale_param {
    axis: 0
  }
}
layer {
  name: "lstm2_transform_1"
  type: "InnerProduct"
  bottom: "h_conted_0"
  top: "W_hc_h_0"
  param {
    name: "W_hc"
  }
  inner_product_param {
    num_output: 4000
    bias_term: false
    weight_filler {
      type: "uniform"
      min: -0.08
      max: 0.08
    }
    axis: 2
  }
}
layer {
  name: "lstm2_gate_input_1"
  type: "Eltwise"
  bottom: "W_hc_h_0"
  bottom: "W_xc_x_1"
  top: "gate_input_1"
  eltwise_param {
    operation: SUM
  }
}
layer {
  name: "lstm2_unit_1"
  type: "LSTMUnit"
  bottom: "c_0"
  bottom: "gate_input_1"
  bottom: "cont_1"
  top: "c_1"
  top: "h_1"
}
layer {
  name: "lstm2_"
  type: "Split"
  bottom: "c_1"
  top: "c_T"
}
layer {
  name: "lstm2_h_concat"
  type: "Concat"
  bottom: "h_1"
  top: "h"
  concat_param {
    axis: 0
  }
}
layer {
  name: "h_pseudoloss"
  type: "Reduction"
  bottom: "h"
  top: "h_pseudoloss"
  loss_weight: 1
}
I0804 10:02:30.875807  8917 layer_factory.hpp:77] Creating layer lstm2_
I0804 10:02:30.875818  8917 net.cpp:91] Creating Layer lstm2_
I0804 10:02:30.875824  8917 net.cpp:399] lstm2_ -> x
I0804 10:02:30.875834  8917 net.cpp:399] lstm2_ -> cont
I0804 10:02:30.875887  8917 net.cpp:141] Setting up lstm2_
I0804 10:02:30.875896  8917 net.cpp:148] Top shape: 1 1 1501 (1501)
I0804 10:02:30.875902  8917 net.cpp:148] Top shape: 1 1 (1)
I0804 10:02:30.875906  8917 net.cpp:156] Memory required for data: 6008
I0804 10:02:30.875911  8917 layer_factory.hpp:77] Creating layer lstm2_
I0804 10:02:30.875919  8917 net.cpp:91] Creating Layer lstm2_
I0804 10:02:30.875926  8917 net.cpp:399] lstm2_ -> c_0
I0804 10:02:30.875934  8917 net.cpp:399] lstm2_ -> h_0
I0804 10:02:30.875982  8917 net.cpp:141] Setting up lstm2_
I0804 10:02:30.875991  8917 net.cpp:148] Top shape: 1 1 1000 (1000)
I0804 10:02:30.875998  8917 net.cpp:148] Top shape: 1 1 1000 (1000)
I0804 10:02:30.876001  8917 net.cpp:156] Memory required for data: 14008
I0804 10:02:30.876005  8917 layer_factory.hpp:77] Creating layer lstm2_cont_slice
I0804 10:02:30.876013  8917 net.cpp:91] Creating Layer lstm2_cont_slice
I0804 10:02:30.876019  8917 net.cpp:425] lstm2_cont_slice <- cont
I0804 10:02:30.876027  8917 net.cpp:399] lstm2_cont_slice -> cont_1
I0804 10:02:30.876058  8917 net.cpp:141] Setting up lstm2_cont_slice
I0804 10:02:30.876066  8917 net.cpp:148] Top shape: 1 1 (1)
I0804 10:02:30.876070  8917 net.cpp:156] Memory required for data: 14012
I0804 10:02:30.876075  8917 layer_factory.hpp:77] Creating layer cont_1_lstm2_cont_slice_0_split
I0804 10:02:30.876081  8917 net.cpp:91] Creating Layer cont_1_lstm2_cont_slice_0_split
I0804 10:02:30.876085  8917 net.cpp:425] cont_1_lstm2_cont_slice_0_split <- cont_1
I0804 10:02:30.876091  8917 net.cpp:399] cont_1_lstm2_cont_slice_0_split -> cont_1_lstm2_cont_slice_0_split_0
I0804 10:02:30.876099  8917 net.cpp:399] cont_1_lstm2_cont_slice_0_split -> cont_1_lstm2_cont_slice_0_split_1
I0804 10:02:30.876144  8917 net.cpp:141] Setting up cont_1_lstm2_cont_slice_0_split
I0804 10:02:30.876152  8917 net.cpp:148] Top shape: 1 1 (1)
I0804 10:02:30.876158  8917 net.cpp:148] Top shape: 1 1 (1)
I0804 10:02:30.876163  8917 net.cpp:156] Memory required for data: 14020
I0804 10:02:30.876166  8917 layer_factory.hpp:77] Creating layer lstm2_x_transform
I0804 10:02:30.876178  8917 net.cpp:91] Creating Layer lstm2_x_transform
I0804 10:02:30.876183  8917 net.cpp:425] lstm2_x_transform <- x
I0804 10:02:30.876190  8917 net.cpp:399] lstm2_x_transform -> W_xc_x
I0804 10:02:30.892963  8927 net.cpp:141] Setting up fc7
I0804 10:02:30.893007  8927 net.cpp:148] Top shape: 10 4096 (40960)
I0804 10:02:30.893016  8927 net.cpp:156] Memory required for data: 68273720
I0804 10:02:30.893035  8927 layer_factory.hpp:77] Creating layer relu7
I0804 10:02:30.893054  8927 net.cpp:91] Creating Layer relu7
I0804 10:02:30.893065  8927 net.cpp:425] relu7 <- fc7
I0804 10:02:30.893086  8927 net.cpp:386] relu7 -> fc7 (in-place)
I0804 10:02:30.893802  8927 net.cpp:141] Setting up relu7
I0804 10:02:30.893816  8927 net.cpp:148] Top shape: 10 4096 (40960)
I0804 10:02:30.893821  8927 net.cpp:156] Memory required for data: 68437560
I0804 10:02:30.893826  8927 layer_factory.hpp:77] Creating layer drop7
I0804 10:02:30.893836  8927 net.cpp:91] Creating Layer drop7
I0804 10:02:30.893841  8927 net.cpp:425] drop7 <- fc7
I0804 10:02:30.893852  8927 net.cpp:386] drop7 -> fc7 (in-place)
I0804 10:02:30.893892  8927 net.cpp:141] Setting up drop7
I0804 10:02:30.893903  8927 net.cpp:148] Top shape: 10 4096 (40960)
I0804 10:02:30.893908  8927 net.cpp:156] Memory required for data: 68601400
I0804 10:02:30.893913  8927 layer_factory.hpp:77] Creating layer fc8
I0804 10:02:30.893925  8927 net.cpp:91] Creating Layer fc8
I0804 10:02:30.893930  8927 net.cpp:425] fc8 <- fc7
I0804 10:02:30.893937  8927 net.cpp:399] fc8 -> fc8
I0804 10:02:30.907596  8927 net.cpp:141] Setting up fc8
I0804 10:02:30.907639  8927 net.cpp:148] Top shape: 10 1000 (10000)
I0804 10:02:30.907645  8927 net.cpp:156] Memory required for data: 68641400
I0804 10:02:30.907657  8927 layer_factory.hpp:77] Creating layer prob
I0804 10:02:30.907671  8927 net.cpp:91] Creating Layer prob
I0804 10:02:30.907677  8927 net.cpp:425] prob <- fc8
I0804 10:02:30.907691  8927 net.cpp:399] prob -> prob
I0804 10:02:30.908089  8927 net.cpp:141] Setting up prob
I0804 10:02:30.908102  8927 net.cpp:148] Top shape: 10 1000 (10000)
I0804 10:02:30.908107  8927 net.cpp:156] Memory required for data: 68681400
I0804 10:02:30.908112  8927 net.cpp:219] prob does not need backward computation.
I0804 10:02:30.908116  8927 net.cpp:219] fc8 does not need backward computation.
I0804 10:02:30.908120  8927 net.cpp:219] drop7 does not need backward computation.
I0804 10:02:30.908124  8927 net.cpp:219] relu7 does not need backward computation.
…
I0804 10:02:30.908195  8927 net.cpp:219] norm1 does not need backward computation.
I0804 10:02:30.908200  8927 net.cpp:219] pool1 does not need backward computation.
I0804 10:02:30.908205  8927 net.cpp:219] relu1 does not need backward computation.
I0804 10:02:30.908210  8927 net.cpp:219] conv1 does not need backward computation.
I0804 10:02:30.908213  8927 net.cpp:219] data does not need backward computation.
I0804 10:02:30.908219  8927 net.cpp:261] This network produces output prob
I0804 10:02:30.908246  8927 net.cpp:274] Network initialization done.
I0804 10:02:30.934763  8917 net.cpp:141] Setting up lstm2_x_transform
I0804 10:02:30.934804  8917 net.cpp:148] Top shape: 1 1 4000 (4000)
I0804 10:02:30.934810  8917 net.cpp:156] Memory required for data: 30020
I0804 10:02:30.934828  8917 layer_factory.hpp:77] Creating layer lstm2_W_xc_x_slice
I0804 10:02:30.934842  8917 net.cpp:91] Creating Layer lstm2_W_xc_x_slice
I0804 10:02:30.934849  8917 net.cpp:425] lstm2_W_xc_x_slice <- W_xc_x
I0804 10:02:30.934857  8917 net.cpp:399] lstm2_W_xc_x_slice -> W_xc_x_1
I0804 10:02:30.934901  8917 net.cpp:141] Setting up lstm2_W_xc_x_slice
I0804 10:02:30.934911  8917 net.cpp:148] Top shape: 1 1 4000 (4000)
I0804 10:02:30.934916  8917 net.cpp:156] Memory required for data: 46020
I0804 10:02:30.934921  8917 layer_factory.hpp:77] Creating layer lstm2_h_conted_0
I0804 10:02:30.934929  8917 net.cpp:91] Creating Layer lstm2_h_conted_0
I0804 10:02:30.934934  8917 net.cpp:425] lstm2_h_conted_0 <- h_0
I0804 10:02:30.934940  8917 net.cpp:425] lstm2_h_conted_0 <- cont_1_lstm2_cont_slice_0_split_0
I0804 10:02:30.934947  8917 net.cpp:399] lstm2_h_conted_0 -> h_conted_0
I0804 10:02:30.935036  8917 net.cpp:141] Setting up lstm2_h_conted_0
I0804 10:02:30.935046  8917 net.cpp:148] Top shape: 1 1 1000 (1000)
I0804 10:02:30.935050  8917 net.cpp:156] Memory required for data: 50020
I0804 10:02:30.935055  8917 layer_factory.hpp:77] Creating layer lstm2_transform_1
I0804 10:02:30.935065  8917 net.cpp:91] Creating Layer lstm2_transform_1
I0804 10:02:30.935070  8917 net.cpp:425] lstm2_transform_1 <- h_conted_0
I0804 10:02:30.935081  8917 net.cpp:399] lstm2_transform_1 -> W_hc_h_0
I0804 10:02:30.973541  8917 net.cpp:141] Setting up lstm2_transform_1
I0804 10:02:30.973595  8917 net.cpp:148] Top shape: 1 1 4000 (4000)
I0804 10:02:30.973605  8917 net.cpp:156] Memory required for data: 66020
I0804 10:02:30.973637  8917 layer_factory.hpp:77] Creating layer lstm2_gate_input_1
I0804 10:02:30.973661  8917 net.cpp:91] Creating Layer lstm2_gate_input_1
I0804 10:02:30.973669  8917 net.cpp:425] lstm2_gate_input_1 <- W_hc_h_0
I0804 10:02:30.973678  8917 net.cpp:425] lstm2_gate_input_1 <- W_xc_x_1
I0804 10:02:30.973691  8917 net.cpp:399] lstm2_gate_input_1 -> gate_input_1
I0804 10:02:30.973774  8917 net.cpp:141] Setting up lstm2_gate_input_1
I0804 10:02:30.973786  8917 net.cpp:148] Top shape: 1 1 4000 (4000)
I0804 10:02:30.973790  8917 net.cpp:156] Memory required for data: 82020
I0804 10:02:30.973795  8917 layer_factory.hpp:77] Creating layer lstm2_unit_1
I0804 10:02:30.973809  8917 net.cpp:91] Creating Layer lstm2_unit_1
I0804 10:02:30.973815  8917 net.cpp:425] lstm2_unit_1 <- c_0
I0804 10:02:30.973826  8917 net.cpp:425] lstm2_unit_1 <- gate_input_1
I0804 10:02:30.973832  8917 net.cpp:425] lstm2_unit_1 <- cont_1_lstm2_cont_slice_0_split_1
I0804 10:02:30.973839  8917 net.cpp:399] lstm2_unit_1 -> c_1
I0804 10:02:30.973847  8917 net.cpp:399] lstm2_unit_1 -> h_1
I0804 10:02:30.973928  8917 net.cpp:141] Setting up lstm2_unit_1
I0804 10:02:30.973938  8917 net.cpp:148] Top shape: 1 1 1000 (1000)
I0804 10:02:30.973943  8917 net.cpp:148] Top shape: 1 1 1000 (1000)
I0804 10:02:30.973948  8917 net.cpp:156] Memory required for data: 90020
I0804 10:02:30.973956  8917 layer_factory.hpp:77] Creating layer lstm2_
I0804 10:02:30.973963  8917 net.cpp:91] Creating Layer lstm2_
I0804 10:02:30.973968  8917 net.cpp:425] lstm2_ <- c_1
I0804 10:02:30.973976  8917 net.cpp:399] lstm2_ -> c_T
I0804 10:02:30.974015  8917 net.cpp:141] Setting up lstm2_
I0804 10:02:30.974023  8917 net.cpp:148] Top shape: 1 1 1000 (1000)
I0804 10:02:30.974030  8917 net.cpp:156] Memory required for data: 94020
I0804 10:02:30.974035  8917 layer_factory.hpp:77] Creating layer lstm2_h_concat
I0804 10:02:30.974046  8917 net.cpp:91] Creating Layer lstm2_h_concat
I0804 10:02:30.974055  8917 net.cpp:425] lstm2_h_concat <- h_1
I0804 10:02:30.974066  8917 net.cpp:399] lstm2_h_concat -> h
I0804 10:02:30.974128  8917 net.cpp:141] Setting up lstm2_h_concat
I0804 10:02:30.974141  8917 net.cpp:148] Top shape: 1 1 1000 (1000)
I0804 10:02:30.974148  8917 net.cpp:156] Memory required for data: 98020
I0804 10:02:30.974155  8917 layer_factory.hpp:77] Creating layer h_pseudoloss
I0804 10:02:30.974169  8917 net.cpp:91] Creating Layer h_pseudoloss
I0804 10:02:30.974175  8917 net.cpp:425] h_pseudoloss <- h
I0804 10:02:30.974185  8917 net.cpp:399] h_pseudoloss -> h_pseudoloss
I0804 10:02:30.974303  8917 net.cpp:141] Setting up h_pseudoloss
…
