…
2016-08-04 10:02:30.541 STDERR [INFO] I0804 10:02:30.521534  8917 net.cpp:91] Creating Layer input
2016-08-04 10:02:30.541 STDERR [INFO] I0804 10:02:30.521543  8917 net.cpp:399] input -> frames_fc7
2016-08-04 10:02:30.541 STDERR [INFO] I0804 10:02:30.521559  8917 net.cpp:399] input -> cont_sentence
2016-08-04 10:02:30.541 STDERR [INFO] I0804 10:02:30.521570  8917 net.cpp:399] input -> input_sentence
2016-08-04 10:02:30.541 STDERR [INFO] I0804 10:02:30.521579  8917 net.cpp:399] input -> stage_indicator
2016-08-04 10:02:30.541 STDERR [INFO] I0804 10:02:30.526381  8917 net.cpp:141] Setting up input
2016-08-04 10:02:30.541 STDERR [INFO] I0804 10:02:30.526406  8917 net.cpp:148] Top shape: 1 4096 (4096)
2016-08-04 10:02:30.541 STDERR [INFO] I0804 10:02:30.526413  8917 net.cpp:148] Top shape: 1 1 (1)
2016-08-04 10:02:30.541 STDERR [INFO] I0804 10:02:30.526419  8917 net.cpp:148] Top shape: 1 1 (1)
2016-08-04 10:02:30.541 STDERR [INFO] I0804 10:02:30.526424  8917 net.cpp:148] Top shape: 1 1 (1)
2016-08-04 10:02:30.542 STDERR [INFO] I0804 10:02:30.526428  8917 net.cpp:156] Memory required for data: 16396
2016-08-04 10:02:30.542 STDERR [INFO] I0804 10:02:30.526434  8917 layer_factory.hpp:77] Creating layer cont_sentence_input_1_split
2016-08-04 10:02:30.542 STDERR [INFO] I0804 10:02:30.526458  8917 net.cpp:91] Creating Layer cont_sentence_input_1_split
2016-08-04 10:02:30.542 STDERR [INFO] I0804 10:02:30.526468  8917 net.cpp:425] cont_sentence_input_1_split <- cont_sentence
2016-08-04 10:02:30.542 STDERR [INFO] I0804 10:02:30.526495  8917 net.cpp:399] cont_sentence_input_1_split -> cont_sentence_input_1_split_0
2016-08-04 10:02:30.542 STDERR [INFO] I0804 10:02:30.526510  8917 net.cpp:399] cont_sentence_input_1_split -> cont_sentence_input_1_split_1
2016-08-04 10:02:30.542 STDERR [INFO] I0804 10:02:30.527271  8917 net.cpp:141] Setting up cont_sentence_input_1_split
2016-08-04 10:02:30.542 STDERR [INFO] I0804 10:02:30.527288  8917 net.cpp:148] Top shape: 1 1 (1)
2016-08-04 10:02:30.542 STDERR [INFO] I0804 10:02:30.527300  8917 net.cpp:148] Top shape: 1 1 (1)
2016-08-04 10:02:30.542 STDERR [INFO] I0804 10:02:30.527308  8917 net.cpp:156] Memory required for data: 16404
2016-08-04 10:02:30.542 STDERR [INFO] I0804 10:02:30.527314  8917 layer_factory.hpp:77] Creating layer embed_encoder
2016-08-04 10:02:30.543 STDERR [INFO] I0804 10:02:30.527328  8917 net.cpp:91] Creating Layer embed_encoder
2016-08-04 10:02:30.543 STDERR [INFO] I0804 10:02:30.527333  8917 net.cpp:425] embed_encoder <- frames_fc7
2016-08-04 10:02:30.543 STDERR [INFO] I0804 10:02:30.527341  8917 net.cpp:399] embed_encoder -> embedded_in_frames
2016-08-04 10:02:30.552 STDERR [INFO] I0804 10:02:30.552196  8917 net.cpp:141] Setting up embed_encoder
2016-08-04 10:02:30.552 STDERR [INFO] I0804 10:02:30.552234  8917 net.cpp:148] Top shape: 1 500 (500)
2016-08-04 10:02:30.552 STDERR [INFO] I0804 10:02:30.552239  8917 net.cpp:156] Memory required for data: 18404
2016-08-04 10:02:30.552 STDERR [INFO] I0804 10:02:30.552263  8917 layer_factory.hpp:77] Creating layer reshape_frames
2016-08-04 10:02:30.553 STDERR [INFO] I0804 10:02:30.552285  8917 net.cpp:91] Creating Layer reshape_frames
2016-08-04 10:02:30.553 STDERR [INFO] I0804 10:02:30.552292  8917 net.cpp:425] reshape_frames <- embedded_in_frames
2016-08-04 10:02:30.553 STDERR [INFO] I0804 10:02:30.552304  8917 net.cpp:399] reshape_frames -> embedded_input_frames
2016-08-04 10:02:30.557 STDERR [INFO] I0804 10:02:30.557199  8917 net.cpp:141] Setting up reshape_frames
2016-08-04 10:02:30.557 STDERR [INFO] I0804 10:02:30.557226  8917 net.cpp:148] Top shape: 1 1 500 (500)
2016-08-04 10:02:30.557 STDERR [INFO] I0804 10:02:30.557231  8917 net.cpp:156] Memory required for data: 20404
2016-08-04 10:02:30.557 STDERR [INFO] I0804 10:02:30.557245  8917 layer_factory.hpp:77] Creating layer reshape_stage_indicator
2016-08-04 10:02:30.557 STDERR [INFO] I0804 10:02:30.557260  8917 net.cpp:91] Creating Layer reshape_stage_indicator
2016-08-04 10:02:30.557 STDERR [INFO] I0804 10:02:30.557265  8917 net.cpp:425] reshape_stage_indicator <- stage_indicator
2016-08-04 10:02:30.557 STDERR [INFO] I0804 10:02:30.557274  8917 net.cpp:399] reshape_stage_indicator -> reshaped_stage_indicator
2016-08-04 10:02:30.560 STDERR [INFO] I0804 10:02:30.560834  8917 net.cpp:141] Setting up reshape_stage_indicator
2016-08-04 10:02:30.561 STDERR [INFO] I0804 10:02:30.560847  8917 net.cpp:148] Top shape: 1 1 1 (1)
2016-08-04 10:02:30.561 STDERR [INFO] I0804 10:02:30.560853  8917 net.cpp:156] Memory required for data: 20408
2016-08-04 10:02:30.561 STDERR [INFO] I0804 10:02:30.560858  8917 layer_factory.hpp:77] Creating layer embedding
2016-08-04 10:02:30.561 STDERR [INFO] I0804 10:02:30.560871  8917 net.cpp:91] Creating Layer embedding
2016-08-04 10:02:30.562 STDERR [INFO] I0804 10:02:30.560878  8917 net.cpp:425] embedding <- input_sentence
…
2016-08-04 10:02:30.628 n.t.s.b.CVParticleBolt [INFO] [Timing] RequestID: 0 StreamID: home_peifeng_work_data_frame_320x240_jpg SequenceNr: 125 Leaving scale: 1470319350628 Size: 3530
2016-08-04 10:02:30.630 n.t.s.b.CVParticleBolt [INFO] [Timing] RequestID: 0 StreamID: home_peifeng_work_data_frame_320x240_jpg SequenceNr: 126 Leaving scale: 1470319350630 Size: 3530
2016-08-04 10:02:30.632 n.t.s.b.CVParticleBolt [INFO] [Timing] RequestID: 0 StreamID: home_peifeng_work_data_frame_320x240_jpg SequenceNr: 127 Leaving scale: 1470319350632 Size: 3530
2016-08-04 10:02:30.718 STDERR [INFO] I0804 10:02:30.718000  8927 net.cpp:141] Setting up conv1
2016-08-04 10:02:30.718 STDERR [INFO] I0804 10:02:30.718040  8927 net.cpp:148] Top shape: 10 96 55 55 (2904000)
2016-08-04 10:02:30.718 STDERR [INFO] I0804 10:02:30.718046  8927 net.cpp:156] Memory required for data: 17799480
2016-08-04 10:02:30.718 STDERR [INFO] I0804 10:02:30.718067  8927 layer_factory.hpp:77] Creating layer relu1
2016-08-04 10:02:30.718 STDERR [INFO] I0804 10:02:30.718082  8927 net.cpp:91] Creating Layer relu1
2016-08-04 10:02:30.718 STDERR [INFO] I0804 10:02:30.718089  8927 net.cpp:425] relu1 <- conv1
2016-08-04 10:02:30.718 STDERR [INFO] I0804 10:02:30.718097  8927 net.cpp:386] relu1 -> conv1 (in-place)
2016-08-04 10:02:30.719 STDERR [INFO] I0804 10:02:30.718464  8927 net.cpp:141] Setting up relu1
2016-08-04 10:02:30.719 STDERR [INFO] I0804 10:02:30.718477  8927 net.cpp:148] Top shape: 10 96 55 55 (2904000)
2016-08-04 10:02:30.719 STDERR [INFO] I0804 10:02:30.718482  8927 net.cpp:156] Memory required for data: 29415480
2016-08-04 10:02:30.719 STDERR [INFO] I0804 10:02:30.718487  8927 layer_factory.hpp:77] Creating layer pool1
2016-08-04 10:02:30.719 STDERR [INFO] I0804 10:02:30.718498  8927 net.cpp:91] Creating Layer pool1
2016-08-04 10:02:30.719 STDERR [INFO] I0804 10:02:30.718504  8927 net.cpp:425] pool1 <- conv1
2016-08-04 10:02:30.719 STDERR [INFO] I0804 10:02:30.718511  8927 net.cpp:399] pool1 -> pool1
2016-08-04 10:02:30.719 STDERR [INFO] I0804 10:02:30.718575  8927 net.cpp:141] Setting up pool1
2016-08-04 10:02:30.719 STDERR [INFO] I0804 10:02:30.718585  8927 net.cpp:148] Top shape: 10 96 27 27 (699840)
2016-08-04 10:02:30.719 STDERR [INFO] I0804 10:02:30.718593  8927 net.cpp:156] Memory required for data: 32214840
2016-08-04 10:02:30.719 STDERR [INFO] I0804 10:02:30.718601  8927 layer_factory.hpp:77] Creating layer norm1
2016-08-04 10:02:30.719 STDERR [INFO] I0804 10:02:30.718622  8927 net.cpp:91] Creating Layer norm1
2016-08-04 10:02:30.720 STDERR [INFO] I0804 10:02:30.718631  8927 net.cpp:425] norm1 <- pool1
2016-08-04 10:02:30.720 STDERR [INFO] I0804 10:02:30.718641  8927 net.cpp:399] norm1 -> norm1
2016-08-04 10:02:30.720 STDERR [INFO] I0804 10:02:30.719260  8927 net.cpp:141] Setting up norm1
2016-08-04 10:02:30.720 STDERR [INFO] I0804 10:02:30.719280  8927 net.cpp:148] Top shape: 10 96 27 27 (699840)
2016-08-04 10:02:30.720 STDERR [INFO] I0804 10:02:30.719288  8927 net.cpp:156] Memory required for data: 35014200
2016-08-04 10:02:30.720 STDERR [INFO] I0804 10:02:30.719296  8927 layer_factory.hpp:77] Creating layer conv2
2016-08-04 10:02:30.720 STDERR [INFO] I0804 10:02:30.719321  8927 net.cpp:91] Creating Layer conv2
2016-08-04 10:02:30.720 STDERR [INFO] I0804 10:02:30.719332  8927 net.cpp:425] conv2 <- norm1
2016-08-04 10:02:30.720 STDERR [INFO] I0804 10:02:30.719352  8927 net.cpp:399] conv2 -> conv2
2016-08-04 10:02:30.723 STDERR [INFO] I0804 10:02:30.723143  8927 net.cpp:141] Setting up conv2
2016-08-04 10:02:30.723 STDERR [INFO] I0804 10:02:30.723162  8927 net.cpp:148] Top shape: 10 256 27 27 (1866240)
2016-08-04 10:02:30.723 STDERR [INFO] I0804 10:02:30.723167  8927 net.cpp:156] Memory required for data: 42479160
2016-08-04 10:02:30.723 STDERR [INFO] I0804 10:02:30.723181  8927 layer_factory.hpp:77] Creating layer relu2
2016-08-04 10:02:30.723 STDERR [INFO] I0804 10:02:30.723191  8927 net.cpp:91] Creating Layer relu2
2016-08-04 10:02:30.723 STDERR [INFO] I0804 10:02:30.723196  8927 net.cpp:425] relu2 <- conv2
2016-08-04 10:02:30.723 STDERR [INFO] I0804 10:02:30.723207  8927 net.cpp:386] relu2 -> conv2 (in-place)
2016-08-04 10:02:30.723 STDERR [INFO] I0804 10:02:30.723688  8927 net.cpp:141] Setting up relu2
2016-08-04 10:02:30.724 STDERR [INFO] I0804 10:02:30.723707  8927 net.cpp:148] Top shape: 10 256 27 27 (1866240)
2016-08-04 10:02:30.724 STDERR [INFO] I0804 10:02:30.723716  8927 net.cpp:156] Memory required for data: 49944120
2016-08-04 10:02:30.724 STDERR [INFO] I0804 10:02:30.723724  8927 layer_factory.hpp:77] Creating layer pool2
2016-08-04 10:02:30.724 STDERR [INFO] I0804 10:02:30.723737  8927 net.cpp:91] Creating Layer pool2
2016-08-04 10:02:30.724 STDERR [INFO] I0804 10:02:30.723745  8927 net.cpp:425] pool2 <- conv2
2016-08-04 10:02:30.724 STDERR [INFO] I0804 10:02:30.723762  8927 net.cpp:399] pool2 -> pool2
2016-08-04 10:02:30.724 STDERR [INFO] I0804 10:02:30.723855  8927 net.cpp:141] Setting up pool2
2016-08-04 10:02:30.724 STDERR [INFO] I0804 10:02:30.723872  8927 net.cpp:148] Top shape: 10 256 13 13 (432640)
2016-08-04 10:02:30.724 STDERR [INFO] I0804 10:02:30.723881  8927 net.cpp:156] Memory required for data: 51674680
2016-08-04 10:02:30.724 STDERR [INFO] I0804 10:02:30.723889  8927 layer_factory.hpp:77] Creating layer norm2
2016-08-04 10:02:30.724 STDERR [INFO] I0804 10:02:30.723912  8927 net.cpp:91] Creating Layer norm2
2016-08-04 10:02:30.724 STDERR [INFO] I0804 10:02:30.723922  8927 net.cpp:425] norm2 <- pool2
2016-08-04 10:02:30.724 STDERR [INFO] I0804 10:02:30.723933  8927 net.cpp:399] norm2 -> norm2
2016-08-04 10:02:30.725 STDERR [INFO] I0804 10:02:30.724331  8927 net.cpp:141] Setting up norm2
2016-08-04 10:02:30.725 STDERR [INFO] I0804 10:02:30.724349  8927 net.cpp:148] Top shape: 10 256 13 13 (432640)
2016-08-04 10:02:30.725 STDERR [INFO] I0804 10:02:30.724359  8927 net.cpp:156] Memory required for data: 53405240
2016-08-04 10:02:30.725 STDERR [INFO] I0804 10:02:30.724367  8927 layer_factory.hpp:77] Creating layer conv3
2016-08-04 10:02:30.725 STDERR [INFO] I0804 10:02:30.724390  8927 net.cpp:91] Creating Layer conv3
2016-08-04 10:02:30.725 STDERR [INFO] I0804 10:02:30.724400  8927 net.cpp:425] conv3 <- norm2
2016-08-04 10:02:30.725 STDERR [INFO] I0804 10:02:30.724414  8927 net.cpp:399] conv3 -> conv3
2016-08-04 10:02:30.728 STDERR [INFO] I0804 10:02:30.728616  8927 net.cpp:141] Setting up conv3
2016-08-04 10:02:30.728 STDERR [INFO] I0804 10:02:30.728638  8927 net.cpp:148] Top shape: 10 384 13 13 (648960)
2016-08-04 10:02:30.729 STDERR [INFO] I0804 10:02:30.728644  8927 net.cpp:156] Memory required for data: 56001080
2016-08-04 10:02:30.729 STDERR [INFO] I0804 10:02:30.728664  8927 layer_factory.hpp:77] Creating layer relu3
2016-08-04 10:02:30.729 STDERR [INFO] I0804 10:02:30.728677  8927 net.cpp:91] Creating Layer relu3
2016-08-04 10:02:30.729 STDERR [INFO] I0804 10:02:30.728683  8927 net.cpp:425] relu3 <- conv3
2016-08-04 10:02:30.729 STDERR [INFO] I0804 10:02:30.728695  8927 net.cpp:386] relu3 -> conv3 (in-place)
2016-08-04 10:02:30.729 STDERR [INFO] I0804 10:02:30.729198  8927 net.cpp:141] Setting up relu3
2016-08-04 10:02:30.729 STDERR [INFO] I0804 10:02:30.729217  8927 net.cpp:148] Top shape: 10 384 13 13 (648960)
2016-08-04 10:02:30.729 STDERR [INFO] I0804 10:02:30.729225  8927 net.cpp:156] Memory required for data: 58596920
2016-08-04 10:02:30.729 STDERR [INFO] I0804 10:02:30.729234  8927 layer_factory.hpp:77] Creating layer conv4
2016-08-04 10:02:30.729 STDERR [INFO] I0804 10:02:30.729264  8927 net.cpp:91] Creating Layer conv4
2016-08-04 10:02:30.729 STDERR [INFO] I0804 10:02:30.729274  8927 net.cpp:425] conv4 <- conv3
2016-08-04 10:02:30.729 STDERR [INFO] I0804 10:02:30.729287  8927 net.cpp:399] conv4 -> conv4
2016-08-04 10:02:30.733 STDERR [INFO] I0804 10:02:30.733558  8927 net.cpp:141] Setting up conv4
2016-08-04 10:02:30.733 STDERR [INFO] I0804 10:02:30.733582  8927 net.cpp:148] Top shape: 10 384 13 13 (648960)
2016-08-04 10:02:30.734 STDERR [INFO] I0804 10:02:30.733588  8927 net.cpp:156] Memory required for data: 61192760
2016-08-04 10:02:30.734 STDERR [INFO] I0804 10:02:30.733598  8927 layer_factory.hpp:77] Creating layer relu4
2016-08-04 10:02:30.734 STDERR [INFO] I0804 10:02:30.733608  8927 net.cpp:91] Creating Layer relu4
2016-08-04 10:02:30.734 STDERR [INFO] I0804 10:02:30.733613  8927 net.cpp:425] relu4 <- conv4
2016-08-04 10:02:30.734 STDERR [INFO] I0804 10:02:30.733623  8927 net.cpp:386] relu4 -> conv4 (in-place)
2016-08-04 10:02:30.734 STDERR [INFO] I0804 10:02:30.734050  8927 net.cpp:141] Setting up relu4
2016-08-04 10:02:30.734 STDERR [INFO] I0804 10:02:30.734074  8927 net.cpp:148] Top shape: 10 384 13 13 (648960)
2016-08-04 10:02:30.734 STDERR [INFO] I0804 10:02:30.734083  8927 net.cpp:156] Memory required for data: 63788600
2016-08-04 10:02:30.734 STDERR [INFO] I0804 10:02:30.734092  8927 layer_factory.hpp:77] Creating layer conv5
2016-08-04 10:02:30.734 STDERR [INFO] I0804 10:02:30.734112  8927 net.cpp:91] Creating Layer conv5
2016-08-04 10:02:30.734 STDERR [INFO] I0804 10:02:30.734120  8927 net.cpp:425] conv5 <- conv4
2016-08-04 10:02:30.734 STDERR [INFO] I0804 10:02:30.734133  8927 net.cpp:399] conv5 -> conv5
2016-08-04 10:02:30.738 STDERR [INFO] I0804 10:02:30.738250  8927 net.cpp:141] Setting up conv5
2016-08-04 10:02:30.738 STDERR [INFO] I0804 10:02:30.738270  8927 net.cpp:148] Top shape: 10 256 13 13 (432640)
2016-08-04 10:02:30.738 STDERR [INFO] I0804 10:02:30.738275  8927 net.cpp:156] Memory required for data: 65519160
2016-08-04 10:02:30.738 STDERR [INFO] I0804 10:02:30.738291  8927 layer_factory.hpp:77] Creating layer relu5
2016-08-04 10:02:30.738 STDERR [INFO] I0804 10:02:30.738299  8927 net.cpp:91] Creating Layer relu5
2016-08-04 10:02:30.738 STDERR [INFO] I0804 10:02:30.738304  8927 net.cpp:425] relu5 <- conv5
2016-08-04 10:02:30.738 STDERR [INFO] I0804 10:02:30.738311  8927 net.cpp:386] relu5 -> conv5 (in-place)
2016-08-04 10:02:30.739 STDERR [INFO] I0804 10:02:30.738790  8927 net.cpp:141] Setting up relu5
2016-08-04 10:02:30.739 STDERR [INFO] I0804 10:02:30.738811  8927 net.cpp:148] Top shape: 10 256 13 13 (432640)
2016-08-04 10:02:30.739 STDERR [INFO] I0804 10:02:30.738821  8927 net.cpp:156] Memory required for data: 67249720
2016-08-04 10:02:30.739 STDERR [INFO] I0804 10:02:30.738831  8927 layer_factory.hpp:77] Creating layer pool5
2016-08-04 10:02:30.739 STDERR [INFO] I0804 10:02:30.738844  8927 net.cpp:91] Creating Layer pool5
2016-08-04 10:02:30.739 STDERR [INFO] I0804 10:02:30.738853  8927 net.cpp:425] pool5 <- conv5
2016-08-04 10:02:30.739 STDERR [INFO] I0804 10:02:30.738864  8927 net.cpp:399] pool5 -> pool5
2016-08-04 10:02:30.739 STDERR [INFO] I0804 10:02:30.738956  8927 net.cpp:141] Setting up pool5
2016-08-04 10:02:30.739 STDERR [INFO] I0804 10:02:30.738972  8927 net.cpp:148] Top shape: 10 256 6 6 (92160)
2016-08-04 10:02:30.739 STDERR [INFO] I0804 10:02:30.738979  8927 net.cpp:156] Memory required for data: 67618360
2016-08-04 10:02:30.739 STDERR [INFO] I0804 10:02:30.738988  8927 layer_factory.hpp:77] Creating layer fc6
2016-08-04 10:02:30.740 STDERR [INFO] I0804 10:02:30.739013  8927 net.cpp:91] Creating Layer fc6
2016-08-04 10:02:30.740 STDERR [INFO] I0804 10:02:30.739024  8927 net.cpp:425] fc6 <- pool5
2016-08-04 10:02:30.740 STDERR [INFO] I0804 10:02:30.739037  8927 net.cpp:399] fc6 -> fc6
2016-08-04 10:02:30.800 n.t.s.f.RefreshingImageFetcher$ImageReader [INFO] [Timing] RequestID: 0 StreamID: home_peifeng_work_data_frame_320x240_jpg SequenceNr: 128 Entering queue: 1470319350800
2016-08-04 10:02:30.800 n.t.s.f.RefreshingImageFetcher$ImageReader [INFO] [Timing] RequestID: 0 StreamID: home_peifeng_work_data_frame_320x240_jpg SequenceNr: 129 Entering queue: 1470319350800
2016-08-04 10:02:30.800 n.t.s.f.RefreshingImageFetcher$ImageReader [INFO] [Timing] RequestID: 0 StreamID: home_peifeng_work_data_frame_320x240_jpg SequenceNr: 130 Entering queue: 1470319350800
2016-08-04 10:02:30.800 n.t.s.f.RefreshingImageFetcher$ImageReader [INFO] [Timing] RequestID: 0 StreamID: home_peifeng_work_data_frame_320x240_jpg SequenceNr: 131 Entering queue: 1470319350800
2016-08-04 10:02:30.803 STDERR [INFO] I0804 10:02:30.803704  8917 net.cpp:141] Setting up embedding
2016-08-04 10:02:30.804 STDERR [INFO] I0804 10:02:30.803747  8917 net.cpp:148] Top shape: 1 1 500 (500)
2016-08-04 10:02:30.804 STDERR [INFO] I0804 10:02:30.803753  8917 net.cpp:156] Memory required for data: 22408
2016-08-04 10:02:30.804 STDERR [INFO] I0804 10:02:30.803772  8917 layer_factory.hpp:77] Creating layer lstm1
2016-08-04 10:02:30.804 STDERR [INFO] I0804 10:02:30.803794  8917 net.cpp:91] Creating Layer lstm1
2016-08-04 10:02:30.804 STDERR [INFO] I0804 10:02:30.803802  8917 net.cpp:425] lstm1 <- embedded_input_frames
…
2016-08-04 10:02:30.817 STDERR [INFO] }
2016-08-04 10:02:30.817 STDERR [INFO] I0804 10:02:30.804270  8917 layer_factory.hpp:77] Creating layer lstm1_
2016-08-04 10:02:30.817 STDERR [INFO] I0804 10:02:30.804282  8917 net.cpp:91] Creating Layer lstm1_
2016-08-04 10:02:30.817 STDERR [INFO] I0804 10:02:30.804289  8917 net.cpp:399] lstm1_ -> x
2016-08-04 10:02:30.817 STDERR [INFO] I0804 10:02:30.804301  8917 net.cpp:399] lstm1_ -> cont
2016-08-04 10:02:30.817 STDERR [INFO] I0804 10:02:30.804373  8917 net.cpp:141] Setting up lstm1_
2016-08-04 10:02:30.817 STDERR [INFO] I0804 10:02:30.804383  8917 net.cpp:148] Top shape: 1 1 500 (500)
2016-08-04 10:02:30.817 n.t.s.s.CVParticleSpout [INFO] [Timing] RequestID: 0 StreamID: home_peifeng_work_data_frame_320x240_jpg SequenceNr: 131 Leaving fetcher: 1470319350817 Size: 8702
2016-08-04 10:02:30.817 n.t.s.b.CVParticleBolt [INFO] [Timing] RequestID: 0 StreamID: home_peifeng_work_data_frame_320x240_jpg SequenceNr: 131 Entering scale: 1470319350817
2016-08-04 10:02:30.818 STDERR [INFO] I0804 10:02:30.804388  8917 net.cpp:148] Top shape: 1 1 (1)
2016-08-04 10:02:30.818 STDERR [INFO] I0804 10:02:30.804392  8917 net.cpp:156] Memory required for data: 2004
2016-08-04 10:02:30.818 STDERR [INFO] I0804 10:02:30.804397  8917 layer_factory.hpp:77] Creating layer lstm1_
2016-08-04 10:02:30.818 STDERR [INFO] I0804 10:02:30.804409  8917 net.cpp:91] Creating Layer lstm1_
2016-08-04 10:02:30.818 STDERR [INFO] I0804 10:02:30.804416  8917 net.cpp:399] lstm1_ -> c_0
2016-08-04 10:02:30.818 STDERR [INFO] I0804 10:02:30.804426  8917 net.cpp:399] lstm1_ -> h_0
2016-08-04 10:02:30.818 STDERR [INFO] I0804 10:02:30.804476  8917 net.cpp:141] Setting up lstm1_
2016-08-04 10:02:30.818 STDERR [INFO] I0804 10:02:30.804487  8917 net.cpp:148] Top shape: 1 1 1000 (1000)
2016-08-04 10:02:30.819 STDERR [INFO] I0804 10:02:30.804493  8917 net.cpp:148] Top shape: 1 1 1000 (1000)
2016-08-04 10:02:30.819 STDERR [INFO] I0804 10:02:30.804497  8917 net.cpp:156] Memory required for data: 10004
2016-08-04 10:02:30.819 STDERR [INFO] I0804 10:02:30.804502  8917 layer_factory.hpp:77] Creating layer lstm1_cont_slice
2016-08-04 10:02:30.819 STDERR [INFO] I0804 10:02:30.804510  8917 net.cpp:91] Creating Layer lstm1_cont_slice
2016-08-04 10:02:30.820 STDERR [INFO] I0804 10:02:30.804514  8917 net.cpp:425] lstm1_cont_slice <- cont
2016-08-04 10:02:30.820 STDERR [INFO] I0804 10:02:30.804522  8917 net.cpp:399] lstm1_cont_slice -> cont_1
2016-08-04 10:02:30.820 STDERR [INFO] I0804 10:02:30.804559  8917 net.cpp:141] Setting up lstm1_cont_slice
2016-08-04 10:02:30.820 n.t.s.b.CVParticleBolt [INFO] [Timing] RequestID: 0 StreamID: home_peifeng_work_data_frame_320x240_jpg SequenceNr: 130 Leaving scale: 1470319350820 Size: 3530
2016-08-04 10:02:30.820 STDERR [INFO] I0804 10:02:30.804569  8917 net.cpp:148] Top shape: 1 1 (1)
2016-08-04 10:02:30.820 STDERR [INFO] I0804 10:02:30.804572  8917 net.cpp:156] Memory required for data: 10008
2016-08-04 10:02:30.820 STDERR [INFO] I0804 10:02:30.804576  8917 layer_factory.hpp:77] Creating layer cont_1_lstm1_cont_slice_0_split
2016-08-04 10:02:30.820 STDERR [INFO] I0804 10:02:30.804584  8917 net.cpp:91] Creating Layer cont_1_lstm1_cont_slice_0_split
2016-08-04 10:02:30.820 STDERR [INFO] I0804 10:02:30.804589  8917 net.cpp:425] cont_1_lstm1_cont_slice_0_split <- cont_1
2016-08-04 10:02:30.821 STDERR [INFO] I0804 10:02:30.804597  8917 net.cpp:399] cont_1_lstm1_cont_slice_0_split -> cont_1_lstm1_cont_slice_0_split_0
2016-08-04 10:02:30.821 STDERR [INFO] I0804 10:02:30.804605  8917 net.cpp:399] cont_1_lstm1_cont_slice_0_split -> cont_1_lstm1_cont_slice_0_split_1
2016-08-04 10:02:30.821 STDERR [INFO] I0804 10:02:30.804654  8917 net.cpp:141] Setting up cont_1_lstm1_cont_slice_0_split
2016-08-04 10:02:30.821 STDERR [INFO] I0804 10:02:30.804662  8917 net.cpp:148] Top shape: 1 1 (1)
2016-08-04 10:02:30.821 STDERR [INFO] I0804 10:02:30.804668  8917 net.cpp:148] Top shape: 1 1 (1)
2016-08-04 10:02:30.821 STDERR [INFO] I0804 10:02:30.804672  8917 net.cpp:156] Memory required for data: 10016
2016-08-04 10:02:30.821 STDERR [INFO] I0804 10:02:30.804677  8917 layer_factory.hpp:77] Creating layer lstm1_x_transform
2016-08-04 10:02:30.821 STDERR [INFO] I0804 10:02:30.804687  8917 net.cpp:91] Creating Layer lstm1_x_transform
2016-08-04 10:02:30.821 STDERR [INFO] I0804 10:02:30.804692  8917 net.cpp:425] lstm1_x_transform <- x
2016-08-04 10:02:30.822 STDERR [INFO] I0804 10:02:30.804700  8917 net.cpp:399] lstm1_x_transform -> W_xc_x
2016-08-04 10:02:30.824 n.t.s.b.CVParticleBolt [INFO] [Timing] RequestID: 0 StreamID: home_peifeng_work_data_frame_320x240_jpg SequenceNr: 131 Leaving scale: 1470319350824 Size: 3530
2016-08-04 10:02:30.825 STDERR [INFO] I0804 10:02:30.824905  8917 net.cpp:141] Setting up lstm1_x_transform
2016-08-04 10:02:30.825 STDERR [INFO] I0804 10:02:30.824947  8917 net.cpp:148] Top shape: 1 1 4000 (4000)
2016-08-04 10:02:30.825 STDERR [INFO] I0804 10:02:30.824952  8917 net.cpp:156] Memory required for data: 26016
2016-08-04 10:02:30.825 STDERR [INFO] I0804 10:02:30.824972  8917 layer_factory.hpp:77] Creating layer lstm1_W_xc_x_slice
2016-08-04 10:02:30.825 STDERR [INFO] I0804 10:02:30.824986  8917 net.cpp:91] Creating Layer lstm1_W_xc_x_slice
2016-08-04 10:02:30.825 STDERR [INFO] I0804 10:02:30.824993  8917 net.cpp:425] lstm1_W_xc_x_slice <- W_xc_x
2016-08-04 10:02:30.825 STDERR [INFO] I0804 10:02:30.825002  8917 net.cpp:399] lstm1_W_xc_x_slice -> W_xc_x_1
2016-08-04 10:02:30.826 STDERR [INFO] I0804 10:02:30.825047  8917 net.cpp:141] Setting up lstm1_W_xc_x_slice
2016-08-04 10:02:30.826 STDERR [INFO] I0804 10:02:30.825057  8917 net.cpp:148] Top shape: 1 1 4000 (4000)
2016-08-04 10:02:30.826 STDERR [INFO] I0804 10:02:30.825062  8917 net.cpp:156] Memory required for data: 42016
2016-08-04 10:02:30.826 STDERR [INFO] I0804 10:02:30.825067  8917 layer_factory.hpp:77] Creating layer lstm1_h_conted_0
2016-08-04 10:02:30.826 STDERR [INFO] I0804 10:02:30.825076  8917 net.cpp:91] Creating Layer lstm1_h_conted_0
2016-08-04 10:02:30.826 STDERR [INFO] I0804 10:02:30.825081  8917 net.cpp:425] lstm1_h_conted_0 <- h_0
2016-08-04 10:02:30.826 STDERR [INFO] I0804 10:02:30.825086  8917 net.cpp:425] lstm1_h_conted_0 <- cont_1_lstm1_cont_slice_0_split_0
2016-08-04 10:02:30.826 STDERR [INFO] I0804 10:02:30.825093  8917 net.cpp:399] lstm1_h_conted_0 -> h_conted_0
2016-08-04 10:02:30.826 STDERR [INFO] I0804 10:02:30.825181  8917 net.cpp:141] Setting up lstm1_h_conted_0
2016-08-04 10:02:30.826 STDERR [INFO] I0804 10:02:30.825191  8917 net.cpp:148] Top shape: 1 1 1000 (1000)
2016-08-04 10:02:30.826 STDERR [INFO] I0804 10:02:30.825194  8917 net.cpp:156] Memory required for data: 46016
2016-08-04 10:02:30.827 STDERR [INFO] I0804 10:02:30.825198  8917 layer_factory.hpp:77] Creating layer lstm1_transform_1
2016-08-04 10:02:30.827 STDERR [INFO] I0804 10:02:30.825211  8917 net.cpp:91] Creating Layer lstm1_transform_1
2016-08-04 10:02:30.827 STDERR [INFO] I0804 10:02:30.825214  8917 net.cpp:425] lstm1_transform_1 <- h_conted_0
2016-08-04 10:02:30.827 STDERR [INFO] I0804 10:02:30.825223  8917 net.cpp:399] lstm1_transform_1 -> W_hc_h_0
2016-08-04 10:02:30.844 STDERR [INFO] I0804 10:02:30.844288  8927 net.cpp:141] Setting up fc6
2016-08-04 10:02:30.845 STDERR [INFO] I0804 10:02:30.844334  8927 net.cpp:148] Top shape: 10 4096 (40960)
2016-08-04 10:02:30.845 STDERR [INFO] I0804 10:02:30.844341  8927 net.cpp:156] Memory required for data: 67782200
2016-08-04 10:02:30.845 STDERR [INFO] I0804 10:02:30.844353  8927 layer_factory.hpp:77] Creating layer relu6
2016-08-04 10:02:30.845 STDERR [INFO] I0804 10:02:30.844367  8927 net.cpp:91] Creating Layer relu6
2016-08-04 10:02:30.846 STDERR [INFO] I0804 10:02:30.844373  8927 net.cpp:425] relu6 <- fc6
2016-08-04 10:02:30.846 STDERR [INFO] I0804 10:02:30.844385  8927 net.cpp:386] relu6 -> fc6 (in-place)
2016-08-04 10:02:30.846 STDERR [INFO] I0804 10:02:30.844691  8927 net.cpp:141] Setting up relu6
2016-08-04 10:02:30.846 STDERR [INFO] I0804 10:02:30.844702  8927 net.cpp:148] Top shape: 10 4096 (40960)
2016-08-04 10:02:30.846 STDERR [INFO] I0804 10:02:30.844707  8927 net.cpp:156] Memory required for data: 67946040
2016-08-04 10:02:30.846 STDERR [INFO] I0804 10:02:30.844712  8927 layer_factory.hpp:77] Creating layer drop6
2016-08-04 10:02:30.846 STDERR [INFO] I0804 10:02:30.844724  8927 net.cpp:91] Creating Layer drop6
2016-08-04 10:02:30.846 STDERR [INFO] I0804 10:02:30.844729  8927 net.cpp:425] drop6 <- fc6
2016-08-04 10:02:30.846 STDERR [INFO] I0804 10:02:30.844736  8927 net.cpp:386] drop6 -> fc6 (in-place)
2016-08-04 10:02:30.846 STDERR [INFO] I0804 10:02:30.844792  8927 net.cpp:141] Setting up drop6
2016-08-04 10:02:30.846 STDERR [INFO] I0804 10:02:30.844801  8927 net.cpp:148] Top shape: 10 4096 (40960)
2016-08-04 10:02:30.847 STDERR [INFO] I0804 10:02:30.844805  8927 net.cpp:156] Memory required for data: 68109880
2016-08-04 10:02:30.847 STDERR [INFO] I0804 10:02:30.844810  8927 layer_factory.hpp:77] Creating layer fc7
2016-08-04 10:02:30.847 STDERR [INFO] I0804 10:02:30.844825  8927 net.cpp:91] Creating Layer fc7
2016-08-04 10:02:30.847 STDERR [INFO] I0804 10:02:30.844830  8927 net.cpp:425] fc7 <- fc6
2016-08-04 10:02:30.847 STDERR [INFO] I0804 10:02:30.844840  8927 net.cpp:399] fc7 -> fc7
2016-08-04 10:02:30.874 STDERR [INFO] I0804 10:02:30.874428  8917 net.cpp:141] Setting up lstm1_transform_1
2016-08-04 10:02:30.875 STDERR [INFO] I0804 10:02:30.874481  8917 net.cpp:148] Top shape: 1 1 4000 (4000)
2016-08-04 10:02:30.875 STDERR [INFO] I0804 10:02:30.874487  8917 net.cpp:156] Memory required for data: 62016
2016-08-04 10:02:30.875 STDERR [INFO] I0804 10:02:30.874510  8917 layer_factory.hpp:77] Creating layer lstm1_gate_input_1
2016-08-04 10:02:30.875 STDERR [INFO] I0804 10:02:30.874527  8917 net.cpp:91] Creating Layer lstm1_gate_input_1
2016-08-04 10:02:30.875 STDERR [INFO] I0804 10:02:30.874534  8917 net.cpp:425] lstm1_gate_input_1 <- W_hc_h_0
2016-08-04 10:02:30.875 STDERR [INFO] I0804 10:02:30.874542  8917 net.cpp:425] lstm1_gate_input_1 <- W_xc_x_1
2016-08-04 10:02:30.875 STDERR [INFO] I0804 10:02:30.874550  8917 net.cpp:399] lstm1_gate_input_1 -> gate_input_1
2016-08-04 10:02:30.876 STDERR [INFO] I0804 10:02:30.874615  8917 net.cpp:141] Setting up lstm1_gate_input_1
2016-08-04 10:02:30.876 STDERR [INFO] I0804 10:02:30.874625  8917 net.cpp:148] Top shape: 1 1 4000 (4000)
2016-08-04 10:02:30.876 STDERR [INFO] I0804 10:02:30.874629  8917 net.cpp:156] Memory required for data: 78016
2016-08-04 10:02:30.876 STDERR [INFO] I0804 10:02:30.874634  8917 layer_factory.hpp:77] Creating layer lstm1_unit_1
2016-08-04 10:02:30.876 STDERR [INFO] I0804 10:02:30.874644  8917 net.cpp:91] Creating Layer lstm1_unit_1
2016-08-04 10:02:30.876 STDERR [INFO] I0804 10:02:30.874650  8917 net.cpp:425] lstm1_unit_1 <- c_0
2016-08-04 10:02:30.876 STDERR [INFO] I0804 10:02:30.874655  8917 net.cpp:425] lstm1_unit_1 <- gate_input_1
2016-08-04 10:02:30.876 STDERR [INFO] I0804 10:02:30.874660  8917 net.cpp:425] lstm1_unit_1 <- cont_1_lstm1_cont_slice_0_split_1
2016-08-04 10:02:30.876 STDERR [INFO] I0804 10:02:30.874667  8917 net.cpp:399] lstm1_unit_1 -> c_1
2016-08-04 10:02:30.876 STDERR [INFO] I0804 10:02:30.874675  8917 net.cpp:399] lstm1_unit_1 -> h_1
2016-08-04 10:02:30.877 STDERR [INFO] I0804 10:02:30.874737  8917 net.cpp:141] Setting up lstm1_unit_1
2016-08-04 10:02:30.877 STDERR [INFO] I0804 10:02:30.874747  8917 net.cpp:148] Top shape: 1 1 1000 (1000)
2016-08-04 10:02:30.877 STDERR [INFO] I0804 10:02:30.874753  8917 net.cpp:148] Top shape: 1 1 1000 (1000)
2016-08-04 10:02:30.877 STDERR [INFO] I0804 10:02:30.874758  8917 net.cpp:156] Memory required for data: 86016
2016-08-04 10:02:30.877 STDERR [INFO] I0804 10:02:30.874761  8917 layer_factory.hpp:77] Creating layer lstm1_
2016-08-04 10:02:30.877 STDERR [INFO] I0804 10:02:30.874769  8917 net.cpp:91] Creating Layer lstm1_
2016-08-04 10:02:30.877 STDERR [INFO] I0804 10:02:30.874774  8917 net.cpp:425] lstm1_ <- c_1
2016-08-04 10:02:30.877 STDERR [INFO] I0804 10:02:30.874780  8917 net.cpp:399] lstm1_ -> c_T
2016-08-04 10:02:30.877 STDERR [INFO] I0804 10:02:30.874811  8917 net.cpp:141] Setting up lstm1_
2016-08-04 10:02:30.877 STDERR [INFO] I0804 10:02:30.874819  8917 net.cpp:148] Top shape: 1 1 1000 (1000)
2016-08-04 10:02:30.877 STDERR [INFO] I0804 10:02:30.874824  8917 net.cpp:156] Memory required for data: 90016
2016-08-04 10:02:30.878 STDERR [INFO] I0804 10:02:30.874827  8917 layer_factory.hpp:77] Creating layer lstm1_h_concat
2016-08-04 10:02:30.878 STDERR [INFO] I0804 10:02:30.874847  8917 net.cpp:91] Creating Layer lstm1_h_concat
2016-08-04 10:02:30.878 STDERR [INFO] I0804 10:02:30.874853  8917 net.cpp:425] lstm1_h_concat <- h_1
2016-08-04 10:02:30.878 STDERR [INFO] I0804 10:02:30.874860  8917 net.cpp:399] lstm1_h_concat -> h
2016-08-04 10:02:30.878 STDERR [INFO] I0804 10:02:30.874897  8917 net.cpp:141] Setting up lstm1_h_concat
2016-08-04 10:02:30.878 STDERR [INFO] I0804 10:02:30.874904  8917 net.cpp:148] Top shape: 1 1 1000 (1000)
2016-08-04 10:02:30.878 STDERR [INFO] I0804 10:02:30.874908  8917 net.cpp:156] Memory required for data: 94016
2016-08-04 10:02:30.878 STDERR [INFO] I0804 10:02:30.874913  8917 layer_factory.hpp:77] Creating layer h_pseudoloss
2016-08-04 10:02:30.878 STDERR [INFO] I0804 10:02:30.874922  8917 net.cpp:91] Creating Layer h_pseudoloss
2016-08-04 10:02:30.878 STDERR [INFO] I0804 10:02:30.874927  8917 net.cpp:425] h_pseudoloss <- h
…
2016-08-04 10:02:30.895 STDERR [INFO] }
2016-08-04 10:02:30.895 STDERR [INFO] I0804 10:02:30.875807  8917 layer_factory.hpp:77] Creating layer lstm2_
2016-08-04 10:02:30.895 STDERR [INFO] I0804 10:02:30.875818  8917 net.cpp:91] Creating Layer lstm2_
2016-08-04 10:02:30.895 STDERR [INFO] I0804 10:02:30.875824  8917 net.cpp:399] lstm2_ -> x
2016-08-04 10:02:30.895 STDERR [INFO] I0804 10:02:30.875834  8917 net.cpp:399] lstm2_ -> cont
2016-08-04 10:02:30.895 STDERR [INFO] I0804 10:02:30.875887  8917 net.cpp:141] Setting up lstm2_
2016-08-04 10:02:30.895 STDERR [INFO] I0804 10:02:30.875896  8917 net.cpp:148] Top shape: 1 1 1501 (1501)
2016-08-04 10:02:30.895 STDERR [INFO] I0804 10:02:30.875902  8917 net.cpp:148] Top shape: 1 1 (1)
2016-08-04 10:02:30.896 STDERR [INFO] I0804 10:02:30.875906  8917 net.cpp:156] Memory required for data: 6008
2016-08-04 10:02:30.896 STDERR [INFO] I0804 10:02:30.875911  8917 layer_factory.hpp:77] Creating layer lstm2_
2016-08-04 10:02:30.896 STDERR [INFO] I0804 10:02:30.875919  8917 net.cpp:91] Creating Layer lstm2_
2016-08-04 10:02:30.896 STDERR [INFO] I0804 10:02:30.875926  8917 net.cpp:399] lstm2_ -> c_0
2016-08-04 10:02:30.896 STDERR [INFO] I0804 10:02:30.875934  8917 net.cpp:399] lstm2_ -> h_0
2016-08-04 10:02:30.896 STDERR [INFO] I0804 10:02:30.875982  8917 net.cpp:141] Setting up lstm2_
2016-08-04 10:02:30.896 STDERR [INFO] I0804 10:02:30.875991  8917 net.cpp:148] Top shape: 1 1 1000 (1000)
2016-08-04 10:02:30.897 STDERR [INFO] I0804 10:02:30.875998  8917 net.cpp:148] Top shape: 1 1 1000 (1000)
2016-08-04 10:02:30.897 STDERR [INFO] I0804 10:02:30.876001  8917 net.cpp:156] Memory required for data: 14008
2016-08-04 10:02:30.897 STDERR [INFO] I0804 10:02:30.876005  8917 layer_factory.hpp:77] Creating layer lstm2_cont_slice
2016-08-04 10:02:30.897 STDERR [INFO] I0804 10:02:30.876013  8917 net.cpp:91] Creating Layer lstm2_cont_slice
2016-08-04 10:02:30.897 STDERR [INFO] I0804 10:02:30.876019  8917 net.cpp:425] lstm2_cont_slice <- cont
2016-08-04 10:02:30.897 STDERR [INFO] I0804 10:02:30.876027  8917 net.cpp:399] lstm2_cont_slice -> cont_1
2016-08-04 10:02:30.897 STDERR [INFO] I0804 10:02:30.876058  8917 net.cpp:141] Setting up lstm2_cont_slice
2016-08-04 10:02:30.897 STDERR [INFO] I0804 10:02:30.876066  8917 net.cpp:148] Top shape: 1 1 (1)
2016-08-04 10:02:30.897 STDERR [INFO] I0804 10:02:30.876070  8917 net.cpp:156] Memory required for data: 14012
2016-08-04 10:02:30.897 STDERR [INFO] I0804 10:02:30.876075  8917 layer_factory.hpp:77] Creating layer cont_1_lstm2_cont_slice_0_split
2016-08-04 10:02:30.897 STDERR [INFO] I0804 10:02:30.876081  8917 net.cpp:91] Creating Layer cont_1_lstm2_cont_slice_0_split
2016-08-04 10:02:30.898 STDERR [INFO] I0804 10:02:30.876085  8917 net.cpp:425] cont_1_lstm2_cont_slice_0_split <- cont_1
2016-08-04 10:02:30.898 STDERR [INFO] I0804 10:02:30.876091  8917 net.cpp:399] cont_1_lstm2_cont_slice_0_split -> cont_1_lstm2_cont_slice_0_split_0
2016-08-04 10:02:30.898 STDERR [INFO] I0804 10:02:30.876099  8917 net.cpp:399] cont_1_lstm2_cont_slice_0_split -> cont_1_lstm2_cont_slice_0_split_1
2016-08-04 10:02:30.898 STDERR [INFO] I0804 10:02:30.876144  8917 net.cpp:141] Setting up cont_1_lstm2_cont_slice_0_split
2016-08-04 10:02:30.898 STDERR [INFO] I0804 10:02:30.876152  8917 net.cpp:148] Top shape: 1 1 (1)
2016-08-04 10:02:30.898 STDERR [INFO] I0804 10:02:30.876158  8917 net.cpp:148] Top shape: 1 1 (1)
2016-08-04 10:02:30.898 STDERR [INFO] I0804 10:02:30.876163  8917 net.cpp:156] Memory required for data: 14020
2016-08-04 10:02:30.898 STDERR [INFO] I0804 10:02:30.876166  8917 layer_factory.hpp:77] Creating layer lstm2_x_transform
2016-08-04 10:02:30.898 STDERR [INFO] I0804 10:02:30.876178  8917 net.cpp:91] Creating Layer lstm2_x_transform
2016-08-04 10:02:30.898 STDERR [INFO] I0804 10:02:30.876183  8917 net.cpp:425] lstm2_x_transform <- x
2016-08-04 10:02:30.898 STDERR [INFO] I0804 10:02:30.876190  8917 net.cpp:399] lstm2_x_transform -> W_xc_x
2016-08-04 10:02:30.899 STDERR [INFO] I0804 10:02:30.892963  8927 net.cpp:141] Setting up fc7
2016-08-04 10:02:30.899 STDERR [INFO] I0804 10:02:30.893007  8927 net.cpp:148] Top shape: 10 4096 (40960)
2016-08-04 10:02:30.899 STDERR [INFO] I0804 10:02:30.893016  8927 net.cpp:156] Memory required for data: 68273720
2016-08-04 10:02:30.899 STDERR [INFO] I0804 10:02:30.893035  8927 layer_factory.hpp:77] Creating layer relu7
2016-08-04 10:02:30.899 STDERR [INFO] I0804 10:02:30.893054  8927 net.cpp:91] Creating Layer relu7
2016-08-04 10:02:30.899 STDERR [INFO] I0804 10:02:30.893065  8927 net.cpp:425] relu7 <- fc7
2016-08-04 10:02:30.899 STDERR [INFO] I0804 10:02:30.893086  8927 net.cpp:386] relu7 -> fc7 (in-place)
2016-08-04 10:02:30.899 STDERR [INFO] I0804 10:02:30.893802  8927 net.cpp:141] Setting up relu7
2016-08-04 10:02:30.899 STDERR [INFO] I0804 10:02:30.893816  8927 net.cpp:148] Top shape: 10 4096 (40960)
2016-08-04 10:02:30.899 STDERR [INFO] I0804 10:02:30.893821  8927 net.cpp:156] Memory required for data: 68437560
2016-08-04 10:02:30.899 STDERR [INFO] I0804 10:02:30.893826  8927 layer_factory.hpp:77] Creating layer drop7
2016-08-04 10:02:30.899 STDERR [INFO] I0804 10:02:30.893836  8927 net.cpp:91] Creating Layer drop7
2016-08-04 10:02:30.900 STDERR [INFO] I0804 10:02:30.893841  8927 net.cpp:425] drop7 <- fc7
2016-08-04 10:02:30.900 STDERR [INFO] I0804 10:02:30.893852  8927 net.cpp:386] drop7 -> fc7 (in-place)
2016-08-04 10:02:30.900 STDERR [INFO] I0804 10:02:30.893892  8927 net.cpp:141] Setting up drop7
2016-08-04 10:02:30.900 STDERR [INFO] I0804 10:02:30.893903  8927 net.cpp:148] Top shape: 10 4096 (40960)
2016-08-04 10:02:30.900 STDERR [INFO] I0804 10:02:30.893908  8927 net.cpp:156] Memory required for data: 68601400
2016-08-04 10:02:30.900 STDERR [INFO] I0804 10:02:30.893913  8927 layer_factory.hpp:77] Creating layer fc8
2016-08-04 10:02:30.900 STDERR [INFO] I0804 10:02:30.893925  8927 net.cpp:91] Creating Layer fc8
2016-08-04 10:02:30.900 STDERR [INFO] I0804 10:02:30.893930  8927 net.cpp:425] fc8 <- fc7
2016-08-04 10:02:30.900 STDERR [INFO] I0804 10:02:30.893937  8927 net.cpp:399] fc8 -> fc8
2016-08-04 10:02:30.907 STDERR [INFO] I0804 10:02:30.907596  8927 net.cpp:141] Setting up fc8
2016-08-04 10:02:30.908 STDERR [INFO] I0804 10:02:30.907639  8927 net.cpp:148] Top shape: 10 1000 (10000)
2016-08-04 10:02:30.908 STDERR [INFO] I0804 10:02:30.907645  8927 net.cpp:156] Memory required for data: 68641400
2016-08-04 10:02:30.908 STDERR [INFO] I0804 10:02:30.907657  8927 layer_factory.hpp:77] Creating layer prob
2016-08-04 10:02:30.908 STDERR [INFO] I0804 10:02:30.907671  8927 net.cpp:91] Creating Layer prob
2016-08-04 10:02:30.908 STDERR [INFO] I0804 10:02:30.907677  8927 net.cpp:425] prob <- fc8
2016-08-04 10:02:30.908 STDERR [INFO] I0804 10:02:30.907691  8927 net.cpp:399] prob -> prob
2016-08-04 10:02:30.908 STDERR [INFO] I0804 10:02:30.908089  8927 net.cpp:141] Setting up prob
2016-08-04 10:02:30.908 STDERR [INFO] I0804 10:02:30.908102  8927 net.cpp:148] Top shape: 10 1000 (10000)
2016-08-04 10:02:30.909 STDERR [INFO] I0804 10:02:30.908107  8927 net.cpp:156] Memory required for data: 68681400
2016-08-04 10:02:30.909 STDERR [INFO] I0804 10:02:30.908112  8927 net.cpp:219] prob does not need backward computation.
2016-08-04 10:02:30.909 STDERR [INFO] I0804 10:02:30.908116  8927 net.cpp:219] fc8 does not need backward computation.
2016-08-04 10:02:30.909 STDERR [INFO] I0804 10:02:30.908120  8927 net.cpp:219] drop7 does not need backward computation.
…
2016-08-04 10:02:30.910 STDERR [INFO] I0804 10:02:30.908210  8927 net.cpp:219] conv1 does not need backward computation.
2016-08-04 10:02:30.911 STDERR [INFO] I0804 10:02:30.908213  8927 net.cpp:219] data does not need backward computation.
2016-08-04 10:02:30.911 STDERR [INFO] I0804 10:02:30.908219  8927 net.cpp:261] This network produces output prob
2016-08-04 10:02:30.911 STDERR [INFO] I0804 10:02:30.908246  8927 net.cpp:274] Network initialization done.
2016-08-04 10:02:30.934 STDERR [INFO] I0804 10:02:30.934763  8917 net.cpp:141] Setting up lstm2_x_transform
2016-08-04 10:02:30.935 STDERR [INFO] I0804 10:02:30.934804  8917 net.cpp:148] Top shape: 1 1 4000 (4000)
2016-08-04 10:02:30.935 STDERR [INFO] I0804 10:02:30.934810  8917 net.cpp:156] Memory required for data: 30020
2016-08-04 10:02:30.935 STDERR [INFO] I0804 10:02:30.934828  8917 layer_factory.hpp:77] Creating layer lstm2_W_xc_x_slice
2016-08-04 10:02:30.935 STDERR [INFO] I0804 10:02:30.934842  8917 net.cpp:91] Creating Layer lstm2_W_xc_x_slice
2016-08-04 10:02:30.935 STDERR [INFO] I0804 10:02:30.934849  8917 net.cpp:425] lstm2_W_xc_x_slice <- W_xc_x
2016-08-04 10:02:30.935 STDERR [INFO] I0804 10:02:30.934857  8917 net.cpp:399] lstm2_W_xc_x_slice -> W_xc_x_1
2016-08-04 10:02:30.935 STDERR [INFO] I0804 10:02:30.934901  8917 net.cpp:141] Setting up lstm2_W_xc_x_slice
2016-08-04 10:02:30.936 STDERR [INFO] I0804 10:02:30.934911  8917 net.cpp:148] Top shape: 1 1 4000 (4000)
2016-08-04 10:02:30.936 STDERR [INFO] I0804 10:02:30.934916  8917 net.cpp:156] Memory required for data: 46020
2016-08-04 10:02:30.936 STDERR [INFO] I0804 10:02:30.934921  8917 layer_factory.hpp:77] Creating layer lstm2_h_conted_0
2016-08-04 10:02:30.936 STDERR [INFO] I0804 10:02:30.934929  8917 net.cpp:91] Creating Layer lstm2_h_conted_0
2016-08-04 10:02:30.936 STDERR [INFO] I0804 10:02:30.934934  8917 net.cpp:425] lstm2_h_conted_0 <- h_0
2016-08-04 10:02:30.936 STDERR [INFO] I0804 10:02:30.934940  8917 net.cpp:425] lstm2_h_conted_0 <- cont_1_lstm2_cont_slice_0_split_0
2016-08-04 10:02:30.936 STDERR [INFO] I0804 10:02:30.934947  8917 net.cpp:399] lstm2_h_conted_0 -> h_conted_0
2016-08-04 10:02:30.936 STDERR [INFO] I0804 10:02:30.935036  8917 net.cpp:141] Setting up lstm2_h_conted_0
2016-08-04 10:02:30.936 STDERR [INFO] I0804 10:02:30.935046  8917 net.cpp:148] Top shape: 1 1 1000 (1000)
2016-08-04 10:02:30.936 STDERR [INFO] I0804 10:02:30.935050  8917 net.cpp:156] Memory required for data: 50020
2016-08-04 10:02:30.936 STDERR [INFO] I0804 10:02:30.935055  8917 layer_factory.hpp:77] Creating layer lstm2_transform_1
2016-08-04 10:02:30.936 STDERR [INFO] I0804 10:02:30.935065  8917 net.cpp:91] Creating Layer lstm2_transform_1
2016-08-04 10:02:30.937 STDERR [INFO] I0804 10:02:30.935070  8917 net.cpp:425] lstm2_transform_1 <- h_conted_0
2016-08-04 10:02:30.937 STDERR [INFO] I0804 10:02:30.935081  8917 net.cpp:399] lstm2_transform_1 -> W_hc_h_0
2016-08-04 10:02:30.973 STDERR [INFO] I0804 10:02:30.973541  8917 net.cpp:141] Setting up lstm2_transform_1
2016-08-04 10:02:30.974 STDERR [INFO] I0804 10:02:30.973595  8917 net.cpp:148] Top shape: 1 1 4000 (4000)
2016-08-04 10:02:30.974 STDERR [INFO] I0804 10:02:30.973605  8917 net.cpp:156] Memory required for data: 66020
2016-08-04 10:02:30.974 STDERR [INFO] I0804 10:02:30.973637  8917 layer_factory.hpp:77] Creating layer lstm2_gate_input_1
2016-08-04 10:02:30.974 STDERR [INFO] I0804 10:02:30.973661  8917 net.cpp:91] Creating Layer lstm2_gate_input_1
2016-08-04 10:02:30.974 STDERR [INFO] I0804 10:02:30.973669  8917 net.cpp:425] lstm2_gate_input_1 <- W_hc_h_0
2016-08-04 10:02:30.974 STDERR [INFO] I0804 10:02:30.973678  8917 net.cpp:425] lstm2_gate_input_1 <- W_xc_x_1
2016-08-04 10:02:30.974 STDERR [INFO] I0804 10:02:30.973691  8917 net.cpp:399] lstm2_gate_input_1 -> gate_input_1
2016-08-04 10:02:30.974 STDERR [INFO] I0804 10:02:30.973774  8917 net.cpp:141] Setting up lstm2_gate_input_1
2016-08-04 10:02:30.974 STDERR [INFO] I0804 10:02:30.973786  8917 net.cpp:148] Top shape: 1 1 4000 (4000)
2016-08-04 10:02:30.975 STDERR [INFO] I0804 10:02:30.973790  8917 net.cpp:156] Memory required for data: 82020
2016-08-04 10:02:30.975 STDERR [INFO] I0804 10:02:30.973795  8917 layer_factory.hpp:77] Creating layer lstm2_unit_1
2016-08-04 10:02:30.975 STDERR [INFO] I0804 10:02:30.973809  8917 net.cpp:91] Creating Layer lstm2_unit_1
2016-08-04 10:02:30.975 STDERR [INFO] I0804 10:02:30.973815  8917 net.cpp:425] lstm2_unit_1 <- c_0
2016-08-04 10:02:30.975 STDERR [INFO] I0804 10:02:30.973826  8917 net.cpp:425] lstm2_unit_1 <- gate_input_1
2016-08-04 10:02:30.975 STDERR [INFO] I0804 10:02:30.973832  8917 net.cpp:425] lstm2_unit_1 <- cont_1_lstm2_cont_slice_0_split_1
2016-08-04 10:02:30.975 STDERR [INFO] I0804 10:02:30.973839  8917 net.cpp:399] lstm2_unit_1 -> c_1
2016-08-04 10:02:30.975 STDERR [INFO] I0804 10:02:30.973847  8917 net.cpp:399] lstm2_unit_1 -> h_1
2016-08-04 10:02:30.975 STDERR [INFO] I0804 10:02:30.973928  8917 net.cpp:141] Setting up lstm2_unit_1
2016-08-04 10:02:30.975 STDERR [INFO] I0804 10:02:30.973938  8917 net.cpp:148] Top shape: 1 1 1000 (1000)
2016-08-04 10:02:30.975 STDERR [INFO] I0804 10:02:30.973943  8917 net.cpp:148] Top shape: 1 1 1000 (1000)
2016-08-04 10:02:30.975 STDERR [INFO] I0804 10:02:30.973948  8917 net.cpp:156] Memory required for data: 90020
2016-08-04 10:02:30.976 STDERR [INFO] I0804 10:02:30.973956  8917 layer_factory.hpp:77] Creating layer lstm2_
2016-08-04 10:02:30.976 STDERR [INFO] I0804 10:02:30.973963  8917 net.cpp:91] Creating Layer lstm2_
2016-08-04 10:02:30.976 STDERR [INFO] I0804 10:02:30.973968  8917 net.cpp:425] lstm2_ <- c_1
2016-08-04 10:02:30.976 STDERR [INFO] I0804 10:02:30.973976  8917 net.cpp:399] lstm2_ -> c_T
2016-08-04 10:02:30.976 STDERR [INFO] I0804 10:02:30.974015  8917 net.cpp:141] Setting up lstm2_
2016-08-04 10:02:30.976 STDERR [INFO] I0804 10:02:30.974023  8917 net.cpp:148] Top shape: 1 1 1000 (1000)
2016-08-04 10:02:30.976 STDERR [INFO] I0804 10:02:30.974030  8917 net.cpp:156] Memory required for data: 94020
2016-08-04 10:02:30.976 STDERR [INFO] I0804 10:02:30.974035  8917 layer_factory.hpp:77] Creating layer lstm2_h_concat
2016-08-04 10:02:30.976 STDERR [INFO] I0804 10:02:30.974046  8917 net.cpp:91] Creating Layer lstm2_h_concat
2016-08-04 10:02:30.976 STDERR [INFO] I0804 10:02:30.974055  8917 net.cpp:425] lstm2_h_concat <- h_1
2016-08-04 10:02:30.976 STDERR [INFO] I0804 10:02:30.974066  8917 net.cpp:399] lstm2_h_concat -> h
2016-08-04 10:02:30.976 STDERR [INFO] I0804 10:02:30.974128  8917 net.cpp:141] Setting up lstm2_h_concat
2016-08-04 10:02:30.977 STDERR [INFO] I0804 10:02:30.974141  8917 net.cpp:148] Top shape: 1 1 1000 (1000)
2016-08-04 10:02:30.977 STDERR [INFO] I0804 10:02:30.974148  8917 net.cpp:156] Memory required for data: 98020
2016-08-04 10:02:30.977 STDERR [INFO] I0804 10:02:30.974155  8917 layer_factory.hpp:77] Creating layer h_pseudoloss
2016-08-04 10:02:30.977 STDERR [INFO] I0804 10:02:30.974169  8917 net.cpp:91] Creating Layer h_pseudoloss
2016-08-04 10:02:30.977 STDERR [INFO] I0804 10:02:30.974175  8917 net.cpp:425] h_pseudoloss <- h
…
