…
Java HotSpot(TM) 64-Bit Server VM warning: You have loaded library /home/peifeng/work/run/storm102/data/workers/4f1d2889-8f0f-4909-b0f8-1eb6a52a55fd/tmp/cvld6766888560135692168/libopencv_java310.xine1.so which might have disabled stack guard. The VM will try to fix the stack guard now.
It's highly recommended that you fix the library with 'execstack -c <libfile>', or link it with '-z noexecstack'.
WARNING: Logging before InitGoogleLogging() is written to STDERR
I0913 20:18:22.960291  2050 net.cpp:49] Initializing net from parameters: 
name: "GoogleNet"
state {
  phase: TEST
}
layer {
  name: "data"
  type: "Input"
  top: "data"
  input_param {
    shape {
      dim: 10
      dim: 3
      dim: 224
      dim: 224
    }
  }
}
layer {
  name: "conv1/7x7_s2"
  type: "Convolution"
  bottom: "data"
  top: "conv1/7x7_s2"
  param {
    lr_mult: 1
    decay_mult: 1
  }
  param {
    lr_mult: 2
    decay_mult: 0
  }
  convolution_param {
    num_output: 64
    pad: 3
    kernel_size: 7
    stride: 2
    weight_filler {
      type: "xavier"
      std: 0.1
    }
    bias_filler {
      type: "constant"
      value: 0.2
    }
  }
}
layer {
  name: "conv1/relu_7x7"
  type: "ReLU"
  bottom: "conv1/7x7_s2"
  top: "conv1/7x7_s2"
}
layer {
  name: "pool1/3x3_s2"
  type: "Pooling"
  bottom: "conv1/7x7_s2"
  top: "pool1/3x3_s2"
  pooling_param {
    pool: MAX
    kernel_size: 3
    stride: 2
  }
}
layer {
  name: "pool1/norm1"
  type: "LRN"
  bottom: "pool1/3x3_s2"
  top: "pool1/norm1"
  lrn_param {
    local_size: 5
    alpha: 0.0001
    beta: 0.75
  }
}
layer {
  name: "conv2/3x3_reduce"
  type: "Convolution"
  bottom: "pool1/norm1"
  top: "conv2/3x3_reduce"
  param {
    lr_mult: 1
    decay_mult: 1
  }
  param {
    lr_mult: 2
    decay_mult: 0
  }
  convolution_param {
    num_output: 64
    kernel_size: 1
    weight_filler {
      type: "xavier"
      std: 0.1
    }
    bias_filler {
      type: "constant"
      value: 0.2
    }
  }
}
layer {
  name: "conv2/relu_3x3_reduce"
  type: "ReLU"
  bottom: "conv2/3x3_reduce"
  top: "conv2/3x3_reduce"
}
layer {
  name: "conv2/3x3"
  type: "Convolution"
  bottom: "conv2/3x3_reduce"
  top: "conv2/3x3"
  param {
    lr_mult: 1
    decay_mult: 1
  }
  param {
    lr_mult: 2
    decay_mult: 0
  }
  convolution_param {
    num_output: 192
    pad: 1
    kernel_size: 3
    weight_filler {
      type: "xavier"
      std: 0.03
    }
    bias_filler {
      type: "constant"
      value: 0.2
    }
  }
}
layer {
  name: "conv2/relu_3x3"
  type: "ReLU"
  bottom: "conv2/3x3"
  top: "conv2/3x3"
}
layer {
  name: "conv2/norm2"
  type: "LRN"
  bottom: "conv2/3x3"
  top: "conv2/norm2"
  lrn_param {
    local_size: 5
    alpha: 0.0001
    beta: 0.75
  }
}
layer {
  name: "pool2/3x3_s2"
  type: "Pooling"
  bottom: "conv2/norm2"
  top: "pool2/3x3_s2"
  pooling_param {
    pool: MAX
    kernel_size: 3
    stride: 2
  }
}
layer {
  name: "inception_3a/1x1"
  type: "Convolution"
  bottom: "pool2/3x3_s2"
  top: "inception_3a/1x1"
  param {
    lr_mult: 1
    decay_mult: 1
  }
  param {
    lr_mult: 2
    decay_mult: 0
  }
  convolution_param {
    num_output: 64
    kernel_size: 1
    weight_filler {
      type: "xavier"
      std: 0.03
    }
    bias_filler {
      type: "constant"
      value: 0.2
    }
  }
}
layer {
  name: "inception_3a/relu_1x1"
  type: "ReLU"
  bottom: "inception_3a/1x1"
  top: "inception_3a/1x1"
}
layer {
  name: "inception_3a/3x3_reduce"
  type: "Convolution"
  bottom: "pool2/3x3_s2"
  top: "inception_3a/3x3_reduce"
  param {
    lr_mult: 1
    decay_mult: 1
  }
  param {
    lr_mult: 2
    decay_mult: 0
  }
  convolution_param {
    num_output: 96
    kernel_size: 1
    weight_filler {
      type: "xavier"
      std: 0.09
    }
    bias_filler {
      type: "constant"
      value: 0.2
    }
  }
}
layer {
  name: "inception_3a/relu_3x3_reduce"
  type: "ReLU"
  bottom: "inception_3a/3x3_reduce"
  top: "inception_3a/3x3_reduce"
}
layer {
  name: "inception_3a/3x3"
  type: "Convolution"
  bottom: "inception_3a/3x3_reduce"
  top: "inception_3a/3x3"
  param {
    lr_mult: 1
    decay_mult: 1
  }
  param {
    lr_mult: 2
    decay_mult: 0
  }
  convolution_param {
    num_output: 128
    pad: 1
    kernel_size: 3
    weight_filler {
      type: "xavier"
      std: 0.03
    }
    bias_filler {
      type: "constant"
      value: 0.2
    }
  }
}
layer {
  name: "inception_3a/relu_3x3"
  type: "ReLU"
  bottom: "inception_3a/3x3"
  top: "inception_3a/3x3"
}
layer {
  name: "inception_3a/5x5_reduce"
  type: "Convolution"
  bottom: "pool2/3x3_s2"
  top: "inception_3a/5x5_reduce"
  param {
    lr_mult: 1
    decay_mult: 1
  }
  param {
    lr_mult: 2
    decay_mult: 0
  }
  convolution_param {
    num_output: 16
    kernel_size: 1
    weight_filler {
      type: "xavier"
      std: 0.2
    }
    bias_filler {
      type: "constant"
      value: 0.2
    }
  }
}
layer {
  name: "inception_3a/relu_5x5_reduce"
  type: "ReLU"
  bottom: "inception_3a/5x5_reduce"
  top: "inception_3a/5x5_reduce"
}
layer {
  name: "inception_3a/5x5"
  type: "Convolution"
  bottom: "inception_3a/5x5_reduce"
  top: "inception_3a/5x5"
  param {
    lr_mult: 1
    decay_mult: 1
  }
  param {
    lr_mult: 2
    decay_mult: 0
  }
  convolution_param {
    num_output: 32
    pad: 2
    kernel_size: 5
    weight_filler {
      type: "xavier"
      std: 0.03
    }
    bias_filler {
      type: "constant"
      value: 0.2
    }
  }
}
layer {
  name: "inception_3a/relu_5x5"
  type: "ReLU"
  bottom: "inception_3a/5x5"
  top: "inception_3a/5x5"
}
layer {
  name: "inception_3a/pool"
  type: "Pooling"
  bottom: "pool2/3x3_s2"
  top: "inception_3a/pool"
  pooling_param {
    pool: MAX
    kernel_size: 3
    stride: 1
    pad: 1
  }
}
layer {
  name: "inception_3a/pool_proj"
  type: "Convolution"
  bottom: "inception_3a/pool"
  top: "inception_3a/pool_proj"
  param {
    lr_mult: 1
    decay_mult: 1
  }
  param {
    lr_mult: 2
    decay_mult: 0
  }
  convolution_param {
    num_output: 32
    kernel_size: 1
    weight_filler {
      type: "xavier"
      std: 0.1
    }
    bias_filler {
      type: "constant"
      value: 0.2
    }
  }
}
layer {
  name: "inception_3a/relu_pool_proj"
  type: "ReLU"
  bottom: "inception_3a/pool_proj"
  top: "inception_3a/pool_proj"
}
layer {
  name: "inception_3a/output"
  type: "Concat"
  bottom: "inception_3a/1x1"
  bottom: "inception_3a/3x3"
  bottom: "inception_3a/5x5"
  bottom: "inception_3a/pool_proj"
  top: "inception_3a/output"
}
layer {
  name: "inception_3b/1x1"
  type: "Convolution"
  bottom: "inception_3a/output"
  top: "inception_3b/1x1"
  param {
    lr_mult: 1
    decay_mult: 1
  }
  param {
    lr_mult: 2
    decay_mult: 0
  }
  convolution_param {
    num_output: 128
    kernel_size: 1
    weight_filler {
      type: "xavier"
      std: 0.03
    }
    bias_filler {
      type: "constant"
      value: 0.2
    }
  }
}
layer {
  name: "inception_3b/relu_1x1"
  type: "ReLU"
  bottom: "inception_3b/1x1"
  top: "inception_3b/1x1"
}
layer {
  name: "inception_3b/3x3_reduce"
  type: "Convolution"
  bottom: "inception_3a/output"
  top: "inception_3b/3x3_reduce"
  param {
    lr_mult: 1
    decay_mult: 1
  }
  param {
    lr_mult: 2
    decay_mult: 0
  }
  convolution_param {
    num_output: 128
    kernel_size: 1
    weight_filler {
      type: "xavier"
      std: 0.09
    }
    bias_filler {
      type: "constant"
      value: 0.2
    }
  }
}
layer {
  name: "inception_3b/relu_3x3_reduce"
  type: "ReLU"
  bottom: "inception_3b/3x3_reduce"
  top: "inception_3b/3x3_reduce"
}
layer {
  name: "inception_3b/3x3"
  type: "Convolution"
  bottom: "inception_3b/3x3_reduce"
  top: "inception_3b/3x3"
  param {
    lr_mult: 1
    decay_mult: 1
  }
  param {
    lr_mult: 2
    decay_mult: 0
  }
  convolution_param {
    num_output: 192
    pad: 1
    kernel_size: 3
    weight_filler {
      type: "xavier"
      std: 0.03
    }
    bias_filler {
      type: "constant"
      value: 0.2
    }
  }
}
layer {
  name: "inception_3b/relu_3x3"
  type: "ReLU"
  bottom: "inception_3b/3x3"
  top: "inception_3b/3x3"
}
layer {
  name: "inception_3b/5x5_reduce"
  type: "Convolution"
  bottom: "inception_3a/output"
  top: "inception_3b/5x5_reduce"
  param {
    lr_mult: 1
    decay_mult: 1
  }
  param {
    lr_mult: 2
    decay_mult: 0
  }
  convolution_param {
    num_output: 32
    kernel_size: 1
    weight_filler {
      type: "xavier"
      std: 0.2
    }
    bias_filler {
      type: "constant"
      value: 0.2
    }
  }
}
layer {
  name: "inception_3b/relu_5x5_reduce"
  type: "ReLU"
  bottom: "inception_3b/5x5_reduce"
  top: "inception_3b/5x5_reduce"
}
layer {
  name: "inception_3b/5x5"
  type: "Convolution"
  bottom: "inception_3b/5x5_reduce"
  top: "inception_3b/5x5"
  param {
    lr_mult: 1
    decay_mult: 1
  }
  param {
    lr_mult: 2
    decay_mult: 0
  }
  convolution_param {
    num_output: 96
    pad: 2
    kernel_size: 5
    weight_filler {
      type: "xavier"
      std: 0.03
    }
    bias_filler {
      type: "constant"
      value: 0.2
    }
  }
}
layer {
  name: "inception_3b/relu_5x5"
  type: "ReLU"
  bottom: "inception_3b/5x5"
  top: "inception_3b/5x5"
}
layer {
  name: "inception_3b/pool"
  type: "Pooling"
  bottom: "inception_3a/output"
  top: "inception_3b/pool"
  pooling_param {
    pool: MAX
    kernel_size: 3
    stride: 1
    pad: 1
  }
}
layer {
  name: "inception_3b/pool_proj"
  type: "Convolution"
  bottom: "inception_3b/pool"
  top: "inception_3b/pool_proj"
  param {
    lr_mult: 1
    decay_mult: 1
  }
  param {
    lr_mult: 2
    decay_mult: 0
  }
  convolution_param {
    num_output: 64
    kernel_size: 1
    weight_filler {
      type: "xavier"
      std: 0.1
    }
    bias_filler {
      type: "constant"
      value: 0.2
    }
  }
}
layer {
  name: "inception_3b/relu_pool_proj"
  type: "ReLU"
  bottom: "inception_3b/pool_proj"
  top: "inception_3b/pool_proj"
}
layer {
  name: "inception_3b/output"
  type: "Concat"
  bottom: "inception_3b/1x1"
  bottom: "inception_3b/3x3"
  bottom: "inception_3b/5x5"
  bottom: "inception_3b/pool_proj"
  top: "inception_3b/output"
}
layer {
  name: "pool3/3x3_s2"
  type: "Pooling"
  bottom: "inception_3b/output"
  top: "pool3/3x3_s2"
  pooling_param {
    pool: MAX
    kernel_size: 3
    stride: 2
  }
}
layer {
  name: "inception_4a/1x1"
  type: "Convolution"
  bottom: "pool3/3x3_s2"
  top: "inception_4a/1x1"
  param {
    lr_mult: 1
    decay_mult: 1
  }
  param {
    lr_mult: 2
    decay_mult: 0
  }
  convolution_param {
    num_output: 192
    kernel_size: 1
    weight_filler {
      type: "xavier"
      std: 0.03
    }
    bias_filler {
      type: "constant"
      value: 0.2
    }
  }
}
layer {
  name: "inception_4a/relu_1x1"
  type: "ReLU"
  bottom: "inception_4a/1x1"
  top: "inception_4a/1x1"
}
layer {
  name: "inception_4a/3x3_reduce"
  type: "Convolution"
  bottom: "pool3/3x3_s2"
  top: "inception_4a/3x3_reduce"
  param {
    lr_mult: 1
    decay_mult: 1
  }
  param {
    lr_mult: 2
    decay_mult: 0
  }
  convolution_param {
    num_output: 96
    kernel_size: 1
    weight_filler {
      type: "xavier"
      std: 0.09
    }
    bias_filler {
      type: "constant"
      value: 0.2
    }
  }
}
layer {
  name: "inception_4a/relu_3x3_reduce"
  type: "ReLU"
  bottom: "inception_4a/3x3_reduce"
  top: "inception_4a/3x3_reduce"
}
layer {
  name: "inception_4a/3x3"
  type: "Convolution"
  bottom: "inception_4a/3x3_reduce"
  top: "inception_4a/3x3"
  param {
    lr_mult: 1
    decay_mult: 1
  }
  param {
    lr_mult: 2
    decay_mult: 0
  }
  convolution_param {
    num_output: 208
    pad: 1
    kernel_size: 3
    weight_filler {
      type: "xavier"
      std: 0.03
    }
    bias_filler {
      type: "constant"
      value: 0.2
    }
  }
}
layer {
  name: "inception_4a/relu_3x3"
  type: "ReLU"
  bottom: "inception_4a/3x3"
  top: "inception_4a/3x3"
}
layer {
  name: "inception_4a/5x5_reduce"
  type: "Convolution"
  bottom: "pool3/3x3_s2"
  top: "inception_4a/5x5_reduce"
  param {
    lr_mult: 1
    decay_mult: 1
  }
  param {
    lr_mult: 2
    decay_mult: 0
  }
  convolution_param {
    num_output: 16
    kernel_size: 1
    weight_filler {
      type: "xavier"
      std: 0.2
    }
    bias_filler {
      type: "constant"
      value: 0.2
    }
  }
}
layer {
  name: "inception_4a/relu_5x5_reduce"
  type: "ReLU"
  bottom: "inception_4a/5x5_reduce"
  top: "inception_4a/5x5_reduce"
}
layer {
  name: "inception_4a/5x5"
  type: "Convolution"
  bottom: "inception_4a/5x5_reduce"
  top: "inception_4a/5x5"
  param {
    lr_mult: 1
    decay_mult: 1
  }
  param {
    lr_mult: 2
    decay_mult: 0
  }
  convolution_param {
    num_output: 48
    pad: 2
    kernel_size: 5
    weight_filler {
      type: "xavier"
      std: 0.03
    }
    bias_filler {
      type: "constant"
      value: 0.2
    }
  }
}
layer {
  name: "inception_4a/relu_5x5"
  type: "ReLU"
  bottom: "inception_4a/5x5"
  top: "inception_4a/5x5"
}
layer {
  name: "inception_4a/pool"
  type: "Pooling"
  bottom: "pool3/3x3_s2"
  top: "inception_4a/pool"
  pooling_param {
    pool: MAX
    kernel_size: 3
    stride: 1
    pad: 1
  }
}
layer {
  name: "inception_4a/pool_proj"
  type: "Convolution"
  bottom: "inception_4a/pool"
  top: "inception_4a/pool_proj"
  param {
    lr_mult: 1
    decay_mult: 1
  }
  param {
    lr_mult: 2
    decay_mult: 0
  }
  convolution_param {
    num_output: 64
    kernel_size: 1
    weight_filler {
      type: "xavier"
      std: 0.1
    }
    bias_filler {
      type: "constant"
      value: 0.2
    }
  }
}
layer {
  name: "inception_4a/relu_pool_proj"
  type: "ReLU"
  bottom: "inception_4a/pool_proj"
  top: "inception_4a/pool_proj"
}
layer {
  name: "inception_4a/output"
  type: "Concat"
  bottom: "inception_4a/1x1"
  bottom: "inception_4a/3x3"
  bottom: "inception_4a/5x5"
  bottom: "inception_4a/pool_proj"
  top: "inception_4a/output"
}
layer {
  name: "inception_4b/1x1"
  type: "Convolution"
  bottom: "inception_4a/output"
  top: "inception_4b/1x1"
  param {
    lr_mult: 1
    decay_mult: 1
  }
  param {
    lr_mult: 2
    decay_mult: 0
  }
  convolution_param {
    num_output: 160
    kernel_size: 1
    weight_filler {
      type: "xavier"
      std: 0.03
    }
    bias_filler {
      type: "constant"
      value: 0.2
    }
  }
}
layer {
  name: "inception_4b/relu_1x1"
  type: "ReLU"
  bottom: "inception_4b/1x1"
  top: "inception_4b/1x1"
}
layer {
  name: "inception_4b/3x3_reduce"
  type: "Convolution"
  bottom: "inception_4a/output"
  top: "inception_4b/3x3_reduce"
  param {
    lr_mult: 1
    decay_mult: 1
  }
  param {
    lr_mult: 2
    decay_mult: 0
  }
  convolution_param {
    num_output: 112
    kernel_size: 1
    weight_filler {
      type: "xavier"
      std: 0.09
    }
    bias_filler {
      type: "constant"
      value: 0.2
    }
  }
}
layer {
  name: "inception_4b/relu_3x3_reduce"
  type: "ReLU"
  bottom: "inception_4b/3x3_reduce"
  top: "inception_4b/3x3_reduce"
}
layer {
  name: "inception_4b/3x3"
  type: "Convolution"
  bottom: "inception_4b/3x3_reduce"
  top: "inception_4b/3x3"
  param {
    lr_mult: 1
    decay_mult: 1
  }
  param {
    lr_mult: 2
    decay_mult: 0
  }
  convolution_param {
    num_output: 224
    pad: 1
    kernel_size: 3
    weight_filler {
      type: "xavier"
      std: 0.03
    }
    bias_filler {
      type: "constant"
      value: 0.2
    }
  }
}
layer {
  name: "inception_4b/relu_3x3"
  type: "ReLU"
  bottom: "inception_4b/3x3"
  top: "inception_4b/3x3"
}
layer {
  name: "inception_4b/5x5_reduce"
  type: "Convolution"
  bottom: "inception_4a/output"
  top: "inception_4b/5x5_reduce"
  param {
    lr_mult: 1
    decay_mult: 1
  }
  param {
    lr_mult: 2
    decay_mult: 0
  }
  convolution_param {
    num_output: 24
    kernel_size: 1
    weight_filler {
      type: "xavier"
      std: 0.2
    }
    bias_filler {
      type: "constant"
      value: 0.2
    }
  }
}
layer {
  name: "inception_4b/relu_5x5_reduce"
  type: "ReLU"
  bottom: "inception_4b/5x5_reduce"
  top: "inception_4b/5x5_reduce"
}
layer {
  name: "inception_4b/5x5"
  type: "Convolution"
  bottom: "inception_4b/5x5_reduce"
  top: "inception_4b/5x5"
  param {
    lr_mult: 1
    decay_mult: 1
  }
  param {
    lr_mult: 2
    decay_mult: 0
  }
  convolution_param {
    num_output: 64
    pad: 2
    kernel_size: 5
    weight_filler {
      type: "xavier"
      std: 0.03
    }
    bias_filler {
      type: "constant"
      value: 0.2
    }
  }
}
layer {
  name: "inception_4b/relu_5x5"
  type: "ReLU"
  bottom: "inception_4b/5x5"
  top: "inception_4b/5x5"
}
layer {
  name: "inception_4b/pool"
  type: "Pooling"
  bottom: "inception_4a/output"
  top: "inception_4b/pool"
  pooling_param {
    pool: MAX
    kernel_size: 3
    stride: 1
    pad: 1
  }
}
layer {
  name: "inception_4b/pool_proj"
  type: "Convolution"
  bottom: "inception_4b/pool"
  top: "inception_4b/pool_proj"
  param {
    lr_mult: 1
    decay_mult: 1
  }
  param {
    lr_mult: 2
    decay_mult: 0
  }
  convolution_param {
    num_output: 64
    kernel_size: 1
    weight_filler {
      type: "xavier"
      std: 0.1
    }
    bias_filler {
      type: "constant"
      value: 0.2
    }
  }
}
layer {
  name: "inception_4b/relu_pool_proj"
  type: "ReLU"
  bottom: "inception_4b/pool_proj"
  top: "inception_4b/pool_proj"
}
layer {
  name: "inception_4b/output"
  type: "Concat"
  bottom: "inception_4b/1x1"
  bottom: "inception_4b/3x3"
  bottom: "inception_4b/5x5"
  bottom: "inception_4b/pool_proj"
  top: "inception_4b/output"
}
layer {
  name: "inception_4c/1x1"
  type: "Convolution"
  bottom: "inception_4b/output"
  top: "inception_4c/1x1"
  param {
    lr_mult: 1
    decay_mult: 1
  }
  param {
    lr_mult: 2
    decay_mult: 0
  }
  convolution_param {
    num_output: 128
    kernel_size: 1
    weight_filler {
      type: "xavier"
      std: 0.03
    }
    bias_filler {
      type: "constant"
      value: 0.2
    }
  }
}
layer {
  name: "inception_4c/relu_1x1"
  type: "ReLU"
  bottom: "inception_4c/1x1"
  top: "inception_4c/1x1"
}
layer {
  name: "inception_4c/3x3_reduce"
  type: "Convolution"
  bottom: "inception_4b/output"
  top: "inception_4c/3x3_reduce"
  param {
    lr_mult: 1
    decay_mult: 1
  }
  param {
    lr_mult: 2
    decay_mult: 0
  }
  convolution_param {
    num_output: 128
    kernel_size: 1
    weight_filler {
      type: "xavier"
      std: 0.09
    }
    bias_filler {
      type: "constant"
      value: 0.2
    }
  }
}
layer {
  name: "inception_4c/relu_3x3_reduce"
  type: "ReLU"
  bottom: "inception_4c/3x3_reduce"
  top: "inception_4c/3x3_reduce"
}
layer {
  name: "inception_4c/3x3"
  type: "Convolution"
  bottom: "inception_4c/3x3_reduce"
  top: "inception_4c/3x3"
  param {
    lr_mult: 1
    decay_mult: 1
  }
  param {
    lr_mult: 2
    decay_mult: 0
  }
  convolution_param {
    num_output: 256
    pad: 1
    kernel_size: 3
    weight_filler {
      type: "xavier"
      std: 0.03
    }
    bias_filler {
      type: "constant"
      value: 0.2
    }
  }
}
layer {
  name: "inception_4c/relu_3x3"
  type: "ReLU"
  bottom: "inception_4c/3x3"
  top: "inception_4c/3x3"
}
layer {
  name: "inception_4c/5x5_reduce"
  type: "Convolution"
  bottom: "inception_4b/output"
  top: "inception_4c/5x5_reduce"
  param {
    lr_mult: 1
    decay_mult: 1
  }
  param {
    lr_mult: 2
    decay_mult: 0
  }
  convolution_param {
    num_output: 24
    kernel_size: 1
    weight_filler {
      type: "xavier"
      std: 0.2
    }
    bias_filler {
      type: "constant"
      value: 0.2
    }
  }
}
layer {
  name: "inception_4c/relu_5x5_reduce"
  type: "ReLU"
  bottom: "inception_4c/5x5_reduce"
  top: "inception_4c/5x5_reduce"
}
layer {
  name: "inception_4c/5x5"
  type: "Convolution"
  bottom: "inception_4c/5x5_reduce"
  top: "inception_4c/5x5"
  param {
    lr_mult: 1
    decay_mult: 1
  }
  param {
    lr_mult: 2
    decay_mult: 0
  }
  convolution_param {
    num_output: 64
    pad: 2
    kernel_size: 5
    weight_filler {
      type: "xavier"
      std: 0.03
    }
    bias_filler {
      type: "constant"
      value: 0.2
    }
  }
}
layer {
  name: "inception_4c/relu_5x5"
  type: "ReLU"
  bottom: "inception_4c/5x5"
  top: "inception_4c/5x5"
}
layer {
  name: "inception_4c/pool"
  type: "Pooling"
  bottom: "inception_4b/output"
  top: "inception_4c/pool"
  pooling_param {
    pool: MAX
    kernel_size: 3
    stride: 1
    pad: 1
  }
}
layer {
  name: "inception_4c/pool_proj"
  type: "Convolution"
  bottom: "inception_4c/pool"
  top: "inception_4c/pool_proj"
  param {
    lr_mult: 1
    decay_mult: 1
  }
  param {
    lr_mult: 2
    decay_mult: 0
  }
  convolution_param {
    num_output: 64
    kernel_size: 1
    weight_filler {
      type: "xavier"
      std: 0.1
    }
    bias_filler {
      type: "constant"
      value: 0.2
    }
  }
}
layer {
  name: "inception_4c/relu_pool_proj"
  type: "ReLU"
  bottom: "inception_4c/pool_proj"
  top: "inception_4c/pool_proj"
}
layer {
  name: "inception_4c/output"
  type: "Concat"
  bottom: "inception_4c/1x1"
  bottom: "inception_4c/3x3"
  bottom: "inception_4c/5x5"
  bottom: "inception_4c/pool_proj"
  top: "inception_4c/output"
}
layer {
  name: "inception_4d/1x1"
  type: "Convolution"
  bottom: "inception_4c/output"
  top: "inception_4d/1x1"
  param {
    lr_mult: 1
    decay_mult: 1
  }
  param {
    lr_mult: 2
    decay_mult: 0
  }
  convolution_param {
    num_output: 112
    kernel_size: 1
    weight_filler {
      type: "xavier"
      std: 0.03
    }
    bias_filler {
      type: "constant"
      value: 0.2
    }
  }
}
layer {
  name: "inception_4d/relu_1x1"
  type: "ReLU"
  bottom: "inception_4d/1x1"
  top: "inception_4d/1x1"
}
layer {
  name: "inception_4d/3x3_reduce"
  type: "Convolution"
  bottom: "inception_4c/output"
  top: "inception_4d/3x3_reduce"
  param {
    lr_mult: 1
    decay_mult: 1
  }
  param {
    lr_mult: 2
    decay_mult: 0
  }
  convolution_param {
    num_output: 144
    kernel_size: 1
    weight_filler {
      type: "xavier"
      std: 0.09
    }
    bias_filler {
      type: "constant"
      value: 0.2
    }
  }
}
layer {
  name: "inception_4d/relu_3x3_reduce"
  type: "ReLU"
  bottom: "inception_4d/3x3_reduce"
  top: "inception_4d/3x3_reduce"
}
layer {
  name: "inception_4d/3x3"
  type: "Convolution"
  bottom: "inception_4d/3x3_reduce"
  top: "inception_4d/3x3"
  param {
    lr_mult: 1
    decay_mult: 1
  }
  param {
    lr_mult: 2
    decay_mult: 0
  }
  convolution_param {
    num_output: 288
    pad: 1
    kernel_size: 3
    weight_filler {
      type: "xavier"
      std: 0.03
    }
    bias_filler {
      type: "constant"
      value: 0.2
    }
  }
}
layer {
  name: "inception_4d/relu_3x3"
  type: "ReLU"
  bottom: "inception_4d/3x3"
  top: "inception_4d/3x3"
}
layer {
  name: "inception_4d/5x5_reduce"
  type: "Convolution"
  bottom: "inception_4c/output"
  top: "inception_4d/5x5_reduce"
  param {
    lr_mult: 1
    decay_mult: 1
  }
  param {
    lr_mult: 2
    decay_mult: 0
  }
  convolution_param {
    num_output: 32
    kernel_size: 1
    weight_filler {
      type: "xavier"
      std: 0.2
    }
    bias_filler {
      type: "constant"
      value: 0.2
    }
  }
}
layer {
  name: "inception_4d/relu_5x5_reduce"
  type: "ReLU"
  bottom: "inception_4d/5x5_reduce"
  top: "inception_4d/5x5_reduce"
}
layer {
  name: "inception_4d/5x5"
  type: "Convolution"
  bottom: "inception_4d/5x5_reduce"
  top: "inception_4d/5x5"
  param {
    lr_mult: 1
    decay_mult: 1
  }
  param {
    lr_mult: 2
    decay_mult: 0
  }
  convolution_param {
    num_output: 64
    pad: 2
    kernel_size: 5
    weight_filler {
      type: "xavier"
      std: 0.03
    }
    bias_filler {
      type: "constant"
      value: 0.2
    }
  }
}
layer {
  name: "inception_4d/relu_5x5"
  type: "ReLU"
  bottom: "inception_4d/5x5"
  top: "inception_4d/5x5"
}
layer {
  name: "inception_4d/pool"
  type: "Pooling"
  bottom: "inception_4c/output"
  top: "inception_4d/pool"
  pooling_param {
    pool: MAX
    kernel_size: 3
    stride: 1
    pad: 1
  }
}
layer {
  name: "inception_4d/pool_proj"
  type: "Convolution"
  bottom: "inception_4d/pool"
  top: "inception_4d/pool_proj"
  param {
    lr_mult: 1
    decay_mult: 1
  }
  param {
    lr_mult: 2
    decay_mult: 0
  }
  convolution_param {
    num_output: 64
    kernel_size: 1
    weight_filler {
      type: "xavier"
      std: 0.1
    }
    bias_filler {
      type: "constant"
      value: 0.2
    }
  }
}
layer {
  name: "inception_4d/relu_pool_proj"
  type: "ReLU"
  bottom: "inception_4d/pool_proj"
  top: "inception_4d/pool_proj"
}
layer {
  name: "inception_4d/output"
  type: "Concat"
  bottom: "inception_4d/1x1"
  bottom: "inception_4d/3x3"
  bottom: "inception_4d/5x5"
  bottom: "inception_4d/pool_proj"
  top: "inception_4d/output"
}
layer {
  name: "inception_4e/1x1"
  type: "Convolution"
  bottom: "inception_4d/output"
  top: "inception_4e/1x1"
  param {
    lr_mult: 1
    decay_mult: 1
  }
  param {
    lr_mult: 2
    decay_mult: 0
  }
  convolution_param {
    num_output: 256
    kernel_size: 1
    weight_filler {
      type: "xavier"
      std: 0.03
    }
    bias_filler {
      type: "constant"
      value: 0.2
    }
  }
}
layer {
  name: "inception_4e/relu_1x1"
  type: "ReLU"
  bottom: "inception_4e/1x1"
  top: "inception_4e/1x1"
}
layer {
  name: "inception_4e/3x3_reduce"
  type: "Convolution"
  bottom: "inception_4d/output"
  top: "inception_4e/3x3_reduce"
  param {
    lr_mult: 1
    decay_mult: 1
  }
  param {
    lr_mult: 2
    decay_mult: 0
  }
  convolution_param {
    num_output: 160
    kernel_size: 1
    weight_filler {
      type: "xavier"
      std: 0.09
    }
    bias_filler {
      type: "constant"
      value: 0.2
    }
  }
}
layer {
  name: "inception_4e/relu_3x3_reduce"
  type: "ReLU"
  bottom: "inception_4e/3x3_reduce"
  top: "inception_4e/3x3_reduce"
}
layer {
  name: "inception_4e/3x3"
  type: "Convolution"
  bottom: "inception_4e/3x3_reduce"
  top: "inception_4e/3x3"
  param {
    lr_mult: 1
    decay_mult: 1
  }
  param {
    lr_mult: 2
    decay_mult: 0
  }
  convolution_param {
    num_output: 320
    pad: 1
    kernel_size: 3
    weight_filler {
      type: "xavier"
      std: 0.03
    }
    bias_filler {
      type: "constant"
      value: 0.2
    }
  }
}
layer {
  name: "inception_4e/relu_3x3"
  type: "ReLU"
  bottom: "inception_4e/3x3"
  top: "inception_4e/3x3"
}
layer {
  name: "inception_4e/5x5_reduce"
  type: "Convolution"
  bottom: "inception_4d/output"
  top: "inception_4e/5x5_reduce"
  param {
    lr_mult: 1
    decay_mult: 1
  }
  param {
    lr_mult: 2
    decay_mult: 0
  }
  convolution_param {
    num_output: 32
    kernel_size: 1
    weight_filler {
      type: "xavier"
      std: 0.2
    }
    bias_filler {
      type: "constant"
      value: 0.2
    }
  }
}
layer {
  name: "inception_4e/relu_5x5_reduce"
  type: "ReLU"
  bottom: "inception_4e/5x5_reduce"
  top: "inception_4e/5x5_reduce"
}
layer {
  name: "inception_4e/5x5"
  type: "Convolution"
  bottom: "inception_4e/5x5_reduce"
  top: "inception_4e/5x5"
  param {
    lr_mult: 1
    decay_mult: 1
  }
  param {
    lr_mult: 2
    decay_mult: 0
  }
  convolution_param {
    num_output: 128
    pad: 2
    kernel_size: 5
    weight_filler {
      type: "xavier"
      std: 0.03
    }
    bias_filler {
      type: "constant"
      value: 0.2
    }
  }
}
layer {
  name: "inception_4e/relu_5x5"
  type: "ReLU"
  bottom: "inception_4e/5x5"
  top: "inception_4e/5x5"
}
layer {
  name: "inception_4e/pool"
  type: "Pooling"
  bottom: "inception_4d/output"
  top: "inception_4e/pool"
  pooling_param {
    pool: MAX
    kernel_size: 3
    stride: 1
    pad: 1
  }
}
layer {
  name: "inception_4e/pool_proj"
  type: "Convolution"
  bottom: "inception_4e/pool"
  top: "inception_4e/pool_proj"
  param {
    lr_mult: 1
    decay_mult: 1
  }
  param {
    lr_mult: 2
    decay_mult: 0
  }
  convolution_param {
    num_output: 128
    kernel_size: 1
    weight_filler {
      type: "xavier"
      std: 0.1
    }
    bias_filler {
      type: "constant"
      value: 0.2
    }
  }
}
layer {
  name: "inception_4e/relu_pool_proj"
  type: "ReLU"
  bottom: "inception_4e/pool_proj"
  top: "inception_4e/pool_proj"
}
layer {
  name: "inception_4e/output"
  type: "Concat"
  bottom: "inception_4e/1x1"
  bottom: "inception_4e/3x3"
  bottom: "inception_4e/5x5"
  bottom: "inception_4e/pool_proj"
  top: "inception_4e/output"
}
layer {
  name: "pool4/3x3_s2"
  type: "Pooling"
  bottom: "inception_4e/output"
  top: "pool4/3x3_s2"
  pooling_param {
    pool: MAX
    kernel_size: 3
    stride: 2
  }
}
layer {
  name: "inception_5a/1x1"
  type: "Convolution"
  bottom: "pool4/3x3_s2"
  top: "inception_5a/1x1"
  param {
    lr_mult: 1
    decay_mult: 1
  }
  param {
    lr_mult: 2
    decay_mult: 0
  }
  convolution_param {
    num_output: 256
    kernel_size: 1
    weight_filler {
      type: "xavier"
      std: 0.03
    }
    bias_filler {
      type: "constant"
      value: 0.2
    }
  }
}
layer {
  name: "inception_5a/relu_1x1"
  type: "ReLU"
  bottom: "inception_5a/1x1"
  top: "inception_5a/1x1"
}
layer {
  name: "inception_5a/3x3_reduce"
  type: "Convolution"
  bottom: "pool4/3x3_s2"
  top: "inception_5a/3x3_reduce"
  param {
    lr_mult: 1
    decay_mult: 1
  }
  param {
    lr_mult: 2
    decay_mult: 0
  }
  convolution_param {
    num_output: 160
    kernel_size: 1
    weight_filler {
      type: "xavier"
      std: 0.09
    }
    bias_filler {
      type: "constant"
      value: 0.2
    }
  }
}
layer {
  name: "inception_5a/relu_3x3_reduce"
  type: "ReLU"
  bottom: "inception_5a/3x3_reduce"
  top: "inception_5a/3x3_reduce"
}
layer {
  name: "inception_5a/3x3"
  type: "Convolution"
  bottom: "inception_5a/3x3_reduce"
  top: "inception_5a/3x3"
  param {
    lr_mult: 1
    decay_mult: 1
  }
  param {
    lr_mult: 2
    decay_mult: 0
  }
  convolution_param {
    num_output: 320
    pad: 1
    kernel_size: 3
    weight_filler {
      type: "xavier"
      std: 0.03
    }
    bias_filler {
      type: "constant"
      value: 0.2
    }
  }
}
layer {
  name: "inception_5a/relu_3x3"
  type: "ReLU"
  bottom: "inception_5a/3x3"
  top: "inception_5a/3x3"
}
layer {
  name: "inception_5a/5x5_reduce"
  type: "Convolution"
  bottom: "pool4/3x3_s2"
  top: "inception_5a/5x5_reduce"
  param {
    lr_mult: 1
    decay_mult: 1
  }
  param {
    lr_mult: 2
    decay_mult: 0
  }
  convolution_param {
    num_output: 32
    kernel_size: 1
    weight_filler {
      type: "xavier"
      std: 0.2
    }
    bias_filler {
      type: "constant"
      value: 0.2
    }
I0913 20:18:22.961133  2050 layer_factory.hpp:77] Creating layer data
I0913 20:18:22.961158  2050 net.cpp:91] Creating Layer data
I0913 20:18:22.961169  2050 net.cpp:399] data -> data
I0913 20:18:23.467315  2050 net.cpp:141] Setting up data
I0913 20:18:23.467386  2050 net.cpp:148] Top shape: 10 3 224 224 (1505280)
I0913 20:18:23.467392  2050 net.cpp:156] Memory required for data: 6021120
I0913 20:18:23.467411  2050 layer_factory.hpp:77] Creating layer conv1/7x7_s2
I0913 20:18:23.467447  2050 net.cpp:91] Creating Layer conv1/7x7_s2
I0913 20:18:23.467454  2050 net.cpp:425] conv1/7x7_s2 <- data
I0913 20:18:23.467468  2050 net.cpp:399] conv1/7x7_s2 -> conv1/7x7_s2
I0913 20:18:23.661828  2050 net.cpp:141] Setting up conv1/7x7_s2
I0913 20:18:23.661871  2050 net.cpp:148] Top shape: 10 64 112 112 (8028160)
I0913 20:18:23.661878  2050 net.cpp:156] Memory required for data: 38133760
I0913 20:18:23.661901  2050 layer_factory.hpp:77] Creating layer conv1/relu_7x7
I0913 20:18:23.661927  2050 net.cpp:91] Creating Layer conv1/relu_7x7
I0913 20:18:23.661934  2050 net.cpp:425] conv1/relu_7x7 <- conv1/7x7_s2
I0913 20:18:23.661942  2050 net.cpp:386] conv1/relu_7x7 -> conv1/7x7_s2 (in-place)
I0913 20:18:23.662317  2050 net.cpp:141] Setting up conv1/relu_7x7
I0913 20:18:23.662330  2050 net.cpp:148] Top shape: 10 64 112 112 (8028160)
I0913 20:18:23.662335  2050 net.cpp:156] Memory required for data: 70246400
I0913 20:18:23.662340  2050 layer_factory.hpp:77] Creating layer pool1/3x3_s2
I0913 20:18:23.662353  2050 net.cpp:91] Creating Layer pool1/3x3_s2
I0913 20:18:23.662358  2050 net.cpp:425] pool1/3x3_s2 <- conv1/7x7_s2
I0913 20:18:23.662365  2050 net.cpp:399] pool1/3x3_s2 -> pool1/3x3_s2
I0913 20:18:23.662434  2050 net.cpp:141] Setting up pool1/3x3_s2
I0913 20:18:23.662446  2050 net.cpp:148] Top shape: 10 64 56 56 (2007040)
I0913 20:18:23.662451  2050 net.cpp:156] Memory required for data: 78274560
I0913 20:18:23.662456  2050 layer_factory.hpp:77] Creating layer pool1/norm1
I0913 20:18:23.662470  2050 net.cpp:91] Creating Layer pool1/norm1
I0913 20:18:23.662475  2050 net.cpp:425] pool1/norm1 <- pool1/3x3_s2
I0913 20:18:23.662483  2050 net.cpp:399] pool1/norm1 -> pool1/norm1
I0913 20:18:23.662721  2050 net.cpp:141] Setting up pool1/norm1
I0913 20:18:23.662734  2050 net.cpp:148] Top shape: 10 64 56 56 (2007040)
I0913 20:18:23.662739  2050 net.cpp:156] Memory required for data: 86302720
I0913 20:18:23.662744  2050 layer_factory.hpp:77] Creating layer conv2/3x3_reduce
I0913 20:18:23.662760  2050 net.cpp:91] Creating Layer conv2/3x3_reduce
I0913 20:18:23.662765  2050 net.cpp:425] conv2/3x3_reduce <- pool1/norm1
I0913 20:18:23.662773  2050 net.cpp:399] conv2/3x3_reduce -> conv2/3x3_reduce
I0913 20:18:23.664726  2050 net.cpp:141] Setting up conv2/3x3_reduce
I0913 20:18:23.664744  2050 net.cpp:148] Top shape: 10 64 56 56 (2007040)
I0913 20:18:23.664750  2050 net.cpp:156] Memory required for data: 94330880
I0913 20:18:23.664762  2050 layer_factory.hpp:77] Creating layer conv2/relu_3x3_reduce
I0913 20:18:23.664772  2050 net.cpp:91] Creating Layer conv2/relu_3x3_reduce
I0913 20:18:23.664777  2050 net.cpp:425] conv2/relu_3x3_reduce <- conv2/3x3_reduce
I0913 20:18:23.664784  2050 net.cpp:386] conv2/relu_3x3_reduce -> conv2/3x3_reduce (in-place)
I0913 20:18:23.665139  2050 net.cpp:141] Setting up conv2/relu_3x3_reduce
I0913 20:18:23.665153  2050 net.cpp:148] Top shape: 10 64 56 56 (2007040)
I0913 20:18:23.665158  2050 net.cpp:156] Memory required for data: 102359040
I0913 20:18:23.665165  2050 layer_factory.hpp:77] Creating layer conv2/3x3
I0913 20:18:23.665179  2050 net.cpp:91] Creating Layer conv2/3x3
I0913 20:18:23.665184  2050 net.cpp:425] conv2/3x3 <- conv2/3x3_reduce
I0913 20:18:23.665192  2050 net.cpp:399] conv2/3x3 -> conv2/3x3
I0913 20:18:23.668155  2050 net.cpp:141] Setting up conv2/3x3
I0913 20:18:23.668174  2050 net.cpp:148] Top shape: 10 192 56 56 (6021120)
I0913 20:18:23.668180  2050 net.cpp:156] Memory required for data: 126443520
I0913 20:18:23.668192  2050 layer_factory.hpp:77] Creating layer conv2/relu_3x3
I0913 20:18:23.668202  2050 net.cpp:91] Creating Layer conv2/relu_3x3
I0913 20:18:23.668208  2050 net.cpp:425] conv2/relu_3x3 <- conv2/3x3
I0913 20:18:23.668215  2050 net.cpp:386] conv2/relu_3x3 -> conv2/3x3 (in-place)
I0913 20:18:23.668434  2050 net.cpp:141] Setting up conv2/relu_3x3
I0913 20:18:23.668447  2050 net.cpp:148] Top shape: 10 192 56 56 (6021120)
I0913 20:18:23.668452  2050 net.cpp:156] Memory required for data: 150528000
I0913 20:18:23.668457  2050 layer_factory.hpp:77] Creating layer conv2/norm2
I0913 20:18:23.668467  2050 net.cpp:91] Creating Layer conv2/norm2
I0913 20:18:23.668472  2050 net.cpp:425] conv2/norm2 <- conv2/3x3
I0913 20:18:23.668479  2050 net.cpp:399] conv2/norm2 -> conv2/norm2
I0913 20:18:23.668880  2050 net.cpp:141] Setting up conv2/norm2
I0913 20:18:23.668894  2050 net.cpp:148] Top shape: 10 192 56 56 (6021120)
I0913 20:18:23.668898  2050 net.cpp:156] Memory required for data: 174612480
I0913 20:18:23.668905  2050 layer_factory.hpp:77] Creating layer pool2/3x3_s2
I0913 20:18:23.668913  2050 net.cpp:91] Creating Layer pool2/3x3_s2
I0913 20:18:23.668918  2050 net.cpp:425] pool2/3x3_s2 <- conv2/norm2
I0913 20:18:23.668926  2050 net.cpp:399] pool2/3x3_s2 -> pool2/3x3_s2
I0913 20:18:23.668970  2050 net.cpp:141] Setting up pool2/3x3_s2
I0913 20:18:23.668979  2050 net.cpp:148] Top shape: 10 192 28 28 (1505280)
I0913 20:18:23.668984  2050 net.cpp:156] Memory required for data: 180633600
I0913 20:18:23.668989  2050 layer_factory.hpp:77] Creating layer pool2/3x3_s2_pool2/3x3_s2_0_split
I0913 20:18:23.669005  2050 net.cpp:91] Creating Layer pool2/3x3_s2_pool2/3x3_s2_0_split
I0913 20:18:23.669010  2050 net.cpp:425] pool2/3x3_s2_pool2/3x3_s2_0_split <- pool2/3x3_s2
I0913 20:18:23.669018  2050 net.cpp:399] pool2/3x3_s2_pool2/3x3_s2_0_split -> pool2/3x3_s2_pool2/3x3_s2_0_split_0
I0913 20:18:23.669028  2050 net.cpp:399] pool2/3x3_s2_pool2/3x3_s2_0_split -> pool2/3x3_s2_pool2/3x3_s2_0_split_1
I0913 20:18:23.669036  2050 net.cpp:399] pool2/3x3_s2_pool2/3x3_s2_0_split -> pool2/3x3_s2_pool2/3x3_s2_0_split_2
I0913 20:18:23.669044  2050 net.cpp:399] pool2/3x3_s2_pool2/3x3_s2_0_split -> pool2/3x3_s2_pool2/3x3_s2_0_split_3
I0913 20:18:23.669108  2050 net.cpp:141] Setting up pool2/3x3_s2_pool2/3x3_s2_0_split
I0913 20:18:23.669117  2050 net.cpp:148] Top shape: 10 192 28 28 (1505280)
I0913 20:18:23.669123  2050 net.cpp:148] Top shape: 10 192 28 28 (1505280)
I0913 20:18:23.669129  2050 net.cpp:148] Top shape: 10 192 28 28 (1505280)
I0913 20:18:23.669134  2050 net.cpp:148] Top shape: 10 192 28 28 (1505280)
I0913 20:18:23.669138  2050 net.cpp:156] Memory required for data: 204718080
I0913 20:18:23.669143  2050 layer_factory.hpp:77] Creating layer inception_3a/1x1
I0913 20:18:23.669157  2050 net.cpp:91] Creating Layer inception_3a/1x1
I0913 20:18:23.669162  2050 net.cpp:425] inception_3a/1x1 <- pool2/3x3_s2_pool2/3x3_s2_0_split_0
I0913 20:18:23.669183  2050 net.cpp:399] inception_3a/1x1 -> inception_3a/1x1
I0913 20:18:23.671061  2050 net.cpp:141] Setting up inception_3a/1x1
I0913 20:18:23.671078  2050 net.cpp:148] Top shape: 10 64 28 28 (501760)
I0913 20:18:23.671084  2050 net.cpp:156] Memory required for data: 206725120
I0913 20:18:23.671093  2050 layer_factory.hpp:77] Creating layer inception_3a/relu_1x1
I0913 20:18:23.671106  2050 net.cpp:91] Creating Layer inception_3a/relu_1x1
I0913 20:18:23.671111  2050 net.cpp:425] inception_3a/relu_1x1 <- inception_3a/1x1
I0913 20:18:23.671119  2050 net.cpp:386] inception_3a/relu_1x1 -> inception_3a/1x1 (in-place)
I0913 20:18:23.671501  2050 net.cpp:141] Setting up inception_3a/relu_1x1
I0913 20:18:23.671514  2050 net.cpp:148] Top shape: 10 64 28 28 (501760)
I0913 20:18:23.671519  2050 net.cpp:156] Memory required for data: 208732160
I0913 20:18:23.671524  2050 layer_factory.hpp:77] Creating layer inception_3a/3x3_reduce
I0913 20:18:23.671540  2050 net.cpp:91] Creating Layer inception_3a/3x3_reduce
I0913 20:18:23.671546  2050 net.cpp:425] inception_3a/3x3_reduce <- pool2/3x3_s2_pool2/3x3_s2_0_split_1
I0913 20:18:23.671555  2050 net.cpp:399] inception_3a/3x3_reduce -> inception_3a/3x3_reduce
I0913 20:18:23.673980  2050 net.cpp:141] Setting up inception_3a/3x3_reduce
I0913 20:18:23.673997  2050 net.cpp:148] Top shape: 10 96 28 28 (752640)
I0913 20:18:23.674003  2050 net.cpp:156] Memory required for data: 211742720
I0913 20:18:23.674018  2050 layer_factory.hpp:77] Creating layer inception_3a/relu_3x3_reduce
I0913 20:18:23.674027  2050 net.cpp:91] Creating Layer inception_3a/relu_3x3_reduce
I0913 20:18:23.674033  2050 net.cpp:425] inception_3a/relu_3x3_reduce <- inception_3a/3x3_reduce
I0913 20:18:23.674039  2050 net.cpp:386] inception_3a/relu_3x3_reduce -> inception_3a/3x3_reduce (in-place)
I0913 20:18:23.674290  2050 net.cpp:141] Setting up inception_3a/relu_3x3_reduce
I0913 20:18:23.674302  2050 net.cpp:148] Top shape: 10 96 28 28 (752640)
I0913 20:18:23.674307  2050 net.cpp:156] Memory required for data: 214753280
I0913 20:18:23.674312  2050 layer_factory.hpp:77] Creating layer inception_3a/3x3
I0913 20:18:23.674329  2050 net.cpp:91] Creating Layer inception_3a/3x3
I0913 20:18:23.674335  2050 net.cpp:425] inception_3a/3x3 <- inception_3a/3x3_reduce
I0913 20:18:23.674345  2050 net.cpp:399] inception_3a/3x3 -> inception_3a/3x3
I0913 20:18:23.676501  2050 net.cpp:141] Setting up inception_3a/3x3
I0913 20:18:23.676517  2050 net.cpp:148] Top shape: 10 128 28 28 (1003520)
I0913 20:18:23.676523  2050 net.cpp:156] Memory required for data: 218767360
I0913 20:18:23.676532  2050 layer_factory.hpp:77] Creating layer inception_3a/relu_3x3
I0913 20:18:23.676540  2050 net.cpp:91] Creating Layer inception_3a/relu_3x3
I0913 20:18:23.676545  2050 net.cpp:425] inception_3a/relu_3x3 <- inception_3a/3x3
I0913 20:18:23.676553  2050 net.cpp:386] inception_3a/relu_3x3 -> inception_3a/3x3 (in-place)
I0913 20:18:23.676939  2050 net.cpp:141] Setting up inception_3a/relu_3x3
I0913 20:18:23.676951  2050 net.cpp:148] Top shape: 10 128 28 28 (1003520)
I0913 20:18:23.676955  2050 net.cpp:156] Memory required for data: 222781440
I0913 20:18:23.676961  2050 layer_factory.hpp:77] Creating layer inception_3a/5x5_reduce
I0913 20:18:23.676975  2050 net.cpp:91] Creating Layer inception_3a/5x5_reduce
I0913 20:18:23.676982  2050 net.cpp:425] inception_3a/5x5_reduce <- pool2/3x3_s2_pool2/3x3_s2_0_split_2
I0913 20:18:23.676993  2050 net.cpp:399] inception_3a/5x5_reduce -> inception_3a/5x5_reduce
I0913 20:18:23.678207  2050 net.cpp:141] Setting up inception_3a/5x5_reduce
I0913 20:18:23.678223  2050 net.cpp:148] Top shape: 10 16 28 28 (125440)
I0913 20:18:23.678228  2050 net.cpp:156] Memory required for data: 223283200
I0913 20:18:23.678237  2050 layer_factory.hpp:77] Creating layer inception_3a/relu_5x5_reduce
I0913 20:18:23.678246  2050 net.cpp:91] Creating Layer inception_3a/relu_5x5_reduce
I0913 20:18:23.678252  2050 net.cpp:425] inception_3a/relu_5x5_reduce <- inception_3a/5x5_reduce
I0913 20:18:23.678263  2050 net.cpp:386] inception_3a/relu_5x5_reduce -> inception_3a/5x5_reduce (in-place)
I0913 20:18:23.678654  2050 net.cpp:141] Setting up inception_3a/relu_5x5_reduce
I0913 20:18:23.678666  2050 net.cpp:148] Top shape: 10 16 28 28 (125440)
I0913 20:18:23.678671  2050 net.cpp:156] Memory required for data: 223784960
I0913 20:18:23.678676  2050 layer_factory.hpp:77] Creating layer inception_3a/5x5
I0913 20:18:23.678692  2050 net.cpp:91] Creating Layer inception_3a/5x5
I0913 20:18:23.678699  2050 net.cpp:425] inception_3a/5x5 <- inception_3a/5x5_reduce
I0913 20:18:23.678709  2050 net.cpp:399] inception_3a/5x5 -> inception_3a/5x5
I0913 20:18:23.680636  2050 net.cpp:141] Setting up inception_3a/5x5
I0913 20:18:23.680655  2050 net.cpp:148] Top shape: 10 32 28 28 (250880)
I0913 20:18:23.680660  2050 net.cpp:156] Memory required for data: 224788480
I0913 20:18:23.680670  2050 layer_factory.hpp:77] Creating layer inception_3a/relu_5x5
I0913 20:18:23.680681  2050 net.cpp:91] Creating Layer inception_3a/relu_5x5
I0913 20:18:23.680687  2050 net.cpp:425] inception_3a/relu_5x5 <- inception_3a/5x5
I0913 20:18:23.680694  2050 net.cpp:386] inception_3a/relu_5x5 -> inception_3a/5x5 (in-place)
I0913 20:18:23.680927  2050 net.cpp:141] Setting up inception_3a/relu_5x5
I0913 20:18:23.680938  2050 net.cpp:148] Top shape: 10 32 28 28 (250880)
I0913 20:18:23.680943  2050 net.cpp:156] Memory required for data: 225792000
I0913 20:18:23.680948  2050 layer_factory.hpp:77] Creating layer inception_3a/pool
I0913 20:18:23.680956  2050 net.cpp:91] Creating Layer inception_3a/pool
I0913 20:18:23.680963  2050 net.cpp:425] inception_3a/pool <- pool2/3x3_s2_pool2/3x3_s2_0_split_3
I0913 20:18:23.680974  2050 net.cpp:399] inception_3a/pool -> inception_3a/pool
I0913 20:18:23.681028  2050 net.cpp:141] Setting up inception_3a/pool
I0913 20:18:23.681037  2050 net.cpp:148] Top shape: 10 192 28 28 (1505280)
I0913 20:18:23.681041  2050 net.cpp:156] Memory required for data: 231813120
I0913 20:18:23.681046  2050 layer_factory.hpp:77] Creating layer inception_3a/pool_proj
I0913 20:18:23.681063  2050 net.cpp:91] Creating Layer inception_3a/pool_proj
I0913 20:18:23.681069  2050 net.cpp:425] inception_3a/pool_proj <- inception_3a/pool
I0913 20:18:23.681077  2050 net.cpp:399] inception_3a/pool_proj -> inception_3a/pool_proj
I0913 20:18:23.682451  2050 net.cpp:141] Setting up inception_3a/pool_proj
I0913 20:18:23.682468  2050 net.cpp:148] Top shape: 10 32 28 28 (250880)
I0913 20:18:23.682473  2050 net.cpp:156] Memory required for data: 232816640
I0913 20:18:23.682489  2050 layer_factory.hpp:77] Creating layer inception_3a/relu_pool_proj
I0913 20:18:23.682497  2050 net.cpp:91] Creating Layer inception_3a/relu_pool_proj
I0913 20:18:23.682503  2050 net.cpp:425] inception_3a/relu_pool_proj <- inception_3a/pool_proj
I0913 20:18:23.682510  2050 net.cpp:386] inception_3a/relu_pool_proj -> inception_3a/pool_proj (in-place)
I0913 20:18:23.682898  2050 net.cpp:141] Setting up inception_3a/relu_pool_proj
I0913 20:18:23.682911  2050 net.cpp:148] Top shape: 10 32 28 28 (250880)
I0913 20:18:23.682915  2050 net.cpp:156] Memory required for data: 233820160
I0913 20:18:23.682920  2050 layer_factory.hpp:77] Creating layer inception_3a/output
I0913 20:18:23.682937  2050 net.cpp:91] Creating Layer inception_3a/output
I0913 20:18:23.682943  2050 net.cpp:425] inception_3a/output <- inception_3a/1x1
I0913 20:18:23.682950  2050 net.cpp:425] inception_3a/output <- inception_3a/3x3
I0913 20:18:23.682955  2050 net.cpp:425] inception_3a/output <- inception_3a/5x5
I0913 20:18:23.682960  2050 net.cpp:425] inception_3a/output <- inception_3a/pool_proj
I0913 20:18:23.682966  2050 net.cpp:399] inception_3a/output -> inception_3a/output
I0913 20:18:23.683008  2050 net.cpp:141] Setting up inception_3a/output
I0913 20:18:23.683019  2050 net.cpp:148] Top shape: 10 256 28 28 (2007040)
I0913 20:18:23.683024  2050 net.cpp:156] Memory required for data: 241848320
I0913 20:18:23.683029  2050 layer_factory.hpp:77] Creating layer inception_3a/output_inception_3a/output_0_split
I0913 20:18:23.683037  2050 net.cpp:91] Creating Layer inception_3a/output_inception_3a/output_0_split
I0913 20:18:23.683043  2050 net.cpp:425] inception_3a/output_inception_3a/output_0_split <- inception_3a/output
I0913 20:18:23.683049  2050 net.cpp:399] inception_3a/output_inception_3a/output_0_split -> inception_3a/output_inception_3a/output_0_split_0
I0913 20:18:23.683058  2050 net.cpp:399] inception_3a/output_inception_3a/output_0_split -> inception_3a/output_inception_3a/output_0_split_1
I0913 20:18:23.683066  2050 net.cpp:399] inception_3a/output_inception_3a/output_0_split -> inception_3a/output_inception_3a/output_0_split_2
I0913 20:18:23.683078  2050 net.cpp:399] inception_3a/output_inception_3a/output_0_split -> inception_3a/output_inception_3a/output_0_split_3
I0913 20:18:23.683154  2050 net.cpp:141] Setting up inception_3a/output_inception_3a/output_0_split
I0913 20:18:23.683164  2050 net.cpp:148] Top shape: 10 256 28 28 (2007040)
I0913 20:18:23.683171  2050 net.cpp:148] Top shape: 10 256 28 28 (2007040)
I0913 20:18:23.683176  2050 net.cpp:148] Top shape: 10 256 28 28 (2007040)
I0913 20:18:23.683182  2050 net.cpp:148] Top shape: 10 256 28 28 (2007040)
I0913 20:18:23.683185  2050 net.cpp:156] Memory required for data: 273960960
I0913 20:18:23.683189  2050 layer_factory.hpp:77] Creating layer inception_3b/1x1
I0913 20:18:23.683205  2050 net.cpp:91] Creating Layer inception_3b/1x1
I0913 20:18:23.683210  2050 net.cpp:425] inception_3b/1x1 <- inception_3a/output_inception_3a/output_0_split_0
I0913 20:18:23.683221  2050 net.cpp:399] inception_3b/1x1 -> inception_3b/1x1
I0913 20:18:23.684640  2050 net.cpp:141] Setting up inception_3b/1x1
I0913 20:18:23.684654  2050 net.cpp:148] Top shape: 10 128 28 28 (1003520)
I0913 20:18:23.684659  2050 net.cpp:156] Memory required for data: 277975040
I0913 20:18:23.684669  2050 layer_factory.hpp:77] Creating layer inception_3b/relu_1x1
I0913 20:18:23.684676  2050 net.cpp:91] Creating Layer inception_3b/relu_1x1
I0913 20:18:23.684681  2050 net.cpp:425] inception_3b/relu_1x1 <- inception_3b/1x1
I0913 20:18:23.684692  2050 net.cpp:386] inception_3b/relu_1x1 -> inception_3b/1x1 (in-place)
I0913 20:18:23.685070  2050 net.cpp:141] Setting up inception_3b/relu_1x1
I0913 20:18:23.685082  2050 net.cpp:148] Top shape: 10 128 28 28 (1003520)
I0913 20:18:23.685087  2050 net.cpp:156] Memory required for data: 281989120
I0913 20:18:23.685092  2050 layer_factory.hpp:77] Creating layer inception_3b/3x3_reduce
I0913 20:18:23.685108  2050 net.cpp:91] Creating Layer inception_3b/3x3_reduce
I0913 20:18:23.685117  2050 net.cpp:425] inception_3b/3x3_reduce <- inception_3a/output_inception_3a/output_0_split_1
I0913 20:18:23.685125  2050 net.cpp:399] inception_3b/3x3_reduce -> inception_3b/3x3_reduce
I0913 20:18:23.686767  2050 net.cpp:141] Setting up inception_3b/3x3_reduce
I0913 20:18:23.686784  2050 net.cpp:148] Top shape: 10 128 28 28 (1003520)
I0913 20:18:23.686789  2050 net.cpp:156] Memory required for data: 286003200
I0913 20:18:23.686799  2050 layer_factory.hpp:77] Creating layer inception_3b/relu_3x3_reduce
I0913 20:18:23.686810  2050 net.cpp:91] Creating Layer inception_3b/relu_3x3_reduce
I0913 20:18:23.686817  2050 net.cpp:425] inception_3b/relu_3x3_reduce <- inception_3b/3x3_reduce
I0913 20:18:23.686830  2050 net.cpp:386] inception_3b/relu_3x3_reduce -> inception_3b/3x3_reduce (in-place)
I0913 20:18:23.687110  2050 net.cpp:141] Setting up inception_3b/relu_3x3_reduce
I0913 20:18:23.687124  2050 net.cpp:148] Top shape: 10 128 28 28 (1003520)
I0913 20:18:23.687127  2050 net.cpp:156] Memory required for data: 290017280
I0913 20:18:23.687134  2050 layer_factory.hpp:77] Creating layer inception_3b/3x3
I0913 20:18:23.687149  2050 net.cpp:91] Creating Layer inception_3b/3x3
I0913 20:18:23.687155  2050 net.cpp:425] inception_3b/3x3 <- inception_3b/3x3_reduce
I0913 20:18:23.687165  2050 net.cpp:399] inception_3b/3x3 -> inception_3b/3x3
I0913 20:18:23.691056  2050 net.cpp:141] Setting up inception_3b/3x3
I0913 20:18:23.691097  2050 net.cpp:148] Top shape: 10 192 28 28 (1505280)
I0913 20:18:23.691102  2050 net.cpp:156] Memory required for data: 296038400
I0913 20:18:23.691112  2050 layer_factory.hpp:77] Creating layer inception_3b/relu_3x3
I0913 20:18:23.691130  2050 net.cpp:91] Creating Layer inception_3b/relu_3x3
I0913 20:18:23.691138  2050 net.cpp:425] inception_3b/relu_3x3 <- inception_3b/3x3
I0913 20:18:23.691150  2050 net.cpp:386] inception_3b/relu_3x3 -> inception_3b/3x3 (in-place)
I0913 20:18:23.691537  2050 net.cpp:141] Setting up inception_3b/relu_3x3
I0913 20:18:23.691550  2050 net.cpp:148] Top shape: 10 192 28 28 (1505280)
I0913 20:18:23.691555  2050 net.cpp:156] Memory required for data: 302059520
I0913 20:18:23.691560  2050 layer_factory.hpp:77] Creating layer inception_3b/5x5_reduce
I0913 20:18:23.691577  2050 net.cpp:91] Creating Layer inception_3b/5x5_reduce
I0913 20:18:23.691583  2050 net.cpp:425] inception_3b/5x5_reduce <- inception_3a/output_inception_3a/output_0_split_2
I0913 20:18:23.691594  2050 net.cpp:399] inception_3b/5x5_reduce -> inception_3b/5x5_reduce
I0913 20:18:23.692864  2050 net.cpp:141] Setting up inception_3b/5x5_reduce
I0913 20:18:23.692881  2050 net.cpp:148] Top shape: 10 32 28 28 (250880)
I0913 20:18:23.692886  2050 net.cpp:156] Memory required for data: 303063040
I0913 20:18:23.692895  2050 layer_factory.hpp:77] Creating layer inception_3b/relu_5x5_reduce
I0913 20:18:23.692909  2050 net.cpp:91] Creating Layer inception_3b/relu_5x5_reduce
I0913 20:18:23.692916  2050 net.cpp:425] inception_3b/relu_5x5_reduce <- inception_3b/5x5_reduce
I0913 20:18:23.692924  2050 net.cpp:386] inception_3b/relu_5x5_reduce -> inception_3b/5x5_reduce (in-place)
I0913 20:18:23.693305  2050 net.cpp:141] Setting up inception_3b/relu_5x5_reduce
I0913 20:18:23.693317  2050 net.cpp:148] Top shape: 10 32 28 28 (250880)
I0913 20:18:23.693322  2050 net.cpp:156] Memory required for data: 304066560
I0913 20:18:23.693327  2050 layer_factory.hpp:77] Creating layer inception_3b/5x5
I0913 20:18:23.693344  2050 net.cpp:91] Creating Layer inception_3b/5x5
I0913 20:18:23.693351  2050 net.cpp:425] inception_3b/5x5 <- inception_3b/5x5_reduce
I0913 20:18:23.693359  2050 net.cpp:399] inception_3b/5x5 -> inception_3b/5x5
I0913 20:18:23.696009  2050 net.cpp:141] Setting up inception_3b/5x5
I0913 20:18:23.696027  2050 net.cpp:148] Top shape: 10 96 28 28 (752640)
I0913 20:18:23.696033  2050 net.cpp:156] Memory required for data: 307077120
I0913 20:18:23.696043  2050 layer_factory.hpp:77] Creating layer inception_3b/relu_5x5
I0913 20:18:23.696050  2050 net.cpp:91] Creating Layer inception_3b/relu_5x5
I0913 20:18:23.696064  2050 net.cpp:425] inception_3b/relu_5x5 <- inception_3b/5x5
I0913 20:18:23.696081  2050 net.cpp:386] inception_3b/relu_5x5 -> inception_3b/5x5 (in-place)
I0913 20:18:23.696310  2050 net.cpp:141] Setting up inception_3b/relu_5x5
I0913 20:18:23.696324  2050 net.cpp:148] Top shape: 10 96 28 28 (752640)
I0913 20:18:23.696329  2050 net.cpp:156] Memory required for data: 310087680
I0913 20:18:23.696334  2050 layer_factory.hpp:77] Creating layer inception_3b/pool
I0913 20:18:23.696344  2050 net.cpp:91] Creating Layer inception_3b/pool
I0913 20:18:23.696351  2050 net.cpp:425] inception_3b/pool <- inception_3a/output_inception_3a/output_0_split_3
I0913 20:18:23.696357  2050 net.cpp:399] inception_3b/pool -> inception_3b/pool
I0913 20:18:23.696420  2050 net.cpp:141] Setting up inception_3b/pool
I0913 20:18:23.696430  2050 net.cpp:148] Top shape: 10 256 28 28 (2007040)
I0913 20:18:23.696434  2050 net.cpp:156] Memory required for data: 318115840
I0913 20:18:23.696439  2050 layer_factory.hpp:77] Creating layer inception_3b/pool_proj
I0913 20:18:23.696454  2050 net.cpp:91] Creating Layer inception_3b/pool_proj
I0913 20:18:23.696460  2050 net.cpp:425] inception_3b/pool_proj <- inception_3b/pool
I0913 20:18:23.696470  2050 net.cpp:399] inception_3b/pool_proj -> inception_3b/pool_proj
I0913 20:18:23.697947  2050 net.cpp:141] Setting up inception_3b/pool_proj
I0913 20:18:23.697964  2050 net.cpp:148] Top shape: 10 64 28 28 (501760)
I0913 20:18:23.697970  2050 net.cpp:156] Memory required for data: 320122880
I0913 20:18:23.697979  2050 layer_factory.hpp:77] Creating layer inception_3b/relu_pool_proj
I0913 20:18:23.697990  2050 net.cpp:91] Creating Layer inception_3b/relu_pool_proj
I0913 20:18:23.697998  2050 net.cpp:425] inception_3b/relu_pool_proj <- inception_3b/pool_proj
I0913 20:18:23.698004  2050 net.cpp:386] inception_3b/relu_pool_proj -> inception_3b/pool_proj (in-place)
I0913 20:18:23.698390  2050 net.cpp:141] Setting up inception_3b/relu_pool_proj
I0913 20:18:23.698401  2050 net.cpp:148] Top shape: 10 64 28 28 (501760)
I0913 20:18:23.698406  2050 net.cpp:156] Memory required for data: 322129920
I0913 20:18:23.698411  2050 layer_factory.hpp:77] Creating layer inception_3b/output
I0913 20:18:23.698423  2050 net.cpp:91] Creating Layer inception_3b/output
I0913 20:18:23.698429  2050 net.cpp:425] inception_3b/output <- inception_3b/1x1
I0913 20:18:23.698436  2050 net.cpp:425] inception_3b/output <- inception_3b/3x3
I0913 20:18:23.698441  2050 net.cpp:425] inception_3b/output <- inception_3b/5x5
I0913 20:18:23.698446  2050 net.cpp:425] inception_3b/output <- inception_3b/pool_proj
I0913 20:18:23.698456  2050 net.cpp:399] inception_3b/output -> inception_3b/output
I0913 20:18:23.698494  2050 net.cpp:141] Setting up inception_3b/output
I0913 20:18:23.698503  2050 net.cpp:148] Top shape: 10 480 28 28 (3763200)
I0913 20:18:23.698508  2050 net.cpp:156] Memory required for data: 337182720
I0913 20:18:23.698513  2050 layer_factory.hpp:77] Creating layer pool3/3x3_s2
I0913 20:18:23.698524  2050 net.cpp:91] Creating Layer pool3/3x3_s2
I0913 20:18:23.698529  2050 net.cpp:425] pool3/3x3_s2 <- inception_3b/output
I0913 20:18:23.698536  2050 net.cpp:399] pool3/3x3_s2 -> pool3/3x3_s2
I0913 20:18:23.698596  2050 net.cpp:141] Setting up pool3/3x3_s2
I0913 20:18:23.698608  2050 net.cpp:148] Top shape: 10 480 14 14 (940800)
I0913 20:18:23.698612  2050 net.cpp:156] Memory required for data: 340945920
I0913 20:18:23.698617  2050 layer_factory.hpp:77] Creating layer pool3/3x3_s2_pool3/3x3_s2_0_split
I0913 20:18:23.698626  2050 net.cpp:91] Creating Layer pool3/3x3_s2_pool3/3x3_s2_0_split
I0913 20:18:23.698631  2050 net.cpp:425] pool3/3x3_s2_pool3/3x3_s2_0_split <- pool3/3x3_s2
I0913 20:18:23.698637  2050 net.cpp:399] pool3/3x3_s2_pool3/3x3_s2_0_split -> pool3/3x3_s2_pool3/3x3_s2_0_split_0
I0913 20:18:23.698645  2050 net.cpp:399] pool3/3x3_s2_pool3/3x3_s2_0_split -> pool3/3x3_s2_pool3/3x3_s2_0_split_1
I0913 20:18:23.698654  2050 net.cpp:399] pool3/3x3_s2_pool3/3x3_s2_0_split -> pool3/3x3_s2_pool3/3x3_s2_0_split_2
I0913 20:18:23.698662  2050 net.cpp:399] pool3/3x3_s2_pool3/3x3_s2_0_split -> pool3/3x3_s2_pool3/3x3_s2_0_split_3
I0913 20:18:23.698740  2050 net.cpp:141] Setting up pool3/3x3_s2_pool3/3x3_s2_0_split
I0913 20:18:23.698748  2050 net.cpp:148] Top shape: 10 480 14 14 (940800)
I0913 20:18:23.698755  2050 net.cpp:148] Top shape: 10 480 14 14 (940800)
I0913 20:18:23.698760  2050 net.cpp:148] Top shape: 10 480 14 14 (940800)
I0913 20:18:23.698765  2050 net.cpp:148] Top shape: 10 480 14 14 (940800)
I0913 20:18:23.698770  2050 net.cpp:156] Memory required for data: 355998720
I0913 20:18:23.698774  2050 layer_factory.hpp:77] Creating layer inception_4a/1x1
I0913 20:18:23.698789  2050 net.cpp:91] Creating Layer inception_4a/1x1
I0913 20:18:23.698796  2050 net.cpp:425] inception_4a/1x1 <- pool3/3x3_s2_pool3/3x3_s2_0_split_0
I0913 20:18:23.698807  2050 net.cpp:399] inception_4a/1x1 -> inception_4a/1x1
I0913 20:18:23.700963  2050 net.cpp:141] Setting up inception_4a/1x1
I0913 20:18:23.700980  2050 net.cpp:148] Top shape: 10 192 14 14 (376320)
I0913 20:18:23.700985  2050 net.cpp:156] Memory required for data: 357504000
I0913 20:18:23.700994  2050 layer_factory.hpp:77] Creating layer inception_4a/relu_1x1
I0913 20:18:23.701002  2050 net.cpp:91] Creating Layer inception_4a/relu_1x1
I0913 20:18:23.701009  2050 net.cpp:425] inception_4a/relu_1x1 <- inception_4a/1x1
I0913 20:18:23.701019  2050 net.cpp:386] inception_4a/relu_1x1 -> inception_4a/1x1 (in-place)
I0913 20:18:23.701418  2050 net.cpp:141] Setting up inception_4a/relu_1x1
I0913 20:18:23.701431  2050 net.cpp:148] Top shape: 10 192 14 14 (376320)
I0913 20:18:23.701436  2050 net.cpp:156] Memory required for data: 359009280
I0913 20:18:23.701441  2050 layer_factory.hpp:77] Creating layer inception_4a/3x3_reduce
I0913 20:18:23.701454  2050 net.cpp:91] Creating Layer inception_4a/3x3_reduce
I0913 20:18:23.701460  2050 net.cpp:425] inception_4a/3x3_reduce <- pool3/3x3_s2_pool3/3x3_s2_0_split_1
I0913 20:18:23.701473  2050 net.cpp:399] inception_4a/3x3_reduce -> inception_4a/3x3_reduce
I0913 20:18:23.703965  2050 net.cpp:141] Setting up inception_4a/3x3_reduce
I0913 20:18:23.704008  2050 net.cpp:148] Top shape: 10 96 14 14 (188160)
I0913 20:18:23.704018  2050 net.cpp:156] Memory required for data: 359761920
I0913 20:18:23.704056  2050 layer_factory.hpp:77] Creating layer inception_4a/relu_3x3_reduce
I0913 20:18:23.704093  2050 net.cpp:91] Creating Layer inception_4a/relu_3x3_reduce
I0913 20:18:23.704107  2050 net.cpp:425] inception_4a/relu_3x3_reduce <- inception_4a/3x3_reduce
I0913 20:18:23.704120  2050 net.cpp:386] inception_4a/relu_3x3_reduce -> inception_4a/3x3_reduce (in-place)
I0913 20:18:23.704450  2050 net.cpp:141] Setting up inception_4a/relu_3x3_reduce
I0913 20:18:23.704465  2050 net.cpp:148] Top shape: 10 96 14 14 (188160)
I0913 20:18:23.704473  2050 net.cpp:156] Memory required for data: 360514560
I0913 20:18:23.704481  2050 layer_factory.hpp:77] Creating layer inception_4a/3x3
I0913 20:18:23.704506  2050 net.cpp:91] Creating Layer inception_4a/3x3
I0913 20:18:23.704516  2050 net.cpp:425] inception_4a/3x3 <- inception_4a/3x3_reduce
I0913 20:18:23.704532  2050 net.cpp:399] inception_4a/3x3 -> inception_4a/3x3
I0913 20:18:23.708333  2050 net.cpp:141] Setting up inception_4a/3x3
I0913 20:18:23.708353  2050 net.cpp:148] Top shape: 10 208 14 14 (407680)
I0913 20:18:23.708359  2050 net.cpp:156] Memory required for data: 362145280
I0913 20:18:23.708369  2050 layer_factory.hpp:77] Creating layer inception_4a/relu_3x3
I0913 20:18:23.708377  2050 net.cpp:91] Creating Layer inception_4a/relu_3x3
I0913 20:18:23.708384  2050 net.cpp:425] inception_4a/relu_3x3 <- inception_4a/3x3
I0913 20:18:23.708395  2050 net.cpp:386] inception_4a/relu_3x3 -> inception_4a/3x3 (in-place)
I0913 20:18:23.708796  2050 net.cpp:141] Setting up inception_4a/relu_3x3
I0913 20:18:23.708808  2050 net.cpp:148] Top shape: 10 208 14 14 (407680)
I0913 20:18:23.708813  2050 net.cpp:156] Memory required for data: 363776000
I0913 20:18:23.708818  2050 layer_factory.hpp:77] Creating layer inception_4a/5x5_reduce
I0913 20:18:23.708834  2050 net.cpp:91] Creating Layer inception_4a/5x5_reduce
I0913 20:18:23.708840  2050 net.cpp:425] inception_4a/5x5_reduce <- pool3/3x3_s2_pool3/3x3_s2_0_split_2
I0913 20:18:23.708853  2050 net.cpp:399] inception_4a/5x5_reduce -> inception_4a/5x5_reduce
I0913 20:18:23.710127  2050 net.cpp:141] Setting up inception_4a/5x5_reduce
I0913 20:18:23.710144  2050 net.cpp:148] Top shape: 10 16 14 14 (31360)
I0913 20:18:23.710150  2050 net.cpp:156] Memory required for data: 363901440
I0913 20:18:23.710158  2050 layer_factory.hpp:77] Creating layer inception_4a/relu_5x5_reduce
I0913 20:18:23.710170  2050 net.cpp:91] Creating Layer inception_4a/relu_5x5_reduce
I0913 20:18:23.710176  2050 net.cpp:425] inception_4a/relu_5x5_reduce <- inception_4a/5x5_reduce
I0913 20:18:23.710185  2050 net.cpp:386] inception_4a/relu_5x5_reduce -> inception_4a/5x5_reduce (in-place)
I0913 20:18:23.710571  2050 net.cpp:141] Setting up inception_4a/relu_5x5_reduce
I0913 20:18:23.710587  2050 net.cpp:148] Top shape: 10 16 14 14 (31360)
I0913 20:18:23.710593  2050 net.cpp:156] Memory required for data: 364026880
I0913 20:18:23.710598  2050 layer_factory.hpp:77] Creating layer inception_4a/5x5
I0913 20:18:23.710618  2050 net.cpp:91] Creating Layer inception_4a/5x5
I0913 20:18:23.710623  2050 net.cpp:425] inception_4a/5x5 <- inception_4a/5x5_reduce
I0913 20:18:23.710633  2050 net.cpp:399] inception_4a/5x5 -> inception_4a/5x5
I0913 20:18:23.712141  2050 net.cpp:141] Setting up inception_4a/5x5
I0913 20:18:23.712158  2050 net.cpp:148] Top shape: 10 48 14 14 (94080)
I0913 20:18:23.712164  2050 net.cpp:156] Memory required for data: 364403200
I0913 20:18:23.712173  2050 layer_factory.hpp:77] Creating layer inception_4a/relu_5x5
I0913 20:18:23.712185  2050 net.cpp:91] Creating Layer inception_4a/relu_5x5
I0913 20:18:23.712191  2050 net.cpp:425] inception_4a/relu_5x5 <- inception_4a/5x5
I0913 20:18:23.712199  2050 net.cpp:386] inception_4a/relu_5x5 -> inception_4a/5x5 (in-place)
I0913 20:18:23.712427  2050 net.cpp:141] Setting up inception_4a/relu_5x5
I0913 20:18:23.712438  2050 net.cpp:148] Top shape: 10 48 14 14 (94080)
I0913 20:18:23.712443  2050 net.cpp:156] Memory required for data: 364779520
I0913 20:18:23.712448  2050 layer_factory.hpp:77] Creating layer inception_4a/pool
I0913 20:18:23.712458  2050 net.cpp:91] Creating Layer inception_4a/pool
I0913 20:18:23.712465  2050 net.cpp:425] inception_4a/pool <- pool3/3x3_s2_pool3/3x3_s2_0_split_3
I0913 20:18:23.712474  2050 net.cpp:399] inception_4a/pool -> inception_4a/pool
I0913 20:18:23.712535  2050 net.cpp:141] Setting up inception_4a/pool
I0913 20:18:23.712544  2050 net.cpp:148] Top shape: 10 480 14 14 (940800)
I0913 20:18:23.712549  2050 net.cpp:156] Memory required for data: 368542720
I0913 20:18:23.712553  2050 layer_factory.hpp:77] Creating layer inception_4a/pool_proj
I0913 20:18:23.712570  2050 net.cpp:91] Creating Layer inception_4a/pool_proj
I0913 20:18:23.712576  2050 net.cpp:425] inception_4a/pool_proj <- inception_4a/pool
I0913 20:18:23.712585  2050 net.cpp:399] inception_4a/pool_proj -> inception_4a/pool_proj
I0913 20:18:23.714200  2050 net.cpp:141] Setting up inception_4a/pool_proj
I0913 20:18:23.714216  2050 net.cpp:148] Top shape: 10 64 14 14 (125440)
I0913 20:18:23.714224  2050 net.cpp:156] Memory required for data: 369044480
I0913 20:18:23.714233  2050 layer_factory.hpp:77] Creating layer inception_4a/relu_pool_proj
I0913 20:18:23.714241  2050 net.cpp:91] Creating Layer inception_4a/relu_pool_proj
I0913 20:18:23.714247  2050 net.cpp:425] inception_4a/relu_pool_proj <- inception_4a/pool_proj
I0913 20:18:23.714256  2050 net.cpp:386] inception_4a/relu_pool_proj -> inception_4a/pool_proj (in-place)
I0913 20:18:23.714648  2050 net.cpp:141] Setting up inception_4a/relu_pool_proj
I0913 20:18:23.714661  2050 net.cpp:148] Top shape: 10 64 14 14 (125440)
I0913 20:18:23.714666  2050 net.cpp:156] Memory required for data: 369546240
I0913 20:18:23.714671  2050 layer_factory.hpp:77] Creating layer inception_4a/output
I0913 20:18:23.714680  2050 net.cpp:91] Creating Layer inception_4a/output
I0913 20:18:23.714685  2050 net.cpp:425] inception_4a/output <- inception_4a/1x1
I0913 20:18:23.714692  2050 net.cpp:425] inception_4a/output <- inception_4a/3x3
I0913 20:18:23.714699  2050 net.cpp:425] inception_4a/output <- inception_4a/5x5
I0913 20:18:23.714704  2050 net.cpp:425] inception_4a/output <- inception_4a/pool_proj
I0913 20:18:23.714710  2050 net.cpp:399] inception_4a/output -> inception_4a/output
I0913 20:18:23.714756  2050 net.cpp:141] Setting up inception_4a/output
I0913 20:18:23.714766  2050 net.cpp:148] Top shape: 10 512 14 14 (1003520)
I0913 20:18:23.714771  2050 net.cpp:156] Memory required for data: 373560320
I0913 20:18:23.714776  2050 layer_factory.hpp:77] Creating layer inception_4a/output_inception_4a/output_0_split
I0913 20:18:23.714787  2050 net.cpp:91] Creating Layer inception_4a/output_inception_4a/output_0_split
I0913 20:18:23.714792  2050 net.cpp:425] inception_4a/output_inception_4a/output_0_split <- inception_4a/output
I0913 20:18:23.714798  2050 net.cpp:399] inception_4a/output_inception_4a/output_0_split -> inception_4a/output_inception_4a/output_0_split_0
I0913 20:18:23.714807  2050 net.cpp:399] inception_4a/output_inception_4a/output_0_split -> inception_4a/output_inception_4a/output_0_split_1
I0913 20:18:23.714817  2050 net.cpp:399] inception_4a/output_inception_4a/output_0_split -> inception_4a/output_inception_4a/output_0_split_2
I0913 20:18:23.714824  2050 net.cpp:399] inception_4a/output_inception_4a/output_0_split -> inception_4a/output_inception_4a/output_0_split_3
I0913 20:18:23.714915  2050 net.cpp:141] Setting up inception_4a/output_inception_4a/output_0_split
I0913 20:18:23.714926  2050 net.cpp:148] Top shape: 10 512 14 14 (1003520)
I0913 20:18:23.714931  2050 net.cpp:148] Top shape: 10 512 14 14 (1003520)
I0913 20:18:23.714936  2050 net.cpp:148] Top shape: 10 512 14 14 (1003520)
I0913 20:18:23.714942  2050 net.cpp:148] Top shape: 10 512 14 14 (1003520)
I0913 20:18:23.714946  2050 net.cpp:156] Memory required for data: 389616640
I0913 20:18:23.714951  2050 layer_factory.hpp:77] Creating layer inception_4b/1x1
I0913 20:18:23.714964  2050 net.cpp:91] Creating Layer inception_4b/1x1
I0913 20:18:23.714970  2050 net.cpp:425] inception_4b/1x1 <- inception_4a/output_inception_4a/output_0_split_0
I0913 20:18:23.714982  2050 net.cpp:399] inception_4b/1x1 -> inception_4b/1x1
I0913 20:18:23.716830  2050 net.cpp:141] Setting up inception_4b/1x1
I0913 20:18:23.716846  2050 net.cpp:148] Top shape: 10 160 14 14 (313600)
I0913 20:18:23.716851  2050 net.cpp:156] Memory required for data: 390871040
I0913 20:18:23.716861  2050 layer_factory.hpp:77] Creating layer inception_4b/relu_1x1
I0913 20:18:23.716868  2050 net.cpp:91] Creating Layer inception_4b/relu_1x1
I0913 20:18:23.716874  2050 net.cpp:425] inception_4b/relu_1x1 <- inception_4b/1x1
I0913 20:18:23.716884  2050 net.cpp:386] inception_4b/relu_1x1 -> inception_4b/1x1 (in-place)
I0913 20:18:23.717280  2050 net.cpp:141] Setting up inception_4b/relu_1x1
I0913 20:18:23.717295  2050 net.cpp:148] Top shape: 10 160 14 14 (313600)
I0913 20:18:23.717300  2050 net.cpp:156] Memory required for data: 392125440
I0913 20:18:23.717305  2050 layer_factory.hpp:77] Creating layer inception_4b/3x3_reduce
I0913 20:18:23.717320  2050 net.cpp:91] Creating Layer inception_4b/3x3_reduce
I0913 20:18:23.717329  2050 net.cpp:425] inception_4b/3x3_reduce <- inception_4a/output_inception_4a/output_0_split_1
I0913 20:18:23.717337  2050 net.cpp:399] inception_4b/3x3_reduce -> inception_4b/3x3_reduce
I0913 20:18:23.719157  2050 net.cpp:141] Setting up inception_4b/3x3_reduce
I0913 20:18:23.719173  2050 net.cpp:148] Top shape: 10 112 14 14 (219520)
I0913 20:18:23.719179  2050 net.cpp:156] Memory required for data: 393003520
I0913 20:18:23.719188  2050 layer_factory.hpp:77] Creating layer inception_4b/relu_3x3_reduce
I0913 20:18:23.719200  2050 net.cpp:91] Creating Layer inception_4b/relu_3x3_reduce
I0913 20:18:23.719207  2050 net.cpp:425] inception_4b/relu_3x3_reduce <- inception_4b/3x3_reduce
I0913 20:18:23.719218  2050 net.cpp:386] inception_4b/relu_3x3_reduce -> inception_4b/3x3_reduce (in-place)
I0913 20:18:23.719452  2050 net.cpp:141] Setting up inception_4b/relu_3x3_reduce
I0913 20:18:23.719463  2050 net.cpp:148] Top shape: 10 112 14 14 (219520)
I0913 20:18:23.719468  2050 net.cpp:156] Memory required for data: 393881600
I0913 20:18:23.719473  2050 layer_factory.hpp:77] Creating layer inception_4b/3x3
I0913 20:18:23.719487  2050 net.cpp:91] Creating Layer inception_4b/3x3
I0913 20:18:23.719494  2050 net.cpp:425] inception_4b/3x3 <- inception_4b/3x3_reduce
I0913 20:18:23.719504  2050 net.cpp:399] inception_4b/3x3 -> inception_4b/3x3
I0913 20:18:23.723532  2050 net.cpp:141] Setting up inception_4b/3x3
I0913 20:18:23.723549  2050 net.cpp:148] Top shape: 10 224 14 14 (439040)
I0913 20:18:23.723556  2050 net.cpp:156] Memory required for data: 395637760
I0913 20:18:23.723564  2050 layer_factory.hpp:77] Creating layer inception_4b/relu_3x3
I0913 20:18:23.723582  2050 net.cpp:91] Creating Layer inception_4b/relu_3x3
I0913 20:18:23.723589  2050 net.cpp:425] inception_4b/relu_3x3 <- inception_4b/3x3
I0913 20:18:23.723597  2050 net.cpp:386] inception_4b/relu_3x3 -> inception_4b/3x3 (in-place)
I0913 20:18:23.724004  2050 net.cpp:141] Setting up inception_4b/relu_3x3
I0913 20:18:23.724015  2050 net.cpp:148] Top shape: 10 224 14 14 (439040)
I0913 20:18:23.724020  2050 net.cpp:156] Memory required for data: 397393920
I0913 20:18:23.724025  2050 layer_factory.hpp:77] Creating layer inception_4b/5x5_reduce
I0913 20:18:23.724058  2050 net.cpp:91] Creating Layer inception_4b/5x5_reduce
I0913 20:18:23.724064  2050 net.cpp:425] inception_4b/5x5_reduce <- inception_4a/output_inception_4a/output_0_split_2
I0913 20:18:23.724084  2050 net.cpp:399] inception_4b/5x5_reduce -> inception_4b/5x5_reduce
I0913 20:18:23.725435  2050 net.cpp:141] Setting up inception_4b/5x5_reduce
I0913 20:18:23.725451  2050 net.cpp:148] Top shape: 10 24 14 14 (47040)
I0913 20:18:23.725456  2050 net.cpp:156] Memory required for data: 397582080
I0913 20:18:23.725466  2050 layer_factory.hpp:77] Creating layer inception_4b/relu_5x5_reduce
I0913 20:18:23.725476  2050 net.cpp:91] Creating Layer inception_4b/relu_5x5_reduce
I0913 20:18:23.725482  2050 net.cpp:425] inception_4b/relu_5x5_reduce <- inception_4b/5x5_reduce
I0913 20:18:23.725491  2050 net.cpp:386] inception_4b/relu_5x5_reduce -> inception_4b/5x5_reduce (in-place)
I0913 20:18:23.725891  2050 net.cpp:141] Setting up inception_4b/relu_5x5_reduce
I0913 20:18:23.725903  2050 net.cpp:148] Top shape: 10 24 14 14 (47040)
I0913 20:18:23.725908  2050 net.cpp:156] Memory required for data: 397770240
I0913 20:18:23.725914  2050 layer_factory.hpp:77] Creating layer inception_4b/5x5
I0913 20:18:23.725929  2050 net.cpp:91] Creating Layer inception_4b/5x5
I0913 20:18:23.725934  2050 net.cpp:425] inception_4b/5x5 <- inception_4b/5x5_reduce
I0913 20:18:23.725946  2050 net.cpp:399] inception_4b/5x5 -> inception_4b/5x5
I0913 20:18:23.728333  2050 net.cpp:141] Setting up inception_4b/5x5
I0913 20:18:23.728351  2050 net.cpp:148] Top shape: 10 64 14 14 (125440)
I0913 20:18:23.728356  2050 net.cpp:156] Memory required for data: 398272000
I0913 20:18:23.728366  2050 layer_factory.hpp:77] Creating layer inception_4b/relu_5x5
I0913 20:18:23.728379  2050 net.cpp:91] Creating Layer inception_4b/relu_5x5
I0913 20:18:23.728385  2050 net.cpp:425] inception_4b/relu_5x5 <- inception_4b/5x5
I0913 20:18:23.728392  2050 net.cpp:386] inception_4b/relu_5x5 -> inception_4b/5x5 (in-place)
I0913 20:18:23.728626  2050 net.cpp:141] Setting up inception_4b/relu_5x5
I0913 20:18:23.728637  2050 net.cpp:148] Top shape: 10 64 14 14 (125440)
I0913 20:18:23.728642  2050 net.cpp:156] Memory required for data: 398773760
I0913 20:18:23.728647  2050 layer_factory.hpp:77] Creating layer inception_4b/pool
I0913 20:18:23.728657  2050 net.cpp:91] Creating Layer inception_4b/pool
I0913 20:18:23.728662  2050 net.cpp:425] inception_4b/pool <- inception_4a/output_inception_4a/output_0_split_3
I0913 20:18:23.728673  2050 net.cpp:399] inception_4b/pool -> inception_4b/pool
I0913 20:18:23.728737  2050 net.cpp:141] Setting up inception_4b/pool
I0913 20:18:23.728746  2050 net.cpp:148] Top shape: 10 512 14 14 (1003520)
I0913 20:18:23.728751  2050 net.cpp:156] Memory required for data: 402787840
I0913 20:18:23.728756  2050 layer_factory.hpp:77] Creating layer inception_4b/pool_proj
I0913 20:18:23.728773  2050 net.cpp:91] Creating Layer inception_4b/pool_proj
I0913 20:18:23.728780  2050 net.cpp:425] inception_4b/pool_proj <- inception_4b/pool
I0913 20:18:23.728787  2050 net.cpp:399] inception_4b/pool_proj -> inception_4b/pool_proj
I0913 20:18:23.730463  2050 net.cpp:141] Setting up inception_4b/pool_proj
I0913 20:18:23.730480  2050 net.cpp:148] Top shape: 10 64 14 14 (125440)
I0913 20:18:23.730485  2050 net.cpp:156] Memory required for data: 403289600
I0913 20:18:23.730494  2050 layer_factory.hpp:77] Creating layer inception_4b/relu_pool_proj
I0913 20:18:23.730505  2050 net.cpp:91] Creating Layer inception_4b/relu_pool_proj
I0913 20:18:23.730511  2050 net.cpp:425] inception_4b/relu_pool_proj <- inception_4b/pool_proj
I0913 20:18:23.730518  2050 net.cpp:386] inception_4b/relu_pool_proj -> inception_4b/pool_proj (in-place)
I0913 20:18:23.730922  2050 net.cpp:141] Setting up inception_4b/relu_pool_proj
I0913 20:18:23.730937  2050 net.cpp:148] Top shape: 10 64 14 14 (125440)
I0913 20:18:23.730942  2050 net.cpp:156] Memory required for data: 403791360
I0913 20:18:23.730947  2050 layer_factory.hpp:77] Creating layer inception_4b/output
I0913 20:18:23.730955  2050 net.cpp:91] Creating Layer inception_4b/output
I0913 20:18:23.730960  2050 net.cpp:425] inception_4b/output <- inception_4b/1x1
I0913 20:18:23.730967  2050 net.cpp:425] inception_4b/output <- inception_4b/3x3
I0913 20:18:23.730973  2050 net.cpp:425] inception_4b/output <- inception_4b/5x5
I0913 20:18:23.730978  2050 net.cpp:425] inception_4b/output <- inception_4b/pool_proj
I0913 20:18:23.730984  2050 net.cpp:399] inception_4b/output -> inception_4b/output
I0913 20:18:23.731029  2050 net.cpp:141] Setting up inception_4b/output
I0913 20:18:23.731040  2050 net.cpp:148] Top shape: 10 512 14 14 (1003520)
I0913 20:18:23.731045  2050 net.cpp:156] Memory required for data: 407805440
I0913 20:18:23.731048  2050 layer_factory.hpp:77] Creating layer inception_4b/output_inception_4b/output_0_split
I0913 20:18:23.731060  2050 net.cpp:91] Creating Layer inception_4b/output_inception_4b/output_0_split
I0913 20:18:23.731065  2050 net.cpp:425] inception_4b/output_inception_4b/output_0_split <- inception_4b/output
I0913 20:18:23.731071  2050 net.cpp:399] inception_4b/output_inception_4b/output_0_split -> inception_4b/output_inception_4b/output_0_split_0
I0913 20:18:23.731081  2050 net.cpp:399] inception_4b/output_inception_4b/output_0_split -> inception_4b/output_inception_4b/output_0_split_1
I0913 20:18:23.731088  2050 net.cpp:399] inception_4b/output_inception_4b/output_0_split -> inception_4b/output_inception_4b/output_0_split_2
I0913 20:18:23.731097  2050 net.cpp:399] inception_4b/output_inception_4b/output_0_split -> inception_4b/output_inception_4b/output_0_split_3
I0913 20:18:23.731184  2050 net.cpp:141] Setting up inception_4b/output_inception_4b/output_0_split
I0913 20:18:23.731192  2050 net.cpp:148] Top shape: 10 512 14 14 (1003520)
I0913 20:18:23.731199  2050 net.cpp:148] Top shape: 10 512 14 14 (1003520)
I0913 20:18:23.731204  2050 net.cpp:148] Top shape: 10 512 14 14 (1003520)
I0913 20:18:23.731209  2050 net.cpp:148] Top shape: 10 512 14 14 (1003520)
I0913 20:18:23.731214  2050 net.cpp:156] Memory required for data: 423861760
I0913 20:18:23.731218  2050 layer_factory.hpp:77] Creating layer inception_4c/1x1
I0913 20:18:23.731232  2050 net.cpp:91] Creating Layer inception_4c/1x1
I0913 20:18:23.731238  2050 net.cpp:425] inception_4c/1x1 <- inception_4b/output_inception_4b/output_0_split_0
I0913 20:18:23.731250  2050 net.cpp:399] inception_4c/1x1 -> inception_4c/1x1
I0913 20:18:23.732960  2050 net.cpp:141] Setting up inception_4c/1x1
I0913 20:18:23.732977  2050 net.cpp:148] Top shape: 10 128 14 14 (250880)
I0913 20:18:23.732982  2050 net.cpp:156] Memory required for data: 424865280
I0913 20:18:23.732991  2050 layer_factory.hpp:77] Creating layer inception_4c/relu_1x1
I0913 20:18:23.733001  2050 net.cpp:91] Creating Layer inception_4c/relu_1x1
I0913 20:18:23.733007  2050 net.cpp:425] inception_4c/relu_1x1 <- inception_4c/1x1
I0913 20:18:23.733014  2050 net.cpp:386] inception_4c/relu_1x1 -> inception_4c/1x1 (in-place)
I0913 20:18:23.733417  2050 net.cpp:141] Setting up inception_4c/relu_1x1
I0913 20:18:23.733429  2050 net.cpp:148] Top shape: 10 128 14 14 (250880)
I0913 20:18:23.733434  2050 net.cpp:156] Memory required for data: 425868800
I0913 20:18:23.733439  2050 layer_factory.hpp:77] Creating layer inception_4c/3x3_reduce
I0913 20:18:23.733453  2050 net.cpp:91] Creating Layer inception_4c/3x3_reduce
I0913 20:18:23.733459  2050 net.cpp:425] inception_4c/3x3_reduce <- inception_4b/output_inception_4b/output_0_split_1
I0913 20:18:23.733472  2050 net.cpp:399] inception_4c/3x3_reduce -> inception_4c/3x3_reduce
I0913 20:18:23.735381  2050 net.cpp:141] Setting up inception_4c/3x3_reduce
I0913 20:18:23.735397  2050 net.cpp:148] Top shape: 10 128 14 14 (250880)
I0913 20:18:23.735402  2050 net.cpp:156] Memory required for data: 426872320
I0913 20:18:23.735411  2050 layer_factory.hpp:77] Creating layer inception_4c/relu_3x3_reduce
I0913 20:18:23.735419  2050 net.cpp:91] Creating Layer inception_4c/relu_3x3_reduce
I0913 20:18:23.735425  2050 net.cpp:425] inception_4c/relu_3x3_reduce <- inception_4c/3x3_reduce
I0913 20:18:23.735432  2050 net.cpp:386] inception_4c/relu_3x3_reduce -> inception_4c/3x3_reduce (in-place)
I0913 20:18:23.735667  2050 net.cpp:141] Setting up inception_4c/relu_3x3_reduce
I0913 20:18:23.735678  2050 net.cpp:148] Top shape: 10 128 14 14 (250880)
I0913 20:18:23.735683  2050 net.cpp:156] Memory required for data: 427875840
I0913 20:18:23.735688  2050 layer_factory.hpp:77] Creating layer inception_4c/3x3
I0913 20:18:23.735702  2050 net.cpp:91] Creating Layer inception_4c/3x3
I0913 20:18:23.735708  2050 net.cpp:425] inception_4c/3x3 <- inception_4c/3x3_reduce
I0913 20:18:23.735720  2050 net.cpp:399] inception_4c/3x3 -> inception_4c/3x3
I0913 20:18:23.740044  2050 net.cpp:141] Setting up inception_4c/3x3
I0913 20:18:23.740062  2050 net.cpp:148] Top shape: 10 256 14 14 (501760)
I0913 20:18:23.740067  2050 net.cpp:156] Memory required for data: 429882880
I0913 20:18:23.740084  2050 layer_factory.hpp:77] Creating layer inception_4c/relu_3x3
I0913 20:18:23.740097  2050 net.cpp:91] Creating Layer inception_4c/relu_3x3
I0913 20:18:23.740103  2050 net.cpp:425] inception_4c/relu_3x3 <- inception_4c/3x3
I0913 20:18:23.740110  2050 net.cpp:386] inception_4c/relu_3x3 -> inception_4c/3x3 (in-place)
I0913 20:18:23.740512  2050 net.cpp:141] Setting up inception_4c/relu_3x3
I0913 20:18:23.740525  2050 net.cpp:148] Top shape: 10 256 14 14 (501760)
I0913 20:18:23.740530  2050 net.cpp:156] Memory required for data: 431889920
I0913 20:18:23.740535  2050 layer_factory.hpp:77] Creating layer inception_4c/5x5_reduce
I0913 20:18:23.740552  2050 net.cpp:91] Creating Layer inception_4c/5x5_reduce
I0913 20:18:23.740558  2050 net.cpp:425] inception_4c/5x5_reduce <- inception_4b/output_inception_4b/output_0_split_2
I0913 20:18:23.740567  2050 net.cpp:399] inception_4c/5x5_reduce -> inception_4c/5x5_reduce
I0913 20:18:23.741937  2050 net.cpp:141] Setting up inception_4c/5x5_reduce
I0913 20:18:23.741955  2050 net.cpp:148] Top shape: 10 24 14 14 (47040)
I0913 20:18:23.741960  2050 net.cpp:156] Memory required for data: 432078080
I0913 20:18:23.741968  2050 layer_factory.hpp:77] Creating layer inception_4c/relu_5x5_reduce
I0913 20:18:23.741979  2050 net.cpp:91] Creating Layer inception_4c/relu_5x5_reduce
I0913 20:18:23.741986  2050 net.cpp:425] inception_4c/relu_5x5_reduce <- inception_4c/5x5_reduce
I0913 20:18:23.741992  2050 net.cpp:386] inception_4c/relu_5x5_reduce -> inception_4c/5x5_reduce (in-place)
I0913 20:18:23.742388  2050 net.cpp:141] Setting up inception_4c/relu_5x5_reduce
I0913 20:18:23.742399  2050 net.cpp:148] Top shape: 10 24 14 14 (47040)
I0913 20:18:23.742406  2050 net.cpp:156] Memory required for data: 432266240
I0913 20:18:23.742411  2050 layer_factory.hpp:77] Creating layer inception_4c/5x5
I0913 20:18:23.742424  2050 net.cpp:91] Creating Layer inception_4c/5x5
I0913 20:18:23.742429  2050 net.cpp:425] inception_4c/5x5 <- inception_4c/5x5_reduce
I0913 20:18:23.742441  2050 net.cpp:399] inception_4c/5x5 -> inception_4c/5x5
I0913 20:18:23.744418  2050 net.cpp:141] Setting up inception_4c/5x5
I0913 20:18:23.744434  2050 net.cpp:148] Top shape: 10 64 14 14 (125440)
I0913 20:18:23.744441  2050 net.cpp:156] Memory required for data: 432768000
I0913 20:18:23.744449  2050 layer_factory.hpp:77] Creating layer inception_4c/relu_5x5
I0913 20:18:23.744460  2050 net.cpp:91] Creating Layer inception_4c/relu_5x5
I0913 20:18:23.744467  2050 net.cpp:425] inception_4c/relu_5x5 <- inception_4c/5x5
I0913 20:18:23.744474  2050 net.cpp:386] inception_4c/relu_5x5 -> inception_4c/5x5 (in-place)
I0913 20:18:23.744709  2050 net.cpp:141] Setting up inception_4c/relu_5x5
I0913 20:18:23.744720  2050 net.cpp:148] Top shape: 10 64 14 14 (125440)
I0913 20:18:23.744725  2050 net.cpp:156] Memory required for data: 433269760
I0913 20:18:23.744730  2050 layer_factory.hpp:77] Creating layer inception_4c/pool
I0913 20:18:23.744740  2050 net.cpp:91] Creating Layer inception_4c/pool
I0913 20:18:23.744745  2050 net.cpp:425] inception_4c/pool <- inception_4b/output_inception_4b/output_0_split_3
I0913 20:18:23.744757  2050 net.cpp:399] inception_4c/pool -> inception_4c/pool
I0913 20:18:23.744822  2050 net.cpp:141] Setting up inception_4c/pool
I0913 20:18:23.744832  2050 net.cpp:148] Top shape: 10 512 14 14 (1003520)
I0913 20:18:23.744837  2050 net.cpp:156] Memory required for data: 437283840
I0913 20:18:23.744842  2050 layer_factory.hpp:77] Creating layer inception_4c/pool_proj
I0913 20:18:23.744858  2050 net.cpp:91] Creating Layer inception_4c/pool_proj
I0913 20:18:23.744873  2050 net.cpp:425] inception_4c/pool_proj <- inception_4c/pool
I0913 20:18:23.744880  2050 net.cpp:399] inception_4c/pool_proj -> inception_4c/pool_proj
I0913 20:18:23.747263  2050 net.cpp:141] Setting up inception_4c/pool_proj
I0913 20:18:23.747280  2050 net.cpp:148] Top shape: 10 64 14 14 (125440)
I0913 20:18:23.747290  2050 net.cpp:156] Memory required for data: 437785600
I0913 20:18:23.747318  2050 layer_factory.hpp:77] Creating layer inception_4c/relu_pool_proj
I0913 20:18:23.747331  2050 net.cpp:91] Creating Layer inception_4c/relu_pool_proj
I0913 20:18:23.747337  2050 net.cpp:425] inception_4c/relu_pool_proj <- inception_4c/pool_proj
I0913 20:18:23.747344  2050 net.cpp:386] inception_4c/relu_pool_proj -> inception_4c/pool_proj (in-place)
I0913 20:18:23.747756  2050 net.cpp:141] Setting up inception_4c/relu_pool_proj
I0913 20:18:23.747768  2050 net.cpp:148] Top shape: 10 64 14 14 (125440)
I0913 20:18:23.747773  2050 net.cpp:156] Memory required for data: 438287360
I0913 20:18:23.747778  2050 layer_factory.hpp:77] Creating layer inception_4c/output
I0913 20:18:23.747789  2050 net.cpp:91] Creating Layer inception_4c/output
I0913 20:18:23.747795  2050 net.cpp:425] inception_4c/output <- inception_4c/1x1
I0913 20:18:23.747802  2050 net.cpp:425] inception_4c/output <- inception_4c/3x3
I0913 20:18:23.747807  2050 net.cpp:425] inception_4c/output <- inception_4c/5x5
I0913 20:18:23.747813  2050 net.cpp:425] inception_4c/output <- inception_4c/pool_proj
I0913 20:18:23.747820  2050 net.cpp:399] inception_4c/output -> inception_4c/output
I0913 20:18:23.747866  2050 net.cpp:141] Setting up inception_4c/output
I0913 20:18:23.747876  2050 net.cpp:148] Top shape: 10 512 14 14 (1003520)
I0913 20:18:23.747881  2050 net.cpp:156] Memory required for data: 442301440
I0913 20:18:23.747885  2050 layer_factory.hpp:77] Creating layer inception_4c/output_inception_4c/output_0_split
I0913 20:18:23.747895  2050 net.cpp:91] Creating Layer inception_4c/output_inception_4c/output_0_split
I0913 20:18:23.747900  2050 net.cpp:425] inception_4c/output_inception_4c/output_0_split <- inception_4c/output
I0913 20:18:23.747908  2050 net.cpp:399] inception_4c/output_inception_4c/output_0_split -> inception_4c/output_inception_4c/output_0_split_0
I0913 20:18:23.747917  2050 net.cpp:399] inception_4c/output_inception_4c/output_0_split -> inception_4c/output_inception_4c/output_0_split_1
I0913 20:18:23.747926  2050 net.cpp:399] inception_4c/output_inception_4c/output_0_split -> inception_4c/output_inception_4c/output_0_split_2
I0913 20:18:23.747934  2050 net.cpp:399] inception_4c/output_inception_4c/output_0_split -> inception_4c/output_inception_4c/output_0_split_3
I0913 20:18:23.748021  2050 net.cpp:141] Setting up inception_4c/output_inception_4c/output_0_split
I0913 20:18:23.748033  2050 net.cpp:148] Top shape: 10 512 14 14 (1003520)
I0913 20:18:23.748039  2050 net.cpp:148] Top shape: 10 512 14 14 (1003520)
I0913 20:18:23.748044  2050 net.cpp:148] Top shape: 10 512 14 14 (1003520)
I0913 20:18:23.748050  2050 net.cpp:148] Top shape: 10 512 14 14 (1003520)
I0913 20:18:23.748054  2050 net.cpp:156] Memory required for data: 458357760
I0913 20:18:23.748062  2050 layer_factory.hpp:77] Creating layer inception_4d/1x1
I0913 20:18:23.748085  2050 net.cpp:91] Creating Layer inception_4d/1x1
I0913 20:18:23.748092  2050 net.cpp:425] inception_4d/1x1 <- inception_4c/output_inception_4c/output_0_split_0
I0913 20:18:23.748100  2050 net.cpp:399] inception_4d/1x1 -> inception_4d/1x1
I0913 20:18:23.749804  2050 net.cpp:141] Setting up inception_4d/1x1
I0913 20:18:23.749820  2050 net.cpp:148] Top shape: 10 112 14 14 (219520)
I0913 20:18:23.749825  2050 net.cpp:156] Memory required for data: 459235840
I0913 20:18:23.749841  2050 layer_factory.hpp:77] Creating layer inception_4d/relu_1x1
I0913 20:18:23.749850  2050 net.cpp:91] Creating Layer inception_4d/relu_1x1
I0913 20:18:23.749855  2050 net.cpp:425] inception_4d/relu_1x1 <- inception_4d/1x1
I0913 20:18:23.749862  2050 net.cpp:386] inception_4d/relu_1x1 -> inception_4d/1x1 (in-place)
I0913 20:18:23.750264  2050 net.cpp:141] Setting up inception_4d/relu_1x1
I0913 20:18:23.750277  2050 net.cpp:148] Top shape: 10 112 14 14 (219520)
I0913 20:18:23.750282  2050 net.cpp:156] Memory required for data: 460113920
I0913 20:18:23.750286  2050 layer_factory.hpp:77] Creating layer inception_4d/3x3_reduce
I0913 20:18:23.750301  2050 net.cpp:91] Creating Layer inception_4d/3x3_reduce
I0913 20:18:23.750308  2050 net.cpp:425] inception_4d/3x3_reduce <- inception_4c/output_inception_4c/output_0_split_1
I0913 20:18:23.750319  2050 net.cpp:399] inception_4d/3x3_reduce -> inception_4d/3x3_reduce
I0913 20:18:23.752348  2050 net.cpp:141] Setting up inception_4d/3x3_reduce
I0913 20:18:23.752367  2050 net.cpp:148] Top shape: 10 144 14 14 (282240)
I0913 20:18:23.752372  2050 net.cpp:156] Memory required for data: 461242880
I0913 20:18:23.752380  2050 layer_factory.hpp:77] Creating layer inception_4d/relu_3x3_reduce
I0913 20:18:23.752393  2050 net.cpp:91] Creating Layer inception_4d/relu_3x3_reduce
I0913 20:18:23.752399  2050 net.cpp:425] inception_4d/relu_3x3_reduce <- inception_4d/3x3_reduce
I0913 20:18:23.752406  2050 net.cpp:386] inception_4d/relu_3x3_reduce -> inception_4d/3x3_reduce (in-place)
I0913 20:18:23.752643  2050 net.cpp:141] Setting up inception_4d/relu_3x3_reduce
I0913 20:18:23.752655  2050 net.cpp:148] Top shape: 10 144 14 14 (282240)
I0913 20:18:23.752660  2050 net.cpp:156] Memory required for data: 462371840
I0913 20:18:23.752665  2050 layer_factory.hpp:77] Creating layer inception_4d/3x3
I0913 20:18:23.752679  2050 net.cpp:91] Creating Layer inception_4d/3x3
I0913 20:18:23.752686  2050 net.cpp:425] inception_4d/3x3 <- inception_4d/3x3_reduce
I0913 20:18:23.752696  2050 net.cpp:399] inception_4d/3x3 -> inception_4d/3x3
I0913 20:18:23.757762  2050 net.cpp:141] Setting up inception_4d/3x3
I0913 20:18:23.757781  2050 net.cpp:148] Top shape: 10 288 14 14 (564480)
I0913 20:18:23.757786  2050 net.cpp:156] Memory required for data: 464629760
I0913 20:18:23.757796  2050 layer_factory.hpp:77] Creating layer inception_4d/relu_3x3
I0913 20:18:23.757807  2050 net.cpp:91] Creating Layer inception_4d/relu_3x3
I0913 20:18:23.757813  2050 net.cpp:425] inception_4d/relu_3x3 <- inception_4d/3x3
I0913 20:18:23.757820  2050 net.cpp:386] inception_4d/relu_3x3 -> inception_4d/3x3 (in-place)
I0913 20:18:23.758226  2050 net.cpp:141] Setting up inception_4d/relu_3x3
I0913 20:18:23.758240  2050 net.cpp:148] Top shape: 10 288 14 14 (564480)
I0913 20:18:23.758245  2050 net.cpp:156] Memory required for data: 466887680
I0913 20:18:23.758250  2050 layer_factory.hpp:77] Creating layer inception_4d/5x5_reduce
I0913 20:18:23.758266  2050 net.cpp:91] Creating Layer inception_4d/5x5_reduce
I0913 20:18:23.758273  2050 net.cpp:425] inception_4d/5x5_reduce <- inception_4c/output_inception_4c/output_0_split_2
I0913 20:18:23.758282  2050 net.cpp:399] inception_4d/5x5_reduce -> inception_4d/5x5_reduce
I0913 20:18:23.759706  2050 net.cpp:141] Setting up inception_4d/5x5_reduce
I0913 20:18:23.759722  2050 net.cpp:148] Top shape: 10 32 14 14 (62720)
I0913 20:18:23.759728  2050 net.cpp:156] Memory required for data: 467138560
I0913 20:18:23.759737  2050 layer_factory.hpp:77] Creating layer inception_4d/relu_5x5_reduce
I0913 20:18:23.759745  2050 net.cpp:91] Creating Layer inception_4d/relu_5x5_reduce
I0913 20:18:23.759752  2050 net.cpp:425] inception_4d/relu_5x5_reduce <- inception_4d/5x5_reduce
I0913 20:18:23.759758  2050 net.cpp:386] inception_4d/relu_5x5_reduce -> inception_4d/5x5_reduce (in-place)
I0913 20:18:23.760174  2050 net.cpp:141] Setting up inception_4d/relu_5x5_reduce
I0913 20:18:23.760185  2050 net.cpp:148] Top shape: 10 32 14 14 (62720)
I0913 20:18:23.760190  2050 net.cpp:156] Memory required for data: 467389440
I0913 20:18:23.760195  2050 layer_factory.hpp:77] Creating layer inception_4d/5x5
I0913 20:18:23.760211  2050 net.cpp:91] Creating Layer inception_4d/5x5
I0913 20:18:23.760217  2050 net.cpp:425] inception_4d/5x5 <- inception_4d/5x5_reduce
I0913 20:18:23.760229  2050 net.cpp:399] inception_4d/5x5 -> inception_4d/5x5
I0913 20:18:23.762065  2050 net.cpp:141] Setting up inception_4d/5x5
I0913 20:18:23.762082  2050 net.cpp:148] Top shape: 10 64 14 14 (125440)
I0913 20:18:23.762087  2050 net.cpp:156] Memory required for data: 467891200
I0913 20:18:23.762096  2050 layer_factory.hpp:77] Creating layer inception_4d/relu_5x5
I0913 20:18:23.762109  2050 net.cpp:91] Creating Layer inception_4d/relu_5x5
I0913 20:18:23.762115  2050 net.cpp:425] inception_4d/relu_5x5 <- inception_4d/5x5
I0913 20:18:23.762121  2050 net.cpp:386] inception_4d/relu_5x5 -> inception_4d/5x5 (in-place)
I0913 20:18:23.762359  2050 net.cpp:141] Setting up inception_4d/relu_5x5
I0913 20:18:23.762372  2050 net.cpp:148] Top shape: 10 64 14 14 (125440)
I0913 20:18:23.762375  2050 net.cpp:156] Memory required for data: 468392960
I0913 20:18:23.762380  2050 layer_factory.hpp:77] Creating layer inception_4d/pool
I0913 20:18:23.762390  2050 net.cpp:91] Creating Layer inception_4d/pool
I0913 20:18:23.762397  2050 net.cpp:425] inception_4d/pool <- inception_4c/output_inception_4c/output_0_split_3
I0913 20:18:23.762408  2050 net.cpp:399] inception_4d/pool -> inception_4d/pool
I0913 20:18:23.762472  2050 net.cpp:141] Setting up inception_4d/pool
I0913 20:18:23.762488  2050 net.cpp:148] Top shape: 10 512 14 14 (1003520)
I0913 20:18:23.762492  2050 net.cpp:156] Memory required for data: 472407040
I0913 20:18:23.762497  2050 layer_factory.hpp:77] Creating layer inception_4d/pool_proj
I0913 20:18:23.762514  2050 net.cpp:91] Creating Layer inception_4d/pool_proj
I0913 20:18:23.762521  2050 net.cpp:425] inception_4d/pool_proj <- inception_4d/pool
I0913 20:18:23.762528  2050 net.cpp:399] inception_4d/pool_proj -> inception_4d/pool_proj
I0913 20:18:23.764257  2050 net.cpp:141] Setting up inception_4d/pool_proj
I0913 20:18:23.764274  2050 net.cpp:148] Top shape: 10 64 14 14 (125440)
I0913 20:18:23.764281  2050 net.cpp:156] Memory required for data: 472908800
I0913 20:18:23.764289  2050 layer_factory.hpp:77] Creating layer inception_4d/relu_pool_proj
I0913 20:18:23.764302  2050 net.cpp:91] Creating Layer inception_4d/relu_pool_proj
I0913 20:18:23.764307  2050 net.cpp:425] inception_4d/relu_pool_proj <- inception_4d/pool_proj
I0913 20:18:23.764317  2050 net.cpp:386] inception_4d/relu_pool_proj -> inception_4d/pool_proj (in-place)
I0913 20:18:23.764729  2050 net.cpp:141] Setting up inception_4d/relu_pool_proj
I0913 20:18:23.764741  2050 net.cpp:148] Top shape: 10 64 14 14 (125440)
I0913 20:18:23.764746  2050 net.cpp:156] Memory required for data: 473410560
I0913 20:18:23.764751  2050 layer_factory.hpp:77] Creating layer inception_4d/output
I0913 20:18:23.764760  2050 net.cpp:91] Creating Layer inception_4d/output
I0913 20:18:23.764765  2050 net.cpp:425] inception_4d/output <- inception_4d/1x1
I0913 20:18:23.764772  2050 net.cpp:425] inception_4d/output <- inception_4d/3x3
I0913 20:18:23.764777  2050 net.cpp:425] inception_4d/output <- inception_4d/5x5
I0913 20:18:23.764783  2050 net.cpp:425] inception_4d/output <- inception_4d/pool_proj
I0913 20:18:23.764792  2050 net.cpp:399] inception_4d/output -> inception_4d/output
I0913 20:18:23.764835  2050 net.cpp:141] Setting up inception_4d/output
I0913 20:18:23.764845  2050 net.cpp:148] Top shape: 10 528 14 14 (1034880)
I0913 20:18:23.764850  2050 net.cpp:156] Memory required for data: 477550080
I0913 20:18:23.764854  2050 layer_factory.hpp:77] Creating layer inception_4d/output_inception_4d/output_0_split
I0913 20:18:23.764868  2050 net.cpp:91] Creating Layer inception_4d/output_inception_4d/output_0_split
I0913 20:18:23.764873  2050 net.cpp:425] inception_4d/output_inception_4d/output_0_split <- inception_4d/output
I0913 20:18:23.764879  2050 net.cpp:399] inception_4d/output_inception_4d/output_0_split -> inception_4d/output_inception_4d/output_0_split_0
I0913 20:18:23.764889  2050 net.cpp:399] inception_4d/output_inception_4d/output_0_split -> inception_4d/output_inception_4d/output_0_split_1
I0913 20:18:23.764900  2050 net.cpp:399] inception_4d/output_inception_4d/output_0_split -> inception_4d/output_inception_4d/output_0_split_2
I0913 20:18:23.764909  2050 net.cpp:399] inception_4d/output_inception_4d/output_0_split -> inception_4d/output_inception_4d/output_0_split_3
I0913 20:18:23.765002  2050 net.cpp:141] Setting up inception_4d/output_inception_4d/output_0_split
I0913 20:18:23.765012  2050 net.cpp:148] Top shape: 10 528 14 14 (1034880)
I0913 20:18:23.765017  2050 net.cpp:148] Top shape: 10 528 14 14 (1034880)
I0913 20:18:23.765022  2050 net.cpp:148] Top shape: 10 528 14 14 (1034880)
I0913 20:18:23.765028  2050 net.cpp:148] Top shape: 10 528 14 14 (1034880)
I0913 20:18:23.765033  2050 net.cpp:156] Memory required for data: 494108160
I0913 20:18:23.765036  2050 layer_factory.hpp:77] Creating layer inception_4e/1x1
I0913 20:18:23.765050  2050 net.cpp:91] Creating Layer inception_4e/1x1
I0913 20:18:23.765055  2050 net.cpp:425] inception_4e/1x1 <- inception_4d/output_inception_4d/output_0_split_0
I0913 20:18:23.765067  2050 net.cpp:399] inception_4e/1x1 -> inception_4e/1x1
I0913 20:18:23.768472  2050 net.cpp:141] Setting up inception_4e/1x1
I0913 20:18:23.768507  2050 net.cpp:148] Top shape: 10 256 14 14 (501760)
I0913 20:18:23.768512  2050 net.cpp:156] Memory required for data: 496115200
I0913 20:18:23.768523  2050 layer_factory.hpp:77] Creating layer inception_4e/relu_1x1
I0913 20:18:23.768538  2050 net.cpp:91] Creating Layer inception_4e/relu_1x1
I0913 20:18:23.768546  2050 net.cpp:425] inception_4e/relu_1x1 <- inception_4e/1x1
I0913 20:18:23.768554  2050 net.cpp:386] inception_4e/relu_1x1 -> inception_4e/1x1 (in-place)
I0913 20:18:23.768972  2050 net.cpp:141] Setting up inception_4e/relu_1x1
I0913 20:18:23.768985  2050 net.cpp:148] Top shape: 10 256 14 14 (501760)
I0913 20:18:23.768990  2050 net.cpp:156] Memory required for data: 498122240
I0913 20:18:23.768996  2050 layer_factory.hpp:77] Creating layer inception_4e/3x3_reduce
I0913 20:18:23.769014  2050 net.cpp:91] Creating Layer inception_4e/3x3_reduce
I0913 20:18:23.769021  2050 net.cpp:425] inception_4e/3x3_reduce <- inception_4d/output_inception_4d/output_0_split_1
I0913 20:18:23.769032  2050 net.cpp:399] inception_4e/3x3_reduce -> inception_4e/3x3_reduce
I0913 20:18:23.771157  2050 net.cpp:141] Setting up inception_4e/3x3_reduce
I0913 20:18:23.771174  2050 net.cpp:148] Top shape: 10 160 14 14 (313600)
I0913 20:18:23.771180  2050 net.cpp:156] Memory required for data: 499376640
I0913 20:18:23.771189  2050 layer_factory.hpp:77] Creating layer inception_4e/relu_3x3_reduce
I0913 20:18:23.771201  2050 net.cpp:91] Creating Layer inception_4e/relu_3x3_reduce
I0913 20:18:23.771208  2050 net.cpp:425] inception_4e/relu_3x3_reduce <- inception_4e/3x3_reduce
I0913 20:18:23.771214  2050 net.cpp:386] inception_4e/relu_3x3_reduce -> inception_4e/3x3_reduce (in-place)
I0913 20:18:23.771456  2050 net.cpp:141] Setting up inception_4e/relu_3x3_reduce
I0913 20:18:23.771468  2050 net.cpp:148] Top shape: 10 160 14 14 (313600)
I0913 20:18:23.771472  2050 net.cpp:156] Memory required for data: 500631040
I0913 20:18:23.771477  2050 layer_factory.hpp:77] Creating layer inception_4e/3x3
I0913 20:18:23.771494  2050 net.cpp:91] Creating Layer inception_4e/3x3
I0913 20:18:23.771500  2050 net.cpp:425] inception_4e/3x3 <- inception_4e/3x3_reduce
I0913 20:18:23.771509  2050 net.cpp:399] inception_4e/3x3 -> inception_4e/3x3
I0913 20:18:23.777472  2050 net.cpp:141] Setting up inception_4e/3x3
I0913 20:18:23.777495  2050 net.cpp:148] Top shape: 10 320 14 14 (627200)
I0913 20:18:23.777500  2050 net.cpp:156] Memory required for data: 503139840
I0913 20:18:23.777510  2050 layer_factory.hpp:77] Creating layer inception_4e/relu_3x3
I0913 20:18:23.777520  2050 net.cpp:91] Creating Layer inception_4e/relu_3x3
I0913 20:18:23.777528  2050 net.cpp:425] inception_4e/relu_3x3 <- inception_4e/3x3
I0913 20:18:23.777539  2050 net.cpp:386] inception_4e/relu_3x3 -> inception_4e/3x3 (in-place)
I0913 20:18:23.777966  2050 net.cpp:141] Setting up inception_4e/relu_3x3
I0913 20:18:23.777978  2050 net.cpp:148] Top shape: 10 320 14 14 (627200)
I0913 20:18:23.777983  2050 net.cpp:156] Memory required for data: 505648640
I0913 20:18:23.777988  2050 layer_factory.hpp:77] Creating layer inception_4e/5x5_reduce
I0913 20:18:23.778007  2050 net.cpp:91] Creating Layer inception_4e/5x5_reduce
I0913 20:18:23.778014  2050 net.cpp:425] inception_4e/5x5_reduce <- inception_4d/output_inception_4d/output_0_split_2
I0913 20:18:23.778023  2050 net.cpp:399] inception_4e/5x5_reduce -> inception_4e/5x5_reduce
I0913 20:18:23.779469  2050 net.cpp:141] Setting up inception_4e/5x5_reduce
I0913 20:18:23.779485  2050 net.cpp:148] Top shape: 10 32 14 14 (62720)
I0913 20:18:23.779490  2050 net.cpp:156] Memory required for data: 505899520
I0913 20:18:23.779500  2050 layer_factory.hpp:77] Creating layer inception_4e/relu_5x5_reduce
I0913 20:18:23.779507  2050 net.cpp:91] Creating Layer inception_4e/relu_5x5_reduce
I0913 20:18:23.779513  2050 net.cpp:425] inception_4e/relu_5x5_reduce <- inception_4e/5x5_reduce
I0913 20:18:23.779523  2050 net.cpp:386] inception_4e/relu_5x5_reduce -> inception_4e/5x5_reduce (in-place)
I0913 20:18:23.779938  2050 net.cpp:141] Setting up inception_4e/relu_5x5_reduce
I0913 20:18:23.779950  2050 net.cpp:148] Top shape: 10 32 14 14 (62720)
I0913 20:18:23.779955  2050 net.cpp:156] Memory required for data: 506150400
I0913 20:18:23.779960  2050 layer_factory.hpp:77] Creating layer inception_4e/5x5
I0913 20:18:23.779975  2050 net.cpp:91] Creating Layer inception_4e/5x5
I0913 20:18:23.779981  2050 net.cpp:425] inception_4e/5x5 <- inception_4e/5x5_reduce
I0913 20:18:23.779994  2050 net.cpp:399] inception_4e/5x5 -> inception_4e/5x5
I0913 20:18:23.782922  2050 net.cpp:141] Setting up inception_4e/5x5
I0913 20:18:23.782941  2050 net.cpp:148] Top shape: 10 128 14 14 (250880)
I0913 20:18:23.782948  2050 net.cpp:156] Memory required for data: 507153920
I0913 20:18:23.782956  2050 layer_factory.hpp:77] Creating layer inception_4e/relu_5x5
I0913 20:18:23.782964  2050 net.cpp:91] Creating Layer inception_4e/relu_5x5
I0913 20:18:23.782970  2050 net.cpp:425] inception_4e/relu_5x5 <- inception_4e/5x5
I0913 20:18:23.782979  2050 net.cpp:386] inception_4e/relu_5x5 -> inception_4e/5x5 (in-place)
I0913 20:18:23.783218  2050 net.cpp:141] Setting up inception_4e/relu_5x5
I0913 20:18:23.783229  2050 net.cpp:148] Top shape: 10 128 14 14 (250880)
I0913 20:18:23.783234  2050 net.cpp:156] Memory required for data: 508157440
I0913 20:18:23.783239  2050 layer_factory.hpp:77] Creating layer inception_4e/pool
I0913 20:18:23.783252  2050 net.cpp:91] Creating Layer inception_4e/pool
I0913 20:18:23.783257  2050 net.cpp:425] inception_4e/pool <- inception_4d/output_inception_4d/output_0_split_3
I0913 20:18:23.783265  2050 net.cpp:399] inception_4e/pool -> inception_4e/pool
I0913 20:18:23.783337  2050 net.cpp:141] Setting up inception_4e/pool
I0913 20:18:23.783347  2050 net.cpp:148] Top shape: 10 528 14 14 (1034880)
I0913 20:18:23.783352  2050 net.cpp:156] Memory required for data: 512296960
I0913 20:18:23.783356  2050 layer_factory.hpp:77] Creating layer inception_4e/pool_proj
I0913 20:18:23.783371  2050 net.cpp:91] Creating Layer inception_4e/pool_proj
I0913 20:18:23.783377  2050 net.cpp:425] inception_4e/pool_proj <- inception_4e/pool
I0913 20:18:23.783386  2050 net.cpp:399] inception_4e/pool_proj -> inception_4e/pool_proj
I0913 20:18:23.785357  2050 net.cpp:141] Setting up inception_4e/pool_proj
I0913 20:18:23.785374  2050 net.cpp:148] Top shape: 10 128 14 14 (250880)
I0913 20:18:23.785379  2050 net.cpp:156] Memory required for data: 513300480
I0913 20:18:23.785388  2050 layer_factory.hpp:77] Creating layer inception_4e/relu_pool_proj
I0913 20:18:23.785400  2050 net.cpp:91] Creating Layer inception_4e/relu_pool_proj
I0913 20:18:23.785406  2050 net.cpp:425] inception_4e/relu_pool_proj <- inception_4e/pool_proj
I0913 20:18:23.785414  2050 net.cpp:386] inception_4e/relu_pool_proj -> inception_4e/pool_proj (in-place)
I0913 20:18:23.785831  2050 net.cpp:141] Setting up inception_4e/relu_pool_proj
I0913 20:18:23.785843  2050 net.cpp:148] Top shape: 10 128 14 14 (250880)
I0913 20:18:23.785848  2050 net.cpp:156] Memory required for data: 514304000
I0913 20:18:23.785853  2050 layer_factory.hpp:77] Creating layer inception_4e/output
I0913 20:18:23.785866  2050 net.cpp:91] Creating Layer inception_4e/output
I0913 20:18:23.785871  2050 net.cpp:425] inception_4e/output <- inception_4e/1x1
I0913 20:18:23.785877  2050 net.cpp:425] inception_4e/output <- inception_4e/3x3
I0913 20:18:23.785883  2050 net.cpp:425] inception_4e/output <- inception_4e/5x5
I0913 20:18:23.785889  2050 net.cpp:425] inception_4e/output <- inception_4e/pool_proj
I0913 20:18:23.785895  2050 net.cpp:399] inception_4e/output -> inception_4e/output
I0913 20:18:23.785943  2050 net.cpp:141] Setting up inception_4e/output
I0913 20:18:23.785953  2050 net.cpp:148] Top shape: 10 832 14 14 (1630720)
I0913 20:18:23.785958  2050 net.cpp:156] Memory required for data: 520826880
I0913 20:18:23.785962  2050 layer_factory.hpp:77] Creating layer pool4/3x3_s2
I0913 20:18:23.785970  2050 net.cpp:91] Creating Layer pool4/3x3_s2
I0913 20:18:23.785975  2050 net.cpp:425] pool4/3x3_s2 <- inception_4e/output
I0913 20:18:23.785986  2050 net.cpp:399] pool4/3x3_s2 -> pool4/3x3_s2
I0913 20:18:23.786051  2050 net.cpp:141] Setting up pool4/3x3_s2
I0913 20:18:23.786061  2050 net.cpp:148] Top shape: 10 832 7 7 (407680)
I0913 20:18:23.786064  2050 net.cpp:156] Memory required for data: 522457600
I0913 20:18:23.786069  2050 layer_factory.hpp:77] Creating layer pool4/3x3_s2_pool4/3x3_s2_0_split
I0913 20:18:23.786082  2050 net.cpp:91] Creating Layer pool4/3x3_s2_pool4/3x3_s2_0_split
I0913 20:18:23.786087  2050 net.cpp:425] pool4/3x3_s2_pool4/3x3_s2_0_split <- pool4/3x3_s2
I0913 20:18:23.786097  2050 net.cpp:399] pool4/3x3_s2_pool4/3x3_s2_0_split -> pool4/3x3_s2_pool4/3x3_s2_0_split_0
I0913 20:18:23.786104  2050 net.cpp:399] pool4/3x3_s2_pool4/3x3_s2_0_split -> pool4/3x3_s2_pool4/3x3_s2_0_split_1
I0913 20:18:23.786113  2050 net.cpp:399] pool4/3x3_s2_pool4/3x3_s2_0_split -> pool4/3x3_s2_pool4/3x3_s2_0_split_2
I0913 20:18:23.786121  2050 net.cpp:399] pool4/3x3_s2_pool4/3x3_s2_0_split -> pool4/3x3_s2_pool4/3x3_s2_0_split_3
I0913 20:18:23.786214  2050 net.cpp:141] Setting up pool4/3x3_s2_pool4/3x3_s2_0_split
I0913 20:18:23.786224  2050 net.cpp:148] Top shape: 10 832 7 7 (407680)
I0913 20:18:23.786233  2050 net.cpp:148] Top shape: 10 832 7 7 (407680)
I0913 20:18:23.786238  2050 net.cpp:148] Top shape: 10 832 7 7 (407680)
I0913 20:18:23.786248  2050 net.cpp:148] Top shape: 10 832 7 7 (407680)
I0913 20:18:23.786252  2050 net.cpp:156] Memory required for data: 528980480
I0913 20:18:23.786257  2050 layer_factory.hpp:77] Creating layer inception_5a/1x1
I0913 20:18:23.786268  2050 net.cpp:91] Creating Layer inception_5a/1x1
I0913 20:18:23.786274  2050 net.cpp:425] inception_5a/1x1 <- pool4/3x3_s2_pool4/3x3_s2_0_split_0
I0913 20:18:23.786288  2050 net.cpp:399] inception_5a/1x1 -> inception_5a/1x1
I0913 20:18:23.789875  2050 net.cpp:141] Setting up inception_5a/1x1
I0913 20:18:23.789892  2050 net.cpp:148] Top shape: 10 256 7 7 (125440)
I0913 20:18:23.789898  2050 net.cpp:156] Memory required for data: 529482240
I0913 20:18:23.789907  2050 layer_factory.hpp:77] Creating layer inception_5a/relu_1x1
I0913 20:18:23.789919  2050 net.cpp:91] Creating Layer inception_5a/relu_1x1
I0913 20:18:23.789926  2050 net.cpp:425] inception_5a/relu_1x1 <- inception_5a/1x1
I0913 20:18:23.789933  2050 net.cpp:386] inception_5a/relu_1x1 -> inception_5a/1x1 (in-place)
I0913 20:18:23.790339  2050 net.cpp:141] Setting up inception_5a/relu_1x1
I0913 20:18:23.790351  2050 net.cpp:148] Top shape: 10 256 7 7 (125440)
I0913 20:18:23.790356  2050 net.cpp:156] Memory required for data: 529984000
I0913 20:18:23.790361  2050 layer_factory.hpp:77] Creating layer inception_5a/3x3_reduce
I0913 20:18:23.790380  2050 net.cpp:91] Creating Layer inception_5a/3x3_reduce
I0913 20:18:23.790386  2050 net.cpp:425] inception_5a/3x3_reduce <- pool4/3x3_s2_pool4/3x3_s2_0_split_1
I0913 20:18:23.790395  2050 net.cpp:399] inception_5a/3x3_reduce -> inception_5a/3x3_reduce
I0913 20:18:23.793568  2050 net.cpp:141] Setting up inception_5a/3x3_reduce
I0913 20:18:23.793599  2050 net.cpp:148] Top shape: 10 160 7 7 (78400)
I0913 20:18:23.793604  2050 net.cpp:156] Memory required for data: 530297600
I0913 20:18:23.793614  2050 layer_factory.hpp:77] Creating layer inception_5a/relu_3x3_reduce
I0913 20:18:23.793622  2050 net.cpp:91] Creating Layer inception_5a/relu_3x3_reduce
I0913 20:18:23.793628  2050 net.cpp:425] inception_5a/relu_3x3_reduce <- inception_5a/3x3_reduce
I0913 20:18:23.793639  2050 net.cpp:386] inception_5a/relu_3x3_reduce -> inception_5a/3x3_reduce (in-place)
I0913 20:18:23.793884  2050 net.cpp:141] Setting up inception_5a/relu_3x3_reduce
I0913 20:18:23.793896  2050 net.cpp:148] Top shape: 10 160 7 7 (78400)
I0913 20:18:23.793901  2050 net.cpp:156] Memory required for data: 530611200
I0913 20:18:23.793906  2050 layer_factory.hpp:77] Creating layer inception_5a/3x3
I0913 20:18:23.793921  2050 net.cpp:91] Creating Layer inception_5a/3x3
I0913 20:18:23.793927  2050 net.cpp:425] inception_5a/3x3 <- inception_5a/3x3_reduce
I0913 20:18:23.793936  2050 net.cpp:399] inception_5a/3x3 -> inception_5a/3x3
I0913 20:18:23.800182  2050 net.cpp:141] Setting up inception_5a/3x3
I0913 20:18:23.800200  2050 net.cpp:148] Top shape: 10 320 7 7 (156800)
I0913 20:18:23.800206  2050 net.cpp:156] Memory required for data: 531238400
I0913 20:18:23.800220  2050 layer_factory.hpp:77] Creating layer inception_5a/relu_3x3
I0913 20:18:23.800228  2050 net.cpp:91] Creating Layer inception_5a/relu_3x3
I0913 20:18:23.800235  2050 net.cpp:425] inception_5a/relu_3x3 <- inception_5a/3x3
I0913 20:18:23.800243  2050 net.cpp:386] inception_5a/relu_3x3 -> inception_5a/3x3 (in-place)
I0913 20:18:23.800673  2050 net.cpp:141] Setting up inception_5a/relu_3x3
I0913 20:18:23.800688  2050 net.cpp:148] Top shape: 10 320 7 7 (156800)
I0913 20:18:23.800693  2050 net.cpp:156] Memory required for data: 531865600
I0913 20:18:23.800699  2050 layer_factory.hpp:77] Creating layer inception_5a/5x5_reduce
I0913 20:18:23.800714  2050 net.cpp:91] Creating Layer inception_5a/5x5_reduce
I0913 20:18:23.800720  2050 net.cpp:425] inception_5a/5x5_reduce <- pool4/3x3_s2_pool4/3x3_s2_0_split_2
I0913 20:18:23.800732  2050 net.cpp:399] inception_5a/5x5_reduce -> inception_5a/5x5_reduce
I0913 20:18:23.802287  2050 net.cpp:141] Setting up inception_5a/5x5_reduce
I0913 20:18:23.802304  2050 net.cpp:148] Top shape: 10 32 7 7 (15680)
I0913 20:18:23.802309  2050 net.cpp:156] Memory required for data: 531928320
I0913 20:18:23.802317  2050 layer_factory.hpp:77] Creating layer inception_5a/relu_5x5_reduce
I0913 20:18:23.802330  2050 net.cpp:91] Creating Layer inception_5a/relu_5x5_reduce
I0913 20:18:23.802336  2050 net.cpp:425] inception_5a/relu_5x5_reduce <- inception_5a/5x5_reduce
I0913 20:18:23.802345  2050 net.cpp:386] inception_5a/relu_5x5_reduce -> inception_5a/5x5_reduce (in-place)
I0913 20:18:23.802753  2050 net.cpp:141] Setting up inception_5a/relu_5x5_reduce
I0913 20:18:23.802765  2050 net.cpp:148] Top shape: 10 32 7 7 (15680)
I0913 20:18:23.802770  2050 net.cpp:156] Memory required for data: 531991040
I0913 20:18:23.802775  2050 layer_factory.hpp:77] Creating layer inception_5a/5x5
I0913 20:18:23.802789  2050 net.cpp:91] Creating Layer inception_5a/5x5
I0913 20:18:23.802796  2050 net.cpp:425] inception_5a/5x5 <- inception_5a/5x5_reduce
I0913 20:18:23.802809  2050 net.cpp:399] inception_5a/5x5 -> inception_5a/5x5
I0913 20:18:23.805048  2050 net.cpp:141] Setting up inception_5a/5x5
I0913 20:18:23.805065  2050 net.cpp:148] Top shape: 10 128 7 7 (62720)
I0913 20:18:23.805070  2050 net.cpp:156] Memory required for data: 532241920
I0913 20:18:23.805079  2050 layer_factory.hpp:77] Creating layer inception_5a/relu_5x5
I0913 20:18:23.805112  2050 net.cpp:91] Creating Layer inception_5a/relu_5x5
I0913 20:18:23.805119  2050 net.cpp:425] inception_5a/relu_5x5 <- inception_5a/5x5
I0913 20:18:23.805126  2050 net.cpp:386] inception_5a/relu_5x5 -> inception_5a/5x5 (in-place)
I0913 20:18:23.805367  2050 net.cpp:141] Setting up inception_5a/relu_5x5
I0913 20:18:23.805379  2050 net.cpp:148] Top shape: 10 128 7 7 (62720)
I0913 20:18:23.805383  2050 net.cpp:156] Memory required for data: 532492800
I0913 20:18:23.805389  2050 layer_factory.hpp:77] Creating layer inception_5a/pool
I0913 20:18:23.805398  2050 net.cpp:91] Creating Layer inception_5a/pool
I0913 20:18:23.805404  2050 net.cpp:425] inception_5a/pool <- pool4/3x3_s2_pool4/3x3_s2_0_split_3
I0913 20:18:23.805415  2050 net.cpp:399] inception_5a/pool -> inception_5a/pool
I0913 20:18:23.805486  2050 net.cpp:141] Setting up inception_5a/pool
I0913 20:18:23.805496  2050 net.cpp:148] Top shape: 10 832 7 7 (407680)
I0913 20:18:23.805501  2050 net.cpp:156] Memory required for data: 534123520
I0913 20:18:23.805506  2050 layer_factory.hpp:77] Creating layer inception_5a/pool_proj
I0913 20:18:23.805523  2050 net.cpp:91] Creating Layer inception_5a/pool_proj
I0913 20:18:23.805529  2050 net.cpp:425] inception_5a/pool_proj <- inception_5a/pool
I0913 20:18:23.805538  2050 net.cpp:399] inception_5a/pool_proj -> inception_5a/pool_proj
I0913 20:18:23.808717  2050 net.cpp:141] Setting up inception_5a/pool_proj
I0913 20:18:23.808735  2050 net.cpp:148] Top shape: 10 128 7 7 (62720)
I0913 20:18:23.808742  2050 net.cpp:156] Memory required for data: 534374400
I0913 20:18:23.808750  2050 layer_factory.hpp:77] Creating layer inception_5a/relu_pool_proj
I0913 20:18:23.808759  2050 net.cpp:91] Creating Layer inception_5a/relu_pool_proj
I0913 20:18:23.808765  2050 net.cpp:425] inception_5a/relu_pool_proj <- inception_5a/pool_proj
I0913 20:18:23.808776  2050 net.cpp:386] inception_5a/relu_pool_proj -> inception_5a/pool_proj (in-place)
I0913 20:18:23.809198  2050 net.cpp:141] Setting up inception_5a/relu_pool_proj
I0913 20:18:23.809211  2050 net.cpp:148] Top shape: 10 128 7 7 (62720)
I0913 20:18:23.809216  2050 net.cpp:156] Memory required for data: 534625280
I0913 20:18:23.809227  2050 layer_factory.hpp:77] Creating layer inception_5a/output
I0913 20:18:23.809239  2050 net.cpp:91] Creating Layer inception_5a/output
I0913 20:18:23.809245  2050 net.cpp:425] inception_5a/output <- inception_5a/1x1
I0913 20:18:23.809252  2050 net.cpp:425] inception_5a/output <- inception_5a/3x3
I0913 20:18:23.809258  2050 net.cpp:425] inception_5a/output <- inception_5a/5x5
I0913 20:18:23.809263  2050 net.cpp:425] inception_5a/output <- inception_5a/pool_proj
I0913 20:18:23.809270  2050 net.cpp:399] inception_5a/output -> inception_5a/output
I0913 20:18:23.809321  2050 net.cpp:141] Setting up inception_5a/output
I0913 20:18:23.809331  2050 net.cpp:148] Top shape: 10 832 7 7 (407680)
I0913 20:18:23.809335  2050 net.cpp:156] Memory required for data: 536256000
I0913 20:18:23.809340  2050 layer_factory.hpp:77] Creating layer inception_5a/output_inception_5a/output_0_split
I0913 20:18:23.809350  2050 net.cpp:91] Creating Layer inception_5a/output_inception_5a/output_0_split
I0913 20:18:23.809355  2050 net.cpp:425] inception_5a/output_inception_5a/output_0_split <- inception_5a/output
I0913 20:18:23.809365  2050 net.cpp:399] inception_5a/output_inception_5a/output_0_split -> inception_5a/output_inception_5a/output_0_split_0
I0913 20:18:23.809375  2050 net.cpp:399] inception_5a/output_inception_5a/output_0_split -> inception_5a/output_inception_5a/output_0_split_1
I0913 20:18:23.809383  2050 net.cpp:399] inception_5a/output_inception_5a/output_0_split -> inception_5a/output_inception_5a/output_0_split_2
I0913 20:18:23.809391  2050 net.cpp:399] inception_5a/output_inception_5a/output_0_split -> inception_5a/output_inception_5a/output_0_split_3
I0913 20:18:23.809495  2050 net.cpp:141] Setting up inception_5a/output_inception_5a/output_0_split
I0913 20:18:23.809505  2050 net.cpp:148] Top shape: 10 832 7 7 (407680)
I0913 20:18:23.809511  2050 net.cpp:148] Top shape: 10 832 7 7 (407680)
I0913 20:18:23.809517  2050 net.cpp:148] Top shape: 10 832 7 7 (407680)
I0913 20:18:23.809522  2050 net.cpp:148] Top shape: 10 832 7 7 (407680)
I0913 20:18:23.809526  2050 net.cpp:156] Memory required for data: 542778880
I0913 20:18:23.809531  2050 layer_factory.hpp:77] Creating layer inception_5b/1x1
I0913 20:18:23.809548  2050 net.cpp:91] Creating Layer inception_5b/1x1
I0913 20:18:23.809554  2050 net.cpp:425] inception_5b/1x1 <- inception_5a/output_inception_5a/output_0_split_0
I0913 20:18:23.809562  2050 net.cpp:399] inception_5b/1x1 -> inception_5b/1x1
I0913 20:18:23.814143  2050 net.cpp:141] Setting up inception_5b/1x1
I0913 20:18:23.814162  2050 net.cpp:148] Top shape: 10 384 7 7 (188160)
I0913 20:18:23.814168  2050 net.cpp:156] Memory required for data: 543531520
I0913 20:18:23.814178  2050 layer_factory.hpp:77] Creating layer inception_5b/relu_1x1
I0913 20:18:23.814189  2050 net.cpp:91] Creating Layer inception_5b/relu_1x1
I0913 20:18:23.814195  2050 net.cpp:425] inception_5b/relu_1x1 <- inception_5b/1x1
I0913 20:18:23.814203  2050 net.cpp:386] inception_5b/relu_1x1 -> inception_5b/1x1 (in-place)
I0913 20:18:23.814620  2050 net.cpp:141] Setting up inception_5b/relu_1x1
I0913 20:18:23.814645  2050 net.cpp:148] Top shape: 10 384 7 7 (188160)
I0913 20:18:23.814649  2050 net.cpp:156] Memory required for data: 544284160
I0913 20:18:23.814654  2050 layer_factory.hpp:77] Creating layer inception_5b/3x3_reduce
I0913 20:18:23.814669  2050 net.cpp:91] Creating Layer inception_5b/3x3_reduce
I0913 20:18:23.814677  2050 net.cpp:425] inception_5b/3x3_reduce <- inception_5a/output_inception_5a/output_0_split_1
I0913 20:18:23.814685  2050 net.cpp:399] inception_5b/3x3_reduce -> inception_5b/3x3_reduce
I0913 20:18:23.818092  2050 net.cpp:141] Setting up inception_5b/3x3_reduce
I0913 20:18:23.818110  2050 net.cpp:148] Top shape: 10 192 7 7 (94080)
I0913 20:18:23.818116  2050 net.cpp:156] Memory required for data: 544660480
I0913 20:18:23.818125  2050 layer_factory.hpp:77] Creating layer inception_5b/relu_3x3_reduce
I0913 20:18:23.818137  2050 net.cpp:91] Creating Layer inception_5b/relu_3x3_reduce
I0913 20:18:23.818143  2050 net.cpp:425] inception_5b/relu_3x3_reduce <- inception_5b/3x3_reduce
I0913 20:18:23.818151  2050 net.cpp:386] inception_5b/relu_3x3_reduce -> inception_5b/3x3_reduce (in-place)
I0913 20:18:23.818400  2050 net.cpp:141] Setting up inception_5b/relu_3x3_reduce
I0913 20:18:23.818413  2050 net.cpp:148] Top shape: 10 192 7 7 (94080)
I0913 20:18:23.818416  2050 net.cpp:156] Memory required for data: 545036800
I0913 20:18:23.818421  2050 layer_factory.hpp:77] Creating layer inception_5b/3x3
I0913 20:18:23.818436  2050 net.cpp:91] Creating Layer inception_5b/3x3
I0913 20:18:23.818442  2050 net.cpp:425] inception_5b/3x3 <- inception_5b/3x3_reduce
I0913 20:18:23.818454  2050 net.cpp:399] inception_5b/3x3 -> inception_5b/3x3
I0913 20:18:23.826344  2050 net.cpp:141] Setting up inception_5b/3x3
I0913 20:18:23.826372  2050 net.cpp:148] Top shape: 10 384 7 7 (188160)
I0913 20:18:23.826378  2050 net.cpp:156] Memory required for data: 545789440
I0913 20:18:23.826388  2050 layer_factory.hpp:77] Creating layer inception_5b/relu_3x3
I0913 20:18:23.826402  2050 net.cpp:91] Creating Layer inception_5b/relu_3x3
I0913 20:18:23.826411  2050 net.cpp:425] inception_5b/relu_3x3 <- inception_5b/3x3
I0913 20:18:23.826418  2050 net.cpp:386] inception_5b/relu_3x3 -> inception_5b/3x3 (in-place)
I0913 20:18:23.826845  2050 net.cpp:141] Setting up inception_5b/relu_3x3
I0913 20:18:23.826858  2050 net.cpp:148] Top shape: 10 384 7 7 (188160)
I0913 20:18:23.826864  2050 net.cpp:156] Memory required for data: 546542080
I0913 20:18:23.826869  2050 layer_factory.hpp:77] Creating layer inception_5b/5x5_reduce
I0913 20:18:23.826887  2050 net.cpp:91] Creating Layer inception_5b/5x5_reduce
I0913 20:18:23.826894  2050 net.cpp:425] inception_5b/5x5_reduce <- inception_5a/output_inception_5a/output_0_split_2
I0913 20:18:23.826903  2050 net.cpp:399] inception_5b/5x5_reduce -> inception_5b/5x5_reduce
I0913 20:18:23.828894  2050 net.cpp:141] Setting up inception_5b/5x5_reduce
I0913 20:18:23.828912  2050 net.cpp:148] Top shape: 10 48 7 7 (23520)
I0913 20:18:23.828917  2050 net.cpp:156] Memory required for data: 546636160
I0913 20:18:23.828927  2050 layer_factory.hpp:77] Creating layer inception_5b/relu_5x5_reduce
I0913 20:18:23.828938  2050 net.cpp:91] Creating Layer inception_5b/relu_5x5_reduce
I0913 20:18:23.828945  2050 net.cpp:425] inception_5b/relu_5x5_reduce <- inception_5b/5x5_reduce
I0913 20:18:23.828953  2050 net.cpp:386] inception_5b/relu_5x5_reduce -> inception_5b/5x5_reduce (in-place)
I0913 20:18:23.829648  2050 net.cpp:141] Setting up inception_5b/relu_5x5_reduce
I0913 20:18:23.829660  2050 net.cpp:148] Top shape: 10 48 7 7 (23520)
I0913 20:18:23.829665  2050 net.cpp:156] Memory required for data: 546730240
I0913 20:18:23.829670  2050 layer_factory.hpp:77] Creating layer inception_5b/5x5
I0913 20:18:23.829687  2050 net.cpp:91] Creating Layer inception_5b/5x5
I0913 20:18:23.829694  2050 net.cpp:425] inception_5b/5x5 <- inception_5b/5x5_reduce
I0913 20:18:23.829702  2050 net.cpp:399] inception_5b/5x5 -> inception_5b/5x5
I0913 20:18:23.832690  2050 net.cpp:141] Setting up inception_5b/5x5
I0913 20:18:23.832707  2050 net.cpp:148] Top shape: 10 128 7 7 (62720)
I0913 20:18:23.832712  2050 net.cpp:156] Memory required for data: 546981120
I0913 20:18:23.832721  2050 layer_factory.hpp:77] Creating layer inception_5b/relu_5x5
I0913 20:18:23.832732  2050 net.cpp:91] Creating Layer inception_5b/relu_5x5
I0913 20:18:23.832739  2050 net.cpp:425] inception_5b/relu_5x5 <- inception_5b/5x5
I0913 20:18:23.832746  2050 net.cpp:386] inception_5b/relu_5x5 -> inception_5b/5x5 (in-place)
I0913 20:18:23.833000  2050 net.cpp:141] Setting up inception_5b/relu_5x5
I0913 20:18:23.833012  2050 net.cpp:148] Top shape: 10 128 7 7 (62720)
I0913 20:18:23.833016  2050 net.cpp:156] Memory required for data: 547232000
I0913 20:18:23.833021  2050 layer_factory.hpp:77] Creating layer inception_5b/pool
I0913 20:18:23.833034  2050 net.cpp:91] Creating Layer inception_5b/pool
I0913 20:18:23.833040  2050 net.cpp:425] inception_5b/pool <- inception_5a/output_inception_5a/output_0_split_3
I0913 20:18:23.833050  2050 net.cpp:399] inception_5b/pool -> inception_5b/pool
I0913 20:18:23.833127  2050 net.cpp:141] Setting up inception_5b/pool
I0913 20:18:23.833137  2050 net.cpp:148] Top shape: 10 832 7 7 (407680)
I0913 20:18:23.833140  2050 net.cpp:156] Memory required for data: 548862720
I0913 20:18:23.833145  2050 layer_factory.hpp:77] Creating layer inception_5b/pool_proj
I0913 20:18:23.833159  2050 net.cpp:91] Creating Layer inception_5b/pool_proj
I0913 20:18:23.833165  2050 net.cpp:425] inception_5b/pool_proj <- inception_5b/pool
I0913 20:18:23.833176  2050 net.cpp:399] inception_5b/pool_proj -> inception_5b/pool_proj
I0913 20:18:23.836251  2050 net.cpp:141] Setting up inception_5b/pool_proj
I0913 20:18:23.836269  2050 net.cpp:148] Top shape: 10 128 7 7 (62720)
I0913 20:18:23.836274  2050 net.cpp:156] Memory required for data: 549113600
I0913 20:18:23.836284  2050 layer_factory.hpp:77] Creating layer inception_5b/relu_pool_proj
I0913 20:18:23.836297  2050 net.cpp:91] Creating Layer inception_5b/relu_pool_proj
I0913 20:18:23.836303  2050 net.cpp:425] inception_5b/relu_pool_proj <- inception_5b/pool_proj
I0913 20:18:23.836310  2050 net.cpp:386] inception_5b/relu_pool_proj -> inception_5b/pool_proj (in-place)
I0913 20:18:23.836735  2050 net.cpp:141] Setting up inception_5b/relu_pool_proj
I0913 20:18:23.836750  2050 net.cpp:148] Top shape: 10 128 7 7 (62720)
I0913 20:18:23.836755  2050 net.cpp:156] Memory required for data: 549364480
I0913 20:18:23.836760  2050 layer_factory.hpp:77] Creating layer inception_5b/output
I0913 20:18:23.836776  2050 net.cpp:91] Creating Layer inception_5b/output
I0913 20:18:23.836781  2050 net.cpp:425] inception_5b/output <- inception_5b/1x1
I0913 20:18:23.836788  2050 net.cpp:425] inception_5b/output <- inception_5b/3x3
I0913 20:18:23.836793  2050 net.cpp:425] inception_5b/output <- inception_5b/5x5
I0913 20:18:23.836799  2050 net.cpp:425] inception_5b/output <- inception_5b/pool_proj
I0913 20:18:23.836807  2050 net.cpp:399] inception_5b/output -> inception_5b/output
I0913 20:18:23.836863  2050 net.cpp:141] Setting up inception_5b/output
I0913 20:18:23.836874  2050 net.cpp:148] Top shape: 10 1024 7 7 (501760)
I0913 20:18:23.836879  2050 net.cpp:156] Memory required for data: 551371520
I0913 20:18:23.836882  2050 layer_factory.hpp:77] Creating layer pool5/7x7_s1
I0913 20:18:23.836894  2050 net.cpp:91] Creating Layer pool5/7x7_s1
I0913 20:18:23.836900  2050 net.cpp:425] pool5/7x7_s1 <- inception_5b/output
I0913 20:18:23.836908  2050 net.cpp:399] pool5/7x7_s1 -> pool5/7x7_s1
I0913 20:18:23.837218  2050 net.cpp:141] Setting up pool5/7x7_s1
I0913 20:18:23.837230  2050 net.cpp:148] Top shape: 10 1024 1 1 (10240)
I0913 20:18:23.837235  2050 net.cpp:156] Memory required for data: 551412480
I0913 20:18:23.837239  2050 layer_factory.hpp:77] Creating layer pool5/drop_7x7_s1
I0913 20:18:23.837255  2050 net.cpp:91] Creating Layer pool5/drop_7x7_s1
I0913 20:18:23.837260  2050 net.cpp:425] pool5/drop_7x7_s1 <- pool5/7x7_s1
I0913 20:18:23.837268  2050 net.cpp:386] pool5/drop_7x7_s1 -> pool5/7x7_s1 (in-place)
I0913 20:18:23.837316  2050 net.cpp:141] Setting up pool5/drop_7x7_s1
I0913 20:18:23.837327  2050 net.cpp:148] Top shape: 10 1024 1 1 (10240)
I0913 20:18:23.837332  2050 net.cpp:156] Memory required for data: 551453440
I0913 20:18:23.837335  2050 layer_factory.hpp:77] Creating layer loss3/classifier
I0913 20:18:23.837355  2050 net.cpp:91] Creating Layer loss3/classifier
I0913 20:18:23.837362  2050 net.cpp:425] loss3/classifier <- pool5/7x7_s1
I0913 20:18:23.837373  2050 net.cpp:399] loss3/classifier -> loss3/classifier
I0913 20:18:23.847519  2050 net.cpp:141] Setting up loss3/classifier
I0913 20:18:23.847560  2050 net.cpp:148] Top shape: 10 1000 (10000)
I0913 20:18:23.847565  2050 net.cpp:156] Memory required for data: 551493440
I0913 20:18:23.847578  2050 layer_factory.hpp:77] Creating layer prob
I0913 20:18:23.847591  2050 net.cpp:91] Creating Layer prob
I0913 20:18:23.847599  2050 net.cpp:425] prob <- loss3/classifier
I0913 20:18:23.847612  2050 net.cpp:399] prob -> prob
I0913 20:18:23.848407  2050 net.cpp:141] Setting up prob
I0913 20:18:23.848423  2050 net.cpp:148] Top shape: 10 1000 (10000)
I0913 20:18:23.848428  2050 net.cpp:156] Memory required for data: 551533440
I0913 20:18:23.848433  2050 net.cpp:219] prob does not need backward computation.
I0913 20:18:23.848438  2050 net.cpp:219] loss3/classifier does not need backward computation.
I0913 20:18:23.848443  2050 net.cpp:219] pool5/drop_7x7_s1 does not need backward computation.
I0913 20:18:23.848448  2050 net.cpp:219] pool5/7x7_s1 does not need backward computation.
…
