…
Java HotSpot(TM) 64-Bit Server VM warning: You have loaded library /home/peifeng/work/run/storm102/data/workers/1ddf5dbe-e54b-40e9-aeee-a48659ee58ec/tmp/cvld875608386888802315/libopencv_java310.xine1.so which might have disabled stack guard. The VM will try to fix the stack guard now.
It's highly recommended that you fix the library with 'execstack -c <libfile>', or link it with '-z noexecstack'.
WARNING: Logging before InitGoogleLogging() is written to STDERR
I0915 12:06:36.587885 32310 net.cpp:49] Initializing net from parameters: 
name: "GoogleNet"
state {
  phase: TEST
}
layer {
  name: "data"
  type: "Input"
  top: "data"
  input_param {
    shape {
      dim: 10
      dim: 3
      dim: 224
      dim: 224
    }
  }
}
layer {
  name: "conv1/7x7_s2"
  type: "Convolution"
  bottom: "data"
  top: "conv1/7x7_s2"
  param {
    lr_mult: 1
    decay_mult: 1
  }
  param {
    lr_mult: 2
    decay_mult: 0
  }
  convolution_param {
    num_output: 64
    pad: 3
    kernel_size: 7
    stride: 2
    weight_filler {
      type: "xavier"
      std: 0.1
    }
    bias_filler {
      type: "constant"
      value: 0.2
    }
  }
}
layer {
  name: "conv1/relu_7x7"
  type: "ReLU"
  bottom: "conv1/7x7_s2"
  top: "conv1/7x7_s2"
}
layer {
  name: "pool1/3x3_s2"
  type: "Pooling"
  bottom: "conv1/7x7_s2"
  top: "pool1/3x3_s2"
  pooling_param {
    pool: MAX
    kernel_size: 3
    stride: 2
  }
}
layer {
  name: "pool1/norm1"
  type: "LRN"
  bottom: "pool1/3x3_s2"
  top: "pool1/norm1"
  lrn_param {
    local_size: 5
    alpha: 0.0001
    beta: 0.75
  }
}
layer {
  name: "conv2/3x3_reduce"
  type: "Convolution"
  bottom: "pool1/norm1"
  top: "conv2/3x3_reduce"
  param {
    lr_mult: 1
    decay_mult: 1
  }
  param {
    lr_mult: 2
    decay_mult: 0
  }
  convolution_param {
    num_output: 64
    kernel_size: 1
    weight_filler {
      type: "xavier"
      std: 0.1
    }
    bias_filler {
      type: "constant"
      value: 0.2
    }
  }
}
layer {
  name: "conv2/relu_3x3_reduce"
  type: "ReLU"
  bottom: "conv2/3x3_reduce"
  top: "conv2/3x3_reduce"
}
layer {
  name: "conv2/3x3"
  type: "Convolution"
  bottom: "conv2/3x3_reduce"
  top: "conv2/3x3"
  param {
    lr_mult: 1
    decay_mult: 1
  }
  param {
    lr_mult: 2
    decay_mult: 0
  }
  convolution_param {
    num_output: 192
    pad: 1
    kernel_size: 3
    weight_filler {
      type: "xavier"
      std: 0.03
    }
    bias_filler {
      type: "constant"
      value: 0.2
    }
  }
}
layer {
  name: "conv2/relu_3x3"
  type: "ReLU"
  bottom: "conv2/3x3"
  top: "conv2/3x3"
}
layer {
  name: "conv2/norm2"
  type: "LRN"
  bottom: "conv2/3x3"
  top: "conv2/norm2"
  lrn_param {
    local_size: 5
    alpha: 0.0001
    beta: 0.75
  }
}
layer {
  name: "pool2/3x3_s2"
  type: "Pooling"
  bottom: "conv2/norm2"
  top: "pool2/3x3_s2"
  pooling_param {
    pool: MAX
    kernel_size: 3
    stride: 2
  }
}
layer {
  name: "inception_3a/1x1"
  type: "Convolution"
  bottom: "pool2/3x3_s2"
  top: "inception_3a/1x1"
  param {
    lr_mult: 1
    decay_mult: 1
  }
  param {
    lr_mult: 2
    decay_mult: 0
  }
  convolution_param {
    num_output: 64
    kernel_size: 1
    weight_filler {
      type: "xavier"
      std: 0.03
    }
    bias_filler {
      type: "constant"
      value: 0.2
    }
  }
}
layer {
  name: "inception_3a/relu_1x1"
  type: "ReLU"
  bottom: "inception_3a/1x1"
  top: "inception_3a/1x1"
}
layer {
  name: "inception_3a/3x3_reduce"
  type: "Convolution"
  bottom: "pool2/3x3_s2"
  top: "inception_3a/3x3_reduce"
  param {
    lr_mult: 1
    decay_mult: 1
  }
  param {
    lr_mult: 2
    decay_mult: 0
  }
  convolution_param {
    num_output: 96
    kernel_size: 1
    weight_filler {
      type: "xavier"
      std: 0.09
    }
    bias_filler {
      type: "constant"
      value: 0.2
    }
  }
}
layer {
  name: "inception_3a/relu_3x3_reduce"
  type: "ReLU"
  bottom: "inception_3a/3x3_reduce"
  top: "inception_3a/3x3_reduce"
}
layer {
  name: "inception_3a/3x3"
  type: "Convolution"
  bottom: "inception_3a/3x3_reduce"
  top: "inception_3a/3x3"
  param {
    lr_mult: 1
    decay_mult: 1
  }
  param {
    lr_mult: 2
    decay_mult: 0
  }
  convolution_param {
    num_output: 128
    pad: 1
    kernel_size: 3
    weight_filler {
      type: "xavier"
      std: 0.03
    }
    bias_filler {
      type: "constant"
      value: 0.2
    }
  }
}
layer {
  name: "inception_3a/relu_3x3"
  type: "ReLU"
  bottom: "inception_3a/3x3"
  top: "inception_3a/3x3"
}
layer {
  name: "inception_3a/5x5_reduce"
  type: "Convolution"
  bottom: "pool2/3x3_s2"
  top: "inception_3a/5x5_reduce"
  param {
    lr_mult: 1
    decay_mult: 1
  }
  param {
    lr_mult: 2
    decay_mult: 0
  }
  convolution_param {
    num_output: 16
    kernel_size: 1
    weight_filler {
      type: "xavier"
      std: 0.2
    }
    bias_filler {
      type: "constant"
      value: 0.2
    }
  }
}
layer {
  name: "inception_3a/relu_5x5_reduce"
  type: "ReLU"
  bottom: "inception_3a/5x5_reduce"
  top: "inception_3a/5x5_reduce"
}
layer {
  name: "inception_3a/5x5"
  type: "Convolution"
  bottom: "inception_3a/5x5_reduce"
  top: "inception_3a/5x5"
  param {
    lr_mult: 1
    decay_mult: 1
  }
  param {
    lr_mult: 2
    decay_mult: 0
  }
  convolution_param {
    num_output: 32
    pad: 2
    kernel_size: 5
    weight_filler {
      type: "xavier"
      std: 0.03
    }
    bias_filler {
      type: "constant"
      value: 0.2
    }
  }
}
layer {
  name: "inception_3a/relu_5x5"
  type: "ReLU"
  bottom: "inception_3a/5x5"
  top: "inception_3a/5x5"
}
layer {
  name: "inception_3a/pool"
  type: "Pooling"
  bottom: "pool2/3x3_s2"
  top: "inception_3a/pool"
  pooling_param {
    pool: MAX
    kernel_size: 3
    stride: 1
    pad: 1
  }
}
layer {
  name: "inception_3a/pool_proj"
  type: "Convolution"
  bottom: "inception_3a/pool"
  top: "inception_3a/pool_proj"
  param {
    lr_mult: 1
    decay_mult: 1
  }
  param {
    lr_mult: 2
    decay_mult: 0
  }
  convolution_param {
    num_output: 32
    kernel_size: 1
    weight_filler {
      type: "xavier"
      std: 0.1
    }
    bias_filler {
      type: "constant"
      value: 0.2
    }
  }
}
layer {
  name: "inception_3a/relu_pool_proj"
  type: "ReLU"
  bottom: "inception_3a/pool_proj"
  top: "inception_3a/pool_proj"
}
layer {
  name: "inception_3a/output"
  type: "Concat"
  bottom: "inception_3a/1x1"
  bottom: "inception_3a/3x3"
  bottom: "inception_3a/5x5"
  bottom: "inception_3a/pool_proj"
  top: "inception_3a/output"
}
layer {
  name: "inception_3b/1x1"
  type: "Convolution"
  bottom: "inception_3a/output"
  top: "inception_3b/1x1"
  param {
    lr_mult: 1
    decay_mult: 1
  }
  param {
    lr_mult: 2
    decay_mult: 0
  }
  convolution_param {
    num_output: 128
    kernel_size: 1
    weight_filler {
      type: "xavier"
      std: 0.03
    }
    bias_filler {
      type: "constant"
      value: 0.2
    }
  }
}
layer {
  name: "inception_3b/relu_1x1"
  type: "ReLU"
  bottom: "inception_3b/1x1"
  top: "inception_3b/1x1"
}
layer {
  name: "inception_3b/3x3_reduce"
  type: "Convolution"
  bottom: "inception_3a/output"
  top: "inception_3b/3x3_reduce"
  param {
    lr_mult: 1
    decay_mult: 1
  }
  param {
    lr_mult: 2
    decay_mult: 0
  }
  convolution_param {
    num_output: 128
    kernel_size: 1
    weight_filler {
      type: "xavier"
      std: 0.09
    }
    bias_filler {
      type: "constant"
      value: 0.2
    }
  }
}
layer {
  name: "inception_3b/relu_3x3_reduce"
  type: "ReLU"
  bottom: "inception_3b/3x3_reduce"
  top: "inception_3b/3x3_reduce"
}
layer {
  name: "inception_3b/3x3"
  type: "Convolution"
  bottom: "inception_3b/3x3_reduce"
  top: "inception_3b/3x3"
  param {
    lr_mult: 1
    decay_mult: 1
  }
  param {
    lr_mult: 2
    decay_mult: 0
  }
  convolution_param {
    num_output: 192
    pad: 1
    kernel_size: 3
    weight_filler {
      type: "xavier"
      std: 0.03
    }
    bias_filler {
      type: "constant"
      value: 0.2
    }
  }
}
layer {
  name: "inception_3b/relu_3x3"
  type: "ReLU"
  bottom: "inception_3b/3x3"
  top: "inception_3b/3x3"
}
layer {
  name: "inception_3b/5x5_reduce"
  type: "Convolution"
  bottom: "inception_3a/output"
  top: "inception_3b/5x5_reduce"
  param {
    lr_mult: 1
    decay_mult: 1
  }
  param {
    lr_mult: 2
    decay_mult: 0
  }
  convolution_param {
    num_output: 32
    kernel_size: 1
    weight_filler {
      type: "xavier"
      std: 0.2
    }
    bias_filler {
      type: "constant"
      value: 0.2
    }
  }
}
layer {
  name: "inception_3b/relu_5x5_reduce"
  type: "ReLU"
  bottom: "inception_3b/5x5_reduce"
  top: "inception_3b/5x5_reduce"
}
layer {
  name: "inception_3b/5x5"
  type: "Convolution"
  bottom: "inception_3b/5x5_reduce"
  top: "inception_3b/5x5"
  param {
    lr_mult: 1
    decay_mult: 1
  }
  param {
    lr_mult: 2
    decay_mult: 0
  }
  convolution_param {
    num_output: 96
    pad: 2
    kernel_size: 5
    weight_filler {
      type: "xavier"
      std: 0.03
    }
    bias_filler {
      type: "constant"
      value: 0.2
    }
  }
}
layer {
  name: "inception_3b/relu_5x5"
  type: "ReLU"
  bottom: "inception_3b/5x5"
  top: "inception_3b/5x5"
}
layer {
  name: "inception_3b/pool"
  type: "Pooling"
  bottom: "inception_3a/output"
  top: "inception_3b/pool"
  pooling_param {
    pool: MAX
    kernel_size: 3
    stride: 1
    pad: 1
  }
}
layer {
  name: "inception_3b/pool_proj"
  type: "Convolution"
  bottom: "inception_3b/pool"
  top: "inception_3b/pool_proj"
  param {
    lr_mult: 1
    decay_mult: 1
  }
  param {
    lr_mult: 2
    decay_mult: 0
  }
  convolution_param {
    num_output: 64
    kernel_size: 1
    weight_filler {
      type: "xavier"
      std: 0.1
    }
    bias_filler {
      type: "constant"
      value: 0.2
    }
  }
}
layer {
  name: "inception_3b/relu_pool_proj"
  type: "ReLU"
  bottom: "inception_3b/pool_proj"
  top: "inception_3b/pool_proj"
}
layer {
  name: "inception_3b/output"
  type: "Concat"
  bottom: "inception_3b/1x1"
  bottom: "inception_3b/3x3"
  bottom: "inception_3b/5x5"
  bottom: "inception_3b/pool_proj"
  top: "inception_3b/output"
}
layer {
  name: "pool3/3x3_s2"
  type: "Pooling"
  bottom: "inception_3b/output"
  top: "pool3/3x3_s2"
  pooling_param {
    pool: MAX
    kernel_size: 3
    stride: 2
  }
}
layer {
  name: "inception_4a/1x1"
  type: "Convolution"
  bottom: "pool3/3x3_s2"
  top: "inception_4a/1x1"
  param {
    lr_mult: 1
    decay_mult: 1
  }
  param {
    lr_mult: 2
    decay_mult: 0
  }
  convolution_param {
    num_output: 192
    kernel_size: 1
    weight_filler {
      type: "xavier"
      std: 0.03
    }
    bias_filler {
      type: "constant"
      value: 0.2
    }
  }
}
layer {
  name: "inception_4a/relu_1x1"
  type: "ReLU"
  bottom: "inception_4a/1x1"
  top: "inception_4a/1x1"
}
layer {
  name: "inception_4a/3x3_reduce"
  type: "Convolution"
  bottom: "pool3/3x3_s2"
  top: "inception_4a/3x3_reduce"
  param {
    lr_mult: 1
    decay_mult: 1
  }
  param {
    lr_mult: 2
    decay_mult: 0
  }
  convolution_param {
    num_output: 96
    kernel_size: 1
    weight_filler {
      type: "xavier"
      std: 0.09
    }
    bias_filler {
      type: "constant"
      value: 0.2
    }
  }
}
layer {
  name: "inception_4a/relu_3x3_reduce"
  type: "ReLU"
  bottom: "inception_4a/3x3_reduce"
  top: "inception_4a/3x3_reduce"
}
layer {
  name: "inception_4a/3x3"
  type: "Convolution"
  bottom: "inception_4a/3x3_reduce"
  top: "inception_4a/3x3"
  param {
    lr_mult: 1
    decay_mult: 1
  }
  param {
    lr_mult: 2
    decay_mult: 0
  }
  convolution_param {
    num_output: 208
    pad: 1
    kernel_size: 3
    weight_filler {
      type: "xavier"
      std: 0.03
    }
    bias_filler {
      type: "constant"
      value: 0.2
    }
  }
}
layer {
  name: "inception_4a/relu_3x3"
  type: "ReLU"
  bottom: "inception_4a/3x3"
  top: "inception_4a/3x3"
}
layer {
  name: "inception_4a/5x5_reduce"
  type: "Convolution"
  bottom: "pool3/3x3_s2"
  top: "inception_4a/5x5_reduce"
  param {
    lr_mult: 1
    decay_mult: 1
  }
  param {
    lr_mult: 2
    decay_mult: 0
  }
  convolution_param {
    num_output: 16
    kernel_size: 1
    weight_filler {
      type: "xavier"
      std: 0.2
    }
    bias_filler {
      type: "constant"
      value: 0.2
    }
  }
}
layer {
  name: "inception_4a/relu_5x5_reduce"
  type: "ReLU"
  bottom: "inception_4a/5x5_reduce"
  top: "inception_4a/5x5_reduce"
}
layer {
  name: "inception_4a/5x5"
  type: "Convolution"
  bottom: "inception_4a/5x5_reduce"
  top: "inception_4a/5x5"
  param {
    lr_mult: 1
    decay_mult: 1
  }
  param {
    lr_mult: 2
    decay_mult: 0
  }
  convolution_param {
    num_output: 48
    pad: 2
    kernel_size: 5
    weight_filler {
      type: "xavier"
      std: 0.03
    }
    bias_filler {
      type: "constant"
      value: 0.2
    }
  }
}
layer {
  name: "inception_4a/relu_5x5"
  type: "ReLU"
  bottom: "inception_4a/5x5"
  top: "inception_4a/5x5"
}
layer {
  name: "inception_4a/pool"
  type: "Pooling"
  bottom: "pool3/3x3_s2"
  top: "inception_4a/pool"
  pooling_param {
    pool: MAX
    kernel_size: 3
    stride: 1
    pad: 1
  }
}
layer {
  name: "inception_4a/pool_proj"
  type: "Convolution"
  bottom: "inception_4a/pool"
  top: "inception_4a/pool_proj"
  param {
    lr_mult: 1
    decay_mult: 1
  }
  param {
    lr_mult: 2
    decay_mult: 0
  }
  convolution_param {
    num_output: 64
    kernel_size: 1
    weight_filler {
      type: "xavier"
      std: 0.1
    }
    bias_filler {
      type: "constant"
      value: 0.2
    }
  }
}
layer {
  name: "inception_4a/relu_pool_proj"
  type: "ReLU"
  bottom: "inception_4a/pool_proj"
  top: "inception_4a/pool_proj"
}
layer {
  name: "inception_4a/output"
  type: "Concat"
  bottom: "inception_4a/1x1"
  bottom: "inception_4a/3x3"
  bottom: "inception_4a/5x5"
  bottom: "inception_4a/pool_proj"
  top: "inception_4a/output"
}
layer {
  name: "inception_4b/1x1"
  type: "Convolution"
  bottom: "inception_4a/output"
  top: "inception_4b/1x1"
  param {
    lr_mult: 1
    decay_mult: 1
  }
  param {
    lr_mult: 2
    decay_mult: 0
  }
  convolution_param {
    num_output: 160
    kernel_size: 1
    weight_filler {
      type: "xavier"
      std: 0.03
    }
    bias_filler {
      type: "constant"
      value: 0.2
    }
  }
}
layer {
  name: "inception_4b/relu_1x1"
  type: "ReLU"
  bottom: "inception_4b/1x1"
  top: "inception_4b/1x1"
}
layer {
  name: "inception_4b/3x3_reduce"
  type: "Convolution"
  bottom: "inception_4a/output"
  top: "inception_4b/3x3_reduce"
  param {
    lr_mult: 1
    decay_mult: 1
  }
  param {
    lr_mult: 2
    decay_mult: 0
  }
  convolution_param {
    num_output: 112
    kernel_size: 1
    weight_filler {
      type: "xavier"
      std: 0.09
    }
    bias_filler {
      type: "constant"
      value: 0.2
    }
  }
}
layer {
  name: "inception_4b/relu_3x3_reduce"
  type: "ReLU"
  bottom: "inception_4b/3x3_reduce"
  top: "inception_4b/3x3_reduce"
}
layer {
  name: "inception_4b/3x3"
  type: "Convolution"
  bottom: "inception_4b/3x3_reduce"
  top: "inception_4b/3x3"
  param {
    lr_mult: 1
    decay_mult: 1
  }
  param {
    lr_mult: 2
    decay_mult: 0
  }
  convolution_param {
    num_output: 224
    pad: 1
    kernel_size: 3
    weight_filler {
      type: "xavier"
      std: 0.03
    }
    bias_filler {
      type: "constant"
      value: 0.2
    }
  }
}
layer {
  name: "inception_4b/relu_3x3"
  type: "ReLU"
  bottom: "inception_4b/3x3"
  top: "inception_4b/3x3"
}
layer {
  name: "inception_4b/5x5_reduce"
  type: "Convolution"
  bottom: "inception_4a/output"
  top: "inception_4b/5x5_reduce"
  param {
    lr_mult: 1
    decay_mult: 1
  }
  param {
    lr_mult: 2
    decay_mult: 0
  }
  convolution_param {
    num_output: 24
    kernel_size: 1
    weight_filler {
      type: "xavier"
      std: 0.2
    }
    bias_filler {
      type: "constant"
      value: 0.2
    }
  }
}
layer {
  name: "inception_4b/relu_5x5_reduce"
  type: "ReLU"
  bottom: "inception_4b/5x5_reduce"
  top: "inception_4b/5x5_reduce"
}
layer {
  name: "inception_4b/5x5"
  type: "Convolution"
  bottom: "inception_4b/5x5_reduce"
  top: "inception_4b/5x5"
  param {
    lr_mult: 1
    decay_mult: 1
  }
  param {
    lr_mult: 2
    decay_mult: 0
  }
  convolution_param {
    num_output: 64
    pad: 2
    kernel_size: 5
    weight_filler {
      type: "xavier"
      std: 0.03
    }
    bias_filler {
      type: "constant"
      value: 0.2
    }
  }
}
layer {
  name: "inception_4b/relu_5x5"
  type: "ReLU"
  bottom: "inception_4b/5x5"
  top: "inception_4b/5x5"
}
layer {
  name: "inception_4b/pool"
  type: "Pooling"
  bottom: "inception_4a/output"
  top: "inception_4b/pool"
  pooling_param {
    pool: MAX
    kernel_size: 3
    stride: 1
    pad: 1
  }
}
layer {
  name: "inception_4b/pool_proj"
  type: "Convolution"
  bottom: "inception_4b/pool"
  top: "inception_4b/pool_proj"
  param {
    lr_mult: 1
    decay_mult: 1
  }
  param {
    lr_mult: 2
    decay_mult: 0
  }
  convolution_param {
    num_output: 64
    kernel_size: 1
    weight_filler {
      type: "xavier"
      std: 0.1
    }
    bias_filler {
      type: "constant"
      value: 0.2
    }
  }
}
layer {
  name: "inception_4b/relu_pool_proj"
  type: "ReLU"
  bottom: "inception_4b/pool_proj"
  top: "inception_4b/pool_proj"
}
layer {
  name: "inception_4b/output"
  type: "Concat"
  bottom: "inception_4b/1x1"
  bottom: "inception_4b/3x3"
  bottom: "inception_4b/5x5"
  bottom: "inception_4b/pool_proj"
  top: "inception_4b/output"
}
layer {
  name: "inception_4c/1x1"
  type: "Convolution"
  bottom: "inception_4b/output"
  top: "inception_4c/1x1"
  param {
    lr_mult: 1
    decay_mult: 1
  }
  param {
    lr_mult: 2
    decay_mult: 0
  }
  convolution_param {
    num_output: 128
    kernel_size: 1
    weight_filler {
      type: "xavier"
      std: 0.03
    }
    bias_filler {
      type: "constant"
      value: 0.2
    }
  }
}
layer {
  name: "inception_4c/relu_1x1"
  type: "ReLU"
  bottom: "inception_4c/1x1"
  top: "inception_4c/1x1"
}
layer {
  name: "inception_4c/3x3_reduce"
  type: "Convolution"
  bottom: "inception_4b/output"
  top: "inception_4c/3x3_reduce"
  param {
    lr_mult: 1
    decay_mult: 1
  }
  param {
    lr_mult: 2
    decay_mult: 0
  }
  convolution_param {
    num_output: 128
    kernel_size: 1
    weight_filler {
      type: "xavier"
      std: 0.09
    }
    bias_filler {
      type: "constant"
      value: 0.2
    }
  }
}
layer {
  name: "inception_4c/relu_3x3_reduce"
  type: "ReLU"
  bottom: "inception_4c/3x3_reduce"
  top: "inception_4c/3x3_reduce"
}
layer {
  name: "inception_4c/3x3"
  type: "Convolution"
  bottom: "inception_4c/3x3_reduce"
  top: "inception_4c/3x3"
  param {
    lr_mult: 1
    decay_mult: 1
  }
  param {
    lr_mult: 2
    decay_mult: 0
  }
  convolution_param {
    num_output: 256
    pad: 1
    kernel_size: 3
    weight_filler {
      type: "xavier"
      std: 0.03
    }
    bias_filler {
      type: "constant"
      value: 0.2
    }
  }
}
layer {
  name: "inception_4c/relu_3x3"
  type: "ReLU"
  bottom: "inception_4c/3x3"
  top: "inception_4c/3x3"
}
layer {
  name: "inception_4c/5x5_reduce"
  type: "Convolution"
  bottom: "inception_4b/output"
  top: "inception_4c/5x5_reduce"
  param {
    lr_mult: 1
    decay_mult: 1
  }
  param {
    lr_mult: 2
    decay_mult: 0
  }
  convolution_param {
    num_output: 24
    kernel_size: 1
    weight_filler {
      type: "xavier"
      std: 0.2
    }
    bias_filler {
      type: "constant"
      value: 0.2
    }
  }
}
layer {
  name: "inception_4c/relu_5x5_reduce"
  type: "ReLU"
  bottom: "inception_4c/5x5_reduce"
  top: "inception_4c/5x5_reduce"
}
layer {
  name: "inception_4c/5x5"
  type: "Convolution"
  bottom: "inception_4c/5x5_reduce"
  top: "inception_4c/5x5"
  param {
    lr_mult: 1
    decay_mult: 1
  }
  param {
    lr_mult: 2
    decay_mult: 0
  }
  convolution_param {
    num_output: 64
    pad: 2
    kernel_size: 5
    weight_filler {
      type: "xavier"
      std: 0.03
    }
    bias_filler {
      type: "constant"
      value: 0.2
    }
  }
}
layer {
  name: "inception_4c/relu_5x5"
  type: "ReLU"
  bottom: "inception_4c/5x5"
  top: "inception_4c/5x5"
}
layer {
  name: "inception_4c/pool"
  type: "Pooling"
  bottom: "inception_4b/output"
  top: "inception_4c/pool"
  pooling_param {
    pool: MAX
    kernel_size: 3
    stride: 1
    pad: 1
  }
}
layer {
  name: "inception_4c/pool_proj"
  type: "Convolution"
  bottom: "inception_4c/pool"
  top: "inception_4c/pool_proj"
  param {
    lr_mult: 1
    decay_mult: 1
  }
  param {
    lr_mult: 2
    decay_mult: 0
  }
  convolution_param {
    num_output: 64
    kernel_size: 1
    weight_filler {
      type: "xavier"
      std: 0.1
    }
    bias_filler {
      type: "constant"
      value: 0.2
    }
  }
}
layer {
  name: "inception_4c/relu_pool_proj"
  type: "ReLU"
  bottom: "inception_4c/pool_proj"
  top: "inception_4c/pool_proj"
}
layer {
  name: "inception_4c/output"
  type: "Concat"
  bottom: "inception_4c/1x1"
  bottom: "inception_4c/3x3"
  bottom: "inception_4c/5x5"
  bottom: "inception_4c/pool_proj"
  top: "inception_4c/output"
}
layer {
  name: "inception_4d/1x1"
  type: "Convolution"
  bottom: "inception_4c/output"
  top: "inception_4d/1x1"
  param {
    lr_mult: 1
    decay_mult: 1
  }
  param {
    lr_mult: 2
    decay_mult: 0
  }
  convolution_param {
    num_output: 112
    kernel_size: 1
    weight_filler {
      type: "xavier"
      std: 0.03
    }
    bias_filler {
      type: "constant"
      value: 0.2
    }
  }
}
layer {
  name: "inception_4d/relu_1x1"
  type: "ReLU"
  bottom: "inception_4d/1x1"
  top: "inception_4d/1x1"
}
layer {
  name: "inception_4d/3x3_reduce"
  type: "Convolution"
  bottom: "inception_4c/output"
  top: "inception_4d/3x3_reduce"
  param {
    lr_mult: 1
    decay_mult: 1
  }
  param {
    lr_mult: 2
    decay_mult: 0
  }
  convolution_param {
    num_output: 144
    kernel_size: 1
    weight_filler {
      type: "xavier"
      std: 0.09
    }
    bias_filler {
      type: "constant"
      value: 0.2
    }
  }
}
layer {
  name: "inception_4d/relu_3x3_reduce"
  type: "ReLU"
  bottom: "inception_4d/3x3_reduce"
  top: "inception_4d/3x3_reduce"
}
layer {
  name: "inception_4d/3x3"
  type: "Convolution"
  bottom: "inception_4d/3x3_reduce"
  top: "inception_4d/3x3"
  param {
    lr_mult: 1
    decay_mult: 1
  }
  param {
    lr_mult: 2
    decay_mult: 0
  }
  convolution_param {
    num_output: 288
    pad: 1
    kernel_size: 3
    weight_filler {
      type: "xavier"
      std: 0.03
    }
    bias_filler {
      type: "constant"
      value: 0.2
    }
  }
}
layer {
  name: "inception_4d/relu_3x3"
  type: "ReLU"
  bottom: "inception_4d/3x3"
  top: "inception_4d/3x3"
}
layer {
  name: "inception_4d/5x5_reduce"
  type: "Convolution"
  bottom: "inception_4c/output"
  top: "inception_4d/5x5_reduce"
  param {
    lr_mult: 1
    decay_mult: 1
  }
  param {
    lr_mult: 2
    decay_mult: 0
  }
  convolution_param {
    num_output: 32
    kernel_size: 1
    weight_filler {
      type: "xavier"
      std: 0.2
    }
    bias_filler {
      type: "constant"
      value: 0.2
    }
  }
}
layer {
  name: "inception_4d/relu_5x5_reduce"
  type: "ReLU"
  bottom: "inception_4d/5x5_reduce"
  top: "inception_4d/5x5_reduce"
}
layer {
  name: "inception_4d/5x5"
  type: "Convolution"
  bottom: "inception_4d/5x5_reduce"
  top: "inception_4d/5x5"
  param {
    lr_mult: 1
    decay_mult: 1
  }
  param {
    lr_mult: 2
    decay_mult: 0
  }
  convolution_param {
    num_output: 64
    pad: 2
    kernel_size: 5
    weight_filler {
      type: "xavier"
      std: 0.03
    }
    bias_filler {
      type: "constant"
      value: 0.2
    }
  }
}
layer {
  name: "inception_4d/relu_5x5"
  type: "ReLU"
  bottom: "inception_4d/5x5"
  top: "inception_4d/5x5"
}
layer {
  name: "inception_4d/pool"
  type: "Pooling"
  bottom: "inception_4c/output"
  top: "inception_4d/pool"
  pooling_param {
    pool: MAX
    kernel_size: 3
    stride: 1
    pad: 1
  }
}
layer {
  name: "inception_4d/pool_proj"
  type: "Convolution"
  bottom: "inception_4d/pool"
  top: "inception_4d/pool_proj"
  param {
    lr_mult: 1
    decay_mult: 1
  }
  param {
    lr_mult: 2
    decay_mult: 0
  }
  convolution_param {
    num_output: 64
    kernel_size: 1
    weight_filler {
      type: "xavier"
      std: 0.1
    }
    bias_filler {
      type: "constant"
      value: 0.2
    }
  }
}
layer {
  name: "inception_4d/relu_pool_proj"
  type: "ReLU"
  bottom: "inception_4d/pool_proj"
  top: "inception_4d/pool_proj"
}
layer {
  name: "inception_4d/output"
  type: "Concat"
  bottom: "inception_4d/1x1"
  bottom: "inception_4d/3x3"
  bottom: "inception_4d/5x5"
  bottom: "inception_4d/pool_proj"
  top: "inception_4d/output"
}
layer {
  name: "inception_4e/1x1"
  type: "Convolution"
  bottom: "inception_4d/output"
  top: "inception_4e/1x1"
  param {
    lr_mult: 1
    decay_mult: 1
  }
  param {
    lr_mult: 2
    decay_mult: 0
  }
  convolution_param {
    num_output: 256
    kernel_size: 1
    weight_filler {
      type: "xavier"
      std: 0.03
    }
    bias_filler {
      type: "constant"
      value: 0.2
    }
  }
}
layer {
  name: "inception_4e/relu_1x1"
  type: "ReLU"
  bottom: "inception_4e/1x1"
  top: "inception_4e/1x1"
}
layer {
  name: "inception_4e/3x3_reduce"
  type: "Convolution"
  bottom: "inception_4d/output"
  top: "inception_4e/3x3_reduce"
  param {
    lr_mult: 1
    decay_mult: 1
  }
  param {
    lr_mult: 2
    decay_mult: 0
  }
  convolution_param {
    num_output: 160
    kernel_size: 1
    weight_filler {
      type: "xavier"
      std: 0.09
    }
    bias_filler {
      type: "constant"
      value: 0.2
    }
  }
}
layer {
  name: "inception_4e/relu_3x3_reduce"
  type: "ReLU"
  bottom: "inception_4e/3x3_reduce"
  top: "inception_4e/3x3_reduce"
}
layer {
  name: "inception_4e/3x3"
  type: "Convolution"
  bottom: "inception_4e/3x3_reduce"
  top: "inception_4e/3x3"
  param {
    lr_mult: 1
    decay_mult: 1
  }
  param {
    lr_mult: 2
    decay_mult: 0
  }
  convolution_param {
    num_output: 320
    pad: 1
    kernel_size: 3
    weight_filler {
      type: "xavier"
      std: 0.03
    }
    bias_filler {
      type: "constant"
      value: 0.2
    }
  }
}
layer {
  name: "inception_4e/relu_3x3"
  type: "ReLU"
  bottom: "inception_4e/3x3"
  top: "inception_4e/3x3"
}
layer {
  name: "inception_4e/5x5_reduce"
  type: "Convolution"
  bottom: "inception_4d/output"
  top: "inception_4e/5x5_reduce"
  param {
    lr_mult: 1
    decay_mult: 1
  }
  param {
    lr_mult: 2
    decay_mult: 0
  }
  convolution_param {
    num_output: 32
    kernel_size: 1
    weight_filler {
      type: "xavier"
      std: 0.2
    }
    bias_filler {
      type: "constant"
      value: 0.2
    }
  }
}
layer {
  name: "inception_4e/relu_5x5_reduce"
  type: "ReLU"
  bottom: "inception_4e/5x5_reduce"
  top: "inception_4e/5x5_reduce"
}
layer {
  name: "inception_4e/5x5"
  type: "Convolution"
  bottom: "inception_4e/5x5_reduce"
  top: "inception_4e/5x5"
  param {
    lr_mult: 1
    decay_mult: 1
  }
  param {
    lr_mult: 2
    decay_mult: 0
  }
  convolution_param {
    num_output: 128
    pad: 2
    kernel_size: 5
    weight_filler {
      type: "xavier"
      std: 0.03
    }
    bias_filler {
      type: "constant"
      value: 0.2
    }
  }
}
layer {
  name: "inception_4e/relu_5x5"
  type: "ReLU"
  bottom: "inception_4e/5x5"
  top: "inception_4e/5x5"
}
layer {
  name: "inception_4e/pool"
  type: "Pooling"
  bottom: "inception_4d/output"
  top: "inception_4e/pool"
  pooling_param {
    pool: MAX
    kernel_size: 3
    stride: 1
    pad: 1
  }
}
layer {
  name: "inception_4e/pool_proj"
  type: "Convolution"
  bottom: "inception_4e/pool"
  top: "inception_4e/pool_proj"
  param {
    lr_mult: 1
    decay_mult: 1
  }
  param {
    lr_mult: 2
    decay_mult: 0
  }
  convolution_param {
    num_output: 128
    kernel_size: 1
    weight_filler {
      type: "xavier"
      std: 0.1
    }
    bias_filler {
      type: "constant"
      value: 0.2
    }
  }
}
layer {
  name: "inception_4e/relu_pool_proj"
  type: "ReLU"
  bottom: "inception_4e/pool_proj"
  top: "inception_4e/pool_proj"
}
layer {
  name: "inception_4e/output"
  type: "Concat"
  bottom: "inception_4e/1x1"
  bottom: "inception_4e/3x3"
  bottom: "inception_4e/5x5"
  bottom: "inception_4e/pool_proj"
  top: "inception_4e/output"
}
layer {
  name: "pool4/3x3_s2"
  type: "Pooling"
  bottom: "inception_4e/output"
  top: "pool4/3x3_s2"
  pooling_param {
    pool: MAX
    kernel_size: 3
    stride: 2
  }
}
layer {
  name: "inception_5a/1x1"
  type: "Convolution"
  bottom: "pool4/3x3_s2"
  top: "inception_5a/1x1"
  param {
    lr_mult: 1
    decay_mult: 1
  }
  param {
    lr_mult: 2
    decay_mult: 0
  }
  convolution_param {
    num_output: 256
    kernel_size: 1
    weight_filler {
      type: "xavier"
      std: 0.03
    }
    bias_filler {
      type: "constant"
      value: 0.2
    }
  }
}
layer {
  name: "inception_5a/relu_1x1"
  type: "ReLU"
  bottom: "inception_5a/1x1"
  top: "inception_5a/1x1"
}
layer {
  name: "inception_5a/3x3_reduce"
  type: "Convolution"
  bottom: "pool4/3x3_s2"
  top: "inception_5a/3x3_reduce"
  param {
    lr_mult: 1
    decay_mult: 1
  }
  param {
    lr_mult: 2
    decay_mult: 0
  }
  convolution_param {
    num_output: 160
    kernel_size: 1
    weight_filler {
      type: "xavier"
      std: 0.09
    }
    bias_filler {
      type: "constant"
      value: 0.2
    }
  }
}
layer {
  name: "inception_5a/relu_3x3_reduce"
  type: "ReLU"
  bottom: "inception_5a/3x3_reduce"
  top: "inception_5a/3x3_reduce"
}
layer {
  name: "inception_5a/3x3"
  type: "Convolution"
  bottom: "inception_5a/3x3_reduce"
  top: "inception_5a/3x3"
  param {
    lr_mult: 1
    decay_mult: 1
  }
  param {
    lr_mult: 2
    decay_mult: 0
  }
  convolution_param {
    num_output: 320
    pad: 1
    kernel_size: 3
    weight_filler {
      type: "xavier"
      std: 0.03
    }
    bias_filler {
      type: "constant"
      value: 0.2
    }
  }
}
layer {
  name: "inception_5a/relu_3x3"
  type: "ReLU"
  bottom: "inception_5a/3x3"
  top: "inception_5a/3x3"
}
layer {
  name: "inception_5a/5x5_reduce"
  type: "Convolution"
  bottom: "pool4/3x3_s2"
  top: "inception_5a/5x5_reduce"
  param {
    lr_mult: 1
    decay_mult: 1
  }
  param {
    lr_mult: 2
    decay_mult: 0
  }
  convolution_param {
    num_output: 32
    kernel_size: 1
    weight_filler {
      type: "xavier"
      std: 0.2
    }
    bias_filler {
      type: "constant"
      value: 0.2
    }
I0915 12:06:36.588727 32310 layer_factory.hpp:77] Creating layer data
I0915 12:06:36.588753 32310 net.cpp:91] Creating Layer data
I0915 12:06:36.588762 32310 net.cpp:399] data -> data
I0915 12:06:37.092901 32310 net.cpp:141] Setting up data
I0915 12:06:37.092978 32310 net.cpp:148] Top shape: 10 3 224 224 (1505280)
I0915 12:06:37.092984 32310 net.cpp:156] Memory required for data: 6021120
I0915 12:06:37.093008 32310 layer_factory.hpp:77] Creating layer conv1/7x7_s2
I0915 12:06:37.093051 32310 net.cpp:91] Creating Layer conv1/7x7_s2
I0915 12:06:37.093060 32310 net.cpp:425] conv1/7x7_s2 <- data
I0915 12:06:37.093075 32310 net.cpp:399] conv1/7x7_s2 -> conv1/7x7_s2
I0915 12:06:37.269791 32310 net.cpp:141] Setting up conv1/7x7_s2
I0915 12:06:37.269840 32310 net.cpp:148] Top shape: 10 64 112 112 (8028160)
I0915 12:06:37.269845 32310 net.cpp:156] Memory required for data: 38133760
I0915 12:06:37.269870 32310 layer_factory.hpp:77] Creating layer conv1/relu_7x7
I0915 12:06:37.269886 32310 net.cpp:91] Creating Layer conv1/relu_7x7
I0915 12:06:37.269891 32310 net.cpp:425] conv1/relu_7x7 <- conv1/7x7_s2
I0915 12:06:37.269898 32310 net.cpp:386] conv1/relu_7x7 -> conv1/7x7_s2 (in-place)
I0915 12:06:37.270263 32310 net.cpp:141] Setting up conv1/relu_7x7
I0915 12:06:37.270277 32310 net.cpp:148] Top shape: 10 64 112 112 (8028160)
I0915 12:06:37.270280 32310 net.cpp:156] Memory required for data: 70246400
I0915 12:06:37.270285 32310 layer_factory.hpp:77] Creating layer pool1/3x3_s2
I0915 12:06:37.270298 32310 net.cpp:91] Creating Layer pool1/3x3_s2
I0915 12:06:37.270301 32310 net.cpp:425] pool1/3x3_s2 <- conv1/7x7_s2
I0915 12:06:37.270309 32310 net.cpp:399] pool1/3x3_s2 -> pool1/3x3_s2
I0915 12:06:37.270377 32310 net.cpp:141] Setting up pool1/3x3_s2
I0915 12:06:37.270386 32310 net.cpp:148] Top shape: 10 64 56 56 (2007040)
I0915 12:06:37.270391 32310 net.cpp:156] Memory required for data: 78274560
I0915 12:06:37.270395 32310 layer_factory.hpp:77] Creating layer pool1/norm1
I0915 12:06:37.270411 32310 net.cpp:91] Creating Layer pool1/norm1
I0915 12:06:37.270416 32310 net.cpp:425] pool1/norm1 <- pool1/3x3_s2
I0915 12:06:37.270421 32310 net.cpp:399] pool1/norm1 -> pool1/norm1
I0915 12:06:37.270656 32310 net.cpp:141] Setting up pool1/norm1
I0915 12:06:37.270668 32310 net.cpp:148] Top shape: 10 64 56 56 (2007040)
I0915 12:06:37.270673 32310 net.cpp:156] Memory required for data: 86302720
I0915 12:06:37.270678 32310 layer_factory.hpp:77] Creating layer conv2/3x3_reduce
I0915 12:06:37.270694 32310 net.cpp:91] Creating Layer conv2/3x3_reduce
I0915 12:06:37.270699 32310 net.cpp:425] conv2/3x3_reduce <- pool1/norm1
I0915 12:06:37.270705 32310 net.cpp:399] conv2/3x3_reduce -> conv2/3x3_reduce
I0915 12:06:37.272624 32310 net.cpp:141] Setting up conv2/3x3_reduce
I0915 12:06:37.272641 32310 net.cpp:148] Top shape: 10 64 56 56 (2007040)
I0915 12:06:37.272647 32310 net.cpp:156] Memory required for data: 94330880
I0915 12:06:37.272658 32310 layer_factory.hpp:77] Creating layer conv2/relu_3x3_reduce
I0915 12:06:37.272666 32310 net.cpp:91] Creating Layer conv2/relu_3x3_reduce
I0915 12:06:37.272671 32310 net.cpp:425] conv2/relu_3x3_reduce <- conv2/3x3_reduce
I0915 12:06:37.272678 32310 net.cpp:386] conv2/relu_3x3_reduce -> conv2/3x3_reduce (in-place)
I0915 12:06:37.273030 32310 net.cpp:141] Setting up conv2/relu_3x3_reduce
I0915 12:06:37.273042 32310 net.cpp:148] Top shape: 10 64 56 56 (2007040)
I0915 12:06:37.273047 32310 net.cpp:156] Memory required for data: 102359040
I0915 12:06:37.273052 32310 layer_factory.hpp:77] Creating layer conv2/3x3
I0915 12:06:37.273064 32310 net.cpp:91] Creating Layer conv2/3x3
I0915 12:06:37.273069 32310 net.cpp:425] conv2/3x3 <- conv2/3x3_reduce
I0915 12:06:37.273077 32310 net.cpp:399] conv2/3x3 -> conv2/3x3
I0915 12:06:37.275995 32310 net.cpp:141] Setting up conv2/3x3
I0915 12:06:37.276024 32310 net.cpp:148] Top shape: 10 192 56 56 (6021120)
I0915 12:06:37.276031 32310 net.cpp:156] Memory required for data: 126443520
I0915 12:06:37.276042 32310 layer_factory.hpp:77] Creating layer conv2/relu_3x3
I0915 12:06:37.276051 32310 net.cpp:91] Creating Layer conv2/relu_3x3
I0915 12:06:37.276057 32310 net.cpp:425] conv2/relu_3x3 <- conv2/3x3
I0915 12:06:37.276063 32310 net.cpp:386] conv2/relu_3x3 -> conv2/3x3 (in-place)
I0915 12:06:37.276273 32310 net.cpp:141] Setting up conv2/relu_3x3
I0915 12:06:37.276283 32310 net.cpp:148] Top shape: 10 192 56 56 (6021120)
I0915 12:06:37.276288 32310 net.cpp:156] Memory required for data: 150528000
I0915 12:06:37.276293 32310 layer_factory.hpp:77] Creating layer conv2/norm2
I0915 12:06:37.276301 32310 net.cpp:91] Creating Layer conv2/norm2
I0915 12:06:37.276306 32310 net.cpp:425] conv2/norm2 <- conv2/3x3
I0915 12:06:37.276312 32310 net.cpp:399] conv2/norm2 -> conv2/norm2
I0915 12:06:37.276700 32310 net.cpp:141] Setting up conv2/norm2
I0915 12:06:37.276713 32310 net.cpp:148] Top shape: 10 192 56 56 (6021120)
I0915 12:06:37.276717 32310 net.cpp:156] Memory required for data: 174612480
I0915 12:06:37.276722 32310 layer_factory.hpp:77] Creating layer pool2/3x3_s2
I0915 12:06:37.276731 32310 net.cpp:91] Creating Layer pool2/3x3_s2
I0915 12:06:37.276736 32310 net.cpp:425] pool2/3x3_s2 <- conv2/norm2
I0915 12:06:37.276742 32310 net.cpp:399] pool2/3x3_s2 -> pool2/3x3_s2
I0915 12:06:37.276784 32310 net.cpp:141] Setting up pool2/3x3_s2
I0915 12:06:37.276793 32310 net.cpp:148] Top shape: 10 192 28 28 (1505280)
I0915 12:06:37.276796 32310 net.cpp:156] Memory required for data: 180633600
I0915 12:06:37.276800 32310 layer_factory.hpp:77] Creating layer pool2/3x3_s2_pool2/3x3_s2_0_split
I0915 12:06:37.276815 32310 net.cpp:91] Creating Layer pool2/3x3_s2_pool2/3x3_s2_0_split
I0915 12:06:37.276820 32310 net.cpp:425] pool2/3x3_s2_pool2/3x3_s2_0_split <- pool2/3x3_s2
I0915 12:06:37.276826 32310 net.cpp:399] pool2/3x3_s2_pool2/3x3_s2_0_split -> pool2/3x3_s2_pool2/3x3_s2_0_split_0
I0915 12:06:37.276835 32310 net.cpp:399] pool2/3x3_s2_pool2/3x3_s2_0_split -> pool2/3x3_s2_pool2/3x3_s2_0_split_1
I0915 12:06:37.276842 32310 net.cpp:399] pool2/3x3_s2_pool2/3x3_s2_0_split -> pool2/3x3_s2_pool2/3x3_s2_0_split_2
I0915 12:06:37.276849 32310 net.cpp:399] pool2/3x3_s2_pool2/3x3_s2_0_split -> pool2/3x3_s2_pool2/3x3_s2_0_split_3
I0915 12:06:37.276911 32310 net.cpp:141] Setting up pool2/3x3_s2_pool2/3x3_s2_0_split
I0915 12:06:37.276918 32310 net.cpp:148] Top shape: 10 192 28 28 (1505280)
I0915 12:06:37.276924 32310 net.cpp:148] Top shape: 10 192 28 28 (1505280)
I0915 12:06:37.276929 32310 net.cpp:148] Top shape: 10 192 28 28 (1505280)
I0915 12:06:37.276934 32310 net.cpp:148] Top shape: 10 192 28 28 (1505280)
I0915 12:06:37.276938 32310 net.cpp:156] Memory required for data: 204718080
I0915 12:06:37.276943 32310 layer_factory.hpp:77] Creating layer inception_3a/1x1
I0915 12:06:37.276953 32310 net.cpp:91] Creating Layer inception_3a/1x1
I0915 12:06:37.276958 32310 net.cpp:425] inception_3a/1x1 <- pool2/3x3_s2_pool2/3x3_s2_0_split_0
I0915 12:06:37.276978 32310 net.cpp:399] inception_3a/1x1 -> inception_3a/1x1
I0915 12:06:37.278872 32310 net.cpp:141] Setting up inception_3a/1x1
I0915 12:06:37.278900 32310 net.cpp:148] Top shape: 10 64 28 28 (501760)
I0915 12:06:37.278906 32310 net.cpp:156] Memory required for data: 206725120
I0915 12:06:37.278914 32310 layer_factory.hpp:77] Creating layer inception_3a/relu_1x1
I0915 12:06:37.278926 32310 net.cpp:91] Creating Layer inception_3a/relu_1x1
I0915 12:06:37.278933 32310 net.cpp:425] inception_3a/relu_1x1 <- inception_3a/1x1
I0915 12:06:37.278939 32310 net.cpp:386] inception_3a/relu_1x1 -> inception_3a/1x1 (in-place)
I0915 12:06:37.279309 32310 net.cpp:141] Setting up inception_3a/relu_1x1
I0915 12:06:37.279321 32310 net.cpp:148] Top shape: 10 64 28 28 (501760)
I0915 12:06:37.279326 32310 net.cpp:156] Memory required for data: 208732160
I0915 12:06:37.279331 32310 layer_factory.hpp:77] Creating layer inception_3a/3x3_reduce
I0915 12:06:37.279347 32310 net.cpp:91] Creating Layer inception_3a/3x3_reduce
I0915 12:06:37.279353 32310 net.cpp:425] inception_3a/3x3_reduce <- pool2/3x3_s2_pool2/3x3_s2_0_split_1
I0915 12:06:37.279361 32310 net.cpp:399] inception_3a/3x3_reduce -> inception_3a/3x3_reduce
I0915 12:06:37.281715 32310 net.cpp:141] Setting up inception_3a/3x3_reduce
I0915 12:06:37.281733 32310 net.cpp:148] Top shape: 10 96 28 28 (752640)
I0915 12:06:37.281738 32310 net.cpp:156] Memory required for data: 211742720
I0915 12:06:37.281749 32310 layer_factory.hpp:77] Creating layer inception_3a/relu_3x3_reduce
I0915 12:06:37.281761 32310 net.cpp:91] Creating Layer inception_3a/relu_3x3_reduce
I0915 12:06:37.281766 32310 net.cpp:425] inception_3a/relu_3x3_reduce <- inception_3a/3x3_reduce
I0915 12:06:37.281772 32310 net.cpp:386] inception_3a/relu_3x3_reduce -> inception_3a/3x3_reduce (in-place)
I0915 12:06:37.282006 32310 net.cpp:141] Setting up inception_3a/relu_3x3_reduce
I0915 12:06:37.282016 32310 net.cpp:148] Top shape: 10 96 28 28 (752640)
I0915 12:06:37.282021 32310 net.cpp:156] Memory required for data: 214753280
I0915 12:06:37.282026 32310 layer_factory.hpp:77] Creating layer inception_3a/3x3
I0915 12:06:37.282043 32310 net.cpp:91] Creating Layer inception_3a/3x3
I0915 12:06:37.282048 32310 net.cpp:425] inception_3a/3x3 <- inception_3a/3x3_reduce
I0915 12:06:37.282059 32310 net.cpp:399] inception_3a/3x3 -> inception_3a/3x3
I0915 12:06:37.284219 32310 net.cpp:141] Setting up inception_3a/3x3
I0915 12:06:37.284237 32310 net.cpp:148] Top shape: 10 128 28 28 (1003520)
I0915 12:06:37.284242 32310 net.cpp:156] Memory required for data: 218767360
I0915 12:06:37.284250 32310 layer_factory.hpp:77] Creating layer inception_3a/relu_3x3
I0915 12:06:37.284258 32310 net.cpp:91] Creating Layer inception_3a/relu_3x3
I0915 12:06:37.284265 32310 net.cpp:425] inception_3a/relu_3x3 <- inception_3a/3x3
I0915 12:06:37.284271 32310 net.cpp:386] inception_3a/relu_3x3 -> inception_3a/3x3 (in-place)
I0915 12:06:37.284647 32310 net.cpp:141] Setting up inception_3a/relu_3x3
I0915 12:06:37.284659 32310 net.cpp:148] Top shape: 10 128 28 28 (1003520)
I0915 12:06:37.284663 32310 net.cpp:156] Memory required for data: 222781440
I0915 12:06:37.284668 32310 layer_factory.hpp:77] Creating layer inception_3a/5x5_reduce
I0915 12:06:37.284683 32310 net.cpp:91] Creating Layer inception_3a/5x5_reduce
I0915 12:06:37.284688 32310 net.cpp:425] inception_3a/5x5_reduce <- pool2/3x3_s2_pool2/3x3_s2_0_split_2
I0915 12:06:37.284699 32310 net.cpp:399] inception_3a/5x5_reduce -> inception_3a/5x5_reduce
I0915 12:06:37.285897 32310 net.cpp:141] Setting up inception_3a/5x5_reduce
I0915 12:06:37.285912 32310 net.cpp:148] Top shape: 10 16 28 28 (125440)
I0915 12:06:37.285917 32310 net.cpp:156] Memory required for data: 223283200
I0915 12:06:37.285925 32310 layer_factory.hpp:77] Creating layer inception_3a/relu_5x5_reduce
I0915 12:06:37.285933 32310 net.cpp:91] Creating Layer inception_3a/relu_5x5_reduce
I0915 12:06:37.285939 32310 net.cpp:425] inception_3a/relu_5x5_reduce <- inception_3a/5x5_reduce
I0915 12:06:37.285949 32310 net.cpp:386] inception_3a/relu_5x5_reduce -> inception_3a/5x5_reduce (in-place)
I0915 12:06:37.286331 32310 net.cpp:141] Setting up inception_3a/relu_5x5_reduce
I0915 12:06:37.286344 32310 net.cpp:148] Top shape: 10 16 28 28 (125440)
I0915 12:06:37.286347 32310 net.cpp:156] Memory required for data: 223784960
I0915 12:06:37.286352 32310 layer_factory.hpp:77] Creating layer inception_3a/5x5
I0915 12:06:37.286372 32310 net.cpp:91] Creating Layer inception_3a/5x5
I0915 12:06:37.286378 32310 net.cpp:425] inception_3a/5x5 <- inception_3a/5x5_reduce
I0915 12:06:37.286388 32310 net.cpp:399] inception_3a/5x5 -> inception_3a/5x5
I0915 12:06:37.288743 32310 net.cpp:141] Setting up inception_3a/5x5
I0915 12:06:37.288785 32310 net.cpp:148] Top shape: 10 32 28 28 (250880)
I0915 12:06:37.288791 32310 net.cpp:156] Memory required for data: 224788480
I0915 12:06:37.288805 32310 layer_factory.hpp:77] Creating layer inception_3a/relu_5x5
I0915 12:06:37.288826 32310 net.cpp:91] Creating Layer inception_3a/relu_5x5
I0915 12:06:37.288835 32310 net.cpp:425] inception_3a/relu_5x5 <- inception_3a/5x5
I0915 12:06:37.288843 32310 net.cpp:386] inception_3a/relu_5x5 -> inception_3a/5x5 (in-place)
I0915 12:06:37.289080 32310 net.cpp:141] Setting up inception_3a/relu_5x5
I0915 12:06:37.289091 32310 net.cpp:148] Top shape: 10 32 28 28 (250880)
I0915 12:06:37.289095 32310 net.cpp:156] Memory required for data: 225792000
I0915 12:06:37.289100 32310 layer_factory.hpp:77] Creating layer inception_3a/pool
I0915 12:06:37.289110 32310 net.cpp:91] Creating Layer inception_3a/pool
I0915 12:06:37.289116 32310 net.cpp:425] inception_3a/pool <- pool2/3x3_s2_pool2/3x3_s2_0_split_3
I0915 12:06:37.289126 32310 net.cpp:399] inception_3a/pool -> inception_3a/pool
I0915 12:06:37.289185 32310 net.cpp:141] Setting up inception_3a/pool
I0915 12:06:37.289192 32310 net.cpp:148] Top shape: 10 192 28 28 (1505280)
I0915 12:06:37.289196 32310 net.cpp:156] Memory required for data: 231813120
I0915 12:06:37.289201 32310 layer_factory.hpp:77] Creating layer inception_3a/pool_proj
I0915 12:06:37.289224 32310 net.cpp:91] Creating Layer inception_3a/pool_proj
I0915 12:06:37.289230 32310 net.cpp:425] inception_3a/pool_proj <- inception_3a/pool
I0915 12:06:37.289238 32310 net.cpp:399] inception_3a/pool_proj -> inception_3a/pool_proj
I0915 12:06:37.290647 32310 net.cpp:141] Setting up inception_3a/pool_proj
I0915 12:06:37.290663 32310 net.cpp:148] Top shape: 10 32 28 28 (250880)
I0915 12:06:37.290668 32310 net.cpp:156] Memory required for data: 232816640
I0915 12:06:37.290688 32310 layer_factory.hpp:77] Creating layer inception_3a/relu_pool_proj
I0915 12:06:37.290696 32310 net.cpp:91] Creating Layer inception_3a/relu_pool_proj
I0915 12:06:37.290702 32310 net.cpp:425] inception_3a/relu_pool_proj <- inception_3a/pool_proj
I0915 12:06:37.290709 32310 net.cpp:386] inception_3a/relu_pool_proj -> inception_3a/pool_proj (in-place)
I0915 12:06:37.291116 32310 net.cpp:141] Setting up inception_3a/relu_pool_proj
I0915 12:06:37.291131 32310 net.cpp:148] Top shape: 10 32 28 28 (250880)
I0915 12:06:37.291136 32310 net.cpp:156] Memory required for data: 233820160
I0915 12:06:37.291141 32310 layer_factory.hpp:77] Creating layer inception_3a/output
I0915 12:06:37.291162 32310 net.cpp:91] Creating Layer inception_3a/output
I0915 12:06:37.291167 32310 net.cpp:425] inception_3a/output <- inception_3a/1x1
I0915 12:06:37.291172 32310 net.cpp:425] inception_3a/output <- inception_3a/3x3
I0915 12:06:37.291177 32310 net.cpp:425] inception_3a/output <- inception_3a/5x5
I0915 12:06:37.291182 32310 net.cpp:425] inception_3a/output <- inception_3a/pool_proj
I0915 12:06:37.291188 32310 net.cpp:399] inception_3a/output -> inception_3a/output
I0915 12:06:37.291230 32310 net.cpp:141] Setting up inception_3a/output
I0915 12:06:37.291239 32310 net.cpp:148] Top shape: 10 256 28 28 (2007040)
I0915 12:06:37.291244 32310 net.cpp:156] Memory required for data: 241848320
I0915 12:06:37.291249 32310 layer_factory.hpp:77] Creating layer inception_3a/output_inception_3a/output_0_split
I0915 12:06:37.291260 32310 net.cpp:91] Creating Layer inception_3a/output_inception_3a/output_0_split
I0915 12:06:37.291265 32310 net.cpp:425] inception_3a/output_inception_3a/output_0_split <- inception_3a/output
I0915 12:06:37.291270 32310 net.cpp:399] inception_3a/output_inception_3a/output_0_split -> inception_3a/output_inception_3a/output_0_split_0
I0915 12:06:37.291278 32310 net.cpp:399] inception_3a/output_inception_3a/output_0_split -> inception_3a/output_inception_3a/output_0_split_1
I0915 12:06:37.291286 32310 net.cpp:399] inception_3a/output_inception_3a/output_0_split -> inception_3a/output_inception_3a/output_0_split_2
I0915 12:06:37.291293 32310 net.cpp:399] inception_3a/output_inception_3a/output_0_split -> inception_3a/output_inception_3a/output_0_split_3
I0915 12:06:37.291371 32310 net.cpp:141] Setting up inception_3a/output_inception_3a/output_0_split
I0915 12:06:37.291379 32310 net.cpp:148] Top shape: 10 256 28 28 (2007040)
I0915 12:06:37.291385 32310 net.cpp:148] Top shape: 10 256 28 28 (2007040)
I0915 12:06:37.291390 32310 net.cpp:148] Top shape: 10 256 28 28 (2007040)
I0915 12:06:37.291395 32310 net.cpp:148] Top shape: 10 256 28 28 (2007040)
I0915 12:06:37.291399 32310 net.cpp:156] Memory required for data: 273960960
I0915 12:06:37.291404 32310 layer_factory.hpp:77] Creating layer inception_3b/1x1
I0915 12:06:37.291417 32310 net.cpp:91] Creating Layer inception_3b/1x1
I0915 12:06:37.291422 32310 net.cpp:425] inception_3b/1x1 <- inception_3a/output_inception_3a/output_0_split_0
I0915 12:06:37.291432 32310 net.cpp:399] inception_3b/1x1 -> inception_3b/1x1
I0915 12:06:37.292888 32310 net.cpp:141] Setting up inception_3b/1x1
I0915 12:06:37.292902 32310 net.cpp:148] Top shape: 10 128 28 28 (1003520)
I0915 12:06:37.292906 32310 net.cpp:156] Memory required for data: 277975040
I0915 12:06:37.292915 32310 layer_factory.hpp:77] Creating layer inception_3b/relu_1x1
I0915 12:06:37.292923 32310 net.cpp:91] Creating Layer inception_3b/relu_1x1
I0915 12:06:37.292928 32310 net.cpp:425] inception_3b/relu_1x1 <- inception_3b/1x1
I0915 12:06:37.292939 32310 net.cpp:386] inception_3b/relu_1x1 -> inception_3b/1x1 (in-place)
I0915 12:06:37.293329 32310 net.cpp:141] Setting up inception_3b/relu_1x1
I0915 12:06:37.293341 32310 net.cpp:148] Top shape: 10 128 28 28 (1003520)
I0915 12:06:37.293345 32310 net.cpp:156] Memory required for data: 281989120
I0915 12:06:37.293350 32310 layer_factory.hpp:77] Creating layer inception_3b/3x3_reduce
I0915 12:06:37.293365 32310 net.cpp:91] Creating Layer inception_3b/3x3_reduce
I0915 12:06:37.293371 32310 net.cpp:425] inception_3b/3x3_reduce <- inception_3a/output_inception_3a/output_0_split_1
I0915 12:06:37.293381 32310 net.cpp:399] inception_3b/3x3_reduce -> inception_3b/3x3_reduce
I0915 12:06:37.295012 32310 net.cpp:141] Setting up inception_3b/3x3_reduce
I0915 12:06:37.295028 32310 net.cpp:148] Top shape: 10 128 28 28 (1003520)
I0915 12:06:37.295033 32310 net.cpp:156] Memory required for data: 286003200
I0915 12:06:37.295054 32310 layer_factory.hpp:77] Creating layer inception_3b/relu_3x3_reduce
I0915 12:06:37.295066 32310 net.cpp:91] Creating Layer inception_3b/relu_3x3_reduce
I0915 12:06:37.295073 32310 net.cpp:425] inception_3b/relu_3x3_reduce <- inception_3b/3x3_reduce
I0915 12:06:37.295079 32310 net.cpp:386] inception_3b/relu_3x3_reduce -> inception_3b/3x3_reduce (in-place)
I0915 12:06:37.295300 32310 net.cpp:141] Setting up inception_3b/relu_3x3_reduce
I0915 12:06:37.295311 32310 net.cpp:148] Top shape: 10 128 28 28 (1003520)
I0915 12:06:37.295315 32310 net.cpp:156] Memory required for data: 290017280
I0915 12:06:37.295320 32310 layer_factory.hpp:77] Creating layer inception_3b/3x3
I0915 12:06:37.295336 32310 net.cpp:91] Creating Layer inception_3b/3x3
I0915 12:06:37.295341 32310 net.cpp:425] inception_3b/3x3 <- inception_3b/3x3_reduce
I0915 12:06:37.295351 32310 net.cpp:399] inception_3b/3x3 -> inception_3b/3x3
I0915 12:06:37.298981 32310 net.cpp:141] Setting up inception_3b/3x3
I0915 12:06:37.299013 32310 net.cpp:148] Top shape: 10 192 28 28 (1505280)
I0915 12:06:37.299020 32310 net.cpp:156] Memory required for data: 296038400
I0915 12:06:37.299027 32310 layer_factory.hpp:77] Creating layer inception_3b/relu_3x3
I0915 12:06:37.299041 32310 net.cpp:91] Creating Layer inception_3b/relu_3x3
I0915 12:06:37.299046 32310 net.cpp:425] inception_3b/relu_3x3 <- inception_3b/3x3
I0915 12:06:37.299055 32310 net.cpp:386] inception_3b/relu_3x3 -> inception_3b/3x3 (in-place)
I0915 12:06:37.299449 32310 net.cpp:141] Setting up inception_3b/relu_3x3
I0915 12:06:37.299461 32310 net.cpp:148] Top shape: 10 192 28 28 (1505280)
I0915 12:06:37.299465 32310 net.cpp:156] Memory required for data: 302059520
I0915 12:06:37.299470 32310 layer_factory.hpp:77] Creating layer inception_3b/5x5_reduce
I0915 12:06:37.299486 32310 net.cpp:91] Creating Layer inception_3b/5x5_reduce
I0915 12:06:37.299491 32310 net.cpp:425] inception_3b/5x5_reduce <- inception_3a/output_inception_3a/output_0_split_2
I0915 12:06:37.299502 32310 net.cpp:399] inception_3b/5x5_reduce -> inception_3b/5x5_reduce
I0915 12:06:37.300753 32310 net.cpp:141] Setting up inception_3b/5x5_reduce
I0915 12:06:37.300782 32310 net.cpp:148] Top shape: 10 32 28 28 (250880)
I0915 12:06:37.300788 32310 net.cpp:156] Memory required for data: 303063040
I0915 12:06:37.300796 32310 layer_factory.hpp:77] Creating layer inception_3b/relu_5x5_reduce
I0915 12:06:37.300804 32310 net.cpp:91] Creating Layer inception_3b/relu_5x5_reduce
I0915 12:06:37.300811 32310 net.cpp:425] inception_3b/relu_5x5_reduce <- inception_3b/5x5_reduce
I0915 12:06:37.300822 32310 net.cpp:386] inception_3b/relu_5x5_reduce -> inception_3b/5x5_reduce (in-place)
I0915 12:06:37.301213 32310 net.cpp:141] Setting up inception_3b/relu_5x5_reduce
I0915 12:06:37.301225 32310 net.cpp:148] Top shape: 10 32 28 28 (250880)
I0915 12:06:37.301229 32310 net.cpp:156] Memory required for data: 304066560
I0915 12:06:37.301235 32310 layer_factory.hpp:77] Creating layer inception_3b/5x5
I0915 12:06:37.301250 32310 net.cpp:91] Creating Layer inception_3b/5x5
I0915 12:06:37.301256 32310 net.cpp:425] inception_3b/5x5 <- inception_3b/5x5_reduce
I0915 12:06:37.301266 32310 net.cpp:399] inception_3b/5x5 -> inception_3b/5x5
I0915 12:06:37.303830 32310 net.cpp:141] Setting up inception_3b/5x5
I0915 12:06:37.303859 32310 net.cpp:148] Top shape: 10 96 28 28 (752640)
I0915 12:06:37.303865 32310 net.cpp:156] Memory required for data: 307077120
I0915 12:06:37.303874 32310 layer_factory.hpp:77] Creating layer inception_3b/relu_5x5
I0915 12:06:37.303882 32310 net.cpp:91] Creating Layer inception_3b/relu_5x5
I0915 12:06:37.303889 32310 net.cpp:425] inception_3b/relu_5x5 <- inception_3b/5x5
I0915 12:06:37.303901 32310 net.cpp:386] inception_3b/relu_5x5 -> inception_3b/5x5 (in-place)
I0915 12:06:37.304136 32310 net.cpp:141] Setting up inception_3b/relu_5x5
I0915 12:06:37.304148 32310 net.cpp:148] Top shape: 10 96 28 28 (752640)
I0915 12:06:37.304154 32310 net.cpp:156] Memory required for data: 310087680
I0915 12:06:37.304159 32310 layer_factory.hpp:77] Creating layer inception_3b/pool
I0915 12:06:37.304169 32310 net.cpp:91] Creating Layer inception_3b/pool
I0915 12:06:37.304174 32310 net.cpp:425] inception_3b/pool <- inception_3a/output_inception_3a/output_0_split_3
I0915 12:06:37.304181 32310 net.cpp:399] inception_3b/pool -> inception_3b/pool
I0915 12:06:37.304240 32310 net.cpp:141] Setting up inception_3b/pool
I0915 12:06:37.304250 32310 net.cpp:148] Top shape: 10 256 28 28 (2007040)
I0915 12:06:37.304253 32310 net.cpp:156] Memory required for data: 318115840
I0915 12:06:37.304258 32310 layer_factory.hpp:77] Creating layer inception_3b/pool_proj
I0915 12:06:37.304273 32310 net.cpp:91] Creating Layer inception_3b/pool_proj
I0915 12:06:37.304280 32310 net.cpp:425] inception_3b/pool_proj <- inception_3b/pool
I0915 12:06:37.304288 32310 net.cpp:399] inception_3b/pool_proj -> inception_3b/pool_proj
I0915 12:06:37.305784 32310 net.cpp:141] Setting up inception_3b/pool_proj
I0915 12:06:37.305814 32310 net.cpp:148] Top shape: 10 64 28 28 (501760)
I0915 12:06:37.305819 32310 net.cpp:156] Memory required for data: 320122880
I0915 12:06:37.305827 32310 layer_factory.hpp:77] Creating layer inception_3b/relu_pool_proj
I0915 12:06:37.305840 32310 net.cpp:91] Creating Layer inception_3b/relu_pool_proj
I0915 12:06:37.305845 32310 net.cpp:425] inception_3b/relu_pool_proj <- inception_3b/pool_proj
I0915 12:06:37.305852 32310 net.cpp:386] inception_3b/relu_pool_proj -> inception_3b/pool_proj (in-place)
I0915 12:06:37.306241 32310 net.cpp:141] Setting up inception_3b/relu_pool_proj
I0915 12:06:37.306252 32310 net.cpp:148] Top shape: 10 64 28 28 (501760)
I0915 12:06:37.306257 32310 net.cpp:156] Memory required for data: 322129920
I0915 12:06:37.306268 32310 layer_factory.hpp:77] Creating layer inception_3b/output
I0915 12:06:37.306280 32310 net.cpp:91] Creating Layer inception_3b/output
I0915 12:06:37.306285 32310 net.cpp:425] inception_3b/output <- inception_3b/1x1
I0915 12:06:37.306291 32310 net.cpp:425] inception_3b/output <- inception_3b/3x3
I0915 12:06:37.306296 32310 net.cpp:425] inception_3b/output <- inception_3b/5x5
I0915 12:06:37.306303 32310 net.cpp:425] inception_3b/output <- inception_3b/pool_proj
I0915 12:06:37.306308 32310 net.cpp:399] inception_3b/output -> inception_3b/output
I0915 12:06:37.306347 32310 net.cpp:141] Setting up inception_3b/output
I0915 12:06:37.306356 32310 net.cpp:148] Top shape: 10 480 28 28 (3763200)
I0915 12:06:37.306360 32310 net.cpp:156] Memory required for data: 337182720
I0915 12:06:37.306365 32310 layer_factory.hpp:77] Creating layer pool3/3x3_s2
I0915 12:06:37.306372 32310 net.cpp:91] Creating Layer pool3/3x3_s2
I0915 12:06:37.306377 32310 net.cpp:425] pool3/3x3_s2 <- inception_3b/output
I0915 12:06:37.306390 32310 net.cpp:399] pool3/3x3_s2 -> pool3/3x3_s2
I0915 12:06:37.306447 32310 net.cpp:141] Setting up pool3/3x3_s2
I0915 12:06:37.306457 32310 net.cpp:148] Top shape: 10 480 14 14 (940800)
I0915 12:06:37.306460 32310 net.cpp:156] Memory required for data: 340945920
I0915 12:06:37.306465 32310 layer_factory.hpp:77] Creating layer pool3/3x3_s2_pool3/3x3_s2_0_split
I0915 12:06:37.306476 32310 net.cpp:91] Creating Layer pool3/3x3_s2_pool3/3x3_s2_0_split
I0915 12:06:37.306480 32310 net.cpp:425] pool3/3x3_s2_pool3/3x3_s2_0_split <- pool3/3x3_s2
I0915 12:06:37.306486 32310 net.cpp:399] pool3/3x3_s2_pool3/3x3_s2_0_split -> pool3/3x3_s2_pool3/3x3_s2_0_split_0
I0915 12:06:37.306494 32310 net.cpp:399] pool3/3x3_s2_pool3/3x3_s2_0_split -> pool3/3x3_s2_pool3/3x3_s2_0_split_1
I0915 12:06:37.306501 32310 net.cpp:399] pool3/3x3_s2_pool3/3x3_s2_0_split -> pool3/3x3_s2_pool3/3x3_s2_0_split_2
I0915 12:06:37.306509 32310 net.cpp:399] pool3/3x3_s2_pool3/3x3_s2_0_split -> pool3/3x3_s2_pool3/3x3_s2_0_split_3
I0915 12:06:37.306593 32310 net.cpp:141] Setting up pool3/3x3_s2_pool3/3x3_s2_0_split
I0915 12:06:37.306602 32310 net.cpp:148] Top shape: 10 480 14 14 (940800)
I0915 12:06:37.306608 32310 net.cpp:148] Top shape: 10 480 14 14 (940800)
I0915 12:06:37.306613 32310 net.cpp:148] Top shape: 10 480 14 14 (940800)
I0915 12:06:37.306618 32310 net.cpp:148] Top shape: 10 480 14 14 (940800)
I0915 12:06:37.306622 32310 net.cpp:156] Memory required for data: 355998720
I0915 12:06:37.306627 32310 layer_factory.hpp:77] Creating layer inception_4a/1x1
I0915 12:06:37.306641 32310 net.cpp:91] Creating Layer inception_4a/1x1
I0915 12:06:37.306646 32310 net.cpp:425] inception_4a/1x1 <- pool3/3x3_s2_pool3/3x3_s2_0_split_0
I0915 12:06:37.306656 32310 net.cpp:399] inception_4a/1x1 -> inception_4a/1x1
I0915 12:06:37.308765 32310 net.cpp:141] Setting up inception_4a/1x1
I0915 12:06:37.308794 32310 net.cpp:148] Top shape: 10 192 14 14 (376320)
I0915 12:06:37.308799 32310 net.cpp:156] Memory required for data: 357504000
I0915 12:06:37.308809 32310 layer_factory.hpp:77] Creating layer inception_4a/relu_1x1
I0915 12:06:37.308820 32310 net.cpp:91] Creating Layer inception_4a/relu_1x1
I0915 12:06:37.308826 32310 net.cpp:425] inception_4a/relu_1x1 <- inception_4a/1x1
I0915 12:06:37.308835 32310 net.cpp:386] inception_4a/relu_1x1 -> inception_4a/1x1 (in-place)
I0915 12:06:37.309221 32310 net.cpp:141] Setting up inception_4a/relu_1x1
I0915 12:06:37.309233 32310 net.cpp:148] Top shape: 10 192 14 14 (376320)
I0915 12:06:37.309237 32310 net.cpp:156] Memory required for data: 359009280
I0915 12:06:37.309242 32310 layer_factory.hpp:77] Creating layer inception_4a/3x3_reduce
I0915 12:06:37.309257 32310 net.cpp:91] Creating Layer inception_4a/3x3_reduce
I0915 12:06:37.309262 32310 net.cpp:425] inception_4a/3x3_reduce <- pool3/3x3_s2_pool3/3x3_s2_0_split_1
I0915 12:06:37.309274 32310 net.cpp:399] inception_4a/3x3_reduce -> inception_4a/3x3_reduce
I0915 12:06:37.310972 32310 net.cpp:141] Setting up inception_4a/3x3_reduce
I0915 12:06:37.310986 32310 net.cpp:148] Top shape: 10 96 14 14 (188160)
I0915 12:06:37.310991 32310 net.cpp:156] Memory required for data: 359761920
I0915 12:06:37.311009 32310 layer_factory.hpp:77] Creating layer inception_4a/relu_3x3_reduce
I0915 12:06:37.311022 32310 net.cpp:91] Creating Layer inception_4a/relu_3x3_reduce
I0915 12:06:37.311028 32310 net.cpp:425] inception_4a/relu_3x3_reduce <- inception_4a/3x3_reduce
I0915 12:06:37.311034 32310 net.cpp:386] inception_4a/relu_3x3_reduce -> inception_4a/3x3_reduce (in-place)
I0915 12:06:37.311251 32310 net.cpp:141] Setting up inception_4a/relu_3x3_reduce
I0915 12:06:37.311261 32310 net.cpp:148] Top shape: 10 96 14 14 (188160)
I0915 12:06:37.311265 32310 net.cpp:156] Memory required for data: 360514560
I0915 12:06:37.311270 32310 layer_factory.hpp:77] Creating layer inception_4a/3x3
I0915 12:06:37.311286 32310 net.cpp:91] Creating Layer inception_4a/3x3
I0915 12:06:37.311292 32310 net.cpp:425] inception_4a/3x3 <- inception_4a/3x3_reduce
I0915 12:06:37.311302 32310 net.cpp:399] inception_4a/3x3 -> inception_4a/3x3
I0915 12:06:37.315261 32310 net.cpp:141] Setting up inception_4a/3x3
I0915 12:06:37.315279 32310 net.cpp:148] Top shape: 10 208 14 14 (407680)
I0915 12:06:37.315284 32310 net.cpp:156] Memory required for data: 362145280
I0915 12:06:37.315292 32310 layer_factory.hpp:77] Creating layer inception_4a/relu_3x3
I0915 12:06:37.315301 32310 net.cpp:91] Creating Layer inception_4a/relu_3x3
I0915 12:06:37.315306 32310 net.cpp:425] inception_4a/relu_3x3 <- inception_4a/3x3
I0915 12:06:37.315313 32310 net.cpp:386] inception_4a/relu_3x3 -> inception_4a/3x3 (in-place)
I0915 12:06:37.315714 32310 net.cpp:141] Setting up inception_4a/relu_3x3
I0915 12:06:37.315727 32310 net.cpp:148] Top shape: 10 208 14 14 (407680)
I0915 12:06:37.315732 32310 net.cpp:156] Memory required for data: 363776000
I0915 12:06:37.315737 32310 layer_factory.hpp:77] Creating layer inception_4a/5x5_reduce
I0915 12:06:37.315753 32310 net.cpp:91] Creating Layer inception_4a/5x5_reduce
I0915 12:06:37.315759 32310 net.cpp:425] inception_4a/5x5_reduce <- pool3/3x3_s2_pool3/3x3_s2_0_split_2
I0915 12:06:37.315770 32310 net.cpp:399] inception_4a/5x5_reduce -> inception_4a/5x5_reduce
I0915 12:06:37.317023 32310 net.cpp:141] Setting up inception_4a/5x5_reduce
I0915 12:06:37.317054 32310 net.cpp:148] Top shape: 10 16 14 14 (31360)
I0915 12:06:37.317059 32310 net.cpp:156] Memory required for data: 363901440
I0915 12:06:37.317067 32310 layer_factory.hpp:77] Creating layer inception_4a/relu_5x5_reduce
I0915 12:06:37.317076 32310 net.cpp:91] Creating Layer inception_4a/relu_5x5_reduce
I0915 12:06:37.317081 32310 net.cpp:425] inception_4a/relu_5x5_reduce <- inception_4a/5x5_reduce
I0915 12:06:37.317092 32310 net.cpp:386] inception_4a/relu_5x5_reduce -> inception_4a/5x5_reduce (in-place)
I0915 12:06:37.317494 32310 net.cpp:141] Setting up inception_4a/relu_5x5_reduce
I0915 12:06:37.317507 32310 net.cpp:148] Top shape: 10 16 14 14 (31360)
I0915 12:06:37.317512 32310 net.cpp:156] Memory required for data: 364026880
I0915 12:06:37.317517 32310 layer_factory.hpp:77] Creating layer inception_4a/5x5
I0915 12:06:37.317533 32310 net.cpp:91] Creating Layer inception_4a/5x5
I0915 12:06:37.317540 32310 net.cpp:425] inception_4a/5x5 <- inception_4a/5x5_reduce
I0915 12:06:37.317548 32310 net.cpp:399] inception_4a/5x5 -> inception_4a/5x5
I0915 12:06:37.319036 32310 net.cpp:141] Setting up inception_4a/5x5
I0915 12:06:37.319064 32310 net.cpp:148] Top shape: 10 48 14 14 (94080)
I0915 12:06:37.319069 32310 net.cpp:156] Memory required for data: 364403200
I0915 12:06:37.319078 32310 layer_factory.hpp:77] Creating layer inception_4a/relu_5x5
I0915 12:06:37.319087 32310 net.cpp:91] Creating Layer inception_4a/relu_5x5
I0915 12:06:37.319092 32310 net.cpp:425] inception_4a/relu_5x5 <- inception_4a/5x5
I0915 12:06:37.319103 32310 net.cpp:386] inception_4a/relu_5x5 -> inception_4a/5x5 (in-place)
I0915 12:06:37.319319 32310 net.cpp:141] Setting up inception_4a/relu_5x5
I0915 12:06:37.319330 32310 net.cpp:148] Top shape: 10 48 14 14 (94080)
I0915 12:06:37.319335 32310 net.cpp:156] Memory required for data: 364779520
I0915 12:06:37.319339 32310 layer_factory.hpp:77] Creating layer inception_4a/pool
I0915 12:06:37.319349 32310 net.cpp:91] Creating Layer inception_4a/pool
I0915 12:06:37.319355 32310 net.cpp:425] inception_4a/pool <- pool3/3x3_s2_pool3/3x3_s2_0_split_3
I0915 12:06:37.319361 32310 net.cpp:399] inception_4a/pool -> inception_4a/pool
I0915 12:06:37.319422 32310 net.cpp:141] Setting up inception_4a/pool
I0915 12:06:37.319430 32310 net.cpp:148] Top shape: 10 480 14 14 (940800)
I0915 12:06:37.319434 32310 net.cpp:156] Memory required for data: 368542720
I0915 12:06:37.319438 32310 layer_factory.hpp:77] Creating layer inception_4a/pool_proj
I0915 12:06:37.319453 32310 net.cpp:91] Creating Layer inception_4a/pool_proj
I0915 12:06:37.319459 32310 net.cpp:425] inception_4a/pool_proj <- inception_4a/pool
I0915 12:06:37.319469 32310 net.cpp:399] inception_4a/pool_proj -> inception_4a/pool_proj
I0915 12:06:37.321105 32310 net.cpp:141] Setting up inception_4a/pool_proj
I0915 12:06:37.321135 32310 net.cpp:148] Top shape: 10 64 14 14 (125440)
I0915 12:06:37.321141 32310 net.cpp:156] Memory required for data: 369044480
I0915 12:06:37.321148 32310 layer_factory.hpp:77] Creating layer inception_4a/relu_pool_proj
I0915 12:06:37.321159 32310 net.cpp:91] Creating Layer inception_4a/relu_pool_proj
I0915 12:06:37.321166 32310 net.cpp:425] inception_4a/relu_pool_proj <- inception_4a/pool_proj
I0915 12:06:37.321172 32310 net.cpp:386] inception_4a/relu_pool_proj -> inception_4a/pool_proj (in-place)
I0915 12:06:37.321571 32310 net.cpp:141] Setting up inception_4a/relu_pool_proj
I0915 12:06:37.321583 32310 net.cpp:148] Top shape: 10 64 14 14 (125440)
I0915 12:06:37.321588 32310 net.cpp:156] Memory required for data: 369546240
I0915 12:06:37.321593 32310 layer_factory.hpp:77] Creating layer inception_4a/output
I0915 12:06:37.321604 32310 net.cpp:91] Creating Layer inception_4a/output
I0915 12:06:37.321610 32310 net.cpp:425] inception_4a/output <- inception_4a/1x1
I0915 12:06:37.321616 32310 net.cpp:425] inception_4a/output <- inception_4a/3x3
I0915 12:06:37.321621 32310 net.cpp:425] inception_4a/output <- inception_4a/5x5
I0915 12:06:37.321626 32310 net.cpp:425] inception_4a/output <- inception_4a/pool_proj
I0915 12:06:37.321632 32310 net.cpp:399] inception_4a/output -> inception_4a/output
I0915 12:06:37.321676 32310 net.cpp:141] Setting up inception_4a/output
I0915 12:06:37.321684 32310 net.cpp:148] Top shape: 10 512 14 14 (1003520)
I0915 12:06:37.321688 32310 net.cpp:156] Memory required for data: 373560320
I0915 12:06:37.321693 32310 layer_factory.hpp:77] Creating layer inception_4a/output_inception_4a/output_0_split
I0915 12:06:37.321710 32310 net.cpp:91] Creating Layer inception_4a/output_inception_4a/output_0_split
I0915 12:06:37.321715 32310 net.cpp:425] inception_4a/output_inception_4a/output_0_split <- inception_4a/output
I0915 12:06:37.321723 32310 net.cpp:399] inception_4a/output_inception_4a/output_0_split -> inception_4a/output_inception_4a/output_0_split_0
I0915 12:06:37.321732 32310 net.cpp:399] inception_4a/output_inception_4a/output_0_split -> inception_4a/output_inception_4a/output_0_split_1
I0915 12:06:37.321739 32310 net.cpp:399] inception_4a/output_inception_4a/output_0_split -> inception_4a/output_inception_4a/output_0_split_2
I0915 12:06:37.321748 32310 net.cpp:399] inception_4a/output_inception_4a/output_0_split -> inception_4a/output_inception_4a/output_0_split_3
I0915 12:06:37.321826 32310 net.cpp:141] Setting up inception_4a/output_inception_4a/output_0_split
I0915 12:06:37.321835 32310 net.cpp:148] Top shape: 10 512 14 14 (1003520)
I0915 12:06:37.321841 32310 net.cpp:148] Top shape: 10 512 14 14 (1003520)
I0915 12:06:37.321846 32310 net.cpp:148] Top shape: 10 512 14 14 (1003520)
I0915 12:06:37.321851 32310 net.cpp:148] Top shape: 10 512 14 14 (1003520)
I0915 12:06:37.321854 32310 net.cpp:156] Memory required for data: 389616640
I0915 12:06:37.321858 32310 layer_factory.hpp:77] Creating layer inception_4b/1x1
I0915 12:06:37.321873 32310 net.cpp:91] Creating Layer inception_4b/1x1
I0915 12:06:37.321878 32310 net.cpp:425] inception_4b/1x1 <- inception_4a/output_inception_4a/output_0_split_0
I0915 12:06:37.321887 32310 net.cpp:399] inception_4b/1x1 -> inception_4b/1x1
I0915 12:06:37.323683 32310 net.cpp:141] Setting up inception_4b/1x1
I0915 12:06:37.323710 32310 net.cpp:148] Top shape: 10 160 14 14 (313600)
I0915 12:06:37.323716 32310 net.cpp:156] Memory required for data: 390871040
I0915 12:06:37.323724 32310 layer_factory.hpp:77] Creating layer inception_4b/relu_1x1
I0915 12:06:37.323734 32310 net.cpp:91] Creating Layer inception_4b/relu_1x1
I0915 12:06:37.323739 32310 net.cpp:425] inception_4b/relu_1x1 <- inception_4b/1x1
I0915 12:06:37.323748 32310 net.cpp:386] inception_4b/relu_1x1 -> inception_4b/1x1 (in-place)
I0915 12:06:37.324157 32310 net.cpp:141] Setting up inception_4b/relu_1x1
I0915 12:06:37.324169 32310 net.cpp:148] Top shape: 10 160 14 14 (313600)
I0915 12:06:37.324174 32310 net.cpp:156] Memory required for data: 392125440
I0915 12:06:37.324179 32310 layer_factory.hpp:77] Creating layer inception_4b/3x3_reduce
I0915 12:06:37.324194 32310 net.cpp:91] Creating Layer inception_4b/3x3_reduce
I0915 12:06:37.324200 32310 net.cpp:425] inception_4b/3x3_reduce <- inception_4a/output_inception_4a/output_0_split_1
I0915 12:06:37.324210 32310 net.cpp:399] inception_4b/3x3_reduce -> inception_4b/3x3_reduce
I0915 12:06:37.326061 32310 net.cpp:141] Setting up inception_4b/3x3_reduce
I0915 12:06:37.326078 32310 net.cpp:148] Top shape: 10 112 14 14 (219520)
I0915 12:06:37.326083 32310 net.cpp:156] Memory required for data: 393003520
I0915 12:06:37.326092 32310 layer_factory.hpp:77] Creating layer inception_4b/relu_3x3_reduce
I0915 12:06:37.326107 32310 net.cpp:91] Creating Layer inception_4b/relu_3x3_reduce
I0915 12:06:37.326112 32310 net.cpp:425] inception_4b/relu_3x3_reduce <- inception_4b/3x3_reduce
I0915 12:06:37.326118 32310 net.cpp:386] inception_4b/relu_3x3_reduce -> inception_4b/3x3_reduce (in-place)
I0915 12:06:37.326342 32310 net.cpp:141] Setting up inception_4b/relu_3x3_reduce
I0915 12:06:37.326354 32310 net.cpp:148] Top shape: 10 112 14 14 (219520)
I0915 12:06:37.326357 32310 net.cpp:156] Memory required for data: 393881600
I0915 12:06:37.326362 32310 layer_factory.hpp:77] Creating layer inception_4b/3x3
I0915 12:06:37.326378 32310 net.cpp:91] Creating Layer inception_4b/3x3
I0915 12:06:37.326383 32310 net.cpp:425] inception_4b/3x3 <- inception_4b/3x3_reduce
I0915 12:06:37.326393 32310 net.cpp:399] inception_4b/3x3 -> inception_4b/3x3
I0915 12:06:37.330410 32310 net.cpp:141] Setting up inception_4b/3x3
I0915 12:06:37.330440 32310 net.cpp:148] Top shape: 10 224 14 14 (439040)
I0915 12:06:37.330445 32310 net.cpp:156] Memory required for data: 395637760
I0915 12:06:37.330452 32310 layer_factory.hpp:77] Creating layer inception_4b/relu_3x3
I0915 12:06:37.330461 32310 net.cpp:91] Creating Layer inception_4b/relu_3x3
I0915 12:06:37.330466 32310 net.cpp:425] inception_4b/relu_3x3 <- inception_4b/3x3
I0915 12:06:37.330477 32310 net.cpp:386] inception_4b/relu_3x3 -> inception_4b/3x3 (in-place)
I0915 12:06:37.330889 32310 net.cpp:141] Setting up inception_4b/relu_3x3
I0915 12:06:37.330901 32310 net.cpp:148] Top shape: 10 224 14 14 (439040)
I0915 12:06:37.330906 32310 net.cpp:156] Memory required for data: 397393920
I0915 12:06:37.330911 32310 layer_factory.hpp:77] Creating layer inception_4b/5x5_reduce
I0915 12:06:37.330937 32310 net.cpp:91] Creating Layer inception_4b/5x5_reduce
I0915 12:06:37.330943 32310 net.cpp:425] inception_4b/5x5_reduce <- inception_4a/output_inception_4a/output_0_split_2
I0915 12:06:37.330955 32310 net.cpp:399] inception_4b/5x5_reduce -> inception_4b/5x5_reduce
I0915 12:06:37.332273 32310 net.cpp:141] Setting up inception_4b/5x5_reduce
I0915 12:06:37.332301 32310 net.cpp:148] Top shape: 10 24 14 14 (47040)
I0915 12:06:37.332307 32310 net.cpp:156] Memory required for data: 397582080
I0915 12:06:37.332316 32310 layer_factory.hpp:77] Creating layer inception_4b/relu_5x5_reduce
I0915 12:06:37.332325 32310 net.cpp:91] Creating Layer inception_4b/relu_5x5_reduce
I0915 12:06:37.332330 32310 net.cpp:425] inception_4b/relu_5x5_reduce <- inception_4b/5x5_reduce
I0915 12:06:37.332340 32310 net.cpp:386] inception_4b/relu_5x5_reduce -> inception_4b/5x5_reduce (in-place)
I0915 12:06:37.332765 32310 net.cpp:141] Setting up inception_4b/relu_5x5_reduce
I0915 12:06:37.332777 32310 net.cpp:148] Top shape: 10 24 14 14 (47040)
I0915 12:06:37.332782 32310 net.cpp:156] Memory required for data: 397770240
I0915 12:06:37.332787 32310 layer_factory.hpp:77] Creating layer inception_4b/5x5
I0915 12:06:37.332801 32310 net.cpp:91] Creating Layer inception_4b/5x5
I0915 12:06:37.332808 32310 net.cpp:425] inception_4b/5x5 <- inception_4b/5x5_reduce
I0915 12:06:37.332833 32310 net.cpp:399] inception_4b/5x5 -> inception_4b/5x5
I0915 12:06:37.335141 32310 net.cpp:141] Setting up inception_4b/5x5
I0915 12:06:37.335157 32310 net.cpp:148] Top shape: 10 64 14 14 (125440)
I0915 12:06:37.335162 32310 net.cpp:156] Memory required for data: 398272000
I0915 12:06:37.335170 32310 layer_factory.hpp:77] Creating layer inception_4b/relu_5x5
I0915 12:06:37.335182 32310 net.cpp:91] Creating Layer inception_4b/relu_5x5
I0915 12:06:37.335187 32310 net.cpp:425] inception_4b/relu_5x5 <- inception_4b/5x5
I0915 12:06:37.335194 32310 net.cpp:386] inception_4b/relu_5x5 -> inception_4b/5x5 (in-place)
I0915 12:06:37.335450 32310 net.cpp:141] Setting up inception_4b/relu_5x5
I0915 12:06:37.335463 32310 net.cpp:148] Top shape: 10 64 14 14 (125440)
I0915 12:06:37.335466 32310 net.cpp:156] Memory required for data: 398773760
I0915 12:06:37.335471 32310 layer_factory.hpp:77] Creating layer inception_4b/pool
I0915 12:06:37.335481 32310 net.cpp:91] Creating Layer inception_4b/pool
I0915 12:06:37.335486 32310 net.cpp:425] inception_4b/pool <- inception_4a/output_inception_4a/output_0_split_3
I0915 12:06:37.335497 32310 net.cpp:399] inception_4b/pool -> inception_4b/pool
I0915 12:06:37.335559 32310 net.cpp:141] Setting up inception_4b/pool
I0915 12:06:37.335568 32310 net.cpp:148] Top shape: 10 512 14 14 (1003520)
I0915 12:06:37.335572 32310 net.cpp:156] Memory required for data: 402787840
I0915 12:06:37.335577 32310 layer_factory.hpp:77] Creating layer inception_4b/pool_proj
I0915 12:06:37.335594 32310 net.cpp:91] Creating Layer inception_4b/pool_proj
I0915 12:06:37.335600 32310 net.cpp:425] inception_4b/pool_proj <- inception_4b/pool
I0915 12:06:37.335608 32310 net.cpp:399] inception_4b/pool_proj -> inception_4b/pool_proj
I0915 12:06:37.337378 32310 net.cpp:141] Setting up inception_4b/pool_proj
I0915 12:06:37.337395 32310 net.cpp:148] Top shape: 10 64 14 14 (125440)
I0915 12:06:37.337399 32310 net.cpp:156] Memory required for data: 403289600
I0915 12:06:37.337407 32310 layer_factory.hpp:77] Creating layer inception_4b/relu_pool_proj
I0915 12:06:37.337419 32310 net.cpp:91] Creating Layer inception_4b/relu_pool_proj
I0915 12:06:37.337424 32310 net.cpp:425] inception_4b/relu_pool_proj <- inception_4b/pool_proj
I0915 12:06:37.337430 32310 net.cpp:386] inception_4b/relu_pool_proj -> inception_4b/pool_proj (in-place)
I0915 12:06:37.337859 32310 net.cpp:141] Setting up inception_4b/relu_pool_proj
I0915 12:06:37.337872 32310 net.cpp:148] Top shape: 10 64 14 14 (125440)
I0915 12:06:37.337877 32310 net.cpp:156] Memory required for data: 403791360
I0915 12:06:37.337882 32310 layer_factory.hpp:77] Creating layer inception_4b/output
I0915 12:06:37.337891 32310 net.cpp:91] Creating Layer inception_4b/output
I0915 12:06:37.337896 32310 net.cpp:425] inception_4b/output <- inception_4b/1x1
I0915 12:06:37.337903 32310 net.cpp:425] inception_4b/output <- inception_4b/3x3
I0915 12:06:37.337908 32310 net.cpp:425] inception_4b/output <- inception_4b/5x5
I0915 12:06:37.337913 32310 net.cpp:425] inception_4b/output <- inception_4b/pool_proj
I0915 12:06:37.337918 32310 net.cpp:399] inception_4b/output -> inception_4b/output
I0915 12:06:37.337971 32310 net.cpp:141] Setting up inception_4b/output
I0915 12:06:37.337980 32310 net.cpp:148] Top shape: 10 512 14 14 (1003520)
I0915 12:06:37.337985 32310 net.cpp:156] Memory required for data: 407805440
I0915 12:06:37.337988 32310 layer_factory.hpp:77] Creating layer inception_4b/output_inception_4b/output_0_split
I0915 12:06:37.337997 32310 net.cpp:91] Creating Layer inception_4b/output_inception_4b/output_0_split
I0915 12:06:37.338002 32310 net.cpp:425] inception_4b/output_inception_4b/output_0_split <- inception_4b/output
I0915 12:06:37.338011 32310 net.cpp:399] inception_4b/output_inception_4b/output_0_split -> inception_4b/output_inception_4b/output_0_split_0
I0915 12:06:37.338018 32310 net.cpp:399] inception_4b/output_inception_4b/output_0_split -> inception_4b/output_inception_4b/output_0_split_1
I0915 12:06:37.338027 32310 net.cpp:399] inception_4b/output_inception_4b/output_0_split -> inception_4b/output_inception_4b/output_0_split_2
I0915 12:06:37.338033 32310 net.cpp:399] inception_4b/output_inception_4b/output_0_split -> inception_4b/output_inception_4b/output_0_split_3
I0915 12:06:37.338116 32310 net.cpp:141] Setting up inception_4b/output_inception_4b/output_0_split
I0915 12:06:37.338126 32310 net.cpp:148] Top shape: 10 512 14 14 (1003520)
I0915 12:06:37.338132 32310 net.cpp:148] Top shape: 10 512 14 14 (1003520)
I0915 12:06:37.338137 32310 net.cpp:148] Top shape: 10 512 14 14 (1003520)
I0915 12:06:37.338142 32310 net.cpp:148] Top shape: 10 512 14 14 (1003520)
I0915 12:06:37.338145 32310 net.cpp:156] Memory required for data: 423861760
I0915 12:06:37.338150 32310 layer_factory.hpp:77] Creating layer inception_4c/1x1
I0915 12:06:37.338165 32310 net.cpp:91] Creating Layer inception_4c/1x1
I0915 12:06:37.338171 32310 net.cpp:425] inception_4c/1x1 <- inception_4b/output_inception_4b/output_0_split_0
I0915 12:06:37.338177 32310 net.cpp:399] inception_4c/1x1 -> inception_4c/1x1
I0915 12:06:37.339866 32310 net.cpp:141] Setting up inception_4c/1x1
I0915 12:06:37.339882 32310 net.cpp:148] Top shape: 10 128 14 14 (250880)
I0915 12:06:37.339886 32310 net.cpp:156] Memory required for data: 424865280
I0915 12:06:37.339895 32310 layer_factory.hpp:77] Creating layer inception_4c/relu_1x1
I0915 12:06:37.339902 32310 net.cpp:91] Creating Layer inception_4c/relu_1x1
I0915 12:06:37.339907 32310 net.cpp:425] inception_4c/relu_1x1 <- inception_4c/1x1
I0915 12:06:37.339916 32310 net.cpp:386] inception_4c/relu_1x1 -> inception_4c/1x1 (in-place)
I0915 12:06:37.340337 32310 net.cpp:141] Setting up inception_4c/relu_1x1
I0915 12:06:37.340349 32310 net.cpp:148] Top shape: 10 128 14 14 (250880)
I0915 12:06:37.340353 32310 net.cpp:156] Memory required for data: 425868800
I0915 12:06:37.340358 32310 layer_factory.hpp:77] Creating layer inception_4c/3x3_reduce
I0915 12:06:37.340373 32310 net.cpp:91] Creating Layer inception_4c/3x3_reduce
I0915 12:06:37.340379 32310 net.cpp:425] inception_4c/3x3_reduce <- inception_4b/output_inception_4b/output_0_split_1
I0915 12:06:37.340392 32310 net.cpp:399] inception_4c/3x3_reduce -> inception_4c/3x3_reduce
I0915 12:06:37.342234 32310 net.cpp:141] Setting up inception_4c/3x3_reduce
I0915 12:06:37.342267 32310 net.cpp:148] Top shape: 10 128 14 14 (250880)
I0915 12:06:37.342272 32310 net.cpp:156] Memory required for data: 426872320
I0915 12:06:37.342279 32310 layer_factory.hpp:77] Creating layer inception_4c/relu_3x3_reduce
I0915 12:06:37.342288 32310 net.cpp:91] Creating Layer inception_4c/relu_3x3_reduce
I0915 12:06:37.342293 32310 net.cpp:425] inception_4c/relu_3x3_reduce <- inception_4c/3x3_reduce
I0915 12:06:37.342299 32310 net.cpp:386] inception_4c/relu_3x3_reduce -> inception_4c/3x3_reduce (in-place)
I0915 12:06:37.342542 32310 net.cpp:141] Setting up inception_4c/relu_3x3_reduce
I0915 12:06:37.342553 32310 net.cpp:148] Top shape: 10 128 14 14 (250880)
I0915 12:06:37.342557 32310 net.cpp:156] Memory required for data: 427875840
I0915 12:06:37.342561 32310 layer_factory.hpp:77] Creating layer inception_4c/3x3
I0915 12:06:37.342576 32310 net.cpp:91] Creating Layer inception_4c/3x3
I0915 12:06:37.342581 32310 net.cpp:425] inception_4c/3x3 <- inception_4c/3x3_reduce
I0915 12:06:37.342592 32310 net.cpp:399] inception_4c/3x3 -> inception_4c/3x3
I0915 12:06:37.346812 32310 net.cpp:141] Setting up inception_4c/3x3
I0915 12:06:37.346828 32310 net.cpp:148] Top shape: 10 256 14 14 (501760)
I0915 12:06:37.346833 32310 net.cpp:156] Memory required for data: 429882880
I0915 12:06:37.346842 32310 layer_factory.hpp:77] Creating layer inception_4c/relu_3x3
I0915 12:06:37.346853 32310 net.cpp:91] Creating Layer inception_4c/relu_3x3
I0915 12:06:37.346858 32310 net.cpp:425] inception_4c/relu_3x3 <- inception_4c/3x3
I0915 12:06:37.346865 32310 net.cpp:386] inception_4c/relu_3x3 -> inception_4c/3x3 (in-place)
I0915 12:06:37.347257 32310 net.cpp:141] Setting up inception_4c/relu_3x3
I0915 12:06:37.347270 32310 net.cpp:148] Top shape: 10 256 14 14 (501760)
I0915 12:06:37.347273 32310 net.cpp:156] Memory required for data: 431889920
I0915 12:06:37.347278 32310 layer_factory.hpp:77] Creating layer inception_4c/5x5_reduce
I0915 12:06:37.347304 32310 net.cpp:91] Creating Layer inception_4c/5x5_reduce
I0915 12:06:37.347309 32310 net.cpp:425] inception_4c/5x5_reduce <- inception_4b/output_inception_4b/output_0_split_2
I0915 12:06:37.347317 32310 net.cpp:399] inception_4c/5x5_reduce -> inception_4c/5x5_reduce
I0915 12:06:37.348671 32310 net.cpp:141] Setting up inception_4c/5x5_reduce
I0915 12:06:37.348701 32310 net.cpp:148] Top shape: 10 24 14 14 (47040)
I0915 12:06:37.348706 32310 net.cpp:156] Memory required for data: 432078080
I0915 12:06:37.348716 32310 layer_factory.hpp:77] Creating layer inception_4c/relu_5x5_reduce
I0915 12:06:37.348723 32310 net.cpp:91] Creating Layer inception_4c/relu_5x5_reduce
I0915 12:06:37.348728 32310 net.cpp:425] inception_4c/relu_5x5_reduce <- inception_4c/5x5_reduce
I0915 12:06:37.348737 32310 net.cpp:386] inception_4c/relu_5x5_reduce -> inception_4c/5x5_reduce (in-place)
I0915 12:06:37.349159 32310 net.cpp:141] Setting up inception_4c/relu_5x5_reduce
I0915 12:06:37.349171 32310 net.cpp:148] Top shape: 10 24 14 14 (47040)
I0915 12:06:37.349176 32310 net.cpp:156] Memory required for data: 432266240
I0915 12:06:37.349181 32310 layer_factory.hpp:77] Creating layer inception_4c/5x5
I0915 12:06:37.349198 32310 net.cpp:91] Creating Layer inception_4c/5x5
I0915 12:06:37.349208 32310 net.cpp:425] inception_4c/5x5 <- inception_4c/5x5_reduce
I0915 12:06:37.349226 32310 net.cpp:399] inception_4c/5x5 -> inception_4c/5x5
I0915 12:06:37.351235 32310 net.cpp:141] Setting up inception_4c/5x5
I0915 12:06:37.351264 32310 net.cpp:148] Top shape: 10 64 14 14 (125440)
I0915 12:06:37.351269 32310 net.cpp:156] Memory required for data: 432768000
I0915 12:06:37.351279 32310 layer_factory.hpp:77] Creating layer inception_4c/relu_5x5
I0915 12:06:37.351286 32310 net.cpp:91] Creating Layer inception_4c/relu_5x5
I0915 12:06:37.351291 32310 net.cpp:425] inception_4c/relu_5x5 <- inception_4c/5x5
I0915 12:06:37.351302 32310 net.cpp:386] inception_4c/relu_5x5 -> inception_4c/5x5 (in-place)
I0915 12:06:37.351531 32310 net.cpp:141] Setting up inception_4c/relu_5x5
I0915 12:06:37.351543 32310 net.cpp:148] Top shape: 10 64 14 14 (125440)
I0915 12:06:37.351547 32310 net.cpp:156] Memory required for data: 433269760
I0915 12:06:37.351552 32310 layer_factory.hpp:77] Creating layer inception_4c/pool
I0915 12:06:37.351562 32310 net.cpp:91] Creating Layer inception_4c/pool
I0915 12:06:37.351567 32310 net.cpp:425] inception_4c/pool <- inception_4b/output_inception_4b/output_0_split_3
I0915 12:06:37.351573 32310 net.cpp:399] inception_4c/pool -> inception_4c/pool
I0915 12:06:37.351640 32310 net.cpp:141] Setting up inception_4c/pool
I0915 12:06:37.351650 32310 net.cpp:148] Top shape: 10 512 14 14 (1003520)
I0915 12:06:37.351655 32310 net.cpp:156] Memory required for data: 437283840
I0915 12:06:37.351658 32310 layer_factory.hpp:77] Creating layer inception_4c/pool_proj
I0915 12:06:37.351673 32310 net.cpp:91] Creating Layer inception_4c/pool_proj
I0915 12:06:37.351680 32310 net.cpp:425] inception_4c/pool_proj <- inception_4c/pool
I0915 12:06:37.351689 32310 net.cpp:399] inception_4c/pool_proj -> inception_4c/pool_proj
I0915 12:06:37.354082 32310 net.cpp:141] Setting up inception_4c/pool_proj
I0915 12:06:37.354099 32310 net.cpp:148] Top shape: 10 64 14 14 (125440)
I0915 12:06:37.354104 32310 net.cpp:156] Memory required for data: 437785600
I0915 12:06:37.354133 32310 layer_factory.hpp:77] Creating layer inception_4c/relu_pool_proj
I0915 12:06:37.354145 32310 net.cpp:91] Creating Layer inception_4c/relu_pool_proj
I0915 12:06:37.354151 32310 net.cpp:425] inception_4c/relu_pool_proj <- inception_4c/pool_proj
I0915 12:06:37.354156 32310 net.cpp:386] inception_4c/relu_pool_proj -> inception_4c/pool_proj (in-place)
I0915 12:06:37.354558 32310 net.cpp:141] Setting up inception_4c/relu_pool_proj
I0915 12:06:37.354570 32310 net.cpp:148] Top shape: 10 64 14 14 (125440)
I0915 12:06:37.354574 32310 net.cpp:156] Memory required for data: 438287360
I0915 12:06:37.354579 32310 layer_factory.hpp:77] Creating layer inception_4c/output
I0915 12:06:37.354590 32310 net.cpp:91] Creating Layer inception_4c/output
I0915 12:06:37.354595 32310 net.cpp:425] inception_4c/output <- inception_4c/1x1
I0915 12:06:37.354601 32310 net.cpp:425] inception_4c/output <- inception_4c/3x3
I0915 12:06:37.354607 32310 net.cpp:425] inception_4c/output <- inception_4c/5x5
I0915 12:06:37.354612 32310 net.cpp:425] inception_4c/output <- inception_4c/pool_proj
I0915 12:06:37.354619 32310 net.cpp:399] inception_4c/output -> inception_4c/output
I0915 12:06:37.354660 32310 net.cpp:141] Setting up inception_4c/output
I0915 12:06:37.354668 32310 net.cpp:148] Top shape: 10 512 14 14 (1003520)
I0915 12:06:37.354672 32310 net.cpp:156] Memory required for data: 442301440
I0915 12:06:37.354677 32310 layer_factory.hpp:77] Creating layer inception_4c/output_inception_4c/output_0_split
I0915 12:06:37.354689 32310 net.cpp:91] Creating Layer inception_4c/output_inception_4c/output_0_split
I0915 12:06:37.354694 32310 net.cpp:425] inception_4c/output_inception_4c/output_0_split <- inception_4c/output
I0915 12:06:37.354702 32310 net.cpp:399] inception_4c/output_inception_4c/output_0_split -> inception_4c/output_inception_4c/output_0_split_0
I0915 12:06:37.354712 32310 net.cpp:399] inception_4c/output_inception_4c/output_0_split -> inception_4c/output_inception_4c/output_0_split_1
I0915 12:06:37.354719 32310 net.cpp:399] inception_4c/output_inception_4c/output_0_split -> inception_4c/output_inception_4c/output_0_split_2
I0915 12:06:37.354727 32310 net.cpp:399] inception_4c/output_inception_4c/output_0_split -> inception_4c/output_inception_4c/output_0_split_3
I0915 12:06:37.354813 32310 net.cpp:141] Setting up inception_4c/output_inception_4c/output_0_split
I0915 12:06:37.354832 32310 net.cpp:148] Top shape: 10 512 14 14 (1003520)
I0915 12:06:37.354838 32310 net.cpp:148] Top shape: 10 512 14 14 (1003520)
I0915 12:06:37.354843 32310 net.cpp:148] Top shape: 10 512 14 14 (1003520)
I0915 12:06:37.354848 32310 net.cpp:148] Top shape: 10 512 14 14 (1003520)
I0915 12:06:37.354852 32310 net.cpp:156] Memory required for data: 458357760
I0915 12:06:37.354856 32310 layer_factory.hpp:77] Creating layer inception_4d/1x1
I0915 12:06:37.354867 32310 net.cpp:91] Creating Layer inception_4d/1x1
I0915 12:06:37.354872 32310 net.cpp:425] inception_4d/1x1 <- inception_4c/output_inception_4c/output_0_split_0
I0915 12:06:37.354883 32310 net.cpp:399] inception_4d/1x1 -> inception_4d/1x1
I0915 12:06:37.356586 32310 net.cpp:141] Setting up inception_4d/1x1
I0915 12:06:37.356618 32310 net.cpp:148] Top shape: 10 112 14 14 (219520)
I0915 12:06:37.356624 32310 net.cpp:156] Memory required for data: 459235840
I0915 12:06:37.356632 32310 layer_factory.hpp:77] Creating layer inception_4d/relu_1x1
I0915 12:06:37.356642 32310 net.cpp:91] Creating Layer inception_4d/relu_1x1
I0915 12:06:37.356647 32310 net.cpp:425] inception_4d/relu_1x1 <- inception_4d/1x1
I0915 12:06:37.356652 32310 net.cpp:386] inception_4d/relu_1x1 -> inception_4d/1x1 (in-place)
I0915 12:06:37.357059 32310 net.cpp:141] Setting up inception_4d/relu_1x1
I0915 12:06:37.357071 32310 net.cpp:148] Top shape: 10 112 14 14 (219520)
I0915 12:06:37.357076 32310 net.cpp:156] Memory required for data: 460113920
I0915 12:06:37.357081 32310 layer_factory.hpp:77] Creating layer inception_4d/3x3_reduce
I0915 12:06:37.357096 32310 net.cpp:91] Creating Layer inception_4d/3x3_reduce
I0915 12:06:37.357102 32310 net.cpp:425] inception_4d/3x3_reduce <- inception_4c/output_inception_4c/output_0_split_1
I0915 12:06:37.357110 32310 net.cpp:399] inception_4d/3x3_reduce -> inception_4d/3x3_reduce
I0915 12:06:37.359146 32310 net.cpp:141] Setting up inception_4d/3x3_reduce
I0915 12:06:37.359163 32310 net.cpp:148] Top shape: 10 144 14 14 (282240)
I0915 12:06:37.359167 32310 net.cpp:156] Memory required for data: 461242880
I0915 12:06:37.359175 32310 layer_factory.hpp:77] Creating layer inception_4d/relu_3x3_reduce
I0915 12:06:37.359186 32310 net.cpp:91] Creating Layer inception_4d/relu_3x3_reduce
I0915 12:06:37.359192 32310 net.cpp:425] inception_4d/relu_3x3_reduce <- inception_4d/3x3_reduce
I0915 12:06:37.359199 32310 net.cpp:386] inception_4d/relu_3x3_reduce -> inception_4d/3x3_reduce (in-place)
I0915 12:06:37.359443 32310 net.cpp:141] Setting up inception_4d/relu_3x3_reduce
I0915 12:06:37.359454 32310 net.cpp:148] Top shape: 10 144 14 14 (282240)
I0915 12:06:37.359458 32310 net.cpp:156] Memory required for data: 462371840
I0915 12:06:37.359463 32310 layer_factory.hpp:77] Creating layer inception_4d/3x3
I0915 12:06:37.359478 32310 net.cpp:91] Creating Layer inception_4d/3x3
I0915 12:06:37.359484 32310 net.cpp:425] inception_4d/3x3 <- inception_4d/3x3_reduce
I0915 12:06:37.359494 32310 net.cpp:399] inception_4d/3x3 -> inception_4d/3x3
I0915 12:06:37.364473 32310 net.cpp:141] Setting up inception_4d/3x3
I0915 12:06:37.364491 32310 net.cpp:148] Top shape: 10 288 14 14 (564480)
I0915 12:06:37.364496 32310 net.cpp:156] Memory required for data: 464629760
I0915 12:06:37.364504 32310 layer_factory.hpp:77] Creating layer inception_4d/relu_3x3
I0915 12:06:37.364524 32310 net.cpp:91] Creating Layer inception_4d/relu_3x3
I0915 12:06:37.364531 32310 net.cpp:425] inception_4d/relu_3x3 <- inception_4d/3x3
I0915 12:06:37.364537 32310 net.cpp:386] inception_4d/relu_3x3 -> inception_4d/3x3 (in-place)
I0915 12:06:37.364979 32310 net.cpp:141] Setting up inception_4d/relu_3x3
I0915 12:06:37.364991 32310 net.cpp:148] Top shape: 10 288 14 14 (564480)
I0915 12:06:37.364995 32310 net.cpp:156] Memory required for data: 466887680
I0915 12:06:37.365000 32310 layer_factory.hpp:77] Creating layer inception_4d/5x5_reduce
I0915 12:06:37.365017 32310 net.cpp:91] Creating Layer inception_4d/5x5_reduce
I0915 12:06:37.365022 32310 net.cpp:425] inception_4d/5x5_reduce <- inception_4c/output_inception_4c/output_0_split_2
I0915 12:06:37.365034 32310 net.cpp:399] inception_4d/5x5_reduce -> inception_4d/5x5_reduce
I0915 12:06:37.366420 32310 net.cpp:141] Setting up inception_4d/5x5_reduce
I0915 12:06:37.366437 32310 net.cpp:148] Top shape: 10 32 14 14 (62720)
I0915 12:06:37.366442 32310 net.cpp:156] Memory required for data: 467138560
I0915 12:06:37.366451 32310 layer_factory.hpp:77] Creating layer inception_4d/relu_5x5_reduce
I0915 12:06:37.366457 32310 net.cpp:91] Creating Layer inception_4d/relu_5x5_reduce
I0915 12:06:37.366463 32310 net.cpp:425] inception_4d/relu_5x5_reduce <- inception_4d/5x5_reduce
I0915 12:06:37.366469 32310 net.cpp:386] inception_4d/relu_5x5_reduce -> inception_4d/5x5_reduce (in-place)
I0915 12:06:37.366859 32310 net.cpp:141] Setting up inception_4d/relu_5x5_reduce
I0915 12:06:37.366871 32310 net.cpp:148] Top shape: 10 32 14 14 (62720)
I0915 12:06:37.366875 32310 net.cpp:156] Memory required for data: 467389440
I0915 12:06:37.366880 32310 layer_factory.hpp:77] Creating layer inception_4d/5x5
I0915 12:06:37.366895 32310 net.cpp:91] Creating Layer inception_4d/5x5
I0915 12:06:37.366915 32310 net.cpp:425] inception_4d/5x5 <- inception_4d/5x5_reduce
I0915 12:06:37.366926 32310 net.cpp:399] inception_4d/5x5 -> inception_4d/5x5
I0915 12:06:37.368758 32310 net.cpp:141] Setting up inception_4d/5x5
I0915 12:06:37.368775 32310 net.cpp:148] Top shape: 10 64 14 14 (125440)
I0915 12:06:37.368780 32310 net.cpp:156] Memory required for data: 467891200
I0915 12:06:37.368788 32310 layer_factory.hpp:77] Creating layer inception_4d/relu_5x5
I0915 12:06:37.368795 32310 net.cpp:91] Creating Layer inception_4d/relu_5x5
I0915 12:06:37.368801 32310 net.cpp:425] inception_4d/relu_5x5 <- inception_4d/5x5
I0915 12:06:37.368811 32310 net.cpp:386] inception_4d/relu_5x5 -> inception_4d/5x5 (in-place)
I0915 12:06:37.369038 32310 net.cpp:141] Setting up inception_4d/relu_5x5
I0915 12:06:37.369051 32310 net.cpp:148] Top shape: 10 64 14 14 (125440)
I0915 12:06:37.369055 32310 net.cpp:156] Memory required for data: 468392960
I0915 12:06:37.369060 32310 layer_factory.hpp:77] Creating layer inception_4d/pool
I0915 12:06:37.369068 32310 net.cpp:91] Creating Layer inception_4d/pool
I0915 12:06:37.369073 32310 net.cpp:425] inception_4d/pool <- inception_4c/output_inception_4c/output_0_split_3
I0915 12:06:37.369081 32310 net.cpp:399] inception_4d/pool -> inception_4d/pool
I0915 12:06:37.369159 32310 net.cpp:141] Setting up inception_4d/pool
I0915 12:06:37.369169 32310 net.cpp:148] Top shape: 10 512 14 14 (1003520)
I0915 12:06:37.369174 32310 net.cpp:156] Memory required for data: 472407040
I0915 12:06:37.369177 32310 layer_factory.hpp:77] Creating layer inception_4d/pool_proj
I0915 12:06:37.369192 32310 net.cpp:91] Creating Layer inception_4d/pool_proj
I0915 12:06:37.369199 32310 net.cpp:425] inception_4d/pool_proj <- inception_4d/pool
I0915 12:06:37.369209 32310 net.cpp:399] inception_4d/pool_proj -> inception_4d/pool_proj
I0915 12:06:37.370939 32310 net.cpp:141] Setting up inception_4d/pool_proj
I0915 12:06:37.370956 32310 net.cpp:148] Top shape: 10 64 14 14 (125440)
I0915 12:06:37.370961 32310 net.cpp:156] Memory required for data: 472908800
I0915 12:06:37.370970 32310 layer_factory.hpp:77] Creating layer inception_4d/relu_pool_proj
I0915 12:06:37.370990 32310 net.cpp:91] Creating Layer inception_4d/relu_pool_proj
I0915 12:06:37.370996 32310 net.cpp:425] inception_4d/relu_pool_proj <- inception_4d/pool_proj
I0915 12:06:37.371003 32310 net.cpp:386] inception_4d/relu_pool_proj -> inception_4d/pool_proj (in-place)
I0915 12:06:37.371417 32310 net.cpp:141] Setting up inception_4d/relu_pool_proj
I0915 12:06:37.371429 32310 net.cpp:148] Top shape: 10 64 14 14 (125440)
I0915 12:06:37.371434 32310 net.cpp:156] Memory required for data: 473410560
I0915 12:06:37.371439 32310 layer_factory.hpp:77] Creating layer inception_4d/output
I0915 12:06:37.371450 32310 net.cpp:91] Creating Layer inception_4d/output
I0915 12:06:37.371456 32310 net.cpp:425] inception_4d/output <- inception_4d/1x1
I0915 12:06:37.371462 32310 net.cpp:425] inception_4d/output <- inception_4d/3x3
I0915 12:06:37.371467 32310 net.cpp:425] inception_4d/output <- inception_4d/5x5
I0915 12:06:37.371474 32310 net.cpp:425] inception_4d/output <- inception_4d/pool_proj
I0915 12:06:37.371479 32310 net.cpp:399] inception_4d/output -> inception_4d/output
I0915 12:06:37.371525 32310 net.cpp:141] Setting up inception_4d/output
I0915 12:06:37.371533 32310 net.cpp:148] Top shape: 10 528 14 14 (1034880)
I0915 12:06:37.371537 32310 net.cpp:156] Memory required for data: 477550080
I0915 12:06:37.371541 32310 layer_factory.hpp:77] Creating layer inception_4d/output_inception_4d/output_0_split
I0915 12:06:37.371549 32310 net.cpp:91] Creating Layer inception_4d/output_inception_4d/output_0_split
I0915 12:06:37.371554 32310 net.cpp:425] inception_4d/output_inception_4d/output_0_split <- inception_4d/output
I0915 12:06:37.371565 32310 net.cpp:399] inception_4d/output_inception_4d/output_0_split -> inception_4d/output_inception_4d/output_0_split_0
I0915 12:06:37.371574 32310 net.cpp:399] inception_4d/output_inception_4d/output_0_split -> inception_4d/output_inception_4d/output_0_split_1
I0915 12:06:37.371582 32310 net.cpp:399] inception_4d/output_inception_4d/output_0_split -> inception_4d/output_inception_4d/output_0_split_2
I0915 12:06:37.371589 32310 net.cpp:399] inception_4d/output_inception_4d/output_0_split -> inception_4d/output_inception_4d/output_0_split_3
I0915 12:06:37.371685 32310 net.cpp:141] Setting up inception_4d/output_inception_4d/output_0_split
I0915 12:06:37.371693 32310 net.cpp:148] Top shape: 10 528 14 14 (1034880)
I0915 12:06:37.371698 32310 net.cpp:148] Top shape: 10 528 14 14 (1034880)
I0915 12:06:37.371703 32310 net.cpp:148] Top shape: 10 528 14 14 (1034880)
I0915 12:06:37.371708 32310 net.cpp:148] Top shape: 10 528 14 14 (1034880)
I0915 12:06:37.371712 32310 net.cpp:156] Memory required for data: 494108160
I0915 12:06:37.371716 32310 layer_factory.hpp:77] Creating layer inception_4e/1x1
I0915 12:06:37.371731 32310 net.cpp:91] Creating Layer inception_4e/1x1
I0915 12:06:37.371737 32310 net.cpp:425] inception_4e/1x1 <- inception_4d/output_inception_4d/output_0_split_0
I0915 12:06:37.371747 32310 net.cpp:399] inception_4e/1x1 -> inception_4e/1x1
I0915 12:06:37.375011 32310 net.cpp:141] Setting up inception_4e/1x1
I0915 12:06:37.375041 32310 net.cpp:148] Top shape: 10 256 14 14 (501760)
I0915 12:06:37.375047 32310 net.cpp:156] Memory required for data: 496115200
I0915 12:06:37.375056 32310 layer_factory.hpp:77] Creating layer inception_4e/relu_1x1
I0915 12:06:37.375068 32310 net.cpp:91] Creating Layer inception_4e/relu_1x1
I0915 12:06:37.375074 32310 net.cpp:425] inception_4e/relu_1x1 <- inception_4e/1x1
I0915 12:06:37.375082 32310 net.cpp:386] inception_4e/relu_1x1 -> inception_4e/1x1 (in-place)
I0915 12:06:37.375494 32310 net.cpp:141] Setting up inception_4e/relu_1x1
I0915 12:06:37.375505 32310 net.cpp:148] Top shape: 10 256 14 14 (501760)
I0915 12:06:37.375509 32310 net.cpp:156] Memory required for data: 498122240
I0915 12:06:37.375514 32310 layer_factory.hpp:77] Creating layer inception_4e/3x3_reduce
I0915 12:06:37.375532 32310 net.cpp:91] Creating Layer inception_4e/3x3_reduce
I0915 12:06:37.375540 32310 net.cpp:425] inception_4e/3x3_reduce <- inception_4d/output_inception_4d/output_0_split_1
I0915 12:06:37.375547 32310 net.cpp:399] inception_4e/3x3_reduce -> inception_4e/3x3_reduce
I0915 12:06:37.377655 32310 net.cpp:141] Setting up inception_4e/3x3_reduce
I0915 12:06:37.377673 32310 net.cpp:148] Top shape: 10 160 14 14 (313600)
I0915 12:06:37.377677 32310 net.cpp:156] Memory required for data: 499376640
I0915 12:06:37.377686 32310 layer_factory.hpp:77] Creating layer inception_4e/relu_3x3_reduce
I0915 12:06:37.377694 32310 net.cpp:91] Creating Layer inception_4e/relu_3x3_reduce
I0915 12:06:37.377699 32310 net.cpp:425] inception_4e/relu_3x3_reduce <- inception_4e/3x3_reduce
I0915 12:06:37.377708 32310 net.cpp:386] inception_4e/relu_3x3_reduce -> inception_4e/3x3_reduce (in-place)
I0915 12:06:37.377951 32310 net.cpp:141] Setting up inception_4e/relu_3x3_reduce
I0915 12:06:37.377962 32310 net.cpp:148] Top shape: 10 160 14 14 (313600)
I0915 12:06:37.377966 32310 net.cpp:156] Memory required for data: 500631040
I0915 12:06:37.377971 32310 layer_factory.hpp:77] Creating layer inception_4e/3x3
I0915 12:06:37.377988 32310 net.cpp:91] Creating Layer inception_4e/3x3
I0915 12:06:37.377995 32310 net.cpp:425] inception_4e/3x3 <- inception_4e/3x3_reduce
I0915 12:06:37.378002 32310 net.cpp:399] inception_4e/3x3 -> inception_4e/3x3
I0915 12:06:37.383915 32310 net.cpp:141] Setting up inception_4e/3x3
I0915 12:06:37.383944 32310 net.cpp:148] Top shape: 10 320 14 14 (627200)
I0915 12:06:37.383950 32310 net.cpp:156] Memory required for data: 503139840
I0915 12:06:37.383960 32310 layer_factory.hpp:77] Creating layer inception_4e/relu_3x3
I0915 12:06:37.383967 32310 net.cpp:91] Creating Layer inception_4e/relu_3x3
I0915 12:06:37.383973 32310 net.cpp:425] inception_4e/relu_3x3 <- inception_4e/3x3
I0915 12:06:37.383983 32310 net.cpp:386] inception_4e/relu_3x3 -> inception_4e/3x3 (in-place)
I0915 12:06:37.384420 32310 net.cpp:141] Setting up inception_4e/relu_3x3
I0915 12:06:37.384433 32310 net.cpp:148] Top shape: 10 320 14 14 (627200)
I0915 12:06:37.384438 32310 net.cpp:156] Memory required for data: 505648640
I0915 12:06:37.384441 32310 layer_factory.hpp:77] Creating layer inception_4e/5x5_reduce
I0915 12:06:37.384459 32310 net.cpp:91] Creating Layer inception_4e/5x5_reduce
I0915 12:06:37.384465 32310 net.cpp:425] inception_4e/5x5_reduce <- inception_4d/output_inception_4d/output_0_split_2
I0915 12:06:37.384474 32310 net.cpp:399] inception_4e/5x5_reduce -> inception_4e/5x5_reduce
I0915 12:06:37.385951 32310 net.cpp:141] Setting up inception_4e/5x5_reduce
I0915 12:06:37.385982 32310 net.cpp:148] Top shape: 10 32 14 14 (62720)
I0915 12:06:37.385988 32310 net.cpp:156] Memory required for data: 505899520
I0915 12:06:37.385996 32310 layer_factory.hpp:77] Creating layer inception_4e/relu_5x5_reduce
I0915 12:06:37.386008 32310 net.cpp:91] Creating Layer inception_4e/relu_5x5_reduce
I0915 12:06:37.386015 32310 net.cpp:425] inception_4e/relu_5x5_reduce <- inception_4e/5x5_reduce
I0915 12:06:37.386021 32310 net.cpp:386] inception_4e/relu_5x5_reduce -> inception_4e/5x5_reduce (in-place)
I0915 12:06:37.386441 32310 net.cpp:141] Setting up inception_4e/relu_5x5_reduce
I0915 12:06:37.386456 32310 net.cpp:148] Top shape: 10 32 14 14 (62720)
I0915 12:06:37.386461 32310 net.cpp:156] Memory required for data: 506150400
I0915 12:06:37.386466 32310 layer_factory.hpp:77] Creating layer inception_4e/5x5
I0915 12:06:37.386482 32310 net.cpp:91] Creating Layer inception_4e/5x5
I0915 12:06:37.386487 32310 net.cpp:425] inception_4e/5x5 <- inception_4e/5x5_reduce
I0915 12:06:37.386495 32310 net.cpp:399] inception_4e/5x5 -> inception_4e/5x5
I0915 12:06:37.389459 32310 net.cpp:141] Setting up inception_4e/5x5
I0915 12:06:37.389489 32310 net.cpp:148] Top shape: 10 128 14 14 (250880)
I0915 12:06:37.389495 32310 net.cpp:156] Memory required for data: 507153920
I0915 12:06:37.389503 32310 layer_factory.hpp:77] Creating layer inception_4e/relu_5x5
I0915 12:06:37.389514 32310 net.cpp:91] Creating Layer inception_4e/relu_5x5
I0915 12:06:37.389520 32310 net.cpp:425] inception_4e/relu_5x5 <- inception_4e/5x5
I0915 12:06:37.389528 32310 net.cpp:386] inception_4e/relu_5x5 -> inception_4e/5x5 (in-place)
I0915 12:06:37.389772 32310 net.cpp:141] Setting up inception_4e/relu_5x5
I0915 12:06:37.389783 32310 net.cpp:148] Top shape: 10 128 14 14 (250880)
I0915 12:06:37.389787 32310 net.cpp:156] Memory required for data: 508157440
I0915 12:06:37.389792 32310 layer_factory.hpp:77] Creating layer inception_4e/pool
I0915 12:06:37.389802 32310 net.cpp:91] Creating Layer inception_4e/pool
I0915 12:06:37.389807 32310 net.cpp:425] inception_4e/pool <- inception_4d/output_inception_4d/output_0_split_3
I0915 12:06:37.389817 32310 net.cpp:399] inception_4e/pool -> inception_4e/pool
I0915 12:06:37.389885 32310 net.cpp:141] Setting up inception_4e/pool
I0915 12:06:37.389896 32310 net.cpp:148] Top shape: 10 528 14 14 (1034880)
I0915 12:06:37.389900 32310 net.cpp:156] Memory required for data: 512296960
I0915 12:06:37.389905 32310 layer_factory.hpp:77] Creating layer inception_4e/pool_proj
I0915 12:06:37.389917 32310 net.cpp:91] Creating Layer inception_4e/pool_proj
I0915 12:06:37.389924 32310 net.cpp:425] inception_4e/pool_proj <- inception_4e/pool
I0915 12:06:37.389933 32310 net.cpp:399] inception_4e/pool_proj -> inception_4e/pool_proj
I0915 12:06:37.391923 32310 net.cpp:141] Setting up inception_4e/pool_proj
I0915 12:06:37.391940 32310 net.cpp:148] Top shape: 10 128 14 14 (250880)
I0915 12:06:37.391945 32310 net.cpp:156] Memory required for data: 513300480
I0915 12:06:37.391953 32310 layer_factory.hpp:77] Creating layer inception_4e/relu_pool_proj
I0915 12:06:37.391962 32310 net.cpp:91] Creating Layer inception_4e/relu_pool_proj
I0915 12:06:37.391968 32310 net.cpp:425] inception_4e/relu_pool_proj <- inception_4e/pool_proj
I0915 12:06:37.391978 32310 net.cpp:386] inception_4e/relu_pool_proj -> inception_4e/pool_proj (in-place)
I0915 12:06:37.392535 32310 net.cpp:141] Setting up inception_4e/relu_pool_proj
I0915 12:06:37.392554 32310 net.cpp:148] Top shape: 10 128 14 14 (250880)
I0915 12:06:37.392562 32310 net.cpp:156] Memory required for data: 514304000
I0915 12:06:37.392570 32310 layer_factory.hpp:77] Creating layer inception_4e/output
I0915 12:06:37.392588 32310 net.cpp:91] Creating Layer inception_4e/output
I0915 12:06:37.392598 32310 net.cpp:425] inception_4e/output <- inception_4e/1x1
I0915 12:06:37.392609 32310 net.cpp:425] inception_4e/output <- inception_4e/3x3
I0915 12:06:37.392619 32310 net.cpp:425] inception_4e/output <- inception_4e/5x5
I0915 12:06:37.392628 32310 net.cpp:425] inception_4e/output <- inception_4e/pool_proj
I0915 12:06:37.392639 32310 net.cpp:399] inception_4e/output -> inception_4e/output
I0915 12:06:37.392707 32310 net.cpp:141] Setting up inception_4e/output
I0915 12:06:37.392724 32310 net.cpp:148] Top shape: 10 832 14 14 (1630720)
I0915 12:06:37.392732 32310 net.cpp:156] Memory required for data: 520826880
I0915 12:06:37.392740 32310 layer_factory.hpp:77] Creating layer pool4/3x3_s2
I0915 12:06:37.392753 32310 net.cpp:91] Creating Layer pool4/3x3_s2
I0915 12:06:37.392763 32310 net.cpp:425] pool4/3x3_s2 <- inception_4e/output
I0915 12:06:37.392782 32310 net.cpp:399] pool4/3x3_s2 -> pool4/3x3_s2
I0915 12:06:37.392856 32310 net.cpp:141] Setting up pool4/3x3_s2
I0915 12:06:37.392866 32310 net.cpp:148] Top shape: 10 832 7 7 (407680)
I0915 12:06:37.392870 32310 net.cpp:156] Memory required for data: 522457600
I0915 12:06:37.392875 32310 layer_factory.hpp:77] Creating layer pool4/3x3_s2_pool4/3x3_s2_0_split
I0915 12:06:37.392889 32310 net.cpp:91] Creating Layer pool4/3x3_s2_pool4/3x3_s2_0_split
I0915 12:06:37.392894 32310 net.cpp:425] pool4/3x3_s2_pool4/3x3_s2_0_split <- pool4/3x3_s2
I0915 12:06:37.392900 32310 net.cpp:399] pool4/3x3_s2_pool4/3x3_s2_0_split -> pool4/3x3_s2_pool4/3x3_s2_0_split_0
I0915 12:06:37.392910 32310 net.cpp:399] pool4/3x3_s2_pool4/3x3_s2_0_split -> pool4/3x3_s2_pool4/3x3_s2_0_split_1
I0915 12:06:37.392917 32310 net.cpp:399] pool4/3x3_s2_pool4/3x3_s2_0_split -> pool4/3x3_s2_pool4/3x3_s2_0_split_2
I0915 12:06:37.392925 32310 net.cpp:399] pool4/3x3_s2_pool4/3x3_s2_0_split -> pool4/3x3_s2_pool4/3x3_s2_0_split_3
I0915 12:06:37.393018 32310 net.cpp:141] Setting up pool4/3x3_s2_pool4/3x3_s2_0_split
I0915 12:06:37.393028 32310 net.cpp:148] Top shape: 10 832 7 7 (407680)
I0915 12:06:37.393033 32310 net.cpp:148] Top shape: 10 832 7 7 (407680)
I0915 12:06:37.393038 32310 net.cpp:148] Top shape: 10 832 7 7 (407680)
I0915 12:06:37.393043 32310 net.cpp:148] Top shape: 10 832 7 7 (407680)
I0915 12:06:37.393048 32310 net.cpp:156] Memory required for data: 528980480
I0915 12:06:37.393054 32310 layer_factory.hpp:77] Creating layer inception_5a/1x1
I0915 12:06:37.393074 32310 net.cpp:91] Creating Layer inception_5a/1x1
I0915 12:06:37.393082 32310 net.cpp:425] inception_5a/1x1 <- pool4/3x3_s2_pool4/3x3_s2_0_split_0
I0915 12:06:37.393095 32310 net.cpp:399] inception_5a/1x1 -> inception_5a/1x1
I0915 12:06:37.396785 32310 net.cpp:141] Setting up inception_5a/1x1
I0915 12:06:37.396806 32310 net.cpp:148] Top shape: 10 256 7 7 (125440)
I0915 12:06:37.396811 32310 net.cpp:156] Memory required for data: 529482240
I0915 12:06:37.396819 32310 layer_factory.hpp:77] Creating layer inception_5a/relu_1x1
I0915 12:06:37.396836 32310 net.cpp:91] Creating Layer inception_5a/relu_1x1
I0915 12:06:37.396842 32310 net.cpp:425] inception_5a/relu_1x1 <- inception_5a/1x1
I0915 12:06:37.396852 32310 net.cpp:386] inception_5a/relu_1x1 -> inception_5a/1x1 (in-place)
I0915 12:06:37.397275 32310 net.cpp:141] Setting up inception_5a/relu_1x1
I0915 12:06:37.397287 32310 net.cpp:148] Top shape: 10 256 7 7 (125440)
I0915 12:06:37.397291 32310 net.cpp:156] Memory required for data: 529984000
I0915 12:06:37.397296 32310 layer_factory.hpp:77] Creating layer inception_5a/3x3_reduce
I0915 12:06:37.397313 32310 net.cpp:91] Creating Layer inception_5a/3x3_reduce
I0915 12:06:37.397321 32310 net.cpp:425] inception_5a/3x3_reduce <- pool4/3x3_s2_pool4/3x3_s2_0_split_1
I0915 12:06:37.397330 32310 net.cpp:399] inception_5a/3x3_reduce -> inception_5a/3x3_reduce
I0915 12:06:37.400557 32310 net.cpp:141] Setting up inception_5a/3x3_reduce
I0915 12:06:37.400575 32310 net.cpp:148] Top shape: 10 160 7 7 (78400)
I0915 12:06:37.400580 32310 net.cpp:156] Memory required for data: 530297600
I0915 12:06:37.400590 32310 layer_factory.hpp:77] Creating layer inception_5a/relu_3x3_reduce
I0915 12:06:37.400599 32310 net.cpp:91] Creating Layer inception_5a/relu_3x3_reduce
I0915 12:06:37.400605 32310 net.cpp:425] inception_5a/relu_3x3_reduce <- inception_5a/3x3_reduce
I0915 12:06:37.400612 32310 net.cpp:386] inception_5a/relu_3x3_reduce -> inception_5a/3x3_reduce (in-place)
I0915 12:06:37.400861 32310 net.cpp:141] Setting up inception_5a/relu_3x3_reduce
I0915 12:06:37.400871 32310 net.cpp:148] Top shape: 10 160 7 7 (78400)
I0915 12:06:37.400876 32310 net.cpp:156] Memory required for data: 530611200
I0915 12:06:37.400881 32310 layer_factory.hpp:77] Creating layer inception_5a/3x3
I0915 12:06:37.400895 32310 net.cpp:91] Creating Layer inception_5a/3x3
I0915 12:06:37.400902 32310 net.cpp:425] inception_5a/3x3 <- inception_5a/3x3_reduce
I0915 12:06:37.400915 32310 net.cpp:399] inception_5a/3x3 -> inception_5a/3x3
I0915 12:06:37.407879 32310 net.cpp:141] Setting up inception_5a/3x3
I0915 12:06:37.407925 32310 net.cpp:148] Top shape: 10 320 7 7 (156800)
I0915 12:06:37.407930 32310 net.cpp:156] Memory required for data: 531238400
I0915 12:06:37.407944 32310 layer_factory.hpp:77] Creating layer inception_5a/relu_3x3
I0915 12:06:37.407974 32310 net.cpp:91] Creating Layer inception_5a/relu_3x3
I0915 12:06:37.407982 32310 net.cpp:425] inception_5a/relu_3x3 <- inception_5a/3x3
I0915 12:06:37.407992 32310 net.cpp:386] inception_5a/relu_3x3 -> inception_5a/3x3 (in-place)
I0915 12:06:37.408442 32310 net.cpp:141] Setting up inception_5a/relu_3x3
I0915 12:06:37.408455 32310 net.cpp:148] Top shape: 10 320 7 7 (156800)
I0915 12:06:37.408459 32310 net.cpp:156] Memory required for data: 531865600
I0915 12:06:37.408464 32310 layer_factory.hpp:77] Creating layer inception_5a/5x5_reduce
I0915 12:06:37.408490 32310 net.cpp:91] Creating Layer inception_5a/5x5_reduce
I0915 12:06:37.408498 32310 net.cpp:425] inception_5a/5x5_reduce <- pool4/3x3_s2_pool4/3x3_s2_0_split_2
I0915 12:06:37.408506 32310 net.cpp:399] inception_5a/5x5_reduce -> inception_5a/5x5_reduce
I0915 12:06:37.410840 32310 net.cpp:141] Setting up inception_5a/5x5_reduce
I0915 12:06:37.410863 32310 net.cpp:148] Top shape: 10 32 7 7 (15680)
I0915 12:06:37.410872 32310 net.cpp:156] Memory required for data: 531928320
I0915 12:06:37.410888 32310 layer_factory.hpp:77] Creating layer inception_5a/relu_5x5_reduce
I0915 12:06:37.410917 32310 net.cpp:91] Creating Layer inception_5a/relu_5x5_reduce
I0915 12:06:37.410928 32310 net.cpp:425] inception_5a/relu_5x5_reduce <- inception_5a/5x5_reduce
I0915 12:06:37.410939 32310 net.cpp:386] inception_5a/relu_5x5_reduce -> inception_5a/5x5_reduce (in-place)
I0915 12:06:37.411561 32310 net.cpp:141] Setting up inception_5a/relu_5x5_reduce
I0915 12:06:37.411581 32310 net.cpp:148] Top shape: 10 32 7 7 (15680)
I0915 12:06:37.411587 32310 net.cpp:156] Memory required for data: 531991040
I0915 12:06:37.411597 32310 layer_factory.hpp:77] Creating layer inception_5a/5x5
I0915 12:06:37.411624 32310 net.cpp:91] Creating Layer inception_5a/5x5
I0915 12:06:37.411636 32310 net.cpp:425] inception_5a/5x5 <- inception_5a/5x5_reduce
I0915 12:06:37.411653 32310 net.cpp:399] inception_5a/5x5 -> inception_5a/5x5
I0915 12:06:37.415161 32310 net.cpp:141] Setting up inception_5a/5x5
I0915 12:06:37.415189 32310 net.cpp:148] Top shape: 10 128 7 7 (62720)
I0915 12:06:37.415197 32310 net.cpp:156] Memory required for data: 532241920
I0915 12:06:37.415215 32310 layer_factory.hpp:77] Creating layer inception_5a/relu_5x5
I0915 12:06:37.415271 32310 net.cpp:91] Creating Layer inception_5a/relu_5x5
I0915 12:06:37.415283 32310 net.cpp:425] inception_5a/relu_5x5 <- inception_5a/5x5
I0915 12:06:37.415295 32310 net.cpp:386] inception_5a/relu_5x5 -> inception_5a/5x5 (in-place)
I0915 12:06:37.415657 32310 net.cpp:141] Setting up inception_5a/relu_5x5
I0915 12:06:37.415673 32310 net.cpp:148] Top shape: 10 128 7 7 (62720)
I0915 12:06:37.415680 32310 net.cpp:156] Memory required for data: 532492800
I0915 12:06:37.415689 32310 layer_factory.hpp:77] Creating layer inception_5a/pool
I0915 12:06:37.415704 32310 net.cpp:91] Creating Layer inception_5a/pool
I0915 12:06:37.415714 32310 net.cpp:425] inception_5a/pool <- pool4/3x3_s2_pool4/3x3_s2_0_split_3
I0915 12:06:37.415730 32310 net.cpp:399] inception_5a/pool -> inception_5a/pool
I0915 12:06:37.415840 32310 net.cpp:141] Setting up inception_5a/pool
I0915 12:06:37.415854 32310 net.cpp:148] Top shape: 10 832 7 7 (407680)
I0915 12:06:37.415860 32310 net.cpp:156] Memory required for data: 534123520
I0915 12:06:37.415868 32310 layer_factory.hpp:77] Creating layer inception_5a/pool_proj
I0915 12:06:37.415891 32310 net.cpp:91] Creating Layer inception_5a/pool_proj
I0915 12:06:37.415901 32310 net.cpp:425] inception_5a/pool_proj <- inception_5a/pool
I0915 12:06:37.415915 32310 net.cpp:399] inception_5a/pool_proj -> inception_5a/pool_proj
I0915 12:06:37.419227 32310 net.cpp:141] Setting up inception_5a/pool_proj
I0915 12:06:37.419246 32310 net.cpp:148] Top shape: 10 128 7 7 (62720)
I0915 12:06:37.419251 32310 net.cpp:156] Memory required for data: 534374400
I0915 12:06:37.419260 32310 layer_factory.hpp:77] Creating layer inception_5a/relu_pool_proj
I0915 12:06:37.419270 32310 net.cpp:91] Creating Layer inception_5a/relu_pool_proj
I0915 12:06:37.419275 32310 net.cpp:425] inception_5a/relu_pool_proj <- inception_5a/pool_proj
I0915 12:06:37.419286 32310 net.cpp:386] inception_5a/relu_pool_proj -> inception_5a/pool_proj (in-place)
I0915 12:06:37.419719 32310 net.cpp:141] Setting up inception_5a/relu_pool_proj
I0915 12:06:37.419731 32310 net.cpp:148] Top shape: 10 128 7 7 (62720)
I0915 12:06:37.419736 32310 net.cpp:156] Memory required for data: 534625280
I0915 12:06:37.419741 32310 layer_factory.hpp:77] Creating layer inception_5a/output
I0915 12:06:37.419750 32310 net.cpp:91] Creating Layer inception_5a/output
I0915 12:06:37.419756 32310 net.cpp:425] inception_5a/output <- inception_5a/1x1
I0915 12:06:37.419762 32310 net.cpp:425] inception_5a/output <- inception_5a/3x3
I0915 12:06:37.419767 32310 net.cpp:425] inception_5a/output <- inception_5a/5x5
I0915 12:06:37.419772 32310 net.cpp:425] inception_5a/output <- inception_5a/pool_proj
I0915 12:06:37.419782 32310 net.cpp:399] inception_5a/output -> inception_5a/output
I0915 12:06:37.419832 32310 net.cpp:141] Setting up inception_5a/output
I0915 12:06:37.419842 32310 net.cpp:148] Top shape: 10 832 7 7 (407680)
I0915 12:06:37.419847 32310 net.cpp:156] Memory required for data: 536256000
I0915 12:06:37.419850 32310 layer_factory.hpp:77] Creating layer inception_5a/output_inception_5a/output_0_split
I0915 12:06:37.419860 32310 net.cpp:91] Creating Layer inception_5a/output_inception_5a/output_0_split
I0915 12:06:37.419865 32310 net.cpp:425] inception_5a/output_inception_5a/output_0_split <- inception_5a/output
I0915 12:06:37.419872 32310 net.cpp:399] inception_5a/output_inception_5a/output_0_split -> inception_5a/output_inception_5a/output_0_split_0
I0915 12:06:37.419883 32310 net.cpp:399] inception_5a/output_inception_5a/output_0_split -> inception_5a/output_inception_5a/output_0_split_1
I0915 12:06:37.419893 32310 net.cpp:399] inception_5a/output_inception_5a/output_0_split -> inception_5a/output_inception_5a/output_0_split_2
I0915 12:06:37.419899 32310 net.cpp:399] inception_5a/output_inception_5a/output_0_split -> inception_5a/output_inception_5a/output_0_split_3
I0915 12:06:37.420002 32310 net.cpp:141] Setting up inception_5a/output_inception_5a/output_0_split
I0915 12:06:37.420011 32310 net.cpp:148] Top shape: 10 832 7 7 (407680)
I0915 12:06:37.420017 32310 net.cpp:148] Top shape: 10 832 7 7 (407680)
I0915 12:06:37.420022 32310 net.cpp:148] Top shape: 10 832 7 7 (407680)
I0915 12:06:37.420027 32310 net.cpp:148] Top shape: 10 832 7 7 (407680)
I0915 12:06:37.420032 32310 net.cpp:156] Memory required for data: 542778880
I0915 12:06:37.420035 32310 layer_factory.hpp:77] Creating layer inception_5b/1x1
I0915 12:06:37.420052 32310 net.cpp:91] Creating Layer inception_5b/1x1
I0915 12:06:37.420058 32310 net.cpp:425] inception_5b/1x1 <- inception_5a/output_inception_5a/output_0_split_0
I0915 12:06:37.420065 32310 net.cpp:399] inception_5b/1x1 -> inception_5b/1x1
I0915 12:06:37.424612 32310 net.cpp:141] Setting up inception_5b/1x1
I0915 12:06:37.424631 32310 net.cpp:148] Top shape: 10 384 7 7 (188160)
I0915 12:06:37.424636 32310 net.cpp:156] Memory required for data: 543531520
I0915 12:06:37.424645 32310 layer_factory.hpp:77] Creating layer inception_5b/relu_1x1
I0915 12:06:37.424656 32310 net.cpp:91] Creating Layer inception_5b/relu_1x1
I0915 12:06:37.424662 32310 net.cpp:425] inception_5b/relu_1x1 <- inception_5b/1x1
I0915 12:06:37.424669 32310 net.cpp:386] inception_5b/relu_1x1 -> inception_5b/1x1 (in-place)
I0915 12:06:37.425097 32310 net.cpp:141] Setting up inception_5b/relu_1x1
I0915 12:06:37.425109 32310 net.cpp:148] Top shape: 10 384 7 7 (188160)
I0915 12:06:37.425114 32310 net.cpp:156] Memory required for data: 544284160
I0915 12:06:37.425119 32310 layer_factory.hpp:77] Creating layer inception_5b/3x3_reduce
I0915 12:06:37.425134 32310 net.cpp:91] Creating Layer inception_5b/3x3_reduce
I0915 12:06:37.425140 32310 net.cpp:425] inception_5b/3x3_reduce <- inception_5a/output_inception_5a/output_0_split_1
I0915 12:06:37.425153 32310 net.cpp:399] inception_5b/3x3_reduce -> inception_5b/3x3_reduce
I0915 12:06:37.428598 32310 net.cpp:141] Setting up inception_5b/3x3_reduce
I0915 12:06:37.428616 32310 net.cpp:148] Top shape: 10 192 7 7 (94080)
I0915 12:06:37.428620 32310 net.cpp:156] Memory required for data: 544660480
I0915 12:06:37.428629 32310 layer_factory.hpp:77] Creating layer inception_5b/relu_3x3_reduce
I0915 12:06:37.428640 32310 net.cpp:91] Creating Layer inception_5b/relu_3x3_reduce
I0915 12:06:37.428647 32310 net.cpp:425] inception_5b/relu_3x3_reduce <- inception_5b/3x3_reduce
I0915 12:06:37.428653 32310 net.cpp:386] inception_5b/relu_3x3_reduce -> inception_5b/3x3_reduce (in-place)
I0915 12:06:37.428899 32310 net.cpp:141] Setting up inception_5b/relu_3x3_reduce
I0915 12:06:37.428910 32310 net.cpp:148] Top shape: 10 192 7 7 (94080)
I0915 12:06:37.428915 32310 net.cpp:156] Memory required for data: 545036800
I0915 12:06:37.428918 32310 layer_factory.hpp:77] Creating layer inception_5b/3x3
I0915 12:06:37.428936 32310 net.cpp:91] Creating Layer inception_5b/3x3
I0915 12:06:37.428942 32310 net.cpp:425] inception_5b/3x3 <- inception_5b/3x3_reduce
I0915 12:06:37.428951 32310 net.cpp:399] inception_5b/3x3 -> inception_5b/3x3
I0915 12:06:37.436803 32310 net.cpp:141] Setting up inception_5b/3x3
I0915 12:06:37.436826 32310 net.cpp:148] Top shape: 10 384 7 7 (188160)
I0915 12:06:37.436831 32310 net.cpp:156] Memory required for data: 545789440
I0915 12:06:37.436841 32310 layer_factory.hpp:77] Creating layer inception_5b/relu_3x3
I0915 12:06:37.436853 32310 net.cpp:91] Creating Layer inception_5b/relu_3x3
I0915 12:06:37.436861 32310 net.cpp:425] inception_5b/relu_3x3 <- inception_5b/3x3
I0915 12:06:37.436875 32310 net.cpp:386] inception_5b/relu_3x3 -> inception_5b/3x3 (in-place)
I0915 12:06:37.437302 32310 net.cpp:141] Setting up inception_5b/relu_3x3
I0915 12:06:37.437314 32310 net.cpp:148] Top shape: 10 384 7 7 (188160)
I0915 12:06:37.437319 32310 net.cpp:156] Memory required for data: 546542080
I0915 12:06:37.437325 32310 layer_factory.hpp:77] Creating layer inception_5b/5x5_reduce
I0915 12:06:37.437342 32310 net.cpp:91] Creating Layer inception_5b/5x5_reduce
I0915 12:06:37.437348 32310 net.cpp:425] inception_5b/5x5_reduce <- inception_5a/output_inception_5a/output_0_split_2
I0915 12:06:37.437357 32310 net.cpp:399] inception_5b/5x5_reduce -> inception_5b/5x5_reduce
I0915 12:06:37.439069 32310 net.cpp:141] Setting up inception_5b/5x5_reduce
I0915 12:06:37.439085 32310 net.cpp:148] Top shape: 10 48 7 7 (23520)
I0915 12:06:37.439090 32310 net.cpp:156] Memory required for data: 546636160
I0915 12:06:37.439098 32310 layer_factory.hpp:77] Creating layer inception_5b/relu_5x5_reduce
I0915 12:06:37.439107 32310 net.cpp:91] Creating Layer inception_5b/relu_5x5_reduce
I0915 12:06:37.439113 32310 net.cpp:425] inception_5b/relu_5x5_reduce <- inception_5b/5x5_reduce
I0915 12:06:37.439123 32310 net.cpp:386] inception_5b/relu_5x5_reduce -> inception_5b/5x5_reduce (in-place)
I0915 12:06:37.439558 32310 net.cpp:141] Setting up inception_5b/relu_5x5_reduce
I0915 12:06:37.439574 32310 net.cpp:148] Top shape: 10 48 7 7 (23520)
I0915 12:06:37.439579 32310 net.cpp:156] Memory required for data: 546730240
I0915 12:06:37.439584 32310 layer_factory.hpp:77] Creating layer inception_5b/5x5
I0915 12:06:37.439602 32310 net.cpp:91] Creating Layer inception_5b/5x5
I0915 12:06:37.439609 32310 net.cpp:425] inception_5b/5x5 <- inception_5b/5x5_reduce
I0915 12:06:37.439620 32310 net.cpp:399] inception_5b/5x5 -> inception_5b/5x5
I0915 12:06:37.442642 32310 net.cpp:141] Setting up inception_5b/5x5
I0915 12:06:37.442659 32310 net.cpp:148] Top shape: 10 128 7 7 (62720)
I0915 12:06:37.442664 32310 net.cpp:156] Memory required for data: 546981120
I0915 12:06:37.442672 32310 layer_factory.hpp:77] Creating layer inception_5b/relu_5x5
I0915 12:06:37.442682 32310 net.cpp:91] Creating Layer inception_5b/relu_5x5
I0915 12:06:37.442687 32310 net.cpp:425] inception_5b/relu_5x5 <- inception_5b/5x5
I0915 12:06:37.442697 32310 net.cpp:386] inception_5b/relu_5x5 -> inception_5b/5x5 (in-place)
I0915 12:06:37.442939 32310 net.cpp:141] Setting up inception_5b/relu_5x5
I0915 12:06:37.442950 32310 net.cpp:148] Top shape: 10 128 7 7 (62720)
I0915 12:06:37.442955 32310 net.cpp:156] Memory required for data: 547232000
I0915 12:06:37.442960 32310 layer_factory.hpp:77] Creating layer inception_5b/pool
I0915 12:06:37.442975 32310 net.cpp:91] Creating Layer inception_5b/pool
I0915 12:06:37.442981 32310 net.cpp:425] inception_5b/pool <- inception_5a/output_inception_5a/output_0_split_3
I0915 12:06:37.442987 32310 net.cpp:399] inception_5b/pool -> inception_5b/pool
I0915 12:06:37.443065 32310 net.cpp:141] Setting up inception_5b/pool
I0915 12:06:37.443075 32310 net.cpp:148] Top shape: 10 832 7 7 (407680)
I0915 12:06:37.443079 32310 net.cpp:156] Memory required for data: 548862720
I0915 12:06:37.443084 32310 layer_factory.hpp:77] Creating layer inception_5b/pool_proj
I0915 12:06:37.443099 32310 net.cpp:91] Creating Layer inception_5b/pool_proj
I0915 12:06:37.443104 32310 net.cpp:425] inception_5b/pool_proj <- inception_5b/pool
I0915 12:06:37.443114 32310 net.cpp:399] inception_5b/pool_proj -> inception_5b/pool_proj
I0915 12:06:37.446640 32310 net.cpp:141] Setting up inception_5b/pool_proj
I0915 12:06:37.446658 32310 net.cpp:148] Top shape: 10 128 7 7 (62720)
I0915 12:06:37.446663 32310 net.cpp:156] Memory required for data: 549113600
I0915 12:06:37.446672 32310 layer_factory.hpp:77] Creating layer inception_5b/relu_pool_proj
I0915 12:06:37.446684 32310 net.cpp:91] Creating Layer inception_5b/relu_pool_proj
I0915 12:06:37.446691 32310 net.cpp:425] inception_5b/relu_pool_proj <- inception_5b/pool_proj
I0915 12:06:37.446698 32310 net.cpp:386] inception_5b/relu_pool_proj -> inception_5b/pool_proj (in-place)
I0915 12:06:37.447131 32310 net.cpp:141] Setting up inception_5b/relu_pool_proj
I0915 12:06:37.447147 32310 net.cpp:148] Top shape: 10 128 7 7 (62720)
I0915 12:06:37.447152 32310 net.cpp:156] Memory required for data: 549364480
I0915 12:06:37.447157 32310 layer_factory.hpp:77] Creating layer inception_5b/output
I0915 12:06:37.447170 32310 net.cpp:91] Creating Layer inception_5b/output
I0915 12:06:37.447176 32310 net.cpp:425] inception_5b/output <- inception_5b/1x1
I0915 12:06:37.447182 32310 net.cpp:425] inception_5b/output <- inception_5b/3x3
I0915 12:06:37.447187 32310 net.cpp:425] inception_5b/output <- inception_5b/5x5
I0915 12:06:37.447192 32310 net.cpp:425] inception_5b/output <- inception_5b/pool_proj
I0915 12:06:37.447198 32310 net.cpp:399] inception_5b/output -> inception_5b/output
I0915 12:06:37.447252 32310 net.cpp:141] Setting up inception_5b/output
I0915 12:06:37.447260 32310 net.cpp:148] Top shape: 10 1024 7 7 (501760)
I0915 12:06:37.447264 32310 net.cpp:156] Memory required for data: 551371520
I0915 12:06:37.447269 32310 layer_factory.hpp:77] Creating layer pool5/7x7_s1
I0915 12:06:37.447278 32310 net.cpp:91] Creating Layer pool5/7x7_s1
I0915 12:06:37.447283 32310 net.cpp:425] pool5/7x7_s1 <- inception_5b/output
I0915 12:06:37.447293 32310 net.cpp:399] pool5/7x7_s1 -> pool5/7x7_s1
I0915 12:06:37.447620 32310 net.cpp:141] Setting up pool5/7x7_s1
I0915 12:06:37.447633 32310 net.cpp:148] Top shape: 10 1024 1 1 (10240)
I0915 12:06:37.447638 32310 net.cpp:156] Memory required for data: 551412480
I0915 12:06:37.447643 32310 layer_factory.hpp:77] Creating layer pool5/drop_7x7_s1
I0915 12:06:37.447662 32310 net.cpp:91] Creating Layer pool5/drop_7x7_s1
I0915 12:06:37.447669 32310 net.cpp:425] pool5/drop_7x7_s1 <- pool5/7x7_s1
I0915 12:06:37.447676 32310 net.cpp:386] pool5/drop_7x7_s1 -> pool5/7x7_s1 (in-place)
I0915 12:06:37.447726 32310 net.cpp:141] Setting up pool5/drop_7x7_s1
I0915 12:06:37.447734 32310 net.cpp:148] Top shape: 10 1024 1 1 (10240)
I0915 12:06:37.447738 32310 net.cpp:156] Memory required for data: 551453440
I0915 12:06:37.447742 32310 layer_factory.hpp:77] Creating layer loss3/classifier
I0915 12:06:37.447765 32310 net.cpp:91] Creating Layer loss3/classifier
I0915 12:06:37.447772 32310 net.cpp:425] loss3/classifier <- pool5/7x7_s1
I0915 12:06:37.447782 32310 net.cpp:399] loss3/classifier -> loss3/classifier
I0915 12:06:37.457623 32310 net.cpp:141] Setting up loss3/classifier
I0915 12:06:37.457643 32310 net.cpp:148] Top shape: 10 1000 (10000)
I0915 12:06:37.457648 32310 net.cpp:156] Memory required for data: 551493440
I0915 12:06:37.457656 32310 layer_factory.hpp:77] Creating layer prob
I0915 12:06:37.457667 32310 net.cpp:91] Creating Layer prob
I0915 12:06:37.457674 32310 net.cpp:425] prob <- loss3/classifier
I0915 12:06:37.457680 32310 net.cpp:399] prob -> prob
I0915 12:06:37.458617 32310 net.cpp:141] Setting up prob
I0915 12:06:37.458636 32310 net.cpp:148] Top shape: 10 1000 (10000)
I0915 12:06:37.458642 32310 net.cpp:156] Memory required for data: 551533440
I0915 12:06:37.458647 32310 net.cpp:219] prob does not need backward computation.
I0915 12:06:37.458652 32310 net.cpp:219] loss3/classifier does not need backward computation.
I0915 12:06:37.458655 32310 net.cpp:219] pool5/drop_7x7_s1 does not need backward computation.
I0915 12:06:37.458660 32310 net.cpp:219] pool5/7x7_s1 does not need backward computation.
…
