…
Java HotSpot(TM) 64-Bit Server VM warning: You have loaded library /tmp/cvld5510660657389539226/libopencv_java310.xine1.so which might have disabled stack guard. The VM will try to fix the stack guard now.
It's highly recommended that you fix the library with 'execstack -c <libfile>', or link it with '-z noexecstack'.
WARNING: Logging before InitGoogleLogging() is written to STDERR
I0730 10:05:43.926498 13995 net.cpp:49] Initializing net from parameters: 
name: "CaffeNet"
state {
  phase: TEST
}
layer {
  name: "data"
  type: "Input"
  top: "data"
  input_param {
    shape {
      dim: 10
      dim: 3
      dim: 227
      dim: 227
    }
  }
}
layer {
  name: "conv1"
  type: "Convolution"
  bottom: "data"
  top: "conv1"
  convolution_param {
    num_output: 96
    kernel_size: 11
    stride: 4
  }
}
layer {
  name: "relu1"
  type: "ReLU"
  bottom: "conv1"
  top: "conv1"
}
layer {
  name: "pool1"
  type: "Pooling"
  bottom: "conv1"
  top: "pool1"
  pooling_param {
    pool: MAX
    kernel_size: 3
    stride: 2
  }
}
layer {
  name: "norm1"
  type: "LRN"
  bottom: "pool1"
  top: "norm1"
  lrn_param {
    local_size: 5
    alpha: 0.0001
    beta: 0.75
  }
}
layer {
  name: "conv2"
  type: "Convolution"
  bottom: "norm1"
  top: "conv2"
  convolution_param {
    num_output: 256
    pad: 2
    kernel_size: 5
    group: 2
  }
}
layer {
  name: "relu2"
  type: "ReLU"
  bottom: "conv2"
  top: "conv2"
}
layer {
  name: "pool2"
  type: "Pooling"
  bottom: "conv2"
  top: "pool2"
  pooling_param {
    pool: MAX
    kernel_size: 3
    stride: 2
  }
}
layer {
  name: "norm2"
  type: "LRN"
  bottom: "pool2"
  top: "norm2"
  lrn_param {
    local_size: 5
    alpha: 0.0001
    beta: 0.75
  }
}
layer {
  name: "conv3"
  type: "Convolution"
  bottom: "norm2"
  top: "conv3"
  convolution_param {
    num_output: 384
    pad: 1
    kernel_size: 3
  }
}
layer {
  name: "relu3"
  type: "ReLU"
  bottom: "conv3"
  top: "conv3"
}
layer {
  name: "conv4"
  type: "Convolution"
  bottom: "conv3"
  top: "conv4"
  convolution_param {
    num_output: 384
    pad: 1
    kernel_size: 3
    group: 2
  }
}
layer {
  name: "relu4"
  type: "ReLU"
  bottom: "conv4"
  top: "conv4"
}
layer {
  name: "conv5"
  type: "Convolution"
  bottom: "conv4"
  top: "conv5"
  convolution_param {
    num_output: 256
    pad: 1
    kernel_size: 3
    group: 2
  }
}
layer {
  name: "relu5"
  type: "ReLU"
  bottom: "conv5"
  top: "conv5"
}
layer {
  name: "pool5"
  type: "Pooling"
  bottom: "conv5"
  top: "pool5"
  pooling_param {
    pool: MAX
    kernel_size: 3
    stride: 2
  }
}
layer {
  name: "fc6"
  type: "InnerProduct"
  bottom: "pool5"
  top: "fc6"
  inner_product_param {
    num_output: 4096
  }
}
layer {
  name: "relu6"
  type: "ReLU"
  bottom: "fc6"
  top: "fc6"
}
layer {
  name: "drop6"
  type: "Dropout"
  bottom: "fc6"
  top: "fc6"
  dropout_param {
    dropout_ratio: 0.5
  }
}
layer {
  name: "fc7"
  type: "InnerProduct"
  bottom: "fc6"
  top: "fc7"
  inner_product_param {
    num_output: 4096
  }
}
layer {
  name: "relu7"
  type: "ReLU"
  bottom: "fc7"
  top: "fc7"
}
layer {
  name: "drop7"
  type: "Dropout"
  bottom: "fc7"
  top: "fc7"
  dropout_param {
    dropout_ratio: 0.5
  }
}
layer {
  name: "fc8"
  type: "InnerProduct"
  bottom: "fc7"
  top: "fc8"
  inner_product_param {
    num_output: 1000
  }
}
layer {
  name: "prob"
  type: "Softmax"
  bottom: "fc8"
  top: "prob"
}
I0730 10:05:43.926748 13995 layer_factory.hpp:77] Creating layer data
I0730 10:05:43.926775 13995 net.cpp:91] Creating Layer data
I0730 10:05:43.926787 13995 net.cpp:399] data -> data
I0730 10:05:44.527959 13995 net.cpp:141] Setting up data
I0730 10:05:44.528059 13995 net.cpp:148] Top shape: 10 3 227 227 (1545870)
I0730 10:05:44.528067 13995 net.cpp:156] Memory required for data: 6183480
I0730 10:05:44.528086 13995 layer_factory.hpp:77] Creating layer conv1
I0730 10:05:44.528116 13995 net.cpp:91] Creating Layer conv1
I0730 10:05:44.528126 13995 net.cpp:425] conv1 <- data
I0730 10:05:44.528141 13995 net.cpp:399] conv1 -> conv1
I0730 10:05:44.768996 13995 net.cpp:141] Setting up conv1
I0730 10:05:44.769049 13995 net.cpp:148] Top shape: 10 96 55 55 (2904000)
I0730 10:05:44.769057 13995 net.cpp:156] Memory required for data: 17799480
I0730 10:05:44.769088 13995 layer_factory.hpp:77] Creating layer relu1
I0730 10:05:44.769105 13995 net.cpp:91] Creating Layer relu1
I0730 10:05:44.769114 13995 net.cpp:425] relu1 <- conv1
I0730 10:05:44.769121 13995 net.cpp:386] relu1 -> conv1 (in-place)
I0730 10:05:44.769914 13995 net.cpp:141] Setting up relu1
I0730 10:05:44.769932 13995 net.cpp:148] Top shape: 10 96 55 55 (2904000)
I0730 10:05:44.769938 13995 net.cpp:156] Memory required for data: 29415480
I0730 10:05:44.769944 13995 layer_factory.hpp:77] Creating layer pool1
I0730 10:05:44.769958 13995 net.cpp:91] Creating Layer pool1
I0730 10:05:44.769963 13995 net.cpp:425] pool1 <- conv1
I0730 10:05:44.769971 13995 net.cpp:399] pool1 -> pool1
I0730 10:05:44.770058 13995 net.cpp:141] Setting up pool1
I0730 10:05:44.770069 13995 net.cpp:148] Top shape: 10 96 27 27 (699840)
I0730 10:05:44.770074 13995 net.cpp:156] Memory required for data: 32214840
I0730 10:05:44.770079 13995 layer_factory.hpp:77] Creating layer norm1
I0730 10:05:44.770100 13995 net.cpp:91] Creating Layer norm1
I0730 10:05:44.770107 13995 net.cpp:425] norm1 <- pool1
I0730 10:05:44.770114 13995 net.cpp:399] norm1 -> norm1
I0730 10:05:44.770978 13995 net.cpp:141] Setting up norm1
I0730 10:05:44.770994 13995 net.cpp:148] Top shape: 10 96 27 27 (699840)
I0730 10:05:44.770999 13995 net.cpp:156] Memory required for data: 35014200
I0730 10:05:44.771005 13995 layer_factory.hpp:77] Creating layer conv2
I0730 10:05:44.771023 13995 net.cpp:91] Creating Layer conv2
I0730 10:05:44.771033 13995 net.cpp:425] conv2 <- norm1
I0730 10:05:44.771040 13995 net.cpp:399] conv2 -> conv2
I0730 10:05:44.777300 13995 net.cpp:141] Setting up conv2
I0730 10:05:44.777331 13995 net.cpp:148] Top shape: 10 256 27 27 (1866240)
I0730 10:05:44.777338 13995 net.cpp:156] Memory required for data: 42479160
I0730 10:05:44.777354 13995 layer_factory.hpp:77] Creating layer relu2
I0730 10:05:44.777366 13995 net.cpp:91] Creating Layer relu2
I0730 10:05:44.777372 13995 net.cpp:425] relu2 <- conv2
I0730 10:05:44.777384 13995 net.cpp:386] relu2 -> conv2 (in-place)
I0730 10:05:44.778224 13995 net.cpp:141] Setting up relu2
I0730 10:05:44.778240 13995 net.cpp:148] Top shape: 10 256 27 27 (1866240)
I0730 10:05:44.778245 13995 net.cpp:156] Memory required for data: 49944120
I0730 10:05:44.778251 13995 layer_factory.hpp:77] Creating layer pool2
I0730 10:05:44.778265 13995 net.cpp:91] Creating Layer pool2
I0730 10:05:44.778271 13995 net.cpp:425] pool2 <- conv2
I0730 10:05:44.778278 13995 net.cpp:399] pool2 -> pool2
I0730 10:05:44.778345 13995 net.cpp:141] Setting up pool2
I0730 10:05:44.778357 13995 net.cpp:148] Top shape: 10 256 13 13 (432640)
I0730 10:05:44.778360 13995 net.cpp:156] Memory required for data: 51674680
I0730 10:05:44.778365 13995 layer_factory.hpp:77] Creating layer norm2
I0730 10:05:44.778379 13995 net.cpp:91] Creating Layer norm2
I0730 10:05:44.778385 13995 net.cpp:425] norm2 <- pool2
I0730 10:05:44.778393 13995 net.cpp:399] norm2 -> norm2
I0730 10:05:44.778681 13995 net.cpp:141] Setting up norm2
I0730 10:05:44.778704 13995 net.cpp:148] Top shape: 10 256 13 13 (432640)
I0730 10:05:44.778710 13995 net.cpp:156] Memory required for data: 53405240
I0730 10:05:44.778715 13995 layer_factory.hpp:77] Creating layer conv3
I0730 10:05:44.778731 13995 net.cpp:91] Creating Layer conv3
I0730 10:05:44.778738 13995 net.cpp:425] conv3 <- norm2
I0730 10:05:44.778745 13995 net.cpp:399] conv3 -> conv3
I0730 10:05:44.784283 13995 net.cpp:141] Setting up conv3
I0730 10:05:44.784314 13995 net.cpp:148] Top shape: 10 384 13 13 (648960)
I0730 10:05:44.784320 13995 net.cpp:156] Memory required for data: 56001080
I0730 10:05:44.784337 13995 layer_factory.hpp:77] Creating layer relu3
I0730 10:05:44.784348 13995 net.cpp:91] Creating Layer relu3
I0730 10:05:44.784354 13995 net.cpp:425] relu3 <- conv3
I0730 10:05:44.784366 13995 net.cpp:386] relu3 -> conv3 (in-place)
I0730 10:05:44.785158 13995 net.cpp:141] Setting up relu3
I0730 10:05:44.785173 13995 net.cpp:148] Top shape: 10 384 13 13 (648960)
I0730 10:05:44.785178 13995 net.cpp:156] Memory required for data: 58596920
I0730 10:05:44.785184 13995 layer_factory.hpp:77] Creating layer conv4
I0730 10:05:44.785202 13995 net.cpp:91] Creating Layer conv4
I0730 10:05:44.785207 13995 net.cpp:425] conv4 <- conv3
I0730 10:05:44.785218 13995 net.cpp:399] conv4 -> conv4
I0730 10:05:44.791090 13995 net.cpp:141] Setting up conv4
I0730 10:05:44.791118 13995 net.cpp:148] Top shape: 10 384 13 13 (648960)
I0730 10:05:44.791126 13995 net.cpp:156] Memory required for data: 61192760
I0730 10:05:44.791136 13995 layer_factory.hpp:77] Creating layer relu4
I0730 10:05:44.791152 13995 net.cpp:91] Creating Layer relu4
I0730 10:05:44.791157 13995 net.cpp:425] relu4 <- conv4
I0730 10:05:44.791165 13995 net.cpp:386] relu4 -> conv4 (in-place)
I0730 10:05:44.791959 13995 net.cpp:141] Setting up relu4
I0730 10:05:44.791976 13995 net.cpp:148] Top shape: 10 384 13 13 (648960)
I0730 10:05:44.791981 13995 net.cpp:156] Memory required for data: 63788600
I0730 10:05:44.791987 13995 layer_factory.hpp:77] Creating layer conv5
I0730 10:05:44.792001 13995 net.cpp:91] Creating Layer conv5
I0730 10:05:44.792006 13995 net.cpp:425] conv5 <- conv4
I0730 10:05:44.792018 13995 net.cpp:399] conv5 -> conv5
I0730 10:05:44.797861 13995 net.cpp:141] Setting up conv5
I0730 10:05:44.797885 13995 net.cpp:148] Top shape: 10 256 13 13 (432640)
I0730 10:05:44.797891 13995 net.cpp:156] Memory required for data: 65519160
I0730 10:05:44.797909 13995 layer_factory.hpp:77] Creating layer relu5
I0730 10:05:44.797920 13995 net.cpp:91] Creating Layer relu5
I0730 10:05:44.797926 13995 net.cpp:425] relu5 <- conv5
I0730 10:05:44.797933 13995 net.cpp:386] relu5 -> conv5 (in-place)
I0730 10:05:44.798728 13995 net.cpp:141] Setting up relu5
I0730 10:05:44.798746 13995 net.cpp:148] Top shape: 10 256 13 13 (432640)
I0730 10:05:44.798753 13995 net.cpp:156] Memory required for data: 67249720
I0730 10:05:44.798758 13995 layer_factory.hpp:77] Creating layer pool5
I0730 10:05:44.798768 13995 net.cpp:91] Creating Layer pool5
I0730 10:05:44.798774 13995 net.cpp:425] pool5 <- conv5
I0730 10:05:44.798781 13995 net.cpp:399] pool5 -> pool5
I0730 10:05:44.798851 13995 net.cpp:141] Setting up pool5
I0730 10:05:44.798861 13995 net.cpp:148] Top shape: 10 256 6 6 (92160)
I0730 10:05:44.798866 13995 net.cpp:156] Memory required for data: 67618360
I0730 10:05:44.798871 13995 layer_factory.hpp:77] Creating layer fc6
I0730 10:05:44.798899 13995 net.cpp:91] Creating Layer fc6
I0730 10:05:44.798905 13995 net.cpp:425] fc6 <- pool5
I0730 10:05:44.798913 13995 net.cpp:399] fc6 -> fc6
I0730 10:05:44.908962 13995 net.cpp:141] Setting up fc6
I0730 10:05:44.909013 13995 net.cpp:148] Top shape: 10 4096 (40960)
I0730 10:05:44.909020 13995 net.cpp:156] Memory required for data: 67782200
I0730 10:05:44.909035 13995 layer_factory.hpp:77] Creating layer relu6
I0730 10:05:44.909050 13995 net.cpp:91] Creating Layer relu6
I0730 10:05:44.909056 13995 net.cpp:425] relu6 <- fc6
I0730 10:05:44.909070 13995 net.cpp:386] relu6 -> fc6 (in-place)
I0730 10:05:44.909415 13995 net.cpp:141] Setting up relu6
I0730 10:05:44.909427 13995 net.cpp:148] Top shape: 10 4096 (40960)
I0730 10:05:44.909435 13995 net.cpp:156] Memory required for data: 67946040
I0730 10:05:44.909440 13995 layer_factory.hpp:77] Creating layer drop6
I0730 10:05:44.909461 13995 net.cpp:91] Creating Layer drop6
I0730 10:05:44.909467 13995 net.cpp:425] drop6 <- fc6
I0730 10:05:44.909474 13995 net.cpp:386] drop6 -> fc6 (in-place)
I0730 10:05:44.909564 13995 net.cpp:141] Setting up drop6
I0730 10:05:44.909574 13995 net.cpp:148] Top shape: 10 4096 (40960)
I0730 10:05:44.909580 13995 net.cpp:156] Memory required for data: 68109880
I0730 10:05:44.909585 13995 layer_factory.hpp:77] Creating layer fc7
I0730 10:05:44.909596 13995 net.cpp:91] Creating Layer fc7
I0730 10:05:44.909601 13995 net.cpp:425] fc7 <- fc6
I0730 10:05:44.909611 13995 net.cpp:399] fc7 -> fc7
I0730 10:05:44.951575 13985 upgrade_proto.cpp:66] Attempting to upgrade input file specified using deprecated input fields: /tmp/cvld5510660657389539226/s2vt.words_to_preds.prototxt
I0730 10:05:44.951643 13985 upgrade_proto.cpp:69] Successfully upgraded file specified using deprecated input fields.
W0730 10:05:44.951653 13985 upgrade_proto.cpp:71] Note that future Caffe releases will only support input layers and not input fields.
I0730 10:05:44.951967 13985 net.cpp:49] Initializing net from parameters: 
name: "s2vt:features_to_lstm"
state {
  phase: TEST
}
layer {
  name: "input"
  type: "Input"
  top: "frames_fc7"
  top: "cont_sentence"
  top: "input_sentence"
  top: "stage_indicator"
  input_param {
    shape {
      dim: 1
      dim: 4096
    }
    shape {
      dim: 1
      dim: 1
    }
    shape {
      dim: 1
      dim: 1
    }
    shape {
      dim: 1
      dim: 1
    }
  }
}
layer {
  name: "embed_encoder"
  type: "InnerProduct"
  bottom: "frames_fc7"
  top: "embedded_in_frames"
  param {
    lr_mult: 1
    decay_mult: 1
  }
  param {
    lr_mult: 2
    decay_mult: 0
  }
  inner_product_param {
    num_output: 500
    weight_filler {
      type: "xavier"
    }
    bias_filler {
      type: "constant"
      value: 0.2
    }
  }
}
layer {
  name: "reshape_frames"
  type: "Reshape"
  bottom: "embedded_in_frames"
  top: "embedded_input_frames"
  reshape_param {
    shape {
      dim: 1
      dim: 1
      dim: 500
    }
  }
}
layer {
  name: "reshape_stage_indicator"
  type: "Reshape"
  bottom: "stage_indicator"
  top: "reshaped_stage_indicator"
  reshape_param {
    shape {
      dim: 1
      dim: 1
      dim: 1
    }
  }
}
layer {
  name: "embedding"
  type: "Embed"
  bottom: "input_sentence"
  top: "embedded_input_sentence"
  param {
    lr_mult: 1
  }
  embed_param {
    num_output: 500
    input_dim: 46168
    bias_term: false
    weight_filler {
      type: "uniform"
      min: -0.08
      max: 0.08
    }
  }
}
layer {
  name: "lstm1"
  type: "LSTM"
  bottom: "embedded_input_frames"
  bottom: "cont_sentence"
  top: "lstm1"
  recurrent_param {
    num_output: 1000
    weight_filler {
      type: "uniform"
      min: -0.08
      max: 0.08
    }
    bias_filler {
      type: "constant"
      value: 0
    }
  }
}
layer {
  name: "concat"
  type: "Concat"
  bottom: "lstm1"
  bottom: "embedded_input_sentence"
  bottom: "reshaped_stage_indicator"
  top: "lstm1_video_sequence"
  concat_param {
    concat_dim: 2
  }
}
layer {
  name: "lstm2"
  type: "LSTM"
  bottom: "lstm1_video_sequence"
  bottom: "cont_sentence"
  top: "lstm2"
  recurrent_param {
    num_output: 1000
    weight_filler {
      type: "uniform"
      min: -0.08
      max: 0.08
    }
    bias_filler {
      type: "constant"
      value: 0
    }
  }
}
layer {
  name: "predict"
  type: "InnerProduct"
  bottom: "lstm2"
  top: "predict"
  param {
    lr_mult: 1
    decay_mult: 1
  }
  param {
    lr_mult: 2
    decay_mult: 0
  }
  inner_product_param {
    num_output: 46168
    weight_filler {
      type: "uniform"
      min: -0.08
      max: 0.08
    }
    bias_filler {
      type: "constant"
      value: 0
    }
    axis: 2
  }
}
layer {
  name: "probs"
  type: "Softmax"
  bottom: "predict"
  top: "probs"
  softmax_param {
    axis: 2
  }
}
I0730 10:05:44.952085 13985 layer_factory.hpp:77] Creating layer input
I0730 10:05:44.952105 13985 net.cpp:91] Creating Layer input
I0730 10:05:44.952114 13985 net.cpp:399] input -> frames_fc7
I0730 10:05:44.952137 13985 net.cpp:399] input -> cont_sentence
I0730 10:05:44.952149 13985 net.cpp:399] input -> input_sentence
I0730 10:05:44.952160 13985 net.cpp:399] input -> stage_indicator
I0730 10:05:44.952292 13985 net.cpp:141] Setting up input
I0730 10:05:44.952307 13985 net.cpp:148] Top shape: 1 4096 (4096)
I0730 10:05:44.952314 13985 net.cpp:148] Top shape: 1 1 (1)
I0730 10:05:44.952321 13985 net.cpp:148] Top shape: 1 1 (1)
I0730 10:05:44.952327 13985 net.cpp:148] Top shape: 1 1 (1)
I0730 10:05:44.952332 13985 net.cpp:156] Memory required for data: 16396
I0730 10:05:44.952338 13985 layer_factory.hpp:77] Creating layer cont_sentence_input_1_split
I0730 10:05:44.952356 13985 net.cpp:91] Creating Layer cont_sentence_input_1_split
I0730 10:05:44.952363 13985 net.cpp:425] cont_sentence_input_1_split <- cont_sentence
I0730 10:05:44.952384 13985 net.cpp:399] cont_sentence_input_1_split -> cont_sentence_input_1_split_0
I0730 10:05:44.952396 13985 net.cpp:399] cont_sentence_input_1_split -> cont_sentence_input_1_split_1
I0730 10:05:44.952453 13985 net.cpp:141] Setting up cont_sentence_input_1_split
I0730 10:05:44.952466 13985 net.cpp:148] Top shape: 1 1 (1)
I0730 10:05:44.952471 13985 net.cpp:148] Top shape: 1 1 (1)
I0730 10:05:44.952476 13985 net.cpp:156] Memory required for data: 16404
I0730 10:05:44.952481 13985 layer_factory.hpp:77] Creating layer embed_encoder
I0730 10:05:44.952494 13985 net.cpp:91] Creating Layer embed_encoder
I0730 10:05:44.952500 13985 net.cpp:425] embed_encoder <- frames_fc7
I0730 10:05:44.952509 13985 net.cpp:399] embed_encoder -> embedded_in_frames
I0730 10:05:44.960700 13995 net.cpp:141] Setting up fc7
I0730 10:05:44.960747 13995 net.cpp:148] Top shape: 10 4096 (40960)
I0730 10:05:44.960752 13995 net.cpp:156] Memory required for data: 68273720
I0730 10:05:44.960767 13995 layer_factory.hpp:77] Creating layer relu7
I0730 10:05:44.960783 13995 net.cpp:91] Creating Layer relu7
I0730 10:05:44.960789 13995 net.cpp:425] relu7 <- fc7
I0730 10:05:44.960803 13995 net.cpp:386] relu7 -> fc7 (in-place)
I0730 10:05:44.962263 13995 net.cpp:141] Setting up relu7
I0730 10:05:44.962278 13995 net.cpp:148] Top shape: 10 4096 (40960)
I0730 10:05:44.962283 13995 net.cpp:156] Memory required for data: 68437560
I0730 10:05:44.962290 13995 layer_factory.hpp:77] Creating layer drop7
I0730 10:05:44.962299 13995 net.cpp:91] Creating Layer drop7
I0730 10:05:44.962306 13995 net.cpp:425] drop7 <- fc7
I0730 10:05:44.962316 13995 net.cpp:386] drop7 -> fc7 (in-place)
I0730 10:05:44.962358 13995 net.cpp:141] Setting up drop7
I0730 10:05:44.962371 13995 net.cpp:148] Top shape: 10 4096 (40960)
I0730 10:05:44.962376 13995 net.cpp:156] Memory required for data: 68601400
I0730 10:05:44.962381 13995 layer_factory.hpp:77] Creating layer fc8
I0730 10:05:44.962393 13995 net.cpp:91] Creating Layer fc8
I0730 10:05:44.962398 13995 net.cpp:425] fc8 <- fc7
I0730 10:05:44.962404 13995 net.cpp:399] fc8 -> fc8
I0730 10:05:44.975327 13995 net.cpp:141] Setting up fc8
I0730 10:05:44.975371 13995 net.cpp:148] Top shape: 10 1000 (10000)
I0730 10:05:44.975378 13995 net.cpp:156] Memory required for data: 68641400
I0730 10:05:44.975392 13995 layer_factory.hpp:77] Creating layer prob
I0730 10:05:44.975409 13995 net.cpp:91] Creating Layer prob
I0730 10:05:44.975417 13995 net.cpp:425] prob <- fc8
I0730 10:05:44.975432 13995 net.cpp:399] prob -> prob
I0730 10:05:44.975860 13985 net.cpp:141] Setting up embed_encoder
I0730 10:05:44.975888 13985 net.cpp:148] Top shape: 1 500 (500)
I0730 10:05:44.975894 13985 net.cpp:156] Memory required for data: 18404
I0730 10:05:44.975914 13985 layer_factory.hpp:77] Creating layer reshape_frames
I0730 10:05:44.975931 13985 net.cpp:91] Creating Layer reshape_frames
I0730 10:05:44.975939 13985 net.cpp:425] reshape_frames <- embedded_in_frames
I0730 10:05:44.975949 13985 net.cpp:399] reshape_frames -> embedded_input_frames
I0730 10:05:44.976017 13985 net.cpp:141] Setting up reshape_frames
I0730 10:05:44.976028 13985 net.cpp:148] Top shape: 1 1 500 (500)
I0730 10:05:44.976033 13985 net.cpp:156] Memory required for data: 20404
I0730 10:05:44.976038 13985 layer_factory.hpp:77] Creating layer reshape_stage_indicator
I0730 10:05:44.976050 13985 net.cpp:91] Creating Layer reshape_stage_indicator
I0730 10:05:44.976055 13985 net.cpp:425] reshape_stage_indicator <- stage_indicator
I0730 10:05:44.976064 13985 net.cpp:399] reshape_stage_indicator -> reshaped_stage_indicator
I0730 10:05:44.976184 13995 net.cpp:141] Setting up prob
I0730 10:05:44.976199 13995 net.cpp:148] Top shape: 10 1000 (10000)
I0730 10:05:44.976205 13995 net.cpp:156] Memory required for data: 68681400
I0730 10:05:44.976212 13995 net.cpp:219] prob does not need backward computation.
I0730 10:05:44.976217 13995 net.cpp:219] fc8 does not need backward computation.
I0730 10:05:44.976222 13995 net.cpp:219] drop7 does not need backward computation.
I0730 10:05:44.976227 13995 net.cpp:219] relu7 does not need backward computation.
I0730 10:05:44.976227 13985 net.cpp:141] Setting up reshape_stage_indicator
I0730 10:05:44.976234 13995 net.cpp:219] fc7 does not need backward computation.
I0730 10:05:44.976240 13995 net.cpp:219] drop6 does not need backward computation.
I0730 10:05:44.976243 13985 net.cpp:148] Top shape: 1 1 1 (1)
I0730 10:05:44.976245 13995 net.cpp:219] relu6 does not need backward computation.
I0730 10:05:44.976248 13985 net.cpp:156] Memory required for data: 20408
I0730 10:05:44.976250 13995 net.cpp:219] fc6 does not need backward computation.
I0730 10:05:44.976254 13985 layer_factory.hpp:77] Creating layer embedding
I0730 10:05:44.976258 13995 net.cpp:219] pool5 does not need backward computation.
…
I0730 10:05:44.976349 13995 net.cpp:219] norm1 does not need backward computation.
I0730 10:05:44.976354 13995 net.cpp:219] pool1 does not need backward computation.
I0730 10:05:44.976362 13995 net.cpp:219] relu1 does not need backward computation.
I0730 10:05:44.976367 13995 net.cpp:219] conv1 does not need backward computation.
I0730 10:05:44.976372 13995 net.cpp:219] data does not need backward computation.
I0730 10:05:44.976377 13995 net.cpp:261] This network produces output prob
I0730 10:05:44.976403 13995 net.cpp:274] Network initialization done.
I0730 10:05:45.218394 13985 net.cpp:141] Setting up embedding
I0730 10:05:45.218456 13985 net.cpp:148] Top shape: 1 1 500 (500)
I0730 10:05:45.218462 13985 net.cpp:156] Memory required for data: 22408
I0730 10:05:45.218495 13985 layer_factory.hpp:77] Creating layer lstm1
I0730 10:05:45.218523 13985 net.cpp:91] Creating Layer lstm1
I0730 10:05:45.218530 13985 net.cpp:425] lstm1 <- embedded_input_frames
I0730 10:05:45.218540 13985 net.cpp:425] lstm1 <- cont_sentence_input_1_split_0
I0730 10:05:45.218552 13985 net.cpp:399] lstm1 -> lstm1
I0730 10:05:45.218585 13985 recurrent_layer.cpp:20] Initializing recurrent layer: assuming input batch contains 1 timesteps of 1 independent streams.
I0730 10:05:45.219036 13985 net.cpp:49] Initializing net from parameters: 
layer {
  name: "lstm1_"
  type: "Input"
  top: "x"
  top: "cont"
  input_param {
    shape {
      dim: 1
      dim: 1
      dim: 500
    }
    shape {
      dim: 1
      dim: 1
    }
  }
}
layer {
  name: "lstm1_"
  type: "Input"
  top: "c_0"
  top: "h_0"
  input_param {
    shape {
      dim: 1
      dim: 1
      dim: 1000
    }
    shape {
      dim: 1
      dim: 1
      dim: 1000
    }
  }
}
layer {
  name: "lstm1_cont_slice"
  type: "Slice"
  bottom: "cont"
  top: "cont_1"
  slice_param {
    axis: 0
  }
}
layer {
  name: "lstm1_x_transform"
  type: "InnerProduct"
  bottom: "x"
  top: "W_xc_x"
  param {
    name: "W_xc"
  }
  param {
    name: "b_c"
  }
  propagate_down: true
  inner_product_param {
    num_output: 4000
    bias_term: true
    weight_filler {
      type: "uniform"
      min: -0.08
      max: 0.08
    }
    bias_filler {
      type: "constant"
      value: 0
    }
    axis: 2
  }
}
layer {
  name: "lstm1_W_xc_x_slice"
  type: "Slice"
  bottom: "W_xc_x"
  top: "W_xc_x_1"
  slice_param {
    axis: 0
  }
}
layer {
  name: "lstm1_h_conted_0"
  type: "Scale"
  bottom: "h_0"
  bottom: "cont_1"
  top: "h_conted_0"
  scale_param {
    axis: 0
  }
}
layer {
  name: "lstm1_transform_1"
  type: "InnerProduct"
  bottom: "h_conted_0"
  top: "W_hc_h_0"
  param {
    name: "W_hc"
  }
  inner_product_param {
    num_output: 4000
    bias_term: false
    weight_filler {
      type: "uniform"
      min: -0.08
      max: 0.08
    }
    axis: 2
  }
}
layer {
  name: "lstm1_gate_input_1"
  type: "Eltwise"
  bottom: "W_hc_h_0"
  bottom: "W_xc_x_1"
  top: "gate_input_1"
  eltwise_param {
    operation: SUM
  }
}
layer {
  name: "lstm1_unit_1"
  type: "LSTMUnit"
  bottom: "c_0"
  bottom: "gate_input_1"
  bottom: "cont_1"
  top: "c_1"
  top: "h_1"
}
layer {
  name: "lstm1_"
  type: "Split"
  bottom: "c_1"
  top: "c_T"
}
layer {
  name: "lstm1_h_concat"
  type: "Concat"
  bottom: "h_1"
  top: "h"
  concat_param {
    axis: 0
  }
}
layer {
  name: "h_pseudoloss"
  type: "Reduction"
  bottom: "h"
  top: "h_pseudoloss"
  loss_weight: 1
}
I0730 10:05:45.219142 13985 layer_factory.hpp:77] Creating layer lstm1_
I0730 10:05:45.219157 13985 net.cpp:91] Creating Layer lstm1_
I0730 10:05:45.219164 13985 net.cpp:399] lstm1_ -> x
I0730 10:05:45.219177 13985 net.cpp:399] lstm1_ -> cont
I0730 10:05:45.219244 13985 net.cpp:141] Setting up lstm1_
I0730 10:05:45.219256 13985 net.cpp:148] Top shape: 1 1 500 (500)
I0730 10:05:45.219262 13985 net.cpp:148] Top shape: 1 1 (1)
I0730 10:05:45.219267 13985 net.cpp:156] Memory required for data: 2004
I0730 10:05:45.219272 13985 layer_factory.hpp:77] Creating layer lstm1_
I0730 10:05:45.219285 13985 net.cpp:91] Creating Layer lstm1_
I0730 10:05:45.219293 13985 net.cpp:399] lstm1_ -> c_0
I0730 10:05:45.219305 13985 net.cpp:399] lstm1_ -> h_0
I0730 10:05:45.219359 13985 net.cpp:141] Setting up lstm1_
I0730 10:05:45.219372 13985 net.cpp:148] Top shape: 1 1 1000 (1000)
I0730 10:05:45.219378 13985 net.cpp:148] Top shape: 1 1 1000 (1000)
I0730 10:05:45.219383 13985 net.cpp:156] Memory required for data: 10004
I0730 10:05:45.219388 13985 layer_factory.hpp:77] Creating layer lstm1_cont_slice
I0730 10:05:45.219398 13985 net.cpp:91] Creating Layer lstm1_cont_slice
I0730 10:05:45.219403 13985 net.cpp:425] lstm1_cont_slice <- cont
I0730 10:05:45.219409 13985 net.cpp:399] lstm1_cont_slice -> cont_1
I0730 10:05:45.219450 13985 net.cpp:141] Setting up lstm1_cont_slice
I0730 10:05:45.219460 13985 net.cpp:148] Top shape: 1 1 (1)
I0730 10:05:45.219465 13985 net.cpp:156] Memory required for data: 10008
I0730 10:05:45.219470 13985 layer_factory.hpp:77] Creating layer cont_1_lstm1_cont_slice_0_split
I0730 10:05:45.219478 13985 net.cpp:91] Creating Layer cont_1_lstm1_cont_slice_0_split
I0730 10:05:45.219483 13985 net.cpp:425] cont_1_lstm1_cont_slice_0_split <- cont_1
I0730 10:05:45.219492 13985 net.cpp:399] cont_1_lstm1_cont_slice_0_split -> cont_1_lstm1_cont_slice_0_split_0
I0730 10:05:45.219501 13985 net.cpp:399] cont_1_lstm1_cont_slice_0_split -> cont_1_lstm1_cont_slice_0_split_1
I0730 10:05:45.219552 13985 net.cpp:141] Setting up cont_1_lstm1_cont_slice_0_split
I0730 10:05:45.219561 13985 net.cpp:148] Top shape: 1 1 (1)
I0730 10:05:45.219568 13985 net.cpp:148] Top shape: 1 1 (1)
I0730 10:05:45.219573 13985 net.cpp:156] Memory required for data: 10016
I0730 10:05:45.219578 13985 layer_factory.hpp:77] Creating layer lstm1_x_transform
I0730 10:05:45.219588 13985 net.cpp:91] Creating Layer lstm1_x_transform
I0730 10:05:45.219593 13985 net.cpp:425] lstm1_x_transform <- x
I0730 10:05:45.219604 13985 net.cpp:399] lstm1_x_transform -> W_xc_x
I0730 10:05:45.240396 13985 net.cpp:141] Setting up lstm1_x_transform
I0730 10:05:45.240430 13985 net.cpp:148] Top shape: 1 1 4000 (4000)
I0730 10:05:45.240435 13985 net.cpp:156] Memory required for data: 26016
I0730 10:05:45.240453 13985 layer_factory.hpp:77] Creating layer lstm1_W_xc_x_slice
I0730 10:05:45.240478 13985 net.cpp:91] Creating Layer lstm1_W_xc_x_slice
I0730 10:05:45.240484 13985 net.cpp:425] lstm1_W_xc_x_slice <- W_xc_x
I0730 10:05:45.240492 13985 net.cpp:399] lstm1_W_xc_x_slice -> W_xc_x_1
I0730 10:05:45.240535 13985 net.cpp:141] Setting up lstm1_W_xc_x_slice
I0730 10:05:45.240545 13985 net.cpp:148] Top shape: 1 1 4000 (4000)
I0730 10:05:45.240548 13985 net.cpp:156] Memory required for data: 42016
I0730 10:05:45.240552 13985 layer_factory.hpp:77] Creating layer lstm1_h_conted_0
I0730 10:05:45.240561 13985 net.cpp:91] Creating Layer lstm1_h_conted_0
I0730 10:05:45.240566 13985 net.cpp:425] lstm1_h_conted_0 <- h_0
I0730 10:05:45.240571 13985 net.cpp:425] lstm1_h_conted_0 <- cont_1_lstm1_cont_slice_0_split_0
I0730 10:05:45.240578 13985 net.cpp:399] lstm1_h_conted_0 -> h_conted_0
I0730 10:05:45.240670 13985 net.cpp:141] Setting up lstm1_h_conted_0
I0730 10:05:45.240679 13985 net.cpp:148] Top shape: 1 1 1000 (1000)
I0730 10:05:45.240684 13985 net.cpp:156] Memory required for data: 46016
I0730 10:05:45.240689 13985 layer_factory.hpp:77] Creating layer lstm1_transform_1
I0730 10:05:45.240698 13985 net.cpp:91] Creating Layer lstm1_transform_1
I0730 10:05:45.240702 13985 net.cpp:425] lstm1_transform_1 <- h_conted_0
I0730 10:05:45.240710 13985 net.cpp:399] lstm1_transform_1 -> W_hc_h_0
I0730 10:05:45.263212 13995 upgrade_proto.cpp:43] Attempting to upgrade input file specified using deprecated transformation parameters: /tmp/cvld5510660657389539226/bvlc_reference_caffenet.caffemodel
I0730 10:05:45.263252 13995 upgrade_proto.cpp:46] Successfully upgraded file specified using deprecated data transformation parameters.
W0730 10:05:45.263267 13995 upgrade_proto.cpp:48] Note that future Caffe releases will only support transform_param messages for transformation fields.
I0730 10:05:45.263273 13995 upgrade_proto.cpp:52] Attempting to upgrade input file specified using deprecated V1LayerParameter: /tmp/cvld5510660657389539226/bvlc_reference_caffenet.caffemodel
I0730 10:05:45.278054 13985 net.cpp:141] Setting up lstm1_transform_1
I0730 10:05:45.278112 13985 net.cpp:148] Top shape: 1 1 4000 (4000)
I0730 10:05:45.278118 13985 net.cpp:156] Memory required for data: 62016
I0730 10:05:45.278141 13985 layer_factory.hpp:77] Creating layer lstm1_gate_input_1
I0730 10:05:45.278173 13985 net.cpp:91] Creating Layer lstm1_gate_input_1
I0730 10:05:45.278180 13985 net.cpp:425] lstm1_gate_input_1 <- W_hc_h_0
I0730 10:05:45.278189 13985 net.cpp:425] lstm1_gate_input_1 <- W_xc_x_1
I0730 10:05:45.278199 13985 net.cpp:399] lstm1_gate_input_1 -> gate_input_1
I0730 10:05:45.278257 13985 net.cpp:141] Setting up lstm1_gate_input_1
I0730 10:05:45.278266 13985 net.cpp:148] Top shape: 1 1 4000 (4000)
I0730 10:05:45.278270 13985 net.cpp:156] Memory required for data: 78016
I0730 10:05:45.278275 13985 layer_factory.hpp:77] Creating layer lstm1_unit_1
I0730 10:05:45.278285 13985 net.cpp:91] Creating Layer lstm1_unit_1
I0730 10:05:45.278288 13985 net.cpp:425] lstm1_unit_1 <- c_0
I0730 10:05:45.278295 13985 net.cpp:425] lstm1_unit_1 <- gate_input_1
I0730 10:05:45.278300 13985 net.cpp:425] lstm1_unit_1 <- cont_1_lstm1_cont_slice_0_split_1
I0730 10:05:45.278306 13985 net.cpp:399] lstm1_unit_1 -> c_1
I0730 10:05:45.278316 13985 net.cpp:399] lstm1_unit_1 -> h_1
I0730 10:05:45.278373 13985 net.cpp:141] Setting up lstm1_unit_1
I0730 10:05:45.278381 13985 net.cpp:148] Top shape: 1 1 1000 (1000)
I0730 10:05:45.278386 13985 net.cpp:148] Top shape: 1 1 1000 (1000)
I0730 10:05:45.278390 13985 net.cpp:156] Memory required for data: 86016
I0730 10:05:45.278395 13985 layer_factory.hpp:77] Creating layer lstm1_
I0730 10:05:45.278403 13985 net.cpp:91] Creating Layer lstm1_
I0730 10:05:45.278406 13985 net.cpp:425] lstm1_ <- c_1
I0730 10:05:45.278414 13985 net.cpp:399] lstm1_ -> c_T
I0730 10:05:45.278445 13985 net.cpp:141] Setting up lstm1_
I0730 10:05:45.278452 13985 net.cpp:148] Top shape: 1 1 1000 (1000)
I0730 10:05:45.278457 13985 net.cpp:156] Memory required for data: 90016
I0730 10:05:45.278461 13985 layer_factory.hpp:77] Creating layer lstm1_h_concat
I0730 10:05:45.278470 13985 net.cpp:91] Creating Layer lstm1_h_concat
I0730 10:05:45.278475 13985 net.cpp:425] lstm1_h_concat <- h_1
I0730 10:05:45.278483 13985 net.cpp:399] lstm1_h_concat -> h
I0730 10:05:45.278515 13985 net.cpp:141] Setting up lstm1_h_concat
I0730 10:05:45.278523 13985 net.cpp:148] Top shape: 1 1 1000 (1000)
I0730 10:05:45.278527 13985 net.cpp:156] Memory required for data: 94016
I0730 10:05:45.278532 13985 layer_factory.hpp:77] Creating layer h_pseudoloss
I0730 10:05:45.278549 13985 net.cpp:91] Creating Layer h_pseudoloss
I0730 10:05:45.278554 13985 net.cpp:425] h_pseudoloss <- h
I0730 10:05:45.278561 13985 net.cpp:399] h_pseudoloss -> h_pseudoloss
I0730 10:05:45.278656 13985 net.cpp:141] Setting up h_pseudoloss
…
I0730 10:05:45.278779 13985 net.cpp:219] lstm1_ does not need backward computation.
I0730 10:05:45.278781 13985 net.cpp:261] This network produces output c_T
I0730 10:05:45.278785 13985 net.cpp:261] This network produces output h_pseudoloss
I0730 10:05:45.278801 13985 net.cpp:274] Network initialization done.
I0730 10:05:45.278854 13985 recurrent_layer.cpp:150] Adding parameter 0: W_xc
I0730 10:05:45.278861 13985 recurrent_layer.cpp:150] Adding parameter 1: b_c
I0730 10:05:45.278866 13985 recurrent_layer.cpp:150] Adding parameter 2: W_hc
I0730 10:05:45.278975 13985 net.cpp:141] Setting up lstm1
I0730 10:05:45.278985 13985 net.cpp:148] Top shape: 1 1 1000 (1000)
I0730 10:05:45.278990 13985 net.cpp:156] Memory required for data: 26408
I0730 10:05:45.279001 13985 layer_factory.hpp:77] Creating layer concat
I0730 10:05:45.279009 13985 net.cpp:91] Creating Layer concat
I0730 10:05:45.279016 13985 net.cpp:425] concat <- lstm1
I0730 10:05:45.279021 13985 net.cpp:425] concat <- embedded_input_sentence
I0730 10:05:45.279026 13985 net.cpp:425] concat <- reshaped_stage_indicator
I0730 10:05:45.279033 13985 net.cpp:399] concat -> lstm1_video_sequence
I0730 10:05:45.279065 13985 net.cpp:141] Setting up concat
I0730 10:05:45.279073 13985 net.cpp:148] Top shape: 1 1 1501 (1501)
I0730 10:05:45.279078 13985 net.cpp:156] Memory required for data: 32412
I0730 10:05:45.279081 13985 layer_factory.hpp:77] Creating layer lstm2
I0730 10:05:45.279093 13985 net.cpp:91] Creating Layer lstm2
I0730 10:05:45.279098 13985 net.cpp:425] lstm2 <- lstm1_video_sequence
I0730 10:05:45.279103 13985 net.cpp:425] lstm2 <- cont_sentence_input_1_split_1
I0730 10:05:45.279110 13985 net.cpp:399] lstm2 -> lstm2
I0730 10:05:45.279120 13985 recurrent_layer.cpp:20] Initializing recurrent layer: assuming input batch contains 1 timesteps of 1 independent streams.
I0730 10:05:45.279389 13985 net.cpp:49] Initializing net from parameters: 
layer {
  name: "lstm2_"
  type: "Input"
  top: "x"
  top: "cont"
  input_param {
    shape {
      dim: 1
      dim: 1
      dim: 1501
    }
    shape {
      dim: 1
      dim: 1
    }
  }
}
layer {
  name: "lstm2_"
  type: "Input"
  top: "c_0"
  top: "h_0"
  input_param {
    shape {
      dim: 1
      dim: 1
      dim: 1000
    }
    shape {
      dim: 1
      dim: 1
      dim: 1000
    }
  }
}
layer {
  name: "lstm2_cont_slice"
  type: "Slice"
  bottom: "cont"
  top: "cont_1"
  slice_param {
    axis: 0
  }
}
layer {
  name: "lstm2_x_transform"
  type: "InnerProduct"
  bottom: "x"
  top: "W_xc_x"
  param {
    name: "W_xc"
  }
  param {
    name: "b_c"
  }
  propagate_down: true
  inner_product_param {
    num_output: 4000
    bias_term: true
    weight_filler {
      type: "uniform"
      min: -0.08
      max: 0.08
    }
    bias_filler {
      type: "constant"
      value: 0
    }
    axis: 2
  }
}
layer {
  name: "lstm2_W_xc_x_slice"
  type: "Slice"
  bottom: "W_xc_x"
  top: "W_xc_x_1"
  slice_param {
    axis: 0
  }
}
layer {
  name: "lstm2_h_conted_0"
  type: "Scale"
  bottom: "h_0"
  bottom: "cont_1"
  top: "h_conted_0"
  scale_param {
    axis: 0
  }
}
layer {
  name: "lstm2_transform_1"
  type: "InnerProduct"
  bottom: "h_conted_0"
  top: "W_hc_h_0"
  param {
    name: "W_hc"
  }
  inner_product_param {
    num_output: 4000
    bias_term: false
    weight_filler {
      type: "uniform"
      min: -0.08
      max: 0.08
    }
    axis: 2
  }
}
layer {
  name: "lstm2_gate_input_1"
  type: "Eltwise"
  bottom: "W_hc_h_0"
  bottom: "W_xc_x_1"
  top: "gate_input_1"
  eltwise_param {
    operation: SUM
  }
}
layer {
  name: "lstm2_unit_1"
  type: "LSTMUnit"
  bottom: "c_0"
  bottom: "gate_input_1"
  bottom: "cont_1"
  top: "c_1"
  top: "h_1"
}
layer {
  name: "lstm2_"
  type: "Split"
  bottom: "c_1"
  top: "c_T"
}
layer {
  name: "lstm2_h_concat"
  type: "Concat"
  bottom: "h_1"
  top: "h"
  concat_param {
    axis: 0
  }
}
layer {
  name: "h_pseudoloss"
  type: "Reduction"
  bottom: "h"
  top: "h_pseudoloss"
  loss_weight: 1
}
I0730 10:05:45.279479 13985 layer_factory.hpp:77] Creating layer lstm2_
I0730 10:05:45.279490 13985 net.cpp:91] Creating Layer lstm2_
I0730 10:05:45.279495 13985 net.cpp:399] lstm2_ -> x
I0730 10:05:45.279505 13985 net.cpp:399] lstm2_ -> cont
I0730 10:05:45.279556 13985 net.cpp:141] Setting up lstm2_
I0730 10:05:45.279567 13985 net.cpp:148] Top shape: 1 1 1501 (1501)
I0730 10:05:45.279572 13985 net.cpp:148] Top shape: 1 1 (1)
I0730 10:05:45.279575 13985 net.cpp:156] Memory required for data: 6008
I0730 10:05:45.279580 13985 layer_factory.hpp:77] Creating layer lstm2_
I0730 10:05:45.279588 13985 net.cpp:91] Creating Layer lstm2_
I0730 10:05:45.279594 13985 net.cpp:399] lstm2_ -> c_0
I0730 10:05:45.279609 13985 net.cpp:399] lstm2_ -> h_0
I0730 10:05:45.279652 13985 net.cpp:141] Setting up lstm2_
I0730 10:05:45.279661 13985 net.cpp:148] Top shape: 1 1 1000 (1000)
I0730 10:05:45.279666 13985 net.cpp:148] Top shape: 1 1 1000 (1000)
I0730 10:05:45.279670 13985 net.cpp:156] Memory required for data: 14008
I0730 10:05:45.279675 13985 layer_factory.hpp:77] Creating layer lstm2_cont_slice
I0730 10:05:45.279685 13985 net.cpp:91] Creating Layer lstm2_cont_slice
I0730 10:05:45.279690 13985 net.cpp:425] lstm2_cont_slice <- cont
I0730 10:05:45.279697 13985 net.cpp:399] lstm2_cont_slice -> cont_1
I0730 10:05:45.279727 13985 net.cpp:141] Setting up lstm2_cont_slice
I0730 10:05:45.279736 13985 net.cpp:148] Top shape: 1 1 (1)
I0730 10:05:45.279741 13985 net.cpp:156] Memory required for data: 14012
I0730 10:05:45.279744 13985 layer_factory.hpp:77] Creating layer cont_1_lstm2_cont_slice_0_split
I0730 10:05:45.279750 13985 net.cpp:91] Creating Layer cont_1_lstm2_cont_slice_0_split
I0730 10:05:45.279754 13985 net.cpp:425] cont_1_lstm2_cont_slice_0_split <- cont_1
I0730 10:05:45.279763 13985 net.cpp:399] cont_1_lstm2_cont_slice_0_split -> cont_1_lstm2_cont_slice_0_split_0
I0730 10:05:45.279772 13985 net.cpp:399] cont_1_lstm2_cont_slice_0_split -> cont_1_lstm2_cont_slice_0_split_1
I0730 10:05:45.279814 13985 net.cpp:141] Setting up cont_1_lstm2_cont_slice_0_split
I0730 10:05:45.279822 13985 net.cpp:148] Top shape: 1 1 (1)
I0730 10:05:45.279827 13985 net.cpp:148] Top shape: 1 1 (1)
I0730 10:05:45.279831 13985 net.cpp:156] Memory required for data: 14020
I0730 10:05:45.279835 13985 layer_factory.hpp:77] Creating layer lstm2_x_transform
I0730 10:05:45.279847 13985 net.cpp:91] Creating Layer lstm2_x_transform
I0730 10:05:45.279852 13985 net.cpp:425] lstm2_x_transform <- x
I0730 10:05:45.279860 13985 net.cpp:399] lstm2_x_transform -> W_xc_x
I0730 10:05:45.334944 13985 net.cpp:141] Setting up lstm2_x_transform
I0730 10:05:45.335012 13985 net.cpp:148] Top shape: 1 1 4000 (4000)
I0730 10:05:45.335018 13985 net.cpp:156] Memory required for data: 30020
I0730 10:05:45.335043 13985 layer_factory.hpp:77] Creating layer lstm2_W_xc_x_slice
I0730 10:05:45.335064 13985 net.cpp:91] Creating Layer lstm2_W_xc_x_slice
I0730 10:05:45.335072 13985 net.cpp:425] lstm2_W_xc_x_slice <- W_xc_x
I0730 10:05:45.335081 13985 net.cpp:399] lstm2_W_xc_x_slice -> W_xc_x_1
I0730 10:05:45.335125 13985 net.cpp:141] Setting up lstm2_W_xc_x_slice
I0730 10:05:45.335135 13985 net.cpp:148] Top shape: 1 1 4000 (4000)
I0730 10:05:45.335139 13985 net.cpp:156] Memory required for data: 46020
I0730 10:05:45.335144 13985 layer_factory.hpp:77] Creating layer lstm2_h_conted_0
I0730 10:05:45.335155 13985 net.cpp:91] Creating Layer lstm2_h_conted_0
I0730 10:05:45.335160 13985 net.cpp:425] lstm2_h_conted_0 <- h_0
I0730 10:05:45.335166 13985 net.cpp:425] lstm2_h_conted_0 <- cont_1_lstm2_cont_slice_0_split_0
I0730 10:05:45.335172 13985 net.cpp:399] lstm2_h_conted_0 -> h_conted_0
I0730 10:05:45.335264 13985 net.cpp:141] Setting up lstm2_h_conted_0
I0730 10:05:45.335273 13985 net.cpp:148] Top shape: 1 1 1000 (1000)
I0730 10:05:45.335278 13985 net.cpp:156] Memory required for data: 50020
I0730 10:05:45.335281 13985 layer_factory.hpp:77] Creating layer lstm2_transform_1
I0730 10:05:45.335294 13985 net.cpp:91] Creating Layer lstm2_transform_1
I0730 10:05:45.335299 13985 net.cpp:425] lstm2_transform_1 <- h_conted_0
I0730 10:05:45.335306 13985 net.cpp:399] lstm2_transform_1 -> W_hc_h_0
I0730 10:05:45.372396 13985 net.cpp:141] Setting up lstm2_transform_1
I0730 10:05:45.372458 13985 net.cpp:148] Top shape: 1 1 4000 (4000)
I0730 10:05:45.372464 13985 net.cpp:156] Memory required for data: 66020
I0730 10:05:45.372488 13985 layer_factory.hpp:77] Creating layer lstm2_gate_input_1
I0730 10:05:45.372512 13985 net.cpp:91] Creating Layer lstm2_gate_input_1
I0730 10:05:45.372519 13985 net.cpp:425] lstm2_gate_input_1 <- W_hc_h_0
I0730 10:05:45.372529 13985 net.cpp:425] lstm2_gate_input_1 <- W_xc_x_1
I0730 10:05:45.372536 13985 net.cpp:399] lstm2_gate_input_1 -> gate_input_1
I0730 10:05:45.372586 13985 net.cpp:141] Setting up lstm2_gate_input_1
I0730 10:05:45.372594 13985 net.cpp:148] Top shape: 1 1 4000 (4000)
I0730 10:05:45.372598 13985 net.cpp:156] Memory required for data: 82020
I0730 10:05:45.372602 13985 layer_factory.hpp:77] Creating layer lstm2_unit_1
I0730 10:05:45.372612 13985 net.cpp:91] Creating Layer lstm2_unit_1
I0730 10:05:45.372617 13985 net.cpp:425] lstm2_unit_1 <- c_0
I0730 10:05:45.372622 13985 net.cpp:425] lstm2_unit_1 <- gate_input_1
I0730 10:05:45.372627 13985 net.cpp:425] lstm2_unit_1 <- cont_1_lstm2_cont_slice_0_split_1
I0730 10:05:45.372633 13985 net.cpp:399] lstm2_unit_1 -> c_1
I0730 10:05:45.372642 13985 net.cpp:399] lstm2_unit_1 -> h_1
I0730 10:05:45.372701 13985 net.cpp:141] Setting up lstm2_unit_1
I0730 10:05:45.372709 13985 net.cpp:148] Top shape: 1 1 1000 (1000)
I0730 10:05:45.372715 13985 net.cpp:148] Top shape: 1 1 1000 (1000)
I0730 10:05:45.372720 13985 net.cpp:156] Memory required for data: 90020
I0730 10:05:45.372723 13985 layer_factory.hpp:77] Creating layer lstm2_
I0730 10:05:45.372733 13985 net.cpp:91] Creating Layer lstm2_
I0730 10:05:45.372738 13985 net.cpp:425] lstm2_ <- c_1
I0730 10:05:45.372745 13985 net.cpp:399] lstm2_ -> c_T
I0730 10:05:45.372772 13985 net.cpp:141] Setting up lstm2_
I0730 10:05:45.372781 13985 net.cpp:148] Top shape: 1 1 1000 (1000)
I0730 10:05:45.372784 13985 net.cpp:156] Memory required for data: 94020
I0730 10:05:45.372788 13985 layer_factory.hpp:77] Creating layer lstm2_h_concat
I0730 10:05:45.372797 13985 net.cpp:91] Creating Layer lstm2_h_concat
I0730 10:05:45.372802 13985 net.cpp:425] lstm2_h_concat <- h_1
I0730 10:05:45.372812 13985 net.cpp:399] lstm2_h_concat -> h
I0730 10:05:45.372844 13985 net.cpp:141] Setting up lstm2_h_concat
I0730 10:05:45.372853 13985 net.cpp:148] Top shape: 1 1 1000 (1000)
I0730 10:05:45.372856 13985 net.cpp:156] Memory required for data: 98020
I0730 10:05:45.372860 13985 layer_factory.hpp:77] Creating layer h_pseudoloss
I0730 10:05:45.372869 13985 net.cpp:91] Creating Layer h_pseudoloss
I0730 10:05:45.372874 13985 net.cpp:425] h_pseudoloss <- h
I0730 10:05:45.372880 13985 net.cpp:399] h_pseudoloss -> h_pseudoloss
I0730 10:05:45.372967 13985 net.cpp:141] Setting up h_pseudoloss
…
