…
W0924 03:46:11.438148  6646 upgrade_proto.cpp:71] Note that future Caffe releases will only support input layers and not input fields.
I0924 03:46:11.438133  6626 upgrade_proto.cpp:69] Successfully upgraded file specified using deprecated input fields.
W0924 03:46:11.438170  6626 upgrade_proto.cpp:71] Note that future Caffe releases will only support input layers and not input fields.
I0924 03:46:11.438334  6648 net.cpp:49] Initializing net from parameters: 
name: "CaffeNet"
state {
  phase: TEST
}
layer {
  name: "data"
  type: "Input"
  top: "data"
  input_param {
    shape {
      dim: 10
      dim: 3
      dim: 227
      dim: 227
    }
  }
}
layer {
  name: "conv1"
  type: "Convolution"
  bottom: "data"
  top: "conv1"
  convolution_param {
    num_output: 96
    kernel_size: 11
    stride: 4
  }
}
layer {
  name: "relu1"
  type: "ReLU"
  bottom: "conv1"
  top: "conv1"
}
layer {
  name: "pool1"
  type: "Pooling"
  bottom: "conv1"
  top: "pool1"
  pooling_param {
    pool: MAX
    kernel_size: 3
    stride: 2
  }
}
layer {
  name: "norm1"
  type: "LRN"
  bottom: "pool1"
  top: "norm1"
  lrn_param {
    local_size: 5
    alpha: 0.0001
    beta: 0.75
  }
}
layer {
  name: "conv2"
  type: "Convolution"
  bottom: "norm1"
  top: "conv2"
  convolution_param {
    num_output: 256
    pad: 2
    kernel_size: 5
    group: 2
  }
}
layer {
  name: "relu2"
  type: "ReLU"
  bottom: "conv2"
  top: "conv2"
}
layer {
  name: "pool2"
  type: "Pooling"
  bottom: "conv2"
  top: "pool2"
  pooling_param {
    pool: MAX
    kernel_size: 3
    stride: 2
  }
}
layer {
  name: "norm2"
  type: "LRN"
  bottom: "pool2"
  top: "norm2"
  lrn_param {
    local_size: 5
    alpha: 0.0001
    beta: 0.75
  }
}
layer {
  name: "conv3"
  type: "Convolution"
  bottom: "norm2"
  top: "conv3"
  convolution_param {
    num_output: 384
    pad: 1
    kernel_size: 3
  }
}
layer {
  name: "relu3"
  type: "ReLU"
  bottom: "conv3"
  top: "conv3"
}
layer {
  name: "conv4"
  type: "Convolution"
  bottom: "conv3"
  top: "conv4"
  convolution_param {
    num_output: 384
    pad: 1
    kernel_size: 3
    group: 2
  }
}
layer {
  name: "relu4"
  type: "ReLU"
  bottom: "conv4"
  top: "conv4"
}
layer {
  name: "conv5"
  type: "Convolution"
  bottom: "conv4"
  top: "conv5"
  convolution_param {
    num_output: 256
    pad: 1
    kernel_size: 3
    group: 2
  }
}
layer {
  name: "relu5"
  type: "ReLU"
  bottom: "conv5"
  top: "conv5"
}
layer {
  name: "pool5"
  type: "Pooling"
  bottom: "conv5"
  top: "pool5"
  pooling_param {
    pool: MAX
    kernel_size: 3
    stride: 2
  }
}
layer {
  name: "fc6"
  type: "InnerProduct"
  bottom: "pool5"
  top: "fc6"
  inner_product_param {
    num_output: 4096
  }
}
layer {
  name: "relu6"
  type: "ReLU"
  bottom: "fc6"
  top: "fc6"
}
layer {
  name: "drop6"
  type: "Dropout"
  bottom: "fc6"
  top: "fc6"
  dropout_param {
    dropout_ratio: 0.5
  }
}
layer {
  name: "fc7"
  type: "InnerProduct"
  bottom: "fc6"
  top: "fc7"
  inner_product_param {
    num_output: 4096
  }
}
layer {
  name: "relu7"
  type: "ReLU"
  bottom: "fc7"
  top: "fc7"
}
layer {
  name: "drop7"
  type: "Dropout"
  bottom: "fc7"
  top: "fc7"
  dropout_param {
    dropout_ratio: 0.5
  }
}
layer {
  name: "fc8"
  type: "InnerProduct"
  bottom: "fc7"
  top: "fc8"
  inner_product_param {
    num_output: 1000
  }
}
layer {
  name: "prob"
  type: "Softmax"
  bottom: "fc8"
  top: "prob"
}
I0924 03:46:11.438380  6626 net.cpp:49] Initializing net from parameters: 
name: "s2vt:features_to_lstm"
state {
  phase: TEST
}
layer {
  name: "input"
  type: "Input"
  top: "frames_fc7"
  top: "cont_sentence"
  top: "input_sentence"
  top: "stage_indicator"
  input_param {
    shape {
      dim: 1
      dim: 4096
    }
    shape {
      dim: 1
      dim: 1
    }
    shape {
      dim: 1
      dim: 1
    }
    shape {
      dim: 1
      dim: 1
    }
  }
}
layer {
  name: "embed_encoder"
  type: "InnerProduct"
  bottom: "frames_fc7"
  top: "embedded_in_frames"
  param {
    lr_mult: 1
    decay_mult: 1
  }
  param {
    lr_mult: 2
    decay_mult: 0
  }
  inner_product_param {
    num_output: 500
    weight_filler {
      type: "xavier"
    }
    bias_filler {
      type: "constant"
      value: 0.2
    }
  }
}
layer {
  name: "reshape_frames"
  type: "Reshape"
  bottom: "embedded_in_frames"
  top: "embedded_input_frames"
  reshape_param {
    shape {
      dim: 1
      dim: 1
      dim: 500
    }
  }
}
layer {
  name: "reshape_stage_indicator"
  type: "Reshape"
  bottom: "stage_indicator"
  top: "reshaped_stage_indicator"
  reshape_param {
    shape {
      dim: 1
      dim: 1
      dim: 1
    }
  }
}
layer {
  name: "embedding"
  type: "Embed"
  bottom: "input_sentence"
  top: "embedded_input_sentence"
  param {
    lr_mult: 1
  }
  embed_param {
    num_output: 500
    input_dim: 46168
    bias_term: false
    weight_filler {
      type: "uniform"
      min: -0.08
      max: 0.08
    }
  }
}
layer {
  name: "lstm1"
  type: "LSTM"
  bottom: "embedded_input_frames"
  bottom: "cont_sentence"
  top: "lstm1"
  recurrent_param {
    num_output: 1000
    weight_filler {
      type: "uniform"
      min: -0.08
      max: 0.08
    }
    bias_filler {
      type: "constant"
      value: 0
    }
  }
}
layer {
  name: "concat"
  type: "Concat"
  bottom: "lstm1"
  bottom: "embedded_input_sentence"
  bottom: "reshaped_stage_indicator"
  top: "lstm1_video_sequence"
  concat_param {
    concat_dim: 2
  }
}
layer {
  name: "lstm2"
  type: "LSTM"
  bottom: "lstm1_video_sequence"
  bottom: "cont_sentence"
  top: "lstm2"
  recurrent_param {
    num_output: 1000
    weight_filler {
      type: "uniform"
      min: -0.08
      max: 0.08
    }
    bias_filler {
      type: "constant"
      value: 0
    }
  }
}
layer {
  name: "predict"
  type: "InnerProduct"
  bottom: "lstm2"
  top: "predict"
  param {
    lr_mult: 1
    decay_mult: 1
  }
  param {
    lr_mult: 2
    decay_mult: 0
  }
  inner_product_param {
    num_output: 46168
    weight_filler {
      type: "uniform"
      min: -0.08
      max: 0.08
    }
    bias_filler {
      type: "constant"
      value: 0
    }
    axis: 2
  }
}
layer {
  name: "probs"
  type: "Softmax"
  bottom: "predict"
  top: "probs"
  softmax_param {
    axis: 2
  }
}
I0924 03:46:11.438410  6612 net.cpp:49] Initializing net from parameters: 
name: "s2vt:features_to_lstm"
state {
  phase: TEST
}
layer {
  name: "input"
  type: "Input"
  top: "frames_fc7"
  top: "cont_sentence"
  top: "input_sentence"
  top: "stage_indicator"
  input_param {
    shape {
      dim: 1
      dim: 4096
    }
    shape {
      dim: 1
      dim: 1
    }
    shape {
      dim: 1
      dim: 1
    }
    shape {
      dim: 1
      dim: 1
    }
  }
}
layer {
  name: "embed_encoder"
  type: "InnerProduct"
  bottom: "frames_fc7"
  top: "embedded_in_frames"
  param {
    lr_mult: 1
    decay_mult: 1
  }
  param {
    lr_mult: 2
    decay_mult: 0
  }
  inner_product_param {
    num_output: 500
    weight_filler {
      type: "xavier"
    }
    bias_filler {
      type: "constant"
      value: 0.2
    }
  }
}
layer {
  name: "reshape_frames"
  type: "Reshape"
  bottom: "embedded_in_frames"
  top: "embedded_input_frames"
  reshape_param {
    shape {
      dim: 1
      dim: 1
      dim: 500
    }
  }
}
layer {
  name: "reshape_stage_indicator"
  type: "Reshape"
  bottom: "stage_indicator"
  top: "reshaped_stage_indicator"
  reshape_param {
    shape {
      dim: 1
      dim: 1
      dim: 1
    }
  }
}
layer {
  name: "embedding"
  type: "Embed"
  bottom: "input_sentence"
  top: "embedded_input_sentence"
  param {
    lr_mult: 1
  }
  embed_param {
    num_output: 500
    input_dim: 46168
    bias_term: false
    weight_filler {
      type: "uniform"
      min: -0.08
      max: 0.08
    }
  }
}
layer {
  name: "lstm1"
  type: "LSTM"
  bottom: "embedded_input_frames"
  bottom: "cont_sentence"
  top: "lstm1"
  recurrent_param {
    num_output: 1000
    weight_filler {
      type: "uniform"
      min: -0.08
      max: 0.08
    }
    bias_filler {
      type: "constant"
      value: 0
    }
  }
}
layer {
  name: "concat"
  type: "Concat"
  bottom: "lstm1"
  bottom: "embedded_input_sentence"
  bottom: "reshaped_stage_indicator"
  top: "lstm1_video_sequence"
  concat_param {
    concat_dim: 2
  }
}
layer {
  name: "lstm2"
  type: "LSTM"
  bottom: "lstm1_video_sequence"
  bottom: "cont_sentence"
  top: "lstm2"
  recurrent_param {
    num_output: 1000
    weight_filler {
      type: "uniform"
      min: -0.08
      max: 0.08
    }
    bias_filler {
      type: "constant"
      value: 0
    }
  }
}
layer {
  name: "predict"
  type: "InnerProduct"
  bottom: "lstm2"
  top: "predict"
  param {
    lr_mult: 1
    decay_mult: 1
  }
  param {
    lr_mult: 2
    decay_mult: 0
  }
  inner_product_param {
    num_output: 46168
    weight_filler {
      type: "uniform"
      min: -0.08
      max: 0.08
    }
    bias_filler {
      type: "constant"
      value: 0
    }
    axis: 2
  }
}
layer {
  name: "probs"
  type: "Softmax"
  bottom: "predict"
  top: "probs"
  softmax_param {
    axis: 2
  }
}
I0924 03:46:11.438465  6648 layer_factory.hpp:77] Creating layer data
I0924 03:46:11.438477  6646 net.cpp:49] Initializing net from parameters: 
name: "s2vt:features_to_lstm"
state {
  phase: TEST
}
layer {
  name: "input"
  type: "Input"
  top: "frames_fc7"
  top: "cont_sentence"
  top: "input_sentence"
  top: "stage_indicator"
  input_param {
    shape {
      dim: 1
      dim: 4096
    }
    shape {
      dim: 1
      dim: 1
    }
    shape {
      dim: 1
      dim: 1
    }
    shape {
      dim: 1
      dim: 1
    }
  }
}
layer {
  name: "embed_encoder"
  type: "InnerProduct"
  bottom: "frames_fc7"
  top: "embedded_in_frames"
  param {
    lr_mult: 1
    decay_mult: 1
  }
  param {
    lr_mult: 2
    decay_mult: 0
  }
  inner_product_param {
    num_output: 500
    weight_filler {
      type: "xavier"
    }
    bias_filler {
      type: "constant"
      value: 0.2
    }
  }
}
layer {
  name: "reshape_frames"
  type: "Reshape"
  bottom: "embedded_in_frames"
  top: "embedded_input_frames"
  reshape_param {
    shape {
      dim: 1
      dim: 1
      dim: 500
    }
  }
}
layer {
  name: "reshape_stage_indicator"
  type: "Reshape"
  bottom: "stage_indicator"
  top: "reshaped_stage_indicator"
  reshape_param {
    shape {
      dim: 1
      dim: 1
      dim: 1
    }
  }
}
layer {
  name: "embedding"
  type: "Embed"
  bottom: "input_sentence"
  top: "embedded_input_sentence"
  param {
    lr_mult: 1
  }
  embed_param {
    num_output: 500
    input_dim: 46168
    bias_term: false
    weight_filler {
      type: "uniform"
      min: -0.08
      max: 0.08
    }
  }
}
layer {
  name: "lstm1"
  type: "LSTM"
  bottom: "embedded_input_frames"
  bottom: "cont_sentence"
  top: "lstm1"
  recurrent_param {
    num_output: 1000
    weight_filler {
      type: "uniform"
      min: -0.08
      max: 0.08
    }
    bias_filler {
      type: "constant"
      value: 0
    }
  }
}
layer {
  name: "concat"
  type: "Concat"
  bottom: "lstm1"
  bottom: "embedded_input_sentence"
  bottom: "reshaped_stage_indicator"
  top: "lstm1_video_sequence"
  concat_param {
    concat_dim: 2
  }
}
layer {
  name: "lstm2"
  type: "LSTM"
  bottom: "lstm1_video_sequence"
  bottom: "cont_sentence"
  top: "lstm2"
  recurrent_param {
    num_output: 1000
    weight_filler {
      type: "uniform"
      min: -0.08
      max: 0.08
    }
    bias_filler {
      type: "constant"
      value: 0
    }
  }
}
layer {
  name: "predict"
  type: "InnerProduct"
  bottom: "lstm2"
  top: "predict"
  param {
    lr_mult: 1
    decay_mult: 1
  }
  param {
    lr_mult: 2
    decay_mult: 0
  }
  inner_product_param {
    num_output: 46168
    weight_filler {
      type: "uniform"
      min: -0.08
      max: 0.08
    }
    bias_filler {
      type: "constant"
      value: 0
    }
    axis: 2
  }
}
layer {
  name: "probs"
  type: "Softmax"
  bottom: "predict"
  top: "probs"
  softmax_param {
    axis: 2
  }
}
I0924 03:46:11.438488  6626 layer_factory.hpp:77] Creating layer input
I0924 03:46:11.438493  6648 net.cpp:91] Creating Layer data
I0924 03:46:11.438501  6626 net.cpp:91] Creating Layer input
I0924 03:46:11.438503  6648 net.cpp:399] data -> data
I0924 03:46:11.438506  6612 layer_factory.hpp:77] Creating layer input
I0924 03:46:11.438508  6626 net.cpp:399] input -> frames_fc7
…
W0924 03:46:11.440043  6618 upgrade_proto.cpp:71] Note that future Caffe releases will only support input layers and not input fields.
I0924 03:46:11.440042  6614 net.cpp:49] Initializing net from parameters: 
name: "s2vt:features_to_lstm"
state {
  phase: TEST
}
layer {
  name: "input"
  type: "Input"
  top: "frames_fc7"
  top: "cont_sentence"
  top: "input_sentence"
  top: "stage_indicator"
  input_param {
    shape {
      dim: 1
      dim: 4096
    }
    shape {
      dim: 1
      dim: 1
    }
    shape {
      dim: 1
      dim: 1
    }
    shape {
      dim: 1
      dim: 1
    }
  }
}
layer {
  name: "embed_encoder"
  type: "InnerProduct"
  bottom: "frames_fc7"
  top: "embedded_in_frames"
  param {
    lr_mult: 1
    decay_mult: 1
  }
  param {
    lr_mult: 2
    decay_mult: 0
  }
  inner_product_param {
    num_output: 500
    weight_filler {
      type: "xavier"
    }
    bias_filler {
      type: "constant"
      value: 0.2
    }
  }
}
layer {
  name: "reshape_frames"
  type: "Reshape"
  bottom: "embedded_in_frames"
  top: "embedded_input_frames"
  reshape_param {
    shape {
      dim: 1
      dim: 1
      dim: 500
    }
  }
}
layer {
  name: "reshape_stage_indicator"
  type: "Reshape"
  bottom: "stage_indicator"
  top: "reshaped_stage_indicator"
  reshape_param {
    shape {
      dim: 1
      dim: 1
      dim: 1
    }
  }
}
layer {
  name: "embedding"
  type: "Embed"
  bottom: "input_sentence"
  top: "embedded_input_sentence"
  param {
    lr_mult: 1
  }
  embed_param {
    num_output: 500
    input_dim: 46168
    bias_term: false
    weight_filler {
      type: "uniform"
      min: -0.08
      max: 0.08
    }
  }
}
layer {
  name: "lstm1"
  type: "LSTM"
  bottom: "embedded_input_frames"
  bottom: "cont_sentence"
  top: "lstm1"
  recurrent_param {
    num_output: 1000
    weight_filler {
      type: "uniform"
      min: -0.08
      max: 0.08
    }
    bias_filler {
      type: "constant"
      value: 0
    }
  }
}
layer {
  name: "concat"
  type: "Concat"
  bottom: "lstm1"
  bottom: "embedded_input_sentence"
  bottom: "reshaped_stage_indicator"
  top: "lstm1_video_sequence"
  concat_param {
    concat_dim: 2
  }
}
layer {
  name: "lstm2"
  type: "LSTM"
  bottom: "lstm1_video_sequence"
  bottom: "cont_sentence"
  top: "lstm2"
  recurrent_param {
    num_output: 1000
    weight_filler {
      type: "uniform"
      min: -0.08
      max: 0.08
    }
    bias_filler {
      type: "constant"
      value: 0
    }
  }
}
layer {
  name: "predict"
  type: "InnerProduct"
  bottom: "lstm2"
  top: "predict"
  param {
    lr_mult: 1
    decay_mult: 1
  }
  param {
    lr_mult: 2
    decay_mult: 0
  }
  inner_product_param {
    num_output: 46168
    weight_filler {
      type: "uniform"
      min: -0.08
      max: 0.08
    }
    bias_filler {
      type: "constant"
      value: 0
    }
    axis: 2
  }
}
layer {
  name: "probs"
  type: "Softmax"
  bottom: "predict"
  top: "probs"
  softmax_param {
    axis: 2
  }
}
I0924 03:46:11.440079  6608 upgrade_proto.cpp:66] Attempting to upgrade input file specified using deprecated input fields: /home/peifeng/work/run/storm102/data/workers/5f92c71b-3c86-42f8-9342-3ae3bf44b5bc/tmp/cvld3008928225606000856/s2vt.words_to_preds.prototxt
I0924 03:46:11.440102  6608 upgrade_proto.cpp:69] Successfully upgraded file specified using deprecated input fields.
…
W0924 03:46:11.440237  6656 upgrade_proto.cpp:71] Note that future Caffe releases will only support input layers and not input fields.
I0924 03:46:11.440294  6630 net.cpp:49] Initializing net from parameters: 
name: "s2vt:features_to_lstm"
state {
  phase: TEST
}
layer {
  name: "input"
  type: "Input"
  top: "frames_fc7"
  top: "cont_sentence"
  top: "input_sentence"
  top: "stage_indicator"
  input_param {
    shape {
      dim: 1
      dim: 4096
    }
    shape {
      dim: 1
      dim: 1
    }
    shape {
      dim: 1
      dim: 1
    }
    shape {
      dim: 1
      dim: 1
    }
  }
}
layer {
  name: "embed_encoder"
  type: "InnerProduct"
  bottom: "frames_fc7"
  top: "embedded_in_frames"
  param {
    lr_mult: 1
    decay_mult: 1
  }
  param {
    lr_mult: 2
    decay_mult: 0
  }
  inner_product_param {
    num_output: 500
    weight_filler {
      type: "xavier"
    }
    bias_filler {
      type: "constant"
      value: 0.2
    }
  }
}
layer {
  name: "reshape_frames"
  type: "Reshape"
  bottom: "embedded_in_frames"
  top: "embedded_input_frames"
  reshape_param {
    shape {
      dim: 1
      dim: 1
      dim: 500
    }
  }
}
layer {
  name: "reshape_stage_indicator"
  type: "Reshape"
  bottom: "stage_indicator"
  top: "reshaped_stage_indicator"
  reshape_param {
    shape {
      dim: 1
      dim: 1
      dim: 1
    }
  }
}
layer {
  name: "embedding"
  type: "Embed"
  bottom: "input_sentence"
  top: "embedded_input_sentence"
  param {
    lr_mult: 1
  }
  embed_param {
    num_output: 500
    input_dim: 46168
    bias_term: false
    weight_filler {
      type: "uniform"
      min: -0.08
      max: 0.08
    }
  }
}
layer {
  name: "lstm1"
  type: "LSTM"
  bottom: "embedded_input_frames"
  bottom: "cont_sentence"
  top: "lstm1"
  recurrent_param {
    num_output: 1000
    weight_filler {
      type: "uniform"
      min: -0.08
      max: 0.08
    }
    bias_filler {
      type: "constant"
      value: 0
    }
  }
}
layer {
  name: "concat"
  type: "Concat"
  bottom: "lstm1"
  bottom: "embedded_input_sentence"
  bottom: "reshaped_stage_indicator"
  top: "lstm1_video_sequence"
  concat_param {
    concat_dim: 2
  }
}
layer {
  name: "lstm2"
  type: "LSTM"
  bottom: "lstm1_video_sequence"
  bottom: "cont_sentence"
  top: "lstm2"
  recurrent_param {
    num_output: 1000
    weight_filler {
      type: "uniform"
      min: -0.08
      max: 0.08
    }
    bias_filler {
      type: "constant"
      value: 0
    }
  }
}
layer {
  name: "predict"
  type: "InnerProduct"
  bottom: "lstm2"
  top: "predict"
  param {
    lr_mult: 1
    decay_mult: 1
  }
  param {
    lr_mult: 2
    decay_mult: 0
  }
  inner_product_param {
    num_output: 46168
    weight_filler {
      type: "uniform"
      min: -0.08
      max: 0.08
    }
    bias_filler {
      type: "constant"
      value: 0
    }
    axis: 2
  }
}
layer {
  name: "probs"
  type: "Softmax"
  bottom: "predict"
  top: "probs"
  softmax_param {
    axis: 2
  }
}
I0924 03:46:11.440407  6618 net.cpp:49] Initializing net from parameters: 
name: "s2vt:features_to_lstm"
state {
  phase: TEST
}
layer {
  name: "input"
  type: "Input"
  top: "frames_fc7"
  top: "cont_sentence"
  top: "input_sentence"
  top: "stage_indicator"
  input_param {
    shape {
      dim: 1
      dim: 4096
    }
    shape {
      dim: 1
      dim: 1
    }
    shape {
      dim: 1
      dim: 1
    }
    shape {
      dim: 1
      dim: 1
    }
  }
}
layer {
  name: "embed_encoder"
  type: "InnerProduct"
  bottom: "frames_fc7"
  top: "embedded_in_frames"
  param {
    lr_mult: 1
    decay_mult: 1
  }
  param {
    lr_mult: 2
    decay_mult: 0
  }
  inner_product_param {
    num_output: 500
    weight_filler {
      type: "xavier"
    }
    bias_filler {
      type: "constant"
      value: 0.2
    }
  }
}
layer {
  name: "reshape_frames"
  type: "Reshape"
  bottom: "embedded_in_frames"
  top: "embedded_input_frames"
  reshape_param {
    shape {
      dim: 1
      dim: 1
      dim: 500
    }
  }
}
layer {
  name: "reshape_stage_indicator"
  type: "Reshape"
  bottom: "stage_indicator"
  top: "reshaped_stage_indicator"
  reshape_param {
    shape {
      dim: 1
      dim: 1
      dim: 1
    }
  }
}
layer {
  name: "embedding"
  type: "Embed"
  bottom: "input_sentence"
  top: "embedded_input_sentence"
  param {
    lr_mult: 1
  }
  embed_param {
    num_output: 500
    input_dim: 46168
    bias_term: false
    weight_filler {
      type: "uniform"
      min: -0.08
      max: 0.08
    }
  }
}
layer {
  name: "lstm1"
  type: "LSTM"
  bottom: "embedded_input_frames"
  bottom: "cont_sentence"
  top: "lstm1"
  recurrent_param {
    num_output: 1000
    weight_filler {
      type: "uniform"
      min: -0.08
      max: 0.08
    }
    bias_filler {
      type: "constant"
      value: 0
    }
  }
}
layer {
  name: "concat"
  type: "Concat"
  bottom: "lstm1"
  bottom: "embedded_input_sentence"
  bottom: "reshaped_stage_indicator"
  top: "lstm1_video_sequence"
  concat_param {
    concat_dim: 2
  }
}
layer {
  name: "lstm2"
  type: "LSTM"
  bottom: "lstm1_video_sequence"
  bottom: "cont_sentence"
  top: "lstm2"
  recurrent_param {
    num_output: 1000
    weight_filler {
      type: "uniform"
      min: -0.08
      max: 0.08
    }
    bias_filler {
      type: "constant"
      value: 0
    }
  }
}
layer {
  name: "predict"
  type: "InnerProduct"
  bottom: "lstm2"
  top: "predict"
  param {
    lr_mult: 1
    decay_mult: 1
  }
  param {
    lr_mult: 2
    decay_mult: 0
  }
  inner_product_param {
    num_output: 46168
    weight_filler {
      type: "uniform"
      min: -0.08
      max: 0.08
    }
    bias_filler {
      type: "constant"
      value: 0
    }
    axis: 2
  }
}
layer {
  name: "probs"
  type: "Softmax"
  bottom: "predict"
  top: "probs"
  softmax_param {
    axis: 2
  }
}
I0924 03:46:11.440418  6630 layer_factory.hpp:77] Creating layer input
I0924 03:46:11.440418  6608 net.cpp:49] Initializing net from parameters: 
name: "s2vt:features_to_lstm"
state {
  phase: TEST
}
layer {
  name: "input"
  type: "Input"
  top: "frames_fc7"
  top: "cont_sentence"
  top: "input_sentence"
  top: "stage_indicator"
  input_param {
    shape {
      dim: 1
      dim: 4096
    }
    shape {
      dim: 1
      dim: 1
    }
    shape {
      dim: 1
      dim: 1
    }
    shape {
      dim: 1
      dim: 1
    }
  }
}
layer {
  name: "embed_encoder"
  type: "InnerProduct"
  bottom: "frames_fc7"
  top: "embedded_in_frames"
  param {
    lr_mult: 1
    decay_mult: 1
  }
  param {
    lr_mult: 2
    decay_mult: 0
  }
  inner_product_param {
    num_output: 500
    weight_filler {
      type: "xavier"
    }
    bias_filler {
      type: "constant"
      value: 0.2
    }
  }
}
layer {
  name: "reshape_frames"
  type: "Reshape"
  bottom: "embedded_in_frames"
  top: "embedded_input_frames"
  reshape_param {
    shape {
      dim: 1
      dim: 1
      dim: 500
    }
  }
}
layer {
  name: "reshape_stage_indicator"
  type: "Reshape"
  bottom: "stage_indicator"
  top: "reshaped_stage_indicator"
  reshape_param {
    shape {
      dim: 1
      dim: 1
      dim: 1
    }
  }
}
layer {
  name: "embedding"
  type: "Embed"
  bottom: "input_sentence"
  top: "embedded_input_sentence"
  param {
    lr_mult: 1
  }
  embed_param {
    num_output: 500
    input_dim: 46168
    bias_term: false
    weight_filler {
      type: "uniform"
      min: -0.08
      max: 0.08
    }
  }
}
layer {
  name: "lstm1"
  type: "LSTM"
  bottom: "embedded_input_frames"
  bottom: "cont_sentence"
  top: "lstm1"
  recurrent_param {
    num_output: 1000
    weight_filler {
      type: "uniform"
      min: -0.08
      max: 0.08
    }
    bias_filler {
      type: "constant"
      value: 0
    }
  }
}
layer {
  name: "concat"
  type: "Concat"
  bottom: "lstm1"
  bottom: "embedded_input_sentence"
  bottom: "reshaped_stage_indicator"
  top: "lstm1_video_sequence"
  concat_param {
    concat_dim: 2
  }
}
layer {
  name: "lstm2"
  type: "LSTM"
  bottom: "lstm1_video_sequence"
  bottom: "cont_sentence"
  top: "lstm2"
  recurrent_param {
    num_output: 1000
    weight_filler {
      type: "uniform"
      min: -0.08
      max: 0.08
    }
    bias_filler {
      type: "constant"
      value: 0
    }
  }
}
layer {
  name: "predict"
  type: "InnerProduct"
  bottom: "lstm2"
  top: "predict"
  param {
    lr_mult: 1
    decay_mult: 1
  }
  param {
    lr_mult: 2
    decay_mult: 0
  }
  inner_product_param {
    num_output: 46168
    weight_filler {
      type: "uniform"
      min: -0.08
      max: 0.08
    }
    bias_filler {
      type: "constant"
      value: 0
    }
    axis: 2
  }
}
layer {
  name: "probs"
  type: "Softmax"
  bottom: "predict"
  top: "probs"
  softmax_param {
    axis: 2
  }
}
I0924 03:46:11.440448  6630 net.cpp:91] Creating Layer input
I0924 03:46:11.440465  6630 net.cpp:399] input -> frames_fc7
I0924 03:46:11.440487  6630 net.cpp:399] input -> cont_sentence
I0924 03:46:11.440506  6630 net.cpp:399] input -> input_sentence
I0924 03:46:11.440523  6630 net.cpp:399] input -> stage_indicator
I0924 03:46:11.440560  6608 layer_factory.hpp:77] Creating layer input
I0924 03:46:11.440564  6618 layer_factory.hpp:77] Creating layer input
I0924 03:46:11.440578  6608 net.cpp:91] Creating Layer input
I0924 03:46:11.440589  6618 net.cpp:91] Creating Layer input
I0924 03:46:11.440593  6608 net.cpp:399] input -> frames_fc7
I0924 03:46:11.440603  6618 net.cpp:399] input -> frames_fc7
I0924 03:46:11.440611  6608 net.cpp:399] input -> cont_sentence
I0924 03:46:11.440616  6656 net.cpp:49] Initializing net from parameters: 
name: "s2vt:features_to_lstm"
state {
  phase: TEST
}
layer {
  name: "input"
  type: "Input"
  top: "frames_fc7"
  top: "cont_sentence"
  top: "input_sentence"
  top: "stage_indicator"
  input_param {
    shape {
      dim: 1
      dim: 4096
    }
    shape {
      dim: 1
      dim: 1
    }
    shape {
      dim: 1
      dim: 1
    }
    shape {
      dim: 1
      dim: 1
    }
  }
}
layer {
  name: "embed_encoder"
  type: "InnerProduct"
  bottom: "frames_fc7"
  top: "embedded_in_frames"
  param {
    lr_mult: 1
    decay_mult: 1
  }
  param {
    lr_mult: 2
    decay_mult: 0
  }
  inner_product_param {
    num_output: 500
    weight_filler {
      type: "xavier"
    }
    bias_filler {
      type: "constant"
      value: 0.2
    }
  }
}
layer {
  name: "reshape_frames"
  type: "Reshape"
  bottom: "embedded_in_frames"
  top: "embedded_input_frames"
  reshape_param {
    shape {
      dim: 1
      dim: 1
      dim: 500
    }
  }
}
layer {
  name: "reshape_stage_indicator"
  type: "Reshape"
  bottom: "stage_indicator"
  top: "reshaped_stage_indicator"
  reshape_param {
    shape {
      dim: 1
      dim: 1
      dim: 1
    }
  }
}
layer {
  name: "embedding"
  type: "Embed"
  bottom: "input_sentence"
  top: "embedded_input_sentence"
  param {
    lr_mult: 1
  }
  embed_param {
    num_output: 500
    input_dim: 46168
    bias_term: false
    weight_filler {
      type: "uniform"
      min: -0.08
      max: 0.08
    }
  }
}
layer {
  name: "lstm1"
  type: "LSTM"
  bottom: "embedded_input_frames"
  bottom: "cont_sentence"
  top: "lstm1"
  recurrent_param {
    num_output: 1000
    weight_filler {
      type: "uniform"
      min: -0.08
      max: 0.08
    }
    bias_filler {
      type: "constant"
      value: 0
    }
  }
}
layer {
  name: "concat"
  type: "Concat"
  bottom: "lstm1"
  bottom: "embedded_input_sentence"
  bottom: "reshaped_stage_indicator"
  top: "lstm1_video_sequence"
  concat_param {
    concat_dim: 2
  }
}
layer {
  name: "lstm2"
  type: "LSTM"
  bottom: "lstm1_video_sequence"
  bottom: "cont_sentence"
  top: "lstm2"
  recurrent_param {
    num_output: 1000
    weight_filler {
      type: "uniform"
      min: -0.08
      max: 0.08
    }
    bias_filler {
      type: "constant"
      value: 0
    }
  }
}
layer {
  name: "predict"
  type: "InnerProduct"
  bottom: "lstm2"
  top: "predict"
  param {
    lr_mult: 1
    decay_mult: 1
  }
  param {
    lr_mult: 2
    decay_mult: 0
  }
  inner_product_param {
    num_output: 46168
    weight_filler {
      type: "uniform"
      min: -0.08
      max: 0.08
    }
    bias_filler {
      type: "constant"
      value: 0
    }
    axis: 2
  }
}
layer {
  name: "probs"
  type: "Softmax"
  bottom: "predict"
  top: "probs"
  softmax_param {
    axis: 2
  }
}
I0924 03:46:11.440630  6608 net.cpp:399] input -> input_sentence
I0924 03:46:11.440649  6608 net.cpp:399] input -> stage_indicator
I0924 03:46:11.440625  6618 net.cpp:399] input -> cont_sentence
I0924 03:46:11.440672  6618 net.cpp:399] input -> input_sentence
I0924 03:46:11.440690  6618 net.cpp:399] input -> stage_indicator
I0924 03:46:11.440776  6656 layer_factory.hpp:77] Creating layer input
I0924 03:46:11.440801  6656 net.cpp:91] Creating Layer input
I0924 03:46:11.440816  6656 net.cpp:399] input -> frames_fc7
I0924 03:46:11.440839  6656 net.cpp:399] input -> cont_sentence
I0924 03:46:11.440860  6656 net.cpp:399] input -> input_sentence
I0924 03:46:11.440881  6656 net.cpp:399] input -> stage_indicator
I0924 03:46:12.319016  6648 net.cpp:141] Setting up data
I0924 03:46:12.319146  6648 net.cpp:148] Top shape: 10 3 227 227 (1545870)
I0924 03:46:12.319154  6648 net.cpp:156] Memory required for data: 6183480
I0924 03:46:12.319177  6648 layer_factory.hpp:77] Creating layer conv1
I0924 03:46:12.319211  6648 net.cpp:91] Creating Layer conv1
I0924 03:46:12.319219  6648 net.cpp:425] conv1 <- data
I0924 03:46:12.319213  6612 net.cpp:141] Setting up input
I0924 03:46:12.319233  6648 net.cpp:399] conv1 -> conv1
I0924 03:46:12.319267  6612 net.cpp:148] Top shape: 1 4096 (4096)
I0924 03:46:12.319293  6612 net.cpp:148] Top shape: 1 1 (1)
I0924 03:46:12.319311  6612 net.cpp:148] Top shape: 1 1 (1)
I0924 03:46:12.319330  6612 net.cpp:148] Top shape: 1 1 (1)
I0924 03:46:12.319344  6612 net.cpp:156] Memory required for data: 16396
I0924 03:46:12.319365  6612 layer_factory.hpp:77] Creating layer cont_sentence_input_1_split
I0924 03:46:12.319416  6612 net.cpp:91] Creating Layer cont_sentence_input_1_split
I0924 03:46:12.319435  6612 net.cpp:425] cont_sentence_input_1_split <- cont_sentence
I0924 03:46:12.319492  6612 net.cpp:399] cont_sentence_input_1_split -> cont_sentence_input_1_split_0
I0924 03:46:12.319517  6612 net.cpp:399] cont_sentence_input_1_split -> cont_sentence_input_1_split_1
I0924 03:46:12.320554  6618 net.cpp:141] Setting up input
I0924 03:46:12.320591  6618 net.cpp:148] Top shape: 1 4096 (4096)
I0924 03:46:12.320603  6618 net.cpp:148] Top shape: 1 1 (1)
I0924 03:46:12.320613  6618 net.cpp:148] Top shape: 1 1 (1)
I0924 03:46:12.320623  6618 net.cpp:148] Top shape: 1 1 (1)
I0924 03:46:12.320631  6618 net.cpp:156] Memory required for data: 16396
I0924 03:46:12.320657  6618 layer_factory.hpp:77] Creating layer cont_sentence_input_1_split
I0924 03:46:12.320693  6618 net.cpp:91] Creating Layer cont_sentence_input_1_split
I0924 03:46:12.320703  6618 net.cpp:425] cont_sentence_input_1_split <- cont_sentence
I0924 03:46:12.320718  6618 net.cpp:399] cont_sentence_input_1_split -> cont_sentence_input_1_split_0
I0924 03:46:12.320736  6618 net.cpp:399] cont_sentence_input_1_split -> cont_sentence_input_1_split_1
I0924 03:46:12.320806  6618 net.cpp:141] Setting up cont_sentence_input_1_split
I0924 03:46:12.320821  6618 net.cpp:148] Top shape: 1 1 (1)
I0924 03:46:12.320832  6618 net.cpp:148] Top shape: 1 1 (1)
I0924 03:46:12.320838  6618 net.cpp:156] Memory required for data: 16404
I0924 03:46:12.320853  6618 layer_factory.hpp:77] Creating layer embed_encoder
I0924 03:46:12.320880  6618 net.cpp:91] Creating Layer embed_encoder
I0924 03:46:12.320890  6618 net.cpp:425] embed_encoder <- frames_fc7
I0924 03:46:12.320904  6618 net.cpp:399] embed_encoder -> embedded_in_frames
I0924 03:46:12.326472  6612 net.cpp:141] Setting up cont_sentence_input_1_split
I0924 03:46:12.326539  6612 net.cpp:148] Top shape: 1 1 (1)
I0924 03:46:12.326555  6612 net.cpp:148] Top shape: 1 1 (1)
I0924 03:46:12.326563  6612 net.cpp:156] Memory required for data: 16404
I0924 03:46:12.326578  6612 layer_factory.hpp:77] Creating layer embed_encoder
I0924 03:46:12.326637  6612 net.cpp:91] Creating Layer embed_encoder
I0924 03:46:12.326652  6612 net.cpp:425] embed_encoder <- frames_fc7
I0924 03:46:12.326671  6612 net.cpp:399] embed_encoder -> embedded_in_frames
I0924 03:46:12.338413  6608 net.cpp:141] Setting up input
I0924 03:46:12.338440  6626 net.cpp:141] Setting up input
I0924 03:46:12.338481  6608 net.cpp:148] Top shape: 1 4096 (4096)
I0924 03:46:12.338490  6626 net.cpp:148] Top shape: 1 4096 (4096)
I0924 03:46:12.338492  6608 net.cpp:148] Top shape: 1 1 (1)
I0924 03:46:12.338503  6626 net.cpp:148] Top shape: 1 1 (1)
I0924 03:46:12.338508  6608 net.cpp:148] Top shape: 1 1 (1)
I0924 03:46:12.338511  6626 net.cpp:148] Top shape: 1 1 (1)
I0924 03:46:12.338516  6608 net.cpp:148] Top shape: 1 1 (1)
I0924 03:46:12.338520  6626 net.cpp:148] Top shape: 1 1 (1)
I0924 03:46:12.338521  6608 net.cpp:156] Memory required for data: 16396
I0924 03:46:12.338526  6626 net.cpp:156] Memory required for data: 16396
I0924 03:46:12.338536  6608 layer_factory.hpp:77] Creating layer cont_sentence_input_1_split
I0924 03:46:12.338538  6626 layer_factory.hpp:77] Creating layer cont_sentence_input_1_split
I0924 03:46:12.338558  6626 net.cpp:91] Creating Layer cont_sentence_input_1_split
I0924 03:46:12.338559  6608 net.cpp:91] Creating Layer cont_sentence_input_1_split
I0924 03:46:12.338569  6626 net.cpp:425] cont_sentence_input_1_split <- cont_sentence
I0924 03:46:12.338574  6608 net.cpp:425] cont_sentence_input_1_split <- cont_sentence
I0924 03:46:12.338584  6626 net.cpp:399] cont_sentence_input_1_split -> cont_sentence_input_1_split_0
I0924 03:46:12.338587  6608 net.cpp:399] cont_sentence_input_1_split -> cont_sentence_input_1_split_0
I0924 03:46:12.338614  6608 net.cpp:399] cont_sentence_input_1_split -> cont_sentence_input_1_split_1
I0924 03:46:12.338615  6626 net.cpp:399] cont_sentence_input_1_split -> cont_sentence_input_1_split_1
I0924 03:46:12.338922  6614 net.cpp:141] Setting up input
I0924 03:46:12.338940  6614 net.cpp:148] Top shape: 1 4096 (4096)
I0924 03:46:12.338948  6614 net.cpp:148] Top shape: 1 1 (1)
I0924 03:46:12.338954  6614 net.cpp:148] Top shape: 1 1 (1)
I0924 03:46:12.338959  6614 net.cpp:148] Top shape: 1 1 (1)
I0924 03:46:12.338963  6614 net.cpp:156] Memory required for data: 16396
I0924 03:46:12.338961  6630 net.cpp:141] Setting up input
I0924 03:46:12.338971  6614 layer_factory.hpp:77] Creating layer cont_sentence_input_1_split
I0924 03:46:12.338984  6630 net.cpp:148] Top shape: 1 4096 (4096)
I0924 03:46:12.338992  6630 net.cpp:148] Top shape: 1 1 (1)
I0924 03:46:12.338992  6614 net.cpp:91] Creating Layer cont_sentence_input_1_split
I0924 03:46:12.338999  6630 net.cpp:148] Top shape: 1 1 (1)
I0924 03:46:12.339000  6614 net.cpp:425] cont_sentence_input_1_split <- cont_sentence
I0924 03:46:12.339005  6630 net.cpp:148] Top shape: 1 1 (1)
I0924 03:46:12.339010  6630 net.cpp:156] Memory required for data: 16396
I0924 03:46:12.339010  6614 net.cpp:399] cont_sentence_input_1_split -> cont_sentence_input_1_split_0
I0924 03:46:12.339021  6630 layer_factory.hpp:77] Creating layer cont_sentence_input_1_split
I0924 03:46:12.339030  6614 net.cpp:399] cont_sentence_input_1_split -> cont_sentence_input_1_split_1
I0924 03:46:12.339033  6630 net.cpp:91] Creating Layer cont_sentence_input_1_split
I0924 03:46:12.339040  6630 net.cpp:425] cont_sentence_input_1_split <- cont_sentence
I0924 03:46:12.339048  6630 net.cpp:399] cont_sentence_input_1_split -> cont_sentence_input_1_split_0
I0924 03:46:12.339061  6630 net.cpp:399] cont_sentence_input_1_split -> cont_sentence_input_1_split_1
I0924 03:46:12.339087  6614 net.cpp:141] Setting up cont_sentence_input_1_split
I0924 03:46:12.339097  6614 net.cpp:148] Top shape: 1 1 (1)
I0924 03:46:12.339103  6614 net.cpp:148] Top shape: 1 1 (1)
I0924 03:46:12.339107  6614 net.cpp:156] Memory required for data: 16404
I0924 03:46:12.339112  6614 layer_factory.hpp:77] Creating layer embed_encoder
I0924 03:46:12.339131  6614 net.cpp:91] Creating Layer embed_encoder
I0924 03:46:12.339138  6614 net.cpp:425] embed_encoder <- frames_fc7
I0924 03:46:12.339146  6614 net.cpp:399] embed_encoder -> embedded_in_frames
I0924 03:46:12.339213  6656 net.cpp:141] Setting up input
I0924 03:46:12.339226  6656 net.cpp:148] Top shape: 1 4096 (4096)
I0924 03:46:12.339232  6656 net.cpp:148] Top shape: 1 1 (1)
I0924 03:46:12.339238  6656 net.cpp:148] Top shape: 1 1 (1)
I0924 03:46:12.339244  6656 net.cpp:148] Top shape: 1 1 (1)
I0924 03:46:12.339248  6656 net.cpp:156] Memory required for data: 16396
I0924 03:46:12.339256  6656 layer_factory.hpp:77] Creating layer cont_sentence_input_1_split
I0924 03:46:12.339265  6656 net.cpp:91] Creating Layer cont_sentence_input_1_split
I0924 03:46:12.339272  6656 net.cpp:425] cont_sentence_input_1_split <- cont_sentence
I0924 03:46:12.339280  6656 net.cpp:399] cont_sentence_input_1_split -> cont_sentence_input_1_split_0
I0924 03:46:12.339290  6656 net.cpp:399] cont_sentence_input_1_split -> cont_sentence_input_1_split_1
I0924 03:46:12.339332  6646 net.cpp:141] Setting up input
I0924 03:46:12.339397  6656 net.cpp:141] Setting up cont_sentence_input_1_split
I0924 03:46:12.339406  6646 net.cpp:148] Top shape: 1 4096 (4096)
I0924 03:46:12.339409  6656 net.cpp:148] Top shape: 1 1 (1)
I0924 03:46:12.339407  6630 net.cpp:141] Setting up cont_sentence_input_1_split
I0924 03:46:12.339417  6656 net.cpp:148] Top shape: 1 1 (1)
I0924 03:46:12.339418  6646 net.cpp:148] Top shape: 1 1 (1)
I0924 03:46:12.339422  6656 net.cpp:156] Memory required for data: 16404
I0924 03:46:12.339426  6630 net.cpp:148] Top shape: 1 1 (1)
I0924 03:46:12.339428  6646 net.cpp:148] Top shape: 1 1 (1)
I0924 03:46:12.339427  6656 layer_factory.hpp:77] Creating layer embed_encoder
I0924 03:46:12.339438  6646 net.cpp:148] Top shape: 1 1 (1)
I0924 03:46:12.339440  6630 net.cpp:148] Top shape: 1 1 (1)
I0924 03:46:12.339447  6646 net.cpp:156] Memory required for data: 16396
I0924 03:46:12.339452  6656 net.cpp:91] Creating Layer embed_encoder
I0924 03:46:12.339457  6646 layer_factory.hpp:77] Creating layer cont_sentence_input_1_split
I0924 03:46:12.339448  6630 net.cpp:156] Memory required for data: 16404
I0924 03:46:12.339462  6656 net.cpp:425] embed_encoder <- frames_fc7
I0924 03:46:12.339447  6626 net.cpp:141] Setting up cont_sentence_input_1_split
I0924 03:46:12.339483  6630 layer_factory.hpp:77] Creating layer embed_encoder
I0924 03:46:12.339493  6646 net.cpp:91] Creating Layer cont_sentence_input_1_split
I0924 03:46:12.339499  6626 net.cpp:148] Top shape: 1 1 (1)
I0924 03:46:12.339493  6656 net.cpp:399] embed_encoder -> embedded_in_frames
I0924 03:46:12.339509  6646 net.cpp:425] cont_sentence_input_1_split <- cont_sentence
I0924 03:46:12.339510  6630 net.cpp:91] Creating Layer embed_encoder
I0924 03:46:12.339522  6646 net.cpp:399] cont_sentence_input_1_split -> cont_sentence_input_1_split_0
I0924 03:46:12.339524  6630 net.cpp:425] embed_encoder <- frames_fc7
I0924 03:46:12.339511  6626 net.cpp:148] Top shape: 1 1 (1)
I0924 03:46:12.339540  6630 net.cpp:399] embed_encoder -> embedded_in_frames
I0924 03:46:12.339542  6626 net.cpp:156] Memory required for data: 16404
I0924 03:46:12.339540  6646 net.cpp:399] cont_sentence_input_1_split -> cont_sentence_input_1_split_1
I0924 03:46:12.339592  6626 layer_factory.hpp:77] Creating layer embed_encoder
I0924 03:46:12.339617  6626 net.cpp:91] Creating Layer embed_encoder
I0924 03:46:12.339627  6626 net.cpp:425] embed_encoder <- frames_fc7
I0924 03:46:12.339645  6626 net.cpp:399] embed_encoder -> embedded_in_frames
I0924 03:46:12.344024  6608 net.cpp:141] Setting up cont_sentence_input_1_split
I0924 03:46:12.344092  6608 net.cpp:148] Top shape: 1 1 (1)
I0924 03:46:12.344110  6608 net.cpp:148] Top shape: 1 1 (1)
I0924 03:46:12.344120  6608 net.cpp:156] Memory required for data: 16404
I0924 03:46:12.344137  6608 layer_factory.hpp:77] Creating layer embed_encoder
I0924 03:46:12.344172  6608 net.cpp:91] Creating Layer embed_encoder
I0924 03:46:12.344182  6608 net.cpp:425] embed_encoder <- frames_fc7
I0924 03:46:12.344197  6608 net.cpp:399] embed_encoder -> embedded_in_frames
I0924 03:46:12.370154  6646 net.cpp:141] Setting up cont_sentence_input_1_split
I0924 03:46:12.370216  6646 net.cpp:148] Top shape: 1 1 (1)
I0924 03:46:12.370229  6646 net.cpp:148] Top shape: 1 1 (1)
I0924 03:46:12.370237  6646 net.cpp:156] Memory required for data: 16404
I0924 03:46:12.370254  6646 layer_factory.hpp:77] Creating layer embed_encoder
I0924 03:46:12.370290  6646 net.cpp:91] Creating Layer embed_encoder
I0924 03:46:12.370302  6646 net.cpp:425] embed_encoder <- frames_fc7
I0924 03:46:12.370319  6646 net.cpp:399] embed_encoder -> embedded_in_frames
I0924 03:46:12.386454  6612 net.cpp:141] Setting up embed_encoder
I0924 03:46:12.386505  6612 net.cpp:148] Top shape: 1 500 (500)
I0924 03:46:12.386512  6612 net.cpp:156] Memory required for data: 18404
I0924 03:46:12.386544  6612 layer_factory.hpp:77] Creating layer reshape_frames
I0924 03:46:12.386580  6612 net.cpp:91] Creating Layer reshape_frames
I0924 03:46:12.386593  6612 net.cpp:425] reshape_frames <- embedded_in_frames
I0924 03:46:12.386590  6626 net.cpp:141] Setting up embed_encoder
I0924 03:46:12.386646  6612 net.cpp:399] reshape_frames -> embedded_input_frames
I0924 03:46:12.386654  6626 net.cpp:148] Top shape: 1 500 (500)
I0924 03:46:12.386663  6626 net.cpp:156] Memory required for data: 18404
I0924 03:46:12.386685  6626 layer_factory.hpp:77] Creating layer reshape_frames
I0924 03:46:12.386704  6626 net.cpp:91] Creating Layer reshape_frames
I0924 03:46:12.386713  6626 net.cpp:425] reshape_frames <- embedded_in_frames
I0924 03:46:12.386723  6626 net.cpp:399] reshape_frames -> embedded_input_frames
I0924 03:46:12.386752  6618 net.cpp:141] Setting up embed_encoder
I0924 03:46:12.386771  6618 net.cpp:148] Top shape: 1 500 (500)
I0924 03:46:12.386776  6618 net.cpp:156] Memory required for data: 18404
I0924 03:46:12.386792  6618 layer_factory.hpp:77] Creating layer reshape_frames
I0924 03:46:12.386804  6626 net.cpp:141] Setting up reshape_frames
I0924 03:46:12.386827  6626 net.cpp:148] Top shape: 1 1 500 (500)
I0924 03:46:12.386828  6618 net.cpp:91] Creating Layer reshape_frames
I0924 03:46:12.386833  6626 net.cpp:156] Memory required for data: 20404
I0924 03:46:12.386837  6618 net.cpp:425] reshape_frames <- embedded_in_frames
I0924 03:46:12.386840  6626 layer_factory.hpp:77] Creating layer reshape_stage_indicator
I0924 03:46:12.386848  6618 net.cpp:399] reshape_frames -> embedded_input_frames
I0924 03:46:12.386855  6626 net.cpp:91] Creating Layer reshape_stage_indicator
I0924 03:46:12.386862  6626 net.cpp:425] reshape_stage_indicator <- stage_indicator
I0924 03:46:12.386871  6626 net.cpp:399] reshape_stage_indicator -> reshaped_stage_indicator
I0924 03:46:12.387034  6612 net.cpp:141] Setting up reshape_frames
I0924 03:46:12.387053  6612 net.cpp:148] Top shape: 1 1 500 (500)
I0924 03:46:12.387060  6612 net.cpp:156] Memory required for data: 20404
I0924 03:46:12.387069  6612 layer_factory.hpp:77] Creating layer reshape_stage_indicator
I0924 03:46:12.387086  6612 net.cpp:91] Creating Layer reshape_stage_indicator
I0924 03:46:12.387096  6612 net.cpp:425] reshape_stage_indicator <- stage_indicator
I0924 03:46:12.387095  6614 net.cpp:141] Setting up embed_encoder
I0924 03:46:12.387117  6612 net.cpp:399] reshape_stage_indicator -> reshaped_stage_indicator
I0924 03:46:12.387121  6614 net.cpp:148] Top shape: 1 500 (500)
I0924 03:46:12.387130  6614 net.cpp:156] Memory required for data: 18404
I0924 03:46:12.387140  6626 net.cpp:141] Setting up reshape_stage_indicator
I0924 03:46:12.387156  6626 net.cpp:148] Top shape: 1 1 1 (1)
I0924 03:46:12.387151  6614 layer_factory.hpp:77] Creating layer reshape_frames
I0924 03:46:12.387161  6626 net.cpp:156] Memory required for data: 20408
I0924 03:46:12.387166  6626 layer_factory.hpp:77] Creating layer embedding
I0924 03:46:12.387172  6614 net.cpp:91] Creating Layer reshape_frames
I0924 03:46:12.387181  6626 net.cpp:91] Creating Layer embedding
I0924 03:46:12.387184  6614 net.cpp:425] reshape_frames <- embedded_in_frames
I0924 03:46:12.387188  6626 net.cpp:425] embedding <- input_sentence
I0924 03:46:12.387192  6612 net.cpp:141] Setting up reshape_stage_indicator
I0924 03:46:12.387200  6626 net.cpp:399] embedding -> embedded_input_sentence
I0924 03:46:12.387202  6614 net.cpp:399] reshape_frames -> embedded_input_frames
I0924 03:46:12.387207  6612 net.cpp:148] Top shape: 1 1 1 (1)
I0924 03:46:12.387215  6612 net.cpp:156] Memory required for data: 20408
I0924 03:46:12.387219  6656 net.cpp:141] Setting up embed_encoder
I0924 03:46:12.387223  6612 layer_factory.hpp:77] Creating layer embedding
I0924 03:46:12.387241  6656 net.cpp:148] Top shape: 1 500 (500)
I0924 03:46:12.387248  6656 net.cpp:156] Memory required for data: 18404
I0924 03:46:12.387253  6612 net.cpp:91] Creating Layer embedding
I0924 03:46:12.387259  6612 net.cpp:425] embedding <- input_sentence
I0924 03:46:12.387265  6656 layer_factory.hpp:77] Creating layer reshape_frames
I0924 03:46:12.387269  6612 net.cpp:399] embedding -> embedded_input_sentence
I0924 03:46:12.387277  6656 net.cpp:91] Creating Layer reshape_frames
I0924 03:46:12.387284  6656 net.cpp:425] reshape_frames <- embedded_in_frames
I0924 03:46:12.387295  6656 net.cpp:399] reshape_frames -> embedded_input_frames
I0924 03:46:12.432648  6618 net.cpp:141] Setting up reshape_frames
I0924 03:46:12.432703  6618 net.cpp:148] Top shape: 1 1 500 (500)
I0924 03:46:12.432709  6618 net.cpp:156] Memory required for data: 20404
I0924 03:46:12.432746  6618 layer_factory.hpp:77] Creating layer reshape_stage_indicator
I0924 03:46:12.432741  6614 net.cpp:141] Setting up reshape_frames
I0924 03:46:12.432770  6618 net.cpp:91] Creating Layer reshape_stage_indicator
I0924 03:46:12.432777  6618 net.cpp:425] reshape_stage_indicator <- stage_indicator
I0924 03:46:12.432777  6630 net.cpp:141] Setting up embed_encoder
I0924 03:46:12.432782  6614 net.cpp:148] Top shape: 1 1 500 (500)
I0924 03:46:12.432797  6618 net.cpp:399] reshape_stage_indicator -> reshaped_stage_indicator
I0924 03:46:12.432803  6614 net.cpp:156] Memory required for data: 20404
I0924 03:46:12.432801  6630 net.cpp:148] Top shape: 1 500 (500)
I0924 03:46:12.432816  6614 layer_factory.hpp:77] Creating layer reshape_stage_indicator
I0924 03:46:12.432818  6630 net.cpp:156] Memory required for data: 18404
I0924 03:46:12.432845  6614 net.cpp:91] Creating Layer reshape_stage_indicator
I0924 03:46:12.432855  6614 net.cpp:425] reshape_stage_indicator <- stage_indicator
I0924 03:46:12.432853  6630 layer_factory.hpp:77] Creating layer reshape_frames
I0924 03:46:12.432880  6630 net.cpp:91] Creating Layer reshape_frames
I0924 03:46:12.432880  6614 net.cpp:399] reshape_stage_indicator -> reshaped_stage_indicator
I0924 03:46:12.432888  6630 net.cpp:425] reshape_frames <- embedded_in_frames
I0924 03:46:12.432898  6630 net.cpp:399] reshape_frames -> embedded_input_frames
I0924 03:46:12.473690  6618 net.cpp:141] Setting up reshape_stage_indicator
I0924 03:46:12.473747  6618 net.cpp:148] Top shape: 1 1 1 (1)
I0924 03:46:12.473757  6618 net.cpp:156] Memory required for data: 20408
I0924 03:46:12.473767  6618 layer_factory.hpp:77] Creating layer embedding
I0924 03:46:12.473762  6656 net.cpp:141] Setting up reshape_frames
I0924 03:46:12.473793  6618 net.cpp:91] Creating Layer embedding
I0924 03:46:12.473806  6618 net.cpp:425] embedding <- input_sentence
I0924 03:46:12.473808  6656 net.cpp:148] Top shape: 1 1 500 (500)
I0924 03:46:12.473819  6656 net.cpp:156] Memory required for data: 20404
I0924 03:46:12.473832  6656 layer_factory.hpp:77] Creating layer reshape_stage_indicator
I0924 03:46:12.473832  6618 net.cpp:399] embedding -> embedded_input_sentence
I0924 03:46:12.473875  6656 net.cpp:91] Creating Layer reshape_stage_indicator
I0924 03:46:12.473887  6656 net.cpp:425] reshape_stage_indicator <- stage_indicator
I0924 03:46:12.473904  6656 net.cpp:399] reshape_stage_indicator -> reshaped_stage_indicator
I0924 03:46:12.473996  6656 net.cpp:141] Setting up reshape_stage_indicator
I0924 03:46:12.474012  6656 net.cpp:148] Top shape: 1 1 1 (1)
I0924 03:46:12.474021  6656 net.cpp:156] Memory required for data: 20408
I0924 03:46:12.474028  6656 layer_factory.hpp:77] Creating layer embedding
I0924 03:46:12.474051  6656 net.cpp:91] Creating Layer embedding
I0924 03:46:12.474061  6656 net.cpp:425] embedding <- input_sentence
I0924 03:46:12.474061  6630 net.cpp:141] Setting up reshape_frames
I0924 03:46:12.474074  6656 net.cpp:399] embedding -> embedded_input_sentence
I0924 03:46:12.474086  6630 net.cpp:148] Top shape: 1 1 500 (500)
I0924 03:46:12.474097  6630 net.cpp:156] Memory required for data: 20404
I0924 03:46:12.474107  6630 layer_factory.hpp:77] Creating layer reshape_stage_indicator
I0924 03:46:12.474124  6630 net.cpp:91] Creating Layer reshape_stage_indicator
I0924 03:46:12.474135  6630 net.cpp:425] reshape_stage_indicator <- stage_indicator
I0924 03:46:12.474154  6630 net.cpp:399] reshape_stage_indicator -> reshaped_stage_indicator
I0924 03:46:12.474228  6630 net.cpp:141] Setting up reshape_stage_indicator
I0924 03:46:12.474244  6630 net.cpp:148] Top shape: 1 1 1 (1)
I0924 03:46:12.474252  6630 net.cpp:156] Memory required for data: 20408
I0924 03:46:12.474263  6630 layer_factory.hpp:77] Creating layer embedding
I0924 03:46:12.474280  6630 net.cpp:91] Creating Layer embedding
I0924 03:46:12.474290  6630 net.cpp:425] embedding <- input_sentence
I0924 03:46:12.474310  6630 net.cpp:399] embedding -> embedded_input_sentence
I0924 03:46:12.574916  6614 net.cpp:141] Setting up reshape_stage_indicator
I0924 03:46:12.574980  6614 net.cpp:148] Top shape: 1 1 1 (1)
I0924 03:46:12.574990  6614 net.cpp:156] Memory required for data: 20408
I0924 03:46:12.575012  6614 layer_factory.hpp:77] Creating layer embedding
I0924 03:46:12.575042  6614 net.cpp:91] Creating Layer embedding
I0924 03:46:12.575052  6614 net.cpp:425] embedding <- input_sentence
I0924 03:46:12.575072  6614 net.cpp:399] embedding -> embedded_input_sentence
I0924 03:46:12.632684  6608 net.cpp:141] Setting up embed_encoder
I0924 03:46:12.632747  6608 net.cpp:148] Top shape: 1 500 (500)
I0924 03:46:12.632756  6608 net.cpp:156] Memory required for data: 18404
I0924 03:46:12.632791  6608 layer_factory.hpp:77] Creating layer reshape_frames
I0924 03:46:12.632861  6608 net.cpp:91] Creating Layer reshape_frames
I0924 03:46:12.632875  6608 net.cpp:425] reshape_frames <- embedded_in_frames
I0924 03:46:12.632892  6608 net.cpp:399] reshape_frames -> embedded_input_frames
I0924 03:46:12.694155  6646 net.cpp:141] Setting up embed_encoder
I0924 03:46:12.694253  6646 net.cpp:148] Top shape: 1 500 (500)
I0924 03:46:12.694267  6646 net.cpp:156] Memory required for data: 18404
I0924 03:46:12.694306  6646 layer_factory.hpp:77] Creating layer reshape_frames
I0924 03:46:12.694294  6626 net.cpp:141] Setting up embedding
I0924 03:46:12.694356  6646 net.cpp:91] Creating Layer reshape_frames
I0924 03:46:12.694361  6626 net.cpp:148] Top shape: 1 1 500 (500)
I0924 03:46:12.694375  6646 net.cpp:425] reshape_frames <- embedded_in_frames
I0924 03:46:12.694375  6612 net.cpp:141] Setting up embedding
I0924 03:46:12.694375  6626 net.cpp:156] Memory required for data: 22408
I0924 03:46:12.694427  6646 net.cpp:399] reshape_frames -> embedded_input_frames
I0924 03:46:12.694432  6612 net.cpp:148] Top shape: 1 1 500 (500)
I0924 03:46:12.694442  6612 net.cpp:156] Memory required for data: 22408
I0924 03:46:12.694464  6612 layer_factory.hpp:77] Creating layer lstm1
I0924 03:46:12.694464  6626 layer_factory.hpp:77] Creating layer lstm1
I0924 03:46:12.694519  6612 net.cpp:91] Creating Layer lstm1
I0924 03:46:12.694525  6626 net.cpp:91] Creating Layer lstm1
I0924 03:46:12.694535  6612 net.cpp:425] lstm1 <- embedded_input_frames
…
I0924 03:46:12.694661  6612 recurrent_layer.cpp:20] Initializing recurrent layer: assuming input batch contains 1 timesteps of 1 independent streams.
I0924 03:46:12.695526  6626 net.cpp:49] Initializing net from parameters: 
layer {
  name: "lstm1_"
  type: "Input"
  top: "x"
  top: "cont"
  input_param {
    shape {
      dim: 1
      dim: 1
      dim: 500
    }
    shape {
      dim: 1
      dim: 1
    }
  }
}
layer {
  name: "lstm1_"
  type: "Input"
  top: "c_0"
  top: "h_0"
  input_param {
    shape {
      dim: 1
      dim: 1
      dim: 1000
    }
    shape {
      dim: 1
      dim: 1
      dim: 1000
    }
  }
}
layer {
  name: "lstm1_cont_slice"
  type: "Slice"
  bottom: "cont"
  top: "cont_1"
  slice_param {
    axis: 0
  }
}
layer {
  name: "lstm1_x_transform"
  type: "InnerProduct"
  bottom: "x"
  top: "W_xc_x"
  param {
    name: "W_xc"
  }
  param {
    name: "b_c"
  }
  propagate_down: true
  inner_product_param {
    num_output: 4000
    bias_term: true
    weight_filler {
      type: "uniform"
      min: -0.08
      max: 0.08
    }
    bias_filler {
      type: "constant"
      value: 0
    }
    axis: 2
  }
}
layer {
  name: "lstm1_W_xc_x_slice"
  type: "Slice"
  bottom: "W_xc_x"
  top: "W_xc_x_1"
  slice_param {
    axis: 0
  }
}
layer {
  name: "lstm1_h_conted_0"
  type: "Scale"
  bottom: "h_0"
  bottom: "cont_1"
  top: "h_conted_0"
  scale_param {
    axis: 0
  }
}
layer {
  name: "lstm1_transform_1"
  type: "InnerProduct"
  bottom: "h_conted_0"
  top: "W_hc_h_0"
  param {
    name: "W_hc"
  }
  inner_product_param {
    num_output: 4000
    bias_term: false
    weight_filler {
      type: "uniform"
      min: -0.08
      max: 0.08
    }
    axis: 2
  }
}
layer {
  name: "lstm1_gate_input_1"
  type: "Eltwise"
  bottom: "W_hc_h_0"
  bottom: "W_xc_x_1"
  top: "gate_input_1"
  eltwise_param {
    operation: SUM
  }
}
layer {
  name: "lstm1_unit_1"
  type: "LSTMUnit"
  bottom: "c_0"
  bottom: "gate_input_1"
  bottom: "cont_1"
  top: "c_1"
  top: "h_1"
}
layer {
  name: "lstm1_"
  type: "Split"
  bottom: "c_1"
  top: "c_T"
}
layer {
  name: "lstm1_h_concat"
  type: "Concat"
  bottom: "h_1"
  top: "h"
  concat_param {
    axis: 0
  }
}
layer {
  name: "h_pseudoloss"
  type: "Reduction"
  bottom: "h"
  top: "h_pseudoloss"
  loss_weight: 1
}
I0924 03:46:12.695601  6612 net.cpp:49] Initializing net from parameters: 
layer {
  name: "lstm1_"
  type: "Input"
  top: "x"
  top: "cont"
  input_param {
    shape {
      dim: 1
      dim: 1
      dim: 500
    }
    shape {
      dim: 1
      dim: 1
    }
  }
}
layer {
  name: "lstm1_"
  type: "Input"
  top: "c_0"
  top: "h_0"
  input_param {
    shape {
      dim: 1
      dim: 1
      dim: 1000
    }
    shape {
      dim: 1
      dim: 1
      dim: 1000
    }
  }
}
layer {
  name: "lstm1_cont_slice"
  type: "Slice"
  bottom: "cont"
  top: "cont_1"
  slice_param {
    axis: 0
  }
}
layer {
  name: "lstm1_x_transform"
  type: "InnerProduct"
  bottom: "x"
  top: "W_xc_x"
  param {
    name: "W_xc"
  }
  param {
    name: "b_c"
  }
  propagate_down: true
  inner_product_param {
    num_output: 4000
    bias_term: true
    weight_filler {
      type: "uniform"
      min: -0.08
      max: 0.08
    }
    bias_filler {
      type: "constant"
      value: 0
    }
    axis: 2
  }
}
layer {
  name: "lstm1_W_xc_x_slice"
  type: "Slice"
  bottom: "W_xc_x"
  top: "W_xc_x_1"
  slice_param {
    axis: 0
  }
}
layer {
  name: "lstm1_h_conted_0"
  type: "Scale"
  bottom: "h_0"
  bottom: "cont_1"
  top: "h_conted_0"
  scale_param {
    axis: 0
  }
}
layer {
  name: "lstm1_transform_1"
  type: "InnerProduct"
  bottom: "h_conted_0"
  top: "W_hc_h_0"
  param {
    name: "W_hc"
  }
  inner_product_param {
    num_output: 4000
    bias_term: false
    weight_filler {
      type: "uniform"
      min: -0.08
      max: 0.08
    }
    axis: 2
  }
}
layer {
  name: "lstm1_gate_input_1"
  type: "Eltwise"
  bottom: "W_hc_h_0"
  bottom: "W_xc_x_1"
  top: "gate_input_1"
  eltwise_param {
    operation: SUM
  }
}
layer {
  name: "lstm1_unit_1"
  type: "LSTMUnit"
  bottom: "c_0"
  bottom: "gate_input_1"
  bottom: "cont_1"
  top: "c_1"
  top: "h_1"
}
layer {
  name: "lstm1_"
  type: "Split"
  bottom: "c_1"
  top: "c_T"
}
layer {
  name: "lstm1_h_concat"
  type: "Concat"
  bottom: "h_1"
  top: "h"
  concat_param {
    axis: 0
  }
}
layer {
  name: "h_pseudoloss"
  type: "Reduction"
  bottom: "h"
  top: "h_pseudoloss"
  loss_weight: 1
}
I0924 03:46:12.695659  6626 layer_factory.hpp:77] Creating layer lstm1_
I0924 03:46:12.695677  6626 net.cpp:91] Creating Layer lstm1_
I0924 03:46:12.695688  6626 net.cpp:399] lstm1_ -> x
I0924 03:46:12.695706  6626 net.cpp:399] lstm1_ -> cont
I0924 03:46:12.695802  6612 layer_factory.hpp:77] Creating layer lstm1_
I0924 03:46:12.695827  6612 net.cpp:91] Creating Layer lstm1_
I0924 03:46:12.695838  6612 net.cpp:399] lstm1_ -> x
I0924 03:46:12.695857  6612 net.cpp:399] lstm1_ -> cont
I0924 03:46:12.697676  6608 net.cpp:141] Setting up reshape_frames
I0924 03:46:12.697717  6608 net.cpp:148] Top shape: 1 1 500 (500)
I0924 03:46:12.697726  6608 net.cpp:156] Memory required for data: 20404
I0924 03:46:12.697737  6608 layer_factory.hpp:77] Creating layer reshape_stage_indicator
I0924 03:46:12.697744  6646 net.cpp:141] Setting up reshape_frames
I0924 03:46:12.697762  6608 net.cpp:91] Creating Layer reshape_stage_indicator
I0924 03:46:12.697767  6646 net.cpp:148] Top shape: 1 1 500 (500)
I0924 03:46:12.697773  6608 net.cpp:425] reshape_stage_indicator <- stage_indicator
I0924 03:46:12.697774  6646 net.cpp:156] Memory required for data: 20404
I0924 03:46:12.697788  6608 net.cpp:399] reshape_stage_indicator -> reshaped_stage_indicator
I0924 03:46:12.697783  6646 layer_factory.hpp:77] Creating layer reshape_stage_indicator
I0924 03:46:12.697805  6646 net.cpp:91] Creating Layer reshape_stage_indicator
I0924 03:46:12.697815  6646 net.cpp:425] reshape_stage_indicator <- stage_indicator
I0924 03:46:12.697830  6626 net.cpp:141] Setting up lstm1_
I0924 03:46:12.697834  6646 net.cpp:399] reshape_stage_indicator -> reshaped_stage_indicator
I0924 03:46:12.697859  6626 net.cpp:148] Top shape: 1 1 500 (500)
I0924 03:46:12.697867  6626 net.cpp:148] Top shape: 1 1 (1)
I0924 03:46:12.697872  6626 net.cpp:156] Memory required for data: 2004
I0924 03:46:12.697878  6626 layer_factory.hpp:77] Creating layer lstm1_
I0924 03:46:12.697888  6612 net.cpp:141] Setting up lstm1_
I0924 03:46:12.697892  6626 net.cpp:91] Creating Layer lstm1_
I0924 03:46:12.697912  6612 net.cpp:148] Top shape: 1 1 500 (500)
I0924 03:46:12.697918  6626 net.cpp:399] lstm1_ -> c_0
I0924 03:46:12.697922  6612 net.cpp:148] Top shape: 1 1 (1)
I0924 03:46:12.697921  6646 net.cpp:141] Setting up reshape_stage_indicator
I0924 03:46:12.697937  6612 net.cpp:156] Memory required for data: 2004
I0924 03:46:12.697933  6626 net.cpp:399] lstm1_ -> h_0
I0924 03:46:12.697953  6646 net.cpp:148] Top shape: 1 1 1 (1)
I0924 03:46:12.697962  6646 net.cpp:156] Memory required for data: 20408
I0924 03:46:12.697947  6612 layer_factory.hpp:77] Creating layer lstm1_
I0924 03:46:12.697970  6646 layer_factory.hpp:77] Creating layer embedding
I0924 03:46:12.697971  6608 net.cpp:141] Setting up reshape_stage_indicator
I0924 03:46:12.697985  6612 net.cpp:91] Creating Layer lstm1_
I0924 03:46:12.697999  6646 net.cpp:91] Creating Layer embedding
I0924 03:46:12.698004  6608 net.cpp:148] Top shape: 1 1 1 (1)
I0924 03:46:12.698007  6612 net.cpp:399] lstm1_ -> c_0
I0924 03:46:12.698010  6646 net.cpp:425] embedding <- input_sentence
I0924 03:46:12.698014  6608 net.cpp:156] Memory required for data: 20408
I0924 03:46:12.698022  6608 layer_factory.hpp:77] Creating layer embedding
I0924 03:46:12.698029  6646 net.cpp:399] embedding -> embedded_input_sentence
I0924 03:46:12.698031  6612 net.cpp:399] lstm1_ -> h_0
I0924 03:46:12.698037  6608 net.cpp:91] Creating Layer embedding
I0924 03:46:12.698045  6608 net.cpp:425] embedding <- input_sentence
I0924 03:46:12.698030  6626 net.cpp:141] Setting up lstm1_
I0924 03:46:12.698070  6626 net.cpp:148] Top shape: 1 1 1000 (1000)
I0924 03:46:12.698070  6608 net.cpp:399] embedding -> embedded_input_sentence
I0924 03:46:12.698076  6626 net.cpp:148] Top shape: 1 1 1000 (1000)
I0924 03:46:12.698081  6626 net.cpp:156] Memory required for data: 10004
I0924 03:46:12.698086  6626 layer_factory.hpp:77] Creating layer lstm1_cont_slice
I0924 03:46:12.698096  6626 net.cpp:91] Creating Layer lstm1_cont_slice
I0924 03:46:12.698101  6626 net.cpp:425] lstm1_cont_slice <- cont
I0924 03:46:12.698109  6626 net.cpp:399] lstm1_cont_slice -> cont_1
I0924 03:46:12.742844  6612 net.cpp:141] Setting up lstm1_
I0924 03:46:12.742929  6612 net.cpp:148] Top shape: 1 1 1000 (1000)
I0924 03:46:12.742952  6612 net.cpp:148] Top shape: 1 1 1000 (1000)
I0924 03:46:12.742967  6612 net.cpp:156] Memory required for data: 10004
I0924 03:46:12.742986  6612 layer_factory.hpp:77] Creating layer lstm1_cont_slice
I0924 03:46:12.743037  6612 net.cpp:91] Creating Layer lstm1_cont_slice
I0924 03:46:12.743058  6612 net.cpp:425] lstm1_cont_slice <- cont
I0924 03:46:12.743086  6612 net.cpp:399] lstm1_cont_slice -> cont_1
I0924 03:46:12.743204  6612 net.cpp:141] Setting up lstm1_cont_slice
I0924 03:46:12.743232  6612 net.cpp:148] Top shape: 1 1 (1)
I0924 03:46:12.743247  6612 net.cpp:156] Memory required for data: 10008
I0924 03:46:12.743260  6612 layer_factory.hpp:77] Creating layer cont_1_lstm1_cont_slice_0_split
I0924 03:46:12.743283  6612 net.cpp:91] Creating Layer cont_1_lstm1_cont_slice_0_split
I0924 03:46:12.743296  6612 net.cpp:425] cont_1_lstm1_cont_slice_0_split <- cont_1
I0924 03:46:12.743324  6612 net.cpp:399] cont_1_lstm1_cont_slice_0_split -> cont_1_lstm1_cont_slice_0_split_0
I0924 03:46:12.743350  6612 net.cpp:399] cont_1_lstm1_cont_slice_0_split -> cont_1_lstm1_cont_slice_0_split_1
I0924 03:46:12.743475  6612 net.cpp:141] Setting up cont_1_lstm1_cont_slice_0_split
I0924 03:46:12.743500  6612 net.cpp:148] Top shape: 1 1 (1)
I0924 03:46:12.743518  6612 net.cpp:148] Top shape: 1 1 (1)
I0924 03:46:12.743530  6612 net.cpp:156] Memory required for data: 10016
I0924 03:46:12.743544  6612 layer_factory.hpp:77] Creating layer lstm1_x_transform
I0924 03:46:12.743582  6612 net.cpp:91] Creating Layer lstm1_x_transform
I0924 03:46:12.743600  6612 net.cpp:425] lstm1_x_transform <- x
I0924 03:46:12.743625  6612 net.cpp:399] lstm1_x_transform -> W_xc_x
I0924 03:46:12.795109  6626 net.cpp:141] Setting up lstm1_cont_slice
I0924 03:46:12.795112  6656 net.cpp:141] Setting up embedding
I0924 03:46:12.795174  6626 net.cpp:148] Top shape: 1 1 (1)
I0924 03:46:12.795186  6626 net.cpp:156] Memory required for data: 10008
I0924 03:46:12.795187  6656 net.cpp:148] Top shape: 1 1 500 (500)
I0924 03:46:12.795197  6626 layer_factory.hpp:77] Creating layer cont_1_lstm1_cont_slice_0_split
I0924 03:46:12.795200  6656 net.cpp:156] Memory required for data: 22408
I0924 03:46:12.795222  6626 net.cpp:91] Creating Layer cont_1_lstm1_cont_slice_0_split
I0924 03:46:12.795230  6656 layer_factory.hpp:77] Creating layer lstm1
I0924 03:46:12.795234  6626 net.cpp:425] cont_1_lstm1_cont_slice_0_split <- cont_1
…
I0924 03:46:12.795419  6656 recurrent_layer.cpp:20] Initializing recurrent layer: assuming input batch contains 1 timesteps of 1 independent streams.
I0924 03:46:12.795820  6618 net.cpp:141] Setting up embedding
I0924 03:46:12.795836  6656 net.cpp:49] Initializing net from parameters: 
layer {
  name: "lstm1_"
  type: "Input"
  top: "x"
  top: "cont"
  input_param {
    shape {
      dim: 1
      dim: 1
      dim: 500
    }
    shape {
      dim: 1
      dim: 1
    }
  }
}
layer {
  name: "lstm1_"
  type: "Input"
  top: "c_0"
  top: "h_0"
  input_param {
    shape {
      dim: 1
      dim: 1
      dim: 1000
    }
    shape {
      dim: 1
      dim: 1
      dim: 1000
    }
  }
}
layer {
  name: "lstm1_cont_slice"
  type: "Slice"
  bottom: "cont"
  top: "cont_1"
  slice_param {
    axis: 0
  }
}
layer {
  name: "lstm1_x_transform"
  type: "InnerProduct"
  bottom: "x"
  top: "W_xc_x"
  param {
    name: "W_xc"
  }
  param {
    name: "b_c"
  }
  propagate_down: true
  inner_product_param {
    num_output: 4000
    bias_term: true
    weight_filler {
      type: "uniform"
      min: -0.08
      max: 0.08
    }
    bias_filler {
      type: "constant"
      value: 0
    }
    axis: 2
  }
}
layer {
  name: "lstm1_W_xc_x_slice"
  type: "Slice"
  bottom: "W_xc_x"
  top: "W_xc_x_1"
  slice_param {
    axis: 0
  }
}
layer {
  name: "lstm1_h_conted_0"
  type: "Scale"
  bottom: "h_0"
  bottom: "cont_1"
  top: "h_conted_0"
  scale_param {
    axis: 0
  }
}
layer {
  name: "lstm1_transform_1"
  type: "InnerProduct"
  bottom: "h_conted_0"
  top: "W_hc_h_0"
  param {
    name: "W_hc"
  }
  inner_product_param {
    num_output: 4000
    bias_term: false
    weight_filler {
      type: "uniform"
      min: -0.08
      max: 0.08
    }
    axis: 2
  }
}
layer {
  name: "lstm1_gate_input_1"
  type: "Eltwise"
  bottom: "W_hc_h_0"
  bottom: "W_xc_x_1"
  top: "gate_input_1"
  eltwise_param {
    operation: SUM
  }
}
layer {
  name: "lstm1_unit_1"
  type: "LSTMUnit"
  bottom: "c_0"
  bottom: "gate_input_1"
  bottom: "cont_1"
  top: "c_1"
  top: "h_1"
}
layer {
  name: "lstm1_"
  type: "Split"
  bottom: "c_1"
  top: "c_T"
}
layer {
  name: "lstm1_h_concat"
  type: "Concat"
  bottom: "h_1"
  top: "h"
  concat_param {
    axis: 0
  }
}
layer {
  name: "h_pseudoloss"
  type: "Reduction"
  bottom: "h"
  top: "h_pseudoloss"
  loss_weight: 1
}
I0924 03:46:12.795858  6618 net.cpp:148] Top shape: 1 1 500 (500)
I0924 03:46:12.795868  6618 net.cpp:156] Memory required for data: 22408
I0924 03:46:12.795891  6618 layer_factory.hpp:77] Creating layer lstm1
I0924 03:46:12.795948  6618 net.cpp:91] Creating Layer lstm1
I0924 03:46:12.795960  6626 net.cpp:141] Setting up cont_1_lstm1_cont_slice_0_split
I0924 03:46:12.795971  6618 net.cpp:425] lstm1 <- embedded_input_frames
I0924 03:46:12.795980  6626 net.cpp:148] Top shape: 1 1 (1)
I0924 03:46:12.795989  6618 net.cpp:425] lstm1 <- cont_sentence_input_1_split_0
I0924 03:46:12.795992  6626 net.cpp:148] Top shape: 1 1 (1)
I0924 03:46:12.796005  6618 net.cpp:399] lstm1 -> lstm1
I0924 03:46:12.796043  6626 net.cpp:156] Memory required for data: 10016
I0924 03:46:12.796051  6618 recurrent_layer.cpp:20] Initializing recurrent layer: assuming input batch contains 1 timesteps of 1 independent streams.
I0924 03:46:12.796058  6626 layer_factory.hpp:77] Creating layer lstm1_x_transform
I0924 03:46:12.796089  6626 net.cpp:91] Creating Layer lstm1_x_transform
I0924 03:46:12.796100  6626 net.cpp:425] lstm1_x_transform <- x
I0924 03:46:12.796116  6626 net.cpp:399] lstm1_x_transform -> W_xc_x
I0924 03:46:12.795990  6656 layer_factory.hpp:77] Creating layer lstm1_
I0924 03:46:12.796159  6656 net.cpp:91] Creating Layer lstm1_
I0924 03:46:12.796172  6656 net.cpp:399] lstm1_ -> x
I0924 03:46:12.796190  6656 net.cpp:399] lstm1_ -> cont
I0924 03:46:12.796583  6618 net.cpp:49] Initializing net from parameters: 
layer {
  name: "lstm1_"
  type: "Input"
  top: "x"
  top: "cont"
  input_param {
    shape {
      dim: 1
      dim: 1
      dim: 500
    }
    shape {
      dim: 1
      dim: 1
    }
  }
}
layer {
  name: "lstm1_"
  type: "Input"
  top: "c_0"
  top: "h_0"
  input_param {
    shape {
      dim: 1
      dim: 1
      dim: 1000
    }
    shape {
      dim: 1
      dim: 1
      dim: 1000
    }
  }
}
layer {
  name: "lstm1_cont_slice"
  type: "Slice"
  bottom: "cont"
  top: "cont_1"
  slice_param {
    axis: 0
  }
}
layer {
  name: "lstm1_x_transform"
  type: "InnerProduct"
  bottom: "x"
  top: "W_xc_x"
  param {
    name: "W_xc"
  }
  param {
    name: "b_c"
  }
  propagate_down: true
  inner_product_param {
    num_output: 4000
    bias_term: true
    weight_filler {
      type: "uniform"
      min: -0.08
      max: 0.08
    }
    bias_filler {
      type: "constant"
      value: 0
    }
    axis: 2
  }
}
layer {
  name: "lstm1_W_xc_x_slice"
  type: "Slice"
  bottom: "W_xc_x"
  top: "W_xc_x_1"
  slice_param {
    axis: 0
  }
}
layer {
  name: "lstm1_h_conted_0"
  type: "Scale"
  bottom: "h_0"
  bottom: "cont_1"
  top: "h_conted_0"
  scale_param {
    axis: 0
  }
}
layer {
  name: "lstm1_transform_1"
  type: "InnerProduct"
  bottom: "h_conted_0"
  top: "W_hc_h_0"
  param {
    name: "W_hc"
  }
  inner_product_param {
    num_output: 4000
    bias_term: false
    weight_filler {
      type: "uniform"
      min: -0.08
      max: 0.08
    }
    axis: 2
  }
}
layer {
  name: "lstm1_gate_input_1"
  type: "Eltwise"
  bottom: "W_hc_h_0"
  bottom: "W_xc_x_1"
  top: "gate_input_1"
  eltwise_param {
    operation: SUM
  }
}
layer {
  name: "lstm1_unit_1"
  type: "LSTMUnit"
  bottom: "c_0"
  bottom: "gate_input_1"
  bottom: "cont_1"
  top: "c_1"
  top: "h_1"
}
layer {
  name: "lstm1_"
  type: "Split"
  bottom: "c_1"
  top: "c_T"
}
layer {
  name: "lstm1_h_concat"
  type: "Concat"
  bottom: "h_1"
  top: "h"
  concat_param {
    axis: 0
  }
}
layer {
  name: "h_pseudoloss"
  type: "Reduction"
  bottom: "h"
  top: "h_pseudoloss"
  loss_weight: 1
}
I0924 03:46:12.796766  6618 layer_factory.hpp:77] Creating layer lstm1_
I0924 03:46:12.796797  6618 net.cpp:91] Creating Layer lstm1_
I0924 03:46:12.796808  6618 net.cpp:399] lstm1_ -> x
I0924 03:46:12.796840  6618 net.cpp:399] lstm1_ -> cont
I0924 03:46:12.800288  6656 net.cpp:141] Setting up lstm1_
I0924 03:46:12.800356  6656 net.cpp:148] Top shape: 1 1 500 (500)
I0924 03:46:12.800369  6656 net.cpp:148] Top shape: 1 1 (1)
I0924 03:46:12.800376  6656 net.cpp:156] Memory required for data: 2004
I0924 03:46:12.800389  6656 layer_factory.hpp:77] Creating layer lstm1_
I0924 03:46:12.800423  6656 net.cpp:91] Creating Layer lstm1_
I0924 03:46:12.800438  6656 net.cpp:399] lstm1_ -> c_0
I0924 03:46:12.800464  6656 net.cpp:399] lstm1_ -> h_0
I0924 03:46:12.811269  6656 net.cpp:141] Setting up lstm1_
I0924 03:46:12.811321  6656 net.cpp:148] Top shape: 1 1 1000 (1000)
I0924 03:46:12.811334  6656 net.cpp:148] Top shape: 1 1 1000 (1000)
I0924 03:46:12.811342  6656 net.cpp:156] Memory required for data: 10004
I0924 03:46:12.811352  6656 layer_factory.hpp:77] Creating layer lstm1_cont_slice
I0924 03:46:12.811377  6656 net.cpp:91] Creating Layer lstm1_cont_slice
I0924 03:46:12.811388  6656 net.cpp:425] lstm1_cont_slice <- cont
I0924 03:46:12.811403  6656 net.cpp:399] lstm1_cont_slice -> cont_1
I0924 03:46:12.811463  6656 net.cpp:141] Setting up lstm1_cont_slice
I0924 03:46:12.811480  6656 net.cpp:148] Top shape: 1 1 (1)
I0924 03:46:12.811486  6656 net.cpp:156] Memory required for data: 10008
I0924 03:46:12.811494  6656 layer_factory.hpp:77] Creating layer cont_1_lstm1_cont_slice_0_split
I0924 03:46:12.811507  6656 net.cpp:91] Creating Layer cont_1_lstm1_cont_slice_0_split
I0924 03:46:12.811516  6656 net.cpp:425] cont_1_lstm1_cont_slice_0_split <- cont_1
I0924 03:46:12.811529  6656 net.cpp:399] cont_1_lstm1_cont_slice_0_split -> cont_1_lstm1_cont_slice_0_split_0
I0924 03:46:12.811542  6656 net.cpp:399] cont_1_lstm1_cont_slice_0_split -> cont_1_lstm1_cont_slice_0_split_1
I0924 03:46:12.811615  6656 net.cpp:141] Setting up cont_1_lstm1_cont_slice_0_split
I0924 03:46:12.811630  6656 net.cpp:148] Top shape: 1 1 (1)
I0924 03:46:12.811640  6656 net.cpp:148] Top shape: 1 1 (1)
I0924 03:46:12.811647  6656 net.cpp:156] Memory required for data: 10016
I0924 03:46:12.811655  6656 layer_factory.hpp:77] Creating layer lstm1_x_transform
I0924 03:46:12.811676  6656 net.cpp:91] Creating Layer lstm1_x_transform
I0924 03:46:12.811684  6656 net.cpp:425] lstm1_x_transform <- x
I0924 03:46:12.811702  6656 net.cpp:399] lstm1_x_transform -> W_xc_x
I0924 03:46:12.817080  6618 net.cpp:141] Setting up lstm1_
I0924 03:46:12.817121  6618 net.cpp:148] Top shape: 1 1 500 (500)
I0924 03:46:12.817133  6618 net.cpp:148] Top shape: 1 1 (1)
I0924 03:46:12.817140  6618 net.cpp:156] Memory required for data: 2004
I0924 03:46:12.817152  6618 layer_factory.hpp:77] Creating layer lstm1_
I0924 03:46:12.817229  6618 net.cpp:91] Creating Layer lstm1_
I0924 03:46:12.817283  6618 net.cpp:399] lstm1_ -> c_0
I0924 03:46:12.817315  6618 net.cpp:399] lstm1_ -> h_0
I0924 03:46:12.818418  6618 net.cpp:141] Setting up lstm1_
I0924 03:46:12.818441  6618 net.cpp:148] Top shape: 1 1 1000 (1000)
I0924 03:46:12.818452  6618 net.cpp:148] Top shape: 1 1 1000 (1000)
I0924 03:46:12.818459  6618 net.cpp:156] Memory required for data: 10004
I0924 03:46:12.818469  6618 layer_factory.hpp:77] Creating layer lstm1_cont_slice
I0924 03:46:12.818485  6618 net.cpp:91] Creating Layer lstm1_cont_slice
I0924 03:46:12.818495  6618 net.cpp:425] lstm1_cont_slice <- cont
I0924 03:46:12.818509  6618 net.cpp:399] lstm1_cont_slice -> cont_1
I0924 03:46:12.818845  6618 net.cpp:141] Setting up lstm1_cont_slice
I0924 03:46:12.818861  6618 net.cpp:148] Top shape: 1 1 (1)
I0924 03:46:12.818869  6618 net.cpp:156] Memory required for data: 10008
I0924 03:46:12.818876  6618 layer_factory.hpp:77] Creating layer cont_1_lstm1_cont_slice_0_split
I0924 03:46:12.818894  6618 net.cpp:91] Creating Layer cont_1_lstm1_cont_slice_0_split
I0924 03:46:12.818902  6618 net.cpp:425] cont_1_lstm1_cont_slice_0_split <- cont_1
I0924 03:46:12.818913  6618 net.cpp:399] cont_1_lstm1_cont_slice_0_split -> cont_1_lstm1_cont_slice_0_split_0
I0924 03:46:12.818930  6618 net.cpp:399] cont_1_lstm1_cont_slice_0_split -> cont_1_lstm1_cont_slice_0_split_1
I0924 03:46:12.818999  6618 net.cpp:141] Setting up cont_1_lstm1_cont_slice_0_split
I0924 03:46:12.819011  6618 net.cpp:148] Top shape: 1 1 (1)
I0924 03:46:12.819021  6618 net.cpp:148] Top shape: 1 1 (1)
I0924 03:46:12.819027  6618 net.cpp:156] Memory required for data: 10016
I0924 03:46:12.819036  6618 layer_factory.hpp:77] Creating layer lstm1_x_transform
I0924 03:46:12.819056  6618 net.cpp:91] Creating Layer lstm1_x_transform
I0924 03:46:12.819063  6618 net.cpp:425] lstm1_x_transform <- x
I0924 03:46:12.819080  6618 net.cpp:399] lstm1_x_transform -> W_xc_x
I0924 03:46:12.824209  6630 net.cpp:141] Setting up embedding
I0924 03:46:12.824262  6630 net.cpp:148] Top shape: 1 1 500 (500)
I0924 03:46:12.824271  6630 net.cpp:156] Memory required for data: 22408
I0924 03:46:12.824300  6630 layer_factory.hpp:77] Creating layer lstm1
I0924 03:46:12.824331  6630 net.cpp:91] Creating Layer lstm1
I0924 03:46:12.824342  6630 net.cpp:425] lstm1 <- embedded_input_frames
I0924 03:46:12.824355  6630 net.cpp:425] lstm1 <- cont_sentence_input_1_split_0
I0924 03:46:12.824374  6630 net.cpp:399] lstm1 -> lstm1
I0924 03:46:12.824403  6630 recurrent_layer.cpp:20] Initializing recurrent layer: assuming input batch contains 1 timesteps of 1 independent streams.
I0924 03:46:12.824841  6630 net.cpp:49] Initializing net from parameters: 
layer {
  name: "lstm1_"
  type: "Input"
  top: "x"
  top: "cont"
  input_param {
    shape {
      dim: 1
      dim: 1
      dim: 500
    }
    shape {
      dim: 1
      dim: 1
    }
  }
}
layer {
  name: "lstm1_"
  type: "Input"
  top: "c_0"
  top: "h_0"
  input_param {
    shape {
      dim: 1
      dim: 1
      dim: 1000
    }
    shape {
      dim: 1
      dim: 1
      dim: 1000
    }
  }
}
layer {
  name: "lstm1_cont_slice"
  type: "Slice"
  bottom: "cont"
  top: "cont_1"
  slice_param {
    axis: 0
  }
}
layer {
  name: "lstm1_x_transform"
  type: "InnerProduct"
  bottom: "x"
  top: "W_xc_x"
  param {
    name: "W_xc"
  }
  param {
    name: "b_c"
  }
  propagate_down: true
  inner_product_param {
    num_output: 4000
    bias_term: true
    weight_filler {
      type: "uniform"
      min: -0.08
      max: 0.08
    }
    bias_filler {
      type: "constant"
      value: 0
    }
    axis: 2
  }
}
layer {
  name: "lstm1_W_xc_x_slice"
  type: "Slice"
  bottom: "W_xc_x"
  top: "W_xc_x_1"
  slice_param {
    axis: 0
  }
}
layer {
  name: "lstm1_h_conted_0"
  type: "Scale"
  bottom: "h_0"
  bottom: "cont_1"
  top: "h_conted_0"
  scale_param {
    axis: 0
  }
}
layer {
  name: "lstm1_transform_1"
  type: "InnerProduct"
  bottom: "h_conted_0"
  top: "W_hc_h_0"
  param {
    name: "W_hc"
  }
  inner_product_param {
    num_output: 4000
    bias_term: false
    weight_filler {
      type: "uniform"
      min: -0.08
      max: 0.08
    }
    axis: 2
  }
}
layer {
  name: "lstm1_gate_input_1"
  type: "Eltwise"
  bottom: "W_hc_h_0"
  bottom: "W_xc_x_1"
  top: "gate_input_1"
  eltwise_param {
    operation: SUM
  }
}
layer {
  name: "lstm1_unit_1"
  type: "LSTMUnit"
  bottom: "c_0"
  bottom: "gate_input_1"
  bottom: "cont_1"
  top: "c_1"
  top: "h_1"
}
layer {
  name: "lstm1_"
  type: "Split"
  bottom: "c_1"
  top: "c_T"
}
layer {
  name: "lstm1_h_concat"
  type: "Concat"
  bottom: "h_1"
  top: "h"
  concat_param {
    axis: 0
  }
}
layer {
  name: "h_pseudoloss"
  type: "Reduction"
  bottom: "h"
  top: "h_pseudoloss"
  loss_weight: 1
}
I0924 03:46:12.825012  6630 layer_factory.hpp:77] Creating layer lstm1_
I0924 03:46:12.825033  6630 net.cpp:91] Creating Layer lstm1_
I0924 03:46:12.825044  6630 net.cpp:399] lstm1_ -> x
I0924 03:46:12.825062  6630 net.cpp:399] lstm1_ -> cont
I0924 03:46:12.826318  6630 net.cpp:141] Setting up lstm1_
I0924 03:46:12.826335  6630 net.cpp:148] Top shape: 1 1 500 (500)
I0924 03:46:12.826346  6630 net.cpp:148] Top shape: 1 1 (1)
I0924 03:46:12.826354  6630 net.cpp:156] Memory required for data: 2004
I0924 03:46:12.826362  6630 layer_factory.hpp:77] Creating layer lstm1_
I0924 03:46:12.826376  6630 net.cpp:91] Creating Layer lstm1_
I0924 03:46:12.826377  6612 net.cpp:141] Setting up lstm1_x_transform
I0924 03:46:12.826391  6630 net.cpp:399] lstm1_ -> c_0
I0924 03:46:12.826397  6612 net.cpp:148] Top shape: 1 1 4000 (4000)
I0924 03:46:12.826406  6612 net.cpp:156] Memory required for data: 26016
I0924 03:46:12.826408  6630 net.cpp:399] lstm1_ -> h_0
I0924 03:46:12.826424  6612 layer_factory.hpp:77] Creating layer lstm1_W_xc_x_slice
I0924 03:46:12.826439  6612 net.cpp:91] Creating Layer lstm1_W_xc_x_slice
I0924 03:46:12.826448  6612 net.cpp:425] lstm1_W_xc_x_slice <- W_xc_x
I0924 03:46:12.826460  6612 net.cpp:399] lstm1_W_xc_x_slice -> W_xc_x_1
I0924 03:46:12.829197  6612 net.cpp:141] Setting up lstm1_W_xc_x_slice
I0924 03:46:12.829221  6612 net.cpp:148] Top shape: 1 1 4000 (4000)
I0924 03:46:12.829231  6612 net.cpp:156] Memory required for data: 42016
I0924 03:46:12.829243  6612 layer_factory.hpp:77] Creating layer lstm1_h_conted_0
I0924 03:46:12.829274  6612 net.cpp:91] Creating Layer lstm1_h_conted_0
I0924 03:46:12.829287  6612 net.cpp:425] lstm1_h_conted_0 <- h_0
I0924 03:46:12.829296  6612 net.cpp:425] lstm1_h_conted_0 <- cont_1_lstm1_cont_slice_0_split_0
I0924 03:46:12.829308  6612 net.cpp:399] lstm1_h_conted_0 -> h_conted_0
I0924 03:46:12.829373  6630 net.cpp:141] Setting up lstm1_
I0924 03:46:12.829392  6630 net.cpp:148] Top shape: 1 1 1000 (1000)
I0924 03:46:12.829401  6630 net.cpp:148] Top shape: 1 1 1000 (1000)
I0924 03:46:12.829408  6630 net.cpp:156] Memory required for data: 10004
I0924 03:46:12.829416  6630 layer_factory.hpp:77] Creating layer lstm1_cont_slice
I0924 03:46:12.829430  6630 net.cpp:91] Creating Layer lstm1_cont_slice
I0924 03:46:12.829438  6630 net.cpp:425] lstm1_cont_slice <- cont
I0924 03:46:12.829453  6630 net.cpp:399] lstm1_cont_slice -> cont_1
I0924 03:46:12.829524  6630 net.cpp:141] Setting up lstm1_cont_slice
I0924 03:46:12.829538  6630 net.cpp:148] Top shape: 1 1 (1)
I0924 03:46:12.829546  6630 net.cpp:156] Memory required for data: 10008
I0924 03:46:12.829553  6630 layer_factory.hpp:77] Creating layer cont_1_lstm1_cont_slice_0_split
I0924 03:46:12.829571  6630 net.cpp:91] Creating Layer cont_1_lstm1_cont_slice_0_split
I0924 03:46:12.829579  6630 net.cpp:425] cont_1_lstm1_cont_slice_0_split <- cont_1
I0924 03:46:12.829591  6630 net.cpp:399] cont_1_lstm1_cont_slice_0_split -> cont_1_lstm1_cont_slice_0_split_0
I0924 03:46:12.829602  6630 net.cpp:399] cont_1_lstm1_cont_slice_0_split -> cont_1_lstm1_cont_slice_0_split_1
I0924 03:46:12.829826  6626 net.cpp:141] Setting up lstm1_x_transform
I0924 03:46:12.829864  6626 net.cpp:148] Top shape: 1 1 4000 (4000)
I0924 03:46:12.829872  6626 net.cpp:156] Memory required for data: 26016
I0924 03:46:12.829897  6626 layer_factory.hpp:77] Creating layer lstm1_W_xc_x_slice
I0924 03:46:12.829903  6630 net.cpp:141] Setting up cont_1_lstm1_cont_slice_0_split
I0924 03:46:12.829916  6626 net.cpp:91] Creating Layer lstm1_W_xc_x_slice
I0924 03:46:12.829921  6630 net.cpp:148] Top shape: 1 1 (1)
I0924 03:46:12.829926  6626 net.cpp:425] lstm1_W_xc_x_slice <- W_xc_x
I0924 03:46:12.829931  6630 net.cpp:148] Top shape: 1 1 (1)
I0924 03:46:12.829939  6630 net.cpp:156] Memory required for data: 10016
I0924 03:46:12.829944  6626 net.cpp:399] lstm1_W_xc_x_slice -> W_xc_x_1
I0924 03:46:12.829947  6630 layer_factory.hpp:77] Creating layer lstm1_x_transform
I0924 03:46:12.829967  6630 net.cpp:91] Creating Layer lstm1_x_transform
I0924 03:46:12.829977  6630 net.cpp:425] lstm1_x_transform <- x
I0924 03:46:12.829989  6630 net.cpp:399] lstm1_x_transform -> W_xc_x
I0924 03:46:12.850419  6626 net.cpp:141] Setting up lstm1_W_xc_x_slice
I0924 03:46:12.850463  6626 net.cpp:148] Top shape: 1 1 4000 (4000)
I0924 03:46:12.850471  6626 net.cpp:156] Memory required for data: 42016
I0924 03:46:12.850483  6626 layer_factory.hpp:77] Creating layer lstm1_h_conted_0
I0924 03:46:12.850505  6626 net.cpp:91] Creating Layer lstm1_h_conted_0
I0924 03:46:12.850512  6626 net.cpp:425] lstm1_h_conted_0 <- h_0
I0924 03:46:12.850522  6626 net.cpp:425] lstm1_h_conted_0 <- cont_1_lstm1_cont_slice_0_split_0
I0924 03:46:12.850533  6626 net.cpp:399] lstm1_h_conted_0 -> h_conted_0
I0924 03:46:12.855087  6626 net.cpp:141] Setting up lstm1_h_conted_0
I0924 03:46:12.855118  6626 net.cpp:148] Top shape: 1 1 1000 (1000)
I0924 03:46:12.855125  6626 net.cpp:156] Memory required for data: 46016
I0924 03:46:12.855136  6626 layer_factory.hpp:77] Creating layer lstm1_transform_1
I0924 03:46:12.855154  6626 net.cpp:91] Creating Layer lstm1_transform_1
I0924 03:46:12.855161  6626 net.cpp:425] lstm1_transform_1 <- h_conted_0
I0924 03:46:12.855200  6626 net.cpp:399] lstm1_transform_1 -> W_hc_h_0
I0924 03:46:12.855252  6612 net.cpp:141] Setting up lstm1_h_conted_0
I0924 03:46:12.855319  6612 net.cpp:148] Top shape: 1 1 1000 (1000)
I0924 03:46:12.855336  6612 net.cpp:156] Memory required for data: 46016
I0924 03:46:12.855355  6612 layer_factory.hpp:77] Creating layer lstm1_transform_1
I0924 03:46:12.855389  6612 net.cpp:91] Creating Layer lstm1_transform_1
I0924 03:46:12.855408  6612 net.cpp:425] lstm1_transform_1 <- h_conted_0
I0924 03:46:12.855437  6612 net.cpp:399] lstm1_transform_1 -> W_hc_h_0
I0924 03:46:12.865407  6656 net.cpp:141] Setting up lstm1_x_transform
I0924 03:46:12.865428  6618 net.cpp:141] Setting up lstm1_x_transform
I0924 03:46:12.865466  6656 net.cpp:148] Top shape: 1 1 4000 (4000)
I0924 03:46:12.865471  6618 net.cpp:148] Top shape: 1 1 4000 (4000)
I0924 03:46:12.865475  6656 net.cpp:156] Memory required for data: 26016
I0924 03:46:12.865481  6618 net.cpp:156] Memory required for data: 26016
I0924 03:46:12.865507  6656 layer_factory.hpp:77] Creating layer lstm1_W_xc_x_slice
I0924 03:46:12.865507  6618 layer_factory.hpp:77] Creating layer lstm1_W_xc_x_slice
I0924 03:46:12.865538  6656 net.cpp:91] Creating Layer lstm1_W_xc_x_slice
I0924 03:46:12.865538  6618 net.cpp:91] Creating Layer lstm1_W_xc_x_slice
I0924 03:46:12.865553  6656 net.cpp:425] lstm1_W_xc_x_slice <- W_xc_x
I0924 03:46:12.865558  6618 net.cpp:425] lstm1_W_xc_x_slice <- W_xc_x
I0924 03:46:12.865567  6656 net.cpp:399] lstm1_W_xc_x_slice -> W_xc_x_1
I0924 03:46:12.865572  6618 net.cpp:399] lstm1_W_xc_x_slice -> W_xc_x_1
I0924 03:46:12.874572  6656 net.cpp:141] Setting up lstm1_W_xc_x_slice
I0924 03:46:12.874668  6656 net.cpp:148] Top shape: 1 1 4000 (4000)
I0924 03:46:12.874680  6656 net.cpp:156] Memory required for data: 42016
I0924 03:46:12.874696  6656 layer_factory.hpp:77] Creating layer lstm1_h_conted_0
I0924 03:46:12.874725  6656 net.cpp:91] Creating Layer lstm1_h_conted_0
I0924 03:46:12.874738  6656 net.cpp:425] lstm1_h_conted_0 <- h_0
I0924 03:46:12.874754  6656 net.cpp:425] lstm1_h_conted_0 <- cont_1_lstm1_cont_slice_0_split_0
I0924 03:46:12.874771  6656 net.cpp:399] lstm1_h_conted_0 -> h_conted_0
I0924 03:46:12.874771  6618 net.cpp:141] Setting up lstm1_W_xc_x_slice
I0924 03:46:12.874807  6618 net.cpp:148] Top shape: 1 1 4000 (4000)
I0924 03:46:12.874824  6618 net.cpp:156] Memory required for data: 42016
I0924 03:46:12.874840  6618 layer_factory.hpp:77] Creating layer lstm1_h_conted_0
I0924 03:46:12.874866  6618 net.cpp:91] Creating Layer lstm1_h_conted_0
I0924 03:46:12.874884  6618 net.cpp:425] lstm1_h_conted_0 <- h_0
I0924 03:46:12.874903  6618 net.cpp:425] lstm1_h_conted_0 <- cont_1_lstm1_cont_slice_0_split_0
I0924 03:46:12.874927  6618 net.cpp:399] lstm1_h_conted_0 -> h_conted_0
I0924 03:46:12.874985  6656 net.cpp:141] Setting up lstm1_h_conted_0
I0924 03:46:12.875003  6656 net.cpp:148] Top shape: 1 1 1000 (1000)
I0924 03:46:12.875011  6656 net.cpp:156] Memory required for data: 46016
I0924 03:46:12.875020  6656 layer_factory.hpp:77] Creating layer lstm1_transform_1
I0924 03:46:12.875042  6656 net.cpp:91] Creating Layer lstm1_transform_1
I0924 03:46:12.875052  6656 net.cpp:425] lstm1_transform_1 <- h_conted_0
I0924 03:46:12.875072  6656 net.cpp:399] lstm1_transform_1 -> W_hc_h_0
I0924 03:46:12.883440  6618 net.cpp:141] Setting up lstm1_h_conted_0
I0924 03:46:12.883498  6618 net.cpp:148] Top shape: 1 1 1000 (1000)
I0924 03:46:12.883507  6618 net.cpp:156] Memory required for data: 46016
I0924 03:46:12.883519  6618 layer_factory.hpp:77] Creating layer lstm1_transform_1
I0924 03:46:12.883545  6618 net.cpp:91] Creating Layer lstm1_transform_1
I0924 03:46:12.883556  6618 net.cpp:425] lstm1_transform_1 <- h_conted_0
I0924 03:46:12.883575  6618 net.cpp:399] lstm1_transform_1 -> W_hc_h_0
I0924 03:46:12.894145  6630 net.cpp:141] Setting up lstm1_x_transform
I0924 03:46:12.894203  6630 net.cpp:148] Top shape: 1 1 4000 (4000)
I0924 03:46:12.894210  6630 net.cpp:156] Memory required for data: 26016
I0924 03:46:12.894237  6630 layer_factory.hpp:77] Creating layer lstm1_W_xc_x_slice
I0924 03:46:12.894256  6630 net.cpp:91] Creating Layer lstm1_W_xc_x_slice
I0924 03:46:12.894264  6630 net.cpp:425] lstm1_W_xc_x_slice <- W_xc_x
I0924 03:46:12.894275  6630 net.cpp:399] lstm1_W_xc_x_slice -> W_xc_x_1
I0924 03:46:12.894331  6630 net.cpp:141] Setting up lstm1_W_xc_x_slice
I0924 03:46:12.894342  6630 net.cpp:148] Top shape: 1 1 4000 (4000)
I0924 03:46:12.894347  6630 net.cpp:156] Memory required for data: 42016
I0924 03:46:12.894352  6630 layer_factory.hpp:77] Creating layer lstm1_h_conted_0
I0924 03:46:12.894364  6630 net.cpp:91] Creating Layer lstm1_h_conted_0
I0924 03:46:12.894369  6630 net.cpp:425] lstm1_h_conted_0 <- h_0
I0924 03:46:12.894376  6630 net.cpp:425] lstm1_h_conted_0 <- cont_1_lstm1_cont_slice_0_split_0
I0924 03:46:12.894384  6630 net.cpp:399] lstm1_h_conted_0 -> h_conted_0
I0924 03:46:12.894491  6630 net.cpp:141] Setting up lstm1_h_conted_0
I0924 03:46:12.894501  6630 net.cpp:148] Top shape: 1 1 1000 (1000)
I0924 03:46:12.894506  6630 net.cpp:156] Memory required for data: 46016
I0924 03:46:12.894511  6630 layer_factory.hpp:77] Creating layer lstm1_transform_1
I0924 03:46:12.894526  6630 net.cpp:91] Creating Layer lstm1_transform_1
I0924 03:46:12.894531  6630 net.cpp:425] lstm1_transform_1 <- h_conted_0
I0924 03:46:12.894539  6630 net.cpp:399] lstm1_transform_1 -> W_hc_h_0
I0924 03:46:12.905078  6614 net.cpp:141] Setting up embedding
I0924 03:46:12.905141  6614 net.cpp:148] Top shape: 1 1 500 (500)
I0924 03:46:12.905150  6614 net.cpp:156] Memory required for data: 22408
I0924 03:46:12.905176  6614 layer_factory.hpp:77] Creating layer lstm1
I0924 03:46:12.905205  6614 net.cpp:91] Creating Layer lstm1
I0924 03:46:12.905216  6614 net.cpp:425] lstm1 <- embedded_input_frames
I0924 03:46:12.905230  6614 net.cpp:425] lstm1 <- cont_sentence_input_1_split_0
I0924 03:46:12.905246  6614 net.cpp:399] lstm1 -> lstm1
I0924 03:46:12.905270  6614 recurrent_layer.cpp:20] Initializing recurrent layer: assuming input batch contains 1 timesteps of 1 independent streams.
I0924 03:46:12.905706  6614 net.cpp:49] Initializing net from parameters: 
layer {
  name: "lstm1_"
  type: "Input"
  top: "x"
  top: "cont"
  input_param {
    shape {
      dim: 1
      dim: 1
      dim: 500
    }
    shape {
      dim: 1
      dim: 1
    }
  }
}
layer {
  name: "lstm1_"
  type: "Input"
  top: "c_0"
  top: "h_0"
  input_param {
    shape {
      dim: 1
      dim: 1
      dim: 1000
    }
    shape {
      dim: 1
      dim: 1
      dim: 1000
    }
  }
}
layer {
  name: "lstm1_cont_slice"
  type: "Slice"
  bottom: "cont"
  top: "cont_1"
  slice_param {
    axis: 0
  }
}
layer {
  name: "lstm1_x_transform"
  type: "InnerProduct"
  bottom: "x"
  top: "W_xc_x"
  param {
    name: "W_xc"
  }
  param {
    name: "b_c"
  }
  propagate_down: true
  inner_product_param {
    num_output: 4000
    bias_term: true
    weight_filler {
      type: "uniform"
      min: -0.08
      max: 0.08
    }
    bias_filler {
      type: "constant"
      value: 0
    }
    axis: 2
  }
}
layer {
  name: "lstm1_W_xc_x_slice"
  type: "Slice"
  bottom: "W_xc_x"
  top: "W_xc_x_1"
  slice_param {
    axis: 0
  }
}
layer {
  name: "lstm1_h_conted_0"
  type: "Scale"
  bottom: "h_0"
  bottom: "cont_1"
  top: "h_conted_0"
  scale_param {
    axis: 0
  }
}
layer {
  name: "lstm1_transform_1"
  type: "InnerProduct"
  bottom: "h_conted_0"
  top: "W_hc_h_0"
  param {
    name: "W_hc"
  }
  inner_product_param {
    num_output: 4000
    bias_term: false
    weight_filler {
      type: "uniform"
      min: -0.08
      max: 0.08
    }
    axis: 2
  }
}
layer {
  name: "lstm1_gate_input_1"
  type: "Eltwise"
  bottom: "W_hc_h_0"
  bottom: "W_xc_x_1"
  top: "gate_input_1"
  eltwise_param {
    operation: SUM
  }
}
layer {
  name: "lstm1_unit_1"
  type: "LSTMUnit"
  bottom: "c_0"
  bottom: "gate_input_1"
  bottom: "cont_1"
  top: "c_1"
  top: "h_1"
}
layer {
  name: "lstm1_"
  type: "Split"
  bottom: "c_1"
  top: "c_T"
}
layer {
  name: "lstm1_h_concat"
  type: "Concat"
  bottom: "h_1"
  top: "h"
  concat_param {
    axis: 0
  }
}
layer {
  name: "h_pseudoloss"
  type: "Reduction"
  bottom: "h"
  top: "h_pseudoloss"
  loss_weight: 1
}
I0924 03:46:12.905841  6614 layer_factory.hpp:77] Creating layer lstm1_
I0924 03:46:12.905859  6614 net.cpp:91] Creating Layer lstm1_
I0924 03:46:12.905869  6614 net.cpp:399] lstm1_ -> x
I0924 03:46:12.905886  6614 net.cpp:399] lstm1_ -> cont
I0924 03:46:12.905972  6614 net.cpp:141] Setting up lstm1_
I0924 03:46:12.905987  6614 net.cpp:148] Top shape: 1 1 500 (500)
I0924 03:46:12.905997  6614 net.cpp:148] Top shape: 1 1 (1)
I0924 03:46:12.906003  6614 net.cpp:156] Memory required for data: 2004
I0924 03:46:12.906011  6614 layer_factory.hpp:77] Creating layer lstm1_
I0924 03:46:12.906024  6614 net.cpp:91] Creating Layer lstm1_
I0924 03:46:12.906038  6614 net.cpp:399] lstm1_ -> c_0
I0924 03:46:12.906054  6614 net.cpp:399] lstm1_ -> h_0
I0924 03:46:12.906126  6614 net.cpp:141] Setting up lstm1_
I0924 03:46:12.906141  6614 net.cpp:148] Top shape: 1 1 1000 (1000)
I0924 03:46:12.906150  6614 net.cpp:148] Top shape: 1 1 1000 (1000)
I0924 03:46:12.906157  6614 net.cpp:156] Memory required for data: 10004
I0924 03:46:12.906165  6614 layer_factory.hpp:77] Creating layer lstm1_cont_slice
I0924 03:46:12.906178  6614 net.cpp:91] Creating Layer lstm1_cont_slice
I0924 03:46:12.906186  6614 net.cpp:425] lstm1_cont_slice <- cont
I0924 03:46:12.906206  6614 net.cpp:399] lstm1_cont_slice -> cont_1
I0924 03:46:12.906256  6614 net.cpp:141] Setting up lstm1_cont_slice
I0924 03:46:12.906270  6614 net.cpp:148] Top shape: 1 1 (1)
I0924 03:46:12.906277  6614 net.cpp:156] Memory required for data: 10008
I0924 03:46:12.906286  6614 layer_factory.hpp:77] Creating layer cont_1_lstm1_cont_slice_0_split
I0924 03:46:12.906301  6614 net.cpp:91] Creating Layer cont_1_lstm1_cont_slice_0_split
I0924 03:46:12.906308  6614 net.cpp:425] cont_1_lstm1_cont_slice_0_split <- cont_1
I0924 03:46:12.906319  6614 net.cpp:399] cont_1_lstm1_cont_slice_0_split -> cont_1_lstm1_cont_slice_0_split_0
I0924 03:46:12.906332  6614 net.cpp:399] cont_1_lstm1_cont_slice_0_split -> cont_1_lstm1_cont_slice_0_split_1
I0924 03:46:12.906404  6614 net.cpp:141] Setting up cont_1_lstm1_cont_slice_0_split
I0924 03:46:12.906417  6614 net.cpp:148] Top shape: 1 1 (1)
I0924 03:46:12.906426  6614 net.cpp:148] Top shape: 1 1 (1)
I0924 03:46:12.906433  6614 net.cpp:156] Memory required for data: 10016
I0924 03:46:12.906440  6614 layer_factory.hpp:77] Creating layer lstm1_x_transform
I0924 03:46:12.906456  6614 net.cpp:91] Creating Layer lstm1_x_transform
I0924 03:46:12.906464  6614 net.cpp:425] lstm1_x_transform <- x
I0924 03:46:12.906476  6614 net.cpp:399] lstm1_x_transform -> W_xc_x
I0924 03:46:12.917246  6626 net.cpp:141] Setting up lstm1_transform_1
I0924 03:46:12.917292  6626 net.cpp:148] Top shape: 1 1 4000 (4000)
I0924 03:46:12.917301  6626 net.cpp:156] Memory required for data: 62016
I0924 03:46:12.917325  6626 layer_factory.hpp:77] Creating layer lstm1_gate_input_1
I0924 03:46:12.917353  6626 net.cpp:91] Creating Layer lstm1_gate_input_1
I0924 03:46:12.917364  6626 net.cpp:425] lstm1_gate_input_1 <- W_hc_h_0
I0924 03:46:12.917376  6626 net.cpp:425] lstm1_gate_input_1 <- W_xc_x_1
I0924 03:46:12.917388  6626 net.cpp:399] lstm1_gate_input_1 -> gate_input_1
I0924 03:46:12.917510  6612 net.cpp:141] Setting up lstm1_transform_1
I0924 03:46:12.917552  6612 net.cpp:148] Top shape: 1 1 4000 (4000)
I0924 03:46:12.917554  6626 net.cpp:141] Setting up lstm1_gate_input_1
I0924 03:46:12.917562  6612 net.cpp:156] Memory required for data: 62016
I0924 03:46:12.917572  6626 net.cpp:148] Top shape: 1 1 4000 (4000)
I0924 03:46:12.917580  6626 net.cpp:156] Memory required for data: 78016
I0924 03:46:12.917585  6612 layer_factory.hpp:77] Creating layer lstm1_gate_input_1
I0924 03:46:12.917588  6626 layer_factory.hpp:77] Creating layer lstm1_unit_1
I0924 03:46:12.917610  6612 net.cpp:91] Creating Layer lstm1_gate_input_1
I0924 03:46:12.917616  6626 net.cpp:91] Creating Layer lstm1_unit_1
I0924 03:46:12.917623  6612 net.cpp:425] lstm1_gate_input_1 <- W_hc_h_0
I0924 03:46:12.917626  6626 net.cpp:425] lstm1_unit_1 <- c_0
I0924 03:46:12.917634  6612 net.cpp:425] lstm1_gate_input_1 <- W_xc_x_1
I0924 03:46:12.917637  6626 net.cpp:425] lstm1_unit_1 <- gate_input_1
I0924 03:46:12.917649  6612 net.cpp:399] lstm1_gate_input_1 -> gate_input_1
I0924 03:46:12.917649  6626 net.cpp:425] lstm1_unit_1 <- cont_1_lstm1_cont_slice_0_split_1
I0924 03:46:12.917703  6626 net.cpp:399] lstm1_unit_1 -> c_1
I0924 03:46:12.917719  6626 net.cpp:399] lstm1_unit_1 -> h_1
I0924 03:46:12.917737  6612 net.cpp:141] Setting up lstm1_gate_input_1
I0924 03:46:12.917753  6612 net.cpp:148] Top shape: 1 1 4000 (4000)
I0924 03:46:12.917760  6612 net.cpp:156] Memory required for data: 78016
I0924 03:46:12.917768  6612 layer_factory.hpp:77] Creating layer lstm1_unit_1
I0924 03:46:12.917785  6612 net.cpp:91] Creating Layer lstm1_unit_1
I0924 03:46:12.917793  6612 net.cpp:425] lstm1_unit_1 <- c_0
I0924 03:46:12.917803  6612 net.cpp:425] lstm1_unit_1 <- gate_input_1
I0924 03:46:12.917811  6612 net.cpp:425] lstm1_unit_1 <- cont_1_lstm1_cont_slice_0_split_1
I0924 03:46:12.917822  6612 net.cpp:399] lstm1_unit_1 -> c_1
I0924 03:46:12.917831  6626 net.cpp:141] Setting up lstm1_unit_1
I0924 03:46:12.917836  6612 net.cpp:399] lstm1_unit_1 -> h_1
I0924 03:46:12.917846  6626 net.cpp:148] Top shape: 1 1 1000 (1000)
I0924 03:46:12.917857  6626 net.cpp:148] Top shape: 1 1 1000 (1000)
I0924 03:46:12.917865  6626 net.cpp:156] Memory required for data: 86016
I0924 03:46:12.917871  6626 layer_factory.hpp:77] Creating layer lstm1_
I0924 03:46:12.917884  6626 net.cpp:91] Creating Layer lstm1_
I0924 03:46:12.917891  6626 net.cpp:425] lstm1_ <- c_1
I0924 03:46:12.917902  6626 net.cpp:399] lstm1_ -> c_T
I0924 03:46:12.917969  6626 net.cpp:141] Setting up lstm1_
I0924 03:46:12.917982  6626 net.cpp:148] Top shape: 1 1 1000 (1000)
I0924 03:46:12.917989  6626 net.cpp:156] Memory required for data: 90016
I0924 03:46:12.917997  6626 layer_factory.hpp:77] Creating layer lstm1_h_concat
I0924 03:46:12.918012  6626 net.cpp:91] Creating Layer lstm1_h_concat
I0924 03:46:12.918020  6626 net.cpp:425] lstm1_h_concat <- h_1
I0924 03:46:12.918030  6612 net.cpp:141] Setting up lstm1_unit_1
I0924 03:46:12.918051  6612 net.cpp:148] Top shape: 1 1 1000 (1000)
I0924 03:46:12.918061  6612 net.cpp:148] Top shape: 1 1 1000 (1000)
I0924 03:46:12.918068  6612 net.cpp:156] Memory required for data: 86016
I0924 03:46:12.918077  6612 layer_factory.hpp:77] Creating layer lstm1_
I0924 03:46:12.918090  6612 net.cpp:91] Creating Layer lstm1_
I0924 03:46:12.918097  6612 net.cpp:425] lstm1_ <- c_1
I0924 03:46:12.918108  6612 net.cpp:399] lstm1_ -> c_T
I0924 03:46:12.918031  6626 net.cpp:399] lstm1_h_concat -> h
I0924 03:46:12.918161  6612 net.cpp:141] Setting up lstm1_
I0924 03:46:12.918177  6612 net.cpp:148] Top shape: 1 1 1000 (1000)
I0924 03:46:12.918185  6612 net.cpp:156] Memory required for data: 90016
I0924 03:46:12.918193  6612 layer_factory.hpp:77] Creating layer lstm1_h_concat
I0924 03:46:12.918211  6612 net.cpp:91] Creating Layer lstm1_h_concat
I0924 03:46:12.918220  6612 net.cpp:425] lstm1_h_concat <- h_1
I0924 03:46:12.918238  6612 net.cpp:399] lstm1_h_concat -> h
I0924 03:46:12.918218  6626 net.cpp:141] Setting up lstm1_h_concat
I0924 03:46:12.918272  6626 net.cpp:148] Top shape: 1 1 1000 (1000)
I0924 03:46:12.918279  6626 net.cpp:156] Memory required for data: 94016
I0924 03:46:12.918287  6626 layer_factory.hpp:77] Creating layer h_pseudoloss
I0924 03:46:12.918309  6612 net.cpp:141] Setting up lstm1_h_concat
I0924 03:46:12.918328  6612 net.cpp:148] Top shape: 1 1 1000 (1000)
I0924 03:46:12.918335  6612 net.cpp:156] Memory required for data: 94016
I0924 03:46:12.918344  6612 layer_factory.hpp:77] Creating layer h_pseudoloss
I0924 03:46:12.918357  6612 net.cpp:91] Creating Layer h_pseudoloss
I0924 03:46:12.918365  6612 net.cpp:425] h_pseudoloss <- h
I0924 03:46:12.918380  6612 net.cpp:399] h_pseudoloss -> h_pseudoloss
I0924 03:46:12.918310  6626 net.cpp:91] Creating Layer h_pseudoloss
…
I0924 03:46:12.918808  6626 net.cpp:219] lstm1_ does not need backward computation.
I0924 03:46:12.918814  6626 net.cpp:261] This network produces output c_T
I0924 03:46:12.918828  6626 net.cpp:261] This network produces output h_pseudoloss
I0924 03:46:12.918854  6626 net.cpp:274] Network initialization done.
I0924 03:46:12.918926  6626 recurrent_layer.cpp:150] Adding parameter 0: W_xc
I0924 03:46:12.918936  6626 recurrent_layer.cpp:150] Adding parameter 1: b_c
I0924 03:46:12.918942  6626 recurrent_layer.cpp:150] Adding parameter 2: W_hc
I0924 03:46:12.919078  6626 net.cpp:141] Setting up lstm1
I0924 03:46:12.919093  6626 net.cpp:148] Top shape: 1 1 1000 (1000)
I0924 03:46:12.919101  6626 net.cpp:156] Memory required for data: 26408
I0924 03:46:12.919122  6626 layer_factory.hpp:77] Creating layer concat
I0924 03:46:12.919137  6626 net.cpp:91] Creating Layer concat
I0924 03:46:12.919145  6626 net.cpp:425] concat <- lstm1
I0924 03:46:12.919157  6626 net.cpp:425] concat <- embedded_input_sentence
I0924 03:46:12.919165  6626 net.cpp:425] concat <- reshaped_stage_indicator
I0924 03:46:12.919175  6626 net.cpp:399] concat -> lstm1_video_sequence
I0924 03:46:12.919226  6626 net.cpp:141] Setting up concat
I0924 03:46:12.919240  6626 net.cpp:148] Top shape: 1 1 1501 (1501)
I0924 03:46:12.919247  6626 net.cpp:156] Memory required for data: 32412
I0924 03:46:12.919255  6626 layer_factory.hpp:77] Creating layer lstm2
I0924 03:46:12.919276  6626 net.cpp:91] Creating Layer lstm2
I0924 03:46:12.919286  6626 net.cpp:425] lstm2 <- lstm1_video_sequence
I0924 03:46:12.919296  6626 net.cpp:425] lstm2 <- cont_sentence_input_1_split_1
I0924 03:46:12.919308  6626 net.cpp:399] lstm2 -> lstm2
I0924 03:46:12.919323  6626 recurrent_layer.cpp:20] Initializing recurrent layer: assuming input batch contains 1 timesteps of 1 independent streams.
I0924 03:46:12.919679  6626 net.cpp:49] Initializing net from parameters: 
layer {
  name: "lstm2_"
  type: "Input"
  top: "x"
  top: "cont"
  input_param {
    shape {
      dim: 1
      dim: 1
      dim: 1501
    }
    shape {
      dim: 1
      dim: 1
    }
  }
}
layer {
  name: "lstm2_"
  type: "Input"
  top: "c_0"
  top: "h_0"
  input_param {
    shape {
      dim: 1
      dim: 1
      dim: 1000
    }
    shape {
      dim: 1
      dim: 1
      dim: 1000
    }
  }
}
layer {
  name: "lstm2_cont_slice"
  type: "Slice"
  bottom: "cont"
  top: "cont_1"
  slice_param {
    axis: 0
  }
}
layer {
  name: "lstm2_x_transform"
  type: "InnerProduct"
  bottom: "x"
  top: "W_xc_x"
  param {
    name: "W_xc"
  }
  param {
    name: "b_c"
  }
  propagate_down: true
  inner_product_param {
    num_output: 4000
    bias_term: true
    weight_filler {
      type: "uniform"
      min: -0.08
      max: 0.08
    }
    bias_filler {
      type: "constant"
      value: 0
    }
    axis: 2
  }
}
layer {
  name: "lstm2_W_xc_x_slice"
  type: "Slice"
  bottom: "W_xc_x"
  top: "W_xc_x_1"
  slice_param {
    axis: 0
  }
}
layer {
  name: "lstm2_h_conted_0"
  type: "Scale"
  bottom: "h_0"
  bottom: "cont_1"
  top: "h_conted_0"
  scale_param {
    axis: 0
  }
}
layer {
  name: "lstm2_transform_1"
  type: "InnerProduct"
  bottom: "h_conted_0"
  top: "W_hc_h_0"
  param {
    name: "W_hc"
  }
  inner_product_param {
    num_output: 4000
    bias_term: false
    weight_filler {
      type: "uniform"
      min: -0.08
      max: 0.08
    }
    axis: 2
  }
}
layer {
  name: "lstm2_gate_input_1"
  type: "Eltwise"
  bottom: "W_hc_h_0"
  bottom: "W_xc_x_1"
  top: "gate_input_1"
  eltwise_param {
    operation: SUM
  }
}
layer {
  name: "lstm2_unit_1"
  type: "LSTMUnit"
  bottom: "c_0"
  bottom: "gate_input_1"
  bottom: "cont_1"
  top: "c_1"
  top: "h_1"
}
layer {
  name: "lstm2_"
  type: "Split"
  bottom: "c_1"
  top: "c_T"
}
layer {
  name: "lstm2_h_concat"
  type: "Concat"
  bottom: "h_1"
  top: "h"
  concat_param {
    axis: 0
  }
}
layer {
  name: "h_pseudoloss"
  type: "Reduction"
  bottom: "h"
  top: "h_pseudoloss"
  loss_weight: 1
}
I0924 03:46:12.919805  6626 layer_factory.hpp:77] Creating layer lstm2_
I0924 03:46:12.919822  6626 net.cpp:91] Creating Layer lstm2_
I0924 03:46:12.919832  6626 net.cpp:399] lstm2_ -> x
I0924 03:46:12.919848  6626 net.cpp:399] lstm2_ -> cont
I0924 03:46:12.919921  6626 net.cpp:141] Setting up lstm2_
I0924 03:46:12.919935  6626 net.cpp:148] Top shape: 1 1 1501 (1501)
I0924 03:46:12.919945  6626 net.cpp:148] Top shape: 1 1 (1)
I0924 03:46:12.919951  6626 net.cpp:156] Memory required for data: 6008
I0924 03:46:12.919960  6626 layer_factory.hpp:77] Creating layer lstm2_
I0924 03:46:12.919972  6626 net.cpp:91] Creating Layer lstm2_
I0924 03:46:12.919989  6626 net.cpp:399] lstm2_ -> c_0
I0924 03:46:12.920006  6626 net.cpp:399] lstm2_ -> h_0
I0924 03:46:12.920080  6626 net.cpp:141] Setting up lstm2_
I0924 03:46:12.920094  6626 net.cpp:148] Top shape: 1 1 1000 (1000)
I0924 03:46:12.920104  6626 net.cpp:148] Top shape: 1 1 1000 (1000)
I0924 03:46:12.920110  6626 net.cpp:156] Memory required for data: 14008
I0924 03:46:12.920119  6626 layer_factory.hpp:77] Creating layer lstm2_cont_slice
I0924 03:46:12.920131  6626 net.cpp:91] Creating Layer lstm2_cont_slice
I0924 03:46:12.920140  6626 net.cpp:425] lstm2_cont_slice <- cont
I0924 03:46:12.920150  6626 net.cpp:399] lstm2_cont_slice -> cont_1
I0924 03:46:12.920197  6626 net.cpp:141] Setting up lstm2_cont_slice
I0924 03:46:12.920210  6626 net.cpp:148] Top shape: 1 1 (1)
I0924 03:46:12.920217  6626 net.cpp:156] Memory required for data: 14012
I0924 03:46:12.920224  6626 layer_factory.hpp:77] Creating layer cont_1_lstm2_cont_slice_0_split
I0924 03:46:12.920240  6626 net.cpp:91] Creating Layer cont_1_lstm2_cont_slice_0_split
I0924 03:46:12.920249  6626 net.cpp:425] cont_1_lstm2_cont_slice_0_split <- cont_1
I0924 03:46:12.920260  6626 net.cpp:399] cont_1_lstm2_cont_slice_0_split -> cont_1_lstm2_cont_slice_0_split_0
I0924 03:46:12.920272  6626 net.cpp:399] cont_1_lstm2_cont_slice_0_split -> cont_1_lstm2_cont_slice_0_split_1
I0924 03:46:12.920346  6626 net.cpp:141] Setting up cont_1_lstm2_cont_slice_0_split
I0924 03:46:12.920361  6626 net.cpp:148] Top shape: 1 1 (1)
I0924 03:46:12.920370  6626 net.cpp:148] Top shape: 1 1 (1)
I0924 03:46:12.920377  6626 net.cpp:156] Memory required for data: 14020
I0924 03:46:12.920383  6626 layer_factory.hpp:77] Creating layer lstm2_x_transform
I0924 03:46:12.920403  6626 net.cpp:91] Creating Layer lstm2_x_transform
I0924 03:46:12.920410  6626 net.cpp:425] lstm2_x_transform <- x
I0924 03:46:12.920423  6626 net.cpp:399] lstm2_x_transform -> W_xc_x
I0924 03:46:12.934980  6612 net.cpp:141] Setting up h_pseudoloss
I0924 03:46:12.935034  6612 net.cpp:148] Top shape: (1)
I0924 03:46:12.935040  6612 net.cpp:151]     with loss weight 1
I0924 03:46:12.935065  6612 net.cpp:156] Memory required for data: 94020
I0924 03:46:12.935075  6612 net.cpp:217] h_pseudoloss needs backward computation.
I0924 03:46:12.935082  6612 net.cpp:217] lstm1_h_concat needs backward computation.
I0924 03:46:12.935088  6612 net.cpp:219] lstm1_ does not need backward computation.
I0924 03:46:12.935103  6612 net.cpp:217] lstm1_unit_1 needs backward computation.
I0924 03:46:12.935117  6612 net.cpp:217] lstm1_gate_input_1 needs backward computation.
I0924 03:46:12.935104  6656 net.cpp:141] Setting up lstm1_transform_1
I0924 03:46:12.935125  6612 net.cpp:217] lstm1_transform_1 needs backward computation.
I0924 03:46:12.935151  6612 net.cpp:219] lstm1_h_conted_0 does not need backward computation.
I0924 03:46:12.935156  6656 net.cpp:148] Top shape: 1 1 4000 (4000)
I0924 03:46:12.935160  6612 net.cpp:217] lstm1_W_xc_x_slice needs backward computation.
I0924 03:46:12.935174  6656 net.cpp:156] Memory required for data: 62016
I0924 03:46:12.935184  6612 net.cpp:217] lstm1_x_transform needs backward computation.
I0924 03:46:12.935191  6612 net.cpp:219] cont_1_lstm1_cont_slice_0_split does not need backward computation.
I0924 03:46:12.935197  6612 net.cpp:219] lstm1_cont_slice does not need backward computation.
I0924 03:46:12.935204  6612 net.cpp:219] lstm1_ does not need backward computation.
I0924 03:46:12.935209  6612 net.cpp:219] lstm1_ does not need backward computation.
I0924 03:46:12.935205  6656 layer_factory.hpp:77] Creating layer lstm1_gate_input_1
I0924 03:46:12.935214  6612 net.cpp:261] This network produces output c_T
I0924 03:46:12.935223  6612 net.cpp:261] This network produces output h_pseudoloss
I0924 03:46:12.935240  6656 net.cpp:91] Creating Layer lstm1_gate_input_1
I0924 03:46:12.935250  6612 net.cpp:274] Network initialization done.
I0924 03:46:12.935255  6656 net.cpp:425] lstm1_gate_input_1 <- W_hc_h_0
I0924 03:46:12.935269  6656 net.cpp:425] lstm1_gate_input_1 <- W_xc_x_1
I0924 03:46:12.935297  6656 net.cpp:399] lstm1_gate_input_1 -> gate_input_1
I0924 03:46:12.935300  6614 net.cpp:141] Setting up lstm1_x_transform
I0924 03:46:12.935319  6614 net.cpp:148] Top shape: 1 1 4000 (4000)
I0924 03:46:12.935322  6612 recurrent_layer.cpp:150] Adding parameter 0: W_xc
I0924 03:46:12.935328  6614 net.cpp:156] Memory required for data: 26016
I0924 03:46:12.935333  6612 recurrent_layer.cpp:150] Adding parameter 1: b_c
I0924 03:46:12.935339  6612 recurrent_layer.cpp:150] Adding parameter 2: W_hc
I0924 03:46:12.935348  6614 layer_factory.hpp:77] Creating layer lstm1_W_xc_x_slice
I0924 03:46:12.935364  6614 net.cpp:91] Creating Layer lstm1_W_xc_x_slice
I0924 03:46:12.935372  6614 net.cpp:425] lstm1_W_xc_x_slice <- W_xc_x
I0924 03:46:12.935380  6656 net.cpp:141] Setting up lstm1_gate_input_1
I0924 03:46:12.935384  6614 net.cpp:399] lstm1_W_xc_x_slice -> W_xc_x_1
I0924 03:46:12.935410  6656 net.cpp:148] Top shape: 1 1 4000 (4000)
I0924 03:46:12.935420  6656 net.cpp:156] Memory required for data: 78016
I0924 03:46:12.935430  6656 layer_factory.hpp:77] Creating layer lstm1_unit_1
I0924 03:46:12.935446  6656 net.cpp:91] Creating Layer lstm1_unit_1
I0924 03:46:12.935456  6656 net.cpp:425] lstm1_unit_1 <- c_0
I0924 03:46:12.935467  6656 net.cpp:425] lstm1_unit_1 <- gate_input_1
I0924 03:46:12.935478  6656 net.cpp:425] lstm1_unit_1 <- cont_1_lstm1_cont_slice_0_split_1
I0924 03:46:12.935492  6656 net.cpp:399] lstm1_unit_1 -> c_1
I0924 03:46:12.935514  6656 net.cpp:399] lstm1_unit_1 -> h_1
I0924 03:46:12.935544  6614 net.cpp:141] Setting up lstm1_W_xc_x_slice
I0924 03:46:12.935560  6614 net.cpp:148] Top shape: 1 1 4000 (4000)
I0924 03:46:12.935569  6614 net.cpp:156] Memory required for data: 42016
I0924 03:46:12.935576  6614 layer_factory.hpp:77] Creating layer lstm1_h_conted_0
I0924 03:46:12.935592  6614 net.cpp:91] Creating Layer lstm1_h_conted_0
I0924 03:46:12.935600  6614 net.cpp:425] lstm1_h_conted_0 <- h_0
I0924 03:46:12.935612  6614 net.cpp:425] lstm1_h_conted_0 <- cont_1_lstm1_cont_slice_0_split_0
I0924 03:46:12.935623  6614 net.cpp:399] lstm1_h_conted_0 -> h_conted_0
I0924 03:46:12.935659  6656 net.cpp:141] Setting up lstm1_unit_1
I0924 03:46:12.935678  6656 net.cpp:148] Top shape: 1 1 1000 (1000)
I0924 03:46:12.935690  6656 net.cpp:148] Top shape: 1 1 1000 (1000)
I0924 03:46:12.935699  6656 net.cpp:156] Memory required for data: 86016
I0924 03:46:12.935708  6656 layer_factory.hpp:77] Creating layer lstm1_
I0924 03:46:12.935722  6656 net.cpp:91] Creating Layer lstm1_
I0924 03:46:12.935732  6656 net.cpp:425] lstm1_ <- c_1
I0924 03:46:12.935745  6656 net.cpp:399] lstm1_ -> c_T
I0924 03:46:12.935813  6656 net.cpp:141] Setting up lstm1_
I0924 03:46:12.935832  6656 net.cpp:148] Top shape: 1 1 1000 (1000)
I0924 03:46:12.935840  6656 net.cpp:156] Memory required for data: 90016
I0924 03:46:12.935849  6656 layer_factory.hpp:77] Creating layer lstm1_h_concat
I0924 03:46:12.935866  6656 net.cpp:91] Creating Layer lstm1_h_concat
I0924 03:46:12.935876  6656 net.cpp:425] lstm1_h_concat <- h_1
I0924 03:46:12.935895  6656 net.cpp:399] lstm1_h_concat -> h
I0924 03:46:12.935952  6656 net.cpp:141] Setting up lstm1_h_concat
I0924 03:46:12.935971  6656 net.cpp:148] Top shape: 1 1 1000 (1000)
I0924 03:46:12.935979  6656 net.cpp:156] Memory required for data: 94016
I0924 03:46:12.935988  6656 layer_factory.hpp:77] Creating layer h_pseudoloss
I0924 03:46:12.936009  6656 net.cpp:91] Creating Layer h_pseudoloss
I0924 03:46:12.936020  6656 net.cpp:425] h_pseudoloss <- h
I0924 03:46:12.936033  6656 net.cpp:399] h_pseudoloss -> h_pseudoloss
I0924 03:46:12.936177  6656 net.cpp:141] Setting up h_pseudoloss
…
I0924 03:46:12.936364  6656 net.cpp:219] lstm1_ does not need backward computation.
I0924 03:46:12.936372  6656 net.cpp:261] This network produces output c_T
I0924 03:46:12.936378  6656 net.cpp:261] This network produces output h_pseudoloss
I0924 03:46:12.936409  6656 net.cpp:274] Network initialization done.
I0924 03:46:12.936476  6656 recurrent_layer.cpp:150] Adding parameter 0: W_xc
I0924 03:46:12.936489  6656 recurrent_layer.cpp:150] Adding parameter 1: b_c
I0924 03:46:12.936497  6656 recurrent_layer.cpp:150] Adding parameter 2: W_hc
I0924 03:46:12.936655  6656 net.cpp:141] Setting up lstm1
I0924 03:46:12.936676  6656 net.cpp:148] Top shape: 1 1 1000 (1000)
I0924 03:46:12.936683  6656 net.cpp:156] Memory required for data: 26408
I0924 03:46:12.936707  6656 layer_factory.hpp:77] Creating layer concat
I0924 03:46:12.936722  6656 net.cpp:91] Creating Layer concat
I0924 03:46:12.936730  6656 net.cpp:425] concat <- lstm1
I0924 03:46:12.936741  6656 net.cpp:425] concat <- embedded_input_sentence
I0924 03:46:12.936750  6656 net.cpp:425] concat <- reshaped_stage_indicator
I0924 03:46:12.936764  6656 net.cpp:399] concat -> lstm1_video_sequence
I0924 03:46:12.936816  6656 net.cpp:141] Setting up concat
I0924 03:46:12.936833  6656 net.cpp:148] Top shape: 1 1 1501 (1501)
I0924 03:46:12.936841  6656 net.cpp:156] Memory required for data: 32412
I0924 03:46:12.936849  6656 layer_factory.hpp:77] Creating layer lstm2
I0924 03:46:12.936869  6656 net.cpp:91] Creating Layer lstm2
I0924 03:46:12.936878  6656 net.cpp:425] lstm2 <- lstm1_video_sequence
I0924 03:46:12.936889  6656 net.cpp:425] lstm2 <- cont_sentence_input_1_split_1
I0924 03:46:12.936903  6656 net.cpp:399] lstm2 -> lstm2
I0924 03:46:12.936921  6656 recurrent_layer.cpp:20] Initializing recurrent layer: assuming input batch contains 1 timesteps of 1 independent streams.
I0924 03:46:12.937331  6656 net.cpp:49] Initializing net from parameters: 
layer {
  name: "lstm2_"
  type: "Input"
  top: "x"
  top: "cont"
  input_param {
    shape {
      dim: 1
      dim: 1
      dim: 1501
    }
    shape {
      dim: 1
      dim: 1
    }
  }
}
layer {
  name: "lstm2_"
  type: "Input"
  top: "c_0"
  top: "h_0"
  input_param {
    shape {
      dim: 1
      dim: 1
      dim: 1000
    }
    shape {
      dim: 1
      dim: 1
      dim: 1000
    }
  }
}
layer {
  name: "lstm2_cont_slice"
  type: "Slice"
  bottom: "cont"
  top: "cont_1"
  slice_param {
    axis: 0
  }
}
layer {
  name: "lstm2_x_transform"
  type: "InnerProduct"
  bottom: "x"
  top: "W_xc_x"
  param {
    name: "W_xc"
  }
  param {
    name: "b_c"
  }
  propagate_down: true
  inner_product_param {
    num_output: 4000
    bias_term: true
    weight_filler {
      type: "uniform"
      min: -0.08
      max: 0.08
    }
    bias_filler {
      type: "constant"
      value: 0
    }
    axis: 2
  }
}
layer {
  name: "lstm2_W_xc_x_slice"
  type: "Slice"
  bottom: "W_xc_x"
  top: "W_xc_x_1"
  slice_param {
    axis: 0
  }
}
layer {
  name: "lstm2_h_conted_0"
  type: "Scale"
  bottom: "h_0"
  bottom: "cont_1"
  top: "h_conted_0"
  scale_param {
    axis: 0
  }
}
layer {
  name: "lstm2_transform_1"
  type: "InnerProduct"
  bottom: "h_conted_0"
  top: "W_hc_h_0"
  param {
    name: "W_hc"
  }
  inner_product_param {
    num_output: 4000
    bias_term: false
    weight_filler {
      type: "uniform"
      min: -0.08
      max: 0.08
    }
    axis: 2
  }
}
layer {
  name: "lstm2_gate_input_1"
  type: "Eltwise"
  bottom: "W_hc_h_0"
  bottom: "W_xc_x_1"
  top: "gate_input_1"
  eltwise_param {
    operation: SUM
  }
}
layer {
  name: "lstm2_unit_1"
  type: "LSTMUnit"
  bottom: "c_0"
  bottom: "gate_input_1"
  bottom: "cont_1"
  top: "c_1"
  top: "h_1"
}
layer {
  name: "lstm2_"
  type: "Split"
  bottom: "c_1"
  top: "c_T"
}
layer {
  name: "lstm2_h_concat"
  type: "Concat"
  bottom: "h_1"
  top: "h"
  concat_param {
    axis: 0
  }
}
layer {
  name: "h_pseudoloss"
  type: "Reduction"
  bottom: "h"
  top: "h_pseudoloss"
  loss_weight: 1
}
I0924 03:46:12.937482  6656 layer_factory.hpp:77] Creating layer lstm2_
I0924 03:46:12.937505  6656 net.cpp:91] Creating Layer lstm2_
I0924 03:46:12.937518  6656 net.cpp:399] lstm2_ -> x
I0924 03:46:12.937538  6656 net.cpp:399] lstm2_ -> cont
I0924 03:46:12.937624  6656 net.cpp:141] Setting up lstm2_
I0924 03:46:12.937644  6656 net.cpp:148] Top shape: 1 1 1501 (1501)
I0924 03:46:12.937656  6656 net.cpp:148] Top shape: 1 1 (1)
I0924 03:46:12.937664  6656 net.cpp:156] Memory required for data: 6008
I0924 03:46:12.937674  6656 layer_factory.hpp:77] Creating layer lstm2_
I0924 03:46:12.937717  6656 net.cpp:91] Creating Layer lstm2_
I0924 03:46:12.937742  6656 net.cpp:399] lstm2_ -> c_0
I0924 03:46:12.937765  6656 net.cpp:399] lstm2_ -> h_0
I0924 03:46:12.937861  6656 net.cpp:141] Setting up lstm2_
I0924 03:46:12.937880  6656 net.cpp:148] Top shape: 1 1 1000 (1000)
I0924 03:46:12.937892  6656 net.cpp:148] Top shape: 1 1 1000 (1000)
I0924 03:46:12.937901  6656 net.cpp:156] Memory required for data: 14008
I0924 03:46:12.937911  6656 layer_factory.hpp:77] Creating layer lstm2_cont_slice
I0924 03:46:12.937932  6656 net.cpp:91] Creating Layer lstm2_cont_slice
I0924 03:46:12.937943  6656 net.cpp:425] lstm2_cont_slice <- cont
I0924 03:46:12.937958  6656 net.cpp:399] lstm2_cont_slice -> cont_1
I0924 03:46:12.938017  6656 net.cpp:141] Setting up lstm2_cont_slice
I0924 03:46:12.938035  6656 net.cpp:148] Top shape: 1 1 (1)
I0924 03:46:12.938043  6656 net.cpp:156] Memory required for data: 14012
I0924 03:46:12.938051  6656 layer_factory.hpp:77] Creating layer cont_1_lstm2_cont_slice_0_split
I0924 03:46:12.938066  6656 net.cpp:91] Creating Layer cont_1_lstm2_cont_slice_0_split
I0924 03:46:12.938076  6656 net.cpp:425] cont_1_lstm2_cont_slice_0_split <- cont_1
I0924 03:46:12.938094  6656 net.cpp:399] cont_1_lstm2_cont_slice_0_split -> cont_1_lstm2_cont_slice_0_split_0
I0924 03:46:12.938112  6656 net.cpp:399] cont_1_lstm2_cont_slice_0_split -> cont_1_lstm2_cont_slice_0_split_1
I0924 03:46:12.938204  6656 net.cpp:141] Setting up cont_1_lstm2_cont_slice_0_split
I0924 03:46:12.938221  6656 net.cpp:148] Top shape: 1 1 (1)
I0924 03:46:12.938233  6656 net.cpp:148] Top shape: 1 1 (1)
I0924 03:46:12.938241  6656 net.cpp:156] Memory required for data: 14020
I0924 03:46:12.938249  6656 layer_factory.hpp:77] Creating layer lstm2_x_transform
I0924 03:46:12.938273  6656 net.cpp:91] Creating Layer lstm2_x_transform
I0924 03:46:12.938284  6656 net.cpp:425] lstm2_x_transform <- x
I0924 03:46:12.938300  6656 net.cpp:399] lstm2_x_transform -> W_xc_x
I0924 03:46:12.956714  6612 net.cpp:141] Setting up lstm1
I0924 03:46:12.956759  6612 net.cpp:148] Top shape: 1 1 1000 (1000)
I0924 03:46:12.956770  6612 net.cpp:156] Memory required for data: 26408
I0924 03:46:12.956800  6612 layer_factory.hpp:77] Creating layer concat
I0924 03:46:12.956827  6612 net.cpp:91] Creating Layer concat
I0924 03:46:12.956841  6612 net.cpp:425] concat <- lstm1
I0924 03:46:12.956856  6612 net.cpp:425] concat <- embedded_input_sentence
I0924 03:46:12.956866  6612 net.cpp:425] concat <- reshaped_stage_indicator
I0924 03:46:12.956879  6612 net.cpp:399] concat -> lstm1_video_sequence
I0924 03:46:12.957028  6614 net.cpp:141] Setting up lstm1_h_conted_0
I0924 03:46:12.957074  6614 net.cpp:148] Top shape: 1 1 1000 (1000)
I0924 03:46:12.957084  6614 net.cpp:156] Memory required for data: 46016
I0924 03:46:12.957096  6614 layer_factory.hpp:77] Creating layer lstm1_transform_1
I0924 03:46:12.957123  6614 net.cpp:91] Creating Layer lstm1_transform_1
I0924 03:46:12.957136  6614 net.cpp:425] lstm1_transform_1 <- h_conted_0
I0924 03:46:12.957156  6614 net.cpp:399] lstm1_transform_1 -> W_hc_h_0
I0924 03:46:12.956840  6630 net.cpp:141] Setting up lstm1_transform_1
I0924 03:46:12.957325  6630 net.cpp:148] Top shape: 1 1 4000 (4000)
I0924 03:46:12.957334  6630 net.cpp:156] Memory required for data: 62016
I0924 03:46:12.957355  6630 layer_factory.hpp:77] Creating layer lstm1_gate_input_1
I0924 03:46:12.957381  6630 net.cpp:91] Creating Layer lstm1_gate_input_1
I0924 03:46:12.957393  6630 net.cpp:425] lstm1_gate_input_1 <- W_hc_h_0
I0924 03:46:12.957403  6630 net.cpp:425] lstm1_gate_input_1 <- W_xc_x_1
I0924 03:46:12.957417  6630 net.cpp:399] lstm1_gate_input_1 -> gate_input_1
I0924 03:46:12.957478  6618 net.cpp:141] Setting up lstm1_transform_1
I0924 03:46:12.957499  6618 net.cpp:148] Top shape: 1 1 4000 (4000)
I0924 03:46:12.957505  6618 net.cpp:156] Memory required for data: 62016
I0924 03:46:12.957523  6618 layer_factory.hpp:77] Creating layer lstm1_gate_input_1
I0924 03:46:12.957540  6618 net.cpp:91] Creating Layer lstm1_gate_input_1
I0924 03:46:12.957548  6618 net.cpp:425] lstm1_gate_input_1 <- W_hc_h_0
I0924 03:46:12.957559  6618 net.cpp:425] lstm1_gate_input_1 <- W_xc_x_1
I0924 03:46:12.957571  6618 net.cpp:399] lstm1_gate_input_1 -> gate_input_1
I0924 03:46:12.970274  6612 net.cpp:141] Setting up concat
I0924 03:46:12.970333  6612 net.cpp:148] Top shape: 1 1 1501 (1501)
I0924 03:46:12.970345  6612 net.cpp:156] Memory required for data: 32412
I0924 03:46:12.970356  6612 layer_factory.hpp:77] Creating layer lstm2
I0924 03:46:12.970387  6612 net.cpp:91] Creating Layer lstm2
I0924 03:46:12.970401  6612 net.cpp:425] lstm2 <- lstm1_video_sequence
I0924 03:46:12.970414  6612 net.cpp:425] lstm2 <- cont_sentence_input_1_split_1
I0924 03:46:12.970430  6612 net.cpp:399] lstm2 -> lstm2
I0924 03:46:12.970453  6612 recurrent_layer.cpp:20] Initializing recurrent layer: assuming input batch contains 1 timesteps of 1 independent streams.
I0924 03:46:12.970878  6612 net.cpp:49] Initializing net from parameters: 
layer {
  name: "lstm2_"
  type: "Input"
  top: "x"
  top: "cont"
  input_param {
    shape {
      dim: 1
      dim: 1
      dim: 1501
    }
    shape {
      dim: 1
      dim: 1
    }
  }
}
layer {
  name: "lstm2_"
  type: "Input"
  top: "c_0"
  top: "h_0"
  input_param {
    shape {
      dim: 1
      dim: 1
      dim: 1000
    }
    shape {
      dim: 1
      dim: 1
      dim: 1000
    }
  }
}
layer {
  name: "lstm2_cont_slice"
  type: "Slice"
  bottom: "cont"
  top: "cont_1"
  slice_param {
    axis: 0
  }
}
layer {
  name: "lstm2_x_transform"
  type: "InnerProduct"
  bottom: "x"
  top: "W_xc_x"
  param {
    name: "W_xc"
  }
  param {
    name: "b_c"
  }
  propagate_down: true
  inner_product_param {
    num_output: 4000
    bias_term: true
    weight_filler {
      type: "uniform"
      min: -0.08
      max: 0.08
    }
    bias_filler {
      type: "constant"
      value: 0
    }
    axis: 2
  }
}
layer {
  name: "lstm2_W_xc_x_slice"
  type: "Slice"
  bottom: "W_xc_x"
  top: "W_xc_x_1"
  slice_param {
    axis: 0
  }
}
layer {
  name: "lstm2_h_conted_0"
  type: "Scale"
  bottom: "h_0"
  bottom: "cont_1"
  top: "h_conted_0"
  scale_param {
    axis: 0
  }
}
layer {
  name: "lstm2_transform_1"
  type: "InnerProduct"
  bottom: "h_conted_0"
  top: "W_hc_h_0"
  param {
    name: "W_hc"
  }
  inner_product_param {
    num_output: 4000
    bias_term: false
    weight_filler {
      type: "uniform"
      min: -0.08
      max: 0.08
    }
    axis: 2
  }
}
layer {
  name: "lstm2_gate_input_1"
  type: "Eltwise"
  bottom: "W_hc_h_0"
  bottom: "W_xc_x_1"
  top: "gate_input_1"
  eltwise_param {
    operation: SUM
  }
}
layer {
  name: "lstm2_unit_1"
  type: "LSTMUnit"
  bottom: "c_0"
  bottom: "gate_input_1"
  bottom: "cont_1"
  top: "c_1"
  top: "h_1"
}
layer {
  name: "lstm2_"
  type: "Split"
  bottom: "c_1"
  top: "c_T"
}
layer {
  name: "lstm2_h_concat"
  type: "Concat"
  bottom: "h_1"
  top: "h"
  concat_param {
    axis: 0
  }
}
layer {
  name: "h_pseudoloss"
  type: "Reduction"
  bottom: "h"
  top: "h_pseudoloss"
  loss_weight: 1
}
I0924 03:46:12.971016  6612 layer_factory.hpp:77] Creating layer lstm2_
I0924 03:46:12.971035  6612 net.cpp:91] Creating Layer lstm2_
I0924 03:46:12.971045  6612 net.cpp:399] lstm2_ -> x
I0924 03:46:12.971072  6612 net.cpp:399] lstm2_ -> cont
I0924 03:46:12.971815  6630 net.cpp:141] Setting up lstm1_gate_input_1
I0924 03:46:12.971850  6618 net.cpp:141] Setting up lstm1_gate_input_1
I0924 03:46:12.971860  6630 net.cpp:148] Top shape: 1 1 4000 (4000)
I0924 03:46:12.971889  6630 net.cpp:156] Memory required for data: 78016
I0924 03:46:12.971889  6618 net.cpp:148] Top shape: 1 1 4000 (4000)
I0924 03:46:12.971912  6630 layer_factory.hpp:77] Creating layer lstm1_unit_1
I0924 03:46:12.971915  6618 net.cpp:156] Memory required for data: 78016
I0924 03:46:12.971925  6618 layer_factory.hpp:77] Creating layer lstm1_unit_1
I0924 03:46:12.971937  6630 net.cpp:91] Creating Layer lstm1_unit_1
I0924 03:46:12.971945  6618 net.cpp:91] Creating Layer lstm1_unit_1
I0924 03:46:12.971947  6630 net.cpp:425] lstm1_unit_1 <- c_0
I0924 03:46:12.971956  6618 net.cpp:425] lstm1_unit_1 <- c_0
I0924 03:46:12.971961  6630 net.cpp:425] lstm1_unit_1 <- gate_input_1
I0924 03:46:12.971967  6618 net.cpp:425] lstm1_unit_1 <- gate_input_1
I0924 03:46:12.971971  6630 net.cpp:425] lstm1_unit_1 <- cont_1_lstm1_cont_slice_0_split_1
I0924 03:46:12.971977  6618 net.cpp:425] lstm1_unit_1 <- cont_1_lstm1_cont_slice_0_split_1
I0924 03:46:12.971984  6630 net.cpp:399] lstm1_unit_1 -> c_1
I0924 03:46:12.971988  6618 net.cpp:399] lstm1_unit_1 -> c_1
I0924 03:46:12.972002  6630 net.cpp:399] lstm1_unit_1 -> h_1
I0924 03:46:12.972004  6618 net.cpp:399] lstm1_unit_1 -> h_1
I0924 03:46:12.993942  6612 net.cpp:141] Setting up lstm2_
I0924 03:46:12.993998  6612 net.cpp:148] Top shape: 1 1 1501 (1501)
I0924 03:46:12.994010  6612 net.cpp:148] Top shape: 1 1 (1)
I0924 03:46:12.994017  6612 net.cpp:156] Memory required for data: 6008
I0924 03:46:12.994029  6612 layer_factory.hpp:77] Creating layer lstm2_
I0924 03:46:12.994057  6612 net.cpp:91] Creating Layer lstm2_
I0924 03:46:12.994072  6612 net.cpp:399] lstm2_ -> c_0
I0924 03:46:12.994099  6612 net.cpp:399] lstm2_ -> h_0
I0924 03:46:12.994168  6630 net.cpp:141] Setting up lstm1_unit_1
I0924 03:46:12.994210  6630 net.cpp:148] Top shape: 1 1 1000 (1000)
I0924 03:46:12.994220  6630 net.cpp:148] Top shape: 1 1 1000 (1000)
I0924 03:46:12.994228  6630 net.cpp:156] Memory required for data: 86016
I0924 03:46:12.994240  6630 layer_factory.hpp:77] Creating layer lstm1_
I0924 03:46:12.994261  6630 net.cpp:91] Creating Layer lstm1_
I0924 03:46:12.994273  6630 net.cpp:425] lstm1_ <- c_1
I0924 03:46:12.994292  6630 net.cpp:399] lstm1_ -> c_T
I0924 03:46:12.994401  6626 net.cpp:141] Setting up lstm2_x_transform
I0924 03:46:12.994423  6626 net.cpp:148] Top shape: 1 1 4000 (4000)
I0924 03:46:12.994431  6626 net.cpp:156] Memory required for data: 30020
I0924 03:46:12.994451  6626 layer_factory.hpp:77] Creating layer lstm2_W_xc_x_slice
I0924 03:46:12.994467  6626 net.cpp:91] Creating Layer lstm2_W_xc_x_slice
I0924 03:46:12.994477  6626 net.cpp:425] lstm2_W_xc_x_slice <- W_xc_x
I0924 03:46:12.994489  6626 net.cpp:399] lstm2_W_xc_x_slice -> W_xc_x_1
I0924 03:46:12.994489  6618 net.cpp:141] Setting up lstm1_unit_1
I0924 03:46:12.994524  6618 net.cpp:148] Top shape: 1 1 1000 (1000)
I0924 03:46:12.994535  6618 net.cpp:148] Top shape: 1 1 1000 (1000)
I0924 03:46:12.994542  6618 net.cpp:156] Memory required for data: 86016
I0924 03:46:12.994551  6618 layer_factory.hpp:77] Creating layer lstm1_
I0924 03:46:12.994563  6618 net.cpp:91] Creating Layer lstm1_
I0924 03:46:12.994572  6618 net.cpp:425] lstm1_ <- c_1
I0924 03:46:12.994583  6618 net.cpp:399] lstm1_ -> c_T
I0924 03:46:12.994614  6626 net.cpp:141] Setting up lstm2_W_xc_x_slice
I0924 03:46:12.994617  6630 net.cpp:141] Setting up lstm1_
I0924 03:46:12.994644  6626 net.cpp:148] Top shape: 1 1 4000 (4000)
I0924 03:46:12.994653  6630 net.cpp:148] Top shape: 1 1 1000 (1000)
I0924 03:46:12.994654  6626 net.cpp:156] Memory required for data: 46020
I0924 03:46:12.994686  6612 net.cpp:141] Setting up lstm2_
I0924 03:46:12.994699  6626 layer_factory.hpp:77] Creating layer lstm2_h_conted_0
I0924 03:46:12.994709  6612 net.cpp:148] Top shape: 1 1 1000 (1000)
I0924 03:46:12.994716  6626 net.cpp:91] Creating Layer lstm2_h_conted_0
I0924 03:46:12.994724  6612 net.cpp:148] Top shape: 1 1 1000 (1000)
I0924 03:46:12.994729  6626 net.cpp:425] lstm2_h_conted_0 <- h_0
I0924 03:46:12.994738  6612 net.cpp:156] Memory required for data: 14008
I0924 03:46:12.994740  6618 net.cpp:141] Setting up lstm1_
I0924 03:46:12.994746  6626 net.cpp:425] lstm2_h_conted_0 <- cont_1_lstm2_cont_slice_0_split_0
I0924 03:46:12.994748  6612 layer_factory.hpp:77] Creating layer lstm2_cont_slice
I0924 03:46:12.994756  6618 net.cpp:148] Top shape: 1 1 1000 (1000)
I0924 03:46:12.994760  6626 net.cpp:399] lstm2_h_conted_0 -> h_conted_0
I0924 03:46:12.994765  6618 net.cpp:156] Memory required for data: 90016
I0924 03:46:12.994767  6612 net.cpp:91] Creating Layer lstm2_cont_slice
I0924 03:46:12.994774  6618 layer_factory.hpp:77] Creating layer lstm1_h_concat
I0924 03:46:12.994779  6612 net.cpp:425] lstm2_cont_slice <- cont
I0924 03:46:12.994796  6618 net.cpp:91] Creating Layer lstm1_h_concat
I0924 03:46:12.994801  6612 net.cpp:399] lstm2_cont_slice -> cont_1
I0924 03:46:12.994806  6618 net.cpp:425] lstm1_h_concat <- h_1
I0924 03:46:12.994817  6618 net.cpp:399] lstm1_h_concat -> h
I0924 03:46:12.994844  6630 net.cpp:156] Memory required for data: 90016
I0924 03:46:12.994853  6630 layer_factory.hpp:77] Creating layer lstm1_h_concat
I0924 03:46:12.994865  6630 net.cpp:91] Creating Layer lstm1_h_concat
I0924 03:46:12.994874  6630 net.cpp:425] lstm1_h_concat <- h_1
I0924 03:46:12.994875  6612 net.cpp:141] Setting up lstm2_cont_slice
I0924 03:46:12.994889  6630 net.cpp:399] lstm1_h_concat -> h
I0924 03:46:12.994895  6612 net.cpp:148] Top shape: 1 1 (1)
I0924 03:46:12.994906  6612 net.cpp:156] Memory required for data: 14012
I0924 03:46:12.994915  6612 layer_factory.hpp:77] Creating layer cont_1_lstm2_cont_slice_0_split
I0924 03:46:12.994932  6612 net.cpp:91] Creating Layer cont_1_lstm2_cont_slice_0_split
I0924 03:46:12.994942  6612 net.cpp:425] cont_1_lstm2_cont_slice_0_split <- cont_1
I0924 03:46:12.994957  6612 net.cpp:399] cont_1_lstm2_cont_slice_0_split -> cont_1_lstm2_cont_slice_0_split_0
I0924 03:46:12.994973  6612 net.cpp:399] cont_1_lstm2_cont_slice_0_split -> cont_1_lstm2_cont_slice_0_split_1
I0924 03:46:12.995000  6626 net.cpp:141] Setting up lstm2_h_conted_0
I0924 03:46:12.995017  6626 net.cpp:148] Top shape: 1 1 1000 (1000)
I0924 03:46:12.995023  6626 net.cpp:156] Memory required for data: 50020
I0924 03:46:12.995030  6626 layer_factory.hpp:77] Creating layer lstm2_transform_1
I0924 03:46:12.995048  6626 net.cpp:91] Creating Layer lstm2_transform_1
I0924 03:46:12.995056  6626 net.cpp:425] lstm2_transform_1 <- h_conted_0
I0924 03:46:12.995069  6626 net.cpp:399] lstm2_transform_1 -> W_hc_h_0
I0924 03:46:12.995069  6612 net.cpp:141] Setting up cont_1_lstm2_cont_slice_0_split
I0924 03:46:12.995087  6612 net.cpp:148] Top shape: 1 1 (1)
I0924 03:46:12.995098  6612 net.cpp:148] Top shape: 1 1 (1)
I0924 03:46:12.995107  6612 net.cpp:156] Memory required for data: 14020
I0924 03:46:12.995115  6612 layer_factory.hpp:77] Creating layer lstm2_x_transform
I0924 03:46:12.995127  6618 net.cpp:141] Setting up lstm1_h_concat
I0924 03:46:12.995137  6612 net.cpp:91] Creating Layer lstm2_x_transform
I0924 03:46:12.995144  6618 net.cpp:148] Top shape: 1 1 1000 (1000)
I0924 03:46:12.995148  6612 net.cpp:425] lstm2_x_transform <- x
I0924 03:46:12.995152  6618 net.cpp:156] Memory required for data: 94016
I0924 03:46:12.995162  6618 layer_factory.hpp:77] Creating layer h_pseudoloss
I0924 03:46:12.995167  6612 net.cpp:399] lstm2_x_transform -> W_xc_x
I0924 03:46:12.995177  6618 net.cpp:91] Creating Layer h_pseudoloss
I0924 03:46:12.995184  6618 net.cpp:425] h_pseudoloss <- h
…
I0924 03:46:13.019609  6618 net.cpp:219] lstm1_ does not need backward computation.
I0924 03:46:13.019615  6618 net.cpp:261] This network produces output c_T
I0924 03:46:13.019626  6618 net.cpp:261] This network produces output h_pseudoloss
I0924 03:46:13.019656  6618 net.cpp:274] Network initialization done.
I0924 03:46:13.019747  6618 recurrent_layer.cpp:150] Adding parameter 0: W_xc
I0924 03:46:13.019758  6618 recurrent_layer.cpp:150] Adding parameter 1: b_c
I0924 03:46:13.019767  6618 recurrent_layer.cpp:150] Adding parameter 2: W_hc
I0924 03:46:13.019930  6618 net.cpp:141] Setting up lstm1
I0924 03:46:13.019948  6618 net.cpp:148] Top shape: 1 1 1000 (1000)
I0924 03:46:13.019954  6618 net.cpp:156] Memory required for data: 26408
I0924 03:46:13.019980  6618 layer_factory.hpp:77] Creating layer concat
I0924 03:46:13.020004  6618 net.cpp:91] Creating Layer concat
I0924 03:46:13.020015  6618 net.cpp:425] concat <- lstm1
I0924 03:46:13.020026  6618 net.cpp:425] concat <- embedded_input_sentence
I0924 03:46:13.020036  6618 net.cpp:425] concat <- reshaped_stage_indicator
I0924 03:46:13.020048  6618 net.cpp:399] concat -> lstm1_video_sequence
I0924 03:46:13.020112  6618 net.cpp:141] Setting up concat
I0924 03:46:13.020126  6618 net.cpp:148] Top shape: 1 1 1501 (1501)
I0924 03:46:13.020133  6618 net.cpp:156] Memory required for data: 32412
I0924 03:46:13.020141  6618 layer_factory.hpp:77] Creating layer lstm2
I0924 03:46:13.020164  6618 net.cpp:91] Creating Layer lstm2
I0924 03:46:13.020172  6618 net.cpp:425] lstm2 <- lstm1_video_sequence
I0924 03:46:13.020182  6618 net.cpp:425] lstm2 <- cont_sentence_input_1_split_1
I0924 03:46:13.020195  6618 net.cpp:399] lstm2 -> lstm2
I0924 03:46:13.020210  6618 recurrent_layer.cpp:20] Initializing recurrent layer: assuming input batch contains 1 timesteps of 1 independent streams.
I0924 03:46:13.020604  6618 net.cpp:49] Initializing net from parameters: 
layer {
  name: "lstm2_"
  type: "Input"
  top: "x"
  top: "cont"
  input_param {
    shape {
      dim: 1
      dim: 1
      dim: 1501
    }
    shape {
      dim: 1
      dim: 1
    }
  }
}
layer {
  name: "lstm2_"
  type: "Input"
  top: "c_0"
  top: "h_0"
  input_param {
    shape {
      dim: 1
      dim: 1
      dim: 1000
    }
    shape {
      dim: 1
      dim: 1
      dim: 1000
    }
  }
}
layer {
  name: "lstm2_cont_slice"
  type: "Slice"
  bottom: "cont"
  top: "cont_1"
  slice_param {
    axis: 0
  }
}
layer {
  name: "lstm2_x_transform"
  type: "InnerProduct"
  bottom: "x"
  top: "W_xc_x"
  param {
    name: "W_xc"
  }
  param {
    name: "b_c"
  }
  propagate_down: true
  inner_product_param {
    num_output: 4000
    bias_term: true
    weight_filler {
      type: "uniform"
      min: -0.08
      max: 0.08
    }
    bias_filler {
      type: "constant"
      value: 0
    }
    axis: 2
  }
}
layer {
  name: "lstm2_W_xc_x_slice"
  type: "Slice"
  bottom: "W_xc_x"
  top: "W_xc_x_1"
  slice_param {
    axis: 0
  }
}
layer {
  name: "lstm2_h_conted_0"
  type: "Scale"
  bottom: "h_0"
  bottom: "cont_1"
  top: "h_conted_0"
  scale_param {
    axis: 0
  }
}
layer {
  name: "lstm2_transform_1"
  type: "InnerProduct"
  bottom: "h_conted_0"
  top: "W_hc_h_0"
  param {
    name: "W_hc"
  }
  inner_product_param {
    num_output: 4000
    bias_term: false
    weight_filler {
      type: "uniform"
      min: -0.08
      max: 0.08
    }
    axis: 2
  }
}
layer {
  name: "lstm2_gate_input_1"
  type: "Eltwise"
  bottom: "W_hc_h_0"
  bottom: "W_xc_x_1"
  top: "gate_input_1"
  eltwise_param {
    operation: SUM
  }
}
layer {
  name: "lstm2_unit_1"
  type: "LSTMUnit"
  bottom: "c_0"
  bottom: "gate_input_1"
  bottom: "cont_1"
  top: "c_1"
  top: "h_1"
}
layer {
  name: "lstm2_"
  type: "Split"
  bottom: "c_1"
  top: "c_T"
}
layer {
  name: "lstm2_h_concat"
  type: "Concat"
  bottom: "h_1"
  top: "h"
  concat_param {
    axis: 0
  }
}
layer {
  name: "h_pseudoloss"
  type: "Reduction"
  bottom: "h"
  top: "h_pseudoloss"
  loss_weight: 1
}
I0924 03:46:13.020740  6618 layer_factory.hpp:77] Creating layer lstm2_
I0924 03:46:13.020759  6618 net.cpp:91] Creating Layer lstm2_
I0924 03:46:13.020771  6618 net.cpp:399] lstm2_ -> x
I0924 03:46:13.020787  6618 net.cpp:399] lstm2_ -> cont
I0924 03:46:13.020865  6618 net.cpp:141] Setting up lstm2_
I0924 03:46:13.020880  6618 net.cpp:148] Top shape: 1 1 1501 (1501)
I0924 03:46:13.020891  6618 net.cpp:148] Top shape: 1 1 (1)
I0924 03:46:13.020897  6618 net.cpp:156] Memory required for data: 6008
I0924 03:46:13.020905  6618 layer_factory.hpp:77] Creating layer lstm2_
I0924 03:46:13.020920  6618 net.cpp:91] Creating Layer lstm2_
I0924 03:46:13.020931  6618 net.cpp:399] lstm2_ -> c_0
I0924 03:46:13.020946  6618 net.cpp:399] lstm2_ -> h_0
I0924 03:46:13.021023  6618 net.cpp:141] Setting up lstm2_
I0924 03:46:13.021039  6618 net.cpp:148] Top shape: 1 1 1000 (1000)
I0924 03:46:13.021047  6618 net.cpp:148] Top shape: 1 1 1000 (1000)
I0924 03:46:13.021054  6618 net.cpp:156] Memory required for data: 14008
I0924 03:46:13.021061  6618 layer_factory.hpp:77] Creating layer lstm2_cont_slice
I0924 03:46:13.021075  6618 net.cpp:91] Creating Layer lstm2_cont_slice
I0924 03:46:13.021083  6618 net.cpp:425] lstm2_cont_slice <- cont
I0924 03:46:13.021098  6618 net.cpp:399] lstm2_cont_slice -> cont_1
I0924 03:46:13.021148  6618 net.cpp:141] Setting up lstm2_cont_slice
I0924 03:46:13.021162  6618 net.cpp:148] Top shape: 1 1 (1)
I0924 03:46:13.021169  6618 net.cpp:156] Memory required for data: 14012
I0924 03:46:13.021176  6618 layer_factory.hpp:77] Creating layer cont_1_lstm2_cont_slice_0_split
I0924 03:46:13.021189  6618 net.cpp:91] Creating Layer cont_1_lstm2_cont_slice_0_split
I0924 03:46:13.021198  6618 net.cpp:425] cont_1_lstm2_cont_slice_0_split <- cont_1
I0924 03:46:13.021209  6618 net.cpp:399] cont_1_lstm2_cont_slice_0_split -> cont_1_lstm2_cont_slice_0_split_0
I0924 03:46:13.021221  6618 net.cpp:399] cont_1_lstm2_cont_slice_0_split -> cont_1_lstm2_cont_slice_0_split_1
I0924 03:46:13.021296  6618 net.cpp:141] Setting up cont_1_lstm2_cont_slice_0_split
I0924 03:46:13.021311  6618 net.cpp:148] Top shape: 1 1 (1)
I0924 03:46:13.021322  6618 net.cpp:148] Top shape: 1 1 (1)
I0924 03:46:13.021329  6618 net.cpp:156] Memory required for data: 14020
I0924 03:46:13.021338  6618 layer_factory.hpp:77] Creating layer lstm2_x_transform
I0924 03:46:13.021358  6618 net.cpp:91] Creating Layer lstm2_x_transform
I0924 03:46:13.021366  6618 net.cpp:425] lstm2_x_transform <- x
I0924 03:46:13.021379  6618 net.cpp:399] lstm2_x_transform -> W_xc_x
I0924 03:46:13.036142  6608 net.cpp:141] Setting up embedding
I0924 03:46:13.036190  6614 net.cpp:141] Setting up lstm1_transform_1
I0924 03:46:13.036200  6608 net.cpp:148] Top shape: 1 1 500 (500)
I0924 03:46:13.036223  6614 net.cpp:148] Top shape: 1 1 4000 (4000)
I0924 03:46:13.036229  6608 net.cpp:156] Memory required for data: 22408
I0924 03:46:13.036232  6614 net.cpp:156] Memory required for data: 62016
I0924 03:46:13.036272  6608 layer_factory.hpp:77] Creating layer lstm1
I0924 03:46:13.036272  6614 layer_factory.hpp:77] Creating layer lstm1_gate_input_1
I0924 03:46:13.036310  6608 net.cpp:91] Creating Layer lstm1
I0924 03:46:13.036312  6614 net.cpp:91] Creating Layer lstm1_gate_input_1
I0924 03:46:13.036322  6608 net.cpp:425] lstm1 <- embedded_input_frames
I0924 03:46:13.036324  6614 net.cpp:425] lstm1_gate_input_1 <- W_hc_h_0
I0924 03:46:13.036334  6608 net.cpp:425] lstm1 <- cont_sentence_input_1_split_0
I0924 03:46:13.036334  6614 net.cpp:425] lstm1_gate_input_1 <- W_xc_x_1
I0924 03:46:13.036361  6608 net.cpp:399] lstm1 -> lstm1
I0924 03:46:13.036363  6614 net.cpp:399] lstm1_gate_input_1 -> gate_input_1
I0924 03:46:13.036396  6608 recurrent_layer.cpp:20] Initializing recurrent layer: assuming input batch contains 1 timesteps of 1 independent streams.
I0924 03:46:13.036429  6656 net.cpp:141] Setting up lstm2_x_transform
I0924 03:46:13.036449  6656 net.cpp:148] Top shape: 1 1 4000 (4000)
I0924 03:46:13.036458  6656 net.cpp:156] Memory required for data: 30020
I0924 03:46:13.036476  6656 layer_factory.hpp:77] Creating layer lstm2_W_xc_x_slice
I0924 03:46:13.036484  6630 net.cpp:141] Setting up lstm1_h_concat
I0924 03:46:13.036494  6656 net.cpp:91] Creating Layer lstm2_W_xc_x_slice
I0924 03:46:13.036504  6656 net.cpp:425] lstm2_W_xc_x_slice <- W_xc_x
I0924 03:46:13.036505  6630 net.cpp:148] Top shape: 1 1 1000 (1000)
I0924 03:46:13.036514  6630 net.cpp:156] Memory required for data: 94016
I0924 03:46:13.036517  6656 net.cpp:399] lstm2_W_xc_x_slice -> W_xc_x_1
I0924 03:46:13.036525  6630 layer_factory.hpp:77] Creating layer h_pseudoloss
I0924 03:46:13.036535  6614 net.cpp:141] Setting up lstm1_gate_input_1
I0924 03:46:13.036538  6630 net.cpp:91] Creating Layer h_pseudoloss
I0924 03:46:13.036559  6614 net.cpp:148] Top shape: 1 1 4000 (4000)
I0924 03:46:13.036561  6630 net.cpp:425] h_pseudoloss <- h
I0924 03:46:13.036567  6614 net.cpp:156] Memory required for data: 78016
I0924 03:46:13.036576  6630 net.cpp:399] h_pseudoloss -> h_pseudoloss
I0924 03:46:13.036581  6656 net.cpp:141] Setting up lstm2_W_xc_x_slice
I0924 03:46:13.036576  6614 layer_factory.hpp:77] Creating layer lstm1_unit_1
I0924 03:46:13.036628  6614 net.cpp:91] Creating Layer lstm1_unit_1
I0924 03:46:13.036638  6614 net.cpp:425] lstm1_unit_1 <- c_0
I0924 03:46:13.036648  6614 net.cpp:425] lstm1_unit_1 <- gate_input_1
I0924 03:46:13.036658  6614 net.cpp:425] lstm1_unit_1 <- cont_1_lstm1_cont_slice_0_split_1
I0924 03:46:13.036669  6614 net.cpp:399] lstm1_unit_1 -> c_1
I0924 03:46:13.036684  6614 net.cpp:399] lstm1_unit_1 -> h_1
I0924 03:46:13.036810  6614 net.cpp:141] Setting up lstm1_unit_1
I0924 03:46:13.036826  6614 net.cpp:148] Top shape: 1 1 1000 (1000)
I0924 03:46:13.036837  6614 net.cpp:148] Top shape: 1 1 1000 (1000)
I0924 03:46:13.036833  6608 net.cpp:49] Initializing net from parameters: 
layer {
  name: "lstm1_"
  type: "Input"
  top: "x"
  top: "cont"
  input_param {
    shape {
      dim: 1
      dim: 1
      dim: 500
    }
    shape {
      dim: 1
      dim: 1
    }
  }
}
layer {
  name: "lstm1_"
  type: "Input"
  top: "c_0"
  top: "h_0"
  input_param {
    shape {
      dim: 1
      dim: 1
      dim: 1000
    }
    shape {
      dim: 1
      dim: 1
      dim: 1000
    }
  }
}
layer {
  name: "lstm1_cont_slice"
  type: "Slice"
  bottom: "cont"
  top: "cont_1"
  slice_param {
    axis: 0
  }
}
layer {
  name: "lstm1_x_transform"
  type: "InnerProduct"
  bottom: "x"
  top: "W_xc_x"
  param {
    name: "W_xc"
  }
  param {
    name: "b_c"
  }
  propagate_down: true
  inner_product_param {
    num_output: 4000
    bias_term: true
    weight_filler {
      type: "uniform"
      min: -0.08
      max: 0.08
    }
    bias_filler {
      type: "constant"
      value: 0
    }
    axis: 2
  }
}
layer {
  name: "lstm1_W_xc_x_slice"
  type: "Slice"
  bottom: "W_xc_x"
  top: "W_xc_x_1"
  slice_param {
    axis: 0
  }
}
layer {
  name: "lstm1_h_conted_0"
  type: "Scale"
  bottom: "h_0"
  bottom: "cont_1"
  top: "h_conted_0"
  scale_param {
    axis: 0
  }
}
layer {
  name: "lstm1_transform_1"
  type: "InnerProduct"
  bottom: "h_conted_0"
  top: "W_hc_h_0"
  param {
    name: "W_hc"
  }
  inner_product_param {
    num_output: 4000
    bias_term: false
    weight_filler {
      type: "uniform"
      min: -0.08
      max: 0.08
    }
    axis: 2
  }
}
layer {
  name: "lstm1_gate_input_1"
  type: "Eltwise"
  bottom: "W_hc_h_0"
  bottom: "W_xc_x_1"
  top: "gate_input_1"
  eltwise_param {
    operation: SUM
  }
}
layer {
  name: "lstm1_unit_1"
  type: "LSTMUnit"
  bottom: "c_0"
  bottom: "gate_input_1"
  bottom: "cont_1"
  top: "c_1"
  top: "h_1"
}
layer {
  name: "lstm1_"
  type: "Split"
  bottom: "c_1"
  top: "c_T"
}
layer {
  name: "lstm1_h_concat"
  type: "Concat"
  bottom: "h_1"
  top: "h"
  concat_param {
    axis: 0
  }
}
layer {
  name: "h_pseudoloss"
  type: "Reduction"
  bottom: "h"
  top: "h_pseudoloss"
  loss_weight: 1
}
I0924 03:46:13.036845  6614 net.cpp:156] Memory required for data: 86016
I0924 03:46:13.036854  6614 layer_factory.hpp:77] Creating layer lstm1_
I0924 03:46:13.036864  6630 net.cpp:141] Setting up h_pseudoloss
I0924 03:46:13.036870  6614 net.cpp:91] Creating Layer lstm1_
I0924 03:46:13.036890  6630 net.cpp:148] Top shape: (1)
I0924 03:46:13.036890  6614 net.cpp:425] lstm1_ <- c_1
…
I0924 03:46:13.037055  6630 net.cpp:219] lstm1_ does not need backward computation.
I0924 03:46:13.037062  6630 net.cpp:219] lstm1_ does not need backward computation.
I0924 03:46:13.037070  6630 net.cpp:261] This network produces output c_T
I0924 03:46:13.037078  6630 net.cpp:261] This network produces output h_pseudoloss
I0924 03:46:13.037101  6630 net.cpp:274] Network initialization done.
I0924 03:46:13.037163  6630 recurrent_layer.cpp:150] Adding parameter 0: W_xc
I0924 03:46:13.037173  6630 recurrent_layer.cpp:150] Adding parameter 1: b_c
I0924 03:46:13.037180  6630 recurrent_layer.cpp:150] Adding parameter 2: W_hc
I0924 03:46:13.036597  6656 net.cpp:148] Top shape: 1 1 4000 (4000)
I0924 03:46:13.038923  6656 net.cpp:156] Memory required for data: 46020
I0924 03:46:13.038947  6656 layer_factory.hpp:77] Creating layer lstm2_h_conted_0
I0924 03:46:13.038986  6656 net.cpp:91] Creating Layer lstm2_h_conted_0
I0924 03:46:13.038996  6656 net.cpp:425] lstm2_h_conted_0 <- h_0
I0924 03:46:13.039011  6656 net.cpp:425] lstm2_h_conted_0 <- cont_1_lstm2_cont_slice_0_split_0
I0924 03:46:13.039023  6656 net.cpp:399] lstm2_h_conted_0 -> h_conted_0
I0924 03:46:13.041817  6614 net.cpp:141] Setting up lstm1_
I0924 03:46:13.041846  6614 net.cpp:148] Top shape: 1 1 1000 (1000)
I0924 03:46:13.041853  6614 net.cpp:156] Memory required for data: 90016
I0924 03:46:13.041862  6614 layer_factory.hpp:77] Creating layer lstm1_h_concat
I0924 03:46:13.041878  6614 net.cpp:91] Creating Layer lstm1_h_concat
I0924 03:46:13.041887  6614 net.cpp:425] lstm1_h_concat <- h_1
I0924 03:46:13.041905  6614 net.cpp:399] lstm1_h_concat -> h
I0924 03:46:13.042008  6646 net.cpp:141] Setting up embedding
I0924 03:46:13.042032  6646 net.cpp:148] Top shape: 1 1 500 (500)
I0924 03:46:13.042039  6646 net.cpp:156] Memory required for data: 22408
I0924 03:46:13.042060  6646 layer_factory.hpp:77] Creating layer lstm1
I0924 03:46:13.042079  6646 net.cpp:91] Creating Layer lstm1
I0924 03:46:13.042089  6646 net.cpp:425] lstm1 <- embedded_input_frames
I0924 03:46:13.042100  6646 net.cpp:425] lstm1 <- cont_sentence_input_1_split_0
I0924 03:46:13.042117  6646 net.cpp:399] lstm1 -> lstm1
I0924 03:46:13.042138  6646 recurrent_layer.cpp:20] Initializing recurrent layer: assuming input batch contains 1 timesteps of 1 independent streams.
I0924 03:46:13.042229  6608 net.cpp:141] Setting up lstm1_
I0924 03:46:13.042250  6608 net.cpp:148] Top shape: 1 1 500 (500)
I0924 03:46:13.042260  6608 net.cpp:148] Top shape: 1 1 (1)
I0924 03:46:13.042263  6630 net.cpp:141] Setting up lstm1
I0924 03:46:13.042268  6608 net.cpp:156] Memory required for data: 2004
I0924 03:46:13.042289  6630 net.cpp:148] Top shape: 1 1 1000 (1000)
I0924 03:46:13.042294  6608 layer_factory.hpp:77] Creating layer lstm1_
I0924 03:46:13.042297  6630 net.cpp:156] Memory required for data: 26408
I0924 03:46:13.042313  6608 net.cpp:91] Creating Layer lstm1_
I0924 03:46:13.042320  6630 layer_factory.hpp:77] Creating layer concat
I0924 03:46:13.042331  6608 net.cpp:399] lstm1_ -> c_0
I0924 03:46:13.042320  6614 net.cpp:141] Setting up lstm1_h_concat
I0924 03:46:13.042346  6630 net.cpp:91] Creating Layer concat
I0924 03:46:13.042351  6608 net.cpp:399] lstm1_ -> h_0
I0924 03:46:13.042356  6630 net.cpp:425] concat <- lstm1
I0924 03:46:13.042352  6614 net.cpp:148] Top shape: 1 1 1000 (1000)
I0924 03:46:13.042367  6630 net.cpp:425] concat <- embedded_input_sentence
I0924 03:46:13.042371  6614 net.cpp:156] Memory required for data: 94016
I0924 03:46:13.042376  6630 net.cpp:425] concat <- reshaped_stage_indicator
I0924 03:46:13.042381  6614 layer_factory.hpp:77] Creating layer h_pseudoloss
I0924 03:46:13.042387  6630 net.cpp:399] concat -> lstm1_video_sequence
I0924 03:46:13.042393  6614 net.cpp:91] Creating Layer h_pseudoloss
I0924 03:46:13.042402  6614 net.cpp:425] h_pseudoloss <- h
I0924 03:46:13.042414  6614 net.cpp:399] h_pseudoloss -> h_pseudoloss
I0924 03:46:13.042418  6656 net.cpp:141] Setting up lstm2_h_conted_0
I0924 03:46:13.042433  6656 net.cpp:148] Top shape: 1 1 1000 (1000)
I0924 03:46:13.042439  6656 net.cpp:156] Memory required for data: 50020
I0924 03:46:13.042448  6656 layer_factory.hpp:77] Creating layer lstm2_transform_1
I0924 03:46:13.042455  6608 net.cpp:141] Setting up lstm1_
I0924 03:46:13.042464  6656 net.cpp:91] Creating Layer lstm2_transform_1
I0924 03:46:13.042472  6608 net.cpp:148] Top shape: 1 1 1000 (1000)
I0924 03:46:13.042474  6656 net.cpp:425] lstm2_transform_1 <- h_conted_0
I0924 03:46:13.042482  6608 net.cpp:148] Top shape: 1 1 1000 (1000)
I0924 03:46:13.042487  6656 net.cpp:399] lstm2_transform_1 -> W_hc_h_0
I0924 03:46:13.042491  6608 net.cpp:156] Memory required for data: 10004
I0924 03:46:13.042500  6608 layer_factory.hpp:77] Creating layer lstm1_cont_slice
I0924 03:46:13.042515  6608 net.cpp:91] Creating Layer lstm1_cont_slice
I0924 03:46:13.042522  6608 net.cpp:425] lstm1_cont_slice <- cont
I0924 03:46:13.042537  6608 net.cpp:399] lstm1_cont_slice -> cont_1
I0924 03:46:13.042665  6630 net.cpp:141] Setting up concat
I0924 03:46:13.042706  6630 net.cpp:148] Top shape: 1 1 1501 (1501)
I0924 03:46:13.042716  6630 net.cpp:156] Memory required for data: 32412
I0924 03:46:13.042728  6630 layer_factory.hpp:77] Creating layer lstm2
I0924 03:46:13.042757  6630 net.cpp:91] Creating Layer lstm2
I0924 03:46:13.042758  6608 net.cpp:141] Setting up lstm1_cont_slice
I0924 03:46:13.042768  6630 net.cpp:425] lstm2 <- lstm1_video_sequence
I0924 03:46:13.042776  6608 net.cpp:148] Top shape: 1 1 (1)
I0924 03:46:13.042783  6630 net.cpp:425] lstm2 <- cont_sentence_input_1_split_1
I0924 03:46:13.042785  6608 net.cpp:156] Memory required for data: 10008
I0924 03:46:13.042794  6608 layer_factory.hpp:77] Creating layer cont_1_lstm1_cont_slice_0_split
I0924 03:46:13.042791  6646 net.cpp:49] Initializing net from parameters: 
layer {
  name: "lstm1_"
  type: "Input"
  top: "x"
  top: "cont"
  input_param {
    shape {
      dim: 1
      dim: 1
      dim: 500
    }
    shape {
      dim: 1
      dim: 1
    }
  }
}
layer {
  name: "lstm1_"
  type: "Input"
  top: "c_0"
  top: "h_0"
  input_param {
    shape {
      dim: 1
      dim: 1
      dim: 1000
    }
    shape {
      dim: 1
      dim: 1
      dim: 1000
    }
  }
}
layer {
  name: "lstm1_cont_slice"
  type: "Slice"
  bottom: "cont"
  top: "cont_1"
  slice_param {
    axis: 0
  }
}
layer {
  name: "lstm1_x_transform"
  type: "InnerProduct"
  bottom: "x"
  top: "W_xc_x"
  param {
    name: "W_xc"
  }
  param {
    name: "b_c"
  }
  propagate_down: true
  inner_product_param {
    num_output: 4000
    bias_term: true
    weight_filler {
      type: "uniform"
      min: -0.08
      max: 0.08
    }
    bias_filler {
      type: "constant"
      value: 0
    }
    axis: 2
  }
}
layer {
  name: "lstm1_W_xc_x_slice"
  type: "Slice"
  bottom: "W_xc_x"
  top: "W_xc_x_1"
  slice_param {
    axis: 0
  }
}
layer {
  name: "lstm1_h_conted_0"
  type: "Scale"
  bottom: "h_0"
  bottom: "cont_1"
  top: "h_conted_0"
  scale_param {
    axis: 0
  }
}
layer {
  name: "lstm1_transform_1"
  type: "InnerProduct"
  bottom: "h_conted_0"
  top: "W_hc_h_0"
  param {
    name: "W_hc"
  }
  inner_product_param {
    num_output: 4000
    bias_term: false
    weight_filler {
      type: "uniform"
      min: -0.08
      max: 0.08
    }
    axis: 2
  }
}
layer {
  name: "lstm1_gate_input_1"
  type: "Eltwise"
  bottom: "W_hc_h_0"
  bottom: "W_xc_x_1"
  top: "gate_input_1"
  eltwise_param {
    operation: SUM
  }
}
layer {
  name: "lstm1_unit_1"
  type: "LSTMUnit"
  bottom: "c_0"
  bottom: "gate_input_1"
  bottom: "cont_1"
  top: "c_1"
  top: "h_1"
}
layer {
  name: "lstm1_"
  type: "Split"
  bottom: "c_1"
  top: "c_T"
}
layer {
  name: "lstm1_h_concat"
  type: "Concat"
  bottom: "h_1"
  top: "h"
  concat_param {
    axis: 0
  }
}
layer {
  name: "h_pseudoloss"
  type: "Reduction"
  bottom: "h"
  top: "h_pseudoloss"
  loss_weight: 1
}
…
I0924 03:47:02.107827  6965 layer_factory.hpp:77] Creating layer cont_1_lstm2_cont_slice_0_split
I0924 03:47:02.107826  6991 layer_factory.hpp:77] Creating layer lstm2_
I0924 03:47:02.107853  6965 net.cpp:91] Creating Layer cont_1_lstm2_cont_slice_0_split
I0924 03:47:02.107866  6965 net.cpp:425] cont_1_lstm2_cont_slice_0_split <- cont_1
I0924 03:47:02.107966  6965 net.cpp:399] cont_1_lstm2_cont_slice_0_split -> cont_1_lstm2_cont_slice_0_split_0
I0924 03:47:02.107966  6991 net.cpp:91] Creating Layer lstm2_
I0924 03:47:02.107995  6965 net.cpp:399] cont_1_lstm2_cont_slice_0_split -> cont_1_lstm2_cont_slice_0_split_1
I0924 03:47:02.107997  6991 net.cpp:425] lstm2_ <- c_1
I0924 03:47:02.108013  6991 net.cpp:399] lstm2_ -> c_T
I0924 03:47:02.108018  6942 net.cpp:141] Setting up lstm2_unit_1
I0924 03:47:02.108031  6942 net.cpp:148] Top shape: 1 1 1000 (1000)
I0924 03:47:02.108041  6942 net.cpp:148] Top shape: 1 1 1000 (1000)
I0924 03:47:02.108047  6942 net.cpp:156] Memory required for data: 90020
I0924 03:47:02.108055  6942 layer_factory.hpp:77] Creating layer lstm2_
I0924 03:47:02.108069  6942 net.cpp:91] Creating Layer lstm2_
I0924 03:47:02.108078  6942 net.cpp:425] lstm2_ <- c_1
I0924 03:47:02.108088  6942 net.cpp:399] lstm2_ -> c_T
I0924 03:47:02.197638  6991 net.cpp:141] Setting up lstm2_
I0924 03:47:02.197701  6991 net.cpp:148] Top shape: 1 1 1000 (1000)
I0924 03:47:02.197711  6991 net.cpp:156] Memory required for data: 94020
I0924 03:47:02.197724  6991 layer_factory.hpp:77] Creating layer lstm2_h_concat
I0924 03:47:02.197727  6942 net.cpp:141] Setting up lstm2_
I0924 03:47:02.197748  6991 net.cpp:91] Creating Layer lstm2_h_concat
I0924 03:47:02.197751  6942 net.cpp:148] Top shape: 1 1 1000 (1000)
I0924 03:47:02.197759  6991 net.cpp:425] lstm2_h_concat <- h_1
I0924 03:47:02.197764  6942 net.cpp:156] Memory required for data: 94020
I0924 03:47:02.197773  6942 layer_factory.hpp:77] Creating layer lstm2_h_concat
I0924 03:47:02.197787  6942 net.cpp:91] Creating Layer lstm2_h_concat
I0924 03:47:02.197789  6991 net.cpp:399] lstm2_h_concat -> h
I0924 03:47:02.197794  6942 net.cpp:425] lstm2_h_concat <- h_1
I0924 03:47:02.197808  6942 net.cpp:399] lstm2_h_concat -> h
I0924 03:47:02.198846  6949 net.cpp:141] Setting up lstm2_gate_input_1
I0924 03:47:02.198890  6949 net.cpp:148] Top shape: 1 1 4000 (4000)
I0924 03:47:02.198889  6981 net.cpp:141] Setting up lstm2_transform_1
I0924 03:47:02.198896  6949 net.cpp:156] Memory required for data: 82020
I0924 03:47:02.198912  6981 net.cpp:148] Top shape: 1 1 4000 (4000)
I0924 03:47:02.198915  6949 layer_factory.hpp:77] Creating layer lstm2_unit_1
I0924 03:47:02.198917  6981 net.cpp:156] Memory required for data: 66020
I0924 03:47:02.198937  6981 layer_factory.hpp:77] Creating layer lstm2_gate_input_1
I0924 03:47:02.198945  6949 net.cpp:91] Creating Layer lstm2_unit_1
I0924 03:47:02.198952  6949 net.cpp:425] lstm2_unit_1 <- c_0
I0924 03:47:02.198961  6949 net.cpp:425] lstm2_unit_1 <- gate_input_1
I0924 03:47:02.198962  6981 net.cpp:91] Creating Layer lstm2_gate_input_1
I0924 03:47:02.198966  6949 net.cpp:425] lstm2_unit_1 <- cont_1_lstm2_cont_slice_0_split_1
I0924 03:47:02.198971  6981 net.cpp:425] lstm2_gate_input_1 <- W_hc_h_0
I0924 03:47:02.198976  6949 net.cpp:399] lstm2_unit_1 -> c_1
I0924 03:47:02.198979  6981 net.cpp:425] lstm2_gate_input_1 <- W_xc_x_1
I0924 03:47:02.198988  6981 net.cpp:399] lstm2_gate_input_1 -> gate_input_1
I0924 03:47:02.198988  6949 net.cpp:399] lstm2_unit_1 -> h_1
I0924 03:47:02.199069  6991 net.cpp:141] Setting up lstm2_h_concat
I0924 03:47:02.199087  6991 net.cpp:148] Top shape: 1 1 1000 (1000)
I0924 03:47:02.199095  6991 net.cpp:156] Memory required for data: 98020
I0924 03:47:02.199105  6991 layer_factory.hpp:77] Creating layer h_pseudoloss
I0924 03:47:02.199120  6991 net.cpp:91] Creating Layer h_pseudoloss
I0924 03:47:02.199126  6991 net.cpp:425] h_pseudoloss <- h
I0924 03:47:02.199137  6991 net.cpp:399] h_pseudoloss -> h_pseudoloss
I0924 03:47:02.199142  6942 net.cpp:141] Setting up lstm2_h_concat
I0924 03:47:02.199162  6942 net.cpp:148] Top shape: 1 1 1000 (1000)
I0924 03:47:02.199170  6942 net.cpp:156] Memory required for data: 98020
I0924 03:47:02.199178  6942 layer_factory.hpp:77] Creating layer h_pseudoloss
I0924 03:47:02.199190  6942 net.cpp:91] Creating Layer h_pseudoloss
I0924 03:47:02.199195  6942 net.cpp:425] h_pseudoloss <- h
I0924 03:47:02.199204  6942 net.cpp:399] h_pseudoloss -> h_pseudoloss
I0924 03:47:02.199213  6965 net.cpp:141] Setting up cont_1_lstm2_cont_slice_0_split
I0924 03:47:02.199230  6965 net.cpp:148] Top shape: 1 1 (1)
I0924 03:47:02.199237  6965 net.cpp:148] Top shape: 1 1 (1)
I0924 03:47:02.199241  6965 net.cpp:156] Memory required for data: 14020
I0924 03:47:02.199247  6965 layer_factory.hpp:77] Creating layer lstm2_x_transform
I0924 03:47:02.199270  6965 net.cpp:91] Creating Layer lstm2_x_transform
I0924 03:47:02.199280  6965 net.cpp:425] lstm2_x_transform <- x
I0924 03:47:02.199295  6965 net.cpp:399] lstm2_x_transform -> W_xc_x
I0924 03:47:02.199396  6961 net.cpp:141] Setting up lstm2_x_transform
I0924 03:47:02.199415  6961 net.cpp:148] Top shape: 1 1 4000 (4000)
I0924 03:47:02.199422  6961 net.cpp:156] Memory required for data: 30020
I0924 03:47:02.199443  6961 layer_factory.hpp:77] Creating layer lstm2_W_xc_x_slice
I0924 03:47:02.199463  6961 net.cpp:91] Creating Layer lstm2_W_xc_x_slice
I0924 03:47:02.199473  6961 net.cpp:425] lstm2_W_xc_x_slice <- W_xc_x
I0924 03:47:02.199486  6961 net.cpp:399] lstm2_W_xc_x_slice -> W_xc_x_1
I0924 03:47:02.199674  6981 net.cpp:141] Setting up lstm2_gate_input_1
I0924 03:47:02.199689  6981 net.cpp:148] Top shape: 1 1 4000 (4000)
I0924 03:47:02.199693  6981 net.cpp:156] Memory required for data: 82020
I0924 03:47:02.199698  6981 layer_factory.hpp:77] Creating layer lstm2_unit_1
I0924 03:47:02.199707  6981 net.cpp:91] Creating Layer lstm2_unit_1
I0924 03:47:02.199712  6981 net.cpp:425] lstm2_unit_1 <- c_0
I0924 03:47:02.199719  6981 net.cpp:425] lstm2_unit_1 <- gate_input_1
I0924 03:47:02.199724  6981 net.cpp:425] lstm2_unit_1 <- cont_1_lstm2_cont_slice_0_split_1
I0924 03:47:02.199731  6981 net.cpp:399] lstm2_unit_1 -> c_1
I0924 03:47:02.199741  6981 net.cpp:399] lstm2_unit_1 -> h_1
I0924 03:47:02.199841  6981 net.cpp:141] Setting up lstm2_unit_1
I0924 03:47:02.199852  6981 net.cpp:148] Top shape: 1 1 1000 (1000)
I0924 03:47:02.199858  6981 net.cpp:148] Top shape: 1 1 1000 (1000)
I0924 03:47:02.199862  6981 net.cpp:156] Memory required for data: 90020
I0924 03:47:02.199867  6981 layer_factory.hpp:77] Creating layer lstm2_
I0924 03:47:02.199879  6981 net.cpp:91] Creating Layer lstm2_
I0924 03:47:02.199884  6981 net.cpp:425] lstm2_ <- c_1
I0924 03:47:02.199892  6981 net.cpp:399] lstm2_ -> c_T
I0924 03:47:02.199903  6942 net.cpp:141] Setting up h_pseudoloss
I0924 03:47:02.199920  6942 net.cpp:148] Top shape: (1)
…
I0924 03:47:02.221452  6961 net.cpp:425] lstm2_h_conted_0 <- cont_1_lstm2_cont_slice_0_split_0
I0924 03:47:02.221456  6991 net.cpp:219] lstm2_h_conted_0 does not need backward computation.
I0924 03:47:02.221467  6961 net.cpp:399] lstm2_h_conted_0 -> h_conted_0
I0924 03:47:02.221477  6991 net.cpp:217] lstm2_W_xc_x_slice needs backward computation.
I0924 03:47:02.221485  6991 net.cpp:217] lstm2_x_transform needs backward computation.
I0924 03:47:02.221483  6981 net.cpp:141] Setting up lstm2_
I0924 03:47:02.221511  6991 net.cpp:219] cont_1_lstm2_cont_slice_0_split does not need backward computation.
I0924 03:47:02.221534  6981 net.cpp:148] Top shape: 1 1 1000 (1000)
I0924 03:47:02.221536  6991 net.cpp:219] lstm2_cont_slice does not need backward computation.
I0924 03:47:02.221542  6981 net.cpp:156] Memory required for data: 94020
I0924 03:47:02.221547  6991 net.cpp:219] lstm2_ does not need backward computation.
I0924 03:47:02.221550  6981 layer_factory.hpp:77] Creating layer lstm2_h_concat
I0924 03:47:02.221555  6991 net.cpp:219] lstm2_ does not need backward computation.
I0924 03:47:02.221563  6991 net.cpp:261] This network produces output c_T
I0924 03:47:02.221572  6981 net.cpp:91] Creating Layer lstm2_h_concat
I0924 03:47:02.221573  6991 net.cpp:261] This network produces output h_pseudoloss
I0924 03:47:02.221588  6981 net.cpp:425] lstm2_h_concat <- h_1
I0924 03:47:02.221618  6991 net.cpp:274] Network initialization done.
I0924 03:47:02.221626  6981 net.cpp:399] lstm2_h_concat -> h
I0924 03:47:02.221693  6991 recurrent_layer.cpp:150] Adding parameter 0: W_xc
I0924 03:47:02.221706  6991 recurrent_layer.cpp:150] Adding parameter 1: b_c
I0924 03:47:02.221714  6981 net.cpp:141] Setting up lstm2_h_concat
I0924 03:47:02.221715  6991 recurrent_layer.cpp:150] Adding parameter 2: W_hc
I0924 03:47:02.221735  6981 net.cpp:148] Top shape: 1 1 1000 (1000)
I0924 03:47:02.221745  6981 net.cpp:156] Memory required for data: 98020
I0924 03:47:02.221755  6981 layer_factory.hpp:77] Creating layer h_pseudoloss
I0924 03:47:02.221770  6981 net.cpp:91] Creating Layer h_pseudoloss
I0924 03:47:02.221778  6981 net.cpp:425] h_pseudoloss <- h
I0924 03:47:02.221791  6981 net.cpp:399] h_pseudoloss -> h_pseudoloss
I0924 03:47:02.221920  6949 net.cpp:141] Setting up lstm2_unit_1
I0924 03:47:02.221940  6949 net.cpp:148] Top shape: 1 1 1000 (1000)
I0924 03:47:02.221951  6949 net.cpp:148] Top shape: 1 1 1000 (1000)
I0924 03:47:02.221958  6949 net.cpp:156] Memory required for data: 90020
I0924 03:47:02.221967  6949 layer_factory.hpp:77] Creating layer lstm2_
I0924 03:47:02.221981  6949 net.cpp:91] Creating Layer lstm2_
I0924 03:47:02.221988  6949 net.cpp:425] lstm2_ <- c_1
I0924 03:47:02.222007  6949 net.cpp:399] lstm2_ -> c_T
I0924 03:47:02.222067  6942 net.cpp:141] Setting up lstm2
I0924 03:47:02.222087  6942 net.cpp:148] Top shape: 1 1 1000 (1000)
I0924 03:47:02.222095  6942 net.cpp:156] Memory required for data: 36412
I0924 03:47:02.222113  6991 net.cpp:141] Setting up lstm2
I0924 03:47:02.222121  6942 layer_factory.hpp:77] Creating layer predict
I0924 03:47:02.222136  6991 net.cpp:148] Top shape: 1 1 1000 (1000)
I0924 03:47:02.222142  6942 net.cpp:91] Creating Layer predict
I0924 03:47:02.222146  6991 net.cpp:156] Memory required for data: 36412
I0924 03:47:02.222152  6942 net.cpp:425] predict <- lstm2
I0924 03:47:02.222165  6942 net.cpp:399] predict -> predict
I0924 03:47:02.222170  6991 layer_factory.hpp:77] Creating layer predict
I0924 03:47:02.222198  6991 net.cpp:91] Creating Layer predict
I0924 03:47:02.222210  6991 net.cpp:425] predict <- lstm2
I0924 03:47:02.222229  6991 net.cpp:399] predict -> predict
I0924 03:47:02.222295  6949 net.cpp:141] Setting up lstm2_
I0924 03:47:02.222314  6949 net.cpp:148] Top shape: 1 1 1000 (1000)
I0924 03:47:02.222323  6949 net.cpp:156] Memory required for data: 94020
I0924 03:47:02.222332  6949 layer_factory.hpp:77] Creating layer lstm2_h_concat
I0924 03:47:02.222345  6949 net.cpp:91] Creating Layer lstm2_h_concat
I0924 03:47:02.222355  6949 net.cpp:425] lstm2_h_concat <- h_1
I0924 03:47:02.222368  6949 net.cpp:399] lstm2_h_concat -> h
I0924 03:47:02.222357  6947 net.cpp:141] Setting up lstm2_x_transform
I0924 03:47:02.222393  6947 net.cpp:148] Top shape: 1 1 4000 (4000)
I0924 03:47:02.222403  6947 net.cpp:156] Memory required for data: 30020
I0924 03:47:02.222437  6947 layer_factory.hpp:77] Creating layer lstm2_W_xc_x_slice
I0924 03:47:02.222457  6947 net.cpp:91] Creating Layer lstm2_W_xc_x_slice
I0924 03:47:02.222457  6949 net.cpp:141] Setting up lstm2_h_concat
I0924 03:47:02.222473  6947 net.cpp:425] lstm2_W_xc_x_slice <- W_xc_x
I0924 03:47:02.222481  6949 net.cpp:148] Top shape: 1 1 1000 (1000)
I0924 03:47:02.222553  6949 net.cpp:156] Memory required for data: 98020
I0924 03:47:02.222558  6947 net.cpp:399] lstm2_W_xc_x_slice -> W_xc_x_1
I0924 03:47:02.222564  6949 layer_factory.hpp:77] Creating layer h_pseudoloss
I0924 03:47:02.222576  6949 net.cpp:91] Creating Layer h_pseudoloss
I0924 03:47:02.222528  6981 net.cpp:141] Setting up h_pseudoloss
I0924 03:47:02.222585  6949 net.cpp:425] h_pseudoloss <- h
…
I0924 03:47:02.395366  6949 net.cpp:219] lstm2_ does not need backward computation.
I0924 03:47:02.395370  6949 net.cpp:261] This network produces output c_T
I0924 03:47:02.395376  6949 net.cpp:261] This network produces output h_pseudoloss
I0924 03:47:02.395398  6949 net.cpp:274] Network initialization done.
I0924 03:47:02.395437  6981 net.cpp:141] Setting up lstm2
I0924 03:47:02.395447  6949 recurrent_layer.cpp:150] Adding parameter 0: W_xc
I0924 03:47:02.395454  6949 recurrent_layer.cpp:150] Adding parameter 1: b_c
I0924 03:47:02.395458  6949 recurrent_layer.cpp:150] Adding parameter 2: W_hc
I0924 03:47:02.395459  6981 net.cpp:148] Top shape: 1 1 1000 (1000)
I0924 03:47:02.395468  6981 net.cpp:156] Memory required for data: 36412
I0924 03:47:02.395488  6981 layer_factory.hpp:77] Creating layer predict
I0924 03:47:02.395501  6981 net.cpp:91] Creating Layer predict
I0924 03:47:02.395508  6981 net.cpp:425] predict <- lstm2
I0924 03:47:02.395515  6981 net.cpp:399] predict -> predict
I0924 03:47:02.496914  6947 net.cpp:141] Setting up lstm2_h_conted_0
I0924 03:47:02.496978  6947 net.cpp:148] Top shape: 1 1 1000 (1000)
I0924 03:47:02.496985  6947 net.cpp:156] Memory required for data: 50020
I0924 03:47:02.496997  6947 layer_factory.hpp:77] Creating layer lstm2_transform_1
I0924 03:47:02.497026  6947 net.cpp:91] Creating Layer lstm2_transform_1
I0924 03:47:02.497035  6965 net.cpp:141] Setting up lstm2_x_transform
I0924 03:47:02.497088  6965 net.cpp:148] Top shape: 1 1 4000 (4000)
I0924 03:47:02.497097  6965 net.cpp:156] Memory required for data: 30020
I0924 03:47:02.497126  6965 layer_factory.hpp:77] Creating layer lstm2_W_xc_x_slice
I0924 03:47:02.497146  6965 net.cpp:91] Creating Layer lstm2_W_xc_x_slice
I0924 03:47:02.497155  6965 net.cpp:425] lstm2_W_xc_x_slice <- W_xc_x
I0924 03:47:02.497169  6965 net.cpp:399] lstm2_W_xc_x_slice -> W_xc_x_1
I0924 03:47:02.497037  6947 net.cpp:425] lstm2_transform_1 <- h_conted_0
I0924 03:47:02.498343  6947 net.cpp:399] lstm2_transform_1 -> W_hc_h_0
I0924 03:47:02.498584  6965 net.cpp:141] Setting up lstm2_W_xc_x_slice
I0924 03:47:02.498642  6965 net.cpp:148] Top shape: 1 1 4000 (4000)
I0924 03:47:02.498652  6965 net.cpp:156] Memory required for data: 46020
I0924 03:47:02.498661  6965 layer_factory.hpp:77] Creating layer lstm2_h_conted_0
I0924 03:47:02.498689  6965 net.cpp:91] Creating Layer lstm2_h_conted_0
I0924 03:47:02.498700  6965 net.cpp:425] lstm2_h_conted_0 <- h_0
I0924 03:47:02.498713  6965 net.cpp:425] lstm2_h_conted_0 <- cont_1_lstm2_cont_slice_0_split_0
I0924 03:47:02.498726  6965 net.cpp:399] lstm2_h_conted_0 -> h_conted_0
I0924 03:47:02.506639  6949 net.cpp:141] Setting up lstm2
I0924 03:47:02.506722  6949 net.cpp:148] Top shape: 1 1 1000 (1000)
I0924 03:47:02.506741  6949 net.cpp:156] Memory required for data: 36412
I0924 03:47:02.506798  6949 layer_factory.hpp:77] Creating layer predict
I0924 03:47:02.506844  6949 net.cpp:91] Creating Layer predict
I0924 03:47:02.506865  6949 net.cpp:425] predict <- lstm2
I0924 03:47:02.506875  6965 net.cpp:141] Setting up lstm2_h_conted_0
I0924 03:47:02.506925  6965 net.cpp:148] Top shape: 1 1 1000 (1000)
I0924 03:47:02.506935  6965 net.cpp:156] Memory required for data: 50020
I0924 03:47:02.506947  6965 layer_factory.hpp:77] Creating layer lstm2_transform_1
I0924 03:47:02.506891  6949 net.cpp:399] predict -> predict
I0924 03:47:02.506973  6965 net.cpp:91] Creating Layer lstm2_transform_1
I0924 03:47:02.506984  6965 net.cpp:425] lstm2_transform_1 <- h_conted_0
I0924 03:47:02.507000  6965 net.cpp:399] lstm2_transform_1 -> W_hc_h_0
I0924 03:47:02.554893  6947 net.cpp:141] Setting up lstm2_transform_1
I0924 03:47:02.554947  6947 net.cpp:148] Top shape: 1 1 4000 (4000)
I0924 03:47:02.554957  6947 net.cpp:156] Memory required for data: 66020
I0924 03:47:02.554980  6947 layer_factory.hpp:77] Creating layer lstm2_gate_input_1
I0924 03:47:02.555039  6947 net.cpp:91] Creating Layer lstm2_gate_input_1
I0924 03:47:02.555053  6947 net.cpp:425] lstm2_gate_input_1 <- W_hc_h_0
I0924 03:47:02.555065  6947 net.cpp:425] lstm2_gate_input_1 <- W_xc_x_1
I0924 03:47:02.555081  6947 net.cpp:399] lstm2_gate_input_1 -> gate_input_1
I0924 03:47:02.648425  6947 net.cpp:141] Setting up lstm2_gate_input_1
I0924 03:47:02.648538  6961 net.cpp:141] Setting up lstm2_transform_1
I0924 03:47:02.649669  6961 net.cpp:148] Top shape: 1 1 4000 (4000)
I0924 03:47:02.649826  6961 net.cpp:156] Memory required for data: 66020
I0924 03:47:02.649232  6947 net.cpp:148] Top shape: 1 1 4000 (4000)
I0924 03:47:02.648973  6953 net.cpp:141] Setting up predict
I0924 03:47:02.650478  6953 net.cpp:148] Top shape: 1 1 46168 (46168)
I0924 03:47:02.650337  6947 net.cpp:156] Memory required for data: 82020
I0924 03:47:02.650619  6953 net.cpp:156] Memory required for data: 221084
I0924 03:47:02.651053  6953 layer_factory.hpp:77] Creating layer probs
I0924 03:47:02.650914  6947 layer_factory.hpp:77] Creating layer lstm2_unit_1
I0924 03:47:02.649974  6961 layer_factory.hpp:77] Creating layer lstm2_gate_input_1
I0924 03:47:02.651638  6961 net.cpp:91] Creating Layer lstm2_gate_input_1
I0924 03:47:02.651515  6947 net.cpp:91] Creating Layer lstm2_unit_1
I0924 03:47:02.651777  6961 net.cpp:425] lstm2_gate_input_1 <- W_hc_h_0
I0924 03:47:02.652194  6947 net.cpp:425] lstm2_unit_1 <- c_0
I0924 03:47:02.652205  6961 net.cpp:425] lstm2_gate_input_1 <- W_xc_x_1
I0924 03:47:02.652225  6961 net.cpp:399] lstm2_gate_input_1 -> gate_input_1
I0924 03:47:02.652227  6947 net.cpp:425] lstm2_unit_1 <- gate_input_1
I0924 03:47:02.652248  6947 net.cpp:425] lstm2_unit_1 <- cont_1_lstm2_cont_slice_0_split_1
I0924 03:47:02.652273  6947 net.cpp:399] lstm2_unit_1 -> c_1
I0924 03:47:02.652307  6947 net.cpp:399] lstm2_unit_1 -> h_1
I0924 03:47:02.651259  6953 net.cpp:91] Creating Layer probs
I0924 03:47:02.653035  6953 net.cpp:425] probs <- predict
I0924 03:47:02.653055  6953 net.cpp:399] probs -> probs
I0924 03:47:02.658262  6961 net.cpp:141] Setting up lstm2_gate_input_1
I0924 03:47:02.658298  6947 net.cpp:141] Setting up lstm2_unit_1
I0924 03:47:02.658337  6947 net.cpp:148] Top shape: 1 1 1000 (1000)
I0924 03:47:02.658349  6947 net.cpp:148] Top shape: 1 1 1000 (1000)
I0924 03:47:02.658356  6947 net.cpp:156] Memory required for data: 90020
I0924 03:47:02.658366  6947 layer_factory.hpp:77] Creating layer lstm2_
I0924 03:47:02.658386  6947 net.cpp:91] Creating Layer lstm2_
I0924 03:47:02.658396  6947 net.cpp:425] lstm2_ <- c_1
I0924 03:47:02.658414  6947 net.cpp:399] lstm2_ -> c_T
I0924 03:47:02.660033  6961 net.cpp:148] Top shape: 1 1 4000 (4000)
I0924 03:47:02.660137  6961 net.cpp:156] Memory required for data: 82020
I0924 03:47:02.660152  6961 layer_factory.hpp:77] Creating layer lstm2_unit_1
I0924 03:47:02.660576  6961 net.cpp:91] Creating Layer lstm2_unit_1
I0924 03:47:02.660745  6961 net.cpp:425] lstm2_unit_1 <- c_0
I0924 03:47:02.660770  6961 net.cpp:425] lstm2_unit_1 <- gate_input_1
I0924 03:47:02.661047  6947 net.cpp:141] Setting up lstm2_
I0924 03:47:02.661084  6947 net.cpp:148] Top shape: 1 1 1000 (1000)
I0924 03:47:02.661092  6947 net.cpp:156] Memory required for data: 94020
I0924 03:47:02.661099  6947 layer_factory.hpp:77] Creating layer lstm2_h_concat
I0924 03:47:02.661116  6947 net.cpp:91] Creating Layer lstm2_h_concat
I0924 03:47:02.661123  6947 net.cpp:425] lstm2_h_concat <- h_1
I0924 03:47:02.661135  6947 net.cpp:399] lstm2_h_concat -> h
I0924 03:47:02.661267  6947 net.cpp:141] Setting up lstm2_h_concat
I0924 03:47:02.661279  6947 net.cpp:148] Top shape: 1 1 1000 (1000)
I0924 03:47:02.661283  6947 net.cpp:156] Memory required for data: 98020
I0924 03:47:02.661288  6947 layer_factory.hpp:77] Creating layer h_pseudoloss
I0924 03:47:02.661298  6947 net.cpp:91] Creating Layer h_pseudoloss
I0924 03:47:02.661303  6947 net.cpp:425] h_pseudoloss <- h
I0924 03:47:02.661310  6947 net.cpp:399] h_pseudoloss -> h_pseudoloss
I0924 03:47:02.663612  6961 net.cpp:425] lstm2_unit_1 <- cont_1_lstm2_cont_slice_0_split_1
…
I0924 03:47:02.665000  6947 net.cpp:219] lstm2_ does not need backward computation.
I0924 03:47:02.665007  6947 net.cpp:261] This network produces output c_T
I0924 03:47:02.665017  6947 net.cpp:261] This network produces output h_pseudoloss
I0924 03:47:02.665045  6947 net.cpp:274] Network initialization done.
I0924 03:47:02.665132  6947 recurrent_layer.cpp:150] Adding parameter 0: W_xc
I0924 03:47:02.665146  6947 recurrent_layer.cpp:150] Adding parameter 1: b_c
I0924 03:47:02.665155  6947 recurrent_layer.cpp:150] Adding parameter 2: W_hc
I0924 03:47:02.665346  6947 net.cpp:141] Setting up lstm2
I0924 03:47:02.665364  6947 net.cpp:148] Top shape: 1 1 1000 (1000)
I0924 03:47:02.665371  6947 net.cpp:156] Memory required for data: 36412
I0924 03:47:02.665395  6947 layer_factory.hpp:77] Creating layer predict
I0924 03:47:02.665417  6947 net.cpp:91] Creating Layer predict
I0924 03:47:02.665427  6947 net.cpp:425] predict <- lstm2
I0924 03:47:02.665439  6947 net.cpp:399] predict -> predict
I0924 03:47:02.765995  6965 net.cpp:141] Setting up lstm2_transform_1
I0924 03:47:02.766048  6965 net.cpp:148] Top shape: 1 1 4000 (4000)
I0924 03:47:02.766055  6965 net.cpp:156] Memory required for data: 66020
I0924 03:47:02.766080  6965 layer_factory.hpp:77] Creating layer lstm2_gate_input_1
I0924 03:47:02.766105  6965 net.cpp:91] Creating Layer lstm2_gate_input_1
I0924 03:47:02.766113  6965 net.cpp:425] lstm2_gate_input_1 <- W_hc_h_0
I0924 03:47:02.766121  6965 net.cpp:425] lstm2_gate_input_1 <- W_xc_x_1
I0924 03:47:02.766131  6965 net.cpp:399] lstm2_gate_input_1 -> gate_input_1
I0924 03:47:02.766141  6961 net.cpp:141] Setting up lstm2_unit_1
I0924 03:47:02.766166  6961 net.cpp:148] Top shape: 1 1 1000 (1000)
I0924 03:47:02.766177  6961 net.cpp:148] Top shape: 1 1 1000 (1000)
I0924 03:47:02.766185  6961 net.cpp:156] Memory required for data: 90020
I0924 03:47:02.766194  6961 layer_factory.hpp:77] Creating layer lstm2_
I0924 03:47:02.766224  6961 net.cpp:91] Creating Layer lstm2_
I0924 03:47:02.766239  6961 net.cpp:425] lstm2_ <- c_1
I0924 03:47:02.766253  6965 net.cpp:141] Setting up lstm2_gate_input_1
I0924 03:47:02.766253  6961 net.cpp:399] lstm2_ -> c_T
I0924 03:47:02.766274  6965 net.cpp:148] Top shape: 1 1 4000 (4000)
I0924 03:47:02.766279  6965 net.cpp:156] Memory required for data: 82020
I0924 03:47:02.766284  6965 layer_factory.hpp:77] Creating layer lstm2_unit_1
I0924 03:47:02.766294  6965 net.cpp:91] Creating Layer lstm2_unit_1
I0924 03:47:02.766299  6965 net.cpp:425] lstm2_unit_1 <- c_0
I0924 03:47:02.766305  6965 net.cpp:425] lstm2_unit_1 <- gate_input_1
I0924 03:47:02.766311  6965 net.cpp:425] lstm2_unit_1 <- cont_1_lstm2_cont_slice_0_split_1
I0924 03:47:02.766319  6965 net.cpp:399] lstm2_unit_1 -> c_1
I0924 03:47:02.766329  6965 net.cpp:399] lstm2_unit_1 -> h_1
I0924 03:47:02.766418  6965 net.cpp:141] Setting up lstm2_unit_1
I0924 03:47:02.766428  6965 net.cpp:148] Top shape: 1 1 1000 (1000)
I0924 03:47:02.766434  6965 net.cpp:148] Top shape: 1 1 1000 (1000)
I0924 03:47:02.766439  6965 net.cpp:156] Memory required for data: 90020
I0924 03:47:02.766443  6965 layer_factory.hpp:77] Creating layer lstm2_
I0924 03:47:02.766450  6961 net.cpp:141] Setting up lstm2_
I0924 03:47:02.766453  6965 net.cpp:91] Creating Layer lstm2_
I0924 03:47:02.766474  6965 net.cpp:425] lstm2_ <- c_1
I0924 03:47:02.766474  6961 net.cpp:148] Top shape: 1 1 1000 (1000)
I0924 03:47:02.766482  6965 net.cpp:399] lstm2_ -> c_T
I0924 03:47:02.766484  6961 net.cpp:156] Memory required for data: 94020
I0924 03:47:02.766492  6961 layer_factory.hpp:77] Creating layer lstm2_h_concat
I0924 03:47:02.766504  6942 net.cpp:141] Setting up predict
I0924 03:47:02.766507  6961 net.cpp:91] Creating Layer lstm2_h_concat
I0924 03:47:02.766526  6965 net.cpp:141] Setting up lstm2_
I0924 03:47:02.766528  6961 net.cpp:425] lstm2_h_concat <- h_1
I0924 03:47:02.766535  6965 net.cpp:148] Top shape: 1 1 1000 (1000)
I0924 03:47:02.766541  6965 net.cpp:156] Memory required for data: 94020
I0924 03:47:02.766530  6942 net.cpp:148] Top shape: 1 1 46168 (46168)
I0924 03:47:02.766546  6965 layer_factory.hpp:77] Creating layer lstm2_h_concat
I0924 03:47:02.766557  6961 net.cpp:399] lstm2_h_concat -> h
I0924 03:47:02.766561  6942 net.cpp:156] Memory required for data: 221084
I0924 03:47:02.766567  6965 net.cpp:91] Creating Layer lstm2_h_concat
I0924 03:47:02.766573  6965 net.cpp:425] lstm2_h_concat <- h_1
I0924 03:47:02.766578  6942 layer_factory.hpp:77] Creating layer probs
I0924 03:47:02.766583  6965 net.cpp:399] lstm2_h_concat -> h
I0924 03:47:02.766608  6942 net.cpp:91] Creating Layer probs
I0924 03:47:02.766618  6942 net.cpp:425] probs <- predict
I0924 03:47:02.766626  6942 net.cpp:399] probs -> probs
I0924 03:47:02.772563  6965 net.cpp:141] Setting up lstm2_h_concat
I0924 03:47:02.772596  6961 net.cpp:141] Setting up lstm2_h_concat
I0924 03:47:02.772939  6965 net.cpp:148] Top shape: 1 1 1000 (1000)
I0924 03:47:02.772940  6961 net.cpp:148] Top shape: 1 1 1000 (1000)
I0924 03:47:02.772956  6965 net.cpp:156] Memory required for data: 98020
I0924 03:47:02.772964  6961 net.cpp:156] Memory required for data: 98020
I0924 03:47:02.772970  6965 layer_factory.hpp:77] Creating layer h_pseudoloss
I0924 03:47:02.772974  6961 layer_factory.hpp:77] Creating layer h_pseudoloss
I0924 03:47:02.772994  6965 net.cpp:91] Creating Layer h_pseudoloss
I0924 03:47:02.772994  6961 net.cpp:91] Creating Layer h_pseudoloss
…
I0924 03:47:02.775394  6965 recurrent_layer.cpp:150] Adding parameter 0: W_xc
I0924 03:47:02.775406  6965 recurrent_layer.cpp:150] Adding parameter 1: b_c
I0924 03:47:02.775406  6961 recurrent_layer.cpp:150] Adding parameter 0: W_xc
I0924 03:47:02.775414  6965 recurrent_layer.cpp:150] Adding parameter 2: W_hc
I0924 03:47:02.775418  6961 recurrent_layer.cpp:150] Adding parameter 1: b_c
I0924 03:47:02.775426  6961 recurrent_layer.cpp:150] Adding parameter 2: W_hc
I0924 03:47:02.783449  6965 net.cpp:141] Setting up lstm2
I0924 03:47:02.784132  6961 net.cpp:141] Setting up lstm2
I0924 03:47:02.784209  6961 net.cpp:148] Top shape: 1 1 1000 (1000)
I0924 03:47:02.784221  6961 net.cpp:156] Memory required for data: 36412
I0924 03:47:02.784257  6961 layer_factory.hpp:77] Creating layer predict
I0924 03:47:02.784286  6961 net.cpp:91] Creating Layer predict
I0924 03:47:02.784301  6961 net.cpp:425] predict <- lstm2
I0924 03:47:02.784318  6961 net.cpp:399] predict -> predict
I0924 03:47:02.785073  6965 net.cpp:148] Top shape: 1 1 1000 (1000)
I0924 03:47:02.785275  6965 net.cpp:156] Memory required for data: 36412
I0924 03:47:02.785435  6965 layer_factory.hpp:77] Creating layer predict
I0924 03:47:02.785583  6965 net.cpp:91] Creating Layer predict
I0924 03:47:02.785720  6965 net.cpp:425] predict <- lstm2
I0924 03:47:02.785861  6965 net.cpp:399] predict -> predict
I0924 03:47:02.964154  6991 net.cpp:141] Setting up predict
I0924 03:47:02.964228  6991 net.cpp:148] Top shape: 1 1 46168 (46168)
I0924 03:47:02.964246  6991 net.cpp:156] Memory required for data: 221084
I0924 03:47:02.964284  6991 layer_factory.hpp:77] Creating layer probs
I0924 03:47:02.964321  6991 net.cpp:91] Creating Layer probs
I0924 03:47:02.964341  6991 net.cpp:425] probs <- predict
I0924 03:47:02.964367  6991 net.cpp:399] probs -> probs
I0924 03:47:02.967488  6981 net.cpp:141] Setting up predict
I0924 03:47:02.967985  6981 net.cpp:148] Top shape: 1 1 46168 (46168)
I0924 03:47:02.968161  6981 net.cpp:156] Memory required for data: 221084
I0924 03:47:02.968298  6981 layer_factory.hpp:77] Creating layer probs
I0924 03:47:02.968433  6981 net.cpp:91] Creating Layer probs
I0924 03:47:02.968554  6981 net.cpp:425] probs <- predict
I0924 03:47:02.968686  6981 net.cpp:399] probs -> probs
I0924 03:47:03.019269  6949 net.cpp:141] Setting up predict
I0924 03:47:03.019325  6949 net.cpp:148] Top shape: 1 1 46168 (46168)
I0924 03:47:03.019330  6949 net.cpp:156] Memory required for data: 221084
I0924 03:47:03.019343  6949 layer_factory.hpp:77] Creating layer probs
I0924 03:47:03.019361  6949 net.cpp:91] Creating Layer probs
I0924 03:47:03.019367  6949 net.cpp:425] probs <- predict
I0924 03:47:03.019376  6949 net.cpp:399] probs -> probs
I0924 03:47:03.117434  6942 net.cpp:141] Setting up probs
I0924 03:47:03.117506  6942 net.cpp:148] Top shape: 1 1 46168 (46168)
I0924 03:47:03.117517  6942 net.cpp:156] Memory required for data: 405756
I0924 03:47:03.117535  6942 net.cpp:219] probs does not need backward computation.
I0924 03:47:03.117549  6942 net.cpp:219] predict does not need backward computation.
I0924 03:47:03.117561  6942 net.cpp:219] lstm2 does not need backward computation.
I0924 03:47:03.117573  6942 net.cpp:219] concat does not need backward computation.
I0924 03:47:03.117585  6942 net.cpp:219] lstm1 does not need backward computation.
I0924 03:47:03.117597  6942 net.cpp:219] embedding does not need backward computation.
I0924 03:47:03.117609  6942 net.cpp:219] reshape_stage_indicator does not need backward computation.
I0924 03:47:03.117620  6942 net.cpp:219] reshape_frames does not need backward computation.
I0924 03:47:03.117631  6942 net.cpp:219] embed_encoder does not need backward computation.
I0924 03:47:03.117641  6942 net.cpp:219] cont_sentence_input_1_split does not need backward computation.
I0924 03:47:03.117653  6942 net.cpp:219] input does not need backward computation.
I0924 03:47:03.117662  6942 net.cpp:261] This network produces output probs
I0924 03:47:03.117693  6942 net.cpp:274] Network initialization done.
I0924 03:47:03.124668  6953 net.cpp:141] Setting up probs
I0924 03:47:03.124730  6953 net.cpp:148] Top shape: 1 1 46168 (46168)
I0924 03:47:03.124740  6953 net.cpp:156] Memory required for data: 405756
I0924 03:47:03.124753  6953 net.cpp:219] probs does not need backward computation.
I0924 03:47:03.124771  6953 net.cpp:219] predict does not need backward computation.
I0924 03:47:03.124780  6953 net.cpp:219] lstm2 does not need backward computation.
I0924 03:47:03.124791  6953 net.cpp:219] concat does not need backward computation.
I0924 03:47:03.124800  6953 net.cpp:219] lstm1 does not need backward computation.
I0924 03:47:03.124809  6953 net.cpp:219] embedding does not need backward computation.
I0924 03:47:03.124817  6953 net.cpp:219] reshape_stage_indicator does not need backward computation.
I0924 03:47:03.124825  6953 net.cpp:219] reshape_frames does not need backward computation.
I0924 03:47:03.124835  6953 net.cpp:219] embed_encoder does not need backward computation.
I0924 03:47:03.124842  6953 net.cpp:219] cont_sentence_input_1_split does not need backward computation.
I0924 03:47:03.124851  6953 net.cpp:219] input does not need backward computation.
I0924 03:47:03.124857  6953 net.cpp:261] This network produces output probs
I0924 03:47:03.124883  6953 net.cpp:274] Network initialization done.
I0924 03:47:03.125185  6991 net.cpp:141] Setting up probs
I0924 03:47:03.125223  6991 net.cpp:148] Top shape: 1 1 46168 (46168)
I0924 03:47:03.125231  6991 net.cpp:156] Memory required for data: 405756
I0924 03:47:03.125242  6991 net.cpp:219] probs does not need backward computation.
I0924 03:47:03.125252  6991 net.cpp:219] predict does not need backward computation.
I0924 03:47:03.125262  6991 net.cpp:219] lstm2 does not need backward computation.
I0924 03:47:03.125270  6991 net.cpp:219] concat does not need backward computation.
I0924 03:47:03.125279  6991 net.cpp:219] lstm1 does not need backward computation.
I0924 03:47:03.125288  6991 net.cpp:219] embedding does not need backward computation.
I0924 03:47:03.125296  6991 net.cpp:219] reshape_stage_indicator does not need backward computation.
I0924 03:47:03.125304  6991 net.cpp:219] reshape_frames does not need backward computation.
I0924 03:47:03.125311  6991 net.cpp:219] embed_encoder does not need backward computation.
I0924 03:47:03.125319  6991 net.cpp:219] cont_sentence_input_1_split does not need backward computation.
I0924 03:47:03.125329  6991 net.cpp:219] input does not need backward computation.
I0924 03:47:03.125334  6991 net.cpp:261] This network produces output probs
I0924 03:47:03.125380  6991 net.cpp:274] Network initialization done.
I0924 03:47:03.126739  6949 net.cpp:141] Setting up probs
I0924 03:47:03.126768  6949 net.cpp:148] Top shape: 1 1 46168 (46168)
I0924 03:47:03.126777  6949 net.cpp:156] Memory required for data: 405756
I0924 03:47:03.126787  6949 net.cpp:219] probs does not need backward computation.
I0924 03:47:03.126796  6949 net.cpp:219] predict does not need backward computation.
I0924 03:47:03.126804  6949 net.cpp:219] lstm2 does not need backward computation.
I0924 03:47:03.126812  6949 net.cpp:219] concat does not need backward computation.
I0924 03:47:03.126821  6949 net.cpp:219] lstm1 does not need backward computation.
I0924 03:47:03.126830  6949 net.cpp:219] embedding does not need backward computation.
I0924 03:47:03.126839  6949 net.cpp:219] reshape_stage_indicator does not need backward computation.
I0924 03:47:03.126847  6949 net.cpp:219] reshape_frames does not need backward computation.
I0924 03:47:03.126852  6981 net.cpp:141] Setting up probs
I0924 03:47:03.126855  6949 net.cpp:219] embed_encoder does not need backward computation.
I0924 03:47:03.126879  6949 net.cpp:219] cont_sentence_input_1_split does not need backward computation.
I0924 03:47:03.126881  6981 net.cpp:148] Top shape: 1 1 46168 (46168)
I0924 03:47:03.126889  6981 net.cpp:156] Memory required for data: 405756
I0924 03:47:03.126893  6949 net.cpp:219] input does not need backward computation.
I0924 03:47:03.126899  6981 net.cpp:219] probs does not need backward computation.
I0924 03:47:03.126901  6949 net.cpp:261] This network produces output probs
I0924 03:47:03.126907  6981 net.cpp:219] predict does not need backward computation.
…
I0924 03:47:03.126957  6981 net.cpp:219] reshape_frames does not need backward computation.
I0924 03:47:03.126965  6981 net.cpp:219] embed_encoder does not need backward computation.
I0924 03:47:03.126972  6981 net.cpp:219] cont_sentence_input_1_split does not need backward computation.
I0924 03:47:03.126981  6981 net.cpp:219] input does not need backward computation.
I0924 03:47:03.126986  6981 net.cpp:261] This network produces output probs
I0924 03:47:03.127369  6949 net.cpp:274] Network initialization done.
I0924 03:47:03.127370  6981 net.cpp:274] Network initialization done.
I0924 03:47:03.132465  6983 net.cpp:141] Setting up conv1
I0924 03:47:03.132529  6983 net.cpp:148] Top shape: 10 96 55 55 (2904000)
I0924 03:47:03.132540  6983 net.cpp:156] Memory required for data: 17799480
I0924 03:47:03.132586  6983 layer_factory.hpp:77] Creating layer relu1
I0924 03:47:03.132613  6983 net.cpp:91] Creating Layer relu1
I0924 03:47:03.132622  6983 net.cpp:425] relu1 <- conv1
I0924 03:47:03.132630  6983 net.cpp:386] relu1 -> conv1 (in-place)
I0924 03:47:03.133139  6983 net.cpp:141] Setting up relu1
I0924 03:47:03.133154  6983 net.cpp:148] Top shape: 10 96 55 55 (2904000)
I0924 03:47:03.133159  6983 net.cpp:156] Memory required for data: 29415480
I0924 03:47:03.133165  6983 layer_factory.hpp:77] Creating layer pool1
I0924 03:47:03.133179  6983 net.cpp:91] Creating Layer pool1
I0924 03:47:03.133184  6983 net.cpp:425] pool1 <- conv1
I0924 03:47:03.133193  6983 net.cpp:399] pool1 -> pool1
I0924 03:47:03.133301  6983 net.cpp:141] Setting up pool1
I0924 03:47:03.133311  6983 net.cpp:148] Top shape: 10 96 27 27 (699840)
I0924 03:47:03.133316  6983 net.cpp:156] Memory required for data: 32214840
I0924 03:47:03.133322  6983 layer_factory.hpp:77] Creating layer norm1
I0924 03:47:03.133342  6983 net.cpp:91] Creating Layer norm1
I0924 03:47:03.133347  6983 net.cpp:425] norm1 <- pool1
I0924 03:47:03.133354  6983 net.cpp:399] norm1 -> norm1
I0924 03:47:03.146148  6983 net.cpp:141] Setting up norm1
I0924 03:47:03.146215  6983 net.cpp:148] Top shape: 10 96 27 27 (699840)
I0924 03:47:03.146226  6983 net.cpp:156] Memory required for data: 35014200
I0924 03:47:03.146239  6983 layer_factory.hpp:77] Creating layer conv2
I0924 03:47:03.146267  6983 net.cpp:91] Creating Layer conv2
I0924 03:47:03.146277  6983 net.cpp:425] conv2 <- norm1
I0924 03:47:03.146293  6983 net.cpp:399] conv2 -> conv2
I0924 03:47:03.181653  6947 net.cpp:141] Setting up predict
I0924 03:47:03.181713  6947 net.cpp:148] Top shape: 1 1 46168 (46168)
I0924 03:47:03.181720  6947 net.cpp:156] Memory required for data: 221084
I0924 03:47:03.181735  6947 layer_factory.hpp:77] Creating layer probs
I0924 03:47:03.181751  6947 net.cpp:91] Creating Layer probs
I0924 03:47:03.181759  6947 net.cpp:425] probs <- predict
I0924 03:47:03.181768  6947 net.cpp:399] probs -> probs
I0924 03:47:03.182747  6947 net.cpp:141] Setting up probs
I0924 03:47:03.182763  6947 net.cpp:148] Top shape: 1 1 46168 (46168)
I0924 03:47:03.182768  6947 net.cpp:156] Memory required for data: 405756
I0924 03:47:03.182775  6947 net.cpp:219] probs does not need backward computation.
I0924 03:47:03.182780  6947 net.cpp:219] predict does not need backward computation.
I0924 03:47:03.182785  6947 net.cpp:219] lstm2 does not need backward computation.
I0924 03:47:03.182790  6947 net.cpp:219] concat does not need backward computation.
I0924 03:47:03.182796  6947 net.cpp:219] lstm1 does not need backward computation.
I0924 03:47:03.182801  6947 net.cpp:219] embedding does not need backward computation.
I0924 03:47:03.182806  6947 net.cpp:219] reshape_stage_indicator does not need backward computation.
I0924 03:47:03.182811  6947 net.cpp:219] reshape_frames does not need backward computation.
I0924 03:47:03.182816  6947 net.cpp:219] embed_encoder does not need backward computation.
I0924 03:47:03.182821  6947 net.cpp:219] cont_sentence_input_1_split does not need backward computation.
I0924 03:47:03.182826  6947 net.cpp:219] input does not need backward computation.
I0924 03:47:03.182829  6947 net.cpp:261] This network produces output probs
I0924 03:47:03.183076  6947 net.cpp:274] Network initialization done.
I0924 03:47:03.195500  6983 net.cpp:141] Setting up conv2
I0924 03:47:03.195556  6983 net.cpp:148] Top shape: 10 256 27 27 (1866240)
I0924 03:47:03.195562  6983 net.cpp:156] Memory required for data: 42479160
I0924 03:47:03.195587  6983 layer_factory.hpp:77] Creating layer relu2
I0924 03:47:03.196041  6983 net.cpp:91] Creating Layer relu2
I0924 03:47:03.196059  6983 net.cpp:425] relu2 <- conv2
I0924 03:47:03.196070  6983 net.cpp:386] relu2 -> conv2 (in-place)
I0924 03:47:03.197515  6983 net.cpp:141] Setting up relu2
I0924 03:47:03.197547  6983 net.cpp:148] Top shape: 10 256 27 27 (1866240)
I0924 03:47:03.197553  6983 net.cpp:156] Memory required for data: 49944120
I0924 03:47:03.197561  6983 layer_factory.hpp:77] Creating layer pool2
I0924 03:47:03.198029  6983 net.cpp:91] Creating Layer pool2
I0924 03:47:03.198040  6983 net.cpp:425] pool2 <- conv2
I0924 03:47:03.198055  6983 net.cpp:399] pool2 -> pool2
I0924 03:47:03.198573  6983 net.cpp:141] Setting up pool2
I0924 03:47:03.198588  6983 net.cpp:148] Top shape: 10 256 13 13 (432640)
I0924 03:47:03.198592  6983 net.cpp:156] Memory required for data: 51674680
I0924 03:47:03.198621  6983 layer_factory.hpp:77] Creating layer norm2
I0924 03:47:03.198645  6983 net.cpp:91] Creating Layer norm2
I0924 03:47:03.198652  6983 net.cpp:425] norm2 <- pool2
I0924 03:47:03.199112  6983 net.cpp:399] norm2 -> norm2
I0924 03:47:03.200165  6983 net.cpp:141] Setting up norm2
I0924 03:47:03.200196  6983 net.cpp:148] Top shape: 10 256 13 13 (432640)
I0924 03:47:03.200201  6983 net.cpp:156] Memory required for data: 53405240
I0924 03:47:03.200208  6983 layer_factory.hpp:77] Creating layer conv3
I0924 03:47:03.200235  6983 net.cpp:91] Creating Layer conv3
I0924 03:47:03.200242  6983 net.cpp:425] conv3 <- norm2
I0924 03:47:03.200253  6983 net.cpp:399] conv3 -> conv3
I0924 03:47:03.210556  6983 net.cpp:141] Setting up conv3
I0924 03:47:03.210712  6983 net.cpp:148] Top shape: 10 384 13 13 (648960)
I0924 03:47:03.210731  6983 net.cpp:156] Memory required for data: 56001080
I0924 03:47:03.210780  6983 layer_factory.hpp:77] Creating layer relu3
I0924 03:47:03.210815  6983 net.cpp:91] Creating Layer relu3
I0924 03:47:03.210826  6983 net.cpp:425] relu3 <- conv3
I0924 03:47:03.210840  6983 net.cpp:386] relu3 -> conv3 (in-place)
I0924 03:47:03.211614  6983 net.cpp:141] Setting up relu3
I0924 03:47:03.211635  6983 net.cpp:148] Top shape: 10 384 13 13 (648960)
I0924 03:47:03.211642  6983 net.cpp:156] Memory required for data: 58596920
I0924 03:47:03.211650  6983 layer_factory.hpp:77] Creating layer conv4
I0924 03:47:03.211676  6983 net.cpp:91] Creating Layer conv4
I0924 03:47:03.211684  6983 net.cpp:425] conv4 <- conv3
I0924 03:47:03.211699  6983 net.cpp:399] conv4 -> conv4
I0924 03:47:03.220901  6983 net.cpp:141] Setting up conv4
I0924 03:47:03.220962  6983 net.cpp:148] Top shape: 10 384 13 13 (648960)
I0924 03:47:03.220970  6983 net.cpp:156] Memory required for data: 61192760
I0924 03:47:03.220993  6983 layer_factory.hpp:77] Creating layer relu4
I0924 03:47:03.221017  6983 net.cpp:91] Creating Layer relu4
I0924 03:47:03.221027  6983 net.cpp:425] relu4 <- conv4
I0924 03:47:03.221043  6983 net.cpp:386] relu4 -> conv4 (in-place)
I0924 03:47:03.222069  6983 net.cpp:141] Setting up relu4
I0924 03:47:03.222090  6983 net.cpp:148] Top shape: 10 384 13 13 (648960)
I0924 03:47:03.222098  6983 net.cpp:156] Memory required for data: 63788600
I0924 03:47:03.222107  6983 layer_factory.hpp:77] Creating layer conv5
I0924 03:47:03.222131  6983 net.cpp:91] Creating Layer conv5
I0924 03:47:03.222139  6983 net.cpp:425] conv5 <- conv4
I0924 03:47:03.222151  6983 net.cpp:399] conv5 -> conv5
I0924 03:47:03.230482  6983 net.cpp:141] Setting up conv5
I0924 03:47:03.230535  6983 net.cpp:148] Top shape: 10 256 13 13 (432640)
I0924 03:47:03.230542  6983 net.cpp:156] Memory required for data: 65519160
I0924 03:47:03.230572  6983 layer_factory.hpp:77] Creating layer relu5
I0924 03:47:03.230592  6983 net.cpp:91] Creating Layer relu5
I0924 03:47:03.230614  6983 net.cpp:425] relu5 <- conv5
I0924 03:47:03.230626  6983 net.cpp:386] relu5 -> conv5 (in-place)
I0924 03:47:03.231302  6983 net.cpp:141] Setting up relu5
I0924 03:47:03.231317  6983 net.cpp:148] Top shape: 10 256 13 13 (432640)
I0924 03:47:03.231322  6983 net.cpp:156] Memory required for data: 67249720
I0924 03:47:03.231326  6983 layer_factory.hpp:77] Creating layer pool5
I0924 03:47:03.231338  6983 net.cpp:91] Creating Layer pool5
I0924 03:47:03.231343  6983 net.cpp:425] pool5 <- conv5
I0924 03:47:03.231353  6983 net.cpp:399] pool5 -> pool5
I0924 03:47:03.231438  6983 net.cpp:141] Setting up pool5
I0924 03:47:03.231451  6983 net.cpp:148] Top shape: 10 256 6 6 (92160)
I0924 03:47:03.231456  6983 net.cpp:156] Memory required for data: 67618360
I0924 03:47:03.231461  6983 layer_factory.hpp:77] Creating layer fc6
I0924 03:47:03.231474  6983 net.cpp:91] Creating Layer fc6
I0924 03:47:03.231479  6983 net.cpp:425] fc6 <- pool5
I0924 03:47:03.231487  6983 net.cpp:399] fc6 -> fc6
I0924 03:47:03.312135  6961 net.cpp:141] Setting up predict
I0924 03:47:03.312208  6961 net.cpp:148] Top shape: 1 1 46168 (46168)
I0924 03:47:03.312219  6961 net.cpp:156] Memory required for data: 221084
I0924 03:47:03.312244  6961 layer_factory.hpp:77] Creating layer probs
I0924 03:47:03.312274  6961 net.cpp:91] Creating Layer probs
I0924 03:47:03.312288  6961 net.cpp:425] probs <- predict
I0924 03:47:03.312309  6961 net.cpp:399] probs -> probs
I0924 03:47:03.313202  6961 net.cpp:141] Setting up probs
I0924 03:47:03.313283  6961 net.cpp:148] Top shape: 1 1 46168 (46168)
I0924 03:47:03.313295  6961 net.cpp:156] Memory required for data: 405756
I0924 03:47:03.313310  6961 net.cpp:219] probs does not need backward computation.
I0924 03:47:03.313323  6961 net.cpp:219] predict does not need backward computation.
I0924 03:47:03.313335  6961 net.cpp:219] lstm2 does not need backward computation.
I0924 03:47:03.313347  6961 net.cpp:219] concat does not need backward computation.
I0924 03:47:03.313360  6961 net.cpp:219] lstm1 does not need backward computation.
I0924 03:47:03.313374  6961 net.cpp:219] embedding does not need backward computation.
I0924 03:47:03.313385  6961 net.cpp:219] reshape_stage_indicator does not need backward computation.
I0924 03:47:03.313395  6961 net.cpp:219] reshape_frames does not need backward computation.
I0924 03:47:03.313406  6961 net.cpp:219] embed_encoder does not need backward computation.
I0924 03:47:03.313417  6961 net.cpp:219] cont_sentence_input_1_split does not need backward computation.
I0924 03:47:03.313428  6961 net.cpp:219] input does not need backward computation.
I0924 03:47:03.313436  6961 net.cpp:261] This network produces output probs
I0924 03:47:03.313470  6961 net.cpp:274] Network initialization done.
I0924 03:47:03.358475  6983 net.cpp:141] Setting up fc6
I0924 03:47:03.358530  6983 net.cpp:148] Top shape: 10 4096 (40960)
I0924 03:47:03.358536  6983 net.cpp:156] Memory required for data: 67782200
I0924 03:47:03.358552  6983 layer_factory.hpp:77] Creating layer relu6
I0924 03:47:03.358575  6983 net.cpp:91] Creating Layer relu6
I0924 03:47:03.358582  6983 net.cpp:425] relu6 <- fc6
I0924 03:47:03.358592  6983 net.cpp:386] relu6 -> fc6 (in-place)
I0924 03:47:03.359887  6983 net.cpp:141] Setting up relu6
I0924 03:47:03.359922  6983 net.cpp:148] Top shape: 10 4096 (40960)
I0924 03:47:03.359928  6983 net.cpp:156] Memory required for data: 67946040
I0924 03:47:03.359936  6983 layer_factory.hpp:77] Creating layer drop6
I0924 03:47:03.359966  6983 net.cpp:91] Creating Layer drop6
I0924 03:47:03.359972  6983 net.cpp:425] drop6 <- fc6
I0924 03:47:03.359982  6983 net.cpp:386] drop6 -> fc6 (in-place)
I0924 03:47:03.360080  6983 net.cpp:141] Setting up drop6
I0924 03:47:03.360090  6983 net.cpp:148] Top shape: 10 4096 (40960)
I0924 03:47:03.360095  6983 net.cpp:156] Memory required for data: 68109880
I0924 03:47:03.360100  6983 layer_factory.hpp:77] Creating layer fc7
I0924 03:47:03.360116  6983 net.cpp:91] Creating Layer fc7
I0924 03:47:03.360121  6983 net.cpp:425] fc7 <- fc6
I0924 03:47:03.360129  6983 net.cpp:399] fc7 -> fc7
I0924 03:47:03.402726  6965 net.cpp:141] Setting up predict
I0924 03:47:03.403362  6965 net.cpp:148] Top shape: 1 1 46168 (46168)
I0924 03:47:03.403381  6965 net.cpp:156] Memory required for data: 221084
I0924 03:47:03.403415  6965 layer_factory.hpp:77] Creating layer probs
I0924 03:47:03.403453  6965 net.cpp:91] Creating Layer probs
I0924 03:47:03.403470  6965 net.cpp:425] probs <- predict
I0924 03:47:03.403494  6965 net.cpp:399] probs -> probs
I0924 03:47:03.404884  6965 net.cpp:141] Setting up probs
I0924 03:47:03.404960  6965 net.cpp:148] Top shape: 1 1 46168 (46168)
I0924 03:47:03.404970  6965 net.cpp:156] Memory required for data: 405756
I0924 03:47:03.404988  6965 net.cpp:219] probs does not need backward computation.
I0924 03:47:03.404999  6965 net.cpp:219] predict does not need backward computation.
I0924 03:47:03.405009  6965 net.cpp:219] lstm2 does not need backward computation.
I0924 03:47:03.405016  6965 net.cpp:219] concat does not need backward computation.
I0924 03:47:03.405025  6965 net.cpp:219] lstm1 does not need backward computation.
I0924 03:47:03.405036  6965 net.cpp:219] embedding does not need backward computation.
I0924 03:47:03.405045  6965 net.cpp:219] reshape_stage_indicator does not need backward computation.
I0924 03:47:03.405055  6965 net.cpp:219] reshape_frames does not need backward computation.
I0924 03:47:03.405063  6965 net.cpp:219] embed_encoder does not need backward computation.
I0924 03:47:03.405071  6965 net.cpp:219] cont_sentence_input_1_split does not need backward computation.
I0924 03:47:03.405081  6965 net.cpp:219] input does not need backward computation.
I0924 03:47:03.405087  6965 net.cpp:261] This network produces output probs
I0924 03:47:03.405117  6965 net.cpp:274] Network initialization done.
I0924 03:47:03.413928  6983 net.cpp:141] Setting up fc7
I0924 03:47:03.413983  6983 net.cpp:148] Top shape: 10 4096 (40960)
I0924 03:47:03.413990  6983 net.cpp:156] Memory required for data: 68273720
I0924 03:47:03.414006  6983 layer_factory.hpp:77] Creating layer relu7
I0924 03:47:03.414023  6983 net.cpp:91] Creating Layer relu7
I0924 03:47:03.414031  6983 net.cpp:425] relu7 <- fc7
I0924 03:47:03.414041  6983 net.cpp:386] relu7 -> fc7 (in-place)
I0924 03:47:03.419216  6983 net.cpp:141] Setting up relu7
I0924 03:47:03.419276  6983 net.cpp:148] Top shape: 10 4096 (40960)
I0924 03:47:03.419287  6983 net.cpp:156] Memory required for data: 68437560
I0924 03:47:03.419299  6983 layer_factory.hpp:77] Creating layer drop7
I0924 03:47:03.419323  6983 net.cpp:91] Creating Layer drop7
I0924 03:47:03.419335  6983 net.cpp:425] drop7 <- fc7
I0924 03:47:03.419353  6983 net.cpp:386] drop7 -> fc7 (in-place)
I0924 03:47:03.419528  6983 net.cpp:141] Setting up drop7
I0924 03:47:03.419544  6983 net.cpp:148] Top shape: 10 4096 (40960)
I0924 03:47:03.419551  6983 net.cpp:156] Memory required for data: 68601400
I0924 03:47:03.419559  6983 layer_factory.hpp:77] Creating layer fc8
I0924 03:47:03.419673  6983 net.cpp:91] Creating Layer fc8
I0924 03:47:03.419685  6983 net.cpp:425] fc8 <- fc7
I0924 03:47:03.419698  6983 net.cpp:399] fc8 -> fc8
I0924 03:47:03.439978  6983 net.cpp:141] Setting up fc8
I0924 03:47:03.440037  6983 net.cpp:148] Top shape: 10 1000 (10000)
I0924 03:47:03.440048  6983 net.cpp:156] Memory required for data: 68641400
I0924 03:47:03.440073  6983 layer_factory.hpp:77] Creating layer prob
I0924 03:47:03.440098  6983 net.cpp:91] Creating Layer prob
I0924 03:47:03.440111  6983 net.cpp:425] prob <- fc8
I0924 03:47:03.440129  6983 net.cpp:399] prob -> prob
I0924 03:47:03.443341  6983 net.cpp:141] Setting up prob
I0924 03:47:03.443400  6983 net.cpp:148] Top shape: 10 1000 (10000)
I0924 03:47:03.443413  6983 net.cpp:156] Memory required for data: 68681400
I0924 03:47:03.443428  6983 net.cpp:219] prob does not need backward computation.
I0924 03:47:03.443442  6983 net.cpp:219] fc8 does not need backward computation.
I0924 03:47:03.443454  6983 net.cpp:219] drop7 does not need backward computation.
I0924 03:47:03.443464  6983 net.cpp:219] relu7 does not need backward computation.
…
