…
Java HotSpot(TM) 64-Bit Server VM warning: You have loaded library /tmp/cvld7946580746415912083/libopencv_java310.xine1.so which might have disabled stack guard. The VM will try to fix the stack guard now.
It's highly recommended that you fix the library with 'execstack -c <libfile>', or link it with '-z noexecstack'.
WARNING: Logging before InitGoogleLogging() is written to STDERR
I0713 14:07:14.786577 12682 net.cpp:49] Initializing net from parameters: 
name: "GoogleNet"
state {
  phase: TEST
}
layer {
  name: "data"
  type: "Input"
  top: "data"
  input_param {
    shape {
      dim: 10
      dim: 3
      dim: 224
      dim: 224
    }
  }
}
layer {
  name: "conv1/7x7_s2"
  type: "Convolution"
  bottom: "data"
  top: "conv1/7x7_s2"
  param {
    lr_mult: 1
    decay_mult: 1
  }
  param {
    lr_mult: 2
    decay_mult: 0
  }
  convolution_param {
    num_output: 64
    pad: 3
    kernel_size: 7
    stride: 2
    weight_filler {
      type: "xavier"
      std: 0.1
    }
    bias_filler {
      type: "constant"
      value: 0.2
    }
  }
}
layer {
  name: "conv1/relu_7x7"
  type: "ReLU"
  bottom: "conv1/7x7_s2"
  top: "conv1/7x7_s2"
}
layer {
  name: "pool1/3x3_s2"
  type: "Pooling"
  bottom: "conv1/7x7_s2"
  top: "pool1/3x3_s2"
  pooling_param {
    pool: MAX
    kernel_size: 3
    stride: 2
  }
}
layer {
  name: "pool1/norm1"
  type: "LRN"
  bottom: "pool1/3x3_s2"
  top: "pool1/norm1"
  lrn_param {
    local_size: 5
    alpha: 0.0001
    beta: 0.75
  }
}
layer {
  name: "conv2/3x3_reduce"
  type: "Convolution"
  bottom: "pool1/norm1"
  top: "conv2/3x3_reduce"
  param {
    lr_mult: 1
    decay_mult: 1
  }
  param {
    lr_mult: 2
    decay_mult: 0
  }
  convolution_param {
    num_output: 64
    kernel_size: 1
    weight_filler {
      type: "xavier"
      std: 0.1
    }
    bias_filler {
      type: "constant"
      value: 0.2
    }
  }
}
layer {
  name: "conv2/relu_3x3_reduce"
  type: "ReLU"
  bottom: "conv2/3x3_reduce"
  top: "conv2/3x3_reduce"
}
layer {
  name: "conv2/3x3"
  type: "Convolution"
  bottom: "conv2/3x3_reduce"
  top: "conv2/3x3"
  param {
    lr_mult: 1
    decay_mult: 1
  }
  param {
    lr_mult: 2
    decay_mult: 0
  }
  convolution_param {
    num_output: 192
    pad: 1
    kernel_size: 3
    weight_filler {
      type: "xavier"
      std: 0.03
    }
    bias_filler {
      type: "constant"
      value: 0.2
    }
  }
}
layer {
  name: "conv2/relu_3x3"
  type: "ReLU"
  bottom: "conv2/3x3"
  top: "conv2/3x3"
}
layer {
  name: "conv2/norm2"
  type: "LRN"
  bottom: "conv2/3x3"
  top: "conv2/norm2"
  lrn_param {
    local_size: 5
    alpha: 0.0001
    beta: 0.75
  }
}
layer {
  name: "pool2/3x3_s2"
  type: "Pooling"
  bottom: "conv2/norm2"
  top: "pool2/3x3_s2"
  pooling_param {
    pool: MAX
    kernel_size: 3
    stride: 2
  }
}
layer {
  name: "inception_3a/1x1"
  type: "Convolution"
  bottom: "pool2/3x3_s2"
  top: "inception_3a/1x1"
  param {
    lr_mult: 1
    decay_mult: 1
  }
  param {
    lr_mult: 2
    decay_mult: 0
  }
  convolution_param {
    num_output: 64
    kernel_size: 1
    weight_filler {
      type: "xavier"
      std: 0.03
    }
    bias_filler {
      type: "constant"
      value: 0.2
    }
  }
}
layer {
  name: "inception_3a/relu_1x1"
  type: "ReLU"
  bottom: "inception_3a/1x1"
  top: "inception_3a/1x1"
}
layer {
  name: "inception_3a/3x3_reduce"
  type: "Convolution"
  bottom: "pool2/3x3_s2"
  top: "inception_3a/3x3_reduce"
  param {
    lr_mult: 1
    decay_mult: 1
  }
  param {
    lr_mult: 2
    decay_mult: 0
  }
  convolution_param {
    num_output: 96
    kernel_size: 1
    weight_filler {
      type: "xavier"
      std: 0.09
    }
    bias_filler {
      type: "constant"
      value: 0.2
    }
  }
}
layer {
  name: "inception_3a/relu_3x3_reduce"
  type: "ReLU"
  bottom: "inception_3a/3x3_reduce"
  top: "inception_3a/3x3_reduce"
}
layer {
  name: "inception_3a/3x3"
  type: "Convolution"
  bottom: "inception_3a/3x3_reduce"
  top: "inception_3a/3x3"
  param {
    lr_mult: 1
    decay_mult: 1
  }
  param {
    lr_mult: 2
    decay_mult: 0
  }
  convolution_param {
    num_output: 128
    pad: 1
    kernel_size: 3
    weight_filler {
      type: "xavier"
      std: 0.03
    }
    bias_filler {
      type: "constant"
      value: 0.2
    }
  }
}
layer {
  name: "inception_3a/relu_3x3"
  type: "ReLU"
  bottom: "inception_3a/3x3"
  top: "inception_3a/3x3"
}
layer {
  name: "inception_3a/5x5_reduce"
  type: "Convolution"
  bottom: "pool2/3x3_s2"
  top: "inception_3a/5x5_reduce"
  param {
    lr_mult: 1
    decay_mult: 1
  }
  param {
    lr_mult: 2
    decay_mult: 0
  }
  convolution_param {
    num_output: 16
    kernel_size: 1
    weight_filler {
      type: "xavier"
      std: 0.2
    }
    bias_filler {
      type: "constant"
      value: 0.2
    }
  }
}
layer {
  name: "inception_3a/relu_5x5_reduce"
  type: "ReLU"
  bottom: "inception_3a/5x5_reduce"
  top: "inception_3a/5x5_reduce"
}
layer {
  name: "inception_3a/5x5"
  type: "Convolution"
  bottom: "inception_3a/5x5_reduce"
  top: "inception_3a/5x5"
  param {
    lr_mult: 1
    decay_mult: 1
  }
  param {
    lr_mult: 2
    decay_mult: 0
  }
  convolution_param {
    num_output: 32
    pad: 2
    kernel_size: 5
    weight_filler {
      type: "xavier"
      std: 0.03
    }
    bias_filler {
      type: "constant"
      value: 0.2
    }
  }
}
layer {
  name: "inception_3a/relu_5x5"
  type: "ReLU"
  bottom: "inception_3a/5x5"
  top: "inception_3a/5x5"
}
layer {
  name: "inception_3a/pool"
  type: "Pooling"
  bottom: "pool2/3x3_s2"
  top: "inception_3a/pool"
  pooling_param {
    pool: MAX
    kernel_size: 3
    stride: 1
    pad: 1
  }
}
layer {
  name: "inception_3a/pool_proj"
  type: "Convolution"
  bottom: "inception_3a/pool"
  top: "inception_3a/pool_proj"
  param {
    lr_mult: 1
    decay_mult: 1
  }
  param {
    lr_mult: 2
    decay_mult: 0
  }
  convolution_param {
    num_output: 32
    kernel_size: 1
    weight_filler {
      type: "xavier"
      std: 0.1
    }
    bias_filler {
      type: "constant"
      value: 0.2
    }
  }
}
layer {
  name: "inception_3a/relu_pool_proj"
  type: "ReLU"
  bottom: "inception_3a/pool_proj"
  top: "inception_3a/pool_proj"
}
layer {
  name: "inception_3a/output"
  type: "Concat"
  bottom: "inception_3a/1x1"
  bottom: "inception_3a/3x3"
  bottom: "inception_3a/5x5"
  bottom: "inception_3a/pool_proj"
  top: "inception_3a/output"
}
layer {
  name: "inception_3b/1x1"
  type: "Convolution"
  bottom: "inception_3a/output"
  top: "inception_3b/1x1"
  param {
    lr_mult: 1
    decay_mult: 1
  }
  param {
    lr_mult: 2
    decay_mult: 0
  }
  convolution_param {
    num_output: 128
    kernel_size: 1
    weight_filler {
      type: "xavier"
      std: 0.03
    }
    bias_filler {
      type: "constant"
      value: 0.2
    }
  }
}
layer {
  name: "inception_3b/relu_1x1"
  type: "ReLU"
  bottom: "inception_3b/1x1"
  top: "inception_3b/1x1"
}
layer {
  name: "inception_3b/3x3_reduce"
  type: "Convolution"
  bottom: "inception_3a/output"
  top: "inception_3b/3x3_reduce"
  param {
    lr_mult: 1
    decay_mult: 1
  }
  param {
    lr_mult: 2
    decay_mult: 0
  }
  convolution_param {
    num_output: 128
    kernel_size: 1
    weight_filler {
      type: "xavier"
      std: 0.09
    }
    bias_filler {
      type: "constant"
      value: 0.2
    }
  }
}
layer {
  name: "inception_3b/relu_3x3_reduce"
  type: "ReLU"
  bottom: "inception_3b/3x3_reduce"
  top: "inception_3b/3x3_reduce"
}
layer {
  name: "inception_3b/3x3"
  type: "Convolution"
  bottom: "inception_3b/3x3_reduce"
  top: "inception_3b/3x3"
  param {
    lr_mult: 1
    decay_mult: 1
  }
  param {
    lr_mult: 2
    decay_mult: 0
  }
  convolution_param {
    num_output: 192
    pad: 1
    kernel_size: 3
    weight_filler {
      type: "xavier"
      std: 0.03
    }
    bias_filler {
      type: "constant"
      value: 0.2
    }
  }
}
layer {
  name: "inception_3b/relu_3x3"
  type: "ReLU"
  bottom: "inception_3b/3x3"
  top: "inception_3b/3x3"
}
layer {
  name: "inception_3b/5x5_reduce"
  type: "Convolution"
  bottom: "inception_3a/output"
  top: "inception_3b/5x5_reduce"
  param {
    lr_mult: 1
    decay_mult: 1
  }
  param {
    lr_mult: 2
    decay_mult: 0
  }
  convolution_param {
    num_output: 32
    kernel_size: 1
    weight_filler {
      type: "xavier"
      std: 0.2
    }
    bias_filler {
      type: "constant"
      value: 0.2
    }
  }
}
layer {
  name: "inception_3b/relu_5x5_reduce"
  type: "ReLU"
  bottom: "inception_3b/5x5_reduce"
  top: "inception_3b/5x5_reduce"
}
layer {
  name: "inception_3b/5x5"
  type: "Convolution"
  bottom: "inception_3b/5x5_reduce"
  top: "inception_3b/5x5"
  param {
    lr_mult: 1
    decay_mult: 1
  }
  param {
    lr_mult: 2
    decay_mult: 0
  }
  convolution_param {
    num_output: 96
    pad: 2
    kernel_size: 5
    weight_filler {
      type: "xavier"
      std: 0.03
    }
    bias_filler {
      type: "constant"
      value: 0.2
    }
  }
}
layer {
  name: "inception_3b/relu_5x5"
  type: "ReLU"
  bottom: "inception_3b/5x5"
  top: "inception_3b/5x5"
}
layer {
  name: "inception_3b/pool"
  type: "Pooling"
  bottom: "inception_3a/output"
  top: "inception_3b/pool"
  pooling_param {
    pool: MAX
    kernel_size: 3
    stride: 1
    pad: 1
  }
}
layer {
  name: "inception_3b/pool_proj"
  type: "Convolution"
  bottom: "inception_3b/pool"
  top: "inception_3b/pool_proj"
  param {
    lr_mult: 1
    decay_mult: 1
  }
  param {
    lr_mult: 2
    decay_mult: 0
  }
  convolution_param {
    num_output: 64
    kernel_size: 1
    weight_filler {
      type: "xavier"
      std: 0.1
    }
    bias_filler {
      type: "constant"
      value: 0.2
    }
  }
}
layer {
  name: "inception_3b/relu_pool_proj"
  type: "ReLU"
  bottom: "inception_3b/pool_proj"
  top: "inception_3b/pool_proj"
}
layer {
  name: "inception_3b/output"
  type: "Concat"
  bottom: "inception_3b/1x1"
  bottom: "inception_3b/3x3"
  bottom: "inception_3b/5x5"
  bottom: "inception_3b/pool_proj"
  top: "inception_3b/output"
}
layer {
  name: "pool3/3x3_s2"
  type: "Pooling"
  bottom: "inception_3b/output"
  top: "pool3/3x3_s2"
  pooling_param {
    pool: MAX
    kernel_size: 3
    stride: 2
  }
}
layer {
  name: "inception_4a/1x1"
  type: "Convolution"
  bottom: "pool3/3x3_s2"
  top: "inception_4a/1x1"
  param {
    lr_mult: 1
    decay_mult: 1
  }
  param {
    lr_mult: 2
    decay_mult: 0
  }
  convolution_param {
    num_output: 192
    kernel_size: 1
    weight_filler {
      type: "xavier"
      std: 0.03
    }
    bias_filler {
      type: "constant"
      value: 0.2
    }
  }
}
layer {
  name: "inception_4a/relu_1x1"
  type: "ReLU"
  bottom: "inception_4a/1x1"
  top: "inception_4a/1x1"
}
layer {
  name: "inception_4a/3x3_reduce"
  type: "Convolution"
  bottom: "pool3/3x3_s2"
  top: "inception_4a/3x3_reduce"
  param {
    lr_mult: 1
    decay_mult: 1
  }
  param {
    lr_mult: 2
    decay_mult: 0
  }
  convolution_param {
    num_output: 96
    kernel_size: 1
    weight_filler {
      type: "xavier"
      std: 0.09
    }
    bias_filler {
      type: "constant"
      value: 0.2
    }
  }
}
layer {
  name: "inception_4a/relu_3x3_reduce"
  type: "ReLU"
  bottom: "inception_4a/3x3_reduce"
  top: "inception_4a/3x3_reduce"
}
layer {
  name: "inception_4a/3x3"
  type: "Convolution"
  bottom: "inception_4a/3x3_reduce"
  top: "inception_4a/3x3"
  param {
    lr_mult: 1
    decay_mult: 1
  }
  param {
    lr_mult: 2
    decay_mult: 0
  }
  convolution_param {
    num_output: 208
    pad: 1
    kernel_size: 3
    weight_filler {
      type: "xavier"
      std: 0.03
    }
    bias_filler {
      type: "constant"
      value: 0.2
    }
  }
}
layer {
  name: "inception_4a/relu_3x3"
  type: "ReLU"
  bottom: "inception_4a/3x3"
  top: "inception_4a/3x3"
}
layer {
  name: "inception_4a/5x5_reduce"
  type: "Convolution"
  bottom: "pool3/3x3_s2"
  top: "inception_4a/5x5_reduce"
  param {
    lr_mult: 1
    decay_mult: 1
  }
  param {
    lr_mult: 2
    decay_mult: 0
  }
  convolution_param {
    num_output: 16
    kernel_size: 1
    weight_filler {
      type: "xavier"
      std: 0.2
    }
    bias_filler {
      type: "constant"
      value: 0.2
    }
  }
}
layer {
  name: "inception_4a/relu_5x5_reduce"
  type: "ReLU"
  bottom: "inception_4a/5x5_reduce"
  top: "inception_4a/5x5_reduce"
}
layer {
  name: "inception_4a/5x5"
  type: "Convolution"
  bottom: "inception_4a/5x5_reduce"
  top: "inception_4a/5x5"
  param {
    lr_mult: 1
    decay_mult: 1
  }
  param {
    lr_mult: 2
    decay_mult: 0
  }
  convolution_param {
    num_output: 48
    pad: 2
    kernel_size: 5
    weight_filler {
      type: "xavier"
      std: 0.03
    }
    bias_filler {
      type: "constant"
      value: 0.2
    }
  }
}
layer {
  name: "inception_4a/relu_5x5"
  type: "ReLU"
  bottom: "inception_4a/5x5"
  top: "inception_4a/5x5"
}
layer {
  name: "inception_4a/pool"
  type: "Pooling"
  bottom: "pool3/3x3_s2"
  top: "inception_4a/pool"
  pooling_param {
    pool: MAX
    kernel_size: 3
    stride: 1
    pad: 1
  }
}
layer {
  name: "inception_4a/pool_proj"
  type: "Convolution"
  bottom: "inception_4a/pool"
  top: "inception_4a/pool_proj"
  param {
    lr_mult: 1
    decay_mult: 1
  }
  param {
    lr_mult: 2
    decay_mult: 0
  }
  convolution_param {
    num_output: 64
    kernel_size: 1
    weight_filler {
      type: "xavier"
      std: 0.1
    }
    bias_filler {
      type: "constant"
      value: 0.2
    }
  }
}
layer {
  name: "inception_4a/relu_pool_proj"
  type: "ReLU"
  bottom: "inception_4a/pool_proj"
  top: "inception_4a/pool_proj"
}
layer {
  name: "inception_4a/output"
  type: "Concat"
  bottom: "inception_4a/1x1"
  bottom: "inception_4a/3x3"
  bottom: "inception_4a/5x5"
  bottom: "inception_4a/pool_proj"
  top: "inception_4a/output"
}
layer {
  name: "inception_4b/1x1"
  type: "Convolution"
  bottom: "inception_4a/output"
  top: "inception_4b/1x1"
  param {
    lr_mult: 1
    decay_mult: 1
  }
  param {
    lr_mult: 2
    decay_mult: 0
  }
  convolution_param {
    num_output: 160
    kernel_size: 1
    weight_filler {
      type: "xavier"
      std: 0.03
    }
    bias_filler {
      type: "constant"
      value: 0.2
    }
  }
}
layer {
  name: "inception_4b/relu_1x1"
  type: "ReLU"
  bottom: "inception_4b/1x1"
  top: "inception_4b/1x1"
}
layer {
  name: "inception_4b/3x3_reduce"
  type: "Convolution"
  bottom: "inception_4a/output"
  top: "inception_4b/3x3_reduce"
  param {
    lr_mult: 1
    decay_mult: 1
  }
  param {
    lr_mult: 2
    decay_mult: 0
  }
  convolution_param {
    num_output: 112
    kernel_size: 1
    weight_filler {
      type: "xavier"
      std: 0.09
    }
    bias_filler {
      type: "constant"
      value: 0.2
    }
  }
}
layer {
  name: "inception_4b/relu_3x3_reduce"
  type: "ReLU"
  bottom: "inception_4b/3x3_reduce"
  top: "inception_4b/3x3_reduce"
}
layer {
  name: "inception_4b/3x3"
  type: "Convolution"
  bottom: "inception_4b/3x3_reduce"
  top: "inception_4b/3x3"
  param {
    lr_mult: 1
    decay_mult: 1
  }
  param {
    lr_mult: 2
    decay_mult: 0
  }
  convolution_param {
    num_output: 224
    pad: 1
    kernel_size: 3
    weight_filler {
      type: "xavier"
      std: 0.03
    }
    bias_filler {
      type: "constant"
      value: 0.2
    }
  }
}
layer {
  name: "inception_4b/relu_3x3"
  type: "ReLU"
  bottom: "inception_4b/3x3"
  top: "inception_4b/3x3"
}
layer {
  name: "inception_4b/5x5_reduce"
  type: "Convolution"
  bottom: "inception_4a/output"
  top: "inception_4b/5x5_reduce"
  param {
    lr_mult: 1
    decay_mult: 1
  }
  param {
    lr_mult: 2
    decay_mult: 0
  }
  convolution_param {
    num_output: 24
    kernel_size: 1
    weight_filler {
      type: "xavier"
      std: 0.2
    }
    bias_filler {
      type: "constant"
      value: 0.2
    }
  }
}
layer {
  name: "inception_4b/relu_5x5_reduce"
  type: "ReLU"
  bottom: "inception_4b/5x5_reduce"
  top: "inception_4b/5x5_reduce"
}
layer {
  name: "inception_4b/5x5"
  type: "Convolution"
  bottom: "inception_4b/5x5_reduce"
  top: "inception_4b/5x5"
  param {
    lr_mult: 1
    decay_mult: 1
  }
  param {
    lr_mult: 2
    decay_mult: 0
  }
  convolution_param {
    num_output: 64
    pad: 2
    kernel_size: 5
    weight_filler {
      type: "xavier"
      std: 0.03
    }
    bias_filler {
      type: "constant"
      value: 0.2
    }
  }
}
layer {
  name: "inception_4b/relu_5x5"
  type: "ReLU"
  bottom: "inception_4b/5x5"
  top: "inception_4b/5x5"
}
layer {
  name: "inception_4b/pool"
  type: "Pooling"
  bottom: "inception_4a/output"
  top: "inception_4b/pool"
  pooling_param {
    pool: MAX
    kernel_size: 3
    stride: 1
    pad: 1
  }
}
layer {
  name: "inception_4b/pool_proj"
  type: "Convolution"
  bottom: "inception_4b/pool"
  top: "inception_4b/pool_proj"
  param {
    lr_mult: 1
    decay_mult: 1
  }
  param {
    lr_mult: 2
    decay_mult: 0
  }
  convolution_param {
    num_output: 64
    kernel_size: 1
    weight_filler {
      type: "xavier"
      std: 0.1
    }
    bias_filler {
      type: "constant"
      value: 0.2
    }
  }
}
layer {
  name: "inception_4b/relu_pool_proj"
  type: "ReLU"
  bottom: "inception_4b/pool_proj"
  top: "inception_4b/pool_proj"
}
layer {
  name: "inception_4b/output"
  type: "Concat"
  bottom: "inception_4b/1x1"
  bottom: "inception_4b/3x3"
  bottom: "inception_4b/5x5"
  bottom: "inception_4b/pool_proj"
  top: "inception_4b/output"
}
layer {
  name: "inception_4c/1x1"
  type: "Convolution"
  bottom: "inception_4b/output"
  top: "inception_4c/1x1"
  param {
    lr_mult: 1
    decay_mult: 1
  }
  param {
    lr_mult: 2
    decay_mult: 0
  }
  convolution_param {
    num_output: 128
    kernel_size: 1
    weight_filler {
      type: "xavier"
      std: 0.03
    }
    bias_filler {
      type: "constant"
      value: 0.2
    }
  }
}
layer {
  name: "inception_4c/relu_1x1"
  type: "ReLU"
  bottom: "inception_4c/1x1"
  top: "inception_4c/1x1"
}
layer {
  name: "inception_4c/3x3_reduce"
  type: "Convolution"
  bottom: "inception_4b/output"
  top: "inception_4c/3x3_reduce"
  param {
    lr_mult: 1
    decay_mult: 1
  }
  param {
    lr_mult: 2
    decay_mult: 0
  }
  convolution_param {
    num_output: 128
    kernel_size: 1
    weight_filler {
      type: "xavier"
      std: 0.09
    }
    bias_filler {
      type: "constant"
      value: 0.2
    }
  }
}
layer {
  name: "inception_4c/relu_3x3_reduce"
  type: "ReLU"
  bottom: "inception_4c/3x3_reduce"
  top: "inception_4c/3x3_reduce"
}
layer {
  name: "inception_4c/3x3"
  type: "Convolution"
  bottom: "inception_4c/3x3_reduce"
  top: "inception_4c/3x3"
  param {
    lr_mult: 1
    decay_mult: 1
  }
  param {
    lr_mult: 2
    decay_mult: 0
  }
  convolution_param {
    num_output: 256
    pad: 1
    kernel_size: 3
    weight_filler {
      type: "xavier"
      std: 0.03
    }
    bias_filler {
      type: "constant"
      value: 0.2
    }
  }
}
layer {
  name: "inception_4c/relu_3x3"
  type: "ReLU"
  bottom: "inception_4c/3x3"
  top: "inception_4c/3x3"
}
layer {
  name: "inception_4c/5x5_reduce"
  type: "Convolution"
  bottom: "inception_4b/output"
  top: "inception_4c/5x5_reduce"
  param {
    lr_mult: 1
    decay_mult: 1
  }
  param {
    lr_mult: 2
    decay_mult: 0
  }
  convolution_param {
    num_output: 24
    kernel_size: 1
    weight_filler {
      type: "xavier"
      std: 0.2
    }
    bias_filler {
      type: "constant"
      value: 0.2
    }
  }
}
layer {
  name: "inception_4c/relu_5x5_reduce"
  type: "ReLU"
  bottom: "inception_4c/5x5_reduce"
  top: "inception_4c/5x5_reduce"
}
layer {
  name: "inception_4c/5x5"
  type: "Convolution"
  bottom: "inception_4c/5x5_reduce"
  top: "inception_4c/5x5"
  param {
    lr_mult: 1
    decay_mult: 1
  }
  param {
    lr_mult: 2
    decay_mult: 0
  }
  convolution_param {
    num_output: 64
    pad: 2
    kernel_size: 5
    weight_filler {
      type: "xavier"
      std: 0.03
    }
    bias_filler {
      type: "constant"
      value: 0.2
    }
  }
}
layer {
  name: "inception_4c/relu_5x5"
  type: "ReLU"
  bottom: "inception_4c/5x5"
  top: "inception_4c/5x5"
}
layer {
  name: "inception_4c/pool"
  type: "Pooling"
  bottom: "inception_4b/output"
  top: "inception_4c/pool"
  pooling_param {
    pool: MAX
    kernel_size: 3
    stride: 1
    pad: 1
  }
}
layer {
  name: "inception_4c/pool_proj"
  type: "Convolution"
  bottom: "inception_4c/pool"
  top: "inception_4c/pool_proj"
  param {
    lr_mult: 1
    decay_mult: 1
  }
  param {
    lr_mult: 2
    decay_mult: 0
  }
  convolution_param {
    num_output: 64
    kernel_size: 1
    weight_filler {
      type: "xavier"
      std: 0.1
    }
    bias_filler {
      type: "constant"
      value: 0.2
    }
  }
}
layer {
  name: "inception_4c/relu_pool_proj"
  type: "ReLU"
  bottom: "inception_4c/pool_proj"
  top: "inception_4c/pool_proj"
}
layer {
  name: "inception_4c/output"
  type: "Concat"
  bottom: "inception_4c/1x1"
  bottom: "inception_4c/3x3"
  bottom: "inception_4c/5x5"
  bottom: "inception_4c/pool_proj"
  top: "inception_4c/output"
}
layer {
  name: "inception_4d/1x1"
  type: "Convolution"
  bottom: "inception_4c/output"
  top: "inception_4d/1x1"
  param {
    lr_mult: 1
    decay_mult: 1
  }
  param {
    lr_mult: 2
    decay_mult: 0
  }
  convolution_param {
    num_output: 112
    kernel_size: 1
    weight_filler {
      type: "xavier"
      std: 0.03
    }
    bias_filler {
      type: "constant"
      value: 0.2
    }
  }
}
layer {
  name: "inception_4d/relu_1x1"
  type: "ReLU"
  bottom: "inception_4d/1x1"
  top: "inception_4d/1x1"
}
layer {
  name: "inception_4d/3x3_reduce"
  type: "Convolution"
  bottom: "inception_4c/output"
  top: "inception_4d/3x3_reduce"
  param {
    lr_mult: 1
    decay_mult: 1
  }
  param {
    lr_mult: 2
    decay_mult: 0
  }
  convolution_param {
    num_output: 144
    kernel_size: 1
    weight_filler {
      type: "xavier"
      std: 0.09
    }
    bias_filler {
      type: "constant"
      value: 0.2
    }
  }
}
layer {
  name: "inception_4d/relu_3x3_reduce"
  type: "ReLU"
  bottom: "inception_4d/3x3_reduce"
  top: "inception_4d/3x3_reduce"
}
layer {
  name: "inception_4d/3x3"
  type: "Convolution"
  bottom: "inception_4d/3x3_reduce"
  top: "inception_4d/3x3"
  param {
    lr_mult: 1
    decay_mult: 1
  }
  param {
    lr_mult: 2
    decay_mult: 0
  }
  convolution_param {
    num_output: 288
    pad: 1
    kernel_size: 3
    weight_filler {
      type: "xavier"
      std: 0.03
    }
    bias_filler {
      type: "constant"
      value: 0.2
    }
  }
}
layer {
  name: "inception_4d/relu_3x3"
  type: "ReLU"
  bottom: "inception_4d/3x3"
  top: "inception_4d/3x3"
}
layer {
  name: "inception_4d/5x5_reduce"
  type: "Convolution"
  bottom: "inception_4c/output"
  top: "inception_4d/5x5_reduce"
  param {
    lr_mult: 1
    decay_mult: 1
  }
  param {
    lr_mult: 2
    decay_mult: 0
  }
  convolution_param {
    num_output: 32
    kernel_size: 1
    weight_filler {
      type: "xavier"
      std: 0.2
    }
    bias_filler {
      type: "constant"
      value: 0.2
    }
  }
}
layer {
  name: "inception_4d/relu_5x5_reduce"
  type: "ReLU"
  bottom: "inception_4d/5x5_reduce"
  top: "inception_4d/5x5_reduce"
}
layer {
  name: "inception_4d/5x5"
  type: "Convolution"
  bottom: "inception_4d/5x5_reduce"
  top: "inception_4d/5x5"
  param {
    lr_mult: 1
    decay_mult: 1
  }
  param {
    lr_mult: 2
    decay_mult: 0
  }
  convolution_param {
    num_output: 64
    pad: 2
    kernel_size: 5
    weight_filler {
      type: "xavier"
      std: 0.03
    }
    bias_filler {
      type: "constant"
      value: 0.2
    }
  }
}
layer {
  name: "inception_4d/relu_5x5"
  type: "ReLU"
  bottom: "inception_4d/5x5"
  top: "inception_4d/5x5"
}
layer {
  name: "inception_4d/pool"
  type: "Pooling"
  bottom: "inception_4c/output"
  top: "inception_4d/pool"
  pooling_param {
    pool: MAX
    kernel_size: 3
    stride: 1
    pad: 1
  }
}
layer {
  name: "inception_4d/pool_proj"
  type: "Convolution"
  bottom: "inception_4d/pool"
  top: "inception_4d/pool_proj"
  param {
    lr_mult: 1
    decay_mult: 1
  }
  param {
    lr_mult: 2
    decay_mult: 0
  }
  convolution_param {
    num_output: 64
    kernel_size: 1
    weight_filler {
      type: "xavier"
      std: 0.1
    }
    bias_filler {
      type: "constant"
      value: 0.2
    }
  }
}
layer {
  name: "inception_4d/relu_pool_proj"
  type: "ReLU"
  bottom: "inception_4d/pool_proj"
  top: "inception_4d/pool_proj"
}
layer {
  name: "inception_4d/output"
  type: "Concat"
  bottom: "inception_4d/1x1"
  bottom: "inception_4d/3x3"
  bottom: "inception_4d/5x5"
  bottom: "inception_4d/pool_proj"
  top: "inception_4d/output"
}
layer {
  name: "inception_4e/1x1"
  type: "Convolution"
  bottom: "inception_4d/output"
  top: "inception_4e/1x1"
  param {
    lr_mult: 1
    decay_mult: 1
  }
  param {
    lr_mult: 2
    decay_mult: 0
  }
  convolution_param {
    num_output: 256
    kernel_size: 1
    weight_filler {
      type: "xavier"
      std: 0.03
    }
    bias_filler {
      type: "constant"
      value: 0.2
    }
  }
}
layer {
  name: "inception_4e/relu_1x1"
  type: "ReLU"
  bottom: "inception_4e/1x1"
  top: "inception_4e/1x1"
}
layer {
  name: "inception_4e/3x3_reduce"
  type: "Convolution"
  bottom: "inception_4d/output"
  top: "inception_4e/3x3_reduce"
  param {
    lr_mult: 1
    decay_mult: 1
  }
  param {
    lr_mult: 2
    decay_mult: 0
  }
  convolution_param {
    num_output: 160
    kernel_size: 1
    weight_filler {
      type: "xavier"
      std: 0.09
    }
    bias_filler {
      type: "constant"
      value: 0.2
    }
  }
}
layer {
  name: "inception_4e/relu_3x3_reduce"
  type: "ReLU"
  bottom: "inception_4e/3x3_reduce"
  top: "inception_4e/3x3_reduce"
}
layer {
  name: "inception_4e/3x3"
  type: "Convolution"
  bottom: "inception_4e/3x3_reduce"
  top: "inception_4e/3x3"
  param {
    lr_mult: 1
    decay_mult: 1
  }
  param {
    lr_mult: 2
    decay_mult: 0
  }
  convolution_param {
    num_output: 320
    pad: 1
    kernel_size: 3
    weight_filler {
      type: "xavier"
      std: 0.03
    }
    bias_filler {
      type: "constant"
      value: 0.2
    }
  }
}
layer {
  name: "inception_4e/relu_3x3"
  type: "ReLU"
  bottom: "inception_4e/3x3"
  top: "inception_4e/3x3"
}
layer {
  name: "inception_4e/5x5_reduce"
  type: "Convolution"
  bottom: "inception_4d/output"
  top: "inception_4e/5x5_reduce"
  param {
    lr_mult: 1
    decay_mult: 1
  }
  param {
    lr_mult: 2
    decay_mult: 0
  }
  convolution_param {
    num_output: 32
    kernel_size: 1
    weight_filler {
      type: "xavier"
      std: 0.2
    }
    bias_filler {
      type: "constant"
      value: 0.2
    }
  }
}
layer {
  name: "inception_4e/relu_5x5_reduce"
  type: "ReLU"
  bottom: "inception_4e/5x5_reduce"
  top: "inception_4e/5x5_reduce"
}
layer {
  name: "inception_4e/5x5"
  type: "Convolution"
  bottom: "inception_4e/5x5_reduce"
  top: "inception_4e/5x5"
  param {
    lr_mult: 1
    decay_mult: 1
  }
  param {
    lr_mult: 2
    decay_mult: 0
  }
  convolution_param {
    num_output: 128
    pad: 2
    kernel_size: 5
    weight_filler {
      type: "xavier"
      std: 0.03
    }
    bias_filler {
      type: "constant"
      value: 0.2
    }
  }
}
layer {
  name: "inception_4e/relu_5x5"
  type: "ReLU"
  bottom: "inception_4e/5x5"
  top: "inception_4e/5x5"
}
layer {
  name: "inception_4e/pool"
  type: "Pooling"
  bottom: "inception_4d/output"
  top: "inception_4e/pool"
  pooling_param {
    pool: MAX
    kernel_size: 3
    stride: 1
    pad: 1
  }
}
layer {
  name: "inception_4e/pool_proj"
  type: "Convolution"
  bottom: "inception_4e/pool"
  top: "inception_4e/pool_proj"
  param {
    lr_mult: 1
    decay_mult: 1
  }
  param {
    lr_mult: 2
    decay_mult: 0
  }
  convolution_param {
    num_output: 128
    kernel_size: 1
    weight_filler {
      type: "xavier"
      std: 0.1
    }
    bias_filler {
      type: "constant"
      value: 0.2
    }
  }
}
layer {
  name: "inception_4e/relu_pool_proj"
  type: "ReLU"
  bottom: "inception_4e/pool_proj"
  top: "inception_4e/pool_proj"
}
layer {
  name: "inception_4e/output"
  type: "Concat"
  bottom: "inception_4e/1x1"
  bottom: "inception_4e/3x3"
  bottom: "inception_4e/5x5"
  bottom: "inception_4e/pool_proj"
  top: "inception_4e/output"
}
layer {
  name: "pool4/3x3_s2"
  type: "Pooling"
  bottom: "inception_4e/output"
  top: "pool4/3x3_s2"
  pooling_param {
    pool: MAX
    kernel_size: 3
    stride: 2
  }
}
layer {
  name: "inception_5a/1x1"
  type: "Convolution"
  bottom: "pool4/3x3_s2"
  top: "inception_5a/1x1"
  param {
    lr_mult: 1
    decay_mult: 1
  }
  param {
    lr_mult: 2
    decay_mult: 0
  }
  convolution_param {
    num_output: 256
    kernel_size: 1
    weight_filler {
      type: "xavier"
      std: 0.03
    }
    bias_filler {
      type: "constant"
      value: 0.2
    }
  }
}
layer {
  name: "inception_5a/relu_1x1"
  type: "ReLU"
  bottom: "inception_5a/1x1"
  top: "inception_5a/1x1"
}
layer {
  name: "inception_5a/3x3_reduce"
  type: "Convolution"
  bottom: "pool4/3x3_s2"
  top: "inception_5a/3x3_reduce"
  param {
    lr_mult: 1
    decay_mult: 1
  }
  param {
    lr_mult: 2
    decay_mult: 0
  }
  convolution_param {
    num_output: 160
    kernel_size: 1
    weight_filler {
      type: "xavier"
      std: 0.09
    }
    bias_filler {
      type: "constant"
      value: 0.2
    }
  }
}
layer {
  name: "inception_5a/relu_3x3_reduce"
  type: "ReLU"
  bottom: "inception_5a/3x3_reduce"
  top: "inception_5a/3x3_reduce"
}
layer {
  name: "inception_5a/3x3"
  type: "Convolution"
  bottom: "inception_5a/3x3_reduce"
  top: "inception_5a/3x3"
  param {
    lr_mult: 1
    decay_mult: 1
  }
  param {
    lr_mult: 2
    decay_mult: 0
  }
  convolution_param {
    num_output: 320
    pad: 1
    kernel_size: 3
    weight_filler {
      type: "xavier"
      std: 0.03
    }
    bias_filler {
      type: "constant"
      value: 0.2
    }
  }
}
layer {
  name: "inception_5a/relu_3x3"
  type: "ReLU"
  bottom: "inception_5a/3x3"
  top: "inception_5a/3x3"
}
layer {
  name: "inception_5a/5x5_reduce"
  type: "Convolution"
  bottom: "pool4/3x3_s2"
  top: "inception_5a/5x5_reduce"
  param {
    lr_mult: 1
    decay_mult: 1
  }
  param {
    lr_mult: 2
    decay_mult: 0
  }
  convolution_param {
    num_output: 32
    kernel_size: 1
    weight_filler {
      type: "xavier"
      std: 0.2
    }
    bias_filler {
      type: "constant"
      value: 0.2
    }
I0713 14:07:14.787554 12682 layer_factory.hpp:77] Creating layer data
I0713 14:07:14.787587 12682 net.cpp:91] Creating Layer data
I0713 14:07:14.787598 12682 net.cpp:399] data -> data
I0713 14:07:15.405068 12682 net.cpp:141] Setting up data
I0713 14:07:15.405172 12682 net.cpp:148] Top shape: 10 3 224 224 (1505280)
I0713 14:07:15.405181 12682 net.cpp:156] Memory required for data: 6021120
I0713 14:07:15.405207 12682 layer_factory.hpp:77] Creating layer conv1/7x7_s2
I0713 14:07:15.405254 12682 net.cpp:91] Creating Layer conv1/7x7_s2
I0713 14:07:15.405266 12682 net.cpp:425] conv1/7x7_s2 <- data
I0713 14:07:15.405282 12682 net.cpp:399] conv1/7x7_s2 -> conv1/7x7_s2
I0713 14:07:15.677942 12682 net.cpp:141] Setting up conv1/7x7_s2
I0713 14:07:15.678002 12682 net.cpp:148] Top shape: 10 64 112 112 (8028160)
I0713 14:07:15.678010 12682 net.cpp:156] Memory required for data: 38133760
I0713 14:07:15.678062 12682 layer_factory.hpp:77] Creating layer conv1/relu_7x7
I0713 14:07:15.678089 12682 net.cpp:91] Creating Layer conv1/relu_7x7
I0713 14:07:15.678098 12682 net.cpp:425] conv1/relu_7x7 <- conv1/7x7_s2
I0713 14:07:15.678112 12682 net.cpp:386] conv1/relu_7x7 -> conv1/7x7_s2 (in-place)
I0713 14:07:15.679059 12682 net.cpp:141] Setting up conv1/relu_7x7
I0713 14:07:15.679077 12682 net.cpp:148] Top shape: 10 64 112 112 (8028160)
I0713 14:07:15.679083 12682 net.cpp:156] Memory required for data: 70246400
I0713 14:07:15.679091 12682 layer_factory.hpp:77] Creating layer pool1/3x3_s2
I0713 14:07:15.679108 12682 net.cpp:91] Creating Layer pool1/3x3_s2
I0713 14:07:15.679116 12682 net.cpp:425] pool1/3x3_s2 <- conv1/7x7_s2
I0713 14:07:15.679136 12682 net.cpp:399] pool1/3x3_s2 -> pool1/3x3_s2
I0713 14:07:15.679239 12682 net.cpp:141] Setting up pool1/3x3_s2
I0713 14:07:15.679253 12682 net.cpp:148] Top shape: 10 64 56 56 (2007040)
I0713 14:07:15.679258 12682 net.cpp:156] Memory required for data: 78274560
I0713 14:07:15.679265 12682 layer_factory.hpp:77] Creating layer pool1/norm1
I0713 14:07:15.679287 12682 net.cpp:91] Creating Layer pool1/norm1
I0713 14:07:15.679294 12682 net.cpp:425] pool1/norm1 <- pool1/3x3_s2
I0713 14:07:15.679304 12682 net.cpp:399] pool1/norm1 -> pool1/norm1
I0713 14:07:15.680269 12682 net.cpp:141] Setting up pool1/norm1
I0713 14:07:15.680289 12682 net.cpp:148] Top shape: 10 64 56 56 (2007040)
I0713 14:07:15.680294 12682 net.cpp:156] Memory required for data: 86302720
I0713 14:07:15.680301 12682 layer_factory.hpp:77] Creating layer conv2/3x3_reduce
I0713 14:07:15.680330 12682 net.cpp:91] Creating Layer conv2/3x3_reduce
I0713 14:07:15.680336 12682 net.cpp:425] conv2/3x3_reduce <- pool1/norm1
I0713 14:07:15.680348 12682 net.cpp:399] conv2/3x3_reduce -> conv2/3x3_reduce
I0713 14:07:15.684749 12682 net.cpp:141] Setting up conv2/3x3_reduce
I0713 14:07:15.684789 12682 net.cpp:148] Top shape: 10 64 56 56 (2007040)
I0713 14:07:15.684800 12682 net.cpp:156] Memory required for data: 94330880
I0713 14:07:15.684837 12682 layer_factory.hpp:77] Creating layer conv2/relu_3x3_reduce
I0713 14:07:15.684852 12682 net.cpp:91] Creating Layer conv2/relu_3x3_reduce
I0713 14:07:15.684859 12682 net.cpp:425] conv2/relu_3x3_reduce <- conv2/3x3_reduce
I0713 14:07:15.684870 12682 net.cpp:386] conv2/relu_3x3_reduce -> conv2/3x3_reduce (in-place)
I0713 14:07:15.685780 12682 net.cpp:141] Setting up conv2/relu_3x3_reduce
I0713 14:07:15.685819 12682 net.cpp:148] Top shape: 10 64 56 56 (2007040)
I0713 14:07:15.685830 12682 net.cpp:156] Memory required for data: 102359040
I0713 14:07:15.685840 12682 layer_factory.hpp:77] Creating layer conv2/3x3
I0713 14:07:15.685880 12682 net.cpp:91] Creating Layer conv2/3x3
I0713 14:07:15.685889 12682 net.cpp:425] conv2/3x3 <- conv2/3x3_reduce
I0713 14:07:15.685900 12682 net.cpp:399] conv2/3x3 -> conv2/3x3
I0713 14:07:15.691112 12682 net.cpp:141] Setting up conv2/3x3
I0713 14:07:15.691135 12682 net.cpp:148] Top shape: 10 192 56 56 (6021120)
I0713 14:07:15.691141 12682 net.cpp:156] Memory required for data: 126443520
I0713 14:07:15.691159 12682 layer_factory.hpp:77] Creating layer conv2/relu_3x3
I0713 14:07:15.691171 12682 net.cpp:91] Creating Layer conv2/relu_3x3
I0713 14:07:15.691176 12682 net.cpp:425] conv2/relu_3x3 <- conv2/3x3
I0713 14:07:15.691184 12682 net.cpp:386] conv2/relu_3x3 -> conv2/3x3 (in-place)
I0713 14:07:15.691465 12682 net.cpp:141] Setting up conv2/relu_3x3
I0713 14:07:15.691478 12682 net.cpp:148] Top shape: 10 192 56 56 (6021120)
I0713 14:07:15.691483 12682 net.cpp:156] Memory required for data: 150528000
I0713 14:07:15.691489 12682 layer_factory.hpp:77] Creating layer conv2/norm2
I0713 14:07:15.691504 12682 net.cpp:91] Creating Layer conv2/norm2
I0713 14:07:15.691510 12682 net.cpp:425] conv2/norm2 <- conv2/3x3
I0713 14:07:15.691519 12682 net.cpp:399] conv2/norm2 -> conv2/norm2
I0713 14:07:15.692420 12682 net.cpp:141] Setting up conv2/norm2
I0713 14:07:15.692442 12682 net.cpp:148] Top shape: 10 192 56 56 (6021120)
I0713 14:07:15.692448 12682 net.cpp:156] Memory required for data: 174612480
I0713 14:07:15.692454 12682 layer_factory.hpp:77] Creating layer pool2/3x3_s2
I0713 14:07:15.692464 12682 net.cpp:91] Creating Layer pool2/3x3_s2
I0713 14:07:15.692471 12682 net.cpp:425] pool2/3x3_s2 <- conv2/norm2
I0713 14:07:15.692479 12682 net.cpp:399] pool2/3x3_s2 -> pool2/3x3_s2
I0713 14:07:15.692554 12682 net.cpp:141] Setting up pool2/3x3_s2
I0713 14:07:15.692564 12682 net.cpp:148] Top shape: 10 192 28 28 (1505280)
I0713 14:07:15.692569 12682 net.cpp:156] Memory required for data: 180633600
I0713 14:07:15.692574 12682 layer_factory.hpp:77] Creating layer pool2/3x3_s2_pool2/3x3_s2_0_split
I0713 14:07:15.692594 12682 net.cpp:91] Creating Layer pool2/3x3_s2_pool2/3x3_s2_0_split
I0713 14:07:15.692600 12682 net.cpp:425] pool2/3x3_s2_pool2/3x3_s2_0_split <- pool2/3x3_s2
I0713 14:07:15.692612 12682 net.cpp:399] pool2/3x3_s2_pool2/3x3_s2_0_split -> pool2/3x3_s2_pool2/3x3_s2_0_split_0
I0713 14:07:15.692625 12682 net.cpp:399] pool2/3x3_s2_pool2/3x3_s2_0_split -> pool2/3x3_s2_pool2/3x3_s2_0_split_1
I0713 14:07:15.692633 12682 net.cpp:399] pool2/3x3_s2_pool2/3x3_s2_0_split -> pool2/3x3_s2_pool2/3x3_s2_0_split_2
I0713 14:07:15.692642 12682 net.cpp:399] pool2/3x3_s2_pool2/3x3_s2_0_split -> pool2/3x3_s2_pool2/3x3_s2_0_split_3
I0713 14:07:15.692734 12682 net.cpp:141] Setting up pool2/3x3_s2_pool2/3x3_s2_0_split
I0713 14:07:15.692745 12682 net.cpp:148] Top shape: 10 192 28 28 (1505280)
I0713 14:07:15.692760 12682 net.cpp:148] Top shape: 10 192 28 28 (1505280)
I0713 14:07:15.692766 12682 net.cpp:148] Top shape: 10 192 28 28 (1505280)
I0713 14:07:15.692772 12682 net.cpp:148] Top shape: 10 192 28 28 (1505280)
I0713 14:07:15.692777 12682 net.cpp:156] Memory required for data: 204718080
I0713 14:07:15.692782 12682 layer_factory.hpp:77] Creating layer inception_3a/1x1
I0713 14:07:15.692800 12682 net.cpp:91] Creating Layer inception_3a/1x1
I0713 14:07:15.692806 12682 net.cpp:425] inception_3a/1x1 <- pool2/3x3_s2_pool2/3x3_s2_0_split_0
I0713 14:07:15.692837 12682 net.cpp:399] inception_3a/1x1 -> inception_3a/1x1
I0713 14:07:15.697188 12682 net.cpp:141] Setting up inception_3a/1x1
I0713 14:07:15.697211 12682 net.cpp:148] Top shape: 10 64 28 28 (501760)
I0713 14:07:15.697217 12682 net.cpp:156] Memory required for data: 206725120
I0713 14:07:15.697233 12682 layer_factory.hpp:77] Creating layer inception_3a/relu_1x1
I0713 14:07:15.697245 12682 net.cpp:91] Creating Layer inception_3a/relu_1x1
I0713 14:07:15.697252 12682 net.cpp:425] inception_3a/relu_1x1 <- inception_3a/1x1
I0713 14:07:15.697263 12682 net.cpp:386] inception_3a/relu_1x1 -> inception_3a/1x1 (in-place)
I0713 14:07:15.697557 12682 net.cpp:141] Setting up inception_3a/relu_1x1
I0713 14:07:15.697571 12682 net.cpp:148] Top shape: 10 64 28 28 (501760)
I0713 14:07:15.697576 12682 net.cpp:156] Memory required for data: 208732160
I0713 14:07:15.697582 12682 layer_factory.hpp:77] Creating layer inception_3a/3x3_reduce
I0713 14:07:15.697602 12682 net.cpp:91] Creating Layer inception_3a/3x3_reduce
I0713 14:07:15.697610 12682 net.cpp:425] inception_3a/3x3_reduce <- pool2/3x3_s2_pool2/3x3_s2_0_split_1
I0713 14:07:15.697621 12682 net.cpp:399] inception_3a/3x3_reduce -> inception_3a/3x3_reduce
I0713 14:07:15.701274 12682 net.cpp:141] Setting up inception_3a/3x3_reduce
I0713 14:07:15.701295 12682 net.cpp:148] Top shape: 10 96 28 28 (752640)
I0713 14:07:15.701300 12682 net.cpp:156] Memory required for data: 211742720
I0713 14:07:15.701315 12682 layer_factory.hpp:77] Creating layer inception_3a/relu_3x3_reduce
I0713 14:07:15.701329 12682 net.cpp:91] Creating Layer inception_3a/relu_3x3_reduce
I0713 14:07:15.701336 12682 net.cpp:425] inception_3a/relu_3x3_reduce <- inception_3a/3x3_reduce
I0713 14:07:15.701344 12682 net.cpp:386] inception_3a/relu_3x3_reduce -> inception_3a/3x3_reduce (in-place)
I0713 14:07:15.701604 12682 net.cpp:141] Setting up inception_3a/relu_3x3_reduce
I0713 14:07:15.701617 12682 net.cpp:148] Top shape: 10 96 28 28 (752640)
I0713 14:07:15.701622 12682 net.cpp:156] Memory required for data: 214753280
I0713 14:07:15.701627 12682 layer_factory.hpp:77] Creating layer inception_3a/3x3
I0713 14:07:15.701647 12682 net.cpp:91] Creating Layer inception_3a/3x3
I0713 14:07:15.701654 12682 net.cpp:425] inception_3a/3x3 <- inception_3a/3x3_reduce
I0713 14:07:15.701668 12682 net.cpp:399] inception_3a/3x3 -> inception_3a/3x3
I0713 14:07:15.704874 12682 net.cpp:141] Setting up inception_3a/3x3
I0713 14:07:15.704895 12682 net.cpp:148] Top shape: 10 128 28 28 (1003520)
I0713 14:07:15.704900 12682 net.cpp:156] Memory required for data: 218767360
I0713 14:07:15.704912 12682 layer_factory.hpp:77] Creating layer inception_3a/relu_3x3
I0713 14:07:15.704926 12682 net.cpp:91] Creating Layer inception_3a/relu_3x3
I0713 14:07:15.704933 12682 net.cpp:425] inception_3a/relu_3x3 <- inception_3a/3x3
I0713 14:07:15.704943 12682 net.cpp:386] inception_3a/relu_3x3 -> inception_3a/3x3 (in-place)
I0713 14:07:15.705760 12682 net.cpp:141] Setting up inception_3a/relu_3x3
I0713 14:07:15.705778 12682 net.cpp:148] Top shape: 10 128 28 28 (1003520)
I0713 14:07:15.705785 12682 net.cpp:156] Memory required for data: 222781440
I0713 14:07:15.705790 12682 layer_factory.hpp:77] Creating layer inception_3a/5x5_reduce
I0713 14:07:15.705809 12682 net.cpp:91] Creating Layer inception_3a/5x5_reduce
I0713 14:07:15.705816 12682 net.cpp:425] inception_3a/5x5_reduce <- pool2/3x3_s2_pool2/3x3_s2_0_split_2
I0713 14:07:15.705826 12682 net.cpp:399] inception_3a/5x5_reduce -> inception_3a/5x5_reduce
I0713 14:07:15.708120 12682 net.cpp:141] Setting up inception_3a/5x5_reduce
I0713 14:07:15.708142 12682 net.cpp:148] Top shape: 10 16 28 28 (125440)
I0713 14:07:15.708148 12682 net.cpp:156] Memory required for data: 223283200
I0713 14:07:15.708158 12682 layer_factory.hpp:77] Creating layer inception_3a/relu_5x5_reduce
I0713 14:07:15.708169 12682 net.cpp:91] Creating Layer inception_3a/relu_5x5_reduce
I0713 14:07:15.708175 12682 net.cpp:425] inception_3a/relu_5x5_reduce <- inception_3a/5x5_reduce
I0713 14:07:15.708184 12682 net.cpp:386] inception_3a/relu_5x5_reduce -> inception_3a/5x5_reduce (in-place)
I0713 14:07:15.708447 12682 net.cpp:141] Setting up inception_3a/relu_5x5_reduce
I0713 14:07:15.708459 12682 net.cpp:148] Top shape: 10 16 28 28 (125440)
I0713 14:07:15.708464 12682 net.cpp:156] Memory required for data: 223784960
I0713 14:07:15.708470 12682 layer_factory.hpp:77] Creating layer inception_3a/5x5
I0713 14:07:15.708488 12682 net.cpp:91] Creating Layer inception_3a/5x5
I0713 14:07:15.708494 12682 net.cpp:425] inception_3a/5x5 <- inception_3a/5x5_reduce
I0713 14:07:15.708508 12682 net.cpp:399] inception_3a/5x5 -> inception_3a/5x5
I0713 14:07:15.712136 12682 net.cpp:141] Setting up inception_3a/5x5
I0713 14:07:15.712157 12682 net.cpp:148] Top shape: 10 32 28 28 (250880)
I0713 14:07:15.712165 12682 net.cpp:156] Memory required for data: 224788480
I0713 14:07:15.712177 12682 layer_factory.hpp:77] Creating layer inception_3a/relu_5x5
I0713 14:07:15.712185 12682 net.cpp:91] Creating Layer inception_3a/relu_5x5
I0713 14:07:15.712191 12682 net.cpp:425] inception_3a/relu_5x5 <- inception_3a/5x5
I0713 14:07:15.712200 12682 net.cpp:386] inception_3a/relu_5x5 -> inception_3a/5x5 (in-place)
I0713 14:07:15.712479 12682 net.cpp:141] Setting up inception_3a/relu_5x5
I0713 14:07:15.712492 12682 net.cpp:148] Top shape: 10 32 28 28 (250880)
I0713 14:07:15.712497 12682 net.cpp:156] Memory required for data: 225792000
I0713 14:07:15.712503 12682 layer_factory.hpp:77] Creating layer inception_3a/pool
I0713 14:07:15.712514 12682 net.cpp:91] Creating Layer inception_3a/pool
I0713 14:07:15.712520 12682 net.cpp:425] inception_3a/pool <- pool2/3x3_s2_pool2/3x3_s2_0_split_3
I0713 14:07:15.712532 12682 net.cpp:399] inception_3a/pool -> inception_3a/pool
I0713 14:07:15.712596 12682 net.cpp:141] Setting up inception_3a/pool
I0713 14:07:15.712610 12682 net.cpp:148] Top shape: 10 192 28 28 (1505280)
I0713 14:07:15.712613 12682 net.cpp:156] Memory required for data: 231813120
I0713 14:07:15.712620 12682 layer_factory.hpp:77] Creating layer inception_3a/pool_proj
I0713 14:07:15.712637 12682 net.cpp:91] Creating Layer inception_3a/pool_proj
I0713 14:07:15.712643 12682 net.cpp:425] inception_3a/pool_proj <- inception_3a/pool
I0713 14:07:15.712653 12682 net.cpp:399] inception_3a/pool_proj -> inception_3a/pool_proj
I0713 14:07:15.714952 12682 net.cpp:141] Setting up inception_3a/pool_proj
I0713 14:07:15.714972 12682 net.cpp:148] Top shape: 10 32 28 28 (250880)
I0713 14:07:15.714978 12682 net.cpp:156] Memory required for data: 232816640
I0713 14:07:15.714994 12682 layer_factory.hpp:77] Creating layer inception_3a/relu_pool_proj
I0713 14:07:15.715009 12682 net.cpp:91] Creating Layer inception_3a/relu_pool_proj
I0713 14:07:15.715016 12682 net.cpp:425] inception_3a/relu_pool_proj <- inception_3a/pool_proj
I0713 14:07:15.715025 12682 net.cpp:386] inception_3a/relu_pool_proj -> inception_3a/pool_proj (in-place)
I0713 14:07:15.715837 12682 net.cpp:141] Setting up inception_3a/relu_pool_proj
I0713 14:07:15.715855 12682 net.cpp:148] Top shape: 10 32 28 28 (250880)
I0713 14:07:15.715862 12682 net.cpp:156] Memory required for data: 233820160
I0713 14:07:15.715867 12682 layer_factory.hpp:77] Creating layer inception_3a/output
I0713 14:07:15.715891 12682 net.cpp:91] Creating Layer inception_3a/output
I0713 14:07:15.715898 12682 net.cpp:425] inception_3a/output <- inception_3a/1x1
I0713 14:07:15.715906 12682 net.cpp:425] inception_3a/output <- inception_3a/3x3
I0713 14:07:15.715912 12682 net.cpp:425] inception_3a/output <- inception_3a/5x5
I0713 14:07:15.715919 12682 net.cpp:425] inception_3a/output <- inception_3a/pool_proj
I0713 14:07:15.715925 12682 net.cpp:399] inception_3a/output -> inception_3a/output
I0713 14:07:15.715979 12682 net.cpp:141] Setting up inception_3a/output
I0713 14:07:15.715991 12682 net.cpp:148] Top shape: 10 256 28 28 (2007040)
I0713 14:07:15.715994 12682 net.cpp:156] Memory required for data: 241848320
I0713 14:07:15.716001 12682 layer_factory.hpp:77] Creating layer inception_3a/output_inception_3a/output_0_split
I0713 14:07:15.716009 12682 net.cpp:91] Creating Layer inception_3a/output_inception_3a/output_0_split
I0713 14:07:15.716014 12682 net.cpp:425] inception_3a/output_inception_3a/output_0_split <- inception_3a/output
I0713 14:07:15.716027 12682 net.cpp:399] inception_3a/output_inception_3a/output_0_split -> inception_3a/output_inception_3a/output_0_split_0
I0713 14:07:15.716037 12682 net.cpp:399] inception_3a/output_inception_3a/output_0_split -> inception_3a/output_inception_3a/output_0_split_1
I0713 14:07:15.716047 12682 net.cpp:399] inception_3a/output_inception_3a/output_0_split -> inception_3a/output_inception_3a/output_0_split_2
I0713 14:07:15.716055 12682 net.cpp:399] inception_3a/output_inception_3a/output_0_split -> inception_3a/output_inception_3a/output_0_split_3
I0713 14:07:15.716146 12682 net.cpp:141] Setting up inception_3a/output_inception_3a/output_0_split
I0713 14:07:15.716156 12682 net.cpp:148] Top shape: 10 256 28 28 (2007040)
I0713 14:07:15.716162 12682 net.cpp:148] Top shape: 10 256 28 28 (2007040)
I0713 14:07:15.716168 12682 net.cpp:148] Top shape: 10 256 28 28 (2007040)
I0713 14:07:15.716174 12682 net.cpp:148] Top shape: 10 256 28 28 (2007040)
I0713 14:07:15.716178 12682 net.cpp:156] Memory required for data: 273960960
I0713 14:07:15.716183 12682 layer_factory.hpp:77] Creating layer inception_3b/1x1
I0713 14:07:15.716200 12682 net.cpp:91] Creating Layer inception_3b/1x1
I0713 14:07:15.716207 12682 net.cpp:425] inception_3b/1x1 <- inception_3a/output_inception_3a/output_0_split_0
I0713 14:07:15.716220 12682 net.cpp:399] inception_3b/1x1 -> inception_3b/1x1
I0713 14:07:15.718762 12682 net.cpp:141] Setting up inception_3b/1x1
I0713 14:07:15.718785 12682 net.cpp:148] Top shape: 10 128 28 28 (1003520)
I0713 14:07:15.718791 12682 net.cpp:156] Memory required for data: 277975040
I0713 14:07:15.718801 12682 layer_factory.hpp:77] Creating layer inception_3b/relu_1x1
I0713 14:07:15.718811 12682 net.cpp:91] Creating Layer inception_3b/relu_1x1
I0713 14:07:15.718816 12682 net.cpp:425] inception_3b/relu_1x1 <- inception_3b/1x1
I0713 14:07:15.718825 12682 net.cpp:386] inception_3b/relu_1x1 -> inception_3b/1x1 (in-place)
I0713 14:07:15.719096 12682 net.cpp:141] Setting up inception_3b/relu_1x1
I0713 14:07:15.719108 12682 net.cpp:148] Top shape: 10 128 28 28 (1003520)
I0713 14:07:15.719113 12682 net.cpp:156] Memory required for data: 281989120
I0713 14:07:15.719120 12682 layer_factory.hpp:77] Creating layer inception_3b/3x3_reduce
I0713 14:07:15.719137 12682 net.cpp:91] Creating Layer inception_3b/3x3_reduce
I0713 14:07:15.719143 12682 net.cpp:425] inception_3b/3x3_reduce <- inception_3a/output_inception_3a/output_0_split_1
I0713 14:07:15.719158 12682 net.cpp:399] inception_3b/3x3_reduce -> inception_3b/3x3_reduce
I0713 14:07:15.721721 12682 net.cpp:141] Setting up inception_3b/3x3_reduce
I0713 14:07:15.721743 12682 net.cpp:148] Top shape: 10 128 28 28 (1003520)
I0713 14:07:15.721750 12682 net.cpp:156] Memory required for data: 286003200
I0713 14:07:15.721760 12682 layer_factory.hpp:77] Creating layer inception_3b/relu_3x3_reduce
I0713 14:07:15.721771 12682 net.cpp:91] Creating Layer inception_3b/relu_3x3_reduce
I0713 14:07:15.721776 12682 net.cpp:425] inception_3b/relu_3x3_reduce <- inception_3b/3x3_reduce
I0713 14:07:15.721784 12682 net.cpp:386] inception_3b/relu_3x3_reduce -> inception_3b/3x3_reduce (in-place)
I0713 14:07:15.722045 12682 net.cpp:141] Setting up inception_3b/relu_3x3_reduce
I0713 14:07:15.722057 12682 net.cpp:148] Top shape: 10 128 28 28 (1003520)
I0713 14:07:15.722062 12682 net.cpp:156] Memory required for data: 290017280
I0713 14:07:15.722069 12682 layer_factory.hpp:77] Creating layer inception_3b/3x3
I0713 14:07:15.722086 12682 net.cpp:91] Creating Layer inception_3b/3x3
I0713 14:07:15.722093 12682 net.cpp:425] inception_3b/3x3 <- inception_3b/3x3_reduce
I0713 14:07:15.722106 12682 net.cpp:399] inception_3b/3x3 -> inception_3b/3x3
I0713 14:07:15.727356 12682 net.cpp:141] Setting up inception_3b/3x3
I0713 14:07:15.727377 12682 net.cpp:148] Top shape: 10 192 28 28 (1505280)
I0713 14:07:15.727383 12682 net.cpp:156] Memory required for data: 296038400
I0713 14:07:15.727392 12682 layer_factory.hpp:77] Creating layer inception_3b/relu_3x3
I0713 14:07:15.727411 12682 net.cpp:91] Creating Layer inception_3b/relu_3x3
I0713 14:07:15.727417 12682 net.cpp:425] inception_3b/relu_3x3 <- inception_3b/3x3
I0713 14:07:15.727428 12682 net.cpp:386] inception_3b/relu_3x3 -> inception_3b/3x3 (in-place)
I0713 14:07:15.728217 12682 net.cpp:141] Setting up inception_3b/relu_3x3
I0713 14:07:15.728235 12682 net.cpp:148] Top shape: 10 192 28 28 (1505280)
I0713 14:07:15.728240 12682 net.cpp:156] Memory required for data: 302059520
I0713 14:07:15.728246 12682 layer_factory.hpp:77] Creating layer inception_3b/5x5_reduce
I0713 14:07:15.728265 12682 net.cpp:91] Creating Layer inception_3b/5x5_reduce
I0713 14:07:15.728271 12682 net.cpp:425] inception_3b/5x5_reduce <- inception_3a/output_inception_3a/output_0_split_2
I0713 14:07:15.728286 12682 net.cpp:399] inception_3b/5x5_reduce -> inception_3b/5x5_reduce
I0713 14:07:15.730586 12682 net.cpp:141] Setting up inception_3b/5x5_reduce
I0713 14:07:15.730607 12682 net.cpp:148] Top shape: 10 32 28 28 (250880)
I0713 14:07:15.730613 12682 net.cpp:156] Memory required for data: 303063040
I0713 14:07:15.730623 12682 layer_factory.hpp:77] Creating layer inception_3b/relu_5x5_reduce
I0713 14:07:15.730633 12682 net.cpp:91] Creating Layer inception_3b/relu_5x5_reduce
I0713 14:07:15.730640 12682 net.cpp:425] inception_3b/relu_5x5_reduce <- inception_3b/5x5_reduce
I0713 14:07:15.730648 12682 net.cpp:386] inception_3b/relu_5x5_reduce -> inception_3b/5x5_reduce (in-place)
I0713 14:07:15.730923 12682 net.cpp:141] Setting up inception_3b/relu_5x5_reduce
I0713 14:07:15.730937 12682 net.cpp:148] Top shape: 10 32 28 28 (250880)
I0713 14:07:15.730942 12682 net.cpp:156] Memory required for data: 304066560
I0713 14:07:15.730947 12682 layer_factory.hpp:77] Creating layer inception_3b/5x5
I0713 14:07:15.730965 12682 net.cpp:91] Creating Layer inception_3b/5x5
I0713 14:07:15.730973 12682 net.cpp:425] inception_3b/5x5 <- inception_3b/5x5_reduce
I0713 14:07:15.730985 12682 net.cpp:399] inception_3b/5x5 -> inception_3b/5x5
I0713 14:07:15.735050 12682 net.cpp:141] Setting up inception_3b/5x5
I0713 14:07:15.735071 12682 net.cpp:148] Top shape: 10 96 28 28 (752640)
I0713 14:07:15.735077 12682 net.cpp:156] Memory required for data: 307077120
I0713 14:07:15.735088 12682 layer_factory.hpp:77] Creating layer inception_3b/relu_5x5
I0713 14:07:15.735102 12682 net.cpp:91] Creating Layer inception_3b/relu_5x5
I0713 14:07:15.735110 12682 net.cpp:425] inception_3b/relu_5x5 <- inception_3b/5x5
I0713 14:07:15.735121 12682 net.cpp:386] inception_3b/relu_5x5 -> inception_3b/5x5 (in-place)
I0713 14:07:15.735379 12682 net.cpp:141] Setting up inception_3b/relu_5x5
I0713 14:07:15.735393 12682 net.cpp:148] Top shape: 10 96 28 28 (752640)
I0713 14:07:15.735397 12682 net.cpp:156] Memory required for data: 310087680
I0713 14:07:15.735404 12682 layer_factory.hpp:77] Creating layer inception_3b/pool
I0713 14:07:15.735417 12682 net.cpp:91] Creating Layer inception_3b/pool
I0713 14:07:15.735424 12682 net.cpp:425] inception_3b/pool <- inception_3a/output_inception_3a/output_0_split_3
I0713 14:07:15.735432 12682 net.cpp:399] inception_3b/pool -> inception_3b/pool
I0713 14:07:15.735502 12682 net.cpp:141] Setting up inception_3b/pool
I0713 14:07:15.735512 12682 net.cpp:148] Top shape: 10 256 28 28 (2007040)
I0713 14:07:15.735517 12682 net.cpp:156] Memory required for data: 318115840
I0713 14:07:15.735522 12682 layer_factory.hpp:77] Creating layer inception_3b/pool_proj
I0713 14:07:15.735540 12682 net.cpp:91] Creating Layer inception_3b/pool_proj
I0713 14:07:15.735546 12682 net.cpp:425] inception_3b/pool_proj <- inception_3b/pool
I0713 14:07:15.735556 12682 net.cpp:399] inception_3b/pool_proj -> inception_3b/pool_proj
I0713 14:07:15.737972 12682 net.cpp:141] Setting up inception_3b/pool_proj
I0713 14:07:15.737993 12682 net.cpp:148] Top shape: 10 64 28 28 (501760)
I0713 14:07:15.737998 12682 net.cpp:156] Memory required for data: 320122880
I0713 14:07:15.738009 12682 layer_factory.hpp:77] Creating layer inception_3b/relu_pool_proj
I0713 14:07:15.738023 12682 net.cpp:91] Creating Layer inception_3b/relu_pool_proj
I0713 14:07:15.738029 12682 net.cpp:425] inception_3b/relu_pool_proj <- inception_3b/pool_proj
I0713 14:07:15.738037 12682 net.cpp:386] inception_3b/relu_pool_proj -> inception_3b/pool_proj (in-place)
I0713 14:07:15.738869 12682 net.cpp:141] Setting up inception_3b/relu_pool_proj
I0713 14:07:15.738888 12682 net.cpp:148] Top shape: 10 64 28 28 (501760)
I0713 14:07:15.738893 12682 net.cpp:156] Memory required for data: 322129920
I0713 14:07:15.738898 12682 layer_factory.hpp:77] Creating layer inception_3b/output
I0713 14:07:15.738911 12682 net.cpp:91] Creating Layer inception_3b/output
I0713 14:07:15.738917 12682 net.cpp:425] inception_3b/output <- inception_3b/1x1
I0713 14:07:15.738925 12682 net.cpp:425] inception_3b/output <- inception_3b/3x3
I0713 14:07:15.738931 12682 net.cpp:425] inception_3b/output <- inception_3b/5x5
I0713 14:07:15.738937 12682 net.cpp:425] inception_3b/output <- inception_3b/pool_proj
I0713 14:07:15.738945 12682 net.cpp:399] inception_3b/output -> inception_3b/output
I0713 14:07:15.738992 12682 net.cpp:141] Setting up inception_3b/output
I0713 14:07:15.739002 12682 net.cpp:148] Top shape: 10 480 28 28 (3763200)
I0713 14:07:15.739007 12682 net.cpp:156] Memory required for data: 337182720
I0713 14:07:15.739013 12682 layer_factory.hpp:77] Creating layer pool3/3x3_s2
I0713 14:07:15.739023 12682 net.cpp:91] Creating Layer pool3/3x3_s2
I0713 14:07:15.739028 12682 net.cpp:425] pool3/3x3_s2 <- inception_3b/output
I0713 14:07:15.739038 12682 net.cpp:399] pool3/3x3_s2 -> pool3/3x3_s2
I0713 14:07:15.739105 12682 net.cpp:141] Setting up pool3/3x3_s2
I0713 14:07:15.739116 12682 net.cpp:148] Top shape: 10 480 14 14 (940800)
I0713 14:07:15.739120 12682 net.cpp:156] Memory required for data: 340945920
I0713 14:07:15.739126 12682 layer_factory.hpp:77] Creating layer pool3/3x3_s2_pool3/3x3_s2_0_split
I0713 14:07:15.739135 12682 net.cpp:91] Creating Layer pool3/3x3_s2_pool3/3x3_s2_0_split
I0713 14:07:15.739141 12682 net.cpp:425] pool3/3x3_s2_pool3/3x3_s2_0_split <- pool3/3x3_s2
I0713 14:07:15.739151 12682 net.cpp:399] pool3/3x3_s2_pool3/3x3_s2_0_split -> pool3/3x3_s2_pool3/3x3_s2_0_split_0
I0713 14:07:15.739161 12682 net.cpp:399] pool3/3x3_s2_pool3/3x3_s2_0_split -> pool3/3x3_s2_pool3/3x3_s2_0_split_1
I0713 14:07:15.739171 12682 net.cpp:399] pool3/3x3_s2_pool3/3x3_s2_0_split -> pool3/3x3_s2_pool3/3x3_s2_0_split_2
I0713 14:07:15.739178 12682 net.cpp:399] pool3/3x3_s2_pool3/3x3_s2_0_split -> pool3/3x3_s2_pool3/3x3_s2_0_split_3
I0713 14:07:15.739267 12682 net.cpp:141] Setting up pool3/3x3_s2_pool3/3x3_s2_0_split
I0713 14:07:15.739277 12682 net.cpp:148] Top shape: 10 480 14 14 (940800)
I0713 14:07:15.739284 12682 net.cpp:148] Top shape: 10 480 14 14 (940800)
I0713 14:07:15.739289 12682 net.cpp:148] Top shape: 10 480 14 14 (940800)
I0713 14:07:15.739295 12682 net.cpp:148] Top shape: 10 480 14 14 (940800)
I0713 14:07:15.739298 12682 net.cpp:156] Memory required for data: 355998720
I0713 14:07:15.739305 12682 layer_factory.hpp:77] Creating layer inception_4a/1x1
I0713 14:07:15.739323 12682 net.cpp:91] Creating Layer inception_4a/1x1
I0713 14:07:15.739329 12682 net.cpp:425] inception_4a/1x1 <- pool3/3x3_s2_pool3/3x3_s2_0_split_0
I0713 14:07:15.739339 12682 net.cpp:399] inception_4a/1x1 -> inception_4a/1x1
I0713 14:07:15.743046 12682 net.cpp:141] Setting up inception_4a/1x1
I0713 14:07:15.743067 12682 net.cpp:148] Top shape: 10 192 14 14 (376320)
I0713 14:07:15.743073 12682 net.cpp:156] Memory required for data: 357504000
I0713 14:07:15.743084 12682 layer_factory.hpp:77] Creating layer inception_4a/relu_1x1
I0713 14:07:15.743094 12682 net.cpp:91] Creating Layer inception_4a/relu_1x1
I0713 14:07:15.743101 12682 net.cpp:425] inception_4a/relu_1x1 <- inception_4a/1x1
I0713 14:07:15.743113 12682 net.cpp:386] inception_4a/relu_1x1 -> inception_4a/1x1 (in-place)
I0713 14:07:15.743381 12682 net.cpp:141] Setting up inception_4a/relu_1x1
I0713 14:07:15.743393 12682 net.cpp:148] Top shape: 10 192 14 14 (376320)
I0713 14:07:15.743398 12682 net.cpp:156] Memory required for data: 359009280
I0713 14:07:15.743404 12682 layer_factory.hpp:77] Creating layer inception_4a/3x3_reduce
I0713 14:07:15.743422 12682 net.cpp:91] Creating Layer inception_4a/3x3_reduce
I0713 14:07:15.743429 12682 net.cpp:425] inception_4a/3x3_reduce <- pool3/3x3_s2_pool3/3x3_s2_0_split_1
I0713 14:07:15.743439 12682 net.cpp:399] inception_4a/3x3_reduce -> inception_4a/3x3_reduce
I0713 14:07:15.746170 12682 net.cpp:141] Setting up inception_4a/3x3_reduce
I0713 14:07:15.746191 12682 net.cpp:148] Top shape: 10 96 14 14 (188160)
I0713 14:07:15.746196 12682 net.cpp:156] Memory required for data: 359761920
I0713 14:07:15.746217 12682 layer_factory.hpp:77] Creating layer inception_4a/relu_3x3_reduce
I0713 14:07:15.746230 12682 net.cpp:91] Creating Layer inception_4a/relu_3x3_reduce
I0713 14:07:15.746237 12682 net.cpp:425] inception_4a/relu_3x3_reduce <- inception_4a/3x3_reduce
I0713 14:07:15.746245 12682 net.cpp:386] inception_4a/relu_3x3_reduce -> inception_4a/3x3_reduce (in-place)
I0713 14:07:15.746502 12682 net.cpp:141] Setting up inception_4a/relu_3x3_reduce
I0713 14:07:15.746515 12682 net.cpp:148] Top shape: 10 96 14 14 (188160)
I0713 14:07:15.746520 12682 net.cpp:156] Memory required for data: 360514560
I0713 14:07:15.746526 12682 layer_factory.hpp:77] Creating layer inception_4a/3x3
I0713 14:07:15.746546 12682 net.cpp:91] Creating Layer inception_4a/3x3
I0713 14:07:15.746553 12682 net.cpp:425] inception_4a/3x3 <- inception_4a/3x3_reduce
I0713 14:07:15.746563 12682 net.cpp:399] inception_4a/3x3 -> inception_4a/3x3
I0713 14:07:15.751536 12682 net.cpp:141] Setting up inception_4a/3x3
I0713 14:07:15.751557 12682 net.cpp:148] Top shape: 10 208 14 14 (407680)
I0713 14:07:15.751564 12682 net.cpp:156] Memory required for data: 362145280
I0713 14:07:15.751574 12682 layer_factory.hpp:77] Creating layer inception_4a/relu_3x3
I0713 14:07:15.751587 12682 net.cpp:91] Creating Layer inception_4a/relu_3x3
I0713 14:07:15.751595 12682 net.cpp:425] inception_4a/relu_3x3 <- inception_4a/3x3
I0713 14:07:15.751602 12682 net.cpp:386] inception_4a/relu_3x3 -> inception_4a/3x3 (in-place)
I0713 14:07:15.752413 12682 net.cpp:141] Setting up inception_4a/relu_3x3
I0713 14:07:15.752430 12682 net.cpp:148] Top shape: 10 208 14 14 (407680)
I0713 14:07:15.752436 12682 net.cpp:156] Memory required for data: 363776000
I0713 14:07:15.752442 12682 layer_factory.hpp:77] Creating layer inception_4a/5x5_reduce
I0713 14:07:15.752465 12682 net.cpp:91] Creating Layer inception_4a/5x5_reduce
I0713 14:07:15.752472 12682 net.cpp:425] inception_4a/5x5_reduce <- pool3/3x3_s2_pool3/3x3_s2_0_split_2
I0713 14:07:15.752482 12682 net.cpp:399] inception_4a/5x5_reduce -> inception_4a/5x5_reduce
I0713 14:07:15.754873 12682 net.cpp:141] Setting up inception_4a/5x5_reduce
I0713 14:07:15.754891 12682 net.cpp:148] Top shape: 10 16 14 14 (31360)
I0713 14:07:15.754900 12682 net.cpp:156] Memory required for data: 363901440
I0713 14:07:15.754910 12682 layer_factory.hpp:77] Creating layer inception_4a/relu_5x5_reduce
I0713 14:07:15.754921 12682 net.cpp:91] Creating Layer inception_4a/relu_5x5_reduce
I0713 14:07:15.754927 12682 net.cpp:425] inception_4a/relu_5x5_reduce <- inception_4a/5x5_reduce
I0713 14:07:15.754935 12682 net.cpp:386] inception_4a/relu_5x5_reduce -> inception_4a/5x5_reduce (in-place)
I0713 14:07:15.755221 12682 net.cpp:141] Setting up inception_4a/relu_5x5_reduce
I0713 14:07:15.755234 12682 net.cpp:148] Top shape: 10 16 14 14 (31360)
I0713 14:07:15.755239 12682 net.cpp:156] Memory required for data: 364026880
I0713 14:07:15.755245 12682 layer_factory.hpp:77] Creating layer inception_4a/5x5
I0713 14:07:15.755264 12682 net.cpp:91] Creating Layer inception_4a/5x5
I0713 14:07:15.755270 12682 net.cpp:425] inception_4a/5x5 <- inception_4a/5x5_reduce
I0713 14:07:15.755282 12682 net.cpp:399] inception_4a/5x5 -> inception_4a/5x5
I0713 14:07:15.757730 12682 net.cpp:141] Setting up inception_4a/5x5
I0713 14:07:15.757748 12682 net.cpp:148] Top shape: 10 48 14 14 (94080)
I0713 14:07:15.757755 12682 net.cpp:156] Memory required for data: 364403200
I0713 14:07:15.757768 12682 layer_factory.hpp:77] Creating layer inception_4a/relu_5x5
I0713 14:07:15.757779 12682 net.cpp:91] Creating Layer inception_4a/relu_5x5
I0713 14:07:15.757786 12682 net.cpp:425] inception_4a/relu_5x5 <- inception_4a/5x5
I0713 14:07:15.757796 12682 net.cpp:386] inception_4a/relu_5x5 -> inception_4a/5x5 (in-place)
I0713 14:07:15.758061 12682 net.cpp:141] Setting up inception_4a/relu_5x5
I0713 14:07:15.758074 12682 net.cpp:148] Top shape: 10 48 14 14 (94080)
I0713 14:07:15.758079 12682 net.cpp:156] Memory required for data: 364779520
I0713 14:07:15.758083 12682 layer_factory.hpp:77] Creating layer inception_4a/pool
I0713 14:07:15.758097 12682 net.cpp:91] Creating Layer inception_4a/pool
I0713 14:07:15.758105 12682 net.cpp:425] inception_4a/pool <- pool3/3x3_s2_pool3/3x3_s2_0_split_3
I0713 14:07:15.758112 12682 net.cpp:399] inception_4a/pool -> inception_4a/pool
I0713 14:07:15.758183 12682 net.cpp:141] Setting up inception_4a/pool
I0713 14:07:15.758193 12682 net.cpp:148] Top shape: 10 480 14 14 (940800)
I0713 14:07:15.758198 12682 net.cpp:156] Memory required for data: 368542720
I0713 14:07:15.758203 12682 layer_factory.hpp:77] Creating layer inception_4a/pool_proj
I0713 14:07:15.758222 12682 net.cpp:91] Creating Layer inception_4a/pool_proj
I0713 14:07:15.758229 12682 net.cpp:425] inception_4a/pool_proj <- inception_4a/pool
I0713 14:07:15.758241 12682 net.cpp:399] inception_4a/pool_proj -> inception_4a/pool_proj
I0713 14:07:15.760800 12682 net.cpp:141] Setting up inception_4a/pool_proj
I0713 14:07:15.760820 12682 net.cpp:148] Top shape: 10 64 14 14 (125440)
I0713 14:07:15.760826 12682 net.cpp:156] Memory required for data: 369044480
I0713 14:07:15.760835 12682 layer_factory.hpp:77] Creating layer inception_4a/relu_pool_proj
I0713 14:07:15.760845 12682 net.cpp:91] Creating Layer inception_4a/relu_pool_proj
I0713 14:07:15.760853 12682 net.cpp:425] inception_4a/relu_pool_proj <- inception_4a/pool_proj
I0713 14:07:15.760861 12682 net.cpp:386] inception_4a/relu_pool_proj -> inception_4a/pool_proj (in-place)
I0713 14:07:15.761674 12682 net.cpp:141] Setting up inception_4a/relu_pool_proj
I0713 14:07:15.761689 12682 net.cpp:148] Top shape: 10 64 14 14 (125440)
I0713 14:07:15.761694 12682 net.cpp:156] Memory required for data: 369546240
I0713 14:07:15.761700 12682 layer_factory.hpp:77] Creating layer inception_4a/output
I0713 14:07:15.761713 12682 net.cpp:91] Creating Layer inception_4a/output
I0713 14:07:15.761718 12682 net.cpp:425] inception_4a/output <- inception_4a/1x1
I0713 14:07:15.761725 12682 net.cpp:425] inception_4a/output <- inception_4a/3x3
I0713 14:07:15.761731 12682 net.cpp:425] inception_4a/output <- inception_4a/5x5
I0713 14:07:15.761737 12682 net.cpp:425] inception_4a/output <- inception_4a/pool_proj
I0713 14:07:15.761750 12682 net.cpp:399] inception_4a/output -> inception_4a/output
I0713 14:07:15.761806 12682 net.cpp:141] Setting up inception_4a/output
I0713 14:07:15.761822 12682 net.cpp:148] Top shape: 10 512 14 14 (1003520)
I0713 14:07:15.761827 12682 net.cpp:156] Memory required for data: 373560320
I0713 14:07:15.761834 12682 layer_factory.hpp:77] Creating layer inception_4a/output_inception_4a/output_0_split
I0713 14:07:15.761845 12682 net.cpp:91] Creating Layer inception_4a/output_inception_4a/output_0_split
I0713 14:07:15.761852 12682 net.cpp:425] inception_4a/output_inception_4a/output_0_split <- inception_4a/output
I0713 14:07:15.761862 12682 net.cpp:399] inception_4a/output_inception_4a/output_0_split -> inception_4a/output_inception_4a/output_0_split_0
I0713 14:07:15.761873 12682 net.cpp:399] inception_4a/output_inception_4a/output_0_split -> inception_4a/output_inception_4a/output_0_split_1
I0713 14:07:15.761886 12682 net.cpp:399] inception_4a/output_inception_4a/output_0_split -> inception_4a/output_inception_4a/output_0_split_2
I0713 14:07:15.761895 12682 net.cpp:399] inception_4a/output_inception_4a/output_0_split -> inception_4a/output_inception_4a/output_0_split_3
I0713 14:07:15.761991 12682 net.cpp:141] Setting up inception_4a/output_inception_4a/output_0_split
I0713 14:07:15.762001 12682 net.cpp:148] Top shape: 10 512 14 14 (1003520)
I0713 14:07:15.762007 12682 net.cpp:148] Top shape: 10 512 14 14 (1003520)
I0713 14:07:15.762013 12682 net.cpp:148] Top shape: 10 512 14 14 (1003520)
I0713 14:07:15.762019 12682 net.cpp:148] Top shape: 10 512 14 14 (1003520)
I0713 14:07:15.762023 12682 net.cpp:156] Memory required for data: 389616640
I0713 14:07:15.762028 12682 layer_factory.hpp:77] Creating layer inception_4b/1x1
I0713 14:07:15.762044 12682 net.cpp:91] Creating Layer inception_4b/1x1
I0713 14:07:15.762050 12682 net.cpp:425] inception_4b/1x1 <- inception_4a/output_inception_4a/output_0_split_0
I0713 14:07:15.762063 12682 net.cpp:399] inception_4b/1x1 -> inception_4b/1x1
I0713 14:07:15.765065 12682 net.cpp:141] Setting up inception_4b/1x1
I0713 14:07:15.765085 12682 net.cpp:148] Top shape: 10 160 14 14 (313600)
I0713 14:07:15.765090 12682 net.cpp:156] Memory required for data: 390871040
I0713 14:07:15.765100 12682 layer_factory.hpp:77] Creating layer inception_4b/relu_1x1
I0713 14:07:15.765115 12682 net.cpp:91] Creating Layer inception_4b/relu_1x1
I0713 14:07:15.765121 12682 net.cpp:425] inception_4b/relu_1x1 <- inception_4b/1x1
I0713 14:07:15.765130 12682 net.cpp:386] inception_4b/relu_1x1 -> inception_4b/1x1 (in-place)
I0713 14:07:15.765398 12682 net.cpp:141] Setting up inception_4b/relu_1x1
I0713 14:07:15.765410 12682 net.cpp:148] Top shape: 10 160 14 14 (313600)
I0713 14:07:15.765415 12682 net.cpp:156] Memory required for data: 392125440
I0713 14:07:15.765421 12682 layer_factory.hpp:77] Creating layer inception_4b/3x3_reduce
I0713 14:07:15.765442 12682 net.cpp:91] Creating Layer inception_4b/3x3_reduce
I0713 14:07:15.765449 12682 net.cpp:425] inception_4b/3x3_reduce <- inception_4a/output_inception_4a/output_0_split_1
I0713 14:07:15.765460 12682 net.cpp:399] inception_4b/3x3_reduce -> inception_4b/3x3_reduce
I0713 14:07:15.768304 12682 net.cpp:141] Setting up inception_4b/3x3_reduce
I0713 14:07:15.768324 12682 net.cpp:148] Top shape: 10 112 14 14 (219520)
I0713 14:07:15.768331 12682 net.cpp:156] Memory required for data: 393003520
I0713 14:07:15.768340 12682 layer_factory.hpp:77] Creating layer inception_4b/relu_3x3_reduce
I0713 14:07:15.768350 12682 net.cpp:91] Creating Layer inception_4b/relu_3x3_reduce
I0713 14:07:15.768357 12682 net.cpp:425] inception_4b/relu_3x3_reduce <- inception_4b/3x3_reduce
I0713 14:07:15.768368 12682 net.cpp:386] inception_4b/relu_3x3_reduce -> inception_4b/3x3_reduce (in-place)
I0713 14:07:15.768635 12682 net.cpp:141] Setting up inception_4b/relu_3x3_reduce
I0713 14:07:15.768646 12682 net.cpp:148] Top shape: 10 112 14 14 (219520)
I0713 14:07:15.768651 12682 net.cpp:156] Memory required for data: 393881600
I0713 14:07:15.768657 12682 layer_factory.hpp:77] Creating layer inception_4b/3x3
I0713 14:07:15.768678 12682 net.cpp:91] Creating Layer inception_4b/3x3
I0713 14:07:15.768685 12682 net.cpp:425] inception_4b/3x3 <- inception_4b/3x3_reduce
I0713 14:07:15.768694 12682 net.cpp:399] inception_4b/3x3 -> inception_4b/3x3
I0713 14:07:15.774726 12682 net.cpp:141] Setting up inception_4b/3x3
I0713 14:07:15.774746 12682 net.cpp:148] Top shape: 10 224 14 14 (439040)
I0713 14:07:15.774752 12682 net.cpp:156] Memory required for data: 395637760
I0713 14:07:15.774762 12682 layer_factory.hpp:77] Creating layer inception_4b/relu_3x3
I0713 14:07:15.774778 12682 net.cpp:91] Creating Layer inception_4b/relu_3x3
I0713 14:07:15.774785 12682 net.cpp:425] inception_4b/relu_3x3 <- inception_4b/3x3
I0713 14:07:15.774796 12682 net.cpp:386] inception_4b/relu_3x3 -> inception_4b/3x3 (in-place)
I0713 14:07:15.775624 12682 net.cpp:141] Setting up inception_4b/relu_3x3
I0713 14:07:15.775642 12682 net.cpp:148] Top shape: 10 224 14 14 (439040)
I0713 14:07:15.775648 12682 net.cpp:156] Memory required for data: 397393920
I0713 14:07:15.775655 12682 layer_factory.hpp:77] Creating layer inception_4b/5x5_reduce
I0713 14:07:15.775683 12682 net.cpp:91] Creating Layer inception_4b/5x5_reduce
I0713 14:07:15.775691 12682 net.cpp:425] inception_4b/5x5_reduce <- inception_4a/output_inception_4a/output_0_split_2
I0713 14:07:15.775701 12682 net.cpp:399] inception_4b/5x5_reduce -> inception_4b/5x5_reduce
I0713 14:07:15.778131 12682 net.cpp:141] Setting up inception_4b/5x5_reduce
I0713 14:07:15.778151 12682 net.cpp:148] Top shape: 10 24 14 14 (47040)
I0713 14:07:15.778156 12682 net.cpp:156] Memory required for data: 397582080
I0713 14:07:15.778167 12682 layer_factory.hpp:77] Creating layer inception_4b/relu_5x5_reduce
I0713 14:07:15.778177 12682 net.cpp:91] Creating Layer inception_4b/relu_5x5_reduce
I0713 14:07:15.778184 12682 net.cpp:425] inception_4b/relu_5x5_reduce <- inception_4b/5x5_reduce
I0713 14:07:15.778197 12682 net.cpp:386] inception_4b/relu_5x5_reduce -> inception_4b/5x5_reduce (in-place)
I0713 14:07:15.778467 12682 net.cpp:141] Setting up inception_4b/relu_5x5_reduce
I0713 14:07:15.778482 12682 net.cpp:148] Top shape: 10 24 14 14 (47040)
I0713 14:07:15.778487 12682 net.cpp:156] Memory required for data: 397770240
I0713 14:07:15.778493 12682 layer_factory.hpp:77] Creating layer inception_4b/5x5
I0713 14:07:15.778513 12682 net.cpp:91] Creating Layer inception_4b/5x5
I0713 14:07:15.778520 12682 net.cpp:425] inception_4b/5x5 <- inception_4b/5x5_reduce
I0713 14:07:15.778530 12682 net.cpp:399] inception_4b/5x5 -> inception_4b/5x5
I0713 14:07:15.782302 12682 net.cpp:141] Setting up inception_4b/5x5
I0713 14:07:15.782327 12682 net.cpp:148] Top shape: 10 64 14 14 (125440)
I0713 14:07:15.782333 12682 net.cpp:156] Memory required for data: 398272000
I0713 14:07:15.782343 12682 layer_factory.hpp:77] Creating layer inception_4b/relu_5x5
I0713 14:07:15.782353 12682 net.cpp:91] Creating Layer inception_4b/relu_5x5
I0713 14:07:15.782361 12682 net.cpp:425] inception_4b/relu_5x5 <- inception_4b/5x5
I0713 14:07:15.782371 12682 net.cpp:386] inception_4b/relu_5x5 -> inception_4b/5x5 (in-place)
I0713 14:07:15.782642 12682 net.cpp:141] Setting up inception_4b/relu_5x5
I0713 14:07:15.782655 12682 net.cpp:148] Top shape: 10 64 14 14 (125440)
I0713 14:07:15.782660 12682 net.cpp:156] Memory required for data: 398773760
I0713 14:07:15.782665 12682 layer_factory.hpp:77] Creating layer inception_4b/pool
I0713 14:07:15.782680 12682 net.cpp:91] Creating Layer inception_4b/pool
I0713 14:07:15.782696 12682 net.cpp:425] inception_4b/pool <- inception_4a/output_inception_4a/output_0_split_3
I0713 14:07:15.782706 12682 net.cpp:399] inception_4b/pool -> inception_4b/pool
I0713 14:07:15.782783 12682 net.cpp:141] Setting up inception_4b/pool
I0713 14:07:15.782793 12682 net.cpp:148] Top shape: 10 512 14 14 (1003520)
I0713 14:07:15.782799 12682 net.cpp:156] Memory required for data: 402787840
I0713 14:07:15.782804 12682 layer_factory.hpp:77] Creating layer inception_4b/pool_proj
I0713 14:07:15.782821 12682 net.cpp:91] Creating Layer inception_4b/pool_proj
I0713 14:07:15.782827 12682 net.cpp:425] inception_4b/pool_proj <- inception_4b/pool
I0713 14:07:15.782840 12682 net.cpp:399] inception_4b/pool_proj -> inception_4b/pool_proj
I0713 14:07:15.785435 12682 net.cpp:141] Setting up inception_4b/pool_proj
I0713 14:07:15.785456 12682 net.cpp:148] Top shape: 10 64 14 14 (125440)
I0713 14:07:15.785462 12682 net.cpp:156] Memory required for data: 403289600
I0713 14:07:15.785472 12682 layer_factory.hpp:77] Creating layer inception_4b/relu_pool_proj
I0713 14:07:15.785482 12682 net.cpp:91] Creating Layer inception_4b/relu_pool_proj
I0713 14:07:15.785488 12682 net.cpp:425] inception_4b/relu_pool_proj <- inception_4b/pool_proj
I0713 14:07:15.785496 12682 net.cpp:386] inception_4b/relu_pool_proj -> inception_4b/pool_proj (in-place)
I0713 14:07:15.786314 12682 net.cpp:141] Setting up inception_4b/relu_pool_proj
I0713 14:07:15.786332 12682 net.cpp:148] Top shape: 10 64 14 14 (125440)
I0713 14:07:15.786339 12682 net.cpp:156] Memory required for data: 403791360
I0713 14:07:15.786345 12682 layer_factory.hpp:77] Creating layer inception_4b/output
I0713 14:07:15.786355 12682 net.cpp:91] Creating Layer inception_4b/output
I0713 14:07:15.786360 12682 net.cpp:425] inception_4b/output <- inception_4b/1x1
I0713 14:07:15.786367 12682 net.cpp:425] inception_4b/output <- inception_4b/3x3
I0713 14:07:15.786375 12682 net.cpp:425] inception_4b/output <- inception_4b/5x5
I0713 14:07:15.786381 12682 net.cpp:425] inception_4b/output <- inception_4b/pool_proj
I0713 14:07:15.786387 12682 net.cpp:399] inception_4b/output -> inception_4b/output
I0713 14:07:15.786438 12682 net.cpp:141] Setting up inception_4b/output
I0713 14:07:15.786448 12682 net.cpp:148] Top shape: 10 512 14 14 (1003520)
I0713 14:07:15.786453 12682 net.cpp:156] Memory required for data: 407805440
I0713 14:07:15.786458 12682 layer_factory.hpp:77] Creating layer inception_4b/output_inception_4b/output_0_split
I0713 14:07:15.786470 12682 net.cpp:91] Creating Layer inception_4b/output_inception_4b/output_0_split
I0713 14:07:15.786476 12682 net.cpp:425] inception_4b/output_inception_4b/output_0_split <- inception_4b/output
I0713 14:07:15.786484 12682 net.cpp:399] inception_4b/output_inception_4b/output_0_split -> inception_4b/output_inception_4b/output_0_split_0
I0713 14:07:15.786494 12682 net.cpp:399] inception_4b/output_inception_4b/output_0_split -> inception_4b/output_inception_4b/output_0_split_1
I0713 14:07:15.786504 12682 net.cpp:399] inception_4b/output_inception_4b/output_0_split -> inception_4b/output_inception_4b/output_0_split_2
I0713 14:07:15.786514 12682 net.cpp:399] inception_4b/output_inception_4b/output_0_split -> inception_4b/output_inception_4b/output_0_split_3
I0713 14:07:15.786612 12682 net.cpp:141] Setting up inception_4b/output_inception_4b/output_0_split
I0713 14:07:15.786623 12682 net.cpp:148] Top shape: 10 512 14 14 (1003520)
I0713 14:07:15.786628 12682 net.cpp:148] Top shape: 10 512 14 14 (1003520)
I0713 14:07:15.786633 12682 net.cpp:148] Top shape: 10 512 14 14 (1003520)
I0713 14:07:15.786639 12682 net.cpp:148] Top shape: 10 512 14 14 (1003520)
I0713 14:07:15.786643 12682 net.cpp:156] Memory required for data: 423861760
I0713 14:07:15.786648 12682 layer_factory.hpp:77] Creating layer inception_4c/1x1
I0713 14:07:15.786666 12682 net.cpp:91] Creating Layer inception_4c/1x1
I0713 14:07:15.786672 12682 net.cpp:425] inception_4c/1x1 <- inception_4b/output_inception_4b/output_0_split_0
I0713 14:07:15.786684 12682 net.cpp:399] inception_4c/1x1 -> inception_4c/1x1
I0713 14:07:15.789607 12682 net.cpp:141] Setting up inception_4c/1x1
I0713 14:07:15.789626 12682 net.cpp:148] Top shape: 10 128 14 14 (250880)
I0713 14:07:15.789631 12682 net.cpp:156] Memory required for data: 424865280
I0713 14:07:15.789643 12682 layer_factory.hpp:77] Creating layer inception_4c/relu_1x1
I0713 14:07:15.789652 12682 net.cpp:91] Creating Layer inception_4c/relu_1x1
I0713 14:07:15.789659 12682 net.cpp:425] inception_4c/relu_1x1 <- inception_4c/1x1
I0713 14:07:15.789670 12682 net.cpp:386] inception_4c/relu_1x1 -> inception_4c/1x1 (in-place)
I0713 14:07:15.789939 12682 net.cpp:141] Setting up inception_4c/relu_1x1
I0713 14:07:15.789954 12682 net.cpp:148] Top shape: 10 128 14 14 (250880)
I0713 14:07:15.789960 12682 net.cpp:156] Memory required for data: 425868800
I0713 14:07:15.789966 12682 layer_factory.hpp:77] Creating layer inception_4c/3x3_reduce
I0713 14:07:15.789988 12682 net.cpp:91] Creating Layer inception_4c/3x3_reduce
I0713 14:07:15.789994 12682 net.cpp:425] inception_4c/3x3_reduce <- inception_4b/output_inception_4b/output_0_split_1
I0713 14:07:15.790004 12682 net.cpp:399] inception_4c/3x3_reduce -> inception_4c/3x3_reduce
I0713 14:07:15.792944 12682 net.cpp:141] Setting up inception_4c/3x3_reduce
I0713 14:07:15.792963 12682 net.cpp:148] Top shape: 10 128 14 14 (250880)
I0713 14:07:15.792969 12682 net.cpp:156] Memory required for data: 426872320
I0713 14:07:15.792979 12682 layer_factory.hpp:77] Creating layer inception_4c/relu_3x3_reduce
I0713 14:07:15.792989 12682 net.cpp:91] Creating Layer inception_4c/relu_3x3_reduce
I0713 14:07:15.792995 12682 net.cpp:425] inception_4c/relu_3x3_reduce <- inception_4c/3x3_reduce
I0713 14:07:15.793007 12682 net.cpp:386] inception_4c/relu_3x3_reduce -> inception_4c/3x3_reduce (in-place)
I0713 14:07:15.793278 12682 net.cpp:141] Setting up inception_4c/relu_3x3_reduce
I0713 14:07:15.793293 12682 net.cpp:148] Top shape: 10 128 14 14 (250880)
I0713 14:07:15.793298 12682 net.cpp:156] Memory required for data: 427875840
I0713 14:07:15.793304 12682 layer_factory.hpp:77] Creating layer inception_4c/3x3
I0713 14:07:15.793323 12682 net.cpp:91] Creating Layer inception_4c/3x3
I0713 14:07:15.793329 12682 net.cpp:425] inception_4c/3x3 <- inception_4c/3x3_reduce
I0713 14:07:15.793339 12682 net.cpp:399] inception_4c/3x3 -> inception_4c/3x3
I0713 14:07:15.799427 12682 net.cpp:141] Setting up inception_4c/3x3
I0713 14:07:15.799448 12682 net.cpp:148] Top shape: 10 256 14 14 (501760)
I0713 14:07:15.799454 12682 net.cpp:156] Memory required for data: 429882880
I0713 14:07:15.799468 12682 layer_factory.hpp:77] Creating layer inception_4c/relu_3x3
I0713 14:07:15.799481 12682 net.cpp:91] Creating Layer inception_4c/relu_3x3
I0713 14:07:15.799489 12682 net.cpp:425] inception_4c/relu_3x3 <- inception_4c/3x3
I0713 14:07:15.799499 12682 net.cpp:386] inception_4c/relu_3x3 -> inception_4c/3x3 (in-place)
I0713 14:07:15.800328 12682 net.cpp:141] Setting up inception_4c/relu_3x3
I0713 14:07:15.800345 12682 net.cpp:148] Top shape: 10 256 14 14 (501760)
I0713 14:07:15.800350 12682 net.cpp:156] Memory required for data: 431889920
I0713 14:07:15.800356 12682 layer_factory.hpp:77] Creating layer inception_4c/5x5_reduce
I0713 14:07:15.800374 12682 net.cpp:91] Creating Layer inception_4c/5x5_reduce
I0713 14:07:15.800381 12682 net.cpp:425] inception_4c/5x5_reduce <- inception_4b/output_inception_4b/output_0_split_2
I0713 14:07:15.800395 12682 net.cpp:399] inception_4c/5x5_reduce -> inception_4c/5x5_reduce
I0713 14:07:15.802892 12682 net.cpp:141] Setting up inception_4c/5x5_reduce
I0713 14:07:15.802912 12682 net.cpp:148] Top shape: 10 24 14 14 (47040)
I0713 14:07:15.802918 12682 net.cpp:156] Memory required for data: 432078080
I0713 14:07:15.802929 12682 layer_factory.hpp:77] Creating layer inception_4c/relu_5x5_reduce
I0713 14:07:15.802939 12682 net.cpp:91] Creating Layer inception_4c/relu_5x5_reduce
I0713 14:07:15.802945 12682 net.cpp:425] inception_4c/relu_5x5_reduce <- inception_4c/5x5_reduce
I0713 14:07:15.802958 12682 net.cpp:386] inception_4c/relu_5x5_reduce -> inception_4c/5x5_reduce (in-place)
I0713 14:07:15.803231 12682 net.cpp:141] Setting up inception_4c/relu_5x5_reduce
I0713 14:07:15.803246 12682 net.cpp:148] Top shape: 10 24 14 14 (47040)
I0713 14:07:15.803251 12682 net.cpp:156] Memory required for data: 432266240
I0713 14:07:15.803257 12682 layer_factory.hpp:77] Creating layer inception_4c/5x5
I0713 14:07:15.803275 12682 net.cpp:91] Creating Layer inception_4c/5x5
I0713 14:07:15.803282 12682 net.cpp:425] inception_4c/5x5 <- inception_4c/5x5_reduce
I0713 14:07:15.803292 12682 net.cpp:399] inception_4c/5x5 -> inception_4c/5x5
I0713 14:07:15.806584 12682 net.cpp:141] Setting up inception_4c/5x5
I0713 14:07:15.806605 12682 net.cpp:148] Top shape: 10 64 14 14 (125440)
I0713 14:07:15.806612 12682 net.cpp:156] Memory required for data: 432768000
I0713 14:07:15.806622 12682 layer_factory.hpp:77] Creating layer inception_4c/relu_5x5
I0713 14:07:15.806637 12682 net.cpp:91] Creating Layer inception_4c/relu_5x5
I0713 14:07:15.806643 12682 net.cpp:425] inception_4c/relu_5x5 <- inception_4c/5x5
I0713 14:07:15.806651 12682 net.cpp:386] inception_4c/relu_5x5 -> inception_4c/5x5 (in-place)
I0713 14:07:15.806943 12682 net.cpp:141] Setting up inception_4c/relu_5x5
I0713 14:07:15.806957 12682 net.cpp:148] Top shape: 10 64 14 14 (125440)
I0713 14:07:15.806962 12682 net.cpp:156] Memory required for data: 433269760
I0713 14:07:15.806968 12682 layer_factory.hpp:77] Creating layer inception_4c/pool
I0713 14:07:15.806979 12682 net.cpp:91] Creating Layer inception_4c/pool
I0713 14:07:15.806985 12682 net.cpp:425] inception_4c/pool <- inception_4b/output_inception_4b/output_0_split_3
I0713 14:07:15.806998 12682 net.cpp:399] inception_4c/pool -> inception_4c/pool
I0713 14:07:15.807073 12682 net.cpp:141] Setting up inception_4c/pool
I0713 14:07:15.807085 12682 net.cpp:148] Top shape: 10 512 14 14 (1003520)
I0713 14:07:15.807090 12682 net.cpp:156] Memory required for data: 437283840
I0713 14:07:15.807095 12682 layer_factory.hpp:77] Creating layer inception_4c/pool_proj
I0713 14:07:15.807117 12682 net.cpp:91] Creating Layer inception_4c/pool_proj
I0713 14:07:15.807124 12682 net.cpp:425] inception_4c/pool_proj <- inception_4c/pool
I0713 14:07:15.807133 12682 net.cpp:399] inception_4c/pool_proj -> inception_4c/pool_proj
I0713 14:07:15.811621 12682 net.cpp:141] Setting up inception_4c/pool_proj
I0713 14:07:15.811658 12682 net.cpp:148] Top shape: 10 64 14 14 (125440)
I0713 14:07:15.811664 12682 net.cpp:156] Memory required for data: 437785600
I0713 14:07:15.811698 12682 layer_factory.hpp:77] Creating layer inception_4c/relu_pool_proj
I0713 14:07:15.811712 12682 net.cpp:91] Creating Layer inception_4c/relu_pool_proj
I0713 14:07:15.811719 12682 net.cpp:425] inception_4c/relu_pool_proj <- inception_4c/pool_proj
I0713 14:07:15.811728 12682 net.cpp:386] inception_4c/relu_pool_proj -> inception_4c/pool_proj (in-place)
I0713 14:07:15.812614 12682 net.cpp:141] Setting up inception_4c/relu_pool_proj
I0713 14:07:15.812634 12682 net.cpp:148] Top shape: 10 64 14 14 (125440)
I0713 14:07:15.812644 12682 net.cpp:156] Memory required for data: 438287360
I0713 14:07:15.812649 12682 layer_factory.hpp:77] Creating layer inception_4c/output
I0713 14:07:15.812660 12682 net.cpp:91] Creating Layer inception_4c/output
I0713 14:07:15.812667 12682 net.cpp:425] inception_4c/output <- inception_4c/1x1
I0713 14:07:15.812675 12682 net.cpp:425] inception_4c/output <- inception_4c/3x3
I0713 14:07:15.812681 12682 net.cpp:425] inception_4c/output <- inception_4c/5x5
I0713 14:07:15.812687 12682 net.cpp:425] inception_4c/output <- inception_4c/pool_proj
I0713 14:07:15.812695 12682 net.cpp:399] inception_4c/output -> inception_4c/output
I0713 14:07:15.812754 12682 net.cpp:141] Setting up inception_4c/output
I0713 14:07:15.812765 12682 net.cpp:148] Top shape: 10 512 14 14 (1003520)
I0713 14:07:15.812769 12682 net.cpp:156] Memory required for data: 442301440
I0713 14:07:15.812775 12682 layer_factory.hpp:77] Creating layer inception_4c/output_inception_4c/output_0_split
I0713 14:07:15.812785 12682 net.cpp:91] Creating Layer inception_4c/output_inception_4c/output_0_split
I0713 14:07:15.812791 12682 net.cpp:425] inception_4c/output_inception_4c/output_0_split <- inception_4c/output
I0713 14:07:15.812803 12682 net.cpp:399] inception_4c/output_inception_4c/output_0_split -> inception_4c/output_inception_4c/output_0_split_0
I0713 14:07:15.812813 12682 net.cpp:399] inception_4c/output_inception_4c/output_0_split -> inception_4c/output_inception_4c/output_0_split_1
I0713 14:07:15.812821 12682 net.cpp:399] inception_4c/output_inception_4c/output_0_split -> inception_4c/output_inception_4c/output_0_split_2
I0713 14:07:15.812830 12682 net.cpp:399] inception_4c/output_inception_4c/output_0_split -> inception_4c/output_inception_4c/output_0_split_3
I0713 14:07:15.812942 12682 net.cpp:141] Setting up inception_4c/output_inception_4c/output_0_split
I0713 14:07:15.812952 12682 net.cpp:148] Top shape: 10 512 14 14 (1003520)
I0713 14:07:15.812958 12682 net.cpp:148] Top shape: 10 512 14 14 (1003520)
I0713 14:07:15.812963 12682 net.cpp:148] Top shape: 10 512 14 14 (1003520)
I0713 14:07:15.812969 12682 net.cpp:148] Top shape: 10 512 14 14 (1003520)
I0713 14:07:15.812973 12682 net.cpp:156] Memory required for data: 458357760
I0713 14:07:15.812985 12682 layer_factory.hpp:77] Creating layer inception_4d/1x1
I0713 14:07:15.813005 12682 net.cpp:91] Creating Layer inception_4d/1x1
I0713 14:07:15.813011 12682 net.cpp:425] inception_4d/1x1 <- inception_4c/output_inception_4c/output_0_split_0
I0713 14:07:15.813021 12682 net.cpp:399] inception_4d/1x1 -> inception_4d/1x1
I0713 14:07:15.816117 12682 net.cpp:141] Setting up inception_4d/1x1
I0713 14:07:15.816138 12682 net.cpp:148] Top shape: 10 112 14 14 (219520)
I0713 14:07:15.816144 12682 net.cpp:156] Memory required for data: 459235840
I0713 14:07:15.816154 12682 layer_factory.hpp:77] Creating layer inception_4d/relu_1x1
I0713 14:07:15.816171 12682 net.cpp:91] Creating Layer inception_4d/relu_1x1
I0713 14:07:15.816179 12682 net.cpp:425] inception_4d/relu_1x1 <- inception_4d/1x1
I0713 14:07:15.816186 12682 net.cpp:386] inception_4d/relu_1x1 -> inception_4d/1x1 (in-place)
I0713 14:07:15.816464 12682 net.cpp:141] Setting up inception_4d/relu_1x1
I0713 14:07:15.816476 12682 net.cpp:148] Top shape: 10 112 14 14 (219520)
I0713 14:07:15.816481 12682 net.cpp:156] Memory required for data: 460113920
I0713 14:07:15.816488 12682 layer_factory.hpp:77] Creating layer inception_4d/3x3_reduce
I0713 14:07:15.816506 12682 net.cpp:91] Creating Layer inception_4d/3x3_reduce
I0713 14:07:15.816512 12682 net.cpp:425] inception_4d/3x3_reduce <- inception_4c/output_inception_4c/output_0_split_1
I0713 14:07:15.816525 12682 net.cpp:399] inception_4d/3x3_reduce -> inception_4d/3x3_reduce
I0713 14:07:15.819618 12682 net.cpp:141] Setting up inception_4d/3x3_reduce
I0713 14:07:15.819638 12682 net.cpp:148] Top shape: 10 144 14 14 (282240)
I0713 14:07:15.819644 12682 net.cpp:156] Memory required for data: 461242880
I0713 14:07:15.819654 12682 layer_factory.hpp:77] Creating layer inception_4d/relu_3x3_reduce
I0713 14:07:15.819669 12682 net.cpp:91] Creating Layer inception_4d/relu_3x3_reduce
I0713 14:07:15.819675 12682 net.cpp:425] inception_4d/relu_3x3_reduce <- inception_4d/3x3_reduce
I0713 14:07:15.819684 12682 net.cpp:386] inception_4d/relu_3x3_reduce -> inception_4d/3x3_reduce (in-place)
I0713 14:07:15.819960 12682 net.cpp:141] Setting up inception_4d/relu_3x3_reduce
I0713 14:07:15.819972 12682 net.cpp:148] Top shape: 10 144 14 14 (282240)
I0713 14:07:15.819977 12682 net.cpp:156] Memory required for data: 462371840
I0713 14:07:15.819983 12682 layer_factory.hpp:77] Creating layer inception_4d/3x3
I0713 14:07:15.820003 12682 net.cpp:91] Creating Layer inception_4d/3x3
I0713 14:07:15.820009 12682 net.cpp:425] inception_4d/3x3 <- inception_4d/3x3_reduce
I0713 14:07:15.820021 12682 net.cpp:399] inception_4d/3x3 -> inception_4d/3x3
I0713 14:07:15.827005 12682 net.cpp:141] Setting up inception_4d/3x3
I0713 14:07:15.827028 12682 net.cpp:148] Top shape: 10 288 14 14 (564480)
I0713 14:07:15.827034 12682 net.cpp:156] Memory required for data: 464629760
I0713 14:07:15.827044 12682 layer_factory.hpp:77] Creating layer inception_4d/relu_3x3
I0713 14:07:15.827057 12682 net.cpp:91] Creating Layer inception_4d/relu_3x3
I0713 14:07:15.827064 12682 net.cpp:425] inception_4d/relu_3x3 <- inception_4d/3x3
I0713 14:07:15.827074 12682 net.cpp:386] inception_4d/relu_3x3 -> inception_4d/3x3 (in-place)
I0713 14:07:15.827911 12682 net.cpp:141] Setting up inception_4d/relu_3x3
I0713 14:07:15.827931 12682 net.cpp:148] Top shape: 10 288 14 14 (564480)
I0713 14:07:15.827937 12682 net.cpp:156] Memory required for data: 466887680
I0713 14:07:15.827946 12682 layer_factory.hpp:77] Creating layer inception_4d/5x5_reduce
I0713 14:07:15.827962 12682 net.cpp:91] Creating Layer inception_4d/5x5_reduce
I0713 14:07:15.827968 12682 net.cpp:425] inception_4d/5x5_reduce <- inception_4c/output_inception_4c/output_0_split_2
I0713 14:07:15.827983 12682 net.cpp:399] inception_4d/5x5_reduce -> inception_4d/5x5_reduce
I0713 14:07:15.830559 12682 net.cpp:141] Setting up inception_4d/5x5_reduce
I0713 14:07:15.830577 12682 net.cpp:148] Top shape: 10 32 14 14 (62720)
I0713 14:07:15.830584 12682 net.cpp:156] Memory required for data: 467138560
I0713 14:07:15.830593 12682 layer_factory.hpp:77] Creating layer inception_4d/relu_5x5_reduce
I0713 14:07:15.830607 12682 net.cpp:91] Creating Layer inception_4d/relu_5x5_reduce
I0713 14:07:15.830615 12682 net.cpp:425] inception_4d/relu_5x5_reduce <- inception_4d/5x5_reduce
I0713 14:07:15.830622 12682 net.cpp:386] inception_4d/relu_5x5_reduce -> inception_4d/5x5_reduce (in-place)
I0713 14:07:15.830914 12682 net.cpp:141] Setting up inception_4d/relu_5x5_reduce
I0713 14:07:15.830926 12682 net.cpp:148] Top shape: 10 32 14 14 (62720)
I0713 14:07:15.830931 12682 net.cpp:156] Memory required for data: 467389440
I0713 14:07:15.830937 12682 layer_factory.hpp:77] Creating layer inception_4d/5x5
I0713 14:07:15.830956 12682 net.cpp:91] Creating Layer inception_4d/5x5
I0713 14:07:15.830963 12682 net.cpp:425] inception_4d/5x5 <- inception_4d/5x5_reduce
I0713 14:07:15.830976 12682 net.cpp:399] inception_4d/5x5 -> inception_4d/5x5
I0713 14:07:15.833852 12682 net.cpp:141] Setting up inception_4d/5x5
I0713 14:07:15.833871 12682 net.cpp:148] Top shape: 10 64 14 14 (125440)
I0713 14:07:15.833876 12682 net.cpp:156] Memory required for data: 467891200
I0713 14:07:15.833886 12682 layer_factory.hpp:77] Creating layer inception_4d/relu_5x5
I0713 14:07:15.833896 12682 net.cpp:91] Creating Layer inception_4d/relu_5x5
I0713 14:07:15.833904 12682 net.cpp:425] inception_4d/relu_5x5 <- inception_4d/5x5
I0713 14:07:15.833915 12682 net.cpp:386] inception_4d/relu_5x5 -> inception_4d/5x5 (in-place)
I0713 14:07:15.834197 12682 net.cpp:141] Setting up inception_4d/relu_5x5
I0713 14:07:15.834213 12682 net.cpp:148] Top shape: 10 64 14 14 (125440)
I0713 14:07:15.834218 12682 net.cpp:156] Memory required for data: 468392960
I0713 14:07:15.834223 12682 layer_factory.hpp:77] Creating layer inception_4d/pool
I0713 14:07:15.834234 12682 net.cpp:91] Creating Layer inception_4d/pool
I0713 14:07:15.834240 12682 net.cpp:425] inception_4d/pool <- inception_4c/output_inception_4c/output_0_split_3
I0713 14:07:15.834249 12682 net.cpp:399] inception_4d/pool -> inception_4d/pool
I0713 14:07:15.834336 12682 net.cpp:141] Setting up inception_4d/pool
I0713 14:07:15.834347 12682 net.cpp:148] Top shape: 10 512 14 14 (1003520)
I0713 14:07:15.834352 12682 net.cpp:156] Memory required for data: 472407040
I0713 14:07:15.834358 12682 layer_factory.hpp:77] Creating layer inception_4d/pool_proj
I0713 14:07:15.834377 12682 net.cpp:91] Creating Layer inception_4d/pool_proj
I0713 14:07:15.834383 12682 net.cpp:425] inception_4d/pool_proj <- inception_4d/pool
I0713 14:07:15.834394 12682 net.cpp:399] inception_4d/pool_proj -> inception_4d/pool_proj
I0713 14:07:15.837139 12682 net.cpp:141] Setting up inception_4d/pool_proj
I0713 14:07:15.837158 12682 net.cpp:148] Top shape: 10 64 14 14 (125440)
I0713 14:07:15.837164 12682 net.cpp:156] Memory required for data: 472908800
I0713 14:07:15.837174 12682 layer_factory.hpp:77] Creating layer inception_4d/relu_pool_proj
I0713 14:07:15.837188 12682 net.cpp:91] Creating Layer inception_4d/relu_pool_proj
I0713 14:07:15.837195 12682 net.cpp:425] inception_4d/relu_pool_proj <- inception_4d/pool_proj
I0713 14:07:15.837203 12682 net.cpp:386] inception_4d/relu_pool_proj -> inception_4d/pool_proj (in-place)
I0713 14:07:15.838045 12682 net.cpp:141] Setting up inception_4d/relu_pool_proj
I0713 14:07:15.838062 12682 net.cpp:148] Top shape: 10 64 14 14 (125440)
I0713 14:07:15.838066 12682 net.cpp:156] Memory required for data: 473410560
I0713 14:07:15.838073 12682 layer_factory.hpp:77] Creating layer inception_4d/output
I0713 14:07:15.838088 12682 net.cpp:91] Creating Layer inception_4d/output
I0713 14:07:15.838094 12682 net.cpp:425] inception_4d/output <- inception_4d/1x1
I0713 14:07:15.838101 12682 net.cpp:425] inception_4d/output <- inception_4d/3x3
I0713 14:07:15.838107 12682 net.cpp:425] inception_4d/output <- inception_4d/5x5
I0713 14:07:15.838114 12682 net.cpp:425] inception_4d/output <- inception_4d/pool_proj
I0713 14:07:15.838124 12682 net.cpp:399] inception_4d/output -> inception_4d/output
I0713 14:07:15.838176 12682 net.cpp:141] Setting up inception_4d/output
I0713 14:07:15.838186 12682 net.cpp:148] Top shape: 10 528 14 14 (1034880)
I0713 14:07:15.838191 12682 net.cpp:156] Memory required for data: 477550080
I0713 14:07:15.838196 12682 layer_factory.hpp:77] Creating layer inception_4d/output_inception_4d/output_0_split
I0713 14:07:15.838210 12682 net.cpp:91] Creating Layer inception_4d/output_inception_4d/output_0_split
I0713 14:07:15.838217 12682 net.cpp:425] inception_4d/output_inception_4d/output_0_split <- inception_4d/output
I0713 14:07:15.838224 12682 net.cpp:399] inception_4d/output_inception_4d/output_0_split -> inception_4d/output_inception_4d/output_0_split_0
I0713 14:07:15.838234 12682 net.cpp:399] inception_4d/output_inception_4d/output_0_split -> inception_4d/output_inception_4d/output_0_split_1
I0713 14:07:15.838243 12682 net.cpp:399] inception_4d/output_inception_4d/output_0_split -> inception_4d/output_inception_4d/output_0_split_2
I0713 14:07:15.838256 12682 net.cpp:399] inception_4d/output_inception_4d/output_0_split -> inception_4d/output_inception_4d/output_0_split_3
I0713 14:07:15.838366 12682 net.cpp:141] Setting up inception_4d/output_inception_4d/output_0_split
I0713 14:07:15.838376 12682 net.cpp:148] Top shape: 10 528 14 14 (1034880)
I0713 14:07:15.838382 12682 net.cpp:148] Top shape: 10 528 14 14 (1034880)
I0713 14:07:15.838387 12682 net.cpp:148] Top shape: 10 528 14 14 (1034880)
I0713 14:07:15.838392 12682 net.cpp:148] Top shape: 10 528 14 14 (1034880)
I0713 14:07:15.838397 12682 net.cpp:156] Memory required for data: 494108160
I0713 14:07:15.838402 12682 layer_factory.hpp:77] Creating layer inception_4e/1x1
I0713 14:07:15.838419 12682 net.cpp:91] Creating Layer inception_4e/1x1
I0713 14:07:15.838433 12682 net.cpp:425] inception_4e/1x1 <- inception_4d/output_inception_4d/output_0_split_0
I0713 14:07:15.838446 12682 net.cpp:399] inception_4e/1x1 -> inception_4e/1x1
I0713 14:07:15.843979 12682 net.cpp:141] Setting up inception_4e/1x1
I0713 14:07:15.843999 12682 net.cpp:148] Top shape: 10 256 14 14 (501760)
I0713 14:07:15.844005 12682 net.cpp:156] Memory required for data: 496115200
I0713 14:07:15.844017 12682 layer_factory.hpp:77] Creating layer inception_4e/relu_1x1
I0713 14:07:15.844028 12682 net.cpp:91] Creating Layer inception_4e/relu_1x1
I0713 14:07:15.844034 12682 net.cpp:425] inception_4e/relu_1x1 <- inception_4e/1x1
I0713 14:07:15.844045 12682 net.cpp:386] inception_4e/relu_1x1 -> inception_4e/1x1 (in-place)
I0713 14:07:15.844329 12682 net.cpp:141] Setting up inception_4e/relu_1x1
I0713 14:07:15.844341 12682 net.cpp:148] Top shape: 10 256 14 14 (501760)
I0713 14:07:15.844347 12682 net.cpp:156] Memory required for data: 498122240
I0713 14:07:15.844354 12682 layer_factory.hpp:77] Creating layer inception_4e/3x3_reduce
I0713 14:07:15.844377 12682 net.cpp:91] Creating Layer inception_4e/3x3_reduce
I0713 14:07:15.844383 12682 net.cpp:425] inception_4e/3x3_reduce <- inception_4d/output_inception_4d/output_0_split_1
I0713 14:07:15.844393 12682 net.cpp:399] inception_4e/3x3_reduce -> inception_4e/3x3_reduce
I0713 14:07:15.847584 12682 net.cpp:141] Setting up inception_4e/3x3_reduce
I0713 14:07:15.847604 12682 net.cpp:148] Top shape: 10 160 14 14 (313600)
I0713 14:07:15.847610 12682 net.cpp:156] Memory required for data: 499376640
I0713 14:07:15.847621 12682 layer_factory.hpp:77] Creating layer inception_4e/relu_3x3_reduce
I0713 14:07:15.847631 12682 net.cpp:91] Creating Layer inception_4e/relu_3x3_reduce
I0713 14:07:15.847637 12682 net.cpp:425] inception_4e/relu_3x3_reduce <- inception_4e/3x3_reduce
I0713 14:07:15.847648 12682 net.cpp:386] inception_4e/relu_3x3_reduce -> inception_4e/3x3_reduce (in-place)
I0713 14:07:15.847926 12682 net.cpp:141] Setting up inception_4e/relu_3x3_reduce
I0713 14:07:15.847939 12682 net.cpp:148] Top shape: 10 160 14 14 (313600)
I0713 14:07:15.847944 12682 net.cpp:156] Memory required for data: 500631040
I0713 14:07:15.847950 12682 layer_factory.hpp:77] Creating layer inception_4e/3x3
I0713 14:07:15.847975 12682 net.cpp:91] Creating Layer inception_4e/3x3
I0713 14:07:15.847990 12682 net.cpp:425] inception_4e/3x3 <- inception_4e/3x3_reduce
I0713 14:07:15.848001 12682 net.cpp:399] inception_4e/3x3 -> inception_4e/3x3
I0713 14:07:15.857959 12682 net.cpp:141] Setting up inception_4e/3x3
I0713 14:07:15.858022 12682 net.cpp:148] Top shape: 10 320 14 14 (627200)
I0713 14:07:15.858034 12682 net.cpp:156] Memory required for data: 503139840
I0713 14:07:15.858060 12682 layer_factory.hpp:77] Creating layer inception_4e/relu_3x3
I0713 14:07:15.858088 12682 net.cpp:91] Creating Layer inception_4e/relu_3x3
I0713 14:07:15.858103 12682 net.cpp:425] inception_4e/relu_3x3 <- inception_4e/3x3
I0713 14:07:15.858127 12682 net.cpp:386] inception_4e/relu_3x3 -> inception_4e/3x3 (in-place)
I0713 14:07:15.859467 12682 net.cpp:141] Setting up inception_4e/relu_3x3
I0713 14:07:15.859491 12682 net.cpp:148] Top shape: 10 320 14 14 (627200)
I0713 14:07:15.859498 12682 net.cpp:156] Memory required for data: 505648640
I0713 14:07:15.859505 12682 layer_factory.hpp:77] Creating layer inception_4e/5x5_reduce
I0713 14:07:15.859542 12682 net.cpp:91] Creating Layer inception_4e/5x5_reduce
I0713 14:07:15.859555 12682 net.cpp:425] inception_4e/5x5_reduce <- inception_4d/output_inception_4d/output_0_split_2
I0713 14:07:15.859570 12682 net.cpp:399] inception_4e/5x5_reduce -> inception_4e/5x5_reduce
I0713 14:07:15.863021 12682 net.cpp:141] Setting up inception_4e/5x5_reduce
I0713 14:07:15.863050 12682 net.cpp:148] Top shape: 10 32 14 14 (62720)
I0713 14:07:15.863057 12682 net.cpp:156] Memory required for data: 505899520
I0713 14:07:15.863072 12682 layer_factory.hpp:77] Creating layer inception_4e/relu_5x5_reduce
I0713 14:07:15.863090 12682 net.cpp:91] Creating Layer inception_4e/relu_5x5_reduce
I0713 14:07:15.863098 12682 net.cpp:425] inception_4e/relu_5x5_reduce <- inception_4e/5x5_reduce
I0713 14:07:15.863109 12682 net.cpp:386] inception_4e/relu_5x5_reduce -> inception_4e/5x5_reduce (in-place)
I0713 14:07:15.863595 12682 net.cpp:141] Setting up inception_4e/relu_5x5_reduce
I0713 14:07:15.863617 12682 net.cpp:148] Top shape: 10 32 14 14 (62720)
I0713 14:07:15.863623 12682 net.cpp:156] Memory required for data: 506150400
I0713 14:07:15.863631 12682 layer_factory.hpp:77] Creating layer inception_4e/5x5
I0713 14:07:15.863656 12682 net.cpp:91] Creating Layer inception_4e/5x5
I0713 14:07:15.863665 12682 net.cpp:425] inception_4e/5x5 <- inception_4e/5x5_reduce
I0713 14:07:15.863677 12682 net.cpp:399] inception_4e/5x5 -> inception_4e/5x5
I0713 14:07:15.868331 12682 net.cpp:141] Setting up inception_4e/5x5
I0713 14:07:15.868352 12682 net.cpp:148] Top shape: 10 128 14 14 (250880)
I0713 14:07:15.868358 12682 net.cpp:156] Memory required for data: 507153920
I0713 14:07:15.868369 12682 layer_factory.hpp:77] Creating layer inception_4e/relu_5x5
I0713 14:07:15.868382 12682 net.cpp:91] Creating Layer inception_4e/relu_5x5
I0713 14:07:15.868389 12682 net.cpp:425] inception_4e/relu_5x5 <- inception_4e/5x5
I0713 14:07:15.868398 12682 net.cpp:386] inception_4e/relu_5x5 -> inception_4e/5x5 (in-place)
I0713 14:07:15.868682 12682 net.cpp:141] Setting up inception_4e/relu_5x5
I0713 14:07:15.868695 12682 net.cpp:148] Top shape: 10 128 14 14 (250880)
I0713 14:07:15.868700 12682 net.cpp:156] Memory required for data: 508157440
I0713 14:07:15.868705 12682 layer_factory.hpp:77] Creating layer inception_4e/pool
I0713 14:07:15.868721 12682 net.cpp:91] Creating Layer inception_4e/pool
I0713 14:07:15.868728 12682 net.cpp:425] inception_4e/pool <- inception_4d/output_inception_4d/output_0_split_3
I0713 14:07:15.868748 12682 net.cpp:399] inception_4e/pool -> inception_4e/pool
I0713 14:07:15.868829 12682 net.cpp:141] Setting up inception_4e/pool
I0713 14:07:15.868839 12682 net.cpp:148] Top shape: 10 528 14 14 (1034880)
I0713 14:07:15.868844 12682 net.cpp:156] Memory required for data: 512296960
I0713 14:07:15.868850 12682 layer_factory.hpp:77] Creating layer inception_4e/pool_proj
I0713 14:07:15.868866 12682 net.cpp:91] Creating Layer inception_4e/pool_proj
I0713 14:07:15.868873 12682 net.cpp:425] inception_4e/pool_proj <- inception_4e/pool
I0713 14:07:15.868886 12682 net.cpp:399] inception_4e/pool_proj -> inception_4e/pool_proj
I0713 14:07:15.871886 12682 net.cpp:141] Setting up inception_4e/pool_proj
I0713 14:07:15.871906 12682 net.cpp:148] Top shape: 10 128 14 14 (250880)
I0713 14:07:15.871911 12682 net.cpp:156] Memory required for data: 513300480
I0713 14:07:15.871922 12682 layer_factory.hpp:77] Creating layer inception_4e/relu_pool_proj
I0713 14:07:15.871932 12682 net.cpp:91] Creating Layer inception_4e/relu_pool_proj
I0713 14:07:15.871938 12682 net.cpp:425] inception_4e/relu_pool_proj <- inception_4e/pool_proj
I0713 14:07:15.871950 12682 net.cpp:386] inception_4e/relu_pool_proj -> inception_4e/pool_proj (in-place)
I0713 14:07:15.872774 12682 net.cpp:141] Setting up inception_4e/relu_pool_proj
I0713 14:07:15.872792 12682 net.cpp:148] Top shape: 10 128 14 14 (250880)
I0713 14:07:15.872797 12682 net.cpp:156] Memory required for data: 514304000
I0713 14:07:15.872804 12682 layer_factory.hpp:77] Creating layer inception_4e/output
I0713 14:07:15.872814 12682 net.cpp:91] Creating Layer inception_4e/output
I0713 14:07:15.872822 12682 net.cpp:425] inception_4e/output <- inception_4e/1x1
I0713 14:07:15.872829 12682 net.cpp:425] inception_4e/output <- inception_4e/3x3
I0713 14:07:15.872836 12682 net.cpp:425] inception_4e/output <- inception_4e/5x5
I0713 14:07:15.872843 12682 net.cpp:425] inception_4e/output <- inception_4e/pool_proj
I0713 14:07:15.872855 12682 net.cpp:399] inception_4e/output -> inception_4e/output
I0713 14:07:15.872911 12682 net.cpp:141] Setting up inception_4e/output
I0713 14:07:15.872922 12682 net.cpp:148] Top shape: 10 832 14 14 (1630720)
I0713 14:07:15.872927 12682 net.cpp:156] Memory required for data: 520826880
I0713 14:07:15.872932 12682 layer_factory.hpp:77] Creating layer pool4/3x3_s2
I0713 14:07:15.872941 12682 net.cpp:91] Creating Layer pool4/3x3_s2
I0713 14:07:15.872947 12682 net.cpp:425] pool4/3x3_s2 <- inception_4e/output
I0713 14:07:15.872959 12682 net.cpp:399] pool4/3x3_s2 -> pool4/3x3_s2
I0713 14:07:15.873033 12682 net.cpp:141] Setting up pool4/3x3_s2
I0713 14:07:15.873042 12682 net.cpp:148] Top shape: 10 832 7 7 (407680)
I0713 14:07:15.873047 12682 net.cpp:156] Memory required for data: 522457600
I0713 14:07:15.873052 12682 layer_factory.hpp:77] Creating layer pool4/3x3_s2_pool4/3x3_s2_0_split
I0713 14:07:15.873067 12682 net.cpp:91] Creating Layer pool4/3x3_s2_pool4/3x3_s2_0_split
I0713 14:07:15.873073 12682 net.cpp:425] pool4/3x3_s2_pool4/3x3_s2_0_split <- pool4/3x3_s2
I0713 14:07:15.873081 12682 net.cpp:399] pool4/3x3_s2_pool4/3x3_s2_0_split -> pool4/3x3_s2_pool4/3x3_s2_0_split_0
I0713 14:07:15.873091 12682 net.cpp:399] pool4/3x3_s2_pool4/3x3_s2_0_split -> pool4/3x3_s2_pool4/3x3_s2_0_split_1
I0713 14:07:15.873103 12682 net.cpp:399] pool4/3x3_s2_pool4/3x3_s2_0_split -> pool4/3x3_s2_pool4/3x3_s2_0_split_2
I0713 14:07:15.873112 12682 net.cpp:399] pool4/3x3_s2_pool4/3x3_s2_0_split -> pool4/3x3_s2_pool4/3x3_s2_0_split_3
I0713 14:07:15.873224 12682 net.cpp:141] Setting up pool4/3x3_s2_pool4/3x3_s2_0_split
I0713 14:07:15.873234 12682 net.cpp:148] Top shape: 10 832 7 7 (407680)
I0713 14:07:15.873240 12682 net.cpp:148] Top shape: 10 832 7 7 (407680)
I0713 14:07:15.873246 12682 net.cpp:148] Top shape: 10 832 7 7 (407680)
I0713 14:07:15.873252 12682 net.cpp:148] Top shape: 10 832 7 7 (407680)
I0713 14:07:15.873256 12682 net.cpp:156] Memory required for data: 528980480
I0713 14:07:15.873261 12682 layer_factory.hpp:77] Creating layer inception_5a/1x1
I0713 14:07:15.873282 12682 net.cpp:91] Creating Layer inception_5a/1x1
I0713 14:07:15.873288 12682 net.cpp:425] inception_5a/1x1 <- pool4/3x3_s2_pool4/3x3_s2_0_split_0
I0713 14:07:15.873302 12682 net.cpp:399] inception_5a/1x1 -> inception_5a/1x1
I0713 14:07:15.878720 12682 net.cpp:141] Setting up inception_5a/1x1
I0713 14:07:15.878741 12682 net.cpp:148] Top shape: 10 256 7 7 (125440)
I0713 14:07:15.878746 12682 net.cpp:156] Memory required for data: 529482240
I0713 14:07:15.878756 12682 layer_factory.hpp:77] Creating layer inception_5a/relu_1x1
I0713 14:07:15.878770 12682 net.cpp:91] Creating Layer inception_5a/relu_1x1
I0713 14:07:15.878779 12682 net.cpp:425] inception_5a/relu_1x1 <- inception_5a/1x1
I0713 14:07:15.878790 12682 net.cpp:386] inception_5a/relu_1x1 -> inception_5a/1x1 (in-place)
I0713 14:07:15.879086 12682 net.cpp:141] Setting up inception_5a/relu_1x1
I0713 14:07:15.879099 12682 net.cpp:148] Top shape: 10 256 7 7 (125440)
I0713 14:07:15.879104 12682 net.cpp:156] Memory required for data: 529984000
I0713 14:07:15.879111 12682 layer_factory.hpp:77] Creating layer inception_5a/3x3_reduce
I0713 14:07:15.879129 12682 net.cpp:91] Creating Layer inception_5a/3x3_reduce
I0713 14:07:15.879137 12682 net.cpp:425] inception_5a/3x3_reduce <- pool4/3x3_s2_pool4/3x3_s2_0_split_1
I0713 14:07:15.879148 12682 net.cpp:399] inception_5a/3x3_reduce -> inception_5a/3x3_reduce
I0713 14:07:15.883925 12682 net.cpp:141] Setting up inception_5a/3x3_reduce
I0713 14:07:15.883947 12682 net.cpp:148] Top shape: 10 160 7 7 (78400)
I0713 14:07:15.883954 12682 net.cpp:156] Memory required for data: 530297600
I0713 14:07:15.883963 12682 layer_factory.hpp:77] Creating layer inception_5a/relu_3x3_reduce
I0713 14:07:15.883975 12682 net.cpp:91] Creating Layer inception_5a/relu_3x3_reduce
I0713 14:07:15.883981 12682 net.cpp:425] inception_5a/relu_3x3_reduce <- inception_5a/3x3_reduce
I0713 14:07:15.883992 12682 net.cpp:386] inception_5a/relu_3x3_reduce -> inception_5a/3x3_reduce (in-place)
I0713 14:07:15.884289 12682 net.cpp:141] Setting up inception_5a/relu_3x3_reduce
I0713 14:07:15.884302 12682 net.cpp:148] Top shape: 10 160 7 7 (78400)
I0713 14:07:15.884307 12682 net.cpp:156] Memory required for data: 530611200
I0713 14:07:15.884313 12682 layer_factory.hpp:77] Creating layer inception_5a/3x3
I0713 14:07:15.884332 12682 net.cpp:91] Creating Layer inception_5a/3x3
I0713 14:07:15.884340 12682 net.cpp:425] inception_5a/3x3 <- inception_5a/3x3_reduce
I0713 14:07:15.884352 12682 net.cpp:399] inception_5a/3x3 -> inception_5a/3x3
I0713 14:07:15.893498 12682 net.cpp:141] Setting up inception_5a/3x3
I0713 14:07:15.893527 12682 net.cpp:148] Top shape: 10 320 7 7 (156800)
I0713 14:07:15.893533 12682 net.cpp:156] Memory required for data: 531238400
I0713 14:07:15.893544 12682 layer_factory.hpp:77] Creating layer inception_5a/relu_3x3
I0713 14:07:15.893559 12682 net.cpp:91] Creating Layer inception_5a/relu_3x3
I0713 14:07:15.893568 12682 net.cpp:425] inception_5a/relu_3x3 <- inception_5a/3x3
I0713 14:07:15.893575 12682 net.cpp:386] inception_5a/relu_3x3 -> inception_5a/3x3 (in-place)
I0713 14:07:15.894420 12682 net.cpp:141] Setting up inception_5a/relu_3x3
I0713 14:07:15.894435 12682 net.cpp:148] Top shape: 10 320 7 7 (156800)
I0713 14:07:15.894440 12682 net.cpp:156] Memory required for data: 531865600
I0713 14:07:15.894446 12682 layer_factory.hpp:77] Creating layer inception_5a/5x5_reduce
I0713 14:07:15.894476 12682 net.cpp:91] Creating Layer inception_5a/5x5_reduce
I0713 14:07:15.894484 12682 net.cpp:425] inception_5a/5x5_reduce <- pool4/3x3_s2_pool4/3x3_s2_0_split_2
I0713 14:07:15.894495 12682 net.cpp:399] inception_5a/5x5_reduce -> inception_5a/5x5_reduce
I0713 14:07:15.897227 12682 net.cpp:141] Setting up inception_5a/5x5_reduce
I0713 14:07:15.897245 12682 net.cpp:148] Top shape: 10 32 7 7 (15680)
I0713 14:07:15.897251 12682 net.cpp:156] Memory required for data: 531928320
I0713 14:07:15.897261 12682 layer_factory.hpp:77] Creating layer inception_5a/relu_5x5_reduce
I0713 14:07:15.897271 12682 net.cpp:91] Creating Layer inception_5a/relu_5x5_reduce
I0713 14:07:15.897279 12682 net.cpp:425] inception_5a/relu_5x5_reduce <- inception_5a/5x5_reduce
I0713 14:07:15.897289 12682 net.cpp:386] inception_5a/relu_5x5_reduce -> inception_5a/5x5_reduce (in-place)
I0713 14:07:15.897574 12682 net.cpp:141] Setting up inception_5a/relu_5x5_reduce
I0713 14:07:15.897588 12682 net.cpp:148] Top shape: 10 32 7 7 (15680)
I0713 14:07:15.897593 12682 net.cpp:156] Memory required for data: 531991040
I0713 14:07:15.897598 12682 layer_factory.hpp:77] Creating layer inception_5a/5x5
I0713 14:07:15.897619 12682 net.cpp:91] Creating Layer inception_5a/5x5
I0713 14:07:15.897625 12682 net.cpp:425] inception_5a/5x5 <- inception_5a/5x5_reduce
I0713 14:07:15.897635 12682 net.cpp:399] inception_5a/5x5 -> inception_5a/5x5
I0713 14:07:15.900955 12682 net.cpp:141] Setting up inception_5a/5x5
I0713 14:07:15.900974 12682 net.cpp:148] Top shape: 10 128 7 7 (62720)
I0713 14:07:15.900980 12682 net.cpp:156] Memory required for data: 532241920
I0713 14:07:15.900991 12682 layer_factory.hpp:77] Creating layer inception_5a/relu_5x5
I0713 14:07:15.901031 12682 net.cpp:91] Creating Layer inception_5a/relu_5x5
I0713 14:07:15.901038 12682 net.cpp:425] inception_5a/relu_5x5 <- inception_5a/5x5
I0713 14:07:15.901046 12682 net.cpp:386] inception_5a/relu_5x5 -> inception_5a/5x5 (in-place)
I0713 14:07:15.901329 12682 net.cpp:141] Setting up inception_5a/relu_5x5
I0713 14:07:15.901345 12682 net.cpp:148] Top shape: 10 128 7 7 (62720)
I0713 14:07:15.901350 12682 net.cpp:156] Memory required for data: 532492800
I0713 14:07:15.901355 12682 layer_factory.hpp:77] Creating layer inception_5a/pool
I0713 14:07:15.901366 12682 net.cpp:91] Creating Layer inception_5a/pool
I0713 14:07:15.901372 12682 net.cpp:425] inception_5a/pool <- pool4/3x3_s2_pool4/3x3_s2_0_split_3
I0713 14:07:15.901381 12682 net.cpp:399] inception_5a/pool -> inception_5a/pool
I0713 14:07:15.901466 12682 net.cpp:141] Setting up inception_5a/pool
I0713 14:07:15.901476 12682 net.cpp:148] Top shape: 10 832 7 7 (407680)
I0713 14:07:15.901481 12682 net.cpp:156] Memory required for data: 534123520
I0713 14:07:15.901487 12682 layer_factory.hpp:77] Creating layer inception_5a/pool_proj
I0713 14:07:15.901505 12682 net.cpp:91] Creating Layer inception_5a/pool_proj
I0713 14:07:15.901512 12682 net.cpp:425] inception_5a/pool_proj <- inception_5a/pool
I0713 14:07:15.901525 12682 net.cpp:399] inception_5a/pool_proj -> inception_5a/pool_proj
I0713 14:07:15.906010 12682 net.cpp:141] Setting up inception_5a/pool_proj
I0713 14:07:15.906034 12682 net.cpp:148] Top shape: 10 128 7 7 (62720)
I0713 14:07:15.906040 12682 net.cpp:156] Memory required for data: 534374400
I0713 14:07:15.906051 12682 layer_factory.hpp:77] Creating layer inception_5a/relu_pool_proj
I0713 14:07:15.906061 12682 net.cpp:91] Creating Layer inception_5a/relu_pool_proj
I0713 14:07:15.906069 12682 net.cpp:425] inception_5a/relu_pool_proj <- inception_5a/pool_proj
I0713 14:07:15.906076 12682 net.cpp:386] inception_5a/relu_pool_proj -> inception_5a/pool_proj (in-place)
I0713 14:07:15.906939 12682 net.cpp:141] Setting up inception_5a/relu_pool_proj
I0713 14:07:15.906957 12682 net.cpp:148] Top shape: 10 128 7 7 (62720)
I0713 14:07:15.906962 12682 net.cpp:156] Memory required for data: 534625280
I0713 14:07:15.906968 12682 layer_factory.hpp:77] Creating layer inception_5a/output
I0713 14:07:15.906980 12682 net.cpp:91] Creating Layer inception_5a/output
I0713 14:07:15.906985 12682 net.cpp:425] inception_5a/output <- inception_5a/1x1
I0713 14:07:15.906993 12682 net.cpp:425] inception_5a/output <- inception_5a/3x3
I0713 14:07:15.906999 12682 net.cpp:425] inception_5a/output <- inception_5a/5x5
I0713 14:07:15.907006 12682 net.cpp:425] inception_5a/output <- inception_5a/pool_proj
I0713 14:07:15.907014 12682 net.cpp:399] inception_5a/output -> inception_5a/output
I0713 14:07:15.907073 12682 net.cpp:141] Setting up inception_5a/output
I0713 14:07:15.907086 12682 net.cpp:148] Top shape: 10 832 7 7 (407680)
I0713 14:07:15.907091 12682 net.cpp:156] Memory required for data: 536256000
I0713 14:07:15.907097 12682 layer_factory.hpp:77] Creating layer inception_5a/output_inception_5a/output_0_split
I0713 14:07:15.907107 12682 net.cpp:91] Creating Layer inception_5a/output_inception_5a/output_0_split
I0713 14:07:15.907112 12682 net.cpp:425] inception_5a/output_inception_5a/output_0_split <- inception_5a/output
I0713 14:07:15.907120 12682 net.cpp:399] inception_5a/output_inception_5a/output_0_split -> inception_5a/output_inception_5a/output_0_split_0
I0713 14:07:15.907130 12682 net.cpp:399] inception_5a/output_inception_5a/output_0_split -> inception_5a/output_inception_5a/output_0_split_1
I0713 14:07:15.907140 12682 net.cpp:399] inception_5a/output_inception_5a/output_0_split -> inception_5a/output_inception_5a/output_0_split_2
I0713 14:07:15.907153 12682 net.cpp:399] inception_5a/output_inception_5a/output_0_split -> inception_5a/output_inception_5a/output_0_split_3
I0713 14:07:15.907275 12682 net.cpp:141] Setting up inception_5a/output_inception_5a/output_0_split
I0713 14:07:15.907285 12682 net.cpp:148] Top shape: 10 832 7 7 (407680)
I0713 14:07:15.907292 12682 net.cpp:148] Top shape: 10 832 7 7 (407680)
I0713 14:07:15.907297 12682 net.cpp:148] Top shape: 10 832 7 7 (407680)
I0713 14:07:15.907304 12682 net.cpp:148] Top shape: 10 832 7 7 (407680)
I0713 14:07:15.907307 12682 net.cpp:156] Memory required for data: 542778880
I0713 14:07:15.907313 12682 layer_factory.hpp:77] Creating layer inception_5b/1x1
I0713 14:07:15.907331 12682 net.cpp:91] Creating Layer inception_5b/1x1
I0713 14:07:15.907337 12682 net.cpp:425] inception_5b/1x1 <- inception_5a/output_inception_5a/output_0_split_0
I0713 14:07:15.907349 12682 net.cpp:399] inception_5b/1x1 -> inception_5b/1x1
I0713 14:07:15.913745 12682 net.cpp:141] Setting up inception_5b/1x1
I0713 14:07:15.913770 12682 net.cpp:148] Top shape: 10 384 7 7 (188160)
I0713 14:07:15.913776 12682 net.cpp:156] Memory required for data: 543531520
I0713 14:07:15.913787 12682 layer_factory.hpp:77] Creating layer inception_5b/relu_1x1
I0713 14:07:15.913797 12682 net.cpp:91] Creating Layer inception_5b/relu_1x1
I0713 14:07:15.913803 12682 net.cpp:425] inception_5b/relu_1x1 <- inception_5b/1x1
I0713 14:07:15.913812 12682 net.cpp:386] inception_5b/relu_1x1 -> inception_5b/1x1 (in-place)
I0713 14:07:15.914100 12682 net.cpp:141] Setting up inception_5b/relu_1x1
I0713 14:07:15.914113 12682 net.cpp:148] Top shape: 10 384 7 7 (188160)
I0713 14:07:15.914119 12682 net.cpp:156] Memory required for data: 544284160
I0713 14:07:15.914124 12682 layer_factory.hpp:77] Creating layer inception_5b/3x3_reduce
I0713 14:07:15.914141 12682 net.cpp:91] Creating Layer inception_5b/3x3_reduce
I0713 14:07:15.914149 12682 net.cpp:425] inception_5b/3x3_reduce <- inception_5a/output_inception_5a/output_0_split_1
I0713 14:07:15.914161 12682 net.cpp:399] inception_5b/3x3_reduce -> inception_5b/3x3_reduce
I0713 14:07:15.919147 12682 net.cpp:141] Setting up inception_5b/3x3_reduce
I0713 14:07:15.919167 12682 net.cpp:148] Top shape: 10 192 7 7 (94080)
I0713 14:07:15.919173 12682 net.cpp:156] Memory required for data: 544660480
I0713 14:07:15.919183 12682 layer_factory.hpp:77] Creating layer inception_5b/relu_3x3_reduce
I0713 14:07:15.919193 12682 net.cpp:91] Creating Layer inception_5b/relu_3x3_reduce
I0713 14:07:15.919200 12682 net.cpp:425] inception_5b/relu_3x3_reduce <- inception_5b/3x3_reduce
I0713 14:07:15.919211 12682 net.cpp:386] inception_5b/relu_3x3_reduce -> inception_5b/3x3_reduce (in-place)
I0713 14:07:15.919497 12682 net.cpp:141] Setting up inception_5b/relu_3x3_reduce
I0713 14:07:15.919508 12682 net.cpp:148] Top shape: 10 192 7 7 (94080)
I0713 14:07:15.919513 12682 net.cpp:156] Memory required for data: 545036800
I0713 14:07:15.919519 12682 layer_factory.hpp:77] Creating layer inception_5b/3x3
I0713 14:07:15.919539 12682 net.cpp:91] Creating Layer inception_5b/3x3
I0713 14:07:15.919546 12682 net.cpp:425] inception_5b/3x3 <- inception_5b/3x3_reduce
I0713 14:07:15.919556 12682 net.cpp:399] inception_5b/3x3 -> inception_5b/3x3
I0713 14:07:15.929770 12682 net.cpp:141] Setting up inception_5b/3x3
I0713 14:07:15.929795 12682 net.cpp:148] Top shape: 10 384 7 7 (188160)
I0713 14:07:15.929800 12682 net.cpp:156] Memory required for data: 545789440
I0713 14:07:15.929811 12682 layer_factory.hpp:77] Creating layer inception_5b/relu_3x3
I0713 14:07:15.929821 12682 net.cpp:91] Creating Layer inception_5b/relu_3x3
I0713 14:07:15.929828 12682 net.cpp:425] inception_5b/relu_3x3 <- inception_5b/3x3
I0713 14:07:15.929841 12682 net.cpp:386] inception_5b/relu_3x3 -> inception_5b/3x3 (in-place)
I0713 14:07:15.930676 12682 net.cpp:141] Setting up inception_5b/relu_3x3
I0713 14:07:15.930702 12682 net.cpp:148] Top shape: 10 384 7 7 (188160)
I0713 14:07:15.930707 12682 net.cpp:156] Memory required for data: 546542080
I0713 14:07:15.930713 12682 layer_factory.hpp:77] Creating layer inception_5b/5x5_reduce
I0713 14:07:15.930733 12682 net.cpp:91] Creating Layer inception_5b/5x5_reduce
I0713 14:07:15.930742 12682 net.cpp:425] inception_5b/5x5_reduce <- inception_5a/output_inception_5a/output_0_split_2
I0713 14:07:15.930754 12682 net.cpp:399] inception_5b/5x5_reduce -> inception_5b/5x5_reduce
I0713 14:07:15.933643 12682 net.cpp:141] Setting up inception_5b/5x5_reduce
I0713 14:07:15.933662 12682 net.cpp:148] Top shape: 10 48 7 7 (23520)
I0713 14:07:15.933667 12682 net.cpp:156] Memory required for data: 546636160
I0713 14:07:15.933678 12682 layer_factory.hpp:77] Creating layer inception_5b/relu_5x5_reduce
I0713 14:07:15.933693 12682 net.cpp:91] Creating Layer inception_5b/relu_5x5_reduce
I0713 14:07:15.933701 12682 net.cpp:425] inception_5b/relu_5x5_reduce <- inception_5b/5x5_reduce
I0713 14:07:15.933708 12682 net.cpp:386] inception_5b/relu_5x5_reduce -> inception_5b/5x5_reduce (in-place)
I0713 14:07:15.933990 12682 net.cpp:141] Setting up inception_5b/relu_5x5_reduce
I0713 14:07:15.934003 12682 net.cpp:148] Top shape: 10 48 7 7 (23520)
I0713 14:07:15.934008 12682 net.cpp:156] Memory required for data: 546730240
I0713 14:07:15.934013 12682 layer_factory.hpp:77] Creating layer inception_5b/5x5
I0713 14:07:15.934031 12682 net.cpp:91] Creating Layer inception_5b/5x5
I0713 14:07:15.934038 12682 net.cpp:425] inception_5b/5x5 <- inception_5b/5x5_reduce
I0713 14:07:15.934048 12682 net.cpp:399] inception_5b/5x5 -> inception_5b/5x5
I0713 14:07:15.938532 12682 net.cpp:141] Setting up inception_5b/5x5
I0713 14:07:15.938554 12682 net.cpp:148] Top shape: 10 128 7 7 (62720)
I0713 14:07:15.938560 12682 net.cpp:156] Memory required for data: 546981120
I0713 14:07:15.938570 12682 layer_factory.hpp:77] Creating layer inception_5b/relu_5x5
I0713 14:07:15.938585 12682 net.cpp:91] Creating Layer inception_5b/relu_5x5
I0713 14:07:15.938593 12682 net.cpp:425] inception_5b/relu_5x5 <- inception_5b/5x5
I0713 14:07:15.938601 12682 net.cpp:386] inception_5b/relu_5x5 -> inception_5b/5x5 (in-place)
I0713 14:07:15.938899 12682 net.cpp:141] Setting up inception_5b/relu_5x5
I0713 14:07:15.938912 12682 net.cpp:148] Top shape: 10 128 7 7 (62720)
I0713 14:07:15.938917 12682 net.cpp:156] Memory required for data: 547232000
I0713 14:07:15.938923 12682 layer_factory.hpp:77] Creating layer inception_5b/pool
I0713 14:07:15.938933 12682 net.cpp:91] Creating Layer inception_5b/pool
I0713 14:07:15.938941 12682 net.cpp:425] inception_5b/pool <- inception_5a/output_inception_5a/output_0_split_3
I0713 14:07:15.938952 12682 net.cpp:399] inception_5b/pool -> inception_5b/pool
I0713 14:07:15.939038 12682 net.cpp:141] Setting up inception_5b/pool
I0713 14:07:15.939049 12682 net.cpp:148] Top shape: 10 832 7 7 (407680)
I0713 14:07:15.939054 12682 net.cpp:156] Memory required for data: 548862720
I0713 14:07:15.939059 12682 layer_factory.hpp:77] Creating layer inception_5b/pool_proj
I0713 14:07:15.939079 12682 net.cpp:91] Creating Layer inception_5b/pool_proj
I0713 14:07:15.939087 12682 net.cpp:425] inception_5b/pool_proj <- inception_5b/pool
I0713 14:07:15.939096 12682 net.cpp:399] inception_5b/pool_proj -> inception_5b/pool_proj
I0713 14:07:15.943630 12682 net.cpp:141] Setting up inception_5b/pool_proj
I0713 14:07:15.943651 12682 net.cpp:148] Top shape: 10 128 7 7 (62720)
I0713 14:07:15.943657 12682 net.cpp:156] Memory required for data: 549113600
I0713 14:07:15.943667 12682 layer_factory.hpp:77] Creating layer inception_5b/relu_pool_proj
I0713 14:07:15.943678 12682 net.cpp:91] Creating Layer inception_5b/relu_pool_proj
I0713 14:07:15.943684 12682 net.cpp:425] inception_5b/relu_pool_proj <- inception_5b/pool_proj
I0713 14:07:15.943697 12682 net.cpp:386] inception_5b/relu_pool_proj -> inception_5b/pool_proj (in-place)
I0713 14:07:15.944535 12682 net.cpp:141] Setting up inception_5b/relu_pool_proj
I0713 14:07:15.944552 12682 net.cpp:148] Top shape: 10 128 7 7 (62720)
I0713 14:07:15.944557 12682 net.cpp:156] Memory required for data: 549364480
I0713 14:07:15.944563 12682 layer_factory.hpp:77] Creating layer inception_5b/output
I0713 14:07:15.944574 12682 net.cpp:91] Creating Layer inception_5b/output
I0713 14:07:15.944581 12682 net.cpp:425] inception_5b/output <- inception_5b/1x1
I0713 14:07:15.944587 12682 net.cpp:425] inception_5b/output <- inception_5b/3x3
I0713 14:07:15.944593 12682 net.cpp:425] inception_5b/output <- inception_5b/5x5
I0713 14:07:15.944599 12682 net.cpp:425] inception_5b/output <- inception_5b/pool_proj
I0713 14:07:15.944612 12682 net.cpp:399] inception_5b/output -> inception_5b/output
I0713 14:07:15.944669 12682 net.cpp:141] Setting up inception_5b/output
I0713 14:07:15.944682 12682 net.cpp:148] Top shape: 10 1024 7 7 (501760)
I0713 14:07:15.944687 12682 net.cpp:156] Memory required for data: 551371520
I0713 14:07:15.944692 12682 layer_factory.hpp:77] Creating layer pool5/7x7_s1
I0713 14:07:15.944702 12682 net.cpp:91] Creating Layer pool5/7x7_s1
I0713 14:07:15.944707 12682 net.cpp:425] pool5/7x7_s1 <- inception_5b/output
I0713 14:07:15.944715 12682 net.cpp:399] pool5/7x7_s1 -> pool5/7x7_s1
I0713 14:07:15.945076 12682 net.cpp:141] Setting up pool5/7x7_s1
I0713 14:07:15.945089 12682 net.cpp:148] Top shape: 10 1024 1 1 (10240)
I0713 14:07:15.945094 12682 net.cpp:156] Memory required for data: 551412480
I0713 14:07:15.945099 12682 layer_factory.hpp:77] Creating layer pool5/drop_7x7_s1
I0713 14:07:15.945111 12682 net.cpp:91] Creating Layer pool5/drop_7x7_s1
I0713 14:07:15.945116 12682 net.cpp:425] pool5/drop_7x7_s1 <- pool5/7x7_s1
I0713 14:07:15.945127 12682 net.cpp:386] pool5/drop_7x7_s1 -> pool5/7x7_s1 (in-place)
I0713 14:07:15.945193 12682 net.cpp:141] Setting up pool5/drop_7x7_s1
I0713 14:07:15.945202 12682 net.cpp:148] Top shape: 10 1024 1 1 (10240)
I0713 14:07:15.945207 12682 net.cpp:156] Memory required for data: 551453440
I0713 14:07:15.945212 12682 layer_factory.hpp:77] Creating layer loss3/classifier
I0713 14:07:15.945235 12682 net.cpp:91] Creating Layer loss3/classifier
I0713 14:07:15.945241 12682 net.cpp:425] loss3/classifier <- pool5/7x7_s1
I0713 14:07:15.945255 12682 net.cpp:399] loss3/classifier -> loss3/classifier
I0713 14:07:15.956748 12682 net.cpp:141] Setting up loss3/classifier
I0713 14:07:15.956773 12682 net.cpp:148] Top shape: 10 1000 (10000)
I0713 14:07:15.956779 12682 net.cpp:156] Memory required for data: 551493440
I0713 14:07:15.956790 12682 layer_factory.hpp:77] Creating layer prob
I0713 14:07:15.956805 12682 net.cpp:91] Creating Layer prob
I0713 14:07:15.956811 12682 net.cpp:425] prob <- loss3/classifier
I0713 14:07:15.956820 12682 net.cpp:399] prob -> prob
I0713 14:07:15.958030 12682 net.cpp:141] Setting up prob
I0713 14:07:15.958048 12682 net.cpp:148] Top shape: 10 1000 (10000)
I0713 14:07:15.958055 12682 net.cpp:156] Memory required for data: 551533440
I0713 14:07:15.958060 12682 net.cpp:219] prob does not need backward computation.
I0713 14:07:15.958065 12682 net.cpp:219] loss3/classifier does not need backward computation.
I0713 14:07:15.958070 12682 net.cpp:219] pool5/drop_7x7_s1 does not need backward computation.
I0713 14:07:15.958076 12682 net.cpp:219] pool5/7x7_s1 does not need backward computation.
…
