…
Java HotSpot(TM) 64-Bit Server VM warning: You have loaded library /tmp/cvld5252460401756753542/libopencv_java310.xine1.so which might have disabled stack guard. The VM will try to fix the stack guard now.
It's highly recommended that you fix the library with 'execstack -c <libfile>', or link it with '-z noexecstack'.
WARNING: Logging before InitGoogleLogging() is written to STDERR
I0720 16:12:49.895403 17487 net.cpp:49] Initializing net from parameters: 
name: "CaffeNet"
state {
  phase: TEST
}
layer {
  name: "data"
  type: "Input"
  top: "data"
  input_param {
    shape {
      dim: 10
      dim: 3
      dim: 227
      dim: 227
    }
  }
}
layer {
  name: "conv1"
  type: "Convolution"
  bottom: "data"
  top: "conv1"
  convolution_param {
    num_output: 96
    kernel_size: 11
    stride: 4
  }
}
layer {
  name: "relu1"
  type: "ReLU"
  bottom: "conv1"
  top: "conv1"
}
layer {
  name: "pool1"
  type: "Pooling"
  bottom: "conv1"
  top: "pool1"
  pooling_param {
    pool: MAX
    kernel_size: 3
    stride: 2
  }
}
layer {
  name: "norm1"
  type: "LRN"
  bottom: "pool1"
  top: "norm1"
  lrn_param {
    local_size: 5
    alpha: 0.0001
    beta: 0.75
  }
}
layer {
  name: "conv2"
  type: "Convolution"
  bottom: "norm1"
  top: "conv2"
  convolution_param {
    num_output: 256
    pad: 2
    kernel_size: 5
    group: 2
  }
}
layer {
  name: "relu2"
  type: "ReLU"
  bottom: "conv2"
  top: "conv2"
}
layer {
  name: "pool2"
  type: "Pooling"
  bottom: "conv2"
  top: "pool2"
  pooling_param {
    pool: MAX
    kernel_size: 3
    stride: 2
  }
}
layer {
  name: "norm2"
  type: "LRN"
  bottom: "pool2"
  top: "norm2"
  lrn_param {
    local_size: 5
    alpha: 0.0001
    beta: 0.75
  }
}
layer {
  name: "conv3"
  type: "Convolution"
  bottom: "norm2"
  top: "conv3"
  convolution_param {
    num_output: 384
    pad: 1
    kernel_size: 3
  }
}
layer {
  name: "relu3"
  type: "ReLU"
  bottom: "conv3"
  top: "conv3"
}
layer {
  name: "conv4"
  type: "Convolution"
  bottom: "conv3"
  top: "conv4"
  convolution_param {
    num_output: 384
    pad: 1
    kernel_size: 3
    group: 2
  }
}
layer {
  name: "relu4"
  type: "ReLU"
  bottom: "conv4"
  top: "conv4"
}
layer {
  name: "conv5"
  type: "Convolution"
  bottom: "conv4"
  top: "conv5"
  convolution_param {
    num_output: 256
    pad: 1
    kernel_size: 3
    group: 2
  }
}
layer {
  name: "relu5"
  type: "ReLU"
  bottom: "conv5"
  top: "conv5"
}
layer {
  name: "pool5"
  type: "Pooling"
  bottom: "conv5"
  top: "pool5"
  pooling_param {
    pool: MAX
    kernel_size: 3
    stride: 2
  }
}
layer {
  name: "fc6"
  type: "InnerProduct"
  bottom: "pool5"
  top: "fc6"
  inner_product_param {
    num_output: 4096
  }
}
layer {
  name: "relu6"
  type: "ReLU"
  bottom: "fc6"
  top: "fc6"
}
layer {
  name: "drop6"
  type: "Dropout"
  bottom: "fc6"
  top: "fc6"
  dropout_param {
    dropout_ratio: 0.5
  }
}
layer {
  name: "fc7"
  type: "InnerProduct"
  bottom: "fc6"
  top: "fc7"
  inner_product_param {
    num_output: 4096
  }
}
layer {
  name: "relu7"
  type: "ReLU"
  bottom: "fc7"
  top: "fc7"
}
layer {
  name: "drop7"
  type: "Dropout"
  bottom: "fc7"
  top: "fc7"
  dropout_param {
    dropout_ratio: 0.5
  }
}
layer {
  name: "fc8"
  type: "InnerProduct"
  bottom: "fc7"
  top: "fc8"
  inner_product_param {
    num_output: 1000
  }
}
layer {
  name: "prob"
  type: "Softmax"
  bottom: "fc8"
  top: "prob"
}
I0720 16:12:49.895576 17487 layer_factory.hpp:77] Creating layer data
I0720 16:12:49.895601 17487 net.cpp:91] Creating Layer data
I0720 16:12:49.895611 17487 net.cpp:399] data -> data
I0720 16:12:49.909117 17473 net.cpp:49] Initializing net from parameters: 
name: "CaffeNet"
state {
  phase: TEST
}
layer {
  name: "data"
  type: "Input"
  top: "data"
  input_param {
    shape {
      dim: 10
      dim: 3
      dim: 227
      dim: 227
    }
  }
}
layer {
  name: "conv1"
  type: "Convolution"
  bottom: "data"
  top: "conv1"
  convolution_param {
    num_output: 96
    kernel_size: 11
    stride: 4
  }
}
layer {
  name: "relu1"
  type: "ReLU"
  bottom: "conv1"
  top: "conv1"
}
layer {
  name: "pool1"
  type: "Pooling"
  bottom: "conv1"
  top: "pool1"
  pooling_param {
    pool: MAX
    kernel_size: 3
    stride: 2
  }
}
layer {
  name: "norm1"
  type: "LRN"
  bottom: "pool1"
  top: "norm1"
  lrn_param {
    local_size: 5
    alpha: 0.0001
    beta: 0.75
  }
}
layer {
  name: "conv2"
  type: "Convolution"
  bottom: "norm1"
  top: "conv2"
  convolution_param {
    num_output: 256
    pad: 2
    kernel_size: 5
    group: 2
  }
}
layer {
  name: "relu2"
  type: "ReLU"
  bottom: "conv2"
  top: "conv2"
}
layer {
  name: "pool2"
  type: "Pooling"
  bottom: "conv2"
  top: "pool2"
  pooling_param {
    pool: MAX
    kernel_size: 3
    stride: 2
  }
}
layer {
  name: "norm2"
  type: "LRN"
  bottom: "pool2"
  top: "norm2"
  lrn_param {
    local_size: 5
    alpha: 0.0001
    beta: 0.75
  }
}
layer {
  name: "conv3"
  type: "Convolution"
  bottom: "norm2"
  top: "conv3"
  convolution_param {
    num_output: 384
    pad: 1
    kernel_size: 3
  }
}
layer {
  name: "relu3"
  type: "ReLU"
  bottom: "conv3"
  top: "conv3"
}
layer {
  name: "conv4"
  type: "Convolution"
  bottom: "conv3"
  top: "conv4"
  convolution_param {
    num_output: 384
    pad: 1
    kernel_size: 3
    group: 2
  }
}
layer {
  name: "relu4"
  type: "ReLU"
  bottom: "conv4"
  top: "conv4"
}
layer {
  name: "conv5"
  type: "Convolution"
  bottom: "conv4"
  top: "conv5"
  convolution_param {
    num_output: 256
    pad: 1
    kernel_size: 3
    group: 2
  }
}
layer {
  name: "relu5"
  type: "ReLU"
  bottom: "conv5"
  top: "conv5"
}
layer {
  name: "pool5"
  type: "Pooling"
  bottom: "conv5"
  top: "pool5"
  pooling_param {
    pool: MAX
    kernel_size: 3
    stride: 2
  }
}
layer {
  name: "fc6"
  type: "InnerProduct"
  bottom: "pool5"
  top: "fc6"
  inner_product_param {
    num_output: 4096
  }
}
layer {
  name: "relu6"
  type: "ReLU"
  bottom: "fc6"
  top: "fc6"
}
layer {
  name: "drop6"
  type: "Dropout"
  bottom: "fc6"
  top: "fc6"
  dropout_param {
    dropout_ratio: 0.5
  }
}
layer {
  name: "fc7"
  type: "InnerProduct"
  bottom: "fc6"
  top: "fc7"
  inner_product_param {
    num_output: 4096
  }
}
layer {
  name: "relu7"
  type: "ReLU"
  bottom: "fc7"
  top: "fc7"
}
layer {
  name: "drop7"
  type: "Dropout"
  bottom: "fc7"
  top: "fc7"
  dropout_param {
    dropout_ratio: 0.5
  }
}
layer {
  name: "fc8"
  type: "InnerProduct"
  bottom: "fc7"
  top: "fc8"
  inner_product_param {
    num_output: 1000
  }
}
layer {
  name: "prob"
  type: "Softmax"
  bottom: "fc8"
  top: "prob"
}
I0720 16:12:49.909235 17473 layer_factory.hpp:77] Creating layer data
I0720 16:12:49.909250 17473 net.cpp:91] Creating Layer data
I0720 16:12:49.909257 17473 net.cpp:399] data -> data
I0720 16:12:50.133855 17475 upgrade_proto.cpp:66] Attempting to upgrade input file specified using deprecated input fields: /tmp/cvld5252460401756753542/s2vt.words_to_preds.prototxt
I0720 16:12:50.133903 17475 upgrade_proto.cpp:69] Successfully upgraded file specified using deprecated input fields.
…
W0720 16:12:50.133954 17461 upgrade_proto.cpp:71] Note that future Caffe releases will only support input layers and not input fields.
I0720 16:12:50.134162 17461 net.cpp:49] Initializing net from parameters: 
name: "s2vt:features_to_lstm"
state {
  phase: TEST
}
layer {
  name: "input"
  type: "Input"
  top: "frames_fc7"
  top: "cont_sentence"
  top: "input_sentence"
  top: "stage_indicator"
  input_param {
    shape {
      dim: 1
      dim: 4096
    }
    shape {
      dim: 1
      dim: 1
    }
    shape {
      dim: 1
      dim: 1
    }
    shape {
      dim: 1
      dim: 1
    }
  }
}
layer {
  name: "embed_encoder"
  type: "InnerProduct"
  bottom: "frames_fc7"
  top: "embedded_in_frames"
  param {
    lr_mult: 1
    decay_mult: 1
  }
  param {
    lr_mult: 2
    decay_mult: 0
  }
  inner_product_param {
    num_output: 500
    weight_filler {
      type: "xavier"
    }
    bias_filler {
      type: "constant"
      value: 0.2
    }
  }
}
layer {
  name: "reshape_frames"
  type: "Reshape"
  bottom: "embedded_in_frames"
  top: "embedded_input_frames"
  reshape_param {
    shape {
      dim: 1
      dim: 1
      dim: 500
    }
  }
}
layer {
  name: "reshape_stage_indicator"
  type: "Reshape"
  bottom: "stage_indicator"
  top: "reshaped_stage_indicator"
  reshape_param {
    shape {
      dim: 1
      dim: 1
      dim: 1
    }
  }
}
layer {
  name: "embedding"
  type: "Embed"
  bottom: "input_sentence"
  top: "embedded_input_sentence"
  param {
    lr_mult: 1
  }
  embed_param {
    num_output: 500
    input_dim: 46168
    bias_term: false
    weight_filler {
      type: "uniform"
      min: -0.08
      max: 0.08
    }
  }
}
layer {
  name: "lstm1"
  type: "LSTM"
  bottom: "embedded_input_frames"
  bottom: "cont_sentence"
  top: "lstm1"
  recurrent_param {
    num_output: 1000
    weight_filler {
      type: "uniform"
      min: -0.08
      max: 0.08
    }
    bias_filler {
      type: "constant"
      value: 0
    }
  }
}
layer {
  name: "concat"
  type: "Concat"
  bottom: "lstm1"
  bottom: "embedded_input_sentence"
  bottom: "reshaped_stage_indicator"
  top: "lstm1_video_sequence"
  concat_param {
    concat_dim: 2
  }
}
layer {
  name: "lstm2"
  type: "LSTM"
  bottom: "lstm1_video_sequence"
  bottom: "cont_sentence"
  top: "lstm2"
  recurrent_param {
    num_output: 1000
    weight_filler {
      type: "uniform"
      min: -0.08
      max: 0.08
    }
    bias_filler {
      type: "constant"
      value: 0
    }
  }
}
layer {
  name: "predict"
  type: "InnerProduct"
  bottom: "lstm2"
  top: "predict"
  param {
    lr_mult: 1
    decay_mult: 1
  }
  param {
    lr_mult: 2
    decay_mult: 0
  }
  inner_product_param {
    num_output: 46168
    weight_filler {
      type: "uniform"
      min: -0.08
      max: 0.08
    }
    bias_filler {
      type: "constant"
      value: 0
    }
    axis: 2
  }
}
layer {
  name: "probs"
  type: "Softmax"
  bottom: "predict"
  top: "probs"
  softmax_param {
    axis: 2
  }
}
I0720 16:12:50.134163 17475 net.cpp:49] Initializing net from parameters: 
name: "s2vt:features_to_lstm"
state {
  phase: TEST
}
layer {
  name: "input"
  type: "Input"
  top: "frames_fc7"
  top: "cont_sentence"
  top: "input_sentence"
  top: "stage_indicator"
  input_param {
    shape {
      dim: 1
      dim: 4096
    }
    shape {
      dim: 1
      dim: 1
    }
    shape {
      dim: 1
      dim: 1
    }
    shape {
      dim: 1
      dim: 1
    }
  }
}
layer {
  name: "embed_encoder"
  type: "InnerProduct"
  bottom: "frames_fc7"
  top: "embedded_in_frames"
  param {
    lr_mult: 1
    decay_mult: 1
  }
  param {
    lr_mult: 2
    decay_mult: 0
  }
  inner_product_param {
    num_output: 500
    weight_filler {
      type: "xavier"
    }
    bias_filler {
      type: "constant"
      value: 0.2
    }
  }
}
layer {
  name: "reshape_frames"
  type: "Reshape"
  bottom: "embedded_in_frames"
  top: "embedded_input_frames"
  reshape_param {
    shape {
      dim: 1
      dim: 1
      dim: 500
    }
  }
}
layer {
  name: "reshape_stage_indicator"
  type: "Reshape"
  bottom: "stage_indicator"
  top: "reshaped_stage_indicator"
  reshape_param {
    shape {
      dim: 1
      dim: 1
      dim: 1
    }
  }
}
layer {
  name: "embedding"
  type: "Embed"
  bottom: "input_sentence"
  top: "embedded_input_sentence"
  param {
    lr_mult: 1
  }
  embed_param {
    num_output: 500
    input_dim: 46168
    bias_term: false
    weight_filler {
      type: "uniform"
      min: -0.08
      max: 0.08
    }
  }
}
layer {
  name: "lstm1"
  type: "LSTM"
  bottom: "embedded_input_frames"
  bottom: "cont_sentence"
  top: "lstm1"
  recurrent_param {
    num_output: 1000
    weight_filler {
      type: "uniform"
      min: -0.08
      max: 0.08
    }
    bias_filler {
      type: "constant"
      value: 0
    }
  }
}
layer {
  name: "concat"
  type: "Concat"
  bottom: "lstm1"
  bottom: "embedded_input_sentence"
  bottom: "reshaped_stage_indicator"
  top: "lstm1_video_sequence"
  concat_param {
    concat_dim: 2
  }
}
layer {
  name: "lstm2"
  type: "LSTM"
  bottom: "lstm1_video_sequence"
  bottom: "cont_sentence"
  top: "lstm2"
  recurrent_param {
    num_output: 1000
    weight_filler {
      type: "uniform"
      min: -0.08
      max: 0.08
    }
    bias_filler {
      type: "constant"
      value: 0
    }
  }
}
layer {
  name: "predict"
  type: "InnerProduct"
  bottom: "lstm2"
  top: "predict"
  param {
    lr_mult: 1
    decay_mult: 1
  }
  param {
    lr_mult: 2
    decay_mult: 0
  }
  inner_product_param {
    num_output: 46168
    weight_filler {
      type: "uniform"
      min: -0.08
      max: 0.08
    }
    bias_filler {
      type: "constant"
      value: 0
    }
    axis: 2
  }
}
layer {
  name: "probs"
  type: "Softmax"
  bottom: "predict"
  top: "probs"
  softmax_param {
    axis: 2
  }
}
I0720 16:12:50.134290 17461 layer_factory.hpp:77] Creating layer input
I0720 16:12:50.134291 17475 layer_factory.hpp:77] Creating layer input
I0720 16:12:50.134308 17461 net.cpp:91] Creating Layer input
I0720 16:12:50.134311 17475 net.cpp:91] Creating Layer input
I0720 16:12:50.134317 17461 net.cpp:399] input -> frames_fc7
I0720 16:12:50.134320 17475 net.cpp:399] input -> frames_fc7
I0720 16:12:50.134335 17475 net.cpp:399] input -> cont_sentence
I0720 16:12:50.134335 17461 net.cpp:399] input -> cont_sentence
I0720 16:12:50.134353 17475 net.cpp:399] input -> input_sentence
I0720 16:12:50.134356 17461 net.cpp:399] input -> input_sentence
I0720 16:12:50.134363 17475 net.cpp:399] input -> stage_indicator
I0720 16:12:50.134367 17461 net.cpp:399] input -> stage_indicator
I0720 16:12:50.134379 17475 net.cpp:141] Setting up input
I0720 16:12:50.134380 17461 net.cpp:141] Setting up input
I0720 16:12:50.134397 17475 net.cpp:148] Top shape: 1 4096 (4096)
I0720 16:12:50.134398 17461 net.cpp:148] Top shape: 1 4096 (4096)
I0720 16:12:50.134408 17475 net.cpp:148] Top shape: 1 1 (1)
I0720 16:12:50.134413 17461 net.cpp:148] Top shape: 1 1 (1)
I0720 16:12:50.134414 17475 net.cpp:148] Top shape: 1 1 (1)
I0720 16:12:50.134418 17461 net.cpp:148] Top shape: 1 1 (1)
I0720 16:12:50.134420 17475 net.cpp:148] Top shape: 1 1 (1)
I0720 16:12:50.134424 17461 net.cpp:148] Top shape: 1 1 (1)
I0720 16:12:50.134425 17475 net.cpp:156] Memory required for data: 16396
I0720 16:12:50.134428 17461 net.cpp:156] Memory required for data: 16396
I0720 16:12:50.134438 17475 layer_factory.hpp:77] Creating layer cont_sentence_input_1_split
I0720 16:12:50.134438 17461 layer_factory.hpp:77] Creating layer cont_sentence_input_1_split
I0720 16:12:50.134459 17475 net.cpp:91] Creating Layer cont_sentence_input_1_split
I0720 16:12:50.134459 17461 net.cpp:91] Creating Layer cont_sentence_input_1_split
I0720 16:12:50.134469 17475 net.cpp:425] cont_sentence_input_1_split <- cont_sentence
I0720 16:12:50.134470 17461 net.cpp:425] cont_sentence_input_1_split <- cont_sentence
I0720 16:12:50.134485 17475 net.cpp:399] cont_sentence_input_1_split -> cont_sentence_input_1_split_0
I0720 16:12:50.134485 17461 net.cpp:399] cont_sentence_input_1_split -> cont_sentence_input_1_split_0
I0720 16:12:50.134497 17475 net.cpp:399] cont_sentence_input_1_split -> cont_sentence_input_1_split_1
I0720 16:12:50.134502 17461 net.cpp:399] cont_sentence_input_1_split -> cont_sentence_input_1_split_1
I0720 16:12:50.134516 17461 net.cpp:141] Setting up cont_sentence_input_1_split
I0720 16:12:50.134516 17475 net.cpp:141] Setting up cont_sentence_input_1_split
I0720 16:12:50.134527 17461 net.cpp:148] Top shape: 1 1 (1)
I0720 16:12:50.134532 17475 net.cpp:148] Top shape: 1 1 (1)
I0720 16:12:50.134533 17461 net.cpp:148] Top shape: 1 1 (1)
I0720 16:12:50.134541 17475 net.cpp:148] Top shape: 1 1 (1)
I0720 16:12:50.134543 17461 net.cpp:156] Memory required for data: 16404
I0720 16:12:50.134546 17475 net.cpp:156] Memory required for data: 16404
I0720 16:12:50.134548 17461 layer_factory.hpp:77] Creating layer embed_encoder
I0720 16:12:50.134551 17475 layer_factory.hpp:77] Creating layer embed_encoder
I0720 16:12:50.134564 17475 net.cpp:91] Creating Layer embed_encoder
I0720 16:12:50.134565 17461 net.cpp:91] Creating Layer embed_encoder
…
W0720 16:12:50.135763 17479 upgrade_proto.cpp:71] Note that future Caffe releases will only support input layers and not input fields.
I0720 16:12:50.136108 17479 net.cpp:49] Initializing net from parameters: 
name: "s2vt:features_to_lstm"
state {
  phase: TEST
}
layer {
  name: "input"
  type: "Input"
  top: "frames_fc7"
  top: "cont_sentence"
  top: "input_sentence"
  top: "stage_indicator"
  input_param {
    shape {
      dim: 1
      dim: 4096
    }
    shape {
      dim: 1
      dim: 1
    }
    shape {
      dim: 1
      dim: 1
    }
    shape {
      dim: 1
      dim: 1
    }
  }
}
layer {
  name: "embed_encoder"
  type: "InnerProduct"
  bottom: "frames_fc7"
  top: "embedded_in_frames"
  param {
    lr_mult: 1
    decay_mult: 1
  }
  param {
    lr_mult: 2
    decay_mult: 0
  }
  inner_product_param {
    num_output: 500
    weight_filler {
      type: "xavier"
    }
    bias_filler {
      type: "constant"
      value: 0.2
    }
  }
}
layer {
  name: "reshape_frames"
  type: "Reshape"
  bottom: "embedded_in_frames"
  top: "embedded_input_frames"
  reshape_param {
    shape {
      dim: 1
      dim: 1
      dim: 500
    }
  }
}
layer {
  name: "reshape_stage_indicator"
  type: "Reshape"
  bottom: "stage_indicator"
  top: "reshaped_stage_indicator"
  reshape_param {
    shape {
      dim: 1
      dim: 1
      dim: 1
    }
  }
}
layer {
  name: "embedding"
  type: "Embed"
  bottom: "input_sentence"
  top: "embedded_input_sentence"
  param {
    lr_mult: 1
  }
  embed_param {
    num_output: 500
    input_dim: 46168
    bias_term: false
    weight_filler {
      type: "uniform"
      min: -0.08
      max: 0.08
    }
  }
}
layer {
  name: "lstm1"
  type: "LSTM"
  bottom: "embedded_input_frames"
  bottom: "cont_sentence"
  top: "lstm1"
  recurrent_param {
    num_output: 1000
    weight_filler {
      type: "uniform"
      min: -0.08
      max: 0.08
    }
    bias_filler {
      type: "constant"
      value: 0
    }
  }
}
layer {
  name: "concat"
  type: "Concat"
  bottom: "lstm1"
  bottom: "embedded_input_sentence"
  bottom: "reshaped_stage_indicator"
  top: "lstm1_video_sequence"
  concat_param {
    concat_dim: 2
  }
}
layer {
  name: "lstm2"
  type: "LSTM"
  bottom: "lstm1_video_sequence"
  bottom: "cont_sentence"
  top: "lstm2"
  recurrent_param {
    num_output: 1000
    weight_filler {
      type: "uniform"
      min: -0.08
      max: 0.08
    }
    bias_filler {
      type: "constant"
      value: 0
    }
  }
}
layer {
  name: "predict"
  type: "InnerProduct"
  bottom: "lstm2"
  top: "predict"
  param {
    lr_mult: 1
    decay_mult: 1
  }
  param {
    lr_mult: 2
    decay_mult: 0
  }
  inner_product_param {
    num_output: 46168
    weight_filler {
      type: "uniform"
      min: -0.08
      max: 0.08
    }
    bias_filler {
      type: "constant"
      value: 0
    }
    axis: 2
  }
}
layer {
  name: "probs"
  type: "Softmax"
  bottom: "predict"
  top: "probs"
  softmax_param {
    axis: 2
  }
}
I0720 16:12:50.136232 17479 layer_factory.hpp:77] Creating layer input
I0720 16:12:50.136250 17479 net.cpp:91] Creating Layer input
I0720 16:12:50.136262 17479 net.cpp:399] input -> frames_fc7
I0720 16:12:50.136281 17479 net.cpp:399] input -> cont_sentence
I0720 16:12:50.136297 17479 net.cpp:399] input -> input_sentence
I0720 16:12:50.136317 17479 net.cpp:399] input -> stage_indicator
I0720 16:12:50.136335 17479 net.cpp:141] Setting up input
I0720 16:12:50.136348 17479 net.cpp:148] Top shape: 1 4096 (4096)
I0720 16:12:50.136358 17479 net.cpp:148] Top shape: 1 1 (1)
I0720 16:12:50.136365 17469 upgrade_proto.cpp:66] Attempting to upgrade input file specified using deprecated input fields: /tmp/cvld5252460401756753542/s2vt.words_to_preds.prototxt
I0720 16:12:50.136368 17479 net.cpp:148] Top shape: 1 1 (1)
I0720 16:12:50.136390 17479 net.cpp:148] Top shape: 1 1 (1)
I0720 16:12:50.136389 17469 upgrade_proto.cpp:69] Successfully upgraded file specified using deprecated input fields.
I0720 16:12:50.136405 17479 net.cpp:156] Memory required for data: 16396
I0720 16:12:50.136415 17479 layer_factory.hpp:77] Creating layer cont_sentence_input_1_split
W0720 16:12:50.136415 17469 upgrade_proto.cpp:71] Note that future Caffe releases will only support input layers and not input fields.
I0720 16:12:50.136430 17479 net.cpp:91] Creating Layer cont_sentence_input_1_split
I0720 16:12:50.136438 17479 net.cpp:425] cont_sentence_input_1_split <- cont_sentence
I0720 16:12:50.136450 17479 net.cpp:399] cont_sentence_input_1_split -> cont_sentence_input_1_split_0
I0720 16:12:50.136459 17479 net.cpp:399] cont_sentence_input_1_split -> cont_sentence_input_1_split_1
I0720 16:12:50.136469 17479 net.cpp:141] Setting up cont_sentence_input_1_split
I0720 16:12:50.136477 17479 net.cpp:148] Top shape: 1 1 (1)
I0720 16:12:50.136482 17479 net.cpp:148] Top shape: 1 1 (1)
I0720 16:12:50.136487 17479 net.cpp:156] Memory required for data: 16404
I0720 16:12:50.136492 17479 layer_factory.hpp:77] Creating layer embed_encoder
I0720 16:12:50.136500 17479 net.cpp:91] Creating Layer embed_encoder
I0720 16:12:50.136505 17479 net.cpp:425] embed_encoder <- frames_fc7
I0720 16:12:50.136513 17479 net.cpp:399] embed_encoder -> embedded_in_frames
I0720 16:12:50.136739 17469 net.cpp:49] Initializing net from parameters: 
name: "s2vt:features_to_lstm"
state {
  phase: TEST
}
layer {
  name: "input"
  type: "Input"
  top: "frames_fc7"
  top: "cont_sentence"
  top: "input_sentence"
  top: "stage_indicator"
  input_param {
    shape {
      dim: 1
      dim: 4096
    }
    shape {
      dim: 1
      dim: 1
    }
    shape {
      dim: 1
      dim: 1
    }
    shape {
      dim: 1
      dim: 1
    }
  }
}
layer {
  name: "embed_encoder"
  type: "InnerProduct"
  bottom: "frames_fc7"
  top: "embedded_in_frames"
  param {
    lr_mult: 1
    decay_mult: 1
  }
  param {
    lr_mult: 2
    decay_mult: 0
  }
  inner_product_param {
    num_output: 500
    weight_filler {
      type: "xavier"
    }
    bias_filler {
      type: "constant"
      value: 0.2
    }
  }
}
layer {
  name: "reshape_frames"
  type: "Reshape"
  bottom: "embedded_in_frames"
  top: "embedded_input_frames"
  reshape_param {
    shape {
      dim: 1
      dim: 1
      dim: 500
    }
  }
}
layer {
  name: "reshape_stage_indicator"
  type: "Reshape"
  bottom: "stage_indicator"
  top: "reshaped_stage_indicator"
  reshape_param {
    shape {
      dim: 1
      dim: 1
      dim: 1
    }
  }
}
layer {
  name: "embedding"
  type: "Embed"
  bottom: "input_sentence"
  top: "embedded_input_sentence"
  param {
    lr_mult: 1
  }
  embed_param {
    num_output: 500
    input_dim: 46168
    bias_term: false
    weight_filler {
      type: "uniform"
      min: -0.08
      max: 0.08
    }
  }
}
layer {
  name: "lstm1"
  type: "LSTM"
  bottom: "embedded_input_frames"
  bottom: "cont_sentence"
  top: "lstm1"
  recurrent_param {
    num_output: 1000
    weight_filler {
      type: "uniform"
      min: -0.08
      max: 0.08
    }
    bias_filler {
      type: "constant"
      value: 0
    }
  }
}
layer {
  name: "concat"
  type: "Concat"
  bottom: "lstm1"
  bottom: "embedded_input_sentence"
  bottom: "reshaped_stage_indicator"
  top: "lstm1_video_sequence"
  concat_param {
    concat_dim: 2
  }
}
layer {
  name: "lstm2"
  type: "LSTM"
  bottom: "lstm1_video_sequence"
  bottom: "cont_sentence"
  top: "lstm2"
  recurrent_param {
    num_output: 1000
    weight_filler {
      type: "uniform"
      min: -0.08
      max: 0.08
    }
    bias_filler {
      type: "constant"
      value: 0
    }
  }
}
layer {
  name: "predict"
  type: "InnerProduct"
  bottom: "lstm2"
  top: "predict"
  param {
    lr_mult: 1
    decay_mult: 1
  }
  param {
    lr_mult: 2
    decay_mult: 0
  }
  inner_product_param {
    num_output: 46168
    weight_filler {
      type: "uniform"
      min: -0.08
      max: 0.08
    }
    bias_filler {
      type: "constant"
      value: 0
    }
    axis: 2
  }
}
layer {
  name: "probs"
  type: "Softmax"
  bottom: "predict"
  top: "probs"
  softmax_param {
    axis: 2
  }
}
I0720 16:12:50.136754 17467 upgrade_proto.cpp:66] Attempting to upgrade input file specified using deprecated input fields: /tmp/cvld5252460401756753542/s2vt.words_to_preds.prototxt
I0720 16:12:50.136776 17467 upgrade_proto.cpp:69] Successfully upgraded file specified using deprecated input fields.
W0720 16:12:50.136785 17467 upgrade_proto.cpp:71] Note that future Caffe releases will only support input layers and not input fields.
I0720 16:12:50.136862 17469 layer_factory.hpp:77] Creating layer input
I0720 16:12:50.136881 17469 net.cpp:91] Creating Layer input
I0720 16:12:50.136893 17469 net.cpp:399] input -> frames_fc7
I0720 16:12:50.136911 17469 net.cpp:399] input -> cont_sentence
I0720 16:12:50.136930 17469 net.cpp:399] input -> input_sentence
I0720 16:12:50.136950 17469 net.cpp:399] input -> stage_indicator
I0720 16:12:50.136948 17495 upgrade_proto.cpp:66] Attempting to upgrade input file specified using deprecated input fields: /tmp/cvld5252460401756753542/s2vt.words_to_preds.prototxt
I0720 16:12:50.136970 17469 net.cpp:141] Setting up input
I0720 16:12:50.136972 17495 upgrade_proto.cpp:69] Successfully upgraded file specified using deprecated input fields.
W0720 16:12:50.136981 17495 upgrade_proto.cpp:71] Note that future Caffe releases will only support input layers and not input fields.
I0720 16:12:50.136982 17469 net.cpp:148] Top shape: 1 4096 (4096)
I0720 16:12:50.137006 17469 net.cpp:148] Top shape: 1 1 (1)
I0720 16:12:50.137017 17469 net.cpp:148] Top shape: 1 1 (1)
I0720 16:12:50.137027 17469 net.cpp:148] Top shape: 1 1 (1)
I0720 16:12:50.137034 17469 net.cpp:156] Memory required for data: 16396
I0720 16:12:50.137042 17469 layer_factory.hpp:77] Creating layer cont_sentence_input_1_split
I0720 16:12:50.137055 17469 net.cpp:91] Creating Layer cont_sentence_input_1_split
I0720 16:12:50.137056 17465 upgrade_proto.cpp:66] Attempting to upgrade input file specified using deprecated input fields: /tmp/cvld5252460401756753542/s2vt.words_to_preds.prototxt
I0720 16:12:50.137064 17469 net.cpp:425] cont_sentence_input_1_split <- cont_sentence
I0720 16:12:50.137076 17465 upgrade_proto.cpp:69] Successfully upgraded file specified using deprecated input fields.
I0720 16:12:50.137078 17469 net.cpp:399] cont_sentence_input_1_split -> cont_sentence_input_1_split_0
W0720 16:12:50.137089 17465 upgrade_proto.cpp:71] Note that future Caffe releases will only support input layers and not input fields.
I0720 16:12:50.137073 17467 net.cpp:49] Initializing net from parameters: 
name: "s2vt:features_to_lstm"
state {
  phase: TEST
}
layer {
  name: "input"
  type: "Input"
  top: "frames_fc7"
  top: "cont_sentence"
  top: "input_sentence"
  top: "stage_indicator"
  input_param {
    shape {
      dim: 1
      dim: 4096
    }
    shape {
      dim: 1
      dim: 1
    }
    shape {
      dim: 1
      dim: 1
    }
    shape {
      dim: 1
      dim: 1
    }
  }
}
layer {
  name: "embed_encoder"
  type: "InnerProduct"
  bottom: "frames_fc7"
  top: "embedded_in_frames"
  param {
    lr_mult: 1
    decay_mult: 1
  }
  param {
    lr_mult: 2
    decay_mult: 0
  }
  inner_product_param {
    num_output: 500
    weight_filler {
      type: "xavier"
    }
    bias_filler {
      type: "constant"
      value: 0.2
    }
  }
}
layer {
  name: "reshape_frames"
  type: "Reshape"
  bottom: "embedded_in_frames"
  top: "embedded_input_frames"
  reshape_param {
    shape {
      dim: 1
      dim: 1
      dim: 500
    }
  }
}
layer {
  name: "reshape_stage_indicator"
  type: "Reshape"
  bottom: "stage_indicator"
  top: "reshaped_stage_indicator"
  reshape_param {
    shape {
      dim: 1
      dim: 1
      dim: 1
    }
  }
}
layer {
  name: "embedding"
  type: "Embed"
  bottom: "input_sentence"
  top: "embedded_input_sentence"
  param {
    lr_mult: 1
  }
  embed_param {
    num_output: 500
    input_dim: 46168
    bias_term: false
    weight_filler {
      type: "uniform"
      min: -0.08
      max: 0.08
    }
  }
}
layer {
  name: "lstm1"
  type: "LSTM"
  bottom: "embedded_input_frames"
  bottom: "cont_sentence"
  top: "lstm1"
  recurrent_param {
    num_output: 1000
    weight_filler {
      type: "uniform"
      min: -0.08
      max: 0.08
    }
    bias_filler {
      type: "constant"
      value: 0
    }
  }
}
layer {
  name: "concat"
  type: "Concat"
  bottom: "lstm1"
  bottom: "embedded_input_sentence"
  bottom: "reshaped_stage_indicator"
  top: "lstm1_video_sequence"
  concat_param {
    concat_dim: 2
  }
}
layer {
  name: "lstm2"
  type: "LSTM"
  bottom: "lstm1_video_sequence"
  bottom: "cont_sentence"
  top: "lstm2"
  recurrent_param {
    num_output: 1000
    weight_filler {
      type: "uniform"
      min: -0.08
      max: 0.08
    }
    bias_filler {
      type: "constant"
      value: 0
    }
  }
}
layer {
  name: "predict"
  type: "InnerProduct"
  bottom: "lstm2"
  top: "predict"
  param {
    lr_mult: 1
    decay_mult: 1
  }
  param {
    lr_mult: 2
    decay_mult: 0
  }
  inner_product_param {
    num_output: 46168
    weight_filler {
      type: "uniform"
      min: -0.08
      max: 0.08
    }
    bias_filler {
      type: "constant"
      value: 0
    }
    axis: 2
  }
}
layer {
  name: "probs"
  type: "Softmax"
  bottom: "predict"
  top: "probs"
  softmax_param {
    axis: 2
  }
}
I0720 16:12:50.137106 17469 net.cpp:399] cont_sentence_input_1_split -> cont_sentence_input_1_split_1
I0720 16:12:50.137122 17469 net.cpp:141] Setting up cont_sentence_input_1_split
I0720 16:12:50.137135 17469 net.cpp:148] Top shape: 1 1 (1)
I0720 16:12:50.137145 17469 net.cpp:148] Top shape: 1 1 (1)
I0720 16:12:50.137151 17469 net.cpp:156] Memory required for data: 16404
I0720 16:12:50.137159 17469 layer_factory.hpp:77] Creating layer embed_encoder
I0720 16:12:50.137177 17469 net.cpp:91] Creating Layer embed_encoder
I0720 16:12:50.137187 17469 net.cpp:425] embed_encoder <- frames_fc7
I0720 16:12:50.137200 17469 net.cpp:399] embed_encoder -> embedded_in_frames
I0720 16:12:50.137207 17467 layer_factory.hpp:77] Creating layer input
I0720 16:12:50.137223 17467 net.cpp:91] Creating Layer input
I0720 16:12:50.137233 17467 net.cpp:399] input -> frames_fc7
I0720 16:12:50.137249 17467 net.cpp:399] input -> cont_sentence
I0720 16:12:50.137264 17467 net.cpp:399] input -> input_sentence
I0720 16:12:50.137346 17489 upgrade_proto.cpp:66] Attempting to upgrade input file specified using deprecated input fields: /tmp/cvld5252460401756753542/s2vt.words_to_preds.prototxt
I0720 16:12:50.137348 17467 net.cpp:399] input -> stage_indicator
I0720 16:12:50.137375 17489 upgrade_proto.cpp:69] Successfully upgraded file specified using deprecated input fields.
I0720 16:12:50.137382 17467 net.cpp:141] Setting up input
W0720 16:12:50.137387 17489 upgrade_proto.cpp:71] Note that future Caffe releases will only support input layers and not input fields.
I0720 16:12:50.137393 17467 net.cpp:148] Top shape: 1 4096 (4096)
I0720 16:12:50.137403 17467 net.cpp:148] Top shape: 1 1 (1)
I0720 16:12:50.137411 17467 net.cpp:148] Top shape: 1 1 (1)
I0720 16:12:50.137420 17467 net.cpp:148] Top shape: 1 1 (1)
I0720 16:12:50.137428 17467 net.cpp:156] Memory required for data: 16396
I0720 16:12:50.137419 17465 net.cpp:49] Initializing net from parameters: 
name: "s2vt:features_to_lstm"
state {
  phase: TEST
}
layer {
  name: "input"
  type: "Input"
  top: "frames_fc7"
  top: "cont_sentence"
  top: "input_sentence"
  top: "stage_indicator"
  input_param {
    shape {
      dim: 1
      dim: 4096
    }
    shape {
      dim: 1
      dim: 1
    }
    shape {
      dim: 1
      dim: 1
    }
    shape {
      dim: 1
      dim: 1
    }
  }
}
layer {
  name: "embed_encoder"
  type: "InnerProduct"
  bottom: "frames_fc7"
  top: "embedded_in_frames"
  param {
    lr_mult: 1
    decay_mult: 1
  }
  param {
    lr_mult: 2
    decay_mult: 0
  }
  inner_product_param {
    num_output: 500
    weight_filler {
      type: "xavier"
    }
    bias_filler {
      type: "constant"
      value: 0.2
    }
  }
}
layer {
  name: "reshape_frames"
  type: "Reshape"
  bottom: "embedded_in_frames"
  top: "embedded_input_frames"
  reshape_param {
    shape {
      dim: 1
      dim: 1
      dim: 500
    }
  }
}
layer {
  name: "reshape_stage_indicator"
  type: "Reshape"
  bottom: "stage_indicator"
  top: "reshaped_stage_indicator"
  reshape_param {
    shape {
      dim: 1
      dim: 1
      dim: 1
    }
  }
}
layer {
  name: "embedding"
  type: "Embed"
  bottom: "input_sentence"
  top: "embedded_input_sentence"
  param {
    lr_mult: 1
  }
  embed_param {
    num_output: 500
    input_dim: 46168
    bias_term: false
    weight_filler {
      type: "uniform"
      min: -0.08
      max: 0.08
    }
  }
}
layer {
  name: "lstm1"
  type: "LSTM"
  bottom: "embedded_input_frames"
  bottom: "cont_sentence"
  top: "lstm1"
  recurrent_param {
    num_output: 1000
    weight_filler {
      type: "uniform"
      min: -0.08
      max: 0.08
    }
    bias_filler {
      type: "constant"
      value: 0
    }
  }
}
layer {
  name: "concat"
  type: "Concat"
  bottom: "lstm1"
  bottom: "embedded_input_sentence"
  bottom: "reshaped_stage_indicator"
  top: "lstm1_video_sequence"
  concat_param {
    concat_dim: 2
  }
}
layer {
  name: "lstm2"
  type: "LSTM"
  bottom: "lstm1_video_sequence"
  bottom: "cont_sentence"
  top: "lstm2"
  recurrent_param {
    num_output: 1000
    weight_filler {
      type: "uniform"
      min: -0.08
      max: 0.08
    }
    bias_filler {
      type: "constant"
      value: 0
    }
  }
}
layer {
  name: "predict"
  type: "InnerProduct"
  bottom: "lstm2"
  top: "predict"
  param {
    lr_mult: 1
    decay_mult: 1
  }
  param {
    lr_mult: 2
    decay_mult: 0
  }
  inner_product_param {
    num_output: 46168
    weight_filler {
      type: "uniform"
      min: -0.08
      max: 0.08
    }
    bias_filler {
      type: "constant"
      value: 0
    }
    axis: 2
  }
}
layer {
  name: "probs"
  type: "Softmax"
  bottom: "predict"
  top: "probs"
  softmax_param {
    axis: 2
  }
}
I0720 16:12:50.137434 17467 layer_factory.hpp:77] Creating layer cont_sentence_input_1_split
I0720 16:12:50.137419 17495 net.cpp:49] Initializing net from parameters: 
name: "s2vt:features_to_lstm"
state {
  phase: TEST
}
layer {
  name: "input"
  type: "Input"
  top: "frames_fc7"
  top: "cont_sentence"
  top: "input_sentence"
  top: "stage_indicator"
  input_param {
    shape {
      dim: 1
      dim: 4096
    }
    shape {
      dim: 1
      dim: 1
    }
    shape {
      dim: 1
      dim: 1
    }
    shape {
      dim: 1
      dim: 1
    }
  }
}
layer {
  name: "embed_encoder"
  type: "InnerProduct"
  bottom: "frames_fc7"
  top: "embedded_in_frames"
  param {
    lr_mult: 1
    decay_mult: 1
  }
  param {
    lr_mult: 2
    decay_mult: 0
  }
  inner_product_param {
    num_output: 500
    weight_filler {
      type: "xavier"
    }
    bias_filler {
      type: "constant"
      value: 0.2
    }
  }
}
layer {
  name: "reshape_frames"
  type: "Reshape"
  bottom: "embedded_in_frames"
  top: "embedded_input_frames"
  reshape_param {
    shape {
      dim: 1
      dim: 1
      dim: 500
    }
  }
}
layer {
  name: "reshape_stage_indicator"
  type: "Reshape"
  bottom: "stage_indicator"
  top: "reshaped_stage_indicator"
  reshape_param {
    shape {
      dim: 1
      dim: 1
      dim: 1
    }
  }
}
layer {
  name: "embedding"
  type: "Embed"
  bottom: "input_sentence"
  top: "embedded_input_sentence"
  param {
    lr_mult: 1
  }
  embed_param {
    num_output: 500
    input_dim: 46168
    bias_term: false
    weight_filler {
      type: "uniform"
      min: -0.08
      max: 0.08
    }
  }
}
layer {
  name: "lstm1"
  type: "LSTM"
  bottom: "embedded_input_frames"
  bottom: "cont_sentence"
  top: "lstm1"
  recurrent_param {
    num_output: 1000
    weight_filler {
      type: "uniform"
      min: -0.08
      max: 0.08
    }
    bias_filler {
      type: "constant"
      value: 0
    }
  }
}
layer {
  name: "concat"
  type: "Concat"
  bottom: "lstm1"
  bottom: "embedded_input_sentence"
  bottom: "reshaped_stage_indicator"
  top: "lstm1_video_sequence"
  concat_param {
    concat_dim: 2
  }
}
layer {
  name: "lstm2"
  type: "LSTM"
  bottom: "lstm1_video_sequence"
  bottom: "cont_sentence"
  top: "lstm2"
  recurrent_param {
    num_output: 1000
    weight_filler {
      type: "uniform"
      min: -0.08
      max: 0.08
    }
    bias_filler {
      type: "constant"
      value: 0
    }
  }
}
layer {
  name: "predict"
  type: "InnerProduct"
  bottom: "lstm2"
  top: "predict"
  param {
    lr_mult: 1
    decay_mult: 1
  }
  param {
    lr_mult: 2
    decay_mult: 0
  }
  inner_product_param {
    num_output: 46168
    weight_filler {
      type: "uniform"
      min: -0.08
      max: 0.08
    }
    bias_filler {
      type: "constant"
      value: 0
    }
    axis: 2
  }
}
layer {
  name: "probs"
  type: "Softmax"
  bottom: "predict"
  top: "probs"
  softmax_param {
    axis: 2
  }
}
I0720 16:12:50.137447 17467 net.cpp:91] Creating Layer cont_sentence_input_1_split
I0720 16:12:50.137462 17467 net.cpp:425] cont_sentence_input_1_split <- cont_sentence
I0720 16:12:50.137473 17467 net.cpp:399] cont_sentence_input_1_split -> cont_sentence_input_1_split_0
I0720 16:12:50.137485 17467 net.cpp:399] cont_sentence_input_1_split -> cont_sentence_input_1_split_1
I0720 16:12:50.137498 17467 net.cpp:141] Setting up cont_sentence_input_1_split
I0720 16:12:50.137509 17467 net.cpp:148] Top shape: 1 1 (1)
I0720 16:12:50.137518 17467 net.cpp:148] Top shape: 1 1 (1)
I0720 16:12:50.137524 17467 net.cpp:156] Memory required for data: 16404
I0720 16:12:50.137531 17467 layer_factory.hpp:77] Creating layer embed_encoder
I0720 16:12:50.137537 17491 upgrade_proto.cpp:66] Attempting to upgrade input file specified using deprecated input fields: /tmp/cvld5252460401756753542/s2vt.words_to_preds.prototxt
I0720 16:12:50.137544 17467 net.cpp:91] Creating Layer embed_encoder
…
I0720 16:12:50.137599 17465 net.cpp:399] input -> frames_fc7
I0720 16:12:50.137616 17465 net.cpp:399] input -> cont_sentence
I0720 16:12:50.137552 17495 layer_factory.hpp:77] Creating layer input
I0720 16:12:50.137634 17465 net.cpp:399] input -> input_sentence
I0720 16:12:50.137635 17495 net.cpp:91] Creating Layer input
I0720 16:12:50.137647 17495 net.cpp:399] input -> frames_fc7
I0720 16:12:50.137651 17465 net.cpp:399] input -> stage_indicator
I0720 16:12:50.137663 17495 net.cpp:399] input -> cont_sentence
I0720 16:12:50.137670 17465 net.cpp:141] Setting up input
I0720 16:12:50.137681 17465 net.cpp:148] Top shape: 1 4096 (4096)
I0720 16:12:50.137681 17495 net.cpp:399] input -> input_sentence
I0720 16:12:50.137699 17489 net.cpp:49] Initializing net from parameters: 
name: "s2vt:features_to_lstm"
state {
  phase: TEST
}
layer {
  name: "input"
  type: "Input"
  top: "frames_fc7"
  top: "cont_sentence"
  top: "input_sentence"
  top: "stage_indicator"
  input_param {
    shape {
      dim: 1
      dim: 4096
    }
    shape {
      dim: 1
      dim: 1
    }
    shape {
      dim: 1
      dim: 1
    }
    shape {
      dim: 1
      dim: 1
    }
  }
}
layer {
  name: "embed_encoder"
  type: "InnerProduct"
  bottom: "frames_fc7"
  top: "embedded_in_frames"
  param {
    lr_mult: 1
    decay_mult: 1
  }
  param {
    lr_mult: 2
    decay_mult: 0
  }
  inner_product_param {
    num_output: 500
    weight_filler {
      type: "xavier"
    }
    bias_filler {
      type: "constant"
      value: 0.2
    }
  }
}
layer {
  name: "reshape_frames"
  type: "Reshape"
  bottom: "embedded_in_frames"
  top: "embedded_input_frames"
  reshape_param {
    shape {
      dim: 1
      dim: 1
      dim: 500
    }
  }
}
layer {
  name: "reshape_stage_indicator"
  type: "Reshape"
  bottom: "stage_indicator"
  top: "reshaped_stage_indicator"
  reshape_param {
    shape {
      dim: 1
      dim: 1
      dim: 1
    }
  }
}
layer {
  name: "embedding"
  type: "Embed"
  bottom: "input_sentence"
  top: "embedded_input_sentence"
  param {
    lr_mult: 1
  }
  embed_param {
    num_output: 500
    input_dim: 46168
    bias_term: false
    weight_filler {
      type: "uniform"
      min: -0.08
      max: 0.08
    }
  }
}
layer {
  name: "lstm1"
  type: "LSTM"
  bottom: "embedded_input_frames"
  bottom: "cont_sentence"
  top: "lstm1"
  recurrent_param {
    num_output: 1000
    weight_filler {
      type: "uniform"
      min: -0.08
      max: 0.08
    }
    bias_filler {
      type: "constant"
      value: 0
    }
  }
}
layer {
  name: "concat"
  type: "Concat"
  bottom: "lstm1"
  bottom: "embedded_input_sentence"
  bottom: "reshaped_stage_indicator"
  top: "lstm1_video_sequence"
  concat_param {
    concat_dim: 2
  }
}
layer {
  name: "lstm2"
  type: "LSTM"
  bottom: "lstm1_video_sequence"
  bottom: "cont_sentence"
  top: "lstm2"
  recurrent_param {
    num_output: 1000
    weight_filler {
      type: "uniform"
      min: -0.08
      max: 0.08
    }
    bias_filler {
      type: "constant"
      value: 0
    }
  }
}
layer {
  name: "predict"
  type: "InnerProduct"
  bottom: "lstm2"
  top: "predict"
  param {
    lr_mult: 1
    decay_mult: 1
  }
  param {
    lr_mult: 2
    decay_mult: 0
  }
  inner_product_param {
    num_output: 46168
    weight_filler {
      type: "uniform"
      min: -0.08
      max: 0.08
    }
    bias_filler {
      type: "constant"
      value: 0
    }
    axis: 2
  }
}
layer {
  name: "probs"
  type: "Softmax"
  bottom: "predict"
  top: "probs"
  softmax_param {
    axis: 2
  }
}
I0720 16:12:50.137701 17465 net.cpp:148] Top shape: 1 1 (1)
I0720 16:12:50.137717 17495 net.cpp:399] input -> stage_indicator
I0720 16:12:50.137735 17465 net.cpp:148] Top shape: 1 1 (1)
I0720 16:12:50.137744 17465 net.cpp:148] Top shape: 1 1 (1)
I0720 16:12:50.137751 17495 net.cpp:141] Setting up input
I0720 16:12:50.137751 17465 net.cpp:156] Memory required for data: 16396
I0720 16:12:50.137776 17495 net.cpp:148] Top shape: 1 4096 (4096)
I0720 16:12:50.137778 17465 layer_factory.hpp:77] Creating layer cont_sentence_input_1_split
I0720 16:12:50.137790 17495 net.cpp:148] Top shape: 1 1 (1)
I0720 16:12:50.137795 17465 net.cpp:91] Creating Layer cont_sentence_input_1_split
I0720 16:12:50.137794 17477 upgrade_proto.cpp:66] Attempting to upgrade input file specified using deprecated input fields: /tmp/cvld5252460401756753542/s2vt.words_to_preds.prototxt
I0720 16:12:50.137805 17465 net.cpp:425] cont_sentence_input_1_split <- cont_sentence
I0720 16:12:50.137819 17465 net.cpp:399] cont_sentence_input_1_split -> cont_sentence_input_1_split_0
I0720 16:12:50.137822 17477 upgrade_proto.cpp:69] Successfully upgraded file specified using deprecated input fields.
I0720 16:12:50.137800 17495 net.cpp:148] Top shape: 1 1 (1)
I0720 16:12:50.137835 17465 net.cpp:399] cont_sentence_input_1_split -> cont_sentence_input_1_split_1
I0720 16:12:50.137842 17489 layer_factory.hpp:77] Creating layer input
I0720 16:12:50.137850 17495 net.cpp:148] Top shape: 1 1 (1)
W0720 16:12:50.137835 17477 upgrade_proto.cpp:71] Note that future Caffe releases will only support input layers and not input fields.
I0720 16:12:50.137856 17465 net.cpp:141] Setting up cont_sentence_input_1_split
I0720 16:12:50.137864 17489 net.cpp:91] Creating Layer input
I0720 16:12:50.137873 17465 net.cpp:148] Top shape: 1 1 (1)
I0720 16:12:50.137878 17489 net.cpp:399] input -> frames_fc7
I0720 16:12:50.137883 17465 net.cpp:148] Top shape: 1 1 (1)
I0720 16:12:50.137892 17465 net.cpp:156] Memory required for data: 16404
I0720 16:12:50.137858 17495 net.cpp:156] Memory required for data: 16396
I0720 16:12:50.137897 17489 net.cpp:399] input -> cont_sentence
I0720 16:12:50.137902 17495 layer_factory.hpp:77] Creating layer cont_sentence_input_1_split
I0720 16:12:50.137899 17465 layer_factory.hpp:77] Creating layer embed_encoder
I0720 16:12:50.137917 17495 net.cpp:91] Creating Layer cont_sentence_input_1_split
I0720 16:12:50.137922 17489 net.cpp:399] input -> input_sentence
I0720 16:12:50.137924 17495 net.cpp:425] cont_sentence_input_1_split <- cont_sentence
I0720 16:12:50.137926 17465 net.cpp:91] Creating Layer embed_encoder
I0720 16:12:50.137931 17491 net.cpp:49] Initializing net from parameters: 
name: "s2vt:features_to_lstm"
state {
  phase: TEST
}
layer {
  name: "input"
  type: "Input"
  top: "frames_fc7"
  top: "cont_sentence"
  top: "input_sentence"
  top: "stage_indicator"
  input_param {
    shape {
      dim: 1
      dim: 4096
    }
    shape {
      dim: 1
      dim: 1
    }
    shape {
      dim: 1
      dim: 1
    }
    shape {
      dim: 1
      dim: 1
    }
  }
}
layer {
  name: "embed_encoder"
  type: "InnerProduct"
  bottom: "frames_fc7"
  top: "embedded_in_frames"
  param {
    lr_mult: 1
    decay_mult: 1
  }
  param {
    lr_mult: 2
    decay_mult: 0
  }
  inner_product_param {
    num_output: 500
    weight_filler {
      type: "xavier"
    }
    bias_filler {
      type: "constant"
      value: 0.2
    }
  }
}
layer {
  name: "reshape_frames"
  type: "Reshape"
  bottom: "embedded_in_frames"
  top: "embedded_input_frames"
  reshape_param {
    shape {
      dim: 1
      dim: 1
      dim: 500
    }
  }
}
layer {
  name: "reshape_stage_indicator"
  type: "Reshape"
  bottom: "stage_indicator"
  top: "reshaped_stage_indicator"
  reshape_param {
    shape {
      dim: 1
      dim: 1
      dim: 1
    }
  }
}
layer {
  name: "embedding"
  type: "Embed"
  bottom: "input_sentence"
  top: "embedded_input_sentence"
  param {
    lr_mult: 1
  }
  embed_param {
    num_output: 500
    input_dim: 46168
    bias_term: false
    weight_filler {
      type: "uniform"
      min: -0.08
      max: 0.08
    }
  }
}
layer {
  name: "lstm1"
  type: "LSTM"
  bottom: "embedded_input_frames"
  bottom: "cont_sentence"
  top: "lstm1"
  recurrent_param {
    num_output: 1000
    weight_filler {
      type: "uniform"
      min: -0.08
      max: 0.08
    }
    bias_filler {
      type: "constant"
      value: 0
    }
  }
}
layer {
  name: "concat"
  type: "Concat"
  bottom: "lstm1"
  bottom: "embedded_input_sentence"
  bottom: "reshaped_stage_indicator"
  top: "lstm1_video_sequence"
  concat_param {
    concat_dim: 2
  }
}
layer {
  name: "lstm2"
  type: "LSTM"
  bottom: "lstm1_video_sequence"
  bottom: "cont_sentence"
  top: "lstm2"
  recurrent_param {
    num_output: 1000
    weight_filler {
      type: "uniform"
      min: -0.08
      max: 0.08
    }
    bias_filler {
      type: "constant"
      value: 0
    }
  }
}
layer {
  name: "predict"
  type: "InnerProduct"
  bottom: "lstm2"
  top: "predict"
  param {
    lr_mult: 1
    decay_mult: 1
  }
  param {
    lr_mult: 2
    decay_mult: 0
  }
  inner_product_param {
    num_output: 46168
    weight_filler {
      type: "uniform"
      min: -0.08
      max: 0.08
    }
    bias_filler {
      type: "constant"
      value: 0
    }
    axis: 2
  }
}
layer {
  name: "probs"
  type: "Softmax"
  bottom: "predict"
  top: "probs"
  softmax_param {
    axis: 2
  }
}
I0720 16:12:50.137941 17495 net.cpp:399] cont_sentence_input_1_split -> cont_sentence_input_1_split_0
I0720 16:12:50.137941 17465 net.cpp:425] embed_encoder <- frames_fc7
I0720 16:12:50.137943 17489 net.cpp:399] input -> stage_indicator
I0720 16:12:50.137975 17495 net.cpp:399] cont_sentence_input_1_split -> cont_sentence_input_1_split_1
I0720 16:12:50.137975 17465 net.cpp:399] embed_encoder -> embedded_in_frames
I0720 16:12:50.137986 17489 net.cpp:141] Setting up input
I0720 16:12:50.137998 17495 net.cpp:141] Setting up cont_sentence_input_1_split
I0720 16:12:50.138000 17489 net.cpp:148] Top shape: 1 4096 (4096)
I0720 16:12:50.138023 17495 net.cpp:148] Top shape: 1 1 (1)
I0720 16:12:50.138026 17489 net.cpp:148] Top shape: 1 1 (1)
I0720 16:12:50.138036 17495 net.cpp:148] Top shape: 1 1 (1)
I0720 16:12:50.138039 17489 net.cpp:148] Top shape: 1 1 (1)
I0720 16:12:50.138047 17495 net.cpp:156] Memory required for data: 16404
I0720 16:12:50.138051 17489 net.cpp:148] Top shape: 1 1 (1)
I0720 16:12:50.138057 17495 layer_factory.hpp:77] Creating layer embed_encoder
I0720 16:12:50.138059 17489 net.cpp:156] Memory required for data: 16396
I0720 16:12:50.138069 17489 layer_factory.hpp:77] Creating layer cont_sentence_input_1_split
I0720 16:12:50.138074 17491 layer_factory.hpp:77] Creating layer input
I0720 16:12:50.138083 17489 net.cpp:91] Creating Layer cont_sentence_input_1_split
I0720 16:12:50.138077 17495 net.cpp:91] Creating Layer embed_encoder
I0720 16:12:50.138093 17489 net.cpp:425] cont_sentence_input_1_split <- cont_sentence
I0720 16:12:50.138099 17495 net.cpp:425] embed_encoder <- frames_fc7
I0720 16:12:50.138101 17491 net.cpp:91] Creating Layer input
I0720 16:12:50.138106 17489 net.cpp:399] cont_sentence_input_1_split -> cont_sentence_input_1_split_0
I0720 16:12:50.138114 17491 net.cpp:399] input -> frames_fc7
I0720 16:12:50.138123 17489 net.cpp:399] cont_sentence_input_1_split -> cont_sentence_input_1_split_1
I0720 16:12:50.138115 17495 net.cpp:399] embed_encoder -> embedded_in_frames
I0720 16:12:50.138139 17491 net.cpp:399] input -> cont_sentence
I0720 16:12:50.138145 17489 net.cpp:141] Setting up cont_sentence_input_1_split
I0720 16:12:50.138156 17491 net.cpp:399] input -> input_sentence
I0720 16:12:50.138159 17489 net.cpp:148] Top shape: 1 1 (1)
I0720 16:12:50.138172 17477 net.cpp:49] Initializing net from parameters: 
name: "s2vt:features_to_lstm"
state {
  phase: TEST
}
layer {
  name: "input"
  type: "Input"
  top: "frames_fc7"
  top: "cont_sentence"
  top: "input_sentence"
  top: "stage_indicator"
  input_param {
    shape {
      dim: 1
      dim: 4096
    }
    shape {
      dim: 1
      dim: 1
    }
    shape {
      dim: 1
      dim: 1
    }
    shape {
      dim: 1
      dim: 1
    }
  }
}
layer {
  name: "embed_encoder"
  type: "InnerProduct"
  bottom: "frames_fc7"
  top: "embedded_in_frames"
  param {
    lr_mult: 1
    decay_mult: 1
  }
  param {
    lr_mult: 2
    decay_mult: 0
  }
  inner_product_param {
    num_output: 500
    weight_filler {
      type: "xavier"
    }
    bias_filler {
      type: "constant"
      value: 0.2
    }
  }
}
layer {
  name: "reshape_frames"
  type: "Reshape"
  bottom: "embedded_in_frames"
  top: "embedded_input_frames"
  reshape_param {
    shape {
      dim: 1
      dim: 1
      dim: 500
    }
  }
}
layer {
  name: "reshape_stage_indicator"
  type: "Reshape"
  bottom: "stage_indicator"
  top: "reshaped_stage_indicator"
  reshape_param {
    shape {
      dim: 1
      dim: 1
      dim: 1
    }
  }
}
layer {
  name: "embedding"
  type: "Embed"
  bottom: "input_sentence"
  top: "embedded_input_sentence"
  param {
    lr_mult: 1
  }
  embed_param {
    num_output: 500
    input_dim: 46168
    bias_term: false
    weight_filler {
      type: "uniform"
      min: -0.08
      max: 0.08
    }
  }
}
layer {
  name: "lstm1"
  type: "LSTM"
  bottom: "embedded_input_frames"
  bottom: "cont_sentence"
  top: "lstm1"
  recurrent_param {
    num_output: 1000
    weight_filler {
      type: "uniform"
      min: -0.08
      max: 0.08
    }
    bias_filler {
      type: "constant"
      value: 0
    }
  }
}
layer {
  name: "concat"
  type: "Concat"
  bottom: "lstm1"
  bottom: "embedded_input_sentence"
  bottom: "reshaped_stage_indicator"
  top: "lstm1_video_sequence"
  concat_param {
    concat_dim: 2
  }
}
layer {
  name: "lstm2"
  type: "LSTM"
  bottom: "lstm1_video_sequence"
  bottom: "cont_sentence"
  top: "lstm2"
  recurrent_param {
    num_output: 1000
    weight_filler {
      type: "uniform"
      min: -0.08
      max: 0.08
    }
    bias_filler {
      type: "constant"
      value: 0
    }
  }
}
layer {
  name: "predict"
  type: "InnerProduct"
  bottom: "lstm2"
  top: "predict"
  param {
    lr_mult: 1
    decay_mult: 1
  }
  param {
    lr_mult: 2
    decay_mult: 0
  }
  inner_product_param {
    num_output: 46168
    weight_filler {
      type: "uniform"
      min: -0.08
      max: 0.08
    }
    bias_filler {
      type: "constant"
      value: 0
    }
    axis: 2
  }
}
layer {
  name: "probs"
  type: "Softmax"
  bottom: "predict"
  top: "probs"
  softmax_param {
    axis: 2
  }
}
I0720 16:12:50.138187 17489 net.cpp:148] Top shape: 1 1 (1)
I0720 16:12:50.138190 17491 net.cpp:399] input -> stage_indicator
I0720 16:12:50.138195 17489 net.cpp:156] Memory required for data: 16404
I0720 16:12:50.138205 17489 layer_factory.hpp:77] Creating layer embed_encoder
I0720 16:12:50.138209 17491 net.cpp:141] Setting up input
I0720 16:12:50.138222 17489 net.cpp:91] Creating Layer embed_encoder
I0720 16:12:50.138223 17491 net.cpp:148] Top shape: 1 4096 (4096)
I0720 16:12:50.138245 17489 net.cpp:425] embed_encoder <- frames_fc7
I0720 16:12:50.138254 17491 net.cpp:148] Top shape: 1 1 (1)
I0720 16:12:50.138259 17489 net.cpp:399] embed_encoder -> embedded_in_frames
I0720 16:12:50.138267 17491 net.cpp:148] Top shape: 1 1 (1)
I0720 16:12:50.138276 17491 net.cpp:148] Top shape: 1 1 (1)
I0720 16:12:50.138284 17491 net.cpp:156] Memory required for data: 16396
I0720 16:12:50.138293 17491 layer_factory.hpp:77] Creating layer cont_sentence_input_1_split
I0720 16:12:50.138306 17491 net.cpp:91] Creating Layer cont_sentence_input_1_split
I0720 16:12:50.138315 17491 net.cpp:425] cont_sentence_input_1_split <- cont_sentence
I0720 16:12:50.138319 17477 layer_factory.hpp:77] Creating layer input
I0720 16:12:50.138329 17491 net.cpp:399] cont_sentence_input_1_split -> cont_sentence_input_1_split_0
I0720 16:12:50.138341 17477 net.cpp:91] Creating Layer input
I0720 16:12:50.138345 17491 net.cpp:399] cont_sentence_input_1_split -> cont_sentence_input_1_split_1
I0720 16:12:50.138355 17477 net.cpp:399] input -> frames_fc7
I0720 16:12:50.138361 17491 net.cpp:141] Setting up cont_sentence_input_1_split
I0720 16:12:50.138375 17491 net.cpp:148] Top shape: 1 1 (1)
I0720 16:12:50.138375 17477 net.cpp:399] input -> cont_sentence
I0720 16:12:50.138391 17491 net.cpp:148] Top shape: 1 1 (1)
I0720 16:12:50.138399 17491 net.cpp:156] Memory required for data: 16404
I0720 16:12:50.138406 17477 net.cpp:399] input -> input_sentence
I0720 16:12:50.138407 17491 layer_factory.hpp:77] Creating layer embed_encoder
I0720 16:12:50.138437 17477 net.cpp:399] input -> stage_indicator
I0720 16:12:50.138450 17491 net.cpp:91] Creating Layer embed_encoder
I0720 16:12:50.138461 17491 net.cpp:425] embed_encoder <- frames_fc7
I0720 16:12:50.138464 17477 net.cpp:141] Setting up input
I0720 16:12:50.138475 17491 net.cpp:399] embed_encoder -> embedded_in_frames
I0720 16:12:50.138478 17477 net.cpp:148] Top shape: 1 4096 (4096)
I0720 16:12:50.138489 17477 net.cpp:148] Top shape: 1 1 (1)
I0720 16:12:50.138499 17477 net.cpp:148] Top shape: 1 1 (1)
I0720 16:12:50.138509 17477 net.cpp:148] Top shape: 1 1 (1)
I0720 16:12:50.138514 17477 net.cpp:156] Memory required for data: 16396
I0720 16:12:50.138523 17477 layer_factory.hpp:77] Creating layer cont_sentence_input_1_split
I0720 16:12:50.138537 17477 net.cpp:91] Creating Layer cont_sentence_input_1_split
I0720 16:12:50.138547 17477 net.cpp:425] cont_sentence_input_1_split <- cont_sentence
I0720 16:12:50.138559 17477 net.cpp:399] cont_sentence_input_1_split -> cont_sentence_input_1_split_0
I0720 16:12:50.138574 17477 net.cpp:399] cont_sentence_input_1_split -> cont_sentence_input_1_split_1
I0720 16:12:50.138591 17477 net.cpp:141] Setting up cont_sentence_input_1_split
I0720 16:12:50.138604 17477 net.cpp:148] Top shape: 1 1 (1)
I0720 16:12:50.138613 17477 net.cpp:148] Top shape: 1 1 (1)
I0720 16:12:50.138622 17477 net.cpp:156] Memory required for data: 16404
I0720 16:12:50.138630 17477 layer_factory.hpp:77] Creating layer embed_encoder
I0720 16:12:50.138645 17477 net.cpp:91] Creating Layer embed_encoder
I0720 16:12:50.138653 17477 net.cpp:425] embed_encoder <- frames_fc7
I0720 16:12:50.138667 17477 net.cpp:399] embed_encoder -> embedded_in_frames
I0720 16:12:50.158874 17475 net.cpp:141] Setting up embed_encoder
I0720 16:12:50.158913 17475 net.cpp:148] Top shape: 1 500 (500)
I0720 16:12:50.158921 17475 net.cpp:156] Memory required for data: 18404
I0720 16:12:50.158954 17475 layer_factory.hpp:77] Creating layer reshape_frames
I0720 16:12:50.159008 17475 net.cpp:91] Creating Layer reshape_frames
I0720 16:12:50.159019 17475 net.cpp:425] reshape_frames <- embedded_in_frames
I0720 16:12:50.159032 17475 net.cpp:399] reshape_frames -> embedded_input_frames
I0720 16:12:50.159062 17475 net.cpp:141] Setting up reshape_frames
I0720 16:12:50.159072 17475 net.cpp:148] Top shape: 1 1 500 (500)
I0720 16:12:50.159080 17475 net.cpp:156] Memory required for data: 20404
I0720 16:12:50.159087 17475 layer_factory.hpp:77] Creating layer reshape_stage_indicator
I0720 16:12:50.159101 17475 net.cpp:91] Creating Layer reshape_stage_indicator
I0720 16:12:50.159107 17475 net.cpp:425] reshape_stage_indicator <- stage_indicator
I0720 16:12:50.159148 17475 net.cpp:399] reshape_stage_indicator -> reshaped_stage_indicator
I0720 16:12:50.159167 17475 net.cpp:141] Setting up reshape_stage_indicator
I0720 16:12:50.159178 17475 net.cpp:148] Top shape: 1 1 1 (1)
I0720 16:12:50.159184 17475 net.cpp:156] Memory required for data: 20408
I0720 16:12:50.159191 17475 layer_factory.hpp:77] Creating layer embedding
I0720 16:12:50.159205 17475 net.cpp:91] Creating Layer embedding
I0720 16:12:50.159240 17475 net.cpp:425] embedding <- input_sentence
I0720 16:12:50.159253 17475 net.cpp:399] embedding -> embedded_input_sentence
I0720 16:12:50.161123 17467 net.cpp:141] Setting up embed_encoder
I0720 16:12:50.161154 17467 net.cpp:148] Top shape: 1 500 (500)
I0720 16:12:50.161164 17467 net.cpp:156] Memory required for data: 18404
I0720 16:12:50.161187 17467 layer_factory.hpp:77] Creating layer reshape_frames
I0720 16:12:50.161700 17467 net.cpp:91] Creating Layer reshape_frames
I0720 16:12:50.161715 17467 net.cpp:425] reshape_frames <- embedded_in_frames
I0720 16:12:50.161732 17467 net.cpp:399] reshape_frames -> embedded_input_frames
I0720 16:12:50.161754 17467 net.cpp:141] Setting up reshape_frames
I0720 16:12:50.161767 17467 net.cpp:148] Top shape: 1 1 500 (500)
I0720 16:12:50.161774 17467 net.cpp:156] Memory required for data: 20404
I0720 16:12:50.161783 17467 layer_factory.hpp:77] Creating layer reshape_stage_indicator
I0720 16:12:50.161803 17467 net.cpp:91] Creating Layer reshape_stage_indicator
I0720 16:12:50.161811 17467 net.cpp:425] reshape_stage_indicator <- stage_indicator
I0720 16:12:50.161825 17467 net.cpp:399] reshape_stage_indicator -> reshaped_stage_indicator
I0720 16:12:50.161840 17467 net.cpp:141] Setting up reshape_stage_indicator
I0720 16:12:50.161849 17467 net.cpp:148] Top shape: 1 1 1 (1)
I0720 16:12:50.161852 17467 net.cpp:156] Memory required for data: 20408
I0720 16:12:50.161856 17467 layer_factory.hpp:77] Creating layer embedding
I0720 16:12:50.162333 17467 net.cpp:91] Creating Layer embedding
I0720 16:12:50.162343 17467 net.cpp:425] embedding <- input_sentence
I0720 16:12:50.162358 17467 net.cpp:399] embedding -> embedded_input_sentence
I0720 16:12:50.169363 17461 net.cpp:141] Setting up embed_encoder
I0720 16:12:50.169409 17461 net.cpp:148] Top shape: 1 500 (500)
I0720 16:12:50.169420 17461 net.cpp:156] Memory required for data: 18404
I0720 16:12:50.169450 17461 layer_factory.hpp:77] Creating layer reshape_frames
I0720 16:12:50.170608 17461 net.cpp:91] Creating Layer reshape_frames
I0720 16:12:50.170627 17461 net.cpp:425] reshape_frames <- embedded_in_frames
I0720 16:12:50.170645 17461 net.cpp:399] reshape_frames -> embedded_input_frames
I0720 16:12:50.170673 17461 net.cpp:141] Setting up reshape_frames
I0720 16:12:50.170702 17461 net.cpp:148] Top shape: 1 1 500 (500)
I0720 16:12:50.170712 17461 net.cpp:156] Memory required for data: 20404
I0720 16:12:50.170722 17461 layer_factory.hpp:77] Creating layer reshape_stage_indicator
I0720 16:12:50.171192 17461 net.cpp:91] Creating Layer reshape_stage_indicator
I0720 16:12:50.171203 17461 net.cpp:425] reshape_stage_indicator <- stage_indicator
I0720 16:12:50.171212 17461 net.cpp:399] reshape_stage_indicator -> reshaped_stage_indicator
I0720 16:12:50.171231 17461 net.cpp:141] Setting up reshape_stage_indicator
I0720 16:12:50.171244 17461 net.cpp:148] Top shape: 1 1 1 (1)
I0720 16:12:50.171252 17461 net.cpp:156] Memory required for data: 20408
I0720 16:12:50.171260 17461 layer_factory.hpp:77] Creating layer embedding
I0720 16:12:50.171787 17461 net.cpp:91] Creating Layer embedding
I0720 16:12:50.171800 17461 net.cpp:425] embedding <- input_sentence
I0720 16:12:50.171811 17461 net.cpp:399] embedding -> embedded_input_sentence
I0720 16:12:50.174706 17489 net.cpp:141] Setting up embed_encoder
I0720 16:12:50.174741 17489 net.cpp:148] Top shape: 1 500 (500)
I0720 16:12:50.174748 17489 net.cpp:156] Memory required for data: 18404
I0720 16:12:50.174769 17489 layer_factory.hpp:77] Creating layer reshape_frames
I0720 16:12:50.175756 17489 net.cpp:91] Creating Layer reshape_frames
I0720 16:12:50.175770 17489 net.cpp:425] reshape_frames <- embedded_in_frames
I0720 16:12:50.175786 17489 net.cpp:399] reshape_frames -> embedded_input_frames
I0720 16:12:50.175808 17489 net.cpp:141] Setting up reshape_frames
I0720 16:12:50.175819 17489 net.cpp:148] Top shape: 1 1 500 (500)
I0720 16:12:50.175825 17489 net.cpp:156] Memory required for data: 20404
I0720 16:12:50.175832 17489 layer_factory.hpp:77] Creating layer reshape_stage_indicator
I0720 16:12:50.176340 17489 net.cpp:91] Creating Layer reshape_stage_indicator
I0720 16:12:50.176352 17489 net.cpp:425] reshape_stage_indicator <- stage_indicator
I0720 16:12:50.176363 17489 net.cpp:399] reshape_stage_indicator -> reshaped_stage_indicator
I0720 16:12:50.176379 17489 net.cpp:141] Setting up reshape_stage_indicator
I0720 16:12:50.176389 17489 net.cpp:148] Top shape: 1 1 1 (1)
I0720 16:12:50.176396 17489 net.cpp:156] Memory required for data: 20408
I0720 16:12:50.176403 17489 layer_factory.hpp:77] Creating layer embedding
I0720 16:12:50.176863 17489 net.cpp:91] Creating Layer embedding
I0720 16:12:50.176877 17489 net.cpp:425] embedding <- input_sentence
I0720 16:12:50.176889 17489 net.cpp:399] embedding -> embedded_input_sentence
I0720 16:12:50.179051 17479 net.cpp:141] Setting up embed_encoder
I0720 16:12:50.179111 17479 net.cpp:148] Top shape: 1 500 (500)
I0720 16:12:50.179133 17479 net.cpp:156] Memory required for data: 18404
I0720 16:12:50.179160 17479 layer_factory.hpp:77] Creating layer reshape_frames
I0720 16:12:50.179716 17479 net.cpp:91] Creating Layer reshape_frames
I0720 16:12:50.179733 17479 net.cpp:425] reshape_frames <- embedded_in_frames
I0720 16:12:50.179751 17479 net.cpp:399] reshape_frames -> embedded_input_frames
I0720 16:12:50.179778 17479 net.cpp:141] Setting up reshape_frames
I0720 16:12:50.179792 17479 net.cpp:148] Top shape: 1 1 500 (500)
I0720 16:12:50.179802 17479 net.cpp:156] Memory required for data: 20404
I0720 16:12:50.179812 17479 layer_factory.hpp:77] Creating layer reshape_stage_indicator
I0720 16:12:50.180814 17479 net.cpp:91] Creating Layer reshape_stage_indicator
I0720 16:12:50.180830 17479 net.cpp:425] reshape_stage_indicator <- stage_indicator
I0720 16:12:50.180832 17495 net.cpp:141] Setting up embed_encoder
I0720 16:12:50.180848 17479 net.cpp:399] reshape_stage_indicator -> reshaped_stage_indicator
I0720 16:12:50.180879 17495 net.cpp:148] Top shape: 1 500 (500)
I0720 16:12:50.180886 17495 net.cpp:156] Memory required for data: 18404
I0720 16:12:50.180896 17479 net.cpp:141] Setting up reshape_stage_indicator
I0720 16:12:50.180914 17479 net.cpp:148] Top shape: 1 1 1 (1)
I0720 16:12:50.180924 17479 net.cpp:156] Memory required for data: 20408
I0720 16:12:50.180934 17479 layer_factory.hpp:77] Creating layer embedding
I0720 16:12:50.181304 17491 net.cpp:141] Setting up embed_encoder
I0720 16:12:50.181325 17491 net.cpp:148] Top shape: 1 500 (500)
I0720 16:12:50.181332 17491 net.cpp:156] Memory required for data: 18404
I0720 16:12:50.181352 17491 layer_factory.hpp:77] Creating layer reshape_frames
I0720 16:12:50.181884 17469 net.cpp:141] Setting up embed_encoder
I0720 16:12:50.181900 17469 net.cpp:148] Top shape: 1 500 (500)
I0720 16:12:50.181901 17479 net.cpp:91] Creating Layer embedding
I0720 16:12:50.181905 17469 net.cpp:156] Memory required for data: 18404
I0720 16:12:50.181910 17479 net.cpp:425] embedding <- input_sentence
I0720 16:12:50.181926 17479 net.cpp:399] embedding -> embedded_input_sentence
I0720 16:12:50.181932 17469 layer_factory.hpp:77] Creating layer reshape_frames
I0720 16:12:50.182431 17495 layer_factory.hpp:77] Creating layer reshape_frames
I0720 16:12:50.182457 17495 net.cpp:91] Creating Layer reshape_frames
I0720 16:12:50.182466 17495 net.cpp:425] reshape_frames <- embedded_in_frames
I0720 16:12:50.182965 17491 net.cpp:91] Creating Layer reshape_frames
I0720 16:12:50.182971 17469 net.cpp:91] Creating Layer reshape_frames
I0720 16:12:50.182979 17491 net.cpp:425] reshape_frames <- embedded_in_frames
I0720 16:12:50.182993 17469 net.cpp:425] reshape_frames <- embedded_in_frames
I0720 16:12:50.183007 17469 net.cpp:399] reshape_frames -> embedded_input_frames
I0720 16:12:50.183001 17495 net.cpp:399] reshape_frames -> embedded_input_frames
I0720 16:12:50.183001 17491 net.cpp:399] reshape_frames -> embedded_input_frames
I0720 16:12:50.183022 17469 net.cpp:141] Setting up reshape_frames
I0720 16:12:50.183043 17495 net.cpp:141] Setting up reshape_frames
I0720 16:12:50.183048 17469 net.cpp:148] Top shape: 1 1 500 (500)
I0720 16:12:50.183048 17491 net.cpp:141] Setting up reshape_frames
I0720 16:12:50.183053 17469 net.cpp:156] Memory required for data: 20404
I0720 16:12:50.183055 17495 net.cpp:148] Top shape: 1 1 500 (500)
I0720 16:12:50.183059 17469 layer_factory.hpp:77] Creating layer reshape_stage_indicator
I0720 16:12:50.183060 17491 net.cpp:148] Top shape: 1 1 500 (500)
I0720 16:12:50.183061 17495 net.cpp:156] Memory required for data: 20404
I0720 16:12:50.183074 17491 net.cpp:156] Memory required for data: 20404
I0720 16:12:50.183080 17495 layer_factory.hpp:77] Creating layer reshape_stage_indicator
I0720 16:12:50.183084 17491 layer_factory.hpp:77] Creating layer reshape_stage_indicator
I0720 16:12:50.183095 17495 net.cpp:91] Creating Layer reshape_stage_indicator
I0720 16:12:50.183104 17495 net.cpp:425] reshape_stage_indicator <- stage_indicator
I0720 16:12:50.183112 17495 net.cpp:399] reshape_stage_indicator -> reshaped_stage_indicator
I0720 16:12:50.183125 17495 net.cpp:141] Setting up reshape_stage_indicator
I0720 16:12:50.183133 17495 net.cpp:148] Top shape: 1 1 1 (1)
I0720 16:12:50.183138 17495 net.cpp:156] Memory required for data: 20408
I0720 16:12:50.183143 17495 layer_factory.hpp:77] Creating layer embedding
I0720 16:12:50.183547 17491 net.cpp:91] Creating Layer reshape_stage_indicator
I0720 16:12:50.183558 17491 net.cpp:425] reshape_stage_indicator <- stage_indicator
I0720 16:12:50.183569 17491 net.cpp:399] reshape_stage_indicator -> reshaped_stage_indicator
I0720 16:12:50.183570 17469 net.cpp:91] Creating Layer reshape_stage_indicator
I0720 16:12:50.183586 17469 net.cpp:425] reshape_stage_indicator <- stage_indicator
I0720 16:12:50.183585 17491 net.cpp:141] Setting up reshape_stage_indicator
I0720 16:12:50.183598 17469 net.cpp:399] reshape_stage_indicator -> reshaped_stage_indicator
I0720 16:12:50.183600 17491 net.cpp:148] Top shape: 1 1 1 (1)
I0720 16:12:50.183607 17491 net.cpp:156] Memory required for data: 20408
I0720 16:12:50.183612 17469 net.cpp:141] Setting up reshape_stage_indicator
I0720 16:12:50.183614 17491 layer_factory.hpp:77] Creating layer embedding
I0720 16:12:50.183621 17469 net.cpp:148] Top shape: 1 1 1 (1)
I0720 16:12:50.183626 17469 net.cpp:156] Memory required for data: 20408
I0720 16:12:50.183630 17469 layer_factory.hpp:77] Creating layer embedding
I0720 16:12:50.184638 17491 net.cpp:91] Creating Layer embedding
I0720 16:12:50.184640 17469 net.cpp:91] Creating Layer embedding
I0720 16:12:50.184650 17491 net.cpp:425] embedding <- input_sentence
I0720 16:12:50.184664 17469 net.cpp:425] embedding <- input_sentence
I0720 16:12:50.184669 17491 net.cpp:399] embedding -> embedded_input_sentence
I0720 16:12:50.184665 17495 net.cpp:91] Creating Layer embedding
I0720 16:12:50.184681 17469 net.cpp:399] embedding -> embedded_input_sentence
I0720 16:12:50.184686 17495 net.cpp:425] embedding <- input_sentence
I0720 16:12:50.185250 17495 net.cpp:399] embedding -> embedded_input_sentence
I0720 16:12:50.190816 17465 net.cpp:141] Setting up embed_encoder
I0720 16:12:50.190867 17465 net.cpp:148] Top shape: 1 500 (500)
I0720 16:12:50.190876 17465 net.cpp:156] Memory required for data: 18404
I0720 16:12:50.190901 17465 layer_factory.hpp:77] Creating layer reshape_frames
I0720 16:12:50.191979 17465 net.cpp:91] Creating Layer reshape_frames
I0720 16:12:50.192008 17465 net.cpp:425] reshape_frames <- embedded_in_frames
I0720 16:12:50.192031 17465 net.cpp:399] reshape_frames -> embedded_input_frames
I0720 16:12:50.192064 17465 net.cpp:141] Setting up reshape_frames
I0720 16:12:50.192081 17465 net.cpp:148] Top shape: 1 1 500 (500)
I0720 16:12:50.192091 17465 net.cpp:156] Memory required for data: 20404
I0720 16:12:50.192102 17465 layer_factory.hpp:77] Creating layer reshape_stage_indicator
I0720 16:12:50.192564 17465 net.cpp:91] Creating Layer reshape_stage_indicator
I0720 16:12:50.192594 17465 net.cpp:425] reshape_stage_indicator <- stage_indicator
I0720 16:12:50.192613 17465 net.cpp:399] reshape_stage_indicator -> reshaped_stage_indicator
I0720 16:12:50.192631 17465 net.cpp:141] Setting up reshape_stage_indicator
I0720 16:12:50.192639 17465 net.cpp:148] Top shape: 1 1 1 (1)
I0720 16:12:50.192643 17465 net.cpp:156] Memory required for data: 20408
I0720 16:12:50.192648 17465 layer_factory.hpp:77] Creating layer embedding
I0720 16:12:50.193635 17465 net.cpp:91] Creating Layer embedding
I0720 16:12:50.193681 17465 net.cpp:425] embedding <- input_sentence
I0720 16:12:50.193718 17465 net.cpp:399] embedding -> embedded_input_sentence
I0720 16:12:50.197862 17477 net.cpp:141] Setting up embed_encoder
I0720 16:12:50.197902 17477 net.cpp:148] Top shape: 1 500 (500)
I0720 16:12:50.197911 17477 net.cpp:156] Memory required for data: 18404
I0720 16:12:50.197934 17477 layer_factory.hpp:77] Creating layer reshape_frames
I0720 16:12:50.199247 17477 net.cpp:91] Creating Layer reshape_frames
I0720 16:12:50.199272 17477 net.cpp:425] reshape_frames <- embedded_in_frames
I0720 16:12:50.199291 17477 net.cpp:399] reshape_frames -> embedded_input_frames
I0720 16:12:50.199317 17477 net.cpp:141] Setting up reshape_frames
I0720 16:12:50.199331 17477 net.cpp:148] Top shape: 1 1 500 (500)
I0720 16:12:50.199337 17477 net.cpp:156] Memory required for data: 20404
I0720 16:12:50.199344 17477 layer_factory.hpp:77] Creating layer reshape_stage_indicator
I0720 16:12:50.200103 17477 net.cpp:91] Creating Layer reshape_stage_indicator
I0720 16:12:50.200119 17477 net.cpp:425] reshape_stage_indicator <- stage_indicator
I0720 16:12:50.200130 17477 net.cpp:399] reshape_stage_indicator -> reshaped_stage_indicator
I0720 16:12:50.200148 17477 net.cpp:141] Setting up reshape_stage_indicator
I0720 16:12:50.200161 17477 net.cpp:148] Top shape: 1 1 1 (1)
I0720 16:12:50.200170 17477 net.cpp:156] Memory required for data: 20408
I0720 16:12:50.200177 17477 layer_factory.hpp:77] Creating layer embedding
I0720 16:12:50.200194 17477 net.cpp:91] Creating Layer embedding
I0720 16:12:50.200201 17477 net.cpp:425] embedding <- input_sentence
I0720 16:12:50.200732 17477 net.cpp:399] embedding -> embedded_input_sentence
I0720 16:12:50.412852 17475 net.cpp:141] Setting up embedding
I0720 16:12:50.413461 17475 net.cpp:148] Top shape: 1 1 500 (500)
I0720 16:12:50.413676 17475 net.cpp:156] Memory required for data: 22408
I0720 16:12:50.413846 17475 layer_factory.hpp:77] Creating layer lstm1
I0720 16:12:50.414031 17475 net.cpp:91] Creating Layer lstm1
I0720 16:12:50.414242 17475 net.cpp:425] lstm1 <- embedded_input_frames
I0720 16:12:50.414384 17475 net.cpp:425] lstm1 <- cont_sentence_input_1_split_0
I0720 16:12:50.414405 17475 net.cpp:399] lstm1 -> lstm1
I0720 16:12:50.418164 17475 recurrent_layer.cpp:20] Initializing recurrent layer: assuming input batch contains 1 timesteps of 1 independent streams.
I0720 16:12:50.418695 17475 net.cpp:49] Initializing net from parameters: 
layer {
  name: "lstm1_"
  type: "Input"
  top: "x"
  top: "cont"
  input_param {
    shape {
      dim: 1
      dim: 1
      dim: 500
    }
    shape {
      dim: 1
      dim: 1
    }
  }
}
layer {
  name: "lstm1_"
  type: "Input"
  top: "c_0"
  top: "h_0"
  input_param {
    shape {
      dim: 1
      dim: 1
      dim: 1000
    }
    shape {
      dim: 1
      dim: 1
      dim: 1000
    }
  }
}
layer {
  name: "lstm1_cont_slice"
  type: "Slice"
  bottom: "cont"
  top: "cont_1"
  slice_param {
    axis: 0
  }
}
layer {
  name: "lstm1_x_transform"
  type: "InnerProduct"
  bottom: "x"
  top: "W_xc_x"
  param {
    name: "W_xc"
  }
  param {
    name: "b_c"
  }
  propagate_down: true
  inner_product_param {
    num_output: 4000
    bias_term: true
    weight_filler {
      type: "uniform"
      min: -0.08
      max: 0.08
    }
    bias_filler {
      type: "constant"
      value: 0
    }
    axis: 2
  }
}
layer {
  name: "lstm1_W_xc_x_slice"
  type: "Slice"
  bottom: "W_xc_x"
  top: "W_xc_x_1"
  slice_param {
    axis: 0
  }
}
layer {
  name: "lstm1_h_conted_0"
  type: "Scale"
  bottom: "h_0"
  bottom: "cont_1"
  top: "h_conted_0"
  scale_param {
    axis: 0
  }
}
layer {
  name: "lstm1_transform_1"
  type: "InnerProduct"
  bottom: "h_conted_0"
  top: "W_hc_h_0"
  param {
    name: "W_hc"
  }
  inner_product_param {
    num_output: 4000
    bias_term: false
    weight_filler {
      type: "uniform"
      min: -0.08
      max: 0.08
    }
    axis: 2
  }
}
layer {
  name: "lstm1_gate_input_1"
  type: "Eltwise"
  bottom: "W_hc_h_0"
  bottom: "W_xc_x_1"
  top: "gate_input_1"
  eltwise_param {
    operation: SUM
  }
}
layer {
  name: "lstm1_unit_1"
  type: "LSTMUnit"
  bottom: "c_0"
  bottom: "gate_input_1"
  bottom: "cont_1"
  top: "c_1"
  top: "h_1"
}
layer {
  name: "lstm1_"
  type: "Split"
  bottom: "c_1"
  top: "c_T"
}
layer {
  name: "lstm1_h_concat"
  type: "Concat"
  bottom: "h_1"
  top: "h"
  concat_param {
    axis: 0
  }
}
layer {
  name: "h_pseudoloss"
  type: "Reduction"
  bottom: "h"
  top: "h_pseudoloss"
  loss_weight: 1
}
I0720 16:12:50.427680 17475 layer_factory.hpp:77] Creating layer lstm1_
I0720 16:12:50.427714 17475 net.cpp:91] Creating Layer lstm1_
I0720 16:12:50.427726 17475 net.cpp:399] lstm1_ -> x
I0720 16:12:50.427748 17475 net.cpp:399] lstm1_ -> cont
I0720 16:12:50.427769 17475 net.cpp:141] Setting up lstm1_
I0720 16:12:50.427783 17475 net.cpp:148] Top shape: 1 1 500 (500)
I0720 16:12:50.427791 17475 net.cpp:148] Top shape: 1 1 (1)
I0720 16:12:50.427798 17475 net.cpp:156] Memory required for data: 2004
I0720 16:12:50.427805 17475 layer_factory.hpp:77] Creating layer lstm1_
I0720 16:12:50.427816 17475 net.cpp:91] Creating Layer lstm1_
I0720 16:12:50.427825 17475 net.cpp:399] lstm1_ -> c_0
I0720 16:12:50.427839 17475 net.cpp:399] lstm1_ -> h_0
I0720 16:12:50.427853 17475 net.cpp:141] Setting up lstm1_
I0720 16:12:50.427862 17475 net.cpp:148] Top shape: 1 1 1000 (1000)
I0720 16:12:50.427872 17475 net.cpp:148] Top shape: 1 1 1000 (1000)
I0720 16:12:50.427878 17475 net.cpp:156] Memory required for data: 10004
I0720 16:12:50.427884 17475 layer_factory.hpp:77] Creating layer lstm1_cont_slice
I0720 16:12:50.427896 17475 net.cpp:91] Creating Layer lstm1_cont_slice
I0720 16:12:50.427902 17475 net.cpp:425] lstm1_cont_slice <- cont
I0720 16:12:50.427930 17475 net.cpp:399] lstm1_cont_slice -> cont_1
I0720 16:12:50.427949 17475 net.cpp:141] Setting up lstm1_cont_slice
I0720 16:12:50.427959 17475 net.cpp:148] Top shape: 1 1 (1)
I0720 16:12:50.427966 17475 net.cpp:156] Memory required for data: 10008
I0720 16:12:50.427973 17475 layer_factory.hpp:77] Creating layer cont_1_lstm1_cont_slice_0_split
I0720 16:12:50.427983 17475 net.cpp:91] Creating Layer cont_1_lstm1_cont_slice_0_split
I0720 16:12:50.427989 17475 net.cpp:425] cont_1_lstm1_cont_slice_0_split <- cont_1
I0720 16:12:50.428002 17475 net.cpp:399] cont_1_lstm1_cont_slice_0_split -> cont_1_lstm1_cont_slice_0_split_0
I0720 16:12:50.428014 17475 net.cpp:399] cont_1_lstm1_cont_slice_0_split -> cont_1_lstm1_cont_slice_0_split_1
I0720 16:12:50.428027 17475 net.cpp:141] Setting up cont_1_lstm1_cont_slice_0_split
I0720 16:12:50.428037 17475 net.cpp:148] Top shape: 1 1 (1)
I0720 16:12:50.428045 17475 net.cpp:148] Top shape: 1 1 (1)
I0720 16:12:50.428051 17475 net.cpp:156] Memory required for data: 10016
I0720 16:12:50.428057 17475 layer_factory.hpp:77] Creating layer lstm1_x_transform
I0720 16:12:50.428084 17475 net.cpp:91] Creating Layer lstm1_x_transform
I0720 16:12:50.428092 17475 net.cpp:425] lstm1_x_transform <- x
I0720 16:12:50.428107 17475 net.cpp:399] lstm1_x_transform -> W_xc_x
I0720 16:12:50.458464 17469 net.cpp:141] Setting up embedding
I0720 16:12:50.458514 17469 net.cpp:148] Top shape: 1 1 500 (500)
I0720 16:12:50.458524 17469 net.cpp:156] Memory required for data: 22408
I0720 16:12:50.458547 17469 layer_factory.hpp:77] Creating layer lstm1
I0720 16:12:50.458570 17469 net.cpp:91] Creating Layer lstm1
I0720 16:12:50.458580 17469 net.cpp:425] lstm1 <- embedded_input_frames
I0720 16:12:50.458592 17469 net.cpp:425] lstm1 <- cont_sentence_input_1_split_0
I0720 16:12:50.458636 17469 net.cpp:399] lstm1 -> lstm1
I0720 16:12:50.458659 17469 recurrent_layer.cpp:20] Initializing recurrent layer: assuming input batch contains 1 timesteps of 1 independent streams.
I0720 16:12:50.459120 17469 net.cpp:49] Initializing net from parameters: 
layer {
  name: "lstm1_"
  type: "Input"
  top: "x"
  top: "cont"
  input_param {
    shape {
      dim: 1
      dim: 1
      dim: 500
    }
    shape {
      dim: 1
      dim: 1
    }
  }
}
layer {
  name: "lstm1_"
  type: "Input"
  top: "c_0"
  top: "h_0"
  input_param {
    shape {
      dim: 1
      dim: 1
      dim: 1000
    }
    shape {
      dim: 1
      dim: 1
      dim: 1000
    }
  }
}
layer {
  name: "lstm1_cont_slice"
  type: "Slice"
  bottom: "cont"
  top: "cont_1"
  slice_param {
    axis: 0
  }
}
layer {
  name: "lstm1_x_transform"
  type: "InnerProduct"
  bottom: "x"
  top: "W_xc_x"
  param {
    name: "W_xc"
  }
  param {
    name: "b_c"
  }
  propagate_down: true
  inner_product_param {
    num_output: 4000
    bias_term: true
    weight_filler {
      type: "uniform"
      min: -0.08
      max: 0.08
    }
    bias_filler {
      type: "constant"
      value: 0
    }
    axis: 2
  }
}
layer {
  name: "lstm1_W_xc_x_slice"
  type: "Slice"
  bottom: "W_xc_x"
  top: "W_xc_x_1"
  slice_param {
    axis: 0
  }
}
layer {
  name: "lstm1_h_conted_0"
  type: "Scale"
  bottom: "h_0"
  bottom: "cont_1"
  top: "h_conted_0"
  scale_param {
    axis: 0
  }
}
layer {
  name: "lstm1_transform_1"
  type: "InnerProduct"
  bottom: "h_conted_0"
  top: "W_hc_h_0"
  param {
    name: "W_hc"
  }
  inner_product_param {
    num_output: 4000
    bias_term: false
    weight_filler {
      type: "uniform"
      min: -0.08
      max: 0.08
    }
    axis: 2
  }
}
layer {
  name: "lstm1_gate_input_1"
  type: "Eltwise"
  bottom: "W_hc_h_0"
  bottom: "W_xc_x_1"
  top: "gate_input_1"
  eltwise_param {
    operation: SUM
  }
}
layer {
  name: "lstm1_unit_1"
  type: "LSTMUnit"
  bottom: "c_0"
  bottom: "gate_input_1"
  bottom: "cont_1"
  top: "c_1"
  top: "h_1"
}
layer {
  name: "lstm1_"
  type: "Split"
  bottom: "c_1"
  top: "c_T"
}
layer {
  name: "lstm1_h_concat"
  type: "Concat"
  bottom: "h_1"
  top: "h"
  concat_param {
    axis: 0
  }
}
layer {
  name: "h_pseudoloss"
  type: "Reduction"
  bottom: "h"
  top: "h_pseudoloss"
  loss_weight: 1
}
I0720 16:12:50.459264 17469 layer_factory.hpp:77] Creating layer lstm1_
I0720 16:12:50.459283 17469 net.cpp:91] Creating Layer lstm1_
I0720 16:12:50.459293 17469 net.cpp:399] lstm1_ -> x
I0720 16:12:50.459311 17469 net.cpp:399] lstm1_ -> cont
I0720 16:12:50.459331 17469 net.cpp:141] Setting up lstm1_
I0720 16:12:50.459344 17469 net.cpp:148] Top shape: 1 1 500 (500)
I0720 16:12:50.459354 17469 net.cpp:148] Top shape: 1 1 (1)
I0720 16:12:50.459362 17469 net.cpp:156] Memory required for data: 2004
I0720 16:12:50.459372 17469 layer_factory.hpp:77] Creating layer lstm1_
I0720 16:12:50.459384 17469 net.cpp:91] Creating Layer lstm1_
I0720 16:12:50.459396 17469 net.cpp:399] lstm1_ -> c_0
I0720 16:12:50.459414 17469 net.cpp:399] lstm1_ -> h_0
I0720 16:12:50.459429 17469 net.cpp:141] Setting up lstm1_
I0720 16:12:50.459440 17469 net.cpp:148] Top shape: 1 1 1000 (1000)
I0720 16:12:50.459451 17469 net.cpp:148] Top shape: 1 1 1000 (1000)
I0720 16:12:50.459458 17469 net.cpp:156] Memory required for data: 10004
I0720 16:12:50.459465 17469 layer_factory.hpp:77] Creating layer lstm1_cont_slice
I0720 16:12:50.459478 17469 net.cpp:91] Creating Layer lstm1_cont_slice
I0720 16:12:50.459486 17469 net.cpp:425] lstm1_cont_slice <- cont
I0720 16:12:50.459498 17469 net.cpp:399] lstm1_cont_slice -> cont_1
I0720 16:12:50.459517 17469 net.cpp:141] Setting up lstm1_cont_slice
I0720 16:12:50.459528 17469 net.cpp:148] Top shape: 1 1 (1)
I0720 16:12:50.459537 17469 net.cpp:156] Memory required for data: 10008
I0720 16:12:50.459543 17469 layer_factory.hpp:77] Creating layer cont_1_lstm1_cont_slice_0_split
I0720 16:12:50.459578 17469 net.cpp:91] Creating Layer cont_1_lstm1_cont_slice_0_split
I0720 16:12:50.459589 17469 net.cpp:425] cont_1_lstm1_cont_slice_0_split <- cont_1
I0720 16:12:50.459599 17469 net.cpp:399] cont_1_lstm1_cont_slice_0_split -> cont_1_lstm1_cont_slice_0_split_0
I0720 16:12:50.459614 17469 net.cpp:399] cont_1_lstm1_cont_slice_0_split -> cont_1_lstm1_cont_slice_0_split_1
I0720 16:12:50.459632 17469 net.cpp:141] Setting up cont_1_lstm1_cont_slice_0_split
I0720 16:12:50.459666 17469 net.cpp:148] Top shape: 1 1 (1)
I0720 16:12:50.459678 17469 net.cpp:148] Top shape: 1 1 (1)
I0720 16:12:50.459686 17469 net.cpp:156] Memory required for data: 10016
I0720 16:12:50.459693 17469 layer_factory.hpp:77] Creating layer lstm1_x_transform
I0720 16:12:50.459709 17469 net.cpp:91] Creating Layer lstm1_x_transform
I0720 16:12:50.459717 17469 net.cpp:425] lstm1_x_transform <- x
I0720 16:12:50.459735 17469 net.cpp:399] lstm1_x_transform -> W_xc_x
I0720 16:12:50.468577 17475 net.cpp:141] Setting up lstm1_x_transform
I0720 16:12:50.468623 17475 net.cpp:148] Top shape: 1 1 4000 (4000)
I0720 16:12:50.468633 17475 net.cpp:156] Memory required for data: 26016
I0720 16:12:50.468662 17475 layer_factory.hpp:77] Creating layer lstm1_W_xc_x_slice
I0720 16:12:50.468691 17475 net.cpp:91] Creating Layer lstm1_W_xc_x_slice
I0720 16:12:50.468704 17475 net.cpp:425] lstm1_W_xc_x_slice <- W_xc_x
I0720 16:12:50.468732 17475 net.cpp:399] lstm1_W_xc_x_slice -> W_xc_x_1
I0720 16:12:50.468763 17475 net.cpp:141] Setting up lstm1_W_xc_x_slice
I0720 16:12:50.468777 17475 net.cpp:148] Top shape: 1 1 4000 (4000)
I0720 16:12:50.468783 17475 net.cpp:156] Memory required for data: 42016
I0720 16:12:50.468788 17475 layer_factory.hpp:77] Creating layer lstm1_h_conted_0
I0720 16:12:50.468897 17475 net.cpp:91] Creating Layer lstm1_h_conted_0
I0720 16:12:50.468910 17475 net.cpp:425] lstm1_h_conted_0 <- h_0
I0720 16:12:50.468919 17475 net.cpp:425] lstm1_h_conted_0 <- cont_1_lstm1_cont_slice_0_split_0
I0720 16:12:50.468927 17475 net.cpp:399] lstm1_h_conted_0 -> h_conted_0
I0720 16:12:50.468987 17475 net.cpp:141] Setting up lstm1_h_conted_0
I0720 16:12:50.469002 17475 net.cpp:148] Top shape: 1 1 1000 (1000)
I0720 16:12:50.469012 17475 net.cpp:156] Memory required for data: 46016
I0720 16:12:50.469019 17475 layer_factory.hpp:77] Creating layer lstm1_transform_1
I0720 16:12:50.469050 17475 net.cpp:91] Creating Layer lstm1_transform_1
I0720 16:12:50.469063 17475 net.cpp:425] lstm1_transform_1 <- h_conted_0
I0720 16:12:50.469079 17475 net.cpp:399] lstm1_transform_1 -> W_hc_h_0
I0720 16:12:50.482229 17495 net.cpp:141] Setting up embedding
I0720 16:12:50.482285 17495 net.cpp:148] Top shape: 1 1 500 (500)
I0720 16:12:50.482293 17495 net.cpp:156] Memory required for data: 22408
I0720 16:12:50.482314 17495 layer_factory.hpp:77] Creating layer lstm1
I0720 16:12:50.482339 17495 net.cpp:91] Creating Layer lstm1
I0720 16:12:50.482350 17495 net.cpp:425] lstm1 <- embedded_input_frames
I0720 16:12:50.482363 17495 net.cpp:425] lstm1 <- cont_sentence_input_1_split_0
I0720 16:12:50.482399 17495 net.cpp:399] lstm1 -> lstm1
I0720 16:12:50.482422 17495 recurrent_layer.cpp:20] Initializing recurrent layer: assuming input batch contains 1 timesteps of 1 independent streams.
I0720 16:12:50.482836 17495 net.cpp:49] Initializing net from parameters: 
layer {
  name: "lstm1_"
  type: "Input"
  top: "x"
  top: "cont"
  input_param {
    shape {
      dim: 1
      dim: 1
      dim: 500
    }
    shape {
      dim: 1
      dim: 1
    }
  }
}
layer {
  name: "lstm1_"
  type: "Input"
  top: "c_0"
  top: "h_0"
  input_param {
    shape {
      dim: 1
      dim: 1
      dim: 1000
    }
    shape {
      dim: 1
      dim: 1
      dim: 1000
    }
  }
}
layer {
  name: "lstm1_cont_slice"
  type: "Slice"
  bottom: "cont"
  top: "cont_1"
  slice_param {
    axis: 0
  }
}
layer {
  name: "lstm1_x_transform"
  type: "InnerProduct"
  bottom: "x"
  top: "W_xc_x"
  param {
    name: "W_xc"
  }
  param {
    name: "b_c"
  }
  propagate_down: true
  inner_product_param {
    num_output: 4000
    bias_term: true
    weight_filler {
      type: "uniform"
      min: -0.08
      max: 0.08
    }
    bias_filler {
      type: "constant"
      value: 0
    }
    axis: 2
  }
}
layer {
  name: "lstm1_W_xc_x_slice"
  type: "Slice"
  bottom: "W_xc_x"
  top: "W_xc_x_1"
  slice_param {
    axis: 0
  }
}
layer {
  name: "lstm1_h_conted_0"
  type: "Scale"
  bottom: "h_0"
  bottom: "cont_1"
  top: "h_conted_0"
  scale_param {
    axis: 0
  }
}
layer {
  name: "lstm1_transform_1"
  type: "InnerProduct"
  bottom: "h_conted_0"
  top: "W_hc_h_0"
  param {
    name: "W_hc"
  }
  inner_product_param {
    num_output: 4000
    bias_term: false
    weight_filler {
      type: "uniform"
      min: -0.08
      max: 0.08
    }
    axis: 2
  }
}
layer {
  name: "lstm1_gate_input_1"
  type: "Eltwise"
  bottom: "W_hc_h_0"
  bottom: "W_xc_x_1"
  top: "gate_input_1"
  eltwise_param {
    operation: SUM
  }
}
layer {
  name: "lstm1_unit_1"
  type: "LSTMUnit"
  bottom: "c_0"
  bottom: "gate_input_1"
  bottom: "cont_1"
  top: "c_1"
  top: "h_1"
}
layer {
  name: "lstm1_"
  type: "Split"
  bottom: "c_1"
  top: "c_T"
}
layer {
  name: "lstm1_h_concat"
  type: "Concat"
  bottom: "h_1"
  top: "h"
  concat_param {
    axis: 0
  }
}
layer {
  name: "h_pseudoloss"
  type: "Reduction"
  bottom: "h"
  top: "h_pseudoloss"
  loss_weight: 1
}
I0720 16:12:50.482975 17495 layer_factory.hpp:77] Creating layer lstm1_
I0720 16:12:50.482995 17495 net.cpp:91] Creating Layer lstm1_
I0720 16:12:50.483008 17495 net.cpp:399] lstm1_ -> x
I0720 16:12:50.483027 17495 net.cpp:399] lstm1_ -> cont
I0720 16:12:50.483048 17495 net.cpp:141] Setting up lstm1_
I0720 16:12:50.483060 17495 net.cpp:148] Top shape: 1 1 500 (500)
I0720 16:12:50.483072 17495 net.cpp:148] Top shape: 1 1 (1)
I0720 16:12:50.483079 17495 net.cpp:156] Memory required for data: 2004
I0720 16:12:50.483088 17495 layer_factory.hpp:77] Creating layer lstm1_
I0720 16:12:50.483101 17495 net.cpp:91] Creating Layer lstm1_
I0720 16:12:50.483114 17495 net.cpp:399] lstm1_ -> c_0
I0720 16:12:50.483130 17495 net.cpp:399] lstm1_ -> h_0
I0720 16:12:50.483149 17495 net.cpp:141] Setting up lstm1_
I0720 16:12:50.483160 17495 net.cpp:148] Top shape: 1 1 1000 (1000)
I0720 16:12:50.483170 17495 net.cpp:148] Top shape: 1 1 1000 (1000)
I0720 16:12:50.483177 17495 net.cpp:156] Memory required for data: 10004
I0720 16:12:50.483186 17495 layer_factory.hpp:77] Creating layer lstm1_cont_slice
I0720 16:12:50.483199 17495 net.cpp:91] Creating Layer lstm1_cont_slice
I0720 16:12:50.483208 17495 net.cpp:425] lstm1_cont_slice <- cont
I0720 16:12:50.483222 17495 net.cpp:399] lstm1_cont_slice -> cont_1
I0720 16:12:50.483244 17495 net.cpp:141] Setting up lstm1_cont_slice
I0720 16:12:50.483259 17495 net.cpp:148] Top shape: 1 1 (1)
I0720 16:12:50.483268 17495 net.cpp:156] Memory required for data: 10008
I0720 16:12:50.483275 17495 layer_factory.hpp:77] Creating layer cont_1_lstm1_cont_slice_0_split
I0720 16:12:50.483292 17495 net.cpp:91] Creating Layer cont_1_lstm1_cont_slice_0_split
I0720 16:12:50.483304 17495 net.cpp:425] cont_1_lstm1_cont_slice_0_split <- cont_1
I0720 16:12:50.483315 17495 net.cpp:399] cont_1_lstm1_cont_slice_0_split -> cont_1_lstm1_cont_slice_0_split_0
I0720 16:12:50.483333 17495 net.cpp:399] cont_1_lstm1_cont_slice_0_split -> cont_1_lstm1_cont_slice_0_split_1
I0720 16:12:50.483351 17495 net.cpp:141] Setting up cont_1_lstm1_cont_slice_0_split
I0720 16:12:50.483363 17495 net.cpp:148] Top shape: 1 1 (1)
I0720 16:12:50.483373 17495 net.cpp:148] Top shape: 1 1 (1)
I0720 16:12:50.483379 17495 net.cpp:156] Memory required for data: 10016
I0720 16:12:50.483387 17495 layer_factory.hpp:77] Creating layer lstm1_x_transform
I0720 16:12:50.483403 17495 net.cpp:91] Creating Layer lstm1_x_transform
I0720 16:12:50.483412 17495 net.cpp:425] lstm1_x_transform <- x
I0720 16:12:50.483438 17495 net.cpp:399] lstm1_x_transform -> W_xc_x
I0720 16:12:50.486256 17477 net.cpp:141] Setting up embedding
I0720 16:12:50.486750 17477 net.cpp:148] Top shape: 1 1 500 (500)
I0720 16:12:50.486762 17477 net.cpp:156] Memory required for data: 22408
I0720 16:12:50.486783 17477 layer_factory.hpp:77] Creating layer lstm1
I0720 16:12:50.486802 17477 net.cpp:91] Creating Layer lstm1
I0720 16:12:50.486812 17477 net.cpp:425] lstm1 <- embedded_input_frames
I0720 16:12:50.486824 17477 net.cpp:425] lstm1 <- cont_sentence_input_1_split_0
I0720 16:12:50.486835 17477 net.cpp:399] lstm1 -> lstm1
I0720 16:12:50.486853 17477 recurrent_layer.cpp:20] Initializing recurrent layer: assuming input batch contains 1 timesteps of 1 independent streams.
I0720 16:12:50.487290 17477 net.cpp:49] Initializing net from parameters: 
layer {
  name: "lstm1_"
  type: "Input"
  top: "x"
  top: "cont"
  input_param {
    shape {
      dim: 1
      dim: 1
      dim: 500
    }
    shape {
      dim: 1
      dim: 1
    }
  }
}
layer {
  name: "lstm1_"
  type: "Input"
  top: "c_0"
  top: "h_0"
  input_param {
    shape {
      dim: 1
      dim: 1
      dim: 1000
    }
    shape {
      dim: 1
      dim: 1
      dim: 1000
    }
  }
}
layer {
  name: "lstm1_cont_slice"
  type: "Slice"
  bottom: "cont"
  top: "cont_1"
  slice_param {
    axis: 0
  }
}
layer {
  name: "lstm1_x_transform"
  type: "InnerProduct"
  bottom: "x"
  top: "W_xc_x"
  param {
    name: "W_xc"
  }
  param {
    name: "b_c"
  }
  propagate_down: true
  inner_product_param {
    num_output: 4000
    bias_term: true
    weight_filler {
      type: "uniform"
      min: -0.08
      max: 0.08
    }
    bias_filler {
      type: "constant"
      value: 0
    }
    axis: 2
  }
}
layer {
  name: "lstm1_W_xc_x_slice"
  type: "Slice"
  bottom: "W_xc_x"
  top: "W_xc_x_1"
  slice_param {
    axis: 0
  }
}
layer {
  name: "lstm1_h_conted_0"
  type: "Scale"
  bottom: "h_0"
  bottom: "cont_1"
  top: "h_conted_0"
  scale_param {
    axis: 0
  }
}
layer {
  name: "lstm1_transform_1"
  type: "InnerProduct"
  bottom: "h_conted_0"
  top: "W_hc_h_0"
  param {
    name: "W_hc"
  }
  inner_product_param {
    num_output: 4000
    bias_term: false
    weight_filler {
      type: "uniform"
      min: -0.08
      max: 0.08
    }
    axis: 2
  }
}
layer {
  name: "lstm1_gate_input_1"
  type: "Eltwise"
  bottom: "W_hc_h_0"
  bottom: "W_xc_x_1"
  top: "gate_input_1"
  eltwise_param {
    operation: SUM
  }
}
layer {
  name: "lstm1_unit_1"
  type: "LSTMUnit"
  bottom: "c_0"
  bottom: "gate_input_1"
  bottom: "cont_1"
  top: "c_1"
  top: "h_1"
}
layer {
  name: "lstm1_"
  type: "Split"
  bottom: "c_1"
  top: "c_T"
}
layer {
  name: "lstm1_h_concat"
  type: "Concat"
  bottom: "h_1"
  top: "h"
  concat_param {
    axis: 0
  }
}
layer {
  name: "h_pseudoloss"
  type: "Reduction"
  bottom: "h"
  top: "h_pseudoloss"
  loss_weight: 1
}
I0720 16:12:50.487414 17477 layer_factory.hpp:77] Creating layer lstm1_
I0720 16:12:50.487432 17477 net.cpp:91] Creating Layer lstm1_
I0720 16:12:50.487442 17477 net.cpp:399] lstm1_ -> x
I0720 16:12:50.487457 17477 net.cpp:399] lstm1_ -> cont
I0720 16:12:50.487474 17477 net.cpp:141] Setting up lstm1_
I0720 16:12:50.487484 17477 net.cpp:148] Top shape: 1 1 500 (500)
I0720 16:12:50.487494 17477 net.cpp:148] Top shape: 1 1 (1)
I0720 16:12:50.487500 17477 net.cpp:156] Memory required for data: 2004
I0720 16:12:50.487507 17477 layer_factory.hpp:77] Creating layer lstm1_
I0720 16:12:50.487519 17477 net.cpp:91] Creating Layer lstm1_
I0720 16:12:50.487527 17477 net.cpp:399] lstm1_ -> c_0
I0720 16:12:50.487540 17477 net.cpp:399] lstm1_ -> h_0
I0720 16:12:50.487553 17477 net.cpp:141] Setting up lstm1_
I0720 16:12:50.487567 17477 net.cpp:148] Top shape: 1 1 1000 (1000)
I0720 16:12:50.487576 17477 net.cpp:148] Top shape: 1 1 1000 (1000)
I0720 16:12:50.487582 17477 net.cpp:156] Memory required for data: 10004
I0720 16:12:50.487589 17477 layer_factory.hpp:77] Creating layer lstm1_cont_slice
I0720 16:12:50.487599 17477 net.cpp:91] Creating Layer lstm1_cont_slice
I0720 16:12:50.487607 17477 net.cpp:425] lstm1_cont_slice <- cont
I0720 16:12:50.487617 17477 net.cpp:399] lstm1_cont_slice -> cont_1
I0720 16:12:50.487632 17477 net.cpp:141] Setting up lstm1_cont_slice
I0720 16:12:50.487642 17477 net.cpp:148] Top shape: 1 1 (1)
I0720 16:12:50.487648 17477 net.cpp:156] Memory required for data: 10008
I0720 16:12:50.487654 17477 layer_factory.hpp:77] Creating layer cont_1_lstm1_cont_slice_0_split
I0720 16:12:50.487664 17477 net.cpp:91] Creating Layer cont_1_lstm1_cont_slice_0_split
I0720 16:12:50.487671 17477 net.cpp:425] cont_1_lstm1_cont_slice_0_split <- cont_1
I0720 16:12:50.487686 17477 net.cpp:399] cont_1_lstm1_cont_slice_0_split -> cont_1_lstm1_cont_slice_0_split_0
I0720 16:12:50.487699 17477 net.cpp:399] cont_1_lstm1_cont_slice_0_split -> cont_1_lstm1_cont_slice_0_split_1
I0720 16:12:50.487714 17477 net.cpp:141] Setting up cont_1_lstm1_cont_slice_0_split
I0720 16:12:50.487722 17477 net.cpp:148] Top shape: 1 1 (1)
I0720 16:12:50.487730 17477 net.cpp:148] Top shape: 1 1 (1)
I0720 16:12:50.487736 17477 net.cpp:156] Memory required for data: 10016
I0720 16:12:50.487743 17477 layer_factory.hpp:77] Creating layer lstm1_x_transform
I0720 16:12:50.487766 17477 net.cpp:91] Creating Layer lstm1_x_transform
I0720 16:12:50.487773 17477 net.cpp:425] lstm1_x_transform <- x
I0720 16:12:50.487788 17477 net.cpp:399] lstm1_x_transform -> W_xc_x
I0720 16:12:50.494884 17469 net.cpp:141] Setting up lstm1_x_transform
I0720 16:12:50.494933 17469 net.cpp:148] Top shape: 1 1 4000 (4000)
I0720 16:12:50.494942 17469 net.cpp:156] Memory required for data: 26016
I0720 16:12:50.494971 17469 layer_factory.hpp:77] Creating layer lstm1_W_xc_x_slice
I0720 16:12:50.494992 17469 net.cpp:91] Creating Layer lstm1_W_xc_x_slice
I0720 16:12:50.495002 17469 net.cpp:425] lstm1_W_xc_x_slice <- W_xc_x
I0720 16:12:50.495015 17469 net.cpp:399] lstm1_W_xc_x_slice -> W_xc_x_1
I0720 16:12:50.495075 17469 net.cpp:141] Setting up lstm1_W_xc_x_slice
I0720 16:12:50.495091 17469 net.cpp:148] Top shape: 1 1 4000 (4000)
I0720 16:12:50.495100 17469 net.cpp:156] Memory required for data: 42016
I0720 16:12:50.495110 17469 layer_factory.hpp:77] Creating layer lstm1_h_conted_0
I0720 16:12:50.495126 17469 net.cpp:91] Creating Layer lstm1_h_conted_0
I0720 16:12:50.495136 17469 net.cpp:425] lstm1_h_conted_0 <- h_0
I0720 16:12:50.495146 17469 net.cpp:425] lstm1_h_conted_0 <- cont_1_lstm1_cont_slice_0_split_0
I0720 16:12:50.495173 17469 net.cpp:399] lstm1_h_conted_0 -> h_conted_0
I0720 16:12:50.495224 17469 net.cpp:141] Setting up lstm1_h_conted_0
I0720 16:12:50.495239 17469 net.cpp:148] Top shape: 1 1 1000 (1000)
I0720 16:12:50.495246 17469 net.cpp:156] Memory required for data: 46016
I0720 16:12:50.495254 17469 layer_factory.hpp:77] Creating layer lstm1_transform_1
I0720 16:12:50.495271 17469 net.cpp:91] Creating Layer lstm1_transform_1
I0720 16:12:50.495280 17469 net.cpp:425] lstm1_transform_1 <- h_conted_0
I0720 16:12:50.495322 17469 net.cpp:399] lstm1_transform_1 -> W_hc_h_0
I0720 16:12:50.510134 17479 net.cpp:141] Setting up embedding
I0720 16:12:50.510190 17479 net.cpp:148] Top shape: 1 1 500 (500)
I0720 16:12:50.510196 17479 net.cpp:156] Memory required for data: 22408
I0720 16:12:50.510216 17479 layer_factory.hpp:77] Creating layer lstm1
I0720 16:12:50.510282 17479 net.cpp:91] Creating Layer lstm1
I0720 16:12:50.510293 17479 net.cpp:425] lstm1 <- embedded_input_frames
I0720 16:12:50.510303 17479 net.cpp:425] lstm1 <- cont_sentence_input_1_split_0
I0720 16:12:50.510318 17479 net.cpp:399] lstm1 -> lstm1
I0720 16:12:50.510339 17479 recurrent_layer.cpp:20] Initializing recurrent layer: assuming input batch contains 1 timesteps of 1 independent streams.
I0720 16:12:50.510738 17479 net.cpp:49] Initializing net from parameters: 
layer {
  name: "lstm1_"
  type: "Input"
  top: "x"
  top: "cont"
  input_param {
    shape {
      dim: 1
      dim: 1
      dim: 500
    }
    shape {
      dim: 1
      dim: 1
    }
  }
}
layer {
  name: "lstm1_"
  type: "Input"
  top: "c_0"
  top: "h_0"
  input_param {
    shape {
      dim: 1
      dim: 1
      dim: 1000
    }
    shape {
      dim: 1
      dim: 1
      dim: 1000
    }
  }
}
layer {
  name: "lstm1_cont_slice"
  type: "Slice"
  bottom: "cont"
  top: "cont_1"
  slice_param {
    axis: 0
  }
}
layer {
  name: "lstm1_x_transform"
  type: "InnerProduct"
  bottom: "x"
  top: "W_xc_x"
  param {
    name: "W_xc"
  }
  param {
    name: "b_c"
  }
  propagate_down: true
  inner_product_param {
    num_output: 4000
    bias_term: true
    weight_filler {
      type: "uniform"
      min: -0.08
      max: 0.08
    }
    bias_filler {
      type: "constant"
      value: 0
    }
    axis: 2
  }
}
layer {
  name: "lstm1_W_xc_x_slice"
  type: "Slice"
  bottom: "W_xc_x"
  top: "W_xc_x_1"
  slice_param {
    axis: 0
  }
}
layer {
  name: "lstm1_h_conted_0"
  type: "Scale"
  bottom: "h_0"
  bottom: "cont_1"
  top: "h_conted_0"
  scale_param {
    axis: 0
  }
}
layer {
  name: "lstm1_transform_1"
  type: "InnerProduct"
  bottom: "h_conted_0"
  top: "W_hc_h_0"
  param {
    name: "W_hc"
  }
  inner_product_param {
    num_output: 4000
    bias_term: false
    weight_filler {
      type: "uniform"
      min: -0.08
      max: 0.08
    }
    axis: 2
  }
}
layer {
  name: "lstm1_gate_input_1"
  type: "Eltwise"
  bottom: "W_hc_h_0"
  bottom: "W_xc_x_1"
  top: "gate_input_1"
  eltwise_param {
    operation: SUM
  }
}
layer {
  name: "lstm1_unit_1"
  type: "LSTMUnit"
  bottom: "c_0"
  bottom: "gate_input_1"
  bottom: "cont_1"
  top: "c_1"
  top: "h_1"
}
layer {
  name: "lstm1_"
  type: "Split"
  bottom: "c_1"
  top: "c_T"
}
layer {
  name: "lstm1_h_concat"
  type: "Concat"
  bottom: "h_1"
  top: "h"
  concat_param {
    axis: 0
  }
}
layer {
  name: "h_pseudoloss"
  type: "Reduction"
  bottom: "h"
  top: "h_pseudoloss"
  loss_weight: 1
}
I0720 16:12:50.510874 17479 layer_factory.hpp:77] Creating layer lstm1_
I0720 16:12:50.510890 17479 net.cpp:91] Creating Layer lstm1_
I0720 16:12:50.510897 17479 net.cpp:399] lstm1_ -> x
I0720 16:12:50.510910 17479 net.cpp:399] lstm1_ -> cont
I0720 16:12:50.510926 17479 net.cpp:141] Setting up lstm1_
I0720 16:12:50.510934 17479 net.cpp:148] Top shape: 1 1 500 (500)
I0720 16:12:50.510941 17479 net.cpp:148] Top shape: 1 1 (1)
I0720 16:12:50.510946 17479 net.cpp:156] Memory required for data: 2004
I0720 16:12:50.510952 17479 layer_factory.hpp:77] Creating layer lstm1_
I0720 16:12:50.510960 17479 net.cpp:91] Creating Layer lstm1_
I0720 16:12:50.510967 17479 net.cpp:399] lstm1_ -> c_0
I0720 16:12:50.510977 17479 net.cpp:399] lstm1_ -> h_0
I0720 16:12:50.510988 17479 net.cpp:141] Setting up lstm1_
I0720 16:12:50.510995 17479 net.cpp:148] Top shape: 1 1 1000 (1000)
I0720 16:12:50.511001 17479 net.cpp:148] Top shape: 1 1 1000 (1000)
I0720 16:12:50.511006 17479 net.cpp:156] Memory required for data: 10004
I0720 16:12:50.511011 17479 layer_factory.hpp:77] Creating layer lstm1_cont_slice
I0720 16:12:50.511040 17479 net.cpp:91] Creating Layer lstm1_cont_slice
I0720 16:12:50.511049 17479 net.cpp:425] lstm1_cont_slice <- cont
I0720 16:12:50.511056 17479 net.cpp:399] lstm1_cont_slice -> cont_1
I0720 16:12:50.511072 17479 net.cpp:141] Setting up lstm1_cont_slice
I0720 16:12:50.511080 17479 net.cpp:148] Top shape: 1 1 (1)
I0720 16:12:50.511085 17479 net.cpp:156] Memory required for data: 10008
I0720 16:12:50.511090 17479 layer_factory.hpp:77] Creating layer cont_1_lstm1_cont_slice_0_split
I0720 16:12:50.511101 17479 net.cpp:91] Creating Layer cont_1_lstm1_cont_slice_0_split
I0720 16:12:50.511106 17479 net.cpp:425] cont_1_lstm1_cont_slice_0_split <- cont_1
I0720 16:12:50.511114 17479 net.cpp:399] cont_1_lstm1_cont_slice_0_split -> cont_1_lstm1_cont_slice_0_split_0
I0720 16:12:50.511123 17479 net.cpp:399] cont_1_lstm1_cont_slice_0_split -> cont_1_lstm1_cont_slice_0_split_1
I0720 16:12:50.511134 17479 net.cpp:141] Setting up cont_1_lstm1_cont_slice_0_split
I0720 16:12:50.511142 17479 net.cpp:148] Top shape: 1 1 (1)
I0720 16:12:50.511147 17479 net.cpp:148] Top shape: 1 1 (1)
I0720 16:12:50.511152 17479 net.cpp:156] Memory required for data: 10016
I0720 16:12:50.511157 17479 layer_factory.hpp:77] Creating layer lstm1_x_transform
I0720 16:12:50.511173 17479 net.cpp:91] Creating Layer lstm1_x_transform
I0720 16:12:50.511178 17479 net.cpp:425] lstm1_x_transform <- x
I0720 16:12:50.511190 17479 net.cpp:399] lstm1_x_transform -> W_xc_x
I0720 16:12:50.515106 17465 net.cpp:141] Setting up embedding
I0720 16:12:50.515143 17465 net.cpp:148] Top shape: 1 1 500 (500)
I0720 16:12:50.515151 17465 net.cpp:156] Memory required for data: 22408
I0720 16:12:50.515171 17465 layer_factory.hpp:77] Creating layer lstm1
I0720 16:12:50.515192 17465 net.cpp:91] Creating Layer lstm1
I0720 16:12:50.515200 17465 net.cpp:425] lstm1 <- embedded_input_frames
I0720 16:12:50.515211 17465 net.cpp:425] lstm1 <- cont_sentence_input_1_split_0
I0720 16:12:50.515244 17465 net.cpp:399] lstm1 -> lstm1
I0720 16:12:50.515264 17465 recurrent_layer.cpp:20] Initializing recurrent layer: assuming input batch contains 1 timesteps of 1 independent streams.
I0720 16:12:50.515626 17465 net.cpp:49] Initializing net from parameters: 
layer {
  name: "lstm1_"
  type: "Input"
  top: "x"
  top: "cont"
  input_param {
    shape {
      dim: 1
      dim: 1
      dim: 500
    }
    shape {
      dim: 1
      dim: 1
    }
  }
}
layer {
  name: "lstm1_"
  type: "Input"
  top: "c_0"
  top: "h_0"
  input_param {
    shape {
      dim: 1
      dim: 1
      dim: 1000
    }
    shape {
      dim: 1
      dim: 1
      dim: 1000
    }
  }
}
layer {
  name: "lstm1_cont_slice"
  type: "Slice"
  bottom: "cont"
  top: "cont_1"
  slice_param {
    axis: 0
  }
}
layer {
  name: "lstm1_x_transform"
  type: "InnerProduct"
  bottom: "x"
  top: "W_xc_x"
  param {
    name: "W_xc"
  }
  param {
    name: "b_c"
  }
  propagate_down: true
  inner_product_param {
    num_output: 4000
    bias_term: true
    weight_filler {
      type: "uniform"
      min: -0.08
      max: 0.08
    }
    bias_filler {
      type: "constant"
      value: 0
    }
    axis: 2
  }
}
layer {
  name: "lstm1_W_xc_x_slice"
  type: "Slice"
  bottom: "W_xc_x"
  top: "W_xc_x_1"
  slice_param {
    axis: 0
  }
}
layer {
  name: "lstm1_h_conted_0"
  type: "Scale"
  bottom: "h_0"
  bottom: "cont_1"
  top: "h_conted_0"
  scale_param {
    axis: 0
  }
}
layer {
  name: "lstm1_transform_1"
  type: "InnerProduct"
  bottom: "h_conted_0"
  top: "W_hc_h_0"
  param {
    name: "W_hc"
  }
  inner_product_param {
    num_output: 4000
    bias_term: false
    weight_filler {
      type: "uniform"
      min: -0.08
      max: 0.08
    }
    axis: 2
  }
}
layer {
  name: "lstm1_gate_input_1"
  type: "Eltwise"
  bottom: "W_hc_h_0"
  bottom: "W_xc_x_1"
  top: "gate_input_1"
  eltwise_param {
    operation: SUM
  }
}
layer {
  name: "lstm1_unit_1"
  type: "LSTMUnit"
  bottom: "c_0"
  bottom: "gate_input_1"
  bottom: "cont_1"
  top: "c_1"
  top: "h_1"
}
layer {
  name: "lstm1_"
  type: "Split"
  bottom: "c_1"
  top: "c_T"
}
layer {
  name: "lstm1_h_concat"
  type: "Concat"
  bottom: "h_1"
  top: "h"
  concat_param {
    axis: 0
  }
}
layer {
  name: "h_pseudoloss"
  type: "Reduction"
  bottom: "h"
  top: "h_pseudoloss"
  loss_weight: 1
}
I0720 16:12:50.515702 17475 net.cpp:141] Setting up lstm1_transform_1
I0720 16:12:50.515723 17475 net.cpp:148] Top shape: 1 1 4000 (4000)
I0720 16:12:50.515732 17475 net.cpp:156] Memory required for data: 62016
I0720 16:12:50.515748 17475 layer_factory.hpp:77] Creating layer lstm1_gate_input_1
I0720 16:12:50.515750 17465 layer_factory.hpp:77] Creating layer lstm1_
I0720 16:12:50.515766 17465 net.cpp:91] Creating Layer lstm1_
I0720 16:12:50.515766 17475 net.cpp:91] Creating Layer lstm1_gate_input_1
I0720 16:12:50.515777 17465 net.cpp:399] lstm1_ -> x
I0720 16:12:50.515779 17475 net.cpp:425] lstm1_gate_input_1 <- W_hc_h_0
I0720 16:12:50.515790 17475 net.cpp:425] lstm1_gate_input_1 <- W_xc_x_1
I0720 16:12:50.515794 17465 net.cpp:399] lstm1_ -> cont
I0720 16:12:50.515810 17465 net.cpp:141] Setting up lstm1_
I0720 16:12:50.515812 17475 net.cpp:399] lstm1_gate_input_1 -> gate_input_1
I0720 16:12:50.515821 17465 net.cpp:148] Top shape: 1 1 500 (500)
I0720 16:12:50.515830 17465 net.cpp:148] Top shape: 1 1 (1)
I0720 16:12:50.515836 17465 net.cpp:156] Memory required for data: 2004
I0720 16:12:50.515841 17475 net.cpp:141] Setting up lstm1_gate_input_1
I0720 16:12:50.515843 17465 layer_factory.hpp:77] Creating layer lstm1_
I0720 16:12:50.515853 17475 net.cpp:148] Top shape: 1 1 4000 (4000)
I0720 16:12:50.515854 17465 net.cpp:91] Creating Layer lstm1_
I0720 16:12:50.515869 17475 net.cpp:156] Memory required for data: 78016
I0720 16:12:50.515875 17465 net.cpp:399] lstm1_ -> c_0
I0720 16:12:50.515878 17475 layer_factory.hpp:77] Creating layer lstm1_unit_1
I0720 16:12:50.515890 17465 net.cpp:399] lstm1_ -> h_0
I0720 16:12:50.515903 17475 net.cpp:91] Creating Layer lstm1_unit_1
I0720 16:12:50.515904 17465 net.cpp:141] Setting up lstm1_
I0720 16:12:50.515916 17475 net.cpp:425] lstm1_unit_1 <- c_0
I0720 16:12:50.515923 17465 net.cpp:148] Top shape: 1 1 1000 (1000)
I0720 16:12:50.515928 17475 net.cpp:425] lstm1_unit_1 <- gate_input_1
I0720 16:12:50.515931 17465 net.cpp:148] Top shape: 1 1 1000 (1000)
I0720 16:12:50.515936 17475 net.cpp:425] lstm1_unit_1 <- cont_1_lstm1_cont_slice_0_split_1
I0720 16:12:50.515938 17465 net.cpp:156] Memory required for data: 10004
I0720 16:12:50.515954 17465 layer_factory.hpp:77] Creating layer lstm1_cont_slice
I0720 16:12:50.515959 17475 net.cpp:399] lstm1_unit_1 -> c_1
I0720 16:12:50.515965 17465 net.cpp:91] Creating Layer lstm1_cont_slice
I0720 16:12:50.515974 17465 net.cpp:425] lstm1_cont_slice <- cont
I0720 16:12:50.515974 17475 net.cpp:399] lstm1_unit_1 -> h_1
I0720 16:12:50.515983 17465 net.cpp:399] lstm1_cont_slice -> cont_1
I0720 16:12:50.515990 17475 net.cpp:141] Setting up lstm1_unit_1
I0720 16:12:50.516000 17465 net.cpp:141] Setting up lstm1_cont_slice
I0720 16:12:50.516002 17475 net.cpp:148] Top shape: 1 1 1000 (1000)
I0720 16:12:50.516010 17465 net.cpp:148] Top shape: 1 1 (1)
I0720 16:12:50.516013 17475 net.cpp:148] Top shape: 1 1 1000 (1000)
I0720 16:12:50.516017 17465 net.cpp:156] Memory required for data: 10008
I0720 16:12:50.516021 17475 net.cpp:156] Memory required for data: 86016
I0720 16:12:50.516024 17465 layer_factory.hpp:77] Creating layer cont_1_lstm1_cont_slice_0_split
I0720 16:12:50.516029 17475 layer_factory.hpp:77] Creating layer lstm1_
I0720 16:12:50.516041 17475 net.cpp:91] Creating Layer lstm1_
I0720 16:12:50.516041 17465 net.cpp:91] Creating Layer cont_1_lstm1_cont_slice_0_split
I0720 16:12:50.516049 17475 net.cpp:425] lstm1_ <- c_1
I0720 16:12:50.516050 17465 net.cpp:425] cont_1_lstm1_cont_slice_0_split <- cont_1
I0720 16:12:50.516068 17465 net.cpp:399] cont_1_lstm1_cont_slice_0_split -> cont_1_lstm1_cont_slice_0_split_0
I0720 16:12:50.516072 17475 net.cpp:399] lstm1_ -> c_T
I0720 16:12:50.516080 17465 net.cpp:399] cont_1_lstm1_cont_slice_0_split -> cont_1_lstm1_cont_slice_0_split_1
I0720 16:12:50.516088 17475 net.cpp:141] Setting up lstm1_
I0720 16:12:50.516093 17465 net.cpp:141] Setting up cont_1_lstm1_cont_slice_0_split
I0720 16:12:50.516099 17475 net.cpp:148] Top shape: 1 1 1000 (1000)
I0720 16:12:50.516106 17475 net.cpp:156] Memory required for data: 90016
I0720 16:12:50.516111 17465 net.cpp:148] Top shape: 1 1 (1)
I0720 16:12:50.516114 17475 layer_factory.hpp:77] Creating layer lstm1_h_concat
I0720 16:12:50.516121 17465 net.cpp:148] Top shape: 1 1 (1)
I0720 16:12:50.516129 17475 net.cpp:91] Creating Layer lstm1_h_concat
I0720 16:12:50.516129 17465 net.cpp:156] Memory required for data: 10016
I0720 16:12:50.516140 17475 net.cpp:425] lstm1_h_concat <- h_1
I0720 16:12:50.516144 17465 layer_factory.hpp:77] Creating layer lstm1_x_transform
I0720 16:12:50.516155 17475 net.cpp:399] lstm1_h_concat -> h
I0720 16:12:50.516158 17465 net.cpp:91] Creating Layer lstm1_x_transform
I0720 16:12:50.516165 17465 net.cpp:425] lstm1_x_transform <- x
I0720 16:12:50.516183 17475 net.cpp:141] Setting up lstm1_h_concat
I0720 16:12:50.516190 17465 net.cpp:399] lstm1_x_transform -> W_xc_x
I0720 16:12:50.516196 17475 net.cpp:148] Top shape: 1 1 1000 (1000)
I0720 16:12:50.516203 17475 net.cpp:156] Memory required for data: 94016
I0720 16:12:50.516211 17475 layer_factory.hpp:77] Creating layer h_pseudoloss
I0720 16:12:50.516229 17475 net.cpp:91] Creating Layer h_pseudoloss
I0720 16:12:50.516237 17475 net.cpp:425] h_pseudoloss <- h
I0720 16:12:50.516759 17475 net.cpp:399] h_pseudoloss -> h_pseudoloss
I0720 16:12:50.516811 17475 net.cpp:141] Setting up h_pseudoloss
…
I0720 16:12:50.516975 17475 net.cpp:219] lstm1_ does not need backward computation.
I0720 16:12:50.516983 17475 net.cpp:261] This network produces output c_T
I0720 16:12:50.516989 17475 net.cpp:261] This network produces output h_pseudoloss
I0720 16:12:50.517015 17475 net.cpp:274] Network initialization done.
I0720 16:12:50.517091 17475 recurrent_layer.cpp:150] Adding parameter 0: W_xc
I0720 16:12:50.517102 17475 recurrent_layer.cpp:150] Adding parameter 1: b_c
I0720 16:12:50.517110 17475 recurrent_layer.cpp:150] Adding parameter 2: W_hc
I0720 16:12:50.517431 17475 net.cpp:141] Setting up lstm1
I0720 16:12:50.517449 17475 net.cpp:148] Top shape: 1 1 1000 (1000)
I0720 16:12:50.517457 17475 net.cpp:156] Memory required for data: 26408
I0720 16:12:50.517478 17475 layer_factory.hpp:77] Creating layer concat
I0720 16:12:50.517494 17475 net.cpp:91] Creating Layer concat
I0720 16:12:50.517503 17475 net.cpp:425] concat <- lstm1
I0720 16:12:50.517513 17475 net.cpp:425] concat <- embedded_input_sentence
I0720 16:12:50.517523 17475 net.cpp:425] concat <- reshaped_stage_indicator
I0720 16:12:50.517532 17475 net.cpp:399] concat -> lstm1_video_sequence
I0720 16:12:50.517549 17475 net.cpp:141] Setting up concat
I0720 16:12:50.517562 17475 net.cpp:148] Top shape: 1 1 1501 (1501)
I0720 16:12:50.517570 17475 net.cpp:156] Memory required for data: 32412
I0720 16:12:50.517576 17475 layer_factory.hpp:77] Creating layer lstm2
I0720 16:12:50.517595 17475 net.cpp:91] Creating Layer lstm2
I0720 16:12:50.517601 17475 net.cpp:425] lstm2 <- lstm1_video_sequence
I0720 16:12:50.517609 17475 net.cpp:425] lstm2 <- cont_sentence_input_1_split_1
I0720 16:12:50.517621 17475 net.cpp:399] lstm2 -> lstm2
I0720 16:12:50.517634 17475 recurrent_layer.cpp:20] Initializing recurrent layer: assuming input batch contains 1 timesteps of 1 independent streams.
I0720 16:12:50.518004 17475 net.cpp:49] Initializing net from parameters: 
layer {
  name: "lstm2_"
  type: "Input"
  top: "x"
  top: "cont"
  input_param {
    shape {
      dim: 1
      dim: 1
      dim: 1501
    }
    shape {
      dim: 1
      dim: 1
    }
  }
}
layer {
  name: "lstm2_"
  type: "Input"
  top: "c_0"
  top: "h_0"
  input_param {
    shape {
      dim: 1
      dim: 1
      dim: 1000
    }
    shape {
      dim: 1
      dim: 1
      dim: 1000
    }
  }
}
layer {
  name: "lstm2_cont_slice"
  type: "Slice"
  bottom: "cont"
  top: "cont_1"
  slice_param {
    axis: 0
  }
}
layer {
  name: "lstm2_x_transform"
  type: "InnerProduct"
  bottom: "x"
  top: "W_xc_x"
  param {
    name: "W_xc"
  }
  param {
    name: "b_c"
  }
  propagate_down: true
  inner_product_param {
    num_output: 4000
    bias_term: true
    weight_filler {
      type: "uniform"
      min: -0.08
      max: 0.08
    }
    bias_filler {
      type: "constant"
      value: 0
    }
    axis: 2
  }
}
layer {
  name: "lstm2_W_xc_x_slice"
  type: "Slice"
  bottom: "W_xc_x"
  top: "W_xc_x_1"
  slice_param {
    axis: 0
  }
}
layer {
  name: "lstm2_h_conted_0"
  type: "Scale"
  bottom: "h_0"
  bottom: "cont_1"
  top: "h_conted_0"
  scale_param {
    axis: 0
  }
}
layer {
  name: "lstm2_transform_1"
  type: "InnerProduct"
  bottom: "h_conted_0"
  top: "W_hc_h_0"
  param {
    name: "W_hc"
  }
  inner_product_param {
    num_output: 4000
    bias_term: false
    weight_filler {
      type: "uniform"
      min: -0.08
      max: 0.08
    }
    axis: 2
  }
}
layer {
  name: "lstm2_gate_input_1"
  type: "Eltwise"
  bottom: "W_hc_h_0"
  bottom: "W_xc_x_1"
  top: "gate_input_1"
  eltwise_param {
    operation: SUM
  }
}
layer {
  name: "lstm2_unit_1"
  type: "LSTMUnit"
  bottom: "c_0"
  bottom: "gate_input_1"
  bottom: "cont_1"
  top: "c_1"
  top: "h_1"
}
layer {
  name: "lstm2_"
  type: "Split"
  bottom: "c_1"
  top: "c_T"
}
layer {
  name: "lstm2_h_concat"
  type: "Concat"
  bottom: "h_1"
  top: "h"
  concat_param {
    axis: 0
  }
}
layer {
  name: "h_pseudoloss"
  type: "Reduction"
  bottom: "h"
  top: "h_pseudoloss"
  loss_weight: 1
}
I0720 16:12:50.518165 17475 layer_factory.hpp:77] Creating layer lstm2_
I0720 16:12:50.518188 17475 net.cpp:91] Creating Layer lstm2_
I0720 16:12:50.518199 17475 net.cpp:399] lstm2_ -> x
I0720 16:12:50.518218 17475 net.cpp:399] lstm2_ -> cont
I0720 16:12:50.518236 17475 net.cpp:141] Setting up lstm2_
I0720 16:12:50.518249 17475 net.cpp:148] Top shape: 1 1 1501 (1501)
I0720 16:12:50.518260 17475 net.cpp:148] Top shape: 1 1 (1)
I0720 16:12:50.518266 17475 net.cpp:156] Memory required for data: 6008
I0720 16:12:50.518275 17475 layer_factory.hpp:77] Creating layer lstm2_
I0720 16:12:50.518288 17475 net.cpp:91] Creating Layer lstm2_
I0720 16:12:50.518298 17475 net.cpp:399] lstm2_ -> c_0
I0720 16:12:50.518316 17475 net.cpp:399] lstm2_ -> h_0
I0720 16:12:50.518332 17475 net.cpp:141] Setting up lstm2_
I0720 16:12:50.518343 17475 net.cpp:148] Top shape: 1 1 1000 (1000)
I0720 16:12:50.518353 17475 net.cpp:148] Top shape: 1 1 1000 (1000)
I0720 16:12:50.518359 17475 net.cpp:156] Memory required for data: 14008
I0720 16:12:50.518368 17475 layer_factory.hpp:77] Creating layer lstm2_cont_slice
I0720 16:12:50.518380 17475 net.cpp:91] Creating Layer lstm2_cont_slice
I0720 16:12:50.518388 17475 net.cpp:425] lstm2_cont_slice <- cont
I0720 16:12:50.518399 17475 net.cpp:399] lstm2_cont_slice -> cont_1
I0720 16:12:50.518415 17475 net.cpp:141] Setting up lstm2_cont_slice
I0720 16:12:50.518427 17475 net.cpp:148] Top shape: 1 1 (1)
I0720 16:12:50.518435 17475 net.cpp:156] Memory required for data: 14012
I0720 16:12:50.518442 17475 layer_factory.hpp:77] Creating layer cont_1_lstm2_cont_slice_0_split
I0720 16:12:50.518476 17475 net.cpp:91] Creating Layer cont_1_lstm2_cont_slice_0_split
I0720 16:12:50.518487 17475 net.cpp:425] cont_1_lstm2_cont_slice_0_split <- cont_1
I0720 16:12:50.518501 17475 net.cpp:399] cont_1_lstm2_cont_slice_0_split -> cont_1_lstm2_cont_slice_0_split_0
I0720 16:12:50.518515 17475 net.cpp:399] cont_1_lstm2_cont_slice_0_split -> cont_1_lstm2_cont_slice_0_split_1
I0720 16:12:50.518532 17475 net.cpp:141] Setting up cont_1_lstm2_cont_slice_0_split
I0720 16:12:50.518544 17475 net.cpp:148] Top shape: 1 1 (1)
I0720 16:12:50.518554 17475 net.cpp:148] Top shape: 1 1 (1)
I0720 16:12:50.518563 17475 net.cpp:156] Memory required for data: 14020
I0720 16:12:50.518570 17475 layer_factory.hpp:77] Creating layer lstm2_x_transform
I0720 16:12:50.518589 17475 net.cpp:91] Creating Layer lstm2_x_transform
I0720 16:12:50.518599 17475 net.cpp:425] lstm2_x_transform <- x
I0720 16:12:50.518631 17475 net.cpp:399] lstm2_x_transform -> W_xc_x
I0720 16:12:50.520175 17467 net.cpp:141] Setting up embedding
I0720 16:12:50.520287 17467 net.cpp:148] Top shape: 1 1 500 (500)
I0720 16:12:50.520298 17467 net.cpp:156] Memory required for data: 22408
I0720 16:12:50.520314 17467 layer_factory.hpp:77] Creating layer lstm1
I0720 16:12:50.520331 17467 net.cpp:91] Creating Layer lstm1
I0720 16:12:50.520340 17467 net.cpp:425] lstm1 <- embedded_input_frames
I0720 16:12:50.520350 17467 net.cpp:425] lstm1 <- cont_sentence_input_1_split_0
I0720 16:12:50.520378 17467 net.cpp:399] lstm1 -> lstm1
I0720 16:12:50.520396 17467 recurrent_layer.cpp:20] Initializing recurrent layer: assuming input batch contains 1 timesteps of 1 independent streams.
I0720 16:12:50.521006 17461 net.cpp:141] Setting up embedding
I0720 16:12:50.521052 17461 net.cpp:148] Top shape: 1 1 500 (500)
I0720 16:12:50.521061 17461 net.cpp:156] Memory required for data: 22408
I0720 16:12:50.521085 17461 layer_factory.hpp:77] Creating layer lstm1
I0720 16:12:50.521109 17461 net.cpp:91] Creating Layer lstm1
I0720 16:12:50.521121 17461 net.cpp:425] lstm1 <- embedded_input_frames
I0720 16:12:50.521133 17461 net.cpp:425] lstm1 <- cont_sentence_input_1_split_0
I0720 16:12:50.521589 17461 net.cpp:399] lstm1 -> lstm1
I0720 16:12:50.521605 17467 net.cpp:49] Initializing net from parameters: 
layer {
  name: "lstm1_"
  type: "Input"
  top: "x"
  top: "cont"
  input_param {
    shape {
      dim: 1
      dim: 1
      dim: 500
    }
    shape {
      dim: 1
      dim: 1
    }
  }
}
layer {
  name: "lstm1_"
  type: "Input"
  top: "c_0"
  top: "h_0"
  input_param {
    shape {
      dim: 1
      dim: 1
      dim: 1000
    }
    shape {
      dim: 1
      dim: 1
      dim: 1000
    }
  }
}
layer {
  name: "lstm1_cont_slice"
  type: "Slice"
  bottom: "cont"
  top: "cont_1"
  slice_param {
    axis: 0
  }
}
layer {
  name: "lstm1_x_transform"
  type: "InnerProduct"
  bottom: "x"
  top: "W_xc_x"
  param {
    name: "W_xc"
  }
  param {
    name: "b_c"
  }
  propagate_down: true
  inner_product_param {
    num_output: 4000
    bias_term: true
    weight_filler {
      type: "uniform"
      min: -0.08
      max: 0.08
    }
    bias_filler {
      type: "constant"
      value: 0
    }
    axis: 2
  }
}
layer {
  name: "lstm1_W_xc_x_slice"
  type: "Slice"
  bottom: "W_xc_x"
  top: "W_xc_x_1"
  slice_param {
    axis: 0
  }
}
layer {
  name: "lstm1_h_conted_0"
  type: "Scale"
  bottom: "h_0"
  bottom: "cont_1"
  top: "h_conted_0"
  scale_param {
    axis: 0
  }
}
layer {
  name: "lstm1_transform_1"
  type: "InnerProduct"
  bottom: "h_conted_0"
  top: "W_hc_h_0"
  param {
    name: "W_hc"
  }
  inner_product_param {
    num_output: 4000
    bias_term: false
    weight_filler {
      type: "uniform"
      min: -0.08
      max: 0.08
    }
    axis: 2
  }
}
layer {
  name: "lstm1_gate_input_1"
  type: "Eltwise"
  bottom: "W_hc_h_0"
  bottom: "W_xc_x_1"
  top: "gate_input_1"
  eltwise_param {
    operation: SUM
  }
}
layer {
  name: "lstm1_unit_1"
  type: "LSTMUnit"
  bottom: "c_0"
  bottom: "gate_input_1"
  bottom: "cont_1"
  top: "c_1"
  top: "h_1"
}
layer {
  name: "lstm1_"
  type: "Split"
  bottom: "c_1"
  top: "c_T"
}
layer {
  name: "lstm1_h_concat"
  type: "Concat"
  bottom: "h_1"
  top: "h"
  concat_param {
    axis: 0
  }
}
layer {
  name: "h_pseudoloss"
  type: "Reduction"
  bottom: "h"
  top: "h_pseudoloss"
  loss_weight: 1
}
I0720 16:12:50.521615 17461 recurrent_layer.cpp:20] Initializing recurrent layer: assuming input batch contains 1 timesteps of 1 independent streams.
I0720 16:12:50.522199 17467 layer_factory.hpp:77] Creating layer lstm1_
I0720 16:12:50.522225 17467 net.cpp:91] Creating Layer lstm1_
I0720 16:12:50.522222 17495 net.cpp:141] Setting up lstm1_x_transform
I0720 16:12:50.522236 17467 net.cpp:399] lstm1_ -> x
I0720 16:12:50.522243 17495 net.cpp:148] Top shape: 1 1 4000 (4000)
I0720 16:12:50.522251 17495 net.cpp:156] Memory required for data: 26016
I0720 16:12:50.522253 17467 net.cpp:399] lstm1_ -> cont
I0720 16:12:50.522269 17495 layer_factory.hpp:77] Creating layer lstm1_W_xc_x_slice
I0720 16:12:50.522272 17467 net.cpp:141] Setting up lstm1_
I0720 16:12:50.522282 17495 net.cpp:91] Creating Layer lstm1_W_xc_x_slice
I0720 16:12:50.522284 17467 net.cpp:148] Top shape: 1 1 500 (500)
I0720 16:12:50.522296 17495 net.cpp:425] lstm1_W_xc_x_slice <- W_xc_x
I0720 16:12:50.522302 17467 net.cpp:148] Top shape: 1 1 (1)
I0720 16:12:50.522310 17467 net.cpp:156] Memory required for data: 2004
I0720 16:12:50.522316 17467 layer_factory.hpp:77] Creating layer lstm1_
I0720 16:12:50.522327 17467 net.cpp:91] Creating Layer lstm1_
I0720 16:12:50.522337 17467 net.cpp:399] lstm1_ -> c_0
I0720 16:12:50.522351 17467 net.cpp:399] lstm1_ -> h_0
I0720 16:12:50.522364 17467 net.cpp:141] Setting up lstm1_
I0720 16:12:50.522374 17467 net.cpp:148] Top shape: 1 1 1000 (1000)
I0720 16:12:50.522383 17467 net.cpp:148] Top shape: 1 1 1000 (1000)
I0720 16:12:50.522389 17467 net.cpp:156] Memory required for data: 10004
I0720 16:12:50.522395 17467 layer_factory.hpp:77] Creating layer lstm1_cont_slice
I0720 16:12:50.522406 17467 net.cpp:91] Creating Layer lstm1_cont_slice
I0720 16:12:50.522413 17467 net.cpp:425] lstm1_cont_slice <- cont
I0720 16:12:50.522423 17467 net.cpp:399] lstm1_cont_slice -> cont_1
I0720 16:12:50.522439 17467 net.cpp:141] Setting up lstm1_cont_slice
I0720 16:12:50.522449 17467 net.cpp:148] Top shape: 1 1 (1)
I0720 16:12:50.522456 17467 net.cpp:156] Memory required for data: 10008
I0720 16:12:50.522462 17467 layer_factory.hpp:77] Creating layer cont_1_lstm1_cont_slice_0_split
I0720 16:12:50.522804 17495 net.cpp:399] lstm1_W_xc_x_slice -> W_xc_x_1
I0720 16:12:50.522806 17467 net.cpp:91] Creating Layer cont_1_lstm1_cont_slice_0_split
I0720 16:12:50.522826 17467 net.cpp:425] cont_1_lstm1_cont_slice_0_split <- cont_1
I0720 16:12:50.522833 17495 net.cpp:141] Setting up lstm1_W_xc_x_slice
I0720 16:12:50.522838 17467 net.cpp:399] cont_1_lstm1_cont_slice_0_split -> cont_1_lstm1_cont_slice_0_split_0
I0720 16:12:50.522840 17461 net.cpp:49] Initializing net from parameters: 
layer {
  name: "lstm1_"
  type: "Input"
  top: "x"
  top: "cont"
  input_param {
    shape {
      dim: 1
      dim: 1
      dim: 500
    }
    shape {
      dim: 1
      dim: 1
    }
  }
}
layer {
  name: "lstm1_"
  type: "Input"
  top: "c_0"
  top: "h_0"
  input_param {
    shape {
      dim: 1
      dim: 1
      dim: 1000
    }
    shape {
      dim: 1
      dim: 1
      dim: 1000
    }
  }
}
layer {
  name: "lstm1_cont_slice"
  type: "Slice"
  bottom: "cont"
  top: "cont_1"
  slice_param {
    axis: 0
  }
}
layer {
  name: "lstm1_x_transform"
  type: "InnerProduct"
  bottom: "x"
  top: "W_xc_x"
  param {
    name: "W_xc"
  }
  param {
    name: "b_c"
  }
  propagate_down: true
  inner_product_param {
    num_output: 4000
    bias_term: true
    weight_filler {
      type: "uniform"
      min: -0.08
      max: 0.08
    }
    bias_filler {
      type: "constant"
      value: 0
    }
    axis: 2
  }
}
layer {
  name: "lstm1_W_xc_x_slice"
  type: "Slice"
  bottom: "W_xc_x"
  top: "W_xc_x_1"
  slice_param {
    axis: 0
  }
}
layer {
  name: "lstm1_h_conted_0"
  type: "Scale"
  bottom: "h_0"
  bottom: "cont_1"
  top: "h_conted_0"
  scale_param {
    axis: 0
  }
}
layer {
  name: "lstm1_transform_1"
  type: "InnerProduct"
  bottom: "h_conted_0"
  top: "W_hc_h_0"
  param {
    name: "W_hc"
  }
  inner_product_param {
    num_output: 4000
    bias_term: false
    weight_filler {
      type: "uniform"
      min: -0.08
      max: 0.08
    }
    axis: 2
  }
}
layer {
  name: "lstm1_gate_input_1"
  type: "Eltwise"
  bottom: "W_hc_h_0"
  bottom: "W_xc_x_1"
  top: "gate_input_1"
  eltwise_param {
    operation: SUM
  }
}
layer {
  name: "lstm1_unit_1"
  type: "LSTMUnit"
  bottom: "c_0"
  bottom: "gate_input_1"
  bottom: "cont_1"
  top: "c_1"
  top: "h_1"
}
layer {
  name: "lstm1_"
  type: "Split"
  bottom: "c_1"
  top: "c_T"
}
layer {
  name: "lstm1_h_concat"
  type: "Concat"
  bottom: "h_1"
  top: "h"
  concat_param {
    axis: 0
  }
}
layer {
  name: "h_pseudoloss"
  type: "Reduction"
  bottom: "h"
  top: "h_pseudoloss"
  loss_weight: 1
}
I0720 16:12:50.522847 17495 net.cpp:148] Top shape: 1 1 4000 (4000)
I0720 16:12:50.522852 17467 net.cpp:399] cont_1_lstm1_cont_slice_0_split -> cont_1_lstm1_cont_slice_0_split_1
I0720 16:12:50.522877 17495 net.cpp:156] Memory required for data: 42016
I0720 16:12:50.522886 17495 layer_factory.hpp:77] Creating layer lstm1_h_conted_0
I0720 16:12:50.522891 17467 net.cpp:141] Setting up cont_1_lstm1_cont_slice_0_split
I0720 16:12:50.522899 17495 net.cpp:91] Creating Layer lstm1_h_conted_0
I0720 16:12:50.522907 17495 net.cpp:425] lstm1_h_conted_0 <- h_0
I0720 16:12:50.522917 17495 net.cpp:425] lstm1_h_conted_0 <- cont_1_lstm1_cont_slice_0_split_0
I0720 16:12:50.523380 17467 net.cpp:148] Top shape: 1 1 (1)
I0720 16:12:50.523383 17495 net.cpp:399] lstm1_h_conted_0 -> h_conted_0
I0720 16:12:50.523392 17467 net.cpp:148] Top shape: 1 1 (1)
I0720 16:12:50.523399 17467 net.cpp:156] Memory required for data: 10016
I0720 16:12:50.523406 17467 layer_factory.hpp:77] Creating layer lstm1_x_transform
I0720 16:12:50.523419 17495 net.cpp:141] Setting up lstm1_h_conted_0
I0720 16:12:50.523422 17467 net.cpp:91] Creating Layer lstm1_x_transform
I0720 16:12:50.523430 17467 net.cpp:425] lstm1_x_transform <- x
I0720 16:12:50.523432 17495 net.cpp:148] Top shape: 1 1 1000 (1000)
I0720 16:12:50.523439 17495 net.cpp:156] Memory required for data: 46016
I0720 16:12:50.523445 17495 layer_factory.hpp:77] Creating layer lstm1_transform_1
I0720 16:12:50.523452 17467 net.cpp:399] lstm1_x_transform -> W_xc_x
I0720 16:12:50.523458 17495 net.cpp:91] Creating Layer lstm1_transform_1
I0720 16:12:50.523466 17495 net.cpp:425] lstm1_transform_1 <- h_conted_0
I0720 16:12:50.523480 17461 layer_factory.hpp:77] Creating layer lstm1_
I0720 16:12:50.523497 17495 net.cpp:399] lstm1_transform_1 -> W_hc_h_0
I0720 16:12:50.523502 17461 net.cpp:91] Creating Layer lstm1_
I0720 16:12:50.523514 17461 net.cpp:399] lstm1_ -> x
I0720 16:12:50.523533 17461 net.cpp:399] lstm1_ -> cont
I0720 16:12:50.523555 17461 net.cpp:141] Setting up lstm1_
I0720 16:12:50.523567 17461 net.cpp:148] Top shape: 1 1 500 (500)
I0720 16:12:50.523578 17461 net.cpp:148] Top shape: 1 1 (1)
I0720 16:12:50.523586 17461 net.cpp:156] Memory required for data: 2004
I0720 16:12:50.523594 17461 layer_factory.hpp:77] Creating layer lstm1_
I0720 16:12:50.523607 17461 net.cpp:91] Creating Layer lstm1_
I0720 16:12:50.523617 17461 net.cpp:399] lstm1_ -> c_0
I0720 16:12:50.523633 17461 net.cpp:399] lstm1_ -> h_0
I0720 16:12:50.523648 17461 net.cpp:141] Setting up lstm1_
I0720 16:12:50.523658 17461 net.cpp:148] Top shape: 1 1 1000 (1000)
I0720 16:12:50.523669 17461 net.cpp:148] Top shape: 1 1 1000 (1000)
I0720 16:12:50.523675 17461 net.cpp:156] Memory required for data: 10004
I0720 16:12:50.523682 17461 layer_factory.hpp:77] Creating layer lstm1_cont_slice
I0720 16:12:50.523694 17461 net.cpp:91] Creating Layer lstm1_cont_slice
I0720 16:12:50.523702 17461 net.cpp:425] lstm1_cont_slice <- cont
I0720 16:12:50.523713 17461 net.cpp:399] lstm1_cont_slice -> cont_1
I0720 16:12:50.523732 17461 net.cpp:141] Setting up lstm1_cont_slice
I0720 16:12:50.523743 17461 net.cpp:148] Top shape: 1 1 (1)
I0720 16:12:50.523751 17461 net.cpp:156] Memory required for data: 10008
I0720 16:12:50.523757 17461 layer_factory.hpp:77] Creating layer cont_1_lstm1_cont_slice_0_split
I0720 16:12:50.524044 17461 net.cpp:91] Creating Layer cont_1_lstm1_cont_slice_0_split
I0720 16:12:50.524040 17489 net.cpp:141] Setting up embedding
I0720 16:12:50.524057 17461 net.cpp:425] cont_1_lstm1_cont_slice_0_split <- cont_1
I0720 16:12:50.524076 17489 net.cpp:148] Top shape: 1 1 500 (500)
I0720 16:12:50.524081 17461 net.cpp:399] cont_1_lstm1_cont_slice_0_split -> cont_1_lstm1_cont_slice_0_split_0
I0720 16:12:50.524075 17477 net.cpp:141] Setting up lstm1_x_transform
I0720 16:12:50.524093 17489 net.cpp:156] Memory required for data: 22408
I0720 16:12:50.524097 17461 net.cpp:399] cont_1_lstm1_cont_slice_0_split -> cont_1_lstm1_cont_slice_0_split_1
I0720 16:12:50.524103 17477 net.cpp:148] Top shape: 1 1 4000 (4000)
I0720 16:12:50.524111 17477 net.cpp:156] Memory required for data: 26016
I0720 16:12:50.524114 17461 net.cpp:141] Setting up cont_1_lstm1_cont_slice_0_split
I0720 16:12:50.524116 17489 layer_factory.hpp:77] Creating layer lstm1
I0720 16:12:50.524127 17477 layer_factory.hpp:77] Creating layer lstm1_W_xc_x_slice
I0720 16:12:50.524137 17489 net.cpp:91] Creating Layer lstm1
I0720 16:12:50.524150 17489 net.cpp:425] lstm1 <- embedded_input_frames
I0720 16:12:50.524163 17489 net.cpp:425] lstm1 <- cont_sentence_input_1_split_0
I0720 16:12:50.524586 17461 net.cpp:148] Top shape: 1 1 (1)
I0720 16:12:50.524588 17477 net.cpp:91] Creating Layer lstm1_W_xc_x_slice
I0720 16:12:50.524600 17461 net.cpp:148] Top shape: 1 1 (1)
I0720 16:12:50.524601 17477 net.cpp:425] lstm1_W_xc_x_slice <- W_xc_x
I0720 16:12:50.524608 17461 net.cpp:156] Memory required for data: 10016
I0720 16:12:50.524617 17461 layer_factory.hpp:77] Creating layer lstm1_x_transform
I0720 16:12:50.524617 17477 net.cpp:399] lstm1_W_xc_x_slice -> W_xc_x_1
I0720 16:12:50.524634 17461 net.cpp:91] Creating Layer lstm1_x_transform
I0720 16:12:50.524641 17477 net.cpp:141] Setting up lstm1_W_xc_x_slice
I0720 16:12:50.524643 17461 net.cpp:425] lstm1_x_transform <- x
I0720 16:12:50.524652 17477 net.cpp:148] Top shape: 1 1 4000 (4000)
I0720 16:12:50.524660 17477 net.cpp:156] Memory required for data: 42016
I0720 16:12:50.524667 17477 layer_factory.hpp:77] Creating layer lstm1_h_conted_0
I0720 16:12:50.525101 17489 net.cpp:399] lstm1 -> lstm1
I0720 16:12:50.525107 17461 net.cpp:399] lstm1_x_transform -> W_xc_x
I0720 16:12:50.525104 17477 net.cpp:91] Creating Layer lstm1_h_conted_0
I0720 16:12:50.525125 17477 net.cpp:425] lstm1_h_conted_0 <- h_0
I0720 16:12:50.525135 17477 net.cpp:425] lstm1_h_conted_0 <- cont_1_lstm1_cont_slice_0_split_0
I0720 16:12:50.525133 17489 recurrent_layer.cpp:20] Initializing recurrent layer: assuming input batch contains 1 timesteps of 1 independent streams.
I0720 16:12:50.525151 17477 net.cpp:399] lstm1_h_conted_0 -> h_conted_0
I0720 16:12:50.526116 17477 net.cpp:141] Setting up lstm1_h_conted_0
I0720 16:12:50.526132 17477 net.cpp:148] Top shape: 1 1 1000 (1000)
I0720 16:12:50.526139 17477 net.cpp:156] Memory required for data: 46016
I0720 16:12:50.526146 17477 layer_factory.hpp:77] Creating layer lstm1_transform_1
I0720 16:12:50.526160 17477 net.cpp:91] Creating Layer lstm1_transform_1
I0720 16:12:50.526167 17477 net.cpp:425] lstm1_transform_1 <- h_conted_0
I0720 16:12:50.526681 17477 net.cpp:399] lstm1_transform_1 -> W_hc_h_0
I0720 16:12:50.527834 17489 net.cpp:49] Initializing net from parameters: 
layer {
  name: "lstm1_"
  type: "Input"
  top: "x"
  top: "cont"
  input_param {
    shape {
      dim: 1
      dim: 1
      dim: 500
    }
    shape {
      dim: 1
      dim: 1
    }
  }
}
layer {
  name: "lstm1_"
  type: "Input"
  top: "c_0"
  top: "h_0"
  input_param {
    shape {
      dim: 1
      dim: 1
      dim: 1000
    }
    shape {
      dim: 1
      dim: 1
      dim: 1000
    }
  }
}
layer {
  name: "lstm1_cont_slice"
  type: "Slice"
  bottom: "cont"
  top: "cont_1"
  slice_param {
    axis: 0
  }
}
layer {
  name: "lstm1_x_transform"
  type: "InnerProduct"
  bottom: "x"
  top: "W_xc_x"
  param {
    name: "W_xc"
  }
  param {
    name: "b_c"
  }
  propagate_down: true
  inner_product_param {
    num_output: 4000
    bias_term: true
    weight_filler {
      type: "uniform"
      min: -0.08
      max: 0.08
    }
    bias_filler {
      type: "constant"
      value: 0
    }
    axis: 2
  }
}
layer {
  name: "lstm1_W_xc_x_slice"
  type: "Slice"
  bottom: "W_xc_x"
  top: "W_xc_x_1"
  slice_param {
    axis: 0
  }
}
layer {
  name: "lstm1_h_conted_0"
  type: "Scale"
  bottom: "h_0"
  bottom: "cont_1"
  top: "h_conted_0"
  scale_param {
    axis: 0
  }
}
layer {
  name: "lstm1_transform_1"
  type: "InnerProduct"
  bottom: "h_conted_0"
  top: "W_hc_h_0"
  param {
    name: "W_hc"
  }
  inner_product_param {
    num_output: 4000
    bias_term: false
    weight_filler {
      type: "uniform"
      min: -0.08
      max: 0.08
    }
    axis: 2
  }
}
layer {
  name: "lstm1_gate_input_1"
  type: "Eltwise"
  bottom: "W_hc_h_0"
  bottom: "W_xc_x_1"
  top: "gate_input_1"
  eltwise_param {
    operation: SUM
  }
}
layer {
  name: "lstm1_unit_1"
  type: "LSTMUnit"
  bottom: "c_0"
  bottom: "gate_input_1"
  bottom: "cont_1"
  top: "c_1"
  top: "h_1"
}
layer {
  name: "lstm1_"
  type: "Split"
  bottom: "c_1"
  top: "c_T"
}
layer {
  name: "lstm1_h_concat"
  type: "Concat"
  bottom: "h_1"
  top: "h"
  concat_param {
    axis: 0
  }
}
layer {
  name: "h_pseudoloss"
  type: "Reduction"
  bottom: "h"
  top: "h_pseudoloss"
  loss_weight: 1
}
I0720 16:12:50.528450 17489 layer_factory.hpp:77] Creating layer lstm1_
I0720 16:12:50.528478 17489 net.cpp:91] Creating Layer lstm1_
I0720 16:12:50.528491 17489 net.cpp:399] lstm1_ -> x
I0720 16:12:50.528514 17489 net.cpp:399] lstm1_ -> cont
I0720 16:12:50.528537 17489 net.cpp:141] Setting up lstm1_
I0720 16:12:50.528550 17489 net.cpp:148] Top shape: 1 1 500 (500)
I0720 16:12:50.528558 17489 net.cpp:148] Top shape: 1 1 (1)
I0720 16:12:50.528563 17489 net.cpp:156] Memory required for data: 2004
I0720 16:12:50.528568 17489 layer_factory.hpp:77] Creating layer lstm1_
I0720 16:12:50.528575 17489 net.cpp:91] Creating Layer lstm1_
I0720 16:12:50.528581 17489 net.cpp:399] lstm1_ -> c_0
I0720 16:12:50.528591 17489 net.cpp:399] lstm1_ -> h_0
I0720 16:12:50.528600 17489 net.cpp:141] Setting up lstm1_
I0720 16:12:50.528607 17489 net.cpp:148] Top shape: 1 1 1000 (1000)
I0720 16:12:50.528612 17489 net.cpp:148] Top shape: 1 1 1000 (1000)
I0720 16:12:50.528616 17489 net.cpp:156] Memory required for data: 10004
I0720 16:12:50.528620 17489 layer_factory.hpp:77] Creating layer lstm1_cont_slice
I0720 16:12:50.528628 17489 net.cpp:91] Creating Layer lstm1_cont_slice
I0720 16:12:50.528633 17489 net.cpp:425] lstm1_cont_slice <- cont
I0720 16:12:50.528640 17489 net.cpp:399] lstm1_cont_slice -> cont_1
I0720 16:12:50.528652 17489 net.cpp:141] Setting up lstm1_cont_slice
I0720 16:12:50.528659 17489 net.cpp:148] Top shape: 1 1 (1)
I0720 16:12:50.528663 17489 net.cpp:156] Memory required for data: 10008
I0720 16:12:50.528667 17489 layer_factory.hpp:77] Creating layer cont_1_lstm1_cont_slice_0_split
I0720 16:12:50.529057 17489 net.cpp:91] Creating Layer cont_1_lstm1_cont_slice_0_split
I0720 16:12:50.529069 17489 net.cpp:425] cont_1_lstm1_cont_slice_0_split <- cont_1
I0720 16:12:50.529083 17489 net.cpp:399] cont_1_lstm1_cont_slice_0_split -> cont_1_lstm1_cont_slice_0_split_0
I0720 16:12:50.529098 17489 net.cpp:399] cont_1_lstm1_cont_slice_0_split -> cont_1_lstm1_cont_slice_0_split_1
I0720 16:12:50.529116 17489 net.cpp:141] Setting up cont_1_lstm1_cont_slice_0_split
I0720 16:12:50.529145 17489 net.cpp:148] Top shape: 1 1 (1)
I0720 16:12:50.529157 17489 net.cpp:148] Top shape: 1 1 (1)
I0720 16:12:50.529165 17489 net.cpp:156] Memory required for data: 10016
I0720 16:12:50.529170 17489 layer_factory.hpp:77] Creating layer lstm1_x_transform
I0720 16:12:50.529181 17489 net.cpp:91] Creating Layer lstm1_x_transform
I0720 16:12:50.529186 17489 net.cpp:425] lstm1_x_transform <- x
I0720 16:12:50.529670 17489 net.cpp:399] lstm1_x_transform -> W_xc_x
I0720 16:12:50.535931 17479 net.cpp:141] Setting up lstm1_x_transform
I0720 16:12:50.535996 17479 net.cpp:148] Top shape: 1 1 4000 (4000)
I0720 16:12:50.536007 17479 net.cpp:156] Memory required for data: 26016
I0720 16:12:50.536039 17479 layer_factory.hpp:77] Creating layer lstm1_W_xc_x_slice
I0720 16:12:50.536486 17479 net.cpp:91] Creating Layer lstm1_W_xc_x_slice
I0720 16:12:50.536504 17479 net.cpp:425] lstm1_W_xc_x_slice <- W_xc_x
I0720 16:12:50.536521 17479 net.cpp:399] lstm1_W_xc_x_slice -> W_xc_x_1
I0720 16:12:50.536561 17479 net.cpp:141] Setting up lstm1_W_xc_x_slice
I0720 16:12:50.536576 17479 net.cpp:148] Top shape: 1 1 4000 (4000)
I0720 16:12:50.536583 17479 net.cpp:156] Memory required for data: 42016
I0720 16:12:50.536592 17479 layer_factory.hpp:77] Creating layer lstm1_h_conted_0
I0720 16:12:50.536609 17479 net.cpp:91] Creating Layer lstm1_h_conted_0
I0720 16:12:50.536619 17479 net.cpp:425] lstm1_h_conted_0 <- h_0
I0720 16:12:50.536630 17479 net.cpp:425] lstm1_h_conted_0 <- cont_1_lstm1_cont_slice_0_split_0
I0720 16:12:50.536643 17479 net.cpp:399] lstm1_h_conted_0 -> h_conted_0
I0720 16:12:50.536725 17479 net.cpp:141] Setting up lstm1_h_conted_0
I0720 16:12:50.536741 17479 net.cpp:148] Top shape: 1 1 1000 (1000)
I0720 16:12:50.536748 17479 net.cpp:156] Memory required for data: 46016
I0720 16:12:50.536756 17479 layer_factory.hpp:77] Creating layer lstm1_transform_1
I0720 16:12:50.536794 17479 net.cpp:91] Creating Layer lstm1_transform_1
I0720 16:12:50.536805 17479 net.cpp:425] lstm1_transform_1 <- h_conted_0
I0720 16:12:50.536823 17479 net.cpp:399] lstm1_transform_1 -> W_hc_h_0
I0720 16:12:50.537508 17465 net.cpp:141] Setting up lstm1_x_transform
I0720 16:12:50.537554 17465 net.cpp:148] Top shape: 1 1 4000 (4000)
I0720 16:12:50.537564 17465 net.cpp:156] Memory required for data: 26016
I0720 16:12:50.537590 17465 layer_factory.hpp:77] Creating layer lstm1_W_xc_x_slice
I0720 16:12:50.537611 17465 net.cpp:91] Creating Layer lstm1_W_xc_x_slice
I0720 16:12:50.537622 17465 net.cpp:425] lstm1_W_xc_x_slice <- W_xc_x
I0720 16:12:50.537636 17465 net.cpp:399] lstm1_W_xc_x_slice -> W_xc_x_1
I0720 16:12:50.537672 17465 net.cpp:141] Setting up lstm1_W_xc_x_slice
I0720 16:12:50.537686 17465 net.cpp:148] Top shape: 1 1 4000 (4000)
I0720 16:12:50.537694 17465 net.cpp:156] Memory required for data: 42016
I0720 16:12:50.537703 17465 layer_factory.hpp:77] Creating layer lstm1_h_conted_0
I0720 16:12:50.537717 17465 net.cpp:91] Creating Layer lstm1_h_conted_0
I0720 16:12:50.537727 17465 net.cpp:425] lstm1_h_conted_0 <- h_0
I0720 16:12:50.537739 17465 net.cpp:425] lstm1_h_conted_0 <- cont_1_lstm1_cont_slice_0_split_0
I0720 16:12:50.537753 17465 net.cpp:399] lstm1_h_conted_0 -> h_conted_0
I0720 16:12:50.537802 17465 net.cpp:141] Setting up lstm1_h_conted_0
I0720 16:12:50.537816 17465 net.cpp:148] Top shape: 1 1 1000 (1000)
I0720 16:12:50.537823 17465 net.cpp:156] Memory required for data: 46016
I0720 16:12:50.537833 17465 layer_factory.hpp:77] Creating layer lstm1_transform_1
I0720 16:12:50.537850 17465 net.cpp:91] Creating Layer lstm1_transform_1
I0720 16:12:50.537859 17465 net.cpp:425] lstm1_transform_1 <- h_conted_0
I0720 16:12:50.537889 17465 net.cpp:399] lstm1_transform_1 -> W_hc_h_0
I0720 16:12:50.542039 17469 net.cpp:141] Setting up lstm1_transform_1
I0720 16:12:50.542080 17469 net.cpp:148] Top shape: 1 1 4000 (4000)
I0720 16:12:50.542088 17469 net.cpp:156] Memory required for data: 62016
I0720 16:12:50.542107 17469 layer_factory.hpp:77] Creating layer lstm1_gate_input_1
I0720 16:12:50.542315 17469 net.cpp:91] Creating Layer lstm1_gate_input_1
I0720 16:12:50.542326 17469 net.cpp:425] lstm1_gate_input_1 <- W_hc_h_0
I0720 16:12:50.542337 17469 net.cpp:425] lstm1_gate_input_1 <- W_xc_x_1
I0720 16:12:50.542349 17469 net.cpp:399] lstm1_gate_input_1 -> gate_input_1
I0720 16:12:50.542369 17469 net.cpp:141] Setting up lstm1_gate_input_1
I0720 16:12:50.542379 17469 net.cpp:148] Top shape: 1 1 4000 (4000)
I0720 16:12:50.542387 17469 net.cpp:156] Memory required for data: 78016
I0720 16:12:50.542393 17469 layer_factory.hpp:77] Creating layer lstm1_unit_1
I0720 16:12:50.542922 17469 net.cpp:91] Creating Layer lstm1_unit_1
I0720 16:12:50.542933 17469 net.cpp:425] lstm1_unit_1 <- c_0
I0720 16:12:50.543426 17469 net.cpp:425] lstm1_unit_1 <- gate_input_1
I0720 16:12:50.543439 17469 net.cpp:425] lstm1_unit_1 <- cont_1_lstm1_cont_slice_0_split_1
I0720 16:12:50.543450 17469 net.cpp:399] lstm1_unit_1 -> c_1
I0720 16:12:50.543463 17469 net.cpp:399] lstm1_unit_1 -> h_1
I0720 16:12:50.543478 17469 net.cpp:141] Setting up lstm1_unit_1
I0720 16:12:50.543970 17469 net.cpp:148] Top shape: 1 1 1000 (1000)
I0720 16:12:50.543983 17469 net.cpp:148] Top shape: 1 1 1000 (1000)
I0720 16:12:50.543989 17469 net.cpp:156] Memory required for data: 86016
I0720 16:12:50.543997 17469 layer_factory.hpp:77] Creating layer lstm1_
I0720 16:12:50.544008 17469 net.cpp:91] Creating Layer lstm1_
I0720 16:12:50.544014 17469 net.cpp:425] lstm1_ <- c_1
I0720 16:12:50.544023 17469 net.cpp:399] lstm1_ -> c_T
I0720 16:12:50.544036 17469 net.cpp:141] Setting up lstm1_
I0720 16:12:50.544046 17469 net.cpp:148] Top shape: 1 1 1000 (1000)
I0720 16:12:50.544052 17469 net.cpp:156] Memory required for data: 90016
I0720 16:12:50.544059 17469 layer_factory.hpp:77] Creating layer lstm1_h_concat
I0720 16:12:50.544472 17469 net.cpp:91] Creating Layer lstm1_h_concat
I0720 16:12:50.544484 17469 net.cpp:425] lstm1_h_concat <- h_1
I0720 16:12:50.544495 17469 net.cpp:399] lstm1_h_concat -> h
I0720 16:12:50.544512 17469 net.cpp:141] Setting up lstm1_h_concat
I0720 16:12:50.544523 17469 net.cpp:148] Top shape: 1 1 1000 (1000)
I0720 16:12:50.544528 17469 net.cpp:156] Memory required for data: 94016
I0720 16:12:50.544535 17469 layer_factory.hpp:77] Creating layer h_pseudoloss
I0720 16:12:50.545022 17469 net.cpp:91] Creating Layer h_pseudoloss
I0720 16:12:50.545032 17469 net.cpp:425] h_pseudoloss <- h
I0720 16:12:50.545043 17469 net.cpp:399] h_pseudoloss -> h_pseudoloss
I0720 16:12:50.546077 17469 net.cpp:141] Setting up h_pseudoloss
…
I0720 16:12:50.546236 17469 net.cpp:219] lstm1_ does not need backward computation.
I0720 16:12:50.546242 17469 net.cpp:261] This network produces output c_T
I0720 16:12:50.546248 17469 net.cpp:261] This network produces output h_pseudoloss
I0720 16:12:50.546269 17469 net.cpp:274] Network initialization done.
I0720 16:12:50.546334 17469 recurrent_layer.cpp:150] Adding parameter 0: W_xc
I0720 16:12:50.546342 17469 recurrent_layer.cpp:150] Adding parameter 1: b_c
I0720 16:12:50.546349 17469 recurrent_layer.cpp:150] Adding parameter 2: W_hc
I0720 16:12:50.546398 17469 net.cpp:141] Setting up lstm1
I0720 16:12:50.546411 17469 net.cpp:148] Top shape: 1 1 1000 (1000)
I0720 16:12:50.546417 17469 net.cpp:156] Memory required for data: 26408
I0720 16:12:50.546435 17469 layer_factory.hpp:77] Creating layer concat
I0720 16:12:50.546447 17469 net.cpp:91] Creating Layer concat
I0720 16:12:50.546457 17469 net.cpp:425] concat <- lstm1
I0720 16:12:50.546464 17469 net.cpp:425] concat <- embedded_input_sentence
I0720 16:12:50.546473 17469 net.cpp:425] concat <- reshaped_stage_indicator
I0720 16:12:50.546483 17469 net.cpp:399] concat -> lstm1_video_sequence
I0720 16:12:50.546496 17469 net.cpp:141] Setting up concat
I0720 16:12:50.546505 17469 net.cpp:148] Top shape: 1 1 1501 (1501)
I0720 16:12:50.546512 17469 net.cpp:156] Memory required for data: 32412
I0720 16:12:50.546519 17469 layer_factory.hpp:77] Creating layer lstm2
I0720 16:12:50.546535 17469 net.cpp:91] Creating Layer lstm2
I0720 16:12:50.546541 17469 net.cpp:425] lstm2 <- lstm1_video_sequence
I0720 16:12:50.546550 17469 net.cpp:425] lstm2 <- cont_sentence_input_1_split_1
I0720 16:12:50.546560 17469 net.cpp:399] lstm2 -> lstm2
I0720 16:12:50.546572 17469 recurrent_layer.cpp:20] Initializing recurrent layer: assuming input batch contains 1 timesteps of 1 independent streams.
I0720 16:12:50.547475 17469 net.cpp:49] Initializing net from parameters: 
layer {
  name: "lstm2_"
  type: "Input"
  top: "x"
  top: "cont"
  input_param {
    shape {
      dim: 1
      dim: 1
      dim: 1501
    }
    shape {
      dim: 1
      dim: 1
    }
  }
}
layer {
  name: "lstm2_"
  type: "Input"
  top: "c_0"
  top: "h_0"
  input_param {
    shape {
      dim: 1
      dim: 1
      dim: 1000
    }
    shape {
      dim: 1
      dim: 1
      dim: 1000
    }
  }
}
layer {
  name: "lstm2_cont_slice"
  type: "Slice"
  bottom: "cont"
  top: "cont_1"
  slice_param {
    axis: 0
  }
}
layer {
  name: "lstm2_x_transform"
  type: "InnerProduct"
  bottom: "x"
  top: "W_xc_x"
  param {
    name: "W_xc"
  }
  param {
    name: "b_c"
  }
  propagate_down: true
  inner_product_param {
    num_output: 4000
    bias_term: true
    weight_filler {
      type: "uniform"
      min: -0.08
      max: 0.08
    }
    bias_filler {
      type: "constant"
      value: 0
    }
    axis: 2
  }
}
layer {
  name: "lstm2_W_xc_x_slice"
  type: "Slice"
  bottom: "W_xc_x"
  top: "W_xc_x_1"
  slice_param {
    axis: 0
  }
}
layer {
  name: "lstm2_h_conted_0"
  type: "Scale"
  bottom: "h_0"
  bottom: "cont_1"
  top: "h_conted_0"
  scale_param {
    axis: 0
  }
}
layer {
  name: "lstm2_transform_1"
  type: "InnerProduct"
  bottom: "h_conted_0"
  top: "W_hc_h_0"
  param {
    name: "W_hc"
  }
  inner_product_param {
    num_output: 4000
    bias_term: false
    weight_filler {
      type: "uniform"
      min: -0.08
      max: 0.08
    }
    axis: 2
  }
}
layer {
  name: "lstm2_gate_input_1"
  type: "Eltwise"
  bottom: "W_hc_h_0"
  bottom: "W_xc_x_1"
  top: "gate_input_1"
  eltwise_param {
    operation: SUM
  }
}
layer {
  name: "lstm2_unit_1"
  type: "LSTMUnit"
  bottom: "c_0"
  bottom: "gate_input_1"
  bottom: "cont_1"
  top: "c_1"
  top: "h_1"
}
layer {
  name: "lstm2_"
  type: "Split"
  bottom: "c_1"
  top: "c_T"
}
layer {
  name: "lstm2_h_concat"
  type: "Concat"
  bottom: "h_1"
  top: "h"
  concat_param {
    axis: 0
  }
}
layer {
  name: "h_pseudoloss"
  type: "Reduction"
  bottom: "h"
  top: "h_pseudoloss"
  loss_weight: 1
}
I0720 16:12:50.547600 17469 layer_factory.hpp:77] Creating layer lstm2_
I0720 16:12:50.547616 17469 net.cpp:91] Creating Layer lstm2_
I0720 16:12:50.547624 17469 net.cpp:399] lstm2_ -> x
I0720 16:12:50.547638 17469 net.cpp:399] lstm2_ -> cont
I0720 16:12:50.547655 17469 net.cpp:141] Setting up lstm2_
I0720 16:12:50.547667 17469 net.cpp:148] Top shape: 1 1 1501 (1501)
I0720 16:12:50.547675 17469 net.cpp:148] Top shape: 1 1 (1)
I0720 16:12:50.547682 17469 net.cpp:156] Memory required for data: 6008
I0720 16:12:50.547688 17469 layer_factory.hpp:77] Creating layer lstm2_
I0720 16:12:50.547698 17469 net.cpp:91] Creating Layer lstm2_
I0720 16:12:50.547708 17469 net.cpp:399] lstm2_ -> c_0
I0720 16:12:50.547727 17469 net.cpp:399] lstm2_ -> h_0
I0720 16:12:50.547742 17469 net.cpp:141] Setting up lstm2_
I0720 16:12:50.547752 17469 net.cpp:148] Top shape: 1 1 1000 (1000)
I0720 16:12:50.547761 17469 net.cpp:148] Top shape: 1 1 1000 (1000)
I0720 16:12:50.547767 17469 net.cpp:156] Memory required for data: 14008
I0720 16:12:50.547773 17469 layer_factory.hpp:77] Creating layer lstm2_cont_slice
I0720 16:12:50.547785 17469 net.cpp:91] Creating Layer lstm2_cont_slice
I0720 16:12:50.547791 17469 net.cpp:425] lstm2_cont_slice <- cont
I0720 16:12:50.547801 17469 net.cpp:399] lstm2_cont_slice -> cont_1
I0720 16:12:50.547816 17469 net.cpp:141] Setting up lstm2_cont_slice
I0720 16:12:50.547827 17469 net.cpp:148] Top shape: 1 1 (1)
I0720 16:12:50.547832 17469 net.cpp:156] Memory required for data: 14012
I0720 16:12:50.547838 17469 layer_factory.hpp:77] Creating layer cont_1_lstm2_cont_slice_0_split
I0720 16:12:50.547848 17469 net.cpp:91] Creating Layer cont_1_lstm2_cont_slice_0_split
I0720 16:12:50.547855 17469 net.cpp:425] cont_1_lstm2_cont_slice_0_split <- cont_1
I0720 16:12:50.547864 17469 net.cpp:399] cont_1_lstm2_cont_slice_0_split -> cont_1_lstm2_cont_slice_0_split_0
I0720 16:12:50.547875 17469 net.cpp:399] cont_1_lstm2_cont_slice_0_split -> cont_1_lstm2_cont_slice_0_split_1
I0720 16:12:50.547889 17469 net.cpp:141] Setting up cont_1_lstm2_cont_slice_0_split
I0720 16:12:50.547899 17469 net.cpp:148] Top shape: 1 1 (1)
I0720 16:12:50.547906 17469 net.cpp:148] Top shape: 1 1 (1)
I0720 16:12:50.547912 17469 net.cpp:156] Memory required for data: 14020
I0720 16:12:50.547919 17469 layer_factory.hpp:77] Creating layer lstm2_x_transform
I0720 16:12:50.547953 17469 net.cpp:91] Creating Layer lstm2_x_transform
I0720 16:12:50.547962 17469 net.cpp:425] lstm2_x_transform <- x
I0720 16:12:50.547974 17469 net.cpp:399] lstm2_x_transform -> W_xc_x
I0720 16:12:50.550433 17491 net.cpp:141] Setting up embedding
I0720 16:12:50.550475 17491 net.cpp:148] Top shape: 1 1 500 (500)
I0720 16:12:50.550487 17491 net.cpp:156] Memory required for data: 22408
I0720 16:12:50.550510 17491 layer_factory.hpp:77] Creating layer lstm1
I0720 16:12:50.550536 17491 net.cpp:91] Creating Layer lstm1
I0720 16:12:50.550551 17491 net.cpp:425] lstm1 <- embedded_input_frames
I0720 16:12:50.550565 17491 net.cpp:425] lstm1 <- cont_sentence_input_1_split_0
I0720 16:12:50.551082 17491 net.cpp:399] lstm1 -> lstm1
I0720 16:12:50.551113 17491 recurrent_layer.cpp:20] Initializing recurrent layer: assuming input batch contains 1 timesteps of 1 independent streams.
I0720 16:12:50.552381 17491 net.cpp:49] Initializing net from parameters: 
layer {
  name: "lstm1_"
  type: "Input"
  top: "x"
  top: "cont"
  input_param {
    shape {
      dim: 1
      dim: 1
      dim: 500
    }
    shape {
      dim: 1
      dim: 1
    }
  }
}
layer {
  name: "lstm1_"
  type: "Input"
  top: "c_0"
  top: "h_0"
  input_param {
    shape {
      dim: 1
      dim: 1
      dim: 1000
    }
    shape {
      dim: 1
      dim: 1
      dim: 1000
    }
  }
}
layer {
  name: "lstm1_cont_slice"
  type: "Slice"
  bottom: "cont"
  top: "cont_1"
  slice_param {
    axis: 0
  }
}
layer {
  name: "lstm1_x_transform"
  type: "InnerProduct"
  bottom: "x"
  top: "W_xc_x"
  param {
    name: "W_xc"
  }
  param {
    name: "b_c"
  }
  propagate_down: true
  inner_product_param {
    num_output: 4000
    bias_term: true
    weight_filler {
      type: "uniform"
      min: -0.08
…
I0720 16:12:50.744581 17465 net.cpp:91] Creating Layer lstm2_unit_1
I0720 16:12:50.744590 17465 net.cpp:425] lstm2_unit_1 <- c_0
I0720 16:12:50.744596 17465 net.cpp:425] lstm2_unit_1 <- gate_input_1
I0720 16:12:50.744601 17465 net.cpp:425] lstm2_unit_1 <- cont_1_lstm2_cont_slice_0_split_1
I0720 16:12:50.744607 17465 net.cpp:399] lstm2_unit_1 -> c_1
I0720 16:12:50.744616 17465 net.cpp:399] lstm2_unit_1 -> h_1
I0720 16:12:50.744627 17465 net.cpp:141] Setting up lstm2_unit_1
I0720 16:12:50.744634 17465 net.cpp:148] Top shape: 1 1 1000 (1000)
I0720 16:12:50.744640 17465 net.cpp:148] Top shape: 1 1 1000 (1000)
I0720 16:12:50.744644 17465 net.cpp:156] Memory required for data: 90020
I0720 16:12:50.744648 17465 layer_factory.hpp:77] Creating layer lstm2_
I0720 16:12:50.745503 17491 net.cpp:91] Creating Layer lstm2_W_xc_x_slice
I0720 16:12:50.745507 17465 net.cpp:91] Creating Layer lstm2_
I0720 16:12:50.745533 17491 net.cpp:425] lstm2_W_xc_x_slice <- W_xc_x
I0720 16:12:50.745561 17491 net.cpp:399] lstm2_W_xc_x_slice -> W_xc_x_1
I0720 16:12:50.745560 17465 net.cpp:425] lstm2_ <- c_1
I0720 16:12:50.745581 17491 net.cpp:141] Setting up lstm2_W_xc_x_slice
I0720 16:12:50.745590 17491 net.cpp:148] Top shape: 1 1 4000 (4000)
I0720 16:12:50.745595 17491 net.cpp:156] Memory required for data: 46020
I0720 16:12:50.745594 17465 net.cpp:399] lstm2_ -> c_T
I0720 16:12:50.745600 17491 layer_factory.hpp:77] Creating layer lstm2_h_conted_0
I0720 16:12:50.745625 17465 net.cpp:141] Setting up lstm2_
I0720 16:12:50.745626 17491 net.cpp:91] Creating Layer lstm2_h_conted_0
I0720 16:12:50.745641 17491 net.cpp:425] lstm2_h_conted_0 <- h_0
I0720 16:12:50.745647 17491 net.cpp:425] lstm2_h_conted_0 <- cont_1_lstm2_cont_slice_0_split_0
I0720 16:12:50.745654 17491 net.cpp:399] lstm2_h_conted_0 -> h_conted_0
I0720 16:12:50.746014 17465 net.cpp:148] Top shape: 1 1 1000 (1000)
I0720 16:12:50.746028 17465 net.cpp:156] Memory required for data: 94020
I0720 16:12:50.746039 17465 layer_factory.hpp:77] Creating layer lstm2_h_concat
I0720 16:12:50.746057 17465 net.cpp:91] Creating Layer lstm2_h_concat
I0720 16:12:50.746067 17465 net.cpp:425] lstm2_h_concat <- h_1
I0720 16:12:50.746081 17465 net.cpp:399] lstm2_h_concat -> h
I0720 16:12:50.746103 17465 net.cpp:141] Setting up lstm2_h_concat
I0720 16:12:50.746115 17465 net.cpp:148] Top shape: 1 1 1000 (1000)
I0720 16:12:50.746124 17465 net.cpp:156] Memory required for data: 98020
I0720 16:12:50.746134 17465 layer_factory.hpp:77] Creating layer h_pseudoloss
I0720 16:12:50.747062 17465 net.cpp:91] Creating Layer h_pseudoloss
I0720 16:12:50.747066 17491 net.cpp:141] Setting up lstm2_h_conted_0
I0720 16:12:50.747087 17465 net.cpp:425] h_pseudoloss <- h
I0720 16:12:50.747095 17491 net.cpp:148] Top shape: 1 1 1000 (1000)
I0720 16:12:50.747102 17491 net.cpp:156] Memory required for data: 50020
I0720 16:12:50.747105 17465 net.cpp:399] h_pseudoloss -> h_pseudoloss
I0720 16:12:50.747107 17491 layer_factory.hpp:77] Creating layer lstm2_transform_1
I0720 16:12:50.747129 17491 net.cpp:91] Creating Layer lstm2_transform_1
I0720 16:12:50.747135 17491 net.cpp:425] lstm2_transform_1 <- h_conted_0
I0720 16:12:50.747144 17491 net.cpp:399] lstm2_transform_1 -> W_hc_h_0
…
I0720 16:12:50.748384 17465 net.cpp:219] lstm2_ does not need backward computation.
I0720 16:12:50.748392 17465 net.cpp:261] This network produces output c_T
I0720 16:12:50.748402 17465 net.cpp:261] This network produces output h_pseudoloss
I0720 16:12:50.749225 17465 net.cpp:274] Network initialization done.
I0720 16:12:50.749333 17465 recurrent_layer.cpp:150] Adding parameter 0: W_xc
I0720 16:12:50.749346 17465 recurrent_layer.cpp:150] Adding parameter 1: b_c
I0720 16:12:50.749356 17465 recurrent_layer.cpp:150] Adding parameter 2: W_hc
I0720 16:12:50.749439 17465 net.cpp:141] Setting up lstm2
I0720 16:12:50.749456 17465 net.cpp:148] Top shape: 1 1 1000 (1000)
I0720 16:12:50.749466 17465 net.cpp:156] Memory required for data: 36412
I0720 16:12:50.749495 17465 layer_factory.hpp:77] Creating layer predict
I0720 16:12:50.749521 17465 net.cpp:91] Creating Layer predict
I0720 16:12:50.749533 17465 net.cpp:425] predict <- lstm2
I0720 16:12:50.749550 17465 net.cpp:399] predict -> predict
I0720 16:12:50.767400 17479 net.cpp:141] Setting up lstm2_transform_1
I0720 16:12:50.767469 17479 net.cpp:148] Top shape: 1 1 4000 (4000)
I0720 16:12:50.767479 17479 net.cpp:156] Memory required for data: 66020
I0720 16:12:50.767508 17479 layer_factory.hpp:77] Creating layer lstm2_gate_input_1
I0720 16:12:50.767537 17479 net.cpp:91] Creating Layer lstm2_gate_input_1
I0720 16:12:50.767547 17479 net.cpp:425] lstm2_gate_input_1 <- W_hc_h_0
I0720 16:12:50.767560 17479 net.cpp:425] lstm2_gate_input_1 <- W_xc_x_1
I0720 16:12:50.767571 17479 net.cpp:399] lstm2_gate_input_1 -> gate_input_1
I0720 16:12:50.767596 17479 net.cpp:141] Setting up lstm2_gate_input_1
I0720 16:12:50.767607 17479 net.cpp:148] Top shape: 1 1 4000 (4000)
I0720 16:12:50.767614 17479 net.cpp:156] Memory required for data: 82020
I0720 16:12:50.767621 17479 layer_factory.hpp:77] Creating layer lstm2_unit_1
I0720 16:12:50.767634 17479 net.cpp:91] Creating Layer lstm2_unit_1
I0720 16:12:50.767642 17479 net.cpp:425] lstm2_unit_1 <- c_0
I0720 16:12:50.767954 17477 net.cpp:141] Setting up lstm2_transform_1
I0720 16:12:50.767997 17477 net.cpp:148] Top shape: 1 1 4000 (4000)
I0720 16:12:50.768002 17477 net.cpp:156] Memory required for data: 66020
I0720 16:12:50.768019 17477 layer_factory.hpp:77] Creating layer lstm2_gate_input_1
I0720 16:12:50.768038 17477 net.cpp:91] Creating Layer lstm2_gate_input_1
I0720 16:12:50.768043 17477 net.cpp:425] lstm2_gate_input_1 <- W_hc_h_0
I0720 16:12:50.768054 17477 net.cpp:425] lstm2_gate_input_1 <- W_xc_x_1
I0720 16:12:50.768929 17479 net.cpp:425] lstm2_unit_1 <- gate_input_1
I0720 16:12:50.768951 17479 net.cpp:425] lstm2_unit_1 <- cont_1_lstm2_cont_slice_0_split_1
I0720 16:12:50.768966 17479 net.cpp:399] lstm2_unit_1 -> c_1
I0720 16:12:50.768965 17477 net.cpp:399] lstm2_gate_input_1 -> gate_input_1
I0720 16:12:50.768983 17479 net.cpp:399] lstm2_unit_1 -> h_1
I0720 16:12:50.768999 17477 net.cpp:141] Setting up lstm2_gate_input_1
I0720 16:12:50.769002 17479 net.cpp:141] Setting up lstm2_unit_1
I0720 16:12:50.769009 17477 net.cpp:148] Top shape: 1 1 4000 (4000)
I0720 16:12:50.769016 17477 net.cpp:156] Memory required for data: 82020
I0720 16:12:50.769021 17477 layer_factory.hpp:77] Creating layer lstm2_unit_1
I0720 16:12:50.769551 17479 net.cpp:148] Top shape: 1 1 1000 (1000)
I0720 16:12:50.769551 17477 net.cpp:91] Creating Layer lstm2_unit_1
I0720 16:12:50.769573 17479 net.cpp:148] Top shape: 1 1 1000 (1000)
I0720 16:12:50.769582 17477 net.cpp:425] lstm2_unit_1 <- c_0
I0720 16:12:50.769583 17479 net.cpp:156] Memory required for data: 90020
I0720 16:12:50.769598 17477 net.cpp:425] lstm2_unit_1 <- gate_input_1
I0720 16:12:50.769611 17479 layer_factory.hpp:77] Creating layer lstm2_
I0720 16:12:50.769614 17477 net.cpp:425] lstm2_unit_1 <- cont_1_lstm2_cont_slice_0_split_1
I0720 16:12:50.769632 17479 net.cpp:91] Creating Layer lstm2_
I0720 16:12:50.769632 17477 net.cpp:399] lstm2_unit_1 -> c_1
I0720 16:12:50.769645 17479 net.cpp:425] lstm2_ <- c_1
I0720 16:12:50.769652 17477 net.cpp:399] lstm2_unit_1 -> h_1
I0720 16:12:50.769659 17479 net.cpp:399] lstm2_ -> c_T
I0720 16:12:50.769665 17477 net.cpp:141] Setting up lstm2_unit_1
I0720 16:12:50.769673 17477 net.cpp:148] Top shape: 1 1 1000 (1000)
I0720 16:12:50.769676 17479 net.cpp:141] Setting up lstm2_
I0720 16:12:50.769680 17477 net.cpp:148] Top shape: 1 1 1000 (1000)
I0720 16:12:50.769693 17479 net.cpp:148] Top shape: 1 1 1000 (1000)
I0720 16:12:50.769693 17477 net.cpp:156] Memory required for data: 90020
I0720 16:12:50.769706 17479 net.cpp:156] Memory required for data: 94020
I0720 16:12:50.769707 17477 layer_factory.hpp:77] Creating layer lstm2_
I0720 16:12:50.769718 17479 layer_factory.hpp:77] Creating layer lstm2_h_concat
I0720 16:12:50.770933 17479 net.cpp:91] Creating Layer lstm2_h_concat
I0720 16:12:50.770936 17477 net.cpp:91] Creating Layer lstm2_
I0720 16:12:50.770956 17479 net.cpp:425] lstm2_h_concat <- h_1
I0720 16:12:50.770965 17477 net.cpp:425] lstm2_ <- c_1
I0720 16:12:50.770972 17479 net.cpp:399] lstm2_h_concat -> h
I0720 16:12:50.770977 17477 net.cpp:399] lstm2_ -> c_T
I0720 16:12:50.770990 17477 net.cpp:141] Setting up lstm2_
I0720 16:12:50.770995 17479 net.cpp:141] Setting up lstm2_h_concat
I0720 16:12:50.770999 17477 net.cpp:148] Top shape: 1 1 1000 (1000)
I0720 16:12:50.771013 17479 net.cpp:148] Top shape: 1 1 1000 (1000)
I0720 16:12:50.771013 17477 net.cpp:156] Memory required for data: 94020
I0720 16:12:50.771025 17479 net.cpp:156] Memory required for data: 98020
I0720 16:12:50.771028 17477 layer_factory.hpp:77] Creating layer lstm2_h_concat
I0720 16:12:50.771037 17479 layer_factory.hpp:77] Creating layer h_pseudoloss
I0720 16:12:50.771762 17479 net.cpp:91] Creating Layer h_pseudoloss
I0720 16:12:50.771762 17477 net.cpp:91] Creating Layer lstm2_h_concat
I0720 16:12:50.771785 17479 net.cpp:425] h_pseudoloss <- h
I0720 16:12:50.771803 17477 net.cpp:425] lstm2_h_concat <- h_1
I0720 16:12:50.771814 17479 net.cpp:399] h_pseudoloss -> h_pseudoloss
I0720 16:12:50.771816 17477 net.cpp:399] lstm2_h_concat -> h
I0720 16:12:50.771863 17477 net.cpp:141] Setting up lstm2_h_concat
I0720 16:12:50.771873 17477 net.cpp:148] Top shape: 1 1 1000 (1000)
I0720 16:12:50.771878 17477 net.cpp:156] Memory required for data: 98020
I0720 16:12:50.771883 17477 layer_factory.hpp:77] Creating layer h_pseudoloss
I0720 16:12:50.771891 17477 net.cpp:91] Creating Layer h_pseudoloss
I0720 16:12:50.771896 17477 net.cpp:425] h_pseudoloss <- h
I0720 16:12:50.773154 17477 net.cpp:399] h_pseudoloss -> h_pseudoloss
I0720 16:12:50.773192 17479 net.cpp:141] Setting up h_pseudoloss
…
I0720 16:12:50.775362 17477 net.cpp:274] Network initialization done.
I0720 16:12:50.775362 17479 recurrent_layer.cpp:150] Adding parameter 0: W_xc
I0720 16:12:50.775374 17479 recurrent_layer.cpp:150] Adding parameter 1: b_c
I0720 16:12:50.775379 17479 recurrent_layer.cpp:150] Adding parameter 2: W_hc
I0720 16:12:50.775415 17477 recurrent_layer.cpp:150] Adding parameter 0: W_xc
I0720 16:12:50.775421 17477 recurrent_layer.cpp:150] Adding parameter 1: b_c
I0720 16:12:50.775426 17477 recurrent_layer.cpp:150] Adding parameter 2: W_hc
I0720 16:12:50.775430 17479 net.cpp:141] Setting up lstm2
I0720 16:12:50.775440 17479 net.cpp:148] Top shape: 1 1 1000 (1000)
I0720 16:12:50.775445 17479 net.cpp:156] Memory required for data: 36412
I0720 16:12:50.775460 17479 layer_factory.hpp:77] Creating layer predict
I0720 16:12:50.775470 17477 net.cpp:141] Setting up lstm2
I0720 16:12:50.775475 17479 net.cpp:91] Creating Layer predict
I0720 16:12:50.775480 17477 net.cpp:148] Top shape: 1 1 1000 (1000)
I0720 16:12:50.775490 17477 net.cpp:156] Memory required for data: 36412
I0720 16:12:50.775481 17479 net.cpp:425] predict <- lstm2
I0720 16:12:50.775506 17477 layer_factory.hpp:77] Creating layer predict
I0720 16:12:50.775508 17479 net.cpp:399] predict -> predict
I0720 16:12:50.775522 17477 net.cpp:91] Creating Layer predict
I0720 16:12:50.775528 17477 net.cpp:425] predict <- lstm2
I0720 16:12:50.775537 17477 net.cpp:399] predict -> predict
I0720 16:12:50.776034 17467 net.cpp:148] Top shape: 1 1 4000 (4000)
I0720 16:12:50.776048 17467 net.cpp:156] Memory required for data: 82020
I0720 16:12:50.776054 17467 layer_factory.hpp:77] Creating layer lstm2_unit_1
I0720 16:12:50.776065 17467 net.cpp:91] Creating Layer lstm2_unit_1
I0720 16:12:50.776070 17467 net.cpp:425] lstm2_unit_1 <- c_0
I0720 16:12:50.776077 17467 net.cpp:425] lstm2_unit_1 <- gate_input_1
I0720 16:12:50.776082 17467 net.cpp:425] lstm2_unit_1 <- cont_1_lstm2_cont_slice_0_split_1
I0720 16:12:50.776089 17467 net.cpp:399] lstm2_unit_1 -> c_1
I0720 16:12:50.776098 17467 net.cpp:399] lstm2_unit_1 -> h_1
I0720 16:12:50.776110 17467 net.cpp:141] Setting up lstm2_unit_1
I0720 16:12:50.776118 17467 net.cpp:148] Top shape: 1 1 1000 (1000)
I0720 16:12:50.776123 17467 net.cpp:148] Top shape: 1 1 1000 (1000)
I0720 16:12:50.776126 17467 net.cpp:156] Memory required for data: 90020
I0720 16:12:50.776130 17467 layer_factory.hpp:77] Creating layer lstm2_
I0720 16:12:50.776609 17461 net.cpp:141] Setting up lstm2_x_transform
I0720 16:12:50.776631 17461 net.cpp:148] Top shape: 1 1 4000 (4000)
I0720 16:12:50.776639 17461 net.cpp:156] Memory required for data: 30020
I0720 16:12:50.776657 17461 layer_factory.hpp:77] Creating layer lstm2_W_xc_x_slice
I0720 16:12:50.777482 17467 net.cpp:91] Creating Layer lstm2_
I0720 16:12:50.777498 17467 net.cpp:425] lstm2_ <- c_1
I0720 16:12:50.777509 17467 net.cpp:399] lstm2_ -> c_T
I0720 16:12:50.777518 17461 net.cpp:91] Creating Layer lstm2_W_xc_x_slice
I0720 16:12:50.777523 17467 net.cpp:141] Setting up lstm2_
I0720 16:12:50.777536 17461 net.cpp:425] lstm2_W_xc_x_slice <- W_xc_x
I0720 16:12:50.777550 17461 net.cpp:399] lstm2_W_xc_x_slice -> W_xc_x_1
I0720 16:12:50.777572 17461 net.cpp:141] Setting up lstm2_W_xc_x_slice
I0720 16:12:50.777585 17461 net.cpp:148] Top shape: 1 1 4000 (4000)
I0720 16:12:50.777591 17461 net.cpp:156] Memory required for data: 46020
I0720 16:12:50.777600 17461 layer_factory.hpp:77] Creating layer lstm2_h_conted_0
I0720 16:12:50.777613 17461 net.cpp:91] Creating Layer lstm2_h_conted_0
I0720 16:12:50.777621 17461 net.cpp:425] lstm2_h_conted_0 <- h_0
I0720 16:12:50.777631 17461 net.cpp:425] lstm2_h_conted_0 <- cont_1_lstm2_cont_slice_0_split_0
I0720 16:12:50.777642 17461 net.cpp:399] lstm2_h_conted_0 -> h_conted_0
I0720 16:12:50.778131 17467 net.cpp:148] Top shape: 1 1 1000 (1000)
I0720 16:12:50.778146 17467 net.cpp:156] Memory required for data: 94020
I0720 16:12:50.778151 17467 layer_factory.hpp:77] Creating layer lstm2_h_concat
I0720 16:12:50.778164 17467 net.cpp:91] Creating Layer lstm2_h_concat
I0720 16:12:50.778169 17467 net.cpp:425] lstm2_h_concat <- h_1
I0720 16:12:50.778177 17467 net.cpp:399] lstm2_h_concat -> h
I0720 16:12:50.778192 17467 net.cpp:141] Setting up lstm2_h_concat
I0720 16:12:50.778199 17467 net.cpp:148] Top shape: 1 1 1000 (1000)
I0720 16:12:50.778203 17467 net.cpp:156] Memory required for data: 98020
I0720 16:12:50.778208 17467 layer_factory.hpp:77] Creating layer h_pseudoloss
I0720 16:12:50.778216 17467 net.cpp:91] Creating Layer h_pseudoloss
I0720 16:12:50.778221 17467 net.cpp:425] h_pseudoloss <- h
I0720 16:12:50.779513 17467 net.cpp:399] h_pseudoloss -> h_pseudoloss
I0720 16:12:50.780055 17461 net.cpp:141] Setting up lstm2_h_conted_0
I0720 16:12:50.780078 17461 net.cpp:148] Top shape: 1 1 1000 (1000)
I0720 16:12:50.780086 17461 net.cpp:156] Memory required for data: 50020
I0720 16:12:50.780094 17461 layer_factory.hpp:77] Creating layer lstm2_transform_1
I0720 16:12:50.780117 17461 net.cpp:91] Creating Layer lstm2_transform_1
I0720 16:12:50.780125 17461 net.cpp:425] lstm2_transform_1 <- h_conted_0
I0720 16:12:50.780138 17461 net.cpp:399] lstm2_transform_1 -> W_hc_h_0
I0720 16:12:50.781476 17467 net.cpp:141] Setting up h_pseudoloss
…
I0720 16:12:50.781594 17467 net.cpp:219] lstm2_ does not need backward computation.
I0720 16:12:50.781599 17467 net.cpp:261] This network produces output c_T
I0720 16:12:50.781604 17467 net.cpp:261] This network produces output h_pseudoloss
I0720 16:12:50.782793 17467 net.cpp:274] Network initialization done.
I0720 16:12:50.782881 17467 recurrent_layer.cpp:150] Adding parameter 0: W_xc
I0720 16:12:50.782889 17467 recurrent_layer.cpp:150] Adding parameter 1: b_c
I0720 16:12:50.782893 17467 recurrent_layer.cpp:150] Adding parameter 2: W_hc
I0720 16:12:50.782958 17467 net.cpp:141] Setting up lstm2
I0720 16:12:50.782968 17467 net.cpp:148] Top shape: 1 1 1000 (1000)
I0720 16:12:50.782973 17467 net.cpp:156] Memory required for data: 36412
I0720 16:12:50.782989 17467 layer_factory.hpp:77] Creating layer predict
I0720 16:12:50.783009 17467 net.cpp:91] Creating Layer predict
I0720 16:12:50.783015 17467 net.cpp:425] predict <- lstm2
I0720 16:12:50.783025 17467 net.cpp:399] predict -> predict
I0720 16:12:50.839531 17491 net.cpp:141] Setting up lstm2_transform_1
I0720 16:12:50.839586 17491 net.cpp:148] Top shape: 1 1 4000 (4000)
I0720 16:12:50.839597 17491 net.cpp:156] Memory required for data: 66020
I0720 16:12:50.839620 17491 layer_factory.hpp:77] Creating layer lstm2_gate_input_1
I0720 16:12:50.840605 17491 net.cpp:91] Creating Layer lstm2_gate_input_1
I0720 16:12:50.840627 17491 net.cpp:425] lstm2_gate_input_1 <- W_hc_h_0
I0720 16:12:50.840641 17491 net.cpp:425] lstm2_gate_input_1 <- W_xc_x_1
I0720 16:12:50.840656 17491 net.cpp:399] lstm2_gate_input_1 -> gate_input_1
I0720 16:12:50.840679 17491 net.cpp:141] Setting up lstm2_gate_input_1
I0720 16:12:50.841128 17491 net.cpp:148] Top shape: 1 1 4000 (4000)
I0720 16:12:50.841145 17491 net.cpp:156] Memory required for data: 82020
I0720 16:12:50.841156 17491 layer_factory.hpp:77] Creating layer lstm2_unit_1
I0720 16:12:50.841169 17491 net.cpp:91] Creating Layer lstm2_unit_1
I0720 16:12:50.841178 17491 net.cpp:425] lstm2_unit_1 <- c_0
I0720 16:12:50.841188 17491 net.cpp:425] lstm2_unit_1 <- gate_input_1
I0720 16:12:50.841197 17491 net.cpp:425] lstm2_unit_1 <- cont_1_lstm2_cont_slice_0_split_1
I0720 16:12:50.841209 17491 net.cpp:399] lstm2_unit_1 -> c_1
I0720 16:12:50.841224 17491 net.cpp:399] lstm2_unit_1 -> h_1
I0720 16:12:50.841243 17491 net.cpp:141] Setting up lstm2_unit_1
I0720 16:12:50.841253 17491 net.cpp:148] Top shape: 1 1 1000 (1000)
I0720 16:12:50.841264 17491 net.cpp:148] Top shape: 1 1 1000 (1000)
I0720 16:12:50.841270 17491 net.cpp:156] Memory required for data: 90020
I0720 16:12:50.841279 17491 layer_factory.hpp:77] Creating layer lstm2_
I0720 16:12:50.842139 17491 net.cpp:91] Creating Layer lstm2_
I0720 16:12:50.842159 17491 net.cpp:425] lstm2_ <- c_1
I0720 16:12:50.842171 17491 net.cpp:399] lstm2_ -> c_T
I0720 16:12:50.842183 17491 net.cpp:141] Setting up lstm2_
I0720 16:12:50.842654 17491 net.cpp:148] Top shape: 1 1 1000 (1000)
I0720 16:12:50.842670 17491 net.cpp:156] Memory required for data: 94020
I0720 16:12:50.842680 17491 layer_factory.hpp:77] Creating layer lstm2_h_concat
I0720 16:12:50.842705 17491 net.cpp:91] Creating Layer lstm2_h_concat
I0720 16:12:50.842715 17491 net.cpp:425] lstm2_h_concat <- h_1
I0720 16:12:50.842727 17491 net.cpp:399] lstm2_h_concat -> h
I0720 16:12:50.842746 17491 net.cpp:141] Setting up lstm2_h_concat
I0720 16:12:50.842758 17491 net.cpp:148] Top shape: 1 1 1000 (1000)
I0720 16:12:50.842766 17491 net.cpp:156] Memory required for data: 98020
I0720 16:12:50.842773 17491 layer_factory.hpp:77] Creating layer h_pseudoloss
I0720 16:12:50.843726 17491 net.cpp:91] Creating Layer h_pseudoloss
I0720 16:12:50.843746 17491 net.cpp:425] h_pseudoloss <- h
I0720 16:12:50.843761 17491 net.cpp:399] h_pseudoloss -> h_pseudoloss
I0720 16:12:50.844813 17491 net.cpp:141] Setting up h_pseudoloss
…
I0720 16:12:50.873615 17461 net.cpp:219] lstm2_ does not need backward computation.
I0720 16:12:50.873621 17461 net.cpp:261] This network produces output c_T
I0720 16:12:50.873627 17461 net.cpp:261] This network produces output h_pseudoloss
I0720 16:12:50.874465 17461 net.cpp:274] Network initialization done.
I0720 16:12:50.874547 17461 recurrent_layer.cpp:150] Adding parameter 0: W_xc
I0720 16:12:50.874558 17461 recurrent_layer.cpp:150] Adding parameter 1: b_c
I0720 16:12:50.874563 17461 recurrent_layer.cpp:150] Adding parameter 2: W_hc
I0720 16:12:50.874617 17461 net.cpp:141] Setting up lstm2
I0720 16:12:50.874627 17461 net.cpp:148] Top shape: 1 1 1000 (1000)
I0720 16:12:50.874631 17461 net.cpp:156] Memory required for data: 36412
I0720 16:12:50.874646 17461 layer_factory.hpp:77] Creating layer predict
I0720 16:12:50.874663 17461 net.cpp:91] Creating Layer predict
I0720 16:12:50.874670 17461 net.cpp:425] predict <- lstm2
I0720 16:12:50.874678 17461 net.cpp:399] predict -> predict
I0720 16:12:51.207461 17475 net.cpp:141] Setting up predict
I0720 16:12:51.207502 17475 net.cpp:148] Top shape: 1 1 46168 (46168)
I0720 16:12:51.207509 17475 net.cpp:156] Memory required for data: 221084
I0720 16:12:51.207522 17475 layer_factory.hpp:77] Creating layer probs
I0720 16:12:51.207545 17475 net.cpp:91] Creating Layer probs
I0720 16:12:51.207551 17475 net.cpp:425] probs <- predict
I0720 16:12:51.207562 17475 net.cpp:399] probs -> probs
I0720 16:12:51.208227 17495 net.cpp:141] Setting up predict
I0720 16:12:51.208267 17495 net.cpp:148] Top shape: 1 1 46168 (46168)
I0720 16:12:51.208276 17495 net.cpp:156] Memory required for data: 221084
I0720 16:12:51.208294 17495 layer_factory.hpp:77] Creating layer probs
I0720 16:12:51.208313 17495 net.cpp:91] Creating Layer probs
I0720 16:12:51.208323 17495 net.cpp:425] probs <- predict
I0720 16:12:51.208338 17495 net.cpp:399] probs -> probs
I0720 16:12:51.221184 17469 net.cpp:141] Setting up predict
I0720 16:12:51.221228 17469 net.cpp:148] Top shape: 1 1 46168 (46168)
I0720 16:12:51.221236 17469 net.cpp:156] Memory required for data: 221084
I0720 16:12:51.221253 17469 layer_factory.hpp:77] Creating layer probs
I0720 16:12:51.221272 17469 net.cpp:91] Creating Layer probs
I0720 16:12:51.221281 17469 net.cpp:425] probs <- predict
I0720 16:12:51.221294 17469 net.cpp:399] probs -> probs
I0720 16:12:51.241245 17465 net.cpp:141] Setting up predict
I0720 16:12:51.241289 17465 net.cpp:148] Top shape: 1 1 46168 (46168)
I0720 16:12:51.241295 17465 net.cpp:156] Memory required for data: 221084
I0720 16:12:51.241308 17465 layer_factory.hpp:77] Creating layer probs
I0720 16:12:51.241324 17465 net.cpp:91] Creating Layer probs
I0720 16:12:51.241330 17465 net.cpp:425] probs <- predict
I0720 16:12:51.241340 17465 net.cpp:399] probs -> probs
I0720 16:12:51.253036 17467 net.cpp:141] Setting up predict
I0720 16:12:51.253092 17467 net.cpp:148] Top shape: 1 1 46168 (46168)
I0720 16:12:51.253098 17467 net.cpp:156] Memory required for data: 221084
I0720 16:12:51.253115 17467 layer_factory.hpp:77] Creating layer probs
I0720 16:12:51.253136 17467 net.cpp:91] Creating Layer probs
I0720 16:12:51.253145 17467 net.cpp:425] probs <- predict
I0720 16:12:51.253157 17467 net.cpp:399] probs -> probs
I0720 16:12:51.303354 17479 net.cpp:141] Setting up predict
I0720 16:12:51.303412 17479 net.cpp:148] Top shape: 1 1 46168 (46168)
I0720 16:12:51.303418 17479 net.cpp:156] Memory required for data: 221084
I0720 16:12:51.303436 17479 layer_factory.hpp:77] Creating layer probs
I0720 16:12:51.303457 17479 net.cpp:91] Creating Layer probs
I0720 16:12:51.303464 17479 net.cpp:425] probs <- predict
I0720 16:12:51.303477 17479 net.cpp:399] probs -> probs
I0720 16:12:51.309295 17477 net.cpp:141] Setting up predict
I0720 16:12:51.309334 17477 net.cpp:148] Top shape: 1 1 46168 (46168)
I0720 16:12:51.309340 17477 net.cpp:156] Memory required for data: 221084
I0720 16:12:51.309355 17477 layer_factory.hpp:77] Creating layer probs
I0720 16:12:51.309368 17477 net.cpp:91] Creating Layer probs
I0720 16:12:51.309376 17477 net.cpp:425] probs <- predict
I0720 16:12:51.309386 17477 net.cpp:399] probs -> probs
I0720 16:12:51.344086 17491 net.cpp:141] Setting up predict
I0720 16:12:51.344141 17491 net.cpp:148] Top shape: 1 1 46168 (46168)
I0720 16:12:51.344147 17491 net.cpp:156] Memory required for data: 221084
I0720 16:12:51.344164 17491 layer_factory.hpp:77] Creating layer probs
I0720 16:12:51.344184 17491 net.cpp:91] Creating Layer probs
I0720 16:12:51.344192 17491 net.cpp:425] probs <- predict
I0720 16:12:51.344203 17491 net.cpp:399] probs -> probs
I0720 16:12:51.388327 17489 net.cpp:141] Setting up predict
I0720 16:12:51.388366 17489 net.cpp:148] Top shape: 1 1 46168 (46168)
I0720 16:12:51.388372 17489 net.cpp:156] Memory required for data: 221084
I0720 16:12:51.388386 17489 layer_factory.hpp:77] Creating layer probs
I0720 16:12:51.388401 17489 net.cpp:91] Creating Layer probs
I0720 16:12:51.388407 17489 net.cpp:425] probs <- predict
I0720 16:12:51.388417 17489 net.cpp:399] probs -> probs
I0720 16:12:51.394155 17461 net.cpp:141] Setting up predict
I0720 16:12:51.394176 17461 net.cpp:148] Top shape: 1 1 46168 (46168)
I0720 16:12:51.394181 17461 net.cpp:156] Memory required for data: 221084
I0720 16:12:51.394193 17461 layer_factory.hpp:77] Creating layer probs
I0720 16:12:51.394203 17461 net.cpp:91] Creating Layer probs
I0720 16:12:51.394209 17461 net.cpp:425] probs <- predict
I0720 16:12:51.394217 17461 net.cpp:399] probs -> probs
I0720 16:12:51.576313 17487 net.cpp:141] Setting up data
I0720 16:12:51.576365 17487 net.cpp:148] Top shape: 10 3 227 227 (1545870)
I0720 16:12:51.576376 17487 net.cpp:156] Memory required for data: 6183480
I0720 16:12:51.576391 17487 layer_factory.hpp:77] Creating layer conv1
I0720 16:12:51.576434 17487 net.cpp:91] Creating Layer conv1
I0720 16:12:51.576447 17487 net.cpp:425] conv1 <- data
I0720 16:12:51.576463 17487 net.cpp:399] conv1 -> conv1
I0720 16:12:51.863677 17475 net.cpp:141] Setting up probs
I0720 16:12:51.863736 17475 net.cpp:148] Top shape: 1 1 46168 (46168)
I0720 16:12:51.863742 17475 net.cpp:156] Memory required for data: 405756
I0720 16:12:51.863754 17475 net.cpp:219] probs does not need backward computation.
I0720 16:12:51.863762 17475 net.cpp:219] predict does not need backward computation.
I0720 16:12:51.863767 17475 net.cpp:219] lstm2 does not need backward computation.
I0720 16:12:51.863773 17475 net.cpp:219] concat does not need backward computation.
I0720 16:12:51.863780 17475 net.cpp:219] lstm1 does not need backward computation.
I0720 16:12:51.863786 17475 net.cpp:219] embedding does not need backward computation.
I0720 16:12:51.863791 17475 net.cpp:219] reshape_stage_indicator does not need backward computation.
I0720 16:12:51.863796 17475 net.cpp:219] reshape_frames does not need backward computation.
I0720 16:12:51.863801 17475 net.cpp:219] embed_encoder does not need backward computation.
I0720 16:12:51.863807 17475 net.cpp:219] cont_sentence_input_1_split does not need backward computation.
I0720 16:12:51.863812 17475 net.cpp:219] input does not need backward computation.
I0720 16:12:51.863816 17475 net.cpp:261] This network produces output probs
I0720 16:12:51.863836 17475 net.cpp:274] Network initialization done.
I0720 16:12:51.864812 17495 net.cpp:141] Setting up probs
I0720 16:12:51.864837 17495 net.cpp:148] Top shape: 1 1 46168 (46168)
I0720 16:12:51.864847 17495 net.cpp:156] Memory required for data: 405756
I0720 16:12:51.864850 17469 net.cpp:141] Setting up probs
I0720 16:12:51.864857 17495 net.cpp:219] probs does not need backward computation.
I0720 16:12:51.864876 17469 net.cpp:148] Top shape: 1 1 46168 (46168)
I0720 16:12:51.864878 17495 net.cpp:219] predict does not need backward computation.
I0720 16:12:51.864883 17469 net.cpp:156] Memory required for data: 405756
I0720 16:12:51.864894 17495 net.cpp:219] lstm2 does not need backward computation.
I0720 16:12:51.864897 17469 net.cpp:219] probs does not need backward computation.
I0720 16:12:51.864909 17469 net.cpp:219] predict does not need backward computation.
…
I0720 16:12:52.488538 17469 net.cpp:752] Ignoring source layer data
I0720 16:12:52.488612 17469 net.cpp:752] Ignoring source layer cont_sentence_data_0_split
I0720 16:12:52.488621 17469 net.cpp:752] Ignoring source layer reshape_stg_indicator
I0720 16:12:52.501727 17475 net.cpp:752] Ignoring source layer data
I0720 16:12:52.501777 17475 net.cpp:752] Ignoring source layer cont_sentence_data_0_split
I0720 16:12:52.501785 17475 net.cpp:752] Ignoring source layer reshape_stg_indicator
I0720 16:12:52.523716 17477 net.cpp:752] Ignoring source layer cross_entropy_loss
I0720 16:12:52.547958 17487 net.cpp:141] Setting up conv1
I0720 16:12:52.548032 17487 net.cpp:148] Top shape: 10 96 55 55 (2904000)
I0720 16:12:52.548044 17487 net.cpp:156] Memory required for data: 17799480
I0720 16:12:52.548084 17487 layer_factory.hpp:77] Creating layer relu1
I0720 16:12:52.548113 17487 net.cpp:91] Creating Layer relu1
I0720 16:12:52.548128 17487 net.cpp:425] relu1 <- conv1
I0720 16:12:52.548143 17487 net.cpp:386] relu1 -> conv1 (in-place)
I0720 16:12:52.552134 17487 net.cpp:141] Setting up relu1
I0720 16:12:52.552206 17487 net.cpp:148] Top shape: 10 96 55 55 (2904000)
I0720 16:12:52.552219 17487 net.cpp:156] Memory required for data: 29415480
I0720 16:12:52.552234 17487 layer_factory.hpp:77] Creating layer pool1
I0720 16:12:52.552266 17487 net.cpp:91] Creating Layer pool1
I0720 16:12:52.552281 17487 net.cpp:425] pool1 <- conv1
I0720 16:12:52.552299 17487 net.cpp:399] pool1 -> pool1
I0720 16:12:52.560853 17487 net.cpp:141] Setting up pool1
I0720 16:12:52.560922 17487 net.cpp:148] Top shape: 10 96 27 27 (699840)
I0720 16:12:52.560933 17487 net.cpp:156] Memory required for data: 32214840
I0720 16:12:52.560947 17487 layer_factory.hpp:77] Creating layer norm1
I0720 16:12:52.560989 17487 net.cpp:91] Creating Layer norm1
I0720 16:12:52.561003 17487 net.cpp:425] norm1 <- pool1
I0720 16:12:52.561022 17487 net.cpp:399] norm1 -> norm1
I0720 16:12:52.565170 17487 net.cpp:141] Setting up norm1
I0720 16:12:52.565234 17487 net.cpp:148] Top shape: 10 96 27 27 (699840)
I0720 16:12:52.565246 17487 net.cpp:156] Memory required for data: 35014200
I0720 16:12:52.565263 17487 layer_factory.hpp:77] Creating layer conv2
I0720 16:12:52.565307 17487 net.cpp:91] Creating Layer conv2
I0720 16:12:52.565325 17487 net.cpp:425] conv2 <- norm1
I0720 16:12:52.565342 17487 net.cpp:399] conv2 -> conv2
I0720 16:12:52.582916 17479 net.cpp:752] Ignoring source layer cross_entropy_loss
I0720 16:12:52.584082 17467 net.cpp:752] Ignoring source layer cross_entropy_loss
I0720 16:12:52.587067 17461 net.cpp:752] Ignoring source layer cross_entropy_loss
I0720 16:12:52.592573 17473 net.cpp:141] Setting up data
I0720 16:12:52.592895 17473 net.cpp:148] Top shape: 10 3 227 227 (1545870)
I0720 16:12:52.592911 17473 net.cpp:156] Memory required for data: 6183480
I0720 16:12:52.592926 17473 layer_factory.hpp:77] Creating layer conv1
I0720 16:12:52.592964 17473 net.cpp:91] Creating Layer conv1
I0720 16:12:52.592977 17473 net.cpp:425] conv1 <- data
I0720 16:12:52.592993 17473 net.cpp:399] conv1 -> conv1
I0720 16:12:52.595528 17495 net.cpp:752] Ignoring source layer cross_entropy_loss
I0720 16:12:52.596878 17491 net.cpp:752] Ignoring source layer cross_entropy_loss
I0720 16:12:52.612500 17469 net.cpp:752] Ignoring source layer cross_entropy_loss
I0720 16:12:52.618890 17475 net.cpp:752] Ignoring source layer cross_entropy_loss
I0720 16:12:52.619655 17487 net.cpp:141] Setting up conv2
I0720 16:12:52.619679 17487 net.cpp:148] Top shape: 10 256 27 27 (1866240)
I0720 16:12:52.619684 17487 net.cpp:156] Memory required for data: 42479160
I0720 16:12:52.620168 17487 layer_factory.hpp:77] Creating layer relu2
I0720 16:12:52.620187 17487 net.cpp:91] Creating Layer relu2
I0720 16:12:52.620194 17487 net.cpp:425] relu2 <- conv2
I0720 16:12:52.620203 17487 net.cpp:386] relu2 -> conv2 (in-place)
I0720 16:12:52.623719 17487 net.cpp:141] Setting up relu2
I0720 16:12:52.623741 17487 net.cpp:148] Top shape: 10 256 27 27 (1866240)
I0720 16:12:52.623747 17487 net.cpp:156] Memory required for data: 49944120
I0720 16:12:52.623752 17487 layer_factory.hpp:77] Creating layer pool2
I0720 16:12:52.623764 17487 net.cpp:91] Creating Layer pool2
I0720 16:12:52.623769 17487 net.cpp:425] pool2 <- conv2
I0720 16:12:52.623780 17487 net.cpp:399] pool2 -> pool2
I0720 16:12:52.624344 17473 net.cpp:141] Setting up conv1
I0720 16:12:52.624364 17487 net.cpp:141] Setting up pool2
I0720 16:12:52.624390 17487 net.cpp:148] Top shape: 10 256 13 13 (432640)
I0720 16:12:52.624397 17487 net.cpp:156] Memory required for data: 51674680
I0720 16:12:52.624395 17473 net.cpp:148] Top shape: 10 96 55 55 (2904000)
I0720 16:12:52.624404 17487 layer_factory.hpp:77] Creating layer norm2
I0720 16:12:52.624409 17473 net.cpp:156] Memory required for data: 17799480
I0720 16:12:52.624418 17487 net.cpp:91] Creating Layer norm2
I0720 16:12:52.624423 17487 net.cpp:425] norm2 <- pool2
I0720 16:12:52.624435 17487 net.cpp:399] norm2 -> norm2
I0720 16:12:52.624441 17473 layer_factory.hpp:77] Creating layer relu1
I0720 16:12:52.624471 17473 net.cpp:91] Creating Layer relu1
I0720 16:12:52.624478 17473 net.cpp:425] relu1 <- conv1
I0720 16:12:52.624486 17473 net.cpp:386] relu1 -> conv1 (in-place)
I0720 16:12:52.625018 17487 net.cpp:141] Setting up norm2
I0720 16:12:52.625036 17487 net.cpp:148] Top shape: 10 256 13 13 (432640)
I0720 16:12:52.625041 17487 net.cpp:156] Memory required for data: 53405240
I0720 16:12:52.625046 17487 layer_factory.hpp:77] Creating layer conv3
I0720 16:12:52.625056 17473 net.cpp:141] Setting up relu1
I0720 16:12:52.625061 17487 net.cpp:91] Creating Layer conv3
I0720 16:12:52.625069 17487 net.cpp:425] conv3 <- norm2
I0720 16:12:52.625071 17473 net.cpp:148] Top shape: 10 96 55 55 (2904000)
I0720 16:12:52.625077 17473 net.cpp:156] Memory required for data: 29415480
I0720 16:12:52.625077 17487 net.cpp:399] conv3 -> conv3
I0720 16:12:52.625087 17473 layer_factory.hpp:77] Creating layer pool1
I0720 16:12:52.625111 17473 net.cpp:91] Creating Layer pool1
I0720 16:12:52.625116 17473 net.cpp:425] pool1 <- conv1
I0720 16:12:52.625126 17473 net.cpp:399] pool1 -> pool1
I0720 16:12:52.625394 17473 net.cpp:141] Setting up pool1
I0720 16:12:52.625406 17473 net.cpp:148] Top shape: 10 96 27 27 (699840)
I0720 16:12:52.625411 17473 net.cpp:156] Memory required for data: 32214840
I0720 16:12:52.625416 17473 layer_factory.hpp:77] Creating layer norm1
I0720 16:12:52.625458 17473 net.cpp:91] Creating Layer norm1
I0720 16:12:52.625464 17473 net.cpp:425] norm1 <- pool1
I0720 16:12:52.625473 17473 net.cpp:399] norm1 -> norm1
I0720 16:12:52.630153 17473 net.cpp:141] Setting up norm1
I0720 16:12:52.630170 17473 net.cpp:148] Top shape: 10 96 27 27 (699840)
I0720 16:12:52.630175 17473 net.cpp:156] Memory required for data: 35014200
I0720 16:12:52.630182 17473 layer_factory.hpp:77] Creating layer conv2
I0720 16:12:52.630200 17473 net.cpp:91] Creating Layer conv2
I0720 16:12:52.630206 17473 net.cpp:425] conv2 <- norm1
I0720 16:12:52.630215 17473 net.cpp:399] conv2 -> conv2
I0720 16:12:52.636044 17487 net.cpp:141] Setting up conv3
I0720 16:12:52.636073 17487 net.cpp:148] Top shape: 10 384 13 13 (648960)
I0720 16:12:52.636080 17487 net.cpp:156] Memory required for data: 56001080
I0720 16:12:52.636097 17487 layer_factory.hpp:77] Creating layer relu3
I0720 16:12:52.636109 17487 net.cpp:91] Creating Layer relu3
I0720 16:12:52.636116 17487 net.cpp:425] relu3 <- conv3
I0720 16:12:52.636122 17487 net.cpp:386] relu3 -> conv3 (in-place)
I0720 16:12:52.637293 17487 net.cpp:141] Setting up relu3
I0720 16:12:52.637308 17487 net.cpp:148] Top shape: 10 384 13 13 (648960)
I0720 16:12:52.637313 17487 net.cpp:156] Memory required for data: 58596920
I0720 16:12:52.637318 17487 layer_factory.hpp:77] Creating layer conv4
I0720 16:12:52.637341 17487 net.cpp:91] Creating Layer conv4
I0720 16:12:52.637346 17487 net.cpp:425] conv4 <- conv3
I0720 16:12:52.637354 17487 net.cpp:399] conv4 -> conv4
I0720 16:12:52.639530 17473 net.cpp:141] Setting up conv2
I0720 16:12:52.639551 17473 net.cpp:148] Top shape: 10 256 27 27 (1866240)
I0720 16:12:52.639557 17473 net.cpp:156] Memory required for data: 42479160
I0720 16:12:52.639574 17473 layer_factory.hpp:77] Creating layer relu2
I0720 16:12:52.639582 17473 net.cpp:91] Creating Layer relu2
I0720 16:12:52.639587 17473 net.cpp:425] relu2 <- conv2
I0720 16:12:52.639595 17473 net.cpp:386] relu2 -> conv2 (in-place)
I0720 16:12:52.640471 17473 net.cpp:141] Setting up relu2
I0720 16:12:52.640487 17473 net.cpp:148] Top shape: 10 256 27 27 (1866240)
I0720 16:12:52.640492 17473 net.cpp:156] Memory required for data: 49944120
I0720 16:12:52.640497 17473 layer_factory.hpp:77] Creating layer pool2
I0720 16:12:52.640507 17473 net.cpp:91] Creating Layer pool2
I0720 16:12:52.640511 17473 net.cpp:425] pool2 <- conv2
I0720 16:12:52.641556 17473 net.cpp:399] pool2 -> pool2
I0720 16:12:52.643301 17473 net.cpp:141] Setting up pool2
I0720 16:12:52.643323 17473 net.cpp:148] Top shape: 10 256 13 13 (432640)
I0720 16:12:52.643328 17473 net.cpp:156] Memory required for data: 51674680
I0720 16:12:52.643334 17473 layer_factory.hpp:77] Creating layer norm2
I0720 16:12:52.643347 17473 net.cpp:91] Creating Layer norm2
I0720 16:12:52.643352 17473 net.cpp:425] norm2 <- pool2
I0720 16:12:52.643363 17473 net.cpp:399] norm2 -> norm2
I0720 16:12:52.643767 17473 net.cpp:141] Setting up norm2
I0720 16:12:52.643780 17473 net.cpp:148] Top shape: 10 256 13 13 (432640)
I0720 16:12:52.643785 17473 net.cpp:156] Memory required for data: 53405240
I0720 16:12:52.643790 17473 layer_factory.hpp:77] Creating layer conv3
I0720 16:12:52.643803 17473 net.cpp:91] Creating Layer conv3
I0720 16:12:52.643810 17473 net.cpp:425] conv3 <- norm2
I0720 16:12:52.643816 17473 net.cpp:399] conv3 -> conv3
I0720 16:12:52.650380 17487 net.cpp:141] Setting up conv4
I0720 16:12:52.650403 17487 net.cpp:148] Top shape: 10 384 13 13 (648960)
I0720 16:12:52.650409 17487 net.cpp:156] Memory required for data: 61192760
I0720 16:12:52.650419 17487 layer_factory.hpp:77] Creating layer relu4
I0720 16:12:52.650435 17487 net.cpp:91] Creating Layer relu4
I0720 16:12:52.650441 17487 net.cpp:425] relu4 <- conv4
I0720 16:12:52.650449 17487 net.cpp:386] relu4 -> conv4 (in-place)
I0720 16:12:52.651631 17487 net.cpp:141] Setting up relu4
I0720 16:12:52.651646 17487 net.cpp:148] Top shape: 10 384 13 13 (648960)
I0720 16:12:52.651651 17487 net.cpp:156] Memory required for data: 63788600
I0720 16:12:52.651657 17487 layer_factory.hpp:77] Creating layer conv5
I0720 16:12:52.651670 17487 net.cpp:91] Creating Layer conv5
I0720 16:12:52.651675 17487 net.cpp:425] conv5 <- conv4
I0720 16:12:52.651684 17487 net.cpp:399] conv5 -> conv5
I0720 16:12:52.651701 17473 net.cpp:141] Setting up conv3
I0720 16:12:52.651716 17473 net.cpp:148] Top shape: 10 384 13 13 (648960)
I0720 16:12:52.651721 17473 net.cpp:156] Memory required for data: 56001080
I0720 16:12:52.651734 17473 layer_factory.hpp:77] Creating layer relu3
I0720 16:12:52.651743 17473 net.cpp:91] Creating Layer relu3
I0720 16:12:52.651747 17473 net.cpp:425] relu3 <- conv3
I0720 16:12:52.651756 17473 net.cpp:386] relu3 -> conv3 (in-place)
I0720 16:12:52.652629 17473 net.cpp:141] Setting up relu3
I0720 16:12:52.652643 17473 net.cpp:148] Top shape: 10 384 13 13 (648960)
I0720 16:12:52.652648 17473 net.cpp:156] Memory required for data: 58596920
I0720 16:12:52.652653 17473 layer_factory.hpp:77] Creating layer conv4
I0720 16:12:52.652668 17473 net.cpp:91] Creating Layer conv4
I0720 16:12:52.652673 17473 net.cpp:425] conv4 <- conv3
I0720 16:12:52.652681 17473 net.cpp:399] conv4 -> conv4
I0720 16:12:52.661555 17473 net.cpp:141] Setting up conv4
I0720 16:12:52.661576 17473 net.cpp:148] Top shape: 10 384 13 13 (648960)
I0720 16:12:52.661581 17473 net.cpp:156] Memory required for data: 61192760
I0720 16:12:52.661592 17473 layer_factory.hpp:77] Creating layer relu4
I0720 16:12:52.661602 17473 net.cpp:91] Creating Layer relu4
I0720 16:12:52.661608 17473 net.cpp:425] relu4 <- conv4
I0720 16:12:52.661615 17473 net.cpp:386] relu4 -> conv4 (in-place)
I0720 16:12:52.661656 17487 net.cpp:141] Setting up conv5
I0720 16:12:52.661671 17487 net.cpp:148] Top shape: 10 256 13 13 (432640)
I0720 16:12:52.661676 17487 net.cpp:156] Memory required for data: 65519160
I0720 16:12:52.661689 17487 layer_factory.hpp:77] Creating layer relu5
I0720 16:12:52.661701 17487 net.cpp:91] Creating Layer relu5
I0720 16:12:52.661707 17487 net.cpp:425] relu5 <- conv5
I0720 16:12:52.661713 17487 net.cpp:386] relu5 -> conv5 (in-place)
I0720 16:12:52.662346 17473 net.cpp:141] Setting up relu4
I0720 16:12:52.662361 17473 net.cpp:148] Top shape: 10 384 13 13 (648960)
I0720 16:12:52.662366 17473 net.cpp:156] Memory required for data: 63788600
I0720 16:12:52.662371 17473 layer_factory.hpp:77] Creating layer conv5
I0720 16:12:52.662384 17473 net.cpp:91] Creating Layer conv5
I0720 16:12:52.662390 17473 net.cpp:425] conv5 <- conv4
I0720 16:12:52.662401 17473 net.cpp:399] conv5 -> conv5
I0720 16:12:52.662889 17487 net.cpp:141] Setting up relu5
I0720 16:12:52.662904 17487 net.cpp:148] Top shape: 10 256 13 13 (432640)
I0720 16:12:52.662909 17487 net.cpp:156] Memory required for data: 67249720
I0720 16:12:52.662914 17487 layer_factory.hpp:77] Creating layer pool5
I0720 16:12:52.662932 17487 net.cpp:91] Creating Layer pool5
I0720 16:12:52.662938 17487 net.cpp:425] pool5 <- conv5
I0720 16:12:52.662947 17487 net.cpp:399] pool5 -> pool5
I0720 16:12:52.664391 17487 net.cpp:141] Setting up pool5
I0720 16:12:52.664405 17487 net.cpp:148] Top shape: 10 256 6 6 (92160)
I0720 16:12:52.664409 17487 net.cpp:156] Memory required for data: 67618360
I0720 16:12:52.664420 17487 layer_factory.hpp:77] Creating layer fc6
I0720 16:12:52.664436 17487 net.cpp:91] Creating Layer fc6
I0720 16:12:52.664443 17487 net.cpp:425] fc6 <- pool5
I0720 16:12:52.664451 17487 net.cpp:399] fc6 -> fc6
I0720 16:12:52.734978 17473 net.cpp:141] Setting up conv5
I0720 16:12:52.735023 17473 net.cpp:148] Top shape: 10 256 13 13 (432640)
I0720 16:12:52.735030 17473 net.cpp:156] Memory required for data: 65519160
I0720 16:12:52.735054 17473 layer_factory.hpp:77] Creating layer relu5
I0720 16:12:52.735069 17473 net.cpp:91] Creating Layer relu5
I0720 16:12:52.735075 17473 net.cpp:425] relu5 <- conv5
I0720 16:12:52.735086 17473 net.cpp:386] relu5 -> conv5 (in-place)
I0720 16:12:52.735327 17473 net.cpp:141] Setting up relu5
I0720 16:12:52.735338 17473 net.cpp:148] Top shape: 10 256 13 13 (432640)
I0720 16:12:52.735342 17473 net.cpp:156] Memory required for data: 67249720
I0720 16:12:52.735347 17473 layer_factory.hpp:77] Creating layer pool5
I0720 16:12:52.735363 17473 net.cpp:91] Creating Layer pool5
I0720 16:12:52.735368 17473 net.cpp:425] pool5 <- conv5
I0720 16:12:52.735374 17473 net.cpp:399] pool5 -> pool5
I0720 16:12:52.735471 17473 net.cpp:141] Setting up pool5
I0720 16:12:52.735481 17473 net.cpp:148] Top shape: 10 256 6 6 (92160)
I0720 16:12:52.735484 17473 net.cpp:156] Memory required for data: 67618360
I0720 16:12:52.735489 17473 layer_factory.hpp:77] Creating layer fc6
I0720 16:12:52.735513 17473 net.cpp:91] Creating Layer fc6
I0720 16:12:52.735518 17473 net.cpp:425] fc6 <- pool5
I0720 16:12:52.735527 17473 net.cpp:399] fc6 -> fc6
I0720 16:12:52.802378 17487 net.cpp:141] Setting up fc6
I0720 16:12:52.802423 17487 net.cpp:148] Top shape: 10 4096 (40960)
I0720 16:12:52.802429 17487 net.cpp:156] Memory required for data: 67782200
I0720 16:12:52.802445 17487 layer_factory.hpp:77] Creating layer relu6
I0720 16:12:52.802459 17487 net.cpp:91] Creating Layer relu6
I0720 16:12:52.802466 17487 net.cpp:425] relu6 <- fc6
I0720 16:12:52.802475 17487 net.cpp:386] relu6 -> fc6 (in-place)
I0720 16:12:52.802840 17487 net.cpp:141] Setting up relu6
I0720 16:12:52.802852 17487 net.cpp:148] Top shape: 10 4096 (40960)
I0720 16:12:52.802856 17487 net.cpp:156] Memory required for data: 67946040
I0720 16:12:52.802861 17487 layer_factory.hpp:77] Creating layer drop6
I0720 16:12:52.802875 17487 net.cpp:91] Creating Layer drop6
I0720 16:12:52.802881 17487 net.cpp:425] drop6 <- fc6
I0720 16:12:52.802887 17487 net.cpp:386] drop6 -> fc6 (in-place)
I0720 16:12:52.802964 17487 net.cpp:141] Setting up drop6
I0720 16:12:52.802974 17487 net.cpp:148] Top shape: 10 4096 (40960)
I0720 16:12:52.802978 17487 net.cpp:156] Memory required for data: 68109880
I0720 16:12:52.802984 17487 layer_factory.hpp:77] Creating layer fc7
I0720 16:12:52.802994 17487 net.cpp:91] Creating Layer fc7
I0720 16:12:52.802999 17487 net.cpp:425] fc7 <- fc6
I0720 16:12:52.803007 17487 net.cpp:399] fc7 -> fc7
I0720 16:12:52.840791 17473 net.cpp:141] Setting up fc6
I0720 16:12:52.840837 17473 net.cpp:148] Top shape: 10 4096 (40960)
I0720 16:12:52.840842 17473 net.cpp:156] Memory required for data: 67782200
I0720 16:12:52.840855 17473 layer_factory.hpp:77] Creating layer relu6
I0720 16:12:52.840874 17473 net.cpp:91] Creating Layer relu6
I0720 16:12:52.840881 17473 net.cpp:425] relu6 <- fc6
I0720 16:12:52.840890 17473 net.cpp:386] relu6 -> fc6 (in-place)
I0720 16:12:52.842458 17473 net.cpp:141] Setting up relu6
I0720 16:12:52.842486 17473 net.cpp:148] Top shape: 10 4096 (40960)
I0720 16:12:52.842492 17473 net.cpp:156] Memory required for data: 67946040
I0720 16:12:52.842499 17473 layer_factory.hpp:77] Creating layer drop6
I0720 16:12:52.842514 17473 net.cpp:91] Creating Layer drop6
I0720 16:12:52.842520 17473 net.cpp:425] drop6 <- fc6
I0720 16:12:52.842528 17473 net.cpp:386] drop6 -> fc6 (in-place)
I0720 16:12:52.842615 17473 net.cpp:141] Setting up drop6
I0720 16:12:52.842624 17473 net.cpp:148] Top shape: 10 4096 (40960)
I0720 16:12:52.842629 17473 net.cpp:156] Memory required for data: 68109880
I0720 16:12:52.842633 17473 layer_factory.hpp:77] Creating layer fc7
I0720 16:12:52.842648 17473 net.cpp:91] Creating Layer fc7
I0720 16:12:52.842653 17473 net.cpp:425] fc7 <- fc6
I0720 16:12:52.842663 17473 net.cpp:399] fc7 -> fc7
I0720 16:12:52.873178 17487 net.cpp:141] Setting up fc7
I0720 16:12:52.873222 17487 net.cpp:148] Top shape: 10 4096 (40960)
I0720 16:12:52.873229 17487 net.cpp:156] Memory required for data: 68273720
I0720 16:12:52.873242 17487 layer_factory.hpp:77] Creating layer relu7
I0720 16:12:52.873261 17487 net.cpp:91] Creating Layer relu7
I0720 16:12:52.873270 17487 net.cpp:425] relu7 <- fc7
I0720 16:12:52.873278 17487 net.cpp:386] relu7 -> fc7 (in-place)
I0720 16:12:52.874222 17487 net.cpp:141] Setting up relu7
I0720 16:12:52.874241 17487 net.cpp:148] Top shape: 10 4096 (40960)
I0720 16:12:52.874248 17487 net.cpp:156] Memory required for data: 68437560
I0720 16:12:52.874253 17487 layer_factory.hpp:77] Creating layer drop7
I0720 16:12:52.874267 17487 net.cpp:91] Creating Layer drop7
I0720 16:12:52.874274 17487 net.cpp:425] drop7 <- fc7
I0720 16:12:52.874280 17487 net.cpp:386] drop7 -> fc7 (in-place)
I0720 16:12:52.874353 17487 net.cpp:141] Setting up drop7
I0720 16:12:52.874362 17487 net.cpp:148] Top shape: 10 4096 (40960)
I0720 16:12:52.874366 17487 net.cpp:156] Memory required for data: 68601400
I0720 16:12:52.874372 17487 layer_factory.hpp:77] Creating layer fc8
I0720 16:12:52.874385 17487 net.cpp:91] Creating Layer fc8
I0720 16:12:52.874390 17487 net.cpp:425] fc8 <- fc7
I0720 16:12:52.874399 17487 net.cpp:399] fc8 -> fc8
I0720 16:12:52.888382 17487 net.cpp:141] Setting up fc8
I0720 16:12:52.888427 17487 net.cpp:148] Top shape: 10 1000 (10000)
I0720 16:12:52.888433 17487 net.cpp:156] Memory required for data: 68641400
I0720 16:12:52.888448 17487 layer_factory.hpp:77] Creating layer prob
I0720 16:12:52.888463 17487 net.cpp:91] Creating Layer prob
I0720 16:12:52.888470 17487 net.cpp:425] prob <- fc8
I0720 16:12:52.888487 17487 net.cpp:399] prob -> prob
I0720 16:12:52.888973 17487 net.cpp:141] Setting up prob
I0720 16:12:52.888988 17487 net.cpp:148] Top shape: 10 1000 (10000)
I0720 16:12:52.888993 17487 net.cpp:156] Memory required for data: 68681400
I0720 16:12:52.888998 17487 net.cpp:219] prob does not need backward computation.
I0720 16:12:52.889003 17487 net.cpp:219] fc8 does not need backward computation.
I0720 16:12:52.889008 17487 net.cpp:219] drop7 does not need backward computation.
I0720 16:12:52.889011 17487 net.cpp:219] relu7 does not need backward computation.
…
I0720 16:12:52.889081 17487 net.cpp:219] norm1 does not need backward computation.
I0720 16:12:52.889084 17487 net.cpp:219] pool1 does not need backward computation.
I0720 16:12:52.889089 17487 net.cpp:219] relu1 does not need backward computation.
I0720 16:12:52.889093 17487 net.cpp:219] conv1 does not need backward computation.
I0720 16:12:52.889097 17487 net.cpp:219] data does not need backward computation.
I0720 16:12:52.889101 17487 net.cpp:261] This network produces output prob
I0720 16:12:52.889120 17487 net.cpp:274] Network initialization done.
I0720 16:12:52.890364 17473 net.cpp:141] Setting up fc7
I0720 16:12:52.890386 17473 net.cpp:148] Top shape: 10 4096 (40960)
I0720 16:12:52.890391 17473 net.cpp:156] Memory required for data: 68273720
I0720 16:12:52.890401 17473 layer_factory.hpp:77] Creating layer relu7
I0720 16:12:52.890413 17473 net.cpp:91] Creating Layer relu7
I0720 16:12:52.890419 17473 net.cpp:425] relu7 <- fc7
I0720 16:12:52.890430 17473 net.cpp:386] relu7 -> fc7 (in-place)
I0720 16:12:52.891098 17473 net.cpp:141] Setting up relu7
I0720 16:12:52.891113 17473 net.cpp:148] Top shape: 10 4096 (40960)
I0720 16:12:52.891118 17473 net.cpp:156] Memory required for data: 68437560
I0720 16:12:52.891122 17473 layer_factory.hpp:77] Creating layer drop7
I0720 16:12:52.891132 17473 net.cpp:91] Creating Layer drop7
I0720 16:12:52.891137 17473 net.cpp:425] drop7 <- fc7
I0720 16:12:52.891144 17473 net.cpp:386] drop7 -> fc7 (in-place)
I0720 16:12:52.891204 17473 net.cpp:141] Setting up drop7
I0720 16:12:52.891212 17473 net.cpp:148] Top shape: 10 4096 (40960)
I0720 16:12:52.891217 17473 net.cpp:156] Memory required for data: 68601400
I0720 16:12:52.891222 17473 layer_factory.hpp:77] Creating layer fc8
I0720 16:12:52.891230 17473 net.cpp:91] Creating Layer fc8
I0720 16:12:52.891235 17473 net.cpp:425] fc8 <- fc7
I0720 16:12:52.891244 17473 net.cpp:399] fc8 -> fc8
I0720 16:12:52.904201 17473 net.cpp:141] Setting up fc8
I0720 16:12:52.904240 17473 net.cpp:148] Top shape: 10 1000 (10000)
I0720 16:12:52.904245 17473 net.cpp:156] Memory required for data: 68641400
I0720 16:12:52.904258 17473 layer_factory.hpp:77] Creating layer prob
I0720 16:12:52.904273 17473 net.cpp:91] Creating Layer prob
I0720 16:12:52.904278 17473 net.cpp:425] prob <- fc8
I0720 16:12:52.904289 17473 net.cpp:399] prob -> prob
I0720 16:12:52.906117 17473 net.cpp:141] Setting up prob
I0720 16:12:52.906136 17473 net.cpp:148] Top shape: 10 1000 (10000)
I0720 16:12:52.906141 17473 net.cpp:156] Memory required for data: 68681400
I0720 16:12:52.906147 17473 net.cpp:219] prob does not need backward computation.
I0720 16:12:52.906152 17473 net.cpp:219] fc8 does not need backward computation.
I0720 16:12:52.906155 17473 net.cpp:219] drop7 does not need backward computation.
I0720 16:12:52.906160 17473 net.cpp:219] relu7 does not need backward computation.
…
