…
It's highly recommended that you fix the library with 'execstack -c <libfile>', or link it with '-z noexecstack'.
WARNING: cuda not found in compile time, setting current GPU will not work.
WARNING: cuda not found in compile time, setting current GPU will not work.
WARNING: Logging before InitGoogleLogging() is written to STDERR
I0707 11:35:47.765975  2294 net.cpp:49] Initializing net from parameters: 
name: "GoogleNet"
state {
  phase: TEST
}
layer {
  name: "data"
  type: "Input"
  top: "data"
  input_param {
    shape {
      dim: 10
      dim: 3
      dim: 224
      dim: 224
    }
  }
}
layer {
  name: "conv1/7x7_s2"
  type: "Convolution"
  bottom: "data"
  top: "conv1/7x7_s2"
  param {
    lr_mult: 1
    decay_mult: 1
  }
  param {
    lr_mult: 2
    decay_mult: 0
  }
  convolution_param {
    num_output: 64
    pad: 3
    kernel_size: 7
    stride: 2
    weight_filler {
      type: "xavier"
      std: 0.1
    }
    bias_filler {
      type: "constant"
      value: 0.2
    }
  }
}
layer {
  name: "conv1/relu_7x7"
  type: "ReLU"
  bottom: "conv1/7x7_s2"
  top: "conv1/7x7_s2"
}
layer {
  name: "pool1/3x3_s2"
  type: "Pooling"
  bottom: "conv1/7x7_s2"
  top: "pool1/3x3_s2"
  pooling_param {
    pool: MAX
    kernel_size: 3
    stride: 2
  }
}
layer {
  name: "pool1/norm1"
  type: "LRN"
  bottom: "pool1/3x3_s2"
  top: "pool1/norm1"
  lrn_param {
    local_size: 5
    alpha: 0.0001
    beta: 0.75
  }
}
layer {
  name: "conv2/3x3_reduce"
  type: "Convolution"
  bottom: "pool1/norm1"
  top: "conv2/3x3_reduce"
  param {
    lr_mult: 1
    decay_mult: 1
  }
  param {
    lr_mult: 2
    decay_mult: 0
  }
  convolution_param {
    num_output: 64
    kernel_size: 1
    weight_filler {
      type: "xavier"
      std: 0.1
    }
    bias_filler {
      type: "constant"
      value: 0.2
    }
  }
}
layer {
  name: "conv2/relu_3x3_reduce"
  type: "ReLU"
  bottom: "conv2/3x3_reduce"
  top: "conv2/3x3_reduce"
}
layer {
  name: "conv2/3x3"
  type: "Convolution"
  bottom: "conv2/3x3_reduce"
  top: "conv2/3x3"
  param {
    lr_mult: 1
    decay_mult: 1
  }
  param {
    lr_mult: 2
    decay_mult: 0
  }
  convolution_param {
    num_output: 192
    pad: 1
    kernel_size: 3
    weight_filler {
      type: "xavier"
      std: 0.03
    }
    bias_filler {
      type: "constant"
      value: 0.2
    }
  }
}
layer {
  name: "conv2/relu_3x3"
  type: "ReLU"
  bottom: "conv2/3x3"
  top: "conv2/3x3"
}
layer {
  name: "conv2/norm2"
  type: "LRN"
  bottom: "conv2/3x3"
  top: "conv2/norm2"
  lrn_param {
    local_size: 5
    alpha: 0.0001
    beta: 0.75
  }
}
layer {
  name: "pool2/3x3_s2"
  type: "Pooling"
  bottom: "conv2/norm2"
  top: "pool2/3x3_s2"
  pooling_param {
    pool: MAX
    kernel_size: 3
    stride: 2
  }
}
layer {
  name: "inception_3a/1x1"
  type: "Convolution"
  bottom: "pool2/3x3_s2"
  top: "inception_3a/1x1"
  param {
    lr_mult: 1
    decay_mult: 1
  }
  param {
    lr_mult: 2
    decay_mult: 0
  }
  convolution_param {
    num_output: 64
    kernel_size: 1
    weight_filler {
      type: "xavier"
      std: 0.03
    }
    bias_filler {
      type: "constant"
      value: 0.2
    }
  }
}
layer {
  name: "inception_3a/relu_1x1"
  type: "ReLU"
  bottom: "inception_3a/1x1"
  top: "inception_3a/1x1"
}
layer {
  name: "inception_3a/3x3_reduce"
  type: "Convolution"
  bottom: "pool2/3x3_s2"
  top: "inception_3a/3x3_reduce"
  param {
    lr_mult: 1
    decay_mult: 1
  }
  param {
    lr_mult: 2
    decay_mult: 0
  }
  convolution_param {
    num_output: 96
    kernel_size: 1
    weight_filler {
      type: "xavier"
      std: 0.09
    }
    bias_filler {
      type: "constant"
      value: 0.2
    }
  }
}
layer {
  name: "inception_3a/relu_3x3_reduce"
  type: "ReLU"
  bottom: "inception_3a/3x3_reduce"
  top: "inception_3a/3x3_reduce"
}
layer {
  name: "inception_3a/3x3"
  type: "Convolution"
  bottom: "inception_3a/3x3_reduce"
  top: "inception_3a/3x3"
  param {
    lr_mult: 1
    decay_mult: 1
  }
  param {
    lr_mult: 2
    decay_mult: 0
  }
  convolution_param {
    num_output: 128
    pad: 1
    kernel_size: 3
    weight_filler {
      type: "xavier"
      std: 0.03
    }
    bias_filler {
      type: "constant"
      value: 0.2
    }
  }
}
layer {
  name: "inception_3a/relu_3x3"
  type: "ReLU"
  bottom: "inception_3a/3x3"
  top: "inception_3a/3x3"
}
layer {
  name: "inception_3a/5x5_reduce"
  type: "Convolution"
  bottom: "pool2/3x3_s2"
  top: "inception_3a/5x5_reduce"
  param {
    lr_mult: 1
    decay_mult: 1
  }
  param {
    lr_mult: 2
    decay_mult: 0
  }
  convolution_param {
    num_output: 16
    kernel_size: 1
    weight_filler {
      type: "xavier"
      std: 0.2
    }
    bias_filler {
      type: "constant"
      value: 0.2
    }
  }
}
layer {
  name: "inception_3a/relu_5x5_reduce"
  type: "ReLU"
  bottom: "inception_3a/5x5_reduce"
  top: "inception_3a/5x5_reduce"
}
layer {
  name: "inception_3a/5x5"
  type: "Convolution"
  bottom: "inception_3a/5x5_reduce"
  top: "inception_3a/5x5"
  param {
    lr_mult: 1
    decay_mult: 1
  }
  param {
    lr_mult: 2
    decay_mult: 0
  }
  convolution_param {
    num_output: 32
    pad: 2
    kernel_size: 5
    weight_filler {
      type: "xavier"
      std: 0.03
    }
    bias_filler {
      type: "constant"
      value: 0.2
    }
  }
}
layer {
  name: "inception_3a/relu_5x5"
  type: "ReLU"
  bottom: "inception_3a/5x5"
  top: "inception_3a/5x5"
}
layer {
  name: "inception_3a/pool"
  type: "Pooling"
  bottom: "pool2/3x3_s2"
  top: "inception_3a/pool"
  pooling_param {
    pool: MAX
    kernel_size: 3
    stride: 1
    pad: 1
  }
}
layer {
  name: "inception_3a/pool_proj"
  type: "Convolution"
  bottom: "inception_3a/pool"
  top: "inception_3a/pool_proj"
  param {
    lr_mult: 1
    decay_mult: 1
  }
  param {
    lr_mult: 2
    decay_mult: 0
  }
  convolution_param {
    num_output: 32
    kernel_size: 1
    weight_filler {
      type: "xavier"
      std: 0.1
    }
    bias_filler {
      type: "constant"
      value: 0.2
    }
  }
}
layer {
  name: "inception_3a/relu_pool_proj"
  type: "ReLU"
  bottom: "inception_3a/pool_proj"
  top: "inception_3a/pool_proj"
}
layer {
  name: "inception_3a/output"
  type: "Concat"
  bottom: "inception_3a/1x1"
  bottom: "inception_3a/3x3"
  bottom: "inception_3a/5x5"
  bottom: "inception_3a/pool_proj"
  top: "inception_3a/output"
}
layer {
  name: "inception_3b/1x1"
  type: "Convolution"
  bottom: "inception_3a/output"
  top: "inception_3b/1x1"
  param {
    lr_mult: 1
    decay_mult: 1
  }
  param {
    lr_mult: 2
    decay_mult: 0
  }
  convolution_param {
    num_output: 128
    kernel_size: 1
    weight_filler {
      type: "xavier"
      std: 0.03
    }
    bias_filler {
      type: "constant"
      value: 0.2
    }
  }
}
layer {
  name: "inception_3b/relu_1x1"
  type: "ReLU"
  bottom: "inception_3b/1x1"
  top: "inception_3b/1x1"
}
layer {
  name: "inception_3b/3x3_reduce"
  type: "Convolution"
  bottom: "inception_3a/output"
  top: "inception_3b/3x3_reduce"
  param {
    lr_mult: 1
    decay_mult: 1
  }
  param {
    lr_mult: 2
    decay_mult: 0
  }
  convolution_param {
    num_output: 128
    kernel_size: 1
    weight_filler {
      type: "xavier"
      std: 0.09
    }
    bias_filler {
      type: "constant"
      value: 0.2
    }
  }
}
layer {
  name: "inception_3b/relu_3x3_reduce"
  type: "ReLU"
  bottom: "inception_3b/3x3_reduce"
  top: "inception_3b/3x3_reduce"
}
layer {
  name: "inception_3b/3x3"
  type: "Convolution"
  bottom: "inception_3b/3x3_reduce"
  top: "inception_3b/3x3"
  param {
    lr_mult: 1
    decay_mult: 1
  }
  param {
    lr_mult: 2
    decay_mult: 0
  }
  convolution_param {
    num_output: 192
    pad: 1
    kernel_size: 3
    weight_filler {
      type: "xavier"
      std: 0.03
    }
    bias_filler {
      type: "constant"
      value: 0.2
    }
  }
}
layer {
  name: "inception_3b/relu_3x3"
  type: "ReLU"
  bottom: "inception_3b/3x3"
  top: "inception_3b/3x3"
}
layer {
  name: "inception_3b/5x5_reduce"
  type: "Convolution"
  bottom: "inception_3a/output"
  top: "inception_3b/5x5_reduce"
  param {
    lr_mult: 1
    decay_mult: 1
  }
  param {
    lr_mult: 2
    decay_mult: 0
  }
  convolution_param {
    num_output: 32
    kernel_size: 1
    weight_filler {
      type: "xavier"
      std: 0.2
    }
    bias_filler {
      type: "constant"
      value: 0.2
    }
  }
}
layer {
  name: "inception_3b/relu_5x5_reduce"
  type: "ReLU"
  bottom: "inception_3b/5x5_reduce"
  top: "inception_3b/5x5_reduce"
}
layer {
  name: "inception_3b/5x5"
  type: "Convolution"
  bottom: "inception_3b/5x5_reduce"
  top: "inception_3b/5x5"
  param {
    lr_mult: 1
    decay_mult: 1
  }
  param {
    lr_mult: 2
    decay_mult: 0
  }
  convolution_param {
    num_output: 96
    pad: 2
    kernel_size: 5
    weight_filler {
      type: "xavier"
      std: 0.03
    }
    bias_filler {
      type: "constant"
      value: 0.2
    }
  }
}
layer {
  name: "inception_3b/relu_5x5"
  type: "ReLU"
  bottom: "inception_3b/5x5"
  top: "inception_3b/5x5"
}
layer {
  name: "inception_3b/pool"
  type: "Pooling"
  bottom: "inception_3a/output"
  top: "inception_3b/pool"
  pooling_param {
    pool: MAX
    kernel_size: 3
    stride: 1
    pad: 1
  }
}
layer {
  name: "inception_3b/pool_proj"
  type: "Convolution"
  bottom: "inception_3b/pool"
  top: "inception_3b/pool_proj"
  param {
    lr_mult: 1
    decay_mult: 1
  }
  param {
    lr_mult: 2
    decay_mult: 0
  }
  convolution_param {
    num_output: 64
    kernel_size: 1
    weight_filler {
      type: "xavier"
      std: 0.1
    }
    bias_filler {
      type: "constant"
      value: 0.2
    }
  }
}
layer {
  name: "inception_3b/relu_pool_proj"
  type: "ReLU"
  bottom: "inception_3b/pool_proj"
  top: "inception_3b/pool_proj"
}
layer {
  name: "inception_3b/output"
  type: "Concat"
  bottom: "inception_3b/1x1"
  bottom: "inception_3b/3x3"
  bottom: "inception_3b/5x5"
  bottom: "inception_3b/pool_proj"
  top: "inception_3b/output"
}
layer {
  name: "pool3/3x3_s2"
  type: "Pooling"
  bottom: "inception_3b/output"
  top: "pool3/3x3_s2"
  pooling_param {
    pool: MAX
    kernel_size: 3
    stride: 2
  }
}
layer {
  name: "inception_4a/1x1"
  type: "Convolution"
  bottom: "pool3/3x3_s2"
  top: "inception_4a/1x1"
  param {
    lr_mult: 1
    decay_mult: 1
  }
  param {
    lr_mult: 2
    decay_mult: 0
  }
  convolution_param {
    num_output: 192
    kernel_size: 1
    weight_filler {
      type: "xavier"
      std: 0.03
    }
    bias_filler {
      type: "constant"
      value: 0.2
    }
  }
}
layer {
  name: "inception_4a/relu_1x1"
  type: "ReLU"
  bottom: "inception_4a/1x1"
  top: "inception_4a/1x1"
}
layer {
  name: "inception_4a/3x3_reduce"
  type: "Convolution"
  bottom: "pool3/3x3_s2"
  top: "inception_4a/3x3_reduce"
  param {
    lr_mult: 1
    decay_mult: 1
  }
  param {
    lr_mult: 2
    decay_mult: 0
  }
  convolution_param {
    num_output: 96
    kernel_size: 1
    weight_filler {
      type: "xavier"
      std: 0.09
    }
    bias_filler {
      type: "constant"
      value: 0.2
    }
  }
}
layer {
  name: "inception_4a/relu_3x3_reduce"
  type: "ReLU"
  bottom: "inception_4a/3x3_reduce"
  top: "inception_4a/3x3_reduce"
}
layer {
  name: "inception_4a/3x3"
  type: "Convolution"
  bottom: "inception_4a/3x3_reduce"
  top: "inception_4a/3x3"
  param {
    lr_mult: 1
    decay_mult: 1
  }
  param {
    lr_mult: 2
    decay_mult: 0
  }
  convolution_param {
    num_output: 208
    pad: 1
    kernel_size: 3
    weight_filler {
      type: "xavier"
      std: 0.03
    }
    bias_filler {
      type: "constant"
      value: 0.2
    }
  }
}
layer {
  name: "inception_4a/relu_3x3"
  type: "ReLU"
  bottom: "inception_4a/3x3"
  top: "inception_4a/3x3"
}
layer {
  name: "inception_4a/5x5_reduce"
  type: "Convolution"
  bottom: "pool3/3x3_s2"
  top: "inception_4a/5x5_reduce"
  param {
    lr_mult: 1
    decay_mult: 1
  }
  param {
    lr_mult: 2
    decay_mult: 0
  }
  convolution_param {
    num_output: 16
    kernel_size: 1
    weight_filler {
      type: "xavier"
      std: 0.2
    }
    bias_filler {
      type: "constant"
      value: 0.2
    }
  }
}
layer {
  name: "inception_4a/relu_5x5_reduce"
  type: "ReLU"
  bottom: "inception_4a/5x5_reduce"
  top: "inception_4a/5x5_reduce"
}
layer {
  name: "inception_4a/5x5"
  type: "Convolution"
  bottom: "inception_4a/5x5_reduce"
  top: "inception_4a/5x5"
  param {
    lr_mult: 1
    decay_mult: 1
  }
  param {
    lr_mult: 2
    decay_mult: 0
  }
  convolution_param {
    num_output: 48
    pad: 2
    kernel_size: 5
    weight_filler {
      type: "xavier"
      std: 0.03
    }
    bias_filler {
      type: "constant"
      value: 0.2
    }
  }
}
layer {
  name: "inception_4a/relu_5x5"
  type: "ReLU"
  bottom: "inception_4a/5x5"
  top: "inception_4a/5x5"
}
layer {
  name: "inception_4a/pool"
  type: "Pooling"
  bottom: "pool3/3x3_s2"
  top: "inception_4a/pool"
  pooling_param {
    pool: MAX
    kernel_size: 3
    stride: 1
    pad: 1
  }
}
layer {
  name: "inception_4a/pool_proj"
  type: "Convolution"
  bottom: "inception_4a/pool"
  top: "inception_4a/pool_proj"
  param {
    lr_mult: 1
    decay_mult: 1
  }
  param {
    lr_mult: 2
    decay_mult: 0
  }
  convolution_param {
    num_output: 64
    kernel_size: 1
    weight_filler {
      type: "xavier"
      std: 0.1
    }
    bias_filler {
      type: "constant"
      value: 0.2
    }
  }
}
layer {
  name: "inception_4a/relu_pool_proj"
  type: "ReLU"
  bottom: "inception_4a/pool_proj"
  top: "inception_4a/pool_proj"
}
layer {
  name: "inception_4a/output"
  type: "Concat"
  bottom: "inception_4a/1x1"
  bottom: "inception_4a/3x3"
  bottom: "inception_4a/5x5"
  bottom: "inception_4a/pool_proj"
  top: "inception_4a/output"
}
layer {
  name: "inception_4b/1x1"
  type: "Convolution"
  bottom: "inception_4a/output"
  top: "inception_4b/1x1"
  param {
    lr_mult: 1
    decay_mult: 1
  }
  param {
    lr_mult: 2
    decay_mult: 0
  }
  convolution_param {
    num_output: 160
    kernel_size: 1
    weight_filler {
      type: "xavier"
      std: 0.03
    }
    bias_filler {
      type: "constant"
      value: 0.2
    }
  }
}
layer {
  name: "inception_4b/relu_1x1"
  type: "ReLU"
  bottom: "inception_4b/1x1"
  top: "inception_4b/1x1"
}
layer {
  name: "inception_4b/3x3_reduce"
  type: "Convolution"
  bottom: "inception_4a/output"
  top: "inception_4b/3x3_reduce"
  param {
    lr_mult: 1
    decay_mult: 1
  }
  param {
    lr_mult: 2
    decay_mult: 0
  }
  convolution_param {
    num_output: 112
    kernel_size: 1
    weight_filler {
      type: "xavier"
      std: 0.09
    }
    bias_filler {
      type: "constant"
      value: 0.2
    }
  }
}
layer {
  name: "inception_4b/relu_3x3_reduce"
  type: "ReLU"
  bottom: "inception_4b/3x3_reduce"
  top: "inception_4b/3x3_reduce"
}
layer {
  name: "inception_4b/3x3"
  type: "Convolution"
  bottom: "inception_4b/3x3_reduce"
  top: "inception_4b/3x3"
  param {
    lr_mult: 1
    decay_mult: 1
  }
  param {
    lr_mult: 2
    decay_mult: 0
  }
  convolution_param {
    num_output: 224
    pad: 1
    kernel_size: 3
    weight_filler {
      type: "xavier"
      std: 0.03
    }
    bias_filler {
      type: "constant"
      value: 0.2
    }
  }
}
layer {
  name: "inception_4b/relu_3x3"
  type: "ReLU"
  bottom: "inception_4b/3x3"
  top: "inception_4b/3x3"
}
layer {
  name: "inception_4b/5x5_reduce"
  type: "Convolution"
  bottom: "inception_4a/output"
  top: "inception_4b/5x5_reduce"
  param {
    lr_mult: 1
    decay_mult: 1
  }
  param {
    lr_mult: 2
    decay_mult: 0
  }
  convolution_param {
    num_output: 24
    kernel_size: 1
    weight_filler {
      type: "xavier"
      std: 0.2
    }
    bias_filler {
      type: "constant"
      value: 0.2
    }
  }
}
layer {
  name: "inception_4b/relu_5x5_reduce"
  type: "ReLU"
  bottom: "inception_4b/5x5_reduce"
  top: "inception_4b/5x5_reduce"
}
layer {
  name: "inception_4b/5x5"
  type: "Convolution"
  bottom: "inception_4b/5x5_reduce"
  top: "inception_4b/5x5"
  param {
    lr_mult: 1
    decay_mult: 1
  }
  param {
    lr_mult: 2
    decay_mult: 0
  }
  convolution_param {
    num_output: 64
    pad: 2
    kernel_size: 5
    weight_filler {
      type: "xavier"
      std: 0.03
    }
    bias_filler {
      type: "constant"
      value: 0.2
    }
  }
}
layer {
  name: "inception_4b/relu_5x5"
  type: "ReLU"
  bottom: "inception_4b/5x5"
  top: "inception_4b/5x5"
}
layer {
  name: "inception_4b/pool"
  type: "Pooling"
  bottom: "inception_4a/output"
  top: "inception_4b/pool"
  pooling_param {
    pool: MAX
    kernel_size: 3
    stride: 1
    pad: 1
  }
}
layer {
  name: "inception_4b/pool_proj"
  type: "Convolution"
  bottom: "inception_4b/pool"
  top: "inception_4b/pool_proj"
  param {
    lr_mult: 1
    decay_mult: 1
  }
  param {
    lr_mult: 2
    decay_mult: 0
  }
  convolution_param {
    num_output: 64
    kernel_size: 1
    weight_filler {
      type: "xavier"
      std: 0.1
    }
    bias_filler {
      type: "constant"
      value: 0.2
    }
  }
}
layer {
  name: "inception_4b/relu_pool_proj"
  type: "ReLU"
  bottom: "inception_4b/pool_proj"
  top: "inception_4b/pool_proj"
}
layer {
  name: "inception_4b/output"
  type: "Concat"
  bottom: "inception_4b/1x1"
  bottom: "inception_4b/3x3"
  bottom: "inception_4b/5x5"
  bottom: "inception_4b/pool_proj"
  top: "inception_4b/output"
}
layer {
  name: "inception_4c/1x1"
  type: "Convolution"
  bottom: "inception_4b/output"
  top: "inception_4c/1x1"
  param {
    lr_mult: 1
    decay_mult: 1
  }
  param {
    lr_mult: 2
    decay_mult: 0
  }
  convolution_param {
    num_output: 128
    kernel_size: 1
    weight_filler {
      type: "xavier"
      std: 0.03
    }
    bias_filler {
      type: "constant"
      value: 0.2
    }
  }
}
layer {
  name: "inception_4c/relu_1x1"
  type: "ReLU"
  bottom: "inception_4c/1x1"
  top: "inception_4c/1x1"
}
layer {
  name: "inception_4c/3x3_reduce"
  type: "Convolution"
  bottom: "inception_4b/output"
  top: "inception_4c/3x3_reduce"
  param {
    lr_mult: 1
    decay_mult: 1
  }
  param {
    lr_mult: 2
    decay_mult: 0
  }
  convolution_param {
    num_output: 128
    kernel_size: 1
    weight_filler {
      type: "xavier"
      std: 0.09
    }
    bias_filler {
      type: "constant"
      value: 0.2
    }
  }
}
layer {
  name: "inception_4c/relu_3x3_reduce"
  type: "ReLU"
  bottom: "inception_4c/3x3_reduce"
  top: "inception_4c/3x3_reduce"
}
layer {
  name: "inception_4c/3x3"
  type: "Convolution"
  bottom: "inception_4c/3x3_reduce"
  top: "inception_4c/3x3"
  param {
    lr_mult: 1
    decay_mult: 1
  }
  param {
    lr_mult: 2
    decay_mult: 0
  }
  convolution_param {
    num_output: 256
    pad: 1
    kernel_size: 3
    weight_filler {
      type: "xavier"
      std: 0.03
    }
    bias_filler {
      type: "constant"
      value: 0.2
    }
  }
}
layer {
  name: "inception_4c/relu_3x3"
  type: "ReLU"
  bottom: "inception_4c/3x3"
  top: "inception_4c/3x3"
}
layer {
  name: "inception_4c/5x5_reduce"
  type: "Convolution"
  bottom: "inception_4b/output"
  top: "inception_4c/5x5_reduce"
  param {
    lr_mult: 1
    decay_mult: 1
  }
  param {
    lr_mult: 2
    decay_mult: 0
  }
  convolution_param {
    num_output: 24
    kernel_size: 1
    weight_filler {
      type: "xavier"
      std: 0.2
    }
    bias_filler {
      type: "constant"
      value: 0.2
    }
  }
}
layer {
  name: "inception_4c/relu_5x5_reduce"
  type: "ReLU"
  bottom: "inception_4c/5x5_reduce"
  top: "inception_4c/5x5_reduce"
}
layer {
  name: "inception_4c/5x5"
  type: "Convolution"
  bottom: "inception_4c/5x5_reduce"
  top: "inception_4c/5x5"
  param {
    lr_mult: 1
    decay_mult: 1
  }
  param {
    lr_mult: 2
    decay_mult: 0
  }
  convolution_param {
    num_output: 64
    pad: 2
    kernel_size: 5
    weight_filler {
      type: "xavier"
      std: 0.03
    }
    bias_filler {
      type: "constant"
      value: 0.2
    }
  }
}
layer {
  name: "inception_4c/relu_5x5"
  type: "ReLU"
  bottom: "inception_4c/5x5"
  top: "inception_4c/5x5"
}
layer {
  name: "inception_4c/pool"
  type: "Pooling"
  bottom: "inception_4b/output"
  top: "inception_4c/pool"
  pooling_param {
    pool: MAX
    kernel_size: 3
    stride: 1
    pad: 1
  }
}
layer {
  name: "inception_4c/pool_proj"
  type: "Convolution"
  bottom: "inception_4c/pool"
  top: "inception_4c/pool_proj"
  param {
    lr_mult: 1
    decay_mult: 1
  }
  param {
    lr_mult: 2
    decay_mult: 0
  }
  convolution_param {
    num_output: 64
    kernel_size: 1
    weight_filler {
      type: "xavier"
      std: 0.1
    }
    bias_filler {
      type: "constant"
      value: 0.2
    }
  }
}
layer {
  name: "inception_4c/relu_pool_proj"
  type: "ReLU"
  bottom: "inception_4c/pool_proj"
  top: "inception_4c/pool_proj"
}
layer {
  name: "inception_4c/output"
  type: "Concat"
  bottom: "inception_4c/1x1"
  bottom: "inception_4c/3x3"
  bottom: "inception_4c/5x5"
  bottom: "inception_4c/pool_proj"
  top: "inception_4c/output"
}
layer {
  name: "inception_4d/1x1"
  type: "Convolution"
  bottom: "inception_4c/output"
  top: "inception_4d/1x1"
  param {
    lr_mult: 1
    decay_mult: 1
  }
  param {
    lr_mult: 2
    decay_mult: 0
  }
  convolution_param {
    num_output: 112
    kernel_size: 1
    weight_filler {
      type: "xavier"
      std: 0.03
    }
    bias_filler {
      type: "constant"
      value: 0.2
    }
  }
}
layer {
  name: "inception_4d/relu_1x1"
  type: "ReLU"
  bottom: "inception_4d/1x1"
  top: "inception_4d/1x1"
}
layer {
  name: "inception_4d/3x3_reduce"
  type: "Convolution"
  bottom: "inception_4c/output"
  top: "inception_4d/3x3_reduce"
  param {
    lr_mult: 1
    decay_mult: 1
  }
  param {
    lr_mult: 2
    decay_mult: 0
  }
  convolution_param {
    num_output: 144
    kernel_size: 1
    weight_filler {
      type: "xavier"
      std: 0.09
    }
    bias_filler {
      type: "constant"
      value: 0.2
    }
  }
}
layer {
  name: "inception_4d/relu_3x3_reduce"
  type: "ReLU"
  bottom: "inception_4d/3x3_reduce"
  top: "inception_4d/3x3_reduce"
}
layer {
  name: "inception_4d/3x3"
  type: "Convolution"
  bottom: "inception_4d/3x3_reduce"
  top: "inception_4d/3x3"
  param {
    lr_mult: 1
    decay_mult: 1
  }
  param {
    lr_mult: 2
    decay_mult: 0
  }
  convolution_param {
    num_output: 288
    pad: 1
    kernel_size: 3
    weight_filler {
      type: "xavier"
      std: 0.03
    }
    bias_filler {
      type: "constant"
      value: 0.2
    }
  }
}
layer {
  name: "inception_4d/relu_3x3"
  type: "ReLU"
  bottom: "inception_4d/3x3"
  top: "inception_4d/3x3"
}
layer {
  name: "inception_4d/5x5_reduce"
  type: "Convolution"
  bottom: "inception_4c/output"
  top: "inception_4d/5x5_reduce"
  param {
    lr_mult: 1
    decay_mult: 1
  }
  param {
    lr_mult: 2
    decay_mult: 0
  }
  convolution_param {
    num_output: 32
    kernel_size: 1
    weight_filler {
      type: "xavier"
      std: 0.2
    }
    bias_filler {
      type: "constant"
      value: 0.2
    }
  }
}
layer {
  name: "inception_4d/relu_5x5_reduce"
  type: "ReLU"
  bottom: "inception_4d/5x5_reduce"
  top: "inception_4d/5x5_reduce"
}
layer {
  name: "inception_4d/5x5"
  type: "Convolution"
  bottom: "inception_4d/5x5_reduce"
  top: "inception_4d/5x5"
  param {
    lr_mult: 1
    decay_mult: 1
  }
  param {
    lr_mult: 2
    decay_mult: 0
  }
  convolution_param {
    num_output: 64
    pad: 2
    kernel_size: 5
    weight_filler {
      type: "xavier"
      std: 0.03
    }
    bias_filler {
      type: "constant"
      value: 0.2
    }
  }
}
layer {
  name: "inception_4d/relu_5x5"
  type: "ReLU"
  bottom: "inception_4d/5x5"
  top: "inception_4d/5x5"
}
layer {
  name: "inception_4d/pool"
  type: "Pooling"
  bottom: "inception_4c/output"
  top: "inception_4d/pool"
  pooling_param {
    pool: MAX
    kernel_size: 3
    stride: 1
    pad: 1
  }
}
layer {
  name: "inception_4d/pool_proj"
  type: "Convolution"
  bottom: "inception_4d/pool"
  top: "inception_4d/pool_proj"
  param {
    lr_mult: 1
    decay_mult: 1
  }
  param {
    lr_mult: 2
    decay_mult: 0
  }
  convolution_param {
    num_output: 64
    kernel_size: 1
    weight_filler {
      type: "xavier"
      std: 0.1
    }
    bias_filler {
      type: "constant"
      value: 0.2
    }
  }
}
layer {
  name: "inception_4d/relu_pool_proj"
  type: "ReLU"
  bottom: "inception_4d/pool_proj"
  top: "inception_4d/pool_proj"
}
layer {
  name: "inception_4d/output"
  type: "Concat"
  bottom: "inception_4d/1x1"
  bottom: "inception_4d/3x3"
  bottom: "inception_4d/5x5"
  bottom: "inception_4d/pool_proj"
  top: "inception_4d/output"
}
layer {
  name: "inception_4e/1x1"
  type: "Convolution"
  bottom: "inception_4d/output"
  top: "inception_4e/1x1"
  param {
    lr_mult: 1
    decay_mult: 1
  }
  param {
    lr_mult: 2
    decay_mult: 0
  }
  convolution_param {
    num_output: 256
    kernel_size: 1
    weight_filler {
      type: "xavier"
      std: 0.03
    }
    bias_filler {
      type: "constant"
      value: 0.2
    }
  }
}
layer {
  name: "inception_4e/relu_1x1"
  type: "ReLU"
  bottom: "inception_4e/1x1"
  top: "inception_4e/1x1"
}
layer {
  name: "inception_4e/3x3_reduce"
  type: "Convolution"
  bottom: "inception_4d/output"
  top: "inception_4e/3x3_reduce"
  param {
    lr_mult: 1
    decay_mult: 1
  }
  param {
    lr_mult: 2
    decay_mult: 0
  }
  convolution_param {
    num_output: 160
    kernel_size: 1
    weight_filler {
      type: "xavier"
      std: 0.09
    }
    bias_filler {
      type: "constant"
      value: 0.2
    }
  }
}
layer {
  name: "inception_4e/relu_3x3_reduce"
  type: "ReLU"
  bottom: "inception_4e/3x3_reduce"
  top: "inception_4e/3x3_reduce"
}
layer {
  name: "inception_4e/3x3"
  type: "Convolution"
  bottom: "inception_4e/3x3_reduce"
  top: "inception_4e/3x3"
  param {
    lr_mult: 1
    decay_mult: 1
  }
  param {
    lr_mult: 2
    decay_mult: 0
  }
  convolution_param {
    num_output: 320
    pad: 1
    kernel_size: 3
    weight_filler {
      type: "xavier"
      std: 0.03
    }
    bias_filler {
      type: "constant"
      value: 0.2
    }
  }
}
layer {
  name: "inception_4e/relu_3x3"
  type: "ReLU"
  bottom: "inception_4e/3x3"
  top: "inception_4e/3x3"
}
layer {
  name: "inception_4e/5x5_reduce"
  type: "Convolution"
  bottom: "inception_4d/output"
  top: "inception_4e/5x5_reduce"
  param {
    lr_mult: 1
    decay_mult: 1
  }
  param {
    lr_mult: 2
    decay_mult: 0
  }
  convolution_param {
    num_output: 32
    kernel_size: 1
    weight_filler {
      type: "xavier"
      std: 0.2
    }
    bias_filler {
      type: "constant"
      value: 0.2
    }
  }
}
layer {
  name: "inception_4e/relu_5x5_reduce"
  type: "ReLU"
  bottom: "inception_4e/5x5_reduce"
  top: "inception_4e/5x5_reduce"
}
layer {
  name: "inception_4e/5x5"
  type: "Convolution"
  bottom: "inception_4e/5x5_reduce"
  top: "inception_4e/5x5"
  param {
    lr_mult: 1
    decay_mult: 1
  }
  param {
    lr_mult: 2
    decay_mult: 0
  }
  convolution_param {
    num_output: 128
    pad: 2
    kernel_size: 5
    weight_filler {
      type: "xavier"
      std: 0.03
    }
    bias_filler {
      type: "constant"
      value: 0.2
    }
  }
}
layer {
  name: "inception_4e/relu_5x5"
  type: "ReLU"
  bottom: "inception_4e/5x5"
  top: "inception_4e/5x5"
}
layer {
  name: "inception_4e/pool"
  type: "Pooling"
  bottom: "inception_4d/output"
  top: "inception_4e/pool"
  pooling_param {
    pool: MAX
    kernel_size: 3
    stride: 1
    pad: 1
  }
}
layer {
  name: "inception_4e/pool_proj"
  type: "Convolution"
  bottom: "inception_4e/pool"
  top: "inception_4e/pool_proj"
  param {
    lr_mult: 1
    decay_mult: 1
  }
  param {
    lr_mult: 2
    decay_mult: 0
  }
  convolution_param {
    num_output: 128
    kernel_size: 1
    weight_filler {
      type: "xavier"
      std: 0.1
    }
    bias_filler {
      type: "constant"
      value: 0.2
    }
  }
}
layer {
  name: "inception_4e/relu_pool_proj"
  type: "ReLU"
  bottom: "inception_4e/pool_proj"
  top: "inception_4e/pool_proj"
}
layer {
  name: "inception_4e/output"
  type: "Concat"
  bottom: "inception_4e/1x1"
  bottom: "inception_4e/3x3"
  bottom: "inception_4e/5x5"
  bottom: "inception_4e/pool_proj"
  top: "inception_4e/output"
}
layer {
  name: "pool4/3x3_s2"
  type: "Pooling"
  bottom: "inception_4e/output"
  top: "pool4/3x3_s2"
  pooling_param {
    pool: MAX
    kernel_size: 3
    stride: 2
  }
}
layer {
  name: "inception_5a/1x1"
  type: "Convolution"
  bottom: "pool4/3x3_s2"
  top: "inception_5a/1x1"
  param {
    lr_mult: 1
    decay_mult: 1
  }
  param {
    lr_mult: 2
    decay_mult: 0
  }
  convolution_param {
    num_output: 256
    kernel_size: 1
    weight_filler {
      type: "xavier"
      std: 0.03
    }
    bias_filler {
      type: "constant"
      value: 0.2
    }
  }
}
layer {
  name: "inception_5a/relu_1x1"
  type: "ReLU"
  bottom: "inception_5a/1x1"
  top: "inception_5a/1x1"
}
layer {
  name: "inception_5a/3x3_reduce"
  type: "Convolution"
  bottom: "pool4/3x3_s2"
  top: "inception_5a/3x3_reduce"
  param {
    lr_mult: 1
    decay_mult: 1
  }
  param {
    lr_mult: 2
    decay_mult: 0
  }
  convolution_param {
    num_output: 160
    kernel_size: 1
    weight_filler {
      type: "xavier"
      std: 0.09
    }
    bias_filler {
      type: "constant"
      value: 0.2
    }
  }
}
layer {
  name: "inception_5a/relu_3x3_reduce"
  type: "ReLU"
  bottom: "inception_5a/3x3_reduce"
  top: "inception_5a/3x3_reduce"
}
layer {
  name: "inception_5a/3x3"
  type: "Convolution"
  bottom: "inception_5a/3x3_reduce"
  top: "inception_5a/3x3"
  param {
    lr_mult: 1
    decay_mult: 1
  }
  param {
    lr_mult: 2
    decay_mult: 0
  }
  convolution_param {
    num_output: 320
    pad: 1
    kernel_size: 3
    weight_filler {
      type: "xavier"
      std: 0.03
    }
    bias_filler {
      type: "constant"
      value: 0.2
    }
  }
}
layer {
  name: "inception_5a/relu_3x3"
  type: "ReLU"
  bottom: "inception_5a/3x3"
  top: "inception_5a/3x3"
}
layer {
  name: "inception_5a/5x5_reduce"
  type: "Convolution"
  bottom: "pool4/3x3_s2"
  top: "inception_5a/5x5_reduce"
  param {
    lr_mult: 1
    decay_mult: 1
  }
  param {
    lr_mult: 2
    decay_mult: 0
  }
  convolution_param {
    num_output: 32
    kernel_size: 1
    weight_filler {
      type: "xavier"
      std: 0.2
    }
    bias_filler {
      type: "constant"
      value: 0.2
    }
I0707 11:35:47.766877  2294 layer_factory.hpp:77] Creating layer data
I0707 11:35:47.766906  2294 net.cpp:91] Creating Layer data
I0707 11:35:47.766916  2294 net.cpp:399] data -> data
I0707 11:35:47.770932  2290 net.cpp:49] Initializing net from parameters: 
name: "GoogleNet"
state {
  phase: TEST
}
layer {
  name: "data"
  type: "Input"
  top: "data"
  input_param {
    shape {
      dim: 10
      dim: 3
      dim: 224
      dim: 224
    }
  }
}
layer {
  name: "conv1/7x7_s2"
  type: "Convolution"
  bottom: "data"
  top: "conv1/7x7_s2"
  param {
    lr_mult: 1
    decay_mult: 1
  }
  param {
    lr_mult: 2
    decay_mult: 0
  }
  convolution_param {
    num_output: 64
    pad: 3
    kernel_size: 7
    stride: 2
    weight_filler {
      type: "xavier"
      std: 0.1
    }
    bias_filler {
      type: "constant"
      value: 0.2
    }
  }
}
layer {
  name: "conv1/relu_7x7"
  type: "ReLU"
  bottom: "conv1/7x7_s2"
  top: "conv1/7x7_s2"
}
layer {
  name: "pool1/3x3_s2"
  type: "Pooling"
  bottom: "conv1/7x7_s2"
  top: "pool1/3x3_s2"
  pooling_param {
    pool: MAX
    kernel_size: 3
    stride: 2
  }
}
layer {
  name: "pool1/norm1"
  type: "LRN"
  bottom: "pool1/3x3_s2"
  top: "pool1/norm1"
  lrn_param {
    local_size: 5
    alpha: 0.0001
    beta: 0.75
  }
}
layer {
  name: "conv2/3x3_reduce"
  type: "Convolution"
  bottom: "pool1/norm1"
  top: "conv2/3x3_reduce"
  param {
    lr_mult: 1
    decay_mult: 1
  }
  param {
    lr_mult: 2
    decay_mult: 0
  }
  convolution_param {
    num_output: 64
    kernel_size: 1
    weight_filler {
      type: "xavier"
      std: 0.1
    }
    bias_filler {
      type: "constant"
      value: 0.2
    }
  }
}
layer {
  name: "conv2/relu_3x3_reduce"
  type: "ReLU"
  bottom: "conv2/3x3_reduce"
  top: "conv2/3x3_reduce"
}
layer {
  name: "conv2/3x3"
  type: "Convolution"
  bottom: "conv2/3x3_reduce"
  top: "conv2/3x3"
  param {
    lr_mult: 1
    decay_mult: 1
  }
  param {
    lr_mult: 2
    decay_mult: 0
  }
  convolution_param {
    num_output: 192
    pad: 1
    kernel_size: 3
    weight_filler {
      type: "xavier"
      std: 0.03
    }
    bias_filler {
      type: "constant"
      value: 0.2
    }
  }
}
layer {
  name: "conv2/relu_3x3"
  type: "ReLU"
  bottom: "conv2/3x3"
  top: "conv2/3x3"
}
layer {
  name: "conv2/norm2"
  type: "LRN"
  bottom: "conv2/3x3"
  top: "conv2/norm2"
  lrn_param {
    local_size: 5
    alpha: 0.0001
    beta: 0.75
  }
}
layer {
  name: "pool2/3x3_s2"
  type: "Pooling"
  bottom: "conv2/norm2"
  top: "pool2/3x3_s2"
  pooling_param {
    pool: MAX
    kernel_size: 3
    stride: 2
  }
}
layer {
  name: "inception_3a/1x1"
  type: "Convolution"
  bottom: "pool2/3x3_s2"
  top: "inception_3a/1x1"
  param {
    lr_mult: 1
    decay_mult: 1
  }
  param {
    lr_mult: 2
    decay_mult: 0
  }
  convolution_param {
    num_output: 64
    kernel_size: 1
    weight_filler {
      type: "xavier"
      std: 0.03
    }
    bias_filler {
      type: "constant"
      value: 0.2
    }
  }
}
layer {
  name: "inception_3a/relu_1x1"
  type: "ReLU"
  bottom: "inception_3a/1x1"
  top: "inception_3a/1x1"
}
layer {
  name: "inception_3a/3x3_reduce"
  type: "Convolution"
  bottom: "pool2/3x3_s2"
  top: "inception_3a/3x3_reduce"
  param {
    lr_mult: 1
    decay_mult: 1
  }
  param {
    lr_mult: 2
    decay_mult: 0
  }
  convolution_param {
    num_output: 96
    kernel_size: 1
    weight_filler {
      type: "xavier"
      std: 0.09
    }
    bias_filler {
      type: "constant"
      value: 0.2
    }
  }
}
layer {
  name: "inception_3a/relu_3x3_reduce"
  type: "ReLU"
  bottom: "inception_3a/3x3_reduce"
  top: "inception_3a/3x3_reduce"
}
layer {
  name: "inception_3a/3x3"
  type: "Convolution"
  bottom: "inception_3a/3x3_reduce"
  top: "inception_3a/3x3"
  param {
    lr_mult: 1
    decay_mult: 1
  }
  param {
    lr_mult: 2
    decay_mult: 0
  }
  convolution_param {
    num_output: 128
    pad: 1
    kernel_size: 3
    weight_filler {
      type: "xavier"
      std: 0.03
    }
    bias_filler {
      type: "constant"
      value: 0.2
    }
  }
}
layer {
  name: "inception_3a/relu_3x3"
  type: "ReLU"
  bottom: "inception_3a/3x3"
  top: "inception_3a/3x3"
}
layer {
  name: "inception_3a/5x5_reduce"
  type: "Convolution"
  bottom: "pool2/3x3_s2"
  top: "inception_3a/5x5_reduce"
  param {
    lr_mult: 1
    decay_mult: 1
  }
  param {
    lr_mult: 2
    decay_mult: 0
  }
  convolution_param {
    num_output: 16
    kernel_size: 1
    weight_filler {
      type: "xavier"
      std: 0.2
    }
    bias_filler {
      type: "constant"
      value: 0.2
    }
  }
}
layer {
  name: "inception_3a/relu_5x5_reduce"
  type: "ReLU"
  bottom: "inception_3a/5x5_reduce"
  top: "inception_3a/5x5_reduce"
}
layer {
  name: "inception_3a/5x5"
  type: "Convolution"
  bottom: "inception_3a/5x5_reduce"
  top: "inception_3a/5x5"
  param {
    lr_mult: 1
    decay_mult: 1
  }
  param {
    lr_mult: 2
    decay_mult: 0
  }
  convolution_param {
    num_output: 32
    pad: 2
    kernel_size: 5
    weight_filler {
      type: "xavier"
      std: 0.03
    }
    bias_filler {
      type: "constant"
      value: 0.2
    }
  }
}
layer {
  name: "inception_3a/relu_5x5"
  type: "ReLU"
  bottom: "inception_3a/5x5"
  top: "inception_3a/5x5"
}
layer {
  name: "inception_3a/pool"
  type: "Pooling"
  bottom: "pool2/3x3_s2"
  top: "inception_3a/pool"
  pooling_param {
    pool: MAX
    kernel_size: 3
    stride: 1
    pad: 1
  }
}
layer {
  name: "inception_3a/pool_proj"
  type: "Convolution"
  bottom: "inception_3a/pool"
  top: "inception_3a/pool_proj"
  param {
    lr_mult: 1
    decay_mult: 1
  }
  param {
    lr_mult: 2
    decay_mult: 0
  }
  convolution_param {
    num_output: 32
    kernel_size: 1
    weight_filler {
      type: "xavier"
      std: 0.1
    }
    bias_filler {
      type: "constant"
      value: 0.2
    }
  }
}
layer {
  name: "inception_3a/relu_pool_proj"
  type: "ReLU"
  bottom: "inception_3a/pool_proj"
  top: "inception_3a/pool_proj"
}
layer {
  name: "inception_3a/output"
  type: "Concat"
  bottom: "inception_3a/1x1"
  bottom: "inception_3a/3x3"
  bottom: "inception_3a/5x5"
  bottom: "inception_3a/pool_proj"
  top: "inception_3a/output"
}
layer {
  name: "inception_3b/1x1"
  type: "Convolution"
  bottom: "inception_3a/output"
  top: "inception_3b/1x1"
  param {
    lr_mult: 1
    decay_mult: 1
  }
  param {
    lr_mult: 2
    decay_mult: 0
  }
  convolution_param {
    num_output: 128
    kernel_size: 1
    weight_filler {
      type: "xavier"
      std: 0.03
    }
    bias_filler {
      type: "constant"
      value: 0.2
    }
  }
}
layer {
  name: "inception_3b/relu_1x1"
  type: "ReLU"
  bottom: "inception_3b/1x1"
  top: "inception_3b/1x1"
}
layer {
  name: "inception_3b/3x3_reduce"
  type: "Convolution"
  bottom: "inception_3a/output"
  top: "inception_3b/3x3_reduce"
  param {
    lr_mult: 1
    decay_mult: 1
  }
  param {
    lr_mult: 2
    decay_mult: 0
  }
  convolution_param {
    num_output: 128
    kernel_size: 1
    weight_filler {
      type: "xavier"
      std: 0.09
    }
    bias_filler {
      type: "constant"
      value: 0.2
    }
  }
}
layer {
  name: "inception_3b/relu_3x3_reduce"
  type: "ReLU"
  bottom: "inception_3b/3x3_reduce"
  top: "inception_3b/3x3_reduce"
}
layer {
  name: "inception_3b/3x3"
  type: "Convolution"
  bottom: "inception_3b/3x3_reduce"
  top: "inception_3b/3x3"
  param {
    lr_mult: 1
    decay_mult: 1
  }
  param {
    lr_mult: 2
    decay_mult: 0
  }
  convolution_param {
    num_output: 192
    pad: 1
    kernel_size: 3
    weight_filler {
      type: "xavier"
      std: 0.03
    }
    bias_filler {
      type: "constant"
      value: 0.2
    }
  }
}
layer {
  name: "inception_3b/relu_3x3"
  type: "ReLU"
  bottom: "inception_3b/3x3"
  top: "inception_3b/3x3"
}
layer {
  name: "inception_3b/5x5_reduce"
  type: "Convolution"
  bottom: "inception_3a/output"
  top: "inception_3b/5x5_reduce"
  param {
    lr_mult: 1
    decay_mult: 1
  }
  param {
    lr_mult: 2
    decay_mult: 0
  }
  convolution_param {
    num_output: 32
    kernel_size: 1
    weight_filler {
      type: "xavier"
      std: 0.2
    }
    bias_filler {
      type: "constant"
      value: 0.2
    }
  }
}
layer {
  name: "inception_3b/relu_5x5_reduce"
  type: "ReLU"
  bottom: "inception_3b/5x5_reduce"
  top: "inception_3b/5x5_reduce"
}
layer {
  name: "inception_3b/5x5"
  type: "Convolution"
  bottom: "inception_3b/5x5_reduce"
  top: "inception_3b/5x5"
  param {
    lr_mult: 1
    decay_mult: 1
  }
  param {
    lr_mult: 2
    decay_mult: 0
  }
  convolution_param {
    num_output: 96
    pad: 2
    kernel_size: 5
    weight_filler {
      type: "xavier"
      std: 0.03
    }
    bias_filler {
      type: "constant"
      value: 0.2
    }
  }
}
layer {
  name: "inception_3b/relu_5x5"
  type: "ReLU"
  bottom: "inception_3b/5x5"
  top: "inception_3b/5x5"
}
layer {
  name: "inception_3b/pool"
  type: "Pooling"
  bottom: "inception_3a/output"
  top: "inception_3b/pool"
  pooling_param {
    pool: MAX
    kernel_size: 3
    stride: 1
    pad: 1
  }
}
layer {
  name: "inception_3b/pool_proj"
  type: "Convolution"
  bottom: "inception_3b/pool"
  top: "inception_3b/pool_proj"
  param {
    lr_mult: 1
    decay_mult: 1
  }
  param {
    lr_mult: 2
    decay_mult: 0
  }
  convolution_param {
    num_output: 64
    kernel_size: 1
    weight_filler {
      type: "xavier"
      std: 0.1
    }
    bias_filler {
      type: "constant"
      value: 0.2
    }
  }
}
layer {
  name: "inception_3b/relu_pool_proj"
  type: "ReLU"
  bottom: "inception_3b/pool_proj"
  top: "inception_3b/pool_proj"
}
layer {
  name: "inception_3b/output"
  type: "Concat"
  bottom: "inception_3b/1x1"
  bottom: "inception_3b/3x3"
  bottom: "inception_3b/5x5"
  bottom: "inception_3b/pool_proj"
  top: "inception_3b/output"
}
layer {
  name: "pool3/3x3_s2"
  type: "Pooling"
  bottom: "inception_3b/output"
  top: "pool3/3x3_s2"
  pooling_param {
    pool: MAX
    kernel_size: 3
    stride: 2
  }
}
layer {
  name: "inception_4a/1x1"
  type: "Convolution"
  bottom: "pool3/3x3_s2"
  top: "inception_4a/1x1"
  param {
    lr_mult: 1
    decay_mult: 1
  }
  param {
    lr_mult: 2
    decay_mult: 0
  }
  convolution_param {
    num_output: 192
    kernel_size: 1
    weight_filler {
      type: "xavier"
      std: 0.03
    }
    bias_filler {
      type: "constant"
      value: 0.2
    }
  }
}
layer {
  name: "inception_4a/relu_1x1"
  type: "ReLU"
  bottom: "inception_4a/1x1"
  top: "inception_4a/1x1"
}
layer {
  name: "inception_4a/3x3_reduce"
  type: "Convolution"
  bottom: "pool3/3x3_s2"
  top: "inception_4a/3x3_reduce"
  param {
    lr_mult: 1
    decay_mult: 1
  }
  param {
    lr_mult: 2
    decay_mult: 0
  }
  convolution_param {
    num_output: 96
    kernel_size: 1
    weight_filler {
      type: "xavier"
      std: 0.09
    }
    bias_filler {
      type: "constant"
      value: 0.2
    }
  }
}
layer {
  name: "inception_4a/relu_3x3_reduce"
  type: "ReLU"
  bottom: "inception_4a/3x3_reduce"
  top: "inception_4a/3x3_reduce"
}
layer {
  name: "inception_4a/3x3"
  type: "Convolution"
  bottom: "inception_4a/3x3_reduce"
  top: "inception_4a/3x3"
  param {
    lr_mult: 1
    decay_mult: 1
  }
  param {
    lr_mult: 2
    decay_mult: 0
  }
  convolution_param {
    num_output: 208
    pad: 1
    kernel_size: 3
    weight_filler {
      type: "xavier"
      std: 0.03
    }
    bias_filler {
      type: "constant"
      value: 0.2
    }
  }
}
layer {
  name: "inception_4a/relu_3x3"
  type: "ReLU"
  bottom: "inception_4a/3x3"
  top: "inception_4a/3x3"
}
layer {
  name: "inception_4a/5x5_reduce"
  type: "Convolution"
  bottom: "pool3/3x3_s2"
  top: "inception_4a/5x5_reduce"
  param {
    lr_mult: 1
    decay_mult: 1
  }
  param {
    lr_mult: 2
    decay_mult: 0
  }
  convolution_param {
    num_output: 16
    kernel_size: 1
    weight_filler {
      type: "xavier"
      std: 0.2
    }
    bias_filler {
      type: "constant"
      value: 0.2
    }
  }
}
layer {
  name: "inception_4a/relu_5x5_reduce"
  type: "ReLU"
  bottom: "inception_4a/5x5_reduce"
  top: "inception_4a/5x5_reduce"
}
layer {
  name: "inception_4a/5x5"
  type: "Convolution"
  bottom: "inception_4a/5x5_reduce"
  top: "inception_4a/5x5"
  param {
    lr_mult: 1
    decay_mult: 1
  }
  param {
    lr_mult: 2
    decay_mult: 0
  }
  convolution_param {
    num_output: 48
    pad: 2
    kernel_size: 5
    weight_filler {
      type: "xavier"
      std: 0.03
    }
    bias_filler {
      type: "constant"
      value: 0.2
    }
  }
}
layer {
  name: "inception_4a/relu_5x5"
  type: "ReLU"
  bottom: "inception_4a/5x5"
  top: "inception_4a/5x5"
}
layer {
  name: "inception_4a/pool"
  type: "Pooling"
  bottom: "pool3/3x3_s2"
  top: "inception_4a/pool"
  pooling_param {
    pool: MAX
    kernel_size: 3
    stride: 1
    pad: 1
  }
}
layer {
  name: "inception_4a/pool_proj"
  type: "Convolution"
  bottom: "inception_4a/pool"
  top: "inception_4a/pool_proj"
  param {
    lr_mult: 1
    decay_mult: 1
  }
  param {
    lr_mult: 2
    decay_mult: 0
  }
  convolution_param {
    num_output: 64
    kernel_size: 1
    weight_filler {
      type: "xavier"
      std: 0.1
    }
    bias_filler {
      type: "constant"
      value: 0.2
    }
  }
}
layer {
  name: "inception_4a/relu_pool_proj"
  type: "ReLU"
  bottom: "inception_4a/pool_proj"
  top: "inception_4a/pool_proj"
}
layer {
  name: "inception_4a/output"
  type: "Concat"
  bottom: "inception_4a/1x1"
  bottom: "inception_4a/3x3"
  bottom: "inception_4a/5x5"
  bottom: "inception_4a/pool_proj"
  top: "inception_4a/output"
}
layer {
  name: "inception_4b/1x1"
  type: "Convolution"
  bottom: "inception_4a/output"
  top: "inception_4b/1x1"
  param {
    lr_mult: 1
    decay_mult: 1
  }
  param {
    lr_mult: 2
    decay_mult: 0
  }
  convolution_param {
    num_output: 160
    kernel_size: 1
    weight_filler {
      type: "xavier"
      std: 0.03
    }
    bias_filler {
      type: "constant"
      value: 0.2
    }
  }
}
layer {
  name: "inception_4b/relu_1x1"
  type: "ReLU"
  bottom: "inception_4b/1x1"
  top: "inception_4b/1x1"
}
layer {
  name: "inception_4b/3x3_reduce"
  type: "Convolution"
  bottom: "inception_4a/output"
  top: "inception_4b/3x3_reduce"
  param {
    lr_mult: 1
    decay_mult: 1
  }
  param {
    lr_mult: 2
    decay_mult: 0
  }
  convolution_param {
    num_output: 112
    kernel_size: 1
    weight_filler {
      type: "xavier"
      std: 0.09
    }
    bias_filler {
      type: "constant"
      value: 0.2
    }
  }
}
layer {
  name: "inception_4b/relu_3x3_reduce"
  type: "ReLU"
  bottom: "inception_4b/3x3_reduce"
  top: "inception_4b/3x3_reduce"
}
layer {
  name: "inception_4b/3x3"
  type: "Convolution"
  bottom: "inception_4b/3x3_reduce"
  top: "inception_4b/3x3"
  param {
    lr_mult: 1
    decay_mult: 1
  }
  param {
    lr_mult: 2
    decay_mult: 0
  }
  convolution_param {
    num_output: 224
    pad: 1
    kernel_size: 3
    weight_filler {
      type: "xavier"
      std: 0.03
    }
    bias_filler {
      type: "constant"
      value: 0.2
    }
  }
}
layer {
  name: "inception_4b/relu_3x3"
  type: "ReLU"
  bottom: "inception_4b/3x3"
  top: "inception_4b/3x3"
}
layer {
  name: "inception_4b/5x5_reduce"
  type: "Convolution"
  bottom: "inception_4a/output"
  top: "inception_4b/5x5_reduce"
  param {
    lr_mult: 1
    decay_mult: 1
  }
  param {
    lr_mult: 2
    decay_mult: 0
  }
  convolution_param {
    num_output: 24
    kernel_size: 1
    weight_filler {
      type: "xavier"
      std: 0.2
    }
    bias_filler {
      type: "constant"
      value: 0.2
    }
  }
}
layer {
  name: "inception_4b/relu_5x5_reduce"
  type: "ReLU"
  bottom: "inception_4b/5x5_reduce"
  top: "inception_4b/5x5_reduce"
}
layer {
  name: "inception_4b/5x5"
  type: "Convolution"
  bottom: "inception_4b/5x5_reduce"
  top: "inception_4b/5x5"
  param {
    lr_mult: 1
    decay_mult: 1
  }
  param {
    lr_mult: 2
    decay_mult: 0
  }
  convolution_param {
    num_output: 64
    pad: 2
    kernel_size: 5
    weight_filler {
      type: "xavier"
      std: 0.03
    }
    bias_filler {
      type: "constant"
      value: 0.2
    }
  }
}
layer {
  name: "inception_4b/relu_5x5"
  type: "ReLU"
  bottom: "inception_4b/5x5"
  top: "inception_4b/5x5"
}
layer {
  name: "inception_4b/pool"
  type: "Pooling"
  bottom: "inception_4a/output"
  top: "inception_4b/pool"
  pooling_param {
    pool: MAX
    kernel_size: 3
    stride: 1
    pad: 1
  }
}
layer {
  name: "inception_4b/pool_proj"
  type: "Convolution"
  bottom: "inception_4b/pool"
  top: "inception_4b/pool_proj"
  param {
    lr_mult: 1
    decay_mult: 1
  }
  param {
    lr_mult: 2
    decay_mult: 0
  }
  convolution_param {
    num_output: 64
    kernel_size: 1
    weight_filler {
      type: "xavier"
      std: 0.1
    }
    bias_filler {
      type: "constant"
      value: 0.2
    }
  }
}
layer {
  name: "inception_4b/relu_pool_proj"
  type: "ReLU"
  bottom: "inception_4b/pool_proj"
  top: "inception_4b/pool_proj"
}
layer {
  name: "inception_4b/output"
  type: "Concat"
  bottom: "inception_4b/1x1"
  bottom: "inception_4b/3x3"
  bottom: "inception_4b/5x5"
  bottom: "inception_4b/pool_proj"
  top: "inception_4b/output"
}
layer {
  name: "inception_4c/1x1"
  type: "Convolution"
  bottom: "inception_4b/output"
  top: "inception_4c/1x1"
  param {
    lr_mult: 1
    decay_mult: 1
  }
  param {
    lr_mult: 2
    decay_mult: 0
  }
  convolution_param {
    num_output: 128
    kernel_size: 1
    weight_filler {
      type: "xavier"
      std: 0.03
    }
    bias_filler {
      type: "constant"
      value: 0.2
    }
  }
}
layer {
  name: "inception_4c/relu_1x1"
  type: "ReLU"
  bottom: "inception_4c/1x1"
  top: "inception_4c/1x1"
}
layer {
  name: "inception_4c/3x3_reduce"
  type: "Convolution"
  bottom: "inception_4b/output"
  top: "inception_4c/3x3_reduce"
  param {
    lr_mult: 1
    decay_mult: 1
  }
  param {
    lr_mult: 2
    decay_mult: 0
  }
  convolution_param {
    num_output: 128
    kernel_size: 1
    weight_filler {
      type: "xavier"
      std: 0.09
    }
    bias_filler {
      type: "constant"
      value: 0.2
    }
  }
}
layer {
  name: "inception_4c/relu_3x3_reduce"
  type: "ReLU"
  bottom: "inception_4c/3x3_reduce"
  top: "inception_4c/3x3_reduce"
}
layer {
  name: "inception_4c/3x3"
  type: "Convolution"
  bottom: "inception_4c/3x3_reduce"
  top: "inception_4c/3x3"
  param {
    lr_mult: 1
    decay_mult: 1
  }
  param {
    lr_mult: 2
    decay_mult: 0
  }
  convolution_param {
    num_output: 256
    pad: 1
    kernel_size: 3
    weight_filler {
      type: "xavier"
      std: 0.03
    }
    bias_filler {
      type: "constant"
      value: 0.2
    }
  }
}
layer {
  name: "inception_4c/relu_3x3"
  type: "ReLU"
  bottom: "inception_4c/3x3"
  top: "inception_4c/3x3"
}
layer {
  name: "inception_4c/5x5_reduce"
  type: "Convolution"
  bottom: "inception_4b/output"
  top: "inception_4c/5x5_reduce"
  param {
    lr_mult: 1
    decay_mult: 1
  }
  param {
    lr_mult: 2
    decay_mult: 0
  }
  convolution_param {
    num_output: 24
    kernel_size: 1
    weight_filler {
      type: "xavier"
      std: 0.2
    }
    bias_filler {
      type: "constant"
      value: 0.2
    }
  }
}
layer {
  name: "inception_4c/relu_5x5_reduce"
  type: "ReLU"
  bottom: "inception_4c/5x5_reduce"
  top: "inception_4c/5x5_reduce"
}
layer {
  name: "inception_4c/5x5"
  type: "Convolution"
  bottom: "inception_4c/5x5_reduce"
  top: "inception_4c/5x5"
  param {
    lr_mult: 1
    decay_mult: 1
  }
  param {
    lr_mult: 2
    decay_mult: 0
  }
  convolution_param {
    num_output: 64
    pad: 2
    kernel_size: 5
    weight_filler {
      type: "xavier"
      std: 0.03
    }
    bias_filler {
      type: "constant"
      value: 0.2
    }
  }
}
layer {
  name: "inception_4c/relu_5x5"
  type: "ReLU"
  bottom: "inception_4c/5x5"
  top: "inception_4c/5x5"
}
layer {
  name: "inception_4c/pool"
  type: "Pooling"
  bottom: "inception_4b/output"
  top: "inception_4c/pool"
  pooling_param {
    pool: MAX
    kernel_size: 3
    stride: 1
    pad: 1
  }
}
layer {
  name: "inception_4c/pool_proj"
  type: "Convolution"
  bottom: "inception_4c/pool"
  top: "inception_4c/pool_proj"
  param {
    lr_mult: 1
    decay_mult: 1
  }
  param {
    lr_mult: 2
    decay_mult: 0
  }
  convolution_param {
    num_output: 64
    kernel_size: 1
    weight_filler {
      type: "xavier"
      std: 0.1
    }
    bias_filler {
      type: "constant"
      value: 0.2
    }
  }
}
layer {
  name: "inception_4c/relu_pool_proj"
  type: "ReLU"
  bottom: "inception_4c/pool_proj"
  top: "inception_4c/pool_proj"
}
layer {
  name: "inception_4c/output"
  type: "Concat"
  bottom: "inception_4c/1x1"
  bottom: "inception_4c/3x3"
  bottom: "inception_4c/5x5"
  bottom: "inception_4c/pool_proj"
  top: "inception_4c/output"
}
layer {
  name: "inception_4d/1x1"
  type: "Convolution"
  bottom: "inception_4c/output"
  top: "inception_4d/1x1"
  param {
    lr_mult: 1
    decay_mult: 1
  }
  param {
    lr_mult: 2
    decay_mult: 0
  }
  convolution_param {
    num_output: 112
    kernel_size: 1
    weight_filler {
      type: "xavier"
      std: 0.03
    }
    bias_filler {
      type: "constant"
      value: 0.2
    }
  }
}
layer {
  name: "inception_4d/relu_1x1"
  type: "ReLU"
  bottom: "inception_4d/1x1"
  top: "inception_4d/1x1"
}
layer {
  name: "inception_4d/3x3_reduce"
  type: "Convolution"
  bottom: "inception_4c/output"
  top: "inception_4d/3x3_reduce"
  param {
    lr_mult: 1
    decay_mult: 1
  }
  param {
    lr_mult: 2
    decay_mult: 0
  }
  convolution_param {
    num_output: 144
    kernel_size: 1
    weight_filler {
      type: "xavier"
      std: 0.09
    }
    bias_filler {
      type: "constant"
      value: 0.2
    }
  }
}
layer {
  name: "inception_4d/relu_3x3_reduce"
  type: "ReLU"
  bottom: "inception_4d/3x3_reduce"
  top: "inception_4d/3x3_reduce"
}
layer {
  name: "inception_4d/3x3"
  type: "Convolution"
  bottom: "inception_4d/3x3_reduce"
  top: "inception_4d/3x3"
  param {
    lr_mult: 1
    decay_mult: 1
  }
  param {
    lr_mult: 2
    decay_mult: 0
  }
  convolution_param {
    num_output: 288
    pad: 1
    kernel_size: 3
    weight_filler {
      type: "xavier"
      std: 0.03
    }
    bias_filler {
      type: "constant"
      value: 0.2
    }
  }
}
layer {
  name: "inception_4d/relu_3x3"
  type: "ReLU"
  bottom: "inception_4d/3x3"
  top: "inception_4d/3x3"
}
layer {
  name: "inception_4d/5x5_reduce"
  type: "Convolution"
  bottom: "inception_4c/output"
  top: "inception_4d/5x5_reduce"
  param {
    lr_mult: 1
    decay_mult: 1
  }
  param {
    lr_mult: 2
    decay_mult: 0
  }
  convolution_param {
    num_output: 32
    kernel_size: 1
    weight_filler {
      type: "xavier"
      std: 0.2
    }
    bias_filler {
      type: "constant"
      value: 0.2
    }
  }
}
layer {
  name: "inception_4d/relu_5x5_reduce"
  type: "ReLU"
  bottom: "inception_4d/5x5_reduce"
  top: "inception_4d/5x5_reduce"
}
layer {
  name: "inception_4d/5x5"
  type: "Convolution"
  bottom: "inception_4d/5x5_reduce"
  top: "inception_4d/5x5"
  param {
    lr_mult: 1
    decay_mult: 1
  }
  param {
    lr_mult: 2
    decay_mult: 0
  }
  convolution_param {
    num_output: 64
    pad: 2
    kernel_size: 5
    weight_filler {
      type: "xavier"
      std: 0.03
    }
    bias_filler {
      type: "constant"
      value: 0.2
    }
  }
}
layer {
  name: "inception_4d/relu_5x5"
  type: "ReLU"
  bottom: "inception_4d/5x5"
  top: "inception_4d/5x5"
}
layer {
  name: "inception_4d/pool"
  type: "Pooling"
  bottom: "inception_4c/output"
  top: "inception_4d/pool"
  pooling_param {
    pool: MAX
    kernel_size: 3
    stride: 1
    pad: 1
  }
}
layer {
  name: "inception_4d/pool_proj"
  type: "Convolution"
  bottom: "inception_4d/pool"
  top: "inception_4d/pool_proj"
  param {
    lr_mult: 1
    decay_mult: 1
  }
  param {
    lr_mult: 2
    decay_mult: 0
  }
  convolution_param {
    num_output: 64
    kernel_size: 1
    weight_filler {
      type: "xavier"
      std: 0.1
    }
    bias_filler {
      type: "constant"
      value: 0.2
    }
  }
}
layer {
  name: "inception_4d/relu_pool_proj"
  type: "ReLU"
  bottom: "inception_4d/pool_proj"
  top: "inception_4d/pool_proj"
}
layer {
  name: "inception_4d/output"
  type: "Concat"
  bottom: "inception_4d/1x1"
  bottom: "inception_4d/3x3"
  bottom: "inception_4d/5x5"
  bottom: "inception_4d/pool_proj"
  top: "inception_4d/output"
}
layer {
  name: "inception_4e/1x1"
  type: "Convolution"
  bottom: "inception_4d/output"
  top: "inception_4e/1x1"
  param {
    lr_mult: 1
    decay_mult: 1
  }
  param {
    lr_mult: 2
    decay_mult: 0
  }
  convolution_param {
    num_output: 256
    kernel_size: 1
    weight_filler {
      type: "xavier"
      std: 0.03
    }
    bias_filler {
      type: "constant"
      value: 0.2
    }
  }
}
layer {
  name: "inception_4e/relu_1x1"
  type: "ReLU"
  bottom: "inception_4e/1x1"
  top: "inception_4e/1x1"
}
layer {
  name: "inception_4e/3x3_reduce"
  type: "Convolution"
  bottom: "inception_4d/output"
  top: "inception_4e/3x3_reduce"
  param {
    lr_mult: 1
    decay_mult: 1
  }
  param {
    lr_mult: 2
    decay_mult: 0
  }
  convolution_param {
    num_output: 160
    kernel_size: 1
    weight_filler {
      type: "xavier"
      std: 0.09
    }
    bias_filler {
      type: "constant"
      value: 0.2
    }
  }
}
layer {
  name: "inception_4e/relu_3x3_reduce"
  type: "ReLU"
  bottom: "inception_4e/3x3_reduce"
  top: "inception_4e/3x3_reduce"
}
layer {
  name: "inception_4e/3x3"
  type: "Convolution"
  bottom: "inception_4e/3x3_reduce"
  top: "inception_4e/3x3"
  param {
    lr_mult: 1
    decay_mult: 1
  }
  param {
    lr_mult: 2
    decay_mult: 0
  }
  convolution_param {
    num_output: 320
    pad: 1
    kernel_size: 3
    weight_filler {
      type: "xavier"
      std: 0.03
    }
    bias_filler {
      type: "constant"
      value: 0.2
    }
  }
}
layer {
  name: "inception_4e/relu_3x3"
  type: "ReLU"
  bottom: "inception_4e/3x3"
  top: "inception_4e/3x3"
}
layer {
  name: "inception_4e/5x5_reduce"
  type: "Convolution"
  bottom: "inception_4d/output"
  top: "inception_4e/5x5_reduce"
  param {
    lr_mult: 1
    decay_mult: 1
  }
  param {
    lr_mult: 2
    decay_mult: 0
  }
  convolution_param {
    num_output: 32
    kernel_size: 1
    weight_filler {
      type: "xavier"
      std: 0.2
    }
    bias_filler {
      type: "constant"
      value: 0.2
    }
  }
}
layer {
  name: "inception_4e/relu_5x5_reduce"
  type: "ReLU"
  bottom: "inception_4e/5x5_reduce"
  top: "inception_4e/5x5_reduce"
}
layer {
  name: "inception_4e/5x5"
  type: "Convolution"
  bottom: "inception_4e/5x5_reduce"
  top: "inception_4e/5x5"
  param {
    lr_mult: 1
    decay_mult: 1
  }
  param {
    lr_mult: 2
    decay_mult: 0
  }
  convolution_param {
    num_output: 128
    pad: 2
    kernel_size: 5
    weight_filler {
      type: "xavier"
      std: 0.03
    }
    bias_filler {
      type: "constant"
      value: 0.2
    }
  }
}
layer {
  name: "inception_4e/relu_5x5"
  type: "ReLU"
  bottom: "inception_4e/5x5"
  top: "inception_4e/5x5"
}
layer {
  name: "inception_4e/pool"
  type: "Pooling"
  bottom: "inception_4d/output"
  top: "inception_4e/pool"
  pooling_param {
    pool: MAX
    kernel_size: 3
    stride: 1
    pad: 1
  }
}
layer {
  name: "inception_4e/pool_proj"
  type: "Convolution"
  bottom: "inception_4e/pool"
  top: "inception_4e/pool_proj"
  param {
    lr_mult: 1
    decay_mult: 1
  }
  param {
    lr_mult: 2
    decay_mult: 0
  }
  convolution_param {
    num_output: 128
    kernel_size: 1
    weight_filler {
      type: "xavier"
      std: 0.1
    }
    bias_filler {
      type: "constant"
      value: 0.2
    }
  }
}
layer {
  name: "inception_4e/relu_pool_proj"
  type: "ReLU"
  bottom: "inception_4e/pool_proj"
  top: "inception_4e/pool_proj"
}
layer {
  name: "inception_4e/output"
  type: "Concat"
  bottom: "inception_4e/1x1"
  bottom: "inception_4e/3x3"
  bottom: "inception_4e/5x5"
  bottom: "inception_4e/pool_proj"
  top: "inception_4e/output"
}
layer {
  name: "pool4/3x3_s2"
  type: "Pooling"
  bottom: "inception_4e/output"
  top: "pool4/3x3_s2"
  pooling_param {
    pool: MAX
    kernel_size: 3
    stride: 2
  }
}
layer {
  name: "inception_5a/1x1"
  type: "Convolution"
  bottom: "pool4/3x3_s2"
  top: "inception_5a/1x1"
  param {
    lr_mult: 1
    decay_mult: 1
  }
  param {
    lr_mult: 2
    decay_mult: 0
  }
  convolution_param {
    num_output: 256
    kernel_size: 1
    weight_filler {
      type: "xavier"
      std: 0.03
    }
    bias_filler {
      type: "constant"
      value: 0.2
    }
  }
}
layer {
  name: "inception_5a/relu_1x1"
  type: "ReLU"
  bottom: "inception_5a/1x1"
  top: "inception_5a/1x1"
}
layer {
  name: "inception_5a/3x3_reduce"
  type: "Convolution"
  bottom: "pool4/3x3_s2"
  top: "inception_5a/3x3_reduce"
  param {
    lr_mult: 1
    decay_mult: 1
  }
  param {
    lr_mult: 2
    decay_mult: 0
  }
  convolution_param {
    num_output: 160
    kernel_size: 1
    weight_filler {
      type: "xavier"
      std: 0.09
    }
    bias_filler {
      type: "constant"
      value: 0.2
    }
  }
}
layer {
  name: "inception_5a/relu_3x3_reduce"
  type: "ReLU"
  bottom: "inception_5a/3x3_reduce"
  top: "inception_5a/3x3_reduce"
}
layer {
  name: "inception_5a/3x3"
  type: "Convolution"
  bottom: "inception_5a/3x3_reduce"
  top: "inception_5a/3x3"
  param {
    lr_mult: 1
    decay_mult: 1
  }
  param {
    lr_mult: 2
    decay_mult: 0
  }
  convolution_param {
    num_output: 320
    pad: 1
    kernel_size: 3
    weight_filler {
      type: "xavier"
      std: 0.03
    }
    bias_filler {
      type: "constant"
      value: 0.2
    }
  }
}
layer {
  name: "inception_5a/relu_3x3"
  type: "ReLU"
  bottom: "inception_5a/3x3"
  top: "inception_5a/3x3"
}
layer {
  name: "inception_5a/5x5_reduce"
  type: "Convolution"
  bottom: "pool4/3x3_s2"
  top: "inception_5a/5x5_reduce"
  param {
    lr_mult: 1
    decay_mult: 1
  }
  param {
    lr_mult: 2
    decay_mult: 0
  }
  convolution_param {
    num_output: 32
    kernel_size: 1
    weight_filler {
      type: "xavier"
      std: 0.2
    }
    bias_filler {
      type: "constant"
      value: 0.2
    }
I0707 11:35:47.772373  2290 layer_factory.hpp:77] Creating layer data
I0707 11:35:47.772404  2290 net.cpp:91] Creating Layer data
I0707 11:35:47.772416  2290 net.cpp:399] data -> data
I0707 11:35:48.357887  2294 net.cpp:141] Setting up data
I0707 11:35:48.357956  2294 net.cpp:148] Top shape: 10 3 224 224 (1505280)
I0707 11:35:48.357964  2294 net.cpp:156] Memory required for data: 6021120
I0707 11:35:48.357966  2290 net.cpp:141] Setting up data
I0707 11:35:48.357982  2294 layer_factory.hpp:77] Creating layer conv1/7x7_s2
I0707 11:35:48.358016  2290 net.cpp:148] Top shape: 10 3 224 224 (1505280)
I0707 11:35:48.358023  2290 net.cpp:156] Memory required for data: 6021120
I0707 11:35:48.358034  2290 layer_factory.hpp:77] Creating layer conv1/7x7_s2
I0707 11:35:48.358044  2294 net.cpp:91] Creating Layer conv1/7x7_s2
I0707 11:35:48.358054  2294 net.cpp:425] conv1/7x7_s2 <- data
I0707 11:35:48.358063  2290 net.cpp:91] Creating Layer conv1/7x7_s2
I0707 11:35:48.358068  2294 net.cpp:399] conv1/7x7_s2 -> conv1/7x7_s2
I0707 11:35:48.358072  2290 net.cpp:425] conv1/7x7_s2 <- data
I0707 11:35:48.358084  2290 net.cpp:399] conv1/7x7_s2 -> conv1/7x7_s2
I0707 11:35:48.621095  2290 net.cpp:141] Setting up conv1/7x7_s2
I0707 11:35:48.621155  2290 net.cpp:148] Top shape: 10 64 112 112 (8028160)
I0707 11:35:48.621162  2290 net.cpp:156] Memory required for data: 38133760
I0707 11:35:48.621165  2294 net.cpp:141] Setting up conv1/7x7_s2
I0707 11:35:48.621192  2290 layer_factory.hpp:77] Creating layer conv1/relu_7x7
I0707 11:35:48.621202  2294 net.cpp:148] Top shape: 10 64 112 112 (8028160)
I0707 11:35:48.621209  2294 net.cpp:156] Memory required for data: 38133760
I0707 11:35:48.621218  2290 net.cpp:91] Creating Layer conv1/relu_7x7
I0707 11:35:48.621227  2290 net.cpp:425] conv1/relu_7x7 <- conv1/7x7_s2
I0707 11:35:48.621227  2294 layer_factory.hpp:77] Creating layer conv1/relu_7x7
I0707 11:35:48.621237  2290 net.cpp:386] conv1/relu_7x7 -> conv1/7x7_s2 (in-place)
I0707 11:35:48.621249  2294 net.cpp:91] Creating Layer conv1/relu_7x7
I0707 11:35:48.621256  2294 net.cpp:425] conv1/relu_7x7 <- conv1/7x7_s2
I0707 11:35:48.621263  2294 net.cpp:386] conv1/relu_7x7 -> conv1/7x7_s2 (in-place)
I0707 11:35:48.622478  2290 net.cpp:141] Setting up conv1/relu_7x7
I0707 11:35:48.622488  2294 net.cpp:141] Setting up conv1/relu_7x7
I0707 11:35:48.622495  2290 net.cpp:148] Top shape: 10 64 112 112 (8028160)
I0707 11:35:48.622500  2294 net.cpp:148] Top shape: 10 64 112 112 (8028160)
I0707 11:35:48.622505  2290 net.cpp:156] Memory required for data: 70246400
I0707 11:35:48.622505  2294 net.cpp:156] Memory required for data: 70246400
I0707 11:35:48.622514  2290 layer_factory.hpp:77] Creating layer pool1/3x3_s2
I0707 11:35:48.622520  2294 layer_factory.hpp:77] Creating layer pool1/3x3_s2
I0707 11:35:48.622530  2290 net.cpp:91] Creating Layer pool1/3x3_s2
I0707 11:35:48.622534  2294 net.cpp:91] Creating Layer pool1/3x3_s2
I0707 11:35:48.622536  2290 net.cpp:425] pool1/3x3_s2 <- conv1/7x7_s2
I0707 11:35:48.622539  2294 net.cpp:425] pool1/3x3_s2 <- conv1/7x7_s2
I0707 11:35:48.622545  2290 net.cpp:399] pool1/3x3_s2 -> pool1/3x3_s2
I0707 11:35:48.622546  2294 net.cpp:399] pool1/3x3_s2 -> pool1/3x3_s2
I0707 11:35:48.622645  2294 net.cpp:141] Setting up pool1/3x3_s2
I0707 11:35:48.622656  2294 net.cpp:148] Top shape: 10 64 56 56 (2007040)
I0707 11:35:48.622660  2294 net.cpp:156] Memory required for data: 78274560
I0707 11:35:48.622664  2294 layer_factory.hpp:77] Creating layer pool1/norm1
I0707 11:35:48.622681  2294 net.cpp:91] Creating Layer pool1/norm1
I0707 11:35:48.622700  2294 net.cpp:425] pool1/norm1 <- pool1/3x3_s2
I0707 11:35:48.622711  2294 net.cpp:399] pool1/norm1 -> pool1/norm1
I0707 11:35:48.622740  2290 net.cpp:141] Setting up pool1/3x3_s2
I0707 11:35:48.622755  2290 net.cpp:148] Top shape: 10 64 56 56 (2007040)
I0707 11:35:48.622758  2290 net.cpp:156] Memory required for data: 78274560
I0707 11:35:48.622763  2290 layer_factory.hpp:77] Creating layer pool1/norm1
I0707 11:35:48.622781  2290 net.cpp:91] Creating Layer pool1/norm1
I0707 11:35:48.622786  2290 net.cpp:425] pool1/norm1 <- pool1/3x3_s2
I0707 11:35:48.622793  2290 net.cpp:399] pool1/norm1 -> pool1/norm1
I0707 11:35:48.624238  2294 net.cpp:141] Setting up pool1/norm1
I0707 11:35:48.624258  2294 net.cpp:148] Top shape: 10 64 56 56 (2007040)
I0707 11:35:48.624263  2294 net.cpp:156] Memory required for data: 86302720
I0707 11:35:48.624267  2294 layer_factory.hpp:77] Creating layer conv2/3x3_reduce
I0707 11:35:48.624299  2294 net.cpp:91] Creating Layer conv2/3x3_reduce
I0707 11:35:48.624305  2294 net.cpp:425] conv2/3x3_reduce <- pool1/norm1
I0707 11:35:48.624307  2290 net.cpp:141] Setting up pool1/norm1
I0707 11:35:48.624313  2294 net.cpp:399] conv2/3x3_reduce -> conv2/3x3_reduce
I0707 11:35:48.624325  2290 net.cpp:148] Top shape: 10 64 56 56 (2007040)
I0707 11:35:48.624331  2290 net.cpp:156] Memory required for data: 86302720
I0707 11:35:48.624336  2290 layer_factory.hpp:77] Creating layer conv2/3x3_reduce
I0707 11:35:48.624361  2290 net.cpp:91] Creating Layer conv2/3x3_reduce
I0707 11:35:48.624366  2290 net.cpp:425] conv2/3x3_reduce <- pool1/norm1
I0707 11:35:48.624378  2290 net.cpp:399] conv2/3x3_reduce -> conv2/3x3_reduce
I0707 11:35:48.629791  2294 net.cpp:141] Setting up conv2/3x3_reduce
I0707 11:35:48.629818  2294 net.cpp:148] Top shape: 10 64 56 56 (2007040)
I0707 11:35:48.629824  2294 net.cpp:156] Memory required for data: 94330880
I0707 11:35:48.629837  2294 layer_factory.hpp:77] Creating layer conv2/relu_3x3_reduce
I0707 11:35:48.629848  2294 net.cpp:91] Creating Layer conv2/relu_3x3_reduce
I0707 11:35:48.629853  2294 net.cpp:425] conv2/relu_3x3_reduce <- conv2/3x3_reduce
I0707 11:35:48.629859  2294 net.cpp:386] conv2/relu_3x3_reduce -> conv2/3x3_reduce (in-place)
I0707 11:35:48.631700  2294 net.cpp:141] Setting up conv2/relu_3x3_reduce
I0707 11:35:48.631717  2294 net.cpp:148] Top shape: 10 64 56 56 (2007040)
I0707 11:35:48.631721  2294 net.cpp:156] Memory required for data: 102359040
I0707 11:35:48.631726  2294 layer_factory.hpp:77] Creating layer conv2/3x3
I0707 11:35:48.631752  2294 net.cpp:91] Creating Layer conv2/3x3
I0707 11:35:48.631759  2294 net.cpp:425] conv2/3x3 <- conv2/3x3_reduce
I0707 11:35:48.631769  2294 net.cpp:399] conv2/3x3 -> conv2/3x3
I0707 11:35:48.631873  2290 net.cpp:141] Setting up conv2/3x3_reduce
I0707 11:35:48.631902  2290 net.cpp:148] Top shape: 10 64 56 56 (2007040)
I0707 11:35:48.631908  2290 net.cpp:156] Memory required for data: 94330880
I0707 11:35:48.631924  2290 layer_factory.hpp:77] Creating layer conv2/relu_3x3_reduce
I0707 11:35:48.631937  2290 net.cpp:91] Creating Layer conv2/relu_3x3_reduce
I0707 11:35:48.631942  2290 net.cpp:425] conv2/relu_3x3_reduce <- conv2/3x3_reduce
I0707 11:35:48.631949  2290 net.cpp:386] conv2/relu_3x3_reduce -> conv2/3x3_reduce (in-place)
I0707 11:35:48.633352  2290 net.cpp:141] Setting up conv2/relu_3x3_reduce
I0707 11:35:48.633371  2290 net.cpp:148] Top shape: 10 64 56 56 (2007040)
I0707 11:35:48.633376  2290 net.cpp:156] Memory required for data: 102359040
I0707 11:35:48.633381  2290 layer_factory.hpp:77] Creating layer conv2/3x3
I0707 11:35:48.633399  2290 net.cpp:91] Creating Layer conv2/3x3
I0707 11:35:48.633404  2290 net.cpp:425] conv2/3x3 <- conv2/3x3_reduce
I0707 11:35:48.633417  2290 net.cpp:399] conv2/3x3 -> conv2/3x3
I0707 11:35:48.639396  2294 net.cpp:141] Setting up conv2/3x3
I0707 11:35:48.639423  2294 net.cpp:148] Top shape: 10 192 56 56 (6021120)
I0707 11:35:48.639430  2294 net.cpp:156] Memory required for data: 126443520
I0707 11:35:48.639447  2294 layer_factory.hpp:77] Creating layer conv2/relu_3x3
I0707 11:35:48.639464  2294 net.cpp:91] Creating Layer conv2/relu_3x3
I0707 11:35:48.639472  2294 net.cpp:425] conv2/relu_3x3 <- conv2/3x3
I0707 11:35:48.639479  2294 net.cpp:386] conv2/relu_3x3 -> conv2/3x3 (in-place)
I0707 11:35:48.639478  2290 net.cpp:141] Setting up conv2/3x3
I0707 11:35:48.639497  2290 net.cpp:148] Top shape: 10 192 56 56 (6021120)
I0707 11:35:48.639503  2290 net.cpp:156] Memory required for data: 126443520
I0707 11:35:48.639519  2290 layer_factory.hpp:77] Creating layer conv2/relu_3x3
I0707 11:35:48.639530  2290 net.cpp:91] Creating Layer conv2/relu_3x3
I0707 11:35:48.639538  2290 net.cpp:425] conv2/relu_3x3 <- conv2/3x3
I0707 11:35:48.639544  2290 net.cpp:386] conv2/relu_3x3 -> conv2/3x3 (in-place)
I0707 11:35:48.640604  2294 net.cpp:141] Setting up conv2/relu_3x3
I0707 11:35:48.640619  2294 net.cpp:148] Top shape: 10 192 56 56 (6021120)
I0707 11:35:48.640625  2294 net.cpp:156] Memory required for data: 150528000
I0707 11:35:48.640630  2294 layer_factory.hpp:77] Creating layer conv2/norm2
I0707 11:35:48.640630  2290 net.cpp:141] Setting up conv2/relu_3x3
I0707 11:35:48.640645  2294 net.cpp:91] Creating Layer conv2/norm2
I0707 11:35:48.640645  2290 net.cpp:148] Top shape: 10 192 56 56 (6021120)
I0707 11:35:48.640651  2294 net.cpp:425] conv2/norm2 <- conv2/3x3
I0707 11:35:48.640652  2290 net.cpp:156] Memory required for data: 150528000
I0707 11:35:48.640666  2294 net.cpp:399] conv2/norm2 -> conv2/norm2
I0707 11:35:48.640666  2290 layer_factory.hpp:77] Creating layer conv2/norm2
I0707 11:35:48.640682  2290 net.cpp:91] Creating Layer conv2/norm2
I0707 11:35:48.640688  2290 net.cpp:425] conv2/norm2 <- conv2/3x3
I0707 11:35:48.640700  2290 net.cpp:399] conv2/norm2 -> conv2/norm2
I0707 11:35:48.641856  2294 net.cpp:141] Setting up conv2/norm2
I0707 11:35:48.641871  2294 net.cpp:148] Top shape: 10 192 56 56 (6021120)
I0707 11:35:48.641876  2294 net.cpp:156] Memory required for data: 174612480
I0707 11:35:48.641881  2294 layer_factory.hpp:77] Creating layer pool2/3x3_s2
I0707 11:35:48.641896  2294 net.cpp:91] Creating Layer pool2/3x3_s2
I0707 11:35:48.641902  2294 net.cpp:425] pool2/3x3_s2 <- conv2/norm2
I0707 11:35:48.641909  2294 net.cpp:399] pool2/3x3_s2 -> pool2/3x3_s2
I0707 11:35:48.641911  2290 net.cpp:141] Setting up conv2/norm2
I0707 11:35:48.641926  2290 net.cpp:148] Top shape: 10 192 56 56 (6021120)
I0707 11:35:48.641930  2290 net.cpp:156] Memory required for data: 174612480
I0707 11:35:48.641935  2290 layer_factory.hpp:77] Creating layer pool2/3x3_s2
I0707 11:35:48.641949  2290 net.cpp:91] Creating Layer pool2/3x3_s2
I0707 11:35:48.641954  2290 net.cpp:425] pool2/3x3_s2 <- conv2/norm2
I0707 11:35:48.641962  2290 net.cpp:399] pool2/3x3_s2 -> pool2/3x3_s2
I0707 11:35:48.641978  2294 net.cpp:141] Setting up pool2/3x3_s2
I0707 11:35:48.641986  2294 net.cpp:148] Top shape: 10 192 28 28 (1505280)
I0707 11:35:48.641991  2294 net.cpp:156] Memory required for data: 180633600
I0707 11:35:48.641996  2294 layer_factory.hpp:77] Creating layer pool2/3x3_s2_pool2/3x3_s2_0_split
I0707 11:35:48.642006  2294 net.cpp:91] Creating Layer pool2/3x3_s2_pool2/3x3_s2_0_split
I0707 11:35:48.642014  2294 net.cpp:425] pool2/3x3_s2_pool2/3x3_s2_0_split <- pool2/3x3_s2
I0707 11:35:48.642021  2294 net.cpp:399] pool2/3x3_s2_pool2/3x3_s2_0_split -> pool2/3x3_s2_pool2/3x3_s2_0_split_0
I0707 11:35:48.642026  2290 net.cpp:141] Setting up pool2/3x3_s2
I0707 11:35:48.642031  2294 net.cpp:399] pool2/3x3_s2_pool2/3x3_s2_0_split -> pool2/3x3_s2_pool2/3x3_s2_0_split_1
I0707 11:35:48.642036  2290 net.cpp:148] Top shape: 10 192 28 28 (1505280)
I0707 11:35:48.642040  2294 net.cpp:399] pool2/3x3_s2_pool2/3x3_s2_0_split -> pool2/3x3_s2_pool2/3x3_s2_0_split_2
I0707 11:35:48.642041  2290 net.cpp:156] Memory required for data: 180633600
I0707 11:35:48.642053  2294 net.cpp:399] pool2/3x3_s2_pool2/3x3_s2_0_split -> pool2/3x3_s2_pool2/3x3_s2_0_split_3
I0707 11:35:48.642055  2290 layer_factory.hpp:77] Creating layer pool2/3x3_s2_pool2/3x3_s2_0_split
I0707 11:35:48.642069  2290 net.cpp:91] Creating Layer pool2/3x3_s2_pool2/3x3_s2_0_split
I0707 11:35:48.642074  2290 net.cpp:425] pool2/3x3_s2_pool2/3x3_s2_0_split <- pool2/3x3_s2
I0707 11:35:48.642084  2290 net.cpp:399] pool2/3x3_s2_pool2/3x3_s2_0_split -> pool2/3x3_s2_pool2/3x3_s2_0_split_0
I0707 11:35:48.642096  2290 net.cpp:399] pool2/3x3_s2_pool2/3x3_s2_0_split -> pool2/3x3_s2_pool2/3x3_s2_0_split_1
I0707 11:35:48.642104  2290 net.cpp:399] pool2/3x3_s2_pool2/3x3_s2_0_split -> pool2/3x3_s2_pool2/3x3_s2_0_split_2
I0707 11:35:48.642112  2290 net.cpp:399] pool2/3x3_s2_pool2/3x3_s2_0_split -> pool2/3x3_s2_pool2/3x3_s2_0_split_3
I0707 11:35:48.642212  2290 net.cpp:141] Setting up pool2/3x3_s2_pool2/3x3_s2_0_split
I0707 11:35:48.642223  2290 net.cpp:148] Top shape: 10 192 28 28 (1505280)
I0707 11:35:48.642230  2290 net.cpp:148] Top shape: 10 192 28 28 (1505280)
I0707 11:35:48.642236  2290 net.cpp:148] Top shape: 10 192 28 28 (1505280)
I0707 11:35:48.642238  2294 net.cpp:141] Setting up pool2/3x3_s2_pool2/3x3_s2_0_split
I0707 11:35:48.642241  2290 net.cpp:148] Top shape: 10 192 28 28 (1505280)
I0707 11:35:48.642253  2290 net.cpp:156] Memory required for data: 204718080
I0707 11:35:48.642254  2294 net.cpp:148] Top shape: 10 192 28 28 (1505280)
I0707 11:35:48.642262  2290 layer_factory.hpp:77] Creating layer inception_3a/1x1
I0707 11:35:48.642268  2294 net.cpp:148] Top shape: 10 192 28 28 (1505280)
I0707 11:35:48.642274  2294 net.cpp:148] Top shape: 10 192 28 28 (1505280)
I0707 11:35:48.642280  2294 net.cpp:148] Top shape: 10 192 28 28 (1505280)
I0707 11:35:48.642282  2290 net.cpp:91] Creating Layer inception_3a/1x1
I0707 11:35:48.642285  2294 net.cpp:156] Memory required for data: 204718080
I0707 11:35:48.642288  2290 net.cpp:425] inception_3a/1x1 <- pool2/3x3_s2_pool2/3x3_s2_0_split_0
I0707 11:35:48.642290  2294 layer_factory.hpp:77] Creating layer inception_3a/1x1
I0707 11:35:48.642313  2294 net.cpp:91] Creating Layer inception_3a/1x1
I0707 11:35:48.642316  2290 net.cpp:399] inception_3a/1x1 -> inception_3a/1x1
I0707 11:35:48.642319  2294 net.cpp:425] inception_3a/1x1 <- pool2/3x3_s2_pool2/3x3_s2_0_split_0
I0707 11:35:48.642333  2294 net.cpp:399] inception_3a/1x1 -> inception_3a/1x1
I0707 11:35:48.649555  2290 net.cpp:141] Setting up inception_3a/1x1
I0707 11:35:48.649603  2290 net.cpp:148] Top shape: 10 64 28 28 (501760)
I0707 11:35:48.649613  2290 net.cpp:156] Memory required for data: 206725120
I0707 11:35:48.649636  2290 layer_factory.hpp:77] Creating layer inception_3a/relu_1x1
I0707 11:35:48.649651  2294 net.cpp:141] Setting up inception_3a/1x1
I0707 11:35:48.649672  2294 net.cpp:148] Top shape: 10 64 28 28 (501760)
I0707 11:35:48.649677  2294 net.cpp:156] Memory required for data: 206725120
I0707 11:35:48.649682  2290 net.cpp:91] Creating Layer inception_3a/relu_1x1
I0707 11:35:48.649689  2294 layer_factory.hpp:77] Creating layer inception_3a/relu_1x1
I0707 11:35:48.649698  2290 net.cpp:425] inception_3a/relu_1x1 <- inception_3a/1x1
I0707 11:35:48.649700  2294 net.cpp:91] Creating Layer inception_3a/relu_1x1
I0707 11:35:48.649708  2294 net.cpp:425] inception_3a/relu_1x1 <- inception_3a/1x1
I0707 11:35:48.649715  2290 net.cpp:386] inception_3a/relu_1x1 -> inception_3a/1x1 (in-place)
I0707 11:35:48.649727  2294 net.cpp:386] inception_3a/relu_1x1 -> inception_3a/1x1 (in-place)
I0707 11:35:48.651124  2290 net.cpp:141] Setting up inception_3a/relu_1x1
I0707 11:35:48.651146  2290 net.cpp:148] Top shape: 10 64 28 28 (501760)
I0707 11:35:48.651145  2294 net.cpp:141] Setting up inception_3a/relu_1x1
I0707 11:35:48.651154  2290 net.cpp:156] Memory required for data: 208732160
I0707 11:35:48.651168  2294 net.cpp:148] Top shape: 10 64 28 28 (501760)
I0707 11:35:48.651170  2290 layer_factory.hpp:77] Creating layer inception_3a/3x3_reduce
I0707 11:35:48.651177  2294 net.cpp:156] Memory required for data: 208732160
I0707 11:35:48.651183  2294 layer_factory.hpp:77] Creating layer inception_3a/3x3_reduce
I0707 11:35:48.651202  2290 net.cpp:91] Creating Layer inception_3a/3x3_reduce
I0707 11:35:48.651203  2294 net.cpp:91] Creating Layer inception_3a/3x3_reduce
I0707 11:35:48.651214  2290 net.cpp:425] inception_3a/3x3_reduce <- pool2/3x3_s2_pool2/3x3_s2_0_split_1
I0707 11:35:48.651218  2294 net.cpp:425] inception_3a/3x3_reduce <- pool2/3x3_s2_pool2/3x3_s2_0_split_1
I0707 11:35:48.651226  2290 net.cpp:399] inception_3a/3x3_reduce -> inception_3a/3x3_reduce
I0707 11:35:48.651234  2294 net.cpp:399] inception_3a/3x3_reduce -> inception_3a/3x3_reduce
I0707 11:35:48.657465  2290 net.cpp:141] Setting up inception_3a/3x3_reduce
I0707 11:35:48.657488  2290 net.cpp:148] Top shape: 10 96 28 28 (752640)
I0707 11:35:48.657495  2290 net.cpp:156] Memory required for data: 211742720
I0707 11:35:48.657513  2290 layer_factory.hpp:77] Creating layer inception_3a/relu_3x3_reduce
I0707 11:35:48.657526  2290 net.cpp:91] Creating Layer inception_3a/relu_3x3_reduce
I0707 11:35:48.657531  2290 net.cpp:425] inception_3a/relu_3x3_reduce <- inception_3a/3x3_reduce
I0707 11:35:48.657538  2290 net.cpp:386] inception_3a/relu_3x3_reduce -> inception_3a/3x3_reduce (in-place)
I0707 11:35:48.658393  2294 net.cpp:141] Setting up inception_3a/3x3_reduce
I0707 11:35:48.658414  2294 net.cpp:148] Top shape: 10 96 28 28 (752640)
I0707 11:35:48.658421  2294 net.cpp:156] Memory required for data: 211742720
I0707 11:35:48.658435  2294 layer_factory.hpp:77] Creating layer inception_3a/relu_3x3_reduce
I0707 11:35:48.658453  2294 net.cpp:91] Creating Layer inception_3a/relu_3x3_reduce
I0707 11:35:48.658459  2294 net.cpp:425] inception_3a/relu_3x3_reduce <- inception_3a/3x3_reduce
I0707 11:35:48.658468  2294 net.cpp:386] inception_3a/relu_3x3_reduce -> inception_3a/3x3_reduce (in-place)
I0707 11:35:48.658723  2290 net.cpp:141] Setting up inception_3a/relu_3x3_reduce
I0707 11:35:48.658738  2290 net.cpp:148] Top shape: 10 96 28 28 (752640)
I0707 11:35:48.658743  2290 net.cpp:156] Memory required for data: 214753280
I0707 11:35:48.658749  2290 layer_factory.hpp:77] Creating layer inception_3a/3x3
I0707 11:35:48.658771  2290 net.cpp:91] Creating Layer inception_3a/3x3
I0707 11:35:48.658778  2290 net.cpp:425] inception_3a/3x3 <- inception_3a/3x3_reduce
I0707 11:35:48.658790  2290 net.cpp:399] inception_3a/3x3 -> inception_3a/3x3
I0707 11:35:48.658792  2294 net.cpp:141] Setting up inception_3a/relu_3x3_reduce
I0707 11:35:48.658807  2294 net.cpp:148] Top shape: 10 96 28 28 (752640)
I0707 11:35:48.658812  2294 net.cpp:156] Memory required for data: 214753280
I0707 11:35:48.658816  2294 layer_factory.hpp:77] Creating layer inception_3a/3x3
I0707 11:35:48.658839  2294 net.cpp:91] Creating Layer inception_3a/3x3
I0707 11:35:48.658845  2294 net.cpp:425] inception_3a/3x3 <- inception_3a/3x3_reduce
I0707 11:35:48.658859  2294 net.cpp:399] inception_3a/3x3 -> inception_3a/3x3
I0707 11:35:48.666198  2294 net.cpp:141] Setting up inception_3a/3x3
I0707 11:35:48.666226  2294 net.cpp:148] Top shape: 10 128 28 28 (1003520)
I0707 11:35:48.666232  2294 net.cpp:156] Memory required for data: 218767360
I0707 11:35:48.666244  2294 layer_factory.hpp:77] Creating layer inception_3a/relu_3x3
I0707 11:35:48.666254  2294 net.cpp:91] Creating Layer inception_3a/relu_3x3
I0707 11:35:48.666260  2294 net.cpp:425] inception_3a/relu_3x3 <- inception_3a/3x3
I0707 11:35:48.666268  2294 net.cpp:386] inception_3a/relu_3x3 -> inception_3a/3x3 (in-place)
I0707 11:35:48.666553  2290 net.cpp:141] Setting up inception_3a/3x3
I0707 11:35:48.666570  2290 net.cpp:148] Top shape: 10 128 28 28 (1003520)
I0707 11:35:48.666575  2290 net.cpp:156] Memory required for data: 218767360
I0707 11:35:48.666585  2290 layer_factory.hpp:77] Creating layer inception_3a/relu_3x3
I0707 11:35:48.666595  2290 net.cpp:91] Creating Layer inception_3a/relu_3x3
I0707 11:35:48.666606  2290 net.cpp:425] inception_3a/relu_3x3 <- inception_3a/3x3
I0707 11:35:48.666615  2290 net.cpp:386] inception_3a/relu_3x3 -> inception_3a/3x3 (in-place)
I0707 11:35:48.666638  2294 net.cpp:141] Setting up inception_3a/relu_3x3
I0707 11:35:48.666652  2294 net.cpp:148] Top shape: 10 128 28 28 (1003520)
I0707 11:35:48.666657  2294 net.cpp:156] Memory required for data: 222781440
I0707 11:35:48.666662  2294 layer_factory.hpp:77] Creating layer inception_3a/5x5_reduce
I0707 11:35:48.666681  2294 net.cpp:91] Creating Layer inception_3a/5x5_reduce
I0707 11:35:48.666703  2294 net.cpp:425] inception_3a/5x5_reduce <- pool2/3x3_s2_pool2/3x3_s2_0_split_2
I0707 11:35:48.666718  2294 net.cpp:399] inception_3a/5x5_reduce -> inception_3a/5x5_reduce
I0707 11:35:48.667701  2290 net.cpp:141] Setting up inception_3a/relu_3x3
I0707 11:35:48.667718  2290 net.cpp:148] Top shape: 10 128 28 28 (1003520)
I0707 11:35:48.667723  2290 net.cpp:156] Memory required for data: 222781440
I0707 11:35:48.667728  2290 layer_factory.hpp:77] Creating layer inception_3a/5x5_reduce
I0707 11:35:48.667744  2290 net.cpp:91] Creating Layer inception_3a/5x5_reduce
I0707 11:35:48.667752  2290 net.cpp:425] inception_3a/5x5_reduce <- pool2/3x3_s2_pool2/3x3_s2_0_split_2
I0707 11:35:48.667765  2290 net.cpp:399] inception_3a/5x5_reduce -> inception_3a/5x5_reduce
I0707 11:35:48.671702  2294 net.cpp:141] Setting up inception_3a/5x5_reduce
I0707 11:35:48.671725  2294 net.cpp:148] Top shape: 10 16 28 28 (125440)
I0707 11:35:48.671731  2294 net.cpp:156] Memory required for data: 223283200
I0707 11:35:48.671741  2294 layer_factory.hpp:77] Creating layer inception_3a/relu_5x5_reduce
I0707 11:35:48.671751  2294 net.cpp:91] Creating Layer inception_3a/relu_5x5_reduce
I0707 11:35:48.671756  2294 net.cpp:425] inception_3a/relu_5x5_reduce <- inception_3a/5x5_reduce
I0707 11:35:48.671764  2294 net.cpp:386] inception_3a/relu_5x5_reduce -> inception_3a/5x5_reduce (in-place)
I0707 11:35:48.672734  2290 net.cpp:141] Setting up inception_3a/5x5_reduce
I0707 11:35:48.672752  2290 net.cpp:148] Top shape: 10 16 28 28 (125440)
I0707 11:35:48.672757  2290 net.cpp:156] Memory required for data: 223283200
I0707 11:35:48.672767  2290 layer_factory.hpp:77] Creating layer inception_3a/relu_5x5_reduce
I0707 11:35:48.672777  2290 net.cpp:91] Creating Layer inception_3a/relu_5x5_reduce
I0707 11:35:48.672783  2290 net.cpp:425] inception_3a/relu_5x5_reduce <- inception_3a/5x5_reduce
I0707 11:35:48.672791  2290 net.cpp:386] inception_3a/relu_5x5_reduce -> inception_3a/5x5_reduce (in-place)
I0707 11:35:48.672794  2294 net.cpp:141] Setting up inception_3a/relu_5x5_reduce
I0707 11:35:48.672811  2294 net.cpp:148] Top shape: 10 16 28 28 (125440)
I0707 11:35:48.672817  2294 net.cpp:156] Memory required for data: 223784960
I0707 11:35:48.672822  2294 layer_factory.hpp:77] Creating layer inception_3a/5x5
I0707 11:35:48.672840  2294 net.cpp:91] Creating Layer inception_3a/5x5
I0707 11:35:48.672847  2294 net.cpp:425] inception_3a/5x5 <- inception_3a/5x5_reduce
I0707 11:35:48.672857  2294 net.cpp:399] inception_3a/5x5 -> inception_3a/5x5
I0707 11:35:48.673331  2290 net.cpp:141] Setting up inception_3a/relu_5x5_reduce
I0707 11:35:48.673344  2290 net.cpp:148] Top shape: 10 16 28 28 (125440)
I0707 11:35:48.673348  2290 net.cpp:156] Memory required for data: 223784960
I0707 11:35:48.673354  2290 layer_factory.hpp:77] Creating layer inception_3a/5x5
I0707 11:35:48.673370  2290 net.cpp:91] Creating Layer inception_3a/5x5
I0707 11:35:48.673377  2290 net.cpp:425] inception_3a/5x5 <- inception_3a/5x5_reduce
I0707 11:35:48.673391  2290 net.cpp:399] inception_3a/5x5 -> inception_3a/5x5
I0707 11:35:48.678462  2294 net.cpp:141] Setting up inception_3a/5x5
I0707 11:35:48.678481  2294 net.cpp:148] Top shape: 10 32 28 28 (250880)
I0707 11:35:48.678488  2294 net.cpp:156] Memory required for data: 224788480
I0707 11:35:48.678498  2294 layer_factory.hpp:77] Creating layer inception_3a/relu_5x5
I0707 11:35:48.678508  2294 net.cpp:91] Creating Layer inception_3a/relu_5x5
I0707 11:35:48.678514  2294 net.cpp:425] inception_3a/relu_5x5 <- inception_3a/5x5
I0707 11:35:48.678521  2294 net.cpp:386] inception_3a/relu_5x5 -> inception_3a/5x5 (in-place)
I0707 11:35:48.680146  2294 net.cpp:141] Setting up inception_3a/relu_5x5
I0707 11:35:48.680162  2294 net.cpp:148] Top shape: 10 32 28 28 (250880)
I0707 11:35:48.680167  2294 net.cpp:156] Memory required for data: 225792000
I0707 11:35:48.680172  2294 layer_factory.hpp:77] Creating layer inception_3a/pool
I0707 11:35:48.680186  2294 net.cpp:91] Creating Layer inception_3a/pool
I0707 11:35:48.680192  2294 net.cpp:425] inception_3a/pool <- pool2/3x3_s2_pool2/3x3_s2_0_split_3
I0707 11:35:48.680200  2294 net.cpp:399] inception_3a/pool -> inception_3a/pool
I0707 11:35:48.680326  2294 net.cpp:141] Setting up inception_3a/pool
I0707 11:35:48.680338  2294 net.cpp:148] Top shape: 10 192 28 28 (1505280)
I0707 11:35:48.680343  2294 net.cpp:156] Memory required for data: 231813120
I0707 11:35:48.680348  2294 layer_factory.hpp:77] Creating layer inception_3a/pool_proj
I0707 11:35:48.680366  2294 net.cpp:91] Creating Layer inception_3a/pool_proj
I0707 11:35:48.680372  2294 net.cpp:425] inception_3a/pool_proj <- inception_3a/pool
I0707 11:35:48.680384  2294 net.cpp:399] inception_3a/pool_proj -> inception_3a/pool_proj
I0707 11:35:48.681026  2290 net.cpp:141] Setting up inception_3a/5x5
I0707 11:35:48.681046  2290 net.cpp:148] Top shape: 10 32 28 28 (250880)
I0707 11:35:48.681051  2290 net.cpp:156] Memory required for data: 224788480
I0707 11:35:48.681062  2290 layer_factory.hpp:77] Creating layer inception_3a/relu_5x5
I0707 11:35:48.681072  2290 net.cpp:91] Creating Layer inception_3a/relu_5x5
I0707 11:35:48.681077  2290 net.cpp:425] inception_3a/relu_5x5 <- inception_3a/5x5
I0707 11:35:48.681085  2290 net.cpp:386] inception_3a/relu_5x5 -> inception_3a/5x5 (in-place)
I0707 11:35:48.681596  2290 net.cpp:141] Setting up inception_3a/relu_5x5
I0707 11:35:48.681612  2290 net.cpp:148] Top shape: 10 32 28 28 (250880)
I0707 11:35:48.681617  2290 net.cpp:156] Memory required for data: 225792000
I0707 11:35:48.681622  2290 layer_factory.hpp:77] Creating layer inception_3a/pool
I0707 11:35:48.681634  2290 net.cpp:91] Creating Layer inception_3a/pool
I0707 11:35:48.681640  2290 net.cpp:425] inception_3a/pool <- pool2/3x3_s2_pool2/3x3_s2_0_split_3
I0707 11:35:48.681648  2290 net.cpp:399] inception_3a/pool -> inception_3a/pool
I0707 11:35:48.682416  2290 net.cpp:141] Setting up inception_3a/pool
I0707 11:35:48.682430  2290 net.cpp:148] Top shape: 10 192 28 28 (1505280)
I0707 11:35:48.682435  2290 net.cpp:156] Memory required for data: 231813120
I0707 11:35:48.682440  2290 layer_factory.hpp:77] Creating layer inception_3a/pool_proj
I0707 11:35:48.682456  2290 net.cpp:91] Creating Layer inception_3a/pool_proj
I0707 11:35:48.682463  2290 net.cpp:425] inception_3a/pool_proj <- inception_3a/pool
I0707 11:35:48.682474  2290 net.cpp:399] inception_3a/pool_proj -> inception_3a/pool_proj
I0707 11:35:48.685420  2294 net.cpp:141] Setting up inception_3a/pool_proj
I0707 11:35:48.685442  2294 net.cpp:148] Top shape: 10 32 28 28 (250880)
I0707 11:35:48.685448  2294 net.cpp:156] Memory required for data: 232816640
I0707 11:35:48.685464  2294 layer_factory.hpp:77] Creating layer inception_3a/relu_pool_proj
I0707 11:35:48.685477  2294 net.cpp:91] Creating Layer inception_3a/relu_pool_proj
I0707 11:35:48.685482  2294 net.cpp:425] inception_3a/relu_pool_proj <- inception_3a/pool_proj
I0707 11:35:48.685490  2294 net.cpp:386] inception_3a/relu_pool_proj -> inception_3a/pool_proj (in-place)
I0707 11:35:48.686560  2294 net.cpp:141] Setting up inception_3a/relu_pool_proj
I0707 11:35:48.686575  2294 net.cpp:148] Top shape: 10 32 28 28 (250880)
I0707 11:35:48.686580  2294 net.cpp:156] Memory required for data: 233820160
I0707 11:35:48.686585  2294 layer_factory.hpp:77] Creating layer inception_3a/output
I0707 11:35:48.686612  2294 net.cpp:91] Creating Layer inception_3a/output
I0707 11:35:48.686619  2294 net.cpp:425] inception_3a/output <- inception_3a/1x1
I0707 11:35:48.686625  2294 net.cpp:425] inception_3a/output <- inception_3a/3x3
I0707 11:35:48.686630  2294 net.cpp:425] inception_3a/output <- inception_3a/5x5
I0707 11:35:48.686636  2294 net.cpp:425] inception_3a/output <- inception_3a/pool_proj
I0707 11:35:48.686645  2294 net.cpp:399] inception_3a/output -> inception_3a/output
I0707 11:35:48.686714  2294 net.cpp:141] Setting up inception_3a/output
I0707 11:35:48.686727  2294 net.cpp:148] Top shape: 10 256 28 28 (2007040)
I0707 11:35:48.686731  2294 net.cpp:156] Memory required for data: 241848320
I0707 11:35:48.686736  2294 layer_factory.hpp:77] Creating layer inception_3a/output_inception_3a/output_0_split
I0707 11:35:48.686750  2294 net.cpp:91] Creating Layer inception_3a/output_inception_3a/output_0_split
I0707 11:35:48.686748  2290 net.cpp:141] Setting up inception_3a/pool_proj
I0707 11:35:48.686758  2294 net.cpp:425] inception_3a/output_inception_3a/output_0_split <- inception_3a/output
I0707 11:35:48.686764  2290 net.cpp:148] Top shape: 10 32 28 28 (250880)
I0707 11:35:48.686765  2294 net.cpp:399] inception_3a/output_inception_3a/output_0_split -> inception_3a/output_inception_3a/output_0_split_0
I0707 11:35:48.686775  2290 net.cpp:156] Memory required for data: 232816640
I0707 11:35:48.686784  2294 net.cpp:399] inception_3a/output_inception_3a/output_0_split -> inception_3a/output_inception_3a/output_0_split_1
I0707 11:35:48.686795  2290 layer_factory.hpp:77] Creating layer inception_3a/relu_pool_proj
I0707 11:35:48.686794  2294 net.cpp:399] inception_3a/output_inception_3a/output_0_split -> inception_3a/output_inception_3a/output_0_split_2
I0707 11:35:48.686808  2290 net.cpp:91] Creating Layer inception_3a/relu_pool_proj
I0707 11:35:48.686811  2294 net.cpp:399] inception_3a/output_inception_3a/output_0_split -> inception_3a/output_inception_3a/output_0_split_3
I0707 11:35:48.686815  2290 net.cpp:425] inception_3a/relu_pool_proj <- inception_3a/pool_proj
I0707 11:35:48.686825  2290 net.cpp:386] inception_3a/relu_pool_proj -> inception_3a/pool_proj (in-place)
I0707 11:35:48.686920  2294 net.cpp:141] Setting up inception_3a/output_inception_3a/output_0_split
I0707 11:35:48.686933  2294 net.cpp:148] Top shape: 10 256 28 28 (2007040)
I0707 11:35:48.686939  2294 net.cpp:148] Top shape: 10 256 28 28 (2007040)
I0707 11:35:48.686944  2294 net.cpp:148] Top shape: 10 256 28 28 (2007040)
I0707 11:35:48.686950  2294 net.cpp:148] Top shape: 10 256 28 28 (2007040)
I0707 11:35:48.686954  2294 net.cpp:156] Memory required for data: 273960960
I0707 11:35:48.686959  2294 layer_factory.hpp:77] Creating layer inception_3b/1x1
I0707 11:35:48.686975  2294 net.cpp:91] Creating Layer inception_3b/1x1
I0707 11:35:48.686980  2294 net.cpp:425] inception_3b/1x1 <- inception_3a/output_inception_3a/output_0_split_0
I0707 11:35:48.687000  2294 net.cpp:399] inception_3b/1x1 -> inception_3b/1x1
I0707 11:35:48.687960  2290 net.cpp:141] Setting up inception_3a/relu_pool_proj
I0707 11:35:48.687976  2290 net.cpp:148] Top shape: 10 32 28 28 (250880)
I0707 11:35:48.687981  2290 net.cpp:156] Memory required for data: 233820160
I0707 11:35:48.687986  2290 layer_factory.hpp:77] Creating layer inception_3a/output
I0707 11:35:48.687995  2290 net.cpp:91] Creating Layer inception_3a/output
I0707 11:35:48.688000  2290 net.cpp:425] inception_3a/output <- inception_3a/1x1
I0707 11:35:48.688007  2290 net.cpp:425] inception_3a/output <- inception_3a/3x3
I0707 11:35:48.688014  2290 net.cpp:425] inception_3a/output <- inception_3a/5x5
I0707 11:35:48.688019  2290 net.cpp:425] inception_3a/output <- inception_3a/pool_proj
I0707 11:35:48.688030  2290 net.cpp:399] inception_3a/output -> inception_3a/output
I0707 11:35:48.688077  2290 net.cpp:141] Setting up inception_3a/output
I0707 11:35:48.688088  2290 net.cpp:148] Top shape: 10 256 28 28 (2007040)
I0707 11:35:48.688092  2290 net.cpp:156] Memory required for data: 241848320
I0707 11:35:48.688097  2290 layer_factory.hpp:77] Creating layer inception_3a/output_inception_3a/output_0_split
I0707 11:35:48.688110  2290 net.cpp:91] Creating Layer inception_3a/output_inception_3a/output_0_split
I0707 11:35:48.688117  2290 net.cpp:425] inception_3a/output_inception_3a/output_0_split <- inception_3a/output
I0707 11:35:48.688123  2290 net.cpp:399] inception_3a/output_inception_3a/output_0_split -> inception_3a/output_inception_3a/output_0_split_0
I0707 11:35:48.688134  2290 net.cpp:399] inception_3a/output_inception_3a/output_0_split -> inception_3a/output_inception_3a/output_0_split_1
I0707 11:35:48.688143  2290 net.cpp:399] inception_3a/output_inception_3a/output_0_split -> inception_3a/output_inception_3a/output_0_split_2
I0707 11:35:48.688153  2290 net.cpp:399] inception_3a/output_inception_3a/output_0_split -> inception_3a/output_inception_3a/output_0_split_3
I0707 11:35:48.688529  2290 net.cpp:141] Setting up inception_3a/output_inception_3a/output_0_split
I0707 11:35:48.688540  2290 net.cpp:148] Top shape: 10 256 28 28 (2007040)
I0707 11:35:48.688547  2290 net.cpp:148] Top shape: 10 256 28 28 (2007040)
I0707 11:35:48.688552  2290 net.cpp:148] Top shape: 10 256 28 28 (2007040)
I0707 11:35:48.688558  2290 net.cpp:148] Top shape: 10 256 28 28 (2007040)
I0707 11:35:48.688562  2290 net.cpp:156] Memory required for data: 273960960
I0707 11:35:48.688567  2290 layer_factory.hpp:77] Creating layer inception_3b/1x1
I0707 11:35:48.688583  2290 net.cpp:91] Creating Layer inception_3b/1x1
I0707 11:35:48.688590  2290 net.cpp:425] inception_3b/1x1 <- inception_3a/output_inception_3a/output_0_split_0
I0707 11:35:48.688601  2290 net.cpp:399] inception_3b/1x1 -> inception_3b/1x1
I0707 11:35:48.691198  2294 net.cpp:141] Setting up inception_3b/1x1
I0707 11:35:48.691220  2294 net.cpp:148] Top shape: 10 128 28 28 (1003520)
I0707 11:35:48.691226  2294 net.cpp:156] Memory required for data: 277975040
I0707 11:35:48.691236  2294 layer_factory.hpp:77] Creating layer inception_3b/relu_1x1
I0707 11:35:48.691246  2294 net.cpp:91] Creating Layer inception_3b/relu_1x1
I0707 11:35:48.691251  2294 net.cpp:425] inception_3b/relu_1x1 <- inception_3b/1x1
I0707 11:35:48.691259  2294 net.cpp:386] inception_3b/relu_1x1 -> inception_3b/1x1 (in-place)
I0707 11:35:48.692330  2294 net.cpp:141] Setting up inception_3b/relu_1x1
I0707 11:35:48.692345  2294 net.cpp:148] Top shape: 10 128 28 28 (1003520)
I0707 11:35:48.692350  2294 net.cpp:156] Memory required for data: 281989120
I0707 11:35:48.692355  2294 layer_factory.hpp:77] Creating layer inception_3b/3x3_reduce
I0707 11:35:48.692373  2294 net.cpp:91] Creating Layer inception_3b/3x3_reduce
I0707 11:35:48.692378  2294 net.cpp:425] inception_3b/3x3_reduce <- inception_3a/output_inception_3a/output_0_split_1
I0707 11:35:48.692394  2294 net.cpp:399] inception_3b/3x3_reduce -> inception_3b/3x3_reduce
I0707 11:35:48.693541  2290 net.cpp:141] Setting up inception_3b/1x1
I0707 11:35:48.693559  2290 net.cpp:148] Top shape: 10 128 28 28 (1003520)
I0707 11:35:48.693565  2290 net.cpp:156] Memory required for data: 277975040
I0707 11:35:48.693574  2290 layer_factory.hpp:77] Creating layer inception_3b/relu_1x1
I0707 11:35:48.693586  2290 net.cpp:91] Creating Layer inception_3b/relu_1x1
I0707 11:35:48.693593  2290 net.cpp:425] inception_3b/relu_1x1 <- inception_3b/1x1
I0707 11:35:48.693600  2290 net.cpp:386] inception_3b/relu_1x1 -> inception_3b/1x1 (in-place)
I0707 11:35:48.695638  2290 net.cpp:141] Setting up inception_3b/relu_1x1
I0707 11:35:48.695655  2290 net.cpp:148] Top shape: 10 128 28 28 (1003520)
I0707 11:35:48.695660  2290 net.cpp:156] Memory required for data: 281989120
I0707 11:35:48.695667  2290 layer_factory.hpp:77] Creating layer inception_3b/3x3_reduce
I0707 11:35:48.695683  2290 net.cpp:91] Creating Layer inception_3b/3x3_reduce
I0707 11:35:48.695689  2290 net.cpp:425] inception_3b/3x3_reduce <- inception_3a/output_inception_3a/output_0_split_1
I0707 11:35:48.695708  2290 net.cpp:399] inception_3b/3x3_reduce -> inception_3b/3x3_reduce
I0707 11:35:48.696357  2294 net.cpp:141] Setting up inception_3b/3x3_reduce
I0707 11:35:48.696383  2294 net.cpp:148] Top shape: 10 128 28 28 (1003520)
I0707 11:35:48.696388  2294 net.cpp:156] Memory required for data: 286003200
I0707 11:35:48.696398  2294 layer_factory.hpp:77] Creating layer inception_3b/relu_3x3_reduce
I0707 11:35:48.696410  2294 net.cpp:91] Creating Layer inception_3b/relu_3x3_reduce
I0707 11:35:48.696416  2294 net.cpp:425] inception_3b/relu_3x3_reduce <- inception_3b/3x3_reduce
I0707 11:35:48.696424  2294 net.cpp:386] inception_3b/relu_3x3_reduce -> inception_3b/3x3_reduce (in-place)
I0707 11:35:48.697628  2294 net.cpp:141] Setting up inception_3b/relu_3x3_reduce
I0707 11:35:48.697645  2294 net.cpp:148] Top shape: 10 128 28 28 (1003520)
I0707 11:35:48.697650  2294 net.cpp:156] Memory required for data: 290017280
I0707 11:35:48.697655  2294 layer_factory.hpp:77] Creating layer inception_3b/3x3
I0707 11:35:48.697672  2294 net.cpp:91] Creating Layer inception_3b/3x3
I0707 11:35:48.697679  2294 net.cpp:425] inception_3b/3x3 <- inception_3b/3x3_reduce
I0707 11:35:48.697692  2294 net.cpp:399] inception_3b/3x3 -> inception_3b/3x3
I0707 11:35:48.700866  2290 net.cpp:141] Setting up inception_3b/3x3_reduce
I0707 11:35:48.700886  2290 net.cpp:148] Top shape: 10 128 28 28 (1003520)
I0707 11:35:48.700892  2290 net.cpp:156] Memory required for data: 286003200
I0707 11:35:48.700902  2290 layer_factory.hpp:77] Creating layer inception_3b/relu_3x3_reduce
I0707 11:35:48.700911  2290 net.cpp:91] Creating Layer inception_3b/relu_3x3_reduce
I0707 11:35:48.700917  2290 net.cpp:425] inception_3b/relu_3x3_reduce <- inception_3b/3x3_reduce
I0707 11:35:48.700924  2290 net.cpp:386] inception_3b/relu_3x3_reduce -> inception_3b/3x3_reduce (in-place)
I0707 11:35:48.701190  2290 net.cpp:141] Setting up inception_3b/relu_3x3_reduce
I0707 11:35:48.701202  2290 net.cpp:148] Top shape: 10 128 28 28 (1003520)
I0707 11:35:48.701207  2290 net.cpp:156] Memory required for data: 290017280
I0707 11:35:48.701212  2290 layer_factory.hpp:77] Creating layer inception_3b/3x3
I0707 11:35:48.701230  2290 net.cpp:91] Creating Layer inception_3b/3x3
I0707 11:35:48.701236  2290 net.cpp:425] inception_3b/3x3 <- inception_3b/3x3_reduce
I0707 11:35:48.701248  2290 net.cpp:399] inception_3b/3x3 -> inception_3b/3x3
I0707 11:35:48.706652  2294 net.cpp:141] Setting up inception_3b/3x3
I0707 11:35:48.706672  2294 net.cpp:148] Top shape: 10 192 28 28 (1505280)
I0707 11:35:48.706677  2294 net.cpp:156] Memory required for data: 296038400
I0707 11:35:48.706697  2294 layer_factory.hpp:77] Creating layer inception_3b/relu_3x3
I0707 11:35:48.706715  2294 net.cpp:91] Creating Layer inception_3b/relu_3x3
I0707 11:35:48.706722  2294 net.cpp:425] inception_3b/relu_3x3 <- inception_3b/3x3
I0707 11:35:48.706730  2294 net.cpp:386] inception_3b/relu_3x3 -> inception_3b/3x3 (in-place)
I0707 11:35:48.707857  2294 net.cpp:141] Setting up inception_3b/relu_3x3
I0707 11:35:48.707873  2294 net.cpp:148] Top shape: 10 192 28 28 (1505280)
I0707 11:35:48.707878  2294 net.cpp:156] Memory required for data: 302059520
I0707 11:35:48.707885  2294 layer_factory.hpp:77] Creating layer inception_3b/5x5_reduce
I0707 11:35:48.707907  2294 net.cpp:91] Creating Layer inception_3b/5x5_reduce
I0707 11:35:48.707914  2294 net.cpp:425] inception_3b/5x5_reduce <- inception_3a/output_inception_3a/output_0_split_2
I0707 11:35:48.707928  2294 net.cpp:399] inception_3b/5x5_reduce -> inception_3b/5x5_reduce
I0707 11:35:48.708217  2290 net.cpp:141] Setting up inception_3b/3x3
I0707 11:35:48.708235  2290 net.cpp:148] Top shape: 10 192 28 28 (1505280)
I0707 11:35:48.708240  2290 net.cpp:156] Memory required for data: 296038400
I0707 11:35:48.708250  2290 layer_factory.hpp:77] Creating layer inception_3b/relu_3x3
I0707 11:35:48.708266  2290 net.cpp:91] Creating Layer inception_3b/relu_3x3
I0707 11:35:48.708271  2290 net.cpp:425] inception_3b/relu_3x3 <- inception_3b/3x3
I0707 11:35:48.708279  2290 net.cpp:386] inception_3b/relu_3x3 -> inception_3b/3x3 (in-place)
I0707 11:35:48.710155  2290 net.cpp:141] Setting up inception_3b/relu_3x3
I0707 11:35:48.710175  2290 net.cpp:148] Top shape: 10 192 28 28 (1505280)
I0707 11:35:48.710180  2290 net.cpp:156] Memory required for data: 302059520
I0707 11:35:48.710186  2290 layer_factory.hpp:77] Creating layer inception_3b/5x5_reduce
I0707 11:35:48.710201  2290 net.cpp:91] Creating Layer inception_3b/5x5_reduce
I0707 11:35:48.710206  2290 net.cpp:425] inception_3b/5x5_reduce <- inception_3a/output_inception_3a/output_0_split_2
I0707 11:35:48.710218  2290 net.cpp:399] inception_3b/5x5_reduce -> inception_3b/5x5_reduce
I0707 11:35:48.712131  2294 net.cpp:141] Setting up inception_3b/5x5_reduce
I0707 11:35:48.712151  2294 net.cpp:148] Top shape: 10 32 28 28 (250880)
I0707 11:35:48.712157  2294 net.cpp:156] Memory required for data: 303063040
I0707 11:35:48.712165  2294 layer_factory.hpp:77] Creating layer inception_3b/relu_5x5_reduce
I0707 11:35:48.712177  2294 net.cpp:91] Creating Layer inception_3b/relu_5x5_reduce
I0707 11:35:48.712184  2294 net.cpp:425] inception_3b/relu_5x5_reduce <- inception_3b/5x5_reduce
I0707 11:35:48.712191  2294 net.cpp:386] inception_3b/relu_5x5_reduce -> inception_3b/5x5_reduce (in-place)
I0707 11:35:48.713217  2294 net.cpp:141] Setting up inception_3b/relu_5x5_reduce
I0707 11:35:48.713232  2294 net.cpp:148] Top shape: 10 32 28 28 (250880)
I0707 11:35:48.713237  2294 net.cpp:156] Memory required for data: 304066560
I0707 11:35:48.713243  2294 layer_factory.hpp:77] Creating layer inception_3b/5x5
I0707 11:35:48.713263  2294 net.cpp:91] Creating Layer inception_3b/5x5
I0707 11:35:48.713269  2294 net.cpp:425] inception_3b/5x5 <- inception_3b/5x5_reduce
I0707 11:35:48.713279  2294 net.cpp:399] inception_3b/5x5 -> inception_3b/5x5
I0707 11:35:48.715663  2290 net.cpp:141] Setting up inception_3b/5x5_reduce
I0707 11:35:48.715684  2290 net.cpp:148] Top shape: 10 32 28 28 (250880)
I0707 11:35:48.715690  2290 net.cpp:156] Memory required for data: 303063040
I0707 11:35:48.715700  2290 layer_factory.hpp:77] Creating layer inception_3b/relu_5x5_reduce
I0707 11:35:48.715711  2290 net.cpp:91] Creating Layer inception_3b/relu_5x5_reduce
I0707 11:35:48.715718  2290 net.cpp:425] inception_3b/relu_5x5_reduce <- inception_3b/5x5_reduce
I0707 11:35:48.715729  2290 net.cpp:386] inception_3b/relu_5x5_reduce -> inception_3b/5x5_reduce (in-place)
I0707 11:35:48.715996  2290 net.cpp:141] Setting up inception_3b/relu_5x5_reduce
I0707 11:35:48.716008  2290 net.cpp:148] Top shape: 10 32 28 28 (250880)
I0707 11:35:48.716012  2290 net.cpp:156] Memory required for data: 304066560
I0707 11:35:48.716017  2290 layer_factory.hpp:77] Creating layer inception_3b/5x5
I0707 11:35:48.716035  2290 net.cpp:91] Creating Layer inception_3b/5x5
I0707 11:35:48.716042  2290 net.cpp:425] inception_3b/5x5 <- inception_3b/5x5_reduce
I0707 11:35:48.716050  2290 net.cpp:399] inception_3b/5x5 -> inception_3b/5x5
I0707 11:35:48.720058  2294 net.cpp:141] Setting up inception_3b/5x5
I0707 11:35:48.720080  2294 net.cpp:148] Top shape: 10 96 28 28 (752640)
I0707 11:35:48.720087  2294 net.cpp:156] Memory required for data: 307077120
I0707 11:35:48.720098  2294 layer_factory.hpp:77] Creating layer inception_3b/relu_5x5
I0707 11:35:48.720106  2294 net.cpp:91] Creating Layer inception_3b/relu_5x5
I0707 11:35:48.720113  2294 net.cpp:425] inception_3b/relu_5x5 <- inception_3b/5x5
I0707 11:35:48.720124  2294 net.cpp:386] inception_3b/relu_5x5 -> inception_3b/5x5 (in-place)
I0707 11:35:48.721983  2294 net.cpp:141] Setting up inception_3b/relu_5x5
I0707 11:35:48.721999  2294 net.cpp:148] Top shape: 10 96 28 28 (752640)
I0707 11:35:48.722004  2294 net.cpp:156] Memory required for data: 310087680
I0707 11:35:48.722009  2294 layer_factory.hpp:77] Creating layer inception_3b/pool
I0707 11:35:48.722024  2294 net.cpp:91] Creating Layer inception_3b/pool
I0707 11:35:48.722030  2294 net.cpp:425] inception_3b/pool <- inception_3a/output_inception_3a/output_0_split_3
I0707 11:35:48.722039  2294 net.cpp:399] inception_3b/pool -> inception_3b/pool
I0707 11:35:48.722182  2294 net.cpp:141] Setting up inception_3b/pool
I0707 11:35:48.722195  2294 net.cpp:148] Top shape: 10 256 28 28 (2007040)
I0707 11:35:48.722199  2294 net.cpp:156] Memory required for data: 318115840
I0707 11:35:48.722204  2294 layer_factory.hpp:77] Creating layer inception_3b/pool_proj
I0707 11:35:48.722221  2294 net.cpp:91] Creating Layer inception_3b/pool_proj
I0707 11:35:48.722228  2294 net.cpp:425] inception_3b/pool_proj <- inception_3b/pool
I0707 11:35:48.722240  2294 net.cpp:399] inception_3b/pool_proj -> inception_3b/pool_proj
I0707 11:35:48.722918  2290 net.cpp:141] Setting up inception_3b/5x5
I0707 11:35:48.722946  2290 net.cpp:148] Top shape: 10 96 28 28 (752640)
I0707 11:35:48.722956  2290 net.cpp:156] Memory required for data: 307077120
I0707 11:35:48.722975  2290 layer_factory.hpp:77] Creating layer inception_3b/relu_5x5
I0707 11:35:48.722991  2290 net.cpp:91] Creating Layer inception_3b/relu_5x5
I0707 11:35:48.723002  2290 net.cpp:425] inception_3b/relu_5x5 <- inception_3b/5x5
I0707 11:35:48.723021  2290 net.cpp:386] inception_3b/relu_5x5 -> inception_3b/5x5 (in-place)
I0707 11:35:48.725669  2290 net.cpp:141] Setting up inception_3b/relu_5x5
I0707 11:35:48.725689  2290 net.cpp:148] Top shape: 10 96 28 28 (752640)
I0707 11:35:48.725694  2290 net.cpp:156] Memory required for data: 310087680
I0707 11:35:48.725700  2290 layer_factory.hpp:77] Creating layer inception_3b/pool
I0707 11:35:48.725719  2290 net.cpp:91] Creating Layer inception_3b/pool
I0707 11:35:48.725726  2290 net.cpp:425] inception_3b/pool <- inception_3a/output_inception_3a/output_0_split_3
I0707 11:35:48.725735  2290 net.cpp:399] inception_3b/pool -> inception_3b/pool
I0707 11:35:48.725847  2290 net.cpp:141] Setting up inception_3b/pool
I0707 11:35:48.725858  2290 net.cpp:148] Top shape: 10 256 28 28 (2007040)
I0707 11:35:48.725863  2290 net.cpp:156] Memory required for data: 318115840
I0707 11:35:48.725868  2290 layer_factory.hpp:77] Creating layer inception_3b/pool_proj
I0707 11:35:48.725885  2290 net.cpp:91] Creating Layer inception_3b/pool_proj
I0707 11:35:48.725891  2290 net.cpp:425] inception_3b/pool_proj <- inception_3b/pool
I0707 11:35:48.725905  2290 net.cpp:399] inception_3b/pool_proj -> inception_3b/pool_proj
I0707 11:35:48.726184  2294 net.cpp:141] Setting up inception_3b/pool_proj
I0707 11:35:48.726200  2294 net.cpp:148] Top shape: 10 64 28 28 (501760)
I0707 11:35:48.726205  2294 net.cpp:156] Memory required for data: 320122880
I0707 11:35:48.726215  2294 layer_factory.hpp:77] Creating layer inception_3b/relu_pool_proj
I0707 11:35:48.726227  2294 net.cpp:91] Creating Layer inception_3b/relu_pool_proj
I0707 11:35:48.726233  2294 net.cpp:425] inception_3b/relu_pool_proj <- inception_3b/pool_proj
I0707 11:35:48.726241  2294 net.cpp:386] inception_3b/relu_pool_proj -> inception_3b/pool_proj (in-place)
I0707 11:35:48.726598  2294 net.cpp:141] Setting up inception_3b/relu_pool_proj
I0707 11:35:48.726611  2294 net.cpp:148] Top shape: 10 64 28 28 (501760)
I0707 11:35:48.726616  2294 net.cpp:156] Memory required for data: 322129920
I0707 11:35:48.726621  2294 layer_factory.hpp:77] Creating layer inception_3b/output
I0707 11:35:48.726634  2294 net.cpp:91] Creating Layer inception_3b/output
I0707 11:35:48.726641  2294 net.cpp:425] inception_3b/output <- inception_3b/1x1
I0707 11:35:48.726647  2294 net.cpp:425] inception_3b/output <- inception_3b/3x3
I0707 11:35:48.726654  2294 net.cpp:425] inception_3b/output <- inception_3b/5x5
I0707 11:35:48.726660  2294 net.cpp:425] inception_3b/output <- inception_3b/pool_proj
I0707 11:35:48.726666  2294 net.cpp:399] inception_3b/output -> inception_3b/output
I0707 11:35:48.726758  2294 net.cpp:141] Setting up inception_3b/output
I0707 11:35:48.726770  2294 net.cpp:148] Top shape: 10 480 28 28 (3763200)
I0707 11:35:48.726775  2294 net.cpp:156] Memory required for data: 337182720
I0707 11:35:48.726780  2294 layer_factory.hpp:77] Creating layer pool3/3x3_s2
I0707 11:35:48.726796  2294 net.cpp:91] Creating Layer pool3/3x3_s2
I0707 11:35:48.726802  2294 net.cpp:425] pool3/3x3_s2 <- inception_3b/output
I0707 11:35:48.726809  2294 net.cpp:399] pool3/3x3_s2 -> pool3/3x3_s2
I0707 11:35:48.727782  2294 net.cpp:141] Setting up pool3/3x3_s2
I0707 11:35:48.727808  2294 net.cpp:148] Top shape: 10 480 14 14 (940800)
I0707 11:35:48.727818  2294 net.cpp:156] Memory required for data: 340945920
I0707 11:35:48.727828  2294 layer_factory.hpp:77] Creating layer pool3/3x3_s2_pool3/3x3_s2_0_split
I0707 11:35:48.727849  2294 net.cpp:91] Creating Layer pool3/3x3_s2_pool3/3x3_s2_0_split
I0707 11:35:48.727860  2294 net.cpp:425] pool3/3x3_s2_pool3/3x3_s2_0_split <- pool3/3x3_s2
I0707 11:35:48.727874  2294 net.cpp:399] pool3/3x3_s2_pool3/3x3_s2_0_split -> pool3/3x3_s2_pool3/3x3_s2_0_split_0
I0707 11:35:48.727891  2294 net.cpp:399] pool3/3x3_s2_pool3/3x3_s2_0_split -> pool3/3x3_s2_pool3/3x3_s2_0_split_1
I0707 11:35:48.727908  2294 net.cpp:399] pool3/3x3_s2_pool3/3x3_s2_0_split -> pool3/3x3_s2_pool3/3x3_s2_0_split_2
I0707 11:35:48.727926  2294 net.cpp:399] pool3/3x3_s2_pool3/3x3_s2_0_split -> pool3/3x3_s2_pool3/3x3_s2_0_split_3
I0707 11:35:48.728763  2294 net.cpp:141] Setting up pool3/3x3_s2_pool3/3x3_s2_0_split
I0707 11:35:48.728785  2294 net.cpp:148] Top shape: 10 480 14 14 (940800)
I0707 11:35:48.728793  2294 net.cpp:148] Top shape: 10 480 14 14 (940800)
I0707 11:35:48.728799  2294 net.cpp:148] Top shape: 10 480 14 14 (940800)
I0707 11:35:48.728804  2294 net.cpp:148] Top shape: 10 480 14 14 (940800)
I0707 11:35:48.728809  2294 net.cpp:156] Memory required for data: 355998720
I0707 11:35:48.728816  2294 layer_factory.hpp:77] Creating layer inception_4a/1x1
I0707 11:35:48.728834  2294 net.cpp:91] Creating Layer inception_4a/1x1
I0707 11:35:48.728842  2294 net.cpp:425] inception_4a/1x1 <- pool3/3x3_s2_pool3/3x3_s2_0_split_0
I0707 11:35:48.728855  2294 net.cpp:399] inception_4a/1x1 -> inception_4a/1x1
I0707 11:35:48.729508  2290 net.cpp:141] Setting up inception_3b/pool_proj
I0707 11:35:48.729533  2290 net.cpp:148] Top shape: 10 64 28 28 (501760)
I0707 11:35:48.729539  2290 net.cpp:156] Memory required for data: 320122880
I0707 11:35:48.729550  2290 layer_factory.hpp:77] Creating layer inception_3b/relu_pool_proj
I0707 11:35:48.729559  2290 net.cpp:91] Creating Layer inception_3b/relu_pool_proj
I0707 11:35:48.729567  2290 net.cpp:425] inception_3b/relu_pool_proj <- inception_3b/pool_proj
I0707 11:35:48.729574  2290 net.cpp:386] inception_3b/relu_pool_proj -> inception_3b/pool_proj (in-place)
I0707 11:35:48.730813  2290 net.cpp:141] Setting up inception_3b/relu_pool_proj
I0707 11:35:48.730831  2290 net.cpp:148] Top shape: 10 64 28 28 (501760)
I0707 11:35:48.730836  2290 net.cpp:156] Memory required for data: 322129920
I0707 11:35:48.730842  2290 layer_factory.hpp:77] Creating layer inception_3b/output
I0707 11:35:48.730851  2290 net.cpp:91] Creating Layer inception_3b/output
I0707 11:35:48.730856  2290 net.cpp:425] inception_3b/output <- inception_3b/1x1
I0707 11:35:48.730865  2290 net.cpp:425] inception_3b/output <- inception_3b/3x3
I0707 11:35:48.730870  2290 net.cpp:425] inception_3b/output <- inception_3b/5x5
I0707 11:35:48.730875  2290 net.cpp:425] inception_3b/output <- inception_3b/pool_proj
I0707 11:35:48.730882  2290 net.cpp:399] inception_3b/output -> inception_3b/output
I0707 11:35:48.731714  2290 net.cpp:141] Setting up inception_3b/output
I0707 11:35:48.731734  2290 net.cpp:148] Top shape: 10 480 28 28 (3763200)
I0707 11:35:48.731742  2290 net.cpp:156] Memory required for data: 337182720
I0707 11:35:48.731747  2290 layer_factory.hpp:77] Creating layer pool3/3x3_s2
I0707 11:35:48.731757  2290 net.cpp:91] Creating Layer pool3/3x3_s2
I0707 11:35:48.731763  2290 net.cpp:425] pool3/3x3_s2 <- inception_3b/output
I0707 11:35:48.731771  2290 net.cpp:399] pool3/3x3_s2 -> pool3/3x3_s2
I0707 11:35:48.731863  2290 net.cpp:141] Setting up pool3/3x3_s2
I0707 11:35:48.731875  2290 net.cpp:148] Top shape: 10 480 14 14 (940800)
I0707 11:35:48.731879  2290 net.cpp:156] Memory required for data: 340945920
I0707 11:35:48.731885  2290 layer_factory.hpp:77] Creating layer pool3/3x3_s2_pool3/3x3_s2_0_split
I0707 11:35:48.731897  2290 net.cpp:91] Creating Layer pool3/3x3_s2_pool3/3x3_s2_0_split
I0707 11:35:48.731904  2290 net.cpp:425] pool3/3x3_s2_pool3/3x3_s2_0_split <- pool3/3x3_s2
I0707 11:35:48.731917  2290 net.cpp:399] pool3/3x3_s2_pool3/3x3_s2_0_split -> pool3/3x3_s2_pool3/3x3_s2_0_split_0
I0707 11:35:48.731931  2290 net.cpp:399] pool3/3x3_s2_pool3/3x3_s2_0_split -> pool3/3x3_s2_pool3/3x3_s2_0_split_1
I0707 11:35:48.731945  2290 net.cpp:399] pool3/3x3_s2_pool3/3x3_s2_0_split -> pool3/3x3_s2_pool3/3x3_s2_0_split_2
I0707 11:35:48.731952  2290 net.cpp:399] pool3/3x3_s2_pool3/3x3_s2_0_split -> pool3/3x3_s2_pool3/3x3_s2_0_split_3
I0707 11:35:48.732781  2290 net.cpp:141] Setting up pool3/3x3_s2_pool3/3x3_s2_0_split
I0707 11:35:48.732796  2290 net.cpp:148] Top shape: 10 480 14 14 (940800)
I0707 11:35:48.732803  2290 net.cpp:148] Top shape: 10 480 14 14 (940800)
I0707 11:35:48.732808  2290 net.cpp:148] Top shape: 10 480 14 14 (940800)
I0707 11:35:48.732815  2290 net.cpp:148] Top shape: 10 480 14 14 (940800)
I0707 11:35:48.732820  2290 net.cpp:156] Memory required for data: 355998720
I0707 11:35:48.732825  2290 layer_factory.hpp:77] Creating layer inception_4a/1x1
I0707 11:35:48.732841  2290 net.cpp:91] Creating Layer inception_4a/1x1
I0707 11:35:48.732846  2290 net.cpp:425] inception_4a/1x1 <- pool3/3x3_s2_pool3/3x3_s2_0_split_0
I0707 11:35:48.732862  2290 net.cpp:399] inception_4a/1x1 -> inception_4a/1x1
I0707 11:35:48.735815  2294 net.cpp:141] Setting up inception_4a/1x1
I0707 11:35:48.735855  2294 net.cpp:148] Top shape: 10 192 14 14 (376320)
I0707 11:35:48.735862  2294 net.cpp:156] Memory required for data: 357504000
I0707 11:35:48.735875  2294 layer_factory.hpp:77] Creating layer inception_4a/relu_1x1
I0707 11:35:48.735893  2294 net.cpp:91] Creating Layer inception_4a/relu_1x1
I0707 11:35:48.735901  2294 net.cpp:425] inception_4a/relu_1x1 <- inception_4a/1x1
I0707 11:35:48.735910  2294 net.cpp:386] inception_4a/relu_1x1 -> inception_4a/1x1 (in-place)
I0707 11:35:48.736233  2294 net.cpp:141] Setting up inception_4a/relu_1x1
I0707 11:35:48.736245  2294 net.cpp:148] Top shape: 10 192 14 14 (376320)
I0707 11:35:48.736249  2294 net.cpp:156] Memory required for data: 359009280
I0707 11:35:48.736254  2294 layer_factory.hpp:77] Creating layer inception_4a/3x3_reduce
I0707 11:35:48.736275  2294 net.cpp:91] Creating Layer inception_4a/3x3_reduce
I0707 11:35:48.736281  2294 net.cpp:425] inception_4a/3x3_reduce <- pool3/3x3_s2_pool3/3x3_s2_0_split_1
I0707 11:35:48.736290  2294 net.cpp:399] inception_4a/3x3_reduce -> inception_4a/3x3_reduce
I0707 11:35:48.741212  2290 net.cpp:141] Setting up inception_4a/1x1
I0707 11:35:48.741235  2290 net.cpp:148] Top shape: 10 192 14 14 (376320)
I0707 11:35:48.741241  2290 net.cpp:156] Memory required for data: 357504000
I0707 11:35:48.741252  2290 layer_factory.hpp:77] Creating layer inception_4a/relu_1x1
I0707 11:35:48.741261  2290 net.cpp:91] Creating Layer inception_4a/relu_1x1
I0707 11:35:48.741271  2290 net.cpp:425] inception_4a/relu_1x1 <- inception_4a/1x1
I0707 11:35:48.741278  2290 net.cpp:386] inception_4a/relu_1x1 -> inception_4a/1x1 (in-place)
I0707 11:35:48.741624  2294 net.cpp:141] Setting up inception_4a/3x3_reduce
I0707 11:35:48.741641  2294 net.cpp:148] Top shape: 10 96 14 14 (188160)
I0707 11:35:48.741646  2294 net.cpp:156] Memory required for data: 359761920
I0707 11:35:48.741667  2294 layer_factory.hpp:77] Creating layer inception_4a/relu_3x3_reduce
I0707 11:35:48.741675  2294 net.cpp:91] Creating Layer inception_4a/relu_3x3_reduce
I0707 11:35:48.741680  2294 net.cpp:425] inception_4a/relu_3x3_reduce <- inception_4a/3x3_reduce
I0707 11:35:48.741690  2294 net.cpp:386] inception_4a/relu_3x3_reduce -> inception_4a/3x3_reduce (in-place)
I0707 11:35:48.742557  2290 net.cpp:141] Setting up inception_4a/relu_1x1
I0707 11:35:48.742574  2290 net.cpp:148] Top shape: 10 192 14 14 (376320)
I0707 11:35:48.742580  2290 net.cpp:156] Memory required for data: 359009280
I0707 11:35:48.742586  2290 layer_factory.hpp:77] Creating layer inception_4a/3x3_reduce
I0707 11:35:48.742586  2294 net.cpp:141] Setting up inception_4a/relu_3x3_reduce
I0707 11:35:48.742600  2294 net.cpp:148] Top shape: 10 96 14 14 (188160)
I0707 11:35:48.742605  2294 net.cpp:156] Memory required for data: 360514560
I0707 11:35:48.742607  2290 net.cpp:91] Creating Layer inception_4a/3x3_reduce
I0707 11:35:48.742610  2294 layer_factory.hpp:77] Creating layer inception_4a/3x3
I0707 11:35:48.742615  2290 net.cpp:425] inception_4a/3x3_reduce <- pool3/3x3_s2_pool3/3x3_s2_0_split_1
I0707 11:35:48.742625  2290 net.cpp:399] inception_4a/3x3_reduce -> inception_4a/3x3_reduce
I0707 11:35:48.742627  2294 net.cpp:91] Creating Layer inception_4a/3x3
I0707 11:35:48.742633  2294 net.cpp:425] inception_4a/3x3 <- inception_4a/3x3_reduce
I0707 11:35:48.742645  2294 net.cpp:399] inception_4a/3x3 -> inception_4a/3x3
I0707 11:35:48.748833  2290 net.cpp:141] Setting up inception_4a/3x3_reduce
I0707 11:35:48.748862  2290 net.cpp:148] Top shape: 10 96 14 14 (188160)
I0707 11:35:48.748869  2290 net.cpp:156] Memory required for data: 359761920
I0707 11:35:48.758755  2290 layer_factory.hpp:77] Creating layer inception_4a/relu_3x3_reduce
I0707 11:35:48.758839  2290 net.cpp:91] Creating Layer inception_4a/relu_3x3_reduce
I0707 11:35:48.758857  2290 net.cpp:425] inception_4a/relu_3x3_reduce <- inception_4a/3x3_reduce
I0707 11:35:48.758878  2290 net.cpp:386] inception_4a/relu_3x3_reduce -> inception_4a/3x3_reduce (in-place)
I0707 11:35:48.763299  2294 net.cpp:141] Setting up inception_4a/3x3
I0707 11:35:48.763342  2294 net.cpp:148] Top shape: 10 208 14 14 (407680)
I0707 11:35:48.763353  2290 net.cpp:141] Setting up inception_4a/relu_3x3_reduce
I0707 11:35:48.763355  2294 net.cpp:156] Memory required for data: 362145280
I0707 11:35:48.763377  2290 net.cpp:148] Top shape: 10 96 14 14 (188160)
I0707 11:35:48.763386  2290 net.cpp:156] Memory required for data: 360514560
I0707 11:35:48.763393  2294 layer_factory.hpp:77] Creating layer inception_4a/relu_3x3
I0707 11:35:48.763396  2290 layer_factory.hpp:77] Creating layer inception_4a/3x3
I0707 11:35:48.763417  2294 net.cpp:91] Creating Layer inception_4a/relu_3x3
I0707 11:35:48.763430  2294 net.cpp:425] inception_4a/relu_3x3 <- inception_4a/3x3
I0707 11:35:48.763438  2290 net.cpp:91] Creating Layer inception_4a/3x3
I0707 11:35:48.763450  2290 net.cpp:425] inception_4a/3x3 <- inception_4a/3x3_reduce
I0707 11:35:48.763450  2294 net.cpp:386] inception_4a/relu_3x3 -> inception_4a/3x3 (in-place)
I0707 11:35:48.763479  2290 net.cpp:399] inception_4a/3x3 -> inception_4a/3x3
I0707 11:35:48.766186  2294 net.cpp:141] Setting up inception_4a/relu_3x3
I0707 11:35:48.766217  2294 net.cpp:148] Top shape: 10 208 14 14 (407680)
I0707 11:35:48.766227  2294 net.cpp:156] Memory required for data: 363776000
I0707 11:35:48.766333  2294 layer_factory.hpp:77] Creating layer inception_4a/5x5_reduce
I0707 11:35:48.766360  2294 net.cpp:91] Creating Layer inception_4a/5x5_reduce
I0707 11:35:48.766371  2294 net.cpp:425] inception_4a/5x5_reduce <- pool3/3x3_s2_pool3/3x3_s2_0_split_2
I0707 11:35:48.766394  2294 net.cpp:399] inception_4a/5x5_reduce -> inception_4a/5x5_reduce
I0707 11:35:48.777197  2294 net.cpp:141] Setting up inception_4a/5x5_reduce
I0707 11:35:48.777266  2294 net.cpp:148] Top shape: 10 16 14 14 (31360)
I0707 11:35:48.777279  2294 net.cpp:156] Memory required for data: 363901440
I0707 11:35:48.777307  2294 layer_factory.hpp:77] Creating layer inception_4a/relu_5x5_reduce
I0707 11:35:48.777335  2294 net.cpp:91] Creating Layer inception_4a/relu_5x5_reduce
I0707 11:35:48.777353  2294 net.cpp:425] inception_4a/relu_5x5_reduce <- inception_4a/5x5_reduce
I0707 11:35:48.777370  2294 net.cpp:386] inception_4a/relu_5x5_reduce -> inception_4a/5x5_reduce (in-place)
I0707 11:35:48.777428  2290 net.cpp:141] Setting up inception_4a/3x3
I0707 11:35:48.777451  2290 net.cpp:148] Top shape: 10 208 14 14 (407680)
I0707 11:35:48.777462  2290 net.cpp:156] Memory required for data: 362145280
I0707 11:35:48.777482  2290 layer_factory.hpp:77] Creating layer inception_4a/relu_3x3
I0707 11:35:48.777496  2290 net.cpp:91] Creating Layer inception_4a/relu_3x3
I0707 11:35:48.777508  2290 net.cpp:425] inception_4a/relu_3x3 <- inception_4a/3x3
I0707 11:35:48.777529  2290 net.cpp:386] inception_4a/relu_3x3 -> inception_4a/3x3 (in-place)
I0707 11:35:48.778781  2294 net.cpp:141] Setting up inception_4a/relu_5x5_reduce
I0707 11:35:48.778781  2290 net.cpp:141] Setting up inception_4a/relu_3x3
I0707 11:35:48.778807  2294 net.cpp:148] Top shape: 10 16 14 14 (31360)
I0707 11:35:48.778811  2290 net.cpp:148] Top shape: 10 208 14 14 (407680)
I0707 11:35:48.778818  2294 net.cpp:156] Memory required for data: 364026880
I0707 11:35:48.778820  2290 net.cpp:156] Memory required for data: 363776000
I0707 11:35:48.778831  2294 layer_factory.hpp:77] Creating layer inception_4a/5x5
I0707 11:35:48.778833  2290 layer_factory.hpp:77] Creating layer inception_4a/5x5_reduce
I0707 11:35:48.778864  2290 net.cpp:91] Creating Layer inception_4a/5x5_reduce
I0707 11:35:48.778872  2294 net.cpp:91] Creating Layer inception_4a/5x5
I0707 11:35:48.778878  2290 net.cpp:425] inception_4a/5x5_reduce <- pool3/3x3_s2_pool3/3x3_s2_0_split_2
I0707 11:35:48.778882  2294 net.cpp:425] inception_4a/5x5 <- inception_4a/5x5_reduce
I0707 11:35:48.778904  2294 net.cpp:399] inception_4a/5x5 -> inception_4a/5x5
I0707 11:35:48.778909  2290 net.cpp:399] inception_4a/5x5_reduce -> inception_4a/5x5_reduce
I0707 11:35:48.786490  2294 net.cpp:141] Setting up inception_4a/5x5
I0707 11:35:48.786525  2294 net.cpp:148] Top shape: 10 48 14 14 (94080)
I0707 11:35:48.786536  2294 net.cpp:156] Memory required for data: 364403200
I0707 11:35:48.786556  2294 layer_factory.hpp:77] Creating layer inception_4a/relu_5x5
I0707 11:35:48.786566  2290 net.cpp:141] Setting up inception_4a/5x5_reduce
I0707 11:35:48.786576  2294 net.cpp:91] Creating Layer inception_4a/relu_5x5
I0707 11:35:48.786582  2290 net.cpp:148] Top shape: 10 16 14 14 (31360)
I0707 11:35:48.786586  2294 net.cpp:425] inception_4a/relu_5x5 <- inception_4a/5x5
I0707 11:35:48.786592  2290 net.cpp:156] Memory required for data: 363901440
I0707 11:35:48.786603  2294 net.cpp:386] inception_4a/relu_5x5 -> inception_4a/5x5 (in-place)
I0707 11:35:48.786607  2290 layer_factory.hpp:77] Creating layer inception_4a/relu_5x5_reduce
I0707 11:35:48.786619  2290 net.cpp:91] Creating Layer inception_4a/relu_5x5_reduce
I0707 11:35:48.786629  2290 net.cpp:425] inception_4a/relu_5x5_reduce <- inception_4a/5x5_reduce
I0707 11:35:48.786643  2290 net.cpp:386] inception_4a/relu_5x5_reduce -> inception_4a/5x5_reduce (in-place)
I0707 11:35:48.788691  2290 net.cpp:141] Setting up inception_4a/relu_5x5_reduce
I0707 11:35:48.788691  2294 net.cpp:141] Setting up inception_4a/relu_5x5
I0707 11:35:48.788727  2290 net.cpp:148] Top shape: 10 16 14 14 (31360)
I0707 11:35:48.788730  2294 net.cpp:148] Top shape: 10 48 14 14 (94080)
I0707 11:35:48.788739  2290 net.cpp:156] Memory required for data: 364026880
I0707 11:35:48.788743  2294 net.cpp:156] Memory required for data: 364779520
I0707 11:35:48.788758  2290 layer_factory.hpp:77] Creating layer inception_4a/5x5
I0707 11:35:48.788763  2294 layer_factory.hpp:77] Creating layer inception_4a/pool
I0707 11:35:48.788786  2294 net.cpp:91] Creating Layer inception_4a/pool
I0707 11:35:48.788786  2290 net.cpp:91] Creating Layer inception_4a/5x5
I0707 11:35:48.788805  2294 net.cpp:425] inception_4a/pool <- pool3/3x3_s2_pool3/3x3_s2_0_split_3
I0707 11:35:48.788807  2290 net.cpp:425] inception_4a/5x5 <- inception_4a/5x5_reduce
I0707 11:35:48.788839  2294 net.cpp:399] inception_4a/pool -> inception_4a/pool
I0707 11:35:48.788861  2290 net.cpp:399] inception_4a/5x5 -> inception_4a/5x5
I0707 11:35:48.789033  2294 net.cpp:141] Setting up inception_4a/pool
I0707 11:35:48.789059  2294 net.cpp:148] Top shape: 10 480 14 14 (940800)
I0707 11:35:48.789068  2294 net.cpp:156] Memory required for data: 368542720
I0707 11:35:48.789082  2294 layer_factory.hpp:77] Creating layer inception_4a/pool_proj
I0707 11:35:48.789125  2294 net.cpp:91] Creating Layer inception_4a/pool_proj
I0707 11:35:48.789142  2294 net.cpp:425] inception_4a/pool_proj <- inception_4a/pool
I0707 11:35:48.789166  2294 net.cpp:399] inception_4a/pool_proj -> inception_4a/pool_proj
I0707 11:35:48.794976  2290 net.cpp:141] Setting up inception_4a/5x5
I0707 11:35:48.795012  2290 net.cpp:148] Top shape: 10 48 14 14 (94080)
I0707 11:35:48.795017  2294 net.cpp:141] Setting up inception_4a/pool_proj
I0707 11:35:48.795023  2290 net.cpp:156] Memory required for data: 364403200
I0707 11:35:48.795034  2294 net.cpp:148] Top shape: 10 64 14 14 (125440)
I0707 11:35:48.795040  2290 layer_factory.hpp:77] Creating layer inception_4a/relu_5x5
I0707 11:35:48.795042  2294 net.cpp:156] Memory required for data: 369044480
I0707 11:35:48.795059  2290 net.cpp:91] Creating Layer inception_4a/relu_5x5
I0707 11:35:48.795068  2294 layer_factory.hpp:77] Creating layer inception_4a/relu_pool_proj
I0707 11:35:48.795070  2290 net.cpp:425] inception_4a/relu_5x5 <- inception_4a/5x5
I0707 11:35:48.795083  2290 net.cpp:386] inception_4a/relu_5x5 -> inception_4a/5x5 (in-place)
I0707 11:35:48.795090  2294 net.cpp:91] Creating Layer inception_4a/relu_pool_proj
I0707 11:35:48.795101  2294 net.cpp:425] inception_4a/relu_pool_proj <- inception_4a/pool_proj
I0707 11:35:48.795115  2294 net.cpp:386] inception_4a/relu_pool_proj -> inception_4a/pool_proj (in-place)
I0707 11:35:48.796449  2294 net.cpp:141] Setting up inception_4a/relu_pool_proj
I0707 11:35:48.796452  2290 net.cpp:141] Setting up inception_4a/relu_5x5
I0707 11:35:48.796474  2294 net.cpp:148] Top shape: 10 64 14 14 (125440)
I0707 11:35:48.796478  2290 net.cpp:148] Top shape: 10 48 14 14 (94080)
I0707 11:35:48.796485  2290 net.cpp:156] Memory required for data: 364779520
I0707 11:35:48.796484  2294 net.cpp:156] Memory required for data: 369546240
I0707 11:35:48.796499  2290 layer_factory.hpp:77] Creating layer inception_4a/pool
I0707 11:35:48.796502  2294 layer_factory.hpp:77] Creating layer inception_4a/output
I0707 11:35:48.796514  2290 net.cpp:91] Creating Layer inception_4a/pool
I0707 11:35:48.796515  2294 net.cpp:91] Creating Layer inception_4a/output
I0707 11:35:48.796528  2290 net.cpp:425] inception_4a/pool <- pool3/3x3_s2_pool3/3x3_s2_0_split_3
I0707 11:35:48.796530  2294 net.cpp:425] inception_4a/output <- inception_4a/1x1
I0707 11:35:48.796546  2294 net.cpp:425] inception_4a/output <- inception_4a/3x3
I0707 11:35:48.796551  2290 net.cpp:399] inception_4a/pool -> inception_4a/pool
I0707 11:35:48.796558  2294 net.cpp:425] inception_4a/output <- inception_4a/5x5
I0707 11:35:48.796568  2294 net.cpp:425] inception_4a/output <- inception_4a/pool_proj
I0707 11:35:48.796582  2294 net.cpp:399] inception_4a/output -> inception_4a/output
I0707 11:35:48.796675  2294 net.cpp:141] Setting up inception_4a/output
I0707 11:35:48.796694  2294 net.cpp:148] Top shape: 10 512 14 14 (1003520)
I0707 11:35:48.796707  2294 net.cpp:156] Memory required for data: 373560320
I0707 11:35:48.796715  2290 net.cpp:141] Setting up inception_4a/pool
I0707 11:35:48.796716  2294 layer_factory.hpp:77] Creating layer inception_4a/output_inception_4a/output_0_split
I0707 11:35:48.796735  2290 net.cpp:148] Top shape: 10 480 14 14 (940800)
I0707 11:35:48.796741  2294 net.cpp:91] Creating Layer inception_4a/output_inception_4a/output_0_split
I0707 11:35:48.796742  2290 net.cpp:156] Memory required for data: 368542720
I0707 11:35:48.796754  2294 net.cpp:425] inception_4a/output_inception_4a/output_0_split <- inception_4a/output
I0707 11:35:48.796758  2290 layer_factory.hpp:77] Creating layer inception_4a/pool_proj
I0707 11:35:48.796768  2294 net.cpp:399] inception_4a/output_inception_4a/output_0_split -> inception_4a/output_inception_4a/output_0_split_0
I0707 11:35:48.796785  2294 net.cpp:399] inception_4a/output_inception_4a/output_0_split -> inception_4a/output_inception_4a/output_0_split_1
I0707 11:35:48.796785  2290 net.cpp:91] Creating Layer inception_4a/pool_proj
I0707 11:35:48.796805  2290 net.cpp:425] inception_4a/pool_proj <- inception_4a/pool
I0707 11:35:48.796805  2294 net.cpp:399] inception_4a/output_inception_4a/output_0_split -> inception_4a/output_inception_4a/output_0_split_2
I0707 11:35:48.796831  2290 net.cpp:399] inception_4a/pool_proj -> inception_4a/pool_proj
I0707 11:35:48.796839  2294 net.cpp:399] inception_4a/output_inception_4a/output_0_split -> inception_4a/output_inception_4a/output_0_split_3
I0707 11:35:48.797161  2294 net.cpp:141] Setting up inception_4a/output_inception_4a/output_0_split
I0707 11:35:48.797181  2294 net.cpp:148] Top shape: 10 512 14 14 (1003520)
I0707 11:35:48.797193  2294 net.cpp:148] Top shape: 10 512 14 14 (1003520)
I0707 11:35:48.797204  2294 net.cpp:148] Top shape: 10 512 14 14 (1003520)
I0707 11:35:48.797215  2294 net.cpp:148] Top shape: 10 512 14 14 (1003520)
I0707 11:35:48.797224  2294 net.cpp:156] Memory required for data: 389616640
I0707 11:35:48.797233  2294 layer_factory.hpp:77] Creating layer inception_4b/1x1
I0707 11:35:48.797260  2294 net.cpp:91] Creating Layer inception_4b/1x1
I0707 11:35:48.797273  2294 net.cpp:425] inception_4b/1x1 <- inception_4a/output_inception_4a/output_0_split_0
I0707 11:35:48.797296  2294 net.cpp:399] inception_4b/1x1 -> inception_4b/1x1
I0707 11:35:48.803254  2290 net.cpp:141] Setting up inception_4a/pool_proj
I0707 11:35:48.803282  2290 net.cpp:148] Top shape: 10 64 14 14 (125440)
I0707 11:35:48.803292  2290 net.cpp:156] Memory required for data: 369044480
I0707 11:35:48.803309  2290 layer_factory.hpp:77] Creating layer inception_4a/relu_pool_proj
I0707 11:35:48.803325  2290 net.cpp:91] Creating Layer inception_4a/relu_pool_proj
I0707 11:35:48.803338  2290 net.cpp:425] inception_4a/relu_pool_proj <- inception_4a/pool_proj
I0707 11:35:48.803356  2290 net.cpp:386] inception_4a/relu_pool_proj -> inception_4a/pool_proj (in-place)
I0707 11:35:48.804419  2294 net.cpp:141] Setting up inception_4b/1x1
I0707 11:35:48.804445  2294 net.cpp:148] Top shape: 10 160 14 14 (313600)
I0707 11:35:48.804455  2294 net.cpp:156] Memory required for data: 390871040
I0707 11:35:48.804463  2290 net.cpp:141] Setting up inception_4a/relu_pool_proj
I0707 11:35:48.804472  2294 layer_factory.hpp:77] Creating layer inception_4b/relu_1x1
I0707 11:35:48.804479  2290 net.cpp:148] Top shape: 10 64 14 14 (125440)
I0707 11:35:48.804486  2294 net.cpp:91] Creating Layer inception_4b/relu_1x1
I0707 11:35:48.804487  2290 net.cpp:156] Memory required for data: 369546240
I0707 11:35:48.804502  2294 net.cpp:425] inception_4b/relu_1x1 <- inception_4b/1x1
I0707 11:35:48.804505  2290 layer_factory.hpp:77] Creating layer inception_4a/output
I0707 11:35:48.804528  2290 net.cpp:91] Creating Layer inception_4a/output
I0707 11:35:48.804528  2294 net.cpp:386] inception_4b/relu_1x1 -> inception_4b/1x1 (in-place)
I0707 11:35:48.804543  2290 net.cpp:425] inception_4a/output <- inception_4a/1x1
I0707 11:35:48.804555  2290 net.cpp:425] inception_4a/output <- inception_4a/3x3
I0707 11:35:48.804568  2290 net.cpp:425] inception_4a/output <- inception_4a/5x5
I0707 11:35:48.804579  2290 net.cpp:425] inception_4a/output <- inception_4a/pool_proj
I0707 11:35:48.804592  2290 net.cpp:399] inception_4a/output -> inception_4a/output
I0707 11:35:48.804843  2290 net.cpp:141] Setting up inception_4a/output
I0707 11:35:48.804862  2290 net.cpp:148] Top shape: 10 512 14 14 (1003520)
I0707 11:35:48.804870  2290 net.cpp:156] Memory required for data: 373560320
I0707 11:35:48.804880  2290 layer_factory.hpp:77] Creating layer inception_4a/output_inception_4a/output_0_split
I0707 11:35:48.804894  2290 net.cpp:91] Creating Layer inception_4a/output_inception_4a/output_0_split
I0707 11:35:48.804906  2290 net.cpp:425] inception_4a/output_inception_4a/output_0_split <- inception_4a/output
I0707 11:35:48.804927  2290 net.cpp:399] inception_4a/output_inception_4a/output_0_split -> inception_4a/output_inception_4a/output_0_split_0
I0707 11:35:48.804946  2290 net.cpp:399] inception_4a/output_inception_4a/output_0_split -> inception_4a/output_inception_4a/output_0_split_1
I0707 11:35:48.804963  2290 net.cpp:399] inception_4a/output_inception_4a/output_0_split -> inception_4a/output_inception_4a/output_0_split_2
I0707 11:35:48.804978  2290 net.cpp:399] inception_4a/output_inception_4a/output_0_split -> inception_4a/output_inception_4a/output_0_split_3
I0707 11:35:48.805001  2294 net.cpp:141] Setting up inception_4b/relu_1x1
I0707 11:35:48.805023  2294 net.cpp:148] Top shape: 10 160 14 14 (313600)
I0707 11:35:48.805033  2294 net.cpp:156] Memory required for data: 392125440
I0707 11:35:48.805042  2294 layer_factory.hpp:77] Creating layer inception_4b/3x3_reduce
I0707 11:35:48.805069  2294 net.cpp:91] Creating Layer inception_4b/3x3_reduce
I0707 11:35:48.805081  2294 net.cpp:425] inception_4b/3x3_reduce <- inception_4a/output_inception_4a/output_0_split_1
I0707 11:35:48.805099  2294 net.cpp:399] inception_4b/3x3_reduce -> inception_4b/3x3_reduce
I0707 11:35:48.805225  2290 net.cpp:141] Setting up inception_4a/output_inception_4a/output_0_split
I0707 11:35:48.805245  2290 net.cpp:148] Top shape: 10 512 14 14 (1003520)
I0707 11:35:48.805258  2290 net.cpp:148] Top shape: 10 512 14 14 (1003520)
I0707 11:35:48.805269  2290 net.cpp:148] Top shape: 10 512 14 14 (1003520)
I0707 11:35:48.805279  2290 net.cpp:148] Top shape: 10 512 14 14 (1003520)
I0707 11:35:48.805286  2290 net.cpp:156] Memory required for data: 389616640
I0707 11:35:48.805295  2290 layer_factory.hpp:77] Creating layer inception_4b/1x1
I0707 11:35:48.805330  2290 net.cpp:91] Creating Layer inception_4b/1x1
I0707 11:35:48.805342  2290 net.cpp:425] inception_4b/1x1 <- inception_4a/output_inception_4a/output_0_split_0
I0707 11:35:48.805361  2290 net.cpp:399] inception_4b/1x1 -> inception_4b/1x1
I0707 11:35:48.811703  2294 net.cpp:141] Setting up inception_4b/3x3_reduce
I0707 11:35:48.811731  2294 net.cpp:148] Top shape: 10 112 14 14 (219520)
I0707 11:35:48.811741  2294 net.cpp:156] Memory required for data: 393003520
I0707 11:35:48.811759  2294 layer_factory.hpp:77] Creating layer inception_4b/relu_3x3_reduce
I0707 11:35:48.811781  2294 net.cpp:91] Creating Layer inception_4b/relu_3x3_reduce
I0707 11:35:48.811794  2294 net.cpp:425] inception_4b/relu_3x3_reduce <- inception_4b/3x3_reduce
I0707 11:35:48.811808  2294 net.cpp:386] inception_4b/relu_3x3_reduce -> inception_4b/3x3_reduce (in-place)
I0707 11:35:48.812273  2290 net.cpp:141] Setting up inception_4b/1x1
I0707 11:35:48.812297  2290 net.cpp:148] Top shape: 10 160 14 14 (313600)
I0707 11:35:48.812307  2290 net.cpp:156] Memory required for data: 390871040
I0707 11:35:48.812325  2290 layer_factory.hpp:77] Creating layer inception_4b/relu_1x1
I0707 11:35:48.812338  2290 net.cpp:91] Creating Layer inception_4b/relu_1x1
I0707 11:35:48.812350  2290 net.cpp:425] inception_4b/relu_1x1 <- inception_4b/1x1
I0707 11:35:48.812366  2290 net.cpp:386] inception_4b/relu_1x1 -> inception_4b/1x1 (in-place)
I0707 11:35:48.812367  2294 net.cpp:141] Setting up inception_4b/relu_3x3_reduce
I0707 11:35:48.812383  2294 net.cpp:148] Top shape: 10 112 14 14 (219520)
I0707 11:35:48.812393  2294 net.cpp:156] Memory required for data: 393881600
I0707 11:35:48.812402  2294 layer_factory.hpp:77] Creating layer inception_4b/3x3
I0707 11:35:48.812429  2294 net.cpp:91] Creating Layer inception_4b/3x3
I0707 11:35:48.812443  2294 net.cpp:425] inception_4b/3x3 <- inception_4b/3x3_reduce
I0707 11:35:48.812464  2294 net.cpp:399] inception_4b/3x3 -> inception_4b/3x3
I0707 11:35:48.814854  2290 net.cpp:141] Setting up inception_4b/relu_1x1
I0707 11:35:48.814879  2290 net.cpp:148] Top shape: 10 160 14 14 (313600)
I0707 11:35:48.814888  2290 net.cpp:156] Memory required for data: 392125440
I0707 11:35:48.814896  2290 layer_factory.hpp:77] Creating layer inception_4b/3x3_reduce
I0707 11:35:48.814918  2290 net.cpp:91] Creating Layer inception_4b/3x3_reduce
I0707 11:35:48.814927  2290 net.cpp:425] inception_4b/3x3_reduce <- inception_4a/output_inception_4a/output_0_split_1
I0707 11:35:48.814947  2290 net.cpp:399] inception_4b/3x3_reduce -> inception_4b/3x3_reduce
I0707 11:35:48.821879  2290 net.cpp:141] Setting up inception_4b/3x3_reduce
I0707 11:35:48.821938  2290 net.cpp:148] Top shape: 10 112 14 14 (219520)
I0707 11:35:48.821950  2290 net.cpp:156] Memory required for data: 393003520
I0707 11:35:48.821975  2290 layer_factory.hpp:77] Creating layer inception_4b/relu_3x3_reduce
I0707 11:35:48.822006  2290 net.cpp:91] Creating Layer inception_4b/relu_3x3_reduce
I0707 11:35:48.822022  2290 net.cpp:425] inception_4b/relu_3x3_reduce <- inception_4b/3x3_reduce
I0707 11:35:48.822043  2290 net.cpp:386] inception_4b/relu_3x3_reduce -> inception_4b/3x3_reduce (in-place)
I0707 11:35:48.823909  2290 net.cpp:141] Setting up inception_4b/relu_3x3_reduce
I0707 11:35:48.823935  2290 net.cpp:148] Top shape: 10 112 14 14 (219520)
I0707 11:35:48.823945  2290 net.cpp:156] Memory required for data: 393881600
I0707 11:35:48.823954  2290 layer_factory.hpp:77] Creating layer inception_4b/3x3
I0707 11:35:48.823988  2290 net.cpp:91] Creating Layer inception_4b/3x3
I0707 11:35:48.824002  2290 net.cpp:425] inception_4b/3x3 <- inception_4b/3x3_reduce
I0707 11:35:48.824023  2290 net.cpp:399] inception_4b/3x3 -> inception_4b/3x3
I0707 11:35:48.824385  2294 net.cpp:141] Setting up inception_4b/3x3
I0707 11:35:48.824409  2294 net.cpp:148] Top shape: 10 224 14 14 (439040)
I0707 11:35:48.824417  2294 net.cpp:156] Memory required for data: 395637760
I0707 11:35:48.824437  2294 layer_factory.hpp:77] Creating layer inception_4b/relu_3x3
I0707 11:35:48.824456  2294 net.cpp:91] Creating Layer inception_4b/relu_3x3
I0707 11:35:48.824470  2294 net.cpp:425] inception_4b/relu_3x3 <- inception_4b/3x3
I0707 11:35:48.824484  2294 net.cpp:386] inception_4b/relu_3x3 -> inception_4b/3x3 (in-place)
I0707 11:35:48.826216  2294 net.cpp:141] Setting up inception_4b/relu_3x3
I0707 11:35:48.826241  2294 net.cpp:148] Top shape: 10 224 14 14 (439040)
I0707 11:35:48.826249  2294 net.cpp:156] Memory required for data: 397393920
I0707 11:35:48.826257  2294 layer_factory.hpp:77] Creating layer inception_4b/5x5_reduce
I0707 11:35:48.826304  2294 net.cpp:91] Creating Layer inception_4b/5x5_reduce
I0707 11:35:48.826316  2294 net.cpp:425] inception_4b/5x5_reduce <- inception_4a/output_inception_4a/output_0_split_2
I0707 11:35:48.826336  2294 net.cpp:399] inception_4b/5x5_reduce -> inception_4b/5x5_reduce
I0707 11:35:48.832226  2294 net.cpp:141] Setting up inception_4b/5x5_reduce
I0707 11:35:48.832252  2294 net.cpp:148] Top shape: 10 24 14 14 (47040)
I0707 11:35:48.832263  2294 net.cpp:156] Memory required for data: 397582080
I0707 11:35:48.832283  2294 layer_factory.hpp:77] Creating layer inception_4b/relu_5x5_reduce
I0707 11:35:48.832298  2294 net.cpp:91] Creating Layer inception_4b/relu_5x5_reduce
I0707 11:35:48.832309  2294 net.cpp:425] inception_4b/relu_5x5_reduce <- inception_4b/5x5_reduce
I0707 11:35:48.832329  2294 net.cpp:386] inception_4b/relu_5x5_reduce -> inception_4b/5x5_reduce (in-place)
I0707 11:35:48.833564  2290 net.cpp:141] Setting up inception_4b/3x3
I0707 11:35:48.833575  2294 net.cpp:141] Setting up inception_4b/relu_5x5_reduce
I0707 11:35:48.833590  2294 net.cpp:148] Top shape: 10 24 14 14 (47040)
I0707 11:35:48.833590  2290 net.cpp:148] Top shape: 10 224 14 14 (439040)
I0707 11:35:48.833603  2294 net.cpp:156] Memory required for data: 397770240
I0707 11:35:48.833608  2290 net.cpp:156] Memory required for data: 395637760
I0707 11:35:48.833613  2294 layer_factory.hpp:77] Creating layer inception_4b/5x5
I0707 11:35:48.833626  2290 layer_factory.hpp:77] Creating layer inception_4b/relu_3x3
I0707 11:35:48.833639  2294 net.cpp:91] Creating Layer inception_4b/5x5
I0707 11:35:48.833643  2290 net.cpp:91] Creating Layer inception_4b/relu_3x3
I0707 11:35:48.833652  2294 net.cpp:425] inception_4b/5x5 <- inception_4b/5x5_reduce
I0707 11:35:48.833652  2290 net.cpp:425] inception_4b/relu_3x3 <- inception_4b/3x3
I0707 11:35:48.833664  2290 net.cpp:386] inception_4b/relu_3x3 -> inception_4b/3x3 (in-place)
I0707 11:35:48.833673  2294 net.cpp:399] inception_4b/5x5 -> inception_4b/5x5
I0707 11:35:48.834429  2290 net.cpp:141] Setting up inception_4b/relu_3x3
I0707 11:35:48.834447  2290 net.cpp:148] Top shape: 10 224 14 14 (439040)
I0707 11:35:48.834455  2290 net.cpp:156] Memory required for data: 397393920
I0707 11:35:48.834463  2290 layer_factory.hpp:77] Creating layer inception_4b/5x5_reduce
I0707 11:35:48.834501  2290 net.cpp:91] Creating Layer inception_4b/5x5_reduce
I0707 11:35:48.834511  2290 net.cpp:425] inception_4b/5x5_reduce <- inception_4a/output_inception_4a/output_0_split_2
I0707 11:35:48.834527  2290 net.cpp:399] inception_4b/5x5_reduce -> inception_4b/5x5_reduce
I0707 11:35:48.840051  2294 net.cpp:141] Setting up inception_4b/5x5
I0707 11:35:48.840083  2294 net.cpp:148] Top shape: 10 64 14 14 (125440)
I0707 11:35:48.840095  2294 net.cpp:156] Memory required for data: 398272000
I0707 11:35:48.840113  2294 layer_factory.hpp:77] Creating layer inception_4b/relu_5x5
I0707 11:35:48.840128  2294 net.cpp:91] Creating Layer inception_4b/relu_5x5
I0707 11:35:48.840140  2294 net.cpp:425] inception_4b/relu_5x5 <- inception_4b/5x5
I0707 11:35:48.840153  2294 net.cpp:386] inception_4b/relu_5x5 -> inception_4b/5x5 (in-place)
I0707 11:35:48.840662  2290 net.cpp:141] Setting up inception_4b/5x5_reduce
I0707 11:35:48.840687  2290 net.cpp:148] Top shape: 10 24 14 14 (47040)
I0707 11:35:48.840698  2290 net.cpp:156] Memory required for data: 397582080
I0707 11:35:48.840714  2290 layer_factory.hpp:77] Creating layer inception_4b/relu_5x5_reduce
I0707 11:35:48.840734  2290 net.cpp:91] Creating Layer inception_4b/relu_5x5_reduce
I0707 11:35:48.840744  2290 net.cpp:425] inception_4b/relu_5x5_reduce <- inception_4b/5x5_reduce
I0707 11:35:48.840759  2290 net.cpp:386] inception_4b/relu_5x5_reduce -> inception_4b/5x5_reduce (in-place)
I0707 11:35:48.840764  2294 net.cpp:141] Setting up inception_4b/relu_5x5
I0707 11:35:48.840781  2294 net.cpp:148] Top shape: 10 64 14 14 (125440)
I0707 11:35:48.840790  2294 net.cpp:156] Memory required for data: 398773760
I0707 11:35:48.840800  2294 layer_factory.hpp:77] Creating layer inception_4b/pool
I0707 11:35:48.840816  2294 net.cpp:91] Creating Layer inception_4b/pool
I0707 11:35:48.840827  2294 net.cpp:425] inception_4b/pool <- inception_4a/output_inception_4a/output_0_split_3
I0707 11:35:48.840845  2294 net.cpp:399] inception_4b/pool -> inception_4b/pool
I0707 11:35:48.841662  2294 net.cpp:141] Setting up inception_4b/pool
I0707 11:35:48.841691  2294 net.cpp:148] Top shape: 10 512 14 14 (1003520)
I0707 11:35:48.841701  2294 net.cpp:156] Memory required for data: 402787840
I0707 11:35:48.841709  2294 layer_factory.hpp:77] Creating layer inception_4b/pool_proj
I0707 11:35:48.841737  2294 net.cpp:91] Creating Layer inception_4b/pool_proj
I0707 11:35:48.841750  2294 net.cpp:425] inception_4b/pool_proj <- inception_4b/pool
I0707 11:35:48.841766  2294 net.cpp:399] inception_4b/pool_proj -> inception_4b/pool_proj
I0707 11:35:48.842068  2290 net.cpp:141] Setting up inception_4b/relu_5x5_reduce
I0707 11:35:48.842093  2290 net.cpp:148] Top shape: 10 24 14 14 (47040)
I0707 11:35:48.842103  2290 net.cpp:156] Memory required for data: 397770240
I0707 11:35:48.842113  2290 layer_factory.hpp:77] Creating layer inception_4b/5x5
I0707 11:35:48.842140  2290 net.cpp:91] Creating Layer inception_4b/5x5
I0707 11:35:48.842154  2290 net.cpp:425] inception_4b/5x5 <- inception_4b/5x5_reduce
I0707 11:35:48.842170  2290 net.cpp:399] inception_4b/5x5 -> inception_4b/5x5
I0707 11:35:48.848433  2294 net.cpp:141] Setting up inception_4b/pool_proj
I0707 11:35:48.848459  2294 net.cpp:148] Top shape: 10 64 14 14 (125440)
I0707 11:35:48.848475  2294 net.cpp:156] Memory required for data: 403289600
I0707 11:35:48.848493  2294 layer_factory.hpp:77] Creating layer inception_4b/relu_pool_proj
I0707 11:35:48.848508  2294 net.cpp:91] Creating Layer inception_4b/relu_pool_proj
I0707 11:35:48.848520  2294 net.cpp:425] inception_4b/relu_pool_proj <- inception_4b/pool_proj
I0707 11:35:48.848532  2294 net.cpp:386] inception_4b/relu_pool_proj -> inception_4b/pool_proj (in-place)
I0707 11:35:48.849508  2290 net.cpp:141] Setting up inception_4b/5x5
I0707 11:35:48.849534  2290 net.cpp:148] Top shape: 10 64 14 14 (125440)
I0707 11:35:48.849545  2290 net.cpp:156] Memory required for data: 398272000
I0707 11:35:48.849561  2290 layer_factory.hpp:77] Creating layer inception_4b/relu_5x5
I0707 11:35:48.849583  2290 net.cpp:91] Creating Layer inception_4b/relu_5x5
I0707 11:35:48.849594  2290 net.cpp:425] inception_4b/relu_5x5 <- inception_4b/5x5
I0707 11:35:48.849607  2290 net.cpp:386] inception_4b/relu_5x5 -> inception_4b/5x5 (in-place)
I0707 11:35:48.849877  2294 net.cpp:141] Setting up inception_4b/relu_pool_proj
I0707 11:35:48.849903  2294 net.cpp:148] Top shape: 10 64 14 14 (125440)
I0707 11:35:48.849913  2294 net.cpp:156] Memory required for data: 403791360
I0707 11:35:48.849923  2294 layer_factory.hpp:77] Creating layer inception_4b/output
I0707 11:35:48.849939  2294 net.cpp:91] Creating Layer inception_4b/output
I0707 11:35:48.849949  2294 net.cpp:425] inception_4b/output <- inception_4b/1x1
I0707 11:35:48.849961  2294 net.cpp:425] inception_4b/output <- inception_4b/3x3
I0707 11:35:48.849972  2294 net.cpp:425] inception_4b/output <- inception_4b/5x5
I0707 11:35:48.849982  2294 net.cpp:425] inception_4b/output <- inception_4b/pool_proj
I0707 11:35:48.849995  2294 net.cpp:399] inception_4b/output -> inception_4b/output
I0707 11:35:48.850023  2290 net.cpp:141] Setting up inception_4b/relu_5x5
I0707 11:35:48.850042  2290 net.cpp:148] Top shape: 10 64 14 14 (125440)
I0707 11:35:48.850051  2290 net.cpp:156] Memory required for data: 398773760
I0707 11:35:48.850060  2290 layer_factory.hpp:77] Creating layer inception_4b/pool
I0707 11:35:48.850076  2290 net.cpp:91] Creating Layer inception_4b/pool
I0707 11:35:48.850077  2294 net.cpp:141] Setting up inception_4b/output
I0707 11:35:48.850088  2290 net.cpp:425] inception_4b/pool <- inception_4a/output_inception_4a/output_0_split_3
I0707 11:35:48.850091  2294 net.cpp:148] Top shape: 10 512 14 14 (1003520)
I0707 11:35:48.850100  2294 net.cpp:156] Memory required for data: 407805440
I0707 11:35:48.850108  2294 layer_factory.hpp:77] Creating layer inception_4b/output_inception_4b/output_0_split
I0707 11:35:48.850109  2290 net.cpp:399] inception_4b/pool -> inception_4b/pool
I0707 11:35:48.850133  2294 net.cpp:91] Creating Layer inception_4b/output_inception_4b/output_0_split
I0707 11:35:48.850145  2294 net.cpp:425] inception_4b/output_inception_4b/output_0_split <- inception_4b/output
I0707 11:35:48.850159  2294 net.cpp:399] inception_4b/output_inception_4b/output_0_split -> inception_4b/output_inception_4b/output_0_split_0
I0707 11:35:48.850175  2294 net.cpp:399] inception_4b/output_inception_4b/output_0_split -> inception_4b/output_inception_4b/output_0_split_1
I0707 11:35:48.850193  2294 net.cpp:399] inception_4b/output_inception_4b/output_0_split -> inception_4b/output_inception_4b/output_0_split_2
I0707 11:35:48.850209  2294 net.cpp:399] inception_4b/output_inception_4b/output_0_split -> inception_4b/output_inception_4b/output_0_split_3
I0707 11:35:48.850247  2290 net.cpp:141] Setting up inception_4b/pool
I0707 11:35:48.850266  2290 net.cpp:148] Top shape: 10 512 14 14 (1003520)
I0707 11:35:48.850275  2290 net.cpp:156] Memory required for data: 402787840
I0707 11:35:48.850284  2290 layer_factory.hpp:77] Creating layer inception_4b/pool_proj
I0707 11:35:48.850316  2290 net.cpp:91] Creating Layer inception_4b/pool_proj
I0707 11:35:48.850329  2290 net.cpp:425] inception_4b/pool_proj <- inception_4b/pool
I0707 11:35:48.850347  2290 net.cpp:399] inception_4b/pool_proj -> inception_4b/pool_proj
I0707 11:35:48.850481  2294 net.cpp:141] Setting up inception_4b/output_inception_4b/output_0_split
I0707 11:35:48.850502  2294 net.cpp:148] Top shape: 10 512 14 14 (1003520)
I0707 11:35:48.850514  2294 net.cpp:148] Top shape: 10 512 14 14 (1003520)
I0707 11:35:48.850525  2294 net.cpp:148] Top shape: 10 512 14 14 (1003520)
I0707 11:35:48.850536  2294 net.cpp:148] Top shape: 10 512 14 14 (1003520)
I0707 11:35:48.850544  2294 net.cpp:156] Memory required for data: 423861760
I0707 11:35:48.850555  2294 layer_factory.hpp:77] Creating layer inception_4c/1x1
I0707 11:35:48.850582  2294 net.cpp:91] Creating Layer inception_4c/1x1
I0707 11:35:48.850595  2294 net.cpp:425] inception_4c/1x1 <- inception_4b/output_inception_4b/output_0_split_0
I0707 11:35:48.850616  2294 net.cpp:399] inception_4c/1x1 -> inception_4c/1x1
I0707 11:35:48.856907  2290 net.cpp:141] Setting up inception_4b/pool_proj
I0707 11:35:48.856935  2290 net.cpp:148] Top shape: 10 64 14 14 (125440)
I0707 11:35:48.856945  2290 net.cpp:156] Memory required for data: 403289600
I0707 11:35:48.856962  2290 layer_factory.hpp:77] Creating layer inception_4b/relu_pool_proj
I0707 11:35:48.856983  2290 net.cpp:91] Creating Layer inception_4b/relu_pool_proj
I0707 11:35:48.856997  2290 net.cpp:425] inception_4b/relu_pool_proj <- inception_4b/pool_proj
I0707 11:35:48.857010  2290 net.cpp:386] inception_4b/relu_pool_proj -> inception_4b/pool_proj (in-place)
I0707 11:35:48.858062  2294 net.cpp:141] Setting up inception_4c/1x1
I0707 11:35:48.858086  2294 net.cpp:148] Top shape: 10 128 14 14 (250880)
I0707 11:35:48.858095  2294 net.cpp:156] Memory required for data: 424865280
I0707 11:35:48.858113  2294 layer_factory.hpp:77] Creating layer inception_4c/relu_1x1
I0707 11:35:48.858139  2294 net.cpp:91] Creating Layer inception_4c/relu_1x1
…
I0707 11:35:49.031430  2294 net.cpp:425] inception_4e/relu_5x5 <- inception_4e/5x5
I0707 11:35:49.031441  2294 net.cpp:386] inception_4e/relu_5x5 -> inception_4e/5x5 (in-place)
I0707 11:35:49.033305  2294 net.cpp:141] Setting up inception_4e/relu_5x5
I0707 11:35:49.033330  2294 net.cpp:148] Top shape: 10 128 14 14 (250880)
I0707 11:35:49.033340  2294 net.cpp:156] Memory required for data: 508157440
I0707 11:35:49.033350  2294 layer_factory.hpp:77] Creating layer inception_4e/pool
I0707 11:35:49.033373  2294 net.cpp:91] Creating Layer inception_4e/pool
I0707 11:35:49.033386  2294 net.cpp:425] inception_4e/pool <- inception_4d/output_inception_4d/output_0_split_3
I0707 11:35:49.033401  2294 net.cpp:399] inception_4e/pool -> inception_4e/pool
I0707 11:35:49.033601  2294 net.cpp:141] Setting up inception_4e/pool
I0707 11:35:49.033620  2294 net.cpp:148] Top shape: 10 528 14 14 (1034880)
I0707 11:35:49.033629  2294 net.cpp:156] Memory required for data: 512296960
I0707 11:35:49.033638  2294 layer_factory.hpp:77] Creating layer inception_4e/pool_proj
I0707 11:35:49.033663  2294 net.cpp:91] Creating Layer inception_4e/pool_proj
I0707 11:35:49.033677  2294 net.cpp:425] inception_4e/pool_proj <- inception_4e/pool
I0707 11:35:49.033699  2294 net.cpp:399] inception_4e/pool_proj -> inception_4e/pool_proj
I0707 11:35:49.033790  2290 net.cpp:141] Setting up inception_4e/5x5
I0707 11:35:49.033812  2290 net.cpp:148] Top shape: 10 128 14 14 (250880)
I0707 11:35:49.033820  2290 net.cpp:156] Memory required for data: 507153920
I0707 11:35:49.033836  2290 layer_factory.hpp:77] Creating layer inception_4e/relu_5x5
I0707 11:35:49.033855  2290 net.cpp:91] Creating Layer inception_4e/relu_5x5
I0707 11:35:49.033869  2290 net.cpp:425] inception_4e/relu_5x5 <- inception_4e/5x5
I0707 11:35:49.033881  2290 net.cpp:386] inception_4e/relu_5x5 -> inception_4e/5x5 (in-place)
I0707 11:35:49.035817  2290 net.cpp:141] Setting up inception_4e/relu_5x5
I0707 11:35:49.035842  2290 net.cpp:148] Top shape: 10 128 14 14 (250880)
I0707 11:35:49.035851  2290 net.cpp:156] Memory required for data: 508157440
I0707 11:35:49.035859  2290 layer_factory.hpp:77] Creating layer inception_4e/pool
I0707 11:35:49.035878  2290 net.cpp:91] Creating Layer inception_4e/pool
I0707 11:35:49.035889  2290 net.cpp:425] inception_4e/pool <- inception_4d/output_inception_4d/output_0_split_3
I0707 11:35:49.035904  2290 net.cpp:399] inception_4e/pool -> inception_4e/pool
I0707 11:35:49.036036  2290 net.cpp:141] Setting up inception_4e/pool
I0707 11:35:49.036051  2290 net.cpp:148] Top shape: 10 528 14 14 (1034880)
I0707 11:35:49.036058  2290 net.cpp:156] Memory required for data: 512296960
I0707 11:35:49.036067  2290 layer_factory.hpp:77] Creating layer inception_4e/pool_proj
I0707 11:35:49.036087  2290 net.cpp:91] Creating Layer inception_4e/pool_proj
I0707 11:35:49.036097  2290 net.cpp:425] inception_4e/pool_proj <- inception_4e/pool
I0707 11:35:49.036115  2290 net.cpp:399] inception_4e/pool_proj -> inception_4e/pool_proj
I0707 11:35:49.042268  2294 net.cpp:141] Setting up inception_4e/pool_proj
I0707 11:35:49.042294  2294 net.cpp:148] Top shape: 10 128 14 14 (250880)
I0707 11:35:49.042305  2294 net.cpp:156] Memory required for data: 513300480
I0707 11:35:49.042323  2294 layer_factory.hpp:77] Creating layer inception_4e/relu_pool_proj
I0707 11:35:49.042340  2294 net.cpp:91] Creating Layer inception_4e/relu_pool_proj
I0707 11:35:49.042351  2294 net.cpp:425] inception_4e/relu_pool_proj <- inception_4e/pool_proj
I0707 11:35:49.042372  2294 net.cpp:386] inception_4e/relu_pool_proj -> inception_4e/pool_proj (in-place)
I0707 11:35:49.042795  2290 net.cpp:141] Setting up inception_4e/pool_proj
I0707 11:35:49.042822  2290 net.cpp:148] Top shape: 10 128 14 14 (250880)
I0707 11:35:49.042832  2290 net.cpp:156] Memory required for data: 513300480
I0707 11:35:49.042850  2290 layer_factory.hpp:77] Creating layer inception_4e/relu_pool_proj
I0707 11:35:49.042865  2290 net.cpp:91] Creating Layer inception_4e/relu_pool_proj
I0707 11:35:49.042876  2290 net.cpp:425] inception_4e/relu_pool_proj <- inception_4e/pool_proj
I0707 11:35:49.042896  2290 net.cpp:386] inception_4e/relu_pool_proj -> inception_4e/pool_proj (in-place)
I0707 11:35:49.043921  2294 net.cpp:141] Setting up inception_4e/relu_pool_proj
I0707 11:35:49.043956  2294 net.cpp:148] Top shape: 10 128 14 14 (250880)
I0707 11:35:49.043962  2290 net.cpp:141] Setting up inception_4e/relu_pool_proj
I0707 11:35:49.043967  2294 net.cpp:156] Memory required for data: 514304000
I0707 11:35:49.043977  2294 layer_factory.hpp:77] Creating layer inception_4e/output
I0707 11:35:49.043977  2290 net.cpp:148] Top shape: 10 128 14 14 (250880)
I0707 11:35:49.043992  2290 net.cpp:156] Memory required for data: 514304000
I0707 11:35:49.043995  2294 net.cpp:91] Creating Layer inception_4e/output
I0707 11:35:49.044003  2290 layer_factory.hpp:77] Creating layer inception_4e/output
I0707 11:35:49.044004  2294 net.cpp:425] inception_4e/output <- inception_4e/1x1
I0707 11:35:49.044028  2294 net.cpp:425] inception_4e/output <- inception_4e/3x3
I0707 11:35:49.044039  2294 net.cpp:425] inception_4e/output <- inception_4e/5x5
I0707 11:35:49.044047  2290 net.cpp:91] Creating Layer inception_4e/output
I0707 11:35:49.044050  2294 net.cpp:425] inception_4e/output <- inception_4e/pool_proj
I0707 11:35:49.044064  2290 net.cpp:425] inception_4e/output <- inception_4e/1x1
I0707 11:35:49.044070  2294 net.cpp:399] inception_4e/output -> inception_4e/output
I0707 11:35:49.044075  2290 net.cpp:425] inception_4e/output <- inception_4e/3x3
I0707 11:35:49.044085  2290 net.cpp:425] inception_4e/output <- inception_4e/5x5
I0707 11:35:49.044095  2290 net.cpp:425] inception_4e/output <- inception_4e/pool_proj
I0707 11:35:49.044108  2290 net.cpp:399] inception_4e/output -> inception_4e/output
I0707 11:35:49.044172  2294 net.cpp:141] Setting up inception_4e/output
I0707 11:35:49.044190  2294 net.cpp:148] Top shape: 10 832 14 14 (1630720)
I0707 11:35:49.044199  2294 net.cpp:156] Memory required for data: 520826880
I0707 11:35:49.044209  2294 layer_factory.hpp:77] Creating layer pool4/3x3_s2
I0707 11:35:49.044229  2294 net.cpp:91] Creating Layer pool4/3x3_s2
I0707 11:35:49.044231  2290 net.cpp:141] Setting up inception_4e/output
I0707 11:35:49.044240  2294 net.cpp:425] pool4/3x3_s2 <- inception_4e/output
I0707 11:35:49.044245  2290 net.cpp:148] Top shape: 10 832 14 14 (1630720)
I0707 11:35:49.044253  2294 net.cpp:399] pool4/3x3_s2 -> pool4/3x3_s2
I0707 11:35:49.044253  2290 net.cpp:156] Memory required for data: 520826880
I0707 11:35:49.044272  2290 layer_factory.hpp:77] Creating layer pool4/3x3_s2
I0707 11:35:49.044286  2290 net.cpp:91] Creating Layer pool4/3x3_s2
I0707 11:35:49.044296  2290 net.cpp:425] pool4/3x3_s2 <- inception_4e/output
I0707 11:35:49.044317  2290 net.cpp:399] pool4/3x3_s2 -> pool4/3x3_s2
I0707 11:35:49.044459  2294 net.cpp:141] Setting up pool4/3x3_s2
I0707 11:35:49.044481  2294 net.cpp:148] Top shape: 10 832 7 7 (407680)
I0707 11:35:49.044489  2294 net.cpp:156] Memory required for data: 522457600
I0707 11:35:49.044498  2294 layer_factory.hpp:77] Creating layer pool4/3x3_s2_pool4/3x3_s2_0_split
I0707 11:35:49.044513  2294 net.cpp:91] Creating Layer pool4/3x3_s2_pool4/3x3_s2_0_split
I0707 11:35:49.044513  2290 net.cpp:141] Setting up pool4/3x3_s2
I0707 11:35:49.044529  2294 net.cpp:425] pool4/3x3_s2_pool4/3x3_s2_0_split <- pool4/3x3_s2
I0707 11:35:49.044535  2290 net.cpp:148] Top shape: 10 832 7 7 (407680)
I0707 11:35:49.044544  2290 net.cpp:156] Memory required for data: 522457600
I0707 11:35:49.044545  2294 net.cpp:399] pool4/3x3_s2_pool4/3x3_s2_0_split -> pool4/3x3_s2_pool4/3x3_s2_0_split_0
I0707 11:35:49.044559  2290 layer_factory.hpp:77] Creating layer pool4/3x3_s2_pool4/3x3_s2_0_split
I0707 11:35:49.044579  2294 net.cpp:399] pool4/3x3_s2_pool4/3x3_s2_0_split -> pool4/3x3_s2_pool4/3x3_s2_0_split_1
I0707 11:35:49.044579  2290 net.cpp:91] Creating Layer pool4/3x3_s2_pool4/3x3_s2_0_split
I0707 11:35:49.044597  2290 net.cpp:425] pool4/3x3_s2_pool4/3x3_s2_0_split <- pool4/3x3_s2
I0707 11:35:49.044603  2294 net.cpp:399] pool4/3x3_s2_pool4/3x3_s2_0_split -> pool4/3x3_s2_pool4/3x3_s2_0_split_2
I0707 11:35:49.044610  2290 net.cpp:399] pool4/3x3_s2_pool4/3x3_s2_0_split -> pool4/3x3_s2_pool4/3x3_s2_0_split_0
I0707 11:35:49.044620  2294 net.cpp:399] pool4/3x3_s2_pool4/3x3_s2_0_split -> pool4/3x3_s2_pool4/3x3_s2_0_split_3
I0707 11:35:49.044630  2290 net.cpp:399] pool4/3x3_s2_pool4/3x3_s2_0_split -> pool4/3x3_s2_pool4/3x3_s2_0_split_1
I0707 11:35:49.044646  2290 net.cpp:399] pool4/3x3_s2_pool4/3x3_s2_0_split -> pool4/3x3_s2_pool4/3x3_s2_0_split_2
I0707 11:35:49.044661  2290 net.cpp:399] pool4/3x3_s2_pool4/3x3_s2_0_split -> pool4/3x3_s2_pool4/3x3_s2_0_split_3
I0707 11:35:49.045001  2294 net.cpp:141] Setting up pool4/3x3_s2_pool4/3x3_s2_0_split
I0707 11:35:49.045022  2294 net.cpp:148] Top shape: 10 832 7 7 (407680)
I0707 11:35:49.045033  2294 net.cpp:148] Top shape: 10 832 7 7 (407680)
I0707 11:35:49.045044  2294 net.cpp:148] Top shape: 10 832 7 7 (407680)
I0707 11:35:49.045056  2294 net.cpp:148] Top shape: 10 832 7 7 (407680)
I0707 11:35:49.045059  2290 net.cpp:141] Setting up pool4/3x3_s2_pool4/3x3_s2_0_split
I0707 11:35:49.045064  2294 net.cpp:156] Memory required for data: 528980480
I0707 11:35:49.045073  2294 layer_factory.hpp:77] Creating layer inception_5a/1x1
I0707 11:35:49.045074  2290 net.cpp:148] Top shape: 10 832 7 7 (407680)
I0707 11:35:49.045094  2290 net.cpp:148] Top shape: 10 832 7 7 (407680)
I0707 11:35:49.045106  2290 net.cpp:148] Top shape: 10 832 7 7 (407680)
I0707 11:35:49.045109  2294 net.cpp:91] Creating Layer inception_5a/1x1
I0707 11:35:49.045117  2290 net.cpp:148] Top shape: 10 832 7 7 (407680)
I0707 11:35:49.045117  2294 net.cpp:425] inception_5a/1x1 <- pool4/3x3_s2_pool4/3x3_s2_0_split_0
I0707 11:35:49.045130  2290 net.cpp:156] Memory required for data: 528980480
I0707 11:35:49.045140  2290 layer_factory.hpp:77] Creating layer inception_5a/1x1
I0707 11:35:49.045145  2294 net.cpp:399] inception_5a/1x1 -> inception_5a/1x1
I0707 11:35:49.045161  2290 net.cpp:91] Creating Layer inception_5a/1x1
I0707 11:35:49.045173  2290 net.cpp:425] inception_5a/1x1 <- pool4/3x3_s2_pool4/3x3_s2_0_split_0
I0707 11:35:49.045197  2290 net.cpp:399] inception_5a/1x1 -> inception_5a/1x1
I0707 11:35:49.055035  2294 net.cpp:141] Setting up inception_5a/1x1
I0707 11:35:49.055071  2294 net.cpp:148] Top shape: 10 256 7 7 (125440)
I0707 11:35:49.055088  2294 net.cpp:156] Memory required for data: 529482240
I0707 11:35:49.055109  2294 layer_factory.hpp:77] Creating layer inception_5a/relu_1x1
I0707 11:35:49.055126  2294 net.cpp:91] Creating Layer inception_5a/relu_1x1
I0707 11:35:49.055138  2294 net.cpp:425] inception_5a/relu_1x1 <- inception_5a/1x1
I0707 11:35:49.055153  2294 net.cpp:386] inception_5a/relu_1x1 -> inception_5a/1x1 (in-place)
I0707 11:35:49.056560  2290 net.cpp:141] Setting up inception_5a/1x1
I0707 11:35:49.056583  2290 net.cpp:148] Top shape: 10 256 7 7 (125440)
I0707 11:35:49.056591  2294 net.cpp:141] Setting up inception_5a/relu_1x1
I0707 11:35:49.056596  2290 net.cpp:156] Memory required for data: 529482240
I0707 11:35:49.056610  2294 net.cpp:148] Top shape: 10 256 7 7 (125440)
I0707 11:35:49.056613  2290 layer_factory.hpp:77] Creating layer inception_5a/relu_1x1
I0707 11:35:49.056619  2294 net.cpp:156] Memory required for data: 529984000
I0707 11:35:49.056629  2294 layer_factory.hpp:77] Creating layer inception_5a/3x3_reduce
I0707 11:35:49.056632  2290 net.cpp:91] Creating Layer inception_5a/relu_1x1
I0707 11:35:49.056651  2290 net.cpp:425] inception_5a/relu_1x1 <- inception_5a/1x1
I0707 11:35:49.056663  2294 net.cpp:91] Creating Layer inception_5a/3x3_reduce
I0707 11:35:49.056666  2290 net.cpp:386] inception_5a/relu_1x1 -> inception_5a/1x1 (in-place)
I0707 11:35:49.056674  2294 net.cpp:425] inception_5a/3x3_reduce <- pool4/3x3_s2_pool4/3x3_s2_0_split_1
I0707 11:35:49.056692  2294 net.cpp:399] inception_5a/3x3_reduce -> inception_5a/3x3_reduce
I0707 11:35:49.058794  2290 net.cpp:141] Setting up inception_5a/relu_1x1
I0707 11:35:49.058820  2290 net.cpp:148] Top shape: 10 256 7 7 (125440)
I0707 11:35:49.058827  2290 net.cpp:156] Memory required for data: 529984000
I0707 11:35:49.058836  2290 layer_factory.hpp:77] Creating layer inception_5a/3x3_reduce
I0707 11:35:49.058861  2290 net.cpp:91] Creating Layer inception_5a/3x3_reduce
I0707 11:35:49.058871  2290 net.cpp:425] inception_5a/3x3_reduce <- pool4/3x3_s2_pool4/3x3_s2_0_split_1
I0707 11:35:49.058889  2290 net.cpp:399] inception_5a/3x3_reduce -> inception_5a/3x3_reduce
I0707 11:35:49.066198  2294 net.cpp:141] Setting up inception_5a/3x3_reduce
I0707 11:35:49.066226  2294 net.cpp:148] Top shape: 10 160 7 7 (78400)
I0707 11:35:49.066237  2294 net.cpp:156] Memory required for data: 530297600
I0707 11:35:49.066257  2294 layer_factory.hpp:77] Creating layer inception_5a/relu_3x3_reduce
I0707 11:35:49.066274  2294 net.cpp:91] Creating Layer inception_5a/relu_3x3_reduce
I0707 11:35:49.066287  2294 net.cpp:425] inception_5a/relu_3x3_reduce <- inception_5a/3x3_reduce
I0707 11:35:49.066308  2294 net.cpp:386] inception_5a/relu_3x3_reduce -> inception_5a/3x3_reduce (in-place)
I0707 11:35:49.067595  2294 net.cpp:141] Setting up inception_5a/relu_3x3_reduce
I0707 11:35:49.067620  2294 net.cpp:148] Top shape: 10 160 7 7 (78400)
I0707 11:35:49.067631  2294 net.cpp:156] Memory required for data: 530611200
I0707 11:35:49.067641  2294 layer_factory.hpp:77] Creating layer inception_5a/3x3
I0707 11:35:49.067668  2294 net.cpp:91] Creating Layer inception_5a/3x3
I0707 11:35:49.067682  2294 net.cpp:425] inception_5a/3x3 <- inception_5a/3x3_reduce
I0707 11:35:49.067703  2294 net.cpp:399] inception_5a/3x3 -> inception_5a/3x3
I0707 11:35:49.068265  2290 net.cpp:141] Setting up inception_5a/3x3_reduce
I0707 11:35:49.068289  2290 net.cpp:148] Top shape: 10 160 7 7 (78400)
I0707 11:35:49.068300  2290 net.cpp:156] Memory required for data: 530297600
I0707 11:35:49.068316  2290 layer_factory.hpp:77] Creating layer inception_5a/relu_3x3_reduce
I0707 11:35:49.068336  2290 net.cpp:91] Creating Layer inception_5a/relu_3x3_reduce
I0707 11:35:49.068347  2290 net.cpp:425] inception_5a/relu_3x3_reduce <- inception_5a/3x3_reduce
I0707 11:35:49.068361  2290 net.cpp:386] inception_5a/relu_3x3_reduce -> inception_5a/3x3_reduce (in-place)
I0707 11:35:49.070498  2290 net.cpp:141] Setting up inception_5a/relu_3x3_reduce
I0707 11:35:49.070523  2290 net.cpp:148] Top shape: 10 160 7 7 (78400)
I0707 11:35:49.070531  2290 net.cpp:156] Memory required for data: 530611200
I0707 11:35:49.070539  2290 layer_factory.hpp:77] Creating layer inception_5a/3x3
I0707 11:35:49.070565  2290 net.cpp:91] Creating Layer inception_5a/3x3
I0707 11:35:49.070575  2290 net.cpp:425] inception_5a/3x3 <- inception_5a/3x3_reduce
I0707 11:35:49.070590  2290 net.cpp:399] inception_5a/3x3 -> inception_5a/3x3
I0707 11:35:49.081868  2294 net.cpp:141] Setting up inception_5a/3x3
I0707 11:35:49.081897  2294 net.cpp:148] Top shape: 10 320 7 7 (156800)
I0707 11:35:49.081907  2294 net.cpp:156] Memory required for data: 531238400
I0707 11:35:49.081926  2294 layer_factory.hpp:77] Creating layer inception_5a/relu_3x3
I0707 11:35:49.081943  2294 net.cpp:91] Creating Layer inception_5a/relu_3x3
I0707 11:35:49.081954  2294 net.cpp:425] inception_5a/relu_3x3 <- inception_5a/3x3
I0707 11:35:49.081974  2294 net.cpp:386] inception_5a/relu_3x3 -> inception_5a/3x3 (in-place)
I0707 11:35:49.083346  2294 net.cpp:141] Setting up inception_5a/relu_3x3
I0707 11:35:49.083375  2294 net.cpp:148] Top shape: 10 320 7 7 (156800)
I0707 11:35:49.083386  2294 net.cpp:156] Memory required for data: 531865600
I0707 11:35:49.083396  2294 layer_factory.hpp:77] Creating layer inception_5a/5x5_reduce
I0707 11:35:49.083421  2294 net.cpp:91] Creating Layer inception_5a/5x5_reduce
I0707 11:35:49.083434  2294 net.cpp:425] inception_5a/5x5_reduce <- pool4/3x3_s2_pool4/3x3_s2_0_split_2
I0707 11:35:49.083461  2294 net.cpp:399] inception_5a/5x5_reduce -> inception_5a/5x5_reduce
I0707 11:35:49.085393  2290 net.cpp:141] Setting up inception_5a/3x3
I0707 11:35:49.085420  2290 net.cpp:148] Top shape: 10 320 7 7 (156800)
I0707 11:35:49.085430  2290 net.cpp:156] Memory required for data: 531238400
I0707 11:35:49.085448  2290 layer_factory.hpp:77] Creating layer inception_5a/relu_3x3
I0707 11:35:49.085464  2290 net.cpp:91] Creating Layer inception_5a/relu_3x3
I0707 11:35:49.085475  2290 net.cpp:425] inception_5a/relu_3x3 <- inception_5a/3x3
I0707 11:35:49.085489  2290 net.cpp:386] inception_5a/relu_3x3 -> inception_5a/3x3 (in-place)
I0707 11:35:49.086973  2290 net.cpp:141] Setting up inception_5a/relu_3x3
I0707 11:35:49.086999  2290 net.cpp:148] Top shape: 10 320 7 7 (156800)
I0707 11:35:49.087010  2290 net.cpp:156] Memory required for data: 531865600
I0707 11:35:49.087020  2290 layer_factory.hpp:77] Creating layer inception_5a/5x5_reduce
I0707 11:35:49.087051  2290 net.cpp:91] Creating Layer inception_5a/5x5_reduce
I0707 11:35:49.087065  2290 net.cpp:425] inception_5a/5x5_reduce <- pool4/3x3_s2_pool4/3x3_s2_0_split_2
I0707 11:35:49.087088  2290 net.cpp:399] inception_5a/5x5_reduce -> inception_5a/5x5_reduce
I0707 11:35:49.090682  2294 net.cpp:141] Setting up inception_5a/5x5_reduce
I0707 11:35:49.090721  2294 net.cpp:148] Top shape: 10 32 7 7 (15680)
I0707 11:35:49.090731  2294 net.cpp:156] Memory required for data: 531928320
I0707 11:35:49.090750  2294 layer_factory.hpp:77] Creating layer inception_5a/relu_5x5_reduce
I0707 11:35:49.090767  2294 net.cpp:91] Creating Layer inception_5a/relu_5x5_reduce
I0707 11:35:49.090780  2294 net.cpp:425] inception_5a/relu_5x5_reduce <- inception_5a/5x5_reduce
I0707 11:35:49.090801  2294 net.cpp:386] inception_5a/relu_5x5_reduce -> inception_5a/5x5_reduce (in-place)
I0707 11:35:49.092321  2294 net.cpp:141] Setting up inception_5a/relu_5x5_reduce
I0707 11:35:49.092350  2294 net.cpp:148] Top shape: 10 32 7 7 (15680)
I0707 11:35:49.092361  2294 net.cpp:156] Memory required for data: 531991040
I0707 11:35:49.092371  2294 layer_factory.hpp:77] Creating layer inception_5a/5x5
I0707 11:35:49.092402  2294 net.cpp:91] Creating Layer inception_5a/5x5
I0707 11:35:49.092416  2294 net.cpp:425] inception_5a/5x5 <- inception_5a/5x5_reduce
I0707 11:35:49.092433  2294 net.cpp:399] inception_5a/5x5 -> inception_5a/5x5
I0707 11:35:49.094487  2290 net.cpp:141] Setting up inception_5a/5x5_reduce
I0707 11:35:49.094514  2290 net.cpp:148] Top shape: 10 32 7 7 (15680)
I0707 11:35:49.094523  2290 net.cpp:156] Memory required for data: 531928320
I0707 11:35:49.094540  2290 layer_factory.hpp:77] Creating layer inception_5a/relu_5x5_reduce
I0707 11:35:49.094559  2290 net.cpp:91] Creating Layer inception_5a/relu_5x5_reduce
I0707 11:35:49.094569  2290 net.cpp:425] inception_5a/relu_5x5_reduce <- inception_5a/5x5_reduce
I0707 11:35:49.094585  2290 net.cpp:386] inception_5a/relu_5x5_reduce -> inception_5a/5x5_reduce (in-place)
I0707 11:35:49.095060  2290 net.cpp:141] Setting up inception_5a/relu_5x5_reduce
I0707 11:35:49.095085  2290 net.cpp:148] Top shape: 10 32 7 7 (15680)
I0707 11:35:49.095094  2290 net.cpp:156] Memory required for data: 531991040
I0707 11:35:49.095103  2290 layer_factory.hpp:77] Creating layer inception_5a/5x5
I0707 11:35:49.095129  2290 net.cpp:91] Creating Layer inception_5a/5x5
I0707 11:35:49.095139  2290 net.cpp:425] inception_5a/5x5 <- inception_5a/5x5_reduce
I0707 11:35:49.095157  2290 net.cpp:399] inception_5a/5x5 -> inception_5a/5x5
I0707 11:35:49.101660  2294 net.cpp:141] Setting up inception_5a/5x5
I0707 11:35:49.101719  2294 net.cpp:148] Top shape: 10 128 7 7 (62720)
I0707 11:35:49.101729  2294 net.cpp:156] Memory required for data: 532241920
I0707 11:35:49.101749  2294 layer_factory.hpp:77] Creating layer inception_5a/relu_5x5
I0707 11:35:49.101804  2294 net.cpp:91] Creating Layer inception_5a/relu_5x5
I0707 11:35:49.101819  2294 net.cpp:425] inception_5a/relu_5x5 <- inception_5a/5x5
I0707 11:35:49.101832  2294 net.cpp:386] inception_5a/relu_5x5 -> inception_5a/5x5 (in-place)
I0707 11:35:49.103626  2294 net.cpp:141] Setting up inception_5a/relu_5x5
I0707 11:35:49.103657  2294 net.cpp:148] Top shape: 10 128 7 7 (62720)
I0707 11:35:49.103665  2294 net.cpp:156] Memory required for data: 532492800
I0707 11:35:49.103675  2294 layer_factory.hpp:77] Creating layer inception_5a/pool
I0707 11:35:49.103693  2294 net.cpp:91] Creating Layer inception_5a/pool
I0707 11:35:49.103703  2294 net.cpp:425] inception_5a/pool <- pool4/3x3_s2_pool4/3x3_s2_0_split_3
I0707 11:35:49.103718  2294 net.cpp:399] inception_5a/pool -> inception_5a/pool
I0707 11:35:49.104555  2294 net.cpp:141] Setting up inception_5a/pool
I0707 11:35:49.104586  2294 net.cpp:148] Top shape: 10 832 7 7 (407680)
I0707 11:35:49.104593  2294 net.cpp:156] Memory required for data: 534123520
I0707 11:35:49.104600  2294 layer_factory.hpp:77] Creating layer inception_5a/pool_proj
I0707 11:35:49.104624  2294 net.cpp:91] Creating Layer inception_5a/pool_proj
I0707 11:35:49.104634  2294 net.cpp:425] inception_5a/pool_proj <- inception_5a/pool
I0707 11:35:49.104650  2294 net.cpp:399] inception_5a/pool_proj -> inception_5a/pool_proj
I0707 11:35:49.105599  2290 net.cpp:141] Setting up inception_5a/5x5
I0707 11:35:49.105628  2290 net.cpp:148] Top shape: 10 128 7 7 (62720)
I0707 11:35:49.105633  2290 net.cpp:156] Memory required for data: 532241920
I0707 11:35:49.105645  2290 layer_factory.hpp:77] Creating layer inception_5a/relu_5x5
I0707 11:35:49.105684  2290 net.cpp:91] Creating Layer inception_5a/relu_5x5
I0707 11:35:49.105690  2290 net.cpp:425] inception_5a/relu_5x5 <- inception_5a/5x5
I0707 11:35:49.105700  2290 net.cpp:386] inception_5a/relu_5x5 -> inception_5a/5x5 (in-place)
I0707 11:35:49.106029  2290 net.cpp:141] Setting up inception_5a/relu_5x5
I0707 11:35:49.106042  2290 net.cpp:148] Top shape: 10 128 7 7 (62720)
I0707 11:35:49.106047  2290 net.cpp:156] Memory required for data: 532492800
I0707 11:35:49.106053  2290 layer_factory.hpp:77] Creating layer inception_5a/pool
I0707 11:35:49.106066  2290 net.cpp:91] Creating Layer inception_5a/pool
I0707 11:35:49.106072  2290 net.cpp:425] inception_5a/pool <- pool4/3x3_s2_pool4/3x3_s2_0_split_3
I0707 11:35:49.106081  2290 net.cpp:399] inception_5a/pool -> inception_5a/pool
I0707 11:35:49.106205  2290 net.cpp:141] Setting up inception_5a/pool
I0707 11:35:49.106217  2290 net.cpp:148] Top shape: 10 832 7 7 (407680)
I0707 11:35:49.106222  2290 net.cpp:156] Memory required for data: 534123520
I0707 11:35:49.106227  2290 layer_factory.hpp:77] Creating layer inception_5a/pool_proj
I0707 11:35:49.106245  2290 net.cpp:91] Creating Layer inception_5a/pool_proj
I0707 11:35:49.106251  2290 net.cpp:425] inception_5a/pool_proj <- inception_5a/pool
I0707 11:35:49.106262  2290 net.cpp:399] inception_5a/pool_proj -> inception_5a/pool_proj
I0707 11:35:49.112828  2290 net.cpp:141] Setting up inception_5a/pool_proj
I0707 11:35:49.112850  2290 net.cpp:148] Top shape: 10 128 7 7 (62720)
I0707 11:35:49.112856  2290 net.cpp:156] Memory required for data: 534374400
I0707 11:35:49.112866  2290 layer_factory.hpp:77] Creating layer inception_5a/relu_pool_proj
I0707 11:35:49.112879  2290 net.cpp:91] Creating Layer inception_5a/relu_pool_proj
I0707 11:35:49.112885  2290 net.cpp:425] inception_5a/relu_pool_proj <- inception_5a/pool_proj
I0707 11:35:49.112895  2290 net.cpp:386] inception_5a/relu_pool_proj -> inception_5a/pool_proj (in-place)
I0707 11:35:49.114316  2290 net.cpp:141] Setting up inception_5a/relu_pool_proj
I0707 11:35:49.114336  2290 net.cpp:148] Top shape: 10 128 7 7 (62720)
I0707 11:35:49.114342  2290 net.cpp:156] Memory required for data: 534625280
I0707 11:35:49.114347  2290 layer_factory.hpp:77] Creating layer inception_5a/output
I0707 11:35:49.114356  2290 net.cpp:91] Creating Layer inception_5a/output
I0707 11:35:49.114362  2290 net.cpp:425] inception_5a/output <- inception_5a/1x1
I0707 11:35:49.114369  2290 net.cpp:425] inception_5a/output <- inception_5a/3x3
I0707 11:35:49.114375  2290 net.cpp:425] inception_5a/output <- inception_5a/5x5
I0707 11:35:49.114382  2290 net.cpp:425] inception_5a/output <- inception_5a/pool_proj
I0707 11:35:49.114390  2290 net.cpp:399] inception_5a/output -> inception_5a/output
I0707 11:35:49.114476  2290 net.cpp:141] Setting up inception_5a/output
I0707 11:35:49.114487  2290 net.cpp:148] Top shape: 10 832 7 7 (407680)
I0707 11:35:49.114492  2290 net.cpp:156] Memory required for data: 536256000
I0707 11:35:49.114497  2290 layer_factory.hpp:77] Creating layer inception_5a/output_inception_5a/output_0_split
I0707 11:35:49.114516  2290 net.cpp:91] Creating Layer inception_5a/output_inception_5a/output_0_split
I0707 11:35:49.114522  2290 net.cpp:425] inception_5a/output_inception_5a/output_0_split <- inception_5a/output
I0707 11:35:49.114529  2290 net.cpp:399] inception_5a/output_inception_5a/output_0_split -> inception_5a/output_inception_5a/output_0_split_0
I0707 11:35:49.114539  2290 net.cpp:399] inception_5a/output_inception_5a/output_0_split -> inception_5a/output_inception_5a/output_0_split_1
I0707 11:35:49.114552  2290 net.cpp:399] inception_5a/output_inception_5a/output_0_split -> inception_5a/output_inception_5a/output_0_split_2
I0707 11:35:49.114562  2290 net.cpp:399] inception_5a/output_inception_5a/output_0_split -> inception_5a/output_inception_5a/output_0_split_3
I0707 11:35:49.114888  2290 net.cpp:141] Setting up inception_5a/output_inception_5a/output_0_split
I0707 11:35:49.114902  2290 net.cpp:148] Top shape: 10 832 7 7 (407680)
I0707 11:35:49.114908  2290 net.cpp:148] Top shape: 10 832 7 7 (407680)
I0707 11:35:49.114914  2290 net.cpp:148] Top shape: 10 832 7 7 (407680)
I0707 11:35:49.114919  2290 net.cpp:148] Top shape: 10 832 7 7 (407680)
I0707 11:35:49.114923  2290 net.cpp:156] Memory required for data: 542778880
I0707 11:35:49.114929  2290 layer_factory.hpp:77] Creating layer inception_5b/1x1
I0707 11:35:49.114945  2290 net.cpp:91] Creating Layer inception_5b/1x1
I0707 11:35:49.114951  2290 net.cpp:425] inception_5b/1x1 <- inception_5a/output_inception_5a/output_0_split_0
I0707 11:35:49.114964  2290 net.cpp:399] inception_5b/1x1 -> inception_5b/1x1
I0707 11:35:49.115496  2294 net.cpp:141] Setting up inception_5a/pool_proj
I0707 11:35:49.115519  2294 net.cpp:148] Top shape: 10 128 7 7 (62720)
I0707 11:35:49.115526  2294 net.cpp:156] Memory required for data: 534374400
I0707 11:35:49.115542  2294 layer_factory.hpp:77] Creating layer inception_5a/relu_pool_proj
I0707 11:35:49.115555  2294 net.cpp:91] Creating Layer inception_5a/relu_pool_proj
I0707 11:35:49.115564  2294 net.cpp:425] inception_5a/relu_pool_proj <- inception_5a/pool_proj
I0707 11:35:49.116124  2294 net.cpp:386] inception_5a/relu_pool_proj -> inception_5a/pool_proj (in-place)
I0707 11:35:49.117852  2294 net.cpp:141] Setting up inception_5a/relu_pool_proj
I0707 11:35:49.117887  2294 net.cpp:148] Top shape: 10 128 7 7 (62720)
I0707 11:35:49.117894  2294 net.cpp:156] Memory required for data: 534625280
I0707 11:35:49.117902  2294 layer_factory.hpp:77] Creating layer inception_5a/output
I0707 11:35:49.117915  2294 net.cpp:91] Creating Layer inception_5a/output
I0707 11:35:49.117924  2294 net.cpp:425] inception_5a/output <- inception_5a/1x1
I0707 11:35:49.117933  2294 net.cpp:425] inception_5a/output <- inception_5a/3x3
I0707 11:35:49.117943  2294 net.cpp:425] inception_5a/output <- inception_5a/5x5
I0707 11:35:49.117951  2294 net.cpp:425] inception_5a/output <- inception_5a/pool_proj
I0707 11:35:49.117965  2294 net.cpp:399] inception_5a/output -> inception_5a/output
I0707 11:35:49.118058  2294 net.cpp:141] Setting up inception_5a/output
I0707 11:35:49.118077  2294 net.cpp:148] Top shape: 10 832 7 7 (407680)
I0707 11:35:49.118085  2294 net.cpp:156] Memory required for data: 536256000
I0707 11:35:49.118093  2294 layer_factory.hpp:77] Creating layer inception_5a/output_inception_5a/output_0_split
I0707 11:35:49.118104  2294 net.cpp:91] Creating Layer inception_5a/output_inception_5a/output_0_split
I0707 11:35:49.118113  2294 net.cpp:425] inception_5a/output_inception_5a/output_0_split <- inception_5a/output
I0707 11:35:49.118124  2294 net.cpp:399] inception_5a/output_inception_5a/output_0_split -> inception_5a/output_inception_5a/output_0_split_0
I0707 11:35:49.118137  2294 net.cpp:399] inception_5a/output_inception_5a/output_0_split -> inception_5a/output_inception_5a/output_0_split_1
I0707 11:35:49.118156  2294 net.cpp:399] inception_5a/output_inception_5a/output_0_split -> inception_5a/output_inception_5a/output_0_split_2
I0707 11:35:49.118170  2294 net.cpp:399] inception_5a/output_inception_5a/output_0_split -> inception_5a/output_inception_5a/output_0_split_3
I0707 11:35:49.118397  2294 net.cpp:141] Setting up inception_5a/output_inception_5a/output_0_split
I0707 11:35:49.118412  2294 net.cpp:148] Top shape: 10 832 7 7 (407680)
I0707 11:35:49.118422  2294 net.cpp:148] Top shape: 10 832 7 7 (407680)
I0707 11:35:49.118430  2294 net.cpp:148] Top shape: 10 832 7 7 (407680)
I0707 11:35:49.118438  2294 net.cpp:148] Top shape: 10 832 7 7 (407680)
I0707 11:35:49.118445  2294 net.cpp:156] Memory required for data: 542778880
I0707 11:35:49.118453  2294 layer_factory.hpp:77] Creating layer inception_5b/1x1
I0707 11:35:49.118476  2294 net.cpp:91] Creating Layer inception_5b/1x1
I0707 11:35:49.118485  2294 net.cpp:425] inception_5b/1x1 <- inception_5a/output_inception_5a/output_0_split_0
I0707 11:35:49.118499  2294 net.cpp:399] inception_5b/1x1 -> inception_5b/1x1
I0707 11:35:49.123713  2290 net.cpp:141] Setting up inception_5b/1x1
I0707 11:35:49.123736  2290 net.cpp:148] Top shape: 10 384 7 7 (188160)
I0707 11:35:49.123742  2290 net.cpp:156] Memory required for data: 543531520
I0707 11:35:49.123754  2290 layer_factory.hpp:77] Creating layer inception_5b/relu_1x1
I0707 11:35:49.123765  2290 net.cpp:91] Creating Layer inception_5b/relu_1x1
I0707 11:35:49.123771  2290 net.cpp:425] inception_5b/relu_1x1 <- inception_5b/1x1
I0707 11:35:49.123780  2290 net.cpp:386] inception_5b/relu_1x1 -> inception_5b/1x1 (in-place)
I0707 11:35:49.125303  2290 net.cpp:141] Setting up inception_5b/relu_1x1
I0707 11:35:49.125324  2290 net.cpp:148] Top shape: 10 384 7 7 (188160)
I0707 11:35:49.125329  2290 net.cpp:156] Memory required for data: 544284160
I0707 11:35:49.125334  2290 layer_factory.hpp:77] Creating layer inception_5b/3x3_reduce
I0707 11:35:49.125350  2290 net.cpp:91] Creating Layer inception_5b/3x3_reduce
I0707 11:35:49.125357  2290 net.cpp:425] inception_5b/3x3_reduce <- inception_5a/output_inception_5a/output_0_split_1
I0707 11:35:49.125366  2290 net.cpp:399] inception_5b/3x3_reduce -> inception_5b/3x3_reduce
I0707 11:35:49.132339  2290 net.cpp:141] Setting up inception_5b/3x3_reduce
I0707 11:35:49.132359  2290 net.cpp:148] Top shape: 10 192 7 7 (94080)
I0707 11:35:49.132365  2290 net.cpp:156] Memory required for data: 544660480
I0707 11:35:49.132375  2290 layer_factory.hpp:77] Creating layer inception_5b/relu_3x3_reduce
I0707 11:35:49.132388  2290 net.cpp:91] Creating Layer inception_5b/relu_3x3_reduce
I0707 11:35:49.132395  2290 net.cpp:425] inception_5b/relu_3x3_reduce <- inception_5b/3x3_reduce
I0707 11:35:49.132403  2290 net.cpp:386] inception_5b/relu_3x3_reduce -> inception_5b/3x3_reduce (in-place)
I0707 11:35:49.132832  2294 net.cpp:141] Setting up inception_5b/1x1
I0707 11:35:49.132875  2294 net.cpp:148] Top shape: 10 384 7 7 (188160)
I0707 11:35:49.132886  2294 net.cpp:156] Memory required for data: 543531520
I0707 11:35:49.132905  2294 layer_factory.hpp:77] Creating layer inception_5b/relu_1x1
I0707 11:35:49.132922  2294 net.cpp:91] Creating Layer inception_5b/relu_1x1
I0707 11:35:49.132935  2294 net.cpp:425] inception_5b/relu_1x1 <- inception_5b/1x1
I0707 11:35:49.132952  2294 net.cpp:386] inception_5b/relu_1x1 -> inception_5b/1x1 (in-place)
I0707 11:35:49.132977  2290 net.cpp:141] Setting up inception_5b/relu_3x3_reduce
I0707 11:35:49.132990  2290 net.cpp:148] Top shape: 10 192 7 7 (94080)
I0707 11:35:49.132995  2290 net.cpp:156] Memory required for data: 545036800
I0707 11:35:49.133002  2290 layer_factory.hpp:77] Creating layer inception_5b/3x3
I0707 11:35:49.133029  2290 net.cpp:91] Creating Layer inception_5b/3x3
I0707 11:35:49.133038  2290 net.cpp:425] inception_5b/3x3 <- inception_5b/3x3_reduce
I0707 11:35:49.133049  2290 net.cpp:399] inception_5b/3x3 -> inception_5b/3x3
I0707 11:35:49.137030  2294 net.cpp:141] Setting up inception_5b/relu_1x1
I0707 11:35:49.137073  2294 net.cpp:148] Top shape: 10 384 7 7 (188160)
I0707 11:35:49.137081  2294 net.cpp:156] Memory required for data: 544284160
I0707 11:35:49.137089  2294 layer_factory.hpp:77] Creating layer inception_5b/3x3_reduce
I0707 11:35:49.137118  2294 net.cpp:91] Creating Layer inception_5b/3x3_reduce
I0707 11:35:49.137130  2294 net.cpp:425] inception_5b/3x3_reduce <- inception_5a/output_inception_5a/output_0_split_1
I0707 11:35:49.137150  2294 net.cpp:399] inception_5b/3x3_reduce -> inception_5b/3x3_reduce
I0707 11:35:49.145920  2290 net.cpp:141] Setting up inception_5b/3x3
I0707 11:35:49.145942  2290 net.cpp:148] Top shape: 10 384 7 7 (188160)
I0707 11:35:49.145948  2290 net.cpp:156] Memory required for data: 545789440
I0707 11:35:49.145958  2290 layer_factory.hpp:77] Creating layer inception_5b/relu_3x3
I0707 11:35:49.145972  2290 net.cpp:91] Creating Layer inception_5b/relu_3x3
I0707 11:35:49.145978  2290 net.cpp:425] inception_5b/relu_3x3 <- inception_5b/3x3
I0707 11:35:49.145987  2290 net.cpp:386] inception_5b/relu_3x3 -> inception_5b/3x3 (in-place)
I0707 11:35:49.146984  2290 net.cpp:141] Setting up inception_5b/relu_3x3
I0707 11:35:49.147002  2290 net.cpp:148] Top shape: 10 384 7 7 (188160)
I0707 11:35:49.147007  2290 net.cpp:156] Memory required for data: 546542080
I0707 11:35:49.147020  2290 layer_factory.hpp:77] Creating layer inception_5b/5x5_reduce
I0707 11:35:49.147037  2290 net.cpp:91] Creating Layer inception_5b/5x5_reduce
I0707 11:35:49.147044  2290 net.cpp:425] inception_5b/5x5_reduce <- inception_5a/output_inception_5a/output_0_split_2
I0707 11:35:49.147058  2290 net.cpp:399] inception_5b/5x5_reduce -> inception_5b/5x5_reduce
I0707 11:35:49.147989  2294 net.cpp:141] Setting up inception_5b/3x3_reduce
I0707 11:35:49.148027  2294 net.cpp:148] Top shape: 10 192 7 7 (94080)
I0707 11:35:49.148036  2294 net.cpp:156] Memory required for data: 544660480
I0707 11:35:49.148052  2294 layer_factory.hpp:77] Creating layer inception_5b/relu_3x3_reduce
I0707 11:35:49.148069  2294 net.cpp:91] Creating Layer inception_5b/relu_3x3_reduce
I0707 11:35:49.148079  2294 net.cpp:425] inception_5b/relu_3x3_reduce <- inception_5b/3x3_reduce
I0707 11:35:49.148090  2294 net.cpp:386] inception_5b/relu_3x3_reduce -> inception_5b/3x3_reduce (in-place)
I0707 11:35:49.150503  2294 net.cpp:141] Setting up inception_5b/relu_3x3_reduce
I0707 11:35:49.150537  2294 net.cpp:148] Top shape: 10 192 7 7 (94080)
I0707 11:35:49.150543  2294 net.cpp:156] Memory required for data: 545036800
I0707 11:35:49.150550  2294 layer_factory.hpp:77] Creating layer inception_5b/3x3
I0707 11:35:49.150578  2294 net.cpp:91] Creating Layer inception_5b/3x3
I0707 11:35:49.150588  2294 net.cpp:425] inception_5b/3x3 <- inception_5b/3x3_reduce
I0707 11:35:49.150601  2294 net.cpp:399] inception_5b/3x3 -> inception_5b/3x3
I0707 11:35:49.151834  2290 net.cpp:141] Setting up inception_5b/5x5_reduce
I0707 11:35:49.151854  2290 net.cpp:148] Top shape: 10 48 7 7 (23520)
I0707 11:35:49.151860  2290 net.cpp:156] Memory required for data: 546636160
I0707 11:35:49.151870  2290 layer_factory.hpp:77] Creating layer inception_5b/relu_5x5_reduce
I0707 11:35:49.151880  2290 net.cpp:91] Creating Layer inception_5b/relu_5x5_reduce
I0707 11:35:49.151885  2290 net.cpp:425] inception_5b/relu_5x5_reduce <- inception_5b/5x5_reduce
I0707 11:35:49.151897  2290 net.cpp:386] inception_5b/relu_5x5_reduce -> inception_5b/5x5_reduce (in-place)
I0707 11:35:49.155560  2290 net.cpp:141] Setting up inception_5b/relu_5x5_reduce
I0707 11:35:49.155577  2290 net.cpp:148] Top shape: 10 48 7 7 (23520)
I0707 11:35:49.155582  2290 net.cpp:156] Memory required for data: 546730240
I0707 11:35:49.155587  2290 layer_factory.hpp:77] Creating layer inception_5b/5x5
I0707 11:35:49.155606  2290 net.cpp:91] Creating Layer inception_5b/5x5
I0707 11:35:49.155612  2290 net.cpp:425] inception_5b/5x5 <- inception_5b/5x5_reduce
I0707 11:35:49.155630  2290 net.cpp:399] inception_5b/5x5 -> inception_5b/5x5
I0707 11:35:49.160835  2290 net.cpp:141] Setting up inception_5b/5x5
I0707 11:35:49.160856  2290 net.cpp:148] Top shape: 10 128 7 7 (62720)
I0707 11:35:49.160862  2290 net.cpp:156] Memory required for data: 546981120
I0707 11:35:49.160871  2290 layer_factory.hpp:77] Creating layer inception_5b/relu_5x5
I0707 11:35:49.160886  2290 net.cpp:91] Creating Layer inception_5b/relu_5x5
I0707 11:35:49.160892  2290 net.cpp:425] inception_5b/relu_5x5 <- inception_5b/5x5
I0707 11:35:49.160900  2290 net.cpp:386] inception_5b/relu_5x5 -> inception_5b/5x5 (in-place)
I0707 11:35:49.161218  2290 net.cpp:141] Setting up inception_5b/relu_5x5
I0707 11:35:49.161231  2290 net.cpp:148] Top shape: 10 128 7 7 (62720)
I0707 11:35:49.161237  2290 net.cpp:156] Memory required for data: 547232000
I0707 11:35:49.161242  2290 layer_factory.hpp:77] Creating layer inception_5b/pool
I0707 11:35:49.161252  2290 net.cpp:91] Creating Layer inception_5b/pool
I0707 11:35:49.161258  2290 net.cpp:425] inception_5b/pool <- inception_5a/output_inception_5a/output_0_split_3
I0707 11:35:49.161270  2290 net.cpp:399] inception_5b/pool -> inception_5b/pool
I0707 11:35:49.161352  2290 net.cpp:141] Setting up inception_5b/pool
I0707 11:35:49.161362  2290 net.cpp:148] Top shape: 10 832 7 7 (407680)
I0707 11:35:49.161366  2290 net.cpp:156] Memory required for data: 548862720
I0707 11:35:49.161371  2290 layer_factory.hpp:77] Creating layer inception_5b/pool_proj
I0707 11:35:49.161391  2290 net.cpp:91] Creating Layer inception_5b/pool_proj
I0707 11:35:49.161397  2290 net.cpp:425] inception_5b/pool_proj <- inception_5b/pool
I0707 11:35:49.161406  2290 net.cpp:399] inception_5b/pool_proj -> inception_5b/pool_proj
I0707 11:35:49.167302  2290 net.cpp:141] Setting up inception_5b/pool_proj
I0707 11:35:49.167330  2290 net.cpp:148] Top shape: 10 128 7 7 (62720)
I0707 11:35:49.167335  2290 net.cpp:156] Memory required for data: 549113600
I0707 11:35:49.167346  2290 layer_factory.hpp:77] Creating layer inception_5b/relu_pool_proj
I0707 11:35:49.167356  2290 net.cpp:91] Creating Layer inception_5b/relu_pool_proj
I0707 11:35:49.167363  2290 net.cpp:425] inception_5b/relu_pool_proj <- inception_5b/pool_proj
I0707 11:35:49.167371  2290 net.cpp:386] inception_5b/relu_pool_proj -> inception_5b/pool_proj (in-place)
I0707 11:35:49.169059  2290 net.cpp:141] Setting up inception_5b/relu_pool_proj
I0707 11:35:49.169076  2290 net.cpp:148] Top shape: 10 128 7 7 (62720)
I0707 11:35:49.169081  2290 net.cpp:156] Memory required for data: 549364480
I0707 11:35:49.169087  2290 layer_factory.hpp:77] Creating layer inception_5b/output
I0707 11:35:49.169103  2290 net.cpp:91] Creating Layer inception_5b/output
I0707 11:35:49.169111  2290 net.cpp:425] inception_5b/output <- inception_5b/1x1
I0707 11:35:49.169117  2290 net.cpp:425] inception_5b/output <- inception_5b/3x3
I0707 11:35:49.169123  2290 net.cpp:425] inception_5b/output <- inception_5b/5x5
I0707 11:35:49.169129  2290 net.cpp:425] inception_5b/output <- inception_5b/pool_proj
I0707 11:35:49.169137  2290 net.cpp:399] inception_5b/output -> inception_5b/output
I0707 11:35:49.169194  2290 net.cpp:141] Setting up inception_5b/output
I0707 11:35:49.169204  2290 net.cpp:148] Top shape: 10 1024 7 7 (501760)
I0707 11:35:49.169209  2290 net.cpp:156] Memory required for data: 551371520
I0707 11:35:49.169214  2290 layer_factory.hpp:77] Creating layer pool5/7x7_s1
I0707 11:35:49.169229  2290 net.cpp:91] Creating Layer pool5/7x7_s1
I0707 11:35:49.169234  2290 net.cpp:425] pool5/7x7_s1 <- inception_5b/output
I0707 11:35:49.169244  2290 net.cpp:399] pool5/7x7_s1 -> pool5/7x7_s1
I0707 11:35:49.170639  2290 net.cpp:141] Setting up pool5/7x7_s1
I0707 11:35:49.170660  2290 net.cpp:148] Top shape: 10 1024 1 1 (10240)
I0707 11:35:49.170665  2290 net.cpp:156] Memory required for data: 551412480
I0707 11:35:49.170670  2290 layer_factory.hpp:77] Creating layer pool5/drop_7x7_s1
I0707 11:35:49.170711  2290 net.cpp:91] Creating Layer pool5/drop_7x7_s1
I0707 11:35:49.170717  2290 net.cpp:425] pool5/drop_7x7_s1 <- pool5/7x7_s1
I0707 11:35:49.170725  2290 net.cpp:386] pool5/drop_7x7_s1 -> pool5/7x7_s1 (in-place)
I0707 11:35:49.170935  2290 net.cpp:141] Setting up pool5/drop_7x7_s1
I0707 11:35:49.170948  2290 net.cpp:148] Top shape: 10 1024 1 1 (10240)
I0707 11:35:49.170953  2290 net.cpp:156] Memory required for data: 551453440
I0707 11:35:49.170958  2290 layer_factory.hpp:77] Creating layer loss3/classifier
I0707 11:35:49.170972  2290 net.cpp:91] Creating Layer loss3/classifier
I0707 11:35:49.170979  2290 net.cpp:425] loss3/classifier <- pool5/7x7_s1
I0707 11:35:49.170986  2290 net.cpp:399] loss3/classifier -> loss3/classifier
I0707 11:35:49.171041  2294 net.cpp:141] Setting up inception_5b/3x3
I0707 11:35:49.171077  2294 net.cpp:148] Top shape: 10 384 7 7 (188160)
I0707 11:35:49.171087  2294 net.cpp:156] Memory required for data: 545789440
I0707 11:35:49.171104  2294 layer_factory.hpp:77] Creating layer inception_5b/relu_3x3
I0707 11:35:49.171119  2294 net.cpp:91] Creating Layer inception_5b/relu_3x3
I0707 11:35:49.171130  2294 net.cpp:425] inception_5b/relu_3x3 <- inception_5b/3x3
I0707 11:35:49.171144  2294 net.cpp:386] inception_5b/relu_3x3 -> inception_5b/3x3 (in-place)
I0707 11:35:49.174121  2294 net.cpp:141] Setting up inception_5b/relu_3x3
I0707 11:35:49.174142  2294 net.cpp:148] Top shape: 10 384 7 7 (188160)
I0707 11:35:49.174151  2294 net.cpp:156] Memory required for data: 546542080
I0707 11:35:49.174170  2294 layer_factory.hpp:77] Creating layer inception_5b/5x5_reduce
I0707 11:35:49.174193  2294 net.cpp:91] Creating Layer inception_5b/5x5_reduce
I0707 11:35:49.174204  2294 net.cpp:425] inception_5b/5x5_reduce <- inception_5a/output_inception_5a/output_0_split_2
I0707 11:35:49.174223  2294 net.cpp:399] inception_5b/5x5_reduce -> inception_5b/5x5_reduce
I0707 11:35:49.178300  2294 net.cpp:141] Setting up inception_5b/5x5_reduce
I0707 11:35:49.178342  2294 net.cpp:148] Top shape: 10 48 7 7 (23520)
I0707 11:35:49.178350  2294 net.cpp:156] Memory required for data: 546636160
I0707 11:35:49.178365  2294 layer_factory.hpp:77] Creating layer inception_5b/relu_5x5_reduce
I0707 11:35:49.178380  2294 net.cpp:91] Creating Layer inception_5b/relu_5x5_reduce
I0707 11:35:49.178390  2294 net.cpp:425] inception_5b/relu_5x5_reduce <- inception_5b/5x5_reduce
I0707 11:35:49.178406  2294 net.cpp:386] inception_5b/relu_5x5_reduce -> inception_5b/5x5_reduce (in-place)
I0707 11:35:49.179458  2294 net.cpp:141] Setting up inception_5b/relu_5x5_reduce
I0707 11:35:49.179491  2294 net.cpp:148] Top shape: 10 48 7 7 (23520)
I0707 11:35:49.179498  2294 net.cpp:156] Memory required for data: 546730240
I0707 11:35:49.179507  2294 layer_factory.hpp:77] Creating layer inception_5b/5x5
I0707 11:35:49.179529  2294 net.cpp:91] Creating Layer inception_5b/5x5
I0707 11:35:49.179538  2294 net.cpp:425] inception_5b/5x5 <- inception_5b/5x5_reduce
I0707 11:35:49.179555  2294 net.cpp:399] inception_5b/5x5 -> inception_5b/5x5
I0707 11:35:49.183086  2290 net.cpp:141] Setting up loss3/classifier
I0707 11:35:49.183109  2290 net.cpp:148] Top shape: 10 1000 (10000)
I0707 11:35:49.183114  2290 net.cpp:156] Memory required for data: 551493440
I0707 11:35:49.183125  2290 layer_factory.hpp:77] Creating layer prob
I0707 11:35:49.183140  2290 net.cpp:91] Creating Layer prob
I0707 11:35:49.183147  2290 net.cpp:425] prob <- loss3/classifier
I0707 11:35:49.183156  2290 net.cpp:399] prob -> prob
I0707 11:35:49.184746  2290 net.cpp:141] Setting up prob
I0707 11:35:49.184762  2290 net.cpp:148] Top shape: 10 1000 (10000)
I0707 11:35:49.184770  2290 net.cpp:156] Memory required for data: 551533440
I0707 11:35:49.184777  2290 net.cpp:219] prob does not need backward computation.
I0707 11:35:49.184782  2290 net.cpp:219] loss3/classifier does not need backward computation.
I0707 11:35:49.184787  2290 net.cpp:219] pool5/drop_7x7_s1 does not need backward computation.
I0707 11:35:49.184790  2290 net.cpp:219] pool5/7x7_s1 does not need backward computation.
…
I0707 11:35:49.185607  2290 net.cpp:219] pool1/3x3_s2 does not need backward computation.
I0707 11:35:49.185612  2290 net.cpp:219] conv1/relu_7x7 does not need backward computation.
I0707 11:35:49.185617  2290 net.cpp:219] conv1/7x7_s2 does not need backward computation.
I0707 11:35:49.185621  2290 net.cpp:219] data does not need backward computation.
I0707 11:35:49.185626  2290 net.cpp:261] This network produces output prob
I0707 11:35:49.185776  2290 net.cpp:274] Network initialization done.
I0707 11:35:49.186499  2294 net.cpp:141] Setting up inception_5b/relu_5x5
I0707 11:35:49.186517  2294 net.cpp:148] Top shape: 10 128 7 7 (62720)
I0707 11:35:49.186524  2294 net.cpp:156] Memory required for data: 547232000
I0707 11:35:49.186532  2294 layer_factory.hpp:77] Creating layer inception_5b/pool
I0707 11:35:49.186544  2294 net.cpp:91] Creating Layer inception_5b/pool
I0707 11:35:49.186553  2294 net.cpp:425] inception_5b/pool <- inception_5a/output_inception_5a/output_0_split_3
I0707 11:35:49.186583  2294 net.cpp:399] inception_5b/pool -> inception_5b/pool
I0707 11:35:49.186678  2294 net.cpp:141] Setting up inception_5b/pool
I0707 11:35:49.186700  2294 net.cpp:148] Top shape: 10 832 7 7 (407680)
I0707 11:35:49.186709  2294 net.cpp:156] Memory required for data: 548862720
I0707 11:35:49.186717  2294 layer_factory.hpp:77] Creating layer inception_5b/pool_proj
I0707 11:35:49.186746  2294 net.cpp:91] Creating Layer inception_5b/pool_proj
I0707 11:35:49.186756  2294 net.cpp:425] inception_5b/pool_proj <- inception_5b/pool
I0707 11:35:49.186771  2294 net.cpp:399] inception_5b/pool_proj -> inception_5b/pool_proj
I0707 11:35:49.191741  2294 net.cpp:141] Setting up inception_5b/pool_proj
I0707 11:35:49.191763  2294 net.cpp:148] Top shape: 10 128 7 7 (62720)
I0707 11:35:49.191771  2294 net.cpp:156] Memory required for data: 549113600
I0707 11:35:49.191786  2294 layer_factory.hpp:77] Creating layer inception_5b/relu_pool_proj
I0707 11:35:49.191797  2294 net.cpp:91] Creating Layer inception_5b/relu_pool_proj
I0707 11:35:49.191805  2294 net.cpp:425] inception_5b/relu_pool_proj <- inception_5b/pool_proj
I0707 11:35:49.191815  2294 net.cpp:386] inception_5b/relu_pool_proj -> inception_5b/pool_proj (in-place)
I0707 11:35:49.192800  2294 net.cpp:141] Setting up inception_5b/relu_pool_proj
I0707 11:35:49.192832  2294 net.cpp:148] Top shape: 10 128 7 7 (62720)
I0707 11:35:49.192840  2294 net.cpp:156] Memory required for data: 549364480
I0707 11:35:49.192850  2294 layer_factory.hpp:77] Creating layer inception_5b/output
I0707 11:35:49.192862  2294 net.cpp:91] Creating Layer inception_5b/output
I0707 11:35:49.192869  2294 net.cpp:425] inception_5b/output <- inception_5b/1x1
I0707 11:35:49.192879  2294 net.cpp:425] inception_5b/output <- inception_5b/3x3
I0707 11:35:49.192888  2294 net.cpp:425] inception_5b/output <- inception_5b/5x5
I0707 11:35:49.192896  2294 net.cpp:425] inception_5b/output <- inception_5b/pool_proj
I0707 11:35:49.192906  2294 net.cpp:399] inception_5b/output -> inception_5b/output
I0707 11:35:49.192965  2294 net.cpp:141] Setting up inception_5b/output
I0707 11:35:49.192978  2294 net.cpp:148] Top shape: 10 1024 7 7 (501760)
I0707 11:35:49.192988  2294 net.cpp:156] Memory required for data: 551371520
I0707 11:35:49.192996  2294 layer_factory.hpp:77] Creating layer pool5/7x7_s1
I0707 11:35:49.193007  2294 net.cpp:91] Creating Layer pool5/7x7_s1
I0707 11:35:49.193016  2294 net.cpp:425] pool5/7x7_s1 <- inception_5b/output
I0707 11:35:49.193027  2294 net.cpp:399] pool5/7x7_s1 -> pool5/7x7_s1
I0707 11:35:49.193806  2294 net.cpp:141] Setting up pool5/7x7_s1
I0707 11:35:49.193825  2294 net.cpp:148] Top shape: 10 1024 1 1 (10240)
I0707 11:35:49.193832  2294 net.cpp:156] Memory required for data: 551412480
I0707 11:35:49.193840  2294 layer_factory.hpp:77] Creating layer pool5/drop_7x7_s1
I0707 11:35:49.193852  2294 net.cpp:91] Creating Layer pool5/drop_7x7_s1
I0707 11:35:49.193861  2294 net.cpp:425] pool5/drop_7x7_s1 <- pool5/7x7_s1
I0707 11:35:49.193874  2294 net.cpp:386] pool5/drop_7x7_s1 -> pool5/7x7_s1 (in-place)
I0707 11:35:49.193917  2294 net.cpp:141] Setting up pool5/drop_7x7_s1
I0707 11:35:49.193933  2294 net.cpp:148] Top shape: 10 1024 1 1 (10240)
I0707 11:35:49.193940  2294 net.cpp:156] Memory required for data: 551453440
I0707 11:35:49.193948  2294 layer_factory.hpp:77] Creating layer loss3/classifier
I0707 11:35:49.193961  2294 net.cpp:91] Creating Layer loss3/classifier
I0707 11:35:49.193969  2294 net.cpp:425] loss3/classifier <- pool5/7x7_s1
I0707 11:35:49.193984  2294 net.cpp:399] loss3/classifier -> loss3/classifier
I0707 11:35:49.204936  2294 net.cpp:141] Setting up loss3/classifier
I0707 11:35:49.204979  2294 net.cpp:148] Top shape: 10 1000 (10000)
I0707 11:35:49.204985  2294 net.cpp:156] Memory required for data: 551493440
I0707 11:35:49.204998  2294 layer_factory.hpp:77] Creating layer prob
I0707 11:35:49.205010  2294 net.cpp:91] Creating Layer prob
I0707 11:35:49.205018  2294 net.cpp:425] prob <- loss3/classifier
I0707 11:35:49.205027  2294 net.cpp:399] prob -> prob
I0707 11:35:49.206641  2294 net.cpp:141] Setting up prob
I0707 11:35:49.206656  2294 net.cpp:148] Top shape: 10 1000 (10000)
I0707 11:35:49.206661  2294 net.cpp:156] Memory required for data: 551533440
I0707 11:35:49.206666  2294 net.cpp:219] prob does not need backward computation.
I0707 11:35:49.206671  2294 net.cpp:219] loss3/classifier does not need backward computation.
I0707 11:35:49.206676  2294 net.cpp:219] pool5/drop_7x7_s1 does not need backward computation.
I0707 11:35:49.206681  2294 net.cpp:219] pool5/7x7_s1 does not need backward computation.
…
