…
It's highly recommended that you fix the library with 'execstack -c <libfile>', or link it with '-z noexecstack'.
WARNING: cuda not found in compile time, setting current GPU will not work.
WARNING: cuda not found in compile time, setting current GPU will not work.
WARNING: Logging before InitGoogleLogging() is written to STDERR
I0706 22:12:22.419144  1488 net.cpp:49] Initializing net from parameters: 
name: "GoogleNet"
state {
  phase: TEST
}
layer {
  name: "data"
  type: "Input"
  top: "data"
  input_param {
    shape {
      dim: 10
      dim: 3
      dim: 224
      dim: 224
    }
  }
}
layer {
  name: "conv1/7x7_s2"
  type: "Convolution"
  bottom: "data"
  top: "conv1/7x7_s2"
  param {
    lr_mult: 1
    decay_mult: 1
  }
  param {
    lr_mult: 2
    decay_mult: 0
  }
  convolution_param {
    num_output: 64
    pad: 3
    kernel_size: 7
    stride: 2
    weight_filler {
      type: "xavier"
      std: 0.1
    }
    bias_filler {
      type: "constant"
      value: 0.2
    }
  }
}
layer {
  name: "conv1/relu_7x7"
  type: "ReLU"
  bottom: "conv1/7x7_s2"
  top: "conv1/7x7_s2"
}
layer {
  name: "pool1/3x3_s2"
  type: "Pooling"
  bottom: "conv1/7x7_s2"
  top: "pool1/3x3_s2"
  pooling_param {
    pool: MAX
    kernel_size: 3
    stride: 2
  }
}
layer {
  name: "pool1/norm1"
  type: "LRN"
  bottom: "pool1/3x3_s2"
  top: "pool1/norm1"
  lrn_param {
    local_size: 5
    alpha: 0.0001
    beta: 0.75
  }
}
layer {
  name: "conv2/3x3_reduce"
  type: "Convolution"
  bottom: "pool1/norm1"
  top: "conv2/3x3_reduce"
  param {
    lr_mult: 1
    decay_mult: 1
  }
  param {
    lr_mult: 2
    decay_mult: 0
  }
  convolution_param {
    num_output: 64
    kernel_size: 1
    weight_filler {
      type: "xavier"
      std: 0.1
    }
    bias_filler {
      type: "constant"
      value: 0.2
    }
  }
}
layer {
  name: "conv2/relu_3x3_reduce"
  type: "ReLU"
  bottom: "conv2/3x3_reduce"
  top: "conv2/3x3_reduce"
}
layer {
  name: "conv2/3x3"
  type: "Convolution"
  bottom: "conv2/3x3_reduce"
  top: "conv2/3x3"
  param {
    lr_mult: 1
    decay_mult: 1
  }
  param {
    lr_mult: 2
    decay_mult: 0
  }
  convolution_param {
    num_output: 192
    pad: 1
    kernel_size: 3
    weight_filler {
      type: "xavier"
      std: 0.03
    }
    bias_filler {
      type: "constant"
      value: 0.2
    }
  }
}
layer {
  name: "conv2/relu_3x3"
  type: "ReLU"
  bottom: "conv2/3x3"
  top: "conv2/3x3"
}
layer {
  name: "conv2/norm2"
  type: "LRN"
  bottom: "conv2/3x3"
  top: "conv2/norm2"
  lrn_param {
    local_size: 5
    alpha: 0.0001
    beta: 0.75
  }
}
layer {
  name: "pool2/3x3_s2"
  type: "Pooling"
  bottom: "conv2/norm2"
  top: "pool2/3x3_s2"
  pooling_param {
    pool: MAX
    kernel_size: 3
    stride: 2
  }
}
layer {
  name: "inception_3a/1x1"
  type: "Convolution"
  bottom: "pool2/3x3_s2"
  top: "inception_3a/1x1"
  param {
    lr_mult: 1
    decay_mult: 1
  }
  param {
    lr_mult: 2
    decay_mult: 0
  }
  convolution_param {
    num_output: 64
    kernel_size: 1
    weight_filler {
      type: "xavier"
      std: 0.03
    }
    bias_filler {
      type: "constant"
      value: 0.2
    }
  }
}
layer {
  name: "inception_3a/relu_1x1"
  type: "ReLU"
  bottom: "inception_3a/1x1"
  top: "inception_3a/1x1"
}
layer {
  name: "inception_3a/3x3_reduce"
  type: "Convolution"
  bottom: "pool2/3x3_s2"
  top: "inception_3a/3x3_reduce"
  param {
    lr_mult: 1
    decay_mult: 1
  }
  param {
    lr_mult: 2
    decay_mult: 0
  }
  convolution_param {
    num_output: 96
    kernel_size: 1
    weight_filler {
      type: "xavier"
      std: 0.09
    }
    bias_filler {
      type: "constant"
      value: 0.2
    }
  }
}
layer {
  name: "inception_3a/relu_3x3_reduce"
  type: "ReLU"
  bottom: "inception_3a/3x3_reduce"
  top: "inception_3a/3x3_reduce"
}
layer {
  name: "inception_3a/3x3"
  type: "Convolution"
  bottom: "inception_3a/3x3_reduce"
  top: "inception_3a/3x3"
  param {
    lr_mult: 1
    decay_mult: 1
  }
  param {
    lr_mult: 2
    decay_mult: 0
  }
  convolution_param {
    num_output: 128
    pad: 1
    kernel_size: 3
    weight_filler {
      type: "xavier"
      std: 0.03
    }
    bias_filler {
      type: "constant"
      value: 0.2
    }
  }
}
layer {
  name: "inception_3a/relu_3x3"
  type: "ReLU"
  bottom: "inception_3a/3x3"
  top: "inception_3a/3x3"
}
layer {
  name: "inception_3a/5x5_reduce"
  type: "Convolution"
  bottom: "pool2/3x3_s2"
  top: "inception_3a/5x5_reduce"
  param {
    lr_mult: 1
    decay_mult: 1
  }
  param {
    lr_mult: 2
    decay_mult: 0
  }
  convolution_param {
    num_output: 16
    kernel_size: 1
    weight_filler {
      type: "xavier"
      std: 0.2
    }
    bias_filler {
      type: "constant"
      value: 0.2
    }
  }
}
layer {
  name: "inception_3a/relu_5x5_reduce"
  type: "ReLU"
  bottom: "inception_3a/5x5_reduce"
  top: "inception_3a/5x5_reduce"
}
layer {
  name: "inception_3a/5x5"
  type: "Convolution"
  bottom: "inception_3a/5x5_reduce"
  top: "inception_3a/5x5"
  param {
    lr_mult: 1
    decay_mult: 1
  }
  param {
    lr_mult: 2
    decay_mult: 0
  }
  convolution_param {
    num_output: 32
    pad: 2
    kernel_size: 5
    weight_filler {
      type: "xavier"
      std: 0.03
    }
    bias_filler {
      type: "constant"
      value: 0.2
    }
  }
}
layer {
  name: "inception_3a/relu_5x5"
  type: "ReLU"
  bottom: "inception_3a/5x5"
  top: "inception_3a/5x5"
}
layer {
  name: "inception_3a/pool"
  type: "Pooling"
  bottom: "pool2/3x3_s2"
  top: "inception_3a/pool"
  pooling_param {
    pool: MAX
    kernel_size: 3
    stride: 1
    pad: 1
  }
}
layer {
  name: "inception_3a/pool_proj"
  type: "Convolution"
  bottom: "inception_3a/pool"
  top: "inception_3a/pool_proj"
  param {
    lr_mult: 1
    decay_mult: 1
  }
  param {
    lr_mult: 2
    decay_mult: 0
  }
  convolution_param {
    num_output: 32
    kernel_size: 1
    weight_filler {
      type: "xavier"
      std: 0.1
    }
    bias_filler {
      type: "constant"
      value: 0.2
    }
  }
}
layer {
  name: "inception_3a/relu_pool_proj"
  type: "ReLU"
  bottom: "inception_3a/pool_proj"
  top: "inception_3a/pool_proj"
}
layer {
  name: "inception_3a/output"
  type: "Concat"
  bottom: "inception_3a/1x1"
  bottom: "inception_3a/3x3"
  bottom: "inception_3a/5x5"
  bottom: "inception_3a/pool_proj"
  top: "inception_3a/output"
}
layer {
  name: "inception_3b/1x1"
  type: "Convolution"
  bottom: "inception_3a/output"
  top: "inception_3b/1x1"
  param {
    lr_mult: 1
    decay_mult: 1
  }
  param {
    lr_mult: 2
    decay_mult: 0
  }
  convolution_param {
    num_output: 128
    kernel_size: 1
    weight_filler {
      type: "xavier"
      std: 0.03
    }
    bias_filler {
      type: "constant"
      value: 0.2
    }
  }
}
layer {
  name: "inception_3b/relu_1x1"
  type: "ReLU"
  bottom: "inception_3b/1x1"
  top: "inception_3b/1x1"
}
layer {
  name: "inception_3b/3x3_reduce"
  type: "Convolution"
  bottom: "inception_3a/output"
  top: "inception_3b/3x3_reduce"
  param {
    lr_mult: 1
    decay_mult: 1
  }
  param {
    lr_mult: 2
    decay_mult: 0
  }
  convolution_param {
    num_output: 128
    kernel_size: 1
    weight_filler {
      type: "xavier"
      std: 0.09
    }
    bias_filler {
      type: "constant"
      value: 0.2
    }
  }
}
layer {
  name: "inception_3b/relu_3x3_reduce"
  type: "ReLU"
  bottom: "inception_3b/3x3_reduce"
  top: "inception_3b/3x3_reduce"
}
layer {
  name: "inception_3b/3x3"
  type: "Convolution"
  bottom: "inception_3b/3x3_reduce"
  top: "inception_3b/3x3"
  param {
    lr_mult: 1
    decay_mult: 1
  }
  param {
    lr_mult: 2
    decay_mult: 0
  }
  convolution_param {
    num_output: 192
    pad: 1
    kernel_size: 3
    weight_filler {
      type: "xavier"
      std: 0.03
    }
    bias_filler {
      type: "constant"
      value: 0.2
    }
  }
}
layer {
  name: "inception_3b/relu_3x3"
  type: "ReLU"
  bottom: "inception_3b/3x3"
  top: "inception_3b/3x3"
}
layer {
  name: "inception_3b/5x5_reduce"
  type: "Convolution"
  bottom: "inception_3a/output"
  top: "inception_3b/5x5_reduce"
  param {
    lr_mult: 1
    decay_mult: 1
  }
  param {
    lr_mult: 2
    decay_mult: 0
  }
  convolution_param {
    num_output: 32
    kernel_size: 1
    weight_filler {
      type: "xavier"
      std: 0.2
    }
    bias_filler {
      type: "constant"
      value: 0.2
    }
  }
}
layer {
  name: "inception_3b/relu_5x5_reduce"
  type: "ReLU"
  bottom: "inception_3b/5x5_reduce"
  top: "inception_3b/5x5_reduce"
}
layer {
  name: "inception_3b/5x5"
  type: "Convolution"
  bottom: "inception_3b/5x5_reduce"
  top: "inception_3b/5x5"
  param {
    lr_mult: 1
    decay_mult: 1
  }
  param {
    lr_mult: 2
    decay_mult: 0
  }
  convolution_param {
    num_output: 96
    pad: 2
    kernel_size: 5
    weight_filler {
      type: "xavier"
      std: 0.03
    }
    bias_filler {
      type: "constant"
      value: 0.2
    }
  }
}
layer {
  name: "inception_3b/relu_5x5"
  type: "ReLU"
  bottom: "inception_3b/5x5"
  top: "inception_3b/5x5"
}
layer {
  name: "inception_3b/pool"
  type: "Pooling"
  bottom: "inception_3a/output"
  top: "inception_3b/pool"
  pooling_param {
    pool: MAX
    kernel_size: 3
    stride: 1
    pad: 1
  }
}
layer {
  name: "inception_3b/pool_proj"
  type: "Convolution"
  bottom: "inception_3b/pool"
  top: "inception_3b/pool_proj"
  param {
    lr_mult: 1
    decay_mult: 1
  }
  param {
    lr_mult: 2
    decay_mult: 0
  }
  convolution_param {
    num_output: 64
    kernel_size: 1
    weight_filler {
      type: "xavier"
      std: 0.1
    }
    bias_filler {
      type: "constant"
      value: 0.2
    }
  }
}
layer {
  name: "inception_3b/relu_pool_proj"
  type: "ReLU"
  bottom: "inception_3b/pool_proj"
  top: "inception_3b/pool_proj"
}
layer {
  name: "inception_3b/output"
  type: "Concat"
  bottom: "inception_3b/1x1"
  bottom: "inception_3b/3x3"
  bottom: "inception_3b/5x5"
  bottom: "inception_3b/pool_proj"
  top: "inception_3b/output"
}
layer {
  name: "pool3/3x3_s2"
  type: "Pooling"
  bottom: "inception_3b/output"
  top: "pool3/3x3_s2"
  pooling_param {
    pool: MAX
    kernel_size: 3
    stride: 2
  }
}
layer {
  name: "inception_4a/1x1"
  type: "Convolution"
  bottom: "pool3/3x3_s2"
  top: "inception_4a/1x1"
  param {
    lr_mult: 1
    decay_mult: 1
  }
  param {
    lr_mult: 2
    decay_mult: 0
  }
  convolution_param {
    num_output: 192
    kernel_size: 1
    weight_filler {
      type: "xavier"
      std: 0.03
    }
    bias_filler {
      type: "constant"
      value: 0.2
    }
  }
}
layer {
  name: "inception_4a/relu_1x1"
  type: "ReLU"
  bottom: "inception_4a/1x1"
  top: "inception_4a/1x1"
}
layer {
  name: "inception_4a/3x3_reduce"
  type: "Convolution"
  bottom: "pool3/3x3_s2"
  top: "inception_4a/3x3_reduce"
  param {
    lr_mult: 1
    decay_mult: 1
  }
  param {
    lr_mult: 2
    decay_mult: 0
  }
  convolution_param {
    num_output: 96
    kernel_size: 1
    weight_filler {
      type: "xavier"
      std: 0.09
    }
    bias_filler {
      type: "constant"
      value: 0.2
    }
  }
}
layer {
  name: "inception_4a/relu_3x3_reduce"
  type: "ReLU"
  bottom: "inception_4a/3x3_reduce"
  top: "inception_4a/3x3_reduce"
}
layer {
  name: "inception_4a/3x3"
  type: "Convolution"
  bottom: "inception_4a/3x3_reduce"
  top: "inception_4a/3x3"
  param {
    lr_mult: 1
    decay_mult: 1
  }
  param {
    lr_mult: 2
    decay_mult: 0
  }
  convolution_param {
    num_output: 208
    pad: 1
    kernel_size: 3
    weight_filler {
      type: "xavier"
      std: 0.03
    }
    bias_filler {
      type: "constant"
      value: 0.2
    }
  }
}
layer {
  name: "inception_4a/relu_3x3"
  type: "ReLU"
  bottom: "inception_4a/3x3"
  top: "inception_4a/3x3"
}
layer {
  name: "inception_4a/5x5_reduce"
  type: "Convolution"
  bottom: "pool3/3x3_s2"
  top: "inception_4a/5x5_reduce"
  param {
    lr_mult: 1
    decay_mult: 1
  }
  param {
    lr_mult: 2
    decay_mult: 0
  }
  convolution_param {
    num_output: 16
    kernel_size: 1
    weight_filler {
      type: "xavier"
      std: 0.2
    }
    bias_filler {
      type: "constant"
      value: 0.2
    }
  }
}
layer {
  name: "inception_4a/relu_5x5_reduce"
  type: "ReLU"
  bottom: "inception_4a/5x5_reduce"
  top: "inception_4a/5x5_reduce"
}
layer {
  name: "inception_4a/5x5"
  type: "Convolution"
  bottom: "inception_4a/5x5_reduce"
  top: "inception_4a/5x5"
  param {
    lr_mult: 1
    decay_mult: 1
  }
  param {
    lr_mult: 2
    decay_mult: 0
  }
  convolution_param {
    num_output: 48
    pad: 2
    kernel_size: 5
    weight_filler {
      type: "xavier"
      std: 0.03
    }
    bias_filler {
      type: "constant"
      value: 0.2
    }
  }
}
layer {
  name: "inception_4a/relu_5x5"
  type: "ReLU"
  bottom: "inception_4a/5x5"
  top: "inception_4a/5x5"
}
layer {
  name: "inception_4a/pool"
  type: "Pooling"
  bottom: "pool3/3x3_s2"
  top: "inception_4a/pool"
  pooling_param {
    pool: MAX
    kernel_size: 3
    stride: 1
    pad: 1
  }
}
layer {
  name: "inception_4a/pool_proj"
  type: "Convolution"
  bottom: "inception_4a/pool"
  top: "inception_4a/pool_proj"
  param {
    lr_mult: 1
    decay_mult: 1
  }
  param {
    lr_mult: 2
    decay_mult: 0
  }
  convolution_param {
    num_output: 64
    kernel_size: 1
    weight_filler {
      type: "xavier"
      std: 0.1
    }
    bias_filler {
      type: "constant"
      value: 0.2
    }
  }
}
layer {
  name: "inception_4a/relu_pool_proj"
  type: "ReLU"
  bottom: "inception_4a/pool_proj"
  top: "inception_4a/pool_proj"
}
layer {
  name: "inception_4a/output"
  type: "Concat"
  bottom: "inception_4a/1x1"
  bottom: "inception_4a/3x3"
  bottom: "inception_4a/5x5"
  bottom: "inception_4a/pool_proj"
  top: "inception_4a/output"
}
layer {
  name: "inception_4b/1x1"
  type: "Convolution"
  bottom: "inception_4a/output"
  top: "inception_4b/1x1"
  param {
    lr_mult: 1
    decay_mult: 1
  }
  param {
    lr_mult: 2
    decay_mult: 0
  }
  convolution_param {
    num_output: 160
    kernel_size: 1
    weight_filler {
      type: "xavier"
      std: 0.03
    }
    bias_filler {
      type: "constant"
      value: 0.2
    }
  }
}
layer {
  name: "inception_4b/relu_1x1"
  type: "ReLU"
  bottom: "inception_4b/1x1"
  top: "inception_4b/1x1"
}
layer {
  name: "inception_4b/3x3_reduce"
  type: "Convolution"
  bottom: "inception_4a/output"
  top: "inception_4b/3x3_reduce"
  param {
    lr_mult: 1
    decay_mult: 1
  }
  param {
    lr_mult: 2
    decay_mult: 0
  }
  convolution_param {
    num_output: 112
    kernel_size: 1
    weight_filler {
      type: "xavier"
      std: 0.09
    }
    bias_filler {
      type: "constant"
      value: 0.2
    }
  }
}
layer {
  name: "inception_4b/relu_3x3_reduce"
  type: "ReLU"
  bottom: "inception_4b/3x3_reduce"
  top: "inception_4b/3x3_reduce"
}
layer {
  name: "inception_4b/3x3"
  type: "Convolution"
  bottom: "inception_4b/3x3_reduce"
  top: "inception_4b/3x3"
  param {
    lr_mult: 1
    decay_mult: 1
  }
  param {
    lr_mult: 2
    decay_mult: 0
  }
  convolution_param {
    num_output: 224
    pad: 1
    kernel_size: 3
    weight_filler {
      type: "xavier"
      std: 0.03
    }
    bias_filler {
      type: "constant"
      value: 0.2
    }
  }
}
layer {
  name: "inception_4b/relu_3x3"
  type: "ReLU"
  bottom: "inception_4b/3x3"
  top: "inception_4b/3x3"
}
layer {
  name: "inception_4b/5x5_reduce"
  type: "Convolution"
  bottom: "inception_4a/output"
  top: "inception_4b/5x5_reduce"
  param {
    lr_mult: 1
    decay_mult: 1
  }
  param {
    lr_mult: 2
    decay_mult: 0
  }
  convolution_param {
    num_output: 24
    kernel_size: 1
    weight_filler {
      type: "xavier"
      std: 0.2
    }
    bias_filler {
      type: "constant"
      value: 0.2
    }
  }
}
layer {
  name: "inception_4b/relu_5x5_reduce"
  type: "ReLU"
  bottom: "inception_4b/5x5_reduce"
  top: "inception_4b/5x5_reduce"
}
layer {
  name: "inception_4b/5x5"
  type: "Convolution"
  bottom: "inception_4b/5x5_reduce"
  top: "inception_4b/5x5"
  param {
    lr_mult: 1
    decay_mult: 1
  }
  param {
    lr_mult: 2
    decay_mult: 0
  }
  convolution_param {
    num_output: 64
    pad: 2
    kernel_size: 5
    weight_filler {
      type: "xavier"
      std: 0.03
    }
    bias_filler {
      type: "constant"
      value: 0.2
    }
  }
}
layer {
  name: "inception_4b/relu_5x5"
  type: "ReLU"
  bottom: "inception_4b/5x5"
  top: "inception_4b/5x5"
}
layer {
  name: "inception_4b/pool"
  type: "Pooling"
  bottom: "inception_4a/output"
  top: "inception_4b/pool"
  pooling_param {
    pool: MAX
    kernel_size: 3
    stride: 1
    pad: 1
  }
}
layer {
  name: "inception_4b/pool_proj"
  type: "Convolution"
  bottom: "inception_4b/pool"
  top: "inception_4b/pool_proj"
  param {
    lr_mult: 1
    decay_mult: 1
  }
  param {
    lr_mult: 2
    decay_mult: 0
  }
  convolution_param {
    num_output: 64
    kernel_size: 1
    weight_filler {
      type: "xavier"
      std: 0.1
    }
    bias_filler {
      type: "constant"
      value: 0.2
    }
  }
}
layer {
  name: "inception_4b/relu_pool_proj"
  type: "ReLU"
  bottom: "inception_4b/pool_proj"
  top: "inception_4b/pool_proj"
}
layer {
  name: "inception_4b/output"
  type: "Concat"
  bottom: "inception_4b/1x1"
  bottom: "inception_4b/3x3"
  bottom: "inception_4b/5x5"
  bottom: "inception_4b/pool_proj"
  top: "inception_4b/output"
}
layer {
  name: "inception_4c/1x1"
  type: "Convolution"
  bottom: "inception_4b/output"
  top: "inception_4c/1x1"
  param {
    lr_mult: 1
    decay_mult: 1
  }
  param {
    lr_mult: 2
    decay_mult: 0
  }
  convolution_param {
    num_output: 128
    kernel_size: 1
    weight_filler {
      type: "xavier"
      std: 0.03
    }
    bias_filler {
      type: "constant"
      value: 0.2
    }
  }
}
layer {
  name: "inception_4c/relu_1x1"
  type: "ReLU"
  bottom: "inception_4c/1x1"
  top: "inception_4c/1x1"
}
layer {
  name: "inception_4c/3x3_reduce"
  type: "Convolution"
  bottom: "inception_4b/output"
  top: "inception_4c/3x3_reduce"
  param {
    lr_mult: 1
    decay_mult: 1
  }
  param {
    lr_mult: 2
    decay_mult: 0
  }
  convolution_param {
    num_output: 128
    kernel_size: 1
    weight_filler {
      type: "xavier"
      std: 0.09
    }
    bias_filler {
      type: "constant"
      value: 0.2
    }
  }
}
layer {
  name: "inception_4c/relu_3x3_reduce"
  type: "ReLU"
  bottom: "inception_4c/3x3_reduce"
  top: "inception_4c/3x3_reduce"
}
layer {
  name: "inception_4c/3x3"
  type: "Convolution"
  bottom: "inception_4c/3x3_reduce"
  top: "inception_4c/3x3"
  param {
    lr_mult: 1
    decay_mult: 1
  }
  param {
    lr_mult: 2
    decay_mult: 0
  }
  convolution_param {
    num_output: 256
    pad: 1
    kernel_size: 3
    weight_filler {
      type: "xavier"
      std: 0.03
    }
    bias_filler {
      type: "constant"
      value: 0.2
    }
  }
}
layer {
  name: "inception_4c/relu_3x3"
  type: "ReLU"
  bottom: "inception_4c/3x3"
  top: "inception_4c/3x3"
}
layer {
  name: "inception_4c/5x5_reduce"
  type: "Convolution"
  bottom: "inception_4b/output"
  top: "inception_4c/5x5_reduce"
  param {
    lr_mult: 1
    decay_mult: 1
  }
  param {
    lr_mult: 2
    decay_mult: 0
  }
  convolution_param {
    num_output: 24
    kernel_size: 1
    weight_filler {
      type: "xavier"
      std: 0.2
    }
    bias_filler {
      type: "constant"
      value: 0.2
    }
  }
}
layer {
  name: "inception_4c/relu_5x5_reduce"
  type: "ReLU"
  bottom: "inception_4c/5x5_reduce"
  top: "inception_4c/5x5_reduce"
}
layer {
  name: "inception_4c/5x5"
  type: "Convolution"
  bottom: "inception_4c/5x5_reduce"
  top: "inception_4c/5x5"
  param {
    lr_mult: 1
    decay_mult: 1
  }
  param {
    lr_mult: 2
    decay_mult: 0
  }
  convolution_param {
    num_output: 64
    pad: 2
    kernel_size: 5
    weight_filler {
      type: "xavier"
      std: 0.03
    }
    bias_filler {
      type: "constant"
      value: 0.2
    }
  }
}
layer {
  name: "inception_4c/relu_5x5"
  type: "ReLU"
  bottom: "inception_4c/5x5"
  top: "inception_4c/5x5"
}
layer {
  name: "inception_4c/pool"
  type: "Pooling"
  bottom: "inception_4b/output"
  top: "inception_4c/pool"
  pooling_param {
    pool: MAX
    kernel_size: 3
    stride: 1
    pad: 1
  }
}
layer {
  name: "inception_4c/pool_proj"
  type: "Convolution"
  bottom: "inception_4c/pool"
  top: "inception_4c/pool_proj"
  param {
    lr_mult: 1
    decay_mult: 1
  }
  param {
    lr_mult: 2
    decay_mult: 0
  }
  convolution_param {
    num_output: 64
    kernel_size: 1
    weight_filler {
      type: "xavier"
      std: 0.1
    }
    bias_filler {
      type: "constant"
      value: 0.2
    }
  }
}
layer {
  name: "inception_4c/relu_pool_proj"
  type: "ReLU"
  bottom: "inception_4c/pool_proj"
  top: "inception_4c/pool_proj"
}
layer {
  name: "inception_4c/output"
  type: "Concat"
  bottom: "inception_4c/1x1"
  bottom: "inception_4c/3x3"
  bottom: "inception_4c/5x5"
  bottom: "inception_4c/pool_proj"
  top: "inception_4c/output"
}
layer {
  name: "inception_4d/1x1"
  type: "Convolution"
  bottom: "inception_4c/output"
  top: "inception_4d/1x1"
  param {
    lr_mult: 1
    decay_mult: 1
  }
  param {
    lr_mult: 2
    decay_mult: 0
  }
  convolution_param {
    num_output: 112
    kernel_size: 1
    weight_filler {
      type: "xavier"
      std: 0.03
    }
    bias_filler {
      type: "constant"
      value: 0.2
    }
  }
}
layer {
  name: "inception_4d/relu_1x1"
  type: "ReLU"
  bottom: "inception_4d/1x1"
  top: "inception_4d/1x1"
}
layer {
  name: "inception_4d/3x3_reduce"
  type: "Convolution"
  bottom: "inception_4c/output"
  top: "inception_4d/3x3_reduce"
  param {
    lr_mult: 1
    decay_mult: 1
  }
  param {
    lr_mult: 2
    decay_mult: 0
  }
  convolution_param {
    num_output: 144
    kernel_size: 1
    weight_filler {
      type: "xavier"
      std: 0.09
    }
    bias_filler {
      type: "constant"
      value: 0.2
    }
  }
}
layer {
  name: "inception_4d/relu_3x3_reduce"
  type: "ReLU"
  bottom: "inception_4d/3x3_reduce"
  top: "inception_4d/3x3_reduce"
}
layer {
  name: "inception_4d/3x3"
  type: "Convolution"
  bottom: "inception_4d/3x3_reduce"
  top: "inception_4d/3x3"
  param {
    lr_mult: 1
    decay_mult: 1
  }
  param {
    lr_mult: 2
    decay_mult: 0
  }
  convolution_param {
    num_output: 288
    pad: 1
    kernel_size: 3
    weight_filler {
      type: "xavier"
      std: 0.03
    }
    bias_filler {
      type: "constant"
      value: 0.2
    }
  }
}
layer {
  name: "inception_4d/relu_3x3"
  type: "ReLU"
  bottom: "inception_4d/3x3"
  top: "inception_4d/3x3"
}
layer {
  name: "inception_4d/5x5_reduce"
  type: "Convolution"
  bottom: "inception_4c/output"
  top: "inception_4d/5x5_reduce"
  param {
    lr_mult: 1
    decay_mult: 1
  }
  param {
    lr_mult: 2
    decay_mult: 0
  }
  convolution_param {
    num_output: 32
    kernel_size: 1
    weight_filler {
      type: "xavier"
      std: 0.2
    }
    bias_filler {
      type: "constant"
      value: 0.2
    }
  }
}
layer {
  name: "inception_4d/relu_5x5_reduce"
  type: "ReLU"
  bottom: "inception_4d/5x5_reduce"
  top: "inception_4d/5x5_reduce"
}
layer {
  name: "inception_4d/5x5"
  type: "Convolution"
  bottom: "inception_4d/5x5_reduce"
  top: "inception_4d/5x5"
  param {
    lr_mult: 1
    decay_mult: 1
  }
  param {
    lr_mult: 2
    decay_mult: 0
  }
  convolution_param {
    num_output: 64
    pad: 2
    kernel_size: 5
    weight_filler {
      type: "xavier"
      std: 0.03
    }
    bias_filler {
      type: "constant"
      value: 0.2
    }
  }
}
layer {
  name: "inception_4d/relu_5x5"
  type: "ReLU"
  bottom: "inception_4d/5x5"
  top: "inception_4d/5x5"
}
layer {
  name: "inception_4d/pool"
  type: "Pooling"
  bottom: "inception_4c/output"
  top: "inception_4d/pool"
  pooling_param {
    pool: MAX
    kernel_size: 3
    stride: 1
    pad: 1
  }
}
layer {
  name: "inception_4d/pool_proj"
  type: "Convolution"
  bottom: "inception_4d/pool"
  top: "inception_4d/pool_proj"
  param {
    lr_mult: 1
    decay_mult: 1
  }
  param {
    lr_mult: 2
    decay_mult: 0
  }
  convolution_param {
    num_output: 64
    kernel_size: 1
    weight_filler {
      type: "xavier"
      std: 0.1
    }
    bias_filler {
      type: "constant"
      value: 0.2
    }
  }
}
layer {
  name: "inception_4d/relu_pool_proj"
  type: "ReLU"
  bottom: "inception_4d/pool_proj"
  top: "inception_4d/pool_proj"
}
layer {
  name: "inception_4d/output"
  type: "Concat"
  bottom: "inception_4d/1x1"
  bottom: "inception_4d/3x3"
  bottom: "inception_4d/5x5"
  bottom: "inception_4d/pool_proj"
  top: "inception_4d/output"
}
layer {
  name: "inception_4e/1x1"
  type: "Convolution"
  bottom: "inception_4d/output"
  top: "inception_4e/1x1"
  param {
    lr_mult: 1
    decay_mult: 1
  }
  param {
    lr_mult: 2
    decay_mult: 0
  }
  convolution_param {
    num_output: 256
    kernel_size: 1
    weight_filler {
      type: "xavier"
      std: 0.03
    }
    bias_filler {
      type: "constant"
      value: 0.2
    }
  }
}
layer {
  name: "inception_4e/relu_1x1"
  type: "ReLU"
  bottom: "inception_4e/1x1"
  top: "inception_4e/1x1"
}
layer {
  name: "inception_4e/3x3_reduce"
  type: "Convolution"
  bottom: "inception_4d/output"
  top: "inception_4e/3x3_reduce"
  param {
    lr_mult: 1
    decay_mult: 1
  }
  param {
    lr_mult: 2
    decay_mult: 0
  }
  convolution_param {
    num_output: 160
    kernel_size: 1
    weight_filler {
      type: "xavier"
      std: 0.09
    }
    bias_filler {
      type: "constant"
      value: 0.2
    }
  }
}
layer {
  name: "inception_4e/relu_3x3_reduce"
  type: "ReLU"
  bottom: "inception_4e/3x3_reduce"
  top: "inception_4e/3x3_reduce"
}
layer {
  name: "inception_4e/3x3"
  type: "Convolution"
  bottom: "inception_4e/3x3_reduce"
  top: "inception_4e/3x3"
  param {
    lr_mult: 1
    decay_mult: 1
  }
  param {
    lr_mult: 2
    decay_mult: 0
  }
  convolution_param {
    num_output: 320
    pad: 1
    kernel_size: 3
    weight_filler {
      type: "xavier"
      std: 0.03
    }
    bias_filler {
      type: "constant"
      value: 0.2
    }
  }
}
layer {
  name: "inception_4e/relu_3x3"
  type: "ReLU"
  bottom: "inception_4e/3x3"
  top: "inception_4e/3x3"
}
layer {
  name: "inception_4e/5x5_reduce"
  type: "Convolution"
  bottom: "inception_4d/output"
  top: "inception_4e/5x5_reduce"
  param {
    lr_mult: 1
    decay_mult: 1
  }
  param {
    lr_mult: 2
    decay_mult: 0
  }
  convolution_param {
    num_output: 32
    kernel_size: 1
    weight_filler {
      type: "xavier"
      std: 0.2
    }
    bias_filler {
      type: "constant"
      value: 0.2
    }
  }
}
layer {
  name: "inception_4e/relu_5x5_reduce"
  type: "ReLU"
  bottom: "inception_4e/5x5_reduce"
  top: "inception_4e/5x5_reduce"
}
layer {
  name: "inception_4e/5x5"
  type: "Convolution"
  bottom: "inception_4e/5x5_reduce"
  top: "inception_4e/5x5"
  param {
    lr_mult: 1
    decay_mult: 1
  }
  param {
    lr_mult: 2
    decay_mult: 0
  }
  convolution_param {
    num_output: 128
    pad: 2
    kernel_size: 5
    weight_filler {
      type: "xavier"
      std: 0.03
    }
    bias_filler {
      type: "constant"
      value: 0.2
    }
  }
}
layer {
  name: "inception_4e/relu_5x5"
  type: "ReLU"
  bottom: "inception_4e/5x5"
  top: "inception_4e/5x5"
}
layer {
  name: "inception_4e/pool"
  type: "Pooling"
  bottom: "inception_4d/output"
  top: "inception_4e/pool"
  pooling_param {
    pool: MAX
    kernel_size: 3
    stride: 1
    pad: 1
  }
}
layer {
  name: "inception_4e/pool_proj"
  type: "Convolution"
  bottom: "inception_4e/pool"
  top: "inception_4e/pool_proj"
  param {
    lr_mult: 1
    decay_mult: 1
  }
  param {
    lr_mult: 2
    decay_mult: 0
  }
  convolution_param {
    num_output: 128
    kernel_size: 1
    weight_filler {
      type: "xavier"
      std: 0.1
    }
    bias_filler {
      type: "constant"
      value: 0.2
    }
  }
}
layer {
  name: "inception_4e/relu_pool_proj"
  type: "ReLU"
  bottom: "inception_4e/pool_proj"
  top: "inception_4e/pool_proj"
}
layer {
  name: "inception_4e/output"
  type: "Concat"
  bottom: "inception_4e/1x1"
  bottom: "inception_4e/3x3"
  bottom: "inception_4e/5x5"
  bottom: "inception_4e/pool_proj"
  top: "inception_4e/output"
}
layer {
  name: "pool4/3x3_s2"
  type: "Pooling"
  bottom: "inception_4e/output"
  top: "pool4/3x3_s2"
  pooling_param {
    pool: MAX
    kernel_size: 3
    stride: 2
  }
}
layer {
  name: "inception_5a/1x1"
  type: "Convolution"
  bottom: "pool4/3x3_s2"
  top: "inception_5a/1x1"
  param {
    lr_mult: 1
    decay_mult: 1
  }
  param {
    lr_mult: 2
    decay_mult: 0
  }
  convolution_param {
    num_output: 256
    kernel_size: 1
    weight_filler {
      type: "xavier"
      std: 0.03
    }
    bias_filler {
      type: "constant"
      value: 0.2
    }
  }
}
layer {
  name: "inception_5a/relu_1x1"
  type: "ReLU"
  bottom: "inception_5a/1x1"
  top: "inception_5a/1x1"
}
layer {
  name: "inception_5a/3x3_reduce"
  type: "Convolution"
  bottom: "pool4/3x3_s2"
  top: "inception_5a/3x3_reduce"
  param {
    lr_mult: 1
    decay_mult: 1
  }
  param {
    lr_mult: 2
    decay_mult: 0
  }
  convolution_param {
    num_output: 160
    kernel_size: 1
    weight_filler {
      type: "xavier"
      std: 0.09
    }
    bias_filler {
      type: "constant"
      value: 0.2
    }
  }
}
layer {
  name: "inception_5a/relu_3x3_reduce"
  type: "ReLU"
  bottom: "inception_5a/3x3_reduce"
  top: "inception_5a/3x3_reduce"
}
layer {
  name: "inception_5a/3x3"
  type: "Convolution"
  bottom: "inception_5a/3x3_reduce"
  top: "inception_5a/3x3"
  param {
    lr_mult: 1
    decay_mult: 1
  }
  param {
    lr_mult: 2
    decay_mult: 0
  }
  convolution_param {
    num_output: 320
    pad: 1
    kernel_size: 3
    weight_filler {
      type: "xavier"
      std: 0.03
    }
    bias_filler {
      type: "constant"
      value: 0.2
    }
  }
}
layer {
  name: "inception_5a/relu_3x3"
  type: "ReLU"
  bottom: "inception_5a/3x3"
  top: "inception_5a/3x3"
}
layer {
  name: "inception_5a/5x5_reduce"
  type: "Convolution"
  bottom: "pool4/3x3_s2"
  top: "inception_5a/5x5_reduce"
  param {
    lr_mult: 1
    decay_mult: 1
  }
  param {
    lr_mult: 2
    decay_mult: 0
  }
  convolution_param {
    num_output: 32
    kernel_size: 1
    weight_filler {
      type: "xavier"
      std: 0.2
    }
    bias_filler {
      type: "constant"
      value: 0.2
    }
I0706 22:12:22.419144  1492 net.cpp:49] Initializing net from parameters: 
name: "GoogleNet"
state {
  phase: TEST
}
layer {
  name: "data"
  type: "Input"
  top: "data"
  input_param {
    shape {
      dim: 10
      dim: 3
      dim: 224
      dim: 224
    }
  }
}
layer {
  name: "conv1/7x7_s2"
  type: "Convolution"
  bottom: "data"
  top: "conv1/7x7_s2"
  param {
    lr_mult: 1
    decay_mult: 1
  }
  param {
    lr_mult: 2
    decay_mult: 0
  }
  convolution_param {
    num_output: 64
    pad: 3
    kernel_size: 7
    stride: 2
    weight_filler {
      type: "xavier"
      std: 0.1
    }
    bias_filler {
      type: "constant"
      value: 0.2
    }
  }
}
layer {
  name: "conv1/relu_7x7"
  type: "ReLU"
  bottom: "conv1/7x7_s2"
  top: "conv1/7x7_s2"
}
layer {
  name: "pool1/3x3_s2"
  type: "Pooling"
  bottom: "conv1/7x7_s2"
  top: "pool1/3x3_s2"
  pooling_param {
    pool: MAX
    kernel_size: 3
    stride: 2
  }
}
layer {
  name: "pool1/norm1"
  type: "LRN"
  bottom: "pool1/3x3_s2"
  top: "pool1/norm1"
  lrn_param {
    local_size: 5
    alpha: 0.0001
    beta: 0.75
  }
}
layer {
  name: "conv2/3x3_reduce"
  type: "Convolution"
  bottom: "pool1/norm1"
  top: "conv2/3x3_reduce"
  param {
    lr_mult: 1
    decay_mult: 1
  }
  param {
    lr_mult: 2
    decay_mult: 0
  }
  convolution_param {
    num_output: 64
    kernel_size: 1
    weight_filler {
      type: "xavier"
      std: 0.1
    }
    bias_filler {
      type: "constant"
      value: 0.2
    }
  }
}
layer {
  name: "conv2/relu_3x3_reduce"
  type: "ReLU"
  bottom: "conv2/3x3_reduce"
  top: "conv2/3x3_reduce"
}
layer {
  name: "conv2/3x3"
  type: "Convolution"
  bottom: "conv2/3x3_reduce"
  top: "conv2/3x3"
  param {
    lr_mult: 1
    decay_mult: 1
  }
  param {
    lr_mult: 2
    decay_mult: 0
  }
  convolution_param {
    num_output: 192
    pad: 1
    kernel_size: 3
    weight_filler {
      type: "xavier"
      std: 0.03
    }
    bias_filler {
      type: "constant"
      value: 0.2
    }
  }
}
layer {
  name: "conv2/relu_3x3"
  type: "ReLU"
  bottom: "conv2/3x3"
  top: "conv2/3x3"
}
layer {
  name: "conv2/norm2"
  type: "LRN"
  bottom: "conv2/3x3"
  top: "conv2/norm2"
  lrn_param {
    local_size: 5
    alpha: 0.0001
    beta: 0.75
  }
}
layer {
  name: "pool2/3x3_s2"
  type: "Pooling"
  bottom: "conv2/norm2"
  top: "pool2/3x3_s2"
  pooling_param {
    pool: MAX
    kernel_size: 3
    stride: 2
  }
}
layer {
  name: "inception_3a/1x1"
  type: "Convolution"
  bottom: "pool2/3x3_s2"
  top: "inception_3a/1x1"
  param {
    lr_mult: 1
    decay_mult: 1
  }
  param {
    lr_mult: 2
    decay_mult: 0
  }
  convolution_param {
    num_output: 64
    kernel_size: 1
    weight_filler {
      type: "xavier"
      std: 0.03
    }
    bias_filler {
      type: "constant"
      value: 0.2
    }
  }
}
layer {
  name: "inception_3a/relu_1x1"
  type: "ReLU"
  bottom: "inception_3a/1x1"
  top: "inception_3a/1x1"
}
layer {
  name: "inception_3a/3x3_reduce"
  type: "Convolution"
  bottom: "pool2/3x3_s2"
  top: "inception_3a/3x3_reduce"
  param {
    lr_mult: 1
    decay_mult: 1
  }
  param {
    lr_mult: 2
    decay_mult: 0
  }
  convolution_param {
    num_output: 96
    kernel_size: 1
    weight_filler {
      type: "xavier"
      std: 0.09
    }
    bias_filler {
      type: "constant"
      value: 0.2
    }
  }
}
layer {
  name: "inception_3a/relu_3x3_reduce"
  type: "ReLU"
  bottom: "inception_3a/3x3_reduce"
  top: "inception_3a/3x3_reduce"
}
layer {
  name: "inception_3a/3x3"
  type: "Convolution"
  bottom: "inception_3a/3x3_reduce"
  top: "inception_3a/3x3"
  param {
    lr_mult: 1
    decay_mult: 1
  }
  param {
    lr_mult: 2
    decay_mult: 0
  }
  convolution_param {
    num_output: 128
    pad: 1
    kernel_size: 3
    weight_filler {
      type: "xavier"
      std: 0.03
    }
    bias_filler {
      type: "constant"
      value: 0.2
    }
  }
}
layer {
  name: "inception_3a/relu_3x3"
  type: "ReLU"
  bottom: "inception_3a/3x3"
  top: "inception_3a/3x3"
}
layer {
  name: "inception_3a/5x5_reduce"
  type: "Convolution"
  bottom: "pool2/3x3_s2"
  top: "inception_3a/5x5_reduce"
  param {
    lr_mult: 1
    decay_mult: 1
  }
  param {
    lr_mult: 2
    decay_mult: 0
  }
  convolution_param {
    num_output: 16
    kernel_size: 1
    weight_filler {
      type: "xavier"
      std: 0.2
    }
    bias_filler {
      type: "constant"
      value: 0.2
    }
  }
}
layer {
  name: "inception_3a/relu_5x5_reduce"
  type: "ReLU"
  bottom: "inception_3a/5x5_reduce"
  top: "inception_3a/5x5_reduce"
}
layer {
  name: "inception_3a/5x5"
  type: "Convolution"
  bottom: "inception_3a/5x5_reduce"
  top: "inception_3a/5x5"
  param {
    lr_mult: 1
    decay_mult: 1
  }
  param {
    lr_mult: 2
    decay_mult: 0
  }
  convolution_param {
    num_output: 32
    pad: 2
    kernel_size: 5
    weight_filler {
      type: "xavier"
      std: 0.03
    }
    bias_filler {
      type: "constant"
      value: 0.2
    }
  }
}
layer {
  name: "inception_3a/relu_5x5"
  type: "ReLU"
  bottom: "inception_3a/5x5"
  top: "inception_3a/5x5"
}
layer {
  name: "inception_3a/pool"
  type: "Pooling"
  bottom: "pool2/3x3_s2"
  top: "inception_3a/pool"
  pooling_param {
    pool: MAX
    kernel_size: 3
    stride: 1
    pad: 1
  }
}
layer {
  name: "inception_3a/pool_proj"
  type: "Convolution"
  bottom: "inception_3a/pool"
  top: "inception_3a/pool_proj"
  param {
    lr_mult: 1
    decay_mult: 1
  }
  param {
    lr_mult: 2
    decay_mult: 0
  }
  convolution_param {
    num_output: 32
    kernel_size: 1
    weight_filler {
      type: "xavier"
      std: 0.1
    }
    bias_filler {
      type: "constant"
      value: 0.2
    }
  }
}
layer {
  name: "inception_3a/relu_pool_proj"
  type: "ReLU"
  bottom: "inception_3a/pool_proj"
  top: "inception_3a/pool_proj"
}
layer {
  name: "inception_3a/output"
  type: "Concat"
  bottom: "inception_3a/1x1"
  bottom: "inception_3a/3x3"
  bottom: "inception_3a/5x5"
  bottom: "inception_3a/pool_proj"
  top: "inception_3a/output"
}
layer {
  name: "inception_3b/1x1"
  type: "Convolution"
  bottom: "inception_3a/output"
  top: "inception_3b/1x1"
  param {
    lr_mult: 1
    decay_mult: 1
  }
  param {
    lr_mult: 2
    decay_mult: 0
  }
  convolution_param {
    num_output: 128
    kernel_size: 1
    weight_filler {
      type: "xavier"
      std: 0.03
    }
    bias_filler {
      type: "constant"
      value: 0.2
    }
  }
}
layer {
  name: "inception_3b/relu_1x1"
  type: "ReLU"
  bottom: "inception_3b/1x1"
  top: "inception_3b/1x1"
}
layer {
  name: "inception_3b/3x3_reduce"
  type: "Convolution"
  bottom: "inception_3a/output"
  top: "inception_3b/3x3_reduce"
  param {
    lr_mult: 1
    decay_mult: 1
  }
  param {
    lr_mult: 2
    decay_mult: 0
  }
  convolution_param {
    num_output: 128
    kernel_size: 1
    weight_filler {
      type: "xavier"
      std: 0.09
    }
    bias_filler {
      type: "constant"
      value: 0.2
    }
  }
}
layer {
  name: "inception_3b/relu_3x3_reduce"
  type: "ReLU"
  bottom: "inception_3b/3x3_reduce"
  top: "inception_3b/3x3_reduce"
}
layer {
  name: "inception_3b/3x3"
  type: "Convolution"
  bottom: "inception_3b/3x3_reduce"
  top: "inception_3b/3x3"
  param {
    lr_mult: 1
    decay_mult: 1
  }
  param {
    lr_mult: 2
    decay_mult: 0
  }
  convolution_param {
    num_output: 192
    pad: 1
    kernel_size: 3
    weight_filler {
      type: "xavier"
      std: 0.03
    }
    bias_filler {
      type: "constant"
      value: 0.2
    }
  }
}
layer {
  name: "inception_3b/relu_3x3"
  type: "ReLU"
  bottom: "inception_3b/3x3"
  top: "inception_3b/3x3"
}
layer {
  name: "inception_3b/5x5_reduce"
  type: "Convolution"
  bottom: "inception_3a/output"
  top: "inception_3b/5x5_reduce"
  param {
    lr_mult: 1
    decay_mult: 1
  }
  param {
    lr_mult: 2
    decay_mult: 0
  }
  convolution_param {
    num_output: 32
    kernel_size: 1
    weight_filler {
      type: "xavier"
      std: 0.2
    }
    bias_filler {
      type: "constant"
      value: 0.2
    }
  }
}
layer {
  name: "inception_3b/relu_5x5_reduce"
  type: "ReLU"
  bottom: "inception_3b/5x5_reduce"
  top: "inception_3b/5x5_reduce"
}
layer {
  name: "inception_3b/5x5"
  type: "Convolution"
  bottom: "inception_3b/5x5_reduce"
  top: "inception_3b/5x5"
  param {
    lr_mult: 1
    decay_mult: 1
  }
  param {
    lr_mult: 2
    decay_mult: 0
  }
  convolution_param {
    num_output: 96
    pad: 2
    kernel_size: 5
    weight_filler {
      type: "xavier"
      std: 0.03
    }
    bias_filler {
      type: "constant"
      value: 0.2
    }
  }
}
layer {
  name: "inception_3b/relu_5x5"
  type: "ReLU"
  bottom: "inception_3b/5x5"
  top: "inception_3b/5x5"
}
layer {
  name: "inception_3b/pool"
  type: "Pooling"
  bottom: "inception_3a/output"
  top: "inception_3b/pool"
  pooling_param {
    pool: MAX
    kernel_size: 3
    stride: 1
    pad: 1
  }
}
layer {
  name: "inception_3b/pool_proj"
  type: "Convolution"
  bottom: "inception_3b/pool"
  top: "inception_3b/pool_proj"
  param {
    lr_mult: 1
    decay_mult: 1
  }
  param {
    lr_mult: 2
    decay_mult: 0
  }
  convolution_param {
    num_output: 64
    kernel_size: 1
    weight_filler {
      type: "xavier"
      std: 0.1
    }
    bias_filler {
      type: "constant"
      value: 0.2
    }
  }
}
layer {
  name: "inception_3b/relu_pool_proj"
  type: "ReLU"
  bottom: "inception_3b/pool_proj"
  top: "inception_3b/pool_proj"
}
layer {
  name: "inception_3b/output"
  type: "Concat"
  bottom: "inception_3b/1x1"
  bottom: "inception_3b/3x3"
  bottom: "inception_3b/5x5"
  bottom: "inception_3b/pool_proj"
  top: "inception_3b/output"
}
layer {
  name: "pool3/3x3_s2"
  type: "Pooling"
  bottom: "inception_3b/output"
  top: "pool3/3x3_s2"
  pooling_param {
    pool: MAX
    kernel_size: 3
    stride: 2
  }
}
layer {
  name: "inception_4a/1x1"
  type: "Convolution"
  bottom: "pool3/3x3_s2"
  top: "inception_4a/1x1"
  param {
    lr_mult: 1
    decay_mult: 1
  }
  param {
    lr_mult: 2
    decay_mult: 0
  }
  convolution_param {
    num_output: 192
    kernel_size: 1
    weight_filler {
      type: "xavier"
      std: 0.03
    }
    bias_filler {
      type: "constant"
      value: 0.2
    }
  }
}
layer {
  name: "inception_4a/relu_1x1"
  type: "ReLU"
  bottom: "inception_4a/1x1"
  top: "inception_4a/1x1"
}
layer {
  name: "inception_4a/3x3_reduce"
  type: "Convolution"
  bottom: "pool3/3x3_s2"
  top: "inception_4a/3x3_reduce"
  param {
    lr_mult: 1
    decay_mult: 1
  }
  param {
    lr_mult: 2
    decay_mult: 0
  }
  convolution_param {
    num_output: 96
    kernel_size: 1
    weight_filler {
      type: "xavier"
      std: 0.09
    }
    bias_filler {
      type: "constant"
      value: 0.2
    }
  }
}
layer {
  name: "inception_4a/relu_3x3_reduce"
  type: "ReLU"
  bottom: "inception_4a/3x3_reduce"
  top: "inception_4a/3x3_reduce"
}
layer {
  name: "inception_4a/3x3"
  type: "Convolution"
  bottom: "inception_4a/3x3_reduce"
  top: "inception_4a/3x3"
  param {
    lr_mult: 1
    decay_mult: 1
  }
  param {
    lr_mult: 2
    decay_mult: 0
  }
  convolution_param {
    num_output: 208
    pad: 1
    kernel_size: 3
    weight_filler {
      type: "xavier"
      std: 0.03
    }
    bias_filler {
      type: "constant"
      value: 0.2
    }
  }
}
layer {
  name: "inception_4a/relu_3x3"
  type: "ReLU"
  bottom: "inception_4a/3x3"
  top: "inception_4a/3x3"
}
layer {
  name: "inception_4a/5x5_reduce"
  type: "Convolution"
  bottom: "pool3/3x3_s2"
  top: "inception_4a/5x5_reduce"
  param {
    lr_mult: 1
    decay_mult: 1
  }
  param {
    lr_mult: 2
    decay_mult: 0
  }
  convolution_param {
    num_output: 16
    kernel_size: 1
    weight_filler {
      type: "xavier"
      std: 0.2
    }
    bias_filler {
      type: "constant"
      value: 0.2
    }
  }
}
layer {
  name: "inception_4a/relu_5x5_reduce"
  type: "ReLU"
  bottom: "inception_4a/5x5_reduce"
  top: "inception_4a/5x5_reduce"
}
layer {
  name: "inception_4a/5x5"
  type: "Convolution"
  bottom: "inception_4a/5x5_reduce"
  top: "inception_4a/5x5"
  param {
    lr_mult: 1
    decay_mult: 1
  }
  param {
    lr_mult: 2
    decay_mult: 0
  }
  convolution_param {
    num_output: 48
    pad: 2
    kernel_size: 5
    weight_filler {
      type: "xavier"
      std: 0.03
    }
    bias_filler {
      type: "constant"
      value: 0.2
    }
  }
}
layer {
  name: "inception_4a/relu_5x5"
  type: "ReLU"
  bottom: "inception_4a/5x5"
  top: "inception_4a/5x5"
}
layer {
  name: "inception_4a/pool"
  type: "Pooling"
  bottom: "pool3/3x3_s2"
  top: "inception_4a/pool"
  pooling_param {
    pool: MAX
    kernel_size: 3
    stride: 1
    pad: 1
  }
}
layer {
  name: "inception_4a/pool_proj"
  type: "Convolution"
  bottom: "inception_4a/pool"
  top: "inception_4a/pool_proj"
  param {
    lr_mult: 1
    decay_mult: 1
  }
  param {
    lr_mult: 2
    decay_mult: 0
  }
  convolution_param {
    num_output: 64
    kernel_size: 1
    weight_filler {
      type: "xavier"
      std: 0.1
    }
    bias_filler {
      type: "constant"
      value: 0.2
    }
  }
}
layer {
  name: "inception_4a/relu_pool_proj"
  type: "ReLU"
  bottom: "inception_4a/pool_proj"
  top: "inception_4a/pool_proj"
}
layer {
  name: "inception_4a/output"
  type: "Concat"
  bottom: "inception_4a/1x1"
  bottom: "inception_4a/3x3"
  bottom: "inception_4a/5x5"
  bottom: "inception_4a/pool_proj"
  top: "inception_4a/output"
}
layer {
  name: "inception_4b/1x1"
  type: "Convolution"
  bottom: "inception_4a/output"
  top: "inception_4b/1x1"
  param {
    lr_mult: 1
    decay_mult: 1
  }
  param {
    lr_mult: 2
    decay_mult: 0
  }
  convolution_param {
    num_output: 160
    kernel_size: 1
    weight_filler {
      type: "xavier"
      std: 0.03
    }
    bias_filler {
      type: "constant"
      value: 0.2
    }
  }
}
layer {
  name: "inception_4b/relu_1x1"
  type: "ReLU"
  bottom: "inception_4b/1x1"
  top: "inception_4b/1x1"
}
layer {
  name: "inception_4b/3x3_reduce"
  type: "Convolution"
  bottom: "inception_4a/output"
  top: "inception_4b/3x3_reduce"
  param {
    lr_mult: 1
    decay_mult: 1
  }
  param {
    lr_mult: 2
    decay_mult: 0
  }
  convolution_param {
    num_output: 112
    kernel_size: 1
    weight_filler {
      type: "xavier"
      std: 0.09
    }
    bias_filler {
      type: "constant"
      value: 0.2
    }
  }
}
layer {
  name: "inception_4b/relu_3x3_reduce"
  type: "ReLU"
  bottom: "inception_4b/3x3_reduce"
  top: "inception_4b/3x3_reduce"
}
layer {
  name: "inception_4b/3x3"
  type: "Convolution"
  bottom: "inception_4b/3x3_reduce"
  top: "inception_4b/3x3"
  param {
    lr_mult: 1
    decay_mult: 1
  }
  param {
    lr_mult: 2
    decay_mult: 0
  }
  convolution_param {
    num_output: 224
    pad: 1
    kernel_size: 3
    weight_filler {
      type: "xavier"
      std: 0.03
    }
    bias_filler {
      type: "constant"
      value: 0.2
    }
  }
}
layer {
  name: "inception_4b/relu_3x3"
  type: "ReLU"
  bottom: "inception_4b/3x3"
  top: "inception_4b/3x3"
}
layer {
  name: "inception_4b/5x5_reduce"
  type: "Convolution"
  bottom: "inception_4a/output"
  top: "inception_4b/5x5_reduce"
  param {
    lr_mult: 1
    decay_mult: 1
  }
  param {
    lr_mult: 2
    decay_mult: 0
  }
  convolution_param {
    num_output: 24
    kernel_size: 1
    weight_filler {
      type: "xavier"
      std: 0.2
    }
    bias_filler {
      type: "constant"
      value: 0.2
    }
  }
}
layer {
  name: "inception_4b/relu_5x5_reduce"
  type: "ReLU"
  bottom: "inception_4b/5x5_reduce"
  top: "inception_4b/5x5_reduce"
}
layer {
  name: "inception_4b/5x5"
  type: "Convolution"
  bottom: "inception_4b/5x5_reduce"
  top: "inception_4b/5x5"
  param {
    lr_mult: 1
    decay_mult: 1
  }
  param {
    lr_mult: 2
    decay_mult: 0
  }
  convolution_param {
    num_output: 64
    pad: 2
    kernel_size: 5
    weight_filler {
      type: "xavier"
      std: 0.03
    }
    bias_filler {
      type: "constant"
      value: 0.2
    }
  }
}
layer {
  name: "inception_4b/relu_5x5"
  type: "ReLU"
  bottom: "inception_4b/5x5"
  top: "inception_4b/5x5"
}
layer {
  name: "inception_4b/pool"
  type: "Pooling"
  bottom: "inception_4a/output"
  top: "inception_4b/pool"
  pooling_param {
    pool: MAX
    kernel_size: 3
    stride: 1
    pad: 1
  }
}
layer {
  name: "inception_4b/pool_proj"
  type: "Convolution"
  bottom: "inception_4b/pool"
  top: "inception_4b/pool_proj"
  param {
    lr_mult: 1
    decay_mult: 1
  }
  param {
    lr_mult: 2
    decay_mult: 0
  }
  convolution_param {
    num_output: 64
    kernel_size: 1
    weight_filler {
      type: "xavier"
      std: 0.1
    }
    bias_filler {
      type: "constant"
      value: 0.2
    }
  }
}
layer {
  name: "inception_4b/relu_pool_proj"
  type: "ReLU"
  bottom: "inception_4b/pool_proj"
  top: "inception_4b/pool_proj"
}
layer {
  name: "inception_4b/output"
  type: "Concat"
  bottom: "inception_4b/1x1"
  bottom: "inception_4b/3x3"
  bottom: "inception_4b/5x5"
  bottom: "inception_4b/pool_proj"
  top: "inception_4b/output"
}
layer {
  name: "inception_4c/1x1"
  type: "Convolution"
  bottom: "inception_4b/output"
  top: "inception_4c/1x1"
  param {
    lr_mult: 1
    decay_mult: 1
  }
  param {
    lr_mult: 2
    decay_mult: 0
  }
  convolution_param {
    num_output: 128
    kernel_size: 1
    weight_filler {
      type: "xavier"
      std: 0.03
    }
    bias_filler {
      type: "constant"
      value: 0.2
    }
  }
}
layer {
  name: "inception_4c/relu_1x1"
  type: "ReLU"
  bottom: "inception_4c/1x1"
  top: "inception_4c/1x1"
}
layer {
  name: "inception_4c/3x3_reduce"
  type: "Convolution"
  bottom: "inception_4b/output"
  top: "inception_4c/3x3_reduce"
  param {
    lr_mult: 1
    decay_mult: 1
  }
  param {
    lr_mult: 2
    decay_mult: 0
  }
  convolution_param {
    num_output: 128
    kernel_size: 1
    weight_filler {
      type: "xavier"
      std: 0.09
    }
    bias_filler {
      type: "constant"
      value: 0.2
    }
  }
}
layer {
  name: "inception_4c/relu_3x3_reduce"
  type: "ReLU"
  bottom: "inception_4c/3x3_reduce"
  top: "inception_4c/3x3_reduce"
}
layer {
  name: "inception_4c/3x3"
  type: "Convolution"
  bottom: "inception_4c/3x3_reduce"
  top: "inception_4c/3x3"
  param {
    lr_mult: 1
    decay_mult: 1
  }
  param {
    lr_mult: 2
    decay_mult: 0
  }
  convolution_param {
    num_output: 256
    pad: 1
    kernel_size: 3
    weight_filler {
      type: "xavier"
      std: 0.03
    }
    bias_filler {
      type: "constant"
      value: 0.2
    }
  }
}
layer {
  name: "inception_4c/relu_3x3"
  type: "ReLU"
  bottom: "inception_4c/3x3"
  top: "inception_4c/3x3"
}
layer {
  name: "inception_4c/5x5_reduce"
  type: "Convolution"
  bottom: "inception_4b/output"
  top: "inception_4c/5x5_reduce"
  param {
    lr_mult: 1
    decay_mult: 1
  }
  param {
    lr_mult: 2
    decay_mult: 0
  }
  convolution_param {
    num_output: 24
    kernel_size: 1
    weight_filler {
      type: "xavier"
      std: 0.2
    }
    bias_filler {
      type: "constant"
      value: 0.2
    }
  }
}
layer {
  name: "inception_4c/relu_5x5_reduce"
  type: "ReLU"
  bottom: "inception_4c/5x5_reduce"
  top: "inception_4c/5x5_reduce"
}
layer {
  name: "inception_4c/5x5"
  type: "Convolution"
  bottom: "inception_4c/5x5_reduce"
  top: "inception_4c/5x5"
  param {
    lr_mult: 1
    decay_mult: 1
  }
  param {
    lr_mult: 2
    decay_mult: 0
  }
  convolution_param {
    num_output: 64
    pad: 2
    kernel_size: 5
    weight_filler {
      type: "xavier"
      std: 0.03
    }
    bias_filler {
      type: "constant"
      value: 0.2
    }
  }
}
layer {
  name: "inception_4c/relu_5x5"
  type: "ReLU"
  bottom: "inception_4c/5x5"
  top: "inception_4c/5x5"
}
layer {
  name: "inception_4c/pool"
  type: "Pooling"
  bottom: "inception_4b/output"
  top: "inception_4c/pool"
  pooling_param {
    pool: MAX
    kernel_size: 3
    stride: 1
    pad: 1
  }
}
layer {
  name: "inception_4c/pool_proj"
  type: "Convolution"
  bottom: "inception_4c/pool"
  top: "inception_4c/pool_proj"
  param {
    lr_mult: 1
    decay_mult: 1
  }
  param {
    lr_mult: 2
    decay_mult: 0
  }
  convolution_param {
    num_output: 64
    kernel_size: 1
    weight_filler {
      type: "xavier"
      std: 0.1
    }
    bias_filler {
      type: "constant"
      value: 0.2
    }
  }
}
layer {
  name: "inception_4c/relu_pool_proj"
  type: "ReLU"
  bottom: "inception_4c/pool_proj"
  top: "inception_4c/pool_proj"
}
layer {
  name: "inception_4c/output"
  type: "Concat"
  bottom: "inception_4c/1x1"
  bottom: "inception_4c/3x3"
  bottom: "inception_4c/5x5"
  bottom: "inception_4c/pool_proj"
  top: "inception_4c/output"
}
layer {
  name: "inception_4d/1x1"
  type: "Convolution"
  bottom: "inception_4c/output"
  top: "inception_4d/1x1"
  param {
    lr_mult: 1
    decay_mult: 1
  }
  param {
    lr_mult: 2
    decay_mult: 0
  }
  convolution_param {
    num_output: 112
    kernel_size: 1
    weight_filler {
      type: "xavier"
      std: 0.03
    }
    bias_filler {
      type: "constant"
      value: 0.2
    }
  }
}
layer {
  name: "inception_4d/relu_1x1"
  type: "ReLU"
  bottom: "inception_4d/1x1"
  top: "inception_4d/1x1"
}
layer {
  name: "inception_4d/3x3_reduce"
  type: "Convolution"
  bottom: "inception_4c/output"
  top: "inception_4d/3x3_reduce"
  param {
    lr_mult: 1
    decay_mult: 1
  }
  param {
    lr_mult: 2
    decay_mult: 0
  }
  convolution_param {
    num_output: 144
    kernel_size: 1
    weight_filler {
      type: "xavier"
      std: 0.09
    }
    bias_filler {
      type: "constant"
      value: 0.2
    }
  }
}
layer {
  name: "inception_4d/relu_3x3_reduce"
  type: "ReLU"
  bottom: "inception_4d/3x3_reduce"
  top: "inception_4d/3x3_reduce"
}
layer {
  name: "inception_4d/3x3"
  type: "Convolution"
  bottom: "inception_4d/3x3_reduce"
  top: "inception_4d/3x3"
  param {
    lr_mult: 1
    decay_mult: 1
  }
  param {
    lr_mult: 2
    decay_mult: 0
  }
  convolution_param {
    num_output: 288
    pad: 1
    kernel_size: 3
    weight_filler {
      type: "xavier"
      std: 0.03
    }
    bias_filler {
      type: "constant"
      value: 0.2
    }
  }
}
layer {
  name: "inception_4d/relu_3x3"
  type: "ReLU"
  bottom: "inception_4d/3x3"
  top: "inception_4d/3x3"
}
layer {
  name: "inception_4d/5x5_reduce"
  type: "Convolution"
  bottom: "inception_4c/output"
  top: "inception_4d/5x5_reduce"
  param {
    lr_mult: 1
    decay_mult: 1
  }
  param {
    lr_mult: 2
    decay_mult: 0
  }
  convolution_param {
    num_output: 32
    kernel_size: 1
    weight_filler {
      type: "xavier"
      std: 0.2
    }
    bias_filler {
      type: "constant"
      value: 0.2
    }
  }
}
layer {
  name: "inception_4d/relu_5x5_reduce"
  type: "ReLU"
  bottom: "inception_4d/5x5_reduce"
  top: "inception_4d/5x5_reduce"
}
layer {
  name: "inception_4d/5x5"
  type: "Convolution"
  bottom: "inception_4d/5x5_reduce"
  top: "inception_4d/5x5"
  param {
    lr_mult: 1
    decay_mult: 1
  }
  param {
    lr_mult: 2
    decay_mult: 0
  }
  convolution_param {
    num_output: 64
    pad: 2
    kernel_size: 5
    weight_filler {
      type: "xavier"
      std: 0.03
    }
    bias_filler {
      type: "constant"
      value: 0.2
    }
  }
}
layer {
  name: "inception_4d/relu_5x5"
  type: "ReLU"
  bottom: "inception_4d/5x5"
  top: "inception_4d/5x5"
}
layer {
  name: "inception_4d/pool"
  type: "Pooling"
  bottom: "inception_4c/output"
  top: "inception_4d/pool"
  pooling_param {
    pool: MAX
    kernel_size: 3
    stride: 1
    pad: 1
  }
}
layer {
  name: "inception_4d/pool_proj"
  type: "Convolution"
  bottom: "inception_4d/pool"
  top: "inception_4d/pool_proj"
  param {
    lr_mult: 1
    decay_mult: 1
  }
  param {
    lr_mult: 2
    decay_mult: 0
  }
  convolution_param {
    num_output: 64
    kernel_size: 1
    weight_filler {
      type: "xavier"
      std: 0.1
    }
    bias_filler {
      type: "constant"
      value: 0.2
    }
  }
}
layer {
  name: "inception_4d/relu_pool_proj"
  type: "ReLU"
  bottom: "inception_4d/pool_proj"
  top: "inception_4d/pool_proj"
}
layer {
  name: "inception_4d/output"
  type: "Concat"
  bottom: "inception_4d/1x1"
  bottom: "inception_4d/3x3"
  bottom: "inception_4d/5x5"
  bottom: "inception_4d/pool_proj"
  top: "inception_4d/output"
}
layer {
  name: "inception_4e/1x1"
  type: "Convolution"
  bottom: "inception_4d/output"
  top: "inception_4e/1x1"
  param {
    lr_mult: 1
    decay_mult: 1
  }
  param {
    lr_mult: 2
    decay_mult: 0
  }
  convolution_param {
    num_output: 256
    kernel_size: 1
    weight_filler {
      type: "xavier"
      std: 0.03
    }
    bias_filler {
      type: "constant"
      value: 0.2
    }
  }
}
layer {
  name: "inception_4e/relu_1x1"
  type: "ReLU"
  bottom: "inception_4e/1x1"
  top: "inception_4e/1x1"
}
layer {
  name: "inception_4e/3x3_reduce"
  type: "Convolution"
  bottom: "inception_4d/output"
  top: "inception_4e/3x3_reduce"
  param {
    lr_mult: 1
    decay_mult: 1
  }
  param {
    lr_mult: 2
    decay_mult: 0
  }
  convolution_param {
    num_output: 160
    kernel_size: 1
    weight_filler {
      type: "xavier"
      std: 0.09
    }
    bias_filler {
      type: "constant"
      value: 0.2
    }
  }
}
layer {
  name: "inception_4e/relu_3x3_reduce"
  type: "ReLU"
  bottom: "inception_4e/3x3_reduce"
  top: "inception_4e/3x3_reduce"
}
layer {
  name: "inception_4e/3x3"
  type: "Convolution"
  bottom: "inception_4e/3x3_reduce"
  top: "inception_4e/3x3"
  param {
    lr_mult: 1
    decay_mult: 1
  }
  param {
    lr_mult: 2
    decay_mult: 0
  }
  convolution_param {
    num_output: 320
    pad: 1
    kernel_size: 3
    weight_filler {
      type: "xavier"
      std: 0.03
    }
    bias_filler {
      type: "constant"
      value: 0.2
    }
  }
}
layer {
  name: "inception_4e/relu_3x3"
  type: "ReLU"
  bottom: "inception_4e/3x3"
  top: "inception_4e/3x3"
}
layer {
  name: "inception_4e/5x5_reduce"
  type: "Convolution"
  bottom: "inception_4d/output"
  top: "inception_4e/5x5_reduce"
  param {
    lr_mult: 1
    decay_mult: 1
  }
  param {
    lr_mult: 2
    decay_mult: 0
  }
  convolution_param {
    num_output: 32
    kernel_size: 1
    weight_filler {
      type: "xavier"
      std: 0.2
    }
    bias_filler {
      type: "constant"
      value: 0.2
    }
  }
}
layer {
  name: "inception_4e/relu_5x5_reduce"
  type: "ReLU"
  bottom: "inception_4e/5x5_reduce"
  top: "inception_4e/5x5_reduce"
}
layer {
  name: "inception_4e/5x5"
  type: "Convolution"
  bottom: "inception_4e/5x5_reduce"
  top: "inception_4e/5x5"
  param {
    lr_mult: 1
    decay_mult: 1
  }
  param {
    lr_mult: 2
    decay_mult: 0
  }
  convolution_param {
    num_output: 128
    pad: 2
    kernel_size: 5
    weight_filler {
      type: "xavier"
      std: 0.03
    }
    bias_filler {
      type: "constant"
      value: 0.2
    }
  }
}
layer {
  name: "inception_4e/relu_5x5"
  type: "ReLU"
  bottom: "inception_4e/5x5"
  top: "inception_4e/5x5"
}
layer {
  name: "inception_4e/pool"
  type: "Pooling"
  bottom: "inception_4d/output"
  top: "inception_4e/pool"
  pooling_param {
    pool: MAX
    kernel_size: 3
    stride: 1
    pad: 1
  }
}
layer {
  name: "inception_4e/pool_proj"
  type: "Convolution"
  bottom: "inception_4e/pool"
  top: "inception_4e/pool_proj"
  param {
    lr_mult: 1
    decay_mult: 1
  }
  param {
    lr_mult: 2
    decay_mult: 0
  }
  convolution_param {
    num_output: 128
    kernel_size: 1
    weight_filler {
      type: "xavier"
      std: 0.1
    }
    bias_filler {
      type: "constant"
      value: 0.2
    }
  }
}
layer {
  name: "inception_4e/relu_pool_proj"
  type: "ReLU"
  bottom: "inception_4e/pool_proj"
  top: "inception_4e/pool_proj"
}
layer {
  name: "inception_4e/output"
  type: "Concat"
  bottom: "inception_4e/1x1"
  bottom: "inception_4e/3x3"
  bottom: "inception_4e/5x5"
  bottom: "inception_4e/pool_proj"
  top: "inception_4e/output"
}
layer {
  name: "pool4/3x3_s2"
  type: "Pooling"
  bottom: "inception_4e/output"
  top: "pool4/3x3_s2"
  pooling_param {
    pool: MAX
    kernel_size: 3
    stride: 2
  }
}
layer {
  name: "inception_5a/1x1"
  type: "Convolution"
  bottom: "pool4/3x3_s2"
  top: "inception_5a/1x1"
  param {
    lr_mult: 1
    decay_mult: 1
  }
  param {
    lr_mult: 2
    decay_mult: 0
  }
  convolution_param {
    num_output: 256
    kernel_size: 1
    weight_filler {
      type: "xavier"
      std: 0.03
    }
    bias_filler {
      type: "constant"
      value: 0.2
    }
  }
}
layer {
  name: "inception_5a/relu_1x1"
  type: "ReLU"
  bottom: "inception_5a/1x1"
  top: "inception_5a/1x1"
}
layer {
  name: "inception_5a/3x3_reduce"
  type: "Convolution"
  bottom: "pool4/3x3_s2"
  top: "inception_5a/3x3_reduce"
  param {
    lr_mult: 1
    decay_mult: 1
  }
  param {
    lr_mult: 2
    decay_mult: 0
  }
  convolution_param {
    num_output: 160
    kernel_size: 1
    weight_filler {
      type: "xavier"
      std: 0.09
    }
    bias_filler {
      type: "constant"
      value: 0.2
    }
  }
}
layer {
  name: "inception_5a/relu_3x3_reduce"
  type: "ReLU"
  bottom: "inception_5a/3x3_reduce"
  top: "inception_5a/3x3_reduce"
}
layer {
  name: "inception_5a/3x3"
  type: "Convolution"
  bottom: "inception_5a/3x3_reduce"
  top: "inception_5a/3x3"
  param {
    lr_mult: 1
    decay_mult: 1
  }
  param {
    lr_mult: 2
    decay_mult: 0
  }
  convolution_param {
    num_output: 320
    pad: 1
    kernel_size: 3
    weight_filler {
      type: "xavier"
      std: 0.03
    }
    bias_filler {
      type: "constant"
      value: 0.2
    }
  }
}
layer {
  name: "inception_5a/relu_3x3"
  type: "ReLU"
  bottom: "inception_5a/3x3"
  top: "inception_5a/3x3"
}
layer {
  name: "inception_5a/5x5_reduce"
  type: "Convolution"
  bottom: "pool4/3x3_s2"
  top: "inception_5a/5x5_reduce"
  param {
    lr_mult: 1
    decay_mult: 1
  }
  param {
    lr_mult: 2
    decay_mult: 0
  }
  convolution_param {
    num_output: 32
    kernel_size: 1
    weight_filler {
      type: "xavier"
      std: 0.2
    }
    bias_filler {
      type: "constant"
      value: 0.2
    }
I0706 22:12:22.420079  1492 layer_factory.hpp:77] Creating layer data
I0706 22:12:22.420081  1488 layer_factory.hpp:77] Creating layer data
I0706 22:12:22.420112  1492 net.cpp:91] Creating Layer data
I0706 22:12:22.420114  1488 net.cpp:91] Creating Layer data
I0706 22:12:22.420126  1492 net.cpp:399] data -> data
I0706 22:12:22.420127  1488 net.cpp:399] data -> data
I0706 22:12:23.002971  1488 net.cpp:141] Setting up data
I0706 22:12:23.003039  1488 net.cpp:148] Top shape: 10 3 224 224 (1505280)
I0706 22:12:23.003044  1492 net.cpp:141] Setting up data
I0706 22:12:23.003047  1488 net.cpp:156] Memory required for data: 6021120
I0706 22:12:23.003092  1492 net.cpp:148] Top shape: 10 3 224 224 (1505280)
I0706 22:12:23.003098  1492 net.cpp:156] Memory required for data: 6021120
I0706 22:12:23.003100  1488 layer_factory.hpp:77] Creating layer conv1/7x7_s2
I0706 22:12:23.003108  1492 layer_factory.hpp:77] Creating layer conv1/7x7_s2
I0706 22:12:23.003139  1488 net.cpp:91] Creating Layer conv1/7x7_s2
I0706 22:12:23.003144  1492 net.cpp:91] Creating Layer conv1/7x7_s2
I0706 22:12:23.003149  1488 net.cpp:425] conv1/7x7_s2 <- data
I0706 22:12:23.003151  1492 net.cpp:425] conv1/7x7_s2 <- data
I0706 22:12:23.003165  1488 net.cpp:399] conv1/7x7_s2 -> conv1/7x7_s2
I0706 22:12:23.003177  1492 net.cpp:399] conv1/7x7_s2 -> conv1/7x7_s2
I0706 22:12:23.229701  1488 net.cpp:141] Setting up conv1/7x7_s2
I0706 22:12:23.229748  1488 net.cpp:148] Top shape: 10 64 112 112 (8028160)
I0706 22:12:23.229753  1488 net.cpp:156] Memory required for data: 38133760
I0706 22:12:23.229781  1488 layer_factory.hpp:77] Creating layer conv1/relu_7x7
I0706 22:12:23.229799  1488 net.cpp:91] Creating Layer conv1/relu_7x7
I0706 22:12:23.229806  1488 net.cpp:425] conv1/relu_7x7 <- conv1/7x7_s2
I0706 22:12:23.229815  1488 net.cpp:386] conv1/relu_7x7 -> conv1/7x7_s2 (in-place)
I0706 22:12:23.231132  1488 net.cpp:141] Setting up conv1/relu_7x7
I0706 22:12:23.231134  1492 net.cpp:141] Setting up conv1/7x7_s2
I0706 22:12:23.231166  1488 net.cpp:148] Top shape: 10 64 112 112 (8028160)
I0706 22:12:23.231174  1488 net.cpp:156] Memory required for data: 70246400
I0706 22:12:23.231181  1488 layer_factory.hpp:77] Creating layer pool1/3x3_s2
I0706 22:12:23.231184  1492 net.cpp:148] Top shape: 10 64 112 112 (8028160)
I0706 22:12:23.231190  1492 net.cpp:156] Memory required for data: 38133760
I0706 22:12:23.231197  1488 net.cpp:91] Creating Layer pool1/3x3_s2
I0706 22:12:23.231204  1488 net.cpp:425] pool1/3x3_s2 <- conv1/7x7_s2
I0706 22:12:23.231210  1492 layer_factory.hpp:77] Creating layer conv1/relu_7x7
I0706 22:12:23.231212  1488 net.cpp:399] pool1/3x3_s2 -> pool1/3x3_s2
I0706 22:12:23.231236  1492 net.cpp:91] Creating Layer conv1/relu_7x7
I0706 22:12:23.231243  1492 net.cpp:425] conv1/relu_7x7 <- conv1/7x7_s2
I0706 22:12:23.231251  1492 net.cpp:386] conv1/relu_7x7 -> conv1/7x7_s2 (in-place)
I0706 22:12:23.231503  1488 net.cpp:141] Setting up pool1/3x3_s2
I0706 22:12:23.231515  1488 net.cpp:148] Top shape: 10 64 56 56 (2007040)
I0706 22:12:23.231519  1488 net.cpp:156] Memory required for data: 78274560
I0706 22:12:23.231524  1488 layer_factory.hpp:77] Creating layer pool1/norm1
I0706 22:12:23.231544  1488 net.cpp:91] Creating Layer pool1/norm1
I0706 22:12:23.231549  1488 net.cpp:425] pool1/norm1 <- pool1/3x3_s2
I0706 22:12:23.231556  1488 net.cpp:399] pool1/norm1 -> pool1/norm1
I0706 22:12:23.231590  1492 net.cpp:141] Setting up conv1/relu_7x7
I0706 22:12:23.231603  1492 net.cpp:148] Top shape: 10 64 112 112 (8028160)
I0706 22:12:23.231607  1492 net.cpp:156] Memory required for data: 70246400
I0706 22:12:23.231612  1492 layer_factory.hpp:77] Creating layer pool1/3x3_s2
I0706 22:12:23.231622  1492 net.cpp:91] Creating Layer pool1/3x3_s2
I0706 22:12:23.231627  1492 net.cpp:425] pool1/3x3_s2 <- conv1/7x7_s2
I0706 22:12:23.231637  1492 net.cpp:399] pool1/3x3_s2 -> pool1/3x3_s2
I0706 22:12:23.232409  1492 net.cpp:141] Setting up pool1/3x3_s2
I0706 22:12:23.232420  1492 net.cpp:148] Top shape: 10 64 56 56 (2007040)
I0706 22:12:23.232424  1492 net.cpp:156] Memory required for data: 78274560
I0706 22:12:23.232429  1492 layer_factory.hpp:77] Creating layer pool1/norm1
I0706 22:12:23.232445  1492 net.cpp:91] Creating Layer pool1/norm1
I0706 22:12:23.232450  1492 net.cpp:425] pool1/norm1 <- pool1/3x3_s2
I0706 22:12:23.232458  1492 net.cpp:399] pool1/norm1 -> pool1/norm1
I0706 22:12:23.232758  1488 net.cpp:141] Setting up pool1/norm1
I0706 22:12:23.232774  1488 net.cpp:148] Top shape: 10 64 56 56 (2007040)
I0706 22:12:23.232779  1488 net.cpp:156] Memory required for data: 86302720
I0706 22:12:23.232784  1488 layer_factory.hpp:77] Creating layer conv2/3x3_reduce
I0706 22:12:23.232808  1488 net.cpp:91] Creating Layer conv2/3x3_reduce
I0706 22:12:23.232815  1488 net.cpp:425] conv2/3x3_reduce <- pool1/norm1
I0706 22:12:23.232822  1488 net.cpp:399] conv2/3x3_reduce -> conv2/3x3_reduce
I0706 22:12:23.232834  1492 net.cpp:141] Setting up pool1/norm1
I0706 22:12:23.232847  1492 net.cpp:148] Top shape: 10 64 56 56 (2007040)
I0706 22:12:23.232851  1492 net.cpp:156] Memory required for data: 86302720
I0706 22:12:23.232856  1492 layer_factory.hpp:77] Creating layer conv2/3x3_reduce
I0706 22:12:23.232877  1492 net.cpp:91] Creating Layer conv2/3x3_reduce
I0706 22:12:23.232883  1492 net.cpp:425] conv2/3x3_reduce <- pool1/norm1
I0706 22:12:23.232892  1492 net.cpp:399] conv2/3x3_reduce -> conv2/3x3_reduce
I0706 22:12:23.239339  1492 net.cpp:141] Setting up conv2/3x3_reduce
I0706 22:12:23.239339  1488 net.cpp:141] Setting up conv2/3x3_reduce
I0706 22:12:23.239383  1492 net.cpp:148] Top shape: 10 64 56 56 (2007040)
I0706 22:12:23.239383  1488 net.cpp:148] Top shape: 10 64 56 56 (2007040)
I0706 22:12:23.239398  1492 net.cpp:156] Memory required for data: 94330880
I0706 22:12:23.239398  1488 net.cpp:156] Memory required for data: 94330880
I0706 22:12:23.239424  1492 layer_factory.hpp:77] Creating layer conv2/relu_3x3_reduce
I0706 22:12:23.239424  1488 layer_factory.hpp:77] Creating layer conv2/relu_3x3_reduce
I0706 22:12:23.239449  1488 net.cpp:91] Creating Layer conv2/relu_3x3_reduce
I0706 22:12:23.239454  1492 net.cpp:91] Creating Layer conv2/relu_3x3_reduce
I0706 22:12:23.239459  1488 net.cpp:425] conv2/relu_3x3_reduce <- conv2/3x3_reduce
I0706 22:12:23.239464  1492 net.cpp:425] conv2/relu_3x3_reduce <- conv2/3x3_reduce
I0706 22:12:23.239470  1488 net.cpp:386] conv2/relu_3x3_reduce -> conv2/3x3_reduce (in-place)
I0706 22:12:23.239473  1492 net.cpp:386] conv2/relu_3x3_reduce -> conv2/3x3_reduce (in-place)
I0706 22:12:23.240571  1492 net.cpp:141] Setting up conv2/relu_3x3_reduce
I0706 22:12:23.240571  1488 net.cpp:141] Setting up conv2/relu_3x3_reduce
I0706 22:12:23.240593  1492 net.cpp:148] Top shape: 10 64 56 56 (2007040)
I0706 22:12:23.240595  1488 net.cpp:148] Top shape: 10 64 56 56 (2007040)
I0706 22:12:23.240605  1492 net.cpp:156] Memory required for data: 102359040
I0706 22:12:23.240609  1488 net.cpp:156] Memory required for data: 102359040
I0706 22:12:23.240615  1492 layer_factory.hpp:77] Creating layer conv2/3x3
I0706 22:12:23.240617  1488 layer_factory.hpp:77] Creating layer conv2/3x3
I0706 22:12:23.240643  1488 net.cpp:91] Creating Layer conv2/3x3
I0706 22:12:23.240653  1488 net.cpp:425] conv2/3x3 <- conv2/3x3_reduce
I0706 22:12:23.240646  1492 net.cpp:91] Creating Layer conv2/3x3
I0706 22:12:23.240666  1492 net.cpp:425] conv2/3x3 <- conv2/3x3_reduce
I0706 22:12:23.240674  1488 net.cpp:399] conv2/3x3 -> conv2/3x3
I0706 22:12:23.240681  1492 net.cpp:399] conv2/3x3 -> conv2/3x3
I0706 22:12:23.248525  1488 net.cpp:141] Setting up conv2/3x3
I0706 22:12:23.248543  1492 net.cpp:141] Setting up conv2/3x3
I0706 22:12:23.248558  1492 net.cpp:148] Top shape: 10 192 56 56 (6021120)
I0706 22:12:23.248558  1488 net.cpp:148] Top shape: 10 192 56 56 (6021120)
I0706 22:12:23.248570  1492 net.cpp:156] Memory required for data: 126443520
I0706 22:12:23.248575  1488 net.cpp:156] Memory required for data: 126443520
I0706 22:12:23.248592  1488 layer_factory.hpp:77] Creating layer conv2/relu_3x3
I0706 22:12:23.248599  1492 layer_factory.hpp:77] Creating layer conv2/relu_3x3
I0706 22:12:23.248612  1492 net.cpp:91] Creating Layer conv2/relu_3x3
I0706 22:12:23.248616  1488 net.cpp:91] Creating Layer conv2/relu_3x3
I0706 22:12:23.248621  1492 net.cpp:425] conv2/relu_3x3 <- conv2/3x3
I0706 22:12:23.248625  1488 net.cpp:425] conv2/relu_3x3 <- conv2/3x3
I0706 22:12:23.248636  1488 net.cpp:386] conv2/relu_3x3 -> conv2/3x3 (in-place)
I0706 22:12:23.248636  1492 net.cpp:386] conv2/relu_3x3 -> conv2/3x3 (in-place)
I0706 22:12:23.249742  1488 net.cpp:141] Setting up conv2/relu_3x3
I0706 22:12:23.249742  1492 net.cpp:141] Setting up conv2/relu_3x3
I0706 22:12:23.249766  1488 net.cpp:148] Top shape: 10 192 56 56 (6021120)
I0706 22:12:23.249769  1492 net.cpp:148] Top shape: 10 192 56 56 (6021120)
I0706 22:12:23.249779  1488 net.cpp:156] Memory required for data: 150528000
I0706 22:12:23.249781  1492 net.cpp:156] Memory required for data: 150528000
I0706 22:12:23.249789  1488 layer_factory.hpp:77] Creating layer conv2/norm2
I0706 22:12:23.249788  1492 layer_factory.hpp:77] Creating layer conv2/norm2
I0706 22:12:23.249812  1492 net.cpp:91] Creating Layer conv2/norm2
I0706 22:12:23.249815  1488 net.cpp:91] Creating Layer conv2/norm2
I0706 22:12:23.249821  1492 net.cpp:425] conv2/norm2 <- conv2/3x3
I0706 22:12:23.249824  1488 net.cpp:425] conv2/norm2 <- conv2/3x3
I0706 22:12:23.249832  1488 net.cpp:399] conv2/norm2 -> conv2/norm2
I0706 22:12:23.249832  1492 net.cpp:399] conv2/norm2 -> conv2/norm2
I0706 22:12:23.251039  1492 net.cpp:141] Setting up conv2/norm2
I0706 22:12:23.251055  1488 net.cpp:141] Setting up conv2/norm2
I0706 22:12:23.251061  1492 net.cpp:148] Top shape: 10 192 56 56 (6021120)
I0706 22:12:23.251068  1488 net.cpp:148] Top shape: 10 192 56 56 (6021120)
I0706 22:12:23.251070  1492 net.cpp:156] Memory required for data: 174612480
I0706 22:12:23.251080  1488 net.cpp:156] Memory required for data: 174612480
I0706 22:12:23.251086  1492 layer_factory.hpp:77] Creating layer pool2/3x3_s2
I0706 22:12:23.251090  1488 layer_factory.hpp:77] Creating layer pool2/3x3_s2
I0706 22:12:23.251102  1492 net.cpp:91] Creating Layer pool2/3x3_s2
I0706 22:12:23.251107  1488 net.cpp:91] Creating Layer pool2/3x3_s2
I0706 22:12:23.251112  1492 net.cpp:425] pool2/3x3_s2 <- conv2/norm2
I0706 22:12:23.251116  1488 net.cpp:425] pool2/3x3_s2 <- conv2/norm2
I0706 22:12:23.251127  1488 net.cpp:399] pool2/3x3_s2 -> pool2/3x3_s2
I0706 22:12:23.251127  1492 net.cpp:399] pool2/3x3_s2 -> pool2/3x3_s2
I0706 22:12:23.251237  1488 net.cpp:141] Setting up pool2/3x3_s2
I0706 22:12:23.251255  1488 net.cpp:148] Top shape: 10 192 28 28 (1505280)
I0706 22:12:23.251260  1492 net.cpp:141] Setting up pool2/3x3_s2
I0706 22:12:23.251263  1488 net.cpp:156] Memory required for data: 180633600
I0706 22:12:23.251281  1492 net.cpp:148] Top shape: 10 192 28 28 (1505280)
I0706 22:12:23.251279  1488 layer_factory.hpp:77] Creating layer pool2/3x3_s2_pool2/3x3_s2_0_split
I0706 22:12:23.251291  1492 net.cpp:156] Memory required for data: 180633600
I0706 22:12:23.251298  1492 layer_factory.hpp:77] Creating layer pool2/3x3_s2_pool2/3x3_s2_0_split
I0706 22:12:23.251310  1492 net.cpp:91] Creating Layer pool2/3x3_s2_pool2/3x3_s2_0_split
I0706 22:12:23.251314  1488 net.cpp:91] Creating Layer pool2/3x3_s2_pool2/3x3_s2_0_split
…
I0706 22:12:23.251344  1488 net.cpp:399] pool2/3x3_s2_pool2/3x3_s2_0_split -> pool2/3x3_s2_pool2/3x3_s2_0_split_1
I0706 22:12:23.251366  1488 net.cpp:399] pool2/3x3_s2_pool2/3x3_s2_0_split -> pool2/3x3_s2_pool2/3x3_s2_0_split_2
I0706 22:12:23.251368  1492 net.cpp:399] pool2/3x3_s2_pool2/3x3_s2_0_split -> pool2/3x3_s2_pool2/3x3_s2_0_split_2
I0706 22:12:23.251384  1488 net.cpp:399] pool2/3x3_s2_pool2/3x3_s2_0_split -> pool2/3x3_s2_pool2/3x3_s2_0_split_3
I0706 22:12:23.251387  1492 net.cpp:399] pool2/3x3_s2_pool2/3x3_s2_0_split -> pool2/3x3_s2_pool2/3x3_s2_0_split_3
I0706 22:12:23.251577  1492 net.cpp:141] Setting up pool2/3x3_s2_pool2/3x3_s2_0_split
I0706 22:12:23.251595  1492 net.cpp:148] Top shape: 10 192 28 28 (1505280)
I0706 22:12:23.251607  1492 net.cpp:148] Top shape: 10 192 28 28 (1505280)
I0706 22:12:23.251605  1488 net.cpp:141] Setting up pool2/3x3_s2_pool2/3x3_s2_0_split
I0706 22:12:23.251621  1492 net.cpp:148] Top shape: 10 192 28 28 (1505280)
I0706 22:12:23.251626  1488 net.cpp:148] Top shape: 10 192 28 28 (1505280)
I0706 22:12:23.251631  1492 net.cpp:148] Top shape: 10 192 28 28 (1505280)
I0706 22:12:23.251637  1488 net.cpp:148] Top shape: 10 192 28 28 (1505280)
I0706 22:12:23.251638  1492 net.cpp:156] Memory required for data: 204718080
I0706 22:12:23.251647  1492 layer_factory.hpp:77] Creating layer inception_3a/1x1
I0706 22:12:23.251647  1488 net.cpp:148] Top shape: 10 192 28 28 (1505280)
I0706 22:12:23.251667  1488 net.cpp:148] Top shape: 10 192 28 28 (1505280)
I0706 22:12:23.251673  1488 net.cpp:156] Memory required for data: 204718080
I0706 22:12:23.251682  1488 layer_factory.hpp:77] Creating layer inception_3a/1x1
I0706 22:12:23.251682  1492 net.cpp:91] Creating Layer inception_3a/1x1
I0706 22:12:23.251699  1492 net.cpp:425] inception_3a/1x1 <- pool2/3x3_s2_pool2/3x3_s2_0_split_0
I0706 22:12:23.251708  1488 net.cpp:91] Creating Layer inception_3a/1x1
I0706 22:12:23.251716  1488 net.cpp:425] inception_3a/1x1 <- pool2/3x3_s2_pool2/3x3_s2_0_split_0
I0706 22:12:23.251735  1492 net.cpp:399] inception_3a/1x1 -> inception_3a/1x1
I0706 22:12:23.251736  1488 net.cpp:399] inception_3a/1x1 -> inception_3a/1x1
I0706 22:12:23.258620  1488 net.cpp:141] Setting up inception_3a/1x1
I0706 22:12:23.258641  1492 net.cpp:141] Setting up inception_3a/1x1
I0706 22:12:23.258656  1492 net.cpp:148] Top shape: 10 64 28 28 (501760)
I0706 22:12:23.258656  1488 net.cpp:148] Top shape: 10 64 28 28 (501760)
I0706 22:12:23.258671  1492 net.cpp:156] Memory required for data: 206725120
I0706 22:12:23.258676  1488 net.cpp:156] Memory required for data: 206725120
I0706 22:12:23.258700  1492 layer_factory.hpp:77] Creating layer inception_3a/relu_1x1
I0706 22:12:23.258705  1488 layer_factory.hpp:77] Creating layer inception_3a/relu_1x1
I0706 22:12:23.258719  1492 net.cpp:91] Creating Layer inception_3a/relu_1x1
I0706 22:12:23.258719  1488 net.cpp:91] Creating Layer inception_3a/relu_1x1
I0706 22:12:23.258734  1488 net.cpp:425] inception_3a/relu_1x1 <- inception_3a/1x1
I0706 22:12:23.258733  1492 net.cpp:425] inception_3a/relu_1x1 <- inception_3a/1x1
I0706 22:12:23.258755  1488 net.cpp:386] inception_3a/relu_1x1 -> inception_3a/1x1 (in-place)
I0706 22:12:23.258759  1492 net.cpp:386] inception_3a/relu_1x1 -> inception_3a/1x1 (in-place)
I0706 22:12:23.259862  1488 net.cpp:141] Setting up inception_3a/relu_1x1
I0706 22:12:23.259862  1492 net.cpp:141] Setting up inception_3a/relu_1x1
I0706 22:12:23.259886  1488 net.cpp:148] Top shape: 10 64 28 28 (501760)
I0706 22:12:23.259889  1492 net.cpp:148] Top shape: 10 64 28 28 (501760)
I0706 22:12:23.259896  1488 net.cpp:156] Memory required for data: 208732160
I0706 22:12:23.259896  1492 net.cpp:156] Memory required for data: 208732160
I0706 22:12:23.259907  1488 layer_factory.hpp:77] Creating layer inception_3a/3x3_reduce
I0706 22:12:23.259909  1492 layer_factory.hpp:77] Creating layer inception_3a/3x3_reduce
I0706 22:12:23.259939  1492 net.cpp:91] Creating Layer inception_3a/3x3_reduce
I0706 22:12:23.259939  1488 net.cpp:91] Creating Layer inception_3a/3x3_reduce
I0706 22:12:23.259954  1492 net.cpp:425] inception_3a/3x3_reduce <- pool2/3x3_s2_pool2/3x3_s2_0_split_1
I0706 22:12:23.259955  1488 net.cpp:425] inception_3a/3x3_reduce <- pool2/3x3_s2_pool2/3x3_s2_0_split_1
I0706 22:12:23.259975  1488 net.cpp:399] inception_3a/3x3_reduce -> inception_3a/3x3_reduce
I0706 22:12:23.259975  1492 net.cpp:399] inception_3a/3x3_reduce -> inception_3a/3x3_reduce
I0706 22:12:23.266134  1488 net.cpp:141] Setting up inception_3a/3x3_reduce
I0706 22:12:23.266151  1492 net.cpp:141] Setting up inception_3a/3x3_reduce
I0706 22:12:23.266160  1488 net.cpp:148] Top shape: 10 96 28 28 (752640)
I0706 22:12:23.266170  1488 net.cpp:156] Memory required for data: 211742720
I0706 22:12:23.266170  1492 net.cpp:148] Top shape: 10 96 28 28 (752640)
I0706 22:12:23.266180  1492 net.cpp:156] Memory required for data: 211742720
I0706 22:12:23.266191  1488 layer_factory.hpp:77] Creating layer inception_3a/relu_3x3_reduce
I0706 22:12:23.266198  1492 layer_factory.hpp:77] Creating layer inception_3a/relu_3x3_reduce
I0706 22:12:23.266211  1492 net.cpp:91] Creating Layer inception_3a/relu_3x3_reduce
I0706 22:12:23.266211  1488 net.cpp:91] Creating Layer inception_3a/relu_3x3_reduce
I0706 22:12:23.266224  1492 net.cpp:425] inception_3a/relu_3x3_reduce <- inception_3a/3x3_reduce
I0706 22:12:23.266227  1488 net.cpp:425] inception_3a/relu_3x3_reduce <- inception_3a/3x3_reduce
I0706 22:12:23.266239  1488 net.cpp:386] inception_3a/relu_3x3_reduce -> inception_3a/3x3_reduce (in-place)
I0706 22:12:23.266239  1492 net.cpp:386] inception_3a/relu_3x3_reduce -> inception_3a/3x3_reduce (in-place)
I0706 22:12:23.267351  1488 net.cpp:141] Setting up inception_3a/relu_3x3_reduce
I0706 22:12:23.267352  1492 net.cpp:141] Setting up inception_3a/relu_3x3_reduce
I0706 22:12:23.267375  1488 net.cpp:148] Top shape: 10 96 28 28 (752640)
I0706 22:12:23.267379  1492 net.cpp:148] Top shape: 10 96 28 28 (752640)
I0706 22:12:23.267385  1488 net.cpp:156] Memory required for data: 214753280
I0706 22:12:23.267385  1492 net.cpp:156] Memory required for data: 214753280
I0706 22:12:23.267396  1488 layer_factory.hpp:77] Creating layer inception_3a/3x3
I0706 22:12:23.267398  1492 layer_factory.hpp:77] Creating layer inception_3a/3x3
I0706 22:12:23.267426  1492 net.cpp:91] Creating Layer inception_3a/3x3
I0706 22:12:23.267432  1488 net.cpp:91] Creating Layer inception_3a/3x3
I0706 22:12:23.267436  1492 net.cpp:425] inception_3a/3x3 <- inception_3a/3x3_reduce
I0706 22:12:23.267442  1488 net.cpp:425] inception_3a/3x3 <- inception_3a/3x3_reduce
I0706 22:12:23.267455  1488 net.cpp:399] inception_3a/3x3 -> inception_3a/3x3
I0706 22:12:23.267455  1492 net.cpp:399] inception_3a/3x3 -> inception_3a/3x3
I0706 22:12:23.274592  1488 net.cpp:141] Setting up inception_3a/3x3
I0706 22:12:23.274627  1488 net.cpp:148] Top shape: 10 128 28 28 (1003520)
I0706 22:12:23.274636  1488 net.cpp:156] Memory required for data: 218767360
I0706 22:12:23.274657  1488 layer_factory.hpp:77] Creating layer inception_3a/relu_3x3
I0706 22:12:23.274672  1488 net.cpp:91] Creating Layer inception_3a/relu_3x3
I0706 22:12:23.274683  1488 net.cpp:425] inception_3a/relu_3x3 <- inception_3a/3x3
I0706 22:12:23.274708  1488 net.cpp:386] inception_3a/relu_3x3 -> inception_3a/3x3 (in-place)
I0706 22:12:23.275037  1492 net.cpp:141] Setting up inception_3a/3x3
I0706 22:12:23.275060  1492 net.cpp:148] Top shape: 10 128 28 28 (1003520)
I0706 22:12:23.275068  1492 net.cpp:156] Memory required for data: 218767360
I0706 22:12:23.275085  1492 layer_factory.hpp:77] Creating layer inception_3a/relu_3x3
I0706 22:12:23.275100  1492 net.cpp:91] Creating Layer inception_3a/relu_3x3
I0706 22:12:23.275110  1492 net.cpp:425] inception_3a/relu_3x3 <- inception_3a/3x3
I0706 22:12:23.275118  1488 net.cpp:141] Setting up inception_3a/relu_3x3
I0706 22:12:23.275122  1492 net.cpp:386] inception_3a/relu_3x3 -> inception_3a/3x3 (in-place)
I0706 22:12:23.275133  1488 net.cpp:148] Top shape: 10 128 28 28 (1003520)
I0706 22:12:23.275141  1488 net.cpp:156] Memory required for data: 222781440
I0706 22:12:23.275149  1488 layer_factory.hpp:77] Creating layer inception_3a/5x5_reduce
I0706 22:12:23.275176  1488 net.cpp:91] Creating Layer inception_3a/5x5_reduce
I0706 22:12:23.275185  1488 net.cpp:425] inception_3a/5x5_reduce <- pool2/3x3_s2_pool2/3x3_s2_0_split_2
I0706 22:12:23.275207  1488 net.cpp:399] inception_3a/5x5_reduce -> inception_3a/5x5_reduce
I0706 22:12:23.276212  1492 net.cpp:141] Setting up inception_3a/relu_3x3
I0706 22:12:23.276233  1492 net.cpp:148] Top shape: 10 128 28 28 (1003520)
I0706 22:12:23.276242  1492 net.cpp:156] Memory required for data: 222781440
I0706 22:12:23.276252  1492 layer_factory.hpp:77] Creating layer inception_3a/5x5_reduce
I0706 22:12:23.276275  1492 net.cpp:91] Creating Layer inception_3a/5x5_reduce
I0706 22:12:23.276286  1492 net.cpp:425] inception_3a/5x5_reduce <- pool2/3x3_s2_pool2/3x3_s2_0_split_2
I0706 22:12:23.276305  1492 net.cpp:399] inception_3a/5x5_reduce -> inception_3a/5x5_reduce
I0706 22:12:23.279911  1488 net.cpp:141] Setting up inception_3a/5x5_reduce
I0706 22:12:23.279940  1488 net.cpp:148] Top shape: 10 16 28 28 (125440)
I0706 22:12:23.279945  1488 net.cpp:156] Memory required for data: 223283200
I0706 22:12:23.279958  1488 layer_factory.hpp:77] Creating layer inception_3a/relu_5x5_reduce
I0706 22:12:23.279968  1488 net.cpp:91] Creating Layer inception_3a/relu_5x5_reduce
I0706 22:12:23.279974  1488 net.cpp:425] inception_3a/relu_5x5_reduce <- inception_3a/5x5_reduce
I0706 22:12:23.279981  1488 net.cpp:386] inception_3a/relu_5x5_reduce -> inception_3a/5x5_reduce (in-place)
I0706 22:12:23.281049  1488 net.cpp:141] Setting up inception_3a/relu_5x5_reduce
I0706 22:12:23.281064  1488 net.cpp:148] Top shape: 10 16 28 28 (125440)
I0706 22:12:23.281069  1488 net.cpp:156] Memory required for data: 223784960
I0706 22:12:23.281075  1488 layer_factory.hpp:77] Creating layer inception_3a/5x5
I0706 22:12:23.281095  1488 net.cpp:91] Creating Layer inception_3a/5x5
I0706 22:12:23.281100  1488 net.cpp:425] inception_3a/5x5 <- inception_3a/5x5_reduce
I0706 22:12:23.281103  1492 net.cpp:141] Setting up inception_3a/5x5_reduce
I0706 22:12:23.281111  1488 net.cpp:399] inception_3a/5x5 -> inception_3a/5x5
I0706 22:12:23.281124  1492 net.cpp:148] Top shape: 10 16 28 28 (125440)
I0706 22:12:23.281131  1492 net.cpp:156] Memory required for data: 223283200
I0706 22:12:23.281141  1492 layer_factory.hpp:77] Creating layer inception_3a/relu_5x5_reduce
I0706 22:12:23.281154  1492 net.cpp:91] Creating Layer inception_3a/relu_5x5_reduce
I0706 22:12:23.281162  1492 net.cpp:425] inception_3a/relu_5x5_reduce <- inception_3a/5x5_reduce
I0706 22:12:23.281169  1492 net.cpp:386] inception_3a/relu_5x5_reduce -> inception_3a/5x5_reduce (in-place)
I0706 22:12:23.281568  1492 net.cpp:141] Setting up inception_3a/relu_5x5_reduce
I0706 22:12:23.281579  1492 net.cpp:148] Top shape: 10 16 28 28 (125440)
I0706 22:12:23.281584  1492 net.cpp:156] Memory required for data: 223784960
I0706 22:12:23.281589  1492 layer_factory.hpp:77] Creating layer inception_3a/5x5
I0706 22:12:23.281605  1492 net.cpp:91] Creating Layer inception_3a/5x5
I0706 22:12:23.281611  1492 net.cpp:425] inception_3a/5x5 <- inception_3a/5x5_reduce
I0706 22:12:23.281622  1492 net.cpp:399] inception_3a/5x5 -> inception_3a/5x5
I0706 22:12:23.286089  1488 net.cpp:141] Setting up inception_3a/5x5
I0706 22:12:23.286113  1488 net.cpp:148] Top shape: 10 32 28 28 (250880)
I0706 22:12:23.286118  1488 net.cpp:156] Memory required for data: 224788480
I0706 22:12:23.286128  1488 layer_factory.hpp:77] Creating layer inception_3a/relu_5x5
I0706 22:12:23.286137  1488 net.cpp:91] Creating Layer inception_3a/relu_5x5
I0706 22:12:23.286144  1488 net.cpp:425] inception_3a/relu_5x5 <- inception_3a/5x5
I0706 22:12:23.286150  1488 net.cpp:386] inception_3a/relu_5x5 -> inception_3a/5x5 (in-place)
I0706 22:12:23.287536  1488 net.cpp:141] Setting up inception_3a/relu_5x5
I0706 22:12:23.287551  1488 net.cpp:148] Top shape: 10 32 28 28 (250880)
I0706 22:12:23.287556  1488 net.cpp:156] Memory required for data: 225792000
I0706 22:12:23.287561  1488 layer_factory.hpp:77] Creating layer inception_3a/pool
I0706 22:12:23.287571  1488 net.cpp:91] Creating Layer inception_3a/pool
I0706 22:12:23.287577  1488 net.cpp:425] inception_3a/pool <- pool2/3x3_s2_pool2/3x3_s2_0_split_3
I0706 22:12:23.287587  1488 net.cpp:399] inception_3a/pool -> inception_3a/pool
I0706 22:12:23.287739  1488 net.cpp:141] Setting up inception_3a/pool
I0706 22:12:23.287750  1488 net.cpp:148] Top shape: 10 192 28 28 (1505280)
I0706 22:12:23.287755  1488 net.cpp:156] Memory required for data: 231813120
I0706 22:12:23.287760  1488 layer_factory.hpp:77] Creating layer inception_3a/pool_proj
I0706 22:12:23.287775  1488 net.cpp:91] Creating Layer inception_3a/pool_proj
I0706 22:12:23.287781  1488 net.cpp:425] inception_3a/pool_proj <- inception_3a/pool
I0706 22:12:23.287791  1488 net.cpp:399] inception_3a/pool_proj -> inception_3a/pool_proj
I0706 22:12:23.288363  1492 net.cpp:141] Setting up inception_3a/5x5
I0706 22:12:23.288381  1492 net.cpp:148] Top shape: 10 32 28 28 (250880)
I0706 22:12:23.288386  1492 net.cpp:156] Memory required for data: 224788480
I0706 22:12:23.288400  1492 layer_factory.hpp:77] Creating layer inception_3a/relu_5x5
I0706 22:12:23.288409  1492 net.cpp:91] Creating Layer inception_3a/relu_5x5
I0706 22:12:23.288415  1492 net.cpp:425] inception_3a/relu_5x5 <- inception_3a/5x5
I0706 22:12:23.288425  1492 net.cpp:386] inception_3a/relu_5x5 -> inception_3a/5x5 (in-place)
I0706 22:12:23.289463  1492 net.cpp:141] Setting up inception_3a/relu_5x5
I0706 22:12:23.289475  1492 net.cpp:148] Top shape: 10 32 28 28 (250880)
I0706 22:12:23.289480  1492 net.cpp:156] Memory required for data: 225792000
I0706 22:12:23.289485  1492 layer_factory.hpp:77] Creating layer inception_3a/pool
I0706 22:12:23.289499  1492 net.cpp:91] Creating Layer inception_3a/pool
I0706 22:12:23.289505  1492 net.cpp:425] inception_3a/pool <- pool2/3x3_s2_pool2/3x3_s2_0_split_3
I0706 22:12:23.289512  1492 net.cpp:399] inception_3a/pool -> inception_3a/pool
I0706 22:12:23.289652  1492 net.cpp:141] Setting up inception_3a/pool
I0706 22:12:23.289664  1492 net.cpp:148] Top shape: 10 192 28 28 (1505280)
I0706 22:12:23.289667  1492 net.cpp:156] Memory required for data: 231813120
I0706 22:12:23.289672  1492 layer_factory.hpp:77] Creating layer inception_3a/pool_proj
I0706 22:12:23.289695  1492 net.cpp:91] Creating Layer inception_3a/pool_proj
I0706 22:12:23.289706  1492 net.cpp:425] inception_3a/pool_proj <- inception_3a/pool
I0706 22:12:23.289718  1492 net.cpp:399] inception_3a/pool_proj -> inception_3a/pool_proj
I0706 22:12:23.292845  1488 net.cpp:141] Setting up inception_3a/pool_proj
I0706 22:12:23.292862  1488 net.cpp:148] Top shape: 10 32 28 28 (250880)
I0706 22:12:23.292867  1488 net.cpp:156] Memory required for data: 232816640
I0706 22:12:23.292893  1488 layer_factory.hpp:77] Creating layer inception_3a/relu_pool_proj
I0706 22:12:23.292906  1488 net.cpp:91] Creating Layer inception_3a/relu_pool_proj
I0706 22:12:23.292912  1488 net.cpp:425] inception_3a/relu_pool_proj <- inception_3a/pool_proj
I0706 22:12:23.292919  1488 net.cpp:386] inception_3a/relu_pool_proj -> inception_3a/pool_proj (in-place)
I0706 22:12:23.293287  1492 net.cpp:141] Setting up inception_3a/pool_proj
I0706 22:12:23.293303  1492 net.cpp:148] Top shape: 10 32 28 28 (250880)
I0706 22:12:23.293308  1492 net.cpp:156] Memory required for data: 232816640
I0706 22:12:23.293324  1492 layer_factory.hpp:77] Creating layer inception_3a/relu_pool_proj
I0706 22:12:23.293334  1492 net.cpp:91] Creating Layer inception_3a/relu_pool_proj
I0706 22:12:23.293339  1492 net.cpp:425] inception_3a/relu_pool_proj <- inception_3a/pool_proj
I0706 22:12:23.293342  1488 net.cpp:141] Setting up inception_3a/relu_pool_proj
I0706 22:12:23.293349  1492 net.cpp:386] inception_3a/relu_pool_proj -> inception_3a/pool_proj (in-place)
I0706 22:12:23.293354  1488 net.cpp:148] Top shape: 10 32 28 28 (250880)
I0706 22:12:23.293359  1488 net.cpp:156] Memory required for data: 233820160
I0706 22:12:23.293365  1488 layer_factory.hpp:77] Creating layer inception_3a/output
I0706 22:12:23.293395  1488 net.cpp:91] Creating Layer inception_3a/output
I0706 22:12:23.293401  1488 net.cpp:425] inception_3a/output <- inception_3a/1x1
I0706 22:12:23.293407  1488 net.cpp:425] inception_3a/output <- inception_3a/3x3
I0706 22:12:23.293412  1488 net.cpp:425] inception_3a/output <- inception_3a/5x5
I0706 22:12:23.293417  1488 net.cpp:425] inception_3a/output <- inception_3a/pool_proj
I0706 22:12:23.293424  1488 net.cpp:399] inception_3a/output -> inception_3a/output
I0706 22:12:23.294025  1488 net.cpp:141] Setting up inception_3a/output
I0706 22:12:23.294036  1488 net.cpp:148] Top shape: 10 256 28 28 (2007040)
I0706 22:12:23.294040  1488 net.cpp:156] Memory required for data: 241848320
I0706 22:12:23.294045  1488 layer_factory.hpp:77] Creating layer inception_3a/output_inception_3a/output_0_split
I0706 22:12:23.294055  1488 net.cpp:91] Creating Layer inception_3a/output_inception_3a/output_0_split
I0706 22:12:23.294059  1488 net.cpp:425] inception_3a/output_inception_3a/output_0_split <- inception_3a/output
I0706 22:12:23.294070  1488 net.cpp:399] inception_3a/output_inception_3a/output_0_split -> inception_3a/output_inception_3a/output_0_split_0
I0706 22:12:23.294080  1488 net.cpp:399] inception_3a/output_inception_3a/output_0_split -> inception_3a/output_inception_3a/output_0_split_1
I0706 22:12:23.294087  1488 net.cpp:399] inception_3a/output_inception_3a/output_0_split -> inception_3a/output_inception_3a/output_0_split_2
I0706 22:12:23.294095  1488 net.cpp:399] inception_3a/output_inception_3a/output_0_split -> inception_3a/output_inception_3a/output_0_split_3
I0706 22:12:23.294209  1488 net.cpp:141] Setting up inception_3a/output_inception_3a/output_0_split
I0706 22:12:23.294219  1488 net.cpp:148] Top shape: 10 256 28 28 (2007040)
I0706 22:12:23.294225  1488 net.cpp:148] Top shape: 10 256 28 28 (2007040)
I0706 22:12:23.294222  1492 net.cpp:141] Setting up inception_3a/relu_pool_proj
I0706 22:12:23.294234  1488 net.cpp:148] Top shape: 10 256 28 28 (2007040)
I0706 22:12:23.294240  1488 net.cpp:148] Top shape: 10 256 28 28 (2007040)
I0706 22:12:23.294242  1492 net.cpp:148] Top shape: 10 32 28 28 (250880)
I0706 22:12:23.294245  1488 net.cpp:156] Memory required for data: 273960960
I0706 22:12:23.294255  1492 net.cpp:156] Memory required for data: 233820160
I0706 22:12:23.294255  1488 layer_factory.hpp:77] Creating layer inception_3b/1x1
I0706 22:12:23.294266  1492 layer_factory.hpp:77] Creating layer inception_3a/output
I0706 22:12:23.294278  1492 net.cpp:91] Creating Layer inception_3a/output
I0706 22:12:23.294282  1488 net.cpp:91] Creating Layer inception_3b/1x1
I0706 22:12:23.294284  1492 net.cpp:425] inception_3a/output <- inception_3a/1x1
I0706 22:12:23.294288  1488 net.cpp:425] inception_3b/1x1 <- inception_3a/output_inception_3a/output_0_split_0
I0706 22:12:23.294291  1492 net.cpp:425] inception_3a/output <- inception_3a/3x3
I0706 22:12:23.294297  1492 net.cpp:425] inception_3a/output <- inception_3a/5x5
I0706 22:12:23.294297  1488 net.cpp:399] inception_3b/1x1 -> inception_3b/1x1
I0706 22:12:23.294302  1492 net.cpp:425] inception_3a/output <- inception_3a/pool_proj
I0706 22:12:23.294313  1492 net.cpp:399] inception_3a/output -> inception_3a/output
I0706 22:12:23.294492  1492 net.cpp:141] Setting up inception_3a/output
I0706 22:12:23.294507  1492 net.cpp:148] Top shape: 10 256 28 28 (2007040)
I0706 22:12:23.294512  1492 net.cpp:156] Memory required for data: 241848320
I0706 22:12:23.294517  1492 layer_factory.hpp:77] Creating layer inception_3a/output_inception_3a/output_0_split
I0706 22:12:23.294525  1492 net.cpp:91] Creating Layer inception_3a/output_inception_3a/output_0_split
I0706 22:12:23.294530  1492 net.cpp:425] inception_3a/output_inception_3a/output_0_split <- inception_3a/output
I0706 22:12:23.294538  1492 net.cpp:399] inception_3a/output_inception_3a/output_0_split -> inception_3a/output_inception_3a/output_0_split_0
I0706 22:12:23.294545  1492 net.cpp:399] inception_3a/output_inception_3a/output_0_split -> inception_3a/output_inception_3a/output_0_split_1
I0706 22:12:23.294559  1492 net.cpp:399] inception_3a/output_inception_3a/output_0_split -> inception_3a/output_inception_3a/output_0_split_2
I0706 22:12:23.294567  1492 net.cpp:399] inception_3a/output_inception_3a/output_0_split -> inception_3a/output_inception_3a/output_0_split_3
I0706 22:12:23.294657  1492 net.cpp:141] Setting up inception_3a/output_inception_3a/output_0_split
I0706 22:12:23.294667  1492 net.cpp:148] Top shape: 10 256 28 28 (2007040)
I0706 22:12:23.294672  1492 net.cpp:148] Top shape: 10 256 28 28 (2007040)
I0706 22:12:23.294677  1492 net.cpp:148] Top shape: 10 256 28 28 (2007040)
I0706 22:12:23.294682  1492 net.cpp:148] Top shape: 10 256 28 28 (2007040)
I0706 22:12:23.294697  1492 net.cpp:156] Memory required for data: 273960960
I0706 22:12:23.294708  1492 layer_factory.hpp:77] Creating layer inception_3b/1x1
I0706 22:12:23.294731  1492 net.cpp:91] Creating Layer inception_3b/1x1
I0706 22:12:23.294739  1492 net.cpp:425] inception_3b/1x1 <- inception_3a/output_inception_3a/output_0_split_0
I0706 22:12:23.294749  1492 net.cpp:399] inception_3b/1x1 -> inception_3b/1x1
I0706 22:12:23.298156  1488 net.cpp:141] Setting up inception_3b/1x1
I0706 22:12:23.298173  1488 net.cpp:148] Top shape: 10 128 28 28 (1003520)
I0706 22:12:23.298178  1488 net.cpp:156] Memory required for data: 277975040
I0706 22:12:23.298188  1488 layer_factory.hpp:77] Creating layer inception_3b/relu_1x1
I0706 22:12:23.298202  1488 net.cpp:91] Creating Layer inception_3b/relu_1x1
I0706 22:12:23.298207  1488 net.cpp:425] inception_3b/relu_1x1 <- inception_3b/1x1
I0706 22:12:23.298216  1488 net.cpp:386] inception_3b/relu_1x1 -> inception_3b/1x1 (in-place)
I0706 22:12:23.299212  1488 net.cpp:141] Setting up inception_3b/relu_1x1
I0706 22:12:23.299227  1488 net.cpp:148] Top shape: 10 128 28 28 (1003520)
I0706 22:12:23.299232  1488 net.cpp:156] Memory required for data: 281989120
I0706 22:12:23.299237  1488 layer_factory.hpp:77] Creating layer inception_3b/3x3_reduce
I0706 22:12:23.299253  1488 net.cpp:91] Creating Layer inception_3b/3x3_reduce
I0706 22:12:23.299259  1488 net.cpp:425] inception_3b/3x3_reduce <- inception_3a/output_inception_3a/output_0_split_1
I0706 22:12:23.299268  1488 net.cpp:399] inception_3b/3x3_reduce -> inception_3b/3x3_reduce
I0706 22:12:23.299355  1492 net.cpp:141] Setting up inception_3b/1x1
I0706 22:12:23.299370  1492 net.cpp:148] Top shape: 10 128 28 28 (1003520)
I0706 22:12:23.299373  1492 net.cpp:156] Memory required for data: 277975040
I0706 22:12:23.299384  1492 layer_factory.hpp:77] Creating layer inception_3b/relu_1x1
I0706 22:12:23.299396  1492 net.cpp:91] Creating Layer inception_3b/relu_1x1
I0706 22:12:23.299402  1492 net.cpp:425] inception_3b/relu_1x1 <- inception_3b/1x1
I0706 22:12:23.299408  1492 net.cpp:386] inception_3b/relu_1x1 -> inception_3b/1x1 (in-place)
I0706 22:12:23.299767  1492 net.cpp:141] Setting up inception_3b/relu_1x1
I0706 22:12:23.299778  1492 net.cpp:148] Top shape: 10 128 28 28 (1003520)
I0706 22:12:23.299782  1492 net.cpp:156] Memory required for data: 281989120
I0706 22:12:23.299787  1492 layer_factory.hpp:77] Creating layer inception_3b/3x3_reduce
I0706 22:12:23.299803  1492 net.cpp:91] Creating Layer inception_3b/3x3_reduce
I0706 22:12:23.299809  1492 net.cpp:425] inception_3b/3x3_reduce <- inception_3a/output_inception_3a/output_0_split_1
I0706 22:12:23.299818  1492 net.cpp:399] inception_3b/3x3_reduce -> inception_3b/3x3_reduce
I0706 22:12:23.304052  1488 net.cpp:141] Setting up inception_3b/3x3_reduce
I0706 22:12:23.304070  1488 net.cpp:148] Top shape: 10 128 28 28 (1003520)
I0706 22:12:23.304069  1492 net.cpp:141] Setting up inception_3b/3x3_reduce
I0706 22:12:23.304075  1488 net.cpp:156] Memory required for data: 286003200
I0706 22:12:23.304085  1492 net.cpp:148] Top shape: 10 128 28 28 (1003520)
I0706 22:12:23.304085  1488 layer_factory.hpp:77] Creating layer inception_3b/relu_3x3_reduce
I0706 22:12:23.304090  1492 net.cpp:156] Memory required for data: 286003200
I0706 22:12:23.304098  1488 net.cpp:91] Creating Layer inception_3b/relu_3x3_reduce
I0706 22:12:23.304100  1492 layer_factory.hpp:77] Creating layer inception_3b/relu_3x3_reduce
I0706 22:12:23.304105  1488 net.cpp:425] inception_3b/relu_3x3_reduce <- inception_3b/3x3_reduce
I0706 22:12:23.304110  1492 net.cpp:91] Creating Layer inception_3b/relu_3x3_reduce
I0706 22:12:23.304111  1488 net.cpp:386] inception_3b/relu_3x3_reduce -> inception_3b/3x3_reduce (in-place)
I0706 22:12:23.304116  1492 net.cpp:425] inception_3b/relu_3x3_reduce <- inception_3b/3x3_reduce
I0706 22:12:23.304126  1492 net.cpp:386] inception_3b/relu_3x3_reduce -> inception_3b/3x3_reduce (in-place)
I0706 22:12:23.305120  1488 net.cpp:141] Setting up inception_3b/relu_3x3_reduce
I0706 22:12:23.305133  1488 net.cpp:148] Top shape: 10 128 28 28 (1003520)
I0706 22:12:23.305137  1488 net.cpp:156] Memory required for data: 290017280
I0706 22:12:23.305142  1488 layer_factory.hpp:77] Creating layer inception_3b/3x3
I0706 22:12:23.305145  1492 net.cpp:141] Setting up inception_3b/relu_3x3_reduce
I0706 22:12:23.305161  1492 net.cpp:148] Top shape: 10 128 28 28 (1003520)
I0706 22:12:23.305162  1488 net.cpp:91] Creating Layer inception_3b/3x3
I0706 22:12:23.305172  1492 net.cpp:156] Memory required for data: 290017280
I0706 22:12:23.305176  1488 net.cpp:425] inception_3b/3x3 <- inception_3b/3x3_reduce
I0706 22:12:23.305177  1492 layer_factory.hpp:77] Creating layer inception_3b/3x3
I0706 22:12:23.305186  1488 net.cpp:399] inception_3b/3x3 -> inception_3b/3x3
I0706 22:12:23.305196  1492 net.cpp:91] Creating Layer inception_3b/3x3
I0706 22:12:23.305203  1492 net.cpp:425] inception_3b/3x3 <- inception_3b/3x3_reduce
I0706 22:12:23.305212  1492 net.cpp:399] inception_3b/3x3 -> inception_3b/3x3
I0706 22:12:23.311785  1492 net.cpp:141] Setting up inception_3b/3x3
I0706 22:12:23.311818  1492 net.cpp:148] Top shape: 10 192 28 28 (1505280)
I0706 22:12:23.311825  1492 net.cpp:156] Memory required for data: 296038400
I0706 22:12:23.311837  1492 layer_factory.hpp:77] Creating layer inception_3b/relu_3x3
I0706 22:12:23.311861  1492 net.cpp:91] Creating Layer inception_3b/relu_3x3
I0706 22:12:23.311867  1492 net.cpp:425] inception_3b/relu_3x3 <- inception_3b/3x3
I0706 22:12:23.311878  1492 net.cpp:386] inception_3b/relu_3x3 -> inception_3b/3x3 (in-place)
I0706 22:12:23.312819  1492 net.cpp:141] Setting up inception_3b/relu_3x3
I0706 22:12:23.312834  1492 net.cpp:148] Top shape: 10 192 28 28 (1505280)
I0706 22:12:23.312839  1492 net.cpp:156] Memory required for data: 302059520
I0706 22:12:23.312844  1492 layer_factory.hpp:77] Creating layer inception_3b/5x5_reduce
I0706 22:12:23.312870  1492 net.cpp:91] Creating Layer inception_3b/5x5_reduce
I0706 22:12:23.312877  1492 net.cpp:425] inception_3b/5x5_reduce <- inception_3a/output_inception_3a/output_0_split_2
I0706 22:12:23.312887  1492 net.cpp:399] inception_3b/5x5_reduce -> inception_3b/5x5_reduce
I0706 22:12:23.314146  1488 net.cpp:141] Setting up inception_3b/3x3
I0706 22:12:23.314164  1488 net.cpp:148] Top shape: 10 192 28 28 (1505280)
I0706 22:12:23.314169  1488 net.cpp:156] Memory required for data: 296038400
I0706 22:12:23.314180  1488 layer_factory.hpp:77] Creating layer inception_3b/relu_3x3
I0706 22:12:23.314199  1488 net.cpp:91] Creating Layer inception_3b/relu_3x3
I0706 22:12:23.314206  1488 net.cpp:425] inception_3b/relu_3x3 <- inception_3b/3x3
I0706 22:12:23.314214  1488 net.cpp:386] inception_3b/relu_3x3 -> inception_3b/3x3 (in-place)
I0706 22:12:23.315287  1488 net.cpp:141] Setting up inception_3b/relu_3x3
I0706 22:12:23.315302  1488 net.cpp:148] Top shape: 10 192 28 28 (1505280)
I0706 22:12:23.315307  1488 net.cpp:156] Memory required for data: 302059520
I0706 22:12:23.315312  1488 layer_factory.hpp:77] Creating layer inception_3b/5x5_reduce
I0706 22:12:23.315330  1488 net.cpp:91] Creating Layer inception_3b/5x5_reduce
I0706 22:12:23.315336  1488 net.cpp:425] inception_3b/5x5_reduce <- inception_3a/output_inception_3a/output_0_split_2
I0706 22:12:23.315348  1488 net.cpp:399] inception_3b/5x5_reduce -> inception_3b/5x5_reduce
I0706 22:12:23.316793  1492 net.cpp:141] Setting up inception_3b/5x5_reduce
I0706 22:12:23.316812  1492 net.cpp:148] Top shape: 10 32 28 28 (250880)
I0706 22:12:23.316817  1492 net.cpp:156] Memory required for data: 303063040
I0706 22:12:23.316828  1492 layer_factory.hpp:77] Creating layer inception_3b/relu_5x5_reduce
I0706 22:12:23.316836  1492 net.cpp:91] Creating Layer inception_3b/relu_5x5_reduce
I0706 22:12:23.316843  1492 net.cpp:425] inception_3b/relu_5x5_reduce <- inception_3b/5x5_reduce
I0706 22:12:23.316849  1492 net.cpp:386] inception_3b/relu_5x5_reduce -> inception_3b/5x5_reduce (in-place)
I0706 22:12:23.317960  1492 net.cpp:141] Setting up inception_3b/relu_5x5_reduce
I0706 22:12:23.317975  1492 net.cpp:148] Top shape: 10 32 28 28 (250880)
I0706 22:12:23.317980  1492 net.cpp:156] Memory required for data: 304066560
I0706 22:12:23.317984  1492 layer_factory.hpp:77] Creating layer inception_3b/5x5
I0706 22:12:23.318001  1492 net.cpp:91] Creating Layer inception_3b/5x5
I0706 22:12:23.318008  1492 net.cpp:425] inception_3b/5x5 <- inception_3b/5x5_reduce
I0706 22:12:23.318019  1492 net.cpp:399] inception_3b/5x5 -> inception_3b/5x5
I0706 22:12:23.320118  1488 net.cpp:141] Setting up inception_3b/5x5_reduce
I0706 22:12:23.320137  1488 net.cpp:148] Top shape: 10 32 28 28 (250880)
I0706 22:12:23.320142  1488 net.cpp:156] Memory required for data: 303063040
I0706 22:12:23.320152  1488 layer_factory.hpp:77] Creating layer inception_3b/relu_5x5_reduce
I0706 22:12:23.320161  1488 net.cpp:91] Creating Layer inception_3b/relu_5x5_reduce
I0706 22:12:23.320168  1488 net.cpp:425] inception_3b/relu_5x5_reduce <- inception_3b/5x5_reduce
I0706 22:12:23.320178  1488 net.cpp:386] inception_3b/relu_5x5_reduce -> inception_3b/5x5_reduce (in-place)
I0706 22:12:23.320418  1488 net.cpp:141] Setting up inception_3b/relu_5x5_reduce
I0706 22:12:23.320430  1488 net.cpp:148] Top shape: 10 32 28 28 (250880)
I0706 22:12:23.320435  1488 net.cpp:156] Memory required for data: 304066560
I0706 22:12:23.320439  1488 layer_factory.hpp:77] Creating layer inception_3b/5x5
I0706 22:12:23.320456  1488 net.cpp:91] Creating Layer inception_3b/5x5
I0706 22:12:23.320461  1488 net.cpp:425] inception_3b/5x5 <- inception_3b/5x5_reduce
I0706 22:12:23.320473  1488 net.cpp:399] inception_3b/5x5 -> inception_3b/5x5
I0706 22:12:23.327203  1492 net.cpp:141] Setting up inception_3b/5x5
I0706 22:12:23.327247  1492 net.cpp:148] Top shape: 10 96 28 28 (752640)
I0706 22:12:23.327260  1492 net.cpp:156] Memory required for data: 307077120
I0706 22:12:23.327280  1492 layer_factory.hpp:77] Creating layer inception_3b/relu_5x5
I0706 22:12:23.327298  1492 net.cpp:91] Creating Layer inception_3b/relu_5x5
I0706 22:12:23.327311  1492 net.cpp:425] inception_3b/relu_5x5 <- inception_3b/5x5
I0706 22:12:23.327334  1492 net.cpp:386] inception_3b/relu_5x5 -> inception_3b/5x5 (in-place)
I0706 22:12:23.328627  1488 net.cpp:141] Setting up inception_3b/5x5
I0706 22:12:23.328662  1488 net.cpp:148] Top shape: 10 96 28 28 (752640)
I0706 22:12:23.328668  1488 net.cpp:156] Memory required for data: 307077120
I0706 22:12:23.328681  1488 layer_factory.hpp:77] Creating layer inception_3b/relu_5x5
I0706 22:12:23.328701  1488 net.cpp:91] Creating Layer inception_3b/relu_5x5
I0706 22:12:23.328708  1488 net.cpp:425] inception_3b/relu_5x5 <- inception_3b/5x5
I0706 22:12:23.328717  1488 net.cpp:386] inception_3b/relu_5x5 -> inception_3b/5x5 (in-place)
I0706 22:12:23.329159  1488 net.cpp:141] Setting up inception_3b/relu_5x5
I0706 22:12:23.329172  1488 net.cpp:148] Top shape: 10 96 28 28 (752640)
I0706 22:12:23.329177  1488 net.cpp:156] Memory required for data: 310087680
I0706 22:12:23.329182  1488 layer_factory.hpp:77] Creating layer inception_3b/pool
I0706 22:12:23.329200  1488 net.cpp:91] Creating Layer inception_3b/pool
I0706 22:12:23.329206  1488 net.cpp:425] inception_3b/pool <- inception_3a/output_inception_3a/output_0_split_3
I0706 22:12:23.329216  1488 net.cpp:399] inception_3b/pool -> inception_3b/pool
I0706 22:12:23.329236  1492 net.cpp:141] Setting up inception_3b/relu_5x5
I0706 22:12:23.329263  1492 net.cpp:148] Top shape: 10 96 28 28 (752640)
I0706 22:12:23.329273  1492 net.cpp:156] Memory required for data: 310087680
I0706 22:12:23.329283  1492 layer_factory.hpp:77] Creating layer inception_3b/pool
I0706 22:12:23.329291  1488 net.cpp:141] Setting up inception_3b/pool
I0706 22:12:23.329303  1488 net.cpp:148] Top shape: 10 256 28 28 (2007040)
I0706 22:12:23.329300  1492 net.cpp:91] Creating Layer inception_3b/pool
I0706 22:12:23.329308  1488 net.cpp:156] Memory required for data: 318115840
I0706 22:12:23.329314  1488 layer_factory.hpp:77] Creating layer inception_3b/pool_proj
I0706 22:12:23.329314  1492 net.cpp:425] inception_3b/pool <- inception_3a/output_inception_3a/output_0_split_3
I0706 22:12:23.329331  1488 net.cpp:91] Creating Layer inception_3b/pool_proj
I0706 22:12:23.329339  1488 net.cpp:425] inception_3b/pool_proj <- inception_3b/pool
I0706 22:12:23.329337  1492 net.cpp:399] inception_3b/pool -> inception_3b/pool
I0706 22:12:23.329352  1488 net.cpp:399] inception_3b/pool_proj -> inception_3b/pool_proj
I0706 22:12:23.329732  1492 net.cpp:141] Setting up inception_3b/pool
I0706 22:12:23.329756  1492 net.cpp:148] Top shape: 10 256 28 28 (2007040)
I0706 22:12:23.329764  1492 net.cpp:156] Memory required for data: 318115840
I0706 22:12:23.329774  1492 layer_factory.hpp:77] Creating layer inception_3b/pool_proj
I0706 22:12:23.329802  1492 net.cpp:91] Creating Layer inception_3b/pool_proj
I0706 22:12:23.329813  1492 net.cpp:425] inception_3b/pool_proj <- inception_3b/pool
I0706 22:12:23.329830  1492 net.cpp:399] inception_3b/pool_proj -> inception_3b/pool_proj
I0706 22:12:23.332505  1488 net.cpp:141] Setting up inception_3b/pool_proj
I0706 22:12:23.332523  1488 net.cpp:148] Top shape: 10 64 28 28 (501760)
I0706 22:12:23.332530  1488 net.cpp:156] Memory required for data: 320122880
I0706 22:12:23.332538  1488 layer_factory.hpp:77] Creating layer inception_3b/relu_pool_proj
I0706 22:12:23.332547  1488 net.cpp:91] Creating Layer inception_3b/relu_pool_proj
I0706 22:12:23.332553  1488 net.cpp:425] inception_3b/relu_pool_proj <- inception_3b/pool_proj
I0706 22:12:23.332564  1488 net.cpp:386] inception_3b/relu_pool_proj -> inception_3b/pool_proj (in-place)
I0706 22:12:23.333855  1488 net.cpp:141] Setting up inception_3b/relu_pool_proj
I0706 22:12:23.333873  1488 net.cpp:148] Top shape: 10 64 28 28 (501760)
I0706 22:12:23.333878  1488 net.cpp:156] Memory required for data: 322129920
I0706 22:12:23.333883  1488 layer_factory.hpp:77] Creating layer inception_3b/output
I0706 22:12:23.333892  1488 net.cpp:91] Creating Layer inception_3b/output
I0706 22:12:23.333897  1488 net.cpp:425] inception_3b/output <- inception_3b/1x1
I0706 22:12:23.333904  1488 net.cpp:425] inception_3b/output <- inception_3b/3x3
I0706 22:12:23.333909  1488 net.cpp:425] inception_3b/output <- inception_3b/5x5
I0706 22:12:23.333915  1488 net.cpp:425] inception_3b/output <- inception_3b/pool_proj
I0706 22:12:23.333921  1488 net.cpp:399] inception_3b/output -> inception_3b/output
I0706 22:12:23.334234  1488 net.cpp:141] Setting up inception_3b/output
I0706 22:12:23.334249  1488 net.cpp:148] Top shape: 10 480 28 28 (3763200)
I0706 22:12:23.334254  1488 net.cpp:156] Memory required for data: 337182720
I0706 22:12:23.334259  1488 layer_factory.hpp:77] Creating layer pool3/3x3_s2
I0706 22:12:23.334270  1488 net.cpp:91] Creating Layer pool3/3x3_s2
I0706 22:12:23.334276  1488 net.cpp:425] pool3/3x3_s2 <- inception_3b/output
I0706 22:12:23.334283  1488 net.cpp:399] pool3/3x3_s2 -> pool3/3x3_s2
I0706 22:12:23.334453  1488 net.cpp:141] Setting up pool3/3x3_s2
I0706 22:12:23.334465  1488 net.cpp:148] Top shape: 10 480 14 14 (940800)
I0706 22:12:23.334470  1488 net.cpp:156] Memory required for data: 340945920
I0706 22:12:23.334475  1488 layer_factory.hpp:77] Creating layer pool3/3x3_s2_pool3/3x3_s2_0_split
I0706 22:12:23.334484  1488 net.cpp:91] Creating Layer pool3/3x3_s2_pool3/3x3_s2_0_split
I0706 22:12:23.334489  1488 net.cpp:425] pool3/3x3_s2_pool3/3x3_s2_0_split <- pool3/3x3_s2
I0706 22:12:23.334509  1488 net.cpp:399] pool3/3x3_s2_pool3/3x3_s2_0_split -> pool3/3x3_s2_pool3/3x3_s2_0_split_0
I0706 22:12:23.334519  1488 net.cpp:399] pool3/3x3_s2_pool3/3x3_s2_0_split -> pool3/3x3_s2_pool3/3x3_s2_0_split_1
I0706 22:12:23.334527  1488 net.cpp:399] pool3/3x3_s2_pool3/3x3_s2_0_split -> pool3/3x3_s2_pool3/3x3_s2_0_split_2
I0706 22:12:23.334535  1488 net.cpp:399] pool3/3x3_s2_pool3/3x3_s2_0_split -> pool3/3x3_s2_pool3/3x3_s2_0_split_3
I0706 22:12:23.334664  1488 net.cpp:141] Setting up pool3/3x3_s2_pool3/3x3_s2_0_split
I0706 22:12:23.334676  1488 net.cpp:148] Top shape: 10 480 14 14 (940800)
I0706 22:12:23.334681  1488 net.cpp:148] Top shape: 10 480 14 14 (940800)
I0706 22:12:23.334697  1488 net.cpp:148] Top shape: 10 480 14 14 (940800)
I0706 22:12:23.334709  1488 net.cpp:148] Top shape: 10 480 14 14 (940800)
I0706 22:12:23.334717  1488 net.cpp:156] Memory required for data: 355998720
I0706 22:12:23.334733  1488 layer_factory.hpp:77] Creating layer inception_4a/1x1
I0706 22:12:23.334755  1488 net.cpp:91] Creating Layer inception_4a/1x1
I0706 22:12:23.334763  1488 net.cpp:425] inception_4a/1x1 <- pool3/3x3_s2_pool3/3x3_s2_0_split_0
I0706 22:12:23.334771  1488 net.cpp:399] inception_4a/1x1 -> inception_4a/1x1
I0706 22:12:23.338134  1492 net.cpp:141] Setting up inception_3b/pool_proj
I0706 22:12:23.338172  1492 net.cpp:148] Top shape: 10 64 28 28 (501760)
I0706 22:12:23.338182  1492 net.cpp:156] Memory required for data: 320122880
I0706 22:12:23.338203  1492 layer_factory.hpp:77] Creating layer inception_3b/relu_pool_proj
I0706 22:12:23.338219  1492 net.cpp:91] Creating Layer inception_3b/relu_pool_proj
I0706 22:12:23.338229  1492 net.cpp:425] inception_3b/relu_pool_proj <- inception_3b/pool_proj
I0706 22:12:23.338243  1492 net.cpp:386] inception_3b/relu_pool_proj -> inception_3b/pool_proj (in-place)
I0706 22:12:23.339915  1492 net.cpp:141] Setting up inception_3b/relu_pool_proj
I0706 22:12:23.339941  1492 net.cpp:148] Top shape: 10 64 28 28 (501760)
I0706 22:12:23.339949  1492 net.cpp:156] Memory required for data: 322129920
I0706 22:12:23.339958  1492 layer_factory.hpp:77] Creating layer inception_3b/output
I0706 22:12:23.339973  1492 net.cpp:91] Creating Layer inception_3b/output
I0706 22:12:23.339983  1492 net.cpp:425] inception_3b/output <- inception_3b/1x1
I0706 22:12:23.339994  1492 net.cpp:425] inception_3b/output <- inception_3b/3x3
I0706 22:12:23.340005  1492 net.cpp:425] inception_3b/output <- inception_3b/5x5
I0706 22:12:23.340014  1492 net.cpp:425] inception_3b/output <- inception_3b/pool_proj
I0706 22:12:23.340030  1492 net.cpp:399] inception_3b/output -> inception_3b/output
I0706 22:12:23.341042  1492 net.cpp:141] Setting up inception_3b/output
I0706 22:12:23.341066  1492 net.cpp:148] Top shape: 10 480 28 28 (3763200)
I0706 22:12:23.341074  1492 net.cpp:156] Memory required for data: 337182720
I0706 22:12:23.341083  1492 layer_factory.hpp:77] Creating layer pool3/3x3_s2
I0706 22:12:23.341104  1492 net.cpp:91] Creating Layer pool3/3x3_s2
I0706 22:12:23.341115  1492 net.cpp:425] pool3/3x3_s2 <- inception_3b/output
I0706 22:12:23.341132  1492 net.cpp:399] pool3/3x3_s2 -> pool3/3x3_s2
I0706 22:12:23.341269  1492 net.cpp:141] Setting up pool3/3x3_s2
I0706 22:12:23.341292  1492 net.cpp:148] Top shape: 10 480 14 14 (940800)
I0706 22:12:23.341300  1492 net.cpp:156] Memory required for data: 340945920
I0706 22:12:23.341308  1492 layer_factory.hpp:77] Creating layer pool3/3x3_s2_pool3/3x3_s2_0_split
I0706 22:12:23.341322  1492 net.cpp:91] Creating Layer pool3/3x3_s2_pool3/3x3_s2_0_split
I0706 22:12:23.341331  1492 net.cpp:425] pool3/3x3_s2_pool3/3x3_s2_0_split <- pool3/3x3_s2
I0706 22:12:23.341342  1492 net.cpp:399] pool3/3x3_s2_pool3/3x3_s2_0_split -> pool3/3x3_s2_pool3/3x3_s2_0_split_0
I0706 22:12:23.341364  1492 net.cpp:399] pool3/3x3_s2_pool3/3x3_s2_0_split -> pool3/3x3_s2_pool3/3x3_s2_0_split_1
I0706 22:12:23.341380  1492 net.cpp:399] pool3/3x3_s2_pool3/3x3_s2_0_split -> pool3/3x3_s2_pool3/3x3_s2_0_split_2
I0706 22:12:23.341394  1492 net.cpp:399] pool3/3x3_s2_pool3/3x3_s2_0_split -> pool3/3x3_s2_pool3/3x3_s2_0_split_3
I0706 22:12:23.342268  1492 net.cpp:141] Setting up pool3/3x3_s2_pool3/3x3_s2_0_split
I0706 22:12:23.342289  1492 net.cpp:148] Top shape: 10 480 14 14 (940800)
I0706 22:12:23.342299  1492 net.cpp:148] Top shape: 10 480 14 14 (940800)
I0706 22:12:23.342309  1492 net.cpp:148] Top shape: 10 480 14 14 (940800)
I0706 22:12:23.342319  1492 net.cpp:148] Top shape: 10 480 14 14 (940800)
I0706 22:12:23.342326  1492 net.cpp:156] Memory required for data: 355998720
I0706 22:12:23.342334  1492 layer_factory.hpp:77] Creating layer inception_4a/1x1
I0706 22:12:23.342363  1492 net.cpp:91] Creating Layer inception_4a/1x1
I0706 22:12:23.342375  1492 net.cpp:425] inception_4a/1x1 <- pool3/3x3_s2_pool3/3x3_s2_0_split_0
I0706 22:12:23.342391  1492 net.cpp:399] inception_4a/1x1 -> inception_4a/1x1
I0706 22:12:23.342614  1488 net.cpp:141] Setting up inception_4a/1x1
I0706 22:12:23.342640  1488 net.cpp:148] Top shape: 10 192 14 14 (376320)
I0706 22:12:23.342645  1488 net.cpp:156] Memory required for data: 357504000
I0706 22:12:23.342656  1488 layer_factory.hpp:77] Creating layer inception_4a/relu_1x1
I0706 22:12:23.342672  1488 net.cpp:91] Creating Layer inception_4a/relu_1x1
I0706 22:12:23.342679  1488 net.cpp:425] inception_4a/relu_1x1 <- inception_4a/1x1
I0706 22:12:23.342699  1488 net.cpp:386] inception_4a/relu_1x1 -> inception_4a/1x1 (in-place)
I0706 22:12:23.345006  1488 net.cpp:141] Setting up inception_4a/relu_1x1
I0706 22:12:23.345023  1488 net.cpp:148] Top shape: 10 192 14 14 (376320)
I0706 22:12:23.345028  1488 net.cpp:156] Memory required for data: 359009280
I0706 22:12:23.345033  1488 layer_factory.hpp:77] Creating layer inception_4a/3x3_reduce
I0706 22:12:23.345052  1488 net.cpp:91] Creating Layer inception_4a/3x3_reduce
I0706 22:12:23.345059  1488 net.cpp:425] inception_4a/3x3_reduce <- pool3/3x3_s2_pool3/3x3_s2_0_split_1
I0706 22:12:23.345072  1488 net.cpp:399] inception_4a/3x3_reduce -> inception_4a/3x3_reduce
I0706 22:12:23.349308  1488 net.cpp:141] Setting up inception_4a/3x3_reduce
I0706 22:12:23.349329  1488 net.cpp:148] Top shape: 10 96 14 14 (188160)
I0706 22:12:23.349334  1488 net.cpp:156] Memory required for data: 359761920
I0706 22:12:23.349355  1488 layer_factory.hpp:77] Creating layer inception_4a/relu_3x3_reduce
I0706 22:12:23.349365  1488 net.cpp:91] Creating Layer inception_4a/relu_3x3_reduce
I0706 22:12:23.349371  1488 net.cpp:425] inception_4a/relu_3x3_reduce <- inception_4a/3x3_reduce
I0706 22:12:23.349382  1488 net.cpp:386] inception_4a/relu_3x3_reduce -> inception_4a/3x3_reduce (in-place)
I0706 22:12:23.350796  1488 net.cpp:141] Setting up inception_4a/relu_3x3_reduce
I0706 22:12:23.350811  1488 net.cpp:148] Top shape: 10 96 14 14 (188160)
I0706 22:12:23.350816  1488 net.cpp:156] Memory required for data: 360514560
I0706 22:12:23.350821  1488 layer_factory.hpp:77] Creating layer inception_4a/3x3
I0706 22:12:23.350837  1488 net.cpp:91] Creating Layer inception_4a/3x3
I0706 22:12:23.350843  1488 net.cpp:425] inception_4a/3x3 <- inception_4a/3x3_reduce
I0706 22:12:23.350857  1488 net.cpp:399] inception_4a/3x3 -> inception_4a/3x3
I0706 22:12:23.353122  1492 net.cpp:141] Setting up inception_4a/1x1
I0706 22:12:23.353155  1492 net.cpp:148] Top shape: 10 192 14 14 (376320)
I0706 22:12:23.353164  1492 net.cpp:156] Memory required for data: 357504000
I0706 22:12:23.353180  1492 layer_factory.hpp:77] Creating layer inception_4a/relu_1x1
I0706 22:12:23.353194  1492 net.cpp:91] Creating Layer inception_4a/relu_1x1
I0706 22:12:23.353204  1492 net.cpp:425] inception_4a/relu_1x1 <- inception_4a/1x1
I0706 22:12:23.353216  1492 net.cpp:386] inception_4a/relu_1x1 -> inception_4a/1x1 (in-place)
I0706 22:12:23.356412  1492 net.cpp:141] Setting up inception_4a/relu_1x1
I0706 22:12:23.356438  1492 net.cpp:148] Top shape: 10 192 14 14 (376320)
I0706 22:12:23.356447  1492 net.cpp:156] Memory required for data: 359009280
I0706 22:12:23.356456  1492 layer_factory.hpp:77] Creating layer inception_4a/3x3_reduce
I0706 22:12:23.356483  1492 net.cpp:91] Creating Layer inception_4a/3x3_reduce
I0706 22:12:23.356494  1492 net.cpp:425] inception_4a/3x3_reduce <- pool3/3x3_s2_pool3/3x3_s2_0_split_1
I0706 22:12:23.356513  1492 net.cpp:399] inception_4a/3x3_reduce -> inception_4a/3x3_reduce
I0706 22:12:23.357116  1488 net.cpp:141] Setting up inception_4a/3x3
I0706 22:12:23.357136  1488 net.cpp:148] Top shape: 10 208 14 14 (407680)
I0706 22:12:23.357141  1488 net.cpp:156] Memory required for data: 362145280
I0706 22:12:23.357152  1488 layer_factory.hpp:77] Creating layer inception_4a/relu_3x3
I0706 22:12:23.357164  1488 net.cpp:91] Creating Layer inception_4a/relu_3x3
I0706 22:12:23.357170  1488 net.cpp:425] inception_4a/relu_3x3 <- inception_4a/3x3
I0706 22:12:23.357178  1488 net.cpp:386] inception_4a/relu_3x3 -> inception_4a/3x3 (in-place)
I0706 22:12:23.357426  1488 net.cpp:141] Setting up inception_4a/relu_3x3
I0706 22:12:23.357437  1488 net.cpp:148] Top shape: 10 208 14 14 (407680)
I0706 22:12:23.357442  1488 net.cpp:156] Memory required for data: 363776000
I0706 22:12:23.357447  1488 layer_factory.hpp:77] Creating layer inception_4a/5x5_reduce
I0706 22:12:23.357465  1488 net.cpp:91] Creating Layer inception_4a/5x5_reduce
I0706 22:12:23.357472  1488 net.cpp:425] inception_4a/5x5_reduce <- pool3/3x3_s2_pool3/3x3_s2_0_split_2
I0706 22:12:23.357481  1488 net.cpp:399] inception_4a/5x5_reduce -> inception_4a/5x5_reduce
I0706 22:12:23.361584  1488 net.cpp:141] Setting up inception_4a/5x5_reduce
I0706 22:12:23.361606  1488 net.cpp:148] Top shape: 10 16 14 14 (31360)
I0706 22:12:23.361611  1488 net.cpp:156] Memory required for data: 363901440
I0706 22:12:23.361621  1488 layer_factory.hpp:77] Creating layer inception_4a/relu_5x5_reduce
I0706 22:12:23.361635  1488 net.cpp:91] Creating Layer inception_4a/relu_5x5_reduce
I0706 22:12:23.361641  1488 net.cpp:425] inception_4a/relu_5x5_reduce <- inception_4a/5x5_reduce
I0706 22:12:23.361649  1488 net.cpp:386] inception_4a/relu_5x5_reduce -> inception_4a/5x5_reduce (in-place)
I0706 22:12:23.362983  1488 net.cpp:141] Setting up inception_4a/relu_5x5_reduce
I0706 22:12:23.363000  1488 net.cpp:148] Top shape: 10 16 14 14 (31360)
I0706 22:12:23.363005  1488 net.cpp:156] Memory required for data: 364026880
I0706 22:12:23.363010  1488 layer_factory.hpp:77] Creating layer inception_4a/5x5
I0706 22:12:23.363029  1488 net.cpp:91] Creating Layer inception_4a/5x5
I0706 22:12:23.363035  1488 net.cpp:425] inception_4a/5x5 <- inception_4a/5x5_reduce
I0706 22:12:23.363047  1488 net.cpp:399] inception_4a/5x5 -> inception_4a/5x5
I0706 22:12:23.366102  1492 net.cpp:141] Setting up inception_4a/3x3_reduce
I0706 22:12:23.366137  1492 net.cpp:148] Top shape: 10 96 14 14 (188160)
I0706 22:12:23.366147  1492 net.cpp:156] Memory required for data: 359761920
I0706 22:12:23.366181  1492 layer_factory.hpp:77] Creating layer inception_4a/relu_3x3_reduce
I0706 22:12:23.366197  1492 net.cpp:91] Creating Layer inception_4a/relu_3x3_reduce
I0706 22:12:23.366206  1492 net.cpp:425] inception_4a/relu_3x3_reduce <- inception_4a/3x3_reduce
I0706 22:12:23.366219  1492 net.cpp:386] inception_4a/relu_3x3_reduce -> inception_4a/3x3_reduce (in-place)
I0706 22:12:23.368578  1492 net.cpp:141] Setting up inception_4a/relu_3x3_reduce
I0706 22:12:23.368612  1492 net.cpp:148] Top shape: 10 96 14 14 (188160)
I0706 22:12:23.368619  1492 net.cpp:156] Memory required for data: 360514560
I0706 22:12:23.368629  1492 layer_factory.hpp:77] Creating layer inception_4a/3x3
I0706 22:12:23.368654  1492 net.cpp:91] Creating Layer inception_4a/3x3
I0706 22:12:23.368662  1492 net.cpp:425] inception_4a/3x3 <- inception_4a/3x3_reduce
I0706 22:12:23.368676  1492 net.cpp:399] inception_4a/3x3 -> inception_4a/3x3
I0706 22:12:23.368764  1488 net.cpp:141] Setting up inception_4a/5x5
I0706 22:12:23.368789  1488 net.cpp:148] Top shape: 10 48 14 14 (94080)
I0706 22:12:23.368795  1488 net.cpp:156] Memory required for data: 364403200
I0706 22:12:23.368806  1488 layer_factory.hpp:77] Creating layer inception_4a/relu_5x5
I0706 22:12:23.368818  1488 net.cpp:91] Creating Layer inception_4a/relu_5x5
I0706 22:12:23.368827  1488 net.cpp:425] inception_4a/relu_5x5 <- inception_4a/5x5
I0706 22:12:23.368835  1488 net.cpp:386] inception_4a/relu_5x5 -> inception_4a/5x5 (in-place)
I0706 22:12:23.371031  1488 net.cpp:141] Setting up inception_4a/relu_5x5
I0706 22:12:23.371048  1488 net.cpp:148] Top shape: 10 48 14 14 (94080)
I0706 22:12:23.371053  1488 net.cpp:156] Memory required for data: 364779520
I0706 22:12:23.371058  1488 layer_factory.hpp:77] Creating layer inception_4a/pool
I0706 22:12:23.371073  1488 net.cpp:91] Creating Layer inception_4a/pool
I0706 22:12:23.371079  1488 net.cpp:425] inception_4a/pool <- pool3/3x3_s2_pool3/3x3_s2_0_split_3
I0706 22:12:23.371088  1488 net.cpp:399] inception_4a/pool -> inception_4a/pool
I0706 22:12:23.371170  1488 net.cpp:141] Setting up inception_4a/pool
I0706 22:12:23.371179  1488 net.cpp:148] Top shape: 10 480 14 14 (940800)
I0706 22:12:23.371183  1488 net.cpp:156] Memory required for data: 368542720
I0706 22:12:23.371188  1488 layer_factory.hpp:77] Creating layer inception_4a/pool_proj
I0706 22:12:23.371204  1488 net.cpp:91] Creating Layer inception_4a/pool_proj
I0706 22:12:23.371211  1488 net.cpp:425] inception_4a/pool_proj <- inception_4a/pool
I0706 22:12:23.371222  1488 net.cpp:399] inception_4a/pool_proj -> inception_4a/pool_proj
I0706 22:12:23.375022  1488 net.cpp:141] Setting up inception_4a/pool_proj
I0706 22:12:23.375039  1488 net.cpp:148] Top shape: 10 64 14 14 (125440)
I0706 22:12:23.375044  1488 net.cpp:156] Memory required for data: 369044480
I0706 22:12:23.375053  1488 layer_factory.hpp:77] Creating layer inception_4a/relu_pool_proj
I0706 22:12:23.375063  1488 net.cpp:91] Creating Layer inception_4a/relu_pool_proj
I0706 22:12:23.375069  1488 net.cpp:425] inception_4a/relu_pool_proj <- inception_4a/pool_proj
I0706 22:12:23.375080  1488 net.cpp:386] inception_4a/relu_pool_proj -> inception_4a/pool_proj (in-place)
I0706 22:12:23.375458  1488 net.cpp:141] Setting up inception_4a/relu_pool_proj
I0706 22:12:23.375475  1488 net.cpp:148] Top shape: 10 64 14 14 (125440)
I0706 22:12:23.375479  1488 net.cpp:156] Memory required for data: 369546240
I0706 22:12:23.375485  1488 layer_factory.hpp:77] Creating layer inception_4a/output
I0706 22:12:23.375494  1488 net.cpp:91] Creating Layer inception_4a/output
I0706 22:12:23.375499  1488 net.cpp:425] inception_4a/output <- inception_4a/1x1
I0706 22:12:23.375505  1488 net.cpp:425] inception_4a/output <- inception_4a/3x3
I0706 22:12:23.375511  1488 net.cpp:425] inception_4a/output <- inception_4a/5x5
I0706 22:12:23.375516  1488 net.cpp:425] inception_4a/output <- inception_4a/pool_proj
I0706 22:12:23.375522  1488 net.cpp:399] inception_4a/output -> inception_4a/output
I0706 22:12:23.376543  1488 net.cpp:141] Setting up inception_4a/output
I0706 22:12:23.376555  1488 net.cpp:148] Top shape: 10 512 14 14 (1003520)
I0706 22:12:23.376559  1488 net.cpp:156] Memory required for data: 373560320
I0706 22:12:23.376564  1488 layer_factory.hpp:77] Creating layer inception_4a/output_inception_4a/output_0_split
I0706 22:12:23.376576  1488 net.cpp:91] Creating Layer inception_4a/output_inception_4a/output_0_split
I0706 22:12:23.376582  1488 net.cpp:425] inception_4a/output_inception_4a/output_0_split <- inception_4a/output
I0706 22:12:23.376588  1488 net.cpp:399] inception_4a/output_inception_4a/output_0_split -> inception_4a/output_inception_4a/output_0_split_0
I0706 22:12:23.376597  1488 net.cpp:399] inception_4a/output_inception_4a/output_0_split -> inception_4a/output_inception_4a/output_0_split_1
I0706 22:12:23.376605  1488 net.cpp:399] inception_4a/output_inception_4a/output_0_split -> inception_4a/output_inception_4a/output_0_split_2
I0706 22:12:23.376613  1488 net.cpp:399] inception_4a/output_inception_4a/output_0_split -> inception_4a/output_inception_4a/output_0_split_3
I0706 22:12:23.376731  1488 net.cpp:141] Setting up inception_4a/output_inception_4a/output_0_split
I0706 22:12:23.376741  1488 net.cpp:148] Top shape: 10 512 14 14 (1003520)
I0706 22:12:23.376747  1488 net.cpp:148] Top shape: 10 512 14 14 (1003520)
I0706 22:12:23.376752  1488 net.cpp:148] Top shape: 10 512 14 14 (1003520)
I0706 22:12:23.376759  1488 net.cpp:148] Top shape: 10 512 14 14 (1003520)
I0706 22:12:23.376761  1488 net.cpp:156] Memory required for data: 389616640
I0706 22:12:23.376766  1488 layer_factory.hpp:77] Creating layer inception_4b/1x1
I0706 22:12:23.376781  1488 net.cpp:91] Creating Layer inception_4b/1x1
I0706 22:12:23.376787  1488 net.cpp:425] inception_4b/1x1 <- inception_4a/output_inception_4a/output_0_split_0
I0706 22:12:23.376797  1488 net.cpp:399] inception_4b/1x1 -> inception_4b/1x1
I0706 22:12:23.380851  1492 net.cpp:141] Setting up inception_4a/3x3
I0706 22:12:23.380883  1492 net.cpp:148] Top shape: 10 208 14 14 (407680)
I0706 22:12:23.380892  1492 net.cpp:156] Memory required for data: 362145280
I0706 22:12:23.380908  1492 layer_factory.hpp:77] Creating layer inception_4a/relu_3x3
I0706 22:12:23.380923  1492 net.cpp:91] Creating Layer inception_4a/relu_3x3
I0706 22:12:23.380931  1492 net.cpp:425] inception_4a/relu_3x3 <- inception_4a/3x3
I0706 22:12:23.380946  1492 net.cpp:386] inception_4a/relu_3x3 -> inception_4a/3x3 (in-place)
I0706 22:12:23.382091  1488 net.cpp:141] Setting up inception_4b/1x1
I0706 22:12:23.382112  1488 net.cpp:148] Top shape: 10 160 14 14 (313600)
I0706 22:12:23.382117  1488 net.cpp:156] Memory required for data: 390871040
I0706 22:12:23.382129  1488 layer_factory.hpp:77] Creating layer inception_4b/relu_1x1
I0706 22:12:23.382140  1488 net.cpp:91] Creating Layer inception_4b/relu_1x1
I0706 22:12:23.382148  1488 net.cpp:425] inception_4b/relu_1x1 <- inception_4b/1x1
I0706 22:12:23.382156  1488 net.cpp:386] inception_4b/relu_1x1 -> inception_4b/1x1 (in-place)
I0706 22:12:23.382581  1488 net.cpp:141] Setting up inception_4b/relu_1x1
I0706 22:12:23.382596  1488 net.cpp:148] Top shape: 10 160 14 14 (313600)
I0706 22:12:23.382601  1488 net.cpp:156] Memory required for data: 392125440
I0706 22:12:23.382597  1492 net.cpp:141] Setting up inception_4a/relu_3x3
I0706 22:12:23.382606  1488 layer_factory.hpp:77] Creating layer inception_4b/3x3_reduce
I0706 22:12:23.382622  1492 net.cpp:148] Top shape: 10 208 14 14 (407680)
I0706 22:12:23.382630  1492 net.cpp:156] Memory required for data: 363776000
I0706 22:12:23.382634  1488 net.cpp:91] Creating Layer inception_4b/3x3_reduce
I0706 22:12:23.382638  1492 layer_factory.hpp:77] Creating layer inception_4a/5x5_reduce
I0706 22:12:23.382642  1488 net.cpp:425] inception_4b/3x3_reduce <- inception_4a/output_inception_4a/output_0_split_1
I0706 22:12:23.382655  1488 net.cpp:399] inception_4b/3x3_reduce -> inception_4b/3x3_reduce
I0706 22:12:23.382663  1492 net.cpp:91] Creating Layer inception_4a/5x5_reduce
I0706 22:12:23.382673  1492 net.cpp:425] inception_4a/5x5_reduce <- pool3/3x3_s2_pool3/3x3_s2_0_split_2
I0706 22:12:23.382707  1492 net.cpp:399] inception_4a/5x5_reduce -> inception_4a/5x5_reduce
I0706 22:12:23.387439  1488 net.cpp:141] Setting up inception_4b/3x3_reduce
I0706 22:12:23.387464  1488 net.cpp:148] Top shape: 10 112 14 14 (219520)
I0706 22:12:23.387470  1488 net.cpp:156] Memory required for data: 393003520
I0706 22:12:23.387480  1488 layer_factory.hpp:77] Creating layer inception_4b/relu_3x3_reduce
I0706 22:12:23.387495  1488 net.cpp:91] Creating Layer inception_4b/relu_3x3_reduce
I0706 22:12:23.387501  1488 net.cpp:425] inception_4b/relu_3x3_reduce <- inception_4b/3x3_reduce
I0706 22:12:23.387508  1488 net.cpp:386] inception_4b/relu_3x3_reduce -> inception_4b/3x3_reduce (in-place)
I0706 22:12:23.388393  1488 net.cpp:141] Setting up inception_4b/relu_3x3_reduce
I0706 22:12:23.388408  1488 net.cpp:148] Top shape: 10 112 14 14 (219520)
I0706 22:12:23.388413  1488 net.cpp:156] Memory required for data: 393881600
I0706 22:12:23.388418  1488 layer_factory.hpp:77] Creating layer inception_4b/3x3
I0706 22:12:23.388438  1488 net.cpp:91] Creating Layer inception_4b/3x3
I0706 22:12:23.388444  1488 net.cpp:425] inception_4b/3x3 <- inception_4b/3x3_reduce
I0706 22:12:23.388453  1488 net.cpp:399] inception_4b/3x3 -> inception_4b/3x3
I0706 22:12:23.390445  1492 net.cpp:141] Setting up inception_4a/5x5_reduce
I0706 22:12:23.390473  1492 net.cpp:148] Top shape: 10 16 14 14 (31360)
I0706 22:12:23.390480  1492 net.cpp:156] Memory required for data: 363901440
I0706 22:12:23.390494  1492 layer_factory.hpp:77] Creating layer inception_4a/relu_5x5_reduce
I0706 22:12:23.390506  1492 net.cpp:91] Creating Layer inception_4a/relu_5x5_reduce
I0706 22:12:23.390519  1492 net.cpp:425] inception_4a/relu_5x5_reduce <- inception_4a/5x5_reduce
I0706 22:12:23.390529  1492 net.cpp:386] inception_4a/relu_5x5_reduce -> inception_4a/5x5_reduce (in-place)
I0706 22:12:23.391542  1492 net.cpp:141] Setting up inception_4a/relu_5x5_reduce
I0706 22:12:23.391566  1492 net.cpp:148] Top shape: 10 16 14 14 (31360)
I0706 22:12:23.391573  1492 net.cpp:156] Memory required for data: 364026880
I0706 22:12:23.391582  1492 layer_factory.hpp:77] Creating layer inception_4a/5x5
I0706 22:12:23.391615  1492 net.cpp:91] Creating Layer inception_4a/5x5
I0706 22:12:23.391623  1492 net.cpp:425] inception_4a/5x5 <- inception_4a/5x5_reduce
I0706 22:12:23.391638  1492 net.cpp:399] inception_4a/5x5 -> inception_4a/5x5
I0706 22:12:23.395066  1488 net.cpp:141] Setting up inception_4b/3x3
I0706 22:12:23.395087  1488 net.cpp:148] Top shape: 10 224 14 14 (439040)
I0706 22:12:23.395093  1488 net.cpp:156] Memory required for data: 395637760
I0706 22:12:23.395103  1488 layer_factory.hpp:77] Creating layer inception_4b/relu_3x3
I0706 22:12:23.395113  1488 net.cpp:91] Creating Layer inception_4b/relu_3x3
I0706 22:12:23.395119  1488 net.cpp:425] inception_4b/relu_3x3 <- inception_4b/3x3
I0706 22:12:23.395130  1488 net.cpp:386] inception_4b/relu_3x3 -> inception_4b/3x3 (in-place)
I0706 22:12:23.396507  1488 net.cpp:141] Setting up inception_4b/relu_3x3
I0706 22:12:23.396520  1488 net.cpp:148] Top shape: 10 224 14 14 (439040)
I0706 22:12:23.396524  1488 net.cpp:156] Memory required for data: 397393920
I0706 22:12:23.396530  1488 layer_factory.hpp:77] Creating layer inception_4b/5x5_reduce
I0706 22:12:23.396559  1488 net.cpp:91] Creating Layer inception_4b/5x5_reduce
I0706 22:12:23.396566  1488 net.cpp:425] inception_4b/5x5_reduce <- inception_4a/output_inception_4a/output_0_split_2
I0706 22:12:23.396575  1488 net.cpp:399] inception_4b/5x5_reduce -> inception_4b/5x5_reduce
I0706 22:12:23.399024  1492 net.cpp:141] Setting up inception_4a/5x5
I0706 22:12:23.399050  1492 net.cpp:148] Top shape: 10 48 14 14 (94080)
I0706 22:12:23.399058  1492 net.cpp:156] Memory required for data: 364403200
I0706 22:12:23.399071  1492 layer_factory.hpp:77] Creating layer inception_4a/relu_5x5
I0706 22:12:23.399096  1492 net.cpp:91] Creating Layer inception_4a/relu_5x5
I0706 22:12:23.399106  1492 net.cpp:425] inception_4a/relu_5x5 <- inception_4a/5x5
I0706 22:12:23.399114  1492 net.cpp:386] inception_4a/relu_5x5 -> inception_4a/5x5 (in-place)
I0706 22:12:23.400799  1488 net.cpp:141] Setting up inception_4b/5x5_reduce
I0706 22:12:23.400818  1488 net.cpp:148] Top shape: 10 24 14 14 (47040)
I0706 22:12:23.400823  1488 net.cpp:156] Memory required for data: 397582080
I0706 22:12:23.400833  1488 layer_factory.hpp:77] Creating layer inception_4b/relu_5x5_reduce
I0706 22:12:23.400842  1488 net.cpp:91] Creating Layer inception_4b/relu_5x5_reduce
I0706 22:12:23.400851  1488 net.cpp:425] inception_4b/relu_5x5_reduce <- inception_4b/5x5_reduce
I0706 22:12:23.400847  1492 net.cpp:141] Setting up inception_4a/relu_5x5
I0706 22:12:23.400859  1488 net.cpp:386] inception_4b/relu_5x5_reduce -> inception_4b/5x5_reduce (in-place)
I0706 22:12:23.400866  1492 net.cpp:148] Top shape: 10 48 14 14 (94080)
I0706 22:12:23.400874  1492 net.cpp:156] Memory required for data: 364779520
I0706 22:12:23.400882  1492 layer_factory.hpp:77] Creating layer inception_4a/pool
I0706 22:12:23.400898  1492 net.cpp:91] Creating Layer inception_4a/pool
I0706 22:12:23.400907  1492 net.cpp:425] inception_4a/pool <- pool3/3x3_s2_pool3/3x3_s2_0_split_3
I0706 22:12:23.400918  1492 net.cpp:399] inception_4a/pool -> inception_4a/pool
I0706 22:12:23.401656  1492 net.cpp:141] Setting up inception_4a/pool
I0706 22:12:23.401679  1492 net.cpp:148] Top shape: 10 480 14 14 (940800)
I0706 22:12:23.401685  1492 net.cpp:156] Memory required for data: 368542720
I0706 22:12:23.401692  1492 layer_factory.hpp:77] Creating layer inception_4a/pool_proj
I0706 22:12:23.401715  1492 net.cpp:91] Creating Layer inception_4a/pool_proj
I0706 22:12:23.401736  1492 net.cpp:425] inception_4a/pool_proj <- inception_4a/pool
I0706 22:12:23.401751  1492 net.cpp:399] inception_4a/pool_proj -> inception_4a/pool_proj
I0706 22:12:23.401947  1488 net.cpp:141] Setting up inception_4b/relu_5x5_reduce
I0706 22:12:23.401960  1488 net.cpp:148] Top shape: 10 24 14 14 (47040)
I0706 22:12:23.401965  1488 net.cpp:156] Memory required for data: 397770240
I0706 22:12:23.401970  1488 layer_factory.hpp:77] Creating layer inception_4b/5x5
I0706 22:12:23.401988  1488 net.cpp:91] Creating Layer inception_4b/5x5
I0706 22:12:23.401993  1488 net.cpp:425] inception_4b/5x5 <- inception_4b/5x5_reduce
I0706 22:12:23.402004  1488 net.cpp:399] inception_4b/5x5 -> inception_4b/5x5
I0706 22:12:23.406014  1488 net.cpp:141] Setting up inception_4b/5x5
I0706 22:12:23.406033  1488 net.cpp:148] Top shape: 10 64 14 14 (125440)
I0706 22:12:23.406038  1488 net.cpp:156] Memory required for data: 398272000
I0706 22:12:23.406046  1488 layer_factory.hpp:77] Creating layer inception_4b/relu_5x5
I0706 22:12:23.406055  1488 net.cpp:91] Creating Layer inception_4b/relu_5x5
I0706 22:12:23.406064  1488 net.cpp:425] inception_4b/relu_5x5 <- inception_4b/5x5
I0706 22:12:23.406071  1488 net.cpp:386] inception_4b/relu_5x5 -> inception_4b/5x5 (in-place)
I0706 22:12:23.407480  1488 net.cpp:141] Setting up inception_4b/relu_5x5
I0706 22:12:23.407493  1488 net.cpp:148] Top shape: 10 64 14 14 (125440)
I0706 22:12:23.407497  1488 net.cpp:156] Memory required for data: 398773760
I0706 22:12:23.407502  1488 layer_factory.hpp:77] Creating layer inception_4b/pool
I0706 22:12:23.407516  1488 net.cpp:91] Creating Layer inception_4b/pool
I0706 22:12:23.407522  1488 net.cpp:425] inception_4b/pool <- inception_4a/output_inception_4a/output_0_split_3
I0706 22:12:23.407531  1488 net.cpp:399] inception_4b/pool -> inception_4b/pool
I0706 22:12:23.407625  1488 net.cpp:141] Setting up inception_4b/pool
I0706 22:12:23.407635  1488 net.cpp:148] Top shape: 10 512 14 14 (1003520)
I0706 22:12:23.407639  1488 net.cpp:156] Memory required for data: 402787840
I0706 22:12:23.407644  1488 layer_factory.hpp:77] Creating layer inception_4b/pool_proj
I0706 22:12:23.407658  1488 net.cpp:91] Creating Layer inception_4b/pool_proj
I0706 22:12:23.407663  1488 net.cpp:425] inception_4b/pool_proj <- inception_4b/pool
I0706 22:12:23.407675  1488 net.cpp:399] inception_4b/pool_proj -> inception_4b/pool_proj
I0706 22:12:23.408941  1492 net.cpp:141] Setting up inception_4a/pool_proj
I0706 22:12:23.408963  1492 net.cpp:148] Top shape: 10 64 14 14 (125440)
I0706 22:12:23.408970  1492 net.cpp:156] Memory required for data: 369044480
I0706 22:12:23.408982  1492 layer_factory.hpp:77] Creating layer inception_4a/relu_pool_proj
I0706 22:12:23.408995  1492 net.cpp:91] Creating Layer inception_4a/relu_pool_proj
I0706 22:12:23.409003  1492 net.cpp:425] inception_4a/relu_pool_proj <- inception_4a/pool_proj
I0706 22:12:23.409011  1492 net.cpp:386] inception_4a/relu_pool_proj -> inception_4a/pool_proj (in-place)
I0706 22:12:23.411697  1492 net.cpp:141] Setting up inception_4a/relu_pool_proj
I0706 22:12:23.411716  1492 net.cpp:148] Top shape: 10 64 14 14 (125440)
I0706 22:12:23.411722  1492 net.cpp:156] Memory required for data: 369546240
I0706 22:12:23.411728  1492 layer_factory.hpp:77] Creating layer inception_4a/output
I0706 22:12:23.411738  1492 net.cpp:91] Creating Layer inception_4a/output
I0706 22:12:23.411744  1492 net.cpp:425] inception_4a/output <- inception_4a/1x1
I0706 22:12:23.411752  1492 net.cpp:425] inception_4a/output <- inception_4a/3x3
I0706 22:12:23.411759  1492 net.cpp:425] inception_4a/output <- inception_4a/5x5
I0706 22:12:23.411766  1492 net.cpp:425] inception_4a/output <- inception_4a/pool_proj
I0706 22:12:23.411777  1492 net.cpp:399] inception_4a/output -> inception_4a/output
I0706 22:12:23.411880  1492 net.cpp:141] Setting up inception_4a/output
I0706 22:12:23.411895  1492 net.cpp:148] Top shape: 10 512 14 14 (1003520)
I0706 22:12:23.411900  1492 net.cpp:156] Memory required for data: 373560320
I0706 22:12:23.411906  1492 layer_factory.hpp:77] Creating layer inception_4a/output_inception_4a/output_0_split
I0706 22:12:23.411922  1492 net.cpp:91] Creating Layer inception_4a/output_inception_4a/output_0_split
I0706 22:12:23.411929  1492 net.cpp:425] inception_4a/output_inception_4a/output_0_split <- inception_4a/output
I0706 22:12:23.411938  1492 net.cpp:399] inception_4a/output_inception_4a/output_0_split -> inception_4a/output_inception_4a/output_0_split_0
I0706 22:12:23.411931  1488 net.cpp:141] Setting up inception_4b/pool_proj
I0706 22:12:23.411952  1492 net.cpp:399] inception_4a/output_inception_4a/output_0_split -> inception_4a/output_inception_4a/output_0_split_1
I0706 22:12:23.411962  1488 net.cpp:148] Top shape: 10 64 14 14 (125440)
I0706 22:12:23.411967  1488 net.cpp:156] Memory required for data: 403289600
I0706 22:12:23.411967  1492 net.cpp:399] inception_4a/output_inception_4a/output_0_split -> inception_4a/output_inception_4a/output_0_split_2
I0706 22:12:23.411983  1488 layer_factory.hpp:77] Creating layer inception_4b/relu_pool_proj
I0706 22:12:23.411990  1492 net.cpp:399] inception_4a/output_inception_4a/output_0_split -> inception_4a/output_inception_4a/output_0_split_3
I0706 22:12:23.411993  1488 net.cpp:91] Creating Layer inception_4b/relu_pool_proj
I0706 22:12:23.412000  1488 net.cpp:425] inception_4b/relu_pool_proj <- inception_4b/pool_proj
I0706 22:12:23.412009  1488 net.cpp:386] inception_4b/relu_pool_proj -> inception_4b/pool_proj (in-place)
I0706 22:12:23.412138  1492 net.cpp:141] Setting up inception_4a/output_inception_4a/output_0_split
I0706 22:12:23.412152  1492 net.cpp:148] Top shape: 10 512 14 14 (1003520)
I0706 22:12:23.412159  1492 net.cpp:148] Top shape: 10 512 14 14 (1003520)
I0706 22:12:23.412166  1492 net.cpp:148] Top shape: 10 512 14 14 (1003520)
I0706 22:12:23.412173  1492 net.cpp:148] Top shape: 10 512 14 14 (1003520)
I0706 22:12:23.412178  1492 net.cpp:156] Memory required for data: 389616640
I0706 22:12:23.412184  1492 layer_factory.hpp:77] Creating layer inception_4b/1x1
I0706 22:12:23.412200  1492 net.cpp:91] Creating Layer inception_4b/1x1
I0706 22:12:23.412207  1492 net.cpp:425] inception_4b/1x1 <- inception_4a/output_inception_4a/output_0_split_0
I0706 22:12:23.412221  1492 net.cpp:399] inception_4b/1x1 -> inception_4b/1x1
I0706 22:12:23.413007  1488 net.cpp:141] Setting up inception_4b/relu_pool_proj
I0706 22:12:23.413020  1488 net.cpp:148] Top shape: 10 64 14 14 (125440)
I0706 22:12:23.413025  1488 net.cpp:156] Memory required for data: 403791360
I0706 22:12:23.413030  1488 layer_factory.hpp:77] Creating layer inception_4b/output
I0706 22:12:23.413039  1488 net.cpp:91] Creating Layer inception_4b/output
I0706 22:12:23.413045  1488 net.cpp:425] inception_4b/output <- inception_4b/1x1
I0706 22:12:23.413053  1488 net.cpp:425] inception_4b/output <- inception_4b/3x3
I0706 22:12:23.413058  1488 net.cpp:425] inception_4b/output <- inception_4b/5x5
I0706 22:12:23.413064  1488 net.cpp:425] inception_4b/output <- inception_4b/pool_proj
I0706 22:12:23.413074  1488 net.cpp:399] inception_4b/output -> inception_4b/output
I0706 22:12:23.413233  1488 net.cpp:141] Setting up inception_4b/output
I0706 22:12:23.413246  1488 net.cpp:148] Top shape: 10 512 14 14 (1003520)
I0706 22:12:23.413251  1488 net.cpp:156] Memory required for data: 407805440
I0706 22:12:23.413256  1488 layer_factory.hpp:77] Creating layer inception_4b/output_inception_4b/output_0_split
I0706 22:12:23.413265  1488 net.cpp:91] Creating Layer inception_4b/output_inception_4b/output_0_split
I0706 22:12:23.413271  1488 net.cpp:425] inception_4b/output_inception_4b/output_0_split <- inception_4b/output
I0706 22:12:23.413277  1488 net.cpp:399] inception_4b/output_inception_4b/output_0_split -> inception_4b/output_inception_4b/output_0_split_0
I0706 22:12:23.413286  1488 net.cpp:399] inception_4b/output_inception_4b/output_0_split -> inception_4b/output_inception_4b/output_0_split_1
I0706 22:12:23.413297  1488 net.cpp:399] inception_4b/output_inception_4b/output_0_split -> inception_4b/output_inception_4b/output_0_split_2
I0706 22:12:23.413306  1488 net.cpp:399] inception_4b/output_inception_4b/output_0_split -> inception_4b/output_inception_4b/output_0_split_3
I0706 22:12:23.413429  1488 net.cpp:141] Setting up inception_4b/output_inception_4b/output_0_split
I0706 22:12:23.413439  1488 net.cpp:148] Top shape: 10 512 14 14 (1003520)
I0706 22:12:23.413445  1488 net.cpp:148] Top shape: 10 512 14 14 (1003520)
I0706 22:12:23.413450  1488 net.cpp:148] Top shape: 10 512 14 14 (1003520)
I0706 22:12:23.413455  1488 net.cpp:148] Top shape: 10 512 14 14 (1003520)
I0706 22:12:23.413460  1488 net.cpp:156] Memory required for data: 423861760
I0706 22:12:23.413465  1488 layer_factory.hpp:77] Creating layer inception_4c/1x1
I0706 22:12:23.413480  1488 net.cpp:91] Creating Layer inception_4c/1x1
I0706 22:12:23.413486  1488 net.cpp:425] inception_4c/1x1 <- inception_4b/output_inception_4b/output_0_split_0
I0706 22:12:23.413496  1488 net.cpp:399] inception_4c/1x1 -> inception_4c/1x1
I0706 22:12:23.419039  1488 net.cpp:141] Setting up inception_4c/1x1
I0706 22:12:23.419060  1488 net.cpp:148] Top shape: 10 128 14 14 (250880)
I0706 22:12:23.419066  1488 net.cpp:156] Memory required for data: 424865280
I0706 22:12:23.419076  1488 layer_factory.hpp:77] Creating layer inception_4c/relu_1x1
I0706 22:12:23.419090  1488 net.cpp:91] Creating Layer inception_4c/relu_1x1
I0706 22:12:23.419095  1488 net.cpp:425] inception_4c/relu_1x1 <- inception_4c/1x1
I0706 22:12:23.419102  1488 net.cpp:386] inception_4c/relu_1x1 -> inception_4c/1x1 (in-place)
I0706 22:12:23.420053  1488 net.cpp:141] Setting up inception_4c/relu_1x1
I0706 22:12:23.420068  1488 net.cpp:148] Top shape: 10 128 14 14 (250880)
I0706 22:12:23.420073  1488 net.cpp:156] Memory required for data: 425868800
I0706 22:12:23.420078  1488 layer_factory.hpp:77] Creating layer inception_4c/3x3_reduce
I0706 22:12:23.420090  1492 net.cpp:141] Setting up inception_4b/1x1
I0706 22:12:23.420099  1488 net.cpp:91] Creating Layer inception_4c/3x3_reduce
I0706 22:12:23.420112  1492 net.cpp:148] Top shape: 10 160 14 14 (313600)
I0706 22:12:23.420114  1488 net.cpp:425] inception_4c/3x3_reduce <- inception_4b/output_inception_4b/output_0_split_1
I0706 22:12:23.420122  1492 net.cpp:156] Memory required for data: 390871040
I0706 22:12:23.420130  1488 net.cpp:399] inception_4c/3x3_reduce -> inception_4c/3x3_reduce
I0706 22:12:23.420135  1492 layer_factory.hpp:77] Creating layer inception_4b/relu_1x1
I0706 22:12:23.420145  1492 net.cpp:91] Creating Layer inception_4b/relu_1x1
I0706 22:12:23.420152  1492 net.cpp:425] inception_4b/relu_1x1 <- inception_4b/1x1
I0706 22:12:23.420166  1492 net.cpp:386] inception_4b/relu_1x1 -> inception_4b/1x1 (in-place)
I0706 22:12:23.420776  1492 net.cpp:141] Setting up inception_4b/relu_1x1
I0706 22:12:23.420791  1492 net.cpp:148] Top shape: 10 160 14 14 (313600)
I0706 22:12:23.420797  1492 net.cpp:156] Memory required for data: 392125440
I0706 22:12:23.420804  1492 layer_factory.hpp:77] Creating layer inception_4b/3x3_reduce
I0706 22:12:23.420820  1492 net.cpp:91] Creating Layer inception_4b/3x3_reduce
I0706 22:12:23.420827  1492 net.cpp:425] inception_4b/3x3_reduce <- inception_4a/output_inception_4a/output_0_split_1
I0706 22:12:23.420842  1492 net.cpp:399] inception_4b/3x3_reduce -> inception_4b/3x3_reduce
I0706 22:12:23.425117  1488 net.cpp:141] Setting up inception_4c/3x3_reduce
I0706 22:12:23.425139  1488 net.cpp:148] Top shape: 10 128 14 14 (250880)
I0706 22:12:23.425144  1488 net.cpp:156] Memory required for data: 426872320
I0706 22:12:23.425154  1488 layer_factory.hpp:77] Creating layer inception_4c/relu_3x3_reduce
I0706 22:12:23.425168  1488 net.cpp:91] Creating Layer inception_4c/relu_3x3_reduce
I0706 22:12:23.425174  1488 net.cpp:425] inception_4c/relu_3x3_reduce <- inception_4c/3x3_reduce
I0706 22:12:23.425182  1488 net.cpp:386] inception_4c/relu_3x3_reduce -> inception_4c/3x3_reduce (in-place)
I0706 22:12:23.426899  1488 net.cpp:141] Setting up inception_4c/relu_3x3_reduce
I0706 22:12:23.426914  1488 net.cpp:148] Top shape: 10 128 14 14 (250880)
I0706 22:12:23.426918  1488 net.cpp:156] Memory required for data: 427875840
I0706 22:12:23.426923  1488 layer_factory.hpp:77] Creating layer inception_4c/3x3
I0706 22:12:23.426941  1488 net.cpp:91] Creating Layer inception_4c/3x3
I0706 22:12:23.426947  1488 net.cpp:425] inception_4c/3x3 <- inception_4c/3x3_reduce
I0706 22:12:23.426959  1488 net.cpp:399] inception_4c/3x3 -> inception_4c/3x3
I0706 22:12:23.428849  1492 net.cpp:141] Setting up inception_4b/3x3_reduce
I0706 22:12:23.428874  1492 net.cpp:148] Top shape: 10 112 14 14 (219520)
I0706 22:12:23.428879  1492 net.cpp:156] Memory required for data: 393003520
I0706 22:12:23.428890  1492 layer_factory.hpp:77] Creating layer inception_4b/relu_3x3_reduce
I0706 22:12:23.428902  1492 net.cpp:91] Creating Layer inception_4b/relu_3x3_reduce
I0706 22:12:23.428910  1492 net.cpp:425] inception_4b/relu_3x3_reduce <- inception_4b/3x3_reduce
I0706 22:12:23.428923  1492 net.cpp:386] inception_4b/relu_3x3_reduce -> inception_4b/3x3_reduce (in-place)
I0706 22:12:23.429239  1492 net.cpp:141] Setting up inception_4b/relu_3x3_reduce
I0706 22:12:23.429256  1492 net.cpp:148] Top shape: 10 112 14 14 (219520)
I0706 22:12:23.429262  1492 net.cpp:156] Memory required for data: 393881600
I0706 22:12:23.429268  1492 layer_factory.hpp:77] Creating layer inception_4b/3x3
I0706 22:12:23.429286  1492 net.cpp:91] Creating Layer inception_4b/3x3
I0706 22:12:23.429294  1492 net.cpp:425] inception_4b/3x3 <- inception_4b/3x3_reduce
I0706 22:12:23.429304  1492 net.cpp:399] inception_4b/3x3 -> inception_4b/3x3
I0706 22:12:23.434360  1488 net.cpp:141] Setting up inception_4c/3x3
I0706 22:12:23.434386  1488 net.cpp:148] Top shape: 10 256 14 14 (501760)
I0706 22:12:23.434391  1488 net.cpp:156] Memory required for data: 429882880
I0706 22:12:23.434401  1488 layer_factory.hpp:77] Creating layer inception_4c/relu_3x3
I0706 22:12:23.434419  1488 net.cpp:91] Creating Layer inception_4c/relu_3x3
I0706 22:12:23.434427  1488 net.cpp:425] inception_4c/relu_3x3 <- inception_4c/3x3
I0706 22:12:23.434434  1488 net.cpp:386] inception_4c/relu_3x3 -> inception_4c/3x3 (in-place)
I0706 22:12:23.435606  1488 net.cpp:141] Setting up inception_4c/relu_3x3
I0706 22:12:23.435621  1488 net.cpp:148] Top shape: 10 256 14 14 (501760)
I0706 22:12:23.435626  1488 net.cpp:156] Memory required for data: 431889920
I0706 22:12:23.435631  1488 layer_factory.hpp:77] Creating layer inception_4c/5x5_reduce
I0706 22:12:23.435652  1488 net.cpp:91] Creating Layer inception_4c/5x5_reduce
I0706 22:12:23.435658  1488 net.cpp:425] inception_4c/5x5_reduce <- inception_4b/output_inception_4b/output_0_split_2
I0706 22:12:23.435667  1488 net.cpp:399] inception_4c/5x5_reduce -> inception_4c/5x5_reduce
I0706 22:12:23.437433  1492 net.cpp:141] Setting up inception_4b/3x3
I0706 22:12:23.437455  1492 net.cpp:148] Top shape: 10 224 14 14 (439040)
I0706 22:12:23.437461  1492 net.cpp:156] Memory required for data: 395637760
I0706 22:12:23.437472  1492 layer_factory.hpp:77] Creating layer inception_4b/relu_3x3
I0706 22:12:23.437482  1492 net.cpp:91] Creating Layer inception_4b/relu_3x3
I0706 22:12:23.437489  1492 net.cpp:425] inception_4b/relu_3x3 <- inception_4b/3x3
I0706 22:12:23.437502  1492 net.cpp:386] inception_4b/relu_3x3 -> inception_4b/3x3 (in-place)
I0706 22:12:23.440428  1492 net.cpp:141] Setting up inception_4b/relu_3x3
I0706 22:12:23.440448  1492 net.cpp:148] Top shape: 10 224 14 14 (439040)
I0706 22:12:23.440454  1492 net.cpp:156] Memory required for data: 397393920
I0706 22:12:23.440459  1492 layer_factory.hpp:77] Creating layer inception_4b/5x5_reduce
I0706 22:12:23.440491  1492 net.cpp:91] Creating Layer inception_4b/5x5_reduce
I0706 22:12:23.440500  1492 net.cpp:425] inception_4b/5x5_reduce <- inception_4a/output_inception_4a/output_0_split_2
I0706 22:12:23.440515  1492 net.cpp:399] inception_4b/5x5_reduce -> inception_4b/5x5_reduce
I0706 22:12:23.440726  1488 net.cpp:141] Setting up inception_4c/5x5_reduce
I0706 22:12:23.440744  1488 net.cpp:148] Top shape: 10 24 14 14 (47040)
I0706 22:12:23.440749  1488 net.cpp:156] Memory required for data: 432078080
I0706 22:12:23.440760  1488 layer_factory.hpp:77] Creating layer inception_4c/relu_5x5_reduce
I0706 22:12:23.440773  1488 net.cpp:91] Creating Layer inception_4c/relu_5x5_reduce
I0706 22:12:23.440779  1488 net.cpp:425] inception_4c/relu_5x5_reduce <- inception_4c/5x5_reduce
I0706 22:12:23.440786  1488 net.cpp:386] inception_4c/relu_5x5_reduce -> inception_4c/5x5_reduce (in-place)
I0706 22:12:23.441347  1488 net.cpp:141] Setting up inception_4c/relu_5x5_reduce
I0706 22:12:23.441364  1488 net.cpp:148] Top shape: 10 24 14 14 (47040)
I0706 22:12:23.441368  1488 net.cpp:156] Memory required for data: 432266240
…
I0706 22:12:23.571157  1492 net.cpp:399] inception_4d/output_inception_4d/output_0_split -> inception_4d/output_inception_4d/output_0_split_3
I0706 22:12:23.571290  1492 net.cpp:141] Setting up inception_4d/output_inception_4d/output_0_split
I0706 22:12:23.571300  1492 net.cpp:148] Top shape: 10 528 14 14 (1034880)
I0706 22:12:23.571305  1492 net.cpp:148] Top shape: 10 528 14 14 (1034880)
I0706 22:12:23.571310  1492 net.cpp:148] Top shape: 10 528 14 14 (1034880)
I0706 22:12:23.571316  1492 net.cpp:148] Top shape: 10 528 14 14 (1034880)
I0706 22:12:23.571319  1492 net.cpp:156] Memory required for data: 494108160
I0706 22:12:23.571324  1492 layer_factory.hpp:77] Creating layer inception_4e/1x1
I0706 22:12:23.571338  1492 net.cpp:91] Creating Layer inception_4e/1x1
I0706 22:12:23.571346  1492 net.cpp:425] inception_4e/1x1 <- inception_4d/output_inception_4d/output_0_split_0
I0706 22:12:23.571354  1492 net.cpp:399] inception_4e/1x1 -> inception_4e/1x1
I0706 22:12:23.576249  1488 net.cpp:141] Setting up inception_5a/3x3_reduce
I0706 22:12:23.576270  1488 net.cpp:148] Top shape: 10 160 7 7 (78400)
I0706 22:12:23.576275  1488 net.cpp:156] Memory required for data: 530297600
I0706 22:12:23.576287  1488 layer_factory.hpp:77] Creating layer inception_5a/relu_3x3_reduce
I0706 22:12:23.576295  1488 net.cpp:91] Creating Layer inception_5a/relu_3x3_reduce
I0706 22:12:23.576302  1488 net.cpp:425] inception_5a/relu_3x3_reduce <- inception_5a/3x3_reduce
I0706 22:12:23.576321  1488 net.cpp:386] inception_5a/relu_3x3_reduce -> inception_5a/3x3_reduce (in-place)
I0706 22:12:23.577988  1488 net.cpp:141] Setting up inception_5a/relu_3x3_reduce
I0706 22:12:23.578004  1488 net.cpp:148] Top shape: 10 160 7 7 (78400)
I0706 22:12:23.578009  1488 net.cpp:156] Memory required for data: 530611200
I0706 22:12:23.578014  1488 layer_factory.hpp:77] Creating layer inception_5a/3x3
I0706 22:12:23.578034  1488 net.cpp:91] Creating Layer inception_5a/3x3
I0706 22:12:23.578042  1488 net.cpp:425] inception_5a/3x3 <- inception_5a/3x3_reduce
I0706 22:12:23.578049  1488 net.cpp:399] inception_5a/3x3 -> inception_5a/3x3
I0706 22:12:23.578330  1492 net.cpp:141] Setting up inception_4e/1x1
I0706 22:12:23.578344  1492 net.cpp:148] Top shape: 10 256 14 14 (501760)
I0706 22:12:23.578349  1492 net.cpp:156] Memory required for data: 496115200
I0706 22:12:23.578358  1492 layer_factory.hpp:77] Creating layer inception_4e/relu_1x1
I0706 22:12:23.578369  1492 net.cpp:91] Creating Layer inception_4e/relu_1x1
I0706 22:12:23.578375  1492 net.cpp:425] inception_4e/relu_1x1 <- inception_4e/1x1
I0706 22:12:23.578384  1492 net.cpp:386] inception_4e/relu_1x1 -> inception_4e/1x1 (in-place)
I0706 22:12:23.580925  1492 net.cpp:141] Setting up inception_4e/relu_1x1
I0706 22:12:23.580955  1492 net.cpp:148] Top shape: 10 256 14 14 (501760)
I0706 22:12:23.580960  1492 net.cpp:156] Memory required for data: 498122240
I0706 22:12:23.580965  1492 layer_factory.hpp:77] Creating layer inception_4e/3x3_reduce
I0706 22:12:23.580981  1492 net.cpp:91] Creating Layer inception_4e/3x3_reduce
I0706 22:12:23.580986  1492 net.cpp:425] inception_4e/3x3_reduce <- inception_4d/output_inception_4d/output_0_split_1
I0706 22:12:23.580998  1492 net.cpp:399] inception_4e/3x3_reduce -> inception_4e/3x3_reduce
I0706 22:12:23.584015  1492 net.cpp:141] Setting up inception_4e/3x3_reduce
I0706 22:12:23.584045  1492 net.cpp:148] Top shape: 10 160 14 14 (313600)
I0706 22:12:23.584050  1492 net.cpp:156] Memory required for data: 499376640
I0706 22:12:23.584060  1492 layer_factory.hpp:77] Creating layer inception_4e/relu_3x3_reduce
I0706 22:12:23.584069  1492 net.cpp:91] Creating Layer inception_4e/relu_3x3_reduce
I0706 22:12:23.584074  1492 net.cpp:425] inception_4e/relu_3x3_reduce <- inception_4e/3x3_reduce
I0706 22:12:23.584084  1492 net.cpp:386] inception_4e/relu_3x3_reduce -> inception_4e/3x3_reduce (in-place)
I0706 22:12:23.585448  1492 net.cpp:141] Setting up inception_4e/relu_3x3_reduce
I0706 22:12:23.585461  1492 net.cpp:148] Top shape: 10 160 14 14 (313600)
I0706 22:12:23.585466  1492 net.cpp:156] Memory required for data: 500631040
I0706 22:12:23.585471  1492 layer_factory.hpp:77] Creating layer inception_4e/3x3
I0706 22:12:23.585485  1492 net.cpp:91] Creating Layer inception_4e/3x3
I0706 22:12:23.585492  1492 net.cpp:425] inception_4e/3x3 <- inception_4e/3x3_reduce
I0706 22:12:23.585512  1492 net.cpp:399] inception_4e/3x3 -> inception_4e/3x3
I0706 22:12:23.589083  1488 net.cpp:141] Setting up inception_5a/3x3
I0706 22:12:23.589112  1488 net.cpp:148] Top shape: 10 320 7 7 (156800)
I0706 22:12:23.589118  1488 net.cpp:156] Memory required for data: 531238400
I0706 22:12:23.589129  1488 layer_factory.hpp:77] Creating layer inception_5a/relu_3x3
I0706 22:12:23.589140  1488 net.cpp:91] Creating Layer inception_5a/relu_3x3
I0706 22:12:23.589148  1488 net.cpp:425] inception_5a/relu_3x3 <- inception_5a/3x3
I0706 22:12:23.589154  1488 net.cpp:386] inception_5a/relu_3x3 -> inception_5a/3x3 (in-place)
I0706 22:12:23.589460  1488 net.cpp:141] Setting up inception_5a/relu_3x3
I0706 22:12:23.589473  1488 net.cpp:148] Top shape: 10 320 7 7 (156800)
I0706 22:12:23.589476  1488 net.cpp:156] Memory required for data: 531865600
I0706 22:12:23.589481  1488 layer_factory.hpp:77] Creating layer inception_5a/5x5_reduce
I0706 22:12:23.589498  1488 net.cpp:91] Creating Layer inception_5a/5x5_reduce
I0706 22:12:23.589505  1488 net.cpp:425] inception_5a/5x5_reduce <- pool4/3x3_s2_pool4/3x3_s2_0_split_2
I0706 22:12:23.589519  1488 net.cpp:399] inception_5a/5x5_reduce -> inception_5a/5x5_reduce
I0706 22:12:23.594403  1488 net.cpp:141] Setting up inception_5a/5x5_reduce
I0706 22:12:23.594424  1488 net.cpp:148] Top shape: 10 32 7 7 (15680)
I0706 22:12:23.594429  1488 net.cpp:156] Memory required for data: 531928320
I0706 22:12:23.594439  1488 layer_factory.hpp:77] Creating layer inception_5a/relu_5x5_reduce
I0706 22:12:23.594449  1488 net.cpp:91] Creating Layer inception_5a/relu_5x5_reduce
I0706 22:12:23.594455  1488 net.cpp:425] inception_5a/relu_5x5_reduce <- inception_5a/5x5_reduce
I0706 22:12:23.594465  1488 net.cpp:386] inception_5a/relu_5x5_reduce -> inception_5a/5x5_reduce (in-place)
I0706 22:12:23.595813  1488 net.cpp:141] Setting up inception_5a/relu_5x5_reduce
I0706 22:12:23.595829  1488 net.cpp:148] Top shape: 10 32 7 7 (15680)
I0706 22:12:23.595835  1488 net.cpp:156] Memory required for data: 531991040
I0706 22:12:23.595840  1488 layer_factory.hpp:77] Creating layer inception_5a/5x5
I0706 22:12:23.595837  1492 net.cpp:141] Setting up inception_4e/3x3
I0706 22:12:23.595854  1492 net.cpp:148] Top shape: 10 320 14 14 (627200)
I0706 22:12:23.595859  1492 net.cpp:156] Memory required for data: 503139840
I0706 22:12:23.595860  1488 net.cpp:91] Creating Layer inception_5a/5x5
I0706 22:12:23.595868  1488 net.cpp:425] inception_5a/5x5 <- inception_5a/5x5_reduce
I0706 22:12:23.595868  1492 layer_factory.hpp:77] Creating layer inception_4e/relu_3x3
I0706 22:12:23.595880  1492 net.cpp:91] Creating Layer inception_4e/relu_3x3
I0706 22:12:23.595881  1488 net.cpp:399] inception_5a/5x5 -> inception_5a/5x5
I0706 22:12:23.595885  1492 net.cpp:425] inception_4e/relu_3x3 <- inception_4e/3x3
I0706 22:12:23.595895  1492 net.cpp:386] inception_4e/relu_3x3 -> inception_4e/3x3 (in-place)
I0706 22:12:23.596565  1492 net.cpp:141] Setting up inception_4e/relu_3x3
I0706 22:12:23.596581  1492 net.cpp:148] Top shape: 10 320 14 14 (627200)
I0706 22:12:23.596599  1492 net.cpp:156] Memory required for data: 505648640
I0706 22:12:23.596604  1492 layer_factory.hpp:77] Creating layer inception_4e/5x5_reduce
I0706 22:12:23.596623  1492 net.cpp:91] Creating Layer inception_4e/5x5_reduce
I0706 22:12:23.596629  1492 net.cpp:425] inception_4e/5x5_reduce <- inception_4d/output_inception_4d/output_0_split_2
I0706 22:12:23.596638  1492 net.cpp:399] inception_4e/5x5_reduce -> inception_4e/5x5_reduce
I0706 22:12:23.602164  1492 net.cpp:141] Setting up inception_4e/5x5_reduce
I0706 22:12:23.602180  1492 net.cpp:148] Top shape: 10 32 14 14 (62720)
I0706 22:12:23.602198  1492 net.cpp:156] Memory required for data: 505899520
I0706 22:12:23.602207  1492 layer_factory.hpp:77] Creating layer inception_4e/relu_5x5_reduce
I0706 22:12:23.602218  1492 net.cpp:91] Creating Layer inception_4e/relu_5x5_reduce
I0706 22:12:23.602224  1492 net.cpp:425] inception_4e/relu_5x5_reduce <- inception_4e/5x5_reduce
I0706 22:12:23.602231  1492 net.cpp:386] inception_4e/relu_5x5_reduce -> inception_4e/5x5_reduce (in-place)
I0706 22:12:23.602272  1488 net.cpp:141] Setting up inception_5a/5x5
I0706 22:12:23.602294  1488 net.cpp:148] Top shape: 10 128 7 7 (62720)
I0706 22:12:23.602299  1488 net.cpp:156] Memory required for data: 532241920
I0706 22:12:23.602310  1488 layer_factory.hpp:77] Creating layer inception_5a/relu_5x5
I0706 22:12:23.602347  1488 net.cpp:91] Creating Layer inception_5a/relu_5x5
I0706 22:12:23.602355  1488 net.cpp:425] inception_5a/relu_5x5 <- inception_5a/5x5
I0706 22:12:23.602362  1488 net.cpp:386] inception_5a/relu_5x5 -> inception_5a/5x5 (in-place)
I0706 22:12:23.603494  1492 net.cpp:141] Setting up inception_4e/relu_5x5_reduce
I0706 22:12:23.603521  1492 net.cpp:148] Top shape: 10 32 14 14 (62720)
I0706 22:12:23.603526  1492 net.cpp:156] Memory required for data: 506150400
I0706 22:12:23.603531  1492 layer_factory.hpp:77] Creating layer inception_4e/5x5
I0706 22:12:23.603540  1488 net.cpp:141] Setting up inception_5a/relu_5x5
I0706 22:12:23.603549  1492 net.cpp:91] Creating Layer inception_4e/5x5
I0706 22:12:23.603556  1492 net.cpp:425] inception_4e/5x5 <- inception_4e/5x5_reduce
I0706 22:12:23.603559  1488 net.cpp:148] Top shape: 10 128 7 7 (62720)
I0706 22:12:23.603564  1488 net.cpp:156] Memory required for data: 532492800
I0706 22:12:23.603565  1492 net.cpp:399] inception_4e/5x5 -> inception_4e/5x5
I0706 22:12:23.603571  1488 layer_factory.hpp:77] Creating layer inception_5a/pool
I0706 22:12:23.603581  1488 net.cpp:91] Creating Layer inception_5a/pool
I0706 22:12:23.603588  1488 net.cpp:425] inception_5a/pool <- pool4/3x3_s2_pool4/3x3_s2_0_split_3
I0706 22:12:23.603596  1488 net.cpp:399] inception_5a/pool -> inception_5a/pool
I0706 22:12:23.603919  1488 net.cpp:141] Setting up inception_5a/pool
I0706 22:12:23.603931  1488 net.cpp:148] Top shape: 10 832 7 7 (407680)
I0706 22:12:23.603935  1488 net.cpp:156] Memory required for data: 534123520
I0706 22:12:23.603940  1488 layer_factory.hpp:77] Creating layer inception_5a/pool_proj
I0706 22:12:23.603958  1488 net.cpp:91] Creating Layer inception_5a/pool_proj
I0706 22:12:23.603965  1488 net.cpp:425] inception_5a/pool_proj <- inception_5a/pool
I0706 22:12:23.603976  1488 net.cpp:399] inception_5a/pool_proj -> inception_5a/pool_proj
I0706 22:12:23.610136  1492 net.cpp:141] Setting up inception_4e/5x5
I0706 22:12:23.610154  1492 net.cpp:148] Top shape: 10 128 14 14 (250880)
I0706 22:12:23.610160  1492 net.cpp:156] Memory required for data: 507153920
I0706 22:12:23.610169  1492 layer_factory.hpp:77] Creating layer inception_4e/relu_5x5
I0706 22:12:23.610178  1492 net.cpp:91] Creating Layer inception_4e/relu_5x5
I0706 22:12:23.610184  1492 net.cpp:425] inception_4e/relu_5x5 <- inception_4e/5x5
I0706 22:12:23.610191  1492 net.cpp:386] inception_4e/relu_5x5 -> inception_4e/5x5 (in-place)
I0706 22:12:23.612053  1492 net.cpp:141] Setting up inception_4e/relu_5x5
I0706 22:12:23.612081  1492 net.cpp:148] Top shape: 10 128 14 14 (250880)
I0706 22:12:23.612085  1492 net.cpp:156] Memory required for data: 508157440
I0706 22:12:23.612090  1492 layer_factory.hpp:77] Creating layer inception_4e/pool
I0706 22:12:23.612103  1492 net.cpp:91] Creating Layer inception_4e/pool
I0706 22:12:23.612109  1492 net.cpp:425] inception_4e/pool <- inception_4d/output_inception_4d/output_0_split_3
I0706 22:12:23.612117  1492 net.cpp:399] inception_4e/pool -> inception_4e/pool
I0706 22:12:23.612434  1488 net.cpp:141] Setting up inception_5a/pool_proj
I0706 22:12:23.612471  1488 net.cpp:148] Top shape: 10 128 7 7 (62720)
I0706 22:12:23.612474  1492 net.cpp:141] Setting up inception_4e/pool
I0706 22:12:23.612478  1488 net.cpp:156] Memory required for data: 534374400
I0706 22:12:23.612488  1492 net.cpp:148] Top shape: 10 528 14 14 (1034880)
I0706 22:12:23.612494  1492 net.cpp:156] Memory required for data: 512296960
I0706 22:12:23.612499  1492 layer_factory.hpp:77] Creating layer inception_4e/pool_proj
I0706 22:12:23.612499  1488 layer_factory.hpp:77] Creating layer inception_5a/relu_pool_proj
I0706 22:12:23.612522  1488 net.cpp:91] Creating Layer inception_5a/relu_pool_proj
I0706 22:12:23.612526  1492 net.cpp:91] Creating Layer inception_4e/pool_proj
I0706 22:12:23.612531  1488 net.cpp:425] inception_5a/relu_pool_proj <- inception_5a/pool_proj
I0706 22:12:23.612534  1492 net.cpp:425] inception_4e/pool_proj <- inception_4e/pool
I0706 22:12:23.612540  1488 net.cpp:386] inception_5a/relu_pool_proj -> inception_5a/pool_proj (in-place)
I0706 22:12:23.612546  1492 net.cpp:399] inception_4e/pool_proj -> inception_4e/pool_proj
I0706 22:12:23.612964  1488 net.cpp:141] Setting up inception_5a/relu_pool_proj
I0706 22:12:23.612979  1488 net.cpp:148] Top shape: 10 128 7 7 (62720)
I0706 22:12:23.612984  1488 net.cpp:156] Memory required for data: 534625280
I0706 22:12:23.612989  1488 layer_factory.hpp:77] Creating layer inception_5a/output
I0706 22:12:23.612999  1488 net.cpp:91] Creating Layer inception_5a/output
I0706 22:12:23.613005  1488 net.cpp:425] inception_5a/output <- inception_5a/1x1
I0706 22:12:23.613011  1488 net.cpp:425] inception_5a/output <- inception_5a/3x3
I0706 22:12:23.613018  1488 net.cpp:425] inception_5a/output <- inception_5a/5x5
I0706 22:12:23.613023  1488 net.cpp:425] inception_5a/output <- inception_5a/pool_proj
I0706 22:12:23.613031  1488 net.cpp:399] inception_5a/output -> inception_5a/output
I0706 22:12:23.613221  1488 net.cpp:141] Setting up inception_5a/output
I0706 22:12:23.613234  1488 net.cpp:148] Top shape: 10 832 7 7 (407680)
I0706 22:12:23.613237  1488 net.cpp:156] Memory required for data: 536256000
I0706 22:12:23.613242  1488 layer_factory.hpp:77] Creating layer inception_5a/output_inception_5a/output_0_split
I0706 22:12:23.613255  1488 net.cpp:91] Creating Layer inception_5a/output_inception_5a/output_0_split
I0706 22:12:23.613261  1488 net.cpp:425] inception_5a/output_inception_5a/output_0_split <- inception_5a/output
I0706 22:12:23.613267  1488 net.cpp:399] inception_5a/output_inception_5a/output_0_split -> inception_5a/output_inception_5a/output_0_split_0
I0706 22:12:23.613276  1488 net.cpp:399] inception_5a/output_inception_5a/output_0_split -> inception_5a/output_inception_5a/output_0_split_1
I0706 22:12:23.613286  1488 net.cpp:399] inception_5a/output_inception_5a/output_0_split -> inception_5a/output_inception_5a/output_0_split_2
I0706 22:12:23.613296  1488 net.cpp:399] inception_5a/output_inception_5a/output_0_split -> inception_5a/output_inception_5a/output_0_split_3
I0706 22:12:23.613450  1488 net.cpp:141] Setting up inception_5a/output_inception_5a/output_0_split
I0706 22:12:23.613461  1488 net.cpp:148] Top shape: 10 832 7 7 (407680)
I0706 22:12:23.613466  1488 net.cpp:148] Top shape: 10 832 7 7 (407680)
I0706 22:12:23.613471  1488 net.cpp:148] Top shape: 10 832 7 7 (407680)
I0706 22:12:23.613476  1488 net.cpp:148] Top shape: 10 832 7 7 (407680)
I0706 22:12:23.613481  1488 net.cpp:156] Memory required for data: 542778880
I0706 22:12:23.613486  1488 layer_factory.hpp:77] Creating layer inception_5b/1x1
I0706 22:12:23.613502  1488 net.cpp:91] Creating Layer inception_5b/1x1
I0706 22:12:23.613508  1488 net.cpp:425] inception_5b/1x1 <- inception_5a/output_inception_5a/output_0_split_0
I0706 22:12:23.613519  1488 net.cpp:399] inception_5b/1x1 -> inception_5b/1x1
I0706 22:12:23.617290  1492 net.cpp:141] Setting up inception_4e/pool_proj
I0706 22:12:23.617321  1492 net.cpp:148] Top shape: 10 128 14 14 (250880)
I0706 22:12:23.617327  1492 net.cpp:156] Memory required for data: 513300480
I0706 22:12:23.617336  1492 layer_factory.hpp:77] Creating layer inception_4e/relu_pool_proj
I0706 22:12:23.617348  1492 net.cpp:91] Creating Layer inception_4e/relu_pool_proj
I0706 22:12:23.617355  1492 net.cpp:425] inception_4e/relu_pool_proj <- inception_4e/pool_proj
I0706 22:12:23.617362  1492 net.cpp:386] inception_4e/relu_pool_proj -> inception_4e/pool_proj (in-place)
I0706 22:12:23.618299  1492 net.cpp:141] Setting up inception_4e/relu_pool_proj
I0706 22:12:23.618325  1492 net.cpp:148] Top shape: 10 128 14 14 (250880)
I0706 22:12:23.618330  1492 net.cpp:156] Memory required for data: 514304000
I0706 22:12:23.618335  1492 layer_factory.hpp:77] Creating layer inception_4e/output
I0706 22:12:23.618347  1492 net.cpp:91] Creating Layer inception_4e/output
I0706 22:12:23.618353  1492 net.cpp:425] inception_4e/output <- inception_4e/1x1
I0706 22:12:23.618360  1492 net.cpp:425] inception_4e/output <- inception_4e/3x3
I0706 22:12:23.618366  1492 net.cpp:425] inception_4e/output <- inception_4e/5x5
I0706 22:12:23.618371  1492 net.cpp:425] inception_4e/output <- inception_4e/pool_proj
I0706 22:12:23.618376  1492 net.cpp:399] inception_4e/output -> inception_4e/output
I0706 22:12:23.618525  1492 net.cpp:141] Setting up inception_4e/output
I0706 22:12:23.618535  1492 net.cpp:148] Top shape: 10 832 14 14 (1630720)
I0706 22:12:23.618540  1492 net.cpp:156] Memory required for data: 520826880
I0706 22:12:23.618544  1492 layer_factory.hpp:77] Creating layer pool4/3x3_s2
I0706 22:12:23.618552  1492 net.cpp:91] Creating Layer pool4/3x3_s2
I0706 22:12:23.618557  1492 net.cpp:425] pool4/3x3_s2 <- inception_4e/output
I0706 22:12:23.618568  1492 net.cpp:399] pool4/3x3_s2 -> pool4/3x3_s2
I0706 22:12:23.618934  1492 net.cpp:141] Setting up pool4/3x3_s2
I0706 22:12:23.618945  1492 net.cpp:148] Top shape: 10 832 7 7 (407680)
I0706 22:12:23.618950  1492 net.cpp:156] Memory required for data: 522457600
I0706 22:12:23.618954  1492 layer_factory.hpp:77] Creating layer pool4/3x3_s2_pool4/3x3_s2_0_split
I0706 22:12:23.618963  1492 net.cpp:91] Creating Layer pool4/3x3_s2_pool4/3x3_s2_0_split
I0706 22:12:23.618968  1492 net.cpp:425] pool4/3x3_s2_pool4/3x3_s2_0_split <- pool4/3x3_s2
I0706 22:12:23.618976  1492 net.cpp:399] pool4/3x3_s2_pool4/3x3_s2_0_split -> pool4/3x3_s2_pool4/3x3_s2_0_split_0
I0706 22:12:23.618984  1492 net.cpp:399] pool4/3x3_s2_pool4/3x3_s2_0_split -> pool4/3x3_s2_pool4/3x3_s2_0_split_1
I0706 22:12:23.618993  1492 net.cpp:399] pool4/3x3_s2_pool4/3x3_s2_0_split -> pool4/3x3_s2_pool4/3x3_s2_0_split_2
I0706 22:12:23.618999  1492 net.cpp:399] pool4/3x3_s2_pool4/3x3_s2_0_split -> pool4/3x3_s2_pool4/3x3_s2_0_split_3
I0706 22:12:23.619216  1492 net.cpp:141] Setting up pool4/3x3_s2_pool4/3x3_s2_0_split
I0706 22:12:23.619230  1492 net.cpp:148] Top shape: 10 832 7 7 (407680)
I0706 22:12:23.619236  1492 net.cpp:148] Top shape: 10 832 7 7 (407680)
I0706 22:12:23.619242  1492 net.cpp:148] Top shape: 10 832 7 7 (407680)
I0706 22:12:23.619247  1492 net.cpp:148] Top shape: 10 832 7 7 (407680)
I0706 22:12:23.619251  1492 net.cpp:156] Memory required for data: 528980480
I0706 22:12:23.619256  1492 layer_factory.hpp:77] Creating layer inception_5a/1x1
I0706 22:12:23.619271  1492 net.cpp:91] Creating Layer inception_5a/1x1
I0706 22:12:23.619277  1492 net.cpp:425] inception_5a/1x1 <- pool4/3x3_s2_pool4/3x3_s2_0_split_0
I0706 22:12:23.619284  1492 net.cpp:399] inception_5a/1x1 -> inception_5a/1x1
I0706 22:12:23.625331  1492 net.cpp:141] Setting up inception_5a/1x1
I0706 22:12:23.625361  1492 net.cpp:148] Top shape: 10 256 7 7 (125440)
I0706 22:12:23.625367  1492 net.cpp:156] Memory required for data: 529482240
I0706 22:12:23.625376  1492 layer_factory.hpp:77] Creating layer inception_5a/relu_1x1
I0706 22:12:23.625385  1492 net.cpp:91] Creating Layer inception_5a/relu_1x1
I0706 22:12:23.625391  1492 net.cpp:425] inception_5a/relu_1x1 <- inception_5a/1x1
I0706 22:12:23.625401  1492 net.cpp:386] inception_5a/relu_1x1 -> inception_5a/1x1 (in-place)
I0706 22:12:23.626454  1492 net.cpp:141] Setting up inception_5a/relu_1x1
I0706 22:12:23.626468  1492 net.cpp:148] Top shape: 10 256 7 7 (125440)
I0706 22:12:23.626487  1492 net.cpp:156] Memory required for data: 529984000
I0706 22:12:23.626492  1492 layer_factory.hpp:77] Creating layer inception_5a/3x3_reduce
I0706 22:12:23.626507  1492 net.cpp:91] Creating Layer inception_5a/3x3_reduce
I0706 22:12:23.626513  1492 net.cpp:425] inception_5a/3x3_reduce <- pool4/3x3_s2_pool4/3x3_s2_0_split_1
I0706 22:12:23.626525  1492 net.cpp:399] inception_5a/3x3_reduce -> inception_5a/3x3_reduce
I0706 22:12:23.627991  1488 net.cpp:141] Setting up inception_5b/1x1
I0706 22:12:23.628036  1488 net.cpp:148] Top shape: 10 384 7 7 (188160)
I0706 22:12:23.628051  1488 net.cpp:156] Memory required for data: 543531520
I0706 22:12:23.628072  1488 layer_factory.hpp:77] Creating layer inception_5b/relu_1x1
I0706 22:12:23.628093  1488 net.cpp:91] Creating Layer inception_5b/relu_1x1
I0706 22:12:23.628104  1488 net.cpp:425] inception_5b/relu_1x1 <- inception_5b/1x1
I0706 22:12:23.628125  1488 net.cpp:386] inception_5b/relu_1x1 -> inception_5b/1x1 (in-place)
I0706 22:12:23.628571  1488 net.cpp:141] Setting up inception_5b/relu_1x1
I0706 22:12:23.628595  1488 net.cpp:148] Top shape: 10 384 7 7 (188160)
I0706 22:12:23.628604  1488 net.cpp:156] Memory required for data: 544284160
I0706 22:12:23.628612  1488 layer_factory.hpp:77] Creating layer inception_5b/3x3_reduce
I0706 22:12:23.628640  1488 net.cpp:91] Creating Layer inception_5b/3x3_reduce
I0706 22:12:23.628653  1488 net.cpp:425] inception_5b/3x3_reduce <- inception_5a/output_inception_5a/output_0_split_1
I0706 22:12:23.628667  1488 net.cpp:399] inception_5b/3x3_reduce -> inception_5b/3x3_reduce
I0706 22:12:23.633472  1492 net.cpp:141] Setting up inception_5a/3x3_reduce
I0706 22:12:23.633504  1492 net.cpp:148] Top shape: 10 160 7 7 (78400)
I0706 22:12:23.633510  1492 net.cpp:156] Memory required for data: 530297600
I0706 22:12:23.633519  1492 layer_factory.hpp:77] Creating layer inception_5a/relu_3x3_reduce
I0706 22:12:23.633528  1492 net.cpp:91] Creating Layer inception_5a/relu_3x3_reduce
I0706 22:12:23.633534  1492 net.cpp:425] inception_5a/relu_3x3_reduce <- inception_5a/3x3_reduce
I0706 22:12:23.633543  1492 net.cpp:386] inception_5a/relu_3x3_reduce -> inception_5a/3x3_reduce (in-place)
I0706 22:12:23.634322  1492 net.cpp:141] Setting up inception_5a/relu_3x3_reduce
I0706 22:12:23.634337  1492 net.cpp:148] Top shape: 10 160 7 7 (78400)
I0706 22:12:23.634354  1492 net.cpp:156] Memory required for data: 530611200
I0706 22:12:23.634359  1492 layer_factory.hpp:77] Creating layer inception_5a/3x3
I0706 22:12:23.634374  1492 net.cpp:91] Creating Layer inception_5a/3x3
I0706 22:12:23.634382  1492 net.cpp:425] inception_5a/3x3 <- inception_5a/3x3_reduce
I0706 22:12:23.634392  1492 net.cpp:399] inception_5a/3x3 -> inception_5a/3x3
I0706 22:12:23.639016  1488 net.cpp:141] Setting up inception_5b/3x3_reduce
I0706 22:12:23.639052  1488 net.cpp:148] Top shape: 10 192 7 7 (94080)
I0706 22:12:23.639058  1488 net.cpp:156] Memory required for data: 544660480
I0706 22:12:23.639071  1488 layer_factory.hpp:77] Creating layer inception_5b/relu_3x3_reduce
I0706 22:12:23.639084  1488 net.cpp:91] Creating Layer inception_5b/relu_3x3_reduce
I0706 22:12:23.639092  1488 net.cpp:425] inception_5b/relu_3x3_reduce <- inception_5b/3x3_reduce
I0706 22:12:23.639103  1488 net.cpp:386] inception_5b/relu_3x3_reduce -> inception_5b/3x3_reduce (in-place)
I0706 22:12:23.639379  1488 net.cpp:141] Setting up inception_5b/relu_3x3_reduce
I0706 22:12:23.639389  1488 net.cpp:148] Top shape: 10 192 7 7 (94080)
I0706 22:12:23.639394  1488 net.cpp:156] Memory required for data: 545036800
I0706 22:12:23.639400  1488 layer_factory.hpp:77] Creating layer inception_5b/3x3
I0706 22:12:23.639420  1488 net.cpp:91] Creating Layer inception_5b/3x3
I0706 22:12:23.639426  1488 net.cpp:425] inception_5b/3x3 <- inception_5b/3x3_reduce
I0706 22:12:23.639436  1488 net.cpp:399] inception_5b/3x3 -> inception_5b/3x3
I0706 22:12:23.644436  1492 net.cpp:141] Setting up inception_5a/3x3
I0706 22:12:23.644459  1492 net.cpp:148] Top shape: 10 320 7 7 (156800)
I0706 22:12:23.644464  1492 net.cpp:156] Memory required for data: 531238400
I0706 22:12:23.644474  1492 layer_factory.hpp:77] Creating layer inception_5a/relu_3x3
I0706 22:12:23.644485  1492 net.cpp:91] Creating Layer inception_5a/relu_3x3
I0706 22:12:23.644491  1492 net.cpp:425] inception_5a/relu_3x3 <- inception_5a/3x3
I0706 22:12:23.644498  1492 net.cpp:386] inception_5a/relu_3x3 -> inception_5a/3x3 (in-place)
I0706 22:12:23.644795  1492 net.cpp:141] Setting up inception_5a/relu_3x3
I0706 22:12:23.644807  1492 net.cpp:148] Top shape: 10 320 7 7 (156800)
I0706 22:12:23.644811  1492 net.cpp:156] Memory required for data: 531865600
I0706 22:12:23.644816  1492 layer_factory.hpp:77] Creating layer inception_5a/5x5_reduce
I0706 22:12:23.644834  1492 net.cpp:91] Creating Layer inception_5a/5x5_reduce
I0706 22:12:23.644840  1492 net.cpp:425] inception_5a/5x5_reduce <- pool4/3x3_s2_pool4/3x3_s2_0_split_2
I0706 22:12:23.644850  1492 net.cpp:399] inception_5a/5x5_reduce -> inception_5a/5x5_reduce
I0706 22:12:23.651042  1492 net.cpp:141] Setting up inception_5a/5x5_reduce
I0706 22:12:23.651059  1492 net.cpp:148] Top shape: 10 32 7 7 (15680)
I0706 22:12:23.651064  1492 net.cpp:156] Memory required for data: 531928320
I0706 22:12:23.651074  1492 layer_factory.hpp:77] Creating layer inception_5a/relu_5x5_reduce
I0706 22:12:23.651087  1492 net.cpp:91] Creating Layer inception_5a/relu_5x5_reduce
I0706 22:12:23.651093  1492 net.cpp:425] inception_5a/relu_5x5_reduce <- inception_5a/5x5_reduce
I0706 22:12:23.651100  1492 net.cpp:386] inception_5a/relu_5x5_reduce -> inception_5a/5x5_reduce (in-place)
I0706 22:12:23.651105  1488 net.cpp:141] Setting up inception_5b/3x3
I0706 22:12:23.651139  1488 net.cpp:148] Top shape: 10 384 7 7 (188160)
I0706 22:12:23.651144  1488 net.cpp:156] Memory required for data: 545789440
I0706 22:12:23.651156  1488 layer_factory.hpp:77] Creating layer inception_5b/relu_3x3
I0706 22:12:23.651170  1488 net.cpp:91] Creating Layer inception_5b/relu_3x3
I0706 22:12:23.651177  1488 net.cpp:425] inception_5b/relu_3x3 <- inception_5b/3x3
I0706 22:12:23.651185  1488 net.cpp:386] inception_5b/relu_3x3 -> inception_5b/3x3 (in-place)
I0706 22:12:23.652293  1488 net.cpp:141] Setting up inception_5b/relu_3x3
I0706 22:12:23.652309  1488 net.cpp:148] Top shape: 10 384 7 7 (188160)
I0706 22:12:23.652314  1488 net.cpp:156] Memory required for data: 546542080
I0706 22:12:23.652319  1488 layer_factory.hpp:77] Creating layer inception_5b/5x5_reduce
I0706 22:12:23.652324  1492 net.cpp:141] Setting up inception_5a/relu_5x5_reduce
I0706 22:12:23.652338  1488 net.cpp:91] Creating Layer inception_5b/5x5_reduce
I0706 22:12:23.652339  1492 net.cpp:148] Top shape: 10 32 7 7 (15680)
I0706 22:12:23.652350  1488 net.cpp:425] inception_5b/5x5_reduce <- inception_5a/output_inception_5a/output_0_split_2
I0706 22:12:23.652354  1492 net.cpp:156] Memory required for data: 531991040
I0706 22:12:23.652360  1492 layer_factory.hpp:77] Creating layer inception_5a/5x5
I0706 22:12:23.652364  1488 net.cpp:399] inception_5b/5x5_reduce -> inception_5b/5x5_reduce
I0706 22:12:23.652379  1492 net.cpp:91] Creating Layer inception_5a/5x5
I0706 22:12:23.652385  1492 net.cpp:425] inception_5a/5x5 <- inception_5a/5x5_reduce
I0706 22:12:23.652395  1492 net.cpp:399] inception_5a/5x5 -> inception_5a/5x5
I0706 22:12:23.658020  1488 net.cpp:141] Setting up inception_5b/5x5_reduce
I0706 22:12:23.658038  1488 net.cpp:148] Top shape: 10 48 7 7 (23520)
I0706 22:12:23.658043  1488 net.cpp:156] Memory required for data: 546636160
I0706 22:12:23.658053  1488 layer_factory.hpp:77] Creating layer inception_5b/relu_5x5_reduce
I0706 22:12:23.658066  1488 net.cpp:91] Creating Layer inception_5b/relu_5x5_reduce
I0706 22:12:23.658072  1488 net.cpp:425] inception_5b/relu_5x5_reduce <- inception_5b/5x5_reduce
I0706 22:12:23.658080  1488 net.cpp:386] inception_5b/relu_5x5_reduce -> inception_5b/5x5_reduce (in-place)
I0706 22:12:23.658571  1492 net.cpp:141] Setting up inception_5a/5x5
I0706 22:12:23.658588  1492 net.cpp:148] Top shape: 10 128 7 7 (62720)
I0706 22:12:23.658596  1492 net.cpp:156] Memory required for data: 532241920
I0706 22:12:23.658606  1492 layer_factory.hpp:77] Creating layer inception_5a/relu_5x5
I0706 22:12:23.658638  1492 net.cpp:91] Creating Layer inception_5a/relu_5x5
I0706 22:12:23.658645  1492 net.cpp:425] inception_5a/relu_5x5 <- inception_5a/5x5
I0706 22:12:23.658653  1492 net.cpp:386] inception_5a/relu_5x5 -> inception_5a/5x5 (in-place)
I0706 22:12:23.659406  1488 net.cpp:141] Setting up inception_5b/relu_5x5_reduce
I0706 22:12:23.659423  1488 net.cpp:148] Top shape: 10 48 7 7 (23520)
I0706 22:12:23.659427  1488 net.cpp:156] Memory required for data: 546730240
I0706 22:12:23.659432  1488 layer_factory.hpp:77] Creating layer inception_5b/5x5
I0706 22:12:23.659451  1488 net.cpp:91] Creating Layer inception_5b/5x5
I0706 22:12:23.659456  1488 net.cpp:425] inception_5b/5x5 <- inception_5b/5x5_reduce
I0706 22:12:23.659467  1488 net.cpp:399] inception_5b/5x5 -> inception_5b/5x5
I0706 22:12:23.659886  1492 net.cpp:141] Setting up inception_5a/relu_5x5
I0706 22:12:23.659904  1492 net.cpp:148] Top shape: 10 128 7 7 (62720)
I0706 22:12:23.659909  1492 net.cpp:156] Memory required for data: 532492800
I0706 22:12:23.659914  1492 layer_factory.hpp:77] Creating layer inception_5a/pool
I0706 22:12:23.659926  1492 net.cpp:91] Creating Layer inception_5a/pool
I0706 22:12:23.659932  1492 net.cpp:425] inception_5a/pool <- pool4/3x3_s2_pool4/3x3_s2_0_split_3
I0706 22:12:23.659940  1492 net.cpp:399] inception_5a/pool -> inception_5a/pool
I0706 22:12:23.661134  1492 net.cpp:141] Setting up inception_5a/pool
I0706 22:12:23.661149  1492 net.cpp:148] Top shape: 10 832 7 7 (407680)
I0706 22:12:23.661152  1492 net.cpp:156] Memory required for data: 534123520
I0706 22:12:23.661157  1492 layer_factory.hpp:77] Creating layer inception_5a/pool_proj
I0706 22:12:23.661172  1492 net.cpp:91] Creating Layer inception_5a/pool_proj
I0706 22:12:23.661178  1492 net.cpp:425] inception_5a/pool_proj <- inception_5a/pool
I0706 22:12:23.661187  1492 net.cpp:399] inception_5a/pool_proj -> inception_5a/pool_proj
I0706 22:12:23.665979  1488 net.cpp:141] Setting up inception_5b/5x5
I0706 22:12:23.666000  1488 net.cpp:148] Top shape: 10 128 7 7 (62720)
I0706 22:12:23.666005  1488 net.cpp:156] Memory required for data: 546981120
I0706 22:12:23.666015  1488 layer_factory.hpp:77] Creating layer inception_5b/relu_5x5
I0706 22:12:23.666024  1488 net.cpp:91] Creating Layer inception_5b/relu_5x5
I0706 22:12:23.666030  1488 net.cpp:425] inception_5b/relu_5x5 <- inception_5b/5x5
I0706 22:12:23.666044  1488 net.cpp:386] inception_5b/relu_5x5 -> inception_5b/5x5 (in-place)
I0706 22:12:23.667419  1492 net.cpp:141] Setting up inception_5a/pool_proj
I0706 22:12:23.667438  1492 net.cpp:148] Top shape: 10 128 7 7 (62720)
I0706 22:12:23.667443  1492 net.cpp:156] Memory required for data: 534374400
I0706 22:12:23.667453  1492 layer_factory.hpp:77] Creating layer inception_5a/relu_pool_proj
I0706 22:12:23.667465  1492 net.cpp:91] Creating Layer inception_5a/relu_pool_proj
I0706 22:12:23.667471  1492 net.cpp:425] inception_5a/relu_pool_proj <- inception_5a/pool_proj
I0706 22:12:23.667479  1492 net.cpp:386] inception_5a/relu_pool_proj -> inception_5a/pool_proj (in-place)
I0706 22:12:23.667520  1488 net.cpp:141] Setting up inception_5b/relu_5x5
I0706 22:12:23.667533  1488 net.cpp:148] Top shape: 10 128 7 7 (62720)
I0706 22:12:23.667538  1488 net.cpp:156] Memory required for data: 547232000
I0706 22:12:23.667543  1488 layer_factory.hpp:77] Creating layer inception_5b/pool
I0706 22:12:23.667557  1488 net.cpp:91] Creating Layer inception_5b/pool
I0706 22:12:23.667563  1488 net.cpp:425] inception_5b/pool <- inception_5a/output_inception_5a/output_0_split_3
I0706 22:12:23.667572  1488 net.cpp:399] inception_5b/pool -> inception_5b/pool
I0706 22:12:23.667814  1488 net.cpp:141] Setting up inception_5b/pool
I0706 22:12:23.667824  1488 net.cpp:148] Top shape: 10 832 7 7 (407680)
I0706 22:12:23.667829  1488 net.cpp:156] Memory required for data: 548862720
I0706 22:12:23.667834  1488 layer_factory.hpp:77] Creating layer inception_5b/pool_proj
I0706 22:12:23.667850  1488 net.cpp:91] Creating Layer inception_5b/pool_proj
I0706 22:12:23.667856  1488 net.cpp:425] inception_5b/pool_proj <- inception_5b/pool
I0706 22:12:23.667865  1488 net.cpp:399] inception_5b/pool_proj -> inception_5b/pool_proj
I0706 22:12:23.668067  1492 net.cpp:141] Setting up inception_5a/relu_pool_proj
I0706 22:12:23.668079  1492 net.cpp:148] Top shape: 10 128 7 7 (62720)
I0706 22:12:23.668084  1492 net.cpp:156] Memory required for data: 534625280
I0706 22:12:23.668089  1492 layer_factory.hpp:77] Creating layer inception_5a/output
I0706 22:12:23.668097  1492 net.cpp:91] Creating Layer inception_5a/output
I0706 22:12:23.668102  1492 net.cpp:425] inception_5a/output <- inception_5a/1x1
I0706 22:12:23.668108  1492 net.cpp:425] inception_5a/output <- inception_5a/3x3
I0706 22:12:23.668114  1492 net.cpp:425] inception_5a/output <- inception_5a/5x5
I0706 22:12:23.668119  1492 net.cpp:425] inception_5a/output <- inception_5a/pool_proj
I0706 22:12:23.668125  1492 net.cpp:399] inception_5a/output -> inception_5a/output
I0706 22:12:23.668334  1492 net.cpp:141] Setting up inception_5a/output
I0706 22:12:23.668345  1492 net.cpp:148] Top shape: 10 832 7 7 (407680)
I0706 22:12:23.668354  1492 net.cpp:156] Memory required for data: 536256000
I0706 22:12:23.668359  1492 layer_factory.hpp:77] Creating layer inception_5a/output_inception_5a/output_0_split
I0706 22:12:23.668365  1492 net.cpp:91] Creating Layer inception_5a/output_inception_5a/output_0_split
I0706 22:12:23.668371  1492 net.cpp:425] inception_5a/output_inception_5a/output_0_split <- inception_5a/output
I0706 22:12:23.668377  1492 net.cpp:399] inception_5a/output_inception_5a/output_0_split -> inception_5a/output_inception_5a/output_0_split_0
I0706 22:12:23.668386  1492 net.cpp:399] inception_5a/output_inception_5a/output_0_split -> inception_5a/output_inception_5a/output_0_split_1
I0706 22:12:23.668395  1492 net.cpp:399] inception_5a/output_inception_5a/output_0_split -> inception_5a/output_inception_5a/output_0_split_2
I0706 22:12:23.668406  1492 net.cpp:399] inception_5a/output_inception_5a/output_0_split -> inception_5a/output_inception_5a/output_0_split_3
I0706 22:12:23.668576  1492 net.cpp:141] Setting up inception_5a/output_inception_5a/output_0_split
I0706 22:12:23.668586  1492 net.cpp:148] Top shape: 10 832 7 7 (407680)
I0706 22:12:23.668592  1492 net.cpp:148] Top shape: 10 832 7 7 (407680)
I0706 22:12:23.668597  1492 net.cpp:148] Top shape: 10 832 7 7 (407680)
I0706 22:12:23.668602  1492 net.cpp:148] Top shape: 10 832 7 7 (407680)
I0706 22:12:23.668606  1492 net.cpp:156] Memory required for data: 542778880
I0706 22:12:23.668612  1492 layer_factory.hpp:77] Creating layer inception_5b/1x1
I0706 22:12:23.668625  1492 net.cpp:91] Creating Layer inception_5b/1x1
I0706 22:12:23.668632  1492 net.cpp:425] inception_5b/1x1 <- inception_5a/output_inception_5a/output_0_split_0
I0706 22:12:23.668642  1492 net.cpp:399] inception_5b/1x1 -> inception_5b/1x1
I0706 22:12:23.672554  1488 net.cpp:141] Setting up inception_5b/pool_proj
I0706 22:12:23.672576  1488 net.cpp:148] Top shape: 10 128 7 7 (62720)
I0706 22:12:23.672582  1488 net.cpp:156] Memory required for data: 549113600
I0706 22:12:23.672593  1488 layer_factory.hpp:77] Creating layer inception_5b/relu_pool_proj
I0706 22:12:23.672602  1488 net.cpp:91] Creating Layer inception_5b/relu_pool_proj
I0706 22:12:23.672613  1488 net.cpp:425] inception_5b/relu_pool_proj <- inception_5b/pool_proj
I0706 22:12:23.672621  1488 net.cpp:386] inception_5b/relu_pool_proj -> inception_5b/pool_proj (in-place)
I0706 22:12:23.674520  1488 net.cpp:141] Setting up inception_5b/relu_pool_proj
I0706 22:12:23.674535  1488 net.cpp:148] Top shape: 10 128 7 7 (62720)
I0706 22:12:23.674540  1488 net.cpp:156] Memory required for data: 549364480
I0706 22:12:23.674545  1488 layer_factory.hpp:77] Creating layer inception_5b/output
I0706 22:12:23.674556  1488 net.cpp:91] Creating Layer inception_5b/output
I0706 22:12:23.674561  1488 net.cpp:425] inception_5b/output <- inception_5b/1x1
I0706 22:12:23.674568  1488 net.cpp:425] inception_5b/output <- inception_5b/3x3
I0706 22:12:23.674574  1488 net.cpp:425] inception_5b/output <- inception_5b/5x5
I0706 22:12:23.674581  1488 net.cpp:425] inception_5b/output <- inception_5b/pool_proj
I0706 22:12:23.674587  1488 net.cpp:399] inception_5b/output -> inception_5b/output
I0706 22:12:23.674659  1488 net.cpp:141] Setting up inception_5b/output
I0706 22:12:23.674674  1488 net.cpp:148] Top shape: 10 1024 7 7 (501760)
I0706 22:12:23.674679  1488 net.cpp:156] Memory required for data: 551371520
I0706 22:12:23.674682  1488 layer_factory.hpp:77] Creating layer pool5/7x7_s1
I0706 22:12:23.674701  1488 net.cpp:91] Creating Layer pool5/7x7_s1
I0706 22:12:23.674706  1488 net.cpp:425] pool5/7x7_s1 <- inception_5b/output
I0706 22:12:23.674716  1488 net.cpp:399] pool5/7x7_s1 -> pool5/7x7_s1
I0706 22:12:23.675820  1488 net.cpp:141] Setting up pool5/7x7_s1
I0706 22:12:23.675837  1488 net.cpp:148] Top shape: 10 1024 1 1 (10240)
I0706 22:12:23.675843  1488 net.cpp:156] Memory required for data: 551412480
I0706 22:12:23.675848  1488 layer_factory.hpp:77] Creating layer pool5/drop_7x7_s1
I0706 22:12:23.675856  1488 net.cpp:91] Creating Layer pool5/drop_7x7_s1
I0706 22:12:23.675861  1488 net.cpp:425] pool5/drop_7x7_s1 <- pool5/7x7_s1
I0706 22:12:23.675868  1488 net.cpp:386] pool5/drop_7x7_s1 -> pool5/7x7_s1 (in-place)
I0706 22:12:23.676012  1488 net.cpp:141] Setting up pool5/drop_7x7_s1
I0706 22:12:23.676023  1488 net.cpp:148] Top shape: 10 1024 1 1 (10240)
I0706 22:12:23.676026  1488 net.cpp:156] Memory required for data: 551453440
I0706 22:12:23.676031  1488 layer_factory.hpp:77] Creating layer loss3/classifier
I0706 22:12:23.676050  1488 net.cpp:91] Creating Layer loss3/classifier
I0706 22:12:23.676055  1488 net.cpp:425] loss3/classifier <- pool5/7x7_s1
I0706 22:12:23.676064  1488 net.cpp:399] loss3/classifier -> loss3/classifier
I0706 22:12:23.679525  1492 net.cpp:141] Setting up inception_5b/1x1
I0706 22:12:23.679548  1492 net.cpp:148] Top shape: 10 384 7 7 (188160)
I0706 22:12:23.679553  1492 net.cpp:156] Memory required for data: 543531520
I0706 22:12:23.679564  1492 layer_factory.hpp:77] Creating layer inception_5b/relu_1x1
I0706 22:12:23.679577  1492 net.cpp:91] Creating Layer inception_5b/relu_1x1
I0706 22:12:23.679584  1492 net.cpp:425] inception_5b/relu_1x1 <- inception_5b/1x1
I0706 22:12:23.679592  1492 net.cpp:386] inception_5b/relu_1x1 -> inception_5b/1x1 (in-place)
I0706 22:12:23.680485  1492 net.cpp:141] Setting up inception_5b/relu_1x1
I0706 22:12:23.680511  1492 net.cpp:148] Top shape: 10 384 7 7 (188160)
I0706 22:12:23.680517  1492 net.cpp:156] Memory required for data: 544284160
I0706 22:12:23.680522  1492 layer_factory.hpp:77] Creating layer inception_5b/3x3_reduce
I0706 22:12:23.680541  1492 net.cpp:91] Creating Layer inception_5b/3x3_reduce
I0706 22:12:23.680547  1492 net.cpp:425] inception_5b/3x3_reduce <- inception_5a/output_inception_5a/output_0_split_1
I0706 22:12:23.680557  1492 net.cpp:399] inception_5b/3x3_reduce -> inception_5b/3x3_reduce
I0706 22:12:23.684494  1492 net.cpp:141] Setting up inception_5b/3x3_reduce
I0706 22:12:23.684525  1492 net.cpp:148] Top shape: 10 192 7 7 (94080)
I0706 22:12:23.684530  1492 net.cpp:156] Memory required for data: 544660480
I0706 22:12:23.684540  1492 layer_factory.hpp:77] Creating layer inception_5b/relu_3x3_reduce
I0706 22:12:23.684554  1492 net.cpp:91] Creating Layer inception_5b/relu_3x3_reduce
I0706 22:12:23.684561  1492 net.cpp:425] inception_5b/relu_3x3_reduce <- inception_5b/3x3_reduce
I0706 22:12:23.684567  1492 net.cpp:386] inception_5b/relu_3x3_reduce -> inception_5b/3x3_reduce (in-place)
I0706 22:12:23.685966  1492 net.cpp:141] Setting up inception_5b/relu_3x3_reduce
I0706 22:12:23.685992  1492 net.cpp:148] Top shape: 10 192 7 7 (94080)
I0706 22:12:23.685998  1492 net.cpp:156] Memory required for data: 545036800
I0706 22:12:23.686003  1492 layer_factory.hpp:77] Creating layer inception_5b/3x3
I0706 22:12:23.686022  1492 net.cpp:91] Creating Layer inception_5b/3x3
I0706 22:12:23.686028  1492 net.cpp:425] inception_5b/3x3 <- inception_5b/3x3_reduce
I0706 22:12:23.686036  1492 net.cpp:399] inception_5b/3x3 -> inception_5b/3x3
I0706 22:12:23.688040  1488 net.cpp:141] Setting up loss3/classifier
I0706 22:12:23.688072  1488 net.cpp:148] Top shape: 10 1000 (10000)
I0706 22:12:23.688077  1488 net.cpp:156] Memory required for data: 551493440
I0706 22:12:23.688087  1488 layer_factory.hpp:77] Creating layer prob
I0706 22:12:23.688102  1488 net.cpp:91] Creating Layer prob
I0706 22:12:23.688108  1488 net.cpp:425] prob <- loss3/classifier
I0706 22:12:23.688115  1488 net.cpp:399] prob -> prob
I0706 22:12:23.689085  1488 net.cpp:141] Setting up prob
I0706 22:12:23.689113  1488 net.cpp:148] Top shape: 10 1000 (10000)
I0706 22:12:23.689119  1488 net.cpp:156] Memory required for data: 551533440
I0706 22:12:23.689126  1488 net.cpp:219] prob does not need backward computation.
I0706 22:12:23.689131  1488 net.cpp:219] loss3/classifier does not need backward computation.
I0706 22:12:23.689136  1488 net.cpp:219] pool5/drop_7x7_s1 does not need backward computation.
I0706 22:12:23.689139  1488 net.cpp:219] pool5/7x7_s1 does not need backward computation.
…
I0706 22:12:23.689832  1488 net.cpp:219] pool1/3x3_s2 does not need backward computation.
I0706 22:12:23.689837  1488 net.cpp:219] conv1/relu_7x7 does not need backward computation.
I0706 22:12:23.689842  1488 net.cpp:219] conv1/7x7_s2 does not need backward computation.
I0706 22:12:23.689846  1488 net.cpp:219] data does not need backward computation.
I0706 22:12:23.689851  1488 net.cpp:261] This network produces output prob
I0706 22:12:23.689978  1488 net.cpp:274] Network initialization done.
I0706 22:12:23.696512  1492 net.cpp:141] Setting up inception_5b/3x3
I0706 22:12:23.696550  1492 net.cpp:148] Top shape: 10 384 7 7 (188160)
I0706 22:12:23.696557  1492 net.cpp:156] Memory required for data: 545789440
I0706 22:12:23.696570  1492 layer_factory.hpp:77] Creating layer inception_5b/relu_3x3
I0706 22:12:23.696586  1492 net.cpp:91] Creating Layer inception_5b/relu_3x3
I0706 22:12:23.696597  1492 net.cpp:425] inception_5b/relu_3x3 <- inception_5b/3x3
I0706 22:12:23.696606  1492 net.cpp:386] inception_5b/relu_3x3 -> inception_5b/3x3 (in-place)
I0706 22:12:23.697964  1492 net.cpp:141] Setting up inception_5b/relu_3x3
I0706 22:12:23.697983  1492 net.cpp:148] Top shape: 10 384 7 7 (188160)
I0706 22:12:23.697988  1492 net.cpp:156] Memory required for data: 546542080
I0706 22:12:23.697993  1492 layer_factory.hpp:77] Creating layer inception_5b/5x5_reduce
I0706 22:12:23.698011  1492 net.cpp:91] Creating Layer inception_5b/5x5_reduce
I0706 22:12:23.698017  1492 net.cpp:425] inception_5b/5x5_reduce <- inception_5a/output_inception_5a/output_0_split_2
I0706 22:12:23.698030  1492 net.cpp:399] inception_5b/5x5_reduce -> inception_5b/5x5_reduce
I0706 22:12:23.701227  1492 net.cpp:141] Setting up inception_5b/5x5_reduce
I0706 22:12:23.701258  1492 net.cpp:148] Top shape: 10 48 7 7 (23520)
I0706 22:12:23.701263  1492 net.cpp:156] Memory required for data: 546636160
I0706 22:12:23.701275  1492 layer_factory.hpp:77] Creating layer inception_5b/relu_5x5_reduce
I0706 22:12:23.701287  1492 net.cpp:91] Creating Layer inception_5b/relu_5x5_reduce
I0706 22:12:23.701295  1492 net.cpp:425] inception_5b/relu_5x5_reduce <- inception_5b/5x5_reduce
I0706 22:12:23.701306  1492 net.cpp:386] inception_5b/relu_5x5_reduce -> inception_5b/5x5_reduce (in-place)
I0706 22:12:23.701592  1492 net.cpp:141] Setting up inception_5b/relu_5x5_reduce
I0706 22:12:23.701606  1492 net.cpp:148] Top shape: 10 48 7 7 (23520)
I0706 22:12:23.701611  1492 net.cpp:156] Memory required for data: 546730240
I0706 22:12:23.701616  1492 layer_factory.hpp:77] Creating layer inception_5b/5x5
I0706 22:12:23.701633  1492 net.cpp:91] Creating Layer inception_5b/5x5
I0706 22:12:23.701639  1492 net.cpp:425] inception_5b/5x5 <- inception_5b/5x5_reduce
I0706 22:12:23.701648  1492 net.cpp:399] inception_5b/5x5 -> inception_5b/5x5
I0706 22:12:23.707124  1492 net.cpp:141] Setting up inception_5b/5x5
I0706 22:12:23.707157  1492 net.cpp:148] Top shape: 10 128 7 7 (62720)
I0706 22:12:23.707164  1492 net.cpp:156] Memory required for data: 546981120
I0706 22:12:23.707176  1492 layer_factory.hpp:77] Creating layer inception_5b/relu_5x5
I0706 22:12:23.707190  1492 net.cpp:91] Creating Layer inception_5b/relu_5x5
I0706 22:12:23.707196  1492 net.cpp:425] inception_5b/relu_5x5 <- inception_5b/5x5
I0706 22:12:23.707211  1492 net.cpp:386] inception_5b/relu_5x5 -> inception_5b/5x5 (in-place)
I0706 22:12:23.708096  1492 net.cpp:141] Setting up inception_5b/relu_5x5
I0706 22:12:23.708112  1492 net.cpp:148] Top shape: 10 128 7 7 (62720)
I0706 22:12:23.708115  1492 net.cpp:156] Memory required for data: 547232000
I0706 22:12:23.708120  1492 layer_factory.hpp:77] Creating layer inception_5b/pool
I0706 22:12:23.708134  1492 net.cpp:91] Creating Layer inception_5b/pool
I0706 22:12:23.708142  1492 net.cpp:425] inception_5b/pool <- inception_5a/output_inception_5a/output_0_split_3
I0706 22:12:23.708150  1492 net.cpp:399] inception_5b/pool -> inception_5b/pool
I0706 22:12:23.708226  1492 net.cpp:141] Setting up inception_5b/pool
I0706 22:12:23.708235  1492 net.cpp:148] Top shape: 10 832 7 7 (407680)
I0706 22:12:23.708240  1492 net.cpp:156] Memory required for data: 548862720
I0706 22:12:23.708245  1492 layer_factory.hpp:77] Creating layer inception_5b/pool_proj
I0706 22:12:23.708261  1492 net.cpp:91] Creating Layer inception_5b/pool_proj
I0706 22:12:23.708266  1492 net.cpp:425] inception_5b/pool_proj <- inception_5b/pool
I0706 22:12:23.708277  1492 net.cpp:399] inception_5b/pool_proj -> inception_5b/pool_proj
I0706 22:12:23.711071  1492 net.cpp:141] Setting up inception_5b/pool_proj
I0706 22:12:23.711091  1492 net.cpp:148] Top shape: 10 128 7 7 (62720)
I0706 22:12:23.711096  1492 net.cpp:156] Memory required for data: 549113600
I0706 22:12:23.711105  1492 layer_factory.hpp:77] Creating layer inception_5b/relu_pool_proj
I0706 22:12:23.711114  1492 net.cpp:91] Creating Layer inception_5b/relu_pool_proj
I0706 22:12:23.711120  1492 net.cpp:425] inception_5b/relu_pool_proj <- inception_5b/pool_proj
I0706 22:12:23.711129  1492 net.cpp:386] inception_5b/relu_pool_proj -> inception_5b/pool_proj (in-place)
I0706 22:12:23.711982  1492 net.cpp:141] Setting up inception_5b/relu_pool_proj
I0706 22:12:23.711997  1492 net.cpp:148] Top shape: 10 128 7 7 (62720)
I0706 22:12:23.712002  1492 net.cpp:156] Memory required for data: 549364480
I0706 22:12:23.712007  1492 layer_factory.hpp:77] Creating layer inception_5b/output
I0706 22:12:23.712015  1492 net.cpp:91] Creating Layer inception_5b/output
I0706 22:12:23.712021  1492 net.cpp:425] inception_5b/output <- inception_5b/1x1
I0706 22:12:23.712028  1492 net.cpp:425] inception_5b/output <- inception_5b/3x3
I0706 22:12:23.712033  1492 net.cpp:425] inception_5b/output <- inception_5b/5x5
I0706 22:12:23.712038  1492 net.cpp:425] inception_5b/output <- inception_5b/pool_proj
I0706 22:12:23.712049  1492 net.cpp:399] inception_5b/output -> inception_5b/output
I0706 22:12:23.712088  1492 net.cpp:141] Setting up inception_5b/output
I0706 22:12:23.712097  1492 net.cpp:148] Top shape: 10 1024 7 7 (501760)
I0706 22:12:23.712101  1492 net.cpp:156] Memory required for data: 551371520
I0706 22:12:23.712105  1492 layer_factory.hpp:77] Creating layer pool5/7x7_s1
I0706 22:12:23.712127  1492 net.cpp:91] Creating Layer pool5/7x7_s1
I0706 22:12:23.712134  1492 net.cpp:425] pool5/7x7_s1 <- inception_5b/output
I0706 22:12:23.712143  1492 net.cpp:399] pool5/7x7_s1 -> pool5/7x7_s1
I0706 22:12:23.712445  1492 net.cpp:141] Setting up pool5/7x7_s1
I0706 22:12:23.712457  1492 net.cpp:148] Top shape: 10 1024 1 1 (10240)
I0706 22:12:23.712461  1492 net.cpp:156] Memory required for data: 551412480
I0706 22:12:23.712466  1492 layer_factory.hpp:77] Creating layer pool5/drop_7x7_s1
I0706 22:12:23.712477  1492 net.cpp:91] Creating Layer pool5/drop_7x7_s1
I0706 22:12:23.712483  1492 net.cpp:425] pool5/drop_7x7_s1 <- pool5/7x7_s1
I0706 22:12:23.712488  1492 net.cpp:386] pool5/drop_7x7_s1 -> pool5/7x7_s1 (in-place)
I0706 22:12:23.712524  1492 net.cpp:141] Setting up pool5/drop_7x7_s1
I0706 22:12:23.712533  1492 net.cpp:148] Top shape: 10 1024 1 1 (10240)
I0706 22:12:23.712538  1492 net.cpp:156] Memory required for data: 551453440
I0706 22:12:23.712541  1492 layer_factory.hpp:77] Creating layer loss3/classifier
I0706 22:12:23.712551  1492 net.cpp:91] Creating Layer loss3/classifier
I0706 22:12:23.712556  1492 net.cpp:425] loss3/classifier <- pool5/7x7_s1
I0706 22:12:23.712565  1492 net.cpp:399] loss3/classifier -> loss3/classifier
I0706 22:12:23.723682  1492 net.cpp:141] Setting up loss3/classifier
I0706 22:12:23.723731  1492 net.cpp:148] Top shape: 10 1000 (10000)
I0706 22:12:23.723737  1492 net.cpp:156] Memory required for data: 551493440
I0706 22:12:23.723753  1492 layer_factory.hpp:77] Creating layer prob
I0706 22:12:23.723773  1492 net.cpp:91] Creating Layer prob
I0706 22:12:23.723783  1492 net.cpp:425] prob <- loss3/classifier
I0706 22:12:23.723793  1492 net.cpp:399] prob -> prob
I0706 22:12:23.725749  1492 net.cpp:141] Setting up prob
I0706 22:12:23.725769  1492 net.cpp:148] Top shape: 10 1000 (10000)
I0706 22:12:23.725775  1492 net.cpp:156] Memory required for data: 551533440
I0706 22:12:23.725780  1492 net.cpp:219] prob does not need backward computation.
I0706 22:12:23.725785  1492 net.cpp:219] loss3/classifier does not need backward computation.
I0706 22:12:23.725790  1492 net.cpp:219] pool5/drop_7x7_s1 does not need backward computation.
I0706 22:12:23.725795  1492 net.cpp:219] pool5/7x7_s1 does not need backward computation.
…
