…
W0924 03:05:37.251483 14574 upgrade_proto.cpp:71] Note that future Caffe releases will only support input layers and not input fields.
I0924 03:05:37.251794 14608 net.cpp:49] Initializing net from parameters: 
name: "s2vt:features_to_lstm"
state {
  phase: TEST
}
layer {
  name: "input"
  type: "Input"
  top: "frames_fc7"
  top: "cont_sentence"
  top: "input_sentence"
  top: "stage_indicator"
  input_param {
    shape {
      dim: 1
      dim: 4096
    }
    shape {
      dim: 1
      dim: 1
    }
    shape {
      dim: 1
      dim: 1
    }
    shape {
      dim: 1
      dim: 1
    }
  }
}
layer {
  name: "embed_encoder"
  type: "InnerProduct"
  bottom: "frames_fc7"
  top: "embedded_in_frames"
  param {
    lr_mult: 1
    decay_mult: 1
  }
  param {
    lr_mult: 2
    decay_mult: 0
  }
  inner_product_param {
    num_output: 500
    weight_filler {
      type: "xavier"
    }
    bias_filler {
      type: "constant"
      value: 0.2
    }
  }
}
layer {
  name: "reshape_frames"
  type: "Reshape"
  bottom: "embedded_in_frames"
  top: "embedded_input_frames"
  reshape_param {
    shape {
      dim: 1
      dim: 1
      dim: 500
    }
  }
}
layer {
  name: "reshape_stage_indicator"
  type: "Reshape"
  bottom: "stage_indicator"
  top: "reshaped_stage_indicator"
  reshape_param {
    shape {
      dim: 1
      dim: 1
      dim: 1
    }
  }
}
layer {
  name: "embedding"
  type: "Embed"
  bottom: "input_sentence"
  top: "embedded_input_sentence"
  param {
    lr_mult: 1
  }
  embed_param {
    num_output: 500
    input_dim: 46168
    bias_term: false
    weight_filler {
      type: "uniform"
      min: -0.08
      max: 0.08
    }
  }
}
layer {
  name: "lstm1"
  type: "LSTM"
  bottom: "embedded_input_frames"
  bottom: "cont_sentence"
  top: "lstm1"
  recurrent_param {
    num_output: 1000
    weight_filler {
      type: "uniform"
      min: -0.08
      max: 0.08
    }
    bias_filler {
      type: "constant"
      value: 0
    }
  }
}
layer {
  name: "concat"
  type: "Concat"
  bottom: "lstm1"
  bottom: "embedded_input_sentence"
  bottom: "reshaped_stage_indicator"
  top: "lstm1_video_sequence"
  concat_param {
    concat_dim: 2
  }
}
layer {
  name: "lstm2"
  type: "LSTM"
  bottom: "lstm1_video_sequence"
  bottom: "cont_sentence"
  top: "lstm2"
  recurrent_param {
    num_output: 1000
    weight_filler {
      type: "uniform"
      min: -0.08
      max: 0.08
    }
    bias_filler {
      type: "constant"
      value: 0
    }
  }
}
layer {
  name: "predict"
  type: "InnerProduct"
  bottom: "lstm2"
  top: "predict"
  param {
    lr_mult: 1
    decay_mult: 1
  }
  param {
    lr_mult: 2
    decay_mult: 0
  }
  inner_product_param {
    num_output: 46168
    weight_filler {
      type: "uniform"
      min: -0.08
      max: 0.08
    }
    bias_filler {
      type: "constant"
      value: 0
    }
    axis: 2
  }
}
layer {
  name: "probs"
  type: "Softmax"
  bottom: "predict"
  top: "probs"
  softmax_param {
    axis: 2
  }
}
I0924 03:05:37.251807 14576 net.cpp:49] Initializing net from parameters: 
name: "s2vt:features_to_lstm"
state {
  phase: TEST
}
layer {
  name: "input"
  type: "Input"
  top: "frames_fc7"
  top: "cont_sentence"
  top: "input_sentence"
  top: "stage_indicator"
  input_param {
    shape {
      dim: 1
      dim: 4096
    }
    shape {
      dim: 1
      dim: 1
    }
    shape {
      dim: 1
      dim: 1
    }
    shape {
      dim: 1
      dim: 1
    }
  }
}
layer {
  name: "embed_encoder"
  type: "InnerProduct"
  bottom: "frames_fc7"
  top: "embedded_in_frames"
  param {
    lr_mult: 1
    decay_mult: 1
  }
  param {
    lr_mult: 2
    decay_mult: 0
  }
  inner_product_param {
    num_output: 500
    weight_filler {
      type: "xavier"
    }
    bias_filler {
      type: "constant"
      value: 0.2
    }
  }
}
layer {
  name: "reshape_frames"
  type: "Reshape"
  bottom: "embedded_in_frames"
  top: "embedded_input_frames"
  reshape_param {
    shape {
      dim: 1
      dim: 1
      dim: 500
    }
  }
}
layer {
  name: "reshape_stage_indicator"
  type: "Reshape"
  bottom: "stage_indicator"
  top: "reshaped_stage_indicator"
  reshape_param {
    shape {
      dim: 1
      dim: 1
      dim: 1
    }
  }
}
layer {
  name: "embedding"
  type: "Embed"
  bottom: "input_sentence"
  top: "embedded_input_sentence"
  param {
    lr_mult: 1
  }
  embed_param {
    num_output: 500
    input_dim: 46168
    bias_term: false
    weight_filler {
      type: "uniform"
      min: -0.08
      max: 0.08
    }
  }
}
layer {
  name: "lstm1"
  type: "LSTM"
  bottom: "embedded_input_frames"
  bottom: "cont_sentence"
  top: "lstm1"
  recurrent_param {
    num_output: 1000
    weight_filler {
      type: "uniform"
      min: -0.08
      max: 0.08
    }
    bias_filler {
      type: "constant"
      value: 0
    }
  }
}
layer {
  name: "concat"
  type: "Concat"
  bottom: "lstm1"
  bottom: "embedded_input_sentence"
  bottom: "reshaped_stage_indicator"
  top: "lstm1_video_sequence"
  concat_param {
    concat_dim: 2
  }
}
layer {
  name: "lstm2"
  type: "LSTM"
  bottom: "lstm1_video_sequence"
  bottom: "cont_sentence"
  top: "lstm2"
  recurrent_param {
    num_output: 1000
    weight_filler {
      type: "uniform"
      min: -0.08
      max: 0.08
    }
    bias_filler {
      type: "constant"
      value: 0
    }
  }
}
layer {
  name: "predict"
  type: "InnerProduct"
  bottom: "lstm2"
  top: "predict"
  param {
    lr_mult: 1
    decay_mult: 1
  }
  param {
    lr_mult: 2
    decay_mult: 0
  }
  inner_product_param {
    num_output: 46168
    weight_filler {
      type: "uniform"
      min: -0.08
      max: 0.08
    }
    bias_filler {
      type: "constant"
      value: 0
    }
    axis: 2
  }
}
layer {
  name: "probs"
  type: "Softmax"
  bottom: "predict"
  top: "probs"
  softmax_param {
    axis: 2
  }
}
I0924 03:05:37.251842 14584 net.cpp:49] Initializing net from parameters: 
name: "s2vt:features_to_lstm"
state {
  phase: TEST
}
layer {
  name: "input"
  type: "Input"
  top: "frames_fc7"
  top: "cont_sentence"
  top: "input_sentence"
  top: "stage_indicator"
  input_param {
    shape {
      dim: 1
      dim: 4096
    }
    shape {
      dim: 1
      dim: 1
    }
    shape {
      dim: 1
      dim: 1
    }
    shape {
      dim: 1
      dim: 1
    }
  }
}
layer {
  name: "embed_encoder"
  type: "InnerProduct"
  bottom: "frames_fc7"
  top: "embedded_in_frames"
  param {
    lr_mult: 1
    decay_mult: 1
  }
  param {
    lr_mult: 2
    decay_mult: 0
  }
  inner_product_param {
    num_output: 500
    weight_filler {
      type: "xavier"
    }
    bias_filler {
      type: "constant"
      value: 0.2
    }
  }
}
layer {
  name: "reshape_frames"
  type: "Reshape"
  bottom: "embedded_in_frames"
  top: "embedded_input_frames"
  reshape_param {
    shape {
      dim: 1
      dim: 1
      dim: 500
    }
  }
}
layer {
  name: "reshape_stage_indicator"
  type: "Reshape"
  bottom: "stage_indicator"
  top: "reshaped_stage_indicator"
  reshape_param {
    shape {
      dim: 1
      dim: 1
      dim: 1
    }
  }
}
layer {
  name: "embedding"
  type: "Embed"
  bottom: "input_sentence"
  top: "embedded_input_sentence"
  param {
    lr_mult: 1
  }
  embed_param {
    num_output: 500
    input_dim: 46168
    bias_term: false
    weight_filler {
      type: "uniform"
      min: -0.08
      max: 0.08
    }
  }
}
layer {
  name: "lstm1"
  type: "LSTM"
  bottom: "embedded_input_frames"
  bottom: "cont_sentence"
  top: "lstm1"
  recurrent_param {
    num_output: 1000
    weight_filler {
      type: "uniform"
      min: -0.08
      max: 0.08
    }
    bias_filler {
      type: "constant"
      value: 0
    }
  }
}
layer {
  name: "concat"
  type: "Concat"
  bottom: "lstm1"
  bottom: "embedded_input_sentence"
  bottom: "reshaped_stage_indicator"
  top: "lstm1_video_sequence"
  concat_param {
    concat_dim: 2
  }
}
layer {
  name: "lstm2"
  type: "LSTM"
  bottom: "lstm1_video_sequence"
  bottom: "cont_sentence"
  top: "lstm2"
  recurrent_param {
    num_output: 1000
    weight_filler {
      type: "uniform"
      min: -0.08
      max: 0.08
    }
    bias_filler {
      type: "constant"
      value: 0
    }
  }
}
layer {
  name: "predict"
  type: "InnerProduct"
  bottom: "lstm2"
  top: "predict"
  param {
    lr_mult: 1
    decay_mult: 1
  }
  param {
    lr_mult: 2
    decay_mult: 0
  }
  inner_product_param {
    num_output: 46168
    weight_filler {
      type: "uniform"
      min: -0.08
      max: 0.08
    }
    bias_filler {
      type: "constant"
      value: 0
    }
    axis: 2
  }
}
layer {
  name: "probs"
  type: "Softmax"
  bottom: "predict"
  top: "probs"
  softmax_param {
    axis: 2
  }
}
I0924 03:05:37.251847 14578 net.cpp:49] Initializing net from parameters: 
name: "s2vt:features_to_lstm"
state {
  phase: TEST
}
layer {
  name: "input"
  type: "Input"
  top: "frames_fc7"
  top: "cont_sentence"
  top: "input_sentence"
  top: "stage_indicator"
  input_param {
    shape {
      dim: 1
      dim: 4096
    }
    shape {
      dim: 1
      dim: 1
    }
    shape {
      dim: 1
      dim: 1
    }
    shape {
      dim: 1
      dim: 1
    }
  }
}
layer {
  name: "embed_encoder"
  type: "InnerProduct"
  bottom: "frames_fc7"
  top: "embedded_in_frames"
  param {
    lr_mult: 1
    decay_mult: 1
  }
  param {
    lr_mult: 2
    decay_mult: 0
  }
  inner_product_param {
    num_output: 500
    weight_filler {
      type: "xavier"
    }
    bias_filler {
      type: "constant"
      value: 0.2
    }
  }
}
layer {
  name: "reshape_frames"
  type: "Reshape"
  bottom: "embedded_in_frames"
  top: "embedded_input_frames"
  reshape_param {
    shape {
      dim: 1
      dim: 1
      dim: 500
    }
  }
}
layer {
  name: "reshape_stage_indicator"
  type: "Reshape"
  bottom: "stage_indicator"
  top: "reshaped_stage_indicator"
  reshape_param {
    shape {
      dim: 1
      dim: 1
      dim: 1
    }
  }
}
layer {
  name: "embedding"
  type: "Embed"
  bottom: "input_sentence"
  top: "embedded_input_sentence"
  param {
    lr_mult: 1
  }
  embed_param {
    num_output: 500
    input_dim: 46168
    bias_term: false
    weight_filler {
      type: "uniform"
      min: -0.08
      max: 0.08
    }
  }
}
layer {
  name: "lstm1"
  type: "LSTM"
  bottom: "embedded_input_frames"
  bottom: "cont_sentence"
  top: "lstm1"
  recurrent_param {
    num_output: 1000
    weight_filler {
      type: "uniform"
      min: -0.08
      max: 0.08
    }
    bias_filler {
      type: "constant"
      value: 0
    }
  }
}
layer {
  name: "concat"
  type: "Concat"
  bottom: "lstm1"
  bottom: "embedded_input_sentence"
  bottom: "reshaped_stage_indicator"
  top: "lstm1_video_sequence"
  concat_param {
    concat_dim: 2
  }
}
layer {
  name: "lstm2"
  type: "LSTM"
  bottom: "lstm1_video_sequence"
  bottom: "cont_sentence"
  top: "lstm2"
  recurrent_param {
    num_output: 1000
    weight_filler {
      type: "uniform"
      min: -0.08
      max: 0.08
    }
    bias_filler {
      type: "constant"
      value: 0
    }
  }
}
layer {
  name: "predict"
  type: "InnerProduct"
  bottom: "lstm2"
  top: "predict"
  param {
    lr_mult: 1
    decay_mult: 1
  }
  param {
    lr_mult: 2
    decay_mult: 0
  }
  inner_product_param {
    num_output: 46168
    weight_filler {
      type: "uniform"
      min: -0.08
      max: 0.08
    }
    bias_filler {
      type: "constant"
      value: 0
    }
    axis: 2
  }
}
layer {
  name: "probs"
  type: "Softmax"
  bottom: "predict"
  top: "probs"
  softmax_param {
    axis: 2
  }
}
I0924 03:05:37.251857 14574 net.cpp:49] Initializing net from parameters: 
name: "s2vt:features_to_lstm"
state {
  phase: TEST
}
layer {
  name: "input"
  type: "Input"
  top: "frames_fc7"
  top: "cont_sentence"
  top: "input_sentence"
  top: "stage_indicator"
  input_param {
    shape {
      dim: 1
      dim: 4096
    }
    shape {
      dim: 1
      dim: 1
    }
    shape {
      dim: 1
      dim: 1
    }
    shape {
      dim: 1
      dim: 1
    }
  }
}
layer {
  name: "embed_encoder"
  type: "InnerProduct"
  bottom: "frames_fc7"
  top: "embedded_in_frames"
  param {
    lr_mult: 1
    decay_mult: 1
  }
  param {
    lr_mult: 2
    decay_mult: 0
  }
  inner_product_param {
    num_output: 500
    weight_filler {
      type: "xavier"
    }
    bias_filler {
      type: "constant"
      value: 0.2
    }
  }
}
layer {
  name: "reshape_frames"
  type: "Reshape"
  bottom: "embedded_in_frames"
  top: "embedded_input_frames"
  reshape_param {
    shape {
      dim: 1
      dim: 1
      dim: 500
    }
  }
}
layer {
  name: "reshape_stage_indicator"
  type: "Reshape"
  bottom: "stage_indicator"
  top: "reshaped_stage_indicator"
  reshape_param {
    shape {
      dim: 1
      dim: 1
      dim: 1
    }
  }
}
layer {
  name: "embedding"
  type: "Embed"
  bottom: "input_sentence"
  top: "embedded_input_sentence"
  param {
    lr_mult: 1
  }
  embed_param {
    num_output: 500
    input_dim: 46168
    bias_term: false
    weight_filler {
      type: "uniform"
      min: -0.08
      max: 0.08
    }
  }
}
layer {
  name: "lstm1"
  type: "LSTM"
  bottom: "embedded_input_frames"
  bottom: "cont_sentence"
  top: "lstm1"
  recurrent_param {
    num_output: 1000
    weight_filler {
      type: "uniform"
      min: -0.08
      max: 0.08
    }
    bias_filler {
      type: "constant"
      value: 0
    }
  }
}
layer {
  name: "concat"
  type: "Concat"
  bottom: "lstm1"
  bottom: "embedded_input_sentence"
  bottom: "reshaped_stage_indicator"
  top: "lstm1_video_sequence"
  concat_param {
    concat_dim: 2
  }
}
layer {
  name: "lstm2"
  type: "LSTM"
  bottom: "lstm1_video_sequence"
  bottom: "cont_sentence"
  top: "lstm2"
  recurrent_param {
    num_output: 1000
    weight_filler {
      type: "uniform"
      min: -0.08
      max: 0.08
    }
    bias_filler {
      type: "constant"
      value: 0
    }
  }
}
layer {
  name: "predict"
  type: "InnerProduct"
  bottom: "lstm2"
  top: "predict"
  param {
    lr_mult: 1
    decay_mult: 1
  }
  param {
    lr_mult: 2
    decay_mult: 0
  }
  inner_product_param {
    num_output: 46168
    weight_filler {
      type: "uniform"
      min: -0.08
      max: 0.08
    }
    bias_filler {
      type: "constant"
      value: 0
    }
    axis: 2
  }
}
layer {
  name: "probs"
  type: "Softmax"
  bottom: "predict"
  top: "probs"
  softmax_param {
    axis: 2
  }
}
I0924 03:05:37.251989 14584 layer_factory.hpp:77] Creating layer input
I0924 03:05:37.251996 14608 layer_factory.hpp:77] Creating layer input
I0924 03:05:37.251991 14574 layer_factory.hpp:77] Creating layer input
I0924 03:05:37.251991 14578 layer_factory.hpp:77] Creating layer input
I0924 03:05:37.251989 14576 layer_factory.hpp:77] Creating layer input
…
I0924 03:05:37.252154 14574 net.cpp:399] input -> input_sentence
I0924 03:05:37.252161 14576 net.cpp:399] input -> stage_indicator
I0924 03:05:37.252166 14578 net.cpp:399] input -> stage_indicator
I0924 03:05:37.252154 14584 net.cpp:399] input -> stage_indicator
I0924 03:05:37.252180 14574 net.cpp:399] input -> stage_indicator
I0924 03:05:37.252426 14600 net.cpp:49] Initializing net from parameters: 
name: "CaffeNet"
state {
  phase: TEST
}
layer {
  name: "data"
  type: "Input"
  top: "data"
  input_param {
    shape {
      dim: 10
      dim: 3
      dim: 227
      dim: 227
    }
  }
}
layer {
  name: "conv1"
  type: "Convolution"
  bottom: "data"
  top: "conv1"
  convolution_param {
    num_output: 96
    kernel_size: 11
    stride: 4
  }
}
layer {
  name: "relu1"
  type: "ReLU"
  bottom: "conv1"
  top: "conv1"
}
layer {
  name: "pool1"
  type: "Pooling"
  bottom: "conv1"
  top: "pool1"
  pooling_param {
    pool: MAX
    kernel_size: 3
    stride: 2
  }
}
layer {
  name: "norm1"
  type: "LRN"
  bottom: "pool1"
  top: "norm1"
  lrn_param {
    local_size: 5
    alpha: 0.0001
    beta: 0.75
  }
}
layer {
  name: "conv2"
  type: "Convolution"
  bottom: "norm1"
  top: "conv2"
  convolution_param {
    num_output: 256
    pad: 2
    kernel_size: 5
    group: 2
  }
}
layer {
  name: "relu2"
  type: "ReLU"
  bottom: "conv2"
  top: "conv2"
}
layer {
  name: "pool2"
  type: "Pooling"
  bottom: "conv2"
  top: "pool2"
  pooling_param {
    pool: MAX
    kernel_size: 3
    stride: 2
  }
}
layer {
  name: "norm2"
  type: "LRN"
  bottom: "pool2"
  top: "norm2"
  lrn_param {
    local_size: 5
    alpha: 0.0001
    beta: 0.75
  }
}
layer {
  name: "conv3"
  type: "Convolution"
  bottom: "norm2"
  top: "conv3"
  convolution_param {
    num_output: 384
    pad: 1
    kernel_size: 3
  }
}
layer {
  name: "relu3"
  type: "ReLU"
  bottom: "conv3"
  top: "conv3"
}
layer {
  name: "conv4"
  type: "Convolution"
  bottom: "conv3"
  top: "conv4"
  convolution_param {
    num_output: 384
    pad: 1
    kernel_size: 3
    group: 2
  }
}
layer {
  name: "relu4"
  type: "ReLU"
  bottom: "conv4"
  top: "conv4"
}
layer {
  name: "conv5"
  type: "Convolution"
  bottom: "conv4"
  top: "conv5"
  convolution_param {
    num_output: 256
    pad: 1
    kernel_size: 3
    group: 2
  }
}
layer {
  name: "relu5"
  type: "ReLU"
  bottom: "conv5"
  top: "conv5"
}
layer {
  name: "pool5"
  type: "Pooling"
  bottom: "conv5"
  top: "pool5"
  pooling_param {
    pool: MAX
    kernel_size: 3
    stride: 2
  }
}
layer {
  name: "fc6"
  type: "InnerProduct"
  bottom: "pool5"
  top: "fc6"
  inner_product_param {
    num_output: 4096
  }
}
layer {
  name: "relu6"
  type: "ReLU"
  bottom: "fc6"
  top: "fc6"
}
layer {
  name: "drop6"
  type: "Dropout"
  bottom: "fc6"
  top: "fc6"
  dropout_param {
    dropout_ratio: 0.5
  }
}
layer {
  name: "fc7"
  type: "InnerProduct"
  bottom: "fc6"
  top: "fc7"
  inner_product_param {
    num_output: 4096
  }
}
layer {
  name: "relu7"
  type: "ReLU"
  bottom: "fc7"
  top: "fc7"
}
layer {
  name: "drop7"
  type: "Dropout"
  bottom: "fc7"
  top: "fc7"
  dropout_param {
    dropout_ratio: 0.5
  }
}
layer {
  name: "fc8"
  type: "InnerProduct"
  bottom: "fc7"
  top: "fc8"
  inner_product_param {
    num_output: 1000
  }
}
layer {
  name: "prob"
  type: "Softmax"
  bottom: "fc8"
  top: "prob"
}
I0924 03:05:37.252516 14600 layer_factory.hpp:77] Creating layer data
I0924 03:05:37.252527 14600 net.cpp:91] Creating Layer data
I0924 03:05:37.252534 14600 net.cpp:399] data -> data
I0924 03:05:37.252707 14602 net.cpp:49] Initializing net from parameters: 
name: "s2vt:features_to_lstm"
state {
  phase: TEST
}
layer {
  name: "input"
  type: "Input"
  top: "frames_fc7"
  top: "cont_sentence"
  top: "input_sentence"
  top: "stage_indicator"
  input_param {
    shape {
      dim: 1
      dim: 4096
    }
    shape {
      dim: 1
      dim: 1
    }
    shape {
      dim: 1
      dim: 1
    }
    shape {
      dim: 1
      dim: 1
    }
  }
}
layer {
  name: "embed_encoder"
  type: "InnerProduct"
  bottom: "frames_fc7"
  top: "embedded_in_frames"
  param {
    lr_mult: 1
    decay_mult: 1
  }
  param {
    lr_mult: 2
    decay_mult: 0
  }
  inner_product_param {
    num_output: 500
    weight_filler {
      type: "xavier"
    }
    bias_filler {
      type: "constant"
      value: 0.2
    }
  }
}
layer {
  name: "reshape_frames"
  type: "Reshape"
  bottom: "embedded_in_frames"
  top: "embedded_input_frames"
  reshape_param {
    shape {
      dim: 1
      dim: 1
      dim: 500
    }
  }
}
layer {
  name: "reshape_stage_indicator"
  type: "Reshape"
  bottom: "stage_indicator"
  top: "reshaped_stage_indicator"
  reshape_param {
    shape {
      dim: 1
      dim: 1
      dim: 1
    }
  }
}
layer {
  name: "embedding"
  type: "Embed"
  bottom: "input_sentence"
  top: "embedded_input_sentence"
  param {
    lr_mult: 1
  }
  embed_param {
    num_output: 500
    input_dim: 46168
    bias_term: false
    weight_filler {
      type: "uniform"
      min: -0.08
      max: 0.08
    }
  }
}
layer {
  name: "lstm1"
  type: "LSTM"
  bottom: "embedded_input_frames"
  bottom: "cont_sentence"
  top: "lstm1"
  recurrent_param {
    num_output: 1000
    weight_filler {
      type: "uniform"
      min: -0.08
      max: 0.08
    }
    bias_filler {
      type: "constant"
      value: 0
    }
  }
}
layer {
  name: "concat"
  type: "Concat"
  bottom: "lstm1"
  bottom: "embedded_input_sentence"
  bottom: "reshaped_stage_indicator"
  top: "lstm1_video_sequence"
  concat_param {
    concat_dim: 2
  }
}
layer {
  name: "lstm2"
  type: "LSTM"
  bottom: "lstm1_video_sequence"
  bottom: "cont_sentence"
  top: "lstm2"
  recurrent_param {
    num_output: 1000
    weight_filler {
      type: "uniform"
      min: -0.08
      max: 0.08
    }
    bias_filler {
      type: "constant"
      value: 0
    }
  }
}
layer {
  name: "predict"
  type: "InnerProduct"
  bottom: "lstm2"
  top: "predict"
  param {
    lr_mult: 1
    decay_mult: 1
  }
  param {
    lr_mult: 2
    decay_mult: 0
  }
  inner_product_param {
    num_output: 46168
    weight_filler {
      type: "uniform"
      min: -0.08
      max: 0.08
    }
    bias_filler {
      type: "constant"
      value: 0
    }
    axis: 2
  }
}
layer {
  name: "probs"
  type: "Softmax"
  bottom: "predict"
  top: "probs"
  softmax_param {
    axis: 2
  }
}
I0924 03:05:37.252789 14602 layer_factory.hpp:77] Creating layer input
I0924 03:05:37.252800 14602 net.cpp:91] Creating Layer input
I0924 03:05:37.252809 14602 net.cpp:399] input -> frames_fc7
I0924 03:05:37.252820 14602 net.cpp:399] input -> cont_sentence
I0924 03:05:37.252830 14602 net.cpp:399] input -> input_sentence
I0924 03:05:37.252840 14602 net.cpp:399] input -> stage_indicator
I0924 03:05:37.936908 14600 net.cpp:141] Setting up data
I0924 03:05:37.937019 14600 net.cpp:148] Top shape: 10 3 227 227 (1545870)
I0924 03:05:37.937033 14600 net.cpp:156] Memory required for data: 6183480
I0924 03:05:37.937048 14584 net.cpp:141] Setting up input
I0924 03:05:37.937058 14600 layer_factory.hpp:77] Creating layer conv1
I0924 03:05:37.937067 14584 net.cpp:148] Top shape: 1 4096 (4096)
I0924 03:05:37.937075 14584 net.cpp:148] Top shape: 1 1 (1)
I0924 03:05:37.937082 14584 net.cpp:148] Top shape: 1 1 (1)
I0924 03:05:37.937088 14584 net.cpp:148] Top shape: 1 1 (1)
I0924 03:05:37.937091 14600 net.cpp:91] Creating Layer conv1
I0924 03:05:37.937093 14584 net.cpp:156] Memory required for data: 16396
I0924 03:05:37.937108 14600 net.cpp:425] conv1 <- data
I0924 03:05:37.937126 14584 layer_factory.hpp:77] Creating layer cont_sentence_input_1_split
I0924 03:05:37.937137 14600 net.cpp:399] conv1 -> conv1
I0924 03:05:37.937157 14584 net.cpp:91] Creating Layer cont_sentence_input_1_split
I0924 03:05:37.937165 14584 net.cpp:425] cont_sentence_input_1_split <- cont_sentence
I0924 03:05:37.937186 14584 net.cpp:399] cont_sentence_input_1_split -> cont_sentence_input_1_split_0
I0924 03:05:37.937197 14584 net.cpp:399] cont_sentence_input_1_split -> cont_sentence_input_1_split_1
I0924 03:05:37.937603 14578 net.cpp:141] Setting up input
I0924 03:05:37.937618 14578 net.cpp:148] Top shape: 1 4096 (4096)
I0924 03:05:37.937624 14578 net.cpp:148] Top shape: 1 1 (1)
I0924 03:05:37.937629 14578 net.cpp:148] Top shape: 1 1 (1)
I0924 03:05:37.937626 14602 net.cpp:141] Setting up input
I0924 03:05:37.937639 14578 net.cpp:148] Top shape: 1 1 (1)
I0924 03:05:37.937644 14578 net.cpp:156] Memory required for data: 16396
I0924 03:05:37.937647 14602 net.cpp:148] Top shape: 1 4096 (4096)
I0924 03:05:37.937650 14578 layer_factory.hpp:77] Creating layer cont_sentence_input_1_split
I0924 03:05:37.937655 14602 net.cpp:148] Top shape: 1 1 (1)
I0924 03:05:37.937661 14602 net.cpp:148] Top shape: 1 1 (1)
I0924 03:05:37.937662 14578 net.cpp:91] Creating Layer cont_sentence_input_1_split
I0924 03:05:37.937667 14602 net.cpp:148] Top shape: 1 1 (1)
I0924 03:05:37.937671 14602 net.cpp:156] Memory required for data: 16396
I0924 03:05:37.937672 14578 net.cpp:425] cont_sentence_input_1_split <- cont_sentence
I0924 03:05:37.937677 14602 layer_factory.hpp:77] Creating layer cont_sentence_input_1_split
I0924 03:05:37.937669 14576 net.cpp:141] Setting up input
I0924 03:05:37.937690 14602 net.cpp:91] Creating Layer cont_sentence_input_1_split
I0924 03:05:37.937695 14602 net.cpp:425] cont_sentence_input_1_split <- cont_sentence
I0924 03:05:37.937698 14584 net.cpp:141] Setting up cont_sentence_input_1_split
I0924 03:05:37.937702 14576 net.cpp:148] Top shape: 1 4096 (4096)
I0924 03:05:37.937708 14602 net.cpp:399] cont_sentence_input_1_split -> cont_sentence_input_1_split_0
I0924 03:05:37.937693 14578 net.cpp:399] cont_sentence_input_1_split -> cont_sentence_input_1_split_0
I0924 03:05:37.937717 14576 net.cpp:148] Top shape: 1 1 (1)
I0924 03:05:37.937719 14584 net.cpp:148] Top shape: 1 1 (1)
I0924 03:05:37.937722 14602 net.cpp:399] cont_sentence_input_1_split -> cont_sentence_input_1_split_1
I0924 03:05:37.937731 14578 net.cpp:399] cont_sentence_input_1_split -> cont_sentence_input_1_split_1
I0924 03:05:37.937736 14584 net.cpp:148] Top shape: 1 1 (1)
I0924 03:05:37.937728 14576 net.cpp:148] Top shape: 1 1 (1)
I0924 03:05:37.937747 14584 net.cpp:156] Memory required for data: 16404
I0924 03:05:37.937754 14576 net.cpp:148] Top shape: 1 1 (1)
I0924 03:05:37.937757 14584 layer_factory.hpp:77] Creating layer embed_encoder
I0924 03:05:37.937762 14576 net.cpp:156] Memory required for data: 16396
I0924 03:05:37.937772 14576 layer_factory.hpp:77] Creating layer cont_sentence_input_1_split
I0924 03:05:37.937780 14584 net.cpp:91] Creating Layer embed_encoder
I0924 03:05:37.937786 14584 net.cpp:425] embed_encoder <- frames_fc7
I0924 03:05:37.937788 14576 net.cpp:91] Creating Layer cont_sentence_input_1_split
I0924 03:05:37.937796 14584 net.cpp:399] embed_encoder -> embedded_in_frames
I0924 03:05:37.937794 14602 net.cpp:141] Setting up cont_sentence_input_1_split
I0924 03:05:37.937818 14602 net.cpp:148] Top shape: 1 1 (1)
I0924 03:05:37.937798 14576 net.cpp:425] cont_sentence_input_1_split <- cont_sentence
I0924 03:05:37.937829 14602 net.cpp:148] Top shape: 1 1 (1)
I0924 03:05:37.937842 14602 net.cpp:156] Memory required for data: 16404
I0924 03:05:37.937849 14602 layer_factory.hpp:77] Creating layer embed_encoder
I0924 03:05:37.937847 14576 net.cpp:399] cont_sentence_input_1_split -> cont_sentence_input_1_split_0
I0924 03:05:37.937870 14602 net.cpp:91] Creating Layer embed_encoder
I0924 03:05:37.937875 14576 net.cpp:399] cont_sentence_input_1_split -> cont_sentence_input_1_split_1
I0924 03:05:37.937880 14602 net.cpp:425] embed_encoder <- frames_fc7
I0924 03:05:37.937896 14602 net.cpp:399] embed_encoder -> embedded_in_frames
I0924 03:05:37.937896 14574 net.cpp:141] Setting up input
I0924 03:05:37.937925 14574 net.cpp:148] Top shape: 1 4096 (4096)
I0924 03:05:37.937939 14574 net.cpp:148] Top shape: 1 1 (1)
I0924 03:05:37.937948 14574 net.cpp:148] Top shape: 1 1 (1)
I0924 03:05:37.937955 14574 net.cpp:148] Top shape: 1 1 (1)
I0924 03:05:37.937963 14574 net.cpp:156] Memory required for data: 16396
I0924 03:05:37.937976 14574 layer_factory.hpp:77] Creating layer cont_sentence_input_1_split
I0924 03:05:37.937993 14574 net.cpp:91] Creating Layer cont_sentence_input_1_split
I0924 03:05:37.938001 14574 net.cpp:425] cont_sentence_input_1_split <- cont_sentence
I0924 03:05:37.938002 14608 net.cpp:141] Setting up input
I0924 03:05:37.938016 14608 net.cpp:148] Top shape: 1 4096 (4096)
I0924 03:05:37.938027 14578 net.cpp:141] Setting up cont_sentence_input_1_split
I0924 03:05:37.938040 14608 net.cpp:148] Top shape: 1 1 (1)
I0924 03:05:37.938041 14578 net.cpp:148] Top shape: 1 1 (1)
I0924 03:05:37.938057 14578 net.cpp:148] Top shape: 1 1 (1)
I0924 03:05:37.938056 14608 net.cpp:148] Top shape: 1 1 (1)
I0924 03:05:37.938062 14578 net.cpp:156] Memory required for data: 16404
I0924 03:05:37.938068 14578 layer_factory.hpp:77] Creating layer embed_encoder
I0924 03:05:37.938068 14608 net.cpp:148] Top shape: 1 1 (1)
I0924 03:05:37.938077 14608 net.cpp:156] Memory required for data: 16396
I0924 03:05:37.938081 14578 net.cpp:91] Creating Layer embed_encoder
I0924 03:05:37.938086 14608 layer_factory.hpp:77] Creating layer cont_sentence_input_1_split
I0924 03:05:37.938091 14578 net.cpp:425] embed_encoder <- frames_fc7
I0924 03:05:37.938103 14608 net.cpp:91] Creating Layer cont_sentence_input_1_split
I0924 03:05:37.938109 14578 net.cpp:399] embed_encoder -> embedded_in_frames
I0924 03:05:37.938112 14608 net.cpp:425] cont_sentence_input_1_split <- cont_sentence
I0924 03:05:37.938127 14608 net.cpp:399] cont_sentence_input_1_split -> cont_sentence_input_1_split_0
I0924 03:05:37.938143 14608 net.cpp:399] cont_sentence_input_1_split -> cont_sentence_input_1_split_1
I0924 03:05:37.938016 14574 net.cpp:399] cont_sentence_input_1_split -> cont_sentence_input_1_split_0
I0924 03:05:37.938184 14574 net.cpp:399] cont_sentence_input_1_split -> cont_sentence_input_1_split_1
I0924 03:05:37.938786 14576 net.cpp:141] Setting up cont_sentence_input_1_split
I0924 03:05:37.938808 14576 net.cpp:148] Top shape: 1 1 (1)
I0924 03:05:37.938822 14576 net.cpp:148] Top shape: 1 1 (1)
I0924 03:05:37.938830 14576 net.cpp:156] Memory required for data: 16404
I0924 03:05:37.938840 14576 layer_factory.hpp:77] Creating layer embed_encoder
I0924 03:05:37.938860 14576 net.cpp:91] Creating Layer embed_encoder
I0924 03:05:37.938872 14576 net.cpp:425] embed_encoder <- frames_fc7
I0924 03:05:37.938889 14576 net.cpp:399] embed_encoder -> embedded_in_frames
I0924 03:05:37.942880 14608 net.cpp:141] Setting up cont_sentence_input_1_split
I0924 03:05:37.942926 14608 net.cpp:148] Top shape: 1 1 (1)
I0924 03:05:37.942939 14608 net.cpp:148] Top shape: 1 1 (1)
I0924 03:05:37.942946 14608 net.cpp:156] Memory required for data: 16404
I0924 03:05:37.942958 14608 layer_factory.hpp:77] Creating layer embed_encoder
I0924 03:05:37.942986 14608 net.cpp:91] Creating Layer embed_encoder
I0924 03:05:37.942998 14608 net.cpp:425] embed_encoder <- frames_fc7
I0924 03:05:37.943017 14608 net.cpp:399] embed_encoder -> embedded_in_frames
I0924 03:05:37.966737 14574 net.cpp:141] Setting up cont_sentence_input_1_split
I0924 03:05:37.966799 14574 net.cpp:148] Top shape: 1 1 (1)
I0924 03:05:37.966811 14574 net.cpp:148] Top shape: 1 1 (1)
I0924 03:05:37.966820 14574 net.cpp:156] Memory required for data: 16404
I0924 03:05:37.966832 14574 layer_factory.hpp:77] Creating layer embed_encoder
I0924 03:05:37.966879 14574 net.cpp:91] Creating Layer embed_encoder
I0924 03:05:37.966892 14574 net.cpp:425] embed_encoder <- frames_fc7
I0924 03:05:37.966910 14574 net.cpp:399] embed_encoder -> embedded_in_frames
I0924 03:05:37.980908 14576 net.cpp:141] Setting up embed_encoder
I0924 03:05:37.981456 14608 net.cpp:141] Setting up embed_encoder
I0924 03:05:37.981564 14576 net.cpp:148] Top shape: 1 500 (500)
I0924 03:05:37.981742 14602 net.cpp:141] Setting up embed_encoder
I0924 03:05:37.981945 14608 net.cpp:148] Top shape: 1 500 (500)
I0924 03:05:37.981981 14602 net.cpp:148] Top shape: 1 500 (500)
I0924 03:05:37.981953 14576 net.cpp:156] Memory required for data: 18404
I0924 03:05:37.981992 14602 net.cpp:156] Memory required for data: 18404
I0924 03:05:37.981988 14608 net.cpp:156] Memory required for data: 18404
I0924 03:05:37.982025 14576 layer_factory.hpp:77] Creating layer reshape_frames
I0924 03:05:37.982030 14602 layer_factory.hpp:77] Creating layer reshape_frames
I0924 03:05:37.982041 14608 layer_factory.hpp:77] Creating layer reshape_frames
I0924 03:05:37.982058 14602 net.cpp:91] Creating Layer reshape_frames
I0924 03:05:37.982065 14608 net.cpp:91] Creating Layer reshape_frames
I0924 03:05:37.982072 14602 net.cpp:425] reshape_frames <- embedded_in_frames
I0924 03:05:37.982059 14576 net.cpp:91] Creating Layer reshape_frames
I0924 03:05:37.982084 14608 net.cpp:425] reshape_frames <- embedded_in_frames
I0924 03:05:37.982087 14602 net.cpp:399] reshape_frames -> embedded_input_frames
I0924 03:05:37.982089 14576 net.cpp:425] reshape_frames <- embedded_in_frames
I0924 03:05:37.982110 14608 net.cpp:399] reshape_frames -> embedded_input_frames
I0924 03:05:37.982121 14576 net.cpp:399] reshape_frames -> embedded_input_frames
I0924 03:05:37.984128 14576 net.cpp:141] Setting up reshape_frames
I0924 03:05:37.984158 14576 net.cpp:148] Top shape: 1 1 500 (500)
I0924 03:05:37.984165 14576 net.cpp:156] Memory required for data: 20404
I0924 03:05:37.984174 14576 layer_factory.hpp:77] Creating layer reshape_stage_indicator
I0924 03:05:37.984176 14608 net.cpp:141] Setting up reshape_frames
I0924 03:05:37.984194 14576 net.cpp:91] Creating Layer reshape_stage_indicator
I0924 03:05:37.984197 14608 net.cpp:148] Top shape: 1 1 500 (500)
I0924 03:05:37.984205 14576 net.cpp:425] reshape_stage_indicator <- stage_indicator
I0924 03:05:37.984205 14608 net.cpp:156] Memory required for data: 20404
I0924 03:05:37.984215 14608 layer_factory.hpp:77] Creating layer reshape_stage_indicator
I0924 03:05:37.984225 14576 net.cpp:399] reshape_stage_indicator -> reshaped_stage_indicator
I0924 03:05:37.984235 14608 net.cpp:91] Creating Layer reshape_stage_indicator
I0924 03:05:37.984241 14602 net.cpp:141] Setting up reshape_frames
I0924 03:05:37.984246 14608 net.cpp:425] reshape_stage_indicator <- stage_indicator
I0924 03:05:37.984273 14602 net.cpp:148] Top shape: 1 1 500 (500)
I0924 03:05:37.984292 14602 net.cpp:156] Memory required for data: 20404
I0924 03:05:37.984297 14602 layer_factory.hpp:77] Creating layer reshape_stage_indicator
I0924 03:05:37.984302 14608 net.cpp:399] reshape_stage_indicator -> reshaped_stage_indicator
I0924 03:05:37.984318 14602 net.cpp:91] Creating Layer reshape_stage_indicator
I0924 03:05:37.984325 14602 net.cpp:425] reshape_stage_indicator <- stage_indicator
I0924 03:05:37.984323 14584 net.cpp:141] Setting up embed_encoder
I0924 03:05:37.984335 14602 net.cpp:399] reshape_stage_indicator -> reshaped_stage_indicator
I0924 03:05:37.984343 14584 net.cpp:148] Top shape: 1 500 (500)
I0924 03:05:37.984349 14584 net.cpp:156] Memory required for data: 18404
I0924 03:05:37.984365 14584 layer_factory.hpp:77] Creating layer reshape_frames
I0924 03:05:37.984376 14584 net.cpp:91] Creating Layer reshape_frames
I0924 03:05:37.984385 14584 net.cpp:425] reshape_frames <- embedded_in_frames
I0924 03:05:37.984393 14584 net.cpp:399] reshape_frames -> embedded_input_frames
I0924 03:05:37.991319 14608 net.cpp:141] Setting up reshape_stage_indicator
I0924 03:05:37.991366 14608 net.cpp:148] Top shape: 1 1 1 (1)
I0924 03:05:37.991374 14608 net.cpp:156] Memory required for data: 20408
I0924 03:05:37.991385 14608 layer_factory.hpp:77] Creating layer embedding
I0924 03:05:37.991407 14608 net.cpp:91] Creating Layer embedding
I0924 03:05:37.991417 14608 net.cpp:425] embedding <- input_sentence
I0924 03:05:37.991441 14608 net.cpp:399] embedding -> embedded_input_sentence
I0924 03:05:38.031746 14584 net.cpp:141] Setting up reshape_frames
I0924 03:05:38.031797 14584 net.cpp:148] Top shape: 1 1 500 (500)
I0924 03:05:38.031805 14584 net.cpp:156] Memory required for data: 20404
I0924 03:05:38.031815 14584 layer_factory.hpp:77] Creating layer reshape_stage_indicator
I0924 03:05:38.031817 14576 net.cpp:141] Setting up reshape_stage_indicator
I0924 03:05:38.031838 14584 net.cpp:91] Creating Layer reshape_stage_indicator
I0924 03:05:38.031859 14584 net.cpp:425] reshape_stage_indicator <- stage_indicator
I0924 03:05:38.031862 14576 net.cpp:148] Top shape: 1 1 1 (1)
I0924 03:05:38.031872 14576 net.cpp:156] Memory required for data: 20408
I0924 03:05:38.031873 14584 net.cpp:399] reshape_stage_indicator -> reshaped_stage_indicator
I0924 03:05:38.031894 14576 layer_factory.hpp:77] Creating layer embedding
I0924 03:05:38.031916 14576 net.cpp:91] Creating Layer embedding
I0924 03:05:38.031924 14576 net.cpp:425] embedding <- input_sentence
I0924 03:05:38.031944 14576 net.cpp:399] embedding -> embedded_input_sentence
I0924 03:05:38.032032 14574 net.cpp:141] Setting up embed_encoder
I0924 03:05:38.032054 14574 net.cpp:148] Top shape: 1 500 (500)
I0924 03:05:38.032059 14584 net.cpp:141] Setting up reshape_stage_indicator
I0924 03:05:38.032063 14574 net.cpp:156] Memory required for data: 18404
I0924 03:05:38.032073 14584 net.cpp:148] Top shape: 1 1 1 (1)
I0924 03:05:38.032079 14584 net.cpp:156] Memory required for data: 20408
I0924 03:05:38.032084 14584 layer_factory.hpp:77] Creating layer embedding
I0924 03:05:38.032091 14574 layer_factory.hpp:77] Creating layer reshape_frames
I0924 03:05:38.032099 14584 net.cpp:91] Creating Layer embedding
I0924 03:05:38.032104 14584 net.cpp:425] embedding <- input_sentence
I0924 03:05:38.032114 14584 net.cpp:399] embedding -> embedded_input_sentence
I0924 03:05:38.032112 14574 net.cpp:91] Creating Layer reshape_frames
I0924 03:05:38.032160 14574 net.cpp:425] reshape_frames <- embedded_in_frames
I0924 03:05:38.032191 14574 net.cpp:399] reshape_frames -> embedded_input_frames
I0924 03:05:38.081722 14602 net.cpp:141] Setting up reshape_stage_indicator
I0924 03:05:38.081792 14602 net.cpp:148] Top shape: 1 1 1 (1)
I0924 03:05:38.081805 14602 net.cpp:156] Memory required for data: 20408
I0924 03:05:38.081821 14602 layer_factory.hpp:77] Creating layer embedding
I0924 03:05:38.081863 14602 net.cpp:91] Creating Layer embedding
I0924 03:05:38.081879 14602 net.cpp:425] embedding <- input_sentence
I0924 03:05:38.081902 14602 net.cpp:399] embedding -> embedded_input_sentence
I0924 03:05:38.125478 14574 net.cpp:141] Setting up reshape_frames
I0924 03:05:38.125566 14574 net.cpp:148] Top shape: 1 1 500 (500)
I0924 03:05:38.125579 14574 net.cpp:156] Memory required for data: 20404
I0924 03:05:38.125596 14574 layer_factory.hpp:77] Creating layer reshape_stage_indicator
I0924 03:05:38.125628 14574 net.cpp:91] Creating Layer reshape_stage_indicator
I0924 03:05:38.125644 14574 net.cpp:425] reshape_stage_indicator <- stage_indicator
I0924 03:05:38.125666 14574 net.cpp:399] reshape_stage_indicator -> reshaped_stage_indicator
I0924 03:05:38.125704 14578 net.cpp:141] Setting up embed_encoder
I0924 03:05:38.125726 14578 net.cpp:148] Top shape: 1 500 (500)
I0924 03:05:38.125735 14578 net.cpp:156] Memory required for data: 18404
I0924 03:05:38.125756 14578 layer_factory.hpp:77] Creating layer reshape_frames
I0924 03:05:38.125772 14578 net.cpp:91] Creating Layer reshape_frames
I0924 03:05:38.125771 14574 net.cpp:141] Setting up reshape_stage_indicator
I0924 03:05:38.125782 14578 net.cpp:425] reshape_frames <- embedded_in_frames
I0924 03:05:38.125795 14574 net.cpp:148] Top shape: 1 1 1 (1)
I0924 03:05:38.125823 14574 net.cpp:156] Memory required for data: 20408
I0924 03:05:38.125838 14574 layer_factory.hpp:77] Creating layer embedding
I0924 03:05:38.125862 14574 net.cpp:91] Creating Layer embedding
I0924 03:05:38.125875 14574 net.cpp:425] embedding <- input_sentence
I0924 03:05:38.125895 14574 net.cpp:399] embedding -> embedded_input_sentence
I0924 03:05:38.125797 14578 net.cpp:399] reshape_frames -> embedded_input_frames
I0924 03:05:38.168306 14578 net.cpp:141] Setting up reshape_frames
I0924 03:05:38.168357 14578 net.cpp:148] Top shape: 1 1 500 (500)
I0924 03:05:38.168366 14578 net.cpp:156] Memory required for data: 20404
I0924 03:05:38.168378 14578 layer_factory.hpp:77] Creating layer reshape_stage_indicator
I0924 03:05:38.168404 14578 net.cpp:91] Creating Layer reshape_stage_indicator
I0924 03:05:38.168416 14578 net.cpp:425] reshape_stage_indicator <- stage_indicator
I0924 03:05:38.168438 14578 net.cpp:399] reshape_stage_indicator -> reshaped_stage_indicator
I0924 03:05:38.209759 14578 net.cpp:141] Setting up reshape_stage_indicator
I0924 03:05:38.209833 14578 net.cpp:148] Top shape: 1 1 1 (1)
I0924 03:05:38.209851 14578 net.cpp:156] Memory required for data: 20408
I0924 03:05:38.209869 14578 layer_factory.hpp:77] Creating layer embedding
I0924 03:05:38.209906 14578 net.cpp:91] Creating Layer embedding
I0924 03:05:38.209925 14578 net.cpp:425] embedding <- input_sentence
I0924 03:05:38.218536 14578 net.cpp:399] embedding -> embedded_input_sentence
I0924 03:05:38.227150 14608 net.cpp:141] Setting up embedding
I0924 03:05:38.227200 14608 net.cpp:148] Top shape: 1 1 500 (500)
I0924 03:05:38.227210 14608 net.cpp:156] Memory required for data: 22408
I0924 03:05:38.227233 14608 layer_factory.hpp:77] Creating layer lstm1
I0924 03:05:38.227257 14608 net.cpp:91] Creating Layer lstm1
I0924 03:05:38.227267 14608 net.cpp:425] lstm1 <- embedded_input_frames
I0924 03:05:38.227280 14608 net.cpp:425] lstm1 <- cont_sentence_input_1_split_0
I0924 03:05:38.227298 14608 net.cpp:399] lstm1 -> lstm1
I0924 03:05:38.227345 14608 recurrent_layer.cpp:20] Initializing recurrent layer: assuming input batch contains 1 timesteps of 1 independent streams.
I0924 03:05:38.227841 14608 net.cpp:49] Initializing net from parameters: 
layer {
  name: "lstm1_"
  type: "Input"
  top: "x"
  top: "cont"
  input_param {
    shape {
      dim: 1
      dim: 1
      dim: 500
    }
    shape {
      dim: 1
      dim: 1
    }
  }
}
layer {
  name: "lstm1_"
  type: "Input"
  top: "c_0"
  top: "h_0"
  input_param {
    shape {
      dim: 1
      dim: 1
      dim: 1000
    }
    shape {
      dim: 1
      dim: 1
      dim: 1000
    }
  }
}
layer {
  name: "lstm1_cont_slice"
  type: "Slice"
  bottom: "cont"
  top: "cont_1"
  slice_param {
    axis: 0
  }
}
layer {
  name: "lstm1_x_transform"
  type: "InnerProduct"
  bottom: "x"
  top: "W_xc_x"
  param {
    name: "W_xc"
  }
  param {
    name: "b_c"
  }
  propagate_down: true
  inner_product_param {
    num_output: 4000
    bias_term: true
    weight_filler {
      type: "uniform"
      min: -0.08
      max: 0.08
    }
    bias_filler {
      type: "constant"
      value: 0
    }
    axis: 2
  }
}
layer {
  name: "lstm1_W_xc_x_slice"
  type: "Slice"
  bottom: "W_xc_x"
  top: "W_xc_x_1"
  slice_param {
    axis: 0
  }
}
layer {
  name: "lstm1_h_conted_0"
  type: "Scale"
  bottom: "h_0"
  bottom: "cont_1"
  top: "h_conted_0"
  scale_param {
    axis: 0
  }
}
layer {
  name: "lstm1_transform_1"
  type: "InnerProduct"
  bottom: "h_conted_0"
  top: "W_hc_h_0"
  param {
    name: "W_hc"
  }
  inner_product_param {
    num_output: 4000
    bias_term: false
    weight_filler {
      type: "uniform"
      min: -0.08
      max: 0.08
    }
    axis: 2
  }
}
layer {
  name: "lstm1_gate_input_1"
  type: "Eltwise"
  bottom: "W_hc_h_0"
  bottom: "W_xc_x_1"
  top: "gate_input_1"
  eltwise_param {
    operation: SUM
  }
}
layer {
  name: "lstm1_unit_1"
  type: "LSTMUnit"
  bottom: "c_0"
  bottom: "gate_input_1"
  bottom: "cont_1"
  top: "c_1"
  top: "h_1"
}
layer {
  name: "lstm1_"
  type: "Split"
  bottom: "c_1"
  top: "c_T"
}
layer {
  name: "lstm1_h_concat"
  type: "Concat"
  bottom: "h_1"
  top: "h"
  concat_param {
    axis: 0
  }
}
layer {
  name: "h_pseudoloss"
  type: "Reduction"
  bottom: "h"
  top: "h_pseudoloss"
  loss_weight: 1
}
I0924 03:05:38.227993 14608 layer_factory.hpp:77] Creating layer lstm1_
I0924 03:05:38.228015 14608 net.cpp:91] Creating Layer lstm1_
I0924 03:05:38.228030 14608 net.cpp:399] lstm1_ -> x
I0924 03:05:38.228051 14608 net.cpp:399] lstm1_ -> cont
I0924 03:05:38.295509 14608 net.cpp:141] Setting up lstm1_
I0924 03:05:38.295594 14608 net.cpp:148] Top shape: 1 1 500 (500)
I0924 03:05:38.295614 14608 net.cpp:148] Top shape: 1 1 (1)
I0924 03:05:38.295625 14608 net.cpp:156] Memory required for data: 2004
I0924 03:05:38.295644 14608 layer_factory.hpp:77] Creating layer lstm1_
I0924 03:05:38.295678 14608 net.cpp:91] Creating Layer lstm1_
I0924 03:05:38.295702 14608 net.cpp:399] lstm1_ -> c_0
I0924 03:05:38.295725 14608 net.cpp:399] lstm1_ -> h_0
I0924 03:05:38.295794 14608 net.cpp:141] Setting up lstm1_
I0924 03:05:38.295809 14608 net.cpp:148] Top shape: 1 1 1000 (1000)
I0924 03:05:38.295817 14608 net.cpp:148] Top shape: 1 1 1000 (1000)
I0924 03:05:38.295825 14608 net.cpp:156] Memory required for data: 10004
I0924 03:05:38.295831 14608 layer_factory.hpp:77] Creating layer lstm1_cont_slice
I0924 03:05:38.295845 14608 net.cpp:91] Creating Layer lstm1_cont_slice
I0924 03:05:38.295853 14608 net.cpp:425] lstm1_cont_slice <- cont
I0924 03:05:38.295871 14608 net.cpp:399] lstm1_cont_slice -> cont_1
I0924 03:05:38.295912 14608 net.cpp:141] Setting up lstm1_cont_slice
I0924 03:05:38.295924 14608 net.cpp:148] Top shape: 1 1 (1)
I0924 03:05:38.295931 14608 net.cpp:156] Memory required for data: 10008
I0924 03:05:38.295938 14608 layer_factory.hpp:77] Creating layer cont_1_lstm1_cont_slice_0_split
I0924 03:05:38.295953 14608 net.cpp:91] Creating Layer cont_1_lstm1_cont_slice_0_split
I0924 03:05:38.295960 14608 net.cpp:425] cont_1_lstm1_cont_slice_0_split <- cont_1
I0924 03:05:38.295970 14608 net.cpp:399] cont_1_lstm1_cont_slice_0_split -> cont_1_lstm1_cont_slice_0_split_0
I0924 03:05:38.295982 14608 net.cpp:399] cont_1_lstm1_cont_slice_0_split -> cont_1_lstm1_cont_slice_0_split_1
I0924 03:05:38.296044 14608 net.cpp:141] Setting up cont_1_lstm1_cont_slice_0_split
I0924 03:05:38.296057 14608 net.cpp:148] Top shape: 1 1 (1)
I0924 03:05:38.296066 14608 net.cpp:148] Top shape: 1 1 (1)
I0924 03:05:38.296072 14608 net.cpp:156] Memory required for data: 10016
I0924 03:05:38.296079 14608 layer_factory.hpp:77] Creating layer lstm1_x_transform
I0924 03:05:38.296097 14608 net.cpp:91] Creating Layer lstm1_x_transform
I0924 03:05:38.296104 14608 net.cpp:425] lstm1_x_transform <- x
I0924 03:05:38.296118 14608 net.cpp:399] lstm1_x_transform -> W_xc_x
I0924 03:05:38.300325 14576 net.cpp:141] Setting up embedding
I0924 03:05:38.300395 14576 net.cpp:148] Top shape: 1 1 500 (500)
I0924 03:05:38.300415 14576 net.cpp:156] Memory required for data: 22408
I0924 03:05:38.300457 14576 layer_factory.hpp:77] Creating layer lstm1
I0924 03:05:38.300498 14576 net.cpp:91] Creating Layer lstm1
I0924 03:05:38.300521 14576 net.cpp:425] lstm1 <- embedded_input_frames
I0924 03:05:38.300547 14576 net.cpp:425] lstm1 <- cont_sentence_input_1_split_0
I0924 03:05:38.300578 14576 net.cpp:399] lstm1 -> lstm1
I0924 03:05:38.300617 14576 recurrent_layer.cpp:20] Initializing recurrent layer: assuming input batch contains 1 timesteps of 1 independent streams.
I0924 03:05:38.301467 14576 net.cpp:49] Initializing net from parameters: 
layer {
  name: "lstm1_"
  type: "Input"
  top: "x"
  top: "cont"
  input_param {
    shape {
      dim: 1
      dim: 1
      dim: 500
    }
    shape {
      dim: 1
      dim: 1
    }
  }
}
layer {
  name: "lstm1_"
  type: "Input"
  top: "c_0"
  top: "h_0"
  input_param {
    shape {
      dim: 1
      dim: 1
      dim: 1000
    }
    shape {
      dim: 1
      dim: 1
      dim: 1000
    }
  }
}
layer {
  name: "lstm1_cont_slice"
  type: "Slice"
  bottom: "cont"
  top: "cont_1"
  slice_param {
    axis: 0
  }
}
layer {
  name: "lstm1_x_transform"
  type: "InnerProduct"
  bottom: "x"
  top: "W_xc_x"
  param {
    name: "W_xc"
  }
  param {
    name: "b_c"
  }
  propagate_down: true
  inner_product_param {
    num_output: 4000
    bias_term: true
    weight_filler {
      type: "uniform"
      min: -0.08
      max: 0.08
    }
    bias_filler {
      type: "constant"
      value: 0
    }
    axis: 2
  }
}
layer {
  name: "lstm1_W_xc_x_slice"
  type: "Slice"
  bottom: "W_xc_x"
  top: "W_xc_x_1"
  slice_param {
    axis: 0
  }
}
layer {
  name: "lstm1_h_conted_0"
  type: "Scale"
  bottom: "h_0"
  bottom: "cont_1"
  top: "h_conted_0"
  scale_param {
    axis: 0
  }
}
layer {
  name: "lstm1_transform_1"
  type: "InnerProduct"
  bottom: "h_conted_0"
  top: "W_hc_h_0"
  param {
    name: "W_hc"
  }
  inner_product_param {
    num_output: 4000
    bias_term: false
    weight_filler {
      type: "uniform"
      min: -0.08
      max: 0.08
    }
    axis: 2
  }
}
layer {
  name: "lstm1_gate_input_1"
  type: "Eltwise"
  bottom: "W_hc_h_0"
  bottom: "W_xc_x_1"
  top: "gate_input_1"
  eltwise_param {
    operation: SUM
  }
}
layer {
  name: "lstm1_unit_1"
  type: "LSTMUnit"
  bottom: "c_0"
  bottom: "gate_input_1"
  bottom: "cont_1"
  top: "c_1"
  top: "h_1"
}
layer {
  name: "lstm1_"
  type: "Split"
  bottom: "c_1"
  top: "c_T"
}
layer {
  name: "lstm1_h_concat"
  type: "Concat"
  bottom: "h_1"
  top: "h"
  concat_param {
    axis: 0
  }
}
layer {
  name: "h_pseudoloss"
  type: "Reduction"
  bottom: "h"
  top: "h_pseudoloss"
  loss_weight: 1
}
I0924 03:05:38.301637 14576 layer_factory.hpp:77] Creating layer lstm1_
I0924 03:05:38.301657 14576 net.cpp:91] Creating Layer lstm1_
I0924 03:05:38.301667 14576 net.cpp:399] lstm1_ -> x
I0924 03:05:38.301687 14576 net.cpp:399] lstm1_ -> cont
I0924 03:05:38.304826 14584 net.cpp:141] Setting up embedding
I0924 03:05:38.304862 14584 net.cpp:148] Top shape: 1 1 500 (500)
I0924 03:05:38.304860 14576 net.cpp:141] Setting up lstm1_
I0924 03:05:38.304880 14584 net.cpp:156] Memory required for data: 22408
I0924 03:05:38.304890 14576 net.cpp:148] Top shape: 1 1 500 (500)
I0924 03:05:38.304901 14576 net.cpp:148] Top shape: 1 1 (1)
I0924 03:05:38.304901 14584 layer_factory.hpp:77] Creating layer lstm1
I0924 03:05:38.304920 14576 net.cpp:156] Memory required for data: 2004
I0924 03:05:38.304929 14576 layer_factory.hpp:77] Creating layer lstm1_
I0924 03:05:38.304936 14584 net.cpp:91] Creating Layer lstm1
I0924 03:05:38.304946 14576 net.cpp:91] Creating Layer lstm1_
I0924 03:05:38.304949 14584 net.cpp:425] lstm1 <- embedded_input_frames
I0924 03:05:38.304958 14576 net.cpp:399] lstm1_ -> c_0
I0924 03:05:38.304960 14584 net.cpp:425] lstm1 <- cont_sentence_input_1_split_0
I0924 03:05:38.304986 14584 net.cpp:399] lstm1 -> lstm1
I0924 03:05:38.304996 14576 net.cpp:399] lstm1_ -> h_0
I0924 03:05:38.305006 14584 recurrent_layer.cpp:20] Initializing recurrent layer: assuming input batch contains 1 timesteps of 1 independent streams.
I0924 03:05:38.305295 14584 net.cpp:49] Initializing net from parameters: 
layer {
  name: "lstm1_"
  type: "Input"
  top: "x"
  top: "cont"
  input_param {
    shape {
      dim: 1
      dim: 1
      dim: 500
    }
    shape {
      dim: 1
      dim: 1
    }
  }
}
layer {
  name: "lstm1_"
  type: "Input"
  top: "c_0"
  top: "h_0"
  input_param {
    shape {
      dim: 1
      dim: 1
      dim: 1000
    }
    shape {
      dim: 1
      dim: 1
      dim: 1000
    }
  }
}
layer {
  name: "lstm1_cont_slice"
  type: "Slice"
  bottom: "cont"
  top: "cont_1"
  slice_param {
    axis: 0
  }
}
layer {
  name: "lstm1_x_transform"
  type: "InnerProduct"
  bottom: "x"
  top: "W_xc_x"
  param {
    name: "W_xc"
  }
  param {
    name: "b_c"
  }
  propagate_down: true
  inner_product_param {
    num_output: 4000
    bias_term: true
    weight_filler {
      type: "uniform"
      min: -0.08
      max: 0.08
    }
    bias_filler {
      type: "constant"
      value: 0
    }
    axis: 2
  }
}
layer {
  name: "lstm1_W_xc_x_slice"
  type: "Slice"
  bottom: "W_xc_x"
  top: "W_xc_x_1"
  slice_param {
    axis: 0
  }
}
layer {
  name: "lstm1_h_conted_0"
  type: "Scale"
  bottom: "h_0"
  bottom: "cont_1"
  top: "h_conted_0"
  scale_param {
    axis: 0
  }
}
layer {
  name: "lstm1_transform_1"
  type: "InnerProduct"
  bottom: "h_conted_0"
  top: "W_hc_h_0"
  param {
    name: "W_hc"
  }
  inner_product_param {
    num_output: 4000
    bias_term: false
    weight_filler {
      type: "uniform"
      min: -0.08
      max: 0.08
    }
    axis: 2
  }
}
layer {
  name: "lstm1_gate_input_1"
  type: "Eltwise"
  bottom: "W_hc_h_0"
  bottom: "W_xc_x_1"
  top: "gate_input_1"
  eltwise_param {
    operation: SUM
  }
}
layer {
  name: "lstm1_unit_1"
  type: "LSTMUnit"
  bottom: "c_0"
  bottom: "gate_input_1"
  bottom: "cont_1"
  top: "c_1"
  top: "h_1"
}
layer {
  name: "lstm1_"
  type: "Split"
  bottom: "c_1"
  top: "c_T"
}
layer {
  name: "lstm1_h_concat"
  type: "Concat"
  bottom: "h_1"
  top: "h"
  concat_param {
    axis: 0
  }
}
layer {
  name: "h_pseudoloss"
  type: "Reduction"
  bottom: "h"
  top: "h_pseudoloss"
  loss_weight: 1
}
I0924 03:05:38.305382 14584 layer_factory.hpp:77] Creating layer lstm1_
I0924 03:05:38.305392 14584 net.cpp:91] Creating Layer lstm1_
I0924 03:05:38.305399 14584 net.cpp:399] lstm1_ -> x
I0924 03:05:38.305411 14584 net.cpp:399] lstm1_ -> cont
I0924 03:05:38.314324 14576 net.cpp:141] Setting up lstm1_
I0924 03:05:38.314383 14576 net.cpp:148] Top shape: 1 1 1000 (1000)
I0924 03:05:38.314398 14576 net.cpp:148] Top shape: 1 1 1000 (1000)
I0924 03:05:38.314398 14584 net.cpp:141] Setting up lstm1_
I0924 03:05:38.314405 14576 net.cpp:156] Memory required for data: 10004
I0924 03:05:38.314412 14584 net.cpp:148] Top shape: 1 1 500 (500)
I0924 03:05:38.314416 14576 layer_factory.hpp:77] Creating layer lstm1_cont_slice
I0924 03:05:38.314424 14584 net.cpp:148] Top shape: 1 1 (1)
I0924 03:05:38.314432 14584 net.cpp:156] Memory required for data: 2004
I0924 03:05:38.314441 14584 layer_factory.hpp:77] Creating layer lstm1_
I0924 03:05:38.314450 14576 net.cpp:91] Creating Layer lstm1_cont_slice
I0924 03:05:38.314460 14576 net.cpp:425] lstm1_cont_slice <- cont
I0924 03:05:38.314462 14584 net.cpp:91] Creating Layer lstm1_
I0924 03:05:38.314474 14576 net.cpp:399] lstm1_cont_slice -> cont_1
I0924 03:05:38.314556 14576 net.cpp:141] Setting up lstm1_cont_slice
I0924 03:05:38.314574 14576 net.cpp:148] Top shape: 1 1 (1)
I0924 03:05:38.314581 14576 net.cpp:156] Memory required for data: 10008
I0924 03:05:38.314589 14576 layer_factory.hpp:77] Creating layer cont_1_lstm1_cont_slice_0_split
I0924 03:05:38.314615 14576 net.cpp:91] Creating Layer cont_1_lstm1_cont_slice_0_split
I0924 03:05:38.314625 14576 net.cpp:425] cont_1_lstm1_cont_slice_0_split <- cont_1
I0924 03:05:38.314643 14576 net.cpp:399] cont_1_lstm1_cont_slice_0_split -> cont_1_lstm1_cont_slice_0_split_0
I0924 03:05:38.314658 14576 net.cpp:399] cont_1_lstm1_cont_slice_0_split -> cont_1_lstm1_cont_slice_0_split_1
I0924 03:05:38.314782 14576 net.cpp:141] Setting up cont_1_lstm1_cont_slice_0_split
I0924 03:05:38.314800 14576 net.cpp:148] Top shape: 1 1 (1)
I0924 03:05:38.314810 14576 net.cpp:148] Top shape: 1 1 (1)
I0924 03:05:38.314817 14576 net.cpp:156] Memory required for data: 10016
I0924 03:05:38.314826 14576 layer_factory.hpp:77] Creating layer lstm1_x_transform
I0924 03:05:38.314853 14576 net.cpp:91] Creating Layer lstm1_x_transform
I0924 03:05:38.314863 14576 net.cpp:425] lstm1_x_transform <- x
I0924 03:05:38.314878 14576 net.cpp:399] lstm1_x_transform -> W_xc_x
I0924 03:05:38.314474 14584 net.cpp:399] lstm1_ -> c_0
I0924 03:05:38.317845 14584 net.cpp:399] lstm1_ -> h_0
I0924 03:05:38.321292 14584 net.cpp:141] Setting up lstm1_
I0924 03:05:38.321341 14584 net.cpp:148] Top shape: 1 1 1000 (1000)
I0924 03:05:38.321355 14584 net.cpp:148] Top shape: 1 1 1000 (1000)
I0924 03:05:38.321364 14584 net.cpp:156] Memory required for data: 10004
I0924 03:05:38.321375 14584 layer_factory.hpp:77] Creating layer lstm1_cont_slice
I0924 03:05:38.321398 14584 net.cpp:91] Creating Layer lstm1_cont_slice
I0924 03:05:38.321411 14584 net.cpp:425] lstm1_cont_slice <- cont
I0924 03:05:38.321439 14584 net.cpp:399] lstm1_cont_slice -> cont_1
I0924 03:05:38.321480 14608 net.cpp:141] Setting up lstm1_x_transform
I0924 03:05:38.321499 14608 net.cpp:148] Top shape: 1 1 4000 (4000)
I0924 03:05:38.321498 14584 net.cpp:141] Setting up lstm1_cont_slice
I0924 03:05:38.321514 14608 net.cpp:156] Memory required for data: 26016
I0924 03:05:38.321522 14584 net.cpp:148] Top shape: 1 1 (1)
I0924 03:05:38.321529 14584 net.cpp:156] Memory required for data: 10008
I0924 03:05:38.321537 14608 layer_factory.hpp:77] Creating layer lstm1_W_xc_x_slice
I0924 03:05:38.321537 14584 layer_factory.hpp:77] Creating layer cont_1_lstm1_cont_slice_0_split
I0924 03:05:38.321555 14608 net.cpp:91] Creating Layer lstm1_W_xc_x_slice
I0924 03:05:38.321557 14584 net.cpp:91] Creating Layer cont_1_lstm1_cont_slice_0_split
I0924 03:05:38.321570 14608 net.cpp:425] lstm1_W_xc_x_slice <- W_xc_x
I0924 03:05:38.321570 14584 net.cpp:425] cont_1_lstm1_cont_slice_0_split <- cont_1
I0924 03:05:38.321588 14584 net.cpp:399] cont_1_lstm1_cont_slice_0_split -> cont_1_lstm1_cont_slice_0_split_0
I0924 03:05:38.321588 14608 net.cpp:399] lstm1_W_xc_x_slice -> W_xc_x_1
I0924 03:05:38.321610 14584 net.cpp:399] cont_1_lstm1_cont_slice_0_split -> cont_1_lstm1_cont_slice_0_split_1
I0924 03:05:38.327291 14608 net.cpp:141] Setting up lstm1_W_xc_x_slice
I0924 03:05:38.327342 14608 net.cpp:148] Top shape: 1 1 4000 (4000)
I0924 03:05:38.327353 14608 net.cpp:156] Memory required for data: 42016
I0924 03:05:38.327365 14608 layer_factory.hpp:77] Creating layer lstm1_h_conted_0
I0924 03:05:38.327373 14584 net.cpp:141] Setting up cont_1_lstm1_cont_slice_0_split
I0924 03:05:38.327389 14584 net.cpp:148] Top shape: 1 1 (1)
I0924 03:05:38.327397 14584 net.cpp:148] Top shape: 1 1 (1)
I0924 03:05:38.327400 14608 net.cpp:91] Creating Layer lstm1_h_conted_0
I0924 03:05:38.327405 14584 net.cpp:156] Memory required for data: 10016
I0924 03:05:38.327411 14608 net.cpp:425] lstm1_h_conted_0 <- h_0
I0924 03:05:38.327412 14584 layer_factory.hpp:77] Creating layer lstm1_x_transform
I0924 03:05:38.327425 14608 net.cpp:425] lstm1_h_conted_0 <- cont_1_lstm1_cont_slice_0_split_0
I0924 03:05:38.327438 14608 net.cpp:399] lstm1_h_conted_0 -> h_conted_0
I0924 03:05:38.327458 14584 net.cpp:91] Creating Layer lstm1_x_transform
I0924 03:05:38.327471 14584 net.cpp:425] lstm1_x_transform <- x
I0924 03:05:38.327491 14584 net.cpp:399] lstm1_x_transform -> W_xc_x
I0924 03:05:38.337188 14608 net.cpp:141] Setting up lstm1_h_conted_0
I0924 03:05:38.337240 14608 net.cpp:148] Top shape: 1 1 1000 (1000)
I0924 03:05:38.337249 14608 net.cpp:156] Memory required for data: 46016
I0924 03:05:38.337261 14608 layer_factory.hpp:77] Creating layer lstm1_transform_1
I0924 03:05:38.337292 14608 net.cpp:91] Creating Layer lstm1_transform_1
I0924 03:05:38.337306 14608 net.cpp:425] lstm1_transform_1 <- h_conted_0
I0924 03:05:38.337329 14608 net.cpp:399] lstm1_transform_1 -> W_hc_h_0
I0924 03:05:38.377766 14576 net.cpp:141] Setting up lstm1_x_transform
I0924 03:05:38.377889 14576 net.cpp:148] Top shape: 1 1 4000 (4000)
I0924 03:05:38.377918 14576 net.cpp:156] Memory required for data: 26016
I0924 03:05:38.377990 14576 layer_factory.hpp:77] Creating layer lstm1_W_xc_x_slice
I0924 03:05:38.378070 14576 net.cpp:91] Creating Layer lstm1_W_xc_x_slice
I0924 03:05:38.378108 14576 net.cpp:425] lstm1_W_xc_x_slice <- W_xc_x
I0924 03:05:38.378149 14576 net.cpp:399] lstm1_W_xc_x_slice -> W_xc_x_1
I0924 03:05:38.378301 14576 net.cpp:141] Setting up lstm1_W_xc_x_slice
I0924 03:05:38.378332 14576 net.cpp:148] Top shape: 1 1 4000 (4000)
I0924 03:05:38.378351 14576 net.cpp:156] Memory required for data: 42016
I0924 03:05:38.378371 14576 layer_factory.hpp:77] Creating layer lstm1_h_conted_0
I0924 03:05:38.378412 14576 net.cpp:91] Creating Layer lstm1_h_conted_0
I0924 03:05:38.378434 14576 net.cpp:425] lstm1_h_conted_0 <- h_0
I0924 03:05:38.378455 14576 net.cpp:425] lstm1_h_conted_0 <- cont_1_lstm1_cont_slice_0_split_0
I0924 03:05:38.378484 14576 net.cpp:399] lstm1_h_conted_0 -> h_conted_0
I0924 03:05:38.378772 14576 net.cpp:141] Setting up lstm1_h_conted_0
I0924 03:05:38.378808 14576 net.cpp:148] Top shape: 1 1 1000 (1000)
I0924 03:05:38.378825 14576 net.cpp:156] Memory required for data: 46016
I0924 03:05:38.378844 14576 layer_factory.hpp:77] Creating layer lstm1_transform_1
I0924 03:05:38.378895 14576 net.cpp:91] Creating Layer lstm1_transform_1
I0924 03:05:38.378918 14576 net.cpp:425] lstm1_transform_1 <- h_conted_0
I0924 03:05:38.378947 14576 net.cpp:399] lstm1_transform_1 -> W_hc_h_0
I0924 03:05:38.389628 14602 net.cpp:141] Setting up embedding
I0924 03:05:38.389684 14602 net.cpp:148] Top shape: 1 1 500 (500)
I0924 03:05:38.389695 14602 net.cpp:156] Memory required for data: 22408
I0924 03:05:38.389721 14602 layer_factory.hpp:77] Creating layer lstm1
I0924 03:05:38.389751 14602 net.cpp:91] Creating Layer lstm1
I0924 03:05:38.389763 14602 net.cpp:425] lstm1 <- embedded_input_frames
I0924 03:05:38.389776 14602 net.cpp:425] lstm1 <- cont_sentence_input_1_split_0
I0924 03:05:38.389794 14602 net.cpp:399] lstm1 -> lstm1
I0924 03:05:38.389819 14602 recurrent_layer.cpp:20] Initializing recurrent layer: assuming input batch contains 1 timesteps of 1 independent streams.
I0924 03:05:38.389935 14584 net.cpp:141] Setting up lstm1_x_transform
I0924 03:05:38.389978 14584 net.cpp:148] Top shape: 1 1 4000 (4000)
I0924 03:05:38.389988 14584 net.cpp:156] Memory required for data: 26016
I0924 03:05:38.390017 14584 layer_factory.hpp:77] Creating layer lstm1_W_xc_x_slice
I0924 03:05:38.390040 14584 net.cpp:91] Creating Layer lstm1_W_xc_x_slice
I0924 03:05:38.390053 14584 net.cpp:425] lstm1_W_xc_x_slice <- W_xc_x
I0924 03:05:38.390072 14584 net.cpp:399] lstm1_W_xc_x_slice -> W_xc_x_1
I0924 03:05:38.390139 14584 net.cpp:141] Setting up lstm1_W_xc_x_slice
I0924 03:05:38.390156 14584 net.cpp:148] Top shape: 1 1 4000 (4000)
I0924 03:05:38.390164 14584 net.cpp:156] Memory required for data: 42016
I0924 03:05:38.390172 14584 layer_factory.hpp:77] Creating layer lstm1_h_conted_0
I0924 03:05:38.390189 14584 net.cpp:91] Creating Layer lstm1_h_conted_0
I0924 03:05:38.390198 14584 net.cpp:425] lstm1_h_conted_0 <- h_0
I0924 03:05:38.390208 14584 net.cpp:425] lstm1_h_conted_0 <- cont_1_lstm1_cont_slice_0_split_0
I0924 03:05:38.390257 14584 net.cpp:399] lstm1_h_conted_0 -> h_conted_0
I0924 03:05:38.390226 14602 net.cpp:49] Initializing net from parameters: 
layer {
  name: "lstm1_"
  type: "Input"
  top: "x"
  top: "cont"
  input_param {
    shape {
      dim: 1
      dim: 1
      dim: 500
    }
    shape {
      dim: 1
      dim: 1
    }
  }
}
layer {
  name: "lstm1_"
  type: "Input"
  top: "c_0"
  top: "h_0"
  input_param {
    shape {
      dim: 1
      dim: 1
      dim: 1000
    }
    shape {
      dim: 1
      dim: 1
      dim: 1000
    }
  }
}
layer {
  name: "lstm1_cont_slice"
  type: "Slice"
  bottom: "cont"
  top: "cont_1"
  slice_param {
    axis: 0
  }
}
layer {
  name: "lstm1_x_transform"
  type: "InnerProduct"
  bottom: "x"
  top: "W_xc_x"
  param {
    name: "W_xc"
  }
  param {
    name: "b_c"
  }
  propagate_down: true
  inner_product_param {
    num_output: 4000
    bias_term: true
    weight_filler {
      type: "uniform"
      min: -0.08
      max: 0.08
    }
    bias_filler {
      type: "constant"
      value: 0
    }
    axis: 2
  }
}
layer {
  name: "lstm1_W_xc_x_slice"
  type: "Slice"
  bottom: "W_xc_x"
  top: "W_xc_x_1"
  slice_param {
    axis: 0
  }
}
layer {
  name: "lstm1_h_conted_0"
  type: "Scale"
  bottom: "h_0"
  bottom: "cont_1"
  top: "h_conted_0"
  scale_param {
    axis: 0
  }
}
layer {
  name: "lstm1_transform_1"
  type: "InnerProduct"
  bottom: "h_conted_0"
  top: "W_hc_h_0"
  param {
    name: "W_hc"
  }
  inner_product_param {
    num_output: 4000
    bias_term: false
    weight_filler {
      type: "uniform"
      min: -0.08
      max: 0.08
    }
    axis: 2
  }
}
layer {
  name: "lstm1_gate_input_1"
  type: "Eltwise"
  bottom: "W_hc_h_0"
  bottom: "W_xc_x_1"
  top: "gate_input_1"
  eltwise_param {
    operation: SUM
  }
}
layer {
  name: "lstm1_unit_1"
  type: "LSTMUnit"
  bottom: "c_0"
  bottom: "gate_input_1"
  bottom: "cont_1"
  top: "c_1"
  top: "h_1"
}
layer {
  name: "lstm1_"
  type: "Split"
  bottom: "c_1"
  top: "c_T"
}
layer {
  name: "lstm1_h_concat"
  type: "Concat"
  bottom: "h_1"
  top: "h"
  concat_param {
    axis: 0
  }
}
layer {
  name: "h_pseudoloss"
  type: "Reduction"
  bottom: "h"
  top: "h_pseudoloss"
  loss_weight: 1
}
I0924 03:05:38.392993 14584 net.cpp:141] Setting up lstm1_h_conted_0
I0924 03:05:38.393023 14584 net.cpp:148] Top shape: 1 1 1000 (1000)
I0924 03:05:38.393033 14584 net.cpp:156] Memory required for data: 46016
I0924 03:05:38.393041 14584 layer_factory.hpp:77] Creating layer lstm1_transform_1
I0924 03:05:38.393065 14584 net.cpp:91] Creating Layer lstm1_transform_1
I0924 03:05:38.393075 14584 net.cpp:425] lstm1_transform_1 <- h_conted_0
I0924 03:05:38.393092 14584 net.cpp:399] lstm1_transform_1 -> W_hc_h_0
I0924 03:05:38.393134 14602 layer_factory.hpp:77] Creating layer lstm1_
I0924 03:05:38.393156 14602 net.cpp:91] Creating Layer lstm1_
I0924 03:05:38.393167 14602 net.cpp:399] lstm1_ -> x
I0924 03:05:38.393185 14602 net.cpp:399] lstm1_ -> cont
I0924 03:05:38.395771 14602 net.cpp:141] Setting up lstm1_
I0924 03:05:38.395792 14602 net.cpp:148] Top shape: 1 1 500 (500)
I0924 03:05:38.395803 14602 net.cpp:148] Top shape: 1 1 (1)
I0924 03:05:38.395810 14602 net.cpp:156] Memory required for data: 2004
I0924 03:05:38.395819 14602 layer_factory.hpp:77] Creating layer lstm1_
I0924 03:05:38.395835 14602 net.cpp:91] Creating Layer lstm1_
I0924 03:05:38.395848 14602 net.cpp:399] lstm1_ -> c_0
I0924 03:05:38.395866 14602 net.cpp:399] lstm1_ -> h_0
I0924 03:05:38.395937 14602 net.cpp:141] Setting up lstm1_
I0924 03:05:38.395956 14602 net.cpp:148] Top shape: 1 1 1000 (1000)
I0924 03:05:38.395965 14602 net.cpp:148] Top shape: 1 1 1000 (1000)
I0924 03:05:38.395972 14602 net.cpp:156] Memory required for data: 10004
I0924 03:05:38.395980 14602 layer_factory.hpp:77] Creating layer lstm1_cont_slice
I0924 03:05:38.395994 14602 net.cpp:91] Creating Layer lstm1_cont_slice
I0924 03:05:38.396003 14602 net.cpp:425] lstm1_cont_slice <- cont
I0924 03:05:38.396014 14602 net.cpp:399] lstm1_cont_slice -> cont_1
I0924 03:05:38.396067 14602 net.cpp:141] Setting up lstm1_cont_slice
I0924 03:05:38.396081 14602 net.cpp:148] Top shape: 1 1 (1)
I0924 03:05:38.396087 14602 net.cpp:156] Memory required for data: 10008
I0924 03:05:38.396095 14602 layer_factory.hpp:77] Creating layer cont_1_lstm1_cont_slice_0_split
I0924 03:05:38.396107 14602 net.cpp:91] Creating Layer cont_1_lstm1_cont_slice_0_split
I0924 03:05:38.396119 14602 net.cpp:425] cont_1_lstm1_cont_slice_0_split <- cont_1
I0924 03:05:38.396131 14602 net.cpp:399] cont_1_lstm1_cont_slice_0_split -> cont_1_lstm1_cont_slice_0_split_0
I0924 03:05:38.396144 14602 net.cpp:399] cont_1_lstm1_cont_slice_0_split -> cont_1_lstm1_cont_slice_0_split_1
I0924 03:05:38.396211 14602 net.cpp:141] Setting up cont_1_lstm1_cont_slice_0_split
I0924 03:05:38.396224 14602 net.cpp:148] Top shape: 1 1 (1)
I0924 03:05:38.396234 14602 net.cpp:148] Top shape: 1 1 (1)
I0924 03:05:38.396241 14602 net.cpp:156] Memory required for data: 10016
I0924 03:05:38.396250 14602 layer_factory.hpp:77] Creating layer lstm1_x_transform
I0924 03:05:38.396265 14602 net.cpp:91] Creating Layer lstm1_x_transform
I0924 03:05:38.396273 14602 net.cpp:425] lstm1_x_transform <- x
I0924 03:05:38.396291 14602 net.cpp:399] lstm1_x_transform -> W_xc_x
I0924 03:05:38.420357 14602 net.cpp:141] Setting up lstm1_x_transform
I0924 03:05:38.420408 14602 net.cpp:148] Top shape: 1 1 4000 (4000)
I0924 03:05:38.420418 14602 net.cpp:156] Memory required for data: 26016
I0924 03:05:38.420444 14602 layer_factory.hpp:77] Creating layer lstm1_W_xc_x_slice
I0924 03:05:38.420466 14602 net.cpp:91] Creating Layer lstm1_W_xc_x_slice
I0924 03:05:38.420477 14602 net.cpp:425] lstm1_W_xc_x_slice <- W_xc_x
I0924 03:05:38.420492 14602 net.cpp:399] lstm1_W_xc_x_slice -> W_xc_x_1
I0924 03:05:38.428552 14608 net.cpp:141] Setting up lstm1_transform_1
I0924 03:05:38.428598 14602 net.cpp:141] Setting up lstm1_W_xc_x_slice
I0924 03:05:38.428628 14602 net.cpp:148] Top shape: 1 1 4000 (4000)
I0924 03:05:38.428637 14602 net.cpp:156] Memory required for data: 42016
I0924 03:05:38.428649 14602 layer_factory.hpp:77] Creating layer lstm1_h_conted_0
I0924 03:05:38.428671 14602 net.cpp:91] Creating Layer lstm1_h_conted_0
I0924 03:05:38.428681 14602 net.cpp:425] lstm1_h_conted_0 <- h_0
I0924 03:05:38.428694 14602 net.cpp:425] lstm1_h_conted_0 <- cont_1_lstm1_cont_slice_0_split_0
I0924 03:05:38.428706 14602 net.cpp:399] lstm1_h_conted_0 -> h_conted_0
I0924 03:05:38.428915 14602 net.cpp:141] Setting up lstm1_h_conted_0
I0924 03:05:38.428931 14602 net.cpp:148] Top shape: 1 1 1000 (1000)
I0924 03:05:38.428938 14602 net.cpp:156] Memory required for data: 46016
I0924 03:05:38.428946 14602 layer_factory.hpp:77] Creating layer lstm1_transform_1
I0924 03:05:38.428964 14602 net.cpp:91] Creating Layer lstm1_transform_1
I0924 03:05:38.428972 14602 net.cpp:425] lstm1_transform_1 <- h_conted_0
I0924 03:05:38.429003 14602 net.cpp:399] lstm1_transform_1 -> W_hc_h_0
I0924 03:05:38.428606 14608 net.cpp:148] Top shape: 1 1 4000 (4000)
I0924 03:05:38.430449 14608 net.cpp:156] Memory required for data: 62016
I0924 03:05:38.430474 14608 layer_factory.hpp:77] Creating layer lstm1_gate_input_1
I0924 03:05:38.430493 14608 net.cpp:91] Creating Layer lstm1_gate_input_1
I0924 03:05:38.430503 14608 net.cpp:425] lstm1_gate_input_1 <- W_hc_h_0
I0924 03:05:38.430513 14608 net.cpp:425] lstm1_gate_input_1 <- W_xc_x_1
I0924 03:05:38.430531 14608 net.cpp:399] lstm1_gate_input_1 -> gate_input_1
I0924 03:05:38.432579 14608 net.cpp:141] Setting up lstm1_gate_input_1
I0924 03:05:38.432611 14608 net.cpp:148] Top shape: 1 1 4000 (4000)
I0924 03:05:38.432620 14608 net.cpp:156] Memory required for data: 78016
I0924 03:05:38.432628 14608 layer_factory.hpp:77] Creating layer lstm1_unit_1
I0924 03:05:38.432695 14608 net.cpp:91] Creating Layer lstm1_unit_1
I0924 03:05:38.432705 14608 net.cpp:425] lstm1_unit_1 <- c_0
I0924 03:05:38.432716 14608 net.cpp:425] lstm1_unit_1 <- gate_input_1
I0924 03:05:38.432725 14608 net.cpp:425] lstm1_unit_1 <- cont_1_lstm1_cont_slice_0_split_1
I0924 03:05:38.432736 14608 net.cpp:399] lstm1_unit_1 -> c_1
I0924 03:05:38.432756 14608 net.cpp:399] lstm1_unit_1 -> h_1
I0924 03:05:38.445922 14608 net.cpp:141] Setting up lstm1_unit_1
I0924 03:05:38.445977 14608 net.cpp:148] Top shape: 1 1 1000 (1000)
I0924 03:05:38.445992 14608 net.cpp:148] Top shape: 1 1 1000 (1000)
I0924 03:05:38.446002 14608 net.cpp:156] Memory required for data: 86016
I0924 03:05:38.446013 14608 layer_factory.hpp:77] Creating layer lstm1_
I0924 03:05:38.446035 14608 net.cpp:91] Creating Layer lstm1_
I0924 03:05:38.446046 14608 net.cpp:425] lstm1_ <- c_1
I0924 03:05:38.446065 14608 net.cpp:399] lstm1_ -> c_T
I0924 03:05:38.446125 14608 net.cpp:141] Setting up lstm1_
I0924 03:05:38.446148 14608 net.cpp:148] Top shape: 1 1 1000 (1000)
I0924 03:05:38.446158 14608 net.cpp:156] Memory required for data: 90016
I0924 03:05:38.446167 14608 layer_factory.hpp:77] Creating layer lstm1_h_concat
I0924 03:05:38.446182 14608 net.cpp:91] Creating Layer lstm1_h_concat
I0924 03:05:38.446192 14608 net.cpp:425] lstm1_h_concat <- h_1
I0924 03:05:38.446213 14608 net.cpp:399] lstm1_h_concat -> h
I0924 03:05:38.446290 14608 net.cpp:141] Setting up lstm1_h_concat
I0924 03:05:38.446306 14608 net.cpp:148] Top shape: 1 1 1000 (1000)
I0924 03:05:38.446315 14608 net.cpp:156] Memory required for data: 94016
I0924 03:05:38.446323 14608 layer_factory.hpp:77] Creating layer h_pseudoloss
I0924 03:05:38.446348 14608 net.cpp:91] Creating Layer h_pseudoloss
I0924 03:05:38.446359 14608 net.cpp:425] h_pseudoloss <- h
I0924 03:05:38.446372 14608 net.cpp:399] h_pseudoloss -> h_pseudoloss
I0924 03:05:38.446512 14608 net.cpp:141] Setting up h_pseudoloss
…
I0924 03:05:38.446734 14608 net.cpp:219] lstm1_ does not need backward computation.
I0924 03:05:38.446743 14608 net.cpp:261] This network produces output c_T
I0924 03:05:38.446751 14608 net.cpp:261] This network produces output h_pseudoloss
I0924 03:05:38.446784 14608 net.cpp:274] Network initialization done.
I0924 03:05:38.446868 14608 recurrent_layer.cpp:150] Adding parameter 0: W_xc
I0924 03:05:38.446882 14608 recurrent_layer.cpp:150] Adding parameter 1: b_c
I0924 03:05:38.446890 14608 recurrent_layer.cpp:150] Adding parameter 2: W_hc
I0924 03:05:38.447060 14608 net.cpp:141] Setting up lstm1
I0924 03:05:38.447078 14608 net.cpp:148] Top shape: 1 1 1000 (1000)
I0924 03:05:38.447088 14608 net.cpp:156] Memory required for data: 26408
I0924 03:05:38.447113 14608 layer_factory.hpp:77] Creating layer concat
I0924 03:05:38.447129 14608 net.cpp:91] Creating Layer concat
I0924 03:05:38.447139 14608 net.cpp:425] concat <- lstm1
I0924 03:05:38.447152 14608 net.cpp:425] concat <- embedded_input_sentence
I0924 03:05:38.447163 14608 net.cpp:425] concat <- reshaped_stage_indicator
I0924 03:05:38.447176 14608 net.cpp:399] concat -> lstm1_video_sequence
I0924 03:05:38.447227 14608 net.cpp:141] Setting up concat
I0924 03:05:38.447242 14608 net.cpp:148] Top shape: 1 1 1501 (1501)
I0924 03:05:38.447250 14608 net.cpp:156] Memory required for data: 32412
I0924 03:05:38.447259 14608 layer_factory.hpp:77] Creating layer lstm2
I0924 03:05:38.447279 14608 net.cpp:91] Creating Layer lstm2
I0924 03:05:38.447289 14608 net.cpp:425] lstm2 <- lstm1_video_sequence
I0924 03:05:38.447300 14608 net.cpp:425] lstm2 <- cont_sentence_input_1_split_1
I0924 03:05:38.447314 14608 net.cpp:399] lstm2 -> lstm2
I0924 03:05:38.447332 14608 recurrent_layer.cpp:20] Initializing recurrent layer: assuming input batch contains 1 timesteps of 1 independent streams.
I0924 03:05:38.447726 14608 net.cpp:49] Initializing net from parameters: 
layer {
  name: "lstm2_"
  type: "Input"
  top: "x"
  top: "cont"
  input_param {
    shape {
      dim: 1
      dim: 1
      dim: 1501
    }
    shape {
      dim: 1
      dim: 1
    }
  }
}
layer {
  name: "lstm2_"
  type: "Input"
  top: "c_0"
  top: "h_0"
  input_param {
    shape {
      dim: 1
      dim: 1
      dim: 1000
    }
    shape {
      dim: 1
      dim: 1
      dim: 1000
    }
  }
}
layer {
  name: "lstm2_cont_slice"
  type: "Slice"
  bottom: "cont"
  top: "cont_1"
  slice_param {
    axis: 0
  }
}
layer {
  name: "lstm2_x_transform"
  type: "InnerProduct"
  bottom: "x"
  top: "W_xc_x"
  param {
    name: "W_xc"
  }
  param {
    name: "b_c"
  }
  propagate_down: true
  inner_product_param {
    num_output: 4000
    bias_term: true
    weight_filler {
      type: "uniform"
      min: -0.08
      max: 0.08
    }
    bias_filler {
      type: "constant"
      value: 0
    }
    axis: 2
  }
}
layer {
  name: "lstm2_W_xc_x_slice"
  type: "Slice"
  bottom: "W_xc_x"
  top: "W_xc_x_1"
  slice_param {
    axis: 0
  }
}
layer {
  name: "lstm2_h_conted_0"
  type: "Scale"
  bottom: "h_0"
  bottom: "cont_1"
  top: "h_conted_0"
  scale_param {
    axis: 0
  }
}
layer {
  name: "lstm2_transform_1"
  type: "InnerProduct"
  bottom: "h_conted_0"
  top: "W_hc_h_0"
  param {
    name: "W_hc"
  }
  inner_product_param {
    num_output: 4000
    bias_term: false
    weight_filler {
      type: "uniform"
      min: -0.08
      max: 0.08
    }
    axis: 2
  }
}
layer {
  name: "lstm2_gate_input_1"
  type: "Eltwise"
  bottom: "W_hc_h_0"
  bottom: "W_xc_x_1"
  top: "gate_input_1"
  eltwise_param {
    operation: SUM
  }
}
layer {
  name: "lstm2_unit_1"
  type: "LSTMUnit"
  bottom: "c_0"
  bottom: "gate_input_1"
  bottom: "cont_1"
  top: "c_1"
  top: "h_1"
}
layer {
  name: "lstm2_"
  type: "Split"
  bottom: "c_1"
  top: "c_T"
}
layer {
  name: "lstm2_h_concat"
  type: "Concat"
  bottom: "h_1"
  top: "h"
  concat_param {
    axis: 0
  }
}
layer {
  name: "h_pseudoloss"
  type: "Reduction"
  bottom: "h"
  top: "h_pseudoloss"
  loss_weight: 1
}
I0924 03:05:38.447866 14608 layer_factory.hpp:77] Creating layer lstm2_
I0924 03:05:38.447886 14608 net.cpp:91] Creating Layer lstm2_
I0924 03:05:38.447898 14608 net.cpp:399] lstm2_ -> x
I0924 03:05:38.447916 14608 net.cpp:399] lstm2_ -> cont
I0924 03:05:38.447995 14608 net.cpp:141] Setting up lstm2_
I0924 03:05:38.448011 14608 net.cpp:148] Top shape: 1 1 1501 (1501)
I0924 03:05:38.448024 14608 net.cpp:148] Top shape: 1 1 (1)
I0924 03:05:38.448031 14608 net.cpp:156] Memory required for data: 6008
I0924 03:05:38.448040 14608 layer_factory.hpp:77] Creating layer lstm2_
I0924 03:05:38.448055 14608 net.cpp:91] Creating Layer lstm2_
I0924 03:05:38.448071 14608 net.cpp:399] lstm2_ -> c_0
I0924 03:05:38.448091 14608 net.cpp:399] lstm2_ -> h_0
I0924 03:05:38.448169 14608 net.cpp:141] Setting up lstm2_
I0924 03:05:38.448186 14608 net.cpp:148] Top shape: 1 1 1000 (1000)
I0924 03:05:38.448197 14608 net.cpp:148] Top shape: 1 1 1000 (1000)
I0924 03:05:38.448205 14608 net.cpp:156] Memory required for data: 14008
I0924 03:05:38.448215 14608 layer_factory.hpp:77] Creating layer lstm2_cont_slice
I0924 03:05:38.448240 14608 net.cpp:91] Creating Layer lstm2_cont_slice
I0924 03:05:38.448248 14608 net.cpp:425] lstm2_cont_slice <- cont
I0924 03:05:38.448261 14608 net.cpp:399] lstm2_cont_slice -> cont_1
I0924 03:05:38.448312 14608 net.cpp:141] Setting up lstm2_cont_slice
I0924 03:05:38.448328 14608 net.cpp:148] Top shape: 1 1 (1)
I0924 03:05:38.448335 14608 net.cpp:156] Memory required for data: 14012
I0924 03:05:38.448344 14608 layer_factory.hpp:77] Creating layer cont_1_lstm2_cont_slice_0_split
I0924 03:05:38.448356 14608 net.cpp:91] Creating Layer cont_1_lstm2_cont_slice_0_split
I0924 03:05:38.448365 14608 net.cpp:425] cont_1_lstm2_cont_slice_0_split <- cont_1
I0924 03:05:38.448382 14608 net.cpp:399] cont_1_lstm2_cont_slice_0_split -> cont_1_lstm2_cont_slice_0_split_0
I0924 03:05:38.448397 14608 net.cpp:399] cont_1_lstm2_cont_slice_0_split -> cont_1_lstm2_cont_slice_0_split_1
I0924 03:05:38.448472 14608 net.cpp:141] Setting up cont_1_lstm2_cont_slice_0_split
I0924 03:05:38.448487 14608 net.cpp:148] Top shape: 1 1 (1)
I0924 03:05:38.448499 14608 net.cpp:148] Top shape: 1 1 (1)
I0924 03:05:38.448508 14608 net.cpp:156] Memory required for data: 14020
I0924 03:05:38.448516 14608 layer_factory.hpp:77] Creating layer lstm2_x_transform
I0924 03:05:38.448537 14608 net.cpp:91] Creating Layer lstm2_x_transform
I0924 03:05:38.448547 14608 net.cpp:425] lstm2_x_transform <- x
I0924 03:05:38.448562 14608 net.cpp:399] lstm2_x_transform -> W_xc_x
I0924 03:05:38.481438 14576 net.cpp:141] Setting up lstm1_transform_1
I0924 03:05:38.481493 14576 net.cpp:148] Top shape: 1 1 4000 (4000)
I0924 03:05:38.481501 14576 net.cpp:156] Memory required for data: 62016
I0924 03:05:38.481528 14576 layer_factory.hpp:77] Creating layer lstm1_gate_input_1
I0924 03:05:38.481528 14584 net.cpp:141] Setting up lstm1_transform_1
I0924 03:05:38.481556 14576 net.cpp:91] Creating Layer lstm1_gate_input_1
I0924 03:05:38.481566 14576 net.cpp:425] lstm1_gate_input_1 <- W_hc_h_0
I0924 03:05:38.481565 14574 net.cpp:141] Setting up embedding
I0924 03:05:38.481571 14584 net.cpp:148] Top shape: 1 1 4000 (4000)
I0924 03:05:38.481577 14576 net.cpp:425] lstm1_gate_input_1 <- W_xc_x_1
I0924 03:05:38.481603 14584 net.cpp:156] Memory required for data: 62016
I0924 03:05:38.481631 14576 net.cpp:399] lstm1_gate_input_1 -> gate_input_1
I0924 03:05:38.481631 14584 layer_factory.hpp:77] Creating layer lstm1_gate_input_1
I0924 03:05:38.481598 14574 net.cpp:148] Top shape: 1 1 500 (500)
I0924 03:05:38.481700 14584 net.cpp:91] Creating Layer lstm1_gate_input_1
I0924 03:05:38.481701 14574 net.cpp:156] Memory required for data: 22408
I0924 03:05:38.481714 14584 net.cpp:425] lstm1_gate_input_1 <- W_hc_h_0
I0924 03:05:38.481725 14574 layer_factory.hpp:77] Creating layer lstm1
I0924 03:05:38.481725 14584 net.cpp:425] lstm1_gate_input_1 <- W_xc_x_1
I0924 03:05:38.481750 14576 net.cpp:141] Setting up lstm1_gate_input_1
I0924 03:05:38.481755 14584 net.cpp:399] lstm1_gate_input_1 -> gate_input_1
I0924 03:05:38.481771 14576 net.cpp:148] Top shape: 1 1 4000 (4000)
I0924 03:05:38.481781 14576 net.cpp:156] Memory required for data: 78016
I0924 03:05:38.481791 14576 layer_factory.hpp:77] Creating layer lstm1_unit_1
I0924 03:05:38.481750 14574 net.cpp:91] Creating Layer lstm1
I0924 03:05:38.481832 14574 net.cpp:425] lstm1 <- embedded_input_frames
I0924 03:05:38.481840 14584 net.cpp:141] Setting up lstm1_gate_input_1
I0924 03:05:38.481843 14576 net.cpp:91] Creating Layer lstm1_unit_1
I0924 03:05:38.481851 14574 net.cpp:425] lstm1 <- cont_sentence_input_1_split_0
I0924 03:05:38.481856 14584 net.cpp:148] Top shape: 1 1 4000 (4000)
I0924 03:05:38.481873 14584 net.cpp:156] Memory required for data: 78016
I0924 03:05:38.481873 14574 net.cpp:399] lstm1 -> lstm1
I0924 03:05:38.481858 14576 net.cpp:425] lstm1_unit_1 <- c_0
I0924 03:05:38.481883 14584 layer_factory.hpp:77] Creating layer lstm1_unit_1
I0924 03:05:38.481894 14576 net.cpp:425] lstm1_unit_1 <- gate_input_1
I0924 03:05:38.481915 14576 net.cpp:425] lstm1_unit_1 <- cont_1_lstm1_cont_slice_0_split_1
I0924 03:05:38.481896 14574 recurrent_layer.cpp:20] Initializing recurrent layer: assuming input batch contains 1 timesteps of 1 independent streams.
I0924 03:05:38.481933 14584 net.cpp:91] Creating Layer lstm1_unit_1
I0924 03:05:38.481950 14584 net.cpp:425] lstm1_unit_1 <- c_0
I0924 03:05:38.481935 14576 net.cpp:399] lstm1_unit_1 -> c_1
I0924 03:05:38.481964 14584 net.cpp:425] lstm1_unit_1 <- gate_input_1
I0924 03:05:38.481976 14584 net.cpp:425] lstm1_unit_1 <- cont_1_lstm1_cont_slice_0_split_1
I0924 03:05:38.481984 14576 net.cpp:399] lstm1_unit_1 -> h_1
I0924 03:05:38.481988 14584 net.cpp:399] lstm1_unit_1 -> c_1
I0924 03:05:38.482017 14584 net.cpp:399] lstm1_unit_1 -> h_1
I0924 03:05:38.482409 14584 net.cpp:141] Setting up lstm1_unit_1
I0924 03:05:38.482414 14576 net.cpp:141] Setting up lstm1_unit_1
I0924 03:05:38.482444 14584 net.cpp:148] Top shape: 1 1 1000 (1000)
I0924 03:05:38.482444 14576 net.cpp:148] Top shape: 1 1 1000 (1000)
I0924 03:05:38.482463 14584 net.cpp:148] Top shape: 1 1 1000 (1000)
I0924 03:05:38.482483 14576 net.cpp:148] Top shape: 1 1 1000 (1000)
I0924 03:05:38.482486 14584 net.cpp:156] Memory required for data: 86016
I0924 03:05:38.482499 14576 net.cpp:156] Memory required for data: 86016
I0924 03:05:38.482508 14584 layer_factory.hpp:77] Creating layer lstm1_
I0924 03:05:38.482511 14576 layer_factory.hpp:77] Creating layer lstm1_
I0924 03:05:38.482523 14584 net.cpp:91] Creating Layer lstm1_
I0924 03:05:38.482532 14584 net.cpp:425] lstm1_ <- c_1
I0924 03:05:38.482537 14576 net.cpp:91] Creating Layer lstm1_
I0924 03:05:38.482544 14584 net.cpp:399] lstm1_ -> c_T
I0924 03:05:38.482549 14576 net.cpp:425] lstm1_ <- c_1
I0924 03:05:38.482672 14584 net.cpp:141] Setting up lstm1_
I0924 03:05:38.482678 14574 net.cpp:49] Initializing net from parameters: 
layer {
  name: "lstm1_"
  type: "Input"
  top: "x"
  top: "cont"
  input_param {
    shape {
      dim: 1
      dim: 1
      dim: 500
    }
    shape {
      dim: 1
      dim: 1
    }
  }
}
layer {
  name: "lstm1_"
  type: "Input"
  top: "c_0"
  top: "h_0"
  input_param {
    shape {
      dim: 1
      dim: 1
      dim: 1000
    }
    shape {
      dim: 1
      dim: 1
      dim: 1000
    }
  }
}
layer {
  name: "lstm1_cont_slice"
  type: "Slice"
  bottom: "cont"
  top: "cont_1"
  slice_param {
    axis: 0
  }
}
layer {
  name: "lstm1_x_transform"
  type: "InnerProduct"
  bottom: "x"
  top: "W_xc_x"
  param {
    name: "W_xc"
  }
  param {
    name: "b_c"
  }
  propagate_down: true
  inner_product_param {
    num_output: 4000
    bias_term: true
    weight_filler {
      type: "uniform"
      min: -0.08
      max: 0.08
    }
    bias_filler {
      type: "constant"
      value: 0
    }
    axis: 2
  }
}
layer {
  name: "lstm1_W_xc_x_slice"
  type: "Slice"
  bottom: "W_xc_x"
  top: "W_xc_x_1"
  slice_param {
    axis: 0
  }
}
layer {
  name: "lstm1_h_conted_0"
  type: "Scale"
  bottom: "h_0"
  bottom: "cont_1"
  top: "h_conted_0"
  scale_param {
    axis: 0
  }
}
layer {
  name: "lstm1_transform_1"
  type: "InnerProduct"
  bottom: "h_conted_0"
  top: "W_hc_h_0"
  param {
    name: "W_hc"
  }
  inner_product_param {
    num_output: 4000
    bias_term: false
    weight_filler {
      type: "uniform"
      min: -0.08
      max: 0.08
    }
    axis: 2
  }
}
layer {
  name: "lstm1_gate_input_1"
  type: "Eltwise"
  bottom: "W_hc_h_0"
  bottom: "W_xc_x_1"
  top: "gate_input_1"
  eltwise_param {
    operation: SUM
  }
}
layer {
  name: "lstm1_unit_1"
  type: "LSTMUnit"
  bottom: "c_0"
  bottom: "gate_input_1"
  bottom: "cont_1"
  top: "c_1"
  top: "h_1"
}
layer {
  name: "lstm1_"
  type: "Split"
  bottom: "c_1"
  top: "c_T"
}
layer {
  name: "lstm1_h_concat"
  type: "Concat"
  bottom: "h_1"
  top: "h"
  concat_param {
    axis: 0
  }
}
layer {
  name: "h_pseudoloss"
  type: "Reduction"
  bottom: "h"
  top: "h_pseudoloss"
  loss_weight: 1
}
I0924 03:05:38.482692 14584 net.cpp:148] Top shape: 1 1 1000 (1000)
I0924 03:05:38.482681 14576 net.cpp:399] lstm1_ -> c_T
I0924 03:05:38.482700 14584 net.cpp:156] Memory required for data: 90016
I0924 03:05:38.482725 14584 layer_factory.hpp:77] Creating layer lstm1_h_concat
I0924 03:05:38.482738 14584 net.cpp:91] Creating Layer lstm1_h_concat
I0924 03:05:38.482746 14584 net.cpp:425] lstm1_h_concat <- h_1
I0924 03:05:38.482758 14584 net.cpp:399] lstm1_h_concat -> h
I0924 03:05:38.482790 14576 net.cpp:141] Setting up lstm1_
I0924 03:05:38.482811 14576 net.cpp:148] Top shape: 1 1 1000 (1000)
I0924 03:05:38.482821 14576 net.cpp:156] Memory required for data: 90016
I0924 03:05:38.482831 14576 layer_factory.hpp:77] Creating layer lstm1_h_concat
I0924 03:05:38.482839 14574 layer_factory.hpp:77] Creating layer lstm1_
I0924 03:05:38.482848 14576 net.cpp:91] Creating Layer lstm1_h_concat
I0924 03:05:38.482861 14576 net.cpp:425] lstm1_h_concat <- h_1
I0924 03:05:38.482861 14574 net.cpp:91] Creating Layer lstm1_
I0924 03:05:38.482885 14576 net.cpp:399] lstm1_h_concat -> h
I0924 03:05:38.482897 14574 net.cpp:399] lstm1_ -> x
I0924 03:05:38.482898 14584 net.cpp:141] Setting up lstm1_h_concat
I0924 03:05:38.482918 14584 net.cpp:148] Top shape: 1 1 1000 (1000)
I0924 03:05:38.482921 14574 net.cpp:399] lstm1_ -> cont
I0924 03:05:38.482925 14584 net.cpp:156] Memory required for data: 94016
I0924 03:05:38.482944 14584 layer_factory.hpp:77] Creating layer h_pseudoloss
I0924 03:05:38.482957 14584 net.cpp:91] Creating Layer h_pseudoloss
I0924 03:05:38.482965 14584 net.cpp:425] h_pseudoloss <- h
I0924 03:05:38.482976 14584 net.cpp:399] h_pseudoloss -> h_pseudoloss
I0924 03:05:38.482983 14576 net.cpp:141] Setting up lstm1_h_concat
I0924 03:05:38.483001 14576 net.cpp:148] Top shape: 1 1 1000 (1000)
I0924 03:05:38.483011 14576 net.cpp:156] Memory required for data: 94016
I0924 03:05:38.483019 14576 layer_factory.hpp:77] Creating layer h_pseudoloss
I0924 03:05:38.483043 14576 net.cpp:91] Creating Layer h_pseudoloss
I0924 03:05:38.483054 14576 net.cpp:425] h_pseudoloss <- h
I0924 03:05:38.483069 14576 net.cpp:399] h_pseudoloss -> h_pseudoloss
I0924 03:05:38.483069 14574 net.cpp:141] Setting up lstm1_
I0924 03:05:38.483089 14574 net.cpp:148] Top shape: 1 1 500 (500)
I0924 03:05:38.483101 14574 net.cpp:148] Top shape: 1 1 (1)
I0924 03:05:38.483109 14574 net.cpp:156] Memory required for data: 2004
I0924 03:05:38.483119 14574 layer_factory.hpp:77] Creating layer lstm1_
I0924 03:05:38.483136 14574 net.cpp:91] Creating Layer lstm1_
I0924 03:05:38.483153 14574 net.cpp:399] lstm1_ -> c_0
I0924 03:05:38.483173 14574 net.cpp:399] lstm1_ -> h_0
I0924 03:05:38.483218 14584 net.cpp:141] Setting up h_pseudoloss
I0924 03:05:38.483235 14584 net.cpp:148] Top shape: (1)
…
I0924 03:05:38.483676 14576 net.cpp:219] lstm1_ does not need backward computation.
I0924 03:05:38.483685 14576 net.cpp:261] This network produces output c_T
I0924 03:05:38.483695 14576 net.cpp:261] This network produces output h_pseudoloss
I0924 03:05:38.483721 14576 net.cpp:274] Network initialization done.
I0924 03:05:38.483808 14576 recurrent_layer.cpp:150] Adding parameter 0: W_xc
I0924 03:05:38.483822 14576 recurrent_layer.cpp:150] Adding parameter 1: b_c
I0924 03:05:38.483831 14576 recurrent_layer.cpp:150] Adding parameter 2: W_hc
I0924 03:05:38.493660 14574 net.cpp:141] Setting up lstm1_
I0924 03:05:38.493708 14574 net.cpp:148] Top shape: 1 1 1000 (1000)
I0924 03:05:38.493721 14574 net.cpp:148] Top shape: 1 1 1000 (1000)
I0924 03:05:38.493726 14574 net.cpp:156] Memory required for data: 10004
I0924 03:05:38.493737 14574 layer_factory.hpp:77] Creating layer lstm1_cont_slice
I0924 03:05:38.493769 14574 net.cpp:91] Creating Layer lstm1_cont_slice
I0924 03:05:38.493780 14574 net.cpp:425] lstm1_cont_slice <- cont
I0924 03:05:38.493796 14574 net.cpp:399] lstm1_cont_slice -> cont_1
I0924 03:05:38.493921 14602 net.cpp:141] Setting up lstm1_transform_1
I0924 03:05:38.493942 14602 net.cpp:148] Top shape: 1 1 4000 (4000)
I0924 03:05:38.493950 14602 net.cpp:156] Memory required for data: 62016
I0924 03:05:38.493968 14602 layer_factory.hpp:77] Creating layer lstm1_gate_input_1
I0924 03:05:38.493988 14602 net.cpp:91] Creating Layer lstm1_gate_input_1
I0924 03:05:38.493999 14602 net.cpp:425] lstm1_gate_input_1 <- W_hc_h_0
I0924 03:05:38.494009 14602 net.cpp:425] lstm1_gate_input_1 <- W_xc_x_1
I0924 03:05:38.494014 14574 net.cpp:141] Setting up lstm1_cont_slice
I0924 03:05:38.494019 14602 net.cpp:399] lstm1_gate_input_1 -> gate_input_1
I0924 03:05:38.494029 14574 net.cpp:148] Top shape: 1 1 (1)
I0924 03:05:38.494037 14574 net.cpp:156] Memory required for data: 10008
I0924 03:05:38.494045 14574 layer_factory.hpp:77] Creating layer cont_1_lstm1_cont_slice_0_split
I0924 03:05:38.494057 14574 net.cpp:91] Creating Layer cont_1_lstm1_cont_slice_0_split
I0924 03:05:38.494065 14574 net.cpp:425] cont_1_lstm1_cont_slice_0_split <- cont_1
I0924 03:05:38.494081 14574 net.cpp:399] cont_1_lstm1_cont_slice_0_split -> cont_1_lstm1_cont_slice_0_split_0
I0924 03:05:38.494094 14574 net.cpp:399] cont_1_lstm1_cont_slice_0_split -> cont_1_lstm1_cont_slice_0_split_1
I0924 03:05:38.494097 14584 net.cpp:141] Setting up lstm1
I0924 03:05:38.494125 14584 net.cpp:148] Top shape: 1 1 1000 (1000)
I0924 03:05:38.494138 14584 net.cpp:156] Memory required for data: 26408
I0924 03:05:38.494168 14584 layer_factory.hpp:77] Creating layer concat
I0924 03:05:38.494189 14584 net.cpp:91] Creating Layer concat
I0924 03:05:38.494202 14584 net.cpp:425] concat <- lstm1
I0924 03:05:38.494202 14602 net.cpp:141] Setting up lstm1_gate_input_1
I0924 03:05:38.494218 14584 net.cpp:425] concat <- embedded_input_sentence
I0924 03:05:38.494220 14602 net.cpp:148] Top shape: 1 1 4000 (4000)
I0924 03:05:38.494242 14584 net.cpp:425] concat <- reshaped_stage_indicator
I0924 03:05:38.494243 14602 net.cpp:156] Memory required for data: 78016
I0924 03:05:38.494264 14602 layer_factory.hpp:77] Creating layer lstm1_unit_1
I0924 03:05:38.494266 14584 net.cpp:399] concat -> lstm1_video_sequence
I0924 03:05:38.494271 14574 net.cpp:141] Setting up cont_1_lstm1_cont_slice_0_split
I0924 03:05:38.494277 14602 net.cpp:91] Creating Layer lstm1_unit_1
I0924 03:05:38.494287 14602 net.cpp:425] lstm1_unit_1 <- c_0
I0924 03:05:38.494288 14574 net.cpp:148] Top shape: 1 1 (1)
I0924 03:05:38.494297 14602 net.cpp:425] lstm1_unit_1 <- gate_input_1
I0924 03:05:38.494299 14574 net.cpp:148] Top shape: 1 1 (1)
I0924 03:05:38.494305 14602 net.cpp:425] lstm1_unit_1 <- cont_1_lstm1_cont_slice_0_split_1
I0924 03:05:38.494307 14574 net.cpp:156] Memory required for data: 10016
I0924 03:05:38.494316 14574 layer_factory.hpp:77] Creating layer lstm1_x_transform
I0924 03:05:38.494319 14602 net.cpp:399] lstm1_unit_1 -> c_1
I0924 03:05:38.494333 14602 net.cpp:399] lstm1_unit_1 -> h_1
I0924 03:05:38.494335 14574 net.cpp:91] Creating Layer lstm1_x_transform
I0924 03:05:38.494344 14574 net.cpp:425] lstm1_x_transform <- x
I0924 03:05:38.494359 14574 net.cpp:399] lstm1_x_transform -> W_xc_x
I0924 03:05:38.494364 14576 net.cpp:141] Setting up lstm1
I0924 03:05:38.494407 14576 net.cpp:148] Top shape: 1 1 1000 (1000)
I0924 03:05:38.494420 14576 net.cpp:156] Memory required for data: 26408
I0924 03:05:38.494452 14602 net.cpp:141] Setting up lstm1_unit_1
I0924 03:05:38.494453 14576 layer_factory.hpp:77] Creating layer concat
I0924 03:05:38.494477 14602 net.cpp:148] Top shape: 1 1 1000 (1000)
I0924 03:05:38.494498 14602 net.cpp:148] Top shape: 1 1 1000 (1000)
I0924 03:05:38.494506 14602 net.cpp:156] Memory required for data: 86016
I0924 03:05:38.494520 14602 layer_factory.hpp:77] Creating layer lstm1_
I0924 03:05:38.494504 14576 net.cpp:91] Creating Layer concat
I0924 03:05:38.494531 14602 net.cpp:91] Creating Layer lstm1_
I0924 03:05:38.494551 14602 net.cpp:425] lstm1_ <- c_1
I0924 03:05:38.494549 14576 net.cpp:425] concat <- lstm1
I0924 03:05:38.494568 14602 net.cpp:399] lstm1_ -> c_T
I0924 03:05:38.494586 14576 net.cpp:425] concat <- embedded_input_sentence
I0924 03:05:38.494647 14576 net.cpp:425] concat <- reshaped_stage_indicator
I0924 03:05:38.494668 14576 net.cpp:399] concat -> lstm1_video_sequence
I0924 03:05:38.499990 14584 net.cpp:141] Setting up concat
I0924 03:05:38.500032 14584 net.cpp:148] Top shape: 1 1 1501 (1501)
I0924 03:05:38.500031 14602 net.cpp:141] Setting up lstm1_
I0924 03:05:38.500042 14584 net.cpp:156] Memory required for data: 32412
I0924 03:05:38.500051 14602 net.cpp:148] Top shape: 1 1 1000 (1000)
I0924 03:05:38.500054 14584 layer_factory.hpp:77] Creating layer lstm2
I0924 03:05:38.500058 14602 net.cpp:156] Memory required for data: 90016
I0924 03:05:38.500066 14602 layer_factory.hpp:77] Creating layer lstm1_h_concat
I0924 03:05:38.500080 14602 net.cpp:91] Creating Layer lstm1_h_concat
I0924 03:05:38.500083 14584 net.cpp:91] Creating Layer lstm2
I0924 03:05:38.500090 14602 net.cpp:425] lstm1_h_concat <- h_1
I0924 03:05:38.500093 14584 net.cpp:425] lstm2 <- lstm1_video_sequence
I0924 03:05:38.500108 14602 net.cpp:399] lstm1_h_concat -> h
I0924 03:05:38.500104 14576 net.cpp:141] Setting up concat
I0924 03:05:38.500105 14584 net.cpp:425] lstm2 <- cont_sentence_input_1_split_1
I0924 03:05:38.500141 14576 net.cpp:148] Top shape: 1 1 1501 (1501)
I0924 03:05:38.500149 14584 net.cpp:399] lstm2 -> lstm2
I0924 03:05:38.500180 14602 net.cpp:141] Setting up lstm1_h_concat
I0924 03:05:38.500180 14584 recurrent_layer.cpp:20] Initializing recurrent layer: assuming input batch contains 1 timesteps of 1 independent streams.
I0924 03:05:38.500151 14576 net.cpp:156] Memory required for data: 32412
I0924 03:05:38.500200 14602 net.cpp:148] Top shape: 1 1 1000 (1000)
I0924 03:05:38.500226 14602 net.cpp:156] Memory required for data: 94016
I0924 03:05:38.500233 14602 layer_factory.hpp:77] Creating layer h_pseudoloss
I0924 03:05:38.500243 14576 layer_factory.hpp:77] Creating layer lstm2
I0924 03:05:38.500250 14602 net.cpp:91] Creating Layer h_pseudoloss
I0924 03:05:38.500277 14602 net.cpp:425] h_pseudoloss <- h
I0924 03:05:38.500288 14576 net.cpp:91] Creating Layer lstm2
…
I0924 03:05:38.500592 14602 net.cpp:219] lstm1_ does not need backward computation.
I0924 03:05:38.500589 14584 net.cpp:49] Initializing net from parameters: 
layer {
  name: "lstm2_"
  type: "Input"
  top: "x"
  top: "cont"
  input_param {
    shape {
      dim: 1
      dim: 1
      dim: 1501
    }
    shape {
      dim: 1
      dim: 1
    }
  }
}
layer {
  name: "lstm2_"
  type: "Input"
  top: "c_0"
  top: "h_0"
  input_param {
    shape {
      dim: 1
      dim: 1
      dim: 1000
    }
    shape {
      dim: 1
      dim: 1
      dim: 1000
    }
  }
}
layer {
  name: "lstm2_cont_slice"
  type: "Slice"
  bottom: "cont"
  top: "cont_1"
  slice_param {
    axis: 0
  }
}
layer {
  name: "lstm2_x_transform"
  type: "InnerProduct"
  bottom: "x"
  top: "W_xc_x"
  param {
    name: "W_xc"
  }
  param {
    name: "b_c"
  }
  propagate_down: true
  inner_product_param {
    num_output: 4000
    bias_term: true
    weight_filler {
      type: "uniform"
      min: -0.08
      max: 0.08
    }
    bias_filler {
      type: "constant"
      value: 0
    }
    axis: 2
  }
}
layer {
  name: "lstm2_W_xc_x_slice"
  type: "Slice"
  bottom: "W_xc_x"
  top: "W_xc_x_1"
  slice_param {
    axis: 0
  }
}
layer {
  name: "lstm2_h_conted_0"
  type: "Scale"
  bottom: "h_0"
  bottom: "cont_1"
  top: "h_conted_0"
  scale_param {
    axis: 0
  }
}
layer {
  name: "lstm2_transform_1"
  type: "InnerProduct"
  bottom: "h_conted_0"
  top: "W_hc_h_0"
  param {
    name: "W_hc"
  }
  inner_product_param {
    num_output: 4000
    bias_term: false
    weight_filler {
      type: "uniform"
      min: -0.08
      max: 0.08
    }
    axis: 2
  }
}
layer {
  name: "lstm2_gate_input_1"
  type: "Eltwise"
  bottom: "W_hc_h_0"
  bottom: "W_xc_x_1"
  top: "gate_input_1"
  eltwise_param {
    operation: SUM
  }
}
layer {
  name: "lstm2_unit_1"
  type: "LSTMUnit"
  bottom: "c_0"
  bottom: "gate_input_1"
  bottom: "cont_1"
  top: "c_1"
  top: "h_1"
}
layer {
  name: "lstm2_"
  type: "Split"
  bottom: "c_1"
  top: "c_T"
}
layer {
  name: "lstm2_h_concat"
  type: "Concat"
  bottom: "h_1"
  top: "h"
  concat_param {
    axis: 0
  }
}
layer {
  name: "h_pseudoloss"
  type: "Reduction"
  bottom: "h"
  top: "h_pseudoloss"
  loss_weight: 1
}
I0924 03:05:38.500599 14602 net.cpp:219] lstm1_ does not need backward computation.
I0924 03:05:38.500607 14602 net.cpp:261] This network produces output c_T
I0924 03:05:38.500614 14602 net.cpp:261] This network produces output h_pseudoloss
I0924 03:05:38.500641 14602 net.cpp:274] Network initialization done.
I0924 03:05:38.500702 14602 recurrent_layer.cpp:150] Adding parameter 0: W_xc
I0924 03:05:38.500711 14602 recurrent_layer.cpp:150] Adding parameter 1: b_c
I0924 03:05:38.500718 14602 recurrent_layer.cpp:150] Adding parameter 2: W_hc
I0924 03:05:38.500722 14584 layer_factory.hpp:77] Creating layer lstm2_
I0924 03:05:38.500742 14584 net.cpp:91] Creating Layer lstm2_
I0924 03:05:38.500753 14584 net.cpp:399] lstm2_ -> x
I0924 03:05:38.500769 14584 net.cpp:399] lstm2_ -> cont
I0924 03:05:38.500828 14576 net.cpp:49] Initializing net from parameters: 
layer {
  name: "lstm2_"
  type: "Input"
  top: "x"
  top: "cont"
  input_param {
    shape {
      dim: 1
      dim: 1
      dim: 1501
    }
    shape {
      dim: 1
      dim: 1
    }
  }
}
layer {
  name: "lstm2_"
  type: "Input"
  top: "c_0"
  top: "h_0"
  input_param {
    shape {
      dim: 1
      dim: 1
      dim: 1000
    }
    shape {
      dim: 1
      dim: 1
      dim: 1000
    }
  }
}
layer {
  name: "lstm2_cont_slice"
  type: "Slice"
  bottom: "cont"
  top: "cont_1"
  slice_param {
    axis: 0
  }
}
layer {
  name: "lstm2_x_transform"
  type: "InnerProduct"
  bottom: "x"
  top: "W_xc_x"
  param {
    name: "W_xc"
  }
  param {
    name: "b_c"
  }
  propagate_down: true
  inner_product_param {
    num_output: 4000
    bias_term: true
    weight_filler {
      type: "uniform"
      min: -0.08
      max: 0.08
    }
    bias_filler {
      type: "constant"
      value: 0
    }
    axis: 2
  }
}
layer {
  name: "lstm2_W_xc_x_slice"
  type: "Slice"
  bottom: "W_xc_x"
  top: "W_xc_x_1"
  slice_param {
    axis: 0
  }
}
layer {
  name: "lstm2_h_conted_0"
  type: "Scale"
  bottom: "h_0"
  bottom: "cont_1"
  top: "h_conted_0"
  scale_param {
    axis: 0
  }
}
layer {
  name: "lstm2_transform_1"
  type: "InnerProduct"
  bottom: "h_conted_0"
  top: "W_hc_h_0"
  param {
    name: "W_hc"
  }
  inner_product_param {
    num_output: 4000
    bias_term: false
    weight_filler {
      type: "uniform"
      min: -0.08
      max: 0.08
    }
    axis: 2
  }
}
layer {
  name: "lstm2_gate_input_1"
  type: "Eltwise"
  bottom: "W_hc_h_0"
  bottom: "W_xc_x_1"
  top: "gate_input_1"
  eltwise_param {
    operation: SUM
  }
}
layer {
  name: "lstm2_unit_1"
  type: "LSTMUnit"
  bottom: "c_0"
  bottom: "gate_input_1"
  bottom: "cont_1"
  top: "c_1"
  top: "h_1"
}
layer {
  name: "lstm2_"
  type: "Split"
  bottom: "c_1"
  top: "c_T"
}
layer {
  name: "lstm2_h_concat"
  type: "Concat"
  bottom: "h_1"
  top: "h"
  concat_param {
    axis: 0
  }
}
layer {
  name: "h_pseudoloss"
  type: "Reduction"
  bottom: "h"
  top: "h_pseudoloss"
  loss_weight: 1
}
I0924 03:05:38.500871 14602 net.cpp:141] Setting up lstm1
I0924 03:05:38.500888 14602 net.cpp:148] Top shape: 1 1 1000 (1000)
I0924 03:05:38.500896 14602 net.cpp:156] Memory required for data: 26408
I0924 03:05:38.500906 14584 net.cpp:141] Setting up lstm2_
I0924 03:05:38.500917 14602 layer_factory.hpp:77] Creating layer concat
I0924 03:05:38.500924 14584 net.cpp:148] Top shape: 1 1 1501 (1501)
I0924 03:05:38.500931 14602 net.cpp:91] Creating Layer concat
I0924 03:05:38.500936 14584 net.cpp:148] Top shape: 1 1 (1)
I0924 03:05:38.500942 14602 net.cpp:425] concat <- lstm1
I0924 03:05:38.500943 14584 net.cpp:156] Memory required for data: 6008
I0924 03:05:38.500953 14584 layer_factory.hpp:77] Creating layer lstm2_
I0924 03:05:38.500953 14602 net.cpp:425] concat <- embedded_input_sentence
I0924 03:05:38.500974 14602 net.cpp:425] concat <- reshaped_stage_indicator
I0924 03:05:38.500980 14584 net.cpp:91] Creating Layer lstm2_
I0924 03:05:38.500985 14602 net.cpp:399] concat -> lstm1_video_sequence
I0924 03:05:38.500993 14584 net.cpp:399] lstm2_ -> c_0
I0924 03:05:38.500999 14576 layer_factory.hpp:77] Creating layer lstm2_
I0924 03:05:38.501009 14584 net.cpp:399] lstm2_ -> h_0
I0924 03:05:38.501022 14576 net.cpp:91] Creating Layer lstm2_
I0924 03:05:38.501039 14576 net.cpp:399] lstm2_ -> x
I0924 03:05:38.501044 14602 net.cpp:141] Setting up concat
I0924 03:05:38.501057 14602 net.cpp:148] Top shape: 1 1 1501 (1501)
I0924 03:05:38.501060 14576 net.cpp:399] lstm2_ -> cont
I0924 03:05:38.501065 14602 net.cpp:156] Memory required for data: 32412
I0924 03:05:38.501073 14602 layer_factory.hpp:77] Creating layer lstm2
I0924 03:05:38.501088 14602 net.cpp:91] Creating Layer lstm2
I0924 03:05:38.501097 14602 net.cpp:425] lstm2 <- lstm1_video_sequence
I0924 03:05:38.501106 14602 net.cpp:425] lstm2 <- cont_sentence_input_1_split_1
I0924 03:05:38.501111 14584 net.cpp:141] Setting up lstm2_
I0924 03:05:38.501117 14602 net.cpp:399] lstm2 -> lstm2
I0924 03:05:38.501127 14584 net.cpp:148] Top shape: 1 1 1000 (1000)
I0924 03:05:38.501134 14602 recurrent_layer.cpp:20] Initializing recurrent layer: assuming input batch contains 1 timesteps of 1 independent streams.
I0924 03:05:38.501137 14584 net.cpp:148] Top shape: 1 1 1000 (1000)
I0924 03:05:38.501144 14584 net.cpp:156] Memory required for data: 14008
I0924 03:05:38.501152 14584 layer_factory.hpp:77] Creating layer lstm2_cont_slice
I0924 03:05:38.501165 14584 net.cpp:91] Creating Layer lstm2_cont_slice
I0924 03:05:38.501173 14584 net.cpp:425] lstm2_cont_slice <- cont
I0924 03:05:38.501185 14584 net.cpp:399] lstm2_cont_slice -> cont_1
I0924 03:05:38.501209 14576 net.cpp:141] Setting up lstm2_
I0924 03:05:38.501229 14576 net.cpp:148] Top shape: 1 1 1501 (1501)
I0924 03:05:38.501242 14576 net.cpp:148] Top shape: 1 1 (1)
I0924 03:05:38.501245 14584 net.cpp:141] Setting up lstm2_cont_slice
I0924 03:05:38.501251 14576 net.cpp:156] Memory required for data: 6008
I0924 03:05:38.501260 14584 net.cpp:148] Top shape: 1 1 (1)
I0924 03:05:38.501262 14576 layer_factory.hpp:77] Creating layer lstm2_
I0924 03:05:38.501268 14584 net.cpp:156] Memory required for data: 14012
I0924 03:05:38.501276 14584 layer_factory.hpp:77] Creating layer cont_1_lstm2_cont_slice_0_split
I0924 03:05:38.501289 14576 net.cpp:91] Creating Layer lstm2_
I0924 03:05:38.501294 14584 net.cpp:91] Creating Layer cont_1_lstm2_cont_slice_0_split
I0924 03:05:38.501303 14584 net.cpp:425] cont_1_lstm2_cont_slice_0_split <- cont_1
I0924 03:05:38.501307 14576 net.cpp:399] lstm2_ -> c_0
I0924 03:05:38.501314 14584 net.cpp:399] cont_1_lstm2_cont_slice_0_split -> cont_1_lstm2_cont_slice_0_split_0
I0924 03:05:38.501329 14576 net.cpp:399] lstm2_ -> h_0
I0924 03:05:38.501332 14584 net.cpp:399] cont_1_lstm2_cont_slice_0_split -> cont_1_lstm2_cont_slice_0_split_1
I0924 03:05:38.501428 14602 net.cpp:49] Initializing net from parameters: 
layer {
  name: "lstm2_"
  type: "Input"
  top: "x"
  top: "cont"
  input_param {
    shape {
      dim: 1
      dim: 1
      dim: 1501
    }
    shape {
      dim: 1
      dim: 1
    }
  }
}
layer {
  name: "lstm2_"
  type: "Input"
  top: "c_0"
  top: "h_0"
  input_param {
    shape {
      dim: 1
      dim: 1
      dim: 1000
    }
    shape {
      dim: 1
      dim: 1
      dim: 1000
    }
  }
}
layer {
  name: "lstm2_cont_slice"
  type: "Slice"
  bottom: "cont"
  top: "cont_1"
  slice_param {
    axis: 0
  }
}
layer {
  name: "lstm2_x_transform"
  type: "InnerProduct"
  bottom: "x"
  top: "W_xc_x"
  param {
    name: "W_xc"
  }
  param {
    name: "b_c"
  }
  propagate_down: true
  inner_product_param {
    num_output: 4000
    bias_term: true
    weight_filler {
      type: "uniform"
      min: -0.08
      max: 0.08
    }
    bias_filler {
      type: "constant"
      value: 0
    }
    axis: 2
  }
}
layer {
  name: "lstm2_W_xc_x_slice"
  type: "Slice"
  bottom: "W_xc_x"
  top: "W_xc_x_1"
  slice_param {
    axis: 0
  }
}
layer {
  name: "lstm2_h_conted_0"
  type: "Scale"
  bottom: "h_0"
  bottom: "cont_1"
  top: "h_conted_0"
  scale_param {
    axis: 0
  }
}
layer {
  name: "lstm2_transform_1"
  type: "InnerProduct"
  bottom: "h_conted_0"
  top: "W_hc_h_0"
  param {
    name: "W_hc"
  }
  inner_product_param {
    num_output: 4000
    bias_term: false
    weight_filler {
      type: "uniform"
      min: -0.08
      max: 0.08
    }
    axis: 2
  }
}
layer {
  name: "lstm2_gate_input_1"
  type: "Eltwise"
  bottom: "W_hc_h_0"
  bottom: "W_xc_x_1"
  top: "gate_input_1"
  eltwise_param {
    operation: SUM
  }
}
layer {
  name: "lstm2_unit_1"
  type: "LSTMUnit"
  bottom: "c_0"
  bottom: "gate_input_1"
  bottom: "cont_1"
  top: "c_1"
  top: "h_1"
}
layer {
  name: "lstm2_"
  type: "Split"
  bottom: "c_1"
  top: "c_T"
}
layer {
  name: "lstm2_h_concat"
  type: "Concat"
  bottom: "h_1"
  top: "h"
  concat_param {
    axis: 0
  }
}
layer {
  name: "h_pseudoloss"
  type: "Reduction"
  bottom: "h"
  top: "h_pseudoloss"
  loss_weight: 1
}
I0924 03:05:38.501490 14576 net.cpp:141] Setting up lstm2_
I0924 03:05:38.501513 14576 net.cpp:148] Top shape: 1 1 1000 (1000)
I0924 03:05:38.501528 14576 net.cpp:148] Top shape: 1 1 1000 (1000)
I0924 03:05:38.501536 14576 net.cpp:156] Memory required for data: 14008
I0924 03:05:38.501545 14576 layer_factory.hpp:77] Creating layer lstm2_cont_slice
I0924 03:05:38.501549 14602 layer_factory.hpp:77] Creating layer lstm2_
I0924 03:05:38.501562 14576 net.cpp:91] Creating Layer lstm2_cont_slice
I0924 03:05:38.501569 14584 net.cpp:141] Setting up cont_1_lstm2_cont_slice_0_split
I0924 03:05:38.501581 14576 net.cpp:425] lstm2_cont_slice <- cont
I0924 03:05:38.501587 14584 net.cpp:148] Top shape: 1 1 (1)
I0924 03:05:38.501564 14602 net.cpp:91] Creating Layer lstm2_
I0924 03:05:38.501600 14584 net.cpp:148] Top shape: 1 1 (1)
I0924 03:05:38.501600 14576 net.cpp:399] lstm2_cont_slice -> cont_1
I0924 03:05:38.501607 14584 net.cpp:156] Memory required for data: 14020
I0924 03:05:38.501610 14602 net.cpp:399] lstm2_ -> x
I0924 03:05:38.501616 14584 layer_factory.hpp:77] Creating layer lstm2_x_transform
I0924 03:05:38.501627 14602 net.cpp:399] lstm2_ -> cont
I0924 03:05:38.501636 14584 net.cpp:91] Creating Layer lstm2_x_transform
I0924 03:05:38.501644 14584 net.cpp:425] lstm2_x_transform <- x
I0924 03:05:38.501662 14584 net.cpp:399] lstm2_x_transform -> W_xc_x
I0924 03:05:38.501685 14576 net.cpp:141] Setting up lstm2_cont_slice
I0924 03:05:38.501704 14576 net.cpp:148] Top shape: 1 1 (1)
I0924 03:05:38.501714 14576 net.cpp:156] Memory required for data: 14012
I0924 03:05:38.501724 14576 layer_factory.hpp:77] Creating layer cont_1_lstm2_cont_slice_0_split
I0924 03:05:38.501737 14576 net.cpp:91] Creating Layer cont_1_lstm2_cont_slice_0_split
I0924 03:05:38.501749 14576 net.cpp:425] cont_1_lstm2_cont_slice_0_split <- cont_1
I0924 03:05:38.501766 14576 net.cpp:399] cont_1_lstm2_cont_slice_0_split -> cont_1_lstm2_cont_slice_0_split_0
I0924 03:05:38.501785 14576 net.cpp:399] cont_1_lstm2_cont_slice_0_split -> cont_1_lstm2_cont_slice_0_split_1
I0924 03:05:38.516276 14602 net.cpp:141] Setting up lstm2_
I0924 03:05:38.516322 14602 net.cpp:148] Top shape: 1 1 1501 (1501)
I0924 03:05:38.516335 14602 net.cpp:148] Top shape: 1 1 (1)
I0924 03:05:38.516341 14602 net.cpp:156] Memory required for data: 6008
I0924 03:05:38.516355 14602 layer_factory.hpp:77] Creating layer lstm2_
I0924 03:05:38.516381 14602 net.cpp:91] Creating Layer lstm2_
I0924 03:05:38.516401 14602 net.cpp:399] lstm2_ -> c_0
I0924 03:05:38.516425 14602 net.cpp:399] lstm2_ -> h_0
I0924 03:05:38.516453 14576 net.cpp:141] Setting up cont_1_lstm2_cont_slice_0_split
I0924 03:05:38.516505 14576 net.cpp:148] Top shape: 1 1 (1)
I0924 03:05:38.516521 14576 net.cpp:148] Top shape: 1 1 (1)
I0924 03:05:38.516527 14602 net.cpp:141] Setting up lstm2_
I0924 03:05:38.516531 14576 net.cpp:156] Memory required for data: 14020
I0924 03:05:38.516544 14602 net.cpp:148] Top shape: 1 1 1000 (1000)
I0924 03:05:38.516548 14576 layer_factory.hpp:77] Creating layer lstm2_x_transform
I0924 03:05:38.516556 14602 net.cpp:148] Top shape: 1 1 1000 (1000)
I0924 03:05:38.516563 14602 net.cpp:156] Memory required for data: 14008
I0924 03:05:38.516571 14602 layer_factory.hpp:77] Creating layer lstm2_cont_slice
I0924 03:05:38.516584 14576 net.cpp:91] Creating Layer lstm2_x_transform
I0924 03:05:38.516592 14602 net.cpp:91] Creating Layer lstm2_cont_slice
I0924 03:05:38.516600 14576 net.cpp:425] lstm2_x_transform <- x
I0924 03:05:38.516602 14602 net.cpp:425] lstm2_cont_slice <- cont
I0924 03:05:38.516630 14602 net.cpp:399] lstm2_cont_slice -> cont_1
I0924 03:05:38.516643 14576 net.cpp:399] lstm2_x_transform -> W_xc_x
I0924 03:05:38.516682 14602 net.cpp:141] Setting up lstm2_cont_slice
I0924 03:05:38.516695 14602 net.cpp:148] Top shape: 1 1 (1)
I0924 03:05:38.516702 14602 net.cpp:156] Memory required for data: 14012
I0924 03:05:38.516710 14602 layer_factory.hpp:77] Creating layer cont_1_lstm2_cont_slice_0_split
I0924 03:05:38.516722 14602 net.cpp:91] Creating Layer cont_1_lstm2_cont_slice_0_split
I0924 03:05:38.516731 14602 net.cpp:425] cont_1_lstm2_cont_slice_0_split <- cont_1
I0924 03:05:38.516746 14602 net.cpp:399] cont_1_lstm2_cont_slice_0_split -> cont_1_lstm2_cont_slice_0_split_0
I0924 03:05:38.516758 14602 net.cpp:399] cont_1_lstm2_cont_slice_0_split -> cont_1_lstm2_cont_slice_0_split_1
I0924 03:05:38.532459 14602 net.cpp:141] Setting up cont_1_lstm2_cont_slice_0_split
I0924 03:05:38.532505 14602 net.cpp:148] Top shape: 1 1 (1)
I0924 03:05:38.532515 14602 net.cpp:148] Top shape: 1 1 (1)
I0924 03:05:38.532522 14602 net.cpp:156] Memory required for data: 14020
I0924 03:05:38.532533 14602 layer_factory.hpp:77] Creating layer lstm2_x_transform
I0924 03:05:38.532562 14602 net.cpp:91] Creating Layer lstm2_x_transform
I0924 03:05:38.532572 14602 net.cpp:425] lstm2_x_transform <- x
I0924 03:05:38.532588 14602 net.cpp:399] lstm2_x_transform -> W_xc_x
I0924 03:05:38.532709 14574 net.cpp:141] Setting up lstm1_x_transform
I0924 03:05:38.532728 14574 net.cpp:148] Top shape: 1 1 4000 (4000)
I0924 03:05:38.532733 14574 net.cpp:156] Memory required for data: 26016
I0924 03:05:38.532752 14574 layer_factory.hpp:77] Creating layer lstm1_W_xc_x_slice
I0924 03:05:38.532763 14574 net.cpp:91] Creating Layer lstm1_W_xc_x_slice
I0924 03:05:38.532769 14574 net.cpp:425] lstm1_W_xc_x_slice <- W_xc_x
I0924 03:05:38.532778 14574 net.cpp:399] lstm1_W_xc_x_slice -> W_xc_x_1
I0924 03:05:38.544860 14578 net.cpp:141] Setting up embedding
I0924 03:05:38.544878 14574 net.cpp:141] Setting up lstm1_W_xc_x_slice
I0924 03:05:38.544927 14574 net.cpp:148] Top shape: 1 1 4000 (4000)
I0924 03:05:38.544929 14578 net.cpp:148] Top shape: 1 1 500 (500)
I0924 03:05:38.544934 14574 net.cpp:156] Memory required for data: 42016
I0924 03:05:38.544950 14608 net.cpp:141] Setting up lstm2_x_transform
I0924 03:05:38.544952 14578 net.cpp:156] Memory required for data: 22408
I0924 03:05:38.544986 14608 net.cpp:148] Top shape: 1 1 4000 (4000)
I0924 03:05:38.544992 14608 net.cpp:156] Memory required for data: 30020
I0924 03:05:38.544957 14574 layer_factory.hpp:77] Creating layer lstm1_h_conted_0
I0924 03:05:38.545013 14608 layer_factory.hpp:77] Creating layer lstm2_W_xc_x_slice
I0924 03:05:38.545019 14578 layer_factory.hpp:77] Creating layer lstm1
I0924 03:05:38.545025 14574 net.cpp:91] Creating Layer lstm1_h_conted_0
I0924 03:05:38.545028 14608 net.cpp:91] Creating Layer lstm2_W_xc_x_slice
I0924 03:05:38.545052 14574 net.cpp:425] lstm1_h_conted_0 <- h_0
I0924 03:05:38.545058 14608 net.cpp:425] lstm2_W_xc_x_slice <- W_xc_x
I0924 03:05:38.545060 14574 net.cpp:425] lstm1_h_conted_0 <- cont_1_lstm1_cont_slice_0_split_0
I0924 03:05:38.545068 14608 net.cpp:399] lstm2_W_xc_x_slice -> W_xc_x_1
I0924 03:05:38.545070 14574 net.cpp:399] lstm1_h_conted_0 -> h_conted_0
I0924 03:05:38.545068 14578 net.cpp:91] Creating Layer lstm1
I0924 03:05:38.545089 14578 net.cpp:425] lstm1 <- embedded_input_frames
I0924 03:05:38.545109 14578 net.cpp:425] lstm1 <- cont_sentence_input_1_split_0
I0924 03:05:38.545132 14578 net.cpp:399] lstm1 -> lstm1
I0924 03:05:38.545163 14578 recurrent_layer.cpp:20] Initializing recurrent layer: assuming input batch contains 1 timesteps of 1 independent streams.
I0924 03:05:38.545227 14608 net.cpp:141] Setting up lstm2_W_xc_x_slice
I0924 03:05:38.545238 14608 net.cpp:148] Top shape: 1 1 4000 (4000)
I0924 03:05:38.545243 14608 net.cpp:156] Memory required for data: 46020
I0924 03:05:38.545248 14608 layer_factory.hpp:77] Creating layer lstm2_h_conted_0
I0924 03:05:38.545260 14608 net.cpp:91] Creating Layer lstm2_h_conted_0
I0924 03:05:38.545266 14608 net.cpp:425] lstm2_h_conted_0 <- h_0
I0924 03:05:38.545272 14608 net.cpp:425] lstm2_h_conted_0 <- cont_1_lstm2_cont_slice_0_split_0
I0924 03:05:38.545280 14608 net.cpp:399] lstm2_h_conted_0 -> h_conted_0
I0924 03:05:38.545395 14608 net.cpp:141] Setting up lstm2_h_conted_0
I0924 03:05:38.545405 14608 net.cpp:148] Top shape: 1 1 1000 (1000)
I0924 03:05:38.545410 14608 net.cpp:156] Memory required for data: 50020
I0924 03:05:38.545415 14608 layer_factory.hpp:77] Creating layer lstm2_transform_1
I0924 03:05:38.545429 14608 net.cpp:91] Creating Layer lstm2_transform_1
I0924 03:05:38.545435 14608 net.cpp:425] lstm2_transform_1 <- h_conted_0
I0924 03:05:38.545439 14574 net.cpp:141] Setting up lstm1_h_conted_0
I0924 03:05:38.545444 14608 net.cpp:399] lstm2_transform_1 -> W_hc_h_0
I0924 03:05:38.545451 14574 net.cpp:148] Top shape: 1 1 1000 (1000)
I0924 03:05:38.545456 14574 net.cpp:156] Memory required for data: 46016
I0924 03:05:38.545461 14574 layer_factory.hpp:77] Creating layer lstm1_transform_1
I0924 03:05:38.545472 14574 net.cpp:91] Creating Layer lstm1_transform_1
I0924 03:05:38.545478 14574 net.cpp:425] lstm1_transform_1 <- h_conted_0
I0924 03:05:38.545486 14574 net.cpp:399] lstm1_transform_1 -> W_hc_h_0
I0924 03:05:38.545750 14578 net.cpp:49] Initializing net from parameters: 
layer {
  name: "lstm1_"
  type: "Input"
  top: "x"
  top: "cont"
  input_param {
    shape {
      dim: 1
      dim: 1
      dim: 500
    }
    shape {
      dim: 1
      dim: 1
    }
  }
}
layer {
  name: "lstm1_"
  type: "Input"
  top: "c_0"
  top: "h_0"
  input_param {
    shape {
      dim: 1
      dim: 1
      dim: 1000
    }
    shape {
      dim: 1
      dim: 1
      dim: 1000
    }
  }
}
layer {
  name: "lstm1_cont_slice"
  type: "Slice"
  bottom: "cont"
  top: "cont_1"
  slice_param {
    axis: 0
  }
}
layer {
  name: "lstm1_x_transform"
  type: "InnerProduct"
  bottom: "x"
  top: "W_xc_x"
  param {
    name: "W_xc"
  }
  param {
    name: "b_c"
  }
  propagate_down: true
  inner_product_param {
    num_output: 4000
    bias_term: true
    weight_filler {
      type: "uniform"
      min: -0.08
      max: 0.08
    }
    bias_filler {
      type: "constant"
      value: 0
    }
    axis: 2
  }
}
layer {
  name: "lstm1_W_xc_x_slice"
  type: "Slice"
  bottom: "W_xc_x"
  top: "W_xc_x_1"
  slice_param {
    axis: 0
  }
}
layer {
  name: "lstm1_h_conted_0"
  type: "Scale"
  bottom: "h_0"
  bottom: "cont_1"
  top: "h_conted_0"
  scale_param {
    axis: 0
  }
}
layer {
  name: "lstm1_transform_1"
  type: "InnerProduct"
  bottom: "h_conted_0"
  top: "W_hc_h_0"
  param {
    name: "W_hc"
  }
  inner_product_param {
    num_output: 4000
    bias_term: false
    weight_filler {
      type: "uniform"
      min: -0.08
      max: 0.08
    }
    axis: 2
  }
}
layer {
  name: "lstm1_gate_input_1"
  type: "Eltwise"
  bottom: "W_hc_h_0"
  bottom: "W_xc_x_1"
  top: "gate_input_1"
  eltwise_param {
    operation: SUM
  }
}
layer {
  name: "lstm1_unit_1"
  type: "LSTMUnit"
  bottom: "c_0"
  bottom: "gate_input_1"
  bottom: "cont_1"
  top: "c_1"
  top: "h_1"
}
layer {
  name: "lstm1_"
  type: "Split"
  bottom: "c_1"
  top: "c_T"
}
layer {
  name: "lstm1_h_concat"
  type: "Concat"
  bottom: "h_1"
  top: "h"
  concat_param {
    axis: 0
  }
}
layer {
  name: "h_pseudoloss"
  type: "Reduction"
  bottom: "h"
  top: "h_pseudoloss"
  loss_weight: 1
}
I0924 03:05:38.545972 14578 layer_factory.hpp:77] Creating layer lstm1_
I0924 03:05:38.546005 14578 net.cpp:91] Creating Layer lstm1_
I0924 03:05:38.546026 14578 net.cpp:399] lstm1_ -> x
I0924 03:05:38.546057 14578 net.cpp:399] lstm1_ -> cont
I0924 03:05:38.556843 14578 net.cpp:141] Setting up lstm1_
I0924 03:05:38.556888 14578 net.cpp:148] Top shape: 1 1 500 (500)
I0924 03:05:38.556900 14578 net.cpp:148] Top shape: 1 1 (1)
I0924 03:05:38.556906 14578 net.cpp:156] Memory required for data: 2004
I0924 03:05:38.556918 14578 layer_factory.hpp:77] Creating layer lstm1_
I0924 03:05:38.556970 14578 net.cpp:91] Creating Layer lstm1_
I0924 03:05:38.556984 14578 net.cpp:399] lstm1_ -> c_0
I0924 03:05:38.557008 14578 net.cpp:399] lstm1_ -> h_0
I0924 03:05:38.565614 14578 net.cpp:141] Setting up lstm1_
I0924 03:05:38.565655 14578 net.cpp:148] Top shape: 1 1 1000 (1000)
I0924 03:05:38.565666 14578 net.cpp:148] Top shape: 1 1 1000 (1000)
I0924 03:05:38.565673 14578 net.cpp:156] Memory required for data: 10004
I0924 03:05:38.565683 14578 layer_factory.hpp:77] Creating layer lstm1_cont_slice
I0924 03:05:38.565704 14578 net.cpp:91] Creating Layer lstm1_cont_slice
I0924 03:05:38.565717 14578 net.cpp:425] lstm1_cont_slice <- cont
I0924 03:05:38.565732 14578 net.cpp:399] lstm1_cont_slice -> cont_1
I0924 03:05:38.566020 14578 net.cpp:141] Setting up lstm1_cont_slice
I0924 03:05:38.566035 14578 net.cpp:148] Top shape: 1 1 (1)
I0924 03:05:38.566041 14578 net.cpp:156] Memory required for data: 10008
I0924 03:05:38.566049 14578 layer_factory.hpp:77] Creating layer cont_1_lstm1_cont_slice_0_split
I0924 03:05:38.566064 14578 net.cpp:91] Creating Layer cont_1_lstm1_cont_slice_0_split
I0924 03:05:38.566073 14578 net.cpp:425] cont_1_lstm1_cont_slice_0_split <- cont_1
I0924 03:05:38.566083 14578 net.cpp:399] cont_1_lstm1_cont_slice_0_split -> cont_1_lstm1_cont_slice_0_split_0
I0924 03:05:38.566099 14578 net.cpp:399] cont_1_lstm1_cont_slice_0_split -> cont_1_lstm1_cont_slice_0_split_1
I0924 03:05:38.567333 14578 net.cpp:141] Setting up cont_1_lstm1_cont_slice_0_split
I0924 03:05:38.567348 14578 net.cpp:148] Top shape: 1 1 (1)
I0924 03:05:38.567358 14578 net.cpp:148] Top shape: 1 1 (1)
I0924 03:05:38.567365 14578 net.cpp:156] Memory required for data: 10016
I0924 03:05:38.567373 14578 layer_factory.hpp:77] Creating layer lstm1_x_transform
I0924 03:05:38.567396 14578 net.cpp:91] Creating Layer lstm1_x_transform
I0924 03:05:38.567404 14578 net.cpp:425] lstm1_x_transform <- x
I0924 03:05:38.567420 14578 net.cpp:399] lstm1_x_transform -> W_xc_x
I0924 03:05:38.576278 14584 net.cpp:141] Setting up lstm2_x_transform
I0924 03:05:38.576328 14584 net.cpp:148] Top shape: 1 1 4000 (4000)
I0924 03:05:38.576339 14584 net.cpp:156] Memory required for data: 30020
I0924 03:05:38.576365 14584 layer_factory.hpp:77] Creating layer lstm2_W_xc_x_slice
I0924 03:05:38.576387 14584 net.cpp:91] Creating Layer lstm2_W_xc_x_slice
I0924 03:05:38.576397 14584 net.cpp:425] lstm2_W_xc_x_slice <- W_xc_x
I0924 03:05:38.576411 14584 net.cpp:399] lstm2_W_xc_x_slice -> W_xc_x_1
I0924 03:05:38.576479 14584 net.cpp:141] Setting up lstm2_W_xc_x_slice
I0924 03:05:38.576495 14584 net.cpp:148] Top shape: 1 1 4000 (4000)
I0924 03:05:38.576503 14584 net.cpp:156] Memory required for data: 46020
I0924 03:05:38.576510 14584 layer_factory.hpp:77] Creating layer lstm2_h_conted_0
I0924 03:05:38.576525 14584 net.cpp:91] Creating Layer lstm2_h_conted_0
I0924 03:05:38.576534 14584 net.cpp:425] lstm2_h_conted_0 <- h_0
I0924 03:05:38.576545 14584 net.cpp:425] lstm2_h_conted_0 <- cont_1_lstm2_cont_slice_0_split_0
I0924 03:05:38.576556 14584 net.cpp:399] lstm2_h_conted_0 -> h_conted_0
I0924 03:05:38.576699 14584 net.cpp:141] Setting up lstm2_h_conted_0
I0924 03:05:38.576714 14584 net.cpp:148] Top shape: 1 1 1000 (1000)
I0924 03:05:38.576721 14584 net.cpp:156] Memory required for data: 50020
I0924 03:05:38.576730 14584 layer_factory.hpp:77] Creating layer lstm2_transform_1
I0924 03:05:38.576747 14584 net.cpp:91] Creating Layer lstm2_transform_1
I0924 03:05:38.576756 14584 net.cpp:425] lstm2_transform_1 <- h_conted_0
I0924 03:05:38.576769 14584 net.cpp:399] lstm2_transform_1 -> W_hc_h_0
I0924 03:05:38.603742 14602 net.cpp:141] Setting up lstm2_x_transform
I0924 03:05:38.603795 14602 net.cpp:148] Top shape: 1 1 4000 (4000)
I0924 03:05:38.603802 14602 net.cpp:156] Memory required for data: 30020
I0924 03:05:38.603830 14602 layer_factory.hpp:77] Creating layer lstm2_W_xc_x_slice
I0924 03:05:38.603849 14602 net.cpp:91] Creating Layer lstm2_W_xc_x_slice
I0924 03:05:38.603858 14602 net.cpp:425] lstm2_W_xc_x_slice <- W_xc_x
I0924 03:05:38.603870 14602 net.cpp:399] lstm2_W_xc_x_slice -> W_xc_x_1
I0924 03:05:38.603925 14602 net.cpp:141] Setting up lstm2_W_xc_x_slice
I0924 03:05:38.603938 14602 net.cpp:148] Top shape: 1 1 4000 (4000)
I0924 03:05:38.603945 14602 net.cpp:156] Memory required for data: 46020
I0924 03:05:38.603953 14602 layer_factory.hpp:77] Creating layer lstm2_h_conted_0
I0924 03:05:38.603971 14602 net.cpp:91] Creating Layer lstm2_h_conted_0
I0924 03:05:38.603978 14602 net.cpp:425] lstm2_h_conted_0 <- h_0
I0924 03:05:38.603988 14602 net.cpp:425] lstm2_h_conted_0 <- cont_1_lstm2_cont_slice_0_split_0
I0924 03:05:38.603999 14602 net.cpp:399] lstm2_h_conted_0 -> h_conted_0
I0924 03:05:38.604128 14602 net.cpp:141] Setting up lstm2_h_conted_0
I0924 03:05:38.604142 14602 net.cpp:148] Top shape: 1 1 1000 (1000)
I0924 03:05:38.604149 14602 net.cpp:156] Memory required for data: 50020
I0924 03:05:38.604156 14602 layer_factory.hpp:77] Creating layer lstm2_transform_1
I0924 03:05:38.604173 14602 net.cpp:91] Creating Layer lstm2_transform_1
I0924 03:05:38.604181 14602 net.cpp:425] lstm2_transform_1 <- h_conted_0
I0924 03:05:38.604192 14602 net.cpp:399] lstm2_transform_1 -> W_hc_h_0
I0924 03:05:38.616196 14574 net.cpp:141] Setting up lstm1_transform_1
I0924 03:05:38.616464 14576 net.cpp:141] Setting up lstm2_x_transform
I0924 03:05:38.616884 14576 net.cpp:148] Top shape: 1 1 4000 (4000)
I0924 03:05:38.616895 14576 net.cpp:156] Memory required for data: 30020
I0924 03:05:38.616924 14576 layer_factory.hpp:77] Creating layer lstm2_W_xc_x_slice
I0924 03:05:38.616946 14576 net.cpp:91] Creating Layer lstm2_W_xc_x_slice
I0924 03:05:38.616957 14576 net.cpp:425] lstm2_W_xc_x_slice <- W_xc_x
I0924 03:05:38.616971 14576 net.cpp:399] lstm2_W_xc_x_slice -> W_xc_x_1
I0924 03:05:38.617529 14574 net.cpp:148] Top shape: 1 1 4000 (4000)
I0924 03:05:38.617666 14574 net.cpp:156] Memory required for data: 62016
I0924 03:05:38.617805 14574 layer_factory.hpp:77] Creating layer lstm1_gate_input_1
I0924 03:05:38.617956 14574 net.cpp:91] Creating Layer lstm1_gate_input_1
I0924 03:05:38.618093 14574 net.cpp:425] lstm1_gate_input_1 <- W_hc_h_0
I0924 03:05:38.618322 14574 net.cpp:425] lstm1_gate_input_1 <- W_xc_x_1
I0924 03:05:38.618458 14574 net.cpp:399] lstm1_gate_input_1 -> gate_input_1
I0924 03:05:38.633204 14608 net.cpp:141] Setting up lstm2_transform_1
I0924 03:05:38.633246 14576 net.cpp:141] Setting up lstm2_W_xc_x_slice
I0924 03:05:38.633262 14608 net.cpp:148] Top shape: 1 1 4000 (4000)
I0924 03:05:38.633266 14576 net.cpp:148] Top shape: 1 1 4000 (4000)
I0924 03:05:38.633270 14608 net.cpp:156] Memory required for data: 66020
I0924 03:05:38.633275 14574 net.cpp:141] Setting up lstm1_gate_input_1
I0924 03:05:38.633272 14576 net.cpp:156] Memory required for data: 46020
I0924 03:05:38.633297 14574 net.cpp:148] Top shape: 1 1 4000 (4000)
I0924 03:05:38.633299 14576 layer_factory.hpp:77] Creating layer lstm2_h_conted_0
I0924 03:05:38.633303 14574 net.cpp:156] Memory required for data: 78016
I0924 03:05:38.633311 14574 layer_factory.hpp:77] Creating layer lstm1_unit_1
I0924 03:05:38.633299 14608 layer_factory.hpp:77] Creating layer lstm2_gate_input_1
I0924 03:05:38.633323 14574 net.cpp:91] Creating Layer lstm1_unit_1
I0924 03:05:38.633324 14576 net.cpp:91] Creating Layer lstm2_h_conted_0
I0924 03:05:38.633330 14574 net.cpp:425] lstm1_unit_1 <- c_0
I0924 03:05:38.633332 14576 net.cpp:425] lstm2_h_conted_0 <- h_0
I0924 03:05:38.633333 14608 net.cpp:91] Creating Layer lstm2_gate_input_1
I0924 03:05:38.633339 14574 net.cpp:425] lstm1_unit_1 <- gate_input_1
I0924 03:05:38.633342 14576 net.cpp:425] lstm2_h_conted_0 <- cont_1_lstm2_cont_slice_0_split_0
I0924 03:05:38.633343 14608 net.cpp:425] lstm2_gate_input_1 <- W_hc_h_0
I0924 03:05:38.633349 14576 net.cpp:399] lstm2_h_conted_0 -> h_conted_0
I0924 03:05:38.633345 14574 net.cpp:425] lstm1_unit_1 <- cont_1_lstm1_cont_slice_0_split_1
I0924 03:05:38.633359 14608 net.cpp:425] lstm2_gate_input_1 <- W_xc_x_1
I0924 03:05:38.633363 14574 net.cpp:399] lstm1_unit_1 -> c_1
I0924 03:05:38.633371 14608 net.cpp:399] lstm2_gate_input_1 -> gate_input_1
I0924 03:05:38.633374 14574 net.cpp:399] lstm1_unit_1 -> h_1
I0924 03:05:38.633528 14576 net.cpp:141] Setting up lstm2_h_conted_0
I0924 03:05:38.633540 14576 net.cpp:148] Top shape: 1 1 1000 (1000)
I0924 03:05:38.633545 14576 net.cpp:156] Memory required for data: 50020
I0924 03:05:38.633550 14576 layer_factory.hpp:77] Creating layer lstm2_transform_1
I0924 03:05:38.633563 14576 net.cpp:91] Creating Layer lstm2_transform_1
I0924 03:05:38.633569 14576 net.cpp:425] lstm2_transform_1 <- h_conted_0
I0924 03:05:38.633574 14608 net.cpp:141] Setting up lstm2_gate_input_1
I0924 03:05:38.633581 14576 net.cpp:399] lstm2_transform_1 -> W_hc_h_0
I0924 03:05:38.633589 14608 net.cpp:148] Top shape: 1 1 4000 (4000)
I0924 03:05:38.633596 14608 net.cpp:156] Memory required for data: 82020
I0924 03:05:38.633604 14608 layer_factory.hpp:77] Creating layer lstm2_unit_1
I0924 03:05:38.633625 14608 net.cpp:91] Creating Layer lstm2_unit_1
I0924 03:05:38.633632 14608 net.cpp:425] lstm2_unit_1 <- c_0
I0924 03:05:38.633642 14608 net.cpp:425] lstm2_unit_1 <- gate_input_1
I0924 03:05:38.633649 14574 net.cpp:141] Setting up lstm1_unit_1
I0924 03:05:38.633651 14608 net.cpp:425] lstm2_unit_1 <- cont_1_lstm2_cont_slice_0_split_1
I0924 03:05:38.633666 14574 net.cpp:148] Top shape: 1 1 1000 (1000)
I0924 03:05:38.633672 14608 net.cpp:399] lstm2_unit_1 -> c_1
I0924 03:05:38.633672 14574 net.cpp:148] Top shape: 1 1 1000 (1000)
I0924 03:05:38.633685 14574 net.cpp:156] Memory required for data: 86016
I0924 03:05:38.633692 14574 layer_factory.hpp:77] Creating layer lstm1_
I0924 03:05:38.633692 14608 net.cpp:399] lstm2_unit_1 -> h_1
I0924 03:05:38.633702 14574 net.cpp:91] Creating Layer lstm1_
I0924 03:05:38.633708 14574 net.cpp:425] lstm1_ <- c_1
I0924 03:05:38.633715 14574 net.cpp:399] lstm1_ -> c_T
I0924 03:05:38.633834 14574 net.cpp:141] Setting up lstm1_
I0924 03:05:38.633844 14574 net.cpp:148] Top shape: 1 1 1000 (1000)
I0924 03:05:38.633849 14574 net.cpp:156] Memory required for data: 90016
I0924 03:05:38.633854 14574 layer_factory.hpp:77] Creating layer lstm1_h_concat
I0924 03:05:38.633864 14574 net.cpp:91] Creating Layer lstm1_h_concat
I0924 03:05:38.633869 14574 net.cpp:425] lstm1_h_concat <- h_1
I0924 03:05:38.633882 14574 net.cpp:399] lstm1_h_concat -> h
I0924 03:05:38.641490 14578 net.cpp:141] Setting up lstm1_x_transform
I0924 03:05:38.641551 14578 net.cpp:148] Top shape: 1 1 4000 (4000)
I0924 03:05:38.641561 14578 net.cpp:156] Memory required for data: 26016
I0924 03:05:38.641566 14608 net.cpp:141] Setting up lstm2_unit_1
I0924 03:05:38.641582 14608 net.cpp:148] Top shape: 1 1 1000 (1000)
I0924 03:05:38.641589 14578 layer_factory.hpp:77] Creating layer lstm1_W_xc_x_slice
I0924 03:05:38.641628 14578 net.cpp:91] Creating Layer lstm1_W_xc_x_slice
I0924 03:05:38.641641 14578 net.cpp:425] lstm1_W_xc_x_slice <- W_xc_x
I0924 03:05:38.641656 14578 net.cpp:399] lstm1_W_xc_x_slice -> W_xc_x_1
I0924 03:05:38.641732 14578 net.cpp:141] Setting up lstm1_W_xc_x_slice
I0924 03:05:38.641747 14578 net.cpp:148] Top shape: 1 1 4000 (4000)
I0924 03:05:38.641755 14578 net.cpp:156] Memory required for data: 42016
I0924 03:05:38.641764 14578 layer_factory.hpp:77] Creating layer lstm1_h_conted_0
I0924 03:05:38.641778 14578 net.cpp:91] Creating Layer lstm1_h_conted_0
I0924 03:05:38.641788 14578 net.cpp:425] lstm1_h_conted_0 <- h_0
I0924 03:05:38.641798 14578 net.cpp:425] lstm1_h_conted_0 <- cont_1_lstm1_cont_slice_0_split_0
I0924 03:05:38.641809 14578 net.cpp:399] lstm1_h_conted_0 -> h_conted_0
I0924 03:05:38.641592 14608 net.cpp:148] Top shape: 1 1 1000 (1000)
I0924 03:05:38.643651 14608 net.cpp:156] Memory required for data: 90020
I0924 03:05:38.643677 14608 layer_factory.hpp:77] Creating layer lstm2_
I0924 03:05:38.643703 14608 net.cpp:91] Creating Layer lstm2_
I0924 03:05:38.643713 14608 net.cpp:425] lstm2_ <- c_1
I0924 03:05:38.643729 14608 net.cpp:399] lstm2_ -> c_T
I0924 03:05:38.645382 14584 net.cpp:141] Setting up lstm2_transform_1
I0924 03:05:38.645418 14584 net.cpp:148] Top shape: 1 1 4000 (4000)
I0924 03:05:38.645427 14584 net.cpp:156] Memory required for data: 66020
I0924 03:05:38.645445 14584 layer_factory.hpp:77] Creating layer lstm2_gate_input_1
I0924 03:05:38.645465 14584 net.cpp:91] Creating Layer lstm2_gate_input_1
I0924 03:05:38.645475 14584 net.cpp:425] lstm2_gate_input_1 <- W_hc_h_0
I0924 03:05:38.645486 14584 net.cpp:425] lstm2_gate_input_1 <- W_xc_x_1
I0924 03:05:38.645498 14584 net.cpp:399] lstm2_gate_input_1 -> gate_input_1
I0924 03:05:38.645529 14578 net.cpp:141] Setting up lstm1_h_conted_0
I0924 03:05:38.645548 14578 net.cpp:148] Top shape: 1 1 1000 (1000)
I0924 03:05:38.645555 14578 net.cpp:156] Memory required for data: 46016
I0924 03:05:38.645562 14584 net.cpp:141] Setting up lstm2_gate_input_1
I0924 03:05:38.645586 14584 net.cpp:148] Top shape: 1 1 4000 (4000)
I0924 03:05:38.645593 14584 net.cpp:156] Memory required for data: 82020
I0924 03:05:38.645601 14584 layer_factory.hpp:77] Creating layer lstm2_unit_1
I0924 03:05:38.645615 14608 net.cpp:141] Setting up lstm2_
I0924 03:05:38.645618 14584 net.cpp:91] Creating Layer lstm2_unit_1
I0924 03:05:38.645628 14584 net.cpp:425] lstm2_unit_1 <- c_0
I0924 03:05:38.645565 14578 layer_factory.hpp:77] Creating layer lstm1_transform_1
I0924 03:05:38.645645 14584 net.cpp:425] lstm2_unit_1 <- gate_input_1
I0924 03:05:38.645651 14578 net.cpp:91] Creating Layer lstm1_transform_1
I0924 03:05:38.645656 14584 net.cpp:425] lstm2_unit_1 <- cont_1_lstm2_cont_slice_0_split_1
I0924 03:05:38.645661 14578 net.cpp:425] lstm1_transform_1 <- h_conted_0
I0924 03:05:38.645668 14584 net.cpp:399] lstm2_unit_1 -> c_1
I0924 03:05:38.645676 14578 net.cpp:399] lstm1_transform_1 -> W_hc_h_0
I0924 03:05:38.645684 14584 net.cpp:399] lstm2_unit_1 -> h_1
I0924 03:05:38.645629 14608 net.cpp:148] Top shape: 1 1 1000 (1000)
I0924 03:05:38.650794 14608 net.cpp:156] Memory required for data: 94020
I0924 03:05:38.650821 14608 layer_factory.hpp:77] Creating layer lstm2_h_concat
I0924 03:05:38.650846 14608 net.cpp:91] Creating Layer lstm2_h_concat
I0924 03:05:38.650856 14608 net.cpp:425] lstm2_h_concat <- h_1
I0924 03:05:38.650883 14608 net.cpp:399] lstm2_h_concat -> h
I0924 03:05:38.655654 14574 net.cpp:141] Setting up lstm1_h_concat
I0924 03:05:38.655705 14574 net.cpp:148] Top shape: 1 1 1000 (1000)
I0924 03:05:38.655714 14574 net.cpp:156] Memory required for data: 94016
I0924 03:05:38.655726 14574 layer_factory.hpp:77] Creating layer h_pseudoloss
I0924 03:05:38.655747 14574 net.cpp:91] Creating Layer h_pseudoloss
I0924 03:05:38.655758 14574 net.cpp:425] h_pseudoloss <- h
I0924 03:05:38.655773 14574 net.cpp:399] h_pseudoloss -> h_pseudoloss
I0924 03:05:38.655915 14574 net.cpp:141] Setting up h_pseudoloss
…
I0924 03:05:38.656092 14574 net.cpp:219] lstm1_ does not need backward computation.
I0924 03:05:38.656100 14574 net.cpp:261] This network produces output c_T
I0924 03:05:38.656107 14574 net.cpp:261] This network produces output h_pseudoloss
I0924 03:05:38.656131 14574 net.cpp:274] Network initialization done.
I0924 03:05:38.656201 14574 recurrent_layer.cpp:150] Adding parameter 0: W_xc
I0924 03:05:38.656213 14574 recurrent_layer.cpp:150] Adding parameter 1: b_c
I0924 03:05:38.656220 14574 recurrent_layer.cpp:150] Adding parameter 2: W_hc
I0924 03:05:38.656365 14574 net.cpp:141] Setting up lstm1
I0924 03:05:38.656383 14574 net.cpp:148] Top shape: 1 1 1000 (1000)
I0924 03:05:38.656390 14574 net.cpp:156] Memory required for data: 26408
I0924 03:05:38.656414 14574 layer_factory.hpp:77] Creating layer concat
I0924 03:05:38.656429 14574 net.cpp:91] Creating Layer concat
I0924 03:05:38.656437 14574 net.cpp:425] concat <- lstm1
I0924 03:05:38.656448 14574 net.cpp:425] concat <- embedded_input_sentence
I0924 03:05:38.656448 14602 net.cpp:141] Setting up lstm2_transform_1
I0924 03:05:38.656461 14574 net.cpp:425] concat <- reshaped_stage_indicator
I0924 03:05:38.656471 14602 net.cpp:148] Top shape: 1 1 4000 (4000)
I0924 03:05:38.656471 14574 net.cpp:399] concat -> lstm1_video_sequence
I0924 03:05:38.656479 14602 net.cpp:156] Memory required for data: 66020
I0924 03:05:38.656497 14602 layer_factory.hpp:77] Creating layer lstm2_gate_input_1
I0924 03:05:38.656519 14602 net.cpp:91] Creating Layer lstm2_gate_input_1
I0924 03:05:38.656523 14574 net.cpp:141] Setting up concat
I0924 03:05:38.656529 14602 net.cpp:425] lstm2_gate_input_1 <- W_hc_h_0
I0924 03:05:38.656539 14574 net.cpp:148] Top shape: 1 1 1501 (1501)
I0924 03:05:38.656541 14602 net.cpp:425] lstm2_gate_input_1 <- W_xc_x_1
I0924 03:05:38.656548 14574 net.cpp:156] Memory required for data: 32412
I0924 03:05:38.656553 14602 net.cpp:399] lstm2_gate_input_1 -> gate_input_1
I0924 03:05:38.656556 14574 layer_factory.hpp:77] Creating layer lstm2
I0924 03:05:38.656575 14574 net.cpp:91] Creating Layer lstm2
I0924 03:05:38.656584 14574 net.cpp:425] lstm2 <- lstm1_video_sequence
I0924 03:05:38.656594 14574 net.cpp:425] lstm2 <- cont_sentence_input_1_split_1
I0924 03:05:38.656606 14574 net.cpp:399] lstm2 -> lstm2
I0924 03:05:38.656613 14602 net.cpp:141] Setting up lstm2_gate_input_1
I0924 03:05:38.656622 14574 recurrent_layer.cpp:20] Initializing recurrent layer: assuming input batch contains 1 timesteps of 1 independent streams.
I0924 03:05:38.656627 14602 net.cpp:148] Top shape: 1 1 4000 (4000)
I0924 03:05:38.656635 14602 net.cpp:156] Memory required for data: 82020
I0924 03:05:38.656643 14602 layer_factory.hpp:77] Creating layer lstm2_unit_1
I0924 03:05:38.656656 14602 net.cpp:91] Creating Layer lstm2_unit_1
I0924 03:05:38.656663 14602 net.cpp:425] lstm2_unit_1 <- c_0
I0924 03:05:38.656673 14602 net.cpp:425] lstm2_unit_1 <- gate_input_1
I0924 03:05:38.656682 14602 net.cpp:425] lstm2_unit_1 <- cont_1_lstm2_cont_slice_0_split_1
I0924 03:05:38.656693 14602 net.cpp:399] lstm2_unit_1 -> c_1
I0924 03:05:38.656708 14602 net.cpp:399] lstm2_unit_1 -> h_1
I0924 03:05:38.656817 14602 net.cpp:141] Setting up lstm2_unit_1
I0924 03:05:38.656832 14602 net.cpp:148] Top shape: 1 1 1000 (1000)
I0924 03:05:38.656842 14602 net.cpp:148] Top shape: 1 1 1000 (1000)
I0924 03:05:38.656850 14602 net.cpp:156] Memory required for data: 90020
I0924 03:05:38.656857 14602 layer_factory.hpp:77] Creating layer lstm2_
I0924 03:05:38.656873 14602 net.cpp:91] Creating Layer lstm2_
I0924 03:05:38.656883 14602 net.cpp:425] lstm2_ <- c_1
I0924 03:05:38.656893 14602 net.cpp:399] lstm2_ -> c_T
I0924 03:05:38.656939 14602 net.cpp:141] Setting up lstm2_
I0924 03:05:38.656955 14602 net.cpp:148] Top shape: 1 1 1000 (1000)
I0924 03:05:38.656961 14602 net.cpp:156] Memory required for data: 94020
I0924 03:05:38.656970 14602 layer_factory.hpp:77] Creating layer lstm2_h_concat
I0924 03:05:38.656981 14602 net.cpp:91] Creating Layer lstm2_h_concat
I0924 03:05:38.656985 14574 net.cpp:49] Initializing net from parameters: 
layer {
  name: "lstm2_"
  type: "Input"
  top: "x"
  top: "cont"
  input_param {
    shape {
      dim: 1
      dim: 1
      dim: 1501
    }
    shape {
      dim: 1
      dim: 1
    }
  }
}
layer {
  name: "lstm2_"
  type: "Input"
  top: "c_0"
  top: "h_0"
  input_param {
    shape {
      dim: 1
      dim: 1
      dim: 1000
    }
    shape {
      dim: 1
      dim: 1
      dim: 1000
    }
  }
}
layer {
  name: "lstm2_cont_slice"
  type: "Slice"
  bottom: "cont"
  top: "cont_1"
  slice_param {
    axis: 0
  }
}
layer {
  name: "lstm2_x_transform"
  type: "InnerProduct"
  bottom: "x"
  top: "W_xc_x"
  param {
    name: "W_xc"
  }
  param {
    name: "b_c"
  }
  propagate_down: true
  inner_product_param {
    num_output: 4000
    bias_term: true
    weight_filler {
      type: "uniform"
      min: -0.08
      max: 0.08
    }
    bias_filler {
      type: "constant"
      value: 0
    }
    axis: 2
  }
}
layer {
  name: "lstm2_W_xc_x_slice"
  type: "Slice"
  bottom: "W_xc_x"
  top: "W_xc_x_1"
  slice_param {
    axis: 0
  }
}
layer {
  name: "lstm2_h_conted_0"
  type: "Scale"
  bottom: "h_0"
  bottom: "cont_1"
  top: "h_conted_0"
  scale_param {
    axis: 0
  }
}
layer {
  name: "lstm2_transform_1"
  type: "InnerProduct"
  bottom: "h_conted_0"
  top: "W_hc_h_0"
  param {
    name: "W_hc"
  }
  inner_product_param {
    num_output: 4000
    bias_term: false
    weight_filler {
      type: "uniform"
      min: -0.08
      max: 0.08
    }
    axis: 2
  }
}
layer {
  name: "lstm2_gate_input_1"
  type: "Eltwise"
  bottom: "W_hc_h_0"
  bottom: "W_xc_x_1"
  top: "gate_input_1"
  eltwise_param {
    operation: SUM
  }
}
layer {
  name: "lstm2_unit_1"
  type: "LSTMUnit"
  bottom: "c_0"
  bottom: "gate_input_1"
  bottom: "cont_1"
  top: "c_1"
  top: "h_1"
}
layer {
  name: "lstm2_"
  type: "Split"
  bottom: "c_1"
  top: "c_T"
}
layer {
  name: "lstm2_h_concat"
  type: "Concat"
  bottom: "h_1"
  top: "h"
  concat_param {
    axis: 0
  }
}
layer {
  name: "h_pseudoloss"
  type: "Reduction"
  bottom: "h"
  top: "h_pseudoloss"
  loss_weight: 1
}
I0924 03:05:38.657045 14608 net.cpp:141] Setting up lstm2_h_concat
I0924 03:05:38.657060 14608 net.cpp:148] Top shape: 1 1 1000 (1000)
I0924 03:05:38.657068 14608 net.cpp:156] Memory required for data: 98020
I0924 03:05:38.657076 14608 layer_factory.hpp:77] Creating layer h_pseudoloss
I0924 03:05:38.657090 14608 net.cpp:91] Creating Layer h_pseudoloss
I0924 03:05:38.657100 14608 net.cpp:425] h_pseudoloss <- h
I0924 03:05:38.657112 14608 net.cpp:399] h_pseudoloss -> h_pseudoloss
I0924 03:05:38.657127 14574 layer_factory.hpp:77] Creating layer lstm2_
I0924 03:05:38.657145 14574 net.cpp:91] Creating Layer lstm2_
I0924 03:05:38.657156 14574 net.cpp:399] lstm2_ -> x
I0924 03:05:38.657173 14574 net.cpp:399] lstm2_ -> cont
I0924 03:05:38.657245 14608 net.cpp:141] Setting up h_pseudoloss
I0924 03:05:38.657261 14608 net.cpp:148] Top shape: (1)
I0924 03:05:38.657269 14608 net.cpp:151]     with loss weight 1
I0924 03:05:38.657284 14608 net.cpp:156] Memory required for data: 98024
I0924 03:05:38.657294 14608 net.cpp:217] h_pseudoloss needs backward computation.
I0924 03:05:38.657301 14608 net.cpp:217] lstm2_h_concat needs backward computation.
I0924 03:05:38.657311 14608 net.cpp:219] lstm2_ does not need backward computation.
I0924 03:05:38.657320 14608 net.cpp:217] lstm2_unit_1 needs backward computation.
I0924 03:05:38.657325 14574 net.cpp:141] Setting up lstm2_
I0924 03:05:38.657330 14608 net.cpp:217] lstm2_gate_input_1 needs backward computation.
I0924 03:05:38.657341 14608 net.cpp:217] lstm2_transform_1 needs backward computation.
I0924 03:05:38.657341 14574 net.cpp:148] Top shape: 1 1 1501 (1501)
I0924 03:05:38.657351 14608 net.cpp:219] lstm2_h_conted_0 does not need backward computation.
I0924 03:05:38.657354 14574 net.cpp:148] Top shape: 1 1 (1)
I0924 03:05:38.657361 14608 net.cpp:217] lstm2_W_xc_x_slice needs backward computation.
I0924 03:05:38.657362 14574 net.cpp:156] Memory required for data: 6008
I0924 03:05:38.657371 14608 net.cpp:217] lstm2_x_transform needs backward computation.
I0924 03:05:38.657372 14574 layer_factory.hpp:77] Creating layer lstm2_
I0924 03:05:38.657380 14608 net.cpp:219] cont_1_lstm2_cont_slice_0_split does not need backward computation.
I0924 03:05:38.657387 14574 net.cpp:91] Creating Layer lstm2_
I0924 03:05:38.657390 14608 net.cpp:219] lstm2_cont_slice does not need backward computation.
I0924 03:05:38.657402 14608 net.cpp:219] lstm2_ does not need backward computation.
I0924 03:05:38.657402 14574 net.cpp:399] lstm2_ -> c_0
I0924 03:05:38.657409 14608 net.cpp:219] lstm2_ does not need backward computation.
I0924 03:05:38.657416 14608 net.cpp:261] This network produces output c_T
I0924 03:05:38.657419 14574 net.cpp:399] lstm2_ -> h_0
I0924 03:05:38.657424 14608 net.cpp:261] This network produces output h_pseudoloss
I0924 03:05:38.657450 14608 net.cpp:274] Network initialization done.
I0924 03:05:38.657505 14574 net.cpp:141] Setting up lstm2_
I0924 03:05:38.657516 14608 recurrent_layer.cpp:150] Adding parameter 0: W_xc
I0924 03:05:38.657522 14574 net.cpp:148] Top shape: 1 1 1000 (1000)
I0924 03:05:38.657526 14608 recurrent_layer.cpp:150] Adding parameter 1: b_c
I0924 03:05:38.657533 14574 net.cpp:148] Top shape: 1 1 1000 (1000)
I0924 03:05:38.657536 14608 recurrent_layer.cpp:150] Adding parameter 2: W_hc
I0924 03:05:38.657541 14574 net.cpp:156] Memory required for data: 14008
I0924 03:05:38.657548 14574 layer_factory.hpp:77] Creating layer lstm2_cont_slice
I0924 03:05:38.657562 14574 net.cpp:91] Creating Layer lstm2_cont_slice
I0924 03:05:38.657572 14574 net.cpp:425] lstm2_cont_slice <- cont
I0924 03:05:38.657583 14574 net.cpp:399] lstm2_cont_slice -> cont_1
I0924 03:05:38.657641 14574 net.cpp:141] Setting up lstm2_cont_slice
I0924 03:05:38.657657 14574 net.cpp:148] Top shape: 1 1 (1)
I0924 03:05:38.657665 14574 net.cpp:156] Memory required for data: 14012
I0924 03:05:38.657673 14574 layer_factory.hpp:77] Creating layer cont_1_lstm2_cont_slice_0_split
I0924 03:05:38.657680 14608 net.cpp:141] Setting up lstm2
I0924 03:05:38.657687 14574 net.cpp:91] Creating Layer cont_1_lstm2_cont_slice_0_split
I0924 03:05:38.657696 14608 net.cpp:148] Top shape: 1 1 1000 (1000)
I0924 03:05:38.657714 14608 net.cpp:156] Memory required for data: 36412
I0924 03:05:38.657737 14608 layer_factory.hpp:77] Creating layer predict
I0924 03:05:38.657754 14608 net.cpp:91] Creating Layer predict
I0924 03:05:38.657764 14608 net.cpp:425] predict <- lstm2
I0924 03:05:38.657776 14608 net.cpp:399] predict -> predict
I0924 03:05:38.657799 14584 net.cpp:141] Setting up lstm2_unit_1
I0924 03:05:38.657815 14584 net.cpp:148] Top shape: 1 1 1000 (1000)
I0924 03:05:38.657825 14584 net.cpp:148] Top shape: 1 1 1000 (1000)
I0924 03:05:38.657832 14584 net.cpp:156] Memory required for data: 90020
I0924 03:05:38.657841 14584 layer_factory.hpp:77] Creating layer lstm2_
I0924 03:05:38.657853 14584 net.cpp:91] Creating Layer lstm2_
I0924 03:05:38.656990 14602 net.cpp:425] lstm2_h_concat <- h_1
I0924 03:05:38.657862 14584 net.cpp:425] lstm2_ <- c_1
I0924 03:05:38.657897 14584 net.cpp:399] lstm2_ -> c_T
I0924 03:05:38.657696 14574 net.cpp:425] cont_1_lstm2_cont_slice_0_split <- cont_1
I0924 03:05:38.657945 14574 net.cpp:399] cont_1_lstm2_cont_slice_0_split -> cont_1_lstm2_cont_slice_0_split_0
I0924 03:05:38.657981 14574 net.cpp:399] cont_1_lstm2_cont_slice_0_split -> cont_1_lstm2_cont_slice_0_split_1
I0924 03:05:38.658025 14602 net.cpp:399] lstm2_h_concat -> h
I0924 03:05:38.740000 14584 net.cpp:141] Setting up lstm2_
I0924 03:05:38.740069 14584 net.cpp:148] Top shape: 1 1 1000 (1000)
I0924 03:05:38.740082 14584 net.cpp:156] Memory required for data: 94020
I0924 03:05:38.740095 14584 layer_factory.hpp:77] Creating layer lstm2_h_concat
I0924 03:05:38.740137 14584 net.cpp:91] Creating Layer lstm2_h_concat
I0924 03:05:38.740150 14584 net.cpp:425] lstm2_h_concat <- h_1
I0924 03:05:38.740171 14584 net.cpp:399] lstm2_h_concat -> h
I0924 03:05:38.740175 14574 net.cpp:141] Setting up cont_1_lstm2_cont_slice_0_split
I0924 03:05:38.740223 14574 net.cpp:148] Top shape: 1 1 (1)
I0924 03:05:38.740237 14574 net.cpp:148] Top shape: 1 1 (1)
I0924 03:05:38.740247 14574 net.cpp:156] Memory required for data: 14020
I0924 03:05:38.740262 14574 layer_factory.hpp:77] Creating layer lstm2_x_transform
I0924 03:05:38.740277 14584 net.cpp:141] Setting up lstm2_h_concat
I0924 03:05:38.740294 14584 net.cpp:148] Top shape: 1 1 1000 (1000)
I0924 03:05:38.740303 14584 net.cpp:156] Memory required for data: 98020
I0924 03:05:38.740304 14574 net.cpp:91] Creating Layer lstm2_x_transform
I0924 03:05:38.740312 14584 layer_factory.hpp:77] Creating layer h_pseudoloss
I0924 03:05:38.740320 14574 net.cpp:425] lstm2_x_transform <- x
I0924 03:05:38.740329 14584 net.cpp:91] Creating Layer h_pseudoloss
I0924 03:05:38.740339 14584 net.cpp:425] h_pseudoloss <- h
I0924 03:05:38.740391 14574 net.cpp:399] lstm2_x_transform -> W_xc_x
I0924 03:05:38.740433 14584 net.cpp:399] h_pseudoloss -> h_pseudoloss
I0924 03:05:38.740443 14602 net.cpp:141] Setting up lstm2_h_concat
I0924 03:05:38.740463 14602 net.cpp:148] Top shape: 1 1 1000 (1000)
I0924 03:05:38.740471 14602 net.cpp:156] Memory required for data: 98020
I0924 03:05:38.740481 14602 layer_factory.hpp:77] Creating layer h_pseudoloss
I0924 03:05:38.740495 14602 net.cpp:91] Creating Layer h_pseudoloss
I0924 03:05:38.740506 14602 net.cpp:425] h_pseudoloss <- h
I0924 03:05:38.740520 14602 net.cpp:399] h_pseudoloss -> h_pseudoloss
I0924 03:05:38.754123 14576 net.cpp:141] Setting up lstm2_transform_1
I0924 03:05:38.754173 14576 net.cpp:148] Top shape: 1 1 4000 (4000)
I0924 03:05:38.754179 14576 net.cpp:156] Memory required for data: 66020
I0924 03:05:38.754202 14576 layer_factory.hpp:77] Creating layer lstm2_gate_input_1
I0924 03:05:38.754207 14584 net.cpp:141] Setting up h_pseudoloss
I0924 03:05:38.754223 14576 net.cpp:91] Creating Layer lstm2_gate_input_1
I0924 03:05:38.754231 14576 net.cpp:425] lstm2_gate_input_1 <- W_hc_h_0
I0924 03:05:38.754235 14584 net.cpp:148] Top shape: (1)
…
I0924 03:05:38.754814 14602 recurrent_layer.cpp:150] Adding parameter 2: W_hc
I0924 03:05:38.754554 14578 net.cpp:156] Memory required for data: 62016
I0924 03:05:38.754840 14578 layer_factory.hpp:77] Creating layer lstm1_gate_input_1
I0924 03:05:38.754853 14578 net.cpp:91] Creating Layer lstm1_gate_input_1
I0924 03:05:38.754859 14578 net.cpp:425] lstm1_gate_input_1 <- W_hc_h_0
I0924 03:05:38.754865 14578 net.cpp:425] lstm1_gate_input_1 <- W_xc_x_1
I0924 03:05:38.754873 14578 net.cpp:399] lstm1_gate_input_1 -> gate_input_1
I0924 03:05:38.764612 14578 net.cpp:141] Setting up lstm1_gate_input_1
I0924 03:05:38.764667 14578 net.cpp:148] Top shape: 1 1 4000 (4000)
I0924 03:05:38.764678 14578 net.cpp:156] Memory required for data: 78016
I0924 03:05:38.764688 14578 layer_factory.hpp:77] Creating layer lstm1_unit_1
I0924 03:05:38.764713 14578 net.cpp:91] Creating Layer lstm1_unit_1
I0924 03:05:38.764724 14578 net.cpp:425] lstm1_unit_1 <- c_0
I0924 03:05:38.764737 14578 net.cpp:425] lstm1_unit_1 <- gate_input_1
I0924 03:05:38.764746 14578 net.cpp:425] lstm1_unit_1 <- cont_1_lstm1_cont_slice_0_split_1
I0924 03:05:38.764760 14578 net.cpp:399] lstm1_unit_1 -> c_1
I0924 03:05:38.764775 14578 net.cpp:399] lstm1_unit_1 -> h_1
I0924 03:05:38.764803 14584 net.cpp:141] Setting up lstm2
I0924 03:05:38.764827 14584 net.cpp:148] Top shape: 1 1 1000 (1000)
I0924 03:05:38.764835 14584 net.cpp:156] Memory required for data: 36412
I0924 03:05:38.764861 14584 layer_factory.hpp:77] Creating layer predict
I0924 03:05:38.764881 14584 net.cpp:91] Creating Layer predict
I0924 03:05:38.764888 14578 net.cpp:141] Setting up lstm1_unit_1
I0924 03:05:38.764891 14584 net.cpp:425] predict <- lstm2
I0924 03:05:38.764925 14578 net.cpp:148] Top shape: 1 1 1000 (1000)
I0924 03:05:38.764931 14584 net.cpp:399] predict -> predict
I0924 03:05:38.764936 14578 net.cpp:148] Top shape: 1 1 1000 (1000)
I0924 03:05:38.764978 14578 net.cpp:156] Memory required for data: 86016
I0924 03:05:38.764991 14578 layer_factory.hpp:77] Creating layer lstm1_
I0924 03:05:38.765005 14578 net.cpp:91] Creating Layer lstm1_
I0924 03:05:38.765013 14578 net.cpp:425] lstm1_ <- c_1
I0924 03:05:38.765025 14578 net.cpp:399] lstm1_ -> c_T
I0924 03:05:38.850819 14578 net.cpp:141] Setting up lstm1_
I0924 03:05:38.850878 14578 net.cpp:148] Top shape: 1 1 1000 (1000)
I0924 03:05:38.850888 14578 net.cpp:156] Memory required for data: 90016
I0924 03:05:38.850898 14578 layer_factory.hpp:77] Creating layer lstm1_h_concat
I0924 03:05:38.850926 14578 net.cpp:91] Creating Layer lstm1_h_concat
I0924 03:05:38.850937 14578 net.cpp:425] lstm1_h_concat <- h_1
I0924 03:05:38.850951 14578 net.cpp:399] lstm1_h_concat -> h
I0924 03:05:38.851021 14578 net.cpp:141] Setting up lstm1_h_concat
I0924 03:05:38.851037 14578 net.cpp:148] Top shape: 1 1 1000 (1000)
I0924 03:05:38.851043 14578 net.cpp:156] Memory required for data: 94016
I0924 03:05:38.851050 14578 layer_factory.hpp:77] Creating layer h_pseudoloss
I0924 03:05:38.851063 14578 net.cpp:91] Creating Layer h_pseudoloss
I0924 03:05:38.851070 14578 net.cpp:425] h_pseudoloss <- h
I0924 03:05:38.851084 14578 net.cpp:399] h_pseudoloss -> h_pseudoloss
I0924 03:05:38.851194 14578 net.cpp:141] Setting up h_pseudoloss
…
I0924 03:05:38.851349 14578 net.cpp:219] lstm1_ does not need backward computation.
I0924 03:05:38.851356 14578 net.cpp:261] This network produces output c_T
I0924 03:05:38.851364 14578 net.cpp:261] This network produces output h_pseudoloss
I0924 03:05:38.851389 14578 net.cpp:274] Network initialization done.
I0924 03:05:38.851450 14578 recurrent_layer.cpp:150] Adding parameter 0: W_xc
I0924 03:05:38.851459 14578 recurrent_layer.cpp:150] Adding parameter 1: b_c
I0924 03:05:38.851467 14578 recurrent_layer.cpp:150] Adding parameter 2: W_hc
I0924 03:05:38.851603 14578 net.cpp:141] Setting up lstm1
I0924 03:05:38.851618 14578 net.cpp:148] Top shape: 1 1 1000 (1000)
I0924 03:05:38.851625 14578 net.cpp:156] Memory required for data: 26408
I0924 03:05:38.851646 14578 layer_factory.hpp:77] Creating layer concat
I0924 03:05:38.851660 14578 net.cpp:91] Creating Layer concat
I0924 03:05:38.851667 14578 net.cpp:425] concat <- lstm1
I0924 03:05:38.851678 14578 net.cpp:425] concat <- embedded_input_sentence
I0924 03:05:38.851687 14578 net.cpp:425] concat <- reshaped_stage_indicator
I0924 03:05:38.851697 14578 net.cpp:399] concat -> lstm1_video_sequence
I0924 03:05:38.851747 14578 net.cpp:141] Setting up concat
I0924 03:05:38.851761 14578 net.cpp:148] Top shape: 1 1 1501 (1501)
I0924 03:05:38.851768 14578 net.cpp:156] Memory required for data: 32412
I0924 03:05:38.851775 14578 layer_factory.hpp:77] Creating layer lstm2
I0924 03:05:38.851794 14578 net.cpp:91] Creating Layer lstm2
I0924 03:05:38.851800 14578 net.cpp:425] lstm2 <- lstm1_video_sequence
I0924 03:05:38.851810 14578 net.cpp:425] lstm2 <- cont_sentence_input_1_split_1
I0924 03:05:38.851821 14578 net.cpp:399] lstm2 -> lstm2
I0924 03:05:38.851836 14578 recurrent_layer.cpp:20] Initializing recurrent layer: assuming input batch contains 1 timesteps of 1 independent streams.
I0924 03:05:38.852171 14578 net.cpp:49] Initializing net from parameters: 
layer {
  name: "lstm2_"
  type: "Input"
  top: "x"
  top: "cont"
  input_param {
    shape {
      dim: 1
      dim: 1
      dim: 1501
    }
    shape {
      dim: 1
      dim: 1
    }
  }
}
layer {
  name: "lstm2_"
  type: "Input"
  top: "c_0"
  top: "h_0"
  input_param {
    shape {
      dim: 1
      dim: 1
      dim: 1000
    }
    shape {
      dim: 1
      dim: 1
      dim: 1000
    }
  }
}
layer {
  name: "lstm2_cont_slice"
  type: "Slice"
  bottom: "cont"
  top: "cont_1"
  slice_param {
    axis: 0
  }
}
layer {
  name: "lstm2_x_transform"
  type: "InnerProduct"
  bottom: "x"
  top: "W_xc_x"
  param {
    name: "W_xc"
  }
  param {
    name: "b_c"
  }
  propagate_down: true
  inner_product_param {
    num_output: 4000
    bias_term: true
    weight_filler {
      type: "uniform"
      min: -0.08
      max: 0.08
    }
    bias_filler {
      type: "constant"
      value: 0
    }
    axis: 2
  }
}
layer {
  name: "lstm2_W_xc_x_slice"
  type: "Slice"
  bottom: "W_xc_x"
  top: "W_xc_x_1"
  slice_param {
    axis: 0
  }
}
layer {
  name: "lstm2_h_conted_0"
  type: "Scale"
  bottom: "h_0"
  bottom: "cont_1"
  top: "h_conted_0"
  scale_param {
    axis: 0
  }
}
layer {
  name: "lstm2_transform_1"
  type: "InnerProduct"
  bottom: "h_conted_0"
  top: "W_hc_h_0"
  param {
    name: "W_hc"
  }
  inner_product_param {
    num_output: 4000
    bias_term: false
    weight_filler {
      type: "uniform"
      min: -0.08
      max: 0.08
    }
    axis: 2
  }
}
layer {
  name: "lstm2_gate_input_1"
  type: "Eltwise"
  bottom: "W_hc_h_0"
  bottom: "W_xc_x_1"
  top: "gate_input_1"
  eltwise_param {
    operation: SUM
  }
}
layer {
  name: "lstm2_unit_1"
  type: "LSTMUnit"
  bottom: "c_0"
  bottom: "gate_input_1"
  bottom: "cont_1"
  top: "c_1"
  top: "h_1"
}
layer {
  name: "lstm2_"
  type: "Split"
  bottom: "c_1"
  top: "c_T"
}
layer {
  name: "lstm2_h_concat"
  type: "Concat"
  bottom: "h_1"
  top: "h"
  concat_param {
    axis: 0
  }
}
layer {
  name: "h_pseudoloss"
  type: "Reduction"
  bottom: "h"
  top: "h_pseudoloss"
  loss_weight: 1
}
I0924 03:05:38.852293 14578 layer_factory.hpp:77] Creating layer lstm2_
I0924 03:05:38.852314 14578 net.cpp:91] Creating Layer lstm2_
I0924 03:05:38.852326 14578 net.cpp:399] lstm2_ -> x
I0924 03:05:38.852344 14578 net.cpp:399] lstm2_ -> cont
I0924 03:05:38.852437 14578 net.cpp:141] Setting up lstm2_
I0924 03:05:38.852454 14578 net.cpp:148] Top shape: 1 1 1501 (1501)
I0924 03:05:38.852468 14578 net.cpp:148] Top shape: 1 1 (1)
I0924 03:05:38.852475 14578 net.cpp:156] Memory required for data: 6008
I0924 03:05:38.852484 14578 layer_factory.hpp:77] Creating layer lstm2_
I0924 03:05:38.852500 14578 net.cpp:91] Creating Layer lstm2_
I0924 03:05:38.852512 14578 net.cpp:399] lstm2_ -> c_0
I0924 03:05:38.852530 14578 net.cpp:399] lstm2_ -> h_0
I0924 03:05:38.852624 14578 net.cpp:141] Setting up lstm2_
I0924 03:05:38.852640 14578 net.cpp:148] Top shape: 1 1 1000 (1000)
I0924 03:05:38.852653 14578 net.cpp:148] Top shape: 1 1 1000 (1000)
I0924 03:05:38.852660 14578 net.cpp:156] Memory required for data: 14008
I0924 03:05:38.852669 14578 layer_factory.hpp:77] Creating layer lstm2_cont_slice
I0924 03:05:38.852684 14578 net.cpp:91] Creating Layer lstm2_cont_slice
I0924 03:05:38.852694 14578 net.cpp:425] lstm2_cont_slice <- cont
I0924 03:05:38.852710 14578 net.cpp:399] lstm2_cont_slice -> cont_1
I0924 03:05:38.852767 14578 net.cpp:141] Setting up lstm2_cont_slice
I0924 03:05:38.852782 14578 net.cpp:148] Top shape: 1 1 (1)
I0924 03:05:38.852790 14578 net.cpp:156] Memory required for data: 14012
I0924 03:05:38.852800 14578 layer_factory.hpp:77] Creating layer cont_1_lstm2_cont_slice_0_split
I0924 03:05:38.852813 14578 net.cpp:91] Creating Layer cont_1_lstm2_cont_slice_0_split
I0924 03:05:38.852821 14578 net.cpp:425] cont_1_lstm2_cont_slice_0_split <- cont_1
I0924 03:05:38.852835 14578 net.cpp:399] cont_1_lstm2_cont_slice_0_split -> cont_1_lstm2_cont_slice_0_split_0
I0924 03:05:38.852850 14578 net.cpp:399] cont_1_lstm2_cont_slice_0_split -> cont_1_lstm2_cont_slice_0_split_1
I0924 03:05:38.852936 14578 net.cpp:141] Setting up cont_1_lstm2_cont_slice_0_split
I0924 03:05:38.852951 14578 net.cpp:148] Top shape: 1 1 (1)
I0924 03:05:38.852962 14578 net.cpp:148] Top shape: 1 1 (1)
I0924 03:05:38.852970 14578 net.cpp:156] Memory required for data: 14020
I0924 03:05:38.852978 14578 layer_factory.hpp:77] Creating layer lstm2_x_transform
I0924 03:05:38.852998 14578 net.cpp:91] Creating Layer lstm2_x_transform
I0924 03:05:38.853008 14578 net.cpp:425] lstm2_x_transform <- x
I0924 03:05:38.853021 14578 net.cpp:399] lstm2_x_transform -> W_xc_x
I0924 03:05:38.881002 14602 net.cpp:141] Setting up lstm2
I0924 03:05:38.881057 14602 net.cpp:148] Top shape: 1 1 1000 (1000)
I0924 03:05:38.881065 14576 net.cpp:141] Setting up lstm2_unit_1
I0924 03:05:38.881068 14602 net.cpp:156] Memory required for data: 36412
I0924 03:05:38.881088 14576 net.cpp:148] Top shape: 1 1 1000 (1000)
I0924 03:05:38.881099 14576 net.cpp:148] Top shape: 1 1 1000 (1000)
I0924 03:05:38.881106 14576 net.cpp:156] Memory required for data: 90020
I0924 03:05:38.881109 14602 layer_factory.hpp:77] Creating layer predict
I0924 03:05:38.881115 14576 layer_factory.hpp:77] Creating layer lstm2_
I0924 03:05:38.881129 14576 net.cpp:91] Creating Layer lstm2_
I0924 03:05:38.881134 14602 net.cpp:91] Creating Layer predict
I0924 03:05:38.881139 14576 net.cpp:425] lstm2_ <- c_1
I0924 03:05:38.881142 14602 net.cpp:425] predict <- lstm2
I0924 03:05:38.881155 14602 net.cpp:399] predict -> predict
I0924 03:05:38.881155 14576 net.cpp:399] lstm2_ -> c_T
I0924 03:05:38.984036 14576 net.cpp:141] Setting up lstm2_
I0924 03:05:38.984094 14576 net.cpp:148] Top shape: 1 1 1000 (1000)
I0924 03:05:38.984103 14576 net.cpp:156] Memory required for data: 94020
I0924 03:05:38.984115 14576 layer_factory.hpp:77] Creating layer lstm2_h_concat
I0924 03:05:38.984159 14576 net.cpp:91] Creating Layer lstm2_h_concat
I0924 03:05:38.984165 14574 net.cpp:141] Setting up lstm2_x_transform
I0924 03:05:38.984169 14576 net.cpp:425] lstm2_h_concat <- h_1
I0924 03:05:38.984189 14574 net.cpp:148] Top shape: 1 1 4000 (4000)
I0924 03:05:38.984195 14574 net.cpp:156] Memory required for data: 30020
I0924 03:05:38.984205 14576 net.cpp:399] lstm2_h_concat -> h
I0924 03:05:38.984212 14574 layer_factory.hpp:77] Creating layer lstm2_W_xc_x_slice
I0924 03:05:38.984225 14574 net.cpp:91] Creating Layer lstm2_W_xc_x_slice
I0924 03:05:38.984230 14574 net.cpp:425] lstm2_W_xc_x_slice <- W_xc_x
I0924 03:05:38.984243 14574 net.cpp:399] lstm2_W_xc_x_slice -> W_xc_x_1
I0924 03:05:38.984266 14576 net.cpp:141] Setting up lstm2_h_concat
I0924 03:05:38.984279 14576 net.cpp:148] Top shape: 1 1 1000 (1000)
I0924 03:05:38.984287 14576 net.cpp:156] Memory required for data: 98020
I0924 03:05:38.984290 14574 net.cpp:141] Setting up lstm2_W_xc_x_slice
I0924 03:05:38.984294 14576 layer_factory.hpp:77] Creating layer h_pseudoloss
I0924 03:05:38.984300 14574 net.cpp:148] Top shape: 1 1 4000 (4000)
I0924 03:05:38.984305 14574 net.cpp:156] Memory required for data: 46020
I0924 03:05:38.984310 14574 layer_factory.hpp:77] Creating layer lstm2_h_conted_0
I0924 03:05:38.984314 14576 net.cpp:91] Creating Layer h_pseudoloss
I0924 03:05:38.984320 14574 net.cpp:91] Creating Layer lstm2_h_conted_0
I0924 03:05:38.984323 14576 net.cpp:425] h_pseudoloss <- h
I0924 03:05:38.984326 14574 net.cpp:425] lstm2_h_conted_0 <- h_0
I0924 03:05:38.984333 14574 net.cpp:425] lstm2_h_conted_0 <- cont_1_lstm2_cont_slice_0_split_0
I0924 03:05:38.984334 14576 net.cpp:399] h_pseudoloss -> h_pseudoloss
I0924 03:05:38.984341 14574 net.cpp:399] lstm2_h_conted_0 -> h_conted_0
I0924 03:05:38.984537 14574 net.cpp:141] Setting up lstm2_h_conted_0
I0924 03:05:38.984549 14574 net.cpp:148] Top shape: 1 1 1000 (1000)
I0924 03:05:38.984554 14574 net.cpp:156] Memory required for data: 50020
I0924 03:05:38.984558 14574 layer_factory.hpp:77] Creating layer lstm2_transform_1
I0924 03:05:38.984572 14574 net.cpp:91] Creating Layer lstm2_transform_1
I0924 03:05:38.984578 14574 net.cpp:425] lstm2_transform_1 <- h_conted_0
I0924 03:05:38.984589 14574 net.cpp:399] lstm2_transform_1 -> W_hc_h_0
I0924 03:05:38.992130 14576 net.cpp:141] Setting up h_pseudoloss
…
I0924 03:05:38.992329 14576 net.cpp:219] lstm2_ does not need backward computation.
I0924 03:05:38.992336 14576 net.cpp:261] This network produces output c_T
I0924 03:05:38.992344 14576 net.cpp:261] This network produces output h_pseudoloss
I0924 03:05:38.992373 14576 net.cpp:274] Network initialization done.
I0924 03:05:38.992450 14576 recurrent_layer.cpp:150] Adding parameter 0: W_xc
I0924 03:05:38.992461 14576 recurrent_layer.cpp:150] Adding parameter 1: b_c
I0924 03:05:38.992468 14576 recurrent_layer.cpp:150] Adding parameter 2: W_hc
I0924 03:05:38.992641 14576 net.cpp:141] Setting up lstm2
I0924 03:05:38.992656 14576 net.cpp:148] Top shape: 1 1 1000 (1000)
I0924 03:05:38.992665 14576 net.cpp:156] Memory required for data: 36412
I0924 03:05:38.992686 14576 layer_factory.hpp:77] Creating layer predict
I0924 03:05:38.992707 14576 net.cpp:91] Creating Layer predict
I0924 03:05:38.992717 14576 net.cpp:425] predict <- lstm2
I0924 03:05:38.992730 14576 net.cpp:399] predict -> predict
I0924 03:05:39.079776 14574 net.cpp:141] Setting up lstm2_transform_1
I0924 03:05:39.079839 14574 net.cpp:148] Top shape: 1 1 4000 (4000)
I0924 03:05:39.079851 14574 net.cpp:156] Memory required for data: 66020
I0924 03:05:39.079881 14574 layer_factory.hpp:77] Creating layer lstm2_gate_input_1
I0924 03:05:39.079915 14574 net.cpp:91] Creating Layer lstm2_gate_input_1
I0924 03:05:39.079927 14574 net.cpp:425] lstm2_gate_input_1 <- W_hc_h_0
I0924 03:05:39.079941 14574 net.cpp:425] lstm2_gate_input_1 <- W_xc_x_1
I0924 03:05:39.079954 14574 net.cpp:399] lstm2_gate_input_1 -> gate_input_1
I0924 03:05:39.092021 14574 net.cpp:141] Setting up lstm2_gate_input_1
I0924 03:05:39.092075 14574 net.cpp:148] Top shape: 1 1 4000 (4000)
I0924 03:05:39.092084 14574 net.cpp:156] Memory required for data: 82020
I0924 03:05:39.092097 14574 layer_factory.hpp:77] Creating layer lstm2_unit_1
I0924 03:05:39.092118 14574 net.cpp:91] Creating Layer lstm2_unit_1
I0924 03:05:39.092128 14574 net.cpp:425] lstm2_unit_1 <- c_0
I0924 03:05:39.092144 14574 net.cpp:425] lstm2_unit_1 <- gate_input_1
I0924 03:05:39.092154 14574 net.cpp:425] lstm2_unit_1 <- cont_1_lstm2_cont_slice_0_split_1
I0924 03:05:39.092172 14574 net.cpp:399] lstm2_unit_1 -> c_1
I0924 03:05:39.092190 14574 net.cpp:399] lstm2_unit_1 -> h_1
I0924 03:05:39.092299 14574 net.cpp:141] Setting up lstm2_unit_1
I0924 03:05:39.092315 14574 net.cpp:148] Top shape: 1 1 1000 (1000)
I0924 03:05:39.092325 14574 net.cpp:148] Top shape: 1 1 1000 (1000)
I0924 03:05:39.092334 14574 net.cpp:156] Memory required for data: 90020
I0924 03:05:39.092340 14574 layer_factory.hpp:77] Creating layer lstm2_
I0924 03:05:39.092355 14574 net.cpp:91] Creating Layer lstm2_
I0924 03:05:39.092361 14574 net.cpp:425] lstm2_ <- c_1
I0924 03:05:39.092372 14574 net.cpp:399] lstm2_ -> c_T
I0924 03:05:39.092427 14574 net.cpp:141] Setting up lstm2_
I0924 03:05:39.092443 14574 net.cpp:148] Top shape: 1 1 1000 (1000)
I0924 03:05:39.092452 14574 net.cpp:156] Memory required for data: 94020
I0924 03:05:39.092458 14574 layer_factory.hpp:77] Creating layer lstm2_h_concat
I0924 03:05:39.092474 14574 net.cpp:91] Creating Layer lstm2_h_concat
I0924 03:05:39.092483 14574 net.cpp:425] lstm2_h_concat <- h_1
I0924 03:05:39.092499 14574 net.cpp:399] lstm2_h_concat -> h
I0924 03:05:39.092555 14574 net.cpp:141] Setting up lstm2_h_concat
I0924 03:05:39.092572 14574 net.cpp:148] Top shape: 1 1 1000 (1000)
I0924 03:05:39.092581 14574 net.cpp:156] Memory required for data: 98020
I0924 03:05:39.092589 14574 layer_factory.hpp:77] Creating layer h_pseudoloss
I0924 03:05:39.092617 14574 net.cpp:91] Creating Layer h_pseudoloss
I0924 03:05:39.092628 14574 net.cpp:425] h_pseudoloss <- h
I0924 03:05:39.092641 14574 net.cpp:399] h_pseudoloss -> h_pseudoloss
I0924 03:05:39.092793 14574 net.cpp:141] Setting up h_pseudoloss
…
I0924 03:05:39.092991 14574 net.cpp:219] lstm2_ does not need backward computation.
I0924 03:05:39.092999 14574 net.cpp:261] This network produces output c_T
I0924 03:05:39.093009 14574 net.cpp:261] This network produces output h_pseudoloss
I0924 03:05:39.093040 14574 net.cpp:274] Network initialization done.
I0924 03:05:39.093123 14574 recurrent_layer.cpp:150] Adding parameter 0: W_xc
I0924 03:05:39.093138 14574 recurrent_layer.cpp:150] Adding parameter 1: b_c
I0924 03:05:39.093147 14574 recurrent_layer.cpp:150] Adding parameter 2: W_hc
I0924 03:05:39.093325 14574 net.cpp:141] Setting up lstm2
I0924 03:05:39.093344 14574 net.cpp:148] Top shape: 1 1 1000 (1000)
I0924 03:05:39.093353 14574 net.cpp:156] Memory required for data: 36412
I0924 03:05:39.093382 14574 layer_factory.hpp:77] Creating layer predict
I0924 03:05:39.093405 14574 net.cpp:91] Creating Layer predict
I0924 03:05:39.093417 14574 net.cpp:425] predict <- lstm2
I0924 03:05:39.093433 14574 net.cpp:399] predict -> predict
I0924 03:05:39.180709 14578 net.cpp:141] Setting up lstm2_x_transform
I0924 03:05:39.180789 14578 net.cpp:148] Top shape: 1 1 4000 (4000)
I0924 03:05:39.180807 14578 net.cpp:156] Memory required for data: 30020
I0924 03:05:39.180845 14578 layer_factory.hpp:77] Creating layer lstm2_W_xc_x_slice
I0924 03:05:39.180884 14578 net.cpp:91] Creating Layer lstm2_W_xc_x_slice
I0924 03:05:39.180905 14578 net.cpp:425] lstm2_W_xc_x_slice <- W_xc_x
I0924 03:05:39.180929 14578 net.cpp:399] lstm2_W_xc_x_slice -> W_xc_x_1
I0924 03:05:39.181033 14578 net.cpp:141] Setting up lstm2_W_xc_x_slice
I0924 03:05:39.181061 14578 net.cpp:148] Top shape: 1 1 4000 (4000)
I0924 03:05:39.181077 14578 net.cpp:156] Memory required for data: 46020
I0924 03:05:39.181092 14578 layer_factory.hpp:77] Creating layer lstm2_h_conted_0
I0924 03:05:39.181118 14578 net.cpp:91] Creating Layer lstm2_h_conted_0
I0924 03:05:39.181134 14578 net.cpp:425] lstm2_h_conted_0 <- h_0
I0924 03:05:39.181152 14578 net.cpp:425] lstm2_h_conted_0 <- cont_1_lstm2_cont_slice_0_split_0
I0924 03:05:39.181181 14578 net.cpp:399] lstm2_h_conted_0 -> h_conted_0
I0924 03:05:39.181453 14578 net.cpp:141] Setting up lstm2_h_conted_0
I0924 03:05:39.181479 14578 net.cpp:148] Top shape: 1 1 1000 (1000)
I0924 03:05:39.181493 14578 net.cpp:156] Memory required for data: 50020
I0924 03:05:39.181507 14578 layer_factory.hpp:77] Creating layer lstm2_transform_1
I0924 03:05:39.181543 14578 net.cpp:91] Creating Layer lstm2_transform_1
I0924 03:05:39.181561 14578 net.cpp:425] lstm2_transform_1 <- h_conted_0
I0924 03:05:39.181586 14578 net.cpp:399] lstm2_transform_1 -> W_hc_h_0
I0924 03:05:39.181812 14608 net.cpp:141] Setting up predict
I0924 03:05:39.181835 14608 net.cpp:148] Top shape: 1 1 46168 (46168)
I0924 03:05:39.181843 14608 net.cpp:156] Memory required for data: 221084
I0924 03:05:39.181860 14608 layer_factory.hpp:77] Creating layer probs
I0924 03:05:39.181876 14608 net.cpp:91] Creating Layer probs
I0924 03:05:39.181885 14608 net.cpp:425] probs <- predict
I0924 03:05:39.181897 14608 net.cpp:399] probs -> probs
I0924 03:05:39.248821 14578 net.cpp:141] Setting up lstm2_transform_1
I0924 03:05:39.249299 14578 net.cpp:148] Top shape: 1 1 4000 (4000)
I0924 03:05:39.249470 14578 net.cpp:156] Memory required for data: 66020
I0924 03:05:39.249605 14578 layer_factory.hpp:77] Creating layer lstm2_gate_input_1
I0924 03:05:39.249816 14578 net.cpp:91] Creating Layer lstm2_gate_input_1
I0924 03:05:39.249940 14578 net.cpp:425] lstm2_gate_input_1 <- W_hc_h_0
I0924 03:05:39.250061 14578 net.cpp:425] lstm2_gate_input_1 <- W_xc_x_1
I0924 03:05:39.250241 14578 net.cpp:399] lstm2_gate_input_1 -> gate_input_1
I0924 03:05:39.250877 14578 net.cpp:141] Setting up lstm2_gate_input_1
I0924 03:05:39.251024 14578 net.cpp:148] Top shape: 1 1 4000 (4000)
I0924 03:05:39.251186 14578 net.cpp:156] Memory required for data: 82020
I0924 03:05:39.251305 14578 layer_factory.hpp:77] Creating layer lstm2_unit_1
I0924 03:05:39.251430 14578 net.cpp:91] Creating Layer lstm2_unit_1
I0924 03:05:39.251559 14578 net.cpp:425] lstm2_unit_1 <- c_0
I0924 03:05:39.251678 14578 net.cpp:425] lstm2_unit_1 <- gate_input_1
I0924 03:05:39.251801 14578 net.cpp:425] lstm2_unit_1 <- cont_1_lstm2_cont_slice_0_split_1
I0924 03:05:39.251920 14578 net.cpp:399] lstm2_unit_1 -> c_1
I0924 03:05:39.252044 14578 net.cpp:399] lstm2_unit_1 -> h_1
I0924 03:05:39.254993 14578 net.cpp:141] Setting up lstm2_unit_1
I0924 03:05:39.255336 14578 net.cpp:148] Top shape: 1 1 1000 (1000)
I0924 03:05:39.255481 14578 net.cpp:148] Top shape: 1 1 1000 (1000)
I0924 03:05:39.255595 14578 net.cpp:156] Memory required for data: 90020
I0924 03:05:39.255717 14578 layer_factory.hpp:77] Creating layer lstm2_
I0924 03:05:39.255846 14578 net.cpp:91] Creating Layer lstm2_
I0924 03:05:39.255993 14578 net.cpp:425] lstm2_ <- c_1
I0924 03:05:39.256173 14578 net.cpp:399] lstm2_ -> c_T
I0924 03:05:39.257069 14578 net.cpp:141] Setting up lstm2_
I0924 03:05:39.257259 14578 net.cpp:148] Top shape: 1 1 1000 (1000)
I0924 03:05:39.257376 14578 net.cpp:156] Memory required for data: 94020
I0924 03:05:39.257494 14578 layer_factory.hpp:77] Creating layer lstm2_h_concat
I0924 03:05:39.257618 14578 net.cpp:91] Creating Layer lstm2_h_concat
I0924 03:05:39.257747 14578 net.cpp:425] lstm2_h_concat <- h_1
I0924 03:05:39.257876 14578 net.cpp:399] lstm2_h_concat -> h
I0924 03:05:39.259862 14578 net.cpp:141] Setting up lstm2_h_concat
I0924 03:05:39.260094 14578 net.cpp:148] Top shape: 1 1 1000 (1000)
I0924 03:05:39.260262 14578 net.cpp:156] Memory required for data: 98020
I0924 03:05:39.260380 14578 layer_factory.hpp:77] Creating layer h_pseudoloss
I0924 03:05:39.260507 14578 net.cpp:91] Creating Layer h_pseudoloss
I0924 03:05:39.260625 14578 net.cpp:425] h_pseudoloss <- h
I0924 03:05:39.260748 14578 net.cpp:399] h_pseudoloss -> h_pseudoloss
I0924 03:05:39.265292 14578 net.cpp:141] Setting up h_pseudoloss
…
I0924 03:05:39.267874 14578 net.cpp:219] lstm2_ does not need backward computation.
I0924 03:05:39.267987 14578 net.cpp:261] This network produces output c_T
I0924 03:05:39.268156 14578 net.cpp:261] This network produces output h_pseudoloss
I0924 03:05:39.268292 14578 net.cpp:274] Network initialization done.
I0924 03:05:39.268477 14578 recurrent_layer.cpp:150] Adding parameter 0: W_xc
I0924 03:05:39.268599 14578 recurrent_layer.cpp:150] Adding parameter 1: b_c
I0924 03:05:39.268713 14578 recurrent_layer.cpp:150] Adding parameter 2: W_hc
I0924 03:05:39.269449 14578 net.cpp:141] Setting up lstm2
I0924 03:05:39.269693 14578 net.cpp:148] Top shape: 1 1 1000 (1000)
I0924 03:05:39.269810 14578 net.cpp:156] Memory required for data: 36412
I0924 03:05:39.269947 14578 layer_factory.hpp:77] Creating layer predict
I0924 03:05:39.270077 14578 net.cpp:91] Creating Layer predict
I0924 03:05:39.270248 14578 net.cpp:425] predict <- lstm2
I0924 03:05:39.270391 14578 net.cpp:399] predict -> predict
I0924 03:05:39.390220 14602 net.cpp:141] Setting up predict
I0924 03:05:39.390280 14602 net.cpp:148] Top shape: 1 1 46168 (46168)
I0924 03:05:39.390288 14602 net.cpp:156] Memory required for data: 221084
I0924 03:05:39.390311 14602 layer_factory.hpp:77] Creating layer probs
I0924 03:05:39.390332 14602 net.cpp:91] Creating Layer probs
I0924 03:05:39.390343 14602 net.cpp:425] probs <- predict
I0924 03:05:39.390358 14602 net.cpp:399] probs -> probs
I0924 03:05:39.390501 14584 net.cpp:141] Setting up predict
I0924 03:05:39.390522 14584 net.cpp:148] Top shape: 1 1 46168 (46168)
I0924 03:05:39.390532 14584 net.cpp:156] Memory required for data: 221084
I0924 03:05:39.390548 14584 layer_factory.hpp:77] Creating layer probs
I0924 03:05:39.390563 14584 net.cpp:91] Creating Layer probs
I0924 03:05:39.390573 14584 net.cpp:425] probs <- predict
I0924 03:05:39.390585 14584 net.cpp:399] probs -> probs
I0924 03:05:39.408879 14602 net.cpp:141] Setting up probs
I0924 03:05:39.408926 14602 net.cpp:148] Top shape: 1 1 46168 (46168)
I0924 03:05:39.408931 14602 net.cpp:156] Memory required for data: 405756
I0924 03:05:39.408941 14602 net.cpp:219] probs does not need backward computation.
I0924 03:05:39.408948 14602 net.cpp:219] predict does not need backward computation.
I0924 03:05:39.408954 14602 net.cpp:219] lstm2 does not need backward computation.
I0924 03:05:39.408960 14602 net.cpp:219] concat does not need backward computation.
I0924 03:05:39.408967 14602 net.cpp:219] lstm1 does not need backward computation.
I0924 03:05:39.408973 14602 net.cpp:219] embedding does not need backward computation.
I0924 03:05:39.408978 14602 net.cpp:219] reshape_stage_indicator does not need backward computation.
I0924 03:05:39.408983 14602 net.cpp:219] reshape_frames does not need backward computation.
I0924 03:05:39.408989 14602 net.cpp:219] embed_encoder does not need backward computation.
I0924 03:05:39.408994 14602 net.cpp:219] cont_sentence_input_1_split does not need backward computation.
I0924 03:05:39.408999 14602 net.cpp:219] input does not need backward computation.
I0924 03:05:39.409004 14602 net.cpp:261] This network produces output probs
I0924 03:05:39.409024 14602 net.cpp:274] Network initialization done.
I0924 03:05:39.414114 14600 net.cpp:141] Setting up conv1
I0924 03:05:39.414170 14600 net.cpp:148] Top shape: 10 96 55 55 (2904000)
I0924 03:05:39.414180 14600 net.cpp:156] Memory required for data: 17799480
I0924 03:05:39.414207 14600 layer_factory.hpp:77] Creating layer relu1
I0924 03:05:39.414232 14600 net.cpp:91] Creating Layer relu1
I0924 03:05:39.414242 14600 net.cpp:425] relu1 <- conv1
I0924 03:05:39.414252 14600 net.cpp:386] relu1 -> conv1 (in-place)
I0924 03:05:39.414825 14600 net.cpp:141] Setting up relu1
I0924 03:05:39.414846 14600 net.cpp:148] Top shape: 10 96 55 55 (2904000)
I0924 03:05:39.414855 14600 net.cpp:156] Memory required for data: 29415480
I0924 03:05:39.414863 14600 layer_factory.hpp:77] Creating layer pool1
I0924 03:05:39.414880 14600 net.cpp:91] Creating Layer pool1
I0924 03:05:39.414890 14600 net.cpp:425] pool1 <- conv1
I0924 03:05:39.414901 14600 net.cpp:399] pool1 -> pool1
I0924 03:05:39.415015 14600 net.cpp:141] Setting up pool1
I0924 03:05:39.415032 14600 net.cpp:148] Top shape: 10 96 27 27 (699840)
I0924 03:05:39.415040 14600 net.cpp:156] Memory required for data: 32214840
I0924 03:05:39.415048 14600 layer_factory.hpp:77] Creating layer norm1
I0924 03:05:39.415072 14600 net.cpp:91] Creating Layer norm1
I0924 03:05:39.415081 14600 net.cpp:425] norm1 <- pool1
I0924 03:05:39.415092 14600 net.cpp:399] norm1 -> norm1
I0924 03:05:39.415480 14600 net.cpp:141] Setting up norm1
I0924 03:05:39.415498 14600 net.cpp:148] Top shape: 10 96 27 27 (699840)
I0924 03:05:39.415505 14600 net.cpp:156] Memory required for data: 35014200
I0924 03:05:39.415513 14600 layer_factory.hpp:77] Creating layer conv2
I0924 03:05:39.415532 14600 net.cpp:91] Creating Layer conv2
I0924 03:05:39.415540 14600 net.cpp:425] conv2 <- norm1
I0924 03:05:39.415554 14600 net.cpp:399] conv2 -> conv2
I0924 03:05:39.420150 14584 net.cpp:141] Setting up probs
I0924 03:05:39.420209 14584 net.cpp:148] Top shape: 1 1 46168 (46168)
I0924 03:05:39.420222 14584 net.cpp:156] Memory required for data: 405756
I0924 03:05:39.420235 14584 net.cpp:219] probs does not need backward computation.
I0924 03:05:39.420249 14584 net.cpp:219] predict does not need backward computation.
I0924 03:05:39.420259 14584 net.cpp:219] lstm2 does not need backward computation.
I0924 03:05:39.420270 14584 net.cpp:219] concat does not need backward computation.
I0924 03:05:39.420282 14584 net.cpp:219] lstm1 does not need backward computation.
I0924 03:05:39.420295 14584 net.cpp:219] embedding does not need backward computation.
I0924 03:05:39.420305 14584 net.cpp:219] reshape_stage_indicator does not need backward computation.
I0924 03:05:39.420315 14584 net.cpp:219] reshape_frames does not need backward computation.
I0924 03:05:39.420325 14584 net.cpp:219] embed_encoder does not need backward computation.
I0924 03:05:39.420336 14584 net.cpp:219] cont_sentence_input_1_split does not need backward computation.
I0924 03:05:39.420346 14584 net.cpp:219] input does not need backward computation.
I0924 03:05:39.420356 14584 net.cpp:261] This network produces output probs
I0924 03:05:39.420389 14584 net.cpp:274] Network initialization done.
I0924 03:05:39.423467 14600 net.cpp:141] Setting up conv2
I0924 03:05:39.423511 14600 net.cpp:148] Top shape: 10 256 27 27 (1866240)
I0924 03:05:39.423518 14600 net.cpp:156] Memory required for data: 42479160
I0924 03:05:39.423547 14600 layer_factory.hpp:77] Creating layer relu2
I0924 03:05:39.423565 14600 net.cpp:91] Creating Layer relu2
I0924 03:05:39.423574 14600 net.cpp:425] relu2 <- conv2
I0924 03:05:39.423588 14600 net.cpp:386] relu2 -> conv2 (in-place)
I0924 03:05:39.424123 14600 net.cpp:141] Setting up relu2
I0924 03:05:39.424137 14600 net.cpp:148] Top shape: 10 256 27 27 (1866240)
I0924 03:05:39.424145 14600 net.cpp:156] Memory required for data: 49944120
I0924 03:05:39.424154 14600 layer_factory.hpp:77] Creating layer pool2
I0924 03:05:39.424170 14600 net.cpp:91] Creating Layer pool2
I0924 03:05:39.424178 14600 net.cpp:425] pool2 <- conv2
I0924 03:05:39.424190 14600 net.cpp:399] pool2 -> pool2
I0924 03:05:39.424276 14600 net.cpp:141] Setting up pool2
I0924 03:05:39.424290 14600 net.cpp:148] Top shape: 10 256 13 13 (432640)
I0924 03:05:39.424298 14600 net.cpp:156] Memory required for data: 51674680
I0924 03:05:39.424304 14600 layer_factory.hpp:77] Creating layer norm2
I0924 03:05:39.424324 14600 net.cpp:91] Creating Layer norm2
I0924 03:05:39.424332 14600 net.cpp:425] norm2 <- pool2
I0924 03:05:39.424342 14600 net.cpp:399] norm2 -> norm2
I0924 03:05:39.425523 14600 net.cpp:141] Setting up norm2
I0924 03:05:39.425540 14600 net.cpp:148] Top shape: 10 256 13 13 (432640)
I0924 03:05:39.425549 14600 net.cpp:156] Memory required for data: 53405240
I0924 03:05:39.425556 14600 layer_factory.hpp:77] Creating layer conv3
I0924 03:05:39.425577 14600 net.cpp:91] Creating Layer conv3
I0924 03:05:39.425585 14600 net.cpp:425] conv3 <- norm2
I0924 03:05:39.425600 14600 net.cpp:399] conv3 -> conv3
I0924 03:05:39.429028 14608 net.cpp:141] Setting up probs
I0924 03:05:39.429080 14608 net.cpp:148] Top shape: 1 1 46168 (46168)
I0924 03:05:39.429090 14608 net.cpp:156] Memory required for data: 405756
I0924 03:05:39.429103 14608 net.cpp:219] probs does not need backward computation.
I0924 03:05:39.429117 14608 net.cpp:219] predict does not need backward computation.
I0924 03:05:39.429129 14608 net.cpp:219] lstm2 does not need backward computation.
I0924 03:05:39.429141 14608 net.cpp:219] concat does not need backward computation.
I0924 03:05:39.429154 14608 net.cpp:219] lstm1 does not need backward computation.
I0924 03:05:39.429167 14608 net.cpp:219] embedding does not need backward computation.
I0924 03:05:39.429178 14608 net.cpp:219] reshape_stage_indicator does not need backward computation.
I0924 03:05:39.429190 14608 net.cpp:219] reshape_frames does not need backward computation.
I0924 03:05:39.429203 14608 net.cpp:219] embed_encoder does not need backward computation.
I0924 03:05:39.429214 14608 net.cpp:219] cont_sentence_input_1_split does not need backward computation.
I0924 03:05:39.429225 14608 net.cpp:219] input does not need backward computation.
I0924 03:05:39.429232 14608 net.cpp:261] This network produces output probs
I0924 03:05:39.429260 14608 net.cpp:274] Network initialization done.
I0924 03:05:39.438102 14600 net.cpp:141] Setting up conv3
I0924 03:05:39.438160 14600 net.cpp:148] Top shape: 10 384 13 13 (648960)
I0924 03:05:39.438170 14600 net.cpp:156] Memory required for data: 56001080
I0924 03:05:39.438199 14600 layer_factory.hpp:77] Creating layer relu3
I0924 03:05:39.438220 14600 net.cpp:91] Creating Layer relu3
I0924 03:05:39.438232 14600 net.cpp:425] relu3 <- conv3
I0924 03:05:39.438244 14600 net.cpp:386] relu3 -> conv3 (in-place)
I0924 03:05:39.438771 14600 net.cpp:141] Setting up relu3
I0924 03:05:39.438792 14600 net.cpp:148] Top shape: 10 384 13 13 (648960)
I0924 03:05:39.438803 14600 net.cpp:156] Memory required for data: 58596920
I0924 03:05:39.438813 14600 layer_factory.hpp:77] Creating layer conv4
I0924 03:05:39.438839 14600 net.cpp:91] Creating Layer conv4
I0924 03:05:39.438853 14600 net.cpp:425] conv4 <- conv3
I0924 03:05:39.438866 14600 net.cpp:399] conv4 -> conv4
I0924 03:05:39.456249 14600 net.cpp:141] Setting up conv4
I0924 03:05:39.456302 14600 net.cpp:148] Top shape: 10 384 13 13 (648960)
I0924 03:05:39.456311 14600 net.cpp:156] Memory required for data: 61192760
I0924 03:05:39.456333 14600 layer_factory.hpp:77] Creating layer relu4
I0924 03:05:39.456356 14600 net.cpp:91] Creating Layer relu4
I0924 03:05:39.456372 14600 net.cpp:425] relu4 <- conv4
I0924 03:05:39.456387 14600 net.cpp:386] relu4 -> conv4 (in-place)
I0924 03:05:39.457751 14600 net.cpp:141] Setting up relu4
I0924 03:05:39.457793 14600 net.cpp:148] Top shape: 10 384 13 13 (648960)
I0924 03:05:39.457804 14600 net.cpp:156] Memory required for data: 63788600
I0924 03:05:39.457815 14600 layer_factory.hpp:77] Creating layer conv5
I0924 03:05:39.458266 14600 net.cpp:91] Creating Layer conv5
I0924 03:05:39.458284 14600 net.cpp:425] conv5 <- conv4
I0924 03:05:39.458309 14600 net.cpp:399] conv5 -> conv5
I0924 03:05:39.469967 14576 net.cpp:141] Setting up predict
I0924 03:05:39.470022 14576 net.cpp:148] Top shape: 1 1 46168 (46168)
I0924 03:05:39.470033 14576 net.cpp:156] Memory required for data: 221084
I0924 03:05:39.470053 14576 layer_factory.hpp:77] Creating layer probs
I0924 03:05:39.470073 14576 net.cpp:91] Creating Layer probs
I0924 03:05:39.470082 14576 net.cpp:425] probs <- predict
I0924 03:05:39.470100 14576 net.cpp:399] probs -> probs
I0924 03:05:39.474002 14576 net.cpp:141] Setting up probs
I0924 03:05:39.474023 14576 net.cpp:148] Top shape: 1 1 46168 (46168)
I0924 03:05:39.474035 14576 net.cpp:156] Memory required for data: 405756
I0924 03:05:39.474042 14576 net.cpp:219] probs does not need backward computation.
I0924 03:05:39.474048 14576 net.cpp:219] predict does not need backward computation.
I0924 03:05:39.474053 14576 net.cpp:219] lstm2 does not need backward computation.
I0924 03:05:39.474059 14576 net.cpp:219] concat does not need backward computation.
I0924 03:05:39.474066 14576 net.cpp:219] lstm1 does not need backward computation.
I0924 03:05:39.474074 14576 net.cpp:219] embedding does not need backward computation.
I0924 03:05:39.474083 14576 net.cpp:219] reshape_stage_indicator does not need backward computation.
I0924 03:05:39.474093 14576 net.cpp:219] reshape_frames does not need backward computation.
I0924 03:05:39.474098 14576 net.cpp:219] embed_encoder does not need backward computation.
I0924 03:05:39.474104 14576 net.cpp:219] cont_sentence_input_1_split does not need backward computation.
I0924 03:05:39.474112 14576 net.cpp:219] input does not need backward computation.
I0924 03:05:39.474115 14576 net.cpp:261] This network produces output probs
I0924 03:05:39.474133 14576 net.cpp:274] Network initialization done.
I0924 03:05:39.483947 14600 net.cpp:141] Setting up conv5
I0924 03:05:39.484007 14600 net.cpp:148] Top shape: 10 256 13 13 (432640)
I0924 03:05:39.484017 14600 net.cpp:156] Memory required for data: 65519160
I0924 03:05:39.484048 14600 layer_factory.hpp:77] Creating layer relu5
I0924 03:05:39.486157 14600 net.cpp:91] Creating Layer relu5
I0924 03:05:39.486191 14600 net.cpp:425] relu5 <- conv5
I0924 03:05:39.486212 14600 net.cpp:386] relu5 -> conv5 (in-place)
I0924 03:05:39.487443 14600 net.cpp:141] Setting up relu5
I0924 03:05:39.487476 14600 net.cpp:148] Top shape: 10 256 13 13 (432640)
I0924 03:05:39.487486 14600 net.cpp:156] Memory required for data: 67249720
I0924 03:05:39.487498 14600 layer_factory.hpp:77] Creating layer pool5
I0924 03:05:39.488088 14600 net.cpp:91] Creating Layer pool5
I0924 03:05:39.488118 14600 net.cpp:425] pool5 <- conv5
I0924 03:05:39.488140 14600 net.cpp:399] pool5 -> pool5
I0924 03:05:39.488749 14600 net.cpp:141] Setting up pool5
I0924 03:05:39.488781 14600 net.cpp:148] Top shape: 10 256 6 6 (92160)
I0924 03:05:39.488791 14600 net.cpp:156] Memory required for data: 67618360
I0924 03:05:39.488802 14600 layer_factory.hpp:77] Creating layer fc6
I0924 03:05:39.488831 14600 net.cpp:91] Creating Layer fc6
I0924 03:05:39.488840 14600 net.cpp:425] fc6 <- pool5
I0924 03:05:39.488853 14600 net.cpp:399] fc6 -> fc6
I0924 03:05:39.574106 14574 net.cpp:141] Setting up predict
I0924 03:05:39.574189 14574 net.cpp:148] Top shape: 1 1 46168 (46168)
I0924 03:05:39.574198 14574 net.cpp:156] Memory required for data: 221084
I0924 03:05:39.574218 14574 layer_factory.hpp:77] Creating layer probs
I0924 03:05:39.574244 14574 net.cpp:91] Creating Layer probs
I0924 03:05:39.574254 14574 net.cpp:425] probs <- predict
I0924 03:05:39.574270 14574 net.cpp:399] probs -> probs
I0924 03:05:39.576606 14574 net.cpp:141] Setting up probs
I0924 03:05:39.576674 14574 net.cpp:148] Top shape: 1 1 46168 (46168)
I0924 03:05:39.576681 14574 net.cpp:156] Memory required for data: 405756
I0924 03:05:39.576692 14574 net.cpp:219] probs does not need backward computation.
I0924 03:05:39.576701 14574 net.cpp:219] predict does not need backward computation.
I0924 03:05:39.576709 14574 net.cpp:219] lstm2 does not need backward computation.
I0924 03:05:39.576715 14574 net.cpp:219] concat does not need backward computation.
I0924 03:05:39.576722 14574 net.cpp:219] lstm1 does not need backward computation.
I0924 03:05:39.576728 14574 net.cpp:219] embedding does not need backward computation.
I0924 03:05:39.576735 14574 net.cpp:219] reshape_stage_indicator does not need backward computation.
I0924 03:05:39.576740 14574 net.cpp:219] reshape_frames does not need backward computation.
I0924 03:05:39.576746 14574 net.cpp:219] embed_encoder does not need backward computation.
I0924 03:05:39.576751 14574 net.cpp:219] cont_sentence_input_1_split does not need backward computation.
I0924 03:05:39.576757 14574 net.cpp:219] input does not need backward computation.
I0924 03:05:39.576761 14574 net.cpp:261] This network produces output probs
I0924 03:05:39.576781 14574 net.cpp:274] Network initialization done.
I0924 03:05:39.624927 14600 net.cpp:141] Setting up fc6
I0924 03:05:39.624986 14600 net.cpp:148] Top shape: 10 4096 (40960)
I0924 03:05:39.624996 14600 net.cpp:156] Memory required for data: 67782200
I0924 03:05:39.625016 14600 layer_factory.hpp:77] Creating layer relu6
I0924 03:05:39.625038 14600 net.cpp:91] Creating Layer relu6
I0924 03:05:39.625048 14600 net.cpp:425] relu6 <- fc6
I0924 03:05:39.625069 14600 net.cpp:386] relu6 -> fc6 (in-place)
I0924 03:05:39.626015 14600 net.cpp:141] Setting up relu6
I0924 03:05:39.626050 14600 net.cpp:148] Top shape: 10 4096 (40960)
I0924 03:05:39.626060 14600 net.cpp:156] Memory required for data: 67946040
I0924 03:05:39.626071 14600 layer_factory.hpp:77] Creating layer drop6
I0924 03:05:39.626093 14600 net.cpp:91] Creating Layer drop6
I0924 03:05:39.626104 14600 net.cpp:425] drop6 <- fc6
I0924 03:05:39.626122 14600 net.cpp:386] drop6 -> fc6 (in-place)
I0924 03:05:39.626226 14600 net.cpp:141] Setting up drop6
I0924 03:05:39.626243 14600 net.cpp:148] Top shape: 10 4096 (40960)
I0924 03:05:39.626252 14600 net.cpp:156] Memory required for data: 68109880
I0924 03:05:39.626261 14600 layer_factory.hpp:77] Creating layer fc7
I0924 03:05:39.627252 14600 net.cpp:91] Creating Layer fc7
I0924 03:05:39.627285 14600 net.cpp:425] fc7 <- fc6
I0924 03:05:39.627303 14600 net.cpp:399] fc7 -> fc7
I0924 03:05:39.686333 14600 net.cpp:141] Setting up fc7
I0924 03:05:39.686386 14600 net.cpp:148] Top shape: 10 4096 (40960)
I0924 03:05:39.686393 14600 net.cpp:156] Memory required for data: 68273720
I0924 03:05:39.686408 14600 layer_factory.hpp:77] Creating layer relu7
I0924 03:05:39.686429 14600 net.cpp:91] Creating Layer relu7
I0924 03:05:39.686436 14600 net.cpp:425] relu7 <- fc7
I0924 03:05:39.686445 14600 net.cpp:386] relu7 -> fc7 (in-place)
I0924 03:05:39.686892 14600 net.cpp:141] Setting up relu7
I0924 03:05:39.686904 14600 net.cpp:148] Top shape: 10 4096 (40960)
I0924 03:05:39.686909 14600 net.cpp:156] Memory required for data: 68437560
I0924 03:05:39.686915 14600 layer_factory.hpp:77] Creating layer drop7
I0924 03:05:39.686926 14600 net.cpp:91] Creating Layer drop7
I0924 03:05:39.686931 14600 net.cpp:425] drop7 <- fc7
I0924 03:05:39.686940 14600 net.cpp:386] drop7 -> fc7 (in-place)
I0924 03:05:39.686995 14600 net.cpp:141] Setting up drop7
I0924 03:05:39.687005 14600 net.cpp:148] Top shape: 10 4096 (40960)
I0924 03:05:39.687010 14600 net.cpp:156] Memory required for data: 68601400
I0924 03:05:39.687014 14600 layer_factory.hpp:77] Creating layer fc8
I0924 03:05:39.687505 14600 net.cpp:91] Creating Layer fc8
I0924 03:05:39.687520 14600 net.cpp:425] fc8 <- fc7
I0924 03:05:39.687531 14600 net.cpp:399] fc8 -> fc8
I0924 03:05:39.701288 14600 net.cpp:141] Setting up fc8
I0924 03:05:39.701345 14600 net.cpp:148] Top shape: 10 1000 (10000)
I0924 03:05:39.701351 14600 net.cpp:156] Memory required for data: 68641400
I0924 03:05:39.701366 14600 layer_factory.hpp:77] Creating layer prob
I0924 03:05:39.701383 14600 net.cpp:91] Creating Layer prob
I0924 03:05:39.701391 14600 net.cpp:425] prob <- fc8
I0924 03:05:39.701400 14600 net.cpp:399] prob -> prob
I0924 03:05:39.702330 14600 net.cpp:141] Setting up prob
I0924 03:05:39.702358 14600 net.cpp:148] Top shape: 10 1000 (10000)
I0924 03:05:39.702363 14600 net.cpp:156] Memory required for data: 68681400
I0924 03:05:39.702369 14600 net.cpp:219] prob does not need backward computation.
I0924 03:05:39.702375 14600 net.cpp:219] fc8 does not need backward computation.
I0924 03:05:39.702380 14600 net.cpp:219] drop7 does not need backward computation.
I0924 03:05:39.702384 14600 net.cpp:219] relu7 does not need backward computation.
…
