…
I0922 22:41:14.156667  2040 upgrade_proto.cpp:69] Successfully upgraded file specified using deprecated input fields.
W0922 22:41:14.156672  2061 upgrade_proto.cpp:71] Note that future Caffe releases will only support input layers and not input fields.
W0922 22:41:14.156684  2040 upgrade_proto.cpp:71] Note that future Caffe releases will only support input layers and not input fields.
I0922 22:41:14.156783  2038 net.cpp:49] Initializing net from parameters: 
name: "CaffeNet"
state {
  phase: TEST
}
layer {
  name: "data"
  type: "Input"
  top: "data"
  input_param {
    shape {
      dim: 10
      dim: 3
      dim: 227
      dim: 227
    }
  }
}
layer {
  name: "conv1"
  type: "Convolution"
  bottom: "data"
  top: "conv1"
  convolution_param {
    num_output: 96
    kernel_size: 11
    stride: 4
  }
}
layer {
  name: "relu1"
  type: "ReLU"
  bottom: "conv1"
  top: "conv1"
}
layer {
  name: "pool1"
  type: "Pooling"
  bottom: "conv1"
  top: "pool1"
  pooling_param {
    pool: MAX
    kernel_size: 3
    stride: 2
  }
}
layer {
  name: "norm1"
  type: "LRN"
  bottom: "pool1"
  top: "norm1"
  lrn_param {
    local_size: 5
    alpha: 0.0001
    beta: 0.75
  }
}
layer {
  name: "conv2"
  type: "Convolution"
  bottom: "norm1"
  top: "conv2"
  convolution_param {
    num_output: 256
    pad: 2
    kernel_size: 5
    group: 2
  }
}
layer {
  name: "relu2"
  type: "ReLU"
  bottom: "conv2"
  top: "conv2"
}
layer {
  name: "pool2"
  type: "Pooling"
  bottom: "conv2"
  top: "pool2"
  pooling_param {
    pool: MAX
    kernel_size: 3
    stride: 2
  }
}
layer {
  name: "norm2"
  type: "LRN"
  bottom: "pool2"
  top: "norm2"
  lrn_param {
    local_size: 5
    alpha: 0.0001
    beta: 0.75
  }
}
layer {
  name: "conv3"
  type: "Convolution"
  bottom: "norm2"
  top: "conv3"
  convolution_param {
    num_output: 384
    pad: 1
    kernel_size: 3
  }
}
layer {
  name: "relu3"
  type: "ReLU"
  bottom: "conv3"
  top: "conv3"
}
layer {
  name: "conv4"
  type: "Convolution"
  bottom: "conv3"
  top: "conv4"
  convolution_param {
    num_output: 384
    pad: 1
    kernel_size: 3
    group: 2
  }
}
layer {
  name: "relu4"
  type: "ReLU"
  bottom: "conv4"
  top: "conv4"
}
layer {
  name: "conv5"
  type: "Convolution"
  bottom: "conv4"
  top: "conv5"
  convolution_param {
    num_output: 256
    pad: 1
    kernel_size: 3
    group: 2
  }
}
layer {
  name: "relu5"
  type: "ReLU"
  bottom: "conv5"
  top: "conv5"
}
layer {
  name: "pool5"
  type: "Pooling"
  bottom: "conv5"
  top: "pool5"
  pooling_param {
    pool: MAX
    kernel_size: 3
    stride: 2
  }
}
layer {
  name: "fc6"
  type: "InnerProduct"
  bottom: "pool5"
  top: "fc6"
  inner_product_param {
    num_output: 4096
  }
}
layer {
  name: "relu6"
  type: "ReLU"
  bottom: "fc6"
  top: "fc6"
}
layer {
  name: "drop6"
  type: "Dropout"
  bottom: "fc6"
  top: "fc6"
  dropout_param {
    dropout_ratio: 0.5
  }
}
layer {
  name: "fc7"
  type: "InnerProduct"
  bottom: "fc6"
  top: "fc7"
  inner_product_param {
    num_output: 4096
  }
}
layer {
  name: "relu7"
  type: "ReLU"
  bottom: "fc7"
  top: "fc7"
}
layer {
  name: "drop7"
  type: "Dropout"
  bottom: "fc7"
  top: "fc7"
  dropout_param {
    dropout_ratio: 0.5
  }
}
layer {
  name: "fc8"
  type: "InnerProduct"
  bottom: "fc7"
  top: "fc8"
  inner_product_param {
    num_output: 1000
  }
}
layer {
  name: "prob"
  type: "Softmax"
  bottom: "fc8"
  top: "prob"
}
I0922 22:41:14.156919  2038 layer_factory.hpp:77] Creating layer data
I0922 22:41:14.156949  2038 net.cpp:91] Creating Layer data
I0922 22:41:14.156961  2038 net.cpp:399] data -> data
I0922 22:41:14.157019  2061 net.cpp:49] Initializing net from parameters: 
name: "s2vt:features_to_lstm"
state {
  phase: TEST
}
layer {
  name: "input"
  type: "Input"
  top: "frames_fc7"
  top: "cont_sentence"
  top: "input_sentence"
  top: "stage_indicator"
  input_param {
    shape {
      dim: 1
      dim: 4096
    }
    shape {
      dim: 1
      dim: 1
    }
    shape {
      dim: 1
      dim: 1
    }
    shape {
      dim: 1
      dim: 1
    }
  }
}
layer {
  name: "embed_encoder"
  type: "InnerProduct"
  bottom: "frames_fc7"
  top: "embedded_in_frames"
  param {
    lr_mult: 1
    decay_mult: 1
  }
  param {
    lr_mult: 2
    decay_mult: 0
  }
  inner_product_param {
    num_output: 500
    weight_filler {
      type: "xavier"
    }
    bias_filler {
      type: "constant"
      value: 0.2
    }
  }
}
layer {
  name: "reshape_frames"
  type: "Reshape"
  bottom: "embedded_in_frames"
  top: "embedded_input_frames"
  reshape_param {
    shape {
      dim: 1
      dim: 1
      dim: 500
    }
  }
}
layer {
  name: "reshape_stage_indicator"
  type: "Reshape"
  bottom: "stage_indicator"
  top: "reshaped_stage_indicator"
  reshape_param {
    shape {
      dim: 1
      dim: 1
      dim: 1
    }
  }
}
layer {
  name: "embedding"
  type: "Embed"
  bottom: "input_sentence"
  top: "embedded_input_sentence"
  param {
    lr_mult: 1
  }
  embed_param {
    num_output: 500
    input_dim: 46168
    bias_term: false
    weight_filler {
      type: "uniform"
      min: -0.08
      max: 0.08
    }
  }
}
layer {
  name: "lstm1"
  type: "LSTM"
  bottom: "embedded_input_frames"
  bottom: "cont_sentence"
  top: "lstm1"
  recurrent_param {
    num_output: 1000
    weight_filler {
      type: "uniform"
      min: -0.08
      max: 0.08
    }
    bias_filler {
      type: "constant"
      value: 0
    }
  }
}
layer {
  name: "concat"
  type: "Concat"
  bottom: "lstm1"
  bottom: "embedded_input_sentence"
  bottom: "reshaped_stage_indicator"
  top: "lstm1_video_sequence"
  concat_param {
    concat_dim: 2
  }
}
layer {
  name: "lstm2"
  type: "LSTM"
  bottom: "lstm1_video_sequence"
  bottom: "cont_sentence"
  top: "lstm2"
  recurrent_param {
    num_output: 1000
    weight_filler {
      type: "uniform"
      min: -0.08
      max: 0.08
    }
    bias_filler {
      type: "constant"
      value: 0
    }
  }
}
layer {
  name: "predict"
  type: "InnerProduct"
  bottom: "lstm2"
  top: "predict"
  param {
    lr_mult: 1
    decay_mult: 1
  }
  param {
    lr_mult: 2
    decay_mult: 0
  }
  inner_product_param {
    num_output: 46168
    weight_filler {
      type: "uniform"
      min: -0.08
      max: 0.08
    }
    bias_filler {
      type: "constant"
      value: 0
    }
    axis: 2
  }
}
layer {
  name: "probs"
  type: "Softmax"
  bottom: "predict"
  top: "probs"
  softmax_param {
    axis: 2
  }
}
I0922 22:41:14.157018  2044 net.cpp:49] Initializing net from parameters: 
name: "s2vt:features_to_lstm"
state {
  phase: TEST
}
layer {
  name: "input"
  type: "Input"
  top: "frames_fc7"
  top: "cont_sentence"
  top: "input_sentence"
  top: "stage_indicator"
  input_param {
    shape {
      dim: 1
      dim: 4096
    }
    shape {
      dim: 1
      dim: 1
    }
    shape {
      dim: 1
      dim: 1
    }
    shape {
      dim: 1
      dim: 1
    }
  }
}
layer {
  name: "embed_encoder"
  type: "InnerProduct"
  bottom: "frames_fc7"
  top: "embedded_in_frames"
  param {
    lr_mult: 1
    decay_mult: 1
  }
  param {
    lr_mult: 2
    decay_mult: 0
  }
  inner_product_param {
    num_output: 500
    weight_filler {
      type: "xavier"
    }
    bias_filler {
      type: "constant"
      value: 0.2
    }
  }
}
layer {
  name: "reshape_frames"
  type: "Reshape"
  bottom: "embedded_in_frames"
  top: "embedded_input_frames"
  reshape_param {
    shape {
      dim: 1
      dim: 1
      dim: 500
    }
  }
}
layer {
  name: "reshape_stage_indicator"
  type: "Reshape"
  bottom: "stage_indicator"
  top: "reshaped_stage_indicator"
  reshape_param {
    shape {
      dim: 1
      dim: 1
      dim: 1
    }
  }
}
layer {
  name: "embedding"
  type: "Embed"
  bottom: "input_sentence"
  top: "embedded_input_sentence"
  param {
    lr_mult: 1
  }
  embed_param {
    num_output: 500
    input_dim: 46168
    bias_term: false
    weight_filler {
      type: "uniform"
      min: -0.08
      max: 0.08
    }
  }
}
layer {
  name: "lstm1"
  type: "LSTM"
  bottom: "embedded_input_frames"
  bottom: "cont_sentence"
  top: "lstm1"
  recurrent_param {
    num_output: 1000
    weight_filler {
      type: "uniform"
      min: -0.08
      max: 0.08
    }
    bias_filler {
      type: "constant"
      value: 0
    }
  }
}
layer {
  name: "concat"
  type: "Concat"
  bottom: "lstm1"
  bottom: "embedded_input_sentence"
  bottom: "reshaped_stage_indicator"
  top: "lstm1_video_sequence"
  concat_param {
    concat_dim: 2
  }
}
layer {
  name: "lstm2"
  type: "LSTM"
  bottom: "lstm1_video_sequence"
  bottom: "cont_sentence"
  top: "lstm2"
  recurrent_param {
    num_output: 1000
    weight_filler {
      type: "uniform"
      min: -0.08
      max: 0.08
    }
    bias_filler {
      type: "constant"
      value: 0
    }
  }
}
layer {
  name: "predict"
  type: "InnerProduct"
  bottom: "lstm2"
  top: "predict"
  param {
    lr_mult: 1
    decay_mult: 1
  }
  param {
    lr_mult: 2
    decay_mult: 0
  }
  inner_product_param {
    num_output: 46168
    weight_filler {
      type: "uniform"
      min: -0.08
      max: 0.08
    }
    bias_filler {
      type: "constant"
      value: 0
    }
    axis: 2
  }
}
layer {
  name: "probs"
  type: "Softmax"
  bottom: "predict"
  top: "probs"
  softmax_param {
    axis: 2
  }
}
I0922 22:41:14.157100  2040 net.cpp:49] Initializing net from parameters: 
name: "s2vt:features_to_lstm"
state {
  phase: TEST
}
layer {
  name: "input"
  type: "Input"
  top: "frames_fc7"
  top: "cont_sentence"
  top: "input_sentence"
  top: "stage_indicator"
  input_param {
    shape {
      dim: 1
      dim: 4096
    }
    shape {
      dim: 1
      dim: 1
    }
    shape {
      dim: 1
      dim: 1
    }
    shape {
      dim: 1
      dim: 1
    }
  }
}
layer {
  name: "embed_encoder"
  type: "InnerProduct"
  bottom: "frames_fc7"
  top: "embedded_in_frames"
  param {
    lr_mult: 1
    decay_mult: 1
  }
  param {
    lr_mult: 2
    decay_mult: 0
  }
  inner_product_param {
    num_output: 500
    weight_filler {
      type: "xavier"
    }
    bias_filler {
      type: "constant"
      value: 0.2
    }
  }
}
layer {
  name: "reshape_frames"
  type: "Reshape"
  bottom: "embedded_in_frames"
  top: "embedded_input_frames"
  reshape_param {
    shape {
      dim: 1
      dim: 1
      dim: 500
    }
  }
}
layer {
  name: "reshape_stage_indicator"
  type: "Reshape"
  bottom: "stage_indicator"
  top: "reshaped_stage_indicator"
  reshape_param {
    shape {
      dim: 1
      dim: 1
      dim: 1
    }
  }
}
layer {
  name: "embedding"
  type: "Embed"
  bottom: "input_sentence"
  top: "embedded_input_sentence"
  param {
    lr_mult: 1
  }
  embed_param {
    num_output: 500
    input_dim: 46168
    bias_term: false
    weight_filler {
      type: "uniform"
      min: -0.08
      max: 0.08
    }
  }
}
layer {
  name: "lstm1"
  type: "LSTM"
  bottom: "embedded_input_frames"
  bottom: "cont_sentence"
  top: "lstm1"
  recurrent_param {
    num_output: 1000
    weight_filler {
      type: "uniform"
      min: -0.08
      max: 0.08
    }
    bias_filler {
      type: "constant"
      value: 0
    }
  }
}
layer {
  name: "concat"
  type: "Concat"
  bottom: "lstm1"
  bottom: "embedded_input_sentence"
  bottom: "reshaped_stage_indicator"
  top: "lstm1_video_sequence"
  concat_param {
    concat_dim: 2
  }
}
layer {
  name: "lstm2"
  type: "LSTM"
  bottom: "lstm1_video_sequence"
  bottom: "cont_sentence"
  top: "lstm2"
  recurrent_param {
    num_output: 1000
    weight_filler {
      type: "uniform"
      min: -0.08
      max: 0.08
    }
    bias_filler {
      type: "constant"
      value: 0
    }
  }
}
layer {
  name: "predict"
  type: "InnerProduct"
  bottom: "lstm2"
  top: "predict"
  param {
    lr_mult: 1
    decay_mult: 1
  }
  param {
    lr_mult: 2
    decay_mult: 0
  }
  inner_product_param {
    num_output: 46168
    weight_filler {
      type: "uniform"
      min: -0.08
      max: 0.08
    }
    bias_filler {
      type: "constant"
      value: 0
    }
    axis: 2
  }
}
layer {
  name: "probs"
  type: "Softmax"
  bottom: "predict"
  top: "probs"
  softmax_param {
    axis: 2
  }
}
I0922 22:41:14.157186  2061 layer_factory.hpp:77] Creating layer input
I0922 22:41:14.157186  2044 layer_factory.hpp:77] Creating layer input
I0922 22:41:14.157214  2061 net.cpp:91] Creating Layer input
I0922 22:41:14.157222  2044 net.cpp:91] Creating Layer input
I0922 22:41:14.157227  2061 net.cpp:399] input -> frames_fc7
I0922 22:41:14.157232  2044 net.cpp:399] input -> frames_fc7
I0922 22:41:14.157248  2044 net.cpp:399] input -> cont_sentence
I0922 22:41:14.157250  2061 net.cpp:399] input -> cont_sentence
I0922 22:41:14.157268  2061 net.cpp:399] input -> input_sentence
I0922 22:41:14.157268  2044 net.cpp:399] input -> input_sentence
I0922 22:41:14.157275  2040 layer_factory.hpp:77] Creating layer input
I0922 22:41:14.157285  2061 net.cpp:399] input -> stage_indicator
I0922 22:41:14.157294  2044 net.cpp:399] input -> stage_indicator
I0922 22:41:14.157302  2040 net.cpp:91] Creating Layer input
I0922 22:41:14.157316  2040 net.cpp:399] input -> frames_fc7
I0922 22:41:14.157341  2040 net.cpp:399] input -> cont_sentence
I0922 22:41:14.157361  2040 net.cpp:399] input -> input_sentence
I0922 22:41:14.157380  2040 net.cpp:399] input -> stage_indicator
I0922 22:41:14.724467  2038 net.cpp:141] Setting up data
I0922 22:41:14.724548  2038 net.cpp:148] Top shape: 10 3 227 227 (1545870)
I0922 22:41:14.724556  2038 net.cpp:156] Memory required for data: 6183480
I0922 22:41:14.724575  2038 layer_factory.hpp:77] Creating layer conv1
I0922 22:41:14.724607  2038 net.cpp:91] Creating Layer conv1
I0922 22:41:14.724617  2038 net.cpp:425] conv1 <- data
I0922 22:41:14.724629  2038 net.cpp:399] conv1 -> conv1
I0922 22:41:14.724659  2061 net.cpp:141] Setting up input
I0922 22:41:14.724700  2061 net.cpp:148] Top shape: 1 4096 (4096)
I0922 22:41:14.724709  2061 net.cpp:148] Top shape: 1 1 (1)
I0922 22:41:14.724716  2061 net.cpp:148] Top shape: 1 1 (1)
I0922 22:41:14.724722  2061 net.cpp:148] Top shape: 1 1 (1)
I0922 22:41:14.724727  2061 net.cpp:156] Memory required for data: 16396
I0922 22:41:14.724736  2061 layer_factory.hpp:77] Creating layer cont_sentence_input_1_split
I0922 22:41:14.724766  2061 net.cpp:91] Creating Layer cont_sentence_input_1_split
I0922 22:41:14.724773  2061 net.cpp:425] cont_sentence_input_1_split <- cont_sentence
I0922 22:41:14.724807  2061 net.cpp:399] cont_sentence_input_1_split -> cont_sentence_input_1_split_0
I0922 22:41:14.724823  2061 net.cpp:399] cont_sentence_input_1_split -> cont_sentence_input_1_split_1
I0922 22:41:14.724968  2061 net.cpp:141] Setting up cont_sentence_input_1_split
I0922 22:41:14.724982  2061 net.cpp:148] Top shape: 1 1 (1)
I0922 22:41:14.724988  2061 net.cpp:148] Top shape: 1 1 (1)
I0922 22:41:14.724993  2061 net.cpp:156] Memory required for data: 16404
I0922 22:41:14.724999  2061 layer_factory.hpp:77] Creating layer embed_encoder
I0922 22:41:14.725024  2061 net.cpp:91] Creating Layer embed_encoder
I0922 22:41:14.725031  2061 net.cpp:425] embed_encoder <- frames_fc7
I0922 22:41:14.725040  2061 net.cpp:399] embed_encoder -> embedded_in_frames
I0922 22:41:14.725152  2044 net.cpp:141] Setting up input
I0922 22:41:14.725172  2044 net.cpp:148] Top shape: 1 4096 (4096)
I0922 22:41:14.725180  2044 net.cpp:148] Top shape: 1 1 (1)
I0922 22:41:14.725188  2044 net.cpp:148] Top shape: 1 1 (1)
I0922 22:41:14.725193  2044 net.cpp:148] Top shape: 1 1 (1)
I0922 22:41:14.725198  2044 net.cpp:156] Memory required for data: 16396
I0922 22:41:14.725204  2044 layer_factory.hpp:77] Creating layer cont_sentence_input_1_split
I0922 22:41:14.725203  2040 net.cpp:141] Setting up input
I0922 22:41:14.725229  2040 net.cpp:148] Top shape: 1 4096 (4096)
I0922 22:41:14.725236  2040 net.cpp:148] Top shape: 1 1 (1)
I0922 22:41:14.725236  2044 net.cpp:91] Creating Layer cont_sentence_input_1_split
I0922 22:41:14.725244  2040 net.cpp:148] Top shape: 1 1 (1)
I0922 22:41:14.725250  2040 net.cpp:148] Top shape: 1 1 (1)
I0922 22:41:14.725261  2040 net.cpp:156] Memory required for data: 16396
I0922 22:41:14.725250  2044 net.cpp:425] cont_sentence_input_1_split <- cont_sentence
I0922 22:41:14.725268  2040 layer_factory.hpp:77] Creating layer cont_sentence_input_1_split
I0922 22:41:14.725281  2040 net.cpp:91] Creating Layer cont_sentence_input_1_split
I0922 22:41:14.725280  2044 net.cpp:399] cont_sentence_input_1_split -> cont_sentence_input_1_split_0
I0922 22:41:14.725291  2040 net.cpp:425] cont_sentence_input_1_split <- cont_sentence
I0922 22:41:14.725311  2040 net.cpp:399] cont_sentence_input_1_split -> cont_sentence_input_1_split_0
I0922 22:41:14.725312  2044 net.cpp:399] cont_sentence_input_1_split -> cont_sentence_input_1_split_1
I0922 22:41:14.725322  2040 net.cpp:399] cont_sentence_input_1_split -> cont_sentence_input_1_split_1
I0922 22:41:14.732285  2044 net.cpp:141] Setting up cont_sentence_input_1_split
I0922 22:41:14.732319  2044 net.cpp:148] Top shape: 1 1 (1)
I0922 22:41:14.732328  2044 net.cpp:148] Top shape: 1 1 (1)
I0922 22:41:14.732333  2044 net.cpp:156] Memory required for data: 16404
I0922 22:41:14.732341  2044 layer_factory.hpp:77] Creating layer embed_encoder
I0922 22:41:14.732362  2044 net.cpp:91] Creating Layer embed_encoder
I0922 22:41:14.732370  2044 net.cpp:425] embed_encoder <- frames_fc7
I0922 22:41:14.732381  2044 net.cpp:399] embed_encoder -> embedded_in_frames
I0922 22:41:14.732416  2040 net.cpp:141] Setting up cont_sentence_input_1_split
I0922 22:41:14.732437  2040 net.cpp:148] Top shape: 1 1 (1)
I0922 22:41:14.732444  2040 net.cpp:148] Top shape: 1 1 (1)
I0922 22:41:14.732448  2040 net.cpp:156] Memory required for data: 16404
I0922 22:41:14.732453  2040 layer_factory.hpp:77] Creating layer embed_encoder
I0922 22:41:14.732467  2040 net.cpp:91] Creating Layer embed_encoder
I0922 22:41:14.732477  2040 net.cpp:425] embed_encoder <- frames_fc7
I0922 22:41:14.732486  2040 net.cpp:399] embed_encoder -> embedded_in_frames
I0922 22:41:14.761224  2061 net.cpp:141] Setting up embed_encoder
I0922 22:41:14.761270  2061 net.cpp:148] Top shape: 1 500 (500)
I0922 22:41:14.761277  2061 net.cpp:156] Memory required for data: 18404
I0922 22:41:14.761309  2061 layer_factory.hpp:77] Creating layer reshape_frames
I0922 22:41:14.761363  2061 net.cpp:91] Creating Layer reshape_frames
I0922 22:41:14.761373  2061 net.cpp:425] reshape_frames <- embedded_in_frames
I0922 22:41:14.761385  2061 net.cpp:399] reshape_frames -> embedded_input_frames
I0922 22:41:14.761459  2061 net.cpp:141] Setting up reshape_frames
I0922 22:41:14.761469  2061 net.cpp:148] Top shape: 1 1 500 (500)
I0922 22:41:14.761474  2061 net.cpp:156] Memory required for data: 20404
I0922 22:41:14.761481  2061 layer_factory.hpp:77] Creating layer reshape_stage_indicator
I0922 22:41:14.761493  2061 net.cpp:91] Creating Layer reshape_stage_indicator
I0922 22:41:14.761500  2061 net.cpp:425] reshape_stage_indicator <- stage_indicator
I0922 22:41:14.761509  2061 net.cpp:399] reshape_stage_indicator -> reshaped_stage_indicator
I0922 22:41:14.761551  2040 net.cpp:141] Setting up embed_encoder
I0922 22:41:14.761590  2040 net.cpp:148] Top shape: 1 500 (500)
I0922 22:41:14.761598  2040 net.cpp:156] Memory required for data: 18404
I0922 22:41:14.761610  2061 net.cpp:141] Setting up reshape_stage_indicator
I0922 22:41:14.761626  2040 layer_factory.hpp:77] Creating layer reshape_frames
I0922 22:41:14.761628  2061 net.cpp:148] Top shape: 1 1 1 (1)
I0922 22:41:14.761665  2061 net.cpp:156] Memory required for data: 20408
I0922 22:41:14.761668  2040 net.cpp:91] Creating Layer reshape_frames
I0922 22:41:14.761677  2061 layer_factory.hpp:77] Creating layer embedding
I0922 22:41:14.761682  2044 net.cpp:141] Setting up embed_encoder
I0922 22:41:14.761680  2040 net.cpp:425] reshape_frames <- embedded_in_frames
I0922 22:41:14.761701  2061 net.cpp:91] Creating Layer embedding
I0922 22:41:14.761706  2044 net.cpp:148] Top shape: 1 500 (500)
I0922 22:41:14.761713  2044 net.cpp:156] Memory required for data: 18404
I0922 22:41:14.761713  2061 net.cpp:425] embedding <- input_sentence
I0922 22:41:14.761723  2040 net.cpp:399] reshape_frames -> embedded_input_frames
I0922 22:41:14.761729  2044 layer_factory.hpp:77] Creating layer reshape_frames
I0922 22:41:14.761732  2061 net.cpp:399] embedding -> embedded_input_sentence
I0922 22:41:14.761742  2044 net.cpp:91] Creating Layer reshape_frames
I0922 22:41:14.761750  2044 net.cpp:425] reshape_frames <- embedded_in_frames
I0922 22:41:14.761761  2044 net.cpp:399] reshape_frames -> embedded_input_frames
I0922 22:41:14.761894  2040 net.cpp:141] Setting up reshape_frames
I0922 22:41:14.761905  2040 net.cpp:148] Top shape: 1 1 500 (500)
I0922 22:41:14.761910  2040 net.cpp:156] Memory required for data: 20404
I0922 22:41:14.761915  2040 layer_factory.hpp:77] Creating layer reshape_stage_indicator
I0922 22:41:14.761925  2040 net.cpp:91] Creating Layer reshape_stage_indicator
I0922 22:41:14.761931  2040 net.cpp:425] reshape_stage_indicator <- stage_indicator
I0922 22:41:14.761934  2044 net.cpp:141] Setting up reshape_frames
I0922 22:41:14.761940  2040 net.cpp:399] reshape_stage_indicator -> reshaped_stage_indicator
I0922 22:41:14.761950  2044 net.cpp:148] Top shape: 1 1 500 (500)
I0922 22:41:14.761955  2044 net.cpp:156] Memory required for data: 20404
I0922 22:41:14.761960  2044 layer_factory.hpp:77] Creating layer reshape_stage_indicator
I0922 22:41:14.761972  2044 net.cpp:91] Creating Layer reshape_stage_indicator
I0922 22:41:14.761978  2044 net.cpp:425] reshape_stage_indicator <- stage_indicator
I0922 22:41:14.761987  2044 net.cpp:399] reshape_stage_indicator -> reshaped_stage_indicator
I0922 22:41:14.807420  2040 net.cpp:141] Setting up reshape_stage_indicator
I0922 22:41:14.807476  2040 net.cpp:148] Top shape: 1 1 1 (1)
I0922 22:41:14.807483  2040 net.cpp:156] Memory required for data: 20408
I0922 22:41:14.807492  2040 layer_factory.hpp:77] Creating layer embedding
I0922 22:41:14.807512  2040 net.cpp:91] Creating Layer embedding
I0922 22:41:14.807518  2040 net.cpp:425] embedding <- input_sentence
I0922 22:41:14.807530  2040 net.cpp:399] embedding -> embedded_input_sentence
I0922 22:41:14.815431  2044 net.cpp:141] Setting up reshape_stage_indicator
I0922 22:41:14.815487  2044 net.cpp:148] Top shape: 1 1 1 (1)
I0922 22:41:14.815496  2044 net.cpp:156] Memory required for data: 20408
I0922 22:41:14.815505  2044 layer_factory.hpp:77] Creating layer embedding
I0922 22:41:14.815527  2044 net.cpp:91] Creating Layer embedding
I0922 22:41:14.815534  2044 net.cpp:425] embedding <- input_sentence
I0922 22:41:14.815547  2044 net.cpp:399] embedding -> embedded_input_sentence
I0922 22:41:15.008708  2061 net.cpp:141] Setting up embedding
I0922 22:41:15.008759  2061 net.cpp:148] Top shape: 1 1 500 (500)
I0922 22:41:15.008766  2061 net.cpp:156] Memory required for data: 22408
I0922 22:41:15.008787  2061 layer_factory.hpp:77] Creating layer lstm1
I0922 22:41:15.008823  2061 net.cpp:91] Creating Layer lstm1
I0922 22:41:15.008833  2061 net.cpp:425] lstm1 <- embedded_input_frames
I0922 22:41:15.008843  2061 net.cpp:425] lstm1 <- cont_sentence_input_1_split_0
I0922 22:41:15.008853  2061 net.cpp:399] lstm1 -> lstm1
I0922 22:41:15.008886  2061 recurrent_layer.cpp:20] Initializing recurrent layer: assuming input batch contains 1 timesteps of 1 independent streams.
I0922 22:41:15.009302  2061 net.cpp:49] Initializing net from parameters: 
layer {
  name: "lstm1_"
  type: "Input"
  top: "x"
  top: "cont"
  input_param {
    shape {
      dim: 1
      dim: 1
      dim: 500
    }
    shape {
      dim: 1
      dim: 1
    }
  }
}
layer {
  name: "lstm1_"
  type: "Input"
  top: "c_0"
  top: "h_0"
  input_param {
    shape {
      dim: 1
      dim: 1
      dim: 1000
    }
    shape {
      dim: 1
      dim: 1
      dim: 1000
    }
  }
}
layer {
  name: "lstm1_cont_slice"
  type: "Slice"
  bottom: "cont"
  top: "cont_1"
  slice_param {
    axis: 0
  }
}
layer {
  name: "lstm1_x_transform"
  type: "InnerProduct"
  bottom: "x"
  top: "W_xc_x"
  param {
    name: "W_xc"
  }
  param {
    name: "b_c"
  }
  propagate_down: true
  inner_product_param {
    num_output: 4000
    bias_term: true
    weight_filler {
      type: "uniform"
      min: -0.08
      max: 0.08
    }
    bias_filler {
      type: "constant"
      value: 0
    }
    axis: 2
  }
}
layer {
  name: "lstm1_W_xc_x_slice"
  type: "Slice"
  bottom: "W_xc_x"
  top: "W_xc_x_1"
  slice_param {
    axis: 0
  }
}
layer {
  name: "lstm1_h_conted_0"
  type: "Scale"
  bottom: "h_0"
  bottom: "cont_1"
  top: "h_conted_0"
  scale_param {
    axis: 0
  }
}
layer {
  name: "lstm1_transform_1"
  type: "InnerProduct"
  bottom: "h_conted_0"
  top: "W_hc_h_0"
  param {
    name: "W_hc"
  }
  inner_product_param {
    num_output: 4000
    bias_term: false
    weight_filler {
      type: "uniform"
      min: -0.08
      max: 0.08
    }
    axis: 2
  }
}
layer {
  name: "lstm1_gate_input_1"
  type: "Eltwise"
  bottom: "W_hc_h_0"
  bottom: "W_xc_x_1"
  top: "gate_input_1"
  eltwise_param {
    operation: SUM
  }
}
layer {
  name: "lstm1_unit_1"
  type: "LSTMUnit"
  bottom: "c_0"
  bottom: "gate_input_1"
  bottom: "cont_1"
  top: "c_1"
  top: "h_1"
}
layer {
  name: "lstm1_"
  type: "Split"
  bottom: "c_1"
  top: "c_T"
}
layer {
  name: "lstm1_h_concat"
  type: "Concat"
  bottom: "h_1"
  top: "h"
  concat_param {
    axis: 0
  }
}
layer {
  name: "h_pseudoloss"
  type: "Reduction"
  bottom: "h"
  top: "h_pseudoloss"
  loss_weight: 1
}
I0922 22:41:15.009408  2061 layer_factory.hpp:77] Creating layer lstm1_
I0922 22:41:15.009423  2061 net.cpp:91] Creating Layer lstm1_
I0922 22:41:15.009431  2061 net.cpp:399] lstm1_ -> x
I0922 22:41:15.009444  2061 net.cpp:399] lstm1_ -> cont
I0922 22:41:15.012343  2061 net.cpp:141] Setting up lstm1_
I0922 22:41:15.012363  2061 net.cpp:148] Top shape: 1 1 500 (500)
I0922 22:41:15.012372  2061 net.cpp:148] Top shape: 1 1 (1)
I0922 22:41:15.012377  2061 net.cpp:156] Memory required for data: 2004
I0922 22:41:15.012382  2061 layer_factory.hpp:77] Creating layer lstm1_
I0922 22:41:15.012400  2061 net.cpp:91] Creating Layer lstm1_
I0922 22:41:15.012408  2061 net.cpp:399] lstm1_ -> c_0
I0922 22:41:15.012424  2061 net.cpp:399] lstm1_ -> h_0
I0922 22:41:15.013259  2061 net.cpp:141] Setting up lstm1_
I0922 22:41:15.013288  2061 net.cpp:148] Top shape: 1 1 1000 (1000)
I0922 22:41:15.013300  2061 net.cpp:148] Top shape: 1 1 1000 (1000)
I0922 22:41:15.013308  2061 net.cpp:156] Memory required for data: 10004
I0922 22:41:15.013317  2061 layer_factory.hpp:77] Creating layer lstm1_cont_slice
I0922 22:41:15.013347  2061 net.cpp:91] Creating Layer lstm1_cont_slice
I0922 22:41:15.013360  2061 net.cpp:425] lstm1_cont_slice <- cont
I0922 22:41:15.013377  2061 net.cpp:399] lstm1_cont_slice -> cont_1
I0922 22:41:15.020431  2061 net.cpp:141] Setting up lstm1_cont_slice
I0922 22:41:15.020488  2061 net.cpp:148] Top shape: 1 1 (1)
I0922 22:41:15.020500  2061 net.cpp:156] Memory required for data: 10008
I0922 22:41:15.020517  2061 layer_factory.hpp:77] Creating layer cont_1_lstm1_cont_slice_0_split
I0922 22:41:15.020545  2061 net.cpp:91] Creating Layer cont_1_lstm1_cont_slice_0_split
I0922 22:41:15.020557  2061 net.cpp:425] cont_1_lstm1_cont_slice_0_split <- cont_1
I0922 22:41:15.020581  2061 net.cpp:399] cont_1_lstm1_cont_slice_0_split -> cont_1_lstm1_cont_slice_0_split_0
I0922 22:41:15.020606  2061 net.cpp:399] cont_1_lstm1_cont_slice_0_split -> cont_1_lstm1_cont_slice_0_split_1
I0922 22:41:15.029595  2061 net.cpp:141] Setting up cont_1_lstm1_cont_slice_0_split
I0922 22:41:15.029630  2061 net.cpp:148] Top shape: 1 1 (1)
I0922 22:41:15.029642  2061 net.cpp:148] Top shape: 1 1 (1)
I0922 22:41:15.029650  2061 net.cpp:156] Memory required for data: 10016
I0922 22:41:15.029659  2061 layer_factory.hpp:77] Creating layer lstm1_x_transform
I0922 22:41:15.029664  2040 net.cpp:141] Setting up embedding
I0922 22:41:15.029687  2061 net.cpp:91] Creating Layer lstm1_x_transform
I0922 22:41:15.029698  2061 net.cpp:425] lstm1_x_transform <- x
I0922 22:41:15.029703  2040 net.cpp:148] Top shape: 1 1 500 (500)
I0922 22:41:15.029711  2040 net.cpp:156] Memory required for data: 22408
I0922 22:41:15.029716  2061 net.cpp:399] lstm1_x_transform -> W_xc_x
I0922 22:41:15.029726  2040 layer_factory.hpp:77] Creating layer lstm1
I0922 22:41:15.029744  2040 net.cpp:91] Creating Layer lstm1
I0922 22:41:15.029753  2040 net.cpp:425] lstm1 <- embedded_input_frames
I0922 22:41:15.029762  2040 net.cpp:425] lstm1 <- cont_sentence_input_1_split_0
I0922 22:41:15.029774  2040 net.cpp:399] lstm1 -> lstm1
I0922 22:41:15.029791  2040 recurrent_layer.cpp:20] Initializing recurrent layer: assuming input batch contains 1 timesteps of 1 independent streams.
I0922 22:41:15.030161  2040 net.cpp:49] Initializing net from parameters: 
layer {
  name: "lstm1_"
  type: "Input"
  top: "x"
  top: "cont"
  input_param {
    shape {
      dim: 1
      dim: 1
      dim: 500
    }
    shape {
      dim: 1
      dim: 1
    }
  }
}
layer {
  name: "lstm1_"
  type: "Input"
  top: "c_0"
  top: "h_0"
  input_param {
    shape {
      dim: 1
      dim: 1
      dim: 1000
    }
    shape {
      dim: 1
      dim: 1
      dim: 1000
    }
  }
}
layer {
  name: "lstm1_cont_slice"
  type: "Slice"
  bottom: "cont"
  top: "cont_1"
  slice_param {
    axis: 0
  }
}
layer {
  name: "lstm1_x_transform"
  type: "InnerProduct"
  bottom: "x"
  top: "W_xc_x"
  param {
    name: "W_xc"
  }
  param {
    name: "b_c"
  }
  propagate_down: true
  inner_product_param {
    num_output: 4000
    bias_term: true
    weight_filler {
      type: "uniform"
      min: -0.08
      max: 0.08
    }
    bias_filler {
      type: "constant"
      value: 0
    }
    axis: 2
  }
}
layer {
  name: "lstm1_W_xc_x_slice"
  type: "Slice"
  bottom: "W_xc_x"
  top: "W_xc_x_1"
  slice_param {
    axis: 0
  }
}
layer {
  name: "lstm1_h_conted_0"
  type: "Scale"
  bottom: "h_0"
  bottom: "cont_1"
  top: "h_conted_0"
  scale_param {
    axis: 0
  }
}
layer {
  name: "lstm1_transform_1"
  type: "InnerProduct"
  bottom: "h_conted_0"
  top: "W_hc_h_0"
  param {
    name: "W_hc"
  }
  inner_product_param {
    num_output: 4000
    bias_term: false
    weight_filler {
      type: "uniform"
      min: -0.08
      max: 0.08
    }
    axis: 2
  }
}
layer {
  name: "lstm1_gate_input_1"
  type: "Eltwise"
  bottom: "W_hc_h_0"
  bottom: "W_xc_x_1"
  top: "gate_input_1"
  eltwise_param {
    operation: SUM
  }
}
layer {
  name: "lstm1_unit_1"
  type: "LSTMUnit"
  bottom: "c_0"
  bottom: "gate_input_1"
  bottom: "cont_1"
  top: "c_1"
  top: "h_1"
}
layer {
  name: "lstm1_"
  type: "Split"
  bottom: "c_1"
  top: "c_T"
}
layer {
  name: "lstm1_h_concat"
  type: "Concat"
  bottom: "h_1"
  top: "h"
  concat_param {
    axis: 0
  }
}
layer {
  name: "h_pseudoloss"
  type: "Reduction"
  bottom: "h"
  top: "h_pseudoloss"
  loss_weight: 1
}
I0922 22:41:15.030297  2040 layer_factory.hpp:77] Creating layer lstm1_
I0922 22:41:15.030318  2040 net.cpp:91] Creating Layer lstm1_
I0922 22:41:15.030329  2040 net.cpp:399] lstm1_ -> x
I0922 22:41:15.030347  2040 net.cpp:399] lstm1_ -> cont
I0922 22:41:15.030537  2040 net.cpp:141] Setting up lstm1_
I0922 22:41:15.030550  2040 net.cpp:148] Top shape: 1 1 500 (500)
I0922 22:41:15.030556  2040 net.cpp:148] Top shape: 1 1 (1)
I0922 22:41:15.030560  2040 net.cpp:156] Memory required for data: 2004
I0922 22:41:15.030566  2040 layer_factory.hpp:77] Creating layer lstm1_
I0922 22:41:15.030575  2040 net.cpp:91] Creating Layer lstm1_
I0922 22:41:15.030587  2040 net.cpp:399] lstm1_ -> c_0
I0922 22:41:15.030598  2040 net.cpp:399] lstm1_ -> h_0
I0922 22:41:15.037678  2040 net.cpp:141] Setting up lstm1_
I0922 22:41:15.037696  2040 net.cpp:148] Top shape: 1 1 1000 (1000)
I0922 22:41:15.037703  2040 net.cpp:148] Top shape: 1 1 1000 (1000)
I0922 22:41:15.037708  2040 net.cpp:156] Memory required for data: 10004
I0922 22:41:15.037713  2040 layer_factory.hpp:77] Creating layer lstm1_cont_slice
I0922 22:41:15.037745  2040 net.cpp:91] Creating Layer lstm1_cont_slice
I0922 22:41:15.037752  2040 net.cpp:425] lstm1_cont_slice <- cont
I0922 22:41:15.037760  2040 net.cpp:399] lstm1_cont_slice -> cont_1
I0922 22:41:15.041267  2040 net.cpp:141] Setting up lstm1_cont_slice
I0922 22:41:15.041285  2040 net.cpp:148] Top shape: 1 1 (1)
I0922 22:41:15.041290  2040 net.cpp:156] Memory required for data: 10008
I0922 22:41:15.041296  2040 layer_factory.hpp:77] Creating layer cont_1_lstm1_cont_slice_0_split
I0922 22:41:15.041306  2040 net.cpp:91] Creating Layer cont_1_lstm1_cont_slice_0_split
I0922 22:41:15.041311  2040 net.cpp:425] cont_1_lstm1_cont_slice_0_split <- cont_1
I0922 22:41:15.041324  2040 net.cpp:399] cont_1_lstm1_cont_slice_0_split -> cont_1_lstm1_cont_slice_0_split_0
I0922 22:41:15.041334  2040 net.cpp:399] cont_1_lstm1_cont_slice_0_split -> cont_1_lstm1_cont_slice_0_split_1
I0922 22:41:15.041409  2040 net.cpp:141] Setting up cont_1_lstm1_cont_slice_0_split
I0922 22:41:15.041419  2040 net.cpp:148] Top shape: 1 1 (1)
I0922 22:41:15.041424  2040 net.cpp:148] Top shape: 1 1 (1)
I0922 22:41:15.041429  2040 net.cpp:156] Memory required for data: 10016
I0922 22:41:15.041434  2040 layer_factory.hpp:77] Creating layer lstm1_x_transform
I0922 22:41:15.041450  2040 net.cpp:91] Creating Layer lstm1_x_transform
I0922 22:41:15.041455  2040 net.cpp:425] lstm1_x_transform <- x
I0922 22:41:15.041462  2040 net.cpp:399] lstm1_x_transform -> W_xc_x
I0922 22:41:15.058055  2061 net.cpp:141] Setting up lstm1_x_transform
I0922 22:41:15.058104  2061 net.cpp:148] Top shape: 1 1 4000 (4000)
I0922 22:41:15.058110  2061 net.cpp:156] Memory required for data: 26016
I0922 22:41:15.058135  2061 layer_factory.hpp:77] Creating layer lstm1_W_xc_x_slice
I0922 22:41:15.058156  2061 net.cpp:91] Creating Layer lstm1_W_xc_x_slice
I0922 22:41:15.058163  2061 net.cpp:425] lstm1_W_xc_x_slice <- W_xc_x
I0922 22:41:15.058177  2061 net.cpp:399] lstm1_W_xc_x_slice -> W_xc_x_1
I0922 22:41:15.058231  2061 net.cpp:141] Setting up lstm1_W_xc_x_slice
I0922 22:41:15.058243  2061 net.cpp:148] Top shape: 1 1 4000 (4000)
I0922 22:41:15.058248  2061 net.cpp:156] Memory required for data: 42016
I0922 22:41:15.058254  2061 layer_factory.hpp:77] Creating layer lstm1_h_conted_0
I0922 22:41:15.058275  2061 net.cpp:91] Creating Layer lstm1_h_conted_0
I0922 22:41:15.058282  2061 net.cpp:425] lstm1_h_conted_0 <- h_0
I0922 22:41:15.058289  2061 net.cpp:425] lstm1_h_conted_0 <- cont_1_lstm1_cont_slice_0_split_0
I0922 22:41:15.058300  2061 net.cpp:399] lstm1_h_conted_0 -> h_conted_0
I0922 22:41:15.058440  2061 net.cpp:141] Setting up lstm1_h_conted_0
I0922 22:41:15.058452  2061 net.cpp:148] Top shape: 1 1 1000 (1000)
I0922 22:41:15.058457  2061 net.cpp:156] Memory required for data: 46016
I0922 22:41:15.058464  2061 layer_factory.hpp:77] Creating layer lstm1_transform_1
I0922 22:41:15.058480  2061 net.cpp:91] Creating Layer lstm1_transform_1
I0922 22:41:15.058486  2061 net.cpp:425] lstm1_transform_1 <- h_conted_0
I0922 22:41:15.058495  2061 net.cpp:399] lstm1_transform_1 -> W_hc_h_0
I0922 22:41:15.066867  2040 net.cpp:141] Setting up lstm1_x_transform
I0922 22:41:15.066923  2040 net.cpp:148] Top shape: 1 1 4000 (4000)
I0922 22:41:15.066934  2040 net.cpp:156] Memory required for data: 26016
I0922 22:41:15.066961  2040 layer_factory.hpp:77] Creating layer lstm1_W_xc_x_slice
I0922 22:41:15.066987  2040 net.cpp:91] Creating Layer lstm1_W_xc_x_slice
I0922 22:41:15.066999  2040 net.cpp:425] lstm1_W_xc_x_slice <- W_xc_x
I0922 22:41:15.067014  2040 net.cpp:399] lstm1_W_xc_x_slice -> W_xc_x_1
I0922 22:41:15.067095  2040 net.cpp:141] Setting up lstm1_W_xc_x_slice
I0922 22:41:15.067111  2040 net.cpp:148] Top shape: 1 1 4000 (4000)
I0922 22:41:15.067119  2040 net.cpp:156] Memory required for data: 42016
I0922 22:41:15.067127  2040 layer_factory.hpp:77] Creating layer lstm1_h_conted_0
I0922 22:41:15.067148  2040 net.cpp:91] Creating Layer lstm1_h_conted_0
I0922 22:41:15.067158  2040 net.cpp:425] lstm1_h_conted_0 <- h_0
I0922 22:41:15.067168  2040 net.cpp:425] lstm1_h_conted_0 <- cont_1_lstm1_cont_slice_0_split_0
I0922 22:41:15.067180  2040 net.cpp:399] lstm1_h_conted_0 -> h_conted_0
I0922 22:41:15.067335  2040 net.cpp:141] Setting up lstm1_h_conted_0
I0922 22:41:15.067353  2040 net.cpp:148] Top shape: 1 1 1000 (1000)
I0922 22:41:15.067361  2040 net.cpp:156] Memory required for data: 46016
I0922 22:41:15.067369  2040 layer_factory.hpp:77] Creating layer lstm1_transform_1
I0922 22:41:15.067394  2040 net.cpp:91] Creating Layer lstm1_transform_1
I0922 22:41:15.067404  2040 net.cpp:425] lstm1_transform_1 <- h_conted_0
I0922 22:41:15.067417  2040 net.cpp:399] lstm1_transform_1 -> W_hc_h_0
I0922 22:41:15.096915  2038 net.cpp:141] Setting up conv1
I0922 22:41:15.096976  2038 net.cpp:148] Top shape: 10 96 55 55 (2904000)
I0922 22:41:15.096987  2038 net.cpp:156] Memory required for data: 17799480
I0922 22:41:15.097017  2038 layer_factory.hpp:77] Creating layer relu1
I0922 22:41:15.097039  2038 net.cpp:91] Creating Layer relu1
I0922 22:41:15.097051  2038 net.cpp:425] relu1 <- conv1
I0922 22:41:15.097064  2038 net.cpp:386] relu1 -> conv1 (in-place)
I0922 22:41:15.097594  2038 net.cpp:141] Setting up relu1
I0922 22:41:15.097614  2038 net.cpp:148] Top shape: 10 96 55 55 (2904000)
I0922 22:41:15.097622  2038 net.cpp:156] Memory required for data: 29415480
I0922 22:41:15.097631  2038 layer_factory.hpp:77] Creating layer pool1
I0922 22:41:15.097651  2038 net.cpp:91] Creating Layer pool1
I0922 22:41:15.097661  2038 net.cpp:425] pool1 <- conv1
I0922 22:41:15.097673  2038 net.cpp:399] pool1 -> pool1
I0922 22:41:15.097782  2038 net.cpp:141] Setting up pool1
I0922 22:41:15.097798  2038 net.cpp:148] Top shape: 10 96 27 27 (699840)
I0922 22:41:15.097806  2038 net.cpp:156] Memory required for data: 32214840
I0922 22:41:15.097815  2038 layer_factory.hpp:77] Creating layer norm1
I0922 22:41:15.097838  2038 net.cpp:91] Creating Layer norm1
I0922 22:41:15.097848  2038 net.cpp:425] norm1 <- pool1
I0922 22:41:15.097861  2038 net.cpp:399] norm1 -> norm1
I0922 22:41:15.098253  2038 net.cpp:141] Setting up norm1
I0922 22:41:15.098273  2038 net.cpp:148] Top shape: 10 96 27 27 (699840)
I0922 22:41:15.098280  2038 net.cpp:156] Memory required for data: 35014200
I0922 22:41:15.098290  2038 layer_factory.hpp:77] Creating layer conv2
I0922 22:41:15.098310  2038 net.cpp:91] Creating Layer conv2
I0922 22:41:15.098320  2038 net.cpp:425] conv2 <- norm1
I0922 22:41:15.098331  2038 net.cpp:399] conv2 -> conv2
I0922 22:41:15.101402  2061 net.cpp:141] Setting up lstm1_transform_1
I0922 22:41:15.101451  2061 net.cpp:148] Top shape: 1 1 4000 (4000)
I0922 22:41:15.101459  2061 net.cpp:156] Memory required for data: 62016
I0922 22:41:15.101481  2061 layer_factory.hpp:77] Creating layer lstm1_gate_input_1
I0922 22:41:15.101508  2061 net.cpp:91] Creating Layer lstm1_gate_input_1
I0922 22:41:15.101516  2061 net.cpp:425] lstm1_gate_input_1 <- W_hc_h_0
I0922 22:41:15.101526  2061 net.cpp:425] lstm1_gate_input_1 <- W_xc_x_1
I0922 22:41:15.101534  2061 net.cpp:399] lstm1_gate_input_1 -> gate_input_1
I0922 22:41:15.101951  2061 net.cpp:141] Setting up lstm1_gate_input_1
I0922 22:41:15.101964  2061 net.cpp:148] Top shape: 1 1 4000 (4000)
I0922 22:41:15.101969  2061 net.cpp:156] Memory required for data: 78016
I0922 22:41:15.101975  2061 layer_factory.hpp:77] Creating layer lstm1_unit_1
I0922 22:41:15.101984  2061 net.cpp:91] Creating Layer lstm1_unit_1
I0922 22:41:15.101990  2061 net.cpp:425] lstm1_unit_1 <- c_0
I0922 22:41:15.101997  2061 net.cpp:425] lstm1_unit_1 <- gate_input_1
I0922 22:41:15.102004  2061 net.cpp:425] lstm1_unit_1 <- cont_1_lstm1_cont_slice_0_split_1
I0922 22:41:15.102015  2061 net.cpp:399] lstm1_unit_1 -> c_1
I0922 22:41:15.102025  2061 net.cpp:399] lstm1_unit_1 -> h_1
I0922 22:41:15.102113  2061 net.cpp:141] Setting up lstm1_unit_1
I0922 22:41:15.102123  2061 net.cpp:148] Top shape: 1 1 1000 (1000)
I0922 22:41:15.102130  2061 net.cpp:148] Top shape: 1 1 1000 (1000)
I0922 22:41:15.102135  2061 net.cpp:156] Memory required for data: 86016
I0922 22:41:15.102140  2061 layer_factory.hpp:77] Creating layer lstm1_
I0922 22:41:15.102149  2061 net.cpp:91] Creating Layer lstm1_
I0922 22:41:15.102154  2061 net.cpp:425] lstm1_ <- c_1
I0922 22:41:15.102162  2061 net.cpp:399] lstm1_ -> c_T
I0922 22:41:15.102233  2061 net.cpp:141] Setting up lstm1_
I0922 22:41:15.102246  2061 net.cpp:148] Top shape: 1 1 1000 (1000)
I0922 22:41:15.102250  2061 net.cpp:156] Memory required for data: 90016
I0922 22:41:15.102255  2061 layer_factory.hpp:77] Creating layer lstm1_h_concat
I0922 22:41:15.102267  2061 net.cpp:91] Creating Layer lstm1_h_concat
I0922 22:41:15.102272  2061 net.cpp:425] lstm1_h_concat <- h_1
I0922 22:41:15.102279  2061 net.cpp:399] lstm1_h_concat -> h
I0922 22:41:15.102497  2061 net.cpp:141] Setting up lstm1_h_concat
I0922 22:41:15.102509  2061 net.cpp:148] Top shape: 1 1 1000 (1000)
I0922 22:41:15.102514  2061 net.cpp:156] Memory required for data: 94016
I0922 22:41:15.102519  2061 layer_factory.hpp:77] Creating layer h_pseudoloss
I0922 22:41:15.102545  2061 net.cpp:91] Creating Layer h_pseudoloss
I0922 22:41:15.102551  2061 net.cpp:425] h_pseudoloss <- h
I0922 22:41:15.102560  2061 net.cpp:399] h_pseudoloss -> h_pseudoloss
I0922 22:41:15.102692  2061 net.cpp:141] Setting up h_pseudoloss
…
I0922 22:41:15.102826  2061 net.cpp:219] lstm1_ does not need backward computation.
I0922 22:41:15.102830  2061 net.cpp:261] This network produces output c_T
I0922 22:41:15.102835  2061 net.cpp:261] This network produces output h_pseudoloss
I0922 22:41:15.102859  2061 net.cpp:274] Network initialization done.
I0922 22:41:15.102926  2061 recurrent_layer.cpp:150] Adding parameter 0: W_xc
I0922 22:41:15.102936  2061 recurrent_layer.cpp:150] Adding parameter 1: b_c
I0922 22:41:15.102941  2061 recurrent_layer.cpp:150] Adding parameter 2: W_hc
I0922 22:41:15.103404  2061 net.cpp:141] Setting up lstm1
I0922 22:41:15.103418  2061 net.cpp:148] Top shape: 1 1 1000 (1000)
I0922 22:41:15.103423  2061 net.cpp:156] Memory required for data: 26408
I0922 22:41:15.103438  2061 layer_factory.hpp:77] Creating layer concat
I0922 22:41:15.103448  2061 net.cpp:91] Creating Layer concat
I0922 22:41:15.103456  2061 net.cpp:425] concat <- lstm1
I0922 22:41:15.103462  2061 net.cpp:425] concat <- embedded_input_sentence
I0922 22:41:15.103469  2061 net.cpp:425] concat <- reshaped_stage_indicator
I0922 22:41:15.103477  2061 net.cpp:399] concat -> lstm1_video_sequence
I0922 22:41:15.103534  2061 net.cpp:141] Setting up concat
I0922 22:41:15.103545  2061 net.cpp:148] Top shape: 1 1 1501 (1501)
I0922 22:41:15.103550  2061 net.cpp:156] Memory required for data: 32412
I0922 22:41:15.103555  2061 layer_factory.hpp:77] Creating layer lstm2
I0922 22:41:15.103569  2061 net.cpp:91] Creating Layer lstm2
I0922 22:41:15.103575  2061 net.cpp:425] lstm2 <- lstm1_video_sequence
I0922 22:41:15.103582  2061 net.cpp:425] lstm2 <- cont_sentence_input_1_split_1
I0922 22:41:15.103590  2061 net.cpp:399] lstm2 -> lstm2
I0922 22:41:15.103603  2061 recurrent_layer.cpp:20] Initializing recurrent layer: assuming input batch contains 1 timesteps of 1 independent streams.
I0922 22:41:15.103888  2061 net.cpp:49] Initializing net from parameters: 
layer {
  name: "lstm2_"
  type: "Input"
  top: "x"
  top: "cont"
  input_param {
    shape {
      dim: 1
      dim: 1
      dim: 1501
    }
    shape {
      dim: 1
      dim: 1
    }
  }
}
layer {
  name: "lstm2_"
  type: "Input"
  top: "c_0"
  top: "h_0"
  input_param {
    shape {
      dim: 1
      dim: 1
      dim: 1000
    }
    shape {
      dim: 1
      dim: 1
      dim: 1000
    }
  }
}
layer {
  name: "lstm2_cont_slice"
  type: "Slice"
  bottom: "cont"
  top: "cont_1"
  slice_param {
    axis: 0
  }
}
layer {
  name: "lstm2_x_transform"
  type: "InnerProduct"
  bottom: "x"
  top: "W_xc_x"
  param {
    name: "W_xc"
  }
  param {
    name: "b_c"
  }
  propagate_down: true
  inner_product_param {
    num_output: 4000
    bias_term: true
    weight_filler {
      type: "uniform"
      min: -0.08
      max: 0.08
    }
    bias_filler {
      type: "constant"
      value: 0
    }
    axis: 2
  }
}
layer {
  name: "lstm2_W_xc_x_slice"
  type: "Slice"
  bottom: "W_xc_x"
  top: "W_xc_x_1"
  slice_param {
    axis: 0
  }
}
layer {
  name: "lstm2_h_conted_0"
  type: "Scale"
  bottom: "h_0"
  bottom: "cont_1"
  top: "h_conted_0"
  scale_param {
    axis: 0
  }
}
layer {
  name: "lstm2_transform_1"
  type: "InnerProduct"
  bottom: "h_conted_0"
  top: "W_hc_h_0"
  param {
    name: "W_hc"
  }
  inner_product_param {
    num_output: 4000
    bias_term: false
    weight_filler {
      type: "uniform"
      min: -0.08
      max: 0.08
    }
    axis: 2
  }
}
layer {
  name: "lstm2_gate_input_1"
  type: "Eltwise"
  bottom: "W_hc_h_0"
  bottom: "W_xc_x_1"
  top: "gate_input_1"
  eltwise_param {
    operation: SUM
  }
}
layer {
  name: "lstm2_unit_1"
  type: "LSTMUnit"
  bottom: "c_0"
  bottom: "gate_input_1"
  bottom: "cont_1"
  top: "c_1"
  top: "h_1"
}
layer {
  name: "lstm2_"
  type: "Split"
  bottom: "c_1"
  top: "c_T"
}
layer {
  name: "lstm2_h_concat"
  type: "Concat"
  bottom: "h_1"
  top: "h"
  concat_param {
    axis: 0
  }
}
layer {
  name: "h_pseudoloss"
  type: "Reduction"
  bottom: "h"
  top: "h_pseudoloss"
  loss_weight: 1
}
I0922 22:41:15.103879  2038 net.cpp:141] Setting up conv2
I0922 22:41:15.103934  2038 net.cpp:148] Top shape: 10 256 27 27 (1866240)
I0922 22:41:15.103943  2038 net.cpp:156] Memory required for data: 42479160
I0922 22:41:15.103976  2038 layer_factory.hpp:77] Creating layer relu2
I0922 22:41:15.103993  2061 layer_factory.hpp:77] Creating layer lstm2_
I0922 22:41:15.103996  2038 net.cpp:91] Creating Layer relu2
I0922 22:41:15.104008  2061 net.cpp:91] Creating Layer lstm2_
I0922 22:41:15.104008  2038 net.cpp:425] relu2 <- conv2
I0922 22:41:15.104022  2061 net.cpp:399] lstm2_ -> x
I0922 22:41:15.104039  2038 net.cpp:386] relu2 -> conv2 (in-place)
I0922 22:41:15.104048  2061 net.cpp:399] lstm2_ -> cont
I0922 22:41:15.104559  2061 net.cpp:141] Setting up lstm2_
I0922 22:41:15.104573  2061 net.cpp:148] Top shape: 1 1 1501 (1501)
I0922 22:41:15.104579  2061 net.cpp:148] Top shape: 1 1 (1)
I0922 22:41:15.104583  2061 net.cpp:156] Memory required for data: 6008
I0922 22:41:15.104589  2061 layer_factory.hpp:77] Creating layer lstm2_
I0922 22:41:15.104599  2061 net.cpp:91] Creating Layer lstm2_
I0922 22:41:15.104610  2061 net.cpp:399] lstm2_ -> c_0
I0922 22:41:15.104622  2061 net.cpp:399] lstm2_ -> h_0
I0922 22:41:15.104713  2061 net.cpp:141] Setting up lstm2_
I0922 22:41:15.104725  2061 net.cpp:148] Top shape: 1 1 1000 (1000)
I0922 22:41:15.104732  2061 net.cpp:148] Top shape: 1 1 1000 (1000)
I0922 22:41:15.104737  2061 net.cpp:156] Memory required for data: 14008
I0922 22:41:15.104742  2061 layer_factory.hpp:77] Creating layer lstm2_cont_slice
I0922 22:41:15.104756  2061 net.cpp:91] Creating Layer lstm2_cont_slice
I0922 22:41:15.104763  2061 net.cpp:425] lstm2_cont_slice <- cont
I0922 22:41:15.104770  2061 net.cpp:399] lstm2_cont_slice -> cont_1
I0922 22:41:15.104784  2038 net.cpp:141] Setting up relu2
I0922 22:41:15.104804  2038 net.cpp:148] Top shape: 10 256 27 27 (1866240)
I0922 22:41:15.104812  2061 net.cpp:141] Setting up lstm2_cont_slice
I0922 22:41:15.104813  2038 net.cpp:156] Memory required for data: 49944120
I0922 22:41:15.104827  2061 net.cpp:148] Top shape: 1 1 (1)
I0922 22:41:15.104838  2038 layer_factory.hpp:77] Creating layer pool2
I0922 22:41:15.104842  2061 net.cpp:156] Memory required for data: 14012
I0922 22:41:15.104854  2061 layer_factory.hpp:77] Creating layer cont_1_lstm2_cont_slice_0_split
I0922 22:41:15.104857  2038 net.cpp:91] Creating Layer pool2
I0922 22:41:15.104863  2061 net.cpp:91] Creating Layer cont_1_lstm2_cont_slice_0_split
I0922 22:41:15.104866  2038 net.cpp:425] pool2 <- conv2
I0922 22:41:15.104869  2061 net.cpp:425] cont_1_lstm2_cont_slice_0_split <- cont_1
I0922 22:41:15.104881  2038 net.cpp:399] pool2 -> pool2
I0922 22:41:15.104882  2061 net.cpp:399] cont_1_lstm2_cont_slice_0_split -> cont_1_lstm2_cont_slice_0_split_0
I0922 22:41:15.104900  2061 net.cpp:399] cont_1_lstm2_cont_slice_0_split -> cont_1_lstm2_cont_slice_0_split_1
I0922 22:41:15.105036  2061 net.cpp:141] Setting up cont_1_lstm2_cont_slice_0_split
I0922 22:41:15.105047  2061 net.cpp:148] Top shape: 1 1 (1)
I0922 22:41:15.105053  2061 net.cpp:148] Top shape: 1 1 (1)
I0922 22:41:15.105058  2061 net.cpp:156] Memory required for data: 14020
I0922 22:41:15.105063  2061 layer_factory.hpp:77] Creating layer lstm2_x_transform
I0922 22:41:15.105077  2061 net.cpp:91] Creating Layer lstm2_x_transform
I0922 22:41:15.105083  2061 net.cpp:425] lstm2_x_transform <- x
I0922 22:41:15.105088  2038 net.cpp:141] Setting up pool2
I0922 22:41:15.105093  2061 net.cpp:399] lstm2_x_transform -> W_xc_x
I0922 22:41:15.105108  2038 net.cpp:148] Top shape: 10 256 13 13 (432640)
I0922 22:41:15.105118  2038 net.cpp:156] Memory required for data: 51674680
I0922 22:41:15.105125  2038 layer_factory.hpp:77] Creating layer norm2
I0922 22:41:15.105146  2038 net.cpp:91] Creating Layer norm2
I0922 22:41:15.105154  2038 net.cpp:425] norm2 <- pool2
I0922 22:41:15.105166  2038 net.cpp:399] norm2 -> norm2
I0922 22:41:15.117193  2044 net.cpp:141] Setting up embedding
I0922 22:41:15.117239  2044 net.cpp:148] Top shape: 1 1 500 (500)
I0922 22:41:15.117246  2044 net.cpp:156] Memory required for data: 22408
I0922 22:41:15.117254  2040 net.cpp:141] Setting up lstm1_transform_1
I0922 22:41:15.117265  2044 layer_factory.hpp:77] Creating layer lstm1
I0922 22:41:15.117286  2040 net.cpp:148] Top shape: 1 1 4000 (4000)
I0922 22:41:15.117292  2040 net.cpp:156] Memory required for data: 62016
I0922 22:41:15.117305  2044 net.cpp:91] Creating Layer lstm1
I0922 22:41:15.117307  2040 layer_factory.hpp:77] Creating layer lstm1_gate_input_1
I0922 22:41:15.117319  2044 net.cpp:425] lstm1 <- embedded_input_frames
I0922 22:41:15.117331  2044 net.cpp:425] lstm1 <- cont_sentence_input_1_split_0
I0922 22:41:15.117336  2040 net.cpp:91] Creating Layer lstm1_gate_input_1
I0922 22:41:15.117342  2044 net.cpp:399] lstm1 -> lstm1
I0922 22:41:15.117344  2040 net.cpp:425] lstm1_gate_input_1 <- W_hc_h_0
I0922 22:41:15.117353  2040 net.cpp:425] lstm1_gate_input_1 <- W_xc_x_1
I0922 22:41:15.117362  2040 net.cpp:399] lstm1_gate_input_1 -> gate_input_1
I0922 22:41:15.117363  2044 recurrent_layer.cpp:20] Initializing recurrent layer: assuming input batch contains 1 timesteps of 1 independent streams.
I0922 22:41:15.117425  2040 net.cpp:141] Setting up lstm1_gate_input_1
I0922 22:41:15.117437  2040 net.cpp:148] Top shape: 1 1 4000 (4000)
I0922 22:41:15.117442  2040 net.cpp:156] Memory required for data: 78016
I0922 22:41:15.117446  2040 layer_factory.hpp:77] Creating layer lstm1_unit_1
I0922 22:41:15.117455  2040 net.cpp:91] Creating Layer lstm1_unit_1
I0922 22:41:15.117460  2040 net.cpp:425] lstm1_unit_1 <- c_0
I0922 22:41:15.117467  2040 net.cpp:425] lstm1_unit_1 <- gate_input_1
I0922 22:41:15.117472  2040 net.cpp:425] lstm1_unit_1 <- cont_1_lstm1_cont_slice_0_split_1
I0922 22:41:15.117480  2040 net.cpp:399] lstm1_unit_1 -> c_1
I0922 22:41:15.117488  2040 net.cpp:399] lstm1_unit_1 -> h_1
I0922 22:41:15.117503  2038 net.cpp:141] Setting up norm2
I0922 22:41:15.117523  2038 net.cpp:148] Top shape: 10 256 13 13 (432640)
I0922 22:41:15.117532  2038 net.cpp:156] Memory required for data: 53405240
I0922 22:41:15.117540  2038 layer_factory.hpp:77] Creating layer conv3
I0922 22:41:15.117563  2040 net.cpp:141] Setting up lstm1_unit_1
I0922 22:41:15.117570  2038 net.cpp:91] Creating Layer conv3
I0922 22:41:15.117573  2040 net.cpp:148] Top shape: 1 1 1000 (1000)
I0922 22:41:15.117584  2038 net.cpp:425] conv3 <- norm2
I0922 22:41:15.117586  2040 net.cpp:148] Top shape: 1 1 1000 (1000)
I0922 22:41:15.117596  2040 net.cpp:156] Memory required for data: 86016
I0922 22:41:15.117601  2040 layer_factory.hpp:77] Creating layer lstm1_
I0922 22:41:15.117600  2038 net.cpp:399] conv3 -> conv3
I0922 22:41:15.117617  2040 net.cpp:91] Creating Layer lstm1_
I0922 22:41:15.117622  2040 net.cpp:425] lstm1_ <- c_1
I0922 22:41:15.117630  2040 net.cpp:399] lstm1_ -> c_T
I0922 22:41:15.117687  2044 net.cpp:49] Initializing net from parameters: 
layer {
  name: "lstm1_"
  type: "Input"
  top: "x"
  top: "cont"
  input_param {
    shape {
      dim: 1
      dim: 1
      dim: 500
    }
    shape {
      dim: 1
      dim: 1
    }
  }
}
layer {
  name: "lstm1_"
  type: "Input"
  top: "c_0"
  top: "h_0"
  input_param {
    shape {
      dim: 1
      dim: 1
      dim: 1000
    }
    shape {
      dim: 1
      dim: 1
      dim: 1000
    }
  }
}
layer {
  name: "lstm1_cont_slice"
  type: "Slice"
  bottom: "cont"
  top: "cont_1"
  slice_param {
    axis: 0
  }
}
layer {
  name: "lstm1_x_transform"
  type: "InnerProduct"
  bottom: "x"
  top: "W_xc_x"
  param {
    name: "W_xc"
  }
  param {
    name: "b_c"
  }
  propagate_down: true
  inner_product_param {
    num_output: 4000
    bias_term: true
    weight_filler {
      type: "uniform"
      min: -0.08
      max: 0.08
    }
    bias_filler {
      type: "constant"
      value: 0
    }
    axis: 2
  }
}
layer {
  name: "lstm1_W_xc_x_slice"
  type: "Slice"
  bottom: "W_xc_x"
  top: "W_xc_x_1"
  slice_param {
    axis: 0
  }
}
layer {
  name: "lstm1_h_conted_0"
  type: "Scale"
  bottom: "h_0"
  bottom: "cont_1"
  top: "h_conted_0"
  scale_param {
    axis: 0
  }
}
layer {
  name: "lstm1_transform_1"
  type: "InnerProduct"
  bottom: "h_conted_0"
  top: "W_hc_h_0"
  param {
    name: "W_hc"
  }
  inner_product_param {
    num_output: 4000
    bias_term: false
    weight_filler {
      type: "uniform"
      min: -0.08
      max: 0.08
    }
    axis: 2
  }
}
layer {
  name: "lstm1_gate_input_1"
  type: "Eltwise"
  bottom: "W_hc_h_0"
  bottom: "W_xc_x_1"
  top: "gate_input_1"
  eltwise_param {
    operation: SUM
  }
}
layer {
  name: "lstm1_unit_1"
  type: "LSTMUnit"
  bottom: "c_0"
  bottom: "gate_input_1"
  bottom: "cont_1"
  top: "c_1"
  top: "h_1"
}
layer {
  name: "lstm1_"
  type: "Split"
  bottom: "c_1"
  top: "c_T"
}
layer {
  name: "lstm1_h_concat"
  type: "Concat"
  bottom: "h_1"
  top: "h"
  concat_param {
    axis: 0
  }
}
layer {
  name: "h_pseudoloss"
  type: "Reduction"
  bottom: "h"
  top: "h_pseudoloss"
  loss_weight: 1
}
I0922 22:41:15.117703  2040 net.cpp:141] Setting up lstm1_
I0922 22:41:15.117714  2040 net.cpp:148] Top shape: 1 1 1000 (1000)
I0922 22:41:15.117719  2040 net.cpp:156] Memory required for data: 90016
I0922 22:41:15.117723  2040 layer_factory.hpp:77] Creating layer lstm1_h_concat
I0922 22:41:15.117733  2040 net.cpp:91] Creating Layer lstm1_h_concat
I0922 22:41:15.117738  2040 net.cpp:425] lstm1_h_concat <- h_1
I0922 22:41:15.117748  2040 net.cpp:399] lstm1_h_concat -> h
I0922 22:41:15.117790  2040 net.cpp:141] Setting up lstm1_h_concat
I0922 22:41:15.117799  2040 net.cpp:148] Top shape: 1 1 1000 (1000)
I0922 22:41:15.117810  2040 net.cpp:156] Memory required for data: 94016
I0922 22:41:15.117799  2044 layer_factory.hpp:77] Creating layer lstm1_
I0922 22:41:15.117815  2040 layer_factory.hpp:77] Creating layer h_pseudoloss
I0922 22:41:15.117825  2040 net.cpp:91] Creating Layer h_pseudoloss
I0922 22:41:15.117827  2044 net.cpp:91] Creating Layer lstm1_
I0922 22:41:15.117830  2040 net.cpp:425] h_pseudoloss <- h
I0922 22:41:15.117840  2044 net.cpp:399] lstm1_ -> x
I0922 22:41:15.117846  2040 net.cpp:399] h_pseudoloss -> h_pseudoloss
I0922 22:41:15.117853  2044 net.cpp:399] lstm1_ -> cont
I0922 22:41:15.117954  2044 net.cpp:141] Setting up lstm1_
I0922 22:41:15.117965  2044 net.cpp:148] Top shape: 1 1 500 (500)
I0922 22:41:15.117972  2044 net.cpp:148] Top shape: 1 1 (1)
I0922 22:41:15.117977  2044 net.cpp:156] Memory required for data: 2004
I0922 22:41:15.117982  2044 layer_factory.hpp:77] Creating layer lstm1_
I0922 22:41:15.117992  2044 net.cpp:91] Creating Layer lstm1_
I0922 22:41:15.118003  2044 net.cpp:399] lstm1_ -> c_0
I0922 22:41:15.118015  2044 net.cpp:399] lstm1_ -> h_0
I0922 22:41:15.118252  2044 net.cpp:141] Setting up lstm1_
I0922 22:41:15.118265  2044 net.cpp:148] Top shape: 1 1 1000 (1000)
I0922 22:41:15.118273  2044 net.cpp:148] Top shape: 1 1 1000 (1000)
I0922 22:41:15.118278  2044 net.cpp:156] Memory required for data: 10004
I0922 22:41:15.118284  2044 layer_factory.hpp:77] Creating layer lstm1_cont_slice
I0922 22:41:15.118297  2044 net.cpp:91] Creating Layer lstm1_cont_slice
I0922 22:41:15.118299  2040 net.cpp:141] Setting up h_pseudoloss
I0922 22:41:15.118304  2044 net.cpp:425] lstm1_cont_slice <- cont
I0922 22:41:15.118310  2040 net.cpp:148] Top shape: (1)
…
I0922 22:41:15.118401  2040 net.cpp:219] lstm1_ does not need backward computation.
I0922 22:41:15.118404  2040 net.cpp:261] This network produces output c_T
I0922 22:41:15.118408  2040 net.cpp:261] This network produces output h_pseudoloss
I0922 22:41:15.118427  2040 net.cpp:274] Network initialization done.
I0922 22:41:15.118470  2040 recurrent_layer.cpp:150] Adding parameter 0: W_xc
I0922 22:41:15.118476  2040 recurrent_layer.cpp:150] Adding parameter 1: b_c
I0922 22:41:15.118481  2040 recurrent_layer.cpp:150] Adding parameter 2: W_hc
I0922 22:41:15.120534  2044 net.cpp:141] Setting up lstm1_cont_slice
I0922 22:41:15.120575  2044 net.cpp:148] Top shape: 1 1 (1)
I0922 22:41:15.120581  2044 net.cpp:156] Memory required for data: 10008
I0922 22:41:15.120589  2044 layer_factory.hpp:77] Creating layer cont_1_lstm1_cont_slice_0_split
I0922 22:41:15.120604  2044 net.cpp:91] Creating Layer cont_1_lstm1_cont_slice_0_split
I0922 22:41:15.120612  2044 net.cpp:425] cont_1_lstm1_cont_slice_0_split <- cont_1
I0922 22:41:15.120626  2044 net.cpp:399] cont_1_lstm1_cont_slice_0_split -> cont_1_lstm1_cont_slice_0_split_0
I0922 22:41:15.120640  2044 net.cpp:399] cont_1_lstm1_cont_slice_0_split -> cont_1_lstm1_cont_slice_0_split_1
I0922 22:41:15.120679  2040 net.cpp:141] Setting up lstm1
I0922 22:41:15.120698  2040 net.cpp:148] Top shape: 1 1 1000 (1000)
I0922 22:41:15.120704  2040 net.cpp:156] Memory required for data: 26408
I0922 22:41:15.120718  2040 layer_factory.hpp:77] Creating layer concat
I0922 22:41:15.120728  2040 net.cpp:91] Creating Layer concat
I0922 22:41:15.120733  2040 net.cpp:425] concat <- lstm1
I0922 22:41:15.120740  2040 net.cpp:425] concat <- embedded_input_sentence
I0922 22:41:15.120746  2040 net.cpp:425] concat <- reshaped_stage_indicator
I0922 22:41:15.120754  2040 net.cpp:399] concat -> lstm1_video_sequence
I0922 22:41:15.120754  2044 net.cpp:141] Setting up cont_1_lstm1_cont_slice_0_split
I0922 22:41:15.120769  2044 net.cpp:148] Top shape: 1 1 (1)
I0922 22:41:15.120774  2044 net.cpp:148] Top shape: 1 1 (1)
I0922 22:41:15.120779  2044 net.cpp:156] Memory required for data: 10016
I0922 22:41:15.120785  2044 layer_factory.hpp:77] Creating layer lstm1_x_transform
I0922 22:41:15.120805  2040 net.cpp:141] Setting up concat
I0922 22:41:15.120806  2044 net.cpp:91] Creating Layer lstm1_x_transform
I0922 22:41:15.120817  2040 net.cpp:148] Top shape: 1 1 1501 (1501)
I0922 22:41:15.120823  2044 net.cpp:425] lstm1_x_transform <- x
I0922 22:41:15.120825  2040 net.cpp:156] Memory required for data: 32412
I0922 22:41:15.120841  2044 net.cpp:399] lstm1_x_transform -> W_xc_x
I0922 22:41:15.120841  2040 layer_factory.hpp:77] Creating layer lstm2
I0922 22:41:15.120863  2040 net.cpp:91] Creating Layer lstm2
I0922 22:41:15.120869  2040 net.cpp:425] lstm2 <- lstm1_video_sequence
I0922 22:41:15.120875  2040 net.cpp:425] lstm2 <- cont_sentence_input_1_split_1
I0922 22:41:15.120883  2040 net.cpp:399] lstm2 -> lstm2
I0922 22:41:15.120893  2040 recurrent_layer.cpp:20] Initializing recurrent layer: assuming input batch contains 1 timesteps of 1 independent streams.
I0922 22:41:15.124626  2040 net.cpp:49] Initializing net from parameters: 
layer {
  name: "lstm2_"
  type: "Input"
  top: "x"
  top: "cont"
  input_param {
    shape {
      dim: 1
      dim: 1
      dim: 1501
    }
    shape {
      dim: 1
      dim: 1
    }
  }
}
layer {
  name: "lstm2_"
  type: "Input"
  top: "c_0"
  top: "h_0"
  input_param {
    shape {
      dim: 1
      dim: 1
      dim: 1000
    }
    shape {
      dim: 1
      dim: 1
      dim: 1000
    }
  }
}
layer {
  name: "lstm2_cont_slice"
  type: "Slice"
  bottom: "cont"
  top: "cont_1"
  slice_param {
    axis: 0
  }
}
layer {
  name: "lstm2_x_transform"
  type: "InnerProduct"
  bottom: "x"
  top: "W_xc_x"
  param {
    name: "W_xc"
  }
  param {
    name: "b_c"
  }
  propagate_down: true
  inner_product_param {
    num_output: 4000
    bias_term: true
    weight_filler {
      type: "uniform"
      min: -0.08
      max: 0.08
    }
    bias_filler {
      type: "constant"
      value: 0
    }
    axis: 2
  }
}
layer {
  name: "lstm2_W_xc_x_slice"
  type: "Slice"
  bottom: "W_xc_x"
  top: "W_xc_x_1"
  slice_param {
    axis: 0
  }
}
layer {
  name: "lstm2_h_conted_0"
  type: "Scale"
  bottom: "h_0"
  bottom: "cont_1"
  top: "h_conted_0"
  scale_param {
    axis: 0
  }
}
layer {
  name: "lstm2_transform_1"
  type: "InnerProduct"
  bottom: "h_conted_0"
  top: "W_hc_h_0"
  param {
    name: "W_hc"
  }
  inner_product_param {
    num_output: 4000
    bias_term: false
    weight_filler {
      type: "uniform"
      min: -0.08
      max: 0.08
    }
    axis: 2
  }
}
layer {
  name: "lstm2_gate_input_1"
  type: "Eltwise"
  bottom: "W_hc_h_0"
  bottom: "W_xc_x_1"
  top: "gate_input_1"
  eltwise_param {
    operation: SUM
  }
}
layer {
  name: "lstm2_unit_1"
  type: "LSTMUnit"
  bottom: "c_0"
  bottom: "gate_input_1"
  bottom: "cont_1"
  top: "c_1"
  top: "h_1"
}
layer {
  name: "lstm2_"
  type: "Split"
  bottom: "c_1"
  top: "c_T"
}
layer {
  name: "lstm2_h_concat"
  type: "Concat"
  bottom: "h_1"
  top: "h"
  concat_param {
    axis: 0
  }
}
layer {
  name: "h_pseudoloss"
  type: "Reduction"
  bottom: "h"
  top: "h_pseudoloss"
  loss_weight: 1
}
I0922 22:41:15.124725  2040 layer_factory.hpp:77] Creating layer lstm2_
I0922 22:41:15.124739  2040 net.cpp:91] Creating Layer lstm2_
I0922 22:41:15.124745  2040 net.cpp:399] lstm2_ -> x
I0922 22:41:15.124758  2040 net.cpp:399] lstm2_ -> cont
I0922 22:41:15.125600  2040 net.cpp:141] Setting up lstm2_
I0922 22:41:15.125617  2040 net.cpp:148] Top shape: 1 1 1501 (1501)
I0922 22:41:15.125624  2040 net.cpp:148] Top shape: 1 1 (1)
I0922 22:41:15.125629  2040 net.cpp:156] Memory required for data: 6008
I0922 22:41:15.125634  2040 layer_factory.hpp:77] Creating layer lstm2_
I0922 22:41:15.125645  2040 net.cpp:91] Creating Layer lstm2_
I0922 22:41:15.125654  2040 net.cpp:399] lstm2_ -> c_0
I0922 22:41:15.125666  2040 net.cpp:399] lstm2_ -> h_0
I0922 22:41:15.125741  2040 net.cpp:141] Setting up lstm2_
I0922 22:41:15.125752  2040 net.cpp:148] Top shape: 1 1 1000 (1000)
I0922 22:41:15.125758  2040 net.cpp:148] Top shape: 1 1 1000 (1000)
I0922 22:41:15.125762  2040 net.cpp:156] Memory required for data: 14008
I0922 22:41:15.125767  2040 layer_factory.hpp:77] Creating layer lstm2_cont_slice
I0922 22:41:15.125777  2040 net.cpp:91] Creating Layer lstm2_cont_slice
I0922 22:41:15.125782  2040 net.cpp:425] lstm2_cont_slice <- cont
I0922 22:41:15.125789  2040 net.cpp:399] lstm2_cont_slice -> cont_1
I0922 22:41:15.125977  2040 net.cpp:141] Setting up lstm2_cont_slice
I0922 22:41:15.125988  2040 net.cpp:148] Top shape: 1 1 (1)
I0922 22:41:15.125993  2040 net.cpp:156] Memory required for data: 14012
I0922 22:41:15.125998  2040 layer_factory.hpp:77] Creating layer cont_1_lstm2_cont_slice_0_split
I0922 22:41:15.126004  2040 net.cpp:91] Creating Layer cont_1_lstm2_cont_slice_0_split
I0922 22:41:15.126013  2040 net.cpp:425] cont_1_lstm2_cont_slice_0_split <- cont_1
I0922 22:41:15.126019  2040 net.cpp:399] cont_1_lstm2_cont_slice_0_split -> cont_1_lstm2_cont_slice_0_split_0
I0922 22:41:15.126027  2040 net.cpp:399] cont_1_lstm2_cont_slice_0_split -> cont_1_lstm2_cont_slice_0_split_1
I0922 22:41:15.126102  2040 net.cpp:141] Setting up cont_1_lstm2_cont_slice_0_split
I0922 22:41:15.126112  2040 net.cpp:148] Top shape: 1 1 (1)
I0922 22:41:15.126118  2040 net.cpp:148] Top shape: 1 1 (1)
I0922 22:41:15.126122  2040 net.cpp:156] Memory required for data: 14020
I0922 22:41:15.126127  2040 layer_factory.hpp:77] Creating layer lstm2_x_transform
I0922 22:41:15.126137  2040 net.cpp:91] Creating Layer lstm2_x_transform
I0922 22:41:15.126142  2040 net.cpp:425] lstm2_x_transform <- x
I0922 22:41:15.126153  2040 net.cpp:399] lstm2_x_transform -> W_xc_x
I0922 22:41:15.137454  2038 net.cpp:141] Setting up conv3
I0922 22:41:15.137506  2038 net.cpp:148] Top shape: 10 384 13 13 (648960)
I0922 22:41:15.137511  2038 net.cpp:156] Memory required for data: 56001080
I0922 22:41:15.137532  2038 layer_factory.hpp:77] Creating layer relu3
I0922 22:41:15.137553  2038 net.cpp:91] Creating Layer relu3
I0922 22:41:15.137560  2038 net.cpp:425] relu3 <- conv3
I0922 22:41:15.137568  2038 net.cpp:386] relu3 -> conv3 (in-place)
I0922 22:41:15.137828  2038 net.cpp:141] Setting up relu3
I0922 22:41:15.137843  2038 net.cpp:148] Top shape: 10 384 13 13 (648960)
I0922 22:41:15.137847  2038 net.cpp:156] Memory required for data: 58596920
I0922 22:41:15.137852  2038 layer_factory.hpp:77] Creating layer conv4
I0922 22:41:15.137866  2038 net.cpp:91] Creating Layer conv4
I0922 22:41:15.137871  2038 net.cpp:425] conv4 <- conv3
I0922 22:41:15.137886  2038 net.cpp:399] conv4 -> conv4
I0922 22:41:15.142801  2044 net.cpp:141] Setting up lstm1_x_transform
I0922 22:41:15.142841  2044 net.cpp:148] Top shape: 1 1 4000 (4000)
I0922 22:41:15.142848  2044 net.cpp:156] Memory required for data: 26016
I0922 22:41:15.142871  2044 layer_factory.hpp:77] Creating layer lstm1_W_xc_x_slice
I0922 22:41:15.142894  2044 net.cpp:91] Creating Layer lstm1_W_xc_x_slice
I0922 22:41:15.142901  2044 net.cpp:425] lstm1_W_xc_x_slice <- W_xc_x
I0922 22:41:15.142911  2044 net.cpp:399] lstm1_W_xc_x_slice -> W_xc_x_1
I0922 22:41:15.143190  2044 net.cpp:141] Setting up lstm1_W_xc_x_slice
I0922 22:41:15.143204  2044 net.cpp:148] Top shape: 1 1 4000 (4000)
I0922 22:41:15.143209  2044 net.cpp:156] Memory required for data: 42016
I0922 22:41:15.143215  2044 layer_factory.hpp:77] Creating layer lstm1_h_conted_0
I0922 22:41:15.143232  2044 net.cpp:91] Creating Layer lstm1_h_conted_0
I0922 22:41:15.143239  2044 net.cpp:425] lstm1_h_conted_0 <- h_0
I0922 22:41:15.143245  2044 net.cpp:425] lstm1_h_conted_0 <- cont_1_lstm1_cont_slice_0_split_0
I0922 22:41:15.143254  2044 net.cpp:399] lstm1_h_conted_0 -> h_conted_0
I0922 22:41:15.143384  2044 net.cpp:141] Setting up lstm1_h_conted_0
I0922 22:41:15.143396  2044 net.cpp:148] Top shape: 1 1 1000 (1000)
I0922 22:41:15.143401  2044 net.cpp:156] Memory required for data: 46016
I0922 22:41:15.143406  2044 layer_factory.hpp:77] Creating layer lstm1_transform_1
I0922 22:41:15.143425  2044 net.cpp:91] Creating Layer lstm1_transform_1
I0922 22:41:15.143431  2044 net.cpp:425] lstm1_transform_1 <- h_conted_0
I0922 22:41:15.143440  2044 net.cpp:399] lstm1_transform_1 -> W_hc_h_0
I0922 22:41:15.152658  2038 net.cpp:141] Setting up conv4
I0922 22:41:15.152705  2038 net.cpp:148] Top shape: 10 384 13 13 (648960)
I0922 22:41:15.152712  2038 net.cpp:156] Memory required for data: 61192760
I0922 22:41:15.152726  2038 layer_factory.hpp:77] Creating layer relu4
I0922 22:41:15.152742  2038 net.cpp:91] Creating Layer relu4
I0922 22:41:15.152750  2038 net.cpp:425] relu4 <- conv4
I0922 22:41:15.152760  2038 net.cpp:386] relu4 -> conv4 (in-place)
I0922 22:41:15.153302  2038 net.cpp:141] Setting up relu4
I0922 22:41:15.153316  2038 net.cpp:148] Top shape: 10 384 13 13 (648960)
I0922 22:41:15.153321  2038 net.cpp:156] Memory required for data: 63788600
I0922 22:41:15.153326  2038 layer_factory.hpp:77] Creating layer conv5
I0922 22:41:15.153343  2038 net.cpp:91] Creating Layer conv5
I0922 22:41:15.153349  2038 net.cpp:425] conv5 <- conv4
I0922 22:41:15.153357  2038 net.cpp:399] conv5 -> conv5
I0922 22:41:15.157218  2038 net.cpp:141] Setting up conv5
I0922 22:41:15.157255  2038 net.cpp:148] Top shape: 10 256 13 13 (432640)
I0922 22:41:15.157261  2038 net.cpp:156] Memory required for data: 65519160
I0922 22:41:15.157281  2038 layer_factory.hpp:77] Creating layer relu5
I0922 22:41:15.157294  2038 net.cpp:91] Creating Layer relu5
I0922 22:41:15.157300  2038 net.cpp:425] relu5 <- conv5
I0922 22:41:15.157306  2038 net.cpp:386] relu5 -> conv5 (in-place)
I0922 22:41:15.157699  2038 net.cpp:141] Setting up relu5
I0922 22:41:15.157714  2038 net.cpp:148] Top shape: 10 256 13 13 (432640)
I0922 22:41:15.157719  2038 net.cpp:156] Memory required for data: 67249720
I0922 22:41:15.157724  2038 layer_factory.hpp:77] Creating layer pool5
I0922 22:41:15.157735  2038 net.cpp:91] Creating Layer pool5
I0922 22:41:15.157740  2038 net.cpp:425] pool5 <- conv5
I0922 22:41:15.157747  2038 net.cpp:399] pool5 -> pool5
I0922 22:41:15.157833  2038 net.cpp:141] Setting up pool5
I0922 22:41:15.157845  2038 net.cpp:148] Top shape: 10 256 6 6 (92160)
I0922 22:41:15.157850  2038 net.cpp:156] Memory required for data: 67618360
I0922 22:41:15.157855  2038 layer_factory.hpp:77] Creating layer fc6
I0922 22:41:15.157869  2038 net.cpp:91] Creating Layer fc6
I0922 22:41:15.157876  2038 net.cpp:425] fc6 <- pool5
I0922 22:41:15.157882  2038 net.cpp:399] fc6 -> fc6
I0922 22:41:15.220926  2044 net.cpp:141] Setting up lstm1_transform_1
I0922 22:41:15.220989  2044 net.cpp:148] Top shape: 1 1 4000 (4000)
I0922 22:41:15.220999  2044 net.cpp:156] Memory required for data: 62016
I0922 22:41:15.221024  2044 layer_factory.hpp:77] Creating layer lstm1_gate_input_1
I0922 22:41:15.221051  2044 net.cpp:91] Creating Layer lstm1_gate_input_1
I0922 22:41:15.221060  2044 net.cpp:425] lstm1_gate_input_1 <- W_hc_h_0
I0922 22:41:15.221068  2044 net.cpp:425] lstm1_gate_input_1 <- W_xc_x_1
I0922 22:41:15.221083  2044 net.cpp:399] lstm1_gate_input_1 -> gate_input_1
I0922 22:41:15.221202  2044 net.cpp:141] Setting up lstm1_gate_input_1
I0922 22:41:15.221218  2044 net.cpp:148] Top shape: 1 1 4000 (4000)
I0922 22:41:15.221228  2044 net.cpp:156] Memory required for data: 78016
I0922 22:41:15.221237  2044 layer_factory.hpp:77] Creating layer lstm1_unit_1
I0922 22:41:15.221257  2044 net.cpp:91] Creating Layer lstm1_unit_1
I0922 22:41:15.221267  2044 net.cpp:425] lstm1_unit_1 <- c_0
I0922 22:41:15.221279  2044 net.cpp:425] lstm1_unit_1 <- gate_input_1
I0922 22:41:15.221287  2044 net.cpp:425] lstm1_unit_1 <- cont_1_lstm1_cont_slice_0_split_1
I0922 22:41:15.221294  2044 net.cpp:399] lstm1_unit_1 -> c_1
I0922 22:41:15.221305  2044 net.cpp:399] lstm1_unit_1 -> h_1
I0922 22:41:15.221303  2040 net.cpp:141] Setting up lstm2_x_transform
I0922 22:41:15.221339  2040 net.cpp:148] Top shape: 1 1 4000 (4000)
I0922 22:41:15.221345  2040 net.cpp:156] Memory required for data: 30020
I0922 22:41:15.221364  2040 layer_factory.hpp:77] Creating layer lstm2_W_xc_x_slice
I0922 22:41:15.221381  2040 net.cpp:91] Creating Layer lstm2_W_xc_x_slice
I0922 22:41:15.221387  2040 net.cpp:425] lstm2_W_xc_x_slice <- W_xc_x
I0922 22:41:15.221396  2040 net.cpp:399] lstm2_W_xc_x_slice -> W_xc_x_1
I0922 22:41:15.221411  2061 net.cpp:141] Setting up lstm2_x_transform
I0922 22:41:15.221432  2061 net.cpp:148] Top shape: 1 1 4000 (4000)
I0922 22:41:15.221438  2061 net.cpp:156] Memory required for data: 30020
I0922 22:41:15.221454  2061 layer_factory.hpp:77] Creating layer lstm2_W_xc_x_slice
I0922 22:41:15.221457  2044 net.cpp:141] Setting up lstm1_unit_1
I0922 22:41:15.221467  2061 net.cpp:91] Creating Layer lstm2_W_xc_x_slice
I0922 22:41:15.221469  2044 net.cpp:148] Top shape: 1 1 1000 (1000)
I0922 22:41:15.221474  2061 net.cpp:425] lstm2_W_xc_x_slice <- W_xc_x
I0922 22:41:15.221477  2044 net.cpp:148] Top shape: 1 1 1000 (1000)
I0922 22:41:15.221482  2044 net.cpp:156] Memory required for data: 86016
I0922 22:41:15.221484  2061 net.cpp:399] lstm2_W_xc_x_slice -> W_xc_x_1
I0922 22:41:15.221487  2044 layer_factory.hpp:77] Creating layer lstm1_
I0922 22:41:15.221498  2044 net.cpp:91] Creating Layer lstm1_
I0922 22:41:15.221503  2044 net.cpp:425] lstm1_ <- c_1
I0922 22:41:15.221508  2040 net.cpp:141] Setting up lstm2_W_xc_x_slice
I0922 22:41:15.221513  2044 net.cpp:399] lstm1_ -> c_T
I0922 22:41:15.221521  2040 net.cpp:148] Top shape: 1 1 4000 (4000)
I0922 22:41:15.221526  2040 net.cpp:156] Memory required for data: 46020
I0922 22:41:15.221531  2040 layer_factory.hpp:77] Creating layer lstm2_h_conted_0
I0922 22:41:15.221542  2040 net.cpp:91] Creating Layer lstm2_h_conted_0
I0922 22:41:15.221547  2040 net.cpp:425] lstm2_h_conted_0 <- h_0
I0922 22:41:15.221550  2061 net.cpp:141] Setting up lstm2_W_xc_x_slice
I0922 22:41:15.221554  2040 net.cpp:425] lstm2_h_conted_0 <- cont_1_lstm2_cont_slice_0_split_0
I0922 22:41:15.221565  2061 net.cpp:148] Top shape: 1 1 4000 (4000)
I0922 22:41:15.221572  2061 net.cpp:156] Memory required for data: 46020
I0922 22:41:15.221572  2040 net.cpp:399] lstm2_h_conted_0 -> h_conted_0
I0922 22:41:15.221578  2061 layer_factory.hpp:77] Creating layer lstm2_h_conted_0
I0922 22:41:15.221585  2044 net.cpp:141] Setting up lstm1_
I0922 22:41:15.221593  2061 net.cpp:91] Creating Layer lstm2_h_conted_0
I0922 22:41:15.221597  2044 net.cpp:148] Top shape: 1 1 1000 (1000)
I0922 22:41:15.221601  2061 net.cpp:425] lstm2_h_conted_0 <- h_0
I0922 22:41:15.221602  2044 net.cpp:156] Memory required for data: 90016
I0922 22:41:15.221607  2061 net.cpp:425] lstm2_h_conted_0 <- cont_1_lstm2_cont_slice_0_split_0
I0922 22:41:15.221608  2044 layer_factory.hpp:77] Creating layer lstm1_h_concat
I0922 22:41:15.221616  2061 net.cpp:399] lstm2_h_conted_0 -> h_conted_0
I0922 22:41:15.221621  2044 net.cpp:91] Creating Layer lstm1_h_concat
I0922 22:41:15.221627  2044 net.cpp:425] lstm1_h_concat <- h_1
I0922 22:41:15.221635  2044 net.cpp:399] lstm1_h_concat -> h
I0922 22:41:15.221709  2040 net.cpp:141] Setting up lstm2_h_conted_0
I0922 22:41:15.221720  2040 net.cpp:148] Top shape: 1 1 1000 (1000)
I0922 22:41:15.221726  2040 net.cpp:156] Memory required for data: 50020
I0922 22:41:15.221730  2040 layer_factory.hpp:77] Creating layer lstm2_transform_1
I0922 22:41:15.221742  2040 net.cpp:91] Creating Layer lstm2_transform_1
I0922 22:41:15.221747  2040 net.cpp:425] lstm2_transform_1 <- h_conted_0
I0922 22:41:15.221760  2040 net.cpp:399] lstm2_transform_1 -> W_hc_h_0
I0922 22:41:15.221758  2044 net.cpp:141] Setting up lstm1_h_concat
I0922 22:41:15.221779  2044 net.cpp:148] Top shape: 1 1 1000 (1000)
I0922 22:41:15.221786  2044 net.cpp:156] Memory required for data: 94016
I0922 22:41:15.221791  2044 layer_factory.hpp:77] Creating layer h_pseudoloss
I0922 22:41:15.221801  2044 net.cpp:91] Creating Layer h_pseudoloss
I0922 22:41:15.221807  2044 net.cpp:425] h_pseudoloss <- h
I0922 22:41:15.221814  2044 net.cpp:399] h_pseudoloss -> h_pseudoloss
I0922 22:41:15.221973  2061 net.cpp:141] Setting up lstm2_h_conted_0
I0922 22:41:15.221988  2061 net.cpp:148] Top shape: 1 1 1000 (1000)
I0922 22:41:15.221998  2061 net.cpp:156] Memory required for data: 50020
I0922 22:41:15.222007  2061 layer_factory.hpp:77] Creating layer lstm2_transform_1
I0922 22:41:15.222021  2061 net.cpp:91] Creating Layer lstm2_transform_1
I0922 22:41:15.222028  2061 net.cpp:425] lstm2_transform_1 <- h_conted_0
I0922 22:41:15.222035  2061 net.cpp:399] lstm2_transform_1 -> W_hc_h_0
I0922 22:41:15.238222  2044 net.cpp:141] Setting up h_pseudoloss
…
I0922 22:41:15.238487  2044 net.cpp:219] lstm1_ does not need backward computation.
I0922 22:41:15.238497  2044 net.cpp:261] This network produces output c_T
I0922 22:41:15.238512  2044 net.cpp:261] This network produces output h_pseudoloss
I0922 22:41:15.238540  2044 net.cpp:274] Network initialization done.
I0922 22:41:15.238631  2044 recurrent_layer.cpp:150] Adding parameter 0: W_xc
I0922 22:41:15.238646  2044 recurrent_layer.cpp:150] Adding parameter 1: b_c
I0922 22:41:15.238654  2044 recurrent_layer.cpp:150] Adding parameter 2: W_hc
I0922 22:41:15.238885  2044 net.cpp:141] Setting up lstm1
I0922 22:41:15.238906  2044 net.cpp:148] Top shape: 1 1 1000 (1000)
I0922 22:41:15.238915  2044 net.cpp:156] Memory required for data: 26408
I0922 22:41:15.238943  2044 layer_factory.hpp:77] Creating layer concat
I0922 22:41:15.238973  2044 net.cpp:91] Creating Layer concat
I0922 22:41:15.238989  2044 net.cpp:425] concat <- lstm1
I0922 22:41:15.239006  2044 net.cpp:425] concat <- embedded_input_sentence
I0922 22:41:15.239037  2044 net.cpp:425] concat <- reshaped_stage_indicator
I0922 22:41:15.239071  2044 net.cpp:399] concat -> lstm1_video_sequence
I0922 22:41:15.239156  2044 net.cpp:141] Setting up concat
I0922 22:41:15.239176  2044 net.cpp:148] Top shape: 1 1 1501 (1501)
I0922 22:41:15.239187  2044 net.cpp:156] Memory required for data: 32412
I0922 22:41:15.239198  2044 layer_factory.hpp:77] Creating layer lstm2
I0922 22:41:15.239224  2044 net.cpp:91] Creating Layer lstm2
I0922 22:41:15.239238  2044 net.cpp:425] lstm2 <- lstm1_video_sequence
I0922 22:41:15.239251  2044 net.cpp:425] lstm2 <- cont_sentence_input_1_split_1
I0922 22:41:15.239269  2044 net.cpp:399] lstm2 -> lstm2
I0922 22:41:15.239291  2044 recurrent_layer.cpp:20] Initializing recurrent layer: assuming input batch contains 1 timesteps of 1 independent streams.
I0922 22:41:15.239778  2044 net.cpp:49] Initializing net from parameters: 
layer {
  name: "lstm2_"
  type: "Input"
  top: "x"
  top: "cont"
  input_param {
    shape {
      dim: 1
      dim: 1
      dim: 1501
    }
    shape {
      dim: 1
      dim: 1
    }
  }
}
layer {
  name: "lstm2_"
  type: "Input"
  top: "c_0"
  top: "h_0"
  input_param {
    shape {
      dim: 1
      dim: 1
      dim: 1000
    }
    shape {
      dim: 1
      dim: 1
      dim: 1000
    }
  }
}
layer {
  name: "lstm2_cont_slice"
  type: "Slice"
  bottom: "cont"
  top: "cont_1"
  slice_param {
    axis: 0
  }
}
layer {
  name: "lstm2_x_transform"
  type: "InnerProduct"
  bottom: "x"
  top: "W_xc_x"
  param {
    name: "W_xc"
  }
  param {
    name: "b_c"
  }
  propagate_down: true
  inner_product_param {
    num_output: 4000
    bias_term: true
    weight_filler {
      type: "uniform"
      min: -0.08
      max: 0.08
    }
    bias_filler {
      type: "constant"
      value: 0
    }
    axis: 2
  }
}
layer {
  name: "lstm2_W_xc_x_slice"
  type: "Slice"
  bottom: "W_xc_x"
  top: "W_xc_x_1"
  slice_param {
    axis: 0
  }
}
layer {
  name: "lstm2_h_conted_0"
  type: "Scale"
  bottom: "h_0"
  bottom: "cont_1"
  top: "h_conted_0"
  scale_param {
    axis: 0
  }
}
layer {
  name: "lstm2_transform_1"
  type: "InnerProduct"
  bottom: "h_conted_0"
  top: "W_hc_h_0"
  param {
    name: "W_hc"
  }
  inner_product_param {
    num_output: 4000
    bias_term: false
    weight_filler {
      type: "uniform"
      min: -0.08
      max: 0.08
    }
    axis: 2
  }
}
layer {
  name: "lstm2_gate_input_1"
  type: "Eltwise"
  bottom: "W_hc_h_0"
  bottom: "W_xc_x_1"
  top: "gate_input_1"
  eltwise_param {
    operation: SUM
  }
}
layer {
  name: "lstm2_unit_1"
  type: "LSTMUnit"
  bottom: "c_0"
  bottom: "gate_input_1"
  bottom: "cont_1"
  top: "c_1"
  top: "h_1"
}
layer {
  name: "lstm2_"
  type: "Split"
  bottom: "c_1"
  top: "c_T"
}
layer {
  name: "lstm2_h_concat"
  type: "Concat"
  bottom: "h_1"
  top: "h"
  concat_param {
    axis: 0
  }
}
layer {
  name: "h_pseudoloss"
  type: "Reduction"
  bottom: "h"
  top: "h_pseudoloss"
  loss_weight: 1
}
I0922 22:41:15.239953  2044 layer_factory.hpp:77] Creating layer lstm2_
I0922 22:41:15.239979  2044 net.cpp:91] Creating Layer lstm2_
I0922 22:41:15.239995  2044 net.cpp:399] lstm2_ -> x
I0922 22:41:15.240016  2044 net.cpp:399] lstm2_ -> cont
I0922 22:41:15.240134  2044 net.cpp:141] Setting up lstm2_
I0922 22:41:15.240159  2044 net.cpp:148] Top shape: 1 1 1501 (1501)
I0922 22:41:15.240173  2044 net.cpp:148] Top shape: 1 1 (1)
I0922 22:41:15.240185  2044 net.cpp:156] Memory required for data: 6008
I0922 22:41:15.240195  2044 layer_factory.hpp:77] Creating layer lstm2_
I0922 22:41:15.240221  2044 net.cpp:91] Creating Layer lstm2_
I0922 22:41:15.240239  2044 net.cpp:399] lstm2_ -> c_0
I0922 22:41:15.240262  2044 net.cpp:399] lstm2_ -> h_0
I0922 22:41:15.240386  2044 net.cpp:141] Setting up lstm2_
I0922 22:41:15.240407  2044 net.cpp:148] Top shape: 1 1 1000 (1000)
I0922 22:41:15.240422  2044 net.cpp:148] Top shape: 1 1 1000 (1000)
I0922 22:41:15.240432  2044 net.cpp:156] Memory required for data: 14008
I0922 22:41:15.240443  2044 layer_factory.hpp:77] Creating layer lstm2_cont_slice
I0922 22:41:15.240461  2044 net.cpp:91] Creating Layer lstm2_cont_slice
I0922 22:41:15.240474  2044 net.cpp:425] lstm2_cont_slice <- cont
I0922 22:41:15.240490  2044 net.cpp:399] lstm2_cont_slice -> cont_1
I0922 22:41:15.240561  2044 net.cpp:141] Setting up lstm2_cont_slice
I0922 22:41:15.240581  2044 net.cpp:148] Top shape: 1 1 (1)
I0922 22:41:15.240592  2044 net.cpp:156] Memory required for data: 14012
I0922 22:41:15.240602  2044 layer_factory.hpp:77] Creating layer cont_1_lstm2_cont_slice_0_split
I0922 22:41:15.240625  2044 net.cpp:91] Creating Layer cont_1_lstm2_cont_slice_0_split
I0922 22:41:15.240638  2044 net.cpp:425] cont_1_lstm2_cont_slice_0_split <- cont_1
I0922 22:41:15.240653  2044 net.cpp:399] cont_1_lstm2_cont_slice_0_split -> cont_1_lstm2_cont_slice_0_split_0
I0922 22:41:15.240682  2044 net.cpp:399] cont_1_lstm2_cont_slice_0_split -> cont_1_lstm2_cont_slice_0_split_1
I0922 22:41:15.240789  2044 net.cpp:141] Setting up cont_1_lstm2_cont_slice_0_split
I0922 22:41:15.240809  2044 net.cpp:148] Top shape: 1 1 (1)
I0922 22:41:15.240823  2044 net.cpp:148] Top shape: 1 1 (1)
I0922 22:41:15.240833  2044 net.cpp:156] Memory required for data: 14020
I0922 22:41:15.240844  2044 layer_factory.hpp:77] Creating layer lstm2_x_transform
I0922 22:41:15.240869  2044 net.cpp:91] Creating Layer lstm2_x_transform
I0922 22:41:15.240883  2044 net.cpp:425] lstm2_x_transform <- x
I0922 22:41:15.240901  2044 net.cpp:399] lstm2_x_transform -> W_xc_x
I0922 22:41:15.260783  2038 net.cpp:141] Setting up fc6
I0922 22:41:15.260831  2038 net.cpp:148] Top shape: 10 4096 (40960)
I0922 22:41:15.260838  2038 net.cpp:156] Memory required for data: 67782200
I0922 22:41:15.260850  2038 layer_factory.hpp:77] Creating layer relu6
I0922 22:41:15.260865  2038 net.cpp:91] Creating Layer relu6
I0922 22:41:15.260872  2038 net.cpp:425] relu6 <- fc6
I0922 22:41:15.260898  2038 net.cpp:386] relu6 -> fc6 (in-place)
I0922 22:41:15.261243  2038 net.cpp:141] Setting up relu6
I0922 22:41:15.261255  2038 net.cpp:148] Top shape: 10 4096 (40960)
I0922 22:41:15.261260  2038 net.cpp:156] Memory required for data: 67946040
I0922 22:41:15.261265  2038 layer_factory.hpp:77] Creating layer drop6
I0922 22:41:15.261291  2038 net.cpp:91] Creating Layer drop6
I0922 22:41:15.261296  2038 net.cpp:425] drop6 <- fc6
I0922 22:41:15.261302  2038 net.cpp:386] drop6 -> fc6 (in-place)
I0922 22:41:15.261351  2038 net.cpp:141] Setting up drop6
I0922 22:41:15.261361  2038 net.cpp:148] Top shape: 10 4096 (40960)
I0922 22:41:15.261365  2038 net.cpp:156] Memory required for data: 68109880
I0922 22:41:15.261370  2038 layer_factory.hpp:77] Creating layer fc7
I0922 22:41:15.261384  2038 net.cpp:91] Creating Layer fc7
I0922 22:41:15.261389  2038 net.cpp:425] fc7 <- fc6
I0922 22:41:15.261399  2038 net.cpp:399] fc7 -> fc7
I0922 22:41:15.261450  2040 net.cpp:141] Setting up lstm2_transform_1
I0922 22:41:15.261466  2040 net.cpp:148] Top shape: 1 1 4000 (4000)
I0922 22:41:15.261471  2040 net.cpp:156] Memory required for data: 66020
I0922 22:41:15.261484  2040 layer_factory.hpp:77] Creating layer lstm2_gate_input_1
I0922 22:41:15.261497  2040 net.cpp:91] Creating Layer lstm2_gate_input_1
I0922 22:41:15.261503  2040 net.cpp:425] lstm2_gate_input_1 <- W_hc_h_0
I0922 22:41:15.261509  2040 net.cpp:425] lstm2_gate_input_1 <- W_xc_x_1
I0922 22:41:15.261545  2040 net.cpp:399] lstm2_gate_input_1 -> gate_input_1
I0922 22:41:15.290597  2040 net.cpp:141] Setting up lstm2_gate_input_1
I0922 22:41:15.290657  2040 net.cpp:148] Top shape: 1 1 4000 (4000)
I0922 22:41:15.290663  2040 net.cpp:156] Memory required for data: 82020
I0922 22:41:15.290673  2040 layer_factory.hpp:77] Creating layer lstm2_unit_1
I0922 22:41:15.290690  2040 net.cpp:91] Creating Layer lstm2_unit_1
I0922 22:41:15.290699  2040 net.cpp:425] lstm2_unit_1 <- c_0
I0922 22:41:15.290709  2040 net.cpp:425] lstm2_unit_1 <- gate_input_1
I0922 22:41:15.290715  2040 net.cpp:425] lstm2_unit_1 <- cont_1_lstm2_cont_slice_0_split_1
I0922 22:41:15.290724  2040 net.cpp:399] lstm2_unit_1 -> c_1
I0922 22:41:15.290737  2040 net.cpp:399] lstm2_unit_1 -> h_1
I0922 22:41:15.290736  2061 net.cpp:141] Setting up lstm2_transform_1
I0922 22:41:15.290777  2061 net.cpp:148] Top shape: 1 1 4000 (4000)
I0922 22:41:15.290783  2061 net.cpp:156] Memory required for data: 66020
I0922 22:41:15.290805  2061 layer_factory.hpp:77] Creating layer lstm2_gate_input_1
I0922 22:41:15.290830  2061 net.cpp:91] Creating Layer lstm2_gate_input_1
I0922 22:41:15.290838  2061 net.cpp:425] lstm2_gate_input_1 <- W_hc_h_0
I0922 22:41:15.290846  2061 net.cpp:425] lstm2_gate_input_1 <- W_xc_x_1
I0922 22:41:15.290855  2061 net.cpp:399] lstm2_gate_input_1 -> gate_input_1
I0922 22:41:15.290877  2040 net.cpp:141] Setting up lstm2_unit_1
I0922 22:41:15.290891  2040 net.cpp:148] Top shape: 1 1 1000 (1000)
I0922 22:41:15.290897  2040 net.cpp:148] Top shape: 1 1 1000 (1000)
I0922 22:41:15.290901  2040 net.cpp:156] Memory required for data: 90020
I0922 22:41:15.290906  2040 layer_factory.hpp:77] Creating layer lstm2_
I0922 22:41:15.290915  2040 net.cpp:91] Creating Layer lstm2_
I0922 22:41:15.290920  2040 net.cpp:425] lstm2_ <- c_1
I0922 22:41:15.290927  2040 net.cpp:399] lstm2_ -> c_T
I0922 22:41:15.290930  2061 net.cpp:141] Setting up lstm2_gate_input_1
I0922 22:41:15.290941  2061 net.cpp:148] Top shape: 1 1 4000 (4000)
I0922 22:41:15.290946  2061 net.cpp:156] Memory required for data: 82020
I0922 22:41:15.290951  2061 layer_factory.hpp:77] Creating layer lstm2_unit_1
I0922 22:41:15.290961  2061 net.cpp:91] Creating Layer lstm2_unit_1
I0922 22:41:15.290966  2061 net.cpp:425] lstm2_unit_1 <- c_0
I0922 22:41:15.290973  2061 net.cpp:425] lstm2_unit_1 <- gate_input_1
I0922 22:41:15.290979  2061 net.cpp:425] lstm2_unit_1 <- cont_1_lstm2_cont_slice_0_split_1
I0922 22:41:15.290982  2040 net.cpp:141] Setting up lstm2_
I0922 22:41:15.290988  2061 net.cpp:399] lstm2_unit_1 -> c_1
I0922 22:41:15.290993  2040 net.cpp:148] Top shape: 1 1 1000 (1000)
I0922 22:41:15.290999  2040 net.cpp:156] Memory required for data: 94020
I0922 22:41:15.290999  2061 net.cpp:399] lstm2_unit_1 -> h_1
I0922 22:41:15.291003  2040 layer_factory.hpp:77] Creating layer lstm2_h_concat
I0922 22:41:15.291034  2040 net.cpp:91] Creating Layer lstm2_h_concat
I0922 22:41:15.291041  2040 net.cpp:425] lstm2_h_concat <- h_1
I0922 22:41:15.291051  2040 net.cpp:399] lstm2_h_concat -> h
I0922 22:41:15.291121  2061 net.cpp:141] Setting up lstm2_unit_1
I0922 22:41:15.291132  2061 net.cpp:148] Top shape: 1 1 1000 (1000)
I0922 22:41:15.291139  2061 net.cpp:148] Top shape: 1 1 1000 (1000)
I0922 22:41:15.291144  2061 net.cpp:156] Memory required for data: 90020
I0922 22:41:15.291149  2061 layer_factory.hpp:77] Creating layer lstm2_
I0922 22:41:15.291162  2061 net.cpp:91] Creating Layer lstm2_
I0922 22:41:15.291167  2061 net.cpp:425] lstm2_ <- c_1
I0922 22:41:15.291168  2040 net.cpp:141] Setting up lstm2_h_concat
I0922 22:41:15.291175  2061 net.cpp:399] lstm2_ -> c_T
I0922 22:41:15.291182  2040 net.cpp:148] Top shape: 1 1 1000 (1000)
I0922 22:41:15.291187  2040 net.cpp:156] Memory required for data: 98020
I0922 22:41:15.291191  2040 layer_factory.hpp:77] Creating layer h_pseudoloss
I0922 22:41:15.291216  2040 net.cpp:91] Creating Layer h_pseudoloss
I0922 22:41:15.291224  2040 net.cpp:425] h_pseudoloss <- h
I0922 22:41:15.291229  2061 net.cpp:141] Setting up lstm2_
I0922 22:41:15.291231  2040 net.cpp:399] h_pseudoloss -> h_pseudoloss
I0922 22:41:15.291242  2061 net.cpp:148] Top shape: 1 1 1000 (1000)
I0922 22:41:15.291249  2061 net.cpp:156] Memory required for data: 94020
I0922 22:41:15.291254  2061 layer_factory.hpp:77] Creating layer lstm2_h_concat
I0922 22:41:15.291263  2061 net.cpp:91] Creating Layer lstm2_h_concat
I0922 22:41:15.291268  2061 net.cpp:425] lstm2_h_concat <- h_1
I0922 22:41:15.291280  2061 net.cpp:399] lstm2_h_concat -> h
I0922 22:41:15.291379  2040 net.cpp:141] Setting up h_pseudoloss
I0922 22:41:15.291391  2040 net.cpp:148] Top shape: (1)
I0922 22:41:15.291396  2040 net.cpp:151]     with loss weight 1
I0922 22:41:15.291429  2040 net.cpp:156] Memory required for data: 98024
I0922 22:41:15.291431  2061 net.cpp:141] Setting up lstm2_h_concat
I0922 22:41:15.291437  2040 net.cpp:217] h_pseudoloss needs backward computation.
I0922 22:41:15.291445  2061 net.cpp:148] Top shape: 1 1 1000 (1000)
I0922 22:41:15.291450  2061 net.cpp:156] Memory required for data: 98020
I0922 22:41:15.291465  2061 layer_factory.hpp:77] Creating layer h_pseudoloss
I0922 22:41:15.291450  2040 net.cpp:217] lstm2_h_concat needs backward computation.
I0922 22:41:15.291476  2061 net.cpp:91] Creating Layer h_pseudoloss
I0922 22:41:15.291477  2040 net.cpp:219] lstm2_ does not need backward computation.
…
I0922 22:41:15.291736  2061 net.cpp:219] lstm2_cont_slice does not need backward computation.
I0922 22:41:15.291743  2061 net.cpp:219] lstm2_ does not need backward computation.
I0922 22:41:15.291746  2061 net.cpp:219] lstm2_ does not need backward computation.
I0922 22:41:15.291751  2061 net.cpp:261] This network produces output c_T
I0922 22:41:15.291756  2061 net.cpp:261] This network produces output h_pseudoloss
I0922 22:41:15.291772  2061 net.cpp:274] Network initialization done.
I0922 22:41:15.291821  2040 net.cpp:141] Setting up lstm2
I0922 22:41:15.291826  2061 recurrent_layer.cpp:150] Adding parameter 0: W_xc
I0922 22:41:15.291839  2040 net.cpp:148] Top shape: 1 1 1000 (1000)
I0922 22:41:15.291844  2061 recurrent_layer.cpp:150] Adding parameter 1: b_c
I0922 22:41:15.291846  2040 net.cpp:156] Memory required for data: 36412
I0922 22:41:15.291854  2061 recurrent_layer.cpp:150] Adding parameter 2: W_hc
I0922 22:41:15.291872  2040 layer_factory.hpp:77] Creating layer predict
I0922 22:41:15.291893  2040 net.cpp:91] Creating Layer predict
I0922 22:41:15.291899  2040 net.cpp:425] predict <- lstm2
I0922 22:41:15.291909  2040 net.cpp:399] predict -> predict
I0922 22:41:15.292047  2061 net.cpp:141] Setting up lstm2
I0922 22:41:15.292062  2061 net.cpp:148] Top shape: 1 1 1000 (1000)
I0922 22:41:15.292067  2061 net.cpp:156] Memory required for data: 36412
I0922 22:41:15.292083  2061 layer_factory.hpp:77] Creating layer predict
I0922 22:41:15.292096  2061 net.cpp:91] Creating Layer predict
I0922 22:41:15.292104  2061 net.cpp:425] predict <- lstm2
I0922 22:41:15.292111  2061 net.cpp:399] predict -> predict
I0922 22:41:15.467491  2038 net.cpp:141] Setting up fc7
I0922 22:41:15.467540  2038 net.cpp:148] Top shape: 10 4096 (40960)
I0922 22:41:15.467547  2038 net.cpp:156] Memory required for data: 68273720
I0922 22:41:15.467561  2038 layer_factory.hpp:77] Creating layer relu7
I0922 22:41:15.467576  2038 net.cpp:91] Creating Layer relu7
I0922 22:41:15.467584  2038 net.cpp:425] relu7 <- fc7
I0922 22:41:15.467597  2038 net.cpp:386] relu7 -> fc7 (in-place)
I0922 22:41:15.468324  2038 net.cpp:141] Setting up relu7
I0922 22:41:15.468338  2038 net.cpp:148] Top shape: 10 4096 (40960)
I0922 22:41:15.468343  2038 net.cpp:156] Memory required for data: 68437560
I0922 22:41:15.468348  2038 layer_factory.hpp:77] Creating layer drop7
I0922 22:41:15.468358  2038 net.cpp:91] Creating Layer drop7
I0922 22:41:15.468364  2038 net.cpp:425] drop7 <- fc7
I0922 22:41:15.468374  2038 net.cpp:386] drop7 -> fc7 (in-place)
I0922 22:41:15.468423  2038 net.cpp:141] Setting up drop7
I0922 22:41:15.468435  2038 net.cpp:148] Top shape: 10 4096 (40960)
I0922 22:41:15.468439  2038 net.cpp:156] Memory required for data: 68601400
I0922 22:41:15.468444  2038 layer_factory.hpp:77] Creating layer fc8
I0922 22:41:15.468453  2038 net.cpp:91] Creating Layer fc8
I0922 22:41:15.468458  2038 net.cpp:425] fc8 <- fc7
I0922 22:41:15.468466  2038 net.cpp:399] fc8 -> fc8
I0922 22:41:15.476095  2044 net.cpp:141] Setting up lstm2_x_transform
I0922 22:41:15.476158  2044 net.cpp:148] Top shape: 1 1 4000 (4000)
I0922 22:41:15.476169  2044 net.cpp:156] Memory required for data: 30020
I0922 22:41:15.476204  2044 layer_factory.hpp:77] Creating layer lstm2_W_xc_x_slice
I0922 22:41:15.476229  2044 net.cpp:91] Creating Layer lstm2_W_xc_x_slice
I0922 22:41:15.476239  2044 net.cpp:425] lstm2_W_xc_x_slice <- W_xc_x
I0922 22:41:15.476254  2044 net.cpp:399] lstm2_W_xc_x_slice -> W_xc_x_1
I0922 22:41:15.476326  2044 net.cpp:141] Setting up lstm2_W_xc_x_slice
I0922 22:41:15.476342  2044 net.cpp:148] Top shape: 1 1 4000 (4000)
I0922 22:41:15.476351  2044 net.cpp:156] Memory required for data: 46020
I0922 22:41:15.476357  2044 layer_factory.hpp:77] Creating layer lstm2_h_conted_0
I0922 22:41:15.476377  2044 net.cpp:91] Creating Layer lstm2_h_conted_0
I0922 22:41:15.476387  2044 net.cpp:425] lstm2_h_conted_0 <- h_0
I0922 22:41:15.476398  2044 net.cpp:425] lstm2_h_conted_0 <- cont_1_lstm2_cont_slice_0_split_0
I0922 22:41:15.476410  2044 net.cpp:399] lstm2_h_conted_0 -> h_conted_0
I0922 22:41:15.476572  2044 net.cpp:141] Setting up lstm2_h_conted_0
I0922 22:41:15.476588  2044 net.cpp:148] Top shape: 1 1 1000 (1000)
I0922 22:41:15.476595  2044 net.cpp:156] Memory required for data: 50020
I0922 22:41:15.476603  2044 layer_factory.hpp:77] Creating layer lstm2_transform_1
I0922 22:41:15.476624  2044 net.cpp:91] Creating Layer lstm2_transform_1
I0922 22:41:15.476632  2044 net.cpp:425] lstm2_transform_1 <- h_conted_0
I0922 22:41:15.476645  2044 net.cpp:399] lstm2_transform_1 -> W_hc_h_0
I0922 22:41:15.488044  2038 net.cpp:141] Setting up fc8
I0922 22:41:15.488101  2038 net.cpp:148] Top shape: 10 1000 (10000)
I0922 22:41:15.488106  2038 net.cpp:156] Memory required for data: 68641400
I0922 22:41:15.488121  2038 layer_factory.hpp:77] Creating layer prob
I0922 22:41:15.488137  2038 net.cpp:91] Creating Layer prob
I0922 22:41:15.488144  2038 net.cpp:425] prob <- fc8
I0922 22:41:15.488155  2038 net.cpp:399] prob -> prob
I0922 22:41:15.488601  2038 net.cpp:141] Setting up prob
I0922 22:41:15.488613  2038 net.cpp:148] Top shape: 10 1000 (10000)
I0922 22:41:15.488618  2038 net.cpp:156] Memory required for data: 68681400
I0922 22:41:15.488625  2038 net.cpp:219] prob does not need backward computation.
I0922 22:41:15.488629  2038 net.cpp:219] fc8 does not need backward computation.
I0922 22:41:15.488634  2038 net.cpp:219] drop7 does not need backward computation.
I0922 22:41:15.488638  2038 net.cpp:219] relu7 does not need backward computation.
…
I0922 22:41:15.488710  2038 net.cpp:219] norm1 does not need backward computation.
I0922 22:41:15.488715  2038 net.cpp:219] pool1 does not need backward computation.
I0922 22:41:15.488719  2038 net.cpp:219] relu1 does not need backward computation.
I0922 22:41:15.488723  2038 net.cpp:219] conv1 does not need backward computation.
I0922 22:41:15.488729  2038 net.cpp:219] data does not need backward computation.
I0922 22:41:15.488734  2038 net.cpp:261] This network produces output prob
I0922 22:41:15.488752  2038 net.cpp:274] Network initialization done.
I0922 22:41:15.527546  2044 net.cpp:141] Setting up lstm2_transform_1
I0922 22:41:15.527601  2044 net.cpp:148] Top shape: 1 1 4000 (4000)
I0922 22:41:15.527611  2044 net.cpp:156] Memory required for data: 66020
I0922 22:41:15.527642  2044 layer_factory.hpp:77] Creating layer lstm2_gate_input_1
I0922 22:41:15.527680  2044 net.cpp:91] Creating Layer lstm2_gate_input_1
I0922 22:41:15.527694  2044 net.cpp:425] lstm2_gate_input_1 <- W_hc_h_0
I0922 22:41:15.527706  2044 net.cpp:425] lstm2_gate_input_1 <- W_xc_x_1
I0922 22:41:15.527721  2044 net.cpp:399] lstm2_gate_input_1 -> gate_input_1
I0922 22:41:15.527802  2044 net.cpp:141] Setting up lstm2_gate_input_1
I0922 22:41:15.527820  2044 net.cpp:148] Top shape: 1 1 4000 (4000)
I0922 22:41:15.527829  2044 net.cpp:156] Memory required for data: 82020
I0922 22:41:15.527838  2044 layer_factory.hpp:77] Creating layer lstm2_unit_1
I0922 22:41:15.527859  2044 net.cpp:91] Creating Layer lstm2_unit_1
I0922 22:41:15.527870  2044 net.cpp:425] lstm2_unit_1 <- c_0
I0922 22:41:15.527884  2044 net.cpp:425] lstm2_unit_1 <- gate_input_1
I0922 22:41:15.527895  2044 net.cpp:425] lstm2_unit_1 <- cont_1_lstm2_cont_slice_0_split_1
I0922 22:41:15.527909  2044 net.cpp:399] lstm2_unit_1 -> c_1
I0922 22:41:15.527927  2044 net.cpp:399] lstm2_unit_1 -> h_1
I0922 22:41:15.528066  2044 net.cpp:141] Setting up lstm2_unit_1
I0922 22:41:15.528087  2044 net.cpp:148] Top shape: 1 1 1000 (1000)
I0922 22:41:15.528101  2044 net.cpp:148] Top shape: 1 1 1000 (1000)
I0922 22:41:15.528110  2044 net.cpp:156] Memory required for data: 90020
I0922 22:41:15.528121  2044 layer_factory.hpp:77] Creating layer lstm2_
I0922 22:41:15.528146  2044 net.cpp:91] Creating Layer lstm2_
I0922 22:41:15.528158  2044 net.cpp:425] lstm2_ <- c_1
I0922 22:41:15.528174  2044 net.cpp:399] lstm2_ -> c_T
I0922 22:41:15.528241  2044 net.cpp:141] Setting up lstm2_
I0922 22:41:15.528260  2044 net.cpp:148] Top shape: 1 1 1000 (1000)
I0922 22:41:15.528271  2044 net.cpp:156] Memory required for data: 94020
I0922 22:41:15.528283  2044 layer_factory.hpp:77] Creating layer lstm2_h_concat
I0922 22:41:15.528301  2044 net.cpp:91] Creating Layer lstm2_h_concat
I0922 22:41:15.528313  2044 net.cpp:425] lstm2_h_concat <- h_1
I0922 22:41:15.528336  2044 net.cpp:399] lstm2_h_concat -> h
I0922 22:41:15.528410  2044 net.cpp:141] Setting up lstm2_h_concat
I0922 22:41:15.528435  2044 net.cpp:148] Top shape: 1 1 1000 (1000)
I0922 22:41:15.528446  2044 net.cpp:156] Memory required for data: 98020
I0922 22:41:15.528456  2044 layer_factory.hpp:77] Creating layer h_pseudoloss
I0922 22:41:15.528473  2044 net.cpp:91] Creating Layer h_pseudoloss
I0922 22:41:15.528484  2044 net.cpp:425] h_pseudoloss <- h
I0922 22:41:15.528501  2044 net.cpp:399] h_pseudoloss -> h_pseudoloss
I0922 22:41:15.528687  2044 net.cpp:141] Setting up h_pseudoloss
…
