…
Java HotSpot(TM) 64-Bit Server VM warning: You have loaded library /tmp/cvld4599723164497051196/libopencv_java310.xine1.so which might have disabled stack guard. The VM will try to fix the stack guard now.
It's highly recommended that you fix the library with 'execstack -c <libfile>', or link it with '-z noexecstack'.
WARNING: Logging before InitGoogleLogging() is written to STDERR
I0714 21:11:26.679803 18575 net.cpp:49] Initializing net from parameters: 
name: "GoogleNet"
state {
  phase: TEST
}
layer {
  name: "data"
  type: "Input"
  top: "data"
  input_param {
    shape {
      dim: 10
      dim: 3
      dim: 224
      dim: 224
    }
  }
}
layer {
  name: "conv1/7x7_s2"
  type: "Convolution"
  bottom: "data"
  top: "conv1/7x7_s2"
  param {
    lr_mult: 1
    decay_mult: 1
  }
  param {
    lr_mult: 2
    decay_mult: 0
  }
  convolution_param {
    num_output: 64
    pad: 3
    kernel_size: 7
    stride: 2
    weight_filler {
      type: "xavier"
      std: 0.1
    }
    bias_filler {
      type: "constant"
      value: 0.2
    }
  }
}
layer {
  name: "conv1/relu_7x7"
  type: "ReLU"
  bottom: "conv1/7x7_s2"
  top: "conv1/7x7_s2"
}
layer {
  name: "pool1/3x3_s2"
  type: "Pooling"
  bottom: "conv1/7x7_s2"
  top: "pool1/3x3_s2"
  pooling_param {
    pool: MAX
    kernel_size: 3
    stride: 2
  }
}
layer {
  name: "pool1/norm1"
  type: "LRN"
  bottom: "pool1/3x3_s2"
  top: "pool1/norm1"
  lrn_param {
    local_size: 5
    alpha: 0.0001
    beta: 0.75
  }
}
layer {
  name: "conv2/3x3_reduce"
  type: "Convolution"
  bottom: "pool1/norm1"
  top: "conv2/3x3_reduce"
  param {
    lr_mult: 1
    decay_mult: 1
  }
  param {
    lr_mult: 2
    decay_mult: 0
  }
  convolution_param {
    num_output: 64
    kernel_size: 1
    weight_filler {
      type: "xavier"
      std: 0.1
    }
    bias_filler {
      type: "constant"
      value: 0.2
    }
  }
}
layer {
  name: "conv2/relu_3x3_reduce"
  type: "ReLU"
  bottom: "conv2/3x3_reduce"
  top: "conv2/3x3_reduce"
}
layer {
  name: "conv2/3x3"
  type: "Convolution"
  bottom: "conv2/3x3_reduce"
  top: "conv2/3x3"
  param {
    lr_mult: 1
    decay_mult: 1
  }
  param {
    lr_mult: 2
    decay_mult: 0
  }
  convolution_param {
    num_output: 192
    pad: 1
    kernel_size: 3
    weight_filler {
      type: "xavier"
      std: 0.03
    }
    bias_filler {
      type: "constant"
      value: 0.2
    }
  }
}
layer {
  name: "conv2/relu_3x3"
  type: "ReLU"
  bottom: "conv2/3x3"
  top: "conv2/3x3"
}
layer {
  name: "conv2/norm2"
  type: "LRN"
  bottom: "conv2/3x3"
  top: "conv2/norm2"
  lrn_param {
    local_size: 5
    alpha: 0.0001
    beta: 0.75
  }
}
layer {
  name: "pool2/3x3_s2"
  type: "Pooling"
  bottom: "conv2/norm2"
  top: "pool2/3x3_s2"
  pooling_param {
    pool: MAX
    kernel_size: 3
    stride: 2
  }
}
layer {
  name: "inception_3a/1x1"
  type: "Convolution"
  bottom: "pool2/3x3_s2"
  top: "inception_3a/1x1"
  param {
    lr_mult: 1
    decay_mult: 1
  }
  param {
    lr_mult: 2
    decay_mult: 0
  }
  convolution_param {
    num_output: 64
    kernel_size: 1
    weight_filler {
      type: "xavier"
      std: 0.03
    }
    bias_filler {
      type: "constant"
      value: 0.2
    }
  }
}
layer {
  name: "inception_3a/relu_1x1"
  type: "ReLU"
  bottom: "inception_3a/1x1"
  top: "inception_3a/1x1"
}
layer {
  name: "inception_3a/3x3_reduce"
  type: "Convolution"
  bottom: "pool2/3x3_s2"
  top: "inception_3a/3x3_reduce"
  param {
    lr_mult: 1
    decay_mult: 1
  }
  param {
    lr_mult: 2
    decay_mult: 0
  }
  convolution_param {
    num_output: 96
    kernel_size: 1
    weight_filler {
      type: "xavier"
      std: 0.09
    }
    bias_filler {
      type: "constant"
      value: 0.2
    }
  }
}
layer {
  name: "inception_3a/relu_3x3_reduce"
  type: "ReLU"
  bottom: "inception_3a/3x3_reduce"
  top: "inception_3a/3x3_reduce"
}
layer {
  name: "inception_3a/3x3"
  type: "Convolution"
  bottom: "inception_3a/3x3_reduce"
  top: "inception_3a/3x3"
  param {
    lr_mult: 1
    decay_mult: 1
  }
  param {
    lr_mult: 2
    decay_mult: 0
  }
  convolution_param {
    num_output: 128
    pad: 1
    kernel_size: 3
    weight_filler {
      type: "xavier"
      std: 0.03
    }
    bias_filler {
      type: "constant"
      value: 0.2
    }
  }
}
layer {
  name: "inception_3a/relu_3x3"
  type: "ReLU"
  bottom: "inception_3a/3x3"
  top: "inception_3a/3x3"
}
layer {
  name: "inception_3a/5x5_reduce"
  type: "Convolution"
  bottom: "pool2/3x3_s2"
  top: "inception_3a/5x5_reduce"
  param {
    lr_mult: 1
    decay_mult: 1
  }
  param {
    lr_mult: 2
    decay_mult: 0
  }
  convolution_param {
    num_output: 16
    kernel_size: 1
    weight_filler {
      type: "xavier"
      std: 0.2
    }
    bias_filler {
      type: "constant"
      value: 0.2
    }
  }
}
layer {
  name: "inception_3a/relu_5x5_reduce"
  type: "ReLU"
  bottom: "inception_3a/5x5_reduce"
  top: "inception_3a/5x5_reduce"
}
layer {
  name: "inception_3a/5x5"
  type: "Convolution"
  bottom: "inception_3a/5x5_reduce"
  top: "inception_3a/5x5"
  param {
    lr_mult: 1
    decay_mult: 1
  }
  param {
    lr_mult: 2
    decay_mult: 0
  }
  convolution_param {
    num_output: 32
    pad: 2
    kernel_size: 5
    weight_filler {
      type: "xavier"
      std: 0.03
    }
    bias_filler {
      type: "constant"
      value: 0.2
    }
  }
}
layer {
  name: "inception_3a/relu_5x5"
  type: "ReLU"
  bottom: "inception_3a/5x5"
  top: "inception_3a/5x5"
}
layer {
  name: "inception_3a/pool"
  type: "Pooling"
  bottom: "pool2/3x3_s2"
  top: "inception_3a/pool"
  pooling_param {
    pool: MAX
    kernel_size: 3
    stride: 1
    pad: 1
  }
}
layer {
  name: "inception_3a/pool_proj"
  type: "Convolution"
  bottom: "inception_3a/pool"
  top: "inception_3a/pool_proj"
  param {
    lr_mult: 1
    decay_mult: 1
  }
  param {
    lr_mult: 2
    decay_mult: 0
  }
  convolution_param {
    num_output: 32
    kernel_size: 1
    weight_filler {
      type: "xavier"
      std: 0.1
    }
    bias_filler {
      type: "constant"
      value: 0.2
    }
  }
}
layer {
  name: "inception_3a/relu_pool_proj"
  type: "ReLU"
  bottom: "inception_3a/pool_proj"
  top: "inception_3a/pool_proj"
}
layer {
  name: "inception_3a/output"
  type: "Concat"
  bottom: "inception_3a/1x1"
  bottom: "inception_3a/3x3"
  bottom: "inception_3a/5x5"
  bottom: "inception_3a/pool_proj"
  top: "inception_3a/output"
}
layer {
  name: "inception_3b/1x1"
  type: "Convolution"
  bottom: "inception_3a/output"
  top: "inception_3b/1x1"
  param {
    lr_mult: 1
    decay_mult: 1
  }
  param {
    lr_mult: 2
    decay_mult: 0
  }
  convolution_param {
    num_output: 128
    kernel_size: 1
    weight_filler {
      type: "xavier"
      std: 0.03
    }
    bias_filler {
      type: "constant"
      value: 0.2
    }
  }
}
layer {
  name: "inception_3b/relu_1x1"
  type: "ReLU"
  bottom: "inception_3b/1x1"
  top: "inception_3b/1x1"
}
layer {
  name: "inception_3b/3x3_reduce"
  type: "Convolution"
  bottom: "inception_3a/output"
  top: "inception_3b/3x3_reduce"
  param {
    lr_mult: 1
    decay_mult: 1
  }
  param {
    lr_mult: 2
    decay_mult: 0
  }
  convolution_param {
    num_output: 128
    kernel_size: 1
    weight_filler {
      type: "xavier"
      std: 0.09
    }
    bias_filler {
      type: "constant"
      value: 0.2
    }
  }
}
layer {
  name: "inception_3b/relu_3x3_reduce"
  type: "ReLU"
  bottom: "inception_3b/3x3_reduce"
  top: "inception_3b/3x3_reduce"
}
layer {
  name: "inception_3b/3x3"
  type: "Convolution"
  bottom: "inception_3b/3x3_reduce"
  top: "inception_3b/3x3"
  param {
    lr_mult: 1
    decay_mult: 1
  }
  param {
    lr_mult: 2
    decay_mult: 0
  }
  convolution_param {
    num_output: 192
    pad: 1
    kernel_size: 3
    weight_filler {
      type: "xavier"
      std: 0.03
    }
    bias_filler {
      type: "constant"
      value: 0.2
    }
  }
}
layer {
  name: "inception_3b/relu_3x3"
  type: "ReLU"
  bottom: "inception_3b/3x3"
  top: "inception_3b/3x3"
}
layer {
  name: "inception_3b/5x5_reduce"
  type: "Convolution"
  bottom: "inception_3a/output"
  top: "inception_3b/5x5_reduce"
  param {
    lr_mult: 1
    decay_mult: 1
  }
  param {
    lr_mult: 2
    decay_mult: 0
  }
  convolution_param {
    num_output: 32
    kernel_size: 1
    weight_filler {
      type: "xavier"
      std: 0.2
    }
    bias_filler {
      type: "constant"
      value: 0.2
    }
  }
}
layer {
  name: "inception_3b/relu_5x5_reduce"
  type: "ReLU"
  bottom: "inception_3b/5x5_reduce"
  top: "inception_3b/5x5_reduce"
}
layer {
  name: "inception_3b/5x5"
  type: "Convolution"
  bottom: "inception_3b/5x5_reduce"
  top: "inception_3b/5x5"
  param {
    lr_mult: 1
    decay_mult: 1
  }
  param {
    lr_mult: 2
    decay_mult: 0
  }
  convolution_param {
    num_output: 96
    pad: 2
    kernel_size: 5
    weight_filler {
      type: "xavier"
      std: 0.03
    }
    bias_filler {
      type: "constant"
      value: 0.2
    }
  }
}
layer {
  name: "inception_3b/relu_5x5"
  type: "ReLU"
  bottom: "inception_3b/5x5"
  top: "inception_3b/5x5"
}
layer {
  name: "inception_3b/pool"
  type: "Pooling"
  bottom: "inception_3a/output"
  top: "inception_3b/pool"
  pooling_param {
    pool: MAX
    kernel_size: 3
    stride: 1
    pad: 1
  }
}
layer {
  name: "inception_3b/pool_proj"
  type: "Convolution"
  bottom: "inception_3b/pool"
  top: "inception_3b/pool_proj"
  param {
    lr_mult: 1
    decay_mult: 1
  }
  param {
    lr_mult: 2
    decay_mult: 0
  }
  convolution_param {
    num_output: 64
    kernel_size: 1
    weight_filler {
      type: "xavier"
      std: 0.1
    }
    bias_filler {
      type: "constant"
      value: 0.2
    }
  }
}
layer {
  name: "inception_3b/relu_pool_proj"
  type: "ReLU"
  bottom: "inception_3b/pool_proj"
  top: "inception_3b/pool_proj"
}
layer {
  name: "inception_3b/output"
  type: "Concat"
  bottom: "inception_3b/1x1"
  bottom: "inception_3b/3x3"
  bottom: "inception_3b/5x5"
  bottom: "inception_3b/pool_proj"
  top: "inception_3b/output"
}
layer {
  name: "pool3/3x3_s2"
  type: "Pooling"
  bottom: "inception_3b/output"
  top: "pool3/3x3_s2"
  pooling_param {
    pool: MAX
    kernel_size: 3
    stride: 2
  }
}
layer {
  name: "inception_4a/1x1"
  type: "Convolution"
  bottom: "pool3/3x3_s2"
  top: "inception_4a/1x1"
  param {
    lr_mult: 1
    decay_mult: 1
  }
  param {
    lr_mult: 2
    decay_mult: 0
  }
  convolution_param {
    num_output: 192
    kernel_size: 1
    weight_filler {
      type: "xavier"
      std: 0.03
    }
    bias_filler {
      type: "constant"
      value: 0.2
    }
  }
}
layer {
  name: "inception_4a/relu_1x1"
  type: "ReLU"
  bottom: "inception_4a/1x1"
  top: "inception_4a/1x1"
}
layer {
  name: "inception_4a/3x3_reduce"
  type: "Convolution"
  bottom: "pool3/3x3_s2"
  top: "inception_4a/3x3_reduce"
  param {
    lr_mult: 1
    decay_mult: 1
  }
  param {
    lr_mult: 2
    decay_mult: 0
  }
  convolution_param {
    num_output: 96
    kernel_size: 1
    weight_filler {
      type: "xavier"
      std: 0.09
    }
    bias_filler {
      type: "constant"
      value: 0.2
    }
  }
}
layer {
  name: "inception_4a/relu_3x3_reduce"
  type: "ReLU"
  bottom: "inception_4a/3x3_reduce"
  top: "inception_4a/3x3_reduce"
}
layer {
  name: "inception_4a/3x3"
  type: "Convolution"
  bottom: "inception_4a/3x3_reduce"
  top: "inception_4a/3x3"
  param {
    lr_mult: 1
    decay_mult: 1
  }
  param {
    lr_mult: 2
    decay_mult: 0
  }
  convolution_param {
    num_output: 208
    pad: 1
    kernel_size: 3
    weight_filler {
      type: "xavier"
      std: 0.03
    }
    bias_filler {
      type: "constant"
      value: 0.2
    }
  }
}
layer {
  name: "inception_4a/relu_3x3"
  type: "ReLU"
  bottom: "inception_4a/3x3"
  top: "inception_4a/3x3"
}
layer {
  name: "inception_4a/5x5_reduce"
  type: "Convolution"
  bottom: "pool3/3x3_s2"
  top: "inception_4a/5x5_reduce"
  param {
    lr_mult: 1
    decay_mult: 1
  }
  param {
    lr_mult: 2
    decay_mult: 0
  }
  convolution_param {
    num_output: 16
    kernel_size: 1
    weight_filler {
      type: "xavier"
      std: 0.2
    }
    bias_filler {
      type: "constant"
      value: 0.2
    }
  }
}
layer {
  name: "inception_4a/relu_5x5_reduce"
  type: "ReLU"
  bottom: "inception_4a/5x5_reduce"
  top: "inception_4a/5x5_reduce"
}
layer {
  name: "inception_4a/5x5"
  type: "Convolution"
  bottom: "inception_4a/5x5_reduce"
  top: "inception_4a/5x5"
  param {
    lr_mult: 1
    decay_mult: 1
  }
  param {
    lr_mult: 2
    decay_mult: 0
  }
  convolution_param {
    num_output: 48
    pad: 2
    kernel_size: 5
    weight_filler {
      type: "xavier"
      std: 0.03
    }
    bias_filler {
      type: "constant"
      value: 0.2
    }
  }
}
layer {
  name: "inception_4a/relu_5x5"
  type: "ReLU"
  bottom: "inception_4a/5x5"
  top: "inception_4a/5x5"
}
layer {
  name: "inception_4a/pool"
  type: "Pooling"
  bottom: "pool3/3x3_s2"
  top: "inception_4a/pool"
  pooling_param {
    pool: MAX
    kernel_size: 3
    stride: 1
    pad: 1
  }
}
layer {
  name: "inception_4a/pool_proj"
  type: "Convolution"
  bottom: "inception_4a/pool"
  top: "inception_4a/pool_proj"
  param {
    lr_mult: 1
    decay_mult: 1
  }
  param {
    lr_mult: 2
    decay_mult: 0
  }
  convolution_param {
    num_output: 64
    kernel_size: 1
    weight_filler {
      type: "xavier"
      std: 0.1
    }
    bias_filler {
      type: "constant"
      value: 0.2
    }
  }
}
layer {
  name: "inception_4a/relu_pool_proj"
  type: "ReLU"
  bottom: "inception_4a/pool_proj"
  top: "inception_4a/pool_proj"
}
layer {
  name: "inception_4a/output"
  type: "Concat"
  bottom: "inception_4a/1x1"
  bottom: "inception_4a/3x3"
  bottom: "inception_4a/5x5"
  bottom: "inception_4a/pool_proj"
  top: "inception_4a/output"
}
layer {
  name: "inception_4b/1x1"
  type: "Convolution"
  bottom: "inception_4a/output"
  top: "inception_4b/1x1"
  param {
    lr_mult: 1
    decay_mult: 1
  }
  param {
    lr_mult: 2
    decay_mult: 0
  }
  convolution_param {
    num_output: 160
    kernel_size: 1
    weight_filler {
      type: "xavier"
      std: 0.03
    }
    bias_filler {
      type: "constant"
      value: 0.2
    }
  }
}
layer {
  name: "inception_4b/relu_1x1"
  type: "ReLU"
  bottom: "inception_4b/1x1"
  top: "inception_4b/1x1"
}
layer {
  name: "inception_4b/3x3_reduce"
  type: "Convolution"
  bottom: "inception_4a/output"
  top: "inception_4b/3x3_reduce"
  param {
    lr_mult: 1
    decay_mult: 1
  }
  param {
    lr_mult: 2
    decay_mult: 0
  }
  convolution_param {
    num_output: 112
    kernel_size: 1
    weight_filler {
      type: "xavier"
      std: 0.09
    }
    bias_filler {
      type: "constant"
      value: 0.2
    }
  }
}
layer {
  name: "inception_4b/relu_3x3_reduce"
  type: "ReLU"
  bottom: "inception_4b/3x3_reduce"
  top: "inception_4b/3x3_reduce"
}
layer {
  name: "inception_4b/3x3"
  type: "Convolution"
  bottom: "inception_4b/3x3_reduce"
  top: "inception_4b/3x3"
  param {
    lr_mult: 1
    decay_mult: 1
  }
  param {
    lr_mult: 2
    decay_mult: 0
  }
  convolution_param {
    num_output: 224
    pad: 1
    kernel_size: 3
    weight_filler {
      type: "xavier"
      std: 0.03
    }
    bias_filler {
      type: "constant"
      value: 0.2
    }
  }
}
layer {
  name: "inception_4b/relu_3x3"
  type: "ReLU"
  bottom: "inception_4b/3x3"
  top: "inception_4b/3x3"
}
layer {
  name: "inception_4b/5x5_reduce"
  type: "Convolution"
  bottom: "inception_4a/output"
  top: "inception_4b/5x5_reduce"
  param {
    lr_mult: 1
    decay_mult: 1
  }
  param {
    lr_mult: 2
    decay_mult: 0
  }
  convolution_param {
    num_output: 24
    kernel_size: 1
    weight_filler {
      type: "xavier"
      std: 0.2
    }
    bias_filler {
      type: "constant"
      value: 0.2
    }
  }
}
layer {
  name: "inception_4b/relu_5x5_reduce"
  type: "ReLU"
  bottom: "inception_4b/5x5_reduce"
  top: "inception_4b/5x5_reduce"
}
layer {
  name: "inception_4b/5x5"
  type: "Convolution"
  bottom: "inception_4b/5x5_reduce"
  top: "inception_4b/5x5"
  param {
    lr_mult: 1
    decay_mult: 1
  }
  param {
    lr_mult: 2
    decay_mult: 0
  }
  convolution_param {
    num_output: 64
    pad: 2
    kernel_size: 5
    weight_filler {
      type: "xavier"
      std: 0.03
    }
    bias_filler {
      type: "constant"
      value: 0.2
    }
  }
}
layer {
  name: "inception_4b/relu_5x5"
  type: "ReLU"
  bottom: "inception_4b/5x5"
  top: "inception_4b/5x5"
}
layer {
  name: "inception_4b/pool"
  type: "Pooling"
  bottom: "inception_4a/output"
  top: "inception_4b/pool"
  pooling_param {
    pool: MAX
    kernel_size: 3
    stride: 1
    pad: 1
  }
}
layer {
  name: "inception_4b/pool_proj"
  type: "Convolution"
  bottom: "inception_4b/pool"
  top: "inception_4b/pool_proj"
  param {
    lr_mult: 1
    decay_mult: 1
  }
  param {
    lr_mult: 2
    decay_mult: 0
  }
  convolution_param {
    num_output: 64
    kernel_size: 1
    weight_filler {
      type: "xavier"
      std: 0.1
    }
    bias_filler {
      type: "constant"
      value: 0.2
    }
  }
}
layer {
  name: "inception_4b/relu_pool_proj"
  type: "ReLU"
  bottom: "inception_4b/pool_proj"
  top: "inception_4b/pool_proj"
}
layer {
  name: "inception_4b/output"
  type: "Concat"
  bottom: "inception_4b/1x1"
  bottom: "inception_4b/3x3"
  bottom: "inception_4b/5x5"
  bottom: "inception_4b/pool_proj"
  top: "inception_4b/output"
}
layer {
  name: "inception_4c/1x1"
  type: "Convolution"
  bottom: "inception_4b/output"
  top: "inception_4c/1x1"
  param {
    lr_mult: 1
    decay_mult: 1
  }
  param {
    lr_mult: 2
    decay_mult: 0
  }
  convolution_param {
    num_output: 128
    kernel_size: 1
    weight_filler {
      type: "xavier"
      std: 0.03
    }
    bias_filler {
      type: "constant"
      value: 0.2
    }
  }
}
layer {
  name: "inception_4c/relu_1x1"
  type: "ReLU"
  bottom: "inception_4c/1x1"
  top: "inception_4c/1x1"
}
layer {
  name: "inception_4c/3x3_reduce"
  type: "Convolution"
  bottom: "inception_4b/output"
  top: "inception_4c/3x3_reduce"
  param {
    lr_mult: 1
    decay_mult: 1
  }
  param {
    lr_mult: 2
    decay_mult: 0
  }
  convolution_param {
    num_output: 128
    kernel_size: 1
    weight_filler {
      type: "xavier"
      std: 0.09
    }
    bias_filler {
      type: "constant"
      value: 0.2
    }
  }
}
layer {
  name: "inception_4c/relu_3x3_reduce"
  type: "ReLU"
  bottom: "inception_4c/3x3_reduce"
  top: "inception_4c/3x3_reduce"
}
layer {
  name: "inception_4c/3x3"
  type: "Convolution"
  bottom: "inception_4c/3x3_reduce"
  top: "inception_4c/3x3"
  param {
    lr_mult: 1
    decay_mult: 1
  }
  param {
    lr_mult: 2
    decay_mult: 0
  }
  convolution_param {
    num_output: 256
    pad: 1
    kernel_size: 3
    weight_filler {
      type: "xavier"
      std: 0.03
    }
    bias_filler {
      type: "constant"
      value: 0.2
    }
  }
}
layer {
  name: "inception_4c/relu_3x3"
  type: "ReLU"
  bottom: "inception_4c/3x3"
  top: "inception_4c/3x3"
}
layer {
  name: "inception_4c/5x5_reduce"
  type: "Convolution"
  bottom: "inception_4b/output"
  top: "inception_4c/5x5_reduce"
  param {
    lr_mult: 1
    decay_mult: 1
  }
  param {
    lr_mult: 2
    decay_mult: 0
  }
  convolution_param {
    num_output: 24
    kernel_size: 1
    weight_filler {
      type: "xavier"
      std: 0.2
    }
    bias_filler {
      type: "constant"
      value: 0.2
    }
  }
}
layer {
  name: "inception_4c/relu_5x5_reduce"
  type: "ReLU"
  bottom: "inception_4c/5x5_reduce"
  top: "inception_4c/5x5_reduce"
}
layer {
  name: "inception_4c/5x5"
  type: "Convolution"
  bottom: "inception_4c/5x5_reduce"
  top: "inception_4c/5x5"
  param {
    lr_mult: 1
    decay_mult: 1
  }
  param {
    lr_mult: 2
    decay_mult: 0
  }
  convolution_param {
    num_output: 64
    pad: 2
    kernel_size: 5
    weight_filler {
      type: "xavier"
      std: 0.03
    }
    bias_filler {
      type: "constant"
      value: 0.2
    }
  }
}
layer {
  name: "inception_4c/relu_5x5"
  type: "ReLU"
  bottom: "inception_4c/5x5"
  top: "inception_4c/5x5"
}
layer {
  name: "inception_4c/pool"
  type: "Pooling"
  bottom: "inception_4b/output"
  top: "inception_4c/pool"
  pooling_param {
    pool: MAX
    kernel_size: 3
    stride: 1
    pad: 1
  }
}
layer {
  name: "inception_4c/pool_proj"
  type: "Convolution"
  bottom: "inception_4c/pool"
  top: "inception_4c/pool_proj"
  param {
    lr_mult: 1
    decay_mult: 1
  }
  param {
    lr_mult: 2
    decay_mult: 0
  }
  convolution_param {
    num_output: 64
    kernel_size: 1
    weight_filler {
      type: "xavier"
      std: 0.1
    }
    bias_filler {
      type: "constant"
      value: 0.2
    }
  }
}
layer {
  name: "inception_4c/relu_pool_proj"
  type: "ReLU"
  bottom: "inception_4c/pool_proj"
  top: "inception_4c/pool_proj"
}
layer {
  name: "inception_4c/output"
  type: "Concat"
  bottom: "inception_4c/1x1"
  bottom: "inception_4c/3x3"
  bottom: "inception_4c/5x5"
  bottom: "inception_4c/pool_proj"
  top: "inception_4c/output"
}
layer {
  name: "inception_4d/1x1"
  type: "Convolution"
  bottom: "inception_4c/output"
  top: "inception_4d/1x1"
  param {
    lr_mult: 1
    decay_mult: 1
  }
  param {
    lr_mult: 2
    decay_mult: 0
  }
  convolution_param {
    num_output: 112
    kernel_size: 1
    weight_filler {
      type: "xavier"
      std: 0.03
    }
    bias_filler {
      type: "constant"
      value: 0.2
    }
  }
}
layer {
  name: "inception_4d/relu_1x1"
  type: "ReLU"
  bottom: "inception_4d/1x1"
  top: "inception_4d/1x1"
}
layer {
  name: "inception_4d/3x3_reduce"
  type: "Convolution"
  bottom: "inception_4c/output"
  top: "inception_4d/3x3_reduce"
  param {
    lr_mult: 1
    decay_mult: 1
  }
  param {
    lr_mult: 2
    decay_mult: 0
  }
  convolution_param {
    num_output: 144
    kernel_size: 1
    weight_filler {
      type: "xavier"
      std: 0.09
    }
    bias_filler {
      type: "constant"
      value: 0.2
    }
  }
}
layer {
  name: "inception_4d/relu_3x3_reduce"
  type: "ReLU"
  bottom: "inception_4d/3x3_reduce"
  top: "inception_4d/3x3_reduce"
}
layer {
  name: "inception_4d/3x3"
  type: "Convolution"
  bottom: "inception_4d/3x3_reduce"
  top: "inception_4d/3x3"
  param {
    lr_mult: 1
    decay_mult: 1
  }
  param {
    lr_mult: 2
    decay_mult: 0
  }
  convolution_param {
    num_output: 288
    pad: 1
    kernel_size: 3
    weight_filler {
      type: "xavier"
      std: 0.03
    }
    bias_filler {
      type: "constant"
      value: 0.2
    }
  }
}
layer {
  name: "inception_4d/relu_3x3"
  type: "ReLU"
  bottom: "inception_4d/3x3"
  top: "inception_4d/3x3"
}
layer {
  name: "inception_4d/5x5_reduce"
  type: "Convolution"
  bottom: "inception_4c/output"
  top: "inception_4d/5x5_reduce"
  param {
    lr_mult: 1
    decay_mult: 1
  }
  param {
    lr_mult: 2
    decay_mult: 0
  }
  convolution_param {
    num_output: 32
    kernel_size: 1
    weight_filler {
      type: "xavier"
      std: 0.2
    }
    bias_filler {
      type: "constant"
      value: 0.2
    }
  }
}
layer {
  name: "inception_4d/relu_5x5_reduce"
  type: "ReLU"
  bottom: "inception_4d/5x5_reduce"
  top: "inception_4d/5x5_reduce"
}
layer {
  name: "inception_4d/5x5"
  type: "Convolution"
  bottom: "inception_4d/5x5_reduce"
  top: "inception_4d/5x5"
  param {
    lr_mult: 1
    decay_mult: 1
  }
  param {
    lr_mult: 2
    decay_mult: 0
  }
  convolution_param {
    num_output: 64
    pad: 2
    kernel_size: 5
    weight_filler {
      type: "xavier"
      std: 0.03
    }
    bias_filler {
      type: "constant"
      value: 0.2
    }
  }
}
layer {
  name: "inception_4d/relu_5x5"
  type: "ReLU"
  bottom: "inception_4d/5x5"
  top: "inception_4d/5x5"
}
layer {
  name: "inception_4d/pool"
  type: "Pooling"
  bottom: "inception_4c/output"
  top: "inception_4d/pool"
  pooling_param {
    pool: MAX
    kernel_size: 3
    stride: 1
    pad: 1
  }
}
layer {
  name: "inception_4d/pool_proj"
  type: "Convolution"
  bottom: "inception_4d/pool"
  top: "inception_4d/pool_proj"
  param {
    lr_mult: 1
    decay_mult: 1
  }
  param {
    lr_mult: 2
    decay_mult: 0
  }
  convolution_param {
    num_output: 64
    kernel_size: 1
    weight_filler {
      type: "xavier"
      std: 0.1
    }
    bias_filler {
      type: "constant"
      value: 0.2
    }
  }
}
layer {
  name: "inception_4d/relu_pool_proj"
  type: "ReLU"
  bottom: "inception_4d/pool_proj"
  top: "inception_4d/pool_proj"
}
layer {
  name: "inception_4d/output"
  type: "Concat"
  bottom: "inception_4d/1x1"
  bottom: "inception_4d/3x3"
  bottom: "inception_4d/5x5"
  bottom: "inception_4d/pool_proj"
  top: "inception_4d/output"
}
layer {
  name: "inception_4e/1x1"
  type: "Convolution"
  bottom: "inception_4d/output"
  top: "inception_4e/1x1"
  param {
    lr_mult: 1
    decay_mult: 1
  }
  param {
    lr_mult: 2
    decay_mult: 0
  }
  convolution_param {
    num_output: 256
    kernel_size: 1
    weight_filler {
      type: "xavier"
      std: 0.03
    }
    bias_filler {
      type: "constant"
      value: 0.2
    }
  }
}
layer {
  name: "inception_4e/relu_1x1"
  type: "ReLU"
  bottom: "inception_4e/1x1"
  top: "inception_4e/1x1"
}
layer {
  name: "inception_4e/3x3_reduce"
  type: "Convolution"
  bottom: "inception_4d/output"
  top: "inception_4e/3x3_reduce"
  param {
    lr_mult: 1
    decay_mult: 1
  }
  param {
    lr_mult: 2
    decay_mult: 0
  }
  convolution_param {
    num_output: 160
    kernel_size: 1
    weight_filler {
      type: "xavier"
      std: 0.09
    }
    bias_filler {
      type: "constant"
      value: 0.2
    }
  }
}
layer {
  name: "inception_4e/relu_3x3_reduce"
  type: "ReLU"
  bottom: "inception_4e/3x3_reduce"
  top: "inception_4e/3x3_reduce"
}
layer {
  name: "inception_4e/3x3"
  type: "Convolution"
  bottom: "inception_4e/3x3_reduce"
  top: "inception_4e/3x3"
  param {
    lr_mult: 1
    decay_mult: 1
  }
  param {
    lr_mult: 2
    decay_mult: 0
  }
  convolution_param {
    num_output: 320
    pad: 1
    kernel_size: 3
    weight_filler {
      type: "xavier"
      std: 0.03
    }
    bias_filler {
      type: "constant"
      value: 0.2
    }
  }
}
layer {
  name: "inception_4e/relu_3x3"
  type: "ReLU"
  bottom: "inception_4e/3x3"
  top: "inception_4e/3x3"
}
layer {
  name: "inception_4e/5x5_reduce"
  type: "Convolution"
  bottom: "inception_4d/output"
  top: "inception_4e/5x5_reduce"
  param {
    lr_mult: 1
    decay_mult: 1
  }
  param {
    lr_mult: 2
    decay_mult: 0
  }
  convolution_param {
    num_output: 32
    kernel_size: 1
    weight_filler {
      type: "xavier"
      std: 0.2
    }
    bias_filler {
      type: "constant"
      value: 0.2
    }
  }
}
layer {
  name: "inception_4e/relu_5x5_reduce"
  type: "ReLU"
  bottom: "inception_4e/5x5_reduce"
  top: "inception_4e/5x5_reduce"
}
layer {
  name: "inception_4e/5x5"
  type: "Convolution"
  bottom: "inception_4e/5x5_reduce"
  top: "inception_4e/5x5"
  param {
    lr_mult: 1
    decay_mult: 1
  }
  param {
    lr_mult: 2
    decay_mult: 0
  }
  convolution_param {
    num_output: 128
    pad: 2
    kernel_size: 5
    weight_filler {
      type: "xavier"
      std: 0.03
    }
    bias_filler {
      type: "constant"
      value: 0.2
    }
  }
}
layer {
  name: "inception_4e/relu_5x5"
  type: "ReLU"
  bottom: "inception_4e/5x5"
  top: "inception_4e/5x5"
}
layer {
  name: "inception_4e/pool"
  type: "Pooling"
  bottom: "inception_4d/output"
  top: "inception_4e/pool"
  pooling_param {
    pool: MAX
    kernel_size: 3
    stride: 1
    pad: 1
  }
}
layer {
  name: "inception_4e/pool_proj"
  type: "Convolution"
  bottom: "inception_4e/pool"
  top: "inception_4e/pool_proj"
  param {
    lr_mult: 1
    decay_mult: 1
  }
  param {
    lr_mult: 2
    decay_mult: 0
  }
  convolution_param {
    num_output: 128
    kernel_size: 1
    weight_filler {
      type: "xavier"
      std: 0.1
    }
    bias_filler {
      type: "constant"
      value: 0.2
    }
  }
}
layer {
  name: "inception_4e/relu_pool_proj"
  type: "ReLU"
  bottom: "inception_4e/pool_proj"
  top: "inception_4e/pool_proj"
}
layer {
  name: "inception_4e/output"
  type: "Concat"
  bottom: "inception_4e/1x1"
  bottom: "inception_4e/3x3"
  bottom: "inception_4e/5x5"
  bottom: "inception_4e/pool_proj"
  top: "inception_4e/output"
}
layer {
  name: "pool4/3x3_s2"
  type: "Pooling"
  bottom: "inception_4e/output"
  top: "pool4/3x3_s2"
  pooling_param {
    pool: MAX
    kernel_size: 3
    stride: 2
  }
}
layer {
  name: "inception_5a/1x1"
  type: "Convolution"
  bottom: "pool4/3x3_s2"
  top: "inception_5a/1x1"
  param {
    lr_mult: 1
    decay_mult: 1
  }
  param {
    lr_mult: 2
    decay_mult: 0
  }
  convolution_param {
    num_output: 256
    kernel_size: 1
    weight_filler {
      type: "xavier"
      std: 0.03
    }
    bias_filler {
      type: "constant"
      value: 0.2
    }
  }
}
layer {
  name: "inception_5a/relu_1x1"
  type: "ReLU"
  bottom: "inception_5a/1x1"
  top: "inception_5a/1x1"
}
layer {
  name: "inception_5a/3x3_reduce"
  type: "Convolution"
  bottom: "pool4/3x3_s2"
  top: "inception_5a/3x3_reduce"
  param {
    lr_mult: 1
    decay_mult: 1
  }
  param {
    lr_mult: 2
    decay_mult: 0
  }
  convolution_param {
    num_output: 160
    kernel_size: 1
    weight_filler {
      type: "xavier"
      std: 0.09
    }
    bias_filler {
      type: "constant"
      value: 0.2
    }
  }
}
layer {
  name: "inception_5a/relu_3x3_reduce"
  type: "ReLU"
  bottom: "inception_5a/3x3_reduce"
  top: "inception_5a/3x3_reduce"
}
layer {
  name: "inception_5a/3x3"
  type: "Convolution"
  bottom: "inception_5a/3x3_reduce"
  top: "inception_5a/3x3"
  param {
    lr_mult: 1
    decay_mult: 1
  }
  param {
    lr_mult: 2
    decay_mult: 0
  }
  convolution_param {
    num_output: 320
    pad: 1
    kernel_size: 3
    weight_filler {
      type: "xavier"
      std: 0.03
    }
    bias_filler {
      type: "constant"
      value: 0.2
    }
  }
}
layer {
  name: "inception_5a/relu_3x3"
  type: "ReLU"
  bottom: "inception_5a/3x3"
  top: "inception_5a/3x3"
}
layer {
  name: "inception_5a/5x5_reduce"
  type: "Convolution"
  bottom: "pool4/3x3_s2"
  top: "inception_5a/5x5_reduce"
  param {
    lr_mult: 1
    decay_mult: 1
  }
  param {
    lr_mult: 2
    decay_mult: 0
  }
  convolution_param {
    num_output: 32
    kernel_size: 1
    weight_filler {
      type: "xavier"
      std: 0.2
    }
    bias_filler {
      type: "constant"
      value: 0.2
    }
I0714 21:11:26.680778 18575 layer_factory.hpp:77] Creating layer data
I0714 21:11:26.680807 18575 net.cpp:91] Creating Layer data
I0714 21:11:26.680819 18575 net.cpp:399] data -> data
I0714 21:11:26.695776 18571 net.cpp:49] Initializing net from parameters: 
name: "GoogleNet"
state {
  phase: TEST
}
layer {
  name: "data"
  type: "Input"
  top: "data"
  input_param {
    shape {
      dim: 10
      dim: 3
      dim: 224
      dim: 224
    }
  }
}
layer {
  name: "conv1/7x7_s2"
  type: "Convolution"
  bottom: "data"
  top: "conv1/7x7_s2"
  param {
    lr_mult: 1
    decay_mult: 1
  }
  param {
    lr_mult: 2
    decay_mult: 0
  }
  convolution_param {
    num_output: 64
    pad: 3
    kernel_size: 7
    stride: 2
    weight_filler {
      type: "xavier"
      std: 0.1
    }
    bias_filler {
      type: "constant"
      value: 0.2
    }
  }
}
layer {
  name: "conv1/relu_7x7"
  type: "ReLU"
  bottom: "conv1/7x7_s2"
  top: "conv1/7x7_s2"
}
layer {
  name: "pool1/3x3_s2"
  type: "Pooling"
  bottom: "conv1/7x7_s2"
  top: "pool1/3x3_s2"
  pooling_param {
    pool: MAX
    kernel_size: 3
    stride: 2
  }
}
layer {
  name: "pool1/norm1"
  type: "LRN"
  bottom: "pool1/3x3_s2"
  top: "pool1/norm1"
  lrn_param {
    local_size: 5
    alpha: 0.0001
    beta: 0.75
  }
}
layer {
  name: "conv2/3x3_reduce"
  type: "Convolution"
  bottom: "pool1/norm1"
  top: "conv2/3x3_reduce"
  param {
    lr_mult: 1
    decay_mult: 1
  }
  param {
    lr_mult: 2
    decay_mult: 0
  }
  convolution_param {
    num_output: 64
    kernel_size: 1
    weight_filler {
      type: "xavier"
      std: 0.1
    }
    bias_filler {
      type: "constant"
      value: 0.2
    }
  }
}
layer {
  name: "conv2/relu_3x3_reduce"
  type: "ReLU"
  bottom: "conv2/3x3_reduce"
  top: "conv2/3x3_reduce"
}
layer {
  name: "conv2/3x3"
  type: "Convolution"
  bottom: "conv2/3x3_reduce"
  top: "conv2/3x3"
  param {
    lr_mult: 1
    decay_mult: 1
  }
  param {
    lr_mult: 2
    decay_mult: 0
  }
  convolution_param {
    num_output: 192
    pad: 1
    kernel_size: 3
    weight_filler {
      type: "xavier"
      std: 0.03
    }
    bias_filler {
      type: "constant"
      value: 0.2
    }
  }
}
layer {
  name: "conv2/relu_3x3"
  type: "ReLU"
  bottom: "conv2/3x3"
  top: "conv2/3x3"
}
layer {
  name: "conv2/norm2"
  type: "LRN"
  bottom: "conv2/3x3"
  top: "conv2/norm2"
  lrn_param {
    local_size: 5
    alpha: 0.0001
    beta: 0.75
  }
}
layer {
  name: "pool2/3x3_s2"
  type: "Pooling"
  bottom: "conv2/norm2"
  top: "pool2/3x3_s2"
  pooling_param {
    pool: MAX
    kernel_size: 3
    stride: 2
  }
}
layer {
  name: "inception_3a/1x1"
  type: "Convolution"
  bottom: "pool2/3x3_s2"
  top: "inception_3a/1x1"
  param {
    lr_mult: 1
    decay_mult: 1
  }
  param {
    lr_mult: 2
    decay_mult: 0
  }
  convolution_param {
    num_output: 64
    kernel_size: 1
    weight_filler {
      type: "xavier"
      std: 0.03
    }
    bias_filler {
      type: "constant"
      value: 0.2
    }
  }
}
layer {
  name: "inception_3a/relu_1x1"
  type: "ReLU"
  bottom: "inception_3a/1x1"
  top: "inception_3a/1x1"
}
layer {
  name: "inception_3a/3x3_reduce"
  type: "Convolution"
  bottom: "pool2/3x3_s2"
  top: "inception_3a/3x3_reduce"
  param {
    lr_mult: 1
    decay_mult: 1
  }
  param {
    lr_mult: 2
    decay_mult: 0
  }
  convolution_param {
    num_output: 96
    kernel_size: 1
    weight_filler {
      type: "xavier"
      std: 0.09
    }
    bias_filler {
      type: "constant"
      value: 0.2
    }
  }
}
layer {
  name: "inception_3a/relu_3x3_reduce"
  type: "ReLU"
  bottom: "inception_3a/3x3_reduce"
  top: "inception_3a/3x3_reduce"
}
layer {
  name: "inception_3a/3x3"
  type: "Convolution"
  bottom: "inception_3a/3x3_reduce"
  top: "inception_3a/3x3"
  param {
    lr_mult: 1
    decay_mult: 1
  }
  param {
    lr_mult: 2
    decay_mult: 0
  }
  convolution_param {
    num_output: 128
    pad: 1
    kernel_size: 3
    weight_filler {
      type: "xavier"
      std: 0.03
    }
    bias_filler {
      type: "constant"
      value: 0.2
    }
  }
}
layer {
  name: "inception_3a/relu_3x3"
  type: "ReLU"
  bottom: "inception_3a/3x3"
  top: "inception_3a/3x3"
}
layer {
  name: "inception_3a/5x5_reduce"
  type: "Convolution"
  bottom: "pool2/3x3_s2"
  top: "inception_3a/5x5_reduce"
  param {
    lr_mult: 1
    decay_mult: 1
  }
  param {
    lr_mult: 2
    decay_mult: 0
  }
  convolution_param {
    num_output: 16
    kernel_size: 1
    weight_filler {
      type: "xavier"
      std: 0.2
    }
    bias_filler {
      type: "constant"
      value: 0.2
    }
  }
}
layer {
  name: "inception_3a/relu_5x5_reduce"
  type: "ReLU"
  bottom: "inception_3a/5x5_reduce"
  top: "inception_3a/5x5_reduce"
}
layer {
  name: "inception_3a/5x5"
  type: "Convolution"
  bottom: "inception_3a/5x5_reduce"
  top: "inception_3a/5x5"
  param {
    lr_mult: 1
    decay_mult: 1
  }
  param {
    lr_mult: 2
    decay_mult: 0
  }
  convolution_param {
    num_output: 32
    pad: 2
    kernel_size: 5
    weight_filler {
      type: "xavier"
      std: 0.03
    }
    bias_filler {
      type: "constant"
      value: 0.2
    }
  }
}
layer {
  name: "inception_3a/relu_5x5"
  type: "ReLU"
  bottom: "inception_3a/5x5"
  top: "inception_3a/5x5"
}
layer {
  name: "inception_3a/pool"
  type: "Pooling"
  bottom: "pool2/3x3_s2"
  top: "inception_3a/pool"
  pooling_param {
    pool: MAX
    kernel_size: 3
    stride: 1
    pad: 1
  }
}
layer {
  name: "inception_3a/pool_proj"
  type: "Convolution"
  bottom: "inception_3a/pool"
  top: "inception_3a/pool_proj"
  param {
    lr_mult: 1
    decay_mult: 1
  }
  param {
    lr_mult: 2
    decay_mult: 0
  }
  convolution_param {
    num_output: 32
    kernel_size: 1
    weight_filler {
      type: "xavier"
      std: 0.1
    }
    bias_filler {
      type: "constant"
      value: 0.2
    }
  }
}
layer {
  name: "inception_3a/relu_pool_proj"
  type: "ReLU"
  bottom: "inception_3a/pool_proj"
  top: "inception_3a/pool_proj"
}
layer {
  name: "inception_3a/output"
  type: "Concat"
  bottom: "inception_3a/1x1"
  bottom: "inception_3a/3x3"
  bottom: "inception_3a/5x5"
  bottom: "inception_3a/pool_proj"
  top: "inception_3a/output"
}
layer {
  name: "inception_3b/1x1"
  type: "Convolution"
  bottom: "inception_3a/output"
  top: "inception_3b/1x1"
  param {
    lr_mult: 1
    decay_mult: 1
  }
  param {
    lr_mult: 2
    decay_mult: 0
  }
  convolution_param {
    num_output: 128
    kernel_size: 1
    weight_filler {
      type: "xavier"
      std: 0.03
    }
    bias_filler {
      type: "constant"
      value: 0.2
    }
  }
}
layer {
  name: "inception_3b/relu_1x1"
  type: "ReLU"
  bottom: "inception_3b/1x1"
  top: "inception_3b/1x1"
}
layer {
  name: "inception_3b/3x3_reduce"
  type: "Convolution"
  bottom: "inception_3a/output"
  top: "inception_3b/3x3_reduce"
  param {
    lr_mult: 1
    decay_mult: 1
  }
  param {
    lr_mult: 2
    decay_mult: 0
  }
  convolution_param {
    num_output: 128
    kernel_size: 1
    weight_filler {
      type: "xavier"
      std: 0.09
    }
    bias_filler {
      type: "constant"
      value: 0.2
    }
  }
}
layer {
  name: "inception_3b/relu_3x3_reduce"
  type: "ReLU"
  bottom: "inception_3b/3x3_reduce"
  top: "inception_3b/3x3_reduce"
}
layer {
  name: "inception_3b/3x3"
  type: "Convolution"
  bottom: "inception_3b/3x3_reduce"
  top: "inception_3b/3x3"
  param {
    lr_mult: 1
    decay_mult: 1
  }
  param {
    lr_mult: 2
    decay_mult: 0
  }
  convolution_param {
    num_output: 192
    pad: 1
    kernel_size: 3
    weight_filler {
      type: "xavier"
      std: 0.03
    }
    bias_filler {
      type: "constant"
      value: 0.2
    }
  }
}
layer {
  name: "inception_3b/relu_3x3"
  type: "ReLU"
  bottom: "inception_3b/3x3"
  top: "inception_3b/3x3"
}
layer {
  name: "inception_3b/5x5_reduce"
  type: "Convolution"
  bottom: "inception_3a/output"
  top: "inception_3b/5x5_reduce"
  param {
    lr_mult: 1
    decay_mult: 1
  }
  param {
    lr_mult: 2
    decay_mult: 0
  }
  convolution_param {
    num_output: 32
    kernel_size: 1
    weight_filler {
      type: "xavier"
      std: 0.2
    }
    bias_filler {
      type: "constant"
      value: 0.2
    }
  }
}
layer {
  name: "inception_3b/relu_5x5_reduce"
  type: "ReLU"
  bottom: "inception_3b/5x5_reduce"
  top: "inception_3b/5x5_reduce"
}
layer {
  name: "inception_3b/5x5"
  type: "Convolution"
  bottom: "inception_3b/5x5_reduce"
  top: "inception_3b/5x5"
  param {
    lr_mult: 1
    decay_mult: 1
  }
  param {
    lr_mult: 2
    decay_mult: 0
  }
  convolution_param {
    num_output: 96
    pad: 2
    kernel_size: 5
    weight_filler {
      type: "xavier"
      std: 0.03
    }
    bias_filler {
      type: "constant"
      value: 0.2
    }
  }
}
layer {
  name: "inception_3b/relu_5x5"
  type: "ReLU"
  bottom: "inception_3b/5x5"
  top: "inception_3b/5x5"
}
layer {
  name: "inception_3b/pool"
  type: "Pooling"
  bottom: "inception_3a/output"
  top: "inception_3b/pool"
  pooling_param {
    pool: MAX
    kernel_size: 3
    stride: 1
    pad: 1
  }
}
layer {
  name: "inception_3b/pool_proj"
  type: "Convolution"
  bottom: "inception_3b/pool"
  top: "inception_3b/pool_proj"
  param {
    lr_mult: 1
    decay_mult: 1
  }
  param {
    lr_mult: 2
    decay_mult: 0
  }
  convolution_param {
    num_output: 64
    kernel_size: 1
    weight_filler {
      type: "xavier"
      std: 0.1
    }
    bias_filler {
      type: "constant"
      value: 0.2
    }
  }
}
layer {
  name: "inception_3b/relu_pool_proj"
  type: "ReLU"
  bottom: "inception_3b/pool_proj"
  top: "inception_3b/pool_proj"
}
layer {
  name: "inception_3b/output"
  type: "Concat"
  bottom: "inception_3b/1x1"
  bottom: "inception_3b/3x3"
  bottom: "inception_3b/5x5"
  bottom: "inception_3b/pool_proj"
  top: "inception_3b/output"
}
layer {
  name: "pool3/3x3_s2"
  type: "Pooling"
  bottom: "inception_3b/output"
  top: "pool3/3x3_s2"
  pooling_param {
    pool: MAX
    kernel_size: 3
    stride: 2
  }
}
layer {
  name: "inception_4a/1x1"
  type: "Convolution"
  bottom: "pool3/3x3_s2"
  top: "inception_4a/1x1"
  param {
    lr_mult: 1
    decay_mult: 1
  }
  param {
    lr_mult: 2
    decay_mult: 0
  }
  convolution_param {
    num_output: 192
    kernel_size: 1
    weight_filler {
      type: "xavier"
      std: 0.03
    }
    bias_filler {
      type: "constant"
      value: 0.2
    }
  }
}
layer {
  name: "inception_4a/relu_1x1"
  type: "ReLU"
  bottom: "inception_4a/1x1"
  top: "inception_4a/1x1"
}
layer {
  name: "inception_4a/3x3_reduce"
  type: "Convolution"
  bottom: "pool3/3x3_s2"
  top: "inception_4a/3x3_reduce"
  param {
    lr_mult: 1
    decay_mult: 1
  }
  param {
    lr_mult: 2
    decay_mult: 0
  }
  convolution_param {
    num_output: 96
    kernel_size: 1
    weight_filler {
      type: "xavier"
      std: 0.09
    }
    bias_filler {
      type: "constant"
      value: 0.2
    }
  }
}
layer {
  name: "inception_4a/relu_3x3_reduce"
  type: "ReLU"
  bottom: "inception_4a/3x3_reduce"
  top: "inception_4a/3x3_reduce"
}
layer {
  name: "inception_4a/3x3"
  type: "Convolution"
  bottom: "inception_4a/3x3_reduce"
  top: "inception_4a/3x3"
  param {
    lr_mult: 1
    decay_mult: 1
  }
  param {
    lr_mult: 2
    decay_mult: 0
  }
  convolution_param {
    num_output: 208
    pad: 1
    kernel_size: 3
    weight_filler {
      type: "xavier"
      std: 0.03
    }
    bias_filler {
      type: "constant"
      value: 0.2
    }
  }
}
layer {
  name: "inception_4a/relu_3x3"
  type: "ReLU"
  bottom: "inception_4a/3x3"
  top: "inception_4a/3x3"
}
layer {
  name: "inception_4a/5x5_reduce"
  type: "Convolution"
  bottom: "pool3/3x3_s2"
  top: "inception_4a/5x5_reduce"
  param {
    lr_mult: 1
    decay_mult: 1
  }
  param {
    lr_mult: 2
    decay_mult: 0
  }
  convolution_param {
    num_output: 16
    kernel_size: 1
    weight_filler {
      type: "xavier"
      std: 0.2
    }
    bias_filler {
      type: "constant"
      value: 0.2
    }
  }
}
layer {
  name: "inception_4a/relu_5x5_reduce"
  type: "ReLU"
  bottom: "inception_4a/5x5_reduce"
  top: "inception_4a/5x5_reduce"
}
layer {
  name: "inception_4a/5x5"
  type: "Convolution"
  bottom: "inception_4a/5x5_reduce"
  top: "inception_4a/5x5"
  param {
    lr_mult: 1
    decay_mult: 1
  }
  param {
    lr_mult: 2
    decay_mult: 0
  }
  convolution_param {
    num_output: 48
    pad: 2
    kernel_size: 5
    weight_filler {
      type: "xavier"
      std: 0.03
    }
    bias_filler {
      type: "constant"
      value: 0.2
    }
  }
}
layer {
  name: "inception_4a/relu_5x5"
  type: "ReLU"
  bottom: "inception_4a/5x5"
  top: "inception_4a/5x5"
}
layer {
  name: "inception_4a/pool"
  type: "Pooling"
  bottom: "pool3/3x3_s2"
  top: "inception_4a/pool"
  pooling_param {
    pool: MAX
    kernel_size: 3
    stride: 1
    pad: 1
  }
}
layer {
  name: "inception_4a/pool_proj"
  type: "Convolution"
  bottom: "inception_4a/pool"
  top: "inception_4a/pool_proj"
  param {
    lr_mult: 1
    decay_mult: 1
  }
  param {
    lr_mult: 2
    decay_mult: 0
  }
  convolution_param {
    num_output: 64
    kernel_size: 1
    weight_filler {
      type: "xavier"
      std: 0.1
    }
    bias_filler {
      type: "constant"
      value: 0.2
    }
  }
}
layer {
  name: "inception_4a/relu_pool_proj"
  type: "ReLU"
  bottom: "inception_4a/pool_proj"
  top: "inception_4a/pool_proj"
}
layer {
  name: "inception_4a/output"
  type: "Concat"
  bottom: "inception_4a/1x1"
  bottom: "inception_4a/3x3"
  bottom: "inception_4a/5x5"
  bottom: "inception_4a/pool_proj"
  top: "inception_4a/output"
}
layer {
  name: "inception_4b/1x1"
  type: "Convolution"
  bottom: "inception_4a/output"
  top: "inception_4b/1x1"
  param {
    lr_mult: 1
    decay_mult: 1
  }
  param {
    lr_mult: 2
    decay_mult: 0
  }
  convolution_param {
    num_output: 160
    kernel_size: 1
    weight_filler {
      type: "xavier"
      std: 0.03
    }
    bias_filler {
      type: "constant"
      value: 0.2
    }
  }
}
layer {
  name: "inception_4b/relu_1x1"
  type: "ReLU"
  bottom: "inception_4b/1x1"
  top: "inception_4b/1x1"
}
layer {
  name: "inception_4b/3x3_reduce"
  type: "Convolution"
  bottom: "inception_4a/output"
  top: "inception_4b/3x3_reduce"
  param {
    lr_mult: 1
    decay_mult: 1
  }
  param {
    lr_mult: 2
    decay_mult: 0
  }
  convolution_param {
    num_output: 112
    kernel_size: 1
    weight_filler {
      type: "xavier"
      std: 0.09
    }
    bias_filler {
      type: "constant"
      value: 0.2
    }
  }
}
layer {
  name: "inception_4b/relu_3x3_reduce"
  type: "ReLU"
  bottom: "inception_4b/3x3_reduce"
  top: "inception_4b/3x3_reduce"
}
layer {
  name: "inception_4b/3x3"
  type: "Convolution"
  bottom: "inception_4b/3x3_reduce"
  top: "inception_4b/3x3"
  param {
    lr_mult: 1
    decay_mult: 1
  }
  param {
    lr_mult: 2
    decay_mult: 0
  }
  convolution_param {
    num_output: 224
    pad: 1
    kernel_size: 3
    weight_filler {
      type: "xavier"
      std: 0.03
    }
    bias_filler {
      type: "constant"
      value: 0.2
    }
  }
}
layer {
  name: "inception_4b/relu_3x3"
  type: "ReLU"
  bottom: "inception_4b/3x3"
  top: "inception_4b/3x3"
}
layer {
  name: "inception_4b/5x5_reduce"
  type: "Convolution"
  bottom: "inception_4a/output"
  top: "inception_4b/5x5_reduce"
  param {
    lr_mult: 1
    decay_mult: 1
  }
  param {
    lr_mult: 2
    decay_mult: 0
  }
  convolution_param {
    num_output: 24
    kernel_size: 1
    weight_filler {
      type: "xavier"
      std: 0.2
    }
    bias_filler {
      type: "constant"
      value: 0.2
    }
  }
}
layer {
  name: "inception_4b/relu_5x5_reduce"
  type: "ReLU"
  bottom: "inception_4b/5x5_reduce"
  top: "inception_4b/5x5_reduce"
}
layer {
  name: "inception_4b/5x5"
  type: "Convolution"
  bottom: "inception_4b/5x5_reduce"
  top: "inception_4b/5x5"
  param {
    lr_mult: 1
    decay_mult: 1
  }
  param {
    lr_mult: 2
    decay_mult: 0
  }
  convolution_param {
    num_output: 64
    pad: 2
    kernel_size: 5
    weight_filler {
      type: "xavier"
      std: 0.03
    }
    bias_filler {
      type: "constant"
      value: 0.2
    }
  }
}
layer {
  name: "inception_4b/relu_5x5"
  type: "ReLU"
  bottom: "inception_4b/5x5"
  top: "inception_4b/5x5"
}
layer {
  name: "inception_4b/pool"
  type: "Pooling"
  bottom: "inception_4a/output"
  top: "inception_4b/pool"
  pooling_param {
    pool: MAX
    kernel_size: 3
    stride: 1
    pad: 1
  }
}
layer {
  name: "inception_4b/pool_proj"
  type: "Convolution"
  bottom: "inception_4b/pool"
  top: "inception_4b/pool_proj"
  param {
    lr_mult: 1
    decay_mult: 1
  }
  param {
    lr_mult: 2
    decay_mult: 0
  }
  convolution_param {
    num_output: 64
    kernel_size: 1
    weight_filler {
      type: "xavier"
      std: 0.1
    }
    bias_filler {
      type: "constant"
      value: 0.2
    }
  }
}
layer {
  name: "inception_4b/relu_pool_proj"
  type: "ReLU"
  bottom: "inception_4b/pool_proj"
  top: "inception_4b/pool_proj"
}
layer {
  name: "inception_4b/output"
  type: "Concat"
  bottom: "inception_4b/1x1"
  bottom: "inception_4b/3x3"
  bottom: "inception_4b/5x5"
  bottom: "inception_4b/pool_proj"
  top: "inception_4b/output"
}
layer {
  name: "inception_4c/1x1"
  type: "Convolution"
  bottom: "inception_4b/output"
  top: "inception_4c/1x1"
  param {
    lr_mult: 1
    decay_mult: 1
  }
  param {
    lr_mult: 2
    decay_mult: 0
  }
  convolution_param {
    num_output: 128
    kernel_size: 1
    weight_filler {
      type: "xavier"
      std: 0.03
    }
    bias_filler {
      type: "constant"
      value: 0.2
    }
  }
}
layer {
  name: "inception_4c/relu_1x1"
  type: "ReLU"
  bottom: "inception_4c/1x1"
  top: "inception_4c/1x1"
}
layer {
  name: "inception_4c/3x3_reduce"
  type: "Convolution"
  bottom: "inception_4b/output"
  top: "inception_4c/3x3_reduce"
  param {
    lr_mult: 1
    decay_mult: 1
  }
  param {
    lr_mult: 2
    decay_mult: 0
  }
  convolution_param {
    num_output: 128
    kernel_size: 1
    weight_filler {
      type: "xavier"
      std: 0.09
    }
    bias_filler {
      type: "constant"
      value: 0.2
    }
  }
}
layer {
  name: "inception_4c/relu_3x3_reduce"
  type: "ReLU"
  bottom: "inception_4c/3x3_reduce"
  top: "inception_4c/3x3_reduce"
}
layer {
  name: "inception_4c/3x3"
  type: "Convolution"
  bottom: "inception_4c/3x3_reduce"
  top: "inception_4c/3x3"
  param {
    lr_mult: 1
    decay_mult: 1
  }
  param {
    lr_mult: 2
    decay_mult: 0
  }
  convolution_param {
    num_output: 256
    pad: 1
    kernel_size: 3
    weight_filler {
      type: "xavier"
      std: 0.03
    }
    bias_filler {
      type: "constant"
      value: 0.2
    }
  }
}
layer {
  name: "inception_4c/relu_3x3"
  type: "ReLU"
  bottom: "inception_4c/3x3"
  top: "inception_4c/3x3"
}
layer {
  name: "inception_4c/5x5_reduce"
  type: "Convolution"
  bottom: "inception_4b/output"
  top: "inception_4c/5x5_reduce"
  param {
    lr_mult: 1
    decay_mult: 1
  }
  param {
    lr_mult: 2
    decay_mult: 0
  }
  convolution_param {
    num_output: 24
    kernel_size: 1
    weight_filler {
      type: "xavier"
      std: 0.2
    }
    bias_filler {
      type: "constant"
      value: 0.2
    }
  }
}
layer {
  name: "inception_4c/relu_5x5_reduce"
  type: "ReLU"
  bottom: "inception_4c/5x5_reduce"
  top: "inception_4c/5x5_reduce"
}
layer {
  name: "inception_4c/5x5"
  type: "Convolution"
  bottom: "inception_4c/5x5_reduce"
  top: "inception_4c/5x5"
  param {
    lr_mult: 1
    decay_mult: 1
  }
  param {
    lr_mult: 2
    decay_mult: 0
  }
  convolution_param {
    num_output: 64
    pad: 2
    kernel_size: 5
    weight_filler {
      type: "xavier"
      std: 0.03
    }
    bias_filler {
      type: "constant"
      value: 0.2
    }
  }
}
layer {
  name: "inception_4c/relu_5x5"
  type: "ReLU"
  bottom: "inception_4c/5x5"
  top: "inception_4c/5x5"
}
layer {
  name: "inception_4c/pool"
  type: "Pooling"
  bottom: "inception_4b/output"
  top: "inception_4c/pool"
  pooling_param {
    pool: MAX
    kernel_size: 3
    stride: 1
    pad: 1
  }
}
layer {
  name: "inception_4c/pool_proj"
  type: "Convolution"
  bottom: "inception_4c/pool"
  top: "inception_4c/pool_proj"
  param {
    lr_mult: 1
    decay_mult: 1
  }
  param {
    lr_mult: 2
    decay_mult: 0
  }
  convolution_param {
    num_output: 64
    kernel_size: 1
    weight_filler {
      type: "xavier"
      std: 0.1
    }
    bias_filler {
      type: "constant"
      value: 0.2
    }
  }
}
layer {
  name: "inception_4c/relu_pool_proj"
  type: "ReLU"
  bottom: "inception_4c/pool_proj"
  top: "inception_4c/pool_proj"
}
layer {
  name: "inception_4c/output"
  type: "Concat"
  bottom: "inception_4c/1x1"
  bottom: "inception_4c/3x3"
  bottom: "inception_4c/5x5"
  bottom: "inception_4c/pool_proj"
  top: "inception_4c/output"
}
layer {
  name: "inception_4d/1x1"
  type: "Convolution"
  bottom: "inception_4c/output"
  top: "inception_4d/1x1"
  param {
    lr_mult: 1
    decay_mult: 1
  }
  param {
    lr_mult: 2
    decay_mult: 0
  }
  convolution_param {
    num_output: 112
    kernel_size: 1
    weight_filler {
      type: "xavier"
      std: 0.03
    }
    bias_filler {
      type: "constant"
      value: 0.2
    }
  }
}
layer {
  name: "inception_4d/relu_1x1"
  type: "ReLU"
  bottom: "inception_4d/1x1"
  top: "inception_4d/1x1"
}
layer {
  name: "inception_4d/3x3_reduce"
  type: "Convolution"
  bottom: "inception_4c/output"
  top: "inception_4d/3x3_reduce"
  param {
    lr_mult: 1
    decay_mult: 1
  }
  param {
    lr_mult: 2
    decay_mult: 0
  }
  convolution_param {
    num_output: 144
    kernel_size: 1
    weight_filler {
      type: "xavier"
      std: 0.09
    }
    bias_filler {
      type: "constant"
      value: 0.2
    }
  }
}
layer {
  name: "inception_4d/relu_3x3_reduce"
  type: "ReLU"
  bottom: "inception_4d/3x3_reduce"
  top: "inception_4d/3x3_reduce"
}
layer {
  name: "inception_4d/3x3"
  type: "Convolution"
  bottom: "inception_4d/3x3_reduce"
  top: "inception_4d/3x3"
  param {
    lr_mult: 1
    decay_mult: 1
  }
  param {
    lr_mult: 2
    decay_mult: 0
  }
  convolution_param {
    num_output: 288
    pad: 1
    kernel_size: 3
    weight_filler {
      type: "xavier"
      std: 0.03
    }
    bias_filler {
      type: "constant"
      value: 0.2
    }
  }
}
layer {
  name: "inception_4d/relu_3x3"
  type: "ReLU"
  bottom: "inception_4d/3x3"
  top: "inception_4d/3x3"
}
layer {
  name: "inception_4d/5x5_reduce"
  type: "Convolution"
  bottom: "inception_4c/output"
  top: "inception_4d/5x5_reduce"
  param {
    lr_mult: 1
    decay_mult: 1
  }
  param {
    lr_mult: 2
    decay_mult: 0
  }
  convolution_param {
    num_output: 32
    kernel_size: 1
    weight_filler {
      type: "xavier"
      std: 0.2
    }
    bias_filler {
      type: "constant"
      value: 0.2
    }
  }
}
layer {
  name: "inception_4d/relu_5x5_reduce"
  type: "ReLU"
  bottom: "inception_4d/5x5_reduce"
  top: "inception_4d/5x5_reduce"
}
layer {
  name: "inception_4d/5x5"
  type: "Convolution"
  bottom: "inception_4d/5x5_reduce"
  top: "inception_4d/5x5"
  param {
    lr_mult: 1
    decay_mult: 1
  }
  param {
    lr_mult: 2
    decay_mult: 0
  }
  convolution_param {
    num_output: 64
    pad: 2
    kernel_size: 5
    weight_filler {
      type: "xavier"
      std: 0.03
    }
    bias_filler {
      type: "constant"
      value: 0.2
    }
  }
}
layer {
  name: "inception_4d/relu_5x5"
  type: "ReLU"
  bottom: "inception_4d/5x5"
  top: "inception_4d/5x5"
}
layer {
  name: "inception_4d/pool"
  type: "Pooling"
  bottom: "inception_4c/output"
  top: "inception_4d/pool"
  pooling_param {
    pool: MAX
    kernel_size: 3
    stride: 1
    pad: 1
  }
}
layer {
  name: "inception_4d/pool_proj"
  type: "Convolution"
  bottom: "inception_4d/pool"
  top: "inception_4d/pool_proj"
  param {
    lr_mult: 1
    decay_mult: 1
  }
  param {
    lr_mult: 2
    decay_mult: 0
  }
  convolution_param {
    num_output: 64
    kernel_size: 1
    weight_filler {
      type: "xavier"
      std: 0.1
    }
    bias_filler {
      type: "constant"
      value: 0.2
    }
  }
}
layer {
  name: "inception_4d/relu_pool_proj"
  type: "ReLU"
  bottom: "inception_4d/pool_proj"
  top: "inception_4d/pool_proj"
}
layer {
  name: "inception_4d/output"
  type: "Concat"
  bottom: "inception_4d/1x1"
  bottom: "inception_4d/3x3"
  bottom: "inception_4d/5x5"
  bottom: "inception_4d/pool_proj"
  top: "inception_4d/output"
}
layer {
  name: "inception_4e/1x1"
  type: "Convolution"
  bottom: "inception_4d/output"
  top: "inception_4e/1x1"
  param {
    lr_mult: 1
    decay_mult: 1
  }
  param {
    lr_mult: 2
    decay_mult: 0
  }
  convolution_param {
    num_output: 256
    kernel_size: 1
    weight_filler {
      type: "xavier"
      std: 0.03
    }
    bias_filler {
      type: "constant"
      value: 0.2
    }
  }
}
layer {
  name: "inception_4e/relu_1x1"
  type: "ReLU"
  bottom: "inception_4e/1x1"
  top: "inception_4e/1x1"
}
layer {
  name: "inception_4e/3x3_reduce"
  type: "Convolution"
  bottom: "inception_4d/output"
  top: "inception_4e/3x3_reduce"
  param {
    lr_mult: 1
    decay_mult: 1
  }
  param {
    lr_mult: 2
    decay_mult: 0
  }
  convolution_param {
    num_output: 160
    kernel_size: 1
    weight_filler {
      type: "xavier"
      std: 0.09
    }
    bias_filler {
      type: "constant"
      value: 0.2
    }
  }
}
layer {
  name: "inception_4e/relu_3x3_reduce"
  type: "ReLU"
  bottom: "inception_4e/3x3_reduce"
  top: "inception_4e/3x3_reduce"
}
layer {
  name: "inception_4e/3x3"
  type: "Convolution"
  bottom: "inception_4e/3x3_reduce"
  top: "inception_4e/3x3"
  param {
    lr_mult: 1
    decay_mult: 1
  }
  param {
    lr_mult: 2
    decay_mult: 0
  }
  convolution_param {
    num_output: 320
    pad: 1
    kernel_size: 3
    weight_filler {
      type: "xavier"
      std: 0.03
    }
    bias_filler {
      type: "constant"
      value: 0.2
    }
  }
}
layer {
  name: "inception_4e/relu_3x3"
  type: "ReLU"
  bottom: "inception_4e/3x3"
  top: "inception_4e/3x3"
}
layer {
  name: "inception_4e/5x5_reduce"
  type: "Convolution"
  bottom: "inception_4d/output"
  top: "inception_4e/5x5_reduce"
  param {
    lr_mult: 1
    decay_mult: 1
  }
  param {
    lr_mult: 2
    decay_mult: 0
  }
  convolution_param {
    num_output: 32
    kernel_size: 1
    weight_filler {
      type: "xavier"
      std: 0.2
    }
    bias_filler {
      type: "constant"
      value: 0.2
    }
  }
}
layer {
  name: "inception_4e/relu_5x5_reduce"
  type: "ReLU"
  bottom: "inception_4e/5x5_reduce"
  top: "inception_4e/5x5_reduce"
}
layer {
  name: "inception_4e/5x5"
  type: "Convolution"
  bottom: "inception_4e/5x5_reduce"
  top: "inception_4e/5x5"
  param {
    lr_mult: 1
    decay_mult: 1
  }
  param {
    lr_mult: 2
    decay_mult: 0
  }
  convolution_param {
    num_output: 128
    pad: 2
    kernel_size: 5
    weight_filler {
      type: "xavier"
      std: 0.03
    }
    bias_filler {
      type: "constant"
      value: 0.2
    }
  }
}
layer {
  name: "inception_4e/relu_5x5"
  type: "ReLU"
  bottom: "inception_4e/5x5"
  top: "inception_4e/5x5"
}
layer {
  name: "inception_4e/pool"
  type: "Pooling"
  bottom: "inception_4d/output"
  top: "inception_4e/pool"
  pooling_param {
    pool: MAX
    kernel_size: 3
    stride: 1
    pad: 1
  }
}
layer {
  name: "inception_4e/pool_proj"
  type: "Convolution"
  bottom: "inception_4e/pool"
  top: "inception_4e/pool_proj"
  param {
    lr_mult: 1
    decay_mult: 1
  }
  param {
    lr_mult: 2
    decay_mult: 0
  }
  convolution_param {
    num_output: 128
    kernel_size: 1
    weight_filler {
      type: "xavier"
      std: 0.1
    }
    bias_filler {
      type: "constant"
      value: 0.2
    }
  }
}
layer {
  name: "inception_4e/relu_pool_proj"
  type: "ReLU"
  bottom: "inception_4e/pool_proj"
  top: "inception_4e/pool_proj"
}
layer {
  name: "inception_4e/output"
  type: "Concat"
  bottom: "inception_4e/1x1"
  bottom: "inception_4e/3x3"
  bottom: "inception_4e/5x5"
  bottom: "inception_4e/pool_proj"
  top: "inception_4e/output"
}
layer {
  name: "pool4/3x3_s2"
  type: "Pooling"
  bottom: "inception_4e/output"
  top: "pool4/3x3_s2"
  pooling_param {
    pool: MAX
    kernel_size: 3
    stride: 2
  }
}
layer {
  name: "inception_5a/1x1"
  type: "Convolution"
  bottom: "pool4/3x3_s2"
  top: "inception_5a/1x1"
  param {
    lr_mult: 1
    decay_mult: 1
  }
  param {
    lr_mult: 2
    decay_mult: 0
  }
  convolution_param {
    num_output: 256
    kernel_size: 1
    weight_filler {
      type: "xavier"
      std: 0.03
    }
    bias_filler {
      type: "constant"
      value: 0.2
    }
  }
}
layer {
  name: "inception_5a/relu_1x1"
  type: "ReLU"
  bottom: "inception_5a/1x1"
  top: "inception_5a/1x1"
}
layer {
  name: "inception_5a/3x3_reduce"
  type: "Convolution"
  bottom: "pool4/3x3_s2"
  top: "inception_5a/3x3_reduce"
  param {
    lr_mult: 1
    decay_mult: 1
  }
  param {
    lr_mult: 2
    decay_mult: 0
  }
  convolution_param {
    num_output: 160
    kernel_size: 1
    weight_filler {
      type: "xavier"
      std: 0.09
    }
    bias_filler {
      type: "constant"
      value: 0.2
    }
  }
}
layer {
  name: "inception_5a/relu_3x3_reduce"
  type: "ReLU"
  bottom: "inception_5a/3x3_reduce"
  top: "inception_5a/3x3_reduce"
}
layer {
  name: "inception_5a/3x3"
  type: "Convolution"
  bottom: "inception_5a/3x3_reduce"
  top: "inception_5a/3x3"
  param {
    lr_mult: 1
    decay_mult: 1
  }
  param {
    lr_mult: 2
    decay_mult: 0
  }
  convolution_param {
    num_output: 320
    pad: 1
    kernel_size: 3
    weight_filler {
      type: "xavier"
      std: 0.03
    }
    bias_filler {
      type: "constant"
      value: 0.2
    }
  }
}
layer {
  name: "inception_5a/relu_3x3"
  type: "ReLU"
  bottom: "inception_5a/3x3"
  top: "inception_5a/3x3"
}
layer {
  name: "inception_5a/5x5_reduce"
  type: "Convolution"
  bottom: "pool4/3x3_s2"
  top: "inception_5a/5x5_reduce"
  param {
    lr_mult: 1
    decay_mult: 1
  }
  param {
    lr_mult: 2
    decay_mult: 0
  }
  convolution_param {
    num_output: 32
    kernel_size: 1
    weight_filler {
      type: "xavier"
      std: 0.2
    }
    bias_filler {
      type: "constant"
      value: 0.2
    }
I0714 21:11:26.696820 18571 layer_factory.hpp:77] Creating layer data
I0714 21:11:26.696844 18571 net.cpp:91] Creating Layer data
I0714 21:11:26.696854 18571 net.cpp:399] data -> data
I0714 21:11:27.781728 18575 net.cpp:141] Setting up data
I0714 21:11:27.781815 18575 net.cpp:148] Top shape: 10 3 224 224 (1505280)
I0714 21:11:27.781821 18575 net.cpp:156] Memory required for data: 6021120
I0714 21:11:27.781846 18575 layer_factory.hpp:77] Creating layer conv1/7x7_s2
I0714 21:11:27.781888 18575 net.cpp:91] Creating Layer conv1/7x7_s2
I0714 21:11:27.781898 18575 net.cpp:425] conv1/7x7_s2 <- data
I0714 21:11:27.781913 18575 net.cpp:399] conv1/7x7_s2 -> conv1/7x7_s2
I0714 21:11:27.795217 18571 net.cpp:141] Setting up data
I0714 21:11:27.795281 18571 net.cpp:148] Top shape: 10 3 224 224 (1505280)
I0714 21:11:27.795289 18571 net.cpp:156] Memory required for data: 6021120
I0714 21:11:27.795300 18571 layer_factory.hpp:77] Creating layer conv1/7x7_s2
I0714 21:11:27.795331 18571 net.cpp:91] Creating Layer conv1/7x7_s2
I0714 21:11:27.795338 18571 net.cpp:425] conv1/7x7_s2 <- data
I0714 21:11:27.795351 18571 net.cpp:399] conv1/7x7_s2 -> conv1/7x7_s2
I0714 21:11:28.259281 18575 net.cpp:141] Setting up conv1/7x7_s2
I0714 21:11:28.259333 18575 net.cpp:148] Top shape: 10 64 112 112 (8028160)
I0714 21:11:28.259341 18575 net.cpp:156] Memory required for data: 38133760
I0714 21:11:28.259369 18575 layer_factory.hpp:77] Creating layer conv1/relu_7x7
I0714 21:11:28.259389 18575 net.cpp:91] Creating Layer conv1/relu_7x7
I0714 21:11:28.259397 18575 net.cpp:425] conv1/relu_7x7 <- conv1/7x7_s2
I0714 21:11:28.259405 18575 net.cpp:386] conv1/relu_7x7 -> conv1/7x7_s2 (in-place)
I0714 21:11:28.260316 18575 net.cpp:141] Setting up conv1/relu_7x7
I0714 21:11:28.260335 18575 net.cpp:148] Top shape: 10 64 112 112 (8028160)
I0714 21:11:28.260341 18575 net.cpp:156] Memory required for data: 70246400
I0714 21:11:28.260347 18575 layer_factory.hpp:77] Creating layer pool1/3x3_s2
I0714 21:11:28.260361 18575 net.cpp:91] Creating Layer pool1/3x3_s2
I0714 21:11:28.260367 18575 net.cpp:425] pool1/3x3_s2 <- conv1/7x7_s2
I0714 21:11:28.260375 18575 net.cpp:399] pool1/3x3_s2 -> pool1/3x3_s2
I0714 21:11:28.263926 18575 net.cpp:141] Setting up pool1/3x3_s2
I0714 21:11:28.263949 18575 net.cpp:148] Top shape: 10 64 56 56 (2007040)
I0714 21:11:28.263955 18575 net.cpp:156] Memory required for data: 78274560
I0714 21:11:28.263962 18575 layer_factory.hpp:77] Creating layer pool1/norm1
I0714 21:11:28.263981 18575 net.cpp:91] Creating Layer pool1/norm1
I0714 21:11:28.263988 18575 net.cpp:425] pool1/norm1 <- pool1/3x3_s2
I0714 21:11:28.263996 18575 net.cpp:399] pool1/norm1 -> pool1/norm1
I0714 21:11:28.265714 18571 net.cpp:141] Setting up conv1/7x7_s2
I0714 21:11:28.265756 18575 net.cpp:141] Setting up pool1/norm1
I0714 21:11:28.265761 18571 net.cpp:148] Top shape: 10 64 112 112 (8028160)
I0714 21:11:28.265776 18575 net.cpp:148] Top shape: 10 64 56 56 (2007040)
I0714 21:11:28.265777 18571 net.cpp:156] Memory required for data: 38133760
I0714 21:11:28.265784 18575 net.cpp:156] Memory required for data: 86302720
I0714 21:11:28.265790 18575 layer_factory.hpp:77] Creating layer conv2/3x3_reduce
I0714 21:11:28.265801 18571 layer_factory.hpp:77] Creating layer conv1/relu_7x7
I0714 21:11:28.265813 18575 net.cpp:91] Creating Layer conv2/3x3_reduce
I0714 21:11:28.265820 18571 net.cpp:91] Creating Layer conv1/relu_7x7
I0714 21:11:28.265820 18575 net.cpp:425] conv2/3x3_reduce <- pool1/norm1
I0714 21:11:28.265831 18571 net.cpp:425] conv1/relu_7x7 <- conv1/7x7_s2
I0714 21:11:28.265841 18571 net.cpp:386] conv1/relu_7x7 -> conv1/7x7_s2 (in-place)
I0714 21:11:28.265841 18575 net.cpp:399] conv2/3x3_reduce -> conv2/3x3_reduce
I0714 21:11:28.266834 18571 net.cpp:141] Setting up conv1/relu_7x7
I0714 21:11:28.266850 18571 net.cpp:148] Top shape: 10 64 112 112 (8028160)
I0714 21:11:28.266855 18571 net.cpp:156] Memory required for data: 70246400
I0714 21:11:28.266862 18571 layer_factory.hpp:77] Creating layer pool1/3x3_s2
I0714 21:11:28.266873 18571 net.cpp:91] Creating Layer pool1/3x3_s2
I0714 21:11:28.266880 18571 net.cpp:425] pool1/3x3_s2 <- conv1/7x7_s2
I0714 21:11:28.266888 18571 net.cpp:399] pool1/3x3_s2 -> pool1/3x3_s2
I0714 21:11:28.268244 18571 net.cpp:141] Setting up pool1/3x3_s2
I0714 21:11:28.268259 18571 net.cpp:148] Top shape: 10 64 56 56 (2007040)
I0714 21:11:28.268263 18571 net.cpp:156] Memory required for data: 78274560
I0714 21:11:28.268270 18571 layer_factory.hpp:77] Creating layer pool1/norm1
I0714 21:11:28.268282 18571 net.cpp:91] Creating Layer pool1/norm1
I0714 21:11:28.268288 18571 net.cpp:425] pool1/norm1 <- pool1/3x3_s2
I0714 21:11:28.268296 18571 net.cpp:399] pool1/norm1 -> pool1/norm1
I0714 21:11:28.270076 18571 net.cpp:141] Setting up pool1/norm1
I0714 21:11:28.270093 18571 net.cpp:148] Top shape: 10 64 56 56 (2007040)
I0714 21:11:28.270099 18571 net.cpp:156] Memory required for data: 86302720
I0714 21:11:28.270105 18571 layer_factory.hpp:77] Creating layer conv2/3x3_reduce
I0714 21:11:28.270126 18571 net.cpp:91] Creating Layer conv2/3x3_reduce
I0714 21:11:28.270133 18571 net.cpp:425] conv2/3x3_reduce <- pool1/norm1
I0714 21:11:28.270141 18571 net.cpp:399] conv2/3x3_reduce -> conv2/3x3_reduce
I0714 21:11:28.273890 18575 net.cpp:141] Setting up conv2/3x3_reduce
I0714 21:11:28.273916 18575 net.cpp:148] Top shape: 10 64 56 56 (2007040)
I0714 21:11:28.273922 18575 net.cpp:156] Memory required for data: 94330880
I0714 21:11:28.273936 18575 layer_factory.hpp:77] Creating layer conv2/relu_3x3_reduce
I0714 21:11:28.273947 18575 net.cpp:91] Creating Layer conv2/relu_3x3_reduce
I0714 21:11:28.273952 18575 net.cpp:425] conv2/relu_3x3_reduce <- conv2/3x3_reduce
I0714 21:11:28.273959 18575 net.cpp:386] conv2/relu_3x3_reduce -> conv2/3x3_reduce (in-place)
I0714 21:11:28.274925 18575 net.cpp:141] Setting up conv2/relu_3x3_reduce
I0714 21:11:28.274945 18575 net.cpp:148] Top shape: 10 64 56 56 (2007040)
I0714 21:11:28.274950 18575 net.cpp:156] Memory required for data: 102359040
I0714 21:11:28.274956 18575 layer_factory.hpp:77] Creating layer conv2/3x3
I0714 21:11:28.274976 18575 net.cpp:91] Creating Layer conv2/3x3
I0714 21:11:28.274981 18575 net.cpp:425] conv2/3x3 <- conv2/3x3_reduce
I0714 21:11:28.274991 18575 net.cpp:399] conv2/3x3 -> conv2/3x3
I0714 21:11:28.278019 18571 net.cpp:141] Setting up conv2/3x3_reduce
I0714 21:11:28.278043 18571 net.cpp:148] Top shape: 10 64 56 56 (2007040)
I0714 21:11:28.278048 18571 net.cpp:156] Memory required for data: 94330880
I0714 21:11:28.278069 18571 layer_factory.hpp:77] Creating layer conv2/relu_3x3_reduce
I0714 21:11:28.278079 18571 net.cpp:91] Creating Layer conv2/relu_3x3_reduce
I0714 21:11:28.278084 18571 net.cpp:425] conv2/relu_3x3_reduce <- conv2/3x3_reduce
I0714 21:11:28.278091 18571 net.cpp:386] conv2/relu_3x3_reduce -> conv2/3x3_reduce (in-place)
I0714 21:11:28.279052 18571 net.cpp:141] Setting up conv2/relu_3x3_reduce
I0714 21:11:28.279072 18571 net.cpp:148] Top shape: 10 64 56 56 (2007040)
I0714 21:11:28.279078 18571 net.cpp:156] Memory required for data: 102359040
I0714 21:11:28.279083 18571 layer_factory.hpp:77] Creating layer conv2/3x3
I0714 21:11:28.279103 18571 net.cpp:91] Creating Layer conv2/3x3
I0714 21:11:28.279109 18571 net.cpp:425] conv2/3x3 <- conv2/3x3_reduce
I0714 21:11:28.279119 18571 net.cpp:399] conv2/3x3 -> conv2/3x3
I0714 21:11:28.283825 18575 net.cpp:141] Setting up conv2/3x3
I0714 21:11:28.283848 18575 net.cpp:148] Top shape: 10 192 56 56 (6021120)
I0714 21:11:28.283854 18575 net.cpp:156] Memory required for data: 126443520
I0714 21:11:28.283869 18575 layer_factory.hpp:77] Creating layer conv2/relu_3x3
I0714 21:11:28.283884 18575 net.cpp:91] Creating Layer conv2/relu_3x3
I0714 21:11:28.283890 18575 net.cpp:425] conv2/relu_3x3 <- conv2/3x3
I0714 21:11:28.283897 18575 net.cpp:386] conv2/relu_3x3 -> conv2/3x3 (in-place)
I0714 21:11:28.284353 18575 net.cpp:141] Setting up conv2/relu_3x3
I0714 21:11:28.284368 18575 net.cpp:148] Top shape: 10 192 56 56 (6021120)
I0714 21:11:28.284373 18575 net.cpp:156] Memory required for data: 150528000
I0714 21:11:28.284378 18575 layer_factory.hpp:77] Creating layer conv2/norm2
I0714 21:11:28.284391 18575 net.cpp:91] Creating Layer conv2/norm2
I0714 21:11:28.284396 18575 net.cpp:425] conv2/norm2 <- conv2/3x3
I0714 21:11:28.284404 18575 net.cpp:399] conv2/norm2 -> conv2/norm2
I0714 21:11:28.286125 18575 net.cpp:141] Setting up conv2/norm2
I0714 21:11:28.286142 18575 net.cpp:148] Top shape: 10 192 56 56 (6021120)
I0714 21:11:28.286147 18575 net.cpp:156] Memory required for data: 174612480
I0714 21:11:28.286154 18575 layer_factory.hpp:77] Creating layer pool2/3x3_s2
I0714 21:11:28.286164 18575 net.cpp:91] Creating Layer pool2/3x3_s2
I0714 21:11:28.286170 18575 net.cpp:425] pool2/3x3_s2 <- conv2/norm2
I0714 21:11:28.286177 18575 net.cpp:399] pool2/3x3_s2 -> pool2/3x3_s2
I0714 21:11:28.286453 18575 net.cpp:141] Setting up pool2/3x3_s2
I0714 21:11:28.286468 18575 net.cpp:148] Top shape: 10 192 28 28 (1505280)
I0714 21:11:28.286473 18575 net.cpp:156] Memory required for data: 180633600
I0714 21:11:28.286478 18575 layer_factory.hpp:77] Creating layer pool2/3x3_s2_pool2/3x3_s2_0_split
I0714 21:11:28.286495 18575 net.cpp:91] Creating Layer pool2/3x3_s2_pool2/3x3_s2_0_split
I0714 21:11:28.286501 18575 net.cpp:425] pool2/3x3_s2_pool2/3x3_s2_0_split <- pool2/3x3_s2
I0714 21:11:28.286509 18575 net.cpp:399] pool2/3x3_s2_pool2/3x3_s2_0_split -> pool2/3x3_s2_pool2/3x3_s2_0_split_0
I0714 21:11:28.286523 18575 net.cpp:399] pool2/3x3_s2_pool2/3x3_s2_0_split -> pool2/3x3_s2_pool2/3x3_s2_0_split_1
I0714 21:11:28.286533 18575 net.cpp:399] pool2/3x3_s2_pool2/3x3_s2_0_split -> pool2/3x3_s2_pool2/3x3_s2_0_split_2
I0714 21:11:28.286542 18575 net.cpp:399] pool2/3x3_s2_pool2/3x3_s2_0_split -> pool2/3x3_s2_pool2/3x3_s2_0_split_3
I0714 21:11:28.287353 18571 net.cpp:141] Setting up conv2/3x3
I0714 21:11:28.287375 18571 net.cpp:148] Top shape: 10 192 56 56 (6021120)
I0714 21:11:28.287381 18571 net.cpp:156] Memory required for data: 126443520
I0714 21:11:28.287395 18571 layer_factory.hpp:77] Creating layer conv2/relu_3x3
I0714 21:11:28.287408 18575 net.cpp:141] Setting up pool2/3x3_s2_pool2/3x3_s2_0_split
I0714 21:11:28.287411 18571 net.cpp:91] Creating Layer conv2/relu_3x3
I0714 21:11:28.287425 18575 net.cpp:148] Top shape: 10 192 28 28 (1505280)
I0714 21:11:28.287427 18571 net.cpp:425] conv2/relu_3x3 <- conv2/3x3
I0714 21:11:28.287432 18575 net.cpp:148] Top shape: 10 192 28 28 (1505280)
I0714 21:11:28.287436 18571 net.cpp:386] conv2/relu_3x3 -> conv2/3x3 (in-place)
I0714 21:11:28.287439 18575 net.cpp:148] Top shape: 10 192 28 28 (1505280)
I0714 21:11:28.287446 18575 net.cpp:148] Top shape: 10 192 28 28 (1505280)
I0714 21:11:28.287451 18575 net.cpp:156] Memory required for data: 204718080
I0714 21:11:28.287456 18575 layer_factory.hpp:77] Creating layer inception_3a/1x1
I0714 21:11:28.287473 18575 net.cpp:91] Creating Layer inception_3a/1x1
I0714 21:11:28.287480 18575 net.cpp:425] inception_3a/1x1 <- pool2/3x3_s2_pool2/3x3_s2_0_split_0
I0714 21:11:28.287511 18575 net.cpp:399] inception_3a/1x1 -> inception_3a/1x1
I0714 21:11:28.287911 18571 net.cpp:141] Setting up conv2/relu_3x3
I0714 21:11:28.287925 18571 net.cpp:148] Top shape: 10 192 56 56 (6021120)
I0714 21:11:28.287930 18571 net.cpp:156] Memory required for data: 150528000
I0714 21:11:28.287936 18571 layer_factory.hpp:77] Creating layer conv2/norm2
I0714 21:11:28.287945 18571 net.cpp:91] Creating Layer conv2/norm2
I0714 21:11:28.287951 18571 net.cpp:425] conv2/norm2 <- conv2/3x3
I0714 21:11:28.287963 18571 net.cpp:399] conv2/norm2 -> conv2/norm2
I0714 21:11:28.289036 18571 net.cpp:141] Setting up conv2/norm2
I0714 21:11:28.289055 18571 net.cpp:148] Top shape: 10 192 56 56 (6021120)
I0714 21:11:28.289060 18571 net.cpp:156] Memory required for data: 174612480
I0714 21:11:28.289067 18571 layer_factory.hpp:77] Creating layer pool2/3x3_s2
I0714 21:11:28.289077 18571 net.cpp:91] Creating Layer pool2/3x3_s2
I0714 21:11:28.289082 18571 net.cpp:425] pool2/3x3_s2 <- conv2/norm2
I0714 21:11:28.289090 18571 net.cpp:399] pool2/3x3_s2 -> pool2/3x3_s2
I0714 21:11:28.289429 18571 net.cpp:141] Setting up pool2/3x3_s2
I0714 21:11:28.289444 18571 net.cpp:148] Top shape: 10 192 28 28 (1505280)
I0714 21:11:28.289448 18571 net.cpp:156] Memory required for data: 180633600
I0714 21:11:28.289454 18571 layer_factory.hpp:77] Creating layer pool2/3x3_s2_pool2/3x3_s2_0_split
I0714 21:11:28.289464 18571 net.cpp:91] Creating Layer pool2/3x3_s2_pool2/3x3_s2_0_split
I0714 21:11:28.289469 18571 net.cpp:425] pool2/3x3_s2_pool2/3x3_s2_0_split <- pool2/3x3_s2
I0714 21:11:28.289477 18571 net.cpp:399] pool2/3x3_s2_pool2/3x3_s2_0_split -> pool2/3x3_s2_pool2/3x3_s2_0_split_0
I0714 21:11:28.289487 18571 net.cpp:399] pool2/3x3_s2_pool2/3x3_s2_0_split -> pool2/3x3_s2_pool2/3x3_s2_0_split_1
I0714 21:11:28.289500 18571 net.cpp:399] pool2/3x3_s2_pool2/3x3_s2_0_split -> pool2/3x3_s2_pool2/3x3_s2_0_split_2
I0714 21:11:28.289510 18571 net.cpp:399] pool2/3x3_s2_pool2/3x3_s2_0_split -> pool2/3x3_s2_pool2/3x3_s2_0_split_3
I0714 21:11:28.291278 18571 net.cpp:141] Setting up pool2/3x3_s2_pool2/3x3_s2_0_split
I0714 21:11:28.291298 18571 net.cpp:148] Top shape: 10 192 28 28 (1505280)
I0714 21:11:28.291306 18571 net.cpp:148] Top shape: 10 192 28 28 (1505280)
I0714 21:11:28.291311 18571 net.cpp:148] Top shape: 10 192 28 28 (1505280)
I0714 21:11:28.291316 18571 net.cpp:148] Top shape: 10 192 28 28 (1505280)
I0714 21:11:28.291321 18571 net.cpp:156] Memory required for data: 204718080
I0714 21:11:28.291326 18571 layer_factory.hpp:77] Creating layer inception_3a/1x1
I0714 21:11:28.291342 18571 net.cpp:91] Creating Layer inception_3a/1x1
I0714 21:11:28.291349 18571 net.cpp:425] inception_3a/1x1 <- pool2/3x3_s2_pool2/3x3_s2_0_split_0
I0714 21:11:28.291359 18571 net.cpp:399] inception_3a/1x1 -> inception_3a/1x1
I0714 21:11:28.294529 18575 net.cpp:141] Setting up inception_3a/1x1
I0714 21:11:28.294553 18575 net.cpp:148] Top shape: 10 64 28 28 (501760)
I0714 21:11:28.294559 18575 net.cpp:156] Memory required for data: 206725120
I0714 21:11:28.294570 18575 layer_factory.hpp:77] Creating layer inception_3a/relu_1x1
I0714 21:11:28.294585 18575 net.cpp:91] Creating Layer inception_3a/relu_1x1
I0714 21:11:28.294591 18575 net.cpp:425] inception_3a/relu_1x1 <- inception_3a/1x1
I0714 21:11:28.294601 18575 net.cpp:386] inception_3a/relu_1x1 -> inception_3a/1x1 (in-place)
I0714 21:11:28.295058 18575 net.cpp:141] Setting up inception_3a/relu_1x1
I0714 21:11:28.295073 18575 net.cpp:148] Top shape: 10 64 28 28 (501760)
I0714 21:11:28.295078 18575 net.cpp:156] Memory required for data: 208732160
I0714 21:11:28.295084 18575 layer_factory.hpp:77] Creating layer inception_3a/3x3_reduce
I0714 21:11:28.295102 18575 net.cpp:91] Creating Layer inception_3a/3x3_reduce
I0714 21:11:28.295109 18575 net.cpp:425] inception_3a/3x3_reduce <- pool2/3x3_s2_pool2/3x3_s2_0_split_1
I0714 21:11:28.295121 18575 net.cpp:399] inception_3a/3x3_reduce -> inception_3a/3x3_reduce
I0714 21:11:28.301973 18571 net.cpp:141] Setting up inception_3a/1x1
I0714 21:11:28.301996 18571 net.cpp:148] Top shape: 10 64 28 28 (501760)
I0714 21:11:28.302002 18571 net.cpp:156] Memory required for data: 206725120
I0714 21:11:28.302013 18571 layer_factory.hpp:77] Creating layer inception_3a/relu_1x1
I0714 21:11:28.302027 18571 net.cpp:91] Creating Layer inception_3a/relu_1x1
I0714 21:11:28.302034 18571 net.cpp:425] inception_3a/relu_1x1 <- inception_3a/1x1
I0714 21:11:28.302042 18571 net.cpp:386] inception_3a/relu_1x1 -> inception_3a/1x1 (in-place)
I0714 21:11:28.302331 18571 net.cpp:141] Setting up inception_3a/relu_1x1
I0714 21:11:28.302343 18571 net.cpp:148] Top shape: 10 64 28 28 (501760)
I0714 21:11:28.302348 18571 net.cpp:156] Memory required for data: 208732160
I0714 21:11:28.302355 18571 layer_factory.hpp:77] Creating layer inception_3a/3x3_reduce
I0714 21:11:28.302371 18571 net.cpp:91] Creating Layer inception_3a/3x3_reduce
I0714 21:11:28.302378 18571 net.cpp:425] inception_3a/3x3_reduce <- pool2/3x3_s2_pool2/3x3_s2_0_split_1
I0714 21:11:28.302391 18571 net.cpp:399] inception_3a/3x3_reduce -> inception_3a/3x3_reduce
I0714 21:11:28.306099 18575 net.cpp:141] Setting up inception_3a/3x3_reduce
I0714 21:11:28.306126 18575 net.cpp:148] Top shape: 10 96 28 28 (752640)
I0714 21:11:28.306133 18575 net.cpp:156] Memory required for data: 211742720
I0714 21:11:28.306149 18575 layer_factory.hpp:77] Creating layer inception_3a/relu_3x3_reduce
I0714 21:11:28.306159 18575 net.cpp:91] Creating Layer inception_3a/relu_3x3_reduce
I0714 21:11:28.306165 18575 net.cpp:425] inception_3a/relu_3x3_reduce <- inception_3a/3x3_reduce
I0714 21:11:28.306179 18575 net.cpp:386] inception_3a/relu_3x3_reduce -> inception_3a/3x3_reduce (in-place)
I0714 21:11:28.306536 18575 net.cpp:141] Setting up inception_3a/relu_3x3_reduce
I0714 21:11:28.306551 18575 net.cpp:148] Top shape: 10 96 28 28 (752640)
I0714 21:11:28.306557 18575 net.cpp:156] Memory required for data: 214753280
I0714 21:11:28.306562 18575 layer_factory.hpp:77] Creating layer inception_3a/3x3
I0714 21:11:28.306583 18575 net.cpp:91] Creating Layer inception_3a/3x3
I0714 21:11:28.306591 18575 net.cpp:425] inception_3a/3x3 <- inception_3a/3x3_reduce
I0714 21:11:28.306602 18575 net.cpp:399] inception_3a/3x3 -> inception_3a/3x3
I0714 21:11:28.308845 18571 net.cpp:141] Setting up inception_3a/3x3_reduce
I0714 21:11:28.308866 18571 net.cpp:148] Top shape: 10 96 28 28 (752640)
I0714 21:11:28.308872 18571 net.cpp:156] Memory required for data: 211742720
I0714 21:11:28.308887 18571 layer_factory.hpp:77] Creating layer inception_3a/relu_3x3_reduce
I0714 21:11:28.308897 18571 net.cpp:91] Creating Layer inception_3a/relu_3x3_reduce
I0714 21:11:28.308902 18571 net.cpp:425] inception_3a/relu_3x3_reduce <- inception_3a/3x3_reduce
I0714 21:11:28.308914 18571 net.cpp:386] inception_3a/relu_3x3_reduce -> inception_3a/3x3_reduce (in-place)
I0714 21:11:28.309183 18571 net.cpp:141] Setting up inception_3a/relu_3x3_reduce
I0714 21:11:28.309198 18571 net.cpp:148] Top shape: 10 96 28 28 (752640)
I0714 21:11:28.309204 18571 net.cpp:156] Memory required for data: 214753280
I0714 21:11:28.309209 18571 layer_factory.hpp:77] Creating layer inception_3a/3x3
I0714 21:11:28.309228 18571 net.cpp:91] Creating Layer inception_3a/3x3
I0714 21:11:28.309236 18571 net.cpp:425] inception_3a/3x3 <- inception_3a/3x3_reduce
I0714 21:11:28.309245 18571 net.cpp:399] inception_3a/3x3 -> inception_3a/3x3
I0714 21:11:28.313737 18575 net.cpp:141] Setting up inception_3a/3x3
I0714 21:11:28.313760 18575 net.cpp:148] Top shape: 10 128 28 28 (1003520)
I0714 21:11:28.313766 18575 net.cpp:156] Memory required for data: 218767360
I0714 21:11:28.313776 18575 layer_factory.hpp:77] Creating layer inception_3a/relu_3x3
I0714 21:11:28.313789 18575 net.cpp:91] Creating Layer inception_3a/relu_3x3
I0714 21:11:28.313796 18575 net.cpp:425] inception_3a/relu_3x3 <- inception_3a/3x3
I0714 21:11:28.313804 18575 net.cpp:386] inception_3a/relu_3x3 -> inception_3a/3x3 (in-place)
I0714 21:11:28.314936 18575 net.cpp:141] Setting up inception_3a/relu_3x3
I0714 21:11:28.314959 18575 net.cpp:148] Top shape: 10 128 28 28 (1003520)
I0714 21:11:28.314963 18575 net.cpp:156] Memory required for data: 222781440
I0714 21:11:28.314970 18575 layer_factory.hpp:77] Creating layer inception_3a/5x5_reduce
I0714 21:11:28.314988 18575 net.cpp:91] Creating Layer inception_3a/5x5_reduce
I0714 21:11:28.314996 18575 net.cpp:425] inception_3a/5x5_reduce <- pool2/3x3_s2_pool2/3x3_s2_0_split_2
I0714 21:11:28.315006 18575 net.cpp:399] inception_3a/5x5_reduce -> inception_3a/5x5_reduce
I0714 21:11:28.315042 18571 net.cpp:141] Setting up inception_3a/3x3
I0714 21:11:28.315059 18571 net.cpp:148] Top shape: 10 128 28 28 (1003520)
I0714 21:11:28.315064 18571 net.cpp:156] Memory required for data: 218767360
I0714 21:11:28.315074 18571 layer_factory.hpp:77] Creating layer inception_3a/relu_3x3
I0714 21:11:28.315089 18571 net.cpp:91] Creating Layer inception_3a/relu_3x3
I0714 21:11:28.315096 18571 net.cpp:425] inception_3a/relu_3x3 <- inception_3a/3x3
I0714 21:11:28.315104 18571 net.cpp:386] inception_3a/relu_3x3 -> inception_3a/3x3 (in-place)
I0714 21:11:28.316107 18571 net.cpp:141] Setting up inception_3a/relu_3x3
I0714 21:11:28.316126 18571 net.cpp:148] Top shape: 10 128 28 28 (1003520)
I0714 21:11:28.316134 18571 net.cpp:156] Memory required for data: 222781440
I0714 21:11:28.316140 18571 layer_factory.hpp:77] Creating layer inception_3a/5x5_reduce
I0714 21:11:28.316154 18571 net.cpp:91] Creating Layer inception_3a/5x5_reduce
I0714 21:11:28.316161 18571 net.cpp:425] inception_3a/5x5_reduce <- pool2/3x3_s2_pool2/3x3_s2_0_split_2
I0714 21:11:28.316175 18571 net.cpp:399] inception_3a/5x5_reduce -> inception_3a/5x5_reduce
I0714 21:11:28.320904 18575 net.cpp:141] Setting up inception_3a/5x5_reduce
I0714 21:11:28.320927 18575 net.cpp:148] Top shape: 10 16 28 28 (125440)
I0714 21:11:28.320933 18575 net.cpp:156] Memory required for data: 223283200
I0714 21:11:28.320945 18575 layer_factory.hpp:77] Creating layer inception_3a/relu_5x5_reduce
I0714 21:11:28.320955 18575 net.cpp:91] Creating Layer inception_3a/relu_5x5_reduce
I0714 21:11:28.320961 18575 net.cpp:425] inception_3a/relu_5x5_reduce <- inception_3a/5x5_reduce
I0714 21:11:28.320971 18575 net.cpp:386] inception_3a/relu_5x5_reduce -> inception_3a/5x5_reduce (in-place)
I0714 21:11:28.321465 18575 net.cpp:141] Setting up inception_3a/relu_5x5_reduce
I0714 21:11:28.321481 18575 net.cpp:148] Top shape: 10 16 28 28 (125440)
I0714 21:11:28.321486 18575 net.cpp:156] Memory required for data: 223784960
I0714 21:11:28.321492 18575 layer_factory.hpp:77] Creating layer inception_3a/5x5
I0714 21:11:28.321506 18575 net.cpp:91] Creating Layer inception_3a/5x5
I0714 21:11:28.321513 18575 net.cpp:425] inception_3a/5x5 <- inception_3a/5x5_reduce
I0714 21:11:28.321527 18575 net.cpp:399] inception_3a/5x5 -> inception_3a/5x5
I0714 21:11:28.321534 18571 net.cpp:141] Setting up inception_3a/5x5_reduce
I0714 21:11:28.321553 18571 net.cpp:148] Top shape: 10 16 28 28 (125440)
I0714 21:11:28.321559 18571 net.cpp:156] Memory required for data: 223283200
I0714 21:11:28.321569 18571 layer_factory.hpp:77] Creating layer inception_3a/relu_5x5_reduce
I0714 21:11:28.321578 18571 net.cpp:91] Creating Layer inception_3a/relu_5x5_reduce
I0714 21:11:28.321584 18571 net.cpp:425] inception_3a/relu_5x5_reduce <- inception_3a/5x5_reduce
I0714 21:11:28.321593 18571 net.cpp:386] inception_3a/relu_5x5_reduce -> inception_3a/5x5_reduce (in-place)
I0714 21:11:28.322055 18571 net.cpp:141] Setting up inception_3a/relu_5x5_reduce
I0714 21:11:28.322068 18571 net.cpp:148] Top shape: 10 16 28 28 (125440)
I0714 21:11:28.322073 18571 net.cpp:156] Memory required for data: 223784960
I0714 21:11:28.322079 18571 layer_factory.hpp:77] Creating layer inception_3a/5x5
I0714 21:11:28.322095 18571 net.cpp:91] Creating Layer inception_3a/5x5
I0714 21:11:28.322103 18571 net.cpp:425] inception_3a/5x5 <- inception_3a/5x5_reduce
I0714 21:11:28.322115 18571 net.cpp:399] inception_3a/5x5 -> inception_3a/5x5
I0714 21:11:28.328344 18575 net.cpp:141] Setting up inception_3a/5x5
I0714 21:11:28.328367 18575 net.cpp:148] Top shape: 10 32 28 28 (250880)
I0714 21:11:28.328373 18575 net.cpp:156] Memory required for data: 224788480
I0714 21:11:28.328387 18575 layer_factory.hpp:77] Creating layer inception_3a/relu_5x5
I0714 21:11:28.328398 18575 net.cpp:91] Creating Layer inception_3a/relu_5x5
I0714 21:11:28.328404 18575 net.cpp:425] inception_3a/relu_5x5 <- inception_3a/5x5
I0714 21:11:28.328415 18575 net.cpp:386] inception_3a/relu_5x5 -> inception_3a/5x5 (in-place)
I0714 21:11:28.328819 18575 net.cpp:141] Setting up inception_3a/relu_5x5
I0714 21:11:28.328831 18575 net.cpp:148] Top shape: 10 32 28 28 (250880)
I0714 21:11:28.328837 18575 net.cpp:156] Memory required for data: 225792000
I0714 21:11:28.328842 18575 layer_factory.hpp:77] Creating layer inception_3a/pool
I0714 21:11:28.328860 18575 net.cpp:91] Creating Layer inception_3a/pool
I0714 21:11:28.328867 18575 net.cpp:425] inception_3a/pool <- pool2/3x3_s2_pool2/3x3_s2_0_split_3
I0714 21:11:28.328876 18575 net.cpp:399] inception_3a/pool -> inception_3a/pool
I0714 21:11:28.329442 18571 net.cpp:141] Setting up inception_3a/5x5
I0714 21:11:28.329464 18571 net.cpp:148] Top shape: 10 32 28 28 (250880)
I0714 21:11:28.329470 18571 net.cpp:156] Memory required for data: 224788480
I0714 21:11:28.329479 18575 net.cpp:141] Setting up inception_3a/pool
I0714 21:11:28.329485 18571 layer_factory.hpp:77] Creating layer inception_3a/relu_5x5
I0714 21:11:28.329491 18575 net.cpp:148] Top shape: 10 192 28 28 (1505280)
I0714 21:11:28.329496 18571 net.cpp:91] Creating Layer inception_3a/relu_5x5
I0714 21:11:28.329498 18575 net.cpp:156] Memory required for data: 231813120
I0714 21:11:28.329504 18571 net.cpp:425] inception_3a/relu_5x5 <- inception_3a/5x5
I0714 21:11:28.329504 18575 layer_factory.hpp:77] Creating layer inception_3a/pool_proj
I0714 21:11:28.329519 18571 net.cpp:386] inception_3a/relu_5x5 -> inception_3a/5x5 (in-place)
I0714 21:11:28.329535 18575 net.cpp:91] Creating Layer inception_3a/pool_proj
I0714 21:11:28.329542 18575 net.cpp:425] inception_3a/pool_proj <- inception_3a/pool
I0714 21:11:28.329555 18575 net.cpp:399] inception_3a/pool_proj -> inception_3a/pool_proj
I0714 21:11:28.330024 18571 net.cpp:141] Setting up inception_3a/relu_5x5
I0714 21:11:28.330037 18571 net.cpp:148] Top shape: 10 32 28 28 (250880)
I0714 21:11:28.330042 18571 net.cpp:156] Memory required for data: 225792000
I0714 21:11:28.330049 18571 layer_factory.hpp:77] Creating layer inception_3a/pool
I0714 21:11:28.330057 18571 net.cpp:91] Creating Layer inception_3a/pool
I0714 21:11:28.330063 18571 net.cpp:425] inception_3a/pool <- pool2/3x3_s2_pool2/3x3_s2_0_split_3
I0714 21:11:28.330075 18571 net.cpp:399] inception_3a/pool -> inception_3a/pool
I0714 21:11:28.330297 18571 net.cpp:141] Setting up inception_3a/pool
I0714 21:11:28.330309 18571 net.cpp:148] Top shape: 10 192 28 28 (1505280)
I0714 21:11:28.330314 18571 net.cpp:156] Memory required for data: 231813120
I0714 21:11:28.330319 18571 layer_factory.hpp:77] Creating layer inception_3a/pool_proj
I0714 21:11:28.330337 18571 net.cpp:91] Creating Layer inception_3a/pool_proj
I0714 21:11:28.330343 18571 net.cpp:425] inception_3a/pool_proj <- inception_3a/pool
I0714 21:11:28.330355 18571 net.cpp:399] inception_3a/pool_proj -> inception_3a/pool_proj
I0714 21:11:28.334879 18575 net.cpp:141] Setting up inception_3a/pool_proj
I0714 21:11:28.334908 18575 net.cpp:148] Top shape: 10 32 28 28 (250880)
I0714 21:11:28.334914 18575 net.cpp:156] Memory required for data: 232816640
I0714 21:11:28.334931 18575 layer_factory.hpp:77] Creating layer inception_3a/relu_pool_proj
I0714 21:11:28.334942 18575 net.cpp:91] Creating Layer inception_3a/relu_pool_proj
I0714 21:11:28.334949 18575 net.cpp:425] inception_3a/relu_pool_proj <- inception_3a/pool_proj
I0714 21:11:28.334966 18575 net.cpp:386] inception_3a/relu_pool_proj -> inception_3a/pool_proj (in-place)
I0714 21:11:28.336161 18575 net.cpp:141] Setting up inception_3a/relu_pool_proj
I0714 21:11:28.336179 18575 net.cpp:148] Top shape: 10 32 28 28 (250880)
I0714 21:11:28.336185 18575 net.cpp:156] Memory required for data: 233820160
I0714 21:11:28.336191 18575 layer_factory.hpp:77] Creating layer inception_3a/output
I0714 21:11:28.336220 18575 net.cpp:91] Creating Layer inception_3a/output
I0714 21:11:28.336226 18575 net.cpp:425] inception_3a/output <- inception_3a/1x1
I0714 21:11:28.336235 18575 net.cpp:425] inception_3a/output <- inception_3a/3x3
I0714 21:11:28.336241 18575 net.cpp:425] inception_3a/output <- inception_3a/5x5
I0714 21:11:28.336246 18575 net.cpp:425] inception_3a/output <- inception_3a/pool_proj
I0714 21:11:28.336254 18575 net.cpp:399] inception_3a/output -> inception_3a/output
I0714 21:11:28.336259 18571 net.cpp:141] Setting up inception_3a/pool_proj
I0714 21:11:28.336277 18571 net.cpp:148] Top shape: 10 32 28 28 (250880)
I0714 21:11:28.336282 18571 net.cpp:156] Memory required for data: 232816640
I0714 21:11:28.336297 18571 layer_factory.hpp:77] Creating layer inception_3a/relu_pool_proj
I0714 21:11:28.336307 18571 net.cpp:91] Creating Layer inception_3a/relu_pool_proj
I0714 21:11:28.336313 18571 net.cpp:425] inception_3a/relu_pool_proj <- inception_3a/pool_proj
I0714 21:11:28.336325 18571 net.cpp:386] inception_3a/relu_pool_proj -> inception_3a/pool_proj (in-place)
I0714 21:11:28.336343 18575 net.cpp:141] Setting up inception_3a/output
I0714 21:11:28.336354 18575 net.cpp:148] Top shape: 10 256 28 28 (2007040)
I0714 21:11:28.336359 18575 net.cpp:156] Memory required for data: 241848320
I0714 21:11:28.336364 18575 layer_factory.hpp:77] Creating layer inception_3a/output_inception_3a/output_0_split
I0714 21:11:28.336379 18575 net.cpp:91] Creating Layer inception_3a/output_inception_3a/output_0_split
I0714 21:11:28.336385 18575 net.cpp:425] inception_3a/output_inception_3a/output_0_split <- inception_3a/output
I0714 21:11:28.336391 18575 net.cpp:399] inception_3a/output_inception_3a/output_0_split -> inception_3a/output_inception_3a/output_0_split_0
I0714 21:11:28.336405 18575 net.cpp:399] inception_3a/output_inception_3a/output_0_split -> inception_3a/output_inception_3a/output_0_split_1
I0714 21:11:28.336415 18575 net.cpp:399] inception_3a/output_inception_3a/output_0_split -> inception_3a/output_inception_3a/output_0_split_2
I0714 21:11:28.336423 18575 net.cpp:399] inception_3a/output_inception_3a/output_0_split -> inception_3a/output_inception_3a/output_0_split_3
I0714 21:11:28.337303 18575 net.cpp:141] Setting up inception_3a/output_inception_3a/output_0_split
I0714 21:11:28.337316 18575 net.cpp:148] Top shape: 10 256 28 28 (2007040)
I0714 21:11:28.337323 18575 net.cpp:148] Top shape: 10 256 28 28 (2007040)
I0714 21:11:28.337322 18571 net.cpp:141] Setting up inception_3a/relu_pool_proj
I0714 21:11:28.337329 18575 net.cpp:148] Top shape: 10 256 28 28 (2007040)
I0714 21:11:28.337338 18575 net.cpp:148] Top shape: 10 256 28 28 (2007040)
I0714 21:11:28.337340 18571 net.cpp:148] Top shape: 10 32 28 28 (250880)
I0714 21:11:28.337343 18575 net.cpp:156] Memory required for data: 273960960
I0714 21:11:28.337347 18571 net.cpp:156] Memory required for data: 233820160
I0714 21:11:28.337349 18575 layer_factory.hpp:77] Creating layer inception_3b/1x1
I0714 21:11:28.337352 18571 layer_factory.hpp:77] Creating layer inception_3a/output
I0714 21:11:28.337371 18571 net.cpp:91] Creating Layer inception_3a/output
I0714 21:11:28.337378 18571 net.cpp:425] inception_3a/output <- inception_3a/1x1
I0714 21:11:28.337379 18575 net.cpp:91] Creating Layer inception_3b/1x1
I0714 21:11:28.337385 18571 net.cpp:425] inception_3a/output <- inception_3a/3x3
I0714 21:11:28.337388 18575 net.cpp:425] inception_3b/1x1 <- inception_3a/output_inception_3a/output_0_split_0
I0714 21:11:28.337393 18571 net.cpp:425] inception_3a/output <- inception_3a/5x5
I0714 21:11:28.337399 18571 net.cpp:425] inception_3a/output <- inception_3a/pool_proj
I0714 21:11:28.337402 18575 net.cpp:399] inception_3b/1x1 -> inception_3b/1x1
I0714 21:11:28.337407 18571 net.cpp:399] inception_3a/output -> inception_3a/output
I0714 21:11:28.337561 18571 net.cpp:141] Setting up inception_3a/output
I0714 21:11:28.337574 18571 net.cpp:148] Top shape: 10 256 28 28 (2007040)
I0714 21:11:28.337579 18571 net.cpp:156] Memory required for data: 241848320
I0714 21:11:28.337584 18571 layer_factory.hpp:77] Creating layer inception_3a/output_inception_3a/output_0_split
I0714 21:11:28.337599 18571 net.cpp:91] Creating Layer inception_3a/output_inception_3a/output_0_split
I0714 21:11:28.337604 18571 net.cpp:425] inception_3a/output_inception_3a/output_0_split <- inception_3a/output
I0714 21:11:28.337613 18571 net.cpp:399] inception_3a/output_inception_3a/output_0_split -> inception_3a/output_inception_3a/output_0_split_0
I0714 21:11:28.337626 18571 net.cpp:399] inception_3a/output_inception_3a/output_0_split -> inception_3a/output_inception_3a/output_0_split_1
I0714 21:11:28.337636 18571 net.cpp:399] inception_3a/output_inception_3a/output_0_split -> inception_3a/output_inception_3a/output_0_split_2
I0714 21:11:28.337646 18571 net.cpp:399] inception_3a/output_inception_3a/output_0_split -> inception_3a/output_inception_3a/output_0_split_3
I0714 21:11:28.338121 18571 net.cpp:141] Setting up inception_3a/output_inception_3a/output_0_split
I0714 21:11:28.338135 18571 net.cpp:148] Top shape: 10 256 28 28 (2007040)
I0714 21:11:28.338140 18571 net.cpp:148] Top shape: 10 256 28 28 (2007040)
I0714 21:11:28.338146 18571 net.cpp:148] Top shape: 10 256 28 28 (2007040)
I0714 21:11:28.338152 18571 net.cpp:148] Top shape: 10 256 28 28 (2007040)
I0714 21:11:28.338156 18571 net.cpp:156] Memory required for data: 273960960
I0714 21:11:28.338161 18571 layer_factory.hpp:77] Creating layer inception_3b/1x1
I0714 21:11:28.338178 18571 net.cpp:91] Creating Layer inception_3b/1x1
I0714 21:11:28.338184 18571 net.cpp:425] inception_3b/1x1 <- inception_3a/output_inception_3a/output_0_split_0
I0714 21:11:28.338196 18571 net.cpp:399] inception_3b/1x1 -> inception_3b/1x1
I0714 21:11:28.342867 18575 net.cpp:141] Setting up inception_3b/1x1
I0714 21:11:28.342895 18575 net.cpp:148] Top shape: 10 128 28 28 (1003520)
I0714 21:11:28.342903 18575 net.cpp:156] Memory required for data: 277975040
I0714 21:11:28.342914 18575 layer_factory.hpp:77] Creating layer inception_3b/relu_1x1
I0714 21:11:28.342926 18575 net.cpp:91] Creating Layer inception_3b/relu_1x1
I0714 21:11:28.342932 18575 net.cpp:425] inception_3b/relu_1x1 <- inception_3b/1x1
I0714 21:11:28.342941 18575 net.cpp:386] inception_3b/relu_1x1 -> inception_3b/1x1 (in-place)
I0714 21:11:28.343412 18575 net.cpp:141] Setting up inception_3b/relu_1x1
I0714 21:11:28.343426 18575 net.cpp:148] Top shape: 10 128 28 28 (1003520)
I0714 21:11:28.343431 18575 net.cpp:156] Memory required for data: 281989120
I0714 21:11:28.343436 18575 layer_factory.hpp:77] Creating layer inception_3b/3x3_reduce
I0714 21:11:28.343454 18575 net.cpp:91] Creating Layer inception_3b/3x3_reduce
I0714 21:11:28.343461 18575 net.cpp:425] inception_3b/3x3_reduce <- inception_3a/output_inception_3a/output_0_split_1
I0714 21:11:28.343483 18571 net.cpp:141] Setting up inception_3b/1x1
I0714 21:11:28.343484 18575 net.cpp:399] inception_3b/3x3_reduce -> inception_3b/3x3_reduce
I0714 21:11:28.343507 18571 net.cpp:148] Top shape: 10 128 28 28 (1003520)
I0714 21:11:28.343513 18571 net.cpp:156] Memory required for data: 277975040
I0714 21:11:28.343523 18571 layer_factory.hpp:77] Creating layer inception_3b/relu_1x1
I0714 21:11:28.343535 18571 net.cpp:91] Creating Layer inception_3b/relu_1x1
I0714 21:11:28.343543 18571 net.cpp:425] inception_3b/relu_1x1 <- inception_3b/1x1
I0714 21:11:28.343550 18571 net.cpp:386] inception_3b/relu_1x1 -> inception_3b/1x1 (in-place)
I0714 21:11:28.344043 18571 net.cpp:141] Setting up inception_3b/relu_1x1
I0714 21:11:28.344056 18571 net.cpp:148] Top shape: 10 128 28 28 (1003520)
I0714 21:11:28.344061 18571 net.cpp:156] Memory required for data: 281989120
I0714 21:11:28.344068 18571 layer_factory.hpp:77] Creating layer inception_3b/3x3_reduce
I0714 21:11:28.344084 18571 net.cpp:91] Creating Layer inception_3b/3x3_reduce
I0714 21:11:28.344089 18571 net.cpp:425] inception_3b/3x3_reduce <- inception_3a/output_inception_3a/output_0_split_1
I0714 21:11:28.344099 18571 net.cpp:399] inception_3b/3x3_reduce -> inception_3b/3x3_reduce
I0714 21:11:28.348145 18575 net.cpp:141] Setting up inception_3b/3x3_reduce
I0714 21:11:28.348165 18575 net.cpp:148] Top shape: 10 128 28 28 (1003520)
I0714 21:11:28.348171 18575 net.cpp:156] Memory required for data: 286003200
I0714 21:11:28.348182 18575 layer_factory.hpp:77] Creating layer inception_3b/relu_3x3_reduce
I0714 21:11:28.348196 18575 net.cpp:91] Creating Layer inception_3b/relu_3x3_reduce
I0714 21:11:28.348204 18575 net.cpp:425] inception_3b/relu_3x3_reduce <- inception_3b/3x3_reduce
I0714 21:11:28.348212 18575 net.cpp:386] inception_3b/relu_3x3_reduce -> inception_3b/3x3_reduce (in-place)
I0714 21:11:28.348518 18571 net.cpp:141] Setting up inception_3b/3x3_reduce
I0714 21:11:28.348536 18571 net.cpp:148] Top shape: 10 128 28 28 (1003520)
I0714 21:11:28.348541 18571 net.cpp:156] Memory required for data: 286003200
I0714 21:11:28.348551 18571 layer_factory.hpp:77] Creating layer inception_3b/relu_3x3_reduce
I0714 21:11:28.348564 18571 net.cpp:91] Creating Layer inception_3b/relu_3x3_reduce
I0714 21:11:28.348572 18571 net.cpp:425] inception_3b/relu_3x3_reduce <- inception_3b/3x3_reduce
I0714 21:11:28.348579 18571 net.cpp:386] inception_3b/relu_3x3_reduce -> inception_3b/3x3_reduce (in-place)
I0714 21:11:28.348597 18575 net.cpp:141] Setting up inception_3b/relu_3x3_reduce
I0714 21:11:28.348610 18575 net.cpp:148] Top shape: 10 128 28 28 (1003520)
I0714 21:11:28.348615 18575 net.cpp:156] Memory required for data: 290017280
I0714 21:11:28.348621 18575 layer_factory.hpp:77] Creating layer inception_3b/3x3
I0714 21:11:28.348639 18575 net.cpp:91] Creating Layer inception_3b/3x3
I0714 21:11:28.348646 18575 net.cpp:425] inception_3b/3x3 <- inception_3b/3x3_reduce
I0714 21:11:28.348659 18575 net.cpp:399] inception_3b/3x3 -> inception_3b/3x3
I0714 21:11:28.349066 18571 net.cpp:141] Setting up inception_3b/relu_3x3_reduce
I0714 21:11:28.349079 18571 net.cpp:148] Top shape: 10 128 28 28 (1003520)
I0714 21:11:28.349084 18571 net.cpp:156] Memory required for data: 290017280
I0714 21:11:28.349090 18571 layer_factory.hpp:77] Creating layer inception_3b/3x3
I0714 21:11:28.349108 18571 net.cpp:91] Creating Layer inception_3b/3x3
I0714 21:11:28.349115 18571 net.cpp:425] inception_3b/3x3 <- inception_3b/3x3_reduce
I0714 21:11:28.349128 18571 net.cpp:399] inception_3b/3x3 -> inception_3b/3x3
I0714 21:11:28.357331 18575 net.cpp:141] Setting up inception_3b/3x3
I0714 21:11:28.357357 18575 net.cpp:148] Top shape: 10 192 28 28 (1505280)
I0714 21:11:28.357362 18575 net.cpp:156] Memory required for data: 296038400
I0714 21:11:28.357373 18575 layer_factory.hpp:77] Creating layer inception_3b/relu_3x3
I0714 21:11:28.357393 18575 net.cpp:91] Creating Layer inception_3b/relu_3x3
I0714 21:11:28.357398 18575 net.cpp:425] inception_3b/relu_3x3 <- inception_3b/3x3
I0714 21:11:28.357408 18575 net.cpp:386] inception_3b/relu_3x3 -> inception_3b/3x3 (in-place)
I0714 21:11:28.358649 18575 net.cpp:141] Setting up inception_3b/relu_3x3
I0714 21:11:28.358669 18575 net.cpp:148] Top shape: 10 192 28 28 (1505280)
I0714 21:11:28.358675 18575 net.cpp:156] Memory required for data: 302059520
I0714 21:11:28.358680 18575 layer_factory.hpp:77] Creating layer inception_3b/5x5_reduce
I0714 21:11:28.358708 18575 net.cpp:91] Creating Layer inception_3b/5x5_reduce
I0714 21:11:28.358717 18575 net.cpp:425] inception_3b/5x5_reduce <- inception_3a/output_inception_3a/output_0_split_2
I0714 21:11:28.358731 18575 net.cpp:399] inception_3b/5x5_reduce -> inception_3b/5x5_reduce
I0714 21:11:28.358765 18571 net.cpp:141] Setting up inception_3b/3x3
I0714 21:11:28.358783 18571 net.cpp:148] Top shape: 10 192 28 28 (1505280)
I0714 21:11:28.358788 18571 net.cpp:156] Memory required for data: 296038400
I0714 21:11:28.358798 18571 layer_factory.hpp:77] Creating layer inception_3b/relu_3x3
I0714 21:11:28.358814 18571 net.cpp:91] Creating Layer inception_3b/relu_3x3
I0714 21:11:28.358821 18571 net.cpp:425] inception_3b/relu_3x3 <- inception_3b/3x3
I0714 21:11:28.358829 18571 net.cpp:386] inception_3b/relu_3x3 -> inception_3b/3x3 (in-place)
I0714 21:11:28.359879 18571 net.cpp:141] Setting up inception_3b/relu_3x3
I0714 21:11:28.359897 18571 net.cpp:148] Top shape: 10 192 28 28 (1505280)
I0714 21:11:28.359904 18571 net.cpp:156] Memory required for data: 302059520
I0714 21:11:28.359910 18571 layer_factory.hpp:77] Creating layer inception_3b/5x5_reduce
I0714 21:11:28.359927 18571 net.cpp:91] Creating Layer inception_3b/5x5_reduce
I0714 21:11:28.359935 18571 net.cpp:425] inception_3b/5x5_reduce <- inception_3a/output_inception_3a/output_0_split_2
I0714 21:11:28.359946 18571 net.cpp:399] inception_3b/5x5_reduce -> inception_3b/5x5_reduce
I0714 21:11:28.364755 18575 net.cpp:141] Setting up inception_3b/5x5_reduce
I0714 21:11:28.364780 18575 net.cpp:148] Top shape: 10 32 28 28 (250880)
I0714 21:11:28.364787 18575 net.cpp:156] Memory required for data: 303063040
I0714 21:11:28.364799 18575 layer_factory.hpp:77] Creating layer inception_3b/relu_5x5_reduce
I0714 21:11:28.364809 18575 net.cpp:91] Creating Layer inception_3b/relu_5x5_reduce
I0714 21:11:28.364814 18575 net.cpp:425] inception_3b/relu_5x5_reduce <- inception_3b/5x5_reduce
I0714 21:11:28.364823 18575 net.cpp:386] inception_3b/relu_5x5_reduce -> inception_3b/5x5_reduce (in-place)
I0714 21:11:28.365350 18575 net.cpp:141] Setting up inception_3b/relu_5x5_reduce
I0714 21:11:28.365365 18575 net.cpp:148] Top shape: 10 32 28 28 (250880)
I0714 21:11:28.365371 18575 net.cpp:156] Memory required for data: 304066560
I0714 21:11:28.365376 18575 layer_factory.hpp:77] Creating layer inception_3b/5x5
I0714 21:11:28.365394 18575 net.cpp:91] Creating Layer inception_3b/5x5
I0714 21:11:28.365401 18575 net.cpp:425] inception_3b/5x5 <- inception_3b/5x5_reduce
I0714 21:11:28.365419 18575 net.cpp:399] inception_3b/5x5 -> inception_3b/5x5
I0714 21:11:28.365432 18571 net.cpp:141] Setting up inception_3b/5x5_reduce
I0714 21:11:28.365450 18571 net.cpp:148] Top shape: 10 32 28 28 (250880)
I0714 21:11:28.365456 18571 net.cpp:156] Memory required for data: 303063040
I0714 21:11:28.365466 18571 layer_factory.hpp:77] Creating layer inception_3b/relu_5x5_reduce
I0714 21:11:28.365475 18571 net.cpp:91] Creating Layer inception_3b/relu_5x5_reduce
I0714 21:11:28.365483 18571 net.cpp:425] inception_3b/relu_5x5_reduce <- inception_3b/5x5_reduce
I0714 21:11:28.365490 18571 net.cpp:386] inception_3b/relu_5x5_reduce -> inception_3b/5x5_reduce (in-place)
I0714 21:11:28.365972 18571 net.cpp:141] Setting up inception_3b/relu_5x5_reduce
I0714 21:11:28.365986 18571 net.cpp:148] Top shape: 10 32 28 28 (250880)
I0714 21:11:28.365991 18571 net.cpp:156] Memory required for data: 304066560
I0714 21:11:28.365998 18571 layer_factory.hpp:77] Creating layer inception_3b/5x5
I0714 21:11:28.366014 18571 net.cpp:91] Creating Layer inception_3b/5x5
I0714 21:11:28.366020 18571 net.cpp:425] inception_3b/5x5 <- inception_3b/5x5_reduce
I0714 21:11:28.366034 18571 net.cpp:399] inception_3b/5x5 -> inception_3b/5x5
I0714 21:11:28.373805 18575 net.cpp:141] Setting up inception_3b/5x5
I0714 21:11:28.373832 18575 net.cpp:148] Top shape: 10 96 28 28 (752640)
I0714 21:11:28.373838 18575 net.cpp:156] Memory required for data: 307077120
I0714 21:11:28.373849 18575 layer_factory.hpp:77] Creating layer inception_3b/relu_5x5
I0714 21:11:28.373860 18575 net.cpp:91] Creating Layer inception_3b/relu_5x5
I0714 21:11:28.373867 18575 net.cpp:425] inception_3b/relu_5x5 <- inception_3b/5x5
I0714 21:11:28.373879 18575 net.cpp:386] inception_3b/relu_5x5 -> inception_3b/5x5 (in-place)
I0714 21:11:28.374174 18571 net.cpp:141] Setting up inception_3b/5x5
I0714 21:11:28.374191 18571 net.cpp:148] Top shape: 10 96 28 28 (752640)
I0714 21:11:28.374197 18571 net.cpp:156] Memory required for data: 307077120
I0714 21:11:28.374207 18571 layer_factory.hpp:77] Creating layer inception_3b/relu_5x5
I0714 21:11:28.374220 18571 net.cpp:91] Creating Layer inception_3b/relu_5x5
I0714 21:11:28.374228 18571 net.cpp:425] inception_3b/relu_5x5 <- inception_3b/5x5
I0714 21:11:28.374238 18571 net.cpp:386] inception_3b/relu_5x5 -> inception_3b/5x5 (in-place)
I0714 21:11:28.374254 18575 net.cpp:141] Setting up inception_3b/relu_5x5
I0714 21:11:28.374269 18575 net.cpp:148] Top shape: 10 96 28 28 (752640)
I0714 21:11:28.374274 18575 net.cpp:156] Memory required for data: 310087680
I0714 21:11:28.374279 18575 layer_factory.hpp:77] Creating layer inception_3b/pool
I0714 21:11:28.374294 18575 net.cpp:91] Creating Layer inception_3b/pool
I0714 21:11:28.374300 18575 net.cpp:425] inception_3b/pool <- inception_3a/output_inception_3a/output_0_split_3
I0714 21:11:28.374310 18575 net.cpp:399] inception_3b/pool -> inception_3b/pool
I0714 21:11:28.374567 18575 net.cpp:141] Setting up inception_3b/pool
I0714 21:11:28.374580 18575 net.cpp:148] Top shape: 10 256 28 28 (2007040)
I0714 21:11:28.374585 18575 net.cpp:156] Memory required for data: 318115840
I0714 21:11:28.374590 18575 layer_factory.hpp:77] Creating layer inception_3b/pool_proj
I0714 21:11:28.374609 18575 net.cpp:91] Creating Layer inception_3b/pool_proj
I0714 21:11:28.374615 18575 net.cpp:425] inception_3b/pool_proj <- inception_3b/pool
I0714 21:11:28.374629 18575 net.cpp:399] inception_3b/pool_proj -> inception_3b/pool_proj
I0714 21:11:28.374644 18571 net.cpp:141] Setting up inception_3b/relu_5x5
I0714 21:11:28.374658 18571 net.cpp:148] Top shape: 10 96 28 28 (752640)
I0714 21:11:28.374663 18571 net.cpp:156] Memory required for data: 310087680
I0714 21:11:28.374670 18571 layer_factory.hpp:77] Creating layer inception_3b/pool
I0714 21:11:28.374681 18571 net.cpp:91] Creating Layer inception_3b/pool
I0714 21:11:28.374696 18571 net.cpp:425] inception_3b/pool <- inception_3a/output_inception_3a/output_0_split_3
I0714 21:11:28.374706 18571 net.cpp:399] inception_3b/pool -> inception_3b/pool
I0714 21:11:28.375015 18571 net.cpp:141] Setting up inception_3b/pool
I0714 21:11:28.375026 18571 net.cpp:148] Top shape: 10 256 28 28 (2007040)
I0714 21:11:28.375031 18571 net.cpp:156] Memory required for data: 318115840
I0714 21:11:28.375037 18571 layer_factory.hpp:77] Creating layer inception_3b/pool_proj
I0714 21:11:28.375054 18571 net.cpp:91] Creating Layer inception_3b/pool_proj
I0714 21:11:28.375062 18571 net.cpp:425] inception_3b/pool_proj <- inception_3b/pool
I0714 21:11:28.375074 18571 net.cpp:399] inception_3b/pool_proj -> inception_3b/pool_proj
I0714 21:11:28.379366 18575 net.cpp:141] Setting up inception_3b/pool_proj
I0714 21:11:28.379390 18575 net.cpp:148] Top shape: 10 64 28 28 (501760)
I0714 21:11:28.379395 18575 net.cpp:156] Memory required for data: 320122880
I0714 21:11:28.379406 18575 layer_factory.hpp:77] Creating layer inception_3b/relu_pool_proj
I0714 21:11:28.379416 18575 net.cpp:91] Creating Layer inception_3b/relu_pool_proj
I0714 21:11:28.379423 18575 net.cpp:425] inception_3b/relu_pool_proj <- inception_3b/pool_proj
I0714 21:11:28.379432 18575 net.cpp:386] inception_3b/relu_pool_proj -> inception_3b/pool_proj (in-place)
I0714 21:11:28.380583 18575 net.cpp:141] Setting up inception_3b/relu_pool_proj
I0714 21:11:28.380600 18575 net.cpp:148] Top shape: 10 64 28 28 (501760)
I0714 21:11:28.380606 18575 net.cpp:156] Memory required for data: 322129920
I0714 21:11:28.380612 18575 layer_factory.hpp:77] Creating layer inception_3b/output
I0714 21:11:28.380622 18575 net.cpp:91] Creating Layer inception_3b/output
I0714 21:11:28.380628 18575 net.cpp:425] inception_3b/output <- inception_3b/1x1
I0714 21:11:28.380636 18575 net.cpp:425] inception_3b/output <- inception_3b/3x3
I0714 21:11:28.380642 18575 net.cpp:425] inception_3b/output <- inception_3b/5x5
I0714 21:11:28.380648 18575 net.cpp:425] inception_3b/output <- inception_3b/pool_proj
I0714 21:11:28.380647 18571 net.cpp:141] Setting up inception_3b/pool_proj
I0714 21:11:28.380717 18575 net.cpp:399] inception_3b/output -> inception_3b/output
I0714 21:11:28.380724 18571 net.cpp:148] Top shape: 10 64 28 28 (501760)
I0714 21:11:28.380733 18571 net.cpp:156] Memory required for data: 320122880
I0714 21:11:28.380743 18571 layer_factory.hpp:77] Creating layer inception_3b/relu_pool_proj
I0714 21:11:28.380753 18571 net.cpp:91] Creating Layer inception_3b/relu_pool_proj
I0714 21:11:28.380759 18571 net.cpp:425] inception_3b/relu_pool_proj <- inception_3b/pool_proj
I0714 21:11:28.380767 18571 net.cpp:386] inception_3b/relu_pool_proj -> inception_3b/pool_proj (in-place)
I0714 21:11:28.380813 18575 net.cpp:141] Setting up inception_3b/output
I0714 21:11:28.380825 18575 net.cpp:148] Top shape: 10 480 28 28 (3763200)
I0714 21:11:28.380831 18575 net.cpp:156] Memory required for data: 337182720
I0714 21:11:28.380836 18575 layer_factory.hpp:77] Creating layer pool3/3x3_s2
I0714 21:11:28.380846 18575 net.cpp:91] Creating Layer pool3/3x3_s2
I0714 21:11:28.380851 18575 net.cpp:425] pool3/3x3_s2 <- inception_3b/output
I0714 21:11:28.380863 18575 net.cpp:399] pool3/3x3_s2 -> pool3/3x3_s2
I0714 21:11:28.381732 18575 net.cpp:141] Setting up pool3/3x3_s2
I0714 21:11:28.381753 18575 net.cpp:148] Top shape: 10 480 14 14 (940800)
I0714 21:11:28.381758 18575 net.cpp:156] Memory required for data: 340945920
I0714 21:11:28.381764 18575 layer_factory.hpp:77] Creating layer pool3/3x3_s2_pool3/3x3_s2_0_split
I0714 21:11:28.381773 18571 net.cpp:141] Setting up inception_3b/relu_pool_proj
I0714 21:11:28.381784 18575 net.cpp:91] Creating Layer pool3/3x3_s2_pool3/3x3_s2_0_split
I0714 21:11:28.381790 18571 net.cpp:148] Top shape: 10 64 28 28 (501760)
I0714 21:11:28.381793 18575 net.cpp:425] pool3/3x3_s2_pool3/3x3_s2_0_split <- pool3/3x3_s2
I0714 21:11:28.381796 18571 net.cpp:156] Memory required for data: 322129920
I0714 21:11:28.381803 18575 net.cpp:399] pool3/3x3_s2_pool3/3x3_s2_0_split -> pool3/3x3_s2_pool3/3x3_s2_0_split_0
I0714 21:11:28.381803 18571 layer_factory.hpp:77] Creating layer inception_3b/output
I0714 21:11:28.381814 18575 net.cpp:399] pool3/3x3_s2_pool3/3x3_s2_0_split -> pool3/3x3_s2_pool3/3x3_s2_0_split_1
I0714 21:11:28.381814 18571 net.cpp:91] Creating Layer inception_3b/output
I0714 21:11:28.381832 18575 net.cpp:399] pool3/3x3_s2_pool3/3x3_s2_0_split -> pool3/3x3_s2_pool3/3x3_s2_0_split_2
I0714 21:11:28.381832 18571 net.cpp:425] inception_3b/output <- inception_3b/1x1
I0714 21:11:28.381844 18575 net.cpp:399] pool3/3x3_s2_pool3/3x3_s2_0_split -> pool3/3x3_s2_pool3/3x3_s2_0_split_3
I0714 21:11:28.381850 18571 net.cpp:425] inception_3b/output <- inception_3b/3x3
I0714 21:11:28.381856 18571 net.cpp:425] inception_3b/output <- inception_3b/5x5
I0714 21:11:28.381865 18571 net.cpp:425] inception_3b/output <- inception_3b/pool_proj
I0714 21:11:28.381873 18571 net.cpp:399] inception_3b/output -> inception_3b/output
I0714 21:11:28.382025 18571 net.cpp:141] Setting up inception_3b/output
I0714 21:11:28.382037 18571 net.cpp:148] Top shape: 10 480 28 28 (3763200)
I0714 21:11:28.382042 18571 net.cpp:156] Memory required for data: 337182720
I0714 21:11:28.382048 18571 layer_factory.hpp:77] Creating layer pool3/3x3_s2
I0714 21:11:28.382057 18571 net.cpp:91] Creating Layer pool3/3x3_s2
I0714 21:11:28.382062 18571 net.cpp:425] pool3/3x3_s2 <- inception_3b/output
I0714 21:11:28.382074 18571 net.cpp:399] pool3/3x3_s2 -> pool3/3x3_s2
I0714 21:11:28.382202 18575 net.cpp:141] Setting up pool3/3x3_s2_pool3/3x3_s2_0_split
I0714 21:11:28.382218 18575 net.cpp:148] Top shape: 10 480 14 14 (940800)
I0714 21:11:28.382225 18575 net.cpp:148] Top shape: 10 480 14 14 (940800)
I0714 21:11:28.382230 18575 net.cpp:148] Top shape: 10 480 14 14 (940800)
I0714 21:11:28.382236 18575 net.cpp:148] Top shape: 10 480 14 14 (940800)
I0714 21:11:28.382241 18575 net.cpp:156] Memory required for data: 355998720
I0714 21:11:28.382246 18575 layer_factory.hpp:77] Creating layer inception_4a/1x1
I0714 21:11:28.382267 18575 net.cpp:91] Creating Layer inception_4a/1x1
I0714 21:11:28.382274 18575 net.cpp:425] inception_4a/1x1 <- pool3/3x3_s2_pool3/3x3_s2_0_split_0
I0714 21:11:28.382282 18571 net.cpp:141] Setting up pool3/3x3_s2
I0714 21:11:28.382285 18575 net.cpp:399] inception_4a/1x1 -> inception_4a/1x1
I0714 21:11:28.382298 18571 net.cpp:148] Top shape: 10 480 14 14 (940800)
I0714 21:11:28.382303 18571 net.cpp:156] Memory required for data: 340945920
I0714 21:11:28.382308 18571 layer_factory.hpp:77] Creating layer pool3/3x3_s2_pool3/3x3_s2_0_split
I0714 21:11:28.382321 18571 net.cpp:91] Creating Layer pool3/3x3_s2_pool3/3x3_s2_0_split
I0714 21:11:28.382328 18571 net.cpp:425] pool3/3x3_s2_pool3/3x3_s2_0_split <- pool3/3x3_s2
I0714 21:11:28.382335 18571 net.cpp:399] pool3/3x3_s2_pool3/3x3_s2_0_split -> pool3/3x3_s2_pool3/3x3_s2_0_split_0
I0714 21:11:28.382345 18571 net.cpp:399] pool3/3x3_s2_pool3/3x3_s2_0_split -> pool3/3x3_s2_pool3/3x3_s2_0_split_1
I0714 21:11:28.382354 18571 net.cpp:399] pool3/3x3_s2_pool3/3x3_s2_0_split -> pool3/3x3_s2_pool3/3x3_s2_0_split_2
I0714 21:11:28.382366 18571 net.cpp:399] pool3/3x3_s2_pool3/3x3_s2_0_split -> pool3/3x3_s2_pool3/3x3_s2_0_split_3
I0714 21:11:28.382926 18571 net.cpp:141] Setting up pool3/3x3_s2_pool3/3x3_s2_0_split
I0714 21:11:28.382939 18571 net.cpp:148] Top shape: 10 480 14 14 (940800)
I0714 21:11:28.382946 18571 net.cpp:148] Top shape: 10 480 14 14 (940800)
I0714 21:11:28.382951 18571 net.cpp:148] Top shape: 10 480 14 14 (940800)
I0714 21:11:28.382957 18571 net.cpp:148] Top shape: 10 480 14 14 (940800)
I0714 21:11:28.382961 18571 net.cpp:156] Memory required for data: 355998720
I0714 21:11:28.382966 18571 layer_factory.hpp:77] Creating layer inception_4a/1x1
I0714 21:11:28.382983 18571 net.cpp:91] Creating Layer inception_4a/1x1
I0714 21:11:28.382989 18571 net.cpp:425] inception_4a/1x1 <- pool3/3x3_s2_pool3/3x3_s2_0_split_0
I0714 21:11:28.382999 18571 net.cpp:399] inception_4a/1x1 -> inception_4a/1x1
I0714 21:11:28.389436 18575 net.cpp:141] Setting up inception_4a/1x1
I0714 21:11:28.389467 18575 net.cpp:148] Top shape: 10 192 14 14 (376320)
I0714 21:11:28.389474 18575 net.cpp:156] Memory required for data: 357504000
I0714 21:11:28.389487 18575 layer_factory.hpp:77] Creating layer inception_4a/relu_1x1
I0714 21:11:28.389502 18575 net.cpp:91] Creating Layer inception_4a/relu_1x1
I0714 21:11:28.389509 18575 net.cpp:425] inception_4a/relu_1x1 <- inception_4a/1x1
I0714 21:11:28.389519 18575 net.cpp:386] inception_4a/relu_1x1 -> inception_4a/1x1 (in-place)
I0714 21:11:28.389600 18571 net.cpp:141] Setting up inception_4a/1x1
I0714 21:11:28.389617 18571 net.cpp:148] Top shape: 10 192 14 14 (376320)
I0714 21:11:28.389623 18571 net.cpp:156] Memory required for data: 357504000
I0714 21:11:28.389633 18571 layer_factory.hpp:77] Creating layer inception_4a/relu_1x1
I0714 21:11:28.389647 18571 net.cpp:91] Creating Layer inception_4a/relu_1x1
I0714 21:11:28.389654 18571 net.cpp:425] inception_4a/relu_1x1 <- inception_4a/1x1
I0714 21:11:28.389662 18571 net.cpp:386] inception_4a/relu_1x1 -> inception_4a/1x1 (in-place)
I0714 21:11:28.389961 18575 net.cpp:141] Setting up inception_4a/relu_1x1
I0714 21:11:28.389974 18575 net.cpp:148] Top shape: 10 192 14 14 (376320)
I0714 21:11:28.389979 18575 net.cpp:156] Memory required for data: 359009280
I0714 21:11:28.389984 18575 layer_factory.hpp:77] Creating layer inception_4a/3x3_reduce
I0714 21:11:28.390004 18575 net.cpp:91] Creating Layer inception_4a/3x3_reduce
I0714 21:11:28.390012 18575 net.cpp:425] inception_4a/3x3_reduce <- pool3/3x3_s2_pool3/3x3_s2_0_split_1
I0714 21:11:28.390024 18575 net.cpp:399] inception_4a/3x3_reduce -> inception_4a/3x3_reduce
I0714 21:11:28.390075 18571 net.cpp:141] Setting up inception_4a/relu_1x1
I0714 21:11:28.390089 18571 net.cpp:148] Top shape: 10 192 14 14 (376320)
I0714 21:11:28.390094 18571 net.cpp:156] Memory required for data: 359009280
I0714 21:11:28.390100 18571 layer_factory.hpp:77] Creating layer inception_4a/3x3_reduce
I0714 21:11:28.390116 18571 net.cpp:91] Creating Layer inception_4a/3x3_reduce
I0714 21:11:28.390125 18571 net.cpp:425] inception_4a/3x3_reduce <- pool3/3x3_s2_pool3/3x3_s2_0_split_1
I0714 21:11:28.390136 18571 net.cpp:399] inception_4a/3x3_reduce -> inception_4a/3x3_reduce
I0714 21:11:28.395133 18575 net.cpp:141] Setting up inception_4a/3x3_reduce
I0714 21:11:28.395160 18575 net.cpp:148] Top shape: 10 96 14 14 (188160)
I0714 21:11:28.395166 18575 net.cpp:156] Memory required for data: 359761920
I0714 21:11:28.395193 18575 layer_factory.hpp:77] Creating layer inception_4a/relu_3x3_reduce
I0714 21:11:28.395203 18575 net.cpp:91] Creating Layer inception_4a/relu_3x3_reduce
I0714 21:11:28.395212 18575 net.cpp:425] inception_4a/relu_3x3_reduce <- inception_4a/3x3_reduce
I0714 21:11:28.395221 18575 net.cpp:386] inception_4a/relu_3x3_reduce -> inception_4a/3x3_reduce (in-place)
I0714 21:11:28.395526 18571 net.cpp:141] Setting up inception_4a/3x3_reduce
I0714 21:11:28.395545 18571 net.cpp:148] Top shape: 10 96 14 14 (188160)
I0714 21:11:28.395551 18571 net.cpp:156] Memory required for data: 359761920
I0714 21:11:28.395570 18571 layer_factory.hpp:77] Creating layer inception_4a/relu_3x3_reduce
I0714 21:11:28.395591 18571 net.cpp:91] Creating Layer inception_4a/relu_3x3_reduce
I0714 21:11:28.395599 18571 net.cpp:425] inception_4a/relu_3x3_reduce <- inception_4a/3x3_reduce
I0714 21:11:28.395596 18575 net.cpp:141] Setting up inception_4a/relu_3x3_reduce
I0714 21:11:28.395608 18571 net.cpp:386] inception_4a/relu_3x3_reduce -> inception_4a/3x3_reduce (in-place)
I0714 21:11:28.395612 18575 net.cpp:148] Top shape: 10 96 14 14 (188160)
I0714 21:11:28.395617 18575 net.cpp:156] Memory required for data: 360514560
I0714 21:11:28.395623 18575 layer_factory.hpp:77] Creating layer inception_4a/3x3
I0714 21:11:28.395642 18575 net.cpp:91] Creating Layer inception_4a/3x3
I0714 21:11:28.395649 18575 net.cpp:425] inception_4a/3x3 <- inception_4a/3x3_reduce
I0714 21:11:28.395661 18575 net.cpp:399] inception_4a/3x3 -> inception_4a/3x3
I0714 21:11:28.396029 18571 net.cpp:141] Setting up inception_4a/relu_3x3_reduce
I0714 21:11:28.396044 18571 net.cpp:148] Top shape: 10 96 14 14 (188160)
I0714 21:11:28.396049 18571 net.cpp:156] Memory required for data: 360514560
I0714 21:11:28.396054 18571 layer_factory.hpp:77] Creating layer inception_4a/3x3
I0714 21:11:28.396072 18571 net.cpp:91] Creating Layer inception_4a/3x3
I0714 21:11:28.396080 18571 net.cpp:425] inception_4a/3x3 <- inception_4a/3x3_reduce
I0714 21:11:28.396091 18571 net.cpp:399] inception_4a/3x3 -> inception_4a/3x3
I0714 21:11:28.403735 18575 net.cpp:141] Setting up inception_4a/3x3
I0714 21:11:28.403764 18575 net.cpp:148] Top shape: 10 208 14 14 (407680)
I0714 21:11:28.403769 18575 net.cpp:156] Memory required for data: 362145280
I0714 21:11:28.403781 18575 layer_factory.hpp:77] Creating layer inception_4a/relu_3x3
I0714 21:11:28.403792 18575 net.cpp:91] Creating Layer inception_4a/relu_3x3
I0714 21:11:28.403800 18575 net.cpp:425] inception_4a/relu_3x3 <- inception_4a/3x3
I0714 21:11:28.403807 18575 net.cpp:386] inception_4a/relu_3x3 -> inception_4a/3x3 (in-place)
I0714 21:11:28.404813 18575 net.cpp:141] Setting up inception_4a/relu_3x3
I0714 21:11:28.404830 18575 net.cpp:148] Top shape: 10 208 14 14 (407680)
I0714 21:11:28.404836 18575 net.cpp:156] Memory required for data: 363776000
I0714 21:11:28.404842 18575 layer_factory.hpp:77] Creating layer inception_4a/5x5_reduce
I0714 21:11:28.404861 18575 net.cpp:91] Creating Layer inception_4a/5x5_reduce
I0714 21:11:28.404870 18575 net.cpp:425] inception_4a/5x5_reduce <- pool3/3x3_s2_pool3/3x3_s2_0_split_2
I0714 21:11:28.404882 18575 net.cpp:399] inception_4a/5x5_reduce -> inception_4a/5x5_reduce
I0714 21:11:28.404945 18571 net.cpp:141] Setting up inception_4a/3x3
I0714 21:11:28.404964 18571 net.cpp:148] Top shape: 10 208 14 14 (407680)
I0714 21:11:28.404970 18571 net.cpp:156] Memory required for data: 362145280
I0714 21:11:28.404980 18571 layer_factory.hpp:77] Creating layer inception_4a/relu_3x3
I0714 21:11:28.404990 18571 net.cpp:91] Creating Layer inception_4a/relu_3x3
I0714 21:11:28.404996 18571 net.cpp:425] inception_4a/relu_3x3 <- inception_4a/3x3
I0714 21:11:28.405004 18571 net.cpp:386] inception_4a/relu_3x3 -> inception_4a/3x3 (in-place)
I0714 21:11:28.406038 18571 net.cpp:141] Setting up inception_4a/relu_3x3
I0714 21:11:28.406055 18571 net.cpp:148] Top shape: 10 208 14 14 (407680)
I0714 21:11:28.406060 18571 net.cpp:156] Memory required for data: 363776000
I0714 21:11:28.406066 18571 layer_factory.hpp:77] Creating layer inception_4a/5x5_reduce
I0714 21:11:28.406085 18571 net.cpp:91] Creating Layer inception_4a/5x5_reduce
I0714 21:11:28.406091 18571 net.cpp:425] inception_4a/5x5_reduce <- pool3/3x3_s2_pool3/3x3_s2_0_split_2
I0714 21:11:28.406105 18571 net.cpp:399] inception_4a/5x5_reduce -> inception_4a/5x5_reduce
I0714 21:11:28.409945 18575 net.cpp:141] Setting up inception_4a/5x5_reduce
I0714 21:11:28.409965 18575 net.cpp:148] Top shape: 10 16 14 14 (31360)
I0714 21:11:28.409970 18575 net.cpp:156] Memory required for data: 363901440
I0714 21:11:28.409981 18575 layer_factory.hpp:77] Creating layer inception_4a/relu_5x5_reduce
I0714 21:11:28.409991 18575 net.cpp:91] Creating Layer inception_4a/relu_5x5_reduce
I0714 21:11:28.409998 18575 net.cpp:425] inception_4a/relu_5x5_reduce <- inception_4a/5x5_reduce
I0714 21:11:28.410010 18575 net.cpp:386] inception_4a/relu_5x5_reduce -> inception_4a/5x5_reduce (in-place)
I0714 21:11:28.410382 18575 net.cpp:141] Setting up inception_4a/relu_5x5_reduce
I0714 21:11:28.410395 18575 net.cpp:148] Top shape: 10 16 14 14 (31360)
I0714 21:11:28.410400 18575 net.cpp:156] Memory required for data: 364026880
I0714 21:11:28.410406 18575 layer_factory.hpp:77] Creating layer inception_4a/5x5
I0714 21:11:28.410425 18575 net.cpp:91] Creating Layer inception_4a/5x5
I0714 21:11:28.410432 18575 net.cpp:425] inception_4a/5x5 <- inception_4a/5x5_reduce
I0714 21:11:28.410441 18575 net.cpp:399] inception_4a/5x5 -> inception_4a/5x5
I0714 21:11:28.411600 18571 net.cpp:141] Setting up inception_4a/5x5_reduce
I0714 21:11:28.411620 18571 net.cpp:148] Top shape: 10 16 14 14 (31360)
I0714 21:11:28.411626 18571 net.cpp:156] Memory required for data: 363901440
I0714 21:11:28.411636 18571 layer_factory.hpp:77] Creating layer inception_4a/relu_5x5_reduce
I0714 21:11:28.411646 18571 net.cpp:91] Creating Layer inception_4a/relu_5x5_reduce
I0714 21:11:28.411653 18571 net.cpp:425] inception_4a/relu_5x5_reduce <- inception_4a/5x5_reduce
I0714 21:11:28.411664 18571 net.cpp:386] inception_4a/relu_5x5_reduce -> inception_4a/5x5_reduce (in-place)
I0714 21:11:28.412060 18571 net.cpp:141] Setting up inception_4a/relu_5x5_reduce
I0714 21:11:28.412072 18571 net.cpp:148] Top shape: 10 16 14 14 (31360)
I0714 21:11:28.412080 18571 net.cpp:156] Memory required for data: 364026880
I0714 21:11:28.412086 18571 layer_factory.hpp:77] Creating layer inception_4a/5x5
I0714 21:11:28.412099 18571 net.cpp:91] Creating Layer inception_4a/5x5
I0714 21:11:28.412106 18571 net.cpp:425] inception_4a/5x5 <- inception_4a/5x5_reduce
I0714 21:11:28.412119 18571 net.cpp:399] inception_4a/5x5 -> inception_4a/5x5
I0714 21:11:28.415483 18575 net.cpp:141] Setting up inception_4a/5x5
I0714 21:11:28.415503 18575 net.cpp:148] Top shape: 10 48 14 14 (94080)
I0714 21:11:28.415508 18575 net.cpp:156] Memory required for data: 364403200
I0714 21:11:28.415518 18575 layer_factory.hpp:77] Creating layer inception_4a/relu_5x5
I0714 21:11:28.415532 18575 net.cpp:91] Creating Layer inception_4a/relu_5x5
I0714 21:11:28.415539 18575 net.cpp:425] inception_4a/relu_5x5 <- inception_4a/5x5
I0714 21:11:28.415549 18575 net.cpp:386] inception_4a/relu_5x5 -> inception_4a/5x5 (in-place)
I0714 21:11:28.415974 18575 net.cpp:141] Setting up inception_4a/relu_5x5
I0714 21:11:28.415988 18575 net.cpp:148] Top shape: 10 48 14 14 (94080)
I0714 21:11:28.415993 18575 net.cpp:156] Memory required for data: 364779520
I0714 21:11:28.415999 18575 layer_factory.hpp:77] Creating layer inception_4a/pool
I0714 21:11:28.416013 18575 net.cpp:91] Creating Layer inception_4a/pool
I0714 21:11:28.416020 18575 net.cpp:425] inception_4a/pool <- pool3/3x3_s2_pool3/3x3_s2_0_split_3
I0714 21:11:28.416029 18575 net.cpp:399] inception_4a/pool -> inception_4a/pool
I0714 21:11:28.416877 18575 net.cpp:141] Setting up inception_4a/pool
I0714 21:11:28.416893 18575 net.cpp:148] Top shape: 10 480 14 14 (940800)
I0714 21:11:28.416898 18575 net.cpp:156] Memory required for data: 368542720
I0714 21:11:28.416903 18575 layer_factory.hpp:77] Creating layer inception_4a/pool_proj
I0714 21:11:28.416920 18575 net.cpp:91] Creating Layer inception_4a/pool_proj
I0714 21:11:28.416927 18575 net.cpp:425] inception_4a/pool_proj <- inception_4a/pool
I0714 21:11:28.416940 18575 net.cpp:399] inception_4a/pool_proj -> inception_4a/pool_proj
I0714 21:11:28.418078 18571 net.cpp:141] Setting up inception_4a/5x5
I0714 21:11:28.418097 18571 net.cpp:148] Top shape: 10 48 14 14 (94080)
I0714 21:11:28.418103 18571 net.cpp:156] Memory required for data: 364403200
I0714 21:11:28.418112 18571 layer_factory.hpp:77] Creating layer inception_4a/relu_5x5
I0714 21:11:28.418126 18571 net.cpp:91] Creating Layer inception_4a/relu_5x5
I0714 21:11:28.418133 18571 net.cpp:425] inception_4a/relu_5x5 <- inception_4a/5x5
I0714 21:11:28.418143 18571 net.cpp:386] inception_4a/relu_5x5 -> inception_4a/5x5 (in-place)
I0714 21:11:28.418431 18571 net.cpp:141] Setting up inception_4a/relu_5x5
I0714 21:11:28.418443 18571 net.cpp:148] Top shape: 10 48 14 14 (94080)
I0714 21:11:28.418448 18571 net.cpp:156] Memory required for data: 364779520
I0714 21:11:28.418453 18571 layer_factory.hpp:77] Creating layer inception_4a/pool
I0714 21:11:28.418463 18571 net.cpp:91] Creating Layer inception_4a/pool
I0714 21:11:28.418469 18571 net.cpp:425] inception_4a/pool <- pool3/3x3_s2_pool3/3x3_s2_0_split_3
I0714 21:11:28.418481 18571 net.cpp:399] inception_4a/pool -> inception_4a/pool
I0714 21:11:28.419428 18571 net.cpp:141] Setting up inception_4a/pool
I0714 21:11:28.419443 18571 net.cpp:148] Top shape: 10 480 14 14 (940800)
I0714 21:11:28.419448 18571 net.cpp:156] Memory required for data: 368542720
I0714 21:11:28.419453 18571 layer_factory.hpp:77] Creating layer inception_4a/pool_proj
I0714 21:11:28.419471 18571 net.cpp:91] Creating Layer inception_4a/pool_proj
I0714 21:11:28.419478 18571 net.cpp:425] inception_4a/pool_proj <- inception_4a/pool
I0714 21:11:28.419491 18571 net.cpp:399] inception_4a/pool_proj -> inception_4a/pool_proj
I0714 21:11:28.421378 18575 net.cpp:141] Setting up inception_4a/pool_proj
I0714 21:11:28.421397 18575 net.cpp:148] Top shape: 10 64 14 14 (125440)
I0714 21:11:28.421403 18575 net.cpp:156] Memory required for data: 369044480
I0714 21:11:28.421414 18575 layer_factory.hpp:77] Creating layer inception_4a/relu_pool_proj
I0714 21:11:28.421429 18575 net.cpp:91] Creating Layer inception_4a/relu_pool_proj
I0714 21:11:28.421437 18575 net.cpp:425] inception_4a/relu_pool_proj <- inception_4a/pool_proj
I0714 21:11:28.421444 18575 net.cpp:386] inception_4a/relu_pool_proj -> inception_4a/pool_proj (in-place)
I0714 21:11:28.422722 18575 net.cpp:141] Setting up inception_4a/relu_pool_proj
I0714 21:11:28.422741 18575 net.cpp:148] Top shape: 10 64 14 14 (125440)
I0714 21:11:28.422746 18575 net.cpp:156] Memory required for data: 369546240
I0714 21:11:28.422752 18575 layer_factory.hpp:77] Creating layer inception_4a/output
I0714 21:11:28.422766 18575 net.cpp:91] Creating Layer inception_4a/output
I0714 21:11:28.422773 18575 net.cpp:425] inception_4a/output <- inception_4a/1x1
I0714 21:11:28.422781 18575 net.cpp:425] inception_4a/output <- inception_4a/3x3
I0714 21:11:28.422787 18575 net.cpp:425] inception_4a/output <- inception_4a/5x5
I0714 21:11:28.422793 18575 net.cpp:425] inception_4a/output <- inception_4a/pool_proj
I0714 21:11:28.422801 18575 net.cpp:399] inception_4a/output -> inception_4a/output
I0714 21:11:28.423120 18575 net.cpp:141] Setting up inception_4a/output
I0714 21:11:28.423132 18575 net.cpp:148] Top shape: 10 512 14 14 (1003520)
I0714 21:11:28.423137 18575 net.cpp:156] Memory required for data: 373560320
I0714 21:11:28.423143 18575 layer_factory.hpp:77] Creating layer inception_4a/output_inception_4a/output_0_split
I0714 21:11:28.423158 18575 net.cpp:91] Creating Layer inception_4a/output_inception_4a/output_0_split
I0714 21:11:28.423164 18575 net.cpp:425] inception_4a/output_inception_4a/output_0_split <- inception_4a/output
I0714 21:11:28.423172 18575 net.cpp:399] inception_4a/output_inception_4a/output_0_split -> inception_4a/output_inception_4a/output_0_split_0
I0714 21:11:28.423185 18575 net.cpp:399] inception_4a/output_inception_4a/output_0_split -> inception_4a/output_inception_4a/output_0_split_1
I0714 21:11:28.423195 18575 net.cpp:399] inception_4a/output_inception_4a/output_0_split -> inception_4a/output_inception_4a/output_0_split_2
I0714 21:11:28.423205 18575 net.cpp:399] inception_4a/output_inception_4a/output_0_split -> inception_4a/output_inception_4a/output_0_split_3
I0714 21:11:28.423648 18575 net.cpp:141] Setting up inception_4a/output_inception_4a/output_0_split
I0714 21:11:28.423661 18575 net.cpp:148] Top shape: 10 512 14 14 (1003520)
I0714 21:11:28.423667 18575 net.cpp:148] Top shape: 10 512 14 14 (1003520)
I0714 21:11:28.423673 18575 net.cpp:148] Top shape: 10 512 14 14 (1003520)
I0714 21:11:28.423678 18575 net.cpp:148] Top shape: 10 512 14 14 (1003520)
I0714 21:11:28.423683 18575 net.cpp:156] Memory required for data: 389616640
I0714 21:11:28.423688 18575 layer_factory.hpp:77] Creating layer inception_4b/1x1
I0714 21:11:28.423707 18575 net.cpp:91] Creating Layer inception_4b/1x1
I0714 21:11:28.423713 18575 net.cpp:425] inception_4b/1x1 <- inception_4a/output_inception_4a/output_0_split_0
I0714 21:11:28.423725 18575 net.cpp:399] inception_4b/1x1 -> inception_4b/1x1
I0714 21:11:28.424286 18571 net.cpp:141] Setting up inception_4a/pool_proj
I0714 21:11:28.424304 18571 net.cpp:148] Top shape: 10 64 14 14 (125440)
I0714 21:11:28.424309 18571 net.cpp:156] Memory required for data: 369044480
I0714 21:11:28.424319 18571 layer_factory.hpp:77] Creating layer inception_4a/relu_pool_proj
I0714 21:11:28.424327 18571 net.cpp:91] Creating Layer inception_4a/relu_pool_proj
I0714 21:11:28.424335 18571 net.cpp:425] inception_4a/relu_pool_proj <- inception_4a/pool_proj
I0714 21:11:28.424345 18571 net.cpp:386] inception_4a/relu_pool_proj -> inception_4a/pool_proj (in-place)
I0714 21:11:28.425285 18571 net.cpp:141] Setting up inception_4a/relu_pool_proj
I0714 21:11:28.425304 18571 net.cpp:148] Top shape: 10 64 14 14 (125440)
I0714 21:11:28.425309 18571 net.cpp:156] Memory required for data: 369546240
I0714 21:11:28.425315 18571 layer_factory.hpp:77] Creating layer inception_4a/output
I0714 21:11:28.425324 18571 net.cpp:91] Creating Layer inception_4a/output
I0714 21:11:28.425330 18571 net.cpp:425] inception_4a/output <- inception_4a/1x1
I0714 21:11:28.425338 18571 net.cpp:425] inception_4a/output <- inception_4a/3x3
I0714 21:11:28.425344 18571 net.cpp:425] inception_4a/output <- inception_4a/5x5
I0714 21:11:28.425350 18571 net.cpp:425] inception_4a/output <- inception_4a/pool_proj
I0714 21:11:28.425361 18571 net.cpp:399] inception_4a/output -> inception_4a/output
I0714 21:11:28.425438 18571 net.cpp:141] Setting up inception_4a/output
I0714 21:11:28.425451 18571 net.cpp:148] Top shape: 10 512 14 14 (1003520)
I0714 21:11:28.425456 18571 net.cpp:156] Memory required for data: 373560320
I0714 21:11:28.425460 18571 layer_factory.hpp:77] Creating layer inception_4a/output_inception_4a/output_0_split
I0714 21:11:28.425473 18571 net.cpp:91] Creating Layer inception_4a/output_inception_4a/output_0_split
I0714 21:11:28.425479 18571 net.cpp:425] inception_4a/output_inception_4a/output_0_split <- inception_4a/output
I0714 21:11:28.425488 18571 net.cpp:399] inception_4a/output_inception_4a/output_0_split -> inception_4a/output_inception_4a/output_0_split_0
I0714 21:11:28.425498 18571 net.cpp:399] inception_4a/output_inception_4a/output_0_split -> inception_4a/output_inception_4a/output_0_split_1
I0714 21:11:28.425508 18571 net.cpp:399] inception_4a/output_inception_4a/output_0_split -> inception_4a/output_inception_4a/output_0_split_2
I0714 21:11:28.425519 18571 net.cpp:399] inception_4a/output_inception_4a/output_0_split -> inception_4a/output_inception_4a/output_0_split_3
I0714 21:11:28.425693 18571 net.cpp:141] Setting up inception_4a/output_inception_4a/output_0_split
I0714 21:11:28.425707 18571 net.cpp:148] Top shape: 10 512 14 14 (1003520)
I0714 21:11:28.425714 18571 net.cpp:148] Top shape: 10 512 14 14 (1003520)
I0714 21:11:28.425719 18571 net.cpp:148] Top shape: 10 512 14 14 (1003520)
I0714 21:11:28.425725 18571 net.cpp:148] Top shape: 10 512 14 14 (1003520)
I0714 21:11:28.425729 18571 net.cpp:156] Memory required for data: 389616640
I0714 21:11:28.425734 18571 layer_factory.hpp:77] Creating layer inception_4b/1x1
I0714 21:11:28.425751 18571 net.cpp:91] Creating Layer inception_4b/1x1
I0714 21:11:28.425757 18571 net.cpp:425] inception_4b/1x1 <- inception_4a/output_inception_4a/output_0_split_0
I0714 21:11:28.425767 18571 net.cpp:399] inception_4b/1x1 -> inception_4b/1x1
I0714 21:11:28.430140 18575 net.cpp:141] Setting up inception_4b/1x1
I0714 21:11:28.430160 18575 net.cpp:148] Top shape: 10 160 14 14 (313600)
I0714 21:11:28.430166 18575 net.cpp:156] Memory required for data: 390871040
I0714 21:11:28.430176 18575 layer_factory.hpp:77] Creating layer inception_4b/relu_1x1
I0714 21:11:28.430186 18575 net.cpp:91] Creating Layer inception_4b/relu_1x1
I0714 21:11:28.430192 18575 net.cpp:425] inception_4b/relu_1x1 <- inception_4b/1x1
I0714 21:11:28.430207 18575 net.cpp:386] inception_4b/relu_1x1 -> inception_4b/1x1 (in-place)
I0714 21:11:28.430640 18575 net.cpp:141] Setting up inception_4b/relu_1x1
I0714 21:11:28.430654 18575 net.cpp:148] Top shape: 10 160 14 14 (313600)
I0714 21:11:28.430661 18575 net.cpp:156] Memory required for data: 392125440
I0714 21:11:28.430667 18575 layer_factory.hpp:77] Creating layer inception_4b/3x3_reduce
I0714 21:11:28.430681 18575 net.cpp:91] Creating Layer inception_4b/3x3_reduce
I0714 21:11:28.430699 18575 net.cpp:425] inception_4b/3x3_reduce <- inception_4a/output_inception_4a/output_0_split_1
I0714 21:11:28.430716 18575 net.cpp:399] inception_4b/3x3_reduce -> inception_4b/3x3_reduce
I0714 21:11:28.430744 18571 net.cpp:141] Setting up inception_4b/1x1
I0714 21:11:28.430760 18571 net.cpp:148] Top shape: 10 160 14 14 (313600)
I0714 21:11:28.430766 18571 net.cpp:156] Memory required for data: 390871040
I0714 21:11:28.430776 18571 layer_factory.hpp:77] Creating layer inception_4b/relu_1x1
I0714 21:11:28.430786 18571 net.cpp:91] Creating Layer inception_4b/relu_1x1
I0714 21:11:28.430793 18571 net.cpp:425] inception_4b/relu_1x1 <- inception_4b/1x1
I0714 21:11:28.430800 18571 net.cpp:386] inception_4b/relu_1x1 -> inception_4b/1x1 (in-place)
I0714 21:11:28.431216 18571 net.cpp:141] Setting up inception_4b/relu_1x1
I0714 21:11:28.431229 18571 net.cpp:148] Top shape: 10 160 14 14 (313600)
I0714 21:11:28.431234 18571 net.cpp:156] Memory required for data: 392125440
I0714 21:11:28.431239 18571 layer_factory.hpp:77] Creating layer inception_4b/3x3_reduce
I0714 21:11:28.431257 18571 net.cpp:91] Creating Layer inception_4b/3x3_reduce
I0714 21:11:28.431264 18571 net.cpp:425] inception_4b/3x3_reduce <- inception_4a/output_inception_4a/output_0_split_1
I0714 21:11:28.431277 18571 net.cpp:399] inception_4b/3x3_reduce -> inception_4b/3x3_reduce
I0714 21:11:28.435533 18575 net.cpp:141] Setting up inception_4b/3x3_reduce
I0714 21:11:28.435552 18575 net.cpp:148] Top shape: 10 112 14 14 (219520)
I0714 21:11:28.435557 18575 net.cpp:156] Memory required for data: 393003520
I0714 21:11:28.435569 18575 layer_factory.hpp:77] Creating layer inception_4b/relu_3x3_reduce
I0714 21:11:28.435580 18575 net.cpp:91] Creating Layer inception_4b/relu_3x3_reduce
I0714 21:11:28.435585 18575 net.cpp:425] inception_4b/relu_3x3_reduce <- inception_4b/3x3_reduce
I0714 21:11:28.435596 18575 net.cpp:386] inception_4b/relu_3x3_reduce -> inception_4b/3x3_reduce (in-place)
I0714 21:11:28.435938 18571 net.cpp:141] Setting up inception_4b/3x3_reduce
I0714 21:11:28.435955 18571 net.cpp:148] Top shape: 10 112 14 14 (219520)
I0714 21:11:28.435961 18571 net.cpp:156] Memory required for data: 393003520
I0714 21:11:28.435969 18571 layer_factory.hpp:77] Creating layer inception_4b/relu_3x3_reduce
I0714 21:11:28.435982 18571 net.cpp:91] Creating Layer inception_4b/relu_3x3_reduce
I0714 21:11:28.435981 18575 net.cpp:141] Setting up inception_4b/relu_3x3_reduce
I0714 21:11:28.435994 18571 net.cpp:425] inception_4b/relu_3x3_reduce <- inception_4b/3x3_reduce
I0714 21:11:28.436002 18575 net.cpp:148] Top shape: 10 112 14 14 (219520)
I0714 21:11:28.436002 18571 net.cpp:386] inception_4b/relu_3x3_reduce -> inception_4b/3x3_reduce (in-place)
I0714 21:11:28.436007 18575 net.cpp:156] Memory required for data: 393881600
I0714 21:11:28.436012 18575 layer_factory.hpp:77] Creating layer inception_4b/3x3
I0714 21:11:28.436038 18575 net.cpp:91] Creating Layer inception_4b/3x3
I0714 21:11:28.436045 18575 net.cpp:425] inception_4b/3x3 <- inception_4b/3x3_reduce
I0714 21:11:28.436055 18575 net.cpp:399] inception_4b/3x3 -> inception_4b/3x3
I0714 21:11:28.436425 18571 net.cpp:141] Setting up inception_4b/relu_3x3_reduce
I0714 21:11:28.436439 18571 net.cpp:148] Top shape: 10 112 14 14 (219520)
I0714 21:11:28.436444 18571 net.cpp:156] Memory required for data: 393881600
I0714 21:11:28.436450 18571 layer_factory.hpp:77] Creating layer inception_4b/3x3
I0714 21:11:28.436467 18571 net.cpp:91] Creating Layer inception_4b/3x3
I0714 21:11:28.436475 18571 net.cpp:425] inception_4b/3x3 <- inception_4b/3x3_reduce
I0714 21:11:28.436486 18571 net.cpp:399] inception_4b/3x3 -> inception_4b/3x3
I0714 21:11:28.444962 18575 net.cpp:141] Setting up inception_4b/3x3
I0714 21:11:28.444984 18575 net.cpp:148] Top shape: 10 224 14 14 (439040)
I0714 21:11:28.444990 18575 net.cpp:156] Memory required for data: 395637760
I0714 21:11:28.445004 18575 layer_factory.hpp:77] Creating layer inception_4b/relu_3x3
I0714 21:11:28.445015 18575 net.cpp:91] Creating Layer inception_4b/relu_3x3
I0714 21:11:28.445021 18575 net.cpp:425] inception_4b/relu_3x3 <- inception_4b/3x3
I0714 21:11:28.445032 18575 net.cpp:386] inception_4b/relu_3x3 -> inception_4b/3x3 (in-place)
I0714 21:11:28.446621 18575 net.cpp:141] Setting up inception_4b/relu_3x3
I0714 21:11:28.446640 18575 net.cpp:148] Top shape: 10 224 14 14 (439040)
I0714 21:11:28.446645 18575 net.cpp:156] Memory required for data: 397393920
I0714 21:11:28.446650 18575 layer_factory.hpp:77] Creating layer inception_4b/5x5_reduce
I0714 21:11:28.446684 18575 net.cpp:91] Creating Layer inception_4b/5x5_reduce
I0714 21:11:28.446702 18575 net.cpp:425] inception_4b/5x5_reduce <- inception_4a/output_inception_4a/output_0_split_2
I0714 21:11:28.446714 18575 net.cpp:399] inception_4b/5x5_reduce -> inception_4b/5x5_reduce
I0714 21:11:28.446763 18571 net.cpp:141] Setting up inception_4b/3x3
I0714 21:11:28.446780 18571 net.cpp:148] Top shape: 10 224 14 14 (439040)
I0714 21:11:28.446786 18571 net.cpp:156] Memory required for data: 395637760
I0714 21:11:28.446796 18571 layer_factory.hpp:77] Creating layer inception_4b/relu_3x3
I0714 21:11:28.446810 18571 net.cpp:91] Creating Layer inception_4b/relu_3x3
I0714 21:11:28.446817 18571 net.cpp:425] inception_4b/relu_3x3 <- inception_4b/3x3
I0714 21:11:28.446825 18571 net.cpp:386] inception_4b/relu_3x3 -> inception_4b/3x3 (in-place)
I0714 21:11:28.447880 18571 net.cpp:141] Setting up inception_4b/relu_3x3
I0714 21:11:28.447896 18571 net.cpp:148] Top shape: 10 224 14 14 (439040)
I0714 21:11:28.447902 18571 net.cpp:156] Memory required for data: 397393920
I0714 21:11:28.447907 18571 layer_factory.hpp:77] Creating layer inception_4b/5x5_reduce
I0714 21:11:28.447937 18571 net.cpp:91] Creating Layer inception_4b/5x5_reduce
I0714 21:11:28.447944 18571 net.cpp:425] inception_4b/5x5_reduce <- inception_4a/output_inception_4a/output_0_split_2
I0714 21:11:28.447958 18571 net.cpp:399] inception_4b/5x5_reduce -> inception_4b/5x5_reduce
I0714 21:11:28.452330 18575 net.cpp:141] Setting up inception_4b/5x5_reduce
I0714 21:11:28.452350 18575 net.cpp:148] Top shape: 10 24 14 14 (47040)
I0714 21:11:28.452356 18575 net.cpp:156] Memory required for data: 397582080
I0714 21:11:28.452368 18575 layer_factory.hpp:77] Creating layer inception_4b/relu_5x5_reduce
I0714 21:11:28.452380 18575 net.cpp:91] Creating Layer inception_4b/relu_5x5_reduce
I0714 21:11:28.452388 18575 net.cpp:425] inception_4b/relu_5x5_reduce <- inception_4b/5x5_reduce
I0714 21:11:28.452395 18575 net.cpp:386] inception_4b/relu_5x5_reduce -> inception_4b/5x5_reduce (in-place)
I0714 21:11:28.452849 18575 net.cpp:141] Setting up inception_4b/relu_5x5_reduce
I0714 21:11:28.452865 18575 net.cpp:148] Top shape: 10 24 14 14 (47040)
I0714 21:11:28.452870 18575 net.cpp:156] Memory required for data: 397770240
I0714 21:11:28.452877 18575 layer_factory.hpp:77] Creating layer inception_4b/5x5
I0714 21:11:28.452894 18575 net.cpp:91] Creating Layer inception_4b/5x5
I0714 21:11:28.452901 18575 net.cpp:425] inception_4b/5x5 <- inception_4b/5x5_reduce
I0714 21:11:28.452910 18575 net.cpp:399] inception_4b/5x5 -> inception_4b/5x5
I0714 21:11:28.453042 18571 net.cpp:141] Setting up inception_4b/5x5_reduce
I0714 21:11:28.453058 18571 net.cpp:148] Top shape: 10 24 14 14 (47040)
I0714 21:11:28.453064 18571 net.cpp:156] Memory required for data: 397582080
I0714 21:11:28.453075 18571 layer_factory.hpp:77] Creating layer inception_4b/relu_5x5_reduce
I0714 21:11:28.453088 18571 net.cpp:91] Creating Layer inception_4b/relu_5x5_reduce
I0714 21:11:28.453094 18571 net.cpp:425] inception_4b/relu_5x5_reduce <- inception_4b/5x5_reduce
I0714 21:11:28.453101 18571 net.cpp:386] inception_4b/relu_5x5_reduce -> inception_4b/5x5_reduce (in-place)
I0714 21:11:28.453533 18571 net.cpp:141] Setting up inception_4b/relu_5x5_reduce
I0714 21:11:28.453547 18571 net.cpp:148] Top shape: 10 24 14 14 (47040)
I0714 21:11:28.453552 18571 net.cpp:156] Memory required for data: 397770240
I0714 21:11:28.453557 18571 layer_factory.hpp:77] Creating layer inception_4b/5x5
I0714 21:11:28.453577 18571 net.cpp:91] Creating Layer inception_4b/5x5
I0714 21:11:28.453584 18571 net.cpp:425] inception_4b/5x5 <- inception_4b/5x5_reduce
I0714 21:11:28.453594 18571 net.cpp:399] inception_4b/5x5 -> inception_4b/5x5
I0714 21:11:28.460813 18575 net.cpp:141] Setting up inception_4b/5x5
I0714 21:11:28.460834 18575 net.cpp:148] Top shape: 10 64 14 14 (125440)
I0714 21:11:28.460839 18575 net.cpp:156] Memory required for data: 398272000
I0714 21:11:28.460850 18575 layer_factory.hpp:77] Creating layer inception_4b/relu_5x5
I0714 21:11:28.460860 18575 net.cpp:91] Creating Layer inception_4b/relu_5x5
I0714 21:11:28.460867 18575 net.cpp:425] inception_4b/relu_5x5 <- inception_4b/5x5
I0714 21:11:28.460883 18575 net.cpp:386] inception_4b/relu_5x5 -> inception_4b/5x5 (in-place)
I0714 21:11:28.461285 18571 net.cpp:141] Setting up inception_4b/5x5
I0714 21:11:28.461302 18571 net.cpp:148] Top shape: 10 64 14 14 (125440)
I0714 21:11:28.461304 18575 net.cpp:141] Setting up inception_4b/relu_5x5
I0714 21:11:28.461308 18571 net.cpp:156] Memory required for data: 398272000
I0714 21:11:28.461323 18575 net.cpp:148] Top shape: 10 64 14 14 (125440)
I0714 21:11:28.461326 18571 layer_factory.hpp:77] Creating layer inception_4b/relu_5x5
I0714 21:11:28.461328 18575 net.cpp:156] Memory required for data: 398773760
I0714 21:11:28.461335 18575 layer_factory.hpp:77] Creating layer inception_4b/pool
I0714 21:11:28.461338 18571 net.cpp:91] Creating Layer inception_4b/relu_5x5
I0714 21:11:28.461344 18571 net.cpp:425] inception_4b/relu_5x5 <- inception_4b/5x5
I0714 21:11:28.461346 18575 net.cpp:91] Creating Layer inception_4b/pool
I0714 21:11:28.461354 18575 net.cpp:425] inception_4b/pool <- inception_4a/output_inception_4a/output_0_split_3
I0714 21:11:28.461352 18571 net.cpp:386] inception_4b/relu_5x5 -> inception_4b/5x5 (in-place)
I0714 21:11:28.461362 18575 net.cpp:399] inception_4b/pool -> inception_4b/pool
I0714 21:11:28.461678 18575 net.cpp:141] Setting up inception_4b/pool
I0714 21:11:28.461693 18575 net.cpp:148] Top shape: 10 512 14 14 (1003520)
I0714 21:11:28.461697 18575 net.cpp:156] Memory required for data: 402787840
I0714 21:11:28.461702 18575 layer_factory.hpp:77] Creating layer inception_4b/pool_proj
I0714 21:11:28.461717 18575 net.cpp:91] Creating Layer inception_4b/pool_proj
I0714 21:11:28.461724 18575 net.cpp:425] inception_4b/pool_proj <- inception_4b/pool
I0714 21:11:28.461738 18575 net.cpp:399] inception_4b/pool_proj -> inception_4b/pool_proj
I0714 21:11:28.461750 18571 net.cpp:141] Setting up inception_4b/relu_5x5
I0714 21:11:28.461765 18571 net.cpp:148] Top shape: 10 64 14 14 (125440)
I0714 21:11:28.461769 18571 net.cpp:156] Memory required for data: 398773760
I0714 21:11:28.461774 18571 layer_factory.hpp:77] Creating layer inception_4b/pool
I0714 21:11:28.461786 18571 net.cpp:91] Creating Layer inception_4b/pool
I0714 21:11:28.461792 18571 net.cpp:425] inception_4b/pool <- inception_4a/output_inception_4a/output_0_split_3
I0714 21:11:28.461802 18571 net.cpp:399] inception_4b/pool -> inception_4b/pool
I0714 21:11:28.462050 18571 net.cpp:141] Setting up inception_4b/pool
I0714 21:11:28.462062 18571 net.cpp:148] Top shape: 10 512 14 14 (1003520)
I0714 21:11:28.462067 18571 net.cpp:156] Memory required for data: 402787840
I0714 21:11:28.462074 18571 layer_factory.hpp:77] Creating layer inception_4b/pool_proj
I0714 21:11:28.462090 18571 net.cpp:91] Creating Layer inception_4b/pool_proj
I0714 21:11:28.462096 18571 net.cpp:425] inception_4b/pool_proj <- inception_4b/pool
I0714 21:11:28.462110 18571 net.cpp:399] inception_4b/pool_proj -> inception_4b/pool_proj
I0714 21:11:28.466025 18575 net.cpp:141] Setting up inception_4b/pool_proj
I0714 21:11:28.466044 18575 net.cpp:148] Top shape: 10 64 14 14 (125440)
I0714 21:11:28.466050 18575 net.cpp:156] Memory required for data: 403289600
I0714 21:11:28.466060 18575 layer_factory.hpp:77] Creating layer inception_4b/relu_pool_proj
I0714 21:11:28.466073 18575 net.cpp:91] Creating Layer inception_4b/relu_pool_proj
I0714 21:11:28.466080 18575 net.cpp:425] inception_4b/relu_pool_proj <- inception_4b/pool_proj
I0714 21:11:28.466089 18575 net.cpp:386] inception_4b/relu_pool_proj -> inception_4b/pool_proj (in-place)
I0714 21:11:28.467121 18575 net.cpp:141] Setting up inception_4b/relu_pool_proj
I0714 21:11:28.467142 18575 net.cpp:148] Top shape: 10 64 14 14 (125440)
I0714 21:11:28.467147 18575 net.cpp:156] Memory required for data: 403791360
I0714 21:11:28.467154 18575 layer_factory.hpp:77] Creating layer inception_4b/output
I0714 21:11:28.467164 18575 net.cpp:91] Creating Layer inception_4b/output
I0714 21:11:28.467170 18575 net.cpp:425] inception_4b/output <- inception_4b/1x1
I0714 21:11:28.467170 18571 net.cpp:141] Setting up inception_4b/pool_proj
I0714 21:11:28.467177 18575 net.cpp:425] inception_4b/output <- inception_4b/3x3
I0714 21:11:28.467185 18575 net.cpp:425] inception_4b/output <- inception_4b/5x5
I0714 21:11:28.467185 18571 net.cpp:148] Top shape: 10 64 14 14 (125440)
I0714 21:11:28.467190 18575 net.cpp:425] inception_4b/output <- inception_4b/pool_proj
I0714 21:11:28.467191 18571 net.cpp:156] Memory required for data: 403289600
I0714 21:11:28.467197 18575 net.cpp:399] inception_4b/output -> inception_4b/output
I0714 21:11:28.467202 18571 layer_factory.hpp:77] Creating layer inception_4b/relu_pool_proj
I0714 21:11:28.467214 18571 net.cpp:91] Creating Layer inception_4b/relu_pool_proj
I0714 21:11:28.467221 18571 net.cpp:425] inception_4b/relu_pool_proj <- inception_4b/pool_proj
I0714 21:11:28.467228 18571 net.cpp:386] inception_4b/relu_pool_proj -> inception_4b/pool_proj (in-place)
I0714 21:11:28.467959 18575 net.cpp:141] Setting up inception_4b/output
I0714 21:11:28.467972 18575 net.cpp:148] Top shape: 10 512 14 14 (1003520)
I0714 21:11:28.467978 18575 net.cpp:156] Memory required for data: 407805440
I0714 21:11:28.467983 18575 layer_factory.hpp:77] Creating layer inception_4b/output_inception_4b/output_0_split
I0714 21:11:28.467994 18575 net.cpp:91] Creating Layer inception_4b/output_inception_4b/output_0_split
I0714 21:11:28.468000 18575 net.cpp:425] inception_4b/output_inception_4b/output_0_split <- inception_4b/output
I0714 21:11:28.468008 18575 net.cpp:399] inception_4b/output_inception_4b/output_0_split -> inception_4b/output_inception_4b/output_0_split_0
I0714 21:11:28.468022 18575 net.cpp:399] inception_4b/output_inception_4b/output_0_split -> inception_4b/output_inception_4b/output_0_split_1
I0714 21:11:28.468032 18575 net.cpp:399] inception_4b/output_inception_4b/output_0_split -> inception_4b/output_inception_4b/output_0_split_2
I0714 21:11:28.468041 18575 net.cpp:399] inception_4b/output_inception_4b/output_0_split -> inception_4b/output_inception_4b/output_0_split_3
I0714 21:11:28.468219 18571 net.cpp:141] Setting up inception_4b/relu_pool_proj
I0714 21:11:28.468235 18571 net.cpp:148] Top shape: 10 64 14 14 (125440)
I0714 21:11:28.468240 18571 net.cpp:156] Memory required for data: 403791360
I0714 21:11:28.468245 18571 layer_factory.hpp:77] Creating layer inception_4b/output
I0714 21:11:28.468257 18571 net.cpp:91] Creating Layer inception_4b/output
I0714 21:11:28.468263 18571 net.cpp:425] inception_4b/output <- inception_4b/1x1
I0714 21:11:28.468271 18571 net.cpp:425] inception_4b/output <- inception_4b/3x3
I0714 21:11:28.468276 18571 net.cpp:425] inception_4b/output <- inception_4b/5x5
I0714 21:11:28.468282 18571 net.cpp:425] inception_4b/output <- inception_4b/pool_proj
I0714 21:11:28.468289 18571 net.cpp:399] inception_4b/output -> inception_4b/output
I0714 21:11:28.468291 18575 net.cpp:141] Setting up inception_4b/output_inception_4b/output_0_split
I0714 21:11:28.468304 18575 net.cpp:148] Top shape: 10 512 14 14 (1003520)
I0714 21:11:28.468310 18575 net.cpp:148] Top shape: 10 512 14 14 (1003520)
I0714 21:11:28.468317 18575 net.cpp:148] Top shape: 10 512 14 14 (1003520)
…
I0714 21:11:28.601542 18571 net.cpp:141] Setting up inception_4e/relu_3x3
I0714 21:11:28.601567 18571 net.cpp:148] Top shape: 10 320 14 14 (627200)
I0714 21:11:28.601572 18571 net.cpp:156] Memory required for data: 505648640
I0714 21:11:28.601578 18571 layer_factory.hpp:77] Creating layer inception_4e/5x5_reduce
I0714 21:11:28.601595 18571 net.cpp:91] Creating Layer inception_4e/5x5_reduce
I0714 21:11:28.601603 18571 net.cpp:425] inception_4e/5x5_reduce <- inception_4d/output_inception_4d/output_0_split_2
I0714 21:11:28.601613 18571 net.cpp:399] inception_4e/5x5_reduce -> inception_4e/5x5_reduce
I0714 21:11:28.607132 18575 net.cpp:141] Setting up inception_4e/5x5_reduce
I0714 21:11:28.607167 18575 net.cpp:148] Top shape: 10 32 14 14 (62720)
I0714 21:11:28.607173 18575 net.cpp:156] Memory required for data: 505899520
I0714 21:11:28.607187 18575 layer_factory.hpp:77] Creating layer inception_4e/relu_5x5_reduce
I0714 21:11:28.607201 18575 net.cpp:91] Creating Layer inception_4e/relu_5x5_reduce
I0714 21:11:28.607210 18575 net.cpp:425] inception_4e/relu_5x5_reduce <- inception_4e/5x5_reduce
I0714 21:11:28.607221 18575 net.cpp:386] inception_4e/relu_5x5_reduce -> inception_4e/5x5_reduce (in-place)
I0714 21:11:28.607812 18575 net.cpp:141] Setting up inception_4e/relu_5x5_reduce
I0714 21:11:28.607832 18575 net.cpp:148] Top shape: 10 32 14 14 (62720)
I0714 21:11:28.607837 18571 net.cpp:141] Setting up inception_4e/5x5_reduce
I0714 21:11:28.607841 18575 net.cpp:156] Memory required for data: 506150400
I0714 21:11:28.607858 18571 net.cpp:148] Top shape: 10 32 14 14 (62720)
I0714 21:11:28.607866 18571 net.cpp:156] Memory required for data: 505899520
I0714 21:11:28.607867 18575 layer_factory.hpp:77] Creating layer inception_4e/5x5
I0714 21:11:28.607877 18571 layer_factory.hpp:77] Creating layer inception_4e/relu_5x5_reduce
I0714 21:11:28.607887 18571 net.cpp:91] Creating Layer inception_4e/relu_5x5_reduce
I0714 21:11:28.607893 18571 net.cpp:425] inception_4e/relu_5x5_reduce <- inception_4e/5x5_reduce
I0714 21:11:28.607904 18571 net.cpp:386] inception_4e/relu_5x5_reduce -> inception_4e/5x5_reduce (in-place)
I0714 21:11:28.607905 18575 net.cpp:91] Creating Layer inception_4e/5x5
I0714 21:11:28.607920 18575 net.cpp:425] inception_4e/5x5 <- inception_4e/5x5_reduce
I0714 21:11:28.607938 18575 net.cpp:399] inception_4e/5x5 -> inception_4e/5x5
I0714 21:11:28.608455 18571 net.cpp:141] Setting up inception_4e/relu_5x5_reduce
I0714 21:11:28.608469 18571 net.cpp:148] Top shape: 10 32 14 14 (62720)
I0714 21:11:28.608474 18571 net.cpp:156] Memory required for data: 506150400
I0714 21:11:28.608480 18571 layer_factory.hpp:77] Creating layer inception_4e/5x5
I0714 21:11:28.608501 18571 net.cpp:91] Creating Layer inception_4e/5x5
I0714 21:11:28.608508 18571 net.cpp:425] inception_4e/5x5 <- inception_4e/5x5_reduce
I0714 21:11:28.608520 18571 net.cpp:399] inception_4e/5x5 -> inception_4e/5x5
I0714 21:11:28.618522 18571 net.cpp:141] Setting up inception_4e/5x5
I0714 21:11:28.618551 18571 net.cpp:148] Top shape: 10 128 14 14 (250880)
I0714 21:11:28.618556 18571 net.cpp:156] Memory required for data: 507153920
I0714 21:11:28.618568 18571 layer_factory.hpp:77] Creating layer inception_4e/relu_5x5
I0714 21:11:28.618594 18571 net.cpp:91] Creating Layer inception_4e/relu_5x5
I0714 21:11:28.618602 18571 net.cpp:425] inception_4e/relu_5x5 <- inception_4e/5x5
I0714 21:11:28.618616 18571 net.cpp:386] inception_4e/relu_5x5 -> inception_4e/5x5 (in-place)
I0714 21:11:28.619168 18571 net.cpp:141] Setting up inception_4e/relu_5x5
I0714 21:11:28.619182 18571 net.cpp:148] Top shape: 10 128 14 14 (250880)
I0714 21:11:28.619187 18571 net.cpp:156] Memory required for data: 508157440
I0714 21:11:28.619192 18571 layer_factory.hpp:77] Creating layer inception_4e/pool
I0714 21:11:28.619204 18571 net.cpp:91] Creating Layer inception_4e/pool
I0714 21:11:28.619211 18571 net.cpp:425] inception_4e/pool <- inception_4d/output_inception_4d/output_0_split_3
I0714 21:11:28.619223 18571 net.cpp:399] inception_4e/pool -> inception_4e/pool
I0714 21:11:28.619254 18575 net.cpp:141] Setting up inception_4e/5x5
I0714 21:11:28.619292 18575 net.cpp:148] Top shape: 10 128 14 14 (250880)
I0714 21:11:28.619297 18575 net.cpp:156] Memory required for data: 507153920
I0714 21:11:28.619313 18575 layer_factory.hpp:77] Creating layer inception_4e/relu_5x5
I0714 21:11:28.619328 18575 net.cpp:91] Creating Layer inception_4e/relu_5x5
I0714 21:11:28.619338 18575 net.cpp:425] inception_4e/relu_5x5 <- inception_4e/5x5
I0714 21:11:28.619352 18575 net.cpp:386] inception_4e/relu_5x5 -> inception_4e/5x5 (in-place)
I0714 21:11:28.619392 18571 net.cpp:141] Setting up inception_4e/pool
I0714 21:11:28.619405 18571 net.cpp:148] Top shape: 10 528 14 14 (1034880)
I0714 21:11:28.619410 18571 net.cpp:156] Memory required for data: 512296960
I0714 21:11:28.619415 18571 layer_factory.hpp:77] Creating layer inception_4e/pool_proj
I0714 21:11:28.619432 18571 net.cpp:91] Creating Layer inception_4e/pool_proj
I0714 21:11:28.619439 18571 net.cpp:425] inception_4e/pool_proj <- inception_4e/pool
I0714 21:11:28.619452 18571 net.cpp:399] inception_4e/pool_proj -> inception_4e/pool_proj
I0714 21:11:28.619907 18575 net.cpp:141] Setting up inception_4e/relu_5x5
I0714 21:11:28.619922 18575 net.cpp:148] Top shape: 10 128 14 14 (250880)
I0714 21:11:28.619927 18575 net.cpp:156] Memory required for data: 508157440
I0714 21:11:28.619933 18575 layer_factory.hpp:77] Creating layer inception_4e/pool
I0714 21:11:28.619951 18575 net.cpp:91] Creating Layer inception_4e/pool
I0714 21:11:28.619959 18575 net.cpp:425] inception_4e/pool <- inception_4d/output_inception_4d/output_0_split_3
I0714 21:11:28.619968 18575 net.cpp:399] inception_4e/pool -> inception_4e/pool
I0714 21:11:28.620296 18575 net.cpp:141] Setting up inception_4e/pool
I0714 21:11:28.620309 18575 net.cpp:148] Top shape: 10 528 14 14 (1034880)
I0714 21:11:28.620314 18575 net.cpp:156] Memory required for data: 512296960
I0714 21:11:28.620321 18575 layer_factory.hpp:77] Creating layer inception_4e/pool_proj
I0714 21:11:28.620354 18575 net.cpp:91] Creating Layer inception_4e/pool_proj
I0714 21:11:28.620365 18575 net.cpp:425] inception_4e/pool_proj <- inception_4e/pool
I0714 21:11:28.620376 18575 net.cpp:399] inception_4e/pool_proj -> inception_4e/pool_proj
I0714 21:11:28.626068 18571 net.cpp:141] Setting up inception_4e/pool_proj
I0714 21:11:28.626103 18571 net.cpp:148] Top shape: 10 128 14 14 (250880)
I0714 21:11:28.626109 18571 net.cpp:156] Memory required for data: 513300480
I0714 21:11:28.626122 18571 layer_factory.hpp:77] Creating layer inception_4e/relu_pool_proj
I0714 21:11:28.626135 18571 net.cpp:91] Creating Layer inception_4e/relu_pool_proj
I0714 21:11:28.626143 18571 net.cpp:425] inception_4e/relu_pool_proj <- inception_4e/pool_proj
I0714 21:11:28.626153 18571 net.cpp:386] inception_4e/relu_pool_proj -> inception_4e/pool_proj (in-place)
I0714 21:11:28.627640 18571 net.cpp:141] Setting up inception_4e/relu_pool_proj
I0714 21:11:28.627663 18571 net.cpp:148] Top shape: 10 128 14 14 (250880)
I0714 21:11:28.627671 18571 net.cpp:156] Memory required for data: 514304000
I0714 21:11:28.627677 18571 layer_factory.hpp:77] Creating layer inception_4e/output
I0714 21:11:28.627689 18571 net.cpp:91] Creating Layer inception_4e/output
I0714 21:11:28.627697 18571 net.cpp:425] inception_4e/output <- inception_4e/1x1
I0714 21:11:28.627706 18571 net.cpp:425] inception_4e/output <- inception_4e/3x3
I0714 21:11:28.627712 18571 net.cpp:425] inception_4e/output <- inception_4e/5x5
I0714 21:11:28.627718 18571 net.cpp:425] inception_4e/output <- inception_4e/pool_proj
I0714 21:11:28.627732 18571 net.cpp:399] inception_4e/output -> inception_4e/output
I0714 21:11:28.627749 18575 net.cpp:141] Setting up inception_4e/pool_proj
I0714 21:11:28.627780 18575 net.cpp:148] Top shape: 10 128 14 14 (250880)
I0714 21:11:28.627787 18575 net.cpp:156] Memory required for data: 513300480
I0714 21:11:28.627800 18575 layer_factory.hpp:77] Creating layer inception_4e/relu_pool_proj
I0714 21:11:28.627816 18575 net.cpp:91] Creating Layer inception_4e/relu_pool_proj
I0714 21:11:28.627825 18575 net.cpp:425] inception_4e/relu_pool_proj <- inception_4e/pool_proj
I0714 21:11:28.627856 18571 net.cpp:141] Setting up inception_4e/output
I0714 21:11:28.627866 18575 net.cpp:386] inception_4e/relu_pool_proj -> inception_4e/pool_proj (in-place)
I0714 21:11:28.627871 18571 net.cpp:148] Top shape: 10 832 14 14 (1630720)
I0714 21:11:28.627876 18571 net.cpp:156] Memory required for data: 520826880
I0714 21:11:28.627882 18571 layer_factory.hpp:77] Creating layer pool4/3x3_s2
I0714 21:11:28.627892 18571 net.cpp:91] Creating Layer pool4/3x3_s2
I0714 21:11:28.627897 18571 net.cpp:425] pool4/3x3_s2 <- inception_4e/output
I0714 21:11:28.627933 18571 net.cpp:399] pool4/3x3_s2 -> pool4/3x3_s2
I0714 21:11:28.629175 18571 net.cpp:141] Setting up pool4/3x3_s2
I0714 21:11:28.629190 18571 net.cpp:148] Top shape: 10 832 7 7 (407680)
I0714 21:11:28.629195 18571 net.cpp:156] Memory required for data: 522457600
I0714 21:11:28.629201 18571 layer_factory.hpp:77] Creating layer pool4/3x3_s2_pool4/3x3_s2_0_split
I0714 21:11:28.629211 18571 net.cpp:91] Creating Layer pool4/3x3_s2_pool4/3x3_s2_0_split
I0714 21:11:28.629217 18571 net.cpp:425] pool4/3x3_s2_pool4/3x3_s2_0_split <- pool4/3x3_s2
I0714 21:11:28.629228 18571 net.cpp:399] pool4/3x3_s2_pool4/3x3_s2_0_split -> pool4/3x3_s2_pool4/3x3_s2_0_split_0
I0714 21:11:28.629240 18571 net.cpp:399] pool4/3x3_s2_pool4/3x3_s2_0_split -> pool4/3x3_s2_pool4/3x3_s2_0_split_1
I0714 21:11:28.629248 18571 net.cpp:399] pool4/3x3_s2_pool4/3x3_s2_0_split -> pool4/3x3_s2_pool4/3x3_s2_0_split_2
I0714 21:11:28.629257 18571 net.cpp:399] pool4/3x3_s2_pool4/3x3_s2_0_split -> pool4/3x3_s2_pool4/3x3_s2_0_split_3
I0714 21:11:28.629276 18575 net.cpp:141] Setting up inception_4e/relu_pool_proj
I0714 21:11:28.629293 18575 net.cpp:148] Top shape: 10 128 14 14 (250880)
I0714 21:11:28.629299 18575 net.cpp:156] Memory required for data: 514304000
I0714 21:11:28.629305 18575 layer_factory.hpp:77] Creating layer inception_4e/output
I0714 21:11:28.629317 18575 net.cpp:91] Creating Layer inception_4e/output
I0714 21:11:28.629323 18575 net.cpp:425] inception_4e/output <- inception_4e/1x1
I0714 21:11:28.629331 18575 net.cpp:425] inception_4e/output <- inception_4e/3x3
I0714 21:11:28.629338 18575 net.cpp:425] inception_4e/output <- inception_4e/5x5
I0714 21:11:28.629343 18575 net.cpp:425] inception_4e/output <- inception_4e/pool_proj
I0714 21:11:28.629370 18575 net.cpp:399] inception_4e/output -> inception_4e/output
I0714 21:11:28.629597 18575 net.cpp:141] Setting up inception_4e/output
I0714 21:11:28.629611 18575 net.cpp:148] Top shape: 10 832 14 14 (1630720)
I0714 21:11:28.629616 18575 net.cpp:156] Memory required for data: 520826880
I0714 21:11:28.629622 18575 layer_factory.hpp:77] Creating layer pool4/3x3_s2
I0714 21:11:28.629633 18571 net.cpp:141] Setting up pool4/3x3_s2_pool4/3x3_s2_0_split
I0714 21:11:28.629639 18575 net.cpp:91] Creating Layer pool4/3x3_s2
I0714 21:11:28.629647 18571 net.cpp:148] Top shape: 10 832 7 7 (407680)
I0714 21:11:28.629647 18575 net.cpp:425] pool4/3x3_s2 <- inception_4e/output
I0714 21:11:28.629658 18571 net.cpp:148] Top shape: 10 832 7 7 (407680)
I0714 21:11:28.629664 18571 net.cpp:148] Top shape: 10 832 7 7 (407680)
I0714 21:11:28.629667 18575 net.cpp:399] pool4/3x3_s2 -> pool4/3x3_s2
I0714 21:11:28.629672 18571 net.cpp:148] Top shape: 10 832 7 7 (407680)
I0714 21:11:28.629676 18571 net.cpp:156] Memory required for data: 528980480
I0714 21:11:28.629681 18571 layer_factory.hpp:77] Creating layer inception_5a/1x1
I0714 21:11:28.629699 18571 net.cpp:91] Creating Layer inception_5a/1x1
I0714 21:11:28.629705 18571 net.cpp:425] inception_5a/1x1 <- pool4/3x3_s2_pool4/3x3_s2_0_split_0
I0714 21:11:28.629729 18571 net.cpp:399] inception_5a/1x1 -> inception_5a/1x1
I0714 21:11:28.629873 18575 net.cpp:141] Setting up pool4/3x3_s2
I0714 21:11:28.629885 18575 net.cpp:148] Top shape: 10 832 7 7 (407680)
I0714 21:11:28.629889 18575 net.cpp:156] Memory required for data: 522457600
I0714 21:11:28.629895 18575 layer_factory.hpp:77] Creating layer pool4/3x3_s2_pool4/3x3_s2_0_split
I0714 21:11:28.629905 18575 net.cpp:91] Creating Layer pool4/3x3_s2_pool4/3x3_s2_0_split
I0714 21:11:28.629911 18575 net.cpp:425] pool4/3x3_s2_pool4/3x3_s2_0_split <- pool4/3x3_s2
I0714 21:11:28.629932 18575 net.cpp:399] pool4/3x3_s2_pool4/3x3_s2_0_split -> pool4/3x3_s2_pool4/3x3_s2_0_split_0
I0714 21:11:28.629945 18575 net.cpp:399] pool4/3x3_s2_pool4/3x3_s2_0_split -> pool4/3x3_s2_pool4/3x3_s2_0_split_1
I0714 21:11:28.629954 18575 net.cpp:399] pool4/3x3_s2_pool4/3x3_s2_0_split -> pool4/3x3_s2_pool4/3x3_s2_0_split_2
I0714 21:11:28.629963 18575 net.cpp:399] pool4/3x3_s2_pool4/3x3_s2_0_split -> pool4/3x3_s2_pool4/3x3_s2_0_split_3
I0714 21:11:28.630600 18575 net.cpp:141] Setting up pool4/3x3_s2_pool4/3x3_s2_0_split
I0714 21:11:28.630614 18575 net.cpp:148] Top shape: 10 832 7 7 (407680)
I0714 21:11:28.630621 18575 net.cpp:148] Top shape: 10 832 7 7 (407680)
I0714 21:11:28.630627 18575 net.cpp:148] Top shape: 10 832 7 7 (407680)
I0714 21:11:28.630633 18575 net.cpp:148] Top shape: 10 832 7 7 (407680)
I0714 21:11:28.630637 18575 net.cpp:156] Memory required for data: 528980480
I0714 21:11:28.630643 18575 layer_factory.hpp:77] Creating layer inception_5a/1x1
I0714 21:11:28.630661 18575 net.cpp:91] Creating Layer inception_5a/1x1
I0714 21:11:28.630667 18575 net.cpp:425] inception_5a/1x1 <- pool4/3x3_s2_pool4/3x3_s2_0_split_0
I0714 21:11:28.630700 18575 net.cpp:399] inception_5a/1x1 -> inception_5a/1x1
I0714 21:11:28.641922 18571 net.cpp:141] Setting up inception_5a/1x1
I0714 21:11:28.641978 18571 net.cpp:148] Top shape: 10 256 7 7 (125440)
I0714 21:11:28.641985 18571 net.cpp:156] Memory required for data: 529482240
I0714 21:11:28.642001 18571 layer_factory.hpp:77] Creating layer inception_5a/relu_1x1
I0714 21:11:28.642024 18571 net.cpp:91] Creating Layer inception_5a/relu_1x1
I0714 21:11:28.642033 18571 net.cpp:425] inception_5a/relu_1x1 <- inception_5a/1x1
I0714 21:11:28.642046 18571 net.cpp:386] inception_5a/relu_1x1 -> inception_5a/1x1 (in-place)
I0714 21:11:28.642410 18571 net.cpp:141] Setting up inception_5a/relu_1x1
I0714 21:11:28.642423 18571 net.cpp:148] Top shape: 10 256 7 7 (125440)
I0714 21:11:28.642429 18571 net.cpp:156] Memory required for data: 529984000
I0714 21:11:28.642436 18571 layer_factory.hpp:77] Creating layer inception_5a/3x3_reduce
I0714 21:11:28.642460 18571 net.cpp:91] Creating Layer inception_5a/3x3_reduce
I0714 21:11:28.642468 18571 net.cpp:425] inception_5a/3x3_reduce <- pool4/3x3_s2_pool4/3x3_s2_0_split_1
I0714 21:11:28.642482 18571 net.cpp:399] inception_5a/3x3_reduce -> inception_5a/3x3_reduce
I0714 21:11:28.648564 18575 net.cpp:141] Setting up inception_5a/1x1
I0714 21:11:28.648627 18575 net.cpp:148] Top shape: 10 256 7 7 (125440)
I0714 21:11:28.648639 18575 net.cpp:156] Memory required for data: 529482240
I0714 21:11:28.648661 18575 layer_factory.hpp:77] Creating layer inception_5a/relu_1x1
I0714 21:11:28.648684 18575 net.cpp:91] Creating Layer inception_5a/relu_1x1
I0714 21:11:28.648697 18575 net.cpp:425] inception_5a/relu_1x1 <- inception_5a/1x1
I0714 21:11:28.648717 18575 net.cpp:386] inception_5a/relu_1x1 -> inception_5a/1x1 (in-place)
I0714 21:11:28.649186 18575 net.cpp:141] Setting up inception_5a/relu_1x1
I0714 21:11:28.649205 18575 net.cpp:148] Top shape: 10 256 7 7 (125440)
I0714 21:11:28.649214 18575 net.cpp:156] Memory required for data: 529984000
I0714 21:11:28.649224 18575 layer_factory.hpp:77] Creating layer inception_5a/3x3_reduce
I0714 21:11:28.649255 18575 net.cpp:91] Creating Layer inception_5a/3x3_reduce
I0714 21:11:28.649271 18575 net.cpp:425] inception_5a/3x3_reduce <- pool4/3x3_s2_pool4/3x3_s2_0_split_1
I0714 21:11:28.649287 18575 net.cpp:399] inception_5a/3x3_reduce -> inception_5a/3x3_reduce
I0714 21:11:28.655050 18571 net.cpp:141] Setting up inception_5a/3x3_reduce
I0714 21:11:28.655092 18571 net.cpp:148] Top shape: 10 160 7 7 (78400)
I0714 21:11:28.655097 18571 net.cpp:156] Memory required for data: 530297600
I0714 21:11:28.655112 18571 layer_factory.hpp:77] Creating layer inception_5a/relu_3x3_reduce
I0714 21:11:28.655123 18571 net.cpp:91] Creating Layer inception_5a/relu_3x3_reduce
I0714 21:11:28.655133 18571 net.cpp:425] inception_5a/relu_3x3_reduce <- inception_5a/3x3_reduce
I0714 21:11:28.655143 18571 net.cpp:386] inception_5a/relu_3x3_reduce -> inception_5a/3x3_reduce (in-place)
I0714 21:11:28.655462 18571 net.cpp:141] Setting up inception_5a/relu_3x3_reduce
I0714 21:11:28.655475 18571 net.cpp:148] Top shape: 10 160 7 7 (78400)
I0714 21:11:28.655480 18571 net.cpp:156] Memory required for data: 530611200
I0714 21:11:28.655485 18571 layer_factory.hpp:77] Creating layer inception_5a/3x3
I0714 21:11:28.655504 18571 net.cpp:91] Creating Layer inception_5a/3x3
I0714 21:11:28.655513 18571 net.cpp:425] inception_5a/3x3 <- inception_5a/3x3_reduce
I0714 21:11:28.655525 18571 net.cpp:399] inception_5a/3x3 -> inception_5a/3x3
I0714 21:11:28.661417 18575 net.cpp:141] Setting up inception_5a/3x3_reduce
I0714 21:11:28.661448 18575 net.cpp:148] Top shape: 10 160 7 7 (78400)
I0714 21:11:28.661454 18575 net.cpp:156] Memory required for data: 530297600
I0714 21:11:28.661466 18575 layer_factory.hpp:77] Creating layer inception_5a/relu_3x3_reduce
I0714 21:11:28.661479 18575 net.cpp:91] Creating Layer inception_5a/relu_3x3_reduce
I0714 21:11:28.661487 18575 net.cpp:425] inception_5a/relu_3x3_reduce <- inception_5a/3x3_reduce
I0714 21:11:28.661497 18575 net.cpp:386] inception_5a/relu_3x3_reduce -> inception_5a/3x3_reduce (in-place)
I0714 21:11:28.661811 18575 net.cpp:141] Setting up inception_5a/relu_3x3_reduce
I0714 21:11:28.661824 18575 net.cpp:148] Top shape: 10 160 7 7 (78400)
I0714 21:11:28.661829 18575 net.cpp:156] Memory required for data: 530611200
I0714 21:11:28.661834 18575 layer_factory.hpp:77] Creating layer inception_5a/3x3
I0714 21:11:28.661854 18575 net.cpp:91] Creating Layer inception_5a/3x3
I0714 21:11:28.661860 18575 net.cpp:425] inception_5a/3x3 <- inception_5a/3x3_reduce
I0714 21:11:28.661873 18575 net.cpp:399] inception_5a/3x3 -> inception_5a/3x3
I0714 21:11:28.668705 18571 net.cpp:141] Setting up inception_5a/3x3
I0714 21:11:28.668736 18571 net.cpp:148] Top shape: 10 320 7 7 (156800)
I0714 21:11:28.668742 18571 net.cpp:156] Memory required for data: 531238400
I0714 21:11:28.668756 18571 layer_factory.hpp:77] Creating layer inception_5a/relu_3x3
I0714 21:11:28.668766 18571 net.cpp:91] Creating Layer inception_5a/relu_3x3
I0714 21:11:28.668773 18571 net.cpp:425] inception_5a/relu_3x3 <- inception_5a/3x3
I0714 21:11:28.668787 18571 net.cpp:386] inception_5a/relu_3x3 -> inception_5a/3x3 (in-place)
I0714 21:11:28.669767 18571 net.cpp:141] Setting up inception_5a/relu_3x3
I0714 21:11:28.669786 18571 net.cpp:148] Top shape: 10 320 7 7 (156800)
I0714 21:11:28.669791 18571 net.cpp:156] Memory required for data: 531865600
I0714 21:11:28.669797 18571 layer_factory.hpp:77] Creating layer inception_5a/5x5_reduce
I0714 21:11:28.669821 18571 net.cpp:91] Creating Layer inception_5a/5x5_reduce
I0714 21:11:28.669828 18571 net.cpp:425] inception_5a/5x5_reduce <- pool4/3x3_s2_pool4/3x3_s2_0_split_2
I0714 21:11:28.669839 18571 net.cpp:399] inception_5a/5x5_reduce -> inception_5a/5x5_reduce
I0714 21:11:28.674345 18575 net.cpp:141] Setting up inception_5a/3x3
I0714 21:11:28.674370 18575 net.cpp:148] Top shape: 10 320 7 7 (156800)
I0714 21:11:28.674376 18575 net.cpp:156] Memory required for data: 531238400
I0714 21:11:28.674387 18575 layer_factory.hpp:77] Creating layer inception_5a/relu_3x3
I0714 21:11:28.674401 18575 net.cpp:91] Creating Layer inception_5a/relu_3x3
I0714 21:11:28.674409 18575 net.cpp:425] inception_5a/relu_3x3 <- inception_5a/3x3
I0714 21:11:28.674417 18575 net.cpp:386] inception_5a/relu_3x3 -> inception_5a/3x3 (in-place)
I0714 21:11:28.675983 18575 net.cpp:141] Setting up inception_5a/relu_3x3
I0714 21:11:28.676012 18575 net.cpp:148] Top shape: 10 320 7 7 (156800)
I0714 21:11:28.676023 18575 net.cpp:156] Memory required for data: 531865600
I0714 21:11:28.676034 18575 layer_factory.hpp:77] Creating layer inception_5a/5x5_reduce
I0714 21:11:28.676069 18575 net.cpp:91] Creating Layer inception_5a/5x5_reduce
I0714 21:11:28.676084 18575 net.cpp:425] inception_5a/5x5_reduce <- pool4/3x3_s2_pool4/3x3_s2_0_split_2
I0714 21:11:28.676105 18575 net.cpp:399] inception_5a/5x5_reduce -> inception_5a/5x5_reduce
I0714 21:11:28.677352 18571 net.cpp:141] Setting up inception_5a/5x5_reduce
I0714 21:11:28.677381 18571 net.cpp:148] Top shape: 10 32 7 7 (15680)
I0714 21:11:28.677387 18571 net.cpp:156] Memory required for data: 531928320
I0714 21:11:28.677398 18571 layer_factory.hpp:77] Creating layer inception_5a/relu_5x5_reduce
I0714 21:11:28.677409 18571 net.cpp:91] Creating Layer inception_5a/relu_5x5_reduce
I0714 21:11:28.677417 18571 net.cpp:425] inception_5a/relu_5x5_reduce <- inception_5a/5x5_reduce
I0714 21:11:28.677429 18571 net.cpp:386] inception_5a/relu_5x5_reduce -> inception_5a/5x5_reduce (in-place)
I0714 21:11:28.677878 18571 net.cpp:141] Setting up inception_5a/relu_5x5_reduce
I0714 21:11:28.677903 18571 net.cpp:148] Top shape: 10 32 7 7 (15680)
I0714 21:11:28.677909 18571 net.cpp:156] Memory required for data: 531991040
I0714 21:11:28.677914 18571 layer_factory.hpp:77] Creating layer inception_5a/5x5
I0714 21:11:28.677933 18571 net.cpp:91] Creating Layer inception_5a/5x5
I0714 21:11:28.677940 18571 net.cpp:425] inception_5a/5x5 <- inception_5a/5x5_reduce
I0714 21:11:28.677950 18571 net.cpp:399] inception_5a/5x5 -> inception_5a/5x5
I0714 21:11:28.684005 18571 net.cpp:141] Setting up inception_5a/5x5
I0714 21:11:28.684008 18575 net.cpp:141] Setting up inception_5a/5x5_reduce
I0714 21:11:28.684029 18571 net.cpp:148] Top shape: 10 128 7 7 (62720)
I0714 21:11:28.684046 18571 net.cpp:156] Memory required for data: 532241920
I0714 21:11:28.684048 18575 net.cpp:148] Top shape: 10 32 7 7 (15680)
I0714 21:11:28.684057 18571 layer_factory.hpp:77] Creating layer inception_5a/relu_5x5
I0714 21:11:28.684062 18575 net.cpp:156] Memory required for data: 531928320
I0714 21:11:28.684080 18575 layer_factory.hpp:77] Creating layer inception_5a/relu_5x5_reduce
I0714 21:11:28.684097 18571 net.cpp:91] Creating Layer inception_5a/relu_5x5
I0714 21:11:28.684105 18571 net.cpp:425] inception_5a/relu_5x5 <- inception_5a/5x5
I0714 21:11:28.684103 18575 net.cpp:91] Creating Layer inception_5a/relu_5x5_reduce
I0714 21:11:28.684120 18571 net.cpp:386] inception_5a/relu_5x5 -> inception_5a/5x5 (in-place)
I0714 21:11:28.684134 18575 net.cpp:425] inception_5a/relu_5x5_reduce <- inception_5a/5x5_reduce
I0714 21:11:28.684151 18575 net.cpp:386] inception_5a/relu_5x5_reduce -> inception_5a/5x5_reduce (in-place)
I0714 21:11:28.684617 18571 net.cpp:141] Setting up inception_5a/relu_5x5
I0714 21:11:28.684633 18571 net.cpp:148] Top shape: 10 128 7 7 (62720)
I0714 21:11:28.684638 18571 net.cpp:156] Memory required for data: 532492800
I0714 21:11:28.684644 18571 layer_factory.hpp:77] Creating layer inception_5a/pool
I0714 21:11:28.684656 18571 net.cpp:91] Creating Layer inception_5a/pool
I0714 21:11:28.684662 18571 net.cpp:425] inception_5a/pool <- pool4/3x3_s2_pool4/3x3_s2_0_split_3
I0714 21:11:28.684671 18571 net.cpp:399] inception_5a/pool -> inception_5a/pool
I0714 21:11:28.684903 18571 net.cpp:141] Setting up inception_5a/pool
I0714 21:11:28.684916 18571 net.cpp:148] Top shape: 10 832 7 7 (407680)
I0714 21:11:28.684921 18571 net.cpp:156] Memory required for data: 534123520
I0714 21:11:28.684926 18571 layer_factory.hpp:77] Creating layer inception_5a/pool_proj
I0714 21:11:28.684932 18575 net.cpp:141] Setting up inception_5a/relu_5x5_reduce
I0714 21:11:28.684943 18571 net.cpp:91] Creating Layer inception_5a/pool_proj
I0714 21:11:28.684950 18571 net.cpp:425] inception_5a/pool_proj <- inception_5a/pool
I0714 21:11:28.684953 18575 net.cpp:148] Top shape: 10 32 7 7 (15680)
I0714 21:11:28.684965 18571 net.cpp:399] inception_5a/pool_proj -> inception_5a/pool_proj
I0714 21:11:28.684964 18575 net.cpp:156] Memory required for data: 531991040
I0714 21:11:28.684988 18575 layer_factory.hpp:77] Creating layer inception_5a/5x5
I0714 21:11:28.685017 18575 net.cpp:91] Creating Layer inception_5a/5x5
I0714 21:11:28.685029 18575 net.cpp:425] inception_5a/5x5 <- inception_5a/5x5_reduce
I0714 21:11:28.685050 18575 net.cpp:399] inception_5a/5x5 -> inception_5a/5x5
I0714 21:11:28.693449 18571 net.cpp:141] Setting up inception_5a/pool_proj
I0714 21:11:28.693482 18571 net.cpp:148] Top shape: 10 128 7 7 (62720)
I0714 21:11:28.693490 18571 net.cpp:156] Memory required for data: 534374400
I0714 21:11:28.693500 18571 layer_factory.hpp:77] Creating layer inception_5a/relu_pool_proj
I0714 21:11:28.693521 18571 net.cpp:91] Creating Layer inception_5a/relu_pool_proj
I0714 21:11:28.693531 18571 net.cpp:425] inception_5a/relu_pool_proj <- inception_5a/pool_proj
I0714 21:11:28.693542 18571 net.cpp:386] inception_5a/relu_pool_proj -> inception_5a/pool_proj (in-place)
I0714 21:11:28.695377 18571 net.cpp:141] Setting up inception_5a/relu_pool_proj
I0714 21:11:28.695396 18571 net.cpp:148] Top shape: 10 128 7 7 (62720)
I0714 21:11:28.695402 18571 net.cpp:156] Memory required for data: 534625280
I0714 21:11:28.695408 18571 layer_factory.hpp:77] Creating layer inception_5a/output
I0714 21:11:28.695418 18571 net.cpp:91] Creating Layer inception_5a/output
I0714 21:11:28.695425 18571 net.cpp:425] inception_5a/output <- inception_5a/1x1
I0714 21:11:28.695433 18571 net.cpp:425] inception_5a/output <- inception_5a/3x3
I0714 21:11:28.695439 18571 net.cpp:425] inception_5a/output <- inception_5a/5x5
I0714 21:11:28.695446 18571 net.cpp:425] inception_5a/output <- inception_5a/pool_proj
I0714 21:11:28.695456 18571 net.cpp:399] inception_5a/output -> inception_5a/output
I0714 21:11:28.695587 18575 net.cpp:141] Setting up inception_5a/5x5
I0714 21:11:28.695606 18575 net.cpp:148] Top shape: 10 128 7 7 (62720)
I0714 21:11:28.695612 18575 net.cpp:156] Memory required for data: 532241920
I0714 21:11:28.695621 18571 net.cpp:141] Setting up inception_5a/output
I0714 21:11:28.695623 18575 layer_factory.hpp:77] Creating layer inception_5a/relu_5x5
I0714 21:11:28.695636 18571 net.cpp:148] Top shape: 10 832 7 7 (407680)
I0714 21:11:28.695642 18571 net.cpp:156] Memory required for data: 536256000
I0714 21:11:28.695648 18571 layer_factory.hpp:77] Creating layer inception_5a/output_inception_5a/output_0_split
I0714 21:11:28.695660 18571 net.cpp:91] Creating Layer inception_5a/output_inception_5a/output_0_split
I0714 21:11:28.695667 18571 net.cpp:425] inception_5a/output_inception_5a/output_0_split <- inception_5a/output
I0714 21:11:28.695675 18571 net.cpp:399] inception_5a/output_inception_5a/output_0_split -> inception_5a/output_inception_5a/output_0_split_0
I0714 21:11:28.695675 18575 net.cpp:91] Creating Layer inception_5a/relu_5x5
I0714 21:11:28.695685 18575 net.cpp:425] inception_5a/relu_5x5 <- inception_5a/5x5
I0714 21:11:28.695686 18571 net.cpp:399] inception_5a/output_inception_5a/output_0_split -> inception_5a/output_inception_5a/output_0_split_1
I0714 21:11:28.695694 18575 net.cpp:386] inception_5a/relu_5x5 -> inception_5a/5x5 (in-place)
I0714 21:11:28.695698 18571 net.cpp:399] inception_5a/output_inception_5a/output_0_split -> inception_5a/output_inception_5a/output_0_split_2
I0714 21:11:28.695708 18571 net.cpp:399] inception_5a/output_inception_5a/output_0_split -> inception_5a/output_inception_5a/output_0_split_3
I0714 21:11:28.696205 18575 net.cpp:141] Setting up inception_5a/relu_5x5
I0714 21:11:28.696219 18575 net.cpp:148] Top shape: 10 128 7 7 (62720)
I0714 21:11:28.696224 18575 net.cpp:156] Memory required for data: 532492800
I0714 21:11:28.696231 18575 layer_factory.hpp:77] Creating layer inception_5a/pool
I0714 21:11:28.696229 18571 net.cpp:141] Setting up inception_5a/output_inception_5a/output_0_split
I0714 21:11:28.696246 18575 net.cpp:91] Creating Layer inception_5a/pool
I0714 21:11:28.696252 18571 net.cpp:148] Top shape: 10 832 7 7 (407680)
I0714 21:11:28.696255 18575 net.cpp:425] inception_5a/pool <- pool4/3x3_s2_pool4/3x3_s2_0_split_3
I0714 21:11:28.696260 18571 net.cpp:148] Top shape: 10 832 7 7 (407680)
I0714 21:11:28.696264 18575 net.cpp:399] inception_5a/pool -> inception_5a/pool
I0714 21:11:28.696267 18571 net.cpp:148] Top shape: 10 832 7 7 (407680)
I0714 21:11:28.696274 18571 net.cpp:148] Top shape: 10 832 7 7 (407680)
I0714 21:11:28.696279 18571 net.cpp:156] Memory required for data: 542778880
I0714 21:11:28.696283 18571 layer_factory.hpp:77] Creating layer inception_5b/1x1
I0714 21:11:28.696305 18571 net.cpp:91] Creating Layer inception_5b/1x1
I0714 21:11:28.696312 18571 net.cpp:425] inception_5b/1x1 <- inception_5a/output_inception_5a/output_0_split_0
I0714 21:11:28.696322 18571 net.cpp:399] inception_5b/1x1 -> inception_5b/1x1
I0714 21:11:28.696480 18575 net.cpp:141] Setting up inception_5a/pool
I0714 21:11:28.696493 18575 net.cpp:148] Top shape: 10 832 7 7 (407680)
I0714 21:11:28.696498 18575 net.cpp:156] Memory required for data: 534123520
I0714 21:11:28.696503 18575 layer_factory.hpp:77] Creating layer inception_5a/pool_proj
I0714 21:11:28.696521 18575 net.cpp:91] Creating Layer inception_5a/pool_proj
I0714 21:11:28.696527 18575 net.cpp:425] inception_5a/pool_proj <- inception_5a/pool
I0714 21:11:28.696537 18575 net.cpp:399] inception_5a/pool_proj -> inception_5a/pool_proj
I0714 21:11:28.705571 18575 net.cpp:141] Setting up inception_5a/pool_proj
I0714 21:11:28.705593 18575 net.cpp:148] Top shape: 10 128 7 7 (62720)
I0714 21:11:28.705600 18575 net.cpp:156] Memory required for data: 534374400
I0714 21:11:28.705610 18575 layer_factory.hpp:77] Creating layer inception_5a/relu_pool_proj
I0714 21:11:28.705621 18575 net.cpp:91] Creating Layer inception_5a/relu_pool_proj
I0714 21:11:28.705627 18575 net.cpp:425] inception_5a/relu_pool_proj <- inception_5a/pool_proj
I0714 21:11:28.705638 18575 net.cpp:386] inception_5a/relu_pool_proj -> inception_5a/pool_proj (in-place)
I0714 21:11:28.706650 18571 net.cpp:141] Setting up inception_5b/1x1
I0714 21:11:28.706678 18571 net.cpp:148] Top shape: 10 384 7 7 (188160)
I0714 21:11:28.706684 18571 net.cpp:156] Memory required for data: 543531520
I0714 21:11:28.706696 18575 net.cpp:141] Setting up inception_5a/relu_pool_proj
I0714 21:11:28.706704 18571 layer_factory.hpp:77] Creating layer inception_5b/relu_1x1
I0714 21:11:28.706712 18575 net.cpp:148] Top shape: 10 128 7 7 (62720)
I0714 21:11:28.706717 18571 net.cpp:91] Creating Layer inception_5b/relu_1x1
I0714 21:11:28.706718 18575 net.cpp:156] Memory required for data: 534625280
I0714 21:11:28.706723 18571 net.cpp:425] inception_5b/relu_1x1 <- inception_5b/1x1
I0714 21:11:28.706725 18575 layer_factory.hpp:77] Creating layer inception_5a/output
I0714 21:11:28.706733 18571 net.cpp:386] inception_5b/relu_1x1 -> inception_5b/1x1 (in-place)
I0714 21:11:28.706739 18575 net.cpp:91] Creating Layer inception_5a/output
I0714 21:11:28.706746 18575 net.cpp:425] inception_5a/output <- inception_5a/1x1
I0714 21:11:28.706754 18575 net.cpp:425] inception_5a/output <- inception_5a/3x3
I0714 21:11:28.706760 18575 net.cpp:425] inception_5a/output <- inception_5a/5x5
I0714 21:11:28.706766 18575 net.cpp:425] inception_5a/output <- inception_5a/pool_proj
I0714 21:11:28.706774 18575 net.cpp:399] inception_5a/output -> inception_5a/output
I0714 21:11:28.707027 18575 net.cpp:141] Setting up inception_5a/output
I0714 21:11:28.707041 18575 net.cpp:148] Top shape: 10 832 7 7 (407680)
I0714 21:11:28.707046 18575 net.cpp:156] Memory required for data: 536256000
I0714 21:11:28.707051 18575 layer_factory.hpp:77] Creating layer inception_5a/output_inception_5a/output_0_split
I0714 21:11:28.707063 18575 net.cpp:91] Creating Layer inception_5a/output_inception_5a/output_0_split
I0714 21:11:28.707069 18575 net.cpp:425] inception_5a/output_inception_5a/output_0_split <- inception_5a/output
I0714 21:11:28.707077 18575 net.cpp:399] inception_5a/output_inception_5a/output_0_split -> inception_5a/output_inception_5a/output_0_split_0
I0714 21:11:28.707088 18575 net.cpp:399] inception_5a/output_inception_5a/output_0_split -> inception_5a/output_inception_5a/output_0_split_1
I0714 21:11:28.707098 18575 net.cpp:399] inception_5a/output_inception_5a/output_0_split -> inception_5a/output_inception_5a/output_0_split_2
I0714 21:11:28.707108 18575 net.cpp:399] inception_5a/output_inception_5a/output_0_split -> inception_5a/output_inception_5a/output_0_split_3
I0714 21:11:28.707154 18571 net.cpp:141] Setting up inception_5b/relu_1x1
I0714 21:11:28.707168 18571 net.cpp:148] Top shape: 10 384 7 7 (188160)
I0714 21:11:28.707173 18571 net.cpp:156] Memory required for data: 544284160
I0714 21:11:28.707180 18571 layer_factory.hpp:77] Creating layer inception_5b/3x3_reduce
I0714 21:11:28.707196 18571 net.cpp:91] Creating Layer inception_5b/3x3_reduce
I0714 21:11:28.707203 18571 net.cpp:425] inception_5b/3x3_reduce <- inception_5a/output_inception_5a/output_0_split_1
I0714 21:11:28.707217 18571 net.cpp:399] inception_5b/3x3_reduce -> inception_5b/3x3_reduce
I0714 21:11:28.707535 18575 net.cpp:141] Setting up inception_5a/output_inception_5a/output_0_split
I0714 21:11:28.707547 18575 net.cpp:148] Top shape: 10 832 7 7 (407680)
I0714 21:11:28.707553 18575 net.cpp:148] Top shape: 10 832 7 7 (407680)
I0714 21:11:28.707559 18575 net.cpp:148] Top shape: 10 832 7 7 (407680)
I0714 21:11:28.707566 18575 net.cpp:148] Top shape: 10 832 7 7 (407680)
I0714 21:11:28.707569 18575 net.cpp:156] Memory required for data: 542778880
I0714 21:11:28.707574 18575 layer_factory.hpp:77] Creating layer inception_5b/1x1
I0714 21:11:28.707598 18575 net.cpp:91] Creating Layer inception_5b/1x1
I0714 21:11:28.707605 18575 net.cpp:425] inception_5b/1x1 <- inception_5a/output_inception_5a/output_0_split_0
I0714 21:11:28.707615 18575 net.cpp:399] inception_5b/1x1 -> inception_5b/1x1
I0714 21:11:28.715032 18571 net.cpp:141] Setting up inception_5b/3x3_reduce
I0714 21:11:28.715056 18571 net.cpp:148] Top shape: 10 192 7 7 (94080)
I0714 21:11:28.715062 18571 net.cpp:156] Memory required for data: 544660480
I0714 21:11:28.715072 18571 layer_factory.hpp:77] Creating layer inception_5b/relu_3x3_reduce
I0714 21:11:28.715083 18571 net.cpp:91] Creating Layer inception_5b/relu_3x3_reduce
I0714 21:11:28.715090 18571 net.cpp:425] inception_5b/relu_3x3_reduce <- inception_5b/3x3_reduce
I0714 21:11:28.715109 18571 net.cpp:386] inception_5b/relu_3x3_reduce -> inception_5b/3x3_reduce (in-place)
I0714 21:11:28.715570 18571 net.cpp:141] Setting up inception_5b/relu_3x3_reduce
I0714 21:11:28.715586 18571 net.cpp:148] Top shape: 10 192 7 7 (94080)
I0714 21:11:28.715592 18571 net.cpp:156] Memory required for data: 545036800
I0714 21:11:28.715597 18571 layer_factory.hpp:77] Creating layer inception_5b/3x3
I0714 21:11:28.715618 18571 net.cpp:91] Creating Layer inception_5b/3x3
I0714 21:11:28.715626 18571 net.cpp:425] inception_5b/3x3 <- inception_5b/3x3_reduce
I0714 21:11:28.715636 18571 net.cpp:399] inception_5b/3x3 -> inception_5b/3x3
I0714 21:11:28.721143 18575 net.cpp:141] Setting up inception_5b/1x1
I0714 21:11:28.721165 18575 net.cpp:148] Top shape: 10 384 7 7 (188160)
I0714 21:11:28.721171 18575 net.cpp:156] Memory required for data: 543531520
I0714 21:11:28.721181 18575 layer_factory.hpp:77] Creating layer inception_5b/relu_1x1
I0714 21:11:28.721191 18575 net.cpp:91] Creating Layer inception_5b/relu_1x1
I0714 21:11:28.721199 18575 net.cpp:425] inception_5b/relu_1x1 <- inception_5b/1x1
I0714 21:11:28.721210 18575 net.cpp:386] inception_5b/relu_1x1 -> inception_5b/1x1 (in-place)
I0714 21:11:28.721524 18575 net.cpp:141] Setting up inception_5b/relu_1x1
I0714 21:11:28.721537 18575 net.cpp:148] Top shape: 10 384 7 7 (188160)
I0714 21:11:28.721542 18575 net.cpp:156] Memory required for data: 544284160
I0714 21:11:28.721547 18575 layer_factory.hpp:77] Creating layer inception_5b/3x3_reduce
I0714 21:11:28.721563 18575 net.cpp:91] Creating Layer inception_5b/3x3_reduce
I0714 21:11:28.721570 18575 net.cpp:425] inception_5b/3x3_reduce <- inception_5a/output_inception_5a/output_0_split_1
I0714 21:11:28.721583 18575 net.cpp:399] inception_5b/3x3_reduce -> inception_5b/3x3_reduce
I0714 21:11:28.729151 18575 net.cpp:141] Setting up inception_5b/3x3_reduce
I0714 21:11:28.729171 18575 net.cpp:148] Top shape: 10 192 7 7 (94080)
I0714 21:11:28.729177 18575 net.cpp:156] Memory required for data: 544660480
I0714 21:11:28.729187 18575 layer_factory.hpp:77] Creating layer inception_5b/relu_3x3_reduce
I0714 21:11:28.729199 18575 net.cpp:91] Creating Layer inception_5b/relu_3x3_reduce
I0714 21:11:28.729207 18575 net.cpp:425] inception_5b/relu_3x3_reduce <- inception_5b/3x3_reduce
I0714 21:11:28.729215 18575 net.cpp:386] inception_5b/relu_3x3_reduce -> inception_5b/3x3_reduce (in-place)
I0714 21:11:28.729738 18575 net.cpp:141] Setting up inception_5b/relu_3x3_reduce
I0714 21:11:28.729754 18575 net.cpp:148] Top shape: 10 192 7 7 (94080)
I0714 21:11:28.729760 18575 net.cpp:156] Memory required for data: 545036800
I0714 21:11:28.729766 18575 layer_factory.hpp:77] Creating layer inception_5b/3x3
I0714 21:11:28.729786 18575 net.cpp:91] Creating Layer inception_5b/3x3
I0714 21:11:28.729794 18575 net.cpp:425] inception_5b/3x3 <- inception_5b/3x3_reduce
I0714 21:11:28.729804 18575 net.cpp:399] inception_5b/3x3 -> inception_5b/3x3
I0714 21:11:28.729897 18571 net.cpp:141] Setting up inception_5b/3x3
I0714 21:11:28.729920 18571 net.cpp:148] Top shape: 10 384 7 7 (188160)
I0714 21:11:28.729926 18571 net.cpp:156] Memory required for data: 545789440
I0714 21:11:28.729938 18571 layer_factory.hpp:77] Creating layer inception_5b/relu_3x3
I0714 21:11:28.729948 18571 net.cpp:91] Creating Layer inception_5b/relu_3x3
I0714 21:11:28.729954 18571 net.cpp:425] inception_5b/relu_3x3 <- inception_5b/3x3
I0714 21:11:28.729964 18571 net.cpp:386] inception_5b/relu_3x3 -> inception_5b/3x3 (in-place)
I0714 21:11:28.731091 18571 net.cpp:141] Setting up inception_5b/relu_3x3
I0714 21:11:28.731115 18571 net.cpp:148] Top shape: 10 384 7 7 (188160)
I0714 21:11:28.731122 18571 net.cpp:156] Memory required for data: 546542080
I0714 21:11:28.731127 18571 layer_factory.hpp:77] Creating layer inception_5b/5x5_reduce
I0714 21:11:28.731148 18571 net.cpp:91] Creating Layer inception_5b/5x5_reduce
I0714 21:11:28.731155 18571 net.cpp:425] inception_5b/5x5_reduce <- inception_5a/output_inception_5a/output_0_split_2
I0714 21:11:28.731168 18571 net.cpp:399] inception_5b/5x5_reduce -> inception_5b/5x5_reduce
I0714 21:11:28.737788 18571 net.cpp:141] Setting up inception_5b/5x5_reduce
I0714 21:11:28.737818 18571 net.cpp:148] Top shape: 10 48 7 7 (23520)
I0714 21:11:28.737825 18571 net.cpp:156] Memory required for data: 546636160
I0714 21:11:28.737836 18571 layer_factory.hpp:77] Creating layer inception_5b/relu_5x5_reduce
I0714 21:11:28.737848 18571 net.cpp:91] Creating Layer inception_5b/relu_5x5_reduce
I0714 21:11:28.737854 18571 net.cpp:425] inception_5b/relu_5x5_reduce <- inception_5b/5x5_reduce
I0714 21:11:28.737864 18571 net.cpp:386] inception_5b/relu_5x5_reduce -> inception_5b/5x5_reduce (in-place)
I0714 21:11:28.738169 18571 net.cpp:141] Setting up inception_5b/relu_5x5_reduce
I0714 21:11:28.738183 18571 net.cpp:148] Top shape: 10 48 7 7 (23520)
I0714 21:11:28.738188 18571 net.cpp:156] Memory required for data: 546730240
I0714 21:11:28.738193 18571 layer_factory.hpp:77] Creating layer inception_5b/5x5
I0714 21:11:28.738214 18571 net.cpp:91] Creating Layer inception_5b/5x5
I0714 21:11:28.738220 18571 net.cpp:425] inception_5b/5x5 <- inception_5b/5x5_reduce
I0714 21:11:28.738229 18571 net.cpp:399] inception_5b/5x5 -> inception_5b/5x5
I0714 21:11:28.744498 18575 net.cpp:141] Setting up inception_5b/3x3
I0714 21:11:28.744523 18575 net.cpp:148] Top shape: 10 384 7 7 (188160)
I0714 21:11:28.744529 18575 net.cpp:156] Memory required for data: 545789440
I0714 21:11:28.744539 18575 layer_factory.hpp:77] Creating layer inception_5b/relu_3x3
I0714 21:11:28.744550 18575 net.cpp:91] Creating Layer inception_5b/relu_3x3
I0714 21:11:28.744556 18575 net.cpp:425] inception_5b/relu_3x3 <- inception_5b/3x3
I0714 21:11:28.744570 18575 net.cpp:386] inception_5b/relu_3x3 -> inception_5b/3x3 (in-place)
I0714 21:11:28.745645 18575 net.cpp:141] Setting up inception_5b/relu_3x3
I0714 21:11:28.745662 18575 net.cpp:148] Top shape: 10 384 7 7 (188160)
I0714 21:11:28.745668 18575 net.cpp:156] Memory required for data: 546542080
I0714 21:11:28.745674 18575 layer_factory.hpp:77] Creating layer inception_5b/5x5_reduce
I0714 21:11:28.745692 18575 net.cpp:91] Creating Layer inception_5b/5x5_reduce
I0714 21:11:28.745700 18575 net.cpp:425] inception_5b/5x5_reduce <- inception_5a/output_inception_5a/output_0_split_2
I0714 21:11:28.745713 18575 net.cpp:399] inception_5b/5x5_reduce -> inception_5b/5x5_reduce
I0714 21:11:28.745848 18571 net.cpp:141] Setting up inception_5b/5x5
I0714 21:11:28.745869 18571 net.cpp:148] Top shape: 10 128 7 7 (62720)
I0714 21:11:28.745875 18571 net.cpp:156] Memory required for data: 546981120
I0714 21:11:28.745885 18571 layer_factory.hpp:77] Creating layer inception_5b/relu_5x5
I0714 21:11:28.745898 18571 net.cpp:91] Creating Layer inception_5b/relu_5x5
I0714 21:11:28.745906 18571 net.cpp:425] inception_5b/relu_5x5 <- inception_5b/5x5
I0714 21:11:28.745914 18571 net.cpp:386] inception_5b/relu_5x5 -> inception_5b/5x5 (in-place)
I0714 21:11:28.746461 18571 net.cpp:141] Setting up inception_5b/relu_5x5
I0714 21:11:28.746479 18571 net.cpp:148] Top shape: 10 128 7 7 (62720)
I0714 21:11:28.746485 18571 net.cpp:156] Memory required for data: 547232000
I0714 21:11:28.746490 18571 layer_factory.hpp:77] Creating layer inception_5b/pool
I0714 21:11:28.746502 18571 net.cpp:91] Creating Layer inception_5b/pool
I0714 21:11:28.746510 18571 net.cpp:425] inception_5b/pool <- inception_5a/output_inception_5a/output_0_split_3
I0714 21:11:28.746523 18571 net.cpp:399] inception_5b/pool -> inception_5b/pool
I0714 21:11:28.746847 18571 net.cpp:141] Setting up inception_5b/pool
I0714 21:11:28.746861 18571 net.cpp:148] Top shape: 10 832 7 7 (407680)
I0714 21:11:28.746866 18571 net.cpp:156] Memory required for data: 548862720
I0714 21:11:28.746871 18571 layer_factory.hpp:77] Creating layer inception_5b/pool_proj
I0714 21:11:28.746889 18571 net.cpp:91] Creating Layer inception_5b/pool_proj
I0714 21:11:28.746896 18571 net.cpp:425] inception_5b/pool_proj <- inception_5b/pool
I0714 21:11:28.746909 18571 net.cpp:399] inception_5b/pool_proj -> inception_5b/pool_proj
I0714 21:11:28.753742 18575 net.cpp:141] Setting up inception_5b/5x5_reduce
I0714 21:11:28.753767 18575 net.cpp:148] Top shape: 10 48 7 7 (23520)
I0714 21:11:28.753773 18575 net.cpp:156] Memory required for data: 546636160
I0714 21:11:28.753784 18575 layer_factory.hpp:77] Creating layer inception_5b/relu_5x5_reduce
I0714 21:11:28.753795 18575 net.cpp:91] Creating Layer inception_5b/relu_5x5_reduce
I0714 21:11:28.753803 18575 net.cpp:425] inception_5b/relu_5x5_reduce <- inception_5b/5x5_reduce
I0714 21:11:28.753810 18575 net.cpp:386] inception_5b/relu_5x5_reduce -> inception_5b/5x5_reduce (in-place)
I0714 21:11:28.754294 18575 net.cpp:141] Setting up inception_5b/relu_5x5_reduce
I0714 21:11:28.754312 18575 net.cpp:148] Top shape: 10 48 7 7 (23520)
I0714 21:11:28.754317 18575 net.cpp:156] Memory required for data: 546730240
I0714 21:11:28.754323 18575 layer_factory.hpp:77] Creating layer inception_5b/5x5
I0714 21:11:28.754340 18575 net.cpp:91] Creating Layer inception_5b/5x5
I0714 21:11:28.754348 18575 net.cpp:425] inception_5b/5x5 <- inception_5b/5x5_reduce
I0714 21:11:28.754361 18575 net.cpp:399] inception_5b/5x5 -> inception_5b/5x5
I0714 21:11:28.755271 18571 net.cpp:141] Setting up inception_5b/pool_proj
I0714 21:11:28.755300 18571 net.cpp:148] Top shape: 10 128 7 7 (62720)
I0714 21:11:28.755307 18571 net.cpp:156] Memory required for data: 549113600
I0714 21:11:28.755318 18571 layer_factory.hpp:77] Creating layer inception_5b/relu_pool_proj
I0714 21:11:28.755329 18571 net.cpp:91] Creating Layer inception_5b/relu_pool_proj
I0714 21:11:28.755336 18571 net.cpp:425] inception_5b/relu_pool_proj <- inception_5b/pool_proj
I0714 21:11:28.755347 18571 net.cpp:386] inception_5b/relu_pool_proj -> inception_5b/pool_proj (in-place)
I0714 21:11:28.756398 18571 net.cpp:141] Setting up inception_5b/relu_pool_proj
I0714 21:11:28.756417 18571 net.cpp:148] Top shape: 10 128 7 7 (62720)
I0714 21:11:28.756422 18571 net.cpp:156] Memory required for data: 549364480
I0714 21:11:28.756428 18571 layer_factory.hpp:77] Creating layer inception_5b/output
I0714 21:11:28.756441 18571 net.cpp:91] Creating Layer inception_5b/output
I0714 21:11:28.756448 18571 net.cpp:425] inception_5b/output <- inception_5b/1x1
I0714 21:11:28.756455 18571 net.cpp:425] inception_5b/output <- inception_5b/3x3
I0714 21:11:28.756463 18571 net.cpp:425] inception_5b/output <- inception_5b/5x5
I0714 21:11:28.756469 18571 net.cpp:425] inception_5b/output <- inception_5b/pool_proj
I0714 21:11:28.756475 18571 net.cpp:399] inception_5b/output -> inception_5b/output
I0714 21:11:28.756584 18571 net.cpp:141] Setting up inception_5b/output
I0714 21:11:28.756597 18571 net.cpp:148] Top shape: 10 1024 7 7 (501760)
I0714 21:11:28.756602 18571 net.cpp:156] Memory required for data: 551371520
I0714 21:11:28.756606 18571 layer_factory.hpp:77] Creating layer pool5/7x7_s1
I0714 21:11:28.756619 18571 net.cpp:91] Creating Layer pool5/7x7_s1
I0714 21:11:28.756625 18571 net.cpp:425] pool5/7x7_s1 <- inception_5b/output
I0714 21:11:28.756633 18571 net.cpp:399] pool5/7x7_s1 -> pool5/7x7_s1
I0714 21:11:28.757060 18571 net.cpp:141] Setting up pool5/7x7_s1
I0714 21:11:28.757073 18571 net.cpp:148] Top shape: 10 1024 1 1 (10240)
I0714 21:11:28.757078 18571 net.cpp:156] Memory required for data: 551412480
I0714 21:11:28.757083 18571 layer_factory.hpp:77] Creating layer pool5/drop_7x7_s1
I0714 21:11:28.757105 18571 net.cpp:91] Creating Layer pool5/drop_7x7_s1
I0714 21:11:28.757112 18571 net.cpp:425] pool5/drop_7x7_s1 <- pool5/7x7_s1
I0714 21:11:28.757122 18571 net.cpp:386] pool5/drop_7x7_s1 -> pool5/7x7_s1 (in-place)
I0714 21:11:28.757216 18571 net.cpp:141] Setting up pool5/drop_7x7_s1
I0714 21:11:28.757227 18571 net.cpp:148] Top shape: 10 1024 1 1 (10240)
I0714 21:11:28.757232 18571 net.cpp:156] Memory required for data: 551453440
I0714 21:11:28.757237 18571 layer_factory.hpp:77] Creating layer loss3/classifier
I0714 21:11:28.757258 18571 net.cpp:91] Creating Layer loss3/classifier
I0714 21:11:28.757264 18571 net.cpp:425] loss3/classifier <- pool5/7x7_s1
I0714 21:11:28.757277 18571 net.cpp:399] loss3/classifier -> loss3/classifier
I0714 21:11:28.764281 18575 net.cpp:141] Setting up inception_5b/5x5
I0714 21:11:28.764305 18575 net.cpp:148] Top shape: 10 128 7 7 (62720)
I0714 21:11:28.764312 18575 net.cpp:156] Memory required for data: 546981120
I0714 21:11:28.764322 18575 layer_factory.hpp:77] Creating layer inception_5b/relu_5x5
I0714 21:11:28.764333 18575 net.cpp:91] Creating Layer inception_5b/relu_5x5
I0714 21:11:28.764339 18575 net.cpp:425] inception_5b/relu_5x5 <- inception_5b/5x5
I0714 21:11:28.764350 18575 net.cpp:386] inception_5b/relu_5x5 -> inception_5b/5x5 (in-place)
I0714 21:11:28.764658 18575 net.cpp:141] Setting up inception_5b/relu_5x5
I0714 21:11:28.764672 18575 net.cpp:148] Top shape: 10 128 7 7 (62720)
I0714 21:11:28.764677 18575 net.cpp:156] Memory required for data: 547232000
I0714 21:11:28.764683 18575 layer_factory.hpp:77] Creating layer inception_5b/pool
I0714 21:11:28.764696 18575 net.cpp:91] Creating Layer inception_5b/pool
I0714 21:11:28.764703 18575 net.cpp:425] inception_5b/pool <- inception_5a/output_inception_5a/output_0_split_3
I0714 21:11:28.764713 18575 net.cpp:399] inception_5b/pool -> inception_5b/pool
I0714 21:11:28.764874 18575 net.cpp:141] Setting up inception_5b/pool
I0714 21:11:28.764886 18575 net.cpp:148] Top shape: 10 832 7 7 (407680)
I0714 21:11:28.764891 18575 net.cpp:156] Memory required for data: 548862720
I0714 21:11:28.764896 18575 layer_factory.hpp:77] Creating layer inception_5b/pool_proj
I0714 21:11:28.764914 18575 net.cpp:91] Creating Layer inception_5b/pool_proj
I0714 21:11:28.764919 18575 net.cpp:425] inception_5b/pool_proj <- inception_5b/pool
I0714 21:11:28.764932 18575 net.cpp:399] inception_5b/pool_proj -> inception_5b/pool_proj
I0714 21:11:28.770681 18571 net.cpp:141] Setting up loss3/classifier
I0714 21:11:28.770725 18571 net.cpp:148] Top shape: 10 1000 (10000)
I0714 21:11:28.770731 18571 net.cpp:156] Memory required for data: 551493440
I0714 21:11:28.770745 18571 layer_factory.hpp:77] Creating layer prob
I0714 21:11:28.770757 18571 net.cpp:91] Creating Layer prob
I0714 21:11:28.770764 18571 net.cpp:425] prob <- loss3/classifier
I0714 21:11:28.770774 18571 net.cpp:399] prob -> prob
I0714 21:11:28.772548 18575 net.cpp:141] Setting up inception_5b/pool_proj
I0714 21:11:28.772570 18575 net.cpp:148] Top shape: 10 128 7 7 (62720)
I0714 21:11:28.772577 18575 net.cpp:156] Memory required for data: 549113600
I0714 21:11:28.772588 18575 layer_factory.hpp:77] Creating layer inception_5b/relu_pool_proj
I0714 21:11:28.772600 18575 net.cpp:91] Creating Layer inception_5b/relu_pool_proj
I0714 21:11:28.772608 18575 net.cpp:425] inception_5b/relu_pool_proj <- inception_5b/pool_proj
I0714 21:11:28.772615 18575 net.cpp:386] inception_5b/relu_pool_proj -> inception_5b/pool_proj (in-place)
I0714 21:11:28.773494 18571 net.cpp:141] Setting up prob
I0714 21:11:28.773515 18571 net.cpp:148] Top shape: 10 1000 (10000)
I0714 21:11:28.773521 18571 net.cpp:156] Memory required for data: 551533440
I0714 21:11:28.773527 18571 net.cpp:219] prob does not need backward computation.
I0714 21:11:28.773533 18571 net.cpp:219] loss3/classifier does not need backward computation.
I0714 21:11:28.773540 18571 net.cpp:219] pool5/drop_7x7_s1 does not need backward computation.
I0714 21:11:28.773543 18571 net.cpp:219] pool5/7x7_s1 does not need backward computation.
…
