…
Java HotSpot(TM) 64-Bit Server VM warning: You have loaded library /tmp/cvld5746050059409084636/libopencv_java310.xine1.so which might have disabled stack guard. The VM will try to fix the stack guard now.
It's highly recommended that you fix the library with 'execstack -c <libfile>', or link it with '-z noexecstack'.
WARNING: Logging before InitGoogleLogging() is written to STDERR
I0729 16:41:23.566494 15177 net.cpp:49] Initializing net from parameters: 
name: "GoogleNet"
state {
  phase: TEST
}
layer {
  name: "data"
  type: "Input"
  top: "data"
  input_param {
    shape {
      dim: 10
      dim: 3
      dim: 224
      dim: 224
    }
  }
}
layer {
  name: "conv1/7x7_s2"
  type: "Convolution"
  bottom: "data"
  top: "conv1/7x7_s2"
  param {
    lr_mult: 1
    decay_mult: 1
  }
  param {
    lr_mult: 2
    decay_mult: 0
  }
  convolution_param {
    num_output: 64
    pad: 3
    kernel_size: 7
    stride: 2
    weight_filler {
      type: "xavier"
      std: 0.1
    }
    bias_filler {
      type: "constant"
      value: 0.2
    }
  }
}
layer {
  name: "conv1/relu_7x7"
  type: "ReLU"
  bottom: "conv1/7x7_s2"
  top: "conv1/7x7_s2"
}
layer {
  name: "pool1/3x3_s2"
  type: "Pooling"
  bottom: "conv1/7x7_s2"
  top: "pool1/3x3_s2"
  pooling_param {
    pool: MAX
    kernel_size: 3
    stride: 2
  }
}
layer {
  name: "pool1/norm1"
  type: "LRN"
  bottom: "pool1/3x3_s2"
  top: "pool1/norm1"
  lrn_param {
    local_size: 5
    alpha: 0.0001
    beta: 0.75
  }
}
layer {
  name: "conv2/3x3_reduce"
  type: "Convolution"
  bottom: "pool1/norm1"
  top: "conv2/3x3_reduce"
  param {
    lr_mult: 1
    decay_mult: 1
  }
  param {
    lr_mult: 2
    decay_mult: 0
  }
  convolution_param {
    num_output: 64
    kernel_size: 1
    weight_filler {
      type: "xavier"
      std: 0.1
    }
    bias_filler {
      type: "constant"
      value: 0.2
    }
  }
}
layer {
  name: "conv2/relu_3x3_reduce"
  type: "ReLU"
  bottom: "conv2/3x3_reduce"
  top: "conv2/3x3_reduce"
}
layer {
  name: "conv2/3x3"
  type: "Convolution"
  bottom: "conv2/3x3_reduce"
  top: "conv2/3x3"
  param {
    lr_mult: 1
    decay_mult: 1
  }
  param {
    lr_mult: 2
    decay_mult: 0
  }
  convolution_param {
    num_output: 192
    pad: 1
    kernel_size: 3
    weight_filler {
      type: "xavier"
      std: 0.03
    }
    bias_filler {
      type: "constant"
      value: 0.2
    }
  }
}
layer {
  name: "conv2/relu_3x3"
  type: "ReLU"
  bottom: "conv2/3x3"
  top: "conv2/3x3"
}
layer {
  name: "conv2/norm2"
  type: "LRN"
  bottom: "conv2/3x3"
  top: "conv2/norm2"
  lrn_param {
    local_size: 5
    alpha: 0.0001
    beta: 0.75
  }
}
layer {
  name: "pool2/3x3_s2"
  type: "Pooling"
  bottom: "conv2/norm2"
  top: "pool2/3x3_s2"
  pooling_param {
    pool: MAX
    kernel_size: 3
    stride: 2
  }
}
layer {
  name: "inception_3a/1x1"
  type: "Convolution"
  bottom: "pool2/3x3_s2"
  top: "inception_3a/1x1"
  param {
    lr_mult: 1
    decay_mult: 1
  }
  param {
    lr_mult: 2
    decay_mult: 0
  }
  convolution_param {
    num_output: 64
    kernel_size: 1
    weight_filler {
      type: "xavier"
      std: 0.03
    }
    bias_filler {
      type: "constant"
      value: 0.2
    }
  }
}
layer {
  name: "inception_3a/relu_1x1"
  type: "ReLU"
  bottom: "inception_3a/1x1"
  top: "inception_3a/1x1"
}
layer {
  name: "inception_3a/3x3_reduce"
  type: "Convolution"
  bottom: "pool2/3x3_s2"
  top: "inception_3a/3x3_reduce"
  param {
    lr_mult: 1
    decay_mult: 1
  }
  param {
    lr_mult: 2
    decay_mult: 0
  }
  convolution_param {
    num_output: 96
    kernel_size: 1
    weight_filler {
      type: "xavier"
      std: 0.09
    }
    bias_filler {
      type: "constant"
      value: 0.2
    }
  }
}
layer {
  name: "inception_3a/relu_3x3_reduce"
  type: "ReLU"
  bottom: "inception_3a/3x3_reduce"
  top: "inception_3a/3x3_reduce"
}
layer {
  name: "inception_3a/3x3"
  type: "Convolution"
  bottom: "inception_3a/3x3_reduce"
  top: "inception_3a/3x3"
  param {
    lr_mult: 1
    decay_mult: 1
  }
  param {
    lr_mult: 2
    decay_mult: 0
  }
  convolution_param {
    num_output: 128
    pad: 1
    kernel_size: 3
    weight_filler {
      type: "xavier"
      std: 0.03
    }
    bias_filler {
      type: "constant"
      value: 0.2
    }
  }
}
layer {
  name: "inception_3a/relu_3x3"
  type: "ReLU"
  bottom: "inception_3a/3x3"
  top: "inception_3a/3x3"
}
layer {
  name: "inception_3a/5x5_reduce"
  type: "Convolution"
  bottom: "pool2/3x3_s2"
  top: "inception_3a/5x5_reduce"
  param {
    lr_mult: 1
    decay_mult: 1
  }
  param {
    lr_mult: 2
    decay_mult: 0
  }
  convolution_param {
    num_output: 16
    kernel_size: 1
    weight_filler {
      type: "xavier"
      std: 0.2
    }
    bias_filler {
      type: "constant"
      value: 0.2
    }
  }
}
layer {
  name: "inception_3a/relu_5x5_reduce"
  type: "ReLU"
  bottom: "inception_3a/5x5_reduce"
  top: "inception_3a/5x5_reduce"
}
layer {
  name: "inception_3a/5x5"
  type: "Convolution"
  bottom: "inception_3a/5x5_reduce"
  top: "inception_3a/5x5"
  param {
    lr_mult: 1
    decay_mult: 1
  }
  param {
    lr_mult: 2
    decay_mult: 0
  }
  convolution_param {
    num_output: 32
    pad: 2
    kernel_size: 5
    weight_filler {
      type: "xavier"
      std: 0.03
    }
    bias_filler {
      type: "constant"
      value: 0.2
    }
  }
}
layer {
  name: "inception_3a/relu_5x5"
  type: "ReLU"
  bottom: "inception_3a/5x5"
  top: "inception_3a/5x5"
}
layer {
  name: "inception_3a/pool"
  type: "Pooling"
  bottom: "pool2/3x3_s2"
  top: "inception_3a/pool"
  pooling_param {
    pool: MAX
    kernel_size: 3
    stride: 1
    pad: 1
  }
}
layer {
  name: "inception_3a/pool_proj"
  type: "Convolution"
  bottom: "inception_3a/pool"
  top: "inception_3a/pool_proj"
  param {
    lr_mult: 1
    decay_mult: 1
  }
  param {
    lr_mult: 2
    decay_mult: 0
  }
  convolution_param {
    num_output: 32
    kernel_size: 1
    weight_filler {
      type: "xavier"
      std: 0.1
    }
    bias_filler {
      type: "constant"
      value: 0.2
    }
  }
}
layer {
  name: "inception_3a/relu_pool_proj"
  type: "ReLU"
  bottom: "inception_3a/pool_proj"
  top: "inception_3a/pool_proj"
}
layer {
  name: "inception_3a/output"
  type: "Concat"
  bottom: "inception_3a/1x1"
  bottom: "inception_3a/3x3"
  bottom: "inception_3a/5x5"
  bottom: "inception_3a/pool_proj"
  top: "inception_3a/output"
}
layer {
  name: "inception_3b/1x1"
  type: "Convolution"
  bottom: "inception_3a/output"
  top: "inception_3b/1x1"
  param {
    lr_mult: 1
    decay_mult: 1
  }
  param {
    lr_mult: 2
    decay_mult: 0
  }
  convolution_param {
    num_output: 128
    kernel_size: 1
    weight_filler {
      type: "xavier"
      std: 0.03
    }
    bias_filler {
      type: "constant"
      value: 0.2
    }
  }
}
layer {
  name: "inception_3b/relu_1x1"
  type: "ReLU"
  bottom: "inception_3b/1x1"
  top: "inception_3b/1x1"
}
layer {
  name: "inception_3b/3x3_reduce"
  type: "Convolution"
  bottom: "inception_3a/output"
  top: "inception_3b/3x3_reduce"
  param {
    lr_mult: 1
    decay_mult: 1
  }
  param {
    lr_mult: 2
    decay_mult: 0
  }
  convolution_param {
    num_output: 128
    kernel_size: 1
    weight_filler {
      type: "xavier"
      std: 0.09
    }
    bias_filler {
      type: "constant"
      value: 0.2
    }
  }
}
layer {
  name: "inception_3b/relu_3x3_reduce"
  type: "ReLU"
  bottom: "inception_3b/3x3_reduce"
  top: "inception_3b/3x3_reduce"
}
layer {
  name: "inception_3b/3x3"
  type: "Convolution"
  bottom: "inception_3b/3x3_reduce"
  top: "inception_3b/3x3"
  param {
    lr_mult: 1
    decay_mult: 1
  }
  param {
    lr_mult: 2
    decay_mult: 0
  }
  convolution_param {
    num_output: 192
    pad: 1
    kernel_size: 3
    weight_filler {
      type: "xavier"
      std: 0.03
    }
    bias_filler {
      type: "constant"
      value: 0.2
    }
  }
}
layer {
  name: "inception_3b/relu_3x3"
  type: "ReLU"
  bottom: "inception_3b/3x3"
  top: "inception_3b/3x3"
}
layer {
  name: "inception_3b/5x5_reduce"
  type: "Convolution"
  bottom: "inception_3a/output"
  top: "inception_3b/5x5_reduce"
  param {
    lr_mult: 1
    decay_mult: 1
  }
  param {
    lr_mult: 2
    decay_mult: 0
  }
  convolution_param {
    num_output: 32
    kernel_size: 1
    weight_filler {
      type: "xavier"
      std: 0.2
    }
    bias_filler {
      type: "constant"
      value: 0.2
    }
  }
}
layer {
  name: "inception_3b/relu_5x5_reduce"
  type: "ReLU"
  bottom: "inception_3b/5x5_reduce"
  top: "inception_3b/5x5_reduce"
}
layer {
  name: "inception_3b/5x5"
  type: "Convolution"
  bottom: "inception_3b/5x5_reduce"
  top: "inception_3b/5x5"
  param {
    lr_mult: 1
    decay_mult: 1
  }
  param {
    lr_mult: 2
    decay_mult: 0
  }
  convolution_param {
    num_output: 96
    pad: 2
    kernel_size: 5
    weight_filler {
      type: "xavier"
      std: 0.03
    }
    bias_filler {
      type: "constant"
      value: 0.2
    }
  }
}
layer {
  name: "inception_3b/relu_5x5"
  type: "ReLU"
  bottom: "inception_3b/5x5"
  top: "inception_3b/5x5"
}
layer {
  name: "inception_3b/pool"
  type: "Pooling"
  bottom: "inception_3a/output"
  top: "inception_3b/pool"
  pooling_param {
    pool: MAX
    kernel_size: 3
    stride: 1
    pad: 1
  }
}
layer {
  name: "inception_3b/pool_proj"
  type: "Convolution"
  bottom: "inception_3b/pool"
  top: "inception_3b/pool_proj"
  param {
    lr_mult: 1
    decay_mult: 1
  }
  param {
    lr_mult: 2
    decay_mult: 0
  }
  convolution_param {
    num_output: 64
    kernel_size: 1
    weight_filler {
      type: "xavier"
      std: 0.1
    }
    bias_filler {
      type: "constant"
      value: 0.2
    }
  }
}
layer {
  name: "inception_3b/relu_pool_proj"
  type: "ReLU"
  bottom: "inception_3b/pool_proj"
  top: "inception_3b/pool_proj"
}
layer {
  name: "inception_3b/output"
  type: "Concat"
  bottom: "inception_3b/1x1"
  bottom: "inception_3b/3x3"
  bottom: "inception_3b/5x5"
  bottom: "inception_3b/pool_proj"
  top: "inception_3b/output"
}
layer {
  name: "pool3/3x3_s2"
  type: "Pooling"
  bottom: "inception_3b/output"
  top: "pool3/3x3_s2"
  pooling_param {
    pool: MAX
    kernel_size: 3
    stride: 2
  }
}
layer {
  name: "inception_4a/1x1"
  type: "Convolution"
  bottom: "pool3/3x3_s2"
  top: "inception_4a/1x1"
  param {
    lr_mult: 1
    decay_mult: 1
  }
  param {
    lr_mult: 2
    decay_mult: 0
  }
  convolution_param {
    num_output: 192
    kernel_size: 1
    weight_filler {
      type: "xavier"
      std: 0.03
    }
    bias_filler {
      type: "constant"
      value: 0.2
    }
  }
}
layer {
  name: "inception_4a/relu_1x1"
  type: "ReLU"
  bottom: "inception_4a/1x1"
  top: "inception_4a/1x1"
}
layer {
  name: "inception_4a/3x3_reduce"
  type: "Convolution"
  bottom: "pool3/3x3_s2"
  top: "inception_4a/3x3_reduce"
  param {
    lr_mult: 1
    decay_mult: 1
  }
  param {
    lr_mult: 2
    decay_mult: 0
  }
  convolution_param {
    num_output: 96
    kernel_size: 1
    weight_filler {
      type: "xavier"
      std: 0.09
    }
    bias_filler {
      type: "constant"
      value: 0.2
    }
  }
}
layer {
  name: "inception_4a/relu_3x3_reduce"
  type: "ReLU"
  bottom: "inception_4a/3x3_reduce"
  top: "inception_4a/3x3_reduce"
}
layer {
  name: "inception_4a/3x3"
  type: "Convolution"
  bottom: "inception_4a/3x3_reduce"
  top: "inception_4a/3x3"
  param {
    lr_mult: 1
    decay_mult: 1
  }
  param {
    lr_mult: 2
    decay_mult: 0
  }
  convolution_param {
    num_output: 208
    pad: 1
    kernel_size: 3
    weight_filler {
      type: "xavier"
      std: 0.03
    }
    bias_filler {
      type: "constant"
      value: 0.2
    }
  }
}
layer {
  name: "inception_4a/relu_3x3"
  type: "ReLU"
  bottom: "inception_4a/3x3"
  top: "inception_4a/3x3"
}
layer {
  name: "inception_4a/5x5_reduce"
  type: "Convolution"
  bottom: "pool3/3x3_s2"
  top: "inception_4a/5x5_reduce"
  param {
    lr_mult: 1
    decay_mult: 1
  }
  param {
    lr_mult: 2
    decay_mult: 0
  }
  convolution_param {
    num_output: 16
    kernel_size: 1
    weight_filler {
      type: "xavier"
      std: 0.2
    }
    bias_filler {
      type: "constant"
      value: 0.2
    }
  }
}
layer {
  name: "inception_4a/relu_5x5_reduce"
  type: "ReLU"
  bottom: "inception_4a/5x5_reduce"
  top: "inception_4a/5x5_reduce"
}
layer {
  name: "inception_4a/5x5"
  type: "Convolution"
  bottom: "inception_4a/5x5_reduce"
  top: "inception_4a/5x5"
  param {
    lr_mult: 1
    decay_mult: 1
  }
  param {
    lr_mult: 2
    decay_mult: 0
  }
  convolution_param {
    num_output: 48
    pad: 2
    kernel_size: 5
    weight_filler {
      type: "xavier"
      std: 0.03
    }
    bias_filler {
      type: "constant"
      value: 0.2
    }
  }
}
layer {
  name: "inception_4a/relu_5x5"
  type: "ReLU"
  bottom: "inception_4a/5x5"
  top: "inception_4a/5x5"
}
layer {
  name: "inception_4a/pool"
  type: "Pooling"
  bottom: "pool3/3x3_s2"
  top: "inception_4a/pool"
  pooling_param {
    pool: MAX
    kernel_size: 3
    stride: 1
    pad: 1
  }
}
layer {
  name: "inception_4a/pool_proj"
  type: "Convolution"
  bottom: "inception_4a/pool"
  top: "inception_4a/pool_proj"
  param {
    lr_mult: 1
    decay_mult: 1
  }
  param {
    lr_mult: 2
    decay_mult: 0
  }
  convolution_param {
    num_output: 64
    kernel_size: 1
    weight_filler {
      type: "xavier"
      std: 0.1
    }
    bias_filler {
      type: "constant"
      value: 0.2
    }
  }
}
layer {
  name: "inception_4a/relu_pool_proj"
  type: "ReLU"
  bottom: "inception_4a/pool_proj"
  top: "inception_4a/pool_proj"
}
layer {
  name: "inception_4a/output"
  type: "Concat"
  bottom: "inception_4a/1x1"
  bottom: "inception_4a/3x3"
  bottom: "inception_4a/5x5"
  bottom: "inception_4a/pool_proj"
  top: "inception_4a/output"
}
layer {
  name: "inception_4b/1x1"
  type: "Convolution"
  bottom: "inception_4a/output"
  top: "inception_4b/1x1"
  param {
    lr_mult: 1
    decay_mult: 1
  }
  param {
    lr_mult: 2
    decay_mult: 0
  }
  convolution_param {
    num_output: 160
    kernel_size: 1
    weight_filler {
      type: "xavier"
      std: 0.03
    }
    bias_filler {
      type: "constant"
      value: 0.2
    }
  }
}
layer {
  name: "inception_4b/relu_1x1"
  type: "ReLU"
  bottom: "inception_4b/1x1"
  top: "inception_4b/1x1"
}
layer {
  name: "inception_4b/3x3_reduce"
  type: "Convolution"
  bottom: "inception_4a/output"
  top: "inception_4b/3x3_reduce"
  param {
    lr_mult: 1
    decay_mult: 1
  }
  param {
    lr_mult: 2
    decay_mult: 0
  }
  convolution_param {
    num_output: 112
    kernel_size: 1
    weight_filler {
      type: "xavier"
      std: 0.09
    }
    bias_filler {
      type: "constant"
      value: 0.2
    }
  }
}
layer {
  name: "inception_4b/relu_3x3_reduce"
  type: "ReLU"
  bottom: "inception_4b/3x3_reduce"
  top: "inception_4b/3x3_reduce"
}
layer {
  name: "inception_4b/3x3"
  type: "Convolution"
  bottom: "inception_4b/3x3_reduce"
  top: "inception_4b/3x3"
  param {
    lr_mult: 1
    decay_mult: 1
  }
  param {
    lr_mult: 2
    decay_mult: 0
  }
  convolution_param {
    num_output: 224
    pad: 1
    kernel_size: 3
    weight_filler {
      type: "xavier"
      std: 0.03
    }
    bias_filler {
      type: "constant"
      value: 0.2
    }
  }
}
layer {
  name: "inception_4b/relu_3x3"
  type: "ReLU"
  bottom: "inception_4b/3x3"
  top: "inception_4b/3x3"
}
layer {
  name: "inception_4b/5x5_reduce"
  type: "Convolution"
  bottom: "inception_4a/output"
  top: "inception_4b/5x5_reduce"
  param {
    lr_mult: 1
    decay_mult: 1
  }
  param {
    lr_mult: 2
    decay_mult: 0
  }
  convolution_param {
    num_output: 24
    kernel_size: 1
    weight_filler {
      type: "xavier"
      std: 0.2
    }
    bias_filler {
      type: "constant"
      value: 0.2
    }
  }
}
layer {
  name: "inception_4b/relu_5x5_reduce"
  type: "ReLU"
  bottom: "inception_4b/5x5_reduce"
  top: "inception_4b/5x5_reduce"
}
layer {
  name: "inception_4b/5x5"
  type: "Convolution"
  bottom: "inception_4b/5x5_reduce"
  top: "inception_4b/5x5"
  param {
    lr_mult: 1
    decay_mult: 1
  }
  param {
    lr_mult: 2
    decay_mult: 0
  }
  convolution_param {
    num_output: 64
    pad: 2
    kernel_size: 5
    weight_filler {
      type: "xavier"
      std: 0.03
    }
    bias_filler {
      type: "constant"
      value: 0.2
    }
  }
}
layer {
  name: "inception_4b/relu_5x5"
  type: "ReLU"
  bottom: "inception_4b/5x5"
  top: "inception_4b/5x5"
}
layer {
  name: "inception_4b/pool"
  type: "Pooling"
  bottom: "inception_4a/output"
  top: "inception_4b/pool"
  pooling_param {
    pool: MAX
    kernel_size: 3
    stride: 1
    pad: 1
  }
}
layer {
  name: "inception_4b/pool_proj"
  type: "Convolution"
  bottom: "inception_4b/pool"
  top: "inception_4b/pool_proj"
  param {
    lr_mult: 1
    decay_mult: 1
  }
  param {
    lr_mult: 2
    decay_mult: 0
  }
  convolution_param {
    num_output: 64
    kernel_size: 1
    weight_filler {
      type: "xavier"
      std: 0.1
    }
    bias_filler {
      type: "constant"
      value: 0.2
    }
  }
}
layer {
  name: "inception_4b/relu_pool_proj"
  type: "ReLU"
  bottom: "inception_4b/pool_proj"
  top: "inception_4b/pool_proj"
}
layer {
  name: "inception_4b/output"
  type: "Concat"
  bottom: "inception_4b/1x1"
  bottom: "inception_4b/3x3"
  bottom: "inception_4b/5x5"
  bottom: "inception_4b/pool_proj"
  top: "inception_4b/output"
}
layer {
  name: "inception_4c/1x1"
  type: "Convolution"
  bottom: "inception_4b/output"
  top: "inception_4c/1x1"
  param {
    lr_mult: 1
    decay_mult: 1
  }
  param {
    lr_mult: 2
    decay_mult: 0
  }
  convolution_param {
    num_output: 128
    kernel_size: 1
    weight_filler {
      type: "xavier"
      std: 0.03
    }
    bias_filler {
      type: "constant"
      value: 0.2
    }
  }
}
layer {
  name: "inception_4c/relu_1x1"
  type: "ReLU"
  bottom: "inception_4c/1x1"
  top: "inception_4c/1x1"
}
layer {
  name: "inception_4c/3x3_reduce"
  type: "Convolution"
  bottom: "inception_4b/output"
  top: "inception_4c/3x3_reduce"
  param {
    lr_mult: 1
    decay_mult: 1
  }
  param {
    lr_mult: 2
    decay_mult: 0
  }
  convolution_param {
    num_output: 128
    kernel_size: 1
    weight_filler {
      type: "xavier"
      std: 0.09
    }
    bias_filler {
      type: "constant"
      value: 0.2
    }
  }
}
layer {
  name: "inception_4c/relu_3x3_reduce"
  type: "ReLU"
  bottom: "inception_4c/3x3_reduce"
  top: "inception_4c/3x3_reduce"
}
layer {
  name: "inception_4c/3x3"
  type: "Convolution"
  bottom: "inception_4c/3x3_reduce"
  top: "inception_4c/3x3"
  param {
    lr_mult: 1
    decay_mult: 1
  }
  param {
    lr_mult: 2
    decay_mult: 0
  }
  convolution_param {
    num_output: 256
    pad: 1
    kernel_size: 3
    weight_filler {
      type: "xavier"
      std: 0.03
    }
    bias_filler {
      type: "constant"
      value: 0.2
    }
  }
}
layer {
  name: "inception_4c/relu_3x3"
  type: "ReLU"
  bottom: "inception_4c/3x3"
  top: "inception_4c/3x3"
}
layer {
  name: "inception_4c/5x5_reduce"
  type: "Convolution"
  bottom: "inception_4b/output"
  top: "inception_4c/5x5_reduce"
  param {
    lr_mult: 1
    decay_mult: 1
  }
  param {
    lr_mult: 2
    decay_mult: 0
  }
  convolution_param {
    num_output: 24
    kernel_size: 1
    weight_filler {
      type: "xavier"
      std: 0.2
    }
    bias_filler {
      type: "constant"
      value: 0.2
    }
  }
}
layer {
  name: "inception_4c/relu_5x5_reduce"
  type: "ReLU"
  bottom: "inception_4c/5x5_reduce"
  top: "inception_4c/5x5_reduce"
}
layer {
  name: "inception_4c/5x5"
  type: "Convolution"
  bottom: "inception_4c/5x5_reduce"
  top: "inception_4c/5x5"
  param {
    lr_mult: 1
    decay_mult: 1
  }
  param {
    lr_mult: 2
    decay_mult: 0
  }
  convolution_param {
    num_output: 64
    pad: 2
    kernel_size: 5
    weight_filler {
      type: "xavier"
      std: 0.03
    }
    bias_filler {
      type: "constant"
      value: 0.2
    }
  }
}
layer {
  name: "inception_4c/relu_5x5"
  type: "ReLU"
  bottom: "inception_4c/5x5"
  top: "inception_4c/5x5"
}
layer {
  name: "inception_4c/pool"
  type: "Pooling"
  bottom: "inception_4b/output"
  top: "inception_4c/pool"
  pooling_param {
    pool: MAX
    kernel_size: 3
    stride: 1
    pad: 1
  }
}
layer {
  name: "inception_4c/pool_proj"
  type: "Convolution"
  bottom: "inception_4c/pool"
  top: "inception_4c/pool_proj"
  param {
    lr_mult: 1
    decay_mult: 1
  }
  param {
    lr_mult: 2
    decay_mult: 0
  }
  convolution_param {
    num_output: 64
    kernel_size: 1
    weight_filler {
      type: "xavier"
      std: 0.1
    }
    bias_filler {
      type: "constant"
      value: 0.2
    }
  }
}
layer {
  name: "inception_4c/relu_pool_proj"
  type: "ReLU"
  bottom: "inception_4c/pool_proj"
  top: "inception_4c/pool_proj"
}
layer {
  name: "inception_4c/output"
  type: "Concat"
  bottom: "inception_4c/1x1"
  bottom: "inception_4c/3x3"
  bottom: "inception_4c/5x5"
  bottom: "inception_4c/pool_proj"
  top: "inception_4c/output"
}
layer {
  name: "inception_4d/1x1"
  type: "Convolution"
  bottom: "inception_4c/output"
  top: "inception_4d/1x1"
  param {
    lr_mult: 1
    decay_mult: 1
  }
  param {
    lr_mult: 2
    decay_mult: 0
  }
  convolution_param {
    num_output: 112
    kernel_size: 1
    weight_filler {
      type: "xavier"
      std: 0.03
    }
    bias_filler {
      type: "constant"
      value: 0.2
    }
  }
}
layer {
  name: "inception_4d/relu_1x1"
  type: "ReLU"
  bottom: "inception_4d/1x1"
  top: "inception_4d/1x1"
}
layer {
  name: "inception_4d/3x3_reduce"
  type: "Convolution"
  bottom: "inception_4c/output"
  top: "inception_4d/3x3_reduce"
  param {
    lr_mult: 1
    decay_mult: 1
  }
  param {
    lr_mult: 2
    decay_mult: 0
  }
  convolution_param {
    num_output: 144
    kernel_size: 1
    weight_filler {
      type: "xavier"
      std: 0.09
    }
    bias_filler {
      type: "constant"
      value: 0.2
    }
  }
}
layer {
  name: "inception_4d/relu_3x3_reduce"
  type: "ReLU"
  bottom: "inception_4d/3x3_reduce"
  top: "inception_4d/3x3_reduce"
}
layer {
  name: "inception_4d/3x3"
  type: "Convolution"
  bottom: "inception_4d/3x3_reduce"
  top: "inception_4d/3x3"
  param {
    lr_mult: 1
    decay_mult: 1
  }
  param {
    lr_mult: 2
    decay_mult: 0
  }
  convolution_param {
    num_output: 288
    pad: 1
    kernel_size: 3
    weight_filler {
      type: "xavier"
      std: 0.03
    }
    bias_filler {
      type: "constant"
      value: 0.2
    }
  }
}
layer {
  name: "inception_4d/relu_3x3"
  type: "ReLU"
  bottom: "inception_4d/3x3"
  top: "inception_4d/3x3"
}
layer {
  name: "inception_4d/5x5_reduce"
  type: "Convolution"
  bottom: "inception_4c/output"
  top: "inception_4d/5x5_reduce"
  param {
    lr_mult: 1
    decay_mult: 1
  }
  param {
    lr_mult: 2
    decay_mult: 0
  }
  convolution_param {
    num_output: 32
    kernel_size: 1
    weight_filler {
      type: "xavier"
      std: 0.2
    }
    bias_filler {
      type: "constant"
      value: 0.2
    }
  }
}
layer {
  name: "inception_4d/relu_5x5_reduce"
  type: "ReLU"
  bottom: "inception_4d/5x5_reduce"
  top: "inception_4d/5x5_reduce"
}
layer {
  name: "inception_4d/5x5"
  type: "Convolution"
  bottom: "inception_4d/5x5_reduce"
  top: "inception_4d/5x5"
  param {
    lr_mult: 1
    decay_mult: 1
  }
  param {
    lr_mult: 2
    decay_mult: 0
  }
  convolution_param {
    num_output: 64
    pad: 2
    kernel_size: 5
    weight_filler {
      type: "xavier"
      std: 0.03
    }
    bias_filler {
      type: "constant"
      value: 0.2
    }
  }
}
layer {
  name: "inception_4d/relu_5x5"
  type: "ReLU"
  bottom: "inception_4d/5x5"
  top: "inception_4d/5x5"
}
layer {
  name: "inception_4d/pool"
  type: "Pooling"
  bottom: "inception_4c/output"
  top: "inception_4d/pool"
  pooling_param {
    pool: MAX
    kernel_size: 3
    stride: 1
    pad: 1
  }
}
layer {
  name: "inception_4d/pool_proj"
  type: "Convolution"
  bottom: "inception_4d/pool"
  top: "inception_4d/pool_proj"
  param {
    lr_mult: 1
    decay_mult: 1
  }
  param {
    lr_mult: 2
    decay_mult: 0
  }
  convolution_param {
    num_output: 64
    kernel_size: 1
    weight_filler {
      type: "xavier"
      std: 0.1
    }
    bias_filler {
      type: "constant"
      value: 0.2
    }
  }
}
layer {
  name: "inception_4d/relu_pool_proj"
  type: "ReLU"
  bottom: "inception_4d/pool_proj"
  top: "inception_4d/pool_proj"
}
layer {
  name: "inception_4d/output"
  type: "Concat"
  bottom: "inception_4d/1x1"
  bottom: "inception_4d/3x3"
  bottom: "inception_4d/5x5"
  bottom: "inception_4d/pool_proj"
  top: "inception_4d/output"
}
layer {
  name: "inception_4e/1x1"
  type: "Convolution"
  bottom: "inception_4d/output"
  top: "inception_4e/1x1"
  param {
    lr_mult: 1
    decay_mult: 1
  }
  param {
    lr_mult: 2
    decay_mult: 0
  }
  convolution_param {
    num_output: 256
    kernel_size: 1
    weight_filler {
      type: "xavier"
      std: 0.03
    }
    bias_filler {
      type: "constant"
      value: 0.2
    }
  }
}
layer {
  name: "inception_4e/relu_1x1"
  type: "ReLU"
  bottom: "inception_4e/1x1"
  top: "inception_4e/1x1"
}
layer {
  name: "inception_4e/3x3_reduce"
  type: "Convolution"
  bottom: "inception_4d/output"
  top: "inception_4e/3x3_reduce"
  param {
    lr_mult: 1
    decay_mult: 1
  }
  param {
    lr_mult: 2
    decay_mult: 0
  }
  convolution_param {
    num_output: 160
    kernel_size: 1
    weight_filler {
      type: "xavier"
      std: 0.09
    }
    bias_filler {
      type: "constant"
      value: 0.2
    }
  }
}
layer {
  name: "inception_4e/relu_3x3_reduce"
  type: "ReLU"
  bottom: "inception_4e/3x3_reduce"
  top: "inception_4e/3x3_reduce"
}
layer {
  name: "inception_4e/3x3"
  type: "Convolution"
  bottom: "inception_4e/3x3_reduce"
  top: "inception_4e/3x3"
  param {
    lr_mult: 1
    decay_mult: 1
  }
  param {
    lr_mult: 2
    decay_mult: 0
  }
  convolution_param {
    num_output: 320
    pad: 1
    kernel_size: 3
    weight_filler {
      type: "xavier"
      std: 0.03
    }
    bias_filler {
      type: "constant"
      value: 0.2
    }
  }
}
layer {
  name: "inception_4e/relu_3x3"
  type: "ReLU"
  bottom: "inception_4e/3x3"
  top: "inception_4e/3x3"
}
layer {
  name: "inception_4e/5x5_reduce"
  type: "Convolution"
  bottom: "inception_4d/output"
  top: "inception_4e/5x5_reduce"
  param {
    lr_mult: 1
    decay_mult: 1
  }
  param {
    lr_mult: 2
    decay_mult: 0
  }
  convolution_param {
    num_output: 32
    kernel_size: 1
    weight_filler {
      type: "xavier"
      std: 0.2
    }
    bias_filler {
      type: "constant"
      value: 0.2
    }
  }
}
layer {
  name: "inception_4e/relu_5x5_reduce"
  type: "ReLU"
  bottom: "inception_4e/5x5_reduce"
  top: "inception_4e/5x5_reduce"
}
layer {
  name: "inception_4e/5x5"
  type: "Convolution"
  bottom: "inception_4e/5x5_reduce"
  top: "inception_4e/5x5"
  param {
    lr_mult: 1
    decay_mult: 1
  }
  param {
    lr_mult: 2
    decay_mult: 0
  }
  convolution_param {
    num_output: 128
    pad: 2
    kernel_size: 5
    weight_filler {
      type: "xavier"
      std: 0.03
    }
    bias_filler {
      type: "constant"
      value: 0.2
    }
  }
}
layer {
  name: "inception_4e/relu_5x5"
  type: "ReLU"
  bottom: "inception_4e/5x5"
  top: "inception_4e/5x5"
}
layer {
  name: "inception_4e/pool"
  type: "Pooling"
  bottom: "inception_4d/output"
  top: "inception_4e/pool"
  pooling_param {
    pool: MAX
    kernel_size: 3
    stride: 1
    pad: 1
  }
}
layer {
  name: "inception_4e/pool_proj"
  type: "Convolution"
  bottom: "inception_4e/pool"
  top: "inception_4e/pool_proj"
  param {
    lr_mult: 1
    decay_mult: 1
  }
  param {
    lr_mult: 2
    decay_mult: 0
  }
  convolution_param {
    num_output: 128
    kernel_size: 1
    weight_filler {
      type: "xavier"
      std: 0.1
    }
    bias_filler {
      type: "constant"
      value: 0.2
    }
  }
}
layer {
  name: "inception_4e/relu_pool_proj"
  type: "ReLU"
  bottom: "inception_4e/pool_proj"
  top: "inception_4e/pool_proj"
}
layer {
  name: "inception_4e/output"
  type: "Concat"
  bottom: "inception_4e/1x1"
  bottom: "inception_4e/3x3"
  bottom: "inception_4e/5x5"
  bottom: "inception_4e/pool_proj"
  top: "inception_4e/output"
}
layer {
  name: "pool4/3x3_s2"
  type: "Pooling"
  bottom: "inception_4e/output"
  top: "pool4/3x3_s2"
  pooling_param {
    pool: MAX
    kernel_size: 3
    stride: 2
  }
}
layer {
  name: "inception_5a/1x1"
  type: "Convolution"
  bottom: "pool4/3x3_s2"
  top: "inception_5a/1x1"
  param {
    lr_mult: 1
    decay_mult: 1
  }
  param {
    lr_mult: 2
    decay_mult: 0
  }
  convolution_param {
    num_output: 256
    kernel_size: 1
    weight_filler {
      type: "xavier"
      std: 0.03
    }
    bias_filler {
      type: "constant"
      value: 0.2
    }
  }
}
layer {
  name: "inception_5a/relu_1x1"
  type: "ReLU"
  bottom: "inception_5a/1x1"
  top: "inception_5a/1x1"
}
layer {
  name: "inception_5a/3x3_reduce"
  type: "Convolution"
  bottom: "pool4/3x3_s2"
  top: "inception_5a/3x3_reduce"
  param {
    lr_mult: 1
    decay_mult: 1
  }
  param {
    lr_mult: 2
    decay_mult: 0
  }
  convolution_param {
    num_output: 160
    kernel_size: 1
    weight_filler {
      type: "xavier"
      std: 0.09
    }
    bias_filler {
      type: "constant"
      value: 0.2
    }
  }
}
layer {
  name: "inception_5a/relu_3x3_reduce"
  type: "ReLU"
  bottom: "inception_5a/3x3_reduce"
  top: "inception_5a/3x3_reduce"
}
layer {
  name: "inception_5a/3x3"
  type: "Convolution"
  bottom: "inception_5a/3x3_reduce"
  top: "inception_5a/3x3"
  param {
    lr_mult: 1
    decay_mult: 1
  }
  param {
    lr_mult: 2
    decay_mult: 0
  }
  convolution_param {
    num_output: 320
    pad: 1
    kernel_size: 3
    weight_filler {
      type: "xavier"
      std: 0.03
    }
    bias_filler {
      type: "constant"
      value: 0.2
    }
  }
}
layer {
  name: "inception_5a/relu_3x3"
  type: "ReLU"
  bottom: "inception_5a/3x3"
  top: "inception_5a/3x3"
}
layer {
  name: "inception_5a/5x5_reduce"
  type: "Convolution"
  bottom: "pool4/3x3_s2"
  top: "inception_5a/5x5_reduce"
  param {
    lr_mult: 1
    decay_mult: 1
  }
  param {
    lr_mult: 2
    decay_mult: 0
  }
  convolution_param {
    num_output: 32
    kernel_size: 1
    weight_filler {
      type: "xavier"
      std: 0.2
    }
    bias_filler {
      type: "constant"
      value: 0.2
    }
I0729 16:41:23.567472 15177 layer_factory.hpp:77] Creating layer data
I0729 16:41:23.567502 15177 net.cpp:91] Creating Layer data
I0729 16:41:23.567513 15177 net.cpp:399] data -> data
I0729 16:41:23.572738 15173 net.cpp:49] Initializing net from parameters: 
name: "GoogleNet"
state {
  phase: TEST
}
layer {
  name: "data"
  type: "Input"
  top: "data"
  input_param {
    shape {
      dim: 10
      dim: 3
      dim: 224
      dim: 224
    }
  }
}
layer {
  name: "conv1/7x7_s2"
  type: "Convolution"
  bottom: "data"
  top: "conv1/7x7_s2"
  param {
    lr_mult: 1
    decay_mult: 1
  }
  param {
    lr_mult: 2
    decay_mult: 0
  }
  convolution_param {
    num_output: 64
    pad: 3
    kernel_size: 7
    stride: 2
    weight_filler {
      type: "xavier"
      std: 0.1
    }
    bias_filler {
      type: "constant"
      value: 0.2
    }
  }
}
layer {
  name: "conv1/relu_7x7"
  type: "ReLU"
  bottom: "conv1/7x7_s2"
  top: "conv1/7x7_s2"
}
layer {
  name: "pool1/3x3_s2"
  type: "Pooling"
  bottom: "conv1/7x7_s2"
  top: "pool1/3x3_s2"
  pooling_param {
    pool: MAX
    kernel_size: 3
    stride: 2
  }
}
layer {
  name: "pool1/norm1"
  type: "LRN"
  bottom: "pool1/3x3_s2"
  top: "pool1/norm1"
  lrn_param {
    local_size: 5
    alpha: 0.0001
    beta: 0.75
  }
}
layer {
  name: "conv2/3x3_reduce"
  type: "Convolution"
  bottom: "pool1/norm1"
  top: "conv2/3x3_reduce"
  param {
    lr_mult: 1
    decay_mult: 1
  }
  param {
    lr_mult: 2
    decay_mult: 0
  }
  convolution_param {
    num_output: 64
    kernel_size: 1
    weight_filler {
      type: "xavier"
      std: 0.1
    }
    bias_filler {
      type: "constant"
      value: 0.2
    }
  }
}
layer {
  name: "conv2/relu_3x3_reduce"
  type: "ReLU"
  bottom: "conv2/3x3_reduce"
  top: "conv2/3x3_reduce"
}
layer {
  name: "conv2/3x3"
  type: "Convolution"
  bottom: "conv2/3x3_reduce"
  top: "conv2/3x3"
  param {
    lr_mult: 1
    decay_mult: 1
  }
  param {
    lr_mult: 2
    decay_mult: 0
  }
  convolution_param {
    num_output: 192
    pad: 1
    kernel_size: 3
    weight_filler {
      type: "xavier"
      std: 0.03
    }
    bias_filler {
      type: "constant"
      value: 0.2
    }
  }
}
layer {
  name: "conv2/relu_3x3"
  type: "ReLU"
  bottom: "conv2/3x3"
  top: "conv2/3x3"
}
layer {
  name: "conv2/norm2"
  type: "LRN"
  bottom: "conv2/3x3"
  top: "conv2/norm2"
  lrn_param {
    local_size: 5
    alpha: 0.0001
    beta: 0.75
  }
}
layer {
  name: "pool2/3x3_s2"
  type: "Pooling"
  bottom: "conv2/norm2"
  top: "pool2/3x3_s2"
  pooling_param {
    pool: MAX
    kernel_size: 3
    stride: 2
  }
}
layer {
  name: "inception_3a/1x1"
  type: "Convolution"
  bottom: "pool2/3x3_s2"
  top: "inception_3a/1x1"
  param {
    lr_mult: 1
    decay_mult: 1
  }
  param {
    lr_mult: 2
    decay_mult: 0
  }
  convolution_param {
    num_output: 64
    kernel_size: 1
    weight_filler {
      type: "xavier"
      std: 0.03
    }
    bias_filler {
      type: "constant"
      value: 0.2
    }
  }
}
layer {
  name: "inception_3a/relu_1x1"
  type: "ReLU"
  bottom: "inception_3a/1x1"
  top: "inception_3a/1x1"
}
layer {
  name: "inception_3a/3x3_reduce"
  type: "Convolution"
  bottom: "pool2/3x3_s2"
  top: "inception_3a/3x3_reduce"
  param {
    lr_mult: 1
    decay_mult: 1
  }
  param {
    lr_mult: 2
    decay_mult: 0
  }
  convolution_param {
    num_output: 96
    kernel_size: 1
    weight_filler {
      type: "xavier"
      std: 0.09
    }
    bias_filler {
      type: "constant"
      value: 0.2
    }
  }
}
layer {
  name: "inception_3a/relu_3x3_reduce"
  type: "ReLU"
  bottom: "inception_3a/3x3_reduce"
  top: "inception_3a/3x3_reduce"
}
layer {
  name: "inception_3a/3x3"
  type: "Convolution"
  bottom: "inception_3a/3x3_reduce"
  top: "inception_3a/3x3"
  param {
    lr_mult: 1
    decay_mult: 1
  }
  param {
    lr_mult: 2
    decay_mult: 0
  }
  convolution_param {
    num_output: 128
    pad: 1
    kernel_size: 3
    weight_filler {
      type: "xavier"
      std: 0.03
    }
    bias_filler {
      type: "constant"
      value: 0.2
    }
  }
}
layer {
  name: "inception_3a/relu_3x3"
  type: "ReLU"
  bottom: "inception_3a/3x3"
  top: "inception_3a/3x3"
}
layer {
  name: "inception_3a/5x5_reduce"
  type: "Convolution"
  bottom: "pool2/3x3_s2"
  top: "inception_3a/5x5_reduce"
  param {
    lr_mult: 1
    decay_mult: 1
  }
  param {
    lr_mult: 2
    decay_mult: 0
  }
  convolution_param {
    num_output: 16
    kernel_size: 1
    weight_filler {
      type: "xavier"
      std: 0.2
    }
    bias_filler {
      type: "constant"
      value: 0.2
    }
  }
}
layer {
  name: "inception_3a/relu_5x5_reduce"
  type: "ReLU"
  bottom: "inception_3a/5x5_reduce"
  top: "inception_3a/5x5_reduce"
}
layer {
  name: "inception_3a/5x5"
  type: "Convolution"
  bottom: "inception_3a/5x5_reduce"
  top: "inception_3a/5x5"
  param {
    lr_mult: 1
    decay_mult: 1
  }
  param {
    lr_mult: 2
    decay_mult: 0
  }
  convolution_param {
    num_output: 32
    pad: 2
    kernel_size: 5
    weight_filler {
      type: "xavier"
      std: 0.03
    }
    bias_filler {
      type: "constant"
      value: 0.2
    }
  }
}
layer {
  name: "inception_3a/relu_5x5"
  type: "ReLU"
  bottom: "inception_3a/5x5"
  top: "inception_3a/5x5"
}
layer {
  name: "inception_3a/pool"
  type: "Pooling"
  bottom: "pool2/3x3_s2"
  top: "inception_3a/pool"
  pooling_param {
    pool: MAX
    kernel_size: 3
    stride: 1
    pad: 1
  }
}
layer {
  name: "inception_3a/pool_proj"
  type: "Convolution"
  bottom: "inception_3a/pool"
  top: "inception_3a/pool_proj"
  param {
    lr_mult: 1
    decay_mult: 1
  }
  param {
    lr_mult: 2
    decay_mult: 0
  }
  convolution_param {
    num_output: 32
    kernel_size: 1
    weight_filler {
      type: "xavier"
      std: 0.1
    }
    bias_filler {
      type: "constant"
      value: 0.2
    }
  }
}
layer {
  name: "inception_3a/relu_pool_proj"
  type: "ReLU"
  bottom: "inception_3a/pool_proj"
  top: "inception_3a/pool_proj"
}
layer {
  name: "inception_3a/output"
  type: "Concat"
  bottom: "inception_3a/1x1"
  bottom: "inception_3a/3x3"
  bottom: "inception_3a/5x5"
  bottom: "inception_3a/pool_proj"
  top: "inception_3a/output"
}
layer {
  name: "inception_3b/1x1"
  type: "Convolution"
  bottom: "inception_3a/output"
  top: "inception_3b/1x1"
  param {
    lr_mult: 1
    decay_mult: 1
  }
  param {
    lr_mult: 2
    decay_mult: 0
  }
  convolution_param {
    num_output: 128
    kernel_size: 1
    weight_filler {
      type: "xavier"
      std: 0.03
    }
    bias_filler {
      type: "constant"
      value: 0.2
    }
  }
}
layer {
  name: "inception_3b/relu_1x1"
  type: "ReLU"
  bottom: "inception_3b/1x1"
  top: "inception_3b/1x1"
}
layer {
  name: "inception_3b/3x3_reduce"
  type: "Convolution"
  bottom: "inception_3a/output"
  top: "inception_3b/3x3_reduce"
  param {
    lr_mult: 1
    decay_mult: 1
  }
  param {
    lr_mult: 2
    decay_mult: 0
  }
  convolution_param {
    num_output: 128
    kernel_size: 1
    weight_filler {
      type: "xavier"
      std: 0.09
    }
    bias_filler {
      type: "constant"
      value: 0.2
    }
  }
}
layer {
  name: "inception_3b/relu_3x3_reduce"
  type: "ReLU"
  bottom: "inception_3b/3x3_reduce"
  top: "inception_3b/3x3_reduce"
}
layer {
  name: "inception_3b/3x3"
  type: "Convolution"
  bottom: "inception_3b/3x3_reduce"
  top: "inception_3b/3x3"
  param {
    lr_mult: 1
    decay_mult: 1
  }
  param {
    lr_mult: 2
    decay_mult: 0
  }
  convolution_param {
    num_output: 192
    pad: 1
    kernel_size: 3
    weight_filler {
      type: "xavier"
      std: 0.03
    }
    bias_filler {
      type: "constant"
      value: 0.2
    }
  }
}
layer {
  name: "inception_3b/relu_3x3"
  type: "ReLU"
  bottom: "inception_3b/3x3"
  top: "inception_3b/3x3"
}
layer {
  name: "inception_3b/5x5_reduce"
  type: "Convolution"
  bottom: "inception_3a/output"
  top: "inception_3b/5x5_reduce"
  param {
    lr_mult: 1
    decay_mult: 1
  }
  param {
    lr_mult: 2
    decay_mult: 0
  }
  convolution_param {
    num_output: 32
    kernel_size: 1
    weight_filler {
      type: "xavier"
      std: 0.2
    }
    bias_filler {
      type: "constant"
      value: 0.2
    }
  }
}
layer {
  name: "inception_3b/relu_5x5_reduce"
  type: "ReLU"
  bottom: "inception_3b/5x5_reduce"
  top: "inception_3b/5x5_reduce"
}
layer {
  name: "inception_3b/5x5"
  type: "Convolution"
  bottom: "inception_3b/5x5_reduce"
  top: "inception_3b/5x5"
  param {
    lr_mult: 1
    decay_mult: 1
  }
  param {
    lr_mult: 2
    decay_mult: 0
  }
  convolution_param {
    num_output: 96
    pad: 2
    kernel_size: 5
    weight_filler {
      type: "xavier"
      std: 0.03
    }
    bias_filler {
      type: "constant"
      value: 0.2
    }
  }
}
layer {
  name: "inception_3b/relu_5x5"
  type: "ReLU"
  bottom: "inception_3b/5x5"
  top: "inception_3b/5x5"
}
layer {
  name: "inception_3b/pool"
  type: "Pooling"
  bottom: "inception_3a/output"
  top: "inception_3b/pool"
  pooling_param {
    pool: MAX
    kernel_size: 3
    stride: 1
    pad: 1
  }
}
layer {
  name: "inception_3b/pool_proj"
  type: "Convolution"
  bottom: "inception_3b/pool"
  top: "inception_3b/pool_proj"
  param {
    lr_mult: 1
    decay_mult: 1
  }
  param {
    lr_mult: 2
    decay_mult: 0
  }
  convolution_param {
    num_output: 64
    kernel_size: 1
    weight_filler {
      type: "xavier"
      std: 0.1
    }
    bias_filler {
      type: "constant"
      value: 0.2
    }
  }
}
layer {
  name: "inception_3b/relu_pool_proj"
  type: "ReLU"
  bottom: "inception_3b/pool_proj"
  top: "inception_3b/pool_proj"
}
layer {
  name: "inception_3b/output"
  type: "Concat"
  bottom: "inception_3b/1x1"
  bottom: "inception_3b/3x3"
  bottom: "inception_3b/5x5"
  bottom: "inception_3b/pool_proj"
  top: "inception_3b/output"
}
layer {
  name: "pool3/3x3_s2"
  type: "Pooling"
  bottom: "inception_3b/output"
  top: "pool3/3x3_s2"
  pooling_param {
    pool: MAX
    kernel_size: 3
    stride: 2
  }
}
layer {
  name: "inception_4a/1x1"
  type: "Convolution"
  bottom: "pool3/3x3_s2"
  top: "inception_4a/1x1"
  param {
    lr_mult: 1
    decay_mult: 1
  }
  param {
    lr_mult: 2
    decay_mult: 0
  }
  convolution_param {
    num_output: 192
    kernel_size: 1
    weight_filler {
      type: "xavier"
      std: 0.03
    }
    bias_filler {
      type: "constant"
      value: 0.2
    }
  }
}
layer {
  name: "inception_4a/relu_1x1"
  type: "ReLU"
  bottom: "inception_4a/1x1"
  top: "inception_4a/1x1"
}
layer {
  name: "inception_4a/3x3_reduce"
  type: "Convolution"
  bottom: "pool3/3x3_s2"
  top: "inception_4a/3x3_reduce"
  param {
    lr_mult: 1
    decay_mult: 1
  }
  param {
    lr_mult: 2
    decay_mult: 0
  }
  convolution_param {
    num_output: 96
    kernel_size: 1
    weight_filler {
      type: "xavier"
      std: 0.09
    }
    bias_filler {
      type: "constant"
      value: 0.2
    }
  }
}
layer {
  name: "inception_4a/relu_3x3_reduce"
  type: "ReLU"
  bottom: "inception_4a/3x3_reduce"
  top: "inception_4a/3x3_reduce"
}
layer {
  name: "inception_4a/3x3"
  type: "Convolution"
  bottom: "inception_4a/3x3_reduce"
  top: "inception_4a/3x3"
  param {
    lr_mult: 1
    decay_mult: 1
  }
  param {
    lr_mult: 2
    decay_mult: 0
  }
  convolution_param {
    num_output: 208
    pad: 1
    kernel_size: 3
    weight_filler {
      type: "xavier"
      std: 0.03
    }
    bias_filler {
      type: "constant"
      value: 0.2
    }
  }
}
layer {
  name: "inception_4a/relu_3x3"
  type: "ReLU"
  bottom: "inception_4a/3x3"
  top: "inception_4a/3x3"
}
layer {
  name: "inception_4a/5x5_reduce"
  type: "Convolution"
  bottom: "pool3/3x3_s2"
  top: "inception_4a/5x5_reduce"
  param {
    lr_mult: 1
    decay_mult: 1
  }
  param {
    lr_mult: 2
    decay_mult: 0
  }
  convolution_param {
    num_output: 16
    kernel_size: 1
    weight_filler {
      type: "xavier"
      std: 0.2
    }
    bias_filler {
      type: "constant"
      value: 0.2
    }
  }
}
layer {
  name: "inception_4a/relu_5x5_reduce"
  type: "ReLU"
  bottom: "inception_4a/5x5_reduce"
  top: "inception_4a/5x5_reduce"
}
layer {
  name: "inception_4a/5x5"
  type: "Convolution"
  bottom: "inception_4a/5x5_reduce"
  top: "inception_4a/5x5"
  param {
    lr_mult: 1
    decay_mult: 1
  }
  param {
    lr_mult: 2
    decay_mult: 0
  }
  convolution_param {
    num_output: 48
    pad: 2
    kernel_size: 5
    weight_filler {
      type: "xavier"
      std: 0.03
    }
    bias_filler {
      type: "constant"
      value: 0.2
    }
  }
}
layer {
  name: "inception_4a/relu_5x5"
  type: "ReLU"
  bottom: "inception_4a/5x5"
  top: "inception_4a/5x5"
}
layer {
  name: "inception_4a/pool"
  type: "Pooling"
  bottom: "pool3/3x3_s2"
  top: "inception_4a/pool"
  pooling_param {
    pool: MAX
    kernel_size: 3
    stride: 1
    pad: 1
  }
}
layer {
  name: "inception_4a/pool_proj"
  type: "Convolution"
  bottom: "inception_4a/pool"
  top: "inception_4a/pool_proj"
  param {
    lr_mult: 1
    decay_mult: 1
  }
  param {
    lr_mult: 2
    decay_mult: 0
  }
  convolution_param {
    num_output: 64
    kernel_size: 1
    weight_filler {
      type: "xavier"
      std: 0.1
    }
    bias_filler {
      type: "constant"
      value: 0.2
    }
  }
}
layer {
  name: "inception_4a/relu_pool_proj"
  type: "ReLU"
  bottom: "inception_4a/pool_proj"
  top: "inception_4a/pool_proj"
}
layer {
  name: "inception_4a/output"
  type: "Concat"
  bottom: "inception_4a/1x1"
  bottom: "inception_4a/3x3"
  bottom: "inception_4a/5x5"
  bottom: "inception_4a/pool_proj"
  top: "inception_4a/output"
}
layer {
  name: "inception_4b/1x1"
  type: "Convolution"
  bottom: "inception_4a/output"
  top: "inception_4b/1x1"
  param {
    lr_mult: 1
    decay_mult: 1
  }
  param {
    lr_mult: 2
    decay_mult: 0
  }
  convolution_param {
    num_output: 160
    kernel_size: 1
    weight_filler {
      type: "xavier"
      std: 0.03
    }
    bias_filler {
      type: "constant"
      value: 0.2
    }
  }
}
layer {
  name: "inception_4b/relu_1x1"
  type: "ReLU"
  bottom: "inception_4b/1x1"
  top: "inception_4b/1x1"
}
layer {
  name: "inception_4b/3x3_reduce"
  type: "Convolution"
  bottom: "inception_4a/output"
  top: "inception_4b/3x3_reduce"
  param {
    lr_mult: 1
    decay_mult: 1
  }
  param {
    lr_mult: 2
    decay_mult: 0
  }
  convolution_param {
    num_output: 112
    kernel_size: 1
    weight_filler {
      type: "xavier"
      std: 0.09
    }
    bias_filler {
      type: "constant"
      value: 0.2
    }
  }
}
layer {
  name: "inception_4b/relu_3x3_reduce"
  type: "ReLU"
  bottom: "inception_4b/3x3_reduce"
  top: "inception_4b/3x3_reduce"
}
layer {
  name: "inception_4b/3x3"
  type: "Convolution"
  bottom: "inception_4b/3x3_reduce"
  top: "inception_4b/3x3"
  param {
    lr_mult: 1
    decay_mult: 1
  }
  param {
    lr_mult: 2
    decay_mult: 0
  }
  convolution_param {
    num_output: 224
    pad: 1
    kernel_size: 3
    weight_filler {
      type: "xavier"
      std: 0.03
    }
    bias_filler {
      type: "constant"
      value: 0.2
    }
  }
}
layer {
  name: "inception_4b/relu_3x3"
  type: "ReLU"
  bottom: "inception_4b/3x3"
  top: "inception_4b/3x3"
}
layer {
  name: "inception_4b/5x5_reduce"
  type: "Convolution"
  bottom: "inception_4a/output"
  top: "inception_4b/5x5_reduce"
  param {
    lr_mult: 1
    decay_mult: 1
  }
  param {
    lr_mult: 2
    decay_mult: 0
  }
  convolution_param {
    num_output: 24
    kernel_size: 1
    weight_filler {
      type: "xavier"
      std: 0.2
    }
    bias_filler {
      type: "constant"
      value: 0.2
    }
  }
}
layer {
  name: "inception_4b/relu_5x5_reduce"
  type: "ReLU"
  bottom: "inception_4b/5x5_reduce"
  top: "inception_4b/5x5_reduce"
}
layer {
  name: "inception_4b/5x5"
  type: "Convolution"
  bottom: "inception_4b/5x5_reduce"
  top: "inception_4b/5x5"
  param {
    lr_mult: 1
    decay_mult: 1
  }
  param {
    lr_mult: 2
    decay_mult: 0
  }
  convolution_param {
    num_output: 64
    pad: 2
    kernel_size: 5
    weight_filler {
      type: "xavier"
      std: 0.03
    }
    bias_filler {
      type: "constant"
      value: 0.2
    }
  }
}
layer {
  name: "inception_4b/relu_5x5"
  type: "ReLU"
  bottom: "inception_4b/5x5"
  top: "inception_4b/5x5"
}
layer {
  name: "inception_4b/pool"
  type: "Pooling"
  bottom: "inception_4a/output"
  top: "inception_4b/pool"
  pooling_param {
    pool: MAX
    kernel_size: 3
    stride: 1
    pad: 1
  }
}
layer {
  name: "inception_4b/pool_proj"
  type: "Convolution"
  bottom: "inception_4b/pool"
  top: "inception_4b/pool_proj"
  param {
    lr_mult: 1
    decay_mult: 1
  }
  param {
    lr_mult: 2
    decay_mult: 0
  }
  convolution_param {
    num_output: 64
    kernel_size: 1
    weight_filler {
      type: "xavier"
      std: 0.1
    }
    bias_filler {
      type: "constant"
      value: 0.2
    }
  }
}
layer {
  name: "inception_4b/relu_pool_proj"
  type: "ReLU"
  bottom: "inception_4b/pool_proj"
  top: "inception_4b/pool_proj"
}
layer {
  name: "inception_4b/output"
  type: "Concat"
  bottom: "inception_4b/1x1"
  bottom: "inception_4b/3x3"
  bottom: "inception_4b/5x5"
  bottom: "inception_4b/pool_proj"
  top: "inception_4b/output"
}
layer {
  name: "inception_4c/1x1"
  type: "Convolution"
  bottom: "inception_4b/output"
  top: "inception_4c/1x1"
  param {
    lr_mult: 1
    decay_mult: 1
  }
  param {
    lr_mult: 2
    decay_mult: 0
  }
  convolution_param {
    num_output: 128
    kernel_size: 1
    weight_filler {
      type: "xavier"
      std: 0.03
    }
    bias_filler {
      type: "constant"
      value: 0.2
    }
  }
}
layer {
  name: "inception_4c/relu_1x1"
  type: "ReLU"
  bottom: "inception_4c/1x1"
  top: "inception_4c/1x1"
}
layer {
  name: "inception_4c/3x3_reduce"
  type: "Convolution"
  bottom: "inception_4b/output"
  top: "inception_4c/3x3_reduce"
  param {
    lr_mult: 1
    decay_mult: 1
  }
  param {
    lr_mult: 2
    decay_mult: 0
  }
  convolution_param {
    num_output: 128
    kernel_size: 1
    weight_filler {
      type: "xavier"
      std: 0.09
    }
    bias_filler {
      type: "constant"
      value: 0.2
    }
  }
}
layer {
  name: "inception_4c/relu_3x3_reduce"
  type: "ReLU"
  bottom: "inception_4c/3x3_reduce"
  top: "inception_4c/3x3_reduce"
}
layer {
  name: "inception_4c/3x3"
  type: "Convolution"
  bottom: "inception_4c/3x3_reduce"
  top: "inception_4c/3x3"
  param {
    lr_mult: 1
    decay_mult: 1
  }
  param {
    lr_mult: 2
    decay_mult: 0
  }
  convolution_param {
    num_output: 256
    pad: 1
    kernel_size: 3
    weight_filler {
      type: "xavier"
      std: 0.03
    }
    bias_filler {
      type: "constant"
      value: 0.2
    }
  }
}
layer {
  name: "inception_4c/relu_3x3"
  type: "ReLU"
  bottom: "inception_4c/3x3"
  top: "inception_4c/3x3"
}
layer {
  name: "inception_4c/5x5_reduce"
  type: "Convolution"
  bottom: "inception_4b/output"
  top: "inception_4c/5x5_reduce"
  param {
    lr_mult: 1
    decay_mult: 1
  }
  param {
    lr_mult: 2
    decay_mult: 0
  }
  convolution_param {
    num_output: 24
    kernel_size: 1
    weight_filler {
      type: "xavier"
      std: 0.2
    }
    bias_filler {
      type: "constant"
      value: 0.2
    }
  }
}
layer {
  name: "inception_4c/relu_5x5_reduce"
  type: "ReLU"
  bottom: "inception_4c/5x5_reduce"
  top: "inception_4c/5x5_reduce"
}
layer {
  name: "inception_4c/5x5"
  type: "Convolution"
  bottom: "inception_4c/5x5_reduce"
  top: "inception_4c/5x5"
  param {
    lr_mult: 1
    decay_mult: 1
  }
  param {
    lr_mult: 2
    decay_mult: 0
  }
  convolution_param {
    num_output: 64
    pad: 2
    kernel_size: 5
    weight_filler {
      type: "xavier"
      std: 0.03
    }
    bias_filler {
      type: "constant"
      value: 0.2
    }
  }
}
layer {
  name: "inception_4c/relu_5x5"
  type: "ReLU"
  bottom: "inception_4c/5x5"
  top: "inception_4c/5x5"
}
layer {
  name: "inception_4c/pool"
  type: "Pooling"
  bottom: "inception_4b/output"
  top: "inception_4c/pool"
  pooling_param {
    pool: MAX
    kernel_size: 3
    stride: 1
    pad: 1
  }
}
layer {
  name: "inception_4c/pool_proj"
  type: "Convolution"
  bottom: "inception_4c/pool"
  top: "inception_4c/pool_proj"
  param {
    lr_mult: 1
    decay_mult: 1
  }
  param {
    lr_mult: 2
    decay_mult: 0
  }
  convolution_param {
    num_output: 64
    kernel_size: 1
    weight_filler {
      type: "xavier"
      std: 0.1
    }
    bias_filler {
      type: "constant"
      value: 0.2
    }
  }
}
layer {
  name: "inception_4c/relu_pool_proj"
  type: "ReLU"
  bottom: "inception_4c/pool_proj"
  top: "inception_4c/pool_proj"
}
layer {
  name: "inception_4c/output"
  type: "Concat"
  bottom: "inception_4c/1x1"
  bottom: "inception_4c/3x3"
  bottom: "inception_4c/5x5"
  bottom: "inception_4c/pool_proj"
  top: "inception_4c/output"
}
layer {
  name: "inception_4d/1x1"
  type: "Convolution"
  bottom: "inception_4c/output"
  top: "inception_4d/1x1"
  param {
    lr_mult: 1
    decay_mult: 1
  }
  param {
    lr_mult: 2
    decay_mult: 0
  }
  convolution_param {
    num_output: 112
    kernel_size: 1
    weight_filler {
      type: "xavier"
      std: 0.03
    }
    bias_filler {
      type: "constant"
      value: 0.2
    }
  }
}
layer {
  name: "inception_4d/relu_1x1"
  type: "ReLU"
  bottom: "inception_4d/1x1"
  top: "inception_4d/1x1"
}
layer {
  name: "inception_4d/3x3_reduce"
  type: "Convolution"
  bottom: "inception_4c/output"
  top: "inception_4d/3x3_reduce"
  param {
    lr_mult: 1
    decay_mult: 1
  }
  param {
    lr_mult: 2
    decay_mult: 0
  }
  convolution_param {
    num_output: 144
    kernel_size: 1
    weight_filler {
      type: "xavier"
      std: 0.09
    }
    bias_filler {
      type: "constant"
      value: 0.2
    }
  }
}
layer {
  name: "inception_4d/relu_3x3_reduce"
  type: "ReLU"
  bottom: "inception_4d/3x3_reduce"
  top: "inception_4d/3x3_reduce"
}
layer {
  name: "inception_4d/3x3"
  type: "Convolution"
  bottom: "inception_4d/3x3_reduce"
  top: "inception_4d/3x3"
  param {
    lr_mult: 1
    decay_mult: 1
  }
  param {
    lr_mult: 2
    decay_mult: 0
  }
  convolution_param {
    num_output: 288
    pad: 1
    kernel_size: 3
    weight_filler {
      type: "xavier"
      std: 0.03
    }
    bias_filler {
      type: "constant"
      value: 0.2
    }
  }
}
layer {
  name: "inception_4d/relu_3x3"
  type: "ReLU"
  bottom: "inception_4d/3x3"
  top: "inception_4d/3x3"
}
layer {
  name: "inception_4d/5x5_reduce"
  type: "Convolution"
  bottom: "inception_4c/output"
  top: "inception_4d/5x5_reduce"
  param {
    lr_mult: 1
    decay_mult: 1
  }
  param {
    lr_mult: 2
    decay_mult: 0
  }
  convolution_param {
    num_output: 32
    kernel_size: 1
    weight_filler {
      type: "xavier"
      std: 0.2
    }
    bias_filler {
      type: "constant"
      value: 0.2
    }
  }
}
layer {
  name: "inception_4d/relu_5x5_reduce"
  type: "ReLU"
  bottom: "inception_4d/5x5_reduce"
  top: "inception_4d/5x5_reduce"
}
layer {
  name: "inception_4d/5x5"
  type: "Convolution"
  bottom: "inception_4d/5x5_reduce"
  top: "inception_4d/5x5"
  param {
    lr_mult: 1
    decay_mult: 1
  }
  param {
    lr_mult: 2
    decay_mult: 0
  }
  convolution_param {
    num_output: 64
    pad: 2
    kernel_size: 5
    weight_filler {
      type: "xavier"
      std: 0.03
    }
    bias_filler {
      type: "constant"
      value: 0.2
    }
  }
}
layer {
  name: "inception_4d/relu_5x5"
  type: "ReLU"
  bottom: "inception_4d/5x5"
  top: "inception_4d/5x5"
}
layer {
  name: "inception_4d/pool"
  type: "Pooling"
  bottom: "inception_4c/output"
  top: "inception_4d/pool"
  pooling_param {
    pool: MAX
    kernel_size: 3
    stride: 1
    pad: 1
  }
}
layer {
  name: "inception_4d/pool_proj"
  type: "Convolution"
  bottom: "inception_4d/pool"
  top: "inception_4d/pool_proj"
  param {
    lr_mult: 1
    decay_mult: 1
  }
  param {
    lr_mult: 2
    decay_mult: 0
  }
  convolution_param {
    num_output: 64
    kernel_size: 1
    weight_filler {
      type: "xavier"
      std: 0.1
    }
    bias_filler {
      type: "constant"
      value: 0.2
    }
  }
}
layer {
  name: "inception_4d/relu_pool_proj"
  type: "ReLU"
  bottom: "inception_4d/pool_proj"
  top: "inception_4d/pool_proj"
}
layer {
  name: "inception_4d/output"
  type: "Concat"
  bottom: "inception_4d/1x1"
  bottom: "inception_4d/3x3"
  bottom: "inception_4d/5x5"
  bottom: "inception_4d/pool_proj"
  top: "inception_4d/output"
}
layer {
  name: "inception_4e/1x1"
  type: "Convolution"
  bottom: "inception_4d/output"
  top: "inception_4e/1x1"
  param {
    lr_mult: 1
    decay_mult: 1
  }
  param {
    lr_mult: 2
    decay_mult: 0
  }
  convolution_param {
    num_output: 256
    kernel_size: 1
    weight_filler {
      type: "xavier"
      std: 0.03
    }
    bias_filler {
      type: "constant"
      value: 0.2
    }
  }
}
layer {
  name: "inception_4e/relu_1x1"
  type: "ReLU"
  bottom: "inception_4e/1x1"
  top: "inception_4e/1x1"
}
layer {
  name: "inception_4e/3x3_reduce"
  type: "Convolution"
  bottom: "inception_4d/output"
  top: "inception_4e/3x3_reduce"
  param {
    lr_mult: 1
    decay_mult: 1
  }
  param {
    lr_mult: 2
    decay_mult: 0
  }
  convolution_param {
    num_output: 160
    kernel_size: 1
    weight_filler {
      type: "xavier"
      std: 0.09
    }
    bias_filler {
      type: "constant"
      value: 0.2
    }
  }
}
layer {
  name: "inception_4e/relu_3x3_reduce"
  type: "ReLU"
  bottom: "inception_4e/3x3_reduce"
  top: "inception_4e/3x3_reduce"
}
layer {
  name: "inception_4e/3x3"
  type: "Convolution"
  bottom: "inception_4e/3x3_reduce"
  top: "inception_4e/3x3"
  param {
    lr_mult: 1
    decay_mult: 1
  }
  param {
    lr_mult: 2
    decay_mult: 0
  }
  convolution_param {
    num_output: 320
    pad: 1
    kernel_size: 3
    weight_filler {
      type: "xavier"
      std: 0.03
    }
    bias_filler {
      type: "constant"
      value: 0.2
    }
  }
}
layer {
  name: "inception_4e/relu_3x3"
  type: "ReLU"
  bottom: "inception_4e/3x3"
  top: "inception_4e/3x3"
}
layer {
  name: "inception_4e/5x5_reduce"
  type: "Convolution"
  bottom: "inception_4d/output"
  top: "inception_4e/5x5_reduce"
  param {
    lr_mult: 1
    decay_mult: 1
  }
  param {
    lr_mult: 2
    decay_mult: 0
  }
  convolution_param {
    num_output: 32
    kernel_size: 1
    weight_filler {
      type: "xavier"
      std: 0.2
    }
    bias_filler {
      type: "constant"
      value: 0.2
    }
  }
}
layer {
  name: "inception_4e/relu_5x5_reduce"
  type: "ReLU"
  bottom: "inception_4e/5x5_reduce"
  top: "inception_4e/5x5_reduce"
}
layer {
  name: "inception_4e/5x5"
  type: "Convolution"
  bottom: "inception_4e/5x5_reduce"
  top: "inception_4e/5x5"
  param {
    lr_mult: 1
    decay_mult: 1
  }
  param {
    lr_mult: 2
    decay_mult: 0
  }
  convolution_param {
    num_output: 128
    pad: 2
    kernel_size: 5
    weight_filler {
      type: "xavier"
      std: 0.03
    }
    bias_filler {
      type: "constant"
      value: 0.2
    }
  }
}
layer {
  name: "inception_4e/relu_5x5"
  type: "ReLU"
  bottom: "inception_4e/5x5"
  top: "inception_4e/5x5"
}
layer {
  name: "inception_4e/pool"
  type: "Pooling"
  bottom: "inception_4d/output"
  top: "inception_4e/pool"
  pooling_param {
    pool: MAX
    kernel_size: 3
    stride: 1
    pad: 1
  }
}
layer {
  name: "inception_4e/pool_proj"
  type: "Convolution"
  bottom: "inception_4e/pool"
  top: "inception_4e/pool_proj"
  param {
    lr_mult: 1
    decay_mult: 1
  }
  param {
    lr_mult: 2
    decay_mult: 0
  }
  convolution_param {
    num_output: 128
    kernel_size: 1
    weight_filler {
      type: "xavier"
      std: 0.1
    }
    bias_filler {
      type: "constant"
      value: 0.2
    }
  }
}
layer {
  name: "inception_4e/relu_pool_proj"
  type: "ReLU"
  bottom: "inception_4e/pool_proj"
  top: "inception_4e/pool_proj"
}
layer {
  name: "inception_4e/output"
  type: "Concat"
  bottom: "inception_4e/1x1"
  bottom: "inception_4e/3x3"
  bottom: "inception_4e/5x5"
  bottom: "inception_4e/pool_proj"
  top: "inception_4e/output"
}
layer {
  name: "pool4/3x3_s2"
  type: "Pooling"
  bottom: "inception_4e/output"
  top: "pool4/3x3_s2"
  pooling_param {
    pool: MAX
    kernel_size: 3
    stride: 2
  }
}
layer {
  name: "inception_5a/1x1"
  type: "Convolution"
  bottom: "pool4/3x3_s2"
  top: "inception_5a/1x1"
  param {
    lr_mult: 1
    decay_mult: 1
  }
  param {
    lr_mult: 2
    decay_mult: 0
  }
  convolution_param {
    num_output: 256
    kernel_size: 1
    weight_filler {
      type: "xavier"
      std: 0.03
    }
    bias_filler {
      type: "constant"
      value: 0.2
    }
  }
}
layer {
  name: "inception_5a/relu_1x1"
  type: "ReLU"
  bottom: "inception_5a/1x1"
  top: "inception_5a/1x1"
}
layer {
  name: "inception_5a/3x3_reduce"
  type: "Convolution"
  bottom: "pool4/3x3_s2"
  top: "inception_5a/3x3_reduce"
  param {
    lr_mult: 1
    decay_mult: 1
  }
  param {
    lr_mult: 2
    decay_mult: 0
  }
  convolution_param {
    num_output: 160
    kernel_size: 1
    weight_filler {
      type: "xavier"
      std: 0.09
    }
    bias_filler {
      type: "constant"
      value: 0.2
    }
  }
}
layer {
  name: "inception_5a/relu_3x3_reduce"
  type: "ReLU"
  bottom: "inception_5a/3x3_reduce"
  top: "inception_5a/3x3_reduce"
}
layer {
  name: "inception_5a/3x3"
  type: "Convolution"
  bottom: "inception_5a/3x3_reduce"
  top: "inception_5a/3x3"
  param {
    lr_mult: 1
    decay_mult: 1
  }
  param {
    lr_mult: 2
    decay_mult: 0
  }
  convolution_param {
    num_output: 320
    pad: 1
    kernel_size: 3
    weight_filler {
      type: "xavier"
      std: 0.03
    }
    bias_filler {
      type: "constant"
      value: 0.2
    }
  }
}
layer {
  name: "inception_5a/relu_3x3"
  type: "ReLU"
  bottom: "inception_5a/3x3"
  top: "inception_5a/3x3"
}
layer {
  name: "inception_5a/5x5_reduce"
  type: "Convolution"
  bottom: "pool4/3x3_s2"
  top: "inception_5a/5x5_reduce"
  param {
    lr_mult: 1
    decay_mult: 1
  }
  param {
    lr_mult: 2
    decay_mult: 0
  }
  convolution_param {
    num_output: 32
    kernel_size: 1
    weight_filler {
      type: "xavier"
      std: 0.2
    }
    bias_filler {
      type: "constant"
      value: 0.2
    }
I0729 16:41:23.573643 15173 layer_factory.hpp:77] Creating layer data
I0729 16:41:23.573662 15173 net.cpp:91] Creating Layer data
I0729 16:41:23.573668 15173 net.cpp:399] data -> data
I0729 16:41:24.583585 15177 net.cpp:141] Setting up data
I0729 16:41:24.583694 15177 net.cpp:148] Top shape: 10 3 224 224 (1505280)
I0729 16:41:24.583709 15177 net.cpp:156] Memory required for data: 6021120
I0729 16:41:24.583734 15177 layer_factory.hpp:77] Creating layer conv1/7x7_s2
I0729 16:41:24.583780 15177 net.cpp:91] Creating Layer conv1/7x7_s2
I0729 16:41:24.583791 15177 net.cpp:425] conv1/7x7_s2 <- data
I0729 16:41:24.583809 15177 net.cpp:399] conv1/7x7_s2 -> conv1/7x7_s2
I0729 16:41:24.585417 15173 net.cpp:141] Setting up data
I0729 16:41:24.585443 15173 net.cpp:148] Top shape: 10 3 224 224 (1505280)
I0729 16:41:24.585449 15173 net.cpp:156] Memory required for data: 6021120
I0729 16:41:24.585458 15173 layer_factory.hpp:77] Creating layer conv1/7x7_s2
I0729 16:41:24.585494 15173 net.cpp:91] Creating Layer conv1/7x7_s2
I0729 16:41:24.585501 15173 net.cpp:425] conv1/7x7_s2 <- data
I0729 16:41:24.585515 15173 net.cpp:399] conv1/7x7_s2 -> conv1/7x7_s2
I0729 16:41:25.037820 15177 net.cpp:141] Setting up conv1/7x7_s2
I0729 16:41:25.037873 15177 net.cpp:148] Top shape: 10 64 112 112 (8028160)
I0729 16:41:25.037880 15177 net.cpp:156] Memory required for data: 38133760
I0729 16:41:25.037911 15177 layer_factory.hpp:77] Creating layer conv1/relu_7x7
I0729 16:41:25.037937 15177 net.cpp:91] Creating Layer conv1/relu_7x7
I0729 16:41:25.037945 15177 net.cpp:425] conv1/relu_7x7 <- conv1/7x7_s2
I0729 16:41:25.037956 15177 net.cpp:386] conv1/relu_7x7 -> conv1/7x7_s2 (in-place)
I0729 16:41:25.039113 15177 net.cpp:141] Setting up conv1/relu_7x7
I0729 16:41:25.039134 15177 net.cpp:148] Top shape: 10 64 112 112 (8028160)
I0729 16:41:25.039139 15177 net.cpp:156] Memory required for data: 70246400
I0729 16:41:25.039146 15177 layer_factory.hpp:77] Creating layer pool1/3x3_s2
I0729 16:41:25.039165 15177 net.cpp:91] Creating Layer pool1/3x3_s2
I0729 16:41:25.039171 15177 net.cpp:425] pool1/3x3_s2 <- conv1/7x7_s2
I0729 16:41:25.039180 15177 net.cpp:399] pool1/3x3_s2 -> pool1/3x3_s2
I0729 16:41:25.040520 15177 net.cpp:141] Setting up pool1/3x3_s2
I0729 16:41:25.040544 15177 net.cpp:148] Top shape: 10 64 56 56 (2007040)
I0729 16:41:25.040550 15177 net.cpp:156] Memory required for data: 78274560
I0729 16:41:25.040556 15177 layer_factory.hpp:77] Creating layer pool1/norm1
I0729 16:41:25.040578 15177 net.cpp:91] Creating Layer pool1/norm1
I0729 16:41:25.040585 15177 net.cpp:425] pool1/norm1 <- pool1/3x3_s2
I0729 16:41:25.040594 15177 net.cpp:399] pool1/norm1 -> pool1/norm1
I0729 16:41:25.042151 15177 net.cpp:141] Setting up pool1/norm1
I0729 16:41:25.042176 15177 net.cpp:148] Top shape: 10 64 56 56 (2007040)
I0729 16:41:25.042181 15177 net.cpp:156] Memory required for data: 86302720
I0729 16:41:25.042187 15177 layer_factory.hpp:77] Creating layer conv2/3x3_reduce
I0729 16:41:25.042213 15177 net.cpp:91] Creating Layer conv2/3x3_reduce
I0729 16:41:25.042220 15177 net.cpp:425] conv2/3x3_reduce <- pool1/norm1
I0729 16:41:25.042230 15177 net.cpp:399] conv2/3x3_reduce -> conv2/3x3_reduce
I0729 16:41:25.044878 15173 net.cpp:141] Setting up conv1/7x7_s2
I0729 16:41:25.044908 15173 net.cpp:148] Top shape: 10 64 112 112 (8028160)
I0729 16:41:25.044914 15173 net.cpp:156] Memory required for data: 38133760
I0729 16:41:25.044940 15173 layer_factory.hpp:77] Creating layer conv1/relu_7x7
I0729 16:41:25.044958 15173 net.cpp:91] Creating Layer conv1/relu_7x7
I0729 16:41:25.044968 15173 net.cpp:425] conv1/relu_7x7 <- conv1/7x7_s2
I0729 16:41:25.044976 15173 net.cpp:386] conv1/relu_7x7 -> conv1/7x7_s2 (in-place)
I0729 16:41:25.045805 15173 net.cpp:141] Setting up conv1/relu_7x7
I0729 16:41:25.045825 15173 net.cpp:148] Top shape: 10 64 112 112 (8028160)
I0729 16:41:25.045830 15173 net.cpp:156] Memory required for data: 70246400
I0729 16:41:25.045836 15173 layer_factory.hpp:77] Creating layer pool1/3x3_s2
I0729 16:41:25.045850 15173 net.cpp:91] Creating Layer pool1/3x3_s2
I0729 16:41:25.045855 15173 net.cpp:425] pool1/3x3_s2 <- conv1/7x7_s2
I0729 16:41:25.045864 15173 net.cpp:399] pool1/3x3_s2 -> pool1/3x3_s2
I0729 16:41:25.046248 15173 net.cpp:141] Setting up pool1/3x3_s2
I0729 16:41:25.046262 15173 net.cpp:148] Top shape: 10 64 56 56 (2007040)
I0729 16:41:25.046267 15173 net.cpp:156] Memory required for data: 78274560
I0729 16:41:25.046273 15173 layer_factory.hpp:77] Creating layer pool1/norm1
I0729 16:41:25.046283 15173 net.cpp:91] Creating Layer pool1/norm1
I0729 16:41:25.046289 15173 net.cpp:425] pool1/norm1 <- pool1/3x3_s2
I0729 16:41:25.046299 15173 net.cpp:399] pool1/norm1 -> pool1/norm1
I0729 16:41:25.047484 15177 net.cpp:141] Setting up conv2/3x3_reduce
I0729 16:41:25.047499 15173 net.cpp:141] Setting up pool1/norm1
I0729 16:41:25.047508 15177 net.cpp:148] Top shape: 10 64 56 56 (2007040)
I0729 16:41:25.047513 15177 net.cpp:156] Memory required for data: 94330880
I0729 16:41:25.047515 15173 net.cpp:148] Top shape: 10 64 56 56 (2007040)
I0729 16:41:25.047521 15173 net.cpp:156] Memory required for data: 86302720
I0729 16:41:25.047528 15173 layer_factory.hpp:77] Creating layer conv2/3x3_reduce
I0729 16:41:25.047528 15177 layer_factory.hpp:77] Creating layer conv2/relu_3x3_reduce
I0729 16:41:25.047543 15177 net.cpp:91] Creating Layer conv2/relu_3x3_reduce
I0729 16:41:25.047546 15173 net.cpp:91] Creating Layer conv2/3x3_reduce
I0729 16:41:25.047549 15177 net.cpp:425] conv2/relu_3x3_reduce <- conv2/3x3_reduce
I0729 16:41:25.047552 15173 net.cpp:425] conv2/3x3_reduce <- pool1/norm1
I0729 16:41:25.047559 15177 net.cpp:386] conv2/relu_3x3_reduce -> conv2/3x3_reduce (in-place)
I0729 16:41:25.047561 15173 net.cpp:399] conv2/3x3_reduce -> conv2/3x3_reduce
I0729 16:41:25.048568 15177 net.cpp:141] Setting up conv2/relu_3x3_reduce
I0729 16:41:25.048585 15177 net.cpp:148] Top shape: 10 64 56 56 (2007040)
I0729 16:41:25.048590 15177 net.cpp:156] Memory required for data: 102359040
I0729 16:41:25.048596 15177 layer_factory.hpp:77] Creating layer conv2/3x3
I0729 16:41:25.048612 15177 net.cpp:91] Creating Layer conv2/3x3
I0729 16:41:25.048619 15177 net.cpp:425] conv2/3x3 <- conv2/3x3_reduce
I0729 16:41:25.048629 15177 net.cpp:399] conv2/3x3 -> conv2/3x3
I0729 16:41:25.053154 15173 net.cpp:141] Setting up conv2/3x3_reduce
I0729 16:41:25.053177 15173 net.cpp:148] Top shape: 10 64 56 56 (2007040)
I0729 16:41:25.053184 15173 net.cpp:156] Memory required for data: 94330880
I0729 16:41:25.053196 15173 layer_factory.hpp:77] Creating layer conv2/relu_3x3_reduce
I0729 16:41:25.053206 15173 net.cpp:91] Creating Layer conv2/relu_3x3_reduce
I0729 16:41:25.053212 15173 net.cpp:425] conv2/relu_3x3_reduce <- conv2/3x3_reduce
I0729 16:41:25.053225 15173 net.cpp:386] conv2/relu_3x3_reduce -> conv2/3x3_reduce (in-place)
I0729 16:41:25.054081 15173 net.cpp:141] Setting up conv2/relu_3x3_reduce
I0729 16:41:25.054098 15173 net.cpp:148] Top shape: 10 64 56 56 (2007040)
I0729 16:41:25.054103 15173 net.cpp:156] Memory required for data: 102359040
I0729 16:41:25.054110 15173 layer_factory.hpp:77] Creating layer conv2/3x3
I0729 16:41:25.054124 15173 net.cpp:91] Creating Layer conv2/3x3
I0729 16:41:25.054131 15173 net.cpp:425] conv2/3x3 <- conv2/3x3_reduce
I0729 16:41:25.054139 15173 net.cpp:399] conv2/3x3 -> conv2/3x3
I0729 16:41:25.058881 15177 net.cpp:141] Setting up conv2/3x3
I0729 16:41:25.058902 15177 net.cpp:148] Top shape: 10 192 56 56 (6021120)
I0729 16:41:25.058907 15177 net.cpp:156] Memory required for data: 126443520
I0729 16:41:25.058922 15177 layer_factory.hpp:77] Creating layer conv2/relu_3x3
I0729 16:41:25.058939 15177 net.cpp:91] Creating Layer conv2/relu_3x3
I0729 16:41:25.058945 15177 net.cpp:425] conv2/relu_3x3 <- conv2/3x3
I0729 16:41:25.058954 15177 net.cpp:386] conv2/relu_3x3 -> conv2/3x3 (in-place)
I0729 16:41:25.059312 15177 net.cpp:141] Setting up conv2/relu_3x3
I0729 16:41:25.059325 15177 net.cpp:148] Top shape: 10 192 56 56 (6021120)
I0729 16:41:25.059330 15177 net.cpp:156] Memory required for data: 150528000
I0729 16:41:25.059336 15177 layer_factory.hpp:77] Creating layer conv2/norm2
I0729 16:41:25.059350 15177 net.cpp:91] Creating Layer conv2/norm2
I0729 16:41:25.059357 15177 net.cpp:425] conv2/norm2 <- conv2/3x3
I0729 16:41:25.059365 15177 net.cpp:399] conv2/norm2 -> conv2/norm2
I0729 16:41:25.061740 15177 net.cpp:141] Setting up conv2/norm2
I0729 16:41:25.061758 15177 net.cpp:148] Top shape: 10 192 56 56 (6021120)
I0729 16:41:25.061763 15177 net.cpp:156] Memory required for data: 174612480
I0729 16:41:25.061769 15177 layer_factory.hpp:77] Creating layer pool2/3x3_s2
I0729 16:41:25.061782 15177 net.cpp:91] Creating Layer pool2/3x3_s2
I0729 16:41:25.061789 15177 net.cpp:425] pool2/3x3_s2 <- conv2/norm2
I0729 16:41:25.061797 15177 net.cpp:399] pool2/3x3_s2 -> pool2/3x3_s2
I0729 16:41:25.063151 15177 net.cpp:141] Setting up pool2/3x3_s2
I0729 16:41:25.063166 15177 net.cpp:148] Top shape: 10 192 28 28 (1505280)
I0729 16:41:25.063170 15177 net.cpp:156] Memory required for data: 180633600
I0729 16:41:25.063179 15177 layer_factory.hpp:77] Creating layer pool2/3x3_s2_pool2/3x3_s2_0_split
I0729 16:41:25.063200 15177 net.cpp:91] Creating Layer pool2/3x3_s2_pool2/3x3_s2_0_split
I0729 16:41:25.063206 15177 net.cpp:425] pool2/3x3_s2_pool2/3x3_s2_0_split <- pool2/3x3_s2
I0729 16:41:25.063213 15177 net.cpp:399] pool2/3x3_s2_pool2/3x3_s2_0_split -> pool2/3x3_s2_pool2/3x3_s2_0_split_0
I0729 16:41:25.063226 15177 net.cpp:399] pool2/3x3_s2_pool2/3x3_s2_0_split -> pool2/3x3_s2_pool2/3x3_s2_0_split_1
I0729 16:41:25.063236 15177 net.cpp:399] pool2/3x3_s2_pool2/3x3_s2_0_split -> pool2/3x3_s2_pool2/3x3_s2_0_split_2
I0729 16:41:25.063244 15177 net.cpp:399] pool2/3x3_s2_pool2/3x3_s2_0_split -> pool2/3x3_s2_pool2/3x3_s2_0_split_3
I0729 16:41:25.063654 15177 net.cpp:141] Setting up pool2/3x3_s2_pool2/3x3_s2_0_split
I0729 16:41:25.063668 15177 net.cpp:148] Top shape: 10 192 28 28 (1505280)
I0729 16:41:25.063674 15177 net.cpp:148] Top shape: 10 192 28 28 (1505280)
I0729 16:41:25.063680 15177 net.cpp:148] Top shape: 10 192 28 28 (1505280)
I0729 16:41:25.063685 15177 net.cpp:148] Top shape: 10 192 28 28 (1505280)
I0729 16:41:25.063690 15177 net.cpp:156] Memory required for data: 204718080
I0729 16:41:25.063695 15177 layer_factory.hpp:77] Creating layer inception_3a/1x1
I0729 16:41:25.063712 15177 net.cpp:91] Creating Layer inception_3a/1x1
I0729 16:41:25.063719 15177 net.cpp:425] inception_3a/1x1 <- pool2/3x3_s2_pool2/3x3_s2_0_split_0
I0729 16:41:25.063745 15177 net.cpp:399] inception_3a/1x1 -> inception_3a/1x1
I0729 16:41:25.065426 15173 net.cpp:141] Setting up conv2/3x3
I0729 16:41:25.065491 15173 net.cpp:148] Top shape: 10 192 56 56 (6021120)
I0729 16:41:25.065503 15173 net.cpp:156] Memory required for data: 126443520
I0729 16:41:25.065538 15173 layer_factory.hpp:77] Creating layer conv2/relu_3x3
I0729 16:41:25.065629 15173 net.cpp:91] Creating Layer conv2/relu_3x3
I0729 16:41:25.065639 15173 net.cpp:425] conv2/relu_3x3 <- conv2/3x3
I0729 16:41:25.065649 15173 net.cpp:386] conv2/relu_3x3 -> conv2/3x3 (in-place)
I0729 16:41:25.066156 15173 net.cpp:141] Setting up conv2/relu_3x3
I0729 16:41:25.066170 15173 net.cpp:148] Top shape: 10 192 56 56 (6021120)
I0729 16:41:25.066175 15173 net.cpp:156] Memory required for data: 150528000
I0729 16:41:25.066182 15173 layer_factory.hpp:77] Creating layer conv2/norm2
I0729 16:41:25.066196 15173 net.cpp:91] Creating Layer conv2/norm2
I0729 16:41:25.066201 15173 net.cpp:425] conv2/norm2 <- conv2/3x3
I0729 16:41:25.066210 15173 net.cpp:399] conv2/norm2 -> conv2/norm2
I0729 16:41:25.067762 15173 net.cpp:141] Setting up conv2/norm2
I0729 16:41:25.067778 15173 net.cpp:148] Top shape: 10 192 56 56 (6021120)
I0729 16:41:25.067783 15173 net.cpp:156] Memory required for data: 174612480
I0729 16:41:25.067790 15173 layer_factory.hpp:77] Creating layer pool2/3x3_s2
I0729 16:41:25.067798 15173 net.cpp:91] Creating Layer pool2/3x3_s2
I0729 16:41:25.067803 15173 net.cpp:425] pool2/3x3_s2 <- conv2/norm2
I0729 16:41:25.067814 15173 net.cpp:399] pool2/3x3_s2 -> pool2/3x3_s2
I0729 16:41:25.068712 15173 net.cpp:141] Setting up pool2/3x3_s2
I0729 16:41:25.068729 15173 net.cpp:148] Top shape: 10 192 28 28 (1505280)
I0729 16:41:25.068734 15173 net.cpp:156] Memory required for data: 180633600
I0729 16:41:25.068739 15173 layer_factory.hpp:77] Creating layer pool2/3x3_s2_pool2/3x3_s2_0_split
I0729 16:41:25.068748 15173 net.cpp:91] Creating Layer pool2/3x3_s2_pool2/3x3_s2_0_split
I0729 16:41:25.068753 15173 net.cpp:425] pool2/3x3_s2_pool2/3x3_s2_0_split <- pool2/3x3_s2
I0729 16:41:25.068759 15173 net.cpp:399] pool2/3x3_s2_pool2/3x3_s2_0_split -> pool2/3x3_s2_pool2/3x3_s2_0_split_0
I0729 16:41:25.068773 15173 net.cpp:399] pool2/3x3_s2_pool2/3x3_s2_0_split -> pool2/3x3_s2_pool2/3x3_s2_0_split_1
I0729 16:41:25.068783 15173 net.cpp:399] pool2/3x3_s2_pool2/3x3_s2_0_split -> pool2/3x3_s2_pool2/3x3_s2_0_split_2
I0729 16:41:25.068792 15173 net.cpp:399] pool2/3x3_s2_pool2/3x3_s2_0_split -> pool2/3x3_s2_pool2/3x3_s2_0_split_3
I0729 16:41:25.069329 15173 net.cpp:141] Setting up pool2/3x3_s2_pool2/3x3_s2_0_split
I0729 16:41:25.069342 15173 net.cpp:148] Top shape: 10 192 28 28 (1505280)
I0729 16:41:25.069350 15173 net.cpp:148] Top shape: 10 192 28 28 (1505280)
I0729 16:41:25.069355 15173 net.cpp:148] Top shape: 10 192 28 28 (1505280)
I0729 16:41:25.069360 15173 net.cpp:148] Top shape: 10 192 28 28 (1505280)
I0729 16:41:25.069365 15173 net.cpp:156] Memory required for data: 204718080
I0729 16:41:25.069376 15173 layer_factory.hpp:77] Creating layer inception_3a/1x1
I0729 16:41:25.069392 15173 net.cpp:91] Creating Layer inception_3a/1x1
I0729 16:41:25.069398 15173 net.cpp:425] inception_3a/1x1 <- pool2/3x3_s2_pool2/3x3_s2_0_split_0
I0729 16:41:25.069413 15173 net.cpp:399] inception_3a/1x1 -> inception_3a/1x1
I0729 16:41:25.072453 15177 net.cpp:141] Setting up inception_3a/1x1
I0729 16:41:25.072484 15177 net.cpp:148] Top shape: 10 64 28 28 (501760)
I0729 16:41:25.072490 15177 net.cpp:156] Memory required for data: 206725120
I0729 16:41:25.072507 15177 layer_factory.hpp:77] Creating layer inception_3a/relu_1x1
I0729 16:41:25.072566 15177 net.cpp:91] Creating Layer inception_3a/relu_1x1
I0729 16:41:25.072579 15177 net.cpp:425] inception_3a/relu_1x1 <- inception_3a/1x1
I0729 16:41:25.072590 15177 net.cpp:386] inception_3a/relu_1x1 -> inception_3a/1x1 (in-place)
I0729 16:41:25.073010 15177 net.cpp:141] Setting up inception_3a/relu_1x1
I0729 16:41:25.073029 15177 net.cpp:148] Top shape: 10 64 28 28 (501760)
I0729 16:41:25.073035 15177 net.cpp:156] Memory required for data: 208732160
I0729 16:41:25.073040 15177 layer_factory.hpp:77] Creating layer inception_3a/3x3_reduce
I0729 16:41:25.073060 15177 net.cpp:91] Creating Layer inception_3a/3x3_reduce
I0729 16:41:25.073066 15177 net.cpp:425] inception_3a/3x3_reduce <- pool2/3x3_s2_pool2/3x3_s2_0_split_1
I0729 16:41:25.073076 15177 net.cpp:399] inception_3a/3x3_reduce -> inception_3a/3x3_reduce
I0729 16:41:25.080605 15173 net.cpp:141] Setting up inception_3a/1x1
I0729 16:41:25.080627 15173 net.cpp:148] Top shape: 10 64 28 28 (501760)
I0729 16:41:25.080633 15173 net.cpp:156] Memory required for data: 206725120
I0729 16:41:25.080648 15173 layer_factory.hpp:77] Creating layer inception_3a/relu_1x1
I0729 16:41:25.080663 15173 net.cpp:91] Creating Layer inception_3a/relu_1x1
I0729 16:41:25.080669 15173 net.cpp:425] inception_3a/relu_1x1 <- inception_3a/1x1
I0729 16:41:25.080677 15173 net.cpp:386] inception_3a/relu_1x1 -> inception_3a/1x1 (in-place)
I0729 16:41:25.080965 15173 net.cpp:141] Setting up inception_3a/relu_1x1
I0729 16:41:25.080976 15173 net.cpp:148] Top shape: 10 64 28 28 (501760)
I0729 16:41:25.080981 15173 net.cpp:156] Memory required for data: 208732160
I0729 16:41:25.080986 15173 layer_factory.hpp:77] Creating layer inception_3a/3x3_reduce
I0729 16:41:25.081003 15173 net.cpp:91] Creating Layer inception_3a/3x3_reduce
I0729 16:41:25.081009 15173 net.cpp:425] inception_3a/3x3_reduce <- pool2/3x3_s2_pool2/3x3_s2_0_split_1
I0729 16:41:25.081022 15173 net.cpp:399] inception_3a/3x3_reduce -> inception_3a/3x3_reduce
I0729 16:41:25.083647 15177 net.cpp:141] Setting up inception_3a/3x3_reduce
I0729 16:41:25.083667 15177 net.cpp:148] Top shape: 10 96 28 28 (752640)
I0729 16:41:25.083673 15177 net.cpp:156] Memory required for data: 211742720
I0729 16:41:25.083696 15177 layer_factory.hpp:77] Creating layer inception_3a/relu_3x3_reduce
I0729 16:41:25.083708 15177 net.cpp:91] Creating Layer inception_3a/relu_3x3_reduce
I0729 16:41:25.083714 15177 net.cpp:425] inception_3a/relu_3x3_reduce <- inception_3a/3x3_reduce
I0729 16:41:25.083724 15177 net.cpp:386] inception_3a/relu_3x3_reduce -> inception_3a/3x3_reduce (in-place)
I0729 16:41:25.084079 15177 net.cpp:141] Setting up inception_3a/relu_3x3_reduce
I0729 16:41:25.084091 15177 net.cpp:148] Top shape: 10 96 28 28 (752640)
I0729 16:41:25.084096 15177 net.cpp:156] Memory required for data: 214753280
I0729 16:41:25.084102 15177 layer_factory.hpp:77] Creating layer inception_3a/3x3
I0729 16:41:25.084134 15177 net.cpp:91] Creating Layer inception_3a/3x3
I0729 16:41:25.084141 15177 net.cpp:425] inception_3a/3x3 <- inception_3a/3x3_reduce
I0729 16:41:25.084151 15177 net.cpp:399] inception_3a/3x3 -> inception_3a/3x3
I0729 16:41:25.086773 15173 net.cpp:141] Setting up inception_3a/3x3_reduce
I0729 16:41:25.086793 15173 net.cpp:148] Top shape: 10 96 28 28 (752640)
I0729 16:41:25.086799 15173 net.cpp:156] Memory required for data: 211742720
I0729 16:41:25.086813 15173 layer_factory.hpp:77] Creating layer inception_3a/relu_3x3_reduce
I0729 16:41:25.086827 15173 net.cpp:91] Creating Layer inception_3a/relu_3x3_reduce
I0729 16:41:25.086833 15173 net.cpp:425] inception_3a/relu_3x3_reduce <- inception_3a/3x3_reduce
I0729 16:41:25.086843 15173 net.cpp:386] inception_3a/relu_3x3_reduce -> inception_3a/3x3_reduce (in-place)
I0729 16:41:25.087118 15173 net.cpp:141] Setting up inception_3a/relu_3x3_reduce
I0729 16:41:25.087131 15173 net.cpp:148] Top shape: 10 96 28 28 (752640)
I0729 16:41:25.087136 15173 net.cpp:156] Memory required for data: 214753280
I0729 16:41:25.087141 15173 layer_factory.hpp:77] Creating layer inception_3a/3x3
I0729 16:41:25.087159 15173 net.cpp:91] Creating Layer inception_3a/3x3
I0729 16:41:25.087165 15173 net.cpp:425] inception_3a/3x3 <- inception_3a/3x3_reduce
I0729 16:41:25.087177 15173 net.cpp:399] inception_3a/3x3 -> inception_3a/3x3
I0729 16:41:25.089287 15177 net.cpp:141] Setting up inception_3a/3x3
I0729 16:41:25.089308 15177 net.cpp:148] Top shape: 10 128 28 28 (1003520)
I0729 16:41:25.089313 15177 net.cpp:156] Memory required for data: 218767360
I0729 16:41:25.089323 15177 layer_factory.hpp:77] Creating layer inception_3a/relu_3x3
I0729 16:41:25.089332 15177 net.cpp:91] Creating Layer inception_3a/relu_3x3
I0729 16:41:25.089339 15177 net.cpp:425] inception_3a/relu_3x3 <- inception_3a/3x3
I0729 16:41:25.089350 15177 net.cpp:386] inception_3a/relu_3x3 -> inception_3a/3x3 (in-place)
I0729 16:41:25.090240 15177 net.cpp:141] Setting up inception_3a/relu_3x3
I0729 16:41:25.090257 15177 net.cpp:148] Top shape: 10 128 28 28 (1003520)
I0729 16:41:25.090262 15177 net.cpp:156] Memory required for data: 222781440
I0729 16:41:25.090270 15177 layer_factory.hpp:77] Creating layer inception_3a/5x5_reduce
I0729 16:41:25.090293 15177 net.cpp:91] Creating Layer inception_3a/5x5_reduce
I0729 16:41:25.090301 15177 net.cpp:425] inception_3a/5x5_reduce <- pool2/3x3_s2_pool2/3x3_s2_0_split_2
I0729 16:41:25.090314 15177 net.cpp:399] inception_3a/5x5_reduce -> inception_3a/5x5_reduce
I0729 16:41:25.093657 15173 net.cpp:141] Setting up inception_3a/3x3
I0729 16:41:25.093677 15173 net.cpp:148] Top shape: 10 128 28 28 (1003520)
I0729 16:41:25.093683 15173 net.cpp:156] Memory required for data: 218767360
I0729 16:41:25.093696 15173 layer_factory.hpp:77] Creating layer inception_3a/relu_3x3
I0729 16:41:25.093705 15173 net.cpp:91] Creating Layer inception_3a/relu_3x3
I0729 16:41:25.093711 15173 net.cpp:425] inception_3a/relu_3x3 <- inception_3a/3x3
I0729 16:41:25.093719 15173 net.cpp:386] inception_3a/relu_3x3 -> inception_3a/3x3 (in-place)
I0729 16:41:25.094547 15173 net.cpp:141] Setting up inception_3a/relu_3x3
I0729 16:41:25.094565 15173 net.cpp:148] Top shape: 10 128 28 28 (1003520)
I0729 16:41:25.094571 15173 net.cpp:156] Memory required for data: 222781440
I0729 16:41:25.094576 15173 layer_factory.hpp:77] Creating layer inception_3a/5x5_reduce
I0729 16:41:25.094596 15173 net.cpp:91] Creating Layer inception_3a/5x5_reduce
I0729 16:41:25.094604 15173 net.cpp:425] inception_3a/5x5_reduce <- pool2/3x3_s2_pool2/3x3_s2_0_split_2
I0729 16:41:25.094614 15173 net.cpp:399] inception_3a/5x5_reduce -> inception_3a/5x5_reduce
I0729 16:41:25.095700 15177 net.cpp:141] Setting up inception_3a/5x5_reduce
I0729 16:41:25.095719 15177 net.cpp:148] Top shape: 10 16 28 28 (125440)
I0729 16:41:25.095724 15177 net.cpp:156] Memory required for data: 223283200
I0729 16:41:25.095736 15177 layer_factory.hpp:77] Creating layer inception_3a/relu_5x5_reduce
I0729 16:41:25.095751 15177 net.cpp:91] Creating Layer inception_3a/relu_5x5_reduce
I0729 16:41:25.095757 15177 net.cpp:425] inception_3a/relu_5x5_reduce <- inception_3a/5x5_reduce
I0729 16:41:25.095764 15177 net.cpp:386] inception_3a/relu_5x5_reduce -> inception_3a/5x5_reduce (in-place)
I0729 16:41:25.096127 15177 net.cpp:141] Setting up inception_3a/relu_5x5_reduce
I0729 16:41:25.096139 15177 net.cpp:148] Top shape: 10 16 28 28 (125440)
I0729 16:41:25.096144 15177 net.cpp:156] Memory required for data: 223784960
I0729 16:41:25.096149 15177 layer_factory.hpp:77] Creating layer inception_3a/5x5
I0729 16:41:25.096166 15177 net.cpp:91] Creating Layer inception_3a/5x5
I0729 16:41:25.096173 15177 net.cpp:425] inception_3a/5x5 <- inception_3a/5x5_reduce
I0729 16:41:25.096184 15177 net.cpp:399] inception_3a/5x5 -> inception_3a/5x5
I0729 16:41:25.098518 15173 net.cpp:141] Setting up inception_3a/5x5_reduce
I0729 16:41:25.098536 15173 net.cpp:148] Top shape: 10 16 28 28 (125440)
I0729 16:41:25.098542 15173 net.cpp:156] Memory required for data: 223283200
I0729 16:41:25.098552 15173 layer_factory.hpp:77] Creating layer inception_3a/relu_5x5_reduce
I0729 16:41:25.098562 15173 net.cpp:91] Creating Layer inception_3a/relu_5x5_reduce
I0729 16:41:25.098568 15173 net.cpp:425] inception_3a/relu_5x5_reduce <- inception_3a/5x5_reduce
I0729 16:41:25.098575 15173 net.cpp:386] inception_3a/relu_5x5_reduce -> inception_3a/5x5_reduce (in-place)
I0729 16:41:25.098862 15173 net.cpp:141] Setting up inception_3a/relu_5x5_reduce
I0729 16:41:25.098876 15173 net.cpp:148] Top shape: 10 16 28 28 (125440)
I0729 16:41:25.098881 15173 net.cpp:156] Memory required for data: 223784960
I0729 16:41:25.098888 15173 layer_factory.hpp:77] Creating layer inception_3a/5x5
I0729 16:41:25.098904 15173 net.cpp:91] Creating Layer inception_3a/5x5
I0729 16:41:25.098911 15173 net.cpp:425] inception_3a/5x5 <- inception_3a/5x5_reduce
I0729 16:41:25.098922 15173 net.cpp:399] inception_3a/5x5 -> inception_3a/5x5
I0729 16:41:25.103863 15177 net.cpp:141] Setting up inception_3a/5x5
I0729 16:41:25.103888 15177 net.cpp:148] Top shape: 10 32 28 28 (250880)
I0729 16:41:25.103893 15177 net.cpp:156] Memory required for data: 224788480
I0729 16:41:25.103904 15177 layer_factory.hpp:77] Creating layer inception_3a/relu_5x5
I0729 16:41:25.103915 15177 net.cpp:91] Creating Layer inception_3a/relu_5x5
I0729 16:41:25.103922 15177 net.cpp:425] inception_3a/relu_5x5 <- inception_3a/5x5
I0729 16:41:25.103929 15177 net.cpp:386] inception_3a/relu_5x5 -> inception_3a/5x5 (in-place)
I0729 16:41:25.104259 15177 net.cpp:141] Setting up inception_3a/relu_5x5
I0729 16:41:25.104274 15177 net.cpp:148] Top shape: 10 32 28 28 (250880)
I0729 16:41:25.104279 15177 net.cpp:156] Memory required for data: 225792000
I0729 16:41:25.104286 15177 layer_factory.hpp:77] Creating layer inception_3a/pool
I0729 16:41:25.104305 15177 net.cpp:91] Creating Layer inception_3a/pool
I0729 16:41:25.104311 15177 net.cpp:425] inception_3a/pool <- pool2/3x3_s2_pool2/3x3_s2_0_split_3
I0729 16:41:25.104320 15177 net.cpp:399] inception_3a/pool -> inception_3a/pool
I0729 16:41:25.104852 15177 net.cpp:141] Setting up inception_3a/pool
I0729 16:41:25.104867 15177 net.cpp:148] Top shape: 10 192 28 28 (1505280)
I0729 16:41:25.104872 15177 net.cpp:156] Memory required for data: 231813120
I0729 16:41:25.104877 15177 layer_factory.hpp:77] Creating layer inception_3a/pool_proj
I0729 16:41:25.104894 15177 net.cpp:91] Creating Layer inception_3a/pool_proj
I0729 16:41:25.104900 15177 net.cpp:425] inception_3a/pool_proj <- inception_3a/pool
I0729 16:41:25.104918 15177 net.cpp:399] inception_3a/pool_proj -> inception_3a/pool_proj
I0729 16:41:25.106303 15173 net.cpp:141] Setting up inception_3a/5x5
I0729 16:41:25.106328 15173 net.cpp:148] Top shape: 10 32 28 28 (250880)
I0729 16:41:25.106339 15173 net.cpp:156] Memory required for data: 224788480
I0729 16:41:25.106359 15173 layer_factory.hpp:77] Creating layer inception_3a/relu_5x5
I0729 16:41:25.106375 15173 net.cpp:91] Creating Layer inception_3a/relu_5x5
I0729 16:41:25.106384 15173 net.cpp:425] inception_3a/relu_5x5 <- inception_3a/5x5
I0729 16:41:25.106401 15173 net.cpp:386] inception_3a/relu_5x5 -> inception_3a/5x5 (in-place)
I0729 16:41:25.106775 15173 net.cpp:141] Setting up inception_3a/relu_5x5
I0729 16:41:25.106789 15173 net.cpp:148] Top shape: 10 32 28 28 (250880)
I0729 16:41:25.106794 15173 net.cpp:156] Memory required for data: 225792000
I0729 16:41:25.106799 15173 layer_factory.hpp:77] Creating layer inception_3a/pool
I0729 16:41:25.106812 15173 net.cpp:91] Creating Layer inception_3a/pool
I0729 16:41:25.106818 15173 net.cpp:425] inception_3a/pool <- pool2/3x3_s2_pool2/3x3_s2_0_split_3
I0729 16:41:25.106827 15173 net.cpp:399] inception_3a/pool -> inception_3a/pool
I0729 16:41:25.107659 15173 net.cpp:141] Setting up inception_3a/pool
I0729 16:41:25.107673 15173 net.cpp:148] Top shape: 10 192 28 28 (1505280)
I0729 16:41:25.107678 15173 net.cpp:156] Memory required for data: 231813120
I0729 16:41:25.107683 15173 layer_factory.hpp:77] Creating layer inception_3a/pool_proj
I0729 16:41:25.107710 15173 net.cpp:91] Creating Layer inception_3a/pool_proj
I0729 16:41:25.107717 15173 net.cpp:425] inception_3a/pool_proj <- inception_3a/pool
I0729 16:41:25.107727 15173 net.cpp:399] inception_3a/pool_proj -> inception_3a/pool_proj
I0729 16:41:25.110566 15177 net.cpp:141] Setting up inception_3a/pool_proj
I0729 16:41:25.110589 15177 net.cpp:148] Top shape: 10 32 28 28 (250880)
I0729 16:41:25.110594 15177 net.cpp:156] Memory required for data: 232816640
I0729 16:41:25.110626 15177 layer_factory.hpp:77] Creating layer inception_3a/relu_pool_proj
I0729 16:41:25.110641 15177 net.cpp:91] Creating Layer inception_3a/relu_pool_proj
I0729 16:41:25.110647 15177 net.cpp:425] inception_3a/relu_pool_proj <- inception_3a/pool_proj
I0729 16:41:25.110657 15177 net.cpp:386] inception_3a/relu_pool_proj -> inception_3a/pool_proj (in-place)
I0729 16:41:25.111704 15177 net.cpp:141] Setting up inception_3a/relu_pool_proj
I0729 16:41:25.111723 15177 net.cpp:148] Top shape: 10 32 28 28 (250880)
I0729 16:41:25.111728 15177 net.cpp:156] Memory required for data: 233820160
I0729 16:41:25.111734 15177 layer_factory.hpp:77] Creating layer inception_3a/output
I0729 16:41:25.111758 15177 net.cpp:91] Creating Layer inception_3a/output
I0729 16:41:25.111765 15177 net.cpp:425] inception_3a/output <- inception_3a/1x1
I0729 16:41:25.111773 15177 net.cpp:425] inception_3a/output <- inception_3a/3x3
I0729 16:41:25.111778 15177 net.cpp:425] inception_3a/output <- inception_3a/5x5
I0729 16:41:25.111784 15177 net.cpp:425] inception_3a/output <- inception_3a/pool_proj
I0729 16:41:25.111791 15177 net.cpp:399] inception_3a/output -> inception_3a/output
I0729 16:41:25.112041 15177 net.cpp:141] Setting up inception_3a/output
I0729 16:41:25.112056 15177 net.cpp:148] Top shape: 10 256 28 28 (2007040)
I0729 16:41:25.112061 15177 net.cpp:156] Memory required for data: 241848320
I0729 16:41:25.112068 15177 layer_factory.hpp:77] Creating layer inception_3a/output_inception_3a/output_0_split
I0729 16:41:25.112077 15177 net.cpp:91] Creating Layer inception_3a/output_inception_3a/output_0_split
I0729 16:41:25.112083 15177 net.cpp:425] inception_3a/output_inception_3a/output_0_split <- inception_3a/output
I0729 16:41:25.112090 15177 net.cpp:399] inception_3a/output_inception_3a/output_0_split -> inception_3a/output_inception_3a/output_0_split_0
I0729 16:41:25.112099 15177 net.cpp:399] inception_3a/output_inception_3a/output_0_split -> inception_3a/output_inception_3a/output_0_split_1
I0729 16:41:25.112108 15177 net.cpp:399] inception_3a/output_inception_3a/output_0_split -> inception_3a/output_inception_3a/output_0_split_2
I0729 16:41:25.112120 15177 net.cpp:399] inception_3a/output_inception_3a/output_0_split -> inception_3a/output_inception_3a/output_0_split_3
I0729 16:41:25.112597 15177 net.cpp:141] Setting up inception_3a/output_inception_3a/output_0_split
I0729 16:41:25.112613 15177 net.cpp:148] Top shape: 10 256 28 28 (2007040)
I0729 16:41:25.112622 15177 net.cpp:148] Top shape: 10 256 28 28 (2007040)
I0729 16:41:25.112628 15177 net.cpp:148] Top shape: 10 256 28 28 (2007040)
I0729 16:41:25.112634 15177 net.cpp:148] Top shape: 10 256 28 28 (2007040)
I0729 16:41:25.112638 15177 net.cpp:156] Memory required for data: 273960960
I0729 16:41:25.112645 15177 layer_factory.hpp:77] Creating layer inception_3b/1x1
I0729 16:41:25.112684 15177 net.cpp:91] Creating Layer inception_3b/1x1
I0729 16:41:25.112690 15177 net.cpp:425] inception_3b/1x1 <- inception_3a/output_inception_3a/output_0_split_0
I0729 16:41:25.112700 15177 net.cpp:399] inception_3b/1x1 -> inception_3b/1x1
I0729 16:41:25.113289 15173 net.cpp:141] Setting up inception_3a/pool_proj
I0729 16:41:25.113306 15173 net.cpp:148] Top shape: 10 32 28 28 (250880)
I0729 16:41:25.113312 15173 net.cpp:156] Memory required for data: 232816640
I0729 16:41:25.113329 15173 layer_factory.hpp:77] Creating layer inception_3a/relu_pool_proj
I0729 16:41:25.113343 15173 net.cpp:91] Creating Layer inception_3a/relu_pool_proj
I0729 16:41:25.113350 15173 net.cpp:425] inception_3a/relu_pool_proj <- inception_3a/pool_proj
I0729 16:41:25.113358 15173 net.cpp:386] inception_3a/relu_pool_proj -> inception_3a/pool_proj (in-place)
I0729 16:41:25.114337 15173 net.cpp:141] Setting up inception_3a/relu_pool_proj
I0729 16:41:25.114354 15173 net.cpp:148] Top shape: 10 32 28 28 (250880)
I0729 16:41:25.114361 15173 net.cpp:156] Memory required for data: 233820160
I0729 16:41:25.114365 15173 layer_factory.hpp:77] Creating layer inception_3a/output
I0729 16:41:25.114382 15173 net.cpp:91] Creating Layer inception_3a/output
I0729 16:41:25.114388 15173 net.cpp:425] inception_3a/output <- inception_3a/1x1
I0729 16:41:25.114395 15173 net.cpp:425] inception_3a/output <- inception_3a/3x3
I0729 16:41:25.114403 15173 net.cpp:425] inception_3a/output <- inception_3a/5x5
I0729 16:41:25.114408 15173 net.cpp:425] inception_3a/output <- inception_3a/pool_proj
I0729 16:41:25.114415 15173 net.cpp:399] inception_3a/output -> inception_3a/output
I0729 16:41:25.114512 15173 net.cpp:141] Setting up inception_3a/output
I0729 16:41:25.114524 15173 net.cpp:148] Top shape: 10 256 28 28 (2007040)
I0729 16:41:25.114528 15173 net.cpp:156] Memory required for data: 241848320
I0729 16:41:25.114534 15173 layer_factory.hpp:77] Creating layer inception_3a/output_inception_3a/output_0_split
I0729 16:41:25.114548 15173 net.cpp:91] Creating Layer inception_3a/output_inception_3a/output_0_split
I0729 16:41:25.114558 15173 net.cpp:425] inception_3a/output_inception_3a/output_0_split <- inception_3a/output
I0729 16:41:25.114573 15173 net.cpp:399] inception_3a/output_inception_3a/output_0_split -> inception_3a/output_inception_3a/output_0_split_0
I0729 16:41:25.114583 15173 net.cpp:399] inception_3a/output_inception_3a/output_0_split -> inception_3a/output_inception_3a/output_0_split_1
I0729 16:41:25.114591 15173 net.cpp:399] inception_3a/output_inception_3a/output_0_split -> inception_3a/output_inception_3a/output_0_split_2
I0729 16:41:25.114599 15173 net.cpp:399] inception_3a/output_inception_3a/output_0_split -> inception_3a/output_inception_3a/output_0_split_3
I0729 16:41:25.115660 15173 net.cpp:141] Setting up inception_3a/output_inception_3a/output_0_split
I0729 16:41:25.115680 15173 net.cpp:148] Top shape: 10 256 28 28 (2007040)
I0729 16:41:25.115686 15173 net.cpp:148] Top shape: 10 256 28 28 (2007040)
I0729 16:41:25.115692 15173 net.cpp:148] Top shape: 10 256 28 28 (2007040)
I0729 16:41:25.115698 15173 net.cpp:148] Top shape: 10 256 28 28 (2007040)
I0729 16:41:25.115702 15173 net.cpp:156] Memory required for data: 273960960
I0729 16:41:25.115708 15173 layer_factory.hpp:77] Creating layer inception_3b/1x1
I0729 16:41:25.115731 15173 net.cpp:91] Creating Layer inception_3b/1x1
I0729 16:41:25.115738 15173 net.cpp:425] inception_3b/1x1 <- inception_3a/output_inception_3a/output_0_split_0
I0729 16:41:25.115752 15173 net.cpp:399] inception_3b/1x1 -> inception_3b/1x1
I0729 16:41:25.117357 15177 net.cpp:141] Setting up inception_3b/1x1
I0729 16:41:25.117378 15177 net.cpp:148] Top shape: 10 128 28 28 (1003520)
I0729 16:41:25.117384 15177 net.cpp:156] Memory required for data: 277975040
I0729 16:41:25.117395 15177 layer_factory.hpp:77] Creating layer inception_3b/relu_1x1
I0729 16:41:25.117409 15177 net.cpp:91] Creating Layer inception_3b/relu_1x1
I0729 16:41:25.117416 15177 net.cpp:425] inception_3b/relu_1x1 <- inception_3b/1x1
I0729 16:41:25.117426 15177 net.cpp:386] inception_3b/relu_1x1 -> inception_3b/1x1 (in-place)
I0729 16:41:25.117784 15177 net.cpp:141] Setting up inception_3b/relu_1x1
I0729 16:41:25.117797 15177 net.cpp:148] Top shape: 10 128 28 28 (1003520)
I0729 16:41:25.117802 15177 net.cpp:156] Memory required for data: 281989120
I0729 16:41:25.117807 15177 layer_factory.hpp:77] Creating layer inception_3b/3x3_reduce
I0729 16:41:25.117826 15177 net.cpp:91] Creating Layer inception_3b/3x3_reduce
I0729 16:41:25.117833 15177 net.cpp:425] inception_3b/3x3_reduce <- inception_3a/output_inception_3a/output_0_split_1
I0729 16:41:25.117846 15177 net.cpp:399] inception_3b/3x3_reduce -> inception_3b/3x3_reduce
I0729 16:41:25.121657 15173 net.cpp:141] Setting up inception_3b/1x1
I0729 16:41:25.121680 15173 net.cpp:148] Top shape: 10 128 28 28 (1003520)
I0729 16:41:25.121685 15173 net.cpp:156] Memory required for data: 277975040
I0729 16:41:25.121696 15173 layer_factory.hpp:77] Creating layer inception_3b/relu_1x1
I0729 16:41:25.121709 15173 net.cpp:91] Creating Layer inception_3b/relu_1x1
I0729 16:41:25.121716 15173 net.cpp:425] inception_3b/relu_1x1 <- inception_3b/1x1
I0729 16:41:25.121724 15173 net.cpp:386] inception_3b/relu_1x1 -> inception_3b/1x1 (in-place)
I0729 16:41:25.122020 15173 net.cpp:141] Setting up inception_3b/relu_1x1
I0729 16:41:25.122032 15173 net.cpp:148] Top shape: 10 128 28 28 (1003520)
I0729 16:41:25.122037 15173 net.cpp:156] Memory required for data: 281989120
I0729 16:41:25.122042 15173 layer_factory.hpp:77] Creating layer inception_3b/3x3_reduce
I0729 16:41:25.122059 15173 net.cpp:91] Creating Layer inception_3b/3x3_reduce
I0729 16:41:25.122066 15173 net.cpp:425] inception_3b/3x3_reduce <- inception_3a/output_inception_3a/output_0_split_1
I0729 16:41:25.122077 15173 net.cpp:399] inception_3b/3x3_reduce -> inception_3b/3x3_reduce
I0729 16:41:25.123257 15177 net.cpp:141] Setting up inception_3b/3x3_reduce
I0729 16:41:25.123281 15177 net.cpp:148] Top shape: 10 128 28 28 (1003520)
I0729 16:41:25.123287 15177 net.cpp:156] Memory required for data: 286003200
I0729 16:41:25.123298 15177 layer_factory.hpp:77] Creating layer inception_3b/relu_3x3_reduce
I0729 16:41:25.123312 15177 net.cpp:91] Creating Layer inception_3b/relu_3x3_reduce
I0729 16:41:25.123319 15177 net.cpp:425] inception_3b/relu_3x3_reduce <- inception_3b/3x3_reduce
I0729 16:41:25.123327 15177 net.cpp:386] inception_3b/relu_3x3_reduce -> inception_3b/3x3_reduce (in-place)
I0729 16:41:25.123714 15177 net.cpp:141] Setting up inception_3b/relu_3x3_reduce
I0729 16:41:25.123728 15177 net.cpp:148] Top shape: 10 128 28 28 (1003520)
I0729 16:41:25.123733 15177 net.cpp:156] Memory required for data: 290017280
I0729 16:41:25.123738 15177 layer_factory.hpp:77] Creating layer inception_3b/3x3
I0729 16:41:25.123757 15177 net.cpp:91] Creating Layer inception_3b/3x3
I0729 16:41:25.123764 15177 net.cpp:425] inception_3b/3x3 <- inception_3b/3x3_reduce
I0729 16:41:25.123774 15177 net.cpp:399] inception_3b/3x3 -> inception_3b/3x3
I0729 16:41:25.129633 15173 net.cpp:141] Setting up inception_3b/3x3_reduce
I0729 16:41:25.129667 15173 net.cpp:148] Top shape: 10 128 28 28 (1003520)
I0729 16:41:25.129674 15173 net.cpp:156] Memory required for data: 286003200
I0729 16:41:25.129688 15173 layer_factory.hpp:77] Creating layer inception_3b/relu_3x3_reduce
I0729 16:41:25.129705 15173 net.cpp:91] Creating Layer inception_3b/relu_3x3_reduce
I0729 16:41:25.129714 15173 net.cpp:425] inception_3b/relu_3x3_reduce <- inception_3b/3x3_reduce
I0729 16:41:25.129722 15173 net.cpp:386] inception_3b/relu_3x3_reduce -> inception_3b/3x3_reduce (in-place)
I0729 16:41:25.130012 15173 net.cpp:141] Setting up inception_3b/relu_3x3_reduce
I0729 16:41:25.130024 15173 net.cpp:148] Top shape: 10 128 28 28 (1003520)
I0729 16:41:25.130029 15173 net.cpp:156] Memory required for data: 290017280
I0729 16:41:25.130034 15173 layer_factory.hpp:77] Creating layer inception_3b/3x3
I0729 16:41:25.130062 15173 net.cpp:91] Creating Layer inception_3b/3x3
I0729 16:41:25.130069 15173 net.cpp:425] inception_3b/3x3 <- inception_3b/3x3_reduce
I0729 16:41:25.130081 15173 net.cpp:399] inception_3b/3x3 -> inception_3b/3x3
I0729 16:41:25.137496 15177 net.cpp:141] Setting up inception_3b/3x3
I0729 16:41:25.137537 15177 net.cpp:148] Top shape: 10 192 28 28 (1505280)
I0729 16:41:25.137542 15177 net.cpp:156] Memory required for data: 296038400
I0729 16:41:25.137557 15177 layer_factory.hpp:77] Creating layer inception_3b/relu_3x3
I0729 16:41:25.137588 15177 net.cpp:91] Creating Layer inception_3b/relu_3x3
I0729 16:41:25.137598 15177 net.cpp:425] inception_3b/relu_3x3 <- inception_3b/3x3
I0729 16:41:25.137609 15177 net.cpp:386] inception_3b/relu_3x3 -> inception_3b/3x3 (in-place)
I0729 16:41:25.138707 15177 net.cpp:141] Setting up inception_3b/relu_3x3
I0729 16:41:25.138727 15177 net.cpp:148] Top shape: 10 192 28 28 (1505280)
I0729 16:41:25.138733 15177 net.cpp:156] Memory required for data: 302059520
I0729 16:41:25.138739 15177 layer_factory.hpp:77] Creating layer inception_3b/5x5_reduce
I0729 16:41:25.138764 15177 net.cpp:91] Creating Layer inception_3b/5x5_reduce
I0729 16:41:25.138772 15177 net.cpp:425] inception_3b/5x5_reduce <- inception_3a/output_inception_3a/output_0_split_2
I0729 16:41:25.138782 15177 net.cpp:399] inception_3b/5x5_reduce -> inception_3b/5x5_reduce
I0729 16:41:25.139027 15173 net.cpp:141] Setting up inception_3b/3x3
I0729 16:41:25.139050 15173 net.cpp:148] Top shape: 10 192 28 28 (1505280)
I0729 16:41:25.139056 15173 net.cpp:156] Memory required for data: 296038400
I0729 16:41:25.139067 15173 layer_factory.hpp:77] Creating layer inception_3b/relu_3x3
I0729 16:41:25.139083 15173 net.cpp:91] Creating Layer inception_3b/relu_3x3
I0729 16:41:25.139091 15173 net.cpp:425] inception_3b/relu_3x3 <- inception_3b/3x3
I0729 16:41:25.139106 15173 net.cpp:386] inception_3b/relu_3x3 -> inception_3b/3x3 (in-place)
I0729 16:41:25.140185 15173 net.cpp:141] Setting up inception_3b/relu_3x3
I0729 16:41:25.140204 15173 net.cpp:148] Top shape: 10 192 28 28 (1505280)
I0729 16:41:25.140209 15173 net.cpp:156] Memory required for data: 302059520
I0729 16:41:25.140215 15173 layer_factory.hpp:77] Creating layer inception_3b/5x5_reduce
I0729 16:41:25.140233 15173 net.cpp:91] Creating Layer inception_3b/5x5_reduce
I0729 16:41:25.140240 15173 net.cpp:425] inception_3b/5x5_reduce <- inception_3a/output_inception_3a/output_0_split_2
I0729 16:41:25.140254 15173 net.cpp:399] inception_3b/5x5_reduce -> inception_3b/5x5_reduce
I0729 16:41:25.144268 15177 net.cpp:141] Setting up inception_3b/5x5_reduce
I0729 16:41:25.144289 15177 net.cpp:148] Top shape: 10 32 28 28 (250880)
I0729 16:41:25.144295 15177 net.cpp:156] Memory required for data: 303063040
I0729 16:41:25.144307 15177 layer_factory.hpp:77] Creating layer inception_3b/relu_5x5_reduce
I0729 16:41:25.144320 15177 net.cpp:91] Creating Layer inception_3b/relu_5x5_reduce
I0729 16:41:25.144328 15177 net.cpp:425] inception_3b/relu_5x5_reduce <- inception_3b/5x5_reduce
I0729 16:41:25.144338 15177 net.cpp:386] inception_3b/relu_5x5_reduce -> inception_3b/5x5_reduce (in-place)
I0729 16:41:25.144713 15177 net.cpp:141] Setting up inception_3b/relu_5x5_reduce
I0729 16:41:25.144726 15177 net.cpp:148] Top shape: 10 32 28 28 (250880)
I0729 16:41:25.144731 15177 net.cpp:156] Memory required for data: 304066560
I0729 16:41:25.144737 15177 layer_factory.hpp:77] Creating layer inception_3b/5x5
I0729 16:41:25.144757 15177 net.cpp:91] Creating Layer inception_3b/5x5
I0729 16:41:25.144763 15177 net.cpp:425] inception_3b/5x5 <- inception_3b/5x5_reduce
I0729 16:41:25.144775 15177 net.cpp:399] inception_3b/5x5 -> inception_3b/5x5
I0729 16:41:25.147660 15173 net.cpp:141] Setting up inception_3b/5x5_reduce
I0729 16:41:25.147681 15173 net.cpp:148] Top shape: 10 32 28 28 (250880)
I0729 16:41:25.147687 15173 net.cpp:156] Memory required for data: 303063040
I0729 16:41:25.147697 15173 layer_factory.hpp:77] Creating layer inception_3b/relu_5x5_reduce
I0729 16:41:25.147707 15173 net.cpp:91] Creating Layer inception_3b/relu_5x5_reduce
I0729 16:41:25.147714 15173 net.cpp:425] inception_3b/relu_5x5_reduce <- inception_3b/5x5_reduce
I0729 16:41:25.147729 15173 net.cpp:386] inception_3b/relu_5x5_reduce -> inception_3b/5x5_reduce (in-place)
I0729 16:41:25.148007 15173 net.cpp:141] Setting up inception_3b/relu_5x5_reduce
I0729 16:41:25.148021 15173 net.cpp:148] Top shape: 10 32 28 28 (250880)
I0729 16:41:25.148026 15173 net.cpp:156] Memory required for data: 304066560
I0729 16:41:25.148033 15173 layer_factory.hpp:77] Creating layer inception_3b/5x5
I0729 16:41:25.148051 15173 net.cpp:91] Creating Layer inception_3b/5x5
I0729 16:41:25.148058 15173 net.cpp:425] inception_3b/5x5 <- inception_3b/5x5_reduce
I0729 16:41:25.148068 15173 net.cpp:399] inception_3b/5x5 -> inception_3b/5x5
I0729 16:41:25.153636 15177 net.cpp:141] Setting up inception_3b/5x5
I0729 16:41:25.153661 15177 net.cpp:148] Top shape: 10 96 28 28 (752640)
I0729 16:41:25.153667 15177 net.cpp:156] Memory required for data: 307077120
I0729 16:41:25.153679 15177 layer_factory.hpp:77] Creating layer inception_3b/relu_5x5
I0729 16:41:25.153690 15177 net.cpp:91] Creating Layer inception_3b/relu_5x5
I0729 16:41:25.153697 15177 net.cpp:425] inception_3b/relu_5x5 <- inception_3b/5x5
I0729 16:41:25.153705 15177 net.cpp:386] inception_3b/relu_5x5 -> inception_3b/5x5 (in-place)
I0729 16:41:25.154024 15177 net.cpp:141] Setting up inception_3b/relu_5x5
I0729 16:41:25.154037 15177 net.cpp:148] Top shape: 10 96 28 28 (752640)
I0729 16:41:25.154042 15177 net.cpp:156] Memory required for data: 310087680
I0729 16:41:25.154052 15177 layer_factory.hpp:77] Creating layer inception_3b/pool
I0729 16:41:25.154067 15177 net.cpp:91] Creating Layer inception_3b/pool
I0729 16:41:25.154073 15177 net.cpp:425] inception_3b/pool <- inception_3a/output_inception_3a/output_0_split_3
I0729 16:41:25.154083 15177 net.cpp:399] inception_3b/pool -> inception_3b/pool
I0729 16:41:25.154609 15177 net.cpp:141] Setting up inception_3b/pool
I0729 16:41:25.154630 15177 net.cpp:148] Top shape: 10 256 28 28 (2007040)
I0729 16:41:25.154639 15177 net.cpp:156] Memory required for data: 318115840
I0729 16:41:25.154649 15177 layer_factory.hpp:77] Creating layer inception_3b/pool_proj
I0729 16:41:25.154706 15177 net.cpp:91] Creating Layer inception_3b/pool_proj
I0729 16:41:25.154723 15177 net.cpp:425] inception_3b/pool_proj <- inception_3b/pool
I0729 16:41:25.154747 15177 net.cpp:399] inception_3b/pool_proj -> inception_3b/pool_proj
I0729 16:41:25.155227 15173 net.cpp:141] Setting up inception_3b/5x5
I0729 16:41:25.155248 15173 net.cpp:148] Top shape: 10 96 28 28 (752640)
I0729 16:41:25.155254 15173 net.cpp:156] Memory required for data: 307077120
I0729 16:41:25.155266 15173 layer_factory.hpp:77] Creating layer inception_3b/relu_5x5
I0729 16:41:25.155278 15173 net.cpp:91] Creating Layer inception_3b/relu_5x5
I0729 16:41:25.155285 15173 net.cpp:425] inception_3b/relu_5x5 <- inception_3b/5x5
I0729 16:41:25.155293 15173 net.cpp:386] inception_3b/relu_5x5 -> inception_3b/5x5 (in-place)
I0729 16:41:25.155755 15173 net.cpp:141] Setting up inception_3b/relu_5x5
I0729 16:41:25.155771 15173 net.cpp:148] Top shape: 10 96 28 28 (752640)
I0729 16:41:25.155776 15173 net.cpp:156] Memory required for data: 310087680
I0729 16:41:25.155781 15173 layer_factory.hpp:77] Creating layer inception_3b/pool
I0729 16:41:25.155798 15173 net.cpp:91] Creating Layer inception_3b/pool
I0729 16:41:25.155804 15173 net.cpp:425] inception_3b/pool <- inception_3a/output_inception_3a/output_0_split_3
I0729 16:41:25.155815 15173 net.cpp:399] inception_3b/pool -> inception_3b/pool
I0729 16:41:25.155941 15173 net.cpp:141] Setting up inception_3b/pool
I0729 16:41:25.155952 15173 net.cpp:148] Top shape: 10 256 28 28 (2007040)
I0729 16:41:25.155957 15173 net.cpp:156] Memory required for data: 318115840
I0729 16:41:25.155962 15173 layer_factory.hpp:77] Creating layer inception_3b/pool_proj
I0729 16:41:25.155982 15173 net.cpp:91] Creating Layer inception_3b/pool_proj
I0729 16:41:25.155987 15173 net.cpp:425] inception_3b/pool_proj <- inception_3b/pool
I0729 16:41:25.155997 15173 net.cpp:399] inception_3b/pool_proj -> inception_3b/pool_proj
I0729 16:41:25.162099 15177 net.cpp:141] Setting up inception_3b/pool_proj
I0729 16:41:25.162138 15177 net.cpp:148] Top shape: 10 64 28 28 (501760)
I0729 16:41:25.162145 15177 net.cpp:156] Memory required for data: 320122880
I0729 16:41:25.162160 15177 layer_factory.hpp:77] Creating layer inception_3b/relu_pool_proj
I0729 16:41:25.162191 15177 net.cpp:91] Creating Layer inception_3b/relu_pool_proj
I0729 16:41:25.162201 15177 net.cpp:425] inception_3b/relu_pool_proj <- inception_3b/pool_proj
I0729 16:41:25.162212 15177 net.cpp:386] inception_3b/relu_pool_proj -> inception_3b/pool_proj (in-place)
I0729 16:41:25.163923 15177 net.cpp:141] Setting up inception_3b/relu_pool_proj
I0729 16:41:25.163946 15177 net.cpp:148] Top shape: 10 64 28 28 (501760)
I0729 16:41:25.163952 15177 net.cpp:156] Memory required for data: 322129920
I0729 16:41:25.163959 15177 layer_factory.hpp:77] Creating layer inception_3b/output
I0729 16:41:25.163977 15177 net.cpp:91] Creating Layer inception_3b/output
I0729 16:41:25.163985 15177 net.cpp:425] inception_3b/output <- inception_3b/1x1
I0729 16:41:25.163995 15177 net.cpp:425] inception_3b/output <- inception_3b/3x3
I0729 16:41:25.164000 15177 net.cpp:425] inception_3b/output <- inception_3b/5x5
I0729 16:41:25.164006 15177 net.cpp:425] inception_3b/output <- inception_3b/pool_proj
I0729 16:41:25.164021 15177 net.cpp:399] inception_3b/output -> inception_3b/output
I0729 16:41:25.164165 15177 net.cpp:141] Setting up inception_3b/output
I0729 16:41:25.164178 15177 net.cpp:148] Top shape: 10 480 28 28 (3763200)
I0729 16:41:25.164182 15177 net.cpp:156] Memory required for data: 337182720
I0729 16:41:25.164191 15177 layer_factory.hpp:77] Creating layer pool3/3x3_s2
I0729 16:41:25.164206 15177 net.cpp:91] Creating Layer pool3/3x3_s2
I0729 16:41:25.164206 15173 net.cpp:141] Setting up inception_3b/pool_proj
I0729 16:41:25.164221 15177 net.cpp:425] pool3/3x3_s2 <- inception_3b/output
I0729 16:41:25.164233 15177 net.cpp:399] pool3/3x3_s2 -> pool3/3x3_s2
I0729 16:41:25.164232 15173 net.cpp:148] Top shape: 10 64 28 28 (501760)
I0729 16:41:25.164244 15173 net.cpp:156] Memory required for data: 320122880
I0729 16:41:25.164269 15173 layer_factory.hpp:77] Creating layer inception_3b/relu_pool_proj
I0729 16:41:25.164288 15173 net.cpp:91] Creating Layer inception_3b/relu_pool_proj
I0729 16:41:25.164300 15173 net.cpp:425] inception_3b/relu_pool_proj <- inception_3b/pool_proj
I0729 16:41:25.164320 15173 net.cpp:386] inception_3b/relu_pool_proj -> inception_3b/pool_proj (in-place)
I0729 16:41:25.164367 15177 net.cpp:141] Setting up pool3/3x3_s2
I0729 16:41:25.164381 15177 net.cpp:148] Top shape: 10 480 14 14 (940800)
I0729 16:41:25.164386 15177 net.cpp:156] Memory required for data: 340945920
I0729 16:41:25.164391 15177 layer_factory.hpp:77] Creating layer pool3/3x3_s2_pool3/3x3_s2_0_split
I0729 16:41:25.164402 15177 net.cpp:91] Creating Layer pool3/3x3_s2_pool3/3x3_s2_0_split
I0729 16:41:25.164408 15177 net.cpp:425] pool3/3x3_s2_pool3/3x3_s2_0_split <- pool3/3x3_s2
I0729 16:41:25.164415 15177 net.cpp:399] pool3/3x3_s2_pool3/3x3_s2_0_split -> pool3/3x3_s2_pool3/3x3_s2_0_split_0
I0729 16:41:25.164424 15177 net.cpp:399] pool3/3x3_s2_pool3/3x3_s2_0_split -> pool3/3x3_s2_pool3/3x3_s2_0_split_1
I0729 16:41:25.164433 15177 net.cpp:399] pool3/3x3_s2_pool3/3x3_s2_0_split -> pool3/3x3_s2_pool3/3x3_s2_0_split_2
I0729 16:41:25.164441 15177 net.cpp:399] pool3/3x3_s2_pool3/3x3_s2_0_split -> pool3/3x3_s2_pool3/3x3_s2_0_split_3
I0729 16:41:25.166052 15173 net.cpp:141] Setting up inception_3b/relu_pool_proj
I0729 16:41:25.166065 15177 net.cpp:141] Setting up pool3/3x3_s2_pool3/3x3_s2_0_split
I0729 16:41:25.166079 15173 net.cpp:148] Top shape: 10 64 28 28 (501760)
I0729 16:41:25.166086 15177 net.cpp:148] Top shape: 10 480 14 14 (940800)
I0729 16:41:25.166088 15173 net.cpp:156] Memory required for data: 322129920
I0729 16:41:25.166095 15177 net.cpp:148] Top shape: 10 480 14 14 (940800)
I0729 16:41:25.166103 15177 net.cpp:148] Top shape: 10 480 14 14 (940800)
I0729 16:41:25.166102 15173 layer_factory.hpp:77] Creating layer inception_3b/output
I0729 16:41:25.166110 15177 net.cpp:148] Top shape: 10 480 14 14 (940800)
I0729 16:41:25.166122 15177 net.cpp:156] Memory required for data: 355998720
I0729 16:41:25.166128 15177 layer_factory.hpp:77] Creating layer inception_4a/1x1
I0729 16:41:25.166127 15173 net.cpp:91] Creating Layer inception_3b/output
I0729 16:41:25.166141 15173 net.cpp:425] inception_3b/output <- inception_3b/1x1
I0729 16:41:25.166154 15173 net.cpp:425] inception_3b/output <- inception_3b/3x3
I0729 16:41:25.166154 15177 net.cpp:91] Creating Layer inception_4a/1x1
I0729 16:41:25.166170 15177 net.cpp:425] inception_4a/1x1 <- pool3/3x3_s2_pool3/3x3_s2_0_split_0
I0729 16:41:25.166169 15173 net.cpp:425] inception_3b/output <- inception_3b/5x5
I0729 16:41:25.166187 15177 net.cpp:399] inception_4a/1x1 -> inception_4a/1x1
I0729 16:41:25.166191 15173 net.cpp:425] inception_3b/output <- inception_3b/pool_proj
I0729 16:41:25.166215 15173 net.cpp:399] inception_3b/output -> inception_3b/output
I0729 16:41:25.166424 15173 net.cpp:141] Setting up inception_3b/output
I0729 16:41:25.166443 15173 net.cpp:148] Top shape: 10 480 28 28 (3763200)
I0729 16:41:25.166451 15173 net.cpp:156] Memory required for data: 337182720
I0729 16:41:25.166462 15173 layer_factory.hpp:77] Creating layer pool3/3x3_s2
I0729 16:41:25.166508 15173 net.cpp:91] Creating Layer pool3/3x3_s2
I0729 16:41:25.166524 15173 net.cpp:425] pool3/3x3_s2 <- inception_3b/output
I0729 16:41:25.166540 15173 net.cpp:399] pool3/3x3_s2 -> pool3/3x3_s2
I0729 16:41:25.166896 15173 net.cpp:141] Setting up pool3/3x3_s2
I0729 16:41:25.166918 15173 net.cpp:148] Top shape: 10 480 14 14 (940800)
I0729 16:41:25.166926 15173 net.cpp:156] Memory required for data: 340945920
I0729 16:41:25.166935 15173 layer_factory.hpp:77] Creating layer pool3/3x3_s2_pool3/3x3_s2_0_split
I0729 16:41:25.166956 15173 net.cpp:91] Creating Layer pool3/3x3_s2_pool3/3x3_s2_0_split
I0729 16:41:25.166966 15173 net.cpp:425] pool3/3x3_s2_pool3/3x3_s2_0_split <- pool3/3x3_s2
I0729 16:41:25.166983 15173 net.cpp:399] pool3/3x3_s2_pool3/3x3_s2_0_split -> pool3/3x3_s2_pool3/3x3_s2_0_split_0
I0729 16:41:25.167001 15173 net.cpp:399] pool3/3x3_s2_pool3/3x3_s2_0_split -> pool3/3x3_s2_pool3/3x3_s2_0_split_1
I0729 16:41:25.167016 15173 net.cpp:399] pool3/3x3_s2_pool3/3x3_s2_0_split -> pool3/3x3_s2_pool3/3x3_s2_0_split_2
I0729 16:41:25.167032 15173 net.cpp:399] pool3/3x3_s2_pool3/3x3_s2_0_split -> pool3/3x3_s2_pool3/3x3_s2_0_split_3
I0729 16:41:25.167304 15173 net.cpp:141] Setting up pool3/3x3_s2_pool3/3x3_s2_0_split
I0729 16:41:25.167323 15173 net.cpp:148] Top shape: 10 480 14 14 (940800)
I0729 16:41:25.167336 15173 net.cpp:148] Top shape: 10 480 14 14 (940800)
I0729 16:41:25.167349 15173 net.cpp:148] Top shape: 10 480 14 14 (940800)
I0729 16:41:25.167361 15173 net.cpp:148] Top shape: 10 480 14 14 (940800)
I0729 16:41:25.167368 15173 net.cpp:156] Memory required for data: 355998720
I0729 16:41:25.167382 15173 layer_factory.hpp:77] Creating layer inception_4a/1x1
I0729 16:41:25.167410 15173 net.cpp:91] Creating Layer inception_4a/1x1
I0729 16:41:25.167423 15173 net.cpp:425] inception_4a/1x1 <- pool3/3x3_s2_pool3/3x3_s2_0_split_0
I0729 16:41:25.167439 15173 net.cpp:399] inception_4a/1x1 -> inception_4a/1x1
I0729 16:41:25.174262 15177 net.cpp:141] Setting up inception_4a/1x1
I0729 16:41:25.174310 15177 net.cpp:148] Top shape: 10 192 14 14 (376320)
I0729 16:41:25.174324 15177 net.cpp:156] Memory required for data: 357504000
I0729 16:41:25.174350 15177 layer_factory.hpp:77] Creating layer inception_4a/relu_1x1
I0729 16:41:25.174366 15173 net.cpp:141] Setting up inception_4a/1x1
I0729 16:41:25.174377 15177 net.cpp:91] Creating Layer inception_4a/relu_1x1
I0729 16:41:25.174384 15173 net.cpp:148] Top shape: 10 192 14 14 (376320)
I0729 16:41:25.174391 15173 net.cpp:156] Memory required for data: 357504000
I0729 16:41:25.174392 15177 net.cpp:425] inception_4a/relu_1x1 <- inception_4a/1x1
I0729 16:41:25.174407 15173 layer_factory.hpp:77] Creating layer inception_4a/relu_1x1
I0729 16:41:25.174410 15177 net.cpp:386] inception_4a/relu_1x1 -> inception_4a/1x1 (in-place)
I0729 16:41:25.174439 15173 net.cpp:91] Creating Layer inception_4a/relu_1x1
I0729 16:41:25.174453 15173 net.cpp:425] inception_4a/relu_1x1 <- inception_4a/1x1
I0729 16:41:25.174463 15173 net.cpp:386] inception_4a/relu_1x1 -> inception_4a/1x1 (in-place)
I0729 16:41:25.174871 15173 net.cpp:141] Setting up inception_4a/relu_1x1
I0729 16:41:25.174886 15173 net.cpp:148] Top shape: 10 192 14 14 (376320)
I0729 16:41:25.174891 15173 net.cpp:156] Memory required for data: 359009280
I0729 16:41:25.174896 15173 layer_factory.hpp:77] Creating layer inception_4a/3x3_reduce
I0729 16:41:25.174918 15173 net.cpp:91] Creating Layer inception_4a/3x3_reduce
I0729 16:41:25.174926 15173 net.cpp:425] inception_4a/3x3_reduce <- pool3/3x3_s2_pool3/3x3_s2_0_split_1
I0729 16:41:25.174937 15173 net.cpp:399] inception_4a/3x3_reduce -> inception_4a/3x3_reduce
I0729 16:41:25.175076 15177 net.cpp:141] Setting up inception_4a/relu_1x1
I0729 16:41:25.175099 15177 net.cpp:148] Top shape: 10 192 14 14 (376320)
I0729 16:41:25.175109 15177 net.cpp:156] Memory required for data: 359009280
I0729 16:41:25.175123 15177 layer_factory.hpp:77] Creating layer inception_4a/3x3_reduce
I0729 16:41:25.175153 15177 net.cpp:91] Creating Layer inception_4a/3x3_reduce
I0729 16:41:25.175164 15177 net.cpp:425] inception_4a/3x3_reduce <- pool3/3x3_s2_pool3/3x3_s2_0_split_1
I0729 16:41:25.175180 15177 net.cpp:399] inception_4a/3x3_reduce -> inception_4a/3x3_reduce
I0729 16:41:25.181424 15173 net.cpp:141] Setting up inception_4a/3x3_reduce
I0729 16:41:25.181466 15173 net.cpp:148] Top shape: 10 96 14 14 (188160)
I0729 16:41:25.181473 15173 net.cpp:156] Memory required for data: 359761920
I0729 16:41:25.181502 15173 layer_factory.hpp:77] Creating layer inception_4a/relu_3x3_reduce
I0729 16:41:25.181521 15173 net.cpp:91] Creating Layer inception_4a/relu_3x3_reduce
I0729 16:41:25.181530 15173 net.cpp:425] inception_4a/relu_3x3_reduce <- inception_4a/3x3_reduce
I0729 16:41:25.181540 15173 net.cpp:386] inception_4a/relu_3x3_reduce -> inception_4a/3x3_reduce (in-place)
I0729 16:41:25.181835 15177 net.cpp:141] Setting up inception_4a/3x3_reduce
I0729 16:41:25.181860 15177 net.cpp:148] Top shape: 10 96 14 14 (188160)
I0729 16:41:25.181872 15177 net.cpp:156] Memory required for data: 359761920
I0729 16:41:25.181912 15177 layer_factory.hpp:77] Creating layer inception_4a/relu_3x3_reduce
I0729 16:41:25.181932 15177 net.cpp:91] Creating Layer inception_4a/relu_3x3_reduce
I0729 16:41:25.181941 15173 net.cpp:141] Setting up inception_4a/relu_3x3_reduce
I0729 16:41:25.181946 15177 net.cpp:425] inception_4a/relu_3x3_reduce <- inception_4a/3x3_reduce
I0729 16:41:25.181955 15173 net.cpp:148] Top shape: 10 96 14 14 (188160)
I0729 16:41:25.181962 15173 net.cpp:156] Memory required for data: 360514560
I0729 16:41:25.181962 15177 net.cpp:386] inception_4a/relu_3x3_reduce -> inception_4a/3x3_reduce (in-place)
I0729 16:41:25.181967 15173 layer_factory.hpp:77] Creating layer inception_4a/3x3
I0729 16:41:25.181991 15173 net.cpp:91] Creating Layer inception_4a/3x3
I0729 16:41:25.181998 15173 net.cpp:425] inception_4a/3x3 <- inception_4a/3x3_reduce
I0729 16:41:25.182010 15173 net.cpp:399] inception_4a/3x3 -> inception_4a/3x3
I0729 16:41:25.182657 15177 net.cpp:141] Setting up inception_4a/relu_3x3_reduce
I0729 16:41:25.182701 15177 net.cpp:148] Top shape: 10 96 14 14 (188160)
I0729 16:41:25.182715 15177 net.cpp:156] Memory required for data: 360514560
I0729 16:41:25.182726 15177 layer_factory.hpp:77] Creating layer inception_4a/3x3
I0729 16:41:25.182755 15177 net.cpp:91] Creating Layer inception_4a/3x3
I0729 16:41:25.182768 15177 net.cpp:425] inception_4a/3x3 <- inception_4a/3x3_reduce
I0729 16:41:25.182785 15177 net.cpp:399] inception_4a/3x3 -> inception_4a/3x3
I0729 16:41:25.193537 15173 net.cpp:141] Setting up inception_4a/3x3
I0729 16:41:25.193586 15173 net.cpp:148] Top shape: 10 208 14 14 (407680)
I0729 16:41:25.193593 15173 net.cpp:156] Memory required for data: 362145280
I0729 16:41:25.193609 15173 layer_factory.hpp:77] Creating layer inception_4a/relu_3x3
I0729 16:41:25.193627 15173 net.cpp:91] Creating Layer inception_4a/relu_3x3
I0729 16:41:25.193637 15173 net.cpp:425] inception_4a/relu_3x3 <- inception_4a/3x3
I0729 16:41:25.193652 15173 net.cpp:386] inception_4a/relu_3x3 -> inception_4a/3x3 (in-place)
I0729 16:41:25.196101 15173 net.cpp:141] Setting up inception_4a/relu_3x3
I0729 16:41:25.196132 15173 net.cpp:148] Top shape: 10 208 14 14 (407680)
I0729 16:41:25.196138 15173 net.cpp:156] Memory required for data: 363776000
I0729 16:41:25.196146 15173 layer_factory.hpp:77] Creating layer inception_4a/5x5_reduce
I0729 16:41:25.196173 15173 net.cpp:91] Creating Layer inception_4a/5x5_reduce
I0729 16:41:25.196182 15173 net.cpp:425] inception_4a/5x5_reduce <- pool3/3x3_s2_pool3/3x3_s2_0_split_2
I0729 16:41:25.196197 15173 net.cpp:399] inception_4a/5x5_reduce -> inception_4a/5x5_reduce
I0729 16:41:25.196761 15177 net.cpp:141] Setting up inception_4a/3x3
I0729 16:41:25.196787 15177 net.cpp:148] Top shape: 10 208 14 14 (407680)
I0729 16:41:25.196799 15177 net.cpp:156] Memory required for data: 362145280
I0729 16:41:25.196818 15177 layer_factory.hpp:77] Creating layer inception_4a/relu_3x3
I0729 16:41:25.196847 15177 net.cpp:91] Creating Layer inception_4a/relu_3x3
I0729 16:41:25.196861 15177 net.cpp:425] inception_4a/relu_3x3 <- inception_4a/3x3
I0729 16:41:25.196879 15177 net.cpp:386] inception_4a/relu_3x3 -> inception_4a/3x3 (in-place)
I0729 16:41:25.199033 15177 net.cpp:141] Setting up inception_4a/relu_3x3
I0729 16:41:25.199074 15177 net.cpp:148] Top shape: 10 208 14 14 (407680)
I0729 16:41:25.199085 15177 net.cpp:156] Memory required for data: 363776000
I0729 16:41:25.199097 15177 layer_factory.hpp:77] Creating layer inception_4a/5x5_reduce
I0729 16:41:25.199132 15177 net.cpp:91] Creating Layer inception_4a/5x5_reduce
I0729 16:41:25.199147 15177 net.cpp:425] inception_4a/5x5_reduce <- pool3/3x3_s2_pool3/3x3_s2_0_split_2
I0729 16:41:25.199169 15177 net.cpp:399] inception_4a/5x5_reduce -> inception_4a/5x5_reduce
I0729 16:41:25.203748 15173 net.cpp:141] Setting up inception_4a/5x5_reduce
I0729 16:41:25.203790 15173 net.cpp:148] Top shape: 10 16 14 14 (31360)
I0729 16:41:25.203796 15173 net.cpp:156] Memory required for data: 363901440
I0729 16:41:25.203819 15173 layer_factory.hpp:77] Creating layer inception_4a/relu_5x5_reduce
I0729 16:41:25.203840 15173 net.cpp:91] Creating Layer inception_4a/relu_5x5_reduce
I0729 16:41:25.203850 15173 net.cpp:425] inception_4a/relu_5x5_reduce <- inception_4a/5x5_reduce
I0729 16:41:25.203860 15173 net.cpp:386] inception_4a/relu_5x5_reduce -> inception_4a/5x5_reduce (in-place)
I0729 16:41:25.204264 15173 net.cpp:141] Setting up inception_4a/relu_5x5_reduce
I0729 16:41:25.204278 15173 net.cpp:148] Top shape: 10 16 14 14 (31360)
I0729 16:41:25.204283 15173 net.cpp:156] Memory required for data: 364026880
I0729 16:41:25.204288 15173 layer_factory.hpp:77] Creating layer inception_4a/5x5
I0729 16:41:25.204309 15173 net.cpp:91] Creating Layer inception_4a/5x5
I0729 16:41:25.204316 15173 net.cpp:425] inception_4a/5x5 <- inception_4a/5x5_reduce
I0729 16:41:25.204329 15173 net.cpp:399] inception_4a/5x5 -> inception_4a/5x5
I0729 16:41:25.211047 15177 net.cpp:141] Setting up inception_4a/5x5_reduce
I0729 16:41:25.211103 15177 net.cpp:148] Top shape: 10 16 14 14 (31360)
I0729 16:41:25.211115 15177 net.cpp:156] Memory required for data: 363901440
I0729 16:41:25.211141 15177 layer_factory.hpp:77] Creating layer inception_4a/relu_5x5_reduce
I0729 16:41:25.211170 15177 net.cpp:91] Creating Layer inception_4a/relu_5x5_reduce
I0729 16:41:25.211186 15177 net.cpp:425] inception_4a/relu_5x5_reduce <- inception_4a/5x5_reduce
I0729 16:41:25.211208 15177 net.cpp:386] inception_4a/relu_5x5_reduce -> inception_4a/5x5_reduce (in-place)
I0729 16:41:25.211696 15177 net.cpp:141] Setting up inception_4a/relu_5x5_reduce
I0729 16:41:25.211717 15177 net.cpp:148] Top shape: 10 16 14 14 (31360)
I0729 16:41:25.211726 15177 net.cpp:156] Memory required for data: 364026880
I0729 16:41:25.211736 15177 layer_factory.hpp:77] Creating layer inception_4a/5x5
I0729 16:41:25.211771 15177 net.cpp:91] Creating Layer inception_4a/5x5
I0729 16:41:25.211784 15177 net.cpp:425] inception_4a/5x5 <- inception_4a/5x5_reduce
I0729 16:41:25.211802 15177 net.cpp:399] inception_4a/5x5 -> inception_4a/5x5
I0729 16:41:25.213177 15173 net.cpp:141] Setting up inception_4a/5x5
I0729 16:41:25.213204 15173 net.cpp:148] Top shape: 10 48 14 14 (94080)
I0729 16:41:25.213210 15173 net.cpp:156] Memory required for data: 364403200
I0729 16:41:25.213224 15173 layer_factory.hpp:77] Creating layer inception_4a/relu_5x5
I0729 16:41:25.213243 15173 net.cpp:91] Creating Layer inception_4a/relu_5x5
I0729 16:41:25.213250 15173 net.cpp:425] inception_4a/relu_5x5 <- inception_4a/5x5
I0729 16:41:25.213261 15173 net.cpp:386] inception_4a/relu_5x5 -> inception_4a/5x5 (in-place)
I0729 16:41:25.213695 15173 net.cpp:141] Setting up inception_4a/relu_5x5
I0729 16:41:25.213716 15173 net.cpp:148] Top shape: 10 48 14 14 (94080)
I0729 16:41:25.213724 15173 net.cpp:156] Memory required for data: 364779520
I0729 16:41:25.213735 15173 layer_factory.hpp:77] Creating layer inception_4a/pool
I0729 16:41:25.213753 15173 net.cpp:91] Creating Layer inception_4a/pool
I0729 16:41:25.213760 15173 net.cpp:425] inception_4a/pool <- pool3/3x3_s2_pool3/3x3_s2_0_split_3
I0729 16:41:25.213769 15173 net.cpp:399] inception_4a/pool -> inception_4a/pool
I0729 16:41:25.214018 15173 net.cpp:141] Setting up inception_4a/pool
I0729 16:41:25.214031 15173 net.cpp:148] Top shape: 10 480 14 14 (940800)
I0729 16:41:25.214035 15173 net.cpp:156] Memory required for data: 368542720
I0729 16:41:25.214043 15173 layer_factory.hpp:77] Creating layer inception_4a/pool_proj
I0729 16:41:25.214062 15173 net.cpp:91] Creating Layer inception_4a/pool_proj
I0729 16:41:25.214068 15173 net.cpp:425] inception_4a/pool_proj <- inception_4a/pool
I0729 16:41:25.214081 15173 net.cpp:399] inception_4a/pool_proj -> inception_4a/pool_proj
I0729 16:41:25.220842 15177 net.cpp:141] Setting up inception_4a/5x5
I0729 16:41:25.220892 15177 net.cpp:148] Top shape: 10 48 14 14 (94080)
I0729 16:41:25.220899 15177 net.cpp:156] Memory required for data: 364403200
I0729 16:41:25.220919 15177 layer_factory.hpp:77] Creating layer inception_4a/relu_5x5
I0729 16:41:25.220937 15177 net.cpp:91] Creating Layer inception_4a/relu_5x5
I0729 16:41:25.220947 15177 net.cpp:425] inception_4a/relu_5x5 <- inception_4a/5x5
I0729 16:41:25.220958 15177 net.cpp:386] inception_4a/relu_5x5 -> inception_4a/5x5 (in-place)
I0729 16:41:25.221359 15177 net.cpp:141] Setting up inception_4a/relu_5x5
I0729 16:41:25.221372 15177 net.cpp:148] Top shape: 10 48 14 14 (94080)
I0729 16:41:25.221377 15177 net.cpp:156] Memory required for data: 364779520
I0729 16:41:25.221384 15177 layer_factory.hpp:77] Creating layer inception_4a/pool
I0729 16:41:25.221396 15177 net.cpp:91] Creating Layer inception_4a/pool
I0729 16:41:25.221403 15177 net.cpp:425] inception_4a/pool <- pool3/3x3_s2_pool3/3x3_s2_0_split_3
I0729 16:41:25.221427 15177 net.cpp:399] inception_4a/pool -> inception_4a/pool
I0729 16:41:25.221719 15177 net.cpp:141] Setting up inception_4a/pool
I0729 16:41:25.221731 15177 net.cpp:148] Top shape: 10 480 14 14 (940800)
I0729 16:41:25.221736 15177 net.cpp:156] Memory required for data: 368542720
I0729 16:41:25.221741 15177 layer_factory.hpp:77] Creating layer inception_4a/pool_proj
I0729 16:41:25.221762 15177 net.cpp:91] Creating Layer inception_4a/pool_proj
I0729 16:41:25.221768 15177 net.cpp:425] inception_4a/pool_proj <- inception_4a/pool
I0729 16:41:25.221778 15177 net.cpp:399] inception_4a/pool_proj -> inception_4a/pool_proj
I0729 16:41:25.222134 15173 net.cpp:141] Setting up inception_4a/pool_proj
I0729 16:41:25.222153 15173 net.cpp:148] Top shape: 10 64 14 14 (125440)
I0729 16:41:25.222158 15173 net.cpp:156] Memory required for data: 369044480
I0729 16:41:25.222169 15173 layer_factory.hpp:77] Creating layer inception_4a/relu_pool_proj
I0729 16:41:25.222183 15173 net.cpp:91] Creating Layer inception_4a/relu_pool_proj
I0729 16:41:25.222193 15173 net.cpp:425] inception_4a/relu_pool_proj <- inception_4a/pool_proj
I0729 16:41:25.222203 15173 net.cpp:386] inception_4a/relu_pool_proj -> inception_4a/pool_proj (in-place)
I0729 16:41:25.223868 15173 net.cpp:141] Setting up inception_4a/relu_pool_proj
I0729 16:41:25.223896 15173 net.cpp:148] Top shape: 10 64 14 14 (125440)
I0729 16:41:25.223901 15173 net.cpp:156] Memory required for data: 369546240
I0729 16:41:25.223908 15173 layer_factory.hpp:77] Creating layer inception_4a/output
I0729 16:41:25.223925 15173 net.cpp:91] Creating Layer inception_4a/output
I0729 16:41:25.223932 15173 net.cpp:425] inception_4a/output <- inception_4a/1x1
I0729 16:41:25.223942 15173 net.cpp:425] inception_4a/output <- inception_4a/3x3
I0729 16:41:25.223948 15173 net.cpp:425] inception_4a/output <- inception_4a/5x5
I0729 16:41:25.223953 15173 net.cpp:425] inception_4a/output <- inception_4a/pool_proj
I0729 16:41:25.223960 15173 net.cpp:399] inception_4a/output -> inception_4a/output
I0729 16:41:25.224048 15173 net.cpp:141] Setting up inception_4a/output
I0729 16:41:25.224061 15173 net.cpp:148] Top shape: 10 512 14 14 (1003520)
I0729 16:41:25.224066 15173 net.cpp:156] Memory required for data: 373560320
I0729 16:41:25.224071 15173 layer_factory.hpp:77] Creating layer inception_4a/output_inception_4a/output_0_split
I0729 16:41:25.224084 15173 net.cpp:91] Creating Layer inception_4a/output_inception_4a/output_0_split
I0729 16:41:25.224090 15173 net.cpp:425] inception_4a/output_inception_4a/output_0_split <- inception_4a/output
I0729 16:41:25.224100 15173 net.cpp:399] inception_4a/output_inception_4a/output_0_split -> inception_4a/output_inception_4a/output_0_split_0
I0729 16:41:25.224110 15173 net.cpp:399] inception_4a/output_inception_4a/output_0_split -> inception_4a/output_inception_4a/output_0_split_1
I0729 16:41:25.224119 15173 net.cpp:399] inception_4a/output_inception_4a/output_0_split -> inception_4a/output_inception_4a/output_0_split_2
I0729 16:41:25.224128 15173 net.cpp:399] inception_4a/output_inception_4a/output_0_split -> inception_4a/output_inception_4a/output_0_split_3
I0729 16:41:25.224457 15173 net.cpp:141] Setting up inception_4a/output_inception_4a/output_0_split
I0729 16:41:25.224470 15173 net.cpp:148] Top shape: 10 512 14 14 (1003520)
I0729 16:41:25.224477 15173 net.cpp:148] Top shape: 10 512 14 14 (1003520)
I0729 16:41:25.224483 15173 net.cpp:148] Top shape: 10 512 14 14 (1003520)
I0729 16:41:25.224488 15173 net.cpp:148] Top shape: 10 512 14 14 (1003520)
I0729 16:41:25.224491 15173 net.cpp:156] Memory required for data: 389616640
I0729 16:41:25.224499 15173 layer_factory.hpp:77] Creating layer inception_4b/1x1
I0729 16:41:25.224519 15173 net.cpp:91] Creating Layer inception_4b/1x1
I0729 16:41:25.224524 15173 net.cpp:425] inception_4b/1x1 <- inception_4a/output_inception_4a/output_0_split_0
I0729 16:41:25.224536 15173 net.cpp:399] inception_4b/1x1 -> inception_4b/1x1
I0729 16:41:25.229284 15177 net.cpp:141] Setting up inception_4a/pool_proj
I0729 16:41:25.229333 15177 net.cpp:148] Top shape: 10 64 14 14 (125440)
I0729 16:41:25.229341 15177 net.cpp:156] Memory required for data: 369044480
I0729 16:41:25.229357 15177 layer_factory.hpp:77] Creating layer inception_4a/relu_pool_proj
I0729 16:41:25.229373 15177 net.cpp:91] Creating Layer inception_4a/relu_pool_proj
I0729 16:41:25.229382 15177 net.cpp:425] inception_4a/relu_pool_proj <- inception_4a/pool_proj
I0729 16:41:25.229398 15177 net.cpp:386] inception_4a/relu_pool_proj -> inception_4a/pool_proj (in-place)
I0729 16:41:25.231202 15177 net.cpp:141] Setting up inception_4a/relu_pool_proj
I0729 16:41:25.231238 15177 net.cpp:148] Top shape: 10 64 14 14 (125440)
I0729 16:41:25.231250 15177 net.cpp:156] Memory required for data: 369546240
I0729 16:41:25.231264 15177 layer_factory.hpp:77] Creating layer inception_4a/output
I0729 16:41:25.231288 15177 net.cpp:91] Creating Layer inception_4a/output
I0729 16:41:25.231300 15177 net.cpp:425] inception_4a/output <- inception_4a/1x1
I0729 16:41:25.231314 15177 net.cpp:425] inception_4a/output <- inception_4a/3x3
I0729 16:41:25.231325 15177 net.cpp:425] inception_4a/output <- inception_4a/5x5
I0729 16:41:25.231336 15177 net.cpp:425] inception_4a/output <- inception_4a/pool_proj
I0729 16:41:25.231350 15177 net.cpp:399] inception_4a/output -> inception_4a/output
I0729 16:41:25.231861 15177 net.cpp:141] Setting up inception_4a/output
I0729 16:41:25.231883 15177 net.cpp:148] Top shape: 10 512 14 14 (1003520)
I0729 16:41:25.231891 15177 net.cpp:156] Memory required for data: 373560320
I0729 16:41:25.231900 15177 layer_factory.hpp:77] Creating layer inception_4a/output_inception_4a/output_0_split
I0729 16:41:25.231919 15177 net.cpp:91] Creating Layer inception_4a/output_inception_4a/output_0_split
I0729 16:41:25.231930 15177 net.cpp:425] inception_4a/output_inception_4a/output_0_split <- inception_4a/output
I0729 16:41:25.231943 15177 net.cpp:399] inception_4a/output_inception_4a/output_0_split -> inception_4a/output_inception_4a/output_0_split_0
I0729 16:41:25.231961 15177 net.cpp:399] inception_4a/output_inception_4a/output_0_split -> inception_4a/output_inception_4a/output_0_split_1
I0729 16:41:25.231976 15177 net.cpp:399] inception_4a/output_inception_4a/output_0_split -> inception_4a/output_inception_4a/output_0_split_2
I0729 16:41:25.231992 15177 net.cpp:399] inception_4a/output_inception_4a/output_0_split -> inception_4a/output_inception_4a/output_0_split_3
I0729 16:41:25.233366 15177 net.cpp:141] Setting up inception_4a/output_inception_4a/output_0_split
I0729 16:41:25.233397 15177 net.cpp:148] Top shape: 10 512 14 14 (1003520)
I0729 16:41:25.233412 15177 net.cpp:148] Top shape: 10 512 14 14 (1003520)
I0729 16:41:25.233423 15177 net.cpp:148] Top shape: 10 512 14 14 (1003520)
I0729 16:41:25.233433 15177 net.cpp:148] Top shape: 10 512 14 14 (1003520)
I0729 16:41:25.233443 15177 net.cpp:156] Memory required for data: 389616640
I0729 16:41:25.233453 15177 layer_factory.hpp:77] Creating layer inception_4b/1x1
I0729 16:41:25.233489 15177 net.cpp:91] Creating Layer inception_4b/1x1
I0729 16:41:25.233500 15177 net.cpp:425] inception_4b/1x1 <- inception_4a/output_inception_4a/output_0_split_0
I0729 16:41:25.233518 15177 net.cpp:399] inception_4b/1x1 -> inception_4b/1x1
I0729 16:41:25.233817 15173 net.cpp:141] Setting up inception_4b/1x1
I0729 16:41:25.233835 15173 net.cpp:148] Top shape: 10 160 14 14 (313600)
I0729 16:41:25.233841 15173 net.cpp:156] Memory required for data: 390871040
I0729 16:41:25.233855 15173 layer_factory.hpp:77] Creating layer inception_4b/relu_1x1
I0729 16:41:25.233870 15173 net.cpp:91] Creating Layer inception_4b/relu_1x1
I0729 16:41:25.233877 15173 net.cpp:425] inception_4b/relu_1x1 <- inception_4b/1x1
I0729 16:41:25.233889 15173 net.cpp:386] inception_4b/relu_1x1 -> inception_4b/1x1 (in-place)
I0729 16:41:25.234340 15173 net.cpp:141] Setting up inception_4b/relu_1x1
I0729 16:41:25.234356 15173 net.cpp:148] Top shape: 10 160 14 14 (313600)
I0729 16:41:25.234361 15173 net.cpp:156] Memory required for data: 392125440
I0729 16:41:25.234366 15173 layer_factory.hpp:77] Creating layer inception_4b/3x3_reduce
I0729 16:41:25.234385 15173 net.cpp:91] Creating Layer inception_4b/3x3_reduce
I0729 16:41:25.234392 15173 net.cpp:425] inception_4b/3x3_reduce <- inception_4a/output_inception_4a/output_0_split_1
I0729 16:41:25.234405 15173 net.cpp:399] inception_4b/3x3_reduce -> inception_4b/3x3_reduce
I0729 16:41:25.241523 15173 net.cpp:141] Setting up inception_4b/3x3_reduce
I0729 16:41:25.241585 15173 net.cpp:148] Top shape: 10 112 14 14 (219520)
I0729 16:41:25.241596 15173 net.cpp:156] Memory required for data: 393003520
I0729 16:41:25.241628 15173 layer_factory.hpp:77] Creating layer inception_4b/relu_3x3_reduce
I0729 16:41:25.241655 15173 net.cpp:91] Creating Layer inception_4b/relu_3x3_reduce
I0729 16:41:25.241674 15173 net.cpp:425] inception_4b/relu_3x3_reduce <- inception_4b/3x3_reduce
I0729 16:41:25.241693 15173 net.cpp:386] inception_4b/relu_3x3_reduce -> inception_4b/3x3_reduce (in-place)
I0729 16:41:25.242161 15173 net.cpp:141] Setting up inception_4b/relu_3x3_reduce
I0729 16:41:25.242180 15173 net.cpp:148] Top shape: 10 112 14 14 (219520)
I0729 16:41:25.242188 15173 net.cpp:156] Memory required for data: 393881600
I0729 16:41:25.242197 15173 layer_factory.hpp:77] Creating layer inception_4b/3x3
I0729 16:41:25.242233 15173 net.cpp:91] Creating Layer inception_4b/3x3
I0729 16:41:25.242244 15173 net.cpp:425] inception_4b/3x3 <- inception_4b/3x3_reduce
I0729 16:41:25.242259 15173 net.cpp:399] inception_4b/3x3 -> inception_4b/3x3
I0729 16:41:25.246333 15177 net.cpp:141] Setting up inception_4b/1x1
I0729 16:41:25.246383 15177 net.cpp:148] Top shape: 10 160 14 14 (313600)
I0729 16:41:25.246392 15177 net.cpp:156] Memory required for data: 390871040
I0729 16:41:25.246414 15177 layer_factory.hpp:77] Creating layer inception_4b/relu_1x1
I0729 16:41:25.246445 15177 net.cpp:91] Creating Layer inception_4b/relu_1x1
I0729 16:41:25.246457 15177 net.cpp:425] inception_4b/relu_1x1 <- inception_4b/1x1
I0729 16:41:25.246475 15177 net.cpp:386] inception_4b/relu_1x1 -> inception_4b/1x1 (in-place)
I0729 16:41:25.246973 15177 net.cpp:141] Setting up inception_4b/relu_1x1
I0729 16:41:25.246992 15177 net.cpp:148] Top shape: 10 160 14 14 (313600)
I0729 16:41:25.246999 15177 net.cpp:156] Memory required for data: 392125440
I0729 16:41:25.247007 15177 layer_factory.hpp:77] Creating layer inception_4b/3x3_reduce
I0729 16:41:25.247040 15177 net.cpp:91] Creating Layer inception_4b/3x3_reduce
I0729 16:41:25.247051 15177 net.cpp:425] inception_4b/3x3_reduce <- inception_4a/output_inception_4a/output_0_split_1
I0729 16:41:25.247068 15177 net.cpp:399] inception_4b/3x3_reduce -> inception_4b/3x3_reduce
I0729 16:41:25.254570 15177 net.cpp:141] Setting up inception_4b/3x3_reduce
I0729 16:41:25.254631 15177 net.cpp:148] Top shape: 10 112 14 14 (219520)
I0729 16:41:25.254643 15177 net.cpp:156] Memory required for data: 393003520
I0729 16:41:25.254668 15177 layer_factory.hpp:77] Creating layer inception_4b/relu_3x3_reduce
I0729 16:41:25.254709 15177 net.cpp:91] Creating Layer inception_4b/relu_3x3_reduce
I0729 16:41:25.254726 15177 net.cpp:425] inception_4b/relu_3x3_reduce <- inception_4b/3x3_reduce
I0729 16:41:25.254745 15177 net.cpp:386] inception_4b/relu_3x3_reduce -> inception_4b/3x3_reduce (in-place)
I0729 16:41:25.255337 15177 net.cpp:141] Setting up inception_4b/relu_3x3_reduce
I0729 16:41:25.255357 15177 net.cpp:148] Top shape: 10 112 14 14 (219520)
I0729 16:41:25.255367 15177 net.cpp:156] Memory required for data: 393881600
I0729 16:41:25.255376 15177 layer_factory.hpp:77] Creating layer inception_4b/3x3
I0729 16:41:25.255417 15177 net.cpp:91] Creating Layer inception_4b/3x3
I0729 16:41:25.255431 15177 net.cpp:425] inception_4b/3x3 <- inception_4b/3x3_reduce
I0729 16:41:25.255455 15177 net.cpp:399] inception_4b/3x3 -> inception_4b/3x3
I0729 16:41:25.255480 15173 net.cpp:141] Setting up inception_4b/3x3
I0729 16:41:25.255499 15173 net.cpp:148] Top shape: 10 224 14 14 (439040)
I0729 16:41:25.255508 15173 net.cpp:156] Memory required for data: 395637760
I0729 16:41:25.255527 15173 layer_factory.hpp:77] Creating layer inception_4b/relu_3x3
I0729 16:41:25.255553 15173 net.cpp:91] Creating Layer inception_4b/relu_3x3
I0729 16:41:25.255568 15173 net.cpp:425] inception_4b/relu_3x3 <- inception_4b/3x3
I0729 16:41:25.255584 15173 net.cpp:386] inception_4b/relu_3x3 -> inception_4b/3x3 (in-place)
I0729 16:41:25.257336 15173 net.cpp:141] Setting up inception_4b/relu_3x3
I0729 16:41:25.257370 15173 net.cpp:148] Top shape: 10 224 14 14 (439040)
I0729 16:41:25.257381 15173 net.cpp:156] Memory required for data: 397393920
I0729 16:41:25.257392 15173 layer_factory.hpp:77] Creating layer inception_4b/5x5_reduce
I0729 16:41:25.257442 15173 net.cpp:91] Creating Layer inception_4b/5x5_reduce
I0729 16:41:25.257457 15173 net.cpp:425] inception_4b/5x5_reduce <- inception_4a/output_inception_4a/output_0_split_2
I0729 16:41:25.257477 15173 net.cpp:399] inception_4b/5x5_reduce -> inception_4b/5x5_reduce
I0729 16:41:25.266415 15173 net.cpp:141] Setting up inception_4b/5x5_reduce
I0729 16:41:25.266472 15173 net.cpp:148] Top shape: 10 24 14 14 (47040)
I0729 16:41:25.266484 15173 net.cpp:156] Memory required for data: 397582080
I0729 16:41:25.266520 15173 layer_factory.hpp:77] Creating layer inception_4b/relu_5x5_reduce
I0729 16:41:25.266551 15173 net.cpp:91] Creating Layer inception_4b/relu_5x5_reduce
I0729 16:41:25.266566 15173 net.cpp:425] inception_4b/relu_5x5_reduce <- inception_4b/5x5_reduce
I0729 16:41:25.266582 15173 net.cpp:386] inception_4b/relu_5x5_reduce -> inception_4b/5x5_reduce (in-place)
I0729 16:41:25.267036 15173 net.cpp:141] Setting up inception_4b/relu_5x5_reduce
I0729 16:41:25.267055 15173 net.cpp:148] Top shape: 10 24 14 14 (47040)
I0729 16:41:25.267062 15173 net.cpp:156] Memory required for data: 397770240
I0729 16:41:25.267071 15173 layer_factory.hpp:77] Creating layer inception_4b/5x5
I0729 16:41:25.267102 15173 net.cpp:91] Creating Layer inception_4b/5x5
I0729 16:41:25.267112 15173 net.cpp:425] inception_4b/5x5 <- inception_4b/5x5_reduce
I0729 16:41:25.267127 15173 net.cpp:399] inception_4b/5x5 -> inception_4b/5x5
I0729 16:41:25.271894 15177 net.cpp:141] Setting up inception_4b/3x3
I0729 16:41:25.271937 15177 net.cpp:148] Top shape: 10 224 14 14 (439040)
I0729 16:41:25.271945 15177 net.cpp:156] Memory required for data: 395637760
I0729 16:41:25.271971 15177 layer_factory.hpp:77] Creating layer inception_4b/relu_3x3
I0729 16:41:25.271993 15177 net.cpp:91] Creating Layer inception_4b/relu_3x3
I0729 16:41:25.272006 15177 net.cpp:425] inception_4b/relu_3x3 <- inception_4b/3x3
I0729 16:41:25.272022 15177 net.cpp:386] inception_4b/relu_3x3 -> inception_4b/3x3 (in-place)
I0729 16:41:25.273318 15177 net.cpp:141] Setting up inception_4b/relu_3x3
I0729 16:41:25.273346 15177 net.cpp:148] Top shape: 10 224 14 14 (439040)
I0729 16:41:25.273356 15177 net.cpp:156] Memory required for data: 397393920
I0729 16:41:25.273366 15177 layer_factory.hpp:77] Creating layer inception_4b/5x5_reduce
I0729 16:41:25.273412 15177 net.cpp:91] Creating Layer inception_4b/5x5_reduce
I0729 16:41:25.273427 15177 net.cpp:425] inception_4b/5x5_reduce <- inception_4a/output_inception_4a/output_0_split_2
I0729 16:41:25.273447 15177 net.cpp:399] inception_4b/5x5_reduce -> inception_4b/5x5_reduce
I0729 16:41:25.278282 15173 net.cpp:141] Setting up inception_4b/5x5
I0729 16:41:25.278327 15173 net.cpp:148] Top shape: 10 64 14 14 (125440)
I0729 16:41:25.278338 15173 net.cpp:156] Memory required for data: 398272000
I0729 16:41:25.278362 15173 layer_factory.hpp:77] Creating layer inception_4b/relu_5x5
I0729 16:41:25.278383 15173 net.cpp:91] Creating Layer inception_4b/relu_5x5
I0729 16:41:25.278396 15173 net.cpp:425] inception_4b/relu_5x5 <- inception_4b/5x5
I0729 16:41:25.278419 15173 net.cpp:386] inception_4b/relu_5x5 -> inception_4b/5x5 (in-place)
I0729 16:41:25.278939 15173 net.cpp:141] Setting up inception_4b/relu_5x5
I0729 16:41:25.278966 15173 net.cpp:148] Top shape: 10 64 14 14 (125440)
I0729 16:41:25.278975 15173 net.cpp:156] Memory required for data: 398773760
I0729 16:41:25.278985 15173 layer_factory.hpp:77] Creating layer inception_4b/pool
I0729 16:41:25.279001 15173 net.cpp:91] Creating Layer inception_4b/pool
I0729 16:41:25.279011 15173 net.cpp:425] inception_4b/pool <- inception_4a/output_inception_4a/output_0_split_3
I0729 16:41:25.279024 15173 net.cpp:399] inception_4b/pool -> inception_4b/pool
I0729 16:41:25.279731 15173 net.cpp:141] Setting up inception_4b/pool
I0729 16:41:25.279759 15173 net.cpp:148] Top shape: 10 512 14 14 (1003520)
I0729 16:41:25.279769 15173 net.cpp:156] Memory required for data: 402787840
I0729 16:41:25.279786 15173 layer_factory.hpp:77] Creating layer inception_4b/pool_proj
I0729 16:41:25.279817 15173 net.cpp:91] Creating Layer inception_4b/pool_proj
I0729 16:41:25.279829 15173 net.cpp:425] inception_4b/pool_proj <- inception_4b/pool
I0729 16:41:25.279855 15173 net.cpp:399] inception_4b/pool_proj -> inception_4b/pool_proj
I0729 16:41:25.280678 15177 net.cpp:141] Setting up inception_4b/5x5_reduce
I0729 16:41:25.280704 15177 net.cpp:148] Top shape: 10 24 14 14 (47040)
I0729 16:41:25.280714 15177 net.cpp:156] Memory required for data: 397582080
I0729 16:41:25.280733 15177 layer_factory.hpp:77] Creating layer inception_4b/relu_5x5_reduce
I0729 16:41:25.280750 15177 net.cpp:91] Creating Layer inception_4b/relu_5x5_reduce
I0729 16:41:25.280761 15177 net.cpp:425] inception_4b/relu_5x5_reduce <- inception_4b/5x5_reduce
I0729 16:41:25.280781 15177 net.cpp:386] inception_4b/relu_5x5_reduce -> inception_4b/5x5_reduce (in-place)
I0729 16:41:25.281236 15177 net.cpp:141] Setting up inception_4b/relu_5x5_reduce
I0729 16:41:25.281260 15177 net.cpp:148] Top shape: 10 24 14 14 (47040)
I0729 16:41:25.281268 15177 net.cpp:156] Memory required for data: 397770240
I0729 16:41:25.281277 15177 layer_factory.hpp:77] Creating layer inception_4b/5x5
I0729 16:41:25.281304 15177 net.cpp:91] Creating Layer inception_4b/5x5
I0729 16:41:25.281316 15177 net.cpp:425] inception_4b/5x5 <- inception_4b/5x5_reduce
I0729 16:41:25.281332 15177 net.cpp:399] inception_4b/5x5 -> inception_4b/5x5
I0729 16:41:25.286834 15173 net.cpp:141] Setting up inception_4b/pool_proj
I0729 16:41:25.286875 15173 net.cpp:148] Top shape: 10 64 14 14 (125440)
I0729 16:41:25.286883 15173 net.cpp:156] Memory required for data: 403289600
I0729 16:41:25.286902 15173 layer_factory.hpp:77] Creating layer inception_4b/relu_pool_proj
I0729 16:41:25.286924 15173 net.cpp:91] Creating Layer inception_4b/relu_pool_proj
I0729 16:41:25.286938 15173 net.cpp:425] inception_4b/relu_pool_proj <- inception_4b/pool_proj
I0729 16:41:25.286955 15173 net.cpp:386] inception_4b/relu_pool_proj -> inception_4b/pool_proj (in-place)
I0729 16:41:25.288244 15173 net.cpp:141] Setting up inception_4b/relu_pool_proj
I0729 16:41:25.288276 15173 net.cpp:148] Top shape: 10 64 14 14 (125440)
I0729 16:41:25.288286 15173 net.cpp:156] Memory required for data: 403791360
I0729 16:41:25.288296 15173 layer_factory.hpp:77] Creating layer inception_4b/output
I0729 16:41:25.288318 15173 net.cpp:91] Creating Layer inception_4b/output
I0729 16:41:25.288329 15173 net.cpp:425] inception_4b/output <- inception_4b/1x1
I0729 16:41:25.288341 15173 net.cpp:425] inception_4b/output <- inception_4b/3x3
I0729 16:41:25.288350 15173 net.cpp:425] inception_4b/output <- inception_4b/5x5
I0729 16:41:25.288360 15173 net.cpp:425] inception_4b/output <- inception_4b/pool_proj
I0729 16:41:25.288372 15173 net.cpp:399] inception_4b/output -> inception_4b/output
I0729 16:41:25.289153 15173 net.cpp:141] Setting up inception_4b/output
I0729 16:41:25.289177 15173 net.cpp:148] Top shape: 10 512 14 14 (1003520)
I0729 16:41:25.289186 15173 net.cpp:156] Memory required for data: 407805440
I0729 16:41:25.289197 15173 layer_factory.hpp:77] Creating layer inception_4b/output_inception_4b/output_0_split
I0729 16:41:25.289213 15173 net.cpp:91] Creating Layer inception_4b/output_inception_4b/output_0_split
I0729 16:41:25.289223 15173 net.cpp:425] inception_4b/output_inception_4b/output_0_split <- inception_4b/output
I0729 16:41:25.289237 15173 net.cpp:399] inception_4b/output_inception_4b/output_0_split -> inception_4b/output_inception_4b/output_0_split_0
I0729 16:41:25.289263 15173 net.cpp:399] inception_4b/output_inception_4b/output_0_split -> inception_4b/output_inception_4b/output_0_split_1
I0729 16:41:25.289280 15173 net.cpp:399] inception_4b/output_inception_4b/output_0_split -> inception_4b/output_inception_4b/output_0_split_2
I0729 16:41:25.289295 15173 net.cpp:399] inception_4b/output_inception_4b/output_0_split -> inception_4b/output_inception_4b/output_0_split_3
I0729 16:41:25.289891 15173 net.cpp:141] Setting up inception_4b/output_inception_4b/output_0_split
I0729 16:41:25.289911 15173 net.cpp:148] Top shape: 10 512 14 14 (1003520)
I0729 16:41:25.289923 15173 net.cpp:148] Top shape: 10 512 14 14 (1003520)
I0729 16:41:25.289935 15173 net.cpp:148] Top shape: 10 512 14 14 (1003520)
I0729 16:41:25.289947 15173 net.cpp:148] Top shape: 10 512 14 14 (1003520)
I0729 16:41:25.289954 15173 net.cpp:156] Memory required for data: 423861760
I0729 16:41:25.289968 15173 layer_factory.hpp:77] Creating layer inception_4c/1x1
I0729 16:41:25.289996 15173 net.cpp:91] Creating Layer inception_4c/1x1
I0729 16:41:25.290009 15173 net.cpp:425] inception_4c/1x1 <- inception_4b/output_inception_4b/output_0_split_0
I0729 16:41:25.290031 15173 net.cpp:399] inception_4c/1x1 -> inception_4c/1x1
I0729 16:41:25.291967 15177 net.cpp:141] Setting up inception_4b/5x5
I0729 16:41:25.291996 15177 net.cpp:148] Top shape: 10 64 14 14 (125440)
I0729 16:41:25.292004 15177 net.cpp:156] Memory required for data: 398272000
I0729 16:41:25.292027 15177 layer_factory.hpp:77] Creating layer inception_4b/relu_5x5
I0729 16:41:25.292042 15177 net.cpp:91] Creating Layer inception_4b/relu_5x5
I0729 16:41:25.292052 15177 net.cpp:425] inception_4b/relu_5x5 <- inception_4b/5x5
I0729 16:41:25.292068 15177 net.cpp:386] inception_4b/relu_5x5 -> inception_4b/5x5 (in-place)
I0729 16:41:25.292454 15177 net.cpp:141] Setting up inception_4b/relu_5x5
I0729 16:41:25.292474 15177 net.cpp:148] Top shape: 10 64 14 14 (125440)
I0729 16:41:25.292481 15177 net.cpp:156] Memory required for data: 398773760
I0729 16:41:25.292490 15177 layer_factory.hpp:77] Creating layer inception_4b/pool
I0729 16:41:25.292507 15177 net.cpp:91] Creating Layer inception_4b/pool
I0729 16:41:25.292516 15177 net.cpp:425] inception_4b/pool <- inception_4a/output_inception_4a/output_0_split_3
I0729 16:41:25.292528 15177 net.cpp:399] inception_4b/pool -> inception_4b/pool
I0729 16:41:25.292695 15177 net.cpp:141] Setting up inception_4b/pool
I0729 16:41:25.292711 15177 net.cpp:148] Top shape: 10 512 14 14 (1003520)
I0729 16:41:25.292719 15177 net.cpp:156] Memory required for data: 402787840
I0729 16:41:25.292728 15177 layer_factory.hpp:77] Creating layer inception_4b/pool_proj
I0729 16:41:25.292755 15177 net.cpp:91] Creating Layer inception_4b/pool_proj
I0729 16:41:25.292768 15177 net.cpp:425] inception_4b/pool_proj <- inception_4b/pool
I0729 16:41:25.292788 15177 net.cpp:399] inception_4b/pool_proj -> inception_4b/pool_proj
I0729 16:41:25.298470 15173 net.cpp:141] Setting up inception_4c/1x1
I0729 16:41:25.298521 15173 net.cpp:148] Top shape: 10 128 14 14 (250880)
I0729 16:41:25.298532 15173 net.cpp:156] Memory required for data: 424865280
I0729 16:41:25.298557 15173 layer_factory.hpp:77] Creating layer inception_4c/relu_1x1
I0729 16:41:25.298581 15173 net.cpp:91] Creating Layer inception_4c/relu_1x1
I0729 16:41:25.298595 15173 net.cpp:425] inception_4c/relu_1x1 <- inception_4c/1x1
I0729 16:41:25.298617 15173 net.cpp:386] inception_4c/relu_1x1 -> inception_4c/1x1 (in-place)
I0729 16:41:25.299188 15173 net.cpp:141] Setting up inception_4c/relu_1x1
I0729 16:41:25.299209 15173 net.cpp:148] Top shape: 10 128 14 14 (250880)
I0729 16:41:25.299221 15173 net.cpp:156] Memory required for data: 425868800
I0729 16:41:25.299232 15173 layer_factory.hpp:77] Creating layer inception_4c/3x3_reduce
I0729 16:41:25.299263 15173 net.cpp:91] Creating Layer inception_4c/3x3_reduce
…
I0729 16:41:25.443478 15173 net.cpp:141] Setting up inception_4e/5x5
I0729 16:41:25.443495 15173 net.cpp:148] Top shape: 10 128 14 14 (250880)
I0729 16:41:25.443501 15173 net.cpp:156] Memory required for data: 507153920
I0729 16:41:25.443512 15173 layer_factory.hpp:77] Creating layer inception_4e/relu_5x5
I0729 16:41:25.443527 15173 net.cpp:91] Creating Layer inception_4e/relu_5x5
I0729 16:41:25.443534 15173 net.cpp:425] inception_4e/relu_5x5 <- inception_4e/5x5
I0729 16:41:25.443544 15173 net.cpp:386] inception_4e/relu_5x5 -> inception_4e/5x5 (in-place)
I0729 16:41:25.443585 15177 net.cpp:141] Setting up inception_4e/relu_5x5_reduce
I0729 16:41:25.443599 15177 net.cpp:148] Top shape: 10 32 14 14 (62720)
I0729 16:41:25.443604 15177 net.cpp:156] Memory required for data: 506150400
I0729 16:41:25.443609 15177 layer_factory.hpp:77] Creating layer inception_4e/5x5
I0729 16:41:25.443629 15177 net.cpp:91] Creating Layer inception_4e/5x5
I0729 16:41:25.443635 15177 net.cpp:425] inception_4e/5x5 <- inception_4e/5x5_reduce
I0729 16:41:25.443650 15177 net.cpp:399] inception_4e/5x5 -> inception_4e/5x5
I0729 16:41:25.443985 15173 net.cpp:141] Setting up inception_4e/relu_5x5
I0729 16:41:25.443999 15173 net.cpp:148] Top shape: 10 128 14 14 (250880)
I0729 16:41:25.444003 15173 net.cpp:156] Memory required for data: 508157440
I0729 16:41:25.444010 15173 layer_factory.hpp:77] Creating layer inception_4e/pool
I0729 16:41:25.444025 15173 net.cpp:91] Creating Layer inception_4e/pool
I0729 16:41:25.444031 15173 net.cpp:425] inception_4e/pool <- inception_4d/output_inception_4d/output_0_split_3
I0729 16:41:25.444039 15173 net.cpp:399] inception_4e/pool -> inception_4e/pool
I0729 16:41:25.444322 15173 net.cpp:141] Setting up inception_4e/pool
I0729 16:41:25.444335 15173 net.cpp:148] Top shape: 10 528 14 14 (1034880)
I0729 16:41:25.444340 15173 net.cpp:156] Memory required for data: 512296960
I0729 16:41:25.444347 15173 layer_factory.hpp:77] Creating layer inception_4e/pool_proj
I0729 16:41:25.444363 15173 net.cpp:91] Creating Layer inception_4e/pool_proj
I0729 16:41:25.444370 15173 net.cpp:425] inception_4e/pool_proj <- inception_4e/pool
I0729 16:41:25.444382 15173 net.cpp:399] inception_4e/pool_proj -> inception_4e/pool_proj
I0729 16:41:25.450283 15173 net.cpp:141] Setting up inception_4e/pool_proj
I0729 16:41:25.450306 15173 net.cpp:148] Top shape: 10 128 14 14 (250880)
I0729 16:41:25.450312 15173 net.cpp:156] Memory required for data: 513300480
I0729 16:41:25.450325 15173 layer_factory.hpp:77] Creating layer inception_4e/relu_pool_proj
I0729 16:41:25.450338 15173 net.cpp:91] Creating Layer inception_4e/relu_pool_proj
I0729 16:41:25.450345 15173 net.cpp:425] inception_4e/relu_pool_proj <- inception_4e/pool_proj
I0729 16:41:25.450353 15173 net.cpp:386] inception_4e/relu_pool_proj -> inception_4e/pool_proj (in-place)
I0729 16:41:25.451288 15177 net.cpp:141] Setting up inception_4e/5x5
I0729 16:41:25.451313 15177 net.cpp:148] Top shape: 10 128 14 14 (250880)
I0729 16:41:25.451318 15177 net.cpp:156] Memory required for data: 507153920
I0729 16:41:25.451329 15177 layer_factory.hpp:77] Creating layer inception_4e/relu_5x5
I0729 16:41:25.451339 15177 net.cpp:91] Creating Layer inception_4e/relu_5x5
I0729 16:41:25.451346 15177 net.cpp:425] inception_4e/relu_5x5 <- inception_4e/5x5
I0729 16:41:25.451354 15177 net.cpp:386] inception_4e/relu_5x5 -> inception_4e/5x5 (in-place)
I0729 16:41:25.451362 15173 net.cpp:141] Setting up inception_4e/relu_pool_proj
I0729 16:41:25.451377 15173 net.cpp:148] Top shape: 10 128 14 14 (250880)
I0729 16:41:25.451382 15173 net.cpp:156] Memory required for data: 514304000
I0729 16:41:25.451387 15173 layer_factory.hpp:77] Creating layer inception_4e/output
I0729 16:41:25.451397 15173 net.cpp:91] Creating Layer inception_4e/output
I0729 16:41:25.451403 15173 net.cpp:425] inception_4e/output <- inception_4e/1x1
I0729 16:41:25.451411 15173 net.cpp:425] inception_4e/output <- inception_4e/3x3
I0729 16:41:25.451416 15173 net.cpp:425] inception_4e/output <- inception_4e/5x5
I0729 16:41:25.451421 15173 net.cpp:425] inception_4e/output <- inception_4e/pool_proj
I0729 16:41:25.451433 15173 net.cpp:399] inception_4e/output -> inception_4e/output
I0729 16:41:25.451598 15173 net.cpp:141] Setting up inception_4e/output
I0729 16:41:25.451611 15173 net.cpp:148] Top shape: 10 832 14 14 (1630720)
I0729 16:41:25.451617 15173 net.cpp:156] Memory required for data: 520826880
I0729 16:41:25.451622 15173 layer_factory.hpp:77] Creating layer pool4/3x3_s2
I0729 16:41:25.451633 15173 net.cpp:91] Creating Layer pool4/3x3_s2
I0729 16:41:25.451639 15173 net.cpp:425] pool4/3x3_s2 <- inception_4e/output
I0729 16:41:25.451652 15173 net.cpp:399] pool4/3x3_s2 -> pool4/3x3_s2
I0729 16:41:25.451717 15177 net.cpp:141] Setting up inception_4e/relu_5x5
I0729 16:41:25.451731 15177 net.cpp:148] Top shape: 10 128 14 14 (250880)
I0729 16:41:25.451736 15177 net.cpp:156] Memory required for data: 508157440
I0729 16:41:25.451741 15177 layer_factory.hpp:77] Creating layer inception_4e/pool
I0729 16:41:25.451756 15177 net.cpp:91] Creating Layer inception_4e/pool
I0729 16:41:25.451763 15177 net.cpp:425] inception_4e/pool <- inception_4d/output_inception_4d/output_0_split_3
I0729 16:41:25.451772 15177 net.cpp:399] inception_4e/pool -> inception_4e/pool
I0729 16:41:25.451802 15173 net.cpp:141] Setting up pool4/3x3_s2
I0729 16:41:25.451815 15173 net.cpp:148] Top shape: 10 832 7 7 (407680)
I0729 16:41:25.451819 15173 net.cpp:156] Memory required for data: 522457600
I0729 16:41:25.451824 15173 layer_factory.hpp:77] Creating layer pool4/3x3_s2_pool4/3x3_s2_0_split
I0729 16:41:25.451833 15173 net.cpp:91] Creating Layer pool4/3x3_s2_pool4/3x3_s2_0_split
I0729 16:41:25.451839 15173 net.cpp:425] pool4/3x3_s2_pool4/3x3_s2_0_split <- pool4/3x3_s2
I0729 16:41:25.451849 15173 net.cpp:399] pool4/3x3_s2_pool4/3x3_s2_0_split -> pool4/3x3_s2_pool4/3x3_s2_0_split_0
I0729 16:41:25.451859 15173 net.cpp:399] pool4/3x3_s2_pool4/3x3_s2_0_split -> pool4/3x3_s2_pool4/3x3_s2_0_split_1
I0729 16:41:25.451869 15173 net.cpp:399] pool4/3x3_s2_pool4/3x3_s2_0_split -> pool4/3x3_s2_pool4/3x3_s2_0_split_2
I0729 16:41:25.451876 15173 net.cpp:399] pool4/3x3_s2_pool4/3x3_s2_0_split -> pool4/3x3_s2_pool4/3x3_s2_0_split_3
I0729 16:41:25.451970 15177 net.cpp:141] Setting up inception_4e/pool
I0729 16:41:25.451983 15177 net.cpp:148] Top shape: 10 528 14 14 (1034880)
I0729 16:41:25.451987 15177 net.cpp:156] Memory required for data: 512296960
I0729 16:41:25.451993 15177 layer_factory.hpp:77] Creating layer inception_4e/pool_proj
I0729 16:41:25.452009 15177 net.cpp:91] Creating Layer inception_4e/pool_proj
I0729 16:41:25.452015 15177 net.cpp:425] inception_4e/pool_proj <- inception_4e/pool
I0729 16:41:25.452028 15177 net.cpp:399] inception_4e/pool_proj -> inception_4e/pool_proj
I0729 16:41:25.452239 15173 net.cpp:141] Setting up pool4/3x3_s2_pool4/3x3_s2_0_split
I0729 16:41:25.452251 15173 net.cpp:148] Top shape: 10 832 7 7 (407680)
I0729 16:41:25.452257 15173 net.cpp:148] Top shape: 10 832 7 7 (407680)
I0729 16:41:25.452263 15173 net.cpp:148] Top shape: 10 832 7 7 (407680)
I0729 16:41:25.452268 15173 net.cpp:148] Top shape: 10 832 7 7 (407680)
I0729 16:41:25.452273 15173 net.cpp:156] Memory required for data: 528980480
I0729 16:41:25.452278 15173 layer_factory.hpp:77] Creating layer inception_5a/1x1
I0729 16:41:25.452292 15173 net.cpp:91] Creating Layer inception_5a/1x1
I0729 16:41:25.452299 15173 net.cpp:425] inception_5a/1x1 <- pool4/3x3_s2_pool4/3x3_s2_0_split_0
I0729 16:41:25.452312 15173 net.cpp:399] inception_5a/1x1 -> inception_5a/1x1
I0729 16:41:25.458616 15177 net.cpp:141] Setting up inception_4e/pool_proj
I0729 16:41:25.458637 15177 net.cpp:148] Top shape: 10 128 14 14 (250880)
I0729 16:41:25.458643 15177 net.cpp:156] Memory required for data: 513300480
I0729 16:41:25.458653 15177 layer_factory.hpp:77] Creating layer inception_4e/relu_pool_proj
I0729 16:41:25.458672 15177 net.cpp:91] Creating Layer inception_4e/relu_pool_proj
I0729 16:41:25.458679 15177 net.cpp:425] inception_4e/relu_pool_proj <- inception_4e/pool_proj
I0729 16:41:25.458696 15177 net.cpp:386] inception_4e/relu_pool_proj -> inception_4e/pool_proj (in-place)
I0729 16:41:25.459707 15177 net.cpp:141] Setting up inception_4e/relu_pool_proj
I0729 16:41:25.459725 15177 net.cpp:148] Top shape: 10 128 14 14 (250880)
I0729 16:41:25.459730 15177 net.cpp:156] Memory required for data: 514304000
I0729 16:41:25.459736 15177 layer_factory.hpp:77] Creating layer inception_4e/output
I0729 16:41:25.459750 15177 net.cpp:91] Creating Layer inception_4e/output
I0729 16:41:25.459758 15177 net.cpp:425] inception_4e/output <- inception_4e/1x1
I0729 16:41:25.459765 15177 net.cpp:425] inception_4e/output <- inception_4e/3x3
I0729 16:41:25.459771 15177 net.cpp:425] inception_4e/output <- inception_4e/5x5
I0729 16:41:25.459777 15177 net.cpp:425] inception_4e/output <- inception_4e/pool_proj
I0729 16:41:25.459786 15177 net.cpp:399] inception_4e/output -> inception_4e/output
I0729 16:41:25.459991 15177 net.cpp:141] Setting up inception_4e/output
I0729 16:41:25.460005 15177 net.cpp:148] Top shape: 10 832 14 14 (1630720)
I0729 16:41:25.460010 15177 net.cpp:156] Memory required for data: 520826880
I0729 16:41:25.460014 15177 layer_factory.hpp:77] Creating layer pool4/3x3_s2
I0729 16:41:25.460023 15177 net.cpp:91] Creating Layer pool4/3x3_s2
I0729 16:41:25.460029 15177 net.cpp:425] pool4/3x3_s2 <- inception_4e/output
I0729 16:41:25.460039 15177 net.cpp:399] pool4/3x3_s2 -> pool4/3x3_s2
I0729 16:41:25.460230 15177 net.cpp:141] Setting up pool4/3x3_s2
I0729 16:41:25.460242 15177 net.cpp:148] Top shape: 10 832 7 7 (407680)
I0729 16:41:25.460247 15177 net.cpp:156] Memory required for data: 522457600
I0729 16:41:25.460253 15177 layer_factory.hpp:77] Creating layer pool4/3x3_s2_pool4/3x3_s2_0_split
I0729 16:41:25.460260 15177 net.cpp:91] Creating Layer pool4/3x3_s2_pool4/3x3_s2_0_split
I0729 16:41:25.460266 15177 net.cpp:425] pool4/3x3_s2_pool4/3x3_s2_0_split <- pool4/3x3_s2
I0729 16:41:25.460276 15177 net.cpp:399] pool4/3x3_s2_pool4/3x3_s2_0_split -> pool4/3x3_s2_pool4/3x3_s2_0_split_0
I0729 16:41:25.460285 15177 net.cpp:399] pool4/3x3_s2_pool4/3x3_s2_0_split -> pool4/3x3_s2_pool4/3x3_s2_0_split_1
I0729 16:41:25.460294 15177 net.cpp:399] pool4/3x3_s2_pool4/3x3_s2_0_split -> pool4/3x3_s2_pool4/3x3_s2_0_split_2
I0729 16:41:25.460302 15177 net.cpp:399] pool4/3x3_s2_pool4/3x3_s2_0_split -> pool4/3x3_s2_pool4/3x3_s2_0_split_3
I0729 16:41:25.460724 15177 net.cpp:141] Setting up pool4/3x3_s2_pool4/3x3_s2_0_split
I0729 16:41:25.460737 15177 net.cpp:148] Top shape: 10 832 7 7 (407680)
I0729 16:41:25.460743 15177 net.cpp:148] Top shape: 10 832 7 7 (407680)
I0729 16:41:25.460749 15177 net.cpp:148] Top shape: 10 832 7 7 (407680)
I0729 16:41:25.460754 15177 net.cpp:148] Top shape: 10 832 7 7 (407680)
I0729 16:41:25.460759 15177 net.cpp:156] Memory required for data: 528980480
I0729 16:41:25.460767 15177 layer_factory.hpp:77] Creating layer inception_5a/1x1
I0729 16:41:25.460784 15177 net.cpp:91] Creating Layer inception_5a/1x1
I0729 16:41:25.460790 15177 net.cpp:425] inception_5a/1x1 <- pool4/3x3_s2_pool4/3x3_s2_0_split_0
I0729 16:41:25.460800 15177 net.cpp:399] inception_5a/1x1 -> inception_5a/1x1
I0729 16:41:25.460810 15173 net.cpp:141] Setting up inception_5a/1x1
I0729 16:41:25.460829 15173 net.cpp:148] Top shape: 10 256 7 7 (125440)
I0729 16:41:25.460834 15173 net.cpp:156] Memory required for data: 529482240
I0729 16:41:25.460844 15173 layer_factory.hpp:77] Creating layer inception_5a/relu_1x1
I0729 16:41:25.460857 15173 net.cpp:91] Creating Layer inception_5a/relu_1x1
I0729 16:41:25.460863 15173 net.cpp:425] inception_5a/relu_1x1 <- inception_5a/1x1
I0729 16:41:25.460873 15173 net.cpp:386] inception_5a/relu_1x1 -> inception_5a/1x1 (in-place)
I0729 16:41:25.461309 15173 net.cpp:141] Setting up inception_5a/relu_1x1
I0729 16:41:25.461323 15173 net.cpp:148] Top shape: 10 256 7 7 (125440)
I0729 16:41:25.461328 15173 net.cpp:156] Memory required for data: 529984000
I0729 16:41:25.461336 15173 layer_factory.hpp:77] Creating layer inception_5a/3x3_reduce
I0729 16:41:25.461354 15173 net.cpp:91] Creating Layer inception_5a/3x3_reduce
I0729 16:41:25.461361 15173 net.cpp:425] inception_5a/3x3_reduce <- pool4/3x3_s2_pool4/3x3_s2_0_split_1
I0729 16:41:25.461374 15173 net.cpp:399] inception_5a/3x3_reduce -> inception_5a/3x3_reduce
I0729 16:41:25.469841 15177 net.cpp:141] Setting up inception_5a/1x1
I0729 16:41:25.469873 15177 net.cpp:148] Top shape: 10 256 7 7 (125440)
I0729 16:41:25.469879 15177 net.cpp:156] Memory required for data: 529482240
I0729 16:41:25.469892 15177 layer_factory.hpp:77] Creating layer inception_5a/relu_1x1
I0729 16:41:25.469907 15177 net.cpp:91] Creating Layer inception_5a/relu_1x1
I0729 16:41:25.469914 15177 net.cpp:425] inception_5a/relu_1x1 <- inception_5a/1x1
I0729 16:41:25.469923 15177 net.cpp:386] inception_5a/relu_1x1 -> inception_5a/1x1 (in-place)
I0729 16:41:25.470304 15173 net.cpp:141] Setting up inception_5a/3x3_reduce
I0729 16:41:25.470324 15173 net.cpp:148] Top shape: 10 160 7 7 (78400)
I0729 16:41:25.470330 15173 net.cpp:156] Memory required for data: 530297600
I0729 16:41:25.470341 15173 layer_factory.hpp:77] Creating layer inception_5a/relu_3x3_reduce
I0729 16:41:25.470346 15177 net.cpp:141] Setting up inception_5a/relu_1x1
I0729 16:41:25.470355 15173 net.cpp:91] Creating Layer inception_5a/relu_3x3_reduce
I0729 16:41:25.470360 15177 net.cpp:148] Top shape: 10 256 7 7 (125440)
I0729 16:41:25.470361 15173 net.cpp:425] inception_5a/relu_3x3_reduce <- inception_5a/3x3_reduce
I0729 16:41:25.470366 15177 net.cpp:156] Memory required for data: 529984000
I0729 16:41:25.470371 15173 net.cpp:386] inception_5a/relu_3x3_reduce -> inception_5a/3x3_reduce (in-place)
I0729 16:41:25.470371 15177 layer_factory.hpp:77] Creating layer inception_5a/3x3_reduce
I0729 16:41:25.470391 15177 net.cpp:91] Creating Layer inception_5a/3x3_reduce
I0729 16:41:25.470397 15177 net.cpp:425] inception_5a/3x3_reduce <- pool4/3x3_s2_pool4/3x3_s2_0_split_1
I0729 16:41:25.470412 15177 net.cpp:399] inception_5a/3x3_reduce -> inception_5a/3x3_reduce
I0729 16:41:25.470827 15173 net.cpp:141] Setting up inception_5a/relu_3x3_reduce
I0729 16:41:25.470841 15173 net.cpp:148] Top shape: 10 160 7 7 (78400)
I0729 16:41:25.470846 15173 net.cpp:156] Memory required for data: 530611200
I0729 16:41:25.470851 15173 layer_factory.hpp:77] Creating layer inception_5a/3x3
I0729 16:41:25.470868 15173 net.cpp:91] Creating Layer inception_5a/3x3
I0729 16:41:25.470875 15173 net.cpp:425] inception_5a/3x3 <- inception_5a/3x3_reduce
I0729 16:41:25.470887 15173 net.cpp:399] inception_5a/3x3 -> inception_5a/3x3
I0729 16:41:25.478185 15177 net.cpp:141] Setting up inception_5a/3x3_reduce
I0729 16:41:25.478214 15177 net.cpp:148] Top shape: 10 160 7 7 (78400)
I0729 16:41:25.478219 15177 net.cpp:156] Memory required for data: 530297600
I0729 16:41:25.478231 15177 layer_factory.hpp:77] Creating layer inception_5a/relu_3x3_reduce
I0729 16:41:25.478246 15177 net.cpp:91] Creating Layer inception_5a/relu_3x3_reduce
I0729 16:41:25.478253 15177 net.cpp:425] inception_5a/relu_3x3_reduce <- inception_5a/3x3_reduce
I0729 16:41:25.478261 15177 net.cpp:386] inception_5a/relu_3x3_reduce -> inception_5a/3x3_reduce (in-place)
I0729 16:41:25.478561 15177 net.cpp:141] Setting up inception_5a/relu_3x3_reduce
I0729 16:41:25.478574 15177 net.cpp:148] Top shape: 10 160 7 7 (78400)
I0729 16:41:25.478579 15177 net.cpp:156] Memory required for data: 530611200
I0729 16:41:25.478587 15177 layer_factory.hpp:77] Creating layer inception_5a/3x3
I0729 16:41:25.478606 15177 net.cpp:91] Creating Layer inception_5a/3x3
I0729 16:41:25.478613 15177 net.cpp:425] inception_5a/3x3 <- inception_5a/3x3_reduce
I0729 16:41:25.478626 15177 net.cpp:399] inception_5a/3x3 -> inception_5a/3x3
I0729 16:41:25.485180 15173 net.cpp:141] Setting up inception_5a/3x3
I0729 16:41:25.485204 15173 net.cpp:148] Top shape: 10 320 7 7 (156800)
I0729 16:41:25.485211 15173 net.cpp:156] Memory required for data: 531238400
I0729 16:41:25.485224 15173 layer_factory.hpp:77] Creating layer inception_5a/relu_3x3
I0729 16:41:25.485234 15173 net.cpp:91] Creating Layer inception_5a/relu_3x3
I0729 16:41:25.485241 15173 net.cpp:425] inception_5a/relu_3x3 <- inception_5a/3x3
I0729 16:41:25.485254 15173 net.cpp:386] inception_5a/relu_3x3 -> inception_5a/3x3 (in-place)
I0729 16:41:25.486192 15173 net.cpp:141] Setting up inception_5a/relu_3x3
I0729 16:41:25.486210 15173 net.cpp:148] Top shape: 10 320 7 7 (156800)
I0729 16:41:25.486217 15173 net.cpp:156] Memory required for data: 531865600
I0729 16:41:25.486227 15173 layer_factory.hpp:77] Creating layer inception_5a/5x5_reduce
I0729 16:41:25.486248 15173 net.cpp:91] Creating Layer inception_5a/5x5_reduce
I0729 16:41:25.486256 15173 net.cpp:425] inception_5a/5x5_reduce <- pool4/3x3_s2_pool4/3x3_s2_0_split_2
I0729 16:41:25.486268 15173 net.cpp:399] inception_5a/5x5_reduce -> inception_5a/5x5_reduce
I0729 16:41:25.491118 15177 net.cpp:141] Setting up inception_5a/3x3
I0729 16:41:25.491138 15177 net.cpp:148] Top shape: 10 320 7 7 (156800)
I0729 16:41:25.491144 15177 net.cpp:156] Memory required for data: 531238400
I0729 16:41:25.491155 15177 layer_factory.hpp:77] Creating layer inception_5a/relu_3x3
I0729 16:41:25.491164 15177 net.cpp:91] Creating Layer inception_5a/relu_3x3
I0729 16:41:25.491174 15177 net.cpp:425] inception_5a/relu_3x3 <- inception_5a/3x3
I0729 16:41:25.491183 15177 net.cpp:386] inception_5a/relu_3x3 -> inception_5a/3x3 (in-place)
I0729 16:41:25.492080 15177 net.cpp:141] Setting up inception_5a/relu_3x3
I0729 16:41:25.492099 15177 net.cpp:148] Top shape: 10 320 7 7 (156800)
I0729 16:41:25.492103 15177 net.cpp:156] Memory required for data: 531865600
I0729 16:41:25.492110 15177 layer_factory.hpp:77] Creating layer inception_5a/5x5_reduce
I0729 16:41:25.492125 15177 net.cpp:91] Creating Layer inception_5a/5x5_reduce
I0729 16:41:25.492132 15177 net.cpp:425] inception_5a/5x5_reduce <- pool4/3x3_s2_pool4/3x3_s2_0_split_2
I0729 16:41:25.492146 15177 net.cpp:399] inception_5a/5x5_reduce -> inception_5a/5x5_reduce
I0729 16:41:25.493405 15173 net.cpp:141] Setting up inception_5a/5x5_reduce
I0729 16:41:25.493429 15173 net.cpp:148] Top shape: 10 32 7 7 (15680)
I0729 16:41:25.493435 15173 net.cpp:156] Memory required for data: 531928320
I0729 16:41:25.493446 15173 layer_factory.hpp:77] Creating layer inception_5a/relu_5x5_reduce
I0729 16:41:25.493456 15173 net.cpp:91] Creating Layer inception_5a/relu_5x5_reduce
I0729 16:41:25.493463 15173 net.cpp:425] inception_5a/relu_5x5_reduce <- inception_5a/5x5_reduce
I0729 16:41:25.493475 15173 net.cpp:386] inception_5a/relu_5x5_reduce -> inception_5a/5x5_reduce (in-place)
I0729 16:41:25.493911 15173 net.cpp:141] Setting up inception_5a/relu_5x5_reduce
I0729 16:41:25.493929 15173 net.cpp:148] Top shape: 10 32 7 7 (15680)
I0729 16:41:25.493935 15173 net.cpp:156] Memory required for data: 531991040
I0729 16:41:25.493940 15173 layer_factory.hpp:77] Creating layer inception_5a/5x5
I0729 16:41:25.493965 15173 net.cpp:91] Creating Layer inception_5a/5x5
I0729 16:41:25.493973 15173 net.cpp:425] inception_5a/5x5 <- inception_5a/5x5_reduce
I0729 16:41:25.493983 15173 net.cpp:399] inception_5a/5x5 -> inception_5a/5x5
I0729 16:41:25.497010 15177 net.cpp:141] Setting up inception_5a/5x5_reduce
I0729 16:41:25.497037 15177 net.cpp:148] Top shape: 10 32 7 7 (15680)
I0729 16:41:25.497042 15177 net.cpp:156] Memory required for data: 531928320
I0729 16:41:25.497056 15177 layer_factory.hpp:77] Creating layer inception_5a/relu_5x5_reduce
I0729 16:41:25.497072 15177 net.cpp:91] Creating Layer inception_5a/relu_5x5_reduce
I0729 16:41:25.497081 15177 net.cpp:425] inception_5a/relu_5x5_reduce <- inception_5a/5x5_reduce
I0729 16:41:25.497092 15177 net.cpp:386] inception_5a/relu_5x5_reduce -> inception_5a/5x5_reduce (in-place)
I0729 16:41:25.497390 15177 net.cpp:141] Setting up inception_5a/relu_5x5_reduce
I0729 16:41:25.497402 15177 net.cpp:148] Top shape: 10 32 7 7 (15680)
I0729 16:41:25.497407 15177 net.cpp:156] Memory required for data: 531991040
I0729 16:41:25.497412 15177 layer_factory.hpp:77] Creating layer inception_5a/5x5
I0729 16:41:25.497432 15177 net.cpp:91] Creating Layer inception_5a/5x5
I0729 16:41:25.497439 15177 net.cpp:425] inception_5a/5x5 <- inception_5a/5x5_reduce
I0729 16:41:25.497448 15177 net.cpp:399] inception_5a/5x5 -> inception_5a/5x5
I0729 16:41:25.501477 15173 net.cpp:141] Setting up inception_5a/5x5
I0729 16:41:25.501500 15173 net.cpp:148] Top shape: 10 128 7 7 (62720)
I0729 16:41:25.501507 15173 net.cpp:156] Memory required for data: 532241920
I0729 16:41:25.501518 15173 layer_factory.hpp:77] Creating layer inception_5a/relu_5x5
I0729 16:41:25.501560 15173 net.cpp:91] Creating Layer inception_5a/relu_5x5
I0729 16:41:25.501569 15173 net.cpp:425] inception_5a/relu_5x5 <- inception_5a/5x5
I0729 16:41:25.501576 15173 net.cpp:386] inception_5a/relu_5x5 -> inception_5a/5x5 (in-place)
I0729 16:41:25.501974 15173 net.cpp:141] Setting up inception_5a/relu_5x5
I0729 16:41:25.501992 15173 net.cpp:148] Top shape: 10 128 7 7 (62720)
I0729 16:41:25.501997 15173 net.cpp:156] Memory required for data: 532492800
I0729 16:41:25.502003 15173 layer_factory.hpp:77] Creating layer inception_5a/pool
I0729 16:41:25.502015 15173 net.cpp:91] Creating Layer inception_5a/pool
I0729 16:41:25.502022 15173 net.cpp:425] inception_5a/pool <- pool4/3x3_s2_pool4/3x3_s2_0_split_3
I0729 16:41:25.502029 15173 net.cpp:399] inception_5a/pool -> inception_5a/pool
I0729 16:41:25.502849 15173 net.cpp:141] Setting up inception_5a/pool
I0729 16:41:25.502867 15173 net.cpp:148] Top shape: 10 832 7 7 (407680)
I0729 16:41:25.502872 15173 net.cpp:156] Memory required for data: 534123520
I0729 16:41:25.502877 15173 layer_factory.hpp:77] Creating layer inception_5a/pool_proj
I0729 16:41:25.502892 15173 net.cpp:91] Creating Layer inception_5a/pool_proj
I0729 16:41:25.502898 15173 net.cpp:425] inception_5a/pool_proj <- inception_5a/pool
I0729 16:41:25.502912 15173 net.cpp:399] inception_5a/pool_proj -> inception_5a/pool_proj
I0729 16:41:25.503631 15177 net.cpp:141] Setting up inception_5a/5x5
I0729 16:41:25.503649 15177 net.cpp:148] Top shape: 10 128 7 7 (62720)
I0729 16:41:25.503655 15177 net.cpp:156] Memory required for data: 532241920
I0729 16:41:25.503665 15177 layer_factory.hpp:77] Creating layer inception_5a/relu_5x5
I0729 16:41:25.503705 15177 net.cpp:91] Creating Layer inception_5a/relu_5x5
I0729 16:41:25.503713 15177 net.cpp:425] inception_5a/relu_5x5 <- inception_5a/5x5
I0729 16:41:25.503721 15177 net.cpp:386] inception_5a/relu_5x5 -> inception_5a/5x5 (in-place)
I0729 16:41:25.504520 15177 net.cpp:141] Setting up inception_5a/relu_5x5
I0729 16:41:25.504536 15177 net.cpp:148] Top shape: 10 128 7 7 (62720)
I0729 16:41:25.504541 15177 net.cpp:156] Memory required for data: 532492800
I0729 16:41:25.504549 15177 layer_factory.hpp:77] Creating layer inception_5a/pool
I0729 16:41:25.504564 15177 net.cpp:91] Creating Layer inception_5a/pool
I0729 16:41:25.504570 15177 net.cpp:425] inception_5a/pool <- pool4/3x3_s2_pool4/3x3_s2_0_split_3
I0729 16:41:25.504580 15177 net.cpp:399] inception_5a/pool -> inception_5a/pool
I0729 16:41:25.505879 15177 net.cpp:141] Setting up inception_5a/pool
I0729 16:41:25.505895 15177 net.cpp:148] Top shape: 10 832 7 7 (407680)
I0729 16:41:25.505899 15177 net.cpp:156] Memory required for data: 534123520
I0729 16:41:25.505908 15177 layer_factory.hpp:77] Creating layer inception_5a/pool_proj
I0729 16:41:25.505926 15177 net.cpp:91] Creating Layer inception_5a/pool_proj
I0729 16:41:25.505935 15177 net.cpp:425] inception_5a/pool_proj <- inception_5a/pool
I0729 16:41:25.505944 15177 net.cpp:399] inception_5a/pool_proj -> inception_5a/pool_proj
I0729 16:41:25.512058 15173 net.cpp:141] Setting up inception_5a/pool_proj
I0729 16:41:25.512090 15173 net.cpp:148] Top shape: 10 128 7 7 (62720)
I0729 16:41:25.512096 15173 net.cpp:156] Memory required for data: 534374400
I0729 16:41:25.512109 15173 layer_factory.hpp:77] Creating layer inception_5a/relu_pool_proj
I0729 16:41:25.512126 15173 net.cpp:91] Creating Layer inception_5a/relu_pool_proj
I0729 16:41:25.512133 15173 net.cpp:425] inception_5a/relu_pool_proj <- inception_5a/pool_proj
I0729 16:41:25.512145 15173 net.cpp:386] inception_5a/relu_pool_proj -> inception_5a/pool_proj (in-place)
I0729 16:41:25.513181 15173 net.cpp:141] Setting up inception_5a/relu_pool_proj
I0729 16:41:25.513198 15173 net.cpp:148] Top shape: 10 128 7 7 (62720)
I0729 16:41:25.513203 15173 net.cpp:156] Memory required for data: 534625280
I0729 16:41:25.513211 15173 layer_factory.hpp:77] Creating layer inception_5a/output
I0729 16:41:25.513221 15173 net.cpp:91] Creating Layer inception_5a/output
I0729 16:41:25.513227 15173 net.cpp:425] inception_5a/output <- inception_5a/1x1
I0729 16:41:25.513236 15173 net.cpp:425] inception_5a/output <- inception_5a/3x3
I0729 16:41:25.513242 15173 net.cpp:425] inception_5a/output <- inception_5a/5x5
I0729 16:41:25.513247 15173 net.cpp:425] inception_5a/output <- inception_5a/pool_proj
I0729 16:41:25.513257 15173 net.cpp:399] inception_5a/output -> inception_5a/output
I0729 16:41:25.513397 15173 net.cpp:141] Setting up inception_5a/output
I0729 16:41:25.513411 15173 net.cpp:148] Top shape: 10 832 7 7 (407680)
I0729 16:41:25.513416 15173 net.cpp:156] Memory required for data: 536256000
I0729 16:41:25.513420 15173 layer_factory.hpp:77] Creating layer inception_5a/output_inception_5a/output_0_split
I0729 16:41:25.513432 15173 net.cpp:91] Creating Layer inception_5a/output_inception_5a/output_0_split
I0729 16:41:25.513437 15173 net.cpp:425] inception_5a/output_inception_5a/output_0_split <- inception_5a/output
I0729 16:41:25.513445 15173 net.cpp:399] inception_5a/output_inception_5a/output_0_split -> inception_5a/output_inception_5a/output_0_split_0
I0729 16:41:25.513442 15177 net.cpp:141] Setting up inception_5a/pool_proj
I0729 16:41:25.513455 15173 net.cpp:399] inception_5a/output_inception_5a/output_0_split -> inception_5a/output_inception_5a/output_0_split_1
I0729 16:41:25.513463 15177 net.cpp:148] Top shape: 10 128 7 7 (62720)
I0729 16:41:25.513464 15173 net.cpp:399] inception_5a/output_inception_5a/output_0_split -> inception_5a/output_inception_5a/output_0_split_2
I0729 16:41:25.513468 15177 net.cpp:156] Memory required for data: 534374400
I0729 16:41:25.513474 15173 net.cpp:399] inception_5a/output_inception_5a/output_0_split -> inception_5a/output_inception_5a/output_0_split_3
I0729 16:41:25.513480 15177 layer_factory.hpp:77] Creating layer inception_5a/relu_pool_proj
I0729 16:41:25.513489 15177 net.cpp:91] Creating Layer inception_5a/relu_pool_proj
I0729 16:41:25.513496 15177 net.cpp:425] inception_5a/relu_pool_proj <- inception_5a/pool_proj
I0729 16:41:25.513504 15177 net.cpp:386] inception_5a/relu_pool_proj -> inception_5a/pool_proj (in-place)
I0729 16:41:25.514518 15173 net.cpp:141] Setting up inception_5a/output_inception_5a/output_0_split
I0729 16:41:25.514533 15173 net.cpp:148] Top shape: 10 832 7 7 (407680)
I0729 16:41:25.514539 15173 net.cpp:148] Top shape: 10 832 7 7 (407680)
I0729 16:41:25.514545 15173 net.cpp:148] Top shape: 10 832 7 7 (407680)
I0729 16:41:25.514551 15173 net.cpp:148] Top shape: 10 832 7 7 (407680)
I0729 16:41:25.514555 15173 net.cpp:156] Memory required for data: 542778880
I0729 16:41:25.514556 15177 net.cpp:141] Setting up inception_5a/relu_pool_proj
I0729 16:41:25.514560 15173 layer_factory.hpp:77] Creating layer inception_5b/1x1
I0729 16:41:25.514575 15177 net.cpp:148] Top shape: 10 128 7 7 (62720)
I0729 16:41:25.514580 15177 net.cpp:156] Memory required for data: 534625280
I0729 16:41:25.514585 15177 layer_factory.hpp:77] Creating layer inception_5a/output
I0729 16:41:25.514592 15173 net.cpp:91] Creating Layer inception_5b/1x1
I0729 16:41:25.514597 15177 net.cpp:91] Creating Layer inception_5a/output
I0729 16:41:25.514600 15173 net.cpp:425] inception_5b/1x1 <- inception_5a/output_inception_5a/output_0_split_0
I0729 16:41:25.514605 15177 net.cpp:425] inception_5a/output <- inception_5a/1x1
I0729 16:41:25.514610 15173 net.cpp:399] inception_5b/1x1 -> inception_5b/1x1
I0729 16:41:25.514611 15177 net.cpp:425] inception_5a/output <- inception_5a/3x3
I0729 16:41:25.514618 15177 net.cpp:425] inception_5a/output <- inception_5a/5x5
I0729 16:41:25.514624 15177 net.cpp:425] inception_5a/output <- inception_5a/pool_proj
I0729 16:41:25.514632 15177 net.cpp:399] inception_5a/output -> inception_5a/output
I0729 16:41:25.514822 15177 net.cpp:141] Setting up inception_5a/output
I0729 16:41:25.514834 15177 net.cpp:148] Top shape: 10 832 7 7 (407680)
I0729 16:41:25.514839 15177 net.cpp:156] Memory required for data: 536256000
I0729 16:41:25.514844 15177 layer_factory.hpp:77] Creating layer inception_5a/output_inception_5a/output_0_split
I0729 16:41:25.514853 15177 net.cpp:91] Creating Layer inception_5a/output_inception_5a/output_0_split
I0729 16:41:25.514858 15177 net.cpp:425] inception_5a/output_inception_5a/output_0_split <- inception_5a/output
I0729 16:41:25.514869 15177 net.cpp:399] inception_5a/output_inception_5a/output_0_split -> inception_5a/output_inception_5a/output_0_split_0
I0729 16:41:25.514879 15177 net.cpp:399] inception_5a/output_inception_5a/output_0_split -> inception_5a/output_inception_5a/output_0_split_1
I0729 16:41:25.514889 15177 net.cpp:399] inception_5a/output_inception_5a/output_0_split -> inception_5a/output_inception_5a/output_0_split_2
I0729 16:41:25.514897 15177 net.cpp:399] inception_5a/output_inception_5a/output_0_split -> inception_5a/output_inception_5a/output_0_split_3
I0729 16:41:25.515328 15177 net.cpp:141] Setting up inception_5a/output_inception_5a/output_0_split
I0729 16:41:25.515341 15177 net.cpp:148] Top shape: 10 832 7 7 (407680)
I0729 16:41:25.515347 15177 net.cpp:148] Top shape: 10 832 7 7 (407680)
I0729 16:41:25.515352 15177 net.cpp:148] Top shape: 10 832 7 7 (407680)
I0729 16:41:25.515358 15177 net.cpp:148] Top shape: 10 832 7 7 (407680)
I0729 16:41:25.515362 15177 net.cpp:156] Memory required for data: 542778880
I0729 16:41:25.515370 15177 layer_factory.hpp:77] Creating layer inception_5b/1x1
I0729 16:41:25.515388 15177 net.cpp:91] Creating Layer inception_5b/1x1
I0729 16:41:25.515393 15177 net.cpp:425] inception_5b/1x1 <- inception_5a/output_inception_5a/output_0_split_0
I0729 16:41:25.515406 15177 net.cpp:399] inception_5b/1x1 -> inception_5b/1x1
I0729 16:41:25.523175 15173 net.cpp:141] Setting up inception_5b/1x1
I0729 16:41:25.523197 15173 net.cpp:148] Top shape: 10 384 7 7 (188160)
I0729 16:41:25.523205 15173 net.cpp:156] Memory required for data: 543531520
I0729 16:41:25.523216 15173 layer_factory.hpp:77] Creating layer inception_5b/relu_1x1
I0729 16:41:25.523229 15173 net.cpp:91] Creating Layer inception_5b/relu_1x1
I0729 16:41:25.523236 15173 net.cpp:425] inception_5b/relu_1x1 <- inception_5b/1x1
I0729 16:41:25.523243 15173 net.cpp:386] inception_5b/relu_1x1 -> inception_5b/1x1 (in-place)
I0729 16:41:25.523555 15173 net.cpp:141] Setting up inception_5b/relu_1x1
I0729 16:41:25.523567 15173 net.cpp:148] Top shape: 10 384 7 7 (188160)
I0729 16:41:25.523572 15173 net.cpp:156] Memory required for data: 544284160
I0729 16:41:25.523579 15173 layer_factory.hpp:77] Creating layer inception_5b/3x3_reduce
I0729 16:41:25.523597 15173 net.cpp:91] Creating Layer inception_5b/3x3_reduce
I0729 16:41:25.523602 15173 net.cpp:425] inception_5b/3x3_reduce <- inception_5a/output_inception_5a/output_0_split_1
I0729 16:41:25.523615 15173 net.cpp:399] inception_5b/3x3_reduce -> inception_5b/3x3_reduce
I0729 16:41:25.527384 15177 net.cpp:141] Setting up inception_5b/1x1
I0729 16:41:25.527405 15177 net.cpp:148] Top shape: 10 384 7 7 (188160)
I0729 16:41:25.527411 15177 net.cpp:156] Memory required for data: 543531520
I0729 16:41:25.527422 15177 layer_factory.hpp:77] Creating layer inception_5b/relu_1x1
I0729 16:41:25.527436 15177 net.cpp:91] Creating Layer inception_5b/relu_1x1
I0729 16:41:25.527443 15177 net.cpp:425] inception_5b/relu_1x1 <- inception_5b/1x1
I0729 16:41:25.527451 15177 net.cpp:386] inception_5b/relu_1x1 -> inception_5b/1x1 (in-place)
I0729 16:41:25.527757 15177 net.cpp:141] Setting up inception_5b/relu_1x1
I0729 16:41:25.527770 15177 net.cpp:148] Top shape: 10 384 7 7 (188160)
I0729 16:41:25.527776 15177 net.cpp:156] Memory required for data: 544284160
I0729 16:41:25.527781 15177 layer_factory.hpp:77] Creating layer inception_5b/3x3_reduce
I0729 16:41:25.527799 15177 net.cpp:91] Creating Layer inception_5b/3x3_reduce
I0729 16:41:25.527806 15177 net.cpp:425] inception_5b/3x3_reduce <- inception_5a/output_inception_5a/output_0_split_1
I0729 16:41:25.527818 15177 net.cpp:399] inception_5b/3x3_reduce -> inception_5b/3x3_reduce
I0729 16:41:25.533711 15173 net.cpp:141] Setting up inception_5b/3x3_reduce
I0729 16:41:25.533732 15173 net.cpp:148] Top shape: 10 192 7 7 (94080)
I0729 16:41:25.533738 15173 net.cpp:156] Memory required for data: 544660480
I0729 16:41:25.533749 15173 layer_factory.hpp:77] Creating layer inception_5b/relu_3x3_reduce
I0729 16:41:25.533762 15173 net.cpp:91] Creating Layer inception_5b/relu_3x3_reduce
I0729 16:41:25.533769 15173 net.cpp:425] inception_5b/relu_3x3_reduce <- inception_5b/3x3_reduce
I0729 16:41:25.533777 15173 net.cpp:386] inception_5b/relu_3x3_reduce -> inception_5b/3x3_reduce (in-place)
I0729 16:41:25.534121 15173 net.cpp:141] Setting up inception_5b/relu_3x3_reduce
I0729 16:41:25.534135 15173 net.cpp:148] Top shape: 10 192 7 7 (94080)
I0729 16:41:25.534139 15173 net.cpp:156] Memory required for data: 545036800
I0729 16:41:25.534145 15173 layer_factory.hpp:77] Creating layer inception_5b/3x3
I0729 16:41:25.534168 15173 net.cpp:91] Creating Layer inception_5b/3x3
I0729 16:41:25.534174 15173 net.cpp:425] inception_5b/3x3 <- inception_5b/3x3_reduce
I0729 16:41:25.534184 15173 net.cpp:399] inception_5b/3x3 -> inception_5b/3x3
I0729 16:41:25.536754 15177 net.cpp:141] Setting up inception_5b/3x3_reduce
I0729 16:41:25.536777 15177 net.cpp:148] Top shape: 10 192 7 7 (94080)
I0729 16:41:25.536782 15177 net.cpp:156] Memory required for data: 544660480
I0729 16:41:25.536793 15177 layer_factory.hpp:77] Creating layer inception_5b/relu_3x3_reduce
I0729 16:41:25.536803 15177 net.cpp:91] Creating Layer inception_5b/relu_3x3_reduce
I0729 16:41:25.536809 15177 net.cpp:425] inception_5b/relu_3x3_reduce <- inception_5b/3x3_reduce
I0729 16:41:25.536823 15177 net.cpp:386] inception_5b/relu_3x3_reduce -> inception_5b/3x3_reduce (in-place)
I0729 16:41:25.537133 15177 net.cpp:141] Setting up inception_5b/relu_3x3_reduce
I0729 16:41:25.537147 15177 net.cpp:148] Top shape: 10 192 7 7 (94080)
I0729 16:41:25.537152 15177 net.cpp:156] Memory required for data: 545036800
I0729 16:41:25.537159 15177 layer_factory.hpp:77] Creating layer inception_5b/3x3
I0729 16:41:25.537176 15177 net.cpp:91] Creating Layer inception_5b/3x3
I0729 16:41:25.537183 15177 net.cpp:425] inception_5b/3x3 <- inception_5b/3x3_reduce
I0729 16:41:25.537195 15177 net.cpp:399] inception_5b/3x3 -> inception_5b/3x3
I0729 16:41:25.546605 15173 net.cpp:141] Setting up inception_5b/3x3
I0729 16:41:25.546638 15173 net.cpp:148] Top shape: 10 384 7 7 (188160)
I0729 16:41:25.546644 15173 net.cpp:156] Memory required for data: 545789440
I0729 16:41:25.546656 15173 layer_factory.hpp:77] Creating layer inception_5b/relu_3x3
I0729 16:41:25.546671 15173 net.cpp:91] Creating Layer inception_5b/relu_3x3
I0729 16:41:25.546680 15173 net.cpp:425] inception_5b/relu_3x3 <- inception_5b/3x3
I0729 16:41:25.546696 15173 net.cpp:386] inception_5b/relu_3x3 -> inception_5b/3x3 (in-place)
I0729 16:41:25.547693 15173 net.cpp:141] Setting up inception_5b/relu_3x3
I0729 16:41:25.547710 15173 net.cpp:148] Top shape: 10 384 7 7 (188160)
I0729 16:41:25.547716 15173 net.cpp:156] Memory required for data: 546542080
I0729 16:41:25.547721 15173 layer_factory.hpp:77] Creating layer inception_5b/5x5_reduce
I0729 16:41:25.547741 15173 net.cpp:91] Creating Layer inception_5b/5x5_reduce
I0729 16:41:25.547749 15173 net.cpp:425] inception_5b/5x5_reduce <- inception_5a/output_inception_5a/output_0_split_2
I0729 16:41:25.547761 15173 net.cpp:399] inception_5b/5x5_reduce -> inception_5b/5x5_reduce
I0729 16:41:25.550740 15177 net.cpp:141] Setting up inception_5b/3x3
I0729 16:41:25.550765 15177 net.cpp:148] Top shape: 10 384 7 7 (188160)
I0729 16:41:25.550770 15177 net.cpp:156] Memory required for data: 545789440
I0729 16:41:25.550782 15177 layer_factory.hpp:77] Creating layer inception_5b/relu_3x3
I0729 16:41:25.550796 15177 net.cpp:91] Creating Layer inception_5b/relu_3x3
I0729 16:41:25.550804 15177 net.cpp:425] inception_5b/relu_3x3 <- inception_5b/3x3
I0729 16:41:25.550812 15177 net.cpp:386] inception_5b/relu_3x3 -> inception_5b/3x3 (in-place)
I0729 16:41:25.551744 15177 net.cpp:141] Setting up inception_5b/relu_3x3
I0729 16:41:25.551762 15177 net.cpp:148] Top shape: 10 384 7 7 (188160)
I0729 16:41:25.551767 15177 net.cpp:156] Memory required for data: 546542080
I0729 16:41:25.551774 15177 layer_factory.hpp:77] Creating layer inception_5b/5x5_reduce
I0729 16:41:25.551792 15177 net.cpp:91] Creating Layer inception_5b/5x5_reduce
I0729 16:41:25.551800 15177 net.cpp:425] inception_5b/5x5_reduce <- inception_5a/output_inception_5a/output_0_split_2
I0729 16:41:25.551810 15177 net.cpp:399] inception_5b/5x5_reduce -> inception_5b/5x5_reduce
I0729 16:41:25.554085 15173 net.cpp:141] Setting up inception_5b/5x5_reduce
I0729 16:41:25.554111 15173 net.cpp:148] Top shape: 10 48 7 7 (23520)
I0729 16:41:25.554117 15173 net.cpp:156] Memory required for data: 546636160
I0729 16:41:25.554128 15173 layer_factory.hpp:77] Creating layer inception_5b/relu_5x5_reduce
I0729 16:41:25.554138 15173 net.cpp:91] Creating Layer inception_5b/relu_5x5_reduce
I0729 16:41:25.554147 15173 net.cpp:425] inception_5b/relu_5x5_reduce <- inception_5b/5x5_reduce
I0729 16:41:25.554154 15173 net.cpp:386] inception_5b/relu_5x5_reduce -> inception_5b/5x5_reduce (in-place)
I0729 16:41:25.554558 15173 net.cpp:141] Setting up inception_5b/relu_5x5_reduce
I0729 16:41:25.554574 15173 net.cpp:148] Top shape: 10 48 7 7 (23520)
I0729 16:41:25.554579 15173 net.cpp:156] Memory required for data: 546730240
I0729 16:41:25.554584 15173 layer_factory.hpp:77] Creating layer inception_5b/5x5
I0729 16:41:25.554605 15173 net.cpp:91] Creating Layer inception_5b/5x5
I0729 16:41:25.554610 15173 net.cpp:425] inception_5b/5x5 <- inception_5b/5x5_reduce
I0729 16:41:25.554623 15173 net.cpp:399] inception_5b/5x5 -> inception_5b/5x5
I0729 16:41:25.557595 15177 net.cpp:141] Setting up inception_5b/5x5_reduce
I0729 16:41:25.557617 15177 net.cpp:148] Top shape: 10 48 7 7 (23520)
I0729 16:41:25.557623 15177 net.cpp:156] Memory required for data: 546636160
I0729 16:41:25.557636 15177 layer_factory.hpp:77] Creating layer inception_5b/relu_5x5_reduce
I0729 16:41:25.557656 15177 net.cpp:91] Creating Layer inception_5b/relu_5x5_reduce
I0729 16:41:25.557663 15177 net.cpp:425] inception_5b/relu_5x5_reduce <- inception_5b/5x5_reduce
I0729 16:41:25.557672 15177 net.cpp:386] inception_5b/relu_5x5_reduce -> inception_5b/5x5_reduce (in-place)
I0729 16:41:25.557973 15177 net.cpp:141] Setting up inception_5b/relu_5x5_reduce
I0729 16:41:25.557987 15177 net.cpp:148] Top shape: 10 48 7 7 (23520)
I0729 16:41:25.557992 15177 net.cpp:156] Memory required for data: 546730240
I0729 16:41:25.557997 15177 layer_factory.hpp:77] Creating layer inception_5b/5x5
I0729 16:41:25.558014 15177 net.cpp:91] Creating Layer inception_5b/5x5
I0729 16:41:25.558022 15177 net.cpp:425] inception_5b/5x5 <- inception_5b/5x5_reduce
I0729 16:41:25.558032 15177 net.cpp:399] inception_5b/5x5 -> inception_5b/5x5
I0729 16:41:25.563082 15173 net.cpp:141] Setting up inception_5b/5x5
I0729 16:41:25.563109 15173 net.cpp:148] Top shape: 10 128 7 7 (62720)
I0729 16:41:25.563115 15173 net.cpp:156] Memory required for data: 546981120
I0729 16:41:25.563127 15173 layer_factory.hpp:77] Creating layer inception_5b/relu_5x5
I0729 16:41:25.563143 15173 net.cpp:91] Creating Layer inception_5b/relu_5x5
I0729 16:41:25.563149 15173 net.cpp:425] inception_5b/relu_5x5 <- inception_5b/5x5
I0729 16:41:25.563159 15173 net.cpp:386] inception_5b/relu_5x5 -> inception_5b/5x5 (in-place)
I0729 16:41:25.563475 15173 net.cpp:141] Setting up inception_5b/relu_5x5
I0729 16:41:25.563488 15173 net.cpp:148] Top shape: 10 128 7 7 (62720)
I0729 16:41:25.563493 15173 net.cpp:156] Memory required for data: 547232000
I0729 16:41:25.563498 15173 layer_factory.hpp:77] Creating layer inception_5b/pool
I0729 16:41:25.563513 15173 net.cpp:91] Creating Layer inception_5b/pool
I0729 16:41:25.563520 15173 net.cpp:425] inception_5b/pool <- inception_5a/output_inception_5a/output_0_split_3
I0729 16:41:25.563529 15173 net.cpp:399] inception_5b/pool -> inception_5b/pool
I0729 16:41:25.563956 15173 net.cpp:141] Setting up inception_5b/pool
I0729 16:41:25.563971 15173 net.cpp:148] Top shape: 10 832 7 7 (407680)
I0729 16:41:25.563976 15173 net.cpp:156] Memory required for data: 548862720
I0729 16:41:25.563982 15173 layer_factory.hpp:77] Creating layer inception_5b/pool_proj
I0729 16:41:25.564005 15173 net.cpp:91] Creating Layer inception_5b/pool_proj
I0729 16:41:25.564013 15173 net.cpp:425] inception_5b/pool_proj <- inception_5b/pool
I0729 16:41:25.564024 15173 net.cpp:399] inception_5b/pool_proj -> inception_5b/pool_proj
I0729 16:41:25.564774 15177 net.cpp:141] Setting up inception_5b/5x5
I0729 16:41:25.564795 15177 net.cpp:148] Top shape: 10 128 7 7 (62720)
I0729 16:41:25.564801 15177 net.cpp:156] Memory required for data: 546981120
I0729 16:41:25.564815 15177 layer_factory.hpp:77] Creating layer inception_5b/relu_5x5
I0729 16:41:25.564824 15177 net.cpp:91] Creating Layer inception_5b/relu_5x5
I0729 16:41:25.564831 15177 net.cpp:425] inception_5b/relu_5x5 <- inception_5b/5x5
I0729 16:41:25.564839 15177 net.cpp:386] inception_5b/relu_5x5 -> inception_5b/5x5 (in-place)
I0729 16:41:25.565670 15177 net.cpp:141] Setting up inception_5b/relu_5x5
I0729 16:41:25.565685 15177 net.cpp:148] Top shape: 10 128 7 7 (62720)
I0729 16:41:25.565690 15177 net.cpp:156] Memory required for data: 547232000
I0729 16:41:25.565696 15177 layer_factory.hpp:77] Creating layer inception_5b/pool
I0729 16:41:25.565708 15177 net.cpp:91] Creating Layer inception_5b/pool
I0729 16:41:25.565717 15177 net.cpp:425] inception_5b/pool <- inception_5a/output_inception_5a/output_0_split_3
I0729 16:41:25.565726 15177 net.cpp:399] inception_5b/pool -> inception_5b/pool
I0729 16:41:25.567054 15177 net.cpp:141] Setting up inception_5b/pool
I0729 16:41:25.567072 15177 net.cpp:148] Top shape: 10 832 7 7 (407680)
I0729 16:41:25.567077 15177 net.cpp:156] Memory required for data: 548862720
I0729 16:41:25.567082 15177 layer_factory.hpp:77] Creating layer inception_5b/pool_proj
I0729 16:41:25.567100 15177 net.cpp:91] Creating Layer inception_5b/pool_proj
I0729 16:41:25.567106 15177 net.cpp:425] inception_5b/pool_proj <- inception_5b/pool
I0729 16:41:25.567119 15177 net.cpp:399] inception_5b/pool_proj -> inception_5b/pool_proj
I0729 16:41:25.573278 15173 net.cpp:141] Setting up inception_5b/pool_proj
I0729 16:41:25.573302 15173 net.cpp:148] Top shape: 10 128 7 7 (62720)
I0729 16:41:25.573308 15173 net.cpp:156] Memory required for data: 549113600
I0729 16:41:25.573319 15173 layer_factory.hpp:77] Creating layer inception_5b/relu_pool_proj
I0729 16:41:25.573333 15173 net.cpp:91] Creating Layer inception_5b/relu_pool_proj
I0729 16:41:25.573340 15173 net.cpp:425] inception_5b/relu_pool_proj <- inception_5b/pool_proj
I0729 16:41:25.573348 15173 net.cpp:386] inception_5b/relu_pool_proj -> inception_5b/pool_proj (in-place)
I0729 16:41:25.574427 15173 net.cpp:141] Setting up inception_5b/relu_pool_proj
I0729 16:41:25.574445 15173 net.cpp:148] Top shape: 10 128 7 7 (62720)
I0729 16:41:25.574450 15173 net.cpp:156] Memory required for data: 549364480
I0729 16:41:25.574456 15173 layer_factory.hpp:77] Creating layer inception_5b/output
I0729 16:41:25.574468 15173 net.cpp:91] Creating Layer inception_5b/output
I0729 16:41:25.574475 15173 net.cpp:425] inception_5b/output <- inception_5b/1x1
I0729 16:41:25.574482 15173 net.cpp:425] inception_5b/output <- inception_5b/3x3
I0729 16:41:25.574488 15173 net.cpp:425] inception_5b/output <- inception_5b/5x5
I0729 16:41:25.574494 15173 net.cpp:425] inception_5b/output <- inception_5b/pool_proj
I0729 16:41:25.574501 15173 net.cpp:399] inception_5b/output -> inception_5b/output
I0729 16:41:25.574645 15173 net.cpp:141] Setting up inception_5b/output
I0729 16:41:25.574659 15173 net.cpp:148] Top shape: 10 1024 7 7 (501760)
I0729 16:41:25.574664 15173 net.cpp:156] Memory required for data: 551371520
I0729 16:41:25.574669 15173 layer_factory.hpp:77] Creating layer pool5/7x7_s1
I0729 16:41:25.574679 15173 net.cpp:91] Creating Layer pool5/7x7_s1
I0729 16:41:25.574693 15173 net.cpp:425] pool5/7x7_s1 <- inception_5b/output
I0729 16:41:25.574703 15173 net.cpp:399] pool5/7x7_s1 -> pool5/7x7_s1
I0729 16:41:25.574704 15177 net.cpp:141] Setting up inception_5b/pool_proj
I0729 16:41:25.574723 15177 net.cpp:148] Top shape: 10 128 7 7 (62720)
I0729 16:41:25.574728 15177 net.cpp:156] Memory required for data: 549113600
I0729 16:41:25.574738 15177 layer_factory.hpp:77] Creating layer inception_5b/relu_pool_proj
I0729 16:41:25.574748 15177 net.cpp:91] Creating Layer inception_5b/relu_pool_proj
I0729 16:41:25.574754 15177 net.cpp:425] inception_5b/relu_pool_proj <- inception_5b/pool_proj
I0729 16:41:25.574765 15177 net.cpp:386] inception_5b/relu_pool_proj -> inception_5b/pool_proj (in-place)
I0729 16:41:25.575630 15173 net.cpp:141] Setting up pool5/7x7_s1
I0729 16:41:25.575646 15173 net.cpp:148] Top shape: 10 1024 1 1 (10240)
I0729 16:41:25.575651 15173 net.cpp:156] Memory required for data: 551412480
I0729 16:41:25.575656 15173 layer_factory.hpp:77] Creating layer pool5/drop_7x7_s1
I0729 16:41:25.575675 15173 net.cpp:91] Creating Layer pool5/drop_7x7_s1
I0729 16:41:25.575681 15173 net.cpp:425] pool5/drop_7x7_s1 <- pool5/7x7_s1
I0729 16:41:25.575690 15173 net.cpp:386] pool5/drop_7x7_s1 -> pool5/7x7_s1 (in-place)
I0729 16:41:25.575752 15177 net.cpp:141] Setting up inception_5b/relu_pool_proj
I0729 16:41:25.575765 15177 net.cpp:148] Top shape: 10 128 7 7 (62720)
I0729 16:41:25.575772 15177 net.cpp:156] Memory required for data: 549364480
I0729 16:41:25.575785 15177 layer_factory.hpp:77] Creating layer inception_5b/output
I0729 16:41:25.575793 15173 net.cpp:141] Setting up pool5/drop_7x7_s1
I0729 16:41:25.575795 15177 net.cpp:91] Creating Layer inception_5b/output
I0729 16:41:25.575808 15173 net.cpp:148] Top shape: 10 1024 1 1 (10240)
I0729 16:41:25.575810 15177 net.cpp:425] inception_5b/output <- inception_5b/1x1
I0729 16:41:25.575814 15173 net.cpp:156] Memory required for data: 551453440
I0729 16:41:25.575817 15177 net.cpp:425] inception_5b/output <- inception_5b/3x3
I0729 16:41:25.575819 15173 layer_factory.hpp:77] Creating layer loss3/classifier
I0729 16:41:25.575827 15177 net.cpp:425] inception_5b/output <- inception_5b/5x5
I0729 16:41:25.575834 15177 net.cpp:425] inception_5b/output <- inception_5b/pool_proj
I0729 16:41:25.575846 15177 net.cpp:399] inception_5b/output -> inception_5b/output
I0729 16:41:25.575847 15173 net.cpp:91] Creating Layer loss3/classifier
I0729 16:41:25.575855 15173 net.cpp:425] loss3/classifier <- pool5/7x7_s1
I0729 16:41:25.575862 15173 net.cpp:399] loss3/classifier -> loss3/classifier
I0729 16:41:25.575973 15177 net.cpp:141] Setting up inception_5b/output
I0729 16:41:25.575985 15177 net.cpp:148] Top shape: 10 1024 7 7 (501760)
I0729 16:41:25.575989 15177 net.cpp:156] Memory required for data: 551371520
I0729 16:41:25.575995 15177 layer_factory.hpp:77] Creating layer pool5/7x7_s1
I0729 16:41:25.576009 15177 net.cpp:91] Creating Layer pool5/7x7_s1
I0729 16:41:25.576015 15177 net.cpp:425] pool5/7x7_s1 <- inception_5b/output
I0729 16:41:25.576023 15177 net.cpp:399] pool5/7x7_s1 -> pool5/7x7_s1
I0729 16:41:25.578907 15177 net.cpp:141] Setting up pool5/7x7_s1
I0729 16:41:25.578933 15177 net.cpp:148] Top shape: 10 1024 1 1 (10240)
I0729 16:41:25.578938 15177 net.cpp:156] Memory required for data: 551412480
I0729 16:41:25.578945 15177 layer_factory.hpp:77] Creating layer pool5/drop_7x7_s1
I0729 16:41:25.578956 15177 net.cpp:91] Creating Layer pool5/drop_7x7_s1
I0729 16:41:25.578963 15177 net.cpp:425] pool5/drop_7x7_s1 <- pool5/7x7_s1
I0729 16:41:25.578971 15177 net.cpp:386] pool5/drop_7x7_s1 -> pool5/7x7_s1 (in-place)
I0729 16:41:25.579675 15177 net.cpp:141] Setting up pool5/drop_7x7_s1
I0729 16:41:25.579691 15177 net.cpp:148] Top shape: 10 1024 1 1 (10240)
I0729 16:41:25.579695 15177 net.cpp:156] Memory required for data: 551453440
I0729 16:41:25.579701 15177 layer_factory.hpp:77] Creating layer loss3/classifier
I0729 16:41:25.579716 15177 net.cpp:91] Creating Layer loss3/classifier
I0729 16:41:25.579723 15177 net.cpp:425] loss3/classifier <- pool5/7x7_s1
I0729 16:41:25.579735 15177 net.cpp:399] loss3/classifier -> loss3/classifier
I0729 16:41:25.588773 15173 net.cpp:141] Setting up loss3/classifier
I0729 16:41:25.588817 15173 net.cpp:148] Top shape: 10 1000 (10000)
I0729 16:41:25.588824 15173 net.cpp:156] Memory required for data: 551493440
I0729 16:41:25.588840 15173 layer_factory.hpp:77] Creating layer prob
I0729 16:41:25.588855 15173 net.cpp:91] Creating Layer prob
I0729 16:41:25.588865 15173 net.cpp:425] prob <- loss3/classifier
I0729 16:41:25.588876 15173 net.cpp:399] prob -> prob
I0729 16:41:25.590610 15173 net.cpp:141] Setting up prob
I0729 16:41:25.590636 15173 net.cpp:148] Top shape: 10 1000 (10000)
I0729 16:41:25.590641 15173 net.cpp:156] Memory required for data: 551533440
I0729 16:41:25.590647 15173 net.cpp:219] prob does not need backward computation.
I0729 16:41:25.590653 15173 net.cpp:219] loss3/classifier does not need backward computation.
I0729 16:41:25.590659 15173 net.cpp:219] pool5/drop_7x7_s1 does not need backward computation.
I0729 16:41:25.590664 15173 net.cpp:219] pool5/7x7_s1 does not need backward computation.
…
