…
Java HotSpot(TM) 64-Bit Server VM warning: You have loaded library /home/peifeng/work/run/storm102/data/workers/4aceb4b6-e91d-4514-af0c-3f134a6c7c90/tmp/cvld5401924428078542439/libopencv_java310.xine1.so which might have disabled stack guard. The VM will try to fix the stack guard now.
It's highly recommended that you fix the library with 'execstack -c <libfile>', or link it with '-z noexecstack'.
WARNING: Logging before InitGoogleLogging() is written to STDERR
I0915 12:13:10.985797  1845 net.cpp:49] Initializing net from parameters: 
name: "GoogleNet"
state {
  phase: TEST
}
layer {
  name: "data"
  type: "Input"
  top: "data"
  input_param {
    shape {
      dim: 10
      dim: 3
      dim: 224
      dim: 224
    }
  }
}
layer {
  name: "conv1/7x7_s2"
  type: "Convolution"
  bottom: "data"
  top: "conv1/7x7_s2"
  param {
    lr_mult: 1
    decay_mult: 1
  }
  param {
    lr_mult: 2
    decay_mult: 0
  }
  convolution_param {
    num_output: 64
    pad: 3
    kernel_size: 7
    stride: 2
    weight_filler {
      type: "xavier"
      std: 0.1
    }
    bias_filler {
      type: "constant"
      value: 0.2
    }
  }
}
layer {
  name: "conv1/relu_7x7"
  type: "ReLU"
  bottom: "conv1/7x7_s2"
  top: "conv1/7x7_s2"
}
layer {
  name: "pool1/3x3_s2"
  type: "Pooling"
  bottom: "conv1/7x7_s2"
  top: "pool1/3x3_s2"
  pooling_param {
    pool: MAX
    kernel_size: 3
    stride: 2
  }
}
layer {
  name: "pool1/norm1"
  type: "LRN"
  bottom: "pool1/3x3_s2"
  top: "pool1/norm1"
  lrn_param {
    local_size: 5
    alpha: 0.0001
    beta: 0.75
  }
}
layer {
  name: "conv2/3x3_reduce"
  type: "Convolution"
  bottom: "pool1/norm1"
  top: "conv2/3x3_reduce"
  param {
    lr_mult: 1
    decay_mult: 1
  }
  param {
    lr_mult: 2
    decay_mult: 0
  }
  convolution_param {
    num_output: 64
    kernel_size: 1
    weight_filler {
      type: "xavier"
      std: 0.1
    }
    bias_filler {
      type: "constant"
      value: 0.2
    }
  }
}
layer {
  name: "conv2/relu_3x3_reduce"
  type: "ReLU"
  bottom: "conv2/3x3_reduce"
  top: "conv2/3x3_reduce"
}
layer {
  name: "conv2/3x3"
  type: "Convolution"
  bottom: "conv2/3x3_reduce"
  top: "conv2/3x3"
  param {
    lr_mult: 1
    decay_mult: 1
  }
  param {
    lr_mult: 2
    decay_mult: 0
  }
  convolution_param {
    num_output: 192
    pad: 1
    kernel_size: 3
    weight_filler {
      type: "xavier"
      std: 0.03
    }
    bias_filler {
      type: "constant"
      value: 0.2
    }
  }
}
layer {
  name: "conv2/relu_3x3"
  type: "ReLU"
  bottom: "conv2/3x3"
  top: "conv2/3x3"
}
layer {
  name: "conv2/norm2"
  type: "LRN"
  bottom: "conv2/3x3"
  top: "conv2/norm2"
  lrn_param {
    local_size: 5
    alpha: 0.0001
    beta: 0.75
  }
}
layer {
  name: "pool2/3x3_s2"
  type: "Pooling"
  bottom: "conv2/norm2"
  top: "pool2/3x3_s2"
  pooling_param {
    pool: MAX
    kernel_size: 3
    stride: 2
  }
}
layer {
  name: "inception_3a/1x1"
  type: "Convolution"
  bottom: "pool2/3x3_s2"
  top: "inception_3a/1x1"
  param {
    lr_mult: 1
    decay_mult: 1
  }
  param {
    lr_mult: 2
    decay_mult: 0
  }
  convolution_param {
    num_output: 64
    kernel_size: 1
    weight_filler {
      type: "xavier"
      std: 0.03
    }
    bias_filler {
      type: "constant"
      value: 0.2
    }
  }
}
layer {
  name: "inception_3a/relu_1x1"
  type: "ReLU"
  bottom: "inception_3a/1x1"
  top: "inception_3a/1x1"
}
layer {
  name: "inception_3a/3x3_reduce"
  type: "Convolution"
  bottom: "pool2/3x3_s2"
  top: "inception_3a/3x3_reduce"
  param {
    lr_mult: 1
    decay_mult: 1
  }
  param {
    lr_mult: 2
    decay_mult: 0
  }
  convolution_param {
    num_output: 96
    kernel_size: 1
    weight_filler {
      type: "xavier"
      std: 0.09
    }
    bias_filler {
      type: "constant"
      value: 0.2
    }
  }
}
layer {
  name: "inception_3a/relu_3x3_reduce"
  type: "ReLU"
  bottom: "inception_3a/3x3_reduce"
  top: "inception_3a/3x3_reduce"
}
layer {
  name: "inception_3a/3x3"
  type: "Convolution"
  bottom: "inception_3a/3x3_reduce"
  top: "inception_3a/3x3"
  param {
    lr_mult: 1
    decay_mult: 1
  }
  param {
    lr_mult: 2
    decay_mult: 0
  }
  convolution_param {
    num_output: 128
    pad: 1
    kernel_size: 3
    weight_filler {
      type: "xavier"
      std: 0.03
    }
    bias_filler {
      type: "constant"
      value: 0.2
    }
  }
}
layer {
  name: "inception_3a/relu_3x3"
  type: "ReLU"
  bottom: "inception_3a/3x3"
  top: "inception_3a/3x3"
}
layer {
  name: "inception_3a/5x5_reduce"
  type: "Convolution"
  bottom: "pool2/3x3_s2"
  top: "inception_3a/5x5_reduce"
  param {
    lr_mult: 1
    decay_mult: 1
  }
  param {
    lr_mult: 2
    decay_mult: 0
  }
  convolution_param {
    num_output: 16
    kernel_size: 1
    weight_filler {
      type: "xavier"
      std: 0.2
    }
    bias_filler {
      type: "constant"
      value: 0.2
    }
  }
}
layer {
  name: "inception_3a/relu_5x5_reduce"
  type: "ReLU"
  bottom: "inception_3a/5x5_reduce"
  top: "inception_3a/5x5_reduce"
}
layer {
  name: "inception_3a/5x5"
  type: "Convolution"
  bottom: "inception_3a/5x5_reduce"
  top: "inception_3a/5x5"
  param {
    lr_mult: 1
    decay_mult: 1
  }
  param {
    lr_mult: 2
    decay_mult: 0
  }
  convolution_param {
    num_output: 32
    pad: 2
    kernel_size: 5
    weight_filler {
      type: "xavier"
      std: 0.03
    }
    bias_filler {
      type: "constant"
      value: 0.2
    }
  }
}
layer {
  name: "inception_3a/relu_5x5"
  type: "ReLU"
  bottom: "inception_3a/5x5"
  top: "inception_3a/5x5"
}
layer {
  name: "inception_3a/pool"
  type: "Pooling"
  bottom: "pool2/3x3_s2"
  top: "inception_3a/pool"
  pooling_param {
    pool: MAX
    kernel_size: 3
    stride: 1
    pad: 1
  }
}
layer {
  name: "inception_3a/pool_proj"
  type: "Convolution"
  bottom: "inception_3a/pool"
  top: "inception_3a/pool_proj"
  param {
    lr_mult: 1
    decay_mult: 1
  }
  param {
    lr_mult: 2
    decay_mult: 0
  }
  convolution_param {
    num_output: 32
    kernel_size: 1
    weight_filler {
      type: "xavier"
      std: 0.1
    }
    bias_filler {
      type: "constant"
      value: 0.2
    }
  }
}
layer {
  name: "inception_3a/relu_pool_proj"
  type: "ReLU"
  bottom: "inception_3a/pool_proj"
  top: "inception_3a/pool_proj"
}
layer {
  name: "inception_3a/output"
  type: "Concat"
  bottom: "inception_3a/1x1"
  bottom: "inception_3a/3x3"
  bottom: "inception_3a/5x5"
  bottom: "inception_3a/pool_proj"
  top: "inception_3a/output"
}
layer {
  name: "inception_3b/1x1"
  type: "Convolution"
  bottom: "inception_3a/output"
  top: "inception_3b/1x1"
  param {
    lr_mult: 1
    decay_mult: 1
  }
  param {
    lr_mult: 2
    decay_mult: 0
  }
  convolution_param {
    num_output: 128
    kernel_size: 1
    weight_filler {
      type: "xavier"
      std: 0.03
    }
    bias_filler {
      type: "constant"
      value: 0.2
    }
  }
}
layer {
  name: "inception_3b/relu_1x1"
  type: "ReLU"
  bottom: "inception_3b/1x1"
  top: "inception_3b/1x1"
}
layer {
  name: "inception_3b/3x3_reduce"
  type: "Convolution"
  bottom: "inception_3a/output"
  top: "inception_3b/3x3_reduce"
  param {
    lr_mult: 1
    decay_mult: 1
  }
  param {
    lr_mult: 2
    decay_mult: 0
  }
  convolution_param {
    num_output: 128
    kernel_size: 1
    weight_filler {
      type: "xavier"
      std: 0.09
    }
    bias_filler {
      type: "constant"
      value: 0.2
    }
  }
}
layer {
  name: "inception_3b/relu_3x3_reduce"
  type: "ReLU"
  bottom: "inception_3b/3x3_reduce"
  top: "inception_3b/3x3_reduce"
}
layer {
  name: "inception_3b/3x3"
  type: "Convolution"
  bottom: "inception_3b/3x3_reduce"
  top: "inception_3b/3x3"
  param {
    lr_mult: 1
    decay_mult: 1
  }
  param {
    lr_mult: 2
    decay_mult: 0
  }
  convolution_param {
    num_output: 192
    pad: 1
    kernel_size: 3
    weight_filler {
      type: "xavier"
      std: 0.03
    }
    bias_filler {
      type: "constant"
      value: 0.2
    }
  }
}
layer {
  name: "inception_3b/relu_3x3"
  type: "ReLU"
  bottom: "inception_3b/3x3"
  top: "inception_3b/3x3"
}
layer {
  name: "inception_3b/5x5_reduce"
  type: "Convolution"
  bottom: "inception_3a/output"
  top: "inception_3b/5x5_reduce"
  param {
    lr_mult: 1
    decay_mult: 1
  }
  param {
    lr_mult: 2
    decay_mult: 0
  }
  convolution_param {
    num_output: 32
    kernel_size: 1
    weight_filler {
      type: "xavier"
      std: 0.2
    }
    bias_filler {
      type: "constant"
      value: 0.2
    }
  }
}
layer {
  name: "inception_3b/relu_5x5_reduce"
  type: "ReLU"
  bottom: "inception_3b/5x5_reduce"
  top: "inception_3b/5x5_reduce"
}
layer {
  name: "inception_3b/5x5"
  type: "Convolution"
  bottom: "inception_3b/5x5_reduce"
  top: "inception_3b/5x5"
  param {
    lr_mult: 1
    decay_mult: 1
  }
  param {
    lr_mult: 2
    decay_mult: 0
  }
  convolution_param {
    num_output: 96
    pad: 2
    kernel_size: 5
    weight_filler {
      type: "xavier"
      std: 0.03
    }
    bias_filler {
      type: "constant"
      value: 0.2
    }
  }
}
layer {
  name: "inception_3b/relu_5x5"
  type: "ReLU"
  bottom: "inception_3b/5x5"
  top: "inception_3b/5x5"
}
layer {
  name: "inception_3b/pool"
  type: "Pooling"
  bottom: "inception_3a/output"
  top: "inception_3b/pool"
  pooling_param {
    pool: MAX
    kernel_size: 3
    stride: 1
    pad: 1
  }
}
layer {
  name: "inception_3b/pool_proj"
  type: "Convolution"
  bottom: "inception_3b/pool"
  top: "inception_3b/pool_proj"
  param {
    lr_mult: 1
    decay_mult: 1
  }
  param {
    lr_mult: 2
    decay_mult: 0
  }
  convolution_param {
    num_output: 64
    kernel_size: 1
    weight_filler {
      type: "xavier"
      std: 0.1
    }
    bias_filler {
      type: "constant"
      value: 0.2
    }
  }
}
layer {
  name: "inception_3b/relu_pool_proj"
  type: "ReLU"
  bottom: "inception_3b/pool_proj"
  top: "inception_3b/pool_proj"
}
layer {
  name: "inception_3b/output"
  type: "Concat"
  bottom: "inception_3b/1x1"
  bottom: "inception_3b/3x3"
  bottom: "inception_3b/5x5"
  bottom: "inception_3b/pool_proj"
  top: "inception_3b/output"
}
layer {
  name: "pool3/3x3_s2"
  type: "Pooling"
  bottom: "inception_3b/output"
  top: "pool3/3x3_s2"
  pooling_param {
    pool: MAX
    kernel_size: 3
    stride: 2
  }
}
layer {
  name: "inception_4a/1x1"
  type: "Convolution"
  bottom: "pool3/3x3_s2"
  top: "inception_4a/1x1"
  param {
    lr_mult: 1
    decay_mult: 1
  }
  param {
    lr_mult: 2
    decay_mult: 0
  }
  convolution_param {
    num_output: 192
    kernel_size: 1
    weight_filler {
      type: "xavier"
      std: 0.03
    }
    bias_filler {
      type: "constant"
      value: 0.2
    }
  }
}
layer {
  name: "inception_4a/relu_1x1"
  type: "ReLU"
  bottom: "inception_4a/1x1"
  top: "inception_4a/1x1"
}
layer {
  name: "inception_4a/3x3_reduce"
  type: "Convolution"
  bottom: "pool3/3x3_s2"
  top: "inception_4a/3x3_reduce"
  param {
    lr_mult: 1
    decay_mult: 1
  }
  param {
    lr_mult: 2
    decay_mult: 0
  }
  convolution_param {
    num_output: 96
    kernel_size: 1
    weight_filler {
      type: "xavier"
      std: 0.09
    }
    bias_filler {
      type: "constant"
      value: 0.2
    }
  }
}
layer {
  name: "inception_4a/relu_3x3_reduce"
  type: "ReLU"
  bottom: "inception_4a/3x3_reduce"
  top: "inception_4a/3x3_reduce"
}
layer {
  name: "inception_4a/3x3"
  type: "Convolution"
  bottom: "inception_4a/3x3_reduce"
  top: "inception_4a/3x3"
  param {
    lr_mult: 1
    decay_mult: 1
  }
  param {
    lr_mult: 2
    decay_mult: 0
  }
  convolution_param {
    num_output: 208
    pad: 1
    kernel_size: 3
    weight_filler {
      type: "xavier"
      std: 0.03
    }
    bias_filler {
      type: "constant"
      value: 0.2
    }
  }
}
layer {
  name: "inception_4a/relu_3x3"
  type: "ReLU"
  bottom: "inception_4a/3x3"
  top: "inception_4a/3x3"
}
layer {
  name: "inception_4a/5x5_reduce"
  type: "Convolution"
  bottom: "pool3/3x3_s2"
  top: "inception_4a/5x5_reduce"
  param {
    lr_mult: 1
    decay_mult: 1
  }
  param {
    lr_mult: 2
    decay_mult: 0
  }
  convolution_param {
    num_output: 16
    kernel_size: 1
    weight_filler {
      type: "xavier"
      std: 0.2
    }
    bias_filler {
      type: "constant"
      value: 0.2
    }
  }
}
layer {
  name: "inception_4a/relu_5x5_reduce"
  type: "ReLU"
  bottom: "inception_4a/5x5_reduce"
  top: "inception_4a/5x5_reduce"
}
layer {
  name: "inception_4a/5x5"
  type: "Convolution"
  bottom: "inception_4a/5x5_reduce"
  top: "inception_4a/5x5"
  param {
    lr_mult: 1
    decay_mult: 1
  }
  param {
    lr_mult: 2
    decay_mult: 0
  }
  convolution_param {
    num_output: 48
    pad: 2
    kernel_size: 5
    weight_filler {
      type: "xavier"
      std: 0.03
    }
    bias_filler {
      type: "constant"
      value: 0.2
    }
  }
}
layer {
  name: "inception_4a/relu_5x5"
  type: "ReLU"
  bottom: "inception_4a/5x5"
  top: "inception_4a/5x5"
}
layer {
  name: "inception_4a/pool"
  type: "Pooling"
  bottom: "pool3/3x3_s2"
  top: "inception_4a/pool"
  pooling_param {
    pool: MAX
    kernel_size: 3
    stride: 1
    pad: 1
  }
}
layer {
  name: "inception_4a/pool_proj"
  type: "Convolution"
  bottom: "inception_4a/pool"
  top: "inception_4a/pool_proj"
  param {
    lr_mult: 1
    decay_mult: 1
  }
  param {
    lr_mult: 2
    decay_mult: 0
  }
  convolution_param {
    num_output: 64
    kernel_size: 1
    weight_filler {
      type: "xavier"
      std: 0.1
    }
    bias_filler {
      type: "constant"
      value: 0.2
    }
  }
}
layer {
  name: "inception_4a/relu_pool_proj"
  type: "ReLU"
  bottom: "inception_4a/pool_proj"
  top: "inception_4a/pool_proj"
}
layer {
  name: "inception_4a/output"
  type: "Concat"
  bottom: "inception_4a/1x1"
  bottom: "inception_4a/3x3"
  bottom: "inception_4a/5x5"
  bottom: "inception_4a/pool_proj"
  top: "inception_4a/output"
}
layer {
  name: "inception_4b/1x1"
  type: "Convolution"
  bottom: "inception_4a/output"
  top: "inception_4b/1x1"
  param {
    lr_mult: 1
    decay_mult: 1
  }
  param {
    lr_mult: 2
    decay_mult: 0
  }
  convolution_param {
    num_output: 160
    kernel_size: 1
    weight_filler {
      type: "xavier"
      std: 0.03
    }
    bias_filler {
      type: "constant"
      value: 0.2
    }
  }
}
layer {
  name: "inception_4b/relu_1x1"
  type: "ReLU"
  bottom: "inception_4b/1x1"
  top: "inception_4b/1x1"
}
layer {
  name: "inception_4b/3x3_reduce"
  type: "Convolution"
  bottom: "inception_4a/output"
  top: "inception_4b/3x3_reduce"
  param {
    lr_mult: 1
    decay_mult: 1
  }
  param {
    lr_mult: 2
    decay_mult: 0
  }
  convolution_param {
    num_output: 112
    kernel_size: 1
    weight_filler {
      type: "xavier"
      std: 0.09
    }
    bias_filler {
      type: "constant"
      value: 0.2
    }
  }
}
layer {
  name: "inception_4b/relu_3x3_reduce"
  type: "ReLU"
  bottom: "inception_4b/3x3_reduce"
  top: "inception_4b/3x3_reduce"
}
layer {
  name: "inception_4b/3x3"
  type: "Convolution"
  bottom: "inception_4b/3x3_reduce"
  top: "inception_4b/3x3"
  param {
    lr_mult: 1
    decay_mult: 1
  }
  param {
    lr_mult: 2
    decay_mult: 0
  }
  convolution_param {
    num_output: 224
    pad: 1
    kernel_size: 3
    weight_filler {
      type: "xavier"
      std: 0.03
    }
    bias_filler {
      type: "constant"
      value: 0.2
    }
  }
}
layer {
  name: "inception_4b/relu_3x3"
  type: "ReLU"
  bottom: "inception_4b/3x3"
  top: "inception_4b/3x3"
}
layer {
  name: "inception_4b/5x5_reduce"
  type: "Convolution"
  bottom: "inception_4a/output"
  top: "inception_4b/5x5_reduce"
  param {
    lr_mult: 1
    decay_mult: 1
  }
  param {
    lr_mult: 2
    decay_mult: 0
  }
  convolution_param {
    num_output: 24
    kernel_size: 1
    weight_filler {
      type: "xavier"
      std: 0.2
    }
    bias_filler {
      type: "constant"
      value: 0.2
    }
  }
}
layer {
  name: "inception_4b/relu_5x5_reduce"
  type: "ReLU"
  bottom: "inception_4b/5x5_reduce"
  top: "inception_4b/5x5_reduce"
}
layer {
  name: "inception_4b/5x5"
  type: "Convolution"
  bottom: "inception_4b/5x5_reduce"
  top: "inception_4b/5x5"
  param {
    lr_mult: 1
    decay_mult: 1
  }
  param {
    lr_mult: 2
    decay_mult: 0
  }
  convolution_param {
    num_output: 64
    pad: 2
    kernel_size: 5
    weight_filler {
      type: "xavier"
      std: 0.03
    }
    bias_filler {
      type: "constant"
      value: 0.2
    }
  }
}
layer {
  name: "inception_4b/relu_5x5"
  type: "ReLU"
  bottom: "inception_4b/5x5"
  top: "inception_4b/5x5"
}
layer {
  name: "inception_4b/pool"
  type: "Pooling"
  bottom: "inception_4a/output"
  top: "inception_4b/pool"
  pooling_param {
    pool: MAX
    kernel_size: 3
    stride: 1
    pad: 1
  }
}
layer {
  name: "inception_4b/pool_proj"
  type: "Convolution"
  bottom: "inception_4b/pool"
  top: "inception_4b/pool_proj"
  param {
    lr_mult: 1
    decay_mult: 1
  }
  param {
    lr_mult: 2
    decay_mult: 0
  }
  convolution_param {
    num_output: 64
    kernel_size: 1
    weight_filler {
      type: "xavier"
      std: 0.1
    }
    bias_filler {
      type: "constant"
      value: 0.2
    }
  }
}
layer {
  name: "inception_4b/relu_pool_proj"
  type: "ReLU"
  bottom: "inception_4b/pool_proj"
  top: "inception_4b/pool_proj"
}
layer {
  name: "inception_4b/output"
  type: "Concat"
  bottom: "inception_4b/1x1"
  bottom: "inception_4b/3x3"
  bottom: "inception_4b/5x5"
  bottom: "inception_4b/pool_proj"
  top: "inception_4b/output"
}
layer {
  name: "inception_4c/1x1"
  type: "Convolution"
  bottom: "inception_4b/output"
  top: "inception_4c/1x1"
  param {
    lr_mult: 1
    decay_mult: 1
  }
  param {
    lr_mult: 2
    decay_mult: 0
  }
  convolution_param {
    num_output: 128
    kernel_size: 1
    weight_filler {
      type: "xavier"
      std: 0.03
    }
    bias_filler {
      type: "constant"
      value: 0.2
    }
  }
}
layer {
  name: "inception_4c/relu_1x1"
  type: "ReLU"
  bottom: "inception_4c/1x1"
  top: "inception_4c/1x1"
}
layer {
  name: "inception_4c/3x3_reduce"
  type: "Convolution"
  bottom: "inception_4b/output"
  top: "inception_4c/3x3_reduce"
  param {
    lr_mult: 1
    decay_mult: 1
  }
  param {
    lr_mult: 2
    decay_mult: 0
  }
  convolution_param {
    num_output: 128
    kernel_size: 1
    weight_filler {
      type: "xavier"
      std: 0.09
    }
    bias_filler {
      type: "constant"
      value: 0.2
    }
  }
}
layer {
  name: "inception_4c/relu_3x3_reduce"
  type: "ReLU"
  bottom: "inception_4c/3x3_reduce"
  top: "inception_4c/3x3_reduce"
}
layer {
  name: "inception_4c/3x3"
  type: "Convolution"
  bottom: "inception_4c/3x3_reduce"
  top: "inception_4c/3x3"
  param {
    lr_mult: 1
    decay_mult: 1
  }
  param {
    lr_mult: 2
    decay_mult: 0
  }
  convolution_param {
    num_output: 256
    pad: 1
    kernel_size: 3
    weight_filler {
      type: "xavier"
      std: 0.03
    }
    bias_filler {
      type: "constant"
      value: 0.2
    }
  }
}
layer {
  name: "inception_4c/relu_3x3"
  type: "ReLU"
  bottom: "inception_4c/3x3"
  top: "inception_4c/3x3"
}
layer {
  name: "inception_4c/5x5_reduce"
  type: "Convolution"
  bottom: "inception_4b/output"
  top: "inception_4c/5x5_reduce"
  param {
    lr_mult: 1
    decay_mult: 1
  }
  param {
    lr_mult: 2
    decay_mult: 0
  }
  convolution_param {
    num_output: 24
    kernel_size: 1
    weight_filler {
      type: "xavier"
      std: 0.2
    }
    bias_filler {
      type: "constant"
      value: 0.2
    }
  }
}
layer {
  name: "inception_4c/relu_5x5_reduce"
  type: "ReLU"
  bottom: "inception_4c/5x5_reduce"
  top: "inception_4c/5x5_reduce"
}
layer {
  name: "inception_4c/5x5"
  type: "Convolution"
  bottom: "inception_4c/5x5_reduce"
  top: "inception_4c/5x5"
  param {
    lr_mult: 1
    decay_mult: 1
  }
  param {
    lr_mult: 2
    decay_mult: 0
  }
  convolution_param {
    num_output: 64
    pad: 2
    kernel_size: 5
    weight_filler {
      type: "xavier"
      std: 0.03
    }
    bias_filler {
      type: "constant"
      value: 0.2
    }
  }
}
layer {
  name: "inception_4c/relu_5x5"
  type: "ReLU"
  bottom: "inception_4c/5x5"
  top: "inception_4c/5x5"
}
layer {
  name: "inception_4c/pool"
  type: "Pooling"
  bottom: "inception_4b/output"
  top: "inception_4c/pool"
  pooling_param {
    pool: MAX
    kernel_size: 3
    stride: 1
    pad: 1
  }
}
layer {
  name: "inception_4c/pool_proj"
  type: "Convolution"
  bottom: "inception_4c/pool"
  top: "inception_4c/pool_proj"
  param {
    lr_mult: 1
    decay_mult: 1
  }
  param {
    lr_mult: 2
    decay_mult: 0
  }
  convolution_param {
    num_output: 64
    kernel_size: 1
    weight_filler {
      type: "xavier"
      std: 0.1
    }
    bias_filler {
      type: "constant"
      value: 0.2
    }
  }
}
layer {
  name: "inception_4c/relu_pool_proj"
  type: "ReLU"
  bottom: "inception_4c/pool_proj"
  top: "inception_4c/pool_proj"
}
layer {
  name: "inception_4c/output"
  type: "Concat"
  bottom: "inception_4c/1x1"
  bottom: "inception_4c/3x3"
  bottom: "inception_4c/5x5"
  bottom: "inception_4c/pool_proj"
  top: "inception_4c/output"
}
layer {
  name: "inception_4d/1x1"
  type: "Convolution"
  bottom: "inception_4c/output"
  top: "inception_4d/1x1"
  param {
    lr_mult: 1
    decay_mult: 1
  }
  param {
    lr_mult: 2
    decay_mult: 0
  }
  convolution_param {
    num_output: 112
    kernel_size: 1
    weight_filler {
      type: "xavier"
      std: 0.03
    }
    bias_filler {
      type: "constant"
      value: 0.2
    }
  }
}
layer {
  name: "inception_4d/relu_1x1"
  type: "ReLU"
  bottom: "inception_4d/1x1"
  top: "inception_4d/1x1"
}
layer {
  name: "inception_4d/3x3_reduce"
  type: "Convolution"
  bottom: "inception_4c/output"
  top: "inception_4d/3x3_reduce"
  param {
    lr_mult: 1
    decay_mult: 1
  }
  param {
    lr_mult: 2
    decay_mult: 0
  }
  convolution_param {
    num_output: 144
    kernel_size: 1
    weight_filler {
      type: "xavier"
      std: 0.09
    }
    bias_filler {
      type: "constant"
      value: 0.2
    }
  }
}
layer {
  name: "inception_4d/relu_3x3_reduce"
  type: "ReLU"
  bottom: "inception_4d/3x3_reduce"
  top: "inception_4d/3x3_reduce"
}
layer {
  name: "inception_4d/3x3"
  type: "Convolution"
  bottom: "inception_4d/3x3_reduce"
  top: "inception_4d/3x3"
  param {
    lr_mult: 1
    decay_mult: 1
  }
  param {
    lr_mult: 2
    decay_mult: 0
  }
  convolution_param {
    num_output: 288
    pad: 1
    kernel_size: 3
    weight_filler {
      type: "xavier"
      std: 0.03
    }
    bias_filler {
      type: "constant"
      value: 0.2
    }
  }
}
layer {
  name: "inception_4d/relu_3x3"
  type: "ReLU"
  bottom: "inception_4d/3x3"
  top: "inception_4d/3x3"
}
layer {
  name: "inception_4d/5x5_reduce"
  type: "Convolution"
  bottom: "inception_4c/output"
  top: "inception_4d/5x5_reduce"
  param {
    lr_mult: 1
    decay_mult: 1
  }
  param {
    lr_mult: 2
    decay_mult: 0
  }
  convolution_param {
    num_output: 32
    kernel_size: 1
    weight_filler {
      type: "xavier"
      std: 0.2
    }
    bias_filler {
      type: "constant"
      value: 0.2
    }
  }
}
layer {
  name: "inception_4d/relu_5x5_reduce"
  type: "ReLU"
  bottom: "inception_4d/5x5_reduce"
  top: "inception_4d/5x5_reduce"
}
layer {
  name: "inception_4d/5x5"
  type: "Convolution"
  bottom: "inception_4d/5x5_reduce"
  top: "inception_4d/5x5"
  param {
    lr_mult: 1
    decay_mult: 1
  }
  param {
    lr_mult: 2
    decay_mult: 0
  }
  convolution_param {
    num_output: 64
    pad: 2
    kernel_size: 5
    weight_filler {
      type: "xavier"
      std: 0.03
    }
    bias_filler {
      type: "constant"
      value: 0.2
    }
  }
}
layer {
  name: "inception_4d/relu_5x5"
  type: "ReLU"
  bottom: "inception_4d/5x5"
  top: "inception_4d/5x5"
}
layer {
  name: "inception_4d/pool"
  type: "Pooling"
  bottom: "inception_4c/output"
  top: "inception_4d/pool"
  pooling_param {
    pool: MAX
    kernel_size: 3
    stride: 1
    pad: 1
  }
}
layer {
  name: "inception_4d/pool_proj"
  type: "Convolution"
  bottom: "inception_4d/pool"
  top: "inception_4d/pool_proj"
  param {
    lr_mult: 1
    decay_mult: 1
  }
  param {
    lr_mult: 2
    decay_mult: 0
  }
  convolution_param {
    num_output: 64
    kernel_size: 1
    weight_filler {
      type: "xavier"
      std: 0.1
    }
    bias_filler {
      type: "constant"
      value: 0.2
    }
  }
}
layer {
  name: "inception_4d/relu_pool_proj"
  type: "ReLU"
  bottom: "inception_4d/pool_proj"
  top: "inception_4d/pool_proj"
}
layer {
  name: "inception_4d/output"
  type: "Concat"
  bottom: "inception_4d/1x1"
  bottom: "inception_4d/3x3"
  bottom: "inception_4d/5x5"
  bottom: "inception_4d/pool_proj"
  top: "inception_4d/output"
}
layer {
  name: "inception_4e/1x1"
  type: "Convolution"
  bottom: "inception_4d/output"
  top: "inception_4e/1x1"
  param {
    lr_mult: 1
    decay_mult: 1
  }
  param {
    lr_mult: 2
    decay_mult: 0
  }
  convolution_param {
    num_output: 256
    kernel_size: 1
    weight_filler {
      type: "xavier"
      std: 0.03
    }
    bias_filler {
      type: "constant"
      value: 0.2
    }
  }
}
layer {
  name: "inception_4e/relu_1x1"
  type: "ReLU"
  bottom: "inception_4e/1x1"
  top: "inception_4e/1x1"
}
layer {
  name: "inception_4e/3x3_reduce"
  type: "Convolution"
  bottom: "inception_4d/output"
  top: "inception_4e/3x3_reduce"
  param {
    lr_mult: 1
    decay_mult: 1
  }
  param {
    lr_mult: 2
    decay_mult: 0
  }
  convolution_param {
    num_output: 160
    kernel_size: 1
    weight_filler {
      type: "xavier"
      std: 0.09
    }
    bias_filler {
      type: "constant"
      value: 0.2
    }
  }
}
layer {
  name: "inception_4e/relu_3x3_reduce"
  type: "ReLU"
  bottom: "inception_4e/3x3_reduce"
  top: "inception_4e/3x3_reduce"
}
layer {
  name: "inception_4e/3x3"
  type: "Convolution"
  bottom: "inception_4e/3x3_reduce"
  top: "inception_4e/3x3"
  param {
    lr_mult: 1
    decay_mult: 1
  }
  param {
    lr_mult: 2
    decay_mult: 0
  }
  convolution_param {
    num_output: 320
    pad: 1
    kernel_size: 3
    weight_filler {
      type: "xavier"
      std: 0.03
    }
    bias_filler {
      type: "constant"
      value: 0.2
    }
  }
}
layer {
  name: "inception_4e/relu_3x3"
  type: "ReLU"
  bottom: "inception_4e/3x3"
  top: "inception_4e/3x3"
}
layer {
  name: "inception_4e/5x5_reduce"
  type: "Convolution"
  bottom: "inception_4d/output"
  top: "inception_4e/5x5_reduce"
  param {
    lr_mult: 1
    decay_mult: 1
  }
  param {
    lr_mult: 2
    decay_mult: 0
  }
  convolution_param {
    num_output: 32
    kernel_size: 1
    weight_filler {
      type: "xavier"
      std: 0.2
    }
    bias_filler {
      type: "constant"
      value: 0.2
    }
  }
}
layer {
  name: "inception_4e/relu_5x5_reduce"
  type: "ReLU"
  bottom: "inception_4e/5x5_reduce"
  top: "inception_4e/5x5_reduce"
}
layer {
  name: "inception_4e/5x5"
  type: "Convolution"
  bottom: "inception_4e/5x5_reduce"
  top: "inception_4e/5x5"
  param {
    lr_mult: 1
    decay_mult: 1
  }
  param {
    lr_mult: 2
    decay_mult: 0
  }
  convolution_param {
    num_output: 128
    pad: 2
    kernel_size: 5
    weight_filler {
      type: "xavier"
      std: 0.03
    }
    bias_filler {
      type: "constant"
      value: 0.2
    }
  }
}
layer {
  name: "inception_4e/relu_5x5"
  type: "ReLU"
  bottom: "inception_4e/5x5"
  top: "inception_4e/5x5"
}
layer {
  name: "inception_4e/pool"
  type: "Pooling"
  bottom: "inception_4d/output"
  top: "inception_4e/pool"
  pooling_param {
    pool: MAX
    kernel_size: 3
    stride: 1
    pad: 1
  }
}
layer {
  name: "inception_4e/pool_proj"
  type: "Convolution"
  bottom: "inception_4e/pool"
  top: "inception_4e/pool_proj"
  param {
    lr_mult: 1
    decay_mult: 1
  }
  param {
    lr_mult: 2
    decay_mult: 0
  }
  convolution_param {
    num_output: 128
    kernel_size: 1
    weight_filler {
      type: "xavier"
      std: 0.1
    }
    bias_filler {
      type: "constant"
      value: 0.2
    }
  }
}
layer {
  name: "inception_4e/relu_pool_proj"
  type: "ReLU"
  bottom: "inception_4e/pool_proj"
  top: "inception_4e/pool_proj"
}
layer {
  name: "inception_4e/output"
  type: "Concat"
  bottom: "inception_4e/1x1"
  bottom: "inception_4e/3x3"
  bottom: "inception_4e/5x5"
  bottom: "inception_4e/pool_proj"
  top: "inception_4e/output"
}
layer {
  name: "pool4/3x3_s2"
  type: "Pooling"
  bottom: "inception_4e/output"
  top: "pool4/3x3_s2"
  pooling_param {
    pool: MAX
    kernel_size: 3
    stride: 2
  }
}
layer {
  name: "inception_5a/1x1"
  type: "Convolution"
  bottom: "pool4/3x3_s2"
  top: "inception_5a/1x1"
  param {
    lr_mult: 1
    decay_mult: 1
  }
  param {
    lr_mult: 2
    decay_mult: 0
  }
  convolution_param {
    num_output: 256
    kernel_size: 1
    weight_filler {
      type: "xavier"
      std: 0.03
    }
    bias_filler {
      type: "constant"
      value: 0.2
    }
  }
}
layer {
  name: "inception_5a/relu_1x1"
  type: "ReLU"
  bottom: "inception_5a/1x1"
  top: "inception_5a/1x1"
}
layer {
  name: "inception_5a/3x3_reduce"
  type: "Convolution"
  bottom: "pool4/3x3_s2"
  top: "inception_5a/3x3_reduce"
  param {
    lr_mult: 1
    decay_mult: 1
  }
  param {
    lr_mult: 2
    decay_mult: 0
  }
  convolution_param {
    num_output: 160
    kernel_size: 1
    weight_filler {
      type: "xavier"
      std: 0.09
    }
    bias_filler {
      type: "constant"
      value: 0.2
    }
  }
}
layer {
  name: "inception_5a/relu_3x3_reduce"
  type: "ReLU"
  bottom: "inception_5a/3x3_reduce"
  top: "inception_5a/3x3_reduce"
}
layer {
  name: "inception_5a/3x3"
  type: "Convolution"
  bottom: "inception_5a/3x3_reduce"
  top: "inception_5a/3x3"
  param {
    lr_mult: 1
    decay_mult: 1
  }
  param {
    lr_mult: 2
    decay_mult: 0
  }
  convolution_param {
    num_output: 320
    pad: 1
    kernel_size: 3
    weight_filler {
      type: "xavier"
      std: 0.03
    }
    bias_filler {
      type: "constant"
      value: 0.2
    }
  }
}
layer {
  name: "inception_5a/relu_3x3"
  type: "ReLU"
  bottom: "inception_5a/3x3"
  top: "inception_5a/3x3"
}
layer {
  name: "inception_5a/5x5_reduce"
  type: "Convolution"
  bottom: "pool4/3x3_s2"
  top: "inception_5a/5x5_reduce"
  param {
    lr_mult: 1
    decay_mult: 1
  }
  param {
    lr_mult: 2
    decay_mult: 0
  }
  convolution_param {
    num_output: 32
    kernel_size: 1
    weight_filler {
      type: "xavier"
      std: 0.2
    }
    bias_filler {
      type: "constant"
      value: 0.2
    }
I0915 12:13:10.986606  1845 layer_factory.hpp:77] Creating layer data
I0915 12:13:10.986639  1845 net.cpp:91] Creating Layer data
I0915 12:13:10.986649  1845 net.cpp:399] data -> data
I0915 12:13:11.542204  1845 net.cpp:141] Setting up data
I0915 12:13:11.542284  1845 net.cpp:148] Top shape: 10 3 224 224 (1505280)
I0915 12:13:11.542292  1845 net.cpp:156] Memory required for data: 6021120
I0915 12:13:11.542315  1845 layer_factory.hpp:77] Creating layer conv1/7x7_s2
I0915 12:13:11.542362  1845 net.cpp:91] Creating Layer conv1/7x7_s2
I0915 12:13:11.542373  1845 net.cpp:425] conv1/7x7_s2 <- data
I0915 12:13:11.542389  1845 net.cpp:399] conv1/7x7_s2 -> conv1/7x7_s2
I0915 12:13:11.733867  1845 net.cpp:141] Setting up conv1/7x7_s2
I0915 12:13:11.733922  1845 net.cpp:148] Top shape: 10 64 112 112 (8028160)
I0915 12:13:11.733929  1845 net.cpp:156] Memory required for data: 38133760
I0915 12:13:11.733961  1845 layer_factory.hpp:77] Creating layer conv1/relu_7x7
I0915 12:13:11.733985  1845 net.cpp:91] Creating Layer conv1/relu_7x7
I0915 12:13:11.733992  1845 net.cpp:425] conv1/relu_7x7 <- conv1/7x7_s2
I0915 12:13:11.734001  1845 net.cpp:386] conv1/relu_7x7 -> conv1/7x7_s2 (in-place)
I0915 12:13:11.734427  1845 net.cpp:141] Setting up conv1/relu_7x7
I0915 12:13:11.734442  1845 net.cpp:148] Top shape: 10 64 112 112 (8028160)
I0915 12:13:11.734447  1845 net.cpp:156] Memory required for data: 70246400
I0915 12:13:11.734453  1845 layer_factory.hpp:77] Creating layer pool1/3x3_s2
I0915 12:13:11.734468  1845 net.cpp:91] Creating Layer pool1/3x3_s2
I0915 12:13:11.734474  1845 net.cpp:425] pool1/3x3_s2 <- conv1/7x7_s2
I0915 12:13:11.734483  1845 net.cpp:399] pool1/3x3_s2 -> pool1/3x3_s2
I0915 12:13:11.734565  1845 net.cpp:141] Setting up pool1/3x3_s2
I0915 12:13:11.734576  1845 net.cpp:148] Top shape: 10 64 56 56 (2007040)
I0915 12:13:11.734581  1845 net.cpp:156] Memory required for data: 78274560
I0915 12:13:11.734586  1845 layer_factory.hpp:77] Creating layer pool1/norm1
I0915 12:13:11.734606  1845 net.cpp:91] Creating Layer pool1/norm1
I0915 12:13:11.734611  1845 net.cpp:425] pool1/norm1 <- pool1/3x3_s2
I0915 12:13:11.734619  1845 net.cpp:399] pool1/norm1 -> pool1/norm1
I0915 12:13:11.734897  1845 net.cpp:141] Setting up pool1/norm1
I0915 12:13:11.734911  1845 net.cpp:148] Top shape: 10 64 56 56 (2007040)
I0915 12:13:11.734917  1845 net.cpp:156] Memory required for data: 86302720
I0915 12:13:11.734922  1845 layer_factory.hpp:77] Creating layer conv2/3x3_reduce
I0915 12:13:11.734944  1845 net.cpp:91] Creating Layer conv2/3x3_reduce
I0915 12:13:11.734951  1845 net.cpp:425] conv2/3x3_reduce <- pool1/norm1
I0915 12:13:11.734958  1845 net.cpp:399] conv2/3x3_reduce -> conv2/3x3_reduce
I0915 12:13:11.737139  1845 net.cpp:141] Setting up conv2/3x3_reduce
I0915 12:13:11.737160  1845 net.cpp:148] Top shape: 10 64 56 56 (2007040)
I0915 12:13:11.737166  1845 net.cpp:156] Memory required for data: 94330880
I0915 12:13:11.737180  1845 layer_factory.hpp:77] Creating layer conv2/relu_3x3_reduce
I0915 12:13:11.737190  1845 net.cpp:91] Creating Layer conv2/relu_3x3_reduce
I0915 12:13:11.737196  1845 net.cpp:425] conv2/relu_3x3_reduce <- conv2/3x3_reduce
I0915 12:13:11.737205  1845 net.cpp:386] conv2/relu_3x3_reduce -> conv2/3x3_reduce (in-place)
I0915 12:13:11.737603  1845 net.cpp:141] Setting up conv2/relu_3x3_reduce
I0915 12:13:11.737618  1845 net.cpp:148] Top shape: 10 64 56 56 (2007040)
I0915 12:13:11.737623  1845 net.cpp:156] Memory required for data: 102359040
I0915 12:13:11.737629  1845 layer_factory.hpp:77] Creating layer conv2/3x3
I0915 12:13:11.737645  1845 net.cpp:91] Creating Layer conv2/3x3
I0915 12:13:11.737651  1845 net.cpp:425] conv2/3x3 <- conv2/3x3_reduce
I0915 12:13:11.737660  1845 net.cpp:399] conv2/3x3 -> conv2/3x3
I0915 12:13:11.740957  1845 net.cpp:141] Setting up conv2/3x3
I0915 12:13:11.740978  1845 net.cpp:148] Top shape: 10 192 56 56 (6021120)
I0915 12:13:11.740984  1845 net.cpp:156] Memory required for data: 126443520
I0915 12:13:11.740998  1845 layer_factory.hpp:77] Creating layer conv2/relu_3x3
I0915 12:13:11.741010  1845 net.cpp:91] Creating Layer conv2/relu_3x3
I0915 12:13:11.741016  1845 net.cpp:425] conv2/relu_3x3 <- conv2/3x3
I0915 12:13:11.741024  1845 net.cpp:386] conv2/relu_3x3 -> conv2/3x3 (in-place)
I0915 12:13:11.741264  1845 net.cpp:141] Setting up conv2/relu_3x3
I0915 12:13:11.741277  1845 net.cpp:148] Top shape: 10 192 56 56 (6021120)
I0915 12:13:11.741283  1845 net.cpp:156] Memory required for data: 150528000
I0915 12:13:11.741288  1845 layer_factory.hpp:77] Creating layer conv2/norm2
I0915 12:13:11.741299  1845 net.cpp:91] Creating Layer conv2/norm2
I0915 12:13:11.741304  1845 net.cpp:425] conv2/norm2 <- conv2/3x3
I0915 12:13:11.741312  1845 net.cpp:399] conv2/norm2 -> conv2/norm2
I0915 12:13:11.741765  1845 net.cpp:141] Setting up conv2/norm2
I0915 12:13:11.741780  1845 net.cpp:148] Top shape: 10 192 56 56 (6021120)
I0915 12:13:11.741786  1845 net.cpp:156] Memory required for data: 174612480
I0915 12:13:11.741791  1845 layer_factory.hpp:77] Creating layer pool2/3x3_s2
I0915 12:13:11.741801  1845 net.cpp:91] Creating Layer pool2/3x3_s2
I0915 12:13:11.741807  1845 net.cpp:425] pool2/3x3_s2 <- conv2/norm2
I0915 12:13:11.741814  1845 net.cpp:399] pool2/3x3_s2 -> pool2/3x3_s2
I0915 12:13:11.741866  1845 net.cpp:141] Setting up pool2/3x3_s2
I0915 12:13:11.741876  1845 net.cpp:148] Top shape: 10 192 28 28 (1505280)
I0915 12:13:11.741881  1845 net.cpp:156] Memory required for data: 180633600
I0915 12:13:11.741886  1845 layer_factory.hpp:77] Creating layer pool2/3x3_s2_pool2/3x3_s2_0_split
I0915 12:13:11.741906  1845 net.cpp:91] Creating Layer pool2/3x3_s2_pool2/3x3_s2_0_split
I0915 12:13:11.741911  1845 net.cpp:425] pool2/3x3_s2_pool2/3x3_s2_0_split <- pool2/3x3_s2
I0915 12:13:11.741919  1845 net.cpp:399] pool2/3x3_s2_pool2/3x3_s2_0_split -> pool2/3x3_s2_pool2/3x3_s2_0_split_0
I0915 12:13:11.741930  1845 net.cpp:399] pool2/3x3_s2_pool2/3x3_s2_0_split -> pool2/3x3_s2_pool2/3x3_s2_0_split_1
I0915 12:13:11.741940  1845 net.cpp:399] pool2/3x3_s2_pool2/3x3_s2_0_split -> pool2/3x3_s2_pool2/3x3_s2_0_split_2
I0915 12:13:11.741950  1845 net.cpp:399] pool2/3x3_s2_pool2/3x3_s2_0_split -> pool2/3x3_s2_pool2/3x3_s2_0_split_3
I0915 12:13:11.742023  1845 net.cpp:141] Setting up pool2/3x3_s2_pool2/3x3_s2_0_split
I0915 12:13:11.742033  1845 net.cpp:148] Top shape: 10 192 28 28 (1505280)
I0915 12:13:11.742040  1845 net.cpp:148] Top shape: 10 192 28 28 (1505280)
I0915 12:13:11.742046  1845 net.cpp:148] Top shape: 10 192 28 28 (1505280)
I0915 12:13:11.742053  1845 net.cpp:148] Top shape: 10 192 28 28 (1505280)
I0915 12:13:11.742056  1845 net.cpp:156] Memory required for data: 204718080
I0915 12:13:11.742061  1845 layer_factory.hpp:77] Creating layer inception_3a/1x1
I0915 12:13:11.742076  1845 net.cpp:91] Creating Layer inception_3a/1x1
I0915 12:13:11.742082  1845 net.cpp:425] inception_3a/1x1 <- pool2/3x3_s2_pool2/3x3_s2_0_split_0
I0915 12:13:11.742106  1845 net.cpp:399] inception_3a/1x1 -> inception_3a/1x1
I0915 12:13:11.744235  1845 net.cpp:141] Setting up inception_3a/1x1
I0915 12:13:11.744256  1845 net.cpp:148] Top shape: 10 64 28 28 (501760)
I0915 12:13:11.744261  1845 net.cpp:156] Memory required for data: 206725120
I0915 12:13:11.744272  1845 layer_factory.hpp:77] Creating layer inception_3a/relu_1x1
I0915 12:13:11.744284  1845 net.cpp:91] Creating Layer inception_3a/relu_1x1
I0915 12:13:11.744292  1845 net.cpp:425] inception_3a/relu_1x1 <- inception_3a/1x1
I0915 12:13:11.744299  1845 net.cpp:386] inception_3a/relu_1x1 -> inception_3a/1x1 (in-place)
I0915 12:13:11.744735  1845 net.cpp:141] Setting up inception_3a/relu_1x1
I0915 12:13:11.744750  1845 net.cpp:148] Top shape: 10 64 28 28 (501760)
I0915 12:13:11.744755  1845 net.cpp:156] Memory required for data: 208732160
I0915 12:13:11.744760  1845 layer_factory.hpp:77] Creating layer inception_3a/3x3_reduce
I0915 12:13:11.744778  1845 net.cpp:91] Creating Layer inception_3a/3x3_reduce
I0915 12:13:11.744784  1845 net.cpp:425] inception_3a/3x3_reduce <- pool2/3x3_s2_pool2/3x3_s2_0_split_1
I0915 12:13:11.744801  1845 net.cpp:399] inception_3a/3x3_reduce -> inception_3a/3x3_reduce
I0915 12:13:11.747464  1845 net.cpp:141] Setting up inception_3a/3x3_reduce
I0915 12:13:11.747483  1845 net.cpp:148] Top shape: 10 96 28 28 (752640)
I0915 12:13:11.747489  1845 net.cpp:156] Memory required for data: 211742720
I0915 12:13:11.747503  1845 layer_factory.hpp:77] Creating layer inception_3a/relu_3x3_reduce
I0915 12:13:11.747514  1845 net.cpp:91] Creating Layer inception_3a/relu_3x3_reduce
I0915 12:13:11.747519  1845 net.cpp:425] inception_3a/relu_3x3_reduce <- inception_3a/3x3_reduce
I0915 12:13:11.747531  1845 net.cpp:386] inception_3a/relu_3x3_reduce -> inception_3a/3x3_reduce (in-place)
I0915 12:13:11.747802  1845 net.cpp:141] Setting up inception_3a/relu_3x3_reduce
I0915 12:13:11.747817  1845 net.cpp:148] Top shape: 10 96 28 28 (752640)
I0915 12:13:11.747822  1845 net.cpp:156] Memory required for data: 214753280
I0915 12:13:11.747828  1845 layer_factory.hpp:77] Creating layer inception_3a/3x3
I0915 12:13:11.747848  1845 net.cpp:91] Creating Layer inception_3a/3x3
I0915 12:13:11.747854  1845 net.cpp:425] inception_3a/3x3 <- inception_3a/3x3_reduce
I0915 12:13:11.747866  1845 net.cpp:399] inception_3a/3x3 -> inception_3a/3x3
I0915 12:13:11.750316  1845 net.cpp:141] Setting up inception_3a/3x3
I0915 12:13:11.750336  1845 net.cpp:148] Top shape: 10 128 28 28 (1003520)
I0915 12:13:11.750342  1845 net.cpp:156] Memory required for data: 218767360
I0915 12:13:11.750352  1845 layer_factory.hpp:77] Creating layer inception_3a/relu_3x3
I0915 12:13:11.750366  1845 net.cpp:91] Creating Layer inception_3a/relu_3x3
I0915 12:13:11.750372  1845 net.cpp:425] inception_3a/relu_3x3 <- inception_3a/3x3
I0915 12:13:11.750380  1845 net.cpp:386] inception_3a/relu_3x3 -> inception_3a/3x3 (in-place)
I0915 12:13:11.750819  1845 net.cpp:141] Setting up inception_3a/relu_3x3
I0915 12:13:11.750833  1845 net.cpp:148] Top shape: 10 128 28 28 (1003520)
I0915 12:13:11.750838  1845 net.cpp:156] Memory required for data: 222781440
I0915 12:13:11.750844  1845 layer_factory.hpp:77] Creating layer inception_3a/5x5_reduce
I0915 12:13:11.750864  1845 net.cpp:91] Creating Layer inception_3a/5x5_reduce
I0915 12:13:11.750871  1845 net.cpp:425] inception_3a/5x5_reduce <- pool2/3x3_s2_pool2/3x3_s2_0_split_2
I0915 12:13:11.750880  1845 net.cpp:399] inception_3a/5x5_reduce -> inception_3a/5x5_reduce
I0915 12:13:11.752276  1845 net.cpp:141] Setting up inception_3a/5x5_reduce
I0915 12:13:11.752295  1845 net.cpp:148] Top shape: 10 16 28 28 (125440)
I0915 12:13:11.752301  1845 net.cpp:156] Memory required for data: 223283200
I0915 12:13:11.752311  1845 layer_factory.hpp:77] Creating layer inception_3a/relu_5x5_reduce
I0915 12:13:11.752326  1845 net.cpp:91] Creating Layer inception_3a/relu_5x5_reduce
I0915 12:13:11.752331  1845 net.cpp:425] inception_3a/relu_5x5_reduce <- inception_3a/5x5_reduce
I0915 12:13:11.752339  1845 net.cpp:386] inception_3a/relu_5x5_reduce -> inception_3a/5x5_reduce (in-place)
I0915 12:13:11.752773  1845 net.cpp:141] Setting up inception_3a/relu_5x5_reduce
I0915 12:13:11.752789  1845 net.cpp:148] Top shape: 10 16 28 28 (125440)
I0915 12:13:11.752794  1845 net.cpp:156] Memory required for data: 223784960
I0915 12:13:11.752799  1845 layer_factory.hpp:77] Creating layer inception_3a/5x5
I0915 12:13:11.752816  1845 net.cpp:91] Creating Layer inception_3a/5x5
I0915 12:13:11.752822  1845 net.cpp:425] inception_3a/5x5 <- inception_3a/5x5_reduce
I0915 12:13:11.752832  1845 net.cpp:399] inception_3a/5x5 -> inception_3a/5x5
I0915 12:13:11.754987  1845 net.cpp:141] Setting up inception_3a/5x5
I0915 12:13:11.755007  1845 net.cpp:148] Top shape: 10 32 28 28 (250880)
I0915 12:13:11.755013  1845 net.cpp:156] Memory required for data: 224788480
I0915 12:13:11.755023  1845 layer_factory.hpp:77] Creating layer inception_3a/relu_5x5
I0915 12:13:11.755036  1845 net.cpp:91] Creating Layer inception_3a/relu_5x5
I0915 12:13:11.755043  1845 net.cpp:425] inception_3a/relu_5x5 <- inception_3a/5x5
I0915 12:13:11.755050  1845 net.cpp:386] inception_3a/relu_5x5 -> inception_3a/5x5 (in-place)
I0915 12:13:11.755322  1845 net.cpp:141] Setting up inception_3a/relu_5x5
I0915 12:13:11.755334  1845 net.cpp:148] Top shape: 10 32 28 28 (250880)
I0915 12:13:11.755339  1845 net.cpp:156] Memory required for data: 225792000
I0915 12:13:11.755345  1845 layer_factory.hpp:77] Creating layer inception_3a/pool
I0915 12:13:11.755359  1845 net.cpp:91] Creating Layer inception_3a/pool
I0915 12:13:11.755365  1845 net.cpp:425] inception_3a/pool <- pool2/3x3_s2_pool2/3x3_s2_0_split_3
I0915 12:13:11.755376  1845 net.cpp:399] inception_3a/pool -> inception_3a/pool
I0915 12:13:11.755440  1845 net.cpp:141] Setting up inception_3a/pool
I0915 12:13:11.755450  1845 net.cpp:148] Top shape: 10 192 28 28 (1505280)
I0915 12:13:11.755455  1845 net.cpp:156] Memory required for data: 231813120
I0915 12:13:11.755460  1845 layer_factory.hpp:77] Creating layer inception_3a/pool_proj
I0915 12:13:11.755476  1845 net.cpp:91] Creating Layer inception_3a/pool_proj
I0915 12:13:11.755482  1845 net.cpp:425] inception_3a/pool_proj <- inception_3a/pool
I0915 12:13:11.755494  1845 net.cpp:399] inception_3a/pool_proj -> inception_3a/pool_proj
I0915 12:13:11.757073  1845 net.cpp:141] Setting up inception_3a/pool_proj
I0915 12:13:11.757092  1845 net.cpp:148] Top shape: 10 32 28 28 (250880)
I0915 12:13:11.757098  1845 net.cpp:156] Memory required for data: 232816640
I0915 12:13:11.757112  1845 layer_factory.hpp:77] Creating layer inception_3a/relu_pool_proj
I0915 12:13:11.757127  1845 net.cpp:91] Creating Layer inception_3a/relu_pool_proj
I0915 12:13:11.757133  1845 net.cpp:425] inception_3a/relu_pool_proj <- inception_3a/pool_proj
I0915 12:13:11.757141  1845 net.cpp:386] inception_3a/relu_pool_proj -> inception_3a/pool_proj (in-place)
I0915 12:13:11.757581  1845 net.cpp:141] Setting up inception_3a/relu_pool_proj
I0915 12:13:11.757596  1845 net.cpp:148] Top shape: 10 32 28 28 (250880)
I0915 12:13:11.757601  1845 net.cpp:156] Memory required for data: 233820160
I0915 12:13:11.757606  1845 layer_factory.hpp:77] Creating layer inception_3a/output
I0915 12:13:11.757628  1845 net.cpp:91] Creating Layer inception_3a/output
I0915 12:13:11.757634  1845 net.cpp:425] inception_3a/output <- inception_3a/1x1
I0915 12:13:11.757642  1845 net.cpp:425] inception_3a/output <- inception_3a/3x3
I0915 12:13:11.757647  1845 net.cpp:425] inception_3a/output <- inception_3a/5x5
I0915 12:13:11.757653  1845 net.cpp:425] inception_3a/output <- inception_3a/pool_proj
I0915 12:13:11.757660  1845 net.cpp:399] inception_3a/output -> inception_3a/output
I0915 12:13:11.757714  1845 net.cpp:141] Setting up inception_3a/output
I0915 12:13:11.757724  1845 net.cpp:148] Top shape: 10 256 28 28 (2007040)
I0915 12:13:11.757728  1845 net.cpp:156] Memory required for data: 241848320
I0915 12:13:11.757733  1845 layer_factory.hpp:77] Creating layer inception_3a/output_inception_3a/output_0_split
I0915 12:13:11.757742  1845 net.cpp:91] Creating Layer inception_3a/output_inception_3a/output_0_split
I0915 12:13:11.757747  1845 net.cpp:425] inception_3a/output_inception_3a/output_0_split <- inception_3a/output
I0915 12:13:11.757758  1845 net.cpp:399] inception_3a/output_inception_3a/output_0_split -> inception_3a/output_inception_3a/output_0_split_0
I0915 12:13:11.757769  1845 net.cpp:399] inception_3a/output_inception_3a/output_0_split -> inception_3a/output_inception_3a/output_0_split_1
I0915 12:13:11.757779  1845 net.cpp:399] inception_3a/output_inception_3a/output_0_split -> inception_3a/output_inception_3a/output_0_split_2
I0915 12:13:11.757788  1845 net.cpp:399] inception_3a/output_inception_3a/output_0_split -> inception_3a/output_inception_3a/output_0_split_3
I0915 12:13:11.757879  1845 net.cpp:141] Setting up inception_3a/output_inception_3a/output_0_split
I0915 12:13:11.757889  1845 net.cpp:148] Top shape: 10 256 28 28 (2007040)
I0915 12:13:11.757894  1845 net.cpp:148] Top shape: 10 256 28 28 (2007040)
I0915 12:13:11.757900  1845 net.cpp:148] Top shape: 10 256 28 28 (2007040)
I0915 12:13:11.757906  1845 net.cpp:148] Top shape: 10 256 28 28 (2007040)
I0915 12:13:11.757910  1845 net.cpp:156] Memory required for data: 273960960
I0915 12:13:11.757915  1845 layer_factory.hpp:77] Creating layer inception_3b/1x1
I0915 12:13:11.757938  1845 net.cpp:91] Creating Layer inception_3b/1x1
I0915 12:13:11.757944  1845 net.cpp:425] inception_3b/1x1 <- inception_3a/output_inception_3a/output_0_split_0
I0915 12:13:11.757954  1845 net.cpp:399] inception_3b/1x1 -> inception_3b/1x1
I0915 12:13:11.759547  1845 net.cpp:141] Setting up inception_3b/1x1
I0915 12:13:11.759562  1845 net.cpp:148] Top shape: 10 128 28 28 (1003520)
I0915 12:13:11.759568  1845 net.cpp:156] Memory required for data: 277975040
I0915 12:13:11.759578  1845 layer_factory.hpp:77] Creating layer inception_3b/relu_1x1
I0915 12:13:11.759591  1845 net.cpp:91] Creating Layer inception_3b/relu_1x1
I0915 12:13:11.759598  1845 net.cpp:425] inception_3b/relu_1x1 <- inception_3b/1x1
I0915 12:13:11.759608  1845 net.cpp:386] inception_3b/relu_1x1 -> inception_3b/1x1 (in-place)
I0915 12:13:11.760040  1845 net.cpp:141] Setting up inception_3b/relu_1x1
I0915 12:13:11.760057  1845 net.cpp:148] Top shape: 10 128 28 28 (1003520)
I0915 12:13:11.760063  1845 net.cpp:156] Memory required for data: 281989120
I0915 12:13:11.760068  1845 layer_factory.hpp:77] Creating layer inception_3b/3x3_reduce
I0915 12:13:11.760094  1845 net.cpp:91] Creating Layer inception_3b/3x3_reduce
I0915 12:13:11.760102  1845 net.cpp:425] inception_3b/3x3_reduce <- inception_3a/output_inception_3a/output_0_split_1
I0915 12:13:11.760112  1845 net.cpp:399] inception_3b/3x3_reduce -> inception_3b/3x3_reduce
I0915 12:13:11.761936  1845 net.cpp:141] Setting up inception_3b/3x3_reduce
I0915 12:13:11.761955  1845 net.cpp:148] Top shape: 10 128 28 28 (1003520)
I0915 12:13:11.761961  1845 net.cpp:156] Memory required for data: 286003200
I0915 12:13:11.761971  1845 layer_factory.hpp:77] Creating layer inception_3b/relu_3x3_reduce
I0915 12:13:11.761983  1845 net.cpp:91] Creating Layer inception_3b/relu_3x3_reduce
I0915 12:13:11.761991  1845 net.cpp:425] inception_3b/relu_3x3_reduce <- inception_3b/3x3_reduce
I0915 12:13:11.761998  1845 net.cpp:386] inception_3b/relu_3x3_reduce -> inception_3b/3x3_reduce (in-place)
I0915 12:13:11.762257  1845 net.cpp:141] Setting up inception_3b/relu_3x3_reduce
I0915 12:13:11.762271  1845 net.cpp:148] Top shape: 10 128 28 28 (1003520)
I0915 12:13:11.762276  1845 net.cpp:156] Memory required for data: 290017280
I0915 12:13:11.762281  1845 layer_factory.hpp:77] Creating layer inception_3b/3x3
I0915 12:13:11.762300  1845 net.cpp:91] Creating Layer inception_3b/3x3
I0915 12:13:11.762306  1845 net.cpp:425] inception_3b/3x3 <- inception_3b/3x3_reduce
I0915 12:13:11.762316  1845 net.cpp:399] inception_3b/3x3 -> inception_3b/3x3
I0915 12:13:11.766507  1845 net.cpp:141] Setting up inception_3b/3x3
I0915 12:13:11.766526  1845 net.cpp:148] Top shape: 10 192 28 28 (1505280)
I0915 12:13:11.766532  1845 net.cpp:156] Memory required for data: 296038400
I0915 12:13:11.766542  1845 layer_factory.hpp:77] Creating layer inception_3b/relu_3x3
I0915 12:13:11.766561  1845 net.cpp:91] Creating Layer inception_3b/relu_3x3
I0915 12:13:11.766567  1845 net.cpp:425] inception_3b/relu_3x3 <- inception_3b/3x3
I0915 12:13:11.766577  1845 net.cpp:386] inception_3b/relu_3x3 -> inception_3b/3x3 (in-place)
I0915 12:13:11.767022  1845 net.cpp:141] Setting up inception_3b/relu_3x3
I0915 12:13:11.767037  1845 net.cpp:148] Top shape: 10 192 28 28 (1505280)
I0915 12:13:11.767042  1845 net.cpp:156] Memory required for data: 302059520
I0915 12:13:11.767048  1845 layer_factory.hpp:77] Creating layer inception_3b/5x5_reduce
I0915 12:13:11.767067  1845 net.cpp:91] Creating Layer inception_3b/5x5_reduce
I0915 12:13:11.767073  1845 net.cpp:425] inception_3b/5x5_reduce <- inception_3a/output_inception_3a/output_0_split_2
I0915 12:13:11.767083  1845 net.cpp:399] inception_3b/5x5_reduce -> inception_3b/5x5_reduce
I0915 12:13:11.768518  1845 net.cpp:141] Setting up inception_3b/5x5_reduce
I0915 12:13:11.768538  1845 net.cpp:148] Top shape: 10 32 28 28 (250880)
I0915 12:13:11.768543  1845 net.cpp:156] Memory required for data: 303063040
I0915 12:13:11.768553  1845 layer_factory.hpp:77] Creating layer inception_3b/relu_5x5_reduce
I0915 12:13:11.768564  1845 net.cpp:91] Creating Layer inception_3b/relu_5x5_reduce
I0915 12:13:11.768570  1845 net.cpp:425] inception_3b/relu_5x5_reduce <- inception_3b/5x5_reduce
I0915 12:13:11.768581  1845 net.cpp:386] inception_3b/relu_5x5_reduce -> inception_3b/5x5_reduce (in-place)
I0915 12:13:11.769016  1845 net.cpp:141] Setting up inception_3b/relu_5x5_reduce
I0915 12:13:11.769031  1845 net.cpp:148] Top shape: 10 32 28 28 (250880)
I0915 12:13:11.769035  1845 net.cpp:156] Memory required for data: 304066560
I0915 12:13:11.769042  1845 layer_factory.hpp:77] Creating layer inception_3b/5x5
I0915 12:13:11.769062  1845 net.cpp:91] Creating Layer inception_3b/5x5
I0915 12:13:11.769068  1845 net.cpp:425] inception_3b/5x5 <- inception_3b/5x5_reduce
I0915 12:13:11.769081  1845 net.cpp:399] inception_3b/5x5 -> inception_3b/5x5
I0915 12:13:11.772006  1845 net.cpp:141] Setting up inception_3b/5x5
I0915 12:13:11.772025  1845 net.cpp:148] Top shape: 10 96 28 28 (752640)
I0915 12:13:11.772032  1845 net.cpp:156] Memory required for data: 307077120
I0915 12:13:11.772042  1845 layer_factory.hpp:77] Creating layer inception_3b/relu_5x5
I0915 12:13:11.772055  1845 net.cpp:91] Creating Layer inception_3b/relu_5x5
I0915 12:13:11.772063  1845 net.cpp:425] inception_3b/relu_5x5 <- inception_3b/5x5
I0915 12:13:11.772079  1845 net.cpp:386] inception_3b/relu_5x5 -> inception_3b/5x5 (in-place)
I0915 12:13:11.772341  1845 net.cpp:141] Setting up inception_3b/relu_5x5
I0915 12:13:11.772354  1845 net.cpp:148] Top shape: 10 96 28 28 (752640)
I0915 12:13:11.772359  1845 net.cpp:156] Memory required for data: 310087680
I0915 12:13:11.772364  1845 layer_factory.hpp:77] Creating layer inception_3b/pool
I0915 12:13:11.772374  1845 net.cpp:91] Creating Layer inception_3b/pool
I0915 12:13:11.772380  1845 net.cpp:425] inception_3b/pool <- inception_3a/output_inception_3a/output_0_split_3
I0915 12:13:11.772392  1845 net.cpp:399] inception_3b/pool -> inception_3b/pool
I0915 12:13:11.772464  1845 net.cpp:141] Setting up inception_3b/pool
I0915 12:13:11.772475  1845 net.cpp:148] Top shape: 10 256 28 28 (2007040)
I0915 12:13:11.772480  1845 net.cpp:156] Memory required for data: 318115840
I0915 12:13:11.772485  1845 layer_factory.hpp:77] Creating layer inception_3b/pool_proj
I0915 12:13:11.772500  1845 net.cpp:91] Creating Layer inception_3b/pool_proj
I0915 12:13:11.772506  1845 net.cpp:425] inception_3b/pool_proj <- inception_3b/pool
I0915 12:13:11.772516  1845 net.cpp:399] inception_3b/pool_proj -> inception_3b/pool_proj
I0915 12:13:11.774215  1845 net.cpp:141] Setting up inception_3b/pool_proj
I0915 12:13:11.774233  1845 net.cpp:148] Top shape: 10 64 28 28 (501760)
I0915 12:13:11.774240  1845 net.cpp:156] Memory required for data: 320122880
I0915 12:13:11.774250  1845 layer_factory.hpp:77] Creating layer inception_3b/relu_pool_proj
I0915 12:13:11.774263  1845 net.cpp:91] Creating Layer inception_3b/relu_pool_proj
I0915 12:13:11.774271  1845 net.cpp:425] inception_3b/relu_pool_proj <- inception_3b/pool_proj
I0915 12:13:11.774278  1845 net.cpp:386] inception_3b/relu_pool_proj -> inception_3b/pool_proj (in-place)
I0915 12:13:11.774720  1845 net.cpp:141] Setting up inception_3b/relu_pool_proj
I0915 12:13:11.774734  1845 net.cpp:148] Top shape: 10 64 28 28 (501760)
I0915 12:13:11.774739  1845 net.cpp:156] Memory required for data: 322129920
I0915 12:13:11.774744  1845 layer_factory.hpp:77] Creating layer inception_3b/output
I0915 12:13:11.774756  1845 net.cpp:91] Creating Layer inception_3b/output
I0915 12:13:11.774762  1845 net.cpp:425] inception_3b/output <- inception_3b/1x1
I0915 12:13:11.774768  1845 net.cpp:425] inception_3b/output <- inception_3b/3x3
I0915 12:13:11.774775  1845 net.cpp:425] inception_3b/output <- inception_3b/5x5
I0915 12:13:11.774781  1845 net.cpp:425] inception_3b/output <- inception_3b/pool_proj
I0915 12:13:11.774788  1845 net.cpp:399] inception_3b/output -> inception_3b/output
I0915 12:13:11.774834  1845 net.cpp:141] Setting up inception_3b/output
I0915 12:13:11.774845  1845 net.cpp:148] Top shape: 10 480 28 28 (3763200)
I0915 12:13:11.774849  1845 net.cpp:156] Memory required for data: 337182720
I0915 12:13:11.774854  1845 layer_factory.hpp:77] Creating layer pool3/3x3_s2
I0915 12:13:11.774863  1845 net.cpp:91] Creating Layer pool3/3x3_s2
I0915 12:13:11.774868  1845 net.cpp:425] pool3/3x3_s2 <- inception_3b/output
I0915 12:13:11.774878  1845 net.cpp:399] pool3/3x3_s2 -> pool3/3x3_s2
I0915 12:13:11.774943  1845 net.cpp:141] Setting up pool3/3x3_s2
I0915 12:13:11.774955  1845 net.cpp:148] Top shape: 10 480 14 14 (940800)
I0915 12:13:11.774960  1845 net.cpp:156] Memory required for data: 340945920
I0915 12:13:11.774965  1845 layer_factory.hpp:77] Creating layer pool3/3x3_s2_pool3/3x3_s2_0_split
I0915 12:13:11.774973  1845 net.cpp:91] Creating Layer pool3/3x3_s2_pool3/3x3_s2_0_split
I0915 12:13:11.774978  1845 net.cpp:425] pool3/3x3_s2_pool3/3x3_s2_0_split <- pool3/3x3_s2
I0915 12:13:11.774989  1845 net.cpp:399] pool3/3x3_s2_pool3/3x3_s2_0_split -> pool3/3x3_s2_pool3/3x3_s2_0_split_0
I0915 12:13:11.774998  1845 net.cpp:399] pool3/3x3_s2_pool3/3x3_s2_0_split -> pool3/3x3_s2_pool3/3x3_s2_0_split_1
I0915 12:13:11.775007  1845 net.cpp:399] pool3/3x3_s2_pool3/3x3_s2_0_split -> pool3/3x3_s2_pool3/3x3_s2_0_split_2
I0915 12:13:11.775017  1845 net.cpp:399] pool3/3x3_s2_pool3/3x3_s2_0_split -> pool3/3x3_s2_pool3/3x3_s2_0_split_3
I0915 12:13:11.775104  1845 net.cpp:141] Setting up pool3/3x3_s2_pool3/3x3_s2_0_split
I0915 12:13:11.775115  1845 net.cpp:148] Top shape: 10 480 14 14 (940800)
I0915 12:13:11.775121  1845 net.cpp:148] Top shape: 10 480 14 14 (940800)
I0915 12:13:11.775126  1845 net.cpp:148] Top shape: 10 480 14 14 (940800)
I0915 12:13:11.775132  1845 net.cpp:148] Top shape: 10 480 14 14 (940800)
I0915 12:13:11.775136  1845 net.cpp:156] Memory required for data: 355998720
I0915 12:13:11.775141  1845 layer_factory.hpp:77] Creating layer inception_4a/1x1
I0915 12:13:11.775161  1845 net.cpp:91] Creating Layer inception_4a/1x1
I0915 12:13:11.775166  1845 net.cpp:425] inception_4a/1x1 <- pool3/3x3_s2_pool3/3x3_s2_0_split_0
I0915 12:13:11.775176  1845 net.cpp:399] inception_4a/1x1 -> inception_4a/1x1
I0915 12:13:11.777585  1845 net.cpp:141] Setting up inception_4a/1x1
I0915 12:13:11.777607  1845 net.cpp:148] Top shape: 10 192 14 14 (376320)
I0915 12:13:11.777613  1845 net.cpp:156] Memory required for data: 357504000
I0915 12:13:11.777623  1845 layer_factory.hpp:77] Creating layer inception_4a/relu_1x1
I0915 12:13:11.777633  1845 net.cpp:91] Creating Layer inception_4a/relu_1x1
I0915 12:13:11.777639  1845 net.cpp:425] inception_4a/relu_1x1 <- inception_4a/1x1
I0915 12:13:11.777647  1845 net.cpp:386] inception_4a/relu_1x1 -> inception_4a/1x1 (in-place)
I0915 12:13:11.778096  1845 net.cpp:141] Setting up inception_4a/relu_1x1
I0915 12:13:11.778110  1845 net.cpp:148] Top shape: 10 192 14 14 (376320)
I0915 12:13:11.778115  1845 net.cpp:156] Memory required for data: 359009280
I0915 12:13:11.778121  1845 layer_factory.hpp:77] Creating layer inception_4a/3x3_reduce
I0915 12:13:11.778139  1845 net.cpp:91] Creating Layer inception_4a/3x3_reduce
I0915 12:13:11.778146  1845 net.cpp:425] inception_4a/3x3_reduce <- pool3/3x3_s2_pool3/3x3_s2_0_split_1
I0915 12:13:11.778156  1845 net.cpp:399] inception_4a/3x3_reduce -> inception_4a/3x3_reduce
I0915 12:13:11.781183  1845 net.cpp:141] Setting up inception_4a/3x3_reduce
I0915 12:13:11.781236  1845 net.cpp:148] Top shape: 10 96 14 14 (188160)
I0915 12:13:11.781245  1845 net.cpp:156] Memory required for data: 359761920
I0915 12:13:11.781283  1845 layer_factory.hpp:77] Creating layer inception_4a/relu_3x3_reduce
I0915 12:13:11.781306  1845 net.cpp:91] Creating Layer inception_4a/relu_3x3_reduce
I0915 12:13:11.781318  1845 net.cpp:425] inception_4a/relu_3x3_reduce <- inception_4a/3x3_reduce
I0915 12:13:11.781335  1845 net.cpp:386] inception_4a/relu_3x3_reduce -> inception_4a/3x3_reduce (in-place)
I0915 12:13:11.781685  1845 net.cpp:141] Setting up inception_4a/relu_3x3_reduce
I0915 12:13:11.781702  1845 net.cpp:148] Top shape: 10 96 14 14 (188160)
I0915 12:13:11.781709  1845 net.cpp:156] Memory required for data: 360514560
I0915 12:13:11.781718  1845 layer_factory.hpp:77] Creating layer inception_4a/3x3
I0915 12:13:11.781751  1845 net.cpp:91] Creating Layer inception_4a/3x3
I0915 12:13:11.781762  1845 net.cpp:425] inception_4a/3x3 <- inception_4a/3x3_reduce
I0915 12:13:11.781779  1845 net.cpp:399] inception_4a/3x3 -> inception_4a/3x3
I0915 12:13:11.785826  1845 net.cpp:141] Setting up inception_4a/3x3
I0915 12:13:11.785846  1845 net.cpp:148] Top shape: 10 208 14 14 (407680)
I0915 12:13:11.785852  1845 net.cpp:156] Memory required for data: 362145280
I0915 12:13:11.785863  1845 layer_factory.hpp:77] Creating layer inception_4a/relu_3x3
I0915 12:13:11.785877  1845 net.cpp:91] Creating Layer inception_4a/relu_3x3
I0915 12:13:11.785884  1845 net.cpp:425] inception_4a/relu_3x3 <- inception_4a/3x3
I0915 12:13:11.785892  1845 net.cpp:386] inception_4a/relu_3x3 -> inception_4a/3x3 (in-place)
I0915 12:13:11.786345  1845 net.cpp:141] Setting up inception_4a/relu_3x3
I0915 12:13:11.786360  1845 net.cpp:148] Top shape: 10 208 14 14 (407680)
I0915 12:13:11.786365  1845 net.cpp:156] Memory required for data: 363776000
I0915 12:13:11.786370  1845 layer_factory.hpp:77] Creating layer inception_4a/5x5_reduce
I0915 12:13:11.786389  1845 net.cpp:91] Creating Layer inception_4a/5x5_reduce
I0915 12:13:11.786397  1845 net.cpp:425] inception_4a/5x5_reduce <- pool3/3x3_s2_pool3/3x3_s2_0_split_2
I0915 12:13:11.786408  1845 net.cpp:399] inception_4a/5x5_reduce -> inception_4a/5x5_reduce
I0915 12:13:11.787886  1845 net.cpp:141] Setting up inception_4a/5x5_reduce
I0915 12:13:11.787905  1845 net.cpp:148] Top shape: 10 16 14 14 (31360)
I0915 12:13:11.787911  1845 net.cpp:156] Memory required for data: 363901440
I0915 12:13:11.787921  1845 layer_factory.hpp:77] Creating layer inception_4a/relu_5x5_reduce
I0915 12:13:11.787931  1845 net.cpp:91] Creating Layer inception_4a/relu_5x5_reduce
I0915 12:13:11.787937  1845 net.cpp:425] inception_4a/relu_5x5_reduce <- inception_4a/5x5_reduce
I0915 12:13:11.787948  1845 net.cpp:386] inception_4a/relu_5x5_reduce -> inception_4a/5x5_reduce (in-place)
I0915 12:13:11.788404  1845 net.cpp:141] Setting up inception_4a/relu_5x5_reduce
I0915 12:13:11.788419  1845 net.cpp:148] Top shape: 10 16 14 14 (31360)
I0915 12:13:11.788424  1845 net.cpp:156] Memory required for data: 364026880
I0915 12:13:11.788430  1845 layer_factory.hpp:77] Creating layer inception_4a/5x5
I0915 12:13:11.788447  1845 net.cpp:91] Creating Layer inception_4a/5x5
I0915 12:13:11.788455  1845 net.cpp:425] inception_4a/5x5 <- inception_4a/5x5_reduce
I0915 12:13:11.788467  1845 net.cpp:399] inception_4a/5x5 -> inception_4a/5x5
I0915 12:13:11.790187  1845 net.cpp:141] Setting up inception_4a/5x5
I0915 12:13:11.790206  1845 net.cpp:148] Top shape: 10 48 14 14 (94080)
I0915 12:13:11.790212  1845 net.cpp:156] Memory required for data: 364403200
I0915 12:13:11.790222  1845 layer_factory.hpp:77] Creating layer inception_4a/relu_5x5
I0915 12:13:11.790231  1845 net.cpp:91] Creating Layer inception_4a/relu_5x5
I0915 12:13:11.790237  1845 net.cpp:425] inception_4a/relu_5x5 <- inception_4a/5x5
I0915 12:13:11.790248  1845 net.cpp:386] inception_4a/relu_5x5 -> inception_4a/5x5 (in-place)
I0915 12:13:11.790513  1845 net.cpp:141] Setting up inception_4a/relu_5x5
I0915 12:13:11.790525  1845 net.cpp:148] Top shape: 10 48 14 14 (94080)
I0915 12:13:11.790530  1845 net.cpp:156] Memory required for data: 364779520
I0915 12:13:11.790535  1845 layer_factory.hpp:77] Creating layer inception_4a/pool
I0915 12:13:11.790550  1845 net.cpp:91] Creating Layer inception_4a/pool
I0915 12:13:11.790557  1845 net.cpp:425] inception_4a/pool <- pool3/3x3_s2_pool3/3x3_s2_0_split_3
I0915 12:13:11.790565  1845 net.cpp:399] inception_4a/pool -> inception_4a/pool
I0915 12:13:11.790638  1845 net.cpp:141] Setting up inception_4a/pool
I0915 12:13:11.790649  1845 net.cpp:148] Top shape: 10 480 14 14 (940800)
I0915 12:13:11.790654  1845 net.cpp:156] Memory required for data: 368542720
I0915 12:13:11.790659  1845 layer_factory.hpp:77] Creating layer inception_4a/pool_proj
I0915 12:13:11.790675  1845 net.cpp:91] Creating Layer inception_4a/pool_proj
I0915 12:13:11.790681  1845 net.cpp:425] inception_4a/pool_proj <- inception_4a/pool
I0915 12:13:11.790694  1845 net.cpp:399] inception_4a/pool_proj -> inception_4a/pool_proj
I0915 12:13:11.792544  1845 net.cpp:141] Setting up inception_4a/pool_proj
I0915 12:13:11.792563  1845 net.cpp:148] Top shape: 10 64 14 14 (125440)
I0915 12:13:11.792569  1845 net.cpp:156] Memory required for data: 369044480
I0915 12:13:11.792579  1845 layer_factory.hpp:77] Creating layer inception_4a/relu_pool_proj
I0915 12:13:11.792589  1845 net.cpp:91] Creating Layer inception_4a/relu_pool_proj
I0915 12:13:11.792596  1845 net.cpp:425] inception_4a/relu_pool_proj <- inception_4a/pool_proj
I0915 12:13:11.792608  1845 net.cpp:386] inception_4a/relu_pool_proj -> inception_4a/pool_proj (in-place)
I0915 12:13:11.793063  1845 net.cpp:141] Setting up inception_4a/relu_pool_proj
I0915 12:13:11.793076  1845 net.cpp:148] Top shape: 10 64 14 14 (125440)
I0915 12:13:11.793082  1845 net.cpp:156] Memory required for data: 369546240
I0915 12:13:11.793087  1845 layer_factory.hpp:77] Creating layer inception_4a/output
I0915 12:13:11.793097  1845 net.cpp:91] Creating Layer inception_4a/output
I0915 12:13:11.793103  1845 net.cpp:425] inception_4a/output <- inception_4a/1x1
I0915 12:13:11.793110  1845 net.cpp:425] inception_4a/output <- inception_4a/3x3
I0915 12:13:11.793117  1845 net.cpp:425] inception_4a/output <- inception_4a/5x5
I0915 12:13:11.793123  1845 net.cpp:425] inception_4a/output <- inception_4a/pool_proj
I0915 12:13:11.793134  1845 net.cpp:399] inception_4a/output -> inception_4a/output
I0915 12:13:11.793184  1845 net.cpp:141] Setting up inception_4a/output
I0915 12:13:11.793195  1845 net.cpp:148] Top shape: 10 512 14 14 (1003520)
I0915 12:13:11.793200  1845 net.cpp:156] Memory required for data: 373560320
I0915 12:13:11.793205  1845 layer_factory.hpp:77] Creating layer inception_4a/output_inception_4a/output_0_split
I0915 12:13:11.793215  1845 net.cpp:91] Creating Layer inception_4a/output_inception_4a/output_0_split
I0915 12:13:11.793220  1845 net.cpp:425] inception_4a/output_inception_4a/output_0_split <- inception_4a/output
I0915 12:13:11.793227  1845 net.cpp:399] inception_4a/output_inception_4a/output_0_split -> inception_4a/output_inception_4a/output_0_split_0
I0915 12:13:11.793241  1845 net.cpp:399] inception_4a/output_inception_4a/output_0_split -> inception_4a/output_inception_4a/output_0_split_1
I0915 12:13:11.793251  1845 net.cpp:399] inception_4a/output_inception_4a/output_0_split -> inception_4a/output_inception_4a/output_0_split_2
I0915 12:13:11.793268  1845 net.cpp:399] inception_4a/output_inception_4a/output_0_split -> inception_4a/output_inception_4a/output_0_split_3
I0915 12:13:11.793364  1845 net.cpp:141] Setting up inception_4a/output_inception_4a/output_0_split
I0915 12:13:11.793373  1845 net.cpp:148] Top shape: 10 512 14 14 (1003520)
I0915 12:13:11.793380  1845 net.cpp:148] Top shape: 10 512 14 14 (1003520)
I0915 12:13:11.793386  1845 net.cpp:148] Top shape: 10 512 14 14 (1003520)
I0915 12:13:11.793392  1845 net.cpp:148] Top shape: 10 512 14 14 (1003520)
I0915 12:13:11.793396  1845 net.cpp:156] Memory required for data: 389616640
I0915 12:13:11.793401  1845 layer_factory.hpp:77] Creating layer inception_4b/1x1
I0915 12:13:11.793419  1845 net.cpp:91] Creating Layer inception_4b/1x1
I0915 12:13:11.793426  1845 net.cpp:425] inception_4b/1x1 <- inception_4a/output_inception_4a/output_0_split_0
I0915 12:13:11.793436  1845 net.cpp:399] inception_4b/1x1 -> inception_4b/1x1
I0915 12:13:11.795562  1845 net.cpp:141] Setting up inception_4b/1x1
I0915 12:13:11.795580  1845 net.cpp:148] Top shape: 10 160 14 14 (313600)
I0915 12:13:11.795585  1845 net.cpp:156] Memory required for data: 390871040
I0915 12:13:11.795596  1845 layer_factory.hpp:77] Creating layer inception_4b/relu_1x1
I0915 12:13:11.795610  1845 net.cpp:91] Creating Layer inception_4b/relu_1x1
I0915 12:13:11.795617  1845 net.cpp:425] inception_4b/relu_1x1 <- inception_4b/1x1
I0915 12:13:11.795629  1845 net.cpp:386] inception_4b/relu_1x1 -> inception_4b/1x1 (in-place)
I0915 12:13:11.796084  1845 net.cpp:141] Setting up inception_4b/relu_1x1
I0915 12:13:11.796098  1845 net.cpp:148] Top shape: 10 160 14 14 (313600)
I0915 12:13:11.796104  1845 net.cpp:156] Memory required for data: 392125440
I0915 12:13:11.796109  1845 layer_factory.hpp:77] Creating layer inception_4b/3x3_reduce
I0915 12:13:11.796128  1845 net.cpp:91] Creating Layer inception_4b/3x3_reduce
I0915 12:13:11.796133  1845 net.cpp:425] inception_4b/3x3_reduce <- inception_4a/output_inception_4a/output_0_split_1
I0915 12:13:11.796144  1845 net.cpp:399] inception_4b/3x3_reduce -> inception_4b/3x3_reduce
I0915 12:13:11.798241  1845 net.cpp:141] Setting up inception_4b/3x3_reduce
I0915 12:13:11.798259  1845 net.cpp:148] Top shape: 10 112 14 14 (219520)
I0915 12:13:11.798265  1845 net.cpp:156] Memory required for data: 393003520
I0915 12:13:11.798275  1845 layer_factory.hpp:77] Creating layer inception_4b/relu_3x3_reduce
I0915 12:13:11.798296  1845 net.cpp:91] Creating Layer inception_4b/relu_3x3_reduce
I0915 12:13:11.798303  1845 net.cpp:425] inception_4b/relu_3x3_reduce <- inception_4b/3x3_reduce
I0915 12:13:11.798311  1845 net.cpp:386] inception_4b/relu_3x3_reduce -> inception_4b/3x3_reduce (in-place)
I0915 12:13:11.798575  1845 net.cpp:141] Setting up inception_4b/relu_3x3_reduce
I0915 12:13:11.798588  1845 net.cpp:148] Top shape: 10 112 14 14 (219520)
I0915 12:13:11.798593  1845 net.cpp:156] Memory required for data: 393881600
I0915 12:13:11.798598  1845 layer_factory.hpp:77] Creating layer inception_4b/3x3
I0915 12:13:11.798619  1845 net.cpp:91] Creating Layer inception_4b/3x3
I0915 12:13:11.798624  1845 net.cpp:425] inception_4b/3x3 <- inception_4b/3x3_reduce
I0915 12:13:11.798635  1845 net.cpp:399] inception_4b/3x3 -> inception_4b/3x3
I0915 12:13:11.803220  1845 net.cpp:141] Setting up inception_4b/3x3
I0915 12:13:11.803241  1845 net.cpp:148] Top shape: 10 224 14 14 (439040)
I0915 12:13:11.803246  1845 net.cpp:156] Memory required for data: 395637760
I0915 12:13:11.803256  1845 layer_factory.hpp:77] Creating layer inception_4b/relu_3x3
I0915 12:13:11.803266  1845 net.cpp:91] Creating Layer inception_4b/relu_3x3
I0915 12:13:11.803272  1845 net.cpp:425] inception_4b/relu_3x3 <- inception_4b/3x3
I0915 12:13:11.803283  1845 net.cpp:386] inception_4b/relu_3x3 -> inception_4b/3x3 (in-place)
I0915 12:13:11.803745  1845 net.cpp:141] Setting up inception_4b/relu_3x3
I0915 12:13:11.803760  1845 net.cpp:148] Top shape: 10 224 14 14 (439040)
I0915 12:13:11.803764  1845 net.cpp:156] Memory required for data: 397393920
I0915 12:13:11.803771  1845 layer_factory.hpp:77] Creating layer inception_4b/5x5_reduce
I0915 12:13:11.803800  1845 net.cpp:91] Creating Layer inception_4b/5x5_reduce
I0915 12:13:11.803807  1845 net.cpp:425] inception_4b/5x5_reduce <- inception_4a/output_inception_4a/output_0_split_2
I0915 12:13:11.803820  1845 net.cpp:399] inception_4b/5x5_reduce -> inception_4b/5x5_reduce
I0915 12:13:11.805359  1845 net.cpp:141] Setting up inception_4b/5x5_reduce
I0915 12:13:11.805380  1845 net.cpp:148] Top shape: 10 24 14 14 (47040)
I0915 12:13:11.805387  1845 net.cpp:156] Memory required for data: 397582080
I0915 12:13:11.805397  1845 layer_factory.hpp:77] Creating layer inception_4b/relu_5x5_reduce
I0915 12:13:11.805408  1845 net.cpp:91] Creating Layer inception_4b/relu_5x5_reduce
I0915 12:13:11.805413  1845 net.cpp:425] inception_4b/relu_5x5_reduce <- inception_4b/5x5_reduce
I0915 12:13:11.805421  1845 net.cpp:386] inception_4b/relu_5x5_reduce -> inception_4b/5x5_reduce (in-place)
I0915 12:13:11.805879  1845 net.cpp:141] Setting up inception_4b/relu_5x5_reduce
I0915 12:13:11.805893  1845 net.cpp:148] Top shape: 10 24 14 14 (47040)
I0915 12:13:11.805898  1845 net.cpp:156] Memory required for data: 397770240
I0915 12:13:11.805903  1845 layer_factory.hpp:77] Creating layer inception_4b/5x5
I0915 12:13:11.805925  1845 net.cpp:91] Creating Layer inception_4b/5x5
I0915 12:13:11.805932  1845 net.cpp:425] inception_4b/5x5 <- inception_4b/5x5_reduce
I0915 12:13:11.805944  1845 net.cpp:399] inception_4b/5x5 -> inception_4b/5x5
I0915 12:13:11.808625  1845 net.cpp:141] Setting up inception_4b/5x5
I0915 12:13:11.808645  1845 net.cpp:148] Top shape: 10 64 14 14 (125440)
I0915 12:13:11.808650  1845 net.cpp:156] Memory required for data: 398272000
I0915 12:13:11.808660  1845 layer_factory.hpp:77] Creating layer inception_4b/relu_5x5
I0915 12:13:11.808673  1845 net.cpp:91] Creating Layer inception_4b/relu_5x5
I0915 12:13:11.808681  1845 net.cpp:425] inception_4b/relu_5x5 <- inception_4b/5x5
I0915 12:13:11.808688  1845 net.cpp:386] inception_4b/relu_5x5 -> inception_4b/5x5 (in-place)
I0915 12:13:11.808954  1845 net.cpp:141] Setting up inception_4b/relu_5x5
I0915 12:13:11.808966  1845 net.cpp:148] Top shape: 10 64 14 14 (125440)
I0915 12:13:11.808971  1845 net.cpp:156] Memory required for data: 398773760
I0915 12:13:11.808977  1845 layer_factory.hpp:77] Creating layer inception_4b/pool
I0915 12:13:11.808990  1845 net.cpp:91] Creating Layer inception_4b/pool
I0915 12:13:11.808996  1845 net.cpp:425] inception_4b/pool <- inception_4a/output_inception_4a/output_0_split_3
I0915 12:13:11.809007  1845 net.cpp:399] inception_4b/pool -> inception_4b/pool
I0915 12:13:11.809077  1845 net.cpp:141] Setting up inception_4b/pool
I0915 12:13:11.809089  1845 net.cpp:148] Top shape: 10 512 14 14 (1003520)
I0915 12:13:11.809093  1845 net.cpp:156] Memory required for data: 402787840
I0915 12:13:11.809098  1845 layer_factory.hpp:77] Creating layer inception_4b/pool_proj
I0915 12:13:11.809114  1845 net.cpp:91] Creating Layer inception_4b/pool_proj
I0915 12:13:11.809120  1845 net.cpp:425] inception_4b/pool_proj <- inception_4b/pool
I0915 12:13:11.809139  1845 net.cpp:399] inception_4b/pool_proj -> inception_4b/pool_proj
I0915 12:13:11.810997  1845 net.cpp:141] Setting up inception_4b/pool_proj
I0915 12:13:11.811017  1845 net.cpp:148] Top shape: 10 64 14 14 (125440)
I0915 12:13:11.811022  1845 net.cpp:156] Memory required for data: 403289600
I0915 12:13:11.811031  1845 layer_factory.hpp:77] Creating layer inception_4b/relu_pool_proj
I0915 12:13:11.811041  1845 net.cpp:91] Creating Layer inception_4b/relu_pool_proj
I0915 12:13:11.811048  1845 net.cpp:425] inception_4b/relu_pool_proj <- inception_4b/pool_proj
I0915 12:13:11.811060  1845 net.cpp:386] inception_4b/relu_pool_proj -> inception_4b/pool_proj (in-place)
I0915 12:13:11.811530  1845 net.cpp:141] Setting up inception_4b/relu_pool_proj
I0915 12:13:11.811544  1845 net.cpp:148] Top shape: 10 64 14 14 (125440)
I0915 12:13:11.811549  1845 net.cpp:156] Memory required for data: 403791360
I0915 12:13:11.811555  1845 layer_factory.hpp:77] Creating layer inception_4b/output
I0915 12:13:11.811564  1845 net.cpp:91] Creating Layer inception_4b/output
I0915 12:13:11.811570  1845 net.cpp:425] inception_4b/output <- inception_4b/1x1
I0915 12:13:11.811578  1845 net.cpp:425] inception_4b/output <- inception_4b/3x3
I0915 12:13:11.811583  1845 net.cpp:425] inception_4b/output <- inception_4b/5x5
I0915 12:13:11.811589  1845 net.cpp:425] inception_4b/output <- inception_4b/pool_proj
I0915 12:13:11.811601  1845 net.cpp:399] inception_4b/output -> inception_4b/output
I0915 12:13:11.811650  1845 net.cpp:141] Setting up inception_4b/output
I0915 12:13:11.811661  1845 net.cpp:148] Top shape: 10 512 14 14 (1003520)
I0915 12:13:11.811666  1845 net.cpp:156] Memory required for data: 407805440
I0915 12:13:11.811671  1845 layer_factory.hpp:77] Creating layer inception_4b/output_inception_4b/output_0_split
I0915 12:13:11.811679  1845 net.cpp:91] Creating Layer inception_4b/output_inception_4b/output_0_split
I0915 12:13:11.811684  1845 net.cpp:425] inception_4b/output_inception_4b/output_0_split <- inception_4b/output
I0915 12:13:11.811692  1845 net.cpp:399] inception_4b/output_inception_4b/output_0_split -> inception_4b/output_inception_4b/output_0_split_0
I0915 12:13:11.811707  1845 net.cpp:399] inception_4b/output_inception_4b/output_0_split -> inception_4b/output_inception_4b/output_0_split_1
I0915 12:13:11.811717  1845 net.cpp:399] inception_4b/output_inception_4b/output_0_split -> inception_4b/output_inception_4b/output_0_split_2
I0915 12:13:11.811727  1845 net.cpp:399] inception_4b/output_inception_4b/output_0_split -> inception_4b/output_inception_4b/output_0_split_3
I0915 12:13:11.811825  1845 net.cpp:141] Setting up inception_4b/output_inception_4b/output_0_split
I0915 12:13:11.811836  1845 net.cpp:148] Top shape: 10 512 14 14 (1003520)
I0915 12:13:11.811842  1845 net.cpp:148] Top shape: 10 512 14 14 (1003520)
I0915 12:13:11.811848  1845 net.cpp:148] Top shape: 10 512 14 14 (1003520)
I0915 12:13:11.811854  1845 net.cpp:148] Top shape: 10 512 14 14 (1003520)
I0915 12:13:11.811858  1845 net.cpp:156] Memory required for data: 423861760
I0915 12:13:11.811863  1845 layer_factory.hpp:77] Creating layer inception_4c/1x1
I0915 12:13:11.811882  1845 net.cpp:91] Creating Layer inception_4c/1x1
I0915 12:13:11.811889  1845 net.cpp:425] inception_4c/1x1 <- inception_4b/output_inception_4b/output_0_split_0
I0915 12:13:11.811898  1845 net.cpp:399] inception_4c/1x1 -> inception_4c/1x1
I0915 12:13:11.813848  1845 net.cpp:141] Setting up inception_4c/1x1
I0915 12:13:11.813868  1845 net.cpp:148] Top shape: 10 128 14 14 (250880)
I0915 12:13:11.813874  1845 net.cpp:156] Memory required for data: 424865280
I0915 12:13:11.813884  1845 layer_factory.hpp:77] Creating layer inception_4c/relu_1x1
I0915 12:13:11.813894  1845 net.cpp:91] Creating Layer inception_4c/relu_1x1
I0915 12:13:11.813899  1845 net.cpp:425] inception_4c/relu_1x1 <- inception_4c/1x1
I0915 12:13:11.813907  1845 net.cpp:386] inception_4c/relu_1x1 -> inception_4c/1x1 (in-place)
I0915 12:13:11.814357  1845 net.cpp:141] Setting up inception_4c/relu_1x1
I0915 12:13:11.814370  1845 net.cpp:148] Top shape: 10 128 14 14 (250880)
I0915 12:13:11.814375  1845 net.cpp:156] Memory required for data: 425868800
I0915 12:13:11.814381  1845 layer_factory.hpp:77] Creating layer inception_4c/3x3_reduce
I0915 12:13:11.814400  1845 net.cpp:91] Creating Layer inception_4c/3x3_reduce
I0915 12:13:11.814406  1845 net.cpp:425] inception_4c/3x3_reduce <- inception_4b/output_inception_4b/output_0_split_1
I0915 12:13:11.814419  1845 net.cpp:399] inception_4c/3x3_reduce -> inception_4c/3x3_reduce
I0915 12:13:11.816599  1845 net.cpp:141] Setting up inception_4c/3x3_reduce
I0915 12:13:11.816619  1845 net.cpp:148] Top shape: 10 128 14 14 (250880)
I0915 12:13:11.816624  1845 net.cpp:156] Memory required for data: 426872320
I0915 12:13:11.816634  1845 layer_factory.hpp:77] Creating layer inception_4c/relu_3x3_reduce
I0915 12:13:11.816648  1845 net.cpp:91] Creating Layer inception_4c/relu_3x3_reduce
I0915 12:13:11.816655  1845 net.cpp:425] inception_4c/relu_3x3_reduce <- inception_4c/3x3_reduce
I0915 12:13:11.816663  1845 net.cpp:386] inception_4c/relu_3x3_reduce -> inception_4c/3x3_reduce (in-place)
I0915 12:13:11.816931  1845 net.cpp:141] Setting up inception_4c/relu_3x3_reduce
I0915 12:13:11.816942  1845 net.cpp:148] Top shape: 10 128 14 14 (250880)
I0915 12:13:11.816947  1845 net.cpp:156] Memory required for data: 427875840
I0915 12:13:11.816953  1845 layer_factory.hpp:77] Creating layer inception_4c/3x3
I0915 12:13:11.816970  1845 net.cpp:91] Creating Layer inception_4c/3x3
I0915 12:13:11.816977  1845 net.cpp:425] inception_4c/3x3 <- inception_4c/3x3_reduce
I0915 12:13:11.816988  1845 net.cpp:399] inception_4c/3x3 -> inception_4c/3x3
I0915 12:13:11.821871  1845 net.cpp:141] Setting up inception_4c/3x3
I0915 12:13:11.821890  1845 net.cpp:148] Top shape: 10 256 14 14 (501760)
I0915 12:13:11.821897  1845 net.cpp:156] Memory required for data: 429882880
I0915 12:13:11.821907  1845 layer_factory.hpp:77] Creating layer inception_4c/relu_3x3
I0915 12:13:11.821919  1845 net.cpp:91] Creating Layer inception_4c/relu_3x3
I0915 12:13:11.821926  1845 net.cpp:425] inception_4c/relu_3x3 <- inception_4c/3x3
I0915 12:13:11.821934  1845 net.cpp:386] inception_4c/relu_3x3 -> inception_4c/3x3 (in-place)
I0915 12:13:11.822394  1845 net.cpp:141] Setting up inception_4c/relu_3x3
I0915 12:13:11.822408  1845 net.cpp:148] Top shape: 10 256 14 14 (501760)
I0915 12:13:11.822413  1845 net.cpp:156] Memory required for data: 431889920
I0915 12:13:11.822419  1845 layer_factory.hpp:77] Creating layer inception_4c/5x5_reduce
I0915 12:13:11.822435  1845 net.cpp:91] Creating Layer inception_4c/5x5_reduce
I0915 12:13:11.822443  1845 net.cpp:425] inception_4c/5x5_reduce <- inception_4b/output_inception_4b/output_0_split_2
I0915 12:13:11.822456  1845 net.cpp:399] inception_4c/5x5_reduce -> inception_4c/5x5_reduce
I0915 12:13:11.824009  1845 net.cpp:141] Setting up inception_4c/5x5_reduce
I0915 12:13:11.824028  1845 net.cpp:148] Top shape: 10 24 14 14 (47040)
I0915 12:13:11.824033  1845 net.cpp:156] Memory required for data: 432078080
I0915 12:13:11.824044  1845 layer_factory.hpp:77] Creating layer inception_4c/relu_5x5_reduce
I0915 12:13:11.824054  1845 net.cpp:91] Creating Layer inception_4c/relu_5x5_reduce
I0915 12:13:11.824060  1845 net.cpp:425] inception_4c/relu_5x5_reduce <- inception_4c/5x5_reduce
I0915 12:13:11.824069  1845 net.cpp:386] inception_4c/relu_5x5_reduce -> inception_4c/5x5_reduce (in-place)
I0915 12:13:11.824534  1845 net.cpp:141] Setting up inception_4c/relu_5x5_reduce
I0915 12:13:11.824548  1845 net.cpp:148] Top shape: 10 24 14 14 (47040)
I0915 12:13:11.824554  1845 net.cpp:156] Memory required for data: 432266240
I0915 12:13:11.824559  1845 layer_factory.hpp:77] Creating layer inception_4c/5x5
I0915 12:13:11.824579  1845 net.cpp:91] Creating Layer inception_4c/5x5
I0915 12:13:11.824584  1845 net.cpp:425] inception_4c/5x5 <- inception_4c/5x5_reduce
I0915 12:13:11.824597  1845 net.cpp:399] inception_4c/5x5 -> inception_4c/5x5
I0915 12:13:11.826823  1845 net.cpp:141] Setting up inception_4c/5x5
I0915 12:13:11.826841  1845 net.cpp:148] Top shape: 10 64 14 14 (125440)
I0915 12:13:11.826848  1845 net.cpp:156] Memory required for data: 432768000
I0915 12:13:11.826858  1845 layer_factory.hpp:77] Creating layer inception_4c/relu_5x5
I0915 12:13:11.826867  1845 net.cpp:91] Creating Layer inception_4c/relu_5x5
I0915 12:13:11.826874  1845 net.cpp:425] inception_4c/relu_5x5 <- inception_4c/5x5
I0915 12:13:11.826884  1845 net.cpp:386] inception_4c/relu_5x5 -> inception_4c/5x5 (in-place)
I0915 12:13:11.827152  1845 net.cpp:141] Setting up inception_4c/relu_5x5
I0915 12:13:11.827165  1845 net.cpp:148] Top shape: 10 64 14 14 (125440)
I0915 12:13:11.827170  1845 net.cpp:156] Memory required for data: 433269760
I0915 12:13:11.827175  1845 layer_factory.hpp:77] Creating layer inception_4c/pool
I0915 12:13:11.827189  1845 net.cpp:91] Creating Layer inception_4c/pool
I0915 12:13:11.827196  1845 net.cpp:425] inception_4c/pool <- inception_4b/output_inception_4b/output_0_split_3
I0915 12:13:11.827204  1845 net.cpp:399] inception_4c/pool -> inception_4c/pool
I0915 12:13:11.827280  1845 net.cpp:141] Setting up inception_4c/pool
I0915 12:13:11.827291  1845 net.cpp:148] Top shape: 10 512 14 14 (1003520)
I0915 12:13:11.827296  1845 net.cpp:156] Memory required for data: 437283840
I0915 12:13:11.827301  1845 layer_factory.hpp:77] Creating layer inception_4c/pool_proj
I0915 12:13:11.827317  1845 net.cpp:91] Creating Layer inception_4c/pool_proj
I0915 12:13:11.827323  1845 net.cpp:425] inception_4c/pool_proj <- inception_4c/pool
I0915 12:13:11.827337  1845 net.cpp:399] inception_4c/pool_proj -> inception_4c/pool_proj
I0915 12:13:11.829983  1845 net.cpp:141] Setting up inception_4c/pool_proj
I0915 12:13:11.830003  1845 net.cpp:148] Top shape: 10 64 14 14 (125440)
I0915 12:13:11.830008  1845 net.cpp:156] Memory required for data: 437785600
I0915 12:13:11.830039  1845 layer_factory.hpp:77] Creating layer inception_4c/relu_pool_proj
I0915 12:13:11.830049  1845 net.cpp:91] Creating Layer inception_4c/relu_pool_proj
I0915 12:13:11.830055  1845 net.cpp:425] inception_4c/relu_pool_proj <- inception_4c/pool_proj
I0915 12:13:11.830063  1845 net.cpp:386] inception_4c/relu_pool_proj -> inception_4c/pool_proj (in-place)
I0915 12:13:11.830528  1845 net.cpp:141] Setting up inception_4c/relu_pool_proj
I0915 12:13:11.830543  1845 net.cpp:148] Top shape: 10 64 14 14 (125440)
I0915 12:13:11.830548  1845 net.cpp:156] Memory required for data: 438287360
I0915 12:13:11.830554  1845 layer_factory.hpp:77] Creating layer inception_4c/output
I0915 12:13:11.830564  1845 net.cpp:91] Creating Layer inception_4c/output
I0915 12:13:11.830569  1845 net.cpp:425] inception_4c/output <- inception_4c/1x1
I0915 12:13:11.830576  1845 net.cpp:425] inception_4c/output <- inception_4c/3x3
I0915 12:13:11.830582  1845 net.cpp:425] inception_4c/output <- inception_4c/5x5
I0915 12:13:11.830588  1845 net.cpp:425] inception_4c/output <- inception_4c/pool_proj
I0915 12:13:11.830600  1845 net.cpp:399] inception_4c/output -> inception_4c/output
I0915 12:13:11.830647  1845 net.cpp:141] Setting up inception_4c/output
I0915 12:13:11.830662  1845 net.cpp:148] Top shape: 10 512 14 14 (1003520)
I0915 12:13:11.830667  1845 net.cpp:156] Memory required for data: 442301440
I0915 12:13:11.830672  1845 layer_factory.hpp:77] Creating layer inception_4c/output_inception_4c/output_0_split
I0915 12:13:11.830679  1845 net.cpp:91] Creating Layer inception_4c/output_inception_4c/output_0_split
I0915 12:13:11.830684  1845 net.cpp:425] inception_4c/output_inception_4c/output_0_split <- inception_4c/output
I0915 12:13:11.830693  1845 net.cpp:399] inception_4c/output_inception_4c/output_0_split -> inception_4c/output_inception_4c/output_0_split_0
I0915 12:13:11.830703  1845 net.cpp:399] inception_4c/output_inception_4c/output_0_split -> inception_4c/output_inception_4c/output_0_split_1
I0915 12:13:11.830713  1845 net.cpp:399] inception_4c/output_inception_4c/output_0_split -> inception_4c/output_inception_4c/output_0_split_2
I0915 12:13:11.830725  1845 net.cpp:399] inception_4c/output_inception_4c/output_0_split -> inception_4c/output_inception_4c/output_0_split_3
I0915 12:13:11.830829  1845 net.cpp:141] Setting up inception_4c/output_inception_4c/output_0_split
I0915 12:13:11.830839  1845 net.cpp:148] Top shape: 10 512 14 14 (1003520)
I0915 12:13:11.830847  1845 net.cpp:148] Top shape: 10 512 14 14 (1003520)
I0915 12:13:11.830852  1845 net.cpp:148] Top shape: 10 512 14 14 (1003520)
I0915 12:13:11.830858  1845 net.cpp:148] Top shape: 10 512 14 14 (1003520)
I0915 12:13:11.830862  1845 net.cpp:156] Memory required for data: 458357760
I0915 12:13:11.830868  1845 layer_factory.hpp:77] Creating layer inception_4d/1x1
I0915 12:13:11.830883  1845 net.cpp:91] Creating Layer inception_4d/1x1
I0915 12:13:11.830890  1845 net.cpp:425] inception_4d/1x1 <- inception_4c/output_inception_4c/output_0_split_0
I0915 12:13:11.830901  1845 net.cpp:399] inception_4d/1x1 -> inception_4d/1x1
I0915 12:13:11.832810  1845 net.cpp:141] Setting up inception_4d/1x1
I0915 12:13:11.832829  1845 net.cpp:148] Top shape: 10 112 14 14 (219520)
I0915 12:13:11.832835  1845 net.cpp:156] Memory required for data: 459235840
I0915 12:13:11.832845  1845 layer_factory.hpp:77] Creating layer inception_4d/relu_1x1
I0915 12:13:11.832859  1845 net.cpp:91] Creating Layer inception_4d/relu_1x1
I0915 12:13:11.832866  1845 net.cpp:425] inception_4d/relu_1x1 <- inception_4d/1x1
I0915 12:13:11.832875  1845 net.cpp:386] inception_4d/relu_1x1 -> inception_4d/1x1 (in-place)
I0915 12:13:11.833331  1845 net.cpp:141] Setting up inception_4d/relu_1x1
I0915 12:13:11.833345  1845 net.cpp:148] Top shape: 10 112 14 14 (219520)
I0915 12:13:11.833350  1845 net.cpp:156] Memory required for data: 460113920
I0915 12:13:11.833356  1845 layer_factory.hpp:77] Creating layer inception_4d/3x3_reduce
I0915 12:13:11.833376  1845 net.cpp:91] Creating Layer inception_4d/3x3_reduce
I0915 12:13:11.833382  1845 net.cpp:425] inception_4d/3x3_reduce <- inception_4c/output_inception_4c/output_0_split_1
I0915 12:13:11.833394  1845 net.cpp:399] inception_4d/3x3_reduce -> inception_4d/3x3_reduce
I0915 12:13:11.835670  1845 net.cpp:141] Setting up inception_4d/3x3_reduce
I0915 12:13:11.835690  1845 net.cpp:148] Top shape: 10 144 14 14 (282240)
I0915 12:13:11.835695  1845 net.cpp:156] Memory required for data: 461242880
I0915 12:13:11.835705  1845 layer_factory.hpp:77] Creating layer inception_4d/relu_3x3_reduce
I0915 12:13:11.835717  1845 net.cpp:91] Creating Layer inception_4d/relu_3x3_reduce
I0915 12:13:11.835724  1845 net.cpp:425] inception_4d/relu_3x3_reduce <- inception_4d/3x3_reduce
I0915 12:13:11.835732  1845 net.cpp:386] inception_4d/relu_3x3_reduce -> inception_4d/3x3_reduce (in-place)
I0915 12:13:11.836011  1845 net.cpp:141] Setting up inception_4d/relu_3x3_reduce
I0915 12:13:11.836024  1845 net.cpp:148] Top shape: 10 144 14 14 (282240)
I0915 12:13:11.836030  1845 net.cpp:156] Memory required for data: 462371840
I0915 12:13:11.836035  1845 layer_factory.hpp:77] Creating layer inception_4d/3x3
I0915 12:13:11.836055  1845 net.cpp:91] Creating Layer inception_4d/3x3
I0915 12:13:11.836061  1845 net.cpp:425] inception_4d/3x3 <- inception_4d/3x3_reduce
I0915 12:13:11.836077  1845 net.cpp:399] inception_4d/3x3 -> inception_4d/3x3
I0915 12:13:11.841809  1845 net.cpp:141] Setting up inception_4d/3x3
I0915 12:13:11.841828  1845 net.cpp:148] Top shape: 10 288 14 14 (564480)
I0915 12:13:11.841835  1845 net.cpp:156] Memory required for data: 464629760
I0915 12:13:11.841845  1845 layer_factory.hpp:77] Creating layer inception_4d/relu_3x3
I0915 12:13:11.841855  1845 net.cpp:91] Creating Layer inception_4d/relu_3x3
I0915 12:13:11.841861  1845 net.cpp:425] inception_4d/relu_3x3 <- inception_4d/3x3
I0915 12:13:11.841872  1845 net.cpp:386] inception_4d/relu_3x3 -> inception_4d/3x3 (in-place)
I0915 12:13:11.842344  1845 net.cpp:141] Setting up inception_4d/relu_3x3
I0915 12:13:11.842357  1845 net.cpp:148] Top shape: 10 288 14 14 (564480)
I0915 12:13:11.842362  1845 net.cpp:156] Memory required for data: 466887680
I0915 12:13:11.842368  1845 layer_factory.hpp:77] Creating layer inception_4d/5x5_reduce
I0915 12:13:11.842387  1845 net.cpp:91] Creating Layer inception_4d/5x5_reduce
I0915 12:13:11.842394  1845 net.cpp:425] inception_4d/5x5_reduce <- inception_4c/output_inception_4c/output_0_split_2
I0915 12:13:11.842406  1845 net.cpp:399] inception_4d/5x5_reduce -> inception_4d/5x5_reduce
I0915 12:13:11.844028  1845 net.cpp:141] Setting up inception_4d/5x5_reduce
I0915 12:13:11.844048  1845 net.cpp:148] Top shape: 10 32 14 14 (62720)
I0915 12:13:11.844053  1845 net.cpp:156] Memory required for data: 467138560
I0915 12:13:11.844063  1845 layer_factory.hpp:77] Creating layer inception_4d/relu_5x5_reduce
I0915 12:13:11.844087  1845 net.cpp:91] Creating Layer inception_4d/relu_5x5_reduce
I0915 12:13:11.844096  1845 net.cpp:425] inception_4d/relu_5x5_reduce <- inception_4d/5x5_reduce
I0915 12:13:11.844105  1845 net.cpp:386] inception_4d/relu_5x5_reduce -> inception_4d/5x5_reduce (in-place)
I0915 12:13:11.844564  1845 net.cpp:141] Setting up inception_4d/relu_5x5_reduce
I0915 12:13:11.844578  1845 net.cpp:148] Top shape: 10 32 14 14 (62720)
I0915 12:13:11.844583  1845 net.cpp:156] Memory required for data: 467389440
I0915 12:13:11.844589  1845 layer_factory.hpp:77] Creating layer inception_4d/5x5
I0915 12:13:11.844609  1845 net.cpp:91] Creating Layer inception_4d/5x5
I0915 12:13:11.844616  1845 net.cpp:425] inception_4d/5x5 <- inception_4d/5x5_reduce
I0915 12:13:11.844626  1845 net.cpp:399] inception_4d/5x5 -> inception_4d/5x5
I0915 12:13:11.846689  1845 net.cpp:141] Setting up inception_4d/5x5
I0915 12:13:11.846711  1845 net.cpp:148] Top shape: 10 64 14 14 (125440)
I0915 12:13:11.846717  1845 net.cpp:156] Memory required for data: 467891200
I0915 12:13:11.846727  1845 layer_factory.hpp:77] Creating layer inception_4d/relu_5x5
I0915 12:13:11.846737  1845 net.cpp:91] Creating Layer inception_4d/relu_5x5
I0915 12:13:11.846743  1845 net.cpp:425] inception_4d/relu_5x5 <- inception_4d/5x5
I0915 12:13:11.846757  1845 net.cpp:386] inception_4d/relu_5x5 -> inception_4d/5x5 (in-place)
I0915 12:13:11.847029  1845 net.cpp:141] Setting up inception_4d/relu_5x5
I0915 12:13:11.847043  1845 net.cpp:148] Top shape: 10 64 14 14 (125440)
I0915 12:13:11.847046  1845 net.cpp:156] Memory required for data: 468392960
I0915 12:13:11.847053  1845 layer_factory.hpp:77] Creating layer inception_4d/pool
I0915 12:13:11.847064  1845 net.cpp:91] Creating Layer inception_4d/pool
I0915 12:13:11.847071  1845 net.cpp:425] inception_4d/pool <- inception_4c/output_inception_4c/output_0_split_3
I0915 12:13:11.847079  1845 net.cpp:399] inception_4d/pool -> inception_4d/pool
I0915 12:13:11.847158  1845 net.cpp:141] Setting up inception_4d/pool
I0915 12:13:11.847169  1845 net.cpp:148] Top shape: 10 512 14 14 (1003520)
I0915 12:13:11.847173  1845 net.cpp:156] Memory required for data: 472407040
I0915 12:13:11.847179  1845 layer_factory.hpp:77] Creating layer inception_4d/pool_proj
I0915 12:13:11.847195  1845 net.cpp:91] Creating Layer inception_4d/pool_proj
I0915 12:13:11.847201  1845 net.cpp:425] inception_4d/pool_proj <- inception_4d/pool
I0915 12:13:11.847214  1845 net.cpp:399] inception_4d/pool_proj -> inception_4d/pool_proj
I0915 12:13:11.849156  1845 net.cpp:141] Setting up inception_4d/pool_proj
I0915 12:13:11.849176  1845 net.cpp:148] Top shape: 10 64 14 14 (125440)
I0915 12:13:11.849181  1845 net.cpp:156] Memory required for data: 472908800
I0915 12:13:11.849191  1845 layer_factory.hpp:77] Creating layer inception_4d/relu_pool_proj
I0915 12:13:11.849205  1845 net.cpp:91] Creating Layer inception_4d/relu_pool_proj
I0915 12:13:11.849211  1845 net.cpp:425] inception_4d/relu_pool_proj <- inception_4d/pool_proj
I0915 12:13:11.849220  1845 net.cpp:386] inception_4d/relu_pool_proj -> inception_4d/pool_proj (in-place)
I0915 12:13:11.849685  1845 net.cpp:141] Setting up inception_4d/relu_pool_proj
I0915 12:13:11.849699  1845 net.cpp:148] Top shape: 10 64 14 14 (125440)
I0915 12:13:11.849704  1845 net.cpp:156] Memory required for data: 473410560
I0915 12:13:11.849710  1845 layer_factory.hpp:77] Creating layer inception_4d/output
I0915 12:13:11.849722  1845 net.cpp:91] Creating Layer inception_4d/output
I0915 12:13:11.849728  1845 net.cpp:425] inception_4d/output <- inception_4d/1x1
I0915 12:13:11.849735  1845 net.cpp:425] inception_4d/output <- inception_4d/3x3
I0915 12:13:11.849742  1845 net.cpp:425] inception_4d/output <- inception_4d/5x5
I0915 12:13:11.849748  1845 net.cpp:425] inception_4d/output <- inception_4d/pool_proj
I0915 12:13:11.849756  1845 net.cpp:399] inception_4d/output -> inception_4d/output
I0915 12:13:11.849808  1845 net.cpp:141] Setting up inception_4d/output
I0915 12:13:11.849819  1845 net.cpp:148] Top shape: 10 528 14 14 (1034880)
I0915 12:13:11.849824  1845 net.cpp:156] Memory required for data: 477550080
I0915 12:13:11.849829  1845 layer_factory.hpp:77] Creating layer inception_4d/output_inception_4d/output_0_split
I0915 12:13:11.849838  1845 net.cpp:91] Creating Layer inception_4d/output_inception_4d/output_0_split
I0915 12:13:11.849843  1845 net.cpp:425] inception_4d/output_inception_4d/output_0_split <- inception_4d/output
I0915 12:13:11.849853  1845 net.cpp:399] inception_4d/output_inception_4d/output_0_split -> inception_4d/output_inception_4d/output_0_split_0
I0915 12:13:11.849864  1845 net.cpp:399] inception_4d/output_inception_4d/output_0_split -> inception_4d/output_inception_4d/output_0_split_1
I0915 12:13:11.849874  1845 net.cpp:399] inception_4d/output_inception_4d/output_0_split -> inception_4d/output_inception_4d/output_0_split_2
I0915 12:13:11.849882  1845 net.cpp:399] inception_4d/output_inception_4d/output_0_split -> inception_4d/output_inception_4d/output_0_split_3
I0915 12:13:11.849992  1845 net.cpp:141] Setting up inception_4d/output_inception_4d/output_0_split
I0915 12:13:11.850003  1845 net.cpp:148] Top shape: 10 528 14 14 (1034880)
I0915 12:13:11.850009  1845 net.cpp:148] Top shape: 10 528 14 14 (1034880)
I0915 12:13:11.850015  1845 net.cpp:148] Top shape: 10 528 14 14 (1034880)
I0915 12:13:11.850021  1845 net.cpp:148] Top shape: 10 528 14 14 (1034880)
I0915 12:13:11.850025  1845 net.cpp:156] Memory required for data: 494108160
I0915 12:13:11.850031  1845 layer_factory.hpp:77] Creating layer inception_4e/1x1
I0915 12:13:11.850049  1845 net.cpp:91] Creating Layer inception_4e/1x1
I0915 12:13:11.850054  1845 net.cpp:425] inception_4e/1x1 <- inception_4d/output_inception_4d/output_0_split_0
I0915 12:13:11.850064  1845 net.cpp:399] inception_4e/1x1 -> inception_4e/1x1
I0915 12:13:11.853719  1845 net.cpp:141] Setting up inception_4e/1x1
I0915 12:13:11.853740  1845 net.cpp:148] Top shape: 10 256 14 14 (501760)
I0915 12:13:11.853746  1845 net.cpp:156] Memory required for data: 496115200
I0915 12:13:11.853756  1845 layer_factory.hpp:77] Creating layer inception_4e/relu_1x1
I0915 12:13:11.853766  1845 net.cpp:91] Creating Layer inception_4e/relu_1x1
I0915 12:13:11.853772  1845 net.cpp:425] inception_4e/relu_1x1 <- inception_4e/1x1
I0915 12:13:11.853783  1845 net.cpp:386] inception_4e/relu_1x1 -> inception_4e/1x1 (in-place)
I0915 12:13:11.854250  1845 net.cpp:141] Setting up inception_4e/relu_1x1
I0915 12:13:11.854264  1845 net.cpp:148] Top shape: 10 256 14 14 (501760)
I0915 12:13:11.854270  1845 net.cpp:156] Memory required for data: 498122240
I0915 12:13:11.854275  1845 layer_factory.hpp:77] Creating layer inception_4e/3x3_reduce
I0915 12:13:11.854293  1845 net.cpp:91] Creating Layer inception_4e/3x3_reduce
I0915 12:13:11.854300  1845 net.cpp:425] inception_4e/3x3_reduce <- inception_4d/output_inception_4d/output_0_split_1
I0915 12:13:11.854313  1845 net.cpp:399] inception_4e/3x3_reduce -> inception_4e/3x3_reduce
I0915 12:13:11.856730  1845 net.cpp:141] Setting up inception_4e/3x3_reduce
I0915 12:13:11.856752  1845 net.cpp:148] Top shape: 10 160 14 14 (313600)
I0915 12:13:11.856758  1845 net.cpp:156] Memory required for data: 499376640
I0915 12:13:11.856768  1845 layer_factory.hpp:77] Creating layer inception_4e/relu_3x3_reduce
I0915 12:13:11.856778  1845 net.cpp:91] Creating Layer inception_4e/relu_3x3_reduce
I0915 12:13:11.856786  1845 net.cpp:425] inception_4e/relu_3x3_reduce <- inception_4e/3x3_reduce
I0915 12:13:11.856793  1845 net.cpp:386] inception_4e/relu_3x3_reduce -> inception_4e/3x3_reduce (in-place)
I0915 12:13:11.857075  1845 net.cpp:141] Setting up inception_4e/relu_3x3_reduce
I0915 12:13:11.857087  1845 net.cpp:148] Top shape: 10 160 14 14 (313600)
I0915 12:13:11.857092  1845 net.cpp:156] Memory required for data: 500631040
I0915 12:13:11.857098  1845 layer_factory.hpp:77] Creating layer inception_4e/3x3
I0915 12:13:11.857115  1845 net.cpp:91] Creating Layer inception_4e/3x3
I0915 12:13:11.857121  1845 net.cpp:425] inception_4e/3x3 <- inception_4e/3x3_reduce
I0915 12:13:11.857134  1845 net.cpp:399] inception_4e/3x3 -> inception_4e/3x3
I0915 12:13:11.863852  1845 net.cpp:141] Setting up inception_4e/3x3
I0915 12:13:11.863872  1845 net.cpp:148] Top shape: 10 320 14 14 (627200)
I0915 12:13:11.863878  1845 net.cpp:156] Memory required for data: 503139840
I0915 12:13:11.863888  1845 layer_factory.hpp:77] Creating layer inception_4e/relu_3x3
I0915 12:13:11.863901  1845 net.cpp:91] Creating Layer inception_4e/relu_3x3
I0915 12:13:11.863909  1845 net.cpp:425] inception_4e/relu_3x3 <- inception_4e/3x3
I0915 12:13:11.863919  1845 net.cpp:386] inception_4e/relu_3x3 -> inception_4e/3x3 (in-place)
I0915 12:13:11.864414  1845 net.cpp:141] Setting up inception_4e/relu_3x3
I0915 12:13:11.864428  1845 net.cpp:148] Top shape: 10 320 14 14 (627200)
I0915 12:13:11.864434  1845 net.cpp:156] Memory required for data: 505648640
I0915 12:13:11.864440  1845 layer_factory.hpp:77] Creating layer inception_4e/5x5_reduce
I0915 12:13:11.864457  1845 net.cpp:91] Creating Layer inception_4e/5x5_reduce
I0915 12:13:11.864464  1845 net.cpp:425] inception_4e/5x5_reduce <- inception_4d/output_inception_4d/output_0_split_2
I0915 12:13:11.864478  1845 net.cpp:399] inception_4e/5x5_reduce -> inception_4e/5x5_reduce
I0915 12:13:11.866150  1845 net.cpp:141] Setting up inception_4e/5x5_reduce
I0915 12:13:11.866169  1845 net.cpp:148] Top shape: 10 32 14 14 (62720)
I0915 12:13:11.866175  1845 net.cpp:156] Memory required for data: 505899520
I0915 12:13:11.866185  1845 layer_factory.hpp:77] Creating layer inception_4e/relu_5x5_reduce
I0915 12:13:11.866199  1845 net.cpp:91] Creating Layer inception_4e/relu_5x5_reduce
I0915 12:13:11.866205  1845 net.cpp:425] inception_4e/relu_5x5_reduce <- inception_4e/5x5_reduce
I0915 12:13:11.866212  1845 net.cpp:386] inception_4e/relu_5x5_reduce -> inception_4e/5x5_reduce (in-place)
I0915 12:13:11.866677  1845 net.cpp:141] Setting up inception_4e/relu_5x5_reduce
I0915 12:13:11.866694  1845 net.cpp:148] Top shape: 10 32 14 14 (62720)
I0915 12:13:11.866699  1845 net.cpp:156] Memory required for data: 506150400
I0915 12:13:11.866705  1845 layer_factory.hpp:77] Creating layer inception_4e/5x5
I0915 12:13:11.866724  1845 net.cpp:91] Creating Layer inception_4e/5x5
I0915 12:13:11.866730  1845 net.cpp:425] inception_4e/5x5 <- inception_4e/5x5_reduce
I0915 12:13:11.866740  1845 net.cpp:399] inception_4e/5x5 -> inception_4e/5x5
I0915 12:13:11.870043  1845 net.cpp:141] Setting up inception_4e/5x5
I0915 12:13:11.870064  1845 net.cpp:148] Top shape: 10 128 14 14 (250880)
I0915 12:13:11.870069  1845 net.cpp:156] Memory required for data: 507153920
I0915 12:13:11.870079  1845 layer_factory.hpp:77] Creating layer inception_4e/relu_5x5
I0915 12:13:11.870090  1845 net.cpp:91] Creating Layer inception_4e/relu_5x5
I0915 12:13:11.870096  1845 net.cpp:425] inception_4e/relu_5x5 <- inception_4e/5x5
I0915 12:13:11.870108  1845 net.cpp:386] inception_4e/relu_5x5 -> inception_4e/5x5 (in-place)
I0915 12:13:11.870380  1845 net.cpp:141] Setting up inception_4e/relu_5x5
I0915 12:13:11.870395  1845 net.cpp:148] Top shape: 10 128 14 14 (250880)
I0915 12:13:11.870400  1845 net.cpp:156] Memory required for data: 508157440
I0915 12:13:11.870406  1845 layer_factory.hpp:77] Creating layer inception_4e/pool
I0915 12:13:11.870416  1845 net.cpp:91] Creating Layer inception_4e/pool
I0915 12:13:11.870424  1845 net.cpp:425] inception_4e/pool <- inception_4d/output_inception_4d/output_0_split_3
I0915 12:13:11.870431  1845 net.cpp:399] inception_4e/pool -> inception_4e/pool
I0915 12:13:11.870513  1845 net.cpp:141] Setting up inception_4e/pool
I0915 12:13:11.870524  1845 net.cpp:148] Top shape: 10 528 14 14 (1034880)
I0915 12:13:11.870529  1845 net.cpp:156] Memory required for data: 512296960
I0915 12:13:11.870534  1845 layer_factory.hpp:77] Creating layer inception_4e/pool_proj
I0915 12:13:11.870551  1845 net.cpp:91] Creating Layer inception_4e/pool_proj
I0915 12:13:11.870558  1845 net.cpp:425] inception_4e/pool_proj <- inception_4e/pool
I0915 12:13:11.870569  1845 net.cpp:399] inception_4e/pool_proj -> inception_4e/pool_proj
I0915 12:13:11.872810  1845 net.cpp:141] Setting up inception_4e/pool_proj
I0915 12:13:11.872830  1845 net.cpp:148] Top shape: 10 128 14 14 (250880)
I0915 12:13:11.872836  1845 net.cpp:156] Memory required for data: 513300480
I0915 12:13:11.872846  1845 layer_factory.hpp:77] Creating layer inception_4e/relu_pool_proj
I0915 12:13:11.872856  1845 net.cpp:91] Creating Layer inception_4e/relu_pool_proj
I0915 12:13:11.872864  1845 net.cpp:425] inception_4e/relu_pool_proj <- inception_4e/pool_proj
I0915 12:13:11.872874  1845 net.cpp:386] inception_4e/relu_pool_proj -> inception_4e/pool_proj (in-place)
I0915 12:13:11.873337  1845 net.cpp:141] Setting up inception_4e/relu_pool_proj
I0915 12:13:11.873352  1845 net.cpp:148] Top shape: 10 128 14 14 (250880)
I0915 12:13:11.873356  1845 net.cpp:156] Memory required for data: 514304000
I0915 12:13:11.873363  1845 layer_factory.hpp:77] Creating layer inception_4e/output
I0915 12:13:11.873371  1845 net.cpp:91] Creating Layer inception_4e/output
I0915 12:13:11.873378  1845 net.cpp:425] inception_4e/output <- inception_4e/1x1
I0915 12:13:11.873384  1845 net.cpp:425] inception_4e/output <- inception_4e/3x3
I0915 12:13:11.873394  1845 net.cpp:425] inception_4e/output <- inception_4e/5x5
I0915 12:13:11.873400  1845 net.cpp:425] inception_4e/output <- inception_4e/pool_proj
I0915 12:13:11.873407  1845 net.cpp:399] inception_4e/output -> inception_4e/output
I0915 12:13:11.873458  1845 net.cpp:141] Setting up inception_4e/output
I0915 12:13:11.873469  1845 net.cpp:148] Top shape: 10 832 14 14 (1630720)
I0915 12:13:11.873473  1845 net.cpp:156] Memory required for data: 520826880
I0915 12:13:11.873479  1845 layer_factory.hpp:77] Creating layer pool4/3x3_s2
I0915 12:13:11.873493  1845 net.cpp:91] Creating Layer pool4/3x3_s2
I0915 12:13:11.873499  1845 net.cpp:425] pool4/3x3_s2 <- inception_4e/output
I0915 12:13:11.873509  1845 net.cpp:399] pool4/3x3_s2 -> pool4/3x3_s2
I0915 12:13:11.873582  1845 net.cpp:141] Setting up pool4/3x3_s2
I0915 12:13:11.873594  1845 net.cpp:148] Top shape: 10 832 7 7 (407680)
I0915 12:13:11.873597  1845 net.cpp:156] Memory required for data: 522457600
I0915 12:13:11.873602  1845 layer_factory.hpp:77] Creating layer pool4/3x3_s2_pool4/3x3_s2_0_split
I0915 12:13:11.873615  1845 net.cpp:91] Creating Layer pool4/3x3_s2_pool4/3x3_s2_0_split
I0915 12:13:11.873620  1845 net.cpp:425] pool4/3x3_s2_pool4/3x3_s2_0_split <- pool4/3x3_s2
I0915 12:13:11.873627  1845 net.cpp:399] pool4/3x3_s2_pool4/3x3_s2_0_split -> pool4/3x3_s2_pool4/3x3_s2_0_split_0
I0915 12:13:11.873636  1845 net.cpp:399] pool4/3x3_s2_pool4/3x3_s2_0_split -> pool4/3x3_s2_pool4/3x3_s2_0_split_1
I0915 12:13:11.873646  1845 net.cpp:399] pool4/3x3_s2_pool4/3x3_s2_0_split -> pool4/3x3_s2_pool4/3x3_s2_0_split_2
I0915 12:13:11.873654  1845 net.cpp:399] pool4/3x3_s2_pool4/3x3_s2_0_split -> pool4/3x3_s2_pool4/3x3_s2_0_split_3
I0915 12:13:11.873767  1845 net.cpp:141] Setting up pool4/3x3_s2_pool4/3x3_s2_0_split
I0915 12:13:11.873778  1845 net.cpp:148] Top shape: 10 832 7 7 (407680)
I0915 12:13:11.873785  1845 net.cpp:148] Top shape: 10 832 7 7 (407680)
I0915 12:13:11.873791  1845 net.cpp:148] Top shape: 10 832 7 7 (407680)
I0915 12:13:11.873796  1845 net.cpp:148] Top shape: 10 832 7 7 (407680)
I0915 12:13:11.873801  1845 net.cpp:156] Memory required for data: 528980480
I0915 12:13:11.873806  1845 layer_factory.hpp:77] Creating layer inception_5a/1x1
I0915 12:13:11.873823  1845 net.cpp:91] Creating Layer inception_5a/1x1
I0915 12:13:11.873831  1845 net.cpp:425] inception_5a/1x1 <- pool4/3x3_s2_pool4/3x3_s2_0_split_0
I0915 12:13:11.873842  1845 net.cpp:399] inception_5a/1x1 -> inception_5a/1x1
I0915 12:13:11.877871  1845 net.cpp:141] Setting up inception_5a/1x1
I0915 12:13:11.877892  1845 net.cpp:148] Top shape: 10 256 7 7 (125440)
I0915 12:13:11.877898  1845 net.cpp:156] Memory required for data: 529482240
I0915 12:13:11.877908  1845 layer_factory.hpp:77] Creating layer inception_5a/relu_1x1
I0915 12:13:11.877918  1845 net.cpp:91] Creating Layer inception_5a/relu_1x1
I0915 12:13:11.877925  1845 net.cpp:425] inception_5a/relu_1x1 <- inception_5a/1x1
I0915 12:13:11.877936  1845 net.cpp:386] inception_5a/relu_1x1 -> inception_5a/1x1 (in-place)
I0915 12:13:11.878401  1845 net.cpp:141] Setting up inception_5a/relu_1x1
I0915 12:13:11.878414  1845 net.cpp:148] Top shape: 10 256 7 7 (125440)
I0915 12:13:11.878419  1845 net.cpp:156] Memory required for data: 529984000
I0915 12:13:11.878424  1845 layer_factory.hpp:77] Creating layer inception_5a/3x3_reduce
I0915 12:13:11.878443  1845 net.cpp:91] Creating Layer inception_5a/3x3_reduce
I0915 12:13:11.878449  1845 net.cpp:425] inception_5a/3x3_reduce <- pool4/3x3_s2_pool4/3x3_s2_0_split_1
I0915 12:13:11.878463  1845 net.cpp:399] inception_5a/3x3_reduce -> inception_5a/3x3_reduce
I0915 12:13:11.882056  1845 net.cpp:141] Setting up inception_5a/3x3_reduce
I0915 12:13:11.882076  1845 net.cpp:148] Top shape: 10 160 7 7 (78400)
I0915 12:13:11.882082  1845 net.cpp:156] Memory required for data: 530297600
I0915 12:13:11.882093  1845 layer_factory.hpp:77] Creating layer inception_5a/relu_3x3_reduce
I0915 12:13:11.882108  1845 net.cpp:91] Creating Layer inception_5a/relu_3x3_reduce
I0915 12:13:11.882115  1845 net.cpp:425] inception_5a/relu_3x3_reduce <- inception_5a/3x3_reduce
I0915 12:13:11.882123  1845 net.cpp:386] inception_5a/relu_3x3_reduce -> inception_5a/3x3_reduce (in-place)
I0915 12:13:11.882405  1845 net.cpp:141] Setting up inception_5a/relu_3x3_reduce
I0915 12:13:11.882418  1845 net.cpp:148] Top shape: 10 160 7 7 (78400)
I0915 12:13:11.882423  1845 net.cpp:156] Memory required for data: 530611200
I0915 12:13:11.882428  1845 layer_factory.hpp:77] Creating layer inception_5a/3x3
I0915 12:13:11.882447  1845 net.cpp:91] Creating Layer inception_5a/3x3
I0915 12:13:11.882453  1845 net.cpp:425] inception_5a/3x3 <- inception_5a/3x3_reduce
I0915 12:13:11.882465  1845 net.cpp:399] inception_5a/3x3 -> inception_5a/3x3
I0915 12:13:11.889786  1845 net.cpp:141] Setting up inception_5a/3x3
I0915 12:13:11.889806  1845 net.cpp:148] Top shape: 10 320 7 7 (156800)
I0915 12:13:11.889811  1845 net.cpp:156] Memory required for data: 531238400
I0915 12:13:11.889827  1845 layer_factory.hpp:77] Creating layer inception_5a/relu_3x3
I0915 12:13:11.889837  1845 net.cpp:91] Creating Layer inception_5a/relu_3x3
I0915 12:13:11.889843  1845 net.cpp:425] inception_5a/relu_3x3 <- inception_5a/3x3
I0915 12:13:11.889852  1845 net.cpp:386] inception_5a/relu_3x3 -> inception_5a/3x3 (in-place)
I0915 12:13:11.890336  1845 net.cpp:141] Setting up inception_5a/relu_3x3
I0915 12:13:11.890352  1845 net.cpp:148] Top shape: 10 320 7 7 (156800)
I0915 12:13:11.890358  1845 net.cpp:156] Memory required for data: 531865600
I0915 12:13:11.890364  1845 layer_factory.hpp:77] Creating layer inception_5a/5x5_reduce
I0915 12:13:11.890378  1845 net.cpp:91] Creating Layer inception_5a/5x5_reduce
I0915 12:13:11.890385  1845 net.cpp:425] inception_5a/5x5_reduce <- pool4/3x3_s2_pool4/3x3_s2_0_split_2
I0915 12:13:11.890399  1845 net.cpp:399] inception_5a/5x5_reduce -> inception_5a/5x5_reduce
I0915 12:13:11.892194  1845 net.cpp:141] Setting up inception_5a/5x5_reduce
I0915 12:13:11.892212  1845 net.cpp:148] Top shape: 10 32 7 7 (15680)
I0915 12:13:11.892218  1845 net.cpp:156] Memory required for data: 531928320
I0915 12:13:11.892228  1845 layer_factory.hpp:77] Creating layer inception_5a/relu_5x5_reduce
I0915 12:13:11.892242  1845 net.cpp:91] Creating Layer inception_5a/relu_5x5_reduce
I0915 12:13:11.892249  1845 net.cpp:425] inception_5a/relu_5x5_reduce <- inception_5a/5x5_reduce
I0915 12:13:11.892256  1845 net.cpp:386] inception_5a/relu_5x5_reduce -> inception_5a/5x5_reduce (in-place)
I0915 12:13:11.892726  1845 net.cpp:141] Setting up inception_5a/relu_5x5_reduce
I0915 12:13:11.892742  1845 net.cpp:148] Top shape: 10 32 7 7 (15680)
I0915 12:13:11.892748  1845 net.cpp:156] Memory required for data: 531991040
I0915 12:13:11.892755  1845 layer_factory.hpp:77] Creating layer inception_5a/5x5
I0915 12:13:11.892772  1845 net.cpp:91] Creating Layer inception_5a/5x5
I0915 12:13:11.892779  1845 net.cpp:425] inception_5a/5x5 <- inception_5a/5x5_reduce
I0915 12:13:11.892789  1845 net.cpp:399] inception_5a/5x5 -> inception_5a/5x5
I0915 12:13:11.895356  1845 net.cpp:141] Setting up inception_5a/5x5
I0915 12:13:11.895378  1845 net.cpp:148] Top shape: 10 128 7 7 (62720)
I0915 12:13:11.895385  1845 net.cpp:156] Memory required for data: 532241920
I0915 12:13:11.895395  1845 layer_factory.hpp:77] Creating layer inception_5a/relu_5x5
I0915 12:13:11.895431  1845 net.cpp:91] Creating Layer inception_5a/relu_5x5
I0915 12:13:11.895438  1845 net.cpp:425] inception_5a/relu_5x5 <- inception_5a/5x5
I0915 12:13:11.895447  1845 net.cpp:386] inception_5a/relu_5x5 -> inception_5a/5x5 (in-place)
I0915 12:13:11.895726  1845 net.cpp:141] Setting up inception_5a/relu_5x5
I0915 12:13:11.895740  1845 net.cpp:148] Top shape: 10 128 7 7 (62720)
I0915 12:13:11.895745  1845 net.cpp:156] Memory required for data: 532492800
I0915 12:13:11.895750  1845 layer_factory.hpp:77] Creating layer inception_5a/pool
I0915 12:13:11.895763  1845 net.cpp:91] Creating Layer inception_5a/pool
I0915 12:13:11.895769  1845 net.cpp:425] inception_5a/pool <- pool4/3x3_s2_pool4/3x3_s2_0_split_3
I0915 12:13:11.895778  1845 net.cpp:399] inception_5a/pool -> inception_5a/pool
I0915 12:13:11.895864  1845 net.cpp:141] Setting up inception_5a/pool
I0915 12:13:11.895874  1845 net.cpp:148] Top shape: 10 832 7 7 (407680)
I0915 12:13:11.895879  1845 net.cpp:156] Memory required for data: 534123520
I0915 12:13:11.895884  1845 layer_factory.hpp:77] Creating layer inception_5a/pool_proj
I0915 12:13:11.895900  1845 net.cpp:91] Creating Layer inception_5a/pool_proj
I0915 12:13:11.895906  1845 net.cpp:425] inception_5a/pool_proj <- inception_5a/pool
I0915 12:13:11.895920  1845 net.cpp:399] inception_5a/pool_proj -> inception_5a/pool_proj
I0915 12:13:11.899313  1845 net.cpp:141] Setting up inception_5a/pool_proj
I0915 12:13:11.899333  1845 net.cpp:148] Top shape: 10 128 7 7 (62720)
I0915 12:13:11.899339  1845 net.cpp:156] Memory required for data: 534374400
I0915 12:13:11.899350  1845 layer_factory.hpp:77] Creating layer inception_5a/relu_pool_proj
I0915 12:13:11.899364  1845 net.cpp:91] Creating Layer inception_5a/relu_pool_proj
I0915 12:13:11.899371  1845 net.cpp:425] inception_5a/relu_pool_proj <- inception_5a/pool_proj
I0915 12:13:11.899382  1845 net.cpp:386] inception_5a/relu_pool_proj -> inception_5a/pool_proj (in-place)
I0915 12:13:11.899866  1845 net.cpp:141] Setting up inception_5a/relu_pool_proj
I0915 12:13:11.899888  1845 net.cpp:148] Top shape: 10 128 7 7 (62720)
I0915 12:13:11.899893  1845 net.cpp:156] Memory required for data: 534625280
I0915 12:13:11.899899  1845 layer_factory.hpp:77] Creating layer inception_5a/output
I0915 12:13:11.899907  1845 net.cpp:91] Creating Layer inception_5a/output
I0915 12:13:11.899914  1845 net.cpp:425] inception_5a/output <- inception_5a/1x1
I0915 12:13:11.899920  1845 net.cpp:425] inception_5a/output <- inception_5a/3x3
I0915 12:13:11.899927  1845 net.cpp:425] inception_5a/output <- inception_5a/5x5
I0915 12:13:11.899933  1845 net.cpp:425] inception_5a/output <- inception_5a/pool_proj
I0915 12:13:11.899943  1845 net.cpp:399] inception_5a/output -> inception_5a/output
I0915 12:13:11.899997  1845 net.cpp:141] Setting up inception_5a/output
I0915 12:13:11.900008  1845 net.cpp:148] Top shape: 10 832 7 7 (407680)
I0915 12:13:11.900013  1845 net.cpp:156] Memory required for data: 536256000
I0915 12:13:11.900018  1845 layer_factory.hpp:77] Creating layer inception_5a/output_inception_5a/output_0_split
I0915 12:13:11.900032  1845 net.cpp:91] Creating Layer inception_5a/output_inception_5a/output_0_split
I0915 12:13:11.900038  1845 net.cpp:425] inception_5a/output_inception_5a/output_0_split <- inception_5a/output
I0915 12:13:11.900046  1845 net.cpp:399] inception_5a/output_inception_5a/output_0_split -> inception_5a/output_inception_5a/output_0_split_0
I0915 12:13:11.900058  1845 net.cpp:399] inception_5a/output_inception_5a/output_0_split -> inception_5a/output_inception_5a/output_0_split_1
I0915 12:13:11.900079  1845 net.cpp:399] inception_5a/output_inception_5a/output_0_split -> inception_5a/output_inception_5a/output_0_split_2
I0915 12:13:11.900090  1845 net.cpp:399] inception_5a/output_inception_5a/output_0_split -> inception_5a/output_inception_5a/output_0_split_3
I0915 12:13:11.900208  1845 net.cpp:141] Setting up inception_5a/output_inception_5a/output_0_split
I0915 12:13:11.900219  1845 net.cpp:148] Top shape: 10 832 7 7 (407680)
I0915 12:13:11.900226  1845 net.cpp:148] Top shape: 10 832 7 7 (407680)
I0915 12:13:11.900233  1845 net.cpp:148] Top shape: 10 832 7 7 (407680)
I0915 12:13:11.900238  1845 net.cpp:148] Top shape: 10 832 7 7 (407680)
I0915 12:13:11.900243  1845 net.cpp:156] Memory required for data: 542778880
I0915 12:13:11.900248  1845 layer_factory.hpp:77] Creating layer inception_5b/1x1
I0915 12:13:11.900264  1845 net.cpp:91] Creating Layer inception_5b/1x1
I0915 12:13:11.900270  1845 net.cpp:425] inception_5b/1x1 <- inception_5a/output_inception_5a/output_0_split_0
I0915 12:13:11.900285  1845 net.cpp:399] inception_5b/1x1 -> inception_5b/1x1
I0915 12:13:11.905402  1845 net.cpp:141] Setting up inception_5b/1x1
I0915 12:13:11.905423  1845 net.cpp:148] Top shape: 10 384 7 7 (188160)
I0915 12:13:11.905429  1845 net.cpp:156] Memory required for data: 543531520
I0915 12:13:11.905441  1845 layer_factory.hpp:77] Creating layer inception_5b/relu_1x1
I0915 12:13:11.905449  1845 net.cpp:91] Creating Layer inception_5b/relu_1x1
I0915 12:13:11.905457  1845 net.cpp:425] inception_5b/relu_1x1 <- inception_5b/1x1
I0915 12:13:11.905468  1845 net.cpp:386] inception_5b/relu_1x1 -> inception_5b/1x1 (in-place)
I0915 12:13:11.905941  1845 net.cpp:141] Setting up inception_5b/relu_1x1
I0915 12:13:11.905958  1845 net.cpp:148] Top shape: 10 384 7 7 (188160)
I0915 12:13:11.905963  1845 net.cpp:156] Memory required for data: 544284160
I0915 12:13:11.905971  1845 layer_factory.hpp:77] Creating layer inception_5b/3x3_reduce
I0915 12:13:11.905988  1845 net.cpp:91] Creating Layer inception_5b/3x3_reduce
I0915 12:13:11.905995  1845 net.cpp:425] inception_5b/3x3_reduce <- inception_5a/output_inception_5a/output_0_split_1
I0915 12:13:11.906008  1845 net.cpp:399] inception_5b/3x3_reduce -> inception_5b/3x3_reduce
I0915 12:13:11.909888  1845 net.cpp:141] Setting up inception_5b/3x3_reduce
I0915 12:13:11.909909  1845 net.cpp:148] Top shape: 10 192 7 7 (94080)
I0915 12:13:11.909914  1845 net.cpp:156] Memory required for data: 544660480
I0915 12:13:11.909924  1845 layer_factory.hpp:77] Creating layer inception_5b/relu_3x3_reduce
I0915 12:13:11.909934  1845 net.cpp:91] Creating Layer inception_5b/relu_3x3_reduce
I0915 12:13:11.909940  1845 net.cpp:425] inception_5b/relu_3x3_reduce <- inception_5b/3x3_reduce
I0915 12:13:11.909952  1845 net.cpp:386] inception_5b/relu_3x3_reduce -> inception_5b/3x3_reduce (in-place)
I0915 12:13:11.910233  1845 net.cpp:141] Setting up inception_5b/relu_3x3_reduce
I0915 12:13:11.910245  1845 net.cpp:148] Top shape: 10 192 7 7 (94080)
I0915 12:13:11.910253  1845 net.cpp:156] Memory required for data: 545036800
I0915 12:13:11.910259  1845 layer_factory.hpp:77] Creating layer inception_5b/3x3
I0915 12:13:11.910272  1845 net.cpp:91] Creating Layer inception_5b/3x3
I0915 12:13:11.910279  1845 net.cpp:425] inception_5b/3x3 <- inception_5b/3x3_reduce
I0915 12:13:11.910292  1845 net.cpp:399] inception_5b/3x3 -> inception_5b/3x3
I0915 12:13:11.919013  1845 net.cpp:141] Setting up inception_5b/3x3
I0915 12:13:11.919033  1845 net.cpp:148] Top shape: 10 384 7 7 (188160)
I0915 12:13:11.919039  1845 net.cpp:156] Memory required for data: 545789440
I0915 12:13:11.919049  1845 layer_factory.hpp:77] Creating layer inception_5b/relu_3x3
I0915 12:13:11.919059  1845 net.cpp:91] Creating Layer inception_5b/relu_3x3
I0915 12:13:11.919065  1845 net.cpp:425] inception_5b/relu_3x3 <- inception_5b/3x3
I0915 12:13:11.919076  1845 net.cpp:386] inception_5b/relu_3x3 -> inception_5b/3x3 (in-place)
I0915 12:13:11.919556  1845 net.cpp:141] Setting up inception_5b/relu_3x3
I0915 12:13:11.919574  1845 net.cpp:148] Top shape: 10 384 7 7 (188160)
I0915 12:13:11.919579  1845 net.cpp:156] Memory required for data: 546542080
I0915 12:13:11.919584  1845 layer_factory.hpp:77] Creating layer inception_5b/5x5_reduce
I0915 12:13:11.919602  1845 net.cpp:91] Creating Layer inception_5b/5x5_reduce
I0915 12:13:11.919608  1845 net.cpp:425] inception_5b/5x5_reduce <- inception_5a/output_inception_5a/output_0_split_2
I0915 12:13:11.919625  1845 net.cpp:399] inception_5b/5x5_reduce -> inception_5b/5x5_reduce
I0915 12:13:11.921581  1845 net.cpp:141] Setting up inception_5b/5x5_reduce
I0915 12:13:11.921600  1845 net.cpp:148] Top shape: 10 48 7 7 (23520)
I0915 12:13:11.921607  1845 net.cpp:156] Memory required for data: 546636160
I0915 12:13:11.921617  1845 layer_factory.hpp:77] Creating layer inception_5b/relu_5x5_reduce
I0915 12:13:11.921627  1845 net.cpp:91] Creating Layer inception_5b/relu_5x5_reduce
I0915 12:13:11.921633  1845 net.cpp:425] inception_5b/relu_5x5_reduce <- inception_5b/5x5_reduce
I0915 12:13:11.921644  1845 net.cpp:386] inception_5b/relu_5x5_reduce -> inception_5b/5x5_reduce (in-place)
I0915 12:13:11.922109  1845 net.cpp:141] Setting up inception_5b/relu_5x5_reduce
I0915 12:13:11.922123  1845 net.cpp:148] Top shape: 10 48 7 7 (23520)
I0915 12:13:11.922128  1845 net.cpp:156] Memory required for data: 546730240
I0915 12:13:11.922134  1845 layer_factory.hpp:77] Creating layer inception_5b/5x5
I0915 12:13:11.922152  1845 net.cpp:91] Creating Layer inception_5b/5x5
I0915 12:13:11.922158  1845 net.cpp:425] inception_5b/5x5 <- inception_5b/5x5_reduce
I0915 12:13:11.922168  1845 net.cpp:399] inception_5b/5x5 -> inception_5b/5x5
I0915 12:13:11.925516  1845 net.cpp:141] Setting up inception_5b/5x5
I0915 12:13:11.925535  1845 net.cpp:148] Top shape: 10 128 7 7 (62720)
I0915 12:13:11.925541  1845 net.cpp:156] Memory required for data: 546981120
I0915 12:13:11.925552  1845 layer_factory.hpp:77] Creating layer inception_5b/relu_5x5
I0915 12:13:11.925562  1845 net.cpp:91] Creating Layer inception_5b/relu_5x5
I0915 12:13:11.925568  1845 net.cpp:425] inception_5b/relu_5x5 <- inception_5b/5x5
I0915 12:13:11.925576  1845 net.cpp:386] inception_5b/relu_5x5 -> inception_5b/5x5 (in-place)
I0915 12:13:11.925865  1845 net.cpp:141] Setting up inception_5b/relu_5x5
I0915 12:13:11.925879  1845 net.cpp:148] Top shape: 10 128 7 7 (62720)
I0915 12:13:11.925882  1845 net.cpp:156] Memory required for data: 547232000
I0915 12:13:11.925889  1845 layer_factory.hpp:77] Creating layer inception_5b/pool
I0915 12:13:11.925901  1845 net.cpp:91] Creating Layer inception_5b/pool
I0915 12:13:11.925907  1845 net.cpp:425] inception_5b/pool <- inception_5a/output_inception_5a/output_0_split_3
I0915 12:13:11.925916  1845 net.cpp:399] inception_5b/pool -> inception_5b/pool
I0915 12:13:11.926003  1845 net.cpp:141] Setting up inception_5b/pool
I0915 12:13:11.926015  1845 net.cpp:148] Top shape: 10 832 7 7 (407680)
I0915 12:13:11.926019  1845 net.cpp:156] Memory required for data: 548862720
I0915 12:13:11.926025  1845 layer_factory.hpp:77] Creating layer inception_5b/pool_proj
I0915 12:13:11.926043  1845 net.cpp:91] Creating Layer inception_5b/pool_proj
I0915 12:13:11.926050  1845 net.cpp:425] inception_5b/pool_proj <- inception_5b/pool
I0915 12:13:11.926062  1845 net.cpp:399] inception_5b/pool_proj -> inception_5b/pool_proj
I0915 12:13:11.929472  1845 net.cpp:141] Setting up inception_5b/pool_proj
I0915 12:13:11.929492  1845 net.cpp:148] Top shape: 10 128 7 7 (62720)
I0915 12:13:11.929498  1845 net.cpp:156] Memory required for data: 549113600
I0915 12:13:11.929508  1845 layer_factory.hpp:77] Creating layer inception_5b/relu_pool_proj
I0915 12:13:11.929518  1845 net.cpp:91] Creating Layer inception_5b/relu_pool_proj
I0915 12:13:11.929528  1845 net.cpp:425] inception_5b/relu_pool_proj <- inception_5b/pool_proj
I0915 12:13:11.929536  1845 net.cpp:386] inception_5b/relu_pool_proj -> inception_5b/pool_proj (in-place)
I0915 12:13:11.930022  1845 net.cpp:141] Setting up inception_5b/relu_pool_proj
I0915 12:13:11.930039  1845 net.cpp:148] Top shape: 10 128 7 7 (62720)
I0915 12:13:11.930045  1845 net.cpp:156] Memory required for data: 549364480
I0915 12:13:11.930052  1845 layer_factory.hpp:77] Creating layer inception_5b/output
I0915 12:13:11.930063  1845 net.cpp:91] Creating Layer inception_5b/output
I0915 12:13:11.930069  1845 net.cpp:425] inception_5b/output <- inception_5b/1x1
I0915 12:13:11.930078  1845 net.cpp:425] inception_5b/output <- inception_5b/3x3
I0915 12:13:11.930083  1845 net.cpp:425] inception_5b/output <- inception_5b/5x5
I0915 12:13:11.930089  1845 net.cpp:425] inception_5b/output <- inception_5b/pool_proj
I0915 12:13:11.930096  1845 net.cpp:399] inception_5b/output -> inception_5b/output
I0915 12:13:11.930155  1845 net.cpp:141] Setting up inception_5b/output
I0915 12:13:11.930168  1845 net.cpp:148] Top shape: 10 1024 7 7 (501760)
I0915 12:13:11.930173  1845 net.cpp:156] Memory required for data: 551371520
I0915 12:13:11.930178  1845 layer_factory.hpp:77] Creating layer pool5/7x7_s1
I0915 12:13:11.930187  1845 net.cpp:91] Creating Layer pool5/7x7_s1
I0915 12:13:11.930193  1845 net.cpp:425] pool5/7x7_s1 <- inception_5b/output
I0915 12:13:11.930203  1845 net.cpp:399] pool5/7x7_s1 -> pool5/7x7_s1
I0915 12:13:11.930557  1845 net.cpp:141] Setting up pool5/7x7_s1
I0915 12:13:11.930572  1845 net.cpp:148] Top shape: 10 1024 1 1 (10240)
I0915 12:13:11.930577  1845 net.cpp:156] Memory required for data: 551412480
I0915 12:13:11.930583  1845 layer_factory.hpp:77] Creating layer pool5/drop_7x7_s1
I0915 12:13:11.930603  1845 net.cpp:91] Creating Layer pool5/drop_7x7_s1
I0915 12:13:11.930609  1845 net.cpp:425] pool5/drop_7x7_s1 <- pool5/7x7_s1
I0915 12:13:11.930616  1845 net.cpp:386] pool5/drop_7x7_s1 -> pool5/7x7_s1 (in-place)
I0915 12:13:11.930678  1845 net.cpp:141] Setting up pool5/drop_7x7_s1
I0915 12:13:11.930690  1845 net.cpp:148] Top shape: 10 1024 1 1 (10240)
I0915 12:13:11.930694  1845 net.cpp:156] Memory required for data: 551453440
I0915 12:13:11.930699  1845 layer_factory.hpp:77] Creating layer loss3/classifier
I0915 12:13:11.930722  1845 net.cpp:91] Creating Layer loss3/classifier
I0915 12:13:11.930728  1845 net.cpp:425] loss3/classifier <- pool5/7x7_s1
I0915 12:13:11.930737  1845 net.cpp:399] loss3/classifier -> loss3/classifier
I0915 12:13:11.941798  1845 net.cpp:141] Setting up loss3/classifier
I0915 12:13:11.941823  1845 net.cpp:148] Top shape: 10 1000 (10000)
I0915 12:13:11.941828  1845 net.cpp:156] Memory required for data: 551493440
I0915 12:13:11.941840  1845 layer_factory.hpp:77] Creating layer prob
I0915 12:13:11.941856  1845 net.cpp:91] Creating Layer prob
I0915 12:13:11.941864  1845 net.cpp:425] prob <- loss3/classifier
I0915 12:13:11.941871  1845 net.cpp:399] prob -> prob
I0915 12:13:11.942517  1845 net.cpp:141] Setting up prob
I0915 12:13:11.942535  1845 net.cpp:148] Top shape: 10 1000 (10000)
I0915 12:13:11.942541  1845 net.cpp:156] Memory required for data: 551533440
I0915 12:13:11.942548  1845 net.cpp:219] prob does not need backward computation.
I0915 12:13:11.942553  1845 net.cpp:219] loss3/classifier does not need backward computation.
I0915 12:13:11.942559  1845 net.cpp:219] pool5/drop_7x7_s1 does not need backward computation.
I0915 12:13:11.942562  1845 net.cpp:219] pool5/7x7_s1 does not need backward computation.
…
