…
Java HotSpot(TM) 64-Bit Server VM warning: You have loaded library /tmp/cvld8268420406561324653/libopencv_java310.xine1.so which might have disabled stack guard. The VM will try to fix the stack guard now.
It's highly recommended that you fix the library with 'execstack -c <libfile>', or link it with '-z noexecstack'.
WARNING: Logging before InitGoogleLogging() is written to STDERR
I0714 21:49:08.029908 10861 net.cpp:49] Initializing net from parameters: 
name: "GoogleNet"
state {
  phase: TEST
}
layer {
  name: "data"
  type: "Input"
  top: "data"
  input_param {
    shape {
      dim: 10
      dim: 3
      dim: 224
      dim: 224
    }
  }
}
layer {
  name: "conv1/7x7_s2"
  type: "Convolution"
  bottom: "data"
  top: "conv1/7x7_s2"
  param {
    lr_mult: 1
    decay_mult: 1
  }
  param {
    lr_mult: 2
    decay_mult: 0
  }
  convolution_param {
    num_output: 64
    pad: 3
    kernel_size: 7
    stride: 2
    weight_filler {
      type: "xavier"
      std: 0.1
    }
    bias_filler {
      type: "constant"
      value: 0.2
    }
  }
}
layer {
  name: "conv1/relu_7x7"
  type: "ReLU"
  bottom: "conv1/7x7_s2"
  top: "conv1/7x7_s2"
}
layer {
  name: "pool1/3x3_s2"
  type: "Pooling"
  bottom: "conv1/7x7_s2"
  top: "pool1/3x3_s2"
  pooling_param {
    pool: MAX
    kernel_size: 3
    stride: 2
  }
}
layer {
  name: "pool1/norm1"
  type: "LRN"
  bottom: "pool1/3x3_s2"
  top: "pool1/norm1"
  lrn_param {
    local_size: 5
    alpha: 0.0001
    beta: 0.75
  }
}
layer {
  name: "conv2/3x3_reduce"
  type: "Convolution"
  bottom: "pool1/norm1"
  top: "conv2/3x3_reduce"
  param {
    lr_mult: 1
    decay_mult: 1
  }
  param {
    lr_mult: 2
    decay_mult: 0
  }
  convolution_param {
    num_output: 64
    kernel_size: 1
    weight_filler {
      type: "xavier"
      std: 0.1
    }
    bias_filler {
      type: "constant"
      value: 0.2
    }
  }
}
layer {
  name: "conv2/relu_3x3_reduce"
  type: "ReLU"
  bottom: "conv2/3x3_reduce"
  top: "conv2/3x3_reduce"
}
layer {
  name: "conv2/3x3"
  type: "Convolution"
  bottom: "conv2/3x3_reduce"
  top: "conv2/3x3"
  param {
    lr_mult: 1
    decay_mult: 1
  }
  param {
    lr_mult: 2
    decay_mult: 0
  }
  convolution_param {
    num_output: 192
    pad: 1
    kernel_size: 3
    weight_filler {
      type: "xavier"
      std: 0.03
    }
    bias_filler {
      type: "constant"
      value: 0.2
    }
  }
}
layer {
  name: "conv2/relu_3x3"
  type: "ReLU"
  bottom: "conv2/3x3"
  top: "conv2/3x3"
}
layer {
  name: "conv2/norm2"
  type: "LRN"
  bottom: "conv2/3x3"
  top: "conv2/norm2"
  lrn_param {
    local_size: 5
    alpha: 0.0001
    beta: 0.75
  }
}
layer {
  name: "pool2/3x3_s2"
  type: "Pooling"
  bottom: "conv2/norm2"
  top: "pool2/3x3_s2"
  pooling_param {
    pool: MAX
    kernel_size: 3
    stride: 2
  }
}
layer {
  name: "inception_3a/1x1"
  type: "Convolution"
  bottom: "pool2/3x3_s2"
  top: "inception_3a/1x1"
  param {
    lr_mult: 1
    decay_mult: 1
  }
  param {
    lr_mult: 2
    decay_mult: 0
  }
  convolution_param {
    num_output: 64
    kernel_size: 1
    weight_filler {
      type: "xavier"
      std: 0.03
    }
    bias_filler {
      type: "constant"
      value: 0.2
    }
  }
}
layer {
  name: "inception_3a/relu_1x1"
  type: "ReLU"
  bottom: "inception_3a/1x1"
  top: "inception_3a/1x1"
}
layer {
  name: "inception_3a/3x3_reduce"
  type: "Convolution"
  bottom: "pool2/3x3_s2"
  top: "inception_3a/3x3_reduce"
  param {
    lr_mult: 1
    decay_mult: 1
  }
  param {
    lr_mult: 2
    decay_mult: 0
  }
  convolution_param {
    num_output: 96
    kernel_size: 1
    weight_filler {
      type: "xavier"
      std: 0.09
    }
    bias_filler {
      type: "constant"
      value: 0.2
    }
  }
}
layer {
  name: "inception_3a/relu_3x3_reduce"
  type: "ReLU"
  bottom: "inception_3a/3x3_reduce"
  top: "inception_3a/3x3_reduce"
}
layer {
  name: "inception_3a/3x3"
  type: "Convolution"
  bottom: "inception_3a/3x3_reduce"
  top: "inception_3a/3x3"
  param {
    lr_mult: 1
    decay_mult: 1
  }
  param {
    lr_mult: 2
    decay_mult: 0
  }
  convolution_param {
    num_output: 128
    pad: 1
    kernel_size: 3
    weight_filler {
      type: "xavier"
      std: 0.03
    }
    bias_filler {
      type: "constant"
      value: 0.2
    }
  }
}
layer {
  name: "inception_3a/relu_3x3"
  type: "ReLU"
  bottom: "inception_3a/3x3"
  top: "inception_3a/3x3"
}
layer {
  name: "inception_3a/5x5_reduce"
  type: "Convolution"
  bottom: "pool2/3x3_s2"
  top: "inception_3a/5x5_reduce"
  param {
    lr_mult: 1
    decay_mult: 1
  }
  param {
    lr_mult: 2
    decay_mult: 0
  }
  convolution_param {
    num_output: 16
    kernel_size: 1
    weight_filler {
      type: "xavier"
      std: 0.2
    }
    bias_filler {
      type: "constant"
      value: 0.2
    }
  }
}
layer {
  name: "inception_3a/relu_5x5_reduce"
  type: "ReLU"
  bottom: "inception_3a/5x5_reduce"
  top: "inception_3a/5x5_reduce"
}
layer {
  name: "inception_3a/5x5"
  type: "Convolution"
  bottom: "inception_3a/5x5_reduce"
  top: "inception_3a/5x5"
  param {
    lr_mult: 1
    decay_mult: 1
  }
  param {
    lr_mult: 2
    decay_mult: 0
  }
  convolution_param {
    num_output: 32
    pad: 2
    kernel_size: 5
    weight_filler {
      type: "xavier"
      std: 0.03
    }
    bias_filler {
      type: "constant"
      value: 0.2
    }
  }
}
layer {
  name: "inception_3a/relu_5x5"
  type: "ReLU"
  bottom: "inception_3a/5x5"
  top: "inception_3a/5x5"
}
layer {
  name: "inception_3a/pool"
  type: "Pooling"
  bottom: "pool2/3x3_s2"
  top: "inception_3a/pool"
  pooling_param {
    pool: MAX
    kernel_size: 3
    stride: 1
    pad: 1
  }
}
layer {
  name: "inception_3a/pool_proj"
  type: "Convolution"
  bottom: "inception_3a/pool"
  top: "inception_3a/pool_proj"
  param {
    lr_mult: 1
    decay_mult: 1
  }
  param {
    lr_mult: 2
    decay_mult: 0
  }
  convolution_param {
    num_output: 32
    kernel_size: 1
    weight_filler {
      type: "xavier"
      std: 0.1
    }
    bias_filler {
      type: "constant"
      value: 0.2
    }
  }
}
layer {
  name: "inception_3a/relu_pool_proj"
  type: "ReLU"
  bottom: "inception_3a/pool_proj"
  top: "inception_3a/pool_proj"
}
layer {
  name: "inception_3a/output"
  type: "Concat"
  bottom: "inception_3a/1x1"
  bottom: "inception_3a/3x3"
  bottom: "inception_3a/5x5"
  bottom: "inception_3a/pool_proj"
  top: "inception_3a/output"
}
layer {
  name: "inception_3b/1x1"
  type: "Convolution"
  bottom: "inception_3a/output"
  top: "inception_3b/1x1"
  param {
    lr_mult: 1
    decay_mult: 1
  }
  param {
    lr_mult: 2
    decay_mult: 0
  }
  convolution_param {
    num_output: 128
    kernel_size: 1
    weight_filler {
      type: "xavier"
      std: 0.03
    }
    bias_filler {
      type: "constant"
      value: 0.2
    }
  }
}
layer {
  name: "inception_3b/relu_1x1"
  type: "ReLU"
  bottom: "inception_3b/1x1"
  top: "inception_3b/1x1"
}
layer {
  name: "inception_3b/3x3_reduce"
  type: "Convolution"
  bottom: "inception_3a/output"
  top: "inception_3b/3x3_reduce"
  param {
    lr_mult: 1
    decay_mult: 1
  }
  param {
    lr_mult: 2
    decay_mult: 0
  }
  convolution_param {
    num_output: 128
    kernel_size: 1
    weight_filler {
      type: "xavier"
      std: 0.09
    }
    bias_filler {
      type: "constant"
      value: 0.2
    }
  }
}
layer {
  name: "inception_3b/relu_3x3_reduce"
  type: "ReLU"
  bottom: "inception_3b/3x3_reduce"
  top: "inception_3b/3x3_reduce"
}
layer {
  name: "inception_3b/3x3"
  type: "Convolution"
  bottom: "inception_3b/3x3_reduce"
  top: "inception_3b/3x3"
  param {
    lr_mult: 1
    decay_mult: 1
  }
  param {
    lr_mult: 2
    decay_mult: 0
  }
  convolution_param {
    num_output: 192
    pad: 1
    kernel_size: 3
    weight_filler {
      type: "xavier"
      std: 0.03
    }
    bias_filler {
      type: "constant"
      value: 0.2
    }
  }
}
layer {
  name: "inception_3b/relu_3x3"
  type: "ReLU"
  bottom: "inception_3b/3x3"
  top: "inception_3b/3x3"
}
layer {
  name: "inception_3b/5x5_reduce"
  type: "Convolution"
  bottom: "inception_3a/output"
  top: "inception_3b/5x5_reduce"
  param {
    lr_mult: 1
    decay_mult: 1
  }
  param {
    lr_mult: 2
    decay_mult: 0
  }
  convolution_param {
    num_output: 32
    kernel_size: 1
    weight_filler {
      type: "xavier"
      std: 0.2
    }
    bias_filler {
      type: "constant"
      value: 0.2
    }
  }
}
layer {
  name: "inception_3b/relu_5x5_reduce"
  type: "ReLU"
  bottom: "inception_3b/5x5_reduce"
  top: "inception_3b/5x5_reduce"
}
layer {
  name: "inception_3b/5x5"
  type: "Convolution"
  bottom: "inception_3b/5x5_reduce"
  top: "inception_3b/5x5"
  param {
    lr_mult: 1
    decay_mult: 1
  }
  param {
    lr_mult: 2
    decay_mult: 0
  }
  convolution_param {
    num_output: 96
    pad: 2
    kernel_size: 5
    weight_filler {
      type: "xavier"
      std: 0.03
    }
    bias_filler {
      type: "constant"
      value: 0.2
    }
  }
}
layer {
  name: "inception_3b/relu_5x5"
  type: "ReLU"
  bottom: "inception_3b/5x5"
  top: "inception_3b/5x5"
}
layer {
  name: "inception_3b/pool"
  type: "Pooling"
  bottom: "inception_3a/output"
  top: "inception_3b/pool"
  pooling_param {
    pool: MAX
    kernel_size: 3
    stride: 1
    pad: 1
  }
}
layer {
  name: "inception_3b/pool_proj"
  type: "Convolution"
  bottom: "inception_3b/pool"
  top: "inception_3b/pool_proj"
  param {
    lr_mult: 1
    decay_mult: 1
  }
  param {
    lr_mult: 2
    decay_mult: 0
  }
  convolution_param {
    num_output: 64
    kernel_size: 1
    weight_filler {
      type: "xavier"
      std: 0.1
    }
    bias_filler {
      type: "constant"
      value: 0.2
    }
  }
}
layer {
  name: "inception_3b/relu_pool_proj"
  type: "ReLU"
  bottom: "inception_3b/pool_proj"
  top: "inception_3b/pool_proj"
}
layer {
  name: "inception_3b/output"
  type: "Concat"
  bottom: "inception_3b/1x1"
  bottom: "inception_3b/3x3"
  bottom: "inception_3b/5x5"
  bottom: "inception_3b/pool_proj"
  top: "inception_3b/output"
}
layer {
  name: "pool3/3x3_s2"
  type: "Pooling"
  bottom: "inception_3b/output"
  top: "pool3/3x3_s2"
  pooling_param {
    pool: MAX
    kernel_size: 3
    stride: 2
  }
}
layer {
  name: "inception_4a/1x1"
  type: "Convolution"
  bottom: "pool3/3x3_s2"
  top: "inception_4a/1x1"
  param {
    lr_mult: 1
    decay_mult: 1
  }
  param {
    lr_mult: 2
    decay_mult: 0
  }
  convolution_param {
    num_output: 192
    kernel_size: 1
    weight_filler {
      type: "xavier"
      std: 0.03
    }
    bias_filler {
      type: "constant"
      value: 0.2
    }
  }
}
layer {
  name: "inception_4a/relu_1x1"
  type: "ReLU"
  bottom: "inception_4a/1x1"
  top: "inception_4a/1x1"
}
layer {
  name: "inception_4a/3x3_reduce"
  type: "Convolution"
  bottom: "pool3/3x3_s2"
  top: "inception_4a/3x3_reduce"
  param {
    lr_mult: 1
    decay_mult: 1
  }
  param {
    lr_mult: 2
    decay_mult: 0
  }
  convolution_param {
    num_output: 96
    kernel_size: 1
    weight_filler {
      type: "xavier"
      std: 0.09
    }
    bias_filler {
      type: "constant"
      value: 0.2
    }
  }
}
layer {
  name: "inception_4a/relu_3x3_reduce"
  type: "ReLU"
  bottom: "inception_4a/3x3_reduce"
  top: "inception_4a/3x3_reduce"
}
layer {
  name: "inception_4a/3x3"
  type: "Convolution"
  bottom: "inception_4a/3x3_reduce"
  top: "inception_4a/3x3"
  param {
    lr_mult: 1
    decay_mult: 1
  }
  param {
    lr_mult: 2
    decay_mult: 0
  }
  convolution_param {
    num_output: 208
    pad: 1
    kernel_size: 3
    weight_filler {
      type: "xavier"
      std: 0.03
    }
    bias_filler {
      type: "constant"
      value: 0.2
    }
  }
}
layer {
  name: "inception_4a/relu_3x3"
  type: "ReLU"
  bottom: "inception_4a/3x3"
  top: "inception_4a/3x3"
}
layer {
  name: "inception_4a/5x5_reduce"
  type: "Convolution"
  bottom: "pool3/3x3_s2"
  top: "inception_4a/5x5_reduce"
  param {
    lr_mult: 1
    decay_mult: 1
  }
  param {
    lr_mult: 2
    decay_mult: 0
  }
  convolution_param {
    num_output: 16
    kernel_size: 1
    weight_filler {
      type: "xavier"
      std: 0.2
    }
    bias_filler {
      type: "constant"
      value: 0.2
    }
  }
}
layer {
  name: "inception_4a/relu_5x5_reduce"
  type: "ReLU"
  bottom: "inception_4a/5x5_reduce"
  top: "inception_4a/5x5_reduce"
}
layer {
  name: "inception_4a/5x5"
  type: "Convolution"
  bottom: "inception_4a/5x5_reduce"
  top: "inception_4a/5x5"
  param {
    lr_mult: 1
    decay_mult: 1
  }
  param {
    lr_mult: 2
    decay_mult: 0
  }
  convolution_param {
    num_output: 48
    pad: 2
    kernel_size: 5
    weight_filler {
      type: "xavier"
      std: 0.03
    }
    bias_filler {
      type: "constant"
      value: 0.2
    }
  }
}
layer {
  name: "inception_4a/relu_5x5"
  type: "ReLU"
  bottom: "inception_4a/5x5"
  top: "inception_4a/5x5"
}
layer {
  name: "inception_4a/pool"
  type: "Pooling"
  bottom: "pool3/3x3_s2"
  top: "inception_4a/pool"
  pooling_param {
    pool: MAX
    kernel_size: 3
    stride: 1
    pad: 1
  }
}
layer {
  name: "inception_4a/pool_proj"
  type: "Convolution"
  bottom: "inception_4a/pool"
  top: "inception_4a/pool_proj"
  param {
    lr_mult: 1
    decay_mult: 1
  }
  param {
    lr_mult: 2
    decay_mult: 0
  }
  convolution_param {
    num_output: 64
    kernel_size: 1
    weight_filler {
      type: "xavier"
      std: 0.1
    }
    bias_filler {
      type: "constant"
      value: 0.2
    }
  }
}
layer {
  name: "inception_4a/relu_pool_proj"
  type: "ReLU"
  bottom: "inception_4a/pool_proj"
  top: "inception_4a/pool_proj"
}
layer {
  name: "inception_4a/output"
  type: "Concat"
  bottom: "inception_4a/1x1"
  bottom: "inception_4a/3x3"
  bottom: "inception_4a/5x5"
  bottom: "inception_4a/pool_proj"
  top: "inception_4a/output"
}
layer {
  name: "inception_4b/1x1"
  type: "Convolution"
  bottom: "inception_4a/output"
  top: "inception_4b/1x1"
  param {
    lr_mult: 1
    decay_mult: 1
  }
  param {
    lr_mult: 2
    decay_mult: 0
  }
  convolution_param {
    num_output: 160
    kernel_size: 1
    weight_filler {
      type: "xavier"
      std: 0.03
    }
    bias_filler {
      type: "constant"
      value: 0.2
    }
  }
}
layer {
  name: "inception_4b/relu_1x1"
  type: "ReLU"
  bottom: "inception_4b/1x1"
  top: "inception_4b/1x1"
}
layer {
  name: "inception_4b/3x3_reduce"
  type: "Convolution"
  bottom: "inception_4a/output"
  top: "inception_4b/3x3_reduce"
  param {
    lr_mult: 1
    decay_mult: 1
  }
  param {
    lr_mult: 2
    decay_mult: 0
  }
  convolution_param {
    num_output: 112
    kernel_size: 1
    weight_filler {
      type: "xavier"
      std: 0.09
    }
    bias_filler {
      type: "constant"
      value: 0.2
    }
  }
}
layer {
  name: "inception_4b/relu_3x3_reduce"
  type: "ReLU"
  bottom: "inception_4b/3x3_reduce"
  top: "inception_4b/3x3_reduce"
}
layer {
  name: "inception_4b/3x3"
  type: "Convolution"
  bottom: "inception_4b/3x3_reduce"
  top: "inception_4b/3x3"
  param {
    lr_mult: 1
    decay_mult: 1
  }
  param {
    lr_mult: 2
    decay_mult: 0
  }
  convolution_param {
    num_output: 224
    pad: 1
    kernel_size: 3
    weight_filler {
      type: "xavier"
      std: 0.03
    }
    bias_filler {
      type: "constant"
      value: 0.2
    }
  }
}
layer {
  name: "inception_4b/relu_3x3"
  type: "ReLU"
  bottom: "inception_4b/3x3"
  top: "inception_4b/3x3"
}
layer {
  name: "inception_4b/5x5_reduce"
  type: "Convolution"
  bottom: "inception_4a/output"
  top: "inception_4b/5x5_reduce"
  param {
    lr_mult: 1
    decay_mult: 1
  }
  param {
    lr_mult: 2
    decay_mult: 0
  }
  convolution_param {
    num_output: 24
    kernel_size: 1
    weight_filler {
      type: "xavier"
      std: 0.2
    }
    bias_filler {
      type: "constant"
      value: 0.2
    }
  }
}
layer {
  name: "inception_4b/relu_5x5_reduce"
  type: "ReLU"
  bottom: "inception_4b/5x5_reduce"
  top: "inception_4b/5x5_reduce"
}
layer {
  name: "inception_4b/5x5"
  type: "Convolution"
  bottom: "inception_4b/5x5_reduce"
  top: "inception_4b/5x5"
  param {
    lr_mult: 1
    decay_mult: 1
  }
  param {
    lr_mult: 2
    decay_mult: 0
  }
  convolution_param {
    num_output: 64
    pad: 2
    kernel_size: 5
    weight_filler {
      type: "xavier"
      std: 0.03
    }
    bias_filler {
      type: "constant"
      value: 0.2
    }
  }
}
layer {
  name: "inception_4b/relu_5x5"
  type: "ReLU"
  bottom: "inception_4b/5x5"
  top: "inception_4b/5x5"
}
layer {
  name: "inception_4b/pool"
  type: "Pooling"
  bottom: "inception_4a/output"
  top: "inception_4b/pool"
  pooling_param {
    pool: MAX
    kernel_size: 3
    stride: 1
    pad: 1
  }
}
layer {
  name: "inception_4b/pool_proj"
  type: "Convolution"
  bottom: "inception_4b/pool"
  top: "inception_4b/pool_proj"
  param {
    lr_mult: 1
    decay_mult: 1
  }
  param {
    lr_mult: 2
    decay_mult: 0
  }
  convolution_param {
    num_output: 64
    kernel_size: 1
    weight_filler {
      type: "xavier"
      std: 0.1
    }
    bias_filler {
      type: "constant"
      value: 0.2
    }
  }
}
layer {
  name: "inception_4b/relu_pool_proj"
  type: "ReLU"
  bottom: "inception_4b/pool_proj"
  top: "inception_4b/pool_proj"
}
layer {
  name: "inception_4b/output"
  type: "Concat"
  bottom: "inception_4b/1x1"
  bottom: "inception_4b/3x3"
  bottom: "inception_4b/5x5"
  bottom: "inception_4b/pool_proj"
  top: "inception_4b/output"
}
layer {
  name: "inception_4c/1x1"
  type: "Convolution"
  bottom: "inception_4b/output"
  top: "inception_4c/1x1"
  param {
    lr_mult: 1
    decay_mult: 1
  }
  param {
    lr_mult: 2
    decay_mult: 0
  }
  convolution_param {
    num_output: 128
    kernel_size: 1
    weight_filler {
      type: "xavier"
      std: 0.03
    }
    bias_filler {
      type: "constant"
      value: 0.2
    }
  }
}
layer {
  name: "inception_4c/relu_1x1"
  type: "ReLU"
  bottom: "inception_4c/1x1"
  top: "inception_4c/1x1"
}
layer {
  name: "inception_4c/3x3_reduce"
  type: "Convolution"
  bottom: "inception_4b/output"
  top: "inception_4c/3x3_reduce"
  param {
    lr_mult: 1
    decay_mult: 1
  }
  param {
    lr_mult: 2
    decay_mult: 0
  }
  convolution_param {
    num_output: 128
    kernel_size: 1
    weight_filler {
      type: "xavier"
      std: 0.09
    }
    bias_filler {
      type: "constant"
      value: 0.2
    }
  }
}
layer {
  name: "inception_4c/relu_3x3_reduce"
  type: "ReLU"
  bottom: "inception_4c/3x3_reduce"
  top: "inception_4c/3x3_reduce"
}
layer {
  name: "inception_4c/3x3"
  type: "Convolution"
  bottom: "inception_4c/3x3_reduce"
  top: "inception_4c/3x3"
  param {
    lr_mult: 1
    decay_mult: 1
  }
  param {
    lr_mult: 2
    decay_mult: 0
  }
  convolution_param {
    num_output: 256
    pad: 1
    kernel_size: 3
    weight_filler {
      type: "xavier"
      std: 0.03
    }
    bias_filler {
      type: "constant"
      value: 0.2
    }
  }
}
layer {
  name: "inception_4c/relu_3x3"
  type: "ReLU"
  bottom: "inception_4c/3x3"
  top: "inception_4c/3x3"
}
layer {
  name: "inception_4c/5x5_reduce"
  type: "Convolution"
  bottom: "inception_4b/output"
  top: "inception_4c/5x5_reduce"
  param {
    lr_mult: 1
    decay_mult: 1
  }
  param {
    lr_mult: 2
    decay_mult: 0
  }
  convolution_param {
    num_output: 24
    kernel_size: 1
    weight_filler {
      type: "xavier"
      std: 0.2
    }
    bias_filler {
      type: "constant"
      value: 0.2
    }
  }
}
layer {
  name: "inception_4c/relu_5x5_reduce"
  type: "ReLU"
  bottom: "inception_4c/5x5_reduce"
  top: "inception_4c/5x5_reduce"
}
layer {
  name: "inception_4c/5x5"
  type: "Convolution"
  bottom: "inception_4c/5x5_reduce"
  top: "inception_4c/5x5"
  param {
    lr_mult: 1
    decay_mult: 1
  }
  param {
    lr_mult: 2
    decay_mult: 0
  }
  convolution_param {
    num_output: 64
    pad: 2
    kernel_size: 5
    weight_filler {
      type: "xavier"
      std: 0.03
    }
    bias_filler {
      type: "constant"
      value: 0.2
    }
  }
}
layer {
  name: "inception_4c/relu_5x5"
  type: "ReLU"
  bottom: "inception_4c/5x5"
  top: "inception_4c/5x5"
}
layer {
  name: "inception_4c/pool"
  type: "Pooling"
  bottom: "inception_4b/output"
  top: "inception_4c/pool"
  pooling_param {
    pool: MAX
    kernel_size: 3
    stride: 1
    pad: 1
  }
}
layer {
  name: "inception_4c/pool_proj"
  type: "Convolution"
  bottom: "inception_4c/pool"
  top: "inception_4c/pool_proj"
  param {
    lr_mult: 1
    decay_mult: 1
  }
  param {
    lr_mult: 2
    decay_mult: 0
  }
  convolution_param {
    num_output: 64
    kernel_size: 1
    weight_filler {
      type: "xavier"
      std: 0.1
    }
    bias_filler {
      type: "constant"
      value: 0.2
    }
  }
}
layer {
  name: "inception_4c/relu_pool_proj"
  type: "ReLU"
  bottom: "inception_4c/pool_proj"
  top: "inception_4c/pool_proj"
}
layer {
  name: "inception_4c/output"
  type: "Concat"
  bottom: "inception_4c/1x1"
  bottom: "inception_4c/3x3"
  bottom: "inception_4c/5x5"
  bottom: "inception_4c/pool_proj"
  top: "inception_4c/output"
}
layer {
  name: "inception_4d/1x1"
  type: "Convolution"
  bottom: "inception_4c/output"
  top: "inception_4d/1x1"
  param {
    lr_mult: 1
    decay_mult: 1
  }
  param {
    lr_mult: 2
    decay_mult: 0
  }
  convolution_param {
    num_output: 112
    kernel_size: 1
    weight_filler {
      type: "xavier"
      std: 0.03
    }
    bias_filler {
      type: "constant"
      value: 0.2
    }
  }
}
layer {
  name: "inception_4d/relu_1x1"
  type: "ReLU"
  bottom: "inception_4d/1x1"
  top: "inception_4d/1x1"
}
layer {
  name: "inception_4d/3x3_reduce"
  type: "Convolution"
  bottom: "inception_4c/output"
  top: "inception_4d/3x3_reduce"
  param {
    lr_mult: 1
    decay_mult: 1
  }
  param {
    lr_mult: 2
    decay_mult: 0
  }
  convolution_param {
    num_output: 144
    kernel_size: 1
    weight_filler {
      type: "xavier"
      std: 0.09
    }
    bias_filler {
      type: "constant"
      value: 0.2
    }
  }
}
layer {
  name: "inception_4d/relu_3x3_reduce"
  type: "ReLU"
  bottom: "inception_4d/3x3_reduce"
  top: "inception_4d/3x3_reduce"
}
layer {
  name: "inception_4d/3x3"
  type: "Convolution"
  bottom: "inception_4d/3x3_reduce"
  top: "inception_4d/3x3"
  param {
    lr_mult: 1
    decay_mult: 1
  }
  param {
    lr_mult: 2
    decay_mult: 0
  }
  convolution_param {
    num_output: 288
    pad: 1
    kernel_size: 3
    weight_filler {
      type: "xavier"
      std: 0.03
    }
    bias_filler {
      type: "constant"
      value: 0.2
    }
  }
}
layer {
  name: "inception_4d/relu_3x3"
  type: "ReLU"
  bottom: "inception_4d/3x3"
  top: "inception_4d/3x3"
}
layer {
  name: "inception_4d/5x5_reduce"
  type: "Convolution"
  bottom: "inception_4c/output"
  top: "inception_4d/5x5_reduce"
  param {
    lr_mult: 1
    decay_mult: 1
  }
  param {
    lr_mult: 2
    decay_mult: 0
  }
  convolution_param {
    num_output: 32
    kernel_size: 1
    weight_filler {
      type: "xavier"
      std: 0.2
    }
    bias_filler {
      type: "constant"
      value: 0.2
    }
  }
}
layer {
  name: "inception_4d/relu_5x5_reduce"
  type: "ReLU"
  bottom: "inception_4d/5x5_reduce"
  top: "inception_4d/5x5_reduce"
}
layer {
  name: "inception_4d/5x5"
  type: "Convolution"
  bottom: "inception_4d/5x5_reduce"
  top: "inception_4d/5x5"
  param {
    lr_mult: 1
    decay_mult: 1
  }
  param {
    lr_mult: 2
    decay_mult: 0
  }
  convolution_param {
    num_output: 64
    pad: 2
    kernel_size: 5
    weight_filler {
      type: "xavier"
      std: 0.03
    }
    bias_filler {
      type: "constant"
      value: 0.2
    }
  }
}
layer {
  name: "inception_4d/relu_5x5"
  type: "ReLU"
  bottom: "inception_4d/5x5"
  top: "inception_4d/5x5"
}
layer {
  name: "inception_4d/pool"
  type: "Pooling"
  bottom: "inception_4c/output"
  top: "inception_4d/pool"
  pooling_param {
    pool: MAX
    kernel_size: 3
    stride: 1
    pad: 1
  }
}
layer {
  name: "inception_4d/pool_proj"
  type: "Convolution"
  bottom: "inception_4d/pool"
  top: "inception_4d/pool_proj"
  param {
    lr_mult: 1
    decay_mult: 1
  }
  param {
    lr_mult: 2
    decay_mult: 0
  }
  convolution_param {
    num_output: 64
    kernel_size: 1
    weight_filler {
      type: "xavier"
      std: 0.1
    }
    bias_filler {
      type: "constant"
      value: 0.2
    }
  }
}
layer {
  name: "inception_4d/relu_pool_proj"
  type: "ReLU"
  bottom: "inception_4d/pool_proj"
  top: "inception_4d/pool_proj"
}
layer {
  name: "inception_4d/output"
  type: "Concat"
  bottom: "inception_4d/1x1"
  bottom: "inception_4d/3x3"
  bottom: "inception_4d/5x5"
  bottom: "inception_4d/pool_proj"
  top: "inception_4d/output"
}
layer {
  name: "inception_4e/1x1"
  type: "Convolution"
  bottom: "inception_4d/output"
  top: "inception_4e/1x1"
  param {
    lr_mult: 1
    decay_mult: 1
  }
  param {
    lr_mult: 2
    decay_mult: 0
  }
  convolution_param {
    num_output: 256
    kernel_size: 1
    weight_filler {
      type: "xavier"
      std: 0.03
    }
    bias_filler {
      type: "constant"
      value: 0.2
    }
  }
}
layer {
  name: "inception_4e/relu_1x1"
  type: "ReLU"
  bottom: "inception_4e/1x1"
  top: "inception_4e/1x1"
}
layer {
  name: "inception_4e/3x3_reduce"
  type: "Convolution"
  bottom: "inception_4d/output"
  top: "inception_4e/3x3_reduce"
  param {
    lr_mult: 1
    decay_mult: 1
  }
  param {
    lr_mult: 2
    decay_mult: 0
  }
  convolution_param {
    num_output: 160
    kernel_size: 1
    weight_filler {
      type: "xavier"
      std: 0.09
    }
    bias_filler {
      type: "constant"
      value: 0.2
    }
  }
}
layer {
  name: "inception_4e/relu_3x3_reduce"
  type: "ReLU"
  bottom: "inception_4e/3x3_reduce"
  top: "inception_4e/3x3_reduce"
}
layer {
  name: "inception_4e/3x3"
  type: "Convolution"
  bottom: "inception_4e/3x3_reduce"
  top: "inception_4e/3x3"
  param {
    lr_mult: 1
    decay_mult: 1
  }
  param {
    lr_mult: 2
    decay_mult: 0
  }
  convolution_param {
    num_output: 320
    pad: 1
    kernel_size: 3
    weight_filler {
      type: "xavier"
      std: 0.03
    }
    bias_filler {
      type: "constant"
      value: 0.2
    }
  }
}
layer {
  name: "inception_4e/relu_3x3"
  type: "ReLU"
  bottom: "inception_4e/3x3"
  top: "inception_4e/3x3"
}
layer {
  name: "inception_4e/5x5_reduce"
  type: "Convolution"
  bottom: "inception_4d/output"
  top: "inception_4e/5x5_reduce"
  param {
    lr_mult: 1
    decay_mult: 1
  }
  param {
    lr_mult: 2
    decay_mult: 0
  }
  convolution_param {
    num_output: 32
    kernel_size: 1
    weight_filler {
      type: "xavier"
      std: 0.2
    }
    bias_filler {
      type: "constant"
      value: 0.2
    }
  }
}
layer {
  name: "inception_4e/relu_5x5_reduce"
  type: "ReLU"
  bottom: "inception_4e/5x5_reduce"
  top: "inception_4e/5x5_reduce"
}
layer {
  name: "inception_4e/5x5"
  type: "Convolution"
  bottom: "inception_4e/5x5_reduce"
  top: "inception_4e/5x5"
  param {
    lr_mult: 1
    decay_mult: 1
  }
  param {
    lr_mult: 2
    decay_mult: 0
  }
  convolution_param {
    num_output: 128
    pad: 2
    kernel_size: 5
    weight_filler {
      type: "xavier"
      std: 0.03
    }
    bias_filler {
      type: "constant"
      value: 0.2
    }
  }
}
layer {
  name: "inception_4e/relu_5x5"
  type: "ReLU"
  bottom: "inception_4e/5x5"
  top: "inception_4e/5x5"
}
layer {
  name: "inception_4e/pool"
  type: "Pooling"
  bottom: "inception_4d/output"
  top: "inception_4e/pool"
  pooling_param {
    pool: MAX
    kernel_size: 3
    stride: 1
    pad: 1
  }
}
layer {
  name: "inception_4e/pool_proj"
  type: "Convolution"
  bottom: "inception_4e/pool"
  top: "inception_4e/pool_proj"
  param {
    lr_mult: 1
    decay_mult: 1
  }
  param {
    lr_mult: 2
    decay_mult: 0
  }
  convolution_param {
    num_output: 128
    kernel_size: 1
    weight_filler {
      type: "xavier"
      std: 0.1
    }
    bias_filler {
      type: "constant"
      value: 0.2
    }
  }
}
layer {
  name: "inception_4e/relu_pool_proj"
  type: "ReLU"
  bottom: "inception_4e/pool_proj"
  top: "inception_4e/pool_proj"
}
layer {
  name: "inception_4e/output"
  type: "Concat"
  bottom: "inception_4e/1x1"
  bottom: "inception_4e/3x3"
  bottom: "inception_4e/5x5"
  bottom: "inception_4e/pool_proj"
  top: "inception_4e/output"
}
layer {
  name: "pool4/3x3_s2"
  type: "Pooling"
  bottom: "inception_4e/output"
  top: "pool4/3x3_s2"
  pooling_param {
    pool: MAX
    kernel_size: 3
    stride: 2
  }
}
layer {
  name: "inception_5a/1x1"
  type: "Convolution"
  bottom: "pool4/3x3_s2"
  top: "inception_5a/1x1"
  param {
    lr_mult: 1
    decay_mult: 1
  }
  param {
    lr_mult: 2
    decay_mult: 0
  }
  convolution_param {
    num_output: 256
    kernel_size: 1
    weight_filler {
      type: "xavier"
      std: 0.03
    }
    bias_filler {
      type: "constant"
      value: 0.2
    }
  }
}
layer {
  name: "inception_5a/relu_1x1"
  type: "ReLU"
  bottom: "inception_5a/1x1"
  top: "inception_5a/1x1"
}
layer {
  name: "inception_5a/3x3_reduce"
  type: "Convolution"
  bottom: "pool4/3x3_s2"
  top: "inception_5a/3x3_reduce"
  param {
    lr_mult: 1
    decay_mult: 1
  }
  param {
    lr_mult: 2
    decay_mult: 0
  }
  convolution_param {
    num_output: 160
    kernel_size: 1
    weight_filler {
      type: "xavier"
      std: 0.09
    }
    bias_filler {
      type: "constant"
      value: 0.2
    }
  }
}
layer {
  name: "inception_5a/relu_3x3_reduce"
  type: "ReLU"
  bottom: "inception_5a/3x3_reduce"
  top: "inception_5a/3x3_reduce"
}
layer {
  name: "inception_5a/3x3"
  type: "Convolution"
  bottom: "inception_5a/3x3_reduce"
  top: "inception_5a/3x3"
  param {
    lr_mult: 1
    decay_mult: 1
  }
  param {
    lr_mult: 2
    decay_mult: 0
  }
  convolution_param {
    num_output: 320
    pad: 1
    kernel_size: 3
    weight_filler {
      type: "xavier"
      std: 0.03
    }
    bias_filler {
      type: "constant"
      value: 0.2
    }
  }
}
layer {
  name: "inception_5a/relu_3x3"
  type: "ReLU"
  bottom: "inception_5a/3x3"
  top: "inception_5a/3x3"
}
layer {
  name: "inception_5a/5x5_reduce"
  type: "Convolution"
  bottom: "pool4/3x3_s2"
  top: "inception_5a/5x5_reduce"
  param {
    lr_mult: 1
    decay_mult: 1
  }
  param {
    lr_mult: 2
    decay_mult: 0
  }
  convolution_param {
    num_output: 32
    kernel_size: 1
    weight_filler {
      type: "xavier"
      std: 0.2
    }
    bias_filler {
      type: "constant"
      value: 0.2
    }
I0714 21:49:08.030953 10861 layer_factory.hpp:77] Creating layer data
I0714 21:49:08.030982 10861 net.cpp:91] Creating Layer data
I0714 21:49:08.030994 10861 net.cpp:399] data -> data
I0714 21:49:08.038424 10865 net.cpp:49] Initializing net from parameters: 
name: "GoogleNet"
state {
  phase: TEST
}
layer {
  name: "data"
  type: "Input"
  top: "data"
  input_param {
    shape {
      dim: 10
      dim: 3
      dim: 224
      dim: 224
    }
  }
}
layer {
  name: "conv1/7x7_s2"
  type: "Convolution"
  bottom: "data"
  top: "conv1/7x7_s2"
  param {
    lr_mult: 1
    decay_mult: 1
  }
  param {
    lr_mult: 2
    decay_mult: 0
  }
  convolution_param {
    num_output: 64
    pad: 3
    kernel_size: 7
    stride: 2
    weight_filler {
      type: "xavier"
      std: 0.1
    }
    bias_filler {
      type: "constant"
      value: 0.2
    }
  }
}
layer {
  name: "conv1/relu_7x7"
  type: "ReLU"
  bottom: "conv1/7x7_s2"
  top: "conv1/7x7_s2"
}
layer {
  name: "pool1/3x3_s2"
  type: "Pooling"
  bottom: "conv1/7x7_s2"
  top: "pool1/3x3_s2"
  pooling_param {
    pool: MAX
    kernel_size: 3
    stride: 2
  }
}
layer {
  name: "pool1/norm1"
  type: "LRN"
  bottom: "pool1/3x3_s2"
  top: "pool1/norm1"
  lrn_param {
    local_size: 5
    alpha: 0.0001
    beta: 0.75
  }
}
layer {
  name: "conv2/3x3_reduce"
  type: "Convolution"
  bottom: "pool1/norm1"
  top: "conv2/3x3_reduce"
  param {
    lr_mult: 1
    decay_mult: 1
  }
  param {
    lr_mult: 2
    decay_mult: 0
  }
  convolution_param {
    num_output: 64
    kernel_size: 1
    weight_filler {
      type: "xavier"
      std: 0.1
    }
    bias_filler {
      type: "constant"
      value: 0.2
    }
  }
}
layer {
  name: "conv2/relu_3x3_reduce"
  type: "ReLU"
  bottom: "conv2/3x3_reduce"
  top: "conv2/3x3_reduce"
}
layer {
  name: "conv2/3x3"
  type: "Convolution"
  bottom: "conv2/3x3_reduce"
  top: "conv2/3x3"
  param {
    lr_mult: 1
    decay_mult: 1
  }
  param {
    lr_mult: 2
    decay_mult: 0
  }
  convolution_param {
    num_output: 192
    pad: 1
    kernel_size: 3
    weight_filler {
      type: "xavier"
      std: 0.03
    }
    bias_filler {
      type: "constant"
      value: 0.2
    }
  }
}
layer {
  name: "conv2/relu_3x3"
  type: "ReLU"
  bottom: "conv2/3x3"
  top: "conv2/3x3"
}
layer {
  name: "conv2/norm2"
  type: "LRN"
  bottom: "conv2/3x3"
  top: "conv2/norm2"
  lrn_param {
    local_size: 5
    alpha: 0.0001
    beta: 0.75
  }
}
layer {
  name: "pool2/3x3_s2"
  type: "Pooling"
  bottom: "conv2/norm2"
  top: "pool2/3x3_s2"
  pooling_param {
    pool: MAX
    kernel_size: 3
    stride: 2
  }
}
layer {
  name: "inception_3a/1x1"
  type: "Convolution"
  bottom: "pool2/3x3_s2"
  top: "inception_3a/1x1"
  param {
    lr_mult: 1
    decay_mult: 1
  }
  param {
    lr_mult: 2
    decay_mult: 0
  }
  convolution_param {
    num_output: 64
    kernel_size: 1
    weight_filler {
      type: "xavier"
      std: 0.03
    }
    bias_filler {
      type: "constant"
      value: 0.2
    }
  }
}
layer {
  name: "inception_3a/relu_1x1"
  type: "ReLU"
  bottom: "inception_3a/1x1"
  top: "inception_3a/1x1"
}
layer {
  name: "inception_3a/3x3_reduce"
  type: "Convolution"
  bottom: "pool2/3x3_s2"
  top: "inception_3a/3x3_reduce"
  param {
    lr_mult: 1
    decay_mult: 1
  }
  param {
    lr_mult: 2
    decay_mult: 0
  }
  convolution_param {
    num_output: 96
    kernel_size: 1
    weight_filler {
      type: "xavier"
      std: 0.09
    }
    bias_filler {
      type: "constant"
      value: 0.2
    }
  }
}
layer {
  name: "inception_3a/relu_3x3_reduce"
  type: "ReLU"
  bottom: "inception_3a/3x3_reduce"
  top: "inception_3a/3x3_reduce"
}
layer {
  name: "inception_3a/3x3"
  type: "Convolution"
  bottom: "inception_3a/3x3_reduce"
  top: "inception_3a/3x3"
  param {
    lr_mult: 1
    decay_mult: 1
  }
  param {
    lr_mult: 2
    decay_mult: 0
  }
  convolution_param {
    num_output: 128
    pad: 1
    kernel_size: 3
    weight_filler {
      type: "xavier"
      std: 0.03
    }
    bias_filler {
      type: "constant"
      value: 0.2
    }
  }
}
layer {
  name: "inception_3a/relu_3x3"
  type: "ReLU"
  bottom: "inception_3a/3x3"
  top: "inception_3a/3x3"
}
layer {
  name: "inception_3a/5x5_reduce"
  type: "Convolution"
  bottom: "pool2/3x3_s2"
  top: "inception_3a/5x5_reduce"
  param {
    lr_mult: 1
    decay_mult: 1
  }
  param {
    lr_mult: 2
    decay_mult: 0
  }
  convolution_param {
    num_output: 16
    kernel_size: 1
    weight_filler {
      type: "xavier"
      std: 0.2
    }
    bias_filler {
      type: "constant"
      value: 0.2
    }
  }
}
layer {
  name: "inception_3a/relu_5x5_reduce"
  type: "ReLU"
  bottom: "inception_3a/5x5_reduce"
  top: "inception_3a/5x5_reduce"
}
layer {
  name: "inception_3a/5x5"
  type: "Convolution"
  bottom: "inception_3a/5x5_reduce"
  top: "inception_3a/5x5"
  param {
    lr_mult: 1
    decay_mult: 1
  }
  param {
    lr_mult: 2
    decay_mult: 0
  }
  convolution_param {
    num_output: 32
    pad: 2
    kernel_size: 5
    weight_filler {
      type: "xavier"
      std: 0.03
    }
    bias_filler {
      type: "constant"
      value: 0.2
    }
  }
}
layer {
  name: "inception_3a/relu_5x5"
  type: "ReLU"
  bottom: "inception_3a/5x5"
  top: "inception_3a/5x5"
}
layer {
  name: "inception_3a/pool"
  type: "Pooling"
  bottom: "pool2/3x3_s2"
  top: "inception_3a/pool"
  pooling_param {
    pool: MAX
    kernel_size: 3
    stride: 1
    pad: 1
  }
}
layer {
  name: "inception_3a/pool_proj"
  type: "Convolution"
  bottom: "inception_3a/pool"
  top: "inception_3a/pool_proj"
  param {
    lr_mult: 1
    decay_mult: 1
  }
  param {
    lr_mult: 2
    decay_mult: 0
  }
  convolution_param {
    num_output: 32
    kernel_size: 1
    weight_filler {
      type: "xavier"
      std: 0.1
    }
    bias_filler {
      type: "constant"
      value: 0.2
    }
  }
}
layer {
  name: "inception_3a/relu_pool_proj"
  type: "ReLU"
  bottom: "inception_3a/pool_proj"
  top: "inception_3a/pool_proj"
}
layer {
  name: "inception_3a/output"
  type: "Concat"
  bottom: "inception_3a/1x1"
  bottom: "inception_3a/3x3"
  bottom: "inception_3a/5x5"
  bottom: "inception_3a/pool_proj"
  top: "inception_3a/output"
}
layer {
  name: "inception_3b/1x1"
  type: "Convolution"
  bottom: "inception_3a/output"
  top: "inception_3b/1x1"
  param {
    lr_mult: 1
    decay_mult: 1
  }
  param {
    lr_mult: 2
    decay_mult: 0
  }
  convolution_param {
    num_output: 128
    kernel_size: 1
    weight_filler {
      type: "xavier"
      std: 0.03
    }
    bias_filler {
      type: "constant"
      value: 0.2
    }
  }
}
layer {
  name: "inception_3b/relu_1x1"
  type: "ReLU"
  bottom: "inception_3b/1x1"
  top: "inception_3b/1x1"
}
layer {
  name: "inception_3b/3x3_reduce"
  type: "Convolution"
  bottom: "inception_3a/output"
  top: "inception_3b/3x3_reduce"
  param {
    lr_mult: 1
    decay_mult: 1
  }
  param {
    lr_mult: 2
    decay_mult: 0
  }
  convolution_param {
    num_output: 128
    kernel_size: 1
    weight_filler {
      type: "xavier"
      std: 0.09
    }
    bias_filler {
      type: "constant"
      value: 0.2
    }
  }
}
layer {
  name: "inception_3b/relu_3x3_reduce"
  type: "ReLU"
  bottom: "inception_3b/3x3_reduce"
  top: "inception_3b/3x3_reduce"
}
layer {
  name: "inception_3b/3x3"
  type: "Convolution"
  bottom: "inception_3b/3x3_reduce"
  top: "inception_3b/3x3"
  param {
    lr_mult: 1
    decay_mult: 1
  }
  param {
    lr_mult: 2
    decay_mult: 0
  }
  convolution_param {
    num_output: 192
    pad: 1
    kernel_size: 3
    weight_filler {
      type: "xavier"
      std: 0.03
    }
    bias_filler {
      type: "constant"
      value: 0.2
    }
  }
}
layer {
  name: "inception_3b/relu_3x3"
  type: "ReLU"
  bottom: "inception_3b/3x3"
  top: "inception_3b/3x3"
}
layer {
  name: "inception_3b/5x5_reduce"
  type: "Convolution"
  bottom: "inception_3a/output"
  top: "inception_3b/5x5_reduce"
  param {
    lr_mult: 1
    decay_mult: 1
  }
  param {
    lr_mult: 2
    decay_mult: 0
  }
  convolution_param {
    num_output: 32
    kernel_size: 1
    weight_filler {
      type: "xavier"
      std: 0.2
    }
    bias_filler {
      type: "constant"
      value: 0.2
    }
  }
}
layer {
  name: "inception_3b/relu_5x5_reduce"
  type: "ReLU"
  bottom: "inception_3b/5x5_reduce"
  top: "inception_3b/5x5_reduce"
}
layer {
  name: "inception_3b/5x5"
  type: "Convolution"
  bottom: "inception_3b/5x5_reduce"
  top: "inception_3b/5x5"
  param {
    lr_mult: 1
    decay_mult: 1
  }
  param {
    lr_mult: 2
    decay_mult: 0
  }
  convolution_param {
    num_output: 96
    pad: 2
    kernel_size: 5
    weight_filler {
      type: "xavier"
      std: 0.03
    }
    bias_filler {
      type: "constant"
      value: 0.2
    }
  }
}
layer {
  name: "inception_3b/relu_5x5"
  type: "ReLU"
  bottom: "inception_3b/5x5"
  top: "inception_3b/5x5"
}
layer {
  name: "inception_3b/pool"
  type: "Pooling"
  bottom: "inception_3a/output"
  top: "inception_3b/pool"
  pooling_param {
    pool: MAX
    kernel_size: 3
    stride: 1
    pad: 1
  }
}
layer {
  name: "inception_3b/pool_proj"
  type: "Convolution"
  bottom: "inception_3b/pool"
  top: "inception_3b/pool_proj"
  param {
    lr_mult: 1
    decay_mult: 1
  }
  param {
    lr_mult: 2
    decay_mult: 0
  }
  convolution_param {
    num_output: 64
    kernel_size: 1
    weight_filler {
      type: "xavier"
      std: 0.1
    }
    bias_filler {
      type: "constant"
      value: 0.2
    }
  }
}
layer {
  name: "inception_3b/relu_pool_proj"
  type: "ReLU"
  bottom: "inception_3b/pool_proj"
  top: "inception_3b/pool_proj"
}
layer {
  name: "inception_3b/output"
  type: "Concat"
  bottom: "inception_3b/1x1"
  bottom: "inception_3b/3x3"
  bottom: "inception_3b/5x5"
  bottom: "inception_3b/pool_proj"
  top: "inception_3b/output"
}
layer {
  name: "pool3/3x3_s2"
  type: "Pooling"
  bottom: "inception_3b/output"
  top: "pool3/3x3_s2"
  pooling_param {
    pool: MAX
    kernel_size: 3
    stride: 2
  }
}
layer {
  name: "inception_4a/1x1"
  type: "Convolution"
  bottom: "pool3/3x3_s2"
  top: "inception_4a/1x1"
  param {
    lr_mult: 1
    decay_mult: 1
  }
  param {
    lr_mult: 2
    decay_mult: 0
  }
  convolution_param {
    num_output: 192
    kernel_size: 1
    weight_filler {
      type: "xavier"
      std: 0.03
    }
    bias_filler {
      type: "constant"
      value: 0.2
    }
  }
}
layer {
  name: "inception_4a/relu_1x1"
  type: "ReLU"
  bottom: "inception_4a/1x1"
  top: "inception_4a/1x1"
}
layer {
  name: "inception_4a/3x3_reduce"
  type: "Convolution"
  bottom: "pool3/3x3_s2"
  top: "inception_4a/3x3_reduce"
  param {
    lr_mult: 1
    decay_mult: 1
  }
  param {
    lr_mult: 2
    decay_mult: 0
  }
  convolution_param {
    num_output: 96
    kernel_size: 1
    weight_filler {
      type: "xavier"
      std: 0.09
    }
    bias_filler {
      type: "constant"
      value: 0.2
    }
  }
}
layer {
  name: "inception_4a/relu_3x3_reduce"
  type: "ReLU"
  bottom: "inception_4a/3x3_reduce"
  top: "inception_4a/3x3_reduce"
}
layer {
  name: "inception_4a/3x3"
  type: "Convolution"
  bottom: "inception_4a/3x3_reduce"
  top: "inception_4a/3x3"
  param {
    lr_mult: 1
    decay_mult: 1
  }
  param {
    lr_mult: 2
    decay_mult: 0
  }
  convolution_param {
    num_output: 208
    pad: 1
    kernel_size: 3
    weight_filler {
      type: "xavier"
      std: 0.03
    }
    bias_filler {
      type: "constant"
      value: 0.2
    }
  }
}
layer {
  name: "inception_4a/relu_3x3"
  type: "ReLU"
  bottom: "inception_4a/3x3"
  top: "inception_4a/3x3"
}
layer {
  name: "inception_4a/5x5_reduce"
  type: "Convolution"
  bottom: "pool3/3x3_s2"
  top: "inception_4a/5x5_reduce"
  param {
    lr_mult: 1
    decay_mult: 1
  }
  param {
    lr_mult: 2
    decay_mult: 0
  }
  convolution_param {
    num_output: 16
    kernel_size: 1
    weight_filler {
      type: "xavier"
      std: 0.2
    }
    bias_filler {
      type: "constant"
      value: 0.2
    }
  }
}
layer {
  name: "inception_4a/relu_5x5_reduce"
  type: "ReLU"
  bottom: "inception_4a/5x5_reduce"
  top: "inception_4a/5x5_reduce"
}
layer {
  name: "inception_4a/5x5"
  type: "Convolution"
  bottom: "inception_4a/5x5_reduce"
  top: "inception_4a/5x5"
  param {
    lr_mult: 1
    decay_mult: 1
  }
  param {
    lr_mult: 2
    decay_mult: 0
  }
  convolution_param {
    num_output: 48
    pad: 2
    kernel_size: 5
    weight_filler {
      type: "xavier"
      std: 0.03
    }
    bias_filler {
      type: "constant"
      value: 0.2
    }
  }
}
layer {
  name: "inception_4a/relu_5x5"
  type: "ReLU"
  bottom: "inception_4a/5x5"
  top: "inception_4a/5x5"
}
layer {
  name: "inception_4a/pool"
  type: "Pooling"
  bottom: "pool3/3x3_s2"
  top: "inception_4a/pool"
  pooling_param {
    pool: MAX
    kernel_size: 3
    stride: 1
    pad: 1
  }
}
layer {
  name: "inception_4a/pool_proj"
  type: "Convolution"
  bottom: "inception_4a/pool"
  top: "inception_4a/pool_proj"
  param {
    lr_mult: 1
    decay_mult: 1
  }
  param {
    lr_mult: 2
    decay_mult: 0
  }
  convolution_param {
    num_output: 64
    kernel_size: 1
    weight_filler {
      type: "xavier"
      std: 0.1
    }
    bias_filler {
      type: "constant"
      value: 0.2
    }
  }
}
layer {
  name: "inception_4a/relu_pool_proj"
  type: "ReLU"
  bottom: "inception_4a/pool_proj"
  top: "inception_4a/pool_proj"
}
layer {
  name: "inception_4a/output"
  type: "Concat"
  bottom: "inception_4a/1x1"
  bottom: "inception_4a/3x3"
  bottom: "inception_4a/5x5"
  bottom: "inception_4a/pool_proj"
  top: "inception_4a/output"
}
layer {
  name: "inception_4b/1x1"
  type: "Convolution"
  bottom: "inception_4a/output"
  top: "inception_4b/1x1"
  param {
    lr_mult: 1
    decay_mult: 1
  }
  param {
    lr_mult: 2
    decay_mult: 0
  }
  convolution_param {
    num_output: 160
    kernel_size: 1
    weight_filler {
      type: "xavier"
      std: 0.03
    }
    bias_filler {
      type: "constant"
      value: 0.2
    }
  }
}
layer {
  name: "inception_4b/relu_1x1"
  type: "ReLU"
  bottom: "inception_4b/1x1"
  top: "inception_4b/1x1"
}
layer {
  name: "inception_4b/3x3_reduce"
  type: "Convolution"
  bottom: "inception_4a/output"
  top: "inception_4b/3x3_reduce"
  param {
    lr_mult: 1
    decay_mult: 1
  }
  param {
    lr_mult: 2
    decay_mult: 0
  }
  convolution_param {
    num_output: 112
    kernel_size: 1
    weight_filler {
      type: "xavier"
      std: 0.09
    }
    bias_filler {
      type: "constant"
      value: 0.2
    }
  }
}
layer {
  name: "inception_4b/relu_3x3_reduce"
  type: "ReLU"
  bottom: "inception_4b/3x3_reduce"
  top: "inception_4b/3x3_reduce"
}
layer {
  name: "inception_4b/3x3"
  type: "Convolution"
  bottom: "inception_4b/3x3_reduce"
  top: "inception_4b/3x3"
  param {
    lr_mult: 1
    decay_mult: 1
  }
  param {
    lr_mult: 2
    decay_mult: 0
  }
  convolution_param {
    num_output: 224
    pad: 1
    kernel_size: 3
    weight_filler {
      type: "xavier"
      std: 0.03
    }
    bias_filler {
      type: "constant"
      value: 0.2
    }
  }
}
layer {
  name: "inception_4b/relu_3x3"
  type: "ReLU"
  bottom: "inception_4b/3x3"
  top: "inception_4b/3x3"
}
layer {
  name: "inception_4b/5x5_reduce"
  type: "Convolution"
  bottom: "inception_4a/output"
  top: "inception_4b/5x5_reduce"
  param {
    lr_mult: 1
    decay_mult: 1
  }
  param {
    lr_mult: 2
    decay_mult: 0
  }
  convolution_param {
    num_output: 24
    kernel_size: 1
    weight_filler {
      type: "xavier"
      std: 0.2
    }
    bias_filler {
      type: "constant"
      value: 0.2
    }
  }
}
layer {
  name: "inception_4b/relu_5x5_reduce"
  type: "ReLU"
  bottom: "inception_4b/5x5_reduce"
  top: "inception_4b/5x5_reduce"
}
layer {
  name: "inception_4b/5x5"
  type: "Convolution"
  bottom: "inception_4b/5x5_reduce"
  top: "inception_4b/5x5"
  param {
    lr_mult: 1
    decay_mult: 1
  }
  param {
    lr_mult: 2
    decay_mult: 0
  }
  convolution_param {
    num_output: 64
    pad: 2
    kernel_size: 5
    weight_filler {
      type: "xavier"
      std: 0.03
    }
    bias_filler {
      type: "constant"
      value: 0.2
    }
  }
}
layer {
  name: "inception_4b/relu_5x5"
  type: "ReLU"
  bottom: "inception_4b/5x5"
  top: "inception_4b/5x5"
}
layer {
  name: "inception_4b/pool"
  type: "Pooling"
  bottom: "inception_4a/output"
  top: "inception_4b/pool"
  pooling_param {
    pool: MAX
    kernel_size: 3
    stride: 1
    pad: 1
  }
}
layer {
  name: "inception_4b/pool_proj"
  type: "Convolution"
  bottom: "inception_4b/pool"
  top: "inception_4b/pool_proj"
  param {
    lr_mult: 1
    decay_mult: 1
  }
  param {
    lr_mult: 2
    decay_mult: 0
  }
  convolution_param {
    num_output: 64
    kernel_size: 1
    weight_filler {
      type: "xavier"
      std: 0.1
    }
    bias_filler {
      type: "constant"
      value: 0.2
    }
  }
}
layer {
  name: "inception_4b/relu_pool_proj"
  type: "ReLU"
  bottom: "inception_4b/pool_proj"
  top: "inception_4b/pool_proj"
}
layer {
  name: "inception_4b/output"
  type: "Concat"
  bottom: "inception_4b/1x1"
  bottom: "inception_4b/3x3"
  bottom: "inception_4b/5x5"
  bottom: "inception_4b/pool_proj"
  top: "inception_4b/output"
}
layer {
  name: "inception_4c/1x1"
  type: "Convolution"
  bottom: "inception_4b/output"
  top: "inception_4c/1x1"
  param {
    lr_mult: 1
    decay_mult: 1
  }
  param {
    lr_mult: 2
    decay_mult: 0
  }
  convolution_param {
    num_output: 128
    kernel_size: 1
    weight_filler {
      type: "xavier"
      std: 0.03
    }
    bias_filler {
      type: "constant"
      value: 0.2
    }
  }
}
layer {
  name: "inception_4c/relu_1x1"
  type: "ReLU"
  bottom: "inception_4c/1x1"
  top: "inception_4c/1x1"
}
layer {
  name: "inception_4c/3x3_reduce"
  type: "Convolution"
  bottom: "inception_4b/output"
  top: "inception_4c/3x3_reduce"
  param {
    lr_mult: 1
    decay_mult: 1
  }
  param {
    lr_mult: 2
    decay_mult: 0
  }
  convolution_param {
    num_output: 128
    kernel_size: 1
    weight_filler {
      type: "xavier"
      std: 0.09
    }
    bias_filler {
      type: "constant"
      value: 0.2
    }
  }
}
layer {
  name: "inception_4c/relu_3x3_reduce"
  type: "ReLU"
  bottom: "inception_4c/3x3_reduce"
  top: "inception_4c/3x3_reduce"
}
layer {
  name: "inception_4c/3x3"
  type: "Convolution"
  bottom: "inception_4c/3x3_reduce"
  top: "inception_4c/3x3"
  param {
    lr_mult: 1
    decay_mult: 1
  }
  param {
    lr_mult: 2
    decay_mult: 0
  }
  convolution_param {
    num_output: 256
    pad: 1
    kernel_size: 3
    weight_filler {
      type: "xavier"
      std: 0.03
    }
    bias_filler {
      type: "constant"
      value: 0.2
    }
  }
}
layer {
  name: "inception_4c/relu_3x3"
  type: "ReLU"
  bottom: "inception_4c/3x3"
  top: "inception_4c/3x3"
}
layer {
  name: "inception_4c/5x5_reduce"
  type: "Convolution"
  bottom: "inception_4b/output"
  top: "inception_4c/5x5_reduce"
  param {
    lr_mult: 1
    decay_mult: 1
  }
  param {
    lr_mult: 2
    decay_mult: 0
  }
  convolution_param {
    num_output: 24
    kernel_size: 1
    weight_filler {
      type: "xavier"
      std: 0.2
    }
    bias_filler {
      type: "constant"
      value: 0.2
    }
  }
}
layer {
  name: "inception_4c/relu_5x5_reduce"
  type: "ReLU"
  bottom: "inception_4c/5x5_reduce"
  top: "inception_4c/5x5_reduce"
}
layer {
  name: "inception_4c/5x5"
  type: "Convolution"
  bottom: "inception_4c/5x5_reduce"
  top: "inception_4c/5x5"
  param {
    lr_mult: 1
    decay_mult: 1
  }
  param {
    lr_mult: 2
    decay_mult: 0
  }
  convolution_param {
    num_output: 64
    pad: 2
    kernel_size: 5
    weight_filler {
      type: "xavier"
      std: 0.03
    }
    bias_filler {
      type: "constant"
      value: 0.2
    }
  }
}
layer {
  name: "inception_4c/relu_5x5"
  type: "ReLU"
  bottom: "inception_4c/5x5"
  top: "inception_4c/5x5"
}
layer {
  name: "inception_4c/pool"
  type: "Pooling"
  bottom: "inception_4b/output"
  top: "inception_4c/pool"
  pooling_param {
    pool: MAX
    kernel_size: 3
    stride: 1
    pad: 1
  }
}
layer {
  name: "inception_4c/pool_proj"
  type: "Convolution"
  bottom: "inception_4c/pool"
  top: "inception_4c/pool_proj"
  param {
    lr_mult: 1
    decay_mult: 1
  }
  param {
    lr_mult: 2
    decay_mult: 0
  }
  convolution_param {
    num_output: 64
    kernel_size: 1
    weight_filler {
      type: "xavier"
      std: 0.1
    }
    bias_filler {
      type: "constant"
      value: 0.2
    }
  }
}
layer {
  name: "inception_4c/relu_pool_proj"
  type: "ReLU"
  bottom: "inception_4c/pool_proj"
  top: "inception_4c/pool_proj"
}
layer {
  name: "inception_4c/output"
  type: "Concat"
  bottom: "inception_4c/1x1"
  bottom: "inception_4c/3x3"
  bottom: "inception_4c/5x5"
  bottom: "inception_4c/pool_proj"
  top: "inception_4c/output"
}
layer {
  name: "inception_4d/1x1"
  type: "Convolution"
  bottom: "inception_4c/output"
  top: "inception_4d/1x1"
  param {
    lr_mult: 1
    decay_mult: 1
  }
  param {
    lr_mult: 2
    decay_mult: 0
  }
  convolution_param {
    num_output: 112
    kernel_size: 1
    weight_filler {
      type: "xavier"
      std: 0.03
    }
    bias_filler {
      type: "constant"
      value: 0.2
    }
  }
}
layer {
  name: "inception_4d/relu_1x1"
  type: "ReLU"
  bottom: "inception_4d/1x1"
  top: "inception_4d/1x1"
}
layer {
  name: "inception_4d/3x3_reduce"
  type: "Convolution"
  bottom: "inception_4c/output"
  top: "inception_4d/3x3_reduce"
  param {
    lr_mult: 1
    decay_mult: 1
  }
  param {
    lr_mult: 2
    decay_mult: 0
  }
  convolution_param {
    num_output: 144
    kernel_size: 1
    weight_filler {
      type: "xavier"
      std: 0.09
    }
    bias_filler {
      type: "constant"
      value: 0.2
    }
  }
}
layer {
  name: "inception_4d/relu_3x3_reduce"
  type: "ReLU"
  bottom: "inception_4d/3x3_reduce"
  top: "inception_4d/3x3_reduce"
}
layer {
  name: "inception_4d/3x3"
  type: "Convolution"
  bottom: "inception_4d/3x3_reduce"
  top: "inception_4d/3x3"
  param {
    lr_mult: 1
    decay_mult: 1
  }
  param {
    lr_mult: 2
    decay_mult: 0
  }
  convolution_param {
    num_output: 288
    pad: 1
    kernel_size: 3
    weight_filler {
      type: "xavier"
      std: 0.03
    }
    bias_filler {
      type: "constant"
      value: 0.2
    }
  }
}
layer {
  name: "inception_4d/relu_3x3"
  type: "ReLU"
  bottom: "inception_4d/3x3"
  top: "inception_4d/3x3"
}
layer {
  name: "inception_4d/5x5_reduce"
  type: "Convolution"
  bottom: "inception_4c/output"
  top: "inception_4d/5x5_reduce"
  param {
    lr_mult: 1
    decay_mult: 1
  }
  param {
    lr_mult: 2
    decay_mult: 0
  }
  convolution_param {
    num_output: 32
    kernel_size: 1
    weight_filler {
      type: "xavier"
      std: 0.2
    }
    bias_filler {
      type: "constant"
      value: 0.2
    }
  }
}
layer {
  name: "inception_4d/relu_5x5_reduce"
  type: "ReLU"
  bottom: "inception_4d/5x5_reduce"
  top: "inception_4d/5x5_reduce"
}
layer {
  name: "inception_4d/5x5"
  type: "Convolution"
  bottom: "inception_4d/5x5_reduce"
  top: "inception_4d/5x5"
  param {
    lr_mult: 1
    decay_mult: 1
  }
  param {
    lr_mult: 2
    decay_mult: 0
  }
  convolution_param {
    num_output: 64
    pad: 2
    kernel_size: 5
    weight_filler {
      type: "xavier"
      std: 0.03
    }
    bias_filler {
      type: "constant"
      value: 0.2
    }
  }
}
layer {
  name: "inception_4d/relu_5x5"
  type: "ReLU"
  bottom: "inception_4d/5x5"
  top: "inception_4d/5x5"
}
layer {
  name: "inception_4d/pool"
  type: "Pooling"
  bottom: "inception_4c/output"
  top: "inception_4d/pool"
  pooling_param {
    pool: MAX
    kernel_size: 3
    stride: 1
    pad: 1
  }
}
layer {
  name: "inception_4d/pool_proj"
  type: "Convolution"
  bottom: "inception_4d/pool"
  top: "inception_4d/pool_proj"
  param {
    lr_mult: 1
    decay_mult: 1
  }
  param {
    lr_mult: 2
    decay_mult: 0
  }
  convolution_param {
    num_output: 64
    kernel_size: 1
    weight_filler {
      type: "xavier"
      std: 0.1
    }
    bias_filler {
      type: "constant"
      value: 0.2
    }
  }
}
layer {
  name: "inception_4d/relu_pool_proj"
  type: "ReLU"
  bottom: "inception_4d/pool_proj"
  top: "inception_4d/pool_proj"
}
layer {
  name: "inception_4d/output"
  type: "Concat"
  bottom: "inception_4d/1x1"
  bottom: "inception_4d/3x3"
  bottom: "inception_4d/5x5"
  bottom: "inception_4d/pool_proj"
  top: "inception_4d/output"
}
layer {
  name: "inception_4e/1x1"
  type: "Convolution"
  bottom: "inception_4d/output"
  top: "inception_4e/1x1"
  param {
    lr_mult: 1
    decay_mult: 1
  }
  param {
    lr_mult: 2
    decay_mult: 0
  }
  convolution_param {
    num_output: 256
    kernel_size: 1
    weight_filler {
      type: "xavier"
      std: 0.03
    }
    bias_filler {
      type: "constant"
      value: 0.2
    }
  }
}
layer {
  name: "inception_4e/relu_1x1"
  type: "ReLU"
  bottom: "inception_4e/1x1"
  top: "inception_4e/1x1"
}
layer {
  name: "inception_4e/3x3_reduce"
  type: "Convolution"
  bottom: "inception_4d/output"
  top: "inception_4e/3x3_reduce"
  param {
    lr_mult: 1
    decay_mult: 1
  }
  param {
    lr_mult: 2
    decay_mult: 0
  }
  convolution_param {
    num_output: 160
    kernel_size: 1
    weight_filler {
      type: "xavier"
      std: 0.09
    }
    bias_filler {
      type: "constant"
      value: 0.2
    }
  }
}
layer {
  name: "inception_4e/relu_3x3_reduce"
  type: "ReLU"
  bottom: "inception_4e/3x3_reduce"
  top: "inception_4e/3x3_reduce"
}
layer {
  name: "inception_4e/3x3"
  type: "Convolution"
  bottom: "inception_4e/3x3_reduce"
  top: "inception_4e/3x3"
  param {
    lr_mult: 1
    decay_mult: 1
  }
  param {
    lr_mult: 2
    decay_mult: 0
  }
  convolution_param {
    num_output: 320
    pad: 1
    kernel_size: 3
    weight_filler {
      type: "xavier"
      std: 0.03
    }
    bias_filler {
      type: "constant"
      value: 0.2
    }
  }
}
layer {
  name: "inception_4e/relu_3x3"
  type: "ReLU"
  bottom: "inception_4e/3x3"
  top: "inception_4e/3x3"
}
layer {
  name: "inception_4e/5x5_reduce"
  type: "Convolution"
  bottom: "inception_4d/output"
  top: "inception_4e/5x5_reduce"
  param {
    lr_mult: 1
    decay_mult: 1
  }
  param {
    lr_mult: 2
    decay_mult: 0
  }
  convolution_param {
    num_output: 32
    kernel_size: 1
    weight_filler {
      type: "xavier"
      std: 0.2
    }
    bias_filler {
      type: "constant"
      value: 0.2
    }
  }
}
layer {
  name: "inception_4e/relu_5x5_reduce"
  type: "ReLU"
  bottom: "inception_4e/5x5_reduce"
  top: "inception_4e/5x5_reduce"
}
layer {
  name: "inception_4e/5x5"
  type: "Convolution"
  bottom: "inception_4e/5x5_reduce"
  top: "inception_4e/5x5"
  param {
    lr_mult: 1
    decay_mult: 1
  }
  param {
    lr_mult: 2
    decay_mult: 0
  }
  convolution_param {
    num_output: 128
    pad: 2
    kernel_size: 5
    weight_filler {
      type: "xavier"
      std: 0.03
    }
    bias_filler {
      type: "constant"
      value: 0.2
    }
  }
}
layer {
  name: "inception_4e/relu_5x5"
  type: "ReLU"
  bottom: "inception_4e/5x5"
  top: "inception_4e/5x5"
}
layer {
  name: "inception_4e/pool"
  type: "Pooling"
  bottom: "inception_4d/output"
  top: "inception_4e/pool"
  pooling_param {
    pool: MAX
    kernel_size: 3
    stride: 1
    pad: 1
  }
}
layer {
  name: "inception_4e/pool_proj"
  type: "Convolution"
  bottom: "inception_4e/pool"
  top: "inception_4e/pool_proj"
  param {
    lr_mult: 1
    decay_mult: 1
  }
  param {
    lr_mult: 2
    decay_mult: 0
  }
  convolution_param {
    num_output: 128
    kernel_size: 1
    weight_filler {
      type: "xavier"
      std: 0.1
    }
    bias_filler {
      type: "constant"
      value: 0.2
    }
  }
}
layer {
  name: "inception_4e/relu_pool_proj"
  type: "ReLU"
  bottom: "inception_4e/pool_proj"
  top: "inception_4e/pool_proj"
}
layer {
  name: "inception_4e/output"
  type: "Concat"
  bottom: "inception_4e/1x1"
  bottom: "inception_4e/3x3"
  bottom: "inception_4e/5x5"
  bottom: "inception_4e/pool_proj"
  top: "inception_4e/output"
}
layer {
  name: "pool4/3x3_s2"
  type: "Pooling"
  bottom: "inception_4e/output"
  top: "pool4/3x3_s2"
  pooling_param {
    pool: MAX
    kernel_size: 3
    stride: 2
  }
}
layer {
  name: "inception_5a/1x1"
  type: "Convolution"
  bottom: "pool4/3x3_s2"
  top: "inception_5a/1x1"
  param {
    lr_mult: 1
    decay_mult: 1
  }
  param {
    lr_mult: 2
    decay_mult: 0
  }
  convolution_param {
    num_output: 256
    kernel_size: 1
    weight_filler {
      type: "xavier"
      std: 0.03
    }
    bias_filler {
      type: "constant"
      value: 0.2
    }
  }
}
layer {
  name: "inception_5a/relu_1x1"
  type: "ReLU"
  bottom: "inception_5a/1x1"
  top: "inception_5a/1x1"
}
layer {
  name: "inception_5a/3x3_reduce"
  type: "Convolution"
  bottom: "pool4/3x3_s2"
  top: "inception_5a/3x3_reduce"
  param {
    lr_mult: 1
    decay_mult: 1
  }
  param {
    lr_mult: 2
    decay_mult: 0
  }
  convolution_param {
    num_output: 160
    kernel_size: 1
    weight_filler {
      type: "xavier"
      std: 0.09
    }
    bias_filler {
      type: "constant"
      value: 0.2
    }
  }
}
layer {
  name: "inception_5a/relu_3x3_reduce"
  type: "ReLU"
  bottom: "inception_5a/3x3_reduce"
  top: "inception_5a/3x3_reduce"
}
layer {
  name: "inception_5a/3x3"
  type: "Convolution"
  bottom: "inception_5a/3x3_reduce"
  top: "inception_5a/3x3"
  param {
    lr_mult: 1
    decay_mult: 1
  }
  param {
    lr_mult: 2
    decay_mult: 0
  }
  convolution_param {
    num_output: 320
    pad: 1
    kernel_size: 3
    weight_filler {
      type: "xavier"
      std: 0.03
    }
    bias_filler {
      type: "constant"
      value: 0.2
    }
  }
}
layer {
  name: "inception_5a/relu_3x3"
  type: "ReLU"
  bottom: "inception_5a/3x3"
  top: "inception_5a/3x3"
}
layer {
  name: "inception_5a/5x5_reduce"
  type: "Convolution"
  bottom: "pool4/3x3_s2"
  top: "inception_5a/5x5_reduce"
  param {
    lr_mult: 1
    decay_mult: 1
  }
  param {
    lr_mult: 2
    decay_mult: 0
  }
  convolution_param {
    num_output: 32
    kernel_size: 1
    weight_filler {
      type: "xavier"
      std: 0.2
    }
    bias_filler {
      type: "constant"
      value: 0.2
    }
I0714 21:49:08.039387 10865 layer_factory.hpp:77] Creating layer data
I0714 21:49:08.039410 10865 net.cpp:91] Creating Layer data
I0714 21:49:08.039418 10865 net.cpp:399] data -> data
I0714 21:49:09.191133 10861 net.cpp:141] Setting up data
I0714 21:49:09.191243 10861 net.cpp:148] Top shape: 10 3 224 224 (1505280)
I0714 21:49:09.191251 10861 net.cpp:156] Memory required for data: 6021120
I0714 21:49:09.191282 10861 layer_factory.hpp:77] Creating layer conv1/7x7_s2
I0714 21:49:09.191339 10861 net.cpp:91] Creating Layer conv1/7x7_s2
I0714 21:49:09.191350 10861 net.cpp:425] conv1/7x7_s2 <- data
I0714 21:49:09.191370 10861 net.cpp:399] conv1/7x7_s2 -> conv1/7x7_s2
I0714 21:49:09.202533 10865 net.cpp:141] Setting up data
I0714 21:49:09.202574 10865 net.cpp:148] Top shape: 10 3 224 224 (1505280)
I0714 21:49:09.202585 10865 net.cpp:156] Memory required for data: 6021120
I0714 21:49:09.202597 10865 layer_factory.hpp:77] Creating layer conv1/7x7_s2
I0714 21:49:09.202631 10865 net.cpp:91] Creating Layer conv1/7x7_s2
I0714 21:49:09.202642 10865 net.cpp:425] conv1/7x7_s2 <- data
I0714 21:49:09.202658 10865 net.cpp:399] conv1/7x7_s2 -> conv1/7x7_s2
I0714 21:49:09.665194 10861 net.cpp:141] Setting up conv1/7x7_s2
I0714 21:49:09.665258 10861 net.cpp:148] Top shape: 10 64 112 112 (8028160)
I0714 21:49:09.665268 10861 net.cpp:156] Memory required for data: 38133760
I0714 21:49:09.665318 10861 layer_factory.hpp:77] Creating layer conv1/relu_7x7
I0714 21:49:09.665338 10861 net.cpp:91] Creating Layer conv1/relu_7x7
I0714 21:49:09.665347 10861 net.cpp:425] conv1/relu_7x7 <- conv1/7x7_s2
I0714 21:49:09.665357 10861 net.cpp:386] conv1/relu_7x7 -> conv1/7x7_s2 (in-place)
I0714 21:49:09.666354 10861 net.cpp:141] Setting up conv1/relu_7x7
I0714 21:49:09.666390 10861 net.cpp:148] Top shape: 10 64 112 112 (8028160)
I0714 21:49:09.666399 10861 net.cpp:156] Memory required for data: 70246400
I0714 21:49:09.666405 10861 layer_factory.hpp:77] Creating layer pool1/3x3_s2
I0714 21:49:09.666422 10861 net.cpp:91] Creating Layer pool1/3x3_s2
I0714 21:49:09.666443 10861 net.cpp:425] pool1/3x3_s2 <- conv1/7x7_s2
I0714 21:49:09.666455 10861 net.cpp:399] pool1/3x3_s2 -> pool1/3x3_s2
I0714 21:49:09.673212 10861 net.cpp:141] Setting up pool1/3x3_s2
I0714 21:49:09.673243 10861 net.cpp:148] Top shape: 10 64 56 56 (2007040)
I0714 21:49:09.673251 10861 net.cpp:156] Memory required for data: 78274560
I0714 21:49:09.673260 10861 layer_factory.hpp:77] Creating layer pool1/norm1
I0714 21:49:09.673282 10861 net.cpp:91] Creating Layer pool1/norm1
I0714 21:49:09.673291 10861 net.cpp:425] pool1/norm1 <- pool1/3x3_s2
I0714 21:49:09.673302 10861 net.cpp:399] pool1/norm1 -> pool1/norm1
I0714 21:49:09.675101 10861 net.cpp:141] Setting up pool1/norm1
I0714 21:49:09.675128 10861 net.cpp:148] Top shape: 10 64 56 56 (2007040)
I0714 21:49:09.675137 10861 net.cpp:156] Memory required for data: 86302720
I0714 21:49:09.675143 10861 layer_factory.hpp:77] Creating layer conv2/3x3_reduce
I0714 21:49:09.675168 10861 net.cpp:91] Creating Layer conv2/3x3_reduce
I0714 21:49:09.675176 10861 net.cpp:425] conv2/3x3_reduce <- pool1/norm1
I0714 21:49:09.675189 10861 net.cpp:399] conv2/3x3_reduce -> conv2/3x3_reduce
I0714 21:49:09.678164 10865 net.cpp:141] Setting up conv1/7x7_s2
I0714 21:49:09.678194 10865 net.cpp:148] Top shape: 10 64 112 112 (8028160)
I0714 21:49:09.678202 10865 net.cpp:156] Memory required for data: 38133760
I0714 21:49:09.678230 10865 layer_factory.hpp:77] Creating layer conv1/relu_7x7
I0714 21:49:09.678243 10865 net.cpp:91] Creating Layer conv1/relu_7x7
I0714 21:49:09.678252 10865 net.cpp:425] conv1/relu_7x7 <- conv1/7x7_s2
I0714 21:49:09.678262 10865 net.cpp:386] conv1/relu_7x7 -> conv1/7x7_s2 (in-place)
I0714 21:49:09.679180 10865 net.cpp:141] Setting up conv1/relu_7x7
I0714 21:49:09.679201 10865 net.cpp:148] Top shape: 10 64 112 112 (8028160)
I0714 21:49:09.679209 10865 net.cpp:156] Memory required for data: 70246400
I0714 21:49:09.679216 10865 layer_factory.hpp:77] Creating layer pool1/3x3_s2
I0714 21:49:09.679229 10865 net.cpp:91] Creating Layer pool1/3x3_s2
I0714 21:49:09.679235 10865 net.cpp:425] pool1/3x3_s2 <- conv1/7x7_s2
I0714 21:49:09.679244 10865 net.cpp:399] pool1/3x3_s2 -> pool1/3x3_s2
I0714 21:49:09.679649 10865 net.cpp:141] Setting up pool1/3x3_s2
I0714 21:49:09.679683 10865 net.cpp:148] Top shape: 10 64 56 56 (2007040)
I0714 21:49:09.679692 10865 net.cpp:156] Memory required for data: 78274560
I0714 21:49:09.679700 10865 layer_factory.hpp:77] Creating layer pool1/norm1
I0714 21:49:09.679718 10865 net.cpp:91] Creating Layer pool1/norm1
I0714 21:49:09.679728 10865 net.cpp:425] pool1/norm1 <- pool1/3x3_s2
I0714 21:49:09.679739 10865 net.cpp:399] pool1/norm1 -> pool1/norm1
I0714 21:49:09.680861 10861 net.cpp:141] Setting up conv2/3x3_reduce
I0714 21:49:09.680874 10865 net.cpp:141] Setting up pool1/norm1
I0714 21:49:09.680883 10861 net.cpp:148] Top shape: 10 64 56 56 (2007040)
I0714 21:49:09.680891 10861 net.cpp:156] Memory required for data: 94330880
I0714 21:49:09.680891 10865 net.cpp:148] Top shape: 10 64 56 56 (2007040)
I0714 21:49:09.680898 10865 net.cpp:156] Memory required for data: 86302720
I0714 21:49:09.680904 10865 layer_factory.hpp:77] Creating layer conv2/3x3_reduce
I0714 21:49:09.680907 10861 layer_factory.hpp:77] Creating layer conv2/relu_3x3_reduce
I0714 21:49:09.680918 10861 net.cpp:91] Creating Layer conv2/relu_3x3_reduce
I0714 21:49:09.680922 10865 net.cpp:91] Creating Layer conv2/3x3_reduce
I0714 21:49:09.680925 10861 net.cpp:425] conv2/relu_3x3_reduce <- conv2/3x3_reduce
I0714 21:49:09.680928 10865 net.cpp:425] conv2/3x3_reduce <- pool1/norm1
I0714 21:49:09.680933 10861 net.cpp:386] conv2/relu_3x3_reduce -> conv2/3x3_reduce (in-place)
I0714 21:49:09.680939 10865 net.cpp:399] conv2/3x3_reduce -> conv2/3x3_reduce
I0714 21:49:09.681867 10861 net.cpp:141] Setting up conv2/relu_3x3_reduce
I0714 21:49:09.681885 10861 net.cpp:148] Top shape: 10 64 56 56 (2007040)
I0714 21:49:09.681890 10861 net.cpp:156] Memory required for data: 102359040
I0714 21:49:09.681896 10861 layer_factory.hpp:77] Creating layer conv2/3x3
I0714 21:49:09.681913 10861 net.cpp:91] Creating Layer conv2/3x3
I0714 21:49:09.681920 10861 net.cpp:425] conv2/3x3 <- conv2/3x3_reduce
I0714 21:49:09.681931 10861 net.cpp:399] conv2/3x3 -> conv2/3x3
I0714 21:49:09.690176 10865 net.cpp:141] Setting up conv2/3x3_reduce
I0714 21:49:09.690246 10865 net.cpp:148] Top shape: 10 64 56 56 (2007040)
I0714 21:49:09.690273 10865 net.cpp:156] Memory required for data: 94330880
I0714 21:49:09.690294 10865 layer_factory.hpp:77] Creating layer conv2/relu_3x3_reduce
I0714 21:49:09.690310 10865 net.cpp:91] Creating Layer conv2/relu_3x3_reduce
I0714 21:49:09.690317 10865 net.cpp:425] conv2/relu_3x3_reduce <- conv2/3x3_reduce
I0714 21:49:09.690327 10865 net.cpp:386] conv2/relu_3x3_reduce -> conv2/3x3_reduce (in-place)
I0714 21:49:09.691507 10865 net.cpp:141] Setting up conv2/relu_3x3_reduce
I0714 21:49:09.691526 10865 net.cpp:148] Top shape: 10 64 56 56 (2007040)
I0714 21:49:09.691532 10865 net.cpp:156] Memory required for data: 102359040
I0714 21:49:09.691539 10865 layer_factory.hpp:77] Creating layer conv2/3x3
I0714 21:49:09.691558 10865 net.cpp:91] Creating Layer conv2/3x3
I0714 21:49:09.691565 10865 net.cpp:425] conv2/3x3 <- conv2/3x3_reduce
I0714 21:49:09.691576 10865 net.cpp:399] conv2/3x3 -> conv2/3x3
I0714 21:49:09.696305 10861 net.cpp:141] Setting up conv2/3x3
I0714 21:49:09.696331 10861 net.cpp:148] Top shape: 10 192 56 56 (6021120)
I0714 21:49:09.696336 10861 net.cpp:156] Memory required for data: 126443520
I0714 21:49:09.696352 10861 layer_factory.hpp:77] Creating layer conv2/relu_3x3
I0714 21:49:09.696364 10861 net.cpp:91] Creating Layer conv2/relu_3x3
I0714 21:49:09.696370 10861 net.cpp:425] conv2/relu_3x3 <- conv2/3x3
I0714 21:49:09.696379 10861 net.cpp:386] conv2/relu_3x3 -> conv2/3x3 (in-place)
I0714 21:49:09.696641 10861 net.cpp:141] Setting up conv2/relu_3x3
I0714 21:49:09.696655 10861 net.cpp:148] Top shape: 10 192 56 56 (6021120)
I0714 21:49:09.696660 10861 net.cpp:156] Memory required for data: 150528000
I0714 21:49:09.696666 10861 layer_factory.hpp:77] Creating layer conv2/norm2
I0714 21:49:09.696678 10861 net.cpp:91] Creating Layer conv2/norm2
I0714 21:49:09.696684 10861 net.cpp:425] conv2/norm2 <- conv2/3x3
I0714 21:49:09.696692 10861 net.cpp:399] conv2/norm2 -> conv2/norm2
I0714 21:49:09.698019 10861 net.cpp:141] Setting up conv2/norm2
I0714 21:49:09.698037 10861 net.cpp:148] Top shape: 10 192 56 56 (6021120)
I0714 21:49:09.698042 10861 net.cpp:156] Memory required for data: 174612480
I0714 21:49:09.698050 10861 layer_factory.hpp:77] Creating layer pool2/3x3_s2
I0714 21:49:09.698060 10861 net.cpp:91] Creating Layer pool2/3x3_s2
I0714 21:49:09.698065 10861 net.cpp:425] pool2/3x3_s2 <- conv2/norm2
I0714 21:49:09.698076 10861 net.cpp:399] pool2/3x3_s2 -> pool2/3x3_s2
I0714 21:49:09.698259 10861 net.cpp:141] Setting up pool2/3x3_s2
I0714 21:49:09.698271 10861 net.cpp:148] Top shape: 10 192 28 28 (1505280)
I0714 21:49:09.698277 10861 net.cpp:156] Memory required for data: 180633600
I0714 21:49:09.698282 10861 layer_factory.hpp:77] Creating layer pool2/3x3_s2_pool2/3x3_s2_0_split
I0714 21:49:09.698303 10861 net.cpp:91] Creating Layer pool2/3x3_s2_pool2/3x3_s2_0_split
I0714 21:49:09.698309 10861 net.cpp:425] pool2/3x3_s2_pool2/3x3_s2_0_split <- pool2/3x3_s2
I0714 21:49:09.698318 10861 net.cpp:399] pool2/3x3_s2_pool2/3x3_s2_0_split -> pool2/3x3_s2_pool2/3x3_s2_0_split_0
I0714 21:49:09.698330 10861 net.cpp:399] pool2/3x3_s2_pool2/3x3_s2_0_split -> pool2/3x3_s2_pool2/3x3_s2_0_split_1
I0714 21:49:09.698340 10861 net.cpp:399] pool2/3x3_s2_pool2/3x3_s2_0_split -> pool2/3x3_s2_pool2/3x3_s2_0_split_2
I0714 21:49:09.698349 10861 net.cpp:399] pool2/3x3_s2_pool2/3x3_s2_0_split -> pool2/3x3_s2_pool2/3x3_s2_0_split_3
I0714 21:49:09.699512 10861 net.cpp:141] Setting up pool2/3x3_s2_pool2/3x3_s2_0_split
I0714 21:49:09.699529 10861 net.cpp:148] Top shape: 10 192 28 28 (1505280)
I0714 21:49:09.699537 10861 net.cpp:148] Top shape: 10 192 28 28 (1505280)
I0714 21:49:09.699542 10861 net.cpp:148] Top shape: 10 192 28 28 (1505280)
I0714 21:49:09.699548 10861 net.cpp:148] Top shape: 10 192 28 28 (1505280)
I0714 21:49:09.699553 10861 net.cpp:156] Memory required for data: 204718080
I0714 21:49:09.699558 10861 layer_factory.hpp:77] Creating layer inception_3a/1x1
I0714 21:49:09.699573 10861 net.cpp:91] Creating Layer inception_3a/1x1
I0714 21:49:09.699579 10861 net.cpp:425] inception_3a/1x1 <- pool2/3x3_s2_pool2/3x3_s2_0_split_0
I0714 21:49:09.699607 10861 net.cpp:399] inception_3a/1x1 -> inception_3a/1x1
I0714 21:49:09.702152 10865 net.cpp:141] Setting up conv2/3x3
I0714 21:49:09.702180 10865 net.cpp:148] Top shape: 10 192 56 56 (6021120)
I0714 21:49:09.702188 10865 net.cpp:156] Memory required for data: 126443520
I0714 21:49:09.702208 10865 layer_factory.hpp:77] Creating layer conv2/relu_3x3
I0714 21:49:09.702222 10865 net.cpp:91] Creating Layer conv2/relu_3x3
I0714 21:49:09.702230 10865 net.cpp:425] conv2/relu_3x3 <- conv2/3x3
I0714 21:49:09.702241 10865 net.cpp:386] conv2/relu_3x3 -> conv2/3x3 (in-place)
I0714 21:49:09.702798 10865 net.cpp:141] Setting up conv2/relu_3x3
I0714 21:49:09.702817 10865 net.cpp:148] Top shape: 10 192 56 56 (6021120)
I0714 21:49:09.702822 10865 net.cpp:156] Memory required for data: 150528000
I0714 21:49:09.702829 10865 layer_factory.hpp:77] Creating layer conv2/norm2
I0714 21:49:09.702843 10865 net.cpp:91] Creating Layer conv2/norm2
I0714 21:49:09.702849 10865 net.cpp:425] conv2/norm2 <- conv2/3x3
I0714 21:49:09.702859 10865 net.cpp:399] conv2/norm2 -> conv2/norm2
I0714 21:49:09.704536 10865 net.cpp:141] Setting up conv2/norm2
I0714 21:49:09.704558 10865 net.cpp:148] Top shape: 10 192 56 56 (6021120)
I0714 21:49:09.704566 10865 net.cpp:156] Memory required for data: 174612480
I0714 21:49:09.704572 10865 layer_factory.hpp:77] Creating layer pool2/3x3_s2
I0714 21:49:09.704586 10865 net.cpp:91] Creating Layer pool2/3x3_s2
I0714 21:49:09.704594 10865 net.cpp:425] pool2/3x3_s2 <- conv2/norm2
I0714 21:49:09.704619 10865 net.cpp:399] pool2/3x3_s2 -> pool2/3x3_s2
I0714 21:49:09.704902 10865 net.cpp:141] Setting up pool2/3x3_s2
I0714 21:49:09.704916 10865 net.cpp:148] Top shape: 10 192 28 28 (1505280)
I0714 21:49:09.704921 10865 net.cpp:156] Memory required for data: 180633600
I0714 21:49:09.704927 10865 layer_factory.hpp:77] Creating layer pool2/3x3_s2_pool2/3x3_s2_0_split
I0714 21:49:09.704938 10865 net.cpp:91] Creating Layer pool2/3x3_s2_pool2/3x3_s2_0_split
I0714 21:49:09.704944 10865 net.cpp:425] pool2/3x3_s2_pool2/3x3_s2_0_split <- pool2/3x3_s2
I0714 21:49:09.704953 10865 net.cpp:399] pool2/3x3_s2_pool2/3x3_s2_0_split -> pool2/3x3_s2_pool2/3x3_s2_0_split_0
I0714 21:49:09.704967 10865 net.cpp:399] pool2/3x3_s2_pool2/3x3_s2_0_split -> pool2/3x3_s2_pool2/3x3_s2_0_split_1
I0714 21:49:09.704977 10865 net.cpp:399] pool2/3x3_s2_pool2/3x3_s2_0_split -> pool2/3x3_s2_pool2/3x3_s2_0_split_2
I0714 21:49:09.704987 10865 net.cpp:399] pool2/3x3_s2_pool2/3x3_s2_0_split -> pool2/3x3_s2_pool2/3x3_s2_0_split_3
I0714 21:49:09.707582 10861 net.cpp:141] Setting up inception_3a/1x1
I0714 21:49:09.707607 10861 net.cpp:148] Top shape: 10 64 28 28 (501760)
I0714 21:49:09.707613 10861 net.cpp:156] Memory required for data: 206725120
I0714 21:49:09.707624 10861 layer_factory.hpp:77] Creating layer inception_3a/relu_1x1
I0714 21:49:09.707635 10861 net.cpp:91] Creating Layer inception_3a/relu_1x1
I0714 21:49:09.707641 10861 net.cpp:425] inception_3a/relu_1x1 <- inception_3a/1x1
I0714 21:49:09.707650 10861 net.cpp:386] inception_3a/relu_1x1 -> inception_3a/1x1 (in-place)
I0714 21:49:09.707679 10865 net.cpp:141] Setting up pool2/3x3_s2_pool2/3x3_s2_0_split
I0714 21:49:09.707706 10865 net.cpp:148] Top shape: 10 192 28 28 (1505280)
I0714 21:49:09.707716 10865 net.cpp:148] Top shape: 10 192 28 28 (1505280)
I0714 21:49:09.707723 10865 net.cpp:148] Top shape: 10 192 28 28 (1505280)
I0714 21:49:09.707731 10865 net.cpp:148] Top shape: 10 192 28 28 (1505280)
I0714 21:49:09.707737 10865 net.cpp:156] Memory required for data: 204718080
I0714 21:49:09.707744 10865 layer_factory.hpp:77] Creating layer inception_3a/1x1
I0714 21:49:09.707767 10865 net.cpp:91] Creating Layer inception_3a/1x1
I0714 21:49:09.707774 10865 net.cpp:425] inception_3a/1x1 <- pool2/3x3_s2_pool2/3x3_s2_0_split_0
I0714 21:49:09.707789 10865 net.cpp:399] inception_3a/1x1 -> inception_3a/1x1
I0714 21:49:09.708120 10861 net.cpp:141] Setting up inception_3a/relu_1x1
I0714 21:49:09.708135 10861 net.cpp:148] Top shape: 10 64 28 28 (501760)
I0714 21:49:09.708142 10861 net.cpp:156] Memory required for data: 208732160
I0714 21:49:09.708148 10861 layer_factory.hpp:77] Creating layer inception_3a/3x3_reduce
I0714 21:49:09.708163 10861 net.cpp:91] Creating Layer inception_3a/3x3_reduce
I0714 21:49:09.708170 10861 net.cpp:425] inception_3a/3x3_reduce <- pool2/3x3_s2_pool2/3x3_s2_0_split_1
I0714 21:49:09.708181 10861 net.cpp:399] inception_3a/3x3_reduce -> inception_3a/3x3_reduce
I0714 21:49:09.717377 10865 net.cpp:141] Setting up inception_3a/1x1
I0714 21:49:09.717406 10865 net.cpp:148] Top shape: 10 64 28 28 (501760)
I0714 21:49:09.717412 10865 net.cpp:156] Memory required for data: 206725120
I0714 21:49:09.717427 10865 layer_factory.hpp:77] Creating layer inception_3a/relu_1x1
I0714 21:49:09.717453 10865 net.cpp:91] Creating Layer inception_3a/relu_1x1
I0714 21:49:09.717460 10865 net.cpp:425] inception_3a/relu_1x1 <- inception_3a/1x1
I0714 21:49:09.717470 10865 net.cpp:386] inception_3a/relu_1x1 -> inception_3a/1x1 (in-place)
I0714 21:49:09.717504 10861 net.cpp:141] Setting up inception_3a/3x3_reduce
I0714 21:49:09.717525 10861 net.cpp:148] Top shape: 10 96 28 28 (752640)
I0714 21:49:09.717531 10861 net.cpp:156] Memory required for data: 211742720
I0714 21:49:09.717547 10861 layer_factory.hpp:77] Creating layer inception_3a/relu_3x3_reduce
I0714 21:49:09.717561 10861 net.cpp:91] Creating Layer inception_3a/relu_3x3_reduce
I0714 21:49:09.717567 10861 net.cpp:425] inception_3a/relu_3x3_reduce <- inception_3a/3x3_reduce
I0714 21:49:09.717576 10861 net.cpp:386] inception_3a/relu_3x3_reduce -> inception_3a/3x3_reduce (in-place)
I0714 21:49:09.717869 10865 net.cpp:141] Setting up inception_3a/relu_1x1
I0714 21:49:09.717885 10865 net.cpp:148] Top shape: 10 64 28 28 (501760)
I0714 21:49:09.717890 10865 net.cpp:156] Memory required for data: 208732160
I0714 21:49:09.717896 10865 layer_factory.hpp:77] Creating layer inception_3a/3x3_reduce
I0714 21:49:09.717914 10865 net.cpp:91] Creating Layer inception_3a/3x3_reduce
I0714 21:49:09.717921 10865 net.cpp:425] inception_3a/3x3_reduce <- pool2/3x3_s2_pool2/3x3_s2_0_split_1
I0714 21:49:09.717934 10865 net.cpp:399] inception_3a/3x3_reduce -> inception_3a/3x3_reduce
I0714 21:49:09.718001 10861 net.cpp:141] Setting up inception_3a/relu_3x3_reduce
I0714 21:49:09.718015 10861 net.cpp:148] Top shape: 10 96 28 28 (752640)
I0714 21:49:09.718020 10861 net.cpp:156] Memory required for data: 214753280
I0714 21:49:09.718026 10861 layer_factory.hpp:77] Creating layer inception_3a/3x3
I0714 21:49:09.718047 10861 net.cpp:91] Creating Layer inception_3a/3x3
I0714 21:49:09.718057 10861 net.cpp:425] inception_3a/3x3 <- inception_3a/3x3_reduce
I0714 21:49:09.718068 10861 net.cpp:399] inception_3a/3x3 -> inception_3a/3x3
I0714 21:49:09.724694 10865 net.cpp:141] Setting up inception_3a/3x3_reduce
I0714 21:49:09.724719 10865 net.cpp:148] Top shape: 10 96 28 28 (752640)
I0714 21:49:09.724725 10865 net.cpp:156] Memory required for data: 211742720
I0714 21:49:09.724761 10865 layer_factory.hpp:77] Creating layer inception_3a/relu_3x3_reduce
I0714 21:49:09.724771 10865 net.cpp:91] Creating Layer inception_3a/relu_3x3_reduce
I0714 21:49:09.724777 10865 net.cpp:425] inception_3a/relu_3x3_reduce <- inception_3a/3x3_reduce
I0714 21:49:09.724786 10865 net.cpp:386] inception_3a/relu_3x3_reduce -> inception_3a/3x3_reduce (in-place)
I0714 21:49:09.725239 10865 net.cpp:141] Setting up inception_3a/relu_3x3_reduce
I0714 21:49:09.725245 10861 net.cpp:141] Setting up inception_3a/3x3
I0714 21:49:09.725255 10865 net.cpp:148] Top shape: 10 96 28 28 (752640)
I0714 21:49:09.725268 10861 net.cpp:148] Top shape: 10 128 28 28 (1003520)
I0714 21:49:09.725270 10865 net.cpp:156] Memory required for data: 214753280
I0714 21:49:09.725278 10861 net.cpp:156] Memory required for data: 218767360
I0714 21:49:09.725283 10865 layer_factory.hpp:77] Creating layer inception_3a/3x3
I0714 21:49:09.725289 10861 layer_factory.hpp:77] Creating layer inception_3a/relu_3x3
I0714 21:49:09.725301 10861 net.cpp:91] Creating Layer inception_3a/relu_3x3
I0714 21:49:09.725303 10865 net.cpp:91] Creating Layer inception_3a/3x3
I0714 21:49:09.725306 10861 net.cpp:425] inception_3a/relu_3x3 <- inception_3a/3x3
I0714 21:49:09.725311 10865 net.cpp:425] inception_3a/3x3 <- inception_3a/3x3_reduce
I0714 21:49:09.725317 10861 net.cpp:386] inception_3a/relu_3x3 -> inception_3a/3x3 (in-place)
I0714 21:49:09.725327 10865 net.cpp:399] inception_3a/3x3 -> inception_3a/3x3
I0714 21:49:09.726321 10861 net.cpp:141] Setting up inception_3a/relu_3x3
I0714 21:49:09.726339 10861 net.cpp:148] Top shape: 10 128 28 28 (1003520)
I0714 21:49:09.726346 10861 net.cpp:156] Memory required for data: 222781440
I0714 21:49:09.726351 10861 layer_factory.hpp:77] Creating layer inception_3a/5x5_reduce
I0714 21:49:09.726369 10861 net.cpp:91] Creating Layer inception_3a/5x5_reduce
I0714 21:49:09.726377 10861 net.cpp:425] inception_3a/5x5_reduce <- pool2/3x3_s2_pool2/3x3_s2_0_split_2
I0714 21:49:09.726390 10861 net.cpp:399] inception_3a/5x5_reduce -> inception_3a/5x5_reduce
I0714 21:49:09.730623 10861 net.cpp:141] Setting up inception_3a/5x5_reduce
I0714 21:49:09.730643 10861 net.cpp:148] Top shape: 10 16 28 28 (125440)
I0714 21:49:09.730648 10861 net.cpp:156] Memory required for data: 223283200
I0714 21:49:09.730659 10861 layer_factory.hpp:77] Creating layer inception_3a/relu_5x5_reduce
I0714 21:49:09.730669 10861 net.cpp:91] Creating Layer inception_3a/relu_5x5_reduce
I0714 21:49:09.730674 10861 net.cpp:425] inception_3a/relu_5x5_reduce <- inception_3a/5x5_reduce
I0714 21:49:09.730698 10861 net.cpp:386] inception_3a/relu_5x5_reduce -> inception_3a/5x5_reduce (in-place)
I0714 21:49:09.731227 10861 net.cpp:141] Setting up inception_3a/relu_5x5_reduce
I0714 21:49:09.731245 10861 net.cpp:148] Top shape: 10 16 28 28 (125440)
I0714 21:49:09.731251 10861 net.cpp:156] Memory required for data: 223784960
I0714 21:49:09.731256 10861 layer_factory.hpp:77] Creating layer inception_3a/5x5
I0714 21:49:09.731274 10861 net.cpp:91] Creating Layer inception_3a/5x5
I0714 21:49:09.731281 10861 net.cpp:425] inception_3a/5x5 <- inception_3a/5x5_reduce
I0714 21:49:09.731292 10861 net.cpp:399] inception_3a/5x5 -> inception_3a/5x5
I0714 21:49:09.731313 10865 net.cpp:141] Setting up inception_3a/3x3
I0714 21:49:09.731333 10865 net.cpp:148] Top shape: 10 128 28 28 (1003520)
I0714 21:49:09.731338 10865 net.cpp:156] Memory required for data: 218767360
I0714 21:49:09.731350 10865 layer_factory.hpp:77] Creating layer inception_3a/relu_3x3
I0714 21:49:09.731361 10865 net.cpp:91] Creating Layer inception_3a/relu_3x3
I0714 21:49:09.731369 10865 net.cpp:425] inception_3a/relu_3x3 <- inception_3a/3x3
I0714 21:49:09.731380 10865 net.cpp:386] inception_3a/relu_3x3 -> inception_3a/3x3 (in-place)
I0714 21:49:09.732455 10865 net.cpp:141] Setting up inception_3a/relu_3x3
I0714 21:49:09.732476 10865 net.cpp:148] Top shape: 10 128 28 28 (1003520)
I0714 21:49:09.732482 10865 net.cpp:156] Memory required for data: 222781440
I0714 21:49:09.732488 10865 layer_factory.hpp:77] Creating layer inception_3a/5x5_reduce
I0714 21:49:09.732506 10865 net.cpp:91] Creating Layer inception_3a/5x5_reduce
I0714 21:49:09.732528 10865 net.cpp:425] inception_3a/5x5_reduce <- pool2/3x3_s2_pool2/3x3_s2_0_split_2
I0714 21:49:09.732542 10865 net.cpp:399] inception_3a/5x5_reduce -> inception_3a/5x5_reduce
I0714 21:49:09.737853 10861 net.cpp:141] Setting up inception_3a/5x5
I0714 21:49:09.737875 10861 net.cpp:148] Top shape: 10 32 28 28 (250880)
I0714 21:49:09.737881 10861 net.cpp:156] Memory required for data: 224788480
I0714 21:49:09.737892 10861 layer_factory.hpp:77] Creating layer inception_3a/relu_5x5
I0714 21:49:09.737905 10861 net.cpp:91] Creating Layer inception_3a/relu_5x5
I0714 21:49:09.737912 10861 net.cpp:425] inception_3a/relu_5x5 <- inception_3a/5x5
I0714 21:49:09.737921 10861 net.cpp:386] inception_3a/relu_5x5 -> inception_3a/5x5 (in-place)
I0714 21:49:09.738257 10865 net.cpp:141] Setting up inception_3a/5x5_reduce
I0714 21:49:09.738277 10865 net.cpp:148] Top shape: 10 16 28 28 (125440)
I0714 21:49:09.738283 10865 net.cpp:156] Memory required for data: 223283200
I0714 21:49:09.738286 10861 net.cpp:141] Setting up inception_3a/relu_5x5
I0714 21:49:09.738296 10865 layer_factory.hpp:77] Creating layer inception_3a/relu_5x5_reduce
I0714 21:49:09.738303 10861 net.cpp:148] Top shape: 10 32 28 28 (250880)
I0714 21:49:09.738309 10861 net.cpp:156] Memory required for data: 225792000
I0714 21:49:09.738309 10865 net.cpp:91] Creating Layer inception_3a/relu_5x5_reduce
I0714 21:49:09.738314 10861 layer_factory.hpp:77] Creating layer inception_3a/pool
I0714 21:49:09.738318 10865 net.cpp:425] inception_3a/relu_5x5_reduce <- inception_3a/5x5_reduce
I0714 21:49:09.738325 10861 net.cpp:91] Creating Layer inception_3a/pool
I0714 21:49:09.738327 10865 net.cpp:386] inception_3a/relu_5x5_reduce -> inception_3a/5x5_reduce (in-place)
I0714 21:49:09.738332 10861 net.cpp:425] inception_3a/pool <- pool2/3x3_s2_pool2/3x3_s2_0_split_3
I0714 21:49:09.738343 10861 net.cpp:399] inception_3a/pool -> inception_3a/pool
I0714 21:49:09.738637 10861 net.cpp:141] Setting up inception_3a/pool
I0714 21:49:09.738651 10861 net.cpp:148] Top shape: 10 192 28 28 (1505280)
I0714 21:49:09.738656 10861 net.cpp:156] Memory required for data: 231813120
I0714 21:49:09.738661 10861 layer_factory.hpp:77] Creating layer inception_3a/pool_proj
I0714 21:49:09.738679 10861 net.cpp:91] Creating Layer inception_3a/pool_proj
I0714 21:49:09.738698 10861 net.cpp:425] inception_3a/pool_proj <- inception_3a/pool
I0714 21:49:09.738708 10861 net.cpp:399] inception_3a/pool_proj -> inception_3a/pool_proj
I0714 21:49:09.738720 10865 net.cpp:141] Setting up inception_3a/relu_5x5_reduce
I0714 21:49:09.738734 10865 net.cpp:148] Top shape: 10 16 28 28 (125440)
I0714 21:49:09.738739 10865 net.cpp:156] Memory required for data: 223784960
I0714 21:49:09.738745 10865 layer_factory.hpp:77] Creating layer inception_3a/5x5
I0714 21:49:09.738770 10865 net.cpp:91] Creating Layer inception_3a/5x5
I0714 21:49:09.738777 10865 net.cpp:425] inception_3a/5x5 <- inception_3a/5x5_reduce
I0714 21:49:09.738788 10865 net.cpp:399] inception_3a/5x5 -> inception_3a/5x5
I0714 21:49:09.742749 10861 net.cpp:141] Setting up inception_3a/pool_proj
I0714 21:49:09.742770 10861 net.cpp:148] Top shape: 10 32 28 28 (250880)
I0714 21:49:09.742776 10861 net.cpp:156] Memory required for data: 232816640
I0714 21:49:09.742795 10861 layer_factory.hpp:77] Creating layer inception_3a/relu_pool_proj
I0714 21:49:09.742806 10861 net.cpp:91] Creating Layer inception_3a/relu_pool_proj
I0714 21:49:09.742812 10861 net.cpp:425] inception_3a/relu_pool_proj <- inception_3a/pool_proj
I0714 21:49:09.742823 10861 net.cpp:386] inception_3a/relu_pool_proj -> inception_3a/pool_proj (in-place)
I0714 21:49:09.744137 10861 net.cpp:141] Setting up inception_3a/relu_pool_proj
I0714 21:49:09.744156 10861 net.cpp:148] Top shape: 10 32 28 28 (250880)
I0714 21:49:09.744161 10861 net.cpp:156] Memory required for data: 233820160
I0714 21:49:09.744168 10861 layer_factory.hpp:77] Creating layer inception_3a/output
I0714 21:49:09.744185 10861 net.cpp:91] Creating Layer inception_3a/output
I0714 21:49:09.744191 10861 net.cpp:425] inception_3a/output <- inception_3a/1x1
I0714 21:49:09.744199 10861 net.cpp:425] inception_3a/output <- inception_3a/3x3
I0714 21:49:09.744205 10861 net.cpp:425] inception_3a/output <- inception_3a/5x5
I0714 21:49:09.744211 10861 net.cpp:425] inception_3a/output <- inception_3a/pool_proj
I0714 21:49:09.744221 10861 net.cpp:399] inception_3a/output -> inception_3a/output
I0714 21:49:09.744621 10861 net.cpp:141] Setting up inception_3a/output
I0714 21:49:09.744633 10861 net.cpp:148] Top shape: 10 256 28 28 (2007040)
I0714 21:49:09.744638 10861 net.cpp:156] Memory required for data: 241848320
I0714 21:49:09.744650 10861 layer_factory.hpp:77] Creating layer inception_3a/output_inception_3a/output_0_split
I0714 21:49:09.744663 10861 net.cpp:91] Creating Layer inception_3a/output_inception_3a/output_0_split
I0714 21:49:09.744668 10861 net.cpp:425] inception_3a/output_inception_3a/output_0_split <- inception_3a/output
I0714 21:49:09.744675 10861 net.cpp:399] inception_3a/output_inception_3a/output_0_split -> inception_3a/output_inception_3a/output_0_split_0
I0714 21:49:09.744685 10861 net.cpp:399] inception_3a/output_inception_3a/output_0_split -> inception_3a/output_inception_3a/output_0_split_1
I0714 21:49:09.744695 10861 net.cpp:399] inception_3a/output_inception_3a/output_0_split -> inception_3a/output_inception_3a/output_0_split_2
I0714 21:49:09.744704 10861 net.cpp:399] inception_3a/output_inception_3a/output_0_split -> inception_3a/output_inception_3a/output_0_split_3
I0714 21:49:09.745064 10861 net.cpp:141] Setting up inception_3a/output_inception_3a/output_0_split
I0714 21:49:09.745076 10861 net.cpp:148] Top shape: 10 256 28 28 (2007040)
I0714 21:49:09.745084 10861 net.cpp:148] Top shape: 10 256 28 28 (2007040)
I0714 21:49:09.745090 10861 net.cpp:148] Top shape: 10 256 28 28 (2007040)
I0714 21:49:09.745095 10861 net.cpp:148] Top shape: 10 256 28 28 (2007040)
I0714 21:49:09.745100 10861 net.cpp:156] Memory required for data: 273960960
I0714 21:49:09.745105 10861 layer_factory.hpp:77] Creating layer inception_3b/1x1
I0714 21:49:09.745126 10861 net.cpp:91] Creating Layer inception_3b/1x1
I0714 21:49:09.745131 10861 net.cpp:425] inception_3b/1x1 <- inception_3a/output_inception_3a/output_0_split_0
I0714 21:49:09.745141 10861 net.cpp:399] inception_3b/1x1 -> inception_3b/1x1
I0714 21:49:09.745975 10865 net.cpp:141] Setting up inception_3a/5x5
I0714 21:49:09.746006 10865 net.cpp:148] Top shape: 10 32 28 28 (250880)
I0714 21:49:09.746012 10865 net.cpp:156] Memory required for data: 224788480
I0714 21:49:09.746024 10865 layer_factory.hpp:77] Creating layer inception_3a/relu_5x5
I0714 21:49:09.746036 10865 net.cpp:91] Creating Layer inception_3a/relu_5x5
I0714 21:49:09.746042 10865 net.cpp:425] inception_3a/relu_5x5 <- inception_3a/5x5
I0714 21:49:09.746054 10865 net.cpp:386] inception_3a/relu_5x5 -> inception_3a/5x5 (in-place)
I0714 21:49:09.746469 10865 net.cpp:141] Setting up inception_3a/relu_5x5
I0714 21:49:09.746485 10865 net.cpp:148] Top shape: 10 32 28 28 (250880)
I0714 21:49:09.746491 10865 net.cpp:156] Memory required for data: 225792000
I0714 21:49:09.746497 10865 layer_factory.hpp:77] Creating layer inception_3a/pool
I0714 21:49:09.746516 10865 net.cpp:91] Creating Layer inception_3a/pool
I0714 21:49:09.746522 10865 net.cpp:425] inception_3a/pool <- pool2/3x3_s2_pool2/3x3_s2_0_split_3
I0714 21:49:09.746532 10865 net.cpp:399] inception_3a/pool -> inception_3a/pool
I0714 21:49:09.746644 10865 net.cpp:141] Setting up inception_3a/pool
I0714 21:49:09.746656 10865 net.cpp:148] Top shape: 10 192 28 28 (1505280)
I0714 21:49:09.746661 10865 net.cpp:156] Memory required for data: 231813120
I0714 21:49:09.746666 10865 layer_factory.hpp:77] Creating layer inception_3a/pool_proj
I0714 21:49:09.746703 10865 net.cpp:91] Creating Layer inception_3a/pool_proj
I0714 21:49:09.746712 10865 net.cpp:425] inception_3a/pool_proj <- inception_3a/pool
I0714 21:49:09.746723 10865 net.cpp:399] inception_3a/pool_proj -> inception_3a/pool_proj
I0714 21:49:09.750584 10861 net.cpp:141] Setting up inception_3b/1x1
I0714 21:49:09.750605 10861 net.cpp:148] Top shape: 10 128 28 28 (1003520)
I0714 21:49:09.750612 10861 net.cpp:156] Memory required for data: 277975040
I0714 21:49:09.750622 10861 layer_factory.hpp:77] Creating layer inception_3b/relu_1x1
I0714 21:49:09.750633 10861 net.cpp:91] Creating Layer inception_3b/relu_1x1
I0714 21:49:09.750639 10861 net.cpp:425] inception_3b/relu_1x1 <- inception_3b/1x1
I0714 21:49:09.750653 10861 net.cpp:386] inception_3b/relu_1x1 -> inception_3b/1x1 (in-place)
I0714 21:49:09.751071 10861 net.cpp:141] Setting up inception_3b/relu_1x1
I0714 21:49:09.751090 10861 net.cpp:148] Top shape: 10 128 28 28 (1003520)
I0714 21:49:09.751096 10861 net.cpp:156] Memory required for data: 281989120
I0714 21:49:09.751101 10861 layer_factory.hpp:77] Creating layer inception_3b/3x3_reduce
I0714 21:49:09.751118 10861 net.cpp:91] Creating Layer inception_3b/3x3_reduce
I0714 21:49:09.751126 10861 net.cpp:425] inception_3b/3x3_reduce <- inception_3a/output_inception_3a/output_0_split_1
I0714 21:49:09.751135 10861 net.cpp:399] inception_3b/3x3_reduce -> inception_3b/3x3_reduce
I0714 21:49:09.751157 10865 net.cpp:141] Setting up inception_3a/pool_proj
I0714 21:49:09.751173 10865 net.cpp:148] Top shape: 10 32 28 28 (250880)
I0714 21:49:09.751179 10865 net.cpp:156] Memory required for data: 232816640
I0714 21:49:09.751199 10865 layer_factory.hpp:77] Creating layer inception_3a/relu_pool_proj
I0714 21:49:09.751209 10865 net.cpp:91] Creating Layer inception_3a/relu_pool_proj
I0714 21:49:09.751215 10865 net.cpp:425] inception_3a/relu_pool_proj <- inception_3a/pool_proj
I0714 21:49:09.751224 10865 net.cpp:386] inception_3a/relu_pool_proj -> inception_3a/pool_proj (in-place)
I0714 21:49:09.752228 10865 net.cpp:141] Setting up inception_3a/relu_pool_proj
I0714 21:49:09.752245 10865 net.cpp:148] Top shape: 10 32 28 28 (250880)
I0714 21:49:09.752251 10865 net.cpp:156] Memory required for data: 233820160
I0714 21:49:09.752256 10865 layer_factory.hpp:77] Creating layer inception_3a/output
I0714 21:49:09.752266 10865 net.cpp:91] Creating Layer inception_3a/output
I0714 21:49:09.752276 10865 net.cpp:425] inception_3a/output <- inception_3a/1x1
I0714 21:49:09.752290 10865 net.cpp:425] inception_3a/output <- inception_3a/3x3
I0714 21:49:09.752301 10865 net.cpp:425] inception_3a/output <- inception_3a/5x5
I0714 21:49:09.752308 10865 net.cpp:425] inception_3a/output <- inception_3a/pool_proj
I0714 21:49:09.752321 10865 net.cpp:399] inception_3a/output -> inception_3a/output
I0714 21:49:09.752393 10865 net.cpp:141] Setting up inception_3a/output
I0714 21:49:09.752403 10865 net.cpp:148] Top shape: 10 256 28 28 (2007040)
I0714 21:49:09.752408 10865 net.cpp:156] Memory required for data: 241848320
I0714 21:49:09.752414 10865 layer_factory.hpp:77] Creating layer inception_3a/output_inception_3a/output_0_split
I0714 21:49:09.752424 10865 net.cpp:91] Creating Layer inception_3a/output_inception_3a/output_0_split
I0714 21:49:09.752429 10865 net.cpp:425] inception_3a/output_inception_3a/output_0_split <- inception_3a/output
I0714 21:49:09.752441 10865 net.cpp:399] inception_3a/output_inception_3a/output_0_split -> inception_3a/output_inception_3a/output_0_split_0
I0714 21:49:09.752451 10865 net.cpp:399] inception_3a/output_inception_3a/output_0_split -> inception_3a/output_inception_3a/output_0_split_1
I0714 21:49:09.752462 10865 net.cpp:399] inception_3a/output_inception_3a/output_0_split -> inception_3a/output_inception_3a/output_0_split_2
I0714 21:49:09.752471 10865 net.cpp:399] inception_3a/output_inception_3a/output_0_split -> inception_3a/output_inception_3a/output_0_split_3
I0714 21:49:09.752648 10865 net.cpp:141] Setting up inception_3a/output_inception_3a/output_0_split
I0714 21:49:09.752660 10865 net.cpp:148] Top shape: 10 256 28 28 (2007040)
I0714 21:49:09.752667 10865 net.cpp:148] Top shape: 10 256 28 28 (2007040)
I0714 21:49:09.752673 10865 net.cpp:148] Top shape: 10 256 28 28 (2007040)
I0714 21:49:09.752679 10865 net.cpp:148] Top shape: 10 256 28 28 (2007040)
I0714 21:49:09.752683 10865 net.cpp:156] Memory required for data: 273960960
I0714 21:49:09.752691 10865 layer_factory.hpp:77] Creating layer inception_3b/1x1
I0714 21:49:09.752708 10865 net.cpp:91] Creating Layer inception_3b/1x1
I0714 21:49:09.752714 10865 net.cpp:425] inception_3b/1x1 <- inception_3a/output_inception_3a/output_0_split_0
I0714 21:49:09.752728 10865 net.cpp:399] inception_3b/1x1 -> inception_3b/1x1
I0714 21:49:09.757516 10861 net.cpp:141] Setting up inception_3b/3x3_reduce
I0714 21:49:09.757540 10861 net.cpp:148] Top shape: 10 128 28 28 (1003520)
I0714 21:49:09.757547 10861 net.cpp:156] Memory required for data: 286003200
I0714 21:49:09.757558 10861 layer_factory.hpp:77] Creating layer inception_3b/relu_3x3_reduce
I0714 21:49:09.757570 10861 net.cpp:91] Creating Layer inception_3b/relu_3x3_reduce
I0714 21:49:09.757577 10861 net.cpp:425] inception_3b/relu_3x3_reduce <- inception_3b/3x3_reduce
I0714 21:49:09.757588 10861 net.cpp:386] inception_3b/relu_3x3_reduce -> inception_3b/3x3_reduce (in-place)
I0714 21:49:09.758013 10861 net.cpp:141] Setting up inception_3b/relu_3x3_reduce
I0714 21:49:09.758021 10865 net.cpp:141] Setting up inception_3b/1x1
I0714 21:49:09.758029 10861 net.cpp:148] Top shape: 10 128 28 28 (1003520)
I0714 21:49:09.758036 10861 net.cpp:156] Memory required for data: 290017280
I0714 21:49:09.758039 10865 net.cpp:148] Top shape: 10 128 28 28 (1003520)
I0714 21:49:09.758041 10861 layer_factory.hpp:77] Creating layer inception_3b/3x3
I0714 21:49:09.758045 10865 net.cpp:156] Memory required for data: 277975040
I0714 21:49:09.758061 10865 layer_factory.hpp:77] Creating layer inception_3b/relu_1x1
I0714 21:49:09.758069 10861 net.cpp:91] Creating Layer inception_3b/3x3
I0714 21:49:09.758071 10865 net.cpp:91] Creating Layer inception_3b/relu_1x1
I0714 21:49:09.758077 10861 net.cpp:425] inception_3b/3x3 <- inception_3b/3x3_reduce
I0714 21:49:09.758080 10865 net.cpp:425] inception_3b/relu_1x1 <- inception_3b/1x1
I0714 21:49:09.758087 10861 net.cpp:399] inception_3b/3x3 -> inception_3b/3x3
I0714 21:49:09.758090 10865 net.cpp:386] inception_3b/relu_1x1 -> inception_3b/1x1 (in-place)
I0714 21:49:09.758492 10865 net.cpp:141] Setting up inception_3b/relu_1x1
I0714 21:49:09.758507 10865 net.cpp:148] Top shape: 10 128 28 28 (1003520)
I0714 21:49:09.758512 10865 net.cpp:156] Memory required for data: 281989120
I0714 21:49:09.758517 10865 layer_factory.hpp:77] Creating layer inception_3b/3x3_reduce
I0714 21:49:09.758538 10865 net.cpp:91] Creating Layer inception_3b/3x3_reduce
I0714 21:49:09.758543 10865 net.cpp:425] inception_3b/3x3_reduce <- inception_3a/output_inception_3a/output_0_split_1
I0714 21:49:09.758554 10865 net.cpp:399] inception_3b/3x3_reduce -> inception_3b/3x3_reduce
I0714 21:49:09.765172 10865 net.cpp:141] Setting up inception_3b/3x3_reduce
I0714 21:49:09.765197 10865 net.cpp:148] Top shape: 10 128 28 28 (1003520)
I0714 21:49:09.765203 10865 net.cpp:156] Memory required for data: 286003200
I0714 21:49:09.765215 10865 layer_factory.hpp:77] Creating layer inception_3b/relu_3x3_reduce
I0714 21:49:09.765225 10865 net.cpp:91] Creating Layer inception_3b/relu_3x3_reduce
I0714 21:49:09.765233 10865 net.cpp:425] inception_3b/relu_3x3_reduce <- inception_3b/3x3_reduce
I0714 21:49:09.765246 10865 net.cpp:386] inception_3b/relu_3x3_reduce -> inception_3b/3x3_reduce (in-place)
I0714 21:49:09.765621 10865 net.cpp:141] Setting up inception_3b/relu_3x3_reduce
I0714 21:49:09.765638 10865 net.cpp:148] Top shape: 10 128 28 28 (1003520)
I0714 21:49:09.765643 10865 net.cpp:156] Memory required for data: 290017280
I0714 21:49:09.765650 10865 layer_factory.hpp:77] Creating layer inception_3b/3x3
I0714 21:49:09.765668 10865 net.cpp:91] Creating Layer inception_3b/3x3
I0714 21:49:09.765676 10865 net.cpp:425] inception_3b/3x3 <- inception_3b/3x3_reduce
I0714 21:49:09.765689 10865 net.cpp:399] inception_3b/3x3 -> inception_3b/3x3
I0714 21:49:09.766091 10861 net.cpp:141] Setting up inception_3b/3x3
I0714 21:49:09.766110 10861 net.cpp:148] Top shape: 10 192 28 28 (1505280)
I0714 21:49:09.766116 10861 net.cpp:156] Memory required for data: 296038400
I0714 21:49:09.766127 10861 layer_factory.hpp:77] Creating layer inception_3b/relu_3x3
I0714 21:49:09.766144 10861 net.cpp:91] Creating Layer inception_3b/relu_3x3
I0714 21:49:09.766149 10861 net.cpp:425] inception_3b/relu_3x3 <- inception_3b/3x3
I0714 21:49:09.766161 10861 net.cpp:386] inception_3b/relu_3x3 -> inception_3b/3x3 (in-place)
I0714 21:49:09.767583 10861 net.cpp:141] Setting up inception_3b/relu_3x3
I0714 21:49:09.767603 10861 net.cpp:148] Top shape: 10 192 28 28 (1505280)
I0714 21:49:09.767608 10861 net.cpp:156] Memory required for data: 302059520
I0714 21:49:09.767614 10861 layer_factory.hpp:77] Creating layer inception_3b/5x5_reduce
I0714 21:49:09.767642 10861 net.cpp:91] Creating Layer inception_3b/5x5_reduce
I0714 21:49:09.767649 10861 net.cpp:425] inception_3b/5x5_reduce <- inception_3a/output_inception_3a/output_0_split_2
I0714 21:49:09.767660 10861 net.cpp:399] inception_3b/5x5_reduce -> inception_3b/5x5_reduce
I0714 21:49:09.773195 10861 net.cpp:141] Setting up inception_3b/5x5_reduce
I0714 21:49:09.773216 10861 net.cpp:148] Top shape: 10 32 28 28 (250880)
I0714 21:49:09.773222 10861 net.cpp:156] Memory required for data: 303063040
I0714 21:49:09.773232 10861 layer_factory.hpp:77] Creating layer inception_3b/relu_5x5_reduce
I0714 21:49:09.773250 10861 net.cpp:91] Creating Layer inception_3b/relu_5x5_reduce
I0714 21:49:09.773257 10861 net.cpp:425] inception_3b/relu_5x5_reduce <- inception_3b/5x5_reduce
I0714 21:49:09.773265 10861 net.cpp:386] inception_3b/relu_5x5_reduce -> inception_3b/5x5_reduce (in-place)
I0714 21:49:09.773663 10861 net.cpp:141] Setting up inception_3b/relu_5x5_reduce
I0714 21:49:09.773679 10861 net.cpp:148] Top shape: 10 32 28 28 (250880)
I0714 21:49:09.773684 10861 net.cpp:156] Memory required for data: 304066560
I0714 21:49:09.773689 10861 layer_factory.hpp:77] Creating layer inception_3b/5x5
I0714 21:49:09.773708 10861 net.cpp:91] Creating Layer inception_3b/5x5
I0714 21:49:09.773715 10861 net.cpp:425] inception_3b/5x5 <- inception_3b/5x5_reduce
I0714 21:49:09.773739 10861 net.cpp:399] inception_3b/5x5 -> inception_3b/5x5
I0714 21:49:09.774163 10865 net.cpp:141] Setting up inception_3b/3x3
I0714 21:49:09.774184 10865 net.cpp:148] Top shape: 10 192 28 28 (1505280)
I0714 21:49:09.774189 10865 net.cpp:156] Memory required for data: 296038400
I0714 21:49:09.774200 10865 layer_factory.hpp:77] Creating layer inception_3b/relu_3x3
I0714 21:49:09.774224 10865 net.cpp:91] Creating Layer inception_3b/relu_3x3
I0714 21:49:09.774230 10865 net.cpp:425] inception_3b/relu_3x3 <- inception_3b/3x3
I0714 21:49:09.774240 10865 net.cpp:386] inception_3b/relu_3x3 -> inception_3b/3x3 (in-place)
I0714 21:49:09.775627 10865 net.cpp:141] Setting up inception_3b/relu_3x3
I0714 21:49:09.775648 10865 net.cpp:148] Top shape: 10 192 28 28 (1505280)
I0714 21:49:09.775653 10865 net.cpp:156] Memory required for data: 302059520
I0714 21:49:09.775660 10865 layer_factory.hpp:77] Creating layer inception_3b/5x5_reduce
I0714 21:49:09.775677 10865 net.cpp:91] Creating Layer inception_3b/5x5_reduce
I0714 21:49:09.775684 10865 net.cpp:425] inception_3b/5x5_reduce <- inception_3a/output_inception_3a/output_0_split_2
I0714 21:49:09.775699 10865 net.cpp:399] inception_3b/5x5_reduce -> inception_3b/5x5_reduce
I0714 21:49:09.780516 10865 net.cpp:141] Setting up inception_3b/5x5_reduce
I0714 21:49:09.780537 10865 net.cpp:148] Top shape: 10 32 28 28 (250880)
I0714 21:49:09.780544 10865 net.cpp:156] Memory required for data: 303063040
I0714 21:49:09.780555 10865 layer_factory.hpp:77] Creating layer inception_3b/relu_5x5_reduce
I0714 21:49:09.780570 10865 net.cpp:91] Creating Layer inception_3b/relu_5x5_reduce
I0714 21:49:09.780576 10865 net.cpp:425] inception_3b/relu_5x5_reduce <- inception_3b/5x5_reduce
I0714 21:49:09.780585 10865 net.cpp:386] inception_3b/relu_5x5_reduce -> inception_3b/5x5_reduce (in-place)
I0714 21:49:09.780911 10861 net.cpp:141] Setting up inception_3b/5x5
I0714 21:49:09.780928 10861 net.cpp:148] Top shape: 10 96 28 28 (752640)
I0714 21:49:09.780944 10861 net.cpp:156] Memory required for data: 307077120
I0714 21:49:09.780951 10865 net.cpp:141] Setting up inception_3b/relu_5x5_reduce
I0714 21:49:09.780956 10861 layer_factory.hpp:77] Creating layer inception_3b/relu_5x5
I0714 21:49:09.780968 10865 net.cpp:148] Top shape: 10 32 28 28 (250880)
I0714 21:49:09.780972 10861 net.cpp:91] Creating Layer inception_3b/relu_5x5
I0714 21:49:09.780973 10865 net.cpp:156] Memory required for data: 304066560
I0714 21:49:09.780983 10861 net.cpp:425] inception_3b/relu_5x5 <- inception_3b/5x5
I0714 21:49:09.780987 10865 layer_factory.hpp:77] Creating layer inception_3b/5x5
I0714 21:49:09.780992 10861 net.cpp:386] inception_3b/relu_5x5 -> inception_3b/5x5 (in-place)
I0714 21:49:09.781009 10865 net.cpp:91] Creating Layer inception_3b/5x5
I0714 21:49:09.781016 10865 net.cpp:425] inception_3b/5x5 <- inception_3b/5x5_reduce
I0714 21:49:09.781026 10865 net.cpp:399] inception_3b/5x5 -> inception_3b/5x5
I0714 21:49:09.781424 10861 net.cpp:141] Setting up inception_3b/relu_5x5
I0714 21:49:09.781437 10861 net.cpp:148] Top shape: 10 96 28 28 (752640)
I0714 21:49:09.781442 10861 net.cpp:156] Memory required for data: 310087680
I0714 21:49:09.781447 10861 layer_factory.hpp:77] Creating layer inception_3b/pool
I0714 21:49:09.781458 10861 net.cpp:91] Creating Layer inception_3b/pool
I0714 21:49:09.781464 10861 net.cpp:425] inception_3b/pool <- inception_3a/output_inception_3a/output_0_split_3
I0714 21:49:09.781476 10861 net.cpp:399] inception_3b/pool -> inception_3b/pool
I0714 21:49:09.781744 10861 net.cpp:141] Setting up inception_3b/pool
I0714 21:49:09.781757 10861 net.cpp:148] Top shape: 10 256 28 28 (2007040)
I0714 21:49:09.781762 10861 net.cpp:156] Memory required for data: 318115840
I0714 21:49:09.781767 10861 layer_factory.hpp:77] Creating layer inception_3b/pool_proj
I0714 21:49:09.781785 10861 net.cpp:91] Creating Layer inception_3b/pool_proj
I0714 21:49:09.781791 10861 net.cpp:425] inception_3b/pool_proj <- inception_3b/pool
I0714 21:49:09.781800 10861 net.cpp:399] inception_3b/pool_proj -> inception_3b/pool_proj
I0714 21:49:09.787379 10861 net.cpp:141] Setting up inception_3b/pool_proj
I0714 21:49:09.787400 10861 net.cpp:148] Top shape: 10 64 28 28 (501760)
I0714 21:49:09.787405 10861 net.cpp:156] Memory required for data: 320122880
I0714 21:49:09.787415 10861 layer_factory.hpp:77] Creating layer inception_3b/relu_pool_proj
I0714 21:49:09.787433 10861 net.cpp:91] Creating Layer inception_3b/relu_pool_proj
I0714 21:49:09.787441 10861 net.cpp:425] inception_3b/relu_pool_proj <- inception_3b/pool_proj
I0714 21:49:09.787448 10861 net.cpp:386] inception_3b/relu_pool_proj -> inception_3b/pool_proj (in-place)
I0714 21:49:09.788193 10865 net.cpp:141] Setting up inception_3b/5x5
I0714 21:49:09.788213 10865 net.cpp:148] Top shape: 10 96 28 28 (752640)
I0714 21:49:09.788218 10865 net.cpp:156] Memory required for data: 307077120
I0714 21:49:09.788229 10865 layer_factory.hpp:77] Creating layer inception_3b/relu_5x5
I0714 21:49:09.788244 10865 net.cpp:91] Creating Layer inception_3b/relu_5x5
I0714 21:49:09.788251 10865 net.cpp:425] inception_3b/relu_5x5 <- inception_3b/5x5
I0714 21:49:09.788259 10865 net.cpp:386] inception_3b/relu_5x5 -> inception_3b/5x5 (in-place)
I0714 21:49:09.788358 10861 net.cpp:141] Setting up inception_3b/relu_pool_proj
I0714 21:49:09.788373 10861 net.cpp:148] Top shape: 10 64 28 28 (501760)
I0714 21:49:09.788378 10861 net.cpp:156] Memory required for data: 322129920
I0714 21:49:09.788383 10861 layer_factory.hpp:77] Creating layer inception_3b/output
I0714 21:49:09.788396 10861 net.cpp:91] Creating Layer inception_3b/output
I0714 21:49:09.788403 10861 net.cpp:425] inception_3b/output <- inception_3b/1x1
I0714 21:49:09.788410 10861 net.cpp:425] inception_3b/output <- inception_3b/3x3
I0714 21:49:09.788416 10861 net.cpp:425] inception_3b/output <- inception_3b/5x5
I0714 21:49:09.788422 10861 net.cpp:425] inception_3b/output <- inception_3b/pool_proj
I0714 21:49:09.788430 10861 net.cpp:399] inception_3b/output -> inception_3b/output
I0714 21:49:09.788525 10861 net.cpp:141] Setting up inception_3b/output
I0714 21:49:09.788537 10861 net.cpp:148] Top shape: 10 480 28 28 (3763200)
I0714 21:49:09.788542 10861 net.cpp:156] Memory required for data: 337182720
I0714 21:49:09.788548 10861 layer_factory.hpp:77] Creating layer pool3/3x3_s2
I0714 21:49:09.788563 10861 net.cpp:91] Creating Layer pool3/3x3_s2
I0714 21:49:09.788569 10861 net.cpp:425] pool3/3x3_s2 <- inception_3b/output
I0714 21:49:09.788580 10861 net.cpp:399] pool3/3x3_s2 -> pool3/3x3_s2
I0714 21:49:09.788597 10865 net.cpp:141] Setting up inception_3b/relu_5x5
I0714 21:49:09.788611 10865 net.cpp:148] Top shape: 10 96 28 28 (752640)
I0714 21:49:09.788616 10865 net.cpp:156] Memory required for data: 310087680
I0714 21:49:09.788622 10865 layer_factory.hpp:77] Creating layer inception_3b/pool
I0714 21:49:09.788632 10865 net.cpp:91] Creating Layer inception_3b/pool
I0714 21:49:09.788638 10865 net.cpp:425] inception_3b/pool <- inception_3a/output_inception_3a/output_0_split_3
I0714 21:49:09.788650 10865 net.cpp:399] inception_3b/pool -> inception_3b/pool
I0714 21:49:09.788730 10861 net.cpp:141] Setting up pool3/3x3_s2
I0714 21:49:09.788743 10861 net.cpp:148] Top shape: 10 480 14 14 (940800)
I0714 21:49:09.788748 10861 net.cpp:156] Memory required for data: 340945920
I0714 21:49:09.788754 10861 layer_factory.hpp:77] Creating layer pool3/3x3_s2_pool3/3x3_s2_0_split
I0714 21:49:09.788764 10861 net.cpp:91] Creating Layer pool3/3x3_s2_pool3/3x3_s2_0_split
I0714 21:49:09.788769 10861 net.cpp:425] pool3/3x3_s2_pool3/3x3_s2_0_split <- pool3/3x3_s2
I0714 21:49:09.788780 10861 net.cpp:399] pool3/3x3_s2_pool3/3x3_s2_0_split -> pool3/3x3_s2_pool3/3x3_s2_0_split_0
I0714 21:49:09.788789 10861 net.cpp:399] pool3/3x3_s2_pool3/3x3_s2_0_split -> pool3/3x3_s2_pool3/3x3_s2_0_split_1
I0714 21:49:09.788799 10861 net.cpp:399] pool3/3x3_s2_pool3/3x3_s2_0_split -> pool3/3x3_s2_pool3/3x3_s2_0_split_2
I0714 21:49:09.788800 10865 net.cpp:141] Setting up inception_3b/pool
I0714 21:49:09.788808 10861 net.cpp:399] pool3/3x3_s2_pool3/3x3_s2_0_split -> pool3/3x3_s2_pool3/3x3_s2_0_split_3
I0714 21:49:09.788813 10865 net.cpp:148] Top shape: 10 256 28 28 (2007040)
I0714 21:49:09.788818 10865 net.cpp:156] Memory required for data: 318115840
I0714 21:49:09.788825 10865 layer_factory.hpp:77] Creating layer inception_3b/pool_proj
I0714 21:49:09.788842 10865 net.cpp:91] Creating Layer inception_3b/pool_proj
I0714 21:49:09.788849 10865 net.cpp:425] inception_3b/pool_proj <- inception_3b/pool
I0714 21:49:09.788861 10865 net.cpp:399] inception_3b/pool_proj -> inception_3b/pool_proj
I0714 21:49:09.789352 10861 net.cpp:141] Setting up pool3/3x3_s2_pool3/3x3_s2_0_split
I0714 21:49:09.789374 10861 net.cpp:148] Top shape: 10 480 14 14 (940800)
I0714 21:49:09.789386 10861 net.cpp:148] Top shape: 10 480 14 14 (940800)
I0714 21:49:09.789398 10861 net.cpp:148] Top shape: 10 480 14 14 (940800)
I0714 21:49:09.789409 10861 net.cpp:148] Top shape: 10 480 14 14 (940800)
I0714 21:49:09.789418 10861 net.cpp:156] Memory required for data: 355998720
I0714 21:49:09.789428 10861 layer_factory.hpp:77] Creating layer inception_4a/1x1
I0714 21:49:09.789458 10861 net.cpp:91] Creating Layer inception_4a/1x1
I0714 21:49:09.789470 10861 net.cpp:425] inception_4a/1x1 <- pool3/3x3_s2_pool3/3x3_s2_0_split_0
I0714 21:49:09.789489 10861 net.cpp:399] inception_4a/1x1 -> inception_4a/1x1
I0714 21:49:09.792419 10865 net.cpp:141] Setting up inception_3b/pool_proj
I0714 21:49:09.792441 10865 net.cpp:148] Top shape: 10 64 28 28 (501760)
I0714 21:49:09.792446 10865 net.cpp:156] Memory required for data: 320122880
I0714 21:49:09.792459 10865 layer_factory.hpp:77] Creating layer inception_3b/relu_pool_proj
I0714 21:49:09.792471 10865 net.cpp:91] Creating Layer inception_3b/relu_pool_proj
I0714 21:49:09.792479 10865 net.cpp:425] inception_3b/relu_pool_proj <- inception_3b/pool_proj
I0714 21:49:09.792486 10865 net.cpp:386] inception_3b/relu_pool_proj -> inception_3b/pool_proj (in-place)
I0714 21:49:09.793434 10865 net.cpp:141] Setting up inception_3b/relu_pool_proj
I0714 21:49:09.793452 10865 net.cpp:148] Top shape: 10 64 28 28 (501760)
I0714 21:49:09.793457 10865 net.cpp:156] Memory required for data: 322129920
I0714 21:49:09.793462 10865 layer_factory.hpp:77] Creating layer inception_3b/output
I0714 21:49:09.793475 10865 net.cpp:91] Creating Layer inception_3b/output
I0714 21:49:09.793483 10865 net.cpp:425] inception_3b/output <- inception_3b/1x1
I0714 21:49:09.793490 10865 net.cpp:425] inception_3b/output <- inception_3b/3x3
I0714 21:49:09.793498 10865 net.cpp:425] inception_3b/output <- inception_3b/5x5
I0714 21:49:09.793503 10865 net.cpp:425] inception_3b/output <- inception_3b/pool_proj
I0714 21:49:09.793509 10865 net.cpp:399] inception_3b/output -> inception_3b/output
I0714 21:49:09.793829 10865 net.cpp:141] Setting up inception_3b/output
I0714 21:49:09.793853 10865 net.cpp:148] Top shape: 10 480 28 28 (3763200)
I0714 21:49:09.793862 10865 net.cpp:156] Memory required for data: 337182720
I0714 21:49:09.793872 10865 layer_factory.hpp:77] Creating layer pool3/3x3_s2
I0714 21:49:09.793887 10865 net.cpp:91] Creating Layer pool3/3x3_s2
I0714 21:49:09.793897 10865 net.cpp:425] pool3/3x3_s2 <- inception_3b/output
I0714 21:49:09.793911 10865 net.cpp:399] pool3/3x3_s2 -> pool3/3x3_s2
I0714 21:49:09.795138 10865 net.cpp:141] Setting up pool3/3x3_s2
I0714 21:49:09.795156 10865 net.cpp:148] Top shape: 10 480 14 14 (940800)
I0714 21:49:09.795162 10865 net.cpp:156] Memory required for data: 340945920
I0714 21:49:09.795168 10865 layer_factory.hpp:77] Creating layer pool3/3x3_s2_pool3/3x3_s2_0_split
I0714 21:49:09.795179 10865 net.cpp:91] Creating Layer pool3/3x3_s2_pool3/3x3_s2_0_split
I0714 21:49:09.795186 10865 net.cpp:425] pool3/3x3_s2_pool3/3x3_s2_0_split <- pool3/3x3_s2
I0714 21:49:09.795236 10865 net.cpp:399] pool3/3x3_s2_pool3/3x3_s2_0_split -> pool3/3x3_s2_pool3/3x3_s2_0_split_0
I0714 21:49:09.795249 10865 net.cpp:399] pool3/3x3_s2_pool3/3x3_s2_0_split -> pool3/3x3_s2_pool3/3x3_s2_0_split_1
I0714 21:49:09.795259 10865 net.cpp:399] pool3/3x3_s2_pool3/3x3_s2_0_split -> pool3/3x3_s2_pool3/3x3_s2_0_split_2
I0714 21:49:09.795269 10865 net.cpp:399] pool3/3x3_s2_pool3/3x3_s2_0_split -> pool3/3x3_s2_pool3/3x3_s2_0_split_3
I0714 21:49:09.797281 10865 net.cpp:141] Setting up pool3/3x3_s2_pool3/3x3_s2_0_split
I0714 21:49:09.797298 10865 net.cpp:148] Top shape: 10 480 14 14 (940800)
I0714 21:49:09.797304 10865 net.cpp:148] Top shape: 10 480 14 14 (940800)
I0714 21:49:09.797310 10865 net.cpp:148] Top shape: 10 480 14 14 (940800)
I0714 21:49:09.797317 10865 net.cpp:148] Top shape: 10 480 14 14 (940800)
I0714 21:49:09.797322 10865 net.cpp:156] Memory required for data: 355998720
I0714 21:49:09.797327 10865 layer_factory.hpp:77] Creating layer inception_4a/1x1
I0714 21:49:09.797343 10865 net.cpp:91] Creating Layer inception_4a/1x1
I0714 21:49:09.797348 10865 net.cpp:425] inception_4a/1x1 <- pool3/3x3_s2_pool3/3x3_s2_0_split_0
I0714 21:49:09.797363 10865 net.cpp:399] inception_4a/1x1 -> inception_4a/1x1
I0714 21:49:09.798324 10861 net.cpp:141] Setting up inception_4a/1x1
I0714 21:49:09.798352 10861 net.cpp:148] Top shape: 10 192 14 14 (376320)
I0714 21:49:09.798362 10861 net.cpp:156] Memory required for data: 357504000
I0714 21:49:09.798378 10861 layer_factory.hpp:77] Creating layer inception_4a/relu_1x1
I0714 21:49:09.798396 10861 net.cpp:91] Creating Layer inception_4a/relu_1x1
I0714 21:49:09.798408 10861 net.cpp:425] inception_4a/relu_1x1 <- inception_4a/1x1
I0714 21:49:09.798423 10861 net.cpp:386] inception_4a/relu_1x1 -> inception_4a/1x1 (in-place)
I0714 21:49:09.798851 10861 net.cpp:141] Setting up inception_4a/relu_1x1
I0714 21:49:09.798876 10861 net.cpp:148] Top shape: 10 192 14 14 (376320)
I0714 21:49:09.798884 10861 net.cpp:156] Memory required for data: 359009280
I0714 21:49:09.798893 10861 layer_factory.hpp:77] Creating layer inception_4a/3x3_reduce
I0714 21:49:09.798928 10861 net.cpp:91] Creating Layer inception_4a/3x3_reduce
I0714 21:49:09.798943 10861 net.cpp:425] inception_4a/3x3_reduce <- pool3/3x3_s2_pool3/3x3_s2_0_split_1
I0714 21:49:09.798960 10861 net.cpp:399] inception_4a/3x3_reduce -> inception_4a/3x3_reduce
I0714 21:49:09.802577 10865 net.cpp:141] Setting up inception_4a/1x1
I0714 21:49:09.802597 10865 net.cpp:148] Top shape: 10 192 14 14 (376320)
I0714 21:49:09.802603 10865 net.cpp:156] Memory required for data: 357504000
I0714 21:49:09.802615 10865 layer_factory.hpp:77] Creating layer inception_4a/relu_1x1
I0714 21:49:09.802625 10865 net.cpp:91] Creating Layer inception_4a/relu_1x1
I0714 21:49:09.802633 10865 net.cpp:425] inception_4a/relu_1x1 <- inception_4a/1x1
I0714 21:49:09.802644 10865 net.cpp:386] inception_4a/relu_1x1 -> inception_4a/1x1 (in-place)
I0714 21:49:09.803052 10865 net.cpp:141] Setting up inception_4a/relu_1x1
I0714 21:49:09.803068 10865 net.cpp:148] Top shape: 10 192 14 14 (376320)
I0714 21:49:09.803074 10865 net.cpp:156] Memory required for data: 359009280
I0714 21:49:09.803079 10865 layer_factory.hpp:77] Creating layer inception_4a/3x3_reduce
I0714 21:49:09.803095 10865 net.cpp:91] Creating Layer inception_4a/3x3_reduce
I0714 21:49:09.803102 10865 net.cpp:425] inception_4a/3x3_reduce <- pool3/3x3_s2_pool3/3x3_s2_0_split_1
I0714 21:49:09.803117 10865 net.cpp:399] inception_4a/3x3_reduce -> inception_4a/3x3_reduce
I0714 21:49:09.806793 10861 net.cpp:141] Setting up inception_4a/3x3_reduce
I0714 21:49:09.806815 10861 net.cpp:148] Top shape: 10 96 14 14 (188160)
I0714 21:49:09.806821 10861 net.cpp:156] Memory required for data: 359761920
I0714 21:49:09.806845 10861 layer_factory.hpp:77] Creating layer inception_4a/relu_3x3_reduce
I0714 21:49:09.806857 10861 net.cpp:91] Creating Layer inception_4a/relu_3x3_reduce
I0714 21:49:09.806864 10861 net.cpp:425] inception_4a/relu_3x3_reduce <- inception_4a/3x3_reduce
I0714 21:49:09.806874 10861 net.cpp:386] inception_4a/relu_3x3_reduce -> inception_4a/3x3_reduce (in-place)
I0714 21:49:09.807234 10861 net.cpp:141] Setting up inception_4a/relu_3x3_reduce
I0714 21:49:09.807247 10861 net.cpp:148] Top shape: 10 96 14 14 (188160)
I0714 21:49:09.807252 10861 net.cpp:156] Memory required for data: 360514560
I0714 21:49:09.807258 10861 layer_factory.hpp:77] Creating layer inception_4a/3x3
I0714 21:49:09.807278 10861 net.cpp:91] Creating Layer inception_4a/3x3
I0714 21:49:09.807286 10861 net.cpp:425] inception_4a/3x3 <- inception_4a/3x3_reduce
I0714 21:49:09.807296 10861 net.cpp:399] inception_4a/3x3 -> inception_4a/3x3
I0714 21:49:09.810360 10865 net.cpp:141] Setting up inception_4a/3x3_reduce
I0714 21:49:09.810381 10865 net.cpp:148] Top shape: 10 96 14 14 (188160)
I0714 21:49:09.810387 10865 net.cpp:156] Memory required for data: 359761920
I0714 21:49:09.810410 10865 layer_factory.hpp:77] Creating layer inception_4a/relu_3x3_reduce
I0714 21:49:09.810420 10865 net.cpp:91] Creating Layer inception_4a/relu_3x3_reduce
I0714 21:49:09.810427 10865 net.cpp:425] inception_4a/relu_3x3_reduce <- inception_4a/3x3_reduce
I0714 21:49:09.810439 10865 net.cpp:386] inception_4a/relu_3x3_reduce -> inception_4a/3x3_reduce (in-place)
I0714 21:49:09.810745 10865 net.cpp:141] Setting up inception_4a/relu_3x3_reduce
I0714 21:49:09.810761 10865 net.cpp:148] Top shape: 10 96 14 14 (188160)
I0714 21:49:09.810766 10865 net.cpp:156] Memory required for data: 360514560
I0714 21:49:09.810772 10865 layer_factory.hpp:77] Creating layer inception_4a/3x3
I0714 21:49:09.810792 10865 net.cpp:91] Creating Layer inception_4a/3x3
I0714 21:49:09.810799 10865 net.cpp:425] inception_4a/3x3 <- inception_4a/3x3_reduce
I0714 21:49:09.810809 10865 net.cpp:399] inception_4a/3x3 -> inception_4a/3x3
I0714 21:49:09.816555 10861 net.cpp:141] Setting up inception_4a/3x3
I0714 21:49:09.816577 10861 net.cpp:148] Top shape: 10 208 14 14 (407680)
I0714 21:49:09.816583 10861 net.cpp:156] Memory required for data: 362145280
I0714 21:49:09.816594 10861 layer_factory.hpp:77] Creating layer inception_4a/relu_3x3
I0714 21:49:09.816607 10861 net.cpp:91] Creating Layer inception_4a/relu_3x3
I0714 21:49:09.816614 10861 net.cpp:425] inception_4a/relu_3x3 <- inception_4a/3x3
I0714 21:49:09.816623 10861 net.cpp:386] inception_4a/relu_3x3 -> inception_4a/3x3 (in-place)
I0714 21:49:09.817631 10861 net.cpp:141] Setting up inception_4a/relu_3x3
I0714 21:49:09.817649 10861 net.cpp:148] Top shape: 10 208 14 14 (407680)
I0714 21:49:09.817654 10861 net.cpp:156] Memory required for data: 363776000
I0714 21:49:09.817661 10861 layer_factory.hpp:77] Creating layer inception_4a/5x5_reduce
I0714 21:49:09.817680 10861 net.cpp:91] Creating Layer inception_4a/5x5_reduce
I0714 21:49:09.817688 10861 net.cpp:425] inception_4a/5x5_reduce <- pool3/3x3_s2_pool3/3x3_s2_0_split_2
I0714 21:49:09.817698 10861 net.cpp:399] inception_4a/5x5_reduce -> inception_4a/5x5_reduce
I0714 21:49:09.817736 10865 net.cpp:141] Setting up inception_4a/3x3
I0714 21:49:09.817754 10865 net.cpp:148] Top shape: 10 208 14 14 (407680)
I0714 21:49:09.817759 10865 net.cpp:156] Memory required for data: 362145280
I0714 21:49:09.817770 10865 layer_factory.hpp:77] Creating layer inception_4a/relu_3x3
I0714 21:49:09.817783 10865 net.cpp:91] Creating Layer inception_4a/relu_3x3
I0714 21:49:09.817790 10865 net.cpp:425] inception_4a/relu_3x3 <- inception_4a/3x3
I0714 21:49:09.817798 10865 net.cpp:386] inception_4a/relu_3x3 -> inception_4a/3x3 (in-place)
I0714 21:49:09.818789 10865 net.cpp:141] Setting up inception_4a/relu_3x3
I0714 21:49:09.818810 10865 net.cpp:148] Top shape: 10 208 14 14 (407680)
I0714 21:49:09.818816 10865 net.cpp:156] Memory required for data: 363776000
I0714 21:49:09.818821 10865 layer_factory.hpp:77] Creating layer inception_4a/5x5_reduce
I0714 21:49:09.818845 10865 net.cpp:91] Creating Layer inception_4a/5x5_reduce
I0714 21:49:09.818852 10865 net.cpp:425] inception_4a/5x5_reduce <- pool3/3x3_s2_pool3/3x3_s2_0_split_2
I0714 21:49:09.818863 10865 net.cpp:399] inception_4a/5x5_reduce -> inception_4a/5x5_reduce
I0714 21:49:09.823175 10861 net.cpp:141] Setting up inception_4a/5x5_reduce
I0714 21:49:09.823194 10861 net.cpp:148] Top shape: 10 16 14 14 (31360)
I0714 21:49:09.823200 10861 net.cpp:156] Memory required for data: 363901440
I0714 21:49:09.823211 10861 layer_factory.hpp:77] Creating layer inception_4a/relu_5x5_reduce
I0714 21:49:09.823225 10861 net.cpp:91] Creating Layer inception_4a/relu_5x5_reduce
I0714 21:49:09.823231 10861 net.cpp:425] inception_4a/relu_5x5_reduce <- inception_4a/5x5_reduce
I0714 21:49:09.823241 10861 net.cpp:386] inception_4a/relu_5x5_reduce -> inception_4a/5x5_reduce (in-place)
I0714 21:49:09.823669 10861 net.cpp:141] Setting up inception_4a/relu_5x5_reduce
I0714 21:49:09.823684 10861 net.cpp:148] Top shape: 10 16 14 14 (31360)
I0714 21:49:09.823690 10861 net.cpp:156] Memory required for data: 364026880
I0714 21:49:09.823696 10861 layer_factory.hpp:77] Creating layer inception_4a/5x5
I0714 21:49:09.823719 10861 net.cpp:91] Creating Layer inception_4a/5x5
I0714 21:49:09.823729 10861 net.cpp:425] inception_4a/5x5 <- inception_4a/5x5_reduce
I0714 21:49:09.823739 10861 net.cpp:399] inception_4a/5x5 -> inception_4a/5x5
I0714 21:49:09.823762 10865 net.cpp:141] Setting up inception_4a/5x5_reduce
I0714 21:49:09.823781 10865 net.cpp:148] Top shape: 10 16 14 14 (31360)
I0714 21:49:09.823787 10865 net.cpp:156] Memory required for data: 363901440
I0714 21:49:09.823797 10865 layer_factory.hpp:77] Creating layer inception_4a/relu_5x5_reduce
I0714 21:49:09.823807 10865 net.cpp:91] Creating Layer inception_4a/relu_5x5_reduce
I0714 21:49:09.823813 10865 net.cpp:425] inception_4a/relu_5x5_reduce <- inception_4a/5x5_reduce
I0714 21:49:09.823822 10865 net.cpp:386] inception_4a/relu_5x5_reduce -> inception_4a/5x5_reduce (in-place)
I0714 21:49:09.824268 10865 net.cpp:141] Setting up inception_4a/relu_5x5_reduce
I0714 21:49:09.824282 10865 net.cpp:148] Top shape: 10 16 14 14 (31360)
I0714 21:49:09.824287 10865 net.cpp:156] Memory required for data: 364026880
I0714 21:49:09.824293 10865 layer_factory.hpp:77] Creating layer inception_4a/5x5
I0714 21:49:09.824311 10865 net.cpp:91] Creating Layer inception_4a/5x5
I0714 21:49:09.824317 10865 net.cpp:425] inception_4a/5x5 <- inception_4a/5x5_reduce
I0714 21:49:09.824331 10865 net.cpp:399] inception_4a/5x5 -> inception_4a/5x5
I0714 21:49:09.827893 10861 net.cpp:141] Setting up inception_4a/5x5
I0714 21:49:09.827911 10861 net.cpp:148] Top shape: 10 48 14 14 (94080)
I0714 21:49:09.827918 10861 net.cpp:156] Memory required for data: 364403200
I0714 21:49:09.827927 10861 layer_factory.hpp:77] Creating layer inception_4a/relu_5x5
I0714 21:49:09.827939 10861 net.cpp:91] Creating Layer inception_4a/relu_5x5
I0714 21:49:09.827946 10861 net.cpp:425] inception_4a/relu_5x5 <- inception_4a/5x5
I0714 21:49:09.827955 10861 net.cpp:386] inception_4a/relu_5x5 -> inception_4a/5x5 (in-place)
I0714 21:49:09.828294 10861 net.cpp:141] Setting up inception_4a/relu_5x5
I0714 21:49:09.828310 10861 net.cpp:148] Top shape: 10 48 14 14 (94080)
I0714 21:49:09.828315 10861 net.cpp:156] Memory required for data: 364779520
I0714 21:49:09.828321 10861 layer_factory.hpp:77] Creating layer inception_4a/pool
I0714 21:49:09.828331 10861 net.cpp:91] Creating Layer inception_4a/pool
I0714 21:49:09.828338 10861 net.cpp:425] inception_4a/pool <- pool3/3x3_s2_pool3/3x3_s2_0_split_3
I0714 21:49:09.828348 10861 net.cpp:399] inception_4a/pool -> inception_4a/pool
I0714 21:49:09.828871 10861 net.cpp:141] Setting up inception_4a/pool
I0714 21:49:09.828886 10861 net.cpp:148] Top shape: 10 480 14 14 (940800)
I0714 21:49:09.828891 10861 net.cpp:156] Memory required for data: 368542720
I0714 21:49:09.828896 10861 layer_factory.hpp:77] Creating layer inception_4a/pool_proj
I0714 21:49:09.828917 10861 net.cpp:91] Creating Layer inception_4a/pool_proj
I0714 21:49:09.828923 10861 net.cpp:425] inception_4a/pool_proj <- inception_4a/pool
I0714 21:49:09.828933 10861 net.cpp:399] inception_4a/pool_proj -> inception_4a/pool_proj
I0714 21:49:09.829519 10865 net.cpp:141] Setting up inception_4a/5x5
I0714 21:49:09.829537 10865 net.cpp:148] Top shape: 10 48 14 14 (94080)
I0714 21:49:09.829543 10865 net.cpp:156] Memory required for data: 364403200
I0714 21:49:09.829553 10865 layer_factory.hpp:77] Creating layer inception_4a/relu_5x5
I0714 21:49:09.829563 10865 net.cpp:91] Creating Layer inception_4a/relu_5x5
I0714 21:49:09.829569 10865 net.cpp:425] inception_4a/relu_5x5 <- inception_4a/5x5
I0714 21:49:09.829586 10865 net.cpp:386] inception_4a/relu_5x5 -> inception_4a/5x5 (in-place)
I0714 21:49:09.829907 10865 net.cpp:141] Setting up inception_4a/relu_5x5
I0714 21:49:09.829921 10865 net.cpp:148] Top shape: 10 48 14 14 (94080)
I0714 21:49:09.829926 10865 net.cpp:156] Memory required for data: 364779520
I0714 21:49:09.829931 10865 layer_factory.hpp:77] Creating layer inception_4a/pool
I0714 21:49:09.829942 10865 net.cpp:91] Creating Layer inception_4a/pool
I0714 21:49:09.829948 10865 net.cpp:425] inception_4a/pool <- pool3/3x3_s2_pool3/3x3_s2_0_split_3
I0714 21:49:09.829957 10865 net.cpp:399] inception_4a/pool -> inception_4a/pool
I0714 21:49:09.830070 10865 net.cpp:141] Setting up inception_4a/pool
I0714 21:49:09.830085 10865 net.cpp:148] Top shape: 10 480 14 14 (940800)
I0714 21:49:09.830090 10865 net.cpp:156] Memory required for data: 368542720
I0714 21:49:09.830095 10865 layer_factory.hpp:77] Creating layer inception_4a/pool_proj
I0714 21:49:09.830114 10865 net.cpp:91] Creating Layer inception_4a/pool_proj
I0714 21:49:09.830121 10865 net.cpp:425] inception_4a/pool_proj <- inception_4a/pool
I0714 21:49:09.830132 10865 net.cpp:399] inception_4a/pool_proj -> inception_4a/pool_proj
I0714 21:49:09.833696 10861 net.cpp:141] Setting up inception_4a/pool_proj
I0714 21:49:09.833716 10861 net.cpp:148] Top shape: 10 64 14 14 (125440)
I0714 21:49:09.833722 10861 net.cpp:156] Memory required for data: 369044480
I0714 21:49:09.833734 10861 layer_factory.hpp:77] Creating layer inception_4a/relu_pool_proj
I0714 21:49:09.833745 10861 net.cpp:91] Creating Layer inception_4a/relu_pool_proj
I0714 21:49:09.833750 10861 net.cpp:425] inception_4a/relu_pool_proj <- inception_4a/pool_proj
I0714 21:49:09.833762 10861 net.cpp:386] inception_4a/relu_pool_proj -> inception_4a/pool_proj (in-place)
I0714 21:49:09.835217 10861 net.cpp:141] Setting up inception_4a/relu_pool_proj
I0714 21:49:09.835234 10861 net.cpp:148] Top shape: 10 64 14 14 (125440)
I0714 21:49:09.835240 10861 net.cpp:156] Memory required for data: 369546240
I0714 21:49:09.835247 10861 layer_factory.hpp:77] Creating layer inception_4a/output
I0714 21:49:09.835256 10861 net.cpp:91] Creating Layer inception_4a/output
I0714 21:49:09.835263 10861 net.cpp:425] inception_4a/output <- inception_4a/1x1
I0714 21:49:09.835270 10861 net.cpp:425] inception_4a/output <- inception_4a/3x3
I0714 21:49:09.835276 10861 net.cpp:425] inception_4a/output <- inception_4a/5x5
I0714 21:49:09.835283 10861 net.cpp:425] inception_4a/output <- inception_4a/pool_proj
I0714 21:49:09.835292 10861 net.cpp:399] inception_4a/output -> inception_4a/output
I0714 21:49:09.835350 10865 net.cpp:141] Setting up inception_4a/pool_proj
I0714 21:49:09.835366 10865 net.cpp:148] Top shape: 10 64 14 14 (125440)
I0714 21:49:09.835371 10865 net.cpp:156] Memory required for data: 369044480
I0714 21:49:09.835373 10861 net.cpp:141] Setting up inception_4a/output
I0714 21:49:09.835382 10865 layer_factory.hpp:77] Creating layer inception_4a/relu_pool_proj
I0714 21:49:09.835386 10861 net.cpp:148] Top shape: 10 512 14 14 (1003520)
I0714 21:49:09.835391 10861 net.cpp:156] Memory required for data: 373560320
I0714 21:49:09.835392 10865 net.cpp:91] Creating Layer inception_4a/relu_pool_proj
I0714 21:49:09.835397 10861 layer_factory.hpp:77] Creating layer inception_4a/output_inception_4a/output_0_split
I0714 21:49:09.835399 10865 net.cpp:425] inception_4a/relu_pool_proj <- inception_4a/pool_proj
I0714 21:49:09.835407 10865 net.cpp:386] inception_4a/relu_pool_proj -> inception_4a/pool_proj (in-place)
I0714 21:49:09.835407 10861 net.cpp:91] Creating Layer inception_4a/output_inception_4a/output_0_split
I0714 21:49:09.835415 10861 net.cpp:425] inception_4a/output_inception_4a/output_0_split <- inception_4a/output
I0714 21:49:09.835423 10861 net.cpp:399] inception_4a/output_inception_4a/output_0_split -> inception_4a/output_inception_4a/output_0_split_0
I0714 21:49:09.835433 10861 net.cpp:399] inception_4a/output_inception_4a/output_0_split -> inception_4a/output_inception_4a/output_0_split_1
I0714 21:49:09.835443 10861 net.cpp:399] inception_4a/output_inception_4a/output_0_split -> inception_4a/output_inception_4a/output_0_split_2
I0714 21:49:09.835451 10861 net.cpp:399] inception_4a/output_inception_4a/output_0_split -> inception_4a/output_inception_4a/output_0_split_3
I0714 21:49:09.836397 10861 net.cpp:141] Setting up inception_4a/output_inception_4a/output_0_split
I0714 21:49:09.836411 10861 net.cpp:148] Top shape: 10 512 14 14 (1003520)
I0714 21:49:09.836418 10861 net.cpp:148] Top shape: 10 512 14 14 (1003520)
I0714 21:49:09.836423 10861 net.cpp:148] Top shape: 10 512 14 14 (1003520)
I0714 21:49:09.836429 10861 net.cpp:148] Top shape: 10 512 14 14 (1003520)
I0714 21:49:09.836434 10861 net.cpp:156] Memory required for data: 389616640
I0714 21:49:09.836439 10861 layer_factory.hpp:77] Creating layer inception_4b/1x1
I0714 21:49:09.836458 10861 net.cpp:91] Creating Layer inception_4b/1x1
I0714 21:49:09.836465 10861 net.cpp:425] inception_4b/1x1 <- inception_4a/output_inception_4a/output_0_split_0
I0714 21:49:09.836475 10861 net.cpp:399] inception_4b/1x1 -> inception_4b/1x1
I0714 21:49:09.836596 10865 net.cpp:141] Setting up inception_4a/relu_pool_proj
I0714 21:49:09.836617 10865 net.cpp:148] Top shape: 10 64 14 14 (125440)
I0714 21:49:09.836627 10865 net.cpp:156] Memory required for data: 369546240
I0714 21:49:09.836637 10865 layer_factory.hpp:77] Creating layer inception_4a/output
I0714 21:49:09.836652 10865 net.cpp:91] Creating Layer inception_4a/output
I0714 21:49:09.836664 10865 net.cpp:425] inception_4a/output <- inception_4a/1x1
I0714 21:49:09.836676 10865 net.cpp:425] inception_4a/output <- inception_4a/3x3
I0714 21:49:09.836688 10865 net.cpp:425] inception_4a/output <- inception_4a/5x5
I0714 21:49:09.836699 10865 net.cpp:425] inception_4a/output <- inception_4a/pool_proj
I0714 21:49:09.836712 10865 net.cpp:399] inception_4a/output -> inception_4a/output
I0714 21:49:09.836897 10865 net.cpp:141] Setting up inception_4a/output
I0714 21:49:09.836911 10865 net.cpp:148] Top shape: 10 512 14 14 (1003520)
I0714 21:49:09.836916 10865 net.cpp:156] Memory required for data: 373560320
I0714 21:49:09.836922 10865 layer_factory.hpp:77] Creating layer inception_4a/output_inception_4a/output_0_split
I0714 21:49:09.836932 10865 net.cpp:91] Creating Layer inception_4a/output_inception_4a/output_0_split
I0714 21:49:09.836938 10865 net.cpp:425] inception_4a/output_inception_4a/output_0_split <- inception_4a/output
I0714 21:49:09.836951 10865 net.cpp:399] inception_4a/output_inception_4a/output_0_split -> inception_4a/output_inception_4a/output_0_split_0
I0714 21:49:09.836962 10865 net.cpp:399] inception_4a/output_inception_4a/output_0_split -> inception_4a/output_inception_4a/output_0_split_1
I0714 21:49:09.836971 10865 net.cpp:399] inception_4a/output_inception_4a/output_0_split -> inception_4a/output_inception_4a/output_0_split_2
I0714 21:49:09.836982 10865 net.cpp:399] inception_4a/output_inception_4a/output_0_split -> inception_4a/output_inception_4a/output_0_split_3
I0714 21:49:09.837180 10865 net.cpp:141] Setting up inception_4a/output_inception_4a/output_0_split
I0714 21:49:09.837193 10865 net.cpp:148] Top shape: 10 512 14 14 (1003520)
I0714 21:49:09.837199 10865 net.cpp:148] Top shape: 10 512 14 14 (1003520)
I0714 21:49:09.837205 10865 net.cpp:148] Top shape: 10 512 14 14 (1003520)
I0714 21:49:09.837211 10865 net.cpp:148] Top shape: 10 512 14 14 (1003520)
I0714 21:49:09.837215 10865 net.cpp:156] Memory required for data: 389616640
I0714 21:49:09.837220 10865 layer_factory.hpp:77] Creating layer inception_4b/1x1
I0714 21:49:09.837239 10865 net.cpp:91] Creating Layer inception_4b/1x1
I0714 21:49:09.837245 10865 net.cpp:425] inception_4b/1x1 <- inception_4a/output_inception_4a/output_0_split_0
I0714 21:49:09.837260 10865 net.cpp:399] inception_4b/1x1 -> inception_4b/1x1
I0714 21:49:09.841701 10861 net.cpp:141] Setting up inception_4b/1x1
I0714 21:49:09.841722 10861 net.cpp:148] Top shape: 10 160 14 14 (313600)
I0714 21:49:09.841727 10861 net.cpp:156] Memory required for data: 390871040
I0714 21:49:09.841737 10861 layer_factory.hpp:77] Creating layer inception_4b/relu_1x1
I0714 21:49:09.841752 10861 net.cpp:91] Creating Layer inception_4b/relu_1x1
I0714 21:49:09.841759 10861 net.cpp:425] inception_4b/relu_1x1 <- inception_4b/1x1
I0714 21:49:09.841768 10861 net.cpp:386] inception_4b/relu_1x1 -> inception_4b/1x1 (in-place)
I0714 21:49:09.842196 10861 net.cpp:141] Setting up inception_4b/relu_1x1
I0714 21:49:09.842211 10861 net.cpp:148] Top shape: 10 160 14 14 (313600)
I0714 21:49:09.842216 10861 net.cpp:156] Memory required for data: 392125440
I0714 21:49:09.842221 10861 layer_factory.hpp:77] Creating layer inception_4b/3x3_reduce
I0714 21:49:09.842238 10861 net.cpp:91] Creating Layer inception_4b/3x3_reduce
I0714 21:49:09.842247 10861 net.cpp:425] inception_4b/3x3_reduce <- inception_4a/output_inception_4a/output_0_split_1
I0714 21:49:09.842258 10861 net.cpp:399] inception_4b/3x3_reduce -> inception_4b/3x3_reduce
I0714 21:49:09.842288 10865 net.cpp:141] Setting up inception_4b/1x1
I0714 21:49:09.842305 10865 net.cpp:148] Top shape: 10 160 14 14 (313600)
I0714 21:49:09.842310 10865 net.cpp:156] Memory required for data: 390871040
I0714 21:49:09.842321 10865 layer_factory.hpp:77] Creating layer inception_4b/relu_1x1
I0714 21:49:09.842334 10865 net.cpp:91] Creating Layer inception_4b/relu_1x1
I0714 21:49:09.842341 10865 net.cpp:425] inception_4b/relu_1x1 <- inception_4b/1x1
I0714 21:49:09.842350 10865 net.cpp:386] inception_4b/relu_1x1 -> inception_4b/1x1 (in-place)
I0714 21:49:09.842808 10865 net.cpp:141] Setting up inception_4b/relu_1x1
I0714 21:49:09.842823 10865 net.cpp:148] Top shape: 10 160 14 14 (313600)
I0714 21:49:09.842828 10865 net.cpp:156] Memory required for data: 392125440
I0714 21:49:09.842833 10865 layer_factory.hpp:77] Creating layer inception_4b/3x3_reduce
I0714 21:49:09.842850 10865 net.cpp:91] Creating Layer inception_4b/3x3_reduce
I0714 21:49:09.842857 10865 net.cpp:425] inception_4b/3x3_reduce <- inception_4a/output_inception_4a/output_0_split_1
I0714 21:49:09.842867 10865 net.cpp:399] inception_4b/3x3_reduce -> inception_4b/3x3_reduce
I0714 21:49:09.846981 10861 net.cpp:141] Setting up inception_4b/3x3_reduce
I0714 21:49:09.847002 10861 net.cpp:148] Top shape: 10 112 14 14 (219520)
I0714 21:49:09.847008 10861 net.cpp:156] Memory required for data: 393003520
I0714 21:49:09.847019 10861 layer_factory.hpp:77] Creating layer inception_4b/relu_3x3_reduce
I0714 21:49:09.847028 10861 net.cpp:91] Creating Layer inception_4b/relu_3x3_reduce
I0714 21:49:09.847035 10861 net.cpp:425] inception_4b/relu_3x3_reduce <- inception_4b/3x3_reduce
I0714 21:49:09.847043 10861 net.cpp:386] inception_4b/relu_3x3_reduce -> inception_4b/3x3_reduce (in-place)
I0714 21:49:09.847354 10865 net.cpp:141] Setting up inception_4b/3x3_reduce
I0714 21:49:09.847371 10865 net.cpp:148] Top shape: 10 112 14 14 (219520)
I0714 21:49:09.847376 10865 net.cpp:156] Memory required for data: 393003520
I0714 21:49:09.847388 10865 layer_factory.hpp:77] Creating layer inception_4b/relu_3x3_reduce
I0714 21:49:09.847400 10865 net.cpp:91] Creating Layer inception_4b/relu_3x3_reduce
I0714 21:49:09.847409 10865 net.cpp:425] inception_4b/relu_3x3_reduce <- inception_4b/3x3_reduce
I0714 21:49:09.847417 10865 net.cpp:386] inception_4b/relu_3x3_reduce -> inception_4b/3x3_reduce (in-place)
I0714 21:49:09.847424 10861 net.cpp:141] Setting up inception_4b/relu_3x3_reduce
I0714 21:49:09.847439 10861 net.cpp:148] Top shape: 10 112 14 14 (219520)
I0714 21:49:09.847443 10861 net.cpp:156] Memory required for data: 393881600
I0714 21:49:09.847450 10861 layer_factory.hpp:77] Creating layer inception_4b/3x3
I0714 21:49:09.847465 10861 net.cpp:91] Creating Layer inception_4b/3x3
I0714 21:49:09.847472 10861 net.cpp:425] inception_4b/3x3 <- inception_4b/3x3_reduce
I0714 21:49:09.847491 10861 net.cpp:399] inception_4b/3x3 -> inception_4b/3x3
I0714 21:49:09.847828 10865 net.cpp:141] Setting up inception_4b/relu_3x3_reduce
I0714 21:49:09.847842 10865 net.cpp:148] Top shape: 10 112 14 14 (219520)
I0714 21:49:09.847847 10865 net.cpp:156] Memory required for data: 393881600
I0714 21:49:09.847852 10865 layer_factory.hpp:77] Creating layer inception_4b/3x3
I0714 21:49:09.847872 10865 net.cpp:91] Creating Layer inception_4b/3x3
I0714 21:49:09.847879 10865 net.cpp:425] inception_4b/3x3 <- inception_4b/3x3_reduce
I0714 21:49:09.847892 10865 net.cpp:399] inception_4b/3x3 -> inception_4b/3x3
I0714 21:49:09.856349 10861 net.cpp:141] Setting up inception_4b/3x3
I0714 21:49:09.856370 10861 net.cpp:148] Top shape: 10 224 14 14 (439040)
I0714 21:49:09.856376 10861 net.cpp:156] Memory required for data: 395637760
I0714 21:49:09.856386 10861 layer_factory.hpp:77] Creating layer inception_4b/relu_3x3
I0714 21:49:09.856400 10861 net.cpp:91] Creating Layer inception_4b/relu_3x3
I0714 21:49:09.856406 10861 net.cpp:425] inception_4b/relu_3x3 <- inception_4b/3x3
I0714 21:49:09.856415 10861 net.cpp:386] inception_4b/relu_3x3 -> inception_4b/3x3 (in-place)
I0714 21:49:09.857821 10861 net.cpp:141] Setting up inception_4b/relu_3x3
I0714 21:49:09.857838 10861 net.cpp:148] Top shape: 10 224 14 14 (439040)
I0714 21:49:09.857844 10861 net.cpp:156] Memory required for data: 397393920
I0714 21:49:09.857851 10861 layer_factory.hpp:77] Creating layer inception_4b/5x5_reduce
I0714 21:49:09.857879 10861 net.cpp:91] Creating Layer inception_4b/5x5_reduce
I0714 21:49:09.857889 10861 net.cpp:425] inception_4b/5x5_reduce <- inception_4a/output_inception_4a/output_0_split_2
I0714 21:49:09.857900 10861 net.cpp:399] inception_4b/5x5_reduce -> inception_4b/5x5_reduce
I0714 21:49:09.857954 10865 net.cpp:141] Setting up inception_4b/3x3
I0714 21:49:09.857971 10865 net.cpp:148] Top shape: 10 224 14 14 (439040)
I0714 21:49:09.857977 10865 net.cpp:156] Memory required for data: 395637760
I0714 21:49:09.857988 10865 layer_factory.hpp:77] Creating layer inception_4b/relu_3x3
I0714 21:49:09.858000 10865 net.cpp:91] Creating Layer inception_4b/relu_3x3
I0714 21:49:09.858006 10865 net.cpp:425] inception_4b/relu_3x3 <- inception_4b/3x3
I0714 21:49:09.858018 10865 net.cpp:386] inception_4b/relu_3x3 -> inception_4b/3x3 (in-place)
I0714 21:49:09.859004 10865 net.cpp:141] Setting up inception_4b/relu_3x3
I0714 21:49:09.859022 10865 net.cpp:148] Top shape: 10 224 14 14 (439040)
I0714 21:49:09.859027 10865 net.cpp:156] Memory required for data: 397393920
I0714 21:49:09.859033 10865 layer_factory.hpp:77] Creating layer inception_4b/5x5_reduce
I0714 21:49:09.859064 10865 net.cpp:91] Creating Layer inception_4b/5x5_reduce
I0714 21:49:09.859072 10865 net.cpp:425] inception_4b/5x5_reduce <- inception_4a/output_inception_4a/output_0_split_2
I0714 21:49:09.859086 10865 net.cpp:399] inception_4b/5x5_reduce -> inception_4b/5x5_reduce
I0714 21:49:09.863350 10861 net.cpp:141] Setting up inception_4b/5x5_reduce
I0714 21:49:09.863370 10861 net.cpp:148] Top shape: 10 24 14 14 (47040)
I0714 21:49:09.863376 10861 net.cpp:156] Memory required for data: 397582080
I0714 21:49:09.863389 10861 layer_factory.hpp:77] Creating layer inception_4b/relu_5x5_reduce
I0714 21:49:09.863397 10861 net.cpp:91] Creating Layer inception_4b/relu_5x5_reduce
I0714 21:49:09.863404 10861 net.cpp:425] inception_4b/relu_5x5_reduce <- inception_4b/5x5_reduce
I0714 21:49:09.863411 10861 net.cpp:386] inception_4b/relu_5x5_reduce -> inception_4b/5x5_reduce (in-place)
I0714 21:49:09.863893 10861 net.cpp:141] Setting up inception_4b/relu_5x5_reduce
I0714 21:49:09.863908 10861 net.cpp:148] Top shape: 10 24 14 14 (47040)
I0714 21:49:09.863914 10861 net.cpp:156] Memory required for data: 397770240
I0714 21:49:09.863919 10861 layer_factory.hpp:77] Creating layer inception_4b/5x5
I0714 21:49:09.863934 10861 net.cpp:91] Creating Layer inception_4b/5x5
I0714 21:49:09.863941 10861 net.cpp:425] inception_4b/5x5 <- inception_4b/5x5_reduce
I0714 21:49:09.863955 10861 net.cpp:399] inception_4b/5x5 -> inception_4b/5x5
I0714 21:49:09.864014 10865 net.cpp:141] Setting up inception_4b/5x5_reduce
I0714 21:49:09.864032 10865 net.cpp:148] Top shape: 10 24 14 14 (47040)
I0714 21:49:09.864037 10865 net.cpp:156] Memory required for data: 397582080
I0714 21:49:09.864048 10865 layer_factory.hpp:77] Creating layer inception_4b/relu_5x5_reduce
I0714 21:49:09.864061 10865 net.cpp:91] Creating Layer inception_4b/relu_5x5_reduce
I0714 21:49:09.864068 10865 net.cpp:425] inception_4b/relu_5x5_reduce <- inception_4b/5x5_reduce
I0714 21:49:09.864078 10865 net.cpp:386] inception_4b/relu_5x5_reduce -> inception_4b/5x5_reduce (in-place)
I0714 21:49:09.864490 10865 net.cpp:141] Setting up inception_4b/relu_5x5_reduce
I0714 21:49:09.864502 10865 net.cpp:148] Top shape: 10 24 14 14 (47040)
I0714 21:49:09.864507 10865 net.cpp:156] Memory required for data: 397770240
I0714 21:49:09.864513 10865 layer_factory.hpp:77] Creating layer inception_4b/5x5
I0714 21:49:09.864531 10865 net.cpp:91] Creating Layer inception_4b/5x5
I0714 21:49:09.864538 10865 net.cpp:425] inception_4b/5x5 <- inception_4b/5x5_reduce
I0714 21:49:09.864550 10865 net.cpp:399] inception_4b/5x5 -> inception_4b/5x5
I0714 21:49:09.871853 10861 net.cpp:141] Setting up inception_4b/5x5
I0714 21:49:09.871876 10861 net.cpp:148] Top shape: 10 64 14 14 (125440)
I0714 21:49:09.871882 10861 net.cpp:156] Memory required for data: 398272000
I0714 21:49:09.871894 10861 layer_factory.hpp:77] Creating layer inception_4b/relu_5x5
I0714 21:49:09.871908 10861 net.cpp:91] Creating Layer inception_4b/relu_5x5
I0714 21:49:09.871915 10861 net.cpp:425] inception_4b/relu_5x5 <- inception_4b/5x5
I0714 21:49:09.871924 10861 net.cpp:386] inception_4b/relu_5x5 -> inception_4b/5x5 (in-place)
I0714 21:49:09.872252 10865 net.cpp:141] Setting up inception_4b/5x5
I0714 21:49:09.872268 10865 net.cpp:148] Top shape: 10 64 14 14 (125440)
I0714 21:49:09.872274 10865 net.cpp:156] Memory required for data: 398272000
I0714 21:49:09.872284 10865 layer_factory.hpp:77] Creating layer inception_4b/relu_5x5
I0714 21:49:09.872298 10865 net.cpp:91] Creating Layer inception_4b/relu_5x5
I0714 21:49:09.872304 10865 net.cpp:425] inception_4b/relu_5x5 <- inception_4b/5x5
I0714 21:49:09.872313 10865 net.cpp:386] inception_4b/relu_5x5 -> inception_4b/5x5 (in-place)
I0714 21:49:09.872319 10861 net.cpp:141] Setting up inception_4b/relu_5x5
I0714 21:49:09.872334 10861 net.cpp:148] Top shape: 10 64 14 14 (125440)
I0714 21:49:09.872339 10861 net.cpp:156] Memory required for data: 398773760
I0714 21:49:09.872344 10861 layer_factory.hpp:77] Creating layer inception_4b/pool
I0714 21:49:09.872354 10861 net.cpp:91] Creating Layer inception_4b/pool
I0714 21:49:09.872360 10861 net.cpp:425] inception_4b/pool <- inception_4a/output_inception_4a/output_0_split_3
I0714 21:49:09.872373 10861 net.cpp:399] inception_4b/pool -> inception_4b/pool
I0714 21:49:09.872619 10861 net.cpp:141] Setting up inception_4b/pool
I0714 21:49:09.872632 10861 net.cpp:148] Top shape: 10 512 14 14 (1003520)
I0714 21:49:09.872637 10861 net.cpp:156] Memory required for data: 402787840
I0714 21:49:09.872642 10861 layer_factory.hpp:77] Creating layer inception_4b/pool_proj
I0714 21:49:09.872661 10861 net.cpp:91] Creating Layer inception_4b/pool_proj
I0714 21:49:09.872668 10861 net.cpp:425] inception_4b/pool_proj <- inception_4b/pool
I0714 21:49:09.872681 10861 net.cpp:399] inception_4b/pool_proj -> inception_4b/pool_proj
I0714 21:49:09.872692 10865 net.cpp:141] Setting up inception_4b/relu_5x5
I0714 21:49:09.872706 10865 net.cpp:148] Top shape: 10 64 14 14 (125440)
I0714 21:49:09.872711 10865 net.cpp:156] Memory required for data: 398773760
I0714 21:49:09.872717 10865 layer_factory.hpp:77] Creating layer inception_4b/pool
I0714 21:49:09.872730 10865 net.cpp:91] Creating Layer inception_4b/pool
I0714 21:49:09.872735 10865 net.cpp:425] inception_4b/pool <- inception_4a/output_inception_4a/output_0_split_3
I0714 21:49:09.872750 10865 net.cpp:399] inception_4b/pool -> inception_4b/pool
I0714 21:49:09.872989 10865 net.cpp:141] Setting up inception_4b/pool
I0714 21:49:09.873003 10865 net.cpp:148] Top shape: 10 512 14 14 (1003520)
I0714 21:49:09.873006 10865 net.cpp:156] Memory required for data: 402787840
I0714 21:49:09.873013 10865 layer_factory.hpp:77] Creating layer inception_4b/pool_proj
I0714 21:49:09.873029 10865 net.cpp:91] Creating Layer inception_4b/pool_proj
I0714 21:49:09.873036 10865 net.cpp:425] inception_4b/pool_proj <- inception_4b/pool
I0714 21:49:09.873045 10865 net.cpp:399] inception_4b/pool_proj -> inception_4b/pool_proj
I0714 21:49:09.876934 10861 net.cpp:141] Setting up inception_4b/pool_proj
I0714 21:49:09.876955 10861 net.cpp:148] Top shape: 10 64 14 14 (125440)
I0714 21:49:09.876960 10861 net.cpp:156] Memory required for data: 403289600
I0714 21:49:09.876971 10861 layer_factory.hpp:77] Creating layer inception_4b/relu_pool_proj
I0714 21:49:09.876981 10861 net.cpp:91] Creating Layer inception_4b/relu_pool_proj
I0714 21:49:09.876986 10861 net.cpp:425] inception_4b/relu_pool_proj <- inception_4b/pool_proj
I0714 21:49:09.876999 10861 net.cpp:386] inception_4b/relu_pool_proj -> inception_4b/pool_proj (in-place)
I0714 21:49:09.878031 10861 net.cpp:141] Setting up inception_4b/relu_pool_proj
I0714 21:49:09.878049 10861 net.cpp:148] Top shape: 10 64 14 14 (125440)
I0714 21:49:09.878054 10861 net.cpp:156] Memory required for data: 403791360
I0714 21:49:09.878060 10861 layer_factory.hpp:77] Creating layer inception_4b/output
I0714 21:49:09.878069 10861 net.cpp:91] Creating Layer inception_4b/output
I0714 21:49:09.878075 10861 net.cpp:425] inception_4b/output <- inception_4b/1x1
I0714 21:49:09.878082 10861 net.cpp:425] inception_4b/output <- inception_4b/3x3
I0714 21:49:09.878088 10861 net.cpp:425] inception_4b/output <- inception_4b/5x5
I0714 21:49:09.878094 10861 net.cpp:425] inception_4b/output <- inception_4b/pool_proj
I0714 21:49:09.878092 10865 net.cpp:141] Setting up inception_4b/pool_proj
I0714 21:49:09.878110 10861 net.cpp:399] inception_4b/output -> inception_4b/output
I0714 21:49:09.878115 10865 net.cpp:148] Top shape: 10 64 14 14 (125440)
I0714 21:49:09.878121 10865 net.cpp:156] Memory required for data: 403289600
I0714 21:49:09.878131 10865 layer_factory.hpp:77] Creating layer inception_4b/relu_pool_proj
I0714 21:49:09.878145 10865 net.cpp:91] Creating Layer inception_4b/relu_pool_proj
I0714 21:49:09.878152 10865 net.cpp:425] inception_4b/relu_pool_proj <- inception_4b/pool_proj
I0714 21:49:09.878162 10865 net.cpp:386] inception_4b/relu_pool_proj -> inception_4b/pool_proj (in-place)
I0714 21:49:09.878195 10861 net.cpp:141] Setting up inception_4b/output
I0714 21:49:09.878206 10861 net.cpp:148] Top shape: 10 512 14 14 (1003520)
I0714 21:49:09.878211 10861 net.cpp:156] Memory required for data: 407805440
I0714 21:49:09.878216 10861 layer_factory.hpp:77] Creating layer inception_4b/output_inception_4b/output_0_split
I0714 21:49:09.878226 10861 net.cpp:91] Creating Layer inception_4b/output_inception_4b/output_0_split
I0714 21:49:09.878232 10861 net.cpp:425] inception_4b/output_inception_4b/output_0_split <- inception_4b/output
I0714 21:49:09.878243 10861 net.cpp:399] inception_4b/output_inception_4b/output_0_split -> inception_4b/output_inception_4b/output_0_split_0
I0714 21:49:09.878254 10861 net.cpp:399] inception_4b/output_inception_4b/output_0_split -> inception_4b/output_inception_4b/output_0_split_1
I0714 21:49:09.878263 10861 net.cpp:399] inception_4b/output_inception_4b/output_0_split -> inception_4b/output_inception_4b/output_0_split_2
I0714 21:49:09.878274 10861 net.cpp:399] inception_4b/output_inception_4b/output_0_split -> inception_4b/output_inception_4b/output_0_split_3
I0714 21:49:09.879165 10861 net.cpp:141] Setting up inception_4b/output_inception_4b/output_0_split
I0714 21:49:09.879175 10865 net.cpp:141] Setting up inception_4b/relu_pool_proj
I0714 21:49:09.879181 10861 net.cpp:148] Top shape: 10 512 14 14 (1003520)
I0714 21:49:09.879189 10861 net.cpp:148] Top shape: 10 512 14 14 (1003520)
I0714 21:49:09.879191 10865 net.cpp:148] Top shape: 10 64 14 14 (125440)
I0714 21:49:09.879195 10861 net.cpp:148] Top shape: 10 512 14 14 (1003520)
I0714 21:49:09.879196 10865 net.cpp:156] Memory required for data: 403791360
I0714 21:49:09.879202 10861 net.cpp:148] Top shape: 10 512 14 14 (1003520)
I0714 21:49:09.879204 10865 layer_factory.hpp:77] Creating layer inception_4b/output
I0714 21:49:09.879206 10861 net.cpp:156] Memory required for data: 423861760
I0714 21:49:09.879212 10861 layer_factory.hpp:77] Creating layer inception_4c/1x1
I0714 21:49:09.879214 10865 net.cpp:91] Creating Layer inception_4b/output
I0714 21:49:09.879226 10865 net.cpp:425] inception_4b/output <- inception_4b/1x1
I0714 21:49:09.879235 10865 net.cpp:425] inception_4b/output <- inception_4b/3x3
I0714 21:49:09.879235 10861 net.cpp:91] Creating Layer inception_4c/1x1
…
I0714 21:49:10.013144 10865 net.cpp:141] Setting up inception_4e/relu_5x5_reduce
I0714 21:49:10.013157 10865 net.cpp:148] Top shape: 10 32 14 14 (62720)
I0714 21:49:10.013162 10865 net.cpp:156] Memory required for data: 506150400
I0714 21:49:10.013169 10865 layer_factory.hpp:77] Creating layer inception_4e/5x5
I0714 21:49:10.013187 10865 net.cpp:91] Creating Layer inception_4e/5x5
I0714 21:49:10.013195 10865 net.cpp:425] inception_4e/5x5 <- inception_4e/5x5_reduce
I0714 21:49:10.013207 10865 net.cpp:399] inception_4e/5x5 -> inception_4e/5x5
I0714 21:49:10.016590 10861 net.cpp:141] Setting up inception_4e/5x5
I0714 21:49:10.016629 10861 net.cpp:148] Top shape: 10 128 14 14 (250880)
I0714 21:49:10.016647 10861 net.cpp:156] Memory required for data: 507153920
I0714 21:49:10.016671 10861 layer_factory.hpp:77] Creating layer inception_4e/relu_5x5
I0714 21:49:10.016691 10861 net.cpp:91] Creating Layer inception_4e/relu_5x5
I0714 21:49:10.016706 10861 net.cpp:425] inception_4e/relu_5x5 <- inception_4e/5x5
I0714 21:49:10.016723 10861 net.cpp:386] inception_4e/relu_5x5 -> inception_4e/5x5 (in-place)
I0714 21:49:10.017256 10861 net.cpp:141] Setting up inception_4e/relu_5x5
I0714 21:49:10.017282 10861 net.cpp:148] Top shape: 10 128 14 14 (250880)
I0714 21:49:10.017290 10861 net.cpp:156] Memory required for data: 508157440
I0714 21:49:10.017302 10861 layer_factory.hpp:77] Creating layer inception_4e/pool
I0714 21:49:10.017318 10861 net.cpp:91] Creating Layer inception_4e/pool
I0714 21:49:10.017329 10861 net.cpp:425] inception_4e/pool <- inception_4d/output_inception_4d/output_0_split_3
I0714 21:49:10.017349 10861 net.cpp:399] inception_4e/pool -> inception_4e/pool
I0714 21:49:10.017693 10861 net.cpp:141] Setting up inception_4e/pool
I0714 21:49:10.017714 10861 net.cpp:148] Top shape: 10 528 14 14 (1034880)
I0714 21:49:10.017721 10861 net.cpp:156] Memory required for data: 512296960
I0714 21:49:10.017731 10861 layer_factory.hpp:77] Creating layer inception_4e/pool_proj
I0714 21:49:10.017760 10861 net.cpp:91] Creating Layer inception_4e/pool_proj
I0714 21:49:10.017771 10861 net.cpp:425] inception_4e/pool_proj <- inception_4e/pool
I0714 21:49:10.017786 10861 net.cpp:399] inception_4e/pool_proj -> inception_4e/pool_proj
I0714 21:49:10.020975 10865 net.cpp:141] Setting up inception_4e/5x5
I0714 21:49:10.021001 10865 net.cpp:148] Top shape: 10 128 14 14 (250880)
I0714 21:49:10.021008 10865 net.cpp:156] Memory required for data: 507153920
I0714 21:49:10.021020 10865 layer_factory.hpp:77] Creating layer inception_4e/relu_5x5
I0714 21:49:10.021035 10865 net.cpp:91] Creating Layer inception_4e/relu_5x5
I0714 21:49:10.021044 10865 net.cpp:425] inception_4e/relu_5x5 <- inception_4e/5x5
I0714 21:49:10.021054 10865 net.cpp:386] inception_4e/relu_5x5 -> inception_4e/5x5 (in-place)
I0714 21:49:10.021365 10865 net.cpp:141] Setting up inception_4e/relu_5x5
I0714 21:49:10.021379 10865 net.cpp:148] Top shape: 10 128 14 14 (250880)
I0714 21:49:10.021384 10865 net.cpp:156] Memory required for data: 508157440
I0714 21:49:10.021390 10865 layer_factory.hpp:77] Creating layer inception_4e/pool
I0714 21:49:10.021399 10865 net.cpp:91] Creating Layer inception_4e/pool
I0714 21:49:10.021406 10865 net.cpp:425] inception_4e/pool <- inception_4d/output_inception_4d/output_0_split_3
I0714 21:49:10.021420 10865 net.cpp:399] inception_4e/pool -> inception_4e/pool
I0714 21:49:10.021714 10865 net.cpp:141] Setting up inception_4e/pool
I0714 21:49:10.021728 10865 net.cpp:148] Top shape: 10 528 14 14 (1034880)
I0714 21:49:10.021733 10865 net.cpp:156] Memory required for data: 512296960
I0714 21:49:10.021738 10865 layer_factory.hpp:77] Creating layer inception_4e/pool_proj
I0714 21:49:10.021756 10865 net.cpp:91] Creating Layer inception_4e/pool_proj
I0714 21:49:10.021764 10865 net.cpp:425] inception_4e/pool_proj <- inception_4e/pool
I0714 21:49:10.021775 10865 net.cpp:399] inception_4e/pool_proj -> inception_4e/pool_proj
I0714 21:49:10.026721 10861 net.cpp:141] Setting up inception_4e/pool_proj
I0714 21:49:10.026747 10861 net.cpp:148] Top shape: 10 128 14 14 (250880)
I0714 21:49:10.026754 10861 net.cpp:156] Memory required for data: 513300480
I0714 21:49:10.026767 10861 layer_factory.hpp:77] Creating layer inception_4e/relu_pool_proj
I0714 21:49:10.026783 10861 net.cpp:91] Creating Layer inception_4e/relu_pool_proj
I0714 21:49:10.026793 10861 net.cpp:425] inception_4e/relu_pool_proj <- inception_4e/pool_proj
I0714 21:49:10.026803 10861 net.cpp:386] inception_4e/relu_pool_proj -> inception_4e/pool_proj (in-place)
I0714 21:49:10.027878 10861 net.cpp:141] Setting up inception_4e/relu_pool_proj
I0714 21:49:10.027895 10861 net.cpp:148] Top shape: 10 128 14 14 (250880)
I0714 21:49:10.027901 10861 net.cpp:156] Memory required for data: 514304000
I0714 21:49:10.027907 10861 layer_factory.hpp:77] Creating layer inception_4e/output
I0714 21:49:10.027921 10861 net.cpp:91] Creating Layer inception_4e/output
I0714 21:49:10.027930 10861 net.cpp:425] inception_4e/output <- inception_4e/1x1
I0714 21:49:10.027937 10861 net.cpp:425] inception_4e/output <- inception_4e/3x3
I0714 21:49:10.027945 10861 net.cpp:425] inception_4e/output <- inception_4e/5x5
I0714 21:49:10.027951 10861 net.cpp:425] inception_4e/output <- inception_4e/pool_proj
I0714 21:49:10.027958 10861 net.cpp:399] inception_4e/output -> inception_4e/output
I0714 21:49:10.028101 10861 net.cpp:141] Setting up inception_4e/output
I0714 21:49:10.028115 10861 net.cpp:148] Top shape: 10 832 14 14 (1630720)
I0714 21:49:10.028120 10861 net.cpp:156] Memory required for data: 520826880
I0714 21:49:10.028126 10861 layer_factory.hpp:77] Creating layer pool4/3x3_s2
I0714 21:49:10.028136 10861 net.cpp:91] Creating Layer pool4/3x3_s2
I0714 21:49:10.028141 10861 net.cpp:425] pool4/3x3_s2 <- inception_4e/output
I0714 21:49:10.028146 10865 net.cpp:141] Setting up inception_4e/pool_proj
I0714 21:49:10.028153 10861 net.cpp:399] pool4/3x3_s2 -> pool4/3x3_s2
I0714 21:49:10.028167 10865 net.cpp:148] Top shape: 10 128 14 14 (250880)
I0714 21:49:10.028175 10865 net.cpp:156] Memory required for data: 513300480
I0714 21:49:10.028187 10865 layer_factory.hpp:77] Creating layer inception_4e/relu_pool_proj
I0714 21:49:10.028198 10865 net.cpp:91] Creating Layer inception_4e/relu_pool_proj
I0714 21:49:10.028204 10865 net.cpp:425] inception_4e/relu_pool_proj <- inception_4e/pool_proj
I0714 21:49:10.028213 10865 net.cpp:386] inception_4e/relu_pool_proj -> inception_4e/pool_proj (in-place)
I0714 21:49:10.028964 10861 net.cpp:141] Setting up pool4/3x3_s2
I0714 21:49:10.028976 10861 net.cpp:148] Top shape: 10 832 7 7 (407680)
I0714 21:49:10.028981 10861 net.cpp:156] Memory required for data: 522457600
I0714 21:49:10.028987 10861 layer_factory.hpp:77] Creating layer pool4/3x3_s2_pool4/3x3_s2_0_split
I0714 21:49:10.029001 10861 net.cpp:91] Creating Layer pool4/3x3_s2_pool4/3x3_s2_0_split
I0714 21:49:10.029007 10861 net.cpp:425] pool4/3x3_s2_pool4/3x3_s2_0_split <- pool4/3x3_s2
I0714 21:49:10.029017 10861 net.cpp:399] pool4/3x3_s2_pool4/3x3_s2_0_split -> pool4/3x3_s2_pool4/3x3_s2_0_split_0
I0714 21:49:10.029028 10861 net.cpp:399] pool4/3x3_s2_pool4/3x3_s2_0_split -> pool4/3x3_s2_pool4/3x3_s2_0_split_1
I0714 21:49:10.029037 10861 net.cpp:399] pool4/3x3_s2_pool4/3x3_s2_0_split -> pool4/3x3_s2_pool4/3x3_s2_0_split_2
I0714 21:49:10.029047 10861 net.cpp:399] pool4/3x3_s2_pool4/3x3_s2_0_split -> pool4/3x3_s2_pool4/3x3_s2_0_split_3
I0714 21:49:10.029187 10865 net.cpp:141] Setting up inception_4e/relu_pool_proj
I0714 21:49:10.029206 10865 net.cpp:148] Top shape: 10 128 14 14 (250880)
I0714 21:49:10.029211 10865 net.cpp:156] Memory required for data: 514304000
I0714 21:49:10.029217 10865 layer_factory.hpp:77] Creating layer inception_4e/output
I0714 21:49:10.029225 10865 net.cpp:91] Creating Layer inception_4e/output
I0714 21:49:10.029232 10865 net.cpp:425] inception_4e/output <- inception_4e/1x1
I0714 21:49:10.029238 10865 net.cpp:425] inception_4e/output <- inception_4e/3x3
I0714 21:49:10.029245 10865 net.cpp:425] inception_4e/output <- inception_4e/5x5
I0714 21:49:10.029252 10865 net.cpp:425] inception_4e/output <- inception_4e/pool_proj
I0714 21:49:10.029258 10865 net.cpp:399] inception_4e/output -> inception_4e/output
I0714 21:49:10.029355 10861 net.cpp:141] Setting up pool4/3x3_s2_pool4/3x3_s2_0_split
I0714 21:49:10.029366 10861 net.cpp:148] Top shape: 10 832 7 7 (407680)
I0714 21:49:10.029373 10861 net.cpp:148] Top shape: 10 832 7 7 (407680)
I0714 21:49:10.029379 10861 net.cpp:148] Top shape: 10 832 7 7 (407680)
I0714 21:49:10.029386 10861 net.cpp:148] Top shape: 10 832 7 7 (407680)
I0714 21:49:10.029389 10861 net.cpp:156] Memory required for data: 528980480
I0714 21:49:10.029388 10865 net.cpp:141] Setting up inception_4e/output
I0714 21:49:10.029395 10861 layer_factory.hpp:77] Creating layer inception_5a/1x1
I0714 21:49:10.029402 10865 net.cpp:148] Top shape: 10 832 14 14 (1630720)
I0714 21:49:10.029407 10865 net.cpp:156] Memory required for data: 520826880
I0714 21:49:10.029412 10865 layer_factory.hpp:77] Creating layer pool4/3x3_s2
I0714 21:49:10.029415 10861 net.cpp:91] Creating Layer inception_5a/1x1
I0714 21:49:10.029422 10865 net.cpp:91] Creating Layer pool4/3x3_s2
I0714 21:49:10.029422 10861 net.cpp:425] inception_5a/1x1 <- pool4/3x3_s2_pool4/3x3_s2_0_split_0
I0714 21:49:10.029433 10865 net.cpp:425] pool4/3x3_s2 <- inception_4e/output
I0714 21:49:10.029441 10861 net.cpp:399] inception_5a/1x1 -> inception_5a/1x1
I0714 21:49:10.029446 10865 net.cpp:399] pool4/3x3_s2 -> pool4/3x3_s2
I0714 21:49:10.029687 10865 net.cpp:141] Setting up pool4/3x3_s2
I0714 21:49:10.029700 10865 net.cpp:148] Top shape: 10 832 7 7 (407680)
I0714 21:49:10.029706 10865 net.cpp:156] Memory required for data: 522457600
I0714 21:49:10.029711 10865 layer_factory.hpp:77] Creating layer pool4/3x3_s2_pool4/3x3_s2_0_split
I0714 21:49:10.029719 10865 net.cpp:91] Creating Layer pool4/3x3_s2_pool4/3x3_s2_0_split
I0714 21:49:10.029726 10865 net.cpp:425] pool4/3x3_s2_pool4/3x3_s2_0_split <- pool4/3x3_s2
I0714 21:49:10.029733 10865 net.cpp:399] pool4/3x3_s2_pool4/3x3_s2_0_split -> pool4/3x3_s2_pool4/3x3_s2_0_split_0
I0714 21:49:10.029747 10865 net.cpp:399] pool4/3x3_s2_pool4/3x3_s2_0_split -> pool4/3x3_s2_pool4/3x3_s2_0_split_1
I0714 21:49:10.029757 10865 net.cpp:399] pool4/3x3_s2_pool4/3x3_s2_0_split -> pool4/3x3_s2_pool4/3x3_s2_0_split_2
I0714 21:49:10.029765 10865 net.cpp:399] pool4/3x3_s2_pool4/3x3_s2_0_split -> pool4/3x3_s2_pool4/3x3_s2_0_split_3
I0714 21:49:10.030220 10865 net.cpp:141] Setting up pool4/3x3_s2_pool4/3x3_s2_0_split
I0714 21:49:10.030233 10865 net.cpp:148] Top shape: 10 832 7 7 (407680)
I0714 21:49:10.030241 10865 net.cpp:148] Top shape: 10 832 7 7 (407680)
I0714 21:49:10.030246 10865 net.cpp:148] Top shape: 10 832 7 7 (407680)
I0714 21:49:10.030252 10865 net.cpp:148] Top shape: 10 832 7 7 (407680)
I0714 21:49:10.030256 10865 net.cpp:156] Memory required for data: 528980480
I0714 21:49:10.030261 10865 layer_factory.hpp:77] Creating layer inception_5a/1x1
I0714 21:49:10.030275 10865 net.cpp:91] Creating Layer inception_5a/1x1
I0714 21:49:10.030282 10865 net.cpp:425] inception_5a/1x1 <- pool4/3x3_s2_pool4/3x3_s2_0_split_0
I0714 21:49:10.030295 10865 net.cpp:399] inception_5a/1x1 -> inception_5a/1x1
I0714 21:49:10.037919 10861 net.cpp:141] Setting up inception_5a/1x1
I0714 21:49:10.037941 10861 net.cpp:148] Top shape: 10 256 7 7 (125440)
I0714 21:49:10.037947 10861 net.cpp:156] Memory required for data: 529482240
I0714 21:49:10.037958 10861 layer_factory.hpp:77] Creating layer inception_5a/relu_1x1
I0714 21:49:10.037972 10861 net.cpp:91] Creating Layer inception_5a/relu_1x1
I0714 21:49:10.037979 10861 net.cpp:425] inception_5a/relu_1x1 <- inception_5a/1x1
I0714 21:49:10.037988 10861 net.cpp:386] inception_5a/relu_1x1 -> inception_5a/1x1 (in-place)
I0714 21:49:10.038362 10861 net.cpp:141] Setting up inception_5a/relu_1x1
I0714 21:49:10.038375 10861 net.cpp:148] Top shape: 10 256 7 7 (125440)
I0714 21:49:10.038380 10861 net.cpp:156] Memory required for data: 529984000
I0714 21:49:10.038388 10861 layer_factory.hpp:77] Creating layer inception_5a/3x3_reduce
I0714 21:49:10.038405 10861 net.cpp:91] Creating Layer inception_5a/3x3_reduce
I0714 21:49:10.038413 10861 net.cpp:425] inception_5a/3x3_reduce <- pool4/3x3_s2_pool4/3x3_s2_0_split_1
I0714 21:49:10.038422 10861 net.cpp:399] inception_5a/3x3_reduce -> inception_5a/3x3_reduce
I0714 21:49:10.041396 10865 net.cpp:141] Setting up inception_5a/1x1
I0714 21:49:10.041417 10865 net.cpp:148] Top shape: 10 256 7 7 (125440)
I0714 21:49:10.041424 10865 net.cpp:156] Memory required for data: 529482240
I0714 21:49:10.041435 10865 layer_factory.hpp:77] Creating layer inception_5a/relu_1x1
I0714 21:49:10.041448 10865 net.cpp:91] Creating Layer inception_5a/relu_1x1
I0714 21:49:10.041455 10865 net.cpp:425] inception_5a/relu_1x1 <- inception_5a/1x1
I0714 21:49:10.041465 10865 net.cpp:386] inception_5a/relu_1x1 -> inception_5a/1x1 (in-place)
I0714 21:49:10.041771 10865 net.cpp:141] Setting up inception_5a/relu_1x1
I0714 21:49:10.041785 10865 net.cpp:148] Top shape: 10 256 7 7 (125440)
I0714 21:49:10.041790 10865 net.cpp:156] Memory required for data: 529984000
I0714 21:49:10.041795 10865 layer_factory.hpp:77] Creating layer inception_5a/3x3_reduce
I0714 21:49:10.041812 10865 net.cpp:91] Creating Layer inception_5a/3x3_reduce
I0714 21:49:10.041820 10865 net.cpp:425] inception_5a/3x3_reduce <- pool4/3x3_s2_pool4/3x3_s2_0_split_1
I0714 21:49:10.041832 10865 net.cpp:399] inception_5a/3x3_reduce -> inception_5a/3x3_reduce
I0714 21:49:10.048250 10861 net.cpp:141] Setting up inception_5a/3x3_reduce
I0714 21:49:10.048275 10861 net.cpp:148] Top shape: 10 160 7 7 (78400)
I0714 21:49:10.048281 10861 net.cpp:156] Memory required for data: 530297600
I0714 21:49:10.048293 10861 layer_factory.hpp:77] Creating layer inception_5a/relu_3x3_reduce
I0714 21:49:10.048308 10861 net.cpp:91] Creating Layer inception_5a/relu_3x3_reduce
I0714 21:49:10.048316 10861 net.cpp:425] inception_5a/relu_3x3_reduce <- inception_5a/3x3_reduce
I0714 21:49:10.048326 10861 net.cpp:386] inception_5a/relu_3x3_reduce -> inception_5a/3x3_reduce (in-place)
I0714 21:49:10.048418 10865 net.cpp:141] Setting up inception_5a/3x3_reduce
I0714 21:49:10.048436 10865 net.cpp:148] Top shape: 10 160 7 7 (78400)
I0714 21:49:10.048442 10865 net.cpp:156] Memory required for data: 530297600
I0714 21:49:10.048452 10865 layer_factory.hpp:77] Creating layer inception_5a/relu_3x3_reduce
I0714 21:49:10.048465 10865 net.cpp:91] Creating Layer inception_5a/relu_3x3_reduce
I0714 21:49:10.048472 10865 net.cpp:425] inception_5a/relu_3x3_reduce <- inception_5a/3x3_reduce
I0714 21:49:10.048480 10865 net.cpp:386] inception_5a/relu_3x3_reduce -> inception_5a/3x3_reduce (in-place)
I0714 21:49:10.048741 10861 net.cpp:141] Setting up inception_5a/relu_3x3_reduce
I0714 21:49:10.048755 10861 net.cpp:148] Top shape: 10 160 7 7 (78400)
I0714 21:49:10.048760 10861 net.cpp:156] Memory required for data: 530611200
I0714 21:49:10.048766 10861 layer_factory.hpp:77] Creating layer inception_5a/3x3
I0714 21:49:10.048786 10861 net.cpp:91] Creating Layer inception_5a/3x3
I0714 21:49:10.048794 10861 net.cpp:425] inception_5a/3x3 <- inception_5a/3x3_reduce
I0714 21:49:10.048806 10861 net.cpp:399] inception_5a/3x3 -> inception_5a/3x3
I0714 21:49:10.048864 10865 net.cpp:141] Setting up inception_5a/relu_3x3_reduce
I0714 21:49:10.048878 10865 net.cpp:148] Top shape: 10 160 7 7 (78400)
I0714 21:49:10.048883 10865 net.cpp:156] Memory required for data: 530611200
I0714 21:49:10.048888 10865 layer_factory.hpp:77] Creating layer inception_5a/3x3
I0714 21:49:10.048908 10865 net.cpp:91] Creating Layer inception_5a/3x3
I0714 21:49:10.048915 10865 net.cpp:425] inception_5a/3x3 <- inception_5a/3x3_reduce
I0714 21:49:10.048925 10865 net.cpp:399] inception_5a/3x3 -> inception_5a/3x3
I0714 21:49:10.061619 10861 net.cpp:141] Setting up inception_5a/3x3
I0714 21:49:10.061645 10861 net.cpp:148] Top shape: 10 320 7 7 (156800)
I0714 21:49:10.061650 10861 net.cpp:156] Memory required for data: 531238400
I0714 21:49:10.061662 10861 layer_factory.hpp:77] Creating layer inception_5a/relu_3x3
I0714 21:49:10.061673 10861 net.cpp:91] Creating Layer inception_5a/relu_3x3
I0714 21:49:10.061681 10861 net.cpp:425] inception_5a/relu_3x3 <- inception_5a/3x3
I0714 21:49:10.061691 10861 net.cpp:386] inception_5a/relu_3x3 -> inception_5a/3x3 (in-place)
I0714 21:49:10.062741 10861 net.cpp:141] Setting up inception_5a/relu_3x3
I0714 21:49:10.062762 10861 net.cpp:148] Top shape: 10 320 7 7 (156800)
I0714 21:49:10.062767 10861 net.cpp:156] Memory required for data: 531865600
I0714 21:49:10.062772 10861 layer_factory.hpp:77] Creating layer inception_5a/5x5_reduce
I0714 21:49:10.062791 10861 net.cpp:91] Creating Layer inception_5a/5x5_reduce
I0714 21:49:10.062799 10861 net.cpp:425] inception_5a/5x5_reduce <- pool4/3x3_s2_pool4/3x3_s2_0_split_2
I0714 21:49:10.062814 10861 net.cpp:399] inception_5a/5x5_reduce -> inception_5a/5x5_reduce
I0714 21:49:10.063362 10865 net.cpp:141] Setting up inception_5a/3x3
I0714 21:49:10.063382 10865 net.cpp:148] Top shape: 10 320 7 7 (156800)
I0714 21:49:10.063388 10865 net.cpp:156] Memory required for data: 531238400
I0714 21:49:10.063400 10865 layer_factory.hpp:77] Creating layer inception_5a/relu_3x3
I0714 21:49:10.063410 10865 net.cpp:91] Creating Layer inception_5a/relu_3x3
I0714 21:49:10.063416 10865 net.cpp:425] inception_5a/relu_3x3 <- inception_5a/3x3
I0714 21:49:10.063428 10865 net.cpp:386] inception_5a/relu_3x3 -> inception_5a/3x3 (in-place)
I0714 21:49:10.064435 10865 net.cpp:141] Setting up inception_5a/relu_3x3
I0714 21:49:10.064453 10865 net.cpp:148] Top shape: 10 320 7 7 (156800)
I0714 21:49:10.064458 10865 net.cpp:156] Memory required for data: 531865600
I0714 21:49:10.064465 10865 layer_factory.hpp:77] Creating layer inception_5a/5x5_reduce
I0714 21:49:10.064482 10865 net.cpp:91] Creating Layer inception_5a/5x5_reduce
I0714 21:49:10.064489 10865 net.cpp:425] inception_5a/5x5_reduce <- pool4/3x3_s2_pool4/3x3_s2_0_split_2
I0714 21:49:10.064503 10865 net.cpp:399] inception_5a/5x5_reduce -> inception_5a/5x5_reduce
I0714 21:49:10.068419 10861 net.cpp:141] Setting up inception_5a/5x5_reduce
I0714 21:49:10.068439 10861 net.cpp:148] Top shape: 10 32 7 7 (15680)
I0714 21:49:10.068445 10861 net.cpp:156] Memory required for data: 531928320
I0714 21:49:10.068456 10861 layer_factory.hpp:77] Creating layer inception_5a/relu_5x5_reduce
I0714 21:49:10.068470 10861 net.cpp:91] Creating Layer inception_5a/relu_5x5_reduce
I0714 21:49:10.068478 10861 net.cpp:425] inception_5a/relu_5x5_reduce <- inception_5a/5x5_reduce
I0714 21:49:10.068492 10861 net.cpp:386] inception_5a/relu_5x5_reduce -> inception_5a/5x5_reduce (in-place)
I0714 21:49:10.068886 10865 net.cpp:141] Setting up inception_5a/5x5_reduce
I0714 21:49:10.068907 10865 net.cpp:148] Top shape: 10 32 7 7 (15680)
I0714 21:49:10.068912 10865 net.cpp:156] Memory required for data: 531928320
I0714 21:49:10.068918 10861 net.cpp:141] Setting up inception_5a/relu_5x5_reduce
I0714 21:49:10.068923 10865 layer_factory.hpp:77] Creating layer inception_5a/relu_5x5_reduce
I0714 21:49:10.068936 10861 net.cpp:148] Top shape: 10 32 7 7 (15680)
I0714 21:49:10.068940 10865 net.cpp:91] Creating Layer inception_5a/relu_5x5_reduce
I0714 21:49:10.068941 10861 net.cpp:156] Memory required for data: 531991040
I0714 21:49:10.068951 10865 net.cpp:425] inception_5a/relu_5x5_reduce <- inception_5a/5x5_reduce
I0714 21:49:10.068955 10861 layer_factory.hpp:77] Creating layer inception_5a/5x5
I0714 21:49:10.068960 10865 net.cpp:386] inception_5a/relu_5x5_reduce -> inception_5a/5x5_reduce (in-place)
I0714 21:49:10.068975 10861 net.cpp:91] Creating Layer inception_5a/5x5
I0714 21:49:10.068985 10861 net.cpp:425] inception_5a/5x5 <- inception_5a/5x5_reduce
I0714 21:49:10.068995 10861 net.cpp:399] inception_5a/5x5 -> inception_5a/5x5
I0714 21:49:10.069437 10865 net.cpp:141] Setting up inception_5a/relu_5x5_reduce
I0714 21:49:10.069449 10865 net.cpp:148] Top shape: 10 32 7 7 (15680)
I0714 21:49:10.069455 10865 net.cpp:156] Memory required for data: 531991040
I0714 21:49:10.069460 10865 layer_factory.hpp:77] Creating layer inception_5a/5x5
I0714 21:49:10.069478 10865 net.cpp:91] Creating Layer inception_5a/5x5
I0714 21:49:10.069484 10865 net.cpp:425] inception_5a/5x5 <- inception_5a/5x5_reduce
I0714 21:49:10.069497 10865 net.cpp:399] inception_5a/5x5 -> inception_5a/5x5
I0714 21:49:10.074430 10861 net.cpp:141] Setting up inception_5a/5x5
I0714 21:49:10.074450 10861 net.cpp:148] Top shape: 10 128 7 7 (62720)
I0714 21:49:10.074455 10861 net.cpp:156] Memory required for data: 532241920
I0714 21:49:10.074466 10861 layer_factory.hpp:77] Creating layer inception_5a/relu_5x5
I0714 21:49:10.074508 10861 net.cpp:91] Creating Layer inception_5a/relu_5x5
I0714 21:49:10.074515 10861 net.cpp:425] inception_5a/relu_5x5 <- inception_5a/5x5
I0714 21:49:10.074524 10861 net.cpp:386] inception_5a/relu_5x5 -> inception_5a/5x5 (in-place)
I0714 21:49:10.074908 10865 net.cpp:141] Setting up inception_5a/5x5
I0714 21:49:10.074924 10865 net.cpp:148] Top shape: 10 128 7 7 (62720)
I0714 21:49:10.074930 10865 net.cpp:156] Memory required for data: 532241920
I0714 21:49:10.074940 10865 layer_factory.hpp:77] Creating layer inception_5a/relu_5x5
I0714 21:49:10.074982 10865 net.cpp:91] Creating Layer inception_5a/relu_5x5
I0714 21:49:10.074985 10861 net.cpp:141] Setting up inception_5a/relu_5x5
I0714 21:49:10.074990 10865 net.cpp:425] inception_5a/relu_5x5 <- inception_5a/5x5
I0714 21:49:10.075003 10861 net.cpp:148] Top shape: 10 128 7 7 (62720)
I0714 21:49:10.075008 10861 net.cpp:156] Memory required for data: 532492800
I0714 21:49:10.075009 10865 net.cpp:386] inception_5a/relu_5x5 -> inception_5a/5x5 (in-place)
I0714 21:49:10.075016 10861 layer_factory.hpp:77] Creating layer inception_5a/pool
I0714 21:49:10.075032 10861 net.cpp:91] Creating Layer inception_5a/pool
I0714 21:49:10.075039 10861 net.cpp:425] inception_5a/pool <- pool4/3x3_s2_pool4/3x3_s2_0_split_3
I0714 21:49:10.075048 10861 net.cpp:399] inception_5a/pool -> inception_5a/pool
I0714 21:49:10.075356 10861 net.cpp:141] Setting up inception_5a/pool
I0714 21:49:10.075369 10861 net.cpp:148] Top shape: 10 832 7 7 (407680)
I0714 21:49:10.075374 10861 net.cpp:156] Memory required for data: 534123520
I0714 21:49:10.075381 10861 layer_factory.hpp:77] Creating layer inception_5a/pool_proj
I0714 21:49:10.075400 10861 net.cpp:91] Creating Layer inception_5a/pool_proj
I0714 21:49:10.075408 10861 net.cpp:425] inception_5a/pool_proj <- inception_5a/pool
I0714 21:49:10.075420 10861 net.cpp:399] inception_5a/pool_proj -> inception_5a/pool_proj
I0714 21:49:10.075439 10865 net.cpp:141] Setting up inception_5a/relu_5x5
I0714 21:49:10.075453 10865 net.cpp:148] Top shape: 10 128 7 7 (62720)
I0714 21:49:10.075459 10865 net.cpp:156] Memory required for data: 532492800
I0714 21:49:10.075465 10865 layer_factory.hpp:77] Creating layer inception_5a/pool
I0714 21:49:10.075477 10865 net.cpp:91] Creating Layer inception_5a/pool
I0714 21:49:10.075484 10865 net.cpp:425] inception_5a/pool <- pool4/3x3_s2_pool4/3x3_s2_0_split_3
I0714 21:49:10.075494 10865 net.cpp:399] inception_5a/pool -> inception_5a/pool
I0714 21:49:10.075744 10865 net.cpp:141] Setting up inception_5a/pool
I0714 21:49:10.075757 10865 net.cpp:148] Top shape: 10 832 7 7 (407680)
I0714 21:49:10.075762 10865 net.cpp:156] Memory required for data: 534123520
I0714 21:49:10.075767 10865 layer_factory.hpp:77] Creating layer inception_5a/pool_proj
I0714 21:49:10.075783 10865 net.cpp:91] Creating Layer inception_5a/pool_proj
I0714 21:49:10.075790 10865 net.cpp:425] inception_5a/pool_proj <- inception_5a/pool
I0714 21:49:10.075805 10865 net.cpp:399] inception_5a/pool_proj -> inception_5a/pool_proj
I0714 21:49:10.083585 10861 net.cpp:141] Setting up inception_5a/pool_proj
I0714 21:49:10.083609 10861 net.cpp:148] Top shape: 10 128 7 7 (62720)
I0714 21:49:10.083616 10861 net.cpp:156] Memory required for data: 534374400
I0714 21:49:10.083627 10861 layer_factory.hpp:77] Creating layer inception_5a/relu_pool_proj
I0714 21:49:10.083638 10861 net.cpp:91] Creating Layer inception_5a/relu_pool_proj
I0714 21:49:10.083645 10861 net.cpp:425] inception_5a/relu_pool_proj <- inception_5a/pool_proj
I0714 21:49:10.083654 10861 net.cpp:386] inception_5a/relu_pool_proj -> inception_5a/pool_proj (in-place)
I0714 21:49:10.084677 10861 net.cpp:141] Setting up inception_5a/relu_pool_proj
I0714 21:49:10.084695 10861 net.cpp:148] Top shape: 10 128 7 7 (62720)
I0714 21:49:10.084700 10861 net.cpp:156] Memory required for data: 534625280
I0714 21:49:10.084707 10861 layer_factory.hpp:77] Creating layer inception_5a/output
I0714 21:49:10.084720 10861 net.cpp:91] Creating Layer inception_5a/output
I0714 21:49:10.084727 10861 net.cpp:425] inception_5a/output <- inception_5a/1x1
I0714 21:49:10.084735 10861 net.cpp:425] inception_5a/output <- inception_5a/3x3
I0714 21:49:10.084741 10861 net.cpp:425] inception_5a/output <- inception_5a/5x5
I0714 21:49:10.084748 10861 net.cpp:425] inception_5a/output <- inception_5a/pool_proj
I0714 21:49:10.084756 10861 net.cpp:399] inception_5a/output -> inception_5a/output
I0714 21:49:10.084811 10865 net.cpp:141] Setting up inception_5a/pool_proj
I0714 21:49:10.084828 10865 net.cpp:148] Top shape: 10 128 7 7 (62720)
I0714 21:49:10.084835 10865 net.cpp:156] Memory required for data: 534374400
I0714 21:49:10.084846 10865 layer_factory.hpp:77] Creating layer inception_5a/relu_pool_proj
I0714 21:49:10.084854 10861 net.cpp:141] Setting up inception_5a/output
I0714 21:49:10.084858 10865 net.cpp:91] Creating Layer inception_5a/relu_pool_proj
I0714 21:49:10.084867 10865 net.cpp:425] inception_5a/relu_pool_proj <- inception_5a/pool_proj
I0714 21:49:10.084867 10861 net.cpp:148] Top shape: 10 832 7 7 (407680)
I0714 21:49:10.084879 10865 net.cpp:386] inception_5a/relu_pool_proj -> inception_5a/pool_proj (in-place)
I0714 21:49:10.084880 10861 net.cpp:156] Memory required for data: 536256000
I0714 21:49:10.084892 10861 layer_factory.hpp:77] Creating layer inception_5a/output_inception_5a/output_0_split
I0714 21:49:10.084905 10861 net.cpp:91] Creating Layer inception_5a/output_inception_5a/output_0_split
I0714 21:49:10.084911 10861 net.cpp:425] inception_5a/output_inception_5a/output_0_split <- inception_5a/output
I0714 21:49:10.084923 10861 net.cpp:399] inception_5a/output_inception_5a/output_0_split -> inception_5a/output_inception_5a/output_0_split_0
I0714 21:49:10.084934 10861 net.cpp:399] inception_5a/output_inception_5a/output_0_split -> inception_5a/output_inception_5a/output_0_split_1
I0714 21:49:10.084944 10861 net.cpp:399] inception_5a/output_inception_5a/output_0_split -> inception_5a/output_inception_5a/output_0_split_2
I0714 21:49:10.084954 10861 net.cpp:399] inception_5a/output_inception_5a/output_0_split -> inception_5a/output_inception_5a/output_0_split_3
I0714 21:49:10.085876 10865 net.cpp:141] Setting up inception_5a/relu_pool_proj
I0714 21:49:10.085894 10865 net.cpp:148] Top shape: 10 128 7 7 (62720)
I0714 21:49:10.085901 10865 net.cpp:156] Memory required for data: 534625280
I0714 21:49:10.085906 10865 layer_factory.hpp:77] Creating layer inception_5a/output
I0714 21:49:10.085903 10861 net.cpp:141] Setting up inception_5a/output_inception_5a/output_0_split
I0714 21:49:10.085922 10865 net.cpp:91] Creating Layer inception_5a/output
I0714 21:49:10.085924 10861 net.cpp:148] Top shape: 10 832 7 7 (407680)
I0714 21:49:10.085930 10865 net.cpp:425] inception_5a/output <- inception_5a/1x1
I0714 21:49:10.085932 10861 net.cpp:148] Top shape: 10 832 7 7 (407680)
I0714 21:49:10.085938 10861 net.cpp:148] Top shape: 10 832 7 7 (407680)
I0714 21:49:10.085938 10865 net.cpp:425] inception_5a/output <- inception_5a/3x3
I0714 21:49:10.085945 10861 net.cpp:148] Top shape: 10 832 7 7 (407680)
I0714 21:49:10.085947 10865 net.cpp:425] inception_5a/output <- inception_5a/5x5
I0714 21:49:10.085950 10861 net.cpp:156] Memory required for data: 542778880
I0714 21:49:10.085953 10865 net.cpp:425] inception_5a/output <- inception_5a/pool_proj
I0714 21:49:10.085957 10861 layer_factory.hpp:77] Creating layer inception_5b/1x1
I0714 21:49:10.085961 10865 net.cpp:399] inception_5a/output -> inception_5a/output
I0714 21:49:10.085976 10861 net.cpp:91] Creating Layer inception_5b/1x1
I0714 21:49:10.085984 10861 net.cpp:425] inception_5b/1x1 <- inception_5a/output_inception_5a/output_0_split_0
I0714 21:49:10.086002 10861 net.cpp:399] inception_5b/1x1 -> inception_5b/1x1
I0714 21:49:10.086103 10865 net.cpp:141] Setting up inception_5a/output
I0714 21:49:10.086117 10865 net.cpp:148] Top shape: 10 832 7 7 (407680)
I0714 21:49:10.086122 10865 net.cpp:156] Memory required for data: 536256000
I0714 21:49:10.086127 10865 layer_factory.hpp:77] Creating layer inception_5a/output_inception_5a/output_0_split
I0714 21:49:10.086135 10865 net.cpp:91] Creating Layer inception_5a/output_inception_5a/output_0_split
I0714 21:49:10.086141 10865 net.cpp:425] inception_5a/output_inception_5a/output_0_split <- inception_5a/output
I0714 21:49:10.086151 10865 net.cpp:399] inception_5a/output_inception_5a/output_0_split -> inception_5a/output_inception_5a/output_0_split_0
I0714 21:49:10.086163 10865 net.cpp:399] inception_5a/output_inception_5a/output_0_split -> inception_5a/output_inception_5a/output_0_split_1
I0714 21:49:10.086171 10865 net.cpp:399] inception_5a/output_inception_5a/output_0_split -> inception_5a/output_inception_5a/output_0_split_2
I0714 21:49:10.086181 10865 net.cpp:399] inception_5a/output_inception_5a/output_0_split -> inception_5a/output_inception_5a/output_0_split_3
I0714 21:49:10.086671 10865 net.cpp:141] Setting up inception_5a/output_inception_5a/output_0_split
I0714 21:49:10.086695 10865 net.cpp:148] Top shape: 10 832 7 7 (407680)
I0714 21:49:10.086704 10865 net.cpp:148] Top shape: 10 832 7 7 (407680)
I0714 21:49:10.086709 10865 net.cpp:148] Top shape: 10 832 7 7 (407680)
I0714 21:49:10.086715 10865 net.cpp:148] Top shape: 10 832 7 7 (407680)
I0714 21:49:10.086720 10865 net.cpp:156] Memory required for data: 542778880
I0714 21:49:10.086725 10865 layer_factory.hpp:77] Creating layer inception_5b/1x1
I0714 21:49:10.086745 10865 net.cpp:91] Creating Layer inception_5b/1x1
I0714 21:49:10.086751 10865 net.cpp:425] inception_5b/1x1 <- inception_5a/output_inception_5a/output_0_split_0
I0714 21:49:10.086767 10865 net.cpp:399] inception_5b/1x1 -> inception_5b/1x1
I0714 21:49:10.094514 10861 net.cpp:141] Setting up inception_5b/1x1
I0714 21:49:10.094537 10861 net.cpp:148] Top shape: 10 384 7 7 (188160)
I0714 21:49:10.094542 10861 net.cpp:156] Memory required for data: 543531520
I0714 21:49:10.094553 10861 layer_factory.hpp:77] Creating layer inception_5b/relu_1x1
I0714 21:49:10.094568 10861 net.cpp:91] Creating Layer inception_5b/relu_1x1
I0714 21:49:10.094576 10861 net.cpp:425] inception_5b/relu_1x1 <- inception_5b/1x1
I0714 21:49:10.094584 10861 net.cpp:386] inception_5b/relu_1x1 -> inception_5b/1x1 (in-place)
I0714 21:49:10.094910 10861 net.cpp:141] Setting up inception_5b/relu_1x1
I0714 21:49:10.094924 10861 net.cpp:148] Top shape: 10 384 7 7 (188160)
I0714 21:49:10.094929 10861 net.cpp:156] Memory required for data: 544284160
I0714 21:49:10.094934 10861 layer_factory.hpp:77] Creating layer inception_5b/3x3_reduce
I0714 21:49:10.094954 10861 net.cpp:91] Creating Layer inception_5b/3x3_reduce
I0714 21:49:10.094960 10861 net.cpp:425] inception_5b/3x3_reduce <- inception_5a/output_inception_5a/output_0_split_1
I0714 21:49:10.094974 10861 net.cpp:399] inception_5b/3x3_reduce -> inception_5b/3x3_reduce
I0714 21:49:10.098726 10865 net.cpp:141] Setting up inception_5b/1x1
I0714 21:49:10.098747 10865 net.cpp:148] Top shape: 10 384 7 7 (188160)
I0714 21:49:10.098753 10865 net.cpp:156] Memory required for data: 543531520
I0714 21:49:10.098764 10865 layer_factory.hpp:77] Creating layer inception_5b/relu_1x1
I0714 21:49:10.098776 10865 net.cpp:91] Creating Layer inception_5b/relu_1x1
I0714 21:49:10.098783 10865 net.cpp:425] inception_5b/relu_1x1 <- inception_5b/1x1
I0714 21:49:10.098793 10865 net.cpp:386] inception_5b/relu_1x1 -> inception_5b/1x1 (in-place)
I0714 21:49:10.099105 10865 net.cpp:141] Setting up inception_5b/relu_1x1
I0714 21:49:10.099118 10865 net.cpp:148] Top shape: 10 384 7 7 (188160)
I0714 21:49:10.099123 10865 net.cpp:156] Memory required for data: 544284160
I0714 21:49:10.099130 10865 layer_factory.hpp:77] Creating layer inception_5b/3x3_reduce
I0714 21:49:10.099148 10865 net.cpp:91] Creating Layer inception_5b/3x3_reduce
I0714 21:49:10.099153 10865 net.cpp:425] inception_5b/3x3_reduce <- inception_5a/output_inception_5a/output_0_split_1
I0714 21:49:10.099164 10865 net.cpp:399] inception_5b/3x3_reduce -> inception_5b/3x3_reduce
I0714 21:49:10.105135 10861 net.cpp:141] Setting up inception_5b/3x3_reduce
I0714 21:49:10.105156 10861 net.cpp:148] Top shape: 10 192 7 7 (94080)
I0714 21:49:10.105162 10861 net.cpp:156] Memory required for data: 544660480
I0714 21:49:10.105173 10861 layer_factory.hpp:77] Creating layer inception_5b/relu_3x3_reduce
I0714 21:49:10.105185 10861 net.cpp:91] Creating Layer inception_5b/relu_3x3_reduce
I0714 21:49:10.105191 10861 net.cpp:425] inception_5b/relu_3x3_reduce <- inception_5b/3x3_reduce
I0714 21:49:10.105200 10861 net.cpp:386] inception_5b/relu_3x3_reduce -> inception_5b/3x3_reduce (in-place)
I0714 21:49:10.105525 10861 net.cpp:141] Setting up inception_5b/relu_3x3_reduce
I0714 21:49:10.105537 10861 net.cpp:148] Top shape: 10 192 7 7 (94080)
I0714 21:49:10.105542 10861 net.cpp:156] Memory required for data: 545036800
I0714 21:49:10.105548 10861 layer_factory.hpp:77] Creating layer inception_5b/3x3
I0714 21:49:10.105566 10861 net.cpp:91] Creating Layer inception_5b/3x3
I0714 21:49:10.105573 10861 net.cpp:425] inception_5b/3x3 <- inception_5b/3x3_reduce
I0714 21:49:10.105587 10861 net.cpp:399] inception_5b/3x3 -> inception_5b/3x3
I0714 21:49:10.109525 10865 net.cpp:141] Setting up inception_5b/3x3_reduce
I0714 21:49:10.109549 10865 net.cpp:148] Top shape: 10 192 7 7 (94080)
I0714 21:49:10.109555 10865 net.cpp:156] Memory required for data: 544660480
I0714 21:49:10.109565 10865 layer_factory.hpp:77] Creating layer inception_5b/relu_3x3_reduce
I0714 21:49:10.109580 10865 net.cpp:91] Creating Layer inception_5b/relu_3x3_reduce
I0714 21:49:10.109586 10865 net.cpp:425] inception_5b/relu_3x3_reduce <- inception_5b/3x3_reduce
I0714 21:49:10.109597 10865 net.cpp:386] inception_5b/relu_3x3_reduce -> inception_5b/3x3_reduce (in-place)
I0714 21:49:10.109913 10865 net.cpp:141] Setting up inception_5b/relu_3x3_reduce
I0714 21:49:10.109926 10865 net.cpp:148] Top shape: 10 192 7 7 (94080)
I0714 21:49:10.109931 10865 net.cpp:156] Memory required for data: 545036800
I0714 21:49:10.109937 10865 layer_factory.hpp:77] Creating layer inception_5b/3x3
I0714 21:49:10.109956 10865 net.cpp:91] Creating Layer inception_5b/3x3
I0714 21:49:10.109962 10865 net.cpp:425] inception_5b/3x3 <- inception_5b/3x3_reduce
I0714 21:49:10.109975 10865 net.cpp:399] inception_5b/3x3 -> inception_5b/3x3
I0714 21:49:10.117754 10861 net.cpp:141] Setting up inception_5b/3x3
I0714 21:49:10.117781 10861 net.cpp:148] Top shape: 10 384 7 7 (188160)
I0714 21:49:10.117787 10861 net.cpp:156] Memory required for data: 545789440
I0714 21:49:10.117801 10861 layer_factory.hpp:77] Creating layer inception_5b/relu_3x3
I0714 21:49:10.117817 10861 net.cpp:91] Creating Layer inception_5b/relu_3x3
I0714 21:49:10.117825 10861 net.cpp:425] inception_5b/relu_3x3 <- inception_5b/3x3
I0714 21:49:10.117835 10861 net.cpp:386] inception_5b/relu_3x3 -> inception_5b/3x3 (in-place)
I0714 21:49:10.118723 10861 net.cpp:141] Setting up inception_5b/relu_3x3
I0714 21:49:10.118741 10861 net.cpp:148] Top shape: 10 384 7 7 (188160)
I0714 21:49:10.118746 10861 net.cpp:156] Memory required for data: 546542080
I0714 21:49:10.118752 10861 layer_factory.hpp:77] Creating layer inception_5b/5x5_reduce
I0714 21:49:10.118782 10861 net.cpp:91] Creating Layer inception_5b/5x5_reduce
I0714 21:49:10.118789 10861 net.cpp:425] inception_5b/5x5_reduce <- inception_5a/output_inception_5a/output_0_split_2
I0714 21:49:10.118800 10861 net.cpp:399] inception_5b/5x5_reduce -> inception_5b/5x5_reduce
I0714 21:49:10.122313 10865 net.cpp:141] Setting up inception_5b/3x3
I0714 21:49:10.122333 10865 net.cpp:148] Top shape: 10 384 7 7 (188160)
I0714 21:49:10.122341 10865 net.cpp:156] Memory required for data: 545789440
I0714 21:49:10.122352 10865 layer_factory.hpp:77] Creating layer inception_5b/relu_3x3
I0714 21:49:10.122362 10865 net.cpp:91] Creating Layer inception_5b/relu_3x3
I0714 21:49:10.122370 10865 net.cpp:425] inception_5b/relu_3x3 <- inception_5b/3x3
I0714 21:49:10.122377 10865 net.cpp:386] inception_5b/relu_3x3 -> inception_5b/3x3 (in-place)
I0714 21:49:10.123631 10865 net.cpp:141] Setting up inception_5b/relu_3x3
I0714 21:49:10.123652 10865 net.cpp:148] Top shape: 10 384 7 7 (188160)
I0714 21:49:10.123658 10865 net.cpp:156] Memory required for data: 546542080
I0714 21:49:10.123664 10865 layer_factory.hpp:77] Creating layer inception_5b/5x5_reduce
I0714 21:49:10.123682 10865 net.cpp:91] Creating Layer inception_5b/5x5_reduce
I0714 21:49:10.123690 10865 net.cpp:425] inception_5b/5x5_reduce <- inception_5a/output_inception_5a/output_0_split_2
I0714 21:49:10.123702 10865 net.cpp:399] inception_5b/5x5_reduce -> inception_5b/5x5_reduce
I0714 21:49:10.124982 10861 net.cpp:141] Setting up inception_5b/5x5_reduce
I0714 21:49:10.125001 10861 net.cpp:148] Top shape: 10 48 7 7 (23520)
I0714 21:49:10.125007 10861 net.cpp:156] Memory required for data: 546636160
I0714 21:49:10.125017 10861 layer_factory.hpp:77] Creating layer inception_5b/relu_5x5_reduce
I0714 21:49:10.125031 10861 net.cpp:91] Creating Layer inception_5b/relu_5x5_reduce
I0714 21:49:10.125039 10861 net.cpp:425] inception_5b/relu_5x5_reduce <- inception_5b/5x5_reduce
I0714 21:49:10.125048 10861 net.cpp:386] inception_5b/relu_5x5_reduce -> inception_5b/5x5_reduce (in-place)
I0714 21:49:10.125401 10861 net.cpp:141] Setting up inception_5b/relu_5x5_reduce
I0714 21:49:10.125416 10861 net.cpp:148] Top shape: 10 48 7 7 (23520)
I0714 21:49:10.125422 10861 net.cpp:156] Memory required for data: 546730240
I0714 21:49:10.125427 10861 layer_factory.hpp:77] Creating layer inception_5b/5x5
I0714 21:49:10.125447 10861 net.cpp:91] Creating Layer inception_5b/5x5
I0714 21:49:10.125453 10861 net.cpp:425] inception_5b/5x5 <- inception_5b/5x5_reduce
I0714 21:49:10.125463 10861 net.cpp:399] inception_5b/5x5 -> inception_5b/5x5
I0714 21:49:10.128397 10865 net.cpp:141] Setting up inception_5b/5x5_reduce
I0714 21:49:10.128418 10865 net.cpp:148] Top shape: 10 48 7 7 (23520)
I0714 21:49:10.128423 10865 net.cpp:156] Memory required for data: 546636160
I0714 21:49:10.128434 10865 layer_factory.hpp:77] Creating layer inception_5b/relu_5x5_reduce
I0714 21:49:10.128448 10865 net.cpp:91] Creating Layer inception_5b/relu_5x5_reduce
I0714 21:49:10.128454 10865 net.cpp:425] inception_5b/relu_5x5_reduce <- inception_5b/5x5_reduce
I0714 21:49:10.128463 10865 net.cpp:386] inception_5b/relu_5x5_reduce -> inception_5b/5x5_reduce (in-place)
I0714 21:49:10.128765 10865 net.cpp:141] Setting up inception_5b/relu_5x5_reduce
I0714 21:49:10.128778 10865 net.cpp:148] Top shape: 10 48 7 7 (23520)
I0714 21:49:10.128783 10865 net.cpp:156] Memory required for data: 546730240
I0714 21:49:10.128789 10865 layer_factory.hpp:77] Creating layer inception_5b/5x5
I0714 21:49:10.128808 10865 net.cpp:91] Creating Layer inception_5b/5x5
I0714 21:49:10.128816 10865 net.cpp:425] inception_5b/5x5 <- inception_5b/5x5_reduce
I0714 21:49:10.128825 10865 net.cpp:399] inception_5b/5x5 -> inception_5b/5x5
I0714 21:49:10.134197 10861 net.cpp:141] Setting up inception_5b/5x5
I0714 21:49:10.134220 10861 net.cpp:148] Top shape: 10 128 7 7 (62720)
I0714 21:49:10.134227 10861 net.cpp:156] Memory required for data: 546981120
I0714 21:49:10.134238 10861 layer_factory.hpp:77] Creating layer inception_5b/relu_5x5
I0714 21:49:10.134253 10861 net.cpp:91] Creating Layer inception_5b/relu_5x5
I0714 21:49:10.134260 10861 net.cpp:425] inception_5b/relu_5x5 <- inception_5b/5x5
I0714 21:49:10.134269 10861 net.cpp:386] inception_5b/relu_5x5 -> inception_5b/5x5 (in-place)
I0714 21:49:10.134702 10861 net.cpp:141] Setting up inception_5b/relu_5x5
I0714 21:49:10.134719 10861 net.cpp:148] Top shape: 10 128 7 7 (62720)
I0714 21:49:10.134724 10861 net.cpp:156] Memory required for data: 547232000
I0714 21:49:10.134730 10861 layer_factory.hpp:77] Creating layer inception_5b/pool
I0714 21:49:10.134743 10861 net.cpp:91] Creating Layer inception_5b/pool
I0714 21:49:10.134749 10861 net.cpp:425] inception_5b/pool <- inception_5a/output_inception_5a/output_0_split_3
I0714 21:49:10.134762 10861 net.cpp:399] inception_5b/pool -> inception_5b/pool
I0714 21:49:10.135704 10861 net.cpp:141] Setting up inception_5b/pool
I0714 21:49:10.135718 10861 net.cpp:148] Top shape: 10 832 7 7 (407680)
I0714 21:49:10.135723 10861 net.cpp:156] Memory required for data: 548862720
I0714 21:49:10.135731 10861 layer_factory.hpp:77] Creating layer inception_5b/pool_proj
I0714 21:49:10.135749 10861 net.cpp:91] Creating Layer inception_5b/pool_proj
I0714 21:49:10.135756 10861 net.cpp:425] inception_5b/pool_proj <- inception_5b/pool
I0714 21:49:10.135766 10861 net.cpp:399] inception_5b/pool_proj -> inception_5b/pool_proj
I0714 21:49:10.136500 10865 net.cpp:141] Setting up inception_5b/5x5
I0714 21:49:10.136518 10865 net.cpp:148] Top shape: 10 128 7 7 (62720)
I0714 21:49:10.136524 10865 net.cpp:156] Memory required for data: 546981120
I0714 21:49:10.136535 10865 layer_factory.hpp:77] Creating layer inception_5b/relu_5x5
I0714 21:49:10.136549 10865 net.cpp:91] Creating Layer inception_5b/relu_5x5
I0714 21:49:10.136557 10865 net.cpp:425] inception_5b/relu_5x5 <- inception_5b/5x5
I0714 21:49:10.136565 10865 net.cpp:386] inception_5b/relu_5x5 -> inception_5b/5x5 (in-place)
I0714 21:49:10.137408 10865 net.cpp:141] Setting up inception_5b/relu_5x5
I0714 21:49:10.137424 10865 net.cpp:148] Top shape: 10 128 7 7 (62720)
I0714 21:49:10.137430 10865 net.cpp:156] Memory required for data: 547232000
I0714 21:49:10.137435 10865 layer_factory.hpp:77] Creating layer inception_5b/pool
I0714 21:49:10.137445 10865 net.cpp:91] Creating Layer inception_5b/pool
I0714 21:49:10.137452 10865 net.cpp:425] inception_5b/pool <- inception_5a/output_inception_5a/output_0_split_3
I0714 21:49:10.137465 10865 net.cpp:399] inception_5b/pool -> inception_5b/pool
I0714 21:49:10.138792 10865 net.cpp:141] Setting up inception_5b/pool
I0714 21:49:10.138806 10865 net.cpp:148] Top shape: 10 832 7 7 (407680)
I0714 21:49:10.138811 10865 net.cpp:156] Memory required for data: 548862720
I0714 21:49:10.138818 10865 layer_factory.hpp:77] Creating layer inception_5b/pool_proj
I0714 21:49:10.138836 10865 net.cpp:91] Creating Layer inception_5b/pool_proj
I0714 21:49:10.138844 10865 net.cpp:425] inception_5b/pool_proj <- inception_5b/pool
I0714 21:49:10.138855 10865 net.cpp:399] inception_5b/pool_proj -> inception_5b/pool_proj
I0714 21:49:10.144639 10861 net.cpp:141] Setting up inception_5b/pool_proj
I0714 21:49:10.144660 10861 net.cpp:148] Top shape: 10 128 7 7 (62720)
I0714 21:49:10.144666 10861 net.cpp:156] Memory required for data: 549113600
I0714 21:49:10.144677 10861 layer_factory.hpp:77] Creating layer inception_5b/relu_pool_proj
I0714 21:49:10.144687 10861 net.cpp:91] Creating Layer inception_5b/relu_pool_proj
I0714 21:49:10.144695 10861 net.cpp:425] inception_5b/relu_pool_proj <- inception_5b/pool_proj
I0714 21:49:10.144703 10861 net.cpp:386] inception_5b/relu_pool_proj -> inception_5b/pool_proj (in-place)
I0714 21:49:10.145792 10861 net.cpp:141] Setting up inception_5b/relu_pool_proj
I0714 21:49:10.145810 10861 net.cpp:148] Top shape: 10 128 7 7 (62720)
I0714 21:49:10.145815 10861 net.cpp:156] Memory required for data: 549364480
I0714 21:49:10.145822 10861 layer_factory.hpp:77] Creating layer inception_5b/output
I0714 21:49:10.145833 10861 net.cpp:91] Creating Layer inception_5b/output
I0714 21:49:10.145839 10861 net.cpp:425] inception_5b/output <- inception_5b/1x1
I0714 21:49:10.145848 10861 net.cpp:425] inception_5b/output <- inception_5b/3x3
I0714 21:49:10.145854 10861 net.cpp:425] inception_5b/output <- inception_5b/5x5
I0714 21:49:10.145860 10861 net.cpp:425] inception_5b/output <- inception_5b/pool_proj
I0714 21:49:10.145879 10861 net.cpp:399] inception_5b/output -> inception_5b/output
I0714 21:49:10.145880 10865 net.cpp:141] Setting up inception_5b/pool_proj
I0714 21:49:10.145897 10865 net.cpp:148] Top shape: 10 128 7 7 (62720)
I0714 21:49:10.145903 10865 net.cpp:156] Memory required for data: 549113600
I0714 21:49:10.145913 10865 layer_factory.hpp:77] Creating layer inception_5b/relu_pool_proj
I0714 21:49:10.145927 10865 net.cpp:91] Creating Layer inception_5b/relu_pool_proj
I0714 21:49:10.145934 10865 net.cpp:425] inception_5b/relu_pool_proj <- inception_5b/pool_proj
I0714 21:49:10.145944 10865 net.cpp:386] inception_5b/relu_pool_proj -> inception_5b/pool_proj (in-place)
I0714 21:49:10.145979 10861 net.cpp:141] Setting up inception_5b/output
I0714 21:49:10.145992 10861 net.cpp:148] Top shape: 10 1024 7 7 (501760)
I0714 21:49:10.145998 10861 net.cpp:156] Memory required for data: 551371520
I0714 21:49:10.146004 10861 layer_factory.hpp:77] Creating layer pool5/7x7_s1
I0714 21:49:10.146016 10861 net.cpp:91] Creating Layer pool5/7x7_s1
I0714 21:49:10.146023 10861 net.cpp:425] pool5/7x7_s1 <- inception_5b/output
I0714 21:49:10.146035 10861 net.cpp:399] pool5/7x7_s1 -> pool5/7x7_s1
I0714 21:49:10.146790 10861 net.cpp:141] Setting up pool5/7x7_s1
I0714 21:49:10.146805 10861 net.cpp:148] Top shape: 10 1024 1 1 (10240)
I0714 21:49:10.146809 10861 net.cpp:156] Memory required for data: 551412480
I0714 21:49:10.146816 10861 layer_factory.hpp:77] Creating layer pool5/drop_7x7_s1
I0714 21:49:10.146838 10861 net.cpp:91] Creating Layer pool5/drop_7x7_s1
I0714 21:49:10.146844 10861 net.cpp:425] pool5/drop_7x7_s1 <- pool5/7x7_s1
I0714 21:49:10.146852 10861 net.cpp:386] pool5/drop_7x7_s1 -> pool5/7x7_s1 (in-place)
I0714 21:49:10.146916 10865 net.cpp:141] Setting up inception_5b/relu_pool_proj
I0714 21:49:10.146931 10865 net.cpp:148] Top shape: 10 128 7 7 (62720)
I0714 21:49:10.146936 10865 net.cpp:156] Memory required for data: 549364480
I0714 21:49:10.146942 10865 layer_factory.hpp:77] Creating layer inception_5b/output
I0714 21:49:10.146951 10865 net.cpp:91] Creating Layer inception_5b/output
I0714 21:49:10.146950 10861 net.cpp:141] Setting up pool5/drop_7x7_s1
I0714 21:49:10.146957 10865 net.cpp:425] inception_5b/output <- inception_5b/1x1
I0714 21:49:10.146965 10861 net.cpp:148] Top shape: 10 1024 1 1 (10240)
I0714 21:49:10.146965 10865 net.cpp:425] inception_5b/output <- inception_5b/3x3
I0714 21:49:10.146970 10861 net.cpp:156] Memory required for data: 551453440
I0714 21:49:10.146972 10865 net.cpp:425] inception_5b/output <- inception_5b/5x5
I0714 21:49:10.146976 10861 layer_factory.hpp:77] Creating layer loss3/classifier
I0714 21:49:10.146980 10865 net.cpp:425] inception_5b/output <- inception_5b/pool_proj
I0714 21:49:10.146989 10865 net.cpp:399] inception_5b/output -> inception_5b/output
I0714 21:49:10.147001 10861 net.cpp:91] Creating Layer loss3/classifier
I0714 21:49:10.147007 10861 net.cpp:425] loss3/classifier <- pool5/7x7_s1
I0714 21:49:10.147019 10861 net.cpp:399] loss3/classifier -> loss3/classifier
I0714 21:49:10.147133 10865 net.cpp:141] Setting up inception_5b/output
I0714 21:49:10.147146 10865 net.cpp:148] Top shape: 10 1024 7 7 (501760)
I0714 21:49:10.147151 10865 net.cpp:156] Memory required for data: 551371520
I0714 21:49:10.147157 10865 layer_factory.hpp:77] Creating layer pool5/7x7_s1
I0714 21:49:10.147169 10865 net.cpp:91] Creating Layer pool5/7x7_s1
I0714 21:49:10.147176 10865 net.cpp:425] pool5/7x7_s1 <- inception_5b/output
I0714 21:49:10.147183 10865 net.cpp:399] pool5/7x7_s1 -> pool5/7x7_s1
I0714 21:49:10.149997 10865 net.cpp:141] Setting up pool5/7x7_s1
I0714 21:49:10.150017 10865 net.cpp:148] Top shape: 10 1024 1 1 (10240)
I0714 21:49:10.150022 10865 net.cpp:156] Memory required for data: 551412480
I0714 21:49:10.150028 10865 layer_factory.hpp:77] Creating layer pool5/drop_7x7_s1
I0714 21:49:10.150043 10865 net.cpp:91] Creating Layer pool5/drop_7x7_s1
I0714 21:49:10.150049 10865 net.cpp:425] pool5/drop_7x7_s1 <- pool5/7x7_s1
I0714 21:49:10.150058 10865 net.cpp:386] pool5/drop_7x7_s1 -> pool5/7x7_s1 (in-place)
I0714 21:49:10.150753 10865 net.cpp:141] Setting up pool5/drop_7x7_s1
I0714 21:49:10.150769 10865 net.cpp:148] Top shape: 10 1024 1 1 (10240)
I0714 21:49:10.150774 10865 net.cpp:156] Memory required for data: 551453440
I0714 21:49:10.150779 10865 layer_factory.hpp:77] Creating layer loss3/classifier
I0714 21:49:10.150796 10865 net.cpp:91] Creating Layer loss3/classifier
I0714 21:49:10.150804 10865 net.cpp:425] loss3/classifier <- pool5/7x7_s1
I0714 21:49:10.150815 10865 net.cpp:399] loss3/classifier -> loss3/classifier
I0714 21:49:10.159765 10861 net.cpp:141] Setting up loss3/classifier
I0714 21:49:10.159796 10861 net.cpp:148] Top shape: 10 1000 (10000)
I0714 21:49:10.159802 10861 net.cpp:156] Memory required for data: 551493440
I0714 21:49:10.159814 10861 layer_factory.hpp:77] Creating layer prob
I0714 21:49:10.159828 10861 net.cpp:91] Creating Layer prob
I0714 21:49:10.159837 10861 net.cpp:425] prob <- loss3/classifier
I0714 21:49:10.159847 10861 net.cpp:399] prob -> prob
I0714 21:49:10.161406 10861 net.cpp:141] Setting up prob
I0714 21:49:10.161425 10861 net.cpp:148] Top shape: 10 1000 (10000)
I0714 21:49:10.161432 10861 net.cpp:156] Memory required for data: 551533440
I0714 21:49:10.161437 10861 net.cpp:219] prob does not need backward computation.
I0714 21:49:10.161443 10861 net.cpp:219] loss3/classifier does not need backward computation.
I0714 21:49:10.161448 10861 net.cpp:219] pool5/drop_7x7_s1 does not need backward computation.
I0714 21:49:10.161453 10861 net.cpp:219] pool5/7x7_s1 does not need backward computation.
…
