…
2016-07-19 20:09:34.617 n.t.s.b.CVParticleBolt [INFO] [Timing] RequestID: 0 StreamID: home/peifeng/work/data/frame.320x240.jpg SequenceNr: 109 Leaving scale: 1468973374617 Size: 3530
2016-07-19 20:09:34.617 n.t.s.b.CVParticleBolt [INFO] [Timing] RequestID: 0 StreamID: home/peifeng/work/data/frame.320x240.jpg SequenceNr: 110 Entering scale: 1468973374617
2016-07-19 20:09:34.628 n.t.s.b.CVParticleBolt [INFO] [Timing] RequestID: 0 StreamID: home/peifeng/work/data/frame.320x240.jpg SequenceNr: 110 Leaving scale: 1468973374628 Size: 3530
2016-07-19 20:09:34.657 STDERR [INFO] I0719 20:09:34.657397 31684 net.cpp:141] Setting up data
2016-07-19 20:09:34.657 STDERR [INFO] I0719 20:09:34.657464 31684 net.cpp:148] Top shape: 10 3 227 227 (1545870)
2016-07-19 20:09:34.657 STDERR [INFO] I0719 20:09:34.657471 31684 net.cpp:156] Memory required for data: 6183480
2016-07-19 20:09:34.658 STDERR [INFO] I0719 20:09:34.657490 31684 layer_factory.hpp:77] Creating layer conv1
2016-07-19 20:09:34.658 STDERR [INFO] I0719 20:09:34.657521 31684 net.cpp:91] Creating Layer conv1
2016-07-19 20:09:34.658 STDERR [INFO] I0719 20:09:34.657529 31684 net.cpp:425] conv1 <- data
2016-07-19 20:09:34.658 STDERR [INFO] I0719 20:09:34.657541 31684 net.cpp:399] conv1 -> conv1
2016-07-19 20:09:34.658 STDERR [INFO] I0719 20:09:34.657747 31678 net.cpp:141] Setting up input
2016-07-19 20:09:34.658 STDERR [INFO] I0719 20:09:34.657785 31678 net.cpp:148] Top shape: 1 4096 (4096)
2016-07-19 20:09:34.659 STDERR [INFO] I0719 20:09:34.657794 31678 net.cpp:148] Top shape: 1 1 (1)
2016-07-19 20:09:34.659 STDERR [INFO] I0719 20:09:34.657799 31678 net.cpp:148] Top shape: 1 1 (1)
2016-07-19 20:09:34.659 STDERR [INFO] I0719 20:09:34.657806 31678 net.cpp:148] Top shape: 1 1 (1)
2016-07-19 20:09:34.659 STDERR [INFO] I0719 20:09:34.657810 31678 net.cpp:156] Memory required for data: 16396
2016-07-19 20:09:34.659 STDERR [INFO] I0719 20:09:34.657819 31678 layer_factory.hpp:77] Creating layer cont_sentence_input_1_split
2016-07-19 20:09:34.659 STDERR [INFO] I0719 20:09:34.657848 31678 net.cpp:91] Creating Layer cont_sentence_input_1_split
2016-07-19 20:09:34.659 STDERR [INFO] I0719 20:09:34.657856 31678 net.cpp:425] cont_sentence_input_1_split <- cont_sentence
2016-07-19 20:09:34.659 STDERR [INFO] I0719 20:09:34.657891 31678 net.cpp:399] cont_sentence_input_1_split -> cont_sentence_input_1_split_0
2016-07-19 20:09:34.659 STDERR [INFO] I0719 20:09:34.657907 31678 net.cpp:399] cont_sentence_input_1_split -> cont_sentence_input_1_split_1
2016-07-19 20:09:34.659 STDERR [INFO] I0719 20:09:34.658243 31678 net.cpp:141] Setting up cont_sentence_input_1_split
2016-07-19 20:09:34.659 STDERR [INFO] I0719 20:09:34.658257 31678 net.cpp:148] Top shape: 1 1 (1)
2016-07-19 20:09:34.659 STDERR [INFO] I0719 20:09:34.658263 31678 net.cpp:148] Top shape: 1 1 (1)
2016-07-19 20:09:34.659 STDERR [INFO] I0719 20:09:34.658267 31678 net.cpp:156] Memory required for data: 16404
2016-07-19 20:09:34.660 STDERR [INFO] I0719 20:09:34.658273 31678 layer_factory.hpp:77] Creating layer embed_encoder
2016-07-19 20:09:34.660 STDERR [INFO] I0719 20:09:34.658289 31678 net.cpp:91] Creating Layer embed_encoder
2016-07-19 20:09:34.660 STDERR [INFO] I0719 20:09:34.658295 31678 net.cpp:425] embed_encoder <- frames_fc7
2016-07-19 20:09:34.660 STDERR [INFO] I0719 20:09:34.658306 31678 net.cpp:399] embed_encoder -> embedded_in_frames
2016-07-19 20:09:34.668 STDERR [INFO] I0719 20:09:34.668320 31672 net.cpp:141] Setting up data
2016-07-19 20:09:34.668 STDERR [INFO] I0719 20:09:34.668359 31672 net.cpp:148] Top shape: 10 3 227 227 (1545870)
2016-07-19 20:09:34.668 STDERR [INFO] I0719 20:09:34.668365 31672 net.cpp:156] Memory required for data: 6183480
2016-07-19 20:09:34.669 STDERR [INFO] I0719 20:09:34.668375 31672 layer_factory.hpp:77] Creating layer conv1
2016-07-19 20:09:34.669 STDERR [INFO] I0719 20:09:34.668401 31672 net.cpp:91] Creating Layer conv1
2016-07-19 20:09:34.669 STDERR [INFO] I0719 20:09:34.668408 31672 net.cpp:425] conv1 <- data
2016-07-19 20:09:34.669 STDERR [INFO] I0719 20:09:34.668418 31672 net.cpp:399] conv1 -> conv1
2016-07-19 20:09:34.669 STDERR [INFO] I0719 20:09:34.669220 31674 net.cpp:141] Setting up input
2016-07-19 20:09:34.669 STDERR [INFO] I0719 20:09:34.669241 31674 net.cpp:148] Top shape: 1 4096 (4096)
2016-07-19 20:09:34.669 STDERR [INFO] I0719 20:09:34.669248 31674 net.cpp:148] Top shape: 1 1 (1)
2016-07-19 20:09:34.669 STDERR [INFO] I0719 20:09:34.669253 31674 net.cpp:148] Top shape: 1 1 (1)
2016-07-19 20:09:34.669 STDERR [INFO] I0719 20:09:34.669258 31674 net.cpp:148] Top shape: 1 1 (1)
2016-07-19 20:09:34.669 STDERR [INFO] I0719 20:09:34.669262 31674 net.cpp:156] Memory required for data: 16396
2016-07-19 20:09:34.670 STDERR [INFO] I0719 20:09:34.669268 31674 layer_factory.hpp:77] Creating layer cont_sentence_input_1_split
2016-07-19 20:09:34.670 STDERR [INFO] I0719 20:09:34.669280 31674 net.cpp:91] Creating Layer cont_sentence_input_1_split
2016-07-19 20:09:34.670 STDERR [INFO] I0719 20:09:34.669284 31674 net.cpp:425] cont_sentence_input_1_split <- cont_sentence
2016-07-19 20:09:34.670 STDERR [INFO] I0719 20:09:34.669293 31674 net.cpp:399] cont_sentence_input_1_split -> cont_sentence_input_1_split_0
2016-07-19 20:09:34.670 STDERR [INFO] I0719 20:09:34.669304 31674 net.cpp:399] cont_sentence_input_1_split -> cont_sentence_input_1_split_1
2016-07-19 20:09:34.670 STDERR [INFO] I0719 20:09:34.669402 31674 net.cpp:141] Setting up cont_sentence_input_1_split
2016-07-19 20:09:34.670 STDERR [INFO] I0719 20:09:34.669414 31674 net.cpp:148] Top shape: 1 1 (1)
2016-07-19 20:09:34.670 STDERR [INFO] I0719 20:09:34.669419 31674 net.cpp:148] Top shape: 1 1 (1)
2016-07-19 20:09:34.670 STDERR [INFO] I0719 20:09:34.669423 31674 net.cpp:156] Memory required for data: 16404
2016-07-19 20:09:34.670 STDERR [INFO] I0719 20:09:34.669427 31674 layer_factory.hpp:77] Creating layer embed_encoder
2016-07-19 20:09:34.670 STDERR [INFO] I0719 20:09:34.669440 31674 net.cpp:91] Creating Layer embed_encoder
2016-07-19 20:09:34.671 STDERR [INFO] I0719 20:09:34.669445 31674 net.cpp:425] embed_encoder <- frames_fc7
2016-07-19 20:09:34.671 STDERR [INFO] I0719 20:09:34.669453 31674 net.cpp:399] embed_encoder -> embedded_in_frames
2016-07-19 20:09:34.705 STDERR [INFO] I0719 20:09:34.705358 31678 net.cpp:141] Setting up embed_encoder
2016-07-19 20:09:34.705 STDERR [INFO] I0719 20:09:34.705390 31678 net.cpp:148] Top shape: 1 500 (500)
2016-07-19 20:09:34.705 STDERR [INFO] I0719 20:09:34.705396 31678 net.cpp:156] Memory required for data: 18404
2016-07-19 20:09:34.706 STDERR [INFO] I0719 20:09:34.705401 31674 net.cpp:141] Setting up embed_encoder
2016-07-19 20:09:34.706 STDERR [INFO] I0719 20:09:34.705423 31678 layer_factory.hpp:77] Creating layer reshape_frames
2016-07-19 20:09:34.706 STDERR [INFO] I0719 20:09:34.705438 31674 net.cpp:148] Top shape: 1 500 (500)
2016-07-19 20:09:34.706 STDERR [INFO] I0719 20:09:34.705445 31674 net.cpp:156] Memory required for data: 18404
2016-07-19 20:09:34.706 STDERR [INFO] I0719 20:09:34.705453 31678 net.cpp:91] Creating Layer reshape_frames
2016-07-19 20:09:34.706 STDERR [INFO] I0719 20:09:34.705462 31678 net.cpp:425] reshape_frames <- embedded_in_frames
2016-07-19 20:09:34.706 STDERR [INFO] I0719 20:09:34.705464 31674 layer_factory.hpp:77] Creating layer reshape_frames
2016-07-19 20:09:34.706 STDERR [INFO] I0719 20:09:34.705474 31678 net.cpp:399] reshape_frames -> embedded_input_frames
2016-07-19 20:09:34.706 STDERR [INFO] I0719 20:09:34.705482 31674 net.cpp:91] Creating Layer reshape_frames
2016-07-19 20:09:34.706 STDERR [INFO] I0719 20:09:34.705489 31674 net.cpp:425] reshape_frames <- embedded_in_frames
2016-07-19 20:09:34.706 STDERR [INFO] I0719 20:09:34.705499 31674 net.cpp:399] reshape_frames -> embedded_input_frames
2016-07-19 20:09:34.707 STDERR [INFO] I0719 20:09:34.705607 31678 net.cpp:141] Setting up reshape_frames
2016-07-19 20:09:34.707 STDERR [INFO] I0719 20:09:34.705621 31678 net.cpp:148] Top shape: 1 1 500 (500)
2016-07-19 20:09:34.707 STDERR [INFO] I0719 20:09:34.705626 31678 net.cpp:156] Memory required for data: 20404
2016-07-19 20:09:34.707 STDERR [INFO] I0719 20:09:34.705631 31678 layer_factory.hpp:77] Creating layer reshape_stage_indicator
2016-07-19 20:09:34.707 STDERR [INFO] I0719 20:09:34.705637 31674 net.cpp:141] Setting up reshape_frames
2016-07-19 20:09:34.707 STDERR [INFO] I0719 20:09:34.705641 31678 net.cpp:91] Creating Layer reshape_stage_indicator
2016-07-19 20:09:34.707 STDERR [INFO] I0719 20:09:34.705649 31678 net.cpp:425] reshape_stage_indicator <- stage_indicator
2016-07-19 20:09:34.707 STDERR [INFO] I0719 20:09:34.705649 31674 net.cpp:148] Top shape: 1 1 500 (500)
2016-07-19 20:09:34.707 STDERR [INFO] I0719 20:09:34.705663 31674 net.cpp:156] Memory required for data: 20404
2016-07-19 20:09:34.707 STDERR [INFO] I0719 20:09:34.705664 31678 net.cpp:399] reshape_stage_indicator -> reshaped_stage_indicator
2016-07-19 20:09:34.707 STDERR [INFO] I0719 20:09:34.705668 31674 layer_factory.hpp:77] Creating layer reshape_stage_indicator
2016-07-19 20:09:34.707 STDERR [INFO] I0719 20:09:34.705679 31674 net.cpp:91] Creating Layer reshape_stage_indicator
2016-07-19 20:09:34.708 STDERR [INFO] I0719 20:09:34.705685 31674 net.cpp:425] reshape_stage_indicator <- stage_indicator
2016-07-19 20:09:34.708 STDERR [INFO] I0719 20:09:34.705693 31674 net.cpp:399] reshape_stage_indicator -> reshaped_stage_indicator
2016-07-19 20:09:34.708 STDERR [INFO] I0719 20:09:34.705788 31678 net.cpp:141] Setting up reshape_stage_indicator
2016-07-19 20:09:34.708 STDERR [INFO] I0719 20:09:34.705801 31678 net.cpp:148] Top shape: 1 1 1 (1)
2016-07-19 20:09:34.708 STDERR [INFO] I0719 20:09:34.705806 31678 net.cpp:156] Memory required for data: 20408
2016-07-19 20:09:34.708 STDERR [INFO] I0719 20:09:34.705811 31678 layer_factory.hpp:77] Creating layer embedding
2016-07-19 20:09:34.708 STDERR [INFO] I0719 20:09:34.705824 31678 net.cpp:91] Creating Layer embedding
2016-07-19 20:09:34.708 STDERR [INFO] I0719 20:09:34.705831 31678 net.cpp:425] embedding <- input_sentence
2016-07-19 20:09:34.708 STDERR [INFO] I0719 20:09:34.705842 31678 net.cpp:399] embedding -> embedded_input_sentence
2016-07-19 20:09:34.708 STDERR [INFO] I0719 20:09:34.705853 31674 net.cpp:141] Setting up reshape_stage_indicator
2016-07-19 20:09:34.708 STDERR [INFO] I0719 20:09:34.705873 31674 net.cpp:148] Top shape: 1 1 1 (1)
2016-07-19 20:09:34.708 STDERR [INFO] I0719 20:09:34.705878 31674 net.cpp:156] Memory required for data: 20408
2016-07-19 20:09:34.708 STDERR [INFO] I0719 20:09:34.705883 31674 layer_factory.hpp:77] Creating layer embedding
2016-07-19 20:09:34.709 STDERR [INFO] I0719 20:09:34.705895 31674 net.cpp:91] Creating Layer embedding
2016-07-19 20:09:34.709 STDERR [INFO] I0719 20:09:34.705900 31674 net.cpp:425] embedding <- input_sentence
…
2016-07-19 20:09:35.027 STDERR [INFO] }
2016-07-19 20:09:35.027 STDERR [INFO] I0719 20:09:35.015313 31674 layer_factory.hpp:77] Creating layer lstm1_
2016-07-19 20:09:35.027 STDERR [INFO] I0719 20:09:35.015326 31674 net.cpp:91] Creating Layer lstm1_
2016-07-19 20:09:35.027 STDERR [INFO] I0719 20:09:35.015332 31674 net.cpp:399] lstm1_ -> x
2016-07-19 20:09:35.027 STDERR [INFO] I0719 20:09:35.015343 31674 net.cpp:399] lstm1_ -> cont
2016-07-19 20:09:35.027 STDERR [INFO] I0719 20:09:35.020864 31678 net.cpp:141] Setting up lstm1_
2016-07-19 20:09:35.027 STDERR [INFO] I0719 20:09:35.020900 31678 net.cpp:148] Top shape: 1 1 500 (500)
2016-07-19 20:09:35.027 STDERR [INFO] I0719 20:09:35.020915 31678 net.cpp:148] Top shape: 1 1 (1)
2016-07-19 20:09:35.027 STDERR [INFO] I0719 20:09:35.020925 31678 net.cpp:156] Memory required for data: 2004
2016-07-19 20:09:35.027 STDERR [INFO] I0719 20:09:35.020937 31678 layer_factory.hpp:77] Creating layer lstm1_
2016-07-19 20:09:35.027 STDERR [INFO] I0719 20:09:35.020961 31678 net.cpp:91] Creating Layer lstm1_
2016-07-19 20:09:35.027 STDERR [INFO] I0719 20:09:35.020983 31678 net.cpp:399] lstm1_ -> c_0
2016-07-19 20:09:35.027 STDERR [INFO] I0719 20:09:35.021011 31678 net.cpp:399] lstm1_ -> h_0
2016-07-19 20:09:35.029 n.t.s.s.CVParticleSpout [INFO] [Timing] RequestID: 0 StreamID: home/peifeng/work/data/frame.320x240.jpg SequenceNr: 115 Leaving fetcher: 1468973375029 Size: 8702
2016-07-19 20:09:35.029 n.t.s.b.CVParticleBolt [INFO] [Timing] RequestID: 0 StreamID: home/peifeng/work/data/frame.320x240.jpg SequenceNr: 114 Leaving scale: 1468973375029 Size: 3530
2016-07-19 20:09:35.030 n.t.s.b.CVParticleBolt [INFO] [Timing] RequestID: 0 StreamID: home/peifeng/work/data/frame.320x240.jpg SequenceNr: 115 Entering scale: 1468973375030
2016-07-19 20:09:35.049 STDERR [INFO] I0719 20:09:35.049679 31674 net.cpp:141] Setting up lstm1_
2016-07-19 20:09:35.050 STDERR [INFO] I0719 20:09:35.049715 31674 net.cpp:148] Top shape: 1 1 500 (500)
2016-07-19 20:09:35.050 STDERR [INFO] I0719 20:09:35.049722 31674 net.cpp:148] Top shape: 1 1 (1)
2016-07-19 20:09:35.050 STDERR [INFO] I0719 20:09:35.049726 31674 net.cpp:156] Memory required for data: 2004
2016-07-19 20:09:35.050 STDERR [INFO] I0719 20:09:35.049734 31674 layer_factory.hpp:77] Creating layer lstm1_
2016-07-19 20:09:35.050 STDERR [INFO] I0719 20:09:35.049760 31674 net.cpp:91] Creating Layer lstm1_
2016-07-19 20:09:35.050 STDERR [INFO] I0719 20:09:35.049772 31674 net.cpp:399] lstm1_ -> c_0
2016-07-19 20:09:35.050 STDERR [INFO] I0719 20:09:35.049787 31674 net.cpp:399] lstm1_ -> h_0
2016-07-19 20:09:35.059 n.t.s.s.CVParticleSpout [INFO] [Timing] RequestID: 0 StreamID: home/peifeng/work/data/frame.320x240.jpg SequenceNr: 116 Leaving fetcher: 1468973375059 Size: 8702
2016-07-19 20:09:35.063 n.t.s.b.CVParticleBolt [INFO] [Timing] RequestID: 0 StreamID: home/peifeng/work/data/frame.320x240.jpg SequenceNr: 115 Leaving scale: 1468973375063 Size: 3530
2016-07-19 20:09:35.064 n.t.s.b.CVParticleBolt [INFO] [Timing] RequestID: 0 StreamID: home/peifeng/work/data/frame.320x240.jpg SequenceNr: 116 Entering scale: 1468973375064
2016-07-19 20:09:35.077 n.t.s.b.CVParticleBolt [INFO] [Timing] RequestID: 0 StreamID: home/peifeng/work/data/frame.320x240.jpg SequenceNr: 116 Leaving scale: 1468973375077 Size: 3530
2016-07-19 20:09:35.078 STDERR [INFO] I0719 20:09:35.078213 31678 net.cpp:141] Setting up lstm1_
2016-07-19 20:09:35.078 STDERR [INFO] I0719 20:09:35.078249 31678 net.cpp:148] Top shape: 1 1 1000 (1000)
2016-07-19 20:09:35.078 STDERR [INFO] I0719 20:09:35.078256 31678 net.cpp:148] Top shape: 1 1 1000 (1000)
2016-07-19 20:09:35.078 STDERR [INFO] I0719 20:09:35.078260 31678 net.cpp:156] Memory required for data: 10004
2016-07-19 20:09:35.078 STDERR [INFO] I0719 20:09:35.078268 31678 layer_factory.hpp:77] Creating layer lstm1_cont_slice
2016-07-19 20:09:35.078 STDERR [INFO] I0719 20:09:35.078284 31678 net.cpp:91] Creating Layer lstm1_cont_slice
2016-07-19 20:09:35.078 STDERR [INFO] I0719 20:09:35.078289 31678 net.cpp:425] lstm1_cont_slice <- cont
2016-07-19 20:09:35.079 STDERR [INFO] I0719 20:09:35.078304 31678 net.cpp:399] lstm1_cont_slice -> cont_1
2016-07-19 20:09:35.105 STDERR [INFO] I0719 20:09:35.105839 31674 net.cpp:141] Setting up lstm1_
2016-07-19 20:09:35.106 STDERR [INFO] I0719 20:09:35.105870 31674 net.cpp:148] Top shape: 1 1 1000 (1000)
2016-07-19 20:09:35.106 STDERR [INFO] I0719 20:09:35.105876 31674 net.cpp:148] Top shape: 1 1 1000 (1000)
2016-07-19 20:09:35.106 STDERR [INFO] I0719 20:09:35.105880 31674 net.cpp:156] Memory required for data: 10004
2016-07-19 20:09:35.106 STDERR [INFO] I0719 20:09:35.105886 31674 layer_factory.hpp:77] Creating layer lstm1_cont_slice
2016-07-19 20:09:35.106 STDERR [INFO] I0719 20:09:35.105902 31674 net.cpp:91] Creating Layer lstm1_cont_slice
2016-07-19 20:09:35.106 STDERR [INFO] I0719 20:09:35.105909 31674 net.cpp:425] lstm1_cont_slice <- cont
2016-07-19 20:09:35.107 STDERR [INFO] I0719 20:09:35.105918 31674 net.cpp:399] lstm1_cont_slice -> cont_1
2016-07-19 20:09:35.107 STDERR [INFO] I0719 20:09:35.107120 31678 net.cpp:141] Setting up lstm1_cont_slice
2016-07-19 20:09:35.107 STDERR [INFO] I0719 20:09:35.107138 31678 net.cpp:148] Top shape: 1 1 (1)
2016-07-19 20:09:35.107 STDERR [INFO] I0719 20:09:35.107144 31678 net.cpp:156] Memory required for data: 10008
2016-07-19 20:09:35.107 STDERR [INFO] I0719 20:09:35.107149 31678 layer_factory.hpp:77] Creating layer cont_1_lstm1_cont_slice_0_split
2016-07-19 20:09:35.107 STDERR [INFO] I0719 20:09:35.107166 31678 net.cpp:91] Creating Layer cont_1_lstm1_cont_slice_0_split
2016-07-19 20:09:35.107 STDERR [INFO] I0719 20:09:35.107172 31678 net.cpp:425] cont_1_lstm1_cont_slice_0_split <- cont_1
2016-07-19 20:09:35.107 STDERR [INFO] I0719 20:09:35.107179 31678 net.cpp:399] cont_1_lstm1_cont_slice_0_split -> cont_1_lstm1_cont_slice_0_split_0
2016-07-19 20:09:35.107 STDERR [INFO] I0719 20:09:35.107188 31678 net.cpp:399] cont_1_lstm1_cont_slice_0_split -> cont_1_lstm1_cont_slice_0_split_1
2016-07-19 20:09:35.114 STDERR [INFO] I0719 20:09:35.114220 31674 net.cpp:141] Setting up lstm1_cont_slice
2016-07-19 20:09:35.114 STDERR [INFO] I0719 20:09:35.114241 31674 net.cpp:148] Top shape: 1 1 (1)
2016-07-19 20:09:35.114 STDERR [INFO] I0719 20:09:35.114246 31674 net.cpp:156] Memory required for data: 10008
2016-07-19 20:09:35.114 STDERR [INFO] I0719 20:09:35.114251 31674 layer_factory.hpp:77] Creating layer cont_1_lstm1_cont_slice_0_split
2016-07-19 20:09:35.114 STDERR [INFO] I0719 20:09:35.114259 31674 net.cpp:91] Creating Layer cont_1_lstm1_cont_slice_0_split
2016-07-19 20:09:35.114 STDERR [INFO] I0719 20:09:35.114264 31674 net.cpp:425] cont_1_lstm1_cont_slice_0_split <- cont_1
2016-07-19 20:09:35.114 STDERR [INFO] I0719 20:09:35.114271 31674 net.cpp:399] cont_1_lstm1_cont_slice_0_split -> cont_1_lstm1_cont_slice_0_split_0
2016-07-19 20:09:35.114 STDERR [INFO] I0719 20:09:35.114281 31674 net.cpp:399] cont_1_lstm1_cont_slice_0_split -> cont_1_lstm1_cont_slice_0_split_1
2016-07-19 20:09:35.145 STDERR [INFO] I0719 20:09:35.145274 31678 net.cpp:141] Setting up cont_1_lstm1_cont_slice_0_split
2016-07-19 20:09:35.145 STDERR [INFO] I0719 20:09:35.145298 31678 net.cpp:148] Top shape: 1 1 (1)
2016-07-19 20:09:35.145 STDERR [INFO] I0719 20:09:35.145305 31678 net.cpp:148] Top shape: 1 1 (1)
2016-07-19 20:09:35.145 STDERR [INFO] I0719 20:09:35.145309 31678 net.cpp:156] Memory required for data: 10016
2016-07-19 20:09:35.145 STDERR [INFO] I0719 20:09:35.145315 31678 layer_factory.hpp:77] Creating layer lstm1_x_transform
2016-07-19 20:09:35.145 STDERR [INFO] I0719 20:09:35.145339 31678 net.cpp:91] Creating Layer lstm1_x_transform
2016-07-19 20:09:35.146 STDERR [INFO] I0719 20:09:35.145345 31678 net.cpp:425] lstm1_x_transform <- x
2016-07-19 20:09:35.146 STDERR [INFO] I0719 20:09:35.145355 31678 net.cpp:399] lstm1_x_transform -> W_xc_x
2016-07-19 20:09:35.166 STDERR [INFO] I0719 20:09:35.166295 31674 net.cpp:141] Setting up cont_1_lstm1_cont_slice_0_split
2016-07-19 20:09:35.166 STDERR [INFO] I0719 20:09:35.166338 31674 net.cpp:148] Top shape: 1 1 (1)
2016-07-19 20:09:35.166 STDERR [INFO] I0719 20:09:35.166345 31674 net.cpp:148] Top shape: 1 1 (1)
2016-07-19 20:09:35.166 STDERR [INFO] I0719 20:09:35.166349 31674 net.cpp:156] Memory required for data: 10016
2016-07-19 20:09:35.167 STDERR [INFO] I0719 20:09:35.166357 31674 layer_factory.hpp:77] Creating layer lstm1_x_transform
2016-07-19 20:09:35.167 STDERR [INFO] I0719 20:09:35.166380 31674 net.cpp:91] Creating Layer lstm1_x_transform
2016-07-19 20:09:35.167 STDERR [INFO] I0719 20:09:35.166388 31674 net.cpp:425] lstm1_x_transform <- x
…
2016-07-19 20:09:35.240 n.t.s.b.CVParticleBolt [INFO] [Timing] RequestID: 0 StreamID: home/peifeng/work/data/frame.320x240.jpg SequenceNr: 118 Leaving scale: 1468973375240 Size: 3530
2016-07-19 20:09:35.241 n.t.s.b.CVParticleBolt [INFO] [Timing] RequestID: 0 StreamID: home/peifeng/work/data/frame.320x240.jpg SequenceNr: 119 Entering scale: 1468973375241
2016-07-19 20:09:35.278 n.t.s.b.CVParticleBolt [INFO] [Timing] RequestID: 0 StreamID: home/peifeng/work/data/frame.320x240.jpg SequenceNr: 119 Leaving scale: 1468973375278 Size: 3530
2016-07-19 20:09:35.311 STDERR [INFO] I0719 20:09:35.311307 31678 net.cpp:141] Setting up lstm1_x_transform
2016-07-19 20:09:35.311 STDERR [INFO] I0719 20:09:35.311352 31678 net.cpp:148] Top shape: 1 1 4000 (4000)
2016-07-19 20:09:35.311 STDERR [INFO] I0719 20:09:35.311365 31678 net.cpp:156] Memory required for data: 26016
2016-07-19 20:09:35.312 STDERR [INFO] I0719 20:09:35.311410 31678 layer_factory.hpp:77] Creating layer lstm1_W_xc_x_slice
2016-07-19 20:09:35.312 STDERR [INFO] I0719 20:09:35.311439 31678 net.cpp:91] Creating Layer lstm1_W_xc_x_slice
2016-07-19 20:09:35.312 STDERR [INFO] I0719 20:09:35.311445 31678 net.cpp:425] lstm1_W_xc_x_slice <- W_xc_x
2016-07-19 20:09:35.312 STDERR [INFO] I0719 20:09:35.311455 31678 net.cpp:399] lstm1_W_xc_x_slice -> W_xc_x_1
2016-07-19 20:09:35.312 STDERR [INFO] I0719 20:09:35.312046 31674 net.cpp:141] Setting up lstm1_x_transform
2016-07-19 20:09:35.312 STDERR [INFO] I0719 20:09:35.312069 31674 net.cpp:148] Top shape: 1 1 4000 (4000)
2016-07-19 20:09:35.312 STDERR [INFO] I0719 20:09:35.312079 31674 net.cpp:156] Memory required for data: 26016
2016-07-19 20:09:35.313 STDERR [INFO] I0719 20:09:35.312101 31674 layer_factory.hpp:77] Creating layer lstm1_W_xc_x_slice
2016-07-19 20:09:35.313 STDERR [INFO] I0719 20:09:35.312119 31674 net.cpp:91] Creating Layer lstm1_W_xc_x_slice
2016-07-19 20:09:35.313 STDERR [INFO] I0719 20:09:35.312127 31674 net.cpp:425] lstm1_W_xc_x_slice <- W_xc_x
2016-07-19 20:09:35.313 STDERR [INFO] I0719 20:09:35.312140 31674 net.cpp:399] lstm1_W_xc_x_slice -> W_xc_x_1
2016-07-19 20:09:35.331 STDERR [INFO] I0719 20:09:35.331243 31678 net.cpp:141] Setting up lstm1_W_xc_x_slice
2016-07-19 20:09:35.331 STDERR [INFO] I0719 20:09:35.331279 31678 net.cpp:148] Top shape: 1 1 4000 (4000)
2016-07-19 20:09:35.331 STDERR [INFO] I0719 20:09:35.331288 31678 net.cpp:156] Memory required for data: 42016
2016-07-19 20:09:35.331 STDERR [INFO] I0719 20:09:35.331300 31678 layer_factory.hpp:77] Creating layer lstm1_h_conted_0
2016-07-19 20:09:35.331 STDERR [INFO] I0719 20:09:35.331343 31678 net.cpp:91] Creating Layer lstm1_h_conted_0
2016-07-19 20:09:35.331 STDERR [INFO] I0719 20:09:35.331357 31678 net.cpp:425] lstm1_h_conted_0 <- h_0
2016-07-19 20:09:35.332 STDERR [INFO] I0719 20:09:35.331369 31678 net.cpp:425] lstm1_h_conted_0 <- cont_1_lstm1_cont_slice_0_split_0
2016-07-19 20:09:35.332 STDERR [INFO] I0719 20:09:35.331382 31678 net.cpp:399] lstm1_h_conted_0 -> h_conted_0
2016-07-19 20:09:35.340 STDERR [INFO] I0719 20:09:35.340243 31674 net.cpp:141] Setting up lstm1_W_xc_x_slice
2016-07-19 20:09:35.340 STDERR [INFO] I0719 20:09:35.340271 31674 net.cpp:148] Top shape: 1 1 4000 (4000)
2016-07-19 20:09:35.340 STDERR [INFO] I0719 20:09:35.340277 31674 net.cpp:156] Memory required for data: 42016
2016-07-19 20:09:35.340 STDERR [INFO] I0719 20:09:35.340282 31674 layer_factory.hpp:77] Creating layer lstm1_h_conted_0
2016-07-19 20:09:35.340 STDERR [INFO] I0719 20:09:35.340292 31674 net.cpp:91] Creating Layer lstm1_h_conted_0
2016-07-19 20:09:35.340 STDERR [INFO] I0719 20:09:35.340298 31674 net.cpp:425] lstm1_h_conted_0 <- h_0
2016-07-19 20:09:35.340 STDERR [INFO] I0719 20:09:35.340306 31674 net.cpp:425] lstm1_h_conted_0 <- cont_1_lstm1_cont_slice_0_split_0
2016-07-19 20:09:35.340 STDERR [INFO] I0719 20:09:35.340312 31674 net.cpp:399] lstm1_h_conted_0 -> h_conted_0
2016-07-19 20:09:35.400 n.t.s.f.RefreshingImageFetcher$ImageReader [INFO] [Timing] RequestID: 0 StreamID: home/peifeng/work/data/frame.320x240.jpg SequenceNr: 120 Entering queue: 1468973375400
2016-07-19 20:09:35.400 n.t.s.f.RefreshingImageFetcher$ImageReader [INFO] [Timing] RequestID: 0 StreamID: home/peifeng/work/data/frame.320x240.jpg SequenceNr: 121 Entering queue: 1468973375400
2016-07-19 20:09:35.400 n.t.s.f.RefreshingImageFetcher$ImageReader [INFO] [Timing] RequestID: 0 StreamID: home/peifeng/work/data/frame.320x240.jpg SequenceNr: 122 Entering queue: 1468973375400
2016-07-19 20:09:35.402 STDERR [INFO] I0719 20:09:35.402354 31678 net.cpp:141] Setting up lstm1_h_conted_0
2016-07-19 20:09:35.402 STDERR [INFO] I0719 20:09:35.402393 31678 net.cpp:148] Top shape: 1 1 1000 (1000)
2016-07-19 20:09:35.402 STDERR [INFO] I0719 20:09:35.402400 31678 net.cpp:156] Memory required for data: 46016
2016-07-19 20:09:35.402 STDERR [INFO] I0719 20:09:35.402407 31678 layer_factory.hpp:77] Creating layer lstm1_transform_1
2016-07-19 20:09:35.403 STDERR [INFO] I0719 20:09:35.402429 31678 net.cpp:91] Creating Layer lstm1_transform_1
2016-07-19 20:09:35.403 STDERR [INFO] I0719 20:09:35.402436 31678 net.cpp:425] lstm1_transform_1 <- h_conted_0
2016-07-19 20:09:35.403 STDERR [INFO] I0719 20:09:35.402451 31678 net.cpp:399] lstm1_transform_1 -> W_hc_h_0
2016-07-19 20:09:35.404 STDERR [INFO] I0719 20:09:35.404824 31674 net.cpp:141] Setting up lstm1_h_conted_0
2016-07-19 20:09:35.405 STDERR [INFO] I0719 20:09:35.404844 31674 net.cpp:148] Top shape: 1 1 1000 (1000)
2016-07-19 20:09:35.405 STDERR [INFO] I0719 20:09:35.404849 31674 net.cpp:156] Memory required for data: 46016
2016-07-19 20:09:35.405 STDERR [INFO] I0719 20:09:35.404855 31674 layer_factory.hpp:77] Creating layer lstm1_transform_1
2016-07-19 20:09:35.405 STDERR [INFO] I0719 20:09:35.404868 31674 net.cpp:91] Creating Layer lstm1_transform_1
2016-07-19 20:09:35.405 STDERR [INFO] I0719 20:09:35.404875 31674 net.cpp:425] lstm1_transform_1 <- h_conted_0
…
2016-07-19 20:09:35.486 STDERR [INFO] I0719 20:09:35.485582 31674 net.cpp:425] lstm1_unit_1 <- gate_input_1
2016-07-19 20:09:35.486 STDERR [INFO] I0719 20:09:35.485591 31674 net.cpp:425] lstm1_unit_1 <- cont_1_lstm1_cont_slice_0_split_1
2016-07-19 20:09:35.486 STDERR [INFO] I0719 20:09:35.485604 31674 net.cpp:399] lstm1_unit_1 -> c_1
2016-07-19 20:09:35.486 STDERR [INFO] I0719 20:09:35.485618 31674 net.cpp:399] lstm1_unit_1 -> h_1
2016-07-19 20:09:35.486 STDERR [INFO] I0719 20:09:35.486573 31678 net.cpp:141] Setting up lstm1_gate_input_1
2016-07-19 20:09:35.487 STDERR [INFO] I0719 20:09:35.486596 31678 net.cpp:148] Top shape: 1 1 4000 (4000)
2016-07-19 20:09:35.487 STDERR [INFO] I0719 20:09:35.486605 31678 net.cpp:156] Memory required for data: 78016
2016-07-19 20:09:35.487 STDERR [INFO] I0719 20:09:35.486613 31678 layer_factory.hpp:77] Creating layer lstm1_unit_1
2016-07-19 20:09:35.487 STDERR [INFO] I0719 20:09:35.486630 31678 net.cpp:91] Creating Layer lstm1_unit_1
2016-07-19 20:09:35.487 STDERR [INFO] I0719 20:09:35.486640 31678 net.cpp:425] lstm1_unit_1 <- c_0
2016-07-19 20:09:35.487 STDERR [INFO] I0719 20:09:35.486651 31678 net.cpp:425] lstm1_unit_1 <- gate_input_1
2016-07-19 20:09:35.487 STDERR [INFO] I0719 20:09:35.486660 31678 net.cpp:425] lstm1_unit_1 <- cont_1_lstm1_cont_slice_0_split_1
2016-07-19 20:09:35.487 STDERR [INFO] I0719 20:09:35.486673 31678 net.cpp:399] lstm1_unit_1 -> c_1
2016-07-19 20:09:35.487 STDERR [INFO] I0719 20:09:35.486701 31678 net.cpp:399] lstm1_unit_1 -> h_1
2016-07-19 20:09:35.487 STDERR [INFO] I0719 20:09:35.486726 31674 net.cpp:141] Setting up lstm1_unit_1
2016-07-19 20:09:35.487 STDERR [INFO] I0719 20:09:35.486743 31674 net.cpp:148] Top shape: 1 1 1000 (1000)
2016-07-19 20:09:35.487 STDERR [INFO] I0719 20:09:35.486754 31674 net.cpp:148] Top shape: 1 1 1000 (1000)
2016-07-19 20:09:35.487 STDERR [INFO] I0719 20:09:35.486762 31674 net.cpp:156] Memory required for data: 86016
2016-07-19 20:09:35.487 STDERR [INFO] I0719 20:09:35.486769 31674 layer_factory.hpp:77] Creating layer lstm1_
2016-07-19 20:09:35.487 STDERR [INFO] I0719 20:09:35.486783 31674 net.cpp:91] Creating Layer lstm1_
2016-07-19 20:09:35.487 STDERR [INFO] I0719 20:09:35.486793 31674 net.cpp:425] lstm1_ <- c_1
2016-07-19 20:09:35.487 STDERR [INFO] I0719 20:09:35.486804 31674 net.cpp:399] lstm1_ -> c_T
2016-07-19 20:09:35.488 STDERR [INFO] I0719 20:09:35.486889 31678 net.cpp:141] Setting up lstm1_unit_1
2016-07-19 20:09:35.488 STDERR [INFO] I0719 20:09:35.486907 31678 net.cpp:148] Top shape: 1 1 1000 (1000)
2016-07-19 20:09:35.488 STDERR [INFO] I0719 20:09:35.486912 31674 net.cpp:141] Setting up lstm1_
2016-07-19 20:09:35.488 STDERR [INFO] I0719 20:09:35.486918 31678 net.cpp:148] Top shape: 1 1 1000 (1000)
2016-07-19 20:09:35.488 STDERR [INFO] I0719 20:09:35.486924 31674 net.cpp:148] Top shape: 1 1 1000 (1000)
2016-07-19 20:09:35.488 STDERR [INFO] I0719 20:09:35.486925 31678 net.cpp:156] Memory required for data: 86016
2016-07-19 20:09:35.488 STDERR [INFO] I0719 20:09:35.486937 31674 net.cpp:156] Memory required for data: 90016
2016-07-19 20:09:35.488 STDERR [INFO] I0719 20:09:35.486943 31678 layer_factory.hpp:77] Creating layer lstm1_
2016-07-19 20:09:35.488 STDERR [INFO] I0719 20:09:35.486945 31674 layer_factory.hpp:77] Creating layer lstm1_h_concat
2016-07-19 20:09:35.488 STDERR [INFO] I0719 20:09:35.486971 31678 net.cpp:91] Creating Layer lstm1_
2016-07-19 20:09:35.488 STDERR [INFO] I0719 20:09:35.486975 31674 net.cpp:91] Creating Layer lstm1_h_concat
2016-07-19 20:09:35.488 STDERR [INFO] I0719 20:09:35.486982 31678 net.cpp:425] lstm1_ <- c_1
2016-07-19 20:09:35.489 STDERR [INFO] I0719 20:09:35.486984 31674 net.cpp:425] lstm1_h_concat <- h_1
2016-07-19 20:09:35.489 STDERR [INFO] I0719 20:09:35.486999 31678 net.cpp:399] lstm1_ -> c_T
2016-07-19 20:09:35.489 STDERR [INFO] I0719 20:09:35.487000 31674 net.cpp:399] lstm1_h_concat -> h
2016-07-19 20:09:35.489 STDERR [INFO] I0719 20:09:35.487090 31674 net.cpp:141] Setting up lstm1_h_concat
2016-07-19 20:09:35.489 STDERR [INFO] I0719 20:09:35.487113 31678 net.cpp:141] Setting up lstm1_
2016-07-19 20:09:35.489 STDERR [INFO] I0719 20:09:35.487117 31674 net.cpp:148] Top shape: 1 1 1000 (1000)
2016-07-19 20:09:35.489 STDERR [INFO] I0719 20:09:35.487130 31674 net.cpp:156] Memory required for data: 94016
2016-07-19 20:09:35.489 STDERR [INFO] I0719 20:09:35.487130 31678 net.cpp:148] Top shape: 1 1 1000 (1000)
2016-07-19 20:09:35.489 STDERR [INFO] I0719 20:09:35.487143 31674 layer_factory.hpp:77] Creating layer h_pseudoloss
2016-07-19 20:09:35.489 STDERR [INFO] I0719 20:09:35.487145 31678 net.cpp:156] Memory required for data: 90016
2016-07-19 20:09:35.489 STDERR [INFO] I0719 20:09:35.487154 31678 layer_factory.hpp:77] Creating layer lstm1_h_concat
2016-07-19 20:09:35.489 STDERR [INFO] I0719 20:09:35.487162 31674 net.cpp:91] Creating Layer h_pseudoloss
2016-07-19 20:09:35.489 STDERR [INFO] I0719 20:09:35.487164 31678 net.cpp:91] Creating Layer lstm1_h_concat
2016-07-19 20:09:35.489 STDERR [INFO] I0719 20:09:35.487174 31674 net.cpp:425] h_pseudoloss <- h
2016-07-19 20:09:35.489 STDERR [INFO] I0719 20:09:35.487176 31678 net.cpp:425] lstm1_h_concat <- h_1
2016-07-19 20:09:35.489 STDERR [INFO] I0719 20:09:35.487187 31674 net.cpp:399] h_pseudoloss -> h_pseudoloss
2016-07-19 20:09:35.489 STDERR [INFO] I0719 20:09:35.487190 31678 net.cpp:399] lstm1_h_concat -> h
2016-07-19 20:09:35.490 STDERR [INFO] I0719 20:09:35.487277 31678 net.cpp:141] Setting up lstm1_h_concat
2016-07-19 20:09:35.490 STDERR [INFO] I0719 20:09:35.487293 31678 net.cpp:148] Top shape: 1 1 1000 (1000)
2016-07-19 20:09:35.490 STDERR [INFO] I0719 20:09:35.487300 31678 net.cpp:156] Memory required for data: 94016
2016-07-19 20:09:35.490 STDERR [INFO] I0719 20:09:35.487308 31678 layer_factory.hpp:77] Creating layer h_pseudoloss
2016-07-19 20:09:35.490 STDERR [INFO] I0719 20:09:35.487320 31678 net.cpp:91] Creating Layer h_pseudoloss
2016-07-19 20:09:35.490 STDERR [INFO] I0719 20:09:35.487328 31678 net.cpp:425] h_pseudoloss <- h
…
2016-07-19 20:09:35.521 STDERR [INFO] I0719 20:09:35.489017 31674 net.cpp:91] Creating Layer lstm2_
2016-07-19 20:09:35.521 STDERR [INFO] I0719 20:09:35.489034 31678 net.cpp:399] lstm2_ -> x
2016-07-19 20:09:35.521 STDERR [INFO] I0719 20:09:35.489035 31674 net.cpp:399] lstm2_ -> x
2016-07-19 20:09:35.521 STDERR [INFO] I0719 20:09:35.489055 31678 net.cpp:399] lstm2_ -> cont
2016-07-19 20:09:35.521 STDERR [INFO] I0719 20:09:35.489055 31674 net.cpp:399] lstm2_ -> cont
2016-07-19 20:09:35.521 STDERR [INFO] I0719 20:09:35.489226 31674 net.cpp:141] Setting up lstm2_
2016-07-19 20:09:35.521 STDERR [INFO] I0719 20:09:35.489243 31674 net.cpp:148] Top shape: 1 1 1501 (1501)
2016-07-19 20:09:35.521 STDERR [INFO] I0719 20:09:35.489255 31674 net.cpp:148] Top shape: 1 1 (1)
2016-07-19 20:09:35.521 STDERR [INFO] I0719 20:09:35.489253 31678 net.cpp:141] Setting up lstm2_
2016-07-19 20:09:35.521 STDERR [INFO] I0719 20:09:35.489265 31674 net.cpp:156] Memory required for data: 6008
2016-07-19 20:09:35.521 STDERR [INFO] I0719 20:09:35.489274 31674 layer_factory.hpp:77] Creating layer lstm2_
2016-07-19 20:09:35.521 STDERR [INFO] I0719 20:09:35.489275 31678 net.cpp:148] Top shape: 1 1 1501 (1501)
2016-07-19 20:09:35.521 STDERR [INFO] I0719 20:09:35.489289 31678 net.cpp:148] Top shape: 1 1 (1)
2016-07-19 20:09:35.521 STDERR [INFO] I0719 20:09:35.489296 31674 net.cpp:91] Creating Layer lstm2_
2016-07-19 20:09:35.521 STDERR [INFO] I0719 20:09:35.489298 31678 net.cpp:156] Memory required for data: 6008
2016-07-19 20:09:35.521 STDERR [INFO] I0719 20:09:35.489310 31678 layer_factory.hpp:77] Creating layer lstm2_
2016-07-19 20:09:35.521 STDERR [INFO] I0719 20:09:35.489310 31674 net.cpp:399] lstm2_ -> c_0
2016-07-19 20:09:35.522 STDERR [INFO] I0719 20:09:35.489332 31678 net.cpp:91] Creating Layer lstm2_
2016-07-19 20:09:35.522 STDERR [INFO] I0719 20:09:35.489341 31674 net.cpp:399] lstm2_ -> h_0
2016-07-19 20:09:35.522 STDERR [INFO] I0719 20:09:35.489349 31678 net.cpp:399] lstm2_ -> c_0
2016-07-19 20:09:35.522 STDERR [INFO] I0719 20:09:35.489367 31678 net.cpp:399] lstm2_ -> h_0
2016-07-19 20:09:35.522 STDERR [INFO] I0719 20:09:35.489528 31678 net.cpp:141] Setting up lstm2_
2016-07-19 20:09:35.522 STDERR [INFO] I0719 20:09:35.489545 31678 net.cpp:148] Top shape: 1 1 1000 (1000)
2016-07-19 20:09:35.522 STDERR [INFO] I0719 20:09:35.489548 31674 net.cpp:141] Setting up lstm2_
2016-07-19 20:09:35.522 STDERR [INFO] I0719 20:09:35.489557 31678 net.cpp:148] Top shape: 1 1 1000 (1000)
2016-07-19 20:09:35.522 STDERR [INFO] I0719 20:09:35.489562 31674 net.cpp:148] Top shape: 1 1 1000 (1000)
2016-07-19 20:09:35.522 STDERR [INFO] I0719 20:09:35.489563 31678 net.cpp:156] Memory required for data: 14008
2016-07-19 20:09:35.522 STDERR [INFO] I0719 20:09:35.489570 31678 layer_factory.hpp:77] Creating layer lstm2_cont_slice
2016-07-19 20:09:35.522 STDERR [INFO] I0719 20:09:35.489572 31674 net.cpp:148] Top shape: 1 1 1000 (1000)
2016-07-19 20:09:35.522 STDERR [INFO] I0719 20:09:35.489586 31674 net.cpp:156] Memory required for data: 14008
2016-07-19 20:09:35.522 STDERR [INFO] I0719 20:09:35.489588 31678 net.cpp:91] Creating Layer lstm2_cont_slice
2016-07-19 20:09:35.522 STDERR [INFO] I0719 20:09:35.489598 31674 layer_factory.hpp:77] Creating layer lstm2_cont_slice
2016-07-19 20:09:35.522 STDERR [INFO] I0719 20:09:35.489603 31678 net.cpp:425] lstm2_cont_slice <- cont
2016-07-19 20:09:35.522 STDERR [INFO] I0719 20:09:35.489615 31674 net.cpp:91] Creating Layer lstm2_cont_slice
2016-07-19 20:09:35.522 STDERR [INFO] I0719 20:09:35.489619 31678 net.cpp:399] lstm2_cont_slice -> cont_1
2016-07-19 20:09:35.523 STDERR [INFO] I0719 20:09:35.489625 31674 net.cpp:425] lstm2_cont_slice <- cont
2016-07-19 20:09:35.523 STDERR [INFO] I0719 20:09:35.489637 31674 net.cpp:399] lstm2_cont_slice -> cont_1
2016-07-19 20:09:35.523 STDERR [INFO] I0719 20:09:35.489712 31678 net.cpp:141] Setting up lstm2_cont_slice
2016-07-19 20:09:35.523 STDERR [INFO] I0719 20:09:35.489728 31678 net.cpp:148] Top shape: 1 1 (1)
2016-07-19 20:09:35.523 STDERR [INFO] I0719 20:09:35.489737 31678 net.cpp:156] Memory required for data: 14012
2016-07-19 20:09:35.523 STDERR [INFO] I0719 20:09:35.489737 31674 net.cpp:141] Setting up lstm2_cont_slice
2016-07-19 20:09:35.523 STDERR [INFO] I0719 20:09:35.489750 31678 layer_factory.hpp:77] Creating layer cont_1_lstm2_cont_slice_0_split
2016-07-19 20:09:35.523 STDERR [INFO] I0719 20:09:35.489758 31674 net.cpp:148] Top shape: 1 1 (1)
2016-07-19 20:09:35.523 STDERR [INFO] I0719 20:09:35.489766 31674 net.cpp:156] Memory required for data: 14012
2016-07-19 20:09:35.523 STDERR [INFO] I0719 20:09:35.489768 31678 net.cpp:91] Creating Layer cont_1_lstm2_cont_slice_0_split
2016-07-19 20:09:35.523 STDERR [INFO] I0719 20:09:35.489778 31674 layer_factory.hpp:77] Creating layer cont_1_lstm2_cont_slice_0_split
2016-07-19 20:09:35.523 STDERR [INFO] I0719 20:09:35.489783 31678 net.cpp:425] cont_1_lstm2_cont_slice_0_split <- cont_1
…
2016-07-19 20:09:35.614 n.t.s.s.CVParticleSpout [INFO] [Timing] RequestID: 0 StreamID: home/peifeng/work/data/frame.320x240.jpg SequenceNr: 125 Leaving fetcher: 1468973375614 Size: 8702
2016-07-19 20:09:35.616 n.t.s.b.CVParticleBolt [INFO] [Timing] RequestID: 0 StreamID: home/peifeng/work/data/frame.320x240.jpg SequenceNr: 124 Leaving scale: 1468973375616 Size: 3530
2016-07-19 20:09:35.616 n.t.s.b.CVParticleBolt [INFO] [Timing] RequestID: 0 StreamID: home/peifeng/work/data/frame.320x240.jpg SequenceNr: 125 Entering scale: 1468973375616
2016-07-19 20:09:35.620 STDERR [INFO] I0719 20:09:35.620733 31678 net.cpp:141] Setting up lstm2_x_transform
2016-07-19 20:09:35.621 STDERR [INFO] I0719 20:09:35.620780 31678 net.cpp:148] Top shape: 1 1 4000 (4000)
2016-07-19 20:09:35.621 STDERR [INFO] I0719 20:09:35.620790 31678 net.cpp:156] Memory required for data: 30020
2016-07-19 20:09:35.621 STDERR [INFO] I0719 20:09:35.620820 31678 layer_factory.hpp:77] Creating layer lstm2_W_xc_x_slice
2016-07-19 20:09:35.621 STDERR [INFO] I0719 20:09:35.620841 31678 net.cpp:91] Creating Layer lstm2_W_xc_x_slice
2016-07-19 20:09:35.621 STDERR [INFO] I0719 20:09:35.620851 31678 net.cpp:425] lstm2_W_xc_x_slice <- W_xc_x
2016-07-19 20:09:35.621 STDERR [INFO] I0719 20:09:35.620860 31678 net.cpp:399] lstm2_W_xc_x_slice -> W_xc_x_1
2016-07-19 20:09:35.635 n.t.s.b.CVParticleBolt [INFO] [Timing] RequestID: 0 StreamID: home/peifeng/work/data/frame.320x240.jpg SequenceNr: 125 Leaving scale: 1468973375635 Size: 3530
2016-07-19 20:09:35.640 STDERR [INFO] I0719 20:09:35.640210 31674 net.cpp:141] Setting up lstm2_x_transform
2016-07-19 20:09:35.640 STDERR [INFO] I0719 20:09:35.640250 31674 net.cpp:148] Top shape: 1 1 4000 (4000)
2016-07-19 20:09:35.640 STDERR [INFO] I0719 20:09:35.640255 31674 net.cpp:156] Memory required for data: 30020
2016-07-19 20:09:35.640 STDERR [INFO] I0719 20:09:35.640277 31674 layer_factory.hpp:77] Creating layer lstm2_W_xc_x_slice
2016-07-19 20:09:35.640 STDERR [INFO] I0719 20:09:35.640292 31674 net.cpp:91] Creating Layer lstm2_W_xc_x_slice
2016-07-19 20:09:35.640 STDERR [INFO] I0719 20:09:35.640298 31674 net.cpp:425] lstm2_W_xc_x_slice <- W_xc_x
2016-07-19 20:09:35.640 STDERR [INFO] I0719 20:09:35.640307 31674 net.cpp:399] lstm2_W_xc_x_slice -> W_xc_x_1
2016-07-19 20:09:35.646 STDERR [INFO] I0719 20:09:35.646582 31678 net.cpp:141] Setting up lstm2_W_xc_x_slice
2016-07-19 20:09:35.646 STDERR [INFO] I0719 20:09:35.646605 31678 net.cpp:148] Top shape: 1 1 4000 (4000)
2016-07-19 20:09:35.646 STDERR [INFO] I0719 20:09:35.646610 31678 net.cpp:156] Memory required for data: 46020
2016-07-19 20:09:35.646 STDERR [INFO] I0719 20:09:35.646615 31678 layer_factory.hpp:77] Creating layer lstm2_h_conted_0
2016-07-19 20:09:35.646 STDERR [INFO] I0719 20:09:35.646625 31678 net.cpp:91] Creating Layer lstm2_h_conted_0
2016-07-19 20:09:35.647 STDERR [INFO] I0719 20:09:35.646631 31678 net.cpp:425] lstm2_h_conted_0 <- h_0
2016-07-19 20:09:35.647 STDERR [INFO] I0719 20:09:35.646638 31678 net.cpp:425] lstm2_h_conted_0 <- cont_1_lstm2_cont_slice_0_split_0
2016-07-19 20:09:35.647 STDERR [INFO] I0719 20:09:35.646667 31678 net.cpp:399] lstm2_h_conted_0 -> h_conted_0
2016-07-19 20:09:35.665 STDERR [INFO] I0719 20:09:35.665807 31674 net.cpp:141] Setting up lstm2_W_xc_x_slice
2016-07-19 20:09:35.666 STDERR [INFO] I0719 20:09:35.665829 31674 net.cpp:148] Top shape: 1 1 4000 (4000)
2016-07-19 20:09:35.666 STDERR [INFO] I0719 20:09:35.665834 31674 net.cpp:156] Memory required for data: 46020
2016-07-19 20:09:35.666 STDERR [INFO] I0719 20:09:35.665840 31674 layer_factory.hpp:77] Creating layer lstm2_h_conted_0
2016-07-19 20:09:35.666 STDERR [INFO] I0719 20:09:35.665851 31674 net.cpp:91] Creating Layer lstm2_h_conted_0
2016-07-19 20:09:35.666 STDERR [INFO] I0719 20:09:35.665856 31674 net.cpp:425] lstm2_h_conted_0 <- h_0
2016-07-19 20:09:35.666 STDERR [INFO] I0719 20:09:35.665866 31674 net.cpp:425] lstm2_h_conted_0 <- cont_1_lstm2_cont_slice_0_split_0
2016-07-19 20:09:35.666 STDERR [INFO] I0719 20:09:35.665874 31674 net.cpp:399] lstm2_h_conted_0 -> h_conted_0
2016-07-19 20:09:35.694 STDERR [INFO] I0719 20:09:35.694746 31678 net.cpp:141] Setting up lstm2_h_conted_0
2016-07-19 20:09:35.695 STDERR [INFO] I0719 20:09:35.694790 31678 net.cpp:148] Top shape: 1 1 1000 (1000)
2016-07-19 20:09:35.695 STDERR [INFO] I0719 20:09:35.694797 31678 net.cpp:156] Memory required for data: 50020
2016-07-19 20:09:35.695 STDERR [INFO] I0719 20:09:35.694804 31678 layer_factory.hpp:77] Creating layer lstm2_transform_1
2016-07-19 20:09:35.695 STDERR [INFO] I0719 20:09:35.694828 31678 net.cpp:91] Creating Layer lstm2_transform_1
2016-07-19 20:09:35.695 STDERR [INFO] I0719 20:09:35.694836 31678 net.cpp:425] lstm2_transform_1 <- h_conted_0
2016-07-19 20:09:35.695 STDERR [INFO] I0719 20:09:35.694850 31678 net.cpp:399] lstm2_transform_1 -> W_hc_h_0
2016-07-19 20:09:35.701 STDERR [INFO] I0719 20:09:35.701645 31674 net.cpp:141] Setting up lstm2_h_conted_0
2016-07-19 20:09:35.701 STDERR [INFO] I0719 20:09:35.701673 31674 net.cpp:148] Top shape: 1 1 1000 (1000)
2016-07-19 20:09:35.701 STDERR [INFO] I0719 20:09:35.701678 31674 net.cpp:156] Memory required for data: 50020
2016-07-19 20:09:35.702 STDERR [INFO] I0719 20:09:35.701684 31674 layer_factory.hpp:77] Creating layer lstm2_transform_1
2016-07-19 20:09:35.702 STDERR [INFO] I0719 20:09:35.701702 31674 net.cpp:91] Creating Layer lstm2_transform_1
2016-07-19 20:09:35.702 STDERR [INFO] I0719 20:09:35.701709 31674 net.cpp:425] lstm2_transform_1 <- h_conted_0
2016-07-19 20:09:35.702 STDERR [INFO] I0719 20:09:35.701719 31674 net.cpp:399] lstm2_transform_1 -> W_hc_h_0
2016-07-19 20:09:35.790 STDERR [INFO] I0719 20:09:35.790830 31678 net.cpp:141] Setting up lstm2_transform_1
2016-07-19 20:09:35.791 STDERR [INFO] I0719 20:09:35.790879 31678 net.cpp:148] Top shape: 1 1 4000 (4000)
2016-07-19 20:09:35.791 STDERR [INFO] I0719 20:09:35.790884 31678 net.cpp:156] Memory required for data: 66020
2016-07-19 20:09:35.791 STDERR [INFO] I0719 20:09:35.790904 31678 layer_factory.hpp:77] Creating layer lstm2_gate_input_1
2016-07-19 20:09:35.791 STDERR [INFO] I0719 20:09:35.790921 31678 net.cpp:91] Creating Layer lstm2_gate_input_1
2016-07-19 20:09:35.792 STDERR [INFO] I0719 20:09:35.790928 31678 net.cpp:425] lstm2_gate_input_1 <- W_hc_h_0
…
2016-07-19 20:09:35.804 n.t.s.b.CVParticleBolt [INFO] [Timing] RequestID: 0 StreamID: home/peifeng/work/data/frame.320x240.jpg SequenceNr: 126 Entering scale: 1468973375804
2016-07-19 20:09:35.808 n.t.s.s.CVParticleSpout [INFO] [Timing] RequestID: 0 StreamID: home/peifeng/work/data/frame.320x240.jpg SequenceNr: 127 Leaving fetcher: 1468973375808 Size: 8702
2016-07-19 20:09:35.809 STDERR [INFO] I0719 20:09:35.809762 31674 net.cpp:141] Setting up lstm2_transform_1
2016-07-19 20:09:35.809 n.t.s.b.CVParticleBolt [INFO] [Timing] RequestID: 0 StreamID: home/peifeng/work/data/frame.320x240.jpg SequenceNr: 126 Leaving scale: 1468973375809 Size: 3530
2016-07-19 20:09:35.810 STDERR [INFO] I0719 20:09:35.809793 31674 net.cpp:148] Top shape: 1 1 4000 (4000)
2016-07-19 20:09:35.810 STDERR [INFO] I0719 20:09:35.809798 31674 net.cpp:156] Memory required for data: 66020
2016-07-19 20:09:35.810 STDERR [INFO] I0719 20:09:35.809813 31674 layer_factory.hpp:77] Creating layer lstm2_gate_input_1
2016-07-19 20:09:35.810 STDERR [INFO] I0719 20:09:35.809829 31674 net.cpp:91] Creating Layer lstm2_gate_input_1
2016-07-19 20:09:35.810 STDERR [INFO] I0719 20:09:35.809835 31674 net.cpp:425] lstm2_gate_input_1 <- W_hc_h_0
2016-07-19 20:09:35.810 n.t.s.b.CVParticleBolt [INFO] [Timing] RequestID: 0 StreamID: home/peifeng/work/data/frame.320x240.jpg SequenceNr: 127 Entering scale: 1468973375810
2016-07-19 20:09:35.810 STDERR [INFO] I0719 20:09:35.809844 31674 net.cpp:425] lstm2_gate_input_1 <- W_xc_x_1
2016-07-19 20:09:35.810 STDERR [INFO] I0719 20:09:35.809855 31674 net.cpp:399] lstm2_gate_input_1 -> gate_input_1
2016-07-19 20:09:35.810 STDERR [INFO] I0719 20:09:35.810708 31678 net.cpp:141] Setting up lstm2_gate_input_1
2016-07-19 20:09:35.810 STDERR [INFO] I0719 20:09:35.810736 31678 net.cpp:148] Top shape: 1 1 4000 (4000)
2016-07-19 20:09:35.810 STDERR [INFO] I0719 20:09:35.810745 31678 net.cpp:156] Memory required for data: 82020
2016-07-19 20:09:35.811 STDERR [INFO] I0719 20:09:35.810753 31678 layer_factory.hpp:77] Creating layer lstm2_unit_1
2016-07-19 20:09:35.811 STDERR [INFO] I0719 20:09:35.810767 31678 net.cpp:91] Creating Layer lstm2_unit_1
2016-07-19 20:09:35.811 STDERR [INFO] I0719 20:09:35.810776 31678 net.cpp:425] lstm2_unit_1 <- c_0
2016-07-19 20:09:35.811 STDERR [INFO] I0719 20:09:35.810786 31678 net.cpp:425] lstm2_unit_1 <- gate_input_1
2016-07-19 20:09:35.811 STDERR [INFO] I0719 20:09:35.810794 31678 net.cpp:425] lstm2_unit_1 <- cont_1_lstm2_cont_slice_0_split_1
2016-07-19 20:09:35.811 STDERR [INFO] I0719 20:09:35.810813 31678 net.cpp:399] lstm2_unit_1 -> c_1
2016-07-19 20:09:35.811 STDERR [INFO] I0719 20:09:35.810830 31678 net.cpp:399] lstm2_unit_1 -> h_1
2016-07-19 20:09:35.812 n.t.s.s.CVParticleSpout [INFO] [Timing] RequestID: 0 StreamID: home/peifeng/work/data/frame.320x240.jpg SequenceNr: 128 Leaving fetcher: 1468973375812 Size: 8702
2016-07-19 20:09:35.825 STDERR [INFO] I0719 20:09:35.825008 31674 net.cpp:141] Setting up lstm2_gate_input_1
2016-07-19 20:09:35.825 STDERR [INFO] I0719 20:09:35.825029 31674 net.cpp:148] Top shape: 1 1 4000 (4000)
2016-07-19 20:09:35.825 STDERR [INFO] I0719 20:09:35.825034 31674 net.cpp:156] Memory required for data: 82020
2016-07-19 20:09:35.825 STDERR [INFO] I0719 20:09:35.825039 31674 layer_factory.hpp:77] Creating layer lstm2_unit_1
2016-07-19 20:09:35.825 STDERR [INFO] I0719 20:09:35.825069 31674 net.cpp:91] Creating Layer lstm2_unit_1
2016-07-19 20:09:35.825 STDERR [INFO] I0719 20:09:35.825076 31674 net.cpp:425] lstm2_unit_1 <- c_0
2016-07-19 20:09:35.825 STDERR [INFO] I0719 20:09:35.825083 31674 net.cpp:425] lstm2_unit_1 <- gate_input_1
2016-07-19 20:09:35.825 STDERR [INFO] I0719 20:09:35.825088 31674 net.cpp:425] lstm2_unit_1 <- cont_1_lstm2_cont_slice_0_split_1
2016-07-19 20:09:35.825 STDERR [INFO] I0719 20:09:35.825095 31674 net.cpp:399] lstm2_unit_1 -> c_1
2016-07-19 20:09:35.825 STDERR [INFO] I0719 20:09:35.825105 31674 net.cpp:399] lstm2_unit_1 -> h_1
2016-07-19 20:09:35.836 n.t.s.b.CVParticleBolt [INFO] [Timing] RequestID: 0 StreamID: home/peifeng/work/data/frame.320x240.jpg SequenceNr: 127 Leaving scale: 1468973375836 Size: 3530
2016-07-19 20:09:35.838 n.t.s.b.CVParticleBolt [INFO] [Timing] RequestID: 0 StreamID: home/peifeng/work/data/frame.320x240.jpg SequenceNr: 128 Entering scale: 1468973375838
2016-07-19 20:09:35.872 STDERR [INFO] I0719 20:09:35.872859 31678 net.cpp:141] Setting up lstm2_unit_1
2016-07-19 20:09:35.873 STDERR [INFO] I0719 20:09:35.872895 31678 net.cpp:148] Top shape: 1 1 1000 (1000)
2016-07-19 20:09:35.873 STDERR [INFO] I0719 20:09:35.872902 31678 net.cpp:148] Top shape: 1 1 1000 (1000)
2016-07-19 20:09:35.873 STDERR [INFO] I0719 20:09:35.872906 31678 net.cpp:156] Memory required for data: 90020
2016-07-19 20:09:35.873 STDERR [INFO] I0719 20:09:35.872913 31678 layer_factory.hpp:77] Creating layer lstm2_
2016-07-19 20:09:35.873 STDERR [INFO] I0719 20:09:35.872927 31678 net.cpp:91] Creating Layer lstm2_
2016-07-19 20:09:35.873 STDERR [INFO] I0719 20:09:35.872933 31678 net.cpp:425] lstm2_ <- c_1
2016-07-19 20:09:35.873 STDERR [INFO] I0719 20:09:35.872944 31678 net.cpp:399] lstm2_ -> c_T
2016-07-19 20:09:35.891 n.t.s.b.CVParticleBolt [INFO] [Timing] RequestID: 0 StreamID: home/peifeng/work/data/frame.320x240.jpg SequenceNr: 128 Leaving scale: 1468973375891 Size: 3530
2016-07-19 20:09:35.906 STDERR [INFO] I0719 20:09:35.906906 31674 net.cpp:141] Setting up lstm2_unit_1
2016-07-19 20:09:35.907 STDERR [INFO] I0719 20:09:35.906929 31674 net.cpp:148] Top shape: 1 1 1000 (1000)
2016-07-19 20:09:35.907 STDERR [INFO] I0719 20:09:35.906935 31674 net.cpp:148] Top shape: 1 1 1000 (1000)
2016-07-19 20:09:35.907 STDERR [INFO] I0719 20:09:35.906940 31674 net.cpp:156] Memory required for data: 90020
2016-07-19 20:09:35.907 STDERR [INFO] I0719 20:09:35.906945 31674 layer_factory.hpp:77] Creating layer lstm2_
2016-07-19 20:09:35.907 STDERR [INFO] I0719 20:09:35.906955 31674 net.cpp:91] Creating Layer lstm2_
2016-07-19 20:09:35.907 STDERR [INFO] I0719 20:09:35.906960 31674 net.cpp:425] lstm2_ <- c_1
2016-07-19 20:09:35.907 STDERR [INFO] I0719 20:09:35.906968 31674 net.cpp:399] lstm2_ -> c_T
2016-07-19 20:09:35.911 STDERR [INFO] I0719 20:09:35.911141 31678 net.cpp:141] Setting up lstm2_
2016-07-19 20:09:35.911 STDERR [INFO] I0719 20:09:35.911166 31678 net.cpp:148] Top shape: 1 1 1000 (1000)
2016-07-19 20:09:35.911 STDERR [INFO] I0719 20:09:35.911172 31678 net.cpp:156] Memory required for data: 94020
2016-07-19 20:09:35.911 STDERR [INFO] I0719 20:09:35.911177 31678 layer_factory.hpp:77] Creating layer lstm2_h_concat
2016-07-19 20:09:35.911 STDERR [INFO] I0719 20:09:35.911188 31678 net.cpp:91] Creating Layer lstm2_h_concat
2016-07-19 20:09:35.911 STDERR [INFO] I0719 20:09:35.911193 31678 net.cpp:425] lstm2_h_concat <- h_1
2016-07-19 20:09:35.911 STDERR [INFO] I0719 20:09:35.911201 31678 net.cpp:399] lstm2_h_concat -> h
2016-07-19 20:09:35.920 STDERR [INFO] I0719 20:09:35.920485 31674 net.cpp:141] Setting up lstm2_
2016-07-19 20:09:35.920 STDERR [INFO] I0719 20:09:35.920512 31674 net.cpp:148] Top shape: 1 1 1000 (1000)
2016-07-19 20:09:35.920 STDERR [INFO] I0719 20:09:35.920517 31674 net.cpp:156] Memory required for data: 94020
2016-07-19 20:09:35.920 STDERR [INFO] I0719 20:09:35.920523 31674 layer_factory.hpp:77] Creating layer lstm2_h_concat
2016-07-19 20:09:35.920 STDERR [INFO] I0719 20:09:35.920532 31674 net.cpp:91] Creating Layer lstm2_h_concat
2016-07-19 20:09:35.920 STDERR [INFO] I0719 20:09:35.920537 31674 net.cpp:425] lstm2_h_concat <- h_1
2016-07-19 20:09:35.921 STDERR [INFO] I0719 20:09:35.920554 31674 net.cpp:399] lstm2_h_concat -> h
2016-07-19 20:09:35.921 STDERR [INFO] I0719 20:09:35.921905 31678 net.cpp:141] Setting up lstm2_h_concat
2016-07-19 20:09:35.922 STDERR [INFO] I0719 20:09:35.921924 31678 net.cpp:148] Top shape: 1 1 1000 (1000)
2016-07-19 20:09:35.922 STDERR [INFO] I0719 20:09:35.921928 31678 net.cpp:156] Memory required for data: 98020
2016-07-19 20:09:35.922 STDERR [INFO] I0719 20:09:35.921934 31678 layer_factory.hpp:77] Creating layer h_pseudoloss
2016-07-19 20:09:35.922 STDERR [INFO] I0719 20:09:35.921943 31678 net.cpp:91] Creating Layer h_pseudoloss
2016-07-19 20:09:35.922 STDERR [INFO] I0719 20:09:35.921948 31678 net.cpp:425] h_pseudoloss <- h
2016-07-19 20:09:35.922 STDERR [INFO] I0719 20:09:35.921955 31678 net.cpp:399] h_pseudoloss -> h_pseudoloss
2016-07-19 20:09:35.939 STDERR [INFO] I0719 20:09:35.939334 31674 net.cpp:141] Setting up lstm2_h_concat
2016-07-19 20:09:35.939 STDERR [INFO] I0719 20:09:35.939353 31674 net.cpp:148] Top shape: 1 1 1000 (1000)
2016-07-19 20:09:35.939 STDERR [INFO] I0719 20:09:35.939358 31674 net.cpp:156] Memory required for data: 98020
2016-07-19 20:09:35.939 STDERR [INFO] I0719 20:09:35.939364 31674 layer_factory.hpp:77] Creating layer h_pseudoloss
2016-07-19 20:09:35.939 STDERR [INFO] I0719 20:09:35.939373 31674 net.cpp:91] Creating Layer h_pseudoloss
2016-07-19 20:09:35.939 STDERR [INFO] I0719 20:09:35.939378 31674 net.cpp:425] h_pseudoloss <- h
…
2016-07-19 20:09:36.232 n.t.s.b.CVParticleBolt [INFO] [Timing] RequestID: 0 StreamID: home/peifeng/work/data/frame.320x240.jpg SequenceNr: 133 Leaving scale: 1468973376232 Size: 3530
2016-07-19 20:09:36.232 n.t.s.b.CVParticleBolt [INFO] [Timing] RequestID: 0 StreamID: home/peifeng/work/data/frame.320x240.jpg SequenceNr: 134 Entering scale: 1468973376232
2016-07-19 20:09:36.237 n.t.s.b.CVParticleBolt [INFO] [Timing] RequestID: 0 StreamID: home/peifeng/work/data/frame.320x240.jpg SequenceNr: 134 Leaving scale: 1468973376237 Size: 3530
2016-07-19 20:09:36.256 STDERR [INFO] I0719 20:09:36.255911 31672 net.cpp:141] Setting up conv1
2016-07-19 20:09:36.256 STDERR [INFO] I0719 20:09:36.255973 31672 net.cpp:148] Top shape: 10 96 55 55 (2904000)
2016-07-19 20:09:36.256 STDERR [INFO] I0719 20:09:36.255980 31672 net.cpp:156] Memory required for data: 17799480
2016-07-19 20:09:36.256 STDERR [INFO] I0719 20:09:36.256007 31672 layer_factory.hpp:77] Creating layer relu1
2016-07-19 20:09:36.256 STDERR [INFO] I0719 20:09:36.256054 31672 net.cpp:91] Creating Layer relu1
2016-07-19 20:09:36.256 STDERR [INFO] I0719 20:09:36.256062 31672 net.cpp:425] relu1 <- conv1
2016-07-19 20:09:36.256 STDERR [INFO] I0719 20:09:36.256072 31672 net.cpp:386] relu1 -> conv1 (in-place)
2016-07-19 20:09:36.258 STDERR [INFO] I0719 20:09:36.258466 31672 net.cpp:141] Setting up relu1
2016-07-19 20:09:36.259 STDERR [INFO] I0719 20:09:36.258512 31672 net.cpp:148] Top shape: 10 96 55 55 (2904000)
2016-07-19 20:09:36.259 STDERR [INFO] I0719 20:09:36.258517 31672 net.cpp:156] Memory required for data: 29415480
2016-07-19 20:09:36.259 STDERR [INFO] I0719 20:09:36.258528 31672 layer_factory.hpp:77] Creating layer pool1
2016-07-19 20:09:36.259 STDERR [INFO] I0719 20:09:36.258549 31672 net.cpp:91] Creating Layer pool1
2016-07-19 20:09:36.259 STDERR [INFO] I0719 20:09:36.258556 31672 net.cpp:425] pool1 <- conv1
2016-07-19 20:09:36.259 STDERR [INFO] I0719 20:09:36.258569 31672 net.cpp:399] pool1 -> pool1
2016-07-19 20:09:36.261 STDERR [INFO] I0719 20:09:36.260829 31684 net.cpp:141] Setting up conv1
2016-07-19 20:09:36.261 STDERR [INFO] I0719 20:09:36.260926 31672 net.cpp:141] Setting up pool1
2016-07-19 20:09:36.261 STDERR [INFO] I0719 20:09:36.260941 31684 net.cpp:148] Top shape: 10 96 55 55 (2904000)
2016-07-19 20:09:36.261 STDERR [INFO] I0719 20:09:36.260947 31672 net.cpp:148] Top shape: 10 96 27 27 (699840)
2016-07-19 20:09:36.261 STDERR [INFO] I0719 20:09:36.260951 31684 net.cpp:156] Memory required for data: 17799480
2016-07-19 20:09:36.261 STDERR [INFO] I0719 20:09:36.260953 31672 net.cpp:156] Memory required for data: 32214840
2016-07-19 20:09:36.261 STDERR [INFO] I0719 20:09:36.260975 31672 layer_factory.hpp:77] Creating layer norm1
2016-07-19 20:09:36.261 STDERR [INFO] I0719 20:09:36.261005 31672 net.cpp:91] Creating Layer norm1
2016-07-19 20:09:36.261 STDERR [INFO] I0719 20:09:36.261009 31684 layer_factory.hpp:77] Creating layer relu1
2016-07-19 20:09:36.261 STDERR [INFO] I0719 20:09:36.261013 31672 net.cpp:425] norm1 <- pool1
2016-07-19 20:09:36.261 STDERR [INFO] I0719 20:09:36.261035 31672 net.cpp:399] norm1 -> norm1
2016-07-19 20:09:36.261 STDERR [INFO] I0719 20:09:36.261067 31684 net.cpp:91] Creating Layer relu1
2016-07-19 20:09:36.262 STDERR [INFO] I0719 20:09:36.261080 31684 net.cpp:425] relu1 <- conv1
2016-07-19 20:09:36.262 STDERR [INFO] I0719 20:09:36.261091 31684 net.cpp:386] relu1 -> conv1 (in-place)
2016-07-19 20:09:36.264 STDERR [INFO] I0719 20:09:36.263880 31684 net.cpp:141] Setting up relu1
2016-07-19 20:09:36.264 STDERR [INFO] I0719 20:09:36.263947 31684 net.cpp:148] Top shape: 10 96 55 55 (2904000)
2016-07-19 20:09:36.264 STDERR [INFO] I0719 20:09:36.263955 31684 net.cpp:156] Memory required for data: 29415480
2016-07-19 20:09:36.264 STDERR [INFO] I0719 20:09:36.263968 31684 layer_factory.hpp:77] Creating layer pool1
2016-07-19 20:09:36.264 STDERR [INFO] I0719 20:09:36.263995 31684 net.cpp:91] Creating Layer pool1
2016-07-19 20:09:36.264 STDERR [INFO] I0719 20:09:36.264005 31684 net.cpp:425] pool1 <- conv1
2016-07-19 20:09:36.264 STDERR [INFO] I0719 20:09:36.264024 31684 net.cpp:399] pool1 -> pool1
2016-07-19 20:09:36.265 STDERR [INFO] I0719 20:09:36.265702 31684 net.cpp:141] Setting up pool1
2016-07-19 20:09:36.266 STDERR [INFO] I0719 20:09:36.265758 31684 net.cpp:148] Top shape: 10 96 27 27 (699840)
2016-07-19 20:09:36.266 STDERR [INFO] I0719 20:09:36.265768 31684 net.cpp:156] Memory required for data: 32214840
2016-07-19 20:09:36.266 STDERR [INFO] I0719 20:09:36.265780 31684 layer_factory.hpp:77] Creating layer norm1
2016-07-19 20:09:36.266 STDERR [INFO] I0719 20:09:36.265813 31684 net.cpp:91] Creating Layer norm1
2016-07-19 20:09:36.266 STDERR [INFO] I0719 20:09:36.265825 31684 net.cpp:425] norm1 <- pool1
2016-07-19 20:09:36.266 STDERR [INFO] I0719 20:09:36.265825 31672 net.cpp:141] Setting up norm1
2016-07-19 20:09:36.266 STDERR [INFO] I0719 20:09:36.265844 31684 net.cpp:399] norm1 -> norm1
2016-07-19 20:09:36.266 STDERR [INFO] I0719 20:09:36.265846 31672 net.cpp:148] Top shape: 10 96 27 27 (699840)
2016-07-19 20:09:36.266 STDERR [INFO] I0719 20:09:36.265863 31672 net.cpp:156] Memory required for data: 35014200
2016-07-19 20:09:36.266 STDERR [INFO] I0719 20:09:36.265873 31672 layer_factory.hpp:77] Creating layer conv2
2016-07-19 20:09:36.267 STDERR [INFO] I0719 20:09:36.265897 31672 net.cpp:91] Creating Layer conv2
2016-07-19 20:09:36.267 STDERR [INFO] I0719 20:09:36.265908 31672 net.cpp:425] conv2 <- norm1
2016-07-19 20:09:36.267 STDERR [INFO] I0719 20:09:36.265923 31672 net.cpp:399] conv2 -> conv2
2016-07-19 20:09:36.269 STDERR [INFO] I0719 20:09:36.268987 31684 net.cpp:141] Setting up norm1
2016-07-19 20:09:36.269 STDERR [INFO] I0719 20:09:36.269042 31684 net.cpp:148] Top shape: 10 96 27 27 (699840)
2016-07-19 20:09:36.269 STDERR [INFO] I0719 20:09:36.269052 31684 net.cpp:156] Memory required for data: 35014200
2016-07-19 20:09:36.269 STDERR [INFO] I0719 20:09:36.269064 31684 layer_factory.hpp:77] Creating layer conv2
2016-07-19 20:09:36.269 STDERR [INFO] I0719 20:09:36.269136 31684 net.cpp:91] Creating Layer conv2
2016-07-19 20:09:36.269 STDERR [INFO] I0719 20:09:36.269150 31684 net.cpp:425] conv2 <- norm1
2016-07-19 20:09:36.269 STDERR [INFO] I0719 20:09:36.269166 31684 net.cpp:399] conv2 -> conv2
2016-07-19 20:09:36.282 STDERR [INFO] I0719 20:09:36.282008 31672 net.cpp:141] Setting up conv2
2016-07-19 20:09:36.282 STDERR [INFO] I0719 20:09:36.282048 31672 net.cpp:148] Top shape: 10 256 27 27 (1866240)
2016-07-19 20:09:36.282 STDERR [INFO] I0719 20:09:36.282055 31672 net.cpp:156] Memory required for data: 42479160
2016-07-19 20:09:36.282 STDERR [INFO] I0719 20:09:36.282074 31672 layer_factory.hpp:77] Creating layer relu2
2016-07-19 20:09:36.282 STDERR [INFO] I0719 20:09:36.282093 31672 net.cpp:91] Creating Layer relu2
2016-07-19 20:09:36.282 STDERR [INFO] I0719 20:09:36.282099 31672 net.cpp:425] relu2 <- conv2
2016-07-19 20:09:36.282 STDERR [INFO] I0719 20:09:36.282107 31672 net.cpp:386] relu2 -> conv2 (in-place)
2016-07-19 20:09:36.284 STDERR [INFO] I0719 20:09:36.284025 31672 net.cpp:141] Setting up relu2
2016-07-19 20:09:36.284 STDERR [INFO] I0719 20:09:36.284045 31672 net.cpp:148] Top shape: 10 256 27 27 (1866240)
2016-07-19 20:09:36.284 STDERR [INFO] I0719 20:09:36.284051 31672 net.cpp:156] Memory required for data: 49944120
2016-07-19 20:09:36.284 STDERR [INFO] I0719 20:09:36.284059 31672 layer_factory.hpp:77] Creating layer pool2
2016-07-19 20:09:36.284 STDERR [INFO] I0719 20:09:36.284070 31672 net.cpp:91] Creating Layer pool2
2016-07-19 20:09:36.284 STDERR [INFO] I0719 20:09:36.284075 31672 net.cpp:425] pool2 <- conv2
2016-07-19 20:09:36.284 STDERR [INFO] I0719 20:09:36.284085 31672 net.cpp:399] pool2 -> pool2
2016-07-19 20:09:36.284 STDERR [INFO] I0719 20:09:36.284463 31672 net.cpp:141] Setting up pool2
2016-07-19 20:09:36.284 STDERR [INFO] I0719 20:09:36.284476 31672 net.cpp:148] Top shape: 10 256 13 13 (432640)
2016-07-19 20:09:36.285 STDERR [INFO] I0719 20:09:36.284482 31672 net.cpp:156] Memory required for data: 51674680
2016-07-19 20:09:36.285 STDERR [INFO] I0719 20:09:36.284487 31672 layer_factory.hpp:77] Creating layer norm2
2016-07-19 20:09:36.285 STDERR [INFO] I0719 20:09:36.284500 31672 net.cpp:91] Creating Layer norm2
2016-07-19 20:09:36.285 STDERR [INFO] I0719 20:09:36.284507 31672 net.cpp:425] norm2 <- pool2
2016-07-19 20:09:36.285 STDERR [INFO] I0719 20:09:36.284514 31672 net.cpp:399] norm2 -> norm2
2016-07-19 20:09:36.285 STDERR [INFO] I0719 20:09:36.285038 31672 net.cpp:141] Setting up norm2
2016-07-19 20:09:36.285 STDERR [INFO] I0719 20:09:36.285051 31672 net.cpp:148] Top shape: 10 256 13 13 (432640)
2016-07-19 20:09:36.285 STDERR [INFO] I0719 20:09:36.285056 31672 net.cpp:156] Memory required for data: 53405240
2016-07-19 20:09:36.285 STDERR [INFO] I0719 20:09:36.285061 31672 layer_factory.hpp:77] Creating layer conv3
2016-07-19 20:09:36.285 STDERR [INFO] I0719 20:09:36.285076 31672 net.cpp:91] Creating Layer conv3
2016-07-19 20:09:36.285 STDERR [INFO] I0719 20:09:36.285081 31672 net.cpp:425] conv3 <- norm2
2016-07-19 20:09:36.285 STDERR [INFO] I0719 20:09:36.285090 31672 net.cpp:399] conv3 -> conv3
2016-07-19 20:09:36.291 STDERR [INFO] I0719 20:09:36.291124 31684 net.cpp:141] Setting up conv2
2016-07-19 20:09:36.291 STDERR [INFO] I0719 20:09:36.291162 31684 net.cpp:148] Top shape: 10 256 27 27 (1866240)
2016-07-19 20:09:36.291 STDERR [INFO] I0719 20:09:36.291172 31684 net.cpp:156] Memory required for data: 42479160
2016-07-19 20:09:36.291 STDERR [INFO] I0719 20:09:36.291198 31684 layer_factory.hpp:77] Creating layer relu2
2016-07-19 20:09:36.291 STDERR [INFO] I0719 20:09:36.291244 31684 net.cpp:91] Creating Layer relu2
2016-07-19 20:09:36.291 STDERR [INFO] I0719 20:09:36.291256 31684 net.cpp:425] relu2 <- conv2
2016-07-19 20:09:36.292 STDERR [INFO] I0719 20:09:36.291273 31684 net.cpp:386] relu2 -> conv2 (in-place)
2016-07-19 20:09:36.292 STDERR [INFO] I0719 20:09:36.292853 31684 net.cpp:141] Setting up relu2
2016-07-19 20:09:36.293 STDERR [INFO] I0719 20:09:36.292877 31684 net.cpp:148] Top shape: 10 256 27 27 (1866240)
2016-07-19 20:09:36.293 STDERR [INFO] I0719 20:09:36.292887 31684 net.cpp:156] Memory required for data: 49944120
2016-07-19 20:09:36.293 STDERR [INFO] I0719 20:09:36.292898 31684 layer_factory.hpp:77] Creating layer pool2
2016-07-19 20:09:36.293 STDERR [INFO] I0719 20:09:36.292934 31684 net.cpp:91] Creating Layer pool2
2016-07-19 20:09:36.293 STDERR [INFO] I0719 20:09:36.292948 31684 net.cpp:425] pool2 <- conv2
2016-07-19 20:09:36.293 STDERR [INFO] I0719 20:09:36.292966 31684 net.cpp:399] pool2 -> pool2
2016-07-19 20:09:36.294 STDERR [INFO] I0719 20:09:36.294466 31684 net.cpp:141] Setting up pool2
2016-07-19 20:09:36.294 STDERR [INFO] I0719 20:09:36.294486 31684 net.cpp:148] Top shape: 10 256 13 13 (432640)
2016-07-19 20:09:36.294 STDERR [INFO] I0719 20:09:36.294492 31684 net.cpp:156] Memory required for data: 51674680
2016-07-19 20:09:36.295 STDERR [INFO] I0719 20:09:36.294512 31684 layer_factory.hpp:77] Creating layer norm2
2016-07-19 20:09:36.295 STDERR [INFO] I0719 20:09:36.294528 31684 net.cpp:91] Creating Layer norm2
2016-07-19 20:09:36.295 STDERR [INFO] I0719 20:09:36.294534 31684 net.cpp:425] norm2 <- pool2
2016-07-19 20:09:36.295 STDERR [INFO] I0719 20:09:36.294543 31684 net.cpp:399] norm2 -> norm2
2016-07-19 20:09:36.296 STDERR [INFO] I0719 20:09:36.296288 31684 net.cpp:141] Setting up norm2
2016-07-19 20:09:36.296 STDERR [INFO] I0719 20:09:36.296308 31684 net.cpp:148] Top shape: 10 256 13 13 (432640)
2016-07-19 20:09:36.296 STDERR [INFO] I0719 20:09:36.296314 31684 net.cpp:156] Memory required for data: 53405240
2016-07-19 20:09:36.296 STDERR [INFO] I0719 20:09:36.296320 31684 layer_factory.hpp:77] Creating layer conv3
2016-07-19 20:09:36.296 STDERR [INFO] I0719 20:09:36.296336 31684 net.cpp:91] Creating Layer conv3
2016-07-19 20:09:36.296 STDERR [INFO] I0719 20:09:36.296341 31684 net.cpp:425] conv3 <- norm2
2016-07-19 20:09:36.296 STDERR [INFO] I0719 20:09:36.296350 31684 net.cpp:399] conv3 -> conv3
2016-07-19 20:09:36.297 STDERR [INFO] I0719 20:09:36.297250 31672 net.cpp:141] Setting up conv3
2016-07-19 20:09:36.297 STDERR [INFO] I0719 20:09:36.297277 31672 net.cpp:148] Top shape: 10 384 13 13 (648960)
2016-07-19 20:09:36.297 STDERR [INFO] I0719 20:09:36.297288 31672 net.cpp:156] Memory required for data: 56001080
2016-07-19 20:09:36.297 STDERR [INFO] I0719 20:09:36.297315 31672 layer_factory.hpp:77] Creating layer relu3
2016-07-19 20:09:36.297 STDERR [INFO] I0719 20:09:36.297334 31672 net.cpp:91] Creating Layer relu3
2016-07-19 20:09:36.297 STDERR [INFO] I0719 20:09:36.297345 31672 net.cpp:425] relu3 <- conv3
2016-07-19 20:09:36.297 STDERR [INFO] I0719 20:09:36.297359 31672 net.cpp:386] relu3 -> conv3 (in-place)
2016-07-19 20:09:36.299 STDERR [INFO] I0719 20:09:36.299365 31672 net.cpp:141] Setting up relu3
2016-07-19 20:09:36.299 STDERR [INFO] I0719 20:09:36.299404 31672 net.cpp:148] Top shape: 10 384 13 13 (648960)
2016-07-19 20:09:36.299 STDERR [INFO] I0719 20:09:36.299417 31672 net.cpp:156] Memory required for data: 58596920
2016-07-19 20:09:36.299 STDERR [INFO] I0719 20:09:36.299427 31672 layer_factory.hpp:77] Creating layer conv4
2016-07-19 20:09:36.300 STDERR [INFO] I0719 20:09:36.299449 31672 net.cpp:91] Creating Layer conv4
2016-07-19 20:09:36.300 STDERR [INFO] I0719 20:09:36.299459 31672 net.cpp:425] conv4 <- conv3
2016-07-19 20:09:36.300 STDERR [INFO] I0719 20:09:36.299475 31672 net.cpp:399] conv4 -> conv4
2016-07-19 20:09:36.308 STDERR [INFO] I0719 20:09:36.308393 31684 net.cpp:141] Setting up conv3
2016-07-19 20:09:36.308 STDERR [INFO] I0719 20:09:36.308432 31684 net.cpp:148] Top shape: 10 384 13 13 (648960)
2016-07-19 20:09:36.308 STDERR [INFO] I0719 20:09:36.308439 31684 net.cpp:156] Memory required for data: 56001080
2016-07-19 20:09:36.308 STDERR [INFO] I0719 20:09:36.308459 31684 layer_factory.hpp:77] Creating layer relu3
2016-07-19 20:09:36.309 STDERR [INFO] I0719 20:09:36.308498 31684 net.cpp:91] Creating Layer relu3
2016-07-19 20:09:36.309 STDERR [INFO] I0719 20:09:36.308506 31684 net.cpp:425] relu3 <- conv3
2016-07-19 20:09:36.309 STDERR [INFO] I0719 20:09:36.308516 31684 net.cpp:386] relu3 -> conv3 (in-place)
2016-07-19 20:09:36.309 STDERR [INFO] I0719 20:09:36.309862 31684 net.cpp:141] Setting up relu3
2016-07-19 20:09:36.310 STDERR [INFO] I0719 20:09:36.309878 31684 net.cpp:148] Top shape: 10 384 13 13 (648960)
2016-07-19 20:09:36.310 STDERR [INFO] I0719 20:09:36.309883 31684 net.cpp:156] Memory required for data: 58596920
2016-07-19 20:09:36.310 STDERR [INFO] I0719 20:09:36.309890 31684 layer_factory.hpp:77] Creating layer conv4
2016-07-19 20:09:36.310 STDERR [INFO] I0719 20:09:36.309905 31684 net.cpp:91] Creating Layer conv4
2016-07-19 20:09:36.310 STDERR [INFO] I0719 20:09:36.309911 31684 net.cpp:425] conv4 <- conv3
2016-07-19 20:09:36.310 STDERR [INFO] I0719 20:09:36.309918 31684 net.cpp:399] conv4 -> conv4
2016-07-19 20:09:36.315 STDERR [INFO] I0719 20:09:36.315299 31672 net.cpp:141] Setting up conv4
2016-07-19 20:09:36.315 STDERR [INFO] I0719 20:09:36.315342 31672 net.cpp:148] Top shape: 10 384 13 13 (648960)
2016-07-19 20:09:36.315 STDERR [INFO] I0719 20:09:36.315352 31672 net.cpp:156] Memory required for data: 61192760
2016-07-19 20:09:36.315 STDERR [INFO] I0719 20:09:36.315376 31672 layer_factory.hpp:77] Creating layer relu4
2016-07-19 20:09:36.315 STDERR [INFO] I0719 20:09:36.315399 31672 net.cpp:91] Creating Layer relu4
2016-07-19 20:09:36.315 STDERR [INFO] I0719 20:09:36.315410 31672 net.cpp:425] relu4 <- conv4
2016-07-19 20:09:36.315 STDERR [INFO] I0719 20:09:36.315425 31672 net.cpp:386] relu4 -> conv4 (in-place)
2016-07-19 20:09:36.317 STDERR [INFO] I0719 20:09:36.317189 31672 net.cpp:141] Setting up relu4
2016-07-19 20:09:36.317 STDERR [INFO] I0719 20:09:36.317211 31672 net.cpp:148] Top shape: 10 384 13 13 (648960)
2016-07-19 20:09:36.317 STDERR [INFO] I0719 20:09:36.317221 31672 net.cpp:156] Memory required for data: 63788600
2016-07-19 20:09:36.317 STDERR [INFO] I0719 20:09:36.317231 31672 layer_factory.hpp:77] Creating layer conv5
2016-07-19 20:09:36.317 STDERR [INFO] I0719 20:09:36.317257 31672 net.cpp:91] Creating Layer conv5
2016-07-19 20:09:36.317 STDERR [INFO] I0719 20:09:36.317270 31672 net.cpp:425] conv5 <- conv4
2016-07-19 20:09:36.317 STDERR [INFO] I0719 20:09:36.317286 31672 net.cpp:399] conv5 -> conv5
2016-07-19 20:09:36.322 STDERR [INFO] I0719 20:09:36.322012 31684 net.cpp:141] Setting up conv4
2016-07-19 20:09:36.322 STDERR [INFO] I0719 20:09:36.322036 31684 net.cpp:148] Top shape: 10 384 13 13 (648960)
2016-07-19 20:09:36.322 STDERR [INFO] I0719 20:09:36.322041 31684 net.cpp:156] Memory required for data: 61192760
2016-07-19 20:09:36.322 STDERR [INFO] I0719 20:09:36.322052 31684 layer_factory.hpp:77] Creating layer relu4
2016-07-19 20:09:36.322 STDERR [INFO] I0719 20:09:36.322082 31684 net.cpp:91] Creating Layer relu4
2016-07-19 20:09:36.322 STDERR [INFO] I0719 20:09:36.322088 31684 net.cpp:425] relu4 <- conv4
2016-07-19 20:09:36.322 STDERR [INFO] I0719 20:09:36.322095 31684 net.cpp:386] relu4 -> conv4 (in-place)
2016-07-19 20:09:36.323 STDERR [INFO] I0719 20:09:36.323283 31684 net.cpp:141] Setting up relu4
2016-07-19 20:09:36.323 STDERR [INFO] I0719 20:09:36.323299 31684 net.cpp:148] Top shape: 10 384 13 13 (648960)
2016-07-19 20:09:36.323 STDERR [INFO] I0719 20:09:36.323304 31684 net.cpp:156] Memory required for data: 63788600
2016-07-19 20:09:36.323 STDERR [INFO] I0719 20:09:36.323310 31684 layer_factory.hpp:77] Creating layer conv5
2016-07-19 20:09:36.323 STDERR [INFO] I0719 20:09:36.323323 31684 net.cpp:91] Creating Layer conv5
2016-07-19 20:09:36.323 STDERR [INFO] I0719 20:09:36.323329 31684 net.cpp:425] conv5 <- conv4
2016-07-19 20:09:36.323 STDERR [INFO] I0719 20:09:36.323338 31684 net.cpp:399] conv5 -> conv5
2016-07-19 20:09:36.334 STDERR [INFO] I0719 20:09:36.333945 31672 net.cpp:141] Setting up conv5
2016-07-19 20:09:36.334 STDERR [INFO] I0719 20:09:36.333986 31672 net.cpp:148] Top shape: 10 256 13 13 (432640)
2016-07-19 20:09:36.334 STDERR [INFO] I0719 20:09:36.333994 31672 net.cpp:156] Memory required for data: 65519160
2016-07-19 20:09:36.334 STDERR [INFO] I0719 20:09:36.334022 31672 layer_factory.hpp:77] Creating layer relu5
2016-07-19 20:09:36.334 STDERR [INFO] I0719 20:09:36.334046 31672 net.cpp:91] Creating Layer relu5
2016-07-19 20:09:36.334 STDERR [INFO] I0719 20:09:36.334058 31672 net.cpp:425] relu5 <- conv5
2016-07-19 20:09:36.334 STDERR [INFO] I0719 20:09:36.334070 31672 net.cpp:386] relu5 -> conv5 (in-place)
2016-07-19 20:09:36.336 STDERR [INFO] I0719 20:09:36.336220 31672 net.cpp:141] Setting up relu5
2016-07-19 20:09:36.336 STDERR [INFO] I0719 20:09:36.336241 31672 net.cpp:148] Top shape: 10 256 13 13 (432640)
2016-07-19 20:09:36.336 STDERR [INFO] I0719 20:09:36.336249 31672 net.cpp:156] Memory required for data: 67249720
2016-07-19 20:09:36.336 STDERR [INFO] I0719 20:09:36.336259 31672 layer_factory.hpp:77] Creating layer pool5
2016-07-19 20:09:36.336 STDERR [INFO] I0719 20:09:36.336282 31672 net.cpp:91] Creating Layer pool5
2016-07-19 20:09:36.336 STDERR [INFO] I0719 20:09:36.336293 31672 net.cpp:425] pool5 <- conv5
2016-07-19 20:09:36.336 STDERR [INFO] I0719 20:09:36.336310 31672 net.cpp:399] pool5 -> pool5
2016-07-19 20:09:36.336 STDERR [INFO] I0719 20:09:36.336313 31684 net.cpp:141] Setting up conv5
2016-07-19 20:09:36.336 STDERR [INFO] I0719 20:09:36.336328 31684 net.cpp:148] Top shape: 10 256 13 13 (432640)
2016-07-19 20:09:36.336 STDERR [INFO] I0719 20:09:36.336333 31684 net.cpp:156] Memory required for data: 65519160
2016-07-19 20:09:36.336 STDERR [INFO] I0719 20:09:36.336346 31684 layer_factory.hpp:77] Creating layer relu5
2016-07-19 20:09:36.336 STDERR [INFO] I0719 20:09:36.336369 31684 net.cpp:91] Creating Layer relu5
2016-07-19 20:09:36.336 STDERR [INFO] I0719 20:09:36.336375 31684 net.cpp:425] relu5 <- conv5
2016-07-19 20:09:36.336 STDERR [INFO] I0719 20:09:36.336385 31684 net.cpp:386] relu5 -> conv5 (in-place)
2016-07-19 20:09:36.337 STDERR [INFO] I0719 20:09:36.337481 31672 net.cpp:141] Setting up pool5
2016-07-19 20:09:36.337 STDERR [INFO] I0719 20:09:36.337499 31672 net.cpp:148] Top shape: 10 256 6 6 (92160)
2016-07-19 20:09:36.337 STDERR [INFO] I0719 20:09:36.337508 31672 net.cpp:156] Memory required for data: 67618360
2016-07-19 20:09:36.337 STDERR [INFO] I0719 20:09:36.337522 31672 layer_factory.hpp:77] Creating layer fc6
2016-07-19 20:09:36.337 STDERR [INFO] I0719 20:09:36.337554 31672 net.cpp:91] Creating Layer fc6
2016-07-19 20:09:36.337 STDERR [INFO] I0719 20:09:36.337568 31672 net.cpp:425] fc6 <- pool5
2016-07-19 20:09:36.338 STDERR [INFO] I0719 20:09:36.337568 31684 net.cpp:141] Setting up relu5
2016-07-19 20:09:36.338 STDERR [INFO] I0719 20:09:36.337582 31684 net.cpp:148] Top shape: 10 256 13 13 (432640)
2016-07-19 20:09:36.338 STDERR [INFO] I0719 20:09:36.337586 31684 net.cpp:156] Memory required for data: 67249720
2016-07-19 20:09:36.338 STDERR [INFO] I0719 20:09:36.337586 31672 net.cpp:399] fc6 -> fc6
2016-07-19 20:09:36.338 STDERR [INFO] I0719 20:09:36.337594 31684 layer_factory.hpp:77] Creating layer pool5
2016-07-19 20:09:36.338 STDERR [INFO] I0719 20:09:36.337604 31684 net.cpp:91] Creating Layer pool5
2016-07-19 20:09:36.338 STDERR [INFO] I0719 20:09:36.337610 31684 net.cpp:425] pool5 <- conv5
2016-07-19 20:09:36.338 STDERR [INFO] I0719 20:09:36.337616 31684 net.cpp:399] pool5 -> pool5
2016-07-19 20:09:36.400 n.t.s.f.RefreshingImageFetcher$ImageReader [INFO] [Timing] RequestID: 0 StreamID: home/peifeng/work/data/frame.320x240.jpg SequenceNr: 135 Entering queue: 1468973376400
2016-07-19 20:09:36.400 n.t.s.f.RefreshingImageFetcher$ImageReader [INFO] [Timing] RequestID: 0 StreamID: home/peifeng/work/data/frame.320x240.jpg SequenceNr: 136 Entering queue: 1468973376400
2016-07-19 20:09:36.400 n.t.s.f.RefreshingImageFetcher$ImageReader [INFO] [Timing] RequestID: 0 StreamID: home/peifeng/work/data/frame.320x240.jpg SequenceNr: 137 Entering queue: 1468973376400
2016-07-19 20:09:36.402 STDERR [INFO] I0719 20:09:36.402004 31684 net.cpp:141] Setting up pool5
2016-07-19 20:09:36.402 STDERR [INFO] I0719 20:09:36.402047 31684 net.cpp:148] Top shape: 10 256 6 6 (92160)
2016-07-19 20:09:36.402 STDERR [INFO] I0719 20:09:36.402053 31684 net.cpp:156] Memory required for data: 67618360
2016-07-19 20:09:36.402 STDERR [INFO] I0719 20:09:36.402061 31684 layer_factory.hpp:77] Creating layer fc6
2016-07-19 20:09:36.402 STDERR [INFO] I0719 20:09:36.402084 31684 net.cpp:91] Creating Layer fc6
2016-07-19 20:09:36.402 STDERR [INFO] I0719 20:09:36.402091 31684 net.cpp:425] fc6 <- pool5
…
2016-07-19 20:09:36.437 n.t.s.b.CVParticleBolt [INFO] [Timing] RequestID: 0 StreamID: home/peifeng/work/data/frame.320x240.jpg SequenceNr: 136 Leaving scale: 1468973376437 Size: 3530
2016-07-19 20:09:36.437 n.t.s.b.CVParticleBolt [INFO] [Timing] RequestID: 0 StreamID: home/peifeng/work/data/frame.320x240.jpg SequenceNr: 137 Entering scale: 1468973376437
2016-07-19 20:09:36.445 n.t.s.b.CVParticleBolt [INFO] [Timing] RequestID: 0 StreamID: home/peifeng/work/data/frame.320x240.jpg SequenceNr: 137 Leaving scale: 1468973376445 Size: 3530
2016-07-19 20:09:36.477 STDERR [INFO] I0719 20:09:36.476493 31672 net.cpp:141] Setting up fc6
2016-07-19 20:09:36.477 STDERR [INFO] I0719 20:09:36.476548 31672 net.cpp:148] Top shape: 10 4096 (40960)
2016-07-19 20:09:36.477 STDERR [INFO] I0719 20:09:36.476558 31672 net.cpp:156] Memory required for data: 67782200
2016-07-19 20:09:36.477 STDERR [INFO] I0719 20:09:36.476578 31672 layer_factory.hpp:77] Creating layer relu6
2016-07-19 20:09:36.477 STDERR [INFO] I0719 20:09:36.476601 31672 net.cpp:91] Creating Layer relu6
2016-07-19 20:09:36.478 STDERR [INFO] I0719 20:09:36.476611 31672 net.cpp:425] relu6 <- fc6
2016-07-19 20:09:36.478 STDERR [INFO] I0719 20:09:36.476624 31672 net.cpp:386] relu6 -> fc6 (in-place)
2016-07-19 20:09:36.478 STDERR [INFO] I0719 20:09:36.477102 31672 net.cpp:141] Setting up relu6
2016-07-19 20:09:36.478 STDERR [INFO] I0719 20:09:36.477120 31672 net.cpp:148] Top shape: 10 4096 (40960)
2016-07-19 20:09:36.478 STDERR [INFO] I0719 20:09:36.477129 31672 net.cpp:156] Memory required for data: 67946040
2016-07-19 20:09:36.478 STDERR [INFO] I0719 20:09:36.477139 31672 layer_factory.hpp:77] Creating layer drop6
2016-07-19 20:09:36.478 STDERR [INFO] I0719 20:09:36.477165 31672 net.cpp:91] Creating Layer drop6
2016-07-19 20:09:36.478 STDERR [INFO] I0719 20:09:36.477175 31672 net.cpp:425] drop6 <- fc6
2016-07-19 20:09:36.478 STDERR [INFO] I0719 20:09:36.477190 31672 net.cpp:386] drop6 -> fc6 (in-place)
2016-07-19 20:09:36.485 STDERR [INFO] I0719 20:09:36.478607 31672 net.cpp:141] Setting up drop6
2016-07-19 20:09:36.485 STDERR [INFO] I0719 20:09:36.478644 31672 net.cpp:148] Top shape: 10 4096 (40960)
2016-07-19 20:09:36.485 STDERR [INFO] I0719 20:09:36.478655 31672 net.cpp:156] Memory required for data: 68109880
2016-07-19 20:09:36.485 STDERR [INFO] I0719 20:09:36.478665 31672 layer_factory.hpp:77] Creating layer fc7
2016-07-19 20:09:36.485 STDERR [INFO] I0719 20:09:36.478720 31672 net.cpp:91] Creating Layer fc7
2016-07-19 20:09:36.485 STDERR [INFO] I0719 20:09:36.478735 31672 net.cpp:425] fc7 <- fc6
2016-07-19 20:09:36.485 STDERR [INFO] I0719 20:09:36.478760 31672 net.cpp:399] fc7 -> fc7
2016-07-19 20:09:36.517 STDERR [INFO] I0719 20:09:36.517738 31684 net.cpp:141] Setting up fc6
2016-07-19 20:09:36.518 STDERR [INFO] I0719 20:09:36.517788 31684 net.cpp:148] Top shape: 10 4096 (40960)
2016-07-19 20:09:36.518 STDERR [INFO] I0719 20:09:36.517794 31684 net.cpp:156] Memory required for data: 67782200
2016-07-19 20:09:36.518 STDERR [INFO] I0719 20:09:36.517830 31684 layer_factory.hpp:77] Creating layer relu6
2016-07-19 20:09:36.518 STDERR [INFO] I0719 20:09:36.517848 31684 net.cpp:91] Creating Layer relu6
2016-07-19 20:09:36.518 STDERR [INFO] I0719 20:09:36.517853 31684 net.cpp:425] relu6 <- fc6
2016-07-19 20:09:36.518 STDERR [INFO] I0719 20:09:36.517866 31684 net.cpp:386] relu6 -> fc6 (in-place)
2016-07-19 20:09:36.518 STDERR [INFO] I0719 20:09:36.518216 31684 net.cpp:141] Setting up relu6
2016-07-19 20:09:36.518 STDERR [INFO] I0719 20:09:36.518229 31684 net.cpp:148] Top shape: 10 4096 (40960)
2016-07-19 20:09:36.518 STDERR [INFO] I0719 20:09:36.518232 31684 net.cpp:156] Memory required for data: 67946040
2016-07-19 20:09:36.518 STDERR [INFO] I0719 20:09:36.518237 31684 layer_factory.hpp:77] Creating layer drop6
2016-07-19 20:09:36.518 STDERR [INFO] I0719 20:09:36.518256 31684 net.cpp:91] Creating Layer drop6
2016-07-19 20:09:36.518 STDERR [INFO] I0719 20:09:36.518262 31684 net.cpp:425] drop6 <- fc6
2016-07-19 20:09:36.518 STDERR [INFO] I0719 20:09:36.518268 31684 net.cpp:386] drop6 -> fc6 (in-place)
2016-07-19 20:09:36.518 STDERR [INFO] I0719 20:09:36.518338 31684 net.cpp:141] Setting up drop6
2016-07-19 20:09:36.518 STDERR [INFO] I0719 20:09:36.518348 31684 net.cpp:148] Top shape: 10 4096 (40960)
2016-07-19 20:09:36.518 STDERR [INFO] I0719 20:09:36.518352 31684 net.cpp:156] Memory required for data: 68109880
2016-07-19 20:09:36.519 STDERR [INFO] I0719 20:09:36.518357 31684 layer_factory.hpp:77] Creating layer fc7
2016-07-19 20:09:36.519 STDERR [INFO] I0719 20:09:36.518367 31684 net.cpp:91] Creating Layer fc7
2016-07-19 20:09:36.519 STDERR [INFO] I0719 20:09:36.518370 31684 net.cpp:425] fc7 <- fc6
2016-07-19 20:09:36.519 STDERR [INFO] I0719 20:09:36.518380 31684 net.cpp:399] fc7 -> fc7
2016-07-19 20:09:36.550 STDERR [INFO] I0719 20:09:36.550626 31672 net.cpp:141] Setting up fc7
2016-07-19 20:09:36.551 STDERR [INFO] I0719 20:09:36.550673 31672 net.cpp:148] Top shape: 10 4096 (40960)
2016-07-19 20:09:36.551 STDERR [INFO] I0719 20:09:36.550679 31672 net.cpp:156] Memory required for data: 68273720
2016-07-19 20:09:36.551 STDERR [INFO] I0719 20:09:36.550712 31672 layer_factory.hpp:77] Creating layer relu7
2016-07-19 20:09:36.551 STDERR [INFO] I0719 20:09:36.550735 31672 net.cpp:91] Creating Layer relu7
2016-07-19 20:09:36.551 STDERR [INFO] I0719 20:09:36.550751 31672 net.cpp:425] relu7 <- fc7
2016-07-19 20:09:36.551 STDERR [INFO] I0719 20:09:36.550760 31672 net.cpp:386] relu7 -> fc7 (in-place)
2016-07-19 20:09:36.552 STDERR [INFO] I0719 20:09:36.552304 31672 net.cpp:141] Setting up relu7
2016-07-19 20:09:36.552 STDERR [INFO] I0719 20:09:36.552340 31672 net.cpp:148] Top shape: 10 4096 (40960)
2016-07-19 20:09:36.552 STDERR [INFO] I0719 20:09:36.552346 31672 net.cpp:156] Memory required for data: 68437560
2016-07-19 20:09:36.552 STDERR [INFO] I0719 20:09:36.552355 31672 layer_factory.hpp:77] Creating layer drop7
2016-07-19 20:09:36.552 STDERR [INFO] I0719 20:09:36.552373 31672 net.cpp:91] Creating Layer drop7
2016-07-19 20:09:36.552 STDERR [INFO] I0719 20:09:36.552381 31672 net.cpp:425] drop7 <- fc7
2016-07-19 20:09:36.552 STDERR [INFO] I0719 20:09:36.552389 31672 net.cpp:386] drop7 -> fc7 (in-place)
2016-07-19 20:09:36.552 STDERR [INFO] I0719 20:09:36.552523 31672 net.cpp:141] Setting up drop7
2016-07-19 20:09:36.552 STDERR [INFO] I0719 20:09:36.552539 31672 net.cpp:148] Top shape: 10 4096 (40960)
2016-07-19 20:09:36.552 STDERR [INFO] I0719 20:09:36.552546 31672 net.cpp:156] Memory required for data: 68601400
2016-07-19 20:09:36.553 STDERR [INFO] I0719 20:09:36.552553 31672 layer_factory.hpp:77] Creating layer fc8
2016-07-19 20:09:36.553 STDERR [INFO] I0719 20:09:36.552574 31672 net.cpp:91] Creating Layer fc8
2016-07-19 20:09:36.553 STDERR [INFO] I0719 20:09:36.552583 31672 net.cpp:425] fc8 <- fc7
2016-07-19 20:09:36.553 STDERR [INFO] I0719 20:09:36.552597 31672 net.cpp:399] fc8 -> fc8
2016-07-19 20:09:36.568 STDERR [INFO] I0719 20:09:36.568505 31684 net.cpp:141] Setting up fc7
2016-07-19 20:09:36.568 STDERR [INFO] I0719 20:09:36.568557 31684 net.cpp:148] Top shape: 10 4096 (40960)
2016-07-19 20:09:36.568 STDERR [INFO] I0719 20:09:36.568563 31684 net.cpp:156] Memory required for data: 68273720
2016-07-19 20:09:36.569 STDERR [INFO] I0719 20:09:36.568577 31684 layer_factory.hpp:77] Creating layer relu7
2016-07-19 20:09:36.569 STDERR [INFO] I0719 20:09:36.568593 31684 net.cpp:91] Creating Layer relu7
2016-07-19 20:09:36.569 STDERR [INFO] I0719 20:09:36.568598 31684 net.cpp:425] relu7 <- fc7
2016-07-19 20:09:36.569 STDERR [INFO] I0719 20:09:36.568608 31684 net.cpp:386] relu7 -> fc7 (in-place)
2016-07-19 20:09:36.570 STDERR [INFO] I0719 20:09:36.570312 31684 net.cpp:141] Setting up relu7
2016-07-19 20:09:36.570 STDERR [INFO] I0719 20:09:36.570336 31684 net.cpp:148] Top shape: 10 4096 (40960)
2016-07-19 20:09:36.570 STDERR [INFO] I0719 20:09:36.570341 31684 net.cpp:156] Memory required for data: 68437560
2016-07-19 20:09:36.570 STDERR [INFO] I0719 20:09:36.570346 31684 layer_factory.hpp:77] Creating layer drop7
2016-07-19 20:09:36.570 STDERR [INFO] I0719 20:09:36.570391 31684 net.cpp:91] Creating Layer drop7
2016-07-19 20:09:36.570 STDERR [INFO] I0719 20:09:36.570397 31684 net.cpp:425] drop7 <- fc7
2016-07-19 20:09:36.570 STDERR [INFO] I0719 20:09:36.570405 31684 net.cpp:386] drop7 -> fc7 (in-place)
2016-07-19 20:09:36.570 STDERR [INFO] I0719 20:09:36.570402 31672 net.cpp:141] Setting up fc8
2016-07-19 20:09:36.570 STDERR [INFO] I0719 20:09:36.570425 31672 net.cpp:148] Top shape: 10 1000 (10000)
2016-07-19 20:09:36.570 STDERR [INFO] I0719 20:09:36.570432 31672 net.cpp:156] Memory required for data: 68641400
2016-07-19 20:09:36.570 STDERR [INFO] I0719 20:09:36.570447 31672 layer_factory.hpp:77] Creating layer prob
2016-07-19 20:09:36.571 STDERR [INFO] I0719 20:09:36.570467 31672 net.cpp:91] Creating Layer prob
2016-07-19 20:09:36.571 STDERR [INFO] I0719 20:09:36.570477 31672 net.cpp:425] prob <- fc8
2016-07-19 20:09:36.571 STDERR [INFO] I0719 20:09:36.570480 31684 net.cpp:141] Setting up drop7
2016-07-19 20:09:36.571 STDERR [INFO] I0719 20:09:36.570490 31684 net.cpp:148] Top shape: 10 4096 (40960)
2016-07-19 20:09:36.571 STDERR [INFO] I0719 20:09:36.570490 31672 net.cpp:399] prob -> prob
2016-07-19 20:09:36.571 STDERR [INFO] I0719 20:09:36.570497 31684 net.cpp:156] Memory required for data: 68601400
2016-07-19 20:09:36.571 STDERR [INFO] I0719 20:09:36.570502 31684 layer_factory.hpp:77] Creating layer fc8
2016-07-19 20:09:36.571 STDERR [INFO] I0719 20:09:36.570511 31684 net.cpp:91] Creating Layer fc8
2016-07-19 20:09:36.571 STDERR [INFO] I0719 20:09:36.570515 31684 net.cpp:425] fc8 <- fc7
2016-07-19 20:09:36.571 STDERR [INFO] I0719 20:09:36.570525 31684 net.cpp:399] fc8 -> fc8
2016-07-19 20:09:36.580 STDERR [INFO] I0719 20:09:36.580276 31672 net.cpp:141] Setting up prob
2016-07-19 20:09:36.580 STDERR [INFO] I0719 20:09:36.580334 31672 net.cpp:148] Top shape: 10 1000 (10000)
2016-07-19 20:09:36.580 STDERR [INFO] I0719 20:09:36.580344 31672 net.cpp:156] Memory required for data: 68681400
2016-07-19 20:09:36.580 STDERR [INFO] I0719 20:09:36.580358 31672 net.cpp:219] prob does not need backward computation.
2016-07-19 20:09:36.580 STDERR [INFO] I0719 20:09:36.580368 31672 net.cpp:219] fc8 does not need backward computation.
2016-07-19 20:09:36.580 STDERR [INFO] I0719 20:09:36.580377 31672 net.cpp:219] drop7 does not need backward computation.
…
