…
Java HotSpot(TM) 64-Bit Server VM warning: You have loaded library /tmp/cvld1717152267251850635/libopencv_java310.xine1.so which might have disabled stack guard. The VM will try to fix the stack guard now.
It's highly recommended that you fix the library with 'execstack -c <libfile>', or link it with '-z noexecstack'.
WARNING: Logging before InitGoogleLogging() is written to STDERR
I0720 16:16:04.582280 19750 net.cpp:49] Initializing net from parameters: 
name: "CaffeNet"
state {
  phase: TEST
}
layer {
  name: "data"
  type: "Input"
  top: "data"
  input_param {
    shape {
      dim: 10
      dim: 3
      dim: 227
      dim: 227
    }
  }
}
layer {
  name: "conv1"
  type: "Convolution"
  bottom: "data"
  top: "conv1"
  convolution_param {
    num_output: 96
    kernel_size: 11
    stride: 4
  }
}
layer {
  name: "relu1"
  type: "ReLU"
  bottom: "conv1"
  top: "conv1"
}
layer {
  name: "pool1"
  type: "Pooling"
  bottom: "conv1"
  top: "pool1"
  pooling_param {
    pool: MAX
    kernel_size: 3
    stride: 2
  }
}
layer {
  name: "norm1"
  type: "LRN"
  bottom: "pool1"
  top: "norm1"
  lrn_param {
    local_size: 5
    alpha: 0.0001
    beta: 0.75
  }
}
layer {
  name: "conv2"
  type: "Convolution"
  bottom: "norm1"
  top: "conv2"
  convolution_param {
    num_output: 256
    pad: 2
    kernel_size: 5
    group: 2
  }
}
layer {
  name: "relu2"
  type: "ReLU"
  bottom: "conv2"
  top: "conv2"
}
layer {
  name: "pool2"
  type: "Pooling"
  bottom: "conv2"
  top: "pool2"
  pooling_param {
    pool: MAX
    kernel_size: 3
    stride: 2
  }
}
layer {
  name: "norm2"
  type: "LRN"
  bottom: "pool2"
  top: "norm2"
  lrn_param {
    local_size: 5
    alpha: 0.0001
    beta: 0.75
  }
}
layer {
  name: "conv3"
  type: "Convolution"
  bottom: "norm2"
  top: "conv3"
  convolution_param {
    num_output: 384
    pad: 1
    kernel_size: 3
  }
}
layer {
  name: "relu3"
  type: "ReLU"
  bottom: "conv3"
  top: "conv3"
}
layer {
  name: "conv4"
  type: "Convolution"
  bottom: "conv3"
  top: "conv4"
  convolution_param {
    num_output: 384
    pad: 1
    kernel_size: 3
    group: 2
  }
}
layer {
  name: "relu4"
  type: "ReLU"
  bottom: "conv4"
  top: "conv4"
}
layer {
  name: "conv5"
  type: "Convolution"
  bottom: "conv4"
  top: "conv5"
  convolution_param {
    num_output: 256
    pad: 1
    kernel_size: 3
    group: 2
  }
}
layer {
  name: "relu5"
  type: "ReLU"
  bottom: "conv5"
  top: "conv5"
}
layer {
  name: "pool5"
  type: "Pooling"
  bottom: "conv5"
  top: "pool5"
  pooling_param {
    pool: MAX
    kernel_size: 3
    stride: 2
  }
}
layer {
  name: "fc6"
  type: "InnerProduct"
  bottom: "pool5"
  top: "fc6"
  inner_product_param {
    num_output: 4096
  }
}
layer {
  name: "relu6"
  type: "ReLU"
  bottom: "fc6"
  top: "fc6"
}
layer {
  name: "drop6"
  type: "Dropout"
  bottom: "fc6"
  top: "fc6"
  dropout_param {
    dropout_ratio: 0.5
  }
}
layer {
  name: "fc7"
  type: "InnerProduct"
  bottom: "fc6"
  top: "fc7"
  inner_product_param {
    num_output: 4096
  }
}
layer {
  name: "relu7"
  type: "ReLU"
  bottom: "fc7"
  top: "fc7"
}
layer {
  name: "drop7"
  type: "Dropout"
  bottom: "fc7"
  top: "fc7"
  dropout_param {
    dropout_ratio: 0.5
  }
}
layer {
  name: "fc8"
  type: "InnerProduct"
  bottom: "fc7"
  top: "fc8"
  inner_product_param {
    num_output: 1000
  }
}
layer {
  name: "prob"
  type: "Softmax"
  bottom: "fc8"
  top: "prob"
}
I0720 16:16:04.582456 19750 layer_factory.hpp:77] Creating layer data
I0720 16:16:04.582489 19750 net.cpp:91] Creating Layer data
I0720 16:16:04.582499 19750 net.cpp:399] data -> data
I0720 16:16:04.613124 19733 net.cpp:49] Initializing net from parameters: 
name: "CaffeNet"
state {
  phase: TEST
}
layer {
  name: "data"
  type: "Input"
  top: "data"
  input_param {
    shape {
      dim: 10
      dim: 3
      dim: 227
      dim: 227
    }
  }
}
layer {
  name: "conv1"
  type: "Convolution"
  bottom: "data"
  top: "conv1"
  convolution_param {
    num_output: 96
    kernel_size: 11
    stride: 4
  }
}
layer {
  name: "relu1"
  type: "ReLU"
  bottom: "conv1"
  top: "conv1"
}
layer {
  name: "pool1"
  type: "Pooling"
  bottom: "conv1"
  top: "pool1"
  pooling_param {
    pool: MAX
    kernel_size: 3
    stride: 2
  }
}
layer {
  name: "norm1"
  type: "LRN"
  bottom: "pool1"
  top: "norm1"
  lrn_param {
    local_size: 5
    alpha: 0.0001
    beta: 0.75
  }
}
layer {
  name: "conv2"
  type: "Convolution"
  bottom: "norm1"
  top: "conv2"
  convolution_param {
    num_output: 256
    pad: 2
    kernel_size: 5
    group: 2
  }
}
layer {
  name: "relu2"
  type: "ReLU"
  bottom: "conv2"
  top: "conv2"
}
layer {
  name: "pool2"
  type: "Pooling"
  bottom: "conv2"
  top: "pool2"
  pooling_param {
    pool: MAX
    kernel_size: 3
    stride: 2
  }
}
layer {
  name: "norm2"
  type: "LRN"
  bottom: "pool2"
  top: "norm2"
  lrn_param {
    local_size: 5
    alpha: 0.0001
    beta: 0.75
  }
}
layer {
  name: "conv3"
  type: "Convolution"
  bottom: "norm2"
  top: "conv3"
  convolution_param {
    num_output: 384
    pad: 1
    kernel_size: 3
  }
}
layer {
  name: "relu3"
  type: "ReLU"
  bottom: "conv3"
  top: "conv3"
}
layer {
  name: "conv4"
  type: "Convolution"
  bottom: "conv3"
  top: "conv4"
  convolution_param {
    num_output: 384
    pad: 1
    kernel_size: 3
    group: 2
  }
}
layer {
  name: "relu4"
  type: "ReLU"
  bottom: "conv4"
  top: "conv4"
}
layer {
  name: "conv5"
  type: "Convolution"
  bottom: "conv4"
  top: "conv5"
  convolution_param {
    num_output: 256
    pad: 1
    kernel_size: 3
    group: 2
  }
}
layer {
  name: "relu5"
  type: "ReLU"
  bottom: "conv5"
  top: "conv5"
}
layer {
  name: "pool5"
  type: "Pooling"
  bottom: "conv5"
  top: "pool5"
  pooling_param {
    pool: MAX
    kernel_size: 3
    stride: 2
  }
}
layer {
  name: "fc6"
  type: "InnerProduct"
  bottom: "pool5"
  top: "fc6"
  inner_product_param {
    num_output: 4096
  }
}
layer {
  name: "relu6"
  type: "ReLU"
  bottom: "fc6"
  top: "fc6"
}
layer {
  name: "drop6"
  type: "Dropout"
  bottom: "fc6"
  top: "fc6"
  dropout_param {
    dropout_ratio: 0.5
  }
}
layer {
  name: "fc7"
  type: "InnerProduct"
  bottom: "fc6"
  top: "fc7"
  inner_product_param {
    num_output: 4096
  }
}
layer {
  name: "relu7"
  type: "ReLU"
  bottom: "fc7"
  top: "fc7"
}
layer {
  name: "drop7"
  type: "Dropout"
  bottom: "fc7"
  top: "fc7"
  dropout_param {
    dropout_ratio: 0.5
  }
}
layer {
  name: "fc8"
  type: "InnerProduct"
  bottom: "fc7"
  top: "fc8"
  inner_product_param {
    num_output: 1000
  }
}
layer {
  name: "prob"
  type: "Softmax"
  bottom: "fc8"
  top: "prob"
}
I0720 16:16:04.613286 19733 layer_factory.hpp:77] Creating layer data
I0720 16:16:04.613306 19733 net.cpp:91] Creating Layer data
I0720 16:16:04.613314 19733 net.cpp:399] data -> data
I0720 16:16:04.853678 19725 upgrade_proto.cpp:66] Attempting to upgrade input file specified using deprecated input fields: /tmp/cvld1717152267251850635/s2vt.words_to_preds.prototxt
I0720 16:16:04.853725 19725 upgrade_proto.cpp:69] Successfully upgraded file specified using deprecated input fields.
W0720 16:16:04.853734 19725 upgrade_proto.cpp:71] Note that future Caffe releases will only support input layers and not input fields.
I0720 16:16:04.853977 19725 net.cpp:49] Initializing net from parameters: 
name: "s2vt:features_to_lstm"
state {
  phase: TEST
}
layer {
  name: "input"
  type: "Input"
  top: "frames_fc7"
  top: "cont_sentence"
  top: "input_sentence"
  top: "stage_indicator"
  input_param {
    shape {
      dim: 1
      dim: 4096
    }
    shape {
      dim: 1
      dim: 1
    }
    shape {
      dim: 1
      dim: 1
    }
    shape {
      dim: 1
      dim: 1
    }
  }
}
layer {
  name: "embed_encoder"
  type: "InnerProduct"
  bottom: "frames_fc7"
  top: "embedded_in_frames"
  param {
    lr_mult: 1
    decay_mult: 1
  }
  param {
    lr_mult: 2
    decay_mult: 0
  }
  inner_product_param {
    num_output: 500
    weight_filler {
      type: "xavier"
    }
    bias_filler {
      type: "constant"
      value: 0.2
    }
  }
}
layer {
  name: "reshape_frames"
  type: "Reshape"
  bottom: "embedded_in_frames"
  top: "embedded_input_frames"
  reshape_param {
    shape {
      dim: 1
      dim: 1
      dim: 500
    }
  }
}
layer {
  name: "reshape_stage_indicator"
  type: "Reshape"
  bottom: "stage_indicator"
  top: "reshaped_stage_indicator"
  reshape_param {
    shape {
      dim: 1
      dim: 1
      dim: 1
    }
  }
}
layer {
  name: "embedding"
  type: "Embed"
  bottom: "input_sentence"
  top: "embedded_input_sentence"
  param {
    lr_mult: 1
  }
  embed_param {
    num_output: 500
    input_dim: 46168
    bias_term: false
    weight_filler {
      type: "uniform"
      min: -0.08
      max: 0.08
    }
  }
}
layer {
  name: "lstm1"
  type: "LSTM"
  bottom: "embedded_input_frames"
  bottom: "cont_sentence"
  top: "lstm1"
  recurrent_param {
    num_output: 1000
    weight_filler {
      type: "uniform"
      min: -0.08
      max: 0.08
    }
    bias_filler {
      type: "constant"
      value: 0
    }
  }
}
layer {
  name: "concat"
  type: "Concat"
  bottom: "lstm1"
  bottom: "embedded_input_sentence"
  bottom: "reshaped_stage_indicator"
  top: "lstm1_video_sequence"
  concat_param {
    concat_dim: 2
  }
}
layer {
  name: "lstm2"
  type: "LSTM"
  bottom: "lstm1_video_sequence"
  bottom: "cont_sentence"
  top: "lstm2"
  recurrent_param {
    num_output: 1000
    weight_filler {
      type: "uniform"
      min: -0.08
      max: 0.08
    }
    bias_filler {
      type: "constant"
      value: 0
    }
  }
}
layer {
  name: "predict"
  type: "InnerProduct"
  bottom: "lstm2"
  top: "predict"
  param {
    lr_mult: 1
    decay_mult: 1
  }
  param {
    lr_mult: 2
    decay_mult: 0
  }
  inner_product_param {
    num_output: 46168
    weight_filler {
      type: "uniform"
      min: -0.08
      max: 0.08
    }
    bias_filler {
      type: "constant"
      value: 0
    }
    axis: 2
  }
}
layer {
  name: "probs"
  type: "Softmax"
  bottom: "predict"
  top: "probs"
  softmax_param {
    axis: 2
  }
}
I0720 16:16:04.854099 19725 layer_factory.hpp:77] Creating layer input
I0720 16:16:04.854117 19725 net.cpp:91] Creating Layer input
I0720 16:16:04.854125 19725 net.cpp:399] input -> frames_fc7
I0720 16:16:04.854142 19725 net.cpp:399] input -> cont_sentence
I0720 16:16:04.854154 19725 net.cpp:399] input -> input_sentence
I0720 16:16:04.854166 19725 net.cpp:399] input -> stage_indicator
I0720 16:16:04.854182 19725 net.cpp:141] Setting up input
I0720 16:16:04.854197 19725 net.cpp:148] Top shape: 1 4096 (4096)
I0720 16:16:04.854202 19725 net.cpp:148] Top shape: 1 1 (1)
I0720 16:16:04.854208 19725 net.cpp:148] Top shape: 1 1 (1)
I0720 16:16:04.854213 19725 net.cpp:148] Top shape: 1 1 (1)
I0720 16:16:04.854218 19725 net.cpp:156] Memory required for data: 16396
I0720 16:16:04.854228 19725 layer_factory.hpp:77] Creating layer cont_sentence_input_1_split
I0720 16:16:04.854245 19725 net.cpp:91] Creating Layer cont_sentence_input_1_split
I0720 16:16:04.854252 19725 net.cpp:425] cont_sentence_input_1_split <- cont_sentence
I0720 16:16:04.854269 19725 net.cpp:399] cont_sentence_input_1_split -> cont_sentence_input_1_split_0
I0720 16:16:04.854279 19725 net.cpp:399] cont_sentence_input_1_split -> cont_sentence_input_1_split_1
I0720 16:16:04.854295 19725 net.cpp:141] Setting up cont_sentence_input_1_split
I0720 16:16:04.854303 19725 net.cpp:148] Top shape: 1 1 (1)
I0720 16:16:04.854308 19725 net.cpp:148] Top shape: 1 1 (1)
I0720 16:16:04.854312 19725 net.cpp:156] Memory required for data: 16404
I0720 16:16:04.854316 19725 layer_factory.hpp:77] Creating layer embed_encoder
I0720 16:16:04.854332 19725 net.cpp:91] Creating Layer embed_encoder
I0720 16:16:04.854337 19725 net.cpp:425] embed_encoder <- frames_fc7
I0720 16:16:04.854346 19725 net.cpp:399] embed_encoder -> embedded_in_frames
I0720 16:16:04.854938 19727 upgrade_proto.cpp:66] Attempting to upgrade input file specified using deprecated input fields: /tmp/cvld1717152267251850635/s2vt.words_to_preds.prototxt
I0720 16:16:04.854964 19727 upgrade_proto.cpp:69] Successfully upgraded file specified using deprecated input fields.
W0720 16:16:04.854971 19727 upgrade_proto.cpp:71] Note that future Caffe releases will only support input layers and not input fields.
I0720 16:16:04.855217 19727 net.cpp:49] Initializing net from parameters: 
name: "s2vt:features_to_lstm"
state {
  phase: TEST
}
layer {
  name: "input"
  type: "Input"
  top: "frames_fc7"
  top: "cont_sentence"
  top: "input_sentence"
  top: "stage_indicator"
  input_param {
    shape {
      dim: 1
      dim: 4096
    }
    shape {
      dim: 1
      dim: 1
    }
    shape {
      dim: 1
      dim: 1
    }
    shape {
      dim: 1
      dim: 1
    }
  }
}
layer {
  name: "embed_encoder"
  type: "InnerProduct"
  bottom: "frames_fc7"
  top: "embedded_in_frames"
  param {
    lr_mult: 1
    decay_mult: 1
  }
  param {
    lr_mult: 2
    decay_mult: 0
  }
  inner_product_param {
    num_output: 500
    weight_filler {
      type: "xavier"
    }
    bias_filler {
      type: "constant"
      value: 0.2
    }
  }
}
layer {
  name: "reshape_frames"
  type: "Reshape"
  bottom: "embedded_in_frames"
  top: "embedded_input_frames"
  reshape_param {
    shape {
      dim: 1
      dim: 1
      dim: 500
    }
  }
}
layer {
  name: "reshape_stage_indicator"
  type: "Reshape"
  bottom: "stage_indicator"
  top: "reshaped_stage_indicator"
  reshape_param {
    shape {
      dim: 1
      dim: 1
      dim: 1
    }
  }
}
layer {
  name: "embedding"
  type: "Embed"
  bottom: "input_sentence"
  top: "embedded_input_sentence"
  param {
    lr_mult: 1
  }
  embed_param {
    num_output: 500
    input_dim: 46168
    bias_term: false
    weight_filler {
      type: "uniform"
      min: -0.08
      max: 0.08
    }
  }
}
layer {
  name: "lstm1"
  type: "LSTM"
  bottom: "embedded_input_frames"
  bottom: "cont_sentence"
  top: "lstm1"
  recurrent_param {
    num_output: 1000
    weight_filler {
      type: "uniform"
      min: -0.08
      max: 0.08
    }
    bias_filler {
      type: "constant"
      value: 0
    }
  }
}
layer {
  name: "concat"
  type: "Concat"
  bottom: "lstm1"
  bottom: "embedded_input_sentence"
  bottom: "reshaped_stage_indicator"
  top: "lstm1_video_sequence"
  concat_param {
    concat_dim: 2
  }
}
layer {
  name: "lstm2"
  type: "LSTM"
  bottom: "lstm1_video_sequence"
  bottom: "cont_sentence"
  top: "lstm2"
  recurrent_param {
    num_output: 1000
    weight_filler {
      type: "uniform"
      min: -0.08
      max: 0.08
    }
    bias_filler {
      type: "constant"
      value: 0
    }
  }
}
layer {
  name: "predict"
  type: "InnerProduct"
  bottom: "lstm2"
  top: "predict"
  param {
    lr_mult: 1
    decay_mult: 1
  }
  param {
    lr_mult: 2
    decay_mult: 0
  }
  inner_product_param {
    num_output: 46168
    weight_filler {
      type: "uniform"
      min: -0.08
      max: 0.08
    }
    bias_filler {
      type: "constant"
      value: 0
    }
    axis: 2
  }
}
layer {
  name: "probs"
  type: "Softmax"
  bottom: "predict"
  top: "probs"
  softmax_param {
    axis: 2
  }
}
I0720 16:16:04.855420 19727 layer_factory.hpp:77] Creating layer input
I0720 16:16:04.855435 19727 net.cpp:91] Creating Layer input
I0720 16:16:04.855443 19727 net.cpp:399] input -> frames_fc7
I0720 16:16:04.855455 19727 net.cpp:399] input -> cont_sentence
I0720 16:16:04.855466 19727 net.cpp:399] input -> input_sentence
I0720 16:16:04.855476 19727 net.cpp:399] input -> stage_indicator
I0720 16:16:04.855489 19727 net.cpp:141] Setting up input
I0720 16:16:04.855495 19727 net.cpp:148] Top shape: 1 4096 (4096)
I0720 16:16:04.855501 19727 net.cpp:148] Top shape: 1 1 (1)
I0720 16:16:04.855506 19727 net.cpp:148] Top shape: 1 1 (1)
I0720 16:16:04.855511 19727 net.cpp:148] Top shape: 1 1 (1)
I0720 16:16:04.855515 19727 net.cpp:156] Memory required for data: 16396
I0720 16:16:04.855520 19727 layer_factory.hpp:77] Creating layer cont_sentence_input_1_split
I0720 16:16:04.855528 19727 net.cpp:91] Creating Layer cont_sentence_input_1_split
I0720 16:16:04.855533 19727 net.cpp:425] cont_sentence_input_1_split <- cont_sentence
I0720 16:16:04.855540 19727 net.cpp:399] cont_sentence_input_1_split -> cont_sentence_input_1_split_0
I0720 16:16:04.855548 19727 net.cpp:399] cont_sentence_input_1_split -> cont_sentence_input_1_split_1
I0720 16:16:04.855557 19727 net.cpp:141] Setting up cont_sentence_input_1_split
I0720 16:16:04.855564 19727 net.cpp:148] Top shape: 1 1 (1)
I0720 16:16:04.855569 19727 net.cpp:148] Top shape: 1 1 (1)
I0720 16:16:04.855573 19727 net.cpp:156] Memory required for data: 16404
I0720 16:16:04.855577 19727 layer_factory.hpp:77] Creating layer embed_encoder
I0720 16:16:04.855587 19727 net.cpp:91] Creating Layer embed_encoder
I0720 16:16:04.855593 19727 net.cpp:425] embed_encoder <- frames_fc7
I0720 16:16:04.855602 19727 net.cpp:399] embed_encoder -> embedded_in_frames
I0720 16:16:04.857508 19752 upgrade_proto.cpp:66] Attempting to upgrade input file specified using deprecated input fields: /tmp/cvld1717152267251850635/s2vt.words_to_preds.prototxt
I0720 16:16:04.857533 19752 upgrade_proto.cpp:69] Successfully upgraded file specified using deprecated input fields.
W0720 16:16:04.857542 19752 upgrade_proto.cpp:71] Note that future Caffe releases will only support input layers and not input fields.
I0720 16:16:04.857908 19752 net.cpp:49] Initializing net from parameters: 
name: "s2vt:features_to_lstm"
state {
  phase: TEST
}
layer {
  name: "input"
  type: "Input"
  top: "frames_fc7"
  top: "cont_sentence"
  top: "input_sentence"
  top: "stage_indicator"
  input_param {
    shape {
      dim: 1
      dim: 4096
    }
    shape {
      dim: 1
      dim: 1
    }
    shape {
      dim: 1
      dim: 1
    }
    shape {
      dim: 1
      dim: 1
    }
  }
}
layer {
  name: "embed_encoder"
  type: "InnerProduct"
  bottom: "frames_fc7"
  top: "embedded_in_frames"
  param {
    lr_mult: 1
    decay_mult: 1
  }
  param {
    lr_mult: 2
    decay_mult: 0
  }
  inner_product_param {
    num_output: 500
    weight_filler {
      type: "xavier"
    }
    bias_filler {
      type: "constant"
      value: 0.2
    }
  }
}
layer {
  name: "reshape_frames"
  type: "Reshape"
  bottom: "embedded_in_frames"
  top: "embedded_input_frames"
  reshape_param {
    shape {
      dim: 1
      dim: 1
      dim: 500
    }
  }
}
layer {
  name: "reshape_stage_indicator"
  type: "Reshape"
  bottom: "stage_indicator"
  top: "reshaped_stage_indicator"
  reshape_param {
    shape {
      dim: 1
      dim: 1
      dim: 1
    }
  }
}
layer {
  name: "embedding"
  type: "Embed"
  bottom: "input_sentence"
  top: "embedded_input_sentence"
  param {
    lr_mult: 1
  }
  embed_param {
    num_output: 500
    input_dim: 46168
    bias_term: false
    weight_filler {
      type: "uniform"
      min: -0.08
      max: 0.08
    }
  }
}
layer {
  name: "lstm1"
  type: "LSTM"
  bottom: "embedded_input_frames"
  bottom: "cont_sentence"
  top: "lstm1"
  recurrent_param {
    num_output: 1000
    weight_filler {
      type: "uniform"
      min: -0.08
      max: 0.08
    }
    bias_filler {
      type: "constant"
      value: 0
    }
  }
}
layer {
  name: "concat"
  type: "Concat"
  bottom: "lstm1"
  bottom: "embedded_input_sentence"
  bottom: "reshaped_stage_indicator"
  top: "lstm1_video_sequence"
  concat_param {
    concat_dim: 2
  }
}
layer {
  name: "lstm2"
  type: "LSTM"
  bottom: "lstm1_video_sequence"
  bottom: "cont_sentence"
  top: "lstm2"
  recurrent_param {
    num_output: 1000
    weight_filler {
      type: "uniform"
      min: -0.08
      max: 0.08
    }
    bias_filler {
      type: "constant"
      value: 0
    }
  }
}
layer {
  name: "predict"
  type: "InnerProduct"
  bottom: "lstm2"
  top: "predict"
  param {
    lr_mult: 1
    decay_mult: 1
  }
  param {
    lr_mult: 2
    decay_mult: 0
  }
  inner_product_param {
    num_output: 46168
    weight_filler {
      type: "uniform"
      min: -0.08
      max: 0.08
    }
    bias_filler {
      type: "constant"
      value: 0
    }
    axis: 2
  }
}
layer {
  name: "probs"
  type: "Softmax"
  bottom: "predict"
  top: "probs"
  softmax_param {
    axis: 2
  }
}
I0720 16:16:04.858036 19752 layer_factory.hpp:77] Creating layer input
I0720 16:16:04.858055 19752 net.cpp:91] Creating Layer input
I0720 16:16:04.858068 19752 net.cpp:399] input -> frames_fc7
I0720 16:16:04.858089 19752 net.cpp:399] input -> cont_sentence
I0720 16:16:04.858108 19752 net.cpp:399] input -> input_sentence
I0720 16:16:04.858124 19752 net.cpp:399] input -> stage_indicator
I0720 16:16:04.858144 19752 net.cpp:141] Setting up input
I0720 16:16:04.858157 19752 net.cpp:148] Top shape: 1 4096 (4096)
I0720 16:16:04.858161 19738 upgrade_proto.cpp:66] Attempting to upgrade input file specified using deprecated input fields: /tmp/cvld1717152267251850635/s2vt.words_to_preds.prototxt
I0720 16:16:04.858170 19752 net.cpp:148] Top shape: 1 1 (1)
I0720 16:16:04.858189 19738 upgrade_proto.cpp:69] Successfully upgraded file specified using deprecated input fields.
I0720 16:16:04.858191 19752 net.cpp:148] Top shape: 1 1 (1)
W0720 16:16:04.858201 19738 upgrade_proto.cpp:71] Note that future Caffe releases will only support input layers and not input fields.
I0720 16:16:04.858211 19752 net.cpp:148] Top shape: 1 1 (1)
I0720 16:16:04.858219 19752 net.cpp:156] Memory required for data: 16396
I0720 16:16:04.858228 19752 layer_factory.hpp:77] Creating layer cont_sentence_input_1_split
I0720 16:16:04.858242 19752 net.cpp:91] Creating Layer cont_sentence_input_1_split
I0720 16:16:04.858252 19752 net.cpp:425] cont_sentence_input_1_split <- cont_sentence
I0720 16:16:04.858265 19752 net.cpp:399] cont_sentence_input_1_split -> cont_sentence_input_1_split_0
I0720 16:16:04.858283 19752 net.cpp:399] cont_sentence_input_1_split -> cont_sentence_input_1_split_1
I0720 16:16:04.858299 19752 net.cpp:141] Setting up cont_sentence_input_1_split
I0720 16:16:04.858312 19752 net.cpp:148] Top shape: 1 1 (1)
I0720 16:16:04.858322 19752 net.cpp:148] Top shape: 1 1 (1)
I0720 16:16:04.858330 19752 net.cpp:156] Memory required for data: 16404
I0720 16:16:04.858338 19752 layer_factory.hpp:77] Creating layer embed_encoder
I0720 16:16:04.858356 19752 net.cpp:91] Creating Layer embed_encoder
I0720 16:16:04.858366 19752 net.cpp:425] embed_encoder <- frames_fc7
I0720 16:16:04.858381 19752 net.cpp:399] embed_encoder -> embedded_in_frames
I0720 16:16:04.858518 19738 net.cpp:49] Initializing net from parameters: 
name: "s2vt:features_to_lstm"
state {
  phase: TEST
}
layer {
  name: "input"
  type: "Input"
  top: "frames_fc7"
  top: "cont_sentence"
  top: "input_sentence"
  top: "stage_indicator"
  input_param {
    shape {
      dim: 1
      dim: 4096
    }
    shape {
      dim: 1
      dim: 1
    }
    shape {
      dim: 1
      dim: 1
    }
    shape {
      dim: 1
      dim: 1
    }
  }
}
layer {
  name: "embed_encoder"
  type: "InnerProduct"
  bottom: "frames_fc7"
  top: "embedded_in_frames"
  param {
    lr_mult: 1
    decay_mult: 1
  }
  param {
    lr_mult: 2
    decay_mult: 0
  }
  inner_product_param {
    num_output: 500
    weight_filler {
      type: "xavier"
    }
    bias_filler {
      type: "constant"
      value: 0.2
    }
  }
}
layer {
  name: "reshape_frames"
  type: "Reshape"
  bottom: "embedded_in_frames"
  top: "embedded_input_frames"
  reshape_param {
    shape {
      dim: 1
      dim: 1
      dim: 500
    }
  }
}
layer {
  name: "reshape_stage_indicator"
  type: "Reshape"
  bottom: "stage_indicator"
  top: "reshaped_stage_indicator"
  reshape_param {
    shape {
      dim: 1
      dim: 1
      dim: 1
    }
  }
}
layer {
  name: "embedding"
  type: "Embed"
  bottom: "input_sentence"
  top: "embedded_input_sentence"
  param {
    lr_mult: 1
  }
  embed_param {
    num_output: 500
    input_dim: 46168
    bias_term: false
    weight_filler {
      type: "uniform"
      min: -0.08
      max: 0.08
    }
  }
}
layer {
  name: "lstm1"
  type: "LSTM"
  bottom: "embedded_input_frames"
  bottom: "cont_sentence"
  top: "lstm1"
  recurrent_param {
    num_output: 1000
    weight_filler {
      type: "uniform"
      min: -0.08
      max: 0.08
    }
    bias_filler {
      type: "constant"
      value: 0
    }
  }
}
layer {
  name: "concat"
  type: "Concat"
  bottom: "lstm1"
  bottom: "embedded_input_sentence"
  bottom: "reshaped_stage_indicator"
  top: "lstm1_video_sequence"
  concat_param {
    concat_dim: 2
  }
}
layer {
  name: "lstm2"
  type: "LSTM"
  bottom: "lstm1_video_sequence"
  bottom: "cont_sentence"
  top: "lstm2"
  recurrent_param {
    num_output: 1000
    weight_filler {
      type: "uniform"
      min: -0.08
      max: 0.08
    }
    bias_filler {
      type: "constant"
      value: 0
    }
  }
}
layer {
  name: "predict"
  type: "InnerProduct"
  bottom: "lstm2"
  top: "predict"
  param {
    lr_mult: 1
    decay_mult: 1
  }
  param {
    lr_mult: 2
    decay_mult: 0
  }
  inner_product_param {
    num_output: 46168
    weight_filler {
      type: "uniform"
      min: -0.08
      max: 0.08
    }
    bias_filler {
      type: "constant"
      value: 0
    }
    axis: 2
  }
}
layer {
  name: "probs"
  type: "Softmax"
  bottom: "predict"
  top: "probs"
  softmax_param {
    axis: 2
  }
}
I0720 16:16:04.858636 19738 layer_factory.hpp:77] Creating layer input
I0720 16:16:04.858652 19738 net.cpp:91] Creating Layer input
I0720 16:16:04.858664 19738 net.cpp:399] input -> frames_fc7
I0720 16:16:04.858680 19738 net.cpp:399] input -> cont_sentence
I0720 16:16:04.858716 19738 net.cpp:399] input -> input_sentence
I0720 16:16:04.858732 19738 net.cpp:399] input -> stage_indicator
I0720 16:16:04.858749 19738 net.cpp:141] Setting up input
I0720 16:16:04.858760 19738 net.cpp:148] Top shape: 1 4096 (4096)
I0720 16:16:04.858769 19738 net.cpp:148] Top shape: 1 1 (1)
I0720 16:16:04.858778 19738 net.cpp:148] Top shape: 1 1 (1)
I0720 16:16:04.858788 19738 net.cpp:148] Top shape: 1 1 (1)
I0720 16:16:04.858793 19738 net.cpp:156] Memory required for data: 16396
I0720 16:16:04.858800 19738 layer_factory.hpp:77] Creating layer cont_sentence_input_1_split
I0720 16:16:04.858825 19738 net.cpp:91] Creating Layer cont_sentence_input_1_split
I0720 16:16:04.858834 19738 net.cpp:425] cont_sentence_input_1_split <- cont_sentence
I0720 16:16:04.858845 19738 net.cpp:399] cont_sentence_input_1_split -> cont_sentence_input_1_split_0
I0720 16:16:04.858858 19738 net.cpp:399] cont_sentence_input_1_split -> cont_sentence_input_1_split_1
I0720 16:16:04.858872 19738 net.cpp:141] Setting up cont_sentence_input_1_split
I0720 16:16:04.858882 19738 net.cpp:148] Top shape: 1 1 (1)
I0720 16:16:04.858891 19738 net.cpp:148] Top shape: 1 1 (1)
I0720 16:16:04.858897 19738 net.cpp:156] Memory required for data: 16404
I0720 16:16:04.858904 19738 layer_factory.hpp:77] Creating layer embed_encoder
I0720 16:16:04.858917 19738 net.cpp:91] Creating Layer embed_encoder
I0720 16:16:04.858924 19738 net.cpp:425] embed_encoder <- frames_fc7
I0720 16:16:04.858976 19738 net.cpp:399] embed_encoder -> embedded_in_frames
I0720 16:16:04.859581 19729 upgrade_proto.cpp:66] Attempting to upgrade input file specified using deprecated input fields: /tmp/cvld1717152267251850635/s2vt.words_to_preds.prototxt
…
W0720 16:16:04.860028 19742 upgrade_proto.cpp:71] Note that future Caffe releases will only support input layers and not input fields.
I0720 16:16:04.860028 19729 net.cpp:49] Initializing net from parameters: 
name: "s2vt:features_to_lstm"
state {
  phase: TEST
}
layer {
  name: "input"
  type: "Input"
  top: "frames_fc7"
  top: "cont_sentence"
  top: "input_sentence"
  top: "stage_indicator"
  input_param {
    shape {
      dim: 1
      dim: 4096
    }
    shape {
      dim: 1
      dim: 1
    }
    shape {
      dim: 1
      dim: 1
    }
    shape {
      dim: 1
      dim: 1
    }
  }
}
layer {
  name: "embed_encoder"
  type: "InnerProduct"
  bottom: "frames_fc7"
  top: "embedded_in_frames"
  param {
    lr_mult: 1
    decay_mult: 1
  }
  param {
    lr_mult: 2
    decay_mult: 0
  }
  inner_product_param {
    num_output: 500
    weight_filler {
      type: "xavier"
    }
    bias_filler {
      type: "constant"
      value: 0.2
    }
  }
}
layer {
  name: "reshape_frames"
  type: "Reshape"
  bottom: "embedded_in_frames"
  top: "embedded_input_frames"
  reshape_param {
    shape {
      dim: 1
      dim: 1
      dim: 500
    }
  }
}
layer {
  name: "reshape_stage_indicator"
  type: "Reshape"
  bottom: "stage_indicator"
  top: "reshaped_stage_indicator"
  reshape_param {
    shape {
      dim: 1
      dim: 1
      dim: 1
    }
  }
}
layer {
  name: "embedding"
  type: "Embed"
  bottom: "input_sentence"
  top: "embedded_input_sentence"
  param {
    lr_mult: 1
  }
  embed_param {
    num_output: 500
    input_dim: 46168
    bias_term: false
    weight_filler {
      type: "uniform"
      min: -0.08
      max: 0.08
    }
  }
}
layer {
  name: "lstm1"
  type: "LSTM"
  bottom: "embedded_input_frames"
  bottom: "cont_sentence"
  top: "lstm1"
  recurrent_param {
    num_output: 1000
    weight_filler {
      type: "uniform"
      min: -0.08
      max: 0.08
    }
    bias_filler {
      type: "constant"
      value: 0
    }
  }
}
layer {
  name: "concat"
  type: "Concat"
  bottom: "lstm1"
  bottom: "embedded_input_sentence"
  bottom: "reshaped_stage_indicator"
  top: "lstm1_video_sequence"
  concat_param {
    concat_dim: 2
  }
}
layer {
  name: "lstm2"
  type: "LSTM"
  bottom: "lstm1_video_sequence"
  bottom: "cont_sentence"
  top: "lstm2"
  recurrent_param {
    num_output: 1000
    weight_filler {
      type: "uniform"
      min: -0.08
      max: 0.08
    }
    bias_filler {
      type: "constant"
      value: 0
    }
  }
}
layer {
  name: "predict"
  type: "InnerProduct"
  bottom: "lstm2"
  top: "predict"
  param {
    lr_mult: 1
    decay_mult: 1
  }
  param {
    lr_mult: 2
    decay_mult: 0
  }
  inner_product_param {
    num_output: 46168
    weight_filler {
      type: "uniform"
      min: -0.08
      max: 0.08
    }
    bias_filler {
      type: "constant"
      value: 0
    }
    axis: 2
  }
}
layer {
  name: "probs"
  type: "Softmax"
  bottom: "predict"
  top: "probs"
  softmax_param {
    axis: 2
  }
}
W0720 16:16:04.860029 19721 upgrade_proto.cpp:71] Note that future Caffe releases will only support input layers and not input fields.
I0720 16:16:04.860205 19729 layer_factory.hpp:77] Creating layer input
I0720 16:16:04.860209 19758 upgrade_proto.cpp:66] Attempting to upgrade input file specified using deprecated input fields: /tmp/cvld1717152267251850635/s2vt.words_to_preds.prototxt
I0720 16:16:04.860227 19729 net.cpp:91] Creating Layer input
I0720 16:16:04.860234 19758 upgrade_proto.cpp:69] Successfully upgraded file specified using deprecated input fields.
I0720 16:16:04.860242 19729 net.cpp:399] input -> frames_fc7
W0720 16:16:04.860244 19758 upgrade_proto.cpp:71] Note that future Caffe releases will only support input layers and not input fields.
I0720 16:16:04.860272 19729 net.cpp:399] input -> cont_sentence
I0720 16:16:04.860296 19729 net.cpp:399] input -> input_sentence
I0720 16:16:04.860335 19729 net.cpp:399] input -> stage_indicator
I0720 16:16:04.860358 19729 net.cpp:141] Setting up input
I0720 16:16:04.860373 19729 net.cpp:148] Top shape: 1 4096 (4096)
I0720 16:16:04.860383 19729 net.cpp:148] Top shape: 1 1 (1)
I0720 16:16:04.860380 19721 net.cpp:49] Initializing net from parameters: 
name: "s2vt:features_to_lstm"
state {
  phase: TEST
}
layer {
  name: "input"
  type: "Input"
  top: "frames_fc7"
  top: "cont_sentence"
  top: "input_sentence"
  top: "stage_indicator"
  input_param {
    shape {
      dim: 1
      dim: 4096
    }
    shape {
      dim: 1
      dim: 1
    }
    shape {
      dim: 1
      dim: 1
    }
    shape {
      dim: 1
      dim: 1
    }
  }
}
layer {
  name: "embed_encoder"
  type: "InnerProduct"
  bottom: "frames_fc7"
  top: "embedded_in_frames"
  param {
    lr_mult: 1
    decay_mult: 1
  }
  param {
    lr_mult: 2
    decay_mult: 0
  }
  inner_product_param {
    num_output: 500
    weight_filler {
      type: "xavier"
    }
    bias_filler {
      type: "constant"
      value: 0.2
    }
  }
}
layer {
  name: "reshape_frames"
  type: "Reshape"
  bottom: "embedded_in_frames"
  top: "embedded_input_frames"
  reshape_param {
    shape {
      dim: 1
      dim: 1
      dim: 500
    }
  }
}
layer {
  name: "reshape_stage_indicator"
  type: "Reshape"
  bottom: "stage_indicator"
  top: "reshaped_stage_indicator"
  reshape_param {
    shape {
      dim: 1
      dim: 1
      dim: 1
    }
  }
}
layer {
  name: "embedding"
  type: "Embed"
  bottom: "input_sentence"
  top: "embedded_input_sentence"
  param {
    lr_mult: 1
  }
  embed_param {
    num_output: 500
    input_dim: 46168
    bias_term: false
    weight_filler {
      type: "uniform"
      min: -0.08
      max: 0.08
    }
  }
}
layer {
  name: "lstm1"
  type: "LSTM"
  bottom: "embedded_input_frames"
  bottom: "cont_sentence"
  top: "lstm1"
  recurrent_param {
    num_output: 1000
    weight_filler {
      type: "uniform"
      min: -0.08
      max: 0.08
    }
    bias_filler {
      type: "constant"
      value: 0
    }
  }
}
layer {
  name: "concat"
  type: "Concat"
  bottom: "lstm1"
  bottom: "embedded_input_sentence"
  bottom: "reshaped_stage_indicator"
  top: "lstm1_video_sequence"
  concat_param {
    concat_dim: 2
  }
}
layer {
  name: "lstm2"
  type: "LSTM"
  bottom: "lstm1_video_sequence"
  bottom: "cont_sentence"
  top: "lstm2"
  recurrent_param {
    num_output: 1000
    weight_filler {
      type: "uniform"
      min: -0.08
      max: 0.08
    }
    bias_filler {
      type: "constant"
      value: 0
    }
  }
}
layer {
  name: "predict"
  type: "InnerProduct"
  bottom: "lstm2"
  top: "predict"
  param {
    lr_mult: 1
    decay_mult: 1
  }
  param {
    lr_mult: 2
    decay_mult: 0
  }
  inner_product_param {
    num_output: 46168
    weight_filler {
      type: "uniform"
      min: -0.08
      max: 0.08
    }
    bias_filler {
      type: "constant"
      value: 0
    }
    axis: 2
  }
}
layer {
  name: "probs"
  type: "Softmax"
  bottom: "predict"
  top: "probs"
  softmax_param {
    axis: 2
  }
}
I0720 16:16:04.860394 19729 net.cpp:148] Top shape: 1 1 (1)
I0720 16:16:04.860405 19729 net.cpp:148] Top shape: 1 1 (1)
I0720 16:16:04.860414 19729 net.cpp:156] Memory required for data: 16396
I0720 16:16:04.860424 19729 layer_factory.hpp:77] Creating layer cont_sentence_input_1_split
I0720 16:16:04.860437 19729 net.cpp:91] Creating Layer cont_sentence_input_1_split
I0720 16:16:04.860431 19754 net.cpp:49] Initializing net from parameters: 
name: "s2vt:features_to_lstm"
state {
  phase: TEST
}
layer {
  name: "input"
  type: "Input"
  top: "frames_fc7"
  top: "cont_sentence"
  top: "input_sentence"
  top: "stage_indicator"
  input_param {
    shape {
      dim: 1
      dim: 4096
    }
    shape {
      dim: 1
      dim: 1
    }
    shape {
      dim: 1
      dim: 1
    }
    shape {
      dim: 1
      dim: 1
    }
  }
}
layer {
  name: "embed_encoder"
  type: "InnerProduct"
  bottom: "frames_fc7"
  top: "embedded_in_frames"
  param {
    lr_mult: 1
    decay_mult: 1
  }
  param {
    lr_mult: 2
    decay_mult: 0
  }
  inner_product_param {
    num_output: 500
    weight_filler {
      type: "xavier"
    }
    bias_filler {
      type: "constant"
      value: 0.2
    }
  }
}
layer {
  name: "reshape_frames"
  type: "Reshape"
  bottom: "embedded_in_frames"
  top: "embedded_input_frames"
  reshape_param {
    shape {
      dim: 1
      dim: 1
      dim: 500
    }
  }
}
layer {
  name: "reshape_stage_indicator"
  type: "Reshape"
  bottom: "stage_indicator"
  top: "reshaped_stage_indicator"
  reshape_param {
    shape {
      dim: 1
      dim: 1
      dim: 1
    }
  }
}
layer {
  name: "embedding"
  type: "Embed"
  bottom: "input_sentence"
  top: "embedded_input_sentence"
  param {
    lr_mult: 1
  }
  embed_param {
    num_output: 500
    input_dim: 46168
    bias_term: false
    weight_filler {
      type: "uniform"
      min: -0.08
      max: 0.08
    }
  }
}
layer {
  name: "lstm1"
  type: "LSTM"
  bottom: "embedded_input_frames"
  bottom: "cont_sentence"
  top: "lstm1"
  recurrent_param {
    num_output: 1000
    weight_filler {
      type: "uniform"
      min: -0.08
      max: 0.08
    }
    bias_filler {
      type: "constant"
      value: 0
    }
  }
}
layer {
  name: "concat"
  type: "Concat"
  bottom: "lstm1"
  bottom: "embedded_input_sentence"
  bottom: "reshaped_stage_indicator"
  top: "lstm1_video_sequence"
  concat_param {
    concat_dim: 2
  }
}
layer {
  name: "lstm2"
  type: "LSTM"
  bottom: "lstm1_video_sequence"
  bottom: "cont_sentence"
  top: "lstm2"
  recurrent_param {
    num_output: 1000
    weight_filler {
      type: "uniform"
      min: -0.08
      max: 0.08
    }
    bias_filler {
      type: "constant"
      value: 0
    }
  }
}
layer {
  name: "predict"
  type: "InnerProduct"
  bottom: "lstm2"
  top: "predict"
  param {
    lr_mult: 1
    decay_mult: 1
  }
  param {
    lr_mult: 2
    decay_mult: 0
  }
  inner_product_param {
    num_output: 46168
    weight_filler {
      type: "uniform"
      min: -0.08
      max: 0.08
    }
    bias_filler {
      type: "constant"
      value: 0
    }
    axis: 2
  }
}
layer {
  name: "probs"
  type: "Softmax"
  bottom: "predict"
  top: "probs"
  softmax_param {
    axis: 2
  }
}
I0720 16:16:04.860448 19729 net.cpp:425] cont_sentence_input_1_split <- cont_sentence
I0720 16:16:04.860452 19742 net.cpp:49] Initializing net from parameters: 
name: "s2vt:features_to_lstm"
state {
  phase: TEST
}
layer {
  name: "input"
  type: "Input"
  top: "frames_fc7"
  top: "cont_sentence"
  top: "input_sentence"
  top: "stage_indicator"
  input_param {
    shape {
      dim: 1
      dim: 4096
    }
    shape {
      dim: 1
      dim: 1
    }
    shape {
      dim: 1
      dim: 1
    }
    shape {
      dim: 1
      dim: 1
    }
  }
}
layer {
  name: "embed_encoder"
  type: "InnerProduct"
  bottom: "frames_fc7"
  top: "embedded_in_frames"
  param {
    lr_mult: 1
    decay_mult: 1
  }
  param {
    lr_mult: 2
    decay_mult: 0
  }
  inner_product_param {
    num_output: 500
    weight_filler {
      type: "xavier"
    }
    bias_filler {
      type: "constant"
      value: 0.2
    }
  }
}
layer {
  name: "reshape_frames"
  type: "Reshape"
  bottom: "embedded_in_frames"
  top: "embedded_input_frames"
  reshape_param {
    shape {
      dim: 1
      dim: 1
      dim: 500
    }
  }
}
layer {
  name: "reshape_stage_indicator"
  type: "Reshape"
  bottom: "stage_indicator"
  top: "reshaped_stage_indicator"
  reshape_param {
    shape {
      dim: 1
      dim: 1
      dim: 1
    }
  }
}
layer {
  name: "embedding"
  type: "Embed"
  bottom: "input_sentence"
  top: "embedded_input_sentence"
  param {
    lr_mult: 1
  }
  embed_param {
    num_output: 500
    input_dim: 46168
    bias_term: false
    weight_filler {
      type: "uniform"
      min: -0.08
      max: 0.08
    }
  }
}
layer {
  name: "lstm1"
  type: "LSTM"
  bottom: "embedded_input_frames"
  bottom: "cont_sentence"
  top: "lstm1"
  recurrent_param {
    num_output: 1000
    weight_filler {
      type: "uniform"
      min: -0.08
      max: 0.08
    }
    bias_filler {
      type: "constant"
      value: 0
    }
  }
}
layer {
  name: "concat"
  type: "Concat"
  bottom: "lstm1"
  bottom: "embedded_input_sentence"
  bottom: "reshaped_stage_indicator"
  top: "lstm1_video_sequence"
  concat_param {
    concat_dim: 2
  }
}
layer {
  name: "lstm2"
  type: "LSTM"
  bottom: "lstm1_video_sequence"
  bottom: "cont_sentence"
  top: "lstm2"
  recurrent_param {
    num_output: 1000
    weight_filler {
      type: "uniform"
      min: -0.08
      max: 0.08
    }
    bias_filler {
      type: "constant"
      value: 0
    }
  }
}
layer {
  name: "predict"
  type: "InnerProduct"
  bottom: "lstm2"
  top: "predict"
  param {
    lr_mult: 1
    decay_mult: 1
  }
  param {
    lr_mult: 2
    decay_mult: 0
  }
  inner_product_param {
    num_output: 46168
    weight_filler {
      type: "uniform"
      min: -0.08
      max: 0.08
    }
    bias_filler {
      type: "constant"
      value: 0
    }
    axis: 2
  }
}
layer {
  name: "probs"
  type: "Softmax"
  bottom: "predict"
  top: "probs"
  softmax_param {
    axis: 2
  }
}
I0720 16:16:04.860472 19729 net.cpp:399] cont_sentence_input_1_split -> cont_sentence_input_1_split_0
I0720 16:16:04.860491 19729 net.cpp:399] cont_sentence_input_1_split -> cont_sentence_input_1_split_1
I0720 16:16:04.860498 19721 layer_factory.hpp:77] Creating layer input
I0720 16:16:04.860507 19729 net.cpp:141] Setting up cont_sentence_input_1_split
I0720 16:16:04.860515 19721 net.cpp:91] Creating Layer input
I0720 16:16:04.860522 19729 net.cpp:148] Top shape: 1 1 (1)
I0720 16:16:04.860527 19721 net.cpp:399] input -> frames_fc7
I0720 16:16:04.860532 19729 net.cpp:148] Top shape: 1 1 (1)
I0720 16:16:04.860540 19729 net.cpp:156] Memory required for data: 16404
I0720 16:16:04.860544 19721 net.cpp:399] input -> cont_sentence
I0720 16:16:04.860549 19729 layer_factory.hpp:77] Creating layer embed_encoder
I0720 16:16:04.860560 19721 net.cpp:399] input -> input_sentence
I0720 16:16:04.860569 19729 net.cpp:91] Creating Layer embed_encoder
I0720 16:16:04.860580 19729 net.cpp:425] embed_encoder <- frames_fc7
I0720 16:16:04.860595 19729 net.cpp:399] embed_encoder -> embedded_in_frames
I0720 16:16:04.860599 19721 net.cpp:399] input -> stage_indicator
I0720 16:16:04.860610 19754 layer_factory.hpp:77] Creating layer input
I0720 16:16:04.860620 19721 net.cpp:141] Setting up input
I0720 16:16:04.860626 19754 net.cpp:91] Creating Layer input
I0720 16:16:04.860632 19721 net.cpp:148] Top shape: 1 4096 (4096)
I0720 16:16:04.860637 19754 net.cpp:399] input -> frames_fc7
I0720 16:16:04.860642 19721 net.cpp:148] Top shape: 1 1 (1)
I0720 16:16:04.860646 19742 layer_factory.hpp:77] Creating layer input
I0720 16:16:04.860652 19721 net.cpp:148] Top shape: 1 1 (1)
I0720 16:16:04.860641 19758 net.cpp:49] Initializing net from parameters: 
name: "s2vt:features_to_lstm"
state {
  phase: TEST
}
layer {
  name: "input"
  type: "Input"
  top: "frames_fc7"
  top: "cont_sentence"
  top: "input_sentence"
  top: "stage_indicator"
  input_param {
    shape {
      dim: 1
      dim: 4096
    }
    shape {
      dim: 1
      dim: 1
    }
    shape {
      dim: 1
      dim: 1
    }
    shape {
      dim: 1
      dim: 1
    }
  }
}
layer {
  name: "embed_encoder"
  type: "InnerProduct"
  bottom: "frames_fc7"
  top: "embedded_in_frames"
  param {
    lr_mult: 1
    decay_mult: 1
  }
  param {
    lr_mult: 2
    decay_mult: 0
  }
  inner_product_param {
    num_output: 500
    weight_filler {
      type: "xavier"
    }
    bias_filler {
      type: "constant"
      value: 0.2
    }
  }
}
layer {
  name: "reshape_frames"
  type: "Reshape"
  bottom: "embedded_in_frames"
  top: "embedded_input_frames"
  reshape_param {
    shape {
      dim: 1
      dim: 1
      dim: 500
    }
  }
}
layer {
  name: "reshape_stage_indicator"
  type: "Reshape"
  bottom: "stage_indicator"
  top: "reshaped_stage_indicator"
  reshape_param {
    shape {
      dim: 1
      dim: 1
      dim: 1
    }
  }
}
layer {
  name: "embedding"
  type: "Embed"
  bottom: "input_sentence"
  top: "embedded_input_sentence"
  param {
    lr_mult: 1
  }
  embed_param {
    num_output: 500
    input_dim: 46168
    bias_term: false
    weight_filler {
      type: "uniform"
      min: -0.08
      max: 0.08
    }
  }
}
layer {
  name: "lstm1"
  type: "LSTM"
  bottom: "embedded_input_frames"
  bottom: "cont_sentence"
  top: "lstm1"
  recurrent_param {
    num_output: 1000
    weight_filler {
      type: "uniform"
      min: -0.08
      max: 0.08
    }
    bias_filler {
      type: "constant"
      value: 0
    }
  }
}
layer {
  name: "concat"
  type: "Concat"
  bottom: "lstm1"
  bottom: "embedded_input_sentence"
  bottom: "reshaped_stage_indicator"
  top: "lstm1_video_sequence"
  concat_param {
    concat_dim: 2
  }
}
layer {
  name: "lstm2"
  type: "LSTM"
  bottom: "lstm1_video_sequence"
  bottom: "cont_sentence"
  top: "lstm2"
  recurrent_param {
    num_output: 1000
    weight_filler {
      type: "uniform"
      min: -0.08
      max: 0.08
    }
    bias_filler {
      type: "constant"
      value: 0
    }
  }
}
layer {
  name: "predict"
  type: "InnerProduct"
  bottom: "lstm2"
  top: "predict"
  param {
    lr_mult: 1
    decay_mult: 1
  }
  param {
    lr_mult: 2
    decay_mult: 0
  }
  inner_product_param {
    num_output: 46168
    weight_filler {
      type: "uniform"
      min: -0.08
      max: 0.08
    }
    bias_filler {
      type: "constant"
      value: 0
    }
    axis: 2
  }
}
layer {
  name: "probs"
  type: "Softmax"
  bottom: "predict"
  top: "probs"
  softmax_param {
    axis: 2
  }
}
I0720 16:16:04.860676 19742 net.cpp:91] Creating Layer input
I0720 16:16:04.860669 19721 net.cpp:148] Top shape: 1 1 (1)
I0720 16:16:04.860689 19754 net.cpp:399] input -> cont_sentence
I0720 16:16:04.860697 19721 net.cpp:156] Memory required for data: 16396
I0720 16:16:04.860698 19742 net.cpp:399] input -> frames_fc7
I0720 16:16:04.860707 19721 layer_factory.hpp:77] Creating layer cont_sentence_input_1_split
I0720 16:16:04.860708 19754 net.cpp:399] input -> input_sentence
I0720 16:16:04.860718 19721 net.cpp:91] Creating Layer cont_sentence_input_1_split
I0720 16:16:04.860723 19742 net.cpp:399] input -> cont_sentence
I0720 16:16:04.860726 19754 net.cpp:399] input -> stage_indicator
I0720 16:16:04.860725 19721 net.cpp:425] cont_sentence_input_1_split <- cont_sentence
I0720 16:16:04.860745 19754 net.cpp:141] Setting up input
I0720 16:16:04.860751 19742 net.cpp:399] input -> input_sentence
I0720 16:16:04.860746 19721 net.cpp:399] cont_sentence_input_1_split -> cont_sentence_input_1_split_0
I0720 16:16:04.860764 19754 net.cpp:148] Top shape: 1 4096 (4096)
I0720 16:16:04.860780 19721 net.cpp:399] cont_sentence_input_1_split -> cont_sentence_input_1_split_1
I0720 16:16:04.860782 19754 net.cpp:148] Top shape: 1 1 (1)
I0720 16:16:04.860780 19742 net.cpp:399] input -> stage_indicator
I0720 16:16:04.860796 19721 net.cpp:141] Setting up cont_sentence_input_1_split
I0720 16:16:04.860797 19754 net.cpp:148] Top shape: 1 1 (1)
I0720 16:16:04.860807 19721 net.cpp:148] Top shape: 1 1 (1)
I0720 16:16:04.860810 19754 net.cpp:148] Top shape: 1 1 (1)
I0720 16:16:04.860812 19758 layer_factory.hpp:77] Creating layer input
I0720 16:16:04.860816 19721 net.cpp:148] Top shape: 1 1 (1)
I0720 16:16:04.860815 19742 net.cpp:141] Setting up input
I0720 16:16:04.860838 19721 net.cpp:156] Memory required for data: 16404
I0720 16:16:04.860817 19754 net.cpp:156] Memory required for data: 16396
I0720 16:16:04.860851 19721 layer_factory.hpp:77] Creating layer embed_encoder
I0720 16:16:04.860837 19758 net.cpp:91] Creating Layer input
I0720 16:16:04.860857 19742 net.cpp:148] Top shape: 1 4096 (4096)
I0720 16:16:04.860860 19754 layer_factory.hpp:77] Creating layer cont_sentence_input_1_split
I0720 16:16:04.860867 19721 net.cpp:91] Creating Layer embed_encoder
I0720 16:16:04.860873 19742 net.cpp:148] Top shape: 1 1 (1)
I0720 16:16:04.860880 19721 net.cpp:425] embed_encoder <- frames_fc7
I0720 16:16:04.860868 19758 net.cpp:399] input -> frames_fc7
I0720 16:16:04.860875 19754 net.cpp:91] Creating Layer cont_sentence_input_1_split
I0720 16:16:04.860888 19740 upgrade_proto.cpp:66] Attempting to upgrade input file specified using deprecated input fields: /tmp/cvld1717152267251850635/s2vt.words_to_preds.prototxt
I0720 16:16:04.860895 19721 net.cpp:399] embed_encoder -> embedded_in_frames
I0720 16:16:04.860896 19754 net.cpp:425] cont_sentence_input_1_split <- cont_sentence
I0720 16:16:04.860893 19742 net.cpp:148] Top shape: 1 1 (1)
I0720 16:16:04.860905 19758 net.cpp:399] input -> cont_sentence
I0720 16:16:04.860911 19754 net.cpp:399] cont_sentence_input_1_split -> cont_sentence_input_1_split_0
I0720 16:16:04.860918 19742 net.cpp:148] Top shape: 1 1 (1)
I0720 16:16:04.860913 19740 upgrade_proto.cpp:69] Successfully upgraded file specified using deprecated input fields.
I0720 16:16:04.860929 19742 net.cpp:156] Memory required for data: 16396
W0720 16:16:04.860930 19740 upgrade_proto.cpp:71] Note that future Caffe releases will only support input layers and not input fields.
I0720 16:16:04.860930 19754 net.cpp:399] cont_sentence_input_1_split -> cont_sentence_input_1_split_1
I0720 16:16:04.860942 19742 layer_factory.hpp:77] Creating layer cont_sentence_input_1_split
I0720 16:16:04.860952 19754 net.cpp:141] Setting up cont_sentence_input_1_split
I0720 16:16:04.860958 19758 net.cpp:399] input -> input_sentence
I0720 16:16:04.860967 19754 net.cpp:148] Top shape: 1 1 (1)
I0720 16:16:04.860960 19742 net.cpp:91] Creating Layer cont_sentence_input_1_split
I0720 16:16:04.860977 19754 net.cpp:148] Top shape: 1 1 (1)
I0720 16:16:04.860985 19754 net.cpp:156] Memory required for data: 16404
I0720 16:16:04.860985 19742 net.cpp:425] cont_sentence_input_1_split <- cont_sentence
I0720 16:16:04.860993 19754 layer_factory.hpp:77] Creating layer embed_encoder
I0720 16:16:04.860986 19758 net.cpp:399] input -> stage_indicator
I0720 16:16:04.861006 19742 net.cpp:399] cont_sentence_input_1_split -> cont_sentence_input_1_split_0
I0720 16:16:04.861018 19758 net.cpp:141] Setting up input
I0720 16:16:04.861027 19742 net.cpp:399] cont_sentence_input_1_split -> cont_sentence_input_1_split_1
I0720 16:16:04.861030 19758 net.cpp:148] Top shape: 1 4096 (4096)
I0720 16:16:04.861045 19758 net.cpp:148] Top shape: 1 1 (1)
I0720 16:16:04.861050 19742 net.cpp:141] Setting up cont_sentence_input_1_split
I0720 16:16:04.861060 19758 net.cpp:148] Top shape: 1 1 (1)
I0720 16:16:04.861044 19754 net.cpp:91] Creating Layer embed_encoder
I0720 16:16:04.861073 19742 net.cpp:148] Top shape: 1 1 (1)
I0720 16:16:04.861080 19754 net.cpp:425] embed_encoder <- frames_fc7
I0720 16:16:04.861074 19758 net.cpp:148] Top shape: 1 1 (1)
I0720 16:16:04.861090 19742 net.cpp:148] Top shape: 1 1 (1)
I0720 16:16:04.861093 19758 net.cpp:156] Memory required for data: 16396
I0720 16:16:04.861100 19742 net.cpp:156] Memory required for data: 16404
I0720 16:16:04.861105 19758 layer_factory.hpp:77] Creating layer cont_sentence_input_1_split
I0720 16:16:04.861110 19754 net.cpp:399] embed_encoder -> embedded_in_frames
I0720 16:16:04.861119 19758 net.cpp:91] Creating Layer cont_sentence_input_1_split
I0720 16:16:04.861110 19742 layer_factory.hpp:77] Creating layer embed_encoder
I0720 16:16:04.861129 19758 net.cpp:425] cont_sentence_input_1_split <- cont_sentence
I0720 16:16:04.861142 19758 net.cpp:399] cont_sentence_input_1_split -> cont_sentence_input_1_split_0
I0720 16:16:04.861158 19758 net.cpp:399] cont_sentence_input_1_split -> cont_sentence_input_1_split_1
I0720 16:16:04.861168 19742 net.cpp:91] Creating Layer embed_encoder
I0720 16:16:04.861174 19758 net.cpp:141] Setting up cont_sentence_input_1_split
I0720 16:16:04.861183 19742 net.cpp:425] embed_encoder <- frames_fc7
I0720 16:16:04.861189 19758 net.cpp:148] Top shape: 1 1 (1)
I0720 16:16:04.861202 19758 net.cpp:148] Top shape: 1 1 (1)
I0720 16:16:04.861203 19742 net.cpp:399] embed_encoder -> embedded_in_frames
I0720 16:16:04.861210 19758 net.cpp:156] Memory required for data: 16404
I0720 16:16:04.861220 19758 layer_factory.hpp:77] Creating layer embed_encoder
I0720 16:16:04.861276 19758 net.cpp:91] Creating Layer embed_encoder
I0720 16:16:04.861289 19758 net.cpp:425] embed_encoder <- frames_fc7
I0720 16:16:04.861309 19758 net.cpp:399] embed_encoder -> embedded_in_frames
I0720 16:16:04.861383 19740 net.cpp:49] Initializing net from parameters: 
name: "s2vt:features_to_lstm"
state {
  phase: TEST
}
layer {
  name: "input"
  type: "Input"
  top: "frames_fc7"
  top: "cont_sentence"
  top: "input_sentence"
  top: "stage_indicator"
  input_param {
    shape {
      dim: 1
      dim: 4096
    }
    shape {
      dim: 1
      dim: 1
    }
    shape {
      dim: 1
      dim: 1
    }
    shape {
      dim: 1
      dim: 1
    }
  }
}
layer {
  name: "embed_encoder"
  type: "InnerProduct"
  bottom: "frames_fc7"
  top: "embedded_in_frames"
  param {
    lr_mult: 1
    decay_mult: 1
  }
  param {
    lr_mult: 2
    decay_mult: 0
  }
  inner_product_param {
    num_output: 500
    weight_filler {
      type: "xavier"
    }
    bias_filler {
      type: "constant"
      value: 0.2
    }
  }
}
layer {
  name: "reshape_frames"
  type: "Reshape"
  bottom: "embedded_in_frames"
  top: "embedded_input_frames"
  reshape_param {
    shape {
      dim: 1
      dim: 1
      dim: 500
    }
  }
}
layer {
  name: "reshape_stage_indicator"
  type: "Reshape"
  bottom: "stage_indicator"
  top: "reshaped_stage_indicator"
  reshape_param {
    shape {
      dim: 1
      dim: 1
      dim: 1
    }
  }
}
layer {
  name: "embedding"
  type: "Embed"
  bottom: "input_sentence"
  top: "embedded_input_sentence"
  param {
    lr_mult: 1
  }
  embed_param {
    num_output: 500
    input_dim: 46168
    bias_term: false
    weight_filler {
      type: "uniform"
      min: -0.08
      max: 0.08
    }
  }
}
layer {
  name: "lstm1"
  type: "LSTM"
  bottom: "embedded_input_frames"
  bottom: "cont_sentence"
  top: "lstm1"
  recurrent_param {
    num_output: 1000
    weight_filler {
      type: "uniform"
      min: -0.08
      max: 0.08
    }
    bias_filler {
      type: "constant"
      value: 0
    }
  }
}
layer {
  name: "concat"
  type: "Concat"
  bottom: "lstm1"
  bottom: "embedded_input_sentence"
  bottom: "reshaped_stage_indicator"
  top: "lstm1_video_sequence"
  concat_param {
    concat_dim: 2
  }
}
layer {
  name: "lstm2"
  type: "LSTM"
  bottom: "lstm1_video_sequence"
  bottom: "cont_sentence"
  top: "lstm2"
  recurrent_param {
    num_output: 1000
    weight_filler {
      type: "uniform"
      min: -0.08
      max: 0.08
    }
    bias_filler {
      type: "constant"
      value: 0
    }
  }
}
layer {
  name: "predict"
  type: "InnerProduct"
  bottom: "lstm2"
  top: "predict"
  param {
    lr_mult: 1
    decay_mult: 1
  }
  param {
    lr_mult: 2
    decay_mult: 0
  }
  inner_product_param {
    num_output: 46168
    weight_filler {
      type: "uniform"
      min: -0.08
      max: 0.08
    }
    bias_filler {
      type: "constant"
      value: 0
    }
    axis: 2
  }
}
layer {
  name: "probs"
  type: "Softmax"
  bottom: "predict"
  top: "probs"
  softmax_param {
    axis: 2
  }
}
I0720 16:16:04.861547 19740 layer_factory.hpp:77] Creating layer input
I0720 16:16:04.861567 19740 net.cpp:91] Creating Layer input
I0720 16:16:04.861578 19740 net.cpp:399] input -> frames_fc7
I0720 16:16:04.861596 19740 net.cpp:399] input -> cont_sentence
I0720 16:16:04.861613 19740 net.cpp:399] input -> input_sentence
I0720 16:16:04.861629 19740 net.cpp:399] input -> stage_indicator
I0720 16:16:04.861649 19740 net.cpp:141] Setting up input
I0720 16:16:04.861660 19740 net.cpp:148] Top shape: 1 4096 (4096)
I0720 16:16:04.861670 19740 net.cpp:148] Top shape: 1 1 (1)
I0720 16:16:04.861681 19740 net.cpp:148] Top shape: 1 1 (1)
I0720 16:16:04.861692 19740 net.cpp:148] Top shape: 1 1 (1)
I0720 16:16:04.861699 19740 net.cpp:156] Memory required for data: 16396
I0720 16:16:04.861706 19740 layer_factory.hpp:77] Creating layer cont_sentence_input_1_split
I0720 16:16:04.861731 19740 net.cpp:91] Creating Layer cont_sentence_input_1_split
I0720 16:16:04.861739 19740 net.cpp:425] cont_sentence_input_1_split <- cont_sentence
I0720 16:16:04.861752 19740 net.cpp:399] cont_sentence_input_1_split -> cont_sentence_input_1_split_0
I0720 16:16:04.861768 19740 net.cpp:399] cont_sentence_input_1_split -> cont_sentence_input_1_split_1
I0720 16:16:04.861783 19740 net.cpp:141] Setting up cont_sentence_input_1_split
I0720 16:16:04.861799 19740 net.cpp:148] Top shape: 1 1 (1)
I0720 16:16:04.861810 19740 net.cpp:148] Top shape: 1 1 (1)
I0720 16:16:04.861817 19740 net.cpp:156] Memory required for data: 16404
I0720 16:16:04.861825 19740 layer_factory.hpp:77] Creating layer embed_encoder
I0720 16:16:04.861837 19740 net.cpp:91] Creating Layer embed_encoder
I0720 16:16:04.861842 19740 net.cpp:425] embed_encoder <- frames_fc7
I0720 16:16:04.861868 19740 net.cpp:399] embed_encoder -> embedded_in_frames
I0720 16:16:04.880455 19727 net.cpp:141] Setting up embed_encoder
I0720 16:16:04.880489 19727 net.cpp:148] Top shape: 1 500 (500)
I0720 16:16:04.880494 19727 net.cpp:156] Memory required for data: 18404
I0720 16:16:04.880537 19727 layer_factory.hpp:77] Creating layer reshape_frames
I0720 16:16:04.880564 19727 net.cpp:91] Creating Layer reshape_frames
I0720 16:16:04.880571 19727 net.cpp:425] reshape_frames <- embedded_in_frames
I0720 16:16:04.880592 19727 net.cpp:399] reshape_frames -> embedded_input_frames
I0720 16:16:04.880617 19727 net.cpp:141] Setting up reshape_frames
I0720 16:16:04.880625 19727 net.cpp:148] Top shape: 1 1 500 (500)
I0720 16:16:04.880630 19727 net.cpp:156] Memory required for data: 20404
I0720 16:16:04.880633 19727 layer_factory.hpp:77] Creating layer reshape_stage_indicator
I0720 16:16:04.880643 19727 net.cpp:91] Creating Layer reshape_stage_indicator
I0720 16:16:04.880648 19727 net.cpp:425] reshape_stage_indicator <- stage_indicator
I0720 16:16:04.880656 19727 net.cpp:399] reshape_stage_indicator -> reshaped_stage_indicator
I0720 16:16:04.880666 19727 net.cpp:141] Setting up reshape_stage_indicator
I0720 16:16:04.880673 19727 net.cpp:148] Top shape: 1 1 1 (1)
I0720 16:16:04.880677 19727 net.cpp:156] Memory required for data: 20408
I0720 16:16:04.880681 19727 layer_factory.hpp:77] Creating layer embedding
I0720 16:16:04.880697 19727 net.cpp:91] Creating Layer embedding
I0720 16:16:04.880703 19727 net.cpp:425] embedding <- input_sentence
I0720 16:16:04.880714 19727 net.cpp:399] embedding -> embedded_input_sentence
I0720 16:16:04.884222 19738 net.cpp:141] Setting up embed_encoder
I0720 16:16:04.884259 19738 net.cpp:148] Top shape: 1 500 (500)
I0720 16:16:04.884264 19738 net.cpp:156] Memory required for data: 18404
I0720 16:16:04.884281 19738 layer_factory.hpp:77] Creating layer reshape_frames
I0720 16:16:04.884297 19738 net.cpp:91] Creating Layer reshape_frames
I0720 16:16:04.884305 19738 net.cpp:425] reshape_frames <- embedded_in_frames
I0720 16:16:04.884789 19738 net.cpp:399] reshape_frames -> embedded_input_frames
I0720 16:16:04.884810 19738 net.cpp:141] Setting up reshape_frames
I0720 16:16:04.884817 19738 net.cpp:148] Top shape: 1 1 500 (500)
I0720 16:16:04.884821 19738 net.cpp:156] Memory required for data: 20404
I0720 16:16:04.884826 19738 layer_factory.hpp:77] Creating layer reshape_stage_indicator
I0720 16:16:04.884835 19738 net.cpp:91] Creating Layer reshape_stage_indicator
I0720 16:16:04.884840 19738 net.cpp:425] reshape_stage_indicator <- stage_indicator
I0720 16:16:04.884858 19738 net.cpp:399] reshape_stage_indicator -> reshaped_stage_indicator
I0720 16:16:04.884871 19738 net.cpp:141] Setting up reshape_stage_indicator
I0720 16:16:04.884878 19738 net.cpp:148] Top shape: 1 1 1 (1)
I0720 16:16:04.884882 19738 net.cpp:156] Memory required for data: 20408
I0720 16:16:04.884887 19738 layer_factory.hpp:77] Creating layer embedding
I0720 16:16:04.884897 19738 net.cpp:91] Creating Layer embedding
I0720 16:16:04.884902 19738 net.cpp:425] embedding <- input_sentence
I0720 16:16:04.885383 19738 net.cpp:399] embedding -> embedded_input_sentence
I0720 16:16:04.886013 19725 net.cpp:141] Setting up embed_encoder
I0720 16:16:04.886037 19725 net.cpp:148] Top shape: 1 500 (500)
I0720 16:16:04.886044 19725 net.cpp:156] Memory required for data: 18404
I0720 16:16:04.886065 19725 layer_factory.hpp:77] Creating layer reshape_frames
I0720 16:16:04.886612 19725 net.cpp:91] Creating Layer reshape_frames
I0720 16:16:04.886626 19725 net.cpp:425] reshape_frames <- embedded_in_frames
I0720 16:16:04.886641 19725 net.cpp:399] reshape_frames -> embedded_input_frames
I0720 16:16:04.886639 19752 net.cpp:141] Setting up embed_encoder
I0720 16:16:04.886665 19725 net.cpp:141] Setting up reshape_frames
I0720 16:16:04.886679 19752 net.cpp:148] Top shape: 1 500 (500)
I0720 16:16:04.886682 19725 net.cpp:148] Top shape: 1 1 500 (500)
I0720 16:16:04.886700 19752 net.cpp:156] Memory required for data: 18404
I0720 16:16:04.886713 19725 net.cpp:156] Memory required for data: 20404
I0720 16:16:04.886724 19725 layer_factory.hpp:77] Creating layer reshape_stage_indicator
I0720 16:16:04.886732 19752 layer_factory.hpp:77] Creating layer reshape_frames
I0720 16:16:04.887184 19725 net.cpp:91] Creating Layer reshape_stage_indicator
I0720 16:16:04.887197 19725 net.cpp:425] reshape_stage_indicator <- stage_indicator
I0720 16:16:04.887212 19725 net.cpp:399] reshape_stage_indicator -> reshaped_stage_indicator
I0720 16:16:04.887214 19752 net.cpp:91] Creating Layer reshape_frames
I0720 16:16:04.887229 19725 net.cpp:141] Setting up reshape_stage_indicator
I0720 16:16:04.887233 19752 net.cpp:425] reshape_frames <- embedded_in_frames
I0720 16:16:04.887243 19725 net.cpp:148] Top shape: 1 1 1 (1)
I0720 16:16:04.887248 19752 net.cpp:399] reshape_frames -> embedded_input_frames
I0720 16:16:04.887251 19725 net.cpp:156] Memory required for data: 20408
I0720 16:16:04.887259 19725 layer_factory.hpp:77] Creating layer embedding
I0720 16:16:04.887267 19752 net.cpp:141] Setting up reshape_frames
I0720 16:16:04.887276 19752 net.cpp:148] Top shape: 1 1 500 (500)
I0720 16:16:04.887280 19752 net.cpp:156] Memory required for data: 20404
I0720 16:16:04.887285 19752 layer_factory.hpp:77] Creating layer reshape_stage_indicator
I0720 16:16:04.887296 19752 net.cpp:91] Creating Layer reshape_stage_indicator
I0720 16:16:04.887301 19752 net.cpp:425] reshape_stage_indicator <- stage_indicator
I0720 16:16:04.888170 19752 net.cpp:399] reshape_stage_indicator -> reshaped_stage_indicator
I0720 16:16:04.888172 19725 net.cpp:91] Creating Layer embedding
I0720 16:16:04.888200 19752 net.cpp:141] Setting up reshape_stage_indicator
I0720 16:16:04.888200 19725 net.cpp:425] embedding <- input_sentence
I0720 16:16:04.888213 19752 net.cpp:148] Top shape: 1 1 1 (1)
I0720 16:16:04.888219 19752 net.cpp:156] Memory required for data: 20408
I0720 16:16:04.888224 19752 layer_factory.hpp:77] Creating layer embedding
I0720 16:16:04.888226 19725 net.cpp:399] embedding -> embedded_input_sentence
I0720 16:16:04.888708 19752 net.cpp:91] Creating Layer embedding
I0720 16:16:04.888725 19752 net.cpp:425] embedding <- input_sentence
I0720 16:16:04.888734 19752 net.cpp:399] embedding -> embedded_input_sentence
I0720 16:16:04.890841 19758 net.cpp:141] Setting up embed_encoder
I0720 16:16:04.890872 19758 net.cpp:148] Top shape: 1 500 (500)
I0720 16:16:04.890877 19758 net.cpp:156] Memory required for data: 18404
I0720 16:16:04.892395 19758 layer_factory.hpp:77] Creating layer reshape_frames
I0720 16:16:04.892418 19758 net.cpp:91] Creating Layer reshape_frames
I0720 16:16:04.892426 19758 net.cpp:425] reshape_frames <- embedded_in_frames
I0720 16:16:04.892901 19721 net.cpp:141] Setting up embed_encoder
I0720 16:16:04.892904 19729 net.cpp:141] Setting up embed_encoder
I0720 16:16:04.892920 19742 net.cpp:141] Setting up embed_encoder
I0720 16:16:04.892932 19729 net.cpp:148] Top shape: 1 500 (500)
I0720 16:16:04.892920 19758 net.cpp:399] reshape_frames -> embedded_input_frames
I0720 16:16:04.892945 19729 net.cpp:156] Memory required for data: 18404
I0720 16:16:04.892922 19754 net.cpp:141] Setting up embed_encoder
I0720 16:16:04.892942 19742 net.cpp:148] Top shape: 1 500 (500)
I0720 16:16:04.892966 19754 net.cpp:148] Top shape: 1 500 (500)
I0720 16:16:04.892923 19721 net.cpp:148] Top shape: 1 500 (500)
I0720 16:16:04.892968 19758 net.cpp:141] Setting up reshape_frames
I0720 16:16:04.892969 19729 layer_factory.hpp:77] Creating layer reshape_frames
I0720 16:16:04.892971 19742 net.cpp:156] Memory required for data: 18404
I0720 16:16:04.892983 19721 net.cpp:156] Memory required for data: 18404
I0720 16:16:04.892987 19758 net.cpp:148] Top shape: 1 1 500 (500)
I0720 16:16:04.892979 19754 net.cpp:156] Memory required for data: 18404
I0720 16:16:04.893002 19742 layer_factory.hpp:77] Creating layer reshape_frames
I0720 16:16:04.893003 19758 net.cpp:156] Memory required for data: 20404
I0720 16:16:04.893010 19721 layer_factory.hpp:77] Creating layer reshape_frames
I0720 16:16:04.893020 19758 layer_factory.hpp:77] Creating layer reshape_stage_indicator
I0720 16:16:04.893031 19758 net.cpp:91] Creating Layer reshape_stage_indicator
I0720 16:16:04.893036 19758 net.cpp:425] reshape_stage_indicator <- stage_indicator
I0720 16:16:04.893044 19758 net.cpp:399] reshape_stage_indicator -> reshaped_stage_indicator
I0720 16:16:04.893055 19758 net.cpp:141] Setting up reshape_stage_indicator
I0720 16:16:04.893062 19758 net.cpp:148] Top shape: 1 1 1 (1)
I0720 16:16:04.893066 19758 net.cpp:156] Memory required for data: 20408
I0720 16:16:04.893070 19758 layer_factory.hpp:77] Creating layer embedding
I0720 16:16:04.894070 19742 net.cpp:91] Creating Layer reshape_frames
I0720 16:16:04.894067 19754 layer_factory.hpp:77] Creating layer reshape_frames
I0720 16:16:04.894067 19729 net.cpp:91] Creating Layer reshape_frames
I0720 16:16:04.894083 19742 net.cpp:425] reshape_frames <- embedded_in_frames
I0720 16:16:04.894073 19758 net.cpp:91] Creating Layer embedding
I0720 16:16:04.894073 19721 net.cpp:91] Creating Layer reshape_frames
I0720 16:16:04.894098 19742 net.cpp:399] reshape_frames -> embedded_input_frames
I0720 16:16:04.894093 19754 net.cpp:91] Creating Layer reshape_frames
I0720 16:16:04.894094 19729 net.cpp:425] reshape_frames <- embedded_in_frames
I0720 16:16:04.894100 19758 net.cpp:425] embedding <- input_sentence
I0720 16:16:04.894114 19742 net.cpp:141] Setting up reshape_frames
I0720 16:16:04.894115 19754 net.cpp:425] reshape_frames <- embedded_in_frames
I0720 16:16:04.894109 19721 net.cpp:425] reshape_frames <- embedded_in_frames
I0720 16:16:04.894124 19742 net.cpp:148] Top shape: 1 1 500 (500)
I0720 16:16:04.894120 19729 net.cpp:399] reshape_frames -> embedded_input_frames
I0720 16:16:04.894130 19742 net.cpp:156] Memory required for data: 20404
I0720 16:16:04.894136 19742 layer_factory.hpp:77] Creating layer reshape_stage_indicator
I0720 16:16:04.894137 19721 net.cpp:399] reshape_frames -> embedded_input_frames
I0720 16:16:04.894145 19729 net.cpp:141] Setting up reshape_frames
I0720 16:16:04.894155 19729 net.cpp:148] Top shape: 1 1 500 (500)
I0720 16:16:04.894155 19721 net.cpp:141] Setting up reshape_frames
I0720 16:16:04.894160 19729 net.cpp:156] Memory required for data: 20404
I0720 16:16:04.894165 19729 layer_factory.hpp:77] Creating layer reshape_stage_indicator
I0720 16:16:04.894166 19721 net.cpp:148] Top shape: 1 1 500 (500)
I0720 16:16:04.894173 19721 net.cpp:156] Memory required for data: 20404
I0720 16:16:04.894181 19721 layer_factory.hpp:77] Creating layer reshape_stage_indicator
I0720 16:16:04.894579 19740 net.cpp:141] Setting up embed_encoder
I0720 16:16:04.894589 19721 net.cpp:91] Creating Layer reshape_stage_indicator
I0720 16:16:04.894595 19758 net.cpp:399] embedding -> embedded_input_sentence
I0720 16:16:04.894599 19721 net.cpp:425] reshape_stage_indicator <- stage_indicator
I0720 16:16:04.894599 19740 net.cpp:148] Top shape: 1 500 (500)
I0720 16:16:04.894605 19754 net.cpp:399] reshape_frames -> embedded_input_frames
I0720 16:16:04.894616 19740 net.cpp:156] Memory required for data: 18404
I0720 16:16:04.894605 19729 net.cpp:91] Creating Layer reshape_stage_indicator
I0720 16:16:04.894613 19721 net.cpp:399] reshape_stage_indicator -> reshaped_stage_indicator
I0720 16:16:04.894630 19729 net.cpp:425] reshape_stage_indicator <- stage_indicator
I0720 16:16:04.894634 19754 net.cpp:141] Setting up reshape_frames
I0720 16:16:04.894621 19742 net.cpp:91] Creating Layer reshape_stage_indicator
I0720 16:16:04.894645 19729 net.cpp:399] reshape_stage_indicator -> reshaped_stage_indicator
I0720 16:16:04.894647 19721 net.cpp:141] Setting up reshape_stage_indicator
I0720 16:16:04.894654 19742 net.cpp:425] reshape_stage_indicator <- stage_indicator
I0720 16:16:04.894635 19740 layer_factory.hpp:77] Creating layer reshape_frames
I0720 16:16:04.894649 19754 net.cpp:148] Top shape: 1 1 500 (500)
I0720 16:16:04.894665 19742 net.cpp:399] reshape_stage_indicator -> reshaped_stage_indicator
I0720 16:16:04.894667 19729 net.cpp:141] Setting up reshape_stage_indicator
I0720 16:16:04.894666 19721 net.cpp:148] Top shape: 1 1 1 (1)
I0720 16:16:04.894667 19754 net.cpp:156] Memory required for data: 20404
I0720 16:16:04.894671 19740 net.cpp:91] Creating Layer reshape_frames
I0720 16:16:04.894700 19754 layer_factory.hpp:77] Creating layer reshape_stage_indicator
I0720 16:16:04.894696 19721 net.cpp:156] Memory required for data: 20408
I0720 16:16:04.894700 19729 net.cpp:148] Top shape: 1 1 1 (1)
I0720 16:16:04.894696 19742 net.cpp:141] Setting up reshape_stage_indicator
I0720 16:16:04.894706 19740 net.cpp:425] reshape_frames <- embedded_in_frames
I0720 16:16:04.894732 19742 net.cpp:148] Top shape: 1 1 1 (1)
I0720 16:16:04.894742 19742 net.cpp:156] Memory required for data: 20408
I0720 16:16:04.894719 19729 net.cpp:156] Memory required for data: 20408
I0720 16:16:04.894716 19721 layer_factory.hpp:77] Creating layer embedding
I0720 16:16:04.894760 19729 layer_factory.hpp:77] Creating layer embedding
I0720 16:16:04.894719 19754 net.cpp:91] Creating Layer reshape_stage_indicator
I0720 16:16:04.894748 19742 layer_factory.hpp:77] Creating layer embedding
I0720 16:16:04.894773 19754 net.cpp:425] reshape_stage_indicator <- stage_indicator
I0720 16:16:04.894789 19754 net.cpp:399] reshape_stage_indicator -> reshaped_stage_indicator
I0720 16:16:04.894803 19754 net.cpp:141] Setting up reshape_stage_indicator
I0720 16:16:04.894810 19754 net.cpp:148] Top shape: 1 1 1 (1)
I0720 16:16:04.894814 19754 net.cpp:156] Memory required for data: 20408
I0720 16:16:04.894819 19754 layer_factory.hpp:77] Creating layer embedding
I0720 16:16:04.895702 19721 net.cpp:91] Creating Layer embedding
I0720 16:16:04.895707 19740 net.cpp:399] reshape_frames -> embedded_input_frames
I0720 16:16:04.895705 19754 net.cpp:91] Creating Layer embedding
I0720 16:16:04.895709 19742 net.cpp:91] Creating Layer embedding
I0720 16:16:04.895705 19729 net.cpp:91] Creating Layer embedding
I0720 16:16:04.895752 19742 net.cpp:425] embedding <- input_sentence
I0720 16:16:04.895714 19721 net.cpp:425] embedding <- input_sentence
I0720 16:16:04.895737 19740 net.cpp:141] Setting up reshape_frames
I0720 16:16:04.895738 19754 net.cpp:425] embedding <- input_sentence
I0720 16:16:04.895768 19742 net.cpp:399] embedding -> embedded_input_sentence
I0720 16:16:04.895774 19740 net.cpp:148] Top shape: 1 1 500 (500)
I0720 16:16:04.895761 19729 net.cpp:425] embedding <- input_sentence
I0720 16:16:04.895773 19721 net.cpp:399] embedding -> embedded_input_sentence
I0720 16:16:04.895783 19740 net.cpp:156] Memory required for data: 20404
I0720 16:16:04.895792 19729 net.cpp:399] embedding -> embedded_input_sentence
I0720 16:16:04.895798 19740 layer_factory.hpp:77] Creating layer reshape_stage_indicator
I0720 16:16:04.895812 19740 net.cpp:91] Creating Layer reshape_stage_indicator
I0720 16:16:04.895818 19740 net.cpp:425] reshape_stage_indicator <- stage_indicator
I0720 16:16:04.896256 19754 net.cpp:399] embedding -> embedded_input_sentence
I0720 16:16:04.896792 19740 net.cpp:399] reshape_stage_indicator -> reshaped_stage_indicator
I0720 16:16:04.896806 19740 net.cpp:141] Setting up reshape_stage_indicator
I0720 16:16:04.896814 19740 net.cpp:148] Top shape: 1 1 1 (1)
I0720 16:16:04.896819 19740 net.cpp:156] Memory required for data: 20408
I0720 16:16:04.896823 19740 layer_factory.hpp:77] Creating layer embedding
I0720 16:16:04.896832 19740 net.cpp:91] Creating Layer embedding
I0720 16:16:04.896837 19740 net.cpp:425] embedding <- input_sentence
I0720 16:16:04.897744 19740 net.cpp:399] embedding -> embedded_input_sentence
I0720 16:16:05.095407 19727 net.cpp:141] Setting up embedding
I0720 16:16:05.095453 19727 net.cpp:148] Top shape: 1 1 500 (500)
I0720 16:16:05.095458 19727 net.cpp:156] Memory required for data: 22408
I0720 16:16:05.095474 19727 layer_factory.hpp:77] Creating layer lstm1
I0720 16:16:05.095494 19727 net.cpp:91] Creating Layer lstm1
I0720 16:16:05.095500 19727 net.cpp:425] lstm1 <- embedded_input_frames
I0720 16:16:05.095509 19727 net.cpp:425] lstm1 <- cont_sentence_input_1_split_0
I0720 16:16:05.095525 19727 net.cpp:399] lstm1 -> lstm1
I0720 16:16:05.095562 19727 recurrent_layer.cpp:20] Initializing recurrent layer: assuming input batch contains 1 timesteps of 1 independent streams.
I0720 16:16:05.096067 19727 net.cpp:49] Initializing net from parameters: 
layer {
  name: "lstm1_"
  type: "Input"
  top: "x"
  top: "cont"
  input_param {
    shape {
      dim: 1
      dim: 1
      dim: 500
    }
    shape {
      dim: 1
      dim: 1
    }
  }
}
layer {
  name: "lstm1_"
  type: "Input"
  top: "c_0"
  top: "h_0"
  input_param {
    shape {
      dim: 1
      dim: 1
      dim: 1000
    }
    shape {
      dim: 1
      dim: 1
      dim: 1000
    }
  }
}
layer {
  name: "lstm1_cont_slice"
  type: "Slice"
  bottom: "cont"
  top: "cont_1"
  slice_param {
    axis: 0
  }
}
layer {
  name: "lstm1_x_transform"
  type: "InnerProduct"
  bottom: "x"
  top: "W_xc_x"
  param {
    name: "W_xc"
  }
  param {
    name: "b_c"
  }
  propagate_down: true
  inner_product_param {
    num_output: 4000
    bias_term: true
    weight_filler {
      type: "uniform"
      min: -0.08
      max: 0.08
    }
    bias_filler {
      type: "constant"
      value: 0
    }
    axis: 2
  }
}
layer {
  name: "lstm1_W_xc_x_slice"
  type: "Slice"
  bottom: "W_xc_x"
  top: "W_xc_x_1"
  slice_param {
    axis: 0
  }
}
layer {
  name: "lstm1_h_conted_0"
  type: "Scale"
  bottom: "h_0"
  bottom: "cont_1"
  top: "h_conted_0"
  scale_param {
    axis: 0
  }
}
layer {
  name: "lstm1_transform_1"
  type: "InnerProduct"
  bottom: "h_conted_0"
  top: "W_hc_h_0"
  param {
    name: "W_hc"
  }
  inner_product_param {
    num_output: 4000
    bias_term: false
    weight_filler {
      type: "uniform"
      min: -0.08
      max: 0.08
    }
    axis: 2
  }
}
layer {
  name: "lstm1_gate_input_1"
  type: "Eltwise"
  bottom: "W_hc_h_0"
  bottom: "W_xc_x_1"
  top: "gate_input_1"
  eltwise_param {
    operation: SUM
  }
}
layer {
  name: "lstm1_unit_1"
  type: "LSTMUnit"
  bottom: "c_0"
  bottom: "gate_input_1"
  bottom: "cont_1"
  top: "c_1"
  top: "h_1"
}
layer {
  name: "lstm1_"
  type: "Split"
  bottom: "c_1"
  top: "c_T"
}
layer {
  name: "lstm1_h_concat"
  type: "Concat"
  bottom: "h_1"
  top: "h"
  concat_param {
    axis: 0
  }
}
layer {
  name: "h_pseudoloss"
  type: "Reduction"
  bottom: "h"
  top: "h_pseudoloss"
  loss_weight: 1
}
I0720 16:16:05.096213 19727 layer_factory.hpp:77] Creating layer lstm1_
I0720 16:16:05.096235 19727 net.cpp:91] Creating Layer lstm1_
I0720 16:16:05.096247 19727 net.cpp:399] lstm1_ -> x
I0720 16:16:05.096267 19727 net.cpp:399] lstm1_ -> cont
I0720 16:16:05.096288 19727 net.cpp:141] Setting up lstm1_
I0720 16:16:05.096302 19727 net.cpp:148] Top shape: 1 1 500 (500)
I0720 16:16:05.096314 19727 net.cpp:148] Top shape: 1 1 (1)
I0720 16:16:05.096323 19727 net.cpp:156] Memory required for data: 2004
I0720 16:16:05.096331 19727 layer_factory.hpp:77] Creating layer lstm1_
I0720 16:16:05.096346 19727 net.cpp:91] Creating Layer lstm1_
I0720 16:16:05.096359 19727 net.cpp:399] lstm1_ -> c_0
I0720 16:16:05.096376 19727 net.cpp:399] lstm1_ -> h_0
I0720 16:16:05.096395 19727 net.cpp:141] Setting up lstm1_
I0720 16:16:05.096408 19727 net.cpp:148] Top shape: 1 1 1000 (1000)
I0720 16:16:05.096420 19727 net.cpp:148] Top shape: 1 1 1000 (1000)
I0720 16:16:05.096427 19727 net.cpp:156] Memory required for data: 10004
I0720 16:16:05.096436 19727 layer_factory.hpp:77] Creating layer lstm1_cont_slice
I0720 16:16:05.096449 19727 net.cpp:91] Creating Layer lstm1_cont_slice
I0720 16:16:05.096458 19727 net.cpp:425] lstm1_cont_slice <- cont
I0720 16:16:05.096472 19727 net.cpp:399] lstm1_cont_slice -> cont_1
I0720 16:16:05.096493 19727 net.cpp:141] Setting up lstm1_cont_slice
I0720 16:16:05.096506 19727 net.cpp:148] Top shape: 1 1 (1)
I0720 16:16:05.096514 19727 net.cpp:156] Memory required for data: 10008
I0720 16:16:05.096524 19727 layer_factory.hpp:77] Creating layer cont_1_lstm1_cont_slice_0_split
I0720 16:16:05.096546 19727 net.cpp:91] Creating Layer cont_1_lstm1_cont_slice_0_split
I0720 16:16:05.096559 19727 net.cpp:425] cont_1_lstm1_cont_slice_0_split <- cont_1
I0720 16:16:05.096571 19727 net.cpp:399] cont_1_lstm1_cont_slice_0_split -> cont_1_lstm1_cont_slice_0_split_0
I0720 16:16:05.096603 19727 net.cpp:399] cont_1_lstm1_cont_slice_0_split -> cont_1_lstm1_cont_slice_0_split_1
I0720 16:16:05.096623 19727 net.cpp:141] Setting up cont_1_lstm1_cont_slice_0_split
I0720 16:16:05.096637 19727 net.cpp:148] Top shape: 1 1 (1)
I0720 16:16:05.096647 19727 net.cpp:148] Top shape: 1 1 (1)
I0720 16:16:05.096655 19727 net.cpp:156] Memory required for data: 10016
I0720 16:16:05.096663 19727 layer_factory.hpp:77] Creating layer lstm1_x_transform
I0720 16:16:05.096680 19727 net.cpp:91] Creating Layer lstm1_x_transform
I0720 16:16:05.096689 19727 net.cpp:425] lstm1_x_transform <- x
I0720 16:16:05.096712 19727 net.cpp:399] lstm1_x_transform -> W_xc_x
I0720 16:16:05.117576 19727 net.cpp:141] Setting up lstm1_x_transform
I0720 16:16:05.117627 19727 net.cpp:148] Top shape: 1 1 4000 (4000)
I0720 16:16:05.117640 19727 net.cpp:156] Memory required for data: 26016
I0720 16:16:05.117666 19727 layer_factory.hpp:77] Creating layer lstm1_W_xc_x_slice
I0720 16:16:05.117688 19727 net.cpp:91] Creating Layer lstm1_W_xc_x_slice
I0720 16:16:05.117699 19727 net.cpp:425] lstm1_W_xc_x_slice <- W_xc_x
I0720 16:16:05.117727 19727 net.cpp:399] lstm1_W_xc_x_slice -> W_xc_x_1
I0720 16:16:05.117756 19727 net.cpp:141] Setting up lstm1_W_xc_x_slice
I0720 16:16:05.117771 19727 net.cpp:148] Top shape: 1 1 4000 (4000)
I0720 16:16:05.117780 19727 net.cpp:156] Memory required for data: 42016
I0720 16:16:05.117789 19727 layer_factory.hpp:77] Creating layer lstm1_h_conted_0
I0720 16:16:05.117822 19727 net.cpp:91] Creating Layer lstm1_h_conted_0
I0720 16:16:05.117835 19727 net.cpp:425] lstm1_h_conted_0 <- h_0
I0720 16:16:05.117847 19727 net.cpp:425] lstm1_h_conted_0 <- cont_1_lstm1_cont_slice_0_split_0
I0720 16:16:05.117875 19727 net.cpp:399] lstm1_h_conted_0 -> h_conted_0
I0720 16:16:05.117924 19727 net.cpp:141] Setting up lstm1_h_conted_0
I0720 16:16:05.117940 19727 net.cpp:148] Top shape: 1 1 1000 (1000)
I0720 16:16:05.117949 19727 net.cpp:156] Memory required for data: 46016
I0720 16:16:05.117957 19727 layer_factory.hpp:77] Creating layer lstm1_transform_1
I0720 16:16:05.117974 19727 net.cpp:91] Creating Layer lstm1_transform_1
I0720 16:16:05.117985 19727 net.cpp:425] lstm1_transform_1 <- h_conted_0
I0720 16:16:05.118002 19727 net.cpp:399] lstm1_transform_1 -> W_hc_h_0
I0720 16:16:05.166173 19727 net.cpp:141] Setting up lstm1_transform_1
I0720 16:16:05.166712 19727 net.cpp:148] Top shape: 1 1 4000 (4000)
I0720 16:16:05.166869 19727 net.cpp:156] Memory required for data: 62016
I0720 16:16:05.167035 19727 layer_factory.hpp:77] Creating layer lstm1_gate_input_1
I0720 16:16:05.167763 19727 net.cpp:91] Creating Layer lstm1_gate_input_1
I0720 16:16:05.167907 19727 net.cpp:425] lstm1_gate_input_1 <- W_hc_h_0
I0720 16:16:05.168066 19727 net.cpp:425] lstm1_gate_input_1 <- W_xc_x_1
I0720 16:16:05.168283 19727 net.cpp:399] lstm1_gate_input_1 -> gate_input_1
I0720 16:16:05.168455 19727 net.cpp:141] Setting up lstm1_gate_input_1
I0720 16:16:05.168615 19727 net.cpp:148] Top shape: 1 1 4000 (4000)
I0720 16:16:05.168759 19727 net.cpp:156] Memory required for data: 78016
I0720 16:16:05.168902 19727 layer_factory.hpp:77] Creating layer lstm1_unit_1
I0720 16:16:05.169065 19727 net.cpp:91] Creating Layer lstm1_unit_1
I0720 16:16:05.169286 19727 net.cpp:425] lstm1_unit_1 <- c_0
I0720 16:16:05.169442 19727 net.cpp:425] lstm1_unit_1 <- gate_input_1
I0720 16:16:05.169589 19727 net.cpp:425] lstm1_unit_1 <- cont_1_lstm1_cont_slice_0_split_1
I0720 16:16:05.169764 19727 net.cpp:399] lstm1_unit_1 -> c_1
I0720 16:16:05.169932 19727 net.cpp:399] lstm1_unit_1 -> h_1
I0720 16:16:05.170085 19727 net.cpp:141] Setting up lstm1_unit_1
I0720 16:16:05.170308 19727 net.cpp:148] Top shape: 1 1 1000 (1000)
I0720 16:16:05.170449 19727 net.cpp:148] Top shape: 1 1 1000 (1000)
I0720 16:16:05.170595 19727 net.cpp:156] Memory required for data: 86016
I0720 16:16:05.170760 19727 layer_factory.hpp:77] Creating layer lstm1_
I0720 16:16:05.170910 19727 net.cpp:91] Creating Layer lstm1_
I0720 16:16:05.171002 19727 net.cpp:425] lstm1_ <- c_1
I0720 16:16:05.171022 19727 net.cpp:399] lstm1_ -> c_T
I0720 16:16:05.171039 19727 net.cpp:141] Setting up lstm1_
I0720 16:16:05.171051 19727 net.cpp:148] Top shape: 1 1 1000 (1000)
I0720 16:16:05.171057 19727 net.cpp:156] Memory required for data: 90016
I0720 16:16:05.171066 19727 layer_factory.hpp:77] Creating layer lstm1_h_concat
I0720 16:16:05.171085 19727 net.cpp:91] Creating Layer lstm1_h_concat
I0720 16:16:05.171093 19727 net.cpp:425] lstm1_h_concat <- h_1
I0720 16:16:05.171103 19727 net.cpp:399] lstm1_h_concat -> h
I0720 16:16:05.171128 19727 net.cpp:141] Setting up lstm1_h_concat
I0720 16:16:05.171139 19727 net.cpp:148] Top shape: 1 1 1000 (1000)
I0720 16:16:05.171144 19727 net.cpp:156] Memory required for data: 94016
I0720 16:16:05.171151 19727 layer_factory.hpp:77] Creating layer h_pseudoloss
I0720 16:16:05.171171 19727 net.cpp:91] Creating Layer h_pseudoloss
I0720 16:16:05.171180 19727 net.cpp:425] h_pseudoloss <- h
I0720 16:16:05.171188 19727 net.cpp:399] h_pseudoloss -> h_pseudoloss
I0720 16:16:05.171221 19727 net.cpp:141] Setting up h_pseudoloss
…
I0720 16:16:05.171378 19727 net.cpp:219] lstm1_ does not need backward computation.
I0720 16:16:05.171385 19727 net.cpp:261] This network produces output c_T
I0720 16:16:05.171391 19727 net.cpp:261] This network produces output h_pseudoloss
I0720 16:16:05.171414 19727 net.cpp:274] Network initialization done.
I0720 16:16:05.171486 19727 recurrent_layer.cpp:150] Adding parameter 0: W_xc
I0720 16:16:05.171495 19727 recurrent_layer.cpp:150] Adding parameter 1: b_c
I0720 16:16:05.171501 19727 recurrent_layer.cpp:150] Adding parameter 2: W_hc
I0720 16:16:05.171564 19727 net.cpp:141] Setting up lstm1
I0720 16:16:05.171577 19727 net.cpp:148] Top shape: 1 1 1000 (1000)
I0720 16:16:05.171583 19727 net.cpp:156] Memory required for data: 26408
I0720 16:16:05.171603 19727 layer_factory.hpp:77] Creating layer concat
I0720 16:16:05.171614 19727 net.cpp:91] Creating Layer concat
I0720 16:16:05.171622 19727 net.cpp:425] concat <- lstm1
I0720 16:16:05.171633 19727 net.cpp:425] concat <- embedded_input_sentence
I0720 16:16:05.171640 19727 net.cpp:425] concat <- reshaped_stage_indicator
I0720 16:16:05.171649 19727 net.cpp:399] concat -> lstm1_video_sequence
I0720 16:16:05.171663 19727 net.cpp:141] Setting up concat
I0720 16:16:05.171674 19727 net.cpp:148] Top shape: 1 1 1501 (1501)
I0720 16:16:05.171679 19727 net.cpp:156] Memory required for data: 32412
I0720 16:16:05.171685 19727 layer_factory.hpp:77] Creating layer lstm2
I0720 16:16:05.171701 19727 net.cpp:91] Creating Layer lstm2
I0720 16:16:05.171708 19727 net.cpp:425] lstm2 <- lstm1_video_sequence
I0720 16:16:05.171717 19727 net.cpp:425] lstm2 <- cont_sentence_input_1_split_1
I0720 16:16:05.171727 19727 net.cpp:399] lstm2 -> lstm2
I0720 16:16:05.171739 19727 recurrent_layer.cpp:20] Initializing recurrent layer: assuming input batch contains 1 timesteps of 1 independent streams.
I0720 16:16:05.172082 19727 net.cpp:49] Initializing net from parameters: 
layer {
  name: "lstm2_"
  type: "Input"
  top: "x"
  top: "cont"
  input_param {
    shape {
      dim: 1
      dim: 1
      dim: 1501
    }
    shape {
      dim: 1
      dim: 1
    }
  }
}
layer {
  name: "lstm2_"
  type: "Input"
  top: "c_0"
  top: "h_0"
  input_param {
    shape {
      dim: 1
      dim: 1
      dim: 1000
    }
    shape {
      dim: 1
      dim: 1
      dim: 1000
    }
  }
}
layer {
  name: "lstm2_cont_slice"
  type: "Slice"
  bottom: "cont"
  top: "cont_1"
  slice_param {
    axis: 0
  }
}
layer {
  name: "lstm2_x_transform"
  type: "InnerProduct"
  bottom: "x"
  top: "W_xc_x"
  param {
    name: "W_xc"
  }
  param {
    name: "b_c"
  }
  propagate_down: true
  inner_product_param {
    num_output: 4000
    bias_term: true
    weight_filler {
      type: "uniform"
      min: -0.08
      max: 0.08
    }
    bias_filler {
      type: "constant"
      value: 0
    }
    axis: 2
  }
}
layer {
  name: "lstm2_W_xc_x_slice"
  type: "Slice"
  bottom: "W_xc_x"
  top: "W_xc_x_1"
  slice_param {
    axis: 0
  }
}
layer {
  name: "lstm2_h_conted_0"
  type: "Scale"
  bottom: "h_0"
  bottom: "cont_1"
  top: "h_conted_0"
  scale_param {
    axis: 0
  }
}
layer {
  name: "lstm2_transform_1"
  type: "InnerProduct"
  bottom: "h_conted_0"
  top: "W_hc_h_0"
  param {
    name: "W_hc"
  }
  inner_product_param {
    num_output: 4000
    bias_term: false
    weight_filler {
      type: "uniform"
      min: -0.08
      max: 0.08
    }
    axis: 2
  }
}
layer {
  name: "lstm2_gate_input_1"
  type: "Eltwise"
  bottom: "W_hc_h_0"
  bottom: "W_xc_x_1"
  top: "gate_input_1"
  eltwise_param {
    operation: SUM
  }
}
layer {
  name: "lstm2_unit_1"
  type: "LSTMUnit"
  bottom: "c_0"
  bottom: "gate_input_1"
  bottom: "cont_1"
  top: "c_1"
  top: "h_1"
}
layer {
  name: "lstm2_"
  type: "Split"
  bottom: "c_1"
  top: "c_T"
}
layer {
  name: "lstm2_h_concat"
  type: "Concat"
  bottom: "h_1"
  top: "h"
  concat_param {
    axis: 0
  }
}
layer {
  name: "h_pseudoloss"
  type: "Reduction"
  bottom: "h"
  top: "h_pseudoloss"
  loss_weight: 1
}
I0720 16:16:05.172201 19727 layer_factory.hpp:77] Creating layer lstm2_
I0720 16:16:05.172217 19727 net.cpp:91] Creating Layer lstm2_
I0720 16:16:05.172226 19727 net.cpp:399] lstm2_ -> x
I0720 16:16:05.172240 19727 net.cpp:399] lstm2_ -> cont
I0720 16:16:05.172256 19727 net.cpp:141] Setting up lstm2_
I0720 16:16:05.172267 19727 net.cpp:148] Top shape: 1 1 1501 (1501)
I0720 16:16:05.172276 19727 net.cpp:148] Top shape: 1 1 (1)
I0720 16:16:05.172282 19727 net.cpp:156] Memory required for data: 6008
I0720 16:16:05.172291 19727 layer_factory.hpp:77] Creating layer lstm2_
I0720 16:16:05.172300 19727 net.cpp:91] Creating Layer lstm2_
I0720 16:16:05.172309 19727 net.cpp:399] lstm2_ -> c_0
I0720 16:16:05.172322 19727 net.cpp:399] lstm2_ -> h_0
I0720 16:16:05.172335 19727 net.cpp:141] Setting up lstm2_
I0720 16:16:05.172345 19727 net.cpp:148] Top shape: 1 1 1000 (1000)
I0720 16:16:05.172354 19727 net.cpp:148] Top shape: 1 1 1000 (1000)
I0720 16:16:05.172360 19727 net.cpp:156] Memory required for data: 14008
I0720 16:16:05.172366 19727 layer_factory.hpp:77] Creating layer lstm2_cont_slice
I0720 16:16:05.172377 19727 net.cpp:91] Creating Layer lstm2_cont_slice
I0720 16:16:05.172384 19727 net.cpp:425] lstm2_cont_slice <- cont
I0720 16:16:05.172394 19727 net.cpp:399] lstm2_cont_slice -> cont_1
I0720 16:16:05.172410 19727 net.cpp:141] Setting up lstm2_cont_slice
I0720 16:16:05.172420 19727 net.cpp:148] Top shape: 1 1 (1)
I0720 16:16:05.172425 19727 net.cpp:156] Memory required for data: 14012
I0720 16:16:05.172431 19727 layer_factory.hpp:77] Creating layer cont_1_lstm2_cont_slice_0_split
I0720 16:16:05.172441 19727 net.cpp:91] Creating Layer cont_1_lstm2_cont_slice_0_split
I0720 16:16:05.172447 19727 net.cpp:425] cont_1_lstm2_cont_slice_0_split <- cont_1
I0720 16:16:05.172462 19727 net.cpp:399] cont_1_lstm2_cont_slice_0_split -> cont_1_lstm2_cont_slice_0_split_0
I0720 16:16:05.172474 19727 net.cpp:399] cont_1_lstm2_cont_slice_0_split -> cont_1_lstm2_cont_slice_0_split_1
I0720 16:16:05.172488 19727 net.cpp:141] Setting up cont_1_lstm2_cont_slice_0_split
I0720 16:16:05.172497 19727 net.cpp:148] Top shape: 1 1 (1)
I0720 16:16:05.172505 19727 net.cpp:148] Top shape: 1 1 (1)
I0720 16:16:05.172511 19727 net.cpp:156] Memory required for data: 14020
I0720 16:16:05.172518 19727 layer_factory.hpp:77] Creating layer lstm2_x_transform
I0720 16:16:05.172531 19727 net.cpp:91] Creating Layer lstm2_x_transform
I0720 16:16:05.172538 19727 net.cpp:425] lstm2_x_transform <- x
I0720 16:16:05.172549 19727 net.cpp:399] lstm2_x_transform -> W_xc_x
I0720 16:16:05.176653 19721 net.cpp:141] Setting up embedding
I0720 16:16:05.176708 19721 net.cpp:148] Top shape: 1 1 500 (500)
I0720 16:16:05.176715 19721 net.cpp:156] Memory required for data: 22408
I0720 16:16:05.176749 19721 layer_factory.hpp:77] Creating layer lstm1
I0720 16:16:05.176779 19721 net.cpp:91] Creating Layer lstm1
I0720 16:16:05.176792 19721 net.cpp:425] lstm1 <- embedded_input_frames
I0720 16:16:05.176805 19721 net.cpp:425] lstm1 <- cont_sentence_input_1_split_0
I0720 16:16:05.177057 19721 net.cpp:399] lstm1 -> lstm1
I0720 16:16:05.177080 19721 recurrent_layer.cpp:20] Initializing recurrent layer: assuming input batch contains 1 timesteps of 1 independent streams.
I0720 16:16:05.177752 19721 net.cpp:49] Initializing net from parameters: 
layer {
  name: "lstm1_"
  type: "Input"
  top: "x"
  top: "cont"
  input_param {
    shape {
      dim: 1
      dim: 1
      dim: 500
    }
    shape {
      dim: 1
      dim: 1
    }
  }
}
layer {
  name: "lstm1_"
  type: "Input"
  top: "c_0"
  top: "h_0"
  input_param {
    shape {
      dim: 1
      dim: 1
      dim: 1000
    }
    shape {
      dim: 1
      dim: 1
      dim: 1000
    }
  }
}
layer {
  name: "lstm1_cont_slice"
  type: "Slice"
  bottom: "cont"
  top: "cont_1"
  slice_param {
    axis: 0
  }
}
layer {
  name: "lstm1_x_transform"
  type: "InnerProduct"
  bottom: "x"
  top: "W_xc_x"
  param {
    name: "W_xc"
  }
  param {
    name: "b_c"
  }
  propagate_down: true
  inner_product_param {
    num_output: 4000
    bias_term: true
    weight_filler {
      type: "uniform"
      min: -0.08
      max: 0.08
    }
    bias_filler {
      type: "constant"
      value: 0
    }
    axis: 2
  }
}
layer {
  name: "lstm1_W_xc_x_slice"
  type: "Slice"
  bottom: "W_xc_x"
  top: "W_xc_x_1"
  slice_param {
    axis: 0
  }
}
layer {
  name: "lstm1_h_conted_0"
  type: "Scale"
  bottom: "h_0"
  bottom: "cont_1"
  top: "h_conted_0"
  scale_param {
    axis: 0
  }
}
layer {
  name: "lstm1_transform_1"
  type: "InnerProduct"
  bottom: "h_conted_0"
  top: "W_hc_h_0"
  param {
    name: "W_hc"
  }
  inner_product_param {
    num_output: 4000
    bias_term: false
    weight_filler {
      type: "uniform"
      min: -0.08
      max: 0.08
    }
    axis: 2
  }
}
layer {
  name: "lstm1_gate_input_1"
  type: "Eltwise"
  bottom: "W_hc_h_0"
  bottom: "W_xc_x_1"
  top: "gate_input_1"
  eltwise_param {
    operation: SUM
  }
}
layer {
  name: "lstm1_unit_1"
  type: "LSTMUnit"
  bottom: "c_0"
  bottom: "gate_input_1"
  bottom: "cont_1"
  top: "c_1"
  top: "h_1"
}
layer {
  name: "lstm1_"
  type: "Split"
  bottom: "c_1"
  top: "c_T"
}
layer {
  name: "lstm1_h_concat"
  type: "Concat"
  bottom: "h_1"
  top: "h"
  concat_param {
    axis: 0
  }
}
layer {
  name: "h_pseudoloss"
  type: "Reduction"
  bottom: "h"
  top: "h_pseudoloss"
  loss_weight: 1
}
I0720 16:16:05.178334 19721 layer_factory.hpp:77] Creating layer lstm1_
I0720 16:16:05.178359 19721 net.cpp:91] Creating Layer lstm1_
I0720 16:16:05.178365 19721 net.cpp:399] lstm1_ -> x
I0720 16:16:05.178377 19721 net.cpp:399] lstm1_ -> cont
I0720 16:16:05.178391 19721 net.cpp:141] Setting up lstm1_
I0720 16:16:05.178400 19721 net.cpp:148] Top shape: 1 1 500 (500)
I0720 16:16:05.178406 19721 net.cpp:148] Top shape: 1 1 (1)
I0720 16:16:05.178409 19721 net.cpp:156] Memory required for data: 2004
I0720 16:16:05.178414 19721 layer_factory.hpp:77] Creating layer lstm1_
I0720 16:16:05.178421 19721 net.cpp:91] Creating Layer lstm1_
I0720 16:16:05.178427 19721 net.cpp:399] lstm1_ -> c_0
I0720 16:16:05.178436 19721 net.cpp:399] lstm1_ -> h_0
I0720 16:16:05.178445 19721 net.cpp:141] Setting up lstm1_
I0720 16:16:05.178452 19721 net.cpp:148] Top shape: 1 1 1000 (1000)
I0720 16:16:05.178458 19721 net.cpp:148] Top shape: 1 1 1000 (1000)
I0720 16:16:05.178462 19721 net.cpp:156] Memory required for data: 10004
I0720 16:16:05.178467 19721 layer_factory.hpp:77] Creating layer lstm1_cont_slice
I0720 16:16:05.178474 19721 net.cpp:91] Creating Layer lstm1_cont_slice
I0720 16:16:05.178479 19721 net.cpp:425] lstm1_cont_slice <- cont
I0720 16:16:05.178486 19721 net.cpp:399] lstm1_cont_slice -> cont_1
I0720 16:16:05.178500 19721 net.cpp:141] Setting up lstm1_cont_slice
I0720 16:16:05.178508 19721 net.cpp:148] Top shape: 1 1 (1)
I0720 16:16:05.178511 19721 net.cpp:156] Memory required for data: 10008
I0720 16:16:05.178515 19721 layer_factory.hpp:77] Creating layer cont_1_lstm1_cont_slice_0_split
I0720 16:16:05.178948 19721 net.cpp:91] Creating Layer cont_1_lstm1_cont_slice_0_split
I0720 16:16:05.178966 19721 net.cpp:425] cont_1_lstm1_cont_slice_0_split <- cont_1
I0720 16:16:05.178977 19721 net.cpp:399] cont_1_lstm1_cont_slice_0_split -> cont_1_lstm1_cont_slice_0_split_0
I0720 16:16:05.178987 19721 net.cpp:399] cont_1_lstm1_cont_slice_0_split -> cont_1_lstm1_cont_slice_0_split_1
I0720 16:16:05.178997 19721 net.cpp:141] Setting up cont_1_lstm1_cont_slice_0_split
I0720 16:16:05.179008 19721 net.cpp:148] Top shape: 1 1 (1)
I0720 16:16:05.179013 19721 net.cpp:148] Top shape: 1 1 (1)
I0720 16:16:05.179018 19721 net.cpp:156] Memory required for data: 10016
I0720 16:16:05.179023 19721 layer_factory.hpp:77] Creating layer lstm1_x_transform
I0720 16:16:05.179034 19721 net.cpp:91] Creating Layer lstm1_x_transform
I0720 16:16:05.179039 19721 net.cpp:425] lstm1_x_transform <- x
I0720 16:16:05.179566 19721 net.cpp:399] lstm1_x_transform -> W_xc_x
I0720 16:16:05.186213 19729 net.cpp:141] Setting up embedding
I0720 16:16:05.186275 19729 net.cpp:148] Top shape: 1 1 500 (500)
I0720 16:16:05.186285 19729 net.cpp:156] Memory required for data: 22408
I0720 16:16:05.186311 19729 layer_factory.hpp:77] Creating layer lstm1
I0720 16:16:05.186339 19729 net.cpp:91] Creating Layer lstm1
I0720 16:16:05.186352 19729 net.cpp:425] lstm1 <- embedded_input_frames
I0720 16:16:05.186364 19729 net.cpp:425] lstm1 <- cont_sentence_input_1_split_0
I0720 16:16:05.186386 19729 net.cpp:399] lstm1 -> lstm1
I0720 16:16:05.186410 19729 recurrent_layer.cpp:20] Initializing recurrent layer: assuming input batch contains 1 timesteps of 1 independent streams.
I0720 16:16:05.186861 19729 net.cpp:49] Initializing net from parameters: 
layer {
  name: "lstm1_"
  type: "Input"
  top: "x"
  top: "cont"
  input_param {
    shape {
      dim: 1
      dim: 1
      dim: 500
    }
    shape {
      dim: 1
      dim: 1
    }
  }
}
layer {
  name: "lstm1_"
  type: "Input"
  top: "c_0"
  top: "h_0"
  input_param {
    shape {
      dim: 1
      dim: 1
      dim: 1000
    }
    shape {
      dim: 1
      dim: 1
      dim: 1000
    }
  }
}
layer {
  name: "lstm1_cont_slice"
  type: "Slice"
  bottom: "cont"
  top: "cont_1"
  slice_param {
    axis: 0
  }
}
layer {
  name: "lstm1_x_transform"
  type: "InnerProduct"
  bottom: "x"
  top: "W_xc_x"
  param {
    name: "W_xc"
  }
  param {
    name: "b_c"
  }
  propagate_down: true
  inner_product_param {
    num_output: 4000
    bias_term: true
    weight_filler {
      type: "uniform"
      min: -0.08
      max: 0.08
    }
    bias_filler {
      type: "constant"
      value: 0
    }
    axis: 2
  }
}
layer {
  name: "lstm1_W_xc_x_slice"
  type: "Slice"
  bottom: "W_xc_x"
  top: "W_xc_x_1"
  slice_param {
    axis: 0
  }
}
layer {
  name: "lstm1_h_conted_0"
  type: "Scale"
  bottom: "h_0"
  bottom: "cont_1"
  top: "h_conted_0"
  scale_param {
    axis: 0
  }
}
layer {
  name: "lstm1_transform_1"
  type: "InnerProduct"
  bottom: "h_conted_0"
  top: "W_hc_h_0"
  param {
    name: "W_hc"
  }
  inner_product_param {
    num_output: 4000
    bias_term: false
    weight_filler {
      type: "uniform"
      min: -0.08
      max: 0.08
    }
    axis: 2
  }
}
layer {
  name: "lstm1_gate_input_1"
  type: "Eltwise"
  bottom: "W_hc_h_0"
  bottom: "W_xc_x_1"
  top: "gate_input_1"
  eltwise_param {
    operation: SUM
  }
}
layer {
  name: "lstm1_unit_1"
  type: "LSTMUnit"
  bottom: "c_0"
  bottom: "gate_input_1"
  bottom: "cont_1"
  top: "c_1"
  top: "h_1"
}
layer {
  name: "lstm1_"
  type: "Split"
  bottom: "c_1"
  top: "c_T"
}
layer {
  name: "lstm1_h_concat"
  type: "Concat"
  bottom: "h_1"
  top: "h"
  concat_param {
    axis: 0
  }
}
layer {
  name: "h_pseudoloss"
  type: "Reduction"
  bottom: "h"
  top: "h_pseudoloss"
  loss_weight: 1
}
I0720 16:16:05.187000 19729 layer_factory.hpp:77] Creating layer lstm1_
I0720 16:16:05.187019 19729 net.cpp:91] Creating Layer lstm1_
I0720 16:16:05.187031 19729 net.cpp:399] lstm1_ -> x
I0720 16:16:05.187047 19729 net.cpp:399] lstm1_ -> cont
I0720 16:16:05.187067 19729 net.cpp:141] Setting up lstm1_
I0720 16:16:05.187078 19729 net.cpp:148] Top shape: 1 1 500 (500)
I0720 16:16:05.187088 19729 net.cpp:148] Top shape: 1 1 (1)
I0720 16:16:05.187095 19729 net.cpp:156] Memory required for data: 2004
I0720 16:16:05.187103 19729 layer_factory.hpp:77] Creating layer lstm1_
I0720 16:16:05.187115 19729 net.cpp:91] Creating Layer lstm1_
I0720 16:16:05.187125 19729 net.cpp:399] lstm1_ -> c_0
I0720 16:16:05.187140 19729 net.cpp:399] lstm1_ -> h_0
I0720 16:16:05.187155 19729 net.cpp:141] Setting up lstm1_
I0720 16:16:05.187166 19729 net.cpp:148] Top shape: 1 1 1000 (1000)
I0720 16:16:05.187175 19729 net.cpp:148] Top shape: 1 1 1000 (1000)
I0720 16:16:05.187181 19729 net.cpp:156] Memory required for data: 10004
I0720 16:16:05.187189 19729 layer_factory.hpp:77] Creating layer lstm1_cont_slice
I0720 16:16:05.187202 19729 net.cpp:91] Creating Layer lstm1_cont_slice
I0720 16:16:05.187209 19729 net.cpp:425] lstm1_cont_slice <- cont
I0720 16:16:05.187221 19729 net.cpp:399] lstm1_cont_slice -> cont_1
I0720 16:16:05.187239 19729 net.cpp:141] Setting up lstm1_cont_slice
I0720 16:16:05.187252 19729 net.cpp:148] Top shape: 1 1 (1)
I0720 16:16:05.187259 19729 net.cpp:156] Memory required for data: 10008
I0720 16:16:05.187268 19729 layer_factory.hpp:77] Creating layer cont_1_lstm1_cont_slice_0_split
I0720 16:16:05.187285 19729 net.cpp:91] Creating Layer cont_1_lstm1_cont_slice_0_split
I0720 16:16:05.187294 19729 net.cpp:425] cont_1_lstm1_cont_slice_0_split <- cont_1
I0720 16:16:05.187305 19729 net.cpp:399] cont_1_lstm1_cont_slice_0_split -> cont_1_lstm1_cont_slice_0_split_0
I0720 16:16:05.187319 19729 net.cpp:399] cont_1_lstm1_cont_slice_0_split -> cont_1_lstm1_cont_slice_0_split_1
I0720 16:16:05.187335 19729 net.cpp:141] Setting up cont_1_lstm1_cont_slice_0_split
I0720 16:16:05.187350 19729 net.cpp:148] Top shape: 1 1 (1)
I0720 16:16:05.187358 19729 net.cpp:148] Top shape: 1 1 (1)
I0720 16:16:05.187366 19729 net.cpp:156] Memory required for data: 10016
I0720 16:16:05.187372 19729 layer_factory.hpp:77] Creating layer lstm1_x_transform
I0720 16:16:05.187387 19729 net.cpp:91] Creating Layer lstm1_x_transform
I0720 16:16:05.187396 19729 net.cpp:425] lstm1_x_transform <- x
I0720 16:16:05.187422 19729 net.cpp:399] lstm1_x_transform -> W_xc_x
I0720 16:16:05.190309 19754 net.cpp:141] Setting up embedding
I0720 16:16:05.190347 19754 net.cpp:148] Top shape: 1 1 500 (500)
I0720 16:16:05.190356 19754 net.cpp:156] Memory required for data: 22408
I0720 16:16:05.190374 19754 layer_factory.hpp:77] Creating layer lstm1
I0720 16:16:05.190395 19754 net.cpp:91] Creating Layer lstm1
I0720 16:16:05.190404 19754 net.cpp:425] lstm1 <- embedded_input_frames
I0720 16:16:05.190417 19754 net.cpp:425] lstm1 <- cont_sentence_input_1_split_0
I0720 16:16:05.190440 19754 net.cpp:399] lstm1 -> lstm1
I0720 16:16:05.190460 19754 recurrent_layer.cpp:20] Initializing recurrent layer: assuming input batch contains 1 timesteps of 1 independent streams.
I0720 16:16:05.190886 19754 net.cpp:49] Initializing net from parameters: 
layer {
  name: "lstm1_"
  type: "Input"
  top: "x"
  top: "cont"
  input_param {
    shape {
      dim: 1
      dim: 1
      dim: 500
    }
    shape {
      dim: 1
      dim: 1
    }
  }
}
layer {
  name: "lstm1_"
  type: "Input"
  top: "c_0"
  top: "h_0"
  input_param {
    shape {
      dim: 1
      dim: 1
      dim: 1000
    }
    shape {
      dim: 1
      dim: 1
      dim: 1000
    }
  }
}
layer {
  name: "lstm1_cont_slice"
  type: "Slice"
  bottom: "cont"
  top: "cont_1"
  slice_param {
    axis: 0
  }
}
layer {
  name: "lstm1_x_transform"
  type: "InnerProduct"
  bottom: "x"
  top: "W_xc_x"
  param {
    name: "W_xc"
  }
  param {
    name: "b_c"
  }
  propagate_down: true
  inner_product_param {
    num_output: 4000
    bias_term: true
    weight_filler {
      type: "uniform"
      min: -0.08
      max: 0.08
    }
    bias_filler {
      type: "constant"
      value: 0
    }
    axis: 2
  }
}
layer {
  name: "lstm1_W_xc_x_slice"
  type: "Slice"
  bottom: "W_xc_x"
  top: "W_xc_x_1"
  slice_param {
    axis: 0
  }
}
layer {
  name: "lstm1_h_conted_0"
  type: "Scale"
  bottom: "h_0"
  bottom: "cont_1"
  top: "h_conted_0"
  scale_param {
    axis: 0
  }
}
layer {
  name: "lstm1_transform_1"
  type: "InnerProduct"
  bottom: "h_conted_0"
  top: "W_hc_h_0"
  param {
    name: "W_hc"
  }
  inner_product_param {
    num_output: 4000
    bias_term: false
    weight_filler {
      type: "uniform"
      min: -0.08
      max: 0.08
    }
    axis: 2
  }
}
layer {
  name: "lstm1_gate_input_1"
  type: "Eltwise"
  bottom: "W_hc_h_0"
  bottom: "W_xc_x_1"
  top: "gate_input_1"
  eltwise_param {
    operation: SUM
  }
}
layer {
  name: "lstm1_unit_1"
  type: "LSTMUnit"
  bottom: "c_0"
  bottom: "gate_input_1"
  bottom: "cont_1"
  top: "c_1"
  top: "h_1"
}
layer {
  name: "lstm1_"
  type: "Split"
  bottom: "c_1"
  top: "c_T"
}
layer {
  name: "lstm1_h_concat"
  type: "Concat"
  bottom: "h_1"
  top: "h"
  concat_param {
    axis: 0
  }
}
layer {
  name: "h_pseudoloss"
  type: "Reduction"
  bottom: "h"
  top: "h_pseudoloss"
  loss_weight: 1
}
I0720 16:16:05.191031 19754 layer_factory.hpp:77] Creating layer lstm1_
I0720 16:16:05.191050 19754 net.cpp:91] Creating Layer lstm1_
I0720 16:16:05.191058 19754 net.cpp:399] lstm1_ -> x
I0720 16:16:05.191074 19754 net.cpp:399] lstm1_ -> cont
I0720 16:16:05.191092 19754 net.cpp:141] Setting up lstm1_
I0720 16:16:05.191102 19754 net.cpp:148] Top shape: 1 1 500 (500)
I0720 16:16:05.191112 19754 net.cpp:148] Top shape: 1 1 (1)
I0720 16:16:05.191118 19754 net.cpp:156] Memory required for data: 2004
I0720 16:16:05.191124 19754 layer_factory.hpp:77] Creating layer lstm1_
I0720 16:16:05.191135 19754 net.cpp:91] Creating Layer lstm1_
I0720 16:16:05.191145 19754 net.cpp:399] lstm1_ -> c_0
I0720 16:16:05.191160 19754 net.cpp:399] lstm1_ -> h_0
I0720 16:16:05.191174 19754 net.cpp:141] Setting up lstm1_
I0720 16:16:05.191184 19754 net.cpp:148] Top shape: 1 1 1000 (1000)
I0720 16:16:05.191192 19754 net.cpp:148] Top shape: 1 1 1000 (1000)
I0720 16:16:05.191198 19754 net.cpp:156] Memory required for data: 10004
I0720 16:16:05.191205 19754 layer_factory.hpp:77] Creating layer lstm1_cont_slice
I0720 16:16:05.191215 19754 net.cpp:91] Creating Layer lstm1_cont_slice
I0720 16:16:05.191222 19754 net.cpp:425] lstm1_cont_slice <- cont
I0720 16:16:05.191251 19754 net.cpp:399] lstm1_cont_slice -> cont_1
I0720 16:16:05.191269 19754 net.cpp:141] Setting up lstm1_cont_slice
I0720 16:16:05.191280 19754 net.cpp:148] Top shape: 1 1 (1)
I0720 16:16:05.191287 19754 net.cpp:156] Memory required for data: 10008
I0720 16:16:05.191293 19754 layer_factory.hpp:77] Creating layer cont_1_lstm1_cont_slice_0_split
I0720 16:16:05.191304 19754 net.cpp:91] Creating Layer cont_1_lstm1_cont_slice_0_split
I0720 16:16:05.191310 19754 net.cpp:425] cont_1_lstm1_cont_slice_0_split <- cont_1
I0720 16:16:05.191325 19754 net.cpp:399] cont_1_lstm1_cont_slice_0_split -> cont_1_lstm1_cont_slice_0_split_0
I0720 16:16:05.191337 19754 net.cpp:399] cont_1_lstm1_cont_slice_0_split -> cont_1_lstm1_cont_slice_0_split_1
I0720 16:16:05.191350 19754 net.cpp:141] Setting up cont_1_lstm1_cont_slice_0_split
I0720 16:16:05.191360 19754 net.cpp:148] Top shape: 1 1 (1)
I0720 16:16:05.191368 19754 net.cpp:148] Top shape: 1 1 (1)
I0720 16:16:05.191375 19754 net.cpp:156] Memory required for data: 10016
I0720 16:16:05.191380 19754 layer_factory.hpp:77] Creating layer lstm1_x_transform
I0720 16:16:05.191395 19754 net.cpp:91] Creating Layer lstm1_x_transform
I0720 16:16:05.191401 19754 net.cpp:425] lstm1_x_transform <- x
I0720 16:16:05.191447 19754 net.cpp:399] lstm1_x_transform -> W_xc_x
I0720 16:16:05.192646 19725 net.cpp:141] Setting up embedding
I0720 16:16:05.192668 19725 net.cpp:148] Top shape: 1 1 500 (500)
I0720 16:16:05.192675 19725 net.cpp:156] Memory required for data: 22408
I0720 16:16:05.192692 19725 layer_factory.hpp:77] Creating layer lstm1
I0720 16:16:05.192708 19725 net.cpp:91] Creating Layer lstm1
I0720 16:16:05.192716 19725 net.cpp:425] lstm1 <- embedded_input_frames
I0720 16:16:05.192726 19725 net.cpp:425] lstm1 <- cont_sentence_input_1_split_0
I0720 16:16:05.192750 19725 net.cpp:399] lstm1 -> lstm1
I0720 16:16:05.192767 19725 recurrent_layer.cpp:20] Initializing recurrent layer: assuming input batch contains 1 timesteps of 1 independent streams.
I0720 16:16:05.193609 19725 net.cpp:49] Initializing net from parameters: 
layer {
  name: "lstm1_"
  type: "Input"
  top: "x"
  top: "cont"
  input_param {
    shape {
      dim: 1
      dim: 1
      dim: 500
    }
    shape {
      dim: 1
      dim: 1
    }
  }
}
layer {
  name: "lstm1_"
  type: "Input"
  top: "c_0"
  top: "h_0"
  input_param {
    shape {
      dim: 1
      dim: 1
      dim: 1000
    }
    shape {
      dim: 1
      dim: 1
      dim: 1000
    }
  }
}
layer {
  name: "lstm1_cont_slice"
  type: "Slice"
  bottom: "cont"
  top: "cont_1"
  slice_param {
    axis: 0
  }
}
layer {
  name: "lstm1_x_transform"
  type: "InnerProduct"
  bottom: "x"
  top: "W_xc_x"
  param {
    name: "W_xc"
  }
  param {
    name: "b_c"
  }
  propagate_down: true
  inner_product_param {
    num_output: 4000
    bias_term: true
    weight_filler {
      type: "uniform"
      min: -0.08
      max: 0.08
    }
    bias_filler {
      type: "constant"
      value: 0
    }
    axis: 2
  }
}
layer {
  name: "lstm1_W_xc_x_slice"
  type: "Slice"
  bottom: "W_xc_x"
  top: "W_xc_x_1"
  slice_param {
    axis: 0
  }
}
layer {
  name: "lstm1_h_conted_0"
  type: "Scale"
  bottom: "h_0"
  bottom: "cont_1"
  top: "h_conted_0"
  scale_param {
    axis: 0
  }
}
layer {
  name: "lstm1_transform_1"
  type: "InnerProduct"
  bottom: "h_conted_0"
  top: "W_hc_h_0"
  param {
    name: "W_hc"
  }
  inner_product_param {
    num_output: 4000
    bias_term: false
    weight_filler {
      type: "uniform"
      min: -0.08
      max: 0.08
    }
    axis: 2
  }
}
layer {
  name: "lstm1_gate_input_1"
  type: "Eltwise"
  bottom: "W_hc_h_0"
  bottom: "W_xc_x_1"
  top: "gate_input_1"
  eltwise_param {
    operation: SUM
  }
}
layer {
  name: "lstm1_unit_1"
  type: "LSTMUnit"
  bottom: "c_0"
  bottom: "gate_input_1"
  bottom: "cont_1"
  top: "c_1"
  top: "h_1"
}
layer {
  name: "lstm1_"
  type: "Split"
  bottom: "c_1"
  top: "c_T"
}
layer {
  name: "lstm1_h_concat"
  type: "Concat"
  bottom: "h_1"
  top: "h"
  concat_param {
    axis: 0
  }
}
layer {
  name: "h_pseudoloss"
  type: "Reduction"
  bottom: "h"
  top: "h_pseudoloss"
  loss_weight: 1
}
I0720 16:16:05.193735 19725 layer_factory.hpp:77] Creating layer lstm1_
I0720 16:16:05.193752 19725 net.cpp:91] Creating Layer lstm1_
I0720 16:16:05.193761 19725 net.cpp:399] lstm1_ -> x
I0720 16:16:05.193776 19725 net.cpp:399] lstm1_ -> cont
I0720 16:16:05.193794 19725 net.cpp:141] Setting up lstm1_
I0720 16:16:05.193804 19725 net.cpp:148] Top shape: 1 1 500 (500)
I0720 16:16:05.193814 19725 net.cpp:148] Top shape: 1 1 (1)
I0720 16:16:05.193820 19725 net.cpp:156] Memory required for data: 2004
I0720 16:16:05.193827 19725 layer_factory.hpp:77] Creating layer lstm1_
I0720 16:16:05.193838 19725 net.cpp:91] Creating Layer lstm1_
I0720 16:16:05.193847 19725 net.cpp:399] lstm1_ -> c_0
I0720 16:16:05.193861 19725 net.cpp:399] lstm1_ -> h_0
I0720 16:16:05.193873 19725 net.cpp:141] Setting up lstm1_
I0720 16:16:05.193883 19725 net.cpp:148] Top shape: 1 1 1000 (1000)
I0720 16:16:05.193892 19725 net.cpp:148] Top shape: 1 1 1000 (1000)
I0720 16:16:05.193898 19725 net.cpp:156] Memory required for data: 10004
I0720 16:16:05.193905 19725 layer_factory.hpp:77] Creating layer lstm1_cont_slice
I0720 16:16:05.193915 19725 net.cpp:91] Creating Layer lstm1_cont_slice
I0720 16:16:05.193922 19725 net.cpp:425] lstm1_cont_slice <- cont
I0720 16:16:05.193933 19725 net.cpp:399] lstm1_cont_slice -> cont_1
I0720 16:16:05.193948 19725 net.cpp:141] Setting up lstm1_cont_slice
I0720 16:16:05.193958 19725 net.cpp:148] Top shape: 1 1 (1)
I0720 16:16:05.193965 19725 net.cpp:156] Memory required for data: 10008
I0720 16:16:05.193971 19725 layer_factory.hpp:77] Creating layer cont_1_lstm1_cont_slice_0_split
I0720 16:16:05.193997 19725 net.cpp:91] Creating Layer cont_1_lstm1_cont_slice_0_split
I0720 16:16:05.194006 19725 net.cpp:425] cont_1_lstm1_cont_slice_0_split <- cont_1
I0720 16:16:05.194017 19725 net.cpp:399] cont_1_lstm1_cont_slice_0_split -> cont_1_lstm1_cont_slice_0_split_0
I0720 16:16:05.194030 19725 net.cpp:399] cont_1_lstm1_cont_slice_0_split -> cont_1_lstm1_cont_slice_0_split_1
I0720 16:16:05.194044 19725 net.cpp:141] Setting up cont_1_lstm1_cont_slice_0_split
I0720 16:16:05.194056 19725 net.cpp:148] Top shape: 1 1 (1)
I0720 16:16:05.194066 19725 net.cpp:148] Top shape: 1 1 (1)
I0720 16:16:05.194072 19725 net.cpp:156] Memory required for data: 10016
I0720 16:16:05.194078 19725 layer_factory.hpp:77] Creating layer lstm1_x_transform
I0720 16:16:05.194092 19725 net.cpp:91] Creating Layer lstm1_x_transform
I0720 16:16:05.194098 19725 net.cpp:425] lstm1_x_transform <- x
I0720 16:16:05.194116 19725 net.cpp:399] lstm1_x_transform -> W_xc_x
I0720 16:16:05.200431 19740 net.cpp:141] Setting up embedding
I0720 16:16:05.200469 19740 net.cpp:148] Top shape: 1 1 500 (500)
I0720 16:16:05.200474 19740 net.cpp:156] Memory required for data: 22408
I0720 16:16:05.200489 19740 layer_factory.hpp:77] Creating layer lstm1
I0720 16:16:05.200515 19740 net.cpp:91] Creating Layer lstm1
I0720 16:16:05.200522 19740 net.cpp:425] lstm1 <- embedded_input_frames
I0720 16:16:05.200531 19740 net.cpp:425] lstm1 <- cont_sentence_input_1_split_0
I0720 16:16:05.200541 19740 net.cpp:399] lstm1 -> lstm1
I0720 16:16:05.200556 19740 recurrent_layer.cpp:20] Initializing recurrent layer: assuming input batch contains 1 timesteps of 1 independent streams.
I0720 16:16:05.200834 19740 net.cpp:49] Initializing net from parameters: 
layer {
  name: "lstm1_"
  type: "Input"
  top: "x"
  top: "cont"
  input_param {
    shape {
      dim: 1
      dim: 1
      dim: 500
    }
    shape {
      dim: 1
      dim: 1
    }
  }
}
layer {
  name: "lstm1_"
  type: "Input"
  top: "c_0"
  top: "h_0"
  input_param {
    shape {
      dim: 1
      dim: 1
      dim: 1000
    }
    shape {
      dim: 1
      dim: 1
      dim: 1000
    }
  }
}
layer {
  name: "lstm1_cont_slice"
  type: "Slice"
  bottom: "cont"
  top: "cont_1"
  slice_param {
    axis: 0
  }
}
layer {
  name: "lstm1_x_transform"
  type: "InnerProduct"
  bottom: "x"
  top: "W_xc_x"
  param {
    name: "W_xc"
  }
  param {
    name: "b_c"
  }
  propagate_down: true
  inner_product_param {
    num_output: 4000
    bias_term: true
    weight_filler {
      type: "uniform"
      min: -0.08
      max: 0.08
    }
    bias_filler {
      type: "constant"
      value: 0
    }
    axis: 2
  }
}
layer {
  name: "lstm1_W_xc_x_slice"
  type: "Slice"
  bottom: "W_xc_x"
  top: "W_xc_x_1"
  slice_param {
    axis: 0
  }
}
layer {
  name: "lstm1_h_conted_0"
  type: "Scale"
  bottom: "h_0"
  bottom: "cont_1"
  top: "h_conted_0"
  scale_param {
    axis: 0
  }
}
layer {
  name: "lstm1_transform_1"
  type: "InnerProduct"
  bottom: "h_conted_0"
  top: "W_hc_h_0"
  param {
    name: "W_hc"
  }
  inner_product_param {
    num_output: 4000
    bias_term: false
    weight_filler {
      type: "uniform"
      min: -0.08
      max: 0.08
    }
    axis: 2
  }
}
layer {
  name: "lstm1_gate_input_1"
  type: "Eltwise"
  bottom: "W_hc_h_0"
  bottom: "W_xc_x_1"
  top: "gate_input_1"
  eltwise_param {
    operation: SUM
  }
}
layer {
  name: "lstm1_unit_1"
  type: "LSTMUnit"
  bottom: "c_0"
  bottom: "gate_input_1"
  bottom: "cont_1"
  top: "c_1"
  top: "h_1"
}
layer {
  name: "lstm1_"
  type: "Split"
  bottom: "c_1"
  top: "c_T"
}
layer {
  name: "lstm1_h_concat"
  type: "Concat"
  bottom: "h_1"
  top: "h"
  concat_param {
    axis: 0
  }
}
layer {
  name: "h_pseudoloss"
  type: "Reduction"
  bottom: "h"
  top: "h_pseudoloss"
  loss_weight: 1
}
I0720 16:16:05.200949 19740 layer_factory.hpp:77] Creating layer lstm1_
I0720 16:16:05.200968 19740 net.cpp:91] Creating Layer lstm1_
I0720 16:16:05.200976 19740 net.cpp:399] lstm1_ -> x
I0720 16:16:05.200991 19740 net.cpp:399] lstm1_ -> cont
I0720 16:16:05.201010 19740 net.cpp:141] Setting up lstm1_
I0720 16:16:05.201023 19740 net.cpp:148] Top shape: 1 1 500 (500)
I0720 16:16:05.201035 19740 net.cpp:148] Top shape: 1 1 (1)
I0720 16:16:05.201041 19740 net.cpp:156] Memory required for data: 2004
I0720 16:16:05.201050 19740 layer_factory.hpp:77] Creating layer lstm1_
I0720 16:16:05.201061 19740 net.cpp:91] Creating Layer lstm1_
I0720 16:16:05.201072 19740 net.cpp:399] lstm1_ -> c_0
I0720 16:16:05.201087 19740 net.cpp:399] lstm1_ -> h_0
I0720 16:16:05.201102 19740 net.cpp:141] Setting up lstm1_
I0720 16:16:05.201112 19740 net.cpp:148] Top shape: 1 1 1000 (1000)
I0720 16:16:05.201122 19740 net.cpp:148] Top shape: 1 1 1000 (1000)
I0720 16:16:05.201128 19740 net.cpp:156] Memory required for data: 10004
I0720 16:16:05.201135 19740 layer_factory.hpp:77] Creating layer lstm1_cont_slice
I0720 16:16:05.201148 19740 net.cpp:91] Creating Layer lstm1_cont_slice
I0720 16:16:05.201159 19740 net.cpp:425] lstm1_cont_slice <- cont
I0720 16:16:05.201169 19740 net.cpp:399] lstm1_cont_slice -> cont_1
I0720 16:16:05.201189 19740 net.cpp:141] Setting up lstm1_cont_slice
I0720 16:16:05.201198 19740 net.cpp:148] Top shape: 1 1 (1)
I0720 16:16:05.201205 19740 net.cpp:156] Memory required for data: 10008
I0720 16:16:05.201212 19740 layer_factory.hpp:77] Creating layer cont_1_lstm1_cont_slice_0_split
I0720 16:16:05.201222 19740 net.cpp:91] Creating Layer cont_1_lstm1_cont_slice_0_split
I0720 16:16:05.201231 19740 net.cpp:425] cont_1_lstm1_cont_slice_0_split <- cont_1
I0720 16:16:05.201246 19740 net.cpp:399] cont_1_lstm1_cont_slice_0_split -> cont_1_lstm1_cont_slice_0_split_0
I0720 16:16:05.201259 19740 net.cpp:399] cont_1_lstm1_cont_slice_0_split -> cont_1_lstm1_cont_slice_0_split_1
I0720 16:16:05.201273 19740 net.cpp:141] Setting up cont_1_lstm1_cont_slice_0_split
I0720 16:16:05.201283 19740 net.cpp:148] Top shape: 1 1 (1)
I0720 16:16:05.201293 19740 net.cpp:148] Top shape: 1 1 (1)
I0720 16:16:05.201300 19740 net.cpp:156] Memory required for data: 10016
I0720 16:16:05.201308 19740 layer_factory.hpp:77] Creating layer lstm1_x_transform
I0720 16:16:05.201326 19740 net.cpp:91] Creating Layer lstm1_x_transform
I0720 16:16:05.201335 19740 net.cpp:425] lstm1_x_transform <- x
I0720 16:16:05.201347 19740 net.cpp:399] lstm1_x_transform -> W_xc_x
I0720 16:16:05.204198 19721 net.cpp:141] Setting up lstm1_x_transform
I0720 16:16:05.204265 19721 net.cpp:148] Top shape: 1 1 4000 (4000)
I0720 16:16:05.204278 19721 net.cpp:156] Memory required for data: 26016
I0720 16:16:05.204313 19721 layer_factory.hpp:77] Creating layer lstm1_W_xc_x_slice
I0720 16:16:05.204339 19721 net.cpp:91] Creating Layer lstm1_W_xc_x_slice
I0720 16:16:05.204352 19721 net.cpp:425] lstm1_W_xc_x_slice <- W_xc_x
I0720 16:16:05.204368 19721 net.cpp:399] lstm1_W_xc_x_slice -> W_xc_x_1
I0720 16:16:05.204427 19721 net.cpp:141] Setting up lstm1_W_xc_x_slice
I0720 16:16:05.204445 19721 net.cpp:148] Top shape: 1 1 4000 (4000)
I0720 16:16:05.204454 19721 net.cpp:156] Memory required for data: 42016
I0720 16:16:05.204463 19721 layer_factory.hpp:77] Creating layer lstm1_h_conted_0
I0720 16:16:05.204480 19721 net.cpp:91] Creating Layer lstm1_h_conted_0
I0720 16:16:05.204491 19721 net.cpp:425] lstm1_h_conted_0 <- h_0
I0720 16:16:05.204502 19721 net.cpp:425] lstm1_h_conted_0 <- cont_1_lstm1_cont_slice_0_split_0
I0720 16:16:05.204519 19721 net.cpp:399] lstm1_h_conted_0 -> h_conted_0
I0720 16:16:05.204553 19721 net.cpp:141] Setting up lstm1_h_conted_0
I0720 16:16:05.204569 19721 net.cpp:148] Top shape: 1 1 1000 (1000)
I0720 16:16:05.204577 19721 net.cpp:156] Memory required for data: 46016
I0720 16:16:05.204586 19721 layer_factory.hpp:77] Creating layer lstm1_transform_1
I0720 16:16:05.204604 19721 net.cpp:91] Creating Layer lstm1_transform_1
I0720 16:16:05.204615 19721 net.cpp:425] lstm1_transform_1 <- h_conted_0
I0720 16:16:05.204635 19721 net.cpp:399] lstm1_transform_1 -> W_hc_h_0
I0720 16:16:05.212399 19725 net.cpp:141] Setting up lstm1_x_transform
I0720 16:16:05.212446 19725 net.cpp:148] Top shape: 1 1 4000 (4000)
I0720 16:16:05.212456 19725 net.cpp:156] Memory required for data: 26016
I0720 16:16:05.212483 19725 layer_factory.hpp:77] Creating layer lstm1_W_xc_x_slice
I0720 16:16:05.212503 19725 net.cpp:91] Creating Layer lstm1_W_xc_x_slice
I0720 16:16:05.212514 19725 net.cpp:425] lstm1_W_xc_x_slice <- W_xc_x
I0720 16:16:05.212529 19725 net.cpp:399] lstm1_W_xc_x_slice -> W_xc_x_1
I0720 16:16:05.212570 19725 net.cpp:141] Setting up lstm1_W_xc_x_slice
I0720 16:16:05.212589 19725 net.cpp:148] Top shape: 1 1 4000 (4000)
I0720 16:16:05.212596 19725 net.cpp:156] Memory required for data: 42016
I0720 16:16:05.212604 19725 layer_factory.hpp:77] Creating layer lstm1_h_conted_0
I0720 16:16:05.212618 19725 net.cpp:91] Creating Layer lstm1_h_conted_0
I0720 16:16:05.212627 19725 net.cpp:425] lstm1_h_conted_0 <- h_0
I0720 16:16:05.212636 19725 net.cpp:425] lstm1_h_conted_0 <- cont_1_lstm1_cont_slice_0_split_0
I0720 16:16:05.212651 19725 net.cpp:399] lstm1_h_conted_0 -> h_conted_0
I0720 16:16:05.212685 19725 net.cpp:141] Setting up lstm1_h_conted_0
I0720 16:16:05.212698 19725 net.cpp:148] Top shape: 1 1 1000 (1000)
I0720 16:16:05.212707 19725 net.cpp:156] Memory required for data: 46016
I0720 16:16:05.212714 19725 layer_factory.hpp:77] Creating layer lstm1_transform_1
I0720 16:16:05.212730 19725 net.cpp:91] Creating Layer lstm1_transform_1
I0720 16:16:05.212738 19725 net.cpp:425] lstm1_transform_1 <- h_conted_0
I0720 16:16:05.212760 19725 net.cpp:399] lstm1_transform_1 -> W_hc_h_0
I0720 16:16:05.214078 19752 net.cpp:141] Setting up embedding
I0720 16:16:05.214104 19752 net.cpp:148] Top shape: 1 1 500 (500)
I0720 16:16:05.214112 19752 net.cpp:156] Memory required for data: 22408
I0720 16:16:05.214123 19752 layer_factory.hpp:77] Creating layer lstm1
I0720 16:16:05.214736 19752 net.cpp:91] Creating Layer lstm1
I0720 16:16:05.214756 19752 net.cpp:425] lstm1 <- embedded_input_frames
I0720 16:16:05.214771 19752 net.cpp:425] lstm1 <- cont_sentence_input_1_split_0
I0720 16:16:05.214787 19752 net.cpp:399] lstm1 -> lstm1
I0720 16:16:05.215317 19752 recurrent_layer.cpp:20] Initializing recurrent layer: assuming input batch contains 1 timesteps of 1 independent streams.
I0720 16:16:05.215490 19729 net.cpp:141] Setting up lstm1_x_transform
I0720 16:16:05.215543 19729 net.cpp:148] Top shape: 1 1 4000 (4000)
I0720 16:16:05.215553 19729 net.cpp:156] Memory required for data: 26016
I0720 16:16:05.215571 19729 layer_factory.hpp:77] Creating layer lstm1_W_xc_x_slice
I0720 16:16:05.215585 19729 net.cpp:91] Creating Layer lstm1_W_xc_x_slice
I0720 16:16:05.215593 19729 net.cpp:425] lstm1_W_xc_x_slice <- W_xc_x
I0720 16:16:05.215605 19729 net.cpp:399] lstm1_W_xc_x_slice -> W_xc_x_1
I0720 16:16:05.215672 19729 net.cpp:141] Setting up lstm1_W_xc_x_slice
I0720 16:16:05.215689 19729 net.cpp:148] Top shape: 1 1 4000 (4000)
I0720 16:16:05.215697 19729 net.cpp:156] Memory required for data: 42016
I0720 16:16:05.215703 19729 layer_factory.hpp:77] Creating layer lstm1_h_conted_0
I0720 16:16:05.215716 19729 net.cpp:91] Creating Layer lstm1_h_conted_0
I0720 16:16:05.215724 19729 net.cpp:425] lstm1_h_conted_0 <- h_0
I0720 16:16:05.215734 19729 net.cpp:425] lstm1_h_conted_0 <- cont_1_lstm1_cont_slice_0_split_0
I0720 16:16:05.215764 19729 net.cpp:399] lstm1_h_conted_0 -> h_conted_0
I0720 16:16:05.215849 19729 net.cpp:141] Setting up lstm1_h_conted_0
I0720 16:16:05.215864 19729 net.cpp:148] Top shape: 1 1 1000 (1000)
I0720 16:16:05.215870 19729 net.cpp:156] Memory required for data: 46016
I0720 16:16:05.215878 19729 layer_factory.hpp:77] Creating layer lstm1_transform_1
I0720 16:16:05.215893 19729 net.cpp:91] Creating Layer lstm1_transform_1
I0720 16:16:05.215899 19729 net.cpp:425] lstm1_transform_1 <- h_conted_0
I0720 16:16:05.215930 19729 net.cpp:399] lstm1_transform_1 -> W_hc_h_0
I0720 16:16:05.215929 19752 net.cpp:49] Initializing net from parameters: 
layer {
  name: "lstm1_"
  type: "Input"
  top: "x"
  top: "cont"
  input_param {
    shape {
      dim: 1
      dim: 1
      dim: 500
    }
    shape {
      dim: 1
      dim: 1
    }
  }
}
layer {
  name: "lstm1_"
  type: "Input"
  top: "c_0"
  top: "h_0"
  input_param {
    shape {
      dim: 1
      dim: 1
      dim: 1000
    }
    shape {
      dim: 1
      dim: 1
      dim: 1000
    }
  }
}
layer {
  name: "lstm1_cont_slice"
  type: "Slice"
  bottom: "cont"
  top: "cont_1"
  slice_param {
    axis: 0
  }
}
layer {
  name: "lstm1_x_transform"
  type: "InnerProduct"
  bottom: "x"
  top: "W_xc_x"
  param {
    name: "W_xc"
  }
  param {
    name: "b_c"
  }
  propagate_down: true
  inner_product_param {
    num_output: 4000
    bias_term: true
    weight_filler {
      type: "uniform"
      min: -0.08
      max: 0.08
    }
    bias_filler {
      type: "constant"
      value: 0
    }
    axis: 2
  }
}
layer {
  name: "lstm1_W_xc_x_slice"
  type: "Slice"
  bottom: "W_xc_x"
  top: "W_xc_x_1"
  slice_param {
    axis: 0
  }
}
layer {
  name: "lstm1_h_conted_0"
  type: "Scale"
  bottom: "h_0"
  bottom: "cont_1"
  top: "h_conted_0"
  scale_param {
    axis: 0
  }
}
layer {
  name: "lstm1_transform_1"
  type: "InnerProduct"
  bottom: "h_conted_0"
  top: "W_hc_h_0"
  param {
    name: "W_hc"
  }
  inner_product_param {
    num_output: 4000
    bias_term: false
    weight_filler {
      type: "uniform"
      min: -0.08
      max: 0.08
    }
    axis: 2
  }
}
layer {
  name: "lstm1_gate_input_1"
  type: "Eltwise"
  bottom: "W_hc_h_0"
  bottom: "W_xc_x_1"
  top: "gate_input_1"
  eltwise_param {
    operation: SUM
  }
}
layer {
  name: "lstm1_unit_1"
  type: "LSTMUnit"
  bottom: "c_0"
  bottom: "gate_input_1"
  bottom: "cont_1"
  top: "c_1"
  top: "h_1"
}
layer {
  name: "lstm1_"
  type: "Split"
  bottom: "c_1"
  top: "c_T"
}
layer {
  name: "lstm1_h_concat"
  type: "Concat"
  bottom: "h_1"
  top: "h"
  concat_param {
    axis: 0
  }
}
layer {
  name: "h_pseudoloss"
  type: "Reduction"
  bottom: "h"
  top: "h_pseudoloss"
  loss_weight: 1
}
I0720 16:16:05.216632 19752 layer_factory.hpp:77] Creating layer lstm1_
I0720 16:16:05.216657 19752 net.cpp:91] Creating Layer lstm1_
I0720 16:16:05.216671 19752 net.cpp:399] lstm1_ -> x
I0720 16:16:05.216692 19752 net.cpp:399] lstm1_ -> cont
I0720 16:16:05.216713 19752 net.cpp:141] Setting up lstm1_
I0720 16:16:05.216727 19752 net.cpp:148] Top shape: 1 1 500 (500)
I0720 16:16:05.216738 19752 net.cpp:148] Top shape: 1 1 (1)
I0720 16:16:05.216747 19752 net.cpp:156] Memory required for data: 2004
I0720 16:16:05.216756 19752 layer_factory.hpp:77] Creating layer lstm1_
I0720 16:16:05.216771 19752 net.cpp:91] Creating Layer lstm1_
I0720 16:16:05.216784 19752 net.cpp:399] lstm1_ -> c_0
I0720 16:16:05.216801 19752 net.cpp:399] lstm1_ -> h_0
I0720 16:16:05.216820 19752 net.cpp:141] Setting up lstm1_
I0720 16:16:05.216833 19752 net.cpp:148] Top shape: 1 1 1000 (1000)
I0720 16:16:05.216845 19752 net.cpp:148] Top shape: 1 1 1000 (1000)
I0720 16:16:05.216852 19752 net.cpp:156] Memory required for data: 10004
I0720 16:16:05.216861 19752 layer_factory.hpp:77] Creating layer lstm1_cont_slice
I0720 16:16:05.217185 19752 net.cpp:91] Creating Layer lstm1_cont_slice
I0720 16:16:05.217201 19752 net.cpp:425] lstm1_cont_slice <- cont
I0720 16:16:05.217216 19752 net.cpp:399] lstm1_cont_slice -> cont_1
I0720 16:16:05.217238 19752 net.cpp:141] Setting up lstm1_cont_slice
I0720 16:16:05.217254 19752 net.cpp:148] Top shape: 1 1 (1)
I0720 16:16:05.217263 19752 net.cpp:156] Memory required for data: 10008
I0720 16:16:05.217272 19752 layer_factory.hpp:77] Creating layer cont_1_lstm1_cont_slice_0_split
I0720 16:16:05.217289 19752 net.cpp:91] Creating Layer cont_1_lstm1_cont_slice_0_split
I0720 16:16:05.217300 19752 net.cpp:425] cont_1_lstm1_cont_slice_0_split <- cont_1
I0720 16:16:05.217314 19752 net.cpp:399] cont_1_lstm1_cont_slice_0_split -> cont_1_lstm1_cont_slice_0_split_0
I0720 16:16:05.217329 19752 net.cpp:399] cont_1_lstm1_cont_slice_0_split -> cont_1_lstm1_cont_slice_0_split_1
I0720 16:16:05.217347 19752 net.cpp:141] Setting up cont_1_lstm1_cont_slice_0_split
I0720 16:16:05.217360 19752 net.cpp:148] Top shape: 1 1 (1)
I0720 16:16:05.217371 19752 net.cpp:148] Top shape: 1 1 (1)
I0720 16:16:05.217378 19752 net.cpp:156] Memory required for data: 10016
I0720 16:16:05.217387 19752 layer_factory.hpp:77] Creating layer lstm1_x_transform
I0720 16:16:05.217772 19752 net.cpp:91] Creating Layer lstm1_x_transform
I0720 16:16:05.217789 19752 net.cpp:425] lstm1_x_transform <- x
I0720 16:16:05.217821 19752 net.cpp:399] lstm1_x_transform -> W_xc_x
I0720 16:16:05.218997 19754 net.cpp:141] Setting up lstm1_x_transform
I0720 16:16:05.219017 19754 net.cpp:148] Top shape: 1 1 4000 (4000)
I0720 16:16:05.219023 19754 net.cpp:156] Memory required for data: 26016
I0720 16:16:05.219043 19754 layer_factory.hpp:77] Creating layer lstm1_W_xc_x_slice
I0720 16:16:05.219056 19754 net.cpp:91] Creating Layer lstm1_W_xc_x_slice
I0720 16:16:05.219064 19754 net.cpp:425] lstm1_W_xc_x_slice <- W_xc_x
I0720 16:16:05.219590 19754 net.cpp:399] lstm1_W_xc_x_slice -> W_xc_x_1
I0720 16:16:05.219585 19742 net.cpp:141] Setting up embedding
I0720 16:16:05.219615 19754 net.cpp:141] Setting up lstm1_W_xc_x_slice
I0720 16:16:05.219629 19742 net.cpp:148] Top shape: 1 1 500 (500)
I0720 16:16:05.219630 19754 net.cpp:148] Top shape: 1 1 4000 (4000)
I0720 16:16:05.219645 19742 net.cpp:156] Memory required for data: 22408
I0720 16:16:05.219650 19754 net.cpp:156] Memory required for data: 42016
I0720 16:16:05.219658 19754 layer_factory.hpp:77] Creating layer lstm1_h_conted_0
I0720 16:16:05.219668 19742 layer_factory.hpp:77] Creating layer lstm1
I0720 16:16:05.219674 19754 net.cpp:91] Creating Layer lstm1_h_conted_0
I0720 16:16:05.219683 19754 net.cpp:425] lstm1_h_conted_0 <- h_0
I0720 16:16:05.219692 19754 net.cpp:425] lstm1_h_conted_0 <- cont_1_lstm1_cont_slice_0_split_0
I0720 16:16:05.219693 19742 net.cpp:91] Creating Layer lstm1
I0720 16:16:05.219704 19754 net.cpp:399] lstm1_h_conted_0 -> h_conted_0
I0720 16:16:05.219707 19742 net.cpp:425] lstm1 <- embedded_input_frames
I0720 16:16:05.219720 19742 net.cpp:425] lstm1 <- cont_sentence_input_1_split_0
I0720 16:16:05.220257 19754 net.cpp:141] Setting up lstm1_h_conted_0
I0720 16:16:05.220258 19742 net.cpp:399] lstm1 -> lstm1
I0720 16:16:05.220274 19754 net.cpp:148] Top shape: 1 1 1000 (1000)
I0720 16:16:05.220283 19754 net.cpp:156] Memory required for data: 46016
I0720 16:16:05.220289 19754 layer_factory.hpp:77] Creating layer lstm1_transform_1
I0720 16:16:05.220294 19742 recurrent_layer.cpp:20] Initializing recurrent layer: assuming input batch contains 1 timesteps of 1 independent streams.
I0720 16:16:05.220317 19754 net.cpp:91] Creating Layer lstm1_transform_1
I0720 16:16:05.220327 19754 net.cpp:425] lstm1_transform_1 <- h_conted_0
I0720 16:16:05.220338 19754 net.cpp:399] lstm1_transform_1 -> W_hc_h_0
I0720 16:16:05.220814 19742 net.cpp:49] Initializing net from parameters: 
layer {
  name: "lstm1_"
  type: "Input"
  top: "x"
  top: "cont"
  input_param {
    shape {
      dim: 1
      dim: 1
      dim: 500
    }
    shape {
      dim: 1
      dim: 1
    }
  }
}
layer {
  name: "lstm1_"
  type: "Input"
  top: "c_0"
  top: "h_0"
  input_param {
    shape {
      dim: 1
      dim: 1
      dim: 1000
    }
    shape {
      dim: 1
      dim: 1
      dim: 1000
    }
  }
}
layer {
  name: "lstm1_cont_slice"
  type: "Slice"
  bottom: "cont"
  top: "cont_1"
  slice_param {
    axis: 0
  }
}
layer {
  name: "lstm1_x_transform"
  type: "InnerProduct"
  bottom: "x"
  top: "W_xc_x"
  param {
    name: "W_xc"
  }
  param {
    name: "b_c"
  }
  propagate_down: true
  inner_product_param {
    num_output: 4000
    bias_term: true
    weight_filler {
      type: "uniform"
      min: -0.08
      max: 0.08
    }
    bias_filler {
      type: "constant"
      value: 0
    }
    axis: 2
  }
}
layer {
  name: "lstm1_W_xc_x_slice"
  type: "Slice"
  bottom: "W_xc_x"
  top: "W_xc_x_1"
  slice_param {
    axis: 0
  }
}
layer {
  name: "lstm1_h_conted_0"
  type: "Scale"
  bottom: "h_0"
  bottom: "cont_1"
  top: "h_conted_0"
  scale_param {
    axis: 0
  }
}
layer {
  name: "lstm1_transform_1"
  type: "InnerProduct"
  bottom: "h_conted_0"
  top: "W_hc_h_0"
  param {
    name: "W_hc"
  }
  inner_product_param {
    num_output: 4000
    bias_term: false
    weight_filler {
      type: "uniform"
      min: -0.08
      max: 0.08
    }
    axis: 2
  }
}
layer {
  name: "lstm1_gate_input_1"
  type: "Eltwise"
  bottom: "W_hc_h_0"
  bottom: "W_xc_x_1"
  top: "gate_input_1"
  eltwise_param {
    operation: SUM
  }
}
layer {
  name: "lstm1_unit_1"
  type: "LSTMUnit"
  bottom: "c_0"
  bottom: "gate_input_1"
  bottom: "cont_1"
  top: "c_1"
  top: "h_1"
}
layer {
  name: "lstm1_"
  type: "Split"
  bottom: "c_1"
  top: "c_T"
}
layer {
  name: "lstm1_h_concat"
  type: "Concat"
  bottom: "h_1"
  top: "h"
  concat_param {
    axis: 0
  }
}
layer {
  name: "h_pseudoloss"
  type: "Reduction"
  bottom: "h"
  top: "h_pseudoloss"
  loss_weight: 1
}
I0720 16:16:05.220993 19742 layer_factory.hpp:77] Creating layer lstm1_
I0720 16:16:05.221016 19742 net.cpp:91] Creating Layer lstm1_
I0720 16:16:05.221027 19742 net.cpp:399] lstm1_ -> x
I0720 16:16:05.221046 19742 net.cpp:399] lstm1_ -> cont
I0720 16:16:05.221066 19742 net.cpp:141] Setting up lstm1_
I0720 16:16:05.221081 19742 net.cpp:148] Top shape: 1 1 500 (500)
I0720 16:16:05.221092 19742 net.cpp:148] Top shape: 1 1 (1)
I0720 16:16:05.221101 19742 net.cpp:156] Memory required for data: 2004
I0720 16:16:05.221109 19742 layer_factory.hpp:77] Creating layer lstm1_
I0720 16:16:05.221123 19742 net.cpp:91] Creating Layer lstm1_
I0720 16:16:05.221134 19742 net.cpp:399] lstm1_ -> c_0
I0720 16:16:05.221150 19742 net.cpp:399] lstm1_ -> h_0
I0720 16:16:05.221168 19742 net.cpp:141] Setting up lstm1_
I0720 16:16:05.221181 19742 net.cpp:148] Top shape: 1 1 1000 (1000)
I0720 16:16:05.221191 19742 net.cpp:148] Top shape: 1 1 1000 (1000)
I0720 16:16:05.221199 19742 net.cpp:156] Memory required for data: 10004
I0720 16:16:05.221206 19742 layer_factory.hpp:77] Creating layer lstm1_cont_slice
I0720 16:16:05.221220 19742 net.cpp:91] Creating Layer lstm1_cont_slice
I0720 16:16:05.221227 19742 net.cpp:425] lstm1_cont_slice <- cont
I0720 16:16:05.221240 19742 net.cpp:399] lstm1_cont_slice -> cont_1
I0720 16:16:05.221258 19742 net.cpp:141] Setting up lstm1_cont_slice
I0720 16:16:05.221271 19742 net.cpp:148] Top shape: 1 1 (1)
I0720 16:16:05.221278 19742 net.cpp:156] Memory required for data: 10008
I0720 16:16:05.221285 19742 layer_factory.hpp:77] Creating layer cont_1_lstm1_cont_slice_0_split
I0720 16:16:05.221326 19742 net.cpp:91] Creating Layer cont_1_lstm1_cont_slice_0_split
I0720 16:16:05.221338 19742 net.cpp:425] cont_1_lstm1_cont_slice_0_split <- cont_1
I0720 16:16:05.221352 19742 net.cpp:399] cont_1_lstm1_cont_slice_0_split -> cont_1_lstm1_cont_slice_0_split_0
I0720 16:16:05.221366 19742 net.cpp:399] cont_1_lstm1_cont_slice_0_split -> cont_1_lstm1_cont_slice_0_split_1
I0720 16:16:05.221391 19742 net.cpp:141] Setting up cont_1_lstm1_cont_slice_0_split
I0720 16:16:05.221408 19742 net.cpp:148] Top shape: 1 1 (1)
I0720 16:16:05.221420 19742 net.cpp:148] Top shape: 1 1 (1)
I0720 16:16:05.221427 19742 net.cpp:156] Memory required for data: 10016
I0720 16:16:05.221436 19742 layer_factory.hpp:77] Creating layer lstm1_x_transform
I0720 16:16:05.221453 19742 net.cpp:91] Creating Layer lstm1_x_transform
I0720 16:16:05.221463 19742 net.cpp:425] lstm1_x_transform <- x
I0720 16:16:05.221494 19742 net.cpp:399] lstm1_x_transform -> W_xc_x
I0720 16:16:05.222959 19738 net.cpp:141] Setting up embedding
I0720 16:16:05.222992 19738 net.cpp:148] Top shape: 1 1 500 (500)
I0720 16:16:05.223001 19738 net.cpp:156] Memory required for data: 22408
I0720 16:16:05.223017 19738 layer_factory.hpp:77] Creating layer lstm1
I0720 16:16:05.223547 19738 net.cpp:91] Creating Layer lstm1
I0720 16:16:05.223559 19738 net.cpp:425] lstm1 <- embedded_input_frames
I0720 16:16:05.223572 19738 net.cpp:425] lstm1 <- cont_sentence_input_1_split_0
I0720 16:16:05.223583 19738 net.cpp:399] lstm1 -> lstm1
I0720 16:16:05.223603 19738 recurrent_layer.cpp:20] Initializing recurrent layer: assuming input batch contains 1 timesteps of 1 independent streams.
I0720 16:16:05.225230 19740 net.cpp:141] Setting up lstm1_x_transform
I0720 16:16:05.225261 19740 net.cpp:148] Top shape: 1 1 4000 (4000)
I0720 16:16:05.225270 19740 net.cpp:156] Memory required for data: 26016
I0720 16:16:05.225292 19740 layer_factory.hpp:77] Creating layer lstm1_W_xc_x_slice
I0720 16:16:05.225312 19740 net.cpp:91] Creating Layer lstm1_W_xc_x_slice
I0720 16:16:05.225322 19740 net.cpp:425] lstm1_W_xc_x_slice <- W_xc_x
I0720 16:16:05.225334 19740 net.cpp:399] lstm1_W_xc_x_slice -> W_xc_x_1
I0720 16:16:05.225358 19740 net.cpp:141] Setting up lstm1_W_xc_x_slice
I0720 16:16:05.225371 19740 net.cpp:148] Top shape: 1 1 4000 (4000)
I0720 16:16:05.225379 19740 net.cpp:156] Memory required for data: 42016
I0720 16:16:05.225389 19740 layer_factory.hpp:77] Creating layer lstm1_h_conted_0
I0720 16:16:05.228848 19740 net.cpp:91] Creating Layer lstm1_h_conted_0
I0720 16:16:05.228886 19740 net.cpp:425] lstm1_h_conted_0 <- h_0
I0720 16:16:05.228904 19740 net.cpp:425] lstm1_h_conted_0 <- cont_1_lstm1_cont_slice_0_split_0
I0720 16:16:05.228922 19740 net.cpp:399] lstm1_h_conted_0 -> h_conted_0
I0720 16:16:05.229398 19740 net.cpp:141] Setting up lstm1_h_conted_0
I0720 16:16:05.229423 19740 net.cpp:148] Top shape: 1 1 1000 (1000)
I0720 16:16:05.229431 19740 net.cpp:156] Memory required for data: 46016
I0720 16:16:05.229440 19740 layer_factory.hpp:77] Creating layer lstm1_transform_1
I0720 16:16:05.229463 19740 net.cpp:91] Creating Layer lstm1_transform_1
I0720 16:16:05.229472 19740 net.cpp:425] lstm1_transform_1 <- h_conted_0
I0720 16:16:05.229482 19740 net.cpp:399] lstm1_transform_1 -> W_hc_h_0
I0720 16:16:05.231783 19738 net.cpp:49] Initializing net from parameters: 
layer {
  name: "lstm1_"
  type: "Input"
  top: "x"
  top: "cont"
  input_param {
    shape {
      dim: 1
      dim: 1
      dim: 500
    }
    shape {
      dim: 1
      dim: 1
    }
  }
}
layer {
  name: "lstm1_"
  type: "Input"
  top: "c_0"
  top: "h_0"
  input_param {
    shape {
      dim: 1
      dim: 1
      dim: 1000
    }
    shape {
      dim: 1
      dim: 1
      dim: 1000
    }
  }
}
layer {
  name: "lstm1_cont_slice"
  type: "Slice"
  bottom: "cont"
  top: "cont_1"
  slice_param {
    axis: 0
  }
}
layer {
  name: "lstm1_x_transform"
  type: "InnerProduct"
  bottom: "x"
  top: "W_xc_x"
  param {
    name: "W_xc"
  }
  param {
    name: "b_c"
  }
  propagate_down: true
  inner_product_param {
    num_output: 4000
    bias_term: true
    weight_filler {
      type: "uniform"
      min: -0.08
      max: 0.08
    }
    bias_filler {
      type: "constant"
      value: 0
    }
    axis: 2
  }
}
layer {
  name: "lstm1_W_xc_x_slice"
  type: "Slice"
  bottom: "W_xc_x"
  top: "W_xc_x_1"
  slice_param {
    axis: 0
  }
}
layer {
  name: "lstm1_h_conted_0"
  type: "Scale"
  bottom: "h_0"
  bottom: "cont_1"
  top: "h_conted_0"
  scale_param {
    axis: 0
  }
}
layer {
  name: "lstm1_transform_1"
  type: "InnerProduct"
  bottom: "h_conted_0"
  top: "W_hc_h_0"
  param {
    name: "W_hc"
  }
  inner_product_param {
    num_output: 4000
    bias_term: false
    weight_filler {
      type: "uniform"
      min: -0.08
      max: 0.08
    }
    axis: 2
  }
}
layer {
  name: "lstm1_gate_input_1"
  type: "Eltwise"
  bottom: "W_hc_h_0"
  bottom: "W_xc_x_1"
  top: "gate_input_1"
  eltwise_param {
    operation: SUM
  }
}
layer {
  name: "lstm1_unit_1"
  type: "LSTMUnit"
  bottom: "c_0"
  bottom: "gate_input_1"
  bottom: "cont_1"
  top: "c_1"
  top: "h_1"
}
layer {
  name: "lstm1_"
  type: "Split"
  bottom: "c_1"
  top: "c_T"
}
layer {
  name: "lstm1_h_concat"
  type: "Concat"
  bottom: "h_1"
  top: "h"
  concat_param {
    axis: 0
  }
}
layer {
  name: "h_pseudoloss"
  type: "Reduction"
  bottom: "h"
  top: "h_pseudoloss"
  loss_weight: 1
}
I0720 16:16:05.232393 19738 layer_factory.hpp:77] Creating layer lstm1_
I0720 16:16:05.232414 19738 net.cpp:91] Creating Layer lstm1_
I0720 16:16:05.232425 19738 net.cpp:399] lstm1_ -> x
I0720 16:16:05.232445 19738 net.cpp:399] lstm1_ -> cont
I0720 16:16:05.232462 19738 net.cpp:141] Setting up lstm1_
I0720 16:16:05.232475 19738 net.cpp:148] Top shape: 1 1 500 (500)
I0720 16:16:05.232484 19738 net.cpp:148] Top shape: 1 1 (1)
I0720 16:16:05.232491 19738 net.cpp:156] Memory required for data: 2004
I0720 16:16:05.232498 19738 layer_factory.hpp:77] Creating layer lstm1_
I0720 16:16:05.232509 19738 net.cpp:91] Creating Layer lstm1_
I0720 16:16:05.232518 19738 net.cpp:399] lstm1_ -> c_0
I0720 16:16:05.232532 19738 net.cpp:399] lstm1_ -> h_0
I0720 16:16:05.232547 19738 net.cpp:141] Setting up lstm1_
I0720 16:16:05.232556 19738 net.cpp:148] Top shape: 1 1 1000 (1000)
I0720 16:16:05.232565 19738 net.cpp:148] Top shape: 1 1 1000 (1000)
I0720 16:16:05.232571 19738 net.cpp:156] Memory required for data: 10004
I0720 16:16:05.232578 19738 layer_factory.hpp:77] Creating layer lstm1_cont_slice
I0720 16:16:05.232592 19738 net.cpp:91] Creating Layer lstm1_cont_slice
I0720 16:16:05.232600 19738 net.cpp:425] lstm1_cont_slice <- cont
I0720 16:16:05.232611 19738 net.cpp:399] lstm1_cont_slice -> cont_1
I0720 16:16:05.232627 19738 net.cpp:141] Setting up lstm1_cont_slice
I0720 16:16:05.232638 19738 net.cpp:148] Top shape: 1 1 (1)
I0720 16:16:05.232645 19738 net.cpp:156] Memory required for data: 10008
I0720 16:16:05.232650 19738 layer_factory.hpp:77] Creating layer cont_1_lstm1_cont_slice_0_split
I0720 16:16:05.232661 19738 net.cpp:91] Creating Layer cont_1_lstm1_cont_slice_0_split
I0720 16:16:05.232667 19738 net.cpp:425] cont_1_lstm1_cont_slice_0_split <- cont_1
I0720 16:16:05.232708 19738 net.cpp:399] cont_1_lstm1_cont_slice_0_split -> cont_1_lstm1_cont_slice_0_split_0
I0720 16:16:05.232724 19738 net.cpp:399] cont_1_lstm1_cont_slice_0_split -> cont_1_lstm1_cont_slice_0_split_1
I0720 16:16:05.232739 19738 net.cpp:141] Setting up cont_1_lstm1_cont_slice_0_split
I0720 16:16:05.232748 19738 net.cpp:148] Top shape: 1 1 (1)
I0720 16:16:05.232758 19738 net.cpp:148] Top shape: 1 1 (1)
I0720 16:16:05.232764 19738 net.cpp:156] Memory required for data: 10016
I0720 16:16:05.232769 19738 layer_factory.hpp:77] Creating layer lstm1_x_transform
I0720 16:16:05.232786 19738 net.cpp:91] Creating Layer lstm1_x_transform
I0720 16:16:05.232794 19738 net.cpp:425] lstm1_x_transform <- x
I0720 16:16:05.232805 19738 net.cpp:399] lstm1_x_transform -> W_xc_x
I0720 16:16:05.234825 19758 net.cpp:141] Setting up embedding
I0720 16:16:05.234874 19758 net.cpp:148] Top shape: 1 1 500 (500)
I0720 16:16:05.234882 19758 net.cpp:156] Memory required for data: 22408
I0720 16:16:05.234902 19758 layer_factory.hpp:77] Creating layer lstm1
I0720 16:16:05.234926 19758 net.cpp:91] Creating Layer lstm1
I0720 16:16:05.234936 19758 net.cpp:425] lstm1 <- embedded_input_frames
I0720 16:16:05.234949 19758 net.cpp:425] lstm1 <- cont_sentence_input_1_split_0
I0720 16:16:05.235163 19758 net.cpp:399] lstm1 -> lstm1
I0720 16:16:05.235194 19758 recurrent_layer.cpp:20] Initializing recurrent layer: assuming input batch contains 1 timesteps of 1 independent streams.
I0720 16:16:05.236444 19758 net.cpp:49] Initializing net from parameters: 
layer {
  name: "lstm1_"
  type: "Input"
  top: "x"
  top: "cont"
  input_param {
    shape {
      dim: 1
      dim: 1
      dim: 500
    }
    shape {
      dim: 1
      dim: 1
    }
  }
}
layer {
  name: "lstm1_"
  type: "Input"
  top: "c_0"
  top: "h_0"
  input_param {
    shape {
      dim: 1
      dim: 1
      dim: 1000
    }
    shape {
      dim: 1
      dim: 1
      dim: 1000
    }
  }
}
layer {
  name: "lstm1_cont_slice"
  type: "Slice"
  bottom: "cont"
  top: "cont_1"
  slice_param {
    axis: 0
  }
}
layer {
  name: "lstm1_x_transform"
  type: "InnerProduct"
  bottom: "x"
  top: "W_xc_x"
  param {
    name: "W_xc"
  }
  param {
    name: "b_c"
  }
  propagate_down: true
  inner_product_param {
    num_output: 4000
    bias_term: true
    weight_filler {
      type: "uniform"
      min: -0.08
      max: 0.08
    }
    bias_filler {
      type: "constant"
      value: 0
    }
    axis: 2
  }
}
layer {
  name: "lstm1_W_xc_x_slice"
  type: "Slice"
  bottom: "W_xc_x"
  top: "W_xc_x_1"
  slice_param {
    axis: 0
  }
}
layer {
  name: "lstm1_h_conted_0"
  type: "Scale"
  bottom: "h_0"
  bottom: "cont_1"
  top: "h_conted_0"
  scale_param {
    axis: 0
  }
}
layer {
  name: "lstm1_transform_1"
  type: "InnerProduct"
  bottom: "h_conted_0"
  top: "W_hc_h_0"
  param {
    name: "W_hc"
  }
  inner_product_param {
    num_output: 4000
    bias_term: false
    weight_filler {
      type: "uniform"
      min: -0.08
      max: 0.08
    }
    axis: 2
  }
}
layer {
  name: "lstm1_gate_input_1"
  type: "Eltwise"
  bottom: "W_hc_h_0"
  bottom: "W_xc_x_1"
  top: "gate_input_1"
  eltwise_param {
    operation: SUM
  }
}
layer {
  name: "lstm1_unit_1"
  type: "LSTMUnit"
  bottom: "c_0"
  bottom: "gate_input_1"
  bottom: "cont_1"
  top: "c_1"
  top: "h_1"
}
layer {
  name: "lstm1_"
  type: "Split"
  bottom: "c_1"
  top: "c_T"
}
layer {
  name: "lstm1_h_concat"
  type: "Concat"
  bottom: "h_1"
  top: "h"
  concat_param {
    axis: 0
  }
}
layer {
  name: "h_pseudoloss"
  type: "Reduction"
  bottom: "h"
  top: "h_pseudoloss"
  loss_weight: 1
}
I0720 16:16:05.237685 19758 layer_factory.hpp:77] Creating layer lstm1_
I0720 16:16:05.237714 19758 net.cpp:91] Creating Layer lstm1_
I0720 16:16:05.237728 19758 net.cpp:399] lstm1_ -> x
I0720 16:16:05.237756 19758 net.cpp:399] lstm1_ -> cont
I0720 16:16:05.237782 19758 net.cpp:141] Setting up lstm1_
I0720 16:16:05.237800 19758 net.cpp:148] Top shape: 1 1 500 (500)
I0720 16:16:05.237814 19758 net.cpp:148] Top shape: 1 1 (1)
I0720 16:16:05.237823 19758 net.cpp:156] Memory required for data: 2004
I0720 16:16:05.237833 19758 layer_factory.hpp:77] Creating layer lstm1_
I0720 16:16:05.237849 19758 net.cpp:91] Creating Layer lstm1_
I0720 16:16:05.237864 19758 net.cpp:399] lstm1_ -> c_0
I0720 16:16:05.237884 19758 net.cpp:399] lstm1_ -> h_0
I0720 16:16:05.237905 19758 net.cpp:141] Setting up lstm1_
I0720 16:16:05.237920 19758 net.cpp:148] Top shape: 1 1 1000 (1000)
I0720 16:16:05.237932 19758 net.cpp:148] Top shape: 1 1 1000 (1000)
I0720 16:16:05.237941 19758 net.cpp:156] Memory required for data: 10004
I0720 16:16:05.237949 19758 layer_factory.hpp:77] Creating layer lstm1_cont_slice
I0720 16:16:05.237965 19758 net.cpp:91] Creating Layer lstm1_cont_slice
I0720 16:16:05.237977 19758 net.cpp:425] lstm1_cont_slice <- cont
I0720 16:16:05.237990 19758 net.cpp:399] lstm1_cont_slice -> cont_1
I0720 16:16:05.238039 19758 net.cpp:141] Setting up lstm1_cont_slice
I0720 16:16:05.238057 19758 net.cpp:148] Top shape: 1 1 (1)
I0720 16:16:05.238066 19758 net.cpp:156] Memory required for data: 10008
I0720 16:16:05.238075 19758 layer_factory.hpp:77] Creating layer cont_1_lstm1_cont_slice_0_split
I0720 16:16:05.238090 19758 net.cpp:91] Creating Layer cont_1_lstm1_cont_slice_0_split
I0720 16:16:05.238101 19758 net.cpp:425] cont_1_lstm1_cont_slice_0_split <- cont_1
I0720 16:16:05.238113 19758 net.cpp:399] cont_1_lstm1_cont_slice_0_split -> cont_1_lstm1_cont_slice_0_split_0
I0720 16:16:05.238190 19758 net.cpp:399] cont_1_lstm1_cont_slice_0_split -> cont_1_lstm1_cont_slice_0_split_1
I0720 16:16:05.238211 19758 net.cpp:141] Setting up cont_1_lstm1_cont_slice_0_split
I0720 16:16:05.238226 19758 net.cpp:148] Top shape: 1 1 (1)
I0720 16:16:05.238237 19758 net.cpp:148] Top shape: 1 1 (1)
I0720 16:16:05.238246 19758 net.cpp:156] Memory required for data: 10016
I0720 16:16:05.238255 19758 layer_factory.hpp:77] Creating layer lstm1_x_transform
I0720 16:16:05.238273 19758 net.cpp:91] Creating Layer lstm1_x_transform
I0720 16:16:05.238284 19758 net.cpp:425] lstm1_x_transform <- x
I0720 16:16:05.238307 19758 net.cpp:399] lstm1_x_transform -> W_xc_x
I0720 16:16:05.240660 19727 net.cpp:141] Setting up lstm2_x_transform
I0720 16:16:05.240694 19727 net.cpp:148] Top shape: 1 1 4000 (4000)
I0720 16:16:05.240701 19727 net.cpp:156] Memory required for data: 30020
I0720 16:16:05.240757 19727 layer_factory.hpp:77] Creating layer lstm2_W_xc_x_slice
I0720 16:16:05.240775 19727 net.cpp:91] Creating Layer lstm2_W_xc_x_slice
I0720 16:16:05.240784 19727 net.cpp:425] lstm2_W_xc_x_slice <- W_xc_x
I0720 16:16:05.240811 19727 net.cpp:399] lstm2_W_xc_x_slice -> W_xc_x_1
I0720 16:16:05.240834 19727 net.cpp:141] Setting up lstm2_W_xc_x_slice
I0720 16:16:05.240846 19727 net.cpp:148] Top shape: 1 1 4000 (4000)
I0720 16:16:05.240852 19727 net.cpp:156] Memory required for data: 46020
I0720 16:16:05.240859 19727 layer_factory.hpp:77] Creating layer lstm2_h_conted_0
I0720 16:16:05.240872 19727 net.cpp:91] Creating Layer lstm2_h_conted_0
I0720 16:16:05.240880 19727 net.cpp:425] lstm2_h_conted_0 <- h_0
I0720 16:16:05.240888 19727 net.cpp:425] lstm2_h_conted_0 <- cont_1_lstm2_cont_slice_0_split_0
I0720 16:16:05.240948 19727 net.cpp:399] lstm2_h_conted_0 -> h_conted_0
I0720 16:16:05.241034 19727 net.cpp:141] Setting up lstm2_h_conted_0
I0720 16:16:05.241045 19727 net.cpp:148] Top shape: 1 1 1000 (1000)
I0720 16:16:05.241052 19727 net.cpp:156] Memory required for data: 50020
I0720 16:16:05.241060 19727 layer_factory.hpp:77] Creating layer lstm2_transform_1
I0720 16:16:05.241072 19727 net.cpp:91] Creating Layer lstm2_transform_1
I0720 16:16:05.241080 19727 net.cpp:425] lstm2_transform_1 <- h_conted_0
I0720 16:16:05.241091 19727 net.cpp:399] lstm2_transform_1 -> W_hc_h_0
I0720 16:16:05.251976 19721 net.cpp:141] Setting up lstm1_transform_1
I0720 16:16:05.252041 19721 net.cpp:148] Top shape: 1 1 4000 (4000)
I0720 16:16:05.252054 19721 net.cpp:156] Memory required for data: 62016
I0720 16:16:05.252084 19721 layer_factory.hpp:77] Creating layer lstm1_gate_input_1
I0720 16:16:05.252126 19721 net.cpp:91] Creating Layer lstm1_gate_input_1
I0720 16:16:05.252138 19721 net.cpp:425] lstm1_gate_input_1 <- W_hc_h_0
I0720 16:16:05.252152 19721 net.cpp:425] lstm1_gate_input_1 <- W_xc_x_1
I0720 16:16:05.252168 19721 net.cpp:399] lstm1_gate_input_1 -> gate_input_1
I0720 16:16:05.252198 19721 net.cpp:141] Setting up lstm1_gate_input_1
I0720 16:16:05.252213 19721 net.cpp:148] Top shape: 1 1 4000 (4000)
I0720 16:16:05.252221 19721 net.cpp:156] Memory required for data: 78016
I0720 16:16:05.252230 19721 layer_factory.hpp:77] Creating layer lstm1_unit_1
I0720 16:16:05.252252 19721 net.cpp:91] Creating Layer lstm1_unit_1
I0720 16:16:05.252264 19721 net.cpp:425] lstm1_unit_1 <- c_0
I0720 16:16:05.252281 19721 net.cpp:425] lstm1_unit_1 <- gate_input_1
I0720 16:16:05.252293 19721 net.cpp:425] lstm1_unit_1 <- cont_1_lstm1_cont_slice_0_split_1
I0720 16:16:05.252306 19721 net.cpp:399] lstm1_unit_1 -> c_1
I0720 16:16:05.252322 19721 net.cpp:399] lstm1_unit_1 -> h_1
I0720 16:16:05.252342 19721 net.cpp:141] Setting up lstm1_unit_1
I0720 16:16:05.252360 19721 net.cpp:148] Top shape: 1 1 1000 (1000)
I0720 16:16:05.252372 19721 net.cpp:148] Top shape: 1 1 1000 (1000)
I0720 16:16:05.252380 19721 net.cpp:156] Memory required for data: 86016
I0720 16:16:05.252379 19752 net.cpp:141] Setting up lstm1_x_transform
I0720 16:16:05.252418 19721 layer_factory.hpp:77] Creating layer lstm1_
I0720 16:16:05.252450 19752 net.cpp:148] Top shape: 1 1 4000 (4000)
I0720 16:16:05.252456 19721 net.cpp:91] Creating Layer lstm1_
I0720 16:16:05.252462 19752 net.cpp:156] Memory required for data: 26016
I0720 16:16:05.252467 19721 net.cpp:425] lstm1_ <- c_1
I0720 16:16:05.252480 19721 net.cpp:399] lstm1_ -> c_T
I0720 16:16:05.252488 19752 layer_factory.hpp:77] Creating layer lstm1_W_xc_x_slice
I0720 16:16:05.252497 19721 net.cpp:141] Setting up lstm1_
I0720 16:16:05.252511 19721 net.cpp:148] Top shape: 1 1 1000 (1000)
I0720 16:16:05.252516 19752 net.cpp:91] Creating Layer lstm1_W_xc_x_slice
I0720 16:16:05.252521 19721 net.cpp:156] Memory required for data: 90016
I0720 16:16:05.252527 19752 net.cpp:425] lstm1_W_xc_x_slice <- W_xc_x
I0720 16:16:05.252531 19721 layer_factory.hpp:77] Creating layer lstm1_h_concat
I0720 16:16:05.252543 19752 net.cpp:399] lstm1_W_xc_x_slice -> W_xc_x_1
I0720 16:16:05.252559 19721 net.cpp:91] Creating Layer lstm1_h_concat
I0720 16:16:05.252570 19721 net.cpp:425] lstm1_h_concat <- h_1
I0720 16:16:05.252569 19742 net.cpp:141] Setting up lstm1_x_transform
I0720 16:16:05.252590 19721 net.cpp:399] lstm1_h_concat -> h
I0720 16:16:05.252570 19752 net.cpp:141] Setting up lstm1_W_xc_x_slice
I0720 16:16:05.252606 19742 net.cpp:148] Top shape: 1 1 4000 (4000)
I0720 16:16:05.252611 19752 net.cpp:148] Top shape: 1 1 4000 (4000)
I0720 16:16:05.252615 19721 net.cpp:141] Setting up lstm1_h_concat
I0720 16:16:05.252621 19752 net.cpp:156] Memory required for data: 42016
I0720 16:16:05.252617 19742 net.cpp:156] Memory required for data: 26016
I0720 16:16:05.252631 19752 layer_factory.hpp:77] Creating layer lstm1_h_conted_0
I0720 16:16:05.252635 19721 net.cpp:148] Top shape: 1 1 1000 (1000)
I0720 16:16:05.252645 19721 net.cpp:156] Memory required for data: 94016
I0720 16:16:05.252648 19742 layer_factory.hpp:77] Creating layer lstm1_W_xc_x_slice
I0720 16:16:05.252653 19752 net.cpp:91] Creating Layer lstm1_h_conted_0
…
I0720 16:16:05.486093 19740 net.cpp:156] Memory required for data: 36412
I0720 16:16:05.486134 19740 layer_factory.hpp:77] Creating layer predict
I0720 16:16:05.486172 19740 net.cpp:91] Creating Layer predict
I0720 16:16:05.486176 19742 net.cpp:148] Top shape: 1 1 4000 (4000)
I0720 16:16:05.486209 19742 net.cpp:156] Memory required for data: 82020
I0720 16:16:05.486207 19740 net.cpp:425] predict <- lstm2
I0720 16:16:05.486217 19742 layer_factory.hpp:77] Creating layer lstm2_unit_1
I0720 16:16:05.486237 19740 net.cpp:399] predict -> predict
I0720 16:16:05.486237 19742 net.cpp:91] Creating Layer lstm2_unit_1
I0720 16:16:05.486254 19742 net.cpp:425] lstm2_unit_1 <- c_0
I0720 16:16:05.486263 19742 net.cpp:425] lstm2_unit_1 <- gate_input_1
I0720 16:16:05.486269 19742 net.cpp:425] lstm2_unit_1 <- cont_1_lstm2_cont_slice_0_split_1
I0720 16:16:05.486277 19742 net.cpp:399] lstm2_unit_1 -> c_1
I0720 16:16:05.486287 19742 net.cpp:399] lstm2_unit_1 -> h_1
I0720 16:16:05.486299 19742 net.cpp:141] Setting up lstm2_unit_1
I0720 16:16:05.486307 19742 net.cpp:148] Top shape: 1 1 1000 (1000)
I0720 16:16:05.486312 19742 net.cpp:148] Top shape: 1 1 1000 (1000)
I0720 16:16:05.486316 19742 net.cpp:156] Memory required for data: 90020
I0720 16:16:05.486321 19742 layer_factory.hpp:77] Creating layer lstm2_
I0720 16:16:05.487212 19742 net.cpp:91] Creating Layer lstm2_
I0720 16:16:05.487231 19742 net.cpp:425] lstm2_ <- c_1
I0720 16:16:05.487242 19742 net.cpp:399] lstm2_ -> c_T
I0720 16:16:05.487254 19742 net.cpp:141] Setting up lstm2_
I0720 16:16:05.487761 19742 net.cpp:148] Top shape: 1 1 1000 (1000)
I0720 16:16:05.487776 19742 net.cpp:156] Memory required for data: 94020
I0720 16:16:05.487782 19742 layer_factory.hpp:77] Creating layer lstm2_h_concat
I0720 16:16:05.487793 19742 net.cpp:91] Creating Layer lstm2_h_concat
I0720 16:16:05.487799 19742 net.cpp:425] lstm2_h_concat <- h_1
I0720 16:16:05.487807 19742 net.cpp:399] lstm2_h_concat -> h
I0720 16:16:05.487821 19742 net.cpp:141] Setting up lstm2_h_concat
I0720 16:16:05.487828 19742 net.cpp:148] Top shape: 1 1 1000 (1000)
I0720 16:16:05.487833 19742 net.cpp:156] Memory required for data: 98020
I0720 16:16:05.487838 19742 layer_factory.hpp:77] Creating layer h_pseudoloss
I0720 16:16:05.488867 19742 net.cpp:91] Creating Layer h_pseudoloss
I0720 16:16:05.488893 19742 net.cpp:425] h_pseudoloss <- h
I0720 16:16:05.488910 19742 net.cpp:399] h_pseudoloss -> h_pseudoloss
I0720 16:16:05.489970 19742 net.cpp:141] Setting up h_pseudoloss
…
I0720 16:16:05.490170 19742 net.cpp:219] lstm2_ does not need backward computation.
I0720 16:16:05.490176 19742 net.cpp:261] This network produces output c_T
I0720 16:16:05.490185 19742 net.cpp:261] This network produces output h_pseudoloss
I0720 16:16:05.491025 19742 net.cpp:274] Network initialization done.
I0720 16:16:05.491137 19742 recurrent_layer.cpp:150] Adding parameter 0: W_xc
I0720 16:16:05.491153 19742 recurrent_layer.cpp:150] Adding parameter 1: b_c
I0720 16:16:05.491161 19742 recurrent_layer.cpp:150] Adding parameter 2: W_hc
I0720 16:16:05.491247 19742 net.cpp:141] Setting up lstm2
I0720 16:16:05.491269 19742 net.cpp:148] Top shape: 1 1 1000 (1000)
I0720 16:16:05.491278 19742 net.cpp:156] Memory required for data: 36412
I0720 16:16:05.491308 19742 layer_factory.hpp:77] Creating layer predict
I0720 16:16:05.491336 19742 net.cpp:91] Creating Layer predict
I0720 16:16:05.491349 19742 net.cpp:425] predict <- lstm2
I0720 16:16:05.491369 19742 net.cpp:399] predict -> predict
I0720 16:16:05.520879 19758 net.cpp:141] Setting up lstm2_transform_1
I0720 16:16:05.520947 19758 net.cpp:148] Top shape: 1 1 4000 (4000)
I0720 16:16:05.520954 19758 net.cpp:156] Memory required for data: 66020
I0720 16:16:05.520978 19758 layer_factory.hpp:77] Creating layer lstm2_gate_input_1
I0720 16:16:05.521560 19758 net.cpp:91] Creating Layer lstm2_gate_input_1
I0720 16:16:05.521582 19758 net.cpp:425] lstm2_gate_input_1 <- W_hc_h_0
I0720 16:16:05.521594 19758 net.cpp:425] lstm2_gate_input_1 <- W_xc_x_1
I0720 16:16:05.521605 19758 net.cpp:399] lstm2_gate_input_1 -> gate_input_1
I0720 16:16:05.522361 19758 net.cpp:141] Setting up lstm2_gate_input_1
I0720 16:16:05.522373 19758 net.cpp:148] Top shape: 1 1 4000 (4000)
I0720 16:16:05.522378 19758 net.cpp:156] Memory required for data: 82020
I0720 16:16:05.522383 19758 layer_factory.hpp:77] Creating layer lstm2_unit_1
I0720 16:16:05.522394 19758 net.cpp:91] Creating Layer lstm2_unit_1
I0720 16:16:05.522399 19758 net.cpp:425] lstm2_unit_1 <- c_0
I0720 16:16:05.522406 19758 net.cpp:425] lstm2_unit_1 <- gate_input_1
I0720 16:16:05.522413 19758 net.cpp:425] lstm2_unit_1 <- cont_1_lstm2_cont_slice_0_split_1
I0720 16:16:05.522419 19758 net.cpp:399] lstm2_unit_1 -> c_1
I0720 16:16:05.522428 19758 net.cpp:399] lstm2_unit_1 -> h_1
I0720 16:16:05.522439 19758 net.cpp:141] Setting up lstm2_unit_1
I0720 16:16:05.522887 19758 net.cpp:148] Top shape: 1 1 1000 (1000)
I0720 16:16:05.522900 19758 net.cpp:148] Top shape: 1 1 1000 (1000)
I0720 16:16:05.522904 19758 net.cpp:156] Memory required for data: 90020
I0720 16:16:05.522909 19758 layer_factory.hpp:77] Creating layer lstm2_
I0720 16:16:05.522919 19758 net.cpp:91] Creating Layer lstm2_
I0720 16:16:05.522923 19758 net.cpp:425] lstm2_ <- c_1
I0720 16:16:05.523702 19758 net.cpp:399] lstm2_ -> c_T
I0720 16:16:05.523730 19758 net.cpp:141] Setting up lstm2_
I0720 16:16:05.523739 19758 net.cpp:148] Top shape: 1 1 1000 (1000)
I0720 16:16:05.523744 19758 net.cpp:156] Memory required for data: 94020
I0720 16:16:05.523749 19758 layer_factory.hpp:77] Creating layer lstm2_h_concat
I0720 16:16:05.523761 19758 net.cpp:91] Creating Layer lstm2_h_concat
I0720 16:16:05.523767 19758 net.cpp:425] lstm2_h_concat <- h_1
I0720 16:16:05.523780 19758 net.cpp:399] lstm2_h_concat -> h
I0720 16:16:05.523802 19758 net.cpp:141] Setting up lstm2_h_concat
I0720 16:16:05.523809 19758 net.cpp:148] Top shape: 1 1 1000 (1000)
I0720 16:16:05.523815 19758 net.cpp:156] Memory required for data: 98020
I0720 16:16:05.523824 19758 layer_factory.hpp:77] Creating layer h_pseudoloss
I0720 16:16:05.524224 19758 net.cpp:91] Creating Layer h_pseudoloss
I0720 16:16:05.524237 19758 net.cpp:425] h_pseudoloss <- h
I0720 16:16:05.524247 19758 net.cpp:399] h_pseudoloss -> h_pseudoloss
I0720 16:16:05.525542 19758 net.cpp:141] Setting up h_pseudoloss
…
I0720 16:16:05.525653 19758 net.cpp:219] lstm2_ does not need backward computation.
I0720 16:16:05.525657 19758 net.cpp:261] This network produces output c_T
I0720 16:16:05.525662 19758 net.cpp:261] This network produces output h_pseudoloss
I0720 16:16:05.526883 19758 net.cpp:274] Network initialization done.
I0720 16:16:05.526962 19758 recurrent_layer.cpp:150] Adding parameter 0: W_xc
I0720 16:16:05.526969 19758 recurrent_layer.cpp:150] Adding parameter 1: b_c
I0720 16:16:05.526974 19758 recurrent_layer.cpp:150] Adding parameter 2: W_hc
I0720 16:16:05.527026 19758 net.cpp:141] Setting up lstm2
I0720 16:16:05.527036 19758 net.cpp:148] Top shape: 1 1 1000 (1000)
I0720 16:16:05.527040 19758 net.cpp:156] Memory required for data: 36412
I0720 16:16:05.527055 19758 layer_factory.hpp:77] Creating layer predict
I0720 16:16:05.527070 19758 net.cpp:91] Creating Layer predict
I0720 16:16:05.527077 19758 net.cpp:425] predict <- lstm2
I0720 16:16:05.527086 19758 net.cpp:399] predict -> predict
I0720 16:16:05.530575 19752 net.cpp:141] Setting up lstm2_transform_1
I0720 16:16:05.530628 19752 net.cpp:148] Top shape: 1 1 4000 (4000)
I0720 16:16:05.530637 19752 net.cpp:156] Memory required for data: 66020
I0720 16:16:05.530660 19752 layer_factory.hpp:77] Creating layer lstm2_gate_input_1
I0720 16:16:05.530683 19752 net.cpp:91] Creating Layer lstm2_gate_input_1
I0720 16:16:05.530701 19752 net.cpp:425] lstm2_gate_input_1 <- W_hc_h_0
I0720 16:16:05.530714 19752 net.cpp:425] lstm2_gate_input_1 <- W_xc_x_1
I0720 16:16:05.530728 19752 net.cpp:399] lstm2_gate_input_1 -> gate_input_1
I0720 16:16:05.530750 19752 net.cpp:141] Setting up lstm2_gate_input_1
I0720 16:16:05.530761 19752 net.cpp:148] Top shape: 1 1 4000 (4000)
I0720 16:16:05.530766 19752 net.cpp:156] Memory required for data: 82020
I0720 16:16:05.530773 19752 layer_factory.hpp:77] Creating layer lstm2_unit_1
I0720 16:16:05.530786 19752 net.cpp:91] Creating Layer lstm2_unit_1
I0720 16:16:05.530792 19752 net.cpp:425] lstm2_unit_1 <- c_0
I0720 16:16:05.530802 19752 net.cpp:425] lstm2_unit_1 <- gate_input_1
I0720 16:16:05.530808 19752 net.cpp:425] lstm2_unit_1 <- cont_1_lstm2_cont_slice_0_split_1
I0720 16:16:05.531358 19752 net.cpp:399] lstm2_unit_1 -> c_1
I0720 16:16:05.531383 19752 net.cpp:399] lstm2_unit_1 -> h_1
I0720 16:16:05.531399 19752 net.cpp:141] Setting up lstm2_unit_1
I0720 16:16:05.531410 19752 net.cpp:148] Top shape: 1 1 1000 (1000)
I0720 16:16:05.531419 19752 net.cpp:148] Top shape: 1 1 1000 (1000)
I0720 16:16:05.531426 19752 net.cpp:156] Memory required for data: 90020
I0720 16:16:05.531433 19752 layer_factory.hpp:77] Creating layer lstm2_
I0720 16:16:05.531848 19752 net.cpp:91] Creating Layer lstm2_
I0720 16:16:05.531860 19752 net.cpp:425] lstm2_ <- c_1
I0720 16:16:05.531872 19752 net.cpp:399] lstm2_ -> c_T
I0720 16:16:05.531885 19752 net.cpp:141] Setting up lstm2_
I0720 16:16:05.531895 19752 net.cpp:148] Top shape: 1 1 1000 (1000)
I0720 16:16:05.531901 19752 net.cpp:156] Memory required for data: 94020
I0720 16:16:05.531908 19752 layer_factory.hpp:77] Creating layer lstm2_h_concat
I0720 16:16:05.531924 19752 net.cpp:91] Creating Layer lstm2_h_concat
I0720 16:16:05.531930 19752 net.cpp:425] lstm2_h_concat <- h_1
I0720 16:16:05.532428 19752 net.cpp:399] lstm2_h_concat -> h
I0720 16:16:05.532454 19752 net.cpp:141] Setting up lstm2_h_concat
I0720 16:16:05.532465 19752 net.cpp:148] Top shape: 1 1 1000 (1000)
I0720 16:16:05.532472 19752 net.cpp:156] Memory required for data: 98020
I0720 16:16:05.532480 19752 layer_factory.hpp:77] Creating layer h_pseudoloss
I0720 16:16:05.532491 19752 net.cpp:91] Creating Layer h_pseudoloss
I0720 16:16:05.532498 19752 net.cpp:425] h_pseudoloss <- h
I0720 16:16:05.532920 19752 net.cpp:399] h_pseudoloss -> h_pseudoloss
I0720 16:16:05.533816 19738 net.cpp:141] Setting up lstm2_transform_1
I0720 16:16:05.533838 19738 net.cpp:148] Top shape: 1 1 4000 (4000)
I0720 16:16:05.533843 19738 net.cpp:156] Memory required for data: 66020
I0720 16:16:05.533856 19738 layer_factory.hpp:77] Creating layer lstm2_gate_input_1
I0720 16:16:05.533869 19738 net.cpp:91] Creating Layer lstm2_gate_input_1
I0720 16:16:05.533875 19738 net.cpp:425] lstm2_gate_input_1 <- W_hc_h_0
I0720 16:16:05.533881 19738 net.cpp:425] lstm2_gate_input_1 <- W_xc_x_1
I0720 16:16:05.534553 19752 net.cpp:141] Setting up h_pseudoloss
I0720 16:16:05.534553 19738 net.cpp:399] lstm2_gate_input_1 -> gate_input_1
I0720 16:16:05.534590 19752 net.cpp:148] Top shape: (1)
I0720 16:16:05.534605 19738 net.cpp:141] Setting up lstm2_gate_input_1
I0720 16:16:05.534600 19752 net.cpp:151]     with loss weight 1
I0720 16:16:05.534617 19738 net.cpp:148] Top shape: 1 1 4000 (4000)
I0720 16:16:05.534622 19752 net.cpp:156] Memory required for data: 98024
I0720 16:16:05.534624 19738 net.cpp:156] Memory required for data: 82020
I0720 16:16:05.534632 19738 layer_factory.hpp:77] Creating layer lstm2_unit_1
I0720 16:16:05.534632 19752 net.cpp:217] h_pseudoloss needs backward computation.
I0720 16:16:05.534651 19752 net.cpp:217] lstm2_h_concat needs backward computation.
…
I0720 16:16:05.534752 19752 net.cpp:219] lstm2_cont_slice does not need backward computation.
I0720 16:16:05.534759 19752 net.cpp:219] lstm2_ does not need backward computation.
I0720 16:16:05.534762 19752 net.cpp:219] lstm2_ does not need backward computation.
I0720 16:16:05.534766 19752 net.cpp:261] This network produces output c_T
I0720 16:16:05.534771 19752 net.cpp:261] This network produces output h_pseudoloss
I0720 16:16:05.535100 19738 net.cpp:399] lstm2_unit_1 -> c_1
I0720 16:16:05.535121 19738 net.cpp:399] lstm2_unit_1 -> h_1
I0720 16:16:05.535135 19738 net.cpp:141] Setting up lstm2_unit_1
I0720 16:16:05.535141 19738 net.cpp:148] Top shape: 1 1 1000 (1000)
I0720 16:16:05.535147 19738 net.cpp:148] Top shape: 1 1 1000 (1000)
I0720 16:16:05.535152 19738 net.cpp:156] Memory required for data: 90020
I0720 16:16:05.535157 19738 layer_factory.hpp:77] Creating layer lstm2_
I0720 16:16:05.535166 19738 net.cpp:91] Creating Layer lstm2_
I0720 16:16:05.535171 19738 net.cpp:425] lstm2_ <- c_1
I0720 16:16:05.536166 19752 net.cpp:274] Network initialization done.
I0720 16:16:05.536186 19738 net.cpp:399] lstm2_ -> c_T
I0720 16:16:05.536211 19738 net.cpp:141] Setting up lstm2_
I0720 16:16:05.536226 19738 net.cpp:148] Top shape: 1 1 1000 (1000)
I0720 16:16:05.536232 19738 net.cpp:156] Memory required for data: 94020
I0720 16:16:05.536240 19738 layer_factory.hpp:77] Creating layer lstm2_h_concat
I0720 16:16:05.536263 19752 recurrent_layer.cpp:150] Adding parameter 0: W_xc
I0720 16:16:05.536274 19752 recurrent_layer.cpp:150] Adding parameter 1: b_c
I0720 16:16:05.536279 19752 recurrent_layer.cpp:150] Adding parameter 2: W_hc
I0720 16:16:05.536334 19752 net.cpp:141] Setting up lstm2
I0720 16:16:05.536342 19752 net.cpp:148] Top shape: 1 1 1000 (1000)
I0720 16:16:05.536347 19752 net.cpp:156] Memory required for data: 36412
I0720 16:16:05.536362 19752 layer_factory.hpp:77] Creating layer predict
I0720 16:16:05.536375 19752 net.cpp:91] Creating Layer predict
I0720 16:16:05.536381 19752 net.cpp:425] predict <- lstm2
I0720 16:16:05.536389 19752 net.cpp:399] predict -> predict
I0720 16:16:05.536255 19738 net.cpp:91] Creating Layer lstm2_h_concat
I0720 16:16:05.536772 19738 net.cpp:425] lstm2_h_concat <- h_1
I0720 16:16:05.536787 19738 net.cpp:399] lstm2_h_concat -> h
I0720 16:16:05.536800 19738 net.cpp:141] Setting up lstm2_h_concat
I0720 16:16:05.536808 19738 net.cpp:148] Top shape: 1 1 1000 (1000)
I0720 16:16:05.536813 19738 net.cpp:156] Memory required for data: 98020
I0720 16:16:05.536818 19738 layer_factory.hpp:77] Creating layer h_pseudoloss
I0720 16:16:05.536826 19738 net.cpp:91] Creating Layer h_pseudoloss
I0720 16:16:05.536831 19738 net.cpp:425] h_pseudoloss <- h
I0720 16:16:05.538336 19738 net.cpp:399] h_pseudoloss -> h_pseudoloss
I0720 16:16:05.539371 19738 net.cpp:141] Setting up h_pseudoloss
…
I0720 16:16:05.539508 19738 net.cpp:219] lstm2_ does not need backward computation.
I0720 16:16:05.539512 19738 net.cpp:261] This network produces output c_T
I0720 16:16:05.539517 19738 net.cpp:261] This network produces output h_pseudoloss
I0720 16:16:05.539532 19738 net.cpp:274] Network initialization done.
I0720 16:16:05.539587 19738 recurrent_layer.cpp:150] Adding parameter 0: W_xc
I0720 16:16:05.539593 19738 recurrent_layer.cpp:150] Adding parameter 1: b_c
I0720 16:16:05.539598 19738 recurrent_layer.cpp:150] Adding parameter 2: W_hc
I0720 16:16:05.539649 19738 net.cpp:141] Setting up lstm2
I0720 16:16:05.539659 19738 net.cpp:148] Top shape: 1 1 1000 (1000)
I0720 16:16:05.539662 19738 net.cpp:156] Memory required for data: 36412
I0720 16:16:05.539676 19738 layer_factory.hpp:77] Creating layer predict
I0720 16:16:05.539692 19738 net.cpp:91] Creating Layer predict
I0720 16:16:05.539698 19738 net.cpp:425] predict <- lstm2
I0720 16:16:05.539707 19738 net.cpp:399] predict -> predict
I0720 16:16:05.793743 19727 net.cpp:141] Setting up predict
I0720 16:16:05.794622 19727 net.cpp:148] Top shape: 1 1 46168 (46168)
I0720 16:16:05.794848 19727 net.cpp:156] Memory required for data: 221084
I0720 16:16:05.794996 19727 layer_factory.hpp:77] Creating layer probs
I0720 16:16:05.795199 19727 net.cpp:91] Creating Layer probs
I0720 16:16:05.795217 19727 net.cpp:425] probs <- predict
I0720 16:16:05.795236 19727 net.cpp:399] probs -> probs
I0720 16:16:05.841434 19721 net.cpp:141] Setting up predict
I0720 16:16:05.841496 19721 net.cpp:148] Top shape: 1 1 46168 (46168)
I0720 16:16:05.841502 19721 net.cpp:156] Memory required for data: 221084
I0720 16:16:05.841521 19721 layer_factory.hpp:77] Creating layer probs
I0720 16:16:05.841542 19721 net.cpp:91] Creating Layer probs
I0720 16:16:05.841550 19721 net.cpp:425] probs <- predict
I0720 16:16:05.841562 19721 net.cpp:399] probs -> probs
I0720 16:16:05.952878 19754 net.cpp:141] Setting up predict
I0720 16:16:05.952921 19754 net.cpp:148] Top shape: 1 1 46168 (46168)
I0720 16:16:05.952927 19754 net.cpp:156] Memory required for data: 221084
I0720 16:16:05.952941 19754 layer_factory.hpp:77] Creating layer probs
I0720 16:16:05.952956 19754 net.cpp:91] Creating Layer probs
I0720 16:16:05.952962 19754 net.cpp:425] probs <- predict
I0720 16:16:05.952972 19754 net.cpp:399] probs -> probs
I0720 16:16:05.983747 19740 net.cpp:141] Setting up predict
I0720 16:16:05.983791 19740 net.cpp:148] Top shape: 1 1 46168 (46168)
I0720 16:16:05.983798 19740 net.cpp:156] Memory required for data: 221084
I0720 16:16:05.983811 19740 layer_factory.hpp:77] Creating layer probs
I0720 16:16:05.983827 19740 net.cpp:91] Creating Layer probs
I0720 16:16:05.983834 19740 net.cpp:425] probs <- predict
I0720 16:16:05.983844 19740 net.cpp:399] probs -> probs
I0720 16:16:05.995766 19758 net.cpp:141] Setting up predict
I0720 16:16:05.995832 19758 net.cpp:148] Top shape: 1 1 46168 (46168)
I0720 16:16:05.995838 19758 net.cpp:156] Memory required for data: 221084
I0720 16:16:05.995856 19758 layer_factory.hpp:77] Creating layer probs
I0720 16:16:05.995875 19758 net.cpp:91] Creating Layer probs
I0720 16:16:05.995883 19758 net.cpp:425] probs <- predict
I0720 16:16:05.995895 19758 net.cpp:399] probs -> probs
I0720 16:16:05.997490 19752 net.cpp:141] Setting up predict
I0720 16:16:05.997510 19752 net.cpp:148] Top shape: 1 1 46168 (46168)
I0720 16:16:05.997515 19752 net.cpp:156] Memory required for data: 221084
I0720 16:16:05.997527 19752 layer_factory.hpp:77] Creating layer probs
I0720 16:16:05.997540 19752 net.cpp:91] Creating Layer probs
I0720 16:16:05.997547 19752 net.cpp:425] probs <- predict
I0720 16:16:05.997556 19752 net.cpp:399] probs -> probs
I0720 16:16:06.001771 19738 net.cpp:141] Setting up predict
I0720 16:16:06.001803 19738 net.cpp:148] Top shape: 1 1 46168 (46168)
I0720 16:16:06.001809 19738 net.cpp:156] Memory required for data: 221084
I0720 16:16:06.001821 19738 layer_factory.hpp:77] Creating layer probs
I0720 16:16:06.001833 19738 net.cpp:91] Creating Layer probs
I0720 16:16:06.001839 19738 net.cpp:425] probs <- predict
I0720 16:16:06.001849 19738 net.cpp:399] probs -> probs
I0720 16:16:06.004621 19729 net.cpp:141] Setting up predict
I0720 16:16:06.004655 19729 net.cpp:148] Top shape: 1 1 46168 (46168)
I0720 16:16:06.004662 19729 net.cpp:156] Memory required for data: 221084
I0720 16:16:06.004675 19729 layer_factory.hpp:77] Creating layer probs
I0720 16:16:06.004689 19729 net.cpp:91] Creating Layer probs
I0720 16:16:06.004696 19729 net.cpp:425] probs <- predict
I0720 16:16:06.004706 19729 net.cpp:399] probs -> probs
I0720 16:16:06.015321 19742 net.cpp:141] Setting up predict
I0720 16:16:06.015362 19742 net.cpp:148] Top shape: 1 1 46168 (46168)
I0720 16:16:06.015368 19742 net.cpp:156] Memory required for data: 221084
I0720 16:16:06.015382 19742 layer_factory.hpp:77] Creating layer probs
I0720 16:16:06.015398 19742 net.cpp:91] Creating Layer probs
I0720 16:16:06.015405 19742 net.cpp:425] probs <- predict
I0720 16:16:06.015416 19742 net.cpp:399] probs -> probs
I0720 16:16:06.031126 19725 net.cpp:141] Setting up predict
I0720 16:16:06.031163 19725 net.cpp:148] Top shape: 1 1 46168 (46168)
I0720 16:16:06.031169 19725 net.cpp:156] Memory required for data: 221084
I0720 16:16:06.031182 19725 layer_factory.hpp:77] Creating layer probs
I0720 16:16:06.031196 19725 net.cpp:91] Creating Layer probs
I0720 16:16:06.031203 19725 net.cpp:425] probs <- predict
I0720 16:16:06.031213 19725 net.cpp:399] probs -> probs
I0720 16:16:06.157660 19750 net.cpp:141] Setting up data
I0720 16:16:06.157703 19750 net.cpp:148] Top shape: 10 3 227 227 (1545870)
I0720 16:16:06.157711 19750 net.cpp:156] Memory required for data: 6183480
I0720 16:16:06.157721 19750 layer_factory.hpp:77] Creating layer conv1
I0720 16:16:06.157752 19750 net.cpp:91] Creating Layer conv1
I0720 16:16:06.157758 19750 net.cpp:425] conv1 <- data
I0720 16:16:06.157768 19750 net.cpp:399] conv1 -> conv1
I0720 16:16:06.533517 19725 net.cpp:141] Setting up probs
I0720 16:16:06.533558 19725 net.cpp:148] Top shape: 1 1 46168 (46168)
I0720 16:16:06.533565 19725 net.cpp:156] Memory required for data: 405756
I0720 16:16:06.533573 19725 net.cpp:219] probs does not need backward computation.
I0720 16:16:06.533581 19725 net.cpp:219] predict does not need backward computation.
I0720 16:16:06.533586 19725 net.cpp:219] lstm2 does not need backward computation.
I0720 16:16:06.533591 19725 net.cpp:219] concat does not need backward computation.
I0720 16:16:06.533596 19725 net.cpp:219] lstm1 does not need backward computation.
I0720 16:16:06.533602 19725 net.cpp:219] embedding does not need backward computation.
I0720 16:16:06.533607 19725 net.cpp:219] reshape_stage_indicator does not need backward computation.
I0720 16:16:06.533612 19725 net.cpp:219] reshape_frames does not need backward computation.
I0720 16:16:06.533617 19725 net.cpp:219] embed_encoder does not need backward computation.
I0720 16:16:06.533622 19725 net.cpp:219] cont_sentence_input_1_split does not need backward computation.
I0720 16:16:06.533627 19725 net.cpp:219] input does not need backward computation.
I0720 16:16:06.533630 19725 net.cpp:261] This network produces output probs
I0720 16:16:06.533650 19725 net.cpp:274] Network initialization done.
I0720 16:16:06.534329 19727 net.cpp:141] Setting up probs
I0720 16:16:06.534365 19727 net.cpp:148] Top shape: 1 1 46168 (46168)
I0720 16:16:06.534371 19727 net.cpp:156] Memory required for data: 405756
I0720 16:16:06.534379 19727 net.cpp:219] probs does not need backward computation.
I0720 16:16:06.534375 19729 net.cpp:141] Setting up probs
I0720 16:16:06.534386 19727 net.cpp:219] predict does not need backward computation.
I0720 16:16:06.534394 19727 net.cpp:219] lstm2 does not need backward computation.
I0720 16:16:06.534399 19727 net.cpp:219] concat does not need backward computation.
I0720 16:16:06.534400 19729 net.cpp:148] Top shape: 1 1 46168 (46168)
I0720 16:16:06.534406 19727 net.cpp:219] lstm1 does not need backward computation.
I0720 16:16:06.534413 19727 net.cpp:219] embedding does not need backward computation.
I0720 16:16:06.534412 19729 net.cpp:156] Memory required for data: 405756
I0720 16:16:06.534420 19727 net.cpp:219] reshape_stage_indicator does not need backward computation.
I0720 16:16:06.534425 19727 net.cpp:219] reshape_frames does not need backward computation.
…
I0720 16:16:06.534750 19740 net.cpp:219] cont_sentence_input_1_split does not need backward computation.
I0720 16:16:06.534766 19742 net.cpp:219] input does not need backward computation.
I0720 16:16:06.534773 19740 net.cpp:219] input does not need backward computation.
I0720 16:16:06.534777 19742 net.cpp:261] This network produces output probs
I0720 16:16:06.534783 19740 net.cpp:261] This network produces output probs
I0720 16:16:06.535249 19740 net.cpp:274] Network initialization done.
I0720 16:16:06.535256 19742 net.cpp:274] Network initialization done.
I0720 16:16:06.535259 19758 net.cpp:141] Setting up probs
I0720 16:16:06.535277 19758 net.cpp:148] Top shape: 1 1 46168 (46168)
I0720 16:16:06.535286 19758 net.cpp:156] Memory required for data: 405756
I0720 16:16:06.535289 19754 net.cpp:141] Setting up probs
I0720 16:16:06.535295 19758 net.cpp:219] probs does not need backward computation.
I0720 16:16:06.535305 19758 net.cpp:219] predict does not need backward computation.
I0720 16:16:06.535306 19754 net.cpp:148] Top shape: 1 1 46168 (46168)
I0720 16:16:06.535322 19758 net.cpp:219] lstm2 does not need backward computation.
I0720 16:16:06.535325 19754 net.cpp:156] Memory required for data: 405756
I0720 16:16:06.535337 19758 net.cpp:219] concat does not need backward computation.
I0720 16:16:06.535342 19754 net.cpp:219] probs does not need backward computation.
I0720 16:16:06.535349 19758 net.cpp:219] lstm1 does not need backward computation.
I0720 16:16:06.535351 19754 net.cpp:219] predict does not need backward computation.
I0720 16:16:06.535362 19754 net.cpp:219] lstm2 does not need backward computation.
I0720 16:16:06.535362 19758 net.cpp:219] embedding does not need backward computation.
I0720 16:16:06.535375 19754 net.cpp:219] concat does not need backward computation.
I0720 16:16:06.535378 19752 net.cpp:141] Setting up probs
I0720 16:16:06.535378 19758 net.cpp:219] reshape_stage_indicator does not need backward computation.
I0720 16:16:06.535387 19754 net.cpp:219] lstm1 does not need backward computation.
I0720 16:16:06.535393 19721 net.cpp:141] Setting up probs
I0720 16:16:06.535408 19754 net.cpp:219] embedding does not need backward computation.
I0720 16:16:06.535404 19758 net.cpp:219] reshape_frames does not need backward computation.
I0720 16:16:06.535403 19752 net.cpp:148] Top shape: 1 1 46168 (46168)
I0720 16:16:06.535418 19758 net.cpp:219] embed_encoder does not need backward computation.
I0720 16:16:06.535414 19721 net.cpp:148] Top shape: 1 1 46168 (46168)
I0720 16:16:06.535424 19758 net.cpp:219] cont_sentence_input_1_split does not need backward computation.
I0720 16:16:06.535416 19754 net.cpp:219] reshape_stage_indicator does not need backward computation.
I0720 16:16:06.535416 19738 net.cpp:141] Setting up probs
I0720 16:16:06.535436 19754 net.cpp:219] reshape_frames does not need backward computation.
I0720 16:16:06.535430 19721 net.cpp:156] Memory required for data: 405756
I0720 16:16:06.535425 19752 net.cpp:156] Memory required for data: 405756
I0720 16:16:06.535432 19758 net.cpp:219] input does not need backward computation.
I0720 16:16:06.535446 19754 net.cpp:219] embed_encoder does not need backward computation.
I0720 16:16:06.535449 19721 net.cpp:219] probs does not need backward computation.
I0720 16:16:06.535444 19738 net.cpp:148] Top shape: 1 1 46168 (46168)
I0720 16:16:06.535450 19752 net.cpp:219] probs does not need backward computation.
I0720 16:16:06.535459 19754 net.cpp:219] cont_sentence_input_1_split does not need backward computation.
I0720 16:16:06.535452 19758 net.cpp:261] This network produces output probs
I0720 16:16:06.535465 19752 net.cpp:219] predict does not need backward computation.
I0720 16:16:06.535468 19738 net.cpp:156] Memory required for data: 405756
…
I0720 16:16:07.199954 19754 net.cpp:752] Ignoring source layer cont_sentence_data_0_split
I0720 16:16:07.200260 19754 net.cpp:752] Ignoring source layer reshape_stg_indicator
I0720 16:16:07.210181 19721 net.cpp:752] Ignoring source layer data
I0720 16:16:07.210245 19721 net.cpp:752] Ignoring source layer cont_sentence_data_0_split
I0720 16:16:07.210296 19721 net.cpp:752] Ignoring source layer reshape_stg_indicator
I0720 16:16:07.227756 19727 net.cpp:752] Ignoring source layer cross_entropy_loss
I0720 16:16:07.267707 19742 net.cpp:752] Ignoring source layer cross_entropy_loss
I0720 16:16:07.301748 19750 net.cpp:141] Setting up conv1
I0720 16:16:07.301828 19750 net.cpp:148] Top shape: 10 96 55 55 (2904000)
I0720 16:16:07.301836 19750 net.cpp:156] Memory required for data: 17799480
I0720 16:16:07.301865 19750 layer_factory.hpp:77] Creating layer relu1
I0720 16:16:07.301892 19750 net.cpp:91] Creating Layer relu1
I0720 16:16:07.301900 19750 net.cpp:425] relu1 <- conv1
I0720 16:16:07.301909 19750 net.cpp:386] relu1 -> conv1 (in-place)
I0720 16:16:07.309299 19750 net.cpp:141] Setting up relu1
I0720 16:16:07.309393 19750 net.cpp:148] Top shape: 10 96 55 55 (2904000)
I0720 16:16:07.309408 19750 net.cpp:156] Memory required for data: 29415480
I0720 16:16:07.309427 19750 layer_factory.hpp:77] Creating layer pool1
I0720 16:16:07.309473 19750 net.cpp:91] Creating Layer pool1
I0720 16:16:07.309489 19750 net.cpp:425] pool1 <- conv1
I0720 16:16:07.309514 19750 net.cpp:399] pool1 -> pool1
I0720 16:16:07.318490 19729 net.cpp:752] Ignoring source layer cross_entropy_loss
I0720 16:16:07.321028 19750 net.cpp:141] Setting up pool1
I0720 16:16:07.321097 19750 net.cpp:148] Top shape: 10 96 27 27 (699840)
I0720 16:16:07.321108 19750 net.cpp:156] Memory required for data: 32214840
I0720 16:16:07.321125 19750 layer_factory.hpp:77] Creating layer norm1
I0720 16:16:07.321187 19750 net.cpp:91] Creating Layer norm1
I0720 16:16:07.321203 19750 net.cpp:425] norm1 <- pool1
I0720 16:16:07.321223 19750 net.cpp:399] norm1 -> norm1
I0720 16:16:07.323217 19758 net.cpp:752] Ignoring source layer cross_entropy_loss
I0720 16:16:07.325844 19733 net.cpp:141] Setting up data
I0720 16:16:07.325904 19733 net.cpp:148] Top shape: 10 3 227 227 (1545870)
I0720 16:16:07.325912 19733 net.cpp:156] Memory required for data: 6183480
I0720 16:16:07.325933 19733 layer_factory.hpp:77] Creating layer conv1
I0720 16:16:07.325960 19733 net.cpp:91] Creating Layer conv1
I0720 16:16:07.325968 19733 net.cpp:425] conv1 <- data
I0720 16:16:07.325978 19733 net.cpp:399] conv1 -> conv1
I0720 16:16:07.330438 19752 net.cpp:752] Ignoring source layer data
I0720 16:16:07.330492 19752 net.cpp:752] Ignoring source layer cont_sentence_data_0_split
I0720 16:16:07.330503 19752 net.cpp:752] Ignoring source layer reshape_stg_indicator
I0720 16:16:07.332412 19750 net.cpp:141] Setting up norm1
I0720 16:16:07.332473 19750 net.cpp:148] Top shape: 10 96 27 27 (699840)
I0720 16:16:07.332484 19750 net.cpp:156] Memory required for data: 35014200
I0720 16:16:07.332499 19750 layer_factory.hpp:77] Creating layer conv2
I0720 16:16:07.332536 19750 net.cpp:91] Creating Layer conv2
I0720 16:16:07.332551 19750 net.cpp:425] conv2 <- norm1
I0720 16:16:07.332572 19750 net.cpp:399] conv2 -> conv2
I0720 16:16:07.344787 19721 net.cpp:752] Ignoring source layer cross_entropy_loss
I0720 16:16:07.363554 19733 net.cpp:141] Setting up conv1
I0720 16:16:07.363615 19733 net.cpp:148] Top shape: 10 96 55 55 (2904000)
I0720 16:16:07.363621 19733 net.cpp:156] Memory required for data: 17799480
I0720 16:16:07.363680 19733 layer_factory.hpp:77] Creating layer relu1
I0720 16:16:07.363706 19733 net.cpp:91] Creating Layer relu1
I0720 16:16:07.363713 19733 net.cpp:425] relu1 <- conv1
I0720 16:16:07.363726 19733 net.cpp:386] relu1 -> conv1 (in-place)
I0720 16:16:07.364279 19733 net.cpp:141] Setting up relu1
I0720 16:16:07.364317 19733 net.cpp:148] Top shape: 10 96 55 55 (2904000)
I0720 16:16:07.364322 19733 net.cpp:156] Memory required for data: 29415480
I0720 16:16:07.364332 19733 layer_factory.hpp:77] Creating layer pool1
I0720 16:16:07.364356 19733 net.cpp:91] Creating Layer pool1
I0720 16:16:07.364362 19733 net.cpp:425] pool1 <- conv1
I0720 16:16:07.364375 19733 net.cpp:399] pool1 -> pool1
I0720 16:16:07.365139 19733 net.cpp:141] Setting up pool1
I0720 16:16:07.365191 19733 net.cpp:148] Top shape: 10 96 27 27 (699840)
I0720 16:16:07.365197 19733 net.cpp:156] Memory required for data: 32214840
I0720 16:16:07.365207 19733 layer_factory.hpp:77] Creating layer norm1
I0720 16:16:07.365232 19733 net.cpp:91] Creating Layer norm1
I0720 16:16:07.365239 19733 net.cpp:425] norm1 <- pool1
I0720 16:16:07.365255 19733 net.cpp:399] norm1 -> norm1
I0720 16:16:07.368247 19740 net.cpp:752] Ignoring source layer cross_entropy_loss
I0720 16:16:07.371428 19725 net.cpp:752] Ignoring source layer cross_entropy_loss
I0720 16:16:07.374723 19738 net.cpp:752] Ignoring source layer data
I0720 16:16:07.374766 19738 net.cpp:752] Ignoring source layer cont_sentence_data_0_split
I0720 16:16:07.374776 19738 net.cpp:752] Ignoring source layer reshape_stg_indicator
I0720 16:16:07.375522 19733 net.cpp:141] Setting up norm1
I0720 16:16:07.375522 19750 net.cpp:141] Setting up conv2
I0720 16:16:07.375566 19733 net.cpp:148] Top shape: 10 96 27 27 (699840)
I0720 16:16:07.375577 19750 net.cpp:148] Top shape: 10 256 27 27 (1866240)
I0720 16:16:07.375586 19750 net.cpp:156] Memory required for data: 42479160
I0720 16:16:07.375584 19733 net.cpp:156] Memory required for data: 35014200
I0720 16:16:07.375603 19733 layer_factory.hpp:77] Creating layer conv2
I0720 16:16:07.375614 19750 layer_factory.hpp:77] Creating layer relu2
I0720 16:16:07.375640 19733 net.cpp:91] Creating Layer conv2
I0720 16:16:07.375658 19733 net.cpp:425] conv2 <- norm1
I0720 16:16:07.375679 19750 net.cpp:91] Creating Layer relu2
I0720 16:16:07.375694 19750 net.cpp:425] relu2 <- conv2
I0720 16:16:07.375702 19733 net.cpp:399] conv2 -> conv2
I0720 16:16:07.375741 19750 net.cpp:386] relu2 -> conv2 (in-place)
I0720 16:16:07.377842 19754 net.cpp:752] Ignoring source layer cross_entropy_loss
I0720 16:16:07.380147 19750 net.cpp:141] Setting up relu2
I0720 16:16:07.380203 19750 net.cpp:148] Top shape: 10 256 27 27 (1866240)
I0720 16:16:07.380215 19750 net.cpp:156] Memory required for data: 49944120
I0720 16:16:07.380229 19750 layer_factory.hpp:77] Creating layer pool2
I0720 16:16:07.380280 19750 net.cpp:91] Creating Layer pool2
I0720 16:16:07.380293 19750 net.cpp:425] pool2 <- conv2
I0720 16:16:07.380311 19750 net.cpp:399] pool2 -> pool2
I0720 16:16:07.384479 19750 net.cpp:141] Setting up pool2
I0720 16:16:07.384546 19750 net.cpp:148] Top shape: 10 256 13 13 (432640)
I0720 16:16:07.384557 19750 net.cpp:156] Memory required for data: 51674680
I0720 16:16:07.384577 19750 layer_factory.hpp:77] Creating layer norm2
I0720 16:16:07.384626 19750 net.cpp:91] Creating Layer norm2
I0720 16:16:07.384640 19750 net.cpp:425] norm2 <- pool2
I0720 16:16:07.384659 19750 net.cpp:399] norm2 -> norm2
I0720 16:16:07.385475 19750 net.cpp:141] Setting up norm2
I0720 16:16:07.385509 19750 net.cpp:148] Top shape: 10 256 13 13 (432640)
I0720 16:16:07.385519 19750 net.cpp:156] Memory required for data: 53405240
I0720 16:16:07.385530 19750 layer_factory.hpp:77] Creating layer conv3
I0720 16:16:07.385560 19750 net.cpp:91] Creating Layer conv3
I0720 16:16:07.385571 19750 net.cpp:425] conv3 <- norm2
I0720 16:16:07.385606 19750 net.cpp:399] conv3 -> conv3
I0720 16:16:07.408447 19733 net.cpp:141] Setting up conv2
I0720 16:16:07.408496 19733 net.cpp:148] Top shape: 10 256 27 27 (1866240)
I0720 16:16:07.408505 19733 net.cpp:156] Memory required for data: 42479160
I0720 16:16:07.408572 19733 layer_factory.hpp:77] Creating layer relu2
I0720 16:16:07.408607 19733 net.cpp:91] Creating Layer relu2
I0720 16:16:07.408620 19733 net.cpp:425] relu2 <- conv2
I0720 16:16:07.408635 19733 net.cpp:386] relu2 -> conv2 (in-place)
I0720 16:16:07.410745 19750 net.cpp:141] Setting up conv3
I0720 16:16:07.410795 19750 net.cpp:148] Top shape: 10 384 13 13 (648960)
I0720 16:16:07.410805 19750 net.cpp:156] Memory required for data: 56001080
I0720 16:16:07.410835 19750 layer_factory.hpp:77] Creating layer relu3
I0720 16:16:07.410879 19750 net.cpp:91] Creating Layer relu3
I0720 16:16:07.410892 19750 net.cpp:425] relu3 <- conv3
I0720 16:16:07.410907 19750 net.cpp:386] relu3 -> conv3 (in-place)
I0720 16:16:07.411020 19733 net.cpp:141] Setting up relu2
I0720 16:16:07.411041 19733 net.cpp:148] Top shape: 10 256 27 27 (1866240)
I0720 16:16:07.411049 19733 net.cpp:156] Memory required for data: 49944120
I0720 16:16:07.411058 19733 layer_factory.hpp:77] Creating layer pool2
I0720 16:16:07.411108 19733 net.cpp:91] Creating Layer pool2
I0720 16:16:07.411119 19733 net.cpp:425] pool2 <- conv2
I0720 16:16:07.411137 19733 net.cpp:399] pool2 -> pool2
I0720 16:16:07.413148 19733 net.cpp:141] Setting up pool2
I0720 16:16:07.413198 19733 net.cpp:148] Top shape: 10 256 13 13 (432640)
I0720 16:16:07.413208 19733 net.cpp:156] Memory required for data: 51674680
I0720 16:16:07.413221 19733 layer_factory.hpp:77] Creating layer norm2
I0720 16:16:07.413254 19733 net.cpp:91] Creating Layer norm2
I0720 16:16:07.413266 19733 net.cpp:425] norm2 <- pool2
I0720 16:16:07.413266 19750 net.cpp:141] Setting up relu3
I0720 16:16:07.413282 19750 net.cpp:148] Top shape: 10 384 13 13 (648960)
I0720 16:16:07.413285 19733 net.cpp:399] norm2 -> norm2
I0720 16:16:07.413290 19750 net.cpp:156] Memory required for data: 58596920
I0720 16:16:07.413300 19750 layer_factory.hpp:77] Creating layer conv4
I0720 16:16:07.413323 19750 net.cpp:91] Creating Layer conv4
I0720 16:16:07.413333 19750 net.cpp:425] conv4 <- conv3
I0720 16:16:07.413353 19750 net.cpp:399] conv4 -> conv4
I0720 16:16:07.414038 19733 net.cpp:141] Setting up norm2
I0720 16:16:07.414068 19733 net.cpp:148] Top shape: 10 256 13 13 (432640)
I0720 16:16:07.414078 19733 net.cpp:156] Memory required for data: 53405240
I0720 16:16:07.414088 19733 layer_factory.hpp:77] Creating layer conv3
I0720 16:16:07.414132 19733 net.cpp:91] Creating Layer conv3
I0720 16:16:07.414145 19733 net.cpp:425] conv3 <- norm2
I0720 16:16:07.414170 19733 net.cpp:399] conv3 -> conv3
I0720 16:16:07.421916 19752 net.cpp:752] Ignoring source layer cross_entropy_loss
I0720 16:16:07.429039 19733 net.cpp:141] Setting up conv3
I0720 16:16:07.429093 19733 net.cpp:148] Top shape: 10 384 13 13 (648960)
I0720 16:16:07.429105 19733 net.cpp:156] Memory required for data: 56001080
I0720 16:16:07.429139 19733 layer_factory.hpp:77] Creating layer relu3
I0720 16:16:07.429162 19733 net.cpp:91] Creating Layer relu3
I0720 16:16:07.429172 19733 net.cpp:425] relu3 <- conv3
I0720 16:16:07.429188 19733 net.cpp:386] relu3 -> conv3 (in-place)
I0720 16:16:07.431224 19733 net.cpp:141] Setting up relu3
I0720 16:16:07.431265 19733 net.cpp:148] Top shape: 10 384 13 13 (648960)
I0720 16:16:07.431275 19733 net.cpp:156] Memory required for data: 58596920
I0720 16:16:07.431316 19733 layer_factory.hpp:77] Creating layer conv4
I0720 16:16:07.431349 19733 net.cpp:91] Creating Layer conv4
I0720 16:16:07.431360 19733 net.cpp:425] conv4 <- conv3
I0720 16:16:07.431359 19750 net.cpp:141] Setting up conv4
I0720 16:16:07.431380 19733 net.cpp:399] conv4 -> conv4
I0720 16:16:07.431388 19750 net.cpp:148] Top shape: 10 384 13 13 (648960)
I0720 16:16:07.431396 19750 net.cpp:156] Memory required for data: 61192760
I0720 16:16:07.431418 19750 layer_factory.hpp:77] Creating layer relu4
I0720 16:16:07.431433 19750 net.cpp:91] Creating Layer relu4
I0720 16:16:07.431442 19750 net.cpp:425] relu4 <- conv4
I0720 16:16:07.431454 19750 net.cpp:386] relu4 -> conv4 (in-place)
I0720 16:16:07.432937 19750 net.cpp:141] Setting up relu4
I0720 16:16:07.432978 19750 net.cpp:148] Top shape: 10 384 13 13 (648960)
I0720 16:16:07.432988 19750 net.cpp:156] Memory required for data: 63788600
I0720 16:16:07.432998 19750 layer_factory.hpp:77] Creating layer conv5
I0720 16:16:07.433022 19750 net.cpp:91] Creating Layer conv5
I0720 16:16:07.433033 19750 net.cpp:425] conv5 <- conv4
I0720 16:16:07.433051 19750 net.cpp:399] conv5 -> conv5
I0720 16:16:07.445832 19733 net.cpp:141] Setting up conv4
I0720 16:16:07.445891 19733 net.cpp:148] Top shape: 10 384 13 13 (648960)
I0720 16:16:07.445904 19733 net.cpp:156] Memory required for data: 61192760
I0720 16:16:07.445924 19733 layer_factory.hpp:77] Creating layer relu4
I0720 16:16:07.445967 19733 net.cpp:91] Creating Layer relu4
I0720 16:16:07.445981 19733 net.cpp:425] relu4 <- conv4
I0720 16:16:07.445993 19733 net.cpp:386] relu4 -> conv4 (in-place)
I0720 16:16:07.448119 19733 net.cpp:141] Setting up relu4
I0720 16:16:07.448173 19733 net.cpp:148] Top shape: 10 384 13 13 (648960)
I0720 16:16:07.448182 19733 net.cpp:156] Memory required for data: 63788600
I0720 16:16:07.448194 19733 layer_factory.hpp:77] Creating layer conv5
I0720 16:16:07.448218 19733 net.cpp:91] Creating Layer conv5
I0720 16:16:07.448230 19733 net.cpp:425] conv5 <- conv4
I0720 16:16:07.448249 19733 net.cpp:399] conv5 -> conv5
I0720 16:16:07.449307 19750 net.cpp:141] Setting up conv5
I0720 16:16:07.449343 19750 net.cpp:148] Top shape: 10 256 13 13 (432640)
I0720 16:16:07.449352 19750 net.cpp:156] Memory required for data: 65519160
I0720 16:16:07.449381 19750 layer_factory.hpp:77] Creating layer relu5
I0720 16:16:07.449399 19750 net.cpp:91] Creating Layer relu5
I0720 16:16:07.449407 19750 net.cpp:425] relu5 <- conv5
I0720 16:16:07.449419 19750 net.cpp:386] relu5 -> conv5 (in-place)
I0720 16:16:07.451305 19750 net.cpp:141] Setting up relu5
I0720 16:16:07.451359 19750 net.cpp:148] Top shape: 10 256 13 13 (432640)
I0720 16:16:07.451367 19750 net.cpp:156] Memory required for data: 67249720
I0720 16:16:07.451380 19750 layer_factory.hpp:77] Creating layer pool5
I0720 16:16:07.451398 19750 net.cpp:91] Creating Layer pool5
I0720 16:16:07.451407 19750 net.cpp:425] pool5 <- conv5
I0720 16:16:07.451421 19750 net.cpp:399] pool5 -> pool5
I0720 16:16:07.452787 19750 net.cpp:141] Setting up pool5
I0720 16:16:07.452849 19750 net.cpp:148] Top shape: 10 256 6 6 (92160)
I0720 16:16:07.452867 19750 net.cpp:156] Memory required for data: 67618360
I0720 16:16:07.452884 19750 layer_factory.hpp:77] Creating layer fc6
I0720 16:16:07.452931 19750 net.cpp:91] Creating Layer fc6
I0720 16:16:07.452955 19750 net.cpp:425] fc6 <- pool5
I0720 16:16:07.452983 19750 net.cpp:399] fc6 -> fc6
I0720 16:16:07.467891 19738 net.cpp:752] Ignoring source layer cross_entropy_loss
I0720 16:16:07.531354 19733 net.cpp:141] Setting up conv5
I0720 16:16:07.531422 19733 net.cpp:148] Top shape: 10 256 13 13 (432640)
I0720 16:16:07.531440 19733 net.cpp:156] Memory required for data: 65519160
I0720 16:16:07.531491 19733 layer_factory.hpp:77] Creating layer relu5
I0720 16:16:07.531522 19733 net.cpp:91] Creating Layer relu5
I0720 16:16:07.531548 19733 net.cpp:425] relu5 <- conv5
I0720 16:16:07.531569 19733 net.cpp:386] relu5 -> conv5 (in-place)
I0720 16:16:07.532232 19733 net.cpp:141] Setting up relu5
I0720 16:16:07.532263 19733 net.cpp:148] Top shape: 10 256 13 13 (432640)
I0720 16:16:07.532279 19733 net.cpp:156] Memory required for data: 67249720
I0720 16:16:07.532327 19733 layer_factory.hpp:77] Creating layer pool5
I0720 16:16:07.532363 19733 net.cpp:91] Creating Layer pool5
I0720 16:16:07.532382 19733 net.cpp:425] pool5 <- conv5
I0720 16:16:07.532407 19733 net.cpp:399] pool5 -> pool5
I0720 16:16:07.532630 19733 net.cpp:141] Setting up pool5
I0720 16:16:07.532658 19733 net.cpp:148] Top shape: 10 256 6 6 (92160)
I0720 16:16:07.532672 19733 net.cpp:156] Memory required for data: 67618360
I0720 16:16:07.532685 19733 layer_factory.hpp:77] Creating layer fc6
I0720 16:16:07.532727 19733 net.cpp:91] Creating Layer fc6
I0720 16:16:07.532743 19733 net.cpp:425] fc6 <- pool5
I0720 16:16:07.532768 19733 net.cpp:399] fc6 -> fc6
I0720 16:16:07.610461 19750 net.cpp:141] Setting up fc6
I0720 16:16:07.610504 19750 net.cpp:148] Top shape: 10 4096 (40960)
I0720 16:16:07.610512 19750 net.cpp:156] Memory required for data: 67782200
I0720 16:16:07.610524 19750 layer_factory.hpp:77] Creating layer relu6
I0720 16:16:07.610539 19750 net.cpp:91] Creating Layer relu6
I0720 16:16:07.610545 19750 net.cpp:425] relu6 <- fc6
I0720 16:16:07.610558 19750 net.cpp:386] relu6 -> fc6 (in-place)
I0720 16:16:07.611457 19750 net.cpp:141] Setting up relu6
I0720 16:16:07.611490 19750 net.cpp:148] Top shape: 10 4096 (40960)
I0720 16:16:07.611496 19750 net.cpp:156] Memory required for data: 67946040
I0720 16:16:07.611503 19750 layer_factory.hpp:77] Creating layer drop6
I0720 16:16:07.611517 19750 net.cpp:91] Creating Layer drop6
I0720 16:16:07.611522 19750 net.cpp:425] drop6 <- fc6
I0720 16:16:07.611531 19750 net.cpp:386] drop6 -> fc6 (in-place)
I0720 16:16:07.611647 19750 net.cpp:141] Setting up drop6
I0720 16:16:07.611657 19750 net.cpp:148] Top shape: 10 4096 (40960)
I0720 16:16:07.611662 19750 net.cpp:156] Memory required for data: 68109880
I0720 16:16:07.611666 19750 layer_factory.hpp:77] Creating layer fc7
I0720 16:16:07.611677 19750 net.cpp:91] Creating Layer fc7
I0720 16:16:07.611681 19750 net.cpp:425] fc7 <- fc6
I0720 16:16:07.611692 19750 net.cpp:399] fc7 -> fc7
I0720 16:16:07.649272 19733 net.cpp:141] Setting up fc6
I0720 16:16:07.649319 19733 net.cpp:148] Top shape: 10 4096 (40960)
I0720 16:16:07.649325 19733 net.cpp:156] Memory required for data: 67782200
I0720 16:16:07.649340 19733 layer_factory.hpp:77] Creating layer relu6
I0720 16:16:07.649384 19733 net.cpp:91] Creating Layer relu6
I0720 16:16:07.649391 19733 net.cpp:425] relu6 <- fc6
I0720 16:16:07.649401 19733 net.cpp:386] relu6 -> fc6 (in-place)
I0720 16:16:07.650940 19733 net.cpp:141] Setting up relu6
I0720 16:16:07.650971 19733 net.cpp:148] Top shape: 10 4096 (40960)
I0720 16:16:07.650977 19733 net.cpp:156] Memory required for data: 67946040
I0720 16:16:07.650984 19733 layer_factory.hpp:77] Creating layer drop6
I0720 16:16:07.650996 19733 net.cpp:91] Creating Layer drop6
I0720 16:16:07.651002 19733 net.cpp:425] drop6 <- fc6
I0720 16:16:07.651012 19733 net.cpp:386] drop6 -> fc6 (in-place)
I0720 16:16:07.651100 19733 net.cpp:141] Setting up drop6
I0720 16:16:07.651109 19733 net.cpp:148] Top shape: 10 4096 (40960)
I0720 16:16:07.651114 19733 net.cpp:156] Memory required for data: 68109880
I0720 16:16:07.651118 19733 layer_factory.hpp:77] Creating layer fc7
I0720 16:16:07.651144 19733 net.cpp:91] Creating Layer fc7
I0720 16:16:07.651149 19733 net.cpp:425] fc7 <- fc6
I0720 16:16:07.651159 19733 net.cpp:399] fc7 -> fc7
I0720 16:16:07.681520 19750 net.cpp:141] Setting up fc7
I0720 16:16:07.681562 19750 net.cpp:148] Top shape: 10 4096 (40960)
I0720 16:16:07.681568 19750 net.cpp:156] Memory required for data: 68273720
I0720 16:16:07.681582 19750 layer_factory.hpp:77] Creating layer relu7
I0720 16:16:07.681597 19750 net.cpp:91] Creating Layer relu7
I0720 16:16:07.681603 19750 net.cpp:425] relu7 <- fc7
I0720 16:16:07.681613 19750 net.cpp:386] relu7 -> fc7 (in-place)
I0720 16:16:07.682526 19750 net.cpp:141] Setting up relu7
I0720 16:16:07.682549 19750 net.cpp:148] Top shape: 10 4096 (40960)
I0720 16:16:07.682554 19750 net.cpp:156] Memory required for data: 68437560
I0720 16:16:07.682560 19750 layer_factory.hpp:77] Creating layer drop7
I0720 16:16:07.682579 19750 net.cpp:91] Creating Layer drop7
I0720 16:16:07.682585 19750 net.cpp:425] drop7 <- fc7
I0720 16:16:07.682591 19750 net.cpp:386] drop7 -> fc7 (in-place)
I0720 16:16:07.682669 19750 net.cpp:141] Setting up drop7
I0720 16:16:07.682679 19750 net.cpp:148] Top shape: 10 4096 (40960)
I0720 16:16:07.682683 19750 net.cpp:156] Memory required for data: 68601400
I0720 16:16:07.682699 19750 layer_factory.hpp:77] Creating layer fc8
I0720 16:16:07.682709 19750 net.cpp:91] Creating Layer fc8
I0720 16:16:07.682714 19750 net.cpp:425] fc8 <- fc7
I0720 16:16:07.682721 19750 net.cpp:399] fc8 -> fc8
I0720 16:16:07.696399 19750 net.cpp:141] Setting up fc8
I0720 16:16:07.696444 19750 net.cpp:148] Top shape: 10 1000 (10000)
I0720 16:16:07.696449 19750 net.cpp:156] Memory required for data: 68641400
I0720 16:16:07.696462 19750 layer_factory.hpp:77] Creating layer prob
I0720 16:16:07.696477 19750 net.cpp:91] Creating Layer prob
I0720 16:16:07.696485 19750 net.cpp:425] prob <- fc8
I0720 16:16:07.696493 19750 net.cpp:399] prob -> prob
I0720 16:16:07.697005 19750 net.cpp:141] Setting up prob
I0720 16:16:07.697019 19750 net.cpp:148] Top shape: 10 1000 (10000)
I0720 16:16:07.697024 19750 net.cpp:156] Memory required for data: 68681400
I0720 16:16:07.697031 19750 net.cpp:219] prob does not need backward computation.
I0720 16:16:07.697036 19750 net.cpp:219] fc8 does not need backward computation.
I0720 16:16:07.697039 19750 net.cpp:219] drop7 does not need backward computation.
I0720 16:16:07.697044 19750 net.cpp:219] relu7 does not need backward computation.
…
I0720 16:16:07.697113 19750 net.cpp:219] norm1 does not need backward computation.
I0720 16:16:07.697118 19750 net.cpp:219] pool1 does not need backward computation.
I0720 16:16:07.697121 19750 net.cpp:219] relu1 does not need backward computation.
I0720 16:16:07.697125 19750 net.cpp:219] conv1 does not need backward computation.
I0720 16:16:07.697129 19750 net.cpp:219] data does not need backward computation.
I0720 16:16:07.697134 19750 net.cpp:261] This network produces output prob
I0720 16:16:07.697151 19750 net.cpp:274] Network initialization done.
I0720 16:16:07.699134 19733 net.cpp:141] Setting up fc7
I0720 16:16:07.699164 19733 net.cpp:148] Top shape: 10 4096 (40960)
I0720 16:16:07.699169 19733 net.cpp:156] Memory required for data: 68273720
I0720 16:16:07.699182 19733 layer_factory.hpp:77] Creating layer relu7
I0720 16:16:07.699198 19733 net.cpp:91] Creating Layer relu7
I0720 16:16:07.699205 19733 net.cpp:425] relu7 <- fc7
I0720 16:16:07.699213 19733 net.cpp:386] relu7 -> fc7 (in-place)
I0720 16:16:07.699555 19733 net.cpp:141] Setting up relu7
I0720 16:16:07.699566 19733 net.cpp:148] Top shape: 10 4096 (40960)
I0720 16:16:07.699571 19733 net.cpp:156] Memory required for data: 68437560
I0720 16:16:07.699576 19733 layer_factory.hpp:77] Creating layer drop7
I0720 16:16:07.699585 19733 net.cpp:91] Creating Layer drop7
I0720 16:16:07.699590 19733 net.cpp:425] drop7 <- fc7
I0720 16:16:07.699610 19733 net.cpp:386] drop7 -> fc7 (in-place)
I0720 16:16:07.699671 19733 net.cpp:141] Setting up drop7
I0720 16:16:07.699679 19733 net.cpp:148] Top shape: 10 4096 (40960)
I0720 16:16:07.699683 19733 net.cpp:156] Memory required for data: 68601400
I0720 16:16:07.699688 19733 layer_factory.hpp:77] Creating layer fc8
I0720 16:16:07.699699 19733 net.cpp:91] Creating Layer fc8
I0720 16:16:07.699704 19733 net.cpp:425] fc8 <- fc7
I0720 16:16:07.699713 19733 net.cpp:399] fc8 -> fc8
I0720 16:16:07.712723 19733 net.cpp:141] Setting up fc8
I0720 16:16:07.712764 19733 net.cpp:148] Top shape: 10 1000 (10000)
I0720 16:16:07.712769 19733 net.cpp:156] Memory required for data: 68641400
I0720 16:16:07.712780 19733 layer_factory.hpp:77] Creating layer prob
I0720 16:16:07.712816 19733 net.cpp:91] Creating Layer prob
I0720 16:16:07.712824 19733 net.cpp:425] prob <- fc8
I0720 16:16:07.712833 19733 net.cpp:399] prob -> prob
I0720 16:16:07.714593 19733 net.cpp:141] Setting up prob
I0720 16:16:07.714612 19733 net.cpp:148] Top shape: 10 1000 (10000)
I0720 16:16:07.714617 19733 net.cpp:156] Memory required for data: 68681400
I0720 16:16:07.714623 19733 net.cpp:219] prob does not need backward computation.
I0720 16:16:07.714628 19733 net.cpp:219] fc8 does not need backward computation.
I0720 16:16:07.714632 19733 net.cpp:219] drop7 does not need backward computation.
I0720 16:16:07.714637 19733 net.cpp:219] relu7 does not need backward computation.
…
