…
It's highly recommended that you fix the library with 'execstack -c <libfile>', or link it with '-z noexecstack'.
WARNING: cuda not found in compile time, setting current GPU will not work.
WARNING: cuda not found in compile time, setting current GPU will not work.
WARNING: Logging before InitGoogleLogging() is written to STDERR
I0706 23:51:28.474632 12503 net.cpp:49] Initializing net from parameters: 
name: "GoogleNet"
state {
  phase: TEST
}
layer {
  name: "data"
  type: "Input"
  top: "data"
  input_param {
    shape {
      dim: 10
      dim: 3
      dim: 224
      dim: 224
    }
  }
}
layer {
  name: "conv1/7x7_s2"
  type: "Convolution"
  bottom: "data"
  top: "conv1/7x7_s2"
  param {
    lr_mult: 1
    decay_mult: 1
  }
  param {
    lr_mult: 2
    decay_mult: 0
  }
  convolution_param {
    num_output: 64
    pad: 3
    kernel_size: 7
    stride: 2
    weight_filler {
      type: "xavier"
      std: 0.1
    }
    bias_filler {
      type: "constant"
      value: 0.2
    }
  }
}
layer {
  name: "conv1/relu_7x7"
  type: "ReLU"
  bottom: "conv1/7x7_s2"
  top: "conv1/7x7_s2"
}
layer {
  name: "pool1/3x3_s2"
  type: "Pooling"
  bottom: "conv1/7x7_s2"
  top: "pool1/3x3_s2"
  pooling_param {
    pool: MAX
    kernel_size: 3
    stride: 2
  }
}
layer {
  name: "pool1/norm1"
  type: "LRN"
  bottom: "pool1/3x3_s2"
  top: "pool1/norm1"
  lrn_param {
    local_size: 5
    alpha: 0.0001
    beta: 0.75
  }
}
layer {
  name: "conv2/3x3_reduce"
  type: "Convolution"
  bottom: "pool1/norm1"
  top: "conv2/3x3_reduce"
  param {
    lr_mult: 1
    decay_mult: 1
  }
  param {
    lr_mult: 2
    decay_mult: 0
  }
  convolution_param {
    num_output: 64
    kernel_size: 1
    weight_filler {
      type: "xavier"
      std: 0.1
    }
    bias_filler {
      type: "constant"
      value: 0.2
    }
  }
}
layer {
  name: "conv2/relu_3x3_reduce"
  type: "ReLU"
  bottom: "conv2/3x3_reduce"
  top: "conv2/3x3_reduce"
}
layer {
  name: "conv2/3x3"
  type: "Convolution"
  bottom: "conv2/3x3_reduce"
  top: "conv2/3x3"
  param {
    lr_mult: 1
    decay_mult: 1
  }
  param {
    lr_mult: 2
    decay_mult: 0
  }
  convolution_param {
    num_output: 192
    pad: 1
    kernel_size: 3
    weight_filler {
      type: "xavier"
      std: 0.03
    }
    bias_filler {
      type: "constant"
      value: 0.2
    }
  }
}
layer {
  name: "conv2/relu_3x3"
  type: "ReLU"
  bottom: "conv2/3x3"
  top: "conv2/3x3"
}
layer {
  name: "conv2/norm2"
  type: "LRN"
  bottom: "conv2/3x3"
  top: "conv2/norm2"
  lrn_param {
    local_size: 5
    alpha: 0.0001
    beta: 0.75
  }
}
layer {
  name: "pool2/3x3_s2"
  type: "Pooling"
  bottom: "conv2/norm2"
  top: "pool2/3x3_s2"
  pooling_param {
    pool: MAX
    kernel_size: 3
    stride: 2
  }
}
layer {
  name: "inception_3a/1x1"
  type: "Convolution"
  bottom: "pool2/3x3_s2"
  top: "inception_3a/1x1"
  param {
    lr_mult: 1
    decay_mult: 1
  }
  param {
    lr_mult: 2
    decay_mult: 0
  }
  convolution_param {
    num_output: 64
    kernel_size: 1
    weight_filler {
      type: "xavier"
      std: 0.03
    }
    bias_filler {
      type: "constant"
      value: 0.2
    }
  }
}
layer {
  name: "inception_3a/relu_1x1"
  type: "ReLU"
  bottom: "inception_3a/1x1"
  top: "inception_3a/1x1"
}
layer {
  name: "inception_3a/3x3_reduce"
  type: "Convolution"
  bottom: "pool2/3x3_s2"
  top: "inception_3a/3x3_reduce"
  param {
    lr_mult: 1
    decay_mult: 1
  }
  param {
    lr_mult: 2
    decay_mult: 0
  }
  convolution_param {
    num_output: 96
    kernel_size: 1
    weight_filler {
      type: "xavier"
      std: 0.09
    }
    bias_filler {
      type: "constant"
      value: 0.2
    }
  }
}
layer {
  name: "inception_3a/relu_3x3_reduce"
  type: "ReLU"
  bottom: "inception_3a/3x3_reduce"
  top: "inception_3a/3x3_reduce"
}
layer {
  name: "inception_3a/3x3"
  type: "Convolution"
  bottom: "inception_3a/3x3_reduce"
  top: "inception_3a/3x3"
  param {
    lr_mult: 1
    decay_mult: 1
  }
  param {
    lr_mult: 2
    decay_mult: 0
  }
  convolution_param {
    num_output: 128
    pad: 1
    kernel_size: 3
    weight_filler {
      type: "xavier"
      std: 0.03
    }
    bias_filler {
      type: "constant"
      value: 0.2
    }
  }
}
layer {
  name: "inception_3a/relu_3x3"
  type: "ReLU"
  bottom: "inception_3a/3x3"
  top: "inception_3a/3x3"
}
layer {
  name: "inception_3a/5x5_reduce"
  type: "Convolution"
  bottom: "pool2/3x3_s2"
  top: "inception_3a/5x5_reduce"
  param {
    lr_mult: 1
    decay_mult: 1
  }
  param {
    lr_mult: 2
    decay_mult: 0
  }
  convolution_param {
    num_output: 16
    kernel_size: 1
    weight_filler {
      type: "xavier"
      std: 0.2
    }
    bias_filler {
      type: "constant"
      value: 0.2
    }
  }
}
layer {
  name: "inception_3a/relu_5x5_reduce"
  type: "ReLU"
  bottom: "inception_3a/5x5_reduce"
  top: "inception_3a/5x5_reduce"
}
layer {
  name: "inception_3a/5x5"
  type: "Convolution"
  bottom: "inception_3a/5x5_reduce"
  top: "inception_3a/5x5"
  param {
    lr_mult: 1
    decay_mult: 1
  }
  param {
    lr_mult: 2
    decay_mult: 0
  }
  convolution_param {
    num_output: 32
    pad: 2
    kernel_size: 5
    weight_filler {
      type: "xavier"
      std: 0.03
    }
    bias_filler {
      type: "constant"
      value: 0.2
    }
  }
}
layer {
  name: "inception_3a/relu_5x5"
  type: "ReLU"
  bottom: "inception_3a/5x5"
  top: "inception_3a/5x5"
}
layer {
  name: "inception_3a/pool"
  type: "Pooling"
  bottom: "pool2/3x3_s2"
  top: "inception_3a/pool"
  pooling_param {
    pool: MAX
    kernel_size: 3
    stride: 1
    pad: 1
  }
}
layer {
  name: "inception_3a/pool_proj"
  type: "Convolution"
  bottom: "inception_3a/pool"
  top: "inception_3a/pool_proj"
  param {
    lr_mult: 1
    decay_mult: 1
  }
  param {
    lr_mult: 2
    decay_mult: 0
  }
  convolution_param {
    num_output: 32
    kernel_size: 1
    weight_filler {
      type: "xavier"
      std: 0.1
    }
    bias_filler {
      type: "constant"
      value: 0.2
    }
  }
}
layer {
  name: "inception_3a/relu_pool_proj"
  type: "ReLU"
  bottom: "inception_3a/pool_proj"
  top: "inception_3a/pool_proj"
}
layer {
  name: "inception_3a/output"
  type: "Concat"
  bottom: "inception_3a/1x1"
  bottom: "inception_3a/3x3"
  bottom: "inception_3a/5x5"
  bottom: "inception_3a/pool_proj"
  top: "inception_3a/output"
}
layer {
  name: "inception_3b/1x1"
  type: "Convolution"
  bottom: "inception_3a/output"
  top: "inception_3b/1x1"
  param {
    lr_mult: 1
    decay_mult: 1
  }
  param {
    lr_mult: 2
    decay_mult: 0
  }
  convolution_param {
    num_output: 128
    kernel_size: 1
    weight_filler {
      type: "xavier"
      std: 0.03
    }
    bias_filler {
      type: "constant"
      value: 0.2
    }
  }
}
layer {
  name: "inception_3b/relu_1x1"
  type: "ReLU"
  bottom: "inception_3b/1x1"
  top: "inception_3b/1x1"
}
layer {
  name: "inception_3b/3x3_reduce"
  type: "Convolution"
  bottom: "inception_3a/output"
  top: "inception_3b/3x3_reduce"
  param {
    lr_mult: 1
    decay_mult: 1
  }
  param {
    lr_mult: 2
    decay_mult: 0
  }
  convolution_param {
    num_output: 128
    kernel_size: 1
    weight_filler {
      type: "xavier"
      std: 0.09
    }
    bias_filler {
      type: "constant"
      value: 0.2
    }
  }
}
layer {
  name: "inception_3b/relu_3x3_reduce"
  type: "ReLU"
  bottom: "inception_3b/3x3_reduce"
  top: "inception_3b/3x3_reduce"
}
layer {
  name: "inception_3b/3x3"
  type: "Convolution"
  bottom: "inception_3b/3x3_reduce"
  top: "inception_3b/3x3"
  param {
    lr_mult: 1
    decay_mult: 1
  }
  param {
    lr_mult: 2
    decay_mult: 0
  }
  convolution_param {
    num_output: 192
    pad: 1
    kernel_size: 3
    weight_filler {
      type: "xavier"
      std: 0.03
    }
    bias_filler {
      type: "constant"
      value: 0.2
    }
  }
}
layer {
  name: "inception_3b/relu_3x3"
  type: "ReLU"
  bottom: "inception_3b/3x3"
  top: "inception_3b/3x3"
}
layer {
  name: "inception_3b/5x5_reduce"
  type: "Convolution"
  bottom: "inception_3a/output"
  top: "inception_3b/5x5_reduce"
  param {
    lr_mult: 1
    decay_mult: 1
  }
  param {
    lr_mult: 2
    decay_mult: 0
  }
  convolution_param {
    num_output: 32
    kernel_size: 1
    weight_filler {
      type: "xavier"
      std: 0.2
    }
    bias_filler {
      type: "constant"
      value: 0.2
    }
  }
}
layer {
  name: "inception_3b/relu_5x5_reduce"
  type: "ReLU"
  bottom: "inception_3b/5x5_reduce"
  top: "inception_3b/5x5_reduce"
}
layer {
  name: "inception_3b/5x5"
  type: "Convolution"
  bottom: "inception_3b/5x5_reduce"
  top: "inception_3b/5x5"
  param {
    lr_mult: 1
    decay_mult: 1
  }
  param {
    lr_mult: 2
    decay_mult: 0
  }
  convolution_param {
    num_output: 96
    pad: 2
    kernel_size: 5
    weight_filler {
      type: "xavier"
      std: 0.03
    }
    bias_filler {
      type: "constant"
      value: 0.2
    }
  }
}
layer {
  name: "inception_3b/relu_5x5"
  type: "ReLU"
  bottom: "inception_3b/5x5"
  top: "inception_3b/5x5"
}
layer {
  name: "inception_3b/pool"
  type: "Pooling"
  bottom: "inception_3a/output"
  top: "inception_3b/pool"
  pooling_param {
    pool: MAX
    kernel_size: 3
    stride: 1
    pad: 1
  }
}
layer {
  name: "inception_3b/pool_proj"
  type: "Convolution"
  bottom: "inception_3b/pool"
  top: "inception_3b/pool_proj"
  param {
    lr_mult: 1
    decay_mult: 1
  }
  param {
    lr_mult: 2
    decay_mult: 0
  }
  convolution_param {
    num_output: 64
    kernel_size: 1
    weight_filler {
      type: "xavier"
      std: 0.1
    }
    bias_filler {
      type: "constant"
      value: 0.2
    }
  }
}
layer {
  name: "inception_3b/relu_pool_proj"
  type: "ReLU"
  bottom: "inception_3b/pool_proj"
  top: "inception_3b/pool_proj"
}
layer {
  name: "inception_3b/output"
  type: "Concat"
  bottom: "inception_3b/1x1"
  bottom: "inception_3b/3x3"
  bottom: "inception_3b/5x5"
  bottom: "inception_3b/pool_proj"
  top: "inception_3b/output"
}
layer {
  name: "pool3/3x3_s2"
  type: "Pooling"
  bottom: "inception_3b/output"
  top: "pool3/3x3_s2"
  pooling_param {
    pool: MAX
    kernel_size: 3
    stride: 2
  }
}
layer {
  name: "inception_4a/1x1"
  type: "Convolution"
  bottom: "pool3/3x3_s2"
  top: "inception_4a/1x1"
  param {
    lr_mult: 1
    decay_mult: 1
  }
  param {
    lr_mult: 2
    decay_mult: 0
  }
  convolution_param {
    num_output: 192
    kernel_size: 1
    weight_filler {
      type: "xavier"
      std: 0.03
    }
    bias_filler {
      type: "constant"
      value: 0.2
    }
  }
}
layer {
  name: "inception_4a/relu_1x1"
  type: "ReLU"
  bottom: "inception_4a/1x1"
  top: "inception_4a/1x1"
}
layer {
  name: "inception_4a/3x3_reduce"
  type: "Convolution"
  bottom: "pool3/3x3_s2"
  top: "inception_4a/3x3_reduce"
  param {
    lr_mult: 1
    decay_mult: 1
  }
  param {
    lr_mult: 2
    decay_mult: 0
  }
  convolution_param {
    num_output: 96
    kernel_size: 1
    weight_filler {
      type: "xavier"
      std: 0.09
    }
    bias_filler {
      type: "constant"
      value: 0.2
    }
  }
}
layer {
  name: "inception_4a/relu_3x3_reduce"
  type: "ReLU"
  bottom: "inception_4a/3x3_reduce"
  top: "inception_4a/3x3_reduce"
}
layer {
  name: "inception_4a/3x3"
  type: "Convolution"
  bottom: "inception_4a/3x3_reduce"
  top: "inception_4a/3x3"
  param {
    lr_mult: 1
    decay_mult: 1
  }
  param {
    lr_mult: 2
    decay_mult: 0
  }
  convolution_param {
    num_output: 208
    pad: 1
    kernel_size: 3
    weight_filler {
      type: "xavier"
      std: 0.03
    }
    bias_filler {
      type: "constant"
      value: 0.2
    }
  }
}
layer {
  name: "inception_4a/relu_3x3"
  type: "ReLU"
  bottom: "inception_4a/3x3"
  top: "inception_4a/3x3"
}
layer {
  name: "inception_4a/5x5_reduce"
  type: "Convolution"
  bottom: "pool3/3x3_s2"
  top: "inception_4a/5x5_reduce"
  param {
    lr_mult: 1
    decay_mult: 1
  }
  param {
    lr_mult: 2
    decay_mult: 0
  }
  convolution_param {
    num_output: 16
    kernel_size: 1
    weight_filler {
      type: "xavier"
      std: 0.2
    }
    bias_filler {
      type: "constant"
      value: 0.2
    }
  }
}
layer {
  name: "inception_4a/relu_5x5_reduce"
  type: "ReLU"
  bottom: "inception_4a/5x5_reduce"
  top: "inception_4a/5x5_reduce"
}
layer {
  name: "inception_4a/5x5"
  type: "Convolution"
  bottom: "inception_4a/5x5_reduce"
  top: "inception_4a/5x5"
  param {
    lr_mult: 1
    decay_mult: 1
  }
  param {
    lr_mult: 2
    decay_mult: 0
  }
  convolution_param {
    num_output: 48
    pad: 2
    kernel_size: 5
    weight_filler {
      type: "xavier"
      std: 0.03
    }
    bias_filler {
      type: "constant"
      value: 0.2
    }
  }
}
layer {
  name: "inception_4a/relu_5x5"
  type: "ReLU"
  bottom: "inception_4a/5x5"
  top: "inception_4a/5x5"
}
layer {
  name: "inception_4a/pool"
  type: "Pooling"
  bottom: "pool3/3x3_s2"
  top: "inception_4a/pool"
  pooling_param {
    pool: MAX
    kernel_size: 3
    stride: 1
    pad: 1
  }
}
layer {
  name: "inception_4a/pool_proj"
  type: "Convolution"
  bottom: "inception_4a/pool"
  top: "inception_4a/pool_proj"
  param {
    lr_mult: 1
    decay_mult: 1
  }
  param {
    lr_mult: 2
    decay_mult: 0
  }
  convolution_param {
    num_output: 64
    kernel_size: 1
    weight_filler {
      type: "xavier"
      std: 0.1
    }
    bias_filler {
      type: "constant"
      value: 0.2
    }
  }
}
layer {
  name: "inception_4a/relu_pool_proj"
  type: "ReLU"
  bottom: "inception_4a/pool_proj"
  top: "inception_4a/pool_proj"
}
layer {
  name: "inception_4a/output"
  type: "Concat"
  bottom: "inception_4a/1x1"
  bottom: "inception_4a/3x3"
  bottom: "inception_4a/5x5"
  bottom: "inception_4a/pool_proj"
  top: "inception_4a/output"
}
layer {
  name: "inception_4b/1x1"
  type: "Convolution"
  bottom: "inception_4a/output"
  top: "inception_4b/1x1"
  param {
    lr_mult: 1
    decay_mult: 1
  }
  param {
    lr_mult: 2
    decay_mult: 0
  }
  convolution_param {
    num_output: 160
    kernel_size: 1
    weight_filler {
      type: "xavier"
      std: 0.03
    }
    bias_filler {
      type: "constant"
      value: 0.2
    }
  }
}
layer {
  name: "inception_4b/relu_1x1"
  type: "ReLU"
  bottom: "inception_4b/1x1"
  top: "inception_4b/1x1"
}
layer {
  name: "inception_4b/3x3_reduce"
  type: "Convolution"
  bottom: "inception_4a/output"
  top: "inception_4b/3x3_reduce"
  param {
    lr_mult: 1
    decay_mult: 1
  }
  param {
    lr_mult: 2
    decay_mult: 0
  }
  convolution_param {
    num_output: 112
    kernel_size: 1
    weight_filler {
      type: "xavier"
      std: 0.09
    }
    bias_filler {
      type: "constant"
      value: 0.2
    }
  }
}
layer {
  name: "inception_4b/relu_3x3_reduce"
  type: "ReLU"
  bottom: "inception_4b/3x3_reduce"
  top: "inception_4b/3x3_reduce"
}
layer {
  name: "inception_4b/3x3"
  type: "Convolution"
  bottom: "inception_4b/3x3_reduce"
  top: "inception_4b/3x3"
  param {
    lr_mult: 1
    decay_mult: 1
  }
  param {
    lr_mult: 2
    decay_mult: 0
  }
  convolution_param {
    num_output: 224
    pad: 1
    kernel_size: 3
    weight_filler {
      type: "xavier"
      std: 0.03
    }
    bias_filler {
      type: "constant"
      value: 0.2
    }
  }
}
layer {
  name: "inception_4b/relu_3x3"
  type: "ReLU"
  bottom: "inception_4b/3x3"
  top: "inception_4b/3x3"
}
layer {
  name: "inception_4b/5x5_reduce"
  type: "Convolution"
  bottom: "inception_4a/output"
  top: "inception_4b/5x5_reduce"
  param {
    lr_mult: 1
    decay_mult: 1
  }
  param {
    lr_mult: 2
    decay_mult: 0
  }
  convolution_param {
    num_output: 24
    kernel_size: 1
    weight_filler {
      type: "xavier"
      std: 0.2
    }
    bias_filler {
      type: "constant"
      value: 0.2
    }
  }
}
layer {
  name: "inception_4b/relu_5x5_reduce"
  type: "ReLU"
  bottom: "inception_4b/5x5_reduce"
  top: "inception_4b/5x5_reduce"
}
layer {
  name: "inception_4b/5x5"
  type: "Convolution"
  bottom: "inception_4b/5x5_reduce"
  top: "inception_4b/5x5"
  param {
    lr_mult: 1
    decay_mult: 1
  }
  param {
    lr_mult: 2
    decay_mult: 0
  }
  convolution_param {
    num_output: 64
    pad: 2
    kernel_size: 5
    weight_filler {
      type: "xavier"
      std: 0.03
    }
    bias_filler {
      type: "constant"
      value: 0.2
    }
  }
}
layer {
  name: "inception_4b/relu_5x5"
  type: "ReLU"
  bottom: "inception_4b/5x5"
  top: "inception_4b/5x5"
}
layer {
  name: "inception_4b/pool"
  type: "Pooling"
  bottom: "inception_4a/output"
  top: "inception_4b/pool"
  pooling_param {
    pool: MAX
    kernel_size: 3
    stride: 1
    pad: 1
  }
}
layer {
  name: "inception_4b/pool_proj"
  type: "Convolution"
  bottom: "inception_4b/pool"
  top: "inception_4b/pool_proj"
  param {
    lr_mult: 1
    decay_mult: 1
  }
  param {
    lr_mult: 2
    decay_mult: 0
  }
  convolution_param {
    num_output: 64
    kernel_size: 1
    weight_filler {
      type: "xavier"
      std: 0.1
    }
    bias_filler {
      type: "constant"
      value: 0.2
    }
  }
}
layer {
  name: "inception_4b/relu_pool_proj"
  type: "ReLU"
  bottom: "inception_4b/pool_proj"
  top: "inception_4b/pool_proj"
}
layer {
  name: "inception_4b/output"
  type: "Concat"
  bottom: "inception_4b/1x1"
  bottom: "inception_4b/3x3"
  bottom: "inception_4b/5x5"
  bottom: "inception_4b/pool_proj"
  top: "inception_4b/output"
}
layer {
  name: "inception_4c/1x1"
  type: "Convolution"
  bottom: "inception_4b/output"
  top: "inception_4c/1x1"
  param {
    lr_mult: 1
    decay_mult: 1
  }
  param {
    lr_mult: 2
    decay_mult: 0
  }
  convolution_param {
    num_output: 128
    kernel_size: 1
    weight_filler {
      type: "xavier"
      std: 0.03
    }
    bias_filler {
      type: "constant"
      value: 0.2
    }
  }
}
layer {
  name: "inception_4c/relu_1x1"
  type: "ReLU"
  bottom: "inception_4c/1x1"
  top: "inception_4c/1x1"
}
layer {
  name: "inception_4c/3x3_reduce"
  type: "Convolution"
  bottom: "inception_4b/output"
  top: "inception_4c/3x3_reduce"
  param {
    lr_mult: 1
    decay_mult: 1
  }
  param {
    lr_mult: 2
    decay_mult: 0
  }
  convolution_param {
    num_output: 128
    kernel_size: 1
    weight_filler {
      type: "xavier"
      std: 0.09
    }
    bias_filler {
      type: "constant"
      value: 0.2
    }
  }
}
layer {
  name: "inception_4c/relu_3x3_reduce"
  type: "ReLU"
  bottom: "inception_4c/3x3_reduce"
  top: "inception_4c/3x3_reduce"
}
layer {
  name: "inception_4c/3x3"
  type: "Convolution"
  bottom: "inception_4c/3x3_reduce"
  top: "inception_4c/3x3"
  param {
    lr_mult: 1
    decay_mult: 1
  }
  param {
    lr_mult: 2
    decay_mult: 0
  }
  convolution_param {
    num_output: 256
    pad: 1
    kernel_size: 3
    weight_filler {
      type: "xavier"
      std: 0.03
    }
    bias_filler {
      type: "constant"
      value: 0.2
    }
  }
}
layer {
  name: "inception_4c/relu_3x3"
  type: "ReLU"
  bottom: "inception_4c/3x3"
  top: "inception_4c/3x3"
}
layer {
  name: "inception_4c/5x5_reduce"
  type: "Convolution"
  bottom: "inception_4b/output"
  top: "inception_4c/5x5_reduce"
  param {
    lr_mult: 1
    decay_mult: 1
  }
  param {
    lr_mult: 2
    decay_mult: 0
  }
  convolution_param {
    num_output: 24
    kernel_size: 1
    weight_filler {
      type: "xavier"
      std: 0.2
    }
    bias_filler {
      type: "constant"
      value: 0.2
    }
  }
}
layer {
  name: "inception_4c/relu_5x5_reduce"
  type: "ReLU"
  bottom: "inception_4c/5x5_reduce"
  top: "inception_4c/5x5_reduce"
}
layer {
  name: "inception_4c/5x5"
  type: "Convolution"
  bottom: "inception_4c/5x5_reduce"
  top: "inception_4c/5x5"
  param {
    lr_mult: 1
    decay_mult: 1
  }
  param {
    lr_mult: 2
    decay_mult: 0
  }
  convolution_param {
    num_output: 64
    pad: 2
    kernel_size: 5
    weight_filler {
      type: "xavier"
      std: 0.03
    }
    bias_filler {
      type: "constant"
      value: 0.2
    }
  }
}
layer {
  name: "inception_4c/relu_5x5"
  type: "ReLU"
  bottom: "inception_4c/5x5"
  top: "inception_4c/5x5"
}
layer {
  name: "inception_4c/pool"
  type: "Pooling"
  bottom: "inception_4b/output"
  top: "inception_4c/pool"
  pooling_param {
    pool: MAX
    kernel_size: 3
    stride: 1
    pad: 1
  }
}
layer {
  name: "inception_4c/pool_proj"
  type: "Convolution"
  bottom: "inception_4c/pool"
  top: "inception_4c/pool_proj"
  param {
    lr_mult: 1
    decay_mult: 1
  }
  param {
    lr_mult: 2
    decay_mult: 0
  }
  convolution_param {
    num_output: 64
    kernel_size: 1
    weight_filler {
      type: "xavier"
      std: 0.1
    }
    bias_filler {
      type: "constant"
      value: 0.2
    }
  }
}
layer {
  name: "inception_4c/relu_pool_proj"
  type: "ReLU"
  bottom: "inception_4c/pool_proj"
  top: "inception_4c/pool_proj"
}
layer {
  name: "inception_4c/output"
  type: "Concat"
  bottom: "inception_4c/1x1"
  bottom: "inception_4c/3x3"
  bottom: "inception_4c/5x5"
  bottom: "inception_4c/pool_proj"
  top: "inception_4c/output"
}
layer {
  name: "inception_4d/1x1"
  type: "Convolution"
  bottom: "inception_4c/output"
  top: "inception_4d/1x1"
  param {
    lr_mult: 1
    decay_mult: 1
  }
  param {
    lr_mult: 2
    decay_mult: 0
  }
  convolution_param {
    num_output: 112
    kernel_size: 1
    weight_filler {
      type: "xavier"
      std: 0.03
    }
    bias_filler {
      type: "constant"
      value: 0.2
    }
  }
}
layer {
  name: "inception_4d/relu_1x1"
  type: "ReLU"
  bottom: "inception_4d/1x1"
  top: "inception_4d/1x1"
}
layer {
  name: "inception_4d/3x3_reduce"
  type: "Convolution"
  bottom: "inception_4c/output"
  top: "inception_4d/3x3_reduce"
  param {
    lr_mult: 1
    decay_mult: 1
  }
  param {
    lr_mult: 2
    decay_mult: 0
  }
  convolution_param {
    num_output: 144
    kernel_size: 1
    weight_filler {
      type: "xavier"
      std: 0.09
    }
    bias_filler {
      type: "constant"
      value: 0.2
    }
  }
}
layer {
  name: "inception_4d/relu_3x3_reduce"
  type: "ReLU"
  bottom: "inception_4d/3x3_reduce"
  top: "inception_4d/3x3_reduce"
}
layer {
  name: "inception_4d/3x3"
  type: "Convolution"
  bottom: "inception_4d/3x3_reduce"
  top: "inception_4d/3x3"
  param {
    lr_mult: 1
    decay_mult: 1
  }
  param {
    lr_mult: 2
    decay_mult: 0
  }
  convolution_param {
    num_output: 288
    pad: 1
    kernel_size: 3
    weight_filler {
      type: "xavier"
      std: 0.03
    }
    bias_filler {
      type: "constant"
      value: 0.2
    }
  }
}
layer {
  name: "inception_4d/relu_3x3"
  type: "ReLU"
  bottom: "inception_4d/3x3"
  top: "inception_4d/3x3"
}
layer {
  name: "inception_4d/5x5_reduce"
  type: "Convolution"
  bottom: "inception_4c/output"
  top: "inception_4d/5x5_reduce"
  param {
    lr_mult: 1
    decay_mult: 1
  }
  param {
    lr_mult: 2
    decay_mult: 0
  }
  convolution_param {
    num_output: 32
    kernel_size: 1
    weight_filler {
      type: "xavier"
      std: 0.2
    }
    bias_filler {
      type: "constant"
      value: 0.2
    }
  }
}
layer {
  name: "inception_4d/relu_5x5_reduce"
  type: "ReLU"
  bottom: "inception_4d/5x5_reduce"
  top: "inception_4d/5x5_reduce"
}
layer {
  name: "inception_4d/5x5"
  type: "Convolution"
  bottom: "inception_4d/5x5_reduce"
  top: "inception_4d/5x5"
  param {
    lr_mult: 1
    decay_mult: 1
  }
  param {
    lr_mult: 2
    decay_mult: 0
  }
  convolution_param {
    num_output: 64
    pad: 2
    kernel_size: 5
    weight_filler {
      type: "xavier"
      std: 0.03
    }
    bias_filler {
      type: "constant"
      value: 0.2
    }
  }
}
layer {
  name: "inception_4d/relu_5x5"
  type: "ReLU"
  bottom: "inception_4d/5x5"
  top: "inception_4d/5x5"
}
layer {
  name: "inception_4d/pool"
  type: "Pooling"
  bottom: "inception_4c/output"
  top: "inception_4d/pool"
  pooling_param {
    pool: MAX
    kernel_size: 3
    stride: 1
    pad: 1
  }
}
layer {
  name: "inception_4d/pool_proj"
  type: "Convolution"
  bottom: "inception_4d/pool"
  top: "inception_4d/pool_proj"
  param {
    lr_mult: 1
    decay_mult: 1
  }
  param {
    lr_mult: 2
    decay_mult: 0
  }
  convolution_param {
    num_output: 64
    kernel_size: 1
    weight_filler {
      type: "xavier"
      std: 0.1
    }
    bias_filler {
      type: "constant"
      value: 0.2
    }
  }
}
layer {
  name: "inception_4d/relu_pool_proj"
  type: "ReLU"
  bottom: "inception_4d/pool_proj"
  top: "inception_4d/pool_proj"
}
layer {
  name: "inception_4d/output"
  type: "Concat"
  bottom: "inception_4d/1x1"
  bottom: "inception_4d/3x3"
  bottom: "inception_4d/5x5"
  bottom: "inception_4d/pool_proj"
  top: "inception_4d/output"
}
layer {
  name: "inception_4e/1x1"
  type: "Convolution"
  bottom: "inception_4d/output"
  top: "inception_4e/1x1"
  param {
    lr_mult: 1
    decay_mult: 1
  }
  param {
    lr_mult: 2
    decay_mult: 0
  }
  convolution_param {
    num_output: 256
    kernel_size: 1
    weight_filler {
      type: "xavier"
      std: 0.03
    }
    bias_filler {
      type: "constant"
      value: 0.2
    }
  }
}
layer {
  name: "inception_4e/relu_1x1"
  type: "ReLU"
  bottom: "inception_4e/1x1"
  top: "inception_4e/1x1"
}
layer {
  name: "inception_4e/3x3_reduce"
  type: "Convolution"
  bottom: "inception_4d/output"
  top: "inception_4e/3x3_reduce"
  param {
    lr_mult: 1
    decay_mult: 1
  }
  param {
    lr_mult: 2
    decay_mult: 0
  }
  convolution_param {
    num_output: 160
    kernel_size: 1
    weight_filler {
      type: "xavier"
      std: 0.09
    }
    bias_filler {
      type: "constant"
      value: 0.2
    }
  }
}
layer {
  name: "inception_4e/relu_3x3_reduce"
  type: "ReLU"
  bottom: "inception_4e/3x3_reduce"
  top: "inception_4e/3x3_reduce"
}
layer {
  name: "inception_4e/3x3"
  type: "Convolution"
  bottom: "inception_4e/3x3_reduce"
  top: "inception_4e/3x3"
  param {
    lr_mult: 1
    decay_mult: 1
  }
  param {
    lr_mult: 2
    decay_mult: 0
  }
  convolution_param {
    num_output: 320
    pad: 1
    kernel_size: 3
    weight_filler {
      type: "xavier"
      std: 0.03
    }
    bias_filler {
      type: "constant"
      value: 0.2
    }
  }
}
layer {
  name: "inception_4e/relu_3x3"
  type: "ReLU"
  bottom: "inception_4e/3x3"
  top: "inception_4e/3x3"
}
layer {
  name: "inception_4e/5x5_reduce"
  type: "Convolution"
  bottom: "inception_4d/output"
  top: "inception_4e/5x5_reduce"
  param {
    lr_mult: 1
    decay_mult: 1
  }
  param {
    lr_mult: 2
    decay_mult: 0
  }
  convolution_param {
    num_output: 32
    kernel_size: 1
    weight_filler {
      type: "xavier"
      std: 0.2
    }
    bias_filler {
      type: "constant"
      value: 0.2
    }
  }
}
layer {
  name: "inception_4e/relu_5x5_reduce"
  type: "ReLU"
  bottom: "inception_4e/5x5_reduce"
  top: "inception_4e/5x5_reduce"
}
layer {
  name: "inception_4e/5x5"
  type: "Convolution"
  bottom: "inception_4e/5x5_reduce"
  top: "inception_4e/5x5"
  param {
    lr_mult: 1
    decay_mult: 1
  }
  param {
    lr_mult: 2
    decay_mult: 0
  }
  convolution_param {
    num_output: 128
    pad: 2
    kernel_size: 5
    weight_filler {
      type: "xavier"
      std: 0.03
    }
    bias_filler {
      type: "constant"
      value: 0.2
    }
  }
}
layer {
  name: "inception_4e/relu_5x5"
  type: "ReLU"
  bottom: "inception_4e/5x5"
  top: "inception_4e/5x5"
}
layer {
  name: "inception_4e/pool"
  type: "Pooling"
  bottom: "inception_4d/output"
  top: "inception_4e/pool"
  pooling_param {
    pool: MAX
    kernel_size: 3
    stride: 1
    pad: 1
  }
}
layer {
  name: "inception_4e/pool_proj"
  type: "Convolution"
  bottom: "inception_4e/pool"
  top: "inception_4e/pool_proj"
  param {
    lr_mult: 1
    decay_mult: 1
  }
  param {
    lr_mult: 2
    decay_mult: 0
  }
  convolution_param {
    num_output: 128
    kernel_size: 1
    weight_filler {
      type: "xavier"
      std: 0.1
    }
    bias_filler {
      type: "constant"
      value: 0.2
    }
  }
}
layer {
  name: "inception_4e/relu_pool_proj"
  type: "ReLU"
  bottom: "inception_4e/pool_proj"
  top: "inception_4e/pool_proj"
}
layer {
  name: "inception_4e/output"
  type: "Concat"
  bottom: "inception_4e/1x1"
  bottom: "inception_4e/3x3"
  bottom: "inception_4e/5x5"
  bottom: "inception_4e/pool_proj"
  top: "inception_4e/output"
}
layer {
  name: "pool4/3x3_s2"
  type: "Pooling"
  bottom: "inception_4e/output"
  top: "pool4/3x3_s2"
  pooling_param {
    pool: MAX
    kernel_size: 3
    stride: 2
  }
}
layer {
  name: "inception_5a/1x1"
  type: "Convolution"
  bottom: "pool4/3x3_s2"
  top: "inception_5a/1x1"
  param {
    lr_mult: 1
    decay_mult: 1
  }
  param {
    lr_mult: 2
    decay_mult: 0
  }
  convolution_param {
    num_output: 256
    kernel_size: 1
    weight_filler {
      type: "xavier"
      std: 0.03
    }
    bias_filler {
      type: "constant"
      value: 0.2
    }
  }
}
layer {
  name: "inception_5a/relu_1x1"
  type: "ReLU"
  bottom: "inception_5a/1x1"
  top: "inception_5a/1x1"
}
layer {
  name: "inception_5a/3x3_reduce"
  type: "Convolution"
  bottom: "pool4/3x3_s2"
  top: "inception_5a/3x3_reduce"
  param {
    lr_mult: 1
    decay_mult: 1
  }
  param {
    lr_mult: 2
    decay_mult: 0
  }
  convolution_param {
    num_output: 160
    kernel_size: 1
    weight_filler {
      type: "xavier"
      std: 0.09
    }
    bias_filler {
      type: "constant"
      value: 0.2
    }
  }
}
layer {
  name: "inception_5a/relu_3x3_reduce"
  type: "ReLU"
  bottom: "inception_5a/3x3_reduce"
  top: "inception_5a/3x3_reduce"
}
layer {
  name: "inception_5a/3x3"
  type: "Convolution"
  bottom: "inception_5a/3x3_reduce"
  top: "inception_5a/3x3"
  param {
    lr_mult: 1
    decay_mult: 1
  }
  param {
    lr_mult: 2
    decay_mult: 0
  }
  convolution_param {
    num_output: 320
    pad: 1
    kernel_size: 3
    weight_filler {
      type: "xavier"
      std: 0.03
    }
    bias_filler {
      type: "constant"
      value: 0.2
    }
  }
}
layer {
  name: "inception_5a/relu_3x3"
  type: "ReLU"
  bottom: "inception_5a/3x3"
  top: "inception_5a/3x3"
}
layer {
  name: "inception_5a/5x5_reduce"
  type: "Convolution"
  bottom: "pool4/3x3_s2"
  top: "inception_5a/5x5_reduce"
  param {
    lr_mult: 1
    decay_mult: 1
  }
  param {
    lr_mult: 2
    decay_mult: 0
  }
  convolution_param {
    num_output: 32
    kernel_size: 1
    weight_filler {
      type: "xavier"
      std: 0.2
    }
    bias_filler {
      type: "constant"
      value: 0.2
    }
I0706 23:51:28.474632 12507 net.cpp:49] Initializing net from parameters: 
name: "GoogleNet"
state {
  phase: TEST
}
layer {
  name: "data"
  type: "Input"
  top: "data"
  input_param {
    shape {
      dim: 10
      dim: 3
      dim: 224
      dim: 224
    }
  }
}
layer {
  name: "conv1/7x7_s2"
  type: "Convolution"
  bottom: "data"
  top: "conv1/7x7_s2"
  param {
    lr_mult: 1
    decay_mult: 1
  }
  param {
    lr_mult: 2
    decay_mult: 0
  }
  convolution_param {
    num_output: 64
    pad: 3
    kernel_size: 7
    stride: 2
    weight_filler {
      type: "xavier"
      std: 0.1
    }
    bias_filler {
      type: "constant"
      value: 0.2
    }
  }
}
layer {
  name: "conv1/relu_7x7"
  type: "ReLU"
  bottom: "conv1/7x7_s2"
  top: "conv1/7x7_s2"
}
layer {
  name: "pool1/3x3_s2"
  type: "Pooling"
  bottom: "conv1/7x7_s2"
  top: "pool1/3x3_s2"
  pooling_param {
    pool: MAX
    kernel_size: 3
    stride: 2
  }
}
layer {
  name: "pool1/norm1"
  type: "LRN"
  bottom: "pool1/3x3_s2"
  top: "pool1/norm1"
  lrn_param {
    local_size: 5
    alpha: 0.0001
    beta: 0.75
  }
}
layer {
  name: "conv2/3x3_reduce"
  type: "Convolution"
  bottom: "pool1/norm1"
  top: "conv2/3x3_reduce"
  param {
    lr_mult: 1
    decay_mult: 1
  }
  param {
    lr_mult: 2
    decay_mult: 0
  }
  convolution_param {
    num_output: 64
    kernel_size: 1
    weight_filler {
      type: "xavier"
      std: 0.1
    }
    bias_filler {
      type: "constant"
      value: 0.2
    }
  }
}
layer {
  name: "conv2/relu_3x3_reduce"
  type: "ReLU"
  bottom: "conv2/3x3_reduce"
  top: "conv2/3x3_reduce"
}
layer {
  name: "conv2/3x3"
  type: "Convolution"
  bottom: "conv2/3x3_reduce"
  top: "conv2/3x3"
  param {
    lr_mult: 1
    decay_mult: 1
  }
  param {
    lr_mult: 2
    decay_mult: 0
  }
  convolution_param {
    num_output: 192
    pad: 1
    kernel_size: 3
    weight_filler {
      type: "xavier"
      std: 0.03
    }
    bias_filler {
      type: "constant"
      value: 0.2
    }
  }
}
layer {
  name: "conv2/relu_3x3"
  type: "ReLU"
  bottom: "conv2/3x3"
  top: "conv2/3x3"
}
layer {
  name: "conv2/norm2"
  type: "LRN"
  bottom: "conv2/3x3"
  top: "conv2/norm2"
  lrn_param {
    local_size: 5
    alpha: 0.0001
    beta: 0.75
  }
}
layer {
  name: "pool2/3x3_s2"
  type: "Pooling"
  bottom: "conv2/norm2"
  top: "pool2/3x3_s2"
  pooling_param {
    pool: MAX
    kernel_size: 3
    stride: 2
  }
}
layer {
  name: "inception_3a/1x1"
  type: "Convolution"
  bottom: "pool2/3x3_s2"
  top: "inception_3a/1x1"
  param {
    lr_mult: 1
    decay_mult: 1
  }
  param {
    lr_mult: 2
    decay_mult: 0
  }
  convolution_param {
    num_output: 64
    kernel_size: 1
    weight_filler {
      type: "xavier"
      std: 0.03
    }
    bias_filler {
      type: "constant"
      value: 0.2
    }
  }
}
layer {
  name: "inception_3a/relu_1x1"
  type: "ReLU"
  bottom: "inception_3a/1x1"
  top: "inception_3a/1x1"
}
layer {
  name: "inception_3a/3x3_reduce"
  type: "Convolution"
  bottom: "pool2/3x3_s2"
  top: "inception_3a/3x3_reduce"
  param {
    lr_mult: 1
    decay_mult: 1
  }
  param {
    lr_mult: 2
    decay_mult: 0
  }
  convolution_param {
    num_output: 96
    kernel_size: 1
    weight_filler {
      type: "xavier"
      std: 0.09
    }
    bias_filler {
      type: "constant"
      value: 0.2
    }
  }
}
layer {
  name: "inception_3a/relu_3x3_reduce"
  type: "ReLU"
  bottom: "inception_3a/3x3_reduce"
  top: "inception_3a/3x3_reduce"
}
layer {
  name: "inception_3a/3x3"
  type: "Convolution"
  bottom: "inception_3a/3x3_reduce"
  top: "inception_3a/3x3"
  param {
    lr_mult: 1
    decay_mult: 1
  }
  param {
    lr_mult: 2
    decay_mult: 0
  }
  convolution_param {
    num_output: 128
    pad: 1
    kernel_size: 3
    weight_filler {
      type: "xavier"
      std: 0.03
    }
    bias_filler {
      type: "constant"
      value: 0.2
    }
  }
}
layer {
  name: "inception_3a/relu_3x3"
  type: "ReLU"
  bottom: "inception_3a/3x3"
  top: "inception_3a/3x3"
}
layer {
  name: "inception_3a/5x5_reduce"
  type: "Convolution"
  bottom: "pool2/3x3_s2"
  top: "inception_3a/5x5_reduce"
  param {
    lr_mult: 1
    decay_mult: 1
  }
  param {
    lr_mult: 2
    decay_mult: 0
  }
  convolution_param {
    num_output: 16
    kernel_size: 1
    weight_filler {
      type: "xavier"
      std: 0.2
    }
    bias_filler {
      type: "constant"
      value: 0.2
    }
  }
}
layer {
  name: "inception_3a/relu_5x5_reduce"
  type: "ReLU"
  bottom: "inception_3a/5x5_reduce"
  top: "inception_3a/5x5_reduce"
}
layer {
  name: "inception_3a/5x5"
  type: "Convolution"
  bottom: "inception_3a/5x5_reduce"
  top: "inception_3a/5x5"
  param {
    lr_mult: 1
    decay_mult: 1
  }
  param {
    lr_mult: 2
    decay_mult: 0
  }
  convolution_param {
    num_output: 32
    pad: 2
    kernel_size: 5
    weight_filler {
      type: "xavier"
      std: 0.03
    }
    bias_filler {
      type: "constant"
      value: 0.2
    }
  }
}
layer {
  name: "inception_3a/relu_5x5"
  type: "ReLU"
  bottom: "inception_3a/5x5"
  top: "inception_3a/5x5"
}
layer {
  name: "inception_3a/pool"
  type: "Pooling"
  bottom: "pool2/3x3_s2"
  top: "inception_3a/pool"
  pooling_param {
    pool: MAX
    kernel_size: 3
    stride: 1
    pad: 1
  }
}
layer {
  name: "inception_3a/pool_proj"
  type: "Convolution"
  bottom: "inception_3a/pool"
  top: "inception_3a/pool_proj"
  param {
    lr_mult: 1
    decay_mult: 1
  }
  param {
    lr_mult: 2
    decay_mult: 0
  }
  convolution_param {
    num_output: 32
    kernel_size: 1
    weight_filler {
      type: "xavier"
      std: 0.1
    }
    bias_filler {
      type: "constant"
      value: 0.2
    }
  }
}
layer {
  name: "inception_3a/relu_pool_proj"
  type: "ReLU"
  bottom: "inception_3a/pool_proj"
  top: "inception_3a/pool_proj"
}
layer {
  name: "inception_3a/output"
  type: "Concat"
  bottom: "inception_3a/1x1"
  bottom: "inception_3a/3x3"
  bottom: "inception_3a/5x5"
  bottom: "inception_3a/pool_proj"
  top: "inception_3a/output"
}
layer {
  name: "inception_3b/1x1"
  type: "Convolution"
  bottom: "inception_3a/output"
  top: "inception_3b/1x1"
  param {
    lr_mult: 1
    decay_mult: 1
  }
  param {
    lr_mult: 2
    decay_mult: 0
  }
  convolution_param {
    num_output: 128
    kernel_size: 1
    weight_filler {
      type: "xavier"
      std: 0.03
    }
    bias_filler {
      type: "constant"
      value: 0.2
    }
  }
}
layer {
  name: "inception_3b/relu_1x1"
  type: "ReLU"
  bottom: "inception_3b/1x1"
  top: "inception_3b/1x1"
}
layer {
  name: "inception_3b/3x3_reduce"
  type: "Convolution"
  bottom: "inception_3a/output"
  top: "inception_3b/3x3_reduce"
  param {
    lr_mult: 1
    decay_mult: 1
  }
  param {
    lr_mult: 2
    decay_mult: 0
  }
  convolution_param {
    num_output: 128
    kernel_size: 1
    weight_filler {
      type: "xavier"
      std: 0.09
    }
    bias_filler {
      type: "constant"
      value: 0.2
    }
  }
}
layer {
  name: "inception_3b/relu_3x3_reduce"
  type: "ReLU"
  bottom: "inception_3b/3x3_reduce"
  top: "inception_3b/3x3_reduce"
}
layer {
  name: "inception_3b/3x3"
  type: "Convolution"
  bottom: "inception_3b/3x3_reduce"
  top: "inception_3b/3x3"
  param {
    lr_mult: 1
    decay_mult: 1
  }
  param {
    lr_mult: 2
    decay_mult: 0
  }
  convolution_param {
    num_output: 192
    pad: 1
    kernel_size: 3
    weight_filler {
      type: "xavier"
      std: 0.03
    }
    bias_filler {
      type: "constant"
      value: 0.2
    }
  }
}
layer {
  name: "inception_3b/relu_3x3"
  type: "ReLU"
  bottom: "inception_3b/3x3"
  top: "inception_3b/3x3"
}
layer {
  name: "inception_3b/5x5_reduce"
  type: "Convolution"
  bottom: "inception_3a/output"
  top: "inception_3b/5x5_reduce"
  param {
    lr_mult: 1
    decay_mult: 1
  }
  param {
    lr_mult: 2
    decay_mult: 0
  }
  convolution_param {
    num_output: 32
    kernel_size: 1
    weight_filler {
      type: "xavier"
      std: 0.2
    }
    bias_filler {
      type: "constant"
      value: 0.2
    }
  }
}
layer {
  name: "inception_3b/relu_5x5_reduce"
  type: "ReLU"
  bottom: "inception_3b/5x5_reduce"
  top: "inception_3b/5x5_reduce"
}
layer {
  name: "inception_3b/5x5"
  type: "Convolution"
  bottom: "inception_3b/5x5_reduce"
  top: "inception_3b/5x5"
  param {
    lr_mult: 1
    decay_mult: 1
  }
  param {
    lr_mult: 2
    decay_mult: 0
  }
  convolution_param {
    num_output: 96
    pad: 2
    kernel_size: 5
    weight_filler {
      type: "xavier"
      std: 0.03
    }
    bias_filler {
      type: "constant"
      value: 0.2
    }
  }
}
layer {
  name: "inception_3b/relu_5x5"
  type: "ReLU"
  bottom: "inception_3b/5x5"
  top: "inception_3b/5x5"
}
layer {
  name: "inception_3b/pool"
  type: "Pooling"
  bottom: "inception_3a/output"
  top: "inception_3b/pool"
  pooling_param {
    pool: MAX
    kernel_size: 3
    stride: 1
    pad: 1
  }
}
layer {
  name: "inception_3b/pool_proj"
  type: "Convolution"
  bottom: "inception_3b/pool"
  top: "inception_3b/pool_proj"
  param {
    lr_mult: 1
    decay_mult: 1
  }
  param {
    lr_mult: 2
    decay_mult: 0
  }
  convolution_param {
    num_output: 64
    kernel_size: 1
    weight_filler {
      type: "xavier"
      std: 0.1
    }
    bias_filler {
      type: "constant"
      value: 0.2
    }
  }
}
layer {
  name: "inception_3b/relu_pool_proj"
  type: "ReLU"
  bottom: "inception_3b/pool_proj"
  top: "inception_3b/pool_proj"
}
layer {
  name: "inception_3b/output"
  type: "Concat"
  bottom: "inception_3b/1x1"
  bottom: "inception_3b/3x3"
  bottom: "inception_3b/5x5"
  bottom: "inception_3b/pool_proj"
  top: "inception_3b/output"
}
layer {
  name: "pool3/3x3_s2"
  type: "Pooling"
  bottom: "inception_3b/output"
  top: "pool3/3x3_s2"
  pooling_param {
    pool: MAX
    kernel_size: 3
    stride: 2
  }
}
layer {
  name: "inception_4a/1x1"
  type: "Convolution"
  bottom: "pool3/3x3_s2"
  top: "inception_4a/1x1"
  param {
    lr_mult: 1
    decay_mult: 1
  }
  param {
    lr_mult: 2
    decay_mult: 0
  }
  convolution_param {
    num_output: 192
    kernel_size: 1
    weight_filler {
      type: "xavier"
      std: 0.03
    }
    bias_filler {
      type: "constant"
      value: 0.2
    }
  }
}
layer {
  name: "inception_4a/relu_1x1"
  type: "ReLU"
  bottom: "inception_4a/1x1"
  top: "inception_4a/1x1"
}
layer {
  name: "inception_4a/3x3_reduce"
  type: "Convolution"
  bottom: "pool3/3x3_s2"
  top: "inception_4a/3x3_reduce"
  param {
    lr_mult: 1
    decay_mult: 1
  }
  param {
    lr_mult: 2
    decay_mult: 0
  }
  convolution_param {
    num_output: 96
    kernel_size: 1
    weight_filler {
      type: "xavier"
      std: 0.09
    }
    bias_filler {
      type: "constant"
      value: 0.2
    }
  }
}
layer {
  name: "inception_4a/relu_3x3_reduce"
  type: "ReLU"
  bottom: "inception_4a/3x3_reduce"
  top: "inception_4a/3x3_reduce"
}
layer {
  name: "inception_4a/3x3"
  type: "Convolution"
  bottom: "inception_4a/3x3_reduce"
  top: "inception_4a/3x3"
  param {
    lr_mult: 1
    decay_mult: 1
  }
  param {
    lr_mult: 2
    decay_mult: 0
  }
  convolution_param {
    num_output: 208
    pad: 1
    kernel_size: 3
    weight_filler {
      type: "xavier"
      std: 0.03
    }
    bias_filler {
      type: "constant"
      value: 0.2
    }
  }
}
layer {
  name: "inception_4a/relu_3x3"
  type: "ReLU"
  bottom: "inception_4a/3x3"
  top: "inception_4a/3x3"
}
layer {
  name: "inception_4a/5x5_reduce"
  type: "Convolution"
  bottom: "pool3/3x3_s2"
  top: "inception_4a/5x5_reduce"
  param {
    lr_mult: 1
    decay_mult: 1
  }
  param {
    lr_mult: 2
    decay_mult: 0
  }
  convolution_param {
    num_output: 16
    kernel_size: 1
    weight_filler {
      type: "xavier"
      std: 0.2
    }
    bias_filler {
      type: "constant"
      value: 0.2
    }
  }
}
layer {
  name: "inception_4a/relu_5x5_reduce"
  type: "ReLU"
  bottom: "inception_4a/5x5_reduce"
  top: "inception_4a/5x5_reduce"
}
layer {
  name: "inception_4a/5x5"
  type: "Convolution"
  bottom: "inception_4a/5x5_reduce"
  top: "inception_4a/5x5"
  param {
    lr_mult: 1
    decay_mult: 1
  }
  param {
    lr_mult: 2
    decay_mult: 0
  }
  convolution_param {
    num_output: 48
    pad: 2
    kernel_size: 5
    weight_filler {
      type: "xavier"
      std: 0.03
    }
    bias_filler {
      type: "constant"
      value: 0.2
    }
  }
}
layer {
  name: "inception_4a/relu_5x5"
  type: "ReLU"
  bottom: "inception_4a/5x5"
  top: "inception_4a/5x5"
}
layer {
  name: "inception_4a/pool"
  type: "Pooling"
  bottom: "pool3/3x3_s2"
  top: "inception_4a/pool"
  pooling_param {
    pool: MAX
    kernel_size: 3
    stride: 1
    pad: 1
  }
}
layer {
  name: "inception_4a/pool_proj"
  type: "Convolution"
  bottom: "inception_4a/pool"
  top: "inception_4a/pool_proj"
  param {
    lr_mult: 1
    decay_mult: 1
  }
  param {
    lr_mult: 2
    decay_mult: 0
  }
  convolution_param {
    num_output: 64
    kernel_size: 1
    weight_filler {
      type: "xavier"
      std: 0.1
    }
    bias_filler {
      type: "constant"
      value: 0.2
    }
  }
}
layer {
  name: "inception_4a/relu_pool_proj"
  type: "ReLU"
  bottom: "inception_4a/pool_proj"
  top: "inception_4a/pool_proj"
}
layer {
  name: "inception_4a/output"
  type: "Concat"
  bottom: "inception_4a/1x1"
  bottom: "inception_4a/3x3"
  bottom: "inception_4a/5x5"
  bottom: "inception_4a/pool_proj"
  top: "inception_4a/output"
}
layer {
  name: "inception_4b/1x1"
  type: "Convolution"
  bottom: "inception_4a/output"
  top: "inception_4b/1x1"
  param {
    lr_mult: 1
    decay_mult: 1
  }
  param {
    lr_mult: 2
    decay_mult: 0
  }
  convolution_param {
    num_output: 160
    kernel_size: 1
    weight_filler {
      type: "xavier"
      std: 0.03
    }
    bias_filler {
      type: "constant"
      value: 0.2
    }
  }
}
layer {
  name: "inception_4b/relu_1x1"
  type: "ReLU"
  bottom: "inception_4b/1x1"
  top: "inception_4b/1x1"
}
layer {
  name: "inception_4b/3x3_reduce"
  type: "Convolution"
  bottom: "inception_4a/output"
  top: "inception_4b/3x3_reduce"
  param {
    lr_mult: 1
    decay_mult: 1
  }
  param {
    lr_mult: 2
    decay_mult: 0
  }
  convolution_param {
    num_output: 112
    kernel_size: 1
    weight_filler {
      type: "xavier"
      std: 0.09
    }
    bias_filler {
      type: "constant"
      value: 0.2
    }
  }
}
layer {
  name: "inception_4b/relu_3x3_reduce"
  type: "ReLU"
  bottom: "inception_4b/3x3_reduce"
  top: "inception_4b/3x3_reduce"
}
layer {
  name: "inception_4b/3x3"
  type: "Convolution"
  bottom: "inception_4b/3x3_reduce"
  top: "inception_4b/3x3"
  param {
    lr_mult: 1
    decay_mult: 1
  }
  param {
    lr_mult: 2
    decay_mult: 0
  }
  convolution_param {
    num_output: 224
    pad: 1
    kernel_size: 3
    weight_filler {
      type: "xavier"
      std: 0.03
    }
    bias_filler {
      type: "constant"
      value: 0.2
    }
  }
}
layer {
  name: "inception_4b/relu_3x3"
  type: "ReLU"
  bottom: "inception_4b/3x3"
  top: "inception_4b/3x3"
}
layer {
  name: "inception_4b/5x5_reduce"
  type: "Convolution"
  bottom: "inception_4a/output"
  top: "inception_4b/5x5_reduce"
  param {
    lr_mult: 1
    decay_mult: 1
  }
  param {
    lr_mult: 2
    decay_mult: 0
  }
  convolution_param {
    num_output: 24
    kernel_size: 1
    weight_filler {
      type: "xavier"
      std: 0.2
    }
    bias_filler {
      type: "constant"
      value: 0.2
    }
  }
}
layer {
  name: "inception_4b/relu_5x5_reduce"
  type: "ReLU"
  bottom: "inception_4b/5x5_reduce"
  top: "inception_4b/5x5_reduce"
}
layer {
  name: "inception_4b/5x5"
  type: "Convolution"
  bottom: "inception_4b/5x5_reduce"
  top: "inception_4b/5x5"
  param {
    lr_mult: 1
    decay_mult: 1
  }
  param {
    lr_mult: 2
    decay_mult: 0
  }
  convolution_param {
    num_output: 64
    pad: 2
    kernel_size: 5
    weight_filler {
      type: "xavier"
      std: 0.03
    }
    bias_filler {
      type: "constant"
      value: 0.2
    }
  }
}
layer {
  name: "inception_4b/relu_5x5"
  type: "ReLU"
  bottom: "inception_4b/5x5"
  top: "inception_4b/5x5"
}
layer {
  name: "inception_4b/pool"
  type: "Pooling"
  bottom: "inception_4a/output"
  top: "inception_4b/pool"
  pooling_param {
    pool: MAX
    kernel_size: 3
    stride: 1
    pad: 1
  }
}
layer {
  name: "inception_4b/pool_proj"
  type: "Convolution"
  bottom: "inception_4b/pool"
  top: "inception_4b/pool_proj"
  param {
    lr_mult: 1
    decay_mult: 1
  }
  param {
    lr_mult: 2
    decay_mult: 0
  }
  convolution_param {
    num_output: 64
    kernel_size: 1
    weight_filler {
      type: "xavier"
      std: 0.1
    }
    bias_filler {
      type: "constant"
      value: 0.2
    }
  }
}
layer {
  name: "inception_4b/relu_pool_proj"
  type: "ReLU"
  bottom: "inception_4b/pool_proj"
  top: "inception_4b/pool_proj"
}
layer {
  name: "inception_4b/output"
  type: "Concat"
  bottom: "inception_4b/1x1"
  bottom: "inception_4b/3x3"
  bottom: "inception_4b/5x5"
  bottom: "inception_4b/pool_proj"
  top: "inception_4b/output"
}
layer {
  name: "inception_4c/1x1"
  type: "Convolution"
  bottom: "inception_4b/output"
  top: "inception_4c/1x1"
  param {
    lr_mult: 1
    decay_mult: 1
  }
  param {
    lr_mult: 2
    decay_mult: 0
  }
  convolution_param {
    num_output: 128
    kernel_size: 1
    weight_filler {
      type: "xavier"
      std: 0.03
    }
    bias_filler {
      type: "constant"
      value: 0.2
    }
  }
}
layer {
  name: "inception_4c/relu_1x1"
  type: "ReLU"
  bottom: "inception_4c/1x1"
  top: "inception_4c/1x1"
}
layer {
  name: "inception_4c/3x3_reduce"
  type: "Convolution"
  bottom: "inception_4b/output"
  top: "inception_4c/3x3_reduce"
  param {
    lr_mult: 1
    decay_mult: 1
  }
  param {
    lr_mult: 2
    decay_mult: 0
  }
  convolution_param {
    num_output: 128
    kernel_size: 1
    weight_filler {
      type: "xavier"
      std: 0.09
    }
    bias_filler {
      type: "constant"
      value: 0.2
    }
  }
}
layer {
  name: "inception_4c/relu_3x3_reduce"
  type: "ReLU"
  bottom: "inception_4c/3x3_reduce"
  top: "inception_4c/3x3_reduce"
}
layer {
  name: "inception_4c/3x3"
  type: "Convolution"
  bottom: "inception_4c/3x3_reduce"
  top: "inception_4c/3x3"
  param {
    lr_mult: 1
    decay_mult: 1
  }
  param {
    lr_mult: 2
    decay_mult: 0
  }
  convolution_param {
    num_output: 256
    pad: 1
    kernel_size: 3
    weight_filler {
      type: "xavier"
      std: 0.03
    }
    bias_filler {
      type: "constant"
      value: 0.2
    }
  }
}
layer {
  name: "inception_4c/relu_3x3"
  type: "ReLU"
  bottom: "inception_4c/3x3"
  top: "inception_4c/3x3"
}
layer {
  name: "inception_4c/5x5_reduce"
  type: "Convolution"
  bottom: "inception_4b/output"
  top: "inception_4c/5x5_reduce"
  param {
    lr_mult: 1
    decay_mult: 1
  }
  param {
    lr_mult: 2
    decay_mult: 0
  }
  convolution_param {
    num_output: 24
    kernel_size: 1
    weight_filler {
      type: "xavier"
      std: 0.2
    }
    bias_filler {
      type: "constant"
      value: 0.2
    }
  }
}
layer {
  name: "inception_4c/relu_5x5_reduce"
  type: "ReLU"
  bottom: "inception_4c/5x5_reduce"
  top: "inception_4c/5x5_reduce"
}
layer {
  name: "inception_4c/5x5"
  type: "Convolution"
  bottom: "inception_4c/5x5_reduce"
  top: "inception_4c/5x5"
  param {
    lr_mult: 1
    decay_mult: 1
  }
  param {
    lr_mult: 2
    decay_mult: 0
  }
  convolution_param {
    num_output: 64
    pad: 2
    kernel_size: 5
    weight_filler {
      type: "xavier"
      std: 0.03
    }
    bias_filler {
      type: "constant"
      value: 0.2
    }
  }
}
layer {
  name: "inception_4c/relu_5x5"
  type: "ReLU"
  bottom: "inception_4c/5x5"
  top: "inception_4c/5x5"
}
layer {
  name: "inception_4c/pool"
  type: "Pooling"
  bottom: "inception_4b/output"
  top: "inception_4c/pool"
  pooling_param {
    pool: MAX
    kernel_size: 3
    stride: 1
    pad: 1
  }
}
layer {
  name: "inception_4c/pool_proj"
  type: "Convolution"
  bottom: "inception_4c/pool"
  top: "inception_4c/pool_proj"
  param {
    lr_mult: 1
    decay_mult: 1
  }
  param {
    lr_mult: 2
    decay_mult: 0
  }
  convolution_param {
    num_output: 64
    kernel_size: 1
    weight_filler {
      type: "xavier"
      std: 0.1
    }
    bias_filler {
      type: "constant"
      value: 0.2
    }
  }
}
layer {
  name: "inception_4c/relu_pool_proj"
  type: "ReLU"
  bottom: "inception_4c/pool_proj"
  top: "inception_4c/pool_proj"
}
layer {
  name: "inception_4c/output"
  type: "Concat"
  bottom: "inception_4c/1x1"
  bottom: "inception_4c/3x3"
  bottom: "inception_4c/5x5"
  bottom: "inception_4c/pool_proj"
  top: "inception_4c/output"
}
layer {
  name: "inception_4d/1x1"
  type: "Convolution"
  bottom: "inception_4c/output"
  top: "inception_4d/1x1"
  param {
    lr_mult: 1
    decay_mult: 1
  }
  param {
    lr_mult: 2
    decay_mult: 0
  }
  convolution_param {
    num_output: 112
    kernel_size: 1
    weight_filler {
      type: "xavier"
      std: 0.03
    }
    bias_filler {
      type: "constant"
      value: 0.2
    }
  }
}
layer {
  name: "inception_4d/relu_1x1"
  type: "ReLU"
  bottom: "inception_4d/1x1"
  top: "inception_4d/1x1"
}
layer {
  name: "inception_4d/3x3_reduce"
  type: "Convolution"
  bottom: "inception_4c/output"
  top: "inception_4d/3x3_reduce"
  param {
    lr_mult: 1
    decay_mult: 1
  }
  param {
    lr_mult: 2
    decay_mult: 0
  }
  convolution_param {
    num_output: 144
    kernel_size: 1
    weight_filler {
      type: "xavier"
      std: 0.09
    }
    bias_filler {
      type: "constant"
      value: 0.2
    }
  }
}
layer {
  name: "inception_4d/relu_3x3_reduce"
  type: "ReLU"
  bottom: "inception_4d/3x3_reduce"
  top: "inception_4d/3x3_reduce"
}
layer {
  name: "inception_4d/3x3"
  type: "Convolution"
  bottom: "inception_4d/3x3_reduce"
  top: "inception_4d/3x3"
  param {
    lr_mult: 1
    decay_mult: 1
  }
  param {
    lr_mult: 2
    decay_mult: 0
  }
  convolution_param {
    num_output: 288
    pad: 1
    kernel_size: 3
    weight_filler {
      type: "xavier"
      std: 0.03
    }
    bias_filler {
      type: "constant"
      value: 0.2
    }
  }
}
layer {
  name: "inception_4d/relu_3x3"
  type: "ReLU"
  bottom: "inception_4d/3x3"
  top: "inception_4d/3x3"
}
layer {
  name: "inception_4d/5x5_reduce"
  type: "Convolution"
  bottom: "inception_4c/output"
  top: "inception_4d/5x5_reduce"
  param {
    lr_mult: 1
    decay_mult: 1
  }
  param {
    lr_mult: 2
    decay_mult: 0
  }
  convolution_param {
    num_output: 32
    kernel_size: 1
    weight_filler {
      type: "xavier"
      std: 0.2
    }
    bias_filler {
      type: "constant"
      value: 0.2
    }
  }
}
layer {
  name: "inception_4d/relu_5x5_reduce"
  type: "ReLU"
  bottom: "inception_4d/5x5_reduce"
  top: "inception_4d/5x5_reduce"
}
layer {
  name: "inception_4d/5x5"
  type: "Convolution"
  bottom: "inception_4d/5x5_reduce"
  top: "inception_4d/5x5"
  param {
    lr_mult: 1
    decay_mult: 1
  }
  param {
    lr_mult: 2
    decay_mult: 0
  }
  convolution_param {
    num_output: 64
    pad: 2
    kernel_size: 5
    weight_filler {
      type: "xavier"
      std: 0.03
    }
    bias_filler {
      type: "constant"
      value: 0.2
    }
  }
}
layer {
  name: "inception_4d/relu_5x5"
  type: "ReLU"
  bottom: "inception_4d/5x5"
  top: "inception_4d/5x5"
}
layer {
  name: "inception_4d/pool"
  type: "Pooling"
  bottom: "inception_4c/output"
  top: "inception_4d/pool"
  pooling_param {
    pool: MAX
    kernel_size: 3
    stride: 1
    pad: 1
  }
}
layer {
  name: "inception_4d/pool_proj"
  type: "Convolution"
  bottom: "inception_4d/pool"
  top: "inception_4d/pool_proj"
  param {
    lr_mult: 1
    decay_mult: 1
  }
  param {
    lr_mult: 2
    decay_mult: 0
  }
  convolution_param {
    num_output: 64
    kernel_size: 1
    weight_filler {
      type: "xavier"
      std: 0.1
    }
    bias_filler {
      type: "constant"
      value: 0.2
    }
  }
}
layer {
  name: "inception_4d/relu_pool_proj"
  type: "ReLU"
  bottom: "inception_4d/pool_proj"
  top: "inception_4d/pool_proj"
}
layer {
  name: "inception_4d/output"
  type: "Concat"
  bottom: "inception_4d/1x1"
  bottom: "inception_4d/3x3"
  bottom: "inception_4d/5x5"
  bottom: "inception_4d/pool_proj"
  top: "inception_4d/output"
}
layer {
  name: "inception_4e/1x1"
  type: "Convolution"
  bottom: "inception_4d/output"
  top: "inception_4e/1x1"
  param {
    lr_mult: 1
    decay_mult: 1
  }
  param {
    lr_mult: 2
    decay_mult: 0
  }
  convolution_param {
    num_output: 256
    kernel_size: 1
    weight_filler {
      type: "xavier"
      std: 0.03
    }
    bias_filler {
      type: "constant"
      value: 0.2
    }
  }
}
layer {
  name: "inception_4e/relu_1x1"
  type: "ReLU"
  bottom: "inception_4e/1x1"
  top: "inception_4e/1x1"
}
layer {
  name: "inception_4e/3x3_reduce"
  type: "Convolution"
  bottom: "inception_4d/output"
  top: "inception_4e/3x3_reduce"
  param {
    lr_mult: 1
    decay_mult: 1
  }
  param {
    lr_mult: 2
    decay_mult: 0
  }
  convolution_param {
    num_output: 160
    kernel_size: 1
    weight_filler {
      type: "xavier"
      std: 0.09
    }
    bias_filler {
      type: "constant"
      value: 0.2
    }
  }
}
layer {
  name: "inception_4e/relu_3x3_reduce"
  type: "ReLU"
  bottom: "inception_4e/3x3_reduce"
  top: "inception_4e/3x3_reduce"
}
layer {
  name: "inception_4e/3x3"
  type: "Convolution"
  bottom: "inception_4e/3x3_reduce"
  top: "inception_4e/3x3"
  param {
    lr_mult: 1
    decay_mult: 1
  }
  param {
    lr_mult: 2
    decay_mult: 0
  }
  convolution_param {
    num_output: 320
    pad: 1
    kernel_size: 3
    weight_filler {
      type: "xavier"
      std: 0.03
    }
    bias_filler {
      type: "constant"
      value: 0.2
    }
  }
}
layer {
  name: "inception_4e/relu_3x3"
  type: "ReLU"
  bottom: "inception_4e/3x3"
  top: "inception_4e/3x3"
}
layer {
  name: "inception_4e/5x5_reduce"
  type: "Convolution"
  bottom: "inception_4d/output"
  top: "inception_4e/5x5_reduce"
  param {
    lr_mult: 1
    decay_mult: 1
  }
  param {
    lr_mult: 2
    decay_mult: 0
  }
  convolution_param {
    num_output: 32
    kernel_size: 1
    weight_filler {
      type: "xavier"
      std: 0.2
    }
    bias_filler {
      type: "constant"
      value: 0.2
    }
  }
}
layer {
  name: "inception_4e/relu_5x5_reduce"
  type: "ReLU"
  bottom: "inception_4e/5x5_reduce"
  top: "inception_4e/5x5_reduce"
}
layer {
  name: "inception_4e/5x5"
  type: "Convolution"
  bottom: "inception_4e/5x5_reduce"
  top: "inception_4e/5x5"
  param {
    lr_mult: 1
    decay_mult: 1
  }
  param {
    lr_mult: 2
    decay_mult: 0
  }
  convolution_param {
    num_output: 128
    pad: 2
    kernel_size: 5
    weight_filler {
      type: "xavier"
      std: 0.03
    }
    bias_filler {
      type: "constant"
      value: 0.2
    }
  }
}
layer {
  name: "inception_4e/relu_5x5"
  type: "ReLU"
  bottom: "inception_4e/5x5"
  top: "inception_4e/5x5"
}
layer {
  name: "inception_4e/pool"
  type: "Pooling"
  bottom: "inception_4d/output"
  top: "inception_4e/pool"
  pooling_param {
    pool: MAX
    kernel_size: 3
    stride: 1
    pad: 1
  }
}
layer {
  name: "inception_4e/pool_proj"
  type: "Convolution"
  bottom: "inception_4e/pool"
  top: "inception_4e/pool_proj"
  param {
    lr_mult: 1
    decay_mult: 1
  }
  param {
    lr_mult: 2
    decay_mult: 0
  }
  convolution_param {
    num_output: 128
    kernel_size: 1
    weight_filler {
      type: "xavier"
      std: 0.1
    }
    bias_filler {
      type: "constant"
      value: 0.2
    }
  }
}
layer {
  name: "inception_4e/relu_pool_proj"
  type: "ReLU"
  bottom: "inception_4e/pool_proj"
  top: "inception_4e/pool_proj"
}
layer {
  name: "inception_4e/output"
  type: "Concat"
  bottom: "inception_4e/1x1"
  bottom: "inception_4e/3x3"
  bottom: "inception_4e/5x5"
  bottom: "inception_4e/pool_proj"
  top: "inception_4e/output"
}
layer {
  name: "pool4/3x3_s2"
  type: "Pooling"
  bottom: "inception_4e/output"
  top: "pool4/3x3_s2"
  pooling_param {
    pool: MAX
    kernel_size: 3
    stride: 2
  }
}
layer {
  name: "inception_5a/1x1"
  type: "Convolution"
  bottom: "pool4/3x3_s2"
  top: "inception_5a/1x1"
  param {
    lr_mult: 1
    decay_mult: 1
  }
  param {
    lr_mult: 2
    decay_mult: 0
  }
  convolution_param {
    num_output: 256
    kernel_size: 1
    weight_filler {
      type: "xavier"
      std: 0.03
    }
    bias_filler {
      type: "constant"
      value: 0.2
    }
  }
}
layer {
  name: "inception_5a/relu_1x1"
  type: "ReLU"
  bottom: "inception_5a/1x1"
  top: "inception_5a/1x1"
}
layer {
  name: "inception_5a/3x3_reduce"
  type: "Convolution"
  bottom: "pool4/3x3_s2"
  top: "inception_5a/3x3_reduce"
  param {
    lr_mult: 1
    decay_mult: 1
  }
  param {
    lr_mult: 2
    decay_mult: 0
  }
  convolution_param {
    num_output: 160
    kernel_size: 1
    weight_filler {
      type: "xavier"
      std: 0.09
    }
    bias_filler {
      type: "constant"
      value: 0.2
    }
  }
}
layer {
  name: "inception_5a/relu_3x3_reduce"
  type: "ReLU"
  bottom: "inception_5a/3x3_reduce"
  top: "inception_5a/3x3_reduce"
}
layer {
  name: "inception_5a/3x3"
  type: "Convolution"
  bottom: "inception_5a/3x3_reduce"
  top: "inception_5a/3x3"
  param {
    lr_mult: 1
    decay_mult: 1
  }
  param {
    lr_mult: 2
    decay_mult: 0
  }
  convolution_param {
    num_output: 320
    pad: 1
    kernel_size: 3
    weight_filler {
      type: "xavier"
      std: 0.03
    }
    bias_filler {
      type: "constant"
      value: 0.2
    }
  }
}
layer {
  name: "inception_5a/relu_3x3"
  type: "ReLU"
  bottom: "inception_5a/3x3"
  top: "inception_5a/3x3"
}
layer {
  name: "inception_5a/5x5_reduce"
  type: "Convolution"
  bottom: "pool4/3x3_s2"
  top: "inception_5a/5x5_reduce"
  param {
    lr_mult: 1
    decay_mult: 1
  }
  param {
    lr_mult: 2
    decay_mult: 0
  }
  convolution_param {
    num_output: 32
    kernel_size: 1
    weight_filler {
      type: "xavier"
      std: 0.2
    }
    bias_filler {
      type: "constant"
      value: 0.2
    }
I0706 23:51:28.475555 12507 layer_factory.hpp:77] Creating layer data
I0706 23:51:28.475556 12503 layer_factory.hpp:77] Creating layer data
I0706 23:51:28.475600 12503 net.cpp:91] Creating Layer data
I0706 23:51:28.475600 12507 net.cpp:91] Creating Layer data
I0706 23:51:28.475615 12503 net.cpp:399] data -> data
I0706 23:51:28.475617 12507 net.cpp:399] data -> data
I0706 23:51:29.054044 12507 net.cpp:141] Setting up data
I0706 23:51:29.054081 12503 net.cpp:141] Setting up data
I0706 23:51:29.054113 12503 net.cpp:148] Top shape: 10 3 224 224 (1505280)
I0706 23:51:29.054113 12507 net.cpp:148] Top shape: 10 3 224 224 (1505280)
I0706 23:51:29.054127 12503 net.cpp:156] Memory required for data: 6021120
I0706 23:51:29.054132 12507 net.cpp:156] Memory required for data: 6021120
I0706 23:51:29.054150 12503 layer_factory.hpp:77] Creating layer conv1/7x7_s2
I0706 23:51:29.054150 12507 layer_factory.hpp:77] Creating layer conv1/7x7_s2
I0706 23:51:29.054186 12507 net.cpp:91] Creating Layer conv1/7x7_s2
I0706 23:51:29.054186 12503 net.cpp:91] Creating Layer conv1/7x7_s2
I0706 23:51:29.054200 12507 net.cpp:425] conv1/7x7_s2 <- data
I0706 23:51:29.054201 12503 net.cpp:425] conv1/7x7_s2 <- data
I0706 23:51:29.054216 12507 net.cpp:399] conv1/7x7_s2 -> conv1/7x7_s2
I0706 23:51:29.054216 12503 net.cpp:399] conv1/7x7_s2 -> conv1/7x7_s2
I0706 23:51:29.360993 12507 net.cpp:141] Setting up conv1/7x7_s2
I0706 23:51:29.361042 12507 net.cpp:148] Top shape: 10 64 112 112 (8028160)
I0706 23:51:29.361052 12507 net.cpp:156] Memory required for data: 38133760
I0706 23:51:29.361084 12507 layer_factory.hpp:77] Creating layer conv1/relu_7x7
I0706 23:51:29.361110 12507 net.cpp:91] Creating Layer conv1/relu_7x7
I0706 23:51:29.361121 12507 net.cpp:425] conv1/relu_7x7 <- conv1/7x7_s2
I0706 23:51:29.361137 12507 net.cpp:386] conv1/relu_7x7 -> conv1/7x7_s2 (in-place)
I0706 23:51:29.372689 12507 net.cpp:141] Setting up conv1/relu_7x7
I0706 23:51:29.372715 12507 net.cpp:148] Top shape: 10 64 112 112 (8028160)
I0706 23:51:29.372725 12507 net.cpp:156] Memory required for data: 70246400
I0706 23:51:29.372735 12507 layer_factory.hpp:77] Creating layer pool1/3x3_s2
I0706 23:51:29.372776 12507 net.cpp:91] Creating Layer pool1/3x3_s2
I0706 23:51:29.372787 12507 net.cpp:425] pool1/3x3_s2 <- conv1/7x7_s2
I0706 23:51:29.372802 12507 net.cpp:399] pool1/3x3_s2 -> pool1/3x3_s2
I0706 23:51:29.373045 12503 net.cpp:141] Setting up conv1/7x7_s2
I0706 23:51:29.373061 12507 net.cpp:141] Setting up pool1/3x3_s2
I0706 23:51:29.373076 12503 net.cpp:148] Top shape: 10 64 112 112 (8028160)
I0706 23:51:29.373082 12507 net.cpp:148] Top shape: 10 64 56 56 (2007040)
I0706 23:51:29.373090 12503 net.cpp:156] Memory required for data: 38133760
I0706 23:51:29.373092 12507 net.cpp:156] Memory required for data: 78274560
I0706 23:51:29.373139 12507 layer_factory.hpp:77] Creating layer pool1/norm1
I0706 23:51:29.373143 12503 layer_factory.hpp:77] Creating layer conv1/relu_7x7
I0706 23:51:29.373179 12503 net.cpp:91] Creating Layer conv1/relu_7x7
I0706 23:51:29.373183 12507 net.cpp:91] Creating Layer pool1/norm1
I0706 23:51:29.373190 12503 net.cpp:425] conv1/relu_7x7 <- conv1/7x7_s2
I0706 23:51:29.373198 12507 net.cpp:425] pool1/norm1 <- pool1/3x3_s2
I0706 23:51:29.373211 12507 net.cpp:399] pool1/norm1 -> pool1/norm1
I0706 23:51:29.373208 12503 net.cpp:386] conv1/relu_7x7 -> conv1/7x7_s2 (in-place)
I0706 23:51:29.384701 12507 net.cpp:141] Setting up pool1/norm1
I0706 23:51:29.384726 12507 net.cpp:148] Top shape: 10 64 56 56 (2007040)
I0706 23:51:29.384735 12507 net.cpp:156] Memory required for data: 86302720
I0706 23:51:29.384744 12507 layer_factory.hpp:77] Creating layer conv2/3x3_reduce
I0706 23:51:29.384781 12507 net.cpp:91] Creating Layer conv2/3x3_reduce
I0706 23:51:29.384794 12507 net.cpp:425] conv2/3x3_reduce <- pool1/norm1
I0706 23:51:29.384810 12507 net.cpp:399] conv2/3x3_reduce -> conv2/3x3_reduce
I0706 23:51:29.384835 12503 net.cpp:141] Setting up conv1/relu_7x7
I0706 23:51:29.384855 12503 net.cpp:148] Top shape: 10 64 112 112 (8028160)
I0706 23:51:29.384861 12503 net.cpp:156] Memory required for data: 70246400
I0706 23:51:29.384870 12503 layer_factory.hpp:77] Creating layer pool1/3x3_s2
I0706 23:51:29.384882 12503 net.cpp:91] Creating Layer pool1/3x3_s2
I0706 23:51:29.384891 12503 net.cpp:425] pool1/3x3_s2 <- conv1/7x7_s2
I0706 23:51:29.384905 12503 net.cpp:399] pool1/3x3_s2 -> pool1/3x3_s2
I0706 23:51:29.385160 12503 net.cpp:141] Setting up pool1/3x3_s2
I0706 23:51:29.385177 12503 net.cpp:148] Top shape: 10 64 56 56 (2007040)
I0706 23:51:29.385190 12503 net.cpp:156] Memory required for data: 78274560
I0706 23:51:29.385213 12503 layer_factory.hpp:77] Creating layer pool1/norm1
I0706 23:51:29.385273 12503 net.cpp:91] Creating Layer pool1/norm1
I0706 23:51:29.385283 12503 net.cpp:425] pool1/norm1 <- pool1/3x3_s2
I0706 23:51:29.385300 12503 net.cpp:399] pool1/norm1 -> pool1/norm1
I0706 23:51:29.406703 12503 net.cpp:141] Setting up pool1/norm1
I0706 23:51:29.406729 12503 net.cpp:148] Top shape: 10 64 56 56 (2007040)
I0706 23:51:29.406736 12503 net.cpp:156] Memory required for data: 86302720
I0706 23:51:29.406745 12503 layer_factory.hpp:77] Creating layer conv2/3x3_reduce
I0706 23:51:29.406769 12503 net.cpp:91] Creating Layer conv2/3x3_reduce
I0706 23:51:29.406779 12503 net.cpp:425] conv2/3x3_reduce <- pool1/norm1
I0706 23:51:29.406792 12503 net.cpp:399] conv2/3x3_reduce -> conv2/3x3_reduce
I0706 23:51:29.407076 12507 net.cpp:141] Setting up conv2/3x3_reduce
I0706 23:51:29.407094 12507 net.cpp:148] Top shape: 10 64 56 56 (2007040)
I0706 23:51:29.407099 12507 net.cpp:156] Memory required for data: 94330880
I0706 23:51:29.407115 12507 layer_factory.hpp:77] Creating layer conv2/relu_3x3_reduce
I0706 23:51:29.407124 12507 net.cpp:91] Creating Layer conv2/relu_3x3_reduce
I0706 23:51:29.407130 12507 net.cpp:425] conv2/relu_3x3_reduce <- conv2/3x3_reduce
I0706 23:51:29.407136 12507 net.cpp:386] conv2/relu_3x3_reduce -> conv2/3x3_reduce (in-place)
I0706 23:51:29.408319 12507 net.cpp:141] Setting up conv2/relu_3x3_reduce
I0706 23:51:29.408342 12507 net.cpp:148] Top shape: 10 64 56 56 (2007040)
I0706 23:51:29.408351 12507 net.cpp:156] Memory required for data: 102359040
I0706 23:51:29.408361 12507 layer_factory.hpp:77] Creating layer conv2/3x3
I0706 23:51:29.408386 12507 net.cpp:91] Creating Layer conv2/3x3
I0706 23:51:29.408397 12507 net.cpp:425] conv2/3x3 <- conv2/3x3_reduce
I0706 23:51:29.408413 12507 net.cpp:399] conv2/3x3 -> conv2/3x3
I0706 23:51:29.415159 12507 net.cpp:141] Setting up conv2/3x3
I0706 23:51:29.415180 12507 net.cpp:148] Top shape: 10 192 56 56 (6021120)
I0706 23:51:29.415191 12507 net.cpp:156] Memory required for data: 126443520
I0706 23:51:29.415213 12507 layer_factory.hpp:77] Creating layer conv2/relu_3x3
I0706 23:51:29.415236 12507 net.cpp:91] Creating Layer conv2/relu_3x3
I0706 23:51:29.415247 12507 net.cpp:425] conv2/relu_3x3 <- conv2/3x3
I0706 23:51:29.415261 12507 net.cpp:386] conv2/relu_3x3 -> conv2/3x3 (in-place)
I0706 23:51:29.415314 12503 net.cpp:141] Setting up conv2/3x3_reduce
I0706 23:51:29.415333 12503 net.cpp:148] Top shape: 10 64 56 56 (2007040)
I0706 23:51:29.415341 12503 net.cpp:156] Memory required for data: 94330880
I0706 23:51:29.415372 12503 layer_factory.hpp:77] Creating layer conv2/relu_3x3_reduce
I0706 23:51:29.415386 12503 net.cpp:91] Creating Layer conv2/relu_3x3_reduce
I0706 23:51:29.415397 12503 net.cpp:425] conv2/relu_3x3_reduce <- conv2/3x3_reduce
I0706 23:51:29.415407 12503 net.cpp:386] conv2/relu_3x3_reduce -> conv2/3x3_reduce (in-place)
I0706 23:51:29.416690 12507 net.cpp:141] Setting up conv2/relu_3x3
I0706 23:51:29.416710 12507 net.cpp:148] Top shape: 10 192 56 56 (6021120)
I0706 23:51:29.416720 12507 net.cpp:156] Memory required for data: 150528000
I0706 23:51:29.416730 12507 layer_factory.hpp:77] Creating layer conv2/norm2
I0706 23:51:29.416738 12503 net.cpp:141] Setting up conv2/relu_3x3_reduce
I0706 23:51:29.416756 12503 net.cpp:148] Top shape: 10 64 56 56 (2007040)
I0706 23:51:29.416755 12507 net.cpp:91] Creating Layer conv2/norm2
I0706 23:51:29.416769 12503 net.cpp:156] Memory required for data: 102359040
I0706 23:51:29.416776 12507 net.cpp:425] conv2/norm2 <- conv2/3x3
I0706 23:51:29.416779 12503 layer_factory.hpp:77] Creating layer conv2/3x3
I0706 23:51:29.416791 12507 net.cpp:399] conv2/norm2 -> conv2/norm2
I0706 23:51:29.416803 12503 net.cpp:91] Creating Layer conv2/3x3
I0706 23:51:29.416812 12503 net.cpp:425] conv2/3x3 <- conv2/3x3_reduce
I0706 23:51:29.416829 12503 net.cpp:399] conv2/3x3 -> conv2/3x3
I0706 23:51:29.418324 12507 net.cpp:141] Setting up conv2/norm2
I0706 23:51:29.418347 12507 net.cpp:148] Top shape: 10 192 56 56 (6021120)
I0706 23:51:29.418357 12507 net.cpp:156] Memory required for data: 174612480
I0706 23:51:29.418368 12507 layer_factory.hpp:77] Creating layer pool2/3x3_s2
I0706 23:51:29.418387 12507 net.cpp:91] Creating Layer pool2/3x3_s2
I0706 23:51:29.418398 12507 net.cpp:425] pool2/3x3_s2 <- conv2/norm2
I0706 23:51:29.418412 12507 net.cpp:399] pool2/3x3_s2 -> pool2/3x3_s2
I0706 23:51:29.418507 12507 net.cpp:141] Setting up pool2/3x3_s2
I0706 23:51:29.418525 12507 net.cpp:148] Top shape: 10 192 28 28 (1505280)
I0706 23:51:29.418535 12507 net.cpp:156] Memory required for data: 180633600
I0706 23:51:29.418545 12507 layer_factory.hpp:77] Creating layer pool2/3x3_s2_pool2/3x3_s2_0_split
I0706 23:51:29.418567 12507 net.cpp:91] Creating Layer pool2/3x3_s2_pool2/3x3_s2_0_split
I0706 23:51:29.418576 12507 net.cpp:425] pool2/3x3_s2_pool2/3x3_s2_0_split <- pool2/3x3_s2
I0706 23:51:29.418592 12507 net.cpp:399] pool2/3x3_s2_pool2/3x3_s2_0_split -> pool2/3x3_s2_pool2/3x3_s2_0_split_0
I0706 23:51:29.418612 12507 net.cpp:399] pool2/3x3_s2_pool2/3x3_s2_0_split -> pool2/3x3_s2_pool2/3x3_s2_0_split_1
I0706 23:51:29.418627 12507 net.cpp:399] pool2/3x3_s2_pool2/3x3_s2_0_split -> pool2/3x3_s2_pool2/3x3_s2_0_split_2
I0706 23:51:29.418640 12507 net.cpp:399] pool2/3x3_s2_pool2/3x3_s2_0_split -> pool2/3x3_s2_pool2/3x3_s2_0_split_3
I0706 23:51:29.418781 12507 net.cpp:141] Setting up pool2/3x3_s2_pool2/3x3_s2_0_split
I0706 23:51:29.418802 12507 net.cpp:148] Top shape: 10 192 28 28 (1505280)
I0706 23:51:29.418812 12507 net.cpp:148] Top shape: 10 192 28 28 (1505280)
I0706 23:51:29.418823 12507 net.cpp:148] Top shape: 10 192 28 28 (1505280)
I0706 23:51:29.418833 12507 net.cpp:148] Top shape: 10 192 28 28 (1505280)
I0706 23:51:29.418840 12507 net.cpp:156] Memory required for data: 204718080
I0706 23:51:29.418849 12507 layer_factory.hpp:77] Creating layer inception_3a/1x1
I0706 23:51:29.418875 12507 net.cpp:91] Creating Layer inception_3a/1x1
I0706 23:51:29.418886 12507 net.cpp:425] inception_3a/1x1 <- pool2/3x3_s2_pool2/3x3_s2_0_split_0
I0706 23:51:29.418921 12507 net.cpp:399] inception_3a/1x1 -> inception_3a/1x1
I0706 23:51:29.424412 12507 net.cpp:141] Setting up inception_3a/1x1
I0706 23:51:29.424437 12507 net.cpp:148] Top shape: 10 64 28 28 (501760)
I0706 23:51:29.424448 12507 net.cpp:156] Memory required for data: 206725120
I0706 23:51:29.424473 12507 layer_factory.hpp:77] Creating layer inception_3a/relu_1x1
I0706 23:51:29.424490 12507 net.cpp:91] Creating Layer inception_3a/relu_1x1
I0706 23:51:29.424500 12507 net.cpp:425] inception_3a/relu_1x1 <- inception_3a/1x1
I0706 23:51:29.424513 12507 net.cpp:386] inception_3a/relu_1x1 -> inception_3a/1x1 (in-place)
I0706 23:51:29.424959 12507 net.cpp:141] Setting up inception_3a/relu_1x1
I0706 23:51:29.424978 12507 net.cpp:148] Top shape: 10 64 28 28 (501760)
I0706 23:51:29.424988 12507 net.cpp:156] Memory required for data: 208732160
I0706 23:51:29.424998 12507 layer_factory.hpp:77] Creating layer inception_3a/3x3_reduce
I0706 23:51:29.425024 12507 net.cpp:91] Creating Layer inception_3a/3x3_reduce
I0706 23:51:29.425036 12507 net.cpp:425] inception_3a/3x3_reduce <- pool2/3x3_s2_pool2/3x3_s2_0_split_1
I0706 23:51:29.425058 12507 net.cpp:399] inception_3a/3x3_reduce -> inception_3a/3x3_reduce
I0706 23:51:29.429286 12503 net.cpp:141] Setting up conv2/3x3
I0706 23:51:29.429311 12503 net.cpp:148] Top shape: 10 192 56 56 (6021120)
I0706 23:51:29.429321 12503 net.cpp:156] Memory required for data: 126443520
I0706 23:51:29.429347 12503 layer_factory.hpp:77] Creating layer conv2/relu_3x3
I0706 23:51:29.429365 12503 net.cpp:91] Creating Layer conv2/relu_3x3
I0706 23:51:29.429374 12503 net.cpp:425] conv2/relu_3x3 <- conv2/3x3
I0706 23:51:29.429391 12503 net.cpp:386] conv2/relu_3x3 -> conv2/3x3 (in-place)
I0706 23:51:29.430583 12503 net.cpp:141] Setting up conv2/relu_3x3
I0706 23:51:29.430606 12503 net.cpp:148] Top shape: 10 192 56 56 (6021120)
I0706 23:51:29.430615 12503 net.cpp:156] Memory required for data: 150528000
I0706 23:51:29.430624 12503 layer_factory.hpp:77] Creating layer conv2/norm2
I0706 23:51:29.430644 12503 net.cpp:91] Creating Layer conv2/norm2
I0706 23:51:29.430655 12503 net.cpp:425] conv2/norm2 <- conv2/3x3
I0706 23:51:29.430670 12503 net.cpp:399] conv2/norm2 -> conv2/norm2
I0706 23:51:29.430811 12507 net.cpp:141] Setting up inception_3a/3x3_reduce
I0706 23:51:29.430831 12507 net.cpp:148] Top shape: 10 96 28 28 (752640)
I0706 23:51:29.430840 12507 net.cpp:156] Memory required for data: 211742720
I0706 23:51:29.430860 12507 layer_factory.hpp:77] Creating layer inception_3a/relu_3x3_reduce
I0706 23:51:29.430874 12507 net.cpp:91] Creating Layer inception_3a/relu_3x3_reduce
I0706 23:51:29.430882 12507 net.cpp:425] inception_3a/relu_3x3_reduce <- inception_3a/3x3_reduce
I0706 23:51:29.430893 12507 net.cpp:386] inception_3a/relu_3x3_reduce -> inception_3a/3x3_reduce (in-place)
I0706 23:51:29.432572 12507 net.cpp:141] Setting up inception_3a/relu_3x3_reduce
I0706 23:51:29.432595 12507 net.cpp:148] Top shape: 10 96 28 28 (752640)
I0706 23:51:29.432605 12507 net.cpp:156] Memory required for data: 214753280
I0706 23:51:29.432613 12507 layer_factory.hpp:77] Creating layer inception_3a/3x3
I0706 23:51:29.432641 12503 net.cpp:141] Setting up conv2/norm2
I0706 23:51:29.432643 12507 net.cpp:91] Creating Layer inception_3a/3x3
I0706 23:51:29.432660 12503 net.cpp:148] Top shape: 10 192 56 56 (6021120)
I0706 23:51:29.432660 12507 net.cpp:425] inception_3a/3x3 <- inception_3a/3x3_reduce
I0706 23:51:29.432672 12503 net.cpp:156] Memory required for data: 174612480
I0706 23:51:29.432682 12503 layer_factory.hpp:77] Creating layer pool2/3x3_s2
I0706 23:51:29.432682 12507 net.cpp:399] inception_3a/3x3 -> inception_3a/3x3
I0706 23:51:29.432698 12503 net.cpp:91] Creating Layer pool2/3x3_s2
I0706 23:51:29.432708 12503 net.cpp:425] pool2/3x3_s2 <- conv2/norm2
I0706 23:51:29.432726 12503 net.cpp:399] pool2/3x3_s2 -> pool2/3x3_s2
I0706 23:51:29.432853 12503 net.cpp:141] Setting up pool2/3x3_s2
I0706 23:51:29.432869 12503 net.cpp:148] Top shape: 10 192 28 28 (1505280)
I0706 23:51:29.432878 12503 net.cpp:156] Memory required for data: 180633600
I0706 23:51:29.432885 12503 layer_factory.hpp:77] Creating layer pool2/3x3_s2_pool2/3x3_s2_0_split
I0706 23:51:29.432904 12503 net.cpp:91] Creating Layer pool2/3x3_s2_pool2/3x3_s2_0_split
I0706 23:51:29.432915 12503 net.cpp:425] pool2/3x3_s2_pool2/3x3_s2_0_split <- pool2/3x3_s2
I0706 23:51:29.432931 12503 net.cpp:399] pool2/3x3_s2_pool2/3x3_s2_0_split -> pool2/3x3_s2_pool2/3x3_s2_0_split_0
I0706 23:51:29.432950 12503 net.cpp:399] pool2/3x3_s2_pool2/3x3_s2_0_split -> pool2/3x3_s2_pool2/3x3_s2_0_split_1
I0706 23:51:29.432965 12503 net.cpp:399] pool2/3x3_s2_pool2/3x3_s2_0_split -> pool2/3x3_s2_pool2/3x3_s2_0_split_2
I0706 23:51:29.432978 12503 net.cpp:399] pool2/3x3_s2_pool2/3x3_s2_0_split -> pool2/3x3_s2_pool2/3x3_s2_0_split_3
I0706 23:51:29.434176 12503 net.cpp:141] Setting up pool2/3x3_s2_pool2/3x3_s2_0_split
I0706 23:51:29.434201 12503 net.cpp:148] Top shape: 10 192 28 28 (1505280)
I0706 23:51:29.434211 12503 net.cpp:148] Top shape: 10 192 28 28 (1505280)
I0706 23:51:29.434221 12503 net.cpp:148] Top shape: 10 192 28 28 (1505280)
I0706 23:51:29.434229 12503 net.cpp:148] Top shape: 10 192 28 28 (1505280)
I0706 23:51:29.434236 12503 net.cpp:156] Memory required for data: 204718080
I0706 23:51:29.434242 12503 layer_factory.hpp:77] Creating layer inception_3a/1x1
I0706 23:51:29.434263 12503 net.cpp:91] Creating Layer inception_3a/1x1
I0706 23:51:29.434272 12503 net.cpp:425] inception_3a/1x1 <- pool2/3x3_s2_pool2/3x3_s2_0_split_0
I0706 23:51:29.434284 12503 net.cpp:399] inception_3a/1x1 -> inception_3a/1x1
I0706 23:51:29.439033 12503 net.cpp:141] Setting up inception_3a/1x1
I0706 23:51:29.439057 12503 net.cpp:148] Top shape: 10 64 28 28 (501760)
I0706 23:51:29.439067 12503 net.cpp:156] Memory required for data: 206725120
I0706 23:51:29.439083 12503 layer_factory.hpp:77] Creating layer inception_3a/relu_1x1
I0706 23:51:29.439101 12503 net.cpp:91] Creating Layer inception_3a/relu_1x1
I0706 23:51:29.439110 12503 net.cpp:425] inception_3a/relu_1x1 <- inception_3a/1x1
I0706 23:51:29.439123 12503 net.cpp:386] inception_3a/relu_1x1 -> inception_3a/1x1 (in-place)
I0706 23:51:29.439932 12507 net.cpp:141] Setting up inception_3a/3x3
I0706 23:51:29.439954 12507 net.cpp:148] Top shape: 10 128 28 28 (1003520)
I0706 23:51:29.439962 12507 net.cpp:156] Memory required for data: 218767360
I0706 23:51:29.439977 12507 layer_factory.hpp:77] Creating layer inception_3a/relu_3x3
I0706 23:51:29.439991 12507 net.cpp:91] Creating Layer inception_3a/relu_3x3
I0706 23:51:29.440001 12507 net.cpp:425] inception_3a/relu_3x3 <- inception_3a/3x3
I0706 23:51:29.440016 12503 net.cpp:141] Setting up inception_3a/relu_1x1
I0706 23:51:29.440021 12507 net.cpp:386] inception_3a/relu_3x3 -> inception_3a/3x3 (in-place)
I0706 23:51:29.440031 12503 net.cpp:148] Top shape: 10 64 28 28 (501760)
I0706 23:51:29.440038 12503 net.cpp:156] Memory required for data: 208732160
I0706 23:51:29.440047 12503 layer_factory.hpp:77] Creating layer inception_3a/3x3_reduce
I0706 23:51:29.440069 12503 net.cpp:91] Creating Layer inception_3a/3x3_reduce
I0706 23:51:29.440079 12503 net.cpp:425] inception_3a/3x3_reduce <- pool2/3x3_s2_pool2/3x3_s2_0_split_1
I0706 23:51:29.440099 12503 net.cpp:399] inception_3a/3x3_reduce -> inception_3a/3x3_reduce
I0706 23:51:29.440596 12507 net.cpp:141] Setting up inception_3a/relu_3x3
I0706 23:51:29.440620 12507 net.cpp:148] Top shape: 10 128 28 28 (1003520)
I0706 23:51:29.440629 12507 net.cpp:156] Memory required for data: 222781440
I0706 23:51:29.440636 12507 layer_factory.hpp:77] Creating layer inception_3a/5x5_reduce
I0706 23:51:29.440656 12507 net.cpp:91] Creating Layer inception_3a/5x5_reduce
I0706 23:51:29.440667 12507 net.cpp:425] inception_3a/5x5_reduce <- pool2/3x3_s2_pool2/3x3_s2_0_split_2
I0706 23:51:29.440685 12507 net.cpp:399] inception_3a/5x5_reduce -> inception_3a/5x5_reduce
I0706 23:51:29.444629 12503 net.cpp:141] Setting up inception_3a/3x3_reduce
I0706 23:51:29.444655 12503 net.cpp:148] Top shape: 10 96 28 28 (752640)
I0706 23:51:29.444665 12503 net.cpp:156] Memory required for data: 211742720
I0706 23:51:29.444686 12503 layer_factory.hpp:77] Creating layer inception_3a/relu_3x3_reduce
I0706 23:51:29.444705 12503 net.cpp:91] Creating Layer inception_3a/relu_3x3_reduce
I0706 23:51:29.444715 12503 net.cpp:425] inception_3a/relu_3x3_reduce <- inception_3a/3x3_reduce
I0706 23:51:29.444727 12503 net.cpp:386] inception_3a/relu_3x3_reduce -> inception_3a/3x3_reduce (in-place)
I0706 23:51:29.445909 12503 net.cpp:141] Setting up inception_3a/relu_3x3_reduce
I0706 23:51:29.445932 12503 net.cpp:148] Top shape: 10 96 28 28 (752640)
I0706 23:51:29.445940 12503 net.cpp:156] Memory required for data: 214753280
I0706 23:51:29.445950 12503 layer_factory.hpp:77] Creating layer inception_3a/3x3
I0706 23:51:29.445977 12503 net.cpp:91] Creating Layer inception_3a/3x3
I0706 23:51:29.445989 12503 net.cpp:425] inception_3a/3x3 <- inception_3a/3x3_reduce
I0706 23:51:29.446007 12503 net.cpp:399] inception_3a/3x3 -> inception_3a/3x3
I0706 23:51:29.446203 12507 net.cpp:141] Setting up inception_3a/5x5_reduce
I0706 23:51:29.446223 12507 net.cpp:148] Top shape: 10 16 28 28 (125440)
I0706 23:51:29.446230 12507 net.cpp:156] Memory required for data: 223283200
I0706 23:51:29.446247 12507 layer_factory.hpp:77] Creating layer inception_3a/relu_5x5_reduce
I0706 23:51:29.446265 12507 net.cpp:91] Creating Layer inception_3a/relu_5x5_reduce
I0706 23:51:29.446276 12507 net.cpp:425] inception_3a/relu_5x5_reduce <- inception_3a/5x5_reduce
I0706 23:51:29.446288 12507 net.cpp:386] inception_3a/relu_5x5_reduce -> inception_3a/5x5_reduce (in-place)
I0706 23:51:29.447223 12507 net.cpp:141] Setting up inception_3a/relu_5x5_reduce
I0706 23:51:29.447244 12507 net.cpp:148] Top shape: 10 16 28 28 (125440)
I0706 23:51:29.447252 12507 net.cpp:156] Memory required for data: 223784960
I0706 23:51:29.447259 12507 layer_factory.hpp:77] Creating layer inception_3a/5x5
I0706 23:51:29.447283 12507 net.cpp:91] Creating Layer inception_3a/5x5
I0706 23:51:29.447293 12507 net.cpp:425] inception_3a/5x5 <- inception_3a/5x5_reduce
I0706 23:51:29.447305 12507 net.cpp:399] inception_3a/5x5 -> inception_3a/5x5
I0706 23:51:29.452049 12507 net.cpp:141] Setting up inception_3a/5x5
I0706 23:51:29.452075 12507 net.cpp:148] Top shape: 10 32 28 28 (250880)
I0706 23:51:29.452085 12507 net.cpp:156] Memory required for data: 224788480
I0706 23:51:29.452100 12507 layer_factory.hpp:77] Creating layer inception_3a/relu_5x5
I0706 23:51:29.452117 12507 net.cpp:91] Creating Layer inception_3a/relu_5x5
I0706 23:51:29.452127 12507 net.cpp:425] inception_3a/relu_5x5 <- inception_3a/5x5
I0706 23:51:29.452141 12507 net.cpp:386] inception_3a/relu_5x5 -> inception_3a/5x5 (in-place)
I0706 23:51:29.453019 12503 net.cpp:141] Setting up inception_3a/3x3
I0706 23:51:29.453042 12503 net.cpp:148] Top shape: 10 128 28 28 (1003520)
I0706 23:51:29.453052 12503 net.cpp:156] Memory required for data: 218767360
I0706 23:51:29.453068 12503 layer_factory.hpp:77] Creating layer inception_3a/relu_3x3
I0706 23:51:29.453080 12503 net.cpp:91] Creating Layer inception_3a/relu_3x3
I0706 23:51:29.453089 12503 net.cpp:425] inception_3a/relu_3x3 <- inception_3a/3x3
I0706 23:51:29.453109 12503 net.cpp:386] inception_3a/relu_3x3 -> inception_3a/3x3 (in-place)
I0706 23:51:29.453114 12507 net.cpp:141] Setting up inception_3a/relu_5x5
I0706 23:51:29.453127 12507 net.cpp:148] Top shape: 10 32 28 28 (250880)
I0706 23:51:29.453136 12507 net.cpp:156] Memory required for data: 225792000
I0706 23:51:29.453145 12507 layer_factory.hpp:77] Creating layer inception_3a/pool
I0706 23:51:29.453162 12507 net.cpp:91] Creating Layer inception_3a/pool
I0706 23:51:29.453172 12507 net.cpp:425] inception_3a/pool <- pool2/3x3_s2_pool2/3x3_s2_0_split_3
I0706 23:51:29.453186 12507 net.cpp:399] inception_3a/pool -> inception_3a/pool
I0706 23:51:29.453402 12507 net.cpp:141] Setting up inception_3a/pool
I0706 23:51:29.453418 12507 net.cpp:148] Top shape: 10 192 28 28 (1505280)
I0706 23:51:29.453425 12507 net.cpp:156] Memory required for data: 231813120
I0706 23:51:29.453434 12507 layer_factory.hpp:77] Creating layer inception_3a/pool_proj
I0706 23:51:29.453459 12507 net.cpp:91] Creating Layer inception_3a/pool_proj
I0706 23:51:29.453470 12507 net.cpp:425] inception_3a/pool_proj <- inception_3a/pool
I0706 23:51:29.453487 12507 net.cpp:399] inception_3a/pool_proj -> inception_3a/pool_proj
I0706 23:51:29.453584 12503 net.cpp:141] Setting up inception_3a/relu_3x3
I0706 23:51:29.453603 12503 net.cpp:148] Top shape: 10 128 28 28 (1003520)
I0706 23:51:29.453611 12503 net.cpp:156] Memory required for data: 222781440
I0706 23:51:29.453619 12503 layer_factory.hpp:77] Creating layer inception_3a/5x5_reduce
I0706 23:51:29.453644 12503 net.cpp:91] Creating Layer inception_3a/5x5_reduce
I0706 23:51:29.453656 12503 net.cpp:425] inception_3a/5x5_reduce <- pool2/3x3_s2_pool2/3x3_s2_0_split_2
I0706 23:51:29.453671 12503 net.cpp:399] inception_3a/5x5_reduce -> inception_3a/5x5_reduce
I0706 23:51:29.459779 12503 net.cpp:141] Setting up inception_3a/5x5_reduce
I0706 23:51:29.459839 12503 net.cpp:148] Top shape: 10 16 28 28 (125440)
I0706 23:51:29.459851 12503 net.cpp:156] Memory required for data: 223283200
I0706 23:51:29.459870 12503 layer_factory.hpp:77] Creating layer inception_3a/relu_5x5_reduce
I0706 23:51:29.459899 12503 net.cpp:91] Creating Layer inception_3a/relu_5x5_reduce
I0706 23:51:29.459913 12503 net.cpp:425] inception_3a/relu_5x5_reduce <- inception_3a/5x5_reduce
I0706 23:51:29.459928 12503 net.cpp:386] inception_3a/relu_5x5_reduce -> inception_3a/5x5_reduce (in-place)
I0706 23:51:29.459945 12507 net.cpp:141] Setting up inception_3a/pool_proj
I0706 23:51:29.459964 12507 net.cpp:148] Top shape: 10 32 28 28 (250880)
I0706 23:51:29.459971 12507 net.cpp:156] Memory required for data: 232816640
I0706 23:51:29.460002 12507 layer_factory.hpp:77] Creating layer inception_3a/relu_pool_proj
I0706 23:51:29.460017 12507 net.cpp:91] Creating Layer inception_3a/relu_pool_proj
I0706 23:51:29.460027 12507 net.cpp:425] inception_3a/relu_pool_proj <- inception_3a/pool_proj
I0706 23:51:29.460041 12507 net.cpp:386] inception_3a/relu_pool_proj -> inception_3a/pool_proj (in-place)
I0706 23:51:29.461367 12503 net.cpp:141] Setting up inception_3a/relu_5x5_reduce
I0706 23:51:29.461374 12507 net.cpp:141] Setting up inception_3a/relu_pool_proj
I0706 23:51:29.461388 12503 net.cpp:148] Top shape: 10 16 28 28 (125440)
I0706 23:51:29.461391 12507 net.cpp:148] Top shape: 10 32 28 28 (250880)
I0706 23:51:29.461395 12503 net.cpp:156] Memory required for data: 223784960
I0706 23:51:29.461397 12507 net.cpp:156] Memory required for data: 233820160
I0706 23:51:29.461400 12503 layer_factory.hpp:77] Creating layer inception_3a/5x5
I0706 23:51:29.461403 12507 layer_factory.hpp:77] Creating layer inception_3a/output
I0706 23:51:29.461427 12503 net.cpp:91] Creating Layer inception_3a/5x5
I0706 23:51:29.461429 12507 net.cpp:91] Creating Layer inception_3a/output
I0706 23:51:29.461443 12507 net.cpp:425] inception_3a/output <- inception_3a/1x1
I0706 23:51:29.461452 12507 net.cpp:425] inception_3a/output <- inception_3a/3x3
I0706 23:51:29.461441 12503 net.cpp:425] inception_3a/5x5 <- inception_3a/5x5_reduce
I0706 23:51:29.461458 12507 net.cpp:425] inception_3a/output <- inception_3a/5x5
I0706 23:51:29.461464 12507 net.cpp:425] inception_3a/output <- inception_3a/pool_proj
I0706 23:51:29.461472 12507 net.cpp:399] inception_3a/output -> inception_3a/output
I0706 23:51:29.461472 12503 net.cpp:399] inception_3a/5x5 -> inception_3a/5x5
I0706 23:51:29.461581 12507 net.cpp:141] Setting up inception_3a/output
I0706 23:51:29.461594 12507 net.cpp:148] Top shape: 10 256 28 28 (2007040)
I0706 23:51:29.461599 12507 net.cpp:156] Memory required for data: 241848320
I0706 23:51:29.461606 12507 layer_factory.hpp:77] Creating layer inception_3a/output_inception_3a/output_0_split
I0706 23:51:29.461616 12507 net.cpp:91] Creating Layer inception_3a/output_inception_3a/output_0_split
I0706 23:51:29.461621 12507 net.cpp:425] inception_3a/output_inception_3a/output_0_split <- inception_3a/output
I0706 23:51:29.461628 12507 net.cpp:399] inception_3a/output_inception_3a/output_0_split -> inception_3a/output_inception_3a/output_0_split_0
I0706 23:51:29.461638 12507 net.cpp:399] inception_3a/output_inception_3a/output_0_split -> inception_3a/output_inception_3a/output_0_split_1
I0706 23:51:29.461647 12507 net.cpp:399] inception_3a/output_inception_3a/output_0_split -> inception_3a/output_inception_3a/output_0_split_2
I0706 23:51:29.461655 12507 net.cpp:399] inception_3a/output_inception_3a/output_0_split -> inception_3a/output_inception_3a/output_0_split_3
I0706 23:51:29.461786 12507 net.cpp:141] Setting up inception_3a/output_inception_3a/output_0_split
I0706 23:51:29.461796 12507 net.cpp:148] Top shape: 10 256 28 28 (2007040)
I0706 23:51:29.461802 12507 net.cpp:148] Top shape: 10 256 28 28 (2007040)
I0706 23:51:29.461807 12507 net.cpp:148] Top shape: 10 256 28 28 (2007040)
I0706 23:51:29.461813 12507 net.cpp:148] Top shape: 10 256 28 28 (2007040)
I0706 23:51:29.461817 12507 net.cpp:156] Memory required for data: 273960960
I0706 23:51:29.461822 12507 layer_factory.hpp:77] Creating layer inception_3b/1x1
I0706 23:51:29.461836 12507 net.cpp:91] Creating Layer inception_3b/1x1
I0706 23:51:29.461843 12507 net.cpp:425] inception_3b/1x1 <- inception_3a/output_inception_3a/output_0_split_0
I0706 23:51:29.461853 12507 net.cpp:399] inception_3b/1x1 -> inception_3b/1x1
I0706 23:51:29.466253 12507 net.cpp:141] Setting up inception_3b/1x1
I0706 23:51:29.466274 12507 net.cpp:148] Top shape: 10 128 28 28 (1003520)
I0706 23:51:29.466279 12507 net.cpp:156] Memory required for data: 277975040
I0706 23:51:29.466289 12507 layer_factory.hpp:77] Creating layer inception_3b/relu_1x1
I0706 23:51:29.466301 12507 net.cpp:91] Creating Layer inception_3b/relu_1x1
I0706 23:51:29.466307 12507 net.cpp:425] inception_3b/relu_1x1 <- inception_3b/1x1
I0706 23:51:29.466315 12507 net.cpp:386] inception_3b/relu_1x1 -> inception_3b/1x1 (in-place)
I0706 23:51:29.467208 12503 net.cpp:141] Setting up inception_3a/5x5
I0706 23:51:29.467226 12503 net.cpp:148] Top shape: 10 32 28 28 (250880)
I0706 23:51:29.467231 12503 net.cpp:156] Memory required for data: 224788480
I0706 23:51:29.467241 12503 layer_factory.hpp:77] Creating layer inception_3a/relu_5x5
I0706 23:51:29.467252 12503 net.cpp:91] Creating Layer inception_3a/relu_5x5
I0706 23:51:29.467259 12503 net.cpp:425] inception_3a/relu_5x5 <- inception_3a/5x5
I0706 23:51:29.467267 12507 net.cpp:141] Setting up inception_3b/relu_1x1
I0706 23:51:29.467267 12503 net.cpp:386] inception_3a/relu_5x5 -> inception_3a/5x5 (in-place)
I0706 23:51:29.467285 12507 net.cpp:148] Top shape: 10 128 28 28 (1003520)
I0706 23:51:29.467289 12507 net.cpp:156] Memory required for data: 281989120
I0706 23:51:29.467294 12507 layer_factory.hpp:77] Creating layer inception_3b/3x3_reduce
I0706 23:51:29.467310 12507 net.cpp:91] Creating Layer inception_3b/3x3_reduce
I0706 23:51:29.467316 12507 net.cpp:425] inception_3b/3x3_reduce <- inception_3a/output_inception_3a/output_0_split_1
I0706 23:51:29.467325 12507 net.cpp:399] inception_3b/3x3_reduce -> inception_3b/3x3_reduce
I0706 23:51:29.468241 12503 net.cpp:141] Setting up inception_3a/relu_5x5
I0706 23:51:29.468256 12503 net.cpp:148] Top shape: 10 32 28 28 (250880)
I0706 23:51:29.468261 12503 net.cpp:156] Memory required for data: 225792000
I0706 23:51:29.468267 12503 layer_factory.hpp:77] Creating layer inception_3a/pool
I0706 23:51:29.468281 12503 net.cpp:91] Creating Layer inception_3a/pool
I0706 23:51:29.468286 12503 net.cpp:425] inception_3a/pool <- pool2/3x3_s2_pool2/3x3_s2_0_split_3
I0706 23:51:29.468297 12503 net.cpp:399] inception_3a/pool -> inception_3a/pool
I0706 23:51:29.468364 12503 net.cpp:141] Setting up inception_3a/pool
I0706 23:51:29.468372 12503 net.cpp:148] Top shape: 10 192 28 28 (1505280)
I0706 23:51:29.468377 12503 net.cpp:156] Memory required for data: 231813120
I0706 23:51:29.468381 12503 layer_factory.hpp:77] Creating layer inception_3a/pool_proj
I0706 23:51:29.468395 12503 net.cpp:91] Creating Layer inception_3a/pool_proj
I0706 23:51:29.468401 12503 net.cpp:425] inception_3a/pool_proj <- inception_3a/pool
I0706 23:51:29.468412 12503 net.cpp:399] inception_3a/pool_proj -> inception_3a/pool_proj
I0706 23:51:29.472086 12507 net.cpp:141] Setting up inception_3b/3x3_reduce
I0706 23:51:29.472105 12507 net.cpp:148] Top shape: 10 128 28 28 (1003520)
I0706 23:51:29.472110 12507 net.cpp:156] Memory required for data: 286003200
I0706 23:51:29.472120 12507 layer_factory.hpp:77] Creating layer inception_3b/relu_3x3_reduce
I0706 23:51:29.472127 12507 net.cpp:91] Creating Layer inception_3b/relu_3x3_reduce
I0706 23:51:29.472133 12507 net.cpp:425] inception_3b/relu_3x3_reduce <- inception_3b/3x3_reduce
I0706 23:51:29.472144 12507 net.cpp:386] inception_3b/relu_3x3_reduce -> inception_3b/3x3_reduce (in-place)
I0706 23:51:29.472731 12503 net.cpp:141] Setting up inception_3a/pool_proj
I0706 23:51:29.472748 12503 net.cpp:148] Top shape: 10 32 28 28 (250880)
I0706 23:51:29.472754 12503 net.cpp:156] Memory required for data: 232816640
I0706 23:51:29.472769 12503 layer_factory.hpp:77] Creating layer inception_3a/relu_pool_proj
I0706 23:51:29.472779 12503 net.cpp:91] Creating Layer inception_3a/relu_pool_proj
I0706 23:51:29.472784 12503 net.cpp:425] inception_3a/relu_pool_proj <- inception_3a/pool_proj
I0706 23:51:29.472791 12503 net.cpp:386] inception_3a/relu_pool_proj -> inception_3a/pool_proj (in-place)
I0706 23:51:29.473217 12507 net.cpp:141] Setting up inception_3b/relu_3x3_reduce
I0706 23:51:29.473218 12503 net.cpp:141] Setting up inception_3a/relu_pool_proj
I0706 23:51:29.473233 12507 net.cpp:148] Top shape: 10 128 28 28 (1003520)
I0706 23:51:29.473237 12503 net.cpp:148] Top shape: 10 32 28 28 (250880)
I0706 23:51:29.473238 12507 net.cpp:156] Memory required for data: 290017280
I0706 23:51:29.473245 12503 net.cpp:156] Memory required for data: 233820160
I0706 23:51:29.473249 12507 layer_factory.hpp:77] Creating layer inception_3b/3x3
I0706 23:51:29.473250 12503 layer_factory.hpp:77] Creating layer inception_3a/output
I0706 23:51:29.473259 12503 net.cpp:91] Creating Layer inception_3a/output
I0706 23:51:29.473265 12503 net.cpp:425] inception_3a/output <- inception_3a/1x1
I0706 23:51:29.473266 12507 net.cpp:91] Creating Layer inception_3b/3x3
I0706 23:51:29.473273 12507 net.cpp:425] inception_3b/3x3 <- inception_3b/3x3_reduce
I0706 23:51:29.473271 12503 net.cpp:425] inception_3a/output <- inception_3a/3x3
I0706 23:51:29.473280 12503 net.cpp:425] inception_3a/output <- inception_3a/5x5
I0706 23:51:29.473284 12507 net.cpp:399] inception_3b/3x3 -> inception_3b/3x3
I0706 23:51:29.473285 12503 net.cpp:425] inception_3a/output <- inception_3a/pool_proj
I0706 23:51:29.473299 12503 net.cpp:399] inception_3a/output -> inception_3a/output
I0706 23:51:29.473376 12503 net.cpp:141] Setting up inception_3a/output
I0706 23:51:29.473386 12503 net.cpp:148] Top shape: 10 256 28 28 (2007040)
I0706 23:51:29.473389 12503 net.cpp:156] Memory required for data: 241848320
I0706 23:51:29.473394 12503 layer_factory.hpp:77] Creating layer inception_3a/output_inception_3a/output_0_split
I0706 23:51:29.473407 12503 net.cpp:91] Creating Layer inception_3a/output_inception_3a/output_0_split
I0706 23:51:29.473413 12503 net.cpp:425] inception_3a/output_inception_3a/output_0_split <- inception_3a/output
I0706 23:51:29.473420 12503 net.cpp:399] inception_3a/output_inception_3a/output_0_split -> inception_3a/output_inception_3a/output_0_split_0
I0706 23:51:29.473431 12503 net.cpp:399] inception_3a/output_inception_3a/output_0_split -> inception_3a/output_inception_3a/output_0_split_1
I0706 23:51:29.473439 12503 net.cpp:399] inception_3a/output_inception_3a/output_0_split -> inception_3a/output_inception_3a/output_0_split_2
I0706 23:51:29.473448 12503 net.cpp:399] inception_3a/output_inception_3a/output_0_split -> inception_3a/output_inception_3a/output_0_split_3
I0706 23:51:29.473547 12503 net.cpp:141] Setting up inception_3a/output_inception_3a/output_0_split
I0706 23:51:29.473557 12503 net.cpp:148] Top shape: 10 256 28 28 (2007040)
I0706 23:51:29.473562 12503 net.cpp:148] Top shape: 10 256 28 28 (2007040)
I0706 23:51:29.473568 12503 net.cpp:148] Top shape: 10 256 28 28 (2007040)
I0706 23:51:29.473573 12503 net.cpp:148] Top shape: 10 256 28 28 (2007040)
I0706 23:51:29.473577 12503 net.cpp:156] Memory required for data: 273960960
I0706 23:51:29.473582 12503 layer_factory.hpp:77] Creating layer inception_3b/1x1
I0706 23:51:29.473594 12503 net.cpp:91] Creating Layer inception_3b/1x1
I0706 23:51:29.473600 12503 net.cpp:425] inception_3b/1x1 <- inception_3a/output_inception_3a/output_0_split_0
I0706 23:51:29.473611 12503 net.cpp:399] inception_3b/1x1 -> inception_3b/1x1
I0706 23:51:29.479044 12503 net.cpp:141] Setting up inception_3b/1x1
I0706 23:51:29.479064 12503 net.cpp:148] Top shape: 10 128 28 28 (1003520)
I0706 23:51:29.479069 12503 net.cpp:156] Memory required for data: 277975040
I0706 23:51:29.479079 12503 layer_factory.hpp:77] Creating layer inception_3b/relu_1x1
I0706 23:51:29.479087 12503 net.cpp:91] Creating Layer inception_3b/relu_1x1
I0706 23:51:29.479094 12503 net.cpp:425] inception_3b/relu_1x1 <- inception_3b/1x1
I0706 23:51:29.479102 12503 net.cpp:386] inception_3b/relu_1x1 -> inception_3b/1x1 (in-place)
I0706 23:51:29.479990 12507 net.cpp:141] Setting up inception_3b/3x3
I0706 23:51:29.480008 12507 net.cpp:148] Top shape: 10 192 28 28 (1505280)
I0706 23:51:29.480015 12507 net.cpp:156] Memory required for data: 296038400
I0706 23:51:29.480015 12503 net.cpp:141] Setting up inception_3b/relu_1x1
I0706 23:51:29.480023 12507 layer_factory.hpp:77] Creating layer inception_3b/relu_3x3
I0706 23:51:29.480027 12503 net.cpp:148] Top shape: 10 128 28 28 (1003520)
I0706 23:51:29.480032 12503 net.cpp:156] Memory required for data: 281989120
I0706 23:51:29.480038 12503 layer_factory.hpp:77] Creating layer inception_3b/3x3_reduce
I0706 23:51:29.480039 12507 net.cpp:91] Creating Layer inception_3b/relu_3x3
I0706 23:51:29.480046 12507 net.cpp:425] inception_3b/relu_3x3 <- inception_3b/3x3
I0706 23:51:29.480053 12503 net.cpp:91] Creating Layer inception_3b/3x3_reduce
I0706 23:51:29.480054 12507 net.cpp:386] inception_3b/relu_3x3 -> inception_3b/3x3 (in-place)
I0706 23:51:29.480063 12503 net.cpp:425] inception_3b/3x3_reduce <- inception_3a/output_inception_3a/output_0_split_1
I0706 23:51:29.480077 12503 net.cpp:399] inception_3b/3x3_reduce -> inception_3b/3x3_reduce
I0706 23:51:29.480540 12507 net.cpp:141] Setting up inception_3b/relu_3x3
I0706 23:51:29.480551 12507 net.cpp:148] Top shape: 10 192 28 28 (1505280)
I0706 23:51:29.480556 12507 net.cpp:156] Memory required for data: 302059520
I0706 23:51:29.480561 12507 layer_factory.hpp:77] Creating layer inception_3b/5x5_reduce
I0706 23:51:29.480576 12507 net.cpp:91] Creating Layer inception_3b/5x5_reduce
I0706 23:51:29.480581 12507 net.cpp:425] inception_3b/5x5_reduce <- inception_3a/output_inception_3a/output_0_split_2
I0706 23:51:29.480593 12507 net.cpp:399] inception_3b/5x5_reduce -> inception_3b/5x5_reduce
I0706 23:51:29.485332 12503 net.cpp:141] Setting up inception_3b/3x3_reduce
I0706 23:51:29.485352 12503 net.cpp:148] Top shape: 10 128 28 28 (1003520)
I0706 23:51:29.485357 12503 net.cpp:156] Memory required for data: 286003200
I0706 23:51:29.485365 12503 layer_factory.hpp:77] Creating layer inception_3b/relu_3x3_reduce
I0706 23:51:29.485378 12503 net.cpp:91] Creating Layer inception_3b/relu_3x3_reduce
I0706 23:51:29.485383 12503 net.cpp:425] inception_3b/relu_3x3_reduce <- inception_3b/3x3_reduce
I0706 23:51:29.485391 12503 net.cpp:386] inception_3b/relu_3x3_reduce -> inception_3b/3x3_reduce (in-place)
I0706 23:51:29.485800 12507 net.cpp:141] Setting up inception_3b/5x5_reduce
I0706 23:51:29.485819 12507 net.cpp:148] Top shape: 10 32 28 28 (250880)
I0706 23:51:29.485826 12507 net.cpp:156] Memory required for data: 303063040
I0706 23:51:29.485834 12507 layer_factory.hpp:77] Creating layer inception_3b/relu_5x5_reduce
I0706 23:51:29.485843 12507 net.cpp:91] Creating Layer inception_3b/relu_5x5_reduce
I0706 23:51:29.485849 12507 net.cpp:425] inception_3b/relu_5x5_reduce <- inception_3b/5x5_reduce
I0706 23:51:29.485859 12507 net.cpp:386] inception_3b/relu_5x5_reduce -> inception_3b/5x5_reduce (in-place)
I0706 23:51:29.485893 12503 net.cpp:141] Setting up inception_3b/relu_3x3_reduce
I0706 23:51:29.485913 12503 net.cpp:148] Top shape: 10 128 28 28 (1003520)
I0706 23:51:29.485920 12503 net.cpp:156] Memory required for data: 290017280
I0706 23:51:29.485929 12503 layer_factory.hpp:77] Creating layer inception_3b/3x3
I0706 23:51:29.485954 12503 net.cpp:91] Creating Layer inception_3b/3x3
I0706 23:51:29.485963 12503 net.cpp:425] inception_3b/3x3 <- inception_3b/3x3_reduce
I0706 23:51:29.485981 12503 net.cpp:399] inception_3b/3x3 -> inception_3b/3x3
I0706 23:51:29.486795 12507 net.cpp:141] Setting up inception_3b/relu_5x5_reduce
I0706 23:51:29.486811 12507 net.cpp:148] Top shape: 10 32 28 28 (250880)
I0706 23:51:29.486816 12507 net.cpp:156] Memory required for data: 304066560
I0706 23:51:29.486821 12507 layer_factory.hpp:77] Creating layer inception_3b/5x5
I0706 23:51:29.486837 12507 net.cpp:91] Creating Layer inception_3b/5x5
I0706 23:51:29.486843 12507 net.cpp:425] inception_3b/5x5 <- inception_3b/5x5_reduce
I0706 23:51:29.486855 12507 net.cpp:399] inception_3b/5x5 -> inception_3b/5x5
I0706 23:51:29.492897 12507 net.cpp:141] Setting up inception_3b/5x5
I0706 23:51:29.492924 12507 net.cpp:148] Top shape: 10 96 28 28 (752640)
I0706 23:51:29.492929 12507 net.cpp:156] Memory required for data: 307077120
I0706 23:51:29.492940 12507 layer_factory.hpp:77] Creating layer inception_3b/relu_5x5
I0706 23:51:29.492950 12507 net.cpp:91] Creating Layer inception_3b/relu_5x5
I0706 23:51:29.492956 12507 net.cpp:425] inception_3b/relu_5x5 <- inception_3b/5x5
I0706 23:51:29.492967 12507 net.cpp:386] inception_3b/relu_5x5 -> inception_3b/5x5 (in-place)
I0706 23:51:29.494184 12507 net.cpp:141] Setting up inception_3b/relu_5x5
I0706 23:51:29.494200 12507 net.cpp:148] Top shape: 10 96 28 28 (752640)
I0706 23:51:29.494205 12507 net.cpp:156] Memory required for data: 310087680
I0706 23:51:29.494210 12507 layer_factory.hpp:77] Creating layer inception_3b/pool
I0706 23:51:29.494220 12507 net.cpp:91] Creating Layer inception_3b/pool
I0706 23:51:29.494225 12507 net.cpp:425] inception_3b/pool <- inception_3a/output_inception_3a/output_0_split_3
I0706 23:51:29.494233 12507 net.cpp:399] inception_3b/pool -> inception_3b/pool
I0706 23:51:29.495177 12507 net.cpp:141] Setting up inception_3b/pool
I0706 23:51:29.495190 12507 net.cpp:148] Top shape: 10 256 28 28 (2007040)
I0706 23:51:29.495194 12507 net.cpp:156] Memory required for data: 318115840
I0706 23:51:29.495199 12507 layer_factory.hpp:77] Creating layer inception_3b/pool_proj
I0706 23:51:29.495215 12507 net.cpp:91] Creating Layer inception_3b/pool_proj
I0706 23:51:29.495221 12507 net.cpp:425] inception_3b/pool_proj <- inception_3b/pool
I0706 23:51:29.495232 12507 net.cpp:399] inception_3b/pool_proj -> inception_3b/pool_proj
I0706 23:51:29.496544 12503 net.cpp:141] Setting up inception_3b/3x3
I0706 23:51:29.496570 12503 net.cpp:148] Top shape: 10 192 28 28 (1505280)
I0706 23:51:29.496579 12503 net.cpp:156] Memory required for data: 296038400
I0706 23:51:29.496595 12503 layer_factory.hpp:77] Creating layer inception_3b/relu_3x3
I0706 23:51:29.496619 12503 net.cpp:91] Creating Layer inception_3b/relu_3x3
I0706 23:51:29.496631 12503 net.cpp:425] inception_3b/relu_3x3 <- inception_3b/3x3
I0706 23:51:29.496644 12503 net.cpp:386] inception_3b/relu_3x3 -> inception_3b/3x3 (in-place)
I0706 23:51:29.497931 12503 net.cpp:141] Setting up inception_3b/relu_3x3
I0706 23:51:29.497947 12503 net.cpp:148] Top shape: 10 192 28 28 (1505280)
I0706 23:51:29.497953 12503 net.cpp:156] Memory required for data: 302059520
I0706 23:51:29.497958 12503 layer_factory.hpp:77] Creating layer inception_3b/5x5_reduce
I0706 23:51:29.497977 12503 net.cpp:91] Creating Layer inception_3b/5x5_reduce
I0706 23:51:29.497982 12503 net.cpp:425] inception_3b/5x5_reduce <- inception_3a/output_inception_3a/output_0_split_2
I0706 23:51:29.497992 12503 net.cpp:399] inception_3b/5x5_reduce -> inception_3b/5x5_reduce
I0706 23:51:29.498299 12507 net.cpp:141] Setting up inception_3b/pool_proj
I0706 23:51:29.498317 12507 net.cpp:148] Top shape: 10 64 28 28 (501760)
I0706 23:51:29.498322 12507 net.cpp:156] Memory required for data: 320122880
I0706 23:51:29.498332 12507 layer_factory.hpp:77] Creating layer inception_3b/relu_pool_proj
I0706 23:51:29.498340 12507 net.cpp:91] Creating Layer inception_3b/relu_pool_proj
I0706 23:51:29.498347 12507 net.cpp:425] inception_3b/relu_pool_proj <- inception_3b/pool_proj
I0706 23:51:29.498358 12507 net.cpp:386] inception_3b/relu_pool_proj -> inception_3b/pool_proj (in-place)
I0706 23:51:29.499549 12507 net.cpp:141] Setting up inception_3b/relu_pool_proj
I0706 23:51:29.499567 12507 net.cpp:148] Top shape: 10 64 28 28 (501760)
I0706 23:51:29.499572 12507 net.cpp:156] Memory required for data: 322129920
I0706 23:51:29.499577 12507 layer_factory.hpp:77] Creating layer inception_3b/output
I0706 23:51:29.499588 12507 net.cpp:91] Creating Layer inception_3b/output
I0706 23:51:29.499594 12507 net.cpp:425] inception_3b/output <- inception_3b/1x1
I0706 23:51:29.499601 12507 net.cpp:425] inception_3b/output <- inception_3b/3x3
I0706 23:51:29.499608 12507 net.cpp:425] inception_3b/output <- inception_3b/5x5
I0706 23:51:29.499614 12507 net.cpp:425] inception_3b/output <- inception_3b/pool_proj
I0706 23:51:29.499620 12507 net.cpp:399] inception_3b/output -> inception_3b/output
I0706 23:51:29.500248 12507 net.cpp:141] Setting up inception_3b/output
I0706 23:51:29.500262 12507 net.cpp:148] Top shape: 10 480 28 28 (3763200)
I0706 23:51:29.500265 12507 net.cpp:156] Memory required for data: 337182720
I0706 23:51:29.500270 12507 layer_factory.hpp:77] Creating layer pool3/3x3_s2
I0706 23:51:29.500279 12507 net.cpp:91] Creating Layer pool3/3x3_s2
I0706 23:51:29.500284 12507 net.cpp:425] pool3/3x3_s2 <- inception_3b/output
I0706 23:51:29.500295 12507 net.cpp:399] pool3/3x3_s2 -> pool3/3x3_s2
I0706 23:51:29.500392 12507 net.cpp:141] Setting up pool3/3x3_s2
I0706 23:51:29.500404 12507 net.cpp:148] Top shape: 10 480 14 14 (940800)
I0706 23:51:29.500408 12507 net.cpp:156] Memory required for data: 340945920
I0706 23:51:29.500413 12507 layer_factory.hpp:77] Creating layer pool3/3x3_s2_pool3/3x3_s2_0_split
I0706 23:51:29.500422 12507 net.cpp:91] Creating Layer pool3/3x3_s2_pool3/3x3_s2_0_split
I0706 23:51:29.500427 12507 net.cpp:425] pool3/3x3_s2_pool3/3x3_s2_0_split <- pool3/3x3_s2
I0706 23:51:29.500437 12507 net.cpp:399] pool3/3x3_s2_pool3/3x3_s2_0_split -> pool3/3x3_s2_pool3/3x3_s2_0_split_0
I0706 23:51:29.500447 12507 net.cpp:399] pool3/3x3_s2_pool3/3x3_s2_0_split -> pool3/3x3_s2_pool3/3x3_s2_0_split_1
I0706 23:51:29.500454 12507 net.cpp:399] pool3/3x3_s2_pool3/3x3_s2_0_split -> pool3/3x3_s2_pool3/3x3_s2_0_split_2
I0706 23:51:29.500463 12507 net.cpp:399] pool3/3x3_s2_pool3/3x3_s2_0_split -> pool3/3x3_s2_pool3/3x3_s2_0_split_3
I0706 23:51:29.501286 12507 net.cpp:141] Setting up pool3/3x3_s2_pool3/3x3_s2_0_split
I0706 23:51:29.501298 12507 net.cpp:148] Top shape: 10 480 14 14 (940800)
I0706 23:51:29.501304 12507 net.cpp:148] Top shape: 10 480 14 14 (940800)
I0706 23:51:29.501309 12507 net.cpp:148] Top shape: 10 480 14 14 (940800)
I0706 23:51:29.501314 12507 net.cpp:148] Top shape: 10 480 14 14 (940800)
I0706 23:51:29.501318 12507 net.cpp:156] Memory required for data: 355998720
I0706 23:51:29.501323 12507 layer_factory.hpp:77] Creating layer inception_4a/1x1
I0706 23:51:29.501338 12507 net.cpp:91] Creating Layer inception_4a/1x1
I0706 23:51:29.501344 12507 net.cpp:425] inception_4a/1x1 <- pool3/3x3_s2_pool3/3x3_s2_0_split_0
I0706 23:51:29.501353 12507 net.cpp:399] inception_4a/1x1 -> inception_4a/1x1
I0706 23:51:29.501549 12503 net.cpp:141] Setting up inception_3b/5x5_reduce
I0706 23:51:29.501567 12503 net.cpp:148] Top shape: 10 32 28 28 (250880)
I0706 23:51:29.501572 12503 net.cpp:156] Memory required for data: 303063040
I0706 23:51:29.501582 12503 layer_factory.hpp:77] Creating layer inception_3b/relu_5x5_reduce
I0706 23:51:29.501590 12503 net.cpp:91] Creating Layer inception_3b/relu_5x5_reduce
I0706 23:51:29.501596 12503 net.cpp:425] inception_3b/relu_5x5_reduce <- inception_3b/5x5_reduce
I0706 23:51:29.501606 12503 net.cpp:386] inception_3b/relu_5x5_reduce -> inception_3b/5x5_reduce (in-place)
I0706 23:51:29.501988 12503 net.cpp:141] Setting up inception_3b/relu_5x5_reduce
I0706 23:51:29.502007 12503 net.cpp:148] Top shape: 10 32 28 28 (250880)
I0706 23:51:29.502014 12503 net.cpp:156] Memory required for data: 304066560
I0706 23:51:29.502022 12503 layer_factory.hpp:77] Creating layer inception_3b/5x5
I0706 23:51:29.502049 12503 net.cpp:91] Creating Layer inception_3b/5x5
I0706 23:51:29.502061 12503 net.cpp:425] inception_3b/5x5 <- inception_3b/5x5_reduce
I0706 23:51:29.502076 12503 net.cpp:399] inception_3b/5x5 -> inception_3b/5x5
I0706 23:51:29.507050 12507 net.cpp:141] Setting up inception_4a/1x1
I0706 23:51:29.507073 12507 net.cpp:148] Top shape: 10 192 14 14 (376320)
I0706 23:51:29.507078 12507 net.cpp:156] Memory required for data: 357504000
I0706 23:51:29.507088 12507 layer_factory.hpp:77] Creating layer inception_4a/relu_1x1
I0706 23:51:29.507102 12507 net.cpp:91] Creating Layer inception_4a/relu_1x1
I0706 23:51:29.507109 12507 net.cpp:425] inception_4a/relu_1x1 <- inception_4a/1x1
I0706 23:51:29.507117 12507 net.cpp:386] inception_4a/relu_1x1 -> inception_4a/1x1 (in-place)
I0706 23:51:29.507484 12503 net.cpp:141] Setting up inception_3b/5x5
I0706 23:51:29.507500 12503 net.cpp:148] Top shape: 10 96 28 28 (752640)
I0706 23:51:29.507505 12503 net.cpp:156] Memory required for data: 307077120
I0706 23:51:29.507515 12503 layer_factory.hpp:77] Creating layer inception_3b/relu_5x5
I0706 23:51:29.507526 12503 net.cpp:91] Creating Layer inception_3b/relu_5x5
I0706 23:51:29.507532 12503 net.cpp:425] inception_3b/relu_5x5 <- inception_3b/5x5
I0706 23:51:29.507540 12503 net.cpp:386] inception_3b/relu_5x5 -> inception_3b/5x5 (in-place)
I0706 23:51:29.507540 12507 net.cpp:141] Setting up inception_4a/relu_1x1
I0706 23:51:29.507552 12507 net.cpp:148] Top shape: 10 192 14 14 (376320)
I0706 23:51:29.507557 12507 net.cpp:156] Memory required for data: 359009280
I0706 23:51:29.507562 12507 layer_factory.hpp:77] Creating layer inception_4a/3x3_reduce
I0706 23:51:29.507577 12507 net.cpp:91] Creating Layer inception_4a/3x3_reduce
I0706 23:51:29.507585 12507 net.cpp:425] inception_4a/3x3_reduce <- pool3/3x3_s2_pool3/3x3_s2_0_split_1
I0706 23:51:29.507598 12507 net.cpp:399] inception_4a/3x3_reduce -> inception_4a/3x3_reduce
I0706 23:51:29.508512 12503 net.cpp:141] Setting up inception_3b/relu_5x5
I0706 23:51:29.508527 12503 net.cpp:148] Top shape: 10 96 28 28 (752640)
I0706 23:51:29.508532 12503 net.cpp:156] Memory required for data: 310087680
I0706 23:51:29.508536 12503 layer_factory.hpp:77] Creating layer inception_3b/pool
I0706 23:51:29.508549 12503 net.cpp:91] Creating Layer inception_3b/pool
I0706 23:51:29.508555 12503 net.cpp:425] inception_3b/pool <- inception_3a/output_inception_3a/output_0_split_3
I0706 23:51:29.508563 12503 net.cpp:399] inception_3b/pool -> inception_3b/pool
I0706 23:51:29.508630 12503 net.cpp:141] Setting up inception_3b/pool
I0706 23:51:29.508641 12503 net.cpp:148] Top shape: 10 256 28 28 (2007040)
I0706 23:51:29.508644 12503 net.cpp:156] Memory required for data: 318115840
I0706 23:51:29.508649 12503 layer_factory.hpp:77] Creating layer inception_3b/pool_proj
I0706 23:51:29.508664 12503 net.cpp:91] Creating Layer inception_3b/pool_proj
I0706 23:51:29.508669 12503 net.cpp:425] inception_3b/pool_proj <- inception_3b/pool
I0706 23:51:29.508683 12503 net.cpp:399] inception_3b/pool_proj -> inception_3b/pool_proj
I0706 23:51:29.513154 12503 net.cpp:141] Setting up inception_3b/pool_proj
I0706 23:51:29.513172 12503 net.cpp:148] Top shape: 10 64 28 28 (501760)
I0706 23:51:29.513177 12503 net.cpp:156] Memory required for data: 320122880
I0706 23:51:29.513182 12507 net.cpp:141] Setting up inception_4a/3x3_reduce
I0706 23:51:29.513186 12503 layer_factory.hpp:77] Creating layer inception_3b/relu_pool_proj
I0706 23:51:29.513200 12507 net.cpp:148] Top shape: 10 96 14 14 (188160)
I0706 23:51:29.513202 12503 net.cpp:91] Creating Layer inception_3b/relu_pool_proj
I0706 23:51:29.513205 12507 net.cpp:156] Memory required for data: 359761920
I0706 23:51:29.513209 12503 net.cpp:425] inception_3b/relu_pool_proj <- inception_3b/pool_proj
I0706 23:51:29.513216 12503 net.cpp:386] inception_3b/relu_pool_proj -> inception_3b/pool_proj (in-place)
I0706 23:51:29.513223 12507 layer_factory.hpp:77] Creating layer inception_4a/relu_3x3_reduce
I0706 23:51:29.513232 12507 net.cpp:91] Creating Layer inception_4a/relu_3x3_reduce
I0706 23:51:29.513238 12507 net.cpp:425] inception_4a/relu_3x3_reduce <- inception_4a/3x3_reduce
I0706 23:51:29.513248 12507 net.cpp:386] inception_4a/relu_3x3_reduce -> inception_4a/3x3_reduce (in-place)
I0706 23:51:29.514230 12503 net.cpp:141] Setting up inception_3b/relu_pool_proj
I0706 23:51:29.514240 12507 net.cpp:141] Setting up inception_4a/relu_3x3_reduce
I0706 23:51:29.514245 12503 net.cpp:148] Top shape: 10 64 28 28 (501760)
I0706 23:51:29.514250 12503 net.cpp:156] Memory required for data: 322129920
I0706 23:51:29.514253 12507 net.cpp:148] Top shape: 10 96 14 14 (188160)
I0706 23:51:29.514256 12503 layer_factory.hpp:77] Creating layer inception_3b/output
I0706 23:51:29.514258 12507 net.cpp:156] Memory required for data: 360514560
I0706 23:51:29.514263 12507 layer_factory.hpp:77] Creating layer inception_4a/3x3
I0706 23:51:29.514264 12503 net.cpp:91] Creating Layer inception_3b/output
I0706 23:51:29.514271 12503 net.cpp:425] inception_3b/output <- inception_3b/1x1
I0706 23:51:29.514276 12503 net.cpp:425] inception_3b/output <- inception_3b/3x3
I0706 23:51:29.514278 12507 net.cpp:91] Creating Layer inception_4a/3x3
I0706 23:51:29.514282 12503 net.cpp:425] inception_3b/output <- inception_3b/5x5
I0706 23:51:29.514286 12507 net.cpp:425] inception_4a/3x3 <- inception_4a/3x3_reduce
I0706 23:51:29.514288 12503 net.cpp:425] inception_3b/output <- inception_3b/pool_proj
I0706 23:51:29.514294 12507 net.cpp:399] inception_4a/3x3 -> inception_4a/3x3
I0706 23:51:29.514298 12503 net.cpp:399] inception_3b/output -> inception_3b/output
I0706 23:51:29.514519 12503 net.cpp:141] Setting up inception_3b/output
I0706 23:51:29.514534 12503 net.cpp:148] Top shape: 10 480 28 28 (3763200)
I0706 23:51:29.514539 12503 net.cpp:156] Memory required for data: 337182720
I0706 23:51:29.514544 12503 layer_factory.hpp:77] Creating layer pool3/3x3_s2
I0706 23:51:29.514551 12503 net.cpp:91] Creating Layer pool3/3x3_s2
I0706 23:51:29.514556 12503 net.cpp:425] pool3/3x3_s2 <- inception_3b/output
I0706 23:51:29.514564 12503 net.cpp:399] pool3/3x3_s2 -> pool3/3x3_s2
I0706 23:51:29.515663 12503 net.cpp:141] Setting up pool3/3x3_s2
I0706 23:51:29.515677 12503 net.cpp:148] Top shape: 10 480 14 14 (940800)
I0706 23:51:29.515682 12503 net.cpp:156] Memory required for data: 340945920
I0706 23:51:29.515686 12503 layer_factory.hpp:77] Creating layer pool3/3x3_s2_pool3/3x3_s2_0_split
I0706 23:51:29.515699 12503 net.cpp:91] Creating Layer pool3/3x3_s2_pool3/3x3_s2_0_split
I0706 23:51:29.515704 12503 net.cpp:425] pool3/3x3_s2_pool3/3x3_s2_0_split <- pool3/3x3_s2
I0706 23:51:29.515712 12503 net.cpp:399] pool3/3x3_s2_pool3/3x3_s2_0_split -> pool3/3x3_s2_pool3/3x3_s2_0_split_0
I0706 23:51:29.515722 12503 net.cpp:399] pool3/3x3_s2_pool3/3x3_s2_0_split -> pool3/3x3_s2_pool3/3x3_s2_0_split_1
I0706 23:51:29.515730 12503 net.cpp:399] pool3/3x3_s2_pool3/3x3_s2_0_split -> pool3/3x3_s2_pool3/3x3_s2_0_split_2
I0706 23:51:29.515738 12503 net.cpp:399] pool3/3x3_s2_pool3/3x3_s2_0_split -> pool3/3x3_s2_pool3/3x3_s2_0_split_3
I0706 23:51:29.515825 12503 net.cpp:141] Setting up pool3/3x3_s2_pool3/3x3_s2_0_split
I0706 23:51:29.515833 12503 net.cpp:148] Top shape: 10 480 14 14 (940800)
I0706 23:51:29.515839 12503 net.cpp:148] Top shape: 10 480 14 14 (940800)
I0706 23:51:29.515844 12503 net.cpp:148] Top shape: 10 480 14 14 (940800)
I0706 23:51:29.515849 12503 net.cpp:148] Top shape: 10 480 14 14 (940800)
I0706 23:51:29.515853 12503 net.cpp:156] Memory required for data: 355998720
I0706 23:51:29.515857 12503 layer_factory.hpp:77] Creating layer inception_4a/1x1
I0706 23:51:29.515872 12503 net.cpp:91] Creating Layer inception_4a/1x1
I0706 23:51:29.515877 12503 net.cpp:425] inception_4a/1x1 <- pool3/3x3_s2_pool3/3x3_s2_0_split_0
I0706 23:51:29.515887 12503 net.cpp:399] inception_4a/1x1 -> inception_4a/1x1
I0706 23:51:29.521009 12507 net.cpp:141] Setting up inception_4a/3x3
I0706 23:51:29.521028 12507 net.cpp:148] Top shape: 10 208 14 14 (407680)
I0706 23:51:29.521034 12507 net.cpp:156] Memory required for data: 362145280
I0706 23:51:29.521042 12507 layer_factory.hpp:77] Creating layer inception_4a/relu_3x3
I0706 23:51:29.521054 12507 net.cpp:91] Creating Layer inception_4a/relu_3x3
I0706 23:51:29.521060 12507 net.cpp:425] inception_4a/relu_3x3 <- inception_4a/3x3
I0706 23:51:29.521069 12507 net.cpp:386] inception_4a/relu_3x3 -> inception_4a/3x3 (in-place)
I0706 23:51:29.521869 12503 net.cpp:141] Setting up inception_4a/1x1
I0706 23:51:29.521886 12503 net.cpp:148] Top shape: 10 192 14 14 (376320)
I0706 23:51:29.521891 12503 net.cpp:156] Memory required for data: 357504000
I0706 23:51:29.521900 12503 layer_factory.hpp:77] Creating layer inception_4a/relu_1x1
I0706 23:51:29.521908 12503 net.cpp:91] Creating Layer inception_4a/relu_1x1
I0706 23:51:29.521914 12503 net.cpp:425] inception_4a/relu_1x1 <- inception_4a/1x1
I0706 23:51:29.521921 12503 net.cpp:386] inception_4a/relu_1x1 -> inception_4a/1x1 (in-place)
I0706 23:51:29.521932 12507 net.cpp:141] Setting up inception_4a/relu_3x3
I0706 23:51:29.521945 12507 net.cpp:148] Top shape: 10 208 14 14 (407680)
I0706 23:51:29.521950 12507 net.cpp:156] Memory required for data: 363776000
I0706 23:51:29.521955 12507 layer_factory.hpp:77] Creating layer inception_4a/5x5_reduce
I0706 23:51:29.521972 12507 net.cpp:91] Creating Layer inception_4a/5x5_reduce
I0706 23:51:29.521980 12507 net.cpp:425] inception_4a/5x5_reduce <- pool3/3x3_s2_pool3/3x3_s2_0_split_2
I0706 23:51:29.521988 12507 net.cpp:399] inception_4a/5x5_reduce -> inception_4a/5x5_reduce
I0706 23:51:29.523327 12503 net.cpp:141] Setting up inception_4a/relu_1x1
I0706 23:51:29.523351 12503 net.cpp:148] Top shape: 10 192 14 14 (376320)
I0706 23:51:29.523360 12503 net.cpp:156] Memory required for data: 359009280
I0706 23:51:29.523367 12503 layer_factory.hpp:77] Creating layer inception_4a/3x3_reduce
I0706 23:51:29.523391 12503 net.cpp:91] Creating Layer inception_4a/3x3_reduce
I0706 23:51:29.523403 12503 net.cpp:425] inception_4a/3x3_reduce <- pool3/3x3_s2_pool3/3x3_s2_0_split_1
I0706 23:51:29.523424 12503 net.cpp:399] inception_4a/3x3_reduce -> inception_4a/3x3_reduce
I0706 23:51:29.525339 12507 net.cpp:141] Setting up inception_4a/5x5_reduce
I0706 23:51:29.525362 12507 net.cpp:148] Top shape: 10 16 14 14 (31360)
I0706 23:51:29.525370 12507 net.cpp:156] Memory required for data: 363901440
I0706 23:51:29.525380 12507 layer_factory.hpp:77] Creating layer inception_4a/relu_5x5_reduce
I0706 23:51:29.525391 12507 net.cpp:91] Creating Layer inception_4a/relu_5x5_reduce
I0706 23:51:29.525398 12507 net.cpp:425] inception_4a/relu_5x5_reduce <- inception_4a/5x5_reduce
I0706 23:51:29.525405 12507 net.cpp:386] inception_4a/relu_5x5_reduce -> inception_4a/5x5_reduce (in-place)
I0706 23:51:29.526505 12507 net.cpp:141] Setting up inception_4a/relu_5x5_reduce
I0706 23:51:29.526520 12507 net.cpp:148] Top shape: 10 16 14 14 (31360)
I0706 23:51:29.526525 12507 net.cpp:156] Memory required for data: 364026880
I0706 23:51:29.526530 12507 layer_factory.hpp:77] Creating layer inception_4a/5x5
I0706 23:51:29.526545 12507 net.cpp:91] Creating Layer inception_4a/5x5
I0706 23:51:29.526551 12507 net.cpp:425] inception_4a/5x5 <- inception_4a/5x5_reduce
I0706 23:51:29.526562 12507 net.cpp:399] inception_4a/5x5 -> inception_4a/5x5
I0706 23:51:29.530360 12503 net.cpp:141] Setting up inception_4a/3x3_reduce
I0706 23:51:29.530380 12503 net.cpp:148] Top shape: 10 96 14 14 (188160)
I0706 23:51:29.530386 12503 net.cpp:156] Memory required for data: 359761920
I0706 23:51:29.530411 12503 layer_factory.hpp:77] Creating layer inception_4a/relu_3x3_reduce
I0706 23:51:29.530421 12503 net.cpp:91] Creating Layer inception_4a/relu_3x3_reduce
I0706 23:51:29.530426 12503 net.cpp:425] inception_4a/relu_3x3_reduce <- inception_4a/3x3_reduce
I0706 23:51:29.530434 12503 net.cpp:386] inception_4a/relu_3x3_reduce -> inception_4a/3x3_reduce (in-place)
I0706 23:51:29.531859 12503 net.cpp:141] Setting up inception_4a/relu_3x3_reduce
I0706 23:51:29.531877 12503 net.cpp:148] Top shape: 10 96 14 14 (188160)
I0706 23:51:29.531882 12503 net.cpp:156] Memory required for data: 360514560
I0706 23:51:29.531888 12503 layer_factory.hpp:77] Creating layer inception_4a/3x3
I0706 23:51:29.531901 12503 net.cpp:91] Creating Layer inception_4a/3x3
I0706 23:51:29.531908 12503 net.cpp:425] inception_4a/3x3 <- inception_4a/3x3_reduce
I0706 23:51:29.531916 12503 net.cpp:399] inception_4a/3x3 -> inception_4a/3x3
I0706 23:51:29.532171 12507 net.cpp:141] Setting up inception_4a/5x5
I0706 23:51:29.532184 12507 net.cpp:148] Top shape: 10 48 14 14 (94080)
I0706 23:51:29.532189 12507 net.cpp:156] Memory required for data: 364403200
I0706 23:51:29.532198 12507 layer_factory.hpp:77] Creating layer inception_4a/relu_5x5
I0706 23:51:29.532207 12507 net.cpp:91] Creating Layer inception_4a/relu_5x5
I0706 23:51:29.532212 12507 net.cpp:425] inception_4a/relu_5x5 <- inception_4a/5x5
I0706 23:51:29.532223 12507 net.cpp:386] inception_4a/relu_5x5 -> inception_4a/5x5 (in-place)
I0706 23:51:29.533613 12507 net.cpp:141] Setting up inception_4a/relu_5x5
I0706 23:51:29.533632 12507 net.cpp:148] Top shape: 10 48 14 14 (94080)
I0706 23:51:29.533637 12507 net.cpp:156] Memory required for data: 364779520
I0706 23:51:29.533641 12507 layer_factory.hpp:77] Creating layer inception_4a/pool
I0706 23:51:29.533651 12507 net.cpp:91] Creating Layer inception_4a/pool
I0706 23:51:29.533658 12507 net.cpp:425] inception_4a/pool <- pool3/3x3_s2_pool3/3x3_s2_0_split_3
I0706 23:51:29.533666 12507 net.cpp:399] inception_4a/pool -> inception_4a/pool
I0706 23:51:29.533741 12507 net.cpp:141] Setting up inception_4a/pool
I0706 23:51:29.533751 12507 net.cpp:148] Top shape: 10 480 14 14 (940800)
I0706 23:51:29.533756 12507 net.cpp:156] Memory required for data: 368542720
I0706 23:51:29.533759 12507 layer_factory.hpp:77] Creating layer inception_4a/pool_proj
I0706 23:51:29.533782 12507 net.cpp:91] Creating Layer inception_4a/pool_proj
I0706 23:51:29.533792 12507 net.cpp:425] inception_4a/pool_proj <- inception_4a/pool
I0706 23:51:29.533802 12507 net.cpp:399] inception_4a/pool_proj -> inception_4a/pool_proj
I0706 23:51:29.538183 12507 net.cpp:141] Setting up inception_4a/pool_proj
I0706 23:51:29.538202 12507 net.cpp:148] Top shape: 10 64 14 14 (125440)
I0706 23:51:29.538206 12507 net.cpp:156] Memory required for data: 369044480
I0706 23:51:29.538214 12507 layer_factory.hpp:77] Creating layer inception_4a/relu_pool_proj
I0706 23:51:29.538225 12507 net.cpp:91] Creating Layer inception_4a/relu_pool_proj
I0706 23:51:29.538233 12507 net.cpp:425] inception_4a/relu_pool_proj <- inception_4a/pool_proj
I0706 23:51:29.538239 12507 net.cpp:386] inception_4a/relu_pool_proj -> inception_4a/pool_proj (in-place)
I0706 23:51:29.538537 12503 net.cpp:141] Setting up inception_4a/3x3
I0706 23:51:29.538552 12503 net.cpp:148] Top shape: 10 208 14 14 (407680)
I0706 23:51:29.538557 12503 net.cpp:156] Memory required for data: 362145280
I0706 23:51:29.538565 12503 layer_factory.hpp:77] Creating layer inception_4a/relu_3x3
I0706 23:51:29.538574 12503 net.cpp:91] Creating Layer inception_4a/relu_3x3
I0706 23:51:29.538580 12503 net.cpp:425] inception_4a/relu_3x3 <- inception_4a/3x3
I0706 23:51:29.538590 12503 net.cpp:386] inception_4a/relu_3x3 -> inception_4a/3x3 (in-place)
I0706 23:51:29.539930 12507 net.cpp:141] Setting up inception_4a/relu_pool_proj
I0706 23:51:29.539947 12507 net.cpp:148] Top shape: 10 64 14 14 (125440)
I0706 23:51:29.539948 12503 net.cpp:141] Setting up inception_4a/relu_3x3
I0706 23:51:29.539952 12507 net.cpp:156] Memory required for data: 369546240
I0706 23:51:29.539963 12507 layer_factory.hpp:77] Creating layer inception_4a/output
I0706 23:51:29.539964 12503 net.cpp:148] Top shape: 10 208 14 14 (407680)
I0706 23:51:29.539976 12503 net.cpp:156] Memory required for data: 363776000
I0706 23:51:29.539976 12507 net.cpp:91] Creating Layer inception_4a/output
I0706 23:51:29.539984 12503 layer_factory.hpp:77] Creating layer inception_4a/5x5_reduce
I0706 23:51:29.539988 12507 net.cpp:425] inception_4a/output <- inception_4a/1x1
I0706 23:51:29.539995 12507 net.cpp:425] inception_4a/output <- inception_4a/3x3
I0706 23:51:29.540000 12503 net.cpp:91] Creating Layer inception_4a/5x5_reduce
I0706 23:51:29.540001 12507 net.cpp:425] inception_4a/output <- inception_4a/5x5
I0706 23:51:29.540009 12503 net.cpp:425] inception_4a/5x5_reduce <- pool3/3x3_s2_pool3/3x3_s2_0_split_2
I0706 23:51:29.540012 12507 net.cpp:425] inception_4a/output <- inception_4a/pool_proj
I0706 23:51:29.540019 12507 net.cpp:399] inception_4a/output -> inception_4a/output
I0706 23:51:29.540021 12503 net.cpp:399] inception_4a/5x5_reduce -> inception_4a/5x5_reduce
I0706 23:51:29.540077 12507 net.cpp:141] Setting up inception_4a/output
I0706 23:51:29.540087 12507 net.cpp:148] Top shape: 10 512 14 14 (1003520)
I0706 23:51:29.540091 12507 net.cpp:156] Memory required for data: 373560320
I0706 23:51:29.540096 12507 layer_factory.hpp:77] Creating layer inception_4a/output_inception_4a/output_0_split
I0706 23:51:29.540107 12507 net.cpp:91] Creating Layer inception_4a/output_inception_4a/output_0_split
I0706 23:51:29.540112 12507 net.cpp:425] inception_4a/output_inception_4a/output_0_split <- inception_4a/output
I0706 23:51:29.540118 12507 net.cpp:399] inception_4a/output_inception_4a/output_0_split -> inception_4a/output_inception_4a/output_0_split_0
I0706 23:51:29.540127 12507 net.cpp:399] inception_4a/output_inception_4a/output_0_split -> inception_4a/output_inception_4a/output_0_split_1
I0706 23:51:29.540137 12507 net.cpp:399] inception_4a/output_inception_4a/output_0_split -> inception_4a/output_inception_4a/output_0_split_2
I0706 23:51:29.540144 12507 net.cpp:399] inception_4a/output_inception_4a/output_0_split -> inception_4a/output_inception_4a/output_0_split_3
I0706 23:51:29.540441 12507 net.cpp:141] Setting up inception_4a/output_inception_4a/output_0_split
I0706 23:51:29.540452 12507 net.cpp:148] Top shape: 10 512 14 14 (1003520)
I0706 23:51:29.540458 12507 net.cpp:148] Top shape: 10 512 14 14 (1003520)
I0706 23:51:29.540464 12507 net.cpp:148] Top shape: 10 512 14 14 (1003520)
I0706 23:51:29.540469 12507 net.cpp:148] Top shape: 10 512 14 14 (1003520)
I0706 23:51:29.540473 12507 net.cpp:156] Memory required for data: 389616640
I0706 23:51:29.540477 12507 layer_factory.hpp:77] Creating layer inception_4b/1x1
I0706 23:51:29.540493 12507 net.cpp:91] Creating Layer inception_4b/1x1
I0706 23:51:29.540498 12507 net.cpp:425] inception_4b/1x1 <- inception_4a/output_inception_4a/output_0_split_0
I0706 23:51:29.540508 12507 net.cpp:399] inception_4b/1x1 -> inception_4b/1x1
I0706 23:51:29.544356 12503 net.cpp:141] Setting up inception_4a/5x5_reduce
I0706 23:51:29.544378 12503 net.cpp:148] Top shape: 10 16 14 14 (31360)
I0706 23:51:29.544384 12503 net.cpp:156] Memory required for data: 363901440
I0706 23:51:29.544394 12503 layer_factory.hpp:77] Creating layer inception_4a/relu_5x5_reduce
I0706 23:51:29.544402 12503 net.cpp:91] Creating Layer inception_4a/relu_5x5_reduce
I0706 23:51:29.544411 12503 net.cpp:425] inception_4a/relu_5x5_reduce <- inception_4a/5x5_reduce
I0706 23:51:29.544420 12503 net.cpp:386] inception_4a/relu_5x5_reduce -> inception_4a/5x5_reduce (in-place)
I0706 23:51:29.545244 12507 net.cpp:141] Setting up inception_4b/1x1
I0706 23:51:29.545260 12507 net.cpp:148] Top shape: 10 160 14 14 (313600)
I0706 23:51:29.545265 12507 net.cpp:156] Memory required for data: 390871040
I0706 23:51:29.545274 12507 layer_factory.hpp:77] Creating layer inception_4b/relu_1x1
I0706 23:51:29.545282 12507 net.cpp:91] Creating Layer inception_4b/relu_1x1
I0706 23:51:29.545289 12507 net.cpp:425] inception_4b/relu_1x1 <- inception_4b/1x1
I0706 23:51:29.545295 12507 net.cpp:386] inception_4b/relu_1x1 -> inception_4b/1x1 (in-place)
I0706 23:51:29.545303 12503 net.cpp:141] Setting up inception_4a/relu_5x5_reduce
I0706 23:51:29.545316 12503 net.cpp:148] Top shape: 10 16 14 14 (31360)
I0706 23:51:29.545321 12503 net.cpp:156] Memory required for data: 364026880
I0706 23:51:29.545326 12503 layer_factory.hpp:77] Creating layer inception_4a/5x5
I0706 23:51:29.545344 12503 net.cpp:91] Creating Layer inception_4a/5x5
I0706 23:51:29.545351 12503 net.cpp:425] inception_4a/5x5 <- inception_4a/5x5_reduce
I0706 23:51:29.545362 12503 net.cpp:399] inception_4a/5x5 -> inception_4a/5x5
I0706 23:51:29.545794 12507 net.cpp:141] Setting up inception_4b/relu_1x1
I0706 23:51:29.545805 12507 net.cpp:148] Top shape: 10 160 14 14 (313600)
I0706 23:51:29.545809 12507 net.cpp:156] Memory required for data: 392125440
I0706 23:51:29.545814 12507 layer_factory.hpp:77] Creating layer inception_4b/3x3_reduce
I0706 23:51:29.545828 12507 net.cpp:91] Creating Layer inception_4b/3x3_reduce
I0706 23:51:29.545835 12507 net.cpp:425] inception_4b/3x3_reduce <- inception_4a/output_inception_4a/output_0_split_1
I0706 23:51:29.545846 12507 net.cpp:399] inception_4b/3x3_reduce -> inception_4b/3x3_reduce
I0706 23:51:29.549959 12503 net.cpp:141] Setting up inception_4a/5x5
I0706 23:51:29.549976 12503 net.cpp:148] Top shape: 10 48 14 14 (94080)
I0706 23:51:29.549981 12503 net.cpp:156] Memory required for data: 364403200
I0706 23:51:29.549989 12503 layer_factory.hpp:77] Creating layer inception_4a/relu_5x5
I0706 23:51:29.549998 12503 net.cpp:91] Creating Layer inception_4a/relu_5x5
I0706 23:51:29.550004 12503 net.cpp:425] inception_4a/relu_5x5 <- inception_4a/5x5
I0706 23:51:29.550014 12503 net.cpp:386] inception_4a/relu_5x5 -> inception_4a/5x5 (in-place)
I0706 23:51:29.550992 12507 net.cpp:141] Setting up inception_4b/3x3_reduce
I0706 23:51:29.550997 12503 net.cpp:141] Setting up inception_4a/relu_5x5
I0706 23:51:29.551008 12507 net.cpp:148] Top shape: 10 112 14 14 (219520)
I0706 23:51:29.551010 12503 net.cpp:148] Top shape: 10 48 14 14 (94080)
I0706 23:51:29.551013 12507 net.cpp:156] Memory required for data: 393003520
I0706 23:51:29.551015 12503 net.cpp:156] Memory required for data: 364779520
I0706 23:51:29.551020 12503 layer_factory.hpp:77] Creating layer inception_4a/pool
I0706 23:51:29.551023 12507 layer_factory.hpp:77] Creating layer inception_4b/relu_3x3_reduce
I0706 23:51:29.551038 12507 net.cpp:91] Creating Layer inception_4b/relu_3x3_reduce
I0706 23:51:29.551039 12503 net.cpp:91] Creating Layer inception_4a/pool
I0706 23:51:29.551044 12507 net.cpp:425] inception_4b/relu_3x3_reduce <- inception_4b/3x3_reduce
I0706 23:51:29.551046 12503 net.cpp:425] inception_4a/pool <- pool3/3x3_s2_pool3/3x3_s2_0_split_3
I0706 23:51:29.551051 12507 net.cpp:386] inception_4b/relu_3x3_reduce -> inception_4b/3x3_reduce (in-place)
I0706 23:51:29.551055 12503 net.cpp:399] inception_4a/pool -> inception_4a/pool
I0706 23:51:29.551301 12503 net.cpp:141] Setting up inception_4a/pool
I0706 23:51:29.551311 12503 net.cpp:148] Top shape: 10 480 14 14 (940800)
I0706 23:51:29.551316 12503 net.cpp:156] Memory required for data: 368542720
I0706 23:51:29.551321 12503 layer_factory.hpp:77] Creating layer inception_4a/pool_proj
I0706 23:51:29.551334 12503 net.cpp:91] Creating Layer inception_4a/pool_proj
I0706 23:51:29.551339 12503 net.cpp:425] inception_4a/pool_proj <- inception_4a/pool
I0706 23:51:29.551352 12503 net.cpp:399] inception_4a/pool_proj -> inception_4a/pool_proj
I0706 23:51:29.551431 12507 net.cpp:141] Setting up inception_4b/relu_3x3_reduce
I0706 23:51:29.551443 12507 net.cpp:148] Top shape: 10 112 14 14 (219520)
I0706 23:51:29.551448 12507 net.cpp:156] Memory required for data: 393881600
I0706 23:51:29.551453 12507 layer_factory.hpp:77] Creating layer inception_4b/3x3
I0706 23:51:29.551470 12507 net.cpp:91] Creating Layer inception_4b/3x3
I0706 23:51:29.551476 12507 net.cpp:425] inception_4b/3x3 <- inception_4b/3x3_reduce
I0706 23:51:29.551484 12507 net.cpp:399] inception_4b/3x3 -> inception_4b/3x3
I0706 23:51:29.555775 12503 net.cpp:141] Setting up inception_4a/pool_proj
I0706 23:51:29.555794 12503 net.cpp:148] Top shape: 10 64 14 14 (125440)
I0706 23:51:29.555799 12503 net.cpp:156] Memory required for data: 369044480
I0706 23:51:29.555807 12503 layer_factory.hpp:77] Creating layer inception_4a/relu_pool_proj
I0706 23:51:29.555819 12503 net.cpp:91] Creating Layer inception_4a/relu_pool_proj
I0706 23:51:29.555824 12503 net.cpp:425] inception_4a/relu_pool_proj <- inception_4a/pool_proj
I0706 23:51:29.555831 12503 net.cpp:386] inception_4a/relu_pool_proj -> inception_4a/pool_proj (in-place)
I0706 23:51:29.556865 12503 net.cpp:141] Setting up inception_4a/relu_pool_proj
I0706 23:51:29.556886 12503 net.cpp:148] Top shape: 10 64 14 14 (125440)
I0706 23:51:29.556891 12503 net.cpp:156] Memory required for data: 369546240
I0706 23:51:29.556896 12503 layer_factory.hpp:77] Creating layer inception_4a/output
I0706 23:51:29.556905 12503 net.cpp:91] Creating Layer inception_4a/output
I0706 23:51:29.556910 12503 net.cpp:425] inception_4a/output <- inception_4a/1x1
I0706 23:51:29.556917 12503 net.cpp:425] inception_4a/output <- inception_4a/3x3
I0706 23:51:29.556922 12503 net.cpp:425] inception_4a/output <- inception_4a/5x5
I0706 23:51:29.556927 12503 net.cpp:425] inception_4a/output <- inception_4a/pool_proj
I0706 23:51:29.556934 12503 net.cpp:399] inception_4a/output -> inception_4a/output
I0706 23:51:29.557044 12503 net.cpp:141] Setting up inception_4a/output
I0706 23:51:29.557054 12503 net.cpp:148] Top shape: 10 512 14 14 (1003520)
I0706 23:51:29.557059 12503 net.cpp:156] Memory required for data: 373560320
I0706 23:51:29.557063 12503 layer_factory.hpp:77] Creating layer inception_4a/output_inception_4a/output_0_split
I0706 23:51:29.557075 12503 net.cpp:91] Creating Layer inception_4a/output_inception_4a/output_0_split
I0706 23:51:29.557080 12503 net.cpp:425] inception_4a/output_inception_4a/output_0_split <- inception_4a/output
I0706 23:51:29.557086 12503 net.cpp:399] inception_4a/output_inception_4a/output_0_split -> inception_4a/output_inception_4a/output_0_split_0
I0706 23:51:29.557096 12503 net.cpp:399] inception_4a/output_inception_4a/output_0_split -> inception_4a/output_inception_4a/output_0_split_1
I0706 23:51:29.557104 12503 net.cpp:399] inception_4a/output_inception_4a/output_0_split -> inception_4a/output_inception_4a/output_0_split_2
I0706 23:51:29.557112 12503 net.cpp:399] inception_4a/output_inception_4a/output_0_split -> inception_4a/output_inception_4a/output_0_split_3
I0706 23:51:29.557243 12503 net.cpp:141] Setting up inception_4a/output_inception_4a/output_0_split
I0706 23:51:29.557253 12503 net.cpp:148] Top shape: 10 512 14 14 (1003520)
I0706 23:51:29.557260 12503 net.cpp:148] Top shape: 10 512 14 14 (1003520)
I0706 23:51:29.557265 12503 net.cpp:148] Top shape: 10 512 14 14 (1003520)
I0706 23:51:29.557270 12503 net.cpp:148] Top shape: 10 512 14 14 (1003520)
I0706 23:51:29.557273 12503 net.cpp:156] Memory required for data: 389616640
I0706 23:51:29.557278 12503 layer_factory.hpp:77] Creating layer inception_4b/1x1
I0706 23:51:29.557292 12503 net.cpp:91] Creating Layer inception_4b/1x1
I0706 23:51:29.557298 12503 net.cpp:425] inception_4b/1x1 <- inception_4a/output_inception_4a/output_0_split_0
I0706 23:51:29.557308 12503 net.cpp:399] inception_4b/1x1 -> inception_4b/1x1
I0706 23:51:29.557595 12507 net.cpp:141] Setting up inception_4b/3x3
I0706 23:51:29.557610 12507 net.cpp:148] Top shape: 10 224 14 14 (439040)
I0706 23:51:29.557615 12507 net.cpp:156] Memory required for data: 395637760
I0706 23:51:29.557624 12507 layer_factory.hpp:77] Creating layer inception_4b/relu_3x3
I0706 23:51:29.557632 12507 net.cpp:91] Creating Layer inception_4b/relu_3x3
I0706 23:51:29.557638 12507 net.cpp:425] inception_4b/relu_3x3 <- inception_4b/3x3
I0706 23:51:29.557646 12507 net.cpp:386] inception_4b/relu_3x3 -> inception_4b/3x3 (in-place)
I0706 23:51:29.558470 12507 net.cpp:141] Setting up inception_4b/relu_3x3
I0706 23:51:29.558485 12507 net.cpp:148] Top shape: 10 224 14 14 (439040)
I0706 23:51:29.558490 12507 net.cpp:156] Memory required for data: 397393920
I0706 23:51:29.558495 12507 layer_factory.hpp:77] Creating layer inception_4b/5x5_reduce
I0706 23:51:29.558521 12507 net.cpp:91] Creating Layer inception_4b/5x5_reduce
I0706 23:51:29.558527 12507 net.cpp:425] inception_4b/5x5_reduce <- inception_4a/output_inception_4a/output_0_split_2
I0706 23:51:29.558537 12507 net.cpp:399] inception_4b/5x5_reduce -> inception_4b/5x5_reduce
I0706 23:51:29.562716 12507 net.cpp:141] Setting up inception_4b/5x5_reduce
I0706 23:51:29.562733 12507 net.cpp:148] Top shape: 10 24 14 14 (47040)
I0706 23:51:29.562739 12507 net.cpp:156] Memory required for data: 397582080
I0706 23:51:29.562739 12503 net.cpp:141] Setting up inception_4b/1x1
I0706 23:51:29.562748 12507 layer_factory.hpp:77] Creating layer inception_4b/relu_5x5_reduce
I0706 23:51:29.562754 12503 net.cpp:148] Top shape: 10 160 14 14 (313600)
I0706 23:51:29.562759 12507 net.cpp:91] Creating Layer inception_4b/relu_5x5_reduce
I0706 23:51:29.562762 12503 net.cpp:156] Memory required for data: 390871040
I0706 23:51:29.562765 12507 net.cpp:425] inception_4b/relu_5x5_reduce <- inception_4b/5x5_reduce
I0706 23:51:29.562770 12503 layer_factory.hpp:77] Creating layer inception_4b/relu_1x1
I0706 23:51:29.562773 12507 net.cpp:386] inception_4b/relu_5x5_reduce -> inception_4b/5x5_reduce (in-place)
I0706 23:51:29.562779 12503 net.cpp:91] Creating Layer inception_4b/relu_1x1
I0706 23:51:29.562784 12503 net.cpp:425] inception_4b/relu_1x1 <- inception_4b/1x1
I0706 23:51:29.562793 12503 net.cpp:386] inception_4b/relu_1x1 -> inception_4b/1x1 (in-place)
I0706 23:51:29.564615 12507 net.cpp:141] Setting up inception_4b/relu_5x5_reduce
I0706 23:51:29.564620 12503 net.cpp:141] Setting up inception_4b/relu_1x1
I0706 23:51:29.564630 12507 net.cpp:148] Top shape: 10 24 14 14 (47040)
I0706 23:51:29.564633 12503 net.cpp:148] Top shape: 10 160 14 14 (313600)
I0706 23:51:29.564640 12507 net.cpp:156] Memory required for data: 397770240
I0706 23:51:29.564643 12503 net.cpp:156] Memory required for data: 392125440
I0706 23:51:29.564646 12507 layer_factory.hpp:77] Creating layer inception_4b/5x5
I0706 23:51:29.564648 12503 layer_factory.hpp:77] Creating layer inception_4b/3x3_reduce
I0706 23:51:29.564658 12507 net.cpp:91] Creating Layer inception_4b/5x5
I0706 23:51:29.564664 12507 net.cpp:425] inception_4b/5x5 <- inception_4b/5x5_reduce
I0706 23:51:29.564666 12503 net.cpp:91] Creating Layer inception_4b/3x3_reduce
I0706 23:51:29.564672 12503 net.cpp:425] inception_4b/3x3_reduce <- inception_4a/output_inception_4a/output_0_split_1
I0706 23:51:29.564678 12507 net.cpp:399] inception_4b/5x5 -> inception_4b/5x5
I0706 23:51:29.564683 12503 net.cpp:399] inception_4b/3x3_reduce -> inception_4b/3x3_reduce
I0706 23:51:29.569358 12507 net.cpp:141] Setting up inception_4b/5x5
I0706 23:51:29.569377 12507 net.cpp:148] Top shape: 10 64 14 14 (125440)
I0706 23:51:29.569382 12507 net.cpp:156] Memory required for data: 398272000
I0706 23:51:29.569391 12507 layer_factory.hpp:77] Creating layer inception_4b/relu_5x5
I0706 23:51:29.569401 12507 net.cpp:91] Creating Layer inception_4b/relu_5x5
I0706 23:51:29.569408 12507 net.cpp:425] inception_4b/relu_5x5 <- inception_4b/5x5
I0706 23:51:29.569416 12507 net.cpp:386] inception_4b/relu_5x5 -> inception_4b/5x5 (in-place)
I0706 23:51:29.570243 12503 net.cpp:141] Setting up inception_4b/3x3_reduce
I0706 23:51:29.570261 12503 net.cpp:148] Top shape: 10 112 14 14 (219520)
I0706 23:51:29.570266 12503 net.cpp:156] Memory required for data: 393003520
I0706 23:51:29.570273 12503 layer_factory.hpp:77] Creating layer inception_4b/relu_3x3_reduce
I0706 23:51:29.570286 12503 net.cpp:91] Creating Layer inception_4b/relu_3x3_reduce
I0706 23:51:29.570293 12503 net.cpp:425] inception_4b/relu_3x3_reduce <- inception_4b/3x3_reduce
I0706 23:51:29.570302 12503 net.cpp:386] inception_4b/relu_3x3_reduce -> inception_4b/3x3_reduce (in-place)
I0706 23:51:29.570307 12507 net.cpp:141] Setting up inception_4b/relu_5x5
I0706 23:51:29.570320 12507 net.cpp:148] Top shape: 10 64 14 14 (125440)
I0706 23:51:29.570324 12507 net.cpp:156] Memory required for data: 398773760
I0706 23:51:29.570329 12507 layer_factory.hpp:77] Creating layer inception_4b/pool
I0706 23:51:29.570341 12507 net.cpp:91] Creating Layer inception_4b/pool
I0706 23:51:29.570348 12507 net.cpp:425] inception_4b/pool <- inception_4a/output_inception_4a/output_0_split_3
I0706 23:51:29.570354 12507 net.cpp:399] inception_4b/pool -> inception_4b/pool
I0706 23:51:29.570547 12507 net.cpp:141] Setting up inception_4b/pool
I0706 23:51:29.570559 12507 net.cpp:148] Top shape: 10 512 14 14 (1003520)
I0706 23:51:29.570562 12507 net.cpp:156] Memory required for data: 402787840
I0706 23:51:29.570567 12507 layer_factory.hpp:77] Creating layer inception_4b/pool_proj
I0706 23:51:29.570582 12507 net.cpp:91] Creating Layer inception_4b/pool_proj
I0706 23:51:29.570588 12507 net.cpp:425] inception_4b/pool_proj <- inception_4b/pool
I0706 23:51:29.570600 12507 net.cpp:399] inception_4b/pool_proj -> inception_4b/pool_proj
I0706 23:51:29.572018 12503 net.cpp:141] Setting up inception_4b/relu_3x3_reduce
I0706 23:51:29.572036 12503 net.cpp:148] Top shape: 10 112 14 14 (219520)
I0706 23:51:29.572042 12503 net.cpp:156] Memory required for data: 393881600
I0706 23:51:29.572047 12503 layer_factory.hpp:77] Creating layer inception_4b/3x3
I0706 23:51:29.572064 12503 net.cpp:91] Creating Layer inception_4b/3x3
I0706 23:51:29.572072 12503 net.cpp:425] inception_4b/3x3 <- inception_4b/3x3_reduce
I0706 23:51:29.572083 12503 net.cpp:399] inception_4b/3x3 -> inception_4b/3x3
I0706 23:51:29.575366 12507 net.cpp:141] Setting up inception_4b/pool_proj
I0706 23:51:29.575387 12507 net.cpp:148] Top shape: 10 64 14 14 (125440)
I0706 23:51:29.575392 12507 net.cpp:156] Memory required for data: 403289600
I0706 23:51:29.575400 12507 layer_factory.hpp:77] Creating layer inception_4b/relu_pool_proj
I0706 23:51:29.575409 12507 net.cpp:91] Creating Layer inception_4b/relu_pool_proj
I0706 23:51:29.575415 12507 net.cpp:425] inception_4b/relu_pool_proj <- inception_4b/pool_proj
I0706 23:51:29.575423 12507 net.cpp:386] inception_4b/relu_pool_proj -> inception_4b/pool_proj (in-place)
I0706 23:51:29.575673 12507 net.cpp:141] Setting up inception_4b/relu_pool_proj
I0706 23:51:29.575685 12507 net.cpp:148] Top shape: 10 64 14 14 (125440)
I0706 23:51:29.575690 12507 net.cpp:156] Memory required for data: 403791360
I0706 23:51:29.575695 12507 layer_factory.hpp:77] Creating layer inception_4b/output
I0706 23:51:29.575702 12507 net.cpp:91] Creating Layer inception_4b/output
I0706 23:51:29.575708 12507 net.cpp:425] inception_4b/output <- inception_4b/1x1
I0706 23:51:29.575714 12507 net.cpp:425] inception_4b/output <- inception_4b/3x3
I0706 23:51:29.575719 12507 net.cpp:425] inception_4b/output <- inception_4b/5x5
I0706 23:51:29.575726 12507 net.cpp:425] inception_4b/output <- inception_4b/pool_proj
I0706 23:51:29.575734 12507 net.cpp:399] inception_4b/output -> inception_4b/output
I0706 23:51:29.575783 12507 net.cpp:141] Setting up inception_4b/output
I0706 23:51:29.575791 12507 net.cpp:148] Top shape: 10 512 14 14 (1003520)
I0706 23:51:29.575796 12507 net.cpp:156] Memory required for data: 407805440
I0706 23:51:29.575800 12507 layer_factory.hpp:77] Creating layer inception_4b/output_inception_4b/output_0_split
I0706 23:51:29.575814 12507 net.cpp:91] Creating Layer inception_4b/output_inception_4b/output_0_split
I0706 23:51:29.575819 12507 net.cpp:425] inception_4b/output_inception_4b/output_0_split <- inception_4b/output
I0706 23:51:29.575826 12507 net.cpp:399] inception_4b/output_inception_4b/output_0_split -> inception_4b/output_inception_4b/output_0_split_0
I0706 23:51:29.575836 12507 net.cpp:399] inception_4b/output_inception_4b/output_0_split -> inception_4b/output_inception_4b/output_0_split_1
I0706 23:51:29.575845 12507 net.cpp:399] inception_4b/output_inception_4b/output_0_split -> inception_4b/output_inception_4b/output_0_split_2
I0706 23:51:29.575853 12507 net.cpp:399] inception_4b/output_inception_4b/output_0_split -> inception_4b/output_inception_4b/output_0_split_3
I0706 23:51:29.576649 12507 net.cpp:141] Setting up inception_4b/output_inception_4b/output_0_split
I0706 23:51:29.576663 12507 net.cpp:148] Top shape: 10 512 14 14 (1003520)
I0706 23:51:29.576668 12507 net.cpp:148] Top shape: 10 512 14 14 (1003520)
I0706 23:51:29.576674 12507 net.cpp:148] Top shape: 10 512 14 14 (1003520)
I0706 23:51:29.576679 12507 net.cpp:148] Top shape: 10 512 14 14 (1003520)
I0706 23:51:29.576683 12507 net.cpp:156] Memory required for data: 423861760
I0706 23:51:29.576689 12507 layer_factory.hpp:77] Creating layer inception_4c/1x1
I0706 23:51:29.576701 12507 net.cpp:91] Creating Layer inception_4c/1x1
I0706 23:51:29.576707 12507 net.cpp:425] inception_4c/1x1 <- inception_4b/output_inception_4b/output_0_split_0
I0706 23:51:29.576719 12507 net.cpp:399] inception_4c/1x1 -> inception_4c/1x1
I0706 23:51:29.578308 12503 net.cpp:141] Setting up inception_4b/3x3
I0706 23:51:29.578327 12503 net.cpp:148] Top shape: 10 224 14 14 (439040)
I0706 23:51:29.578333 12503 net.cpp:156] Memory required for data: 395637760
I0706 23:51:29.578342 12503 layer_factory.hpp:77] Creating layer inception_4b/relu_3x3
I0706 23:51:29.578351 12503 net.cpp:91] Creating Layer inception_4b/relu_3x3
I0706 23:51:29.578357 12503 net.cpp:425] inception_4b/relu_3x3 <- inception_4b/3x3
I0706 23:51:29.578368 12503 net.cpp:386] inception_4b/relu_3x3 -> inception_4b/3x3 (in-place)
I0706 23:51:29.580137 12503 net.cpp:141] Setting up inception_4b/relu_3x3
I0706 23:51:29.580155 12503 net.cpp:148] Top shape: 10 224 14 14 (439040)
I0706 23:51:29.580160 12503 net.cpp:156] Memory required for data: 397393920
I0706 23:51:29.580166 12503 layer_factory.hpp:77] Creating layer inception_4b/5x5_reduce
I0706 23:51:29.580199 12503 net.cpp:91] Creating Layer inception_4b/5x5_reduce
I0706 23:51:29.580206 12503 net.cpp:425] inception_4b/5x5_reduce <- inception_4a/output_inception_4a/output_0_split_2
I0706 23:51:29.580215 12503 net.cpp:399] inception_4b/5x5_reduce -> inception_4b/5x5_reduce
I0706 23:51:29.581907 12507 net.cpp:141] Setting up inception_4c/1x1
I0706 23:51:29.581924 12507 net.cpp:148] Top shape: 10 128 14 14 (250880)
I0706 23:51:29.581929 12507 net.cpp:156] Memory required for data: 424865280
I0706 23:51:29.581938 12507 layer_factory.hpp:77] Creating layer inception_4c/relu_1x1
I0706 23:51:29.581948 12507 net.cpp:91] Creating Layer inception_4c/relu_1x1
I0706 23:51:29.581954 12507 net.cpp:425] inception_4c/relu_1x1 <- inception_4c/1x1
I0706 23:51:29.581961 12507 net.cpp:386] inception_4c/relu_1x1 -> inception_4c/1x1 (in-place)
I0706 23:51:29.583021 12507 net.cpp:141] Setting up inception_4c/relu_1x1
I0706 23:51:29.583036 12507 net.cpp:148] Top shape: 10 128 14 14 (250880)
I0706 23:51:29.583041 12507 net.cpp:156] Memory required for data: 425868800
I0706 23:51:29.583046 12507 layer_factory.hpp:77] Creating layer inception_4c/3x3_reduce
I0706 23:51:29.583060 12507 net.cpp:91] Creating Layer inception_4c/3x3_reduce
I0706 23:51:29.583066 12507 net.cpp:425] inception_4c/3x3_reduce <- inception_4b/output_inception_4b/output_0_split_1
I0706 23:51:29.583078 12507 net.cpp:399] inception_4c/3x3_reduce -> inception_4c/3x3_reduce
I0706 23:51:29.584341 12503 net.cpp:141] Setting up inception_4b/5x5_reduce
I0706 23:51:29.584359 12503 net.cpp:148] Top shape: 10 24 14 14 (47040)
I0706 23:51:29.584364 12503 net.cpp:156] Memory required for data: 397582080
I0706 23:51:29.584374 12503 layer_factory.hpp:77] Creating layer inception_4b/relu_5x5_reduce
I0706 23:51:29.584388 12503 net.cpp:91] Creating Layer inception_4b/relu_5x5_reduce
I0706 23:51:29.584394 12503 net.cpp:425] inception_4b/relu_5x5_reduce <- inception_4b/5x5_reduce
I0706 23:51:29.584403 12503 net.cpp:386] inception_4b/relu_5x5_reduce -> inception_4b/5x5_reduce (in-place)
I0706 23:51:29.585413 12503 net.cpp:141] Setting up inception_4b/relu_5x5_reduce
I0706 23:51:29.585427 12503 net.cpp:148] Top shape: 10 24 14 14 (47040)
I0706 23:51:29.585433 12503 net.cpp:156] Memory required for data: 397770240
I0706 23:51:29.585438 12503 layer_factory.hpp:77] Creating layer inception_4b/5x5
I0706 23:51:29.585454 12503 net.cpp:91] Creating Layer inception_4b/5x5
I0706 23:51:29.585460 12503 net.cpp:425] inception_4b/5x5 <- inception_4b/5x5_reduce
I0706 23:51:29.585469 12503 net.cpp:399] inception_4b/5x5 -> inception_4b/5x5
I0706 23:51:29.588287 12507 net.cpp:141] Setting up inception_4c/3x3_reduce
I0706 23:51:29.588304 12507 net.cpp:148] Top shape: 10 128 14 14 (250880)
I0706 23:51:29.588310 12507 net.cpp:156] Memory required for data: 426872320
I0706 23:51:29.588320 12507 layer_factory.hpp:77] Creating layer inception_4c/relu_3x3_reduce
I0706 23:51:29.588328 12507 net.cpp:91] Creating Layer inception_4c/relu_3x3_reduce
I0706 23:51:29.588335 12507 net.cpp:425] inception_4c/relu_3x3_reduce <- inception_4c/3x3_reduce
I0706 23:51:29.588346 12507 net.cpp:386] inception_4c/relu_3x3_reduce -> inception_4c/3x3_reduce (in-place)
I0706 23:51:29.589799 12507 net.cpp:141] Setting up inception_4c/relu_3x3_reduce
I0706 23:51:29.589813 12507 net.cpp:148] Top shape: 10 128 14 14 (250880)
I0706 23:51:29.589818 12507 net.cpp:156] Memory required for data: 427875840
I0706 23:51:29.589823 12507 layer_factory.hpp:77] Creating layer inception_4c/3x3
I0706 23:51:29.589838 12507 net.cpp:91] Creating Layer inception_4c/3x3
I0706 23:51:29.589843 12507 net.cpp:425] inception_4c/3x3 <- inception_4c/3x3_reduce
I0706 23:51:29.589855 12507 net.cpp:399] inception_4c/3x3 -> inception_4c/3x3
I0706 23:51:29.591918 12503 net.cpp:141] Setting up inception_4b/5x5
I0706 23:51:29.591939 12503 net.cpp:148] Top shape: 10 64 14 14 (125440)
I0706 23:51:29.591944 12503 net.cpp:156] Memory required for data: 398272000
I0706 23:51:29.591954 12503 layer_factory.hpp:77] Creating layer inception_4b/relu_5x5
I0706 23:51:29.591963 12503 net.cpp:91] Creating Layer inception_4b/relu_5x5
…
I0706 23:51:29.706353 12503 net.cpp:141] Setting up inception_4e/3x3
I0706 23:51:29.706359 12507 net.cpp:148] Top shape: 10 128 14 14 (250880)
I0706 23:51:29.706370 12507 net.cpp:156] Memory required for data: 513300480
I0706 23:51:29.706372 12503 net.cpp:148] Top shape: 10 320 14 14 (627200)
I0706 23:51:29.706379 12503 net.cpp:156] Memory required for data: 503139840
I0706 23:51:29.706380 12507 layer_factory.hpp:77] Creating layer inception_4e/relu_pool_proj
I0706 23:51:29.706389 12503 layer_factory.hpp:77] Creating layer inception_4e/relu_3x3
I0706 23:51:29.706393 12507 net.cpp:91] Creating Layer inception_4e/relu_pool_proj
I0706 23:51:29.706398 12503 net.cpp:91] Creating Layer inception_4e/relu_3x3
I0706 23:51:29.706400 12507 net.cpp:425] inception_4e/relu_pool_proj <- inception_4e/pool_proj
I0706 23:51:29.706405 12503 net.cpp:425] inception_4e/relu_3x3 <- inception_4e/3x3
I0706 23:51:29.706410 12507 net.cpp:386] inception_4e/relu_pool_proj -> inception_4e/pool_proj (in-place)
I0706 23:51:29.706413 12503 net.cpp:386] inception_4e/relu_3x3 -> inception_4e/3x3 (in-place)
I0706 23:51:29.707536 12507 net.cpp:141] Setting up inception_4e/relu_pool_proj
I0706 23:51:29.707551 12507 net.cpp:148] Top shape: 10 128 14 14 (250880)
I0706 23:51:29.707556 12507 net.cpp:156] Memory required for data: 514304000
I0706 23:51:29.707561 12507 layer_factory.hpp:77] Creating layer inception_4e/output
I0706 23:51:29.707561 12503 net.cpp:141] Setting up inception_4e/relu_3x3
I0706 23:51:29.707576 12507 net.cpp:91] Creating Layer inception_4e/output
I0706 23:51:29.707576 12503 net.cpp:148] Top shape: 10 320 14 14 (627200)
I0706 23:51:29.707582 12503 net.cpp:156] Memory required for data: 505648640
I0706 23:51:29.707582 12507 net.cpp:425] inception_4e/output <- inception_4e/1x1
I0706 23:51:29.707589 12503 layer_factory.hpp:77] Creating layer inception_4e/5x5_reduce
I0706 23:51:29.707590 12507 net.cpp:425] inception_4e/output <- inception_4e/3x3
I0706 23:51:29.707597 12507 net.cpp:425] inception_4e/output <- inception_4e/5x5
I0706 23:51:29.707602 12507 net.cpp:425] inception_4e/output <- inception_4e/pool_proj
I0706 23:51:29.707607 12503 net.cpp:91] Creating Layer inception_4e/5x5_reduce
I0706 23:51:29.707608 12507 net.cpp:399] inception_4e/output -> inception_4e/output
I0706 23:51:29.707612 12503 net.cpp:425] inception_4e/5x5_reduce <- inception_4d/output_inception_4d/output_0_split_2
I0706 23:51:29.707622 12503 net.cpp:399] inception_4e/5x5_reduce -> inception_4e/5x5_reduce
I0706 23:51:29.707674 12507 net.cpp:141] Setting up inception_4e/output
I0706 23:51:29.707684 12507 net.cpp:148] Top shape: 10 832 14 14 (1630720)
I0706 23:51:29.707689 12507 net.cpp:156] Memory required for data: 520826880
I0706 23:51:29.707692 12507 layer_factory.hpp:77] Creating layer pool4/3x3_s2
I0706 23:51:29.707700 12507 net.cpp:91] Creating Layer pool4/3x3_s2
I0706 23:51:29.707706 12507 net.cpp:425] pool4/3x3_s2 <- inception_4e/output
I0706 23:51:29.707717 12507 net.cpp:399] pool4/3x3_s2 -> pool4/3x3_s2
I0706 23:51:29.707921 12507 net.cpp:141] Setting up pool4/3x3_s2
I0706 23:51:29.707931 12507 net.cpp:148] Top shape: 10 832 7 7 (407680)
I0706 23:51:29.707936 12507 net.cpp:156] Memory required for data: 522457600
I0706 23:51:29.707940 12507 layer_factory.hpp:77] Creating layer pool4/3x3_s2_pool4/3x3_s2_0_split
I0706 23:51:29.707953 12507 net.cpp:91] Creating Layer pool4/3x3_s2_pool4/3x3_s2_0_split
I0706 23:51:29.707959 12507 net.cpp:425] pool4/3x3_s2_pool4/3x3_s2_0_split <- pool4/3x3_s2
I0706 23:51:29.707967 12507 net.cpp:399] pool4/3x3_s2_pool4/3x3_s2_0_split -> pool4/3x3_s2_pool4/3x3_s2_0_split_0
I0706 23:51:29.707978 12507 net.cpp:399] pool4/3x3_s2_pool4/3x3_s2_0_split -> pool4/3x3_s2_pool4/3x3_s2_0_split_1
I0706 23:51:29.707985 12507 net.cpp:399] pool4/3x3_s2_pool4/3x3_s2_0_split -> pool4/3x3_s2_pool4/3x3_s2_0_split_2
I0706 23:51:29.707993 12507 net.cpp:399] pool4/3x3_s2_pool4/3x3_s2_0_split -> pool4/3x3_s2_pool4/3x3_s2_0_split_3
I0706 23:51:29.708274 12507 net.cpp:141] Setting up pool4/3x3_s2_pool4/3x3_s2_0_split
I0706 23:51:29.708286 12507 net.cpp:148] Top shape: 10 832 7 7 (407680)
I0706 23:51:29.708292 12507 net.cpp:148] Top shape: 10 832 7 7 (407680)
I0706 23:51:29.708297 12507 net.cpp:148] Top shape: 10 832 7 7 (407680)
I0706 23:51:29.708302 12507 net.cpp:148] Top shape: 10 832 7 7 (407680)
I0706 23:51:29.708307 12507 net.cpp:156] Memory required for data: 528980480
I0706 23:51:29.708310 12507 layer_factory.hpp:77] Creating layer inception_5a/1x1
I0706 23:51:29.708323 12507 net.cpp:91] Creating Layer inception_5a/1x1
I0706 23:51:29.708329 12507 net.cpp:425] inception_5a/1x1 <- pool4/3x3_s2_pool4/3x3_s2_0_split_0
I0706 23:51:29.708341 12507 net.cpp:399] inception_5a/1x1 -> inception_5a/1x1
I0706 23:51:29.712333 12503 net.cpp:141] Setting up inception_4e/5x5_reduce
I0706 23:51:29.712352 12503 net.cpp:148] Top shape: 10 32 14 14 (62720)
I0706 23:51:29.712357 12503 net.cpp:156] Memory required for data: 505899520
I0706 23:51:29.712365 12503 layer_factory.hpp:77] Creating layer inception_4e/relu_5x5_reduce
I0706 23:51:29.712373 12503 net.cpp:91] Creating Layer inception_4e/relu_5x5_reduce
I0706 23:51:29.712380 12503 net.cpp:425] inception_4e/relu_5x5_reduce <- inception_4e/5x5_reduce
I0706 23:51:29.712391 12503 net.cpp:386] inception_4e/relu_5x5_reduce -> inception_4e/5x5_reduce (in-place)
I0706 23:51:29.714169 12503 net.cpp:141] Setting up inception_4e/relu_5x5_reduce
I0706 23:51:29.714182 12503 net.cpp:148] Top shape: 10 32 14 14 (62720)
I0706 23:51:29.714187 12503 net.cpp:156] Memory required for data: 506150400
I0706 23:51:29.714192 12503 layer_factory.hpp:77] Creating layer inception_4e/5x5
I0706 23:51:29.714207 12503 net.cpp:91] Creating Layer inception_4e/5x5
I0706 23:51:29.714215 12503 net.cpp:425] inception_4e/5x5 <- inception_4e/5x5_reduce
I0706 23:51:29.714222 12503 net.cpp:399] inception_4e/5x5 -> inception_4e/5x5
I0706 23:51:29.715917 12507 net.cpp:141] Setting up inception_5a/1x1
I0706 23:51:29.715935 12507 net.cpp:148] Top shape: 10 256 7 7 (125440)
I0706 23:51:29.715940 12507 net.cpp:156] Memory required for data: 529482240
I0706 23:51:29.715950 12507 layer_factory.hpp:77] Creating layer inception_5a/relu_1x1
I0706 23:51:29.715962 12507 net.cpp:91] Creating Layer inception_5a/relu_1x1
I0706 23:51:29.715970 12507 net.cpp:425] inception_5a/relu_1x1 <- inception_5a/1x1
I0706 23:51:29.715978 12507 net.cpp:386] inception_5a/relu_1x1 -> inception_5a/1x1 (in-place)
I0706 23:51:29.716276 12507 net.cpp:141] Setting up inception_5a/relu_1x1
I0706 23:51:29.716289 12507 net.cpp:148] Top shape: 10 256 7 7 (125440)
I0706 23:51:29.716292 12507 net.cpp:156] Memory required for data: 529984000
I0706 23:51:29.716297 12507 layer_factory.hpp:77] Creating layer inception_5a/3x3_reduce
I0706 23:51:29.716312 12507 net.cpp:91] Creating Layer inception_5a/3x3_reduce
I0706 23:51:29.716318 12507 net.cpp:425] inception_5a/3x3_reduce <- pool4/3x3_s2_pool4/3x3_s2_0_split_1
I0706 23:51:29.716330 12507 net.cpp:399] inception_5a/3x3_reduce -> inception_5a/3x3_reduce
I0706 23:51:29.722092 12507 net.cpp:141] Setting up inception_5a/3x3_reduce
I0706 23:51:29.722111 12507 net.cpp:148] Top shape: 10 160 7 7 (78400)
I0706 23:51:29.722116 12507 net.cpp:156] Memory required for data: 530297600
I0706 23:51:29.722126 12507 layer_factory.hpp:77] Creating layer inception_5a/relu_3x3_reduce
I0706 23:51:29.722134 12507 net.cpp:91] Creating Layer inception_5a/relu_3x3_reduce
I0706 23:51:29.722143 12507 net.cpp:425] inception_5a/relu_3x3_reduce <- inception_5a/3x3_reduce
I0706 23:51:29.722151 12507 net.cpp:386] inception_5a/relu_3x3_reduce -> inception_5a/3x3_reduce (in-place)
I0706 23:51:29.723582 12503 net.cpp:141] Setting up inception_4e/5x5
I0706 23:51:29.723609 12503 net.cpp:148] Top shape: 10 128 14 14 (250880)
I0706 23:51:29.723619 12503 net.cpp:156] Memory required for data: 507153920
I0706 23:51:29.723637 12503 layer_factory.hpp:77] Creating layer inception_4e/relu_5x5
I0706 23:51:29.723657 12503 net.cpp:91] Creating Layer inception_4e/relu_5x5
I0706 23:51:29.723670 12503 net.cpp:425] inception_4e/relu_5x5 <- inception_4e/5x5
I0706 23:51:29.723685 12503 net.cpp:386] inception_4e/relu_5x5 -> inception_4e/5x5 (in-place)
I0706 23:51:29.724107 12507 net.cpp:141] Setting up inception_5a/relu_3x3_reduce
I0706 23:51:29.724133 12507 net.cpp:148] Top shape: 10 160 7 7 (78400)
I0706 23:51:29.724143 12507 net.cpp:156] Memory required for data: 530611200
I0706 23:51:29.724153 12507 layer_factory.hpp:77] Creating layer inception_5a/3x3
I0706 23:51:29.724179 12507 net.cpp:91] Creating Layer inception_5a/3x3
I0706 23:51:29.724191 12507 net.cpp:425] inception_5a/3x3 <- inception_5a/3x3_reduce
I0706 23:51:29.724208 12503 net.cpp:141] Setting up inception_4e/relu_5x5
I0706 23:51:29.724213 12507 net.cpp:399] inception_5a/3x3 -> inception_5a/3x3
I0706 23:51:29.724233 12503 net.cpp:148] Top shape: 10 128 14 14 (250880)
I0706 23:51:29.724242 12503 net.cpp:156] Memory required for data: 508157440
I0706 23:51:29.724251 12503 layer_factory.hpp:77] Creating layer inception_4e/pool
I0706 23:51:29.724270 12503 net.cpp:91] Creating Layer inception_4e/pool
I0706 23:51:29.724282 12503 net.cpp:425] inception_4e/pool <- inception_4d/output_inception_4d/output_0_split_3
I0706 23:51:29.724294 12503 net.cpp:399] inception_4e/pool -> inception_4e/pool
I0706 23:51:29.724519 12503 net.cpp:141] Setting up inception_4e/pool
I0706 23:51:29.724535 12503 net.cpp:148] Top shape: 10 528 14 14 (1034880)
I0706 23:51:29.724544 12503 net.cpp:156] Memory required for data: 512296960
I0706 23:51:29.724551 12503 layer_factory.hpp:77] Creating layer inception_4e/pool_proj
I0706 23:51:29.724572 12503 net.cpp:91] Creating Layer inception_4e/pool_proj
I0706 23:51:29.724582 12503 net.cpp:425] inception_4e/pool_proj <- inception_4e/pool
I0706 23:51:29.724597 12503 net.cpp:399] inception_4e/pool_proj -> inception_4e/pool_proj
I0706 23:51:29.731930 12503 net.cpp:141] Setting up inception_4e/pool_proj
I0706 23:51:29.731971 12503 net.cpp:148] Top shape: 10 128 14 14 (250880)
I0706 23:51:29.731981 12503 net.cpp:156] Memory required for data: 513300480
I0706 23:51:29.731999 12503 layer_factory.hpp:77] Creating layer inception_4e/relu_pool_proj
I0706 23:51:29.732017 12503 net.cpp:91] Creating Layer inception_4e/relu_pool_proj
I0706 23:51:29.732033 12503 net.cpp:425] inception_4e/relu_pool_proj <- inception_4e/pool_proj
I0706 23:51:29.732046 12503 net.cpp:386] inception_4e/relu_pool_proj -> inception_4e/pool_proj (in-place)
I0706 23:51:29.732475 12503 net.cpp:141] Setting up inception_4e/relu_pool_proj
I0706 23:51:29.732497 12503 net.cpp:148] Top shape: 10 128 14 14 (250880)
I0706 23:51:29.732504 12503 net.cpp:156] Memory required for data: 514304000
I0706 23:51:29.732511 12503 layer_factory.hpp:77] Creating layer inception_4e/output
I0706 23:51:29.732528 12503 net.cpp:91] Creating Layer inception_4e/output
I0706 23:51:29.732539 12503 net.cpp:425] inception_4e/output <- inception_4e/1x1
I0706 23:51:29.732549 12503 net.cpp:425] inception_4e/output <- inception_4e/3x3
I0706 23:51:29.732556 12503 net.cpp:425] inception_4e/output <- inception_4e/5x5
I0706 23:51:29.732561 12503 net.cpp:425] inception_4e/output <- inception_4e/pool_proj
I0706 23:51:29.732569 12503 net.cpp:399] inception_4e/output -> inception_4e/output
I0706 23:51:29.732704 12503 net.cpp:141] Setting up inception_4e/output
I0706 23:51:29.732715 12503 net.cpp:148] Top shape: 10 832 14 14 (1630720)
I0706 23:51:29.732720 12503 net.cpp:156] Memory required for data: 520826880
I0706 23:51:29.732725 12503 layer_factory.hpp:77] Creating layer pool4/3x3_s2
I0706 23:51:29.732733 12503 net.cpp:91] Creating Layer pool4/3x3_s2
I0706 23:51:29.732739 12503 net.cpp:425] pool4/3x3_s2 <- inception_4e/output
I0706 23:51:29.732750 12503 net.cpp:399] pool4/3x3_s2 -> pool4/3x3_s2
I0706 23:51:29.732856 12503 net.cpp:141] Setting up pool4/3x3_s2
I0706 23:51:29.732867 12503 net.cpp:148] Top shape: 10 832 7 7 (407680)
I0706 23:51:29.732872 12503 net.cpp:156] Memory required for data: 522457600
I0706 23:51:29.732875 12503 layer_factory.hpp:77] Creating layer pool4/3x3_s2_pool4/3x3_s2_0_split
I0706 23:51:29.732888 12503 net.cpp:91] Creating Layer pool4/3x3_s2_pool4/3x3_s2_0_split
I0706 23:51:29.732893 12503 net.cpp:425] pool4/3x3_s2_pool4/3x3_s2_0_split <- pool4/3x3_s2
I0706 23:51:29.732903 12503 net.cpp:399] pool4/3x3_s2_pool4/3x3_s2_0_split -> pool4/3x3_s2_pool4/3x3_s2_0_split_0
I0706 23:51:29.732911 12503 net.cpp:399] pool4/3x3_s2_pool4/3x3_s2_0_split -> pool4/3x3_s2_pool4/3x3_s2_0_split_1
I0706 23:51:29.732920 12503 net.cpp:399] pool4/3x3_s2_pool4/3x3_s2_0_split -> pool4/3x3_s2_pool4/3x3_s2_0_split_2
I0706 23:51:29.732928 12503 net.cpp:399] pool4/3x3_s2_pool4/3x3_s2_0_split -> pool4/3x3_s2_pool4/3x3_s2_0_split_3
I0706 23:51:29.733814 12503 net.cpp:141] Setting up pool4/3x3_s2_pool4/3x3_s2_0_split
I0706 23:51:29.733829 12503 net.cpp:148] Top shape: 10 832 7 7 (407680)
I0706 23:51:29.733835 12503 net.cpp:148] Top shape: 10 832 7 7 (407680)
I0706 23:51:29.733841 12503 net.cpp:148] Top shape: 10 832 7 7 (407680)
I0706 23:51:29.733846 12503 net.cpp:148] Top shape: 10 832 7 7 (407680)
I0706 23:51:29.733851 12503 net.cpp:156] Memory required for data: 528980480
I0706 23:51:29.733855 12503 layer_factory.hpp:77] Creating layer inception_5a/1x1
I0706 23:51:29.733870 12503 net.cpp:91] Creating Layer inception_5a/1x1
I0706 23:51:29.733875 12503 net.cpp:425] inception_5a/1x1 <- pool4/3x3_s2_pool4/3x3_s2_0_split_0
I0706 23:51:29.733886 12503 net.cpp:399] inception_5a/1x1 -> inception_5a/1x1
I0706 23:51:29.740226 12507 net.cpp:141] Setting up inception_5a/3x3
I0706 23:51:29.740252 12507 net.cpp:148] Top shape: 10 320 7 7 (156800)
I0706 23:51:29.740257 12507 net.cpp:156] Memory required for data: 531238400
I0706 23:51:29.740272 12507 layer_factory.hpp:77] Creating layer inception_5a/relu_3x3
I0706 23:51:29.740283 12507 net.cpp:91] Creating Layer inception_5a/relu_3x3
I0706 23:51:29.740290 12507 net.cpp:425] inception_5a/relu_3x3 <- inception_5a/3x3
I0706 23:51:29.740298 12507 net.cpp:386] inception_5a/relu_3x3 -> inception_5a/3x3 (in-place)
I0706 23:51:29.741322 12503 net.cpp:141] Setting up inception_5a/1x1
I0706 23:51:29.741340 12503 net.cpp:148] Top shape: 10 256 7 7 (125440)
I0706 23:51:29.741345 12503 net.cpp:156] Memory required for data: 529482240
I0706 23:51:29.741354 12503 layer_factory.hpp:77] Creating layer inception_5a/relu_1x1
I0706 23:51:29.741365 12503 net.cpp:91] Creating Layer inception_5a/relu_1x1
I0706 23:51:29.741371 12503 net.cpp:425] inception_5a/relu_1x1 <- inception_5a/1x1
I0706 23:51:29.741379 12503 net.cpp:386] inception_5a/relu_1x1 -> inception_5a/1x1 (in-place)
I0706 23:51:29.741401 12507 net.cpp:141] Setting up inception_5a/relu_3x3
I0706 23:51:29.741417 12507 net.cpp:148] Top shape: 10 320 7 7 (156800)
I0706 23:51:29.741422 12507 net.cpp:156] Memory required for data: 531865600
I0706 23:51:29.741427 12507 layer_factory.hpp:77] Creating layer inception_5a/5x5_reduce
I0706 23:51:29.741441 12507 net.cpp:91] Creating Layer inception_5a/5x5_reduce
I0706 23:51:29.741447 12507 net.cpp:425] inception_5a/5x5_reduce <- pool4/3x3_s2_pool4/3x3_s2_0_split_2
I0706 23:51:29.741461 12507 net.cpp:399] inception_5a/5x5_reduce -> inception_5a/5x5_reduce
I0706 23:51:29.742008 12503 net.cpp:141] Setting up inception_5a/relu_1x1
I0706 23:51:29.742025 12503 net.cpp:148] Top shape: 10 256 7 7 (125440)
I0706 23:51:29.742032 12503 net.cpp:156] Memory required for data: 529984000
I0706 23:51:29.742036 12503 layer_factory.hpp:77] Creating layer inception_5a/3x3_reduce
I0706 23:51:29.742053 12503 net.cpp:91] Creating Layer inception_5a/3x3_reduce
I0706 23:51:29.742059 12503 net.cpp:425] inception_5a/3x3_reduce <- pool4/3x3_s2_pool4/3x3_s2_0_split_1
I0706 23:51:29.742069 12503 net.cpp:399] inception_5a/3x3_reduce -> inception_5a/3x3_reduce
I0706 23:51:29.748432 12507 net.cpp:141] Setting up inception_5a/5x5_reduce
I0706 23:51:29.748450 12507 net.cpp:148] Top shape: 10 32 7 7 (15680)
I0706 23:51:29.748456 12507 net.cpp:156] Memory required for data: 531928320
I0706 23:51:29.748464 12507 layer_factory.hpp:77] Creating layer inception_5a/relu_5x5_reduce
I0706 23:51:29.748472 12507 net.cpp:91] Creating Layer inception_5a/relu_5x5_reduce
I0706 23:51:29.748478 12507 net.cpp:425] inception_5a/relu_5x5_reduce <- inception_5a/5x5_reduce
I0706 23:51:29.748489 12507 net.cpp:386] inception_5a/relu_5x5_reduce -> inception_5a/5x5_reduce (in-place)
I0706 23:51:29.748937 12503 net.cpp:141] Setting up inception_5a/3x3_reduce
I0706 23:51:29.748955 12503 net.cpp:148] Top shape: 10 160 7 7 (78400)
I0706 23:51:29.748960 12503 net.cpp:156] Memory required for data: 530297600
I0706 23:51:29.748970 12503 layer_factory.hpp:77] Creating layer inception_5a/relu_3x3_reduce
I0706 23:51:29.748980 12503 net.cpp:91] Creating Layer inception_5a/relu_3x3_reduce
I0706 23:51:29.748986 12503 net.cpp:425] inception_5a/relu_3x3_reduce <- inception_5a/3x3_reduce
I0706 23:51:29.748993 12503 net.cpp:386] inception_5a/relu_3x3_reduce -> inception_5a/3x3_reduce (in-place)
I0706 23:51:29.749006 12507 net.cpp:141] Setting up inception_5a/relu_5x5_reduce
I0706 23:51:29.749020 12507 net.cpp:148] Top shape: 10 32 7 7 (15680)
I0706 23:51:29.749024 12507 net.cpp:156] Memory required for data: 531991040
I0706 23:51:29.749029 12507 layer_factory.hpp:77] Creating layer inception_5a/5x5
I0706 23:51:29.749044 12507 net.cpp:91] Creating Layer inception_5a/5x5
I0706 23:51:29.749052 12507 net.cpp:425] inception_5a/5x5 <- inception_5a/5x5_reduce
I0706 23:51:29.749059 12507 net.cpp:399] inception_5a/5x5 -> inception_5a/5x5
I0706 23:51:29.750401 12503 net.cpp:141] Setting up inception_5a/relu_3x3_reduce
I0706 23:51:29.750427 12503 net.cpp:148] Top shape: 10 160 7 7 (78400)
I0706 23:51:29.750437 12503 net.cpp:156] Memory required for data: 530611200
I0706 23:51:29.750445 12503 layer_factory.hpp:77] Creating layer inception_5a/3x3
I0706 23:51:29.750468 12503 net.cpp:91] Creating Layer inception_5a/3x3
I0706 23:51:29.750479 12503 net.cpp:425] inception_5a/3x3 <- inception_5a/3x3_reduce
I0706 23:51:29.750495 12503 net.cpp:399] inception_5a/3x3 -> inception_5a/3x3
I0706 23:51:29.757294 12507 net.cpp:141] Setting up inception_5a/5x5
I0706 23:51:29.757341 12507 net.cpp:148] Top shape: 10 128 7 7 (62720)
I0706 23:51:29.757354 12507 net.cpp:156] Memory required for data: 532241920
I0706 23:51:29.757374 12507 layer_factory.hpp:77] Creating layer inception_5a/relu_5x5
I0706 23:51:29.757431 12507 net.cpp:91] Creating Layer inception_5a/relu_5x5
I0706 23:51:29.757446 12507 net.cpp:425] inception_5a/relu_5x5 <- inception_5a/5x5
I0706 23:51:29.757462 12507 net.cpp:386] inception_5a/relu_5x5 -> inception_5a/5x5 (in-place)
I0706 23:51:29.760310 12507 net.cpp:141] Setting up inception_5a/relu_5x5
I0706 23:51:29.760344 12507 net.cpp:148] Top shape: 10 128 7 7 (62720)
I0706 23:51:29.760352 12507 net.cpp:156] Memory required for data: 532492800
I0706 23:51:29.760365 12507 layer_factory.hpp:77] Creating layer inception_5a/pool
I0706 23:51:29.760385 12507 net.cpp:91] Creating Layer inception_5a/pool
I0706 23:51:29.760396 12507 net.cpp:425] inception_5a/pool <- pool4/3x3_s2_pool4/3x3_s2_0_split_3
I0706 23:51:29.760414 12507 net.cpp:399] inception_5a/pool -> inception_5a/pool
I0706 23:51:29.761332 12503 net.cpp:141] Setting up inception_5a/3x3
I0706 23:51:29.761351 12503 net.cpp:148] Top shape: 10 320 7 7 (156800)
I0706 23:51:29.761358 12503 net.cpp:156] Memory required for data: 531238400
I0706 23:51:29.761368 12503 layer_factory.hpp:77] Creating layer inception_5a/relu_3x3
I0706 23:51:29.761379 12503 net.cpp:91] Creating Layer inception_5a/relu_3x3
I0706 23:51:29.761387 12503 net.cpp:425] inception_5a/relu_3x3 <- inception_5a/3x3
I0706 23:51:29.761402 12503 net.cpp:386] inception_5a/relu_3x3 -> inception_5a/3x3 (in-place)
I0706 23:51:29.761407 12507 net.cpp:141] Setting up inception_5a/pool
I0706 23:51:29.761426 12507 net.cpp:148] Top shape: 10 832 7 7 (407680)
I0706 23:51:29.761435 12507 net.cpp:156] Memory required for data: 534123520
I0706 23:51:29.761443 12507 layer_factory.hpp:77] Creating layer inception_5a/pool_proj
I0706 23:51:29.761471 12507 net.cpp:91] Creating Layer inception_5a/pool_proj
I0706 23:51:29.761481 12507 net.cpp:425] inception_5a/pool_proj <- inception_5a/pool
I0706 23:51:29.761495 12507 net.cpp:399] inception_5a/pool_proj -> inception_5a/pool_proj
I0706 23:51:29.762203 12503 net.cpp:141] Setting up inception_5a/relu_3x3
I0706 23:51:29.762215 12503 net.cpp:148] Top shape: 10 320 7 7 (156800)
I0706 23:51:29.762220 12503 net.cpp:156] Memory required for data: 531865600
I0706 23:51:29.762225 12503 layer_factory.hpp:77] Creating layer inception_5a/5x5_reduce
I0706 23:51:29.762240 12503 net.cpp:91] Creating Layer inception_5a/5x5_reduce
I0706 23:51:29.762248 12503 net.cpp:425] inception_5a/5x5_reduce <- pool4/3x3_s2_pool4/3x3_s2_0_split_2
I0706 23:51:29.762260 12503 net.cpp:399] inception_5a/5x5_reduce -> inception_5a/5x5_reduce
I0706 23:51:29.769315 12503 net.cpp:141] Setting up inception_5a/5x5_reduce
I0706 23:51:29.769340 12503 net.cpp:148] Top shape: 10 32 7 7 (15680)
I0706 23:51:29.769346 12503 net.cpp:156] Memory required for data: 531928320
I0706 23:51:29.769356 12503 layer_factory.hpp:77] Creating layer inception_5a/relu_5x5_reduce
I0706 23:51:29.769366 12503 net.cpp:91] Creating Layer inception_5a/relu_5x5_reduce
I0706 23:51:29.769373 12503 net.cpp:425] inception_5a/relu_5x5_reduce <- inception_5a/5x5_reduce
I0706 23:51:29.769390 12503 net.cpp:386] inception_5a/relu_5x5_reduce -> inception_5a/5x5_reduce (in-place)
I0706 23:51:29.770509 12507 net.cpp:141] Setting up inception_5a/pool_proj
I0706 23:51:29.770522 12503 net.cpp:141] Setting up inception_5a/relu_5x5_reduce
I0706 23:51:29.770527 12507 net.cpp:148] Top shape: 10 128 7 7 (62720)
I0706 23:51:29.770534 12507 net.cpp:156] Memory required for data: 534374400
I0706 23:51:29.770536 12503 net.cpp:148] Top shape: 10 32 7 7 (15680)
I0706 23:51:29.770540 12503 net.cpp:156] Memory required for data: 531991040
I0706 23:51:29.770545 12507 layer_factory.hpp:77] Creating layer inception_5a/relu_pool_proj
I0706 23:51:29.770546 12503 layer_factory.hpp:77] Creating layer inception_5a/5x5
I0706 23:51:29.770561 12507 net.cpp:91] Creating Layer inception_5a/relu_pool_proj
I0706 23:51:29.770568 12507 net.cpp:425] inception_5a/relu_pool_proj <- inception_5a/pool_proj
I0706 23:51:29.770570 12503 net.cpp:91] Creating Layer inception_5a/5x5
I0706 23:51:29.770576 12507 net.cpp:386] inception_5a/relu_pool_proj -> inception_5a/pool_proj (in-place)
I0706 23:51:29.770577 12503 net.cpp:425] inception_5a/5x5 <- inception_5a/5x5_reduce
I0706 23:51:29.770593 12503 net.cpp:399] inception_5a/5x5 -> inception_5a/5x5
I0706 23:51:29.771287 12507 net.cpp:141] Setting up inception_5a/relu_pool_proj
I0706 23:51:29.771301 12507 net.cpp:148] Top shape: 10 128 7 7 (62720)
I0706 23:51:29.771306 12507 net.cpp:156] Memory required for data: 534625280
I0706 23:51:29.771311 12507 layer_factory.hpp:77] Creating layer inception_5a/output
I0706 23:51:29.771319 12507 net.cpp:91] Creating Layer inception_5a/output
I0706 23:51:29.771324 12507 net.cpp:425] inception_5a/output <- inception_5a/1x1
I0706 23:51:29.771332 12507 net.cpp:425] inception_5a/output <- inception_5a/3x3
I0706 23:51:29.771337 12507 net.cpp:425] inception_5a/output <- inception_5a/5x5
I0706 23:51:29.771342 12507 net.cpp:425] inception_5a/output <- inception_5a/pool_proj
I0706 23:51:29.771348 12507 net.cpp:399] inception_5a/output -> inception_5a/output
I0706 23:51:29.771412 12507 net.cpp:141] Setting up inception_5a/output
I0706 23:51:29.771422 12507 net.cpp:148] Top shape: 10 832 7 7 (407680)
I0706 23:51:29.771426 12507 net.cpp:156] Memory required for data: 536256000
I0706 23:51:29.771431 12507 layer_factory.hpp:77] Creating layer inception_5a/output_inception_5a/output_0_split
I0706 23:51:29.771442 12507 net.cpp:91] Creating Layer inception_5a/output_inception_5a/output_0_split
I0706 23:51:29.771448 12507 net.cpp:425] inception_5a/output_inception_5a/output_0_split <- inception_5a/output
I0706 23:51:29.771455 12507 net.cpp:399] inception_5a/output_inception_5a/output_0_split -> inception_5a/output_inception_5a/output_0_split_0
I0706 23:51:29.771464 12507 net.cpp:399] inception_5a/output_inception_5a/output_0_split -> inception_5a/output_inception_5a/output_0_split_1
I0706 23:51:29.771472 12507 net.cpp:399] inception_5a/output_inception_5a/output_0_split -> inception_5a/output_inception_5a/output_0_split_2
I0706 23:51:29.771481 12507 net.cpp:399] inception_5a/output_inception_5a/output_0_split -> inception_5a/output_inception_5a/output_0_split_3
I0706 23:51:29.771632 12507 net.cpp:141] Setting up inception_5a/output_inception_5a/output_0_split
I0706 23:51:29.771642 12507 net.cpp:148] Top shape: 10 832 7 7 (407680)
I0706 23:51:29.771648 12507 net.cpp:148] Top shape: 10 832 7 7 (407680)
I0706 23:51:29.771653 12507 net.cpp:148] Top shape: 10 832 7 7 (407680)
I0706 23:51:29.771658 12507 net.cpp:148] Top shape: 10 832 7 7 (407680)
I0706 23:51:29.771662 12507 net.cpp:156] Memory required for data: 542778880
I0706 23:51:29.771667 12507 layer_factory.hpp:77] Creating layer inception_5b/1x1
I0706 23:51:29.771682 12507 net.cpp:91] Creating Layer inception_5b/1x1
I0706 23:51:29.771688 12507 net.cpp:425] inception_5b/1x1 <- inception_5a/output_inception_5a/output_0_split_0
I0706 23:51:29.771698 12507 net.cpp:399] inception_5b/1x1 -> inception_5b/1x1
I0706 23:51:29.775406 12503 net.cpp:141] Setting up inception_5a/5x5
I0706 23:51:29.775427 12503 net.cpp:148] Top shape: 10 128 7 7 (62720)
I0706 23:51:29.775432 12503 net.cpp:156] Memory required for data: 532241920
I0706 23:51:29.775441 12503 layer_factory.hpp:77] Creating layer inception_5a/relu_5x5
I0706 23:51:29.775473 12503 net.cpp:91] Creating Layer inception_5a/relu_5x5
I0706 23:51:29.775481 12503 net.cpp:425] inception_5a/relu_5x5 <- inception_5a/5x5
I0706 23:51:29.775490 12503 net.cpp:386] inception_5a/relu_5x5 -> inception_5a/5x5 (in-place)
I0706 23:51:29.776715 12503 net.cpp:141] Setting up inception_5a/relu_5x5
I0706 23:51:29.776729 12503 net.cpp:148] Top shape: 10 128 7 7 (62720)
I0706 23:51:29.776733 12503 net.cpp:156] Memory required for data: 532492800
I0706 23:51:29.776739 12503 layer_factory.hpp:77] Creating layer inception_5a/pool
I0706 23:51:29.776752 12503 net.cpp:91] Creating Layer inception_5a/pool
I0706 23:51:29.776758 12503 net.cpp:425] inception_5a/pool <- pool4/3x3_s2_pool4/3x3_s2_0_split_3
I0706 23:51:29.776767 12503 net.cpp:399] inception_5a/pool -> inception_5a/pool
I0706 23:51:29.777519 12503 net.cpp:141] Setting up inception_5a/pool
I0706 23:51:29.777531 12503 net.cpp:148] Top shape: 10 832 7 7 (407680)
I0706 23:51:29.777536 12503 net.cpp:156] Memory required for data: 534123520
I0706 23:51:29.777541 12503 layer_factory.hpp:77] Creating layer inception_5a/pool_proj
I0706 23:51:29.777556 12503 net.cpp:91] Creating Layer inception_5a/pool_proj
I0706 23:51:29.777562 12503 net.cpp:425] inception_5a/pool_proj <- inception_5a/pool
I0706 23:51:29.777573 12503 net.cpp:399] inception_5a/pool_proj -> inception_5a/pool_proj
I0706 23:51:29.779649 12507 net.cpp:141] Setting up inception_5b/1x1
I0706 23:51:29.779667 12507 net.cpp:148] Top shape: 10 384 7 7 (188160)
I0706 23:51:29.779672 12507 net.cpp:156] Memory required for data: 543531520
I0706 23:51:29.779681 12507 layer_factory.hpp:77] Creating layer inception_5b/relu_1x1
I0706 23:51:29.779690 12507 net.cpp:91] Creating Layer inception_5b/relu_1x1
I0706 23:51:29.779696 12507 net.cpp:425] inception_5b/relu_1x1 <- inception_5b/1x1
I0706 23:51:29.779707 12507 net.cpp:386] inception_5b/relu_1x1 -> inception_5b/1x1 (in-place)
I0706 23:51:29.780855 12507 net.cpp:141] Setting up inception_5b/relu_1x1
I0706 23:51:29.780871 12507 net.cpp:148] Top shape: 10 384 7 7 (188160)
I0706 23:51:29.780875 12507 net.cpp:156] Memory required for data: 544284160
I0706 23:51:29.780880 12507 layer_factory.hpp:77] Creating layer inception_5b/3x3_reduce
I0706 23:51:29.780900 12507 net.cpp:91] Creating Layer inception_5b/3x3_reduce
I0706 23:51:29.780906 12507 net.cpp:425] inception_5b/3x3_reduce <- inception_5a/output_inception_5a/output_0_split_1
I0706 23:51:29.780915 12507 net.cpp:399] inception_5b/3x3_reduce -> inception_5b/3x3_reduce
I0706 23:51:29.784801 12503 net.cpp:141] Setting up inception_5a/pool_proj
I0706 23:51:29.784832 12503 net.cpp:148] Top shape: 10 128 7 7 (62720)
I0706 23:51:29.784838 12503 net.cpp:156] Memory required for data: 534374400
I0706 23:51:29.784848 12503 layer_factory.hpp:77] Creating layer inception_5a/relu_pool_proj
I0706 23:51:29.784857 12503 net.cpp:91] Creating Layer inception_5a/relu_pool_proj
I0706 23:51:29.784862 12503 net.cpp:425] inception_5a/relu_pool_proj <- inception_5a/pool_proj
I0706 23:51:29.785406 12503 net.cpp:386] inception_5a/relu_pool_proj -> inception_5a/pool_proj (in-place)
I0706 23:51:29.786541 12503 net.cpp:141] Setting up inception_5a/relu_pool_proj
I0706 23:51:29.786571 12503 net.cpp:148] Top shape: 10 128 7 7 (62720)
I0706 23:51:29.786576 12503 net.cpp:156] Memory required for data: 534625280
I0706 23:51:29.786581 12503 layer_factory.hpp:77] Creating layer inception_5a/output
I0706 23:51:29.786589 12503 net.cpp:91] Creating Layer inception_5a/output
I0706 23:51:29.786595 12503 net.cpp:425] inception_5a/output <- inception_5a/1x1
I0706 23:51:29.786602 12503 net.cpp:425] inception_5a/output <- inception_5a/3x3
I0706 23:51:29.786607 12503 net.cpp:425] inception_5a/output <- inception_5a/5x5
I0706 23:51:29.786612 12503 net.cpp:425] inception_5a/output <- inception_5a/pool_proj
I0706 23:51:29.786619 12503 net.cpp:399] inception_5a/output -> inception_5a/output
I0706 23:51:29.786834 12503 net.cpp:141] Setting up inception_5a/output
I0706 23:51:29.786846 12503 net.cpp:148] Top shape: 10 832 7 7 (407680)
I0706 23:51:29.786851 12503 net.cpp:156] Memory required for data: 536256000
I0706 23:51:29.786856 12503 layer_factory.hpp:77] Creating layer inception_5a/output_inception_5a/output_0_split
I0706 23:51:29.786866 12503 net.cpp:91] Creating Layer inception_5a/output_inception_5a/output_0_split
I0706 23:51:29.786872 12503 net.cpp:425] inception_5a/output_inception_5a/output_0_split <- inception_5a/output
I0706 23:51:29.786880 12503 net.cpp:399] inception_5a/output_inception_5a/output_0_split -> inception_5a/output_inception_5a/output_0_split_0
I0706 23:51:29.786888 12503 net.cpp:399] inception_5a/output_inception_5a/output_0_split -> inception_5a/output_inception_5a/output_0_split_1
I0706 23:51:29.786897 12503 net.cpp:399] inception_5a/output_inception_5a/output_0_split -> inception_5a/output_inception_5a/output_0_split_2
I0706 23:51:29.786906 12503 net.cpp:399] inception_5a/output_inception_5a/output_0_split -> inception_5a/output_inception_5a/output_0_split_3
I0706 23:51:29.787175 12503 net.cpp:141] Setting up inception_5a/output_inception_5a/output_0_split
I0706 23:51:29.787186 12503 net.cpp:148] Top shape: 10 832 7 7 (407680)
I0706 23:51:29.787192 12503 net.cpp:148] Top shape: 10 832 7 7 (407680)
I0706 23:51:29.787199 12503 net.cpp:148] Top shape: 10 832 7 7 (407680)
I0706 23:51:29.787204 12503 net.cpp:148] Top shape: 10 832 7 7 (407680)
I0706 23:51:29.787207 12503 net.cpp:156] Memory required for data: 542778880
I0706 23:51:29.787211 12503 layer_factory.hpp:77] Creating layer inception_5b/1x1
I0706 23:51:29.787226 12503 net.cpp:91] Creating Layer inception_5b/1x1
I0706 23:51:29.787232 12503 net.cpp:425] inception_5b/1x1 <- inception_5a/output_inception_5a/output_0_split_0
I0706 23:51:29.787242 12503 net.cpp:399] inception_5b/1x1 -> inception_5b/1x1
I0706 23:51:29.790669 12507 net.cpp:141] Setting up inception_5b/3x3_reduce
I0706 23:51:29.790753 12507 net.cpp:148] Top shape: 10 192 7 7 (94080)
I0706 23:51:29.790766 12507 net.cpp:156] Memory required for data: 544660480
I0706 23:51:29.790791 12507 layer_factory.hpp:77] Creating layer inception_5b/relu_3x3_reduce
I0706 23:51:29.790822 12507 net.cpp:91] Creating Layer inception_5b/relu_3x3_reduce
I0706 23:51:29.790838 12507 net.cpp:425] inception_5b/relu_3x3_reduce <- inception_5b/3x3_reduce
I0706 23:51:29.790855 12507 net.cpp:386] inception_5b/relu_3x3_reduce -> inception_5b/3x3_reduce (in-place)
I0706 23:51:29.791503 12507 net.cpp:141] Setting up inception_5b/relu_3x3_reduce
I0706 23:51:29.791523 12507 net.cpp:148] Top shape: 10 192 7 7 (94080)
I0706 23:51:29.791532 12507 net.cpp:156] Memory required for data: 545036800
I0706 23:51:29.791543 12507 layer_factory.hpp:77] Creating layer inception_5b/3x3
I0706 23:51:29.791582 12507 net.cpp:91] Creating Layer inception_5b/3x3
I0706 23:51:29.791595 12507 net.cpp:425] inception_5b/3x3 <- inception_5b/3x3_reduce
I0706 23:51:29.791615 12507 net.cpp:399] inception_5b/3x3 -> inception_5b/3x3
I0706 23:51:29.797619 12503 net.cpp:141] Setting up inception_5b/1x1
I0706 23:51:29.797639 12503 net.cpp:148] Top shape: 10 384 7 7 (188160)
I0706 23:51:29.797644 12503 net.cpp:156] Memory required for data: 543531520
I0706 23:51:29.797653 12503 layer_factory.hpp:77] Creating layer inception_5b/relu_1x1
I0706 23:51:29.797662 12503 net.cpp:91] Creating Layer inception_5b/relu_1x1
I0706 23:51:29.797667 12503 net.cpp:425] inception_5b/relu_1x1 <- inception_5b/1x1
I0706 23:51:29.797677 12503 net.cpp:386] inception_5b/relu_1x1 -> inception_5b/1x1 (in-place)
I0706 23:51:29.798460 12503 net.cpp:141] Setting up inception_5b/relu_1x1
I0706 23:51:29.798475 12503 net.cpp:148] Top shape: 10 384 7 7 (188160)
I0706 23:51:29.798480 12503 net.cpp:156] Memory required for data: 544284160
I0706 23:51:29.798485 12503 layer_factory.hpp:77] Creating layer inception_5b/3x3_reduce
I0706 23:51:29.798498 12503 net.cpp:91] Creating Layer inception_5b/3x3_reduce
I0706 23:51:29.798504 12503 net.cpp:425] inception_5b/3x3_reduce <- inception_5a/output_inception_5a/output_0_split_1
I0706 23:51:29.798516 12503 net.cpp:399] inception_5b/3x3_reduce -> inception_5b/3x3_reduce
I0706 23:51:29.803112 12503 net.cpp:141] Setting up inception_5b/3x3_reduce
I0706 23:51:29.803140 12503 net.cpp:148] Top shape: 10 192 7 7 (94080)
I0706 23:51:29.803146 12503 net.cpp:156] Memory required for data: 544660480
I0706 23:51:29.803155 12503 layer_factory.hpp:77] Creating layer inception_5b/relu_3x3_reduce
I0706 23:51:29.803164 12503 net.cpp:91] Creating Layer inception_5b/relu_3x3_reduce
I0706 23:51:29.803170 12503 net.cpp:425] inception_5b/relu_3x3_reduce <- inception_5b/3x3_reduce
I0706 23:51:29.803180 12503 net.cpp:386] inception_5b/relu_3x3_reduce -> inception_5b/3x3_reduce (in-place)
I0706 23:51:29.803457 12503 net.cpp:141] Setting up inception_5b/relu_3x3_reduce
I0706 23:51:29.803469 12503 net.cpp:148] Top shape: 10 192 7 7 (94080)
I0706 23:51:29.803473 12503 net.cpp:156] Memory required for data: 545036800
I0706 23:51:29.803478 12503 layer_factory.hpp:77] Creating layer inception_5b/3x3
I0706 23:51:29.803494 12503 net.cpp:91] Creating Layer inception_5b/3x3
I0706 23:51:29.803500 12503 net.cpp:425] inception_5b/3x3 <- inception_5b/3x3_reduce
I0706 23:51:29.803508 12503 net.cpp:399] inception_5b/3x3 -> inception_5b/3x3
I0706 23:51:29.808234 12507 net.cpp:141] Setting up inception_5b/3x3
I0706 23:51:29.808287 12507 net.cpp:148] Top shape: 10 384 7 7 (188160)
I0706 23:51:29.808295 12507 net.cpp:156] Memory required for data: 545789440
I0706 23:51:29.808308 12507 layer_factory.hpp:77] Creating layer inception_5b/relu_3x3
I0706 23:51:29.808326 12507 net.cpp:91] Creating Layer inception_5b/relu_3x3
I0706 23:51:29.808336 12507 net.cpp:425] inception_5b/relu_3x3 <- inception_5b/3x3
I0706 23:51:29.808346 12507 net.cpp:386] inception_5b/relu_3x3 -> inception_5b/3x3 (in-place)
I0706 23:51:29.808631 12507 net.cpp:141] Setting up inception_5b/relu_3x3
I0706 23:51:29.808642 12507 net.cpp:148] Top shape: 10 384 7 7 (188160)
I0706 23:51:29.808647 12507 net.cpp:156] Memory required for data: 546542080
I0706 23:51:29.808652 12507 layer_factory.hpp:77] Creating layer inception_5b/5x5_reduce
I0706 23:51:29.808671 12507 net.cpp:91] Creating Layer inception_5b/5x5_reduce
I0706 23:51:29.808678 12507 net.cpp:425] inception_5b/5x5_reduce <- inception_5a/output_inception_5a/output_0_split_2
I0706 23:51:29.808689 12507 net.cpp:399] inception_5b/5x5_reduce -> inception_5b/5x5_reduce
I0706 23:51:29.812811 12507 net.cpp:141] Setting up inception_5b/5x5_reduce
I0706 23:51:29.812841 12507 net.cpp:148] Top shape: 10 48 7 7 (23520)
I0706 23:51:29.812847 12507 net.cpp:156] Memory required for data: 546636160
I0706 23:51:29.812857 12507 layer_factory.hpp:77] Creating layer inception_5b/relu_5x5_reduce
I0706 23:51:29.812870 12507 net.cpp:91] Creating Layer inception_5b/relu_5x5_reduce
I0706 23:51:29.812877 12507 net.cpp:425] inception_5b/relu_5x5_reduce <- inception_5b/5x5_reduce
I0706 23:51:29.812885 12507 net.cpp:386] inception_5b/relu_5x5_reduce -> inception_5b/5x5_reduce (in-place)
I0706 23:51:29.813314 12507 net.cpp:141] Setting up inception_5b/relu_5x5_reduce
I0706 23:51:29.813329 12507 net.cpp:148] Top shape: 10 48 7 7 (23520)
I0706 23:51:29.813333 12507 net.cpp:156] Memory required for data: 546730240
I0706 23:51:29.813339 12507 layer_factory.hpp:77] Creating layer inception_5b/5x5
I0706 23:51:29.813356 12507 net.cpp:91] Creating Layer inception_5b/5x5
I0706 23:51:29.813362 12507 net.cpp:425] inception_5b/5x5 <- inception_5b/5x5_reduce
I0706 23:51:29.813372 12507 net.cpp:399] inception_5b/5x5 -> inception_5b/5x5
I0706 23:51:29.816709 12503 net.cpp:141] Setting up inception_5b/3x3
I0706 23:51:29.816751 12503 net.cpp:148] Top shape: 10 384 7 7 (188160)
I0706 23:51:29.816757 12503 net.cpp:156] Memory required for data: 545789440
I0706 23:51:29.816768 12503 layer_factory.hpp:77] Creating layer inception_5b/relu_3x3
I0706 23:51:29.816782 12503 net.cpp:91] Creating Layer inception_5b/relu_3x3
I0706 23:51:29.816790 12503 net.cpp:425] inception_5b/relu_3x3 <- inception_5b/3x3
I0706 23:51:29.816798 12503 net.cpp:386] inception_5b/relu_3x3 -> inception_5b/3x3 (in-place)
I0706 23:51:29.818150 12503 net.cpp:141] Setting up inception_5b/relu_3x3
I0706 23:51:29.818166 12503 net.cpp:148] Top shape: 10 384 7 7 (188160)
I0706 23:51:29.818172 12503 net.cpp:156] Memory required for data: 546542080
I0706 23:51:29.818178 12503 layer_factory.hpp:77] Creating layer inception_5b/5x5_reduce
I0706 23:51:29.818192 12503 net.cpp:91] Creating Layer inception_5b/5x5_reduce
I0706 23:51:29.818199 12503 net.cpp:425] inception_5b/5x5_reduce <- inception_5a/output_inception_5a/output_0_split_2
I0706 23:51:29.818212 12503 net.cpp:399] inception_5b/5x5_reduce -> inception_5b/5x5_reduce
I0706 23:51:29.819674 12507 net.cpp:141] Setting up inception_5b/5x5
I0706 23:51:29.819710 12507 net.cpp:148] Top shape: 10 128 7 7 (62720)
I0706 23:51:29.819716 12507 net.cpp:156] Memory required for data: 546981120
I0706 23:51:29.819727 12507 layer_factory.hpp:77] Creating layer inception_5b/relu_5x5
I0706 23:51:29.819739 12507 net.cpp:91] Creating Layer inception_5b/relu_5x5
I0706 23:51:29.819747 12507 net.cpp:425] inception_5b/relu_5x5 <- inception_5b/5x5
I0706 23:51:29.819754 12507 net.cpp:386] inception_5b/relu_5x5 -> inception_5b/5x5 (in-place)
I0706 23:51:29.820946 12507 net.cpp:141] Setting up inception_5b/relu_5x5
I0706 23:51:29.820960 12507 net.cpp:148] Top shape: 10 128 7 7 (62720)
I0706 23:51:29.820977 12507 net.cpp:156] Memory required for data: 547232000
I0706 23:51:29.820982 12507 layer_factory.hpp:77] Creating layer inception_5b/pool
I0706 23:51:29.820997 12507 net.cpp:91] Creating Layer inception_5b/pool
I0706 23:51:29.821004 12507 net.cpp:425] inception_5b/pool <- inception_5a/output_inception_5a/output_0_split_3
I0706 23:51:29.821012 12507 net.cpp:399] inception_5b/pool -> inception_5b/pool
I0706 23:51:29.821605 12507 net.cpp:141] Setting up inception_5b/pool
I0706 23:51:29.821617 12507 net.cpp:148] Top shape: 10 832 7 7 (407680)
I0706 23:51:29.821621 12507 net.cpp:156] Memory required for data: 548862720
I0706 23:51:29.821626 12507 layer_factory.hpp:77] Creating layer inception_5b/pool_proj
I0706 23:51:29.821656 12507 net.cpp:91] Creating Layer inception_5b/pool_proj
I0706 23:51:29.821662 12507 net.cpp:425] inception_5b/pool_proj <- inception_5b/pool
I0706 23:51:29.821682 12507 net.cpp:399] inception_5b/pool_proj -> inception_5b/pool_proj
I0706 23:51:29.824501 12503 net.cpp:141] Setting up inception_5b/5x5_reduce
I0706 23:51:29.824535 12503 net.cpp:148] Top shape: 10 48 7 7 (23520)
I0706 23:51:29.824542 12503 net.cpp:156] Memory required for data: 546636160
I0706 23:51:29.824551 12503 layer_factory.hpp:77] Creating layer inception_5b/relu_5x5_reduce
I0706 23:51:29.824564 12503 net.cpp:91] Creating Layer inception_5b/relu_5x5_reduce
I0706 23:51:29.824570 12503 net.cpp:425] inception_5b/relu_5x5_reduce <- inception_5b/5x5_reduce
I0706 23:51:29.824579 12503 net.cpp:386] inception_5b/relu_5x5_reduce -> inception_5b/5x5_reduce (in-place)
I0706 23:51:29.825717 12503 net.cpp:141] Setting up inception_5b/relu_5x5_reduce
I0706 23:51:29.825732 12503 net.cpp:148] Top shape: 10 48 7 7 (23520)
I0706 23:51:29.825750 12503 net.cpp:156] Memory required for data: 546730240
I0706 23:51:29.825755 12503 layer_factory.hpp:77] Creating layer inception_5b/5x5
I0706 23:51:29.825774 12503 net.cpp:91] Creating Layer inception_5b/5x5
I0706 23:51:29.825780 12503 net.cpp:425] inception_5b/5x5 <- inception_5b/5x5_reduce
I0706 23:51:29.825789 12503 net.cpp:399] inception_5b/5x5 -> inception_5b/5x5
I0706 23:51:29.828382 12507 net.cpp:141] Setting up inception_5b/pool_proj
I0706 23:51:29.828415 12507 net.cpp:148] Top shape: 10 128 7 7 (62720)
I0706 23:51:29.828421 12507 net.cpp:156] Memory required for data: 549113600
I0706 23:51:29.828430 12507 layer_factory.hpp:77] Creating layer inception_5b/relu_pool_proj
I0706 23:51:29.828447 12507 net.cpp:91] Creating Layer inception_5b/relu_pool_proj
I0706 23:51:29.828454 12507 net.cpp:425] inception_5b/relu_pool_proj <- inception_5b/pool_proj
I0706 23:51:29.828464 12507 net.cpp:386] inception_5b/relu_pool_proj -> inception_5b/pool_proj (in-place)
I0706 23:51:29.830260 12507 net.cpp:141] Setting up inception_5b/relu_pool_proj
I0706 23:51:29.830286 12507 net.cpp:148] Top shape: 10 128 7 7 (62720)
I0706 23:51:29.830292 12507 net.cpp:156] Memory required for data: 549364480
I0706 23:51:29.830297 12507 layer_factory.hpp:77] Creating layer inception_5b/output
I0706 23:51:29.830307 12507 net.cpp:91] Creating Layer inception_5b/output
I0706 23:51:29.830312 12507 net.cpp:425] inception_5b/output <- inception_5b/1x1
I0706 23:51:29.830319 12507 net.cpp:425] inception_5b/output <- inception_5b/3x3
I0706 23:51:29.830324 12507 net.cpp:425] inception_5b/output <- inception_5b/5x5
I0706 23:51:29.830330 12507 net.cpp:425] inception_5b/output <- inception_5b/pool_proj
I0706 23:51:29.830341 12507 net.cpp:399] inception_5b/output -> inception_5b/output
I0706 23:51:29.830406 12507 net.cpp:141] Setting up inception_5b/output
I0706 23:51:29.830417 12507 net.cpp:148] Top shape: 10 1024 7 7 (501760)
I0706 23:51:29.830421 12507 net.cpp:156] Memory required for data: 551371520
I0706 23:51:29.830426 12507 layer_factory.hpp:77] Creating layer pool5/7x7_s1
I0706 23:51:29.830435 12507 net.cpp:91] Creating Layer pool5/7x7_s1
I0706 23:51:29.830440 12507 net.cpp:425] pool5/7x7_s1 <- inception_5b/output
I0706 23:51:29.830451 12507 net.cpp:399] pool5/7x7_s1 -> pool5/7x7_s1
I0706 23:51:29.830598 12503 net.cpp:141] Setting up inception_5b/5x5
I0706 23:51:29.830613 12503 net.cpp:148] Top shape: 10 128 7 7 (62720)
I0706 23:51:29.830617 12503 net.cpp:156] Memory required for data: 546981120
I0706 23:51:29.830626 12503 layer_factory.hpp:77] Creating layer inception_5b/relu_5x5
I0706 23:51:29.830638 12503 net.cpp:91] Creating Layer inception_5b/relu_5x5
I0706 23:51:29.830644 12503 net.cpp:425] inception_5b/relu_5x5 <- inception_5b/5x5
I0706 23:51:29.830651 12503 net.cpp:386] inception_5b/relu_5x5 -> inception_5b/5x5 (in-place)
I0706 23:51:29.831791 12503 net.cpp:141] Setting up inception_5b/relu_5x5
I0706 23:51:29.831820 12503 net.cpp:148] Top shape: 10 128 7 7 (62720)
I0706 23:51:29.831825 12503 net.cpp:156] Memory required for data: 547232000
I0706 23:51:29.831830 12503 layer_factory.hpp:77] Creating layer inception_5b/pool
I0706 23:51:29.831838 12507 net.cpp:141] Setting up pool5/7x7_s1
I0706 23:51:29.831845 12503 net.cpp:91] Creating Layer inception_5b/pool
I0706 23:51:29.831851 12507 net.cpp:148] Top shape: 10 1024 1 1 (10240)
I0706 23:51:29.831861 12507 net.cpp:156] Memory required for data: 551412480
I0706 23:51:29.831852 12503 net.cpp:425] inception_5b/pool <- inception_5a/output_inception_5a/output_0_split_3
I0706 23:51:29.831867 12507 layer_factory.hpp:77] Creating layer pool5/drop_7x7_s1
I0706 23:51:29.831876 12503 net.cpp:399] inception_5b/pool -> inception_5b/pool
I0706 23:51:29.831881 12507 net.cpp:91] Creating Layer pool5/drop_7x7_s1
I0706 23:51:29.831888 12507 net.cpp:425] pool5/drop_7x7_s1 <- pool5/7x7_s1
I0706 23:51:29.831894 12507 net.cpp:386] pool5/drop_7x7_s1 -> pool5/7x7_s1 (in-place)
I0706 23:51:29.831959 12503 net.cpp:141] Setting up inception_5b/pool
I0706 23:51:29.831969 12503 net.cpp:148] Top shape: 10 832 7 7 (407680)
I0706 23:51:29.831972 12503 net.cpp:156] Memory required for data: 548862720
I0706 23:51:29.831977 12503 layer_factory.hpp:77] Creating layer inception_5b/pool_proj
I0706 23:51:29.831991 12503 net.cpp:91] Creating Layer inception_5b/pool_proj
I0706 23:51:29.831997 12503 net.cpp:425] inception_5b/pool_proj <- inception_5b/pool
I0706 23:51:29.832000 12507 net.cpp:141] Setting up pool5/drop_7x7_s1
I0706 23:51:29.832010 12503 net.cpp:399] inception_5b/pool_proj -> inception_5b/pool_proj
I0706 23:51:29.832010 12507 net.cpp:148] Top shape: 10 1024 1 1 (10240)
I0706 23:51:29.832016 12507 net.cpp:156] Memory required for data: 551453440
I0706 23:51:29.832021 12507 layer_factory.hpp:77] Creating layer loss3/classifier
I0706 23:51:29.832041 12507 net.cpp:91] Creating Layer loss3/classifier
I0706 23:51:29.832046 12507 net.cpp:425] loss3/classifier <- pool5/7x7_s1
I0706 23:51:29.832056 12507 net.cpp:399] loss3/classifier -> loss3/classifier
I0706 23:51:29.837826 12503 net.cpp:141] Setting up inception_5b/pool_proj
I0706 23:51:29.837859 12503 net.cpp:148] Top shape: 10 128 7 7 (62720)
I0706 23:51:29.837865 12503 net.cpp:156] Memory required for data: 549113600
I0706 23:51:29.837875 12503 layer_factory.hpp:77] Creating layer inception_5b/relu_pool_proj
I0706 23:51:29.837891 12503 net.cpp:91] Creating Layer inception_5b/relu_pool_proj
I0706 23:51:29.837898 12503 net.cpp:425] inception_5b/relu_pool_proj <- inception_5b/pool_proj
I0706 23:51:29.837905 12503 net.cpp:386] inception_5b/relu_pool_proj -> inception_5b/pool_proj (in-place)
I0706 23:51:29.838184 12503 net.cpp:141] Setting up inception_5b/relu_pool_proj
I0706 23:51:29.838196 12503 net.cpp:148] Top shape: 10 128 7 7 (62720)
I0706 23:51:29.838201 12503 net.cpp:156] Memory required for data: 549364480
I0706 23:51:29.838206 12503 layer_factory.hpp:77] Creating layer inception_5b/output
I0706 23:51:29.838214 12503 net.cpp:91] Creating Layer inception_5b/output
I0706 23:51:29.838219 12503 net.cpp:425] inception_5b/output <- inception_5b/1x1
I0706 23:51:29.838227 12503 net.cpp:425] inception_5b/output <- inception_5b/3x3
I0706 23:51:29.838232 12503 net.cpp:425] inception_5b/output <- inception_5b/5x5
I0706 23:51:29.838238 12503 net.cpp:425] inception_5b/output <- inception_5b/pool_proj
I0706 23:51:29.838248 12503 net.cpp:399] inception_5b/output -> inception_5b/output
I0706 23:51:29.838291 12503 net.cpp:141] Setting up inception_5b/output
I0706 23:51:29.838299 12503 net.cpp:148] Top shape: 10 1024 7 7 (501760)
I0706 23:51:29.838304 12503 net.cpp:156] Memory required for data: 551371520
I0706 23:51:29.838309 12503 layer_factory.hpp:77] Creating layer pool5/7x7_s1
I0706 23:51:29.838316 12503 net.cpp:91] Creating Layer pool5/7x7_s1
I0706 23:51:29.838321 12503 net.cpp:425] pool5/7x7_s1 <- inception_5b/output
I0706 23:51:29.838330 12503 net.cpp:399] pool5/7x7_s1 -> pool5/7x7_s1
I0706 23:51:29.839153 12503 net.cpp:141] Setting up pool5/7x7_s1
I0706 23:51:29.839181 12503 net.cpp:148] Top shape: 10 1024 1 1 (10240)
I0706 23:51:29.839186 12503 net.cpp:156] Memory required for data: 551412480
I0706 23:51:29.839191 12503 layer_factory.hpp:77] Creating layer pool5/drop_7x7_s1
I0706 23:51:29.839201 12503 net.cpp:91] Creating Layer pool5/drop_7x7_s1
I0706 23:51:29.839206 12503 net.cpp:425] pool5/drop_7x7_s1 <- pool5/7x7_s1
I0706 23:51:29.839215 12503 net.cpp:386] pool5/drop_7x7_s1 -> pool5/7x7_s1 (in-place)
I0706 23:51:29.839249 12503 net.cpp:141] Setting up pool5/drop_7x7_s1
I0706 23:51:29.839257 12503 net.cpp:148] Top shape: 10 1024 1 1 (10240)
I0706 23:51:29.839262 12503 net.cpp:156] Memory required for data: 551453440
I0706 23:51:29.839267 12503 layer_factory.hpp:77] Creating layer loss3/classifier
I0706 23:51:29.839280 12503 net.cpp:91] Creating Layer loss3/classifier
I0706 23:51:29.839285 12503 net.cpp:425] loss3/classifier <- pool5/7x7_s1
I0706 23:51:29.839295 12503 net.cpp:399] loss3/classifier -> loss3/classifier
I0706 23:51:29.843125 12507 net.cpp:141] Setting up loss3/classifier
I0706 23:51:29.843164 12507 net.cpp:148] Top shape: 10 1000 (10000)
I0706 23:51:29.843170 12507 net.cpp:156] Memory required for data: 551493440
I0706 23:51:29.843181 12507 layer_factory.hpp:77] Creating layer prob
I0706 23:51:29.843192 12507 net.cpp:91] Creating Layer prob
I0706 23:51:29.843199 12507 net.cpp:425] prob <- loss3/classifier
I0706 23:51:29.843206 12507 net.cpp:399] prob -> prob
I0706 23:51:29.843665 12507 net.cpp:141] Setting up prob
I0706 23:51:29.843679 12507 net.cpp:148] Top shape: 10 1000 (10000)
I0706 23:51:29.843684 12507 net.cpp:156] Memory required for data: 551533440
I0706 23:51:29.843694 12507 net.cpp:219] prob does not need backward computation.
I0706 23:51:29.843699 12507 net.cpp:219] loss3/classifier does not need backward computation.
I0706 23:51:29.843704 12507 net.cpp:219] pool5/drop_7x7_s1 does not need backward computation.
I0706 23:51:29.843708 12507 net.cpp:219] pool5/7x7_s1 does not need backward computation.
…
