…
W0925 22:26:19.236927 30367 upgrade_proto.cpp:71] Note that future Caffe releases will only support input layers and not input fields.
I0925 22:26:19.237221 30369 net.cpp:49] Initializing net from parameters: 
name: "s2vt:features_to_lstm"
state {
  phase: TEST
}
layer {
  name: "input"
  type: "Input"
  top: "frames_fc7"
  top: "cont_sentence"
  top: "input_sentence"
  top: "stage_indicator"
  input_param {
    shape {
      dim: 1
      dim: 4096
    }
    shape {
      dim: 1
      dim: 1
    }
    shape {
      dim: 1
      dim: 1
    }
    shape {
      dim: 1
      dim: 1
    }
  }
}
layer {
  name: "embed_encoder"
  type: "InnerProduct"
  bottom: "frames_fc7"
  top: "embedded_in_frames"
  param {
    lr_mult: 1
    decay_mult: 1
  }
  param {
    lr_mult: 2
    decay_mult: 0
  }
  inner_product_param {
    num_output: 500
    weight_filler {
      type: "xavier"
    }
    bias_filler {
      type: "constant"
      value: 0.2
    }
  }
}
layer {
  name: "reshape_frames"
  type: "Reshape"
  bottom: "embedded_in_frames"
  top: "embedded_input_frames"
  reshape_param {
    shape {
      dim: 1
      dim: 1
      dim: 500
    }
  }
}
layer {
  name: "reshape_stage_indicator"
  type: "Reshape"
  bottom: "stage_indicator"
  top: "reshaped_stage_indicator"
  reshape_param {
    shape {
      dim: 1
      dim: 1
      dim: 1
    }
  }
}
layer {
  name: "embedding"
  type: "Embed"
  bottom: "input_sentence"
  top: "embedded_input_sentence"
  param {
    lr_mult: 1
  }
  embed_param {
    num_output: 500
    input_dim: 46168
    bias_term: false
    weight_filler {
      type: "uniform"
      min: -0.08
      max: 0.08
    }
  }
}
layer {
  name: "lstm1"
  type: "LSTM"
  bottom: "embedded_input_frames"
  bottom: "cont_sentence"
  top: "lstm1"
  recurrent_param {
    num_output: 1000
    weight_filler {
      type: "uniform"
      min: -0.08
      max: 0.08
    }
    bias_filler {
      type: "constant"
      value: 0
    }
  }
}
layer {
  name: "concat"
  type: "Concat"
  bottom: "lstm1"
  bottom: "embedded_input_sentence"
  bottom: "reshaped_stage_indicator"
  top: "lstm1_video_sequence"
  concat_param {
    concat_dim: 2
  }
}
layer {
  name: "lstm2"
  type: "LSTM"
  bottom: "lstm1_video_sequence"
  bottom: "cont_sentence"
  top: "lstm2"
  recurrent_param {
    num_output: 1000
    weight_filler {
      type: "uniform"
      min: -0.08
      max: 0.08
    }
    bias_filler {
      type: "constant"
      value: 0
    }
  }
}
layer {
  name: "predict"
  type: "InnerProduct"
  bottom: "lstm2"
  top: "predict"
  param {
    lr_mult: 1
    decay_mult: 1
  }
  param {
    lr_mult: 2
    decay_mult: 0
  }
  inner_product_param {
    num_output: 46168
    weight_filler {
      type: "uniform"
      min: -0.08
      max: 0.08
    }
    bias_filler {
      type: "constant"
      value: 0
    }
    axis: 2
  }
}
layer {
  name: "probs"
  type: "Softmax"
  bottom: "predict"
  top: "probs"
  softmax_param {
    axis: 2
  }
}
I0925 22:26:19.237329 30367 net.cpp:49] Initializing net from parameters: 
name: "s2vt:features_to_lstm"
state {
  phase: TEST
}
layer {
  name: "input"
  type: "Input"
  top: "frames_fc7"
  top: "cont_sentence"
  top: "input_sentence"
  top: "stage_indicator"
  input_param {
    shape {
      dim: 1
      dim: 4096
    }
    shape {
      dim: 1
      dim: 1
    }
    shape {
      dim: 1
      dim: 1
    }
    shape {
      dim: 1
      dim: 1
    }
  }
}
layer {
  name: "embed_encoder"
  type: "InnerProduct"
  bottom: "frames_fc7"
  top: "embedded_in_frames"
  param {
    lr_mult: 1
    decay_mult: 1
  }
  param {
    lr_mult: 2
    decay_mult: 0
  }
  inner_product_param {
    num_output: 500
    weight_filler {
      type: "xavier"
    }
    bias_filler {
      type: "constant"
      value: 0.2
    }
  }
}
layer {
  name: "reshape_frames"
  type: "Reshape"
  bottom: "embedded_in_frames"
  top: "embedded_input_frames"
  reshape_param {
    shape {
      dim: 1
      dim: 1
      dim: 500
    }
  }
}
layer {
  name: "reshape_stage_indicator"
  type: "Reshape"
  bottom: "stage_indicator"
  top: "reshaped_stage_indicator"
  reshape_param {
    shape {
      dim: 1
      dim: 1
      dim: 1
    }
  }
}
layer {
  name: "embedding"
  type: "Embed"
  bottom: "input_sentence"
  top: "embedded_input_sentence"
  param {
    lr_mult: 1
  }
  embed_param {
    num_output: 500
    input_dim: 46168
    bias_term: false
    weight_filler {
      type: "uniform"
      min: -0.08
      max: 0.08
    }
  }
}
layer {
  name: "lstm1"
  type: "LSTM"
  bottom: "embedded_input_frames"
  bottom: "cont_sentence"
  top: "lstm1"
  recurrent_param {
    num_output: 1000
    weight_filler {
      type: "uniform"
      min: -0.08
      max: 0.08
    }
    bias_filler {
      type: "constant"
      value: 0
    }
  }
}
layer {
  name: "concat"
  type: "Concat"
  bottom: "lstm1"
  bottom: "embedded_input_sentence"
  bottom: "reshaped_stage_indicator"
  top: "lstm1_video_sequence"
  concat_param {
    concat_dim: 2
  }
}
layer {
  name: "lstm2"
  type: "LSTM"
  bottom: "lstm1_video_sequence"
  bottom: "cont_sentence"
  top: "lstm2"
  recurrent_param {
    num_output: 1000
    weight_filler {
      type: "uniform"
      min: -0.08
      max: 0.08
    }
    bias_filler {
      type: "constant"
      value: 0
    }
  }
}
layer {
  name: "predict"
  type: "InnerProduct"
  bottom: "lstm2"
  top: "predict"
  param {
    lr_mult: 1
    decay_mult: 1
  }
  param {
    lr_mult: 2
    decay_mult: 0
  }
  inner_product_param {
    num_output: 46168
    weight_filler {
      type: "uniform"
      min: -0.08
      max: 0.08
    }
    bias_filler {
      type: "constant"
      value: 0
    }
    axis: 2
  }
}
layer {
  name: "probs"
  type: "Softmax"
  bottom: "predict"
  top: "probs"
  softmax_param {
    axis: 2
  }
}
I0925 22:26:19.237336 30401 net.cpp:49] Initializing net from parameters: 
name: "s2vt:features_to_lstm"
state {
  phase: TEST
}
layer {
  name: "input"
  type: "Input"
  top: "frames_fc7"
  top: "cont_sentence"
  top: "input_sentence"
  top: "stage_indicator"
  input_param {
    shape {
      dim: 1
      dim: 4096
    }
    shape {
      dim: 1
      dim: 1
    }
    shape {
      dim: 1
      dim: 1
    }
    shape {
      dim: 1
      dim: 1
    }
  }
}
layer {
  name: "embed_encoder"
  type: "InnerProduct"
  bottom: "frames_fc7"
  top: "embedded_in_frames"
  param {
    lr_mult: 1
    decay_mult: 1
  }
  param {
    lr_mult: 2
    decay_mult: 0
  }
  inner_product_param {
    num_output: 500
    weight_filler {
      type: "xavier"
    }
    bias_filler {
      type: "constant"
      value: 0.2
    }
  }
}
layer {
  name: "reshape_frames"
  type: "Reshape"
  bottom: "embedded_in_frames"
  top: "embedded_input_frames"
  reshape_param {
    shape {
      dim: 1
      dim: 1
      dim: 500
    }
  }
}
layer {
  name: "reshape_stage_indicator"
  type: "Reshape"
  bottom: "stage_indicator"
  top: "reshaped_stage_indicator"
  reshape_param {
    shape {
      dim: 1
      dim: 1
      dim: 1
    }
  }
}
layer {
  name: "embedding"
  type: "Embed"
  bottom: "input_sentence"
  top: "embedded_input_sentence"
  param {
    lr_mult: 1
  }
  embed_param {
    num_output: 500
    input_dim: 46168
    bias_term: false
    weight_filler {
      type: "uniform"
      min: -0.08
      max: 0.08
    }
  }
}
layer {
  name: "lstm1"
  type: "LSTM"
  bottom: "embedded_input_frames"
  bottom: "cont_sentence"
  top: "lstm1"
  recurrent_param {
    num_output: 1000
    weight_filler {
      type: "uniform"
      min: -0.08
      max: 0.08
    }
    bias_filler {
      type: "constant"
      value: 0
    }
  }
}
layer {
  name: "concat"
  type: "Concat"
  bottom: "lstm1"
  bottom: "embedded_input_sentence"
  bottom: "reshaped_stage_indicator"
  top: "lstm1_video_sequence"
  concat_param {
    concat_dim: 2
  }
}
layer {
  name: "lstm2"
  type: "LSTM"
  bottom: "lstm1_video_sequence"
  bottom: "cont_sentence"
  top: "lstm2"
  recurrent_param {
    num_output: 1000
    weight_filler {
      type: "uniform"
      min: -0.08
      max: 0.08
    }
    bias_filler {
      type: "constant"
      value: 0
    }
  }
}
layer {
  name: "predict"
  type: "InnerProduct"
  bottom: "lstm2"
  top: "predict"
  param {
    lr_mult: 1
    decay_mult: 1
  }
  param {
    lr_mult: 2
    decay_mult: 0
  }
  inner_product_param {
    num_output: 46168
    weight_filler {
      type: "uniform"
      min: -0.08
      max: 0.08
    }
    bias_filler {
      type: "constant"
      value: 0
    }
    axis: 2
  }
}
layer {
  name: "probs"
  type: "Softmax"
  bottom: "predict"
  top: "probs"
  softmax_param {
    axis: 2
  }
}
I0925 22:26:19.237331 30407 net.cpp:49] Initializing net from parameters: 
name: "s2vt:features_to_lstm"
state {
  phase: TEST
}
layer {
  name: "input"
  type: "Input"
  top: "frames_fc7"
  top: "cont_sentence"
  top: "input_sentence"
  top: "stage_indicator"
  input_param {
    shape {
      dim: 1
      dim: 4096
    }
    shape {
      dim: 1
      dim: 1
    }
    shape {
      dim: 1
      dim: 1
    }
    shape {
      dim: 1
      dim: 1
    }
  }
}
layer {
  name: "embed_encoder"
  type: "InnerProduct"
  bottom: "frames_fc7"
  top: "embedded_in_frames"
  param {
    lr_mult: 1
    decay_mult: 1
  }
  param {
    lr_mult: 2
    decay_mult: 0
  }
  inner_product_param {
    num_output: 500
    weight_filler {
      type: "xavier"
    }
    bias_filler {
      type: "constant"
      value: 0.2
    }
  }
}
layer {
  name: "reshape_frames"
  type: "Reshape"
  bottom: "embedded_in_frames"
  top: "embedded_input_frames"
  reshape_param {
    shape {
      dim: 1
      dim: 1
      dim: 500
    }
  }
}
layer {
  name: "reshape_stage_indicator"
  type: "Reshape"
  bottom: "stage_indicator"
  top: "reshaped_stage_indicator"
  reshape_param {
    shape {
      dim: 1
      dim: 1
      dim: 1
    }
  }
}
layer {
  name: "embedding"
  type: "Embed"
  bottom: "input_sentence"
  top: "embedded_input_sentence"
  param {
    lr_mult: 1
  }
  embed_param {
    num_output: 500
    input_dim: 46168
    bias_term: false
    weight_filler {
      type: "uniform"
      min: -0.08
      max: 0.08
    }
  }
}
layer {
  name: "lstm1"
  type: "LSTM"
  bottom: "embedded_input_frames"
  bottom: "cont_sentence"
  top: "lstm1"
  recurrent_param {
    num_output: 1000
    weight_filler {
      type: "uniform"
      min: -0.08
      max: 0.08
    }
    bias_filler {
      type: "constant"
      value: 0
    }
  }
}
layer {
  name: "concat"
  type: "Concat"
  bottom: "lstm1"
  bottom: "embedded_input_sentence"
  bottom: "reshaped_stage_indicator"
  top: "lstm1_video_sequence"
  concat_param {
    concat_dim: 2
  }
}
layer {
  name: "lstm2"
  type: "LSTM"
  bottom: "lstm1_video_sequence"
  bottom: "cont_sentence"
  top: "lstm2"
  recurrent_param {
    num_output: 1000
    weight_filler {
      type: "uniform"
      min: -0.08
      max: 0.08
    }
    bias_filler {
      type: "constant"
      value: 0
    }
  }
}
layer {
  name: "predict"
  type: "InnerProduct"
  bottom: "lstm2"
  top: "predict"
  param {
    lr_mult: 1
    decay_mult: 1
  }
  param {
    lr_mult: 2
    decay_mult: 0
  }
  inner_product_param {
    num_output: 46168
    weight_filler {
      type: "uniform"
      min: -0.08
      max: 0.08
    }
    bias_filler {
      type: "constant"
      value: 0
    }
    axis: 2
  }
}
layer {
  name: "probs"
  type: "Softmax"
  bottom: "predict"
  top: "probs"
  softmax_param {
    axis: 2
  }
}
I0925 22:26:19.237334 30373 upgrade_proto.cpp:66] Attempting to upgrade input file specified using deprecated input fields: /home/peifeng/work/run/storm102/data/workers/29f95ec2-d9a3-44ac-8d50-35988c45bdef/tmp/cvld1154715216176506870/s2vt.words_to_preds.prototxt
I0925 22:26:19.237370 30369 layer_factory.hpp:77] Creating layer input
I0925 22:26:19.236763 30381 upgrade_proto.cpp:66] Attempting to upgrade input file specified using deprecated input fields: /home/peifeng/work/run/storm102/data/workers/29f95ec2-d9a3-44ac-8d50-35988c45bdef/tmp/cvld1154715216176506870/s2vt.words_to_preds.prototxt
…
I0925 22:26:19.237565 30367 net.cpp:399] input -> stage_indicator
I0925 22:26:19.237574 30407 net.cpp:399] input -> stage_indicator
I0925 22:26:19.237653 30381 net.cpp:49] Initializing net from parameters: 
name: "s2vt:features_to_lstm"
state {
  phase: TEST
}
layer {
  name: "input"
  type: "Input"
  top: "frames_fc7"
  top: "cont_sentence"
  top: "input_sentence"
  top: "stage_indicator"
  input_param {
    shape {
      dim: 1
      dim: 4096
    }
    shape {
      dim: 1
      dim: 1
    }
    shape {
      dim: 1
      dim: 1
    }
    shape {
      dim: 1
      dim: 1
    }
  }
}
layer {
  name: "embed_encoder"
  type: "InnerProduct"
  bottom: "frames_fc7"
  top: "embedded_in_frames"
  param {
    lr_mult: 1
    decay_mult: 1
  }
  param {
    lr_mult: 2
    decay_mult: 0
  }
  inner_product_param {
    num_output: 500
    weight_filler {
      type: "xavier"
    }
    bias_filler {
      type: "constant"
      value: 0.2
    }
  }
}
layer {
  name: "reshape_frames"
  type: "Reshape"
  bottom: "embedded_in_frames"
  top: "embedded_input_frames"
  reshape_param {
    shape {
      dim: 1
      dim: 1
      dim: 500
    }
  }
}
layer {
  name: "reshape_stage_indicator"
  type: "Reshape"
  bottom: "stage_indicator"
  top: "reshaped_stage_indicator"
  reshape_param {
    shape {
      dim: 1
      dim: 1
      dim: 1
    }
  }
}
layer {
  name: "embedding"
  type: "Embed"
  bottom: "input_sentence"
  top: "embedded_input_sentence"
  param {
    lr_mult: 1
  }
  embed_param {
    num_output: 500
    input_dim: 46168
    bias_term: false
    weight_filler {
      type: "uniform"
      min: -0.08
      max: 0.08
    }
  }
}
layer {
  name: "lstm1"
  type: "LSTM"
  bottom: "embedded_input_frames"
  bottom: "cont_sentence"
  top: "lstm1"
  recurrent_param {
    num_output: 1000
    weight_filler {
      type: "uniform"
      min: -0.08
      max: 0.08
    }
    bias_filler {
      type: "constant"
      value: 0
    }
  }
}
layer {
  name: "concat"
  type: "Concat"
  bottom: "lstm1"
  bottom: "embedded_input_sentence"
  bottom: "reshaped_stage_indicator"
  top: "lstm1_video_sequence"
  concat_param {
    concat_dim: 2
  }
}
layer {
  name: "lstm2"
  type: "LSTM"
  bottom: "lstm1_video_sequence"
  bottom: "cont_sentence"
  top: "lstm2"
  recurrent_param {
    num_output: 1000
    weight_filler {
      type: "uniform"
      min: -0.08
      max: 0.08
    }
    bias_filler {
      type: "constant"
      value: 0
    }
  }
}
layer {
  name: "predict"
  type: "InnerProduct"
  bottom: "lstm2"
  top: "predict"
  param {
    lr_mult: 1
    decay_mult: 1
  }
  param {
    lr_mult: 2
    decay_mult: 0
  }
  inner_product_param {
    num_output: 46168
    weight_filler {
      type: "uniform"
      min: -0.08
      max: 0.08
    }
    bias_filler {
      type: "constant"
      value: 0
    }
    axis: 2
  }
}
layer {
  name: "probs"
  type: "Softmax"
  bottom: "predict"
  top: "probs"
  softmax_param {
    axis: 2
  }
}
I0925 22:26:19.237718 30401 layer_factory.hpp:77] Creating layer input
I0925 22:26:19.237740 30401 net.cpp:91] Creating Layer input
I0925 22:26:19.237753 30401 net.cpp:399] input -> frames_fc7
I0925 22:26:19.237766 30381 layer_factory.hpp:77] Creating layer input
I0925 22:26:19.237772 30401 net.cpp:399] input -> cont_sentence
I0925 22:26:19.237787 30381 net.cpp:91] Creating Layer input
I0925 22:26:19.237792 30401 net.cpp:399] input -> input_sentence
I0925 22:26:19.237802 30381 net.cpp:399] input -> frames_fc7
I0925 22:26:19.237812 30401 net.cpp:399] input -> stage_indicator
I0925 22:26:19.237812 30363 net.cpp:49] Initializing net from parameters: 
name: "s2vt:features_to_lstm"
state {
  phase: TEST
}
layer {
  name: "input"
  type: "Input"
  top: "frames_fc7"
  top: "cont_sentence"
  top: "input_sentence"
  top: "stage_indicator"
  input_param {
    shape {
      dim: 1
      dim: 4096
    }
    shape {
      dim: 1
      dim: 1
    }
    shape {
      dim: 1
      dim: 1
    }
    shape {
      dim: 1
      dim: 1
    }
  }
}
layer {
  name: "embed_encoder"
  type: "InnerProduct"
  bottom: "frames_fc7"
  top: "embedded_in_frames"
  param {
    lr_mult: 1
    decay_mult: 1
  }
  param {
    lr_mult: 2
    decay_mult: 0
  }
  inner_product_param {
    num_output: 500
    weight_filler {
      type: "xavier"
    }
    bias_filler {
      type: "constant"
      value: 0.2
    }
  }
}
layer {
  name: "reshape_frames"
  type: "Reshape"
  bottom: "embedded_in_frames"
  top: "embedded_input_frames"
  reshape_param {
    shape {
      dim: 1
      dim: 1
      dim: 500
    }
  }
}
layer {
  name: "reshape_stage_indicator"
  type: "Reshape"
  bottom: "stage_indicator"
  top: "reshaped_stage_indicator"
  reshape_param {
    shape {
      dim: 1
      dim: 1
      dim: 1
    }
  }
}
layer {
  name: "embedding"
  type: "Embed"
  bottom: "input_sentence"
  top: "embedded_input_sentence"
  param {
    lr_mult: 1
  }
  embed_param {
    num_output: 500
    input_dim: 46168
    bias_term: false
    weight_filler {
      type: "uniform"
      min: -0.08
      max: 0.08
    }
  }
}
layer {
  name: "lstm1"
  type: "LSTM"
  bottom: "embedded_input_frames"
  bottom: "cont_sentence"
  top: "lstm1"
  recurrent_param {
    num_output: 1000
    weight_filler {
      type: "uniform"
      min: -0.08
      max: 0.08
    }
    bias_filler {
      type: "constant"
      value: 0
    }
  }
}
layer {
  name: "concat"
  type: "Concat"
  bottom: "lstm1"
  bottom: "embedded_input_sentence"
  bottom: "reshaped_stage_indicator"
  top: "lstm1_video_sequence"
  concat_param {
    concat_dim: 2
  }
}
layer {
  name: "lstm2"
  type: "LSTM"
  bottom: "lstm1_video_sequence"
  bottom: "cont_sentence"
  top: "lstm2"
  recurrent_param {
    num_output: 1000
    weight_filler {
      type: "uniform"
      min: -0.08
      max: 0.08
    }
    bias_filler {
      type: "constant"
      value: 0
    }
  }
}
layer {
  name: "predict"
  type: "InnerProduct"
  bottom: "lstm2"
  top: "predict"
  param {
    lr_mult: 1
    decay_mult: 1
  }
  param {
    lr_mult: 2
    decay_mult: 0
  }
  inner_product_param {
    num_output: 46168
    weight_filler {
      type: "uniform"
      min: -0.08
      max: 0.08
    }
    bias_filler {
      type: "constant"
      value: 0
    }
    axis: 2
  }
}
layer {
  name: "probs"
  type: "Softmax"
  bottom: "predict"
  top: "probs"
  softmax_param {
    axis: 2
  }
}
I0925 22:26:19.237825 30381 net.cpp:399] input -> cont_sentence
I0925 22:26:19.237865 30381 net.cpp:399] input -> input_sentence
I0925 22:26:19.237879 30381 net.cpp:399] input -> stage_indicator
I0925 22:26:19.237972 30363 layer_factory.hpp:77] Creating layer input
I0925 22:26:19.237995 30363 net.cpp:91] Creating Layer input
I0925 22:26:19.238009 30363 net.cpp:399] input -> frames_fc7
I0925 22:26:19.238019 30373 net.cpp:49] Initializing net from parameters: 
name: "s2vt:features_to_lstm"
state {
  phase: TEST
}
layer {
  name: "input"
  type: "Input"
  top: "frames_fc7"
  top: "cont_sentence"
  top: "input_sentence"
  top: "stage_indicator"
  input_param {
    shape {
      dim: 1
      dim: 4096
    }
    shape {
      dim: 1
      dim: 1
    }
    shape {
      dim: 1
      dim: 1
    }
    shape {
      dim: 1
      dim: 1
    }
  }
}
layer {
  name: "embed_encoder"
  type: "InnerProduct"
  bottom: "frames_fc7"
  top: "embedded_in_frames"
  param {
    lr_mult: 1
    decay_mult: 1
  }
  param {
    lr_mult: 2
    decay_mult: 0
  }
  inner_product_param {
    num_output: 500
    weight_filler {
      type: "xavier"
    }
    bias_filler {
      type: "constant"
      value: 0.2
    }
  }
}
layer {
  name: "reshape_frames"
  type: "Reshape"
  bottom: "embedded_in_frames"
  top: "embedded_input_frames"
  reshape_param {
    shape {
      dim: 1
      dim: 1
      dim: 500
    }
  }
}
layer {
  name: "reshape_stage_indicator"
  type: "Reshape"
  bottom: "stage_indicator"
  top: "reshaped_stage_indicator"
  reshape_param {
    shape {
      dim: 1
      dim: 1
      dim: 1
    }
  }
}
layer {
  name: "embedding"
  type: "Embed"
  bottom: "input_sentence"
  top: "embedded_input_sentence"
  param {
    lr_mult: 1
  }
  embed_param {
    num_output: 500
    input_dim: 46168
    bias_term: false
    weight_filler {
      type: "uniform"
      min: -0.08
      max: 0.08
    }
  }
}
layer {
  name: "lstm1"
  type: "LSTM"
  bottom: "embedded_input_frames"
  bottom: "cont_sentence"
  top: "lstm1"
  recurrent_param {
    num_output: 1000
    weight_filler {
      type: "uniform"
      min: -0.08
      max: 0.08
    }
    bias_filler {
      type: "constant"
      value: 0
    }
  }
}
layer {
  name: "concat"
  type: "Concat"
  bottom: "lstm1"
  bottom: "embedded_input_sentence"
  bottom: "reshaped_stage_indicator"
  top: "lstm1_video_sequence"
  concat_param {
    concat_dim: 2
  }
}
layer {
  name: "lstm2"
  type: "LSTM"
  bottom: "lstm1_video_sequence"
  bottom: "cont_sentence"
  top: "lstm2"
  recurrent_param {
    num_output: 1000
    weight_filler {
      type: "uniform"
      min: -0.08
      max: 0.08
    }
    bias_filler {
      type: "constant"
      value: 0
    }
  }
}
layer {
  name: "predict"
  type: "InnerProduct"
  bottom: "lstm2"
  top: "predict"
  param {
    lr_mult: 1
    decay_mult: 1
  }
  param {
    lr_mult: 2
    decay_mult: 0
  }
  inner_product_param {
    num_output: 46168
    weight_filler {
      type: "uniform"
      min: -0.08
      max: 0.08
    }
    bias_filler {
      type: "constant"
      value: 0
    }
    axis: 2
  }
}
layer {
  name: "probs"
  type: "Softmax"
  bottom: "predict"
  top: "probs"
  softmax_param {
    axis: 2
  }
}
I0925 22:26:19.238036 30363 net.cpp:399] input -> cont_sentence
I0925 22:26:19.238057 30363 net.cpp:399] input -> input_sentence
I0925 22:26:19.238075 30363 net.cpp:399] input -> stage_indicator
I0925 22:26:19.238154 30373 layer_factory.hpp:77] Creating layer input
I0925 22:26:19.238175 30373 net.cpp:91] Creating Layer input
I0925 22:26:19.238188 30373 net.cpp:399] input -> frames_fc7
I0925 22:26:19.238211 30373 net.cpp:399] input -> cont_sentence
I0925 22:26:19.238229 30373 net.cpp:399] input -> input_sentence
I0925 22:26:19.238247 30373 net.cpp:399] input -> stage_indicator
I0925 22:26:19.238293 30375 net.cpp:49] Initializing net from parameters: 
name: "CaffeNet"
state {
  phase: TEST
}
layer {
  name: "data"
  type: "Input"
  top: "data"
  input_param {
    shape {
      dim: 10
      dim: 3
      dim: 227
      dim: 227
    }
  }
}
layer {
  name: "conv1"
  type: "Convolution"
  bottom: "data"
  top: "conv1"
  convolution_param {
    num_output: 96
    kernel_size: 11
    stride: 4
  }
}
layer {
  name: "relu1"
  type: "ReLU"
  bottom: "conv1"
  top: "conv1"
}
layer {
  name: "pool1"
  type: "Pooling"
  bottom: "conv1"
  top: "pool1"
  pooling_param {
    pool: MAX
    kernel_size: 3
    stride: 2
  }
}
layer {
  name: "norm1"
  type: "LRN"
  bottom: "pool1"
  top: "norm1"
  lrn_param {
    local_size: 5
    alpha: 0.0001
    beta: 0.75
  }
}
layer {
  name: "conv2"
  type: "Convolution"
  bottom: "norm1"
  top: "conv2"
  convolution_param {
    num_output: 256
    pad: 2
    kernel_size: 5
    group: 2
  }
}
layer {
  name: "relu2"
  type: "ReLU"
  bottom: "conv2"
  top: "conv2"
}
layer {
  name: "pool2"
  type: "Pooling"
  bottom: "conv2"
  top: "pool2"
  pooling_param {
    pool: MAX
    kernel_size: 3
    stride: 2
  }
}
layer {
  name: "norm2"
  type: "LRN"
  bottom: "pool2"
  top: "norm2"
  lrn_param {
    local_size: 5
    alpha: 0.0001
    beta: 0.75
  }
}
layer {
  name: "conv3"
  type: "Convolution"
  bottom: "norm2"
  top: "conv3"
  convolution_param {
    num_output: 384
    pad: 1
    kernel_size: 3
  }
}
layer {
  name: "relu3"
  type: "ReLU"
  bottom: "conv3"
  top: "conv3"
}
layer {
  name: "conv4"
  type: "Convolution"
  bottom: "conv3"
  top: "conv4"
  convolution_param {
    num_output: 384
    pad: 1
    kernel_size: 3
    group: 2
  }
}
layer {
  name: "relu4"
  type: "ReLU"
  bottom: "conv4"
  top: "conv4"
}
layer {
  name: "conv5"
  type: "Convolution"
  bottom: "conv4"
  top: "conv5"
  convolution_param {
    num_output: 256
    pad: 1
    kernel_size: 3
    group: 2
  }
}
layer {
  name: "relu5"
  type: "ReLU"
  bottom: "conv5"
  top: "conv5"
}
layer {
  name: "pool5"
  type: "Pooling"
  bottom: "conv5"
  top: "pool5"
  pooling_param {
    pool: MAX
    kernel_size: 3
    stride: 2
  }
}
layer {
  name: "fc6"
  type: "InnerProduct"
  bottom: "pool5"
  top: "fc6"
  inner_product_param {
    num_output: 4096
  }
}
layer {
  name: "relu6"
  type: "ReLU"
  bottom: "fc6"
  top: "fc6"
}
layer {
  name: "drop6"
  type: "Dropout"
  bottom: "fc6"
  top: "fc6"
  dropout_param {
    dropout_ratio: 0.5
  }
}
layer {
  name: "fc7"
  type: "InnerProduct"
  bottom: "fc6"
  top: "fc7"
  inner_product_param {
    num_output: 4096
  }
}
layer {
  name: "relu7"
  type: "ReLU"
  bottom: "fc7"
  top: "fc7"
}
layer {
  name: "drop7"
  type: "Dropout"
  bottom: "fc7"
  top: "fc7"
  dropout_param {
    dropout_ratio: 0.5
  }
}
layer {
  name: "fc8"
  type: "InnerProduct"
  bottom: "fc7"
  top: "fc8"
  inner_product_param {
    num_output: 1000
  }
}
layer {
  name: "prob"
  type: "Softmax"
  bottom: "fc8"
  top: "prob"
}
I0925 22:26:19.238461 30375 layer_factory.hpp:77] Creating layer data
I0925 22:26:19.238481 30375 net.cpp:91] Creating Layer data
I0925 22:26:19.238493 30375 net.cpp:399] data -> data
I0925 22:26:20.092983 30407 net.cpp:141] Setting up input
I0925 22:26:20.093066 30381 net.cpp:141] Setting up input
I0925 22:26:20.093082 30407 net.cpp:148] Top shape: 1 4096 (4096)
I0925 22:26:20.093086 30381 net.cpp:148] Top shape: 1 4096 (4096)
I0925 22:26:20.093097 30407 net.cpp:148] Top shape: 1 1 (1)
I0925 22:26:20.093101 30381 net.cpp:148] Top shape: 1 1 (1)
I0925 22:26:20.093104 30407 net.cpp:148] Top shape: 1 1 (1)
I0925 22:26:20.093107 30381 net.cpp:148] Top shape: 1 1 (1)
I0925 22:26:20.093111 30407 net.cpp:148] Top shape: 1 1 (1)
I0925 22:26:20.093113 30381 net.cpp:148] Top shape: 1 1 (1)
I0925 22:26:20.093116 30407 net.cpp:156] Memory required for data: 16396
I0925 22:26:20.093117 30381 net.cpp:156] Memory required for data: 16396
I0925 22:26:20.093137 30407 layer_factory.hpp:77] Creating layer cont_sentence_input_1_split
I0925 22:26:20.093138 30381 layer_factory.hpp:77] Creating layer cont_sentence_input_1_split
I0925 22:26:20.093168 30407 net.cpp:91] Creating Layer cont_sentence_input_1_split
I0925 22:26:20.093168 30381 net.cpp:91] Creating Layer cont_sentence_input_1_split
I0925 22:26:20.093160 30375 net.cpp:141] Setting up data
I0925 22:26:20.093180 30407 net.cpp:425] cont_sentence_input_1_split <- cont_sentence
I0925 22:26:20.093181 30381 net.cpp:425] cont_sentence_input_1_split <- cont_sentence
I0925 22:26:20.093205 30375 net.cpp:148] Top shape: 10 3 227 227 (1545870)
I0925 22:26:20.093216 30375 net.cpp:156] Memory required for data: 6183480
I0925 22:26:20.093219 30381 net.cpp:399] cont_sentence_input_1_split -> cont_sentence_input_1_split_0
I0925 22:26:20.093219 30407 net.cpp:399] cont_sentence_input_1_split -> cont_sentence_input_1_split_0
I0925 22:26:20.093231 30375 layer_factory.hpp:77] Creating layer conv1
I0925 22:26:20.093243 30407 net.cpp:399] cont_sentence_input_1_split -> cont_sentence_input_1_split_1
I0925 22:26:20.093243 30381 net.cpp:399] cont_sentence_input_1_split -> cont_sentence_input_1_split_1
I0925 22:26:20.093253 30369 net.cpp:141] Setting up input
I0925 22:26:20.093273 30369 net.cpp:148] Top shape: 1 4096 (4096)
I0925 22:26:20.093281 30369 net.cpp:148] Top shape: 1 1 (1)
I0925 22:26:20.093283 30375 net.cpp:91] Creating Layer conv1
I0925 22:26:20.093302 30375 net.cpp:425] conv1 <- data
I0925 22:26:20.093286 30369 net.cpp:148] Top shape: 1 1 (1)
I0925 22:26:20.093318 30375 net.cpp:399] conv1 -> conv1
I0925 22:26:20.093330 30369 net.cpp:148] Top shape: 1 1 (1)
I0925 22:26:20.093338 30369 net.cpp:156] Memory required for data: 16396
I0925 22:26:20.093343 30369 layer_factory.hpp:77] Creating layer cont_sentence_input_1_split
I0925 22:26:20.093354 30369 net.cpp:91] Creating Layer cont_sentence_input_1_split
I0925 22:26:20.093360 30369 net.cpp:425] cont_sentence_input_1_split <- cont_sentence
I0925 22:26:20.093367 30369 net.cpp:399] cont_sentence_input_1_split -> cont_sentence_input_1_split_0
I0925 22:26:20.093377 30369 net.cpp:399] cont_sentence_input_1_split -> cont_sentence_input_1_split_1
I0925 22:26:20.093446 30381 net.cpp:141] Setting up cont_sentence_input_1_split
I0925 22:26:20.093458 30381 net.cpp:148] Top shape: 1 1 (1)
I0925 22:26:20.093464 30381 net.cpp:148] Top shape: 1 1 (1)
I0925 22:26:20.093469 30381 net.cpp:156] Memory required for data: 16404
I0925 22:26:20.093475 30381 layer_factory.hpp:77] Creating layer embed_encoder
I0925 22:26:20.093497 30381 net.cpp:91] Creating Layer embed_encoder
I0925 22:26:20.093502 30381 net.cpp:425] embed_encoder <- frames_fc7
I0925 22:26:20.093513 30381 net.cpp:399] embed_encoder -> embedded_in_frames
I0925 22:26:20.093544 30367 net.cpp:141] Setting up input
I0925 22:26:20.093559 30367 net.cpp:148] Top shape: 1 4096 (4096)
I0925 22:26:20.093565 30367 net.cpp:148] Top shape: 1 1 (1)
I0925 22:26:20.093570 30367 net.cpp:148] Top shape: 1 1 (1)
I0925 22:26:20.093576 30367 net.cpp:148] Top shape: 1 1 (1)
I0925 22:26:20.093580 30367 net.cpp:156] Memory required for data: 16396
I0925 22:26:20.093586 30367 layer_factory.hpp:77] Creating layer cont_sentence_input_1_split
I0925 22:26:20.093595 30367 net.cpp:91] Creating Layer cont_sentence_input_1_split
I0925 22:26:20.093600 30367 net.cpp:425] cont_sentence_input_1_split <- cont_sentence
I0925 22:26:20.093608 30367 net.cpp:399] cont_sentence_input_1_split -> cont_sentence_input_1_split_0
I0925 22:26:20.093611 30369 net.cpp:141] Setting up cont_sentence_input_1_split
I0925 22:26:20.093618 30367 net.cpp:399] cont_sentence_input_1_split -> cont_sentence_input_1_split_1
I0925 22:26:20.093627 30369 net.cpp:148] Top shape: 1 1 (1)
I0925 22:26:20.093639 30369 net.cpp:148] Top shape: 1 1 (1)
I0925 22:26:20.093647 30369 net.cpp:156] Memory required for data: 16404
I0925 22:26:20.093657 30369 layer_factory.hpp:77] Creating layer embed_encoder
I0925 22:26:20.093675 30369 net.cpp:91] Creating Layer embed_encoder
I0925 22:26:20.093685 30369 net.cpp:425] embed_encoder <- frames_fc7
I0925 22:26:20.093700 30369 net.cpp:399] embed_encoder -> embedded_in_frames
I0925 22:26:20.093753 30407 net.cpp:141] Setting up cont_sentence_input_1_split
I0925 22:26:20.093765 30407 net.cpp:148] Top shape: 1 1 (1)
I0925 22:26:20.093770 30407 net.cpp:148] Top shape: 1 1 (1)
I0925 22:26:20.093775 30407 net.cpp:156] Memory required for data: 16404
I0925 22:26:20.093780 30407 layer_factory.hpp:77] Creating layer embed_encoder
I0925 22:26:20.093791 30407 net.cpp:91] Creating Layer embed_encoder
I0925 22:26:20.093796 30407 net.cpp:425] embed_encoder <- frames_fc7
I0925 22:26:20.093809 30407 net.cpp:399] embed_encoder -> embedded_in_frames
I0925 22:26:20.093822 30367 net.cpp:141] Setting up cont_sentence_input_1_split
I0925 22:26:20.093838 30367 net.cpp:148] Top shape: 1 1 (1)
I0925 22:26:20.093844 30367 net.cpp:148] Top shape: 1 1 (1)
I0925 22:26:20.093849 30367 net.cpp:156] Memory required for data: 16404
I0925 22:26:20.093854 30367 layer_factory.hpp:77] Creating layer embed_encoder
I0925 22:26:20.093865 30367 net.cpp:91] Creating Layer embed_encoder
I0925 22:26:20.093871 30367 net.cpp:425] embed_encoder <- frames_fc7
I0925 22:26:20.093881 30367 net.cpp:399] embed_encoder -> embedded_in_frames
I0925 22:26:20.093955 30373 net.cpp:141] Setting up input
I0925 22:26:20.093969 30373 net.cpp:148] Top shape: 1 4096 (4096)
I0925 22:26:20.093976 30373 net.cpp:148] Top shape: 1 1 (1)
I0925 22:26:20.093981 30373 net.cpp:148] Top shape: 1 1 (1)
I0925 22:26:20.093987 30373 net.cpp:148] Top shape: 1 1 (1)
I0925 22:26:20.093991 30373 net.cpp:156] Memory required for data: 16396
I0925 22:26:20.093997 30373 layer_factory.hpp:77] Creating layer cont_sentence_input_1_split
I0925 22:26:20.094007 30373 net.cpp:91] Creating Layer cont_sentence_input_1_split
I0925 22:26:20.094012 30373 net.cpp:425] cont_sentence_input_1_split <- cont_sentence
I0925 22:26:20.094019 30373 net.cpp:399] cont_sentence_input_1_split -> cont_sentence_input_1_split_0
I0925 22:26:20.094038 30373 net.cpp:399] cont_sentence_input_1_split -> cont_sentence_input_1_split_1
I0925 22:26:20.098033 30401 net.cpp:141] Setting up input
I0925 22:26:20.098117 30401 net.cpp:148] Top shape: 1 4096 (4096)
I0925 22:26:20.098142 30401 net.cpp:148] Top shape: 1 1 (1)
I0925 22:26:20.098161 30401 net.cpp:148] Top shape: 1 1 (1)
I0925 22:26:20.098179 30401 net.cpp:148] Top shape: 1 1 (1)
I0925 22:26:20.098189 30401 net.cpp:156] Memory required for data: 16396
I0925 22:26:20.098203 30401 layer_factory.hpp:77] Creating layer cont_sentence_input_1_split
I0925 22:26:20.098224 30401 net.cpp:91] Creating Layer cont_sentence_input_1_split
I0925 22:26:20.098235 30401 net.cpp:425] cont_sentence_input_1_split <- cont_sentence
I0925 22:26:20.098253 30401 net.cpp:399] cont_sentence_input_1_split -> cont_sentence_input_1_split_0
I0925 22:26:20.098271 30401 net.cpp:399] cont_sentence_input_1_split -> cont_sentence_input_1_split_1
I0925 22:26:20.115633 30363 net.cpp:141] Setting up input
I0925 22:26:20.115707 30373 net.cpp:141] Setting up cont_sentence_input_1_split
I0925 22:26:20.115707 30363 net.cpp:148] Top shape: 1 4096 (4096)
I0925 22:26:20.115744 30373 net.cpp:148] Top shape: 1 1 (1)
I0925 22:26:20.115759 30373 net.cpp:148] Top shape: 1 1 (1)
I0925 22:26:20.115767 30373 net.cpp:156] Memory required for data: 16404
I0925 22:26:20.115767 30363 net.cpp:148] Top shape: 1 1 (1)
I0925 22:26:20.115783 30373 layer_factory.hpp:77] Creating layer embed_encoder
I0925 22:26:20.115792 30363 net.cpp:148] Top shape: 1 1 (1)
I0925 22:26:20.115809 30363 net.cpp:148] Top shape: 1 1 (1)
I0925 22:26:20.115818 30373 net.cpp:91] Creating Layer embed_encoder
I0925 22:26:20.115821 30363 net.cpp:156] Memory required for data: 16396
I0925 22:26:20.115834 30373 net.cpp:425] embed_encoder <- frames_fc7
I0925 22:26:20.115839 30363 layer_factory.hpp:77] Creating layer cont_sentence_input_1_split
I0925 22:26:20.115859 30373 net.cpp:399] embed_encoder -> embedded_in_frames
I0925 22:26:20.115880 30363 net.cpp:91] Creating Layer cont_sentence_input_1_split
I0925 22:26:20.115901 30363 net.cpp:425] cont_sentence_input_1_split <- cont_sentence
I0925 22:26:20.115926 30363 net.cpp:399] cont_sentence_input_1_split -> cont_sentence_input_1_split_0
I0925 22:26:20.115962 30363 net.cpp:399] cont_sentence_input_1_split -> cont_sentence_input_1_split_1
I0925 22:26:20.128772 30363 net.cpp:141] Setting up cont_sentence_input_1_split
I0925 22:26:20.128772 30401 net.cpp:141] Setting up cont_sentence_input_1_split
I0925 22:26:20.128840 30363 net.cpp:148] Top shape: 1 1 (1)
I0925 22:26:20.128840 30401 net.cpp:148] Top shape: 1 1 (1)
I0925 22:26:20.128859 30363 net.cpp:148] Top shape: 1 1 (1)
I0925 22:26:20.128864 30401 net.cpp:148] Top shape: 1 1 (1)
I0925 22:26:20.128866 30363 net.cpp:156] Memory required for data: 16404
I0925 22:26:20.128871 30401 net.cpp:156] Memory required for data: 16404
I0925 22:26:20.128878 30363 layer_factory.hpp:77] Creating layer embed_encoder
I0925 22:26:20.128881 30401 layer_factory.hpp:77] Creating layer embed_encoder
I0925 22:26:20.128911 30363 net.cpp:91] Creating Layer embed_encoder
I0925 22:26:20.128911 30401 net.cpp:91] Creating Layer embed_encoder
I0925 22:26:20.128928 30363 net.cpp:425] embed_encoder <- frames_fc7
I0925 22:26:20.128932 30401 net.cpp:425] embed_encoder <- frames_fc7
I0925 22:26:20.128945 30363 net.cpp:399] embed_encoder -> embedded_in_frames
I0925 22:26:20.129029 30401 net.cpp:399] embed_encoder -> embedded_in_frames
I0925 22:26:20.129060 30381 net.cpp:141] Setting up embed_encoder
I0925 22:26:20.129076 30381 net.cpp:148] Top shape: 1 500 (500)
I0925 22:26:20.129083 30381 net.cpp:156] Memory required for data: 18404
I0925 22:26:20.129345 30381 layer_factory.hpp:77] Creating layer reshape_frames
I0925 22:26:20.129387 30381 net.cpp:91] Creating Layer reshape_frames
I0925 22:26:20.129400 30381 net.cpp:425] reshape_frames <- embedded_in_frames
I0925 22:26:20.129415 30381 net.cpp:399] reshape_frames -> embedded_input_frames
I0925 22:26:20.135211 30381 net.cpp:141] Setting up reshape_frames
I0925 22:26:20.135257 30381 net.cpp:148] Top shape: 1 1 500 (500)
I0925 22:26:20.135262 30381 net.cpp:156] Memory required for data: 20404
I0925 22:26:20.135270 30381 layer_factory.hpp:77] Creating layer reshape_stage_indicator
I0925 22:26:20.135291 30381 net.cpp:91] Creating Layer reshape_stage_indicator
I0925 22:26:20.135299 30381 net.cpp:425] reshape_stage_indicator <- stage_indicator
I0925 22:26:20.135311 30381 net.cpp:399] reshape_stage_indicator -> reshaped_stage_indicator
I0925 22:26:20.140017 30381 net.cpp:141] Setting up reshape_stage_indicator
I0925 22:26:20.140064 30381 net.cpp:148] Top shape: 1 1 1 (1)
I0925 22:26:20.140072 30381 net.cpp:156] Memory required for data: 20408
I0925 22:26:20.140081 30381 layer_factory.hpp:77] Creating layer embedding
I0925 22:26:20.140102 30381 net.cpp:91] Creating Layer embedding
I0925 22:26:20.140111 30381 net.cpp:425] embedding <- input_sentence
I0925 22:26:20.140126 30381 net.cpp:399] embedding -> embedded_input_sentence
I0925 22:26:20.140202 30407 net.cpp:141] Setting up embed_encoder
I0925 22:26:20.140235 30407 net.cpp:148] Top shape: 1 500 (500)
I0925 22:26:20.140242 30407 net.cpp:156] Memory required for data: 18404
I0925 22:26:20.140272 30407 layer_factory.hpp:77] Creating layer reshape_frames
I0925 22:26:20.140300 30407 net.cpp:91] Creating Layer reshape_frames
I0925 22:26:20.140312 30407 net.cpp:425] reshape_frames <- embedded_in_frames
I0925 22:26:20.140329 30407 net.cpp:399] reshape_frames -> embedded_input_frames
I0925 22:26:20.187777 30369 net.cpp:141] Setting up embed_encoder
I0925 22:26:20.187829 30369 net.cpp:148] Top shape: 1 500 (500)
I0925 22:26:20.187839 30369 net.cpp:156] Memory required for data: 18404
I0925 22:26:20.187863 30369 layer_factory.hpp:77] Creating layer reshape_frames
I0925 22:26:20.187888 30369 net.cpp:91] Creating Layer reshape_frames
I0925 22:26:20.187899 30369 net.cpp:425] reshape_frames <- embedded_in_frames
I0925 22:26:20.187916 30369 net.cpp:399] reshape_frames -> embedded_input_frames
I0925 22:26:20.187973 30369 net.cpp:141] Setting up reshape_frames
I0925 22:26:20.187985 30369 net.cpp:148] Top shape: 1 1 500 (500)
I0925 22:26:20.187994 30369 net.cpp:156] Memory required for data: 20404
I0925 22:26:20.188001 30369 layer_factory.hpp:77] Creating layer reshape_stage_indicator
I0925 22:26:20.188016 30369 net.cpp:91] Creating Layer reshape_stage_indicator
I0925 22:26:20.188024 30369 net.cpp:425] reshape_stage_indicator <- stage_indicator
I0925 22:26:20.188040 30369 net.cpp:399] reshape_stage_indicator -> reshaped_stage_indicator
I0925 22:26:20.188091 30369 net.cpp:141] Setting up reshape_stage_indicator
I0925 22:26:20.188104 30369 net.cpp:148] Top shape: 1 1 1 (1)
I0925 22:26:20.188112 30369 net.cpp:156] Memory required for data: 20408
I0925 22:26:20.188119 30369 layer_factory.hpp:77] Creating layer embedding
I0925 22:26:20.188135 30369 net.cpp:91] Creating Layer embedding
I0925 22:26:20.188144 30369 net.cpp:425] embedding <- input_sentence
I0925 22:26:20.188158 30369 net.cpp:399] embedding -> embedded_input_sentence
I0925 22:26:20.238363 30407 net.cpp:141] Setting up reshape_frames
I0925 22:26:20.238420 30407 net.cpp:148] Top shape: 1 1 500 (500)
I0925 22:26:20.238430 30407 net.cpp:156] Memory required for data: 20404
I0925 22:26:20.238437 30407 layer_factory.hpp:77] Creating layer reshape_stage_indicator
I0925 22:26:20.238458 30407 net.cpp:91] Creating Layer reshape_stage_indicator
I0925 22:26:20.238466 30407 net.cpp:425] reshape_stage_indicator <- stage_indicator
I0925 22:26:20.238478 30407 net.cpp:399] reshape_stage_indicator -> reshaped_stage_indicator
I0925 22:26:20.238543 30407 net.cpp:141] Setting up reshape_stage_indicator
I0925 22:26:20.238559 30407 net.cpp:148] Top shape: 1 1 1 (1)
I0925 22:26:20.238566 30407 net.cpp:156] Memory required for data: 20408
I0925 22:26:20.238575 30407 layer_factory.hpp:77] Creating layer embedding
I0925 22:26:20.238592 30407 net.cpp:91] Creating Layer embedding
I0925 22:26:20.238617 30407 net.cpp:425] embedding <- input_sentence
I0925 22:26:20.238634 30407 net.cpp:399] embedding -> embedded_input_sentence
I0925 22:26:20.238710 30367 net.cpp:141] Setting up embed_encoder
I0925 22:26:20.238732 30367 net.cpp:148] Top shape: 1 500 (500)
I0925 22:26:20.238740 30367 net.cpp:156] Memory required for data: 18404
I0925 22:26:20.238767 30367 layer_factory.hpp:77] Creating layer reshape_frames
I0925 22:26:20.238770 30373 net.cpp:141] Setting up embed_encoder
I0925 22:26:20.238785 30367 net.cpp:91] Creating Layer reshape_frames
I0925 22:26:20.238792 30373 net.cpp:148] Top shape: 1 500 (500)
I0925 22:26:20.238795 30367 net.cpp:425] reshape_frames <- embedded_in_frames
I0925 22:26:20.238801 30373 net.cpp:156] Memory required for data: 18404
I0925 22:26:20.238811 30367 net.cpp:399] reshape_frames -> embedded_input_frames
I0925 22:26:20.238821 30373 layer_factory.hpp:77] Creating layer reshape_frames
I0925 22:26:20.238833 30373 net.cpp:91] Creating Layer reshape_frames
I0925 22:26:20.238839 30373 net.cpp:425] reshape_frames <- embedded_in_frames
I0925 22:26:20.238848 30373 net.cpp:399] reshape_frames -> embedded_input_frames
I0925 22:26:20.238910 30373 net.cpp:141] Setting up reshape_frames
I0925 22:26:20.238921 30373 net.cpp:148] Top shape: 1 1 500 (500)
I0925 22:26:20.238925 30373 net.cpp:156] Memory required for data: 20404
I0925 22:26:20.238930 30373 layer_factory.hpp:77] Creating layer reshape_stage_indicator
I0925 22:26:20.238941 30373 net.cpp:91] Creating Layer reshape_stage_indicator
I0925 22:26:20.238946 30373 net.cpp:425] reshape_stage_indicator <- stage_indicator
I0925 22:26:20.238955 30373 net.cpp:399] reshape_stage_indicator -> reshaped_stage_indicator
I0925 22:26:20.238952 30367 net.cpp:141] Setting up reshape_frames
I0925 22:26:20.238968 30367 net.cpp:148] Top shape: 1 1 500 (500)
I0925 22:26:20.238976 30367 net.cpp:156] Memory required for data: 20404
I0925 22:26:20.238984 30367 layer_factory.hpp:77] Creating layer reshape_stage_indicator
I0925 22:26:20.239004 30367 net.cpp:91] Creating Layer reshape_stage_indicator
I0925 22:26:20.239013 30367 net.cpp:425] reshape_stage_indicator <- stage_indicator
I0925 22:26:20.239027 30367 net.cpp:399] reshape_stage_indicator -> reshaped_stage_indicator
I0925 22:26:20.239099 30367 net.cpp:141] Setting up reshape_stage_indicator
I0925 22:26:20.239095 30363 net.cpp:141] Setting up embed_encoder
I0925 22:26:20.239136 30367 net.cpp:148] Top shape: 1 1 1 (1)
I0925 22:26:20.239166 30363 net.cpp:148] Top shape: 1 500 (500)
I0925 22:26:20.239166 30367 net.cpp:156] Memory required for data: 20408
I0925 22:26:20.239190 30363 net.cpp:156] Memory required for data: 18404
I0925 22:26:20.239198 30367 layer_factory.hpp:77] Creating layer embedding
I0925 22:26:20.239214 30367 net.cpp:91] Creating Layer embedding
I0925 22:26:20.239223 30367 net.cpp:425] embedding <- input_sentence
I0925 22:26:20.239222 30363 layer_factory.hpp:77] Creating layer reshape_frames
I0925 22:26:20.239243 30367 net.cpp:399] embedding -> embedded_input_sentence
I0925 22:26:20.239258 30363 net.cpp:91] Creating Layer reshape_frames
I0925 22:26:20.239270 30363 net.cpp:425] reshape_frames <- embedded_in_frames
I0925 22:26:20.239285 30363 net.cpp:399] reshape_frames -> embedded_input_frames
I0925 22:26:20.357287 30373 net.cpp:141] Setting up reshape_stage_indicator
I0925 22:26:20.357377 30373 net.cpp:148] Top shape: 1 1 1 (1)
I0925 22:26:20.357391 30373 net.cpp:156] Memory required for data: 20408
I0925 22:26:20.357406 30373 layer_factory.hpp:77] Creating layer embedding
I0925 22:26:20.357440 30373 net.cpp:91] Creating Layer embedding
I0925 22:26:20.357455 30373 net.cpp:425] embedding <- input_sentence
I0925 22:26:20.357478 30373 net.cpp:399] embedding -> embedded_input_sentence
I0925 22:26:20.413113 30363 net.cpp:141] Setting up reshape_frames
I0925 22:26:20.413172 30363 net.cpp:148] Top shape: 1 1 500 (500)
I0925 22:26:20.413183 30363 net.cpp:156] Memory required for data: 20404
I0925 22:26:20.413197 30363 layer_factory.hpp:77] Creating layer reshape_stage_indicator
I0925 22:26:20.413233 30363 net.cpp:91] Creating Layer reshape_stage_indicator
I0925 22:26:20.413249 30363 net.cpp:425] reshape_stage_indicator <- stage_indicator
I0925 22:26:20.413278 30363 net.cpp:399] reshape_stage_indicator -> reshaped_stage_indicator
I0925 22:26:20.413357 30363 net.cpp:141] Setting up reshape_stage_indicator
I0925 22:26:20.413374 30363 net.cpp:148] Top shape: 1 1 1 (1)
I0925 22:26:20.413383 30363 net.cpp:156] Memory required for data: 20408
I0925 22:26:20.413390 30363 layer_factory.hpp:77] Creating layer embedding
I0925 22:26:20.413413 30363 net.cpp:91] Creating Layer embedding
I0925 22:26:20.413421 30363 net.cpp:425] embedding <- input_sentence
I0925 22:26:20.413440 30363 net.cpp:399] embedding -> embedded_input_sentence
I0925 22:26:20.463315 30401 net.cpp:141] Setting up embed_encoder
I0925 22:26:20.463402 30401 net.cpp:148] Top shape: 1 500 (500)
I0925 22:26:20.463426 30401 net.cpp:156] Memory required for data: 18404
I0925 22:26:20.463506 30401 layer_factory.hpp:77] Creating layer reshape_frames
I0925 22:26:20.463563 30401 net.cpp:91] Creating Layer reshape_frames
I0925 22:26:20.463590 30401 net.cpp:425] reshape_frames <- embedded_in_frames
I0925 22:26:20.463618 30401 net.cpp:399] reshape_frames -> embedded_input_frames
I0925 22:26:20.465688 30369 net.cpp:141] Setting up embedding
I0925 22:26:20.465750 30369 net.cpp:148] Top shape: 1 1 500 (500)
I0925 22:26:20.465761 30369 net.cpp:156] Memory required for data: 22408
I0925 22:26:20.465771 30401 net.cpp:141] Setting up reshape_frames
I0925 22:26:20.465813 30401 net.cpp:148] Top shape: 1 1 500 (500)
I0925 22:26:20.465819 30401 net.cpp:156] Memory required for data: 20404
I0925 22:26:20.465827 30401 layer_factory.hpp:77] Creating layer reshape_stage_indicator
I0925 22:26:20.465853 30401 net.cpp:91] Creating Layer reshape_stage_indicator
I0925 22:26:20.465862 30401 net.cpp:425] reshape_stage_indicator <- stage_indicator
I0925 22:26:20.465865 30381 net.cpp:141] Setting up embedding
I0925 22:26:20.465874 30401 net.cpp:399] reshape_stage_indicator -> reshaped_stage_indicator
I0925 22:26:20.465884 30381 net.cpp:148] Top shape: 1 1 500 (500)
I0925 22:26:20.465895 30381 net.cpp:156] Memory required for data: 22408
I0925 22:26:20.465914 30381 layer_factory.hpp:77] Creating layer lstm1
I0925 22:26:20.465939 30381 net.cpp:91] Creating Layer lstm1
I0925 22:26:20.465951 30381 net.cpp:425] lstm1 <- embedded_input_frames
I0925 22:26:20.465956 30401 net.cpp:141] Setting up reshape_stage_indicator
I0925 22:26:20.465965 30381 net.cpp:425] lstm1 <- cont_sentence_input_1_split_0
I0925 22:26:20.465973 30401 net.cpp:148] Top shape: 1 1 1 (1)
I0925 22:26:20.465981 30401 net.cpp:156] Memory required for data: 20408
I0925 22:26:20.465983 30381 net.cpp:399] lstm1 -> lstm1
I0925 22:26:20.465987 30401 layer_factory.hpp:77] Creating layer embedding
I0925 22:26:20.465788 30369 layer_factory.hpp:77] Creating layer lstm1
I0925 22:26:20.466063 30369 net.cpp:91] Creating Layer lstm1
I0925 22:26:20.466068 30401 net.cpp:91] Creating Layer embedding
…
I0925 22:26:20.466325 30381 recurrent_layer.cpp:20] Initializing recurrent layer: assuming input batch contains 1 timesteps of 1 independent streams.
I0925 22:26:20.466749 30369 net.cpp:49] Initializing net from parameters: 
layer {
  name: "lstm1_"
  type: "Input"
  top: "x"
  top: "cont"
  input_param {
    shape {
      dim: 1
      dim: 1
      dim: 500
    }
    shape {
      dim: 1
      dim: 1
    }
  }
}
layer {
  name: "lstm1_"
  type: "Input"
  top: "c_0"
  top: "h_0"
  input_param {
    shape {
      dim: 1
      dim: 1
      dim: 1000
    }
    shape {
      dim: 1
      dim: 1
      dim: 1000
    }
  }
}
layer {
  name: "lstm1_cont_slice"
  type: "Slice"
  bottom: "cont"
  top: "cont_1"
  slice_param {
    axis: 0
  }
}
layer {
  name: "lstm1_x_transform"
  type: "InnerProduct"
  bottom: "x"
  top: "W_xc_x"
  param {
    name: "W_xc"
  }
  param {
    name: "b_c"
  }
  propagate_down: true
  inner_product_param {
    num_output: 4000
    bias_term: true
    weight_filler {
      type: "uniform"
      min: -0.08
      max: 0.08
    }
    bias_filler {
      type: "constant"
      value: 0
    }
    axis: 2
  }
}
layer {
  name: "lstm1_W_xc_x_slice"
  type: "Slice"
  bottom: "W_xc_x"
  top: "W_xc_x_1"
  slice_param {
    axis: 0
  }
}
layer {
  name: "lstm1_h_conted_0"
  type: "Scale"
  bottom: "h_0"
  bottom: "cont_1"
  top: "h_conted_0"
  scale_param {
    axis: 0
  }
}
layer {
  name: "lstm1_transform_1"
  type: "InnerProduct"
  bottom: "h_conted_0"
  top: "W_hc_h_0"
  param {
    name: "W_hc"
  }
  inner_product_param {
    num_output: 4000
    bias_term: false
    weight_filler {
      type: "uniform"
      min: -0.08
      max: 0.08
    }
    axis: 2
  }
}
layer {
  name: "lstm1_gate_input_1"
  type: "Eltwise"
  bottom: "W_hc_h_0"
  bottom: "W_xc_x_1"
  top: "gate_input_1"
  eltwise_param {
    operation: SUM
  }
}
layer {
  name: "lstm1_unit_1"
  type: "LSTMUnit"
  bottom: "c_0"
  bottom: "gate_input_1"
  bottom: "cont_1"
  top: "c_1"
  top: "h_1"
}
layer {
  name: "lstm1_"
  type: "Split"
  bottom: "c_1"
  top: "c_T"
}
layer {
  name: "lstm1_h_concat"
  type: "Concat"
  bottom: "h_1"
  top: "h"
  concat_param {
    axis: 0
  }
}
layer {
  name: "h_pseudoloss"
  type: "Reduction"
  bottom: "h"
  top: "h_pseudoloss"
  loss_weight: 1
}
I0925 22:26:20.466753 30381 net.cpp:49] Initializing net from parameters: 
layer {
  name: "lstm1_"
  type: "Input"
  top: "x"
  top: "cont"
  input_param {
    shape {
      dim: 1
      dim: 1
      dim: 500
    }
    shape {
      dim: 1
      dim: 1
    }
  }
}
layer {
  name: "lstm1_"
  type: "Input"
  top: "c_0"
  top: "h_0"
  input_param {
    shape {
      dim: 1
      dim: 1
      dim: 1000
    }
    shape {
      dim: 1
      dim: 1
      dim: 1000
    }
  }
}
layer {
  name: "lstm1_cont_slice"
  type: "Slice"
  bottom: "cont"
  top: "cont_1"
  slice_param {
    axis: 0
  }
}
layer {
  name: "lstm1_x_transform"
  type: "InnerProduct"
  bottom: "x"
  top: "W_xc_x"
  param {
    name: "W_xc"
  }
  param {
    name: "b_c"
  }
  propagate_down: true
  inner_product_param {
    num_output: 4000
    bias_term: true
    weight_filler {
      type: "uniform"
      min: -0.08
      max: 0.08
    }
    bias_filler {
      type: "constant"
      value: 0
    }
    axis: 2
  }
}
layer {
  name: "lstm1_W_xc_x_slice"
  type: "Slice"
  bottom: "W_xc_x"
  top: "W_xc_x_1"
  slice_param {
    axis: 0
  }
}
layer {
  name: "lstm1_h_conted_0"
  type: "Scale"
  bottom: "h_0"
  bottom: "cont_1"
  top: "h_conted_0"
  scale_param {
    axis: 0
  }
}
layer {
  name: "lstm1_transform_1"
  type: "InnerProduct"
  bottom: "h_conted_0"
  top: "W_hc_h_0"
  param {
    name: "W_hc"
  }
  inner_product_param {
    num_output: 4000
    bias_term: false
    weight_filler {
      type: "uniform"
      min: -0.08
      max: 0.08
    }
    axis: 2
  }
}
layer {
  name: "lstm1_gate_input_1"
  type: "Eltwise"
  bottom: "W_hc_h_0"
  bottom: "W_xc_x_1"
  top: "gate_input_1"
  eltwise_param {
    operation: SUM
  }
}
layer {
  name: "lstm1_unit_1"
  type: "LSTMUnit"
  bottom: "c_0"
  bottom: "gate_input_1"
  bottom: "cont_1"
  top: "c_1"
  top: "h_1"
}
layer {
  name: "lstm1_"
  type: "Split"
  bottom: "c_1"
  top: "c_T"
}
layer {
  name: "lstm1_h_concat"
  type: "Concat"
  bottom: "h_1"
  top: "h"
  concat_param {
    axis: 0
  }
}
layer {
  name: "h_pseudoloss"
  type: "Reduction"
  bottom: "h"
  top: "h_pseudoloss"
  loss_weight: 1
}
I0925 22:26:20.466907 30381 layer_factory.hpp:77] Creating layer lstm1_
I0925 22:26:20.466913 30369 layer_factory.hpp:77] Creating layer lstm1_
I0925 22:26:20.466929 30381 net.cpp:91] Creating Layer lstm1_
I0925 22:26:20.466933 30369 net.cpp:91] Creating Layer lstm1_
I0925 22:26:20.466943 30381 net.cpp:399] lstm1_ -> x
I0925 22:26:20.466945 30369 net.cpp:399] lstm1_ -> x
I0925 22:26:20.466962 30381 net.cpp:399] lstm1_ -> cont
I0925 22:26:20.466964 30369 net.cpp:399] lstm1_ -> cont
I0925 22:26:20.472270 30381 net.cpp:141] Setting up lstm1_
I0925 22:26:20.472292 30381 net.cpp:148] Top shape: 1 1 500 (500)
I0925 22:26:20.472301 30381 net.cpp:148] Top shape: 1 1 (1)
I0925 22:26:20.472304 30381 net.cpp:156] Memory required for data: 2004
I0925 22:26:20.472311 30381 layer_factory.hpp:77] Creating layer lstm1_
I0925 22:26:20.472322 30381 net.cpp:91] Creating Layer lstm1_
I0925 22:26:20.472334 30381 net.cpp:399] lstm1_ -> c_0
I0925 22:26:20.472348 30381 net.cpp:399] lstm1_ -> h_0
I0925 22:26:20.514430 30381 net.cpp:141] Setting up lstm1_
I0925 22:26:20.515220 30381 net.cpp:148] Top shape: 1 1 1000 (1000)
I0925 22:26:20.515252 30381 net.cpp:148] Top shape: 1 1 1000 (1000)
I0925 22:26:20.515261 30381 net.cpp:156] Memory required for data: 10004
I0925 22:26:20.515272 30381 layer_factory.hpp:77] Creating layer lstm1_cont_slice
I0925 22:26:20.515841 30381 net.cpp:91] Creating Layer lstm1_cont_slice
I0925 22:26:20.515879 30381 net.cpp:425] lstm1_cont_slice <- cont
I0925 22:26:20.515902 30381 net.cpp:399] lstm1_cont_slice -> cont_1
I0925 22:26:20.515995 30381 net.cpp:141] Setting up lstm1_cont_slice
I0925 22:26:20.516013 30381 net.cpp:148] Top shape: 1 1 (1)
I0925 22:26:20.516021 30381 net.cpp:156] Memory required for data: 10008
I0925 22:26:20.516028 30381 layer_factory.hpp:77] Creating layer cont_1_lstm1_cont_slice_0_split
I0925 22:26:20.516046 30381 net.cpp:91] Creating Layer cont_1_lstm1_cont_slice_0_split
I0925 22:26:20.516054 30381 net.cpp:425] cont_1_lstm1_cont_slice_0_split <- cont_1
I0925 22:26:20.516065 30381 net.cpp:399] cont_1_lstm1_cont_slice_0_split -> cont_1_lstm1_cont_slice_0_split_0
I0925 22:26:20.516083 30381 net.cpp:399] cont_1_lstm1_cont_slice_0_split -> cont_1_lstm1_cont_slice_0_split_1
I0925 22:26:20.516152 30381 net.cpp:141] Setting up cont_1_lstm1_cont_slice_0_split
I0925 22:26:20.516165 30381 net.cpp:148] Top shape: 1 1 (1)
I0925 22:26:20.516175 30381 net.cpp:148] Top shape: 1 1 (1)
I0925 22:26:20.516182 30381 net.cpp:156] Memory required for data: 10016
I0925 22:26:20.516191 30381 layer_factory.hpp:77] Creating layer lstm1_x_transform
I0925 22:26:20.516212 30381 net.cpp:91] Creating Layer lstm1_x_transform
I0925 22:26:20.516222 30381 net.cpp:425] lstm1_x_transform <- x
I0925 22:26:20.516235 30381 net.cpp:399] lstm1_x_transform -> W_xc_x
I0925 22:26:20.522577 30369 net.cpp:141] Setting up lstm1_
I0925 22:26:20.522645 30369 net.cpp:148] Top shape: 1 1 500 (500)
I0925 22:26:20.522660 30369 net.cpp:148] Top shape: 1 1 (1)
I0925 22:26:20.522667 30369 net.cpp:156] Memory required for data: 2004
I0925 22:26:20.522678 30369 layer_factory.hpp:77] Creating layer lstm1_
I0925 22:26:20.522707 30369 net.cpp:91] Creating Layer lstm1_
I0925 22:26:20.522728 30369 net.cpp:399] lstm1_ -> c_0
I0925 22:26:20.522754 30369 net.cpp:399] lstm1_ -> h_0
I0925 22:26:20.522853 30369 net.cpp:141] Setting up lstm1_
I0925 22:26:20.522868 30369 net.cpp:148] Top shape: 1 1 1000 (1000)
I0925 22:26:20.522879 30369 net.cpp:148] Top shape: 1 1 1000 (1000)
I0925 22:26:20.522886 30369 net.cpp:156] Memory required for data: 10004
I0925 22:26:20.522893 30369 layer_factory.hpp:77] Creating layer lstm1_cont_slice
I0925 22:26:20.522912 30369 net.cpp:91] Creating Layer lstm1_cont_slice
I0925 22:26:20.522922 30369 net.cpp:425] lstm1_cont_slice <- cont
I0925 22:26:20.522938 30369 net.cpp:399] lstm1_cont_slice -> cont_1
I0925 22:26:20.522987 30369 net.cpp:141] Setting up lstm1_cont_slice
I0925 22:26:20.523001 30369 net.cpp:148] Top shape: 1 1 (1)
I0925 22:26:20.523008 30369 net.cpp:156] Memory required for data: 10008
I0925 22:26:20.523015 30369 layer_factory.hpp:77] Creating layer cont_1_lstm1_cont_slice_0_split
I0925 22:26:20.523033 30369 net.cpp:91] Creating Layer cont_1_lstm1_cont_slice_0_split
I0925 22:26:20.523041 30369 net.cpp:425] cont_1_lstm1_cont_slice_0_split <- cont_1
I0925 22:26:20.523052 30369 net.cpp:399] cont_1_lstm1_cont_slice_0_split -> cont_1_lstm1_cont_slice_0_split_0
I0925 22:26:20.523066 30369 net.cpp:399] cont_1_lstm1_cont_slice_0_split -> cont_1_lstm1_cont_slice_0_split_1
I0925 22:26:20.523133 30369 net.cpp:141] Setting up cont_1_lstm1_cont_slice_0_split
I0925 22:26:20.523147 30369 net.cpp:148] Top shape: 1 1 (1)
I0925 22:26:20.523159 30369 net.cpp:148] Top shape: 1 1 (1)
I0925 22:26:20.523165 30369 net.cpp:156] Memory required for data: 10016
I0925 22:26:20.523172 30369 layer_factory.hpp:77] Creating layer lstm1_x_transform
I0925 22:26:20.523190 30369 net.cpp:91] Creating Layer lstm1_x_transform
I0925 22:26:20.523198 30369 net.cpp:425] lstm1_x_transform <- x
I0925 22:26:20.523212 30369 net.cpp:399] lstm1_x_transform -> W_xc_x
I0925 22:26:20.530750 30407 net.cpp:141] Setting up embedding
I0925 22:26:20.530800 30407 net.cpp:148] Top shape: 1 1 500 (500)
I0925 22:26:20.530810 30407 net.cpp:156] Memory required for data: 22408
I0925 22:26:20.530835 30407 layer_factory.hpp:77] Creating layer lstm1
I0925 22:26:20.530858 30407 net.cpp:91] Creating Layer lstm1
I0925 22:26:20.530869 30407 net.cpp:425] lstm1 <- embedded_input_frames
I0925 22:26:20.530881 30407 net.cpp:425] lstm1 <- cont_sentence_input_1_split_0
I0925 22:26:20.530896 30407 net.cpp:399] lstm1 -> lstm1
I0925 22:26:20.530917 30407 recurrent_layer.cpp:20] Initializing recurrent layer: assuming input batch contains 1 timesteps of 1 independent streams.
I0925 22:26:20.531307 30407 net.cpp:49] Initializing net from parameters: 
layer {
  name: "lstm1_"
  type: "Input"
  top: "x"
  top: "cont"
  input_param {
    shape {
      dim: 1
      dim: 1
      dim: 500
    }
    shape {
      dim: 1
      dim: 1
    }
  }
}
layer {
  name: "lstm1_"
  type: "Input"
  top: "c_0"
  top: "h_0"
  input_param {
    shape {
      dim: 1
      dim: 1
      dim: 1000
    }
    shape {
      dim: 1
      dim: 1
      dim: 1000
    }
  }
}
layer {
  name: "lstm1_cont_slice"
  type: "Slice"
  bottom: "cont"
  top: "cont_1"
  slice_param {
    axis: 0
  }
}
layer {
  name: "lstm1_x_transform"
  type: "InnerProduct"
  bottom: "x"
  top: "W_xc_x"
  param {
    name: "W_xc"
  }
  param {
    name: "b_c"
  }
  propagate_down: true
  inner_product_param {
    num_output: 4000
    bias_term: true
    weight_filler {
      type: "uniform"
      min: -0.08
      max: 0.08
    }
    bias_filler {
      type: "constant"
      value: 0
    }
    axis: 2
  }
}
layer {
  name: "lstm1_W_xc_x_slice"
  type: "Slice"
  bottom: "W_xc_x"
  top: "W_xc_x_1"
  slice_param {
    axis: 0
  }
}
layer {
  name: "lstm1_h_conted_0"
  type: "Scale"
  bottom: "h_0"
  bottom: "cont_1"
  top: "h_conted_0"
  scale_param {
    axis: 0
  }
}
layer {
  name: "lstm1_transform_1"
  type: "InnerProduct"
  bottom: "h_conted_0"
  top: "W_hc_h_0"
  param {
    name: "W_hc"
  }
  inner_product_param {
    num_output: 4000
    bias_term: false
    weight_filler {
      type: "uniform"
      min: -0.08
      max: 0.08
    }
    axis: 2
  }
}
layer {
  name: "lstm1_gate_input_1"
  type: "Eltwise"
  bottom: "W_hc_h_0"
  bottom: "W_xc_x_1"
  top: "gate_input_1"
  eltwise_param {
    operation: SUM
  }
}
layer {
  name: "lstm1_unit_1"
  type: "LSTMUnit"
  bottom: "c_0"
  bottom: "gate_input_1"
  bottom: "cont_1"
  top: "c_1"
  top: "h_1"
}
layer {
  name: "lstm1_"
  type: "Split"
  bottom: "c_1"
  top: "c_T"
}
layer {
  name: "lstm1_h_concat"
  type: "Concat"
  bottom: "h_1"
  top: "h"
  concat_param {
    axis: 0
  }
}
layer {
  name: "h_pseudoloss"
  type: "Reduction"
  bottom: "h"
  top: "h_pseudoloss"
  loss_weight: 1
}
I0925 22:26:20.531437 30407 layer_factory.hpp:77] Creating layer lstm1_
I0925 22:26:20.531455 30407 net.cpp:91] Creating Layer lstm1_
I0925 22:26:20.531464 30407 net.cpp:399] lstm1_ -> x
I0925 22:26:20.531481 30407 net.cpp:399] lstm1_ -> cont
I0925 22:26:20.532125 30407 net.cpp:141] Setting up lstm1_
I0925 22:26:20.532166 30407 net.cpp:148] Top shape: 1 1 500 (500)
I0925 22:26:20.532178 30407 net.cpp:148] Top shape: 1 1 (1)
I0925 22:26:20.532186 30407 net.cpp:156] Memory required for data: 2004
I0925 22:26:20.532197 30407 layer_factory.hpp:77] Creating layer lstm1_
I0925 22:26:20.532222 30407 net.cpp:91] Creating Layer lstm1_
I0925 22:26:20.532246 30407 net.cpp:399] lstm1_ -> c_0
I0925 22:26:20.532272 30407 net.cpp:399] lstm1_ -> h_0
I0925 22:26:20.532349 30407 net.cpp:141] Setting up lstm1_
I0925 22:26:20.532363 30407 net.cpp:148] Top shape: 1 1 1000 (1000)
I0925 22:26:20.532373 30407 net.cpp:148] Top shape: 1 1 1000 (1000)
I0925 22:26:20.532380 30407 net.cpp:156] Memory required for data: 10004
I0925 22:26:20.532388 30407 layer_factory.hpp:77] Creating layer lstm1_cont_slice
I0925 22:26:20.532409 30407 net.cpp:91] Creating Layer lstm1_cont_slice
I0925 22:26:20.532419 30407 net.cpp:425] lstm1_cont_slice <- cont
I0925 22:26:20.532496 30407 net.cpp:399] lstm1_cont_slice -> cont_1
I0925 22:26:20.532560 30407 net.cpp:141] Setting up lstm1_cont_slice
I0925 22:26:20.532574 30407 net.cpp:148] Top shape: 1 1 (1)
I0925 22:26:20.532582 30407 net.cpp:156] Memory required for data: 10008
I0925 22:26:20.532589 30407 layer_factory.hpp:77] Creating layer cont_1_lstm1_cont_slice_0_split
I0925 22:26:20.532601 30407 net.cpp:91] Creating Layer cont_1_lstm1_cont_slice_0_split
I0925 22:26:20.532609 30407 net.cpp:425] cont_1_lstm1_cont_slice_0_split <- cont_1
I0925 22:26:20.532626 30407 net.cpp:399] cont_1_lstm1_cont_slice_0_split -> cont_1_lstm1_cont_slice_0_split_0
I0925 22:26:20.532639 30407 net.cpp:399] cont_1_lstm1_cont_slice_0_split -> cont_1_lstm1_cont_slice_0_split_1
I0925 22:26:20.532709 30407 net.cpp:141] Setting up cont_1_lstm1_cont_slice_0_split
I0925 22:26:20.532721 30407 net.cpp:148] Top shape: 1 1 (1)
I0925 22:26:20.532732 30407 net.cpp:148] Top shape: 1 1 (1)
I0925 22:26:20.532738 30407 net.cpp:156] Memory required for data: 10016
I0925 22:26:20.532745 30407 layer_factory.hpp:77] Creating layer lstm1_x_transform
I0925 22:26:20.532763 30407 net.cpp:91] Creating Layer lstm1_x_transform
I0925 22:26:20.532771 30407 net.cpp:425] lstm1_x_transform <- x
I0925 22:26:20.532784 30407 net.cpp:399] lstm1_x_transform -> W_xc_x
I0925 22:26:20.553520 30369 net.cpp:141] Setting up lstm1_x_transform
I0925 22:26:20.553565 30369 net.cpp:148] Top shape: 1 1 4000 (4000)
I0925 22:26:20.553575 30369 net.cpp:156] Memory required for data: 26016
I0925 22:26:20.553598 30369 layer_factory.hpp:77] Creating layer lstm1_W_xc_x_slice
I0925 22:26:20.553617 30369 net.cpp:91] Creating Layer lstm1_W_xc_x_slice
I0925 22:26:20.553627 30369 net.cpp:425] lstm1_W_xc_x_slice <- W_xc_x
I0925 22:26:20.553639 30369 net.cpp:399] lstm1_W_xc_x_slice -> W_xc_x_1
I0925 22:26:20.560233 30369 net.cpp:141] Setting up lstm1_W_xc_x_slice
I0925 22:26:20.560276 30369 net.cpp:148] Top shape: 1 1 4000 (4000)
I0925 22:26:20.560272 30367 net.cpp:141] Setting up embedding
I0925 22:26:20.560291 30369 net.cpp:156] Memory required for data: 42016
I0925 22:26:20.560304 30367 net.cpp:148] Top shape: 1 1 500 (500)
I0925 22:26:20.560305 30369 layer_factory.hpp:77] Creating layer lstm1_h_conted_0
I0925 22:26:20.560331 30367 net.cpp:156] Memory required for data: 22408
I0925 22:26:20.560360 30367 layer_factory.hpp:77] Creating layer lstm1
I0925 22:26:20.560364 30369 net.cpp:91] Creating Layer lstm1_h_conted_0
I0925 22:26:20.560376 30369 net.cpp:425] lstm1_h_conted_0 <- h_0
I0925 22:26:20.560381 30367 net.cpp:91] Creating Layer lstm1
I0925 22:26:20.560389 30369 net.cpp:425] lstm1_h_conted_0 <- cont_1_lstm1_cont_slice_0_split_0
I0925 22:26:20.560390 30367 net.cpp:425] lstm1 <- embedded_input_frames
I0925 22:26:20.560402 30369 net.cpp:399] lstm1_h_conted_0 -> h_conted_0
I0925 22:26:20.560402 30367 net.cpp:425] lstm1 <- cont_sentence_input_1_split_0
I0925 22:26:20.560425 30367 net.cpp:399] lstm1 -> lstm1
I0925 22:26:20.560438 30367 recurrent_layer.cpp:20] Initializing recurrent layer: assuming input batch contains 1 timesteps of 1 independent streams.
I0925 22:26:20.560530 30407 net.cpp:141] Setting up lstm1_x_transform
I0925 22:26:20.560566 30407 net.cpp:148] Top shape: 1 1 4000 (4000)
I0925 22:26:20.560572 30407 net.cpp:156] Memory required for data: 26016
I0925 22:26:20.560591 30407 layer_factory.hpp:77] Creating layer lstm1_W_xc_x_slice
I0925 22:26:20.560611 30407 net.cpp:91] Creating Layer lstm1_W_xc_x_slice
I0925 22:26:20.560617 30407 net.cpp:425] lstm1_W_xc_x_slice <- W_xc_x
I0925 22:26:20.560626 30407 net.cpp:399] lstm1_W_xc_x_slice -> W_xc_x_1
I0925 22:26:20.560781 30407 net.cpp:141] Setting up lstm1_W_xc_x_slice
I0925 22:26:20.560791 30407 net.cpp:148] Top shape: 1 1 4000 (4000)
I0925 22:26:20.560796 30407 net.cpp:156] Memory required for data: 42016
I0925 22:26:20.560802 30407 layer_factory.hpp:77] Creating layer lstm1_h_conted_0
I0925 22:26:20.560838 30407 net.cpp:91] Creating Layer lstm1_h_conted_0
I0925 22:26:20.560847 30407 net.cpp:425] lstm1_h_conted_0 <- h_0
I0925 22:26:20.560843 30367 net.cpp:49] Initializing net from parameters: 
layer {
  name: "lstm1_"
  type: "Input"
  top: "x"
  top: "cont"
  input_param {
    shape {
      dim: 1
      dim: 1
      dim: 500
    }
    shape {
      dim: 1
      dim: 1
    }
  }
}
layer {
  name: "lstm1_"
  type: "Input"
  top: "c_0"
  top: "h_0"
  input_param {
    shape {
      dim: 1
      dim: 1
      dim: 1000
    }
    shape {
      dim: 1
      dim: 1
      dim: 1000
    }
  }
}
layer {
  name: "lstm1_cont_slice"
  type: "Slice"
  bottom: "cont"
  top: "cont_1"
  slice_param {
    axis: 0
  }
}
layer {
  name: "lstm1_x_transform"
  type: "InnerProduct"
  bottom: "x"
  top: "W_xc_x"
  param {
    name: "W_xc"
  }
  param {
    name: "b_c"
  }
  propagate_down: true
  inner_product_param {
    num_output: 4000
    bias_term: true
    weight_filler {
      type: "uniform"
      min: -0.08
      max: 0.08
    }
    bias_filler {
      type: "constant"
      value: 0
    }
    axis: 2
  }
}
layer {
  name: "lstm1_W_xc_x_slice"
  type: "Slice"
  bottom: "W_xc_x"
  top: "W_xc_x_1"
  slice_param {
    axis: 0
  }
}
layer {
  name: "lstm1_h_conted_0"
  type: "Scale"
  bottom: "h_0"
  bottom: "cont_1"
  top: "h_conted_0"
  scale_param {
    axis: 0
  }
}
layer {
  name: "lstm1_transform_1"
  type: "InnerProduct"
  bottom: "h_conted_0"
  top: "W_hc_h_0"
  param {
    name: "W_hc"
  }
  inner_product_param {
    num_output: 4000
    bias_term: false
    weight_filler {
      type: "uniform"
      min: -0.08
      max: 0.08
    }
    axis: 2
  }
}
layer {
  name: "lstm1_gate_input_1"
  type: "Eltwise"
  bottom: "W_hc_h_0"
  bottom: "W_xc_x_1"
  top: "gate_input_1"
  eltwise_param {
    operation: SUM
  }
}
layer {
  name: "lstm1_unit_1"
  type: "LSTMUnit"
  bottom: "c_0"
  bottom: "gate_input_1"
  bottom: "cont_1"
  top: "c_1"
  top: "h_1"
}
layer {
  name: "lstm1_"
  type: "Split"
  bottom: "c_1"
  top: "c_T"
}
layer {
  name: "lstm1_h_concat"
  type: "Concat"
  bottom: "h_1"
  top: "h"
  concat_param {
    axis: 0
  }
}
layer {
  name: "h_pseudoloss"
  type: "Reduction"
  bottom: "h"
  top: "h_pseudoloss"
  loss_weight: 1
}
I0925 22:26:20.560853 30407 net.cpp:425] lstm1_h_conted_0 <- cont_1_lstm1_cont_slice_0_split_0
I0925 22:26:20.560878 30407 net.cpp:399] lstm1_h_conted_0 -> h_conted_0
I0925 22:26:20.560938 30381 net.cpp:141] Setting up lstm1_x_transform
I0925 22:26:20.560961 30381 net.cpp:148] Top shape: 1 1 4000 (4000)
I0925 22:26:20.560968 30381 net.cpp:156] Memory required for data: 26016
I0925 22:26:20.560986 30369 net.cpp:141] Setting up lstm1_h_conted_0
I0925 22:26:20.560997 30367 layer_factory.hpp:77] Creating layer lstm1_
I0925 22:26:20.561002 30369 net.cpp:148] Top shape: 1 1 1000 (1000)
I0925 22:26:20.561007 30381 layer_factory.hpp:77] Creating layer lstm1_W_xc_x_slice
I0925 22:26:20.561010 30369 net.cpp:156] Memory required for data: 46016
I0925 22:26:20.561017 30367 net.cpp:91] Creating Layer lstm1_
I0925 22:26:20.561019 30369 layer_factory.hpp:77] Creating layer lstm1_transform_1
I0925 22:26:20.561024 30381 net.cpp:91] Creating Layer lstm1_W_xc_x_slice
I0925 22:26:20.561028 30367 net.cpp:399] lstm1_ -> x
I0925 22:26:20.561038 30369 net.cpp:91] Creating Layer lstm1_transform_1
I0925 22:26:20.561045 30367 net.cpp:399] lstm1_ -> cont
I0925 22:26:20.561049 30369 net.cpp:425] lstm1_transform_1 <- h_conted_0
I0925 22:26:20.561034 30381 net.cpp:425] lstm1_W_xc_x_slice <- W_xc_x
I0925 22:26:20.561069 30369 net.cpp:399] lstm1_transform_1 -> W_hc_h_0
I0925 22:26:20.561072 30381 net.cpp:399] lstm1_W_xc_x_slice -> W_xc_x_1
I0925 22:26:20.561216 30407 net.cpp:141] Setting up lstm1_h_conted_0
I0925 22:26:20.561229 30407 net.cpp:148] Top shape: 1 1 1000 (1000)
I0925 22:26:20.561233 30407 net.cpp:156] Memory required for data: 46016
I0925 22:26:20.561239 30407 layer_factory.hpp:77] Creating layer lstm1_transform_1
I0925 22:26:20.561251 30407 net.cpp:91] Creating Layer lstm1_transform_1
I0925 22:26:20.561257 30407 net.cpp:425] lstm1_transform_1 <- h_conted_0
I0925 22:26:20.561267 30407 net.cpp:399] lstm1_transform_1 -> W_hc_h_0
I0925 22:26:20.561316 30381 net.cpp:141] Setting up lstm1_W_xc_x_slice
I0925 22:26:20.561336 30381 net.cpp:148] Top shape: 1 1 4000 (4000)
I0925 22:26:20.561345 30381 net.cpp:156] Memory required for data: 42016
I0925 22:26:20.561354 30381 layer_factory.hpp:77] Creating layer lstm1_h_conted_0
I0925 22:26:20.561355 30367 net.cpp:141] Setting up lstm1_
I0925 22:26:20.561368 30367 net.cpp:148] Top shape: 1 1 500 (500)
I0925 22:26:20.561369 30381 net.cpp:91] Creating Layer lstm1_h_conted_0
I0925 22:26:20.561388 30381 net.cpp:425] lstm1_h_conted_0 <- h_0
I0925 22:26:20.561400 30367 net.cpp:148] Top shape: 1 1 (1)
I0925 22:26:20.561401 30381 net.cpp:425] lstm1_h_conted_0 <- cont_1_lstm1_cont_slice_0_split_0
I0925 22:26:20.561410 30367 net.cpp:156] Memory required for data: 2004
I0925 22:26:20.561417 30381 net.cpp:399] lstm1_h_conted_0 -> h_conted_0
I0925 22:26:20.561420 30367 layer_factory.hpp:77] Creating layer lstm1_
I0925 22:26:20.561439 30367 net.cpp:91] Creating Layer lstm1_
I0925 22:26:20.561460 30367 net.cpp:399] lstm1_ -> c_0
I0925 22:26:20.561481 30367 net.cpp:399] lstm1_ -> h_0
I0925 22:26:20.577823 30367 net.cpp:141] Setting up lstm1_
I0925 22:26:20.577878 30367 net.cpp:148] Top shape: 1 1 1000 (1000)
I0925 22:26:20.577884 30381 net.cpp:141] Setting up lstm1_h_conted_0
I0925 22:26:20.577891 30367 net.cpp:148] Top shape: 1 1 1000 (1000)
I0925 22:26:20.577899 30381 net.cpp:148] Top shape: 1 1 1000 (1000)
I0925 22:26:20.577898 30367 net.cpp:156] Memory required for data: 10004
I0925 22:26:20.577913 30381 net.cpp:156] Memory required for data: 46016
I0925 22:26:20.577921 30367 layer_factory.hpp:77] Creating layer lstm1_cont_slice
I0925 22:26:20.577955 30367 net.cpp:91] Creating Layer lstm1_cont_slice
I0925 22:26:20.577970 30367 net.cpp:425] lstm1_cont_slice <- cont
I0925 22:26:20.578006 30367 net.cpp:399] lstm1_cont_slice -> cont_1
I0925 22:26:20.578560 30381 layer_factory.hpp:77] Creating layer lstm1_transform_1
I0925 22:26:20.578752 30381 net.cpp:91] Creating Layer lstm1_transform_1
I0925 22:26:20.578768 30381 net.cpp:425] lstm1_transform_1 <- h_conted_0
I0925 22:26:20.578804 30381 net.cpp:399] lstm1_transform_1 -> W_hc_h_0
I0925 22:26:20.583842 30367 net.cpp:141] Setting up lstm1_cont_slice
I0925 22:26:20.583904 30367 net.cpp:148] Top shape: 1 1 (1)
I0925 22:26:20.583914 30367 net.cpp:156] Memory required for data: 10008
I0925 22:26:20.583925 30367 layer_factory.hpp:77] Creating layer cont_1_lstm1_cont_slice_0_split
I0925 22:26:20.583945 30367 net.cpp:91] Creating Layer cont_1_lstm1_cont_slice_0_split
I0925 22:26:20.583956 30367 net.cpp:425] cont_1_lstm1_cont_slice_0_split <- cont_1
I0925 22:26:20.583977 30367 net.cpp:399] cont_1_lstm1_cont_slice_0_split -> cont_1_lstm1_cont_slice_0_split_0
I0925 22:26:20.583998 30367 net.cpp:399] cont_1_lstm1_cont_slice_0_split -> cont_1_lstm1_cont_slice_0_split_1
I0925 22:26:20.591958 30367 net.cpp:141] Setting up cont_1_lstm1_cont_slice_0_split
I0925 22:26:20.592006 30367 net.cpp:148] Top shape: 1 1 (1)
I0925 22:26:20.592013 30367 net.cpp:148] Top shape: 1 1 (1)
I0925 22:26:20.592018 30367 net.cpp:156] Memory required for data: 10016
I0925 22:26:20.592027 30367 layer_factory.hpp:77] Creating layer lstm1_x_transform
I0925 22:26:20.592053 30367 net.cpp:91] Creating Layer lstm1_x_transform
I0925 22:26:20.592061 30367 net.cpp:425] lstm1_x_transform <- x
I0925 22:26:20.592077 30367 net.cpp:399] lstm1_x_transform -> W_xc_x
I0925 22:26:20.600499 30373 net.cpp:141] Setting up embedding
I0925 22:26:20.600544 30373 net.cpp:148] Top shape: 1 1 500 (500)
I0925 22:26:20.600550 30373 net.cpp:156] Memory required for data: 22408
I0925 22:26:20.600569 30373 layer_factory.hpp:77] Creating layer lstm1
I0925 22:26:20.600589 30373 net.cpp:91] Creating Layer lstm1
I0925 22:26:20.600597 30373 net.cpp:425] lstm1 <- embedded_input_frames
I0925 22:26:20.600606 30373 net.cpp:425] lstm1 <- cont_sentence_input_1_split_0
I0925 22:26:20.600615 30373 net.cpp:399] lstm1 -> lstm1
I0925 22:26:20.600631 30373 recurrent_layer.cpp:20] Initializing recurrent layer: assuming input batch contains 1 timesteps of 1 independent streams.
I0925 22:26:20.600929 30373 net.cpp:49] Initializing net from parameters: 
layer {
  name: "lstm1_"
  type: "Input"
  top: "x"
  top: "cont"
  input_param {
    shape {
      dim: 1
      dim: 1
      dim: 500
    }
    shape {
      dim: 1
      dim: 1
    }
  }
}
layer {
  name: "lstm1_"
  type: "Input"
  top: "c_0"
  top: "h_0"
  input_param {
    shape {
      dim: 1
      dim: 1
      dim: 1000
    }
    shape {
      dim: 1
      dim: 1
      dim: 1000
    }
  }
}
layer {
  name: "lstm1_cont_slice"
  type: "Slice"
  bottom: "cont"
  top: "cont_1"
  slice_param {
    axis: 0
  }
}
layer {
  name: "lstm1_x_transform"
  type: "InnerProduct"
  bottom: "x"
  top: "W_xc_x"
  param {
    name: "W_xc"
  }
  param {
    name: "b_c"
  }
  propagate_down: true
  inner_product_param {
    num_output: 4000
    bias_term: true
    weight_filler {
      type: "uniform"
      min: -0.08
      max: 0.08
    }
    bias_filler {
      type: "constant"
      value: 0
    }
    axis: 2
  }
}
layer {
  name: "lstm1_W_xc_x_slice"
  type: "Slice"
  bottom: "W_xc_x"
  top: "W_xc_x_1"
  slice_param {
    axis: 0
  }
}
layer {
  name: "lstm1_h_conted_0"
  type: "Scale"
  bottom: "h_0"
  bottom: "cont_1"
  top: "h_conted_0"
  scale_param {
    axis: 0
  }
}
layer {
  name: "lstm1_transform_1"
  type: "InnerProduct"
  bottom: "h_conted_0"
  top: "W_hc_h_0"
  param {
    name: "W_hc"
  }
  inner_product_param {
    num_output: 4000
    bias_term: false
    weight_filler {
      type: "uniform"
      min: -0.08
      max: 0.08
    }
    axis: 2
  }
}
layer {
  name: "lstm1_gate_input_1"
  type: "Eltwise"
  bottom: "W_hc_h_0"
  bottom: "W_xc_x_1"
  top: "gate_input_1"
  eltwise_param {
    operation: SUM
  }
}
layer {
  name: "lstm1_unit_1"
  type: "LSTMUnit"
  bottom: "c_0"
  bottom: "gate_input_1"
  bottom: "cont_1"
  top: "c_1"
  top: "h_1"
}
layer {
  name: "lstm1_"
  type: "Split"
  bottom: "c_1"
  top: "c_T"
}
layer {
  name: "lstm1_h_concat"
  type: "Concat"
  bottom: "h_1"
  top: "h"
  concat_param {
    axis: 0
  }
}
layer {
  name: "h_pseudoloss"
  type: "Reduction"
  bottom: "h"
  top: "h_pseudoloss"
  loss_weight: 1
}
I0925 22:26:20.601018 30373 layer_factory.hpp:77] Creating layer lstm1_
I0925 22:26:20.601030 30373 net.cpp:91] Creating Layer lstm1_
I0925 22:26:20.601037 30373 net.cpp:399] lstm1_ -> x
I0925 22:26:20.601048 30373 net.cpp:399] lstm1_ -> cont
I0925 22:26:20.602093 30373 net.cpp:141] Setting up lstm1_
I0925 22:26:20.602110 30373 net.cpp:148] Top shape: 1 1 500 (500)
I0925 22:26:20.602118 30373 net.cpp:148] Top shape: 1 1 (1)
I0925 22:26:20.602123 30373 net.cpp:156] Memory required for data: 2004
I0925 22:26:20.602128 30373 layer_factory.hpp:77] Creating layer lstm1_
I0925 22:26:20.602146 30373 net.cpp:91] Creating Layer lstm1_
I0925 22:26:20.602175 30373 net.cpp:399] lstm1_ -> c_0
I0925 22:26:20.602191 30373 net.cpp:399] lstm1_ -> h_0
I0925 22:26:20.603965 30373 net.cpp:141] Setting up lstm1_
I0925 22:26:20.603986 30373 net.cpp:148] Top shape: 1 1 1000 (1000)
I0925 22:26:20.603992 30373 net.cpp:148] Top shape: 1 1 1000 (1000)
I0925 22:26:20.603996 30373 net.cpp:156] Memory required for data: 10004
I0925 22:26:20.604001 30373 layer_factory.hpp:77] Creating layer lstm1_cont_slice
I0925 22:26:20.604013 30373 net.cpp:91] Creating Layer lstm1_cont_slice
I0925 22:26:20.604018 30373 net.cpp:425] lstm1_cont_slice <- cont
I0925 22:26:20.604028 30373 net.cpp:399] lstm1_cont_slice -> cont_1
I0925 22:26:20.604149 30373 net.cpp:141] Setting up lstm1_cont_slice
I0925 22:26:20.604159 30373 net.cpp:148] Top shape: 1 1 (1)
I0925 22:26:20.604164 30373 net.cpp:156] Memory required for data: 10008
I0925 22:26:20.604169 30373 layer_factory.hpp:77] Creating layer cont_1_lstm1_cont_slice_0_split
I0925 22:26:20.604177 30373 net.cpp:91] Creating Layer cont_1_lstm1_cont_slice_0_split
I0925 22:26:20.604182 30373 net.cpp:425] cont_1_lstm1_cont_slice_0_split <- cont_1
I0925 22:26:20.604188 30373 net.cpp:399] cont_1_lstm1_cont_slice_0_split -> cont_1_lstm1_cont_slice_0_split_0
I0925 22:26:20.604199 30373 net.cpp:399] cont_1_lstm1_cont_slice_0_split -> cont_1_lstm1_cont_slice_0_split_1
I0925 22:26:20.604305 30373 net.cpp:141] Setting up cont_1_lstm1_cont_slice_0_split
I0925 22:26:20.604316 30373 net.cpp:148] Top shape: 1 1 (1)
I0925 22:26:20.604322 30373 net.cpp:148] Top shape: 1 1 (1)
I0925 22:26:20.604326 30373 net.cpp:156] Memory required for data: 10016
I0925 22:26:20.604331 30373 layer_factory.hpp:77] Creating layer lstm1_x_transform
I0925 22:26:20.604347 30373 net.cpp:91] Creating Layer lstm1_x_transform
I0925 22:26:20.604353 30373 net.cpp:425] lstm1_x_transform <- x
I0925 22:26:20.604362 30373 net.cpp:399] lstm1_x_transform -> W_xc_x
I0925 22:26:20.618777 30369 net.cpp:141] Setting up lstm1_transform_1
I0925 22:26:20.618829 30369 net.cpp:148] Top shape: 1 1 4000 (4000)
I0925 22:26:20.618839 30369 net.cpp:156] Memory required for data: 62016
I0925 22:26:20.618861 30369 layer_factory.hpp:77] Creating layer lstm1_gate_input_1
I0925 22:26:20.618892 30369 net.cpp:91] Creating Layer lstm1_gate_input_1
I0925 22:26:20.618903 30369 net.cpp:425] lstm1_gate_input_1 <- W_hc_h_0
I0925 22:26:20.618916 30369 net.cpp:425] lstm1_gate_input_1 <- W_xc_x_1
I0925 22:26:20.618932 30369 net.cpp:399] lstm1_gate_input_1 -> gate_input_1
I0925 22:26:20.618947 30407 net.cpp:141] Setting up lstm1_transform_1
I0925 22:26:20.618998 30407 net.cpp:148] Top shape: 1 1 4000 (4000)
I0925 22:26:20.619010 30407 net.cpp:156] Memory required for data: 62016
I0925 22:26:20.619040 30407 layer_factory.hpp:77] Creating layer lstm1_gate_input_1
I0925 22:26:20.619076 30407 net.cpp:91] Creating Layer lstm1_gate_input_1
I0925 22:26:20.619092 30407 net.cpp:425] lstm1_gate_input_1 <- W_hc_h_0
I0925 22:26:20.619098 30367 net.cpp:141] Setting up lstm1_x_transform
I0925 22:26:20.619108 30407 net.cpp:425] lstm1_gate_input_1 <- W_xc_x_1
I0925 22:26:20.619127 30407 net.cpp:399] lstm1_gate_input_1 -> gate_input_1
I0925 22:26:20.619120 30367 net.cpp:148] Top shape: 1 1 4000 (4000)
I0925 22:26:20.619143 30367 net.cpp:156] Memory required for data: 26016
I0925 22:26:20.619141 30369 net.cpp:141] Setting up lstm1_gate_input_1
I0925 22:26:20.619159 30369 net.cpp:148] Top shape: 1 1 4000 (4000)
I0925 22:26:20.619163 30367 layer_factory.hpp:77] Creating layer lstm1_W_xc_x_slice
I0925 22:26:20.619168 30369 net.cpp:156] Memory required for data: 78016
I0925 22:26:20.619176 30369 layer_factory.hpp:77] Creating layer lstm1_unit_1
I0925 22:26:20.619179 30367 net.cpp:91] Creating Layer lstm1_W_xc_x_slice
I0925 22:26:20.619199 30369 net.cpp:91] Creating Layer lstm1_unit_1
I0925 22:26:20.619204 30367 net.cpp:425] lstm1_W_xc_x_slice <- W_xc_x
I0925 22:26:20.619209 30369 net.cpp:425] lstm1_unit_1 <- c_0
I0925 22:26:20.619217 30367 net.cpp:399] lstm1_W_xc_x_slice -> W_xc_x_1
I0925 22:26:20.619218 30369 net.cpp:425] lstm1_unit_1 <- gate_input_1
I0925 22:26:20.619246 30369 net.cpp:425] lstm1_unit_1 <- cont_1_lstm1_cont_slice_0_split_1
I0925 22:26:20.619258 30369 net.cpp:399] lstm1_unit_1 -> c_1
I0925 22:26:20.619277 30369 net.cpp:399] lstm1_unit_1 -> h_1
I0925 22:26:20.624966 30407 net.cpp:141] Setting up lstm1_gate_input_1
I0925 22:26:20.625013 30407 net.cpp:148] Top shape: 1 1 4000 (4000)
I0925 22:26:20.625022 30407 net.cpp:156] Memory required for data: 78016
I0925 22:26:20.625036 30407 layer_factory.hpp:77] Creating layer lstm1_unit_1
I0925 22:26:20.625058 30407 net.cpp:91] Creating Layer lstm1_unit_1
I0925 22:26:20.625047 30367 net.cpp:141] Setting up lstm1_W_xc_x_slice
I0925 22:26:20.625097 30407 net.cpp:425] lstm1_unit_1 <- c_0
I0925 22:26:20.625133 30407 net.cpp:425] lstm1_unit_1 <- gate_input_1
I0925 22:26:20.625135 30367 net.cpp:148] Top shape: 1 1 4000 (4000)
I0925 22:26:20.625144 30407 net.cpp:425] lstm1_unit_1 <- cont_1_lstm1_cont_slice_0_split_1
I0925 22:26:20.625146 30367 net.cpp:156] Memory required for data: 42016
I0925 22:26:20.625157 30407 net.cpp:399] lstm1_unit_1 -> c_1
I0925 22:26:20.625160 30369 net.cpp:141] Setting up lstm1_unit_1
I0925 22:26:20.625159 30367 layer_factory.hpp:77] Creating layer lstm1_h_conted_0
I0925 22:26:20.625181 30369 net.cpp:148] Top shape: 1 1 1000 (1000)
I0925 22:26:20.625183 30407 net.cpp:399] lstm1_unit_1 -> h_1
I0925 22:26:20.625193 30369 net.cpp:148] Top shape: 1 1 1000 (1000)
I0925 22:26:20.625200 30367 net.cpp:91] Creating Layer lstm1_h_conted_0
I0925 22:26:20.625201 30369 net.cpp:156] Memory required for data: 86016
I0925 22:26:20.625232 30369 layer_factory.hpp:77] Creating layer lstm1_
I0925 22:26:20.625237 30367 net.cpp:425] lstm1_h_conted_0 <- h_0
I0925 22:26:20.625247 30369 net.cpp:91] Creating Layer lstm1_
I0925 22:26:20.625253 30367 net.cpp:425] lstm1_h_conted_0 <- cont_1_lstm1_cont_slice_0_split_0
I0925 22:26:20.625255 30369 net.cpp:425] lstm1_ <- c_1
I0925 22:26:20.625267 30367 net.cpp:399] lstm1_h_conted_0 -> h_conted_0
I0925 22:26:20.625268 30369 net.cpp:399] lstm1_ -> c_T
I0925 22:26:20.625344 30369 net.cpp:141] Setting up lstm1_
I0925 22:26:20.625358 30369 net.cpp:148] Top shape: 1 1 1000 (1000)
I0925 22:26:20.625366 30369 net.cpp:156] Memory required for data: 90016
I0925 22:26:20.625375 30369 layer_factory.hpp:77] Creating layer lstm1_h_concat
I0925 22:26:20.625388 30369 net.cpp:91] Creating Layer lstm1_h_concat
I0925 22:26:20.625397 30369 net.cpp:425] lstm1_h_concat <- h_1
I0925 22:26:20.625401 30407 net.cpp:141] Setting up lstm1_unit_1
I0925 22:26:20.625413 30369 net.cpp:399] lstm1_h_concat -> h
I0925 22:26:20.625417 30407 net.cpp:148] Top shape: 1 1 1000 (1000)
I0925 22:26:20.625428 30407 net.cpp:148] Top shape: 1 1 1000 (1000)
I0925 22:26:20.625437 30407 net.cpp:156] Memory required for data: 86016
I0925 22:26:20.625444 30407 layer_factory.hpp:77] Creating layer lstm1_
I0925 22:26:20.625461 30407 net.cpp:91] Creating Layer lstm1_
I0925 22:26:20.625470 30407 net.cpp:425] lstm1_ <- c_1
I0925 22:26:20.625483 30407 net.cpp:399] lstm1_ -> c_T
I0925 22:26:20.625732 30369 net.cpp:141] Setting up lstm1_h_concat
I0925 22:26:20.625748 30369 net.cpp:148] Top shape: 1 1 1000 (1000)
I0925 22:26:20.625756 30369 net.cpp:156] Memory required for data: 94016
I0925 22:26:20.625764 30369 layer_factory.hpp:77] Creating layer h_pseudoloss
I0925 22:26:20.625787 30369 net.cpp:91] Creating Layer h_pseudoloss
I0925 22:26:20.625797 30369 net.cpp:425] h_pseudoloss <- h
I0925 22:26:20.625808 30369 net.cpp:399] h_pseudoloss -> h_pseudoloss
I0925 22:26:20.630827 30367 net.cpp:141] Setting up lstm1_h_conted_0
I0925 22:26:20.630872 30367 net.cpp:148] Top shape: 1 1 1000 (1000)
I0925 22:26:20.630882 30367 net.cpp:156] Memory required for data: 46016
I0925 22:26:20.630890 30367 layer_factory.hpp:77] Creating layer lstm1_transform_1
I0925 22:26:20.630923 30367 net.cpp:91] Creating Layer lstm1_transform_1
I0925 22:26:20.630934 30367 net.cpp:425] lstm1_transform_1 <- h_conted_0
I0925 22:26:20.630947 30367 net.cpp:399] lstm1_transform_1 -> W_hc_h_0
I0925 22:26:20.631023 30373 net.cpp:141] Setting up lstm1_x_transform
I0925 22:26:20.631043 30373 net.cpp:148] Top shape: 1 1 4000 (4000)
I0925 22:26:20.631052 30373 net.cpp:156] Memory required for data: 26016
I0925 22:26:20.631074 30373 layer_factory.hpp:77] Creating layer lstm1_W_xc_x_slice
I0925 22:26:20.631093 30373 net.cpp:91] Creating Layer lstm1_W_xc_x_slice
I0925 22:26:20.631103 30373 net.cpp:425] lstm1_W_xc_x_slice <- W_xc_x
I0925 22:26:20.631114 30373 net.cpp:399] lstm1_W_xc_x_slice -> W_xc_x_1
I0925 22:26:20.635361 30369 net.cpp:141] Setting up h_pseudoloss
…
I0925 22:26:20.635637 30369 net.cpp:261] This network produces output c_T
I0925 22:26:20.635644 30369 net.cpp:261] This network produces output h_pseudoloss
I0925 22:26:20.635676 30369 net.cpp:274] Network initialization done.
I0925 22:26:20.635762 30369 recurrent_layer.cpp:150] Adding parameter 0: W_xc
I0925 22:26:20.635772 30369 recurrent_layer.cpp:150] Adding parameter 1: b_c
I0925 22:26:20.635781 30369 recurrent_layer.cpp:150] Adding parameter 2: W_hc
I0925 22:26:20.646410 30373 net.cpp:141] Setting up lstm1_W_xc_x_slice
I0925 22:26:20.646459 30407 net.cpp:141] Setting up lstm1_
I0925 22:26:20.646464 30373 net.cpp:148] Top shape: 1 1 4000 (4000)
I0925 22:26:20.646488 30407 net.cpp:148] Top shape: 1 1 1000 (1000)
I0925 22:26:20.646495 30373 net.cpp:156] Memory required for data: 42016
I0925 22:26:20.646498 30407 net.cpp:156] Memory required for data: 90016
I0925 22:26:20.646531 30373 layer_factory.hpp:77] Creating layer lstm1_h_conted_0
I0925 22:26:20.646535 30407 layer_factory.hpp:77] Creating layer lstm1_h_concat
I0925 22:26:20.646556 30407 net.cpp:91] Creating Layer lstm1_h_concat
I0925 22:26:20.646558 30373 net.cpp:91] Creating Layer lstm1_h_conted_0
I0925 22:26:20.646585 30407 net.cpp:425] lstm1_h_concat <- h_1
I0925 22:26:20.646589 30373 net.cpp:425] lstm1_h_conted_0 <- h_0
I0925 22:26:20.646632 30373 net.cpp:425] lstm1_h_conted_0 <- cont_1_lstm1_cont_slice_0_split_0
I0925 22:26:20.646651 30373 net.cpp:399] lstm1_h_conted_0 -> h_conted_0
I0925 22:26:20.646663 30407 net.cpp:399] lstm1_h_concat -> h
I0925 22:26:20.646677 30381 net.cpp:141] Setting up lstm1_transform_1
I0925 22:26:20.646702 30381 net.cpp:148] Top shape: 1 1 4000 (4000)
I0925 22:26:20.646709 30381 net.cpp:156] Memory required for data: 62016
I0925 22:26:20.646729 30381 layer_factory.hpp:77] Creating layer lstm1_gate_input_1
I0925 22:26:20.646749 30381 net.cpp:91] Creating Layer lstm1_gate_input_1
I0925 22:26:20.646761 30381 net.cpp:425] lstm1_gate_input_1 <- W_hc_h_0
I0925 22:26:20.646772 30381 net.cpp:425] lstm1_gate_input_1 <- W_xc_x_1
I0925 22:26:20.646785 30381 net.cpp:399] lstm1_gate_input_1 -> gate_input_1
I0925 22:26:20.646826 30373 net.cpp:141] Setting up lstm1_h_conted_0
I0925 22:26:20.646839 30373 net.cpp:148] Top shape: 1 1 1000 (1000)
I0925 22:26:20.646843 30373 net.cpp:156] Memory required for data: 46016
I0925 22:26:20.646849 30373 layer_factory.hpp:77] Creating layer lstm1_transform_1
I0925 22:26:20.646865 30373 net.cpp:91] Creating Layer lstm1_transform_1
I0925 22:26:20.646870 30373 net.cpp:425] lstm1_transform_1 <- h_conted_0
I0925 22:26:20.646874 30407 net.cpp:141] Setting up lstm1_h_concat
I0925 22:26:20.646879 30373 net.cpp:399] lstm1_transform_1 -> W_hc_h_0
I0925 22:26:20.646888 30407 net.cpp:148] Top shape: 1 1 1000 (1000)
I0925 22:26:20.646893 30407 net.cpp:156] Memory required for data: 94016
I0925 22:26:20.646898 30407 layer_factory.hpp:77] Creating layer h_pseudoloss
I0925 22:26:20.646908 30407 net.cpp:91] Creating Layer h_pseudoloss
I0925 22:26:20.646913 30407 net.cpp:425] h_pseudoloss <- h
I0925 22:26:20.646920 30407 net.cpp:399] h_pseudoloss -> h_pseudoloss
I0925 22:26:20.646924 30369 net.cpp:141] Setting up lstm1
I0925 22:26:20.646946 30369 net.cpp:148] Top shape: 1 1 1000 (1000)
I0925 22:26:20.646955 30369 net.cpp:156] Memory required for data: 26408
I0925 22:26:20.646955 30381 net.cpp:141] Setting up lstm1_gate_input_1
I0925 22:26:20.646972 30381 net.cpp:148] Top shape: 1 1 4000 (4000)
I0925 22:26:20.646977 30369 layer_factory.hpp:77] Creating layer concat
I0925 22:26:20.646981 30381 net.cpp:156] Memory required for data: 78016
I0925 22:26:20.646991 30381 layer_factory.hpp:77] Creating layer lstm1_unit_1
I0925 22:26:20.646993 30369 net.cpp:91] Creating Layer concat
I0925 22:26:20.647003 30369 net.cpp:425] concat <- lstm1
I0925 22:26:20.647013 30369 net.cpp:425] concat <- embedded_input_sentence
…
I0925 22:26:20.647395 30369 recurrent_layer.cpp:20] Initializing recurrent layer: assuming input batch contains 1 timesteps of 1 independent streams.
I0925 22:26:20.647760 30369 net.cpp:49] Initializing net from parameters: 
layer {
  name: "lstm2_"
  type: "Input"
  top: "x"
  top: "cont"
  input_param {
    shape {
      dim: 1
      dim: 1
      dim: 1501
    }
    shape {
      dim: 1
      dim: 1
    }
  }
}
layer {
  name: "lstm2_"
  type: "Input"
  top: "c_0"
  top: "h_0"
  input_param {
    shape {
      dim: 1
      dim: 1
      dim: 1000
    }
    shape {
      dim: 1
      dim: 1
      dim: 1000
    }
  }
}
layer {
  name: "lstm2_cont_slice"
  type: "Slice"
  bottom: "cont"
  top: "cont_1"
  slice_param {
    axis: 0
  }
}
layer {
  name: "lstm2_x_transform"
  type: "InnerProduct"
  bottom: "x"
  top: "W_xc_x"
  param {
    name: "W_xc"
  }
  param {
    name: "b_c"
  }
  propagate_down: true
  inner_product_param {
    num_output: 4000
    bias_term: true
    weight_filler {
      type: "uniform"
      min: -0.08
      max: 0.08
    }
    bias_filler {
      type: "constant"
      value: 0
    }
    axis: 2
  }
}
layer {
  name: "lstm2_W_xc_x_slice"
  type: "Slice"
  bottom: "W_xc_x"
  top: "W_xc_x_1"
  slice_param {
    axis: 0
  }
}
layer {
  name: "lstm2_h_conted_0"
  type: "Scale"
  bottom: "h_0"
  bottom: "cont_1"
  top: "h_conted_0"
  scale_param {
    axis: 0
  }
}
layer {
  name: "lstm2_transform_1"
  type: "InnerProduct"
  bottom: "h_conted_0"
  top: "W_hc_h_0"
  param {
    name: "W_hc"
  }
  inner_product_param {
    num_output: 4000
    bias_term: false
    weight_filler {
      type: "uniform"
      min: -0.08
      max: 0.08
    }
    axis: 2
  }
}
layer {
  name: "lstm2_gate_input_1"
  type: "Eltwise"
  bottom: "W_hc_h_0"
  bottom: "W_xc_x_1"
  top: "gate_input_1"
  eltwise_param {
    operation: SUM
  }
}
layer {
  name: "lstm2_unit_1"
  type: "LSTMUnit"
  bottom: "c_0"
  bottom: "gate_input_1"
  bottom: "cont_1"
  top: "c_1"
  top: "h_1"
}
layer {
  name: "lstm2_"
  type: "Split"
  bottom: "c_1"
  top: "c_T"
}
layer {
  name: "lstm2_h_concat"
  type: "Concat"
  bottom: "h_1"
  top: "h"
  concat_param {
    axis: 0
  }
}
layer {
  name: "h_pseudoloss"
  type: "Reduction"
  bottom: "h"
  top: "h_pseudoloss"
  loss_weight: 1
}
I0925 22:26:20.647886 30369 layer_factory.hpp:77] Creating layer lstm2_
I0925 22:26:20.647902 30369 net.cpp:91] Creating Layer lstm2_
I0925 22:26:20.647913 30369 net.cpp:399] lstm2_ -> x
I0925 22:26:20.647928 30369 net.cpp:399] lstm2_ -> cont
I0925 22:26:20.693480 30381 net.cpp:141] Setting up lstm1_
I0925 22:26:20.693434 30363 net.cpp:141] Setting up embedding
I0925 22:26:20.693542 30367 net.cpp:141] Setting up lstm1_transform_1
I0925 22:26:20.693563 30363 net.cpp:148] Top shape: 1 1 500 (500)
I0925 22:26:20.693577 30367 net.cpp:148] Top shape: 1 1 4000 (4000)
I0925 22:26:20.693583 30363 net.cpp:156] Memory required for data: 22408
I0925 22:26:20.693588 30367 net.cpp:156] Memory required for data: 62016
I0925 22:26:20.693616 30363 layer_factory.hpp:77] Creating layer lstm1
I0925 22:26:20.693624 30367 layer_factory.hpp:77] Creating layer lstm1_gate_input_1
I0925 22:26:20.693647 30367 net.cpp:91] Creating Layer lstm1_gate_input_1
I0925 22:26:20.693655 30363 net.cpp:91] Creating Layer lstm1
I0925 22:26:20.693660 30367 net.cpp:425] lstm1_gate_input_1 <- W_hc_h_0
I0925 22:26:20.693670 30363 net.cpp:425] lstm1 <- embedded_input_frames
I0925 22:26:20.693683 30367 net.cpp:425] lstm1_gate_input_1 <- W_xc_x_1
I0925 22:26:20.693693 30407 net.cpp:141] Setting up lstm1
I0925 22:26:20.693711 30367 net.cpp:399] lstm1_gate_input_1 -> gate_input_1
I0925 22:26:20.693717 30407 net.cpp:148] Top shape: 1 1 1000 (1000)
I0925 22:26:20.693728 30407 net.cpp:156] Memory required for data: 26408
I0925 22:26:20.693754 30407 layer_factory.hpp:77] Creating layer concat
I0925 22:26:20.693684 30363 net.cpp:425] lstm1 <- cont_sentence_input_1_split_0
I0925 22:26:20.693773 30407 net.cpp:91] Creating Layer concat
I0925 22:26:20.693788 30407 net.cpp:425] concat <- lstm1
I0925 22:26:20.693790 30363 net.cpp:399] lstm1 -> lstm1
I0925 22:26:20.693799 30407 net.cpp:425] concat <- embedded_input_sentence
I0925 22:26:20.693780 30367 net.cpp:141] Setting up lstm1_gate_input_1
I0925 22:26:20.693812 30407 net.cpp:425] concat <- reshaped_stage_indicator
I0925 22:26:20.693825 30367 net.cpp:148] Top shape: 1 1 4000 (4000)
I0925 22:26:20.693823 30363 recurrent_layer.cpp:20] Initializing recurrent layer: assuming input batch contains 1 timesteps of 1 independent streams.
I0925 22:26:20.693850 30367 net.cpp:156] Memory required for data: 78016
I0925 22:26:20.693519 30381 net.cpp:148] Top shape: 1 1 1000 (1000)
I0925 22:26:20.693861 30367 layer_factory.hpp:77] Creating layer lstm1_unit_1
I0925 22:26:20.693879 30381 net.cpp:156] Memory required for data: 90016
I0925 22:26:20.693884 30367 net.cpp:91] Creating Layer lstm1_unit_1
I0925 22:26:20.693898 30381 layer_factory.hpp:77] Creating layer lstm1_h_concat
I0925 22:26:20.693917 30367 net.cpp:425] lstm1_unit_1 <- c_0
I0925 22:26:20.693929 30367 net.cpp:425] lstm1_unit_1 <- gate_input_1
I0925 22:26:20.693936 30381 net.cpp:91] Creating Layer lstm1_h_concat
I0925 22:26:20.693939 30367 net.cpp:425] lstm1_unit_1 <- cont_1_lstm1_cont_slice_0_split_1
I0925 22:26:20.693953 30381 net.cpp:425] lstm1_h_concat <- h_1
I0925 22:26:20.693967 30381 net.cpp:399] lstm1_h_concat -> h
I0925 22:26:20.693970 30367 net.cpp:399] lstm1_unit_1 -> c_1
I0925 22:26:20.693987 30367 net.cpp:399] lstm1_unit_1 -> h_1
I0925 22:26:20.694031 30369 net.cpp:141] Setting up lstm2_
I0925 22:26:20.694090 30381 net.cpp:141] Setting up lstm1_h_concat
I0925 22:26:20.694113 30381 net.cpp:148] Top shape: 1 1 1000 (1000)
I0925 22:26:20.694121 30381 net.cpp:156] Memory required for data: 94016
I0925 22:26:20.694130 30381 layer_factory.hpp:77] Creating layer h_pseudoloss
I0925 22:26:20.694144 30381 net.cpp:91] Creating Layer h_pseudoloss
I0925 22:26:20.694151 30381 net.cpp:425] h_pseudoloss <- h
I0925 22:26:20.694167 30381 net.cpp:399] h_pseudoloss -> h_pseudoloss
I0925 22:26:20.694201 30369 net.cpp:148] Top shape: 1 1 1501 (1501)
I0925 22:26:20.694213 30369 net.cpp:148] Top shape: 1 1 (1)
I0925 22:26:20.694221 30369 net.cpp:156] Memory required for data: 6008
I0925 22:26:20.694223 30367 net.cpp:141] Setting up lstm1_unit_1
I0925 22:26:20.694291 30367 net.cpp:148] Top shape: 1 1 1000 (1000)
I0925 22:26:20.694305 30363 net.cpp:49] Initializing net from parameters: 
layer {
  name: "lstm1_"
  type: "Input"
  top: "x"
  top: "cont"
  input_param {
    shape {
      dim: 1
      dim: 1
      dim: 500
    }
    shape {
      dim: 1
      dim: 1
    }
  }
}
layer {
  name: "lstm1_"
  type: "Input"
  top: "c_0"
  top: "h_0"
  input_param {
    shape {
      dim: 1
      dim: 1
      dim: 1000
    }
    shape {
      dim: 1
      dim: 1
      dim: 1000
    }
  }
}
layer {
  name: "lstm1_cont_slice"
  type: "Slice"
  bottom: "cont"
  top: "cont_1"
  slice_param {
    axis: 0
  }
}
layer {
  name: "lstm1_x_transform"
  type: "InnerProduct"
  bottom: "x"
  top: "W_xc_x"
  param {
    name: "W_xc"
  }
  param {
    name: "b_c"
  }
  propagate_down: true
  inner_product_param {
    num_output: 4000
    bias_term: true
    weight_filler {
      type: "uniform"
      min: -0.08
      max: 0.08
    }
    bias_filler {
      type: "constant"
      value: 0
    }
    axis: 2
  }
}
layer {
  name: "lstm1_W_xc_x_slice"
  type: "Slice"
  bottom: "W_xc_x"
  top: "W_xc_x_1"
  slice_param {
    axis: 0
  }
}
layer {
  name: "lstm1_h_conted_0"
  type: "Scale"
  bottom: "h_0"
  bottom: "cont_1"
  top: "h_conted_0"
  scale_param {
    axis: 0
  }
}
layer {
  name: "lstm1_transform_1"
  type: "InnerProduct"
  bottom: "h_conted_0"
  top: "W_hc_h_0"
  param {
    name: "W_hc"
  }
  inner_product_param {
    num_output: 4000
    bias_term: false
    weight_filler {
      type: "uniform"
      min: -0.08
      max: 0.08
    }
    axis: 2
  }
}
layer {
  name: "lstm1_gate_input_1"
  type: "Eltwise"
  bottom: "W_hc_h_0"
  bottom: "W_xc_x_1"
  top: "gate_input_1"
  eltwise_param {
    operation: SUM
  }
}
layer {
  name: "lstm1_unit_1"
  type: "LSTMUnit"
  bottom: "c_0"
  bottom: "gate_input_1"
  bottom: "cont_1"
  top: "c_1"
  top: "h_1"
}
layer {
  name: "lstm1_"
  type: "Split"
  bottom: "c_1"
  top: "c_T"
}
layer {
  name: "lstm1_h_concat"
  type: "Concat"
  bottom: "h_1"
  top: "h"
  concat_param {
    axis: 0
  }
}
layer {
  name: "h_pseudoloss"
  type: "Reduction"
  bottom: "h"
  top: "h_pseudoloss"
  loss_weight: 1
}
I0925 22:26:20.694315 30367 net.cpp:148] Top shape: 1 1 1000 (1000)
I0925 22:26:20.694339 30367 net.cpp:156] Memory required for data: 86016
I0925 22:26:20.694347 30367 layer_factory.hpp:77] Creating layer lstm1_
I0925 22:26:20.694361 30381 net.cpp:141] Setting up h_pseudoloss
I0925 22:26:20.694370 30367 net.cpp:91] Creating Layer lstm1_
I0925 22:26:20.694381 30367 net.cpp:425] lstm1_ <- c_1
I0925 22:26:20.694381 30381 net.cpp:148] Top shape: (1)
I0925 22:26:20.694402 30367 net.cpp:399] lstm1_ -> c_T
I0925 22:26:20.694402 30381 net.cpp:151]     with loss weight 1
I0925 22:26:20.694429 30381 net.cpp:156] Memory required for data: 94020
I0925 22:26:20.694438 30381 net.cpp:217] h_pseudoloss needs backward computation.
I0925 22:26:20.694447 30381 net.cpp:217] lstm1_h_concat needs backward computation.
I0925 22:26:20.693825 30407 net.cpp:399] concat -> lstm1_video_sequence
I0925 22:26:20.694455 30381 net.cpp:219] lstm1_ does not need backward computation.
I0925 22:26:20.694470 30381 net.cpp:217] lstm1_unit_1 needs backward computation.
I0925 22:26:20.694479 30367 net.cpp:141] Setting up lstm1_
I0925 22:26:20.694480 30381 net.cpp:217] lstm1_gate_input_1 needs backward computation.
I0925 22:26:20.694505 30367 net.cpp:148] Top shape: 1 1 1000 (1000)
I0925 22:26:20.694509 30381 net.cpp:217] lstm1_transform_1 needs backward computation.
I0925 22:26:20.694514 30367 net.cpp:156] Memory required for data: 90016
I0925 22:26:20.694517 30381 net.cpp:219] lstm1_h_conted_0 does not need backward computation.
I0925 22:26:20.694527 30381 net.cpp:217] lstm1_W_xc_x_slice needs backward computation.
I0925 22:26:20.694521 30367 layer_factory.hpp:77] Creating layer lstm1_h_concat
I0925 22:26:20.694535 30381 net.cpp:217] lstm1_x_transform needs backward computation.
I0925 22:26:20.694545 30381 net.cpp:219] cont_1_lstm1_cont_slice_0_split does not need backward computation.
I0925 22:26:20.694553 30381 net.cpp:219] lstm1_cont_slice does not need backward computation.
I0925 22:26:20.694564 30381 net.cpp:219] lstm1_ does not need backward computation.
I0925 22:26:20.694571 30381 net.cpp:219] lstm1_ does not need backward computation.
I0925 22:26:20.694578 30381 net.cpp:261] This network produces output c_T
I0925 22:26:20.694582 30407 net.cpp:141] Setting up concat
I0925 22:26:20.694586 30381 net.cpp:261] This network produces output h_pseudoloss
I0925 22:26:20.694619 30407 net.cpp:148] Top shape: 1 1 1501 (1501)
I0925 22:26:20.694629 30407 net.cpp:156] Memory required for data: 32412
I0925 22:26:20.694638 30407 layer_factory.hpp:77] Creating layer lstm2
I0925 22:26:20.694391 30369 layer_factory.hpp:77] Creating layer lstm2_
I0925 22:26:20.694674 30381 net.cpp:274] Network initialization done.
I0925 22:26:20.694676 30367 net.cpp:91] Creating Layer lstm1_h_concat
I0925 22:26:20.694689 30367 net.cpp:425] lstm1_h_concat <- h_1
I0925 22:26:20.694697 30407 net.cpp:91] Creating Layer lstm2
I0925 22:26:20.694702 30367 net.cpp:399] lstm1_h_concat -> h
I0925 22:26:20.694711 30407 net.cpp:425] lstm2 <- lstm1_video_sequence
I0925 22:26:20.694725 30407 net.cpp:425] lstm2 <- cont_sentence_input_1_split_1
I0925 22:26:20.694738 30407 net.cpp:399] lstm2 -> lstm2
I0925 22:26:20.694739 30381 recurrent_layer.cpp:150] Adding parameter 0: W_xc
I0925 22:26:20.694751 30381 recurrent_layer.cpp:150] Adding parameter 1: b_c
I0925 22:26:20.694756 30407 recurrent_layer.cpp:20] Initializing recurrent layer: assuming input batch contains 1 timesteps of 1 independent streams.
I0925 22:26:20.694659 30369 net.cpp:91] Creating Layer lstm2_
I0925 22:26:20.694758 30381 recurrent_layer.cpp:150] Adding parameter 2: W_hc
I0925 22:26:20.694798 30369 net.cpp:399] lstm2_ -> c_0
I0925 22:26:20.694802 30367 net.cpp:141] Setting up lstm1_h_concat
I0925 22:26:20.694818 30367 net.cpp:148] Top shape: 1 1 1000 (1000)
I0925 22:26:20.694824 30367 net.cpp:156] Memory required for data: 94016
I0925 22:26:20.694844 30367 layer_factory.hpp:77] Creating layer h_pseudoloss
I0925 22:26:20.694856 30367 net.cpp:91] Creating Layer h_pseudoloss
I0925 22:26:20.694864 30367 net.cpp:425] h_pseudoloss <- h
I0925 22:26:20.694880 30367 net.cpp:399] h_pseudoloss -> h_pseudoloss
I0925 22:26:20.695003 30381 net.cpp:141] Setting up lstm1
I0925 22:26:20.695021 30381 net.cpp:148] Top shape: 1 1 1000 (1000)
I0925 22:26:20.695029 30381 net.cpp:156] Memory required for data: 26408
I0925 22:26:20.695051 30381 layer_factory.hpp:77] Creating layer concat
I0925 22:26:20.695065 30381 net.cpp:91] Creating Layer concat
I0925 22:26:20.694952 30369 net.cpp:399] lstm2_ -> h_0
I0925 22:26:20.695096 30367 net.cpp:141] Setting up h_pseudoloss
I0925 22:26:20.695116 30367 net.cpp:148] Top shape: (1)
I0925 22:26:20.695091 30381 net.cpp:425] concat <- lstm1
…
I0925 22:26:20.695193 30367 net.cpp:219] lstm1_ does not need backward computation.
I0925 22:26:20.695091 30407 net.cpp:49] Initializing net from parameters: 
layer {
  name: "lstm2_"
  type: "Input"
  top: "x"
  top: "cont"
  input_param {
    shape {
      dim: 1
      dim: 1
      dim: 1501
    }
    shape {
      dim: 1
      dim: 1
    }
  }
}
layer {
  name: "lstm2_"
  type: "Input"
  top: "c_0"
  top: "h_0"
  input_param {
    shape {
      dim: 1
      dim: 1
      dim: 1000
    }
    shape {
      dim: 1
      dim: 1
      dim: 1000
    }
  }
}
layer {
  name: "lstm2_cont_slice"
  type: "Slice"
  bottom: "cont"
  top: "cont_1"
  slice_param {
    axis: 0
  }
}
layer {
  name: "lstm2_x_transform"
  type: "InnerProduct"
  bottom: "x"
  top: "W_xc_x"
  param {
    name: "W_xc"
  }
  param {
    name: "b_c"
  }
  propagate_down: true
  inner_product_param {
    num_output: 4000
    bias_term: true
    weight_filler {
      type: "uniform"
      min: -0.08
      max: 0.08
    }
    bias_filler {
      type: "constant"
      value: 0
    }
    axis: 2
  }
}
layer {
  name: "lstm2_W_xc_x_slice"
  type: "Slice"
  bottom: "W_xc_x"
  top: "W_xc_x_1"
  slice_param {
    axis: 0
  }
}
layer {
  name: "lstm2_h_conted_0"
  type: "Scale"
  bottom: "h_0"
  bottom: "cont_1"
  top: "h_conted_0"
  scale_param {
    axis: 0
  }
}
layer {
  name: "lstm2_transform_1"
  type: "InnerProduct"
  bottom: "h_conted_0"
  top: "W_hc_h_0"
  param {
    name: "W_hc"
  }
  inner_product_param {
    num_output: 4000
    bias_term: false
    weight_filler {
      type: "uniform"
      min: -0.08
      max: 0.08
    }
    axis: 2
  }
}
layer {
  name: "lstm2_gate_input_1"
  type: "Eltwise"
  bottom: "W_hc_h_0"
  bottom: "W_xc_x_1"
  top: "gate_input_1"
  eltwise_param {
    operation: SUM
  }
}
layer {
  name: "lstm2_unit_1"
  type: "LSTMUnit"
  bottom: "c_0"
  bottom: "gate_input_1"
  bottom: "cont_1"
  top: "c_1"
  top: "h_1"
}
layer {
  name: "lstm2_"
  type: "Split"
  bottom: "c_1"
  top: "c_T"
}
layer {
  name: "lstm2_h_concat"
  type: "Concat"
  bottom: "h_1"
  top: "h"
  concat_param {
    axis: 0
  }
}
layer {
  name: "h_pseudoloss"
  type: "Reduction"
  bottom: "h"
  top: "h_pseudoloss"
  loss_weight: 1
}
I0925 22:26:20.695201 30367 net.cpp:217] lstm1_unit_1 needs backward computation.
I0925 22:26:20.695212 30367 net.cpp:217] lstm1_gate_input_1 needs backward computation.
I0925 22:26:20.695220 30367 net.cpp:217] lstm1_transform_1 needs backward computation.
I0925 22:26:20.695230 30367 net.cpp:219] lstm1_h_conted_0 does not need backward computation.
I0925 22:26:20.695248 30367 net.cpp:217] lstm1_W_xc_x_slice needs backward computation.
I0925 22:26:20.695258 30367 net.cpp:217] lstm1_x_transform needs backward computation.
I0925 22:26:20.695266 30367 net.cpp:219] cont_1_lstm1_cont_slice_0_split does not need backward computation.
I0925 22:26:20.695276 30367 net.cpp:219] lstm1_cont_slice does not need backward computation.
I0925 22:26:20.695274 30381 net.cpp:141] Setting up concat
I0925 22:26:20.695302 30381 net.cpp:148] Top shape: 1 1 1501 (1501)
I0925 22:26:20.695302 30367 net.cpp:219] lstm1_ does not need backward computation.
I0925 22:26:20.695309 30381 net.cpp:156] Memory required for data: 32412
I0925 22:26:20.695314 30367 net.cpp:219] lstm1_ does not need backward computation.
I0925 22:26:20.695318 30381 layer_factory.hpp:77] Creating layer lstm2
I0925 22:26:20.695322 30367 net.cpp:261] This network produces output c_T
…
I0925 22:26:20.695369 30381 net.cpp:425] lstm2 <- cont_sentence_input_1_split_1
I0925 22:26:20.695392 30407 net.cpp:399] lstm2_ -> cont
I0925 22:26:20.695392 30381 net.cpp:399] lstm2 -> lstm2
I0925 22:26:20.695418 30381 recurrent_layer.cpp:20] Initializing recurrent layer: assuming input batch contains 1 timesteps of 1 independent streams.
I0925 22:26:20.695444 30367 recurrent_layer.cpp:150] Adding parameter 0: W_xc
I0925 22:26:20.695456 30367 recurrent_layer.cpp:150] Adding parameter 1: b_c
I0925 22:26:20.695474 30367 recurrent_layer.cpp:150] Adding parameter 2: W_hc
I0925 22:26:20.695528 30407 net.cpp:141] Setting up lstm2_
I0925 22:26:20.695546 30407 net.cpp:148] Top shape: 1 1 1501 (1501)
I0925 22:26:20.695557 30407 net.cpp:148] Top shape: 1 1 (1)
I0925 22:26:20.695564 30407 net.cpp:156] Memory required for data: 6008
I0925 22:26:20.695572 30407 layer_factory.hpp:77] Creating layer lstm2_
I0925 22:26:20.695586 30407 net.cpp:91] Creating Layer lstm2_
I0925 22:26:20.695600 30407 net.cpp:399] lstm2_ -> c_0
I0925 22:26:20.695616 30407 net.cpp:399] lstm2_ -> h_0
I0925 22:26:20.695641 30363 layer_factory.hpp:77] Creating layer lstm1_
I0925 22:26:20.695655 30363 net.cpp:91] Creating Layer lstm1_
I0925 22:26:20.695665 30363 net.cpp:399] lstm1_ -> x
I0925 22:26:20.695680 30363 net.cpp:399] lstm1_ -> cont
I0925 22:26:20.695771 30381 net.cpp:49] Initializing net from parameters: 
layer {
  name: "lstm2_"
  type: "Input"
  top: "x"
  top: "cont"
  input_param {
    shape {
      dim: 1
      dim: 1
      dim: 1501
    }
    shape {
      dim: 1
      dim: 1
    }
  }
}
layer {
  name: "lstm2_"
  type: "Input"
  top: "c_0"
  top: "h_0"
  input_param {
    shape {
      dim: 1
      dim: 1
      dim: 1000
    }
    shape {
      dim: 1
      dim: 1
      dim: 1000
    }
  }
}
layer {
  name: "lstm2_cont_slice"
  type: "Slice"
  bottom: "cont"
  top: "cont_1"
  slice_param {
    axis: 0
  }
}
layer {
  name: "lstm2_x_transform"
  type: "InnerProduct"
  bottom: "x"
  top: "W_xc_x"
  param {
    name: "W_xc"
  }
  param {
    name: "b_c"
  }
  propagate_down: true
  inner_product_param {
    num_output: 4000
    bias_term: true
    weight_filler {
      type: "uniform"
      min: -0.08
      max: 0.08
    }
    bias_filler {
      type: "constant"
      value: 0
    }
    axis: 2
  }
}
layer {
  name: "lstm2_W_xc_x_slice"
  type: "Slice"
  bottom: "W_xc_x"
  top: "W_xc_x_1"
  slice_param {
    axis: 0
  }
}
layer {
  name: "lstm2_h_conted_0"
  type: "Scale"
  bottom: "h_0"
  bottom: "cont_1"
  top: "h_conted_0"
  scale_param {
    axis: 0
  }
}
layer {
  name: "lstm2_transform_1"
  type: "InnerProduct"
  bottom: "h_conted_0"
  top: "W_hc_h_0"
  param {
    name: "W_hc"
  }
  inner_product_param {
    num_output: 4000
    bias_term: false
    weight_filler {
      type: "uniform"
      min: -0.08
      max: 0.08
    }
    axis: 2
  }
}
layer {
  name: "lstm2_gate_input_1"
  type: "Eltwise"
  bottom: "W_hc_h_0"
  bottom: "W_xc_x_1"
  top: "gate_input_1"
  eltwise_param {
    operation: SUM
  }
}
layer {
  name: "lstm2_unit_1"
  type: "LSTMUnit"
  bottom: "c_0"
  bottom: "gate_input_1"
  bottom: "cont_1"
  top: "c_1"
  top: "h_1"
}
layer {
  name: "lstm2_"
  type: "Split"
  bottom: "c_1"
  top: "c_T"
}
layer {
  name: "lstm2_h_concat"
  type: "Concat"
  bottom: "h_1"
  top: "h"
  concat_param {
    axis: 0
  }
}
layer {
  name: "h_pseudoloss"
  type: "Reduction"
  bottom: "h"
  top: "h_pseudoloss"
  loss_weight: 1
}
I0925 22:26:20.695896 30381 layer_factory.hpp:77] Creating layer lstm2_
I0925 22:26:20.695914 30381 net.cpp:91] Creating Layer lstm2_
I0925 22:26:20.695924 30381 net.cpp:399] lstm2_ -> x
I0925 22:26:20.695940 30381 net.cpp:399] lstm2_ -> cont
I0925 22:26:20.695377 30369 net.cpp:141] Setting up lstm2_
I0925 22:26:20.695986 30369 net.cpp:148] Top shape: 1 1 1000 (1000)
I0925 22:26:20.695997 30369 net.cpp:148] Top shape: 1 1 1000 (1000)
I0925 22:26:20.696004 30369 net.cpp:156] Memory required for data: 14008
I0925 22:26:20.696009 30407 net.cpp:141] Setting up lstm2_
I0925 22:26:20.696043 30407 net.cpp:148] Top shape: 1 1 1000 (1000)
I0925 22:26:20.696012 30369 layer_factory.hpp:77] Creating layer lstm2_cont_slice
I0925 22:26:20.696081 30369 net.cpp:91] Creating Layer lstm2_cont_slice
I0925 22:26:20.696092 30369 net.cpp:425] lstm2_cont_slice <- cont
I0925 22:26:20.696106 30369 net.cpp:399] lstm2_cont_slice -> cont_1
I0925 22:26:20.696132 30363 net.cpp:141] Setting up lstm1_
I0925 22:26:20.696147 30363 net.cpp:148] Top shape: 1 1 500 (500)
I0925 22:26:20.696158 30363 net.cpp:148] Top shape: 1 1 (1)
I0925 22:26:20.696166 30363 net.cpp:156] Memory required for data: 2004
I0925 22:26:20.696174 30363 layer_factory.hpp:77] Creating layer lstm1_
I0925 22:26:20.696193 30369 net.cpp:141] Setting up lstm2_cont_slice
I0925 22:26:20.696210 30369 net.cpp:148] Top shape: 1 1 (1)
I0925 22:26:20.696218 30369 net.cpp:156] Memory required for data: 14012
I0925 22:26:20.696226 30369 layer_factory.hpp:77] Creating layer cont_1_lstm2_cont_slice_0_split
I0925 22:26:20.696238 30369 net.cpp:91] Creating Layer cont_1_lstm2_cont_slice_0_split
I0925 22:26:20.696249 30367 net.cpp:141] Setting up lstm1
I0925 22:26:20.696054 30407 net.cpp:148] Top shape: 1 1 1000 (1000)
I0925 22:26:20.696305 30367 net.cpp:148] Top shape: 1 1 1000 (1000)
I0925 22:26:20.696321 30367 net.cpp:156] Memory required for data: 26408
I0925 22:26:20.696328 30381 net.cpp:141] Setting up lstm2_
I0925 22:26:20.696346 30381 net.cpp:148] Top shape: 1 1 1501 (1501)
I0925 22:26:20.696300 30407 net.cpp:156] Memory required for data: 14008
I0925 22:26:20.696362 30367 layer_factory.hpp:77] Creating layer concat
I0925 22:26:20.696367 30407 layer_factory.hpp:77] Creating layer lstm2_cont_slice
I0925 22:26:20.696363 30381 net.cpp:148] Top shape: 1 1 (1)
I0925 22:26:20.696384 30381 net.cpp:156] Memory required for data: 6008
I0925 22:26:20.696385 30367 net.cpp:91] Creating Layer concat
I0925 22:26:20.696388 30407 net.cpp:91] Creating Layer lstm2_cont_slice
I0925 22:26:20.696393 30381 layer_factory.hpp:77] Creating layer lstm2_
I0925 22:26:20.696400 30407 net.cpp:425] lstm2_cont_slice <- cont
I0925 22:26:20.696398 30367 net.cpp:425] concat <- lstm1
I0925 22:26:20.696246 30369 net.cpp:425] cont_1_lstm2_cont_slice_0_split <- cont_1
I0925 22:26:20.696415 30407 net.cpp:399] lstm2_cont_slice -> cont_1
I0925 22:26:20.696410 30381 net.cpp:91] Creating Layer lstm2_
I0925 22:26:20.696427 30367 net.cpp:425] concat <- embedded_input_sentence
I0925 22:26:20.696430 30381 net.cpp:399] lstm2_ -> c_0
I0925 22:26:20.696437 30367 net.cpp:425] concat <- reshaped_stage_indicator
I0925 22:26:20.696449 30381 net.cpp:399] lstm2_ -> h_0
I0925 22:26:20.696346 30363 net.cpp:91] Creating Layer lstm1_
I0925 22:26:20.696455 30367 net.cpp:399] concat -> lstm1_video_sequence
I0925 22:26:20.696475 30363 net.cpp:399] lstm1_ -> c_0
I0925 22:26:20.696480 30369 net.cpp:399] cont_1_lstm2_cont_slice_0_split -> cont_1_lstm2_cont_slice_0_split_0
I0925 22:26:20.696496 30363 net.cpp:399] lstm1_ -> h_0
I0925 22:26:20.696496 30369 net.cpp:399] cont_1_lstm2_cont_slice_0_split -> cont_1_lstm2_cont_slice_0_split_1
I0925 22:26:20.698674 30381 net.cpp:141] Setting up lstm2_
I0925 22:26:20.698696 30381 net.cpp:148] Top shape: 1 1 1000 (1000)
I0925 22:26:20.698707 30381 net.cpp:148] Top shape: 1 1 1000 (1000)
I0925 22:26:20.698714 30381 net.cpp:156] Memory required for data: 14008
I0925 22:26:20.698721 30381 layer_factory.hpp:77] Creating layer lstm2_cont_slice
I0925 22:26:20.698735 30381 net.cpp:91] Creating Layer lstm2_cont_slice
I0925 22:26:20.698745 30381 net.cpp:425] lstm2_cont_slice <- cont
I0925 22:26:20.698760 30381 net.cpp:399] lstm2_cont_slice -> cont_1
I0925 22:26:20.698824 30373 net.cpp:141] Setting up lstm1_transform_1
I0925 22:26:20.698846 30373 net.cpp:148] Top shape: 1 1 4000 (4000)
I0925 22:26:20.698856 30373 net.cpp:156] Memory required for data: 62016
I0925 22:26:20.698871 30373 layer_factory.hpp:77] Creating layer lstm1_gate_input_1
I0925 22:26:20.698892 30373 net.cpp:91] Creating Layer lstm1_gate_input_1
I0925 22:26:20.698899 30369 net.cpp:141] Setting up cont_1_lstm2_cont_slice_0_split
I0925 22:26:20.698933 30369 net.cpp:148] Top shape: 1 1 (1)
I0925 22:26:20.698945 30369 net.cpp:148] Top shape: 1 1 (1)
I0925 22:26:20.698952 30369 net.cpp:156] Memory required for data: 14020
I0925 22:26:20.698961 30369 layer_factory.hpp:77] Creating layer lstm2_x_transform
I0925 22:26:20.699034 30381 net.cpp:141] Setting up lstm2_cont_slice
I0925 22:26:20.699049 30381 net.cpp:148] Top shape: 1 1 (1)
I0925 22:26:20.699056 30381 net.cpp:156] Memory required for data: 14012
I0925 22:26:20.699064 30381 layer_factory.hpp:77] Creating layer cont_1_lstm2_cont_slice_0_split
I0925 22:26:20.699076 30381 net.cpp:91] Creating Layer cont_1_lstm2_cont_slice_0_split
I0925 22:26:20.699084 30381 net.cpp:425] cont_1_lstm2_cont_slice_0_split <- cont_1
I0925 22:26:20.699096 30381 net.cpp:399] cont_1_lstm2_cont_slice_0_split -> cont_1_lstm2_cont_slice_0_split_0
I0925 22:26:20.699102 30407 net.cpp:141] Setting up lstm2_cont_slice
I0925 22:26:20.699110 30381 net.cpp:399] cont_1_lstm2_cont_slice_0_split -> cont_1_lstm2_cont_slice_0_split_1
I0925 22:26:20.699134 30407 net.cpp:148] Top shape: 1 1 (1)
I0925 22:26:20.699144 30407 net.cpp:156] Memory required for data: 14012
I0925 22:26:20.699152 30369 net.cpp:91] Creating Layer lstm2_x_transform
I0925 22:26:20.699154 30407 layer_factory.hpp:77] Creating layer cont_1_lstm2_cont_slice_0_split
I0925 22:26:20.699164 30369 net.cpp:425] lstm2_x_transform <- x
I0925 22:26:20.699164 30367 net.cpp:141] Setting up concat
I0925 22:26:20.699182 30369 net.cpp:399] lstm2_x_transform -> W_xc_x
I0925 22:26:20.699183 30367 net.cpp:148] Top shape: 1 1 1501 (1501)
I0925 22:26:20.699193 30367 net.cpp:156] Memory required for data: 32412
I0925 22:26:20.699213 30367 layer_factory.hpp:77] Creating layer lstm2
I0925 22:26:20.699237 30367 net.cpp:91] Creating Layer lstm2
I0925 22:26:20.699247 30367 net.cpp:425] lstm2 <- lstm1_video_sequence
I0925 22:26:20.699256 30363 net.cpp:141] Setting up lstm1_
I0925 22:26:20.699259 30367 net.cpp:425] lstm2 <- cont_sentence_input_1_split_1
I0925 22:26:20.699272 30363 net.cpp:148] Top shape: 1 1 1000 (1000)
I0925 22:26:20.699285 30363 net.cpp:148] Top shape: 1 1 1000 (1000)
I0925 22:26:20.699285 30367 net.cpp:399] lstm2 -> lstm2
I0925 22:26:20.699291 30363 net.cpp:156] Memory required for data: 10004
I0925 22:26:20.699301 30363 layer_factory.hpp:77] Creating layer lstm1_cont_slice
I0925 22:26:20.699304 30367 recurrent_layer.cpp:20] Initializing recurrent layer: assuming input batch contains 1 timesteps of 1 independent streams.
I0925 22:26:20.699316 30363 net.cpp:91] Creating Layer lstm1_cont_slice
I0925 22:26:20.699326 30363 net.cpp:425] lstm1_cont_slice <- cont
I0925 22:26:20.699342 30363 net.cpp:399] lstm1_cont_slice -> cont_1
I0925 22:26:20.699182 30407 net.cpp:91] Creating Layer cont_1_lstm2_cont_slice_0_split
I0925 22:26:20.699375 30407 net.cpp:425] cont_1_lstm2_cont_slice_0_split <- cont_1
I0925 22:26:20.699380 30381 net.cpp:141] Setting up cont_1_lstm2_cont_slice_0_split
I0925 22:26:20.699394 30407 net.cpp:399] cont_1_lstm2_cont_slice_0_split -> cont_1_lstm2_cont_slice_0_split_0
I0925 22:26:20.699398 30381 net.cpp:148] Top shape: 1 1 (1)
I0925 22:26:20.699409 30381 net.cpp:148] Top shape: 1 1 (1)
I0925 22:26:20.699410 30407 net.cpp:399] cont_1_lstm2_cont_slice_0_split -> cont_1_lstm2_cont_slice_0_split_1
I0925 22:26:20.699416 30381 net.cpp:156] Memory required for data: 14020
I0925 22:26:20.699425 30381 layer_factory.hpp:77] Creating layer lstm2_x_transform
I0925 22:26:20.699445 30381 net.cpp:91] Creating Layer lstm2_x_transform
I0925 22:26:20.699452 30381 net.cpp:425] lstm2_x_transform <- x
I0925 22:26:20.699466 30381 net.cpp:399] lstm2_x_transform -> W_xc_x
I0925 22:26:20.699513 30407 net.cpp:141] Setting up cont_1_lstm2_cont_slice_0_split
I0925 22:26:20.699528 30407 net.cpp:148] Top shape: 1 1 (1)
I0925 22:26:20.699538 30407 net.cpp:148] Top shape: 1 1 (1)
I0925 22:26:20.699545 30407 net.cpp:156] Memory required for data: 14020
I0925 22:26:20.699553 30407 layer_factory.hpp:77] Creating layer lstm2_x_transform
I0925 22:26:20.699573 30407 net.cpp:91] Creating Layer lstm2_x_transform
I0925 22:26:20.699581 30407 net.cpp:425] lstm2_x_transform <- x
I0925 22:26:20.699600 30407 net.cpp:399] lstm2_x_transform -> W_xc_x
I0925 22:26:20.699765 30367 net.cpp:49] Initializing net from parameters: 
layer {
  name: "lstm2_"
  type: "Input"
  top: "x"
  top: "cont"
  input_param {
    shape {
      dim: 1
      dim: 1
      dim: 1501
    }
    shape {
      dim: 1
      dim: 1
    }
  }
}
layer {
  name: "lstm2_"
  type: "Input"
  top: "c_0"
  top: "h_0"
  input_param {
    shape {
      dim: 1
      dim: 1
      dim: 1000
    }
    shape {
      dim: 1
      dim: 1
      dim: 1000
    }
  }
}
layer {
  name: "lstm2_cont_slice"
  type: "Slice"
  bottom: "cont"
  top: "cont_1"
  slice_param {
    axis: 0
  }
}
layer {
  name: "lstm2_x_transform"
  type: "InnerProduct"
  bottom: "x"
  top: "W_xc_x"
  param {
    name: "W_xc"
  }
  param {
    name: "b_c"
  }
  propagate_down: true
  inner_product_param {
    num_output: 4000
    bias_term: true
    weight_filler {
      type: "uniform"
      min: -0.08
      max: 0.08
    }
    bias_filler {
      type: "constant"
      value: 0
    }
    axis: 2
  }
}
layer {
  name: "lstm2_W_xc_x_slice"
  type: "Slice"
  bottom: "W_xc_x"
  top: "W_xc_x_1"
  slice_param {
    axis: 0
  }
}
layer {
  name: "lstm2_h_conted_0"
  type: "Scale"
  bottom: "h_0"
  bottom: "cont_1"
  top: "h_conted_0"
  scale_param {
    axis: 0
  }
}
layer {
  name: "lstm2_transform_1"
  type: "InnerProduct"
  bottom: "h_conted_0"
  top: "W_hc_h_0"
  param {
    name: "W_hc"
  }
  inner_product_param {
    num_output: 4000
    bias_term: false
    weight_filler {
      type: "uniform"
      min: -0.08
      max: 0.08
    }
    axis: 2
  }
}
layer {
  name: "lstm2_gate_input_1"
  type: "Eltwise"
  bottom: "W_hc_h_0"
  bottom: "W_xc_x_1"
  top: "gate_input_1"
  eltwise_param {
    operation: SUM
  }
}
layer {
  name: "lstm2_unit_1"
  type: "LSTMUnit"
  bottom: "c_0"
  bottom: "gate_input_1"
  bottom: "cont_1"
  top: "c_1"
  top: "h_1"
}
layer {
  name: "lstm2_"
  type: "Split"
  bottom: "c_1"
  top: "c_T"
}
layer {
  name: "lstm2_h_concat"
  type: "Concat"
  bottom: "h_1"
  top: "h"
  concat_param {
    axis: 0
  }
}
layer {
  name: "h_pseudoloss"
  type: "Reduction"
  bottom: "h"
  top: "h_pseudoloss"
  loss_weight: 1
}
I0925 22:26:20.699928 30367 layer_factory.hpp:77] Creating layer lstm2_
I0925 22:26:20.699959 30367 net.cpp:91] Creating Layer lstm2_
I0925 22:26:20.699970 30367 net.cpp:399] lstm2_ -> x
I0925 22:26:20.699987 30367 net.cpp:399] lstm2_ -> cont
I0925 22:26:20.698901 30373 net.cpp:425] lstm1_gate_input_1 <- W_hc_h_0
I0925 22:26:20.703192 30373 net.cpp:425] lstm1_gate_input_1 <- W_xc_x_1
I0925 22:26:20.703222 30373 net.cpp:399] lstm1_gate_input_1 -> gate_input_1
I0925 22:26:20.714000 30363 net.cpp:141] Setting up lstm1_cont_slice
I0925 22:26:20.714052 30363 net.cpp:148] Top shape: 1 1 (1)
I0925 22:26:20.714061 30363 net.cpp:156] Memory required for data: 10008
I0925 22:26:20.714074 30363 layer_factory.hpp:77] Creating layer cont_1_lstm1_cont_slice_0_split
I0925 22:26:20.714110 30363 net.cpp:91] Creating Layer cont_1_lstm1_cont_slice_0_split
I0925 22:26:20.714123 30363 net.cpp:425] cont_1_lstm1_cont_slice_0_split <- cont_1
I0925 22:26:20.714138 30363 net.cpp:399] cont_1_lstm1_cont_slice_0_split -> cont_1_lstm1_cont_slice_0_split_0
I0925 22:26:20.714156 30373 net.cpp:141] Setting up lstm1_gate_input_1
I0925 22:26:20.714157 30363 net.cpp:399] cont_1_lstm1_cont_slice_0_split -> cont_1_lstm1_cont_slice_0_split_1
I0925 22:26:20.714190 30373 net.cpp:148] Top shape: 1 1 4000 (4000)
I0925 22:26:20.714198 30373 net.cpp:156] Memory required for data: 78016
I0925 22:26:20.714208 30373 layer_factory.hpp:77] Creating layer lstm1_unit_1
I0925 22:26:20.714265 30373 net.cpp:91] Creating Layer lstm1_unit_1
I0925 22:26:20.714279 30373 net.cpp:425] lstm1_unit_1 <- c_0
I0925 22:26:20.714293 30373 net.cpp:425] lstm1_unit_1 <- gate_input_1
I0925 22:26:20.714303 30373 net.cpp:425] lstm1_unit_1 <- cont_1_lstm1_cont_slice_0_split_1
I0925 22:26:20.714318 30373 net.cpp:399] lstm1_unit_1 -> c_1
I0925 22:26:20.714336 30373 net.cpp:399] lstm1_unit_1 -> h_1
I0925 22:26:20.742910 30367 net.cpp:141] Setting up lstm2_
I0925 22:26:20.742956 30367 net.cpp:148] Top shape: 1 1 1501 (1501)
I0925 22:26:20.742969 30367 net.cpp:148] Top shape: 1 1 (1)
I0925 22:26:20.742975 30367 net.cpp:156] Memory required for data: 6008
I0925 22:26:20.742986 30367 layer_factory.hpp:77] Creating layer lstm2_
I0925 22:26:20.743012 30367 net.cpp:91] Creating Layer lstm2_
I0925 22:26:20.743024 30367 net.cpp:399] lstm2_ -> c_0
I0925 22:26:20.743048 30367 net.cpp:399] lstm2_ -> h_0
I0925 22:26:20.743160 30367 net.cpp:141] Setting up lstm2_
I0925 22:26:20.743173 30367 net.cpp:148] Top shape: 1 1 1000 (1000)
I0925 22:26:20.743182 30367 net.cpp:148] Top shape: 1 1 1000 (1000)
I0925 22:26:20.743190 30367 net.cpp:156] Memory required for data: 14008
I0925 22:26:20.743196 30367 layer_factory.hpp:77] Creating layer lstm2_cont_slice
I0925 22:26:20.743211 30367 net.cpp:91] Creating Layer lstm2_cont_slice
I0925 22:26:20.743219 30367 net.cpp:425] lstm2_cont_slice <- cont
I0925 22:26:20.743234 30367 net.cpp:399] lstm2_cont_slice -> cont_1
I0925 22:26:20.743285 30367 net.cpp:141] Setting up lstm2_cont_slice
I0925 22:26:20.743299 30367 net.cpp:148] Top shape: 1 1 (1)
I0925 22:26:20.743305 30367 net.cpp:156] Memory required for data: 14012
I0925 22:26:20.743312 30367 layer_factory.hpp:77] Creating layer cont_1_lstm2_cont_slice_0_split
I0925 22:26:20.743324 30367 net.cpp:91] Creating Layer cont_1_lstm2_cont_slice_0_split
I0925 22:26:20.743331 30367 net.cpp:425] cont_1_lstm2_cont_slice_0_split <- cont_1
I0925 22:26:20.743342 30367 net.cpp:399] cont_1_lstm2_cont_slice_0_split -> cont_1_lstm2_cont_slice_0_split_0
I0925 22:26:20.743358 30367 net.cpp:399] cont_1_lstm2_cont_slice_0_split -> cont_1_lstm2_cont_slice_0_split_1
I0925 22:26:20.743430 30367 net.cpp:141] Setting up cont_1_lstm2_cont_slice_0_split
I0925 22:26:20.743443 30367 net.cpp:148] Top shape: 1 1 (1)
I0925 22:26:20.743453 30367 net.cpp:148] Top shape: 1 1 (1)
I0925 22:26:20.743459 30367 net.cpp:156] Memory required for data: 14020
I0925 22:26:20.743466 30367 layer_factory.hpp:77] Creating layer lstm2_x_transform
I0925 22:26:20.743487 30367 net.cpp:91] Creating Layer lstm2_x_transform
I0925 22:26:20.743495 30367 net.cpp:425] lstm2_x_transform <- x
I0925 22:26:20.743508 30367 net.cpp:399] lstm2_x_transform -> W_xc_x
I0925 22:26:20.758493 30363 net.cpp:141] Setting up cont_1_lstm1_cont_slice_0_split
I0925 22:26:20.758541 30401 net.cpp:141] Setting up embedding
I0925 22:26:20.758553 30363 net.cpp:148] Top shape: 1 1 (1)
I0925 22:26:20.758564 30401 net.cpp:148] Top shape: 1 1 500 (500)
I0925 22:26:20.758574 30401 net.cpp:156] Memory required for data: 22408
I0925 22:26:20.758575 30363 net.cpp:148] Top shape: 1 1 (1)
I0925 22:26:20.758584 30363 net.cpp:156] Memory required for data: 10016
I0925 22:26:20.758606 30373 net.cpp:141] Setting up lstm1_unit_1
I0925 22:26:20.758610 30363 layer_factory.hpp:77] Creating layer lstm1_x_transform
I0925 22:26:20.758631 30373 net.cpp:148] Top shape: 1 1 1000 (1000)
I0925 22:26:20.758643 30373 net.cpp:148] Top shape: 1 1 1000 (1000)
I0925 22:26:20.758651 30373 net.cpp:156] Memory required for data: 86016
I0925 22:26:20.758661 30373 layer_factory.hpp:77] Creating layer lstm1_
I0925 22:26:20.758661 30363 net.cpp:91] Creating Layer lstm1_x_transform
I0925 22:26:20.758672 30363 net.cpp:425] lstm1_x_transform <- x
I0925 22:26:20.758674 30373 net.cpp:91] Creating Layer lstm1_
I0925 22:26:20.758683 30373 net.cpp:425] lstm1_ <- c_1
I0925 22:26:20.758692 30363 net.cpp:399] lstm1_x_transform -> W_xc_x
I0925 22:26:20.758700 30373 net.cpp:399] lstm1_ -> c_T
I0925 22:26:20.758764 30373 net.cpp:141] Setting up lstm1_
I0925 22:26:20.758781 30373 net.cpp:148] Top shape: 1 1 1000 (1000)
I0925 22:26:20.758790 30373 net.cpp:156] Memory required for data: 90016
I0925 22:26:20.758797 30373 layer_factory.hpp:77] Creating layer lstm1_h_concat
I0925 22:26:20.758815 30373 net.cpp:91] Creating Layer lstm1_h_concat
I0925 22:26:20.758823 30373 net.cpp:425] lstm1_h_concat <- h_1
I0925 22:26:20.758836 30373 net.cpp:399] lstm1_h_concat -> h
I0925 22:26:20.758610 30401 layer_factory.hpp:77] Creating layer lstm1
I0925 22:26:20.758911 30401 net.cpp:91] Creating Layer lstm1
I0925 22:26:20.758924 30401 net.cpp:425] lstm1 <- embedded_input_frames
I0925 22:26:20.758935 30401 net.cpp:425] lstm1 <- cont_sentence_input_1_split_0
I0925 22:26:20.758952 30401 net.cpp:399] lstm1 -> lstm1
I0925 22:26:20.758973 30401 recurrent_layer.cpp:20] Initializing recurrent layer: assuming input batch contains 1 timesteps of 1 independent streams.
I0925 22:26:20.763303 30401 net.cpp:49] Initializing net from parameters: 
layer {
  name: "lstm1_"
  type: "Input"
  top: "x"
  top: "cont"
  input_param {
    shape {
      dim: 1
      dim: 1
      dim: 500
    }
    shape {
      dim: 1
      dim: 1
    }
  }
}
layer {
  name: "lstm1_"
  type: "Input"
  top: "c_0"
  top: "h_0"
  input_param {
    shape {
      dim: 1
      dim: 1
      dim: 1000
    }
    shape {
      dim: 1
      dim: 1
      dim: 1000
    }
  }
}
layer {
  name: "lstm1_cont_slice"
  type: "Slice"
  bottom: "cont"
  top: "cont_1"
  slice_param {
    axis: 0
  }
}
layer {
  name: "lstm1_x_transform"
  type: "InnerProduct"
  bottom: "x"
  top: "W_xc_x"
  param {
    name: "W_xc"
  }
  param {
    name: "b_c"
  }
  propagate_down: true
  inner_product_param {
    num_output: 4000
    bias_term: true
    weight_filler {
      type: "uniform"
      min: -0.08
      max: 0.08
    }
    bias_filler {
      type: "constant"
      value: 0
    }
    axis: 2
  }
}
layer {
  name: "lstm1_W_xc_x_slice"
  type: "Slice"
  bottom: "W_xc_x"
  top: "W_xc_x_1"
  slice_param {
    axis: 0
  }
}
layer {
  name: "lstm1_h_conted_0"
  type: "Scale"
  bottom: "h_0"
  bottom: "cont_1"
  top: "h_conted_0"
  scale_param {
    axis: 0
  }
}
layer {
  name: "lstm1_transform_1"
  type: "InnerProduct"
  bottom: "h_conted_0"
  top: "W_hc_h_0"
  param {
    name: "W_hc"
  }
  inner_product_param {
    num_output: 4000
    bias_term: false
    weight_filler {
      type: "uniform"
      min: -0.08
      max: 0.08
    }
    axis: 2
  }
}
layer {
  name: "lstm1_gate_input_1"
  type: "Eltwise"
  bottom: "W_hc_h_0"
  bottom: "W_xc_x_1"
  top: "gate_input_1"
  eltwise_param {
    operation: SUM
  }
}
layer {
  name: "lstm1_unit_1"
  type: "LSTMUnit"
  bottom: "c_0"
  bottom: "gate_input_1"
  bottom: "cont_1"
  top: "c_1"
  top: "h_1"
}
layer {
  name: "lstm1_"
  type: "Split"
  bottom: "c_1"
  top: "c_T"
}
layer {
  name: "lstm1_h_concat"
  type: "Concat"
  bottom: "h_1"
  top: "h"
  concat_param {
    axis: 0
  }
}
layer {
  name: "h_pseudoloss"
  type: "Reduction"
  bottom: "h"
  top: "h_pseudoloss"
  loss_weight: 1
}
I0925 22:26:20.763533 30401 layer_factory.hpp:77] Creating layer lstm1_
I0925 22:26:20.763557 30401 net.cpp:91] Creating Layer lstm1_
I0925 22:26:20.763571 30401 net.cpp:399] lstm1_ -> x
I0925 22:26:20.763597 30401 net.cpp:399] lstm1_ -> cont
I0925 22:26:20.764567 30373 net.cpp:141] Setting up lstm1_h_concat
I0925 22:26:20.764610 30373 net.cpp:148] Top shape: 1 1 1000 (1000)
I0925 22:26:20.764626 30373 net.cpp:156] Memory required for data: 94016
I0925 22:26:20.764644 30373 layer_factory.hpp:77] Creating layer h_pseudoloss
I0925 22:26:20.764674 30373 net.cpp:91] Creating Layer h_pseudoloss
I0925 22:26:20.764693 30373 net.cpp:425] h_pseudoloss <- h
I0925 22:26:20.764729 30373 net.cpp:399] h_pseudoloss -> h_pseudoloss
I0925 22:26:20.764991 30373 net.cpp:141] Setting up h_pseudoloss
…
I0925 22:26:20.765230 30373 net.cpp:219] lstm1_ does not need backward computation.
I0925 22:26:20.765241 30373 net.cpp:261] This network produces output c_T
I0925 22:26:20.765254 30373 net.cpp:261] This network produces output h_pseudoloss
I0925 22:26:20.765288 30373 net.cpp:274] Network initialization done.
I0925 22:26:20.765372 30373 recurrent_layer.cpp:150] Adding parameter 0: W_xc
I0925 22:26:20.765383 30373 recurrent_layer.cpp:150] Adding parameter 1: b_c
I0925 22:26:20.765393 30373 recurrent_layer.cpp:150] Adding parameter 2: W_hc
I0925 22:26:20.765542 30373 net.cpp:141] Setting up lstm1
I0925 22:26:20.765555 30373 net.cpp:148] Top shape: 1 1 1000 (1000)
I0925 22:26:20.765560 30373 net.cpp:156] Memory required for data: 26408
I0925 22:26:20.765578 30373 layer_factory.hpp:77] Creating layer concat
I0925 22:26:20.765671 30373 net.cpp:91] Creating Layer concat
I0925 22:26:20.765733 30373 net.cpp:425] concat <- lstm1
I0925 22:26:20.765760 30373 net.cpp:425] concat <- embedded_input_sentence
I0925 22:26:20.765771 30373 net.cpp:425] concat <- reshaped_stage_indicator
I0925 22:26:20.765785 30373 net.cpp:399] concat -> lstm1_video_sequence
I0925 22:26:20.789432 30373 net.cpp:141] Setting up concat
I0925 22:26:20.789484 30373 net.cpp:148] Top shape: 1 1 1501 (1501)
I0925 22:26:20.789492 30373 net.cpp:156] Memory required for data: 32412
I0925 22:26:20.789501 30373 layer_factory.hpp:77] Creating layer lstm2
I0925 22:26:20.789530 30373 net.cpp:91] Creating Layer lstm2
I0925 22:26:20.789541 30373 net.cpp:425] lstm2 <- lstm1_video_sequence
I0925 22:26:20.789551 30373 net.cpp:425] lstm2 <- cont_sentence_input_1_split_1
I0925 22:26:20.789561 30373 net.cpp:399] lstm2 -> lstm2
I0925 22:26:20.789579 30373 recurrent_layer.cpp:20] Initializing recurrent layer: assuming input batch contains 1 timesteps of 1 independent streams.
I0925 22:26:20.789824 30401 net.cpp:141] Setting up lstm1_
I0925 22:26:20.789865 30401 net.cpp:148] Top shape: 1 1 500 (500)
I0925 22:26:20.789878 30401 net.cpp:148] Top shape: 1 1 (1)
I0925 22:26:20.789885 30401 net.cpp:156] Memory required for data: 2004
I0925 22:26:20.789892 30373 net.cpp:49] Initializing net from parameters: 
layer {
  name: "lstm2_"
  type: "Input"
  top: "x"
  top: "cont"
  input_param {
    shape {
      dim: 1
      dim: 1
      dim: 1501
    }
    shape {
      dim: 1
      dim: 1
    }
  }
}
layer {
  name: "lstm2_"
  type: "Input"
  top: "c_0"
  top: "h_0"
  input_param {
    shape {
      dim: 1
      dim: 1
      dim: 1000
    }
    shape {
      dim: 1
      dim: 1
      dim: 1000
    }
  }
}
layer {
  name: "lstm2_cont_slice"
  type: "Slice"
  bottom: "cont"
  top: "cont_1"
  slice_param {
    axis: 0
  }
}
layer {
  name: "lstm2_x_transform"
  type: "InnerProduct"
  bottom: "x"
  top: "W_xc_x"
  param {
    name: "W_xc"
  }
  param {
    name: "b_c"
  }
  propagate_down: true
  inner_product_param {
    num_output: 4000
    bias_term: true
    weight_filler {
      type: "uniform"
      min: -0.08
      max: 0.08
    }
    bias_filler {
      type: "constant"
      value: 0
    }
    axis: 2
  }
}
layer {
  name: "lstm2_W_xc_x_slice"
  type: "Slice"
  bottom: "W_xc_x"
  top: "W_xc_x_1"
  slice_param {
    axis: 0
  }
}
layer {
  name: "lstm2_h_conted_0"
  type: "Scale"
  bottom: "h_0"
  bottom: "cont_1"
  top: "h_conted_0"
  scale_param {
    axis: 0
  }
}
layer {
  name: "lstm2_transform_1"
  type: "InnerProduct"
  bottom: "h_conted_0"
  top: "W_hc_h_0"
  param {
    name: "W_hc"
  }
  inner_product_param {
    num_output: 4000
    bias_term: false
    weight_filler {
      type: "uniform"
      min: -0.08
      max: 0.08
    }
    axis: 2
  }
}
layer {
  name: "lstm2_gate_input_1"
  type: "Eltwise"
  bottom: "W_hc_h_0"
  bottom: "W_xc_x_1"
  top: "gate_input_1"
  eltwise_param {
    operation: SUM
  }
}
layer {
  name: "lstm2_unit_1"
  type: "LSTMUnit"
  bottom: "c_0"
  bottom: "gate_input_1"
  bottom: "cont_1"
  top: "c_1"
  top: "h_1"
}
layer {
  name: "lstm2_"
  type: "Split"
  bottom: "c_1"
  top: "c_T"
}
layer {
  name: "lstm2_h_concat"
  type: "Concat"
  bottom: "h_1"
  top: "h"
  concat_param {
    axis: 0
  }
}
layer {
  name: "h_pseudoloss"
  type: "Reduction"
  bottom: "h"
  top: "h_pseudoloss"
  loss_weight: 1
}
I0925 22:26:20.789896 30401 layer_factory.hpp:77] Creating layer lstm1_
I0925 22:26:20.789944 30401 net.cpp:91] Creating Layer lstm1_
I0925 22:26:20.789961 30401 net.cpp:399] lstm1_ -> c_0
I0925 22:26:20.789974 30381 net.cpp:141] Setting up lstm2_x_transform
I0925 22:26:20.789986 30401 net.cpp:399] lstm1_ -> h_0
I0925 22:26:20.789995 30381 net.cpp:148] Top shape: 1 1 4000 (4000)
I0925 22:26:20.790004 30381 net.cpp:156] Memory required for data: 30020
I0925 22:26:20.790010 30373 layer_factory.hpp:77] Creating layer lstm2_
I0925 22:26:20.790022 30381 layer_factory.hpp:77] Creating layer lstm2_W_xc_x_slice
I0925 22:26:20.790025 30373 net.cpp:91] Creating Layer lstm2_
I0925 22:26:20.790045 30381 net.cpp:91] Creating Layer lstm2_W_xc_x_slice
I0925 22:26:20.790047 30373 net.cpp:399] lstm2_ -> x
I0925 22:26:20.790055 30381 net.cpp:425] lstm2_W_xc_x_slice <- W_xc_x
I0925 22:26:20.790069 30373 net.cpp:399] lstm2_ -> cont
I0925 22:26:20.790071 30381 net.cpp:399] lstm2_W_xc_x_slice -> W_xc_x_1
I0925 22:26:20.790195 30373 net.cpp:141] Setting up lstm2_
I0925 22:26:20.790211 30373 net.cpp:148] Top shape: 1 1 1501 (1501)
I0925 22:26:20.790217 30373 net.cpp:148] Top shape: 1 1 (1)
I0925 22:26:20.790222 30373 net.cpp:156] Memory required for data: 6008
I0925 22:26:20.790227 30373 layer_factory.hpp:77] Creating layer lstm2_
I0925 22:26:20.790241 30373 net.cpp:91] Creating Layer lstm2_
I0925 22:26:20.790251 30373 net.cpp:399] lstm2_ -> c_0
I0925 22:26:20.790268 30373 net.cpp:399] lstm2_ -> h_0
I0925 22:26:20.790359 30369 net.cpp:141] Setting up lstm2_x_transform
I0925 22:26:20.790385 30369 net.cpp:148] Top shape: 1 1 4000 (4000)
I0925 22:26:20.790395 30369 net.cpp:156] Memory required for data: 30020
I0925 22:26:20.790416 30369 layer_factory.hpp:77] Creating layer lstm2_W_xc_x_slice
I0925 22:26:20.790436 30369 net.cpp:91] Creating Layer lstm2_W_xc_x_slice
I0925 22:26:20.790446 30369 net.cpp:425] lstm2_W_xc_x_slice <- W_xc_x
I0925 22:26:20.790459 30369 net.cpp:399] lstm2_W_xc_x_slice -> W_xc_x_1
I0925 22:26:20.790518 30369 net.cpp:141] Setting up lstm2_W_xc_x_slice
I0925 22:26:20.790532 30369 net.cpp:148] Top shape: 1 1 4000 (4000)
I0925 22:26:20.790539 30369 net.cpp:156] Memory required for data: 46020
I0925 22:26:20.790546 30369 layer_factory.hpp:77] Creating layer lstm2_h_conted_0
I0925 22:26:20.790567 30369 net.cpp:91] Creating Layer lstm2_h_conted_0
I0925 22:26:20.790577 30369 net.cpp:425] lstm2_h_conted_0 <- h_0
I0925 22:26:20.790586 30369 net.cpp:425] lstm2_h_conted_0 <- cont_1_lstm2_cont_slice_0_split_0
I0925 22:26:20.790612 30369 net.cpp:399] lstm2_h_conted_0 -> h_conted_0
I0925 22:26:20.790762 30369 net.cpp:141] Setting up lstm2_h_conted_0
I0925 22:26:20.790776 30369 net.cpp:148] Top shape: 1 1 1000 (1000)
I0925 22:26:20.790783 30369 net.cpp:156] Memory required for data: 50020
I0925 22:26:20.790791 30369 layer_factory.hpp:77] Creating layer lstm2_transform_1
I0925 22:26:20.790810 30369 net.cpp:91] Creating Layer lstm2_transform_1
I0925 22:26:20.790819 30369 net.cpp:425] lstm2_transform_1 <- h_conted_0
I0925 22:26:20.790832 30369 net.cpp:399] lstm2_transform_1 -> W_hc_h_0
I0925 22:26:20.801108 30381 net.cpp:141] Setting up lstm2_W_xc_x_slice
I0925 22:26:20.801144 30381 net.cpp:148] Top shape: 1 1 4000 (4000)
I0925 22:26:20.801151 30381 net.cpp:156] Memory required for data: 46020
I0925 22:26:20.801162 30381 layer_factory.hpp:77] Creating layer lstm2_h_conted_0
I0925 22:26:20.801180 30381 net.cpp:91] Creating Layer lstm2_h_conted_0
I0925 22:26:20.801189 30381 net.cpp:425] lstm2_h_conted_0 <- h_0
I0925 22:26:20.801199 30381 net.cpp:425] lstm2_h_conted_0 <- cont_1_lstm2_cont_slice_0_split_0
I0925 22:26:20.801219 30381 net.cpp:399] lstm2_h_conted_0 -> h_conted_0
I0925 22:26:20.801239 30401 net.cpp:141] Setting up lstm1_
I0925 22:26:20.801280 30401 net.cpp:148] Top shape: 1 1 1000 (1000)
I0925 22:26:20.801291 30401 net.cpp:148] Top shape: 1 1 1000 (1000)
I0925 22:26:20.801300 30401 net.cpp:156] Memory required for data: 10004
I0925 22:26:20.801311 30401 layer_factory.hpp:77] Creating layer lstm1_cont_slice
I0925 22:26:20.801332 30373 net.cpp:141] Setting up lstm2_
I0925 22:26:20.801334 30401 net.cpp:91] Creating Layer lstm1_cont_slice
I0925 22:26:20.801358 30373 net.cpp:148] Top shape: 1 1 1000 (1000)
I0925 22:26:20.801363 30401 net.cpp:425] lstm1_cont_slice <- cont
I0925 22:26:20.801372 30373 net.cpp:148] Top shape: 1 1 1000 (1000)
I0925 22:26:20.801381 30373 net.cpp:156] Memory required for data: 14008
I0925 22:26:20.801381 30401 net.cpp:399] lstm1_cont_slice -> cont_1
I0925 22:26:20.801398 30373 layer_factory.hpp:77] Creating layer lstm2_cont_slice
I0925 22:26:20.801417 30373 net.cpp:91] Creating Layer lstm2_cont_slice
I0925 22:26:20.801427 30373 net.cpp:425] lstm2_cont_slice <- cont
I0925 22:26:20.801440 30373 net.cpp:399] lstm2_cont_slice -> cont_1
I0925 22:26:20.801492 30401 net.cpp:141] Setting up lstm1_cont_slice
I0925 22:26:20.801508 30401 net.cpp:148] Top shape: 1 1 (1)
I0925 22:26:20.801517 30401 net.cpp:156] Memory required for data: 10008
I0925 22:26:20.801524 30401 layer_factory.hpp:77] Creating layer cont_1_lstm1_cont_slice_0_split
I0925 22:26:20.801539 30401 net.cpp:91] Creating Layer cont_1_lstm1_cont_slice_0_split
I0925 22:26:20.801548 30401 net.cpp:425] cont_1_lstm1_cont_slice_0_split <- cont_1
I0925 22:26:20.801559 30401 net.cpp:399] cont_1_lstm1_cont_slice_0_split -> cont_1_lstm1_cont_slice_0_split_0
I0925 22:26:20.801573 30401 net.cpp:399] cont_1_lstm1_cont_slice_0_split -> cont_1_lstm1_cont_slice_0_split_1
I0925 22:26:20.801618 30381 net.cpp:141] Setting up lstm2_h_conted_0
I0925 22:26:20.801633 30381 net.cpp:148] Top shape: 1 1 1000 (1000)
I0925 22:26:20.801640 30381 net.cpp:156] Memory required for data: 50020
I0925 22:26:20.801648 30381 layer_factory.hpp:77] Creating layer lstm2_transform_1
I0925 22:26:20.801667 30381 net.cpp:91] Creating Layer lstm2_transform_1
I0925 22:26:20.801668 30373 net.cpp:141] Setting up lstm2_cont_slice
I0925 22:26:20.801676 30381 net.cpp:425] lstm2_transform_1 <- h_conted_0
I0925 22:26:20.801687 30373 net.cpp:148] Top shape: 1 1 (1)
I0925 22:26:20.801689 30381 net.cpp:399] lstm2_transform_1 -> W_hc_h_0
I0925 22:26:20.801712 30373 net.cpp:156] Memory required for data: 14012
I0925 22:26:20.801720 30373 layer_factory.hpp:77] Creating layer cont_1_lstm2_cont_slice_0_split
I0925 22:26:20.801734 30373 net.cpp:91] Creating Layer cont_1_lstm2_cont_slice_0_split
I0925 22:26:20.801744 30373 net.cpp:425] cont_1_lstm2_cont_slice_0_split <- cont_1
I0925 22:26:20.801760 30373 net.cpp:399] cont_1_lstm2_cont_slice_0_split -> cont_1_lstm2_cont_slice_0_split_0
I0925 22:26:20.801777 30373 net.cpp:399] cont_1_lstm2_cont_slice_0_split -> cont_1_lstm2_cont_slice_0_split_1
I0925 22:26:20.801879 30373 net.cpp:141] Setting up cont_1_lstm2_cont_slice_0_split
I0925 22:26:20.801895 30373 net.cpp:148] Top shape: 1 1 (1)
I0925 22:26:20.801903 30373 net.cpp:148] Top shape: 1 1 (1)
I0925 22:26:20.801906 30373 net.cpp:156] Memory required for data: 14020
I0925 22:26:20.801914 30373 layer_factory.hpp:77] Creating layer lstm2_x_transform
I0925 22:26:20.801934 30373 net.cpp:91] Creating Layer lstm2_x_transform
I0925 22:26:20.801940 30373 net.cpp:425] lstm2_x_transform <- x
I0925 22:26:20.801950 30373 net.cpp:399] lstm2_x_transform -> W_xc_x
I0925 22:26:20.811849 30363 net.cpp:141] Setting up lstm1_x_transform
I0925 22:26:20.811906 30363 net.cpp:148] Top shape: 1 1 4000 (4000)
I0925 22:26:20.811918 30363 net.cpp:156] Memory required for data: 26016
I0925 22:26:20.811951 30363 layer_factory.hpp:77] Creating layer lstm1_W_xc_x_slice
I0925 22:26:20.811975 30363 net.cpp:91] Creating Layer lstm1_W_xc_x_slice
I0925 22:26:20.811988 30363 net.cpp:425] lstm1_W_xc_x_slice <- W_xc_x
I0925 22:26:20.812005 30363 net.cpp:399] lstm1_W_xc_x_slice -> W_xc_x_1
I0925 22:26:20.812180 30401 net.cpp:141] Setting up cont_1_lstm1_cont_slice_0_split
I0925 22:26:20.812222 30401 net.cpp:148] Top shape: 1 1 (1)
I0925 22:26:20.812232 30401 net.cpp:148] Top shape: 1 1 (1)
I0925 22:26:20.812239 30401 net.cpp:156] Memory required for data: 10016
I0925 22:26:20.812245 30363 net.cpp:141] Setting up lstm1_W_xc_x_slice
I0925 22:26:20.812250 30401 layer_factory.hpp:77] Creating layer lstm1_x_transform
I0925 22:26:20.812270 30363 net.cpp:148] Top shape: 1 1 4000 (4000)
I0925 22:26:20.812280 30363 net.cpp:156] Memory required for data: 42016
I0925 22:26:20.812290 30363 layer_factory.hpp:77] Creating layer lstm1_h_conted_0
I0925 22:26:20.812295 30401 net.cpp:91] Creating Layer lstm1_x_transform
I0925 22:26:20.812307 30401 net.cpp:425] lstm1_x_transform <- x
I0925 22:26:20.812340 30363 net.cpp:91] Creating Layer lstm1_h_conted_0
I0925 22:26:20.812341 30401 net.cpp:399] lstm1_x_transform -> W_xc_x
I0925 22:26:20.812358 30363 net.cpp:425] lstm1_h_conted_0 <- h_0
I0925 22:26:20.812371 30363 net.cpp:425] lstm1_h_conted_0 <- cont_1_lstm1_cont_slice_0_split_0
I0925 22:26:20.812386 30363 net.cpp:399] lstm1_h_conted_0 -> h_conted_0
I0925 22:26:20.825958 30407 net.cpp:141] Setting up lstm2_x_transform
I0925 22:26:20.826017 30407 net.cpp:148] Top shape: 1 1 4000 (4000)
I0925 22:26:20.826030 30407 net.cpp:156] Memory required for data: 30020
I0925 22:26:20.826066 30407 layer_factory.hpp:77] Creating layer lstm2_W_xc_x_slice
I0925 22:26:20.826092 30407 net.cpp:91] Creating Layer lstm2_W_xc_x_slice
I0925 22:26:20.826104 30407 net.cpp:425] lstm2_W_xc_x_slice <- W_xc_x
I0925 22:26:20.829300 30407 net.cpp:399] lstm2_W_xc_x_slice -> W_xc_x_1
I0925 22:26:20.830369 30407 net.cpp:141] Setting up lstm2_W_xc_x_slice
I0925 22:26:20.830407 30407 net.cpp:148] Top shape: 1 1 4000 (4000)
I0925 22:26:20.830418 30407 net.cpp:156] Memory required for data: 46020
I0925 22:26:20.830431 30407 layer_factory.hpp:77] Creating layer lstm2_h_conted_0
I0925 22:26:20.830459 30407 net.cpp:91] Creating Layer lstm2_h_conted_0
I0925 22:26:20.830471 30407 net.cpp:425] lstm2_h_conted_0 <- h_0
I0925 22:26:20.830484 30407 net.cpp:425] lstm2_h_conted_0 <- cont_1_lstm2_cont_slice_0_split_0
I0925 22:26:20.830500 30407 net.cpp:399] lstm2_h_conted_0 -> h_conted_0
I0925 22:26:20.831600 30367 net.cpp:141] Setting up lstm2_x_transform
I0925 22:26:20.831603 30363 net.cpp:141] Setting up lstm1_h_conted_0
I0925 22:26:20.831661 30367 net.cpp:148] Top shape: 1 1 4000 (4000)
I0925 22:26:20.831665 30363 net.cpp:148] Top shape: 1 1 1000 (1000)
I0925 22:26:20.831670 30367 net.cpp:156] Memory required for data: 30020
I0925 22:26:20.831676 30363 net.cpp:156] Memory required for data: 46016
I0925 22:26:20.831688 30363 layer_factory.hpp:77] Creating layer lstm1_transform_1
I0925 22:26:20.831698 30367 layer_factory.hpp:77] Creating layer lstm2_W_xc_x_slice
I0925 22:26:20.831720 30363 net.cpp:91] Creating Layer lstm1_transform_1
I0925 22:26:20.831743 30363 net.cpp:425] lstm1_transform_1 <- h_conted_0
I0925 22:26:20.831764 30363 net.cpp:399] lstm1_transform_1 -> W_hc_h_0
I0925 22:26:20.834702 30407 net.cpp:141] Setting up lstm2_h_conted_0
I0925 22:26:20.834746 30407 net.cpp:148] Top shape: 1 1 1000 (1000)
I0925 22:26:20.834756 30407 net.cpp:156] Memory required for data: 50020
I0925 22:26:20.834767 30407 layer_factory.hpp:77] Creating layer lstm2_transform_1
I0925 22:26:20.834787 30407 net.cpp:91] Creating Layer lstm2_transform_1
I0925 22:26:20.834799 30407 net.cpp:425] lstm2_transform_1 <- h_conted_0
I0925 22:26:20.831722 30367 net.cpp:91] Creating Layer lstm2_W_xc_x_slice
I0925 22:26:20.834833 30367 net.cpp:425] lstm2_W_xc_x_slice <- W_xc_x
I0925 22:26:20.834849 30367 net.cpp:399] lstm2_W_xc_x_slice -> W_xc_x_1
I0925 22:26:20.834887 30407 net.cpp:399] lstm2_transform_1 -> W_hc_h_0
I0925 22:26:20.836273 30367 net.cpp:141] Setting up lstm2_W_xc_x_slice
I0925 22:26:20.836299 30367 net.cpp:148] Top shape: 1 1 4000 (4000)
I0925 22:26:20.836308 30367 net.cpp:156] Memory required for data: 46020
I0925 22:26:20.836730 30367 layer_factory.hpp:77] Creating layer lstm2_h_conted_0
I0925 22:26:20.836750 30367 net.cpp:91] Creating Layer lstm2_h_conted_0
I0925 22:26:20.836761 30367 net.cpp:425] lstm2_h_conted_0 <- h_0
I0925 22:26:20.836782 30367 net.cpp:425] lstm2_h_conted_0 <- cont_1_lstm2_cont_slice_0_split_0
I0925 22:26:20.836797 30367 net.cpp:399] lstm2_h_conted_0 -> h_conted_0
I0925 22:26:20.855459 30381 net.cpp:141] Setting up lstm2_transform_1
I0925 22:26:20.855515 30381 net.cpp:148] Top shape: 1 1 4000 (4000)
I0925 22:26:20.855525 30381 net.cpp:156] Memory required for data: 66020
I0925 22:26:20.855548 30381 layer_factory.hpp:77] Creating layer lstm2_gate_input_1
I0925 22:26:20.855556 30369 net.cpp:141] Setting up lstm2_transform_1
I0925 22:26:20.855577 30381 net.cpp:91] Creating Layer lstm2_gate_input_1
I0925 22:26:20.855578 30369 net.cpp:148] Top shape: 1 1 4000 (4000)
I0925 22:26:20.855604 30381 net.cpp:425] lstm2_gate_input_1 <- W_hc_h_0
I0925 22:26:20.855607 30369 net.cpp:156] Memory required for data: 66020
I0925 22:26:20.855618 30381 net.cpp:425] lstm2_gate_input_1 <- W_xc_x_1
I0925 22:26:20.855624 30369 layer_factory.hpp:77] Creating layer lstm2_gate_input_1
I0925 22:26:20.855628 30367 net.cpp:141] Setting up lstm2_h_conted_0
I0925 22:26:20.855645 30369 net.cpp:91] Creating Layer lstm2_gate_input_1
I0925 22:26:20.855659 30369 net.cpp:425] lstm2_gate_input_1 <- W_hc_h_0
I0925 22:26:20.855661 30367 net.cpp:148] Top shape: 1 1 1000 (1000)
I0925 22:26:20.855669 30369 net.cpp:425] lstm2_gate_input_1 <- W_xc_x_1
I0925 22:26:20.855669 30367 net.cpp:156] Memory required for data: 50020
I0925 22:26:20.855684 30367 layer_factory.hpp:77] Creating layer lstm2_transform_1
I0925 22:26:20.855687 30369 net.cpp:399] lstm2_gate_input_1 -> gate_input_1
I0925 22:26:20.855705 30367 net.cpp:91] Creating Layer lstm2_transform_1
I0925 22:26:20.855717 30367 net.cpp:425] lstm2_transform_1 <- h_conted_0
I0925 22:26:20.855635 30381 net.cpp:399] lstm2_gate_input_1 -> gate_input_1
I0925 22:26:20.855757 30367 net.cpp:399] lstm2_transform_1 -> W_hc_h_0
I0925 22:26:20.855783 30369 net.cpp:141] Setting up lstm2_gate_input_1
I0925 22:26:20.855799 30369 net.cpp:148] Top shape: 1 1 4000 (4000)
I0925 22:26:20.855806 30369 net.cpp:156] Memory required for data: 82020
I0925 22:26:20.855814 30369 layer_factory.hpp:77] Creating layer lstm2_unit_1
I0925 22:26:20.855823 30381 net.cpp:141] Setting up lstm2_gate_input_1
I0925 22:26:20.855831 30369 net.cpp:91] Creating Layer lstm2_unit_1
I0925 22:26:20.855839 30381 net.cpp:148] Top shape: 1 1 4000 (4000)
I0925 22:26:20.855840 30369 net.cpp:425] lstm2_unit_1 <- c_0
I0925 22:26:20.855859 30381 net.cpp:156] Memory required for data: 82020
I0925 22:26:20.855868 30381 layer_factory.hpp:77] Creating layer lstm2_unit_1
I0925 22:26:20.855867 30369 net.cpp:425] lstm2_unit_1 <- gate_input_1
I0925 22:26:20.855891 30369 net.cpp:425] lstm2_unit_1 <- cont_1_lstm2_cont_slice_0_split_1
I0925 22:26:20.855893 30381 net.cpp:91] Creating Layer lstm2_unit_1
I0925 22:26:20.855902 30381 net.cpp:425] lstm2_unit_1 <- c_0
I0925 22:26:20.855903 30369 net.cpp:399] lstm2_unit_1 -> c_1
I0925 22:26:20.855912 30381 net.cpp:425] lstm2_unit_1 <- gate_input_1
I0925 22:26:20.855919 30369 net.cpp:399] lstm2_unit_1 -> h_1
I0925 22:26:20.855921 30381 net.cpp:425] lstm2_unit_1 <- cont_1_lstm2_cont_slice_0_split_1
I0925 22:26:20.855947 30381 net.cpp:399] lstm2_unit_1 -> c_1
I0925 22:26:20.855962 30381 net.cpp:399] lstm2_unit_1 -> h_1
I0925 22:26:20.864132 30381 net.cpp:141] Setting up lstm2_unit_1
I0925 22:26:20.864171 30401 net.cpp:141] Setting up lstm1_x_transform
I0925 22:26:20.864192 30401 net.cpp:148] Top shape: 1 1 4000 (4000)
I0925 22:26:20.864192 30381 net.cpp:148] Top shape: 1 1 1000 (1000)
I0925 22:26:20.864207 30401 net.cpp:156] Memory required for data: 26016
I0925 22:26:20.864233 30381 net.cpp:148] Top shape: 1 1 1000 (1000)
I0925 22:26:20.864243 30381 net.cpp:156] Memory required for data: 90020
I0925 22:26:20.864241 30401 layer_factory.hpp:77] Creating layer lstm1_W_xc_x_slice
I0925 22:26:20.864256 30381 layer_factory.hpp:77] Creating layer lstm2_
I0925 22:26:20.864274 30381 net.cpp:91] Creating Layer lstm2_
I0925 22:26:20.864274 30401 net.cpp:91] Creating Layer lstm1_W_xc_x_slice
I0925 22:26:20.864289 30381 net.cpp:425] lstm2_ <- c_1
I0925 22:26:20.864292 30401 net.cpp:425] lstm1_W_xc_x_slice <- W_xc_x
I0925 22:26:20.864303 30381 net.cpp:399] lstm2_ -> c_T
I0925 22:26:20.864325 30401 net.cpp:399] lstm1_W_xc_x_slice -> W_xc_x_1
I0925 22:26:20.864372 30381 net.cpp:141] Setting up lstm2_
I0925 22:26:20.864390 30381 net.cpp:148] Top shape: 1 1 1000 (1000)
I0925 22:26:20.864398 30381 net.cpp:156] Memory required for data: 94020
…
I0925 22:26:21.061134 30401 net.cpp:399] lstm1_ -> c_T
I0925 22:26:21.061134 30363 layer_factory.hpp:77] Creating layer lstm1_h_concat
I0925 22:26:21.061152 30367 net.cpp:148] Top shape: 1 1 1000 (1000)
I0925 22:26:21.061153 30407 net.cpp:425] lstm2_h_concat <- h_1
I0925 22:26:21.061169 30367 net.cpp:148] Top shape: 1 1 1000 (1000)
I0925 22:26:21.061177 30407 net.cpp:399] lstm2_h_concat -> h
I0925 22:26:21.061172 30363 net.cpp:91] Creating Layer lstm1_h_concat
I0925 22:26:21.061182 30367 net.cpp:156] Memory required for data: 90020
I0925 22:26:21.061188 30363 net.cpp:425] lstm1_h_concat <- h_1
I0925 22:26:21.061192 30367 layer_factory.hpp:77] Creating layer lstm2_
I0925 22:26:21.061202 30367 net.cpp:91] Creating Layer lstm2_
I0925 22:26:21.061202 30363 net.cpp:399] lstm1_h_concat -> h
I0925 22:26:21.061213 30367 net.cpp:425] lstm2_ <- c_1
I0925 22:26:21.061225 30407 net.cpp:141] Setting up lstm2_h_concat
I0925 22:26:21.061230 30367 net.cpp:399] lstm2_ -> c_T
I0925 22:26:21.061244 30407 net.cpp:148] Top shape: 1 1 1000 (1000)
I0925 22:26:21.061252 30407 net.cpp:156] Memory required for data: 98020
I0925 22:26:21.061261 30407 layer_factory.hpp:77] Creating layer h_pseudoloss
I0925 22:26:21.061357 30407 net.cpp:91] Creating Layer h_pseudoloss
I0925 22:26:21.061357 30401 net.cpp:141] Setting up lstm1_
I0925 22:26:21.061372 30407 net.cpp:425] h_pseudoloss <- h
I0925 22:26:21.061377 30401 net.cpp:148] Top shape: 1 1 1000 (1000)
I0925 22:26:21.061385 30407 net.cpp:399] h_pseudoloss -> h_pseudoloss
I0925 22:26:21.061390 30401 net.cpp:156] Memory required for data: 90016
I0925 22:26:21.061375 30363 net.cpp:141] Setting up lstm1_h_concat
I0925 22:26:21.061399 30401 layer_factory.hpp:77] Creating layer lstm1_h_concat
I0925 22:26:21.061409 30363 net.cpp:148] Top shape: 1 1 1000 (1000)
I0925 22:26:21.061414 30367 net.cpp:141] Setting up lstm2_
I0925 22:26:21.061419 30363 net.cpp:156] Memory required for data: 94016
I0925 22:26:21.061414 30401 net.cpp:91] Creating Layer lstm1_h_concat
I0925 22:26:21.061440 30363 layer_factory.hpp:77] Creating layer h_pseudoloss
I0925 22:26:21.061436 30367 net.cpp:148] Top shape: 1 1 1000 (1000)
I0925 22:26:21.061453 30401 net.cpp:425] lstm1_h_concat <- h_1
I0925 22:26:21.061456 30367 net.cpp:156] Memory required for data: 94020
I0925 22:26:21.061455 30363 net.cpp:91] Creating Layer h_pseudoloss
I0925 22:26:21.061467 30367 layer_factory.hpp:77] Creating layer lstm2_h_concat
I0925 22:26:21.061480 30367 net.cpp:91] Creating Layer lstm2_h_concat
I0925 22:26:21.061473 30401 net.cpp:399] lstm1_h_concat -> h
I0925 22:26:21.061473 30363 net.cpp:425] h_pseudoloss <- h
I0925 22:26:21.061491 30367 net.cpp:425] lstm2_h_concat <- h_1
I0925 22:26:21.061504 30363 net.cpp:399] h_pseudoloss -> h_pseudoloss
I0925 22:26:21.061511 30367 net.cpp:399] lstm2_h_concat -> h
I0925 22:26:21.061517 30373 net.cpp:141] Setting up lstm2_h_conted_0
I0925 22:26:21.061532 30373 net.cpp:148] Top shape: 1 1 1000 (1000)
I0925 22:26:21.061539 30373 net.cpp:156] Memory required for data: 50020
I0925 22:26:21.061547 30373 layer_factory.hpp:77] Creating layer lstm2_transform_1
I0925 22:26:21.061564 30373 net.cpp:91] Creating Layer lstm2_transform_1
I0925 22:26:21.061573 30373 net.cpp:425] lstm2_transform_1 <- h_conted_0
I0925 22:26:21.061586 30373 net.cpp:399] lstm2_transform_1 -> W_hc_h_0
I0925 22:26:21.061749 30401 net.cpp:141] Setting up lstm1_h_concat
I0925 22:26:21.061761 30401 net.cpp:148] Top shape: 1 1 1000 (1000)
I0925 22:26:21.061765 30401 net.cpp:156] Memory required for data: 94016
I0925 22:26:21.061770 30401 layer_factory.hpp:77] Creating layer h_pseudoloss
I0925 22:26:21.061784 30401 net.cpp:91] Creating Layer h_pseudoloss
I0925 22:26:21.061790 30401 net.cpp:425] h_pseudoloss <- h
I0925 22:26:21.061799 30401 net.cpp:399] h_pseudoloss -> h_pseudoloss
I0925 22:26:21.061794 30367 net.cpp:141] Setting up lstm2_h_concat
I0925 22:26:21.061813 30367 net.cpp:148] Top shape: 1 1 1000 (1000)
I0925 22:26:21.061821 30367 net.cpp:156] Memory required for data: 98020
I0925 22:26:21.061830 30367 layer_factory.hpp:77] Creating layer h_pseudoloss
I0925 22:26:21.061843 30367 net.cpp:91] Creating Layer h_pseudoloss
I0925 22:26:21.061851 30367 net.cpp:425] h_pseudoloss <- h
I0925 22:26:21.061858 30367 net.cpp:399] h_pseudoloss -> h_pseudoloss
I0925 22:26:21.061957 30407 net.cpp:141] Setting up h_pseudoloss
…
I0925 22:26:21.073199 30367 net.cpp:274] Network initialization done.
I0925 22:26:21.073204 30401 recurrent_layer.cpp:150] Adding parameter 0: W_xc
I0925 22:26:21.073212 30401 recurrent_layer.cpp:150] Adding parameter 1: b_c
I0925 22:26:21.073217 30401 recurrent_layer.cpp:150] Adding parameter 2: W_hc
I0925 22:26:21.073246 30367 recurrent_layer.cpp:150] Adding parameter 0: W_xc
I0925 22:26:21.073252 30367 recurrent_layer.cpp:150] Adding parameter 1: b_c
I0925 22:26:21.073257 30367 recurrent_layer.cpp:150] Adding parameter 2: W_hc
I0925 22:26:21.077710 30407 net.cpp:141] Setting up lstm2
I0925 22:26:21.077759 30407 net.cpp:148] Top shape: 1 1 1000 (1000)
I0925 22:26:21.077769 30407 net.cpp:156] Memory required for data: 36412
I0925 22:26:21.077772 30363 net.cpp:141] Setting up lstm1
I0925 22:26:21.077792 30363 net.cpp:148] Top shape: 1 1 1000 (1000)
I0925 22:26:21.077798 30363 net.cpp:156] Memory required for data: 26408
I0925 22:26:21.077801 30407 layer_factory.hpp:77] Creating layer predict
I0925 22:26:21.077816 30363 layer_factory.hpp:77] Creating layer concat
I0925 22:26:21.077829 30407 net.cpp:91] Creating Layer predict
I0925 22:26:21.077834 30363 net.cpp:91] Creating Layer concat
I0925 22:26:21.077843 30407 net.cpp:425] predict <- lstm2
I0925 22:26:21.077846 30363 net.cpp:425] concat <- lstm1
I0925 22:26:21.077857 30407 net.cpp:399] predict -> predict
I0925 22:26:21.077858 30363 net.cpp:425] concat <- embedded_input_sentence
I0925 22:26:21.077869 30363 net.cpp:425] concat <- reshaped_stage_indicator
I0925 22:26:21.077882 30363 net.cpp:399] concat -> lstm1_video_sequence
I0925 22:26:21.077944 30363 net.cpp:141] Setting up concat
I0925 22:26:21.077960 30363 net.cpp:148] Top shape: 1 1 1501 (1501)
I0925 22:26:21.077967 30363 net.cpp:156] Memory required for data: 32412
I0925 22:26:21.077978 30363 layer_factory.hpp:77] Creating layer lstm2
I0925 22:26:21.078141 30363 net.cpp:91] Creating Layer lstm2
I0925 22:26:21.078176 30363 net.cpp:425] lstm2 <- lstm1_video_sequence
I0925 22:26:21.078186 30363 net.cpp:425] lstm2 <- cont_sentence_input_1_split_1
I0925 22:26:21.078205 30363 net.cpp:399] lstm2 -> lstm2
I0925 22:26:21.078228 30363 recurrent_layer.cpp:20] Initializing recurrent layer: assuming input batch contains 1 timesteps of 1 independent streams.
I0925 22:26:21.152415 30363 net.cpp:49] Initializing net from parameters: 
layer {
  name: "lstm2_"
  type: "Input"
  top: "x"
  top: "cont"
  input_param {
    shape {
      dim: 1
      dim: 1
      dim: 1501
    }
    shape {
      dim: 1
      dim: 1
    }
  }
}
layer {
  name: "lstm2_"
  type: "Input"
  top: "c_0"
  top: "h_0"
  input_param {
    shape {
      dim: 1
      dim: 1
      dim: 1000
    }
    shape {
      dim: 1
      dim: 1
      dim: 1000
    }
  }
}
layer {
  name: "lstm2_cont_slice"
  type: "Slice"
  bottom: "cont"
  top: "cont_1"
  slice_param {
    axis: 0
  }
}
layer {
  name: "lstm2_x_transform"
  type: "InnerProduct"
  bottom: "x"
  top: "W_xc_x"
  param {
    name: "W_xc"
  }
  param {
    name: "b_c"
  }
  propagate_down: true
  inner_product_param {
    num_output: 4000
    bias_term: true
    weight_filler {
      type: "uniform"
      min: -0.08
      max: 0.08
    }
    bias_filler {
      type: "constant"
      value: 0
    }
    axis: 2
  }
}
layer {
  name: "lstm2_W_xc_x_slice"
  type: "Slice"
  bottom: "W_xc_x"
  top: "W_xc_x_1"
  slice_param {
    axis: 0
  }
}
layer {
  name: "lstm2_h_conted_0"
  type: "Scale"
  bottom: "h_0"
  bottom: "cont_1"
  top: "h_conted_0"
  scale_param {
    axis: 0
  }
}
layer {
  name: "lstm2_transform_1"
  type: "InnerProduct"
  bottom: "h_conted_0"
  top: "W_hc_h_0"
  param {
    name: "W_hc"
  }
  inner_product_param {
    num_output: 4000
    bias_term: false
    weight_filler {
      type: "uniform"
      min: -0.08
      max: 0.08
    }
    axis: 2
  }
}
layer {
  name: "lstm2_gate_input_1"
  type: "Eltwise"
  bottom: "W_hc_h_0"
  bottom: "W_xc_x_1"
  top: "gate_input_1"
  eltwise_param {
    operation: SUM
  }
}
layer {
  name: "lstm2_unit_1"
  type: "LSTMUnit"
  bottom: "c_0"
  bottom: "gate_input_1"
  bottom: "cont_1"
  top: "c_1"
  top: "h_1"
}
layer {
  name: "lstm2_"
  type: "Split"
  bottom: "c_1"
  top: "c_T"
}
layer {
  name: "lstm2_h_concat"
  type: "Concat"
  bottom: "h_1"
  top: "h"
  concat_param {
    axis: 0
  }
}
layer {
  name: "h_pseudoloss"
  type: "Reduction"
  bottom: "h"
  top: "h_pseudoloss"
  loss_weight: 1
}
I0925 22:26:21.152721 30363 layer_factory.hpp:77] Creating layer lstm2_
I0925 22:26:21.152751 30363 net.cpp:91] Creating Layer lstm2_
I0925 22:26:21.152766 30363 net.cpp:399] lstm2_ -> x
I0925 22:26:21.152806 30363 net.cpp:399] lstm2_ -> cont
I0925 22:26:21.159783 30401 net.cpp:141] Setting up lstm1
I0925 22:26:21.159860 30401 net.cpp:148] Top shape: 1 1 1000 (1000)
I0925 22:26:21.159878 30401 net.cpp:156] Memory required for data: 26408
I0925 22:26:21.159924 30401 layer_factory.hpp:77] Creating layer concat
I0925 22:26:21.160055 30401 net.cpp:91] Creating Layer concat
I0925 22:26:21.160094 30401 net.cpp:425] concat <- lstm1
I0925 22:26:21.160106 30401 net.cpp:425] concat <- embedded_input_sentence
I0925 22:26:21.160112 30401 net.cpp:425] concat <- reshaped_stage_indicator
I0925 22:26:21.160123 30401 net.cpp:399] concat -> lstm1_video_sequence
I0925 22:26:21.160253 30401 net.cpp:141] Setting up concat
I0925 22:26:21.160267 30401 net.cpp:148] Top shape: 1 1 1501 (1501)
I0925 22:26:21.160272 30401 net.cpp:156] Memory required for data: 32412
I0925 22:26:21.160279 30401 layer_factory.hpp:77] Creating layer lstm2
I0925 22:26:21.160298 30401 net.cpp:91] Creating Layer lstm2
I0925 22:26:21.160305 30401 net.cpp:425] lstm2 <- lstm1_video_sequence
I0925 22:26:21.160310 30401 net.cpp:425] lstm2 <- cont_sentence_input_1_split_1
I0925 22:26:21.160320 30401 net.cpp:399] lstm2 -> lstm2
I0925 22:26:21.160344 30401 recurrent_layer.cpp:20] Initializing recurrent layer: assuming input batch contains 1 timesteps of 1 independent streams.
I0925 22:26:21.160693 30401 net.cpp:49] Initializing net from parameters: 
layer {
  name: "lstm2_"
  type: "Input"
  top: "x"
  top: "cont"
  input_param {
    shape {
      dim: 1
      dim: 1
      dim: 1501
    }
    shape {
      dim: 1
      dim: 1
    }
  }
}
layer {
  name: "lstm2_"
  type: "Input"
  top: "c_0"
  top: "h_0"
  input_param {
    shape {
      dim: 1
      dim: 1
      dim: 1000
    }
    shape {
      dim: 1
      dim: 1
      dim: 1000
    }
  }
}
layer {
  name: "lstm2_cont_slice"
  type: "Slice"
  bottom: "cont"
  top: "cont_1"
  slice_param {
    axis: 0
  }
}
layer {
  name: "lstm2_x_transform"
  type: "InnerProduct"
  bottom: "x"
  top: "W_xc_x"
  param {
    name: "W_xc"
  }
  param {
    name: "b_c"
  }
  propagate_down: true
  inner_product_param {
    num_output: 4000
    bias_term: true
    weight_filler {
      type: "uniform"
      min: -0.08
      max: 0.08
    }
    bias_filler {
      type: "constant"
      value: 0
    }
    axis: 2
  }
}
layer {
  name: "lstm2_W_xc_x_slice"
  type: "Slice"
  bottom: "W_xc_x"
  top: "W_xc_x_1"
  slice_param {
    axis: 0
  }
}
layer {
  name: "lstm2_h_conted_0"
  type: "Scale"
  bottom: "h_0"
  bottom: "cont_1"
  top: "h_conted_0"
  scale_param {
    axis: 0
  }
}
layer {
  name: "lstm2_transform_1"
  type: "InnerProduct"
  bottom: "h_conted_0"
  top: "W_hc_h_0"
  param {
    name: "W_hc"
  }
  inner_product_param {
    num_output: 4000
    bias_term: false
    weight_filler {
      type: "uniform"
      min: -0.08
      max: 0.08
    }
    axis: 2
  }
}
layer {
  name: "lstm2_gate_input_1"
  type: "Eltwise"
  bottom: "W_hc_h_0"
  bottom: "W_xc_x_1"
  top: "gate_input_1"
  eltwise_param {
    operation: SUM
  }
}
layer {
  name: "lstm2_unit_1"
  type: "LSTMUnit"
  bottom: "c_0"
  bottom: "gate_input_1"
  bottom: "cont_1"
  top: "c_1"
  top: "h_1"
}
layer {
  name: "lstm2_"
  type: "Split"
  bottom: "c_1"
  top: "c_T"
}
layer {
  name: "lstm2_h_concat"
  type: "Concat"
  bottom: "h_1"
  top: "h"
  concat_param {
    axis: 0
  }
}
layer {
  name: "h_pseudoloss"
  type: "Reduction"
  bottom: "h"
  top: "h_pseudoloss"
  loss_weight: 1
}
I0925 22:26:21.160818 30401 layer_factory.hpp:77] Creating layer lstm2_
I0925 22:26:21.160835 30401 net.cpp:91] Creating Layer lstm2_
I0925 22:26:21.160840 30401 net.cpp:399] lstm2_ -> x
I0925 22:26:21.160852 30401 net.cpp:399] lstm2_ -> cont
I0925 22:26:21.160915 30401 net.cpp:141] Setting up lstm2_
I0925 22:26:21.160926 30401 net.cpp:148] Top shape: 1 1 1501 (1501)
I0925 22:26:21.160933 30401 net.cpp:148] Top shape: 1 1 (1)
I0925 22:26:21.160939 30401 net.cpp:156] Memory required for data: 6008
I0925 22:26:21.160948 30401 layer_factory.hpp:77] Creating layer lstm2_
I0925 22:26:21.160964 30401 net.cpp:91] Creating Layer lstm2_
I0925 22:26:21.160979 30401 net.cpp:399] lstm2_ -> c_0
I0925 22:26:21.160990 30401 net.cpp:399] lstm2_ -> h_0
I0925 22:26:21.161056 30401 net.cpp:141] Setting up lstm2_
I0925 22:26:21.161067 30401 net.cpp:148] Top shape: 1 1 1000 (1000)
I0925 22:26:21.161072 30401 net.cpp:148] Top shape: 1 1 1000 (1000)
I0925 22:26:21.161077 30401 net.cpp:156] Memory required for data: 14008
I0925 22:26:21.161082 30401 layer_factory.hpp:77] Creating layer lstm2_cont_slice
I0925 22:26:21.161855 30401 net.cpp:91] Creating Layer lstm2_cont_slice
I0925 22:26:21.161867 30401 net.cpp:425] lstm2_cont_slice <- cont
I0925 22:26:21.161877 30401 net.cpp:399] lstm2_cont_slice -> cont_1
I0925 22:26:21.161928 30401 net.cpp:141] Setting up lstm2_cont_slice
I0925 22:26:21.161938 30401 net.cpp:148] Top shape: 1 1 (1)
I0925 22:26:21.161943 30401 net.cpp:156] Memory required for data: 14012
I0925 22:26:21.161948 30401 layer_factory.hpp:77] Creating layer cont_1_lstm2_cont_slice_0_split
I0925 22:26:21.161957 30401 net.cpp:91] Creating Layer cont_1_lstm2_cont_slice_0_split
I0925 22:26:21.161962 30401 net.cpp:425] cont_1_lstm2_cont_slice_0_split <- cont_1
I0925 22:26:21.161983 30401 net.cpp:399] cont_1_lstm2_cont_slice_0_split -> cont_1_lstm2_cont_slice_0_split_0
I0925 22:26:21.161993 30401 net.cpp:399] cont_1_lstm2_cont_slice_0_split -> cont_1_lstm2_cont_slice_0_split_1
I0925 22:26:21.162070 30401 net.cpp:141] Setting up cont_1_lstm2_cont_slice_0_split
I0925 22:26:21.162081 30401 net.cpp:148] Top shape: 1 1 (1)
I0925 22:26:21.162087 30401 net.cpp:148] Top shape: 1 1 (1)
I0925 22:26:21.162092 30401 net.cpp:156] Memory required for data: 14020
I0925 22:26:21.162097 30401 layer_factory.hpp:77] Creating layer lstm2_x_transform
I0925 22:26:21.162112 30401 net.cpp:91] Creating Layer lstm2_x_transform
I0925 22:26:21.162117 30401 net.cpp:425] lstm2_x_transform <- x
I0925 22:26:21.162125 30401 net.cpp:399] lstm2_x_transform -> W_xc_x
I0925 22:26:21.174428 30367 net.cpp:141] Setting up lstm2
I0925 22:26:21.174484 30367 net.cpp:148] Top shape: 1 1 1000 (1000)
I0925 22:26:21.174491 30367 net.cpp:156] Memory required for data: 36412
I0925 22:26:21.174520 30367 layer_factory.hpp:77] Creating layer predict
I0925 22:26:21.174576 30367 net.cpp:91] Creating Layer predict
I0925 22:26:21.174650 30367 net.cpp:425] predict <- lstm2
I0925 22:26:21.174690 30367 net.cpp:399] predict -> predict
I0925 22:26:21.174610 30373 net.cpp:141] Setting up lstm2_transform_1
I0925 22:26:21.174782 30373 net.cpp:148] Top shape: 1 1 4000 (4000)
I0925 22:26:21.174793 30373 net.cpp:156] Memory required for data: 66020
I0925 22:26:21.174814 30373 layer_factory.hpp:77] Creating layer lstm2_gate_input_1
I0925 22:26:21.174835 30373 net.cpp:91] Creating Layer lstm2_gate_input_1
I0925 22:26:21.174845 30373 net.cpp:425] lstm2_gate_input_1 <- W_hc_h_0
I0925 22:26:21.174855 30373 net.cpp:425] lstm2_gate_input_1 <- W_xc_x_1
I0925 22:26:21.174872 30373 net.cpp:399] lstm2_gate_input_1 -> gate_input_1
I0925 22:26:21.177435 30363 net.cpp:141] Setting up lstm2_
I0925 22:26:21.177487 30363 net.cpp:148] Top shape: 1 1 1501 (1501)
I0925 22:26:21.177500 30363 net.cpp:148] Top shape: 1 1 (1)
I0925 22:26:21.177506 30363 net.cpp:156] Memory required for data: 6008
I0925 22:26:21.177520 30363 layer_factory.hpp:77] Creating layer lstm2_
I0925 22:26:21.177549 30363 net.cpp:91] Creating Layer lstm2_
I0925 22:26:21.177563 30363 net.cpp:399] lstm2_ -> c_0
I0925 22:26:21.177589 30363 net.cpp:399] lstm2_ -> h_0
I0925 22:26:21.177629 30373 net.cpp:141] Setting up lstm2_gate_input_1
I0925 22:26:21.177682 30373 net.cpp:148] Top shape: 1 1 4000 (4000)
I0925 22:26:21.177693 30373 net.cpp:156] Memory required for data: 82020
I0925 22:26:21.177703 30363 net.cpp:141] Setting up lstm2_
I0925 22:26:21.177706 30373 layer_factory.hpp:77] Creating layer lstm2_unit_1
I0925 22:26:21.177727 30363 net.cpp:148] Top shape: 1 1 1000 (1000)
I0925 22:26:21.177737 30363 net.cpp:148] Top shape: 1 1 1000 (1000)
I0925 22:26:21.177743 30363 net.cpp:156] Memory required for data: 14008
I0925 22:26:21.177747 30373 net.cpp:91] Creating Layer lstm2_unit_1
I0925 22:26:21.177752 30363 layer_factory.hpp:77] Creating layer lstm2_cont_slice
I0925 22:26:21.177760 30373 net.cpp:425] lstm2_unit_1 <- c_0
I0925 22:26:21.177768 30363 net.cpp:91] Creating Layer lstm2_cont_slice
I0925 22:26:21.177775 30373 net.cpp:425] lstm2_unit_1 <- gate_input_1
I0925 22:26:21.177798 30373 net.cpp:425] lstm2_unit_1 <- cont_1_lstm2_cont_slice_0_split_1
I0925 22:26:21.177814 30373 net.cpp:399] lstm2_unit_1 -> c_1
I0925 22:26:21.177834 30373 net.cpp:399] lstm2_unit_1 -> h_1
I0925 22:26:21.177778 30363 net.cpp:425] lstm2_cont_slice <- cont
I0925 22:26:21.264474 30363 net.cpp:399] lstm2_cont_slice -> cont_1
I0925 22:26:21.272223 30363 net.cpp:141] Setting up lstm2_cont_slice
I0925 22:26:21.272289 30363 net.cpp:148] Top shape: 1 1 (1)
I0925 22:26:21.272300 30363 net.cpp:156] Memory required for data: 14012
I0925 22:26:21.272313 30363 layer_factory.hpp:77] Creating layer cont_1_lstm2_cont_slice_0_split
I0925 22:26:21.272341 30363 net.cpp:91] Creating Layer cont_1_lstm2_cont_slice_0_split
I0925 22:26:21.272354 30363 net.cpp:425] cont_1_lstm2_cont_slice_0_split <- cont_1
I0925 22:26:21.272372 30363 net.cpp:399] cont_1_lstm2_cont_slice_0_split -> cont_1_lstm2_cont_slice_0_split_0
I0925 22:26:21.272393 30363 net.cpp:399] cont_1_lstm2_cont_slice_0_split -> cont_1_lstm2_cont_slice_0_split_1
I0925 22:26:21.272594 30373 net.cpp:141] Setting up lstm2_unit_1
I0925 22:26:21.272644 30373 net.cpp:148] Top shape: 1 1 1000 (1000)
I0925 22:26:21.272650 30373 net.cpp:148] Top shape: 1 1 1000 (1000)
I0925 22:26:21.272655 30373 net.cpp:156] Memory required for data: 90020
I0925 22:26:21.272665 30373 layer_factory.hpp:77] Creating layer lstm2_
I0925 22:26:21.272680 30373 net.cpp:91] Creating Layer lstm2_
I0925 22:26:21.272686 30373 net.cpp:425] lstm2_ <- c_1
I0925 22:26:21.272697 30373 net.cpp:399] lstm2_ -> c_T
I0925 22:26:21.272714 30363 net.cpp:141] Setting up cont_1_lstm2_cont_slice_0_split
I0925 22:26:21.272732 30363 net.cpp:148] Top shape: 1 1 (1)
I0925 22:26:21.272742 30363 net.cpp:148] Top shape: 1 1 (1)
I0925 22:26:21.272748 30363 net.cpp:156] Memory required for data: 14020
I0925 22:26:21.272758 30363 layer_factory.hpp:77] Creating layer lstm2_x_transform
I0925 22:26:21.272768 30373 net.cpp:141] Setting up lstm2_
I0925 22:26:21.272778 30373 net.cpp:148] Top shape: 1 1 1000 (1000)
I0925 22:26:21.272783 30373 net.cpp:156] Memory required for data: 94020
I0925 22:26:21.272786 30373 layer_factory.hpp:77] Creating layer lstm2_h_concat
I0925 22:26:21.272805 30373 net.cpp:91] Creating Layer lstm2_h_concat
I0925 22:26:21.272811 30373 net.cpp:425] lstm2_h_concat <- h_1
I0925 22:26:21.272819 30373 net.cpp:399] lstm2_h_concat -> h
I0925 22:26:21.272825 30363 net.cpp:91] Creating Layer lstm2_x_transform
I0925 22:26:21.272837 30363 net.cpp:425] lstm2_x_transform <- x
I0925 22:26:21.272851 30363 net.cpp:399] lstm2_x_transform -> W_xc_x
I0925 22:26:21.272963 30373 net.cpp:141] Setting up lstm2_h_concat
I0925 22:26:21.272974 30373 net.cpp:148] Top shape: 1 1 1000 (1000)
I0925 22:26:21.272979 30373 net.cpp:156] Memory required for data: 98020
I0925 22:26:21.272984 30373 layer_factory.hpp:77] Creating layer h_pseudoloss
I0925 22:26:21.272994 30373 net.cpp:91] Creating Layer h_pseudoloss
I0925 22:26:21.273000 30373 net.cpp:425] h_pseudoloss <- h
I0925 22:26:21.273010 30373 net.cpp:399] h_pseudoloss -> h_pseudoloss
I0925 22:26:21.273228 30373 net.cpp:141] Setting up h_pseudoloss
…
I0925 22:26:21.273386 30373 net.cpp:219] lstm2_ does not need backward computation.
I0925 22:26:21.273393 30373 net.cpp:261] This network produces output c_T
I0925 22:26:21.273404 30373 net.cpp:261] This network produces output h_pseudoloss
I0925 22:26:21.273435 30373 net.cpp:274] Network initialization done.
I0925 22:26:21.273501 30373 recurrent_layer.cpp:150] Adding parameter 0: W_xc
I0925 22:26:21.273509 30373 recurrent_layer.cpp:150] Adding parameter 1: b_c
I0925 22:26:21.273514 30373 recurrent_layer.cpp:150] Adding parameter 2: W_hc
I0925 22:26:21.291219 30401 net.cpp:141] Setting up lstm2_x_transform
I0925 22:26:21.291285 30401 net.cpp:148] Top shape: 1 1 4000 (4000)
I0925 22:26:21.291298 30401 net.cpp:156] Memory required for data: 30020
I0925 22:26:21.291352 30401 layer_factory.hpp:77] Creating layer lstm2_W_xc_x_slice
I0925 22:26:21.291379 30401 net.cpp:91] Creating Layer lstm2_W_xc_x_slice
I0925 22:26:21.291390 30401 net.cpp:425] lstm2_W_xc_x_slice <- W_xc_x
I0925 22:26:21.291407 30401 net.cpp:399] lstm2_W_xc_x_slice -> W_xc_x_1
I0925 22:26:21.294116 30373 net.cpp:141] Setting up lstm2
I0925 22:26:21.294168 30373 net.cpp:148] Top shape: 1 1 1000 (1000)
I0925 22:26:21.294180 30373 net.cpp:156] Memory required for data: 36412
I0925 22:26:21.294175 30401 net.cpp:141] Setting up lstm2_W_xc_x_slice
I0925 22:26:21.294211 30373 layer_factory.hpp:77] Creating layer predict
I0925 22:26:21.294217 30401 net.cpp:148] Top shape: 1 1 4000 (4000)
I0925 22:26:21.294229 30401 net.cpp:156] Memory required for data: 46020
I0925 22:26:21.294236 30373 net.cpp:91] Creating Layer predict
I0925 22:26:21.294245 30373 net.cpp:425] predict <- lstm2
I0925 22:26:21.294257 30373 net.cpp:399] predict -> predict
I0925 22:26:21.294260 30401 layer_factory.hpp:77] Creating layer lstm2_h_conted_0
I0925 22:26:21.294304 30401 net.cpp:91] Creating Layer lstm2_h_conted_0
I0925 22:26:21.294318 30401 net.cpp:425] lstm2_h_conted_0 <- h_0
I0925 22:26:21.294332 30401 net.cpp:425] lstm2_h_conted_0 <- cont_1_lstm2_cont_slice_0_split_0
I0925 22:26:21.294349 30401 net.cpp:399] lstm2_h_conted_0 -> h_conted_0
I0925 22:26:21.298928 30401 net.cpp:141] Setting up lstm2_h_conted_0
I0925 22:26:21.298960 30401 net.cpp:148] Top shape: 1 1 1000 (1000)
I0925 22:26:21.298969 30401 net.cpp:156] Memory required for data: 50020
I0925 22:26:21.298979 30401 layer_factory.hpp:77] Creating layer lstm2_transform_1
I0925 22:26:21.299001 30401 net.cpp:91] Creating Layer lstm2_transform_1
I0925 22:26:21.299042 30401 net.cpp:425] lstm2_transform_1 <- h_conted_0
I0925 22:26:21.299060 30401 net.cpp:399] lstm2_transform_1 -> W_hc_h_0
I0925 22:26:21.418920 30381 net.cpp:141] Setting up predict
I0925 22:26:21.418977 30381 net.cpp:148] Top shape: 1 1 46168 (46168)
I0925 22:26:21.418983 30381 net.cpp:156] Memory required for data: 221084
I0925 22:26:21.418998 30381 layer_factory.hpp:77] Creating layer probs
I0925 22:26:21.419015 30381 net.cpp:91] Creating Layer probs
I0925 22:26:21.419023 30381 net.cpp:425] probs <- predict
I0925 22:26:21.419034 30381 net.cpp:399] probs -> probs
I0925 22:26:21.419080 30363 net.cpp:141] Setting up lstm2_x_transform
I0925 22:26:21.419121 30363 net.cpp:148] Top shape: 1 1 4000 (4000)
I0925 22:26:21.419132 30363 net.cpp:156] Memory required for data: 30020
I0925 22:26:21.419160 30363 layer_factory.hpp:77] Creating layer lstm2_W_xc_x_slice
I0925 22:26:21.419183 30363 net.cpp:91] Creating Layer lstm2_W_xc_x_slice
I0925 22:26:21.419193 30363 net.cpp:425] lstm2_W_xc_x_slice <- W_xc_x
I0925 22:26:21.419258 30363 net.cpp:399] lstm2_W_xc_x_slice -> W_xc_x_1
I0925 22:26:21.423281 30363 net.cpp:141] Setting up lstm2_W_xc_x_slice
I0925 22:26:21.423620 30363 net.cpp:148] Top shape: 1 1 4000 (4000)
I0925 22:26:21.423751 30363 net.cpp:156] Memory required for data: 46020
I0925 22:26:21.423892 30363 layer_factory.hpp:77] Creating layer lstm2_h_conted_0
I0925 22:26:21.423921 30363 net.cpp:91] Creating Layer lstm2_h_conted_0
I0925 22:26:21.423931 30363 net.cpp:425] lstm2_h_conted_0 <- h_0
I0925 22:26:21.423943 30363 net.cpp:425] lstm2_h_conted_0 <- cont_1_lstm2_cont_slice_0_split_0
I0925 22:26:21.423964 30363 net.cpp:399] lstm2_h_conted_0 -> h_conted_0
I0925 22:26:21.436842 30363 net.cpp:141] Setting up lstm2_h_conted_0
I0925 22:26:21.437222 30363 net.cpp:148] Top shape: 1 1 1000 (1000)
I0925 22:26:21.437237 30363 net.cpp:156] Memory required for data: 50020
I0925 22:26:21.437250 30363 layer_factory.hpp:77] Creating layer lstm2_transform_1
I0925 22:26:21.437290 30363 net.cpp:91] Creating Layer lstm2_transform_1
I0925 22:26:21.437304 30363 net.cpp:425] lstm2_transform_1 <- h_conted_0
I0925 22:26:21.437325 30363 net.cpp:399] lstm2_transform_1 -> W_hc_h_0
I0925 22:26:21.448145 30369 net.cpp:141] Setting up predict
I0925 22:26:21.448232 30369 net.cpp:148] Top shape: 1 1 46168 (46168)
I0925 22:26:21.448252 30369 net.cpp:156] Memory required for data: 221084
I0925 22:26:21.448288 30369 layer_factory.hpp:77] Creating layer probs
I0925 22:26:21.448326 30369 net.cpp:91] Creating Layer probs
I0925 22:26:21.448350 30369 net.cpp:425] probs <- predict
I0925 22:26:21.448379 30369 net.cpp:399] probs -> probs
I0925 22:26:21.450413 30401 net.cpp:141] Setting up lstm2_transform_1
I0925 22:26:21.450453 30401 net.cpp:148] Top shape: 1 1 4000 (4000)
I0925 22:26:21.450458 30401 net.cpp:156] Memory required for data: 66020
I0925 22:26:21.450476 30401 layer_factory.hpp:77] Creating layer lstm2_gate_input_1
I0925 22:26:21.450515 30401 net.cpp:91] Creating Layer lstm2_gate_input_1
I0925 22:26:21.450521 30401 net.cpp:425] lstm2_gate_input_1 <- W_hc_h_0
I0925 22:26:21.450530 30401 net.cpp:425] lstm2_gate_input_1 <- W_xc_x_1
I0925 22:26:21.450536 30401 net.cpp:399] lstm2_gate_input_1 -> gate_input_1
I0925 22:26:21.450633 30401 net.cpp:141] Setting up lstm2_gate_input_1
I0925 22:26:21.450645 30401 net.cpp:148] Top shape: 1 1 4000 (4000)
I0925 22:26:21.450652 30401 net.cpp:156] Memory required for data: 82020
I0925 22:26:21.450657 30401 layer_factory.hpp:77] Creating layer lstm2_unit_1
I0925 22:26:21.450667 30401 net.cpp:91] Creating Layer lstm2_unit_1
I0925 22:26:21.450675 30401 net.cpp:425] lstm2_unit_1 <- c_0
I0925 22:26:21.450680 30401 net.cpp:425] lstm2_unit_1 <- gate_input_1
I0925 22:26:21.450685 30401 net.cpp:425] lstm2_unit_1 <- cont_1_lstm2_cont_slice_0_split_1
I0925 22:26:21.450692 30401 net.cpp:399] lstm2_unit_1 -> c_1
I0925 22:26:21.450701 30401 net.cpp:399] lstm2_unit_1 -> h_1
I0925 22:26:21.450778 30401 net.cpp:141] Setting up lstm2_unit_1
I0925 22:26:21.450788 30401 net.cpp:148] Top shape: 1 1 1000 (1000)
I0925 22:26:21.450794 30401 net.cpp:148] Top shape: 1 1 1000 (1000)
I0925 22:26:21.450798 30401 net.cpp:156] Memory required for data: 90020
I0925 22:26:21.450803 30401 layer_factory.hpp:77] Creating layer lstm2_
I0925 22:26:21.450815 30401 net.cpp:91] Creating Layer lstm2_
I0925 22:26:21.450820 30401 net.cpp:425] lstm2_ <- c_1
I0925 22:26:21.450829 30401 net.cpp:399] lstm2_ -> c_T
I0925 22:26:21.450865 30401 net.cpp:141] Setting up lstm2_
I0925 22:26:21.450875 30401 net.cpp:148] Top shape: 1 1 1000 (1000)
I0925 22:26:21.450881 30401 net.cpp:156] Memory required for data: 94020
I0925 22:26:21.450886 30401 layer_factory.hpp:77] Creating layer lstm2_h_concat
I0925 22:26:21.450894 30401 net.cpp:91] Creating Layer lstm2_h_concat
I0925 22:26:21.450898 30401 net.cpp:425] lstm2_h_concat <- h_1
I0925 22:26:21.450922 30401 net.cpp:399] lstm2_h_concat -> h
I0925 22:26:21.450963 30401 net.cpp:141] Setting up lstm2_h_concat
I0925 22:26:21.450971 30401 net.cpp:148] Top shape: 1 1 1000 (1000)
I0925 22:26:21.450975 30401 net.cpp:156] Memory required for data: 98020
I0925 22:26:21.450980 30401 layer_factory.hpp:77] Creating layer h_pseudoloss
I0925 22:26:21.450991 30401 net.cpp:91] Creating Layer h_pseudoloss
I0925 22:26:21.450996 30401 net.cpp:425] h_pseudoloss <- h
I0925 22:26:21.451004 30401 net.cpp:399] h_pseudoloss -> h_pseudoloss
I0925 22:26:21.451119 30401 net.cpp:141] Setting up h_pseudoloss
…
I0925 22:26:21.451220 30401 net.cpp:219] lstm2_ does not need backward computation.
I0925 22:26:21.451225 30401 net.cpp:261] This network produces output c_T
I0925 22:26:21.451230 30401 net.cpp:261] This network produces output h_pseudoloss
I0925 22:26:21.451243 30401 net.cpp:274] Network initialization done.
I0925 22:26:21.451306 30401 recurrent_layer.cpp:150] Adding parameter 0: W_xc
I0925 22:26:21.451314 30401 recurrent_layer.cpp:150] Adding parameter 1: b_c
I0925 22:26:21.451318 30401 recurrent_layer.cpp:150] Adding parameter 2: W_hc
I0925 22:26:21.451436 30401 net.cpp:141] Setting up lstm2
I0925 22:26:21.451467 30401 net.cpp:148] Top shape: 1 1 1000 (1000)
I0925 22:26:21.451472 30401 net.cpp:156] Memory required for data: 36412
I0925 22:26:21.451494 30401 layer_factory.hpp:77] Creating layer predict
I0925 22:26:21.451520 30401 net.cpp:91] Creating Layer predict
I0925 22:26:21.451530 30401 net.cpp:425] predict <- lstm2
I0925 22:26:21.451539 30401 net.cpp:399] predict -> predict
I0925 22:26:21.549621 30363 net.cpp:141] Setting up lstm2_transform_1
I0925 22:26:21.549685 30363 net.cpp:148] Top shape: 1 1 4000 (4000)
I0925 22:26:21.549695 30363 net.cpp:156] Memory required for data: 66020
I0925 22:26:21.549723 30363 layer_factory.hpp:77] Creating layer lstm2_gate_input_1
I0925 22:26:21.549782 30363 net.cpp:91] Creating Layer lstm2_gate_input_1
I0925 22:26:21.549795 30363 net.cpp:425] lstm2_gate_input_1 <- W_hc_h_0
I0925 22:26:21.549806 30363 net.cpp:425] lstm2_gate_input_1 <- W_xc_x_1
I0925 22:26:21.549824 30363 net.cpp:399] lstm2_gate_input_1 -> gate_input_1
I0925 22:26:21.549839 30407 net.cpp:141] Setting up predict
I0925 22:26:21.549861 30407 net.cpp:148] Top shape: 1 1 46168 (46168)
I0925 22:26:21.549867 30407 net.cpp:156] Memory required for data: 221084
I0925 22:26:21.549881 30407 layer_factory.hpp:77] Creating layer probs
I0925 22:26:21.549895 30407 net.cpp:91] Creating Layer probs
I0925 22:26:21.549902 30407 net.cpp:425] probs <- predict
I0925 22:26:21.549911 30407 net.cpp:399] probs -> probs
I0925 22:26:21.554435 30363 net.cpp:141] Setting up lstm2_gate_input_1
I0925 22:26:21.554497 30363 net.cpp:148] Top shape: 1 1 4000 (4000)
I0925 22:26:21.554507 30363 net.cpp:156] Memory required for data: 82020
I0925 22:26:21.554517 30363 layer_factory.hpp:77] Creating layer lstm2_unit_1
I0925 22:26:21.554568 30363 net.cpp:91] Creating Layer lstm2_unit_1
I0925 22:26:21.554580 30363 net.cpp:425] lstm2_unit_1 <- c_0
I0925 22:26:21.554612 30363 net.cpp:425] lstm2_unit_1 <- gate_input_1
I0925 22:26:21.554625 30363 net.cpp:425] lstm2_unit_1 <- cont_1_lstm2_cont_slice_0_split_1
I0925 22:26:21.554636 30363 net.cpp:399] lstm2_unit_1 -> c_1
I0925 22:26:21.554656 30363 net.cpp:399] lstm2_unit_1 -> h_1
I0925 22:26:21.555110 30363 net.cpp:141] Setting up lstm2_unit_1
I0925 22:26:21.555132 30363 net.cpp:148] Top shape: 1 1 1000 (1000)
I0925 22:26:21.555145 30363 net.cpp:148] Top shape: 1 1 1000 (1000)
I0925 22:26:21.555151 30363 net.cpp:156] Memory required for data: 90020
I0925 22:26:21.555157 30363 layer_factory.hpp:77] Creating layer lstm2_
I0925 22:26:21.555167 30363 net.cpp:91] Creating Layer lstm2_
I0925 22:26:21.555173 30363 net.cpp:425] lstm2_ <- c_1
I0925 22:26:21.555181 30363 net.cpp:399] lstm2_ -> c_T
I0925 22:26:21.559728 30363 net.cpp:141] Setting up lstm2_
I0925 22:26:21.559789 30363 net.cpp:148] Top shape: 1 1 1000 (1000)
I0925 22:26:21.559795 30363 net.cpp:156] Memory required for data: 94020
I0925 22:26:21.559804 30363 layer_factory.hpp:77] Creating layer lstm2_h_concat
I0925 22:26:21.559823 30363 net.cpp:91] Creating Layer lstm2_h_concat
I0925 22:26:21.559830 30363 net.cpp:425] lstm2_h_concat <- h_1
I0925 22:26:21.559842 30363 net.cpp:399] lstm2_h_concat -> h
I0925 22:26:21.568750 30363 net.cpp:141] Setting up lstm2_h_concat
I0925 22:26:21.568805 30363 net.cpp:148] Top shape: 1 1 1000 (1000)
I0925 22:26:21.568811 30363 net.cpp:156] Memory required for data: 98020
I0925 22:26:21.568820 30363 layer_factory.hpp:77] Creating layer h_pseudoloss
I0925 22:26:21.568836 30363 net.cpp:91] Creating Layer h_pseudoloss
I0925 22:26:21.568843 30363 net.cpp:425] h_pseudoloss <- h
I0925 22:26:21.568855 30363 net.cpp:399] h_pseudoloss -> h_pseudoloss
I0925 22:26:21.572942 30363 net.cpp:141] Setting up h_pseudoloss
…
I0925 22:26:21.573066 30363 net.cpp:219] lstm2_ does not need backward computation.
I0925 22:26:21.573071 30363 net.cpp:261] This network produces output c_T
I0925 22:26:21.573076 30363 net.cpp:261] This network produces output h_pseudoloss
I0925 22:26:21.573092 30363 net.cpp:274] Network initialization done.
I0925 22:26:21.573148 30363 recurrent_layer.cpp:150] Adding parameter 0: W_xc
I0925 22:26:21.573154 30363 recurrent_layer.cpp:150] Adding parameter 1: b_c
I0925 22:26:21.573159 30363 recurrent_layer.cpp:150] Adding parameter 2: W_hc
I0925 22:26:21.576017 30363 net.cpp:141] Setting up lstm2
I0925 22:26:21.576040 30363 net.cpp:148] Top shape: 1 1 1000 (1000)
I0925 22:26:21.576045 30363 net.cpp:156] Memory required for data: 36412
I0925 22:26:21.576062 30363 layer_factory.hpp:77] Creating layer predict
I0925 22:26:21.576078 30363 net.cpp:91] Creating Layer predict
I0925 22:26:21.576086 30363 net.cpp:425] predict <- lstm2
I0925 22:26:21.576093 30363 net.cpp:399] predict -> predict
I0925 22:26:21.668309 30367 net.cpp:141] Setting up predict
I0925 22:26:21.668359 30367 net.cpp:148] Top shape: 1 1 46168 (46168)
I0925 22:26:21.668365 30367 net.cpp:156] Memory required for data: 221084
I0925 22:26:21.668380 30367 layer_factory.hpp:77] Creating layer probs
I0925 22:26:21.668396 30367 net.cpp:91] Creating Layer probs
I0925 22:26:21.668404 30367 net.cpp:425] probs <- predict
I0925 22:26:21.668413 30367 net.cpp:399] probs -> probs
I0925 22:26:21.734262 30381 net.cpp:141] Setting up probs
I0925 22:26:21.734314 30381 net.cpp:148] Top shape: 1 1 46168 (46168)
I0925 22:26:21.734323 30381 net.cpp:156] Memory required for data: 405756
I0925 22:26:21.734336 30381 net.cpp:219] probs does not need backward computation.
I0925 22:26:21.734347 30381 net.cpp:219] predict does not need backward computation.
I0925 22:26:21.734356 30381 net.cpp:219] lstm2 does not need backward computation.
I0925 22:26:21.734365 30381 net.cpp:219] concat does not need backward computation.
I0925 22:26:21.734375 30381 net.cpp:219] lstm1 does not need backward computation.
I0925 22:26:21.734385 30381 net.cpp:219] embedding does not need backward computation.
I0925 22:26:21.734391 30381 net.cpp:219] reshape_stage_indicator does not need backward computation.
I0925 22:26:21.734400 30381 net.cpp:219] reshape_frames does not need backward computation.
I0925 22:26:21.734408 30381 net.cpp:219] embed_encoder does not need backward computation.
I0925 22:26:21.734416 30381 net.cpp:219] cont_sentence_input_1_split does not need backward computation.
I0925 22:26:21.734426 30381 net.cpp:219] input does not need backward computation.
I0925 22:26:21.734432 30381 net.cpp:261] This network produces output probs
I0925 22:26:21.734462 30381 net.cpp:274] Network initialization done.
I0925 22:26:21.735586 30375 net.cpp:141] Setting up conv1
I0925 22:26:21.735630 30375 net.cpp:148] Top shape: 10 96 55 55 (2904000)
I0925 22:26:21.735637 30375 net.cpp:156] Memory required for data: 17799480
I0925 22:26:21.735690 30375 layer_factory.hpp:77] Creating layer relu1
I0925 22:26:21.735728 30375 net.cpp:91] Creating Layer relu1
I0925 22:26:21.735736 30375 net.cpp:425] relu1 <- conv1
I0925 22:26:21.735744 30375 net.cpp:386] relu1 -> conv1 (in-place)
I0925 22:26:21.736058 30369 net.cpp:141] Setting up probs
I0925 22:26:21.736076 30375 net.cpp:141] Setting up relu1
I0925 22:26:21.736081 30369 net.cpp:148] Top shape: 1 1 46168 (46168)
I0925 22:26:21.736090 30375 net.cpp:148] Top shape: 10 96 55 55 (2904000)
I0925 22:26:21.736091 30369 net.cpp:156] Memory required for data: 405756
I0925 22:26:21.736096 30375 net.cpp:156] Memory required for data: 29415480
I0925 22:26:21.736102 30375 layer_factory.hpp:77] Creating layer pool1
I0925 22:26:21.736101 30369 net.cpp:219] probs does not need backward computation.
I0925 22:26:21.736112 30369 net.cpp:219] predict does not need backward computation.
…
I0925 22:26:21.736621 30367 net.cpp:219] reshape_frames does not need backward computation.
I0925 22:26:21.736629 30367 net.cpp:219] embed_encoder does not need backward computation.
I0925 22:26:21.736639 30367 net.cpp:219] cont_sentence_input_1_split does not need backward computation.
I0925 22:26:21.736672 30407 net.cpp:274] Network initialization done.
I0925 22:26:21.736744 30367 net.cpp:219] input does not need backward computation.
I0925 22:26:21.736757 30367 net.cpp:261] This network produces output probs
I0925 22:26:21.736779 30367 net.cpp:274] Network initialization done.
I0925 22:26:21.737531 30375 net.cpp:141] Setting up norm1
I0925 22:26:21.737550 30375 net.cpp:148] Top shape: 10 96 27 27 (699840)
I0925 22:26:21.737557 30375 net.cpp:156] Memory required for data: 35014200
I0925 22:26:21.737565 30375 layer_factory.hpp:77] Creating layer conv2
I0925 22:26:21.737609 30375 net.cpp:91] Creating Layer conv2
I0925 22:26:21.737619 30375 net.cpp:425] conv2 <- norm1
I0925 22:26:21.737632 30375 net.cpp:399] conv2 -> conv2
I0925 22:26:21.752007 30375 net.cpp:141] Setting up conv2
I0925 22:26:21.752415 30375 net.cpp:148] Top shape: 10 256 27 27 (1866240)
I0925 22:26:21.752538 30375 net.cpp:156] Memory required for data: 42479160
I0925 22:26:21.752678 30375 layer_factory.hpp:77] Creating layer relu2
I0925 22:26:21.752813 30375 net.cpp:91] Creating Layer relu2
I0925 22:26:21.752931 30375 net.cpp:425] relu2 <- conv2
I0925 22:26:21.753154 30375 net.cpp:386] relu2 -> conv2 (in-place)
I0925 22:26:21.754134 30375 net.cpp:141] Setting up relu2
I0925 22:26:21.754407 30375 net.cpp:148] Top shape: 10 256 27 27 (1866240)
I0925 22:26:21.754525 30375 net.cpp:156] Memory required for data: 49944120
I0925 22:26:21.754668 30375 layer_factory.hpp:77] Creating layer pool2
I0925 22:26:21.754796 30375 net.cpp:91] Creating Layer pool2
I0925 22:26:21.754910 30375 net.cpp:425] pool2 <- conv2
I0925 22:26:21.755029 30375 net.cpp:399] pool2 -> pool2
I0925 22:26:21.755522 30375 net.cpp:141] Setting up pool2
I0925 22:26:21.755659 30375 net.cpp:148] Top shape: 10 256 13 13 (432640)
I0925 22:26:21.755777 30375 net.cpp:156] Memory required for data: 51674680
I0925 22:26:21.755892 30375 layer_factory.hpp:77] Creating layer norm2
I0925 22:26:21.756054 30375 net.cpp:91] Creating Layer norm2
I0925 22:26:21.756319 30375 net.cpp:425] norm2 <- pool2
I0925 22:26:21.756448 30375 net.cpp:399] norm2 -> norm2
I0925 22:26:21.757598 30375 net.cpp:141] Setting up norm2
I0925 22:26:21.757948 30375 net.cpp:148] Top shape: 10 256 13 13 (432640)
I0925 22:26:21.758064 30375 net.cpp:156] Memory required for data: 53405240
I0925 22:26:21.758275 30375 layer_factory.hpp:77] Creating layer conv3
I0925 22:26:21.758957 30375 net.cpp:91] Creating Layer conv3
I0925 22:26:21.758975 30375 net.cpp:425] conv3 <- norm2
I0925 22:26:21.758991 30375 net.cpp:399] conv3 -> conv3
I0925 22:26:21.780725 30373 net.cpp:141] Setting up predict
I0925 22:26:21.780783 30373 net.cpp:148] Top shape: 1 1 46168 (46168)
I0925 22:26:21.780792 30373 net.cpp:156] Memory required for data: 221084
I0925 22:26:21.780812 30373 layer_factory.hpp:77] Creating layer probs
I0925 22:26:21.780835 30373 net.cpp:91] Creating Layer probs
I0925 22:26:21.780846 30373 net.cpp:425] probs <- predict
I0925 22:26:21.780861 30373 net.cpp:399] probs -> probs
I0925 22:26:21.783344 30375 net.cpp:141] Setting up conv3
I0925 22:26:21.783403 30375 net.cpp:148] Top shape: 10 384 13 13 (648960)
I0925 22:26:21.783411 30375 net.cpp:156] Memory required for data: 56001080
I0925 22:26:21.783437 30375 layer_factory.hpp:77] Creating layer relu3
I0925 22:26:21.784081 30375 net.cpp:91] Creating Layer relu3
I0925 22:26:21.784101 30375 net.cpp:425] relu3 <- conv3
I0925 22:26:21.784113 30375 net.cpp:386] relu3 -> conv3 (in-place)
I0925 22:26:21.786691 30373 net.cpp:141] Setting up probs
I0925 22:26:21.786738 30373 net.cpp:148] Top shape: 1 1 46168 (46168)
I0925 22:26:21.786746 30373 net.cpp:156] Memory required for data: 405756
I0925 22:26:21.786754 30373 net.cpp:219] probs does not need backward computation.
I0925 22:26:21.786761 30373 net.cpp:219] predict does not need backward computation.
I0925 22:26:21.786767 30373 net.cpp:219] lstm2 does not need backward computation.
I0925 22:26:21.786772 30373 net.cpp:219] concat does not need backward computation.
I0925 22:26:21.786778 30373 net.cpp:219] lstm1 does not need backward computation.
I0925 22:26:21.786784 30373 net.cpp:219] embedding does not need backward computation.
I0925 22:26:21.786789 30373 net.cpp:219] reshape_stage_indicator does not need backward computation.
I0925 22:26:21.786794 30373 net.cpp:219] reshape_frames does not need backward computation.
I0925 22:26:21.786799 30373 net.cpp:219] embed_encoder does not need backward computation.
I0925 22:26:21.786804 30373 net.cpp:219] cont_sentence_input_1_split does not need backward computation.
I0925 22:26:21.786809 30373 net.cpp:219] input does not need backward computation.
I0925 22:26:21.786813 30373 net.cpp:261] This network produces output probs
I0925 22:26:21.786831 30373 net.cpp:274] Network initialization done.
I0925 22:26:21.787767 30375 net.cpp:141] Setting up relu3
I0925 22:26:21.787789 30375 net.cpp:148] Top shape: 10 384 13 13 (648960)
I0925 22:26:21.787796 30375 net.cpp:156] Memory required for data: 58596920
I0925 22:26:21.787802 30375 layer_factory.hpp:77] Creating layer conv4
I0925 22:26:21.787822 30375 net.cpp:91] Creating Layer conv4
I0925 22:26:21.787827 30375 net.cpp:425] conv4 <- conv3
I0925 22:26:21.788655 30375 net.cpp:399] conv4 -> conv4
I0925 22:26:21.832202 30375 net.cpp:141] Setting up conv4
I0925 22:26:21.832268 30375 net.cpp:148] Top shape: 10 384 13 13 (648960)
I0925 22:26:21.832279 30375 net.cpp:156] Memory required for data: 61192760
I0925 22:26:21.832309 30375 layer_factory.hpp:77] Creating layer relu4
I0925 22:26:21.832345 30375 net.cpp:91] Creating Layer relu4
I0925 22:26:21.832358 30375 net.cpp:425] relu4 <- conv4
I0925 22:26:21.832475 30375 net.cpp:386] relu4 -> conv4 (in-place)
I0925 22:26:21.833122 30375 net.cpp:141] Setting up relu4
I0925 22:26:21.833137 30375 net.cpp:148] Top shape: 10 384 13 13 (648960)
I0925 22:26:21.833142 30375 net.cpp:156] Memory required for data: 63788600
I0925 22:26:21.833178 30375 layer_factory.hpp:77] Creating layer conv5
I0925 22:26:21.833200 30375 net.cpp:91] Creating Layer conv5
I0925 22:26:21.833206 30375 net.cpp:425] conv5 <- conv4
I0925 22:26:21.833267 30375 net.cpp:399] conv5 -> conv5
I0925 22:26:21.842278 30375 net.cpp:141] Setting up conv5
I0925 22:26:21.842337 30375 net.cpp:148] Top shape: 10 256 13 13 (432640)
I0925 22:26:21.842345 30375 net.cpp:156] Memory required for data: 65519160
I0925 22:26:21.842377 30375 layer_factory.hpp:77] Creating layer relu5
I0925 22:26:21.842435 30375 net.cpp:91] Creating Layer relu5
I0925 22:26:21.842445 30375 net.cpp:425] relu5 <- conv5
I0925 22:26:21.842468 30375 net.cpp:386] relu5 -> conv5 (in-place)
I0925 22:26:21.843493 30375 net.cpp:141] Setting up relu5
I0925 22:26:21.843538 30375 net.cpp:148] Top shape: 10 256 13 13 (432640)
I0925 22:26:21.843544 30375 net.cpp:156] Memory required for data: 67249720
I0925 22:26:21.843554 30375 layer_factory.hpp:77] Creating layer pool5
I0925 22:26:21.843580 30375 net.cpp:91] Creating Layer pool5
I0925 22:26:21.843590 30375 net.cpp:425] pool5 <- conv5
I0925 22:26:21.843601 30375 net.cpp:399] pool5 -> pool5
I0925 22:26:21.843802 30375 net.cpp:141] Setting up pool5
I0925 22:26:21.843816 30375 net.cpp:148] Top shape: 10 256 6 6 (92160)
I0925 22:26:21.843821 30375 net.cpp:156] Memory required for data: 67618360
I0925 22:26:21.843825 30375 layer_factory.hpp:77] Creating layer fc6
I0925 22:26:21.843842 30375 net.cpp:91] Creating Layer fc6
I0925 22:26:21.843847 30375 net.cpp:425] fc6 <- pool5
I0925 22:26:21.843860 30375 net.cpp:399] fc6 -> fc6
I0925 22:26:21.944681 30401 net.cpp:141] Setting up predict
I0925 22:26:21.944757 30401 net.cpp:148] Top shape: 1 1 46168 (46168)
I0925 22:26:21.944769 30401 net.cpp:156] Memory required for data: 221084
I0925 22:26:21.944794 30401 layer_factory.hpp:77] Creating layer probs
I0925 22:26:21.944825 30401 net.cpp:91] Creating Layer probs
I0925 22:26:21.944838 30401 net.cpp:425] probs <- predict
I0925 22:26:21.944856 30401 net.cpp:399] probs -> probs
I0925 22:26:21.946255 30401 net.cpp:141] Setting up probs
I0925 22:26:21.946346 30401 net.cpp:148] Top shape: 1 1 46168 (46168)
I0925 22:26:21.946369 30401 net.cpp:156] Memory required for data: 405756
I0925 22:26:21.946395 30401 net.cpp:219] probs does not need backward computation.
I0925 22:26:21.946418 30401 net.cpp:219] predict does not need backward computation.
I0925 22:26:21.946435 30401 net.cpp:219] lstm2 does not need backward computation.
I0925 22:26:21.946455 30401 net.cpp:219] concat does not need backward computation.
I0925 22:26:21.946473 30401 net.cpp:219] lstm1 does not need backward computation.
I0925 22:26:21.946494 30401 net.cpp:219] embedding does not need backward computation.
I0925 22:26:21.946517 30401 net.cpp:219] reshape_stage_indicator does not need backward computation.
I0925 22:26:21.946537 30401 net.cpp:219] reshape_frames does not need backward computation.
I0925 22:26:21.946558 30401 net.cpp:219] embed_encoder does not need backward computation.
I0925 22:26:21.946609 30401 net.cpp:219] cont_sentence_input_1_split does not need backward computation.
I0925 22:26:21.946645 30401 net.cpp:219] input does not need backward computation.
I0925 22:26:21.946666 30401 net.cpp:261] This network produces output probs
I0925 22:26:21.946714 30401 net.cpp:274] Network initialization done.
I0925 22:26:21.949079 30375 net.cpp:141] Setting up fc6
I0925 22:26:21.949141 30375 net.cpp:148] Top shape: 10 4096 (40960)
I0925 22:26:21.949148 30375 net.cpp:156] Memory required for data: 67782200
I0925 22:26:21.949167 30375 layer_factory.hpp:77] Creating layer relu6
I0925 22:26:21.949215 30375 net.cpp:91] Creating Layer relu6
I0925 22:26:21.949224 30375 net.cpp:425] relu6 <- fc6
I0925 22:26:21.949234 30375 net.cpp:386] relu6 -> fc6 (in-place)
I0925 22:26:21.951005 30375 net.cpp:141] Setting up relu6
I0925 22:26:21.951025 30375 net.cpp:148] Top shape: 10 4096 (40960)
I0925 22:26:21.951030 30375 net.cpp:156] Memory required for data: 67946040
I0925 22:26:21.951035 30375 layer_factory.hpp:77] Creating layer drop6
I0925 22:26:21.951048 30375 net.cpp:91] Creating Layer drop6
I0925 22:26:21.951055 30375 net.cpp:425] drop6 <- fc6
I0925 22:26:21.951066 30375 net.cpp:386] drop6 -> fc6 (in-place)
I0925 22:26:21.951134 30375 net.cpp:141] Setting up drop6
I0925 22:26:21.951144 30375 net.cpp:148] Top shape: 10 4096 (40960)
I0925 22:26:21.951149 30375 net.cpp:156] Memory required for data: 68109880
I0925 22:26:21.951154 30375 layer_factory.hpp:77] Creating layer fc7
I0925 22:26:21.951654 30375 net.cpp:91] Creating Layer fc7
I0925 22:26:21.951669 30375 net.cpp:425] fc7 <- fc6
I0925 22:26:21.951680 30375 net.cpp:399] fc7 -> fc7
I0925 22:26:22.012425 30375 net.cpp:141] Setting up fc7
I0925 22:26:22.012476 30375 net.cpp:148] Top shape: 10 4096 (40960)
I0925 22:26:22.012485 30375 net.cpp:156] Memory required for data: 68273720
I0925 22:26:22.012501 30375 layer_factory.hpp:77] Creating layer relu7
I0925 22:26:22.012519 30375 net.cpp:91] Creating Layer relu7
I0925 22:26:22.012527 30375 net.cpp:425] relu7 <- fc7
I0925 22:26:22.012536 30375 net.cpp:386] relu7 -> fc7 (in-place)
I0925 22:26:22.014510 30375 net.cpp:141] Setting up relu7
I0925 22:26:22.014554 30375 net.cpp:148] Top shape: 10 4096 (40960)
I0925 22:26:22.014565 30375 net.cpp:156] Memory required for data: 68437560
I0925 22:26:22.014581 30375 layer_factory.hpp:77] Creating layer drop7
I0925 22:26:22.014619 30375 net.cpp:91] Creating Layer drop7
I0925 22:26:22.014629 30375 net.cpp:425] drop7 <- fc7
I0925 22:26:22.014641 30375 net.cpp:386] drop7 -> fc7 (in-place)
I0925 22:26:22.015110 30375 net.cpp:141] Setting up drop7
I0925 22:26:22.015122 30375 net.cpp:148] Top shape: 10 4096 (40960)
I0925 22:26:22.015127 30375 net.cpp:156] Memory required for data: 68601400
I0925 22:26:22.015132 30375 layer_factory.hpp:77] Creating layer fc8
I0925 22:26:22.015146 30375 net.cpp:91] Creating Layer fc8
I0925 22:26:22.015151 30375 net.cpp:425] fc8 <- fc7
I0925 22:26:22.015162 30375 net.cpp:399] fc8 -> fc8
I0925 22:26:22.029095 30375 net.cpp:141] Setting up fc8
I0925 22:26:22.029152 30375 net.cpp:148] Top shape: 10 1000 (10000)
I0925 22:26:22.029162 30375 net.cpp:156] Memory required for data: 68641400
I0925 22:26:22.029186 30375 layer_factory.hpp:77] Creating layer prob
I0925 22:26:22.029211 30375 net.cpp:91] Creating Layer prob
I0925 22:26:22.029222 30375 net.cpp:425] prob <- fc8
I0925 22:26:22.029623 30375 net.cpp:399] prob -> prob
I0925 22:26:22.031740 30375 net.cpp:141] Setting up prob
I0925 22:26:22.031764 30375 net.cpp:148] Top shape: 10 1000 (10000)
I0925 22:26:22.031774 30375 net.cpp:156] Memory required for data: 68681400
I0925 22:26:22.031785 30375 net.cpp:219] prob does not need backward computation.
I0925 22:26:22.031792 30375 net.cpp:219] fc8 does not need backward computation.
I0925 22:26:22.031800 30375 net.cpp:219] drop7 does not need backward computation.
I0925 22:26:22.031810 30375 net.cpp:219] relu7 does not need backward computation.
…
