…
Java HotSpot(TM) 64-Bit Server VM warning: You have loaded library /tmp/cvld3830732183659268098/libopencv_java310.xine1.so which might have disabled stack guard. The VM will try to fix the stack guard now.
It's highly recommended that you fix the library with 'execstack -c <libfile>', or link it with '-z noexecstack'.
WARNING: Logging before InitGoogleLogging() is written to STDERR
I0721 12:34:38.949970  7845 net.cpp:49] Initializing net from parameters: 
name: "CaffeNet"
state {
  phase: TEST
}
layer {
  name: "data"
  type: "Input"
  top: "data"
  input_param {
    shape {
      dim: 10
      dim: 3
      dim: 227
      dim: 227
    }
  }
}
layer {
  name: "conv1"
  type: "Convolution"
  bottom: "data"
  top: "conv1"
  convolution_param {
    num_output: 96
    kernel_size: 11
    stride: 4
  }
}
layer {
  name: "relu1"
  type: "ReLU"
  bottom: "conv1"
  top: "conv1"
}
layer {
  name: "pool1"
  type: "Pooling"
  bottom: "conv1"
  top: "pool1"
  pooling_param {
    pool: MAX
    kernel_size: 3
    stride: 2
  }
}
layer {
  name: "norm1"
  type: "LRN"
  bottom: "pool1"
  top: "norm1"
  lrn_param {
    local_size: 5
    alpha: 0.0001
    beta: 0.75
  }
}
layer {
  name: "conv2"
  type: "Convolution"
  bottom: "norm1"
  top: "conv2"
  convolution_param {
    num_output: 256
    pad: 2
    kernel_size: 5
    group: 2
  }
}
layer {
  name: "relu2"
  type: "ReLU"
  bottom: "conv2"
  top: "conv2"
}
layer {
  name: "pool2"
  type: "Pooling"
  bottom: "conv2"
  top: "pool2"
  pooling_param {
    pool: MAX
    kernel_size: 3
    stride: 2
  }
}
layer {
  name: "norm2"
  type: "LRN"
  bottom: "pool2"
  top: "norm2"
  lrn_param {
    local_size: 5
    alpha: 0.0001
    beta: 0.75
  }
}
layer {
  name: "conv3"
  type: "Convolution"
  bottom: "norm2"
  top: "conv3"
  convolution_param {
    num_output: 384
    pad: 1
    kernel_size: 3
  }
}
layer {
  name: "relu3"
  type: "ReLU"
  bottom: "conv3"
  top: "conv3"
}
layer {
  name: "conv4"
  type: "Convolution"
  bottom: "conv3"
  top: "conv4"
  convolution_param {
    num_output: 384
    pad: 1
    kernel_size: 3
    group: 2
  }
}
layer {
  name: "relu4"
  type: "ReLU"
  bottom: "conv4"
  top: "conv4"
}
layer {
  name: "conv5"
  type: "Convolution"
  bottom: "conv4"
  top: "conv5"
  convolution_param {
    num_output: 256
    pad: 1
    kernel_size: 3
    group: 2
  }
}
layer {
  name: "relu5"
  type: "ReLU"
  bottom: "conv5"
  top: "conv5"
}
layer {
  name: "pool5"
  type: "Pooling"
  bottom: "conv5"
  top: "pool5"
  pooling_param {
    pool: MAX
    kernel_size: 3
    stride: 2
  }
}
layer {
  name: "fc6"
  type: "InnerProduct"
  bottom: "pool5"
  top: "fc6"
  inner_product_param {
    num_output: 4096
  }
}
layer {
  name: "relu6"
  type: "ReLU"
  bottom: "fc6"
  top: "fc6"
}
layer {
  name: "drop6"
  type: "Dropout"
  bottom: "fc6"
  top: "fc6"
  dropout_param {
    dropout_ratio: 0.5
  }
}
layer {
  name: "fc7"
  type: "InnerProduct"
  bottom: "fc6"
  top: "fc7"
  inner_product_param {
    num_output: 4096
  }
}
layer {
  name: "relu7"
  type: "ReLU"
  bottom: "fc7"
  top: "fc7"
}
layer {
  name: "drop7"
  type: "Dropout"
  bottom: "fc7"
  top: "fc7"
  dropout_param {
    dropout_ratio: 0.5
  }
}
layer {
  name: "fc8"
  type: "InnerProduct"
  bottom: "fc7"
  top: "fc8"
  inner_product_param {
    num_output: 1000
  }
}
layer {
  name: "prob"
  type: "Softmax"
  bottom: "fc8"
  top: "prob"
}
I0721 12:34:38.950146  7845 layer_factory.hpp:77] Creating layer data
I0721 12:34:38.950170  7845 net.cpp:91] Creating Layer data
I0721 12:34:38.950179  7845 net.cpp:399] data -> data
I0721 12:34:38.957089  7851 net.cpp:49] Initializing net from parameters: 
name: "CaffeNet"
state {
  phase: TEST
}
layer {
  name: "data"
  type: "Input"
  top: "data"
  input_param {
    shape {
      dim: 10
      dim: 3
      dim: 227
      dim: 227
    }
  }
}
layer {
  name: "conv1"
  type: "Convolution"
  bottom: "data"
  top: "conv1"
  convolution_param {
    num_output: 96
    kernel_size: 11
    stride: 4
  }
}
layer {
  name: "relu1"
  type: "ReLU"
  bottom: "conv1"
  top: "conv1"
}
layer {
  name: "pool1"
  type: "Pooling"
  bottom: "conv1"
  top: "pool1"
  pooling_param {
    pool: MAX
    kernel_size: 3
    stride: 2
  }
}
layer {
  name: "norm1"
  type: "LRN"
  bottom: "pool1"
  top: "norm1"
  lrn_param {
    local_size: 5
    alpha: 0.0001
    beta: 0.75
  }
}
layer {
  name: "conv2"
  type: "Convolution"
  bottom: "norm1"
  top: "conv2"
  convolution_param {
    num_output: 256
    pad: 2
    kernel_size: 5
    group: 2
  }
}
layer {
  name: "relu2"
  type: "ReLU"
  bottom: "conv2"
  top: "conv2"
}
layer {
  name: "pool2"
  type: "Pooling"
  bottom: "conv2"
  top: "pool2"
  pooling_param {
    pool: MAX
    kernel_size: 3
    stride: 2
  }
}
layer {
  name: "norm2"
  type: "LRN"
  bottom: "pool2"
  top: "norm2"
  lrn_param {
    local_size: 5
    alpha: 0.0001
    beta: 0.75
  }
}
layer {
  name: "conv3"
  type: "Convolution"
  bottom: "norm2"
  top: "conv3"
  convolution_param {
    num_output: 384
    pad: 1
    kernel_size: 3
  }
}
layer {
  name: "relu3"
  type: "ReLU"
  bottom: "conv3"
  top: "conv3"
}
layer {
  name: "conv4"
  type: "Convolution"
  bottom: "conv3"
  top: "conv4"
  convolution_param {
    num_output: 384
    pad: 1
    kernel_size: 3
    group: 2
  }
}
layer {
  name: "relu4"
  type: "ReLU"
  bottom: "conv4"
  top: "conv4"
}
layer {
  name: "conv5"
  type: "Convolution"
  bottom: "conv4"
  top: "conv5"
  convolution_param {
    num_output: 256
    pad: 1
    kernel_size: 3
    group: 2
  }
}
layer {
  name: "relu5"
  type: "ReLU"
  bottom: "conv5"
  top: "conv5"
}
layer {
  name: "pool5"
  type: "Pooling"
  bottom: "conv5"
  top: "pool5"
  pooling_param {
    pool: MAX
    kernel_size: 3
    stride: 2
  }
}
layer {
  name: "fc6"
  type: "InnerProduct"
  bottom: "pool5"
  top: "fc6"
  inner_product_param {
    num_output: 4096
  }
}
layer {
  name: "relu6"
  type: "ReLU"
  bottom: "fc6"
  top: "fc6"
}
layer {
  name: "drop6"
  type: "Dropout"
  bottom: "fc6"
  top: "fc6"
  dropout_param {
    dropout_ratio: 0.5
  }
}
layer {
  name: "fc7"
  type: "InnerProduct"
  bottom: "fc6"
  top: "fc7"
  inner_product_param {
    num_output: 4096
  }
}
layer {
  name: "relu7"
  type: "ReLU"
  bottom: "fc7"
  top: "fc7"
}
layer {
  name: "drop7"
  type: "Dropout"
  bottom: "fc7"
  top: "fc7"
  dropout_param {
    dropout_ratio: 0.5
  }
}
layer {
  name: "fc8"
  type: "InnerProduct"
  bottom: "fc7"
  top: "fc8"
  inner_product_param {
    num_output: 1000
  }
}
layer {
  name: "prob"
  type: "Softmax"
  bottom: "fc8"
  top: "prob"
}
I0721 12:34:38.957212  7851 layer_factory.hpp:77] Creating layer data
I0721 12:34:38.957228  7851 net.cpp:91] Creating Layer data
I0721 12:34:38.957236  7851 net.cpp:399] data -> data
I0721 12:34:39.022034  7833 upgrade_proto.cpp:66] Attempting to upgrade input file specified using deprecated input fields: /tmp/cvld3830732183659268098/s2vt.words_to_preds.prototxt
I0721 12:34:39.022076  7833 upgrade_proto.cpp:69] Successfully upgraded file specified using deprecated input fields.
W0721 12:34:39.022085  7833 upgrade_proto.cpp:71] Note that future Caffe releases will only support input layers and not input fields.
I0721 12:34:39.022369  7833 net.cpp:49] Initializing net from parameters: 
name: "s2vt:features_to_lstm"
state {
  phase: TEST
}
layer {
  name: "input"
  type: "Input"
  top: "frames_fc7"
  top: "cont_sentence"
  top: "input_sentence"
  top: "stage_indicator"
  input_param {
    shape {
      dim: 1
      dim: 4096
    }
    shape {
      dim: 1
      dim: 1
    }
    shape {
      dim: 1
      dim: 1
    }
    shape {
      dim: 1
      dim: 1
    }
  }
}
layer {
  name: "embed_encoder"
  type: "InnerProduct"
  bottom: "frames_fc7"
  top: "embedded_in_frames"
  param {
    lr_mult: 1
    decay_mult: 1
  }
  param {
    lr_mult: 2
    decay_mult: 0
  }
  inner_product_param {
    num_output: 500
    weight_filler {
      type: "xavier"
    }
    bias_filler {
      type: "constant"
      value: 0.2
    }
  }
}
layer {
  name: "reshape_frames"
  type: "Reshape"
  bottom: "embedded_in_frames"
  top: "embedded_input_frames"
  reshape_param {
    shape {
      dim: 1
      dim: 1
      dim: 500
    }
  }
}
layer {
  name: "reshape_stage_indicator"
  type: "Reshape"
  bottom: "stage_indicator"
  top: "reshaped_stage_indicator"
  reshape_param {
    shape {
      dim: 1
      dim: 1
      dim: 1
    }
  }
}
layer {
  name: "embedding"
  type: "Embed"
  bottom: "input_sentence"
  top: "embedded_input_sentence"
  param {
    lr_mult: 1
  }
  embed_param {
    num_output: 500
    input_dim: 46168
    bias_term: false
    weight_filler {
      type: "uniform"
      min: -0.08
      max: 0.08
    }
  }
}
layer {
  name: "lstm1"
  type: "LSTM"
  bottom: "embedded_input_frames"
  bottom: "cont_sentence"
  top: "lstm1"
  recurrent_param {
    num_output: 1000
    weight_filler {
      type: "uniform"
      min: -0.08
      max: 0.08
    }
    bias_filler {
      type: "constant"
      value: 0
    }
  }
}
layer {
  name: "concat"
  type: "Concat"
  bottom: "lstm1"
  bottom: "embedded_input_sentence"
  bottom: "reshaped_stage_indicator"
  top: "lstm1_video_sequence"
  concat_param {
    concat_dim: 2
  }
}
layer {
  name: "lstm2"
  type: "LSTM"
  bottom: "lstm1_video_sequence"
  bottom: "cont_sentence"
  top: "lstm2"
  recurrent_param {
    num_output: 1000
    weight_filler {
      type: "uniform"
      min: -0.08
      max: 0.08
    }
    bias_filler {
      type: "constant"
      value: 0
    }
  }
}
layer {
  name: "predict"
  type: "InnerProduct"
  bottom: "lstm2"
  top: "predict"
  param {
    lr_mult: 1
    decay_mult: 1
  }
  param {
    lr_mult: 2
    decay_mult: 0
  }
  inner_product_param {
    num_output: 46168
    weight_filler {
      type: "uniform"
      min: -0.08
      max: 0.08
    }
    bias_filler {
      type: "constant"
      value: 0
    }
    axis: 2
  }
}
layer {
  name: "probs"
  type: "Softmax"
  bottom: "predict"
  top: "probs"
  softmax_param {
    axis: 2
  }
}
I0721 12:34:39.022492  7833 layer_factory.hpp:77] Creating layer input
I0721 12:34:39.022507  7833 net.cpp:91] Creating Layer input
I0721 12:34:39.022516  7833 net.cpp:399] input -> frames_fc7
I0721 12:34:39.022531  7833 net.cpp:399] input -> cont_sentence
I0721 12:34:39.022545  7833 net.cpp:399] input -> input_sentence
I0721 12:34:39.022557  7833 net.cpp:399] input -> stage_indicator
I0721 12:34:39.027006  7837 upgrade_proto.cpp:66] Attempting to upgrade input file specified using deprecated input fields: /tmp/cvld3830732183659268098/s2vt.words_to_preds.prototxt
I0721 12:34:39.027027  7837 upgrade_proto.cpp:69] Successfully upgraded file specified using deprecated input fields.
W0721 12:34:39.027032  7837 upgrade_proto.cpp:71] Note that future Caffe releases will only support input layers and not input fields.
I0721 12:34:39.027220  7837 net.cpp:49] Initializing net from parameters: 
name: "s2vt:features_to_lstm"
state {
  phase: TEST
}
layer {
  name: "input"
  type: "Input"
  top: "frames_fc7"
  top: "cont_sentence"
  top: "input_sentence"
  top: "stage_indicator"
  input_param {
    shape {
      dim: 1
      dim: 4096
    }
    shape {
      dim: 1
      dim: 1
    }
    shape {
      dim: 1
      dim: 1
    }
    shape {
      dim: 1
      dim: 1
    }
  }
}
layer {
  name: "embed_encoder"
  type: "InnerProduct"
  bottom: "frames_fc7"
  top: "embedded_in_frames"
  param {
    lr_mult: 1
    decay_mult: 1
  }
  param {
    lr_mult: 2
    decay_mult: 0
  }
  inner_product_param {
    num_output: 500
    weight_filler {
      type: "xavier"
    }
    bias_filler {
      type: "constant"
      value: 0.2
    }
  }
}
layer {
  name: "reshape_frames"
  type: "Reshape"
  bottom: "embedded_in_frames"
  top: "embedded_input_frames"
  reshape_param {
    shape {
      dim: 1
      dim: 1
      dim: 500
    }
  }
}
layer {
  name: "reshape_stage_indicator"
  type: "Reshape"
  bottom: "stage_indicator"
  top: "reshaped_stage_indicator"
  reshape_param {
    shape {
      dim: 1
      dim: 1
      dim: 1
    }
  }
}
layer {
  name: "embedding"
  type: "Embed"
  bottom: "input_sentence"
  top: "embedded_input_sentence"
  param {
    lr_mult: 1
  }
  embed_param {
    num_output: 500
    input_dim: 46168
    bias_term: false
    weight_filler {
      type: "uniform"
      min: -0.08
      max: 0.08
    }
  }
}
layer {
  name: "lstm1"
  type: "LSTM"
  bottom: "embedded_input_frames"
  bottom: "cont_sentence"
  top: "lstm1"
  recurrent_param {
    num_output: 1000
    weight_filler {
      type: "uniform"
      min: -0.08
      max: 0.08
    }
    bias_filler {
      type: "constant"
      value: 0
    }
  }
}
layer {
  name: "concat"
  type: "Concat"
  bottom: "lstm1"
  bottom: "embedded_input_sentence"
  bottom: "reshaped_stage_indicator"
  top: "lstm1_video_sequence"
  concat_param {
    concat_dim: 2
  }
}
layer {
  name: "lstm2"
  type: "LSTM"
  bottom: "lstm1_video_sequence"
  bottom: "cont_sentence"
  top: "lstm2"
  recurrent_param {
    num_output: 1000
    weight_filler {
      type: "uniform"
      min: -0.08
      max: 0.08
    }
    bias_filler {
      type: "constant"
      value: 0
    }
  }
}
layer {
  name: "predict"
  type: "InnerProduct"
  bottom: "lstm2"
  top: "predict"
  param {
    lr_mult: 1
    decay_mult: 1
  }
  param {
    lr_mult: 2
    decay_mult: 0
  }
  inner_product_param {
    num_output: 46168
    weight_filler {
      type: "uniform"
      min: -0.08
      max: 0.08
    }
    bias_filler {
      type: "constant"
      value: 0
    }
    axis: 2
  }
}
layer {
  name: "probs"
  type: "Softmax"
  bottom: "predict"
  top: "probs"
  softmax_param {
    axis: 2
  }
}
I0721 12:34:39.027297  7837 layer_factory.hpp:77] Creating layer input
I0721 12:34:39.027309  7837 net.cpp:91] Creating Layer input
I0721 12:34:39.027317  7837 net.cpp:399] input -> frames_fc7
I0721 12:34:39.027329  7837 net.cpp:399] input -> cont_sentence
I0721 12:34:39.027339  7837 net.cpp:399] input -> input_sentence
I0721 12:34:39.027349  7837 net.cpp:399] input -> stage_indicator
I0721 12:34:39.849604  7845 net.cpp:141] Setting up data
I0721 12:34:39.849737  7845 net.cpp:148] Top shape: 10 3 227 227 (1545870)
I0721 12:34:39.849746  7845 net.cpp:156] Memory required for data: 6183480
I0721 12:34:39.849752  7837 net.cpp:141] Setting up input
I0721 12:34:39.849776  7845 layer_factory.hpp:77] Creating layer conv1
I0721 12:34:39.849792  7837 net.cpp:148] Top shape: 1 4096 (4096)
I0721 12:34:39.849800  7837 net.cpp:148] Top shape: 1 1 (1)
I0721 12:34:39.849807  7837 net.cpp:148] Top shape: 1 1 (1)
I0721 12:34:39.849812  7837 net.cpp:148] Top shape: 1 1 (1)
I0721 12:34:39.849817  7837 net.cpp:156] Memory required for data: 16396
I0721 12:34:39.849822  7845 net.cpp:91] Creating Layer conv1
I0721 12:34:39.849828  7837 layer_factory.hpp:77] Creating layer cont_sentence_input_1_split
I0721 12:34:39.849834  7845 net.cpp:425] conv1 <- data
I0721 12:34:39.849851  7845 net.cpp:399] conv1 -> conv1
I0721 12:34:39.849853  7837 net.cpp:91] Creating Layer cont_sentence_input_1_split
I0721 12:34:39.849860  7837 net.cpp:425] cont_sentence_input_1_split <- cont_sentence
I0721 12:34:39.849895  7837 net.cpp:399] cont_sentence_input_1_split -> cont_sentence_input_1_split_0
I0721 12:34:39.849908  7837 net.cpp:399] cont_sentence_input_1_split -> cont_sentence_input_1_split_1
I0721 12:34:39.859210  7837 net.cpp:141] Setting up cont_sentence_input_1_split
I0721 12:34:39.859236  7837 net.cpp:148] Top shape: 1 1 (1)
I0721 12:34:39.859243  7837 net.cpp:148] Top shape: 1 1 (1)
I0721 12:34:39.859247  7837 net.cpp:156] Memory required for data: 16404
I0721 12:34:39.859254  7837 layer_factory.hpp:77] Creating layer embed_encoder
I0721 12:34:39.859272  7837 net.cpp:91] Creating Layer embed_encoder
I0721 12:34:39.859278  7837 net.cpp:425] embed_encoder <- frames_fc7
I0721 12:34:39.859287  7837 net.cpp:399] embed_encoder -> embedded_in_frames
I0721 12:34:39.879269  7851 net.cpp:141] Setting up data
I0721 12:34:39.879312  7851 net.cpp:148] Top shape: 10 3 227 227 (1545870)
I0721 12:34:39.879319  7851 net.cpp:156] Memory required for data: 6183480
I0721 12:34:39.879328  7851 layer_factory.hpp:77] Creating layer conv1
I0721 12:34:39.879349  7851 net.cpp:91] Creating Layer conv1
I0721 12:34:39.879356  7851 net.cpp:425] conv1 <- data
I0721 12:34:39.879366  7851 net.cpp:399] conv1 -> conv1
I0721 12:34:39.879386  7833 net.cpp:141] Setting up input
I0721 12:34:39.879405  7833 net.cpp:148] Top shape: 1 4096 (4096)
I0721 12:34:39.879412  7833 net.cpp:148] Top shape: 1 1 (1)
I0721 12:34:39.879418  7833 net.cpp:148] Top shape: 1 1 (1)
I0721 12:34:39.879425  7833 net.cpp:148] Top shape: 1 1 (1)
I0721 12:34:39.879428  7833 net.cpp:156] Memory required for data: 16396
I0721 12:34:39.879436  7833 layer_factory.hpp:77] Creating layer cont_sentence_input_1_split
I0721 12:34:39.879447  7833 net.cpp:91] Creating Layer cont_sentence_input_1_split
I0721 12:34:39.879453  7833 net.cpp:425] cont_sentence_input_1_split <- cont_sentence
I0721 12:34:39.879462  7833 net.cpp:399] cont_sentence_input_1_split -> cont_sentence_input_1_split_0
I0721 12:34:39.879473  7833 net.cpp:399] cont_sentence_input_1_split -> cont_sentence_input_1_split_1
I0721 12:34:39.879580  7833 net.cpp:141] Setting up cont_sentence_input_1_split
I0721 12:34:39.879592  7833 net.cpp:148] Top shape: 1 1 (1)
I0721 12:34:39.879598  7833 net.cpp:148] Top shape: 1 1 (1)
I0721 12:34:39.879603  7833 net.cpp:156] Memory required for data: 16404
I0721 12:34:39.879609  7833 layer_factory.hpp:77] Creating layer embed_encoder
I0721 12:34:39.879624  7833 net.cpp:91] Creating Layer embed_encoder
I0721 12:34:39.879629  7833 net.cpp:425] embed_encoder <- frames_fc7
I0721 12:34:39.879639  7833 net.cpp:399] embed_encoder -> embedded_in_frames
I0721 12:34:39.898761  7837 net.cpp:141] Setting up embed_encoder
I0721 12:34:39.898802  7837 net.cpp:148] Top shape: 1 500 (500)
I0721 12:34:39.898808  7837 net.cpp:156] Memory required for data: 18404
I0721 12:34:39.898833  7837 layer_factory.hpp:77] Creating layer reshape_frames
I0721 12:34:39.898867  7837 net.cpp:91] Creating Layer reshape_frames
I0721 12:34:39.898875  7837 net.cpp:425] reshape_frames <- embedded_in_frames
I0721 12:34:39.898886  7837 net.cpp:399] reshape_frames -> embedded_input_frames
I0721 12:34:39.915859  7837 net.cpp:141] Setting up reshape_frames
I0721 12:34:39.915901  7837 net.cpp:148] Top shape: 1 1 500 (500)
I0721 12:34:39.915906  7837 net.cpp:156] Memory required for data: 20404
I0721 12:34:39.915915  7837 layer_factory.hpp:77] Creating layer reshape_stage_indicator
I0721 12:34:39.915935  7837 net.cpp:91] Creating Layer reshape_stage_indicator
I0721 12:34:39.915941  7837 net.cpp:425] reshape_stage_indicator <- stage_indicator
I0721 12:34:39.915956  7837 net.cpp:399] reshape_stage_indicator -> reshaped_stage_indicator
I0721 12:34:39.923960  7837 net.cpp:141] Setting up reshape_stage_indicator
I0721 12:34:39.923990  7837 net.cpp:148] Top shape: 1 1 1 (1)
I0721 12:34:39.923995  7837 net.cpp:156] Memory required for data: 20408
I0721 12:34:39.924002  7837 layer_factory.hpp:77] Creating layer embedding
I0721 12:34:39.924021  7837 net.cpp:91] Creating Layer embedding
I0721 12:34:39.924028  7837 net.cpp:425] embedding <- input_sentence
I0721 12:34:39.924038  7837 net.cpp:399] embedding -> embedded_input_sentence
I0721 12:34:39.987210  7833 net.cpp:141] Setting up embed_encoder
I0721 12:34:39.987259  7833 net.cpp:148] Top shape: 1 500 (500)
I0721 12:34:39.987268  7833 net.cpp:156] Memory required for data: 18404
I0721 12:34:39.987299  7833 layer_factory.hpp:77] Creating layer reshape_frames
I0721 12:34:39.987326  7833 net.cpp:91] Creating Layer reshape_frames
I0721 12:34:39.987337  7833 net.cpp:425] reshape_frames <- embedded_in_frames
I0721 12:34:39.987357  7833 net.cpp:399] reshape_frames -> embedded_input_frames
I0721 12:34:39.994381  7833 net.cpp:141] Setting up reshape_frames
I0721 12:34:39.994436  7833 net.cpp:148] Top shape: 1 1 500 (500)
I0721 12:34:39.994444  7833 net.cpp:156] Memory required for data: 20404
I0721 12:34:39.994457  7833 layer_factory.hpp:77] Creating layer reshape_stage_indicator
I0721 12:34:39.994485  7833 net.cpp:91] Creating Layer reshape_stage_indicator
I0721 12:34:39.994496  7833 net.cpp:425] reshape_stage_indicator <- stage_indicator
I0721 12:34:39.994518  7833 net.cpp:399] reshape_stage_indicator -> reshaped_stage_indicator
I0721 12:34:39.998558  7833 net.cpp:141] Setting up reshape_stage_indicator
I0721 12:34:39.998601  7833 net.cpp:148] Top shape: 1 1 1 (1)
I0721 12:34:39.998611  7833 net.cpp:156] Memory required for data: 20408
I0721 12:34:39.998622  7833 layer_factory.hpp:77] Creating layer embedding
I0721 12:34:39.998656  7833 net.cpp:91] Creating Layer embedding
I0721 12:34:39.998669  7833 net.cpp:425] embedding <- input_sentence
I0721 12:34:39.998709  7833 net.cpp:399] embedding -> embedded_input_sentence
I0721 12:34:40.163485  7837 net.cpp:141] Setting up embedding
I0721 12:34:40.163528  7837 net.cpp:148] Top shape: 1 1 500 (500)
I0721 12:34:40.163533  7837 net.cpp:156] Memory required for data: 22408
I0721 12:34:40.163550  7837 layer_factory.hpp:77] Creating layer lstm1
I0721 12:34:40.163568  7837 net.cpp:91] Creating Layer lstm1
I0721 12:34:40.163574  7837 net.cpp:425] lstm1 <- embedded_input_frames
I0721 12:34:40.163583  7837 net.cpp:425] lstm1 <- cont_sentence_input_1_split_0
I0721 12:34:40.163594  7837 net.cpp:399] lstm1 -> lstm1
I0721 12:34:40.163631  7837 recurrent_layer.cpp:20] Initializing recurrent layer: assuming input batch contains 1 timesteps of 1 independent streams.
I0721 12:34:40.163990  7837 net.cpp:49] Initializing net from parameters: 
layer {
  name: "lstm1_"
  type: "Input"
  top: "x"
  top: "cont"
  input_param {
    shape {
      dim: 1
      dim: 1
      dim: 500
    }
    shape {
      dim: 1
      dim: 1
    }
  }
}
layer {
  name: "lstm1_"
  type: "Input"
  top: "c_0"
  top: "h_0"
  input_param {
    shape {
      dim: 1
      dim: 1
      dim: 1000
    }
    shape {
      dim: 1
      dim: 1
      dim: 1000
    }
  }
}
layer {
  name: "lstm1_cont_slice"
  type: "Slice"
  bottom: "cont"
  top: "cont_1"
  slice_param {
    axis: 0
  }
}
layer {
  name: "lstm1_x_transform"
  type: "InnerProduct"
  bottom: "x"
  top: "W_xc_x"
  param {
    name: "W_xc"
  }
  param {
    name: "b_c"
  }
  propagate_down: true
  inner_product_param {
    num_output: 4000
    bias_term: true
    weight_filler {
      type: "uniform"
      min: -0.08
      max: 0.08
    }
    bias_filler {
      type: "constant"
      value: 0
    }
    axis: 2
  }
}
layer {
  name: "lstm1_W_xc_x_slice"
  type: "Slice"
  bottom: "W_xc_x"
  top: "W_xc_x_1"
  slice_param {
    axis: 0
  }
}
layer {
  name: "lstm1_h_conted_0"
  type: "Scale"
  bottom: "h_0"
  bottom: "cont_1"
  top: "h_conted_0"
  scale_param {
    axis: 0
  }
}
layer {
  name: "lstm1_transform_1"
  type: "InnerProduct"
  bottom: "h_conted_0"
  top: "W_hc_h_0"
  param {
    name: "W_hc"
  }
  inner_product_param {
    num_output: 4000
    bias_term: false
    weight_filler {
      type: "uniform"
      min: -0.08
      max: 0.08
    }
    axis: 2
  }
}
layer {
  name: "lstm1_gate_input_1"
  type: "Eltwise"
  bottom: "W_hc_h_0"
  bottom: "W_xc_x_1"
  top: "gate_input_1"
  eltwise_param {
    operation: SUM
  }
}
layer {
  name: "lstm1_unit_1"
  type: "LSTMUnit"
  bottom: "c_0"
  bottom: "gate_input_1"
  bottom: "cont_1"
  top: "c_1"
  top: "h_1"
}
layer {
  name: "lstm1_"
  type: "Split"
  bottom: "c_1"
  top: "c_T"
}
layer {
  name: "lstm1_h_concat"
  type: "Concat"
  bottom: "h_1"
  top: "h"
  concat_param {
    axis: 0
  }
}
layer {
  name: "h_pseudoloss"
  type: "Reduction"
  bottom: "h"
  top: "h_pseudoloss"
  loss_weight: 1
}
I0721 12:34:40.164078  7837 layer_factory.hpp:77] Creating layer lstm1_
I0721 12:34:40.164091  7837 net.cpp:91] Creating Layer lstm1_
I0721 12:34:40.164098  7837 net.cpp:399] lstm1_ -> x
I0721 12:34:40.164109  7837 net.cpp:399] lstm1_ -> cont
I0721 12:34:40.170994  7837 net.cpp:141] Setting up lstm1_
I0721 12:34:40.171021  7837 net.cpp:148] Top shape: 1 1 500 (500)
I0721 12:34:40.171028  7837 net.cpp:148] Top shape: 1 1 (1)
I0721 12:34:40.171033  7837 net.cpp:156] Memory required for data: 2004
I0721 12:34:40.171039  7837 layer_factory.hpp:77] Creating layer lstm1_
I0721 12:34:40.171056  7837 net.cpp:91] Creating Layer lstm1_
I0721 12:34:40.171063  7837 net.cpp:399] lstm1_ -> c_0
I0721 12:34:40.171077  7837 net.cpp:399] lstm1_ -> h_0
I0721 12:34:40.178933  7837 net.cpp:141] Setting up lstm1_
I0721 12:34:40.178961  7837 net.cpp:148] Top shape: 1 1 1000 (1000)
I0721 12:34:40.178968  7837 net.cpp:148] Top shape: 1 1 1000 (1000)
I0721 12:34:40.178972  7837 net.cpp:156] Memory required for data: 10004
I0721 12:34:40.178978  7837 layer_factory.hpp:77] Creating layer lstm1_cont_slice
I0721 12:34:40.178994  7837 net.cpp:91] Creating Layer lstm1_cont_slice
I0721 12:34:40.179000  7837 net.cpp:425] lstm1_cont_slice <- cont
I0721 12:34:40.179009  7837 net.cpp:399] lstm1_cont_slice -> cont_1
I0721 12:34:40.180799  7837 net.cpp:141] Setting up lstm1_cont_slice
I0721 12:34:40.180819  7837 net.cpp:148] Top shape: 1 1 (1)
I0721 12:34:40.180824  7837 net.cpp:156] Memory required for data: 10008
I0721 12:34:40.180830  7837 layer_factory.hpp:77] Creating layer cont_1_lstm1_cont_slice_0_split
I0721 12:34:40.180843  7837 net.cpp:91] Creating Layer cont_1_lstm1_cont_slice_0_split
I0721 12:34:40.180850  7837 net.cpp:425] cont_1_lstm1_cont_slice_0_split <- cont_1
I0721 12:34:40.180856  7837 net.cpp:399] cont_1_lstm1_cont_slice_0_split -> cont_1_lstm1_cont_slice_0_split_0
I0721 12:34:40.180866  7837 net.cpp:399] cont_1_lstm1_cont_slice_0_split -> cont_1_lstm1_cont_slice_0_split_1
I0721 12:34:40.187240  7837 net.cpp:141] Setting up cont_1_lstm1_cont_slice_0_split
I0721 12:34:40.187270  7837 net.cpp:148] Top shape: 1 1 (1)
I0721 12:34:40.187278  7837 net.cpp:148] Top shape: 1 1 (1)
I0721 12:34:40.187283  7837 net.cpp:156] Memory required for data: 10016
I0721 12:34:40.187289  7837 layer_factory.hpp:77] Creating layer lstm1_x_transform
I0721 12:34:40.187309  7837 net.cpp:91] Creating Layer lstm1_x_transform
I0721 12:34:40.187315  7837 net.cpp:425] lstm1_x_transform <- x
I0721 12:34:40.187326  7837 net.cpp:399] lstm1_x_transform -> W_xc_x
I0721 12:34:40.232676  7833 net.cpp:141] Setting up embedding
I0721 12:34:40.232719  7833 net.cpp:148] Top shape: 1 1 500 (500)
I0721 12:34:40.232724  7833 net.cpp:156] Memory required for data: 22408
I0721 12:34:40.232743  7833 layer_factory.hpp:77] Creating layer lstm1
I0721 12:34:40.232761  7833 net.cpp:91] Creating Layer lstm1
I0721 12:34:40.232769  7833 net.cpp:425] lstm1 <- embedded_input_frames
I0721 12:34:40.232776  7833 net.cpp:425] lstm1 <- cont_sentence_input_1_split_0
I0721 12:34:40.232785  7833 net.cpp:399] lstm1 -> lstm1
I0721 12:34:40.232800  7833 recurrent_layer.cpp:20] Initializing recurrent layer: assuming input batch contains 1 timesteps of 1 independent streams.
I0721 12:34:40.233067  7833 net.cpp:49] Initializing net from parameters: 
layer {
  name: "lstm1_"
  type: "Input"
  top: "x"
  top: "cont"
  input_param {
    shape {
      dim: 1
      dim: 1
      dim: 500
    }
    shape {
      dim: 1
      dim: 1
    }
  }
}
layer {
  name: "lstm1_"
  type: "Input"
  top: "c_0"
  top: "h_0"
  input_param {
    shape {
      dim: 1
      dim: 1
      dim: 1000
    }
    shape {
      dim: 1
      dim: 1
      dim: 1000
    }
  }
}
layer {
  name: "lstm1_cont_slice"
  type: "Slice"
  bottom: "cont"
  top: "cont_1"
  slice_param {
    axis: 0
  }
}
layer {
  name: "lstm1_x_transform"
  type: "InnerProduct"
  bottom: "x"
  top: "W_xc_x"
  param {
    name: "W_xc"
  }
  param {
    name: "b_c"
  }
  propagate_down: true
  inner_product_param {
    num_output: 4000
    bias_term: true
    weight_filler {
      type: "uniform"
      min: -0.08
      max: 0.08
    }
    bias_filler {
      type: "constant"
      value: 0
    }
    axis: 2
  }
}
layer {
  name: "lstm1_W_xc_x_slice"
  type: "Slice"
  bottom: "W_xc_x"
  top: "W_xc_x_1"
  slice_param {
    axis: 0
  }
}
layer {
  name: "lstm1_h_conted_0"
  type: "Scale"
  bottom: "h_0"
  bottom: "cont_1"
  top: "h_conted_0"
  scale_param {
    axis: 0
  }
}
layer {
  name: "lstm1_transform_1"
  type: "InnerProduct"
  bottom: "h_conted_0"
  top: "W_hc_h_0"
  param {
    name: "W_hc"
  }
  inner_product_param {
    num_output: 4000
    bias_term: false
    weight_filler {
      type: "uniform"
      min: -0.08
      max: 0.08
    }
    axis: 2
  }
}
layer {
  name: "lstm1_gate_input_1"
  type: "Eltwise"
  bottom: "W_hc_h_0"
  bottom: "W_xc_x_1"
  top: "gate_input_1"
  eltwise_param {
    operation: SUM
  }
}
layer {
  name: "lstm1_unit_1"
  type: "LSTMUnit"
  bottom: "c_0"
  bottom: "gate_input_1"
  bottom: "cont_1"
  top: "c_1"
  top: "h_1"
}
layer {
  name: "lstm1_"
  type: "Split"
  bottom: "c_1"
  top: "c_T"
}
layer {
  name: "lstm1_h_concat"
  type: "Concat"
  bottom: "h_1"
  top: "h"
  concat_param {
    axis: 0
  }
}
layer {
  name: "h_pseudoloss"
  type: "Reduction"
  bottom: "h"
  top: "h_pseudoloss"
  loss_weight: 1
}
I0721 12:34:40.233157  7833 layer_factory.hpp:77] Creating layer lstm1_
I0721 12:34:40.233170  7833 net.cpp:91] Creating Layer lstm1_
I0721 12:34:40.233176  7833 net.cpp:399] lstm1_ -> x
I0721 12:34:40.233188  7833 net.cpp:399] lstm1_ -> cont
I0721 12:34:40.256448  7833 net.cpp:141] Setting up lstm1_
I0721 12:34:40.256489  7833 net.cpp:148] Top shape: 1 1 500 (500)
I0721 12:34:40.256496  7833 net.cpp:148] Top shape: 1 1 (1)
I0721 12:34:40.256500  7833 net.cpp:156] Memory required for data: 2004
I0721 12:34:40.256508  7833 layer_factory.hpp:77] Creating layer lstm1_
I0721 12:34:40.256533  7833 net.cpp:91] Creating Layer lstm1_
I0721 12:34:40.256543  7833 net.cpp:399] lstm1_ -> c_0
I0721 12:34:40.256559  7833 net.cpp:399] lstm1_ -> h_0
I0721 12:34:40.265239  7833 net.cpp:141] Setting up lstm1_
I0721 12:34:40.265262  7833 net.cpp:148] Top shape: 1 1 1000 (1000)
I0721 12:34:40.265269  7833 net.cpp:148] Top shape: 1 1 1000 (1000)
I0721 12:34:40.265274  7833 net.cpp:156] Memory required for data: 10004
I0721 12:34:40.265278  7833 layer_factory.hpp:77] Creating layer lstm1_cont_slice
I0721 12:34:40.265293  7833 net.cpp:91] Creating Layer lstm1_cont_slice
I0721 12:34:40.265298  7833 net.cpp:425] lstm1_cont_slice <- cont
I0721 12:34:40.265306  7833 net.cpp:399] lstm1_cont_slice -> cont_1
I0721 12:34:40.270846  7837 net.cpp:141] Setting up lstm1_x_transform
I0721 12:34:40.270866  7837 net.cpp:148] Top shape: 1 1 4000 (4000)
I0721 12:34:40.270872  7837 net.cpp:156] Memory required for data: 26016
I0721 12:34:40.270891  7837 layer_factory.hpp:77] Creating layer lstm1_W_xc_x_slice
I0721 12:34:40.270901  7837 net.cpp:91] Creating Layer lstm1_W_xc_x_slice
I0721 12:34:40.270907  7837 net.cpp:425] lstm1_W_xc_x_slice <- W_xc_x
I0721 12:34:40.270915  7837 net.cpp:399] lstm1_W_xc_x_slice -> W_xc_x_1
I0721 12:34:40.271394  7833 net.cpp:141] Setting up lstm1_cont_slice
I0721 12:34:40.271416  7833 net.cpp:148] Top shape: 1 1 (1)
I0721 12:34:40.271426  7833 net.cpp:156] Memory required for data: 10008
I0721 12:34:40.271435  7833 layer_factory.hpp:77] Creating layer cont_1_lstm1_cont_slice_0_split
I0721 12:34:40.271445  7833 net.cpp:91] Creating Layer cont_1_lstm1_cont_slice_0_split
I0721 12:34:40.271450  7833 net.cpp:425] cont_1_lstm1_cont_slice_0_split <- cont_1
I0721 12:34:40.271457  7833 net.cpp:399] cont_1_lstm1_cont_slice_0_split -> cont_1_lstm1_cont_slice_0_split_0
I0721 12:34:40.271467  7833 net.cpp:399] cont_1_lstm1_cont_slice_0_split -> cont_1_lstm1_cont_slice_0_split_1
I0721 12:34:40.273334  7837 net.cpp:141] Setting up lstm1_W_xc_x_slice
I0721 12:34:40.273352  7837 net.cpp:148] Top shape: 1 1 4000 (4000)
I0721 12:34:40.273358  7837 net.cpp:156] Memory required for data: 42016
I0721 12:34:40.273363  7837 layer_factory.hpp:77] Creating layer lstm1_h_conted_0
I0721 12:34:40.273376  7837 net.cpp:91] Creating Layer lstm1_h_conted_0
I0721 12:34:40.273382  7837 net.cpp:425] lstm1_h_conted_0 <- h_0
I0721 12:34:40.273388  7837 net.cpp:425] lstm1_h_conted_0 <- cont_1_lstm1_cont_slice_0_split_0
I0721 12:34:40.273396  7837 net.cpp:399] lstm1_h_conted_0 -> h_conted_0
I0721 12:34:40.276437  7833 net.cpp:141] Setting up cont_1_lstm1_cont_slice_0_split
I0721 12:34:40.276464  7833 net.cpp:148] Top shape: 1 1 (1)
I0721 12:34:40.276476  7833 net.cpp:148] Top shape: 1 1 (1)
I0721 12:34:40.276484  7833 net.cpp:156] Memory required for data: 10016
I0721 12:34:40.276494  7833 layer_factory.hpp:77] Creating layer lstm1_x_transform
I0721 12:34:40.276525  7833 net.cpp:91] Creating Layer lstm1_x_transform
I0721 12:34:40.276535  7833 net.cpp:425] lstm1_x_transform <- x
I0721 12:34:40.276551  7833 net.cpp:399] lstm1_x_transform -> W_xc_x
I0721 12:34:40.282917  7837 net.cpp:141] Setting up lstm1_h_conted_0
I0721 12:34:40.282955  7837 net.cpp:148] Top shape: 1 1 1000 (1000)
I0721 12:34:40.282961  7837 net.cpp:156] Memory required for data: 46016
I0721 12:34:40.282968  7837 layer_factory.hpp:77] Creating layer lstm1_transform_1
I0721 12:34:40.282984  7837 net.cpp:91] Creating Layer lstm1_transform_1
I0721 12:34:40.282991  7837 net.cpp:425] lstm1_transform_1 <- h_conted_0
I0721 12:34:40.283006  7837 net.cpp:399] lstm1_transform_1 -> W_hc_h_0
I0721 12:34:40.320976  7833 net.cpp:141] Setting up lstm1_x_transform
I0721 12:34:40.321022  7833 net.cpp:148] Top shape: 1 1 4000 (4000)
I0721 12:34:40.321032  7833 net.cpp:156] Memory required for data: 26016
I0721 12:34:40.321058  7833 layer_factory.hpp:77] Creating layer lstm1_W_xc_x_slice
I0721 12:34:40.321079  7833 net.cpp:91] Creating Layer lstm1_W_xc_x_slice
I0721 12:34:40.321089  7833 net.cpp:425] lstm1_W_xc_x_slice <- W_xc_x
I0721 12:34:40.321104  7833 net.cpp:399] lstm1_W_xc_x_slice -> W_xc_x_1
I0721 12:34:40.330871  7833 net.cpp:141] Setting up lstm1_W_xc_x_slice
I0721 12:34:40.330909  7833 net.cpp:148] Top shape: 1 1 4000 (4000)
I0721 12:34:40.330919  7833 net.cpp:156] Memory required for data: 42016
I0721 12:34:40.330929  7833 layer_factory.hpp:77] Creating layer lstm1_h_conted_0
I0721 12:34:40.330948  7833 net.cpp:91] Creating Layer lstm1_h_conted_0
I0721 12:34:40.330957  7833 net.cpp:425] lstm1_h_conted_0 <- h_0
I0721 12:34:40.330970  7833 net.cpp:425] lstm1_h_conted_0 <- cont_1_lstm1_cont_slice_0_split_0
I0721 12:34:40.330981  7833 net.cpp:399] lstm1_h_conted_0 -> h_conted_0
I0721 12:34:40.347870  7837 net.cpp:141] Setting up lstm1_transform_1
I0721 12:34:40.347906  7837 net.cpp:148] Top shape: 1 1 4000 (4000)
I0721 12:34:40.347913  7837 net.cpp:156] Memory required for data: 62016
I0721 12:34:40.347929  7837 layer_factory.hpp:77] Creating layer lstm1_gate_input_1
I0721 12:34:40.347946  7837 net.cpp:91] Creating Layer lstm1_gate_input_1
I0721 12:34:40.347952  7837 net.cpp:425] lstm1_gate_input_1 <- W_hc_h_0
I0721 12:34:40.347960  7837 net.cpp:425] lstm1_gate_input_1 <- W_xc_x_1
I0721 12:34:40.347968  7837 net.cpp:399] lstm1_gate_input_1 -> gate_input_1
I0721 12:34:40.348477  7833 net.cpp:141] Setting up lstm1_h_conted_0
I0721 12:34:40.348501  7833 net.cpp:148] Top shape: 1 1 1000 (1000)
I0721 12:34:40.348512  7833 net.cpp:156] Memory required for data: 46016
I0721 12:34:40.348522  7833 layer_factory.hpp:77] Creating layer lstm1_transform_1
I0721 12:34:40.348546  7833 net.cpp:91] Creating Layer lstm1_transform_1
I0721 12:34:40.348558  7833 net.cpp:425] lstm1_transform_1 <- h_conted_0
I0721 12:34:40.348574  7833 net.cpp:399] lstm1_transform_1 -> W_hc_h_0
I0721 12:34:40.349071  7837 net.cpp:141] Setting up lstm1_gate_input_1
I0721 12:34:40.349095  7837 net.cpp:148] Top shape: 1 1 4000 (4000)
I0721 12:34:40.349105  7837 net.cpp:156] Memory required for data: 78016
I0721 12:34:40.349114  7837 layer_factory.hpp:77] Creating layer lstm1_unit_1
I0721 12:34:40.349133  7837 net.cpp:91] Creating Layer lstm1_unit_1
I0721 12:34:40.349141  7837 net.cpp:425] lstm1_unit_1 <- c_0
I0721 12:34:40.349153  7837 net.cpp:425] lstm1_unit_1 <- gate_input_1
I0721 12:34:40.349164  7837 net.cpp:425] lstm1_unit_1 <- cont_1_lstm1_cont_slice_0_split_1
I0721 12:34:40.349177  7837 net.cpp:399] lstm1_unit_1 -> c_1
I0721 12:34:40.349195  7837 net.cpp:399] lstm1_unit_1 -> h_1
I0721 12:34:40.377418  7837 net.cpp:141] Setting up lstm1_unit_1
I0721 12:34:40.377475  7837 net.cpp:148] Top shape: 1 1 1000 (1000)
I0721 12:34:40.377490  7837 net.cpp:148] Top shape: 1 1 1000 (1000)
I0721 12:34:40.377496  7837 net.cpp:156] Memory required for data: 86016
I0721 12:34:40.377508  7837 layer_factory.hpp:77] Creating layer lstm1_
I0721 12:34:40.377528  7837 net.cpp:91] Creating Layer lstm1_
I0721 12:34:40.377538  7837 net.cpp:425] lstm1_ <- c_1
I0721 12:34:40.377554  7837 net.cpp:399] lstm1_ -> c_T
I0721 12:34:40.379040  7837 net.cpp:141] Setting up lstm1_
I0721 12:34:40.379066  7837 net.cpp:148] Top shape: 1 1 1000 (1000)
I0721 12:34:40.379076  7837 net.cpp:156] Memory required for data: 90016
I0721 12:34:40.379084  7837 layer_factory.hpp:77] Creating layer lstm1_h_concat
I0721 12:34:40.379112  7837 net.cpp:91] Creating Layer lstm1_h_concat
I0721 12:34:40.379122  7837 net.cpp:425] lstm1_h_concat <- h_1
I0721 12:34:40.379138  7837 net.cpp:399] lstm1_h_concat -> h
I0721 12:34:40.379278  7837 net.cpp:141] Setting up lstm1_h_concat
I0721 12:34:40.379294  7837 net.cpp:148] Top shape: 1 1 1000 (1000)
I0721 12:34:40.379302  7837 net.cpp:156] Memory required for data: 94016
I0721 12:34:40.379312  7837 layer_factory.hpp:77] Creating layer h_pseudoloss
I0721 12:34:40.379331  7837 net.cpp:91] Creating Layer h_pseudoloss
I0721 12:34:40.379341  7837 net.cpp:425] h_pseudoloss <- h
I0721 12:34:40.379354  7837 net.cpp:399] h_pseudoloss -> h_pseudoloss
I0721 12:34:40.380291  7837 net.cpp:141] Setting up h_pseudoloss
…
I0721 12:34:40.380465  7837 net.cpp:219] lstm1_ does not need backward computation.
I0721 12:34:40.380472  7837 net.cpp:261] This network produces output c_T
I0721 12:34:40.380481  7837 net.cpp:261] This network produces output h_pseudoloss
I0721 12:34:40.380511  7837 net.cpp:274] Network initialization done.
I0721 12:34:40.380589  7837 recurrent_layer.cpp:150] Adding parameter 0: W_xc
I0721 12:34:40.380599  7837 recurrent_layer.cpp:150] Adding parameter 1: b_c
I0721 12:34:40.380606  7837 recurrent_layer.cpp:150] Adding parameter 2: W_hc
I0721 12:34:40.380934  7837 net.cpp:141] Setting up lstm1
I0721 12:34:40.380951  7837 net.cpp:148] Top shape: 1 1 1000 (1000)
I0721 12:34:40.380957  7837 net.cpp:156] Memory required for data: 26408
I0721 12:34:40.380976  7837 layer_factory.hpp:77] Creating layer concat
I0721 12:34:40.380988  7837 net.cpp:91] Creating Layer concat
I0721 12:34:40.380998  7837 net.cpp:425] concat <- lstm1
I0721 12:34:40.381008  7837 net.cpp:425] concat <- embedded_input_sentence
I0721 12:34:40.381019  7837 net.cpp:425] concat <- reshaped_stage_indicator
I0721 12:34:40.381034  7837 net.cpp:399] concat -> lstm1_video_sequence
I0721 12:34:40.381142  7837 net.cpp:141] Setting up concat
I0721 12:34:40.381155  7837 net.cpp:148] Top shape: 1 1 1501 (1501)
I0721 12:34:40.381160  7837 net.cpp:156] Memory required for data: 32412
I0721 12:34:40.381165  7837 layer_factory.hpp:77] Creating layer lstm2
I0721 12:34:40.381178  7837 net.cpp:91] Creating Layer lstm2
I0721 12:34:40.381184  7837 net.cpp:425] lstm2 <- lstm1_video_sequence
I0721 12:34:40.381191  7837 net.cpp:425] lstm2 <- cont_sentence_input_1_split_1
I0721 12:34:40.381197  7837 net.cpp:399] lstm2 -> lstm2
I0721 12:34:40.381208  7837 recurrent_layer.cpp:20] Initializing recurrent layer: assuming input batch contains 1 timesteps of 1 independent streams.
I0721 12:34:40.381448  7837 net.cpp:49] Initializing net from parameters: 
layer {
  name: "lstm2_"
  type: "Input"
  top: "x"
  top: "cont"
  input_param {
    shape {
      dim: 1
      dim: 1
      dim: 1501
    }
    shape {
      dim: 1
      dim: 1
    }
  }
}
layer {
  name: "lstm2_"
  type: "Input"
  top: "c_0"
  top: "h_0"
  input_param {
    shape {
      dim: 1
      dim: 1
      dim: 1000
    }
    shape {
      dim: 1
      dim: 1
      dim: 1000
    }
  }
}
layer {
  name: "lstm2_cont_slice"
  type: "Slice"
  bottom: "cont"
  top: "cont_1"
  slice_param {
    axis: 0
  }
}
layer {
  name: "lstm2_x_transform"
  type: "InnerProduct"
  bottom: "x"
  top: "W_xc_x"
  param {
    name: "W_xc"
  }
  param {
    name: "b_c"
  }
  propagate_down: true
  inner_product_param {
    num_output: 4000
    bias_term: true
    weight_filler {
      type: "uniform"
      min: -0.08
      max: 0.08
    }
    bias_filler {
      type: "constant"
      value: 0
    }
    axis: 2
  }
}
layer {
  name: "lstm2_W_xc_x_slice"
  type: "Slice"
  bottom: "W_xc_x"
  top: "W_xc_x_1"
  slice_param {
    axis: 0
  }
}
layer {
  name: "lstm2_h_conted_0"
  type: "Scale"
  bottom: "h_0"
  bottom: "cont_1"
  top: "h_conted_0"
  scale_param {
    axis: 0
  }
}
layer {
  name: "lstm2_transform_1"
  type: "InnerProduct"
  bottom: "h_conted_0"
  top: "W_hc_h_0"
  param {
    name: "W_hc"
  }
  inner_product_param {
    num_output: 4000
    bias_term: false
    weight_filler {
      type: "uniform"
      min: -0.08
      max: 0.08
    }
    axis: 2
  }
}
layer {
  name: "lstm2_gate_input_1"
  type: "Eltwise"
  bottom: "W_hc_h_0"
  bottom: "W_xc_x_1"
  top: "gate_input_1"
  eltwise_param {
    operation: SUM
  }
}
layer {
  name: "lstm2_unit_1"
  type: "LSTMUnit"
  bottom: "c_0"
  bottom: "gate_input_1"
  bottom: "cont_1"
  top: "c_1"
  top: "h_1"
}
layer {
  name: "lstm2_"
  type: "Split"
  bottom: "c_1"
  top: "c_T"
}
layer {
  name: "lstm2_h_concat"
  type: "Concat"
  bottom: "h_1"
  top: "h"
  concat_param {
    axis: 0
  }
}
layer {
  name: "h_pseudoloss"
  type: "Reduction"
  bottom: "h"
  top: "h_pseudoloss"
  loss_weight: 1
}
I0721 12:34:40.381533  7837 layer_factory.hpp:77] Creating layer lstm2_
I0721 12:34:40.381546  7837 net.cpp:91] Creating Layer lstm2_
I0721 12:34:40.381551  7837 net.cpp:399] lstm2_ -> x
I0721 12:34:40.381562  7837 net.cpp:399] lstm2_ -> cont
I0721 12:34:40.382920  7845 net.cpp:141] Setting up conv1
I0721 12:34:40.382942  7845 net.cpp:148] Top shape: 10 96 55 55 (2904000)
I0721 12:34:40.382952  7845 net.cpp:156] Memory required for data: 17799480
I0721 12:34:40.382966  7845 layer_factory.hpp:77] Creating layer relu1
I0721 12:34:40.382977  7845 net.cpp:91] Creating Layer relu1
I0721 12:34:40.382982  7845 net.cpp:425] relu1 <- conv1
I0721 12:34:40.382989  7845 net.cpp:386] relu1 -> conv1 (in-place)
I0721 12:34:40.383483  7851 net.cpp:141] Setting up conv1
I0721 12:34:40.383502  7851 net.cpp:148] Top shape: 10 96 55 55 (2904000)
I0721 12:34:40.383507  7851 net.cpp:156] Memory required for data: 17799480
I0721 12:34:40.383522  7851 layer_factory.hpp:77] Creating layer relu1
I0721 12:34:40.383532  7851 net.cpp:91] Creating Layer relu1
I0721 12:34:40.383536  7851 net.cpp:425] relu1 <- conv1
I0721 12:34:40.383543  7851 net.cpp:386] relu1 -> conv1 (in-place)
I0721 12:34:40.384757  7837 net.cpp:141] Setting up lstm2_
I0721 12:34:40.384775  7837 net.cpp:148] Top shape: 1 1 1501 (1501)
I0721 12:34:40.384788  7837 net.cpp:148] Top shape: 1 1 (1)
I0721 12:34:40.384794  7837 net.cpp:156] Memory required for data: 6008
I0721 12:34:40.384802  7837 layer_factory.hpp:77] Creating layer lstm2_
I0721 12:34:40.384822  7837 net.cpp:91] Creating Layer lstm2_
I0721 12:34:40.384835  7837 net.cpp:399] lstm2_ -> c_0
I0721 12:34:40.384853  7837 net.cpp:399] lstm2_ -> h_0
I0721 12:34:40.384860  7851 net.cpp:141] Setting up relu1
I0721 12:34:40.384865  7845 net.cpp:141] Setting up relu1
I0721 12:34:40.384873  7851 net.cpp:148] Top shape: 10 96 55 55 (2904000)
I0721 12:34:40.384879  7851 net.cpp:156] Memory required for data: 29415480
I0721 12:34:40.384881  7845 net.cpp:148] Top shape: 10 96 55 55 (2904000)
I0721 12:34:40.384884  7851 layer_factory.hpp:77] Creating layer pool1
I0721 12:34:40.384896  7845 net.cpp:156] Memory required for data: 29415480
I0721 12:34:40.384905  7845 layer_factory.hpp:77] Creating layer pool1
I0721 12:34:40.384907  7851 net.cpp:91] Creating Layer pool1
I0721 12:34:40.384918  7851 net.cpp:425] pool1 <- conv1
I0721 12:34:40.384923  7845 net.cpp:91] Creating Layer pool1
I0721 12:34:40.384927  7851 net.cpp:399] pool1 -> pool1
I0721 12:34:40.384935  7845 net.cpp:425] pool1 <- conv1
I0721 12:34:40.384950  7845 net.cpp:399] pool1 -> pool1
I0721 12:34:40.385022  7837 net.cpp:141] Setting up lstm2_
I0721 12:34:40.385035  7837 net.cpp:148] Top shape: 1 1 1000 (1000)
I0721 12:34:40.385045  7837 net.cpp:148] Top shape: 1 1 1000 (1000)
I0721 12:34:40.385051  7837 net.cpp:156] Memory required for data: 14008
I0721 12:34:40.385059  7837 layer_factory.hpp:77] Creating layer lstm2_cont_slice
I0721 12:34:40.385073  7837 net.cpp:91] Creating Layer lstm2_cont_slice
I0721 12:34:40.385083  7837 net.cpp:425] lstm2_cont_slice <- cont
I0721 12:34:40.385098  7837 net.cpp:399] lstm2_cont_slice -> cont_1
I0721 12:34:40.385134  7851 net.cpp:141] Setting up pool1
I0721 12:34:40.385146  7851 net.cpp:148] Top shape: 10 96 27 27 (699840)
I0721 12:34:40.385151  7851 net.cpp:156] Memory required for data: 32214840
I0721 12:34:40.385156  7851 layer_factory.hpp:77] Creating layer norm1
I0721 12:34:40.385165  7845 net.cpp:141] Setting up pool1
I0721 12:34:40.385171  7851 net.cpp:91] Creating Layer norm1
I0721 12:34:40.385185  7851 net.cpp:425] norm1 <- pool1
I0721 12:34:40.385188  7845 net.cpp:148] Top shape: 10 96 27 27 (699840)
I0721 12:34:40.385192  7851 net.cpp:399] norm1 -> norm1
I0721 12:34:40.385188  7837 net.cpp:141] Setting up lstm2_cont_slice
I0721 12:34:40.385201  7845 net.cpp:156] Memory required for data: 32214840
I0721 12:34:40.385210  7837 net.cpp:148] Top shape: 1 1 (1)
I0721 12:34:40.385210  7845 layer_factory.hpp:77] Creating layer norm1
I0721 12:34:40.385226  7837 net.cpp:156] Memory required for data: 14012
I0721 12:34:40.385234  7837 layer_factory.hpp:77] Creating layer cont_1_lstm2_cont_slice_0_split
I0721 12:34:40.385236  7845 net.cpp:91] Creating Layer norm1
I0721 12:34:40.385244  7845 net.cpp:425] norm1 <- pool1
I0721 12:34:40.385248  7837 net.cpp:91] Creating Layer cont_1_lstm2_cont_slice_0_split
I0721 12:34:40.385257  7837 net.cpp:425] cont_1_lstm2_cont_slice_0_split <- cont_1
I0721 12:34:40.385258  7845 net.cpp:399] norm1 -> norm1
I0721 12:34:40.385273  7837 net.cpp:399] cont_1_lstm2_cont_slice_0_split -> cont_1_lstm2_cont_slice_0_split_0
I0721 12:34:40.385288  7837 net.cpp:399] cont_1_lstm2_cont_slice_0_split -> cont_1_lstm2_cont_slice_0_split_1
I0721 12:34:40.386457  7851 net.cpp:141] Setting up norm1
I0721 12:34:40.386471  7851 net.cpp:148] Top shape: 10 96 27 27 (699840)
I0721 12:34:40.386476  7851 net.cpp:156] Memory required for data: 35014200
I0721 12:34:40.386482  7851 layer_factory.hpp:77] Creating layer conv2
I0721 12:34:40.386487  7837 net.cpp:141] Setting up cont_1_lstm2_cont_slice_0_split
I0721 12:34:40.386495  7851 net.cpp:91] Creating Layer conv2
I0721 12:34:40.386502  7851 net.cpp:425] conv2 <- norm1
I0721 12:34:40.386505  7837 net.cpp:148] Top shape: 1 1 (1)
I0721 12:34:40.386509  7851 net.cpp:399] conv2 -> conv2
I0721 12:34:40.386523  7837 net.cpp:148] Top shape: 1 1 (1)
I0721 12:34:40.386531  7837 net.cpp:156] Memory required for data: 14020
I0721 12:34:40.386539  7837 layer_factory.hpp:77] Creating layer lstm2_x_transform
I0721 12:34:40.386560  7837 net.cpp:91] Creating Layer lstm2_x_transform
I0721 12:34:40.386569  7837 net.cpp:425] lstm2_x_transform <- x
I0721 12:34:40.386584  7837 net.cpp:399] lstm2_x_transform -> W_xc_x
I0721 12:34:40.386807  7845 net.cpp:141] Setting up norm1
I0721 12:34:40.386828  7845 net.cpp:148] Top shape: 10 96 27 27 (699840)
I0721 12:34:40.386838  7845 net.cpp:156] Memory required for data: 35014200
I0721 12:34:40.386848  7845 layer_factory.hpp:77] Creating layer conv2
I0721 12:34:40.386868  7845 net.cpp:91] Creating Layer conv2
I0721 12:34:40.386878  7845 net.cpp:425] conv2 <- norm1
I0721 12:34:40.386893  7845 net.cpp:399] conv2 -> conv2
I0721 12:34:40.414839  7833 net.cpp:141] Setting up lstm1_transform_1
I0721 12:34:40.414882  7833 net.cpp:148] Top shape: 1 1 4000 (4000)
I0721 12:34:40.414890  7833 net.cpp:156] Memory required for data: 62016
I0721 12:34:40.414913  7833 layer_factory.hpp:77] Creating layer lstm1_gate_input_1
I0721 12:34:40.414935  7833 net.cpp:91] Creating Layer lstm1_gate_input_1
I0721 12:34:40.414944  7833 net.cpp:425] lstm1_gate_input_1 <- W_hc_h_0
I0721 12:34:40.414954  7833 net.cpp:425] lstm1_gate_input_1 <- W_xc_x_1
I0721 12:34:40.414963  7833 net.cpp:399] lstm1_gate_input_1 -> gate_input_1
I0721 12:34:40.415928  7833 net.cpp:141] Setting up lstm1_gate_input_1
I0721 12:34:40.415957  7833 net.cpp:148] Top shape: 1 1 4000 (4000)
I0721 12:34:40.415968  7833 net.cpp:156] Memory required for data: 78016
I0721 12:34:40.415979  7833 layer_factory.hpp:77] Creating layer lstm1_unit_1
I0721 12:34:40.416004  7833 net.cpp:91] Creating Layer lstm1_unit_1
I0721 12:34:40.416018  7833 net.cpp:425] lstm1_unit_1 <- c_0
I0721 12:34:40.416029  7833 net.cpp:425] lstm1_unit_1 <- gate_input_1
I0721 12:34:40.416039  7833 net.cpp:425] lstm1_unit_1 <- cont_1_lstm1_cont_slice_0_split_1
I0721 12:34:40.416052  7833 net.cpp:399] lstm1_unit_1 -> c_1
I0721 12:34:40.416071  7833 net.cpp:399] lstm1_unit_1 -> h_1
I0721 12:34:40.416543  7833 net.cpp:141] Setting up lstm1_unit_1
I0721 12:34:40.416566  7833 net.cpp:148] Top shape: 1 1 1000 (1000)
I0721 12:34:40.416580  7833 net.cpp:148] Top shape: 1 1 1000 (1000)
I0721 12:34:40.416589  7833 net.cpp:156] Memory required for data: 86016
I0721 12:34:40.416600  7833 layer_factory.hpp:77] Creating layer lstm1_
I0721 12:34:40.416625  7833 net.cpp:91] Creating Layer lstm1_
I0721 12:34:40.416637  7833 net.cpp:425] lstm1_ <- c_1
I0721 12:34:40.416653  7833 net.cpp:399] lstm1_ -> c_T
I0721 12:34:40.418472  7833 net.cpp:141] Setting up lstm1_
I0721 12:34:40.418493  7833 net.cpp:148] Top shape: 1 1 1000 (1000)
I0721 12:34:40.418500  7833 net.cpp:156] Memory required for data: 90016
I0721 12:34:40.418507  7833 layer_factory.hpp:77] Creating layer lstm1_h_concat
I0721 12:34:40.418520  7833 net.cpp:91] Creating Layer lstm1_h_concat
I0721 12:34:40.418526  7833 net.cpp:425] lstm1_h_concat <- h_1
I0721 12:34:40.418540  7833 net.cpp:399] lstm1_h_concat -> h
I0721 12:34:40.418650  7833 net.cpp:141] Setting up lstm1_h_concat
I0721 12:34:40.418663  7833 net.cpp:148] Top shape: 1 1 1000 (1000)
I0721 12:34:40.418668  7833 net.cpp:156] Memory required for data: 94016
I0721 12:34:40.418673  7833 layer_factory.hpp:77] Creating layer h_pseudoloss
I0721 12:34:40.418684  7833 net.cpp:91] Creating Layer h_pseudoloss
I0721 12:34:40.418704  7833 net.cpp:425] h_pseudoloss <- h
I0721 12:34:40.418716  7833 net.cpp:399] h_pseudoloss -> h_pseudoloss
I0721 12:34:40.423573  7833 net.cpp:141] Setting up h_pseudoloss
…
I0721 12:34:40.423852  7833 net.cpp:219] lstm1_ does not need backward computation.
I0721 12:34:40.423859  7833 net.cpp:261] This network produces output c_T
I0721 12:34:40.423869  7833 net.cpp:261] This network produces output h_pseudoloss
I0721 12:34:40.423943  7833 net.cpp:274] Network initialization done.
I0721 12:34:40.424044  7833 recurrent_layer.cpp:150] Adding parameter 0: W_xc
I0721 12:34:40.424062  7833 recurrent_layer.cpp:150] Adding parameter 1: b_c
I0721 12:34:40.424073  7833 recurrent_layer.cpp:150] Adding parameter 2: W_hc
I0721 12:34:40.427306  7833 net.cpp:141] Setting up lstm1
I0721 12:34:40.427336  7833 net.cpp:148] Top shape: 1 1 1000 (1000)
I0721 12:34:40.427347  7833 net.cpp:156] Memory required for data: 26408
I0721 12:34:40.427378  7833 layer_factory.hpp:77] Creating layer concat
I0721 12:34:40.427400  7833 net.cpp:91] Creating Layer concat
I0721 12:34:40.427413  7833 net.cpp:425] concat <- lstm1
I0721 12:34:40.427428  7833 net.cpp:425] concat <- embedded_input_sentence
I0721 12:34:40.427440  7833 net.cpp:425] concat <- reshaped_stage_indicator
I0721 12:34:40.427456  7833 net.cpp:399] concat -> lstm1_video_sequence
I0721 12:34:40.429230  7833 net.cpp:141] Setting up concat
I0721 12:34:40.429260  7833 net.cpp:148] Top shape: 1 1 1501 (1501)
I0721 12:34:40.429271  7833 net.cpp:156] Memory required for data: 32412
I0721 12:34:40.429282  7833 layer_factory.hpp:77] Creating layer lstm2
I0721 12:34:40.429311  7833 net.cpp:91] Creating Layer lstm2
I0721 12:34:40.429323  7833 net.cpp:425] lstm2 <- lstm1_video_sequence
I0721 12:34:40.429337  7833 net.cpp:425] lstm2 <- cont_sentence_input_1_split_1
I0721 12:34:40.429354  7833 net.cpp:399] lstm2 -> lstm2
I0721 12:34:40.429376  7833 recurrent_layer.cpp:20] Initializing recurrent layer: assuming input batch contains 1 timesteps of 1 independent streams.
I0721 12:34:40.430011  7833 net.cpp:49] Initializing net from parameters: 
layer {
  name: "lstm2_"
  type: "Input"
  top: "x"
  top: "cont"
  input_param {
    shape {
      dim: 1
      dim: 1
      dim: 1501
    }
    shape {
      dim: 1
      dim: 1
    }
  }
}
layer {
  name: "lstm2_"
  type: "Input"
  top: "c_0"
  top: "h_0"
  input_param {
    shape {
      dim: 1
      dim: 1
      dim: 1000
    }
    shape {
      dim: 1
      dim: 1
      dim: 1000
    }
  }
}
layer {
  name: "lstm2_cont_slice"
  type: "Slice"
  bottom: "cont"
  top: "cont_1"
  slice_param {
    axis: 0
  }
}
layer {
  name: "lstm2_x_transform"
  type: "InnerProduct"
  bottom: "x"
  top: "W_xc_x"
  param {
    name: "W_xc"
  }
  param {
    name: "b_c"
  }
  propagate_down: true
  inner_product_param {
    num_output: 4000
    bias_term: true
    weight_filler {
      type: "uniform"
      min: -0.08
      max: 0.08
    }
    bias_filler {
      type: "constant"
      value: 0
    }
    axis: 2
  }
}
layer {
  name: "lstm2_W_xc_x_slice"
  type: "Slice"
  bottom: "W_xc_x"
  top: "W_xc_x_1"
  slice_param {
    axis: 0
  }
}
layer {
  name: "lstm2_h_conted_0"
  type: "Scale"
  bottom: "h_0"
  bottom: "cont_1"
  top: "h_conted_0"
  scale_param {
    axis: 0
  }
}
layer {
  name: "lstm2_transform_1"
  type: "InnerProduct"
  bottom: "h_conted_0"
  top: "W_hc_h_0"
  param {
    name: "W_hc"
  }
  inner_product_param {
    num_output: 4000
    bias_term: false
    weight_filler {
      type: "uniform"
      min: -0.08
      max: 0.08
    }
    axis: 2
  }
}
layer {
  name: "lstm2_gate_input_1"
  type: "Eltwise"
  bottom: "W_hc_h_0"
  bottom: "W_xc_x_1"
  top: "gate_input_1"
  eltwise_param {
    operation: SUM
  }
}
layer {
  name: "lstm2_unit_1"
  type: "LSTMUnit"
  bottom: "c_0"
  bottom: "gate_input_1"
  bottom: "cont_1"
  top: "c_1"
  top: "h_1"
}
layer {
  name: "lstm2_"
  type: "Split"
  bottom: "c_1"
  top: "c_T"
}
layer {
  name: "lstm2_h_concat"
  type: "Concat"
  bottom: "h_1"
  top: "h"
  concat_param {
    axis: 0
  }
}
layer {
  name: "h_pseudoloss"
  type: "Reduction"
  bottom: "h"
  top: "h_pseudoloss"
  loss_weight: 1
}
I0721 12:34:40.430160  7845 net.cpp:141] Setting up conv2
I0721 12:34:40.430189  7845 net.cpp:148] Top shape: 10 256 27 27 (1866240)
I0721 12:34:40.430187  7833 layer_factory.hpp:77] Creating layer lstm2_
I0721 12:34:40.430207  7845 net.cpp:156] Memory required for data: 42479160
I0721 12:34:40.430227  7833 net.cpp:91] Creating Layer lstm2_
I0721 12:34:40.430238  7845 layer_factory.hpp:77] Creating layer relu2
I0721 12:34:40.430243  7833 net.cpp:399] lstm2_ -> x
I0721 12:34:40.430263  7845 net.cpp:91] Creating Layer relu2
I0721 12:34:40.430266  7833 net.cpp:399] lstm2_ -> cont
I0721 12:34:40.430275  7845 net.cpp:425] relu2 <- conv2
I0721 12:34:40.430289  7845 net.cpp:386] relu2 -> conv2 (in-place)
I0721 12:34:40.432065  7833 net.cpp:141] Setting up lstm2_
I0721 12:34:40.432095  7833 net.cpp:148] Top shape: 1 1 1501 (1501)
I0721 12:34:40.432111  7833 net.cpp:148] Top shape: 1 1 (1)
I0721 12:34:40.432126  7833 net.cpp:156] Memory required for data: 6008
I0721 12:34:40.432137  7833 layer_factory.hpp:77] Creating layer lstm2_
I0721 12:34:40.432158  7833 net.cpp:91] Creating Layer lstm2_
I0721 12:34:40.432178  7833 net.cpp:399] lstm2_ -> c_0
I0721 12:34:40.432201  7833 net.cpp:399] lstm2_ -> h_0
I0721 12:34:40.432306  7845 net.cpp:141] Setting up relu2
I0721 12:34:40.432332  7845 net.cpp:148] Top shape: 10 256 27 27 (1866240)
I0721 12:34:40.432343  7845 net.cpp:156] Memory required for data: 49944120
I0721 12:34:40.432354  7845 layer_factory.hpp:77] Creating layer pool2
I0721 12:34:40.432373  7845 net.cpp:91] Creating Layer pool2
I0721 12:34:40.432382  7845 net.cpp:425] pool2 <- conv2
I0721 12:34:40.432395  7845 net.cpp:399] pool2 -> pool2
I0721 12:34:40.432472  7833 net.cpp:141] Setting up lstm2_
I0721 12:34:40.432478  7851 net.cpp:141] Setting up conv2
I0721 12:34:40.432494  7833 net.cpp:148] Top shape: 1 1 1000 (1000)
I0721 12:34:40.432507  7833 net.cpp:148] Top shape: 1 1 1000 (1000)
I0721 12:34:40.432507  7851 net.cpp:148] Top shape: 10 256 27 27 (1866240)
I0721 12:34:40.432525  7833 net.cpp:156] Memory required for data: 14008
I0721 12:34:40.432534  7851 net.cpp:156] Memory required for data: 42479160
I0721 12:34:40.432538  7833 layer_factory.hpp:77] Creating layer lstm2_cont_slice
I0721 12:34:40.432556  7833 net.cpp:91] Creating Layer lstm2_cont_slice
I0721 12:34:40.432564  7851 layer_factory.hpp:77] Creating layer relu2
I0721 12:34:40.432569  7833 net.cpp:425] lstm2_cont_slice <- cont
I0721 12:34:40.432585  7851 net.cpp:91] Creating Layer relu2
I0721 12:34:40.432595  7833 net.cpp:399] lstm2_cont_slice -> cont_1
I0721 12:34:40.432597  7851 net.cpp:425] relu2 <- conv2
I0721 12:34:40.432632  7845 net.cpp:141] Setting up pool2
I0721 12:34:40.432634  7851 net.cpp:386] relu2 -> conv2 (in-place)
I0721 12:34:40.432659  7845 net.cpp:148] Top shape: 10 256 13 13 (432640)
I0721 12:34:40.432672  7845 net.cpp:156] Memory required for data: 51674680
I0721 12:34:40.432682  7845 layer_factory.hpp:77] Creating layer norm2
I0721 12:34:40.432706  7845 net.cpp:91] Creating Layer norm2
I0721 12:34:40.432718  7845 net.cpp:425] norm2 <- pool2
I0721 12:34:40.432718  7833 net.cpp:141] Setting up lstm2_cont_slice
I0721 12:34:40.432741  7833 net.cpp:148] Top shape: 1 1 (1)
I0721 12:34:40.432751  7833 net.cpp:156] Memory required for data: 14012
I0721 12:34:40.432761  7833 layer_factory.hpp:77] Creating layer cont_1_lstm2_cont_slice_0_split
I0721 12:34:40.432763  7845 net.cpp:399] norm2 -> norm2
I0721 12:34:40.432783  7833 net.cpp:91] Creating Layer cont_1_lstm2_cont_slice_0_split
I0721 12:34:40.432797  7833 net.cpp:425] cont_1_lstm2_cont_slice_0_split <- cont_1
I0721 12:34:40.432811  7833 net.cpp:399] cont_1_lstm2_cont_slice_0_split -> cont_1_lstm2_cont_slice_0_split_0
I0721 12:34:40.432833  7833 net.cpp:399] cont_1_lstm2_cont_slice_0_split -> cont_1_lstm2_cont_slice_0_split_1
I0721 12:34:40.434186  7845 net.cpp:141] Setting up norm2
I0721 12:34:40.434211  7845 net.cpp:148] Top shape: 10 256 13 13 (432640)
I0721 12:34:40.434221  7845 net.cpp:156] Memory required for data: 53405240
I0721 12:34:40.434221  7833 net.cpp:141] Setting up cont_1_lstm2_cont_slice_0_split
I0721 12:34:40.434231  7845 layer_factory.hpp:77] Creating layer conv3
I0721 12:34:40.434244  7833 net.cpp:148] Top shape: 1 1 (1)
I0721 12:34:40.434258  7833 net.cpp:148] Top shape: 1 1 (1)
I0721 12:34:40.434267  7833 net.cpp:156] Memory required for data: 14020
I0721 12:34:40.434270  7845 net.cpp:91] Creating Layer conv3
I0721 12:34:40.434278  7833 layer_factory.hpp:77] Creating layer lstm2_x_transform
I0721 12:34:40.434293  7845 net.cpp:425] conv3 <- norm2
I0721 12:34:40.434293  7851 net.cpp:141] Setting up relu2
I0721 12:34:40.434315  7845 net.cpp:399] conv3 -> conv3
I0721 12:34:40.434316  7833 net.cpp:91] Creating Layer lstm2_x_transform
I0721 12:34:40.434319  7851 net.cpp:148] Top shape: 10 256 27 27 (1866240)
I0721 12:34:40.434334  7833 net.cpp:425] lstm2_x_transform <- x
I0721 12:34:40.434340  7851 net.cpp:156] Memory required for data: 49944120
I0721 12:34:40.434351  7851 layer_factory.hpp:77] Creating layer pool2
I0721 12:34:40.434353  7833 net.cpp:399] lstm2_x_transform -> W_xc_x
I0721 12:34:40.434372  7851 net.cpp:91] Creating Layer pool2
I0721 12:34:40.434383  7851 net.cpp:425] pool2 <- conv2
I0721 12:34:40.434396  7851 net.cpp:399] pool2 -> pool2
I0721 12:34:40.456194  7851 net.cpp:141] Setting up pool2
I0721 12:34:40.456250  7851 net.cpp:148] Top shape: 10 256 13 13 (432640)
I0721 12:34:40.456257  7851 net.cpp:156] Memory required for data: 51674680
I0721 12:34:40.456269  7851 layer_factory.hpp:77] Creating layer norm2
I0721 12:34:40.456300  7851 net.cpp:91] Creating Layer norm2
I0721 12:34:40.456310  7851 net.cpp:425] norm2 <- pool2
I0721 12:34:40.456322  7851 net.cpp:399] norm2 -> norm2
I0721 12:34:40.456871  7837 net.cpp:141] Setting up lstm2_x_transform
I0721 12:34:40.456907  7837 net.cpp:148] Top shape: 1 1 4000 (4000)
I0721 12:34:40.456913  7837 net.cpp:156] Memory required for data: 30020
I0721 12:34:40.456933  7837 layer_factory.hpp:77] Creating layer lstm2_W_xc_x_slice
I0721 12:34:40.456948  7837 net.cpp:91] Creating Layer lstm2_W_xc_x_slice
I0721 12:34:40.456955  7837 net.cpp:425] lstm2_W_xc_x_slice <- W_xc_x
I0721 12:34:40.456964  7837 net.cpp:399] lstm2_W_xc_x_slice -> W_xc_x_1
I0721 12:34:40.463332  7837 net.cpp:141] Setting up lstm2_W_xc_x_slice
I0721 12:34:40.463351  7837 net.cpp:148] Top shape: 1 1 4000 (4000)
I0721 12:34:40.463356  7837 net.cpp:156] Memory required for data: 46020
I0721 12:34:40.463361  7837 layer_factory.hpp:77] Creating layer lstm2_h_conted_0
I0721 12:34:40.463371  7837 net.cpp:91] Creating Layer lstm2_h_conted_0
I0721 12:34:40.463377  7837 net.cpp:425] lstm2_h_conted_0 <- h_0
I0721 12:34:40.463383  7837 net.cpp:425] lstm2_h_conted_0 <- cont_1_lstm2_cont_slice_0_split_0
I0721 12:34:40.463397  7837 net.cpp:399] lstm2_h_conted_0 -> h_conted_0
I0721 12:34:40.463383  7851 net.cpp:141] Setting up norm2
I0721 12:34:40.463425  7851 net.cpp:148] Top shape: 10 256 13 13 (432640)
I0721 12:34:40.463433  7851 net.cpp:156] Memory required for data: 53405240
I0721 12:34:40.463443  7851 layer_factory.hpp:77] Creating layer conv3
I0721 12:34:40.463475  7851 net.cpp:91] Creating Layer conv3
I0721 12:34:40.463485  7851 net.cpp:425] conv3 <- norm2
I0721 12:34:40.463500  7851 net.cpp:399] conv3 -> conv3
I0721 12:34:40.463631  7837 net.cpp:141] Setting up lstm2_h_conted_0
I0721 12:34:40.463650  7837 net.cpp:148] Top shape: 1 1 1000 (1000)
I0721 12:34:40.463659  7837 net.cpp:156] Memory required for data: 50020
I0721 12:34:40.463665  7837 layer_factory.hpp:77] Creating layer lstm2_transform_1
I0721 12:34:40.463680  7837 net.cpp:91] Creating Layer lstm2_transform_1
I0721 12:34:40.463685  7837 net.cpp:425] lstm2_transform_1 <- h_conted_0
I0721 12:34:40.463696  7837 net.cpp:399] lstm2_transform_1 -> W_hc_h_0
I0721 12:34:40.479935  7845 net.cpp:141] Setting up conv3
I0721 12:34:40.480015  7845 net.cpp:148] Top shape: 10 384 13 13 (648960)
I0721 12:34:40.480026  7845 net.cpp:156] Memory required for data: 56001080
I0721 12:34:40.480062  7845 layer_factory.hpp:77] Creating layer relu3
I0721 12:34:40.480090  7845 net.cpp:91] Creating Layer relu3
I0721 12:34:40.480103  7845 net.cpp:425] relu3 <- conv3
I0721 12:34:40.480118  7845 net.cpp:386] relu3 -> conv3 (in-place)
I0721 12:34:40.482412  7845 net.cpp:141] Setting up relu3
I0721 12:34:40.482453  7845 net.cpp:148] Top shape: 10 384 13 13 (648960)
I0721 12:34:40.482467  7845 net.cpp:156] Memory required for data: 58596920
I0721 12:34:40.482481  7845 layer_factory.hpp:77] Creating layer conv4
I0721 12:34:40.482607  7845 net.cpp:91] Creating Layer conv4
I0721 12:34:40.482642  7845 net.cpp:425] conv4 <- conv3
I0721 12:34:40.482668  7845 net.cpp:399] conv4 -> conv4
I0721 12:34:40.488476  7851 net.cpp:141] Setting up conv3
I0721 12:34:40.488518  7851 net.cpp:148] Top shape: 10 384 13 13 (648960)
I0721 12:34:40.488525  7851 net.cpp:156] Memory required for data: 56001080
I0721 12:34:40.488550  7851 layer_factory.hpp:77] Creating layer relu3
I0721 12:34:40.488569  7851 net.cpp:91] Creating Layer relu3
I0721 12:34:40.488577  7851 net.cpp:425] relu3 <- conv3
I0721 12:34:40.488586  7851 net.cpp:386] relu3 -> conv3 (in-place)
I0721 12:34:40.490377  7851 net.cpp:141] Setting up relu3
I0721 12:34:40.490413  7851 net.cpp:148] Top shape: 10 384 13 13 (648960)
I0721 12:34:40.490427  7851 net.cpp:156] Memory required for data: 58596920
I0721 12:34:40.490438  7851 layer_factory.hpp:77] Creating layer conv4
I0721 12:34:40.490470  7851 net.cpp:91] Creating Layer conv4
I0721 12:34:40.490484  7851 net.cpp:425] conv4 <- conv3
I0721 12:34:40.490509  7851 net.cpp:399] conv4 -> conv4
I0721 12:34:40.498291  7845 net.cpp:141] Setting up conv4
I0721 12:34:40.498329  7845 net.cpp:148] Top shape: 10 384 13 13 (648960)
I0721 12:34:40.498335  7845 net.cpp:156] Memory required for data: 61192760
I0721 12:34:40.498349  7845 layer_factory.hpp:77] Creating layer relu4
I0721 12:34:40.498365  7845 net.cpp:91] Creating Layer relu4
I0721 12:34:40.498373  7845 net.cpp:425] relu4 <- conv4
I0721 12:34:40.498380  7845 net.cpp:386] relu4 -> conv4 (in-place)
I0721 12:34:40.500082  7845 net.cpp:141] Setting up relu4
I0721 12:34:40.500102  7845 net.cpp:148] Top shape: 10 384 13 13 (648960)
I0721 12:34:40.500108  7845 net.cpp:156] Memory required for data: 63788600
I0721 12:34:40.500113  7845 layer_factory.hpp:77] Creating layer conv5
I0721 12:34:40.500129  7845 net.cpp:91] Creating Layer conv5
I0721 12:34:40.500135  7845 net.cpp:425] conv5 <- conv4
I0721 12:34:40.500145  7845 net.cpp:399] conv5 -> conv5
I0721 12:34:40.504778  7837 net.cpp:141] Setting up lstm2_transform_1
I0721 12:34:40.504798  7837 net.cpp:148] Top shape: 1 1 4000 (4000)
I0721 12:34:40.504803  7837 net.cpp:156] Memory required for data: 66020
I0721 12:34:40.504817  7837 layer_factory.hpp:77] Creating layer lstm2_gate_input_1
I0721 12:34:40.504830  7837 net.cpp:91] Creating Layer lstm2_gate_input_1
I0721 12:34:40.504837  7837 net.cpp:425] lstm2_gate_input_1 <- W_hc_h_0
I0721 12:34:40.504843  7837 net.cpp:425] lstm2_gate_input_1 <- W_xc_x_1
I0721 12:34:40.504850  7837 net.cpp:399] lstm2_gate_input_1 -> gate_input_1
I0721 12:34:40.505794  7837 net.cpp:141] Setting up lstm2_gate_input_1
I0721 12:34:40.505806  7837 net.cpp:148] Top shape: 1 1 4000 (4000)
I0721 12:34:40.505811  7837 net.cpp:156] Memory required for data: 82020
I0721 12:34:40.505816  7837 layer_factory.hpp:77] Creating layer lstm2_unit_1
I0721 12:34:40.505825  7837 net.cpp:91] Creating Layer lstm2_unit_1
I0721 12:34:40.505830  7837 net.cpp:425] lstm2_unit_1 <- c_0
I0721 12:34:40.505836  7837 net.cpp:425] lstm2_unit_1 <- gate_input_1
I0721 12:34:40.505841  7837 net.cpp:425] lstm2_unit_1 <- cont_1_lstm2_cont_slice_0_split_1
I0721 12:34:40.505848  7837 net.cpp:399] lstm2_unit_1 -> c_1
I0721 12:34:40.505857  7837 net.cpp:399] lstm2_unit_1 -> h_1
I0721 12:34:40.506440  7837 net.cpp:141] Setting up lstm2_unit_1
I0721 12:34:40.506453  7837 net.cpp:148] Top shape: 1 1 1000 (1000)
I0721 12:34:40.506458  7837 net.cpp:148] Top shape: 1 1 1000 (1000)
I0721 12:34:40.506464  7837 net.cpp:156] Memory required for data: 90020
I0721 12:34:40.506467  7837 layer_factory.hpp:77] Creating layer lstm2_
I0721 12:34:40.506479  7837 net.cpp:91] Creating Layer lstm2_
I0721 12:34:40.506484  7837 net.cpp:425] lstm2_ <- c_1
I0721 12:34:40.506490  7837 net.cpp:399] lstm2_ -> c_T
I0721 12:34:40.506578  7837 net.cpp:141] Setting up lstm2_
I0721 12:34:40.506590  7837 net.cpp:148] Top shape: 1 1 1000 (1000)
I0721 12:34:40.506594  7837 net.cpp:156] Memory required for data: 94020
I0721 12:34:40.506599  7837 layer_factory.hpp:77] Creating layer lstm2_h_concat
I0721 12:34:40.506611  7837 net.cpp:91] Creating Layer lstm2_h_concat
I0721 12:34:40.506616  7837 net.cpp:425] lstm2_h_concat <- h_1
I0721 12:34:40.506625  7837 net.cpp:399] lstm2_h_concat -> h
I0721 12:34:40.507848  7837 net.cpp:141] Setting up lstm2_h_concat
I0721 12:34:40.507861  7837 net.cpp:148] Top shape: 1 1 1000 (1000)
I0721 12:34:40.507866  7837 net.cpp:156] Memory required for data: 98020
I0721 12:34:40.507870  7837 layer_factory.hpp:77] Creating layer h_pseudoloss
I0721 12:34:40.507879  7837 net.cpp:91] Creating Layer h_pseudoloss
I0721 12:34:40.507884  7837 net.cpp:425] h_pseudoloss <- h
I0721 12:34:40.507894  7837 net.cpp:399] h_pseudoloss -> h_pseudoloss
I0721 12:34:40.508267  7837 net.cpp:141] Setting up h_pseudoloss
…
I0721 12:34:40.508363  7837 net.cpp:219] lstm2_ does not need backward computation.
I0721 12:34:40.508365  7837 net.cpp:261] This network produces output c_T
I0721 12:34:40.508370  7837 net.cpp:261] This network produces output h_pseudoloss
I0721 12:34:40.508388  7837 net.cpp:274] Network initialization done.
I0721 12:34:40.508440  7837 recurrent_layer.cpp:150] Adding parameter 0: W_xc
I0721 12:34:40.508448  7837 recurrent_layer.cpp:150] Adding parameter 1: b_c
I0721 12:34:40.508453  7837 recurrent_layer.cpp:150] Adding parameter 2: W_hc
I0721 12:34:40.508538  7851 net.cpp:141] Setting up conv4
I0721 12:34:40.508589  7851 net.cpp:148] Top shape: 10 384 13 13 (648960)
I0721 12:34:40.508599  7851 net.cpp:156] Memory required for data: 61192760
I0721 12:34:40.508623  7851 layer_factory.hpp:77] Creating layer relu4
I0721 12:34:40.508656  7851 net.cpp:91] Creating Layer relu4
I0721 12:34:40.508668  7851 net.cpp:425] relu4 <- conv4
I0721 12:34:40.508683  7851 net.cpp:386] relu4 -> conv4 (in-place)
I0721 12:34:40.509985  7837 net.cpp:141] Setting up lstm2
I0721 12:34:40.509999  7837 net.cpp:148] Top shape: 1 1 1000 (1000)
I0721 12:34:40.510004  7837 net.cpp:156] Memory required for data: 36412
I0721 12:34:40.510017  7837 layer_factory.hpp:77] Creating layer predict
I0721 12:34:40.510030  7837 net.cpp:91] Creating Layer predict
I0721 12:34:40.510035  7837 net.cpp:425] predict <- lstm2
I0721 12:34:40.510043  7837 net.cpp:399] predict -> predict
I0721 12:34:40.510131  7851 net.cpp:141] Setting up relu4
I0721 12:34:40.510149  7851 net.cpp:148] Top shape: 10 384 13 13 (648960)
I0721 12:34:40.510154  7851 net.cpp:156] Memory required for data: 63788600
I0721 12:34:40.510160  7851 layer_factory.hpp:77] Creating layer conv5
I0721 12:34:40.510182  7851 net.cpp:91] Creating Layer conv5
I0721 12:34:40.510190  7851 net.cpp:425] conv5 <- conv4
I0721 12:34:40.510198  7851 net.cpp:399] conv5 -> conv5
I0721 12:34:40.594202  7833 net.cpp:141] Setting up lstm2_x_transform
I0721 12:34:40.594266  7833 net.cpp:148] Top shape: 1 1 4000 (4000)
I0721 12:34:40.594274  7833 net.cpp:156] Memory required for data: 30020
I0721 12:34:40.594302  7833 layer_factory.hpp:77] Creating layer lstm2_W_xc_x_slice
I0721 12:34:40.594324  7833 net.cpp:91] Creating Layer lstm2_W_xc_x_slice
I0721 12:34:40.594333  7833 net.cpp:425] lstm2_W_xc_x_slice <- W_xc_x
I0721 12:34:40.594346  7833 net.cpp:399] lstm2_W_xc_x_slice -> W_xc_x_1
I0721 12:34:40.594607  7833 net.cpp:141] Setting up lstm2_W_xc_x_slice
I0721 12:34:40.594622  7833 net.cpp:148] Top shape: 1 1 4000 (4000)
I0721 12:34:40.594627  7833 net.cpp:156] Memory required for data: 46020
I0721 12:34:40.594633  7833 layer_factory.hpp:77] Creating layer lstm2_h_conted_0
I0721 12:34:40.594647  7833 net.cpp:91] Creating Layer lstm2_h_conted_0
I0721 12:34:40.594653  7833 net.cpp:425] lstm2_h_conted_0 <- h_0
I0721 12:34:40.594660  7833 net.cpp:425] lstm2_h_conted_0 <- cont_1_lstm2_cont_slice_0_split_0
I0721 12:34:40.594669  7833 net.cpp:399] lstm2_h_conted_0 -> h_conted_0
I0721 12:34:40.599624  7833 net.cpp:141] Setting up lstm2_h_conted_0
I0721 12:34:40.599666  7833 net.cpp:148] Top shape: 1 1 1000 (1000)
I0721 12:34:40.599673  7833 net.cpp:156] Memory required for data: 50020
I0721 12:34:40.599681  7833 layer_factory.hpp:77] Creating layer lstm2_transform_1
I0721 12:34:40.599704  7833 net.cpp:91] Creating Layer lstm2_transform_1
I0721 12:34:40.599711  7833 net.cpp:425] lstm2_transform_1 <- h_conted_0
I0721 12:34:40.599727  7833 net.cpp:399] lstm2_transform_1 -> W_hc_h_0
I0721 12:34:40.599941  7845 net.cpp:141] Setting up conv5
I0721 12:34:40.599987  7845 net.cpp:148] Top shape: 10 256 13 13 (432640)
I0721 12:34:40.599992  7845 net.cpp:156] Memory required for data: 65519160
I0721 12:34:40.600018  7845 layer_factory.hpp:77] Creating layer relu5
I0721 12:34:40.600035  7845 net.cpp:91] Creating Layer relu5
I0721 12:34:40.600042  7845 net.cpp:425] relu5 <- conv5
I0721 12:34:40.600051  7845 net.cpp:386] relu5 -> conv5 (in-place)
I0721 12:34:40.610285  7845 net.cpp:141] Setting up relu5
I0721 12:34:40.610741  7845 net.cpp:148] Top shape: 10 256 13 13 (432640)
I0721 12:34:40.610754  7845 net.cpp:156] Memory required for data: 67249720
I0721 12:34:40.610769  7845 layer_factory.hpp:77] Creating layer pool5
I0721 12:34:40.610793  7845 net.cpp:91] Creating Layer pool5
I0721 12:34:40.610803  7845 net.cpp:425] pool5 <- conv5
I0721 12:34:40.610826  7845 net.cpp:399] pool5 -> pool5
I0721 12:34:40.613503  7845 net.cpp:141] Setting up pool5
I0721 12:34:40.613564  7845 net.cpp:148] Top shape: 10 256 6 6 (92160)
I0721 12:34:40.613574  7845 net.cpp:156] Memory required for data: 67618360
I0721 12:34:40.613589  7845 layer_factory.hpp:77] Creating layer fc6
I0721 12:34:40.613626  7845 net.cpp:91] Creating Layer fc6
I0721 12:34:40.613639  7845 net.cpp:425] fc6 <- pool5
I0721 12:34:40.613661  7845 net.cpp:399] fc6 -> fc6
I0721 12:34:40.680665  7833 net.cpp:141] Setting up lstm2_transform_1
I0721 12:34:40.680728  7833 net.cpp:148] Top shape: 1 1 4000 (4000)
I0721 12:34:40.680735  7833 net.cpp:156] Memory required for data: 66020
I0721 12:34:40.680763  7833 layer_factory.hpp:77] Creating layer lstm2_gate_input_1
I0721 12:34:40.680791  7833 net.cpp:91] Creating Layer lstm2_gate_input_1
I0721 12:34:40.680800  7833 net.cpp:425] lstm2_gate_input_1 <- W_hc_h_0
I0721 12:34:40.680810  7833 net.cpp:425] lstm2_gate_input_1 <- W_xc_x_1
I0721 12:34:40.680820  7833 net.cpp:399] lstm2_gate_input_1 -> gate_input_1
I0721 12:34:40.684450  7833 net.cpp:141] Setting up lstm2_gate_input_1
I0721 12:34:40.684471  7833 net.cpp:148] Top shape: 1 1 4000 (4000)
I0721 12:34:40.684476  7833 net.cpp:156] Memory required for data: 82020
I0721 12:34:40.684481  7833 layer_factory.hpp:77] Creating layer lstm2_unit_1
I0721 12:34:40.684494  7833 net.cpp:91] Creating Layer lstm2_unit_1
I0721 12:34:40.684500  7833 net.cpp:425] lstm2_unit_1 <- c_0
I0721 12:34:40.684509  7833 net.cpp:425] lstm2_unit_1 <- gate_input_1
I0721 12:34:40.684514  7833 net.cpp:425] lstm2_unit_1 <- cont_1_lstm2_cont_slice_0_split_1
I0721 12:34:40.684525  7833 net.cpp:399] lstm2_unit_1 -> c_1
I0721 12:34:40.684537  7833 net.cpp:399] lstm2_unit_1 -> h_1
I0721 12:34:40.686388  7833 net.cpp:141] Setting up lstm2_unit_1
I0721 12:34:40.686405  7833 net.cpp:148] Top shape: 1 1 1000 (1000)
I0721 12:34:40.686413  7833 net.cpp:148] Top shape: 1 1 1000 (1000)
I0721 12:34:40.686417  7833 net.cpp:156] Memory required for data: 90020
I0721 12:34:40.686422  7833 layer_factory.hpp:77] Creating layer lstm2_
I0721 12:34:40.686434  7833 net.cpp:91] Creating Layer lstm2_
I0721 12:34:40.686440  7833 net.cpp:425] lstm2_ <- c_1
I0721 12:34:40.686451  7833 net.cpp:399] lstm2_ -> c_T
I0721 12:34:40.686542  7833 net.cpp:141] Setting up lstm2_
I0721 12:34:40.686555  7833 net.cpp:148] Top shape: 1 1 1000 (1000)
I0721 12:34:40.686561  7833 net.cpp:156] Memory required for data: 94020
I0721 12:34:40.686566  7833 layer_factory.hpp:77] Creating layer lstm2_h_concat
I0721 12:34:40.686583  7833 net.cpp:91] Creating Layer lstm2_h_concat
I0721 12:34:40.686589  7833 net.cpp:425] lstm2_h_concat <- h_1
I0721 12:34:40.686597  7833 net.cpp:399] lstm2_h_concat -> h
I0721 12:34:40.686705  7833 net.cpp:141] Setting up lstm2_h_concat
I0721 12:34:40.686718  7833 net.cpp:148] Top shape: 1 1 1000 (1000)
I0721 12:34:40.686723  7833 net.cpp:156] Memory required for data: 98020
I0721 12:34:40.686728  7833 layer_factory.hpp:77] Creating layer h_pseudoloss
I0721 12:34:40.686743  7833 net.cpp:91] Creating Layer h_pseudoloss
I0721 12:34:40.686749  7833 net.cpp:425] h_pseudoloss <- h
I0721 12:34:40.686758  7833 net.cpp:399] h_pseudoloss -> h_pseudoloss
I0721 12:34:40.688002  7833 net.cpp:141] Setting up h_pseudoloss
…
I0721 12:34:40.688122  7833 net.cpp:219] lstm2_ does not need backward computation.
I0721 12:34:40.688127  7833 net.cpp:261] This network produces output c_T
I0721 12:34:40.688133  7833 net.cpp:261] This network produces output h_pseudoloss
I0721 12:34:40.688151  7833 net.cpp:274] Network initialization done.
I0721 12:34:40.688220  7833 recurrent_layer.cpp:150] Adding parameter 0: W_xc
I0721 12:34:40.688227  7833 recurrent_layer.cpp:150] Adding parameter 1: b_c
I0721 12:34:40.688232  7833 recurrent_layer.cpp:150] Adding parameter 2: W_hc
I0721 12:34:40.689924  7833 net.cpp:141] Setting up lstm2
I0721 12:34:40.689946  7833 net.cpp:148] Top shape: 1 1 1000 (1000)
I0721 12:34:40.689952  7833 net.cpp:156] Memory required for data: 36412
I0721 12:34:40.689970  7833 layer_factory.hpp:77] Creating layer predict
I0721 12:34:40.689990  7833 net.cpp:91] Creating Layer predict
I0721 12:34:40.689998  7833 net.cpp:425] predict <- lstm2
I0721 12:34:40.690007  7833 net.cpp:399] predict -> predict
I0721 12:34:40.803077  7845 net.cpp:141] Setting up fc6
I0721 12:34:40.803129  7845 net.cpp:148] Top shape: 10 4096 (40960)
I0721 12:34:40.803138  7845 net.cpp:156] Memory required for data: 67782200
I0721 12:34:40.803158  7845 layer_factory.hpp:77] Creating layer relu6
I0721 12:34:40.803180  7845 net.cpp:91] Creating Layer relu6
I0721 12:34:40.803174  7851 net.cpp:141] Setting up conv5
I0721 12:34:40.803190  7845 net.cpp:425] relu6 <- fc6
I0721 12:34:40.803220  7851 net.cpp:148] Top shape: 10 256 13 13 (432640)
I0721 12:34:40.803227  7851 net.cpp:156] Memory required for data: 65519160
I0721 12:34:40.803228  7845 net.cpp:386] relu6 -> fc6 (in-place)
I0721 12:34:40.803261  7851 layer_factory.hpp:77] Creating layer relu5
I0721 12:34:40.803279  7851 net.cpp:91] Creating Layer relu5
I0721 12:34:40.803287  7851 net.cpp:425] relu5 <- conv5
I0721 12:34:40.803300  7851 net.cpp:386] relu5 -> conv5 (in-place)
I0721 12:34:40.803828  7845 net.cpp:141] Setting up relu6
I0721 12:34:40.803848  7845 net.cpp:148] Top shape: 10 4096 (40960)
I0721 12:34:40.803858  7845 net.cpp:156] Memory required for data: 67946040
I0721 12:34:40.803867  7845 layer_factory.hpp:77] Creating layer drop6
I0721 12:34:40.803884  7845 net.cpp:91] Creating Layer drop6
I0721 12:34:40.803894  7845 net.cpp:425] drop6 <- fc6
I0721 12:34:40.803911  7845 net.cpp:386] drop6 -> fc6 (in-place)
I0721 12:34:40.805274  7845 net.cpp:141] Setting up drop6
I0721 12:34:40.805294  7845 net.cpp:148] Top shape: 10 4096 (40960)
I0721 12:34:40.805305  7845 net.cpp:156] Memory required for data: 68109880
I0721 12:34:40.805315  7845 layer_factory.hpp:77] Creating layer fc7
I0721 12:34:40.805336  7845 net.cpp:91] Creating Layer fc7
I0721 12:34:40.805347  7845 net.cpp:425] fc7 <- fc6
I0721 12:34:40.805361  7845 net.cpp:399] fc7 -> fc7
I0721 12:34:40.805390  7851 net.cpp:141] Setting up relu5
I0721 12:34:40.805409  7851 net.cpp:148] Top shape: 10 256 13 13 (432640)
I0721 12:34:40.805414  7851 net.cpp:156] Memory required for data: 67249720
I0721 12:34:40.805420  7851 layer_factory.hpp:77] Creating layer pool5
I0721 12:34:40.805430  7851 net.cpp:91] Creating Layer pool5
I0721 12:34:40.805436  7851 net.cpp:425] pool5 <- conv5
I0721 12:34:40.805447  7851 net.cpp:399] pool5 -> pool5
I0721 12:34:40.840854  7851 net.cpp:141] Setting up pool5
I0721 12:34:40.840903  7851 net.cpp:148] Top shape: 10 256 6 6 (92160)
I0721 12:34:40.840909  7851 net.cpp:156] Memory required for data: 67618360
I0721 12:34:40.840917  7851 layer_factory.hpp:77] Creating layer fc6
I0721 12:34:40.840946  7851 net.cpp:91] Creating Layer fc6
I0721 12:34:40.840953  7851 net.cpp:425] fc6 <- pool5
I0721 12:34:40.840963  7851 net.cpp:399] fc6 -> fc6
I0721 12:34:40.909678  7845 net.cpp:141] Setting up fc7
I0721 12:34:40.909732  7845 net.cpp:148] Top shape: 10 4096 (40960)
I0721 12:34:40.909741  7845 net.cpp:156] Memory required for data: 68273720
I0721 12:34:40.909762  7845 layer_factory.hpp:77] Creating layer relu7
I0721 12:34:40.909786  7845 net.cpp:91] Creating Layer relu7
I0721 12:34:40.909796  7845 net.cpp:425] relu7 <- fc7
I0721 12:34:40.909811  7845 net.cpp:386] relu7 -> fc7 (in-place)
I0721 12:34:40.911478  7845 net.cpp:141] Setting up relu7
I0721 12:34:40.911519  7845 net.cpp:148] Top shape: 10 4096 (40960)
I0721 12:34:40.911528  7845 net.cpp:156] Memory required for data: 68437560
I0721 12:34:40.911540  7845 layer_factory.hpp:77] Creating layer drop7
I0721 12:34:40.911566  7845 net.cpp:91] Creating Layer drop7
I0721 12:34:40.911577  7845 net.cpp:425] drop7 <- fc7
I0721 12:34:40.911592  7845 net.cpp:386] drop7 -> fc7 (in-place)
I0721 12:34:40.911732  7845 net.cpp:141] Setting up drop7
I0721 12:34:40.911753  7845 net.cpp:148] Top shape: 10 4096 (40960)
I0721 12:34:40.911762  7845 net.cpp:156] Memory required for data: 68601400
I0721 12:34:40.911772  7845 layer_factory.hpp:77] Creating layer fc8
I0721 12:34:40.911788  7845 net.cpp:91] Creating Layer fc8
I0721 12:34:40.911798  7845 net.cpp:425] fc8 <- fc7
I0721 12:34:40.911811  7845 net.cpp:399] fc8 -> fc8
I0721 12:34:40.927727  7845 net.cpp:141] Setting up fc8
I0721 12:34:40.927784  7845 net.cpp:148] Top shape: 10 1000 (10000)
I0721 12:34:40.927793  7845 net.cpp:156] Memory required for data: 68641400
I0721 12:34:40.927815  7845 layer_factory.hpp:77] Creating layer prob
I0721 12:34:40.927837  7845 net.cpp:91] Creating Layer prob
I0721 12:34:40.927848  7845 net.cpp:425] prob <- fc8
I0721 12:34:40.927863  7845 net.cpp:399] prob -> prob
I0721 12:34:40.928637  7845 net.cpp:141] Setting up prob
I0721 12:34:40.928658  7845 net.cpp:148] Top shape: 10 1000 (10000)
I0721 12:34:40.928668  7845 net.cpp:156] Memory required for data: 68681400
I0721 12:34:40.928676  7845 net.cpp:219] prob does not need backward computation.
I0721 12:34:40.928686  7845 net.cpp:219] fc8 does not need backward computation.
I0721 12:34:40.928696  7845 net.cpp:219] drop7 does not need backward computation.
I0721 12:34:40.928705  7845 net.cpp:219] relu7 does not need backward computation.
…
I0721 12:34:40.928850  7845 net.cpp:219] norm1 does not need backward computation.
I0721 12:34:40.928860  7845 net.cpp:219] pool1 does not need backward computation.
I0721 12:34:40.928869  7845 net.cpp:219] relu1 does not need backward computation.
I0721 12:34:40.928879  7845 net.cpp:219] conv1 does not need backward computation.
I0721 12:34:40.928886  7845 net.cpp:219] data does not need backward computation.
I0721 12:34:40.928894  7845 net.cpp:261] This network produces output prob
I0721 12:34:40.928925  7845 net.cpp:274] Network initialization done.
I0721 12:34:40.946015  7837 net.cpp:141] Setting up predict
I0721 12:34:40.946069  7837 net.cpp:148] Top shape: 1 1 46168 (46168)
I0721 12:34:40.946075  7837 net.cpp:156] Memory required for data: 221084
I0721 12:34:40.946089  7837 layer_factory.hpp:77] Creating layer probs
I0721 12:34:40.946105  7837 net.cpp:91] Creating Layer probs
I0721 12:34:40.946113  7837 net.cpp:425] probs <- predict
I0721 12:34:40.946123  7837 net.cpp:399] probs -> probs
I0721 12:34:40.948302  7837 net.cpp:141] Setting up probs
I0721 12:34:40.948345  7837 net.cpp:148] Top shape: 1 1 46168 (46168)
I0721 12:34:40.948351  7837 net.cpp:156] Memory required for data: 405756
I0721 12:34:40.948359  7837 net.cpp:219] probs does not need backward computation.
I0721 12:34:40.948367  7837 net.cpp:219] predict does not need backward computation.
I0721 12:34:40.948372  7837 net.cpp:219] lstm2 does not need backward computation.
I0721 12:34:40.948379  7837 net.cpp:219] concat does not need backward computation.
I0721 12:34:40.948385  7837 net.cpp:219] lstm1 does not need backward computation.
I0721 12:34:40.948390  7837 net.cpp:219] embedding does not need backward computation.
I0721 12:34:40.948396  7837 net.cpp:219] reshape_stage_indicator does not need backward computation.
I0721 12:34:40.948401  7837 net.cpp:219] reshape_frames does not need backward computation.
I0721 12:34:40.948406  7837 net.cpp:219] embed_encoder does not need backward computation.
I0721 12:34:40.948411  7837 net.cpp:219] cont_sentence_input_1_split does not need backward computation.
I0721 12:34:40.948416  7837 net.cpp:219] input does not need backward computation.
I0721 12:34:40.948421  7837 net.cpp:261] This network produces output probs
I0721 12:34:40.948439  7837 net.cpp:274] Network initialization done.
I0721 12:34:40.949200  7851 net.cpp:141] Setting up fc6
I0721 12:34:40.949220  7851 net.cpp:148] Top shape: 10 4096 (40960)
I0721 12:34:40.949226  7851 net.cpp:156] Memory required for data: 67782200
I0721 12:34:40.949239  7851 layer_factory.hpp:77] Creating layer relu6
I0721 12:34:40.949250  7851 net.cpp:91] Creating Layer relu6
I0721 12:34:40.949256  7851 net.cpp:425] relu6 <- fc6
I0721 12:34:40.949265  7851 net.cpp:386] relu6 -> fc6 (in-place)
I0721 12:34:40.949743  7851 net.cpp:141] Setting up relu6
I0721 12:34:40.949754  7851 net.cpp:148] Top shape: 10 4096 (40960)
I0721 12:34:40.949759  7851 net.cpp:156] Memory required for data: 67946040
I0721 12:34:40.949764  7851 layer_factory.hpp:77] Creating layer drop6
I0721 12:34:40.949785  7851 net.cpp:91] Creating Layer drop6
I0721 12:34:40.949792  7851 net.cpp:425] drop6 <- fc6
I0721 12:34:40.949800  7851 net.cpp:386] drop6 -> fc6 (in-place)
I0721 12:34:40.949865  7851 net.cpp:141] Setting up drop6
I0721 12:34:40.949875  7851 net.cpp:148] Top shape: 10 4096 (40960)
I0721 12:34:40.949879  7851 net.cpp:156] Memory required for data: 68109880
I0721 12:34:40.949884  7851 layer_factory.hpp:77] Creating layer fc7
I0721 12:34:40.949903  7851 net.cpp:91] Creating Layer fc7
I0721 12:34:40.949908  7851 net.cpp:425] fc7 <- fc6
I0721 12:34:40.949919  7851 net.cpp:399] fc7 -> fc7
I0721 12:34:41.000545  7851 net.cpp:141] Setting up fc7
I0721 12:34:41.000588  7851 net.cpp:148] Top shape: 10 4096 (40960)
I0721 12:34:41.000594  7851 net.cpp:156] Memory required for data: 68273720
I0721 12:34:41.000608  7851 layer_factory.hpp:77] Creating layer relu7
I0721 12:34:41.000625  7851 net.cpp:91] Creating Layer relu7
I0721 12:34:41.000635  7851 net.cpp:425] relu7 <- fc7
I0721 12:34:41.000654  7851 net.cpp:386] relu7 -> fc7 (in-place)
I0721 12:34:41.003315  7851 net.cpp:141] Setting up relu7
I0721 12:34:41.003358  7851 net.cpp:148] Top shape: 10 4096 (40960)
I0721 12:34:41.003370  7851 net.cpp:156] Memory required for data: 68437560
I0721 12:34:41.003382  7851 layer_factory.hpp:77] Creating layer drop7
I0721 12:34:41.003407  7851 net.cpp:91] Creating Layer drop7
I0721 12:34:41.003417  7851 net.cpp:425] drop7 <- fc7
I0721 12:34:41.003429  7851 net.cpp:386] drop7 -> fc7 (in-place)
I0721 12:34:41.003563  7851 net.cpp:141] Setting up drop7
I0721 12:34:41.003578  7851 net.cpp:148] Top shape: 10 4096 (40960)
I0721 12:34:41.003585  7851 net.cpp:156] Memory required for data: 68601400
I0721 12:34:41.003594  7851 layer_factory.hpp:77] Creating layer fc8
I0721 12:34:41.003614  7851 net.cpp:91] Creating Layer fc8
I0721 12:34:41.003623  7851 net.cpp:425] fc8 <- fc7
I0721 12:34:41.003635  7851 net.cpp:399] fc8 -> fc8
I0721 12:34:41.022949  7851 net.cpp:141] Setting up fc8
I0721 12:34:41.022999  7851 net.cpp:148] Top shape: 10 1000 (10000)
I0721 12:34:41.023005  7851 net.cpp:156] Memory required for data: 68641400
I0721 12:34:41.023020  7851 layer_factory.hpp:77] Creating layer prob
I0721 12:34:41.023041  7851 net.cpp:91] Creating Layer prob
I0721 12:34:41.023047  7851 net.cpp:425] prob <- fc8
I0721 12:34:41.023058  7851 net.cpp:399] prob -> prob
I0721 12:34:41.024894  7851 net.cpp:141] Setting up prob
I0721 12:34:41.024936  7851 net.cpp:148] Top shape: 10 1000 (10000)
I0721 12:34:41.024942  7851 net.cpp:156] Memory required for data: 68681400
I0721 12:34:41.024951  7851 net.cpp:219] prob does not need backward computation.
I0721 12:34:41.024958  7851 net.cpp:219] fc8 does not need backward computation.
I0721 12:34:41.024963  7851 net.cpp:219] drop7 does not need backward computation.
I0721 12:34:41.024968  7851 net.cpp:219] relu7 does not need backward computation.
…
Java HotSpot(TM) 64-Bit Server VM warning: You have loaded library /tmp/cvld8253971748219529904/libopencv_java310.xine1.so which might have disabled stack guard. The VM will try to fix the stack guard now.
It's highly recommended that you fix the library with 'execstack -c <libfile>', or link it with '-z noexecstack'.
WARNING: Logging before InitGoogleLogging() is written to STDERR
I0721 12:35:24.981319  8009 net.cpp:49] Initializing net from parameters: 
name: "CaffeNet"
state {
  phase: TEST
}
layer {
  name: "data"
  type: "Input"
  top: "data"
  input_param {
    shape {
      dim: 10
      dim: 3
      dim: 227
      dim: 227
    }
  }
}
layer {
  name: "conv1"
  type: "Convolution"
  bottom: "data"
  top: "conv1"
  convolution_param {
    num_output: 96
    kernel_size: 11
    stride: 4
  }
}
layer {
  name: "relu1"
  type: "ReLU"
  bottom: "conv1"
  top: "conv1"
}
layer {
  name: "pool1"
  type: "Pooling"
  bottom: "conv1"
  top: "pool1"
  pooling_param {
    pool: MAX
    kernel_size: 3
    stride: 2
  }
}
layer {
  name: "norm1"
  type: "LRN"
  bottom: "pool1"
  top: "norm1"
  lrn_param {
    local_size: 5
    alpha: 0.0001
    beta: 0.75
  }
}
layer {
  name: "conv2"
  type: "Convolution"
  bottom: "norm1"
  top: "conv2"
  convolution_param {
    num_output: 256
    pad: 2
    kernel_size: 5
    group: 2
  }
}
layer {
  name: "relu2"
  type: "ReLU"
  bottom: "conv2"
  top: "conv2"
}
layer {
  name: "pool2"
  type: "Pooling"
  bottom: "conv2"
  top: "pool2"
  pooling_param {
    pool: MAX
    kernel_size: 3
    stride: 2
  }
}
layer {
  name: "norm2"
  type: "LRN"
  bottom: "pool2"
  top: "norm2"
  lrn_param {
    local_size: 5
    alpha: 0.0001
    beta: 0.75
  }
}
layer {
  name: "conv3"
  type: "Convolution"
  bottom: "norm2"
  top: "conv3"
  convolution_param {
    num_output: 384
    pad: 1
    kernel_size: 3
  }
}
layer {
  name: "relu3"
  type: "ReLU"
  bottom: "conv3"
  top: "conv3"
}
layer {
  name: "conv4"
  type: "Convolution"
  bottom: "conv3"
  top: "conv4"
  convolution_param {
    num_output: 384
    pad: 1
    kernel_size: 3
    group: 2
  }
}
layer {
  name: "relu4"
  type: "ReLU"
  bottom: "conv4"
  top: "conv4"
}
layer {
  name: "conv5"
  type: "Convolution"
  bottom: "conv4"
  top: "conv5"
  convolution_param {
    num_output: 256
    pad: 1
    kernel_size: 3
    group: 2
  }
}
layer {
  name: "relu5"
  type: "ReLU"
  bottom: "conv5"
  top: "conv5"
}
layer {
  name: "pool5"
  type: "Pooling"
  bottom: "conv5"
  top: "pool5"
  pooling_param {
    pool: MAX
    kernel_size: 3
    stride: 2
  }
}
layer {
  name: "fc6"
  type: "InnerProduct"
  bottom: "pool5"
  top: "fc6"
  inner_product_param {
    num_output: 4096
  }
}
layer {
  name: "relu6"
  type: "ReLU"
  bottom: "fc6"
  top: "fc6"
}
layer {
  name: "drop6"
  type: "Dropout"
  bottom: "fc6"
  top: "fc6"
  dropout_param {
    dropout_ratio: 0.5
  }
}
layer {
  name: "fc7"
  type: "InnerProduct"
  bottom: "fc6"
  top: "fc7"
  inner_product_param {
    num_output: 4096
  }
}
layer {
  name: "relu7"
  type: "ReLU"
  bottom: "fc7"
  top: "fc7"
}
layer {
  name: "drop7"
  type: "Dropout"
  bottom: "fc7"
  top: "fc7"
  dropout_param {
    dropout_ratio: 0.5
  }
}
layer {
  name: "fc8"
  type: "InnerProduct"
  bottom: "fc7"
  top: "fc8"
  inner_product_param {
    num_output: 1000
  }
}
layer {
  name: "prob"
  type: "Softmax"
  bottom: "fc8"
  top: "prob"
}
I0721 12:35:24.981497  8009 layer_factory.hpp:77] Creating layer data
I0721 12:35:24.981520  8009 net.cpp:91] Creating Layer data
I0721 12:35:24.981529  8009 net.cpp:399] data -> data
I0721 12:35:24.986990  8015 net.cpp:49] Initializing net from parameters: 
name: "CaffeNet"
state {
  phase: TEST
}
layer {
  name: "data"
  type: "Input"
  top: "data"
  input_param {
    shape {
      dim: 10
      dim: 3
      dim: 227
      dim: 227
    }
  }
}
layer {
  name: "conv1"
  type: "Convolution"
  bottom: "data"
  top: "conv1"
  convolution_param {
    num_output: 96
    kernel_size: 11
    stride: 4
  }
}
layer {
  name: "relu1"
  type: "ReLU"
  bottom: "conv1"
  top: "conv1"
}
layer {
  name: "pool1"
  type: "Pooling"
  bottom: "conv1"
  top: "pool1"
  pooling_param {
    pool: MAX
    kernel_size: 3
    stride: 2
  }
}
layer {
  name: "norm1"
  type: "LRN"
  bottom: "pool1"
  top: "norm1"
  lrn_param {
    local_size: 5
    alpha: 0.0001
    beta: 0.75
  }
}
layer {
  name: "conv2"
  type: "Convolution"
  bottom: "norm1"
  top: "conv2"
  convolution_param {
    num_output: 256
    pad: 2
    kernel_size: 5
    group: 2
  }
}
layer {
  name: "relu2"
  type: "ReLU"
  bottom: "conv2"
  top: "conv2"
}
layer {
  name: "pool2"
  type: "Pooling"
  bottom: "conv2"
  top: "pool2"
  pooling_param {
    pool: MAX
    kernel_size: 3
    stride: 2
  }
}
layer {
  name: "norm2"
  type: "LRN"
  bottom: "pool2"
  top: "norm2"
  lrn_param {
    local_size: 5
    alpha: 0.0001
    beta: 0.75
  }
}
layer {
  name: "conv3"
  type: "Convolution"
  bottom: "norm2"
  top: "conv3"
  convolution_param {
    num_output: 384
    pad: 1
    kernel_size: 3
  }
}
layer {
  name: "relu3"
  type: "ReLU"
  bottom: "conv3"
  top: "conv3"
}
layer {
  name: "conv4"
  type: "Convolution"
  bottom: "conv3"
  top: "conv4"
  convolution_param {
    num_output: 384
    pad: 1
    kernel_size: 3
    group: 2
  }
}
layer {
  name: "relu4"
  type: "ReLU"
  bottom: "conv4"
  top: "conv4"
}
layer {
  name: "conv5"
  type: "Convolution"
  bottom: "conv4"
  top: "conv5"
  convolution_param {
    num_output: 256
    pad: 1
    kernel_size: 3
    group: 2
  }
}
layer {
  name: "relu5"
  type: "ReLU"
  bottom: "conv5"
  top: "conv5"
}
layer {
  name: "pool5"
  type: "Pooling"
  bottom: "conv5"
  top: "pool5"
  pooling_param {
    pool: MAX
    kernel_size: 3
    stride: 2
  }
}
layer {
  name: "fc6"
  type: "InnerProduct"
  bottom: "pool5"
  top: "fc6"
  inner_product_param {
    num_output: 4096
  }
}
layer {
  name: "relu6"
  type: "ReLU"
  bottom: "fc6"
  top: "fc6"
}
layer {
  name: "drop6"
  type: "Dropout"
  bottom: "fc6"
  top: "fc6"
  dropout_param {
    dropout_ratio: 0.5
  }
}
layer {
  name: "fc7"
  type: "InnerProduct"
  bottom: "fc6"
  top: "fc7"
  inner_product_param {
    num_output: 4096
  }
}
layer {
  name: "relu7"
  type: "ReLU"
  bottom: "fc7"
  top: "fc7"
}
layer {
  name: "drop7"
  type: "Dropout"
  bottom: "fc7"
  top: "fc7"
  dropout_param {
    dropout_ratio: 0.5
  }
}
layer {
  name: "fc8"
  type: "InnerProduct"
  bottom: "fc7"
  top: "fc8"
  inner_product_param {
    num_output: 1000
  }
}
layer {
  name: "prob"
  type: "Softmax"
  bottom: "fc8"
  top: "prob"
}
I0721 12:35:24.987090  8015 layer_factory.hpp:77] Creating layer data
I0721 12:35:24.987103  8015 net.cpp:91] Creating Layer data
I0721 12:35:24.987110  8015 net.cpp:399] data -> data
I0721 12:35:25.177088  8000 upgrade_proto.cpp:66] Attempting to upgrade input file specified using deprecated input fields: /tmp/cvld8253971748219529904/s2vt.words_to_preds.prototxt
I0721 12:35:25.177088  7996 upgrade_proto.cpp:66] Attempting to upgrade input file specified using deprecated input fields: /tmp/cvld8253971748219529904/s2vt.words_to_preds.prototxt
…
W0721 12:35:25.177165  7996 upgrade_proto.cpp:71] Note that future Caffe releases will only support input layers and not input fields.
I0721 12:35:25.177521  7996 net.cpp:49] Initializing net from parameters: 
name: "s2vt:features_to_lstm"
state {
  phase: TEST
}
layer {
  name: "input"
  type: "Input"
  top: "frames_fc7"
  top: "cont_sentence"
  top: "input_sentence"
  top: "stage_indicator"
  input_param {
    shape {
      dim: 1
      dim: 4096
    }
    shape {
      dim: 1
      dim: 1
    }
    shape {
      dim: 1
      dim: 1
    }
    shape {
      dim: 1
      dim: 1
    }
  }
}
layer {
  name: "embed_encoder"
  type: "InnerProduct"
  bottom: "frames_fc7"
  top: "embedded_in_frames"
  param {
    lr_mult: 1
    decay_mult: 1
  }
  param {
    lr_mult: 2
    decay_mult: 0
  }
  inner_product_param {
    num_output: 500
    weight_filler {
      type: "xavier"
    }
    bias_filler {
      type: "constant"
      value: 0.2
    }
  }
}
layer {
  name: "reshape_frames"
  type: "Reshape"
  bottom: "embedded_in_frames"
  top: "embedded_input_frames"
  reshape_param {
    shape {
      dim: 1
      dim: 1
      dim: 500
    }
  }
}
layer {
  name: "reshape_stage_indicator"
  type: "Reshape"
  bottom: "stage_indicator"
  top: "reshaped_stage_indicator"
  reshape_param {
    shape {
      dim: 1
      dim: 1
      dim: 1
    }
  }
}
layer {
  name: "embedding"
  type: "Embed"
  bottom: "input_sentence"
  top: "embedded_input_sentence"
  param {
    lr_mult: 1
  }
  embed_param {
    num_output: 500
    input_dim: 46168
    bias_term: false
    weight_filler {
      type: "uniform"
      min: -0.08
      max: 0.08
    }
  }
}
layer {
  name: "lstm1"
  type: "LSTM"
  bottom: "embedded_input_frames"
  bottom: "cont_sentence"
  top: "lstm1"
  recurrent_param {
    num_output: 1000
    weight_filler {
      type: "uniform"
      min: -0.08
      max: 0.08
    }
    bias_filler {
      type: "constant"
      value: 0
    }
  }
}
layer {
  name: "concat"
  type: "Concat"
  bottom: "lstm1"
  bottom: "embedded_input_sentence"
  bottom: "reshaped_stage_indicator"
  top: "lstm1_video_sequence"
  concat_param {
    concat_dim: 2
  }
}
layer {
  name: "lstm2"
  type: "LSTM"
  bottom: "lstm1_video_sequence"
  bottom: "cont_sentence"
  top: "lstm2"
  recurrent_param {
    num_output: 1000
    weight_filler {
      type: "uniform"
      min: -0.08
      max: 0.08
    }
    bias_filler {
      type: "constant"
      value: 0
    }
  }
}
layer {
  name: "predict"
  type: "InnerProduct"
  bottom: "lstm2"
  top: "predict"
  param {
    lr_mult: 1
    decay_mult: 1
  }
  param {
    lr_mult: 2
    decay_mult: 0
  }
  inner_product_param {
    num_output: 46168
    weight_filler {
      type: "uniform"
      min: -0.08
      max: 0.08
    }
    bias_filler {
      type: "constant"
      value: 0
    }
    axis: 2
  }
}
layer {
  name: "probs"
  type: "Softmax"
  bottom: "predict"
  top: "probs"
  softmax_param {
    axis: 2
  }
}
I0721 12:35:25.177521  8000 net.cpp:49] Initializing net from parameters: 
name: "s2vt:features_to_lstm"
state {
  phase: TEST
}
layer {
  name: "input"
  type: "Input"
  top: "frames_fc7"
  top: "cont_sentence"
  top: "input_sentence"
  top: "stage_indicator"
  input_param {
    shape {
      dim: 1
      dim: 4096
    }
    shape {
      dim: 1
      dim: 1
    }
    shape {
      dim: 1
      dim: 1
    }
    shape {
      dim: 1
      dim: 1
    }
  }
}
layer {
  name: "embed_encoder"
  type: "InnerProduct"
  bottom: "frames_fc7"
  top: "embedded_in_frames"
  param {
    lr_mult: 1
    decay_mult: 1
  }
  param {
    lr_mult: 2
    decay_mult: 0
  }
  inner_product_param {
    num_output: 500
    weight_filler {
      type: "xavier"
    }
    bias_filler {
      type: "constant"
      value: 0.2
    }
  }
}
layer {
  name: "reshape_frames"
  type: "Reshape"
  bottom: "embedded_in_frames"
  top: "embedded_input_frames"
  reshape_param {
    shape {
      dim: 1
      dim: 1
      dim: 500
    }
  }
}
layer {
  name: "reshape_stage_indicator"
  type: "Reshape"
  bottom: "stage_indicator"
  top: "reshaped_stage_indicator"
  reshape_param {
    shape {
      dim: 1
      dim: 1
      dim: 1
    }
  }
}
layer {
  name: "embedding"
  type: "Embed"
  bottom: "input_sentence"
  top: "embedded_input_sentence"
  param {
    lr_mult: 1
  }
  embed_param {
    num_output: 500
    input_dim: 46168
    bias_term: false
    weight_filler {
      type: "uniform"
      min: -0.08
      max: 0.08
    }
  }
}
layer {
  name: "lstm1"
  type: "LSTM"
  bottom: "embedded_input_frames"
  bottom: "cont_sentence"
  top: "lstm1"
  recurrent_param {
    num_output: 1000
    weight_filler {
      type: "uniform"
      min: -0.08
      max: 0.08
    }
    bias_filler {
      type: "constant"
      value: 0
    }
  }
}
layer {
  name: "concat"
  type: "Concat"
  bottom: "lstm1"
  bottom: "embedded_input_sentence"
  bottom: "reshaped_stage_indicator"
  top: "lstm1_video_sequence"
  concat_param {
    concat_dim: 2
  }
}
layer {
  name: "lstm2"
  type: "LSTM"
  bottom: "lstm1_video_sequence"
  bottom: "cont_sentence"
  top: "lstm2"
  recurrent_param {
    num_output: 1000
    weight_filler {
      type: "uniform"
      min: -0.08
      max: 0.08
    }
    bias_filler {
      type: "constant"
      value: 0
    }
  }
}
layer {
  name: "predict"
  type: "InnerProduct"
  bottom: "lstm2"
  top: "predict"
  param {
    lr_mult: 1
    decay_mult: 1
  }
  param {
    lr_mult: 2
    decay_mult: 0
  }
  inner_product_param {
    num_output: 46168
    weight_filler {
      type: "uniform"
      min: -0.08
      max: 0.08
    }
    bias_filler {
      type: "constant"
      value: 0
    }
    axis: 2
  }
}
layer {
  name: "probs"
  type: "Softmax"
  bottom: "predict"
  top: "probs"
  softmax_param {
    axis: 2
  }
}
I0721 12:35:25.177693  7996 layer_factory.hpp:77] Creating layer input
I0721 12:35:25.177693  8000 layer_factory.hpp:77] Creating layer input
I0721 12:35:25.177723  7996 net.cpp:91] Creating Layer input
I0721 12:35:25.177723  8000 net.cpp:91] Creating Layer input
I0721 12:35:25.177741  7996 net.cpp:399] input -> frames_fc7
I0721 12:35:25.177742  8000 net.cpp:399] input -> frames_fc7
I0721 12:35:25.177767  7996 net.cpp:399] input -> cont_sentence
I0721 12:35:25.177767  8000 net.cpp:399] input -> cont_sentence
I0721 12:35:25.177793  8000 net.cpp:399] input -> input_sentence
I0721 12:35:25.177793  7996 net.cpp:399] input -> input_sentence
I0721 12:35:25.177814  7996 net.cpp:399] input -> stage_indicator
I0721 12:35:25.177816  8000 net.cpp:399] input -> stage_indicator
I0721 12:35:25.940198  8009 net.cpp:141] Setting up data
I0721 12:35:25.940261  8009 net.cpp:148] Top shape: 10 3 227 227 (1545870)
I0721 12:35:25.940268  8009 net.cpp:156] Memory required for data: 6183480
I0721 12:35:25.940285  8009 layer_factory.hpp:77] Creating layer conv1
I0721 12:35:25.940322  8009 net.cpp:91] Creating Layer conv1
I0721 12:35:25.940336  8009 net.cpp:425] conv1 <- data
I0721 12:35:25.940349  8009 net.cpp:399] conv1 -> conv1
I0721 12:35:25.940383  8000 net.cpp:141] Setting up input
I0721 12:35:25.940403  8000 net.cpp:148] Top shape: 1 4096 (4096)
I0721 12:35:25.940410  8000 net.cpp:148] Top shape: 1 1 (1)
I0721 12:35:25.940415  8000 net.cpp:148] Top shape: 1 1 (1)
I0721 12:35:25.940420  8000 net.cpp:148] Top shape: 1 1 (1)
I0721 12:35:25.940424  8000 net.cpp:156] Memory required for data: 16396
I0721 12:35:25.940430  8000 layer_factory.hpp:77] Creating layer cont_sentence_input_1_split
I0721 12:35:25.940448  8000 net.cpp:91] Creating Layer cont_sentence_input_1_split
I0721 12:35:25.940454  8000 net.cpp:425] cont_sentence_input_1_split <- cont_sentence
I0721 12:35:25.940474  8000 net.cpp:399] cont_sentence_input_1_split -> cont_sentence_input_1_split_0
I0721 12:35:25.940485  8000 net.cpp:399] cont_sentence_input_1_split -> cont_sentence_input_1_split_1
I0721 12:35:25.940608  8000 net.cpp:141] Setting up cont_sentence_input_1_split
I0721 12:35:25.940618  8000 net.cpp:148] Top shape: 1 1 (1)
I0721 12:35:25.940624  8000 net.cpp:148] Top shape: 1 1 (1)
I0721 12:35:25.940629  8000 net.cpp:156] Memory required for data: 16404
I0721 12:35:25.940634  8000 layer_factory.hpp:77] Creating layer embed_encoder
I0721 12:35:25.940651  8000 net.cpp:91] Creating Layer embed_encoder
I0721 12:35:25.940656  8000 net.cpp:425] embed_encoder <- frames_fc7
I0721 12:35:25.940666  8000 net.cpp:399] embed_encoder -> embedded_in_frames
I0721 12:35:25.949975  8015 net.cpp:141] Setting up data
I0721 12:35:25.950016  8015 net.cpp:148] Top shape: 10 3 227 227 (1545870)
I0721 12:35:25.950021  8015 net.cpp:156] Memory required for data: 6183480
I0721 12:35:25.950029  8015 layer_factory.hpp:77] Creating layer conv1
I0721 12:35:25.950053  8015 net.cpp:91] Creating Layer conv1
I0721 12:35:25.950059  8015 net.cpp:425] conv1 <- data
I0721 12:35:25.950067  8015 net.cpp:399] conv1 -> conv1
I0721 12:35:25.952034  7996 net.cpp:141] Setting up input
I0721 12:35:25.952056  7996 net.cpp:148] Top shape: 1 4096 (4096)
I0721 12:35:25.952064  7996 net.cpp:148] Top shape: 1 1 (1)
I0721 12:35:25.952069  7996 net.cpp:148] Top shape: 1 1 (1)
I0721 12:35:25.952075  7996 net.cpp:148] Top shape: 1 1 (1)
I0721 12:35:25.952080  7996 net.cpp:156] Memory required for data: 16396
I0721 12:35:25.952085  7996 layer_factory.hpp:77] Creating layer cont_sentence_input_1_split
I0721 12:35:25.952095  7996 net.cpp:91] Creating Layer cont_sentence_input_1_split
I0721 12:35:25.952101  7996 net.cpp:425] cont_sentence_input_1_split <- cont_sentence
I0721 12:35:25.952110  7996 net.cpp:399] cont_sentence_input_1_split -> cont_sentence_input_1_split_0
I0721 12:35:25.952121  7996 net.cpp:399] cont_sentence_input_1_split -> cont_sentence_input_1_split_1
I0721 12:35:25.952219  7996 net.cpp:141] Setting up cont_sentence_input_1_split
I0721 12:35:25.952229  7996 net.cpp:148] Top shape: 1 1 (1)
I0721 12:35:25.952235  7996 net.cpp:148] Top shape: 1 1 (1)
I0721 12:35:25.952239  7996 net.cpp:156] Memory required for data: 16404
I0721 12:35:25.952244  7996 layer_factory.hpp:77] Creating layer embed_encoder
I0721 12:35:25.952256  7996 net.cpp:91] Creating Layer embed_encoder
I0721 12:35:25.952261  7996 net.cpp:425] embed_encoder <- frames_fc7
I0721 12:35:25.952282  7996 net.cpp:399] embed_encoder -> embedded_in_frames
I0721 12:35:26.005373  8000 net.cpp:141] Setting up embed_encoder
I0721 12:35:26.005412  8000 net.cpp:148] Top shape: 1 500 (500)
I0721 12:35:26.005417  8000 net.cpp:156] Memory required for data: 18404
I0721 12:35:26.005444  8000 layer_factory.hpp:77] Creating layer reshape_frames
I0721 12:35:26.005470  8000 net.cpp:91] Creating Layer reshape_frames
I0721 12:35:26.005476  8000 net.cpp:425] reshape_frames <- embedded_in_frames
I0721 12:35:26.005487  8000 net.cpp:399] reshape_frames -> embedded_input_frames
I0721 12:35:26.008291  8000 net.cpp:141] Setting up reshape_frames
I0721 12:35:26.008316  8000 net.cpp:148] Top shape: 1 1 500 (500)
I0721 12:35:26.008322  8000 net.cpp:156] Memory required for data: 20404
I0721 12:35:26.008328  8000 layer_factory.hpp:77] Creating layer reshape_stage_indicator
I0721 12:35:26.008343  8000 net.cpp:91] Creating Layer reshape_stage_indicator
I0721 12:35:26.008349  8000 net.cpp:425] reshape_stage_indicator <- stage_indicator
I0721 12:35:26.008363  8000 net.cpp:399] reshape_stage_indicator -> reshaped_stage_indicator
I0721 12:35:26.013900  8000 net.cpp:141] Setting up reshape_stage_indicator
I0721 12:35:26.013933  8000 net.cpp:148] Top shape: 1 1 1 (1)
I0721 12:35:26.013939  8000 net.cpp:156] Memory required for data: 20408
I0721 12:35:26.013945  8000 layer_factory.hpp:77] Creating layer embedding
I0721 12:35:26.013967  8000 net.cpp:91] Creating Layer embedding
I0721 12:35:26.013973  8000 net.cpp:425] embedding <- input_sentence
I0721 12:35:26.013984  8000 net.cpp:399] embedding -> embedded_input_sentence
I0721 12:35:26.024703  7996 net.cpp:141] Setting up embed_encoder
I0721 12:35:26.024744  7996 net.cpp:148] Top shape: 1 500 (500)
I0721 12:35:26.024749  7996 net.cpp:156] Memory required for data: 18404
I0721 12:35:26.024770  7996 layer_factory.hpp:77] Creating layer reshape_frames
I0721 12:35:26.024786  7996 net.cpp:91] Creating Layer reshape_frames
I0721 12:35:26.024793  7996 net.cpp:425] reshape_frames <- embedded_in_frames
I0721 12:35:26.024802  7996 net.cpp:399] reshape_frames -> embedded_input_frames
I0721 12:35:26.065330  7996 net.cpp:141] Setting up reshape_frames
I0721 12:35:26.065376  7996 net.cpp:148] Top shape: 1 1 500 (500)
I0721 12:35:26.065382  7996 net.cpp:156] Memory required for data: 20404
I0721 12:35:26.065392  7996 layer_factory.hpp:77] Creating layer reshape_stage_indicator
I0721 12:35:26.065412  7996 net.cpp:91] Creating Layer reshape_stage_indicator
I0721 12:35:26.065418  7996 net.cpp:425] reshape_stage_indicator <- stage_indicator
I0721 12:35:26.065433  7996 net.cpp:399] reshape_stage_indicator -> reshaped_stage_indicator
I0721 12:35:26.073210  7996 net.cpp:141] Setting up reshape_stage_indicator
I0721 12:35:26.073277  7996 net.cpp:148] Top shape: 1 1 1 (1)
I0721 12:35:26.073293  7996 net.cpp:156] Memory required for data: 20408
I0721 12:35:26.073312  7996 layer_factory.hpp:77] Creating layer embedding
I0721 12:35:26.073346  7996 net.cpp:91] Creating Layer embedding
I0721 12:35:26.073366  7996 net.cpp:425] embedding <- input_sentence
I0721 12:35:26.073401  7996 net.cpp:399] embedding -> embedded_input_sentence
I0721 12:35:26.288213  8000 net.cpp:141] Setting up embedding
I0721 12:35:26.288260  8000 net.cpp:148] Top shape: 1 1 500 (500)
I0721 12:35:26.288269  8000 net.cpp:156] Memory required for data: 22408
I0721 12:35:26.288285  8000 layer_factory.hpp:77] Creating layer lstm1
I0721 12:35:26.288305  8000 net.cpp:91] Creating Layer lstm1
I0721 12:35:26.288311  8000 net.cpp:425] lstm1 <- embedded_input_frames
I0721 12:35:26.288319  8000 net.cpp:425] lstm1 <- cont_sentence_input_1_split_0
I0721 12:35:26.288327  8000 net.cpp:399] lstm1 -> lstm1
I0721 12:35:26.288350  8000 recurrent_layer.cpp:20] Initializing recurrent layer: assuming input batch contains 1 timesteps of 1 independent streams.
I0721 12:35:26.288766  8000 net.cpp:49] Initializing net from parameters: 
layer {
  name: "lstm1_"
  type: "Input"
  top: "x"
  top: "cont"
  input_param {
    shape {
      dim: 1
      dim: 1
      dim: 500
    }
    shape {
      dim: 1
      dim: 1
    }
  }
}
layer {
  name: "lstm1_"
  type: "Input"
  top: "c_0"
  top: "h_0"
  input_param {
    shape {
      dim: 1
      dim: 1
      dim: 1000
    }
    shape {
      dim: 1
      dim: 1
      dim: 1000
    }
  }
}
layer {
  name: "lstm1_cont_slice"
  type: "Slice"
  bottom: "cont"
  top: "cont_1"
  slice_param {
    axis: 0
  }
}
layer {
  name: "lstm1_x_transform"
  type: "InnerProduct"
  bottom: "x"
  top: "W_xc_x"
  param {
    name: "W_xc"
  }
  param {
    name: "b_c"
  }
  propagate_down: true
  inner_product_param {
    num_output: 4000
    bias_term: true
    weight_filler {
      type: "uniform"
      min: -0.08
      max: 0.08
    }
    bias_filler {
      type: "constant"
      value: 0
    }
    axis: 2
  }
}
layer {
  name: "lstm1_W_xc_x_slice"
  type: "Slice"
  bottom: "W_xc_x"
  top: "W_xc_x_1"
  slice_param {
    axis: 0
  }
}
layer {
  name: "lstm1_h_conted_0"
  type: "Scale"
  bottom: "h_0"
  bottom: "cont_1"
  top: "h_conted_0"
  scale_param {
    axis: 0
  }
}
layer {
  name: "lstm1_transform_1"
  type: "InnerProduct"
  bottom: "h_conted_0"
  top: "W_hc_h_0"
  param {
    name: "W_hc"
  }
  inner_product_param {
    num_output: 4000
    bias_term: false
    weight_filler {
      type: "uniform"
      min: -0.08
      max: 0.08
    }
    axis: 2
  }
}
layer {
  name: "lstm1_gate_input_1"
  type: "Eltwise"
  bottom: "W_hc_h_0"
  bottom: "W_xc_x_1"
  top: "gate_input_1"
  eltwise_param {
    operation: SUM
  }
}
layer {
  name: "lstm1_unit_1"
  type: "LSTMUnit"
  bottom: "c_0"
  bottom: "gate_input_1"
  bottom: "cont_1"
  top: "c_1"
  top: "h_1"
}
layer {
  name: "lstm1_"
  type: "Split"
  bottom: "c_1"
  top: "c_T"
}
layer {
  name: "lstm1_h_concat"
  type: "Concat"
  bottom: "h_1"
  top: "h"
  concat_param {
    axis: 0
  }
}
layer {
  name: "h_pseudoloss"
  type: "Reduction"
  bottom: "h"
  top: "h_pseudoloss"
  loss_weight: 1
}
I0721 12:35:26.288857  8000 layer_factory.hpp:77] Creating layer lstm1_
I0721 12:35:26.288869  8000 net.cpp:91] Creating Layer lstm1_
I0721 12:35:26.288875  8000 net.cpp:399] lstm1_ -> x
I0721 12:35:26.288887  8000 net.cpp:399] lstm1_ -> cont
I0721 12:35:26.291865  8000 net.cpp:141] Setting up lstm1_
I0721 12:35:26.291890  8000 net.cpp:148] Top shape: 1 1 500 (500)
I0721 12:35:26.291901  8000 net.cpp:148] Top shape: 1 1 (1)
I0721 12:35:26.291908  8000 net.cpp:156] Memory required for data: 2004
I0721 12:35:26.291916  8000 layer_factory.hpp:77] Creating layer lstm1_
I0721 12:35:26.291939  8000 net.cpp:91] Creating Layer lstm1_
I0721 12:35:26.291952  8000 net.cpp:399] lstm1_ -> c_0
I0721 12:35:26.291970  8000 net.cpp:399] lstm1_ -> h_0
I0721 12:35:26.298082  8000 net.cpp:141] Setting up lstm1_
I0721 12:35:26.298111  8000 net.cpp:148] Top shape: 1 1 1000 (1000)
I0721 12:35:26.298122  8000 net.cpp:148] Top shape: 1 1 1000 (1000)
I0721 12:35:26.298130  8000 net.cpp:156] Memory required for data: 10004
I0721 12:35:26.298140  8000 layer_factory.hpp:77] Creating layer lstm1_cont_slice
I0721 12:35:26.298159  8000 net.cpp:91] Creating Layer lstm1_cont_slice
I0721 12:35:26.298169  8000 net.cpp:425] lstm1_cont_slice <- cont
I0721 12:35:26.298182  8000 net.cpp:399] lstm1_cont_slice -> cont_1
I0721 12:35:26.302541  8000 net.cpp:141] Setting up lstm1_cont_slice
I0721 12:35:26.302572  8000 net.cpp:148] Top shape: 1 1 (1)
I0721 12:35:26.302582  8000 net.cpp:156] Memory required for data: 10008
I0721 12:35:26.302590  8000 layer_factory.hpp:77] Creating layer cont_1_lstm1_cont_slice_0_split
I0721 12:35:26.302604  8000 net.cpp:91] Creating Layer cont_1_lstm1_cont_slice_0_split
I0721 12:35:26.302609  8000 net.cpp:425] cont_1_lstm1_cont_slice_0_split <- cont_1
I0721 12:35:26.302623  8000 net.cpp:399] cont_1_lstm1_cont_slice_0_split -> cont_1_lstm1_cont_slice_0_split_0
I0721 12:35:26.302639  8000 net.cpp:399] cont_1_lstm1_cont_slice_0_split -> cont_1_lstm1_cont_slice_0_split_1
I0721 12:35:26.305950  8000 net.cpp:141] Setting up cont_1_lstm1_cont_slice_0_split
I0721 12:35:26.305980  8000 net.cpp:148] Top shape: 1 1 (1)
I0721 12:35:26.305992  8000 net.cpp:148] Top shape: 1 1 (1)
I0721 12:35:26.306000  8000 net.cpp:156] Memory required for data: 10016
I0721 12:35:26.306010  8000 layer_factory.hpp:77] Creating layer lstm1_x_transform
I0721 12:35:26.306048  8000 net.cpp:91] Creating Layer lstm1_x_transform
I0721 12:35:26.306059  8000 net.cpp:425] lstm1_x_transform <- x
I0721 12:35:26.306074  8000 net.cpp:399] lstm1_x_transform -> W_xc_x
I0721 12:35:26.313566  7996 net.cpp:141] Setting up embedding
I0721 12:35:26.313606  7996 net.cpp:148] Top shape: 1 1 500 (500)
I0721 12:35:26.313611  7996 net.cpp:156] Memory required for data: 22408
I0721 12:35:26.313627  7996 layer_factory.hpp:77] Creating layer lstm1
I0721 12:35:26.313652  7996 net.cpp:91] Creating Layer lstm1
I0721 12:35:26.313660  7996 net.cpp:425] lstm1 <- embedded_input_frames
I0721 12:35:26.313668  7996 net.cpp:425] lstm1 <- cont_sentence_input_1_split_0
I0721 12:35:26.313678  7996 net.cpp:399] lstm1 -> lstm1
I0721 12:35:26.313694  7996 recurrent_layer.cpp:20] Initializing recurrent layer: assuming input batch contains 1 timesteps of 1 independent streams.
I0721 12:35:26.313948  7996 net.cpp:49] Initializing net from parameters: 
layer {
  name: "lstm1_"
  type: "Input"
  top: "x"
  top: "cont"
  input_param {
    shape {
      dim: 1
      dim: 1
      dim: 500
    }
    shape {
      dim: 1
      dim: 1
    }
  }
}
layer {
  name: "lstm1_"
  type: "Input"
  top: "c_0"
  top: "h_0"
  input_param {
    shape {
      dim: 1
      dim: 1
      dim: 1000
    }
    shape {
      dim: 1
      dim: 1
      dim: 1000
    }
  }
}
layer {
  name: "lstm1_cont_slice"
  type: "Slice"
  bottom: "cont"
  top: "cont_1"
  slice_param {
    axis: 0
  }
}
layer {
  name: "lstm1_x_transform"
  type: "InnerProduct"
  bottom: "x"
  top: "W_xc_x"
  param {
    name: "W_xc"
  }
  param {
    name: "b_c"
  }
  propagate_down: true
  inner_product_param {
    num_output: 4000
    bias_term: true
    weight_filler {
      type: "uniform"
      min: -0.08
      max: 0.08
    }
    bias_filler {
      type: "constant"
      value: 0
    }
    axis: 2
  }
}
layer {
  name: "lstm1_W_xc_x_slice"
  type: "Slice"
  bottom: "W_xc_x"
  top: "W_xc_x_1"
  slice_param {
    axis: 0
  }
}
layer {
  name: "lstm1_h_conted_0"
  type: "Scale"
  bottom: "h_0"
  bottom: "cont_1"
  top: "h_conted_0"
  scale_param {
    axis: 0
  }
}
layer {
  name: "lstm1_transform_1"
  type: "InnerProduct"
  bottom: "h_conted_0"
  top: "W_hc_h_0"
  param {
    name: "W_hc"
  }
  inner_product_param {
    num_output: 4000
    bias_term: false
    weight_filler {
      type: "uniform"
      min: -0.08
      max: 0.08
    }
    axis: 2
  }
}
layer {
  name: "lstm1_gate_input_1"
  type: "Eltwise"
  bottom: "W_hc_h_0"
  bottom: "W_xc_x_1"
  top: "gate_input_1"
  eltwise_param {
    operation: SUM
  }
}
layer {
  name: "lstm1_unit_1"
  type: "LSTMUnit"
  bottom: "c_0"
  bottom: "gate_input_1"
  bottom: "cont_1"
  top: "c_1"
  top: "h_1"
}
layer {
  name: "lstm1_"
  type: "Split"
  bottom: "c_1"
  top: "c_T"
}
layer {
  name: "lstm1_h_concat"
  type: "Concat"
  bottom: "h_1"
  top: "h"
  concat_param {
    axis: 0
  }
}
layer {
  name: "h_pseudoloss"
  type: "Reduction"
  bottom: "h"
  top: "h_pseudoloss"
  loss_weight: 1
}
I0721 12:35:26.314040  7996 layer_factory.hpp:77] Creating layer lstm1_
I0721 12:35:26.314052  7996 net.cpp:91] Creating Layer lstm1_
I0721 12:35:26.314059  7996 net.cpp:399] lstm1_ -> x
I0721 12:35:26.314070  7996 net.cpp:399] lstm1_ -> cont
I0721 12:35:26.319463  7996 net.cpp:141] Setting up lstm1_
I0721 12:35:26.319494  7996 net.cpp:148] Top shape: 1 1 500 (500)
I0721 12:35:26.319500  7996 net.cpp:148] Top shape: 1 1 (1)
I0721 12:35:26.319504  7996 net.cpp:156] Memory required for data: 2004
I0721 12:35:26.319511  7996 layer_factory.hpp:77] Creating layer lstm1_
I0721 12:35:26.319527  7996 net.cpp:91] Creating Layer lstm1_
I0721 12:35:26.319537  7996 net.cpp:399] lstm1_ -> c_0
I0721 12:35:26.319551  7996 net.cpp:399] lstm1_ -> h_0
I0721 12:35:26.324898  7996 net.cpp:141] Setting up lstm1_
I0721 12:35:26.324923  7996 net.cpp:148] Top shape: 1 1 1000 (1000)
I0721 12:35:26.324929  7996 net.cpp:148] Top shape: 1 1 1000 (1000)
I0721 12:35:26.324934  7996 net.cpp:156] Memory required for data: 10004
I0721 12:35:26.324939  7996 layer_factory.hpp:77] Creating layer lstm1_cont_slice
I0721 12:35:26.324951  7996 net.cpp:91] Creating Layer lstm1_cont_slice
I0721 12:35:26.324956  7996 net.cpp:425] lstm1_cont_slice <- cont
I0721 12:35:26.324967  7996 net.cpp:399] lstm1_cont_slice -> cont_1
I0721 12:35:26.329038  7996 net.cpp:141] Setting up lstm1_cont_slice
I0721 12:35:26.329058  7996 net.cpp:148] Top shape: 1 1 (1)
I0721 12:35:26.329063  7996 net.cpp:156] Memory required for data: 10008
I0721 12:35:26.329068  7996 layer_factory.hpp:77] Creating layer cont_1_lstm1_cont_slice_0_split
I0721 12:35:26.329077  7996 net.cpp:91] Creating Layer cont_1_lstm1_cont_slice_0_split
I0721 12:35:26.329082  7996 net.cpp:425] cont_1_lstm1_cont_slice_0_split <- cont_1
I0721 12:35:26.329092  7996 net.cpp:399] cont_1_lstm1_cont_slice_0_split -> cont_1_lstm1_cont_slice_0_split_0
I0721 12:35:26.329102  7996 net.cpp:399] cont_1_lstm1_cont_slice_0_split -> cont_1_lstm1_cont_slice_0_split_1
I0721 12:35:26.335672  7996 net.cpp:141] Setting up cont_1_lstm1_cont_slice_0_split
I0721 12:35:26.335700  7996 net.cpp:148] Top shape: 1 1 (1)
I0721 12:35:26.335707  7996 net.cpp:148] Top shape: 1 1 (1)
I0721 12:35:26.335711  7996 net.cpp:156] Memory required for data: 10016
I0721 12:35:26.335716  7996 layer_factory.hpp:77] Creating layer lstm1_x_transform
I0721 12:35:26.335736  7996 net.cpp:91] Creating Layer lstm1_x_transform
I0721 12:35:26.335742  7996 net.cpp:425] lstm1_x_transform <- x
I0721 12:35:26.335752  7996 net.cpp:399] lstm1_x_transform -> W_xc_x
I0721 12:35:26.354382  8000 net.cpp:141] Setting up lstm1_x_transform
I0721 12:35:26.354434  8000 net.cpp:148] Top shape: 1 1 4000 (4000)
I0721 12:35:26.354442  8000 net.cpp:156] Memory required for data: 26016
I0721 12:35:26.354470  8000 layer_factory.hpp:77] Creating layer lstm1_W_xc_x_slice
I0721 12:35:26.354485  8000 net.cpp:91] Creating Layer lstm1_W_xc_x_slice
I0721 12:35:26.354491  8000 net.cpp:425] lstm1_W_xc_x_slice <- W_xc_x
I0721 12:35:26.354501  8000 net.cpp:399] lstm1_W_xc_x_slice -> W_xc_x_1
I0721 12:35:26.356964  8000 net.cpp:141] Setting up lstm1_W_xc_x_slice
I0721 12:35:26.356992  8000 net.cpp:148] Top shape: 1 1 4000 (4000)
I0721 12:35:26.357000  8000 net.cpp:156] Memory required for data: 42016
I0721 12:35:26.357010  8000 layer_factory.hpp:77] Creating layer lstm1_h_conted_0
I0721 12:35:26.357035  8000 net.cpp:91] Creating Layer lstm1_h_conted_0
I0721 12:35:26.357045  8000 net.cpp:425] lstm1_h_conted_0 <- h_0
I0721 12:35:26.357055  8000 net.cpp:425] lstm1_h_conted_0 <- cont_1_lstm1_cont_slice_0_split_0
I0721 12:35:26.357066  8000 net.cpp:399] lstm1_h_conted_0 -> h_conted_0
I0721 12:35:26.366000  8000 net.cpp:141] Setting up lstm1_h_conted_0
I0721 12:35:26.366042  8000 net.cpp:148] Top shape: 1 1 1000 (1000)
I0721 12:35:26.366052  8000 net.cpp:156] Memory required for data: 46016
I0721 12:35:26.366063  8000 layer_factory.hpp:77] Creating layer lstm1_transform_1
I0721 12:35:26.366089  8000 net.cpp:91] Creating Layer lstm1_transform_1
I0721 12:35:26.366099  8000 net.cpp:425] lstm1_transform_1 <- h_conted_0
I0721 12:35:26.366117  8000 net.cpp:399] lstm1_transform_1 -> W_hc_h_0
I0721 12:35:26.388288  7996 net.cpp:141] Setting up lstm1_x_transform
I0721 12:35:26.388334  7996 net.cpp:148] Top shape: 1 1 4000 (4000)
I0721 12:35:26.388342  7996 net.cpp:156] Memory required for data: 26016
I0721 12:35:26.388370  7996 layer_factory.hpp:77] Creating layer lstm1_W_xc_x_slice
I0721 12:35:26.388397  7996 net.cpp:91] Creating Layer lstm1_W_xc_x_slice
I0721 12:35:26.388408  7996 net.cpp:425] lstm1_W_xc_x_slice <- W_xc_x
I0721 12:35:26.388422  7996 net.cpp:399] lstm1_W_xc_x_slice -> W_xc_x_1
I0721 12:35:26.392885  7996 net.cpp:141] Setting up lstm1_W_xc_x_slice
I0721 12:35:26.392913  7996 net.cpp:148] Top shape: 1 1 4000 (4000)
I0721 12:35:26.392922  7996 net.cpp:156] Memory required for data: 42016
I0721 12:35:26.392931  7996 layer_factory.hpp:77] Creating layer lstm1_h_conted_0
I0721 12:35:26.392948  7996 net.cpp:91] Creating Layer lstm1_h_conted_0
I0721 12:35:26.392957  7996 net.cpp:425] lstm1_h_conted_0 <- h_0
I0721 12:35:26.392969  7996 net.cpp:425] lstm1_h_conted_0 <- cont_1_lstm1_cont_slice_0_split_0
I0721 12:35:26.392987  7996 net.cpp:399] lstm1_h_conted_0 -> h_conted_0
I0721 12:35:26.423727  7996 net.cpp:141] Setting up lstm1_h_conted_0
I0721 12:35:26.423773  7996 net.cpp:148] Top shape: 1 1 1000 (1000)
I0721 12:35:26.423780  7996 net.cpp:156] Memory required for data: 46016
I0721 12:35:26.423792  7996 layer_factory.hpp:77] Creating layer lstm1_transform_1
I0721 12:35:26.423816  7996 net.cpp:91] Creating Layer lstm1_transform_1
I0721 12:35:26.423826  7996 net.cpp:425] lstm1_transform_1 <- h_conted_0
I0721 12:35:26.423847  7996 net.cpp:399] lstm1_transform_1 -> W_hc_h_0
I0721 12:35:26.424762  8000 net.cpp:141] Setting up lstm1_transform_1
I0721 12:35:26.424782  8000 net.cpp:148] Top shape: 1 1 4000 (4000)
I0721 12:35:26.424787  8000 net.cpp:156] Memory required for data: 62016
I0721 12:35:26.424804  8000 layer_factory.hpp:77] Creating layer lstm1_gate_input_1
I0721 12:35:26.424831  8000 net.cpp:91] Creating Layer lstm1_gate_input_1
I0721 12:35:26.424844  8000 net.cpp:425] lstm1_gate_input_1 <- W_hc_h_0
I0721 12:35:26.424854  8000 net.cpp:425] lstm1_gate_input_1 <- W_xc_x_1
I0721 12:35:26.424867  8000 net.cpp:399] lstm1_gate_input_1 -> gate_input_1
I0721 12:35:26.443696  8000 net.cpp:141] Setting up lstm1_gate_input_1
I0721 12:35:26.443750  8000 net.cpp:148] Top shape: 1 1 4000 (4000)
I0721 12:35:26.443760  8000 net.cpp:156] Memory required for data: 78016
I0721 12:35:26.443771  8000 layer_factory.hpp:77] Creating layer lstm1_unit_1
I0721 12:35:26.443800  8000 net.cpp:91] Creating Layer lstm1_unit_1
I0721 12:35:26.443810  8000 net.cpp:425] lstm1_unit_1 <- c_0
I0721 12:35:26.443823  8000 net.cpp:425] lstm1_unit_1 <- gate_input_1
I0721 12:35:26.443831  8000 net.cpp:425] lstm1_unit_1 <- cont_1_lstm1_cont_slice_0_split_1
I0721 12:35:26.443842  8000 net.cpp:399] lstm1_unit_1 -> c_1
I0721 12:35:26.443861  8000 net.cpp:399] lstm1_unit_1 -> h_1
I0721 12:35:26.456146  8000 net.cpp:141] Setting up lstm1_unit_1
I0721 12:35:26.456199  8000 net.cpp:148] Top shape: 1 1 1000 (1000)
I0721 12:35:26.456212  8000 net.cpp:148] Top shape: 1 1 1000 (1000)
I0721 12:35:26.456220  8000 net.cpp:156] Memory required for data: 86016
I0721 12:35:26.456233  8000 layer_factory.hpp:77] Creating layer lstm1_
I0721 12:35:26.456251  8000 net.cpp:91] Creating Layer lstm1_
I0721 12:35:26.456260  8000 net.cpp:425] lstm1_ <- c_1
I0721 12:35:26.456274  8000 net.cpp:399] lstm1_ -> c_T
I0721 12:35:26.458966  8000 net.cpp:141] Setting up lstm1_
I0721 12:35:26.458991  8000 net.cpp:148] Top shape: 1 1 1000 (1000)
I0721 12:35:26.458999  8000 net.cpp:156] Memory required for data: 90016
I0721 12:35:26.459008  8000 layer_factory.hpp:77] Creating layer lstm1_h_concat
I0721 12:35:26.459027  8000 net.cpp:91] Creating Layer lstm1_h_concat
I0721 12:35:26.459034  8000 net.cpp:425] lstm1_h_concat <- h_1
I0721 12:35:26.459048  8000 net.cpp:399] lstm1_h_concat -> h
I0721 12:35:26.461735  8000 net.cpp:141] Setting up lstm1_h_concat
I0721 12:35:26.461760  8000 net.cpp:148] Top shape: 1 1 1000 (1000)
I0721 12:35:26.461769  8000 net.cpp:156] Memory required for data: 94016
I0721 12:35:26.461778  8000 layer_factory.hpp:77] Creating layer h_pseudoloss
I0721 12:35:26.461801  8000 net.cpp:91] Creating Layer h_pseudoloss
I0721 12:35:26.461810  8000 net.cpp:425] h_pseudoloss <- h
I0721 12:35:26.461822  8000 net.cpp:399] h_pseudoloss -> h_pseudoloss
I0721 12:35:26.471745  8000 net.cpp:141] Setting up h_pseudoloss
…
I0721 12:35:26.471935  8000 net.cpp:219] lstm1_ does not need backward computation.
I0721 12:35:26.471942  8000 net.cpp:261] This network produces output c_T
I0721 12:35:26.471951  8000 net.cpp:261] This network produces output h_pseudoloss
I0721 12:35:26.471982  8000 net.cpp:274] Network initialization done.
I0721 12:35:26.472059  8000 recurrent_layer.cpp:150] Adding parameter 0: W_xc
I0721 12:35:26.472070  8000 recurrent_layer.cpp:150] Adding parameter 1: b_c
I0721 12:35:26.472077  8000 recurrent_layer.cpp:150] Adding parameter 2: W_hc
I0721 12:35:26.473069  8009 net.cpp:141] Setting up conv1
I0721 12:35:26.473095  8009 net.cpp:148] Top shape: 10 96 55 55 (2904000)
I0721 12:35:26.473101  8009 net.cpp:156] Memory required for data: 17799480
I0721 12:35:26.473119  8009 layer_factory.hpp:77] Creating layer relu1
I0721 12:35:26.473134  8009 net.cpp:91] Creating Layer relu1
I0721 12:35:26.473140  8009 net.cpp:425] relu1 <- conv1
I0721 12:35:26.473146  8009 net.cpp:386] relu1 -> conv1 (in-place)
I0721 12:35:26.476878  8009 net.cpp:141] Setting up relu1
I0721 12:35:26.476902  8009 net.cpp:148] Top shape: 10 96 55 55 (2904000)
I0721 12:35:26.476908  8009 net.cpp:156] Memory required for data: 29415480
I0721 12:35:26.476914  8009 layer_factory.hpp:77] Creating layer pool1
I0721 12:35:26.476927  8009 net.cpp:91] Creating Layer pool1
I0721 12:35:26.476933  8009 net.cpp:425] pool1 <- conv1
I0721 12:35:26.476940  8009 net.cpp:399] pool1 -> pool1
I0721 12:35:26.477649  8000 net.cpp:141] Setting up lstm1
I0721 12:35:26.477668  8000 net.cpp:148] Top shape: 1 1 1000 (1000)
I0721 12:35:26.477672  8000 net.cpp:156] Memory required for data: 26408
I0721 12:35:26.477686  8000 layer_factory.hpp:77] Creating layer concat
I0721 12:35:26.477696  8000 net.cpp:91] Creating Layer concat
I0721 12:35:26.477701  8000 net.cpp:425] concat <- lstm1
I0721 12:35:26.477710  8000 net.cpp:425] concat <- embedded_input_sentence
I0721 12:35:26.477720  8000 net.cpp:425] concat <- reshaped_stage_indicator
I0721 12:35:26.477730  8000 net.cpp:399] concat -> lstm1_video_sequence
I0721 12:35:26.477826  7996 net.cpp:141] Setting up lstm1_transform_1
I0721 12:35:26.477845  7996 net.cpp:148] Top shape: 1 1 4000 (4000)
I0721 12:35:26.477850  7996 net.cpp:156] Memory required for data: 62016
I0721 12:35:26.477851  8000 net.cpp:141] Setting up concat
I0721 12:35:26.477861  7996 layer_factory.hpp:77] Creating layer lstm1_gate_input_1
I0721 12:35:26.477869  8000 net.cpp:148] Top shape: 1 1 1501 (1501)
I0721 12:35:26.477876  7996 net.cpp:91] Creating Layer lstm1_gate_input_1
I0721 12:35:26.477877  8000 net.cpp:156] Memory required for data: 32412
I0721 12:35:26.477882  7996 net.cpp:425] lstm1_gate_input_1 <- W_hc_h_0
I0721 12:35:26.477886  8000 layer_factory.hpp:77] Creating layer lstm2
I0721 12:35:26.477888  7996 net.cpp:425] lstm1_gate_input_1 <- W_xc_x_1
I0721 12:35:26.477905  7996 net.cpp:399] lstm1_gate_input_1 -> gate_input_1
I0721 12:35:26.477907  8000 net.cpp:91] Creating Layer lstm2
I0721 12:35:26.477917  8000 net.cpp:425] lstm2 <- lstm1_video_sequence
I0721 12:35:26.477927  8009 net.cpp:141] Setting up pool1
I0721 12:35:26.477927  8000 net.cpp:425] lstm2 <- cont_sentence_input_1_split_1
I0721 12:35:26.477951  8009 net.cpp:148] Top shape: 10 96 27 27 (699840)
I0721 12:35:26.477955  8009 net.cpp:156] Memory required for data: 32214840
I0721 12:35:26.477962  8009 layer_factory.hpp:77] Creating layer norm1
I0721 12:35:26.477959  8000 net.cpp:399] lstm2 -> lstm2
I0721 12:35:26.477978  8009 net.cpp:91] Creating Layer norm1
I0721 12:35:26.477978  8000 recurrent_layer.cpp:20] Initializing recurrent layer: assuming input batch contains 1 timesteps of 1 independent streams.
I0721 12:35:26.477983  8009 net.cpp:425] norm1 <- pool1
I0721 12:35:26.477998  8009 net.cpp:399] norm1 -> norm1
I0721 12:35:26.478325  8000 net.cpp:49] Initializing net from parameters: 
layer {
  name: "lstm2_"
  type: "Input"
  top: "x"
  top: "cont"
  input_param {
    shape {
      dim: 1
      dim: 1
      dim: 1501
    }
    shape {
      dim: 1
      dim: 1
    }
  }
}
layer {
  name: "lstm2_"
  type: "Input"
  top: "c_0"
  top: "h_0"
  input_param {
    shape {
      dim: 1
      dim: 1
      dim: 1000
    }
    shape {
      dim: 1
      dim: 1
      dim: 1000
    }
  }
}
layer {
  name: "lstm2_cont_slice"
  type: "Slice"
  bottom: "cont"
  top: "cont_1"
  slice_param {
    axis: 0
  }
}
layer {
  name: "lstm2_x_transform"
  type: "InnerProduct"
  bottom: "x"
  top: "W_xc_x"
  param {
    name: "W_xc"
  }
  param {
    name: "b_c"
  }
  propagate_down: true
  inner_product_param {
    num_output: 4000
    bias_term: true
    weight_filler {
      type: "uniform"
      min: -0.08
      max: 0.08
    }
    bias_filler {
      type: "constant"
      value: 0
    }
    axis: 2
  }
}
layer {
  name: "lstm2_W_xc_x_slice"
  type: "Slice"
  bottom: "W_xc_x"
  top: "W_xc_x_1"
  slice_param {
    axis: 0
  }
}
layer {
  name: "lstm2_h_conted_0"
  type: "Scale"
  bottom: "h_0"
  bottom: "cont_1"
  top: "h_conted_0"
  scale_param {
    axis: 0
  }
}
layer {
  name: "lstm2_transform_1"
  type: "InnerProduct"
  bottom: "h_conted_0"
  top: "W_hc_h_0"
  param {
    name: "W_hc"
  }
  inner_product_param {
    num_output: 4000
    bias_term: false
    weight_filler {
      type: "uniform"
      min: -0.08
      max: 0.08
    }
    axis: 2
  }
}
layer {
  name: "lstm2_gate_input_1"
  type: "Eltwise"
  bottom: "W_hc_h_0"
  bottom: "W_xc_x_1"
  top: "gate_input_1"
  eltwise_param {
    operation: SUM
  }
}
layer {
  name: "lstm2_unit_1"
  type: "LSTMUnit"
  bottom: "c_0"
  bottom: "gate_input_1"
  bottom: "cont_1"
  top: "c_1"
  top: "h_1"
}
layer {
  name: "lstm2_"
  type: "Split"
  bottom: "c_1"
  top: "c_T"
}
layer {
  name: "lstm2_h_concat"
  type: "Concat"
  bottom: "h_1"
  top: "h"
  concat_param {
    axis: 0
  }
}
layer {
  name: "h_pseudoloss"
  type: "Reduction"
  bottom: "h"
  top: "h_pseudoloss"
  loss_weight: 1
}
I0721 12:35:26.478415  8000 layer_factory.hpp:77] Creating layer lstm2_
I0721 12:35:26.478426  8000 net.cpp:91] Creating Layer lstm2_
I0721 12:35:26.478432  8000 net.cpp:399] lstm2_ -> x
I0721 12:35:26.478443  8000 net.cpp:399] lstm2_ -> cont
I0721 12:35:26.478821  7996 net.cpp:141] Setting up lstm1_gate_input_1
I0721 12:35:26.478833  7996 net.cpp:148] Top shape: 1 1 4000 (4000)
I0721 12:35:26.478837  7996 net.cpp:156] Memory required for data: 78016
I0721 12:35:26.478842  7996 layer_factory.hpp:77] Creating layer lstm1_unit_1
I0721 12:35:26.478850  7996 net.cpp:91] Creating Layer lstm1_unit_1
I0721 12:35:26.478855  7996 net.cpp:425] lstm1_unit_1 <- c_0
I0721 12:35:26.478862  7996 net.cpp:425] lstm1_unit_1 <- gate_input_1
I0721 12:35:26.478866  7996 net.cpp:425] lstm1_unit_1 <- cont_1_lstm1_cont_slice_0_split_1
I0721 12:35:26.478874  7996 net.cpp:399] lstm1_unit_1 -> c_1
I0721 12:35:26.478883  7996 net.cpp:399] lstm1_unit_1 -> h_1
I0721 12:35:26.479015  8000 net.cpp:141] Setting up lstm2_
I0721 12:35:26.479033  8000 net.cpp:148] Top shape: 1 1 1501 (1501)
I0721 12:35:26.479043  8000 net.cpp:148] Top shape: 1 1 (1)
I0721 12:35:26.479050  8000 net.cpp:156] Memory required for data: 6008
I0721 12:35:26.479059  8000 layer_factory.hpp:77] Creating layer lstm2_
I0721 12:35:26.479079  8000 net.cpp:91] Creating Layer lstm2_
I0721 12:35:26.479094  8000 net.cpp:399] lstm2_ -> c_0
I0721 12:35:26.479111  8000 net.cpp:399] lstm2_ -> h_0
I0721 12:35:26.479132  7996 net.cpp:141] Setting up lstm1_unit_1
I0721 12:35:26.479143  7996 net.cpp:148] Top shape: 1 1 1000 (1000)
I0721 12:35:26.479148  7996 net.cpp:148] Top shape: 1 1 1000 (1000)
I0721 12:35:26.479152  7996 net.cpp:156] Memory required for data: 86016
I0721 12:35:26.479157  7996 layer_factory.hpp:77] Creating layer lstm1_
I0721 12:35:26.479167  7996 net.cpp:91] Creating Layer lstm1_
I0721 12:35:26.479172  7996 net.cpp:425] lstm1_ <- c_1
I0721 12:35:26.479179  7996 net.cpp:399] lstm1_ -> c_T
I0721 12:35:26.479940  8009 net.cpp:141] Setting up norm1
I0721 12:35:26.479945  7996 net.cpp:141] Setting up lstm1_
I0721 12:35:26.479954  8009 net.cpp:148] Top shape: 10 96 27 27 (699840)
I0721 12:35:26.479956  7996 net.cpp:148] Top shape: 1 1 1000 (1000)
I0721 12:35:26.479959  8009 net.cpp:156] Memory required for data: 35014200
I0721 12:35:26.479961  7996 net.cpp:156] Memory required for data: 90016
I0721 12:35:26.479964  8009 layer_factory.hpp:77] Creating layer conv2
I0721 12:35:26.479965  7996 layer_factory.hpp:77] Creating layer lstm1_h_concat
I0721 12:35:26.479977  7996 net.cpp:91] Creating Layer lstm1_h_concat
I0721 12:35:26.479979  8009 net.cpp:91] Creating Layer conv2
I0721 12:35:26.479982  7996 net.cpp:425] lstm1_h_concat <- h_1
I0721 12:35:26.479984  8009 net.cpp:425] conv2 <- norm1
I0721 12:35:26.479981  8000 net.cpp:141] Setting up lstm2_
I0721 12:35:26.479991  7996 net.cpp:399] lstm1_h_concat -> h
I0721 12:35:26.479992  8009 net.cpp:399] conv2 -> conv2
I0721 12:35:26.480001  8000 net.cpp:148] Top shape: 1 1 1000 (1000)
I0721 12:35:26.480012  8000 net.cpp:148] Top shape: 1 1 1000 (1000)
I0721 12:35:26.480020  8000 net.cpp:156] Memory required for data: 14008
I0721 12:35:26.480028  8000 layer_factory.hpp:77] Creating layer lstm2_cont_slice
I0721 12:35:26.480044  8000 net.cpp:91] Creating Layer lstm2_cont_slice
I0721 12:35:26.480051  8000 net.cpp:425] lstm2_cont_slice <- cont
I0721 12:35:26.480062  8000 net.cpp:399] lstm2_cont_slice -> cont_1
I0721 12:35:26.480157  7996 net.cpp:141] Setting up lstm1_h_concat
I0721 12:35:26.480167  7996 net.cpp:148] Top shape: 1 1 1000 (1000)
I0721 12:35:26.480171  7996 net.cpp:156] Memory required for data: 94016
I0721 12:35:26.480175  7996 layer_factory.hpp:77] Creating layer h_pseudoloss
I0721 12:35:26.480175  8000 net.cpp:141] Setting up lstm2_cont_slice
I0721 12:35:26.480185  7996 net.cpp:91] Creating Layer h_pseudoloss
I0721 12:35:26.480190  7996 net.cpp:425] h_pseudoloss <- h
I0721 12:35:26.480190  8000 net.cpp:148] Top shape: 1 1 (1)
I0721 12:35:26.480195  7996 net.cpp:399] h_pseudoloss -> h_pseudoloss
I0721 12:35:26.480200  8000 net.cpp:156] Memory required for data: 14012
I0721 12:35:26.480207  8000 layer_factory.hpp:77] Creating layer cont_1_lstm2_cont_slice_0_split
I0721 12:35:26.480218  8000 net.cpp:91] Creating Layer cont_1_lstm2_cont_slice_0_split
I0721 12:35:26.480226  8000 net.cpp:425] cont_1_lstm2_cont_slice_0_split <- cont_1
I0721 12:35:26.480238  8000 net.cpp:399] cont_1_lstm2_cont_slice_0_split -> cont_1_lstm2_cont_slice_0_split_0
I0721 12:35:26.480252  8000 net.cpp:399] cont_1_lstm2_cont_slice_0_split -> cont_1_lstm2_cont_slice_0_split_1
I0721 12:35:26.480674  8000 net.cpp:141] Setting up cont_1_lstm2_cont_slice_0_split
I0721 12:35:26.480687  8000 net.cpp:148] Top shape: 1 1 (1)
I0721 12:35:26.480692  8000 net.cpp:148] Top shape: 1 1 (1)
I0721 12:35:26.480696  8000 net.cpp:156] Memory required for data: 14020
I0721 12:35:26.480701  8000 layer_factory.hpp:77] Creating layer lstm2_x_transform
I0721 12:35:26.480718  8000 net.cpp:91] Creating Layer lstm2_x_transform
I0721 12:35:26.480728  8000 net.cpp:425] lstm2_x_transform <- x
I0721 12:35:26.480746  8000 net.cpp:399] lstm2_x_transform -> W_xc_x
I0721 12:35:26.480758  7996 net.cpp:141] Setting up h_pseudoloss
…
I0721 12:35:26.480846  7996 net.cpp:219] lstm1_ does not need backward computation.
I0721 12:35:26.480849  7996 net.cpp:261] This network produces output c_T
I0721 12:35:26.480856  7996 net.cpp:261] This network produces output h_pseudoloss
I0721 12:35:26.480872  7996 net.cpp:274] Network initialization done.
I0721 12:35:26.480911  7996 recurrent_layer.cpp:150] Adding parameter 0: W_xc
I0721 12:35:26.480916  7996 recurrent_layer.cpp:150] Adding parameter 1: b_c
I0721 12:35:26.480921  7996 recurrent_layer.cpp:150] Adding parameter 2: W_hc
I0721 12:35:26.495604  7996 net.cpp:141] Setting up lstm1
I0721 12:35:26.495649  7996 net.cpp:148] Top shape: 1 1 1000 (1000)
I0721 12:35:26.495656  7996 net.cpp:156] Memory required for data: 26408
I0721 12:35:26.495674  7996 layer_factory.hpp:77] Creating layer concat
I0721 12:35:26.495690  7996 net.cpp:91] Creating Layer concat
I0721 12:35:26.495697  7996 net.cpp:425] concat <- lstm1
I0721 12:35:26.495705  7996 net.cpp:425] concat <- embedded_input_sentence
I0721 12:35:26.495712  7996 net.cpp:425] concat <- reshaped_stage_indicator
I0721 12:35:26.495718  7996 net.cpp:399] concat -> lstm1_video_sequence
I0721 12:35:26.495836  7996 net.cpp:141] Setting up concat
I0721 12:35:26.495846  7996 net.cpp:148] Top shape: 1 1 1501 (1501)
I0721 12:35:26.495851  7996 net.cpp:156] Memory required for data: 32412
I0721 12:35:26.495857  7996 layer_factory.hpp:77] Creating layer lstm2
I0721 12:35:26.495870  7996 net.cpp:91] Creating Layer lstm2
I0721 12:35:26.495875  7996 net.cpp:425] lstm2 <- lstm1_video_sequence
I0721 12:35:26.495882  7996 net.cpp:425] lstm2 <- cont_sentence_input_1_split_1
I0721 12:35:26.495889  7996 net.cpp:399] lstm2 -> lstm2
I0721 12:35:26.495899  7996 recurrent_layer.cpp:20] Initializing recurrent layer: assuming input batch contains 1 timesteps of 1 independent streams.
I0721 12:35:26.496158  7996 net.cpp:49] Initializing net from parameters: 
layer {
  name: "lstm2_"
  type: "Input"
  top: "x"
  top: "cont"
  input_param {
    shape {
      dim: 1
      dim: 1
      dim: 1501
    }
    shape {
      dim: 1
      dim: 1
    }
  }
}
layer {
  name: "lstm2_"
  type: "Input"
  top: "c_0"
  top: "h_0"
  input_param {
    shape {
      dim: 1
      dim: 1
      dim: 1000
    }
    shape {
      dim: 1
      dim: 1
      dim: 1000
    }
  }
}
layer {
  name: "lstm2_cont_slice"
  type: "Slice"
  bottom: "cont"
  top: "cont_1"
  slice_param {
    axis: 0
  }
}
layer {
  name: "lstm2_x_transform"
  type: "InnerProduct"
  bottom: "x"
  top: "W_xc_x"
  param {
    name: "W_xc"
  }
  param {
    name: "b_c"
  }
  propagate_down: true
  inner_product_param {
    num_output: 4000
    bias_term: true
    weight_filler {
      type: "uniform"
      min: -0.08
      max: 0.08
    }
    bias_filler {
      type: "constant"
      value: 0
    }
    axis: 2
  }
}
layer {
  name: "lstm2_W_xc_x_slice"
  type: "Slice"
  bottom: "W_xc_x"
  top: "W_xc_x_1"
  slice_param {
    axis: 0
  }
}
layer {
  name: "lstm2_h_conted_0"
  type: "Scale"
  bottom: "h_0"
  bottom: "cont_1"
  top: "h_conted_0"
  scale_param {
    axis: 0
  }
}
layer {
  name: "lstm2_transform_1"
  type: "InnerProduct"
  bottom: "h_conted_0"
  top: "W_hc_h_0"
  param {
    name: "W_hc"
  }
  inner_product_param {
    num_output: 4000
    bias_term: false
    weight_filler {
      type: "uniform"
      min: -0.08
      max: 0.08
    }
    axis: 2
  }
}
layer {
  name: "lstm2_gate_input_1"
  type: "Eltwise"
  bottom: "W_hc_h_0"
  bottom: "W_xc_x_1"
  top: "gate_input_1"
  eltwise_param {
    operation: SUM
  }
}
layer {
  name: "lstm2_unit_1"
  type: "LSTMUnit"
  bottom: "c_0"
  bottom: "gate_input_1"
  bottom: "cont_1"
  top: "c_1"
  top: "h_1"
}
layer {
  name: "lstm2_"
  type: "Split"
  bottom: "c_1"
  top: "c_T"
}
layer {
  name: "lstm2_h_concat"
  type: "Concat"
  bottom: "h_1"
  top: "h"
  concat_param {
    axis: 0
  }
}
layer {
  name: "h_pseudoloss"
  type: "Reduction"
  bottom: "h"
  top: "h_pseudoloss"
  loss_weight: 1
}
I0721 12:35:26.496244  7996 layer_factory.hpp:77] Creating layer lstm2_
I0721 12:35:26.496256  7996 net.cpp:91] Creating Layer lstm2_
I0721 12:35:26.496263  7996 net.cpp:399] lstm2_ -> x
I0721 12:35:26.496273  7996 net.cpp:399] lstm2_ -> cont
I0721 12:35:26.497208  8015 net.cpp:141] Setting up conv1
I0721 12:35:26.497237  8015 net.cpp:148] Top shape: 10 96 55 55 (2904000)
I0721 12:35:26.497246  8015 net.cpp:156] Memory required for data: 17799480
I0721 12:35:26.497267  8015 layer_factory.hpp:77] Creating layer relu1
I0721 12:35:26.497280  8015 net.cpp:91] Creating Layer relu1
I0721 12:35:26.497288  8015 net.cpp:425] relu1 <- conv1
I0721 12:35:26.497298  8015 net.cpp:386] relu1 -> conv1 (in-place)
I0721 12:35:26.497387  7996 net.cpp:141] Setting up lstm2_
I0721 12:35:26.497406  7996 net.cpp:148] Top shape: 1 1 1501 (1501)
I0721 12:35:26.497411  7996 net.cpp:148] Top shape: 1 1 (1)
I0721 12:35:26.497416  7996 net.cpp:156] Memory required for data: 6008
I0721 12:35:26.497421  7996 layer_factory.hpp:77] Creating layer lstm2_
I0721 12:35:26.497431  7996 net.cpp:91] Creating Layer lstm2_
I0721 12:35:26.497439  7996 net.cpp:399] lstm2_ -> c_0
I0721 12:35:26.497452  7996 net.cpp:399] lstm2_ -> h_0
I0721 12:35:26.498620  7996 net.cpp:141] Setting up lstm2_
I0721 12:35:26.498637  7996 net.cpp:148] Top shape: 1 1 1000 (1000)
I0721 12:35:26.498643  7996 net.cpp:148] Top shape: 1 1 1000 (1000)
I0721 12:35:26.498647  7996 net.cpp:156] Memory required for data: 14008
I0721 12:35:26.498651  7996 layer_factory.hpp:77] Creating layer lstm2_cont_slice
I0721 12:35:26.498661  7996 net.cpp:91] Creating Layer lstm2_cont_slice
I0721 12:35:26.498666  7996 net.cpp:425] lstm2_cont_slice <- cont
I0721 12:35:26.498678  7996 net.cpp:399] lstm2_cont_slice -> cont_1
I0721 12:35:26.498677  8015 net.cpp:141] Setting up relu1
I0721 12:35:26.498705  8015 net.cpp:148] Top shape: 10 96 55 55 (2904000)
I0721 12:35:26.498713  8015 net.cpp:156] Memory required for data: 29415480
I0721 12:35:26.498720  8015 layer_factory.hpp:77] Creating layer pool1
I0721 12:35:26.498733  8015 net.cpp:91] Creating Layer pool1
I0721 12:35:26.498741  8015 net.cpp:425] pool1 <- conv1
I0721 12:35:26.498751  8015 net.cpp:399] pool1 -> pool1
I0721 12:35:26.498903  7996 net.cpp:141] Setting up lstm2_cont_slice
I0721 12:35:26.498915  7996 net.cpp:148] Top shape: 1 1 (1)
I0721 12:35:26.498919  7996 net.cpp:156] Memory required for data: 14012
I0721 12:35:26.498924  7996 layer_factory.hpp:77] Creating layer cont_1_lstm2_cont_slice_0_split
I0721 12:35:26.498931  7996 net.cpp:91] Creating Layer cont_1_lstm2_cont_slice_0_split
I0721 12:35:26.498935  7996 net.cpp:425] cont_1_lstm2_cont_slice_0_split <- cont_1
I0721 12:35:26.498946  7996 net.cpp:399] cont_1_lstm2_cont_slice_0_split -> cont_1_lstm2_cont_slice_0_split_0
I0721 12:35:26.498955  7996 net.cpp:399] cont_1_lstm2_cont_slice_0_split -> cont_1_lstm2_cont_slice_0_split_1
I0721 12:35:26.499032  8015 net.cpp:141] Setting up pool1
I0721 12:35:26.499047  8015 net.cpp:148] Top shape: 10 96 27 27 (699840)
I0721 12:35:26.499054  8015 net.cpp:156] Memory required for data: 32214840
I0721 12:35:26.499061  8015 layer_factory.hpp:77] Creating layer norm1
I0721 12:35:26.499076  8015 net.cpp:91] Creating Layer norm1
I0721 12:35:26.499083  8015 net.cpp:425] norm1 <- pool1
I0721 12:35:26.499094  8015 net.cpp:399] norm1 -> norm1
I0721 12:35:26.499091  7996 net.cpp:141] Setting up cont_1_lstm2_cont_slice_0_split
I0721 12:35:26.499109  7996 net.cpp:148] Top shape: 1 1 (1)
I0721 12:35:26.499119  7996 net.cpp:148] Top shape: 1 1 (1)
I0721 12:35:26.499125  7996 net.cpp:156] Memory required for data: 14020
I0721 12:35:26.499130  7996 layer_factory.hpp:77] Creating layer lstm2_x_transform
I0721 12:35:26.499142  7996 net.cpp:91] Creating Layer lstm2_x_transform
I0721 12:35:26.499147  7996 net.cpp:425] lstm2_x_transform <- x
I0721 12:35:26.499155  7996 net.cpp:399] lstm2_x_transform -> W_xc_x
I0721 12:35:26.515128  8015 net.cpp:141] Setting up norm1
I0721 12:35:26.515174  8015 net.cpp:148] Top shape: 10 96 27 27 (699840)
I0721 12:35:26.515182  8015 net.cpp:156] Memory required for data: 35014200
I0721 12:35:26.515194  8015 layer_factory.hpp:77] Creating layer conv2
I0721 12:35:26.515220  8015 net.cpp:91] Creating Layer conv2
I0721 12:35:26.515229  8015 net.cpp:425] conv2 <- norm1
I0721 12:35:26.515242  8015 net.cpp:399] conv2 -> conv2
I0721 12:35:26.515250  8009 net.cpp:141] Setting up conv2
I0721 12:35:26.515270  8009 net.cpp:148] Top shape: 10 256 27 27 (1866240)
I0721 12:35:26.515275  8009 net.cpp:156] Memory required for data: 42479160
I0721 12:35:26.515292  8009 layer_factory.hpp:77] Creating layer relu2
I0721 12:35:26.515311  8009 net.cpp:91] Creating Layer relu2
I0721 12:35:26.515317  8009 net.cpp:425] relu2 <- conv2
I0721 12:35:26.515324  8009 net.cpp:386] relu2 -> conv2 (in-place)
I0721 12:35:26.516597  8009 net.cpp:141] Setting up relu2
I0721 12:35:26.516625  8009 net.cpp:148] Top shape: 10 256 27 27 (1866240)
I0721 12:35:26.516630  8009 net.cpp:156] Memory required for data: 49944120
I0721 12:35:26.516638  8009 layer_factory.hpp:77] Creating layer pool2
I0721 12:35:26.516650  8009 net.cpp:91] Creating Layer pool2
I0721 12:35:26.516655  8009 net.cpp:425] pool2 <- conv2
I0721 12:35:26.516666  8009 net.cpp:399] pool2 -> pool2
I0721 12:35:26.520427  8009 net.cpp:141] Setting up pool2
I0721 12:35:26.520458  8009 net.cpp:148] Top shape: 10 256 13 13 (432640)
I0721 12:35:26.520463  8009 net.cpp:156] Memory required for data: 51674680
I0721 12:35:26.520469  8009 layer_factory.hpp:77] Creating layer norm2
I0721 12:35:26.520494  8009 net.cpp:91] Creating Layer norm2
I0721 12:35:26.520501  8009 net.cpp:425] norm2 <- pool2
I0721 12:35:26.520509  8009 net.cpp:399] norm2 -> norm2
I0721 12:35:26.521244  8009 net.cpp:141] Setting up norm2
I0721 12:35:26.521257  8009 net.cpp:148] Top shape: 10 256 13 13 (432640)
I0721 12:35:26.521262  8009 net.cpp:156] Memory required for data: 53405240
I0721 12:35:26.521267  8009 layer_factory.hpp:77] Creating layer conv3
I0721 12:35:26.521283  8009 net.cpp:91] Creating Layer conv3
I0721 12:35:26.521288  8009 net.cpp:425] conv3 <- norm2
I0721 12:35:26.521296  8009 net.cpp:399] conv3 -> conv3
I0721 12:35:26.528924  8015 net.cpp:141] Setting up conv2
I0721 12:35:26.528960  8015 net.cpp:148] Top shape: 10 256 27 27 (1866240)
I0721 12:35:26.528969  8015 net.cpp:156] Memory required for data: 42479160
I0721 12:35:26.528995  8015 layer_factory.hpp:77] Creating layer relu2
I0721 12:35:26.529011  8015 net.cpp:91] Creating Layer relu2
I0721 12:35:26.529018  8015 net.cpp:425] relu2 <- conv2
I0721 12:35:26.529032  8015 net.cpp:386] relu2 -> conv2 (in-place)
I0721 12:35:26.530344  8015 net.cpp:141] Setting up relu2
I0721 12:35:26.530364  8015 net.cpp:148] Top shape: 10 256 27 27 (1866240)
I0721 12:35:26.530371  8015 net.cpp:156] Memory required for data: 49944120
I0721 12:35:26.530378  8015 layer_factory.hpp:77] Creating layer pool2
I0721 12:35:26.530393  8015 net.cpp:91] Creating Layer pool2
I0721 12:35:26.530400  8015 net.cpp:425] pool2 <- conv2
I0721 12:35:26.530411  8015 net.cpp:399] pool2 -> pool2
I0721 12:35:26.530411  8009 net.cpp:141] Setting up conv3
I0721 12:35:26.530428  8009 net.cpp:148] Top shape: 10 384 13 13 (648960)
I0721 12:35:26.530433  8009 net.cpp:156] Memory required for data: 56001080
I0721 12:35:26.530449  8009 layer_factory.hpp:77] Creating layer relu3
I0721 12:35:26.530458  8009 net.cpp:91] Creating Layer relu3
I0721 12:35:26.530464  8009 net.cpp:425] relu3 <- conv3
I0721 12:35:26.530472  8009 net.cpp:386] relu3 -> conv3 (in-place)
I0721 12:35:26.531188  8015 net.cpp:141] Setting up pool2
I0721 12:35:26.531203  8015 net.cpp:148] Top shape: 10 256 13 13 (432640)
I0721 12:35:26.531209  8015 net.cpp:156] Memory required for data: 51674680
I0721 12:35:26.531216  8015 layer_factory.hpp:77] Creating layer norm2
I0721 12:35:26.531234  8015 net.cpp:91] Creating Layer norm2
I0721 12:35:26.531241  8015 net.cpp:425] norm2 <- pool2
I0721 12:35:26.531250  8015 net.cpp:399] norm2 -> norm2
I0721 12:35:26.531266  8009 net.cpp:141] Setting up relu3
I0721 12:35:26.531280  8009 net.cpp:148] Top shape: 10 384 13 13 (648960)
I0721 12:35:26.531285  8009 net.cpp:156] Memory required for data: 58596920
I0721 12:35:26.531289  8009 layer_factory.hpp:77] Creating layer conv4
I0721 12:35:26.531303  8009 net.cpp:91] Creating Layer conv4
I0721 12:35:26.531308  8009 net.cpp:425] conv4 <- conv3
I0721 12:35:26.531316  8009 net.cpp:399] conv4 -> conv4
I0721 12:35:26.531950  8015 net.cpp:141] Setting up norm2
I0721 12:35:26.531966  8015 net.cpp:148] Top shape: 10 256 13 13 (432640)
I0721 12:35:26.531972  8015 net.cpp:156] Memory required for data: 53405240
I0721 12:35:26.531980  8015 layer_factory.hpp:77] Creating layer conv3
I0721 12:35:26.531996  8015 net.cpp:91] Creating Layer conv3
I0721 12:35:26.532004  8015 net.cpp:425] conv3 <- norm2
I0721 12:35:26.532026  8015 net.cpp:399] conv3 -> conv3
I0721 12:35:26.544191  8015 net.cpp:141] Setting up conv3
I0721 12:35:26.544235  8015 net.cpp:148] Top shape: 10 384 13 13 (648960)
I0721 12:35:26.544244  8015 net.cpp:156] Memory required for data: 56001080
I0721 12:35:26.544266  8015 layer_factory.hpp:77] Creating layer relu3
I0721 12:35:26.544286  8015 net.cpp:91] Creating Layer relu3
I0721 12:35:26.544294  8015 net.cpp:425] relu3 <- conv3
I0721 12:35:26.544306  8015 net.cpp:386] relu3 -> conv3 (in-place)
I0721 12:35:26.545224  8009 net.cpp:141] Setting up conv4
I0721 12:35:26.545248  8009 net.cpp:148] Top shape: 10 384 13 13 (648960)
I0721 12:35:26.545254  8009 net.cpp:156] Memory required for data: 61192760
I0721 12:35:26.545264  8009 layer_factory.hpp:77] Creating layer relu4
I0721 12:35:26.545274  8009 net.cpp:91] Creating Layer relu4
I0721 12:35:26.545279  8009 net.cpp:425] relu4 <- conv4
I0721 12:35:26.545285  8009 net.cpp:386] relu4 -> conv4 (in-place)
I0721 12:35:26.545328  8015 net.cpp:141] Setting up relu3
I0721 12:35:26.545346  8015 net.cpp:148] Top shape: 10 384 13 13 (648960)
I0721 12:35:26.545352  8015 net.cpp:156] Memory required for data: 58596920
I0721 12:35:26.545359  8015 layer_factory.hpp:77] Creating layer conv4
I0721 12:35:26.545378  8015 net.cpp:91] Creating Layer conv4
I0721 12:35:26.545387  8015 net.cpp:425] conv4 <- conv3
I0721 12:35:26.545403  8015 net.cpp:399] conv4 -> conv4
I0721 12:35:26.546190  8009 net.cpp:141] Setting up relu4
I0721 12:35:26.546207  8009 net.cpp:148] Top shape: 10 384 13 13 (648960)
I0721 12:35:26.546212  8009 net.cpp:156] Memory required for data: 63788600
I0721 12:35:26.546217  8009 layer_factory.hpp:77] Creating layer conv5
I0721 12:35:26.546231  8009 net.cpp:91] Creating Layer conv5
I0721 12:35:26.546236  8009 net.cpp:425] conv5 <- conv4
I0721 12:35:26.546244  8009 net.cpp:399] conv5 -> conv5
I0721 12:35:26.553416  8000 net.cpp:141] Setting up lstm2_x_transform
I0721 12:35:26.553454  8000 net.cpp:148] Top shape: 1 1 4000 (4000)
I0721 12:35:26.553463  8000 net.cpp:156] Memory required for data: 30020
I0721 12:35:26.553486  8000 layer_factory.hpp:77] Creating layer lstm2_W_xc_x_slice
I0721 12:35:26.553504  8000 net.cpp:91] Creating Layer lstm2_W_xc_x_slice
I0721 12:35:26.553515  8000 net.cpp:425] lstm2_W_xc_x_slice <- W_xc_x
I0721 12:35:26.553529  8000 net.cpp:399] lstm2_W_xc_x_slice -> W_xc_x_1
I0721 12:35:26.554318  8000 net.cpp:141] Setting up lstm2_W_xc_x_slice
I0721 12:35:26.554342  8000 net.cpp:148] Top shape: 1 1 4000 (4000)
I0721 12:35:26.554350  8000 net.cpp:156] Memory required for data: 46020
I0721 12:35:26.554359  8000 layer_factory.hpp:77] Creating layer lstm2_h_conted_0
I0721 12:35:26.554375  8000 net.cpp:91] Creating Layer lstm2_h_conted_0
I0721 12:35:26.554385  8000 net.cpp:425] lstm2_h_conted_0 <- h_0
I0721 12:35:26.554395  8000 net.cpp:425] lstm2_h_conted_0 <- cont_1_lstm2_cont_slice_0_split_0
I0721 12:35:26.554407  8000 net.cpp:399] lstm2_h_conted_0 -> h_conted_0
I0721 12:35:26.555904  8000 net.cpp:141] Setting up lstm2_h_conted_0
I0721 12:35:26.555927  8000 net.cpp:148] Top shape: 1 1 1000 (1000)
I0721 12:35:26.555935  8000 net.cpp:156] Memory required for data: 50020
I0721 12:35:26.555943  8000 layer_factory.hpp:77] Creating layer lstm2_transform_1
I0721 12:35:26.555961  8000 net.cpp:91] Creating Layer lstm2_transform_1
I0721 12:35:26.555971  8000 net.cpp:425] lstm2_transform_1 <- h_conted_0
I0721 12:35:26.555989  8000 net.cpp:399] lstm2_transform_1 -> W_hc_h_0
I0721 12:35:26.569350  7996 net.cpp:141] Setting up lstm2_x_transform
I0721 12:35:26.569392  7996 net.cpp:148] Top shape: 1 1 4000 (4000)
I0721 12:35:26.569397  7996 net.cpp:156] Memory required for data: 30020
I0721 12:35:26.569416  7996 layer_factory.hpp:77] Creating layer lstm2_W_xc_x_slice
I0721 12:35:26.569430  7996 net.cpp:91] Creating Layer lstm2_W_xc_x_slice
I0721 12:35:26.569437  7996 net.cpp:425] lstm2_W_xc_x_slice <- W_xc_x
I0721 12:35:26.569447  7996 net.cpp:399] lstm2_W_xc_x_slice -> W_xc_x_1
I0721 12:35:26.570109  7996 net.cpp:141] Setting up lstm2_W_xc_x_slice
I0721 12:35:26.570122  7996 net.cpp:148] Top shape: 1 1 4000 (4000)
I0721 12:35:26.570125  7996 net.cpp:156] Memory required for data: 46020
I0721 12:35:26.570130  7996 layer_factory.hpp:77] Creating layer lstm2_h_conted_0
I0721 12:35:26.570139  7996 net.cpp:91] Creating Layer lstm2_h_conted_0
I0721 12:35:26.570144  7996 net.cpp:425] lstm2_h_conted_0 <- h_0
I0721 12:35:26.570149  7996 net.cpp:425] lstm2_h_conted_0 <- cont_1_lstm2_cont_slice_0_split_0
I0721 12:35:26.570157  7996 net.cpp:399] lstm2_h_conted_0 -> h_conted_0
I0721 12:35:26.570246  8015 net.cpp:141] Setting up conv4
I0721 12:35:26.570268  8015 net.cpp:148] Top shape: 10 384 13 13 (648960)
I0721 12:35:26.570276  8015 net.cpp:156] Memory required for data: 61192760
I0721 12:35:26.570291  8015 layer_factory.hpp:77] Creating layer relu4
I0721 12:35:26.570303  8015 net.cpp:91] Creating Layer relu4
I0721 12:35:26.570312  8015 net.cpp:425] relu4 <- conv4
I0721 12:35:26.570327  8015 net.cpp:386] relu4 -> conv4 (in-place)
I0721 12:35:26.571571  7996 net.cpp:141] Setting up lstm2_h_conted_0
I0721 12:35:26.571585  7996 net.cpp:148] Top shape: 1 1 1000 (1000)
I0721 12:35:26.571590  7996 net.cpp:156] Memory required for data: 50020
I0721 12:35:26.571594  7996 layer_factory.hpp:77] Creating layer lstm2_transform_1
I0721 12:35:26.571606  7996 net.cpp:91] Creating Layer lstm2_transform_1
I0721 12:35:26.571611  7996 net.cpp:425] lstm2_transform_1 <- h_conted_0
I0721 12:35:26.571615  8015 net.cpp:141] Setting up relu4
I0721 12:35:26.571621  7996 net.cpp:399] lstm2_transform_1 -> W_hc_h_0
I0721 12:35:26.571636  8015 net.cpp:148] Top shape: 10 384 13 13 (648960)
I0721 12:35:26.571645  8015 net.cpp:156] Memory required for data: 63788600
I0721 12:35:26.571651  8015 layer_factory.hpp:77] Creating layer conv5
I0721 12:35:26.571672  8015 net.cpp:91] Creating Layer conv5
I0721 12:35:26.571681  8015 net.cpp:425] conv5 <- conv4
I0721 12:35:26.571692  8015 net.cpp:399] conv5 -> conv5
I0721 12:35:26.571717  8009 net.cpp:141] Setting up conv5
I0721 12:35:26.571735  8009 net.cpp:148] Top shape: 10 256 13 13 (432640)
I0721 12:35:26.571740  8009 net.cpp:156] Memory required for data: 65519160
I0721 12:35:26.571754  8009 layer_factory.hpp:77] Creating layer relu5
I0721 12:35:26.571763  8009 net.cpp:91] Creating Layer relu5
I0721 12:35:26.571768  8009 net.cpp:425] relu5 <- conv5
I0721 12:35:26.571804  8009 net.cpp:386] relu5 -> conv5 (in-place)
I0721 12:35:26.578096  8009 net.cpp:141] Setting up relu5
I0721 12:35:26.578132  8009 net.cpp:148] Top shape: 10 256 13 13 (432640)
I0721 12:35:26.578138  8009 net.cpp:156] Memory required for data: 67249720
I0721 12:35:26.578146  8009 layer_factory.hpp:77] Creating layer pool5
I0721 12:35:26.578161  8009 net.cpp:91] Creating Layer pool5
I0721 12:35:26.578166  8009 net.cpp:425] pool5 <- conv5
I0721 12:35:26.578179  8009 net.cpp:399] pool5 -> pool5
I0721 12:35:26.581367  8009 net.cpp:141] Setting up pool5
I0721 12:35:26.581382  8009 net.cpp:148] Top shape: 10 256 6 6 (92160)
I0721 12:35:26.581387  8009 net.cpp:156] Memory required for data: 67618360
I0721 12:35:26.581393  8009 layer_factory.hpp:77] Creating layer fc6
I0721 12:35:26.581409  8009 net.cpp:91] Creating Layer fc6
I0721 12:35:26.581414  8009 net.cpp:425] fc6 <- pool5
I0721 12:35:26.581421  8009 net.cpp:399] fc6 -> fc6
I0721 12:35:26.645315  7996 net.cpp:141] Setting up lstm2_transform_1
I0721 12:35:26.645359  7996 net.cpp:148] Top shape: 1 1 4000 (4000)
I0721 12:35:26.645364  7996 net.cpp:156] Memory required for data: 66020
I0721 12:35:26.645383  7996 layer_factory.hpp:77] Creating layer lstm2_gate_input_1
I0721 12:35:26.645404  7996 net.cpp:91] Creating Layer lstm2_gate_input_1
I0721 12:35:26.645411  7996 net.cpp:425] lstm2_gate_input_1 <- W_hc_h_0
I0721 12:35:26.645419  7996 net.cpp:425] lstm2_gate_input_1 <- W_xc_x_1
I0721 12:35:26.645427  7996 net.cpp:399] lstm2_gate_input_1 -> gate_input_1
I0721 12:35:26.651198  8000 net.cpp:141] Setting up lstm2_transform_1
I0721 12:35:26.651235  8000 net.cpp:148] Top shape: 1 1 4000 (4000)
I0721 12:35:26.651245  8000 net.cpp:156] Memory required for data: 66020
I0721 12:35:26.651260  7996 net.cpp:141] Setting up lstm2_gate_input_1
I0721 12:35:26.651265  8000 layer_factory.hpp:77] Creating layer lstm2_gate_input_1
I0721 12:35:26.651284  7996 net.cpp:148] Top shape: 1 1 4000 (4000)
I0721 12:35:26.651290  7996 net.cpp:156] Memory required for data: 82020
I0721 12:35:26.651295  7996 layer_factory.hpp:77] Creating layer lstm2_unit_1
I0721 12:35:26.651301  8000 net.cpp:91] Creating Layer lstm2_gate_input_1
I0721 12:35:26.651309  7996 net.cpp:91] Creating Layer lstm2_unit_1
I0721 12:35:26.651315  7996 net.cpp:425] lstm2_unit_1 <- c_0
I0721 12:35:26.651314  8000 net.cpp:425] lstm2_gate_input_1 <- W_hc_h_0
I0721 12:35:26.651324  7996 net.cpp:425] lstm2_unit_1 <- gate_input_1
I0721 12:35:26.651330  7996 net.cpp:425] lstm2_unit_1 <- cont_1_lstm2_cont_slice_0_split_1
I0721 12:35:26.651329  8000 net.cpp:425] lstm2_gate_input_1 <- W_xc_x_1
I0721 12:35:26.651340  7996 net.cpp:399] lstm2_unit_1 -> c_1
I0721 12:35:26.651351  7996 net.cpp:399] lstm2_unit_1 -> h_1
I0721 12:35:26.651350  8000 net.cpp:399] lstm2_gate_input_1 -> gate_input_1
I0721 12:35:26.651517  8000 net.cpp:141] Setting up lstm2_gate_input_1
I0721 12:35:26.651533  8000 net.cpp:148] Top shape: 1 1 4000 (4000)
I0721 12:35:26.651541  8000 net.cpp:156] Memory required for data: 82020
I0721 12:35:26.651549  8000 layer_factory.hpp:77] Creating layer lstm2_unit_1
I0721 12:35:26.651582  8000 net.cpp:91] Creating Layer lstm2_unit_1
I0721 12:35:26.651593  8000 net.cpp:425] lstm2_unit_1 <- c_0
I0721 12:35:26.651603  8000 net.cpp:425] lstm2_unit_1 <- gate_input_1
I0721 12:35:26.651612  8000 net.cpp:425] lstm2_unit_1 <- cont_1_lstm2_cont_slice_0_split_1
I0721 12:35:26.651623  8000 net.cpp:399] lstm2_unit_1 -> c_1
I0721 12:35:26.651638  8000 net.cpp:399] lstm2_unit_1 -> h_1
I0721 12:35:26.654991  7996 net.cpp:141] Setting up lstm2_unit_1
I0721 12:35:26.655041  7996 net.cpp:148] Top shape: 1 1 1000 (1000)
I0721 12:35:26.655050  7996 net.cpp:148] Top shape: 1 1 1000 (1000)
I0721 12:35:26.655053  7996 net.cpp:156] Memory required for data: 90020
I0721 12:35:26.655063  7996 layer_factory.hpp:77] Creating layer lstm2_
I0721 12:35:26.655083  7996 net.cpp:91] Creating Layer lstm2_
I0721 12:35:26.655091  7996 net.cpp:425] lstm2_ <- c_1
I0721 12:35:26.655102  7996 net.cpp:399] lstm2_ -> c_T
I0721 12:35:26.655149  8000 net.cpp:141] Setting up lstm2_unit_1
I0721 12:35:26.655191  8000 net.cpp:148] Top shape: 1 1 1000 (1000)
I0721 12:35:26.655215  8000 net.cpp:148] Top shape: 1 1 1000 (1000)
I0721 12:35:26.655216  7996 net.cpp:141] Setting up lstm2_
I0721 12:35:26.655225  8000 net.cpp:156] Memory required for data: 90020
I0721 12:35:26.655230  7996 net.cpp:148] Top shape: 1 1 1000 (1000)
I0721 12:35:26.655235  7996 net.cpp:156] Memory required for data: 94020
I0721 12:35:26.655236  8000 layer_factory.hpp:77] Creating layer lstm2_
I0721 12:35:26.655239  7996 layer_factory.hpp:77] Creating layer lstm2_h_concat
I0721 12:35:26.655248  7996 net.cpp:91] Creating Layer lstm2_h_concat
I0721 12:35:26.655253  7996 net.cpp:425] lstm2_h_concat <- h_1
I0721 12:35:26.655252  8000 net.cpp:91] Creating Layer lstm2_
I0721 12:35:26.655264  8000 net.cpp:425] lstm2_ <- c_1
I0721 12:35:26.655272  7996 net.cpp:399] lstm2_h_concat -> h
I0721 12:35:26.655277  8000 net.cpp:399] lstm2_ -> c_T
I0721 12:35:26.655392  7996 net.cpp:141] Setting up lstm2_h_concat
I0721 12:35:26.655402  7996 net.cpp:148] Top shape: 1 1 1000 (1000)
I0721 12:35:26.655406  7996 net.cpp:156] Memory required for data: 98020
I0721 12:35:26.655411  7996 layer_factory.hpp:77] Creating layer h_pseudoloss
I0721 12:35:26.655421  7996 net.cpp:91] Creating Layer h_pseudoloss
I0721 12:35:26.655416  8000 net.cpp:141] Setting up lstm2_
I0721 12:35:26.655428  7996 net.cpp:425] h_pseudoloss <- h
I0721 12:35:26.655447  7996 net.cpp:399] h_pseudoloss -> h_pseudoloss
I0721 12:35:26.655446  8000 net.cpp:148] Top shape: 1 1 1000 (1000)
I0721 12:35:26.655465  8000 net.cpp:156] Memory required for data: 94020
I0721 12:35:26.655474  8000 layer_factory.hpp:77] Creating layer lstm2_h_concat
I0721 12:35:26.655486  8000 net.cpp:91] Creating Layer lstm2_h_concat
I0721 12:35:26.655493  8000 net.cpp:425] lstm2_h_concat <- h_1
I0721 12:35:26.655514  8000 net.cpp:399] lstm2_h_concat -> h
I0721 12:35:26.655660  8000 net.cpp:141] Setting up lstm2_h_concat
I0721 12:35:26.655678  8000 net.cpp:148] Top shape: 1 1 1000 (1000)
I0721 12:35:26.655686  8000 net.cpp:156] Memory required for data: 98020
I0721 12:35:26.655694  8000 layer_factory.hpp:77] Creating layer h_pseudoloss
I0721 12:35:26.655709  8000 net.cpp:91] Creating Layer h_pseudoloss
I0721 12:35:26.655714  8000 net.cpp:425] h_pseudoloss <- h
I0721 12:35:26.655722  8000 net.cpp:399] h_pseudoloss -> h_pseudoloss
I0721 12:35:26.655748  7996 net.cpp:141] Setting up h_pseudoloss
…
I0721 12:35:26.656453  8000 net.cpp:219] lstm2_ does not need backward computation.
I0721 12:35:26.656460  8000 net.cpp:261] This network produces output c_T
I0721 12:35:26.656468  8000 net.cpp:261] This network produces output h_pseudoloss
I0721 12:35:26.656497  8000 net.cpp:274] Network initialization done.
I0721 12:35:26.656560  8000 recurrent_layer.cpp:150] Adding parameter 0: W_xc
I0721 12:35:26.656572  8000 recurrent_layer.cpp:150] Adding parameter 1: b_c
I0721 12:35:26.656580  8000 recurrent_layer.cpp:150] Adding parameter 2: W_hc
I0721 12:35:26.741976  8000 net.cpp:141] Setting up lstm2
I0721 12:35:26.742022  8000 net.cpp:148] Top shape: 1 1 1000 (1000)
I0721 12:35:26.742029  8000 net.cpp:156] Memory required for data: 36412
I0721 12:35:26.742058  8000 layer_factory.hpp:77] Creating layer predict
I0721 12:35:26.742082  8000 net.cpp:91] Creating Layer predict
I0721 12:35:26.742094  8000 net.cpp:425] predict <- lstm2
I0721 12:35:26.742107  8000 net.cpp:399] predict -> predict
I0721 12:35:26.742343  8009 net.cpp:141] Setting up fc6
I0721 12:35:26.742367  8009 net.cpp:148] Top shape: 10 4096 (40960)
I0721 12:35:26.742377  8009 net.cpp:156] Memory required for data: 67782200
I0721 12:35:26.742393  8009 layer_factory.hpp:77] Creating layer relu6
I0721 12:35:26.817390  8009 net.cpp:91] Creating Layer relu6
I0721 12:35:26.817437  8009 net.cpp:425] relu6 <- fc6
I0721 12:35:26.817461  8009 net.cpp:386] relu6 -> fc6 (in-place)
I0721 12:35:26.827019  8009 net.cpp:141] Setting up relu6
I0721 12:35:26.827066  8009 net.cpp:148] Top shape: 10 4096 (40960)
I0721 12:35:26.827078  8009 net.cpp:156] Memory required for data: 67946040
I0721 12:35:26.827091  8009 layer_factory.hpp:77] Creating layer drop6
I0721 12:35:26.827124  8009 net.cpp:91] Creating Layer drop6
I0721 12:35:26.827136  8009 net.cpp:425] drop6 <- fc6
I0721 12:35:26.827157  8009 net.cpp:386] drop6 -> fc6 (in-place)
I0721 12:35:26.827316  8009 net.cpp:141] Setting up drop6
I0721 12:35:26.827332  8009 net.cpp:148] Top shape: 10 4096 (40960)
I0721 12:35:26.827339  8009 net.cpp:156] Memory required for data: 68109880
I0721 12:35:26.827348  8009 layer_factory.hpp:77] Creating layer fc7
I0721 12:35:26.827369  8009 net.cpp:91] Creating Layer fc7
I0721 12:35:26.827378  8009 net.cpp:425] fc7 <- fc6
I0721 12:35:26.827390  8009 net.cpp:399] fc7 -> fc7
I0721 12:35:26.866431  8015 net.cpp:141] Setting up conv5
I0721 12:35:26.866510  8015 net.cpp:148] Top shape: 10 256 13 13 (432640)
I0721 12:35:26.866528  8015 net.cpp:156] Memory required for data: 65519160
I0721 12:35:26.866570  8015 layer_factory.hpp:77] Creating layer relu5
I0721 12:35:26.866600  8015 net.cpp:91] Creating Layer relu5
I0721 12:35:26.866617  8015 net.cpp:425] relu5 <- conv5
I0721 12:35:26.866637  8015 net.cpp:386] relu5 -> conv5 (in-place)
I0721 12:35:26.870388  8015 net.cpp:141] Setting up relu5
I0721 12:35:26.870457  8015 net.cpp:148] Top shape: 10 256 13 13 (432640)
I0721 12:35:26.870474  8015 net.cpp:156] Memory required for data: 67249720
I0721 12:35:26.870494  8015 layer_factory.hpp:77] Creating layer pool5
I0721 12:35:26.870527  8015 net.cpp:91] Creating Layer pool5
I0721 12:35:26.870543  8015 net.cpp:425] pool5 <- conv5
I0721 12:35:26.870576  8015 net.cpp:399] pool5 -> pool5
I0721 12:35:26.870960  8015 net.cpp:141] Setting up pool5
I0721 12:35:26.870988  8015 net.cpp:148] Top shape: 10 256 6 6 (92160)
I0721 12:35:26.871002  8015 net.cpp:156] Memory required for data: 67618360
I0721 12:35:26.871016  8015 layer_factory.hpp:77] Creating layer fc6
I0721 12:35:26.871047  8015 net.cpp:91] Creating Layer fc6
I0721 12:35:26.871062  8015 net.cpp:425] fc6 <- pool5
I0721 12:35:26.871090  8015 net.cpp:399] fc6 -> fc6
I0721 12:35:26.946045  8009 net.cpp:141] Setting up fc7
I0721 12:35:26.946120  8009 net.cpp:148] Top shape: 10 4096 (40960)
I0721 12:35:26.946137  8009 net.cpp:156] Memory required for data: 68273720
I0721 12:35:26.946177  8009 layer_factory.hpp:77] Creating layer relu7
I0721 12:35:26.946221  8009 net.cpp:91] Creating Layer relu7
I0721 12:35:26.946245  8009 net.cpp:425] relu7 <- fc7
I0721 12:35:26.946269  8009 net.cpp:386] relu7 -> fc7 (in-place)
I0721 12:35:26.949456  8009 net.cpp:141] Setting up relu7
I0721 12:35:26.949523  8009 net.cpp:148] Top shape: 10 4096 (40960)
I0721 12:35:26.949540  8009 net.cpp:156] Memory required for data: 68437560
I0721 12:35:26.949558  8009 layer_factory.hpp:77] Creating layer drop7
I0721 12:35:26.949599  8009 net.cpp:91] Creating Layer drop7
I0721 12:35:26.949618  8009 net.cpp:425] drop7 <- fc7
I0721 12:35:26.949641  8009 net.cpp:386] drop7 -> fc7 (in-place)
I0721 12:35:26.949861  8009 net.cpp:141] Setting up drop7
I0721 12:35:26.949885  8009 net.cpp:148] Top shape: 10 4096 (40960)
I0721 12:35:26.949898  8009 net.cpp:156] Memory required for data: 68601400
I0721 12:35:26.949913  8009 layer_factory.hpp:77] Creating layer fc8
I0721 12:35:26.949944  8009 net.cpp:91] Creating Layer fc8
I0721 12:35:26.949961  8009 net.cpp:425] fc8 <- fc7
I0721 12:35:26.949986  8009 net.cpp:399] fc8 -> fc8
I0721 12:35:26.976436  8009 net.cpp:141] Setting up fc8
I0721 12:35:26.976508  8009 net.cpp:148] Top shape: 10 1000 (10000)
I0721 12:35:26.976524  8009 net.cpp:156] Memory required for data: 68641400
I0721 12:35:26.976557  8009 layer_factory.hpp:77] Creating layer prob
I0721 12:35:26.976606  8009 net.cpp:91] Creating Layer prob
I0721 12:35:26.976626  8009 net.cpp:425] prob <- fc8
I0721 12:35:26.976653  8009 net.cpp:399] prob -> prob
I0721 12:35:26.977917  8009 net.cpp:141] Setting up prob
I0721 12:35:26.977957  8009 net.cpp:148] Top shape: 10 1000 (10000)
I0721 12:35:26.977972  8009 net.cpp:156] Memory required for data: 68681400
I0721 12:35:26.977989  8009 net.cpp:219] prob does not need backward computation.
I0721 12:35:26.978004  8009 net.cpp:219] fc8 does not need backward computation.
I0721 12:35:26.978018  8009 net.cpp:219] drop7 does not need backward computation.
I0721 12:35:26.978032  8009 net.cpp:219] relu7 does not need backward computation.
…
I0721 12:35:26.978255  8009 net.cpp:219] norm1 does not need backward computation.
I0721 12:35:26.978272  8009 net.cpp:219] pool1 does not need backward computation.
I0721 12:35:26.978288  8009 net.cpp:219] relu1 does not need backward computation.
I0721 12:35:26.978301  8009 net.cpp:219] conv1 does not need backward computation.
I0721 12:35:26.978317  8009 net.cpp:219] data does not need backward computation.
I0721 12:35:26.978329  8009 net.cpp:261] This network produces output prob
I0721 12:35:26.978376  8009 net.cpp:274] Network initialization done.
I0721 12:35:26.995060  8015 net.cpp:141] Setting up fc6
I0721 12:35:26.995110  8015 net.cpp:148] Top shape: 10 4096 (40960)
I0721 12:35:26.995116  8015 net.cpp:156] Memory required for data: 67782200
I0721 12:35:26.995131  8015 layer_factory.hpp:77] Creating layer relu6
I0721 12:35:26.995144  8015 net.cpp:91] Creating Layer relu6
I0721 12:35:26.995149  8015 net.cpp:425] relu6 <- fc6
I0721 12:35:26.995162  8015 net.cpp:386] relu6 -> fc6 (in-place)
I0721 12:35:26.995957  8015 net.cpp:141] Setting up relu6
I0721 12:35:26.995981  8015 net.cpp:148] Top shape: 10 4096 (40960)
I0721 12:35:26.995986  8015 net.cpp:156] Memory required for data: 67946040
I0721 12:35:26.995992  8015 layer_factory.hpp:77] Creating layer drop6
I0721 12:35:26.996002  8015 net.cpp:91] Creating Layer drop6
I0721 12:35:26.996007  8015 net.cpp:425] drop6 <- fc6
I0721 12:35:26.996013  8015 net.cpp:386] drop6 -> fc6 (in-place)
I0721 12:35:26.996090  8015 net.cpp:141] Setting up drop6
I0721 12:35:26.996100  8015 net.cpp:148] Top shape: 10 4096 (40960)
I0721 12:35:26.996104  8015 net.cpp:156] Memory required for data: 68109880
I0721 12:35:26.996109  8015 layer_factory.hpp:77] Creating layer fc7
I0721 12:35:26.996119  8015 net.cpp:91] Creating Layer fc7
I0721 12:35:26.996124  8015 net.cpp:425] fc7 <- fc6
I0721 12:35:26.996129  8015 net.cpp:399] fc7 -> fc7
I0721 12:35:27.044467  8015 net.cpp:141] Setting up fc7
I0721 12:35:27.044512  8015 net.cpp:148] Top shape: 10 4096 (40960)
I0721 12:35:27.044517  8015 net.cpp:156] Memory required for data: 68273720
I0721 12:35:27.044531  8015 layer_factory.hpp:77] Creating layer relu7
I0721 12:35:27.044545  8015 net.cpp:91] Creating Layer relu7
I0721 12:35:27.044551  8015 net.cpp:425] relu7 <- fc7
I0721 12:35:27.044560  8015 net.cpp:386] relu7 -> fc7 (in-place)
I0721 12:35:27.046347  8015 net.cpp:141] Setting up relu7
I0721 12:35:27.046371  8015 net.cpp:148] Top shape: 10 4096 (40960)
I0721 12:35:27.046376  8015 net.cpp:156] Memory required for data: 68437560
I0721 12:35:27.046382  8015 layer_factory.hpp:77] Creating layer drop7
I0721 12:35:27.046397  8015 net.cpp:91] Creating Layer drop7
I0721 12:35:27.046402  8015 net.cpp:425] drop7 <- fc7
I0721 12:35:27.046409  8015 net.cpp:386] drop7 -> fc7 (in-place)
I0721 12:35:27.046489  8015 net.cpp:141] Setting up drop7
I0721 12:35:27.046500  8015 net.cpp:148] Top shape: 10 4096 (40960)
I0721 12:35:27.046504  8015 net.cpp:156] Memory required for data: 68601400
I0721 12:35:27.046509  8015 layer_factory.hpp:77] Creating layer fc8
I0721 12:35:27.046519  8015 net.cpp:91] Creating Layer fc8
I0721 12:35:27.046522  8015 net.cpp:425] fc8 <- fc7
I0721 12:35:27.046530  8015 net.cpp:399] fc8 -> fc8
I0721 12:35:27.060058  8015 net.cpp:141] Setting up fc8
I0721 12:35:27.060101  8015 net.cpp:148] Top shape: 10 1000 (10000)
I0721 12:35:27.060107  8015 net.cpp:156] Memory required for data: 68641400
I0721 12:35:27.060122  8015 layer_factory.hpp:77] Creating layer prob
I0721 12:35:27.060135  8015 net.cpp:91] Creating Layer prob
I0721 12:35:27.060142  8015 net.cpp:425] prob <- fc8
I0721 12:35:27.060150  8015 net.cpp:399] prob -> prob
I0721 12:35:27.060652  8015 net.cpp:141] Setting up prob
I0721 12:35:27.060664  8015 net.cpp:148] Top shape: 10 1000 (10000)
I0721 12:35:27.060669  8015 net.cpp:156] Memory required for data: 68681400
I0721 12:35:27.060674  8015 net.cpp:219] prob does not need backward computation.
I0721 12:35:27.060679  8015 net.cpp:219] fc8 does not need backward computation.
I0721 12:35:27.060683  8015 net.cpp:219] drop7 does not need backward computation.
I0721 12:35:27.060688  8015 net.cpp:219] relu7 does not need backward computation.
…
