…
2016-08-02 07:11:25.013 n.t.s.b.CVParticleBolt [INFO] [Timing] RequestID: 0 StreamID: home_peifeng_work_data_frame_320x240_jpg SequenceNr: 186 Leaving scale: 1470136285013 Size: 3530
2016-08-02 07:11:25.014 n.t.s.b.CVParticleBolt [INFO] [Timing] RequestID: 0 StreamID: home_peifeng_work_data_frame_320x240_jpg SequenceNr: 187 Leaving scale: 1470136285014 Size: 3530
2016-08-02 07:11:25.017 n.t.s.b.CVParticleBolt [INFO] [Timing] RequestID: 0 StreamID: home_peifeng_work_data_frame_320x240_jpg SequenceNr: 188 Leaving scale: 1470136285017 Size: 3530
2016-08-02 07:11:25.066 STDERR [INFO] I0802 07:11:25.066303  2602 net.cpp:141] Setting up data
2016-08-02 07:11:25.066 STDERR [INFO] I0802 07:11:25.066373  2602 net.cpp:148] Top shape: 10 3 227 227 (1545870)
2016-08-02 07:11:25.067 STDERR [INFO] I0802 07:11:25.066376  2592 net.cpp:141] Setting up input
2016-08-02 07:11:25.067 STDERR [INFO] I0802 07:11:25.066380  2602 net.cpp:156] Memory required for data: 6183480
2016-08-02 07:11:25.067 STDERR [INFO] I0802 07:11:25.066402  2592 net.cpp:148] Top shape: 1 4096 (4096)
2016-08-02 07:11:25.067 STDERR [INFO] I0802 07:11:25.066409  2592 net.cpp:148] Top shape: 1 1 (1)
2016-08-02 07:11:25.067 STDERR [INFO] I0802 07:11:25.066412  2602 layer_factory.hpp:77] Creating layer conv1
2016-08-02 07:11:25.067 STDERR [INFO] I0802 07:11:25.066414  2592 net.cpp:148] Top shape: 1 1 (1)
2016-08-02 07:11:25.067 STDERR [INFO] I0802 07:11:25.066427  2592 net.cpp:148] Top shape: 1 1 (1)
2016-08-02 07:11:25.067 STDERR [INFO] I0802 07:11:25.066431  2592 net.cpp:156] Memory required for data: 16396
2016-08-02 07:11:25.067 STDERR [INFO] I0802 07:11:25.066437  2592 layer_factory.hpp:77] Creating layer cont_sentence_input_1_split
2016-08-02 07:11:25.067 STDERR [INFO] I0802 07:11:25.066444  2602 net.cpp:91] Creating Layer conv1
2016-08-02 07:11:25.067 STDERR [INFO] I0802 07:11:25.066453  2602 net.cpp:425] conv1 <- data
2016-08-02 07:11:25.068 STDERR [INFO] I0802 07:11:25.066457  2592 net.cpp:91] Creating Layer cont_sentence_input_1_split
2016-08-02 07:11:25.068 STDERR [INFO] I0802 07:11:25.066463  2592 net.cpp:425] cont_sentence_input_1_split <- cont_sentence
2016-08-02 07:11:25.068 STDERR [INFO] I0802 07:11:25.066465  2602 net.cpp:399] conv1 -> conv1
2016-08-02 07:11:25.068 STDERR [INFO] I0802 07:11:25.066485  2592 net.cpp:399] cont_sentence_input_1_split -> cont_sentence_input_1_split_0
2016-08-02 07:11:25.068 STDERR [INFO] I0802 07:11:25.066496  2592 net.cpp:399] cont_sentence_input_1_split -> cont_sentence_input_1_split_1
2016-08-02 07:11:25.068 STDERR [INFO] I0802 07:11:25.066604  2592 net.cpp:141] Setting up cont_sentence_input_1_split
2016-08-02 07:11:25.068 STDERR [INFO] I0802 07:11:25.066615  2592 net.cpp:148] Top shape: 1 1 (1)
2016-08-02 07:11:25.068 STDERR [INFO] I0802 07:11:25.066620  2592 net.cpp:148] Top shape: 1 1 (1)
2016-08-02 07:11:25.068 STDERR [INFO] I0802 07:11:25.066624  2592 net.cpp:156] Memory required for data: 16404
2016-08-02 07:11:25.069 STDERR [INFO] I0802 07:11:25.066629  2592 layer_factory.hpp:77] Creating layer embed_encoder
2016-08-02 07:11:25.069 STDERR [INFO] I0802 07:11:25.066655  2592 net.cpp:91] Creating Layer embed_encoder
2016-08-02 07:11:25.069 STDERR [INFO] I0802 07:11:25.066661  2592 net.cpp:425] embed_encoder <- frames_fc7
2016-08-02 07:11:25.069 STDERR [INFO] I0802 07:11:25.066671  2592 net.cpp:399] embed_encoder -> embedded_in_frames
2016-08-02 07:11:25.097 STDERR [INFO] I0802 07:11:25.097049  2592 net.cpp:141] Setting up embed_encoder
2016-08-02 07:11:25.097 STDERR [INFO] I0802 07:11:25.097095  2592 net.cpp:148] Top shape: 1 500 (500)
2016-08-02 07:11:25.097 STDERR [INFO] I0802 07:11:25.097101  2592 net.cpp:156] Memory required for data: 18404
2016-08-02 07:11:25.097 STDERR [INFO] I0802 07:11:25.097126  2592 layer_factory.hpp:77] Creating layer reshape_frames
2016-08-02 07:11:25.097 STDERR [INFO] I0802 07:11:25.097156  2592 net.cpp:91] Creating Layer reshape_frames
2016-08-02 07:11:25.097 STDERR [INFO] I0802 07:11:25.097163  2592 net.cpp:425] reshape_frames <- embedded_in_frames
2016-08-02 07:11:25.098 STDERR [INFO] I0802 07:11:25.097175  2592 net.cpp:399] reshape_frames -> embedded_input_frames
2016-08-02 07:11:25.098 STDERR [INFO] I0802 07:11:25.097223  2592 net.cpp:141] Setting up reshape_frames
2016-08-02 07:11:25.098 STDERR [INFO] I0802 07:11:25.097232  2592 net.cpp:148] Top shape: 1 1 500 (500)
2016-08-02 07:11:25.098 STDERR [INFO] I0802 07:11:25.097236  2592 net.cpp:156] Memory required for data: 20404
2016-08-02 07:11:25.098 STDERR [INFO] I0802 07:11:25.097241  2592 layer_factory.hpp:77] Creating layer reshape_stage_indicator
2016-08-02 07:11:25.098 STDERR [INFO] I0802 07:11:25.097259  2592 net.cpp:91] Creating Layer reshape_stage_indicator
2016-08-02 07:11:25.098 STDERR [INFO] I0802 07:11:25.097265  2592 net.cpp:425] reshape_stage_indicator <- stage_indicator
2016-08-02 07:11:25.098 STDERR [INFO] I0802 07:11:25.097272  2592 net.cpp:399] reshape_stage_indicator -> reshaped_stage_indicator
2016-08-02 07:11:25.098 STDERR [INFO] I0802 07:11:25.097306  2592 net.cpp:141] Setting up reshape_stage_indicator
2016-08-02 07:11:25.098 STDERR [INFO] I0802 07:11:25.097314  2592 net.cpp:148] Top shape: 1 1 1 (1)
2016-08-02 07:11:25.099 STDERR [INFO] I0802 07:11:25.097318  2592 net.cpp:156] Memory required for data: 20408
2016-08-02 07:11:25.099 STDERR [INFO] I0802 07:11:25.097322  2592 layer_factory.hpp:77] Creating layer embedding
2016-08-02 07:11:25.099 STDERR [INFO] I0802 07:11:25.097333  2592 net.cpp:91] Creating Layer embedding
2016-08-02 07:11:25.099 STDERR [INFO] I0802 07:11:25.097337  2592 net.cpp:425] embedding <- input_sentence
…
2016-08-02 07:11:25.321 STDERR [INFO] }
2016-08-02 07:11:25.321 STDERR [INFO] I0802 07:11:25.309535  2592 layer_factory.hpp:77] Creating layer lstm1_
2016-08-02 07:11:25.321 STDERR [INFO] I0802 07:11:25.309548  2592 net.cpp:91] Creating Layer lstm1_
2016-08-02 07:11:25.321 STDERR [INFO] I0802 07:11:25.309554  2592 net.cpp:399] lstm1_ -> x
2016-08-02 07:11:25.322 STDERR [INFO] I0802 07:11:25.309566  2592 net.cpp:399] lstm1_ -> cont
2016-08-02 07:11:25.322 STDERR [INFO] I0802 07:11:25.309921  2592 net.cpp:141] Setting up lstm1_
2016-08-02 07:11:25.322 STDERR [INFO] I0802 07:11:25.309932  2592 net.cpp:148] Top shape: 1 1 500 (500)
2016-08-02 07:11:25.322 STDERR [INFO] I0802 07:11:25.309938  2592 net.cpp:148] Top shape: 1 1 (1)
2016-08-02 07:11:25.322 STDERR [INFO] I0802 07:11:25.309942  2592 net.cpp:156] Memory required for data: 2004
2016-08-02 07:11:25.322 STDERR [INFO] I0802 07:11:25.309947  2592 layer_factory.hpp:77] Creating layer lstm1_
2016-08-02 07:11:25.322 STDERR [INFO] I0802 07:11:25.309962  2592 net.cpp:91] Creating Layer lstm1_
2016-08-02 07:11:25.322 STDERR [INFO] I0802 07:11:25.309967  2592 net.cpp:399] lstm1_ -> c_0
2016-08-02 07:11:25.322 STDERR [INFO] I0802 07:11:25.309979  2592 net.cpp:399] lstm1_ -> h_0
2016-08-02 07:11:25.322 STDERR [INFO] I0802 07:11:25.310183  2592 net.cpp:141] Setting up lstm1_
2016-08-02 07:11:25.323 STDERR [INFO] I0802 07:11:25.310192  2592 net.cpp:148] Top shape: 1 1 1000 (1000)
2016-08-02 07:11:25.323 STDERR [INFO] I0802 07:11:25.310199  2592 net.cpp:148] Top shape: 1 1 1000 (1000)
2016-08-02 07:11:25.323 STDERR [INFO] I0802 07:11:25.310201  2592 net.cpp:156] Memory required for data: 10004
2016-08-02 07:11:25.323 STDERR [INFO] I0802 07:11:25.310206  2592 layer_factory.hpp:77] Creating layer lstm1_cont_slice
2016-08-02 07:11:25.323 STDERR [INFO] I0802 07:11:25.310220  2592 net.cpp:91] Creating Layer lstm1_cont_slice
2016-08-02 07:11:25.323 STDERR [INFO] I0802 07:11:25.310225  2592 net.cpp:425] lstm1_cont_slice <- cont
2016-08-02 07:11:25.323 STDERR [INFO] I0802 07:11:25.310231  2592 net.cpp:399] lstm1_cont_slice -> cont_1
2016-08-02 07:11:25.323 STDERR [INFO] I0802 07:11:25.310271  2592 net.cpp:141] Setting up lstm1_cont_slice
2016-08-02 07:11:25.323 STDERR [INFO] I0802 07:11:25.310279  2592 net.cpp:148] Top shape: 1 1 (1)
2016-08-02 07:11:25.323 STDERR [INFO] I0802 07:11:25.310283  2592 net.cpp:156] Memory required for data: 10008
2016-08-02 07:11:25.323 STDERR [INFO] I0802 07:11:25.310288  2592 layer_factory.hpp:77] Creating layer cont_1_lstm1_cont_slice_0_split
2016-08-02 07:11:25.323 STDERR [INFO] I0802 07:11:25.310295  2592 net.cpp:91] Creating Layer cont_1_lstm1_cont_slice_0_split
2016-08-02 07:11:25.323 STDERR [INFO] I0802 07:11:25.310299  2592 net.cpp:425] cont_1_lstm1_cont_slice_0_split <- cont_1
2016-08-02 07:11:25.324 STDERR [INFO] I0802 07:11:25.310309  2592 net.cpp:399] cont_1_lstm1_cont_slice_0_split -> cont_1_lstm1_cont_slice_0_split_0
2016-08-02 07:11:25.324 STDERR [INFO] I0802 07:11:25.310318  2592 net.cpp:399] cont_1_lstm1_cont_slice_0_split -> cont_1_lstm1_cont_slice_0_split_1
2016-08-02 07:11:25.324 STDERR [INFO] I0802 07:11:25.310374  2592 net.cpp:141] Setting up cont_1_lstm1_cont_slice_0_split
2016-08-02 07:11:25.324 STDERR [INFO] I0802 07:11:25.310384  2592 net.cpp:148] Top shape: 1 1 (1)
2016-08-02 07:11:25.324 STDERR [INFO] I0802 07:11:25.310389  2592 net.cpp:148] Top shape: 1 1 (1)
2016-08-02 07:11:25.324 STDERR [INFO] I0802 07:11:25.310392  2592 net.cpp:156] Memory required for data: 10016
2016-08-02 07:11:25.324 STDERR [INFO] I0802 07:11:25.310396  2592 layer_factory.hpp:77] Creating layer lstm1_x_transform
2016-08-02 07:11:25.324 STDERR [INFO] I0802 07:11:25.310408  2592 net.cpp:91] Creating Layer lstm1_x_transform
2016-08-02 07:11:25.324 STDERR [INFO] I0802 07:11:25.310413  2592 net.cpp:425] lstm1_x_transform <- x
2016-08-02 07:11:25.324 STDERR [INFO] I0802 07:11:25.310420  2592 net.cpp:399] lstm1_x_transform -> W_xc_x
2016-08-02 07:11:25.324 STDERR [INFO] I0802 07:11:25.315248  2602 net.cpp:141] Setting up conv1
2016-08-02 07:11:25.324 STDERR [INFO] I0802 07:11:25.315275  2602 net.cpp:148] Top shape: 10 96 55 55 (2904000)
2016-08-02 07:11:25.324 STDERR [INFO] I0802 07:11:25.315281  2602 net.cpp:156] Memory required for data: 17799480
2016-08-02 07:11:25.325 STDERR [INFO] I0802 07:11:25.315297  2602 layer_factory.hpp:77] Creating layer relu1
2016-08-02 07:11:25.325 STDERR [INFO] I0802 07:11:25.315310  2602 net.cpp:91] Creating Layer relu1
2016-08-02 07:11:25.325 STDERR [INFO] I0802 07:11:25.315315  2602 net.cpp:425] relu1 <- conv1
2016-08-02 07:11:25.325 STDERR [INFO] I0802 07:11:25.315321  2602 net.cpp:386] relu1 -> conv1 (in-place)
2016-08-02 07:11:25.325 STDERR [INFO] I0802 07:11:25.315771  2602 net.cpp:141] Setting up relu1
2016-08-02 07:11:25.325 STDERR [INFO] I0802 07:11:25.315784  2602 net.cpp:148] Top shape: 10 96 55 55 (2904000)
2016-08-02 07:11:25.325 STDERR [INFO] I0802 07:11:25.315789  2602 net.cpp:156] Memory required for data: 29415480
2016-08-02 07:11:25.325 STDERR [INFO] I0802 07:11:25.315794  2602 layer_factory.hpp:77] Creating layer pool1
2016-08-02 07:11:25.325 STDERR [INFO] I0802 07:11:25.315805  2602 net.cpp:91] Creating Layer pool1
2016-08-02 07:11:25.325 STDERR [INFO] I0802 07:11:25.315810  2602 net.cpp:425] pool1 <- conv1
2016-08-02 07:11:25.325 STDERR [INFO] I0802 07:11:25.315819  2602 net.cpp:399] pool1 -> pool1
2016-08-02 07:11:25.325 STDERR [INFO] I0802 07:11:25.315884  2602 net.cpp:141] Setting up pool1
2016-08-02 07:11:25.325 STDERR [INFO] I0802 07:11:25.315894  2602 net.cpp:148] Top shape: 10 96 27 27 (699840)
2016-08-02 07:11:25.326 STDERR [INFO] I0802 07:11:25.315898  2602 net.cpp:156] Memory required for data: 32214840
2016-08-02 07:11:25.326 STDERR [INFO] I0802 07:11:25.315903  2602 layer_factory.hpp:77] Creating layer norm1
2016-08-02 07:11:25.326 STDERR [INFO] I0802 07:11:25.315917  2602 net.cpp:91] Creating Layer norm1
2016-08-02 07:11:25.326 STDERR [INFO] I0802 07:11:25.315922  2602 net.cpp:425] norm1 <- pool1
2016-08-02 07:11:25.326 STDERR [INFO] I0802 07:11:25.315929  2602 net.cpp:399] norm1 -> norm1
2016-08-02 07:11:25.326 STDERR [INFO] I0802 07:11:25.316404  2602 net.cpp:141] Setting up norm1
2016-08-02 07:11:25.326 STDERR [INFO] I0802 07:11:25.316418  2602 net.cpp:148] Top shape: 10 96 27 27 (699840)
2016-08-02 07:11:25.326 STDERR [INFO] I0802 07:11:25.316422  2602 net.cpp:156] Memory required for data: 35014200
2016-08-02 07:11:25.326 STDERR [INFO] I0802 07:11:25.316428  2602 layer_factory.hpp:77] Creating layer conv2
2016-08-02 07:11:25.326 STDERR [INFO] I0802 07:11:25.316442  2602 net.cpp:91] Creating Layer conv2
2016-08-02 07:11:25.326 STDERR [INFO] I0802 07:11:25.316447  2602 net.cpp:425] conv2 <- norm1
2016-08-02 07:11:25.326 STDERR [INFO] I0802 07:11:25.316455  2602 net.cpp:399] conv2 -> conv2
2016-08-02 07:11:25.326 STDERR [INFO] I0802 07:11:25.319504  2602 net.cpp:141] Setting up conv2
2016-08-02 07:11:25.327 STDERR [INFO] I0802 07:11:25.319519  2602 net.cpp:148] Top shape: 10 256 27 27 (1866240)
2016-08-02 07:11:25.327 STDERR [INFO] I0802 07:11:25.319525  2602 net.cpp:156] Memory required for data: 42479160
2016-08-02 07:11:25.327 STDERR [INFO] I0802 07:11:25.319536  2602 layer_factory.hpp:77] Creating layer relu2
2016-08-02 07:11:25.327 STDERR [INFO] I0802 07:11:25.319545  2602 net.cpp:91] Creating Layer relu2
2016-08-02 07:11:25.327 STDERR [INFO] I0802 07:11:25.319551  2602 net.cpp:425] relu2 <- conv2
2016-08-02 07:11:25.327 STDERR [INFO] I0802 07:11:25.319557  2602 net.cpp:386] relu2 -> conv2 (in-place)
2016-08-02 07:11:25.327 STDERR [INFO] I0802 07:11:25.319983  2602 net.cpp:141] Setting up relu2
2016-08-02 07:11:25.327 STDERR [INFO] I0802 07:11:25.320000  2602 net.cpp:148] Top shape: 10 256 27 27 (1866240)
2016-08-02 07:11:25.327 STDERR [INFO] I0802 07:11:25.320013  2602 net.cpp:156] Memory required for data: 49944120
2016-08-02 07:11:25.327 STDERR [INFO] I0802 07:11:25.320019  2602 layer_factory.hpp:77] Creating layer pool2
2016-08-02 07:11:25.327 STDERR [INFO] I0802 07:11:25.320029  2602 net.cpp:91] Creating Layer pool2
2016-08-02 07:11:25.327 STDERR [INFO] I0802 07:11:25.320034  2602 net.cpp:425] pool2 <- conv2
2016-08-02 07:11:25.328 STDERR [INFO] I0802 07:11:25.320041  2602 net.cpp:399] pool2 -> pool2
2016-08-02 07:11:25.328 STDERR [INFO] I0802 07:11:25.320094  2602 net.cpp:141] Setting up pool2
2016-08-02 07:11:25.328 STDERR [INFO] I0802 07:11:25.320103  2602 net.cpp:148] Top shape: 10 256 13 13 (432640)
2016-08-02 07:11:25.328 STDERR [INFO] I0802 07:11:25.320108  2602 net.cpp:156] Memory required for data: 51674680
2016-08-02 07:11:25.328 STDERR [INFO] I0802 07:11:25.320112  2602 layer_factory.hpp:77] Creating layer norm2
2016-08-02 07:11:25.328 STDERR [INFO] I0802 07:11:25.320122  2602 net.cpp:91] Creating Layer norm2
2016-08-02 07:11:25.328 STDERR [INFO] I0802 07:11:25.320127  2602 net.cpp:425] norm2 <- pool2
2016-08-02 07:11:25.328 STDERR [INFO] I0802 07:11:25.320134  2602 net.cpp:399] norm2 -> norm2
2016-08-02 07:11:25.328 STDERR [INFO] I0802 07:11:25.320370  2602 net.cpp:141] Setting up norm2
2016-08-02 07:11:25.328 STDERR [INFO] I0802 07:11:25.320382  2602 net.cpp:148] Top shape: 10 256 13 13 (432640)
2016-08-02 07:11:25.328 STDERR [INFO] I0802 07:11:25.320387  2602 net.cpp:156] Memory required for data: 53405240
2016-08-02 07:11:25.328 STDERR [INFO] I0802 07:11:25.320392  2602 layer_factory.hpp:77] Creating layer conv3
2016-08-02 07:11:25.328 STDERR [INFO] I0802 07:11:25.320403  2602 net.cpp:91] Creating Layer conv3
2016-08-02 07:11:25.329 STDERR [INFO] I0802 07:11:25.320408  2602 net.cpp:425] conv3 <- norm2
2016-08-02 07:11:25.329 STDERR [INFO] I0802 07:11:25.320415  2602 net.cpp:399] conv3 -> conv3
2016-08-02 07:11:25.329 STDERR [INFO] I0802 07:11:25.324077  2602 net.cpp:141] Setting up conv3
2016-08-02 07:11:25.329 STDERR [INFO] I0802 07:11:25.324092  2602 net.cpp:148] Top shape: 10 384 13 13 (648960)
2016-08-02 07:11:25.329 STDERR [INFO] I0802 07:11:25.324097  2602 net.cpp:156] Memory required for data: 56001080
2016-08-02 07:11:25.329 STDERR [INFO] I0802 07:11:25.324110  2602 layer_factory.hpp:77] Creating layer relu3
2016-08-02 07:11:25.329 STDERR [INFO] I0802 07:11:25.324123  2602 net.cpp:91] Creating Layer relu3
2016-08-02 07:11:25.329 STDERR [INFO] I0802 07:11:25.324128  2602 net.cpp:425] relu3 <- conv3
2016-08-02 07:11:25.329 STDERR [INFO] I0802 07:11:25.324136  2602 net.cpp:386] relu3 -> conv3 (in-place)
2016-08-02 07:11:25.329 STDERR [INFO] I0802 07:11:25.324573  2602 net.cpp:141] Setting up relu3
2016-08-02 07:11:25.329 STDERR [INFO] I0802 07:11:25.324586  2602 net.cpp:148] Top shape: 10 384 13 13 (648960)
2016-08-02 07:11:25.329 STDERR [INFO] I0802 07:11:25.324590  2602 net.cpp:156] Memory required for data: 58596920
2016-08-02 07:11:25.330 STDERR [INFO] I0802 07:11:25.324595  2602 layer_factory.hpp:77] Creating layer conv4
2016-08-02 07:11:25.330 STDERR [INFO] I0802 07:11:25.324609  2602 net.cpp:91] Creating Layer conv4
2016-08-02 07:11:25.330 STDERR [INFO] I0802 07:11:25.324615  2602 net.cpp:425] conv4 <- conv3
2016-08-02 07:11:25.330 STDERR [INFO] I0802 07:11:25.324625  2602 net.cpp:399] conv4 -> conv4
2016-08-02 07:11:25.330 STDERR [INFO] I0802 07:11:25.328605  2602 net.cpp:141] Setting up conv4
2016-08-02 07:11:25.330 STDERR [INFO] I0802 07:11:25.328624  2602 net.cpp:148] Top shape: 10 384 13 13 (648960)
2016-08-02 07:11:25.330 STDERR [INFO] I0802 07:11:25.328629  2602 net.cpp:156] Memory required for data: 61192760
2016-08-02 07:11:25.330 STDERR [INFO] I0802 07:11:25.328637  2602 layer_factory.hpp:77] Creating layer relu4
2016-08-02 07:11:25.330 STDERR [INFO] I0802 07:11:25.328646  2602 net.cpp:91] Creating Layer relu4
2016-08-02 07:11:25.330 STDERR [INFO] I0802 07:11:25.328651  2602 net.cpp:425] relu4 <- conv4
2016-08-02 07:11:25.330 STDERR [INFO] I0802 07:11:25.328657  2602 net.cpp:386] relu4 -> conv4 (in-place)
2016-08-02 07:11:25.330 STDERR [INFO] I0802 07:11:25.329097  2602 net.cpp:141] Setting up relu4
2016-08-02 07:11:25.330 STDERR [INFO] I0802 07:11:25.329110  2602 net.cpp:148] Top shape: 10 384 13 13 (648960)
2016-08-02 07:11:25.331 STDERR [INFO] I0802 07:11:25.329114  2602 net.cpp:156] Memory required for data: 63788600
2016-08-02 07:11:25.331 STDERR [INFO] I0802 07:11:25.329119  2602 layer_factory.hpp:77] Creating layer conv5
2016-08-02 07:11:25.331 STDERR [INFO] I0802 07:11:25.329130  2602 net.cpp:91] Creating Layer conv5
2016-08-02 07:11:25.331 STDERR [INFO] I0802 07:11:25.329135  2602 net.cpp:425] conv5 <- conv4
2016-08-02 07:11:25.331 STDERR [INFO] I0802 07:11:25.329145  2602 net.cpp:399] conv5 -> conv5
2016-08-02 07:11:25.331 STDERR [INFO] I0802 07:11:25.330478  2592 net.cpp:141] Setting up lstm1_x_transform
2016-08-02 07:11:25.331 STDERR [INFO] I0802 07:11:25.330493  2592 net.cpp:148] Top shape: 1 1 4000 (4000)
2016-08-02 07:11:25.332 STDERR [INFO] I0802 07:11:25.330498  2592 net.cpp:156] Memory required for data: 26016
2016-08-02 07:11:25.332 STDERR [INFO] I0802 07:11:25.330510  2592 layer_factory.hpp:77] Creating layer lstm1_W_xc_x_slice
2016-08-02 07:11:25.332 STDERR [INFO] I0802 07:11:25.330520  2592 net.cpp:91] Creating Layer lstm1_W_xc_x_slice
2016-08-02 07:11:25.332 STDERR [INFO] I0802 07:11:25.330525  2592 net.cpp:425] lstm1_W_xc_x_slice <- W_xc_x
2016-08-02 07:11:25.332 STDERR [INFO] I0802 07:11:25.330533  2592 net.cpp:399] lstm1_W_xc_x_slice -> W_xc_x_1
2016-08-02 07:11:25.332 STDERR [INFO] I0802 07:11:25.330576  2592 net.cpp:141] Setting up lstm1_W_xc_x_slice
2016-08-02 07:11:25.332 STDERR [INFO] I0802 07:11:25.330586  2592 net.cpp:148] Top shape: 1 1 4000 (4000)
2016-08-02 07:11:25.332 STDERR [INFO] I0802 07:11:25.330590  2592 net.cpp:156] Memory required for data: 42016
2016-08-02 07:11:25.332 STDERR [INFO] I0802 07:11:25.330595  2592 layer_factory.hpp:77] Creating layer lstm1_h_conted_0
2016-08-02 07:11:25.332 STDERR [INFO] I0802 07:11:25.330610  2592 net.cpp:91] Creating Layer lstm1_h_conted_0
2016-08-02 07:11:25.332 STDERR [INFO] I0802 07:11:25.330615  2592 net.cpp:425] lstm1_h_conted_0 <- h_0
2016-08-02 07:11:25.332 STDERR [INFO] I0802 07:11:25.330621  2592 net.cpp:425] lstm1_h_conted_0 <- cont_1_lstm1_cont_slice_0_split_0
2016-08-02 07:11:25.333 STDERR [INFO] I0802 07:11:25.330627  2592 net.cpp:399] lstm1_h_conted_0 -> h_conted_0
2016-08-02 07:11:25.333 STDERR [INFO] I0802 07:11:25.330936  2592 net.cpp:141] Setting up lstm1_h_conted_0
2016-08-02 07:11:25.333 STDERR [INFO] I0802 07:11:25.330947  2592 net.cpp:148] Top shape: 1 1 1000 (1000)
2016-08-02 07:11:25.333 STDERR [INFO] I0802 07:11:25.330951  2592 net.cpp:156] Memory required for data: 46016
2016-08-02 07:11:25.333 STDERR [INFO] I0802 07:11:25.330955  2592 layer_factory.hpp:77] Creating layer lstm1_transform_1
2016-08-02 07:11:25.333 STDERR [INFO] I0802 07:11:25.330976  2592 net.cpp:91] Creating Layer lstm1_transform_1
2016-08-02 07:11:25.333 STDERR [INFO] I0802 07:11:25.330982  2592 net.cpp:425] lstm1_transform_1 <- h_conted_0
2016-08-02 07:11:25.333 STDERR [INFO] I0802 07:11:25.330991  2592 net.cpp:399] lstm1_transform_1 -> W_hc_h_0
2016-08-02 07:11:25.340 STDERR [INFO] I0802 07:11:25.340512  2602 net.cpp:141] Setting up conv5
2016-08-02 07:11:25.341 STDERR [INFO] I0802 07:11:25.340574  2602 net.cpp:148] Top shape: 10 256 13 13 (432640)
2016-08-02 07:11:25.341 STDERR [INFO] I0802 07:11:25.340579  2602 net.cpp:156] Memory required for data: 65519160
2016-08-02 07:11:25.341 STDERR [INFO] I0802 07:11:25.340600  2602 layer_factory.hpp:77] Creating layer relu5
2016-08-02 07:11:25.341 STDERR [INFO] I0802 07:11:25.340615  2602 net.cpp:91] Creating Layer relu5
2016-08-02 07:11:25.341 STDERR [INFO] I0802 07:11:25.340620  2602 net.cpp:425] relu5 <- conv5
2016-08-02 07:11:25.341 STDERR [INFO] I0802 07:11:25.340633  2602 net.cpp:386] relu5 -> conv5 (in-place)
2016-08-02 07:11:25.341 STDERR [INFO] I0802 07:11:25.341086  2602 net.cpp:141] Setting up relu5
2016-08-02 07:11:25.341 STDERR [INFO] I0802 07:11:25.341099  2602 net.cpp:148] Top shape: 10 256 13 13 (432640)
2016-08-02 07:11:25.341 STDERR [INFO] I0802 07:11:25.341104  2602 net.cpp:156] Memory required for data: 67249720
2016-08-02 07:11:25.341 STDERR [INFO] I0802 07:11:25.341109  2602 layer_factory.hpp:77] Creating layer pool5
2016-08-02 07:11:25.342 STDERR [INFO] I0802 07:11:25.341119  2602 net.cpp:91] Creating Layer pool5
2016-08-02 07:11:25.342 STDERR [INFO] I0802 07:11:25.341123  2602 net.cpp:425] pool5 <- conv5
2016-08-02 07:11:25.342 STDERR [INFO] I0802 07:11:25.341135  2602 net.cpp:399] pool5 -> pool5
2016-08-02 07:11:25.342 STDERR [INFO] I0802 07:11:25.341197  2602 net.cpp:141] Setting up pool5
2016-08-02 07:11:25.342 STDERR [INFO] I0802 07:11:25.341207  2602 net.cpp:148] Top shape: 10 256 6 6 (92160)
2016-08-02 07:11:25.342 STDERR [INFO] I0802 07:11:25.341212  2602 net.cpp:156] Memory required for data: 67618360
2016-08-02 07:11:25.342 STDERR [INFO] I0802 07:11:25.341217  2602 layer_factory.hpp:77] Creating layer fc6
2016-08-02 07:11:25.342 STDERR [INFO] I0802 07:11:25.341234  2602 net.cpp:91] Creating Layer fc6
2016-08-02 07:11:25.342 STDERR [INFO] I0802 07:11:25.341239  2602 net.cpp:425] fc6 <- pool5
2016-08-02 07:11:25.342 STDERR [INFO] I0802 07:11:25.341248  2602 net.cpp:399] fc6 -> fc6
2016-08-02 07:11:25.400 n.t.s.f.RefreshingImageFetcher$ImageReader [INFO] [Timing] RequestID: 0 StreamID: home_peifeng_work_data_frame_320x240_jpg SequenceNr: 193 Entering queue: 1470136285400
2016-08-02 07:11:25.400 n.t.s.f.RefreshingImageFetcher$ImageReader [INFO] [Timing] RequestID: 0 StreamID: home_peifeng_work_data_frame_320x240_jpg SequenceNr: 194 Entering queue: 1470136285400
2016-08-02 07:11:25.400 n.t.s.f.RefreshingImageFetcher$ImageReader [INFO] [Timing] RequestID: 0 StreamID: home_peifeng_work_data_frame_320x240_jpg SequenceNr: 195 Entering queue: 1470136285400
2016-08-02 07:11:25.400 n.t.s.f.RefreshingImageFetcher$ImageReader [INFO] [Timing] RequestID: 0 StreamID: home_peifeng_work_data_frame_320x240_jpg SequenceNr: 196 Entering queue: 1470136285400
2016-08-02 07:11:25.402 STDERR [INFO] I0802 07:11:25.402395  2592 net.cpp:141] Setting up lstm1_transform_1
2016-08-02 07:11:25.403 STDERR [INFO] I0802 07:11:25.402447  2592 net.cpp:148] Top shape: 1 1 4000 (4000)
2016-08-02 07:11:25.403 STDERR [INFO] I0802 07:11:25.402453  2592 net.cpp:156] Memory required for data: 62016
2016-08-02 07:11:25.403 STDERR [INFO] I0802 07:11:25.402474  2592 layer_factory.hpp:77] Creating layer lstm1_gate_input_1
2016-08-02 07:11:25.403 STDERR [INFO] I0802 07:11:25.402493  2592 net.cpp:91] Creating Layer lstm1_gate_input_1
2016-08-02 07:11:25.403 STDERR [INFO] I0802 07:11:25.402499  2592 net.cpp:425] lstm1_gate_input_1 <- W_hc_h_0
2016-08-02 07:11:25.403 STDERR [INFO] I0802 07:11:25.402508  2592 net.cpp:425] lstm1_gate_input_1 <- W_xc_x_1
2016-08-02 07:11:25.403 STDERR [INFO] I0802 07:11:25.402518  2592 net.cpp:399] lstm1_gate_input_1 -> gate_input_1
2016-08-02 07:11:25.404 STDERR [INFO] I0802 07:11:25.402582  2592 net.cpp:141] Setting up lstm1_gate_input_1
2016-08-02 07:11:25.404 n.t.s.s.CVParticleSpout [INFO] [Timing] RequestID: 0 StreamID: home_peifeng_work_data_frame_320x240_jpg SequenceNr: 193 Leaving fetcher: 1470136285404 Size: 8702
2016-08-02 07:11:25.404 STDERR [INFO] I0802 07:11:25.402591  2592 net.cpp:148] Top shape: 1 1 4000 (4000)
2016-08-02 07:11:25.404 STDERR [INFO] I0802 07:11:25.402595  2592 net.cpp:156] Memory required for data: 78016
2016-08-02 07:11:25.404 n.t.s.b.CVParticleBolt [INFO] [Timing] RequestID: 0 StreamID: home_peifeng_work_data_frame_320x240_jpg SequenceNr: 193 Entering scale: 1470136285404
2016-08-02 07:11:25.404 STDERR [INFO] I0802 07:11:25.402601  2592 layer_factory.hpp:77] Creating layer lstm1_unit_1
2016-08-02 07:11:25.404 STDERR [INFO] I0802 07:11:25.402613  2592 net.cpp:91] Creating Layer lstm1_unit_1
2016-08-02 07:11:25.404 STDERR [INFO] I0802 07:11:25.402618  2592 net.cpp:425] lstm1_unit_1 <- c_0
2016-08-02 07:11:25.404 STDERR [INFO] I0802 07:11:25.402624  2592 net.cpp:425] lstm1_unit_1 <- gate_input_1
2016-08-02 07:11:25.404 STDERR [INFO] I0802 07:11:25.402629  2592 net.cpp:425] lstm1_unit_1 <- cont_1_lstm1_cont_slice_0_split_1
2016-08-02 07:11:25.404 STDERR [INFO] I0802 07:11:25.402636  2592 net.cpp:399] lstm1_unit_1 -> c_1
2016-08-02 07:11:25.404 STDERR [INFO] I0802 07:11:25.402644  2592 net.cpp:399] lstm1_unit_1 -> h_1
2016-08-02 07:11:25.404 STDERR [INFO] I0802 07:11:25.402709  2592 net.cpp:141] Setting up lstm1_unit_1
2016-08-02 07:11:25.404 STDERR [INFO] I0802 07:11:25.402717  2592 net.cpp:148] Top shape: 1 1 1000 (1000)
2016-08-02 07:11:25.405 STDERR [INFO] I0802 07:11:25.402724  2592 net.cpp:148] Top shape: 1 1 1000 (1000)
2016-08-02 07:11:25.405 STDERR [INFO] I0802 07:11:25.402727  2592 net.cpp:156] Memory required for data: 86016
2016-08-02 07:11:25.405 STDERR [INFO] I0802 07:11:25.402732  2592 layer_factory.hpp:77] Creating layer lstm1_
2016-08-02 07:11:25.405 STDERR [INFO] I0802 07:11:25.402740  2592 net.cpp:91] Creating Layer lstm1_
2016-08-02 07:11:25.405 STDERR [INFO] I0802 07:11:25.402745  2592 net.cpp:425] lstm1_ <- c_1
2016-08-02 07:11:25.405 STDERR [INFO] I0802 07:11:25.402755  2592 net.cpp:399] lstm1_ -> c_T
2016-08-02 07:11:25.405 STDERR [INFO] I0802 07:11:25.402786  2592 net.cpp:141] Setting up lstm1_
2016-08-02 07:11:25.405 STDERR [INFO] I0802 07:11:25.402794  2592 net.cpp:148] Top shape: 1 1 1000 (1000)
2016-08-02 07:11:25.405 STDERR [INFO] I0802 07:11:25.402798  2592 net.cpp:156] Memory required for data: 90016
2016-08-02 07:11:25.405 STDERR [INFO] I0802 07:11:25.402803  2592 layer_factory.hpp:77] Creating layer lstm1_h_concat
2016-08-02 07:11:25.405 STDERR [INFO] I0802 07:11:25.402820  2592 net.cpp:91] Creating Layer lstm1_h_concat
2016-08-02 07:11:25.406 STDERR [INFO] I0802 07:11:25.402825  2592 net.cpp:425] lstm1_h_concat <- h_1
2016-08-02 07:11:25.406 STDERR [INFO] I0802 07:11:25.402832  2592 net.cpp:399] lstm1_h_concat -> h
2016-08-02 07:11:25.406 STDERR [INFO] I0802 07:11:25.402870  2592 net.cpp:141] Setting up lstm1_h_concat
2016-08-02 07:11:25.406 STDERR [INFO] I0802 07:11:25.402879  2592 net.cpp:148] Top shape: 1 1 1000 (1000)
2016-08-02 07:11:25.406 STDERR [INFO] I0802 07:11:25.402884  2592 net.cpp:156] Memory required for data: 94016
2016-08-02 07:11:25.406 STDERR [INFO] I0802 07:11:25.402887  2592 layer_factory.hpp:77] Creating layer h_pseudoloss
2016-08-02 07:11:25.406 STDERR [INFO] I0802 07:11:25.402900  2592 net.cpp:91] Creating Layer h_pseudoloss
2016-08-02 07:11:25.406 STDERR [INFO] I0802 07:11:25.402905  2592 net.cpp:425] h_pseudoloss <- h
…
2016-08-02 07:11:25.422 STDERR [INFO] }
2016-08-02 07:11:25.422 STDERR [INFO] I0802 07:11:25.403785  2592 layer_factory.hpp:77] Creating layer lstm2_
2016-08-02 07:11:25.422 STDERR [INFO] I0802 07:11:25.403797  2592 net.cpp:91] Creating Layer lstm2_
2016-08-02 07:11:25.422 STDERR [INFO] I0802 07:11:25.403803  2592 net.cpp:399] lstm2_ -> x
2016-08-02 07:11:25.422 STDERR [INFO] I0802 07:11:25.403815  2592 net.cpp:399] lstm2_ -> cont
2016-08-02 07:11:25.422 STDERR [INFO] I0802 07:11:25.403867  2592 net.cpp:141] Setting up lstm2_
2016-08-02 07:11:25.422 STDERR [INFO] I0802 07:11:25.403877  2592 net.cpp:148] Top shape: 1 1 1501 (1501)
2016-08-02 07:11:25.422 STDERR [INFO] I0802 07:11:25.403882  2592 net.cpp:148] Top shape: 1 1 (1)
2016-08-02 07:11:25.422 STDERR [INFO] I0802 07:11:25.403887  2592 net.cpp:156] Memory required for data: 6008
2016-08-02 07:11:25.422 STDERR [INFO] I0802 07:11:25.403892  2592 layer_factory.hpp:77] Creating layer lstm2_
2016-08-02 07:11:25.422 STDERR [INFO] I0802 07:11:25.403903  2592 net.cpp:91] Creating Layer lstm2_
2016-08-02 07:11:25.422 STDERR [INFO] I0802 07:11:25.403910  2592 net.cpp:399] lstm2_ -> c_0
2016-08-02 07:11:25.423 STDERR [INFO] I0802 07:11:25.403919  2592 net.cpp:399] lstm2_ -> h_0
2016-08-02 07:11:25.424 STDERR [INFO] I0802 07:11:25.403972  2592 net.cpp:141] Setting up lstm2_
2016-08-02 07:11:25.424 STDERR [INFO] I0802 07:11:25.403982  2592 net.cpp:148] Top shape: 1 1 1000 (1000)
2016-08-02 07:11:25.424 STDERR [INFO] I0802 07:11:25.403987  2592 net.cpp:148] Top shape: 1 1 1000 (1000)
2016-08-02 07:11:25.424 STDERR [INFO] I0802 07:11:25.403991  2592 net.cpp:156] Memory required for data: 14008
2016-08-02 07:11:25.424 STDERR [INFO] I0802 07:11:25.403995  2592 layer_factory.hpp:77] Creating layer lstm2_cont_slice
2016-08-02 07:11:25.424 STDERR [INFO] I0802 07:11:25.404005  2592 net.cpp:91] Creating Layer lstm2_cont_slice
2016-08-02 07:11:25.424 STDERR [INFO] I0802 07:11:25.404021  2592 net.cpp:425] lstm2_cont_slice <- cont
2016-08-02 07:11:25.424 STDERR [INFO] I0802 07:11:25.404027  2592 net.cpp:399] lstm2_cont_slice -> cont_1
2016-08-02 07:11:25.424 STDERR [INFO] I0802 07:11:25.404067  2592 net.cpp:141] Setting up lstm2_cont_slice
2016-08-02 07:11:25.424 STDERR [INFO] I0802 07:11:25.404075  2592 net.cpp:148] Top shape: 1 1 (1)
2016-08-02 07:11:25.424 STDERR [INFO] I0802 07:11:25.404079  2592 net.cpp:156] Memory required for data: 14012
2016-08-02 07:11:25.425 STDERR [INFO] I0802 07:11:25.404084  2592 layer_factory.hpp:77] Creating layer cont_1_lstm2_cont_slice_0_split
2016-08-02 07:11:25.425 STDERR [INFO] I0802 07:11:25.404090  2592 net.cpp:91] Creating Layer cont_1_lstm2_cont_slice_0_split
2016-08-02 07:11:25.425 STDERR [INFO] I0802 07:11:25.404095  2592 net.cpp:425] cont_1_lstm2_cont_slice_0_split <- cont_1
2016-08-02 07:11:25.425 STDERR [INFO] I0802 07:11:25.404103  2592 net.cpp:399] cont_1_lstm2_cont_slice_0_split -> cont_1_lstm2_cont_slice_0_split_0
2016-08-02 07:11:25.425 STDERR [INFO] I0802 07:11:25.404111  2592 net.cpp:399] cont_1_lstm2_cont_slice_0_split -> cont_1_lstm2_cont_slice_0_split_1
2016-08-02 07:11:25.425 STDERR [INFO] I0802 07:11:25.404157  2592 net.cpp:141] Setting up cont_1_lstm2_cont_slice_0_split
2016-08-02 07:11:25.425 n.t.s.b.CVParticleBolt [INFO] [Timing] RequestID: 0 StreamID: home_peifeng_work_data_frame_320x240_jpg SequenceNr: 195 Leaving scale: 1470136285425 Size: 3530
2016-08-02 07:11:25.425 n.t.s.b.CVParticleBolt [INFO] [Timing] RequestID: 0 StreamID: home_peifeng_work_data_frame_320x240_jpg SequenceNr: 196 Leaving scale: 1470136285425 Size: 3530
2016-08-02 07:11:25.425 STDERR [INFO] I0802 07:11:25.404168  2592 net.cpp:148] Top shape: 1 1 (1)
2016-08-02 07:11:25.425 STDERR [INFO] I0802 07:11:25.404173  2592 net.cpp:148] Top shape: 1 1 (1)
2016-08-02 07:11:25.425 STDERR [INFO] I0802 07:11:25.404177  2592 net.cpp:156] Memory required for data: 14020
2016-08-02 07:11:25.425 STDERR [INFO] I0802 07:11:25.404182  2592 layer_factory.hpp:77] Creating layer lstm2_x_transform
2016-08-02 07:11:25.425 STDERR [INFO] I0802 07:11:25.404191  2592 net.cpp:91] Creating Layer lstm2_x_transform
2016-08-02 07:11:25.425 STDERR [INFO] I0802 07:11:25.404196  2592 net.cpp:425] lstm2_x_transform <- x
2016-08-02 07:11:25.426 STDERR [INFO] I0802 07:11:25.404206  2592 net.cpp:399] lstm2_x_transform -> W_xc_x
2016-08-02 07:11:25.442 STDERR [INFO] I0802 07:11:25.442095  2602 net.cpp:141] Setting up fc6
2016-08-02 07:11:25.442 STDERR [INFO] I0802 07:11:25.442160  2602 net.cpp:148] Top shape: 10 4096 (40960)
2016-08-02 07:11:25.442 STDERR [INFO] I0802 07:11:25.442167  2602 net.cpp:156] Memory required for data: 67782200
2016-08-02 07:11:25.442 STDERR [INFO] I0802 07:11:25.442181  2602 layer_factory.hpp:77] Creating layer relu6
2016-08-02 07:11:25.442 STDERR [INFO] I0802 07:11:25.442199  2602 net.cpp:91] Creating Layer relu6
2016-08-02 07:11:25.443 STDERR [INFO] I0802 07:11:25.442206  2602 net.cpp:425] relu6 <- fc6
2016-08-02 07:11:25.443 STDERR [INFO] I0802 07:11:25.442214  2602 net.cpp:386] relu6 -> fc6 (in-place)
2016-08-02 07:11:25.443 STDERR [INFO] I0802 07:11:25.442534  2602 net.cpp:141] Setting up relu6
2016-08-02 07:11:25.443 STDERR [INFO] I0802 07:11:25.442546  2602 net.cpp:148] Top shape: 10 4096 (40960)
2016-08-02 07:11:25.443 STDERR [INFO] I0802 07:11:25.442550  2602 net.cpp:156] Memory required for data: 67946040
2016-08-02 07:11:25.443 STDERR [INFO] I0802 07:11:25.442555  2602 layer_factory.hpp:77] Creating layer drop6
2016-08-02 07:11:25.443 STDERR [INFO] I0802 07:11:25.442564  2602 net.cpp:91] Creating Layer drop6
2016-08-02 07:11:25.443 STDERR [INFO] I0802 07:11:25.442569  2602 net.cpp:425] drop6 <- fc6
2016-08-02 07:11:25.443 STDERR [INFO] I0802 07:11:25.442579  2602 net.cpp:386] drop6 -> fc6 (in-place)
2016-08-02 07:11:25.443 STDERR [INFO] I0802 07:11:25.442627  2602 net.cpp:141] Setting up drop6
2016-08-02 07:11:25.443 STDERR [INFO] I0802 07:11:25.442638  2602 net.cpp:148] Top shape: 10 4096 (40960)
2016-08-02 07:11:25.444 STDERR [INFO] I0802 07:11:25.442643  2602 net.cpp:156] Memory required for data: 68109880
2016-08-02 07:11:25.444 STDERR [INFO] I0802 07:11:25.442648  2602 layer_factory.hpp:77] Creating layer fc7
2016-08-02 07:11:25.444 STDERR [INFO] I0802 07:11:25.442657  2602 net.cpp:91] Creating Layer fc7
2016-08-02 07:11:25.444 STDERR [INFO] I0802 07:11:25.442662  2602 net.cpp:425] fc7 <- fc6
2016-08-02 07:11:25.444 STDERR [INFO] I0802 07:11:25.442668  2602 net.cpp:399] fc7 -> fc7
2016-08-02 07:11:25.470 STDERR [INFO] I0802 07:11:25.470541  2592 net.cpp:141] Setting up lstm2_x_transform
2016-08-02 07:11:25.471 STDERR [INFO] I0802 07:11:25.470608  2592 net.cpp:148] Top shape: 1 1 4000 (4000)
2016-08-02 07:11:25.471 STDERR [INFO] I0802 07:11:25.470615  2592 net.cpp:156] Memory required for data: 30020
2016-08-02 07:11:25.471 STDERR [INFO] I0802 07:11:25.470636  2592 layer_factory.hpp:77] Creating layer lstm2_W_xc_x_slice
2016-08-02 07:11:25.471 STDERR [INFO] I0802 07:11:25.470651  2592 net.cpp:91] Creating Layer lstm2_W_xc_x_slice
2016-08-02 07:11:25.471 STDERR [INFO] I0802 07:11:25.470659  2592 net.cpp:425] lstm2_W_xc_x_slice <- W_xc_x
2016-08-02 07:11:25.471 STDERR [INFO] I0802 07:11:25.470669  2592 net.cpp:399] lstm2_W_xc_x_slice -> W_xc_x_1
2016-08-02 07:11:25.471 STDERR [INFO] I0802 07:11:25.470719  2592 net.cpp:141] Setting up lstm2_W_xc_x_slice
2016-08-02 07:11:25.471 STDERR [INFO] I0802 07:11:25.470731  2592 net.cpp:148] Top shape: 1 1 4000 (4000)
2016-08-02 07:11:25.471 STDERR [INFO] I0802 07:11:25.470734  2592 net.cpp:156] Memory required for data: 46020
2016-08-02 07:11:25.471 STDERR [INFO] I0802 07:11:25.470739  2592 layer_factory.hpp:77] Creating layer lstm2_h_conted_0
2016-08-02 07:11:25.472 STDERR [INFO] I0802 07:11:25.470749  2592 net.cpp:91] Creating Layer lstm2_h_conted_0
2016-08-02 07:11:25.472 STDERR [INFO] I0802 07:11:25.470753  2592 net.cpp:425] lstm2_h_conted_0 <- h_0
2016-08-02 07:11:25.472 STDERR [INFO] I0802 07:11:25.470759  2592 net.cpp:425] lstm2_h_conted_0 <- cont_1_lstm2_cont_slice_0_split_0
2016-08-02 07:11:25.472 STDERR [INFO] I0802 07:11:25.470767  2592 net.cpp:399] lstm2_h_conted_0 -> h_conted_0
2016-08-02 07:11:25.472 STDERR [INFO] I0802 07:11:25.470863  2592 net.cpp:141] Setting up lstm2_h_conted_0
2016-08-02 07:11:25.472 STDERR [INFO] I0802 07:11:25.470873  2592 net.cpp:148] Top shape: 1 1 1000 (1000)
2016-08-02 07:11:25.472 STDERR [INFO] I0802 07:11:25.470877  2592 net.cpp:156] Memory required for data: 50020
2016-08-02 07:11:25.472 STDERR [INFO] I0802 07:11:25.470881  2592 layer_factory.hpp:77] Creating layer lstm2_transform_1
2016-08-02 07:11:25.472 STDERR [INFO] I0802 07:11:25.470893  2592 net.cpp:91] Creating Layer lstm2_transform_1
2016-08-02 07:11:25.472 STDERR [INFO] I0802 07:11:25.470898  2592 net.cpp:425] lstm2_transform_1 <- h_conted_0
2016-08-02 07:11:25.472 STDERR [INFO] I0802 07:11:25.470906  2592 net.cpp:399] lstm2_transform_1 -> W_hc_h_0
2016-08-02 07:11:25.487 STDERR [INFO] I0802 07:11:25.487182  2602 net.cpp:141] Setting up fc7
2016-08-02 07:11:25.487 STDERR [INFO] I0802 07:11:25.487251  2602 net.cpp:148] Top shape: 10 4096 (40960)
2016-08-02 07:11:25.487 STDERR [INFO] I0802 07:11:25.487257  2602 net.cpp:156] Memory required for data: 68273720
2016-08-02 07:11:25.487 STDERR [INFO] I0802 07:11:25.487272  2602 layer_factory.hpp:77] Creating layer relu7
2016-08-02 07:11:25.488 STDERR [INFO] I0802 07:11:25.487285  2602 net.cpp:91] Creating Layer relu7
2016-08-02 07:11:25.488 STDERR [INFO] I0802 07:11:25.487290  2602 net.cpp:425] relu7 <- fc7
2016-08-02 07:11:25.488 STDERR [INFO] I0802 07:11:25.487303  2602 net.cpp:386] relu7 -> fc7 (in-place)
2016-08-02 07:11:25.488 STDERR [INFO] I0802 07:11:25.488100  2602 net.cpp:141] Setting up relu7
2016-08-02 07:11:25.488 STDERR [INFO] I0802 07:11:25.488112  2602 net.cpp:148] Top shape: 10 4096 (40960)
2016-08-02 07:11:25.488 STDERR [INFO] I0802 07:11:25.488116  2602 net.cpp:156] Memory required for data: 68437560
2016-08-02 07:11:25.488 STDERR [INFO] I0802 07:11:25.488121  2602 layer_factory.hpp:77] Creating layer drop7
2016-08-02 07:11:25.488 STDERR [INFO] I0802 07:11:25.488134  2602 net.cpp:91] Creating Layer drop7
2016-08-02 07:11:25.488 STDERR [INFO] I0802 07:11:25.488139  2602 net.cpp:425] drop7 <- fc7
2016-08-02 07:11:25.488 STDERR [INFO] I0802 07:11:25.488145  2602 net.cpp:386] drop7 -> fc7 (in-place)
2016-08-02 07:11:25.488 STDERR [INFO] I0802 07:11:25.488183  2602 net.cpp:141] Setting up drop7
2016-08-02 07:11:25.488 STDERR [INFO] I0802 07:11:25.488190  2602 net.cpp:148] Top shape: 10 4096 (40960)
2016-08-02 07:11:25.489 STDERR [INFO] I0802 07:11:25.488195  2602 net.cpp:156] Memory required for data: 68601400
2016-08-02 07:11:25.489 STDERR [INFO] I0802 07:11:25.488199  2602 layer_factory.hpp:77] Creating layer fc8
2016-08-02 07:11:25.489 STDERR [INFO] I0802 07:11:25.488214  2602 net.cpp:91] Creating Layer fc8
2016-08-02 07:11:25.489 STDERR [INFO] I0802 07:11:25.488219  2602 net.cpp:425] fc8 <- fc7
2016-08-02 07:11:25.489 STDERR [INFO] I0802 07:11:25.488227  2602 net.cpp:399] fc8 -> fc8
2016-08-02 07:11:25.499 STDERR [INFO] I0802 07:11:25.499487  2602 net.cpp:141] Setting up fc8
2016-08-02 07:11:25.500 STDERR [INFO] I0802 07:11:25.499548  2602 net.cpp:148] Top shape: 10 1000 (10000)
2016-08-02 07:11:25.500 STDERR [INFO] I0802 07:11:25.499554  2602 net.cpp:156] Memory required for data: 68641400
2016-08-02 07:11:25.500 STDERR [INFO] I0802 07:11:25.499568  2602 layer_factory.hpp:77] Creating layer prob
2016-08-02 07:11:25.500 STDERR [INFO] I0802 07:11:25.499589  2602 net.cpp:91] Creating Layer prob
2016-08-02 07:11:25.500 STDERR [INFO] I0802 07:11:25.499595  2602 net.cpp:425] prob <- fc8
2016-08-02 07:11:25.500 STDERR [INFO] I0802 07:11:25.499604  2602 net.cpp:399] prob -> prob
2016-08-02 07:11:25.500 STDERR [INFO] I0802 07:11:25.500016  2602 net.cpp:141] Setting up prob
2016-08-02 07:11:25.500 STDERR [INFO] I0802 07:11:25.500035  2602 net.cpp:148] Top shape: 10 1000 (10000)
2016-08-02 07:11:25.500 STDERR [INFO] I0802 07:11:25.500039  2602 net.cpp:156] Memory required for data: 68681400
2016-08-02 07:11:25.500 STDERR [INFO] I0802 07:11:25.500044  2602 net.cpp:219] prob does not need backward computation.
2016-08-02 07:11:25.501 STDERR [INFO] I0802 07:11:25.500049  2602 net.cpp:219] fc8 does not need backward computation.
2016-08-02 07:11:25.501 STDERR [INFO] I0802 07:11:25.500053  2602 net.cpp:219] drop7 does not need backward computation.
…
2016-08-02 07:11:25.502 STDERR [INFO] I0802 07:11:25.500138  2602 net.cpp:219] conv1 does not need backward computation.
2016-08-02 07:11:25.502 STDERR [INFO] I0802 07:11:25.500143  2602 net.cpp:219] data does not need backward computation.
2016-08-02 07:11:25.502 STDERR [INFO] I0802 07:11:25.500147  2602 net.cpp:261] This network produces output prob
2016-08-02 07:11:25.502 STDERR [INFO] I0802 07:11:25.500165  2602 net.cpp:274] Network initialization done.
2016-08-02 07:11:25.509 STDERR [INFO] I0802 07:11:25.509264  2592 net.cpp:141] Setting up lstm2_transform_1
2016-08-02 07:11:25.509 STDERR [INFO] I0802 07:11:25.509320  2592 net.cpp:148] Top shape: 1 1 4000 (4000)
2016-08-02 07:11:25.509 STDERR [INFO] I0802 07:11:25.509325  2592 net.cpp:156] Memory required for data: 66020
2016-08-02 07:11:25.510 STDERR [INFO] I0802 07:11:25.509342  2592 layer_factory.hpp:77] Creating layer lstm2_gate_input_1
2016-08-02 07:11:25.510 STDERR [INFO] I0802 07:11:25.509361  2592 net.cpp:91] Creating Layer lstm2_gate_input_1
2016-08-02 07:11:25.510 STDERR [INFO] I0802 07:11:25.509366  2592 net.cpp:425] lstm2_gate_input_1 <- W_hc_h_0
2016-08-02 07:11:25.510 STDERR [INFO] I0802 07:11:25.509374  2592 net.cpp:425] lstm2_gate_input_1 <- W_xc_x_1
2016-08-02 07:11:25.510 STDERR [INFO] I0802 07:11:25.509382  2592 net.cpp:399] lstm2_gate_input_1 -> gate_input_1
2016-08-02 07:11:25.510 STDERR [INFO] I0802 07:11:25.509434  2592 net.cpp:141] Setting up lstm2_gate_input_1
2016-08-02 07:11:25.510 STDERR [INFO] I0802 07:11:25.509444  2592 net.cpp:148] Top shape: 1 1 4000 (4000)
2016-08-02 07:11:25.510 STDERR [INFO] I0802 07:11:25.509449  2592 net.cpp:156] Memory required for data: 82020
2016-08-02 07:11:25.510 STDERR [INFO] I0802 07:11:25.509452  2592 layer_factory.hpp:77] Creating layer lstm2_unit_1
2016-08-02 07:11:25.510 STDERR [INFO] I0802 07:11:25.509461  2592 net.cpp:91] Creating Layer lstm2_unit_1
2016-08-02 07:11:25.510 STDERR [INFO] I0802 07:11:25.509469  2592 net.cpp:425] lstm2_unit_1 <- c_0
2016-08-02 07:11:25.511 STDERR [INFO] I0802 07:11:25.509474  2592 net.cpp:425] lstm2_unit_1 <- gate_input_1
2016-08-02 07:11:25.511 STDERR [INFO] I0802 07:11:25.509479  2592 net.cpp:425] lstm2_unit_1 <- cont_1_lstm2_cont_slice_0_split_1
2016-08-02 07:11:25.511 STDERR [INFO] I0802 07:11:25.509485  2592 net.cpp:399] lstm2_unit_1 -> c_1
2016-08-02 07:11:25.511 STDERR [INFO] I0802 07:11:25.509493  2592 net.cpp:399] lstm2_unit_1 -> h_1
2016-08-02 07:11:25.511 STDERR [INFO] I0802 07:11:25.509554  2592 net.cpp:141] Setting up lstm2_unit_1
2016-08-02 07:11:25.512 STDERR [INFO] I0802 07:11:25.509563  2592 net.cpp:148] Top shape: 1 1 1000 (1000)
2016-08-02 07:11:25.512 STDERR [INFO] I0802 07:11:25.509569  2592 net.cpp:148] Top shape: 1 1 1000 (1000)
2016-08-02 07:11:25.512 STDERR [INFO] I0802 07:11:25.509573  2592 net.cpp:156] Memory required for data: 90020
2016-08-02 07:11:25.512 STDERR [INFO] I0802 07:11:25.509577  2592 layer_factory.hpp:77] Creating layer lstm2_
2016-08-02 07:11:25.512 STDERR [INFO] I0802 07:11:25.509588  2592 net.cpp:91] Creating Layer lstm2_
2016-08-02 07:11:25.512 STDERR [INFO] I0802 07:11:25.509593  2592 net.cpp:425] lstm2_ <- c_1
2016-08-02 07:11:25.512 STDERR [INFO] I0802 07:11:25.509600  2592 net.cpp:399] lstm2_ -> c_T
2016-08-02 07:11:25.512 STDERR [INFO] I0802 07:11:25.509630  2592 net.cpp:141] Setting up lstm2_
2016-08-02 07:11:25.512 STDERR [INFO] I0802 07:11:25.509639  2592 net.cpp:148] Top shape: 1 1 1000 (1000)
2016-08-02 07:11:25.513 STDERR [INFO] I0802 07:11:25.509644  2592 net.cpp:156] Memory required for data: 94020
2016-08-02 07:11:25.513 STDERR [INFO] I0802 07:11:25.509649  2592 layer_factory.hpp:77] Creating layer lstm2_h_concat
2016-08-02 07:11:25.513 STDERR [INFO] I0802 07:11:25.509656  2592 net.cpp:91] Creating Layer lstm2_h_concat
2016-08-02 07:11:25.513 STDERR [INFO] I0802 07:11:25.509661  2592 net.cpp:425] lstm2_h_concat <- h_1
2016-08-02 07:11:25.513 STDERR [INFO] I0802 07:11:25.509671  2592 net.cpp:399] lstm2_h_concat -> h
2016-08-02 07:11:25.513 STDERR [INFO] I0802 07:11:25.509708  2592 net.cpp:141] Setting up lstm2_h_concat
2016-08-02 07:11:25.513 STDERR [INFO] I0802 07:11:25.509716  2592 net.cpp:148] Top shape: 1 1 1000 (1000)
2016-08-02 07:11:25.513 STDERR [INFO] I0802 07:11:25.509721  2592 net.cpp:156] Memory required for data: 98020
2016-08-02 07:11:25.514 STDERR [INFO] I0802 07:11:25.509726  2592 layer_factory.hpp:77] Creating layer h_pseudoloss
2016-08-02 07:11:25.514 STDERR [INFO] I0802 07:11:25.509733  2592 net.cpp:91] Creating Layer h_pseudoloss
2016-08-02 07:11:25.514 STDERR [INFO] I0802 07:11:25.509737  2592 net.cpp:425] h_pseudoloss <- h
…
2016-08-02 07:11:49.814 n.t.s.b.CVParticleBolt [INFO] [Timing] RequestID: 0 StreamID: home_peifeng_work_data_frame_320x240_jpg SequenceNr: 135 Entering scale: 1470136309814
2016-08-02 07:11:49.815 n.t.s.b.CVParticleBolt [INFO] [Timing] RequestID: 0 StreamID: home_peifeng_work_data_frame_320x240_jpg SequenceNr: 134 Leaving scale: 1470136309815 Size: 3530
2016-08-02 07:11:49.822 n.t.s.b.CVParticleBolt [INFO] [Timing] RequestID: 0 StreamID: home_peifeng_work_data_frame_320x240_jpg SequenceNr: 135 Leaving scale: 1470136309822 Size: 3530
2016-08-02 07:11:49.977 STDERR [INFO] I0802 07:11:49.977172  2761 net.cpp:141] Setting up conv1
2016-08-02 07:11:49.977 STDERR [INFO] I0802 07:11:49.977222  2761 net.cpp:148] Top shape: 10 96 55 55 (2904000)
2016-08-02 07:11:49.978 STDERR [INFO] I0802 07:11:49.977231  2761 net.cpp:156] Memory required for data: 17799480
2016-08-02 07:11:49.978 STDERR [INFO] I0802 07:11:49.977260  2761 layer_factory.hpp:77] Creating layer relu1
2016-08-02 07:11:49.978 STDERR [INFO] I0802 07:11:49.977280  2761 net.cpp:91] Creating Layer relu1
2016-08-02 07:11:49.978 STDERR [INFO] I0802 07:11:49.977288  2761 net.cpp:425] relu1 <- conv1
2016-08-02 07:11:49.978 STDERR [INFO] I0802 07:11:49.977298  2761 net.cpp:386] relu1 -> conv1 (in-place)
2016-08-02 07:11:49.978 STDERR [INFO] I0802 07:11:49.977783  2761 net.cpp:141] Setting up relu1
2016-08-02 07:11:49.978 STDERR [INFO] I0802 07:11:49.977799  2761 net.cpp:148] Top shape: 10 96 55 55 (2904000)
2016-08-02 07:11:49.979 STDERR [INFO] I0802 07:11:49.977805  2761 net.cpp:156] Memory required for data: 29415480
2016-08-02 07:11:49.979 STDERR [INFO] I0802 07:11:49.977812  2761 layer_factory.hpp:77] Creating layer pool1
2016-08-02 07:11:49.979 STDERR [INFO] I0802 07:11:49.977825  2761 net.cpp:91] Creating Layer pool1
2016-08-02 07:11:49.979 STDERR [INFO] I0802 07:11:49.977830  2761 net.cpp:425] pool1 <- conv1
2016-08-02 07:11:49.980 STDERR [INFO] I0802 07:11:49.977838  2761 net.cpp:399] pool1 -> pool1
2016-08-02 07:11:49.980 STDERR [INFO] I0802 07:11:49.977916  2761 net.cpp:141] Setting up pool1
2016-08-02 07:11:49.980 STDERR [INFO] I0802 07:11:49.977928  2761 net.cpp:148] Top shape: 10 96 27 27 (699840)
2016-08-02 07:11:49.980 STDERR [INFO] I0802 07:11:49.977933  2761 net.cpp:156] Memory required for data: 32214840
2016-08-02 07:11:49.980 STDERR [INFO] I0802 07:11:49.977939  2761 layer_factory.hpp:77] Creating layer norm1
2016-08-02 07:11:49.981 STDERR [INFO] I0802 07:11:49.977957  2761 net.cpp:91] Creating Layer norm1
2016-08-02 07:11:49.981 STDERR [INFO] I0802 07:11:49.977962  2761 net.cpp:425] norm1 <- pool1
2016-08-02 07:11:49.981 STDERR [INFO] I0802 07:11:49.977969  2761 net.cpp:399] norm1 -> norm1
2016-08-02 07:11:49.981 STDERR [INFO] I0802 07:11:49.978487  2761 net.cpp:141] Setting up norm1
2016-08-02 07:11:49.981 STDERR [INFO] I0802 07:11:49.978502  2761 net.cpp:148] Top shape: 10 96 27 27 (699840)
2016-08-02 07:11:49.982 STDERR [INFO] I0802 07:11:49.978507  2761 net.cpp:156] Memory required for data: 35014200
2016-08-02 07:11:49.982 STDERR [INFO] I0802 07:11:49.978513  2761 layer_factory.hpp:77] Creating layer conv2
2016-08-02 07:11:49.982 STDERR [INFO] I0802 07:11:49.978531  2761 net.cpp:91] Creating Layer conv2
2016-08-02 07:11:49.982 STDERR [INFO] I0802 07:11:49.978538  2761 net.cpp:425] conv2 <- norm1
2016-08-02 07:11:49.983 STDERR [INFO] I0802 07:11:49.978545  2761 net.cpp:399] conv2 -> conv2
2016-08-02 07:11:49.983 STDERR [INFO] I0802 07:11:49.982771  2761 net.cpp:141] Setting up conv2
2016-08-02 07:11:49.983 STDERR [INFO] I0802 07:11:49.982794  2761 net.cpp:148] Top shape: 10 256 27 27 (1866240)
2016-08-02 07:11:49.983 STDERR [INFO] I0802 07:11:49.982800  2761 net.cpp:156] Memory required for data: 42479160
2016-08-02 07:11:49.983 STDERR [INFO] I0802 07:11:49.982813  2761 layer_factory.hpp:77] Creating layer relu2
2016-08-02 07:11:49.984 STDERR [INFO] I0802 07:11:49.982825  2761 net.cpp:91] Creating Layer relu2
2016-08-02 07:11:49.984 STDERR [INFO] I0802 07:11:49.982831  2761 net.cpp:425] relu2 <- conv2
2016-08-02 07:11:49.984 STDERR [INFO] I0802 07:11:49.982838  2761 net.cpp:386] relu2 -> conv2 (in-place)
2016-08-02 07:11:49.984 STDERR [INFO] I0802 07:11:49.983324  2761 net.cpp:141] Setting up relu2
2016-08-02 07:11:49.984 STDERR [INFO] I0802 07:11:49.983338  2761 net.cpp:148] Top shape: 10 256 27 27 (1866240)
2016-08-02 07:11:49.985 STDERR [INFO] I0802 07:11:49.983345  2761 net.cpp:156] Memory required for data: 49944120
2016-08-02 07:11:49.985 STDERR [INFO] I0802 07:11:49.983350  2761 layer_factory.hpp:77] Creating layer pool2
2016-08-02 07:11:49.985 STDERR [INFO] I0802 07:11:49.983361  2761 net.cpp:91] Creating Layer pool2
2016-08-02 07:11:49.985 STDERR [INFO] I0802 07:11:49.983366  2761 net.cpp:425] pool2 <- conv2
2016-08-02 07:11:49.985 STDERR [INFO] I0802 07:11:49.983376  2761 net.cpp:399] pool2 -> pool2
2016-08-02 07:11:49.985 STDERR [INFO] I0802 07:11:49.983448  2761 net.cpp:141] Setting up pool2
2016-08-02 07:11:49.985 STDERR [INFO] I0802 07:11:49.983461  2761 net.cpp:148] Top shape: 10 256 13 13 (432640)
2016-08-02 07:11:49.985 STDERR [INFO] I0802 07:11:49.983466  2761 net.cpp:156] Memory required for data: 51674680
2016-08-02 07:11:49.985 STDERR [INFO] I0802 07:11:49.983472  2761 layer_factory.hpp:77] Creating layer norm2
2016-08-02 07:11:49.986 STDERR [INFO] I0802 07:11:49.983485  2761 net.cpp:91] Creating Layer norm2
2016-08-02 07:11:49.986 STDERR [INFO] I0802 07:11:49.983491  2761 net.cpp:425] norm2 <- pool2
2016-08-02 07:11:49.986 STDERR [INFO] I0802 07:11:49.983500  2761 net.cpp:399] norm2 -> norm2
2016-08-02 07:11:49.986 STDERR [INFO] I0802 07:11:49.983791  2761 net.cpp:141] Setting up norm2
2016-08-02 07:11:49.986 STDERR [INFO] I0802 07:11:49.983805  2761 net.cpp:148] Top shape: 10 256 13 13 (432640)
2016-08-02 07:11:49.986 STDERR [INFO] I0802 07:11:49.983814  2761 net.cpp:156] Memory required for data: 53405240
2016-08-02 07:11:49.986 STDERR [INFO] I0802 07:11:49.983824  2761 layer_factory.hpp:77] Creating layer conv3
2016-08-02 07:11:49.986 STDERR [INFO] I0802 07:11:49.983840  2761 net.cpp:91] Creating Layer conv3
2016-08-02 07:11:49.986 STDERR [INFO] I0802 07:11:49.983846  2761 net.cpp:425] conv3 <- norm2
2016-08-02 07:11:49.986 STDERR [INFO] I0802 07:11:49.983855  2761 net.cpp:399] conv3 -> conv3
2016-08-02 07:11:49.988 STDERR [INFO] I0802 07:11:49.987915  2761 net.cpp:141] Setting up conv3
2016-08-02 07:11:49.988 STDERR [INFO] I0802 07:11:49.987938  2761 net.cpp:148] Top shape: 10 384 13 13 (648960)
2016-08-02 07:11:49.988 STDERR [INFO] I0802 07:11:49.987944  2761 net.cpp:156] Memory required for data: 56001080
2016-08-02 07:11:49.988 STDERR [INFO] I0802 07:11:49.987959  2761 layer_factory.hpp:77] Creating layer relu3
2016-08-02 07:11:49.988 STDERR [INFO] I0802 07:11:49.987970  2761 net.cpp:91] Creating Layer relu3
2016-08-02 07:11:49.988 STDERR [INFO] I0802 07:11:49.987977  2761 net.cpp:425] relu3 <- conv3
2016-08-02 07:11:49.988 STDERR [INFO] I0802 07:11:49.987985  2761 net.cpp:386] relu3 -> conv3 (in-place)
2016-08-02 07:11:49.988 STDERR [INFO] I0802 07:11:49.988484  2761 net.cpp:141] Setting up relu3
2016-08-02 07:11:49.988 STDERR [INFO] I0802 07:11:49.988499  2761 net.cpp:148] Top shape: 10 384 13 13 (648960)
2016-08-02 07:11:49.989 STDERR [INFO] I0802 07:11:49.988504  2761 net.cpp:156] Memory required for data: 58596920
2016-08-02 07:11:49.989 STDERR [INFO] I0802 07:11:49.988510  2761 layer_factory.hpp:77] Creating layer conv4
2016-08-02 07:11:49.989 STDERR [INFO] I0802 07:11:49.988526  2761 net.cpp:91] Creating Layer conv4
2016-08-02 07:11:49.989 STDERR [INFO] I0802 07:11:49.988533  2761 net.cpp:425] conv4 <- conv3
2016-08-02 07:11:49.989 STDERR [INFO] I0802 07:11:49.988541  2761 net.cpp:399] conv4 -> conv4
2016-08-02 07:11:49.994 STDERR [INFO] I0802 07:11:49.994760  2761 net.cpp:141] Setting up conv4
2016-08-02 07:11:49.995 STDERR [INFO] I0802 07:11:49.994792  2761 net.cpp:148] Top shape: 10 384 13 13 (648960)
2016-08-02 07:11:49.995 STDERR [INFO] I0802 07:11:49.994803  2761 net.cpp:156] Memory required for data: 61192760
2016-08-02 07:11:49.995 STDERR [INFO] I0802 07:11:49.994822  2761 layer_factory.hpp:77] Creating layer relu4
2016-08-02 07:11:49.995 STDERR [INFO] I0802 07:11:49.994843  2761 net.cpp:91] Creating Layer relu4
2016-08-02 07:11:49.995 STDERR [INFO] I0802 07:11:49.994854  2761 net.cpp:425] relu4 <- conv4
2016-08-02 07:11:49.995 STDERR [INFO] I0802 07:11:49.994868  2761 net.cpp:386] relu4 -> conv4 (in-place)
2016-08-02 07:11:49.995 STDERR [INFO] I0802 07:11:49.995556  2761 net.cpp:141] Setting up relu4
2016-08-02 07:11:49.995 STDERR [INFO] I0802 07:11:49.995579  2761 net.cpp:148] Top shape: 10 384 13 13 (648960)
2016-08-02 07:11:49.996 STDERR [INFO] I0802 07:11:49.995589  2761 net.cpp:156] Memory required for data: 63788600
2016-08-02 07:11:49.996 STDERR [INFO] I0802 07:11:49.995599  2761 layer_factory.hpp:77] Creating layer conv5
2016-08-02 07:11:49.996 STDERR [INFO] I0802 07:11:49.995620  2761 net.cpp:91] Creating Layer conv5
2016-08-02 07:11:49.996 STDERR [INFO] I0802 07:11:49.995631  2761 net.cpp:425] conv5 <- conv4
2016-08-02 07:11:49.996 STDERR [INFO] I0802 07:11:49.995651  2761 net.cpp:399] conv5 -> conv5
2016-08-02 07:11:50.000 n.t.s.f.RefreshingImageFetcher$ImageReader [INFO] [Timing] RequestID: 0 StreamID: home_peifeng_work_data_frame_320x240_jpg SequenceNr: 136 Entering queue: 1470136310000
2016-08-02 07:11:50.000 n.t.s.f.RefreshingImageFetcher$ImageReader [INFO] [Timing] RequestID: 0 StreamID: home_peifeng_work_data_frame_320x240_jpg SequenceNr: 137 Entering queue: 1470136310000
2016-08-02 07:11:50.000 n.t.s.f.RefreshingImageFetcher$ImageReader [INFO] [Timing] RequestID: 0 StreamID: home_peifeng_work_data_frame_320x240_jpg SequenceNr: 138 Entering queue: 1470136310000
2016-08-02 07:11:50.000 n.t.s.f.RefreshingImageFetcher$ImageReader [INFO] [Timing] RequestID: 0 StreamID: home_peifeng_work_data_frame_320x240_jpg SequenceNr: 139 Entering queue: 1470136310000
2016-08-02 07:11:50.001 STDERR [INFO] I0802 07:11:50.001799  2761 net.cpp:141] Setting up conv5
2016-08-02 07:11:50.002 STDERR [INFO] I0802 07:11:50.001827  2761 net.cpp:148] Top shape: 10 256 13 13 (432640)
2016-08-02 07:11:50.002 STDERR [INFO] I0802 07:11:50.001838  2761 net.cpp:156] Memory required for data: 65519160
2016-08-02 07:11:50.002 STDERR [INFO] I0802 07:11:50.001864  2761 layer_factory.hpp:77] Creating layer relu5
2016-08-02 07:11:50.002 STDERR [INFO] I0802 07:11:50.001883  2761 net.cpp:91] Creating Layer relu5
2016-08-02 07:11:50.002 STDERR [INFO] I0802 07:11:50.001889  2761 net.cpp:425] relu5 <- conv5
2016-08-02 07:11:50.002 STDERR [INFO] I0802 07:11:50.001899  2761 net.cpp:386] relu5 -> conv5 (in-place)
2016-08-02 07:11:50.002 STDERR [INFO] I0802 07:11:50.002413  2761 net.cpp:141] Setting up relu5
2016-08-02 07:11:50.002 STDERR [INFO] I0802 07:11:50.002429  2761 net.cpp:148] Top shape: 10 256 13 13 (432640)
2016-08-02 07:11:50.003 STDERR [INFO] I0802 07:11:50.002436  2761 net.cpp:156] Memory required for data: 67249720
2016-08-02 07:11:50.003 STDERR [INFO] I0802 07:11:50.002442  2761 layer_factory.hpp:77] Creating layer pool5
2016-08-02 07:11:50.003 STDERR [INFO] I0802 07:11:50.002454  2761 net.cpp:91] Creating Layer pool5
2016-08-02 07:11:50.003 STDERR [INFO] I0802 07:11:50.002460  2761 net.cpp:425] pool5 <- conv5
2016-08-02 07:11:50.003 STDERR [INFO] I0802 07:11:50.002467  2761 net.cpp:399] pool5 -> pool5
2016-08-02 07:11:50.003 STDERR [INFO] I0802 07:11:50.002539  2761 net.cpp:141] Setting up pool5
2016-08-02 07:11:50.003 STDERR [INFO] I0802 07:11:50.002550  2761 net.cpp:148] Top shape: 10 256 6 6 (92160)
2016-08-02 07:11:50.003 STDERR [INFO] I0802 07:11:50.002555  2761 net.cpp:156] Memory required for data: 67618360
2016-08-02 07:11:50.003 STDERR [INFO] I0802 07:11:50.002560  2761 layer_factory.hpp:77] Creating layer fc6
2016-08-02 07:11:50.003 STDERR [INFO] I0802 07:11:50.002589  2761 net.cpp:91] Creating Layer fc6
2016-08-02 07:11:50.004 STDERR [INFO] I0802 07:11:50.002595  2761 net.cpp:425] fc6 <- pool5
…
2016-08-02 07:11:50.132 STDERR [INFO] I0802 07:11:50.113245  2751 net.cpp:91] Creating Layer input
2016-08-02 07:11:50.133 STDERR [INFO] I0802 07:11:50.113255  2751 net.cpp:399] input -> frames_fc7
2016-08-02 07:11:50.133 STDERR [INFO] I0802 07:11:50.113275  2751 net.cpp:399] input -> cont_sentence
2016-08-02 07:11:50.133 STDERR [INFO] I0802 07:11:50.113287  2751 net.cpp:399] input -> input_sentence
2016-08-02 07:11:50.133 STDERR [INFO] I0802 07:11:50.113299  2751 net.cpp:399] input -> stage_indicator
2016-08-02 07:11:50.133 STDERR [INFO] I0802 07:11:50.113483  2751 net.cpp:141] Setting up input
2016-08-02 07:11:50.133 STDERR [INFO] I0802 07:11:50.113498  2751 net.cpp:148] Top shape: 1 4096 (4096)
2016-08-02 07:11:50.133 STDERR [INFO] I0802 07:11:50.113505  2751 net.cpp:148] Top shape: 1 1 (1)
2016-08-02 07:11:50.133 STDERR [INFO] I0802 07:11:50.113512  2751 net.cpp:148] Top shape: 1 1 (1)
2016-08-02 07:11:50.133 STDERR [INFO] I0802 07:11:50.113518  2751 net.cpp:148] Top shape: 1 1 (1)
2016-08-02 07:11:50.133 STDERR [INFO] I0802 07:11:50.113523  2751 net.cpp:156] Memory required for data: 16396
2016-08-02 07:11:50.133 STDERR [INFO] I0802 07:11:50.113529  2751 layer_factory.hpp:77] Creating layer cont_sentence_input_1_split
2016-08-02 07:11:50.134 STDERR [INFO] I0802 07:11:50.113554  2751 net.cpp:91] Creating Layer cont_sentence_input_1_split
2016-08-02 07:11:50.134 STDERR [INFO] I0802 07:11:50.113560  2751 net.cpp:425] cont_sentence_input_1_split <- cont_sentence
2016-08-02 07:11:50.134 STDERR [INFO] I0802 07:11:50.113590  2751 net.cpp:399] cont_sentence_input_1_split -> cont_sentence_input_1_split_0
2016-08-02 07:11:50.134 STDERR [INFO] I0802 07:11:50.113602  2751 net.cpp:399] cont_sentence_input_1_split -> cont_sentence_input_1_split_1
2016-08-02 07:11:50.134 STDERR [INFO] I0802 07:11:50.113662  2751 net.cpp:141] Setting up cont_sentence_input_1_split
2016-08-02 07:11:50.134 STDERR [INFO] I0802 07:11:50.113679  2751 net.cpp:148] Top shape: 1 1 (1)
2016-08-02 07:11:50.134 STDERR [INFO] I0802 07:11:50.113685  2751 net.cpp:148] Top shape: 1 1 (1)
2016-08-02 07:11:50.134 STDERR [INFO] I0802 07:11:50.113690  2751 net.cpp:156] Memory required for data: 16404
2016-08-02 07:11:50.134 STDERR [INFO] I0802 07:11:50.113695  2751 layer_factory.hpp:77] Creating layer embed_encoder
2016-08-02 07:11:50.134 STDERR [INFO] I0802 07:11:50.113710  2751 net.cpp:91] Creating Layer embed_encoder
2016-08-02 07:11:50.134 STDERR [INFO] I0802 07:11:50.113716  2751 net.cpp:425] embed_encoder <- frames_fc7
2016-08-02 07:11:50.134 STDERR [INFO] I0802 07:11:50.113726  2751 net.cpp:399] embed_encoder -> embedded_in_frames
2016-08-02 07:11:50.135 STDERR [INFO] I0802 07:11:50.118871  2761 net.cpp:141] Setting up fc6
2016-08-02 07:11:50.135 STDERR [INFO] I0802 07:11:50.118924  2761 net.cpp:148] Top shape: 10 4096 (40960)
2016-08-02 07:11:50.135 STDERR [INFO] I0802 07:11:50.118932  2761 net.cpp:156] Memory required for data: 67782200
2016-08-02 07:11:50.135 STDERR [INFO] I0802 07:11:50.118949  2761 layer_factory.hpp:77] Creating layer relu6
2016-08-02 07:11:50.135 STDERR [INFO] I0802 07:11:50.118968  2761 net.cpp:91] Creating Layer relu6
2016-08-02 07:11:50.135 STDERR [INFO] I0802 07:11:50.118974  2761 net.cpp:425] relu6 <- fc6
2016-08-02 07:11:50.135 STDERR [INFO] I0802 07:11:50.118984  2761 net.cpp:386] relu6 -> fc6 (in-place)
2016-08-02 07:11:50.135 STDERR [INFO] I0802 07:11:50.119390  2761 net.cpp:141] Setting up relu6
2016-08-02 07:11:50.135 STDERR [INFO] I0802 07:11:50.119405  2761 net.cpp:148] Top shape: 10 4096 (40960)
2016-08-02 07:11:50.135 STDERR [INFO] I0802 07:11:50.119410  2761 net.cpp:156] Memory required for data: 67946040
2016-08-02 07:11:50.136 STDERR [INFO] I0802 07:11:50.119416  2761 layer_factory.hpp:77] Creating layer drop6
2016-08-02 07:11:50.136 STDERR [INFO] I0802 07:11:50.119431  2761 net.cpp:91] Creating Layer drop6
2016-08-02 07:11:50.136 STDERR [INFO] I0802 07:11:50.119437  2761 net.cpp:425] drop6 <- fc6
2016-08-02 07:11:50.136 STDERR [INFO] I0802 07:11:50.119446  2761 net.cpp:386] drop6 -> fc6 (in-place)
2016-08-02 07:11:50.136 STDERR [INFO] I0802 07:11:50.119501  2761 net.cpp:141] Setting up drop6
2016-08-02 07:11:50.136 STDERR [INFO] I0802 07:11:50.119511  2761 net.cpp:148] Top shape: 10 4096 (40960)
2016-08-02 07:11:50.136 STDERR [INFO] I0802 07:11:50.119516  2761 net.cpp:156] Memory required for data: 68109880
2016-08-02 07:11:50.136 STDERR [INFO] I0802 07:11:50.119521  2761 layer_factory.hpp:77] Creating layer fc7
2016-08-02 07:11:50.136 STDERR [INFO] I0802 07:11:50.119539  2761 net.cpp:91] Creating Layer fc7
2016-08-02 07:11:50.136 STDERR [INFO] I0802 07:11:50.119545  2761 net.cpp:425] fc7 <- fc6
2016-08-02 07:11:50.137 STDERR [INFO] I0802 07:11:50.119555  2761 net.cpp:399] fc7 -> fc7
2016-08-02 07:11:50.167 STDERR [INFO] I0802 07:11:50.167160  2751 net.cpp:141] Setting up embed_encoder
2016-08-02 07:11:50.167 STDERR [INFO] I0802 07:11:50.167224  2751 net.cpp:148] Top shape: 1 500 (500)
2016-08-02 07:11:50.168 STDERR [INFO] I0802 07:11:50.167232  2751 net.cpp:156] Memory required for data: 18404
2016-08-02 07:11:50.168 STDERR [INFO] I0802 07:11:50.167258  2751 layer_factory.hpp:77] Creating layer reshape_frames
2016-08-02 07:11:50.168 STDERR [INFO] I0802 07:11:50.167280  2751 net.cpp:91] Creating Layer reshape_frames
2016-08-02 07:11:50.168 STDERR [INFO] I0802 07:11:50.167290  2751 net.cpp:425] reshape_frames <- embedded_in_frames
2016-08-02 07:11:50.168 STDERR [INFO] I0802 07:11:50.167306  2751 net.cpp:399] reshape_frames -> embedded_input_frames
2016-08-02 07:11:50.168 STDERR [INFO] I0802 07:11:50.167371  2751 net.cpp:141] Setting up reshape_frames
2016-08-02 07:11:50.168 STDERR [INFO] I0802 07:11:50.167382  2751 net.cpp:148] Top shape: 1 1 500 (500)
2016-08-02 07:11:50.168 STDERR [INFO] I0802 07:11:50.167387  2751 net.cpp:156] Memory required for data: 20404
2016-08-02 07:11:50.168 STDERR [INFO] I0802 07:11:50.167392  2751 layer_factory.hpp:77] Creating layer reshape_stage_indicator
2016-08-02 07:11:50.168 STDERR [INFO] I0802 07:11:50.167407  2751 net.cpp:91] Creating Layer reshape_stage_indicator
2016-08-02 07:11:50.168 STDERR [INFO] I0802 07:11:50.167413  2751 net.cpp:425] reshape_stage_indicator <- stage_indicator
2016-08-02 07:11:50.169 STDERR [INFO] I0802 07:11:50.167423  2751 net.cpp:399] reshape_stage_indicator -> reshaped_stage_indicator
2016-08-02 07:11:50.169 STDERR [INFO] I0802 07:11:50.167469  2751 net.cpp:141] Setting up reshape_stage_indicator
2016-08-02 07:11:50.169 STDERR [INFO] I0802 07:11:50.167479  2751 net.cpp:148] Top shape: 1 1 1 (1)
2016-08-02 07:11:50.169 STDERR [INFO] I0802 07:11:50.167484  2751 net.cpp:156] Memory required for data: 20408
2016-08-02 07:11:50.169 STDERR [INFO] I0802 07:11:50.167490  2751 layer_factory.hpp:77] Creating layer embedding
2016-08-02 07:11:50.169 STDERR [INFO] I0802 07:11:50.167506  2751 net.cpp:91] Creating Layer embedding
2016-08-02 07:11:50.169 STDERR [INFO] I0802 07:11:50.167511  2751 net.cpp:425] embedding <- input_sentence
…
2016-08-02 07:11:50.429 STDERR [INFO] }
2016-08-02 07:11:50.429 STDERR [INFO] I0802 07:11:50.414216  2751 layer_factory.hpp:77] Creating layer lstm1_
2016-08-02 07:11:50.429 STDERR [INFO] I0802 07:11:50.414230  2751 net.cpp:91] Creating Layer lstm1_
2016-08-02 07:11:50.430 STDERR [INFO] I0802 07:11:50.414238  2751 net.cpp:399] lstm1_ -> x
2016-08-02 07:11:50.430 STDERR [INFO] I0802 07:11:50.414252  2751 net.cpp:399] lstm1_ -> cont
2016-08-02 07:11:50.430 STDERR [INFO] I0802 07:11:50.414330  2751 net.cpp:141] Setting up lstm1_
2016-08-02 07:11:50.430 STDERR [INFO] I0802 07:11:50.414342  2751 net.cpp:148] Top shape: 1 1 500 (500)
2016-08-02 07:11:50.430 STDERR [INFO] I0802 07:11:50.414350  2751 net.cpp:148] Top shape: 1 1 (1)
2016-08-02 07:11:50.430 STDERR [INFO] I0802 07:11:50.414355  2751 net.cpp:156] Memory required for data: 2004
2016-08-02 07:11:50.430 STDERR [INFO] I0802 07:11:50.414361  2751 layer_factory.hpp:77] Creating layer lstm1_
2016-08-02 07:11:50.430 STDERR [INFO] I0802 07:11:50.414373  2751 net.cpp:91] Creating Layer lstm1_
2016-08-02 07:11:50.430 STDERR [INFO] I0802 07:11:50.414381  2751 net.cpp:399] lstm1_ -> c_0
2016-08-02 07:11:50.430 STDERR [INFO] I0802 07:11:50.414394  2751 net.cpp:399] lstm1_ -> h_0
2016-08-02 07:11:50.431 STDERR [INFO] I0802 07:11:50.414448  2751 net.cpp:141] Setting up lstm1_
2016-08-02 07:11:50.431 STDERR [INFO] I0802 07:11:50.414458  2751 net.cpp:148] Top shape: 1 1 1000 (1000)
2016-08-02 07:11:50.431 STDERR [INFO] I0802 07:11:50.414465  2751 net.cpp:148] Top shape: 1 1 1000 (1000)
2016-08-02 07:11:50.431 STDERR [INFO] I0802 07:11:50.414470  2751 net.cpp:156] Memory required for data: 10004
2016-08-02 07:11:50.431 STDERR [INFO] I0802 07:11:50.414475  2751 layer_factory.hpp:77] Creating layer lstm1_cont_slice
2016-08-02 07:11:50.431 STDERR [INFO] I0802 07:11:50.414489  2751 net.cpp:91] Creating Layer lstm1_cont_slice
2016-08-02 07:11:50.431 STDERR [INFO] I0802 07:11:50.414494  2751 net.cpp:425] lstm1_cont_slice <- cont
2016-08-02 07:11:50.431 STDERR [INFO] I0802 07:11:50.414502  2751 net.cpp:399] lstm1_cont_slice -> cont_1
2016-08-02 07:11:50.431 STDERR [INFO] I0802 07:11:50.414547  2751 net.cpp:141] Setting up lstm1_cont_slice
2016-08-02 07:11:50.431 STDERR [INFO] I0802 07:11:50.414557  2751 net.cpp:148] Top shape: 1 1 (1)
2016-08-02 07:11:50.431 STDERR [INFO] I0802 07:11:50.414562  2751 net.cpp:156] Memory required for data: 10008
2016-08-02 07:11:50.431 STDERR [INFO] I0802 07:11:50.414568  2751 layer_factory.hpp:77] Creating layer cont_1_lstm1_cont_slice_0_split
2016-08-02 07:11:50.432 STDERR [INFO] I0802 07:11:50.414577  2751 net.cpp:91] Creating Layer cont_1_lstm1_cont_slice_0_split
2016-08-02 07:11:50.432 STDERR [INFO] I0802 07:11:50.414582  2751 net.cpp:425] cont_1_lstm1_cont_slice_0_split <- cont_1
2016-08-02 07:11:50.432 STDERR [INFO] I0802 07:11:50.414592  2751 net.cpp:399] cont_1_lstm1_cont_slice_0_split -> cont_1_lstm1_cont_slice_0_split_0
2016-08-02 07:11:50.432 STDERR [INFO] I0802 07:11:50.414602  2751 net.cpp:399] cont_1_lstm1_cont_slice_0_split -> cont_1_lstm1_cont_slice_0_split_1
2016-08-02 07:11:50.432 STDERR [INFO] I0802 07:11:50.414654  2751 net.cpp:141] Setting up cont_1_lstm1_cont_slice_0_split
2016-08-02 07:11:50.432 STDERR [INFO] I0802 07:11:50.414664  2751 net.cpp:148] Top shape: 1 1 (1)
2016-08-02 07:11:50.432 STDERR [INFO] I0802 07:11:50.414669  2751 net.cpp:148] Top shape: 1 1 (1)
2016-08-02 07:11:50.432 STDERR [INFO] I0802 07:11:50.414674  2751 net.cpp:156] Memory required for data: 10016
2016-08-02 07:11:50.432 STDERR [INFO] I0802 07:11:50.414680  2751 layer_factory.hpp:77] Creating layer lstm1_x_transform
2016-08-02 07:11:50.432 STDERR [INFO] I0802 07:11:50.414692  2751 net.cpp:91] Creating Layer lstm1_x_transform
2016-08-02 07:11:50.433 STDERR [INFO] I0802 07:11:50.414698  2751 net.cpp:425] lstm1_x_transform <- x
2016-08-02 07:11:50.433 STDERR [INFO] I0802 07:11:50.414710  2751 net.cpp:399] lstm1_x_transform -> W_xc_x
2016-08-02 07:11:50.437 STDERR [INFO] I0802 07:11:50.437082  2751 net.cpp:141] Setting up lstm1_x_transform
2016-08-02 07:11:50.437 STDERR [INFO] I0802 07:11:50.437129  2751 net.cpp:148] Top shape: 1 1 4000 (4000)
2016-08-02 07:11:50.437 STDERR [INFO] I0802 07:11:50.437134  2751 net.cpp:156] Memory required for data: 26016
2016-08-02 07:11:50.437 STDERR [INFO] I0802 07:11:50.437157  2751 layer_factory.hpp:77] Creating layer lstm1_W_xc_x_slice
2016-08-02 07:11:50.437 STDERR [INFO] I0802 07:11:50.437175  2751 net.cpp:91] Creating Layer lstm1_W_xc_x_slice
2016-08-02 07:11:50.437 STDERR [INFO] I0802 07:11:50.437181  2751 net.cpp:425] lstm1_W_xc_x_slice <- W_xc_x
2016-08-02 07:11:50.437 STDERR [INFO] I0802 07:11:50.437191  2751 net.cpp:399] lstm1_W_xc_x_slice -> W_xc_x_1
2016-08-02 07:11:50.438 STDERR [INFO] I0802 07:11:50.437242  2751 net.cpp:141] Setting up lstm1_W_xc_x_slice
2016-08-02 07:11:50.438 STDERR [INFO] I0802 07:11:50.437252  2751 net.cpp:148] Top shape: 1 1 4000 (4000)
2016-08-02 07:11:50.438 STDERR [INFO] I0802 07:11:50.437258  2751 net.cpp:156] Memory required for data: 42016
2016-08-02 07:11:50.438 STDERR [INFO] I0802 07:11:50.437263  2751 layer_factory.hpp:77] Creating layer lstm1_h_conted_0
2016-08-02 07:11:50.438 STDERR [INFO] I0802 07:11:50.437276  2751 net.cpp:91] Creating Layer lstm1_h_conted_0
2016-08-02 07:11:50.438 STDERR [INFO] I0802 07:11:50.437283  2751 net.cpp:425] lstm1_h_conted_0 <- h_0
2016-08-02 07:11:50.438 STDERR [INFO] I0802 07:11:50.437289  2751 net.cpp:425] lstm1_h_conted_0 <- cont_1_lstm1_cont_slice_0_split_0
2016-08-02 07:11:50.438 STDERR [INFO] I0802 07:11:50.437297  2751 net.cpp:399] lstm1_h_conted_0 -> h_conted_0
2016-08-02 07:11:50.438 STDERR [INFO] I0802 07:11:50.437427  2751 net.cpp:141] Setting up lstm1_h_conted_0
2016-08-02 07:11:50.438 STDERR [INFO] I0802 07:11:50.437438  2751 net.cpp:148] Top shape: 1 1 1000 (1000)
2016-08-02 07:11:50.438 STDERR [INFO] I0802 07:11:50.437443  2751 net.cpp:156] Memory required for data: 46016
2016-08-02 07:11:50.438 STDERR [INFO] I0802 07:11:50.437448  2751 layer_factory.hpp:77] Creating layer lstm1_transform_1
2016-08-02 07:11:50.439 STDERR [INFO] I0802 07:11:50.437463  2751 net.cpp:91] Creating Layer lstm1_transform_1
2016-08-02 07:11:50.439 STDERR [INFO] I0802 07:11:50.437469  2751 net.cpp:425] lstm1_transform_1 <- h_conted_0
…
2016-08-02 07:11:50.502 STDERR [INFO] }
2016-08-02 07:11:50.502 STDERR [INFO] I0802 07:11:50.484030  2751 layer_factory.hpp:77] Creating layer lstm2_
2016-08-02 07:11:50.502 STDERR [INFO] I0802 07:11:50.484046  2751 net.cpp:91] Creating Layer lstm2_
2016-08-02 07:11:50.502 STDERR [INFO] I0802 07:11:50.484055  2751 net.cpp:399] lstm2_ -> x
2016-08-02 07:11:50.502 STDERR [INFO] I0802 07:11:50.484066  2751 net.cpp:399] lstm2_ -> cont
2016-08-02 07:11:50.503 STDERR [INFO] I0802 07:11:50.484127  2751 net.cpp:141] Setting up lstm2_
2016-08-02 07:11:50.503 STDERR [INFO] I0802 07:11:50.484138  2751 net.cpp:148] Top shape: 1 1 1501 (1501)
2016-08-02 07:11:50.503 STDERR [INFO] I0802 07:11:50.484144  2751 net.cpp:148] Top shape: 1 1 (1)
2016-08-02 07:11:50.503 STDERR [INFO] I0802 07:11:50.484149  2751 net.cpp:156] Memory required for data: 6008
2016-08-02 07:11:50.503 STDERR [INFO] I0802 07:11:50.484155  2751 layer_factory.hpp:77] Creating layer lstm2_
2016-08-02 07:11:50.503 STDERR [INFO] I0802 07:11:50.484169  2751 net.cpp:91] Creating Layer lstm2_
2016-08-02 07:11:50.503 STDERR [INFO] I0802 07:11:50.484175  2751 net.cpp:399] lstm2_ -> c_0
2016-08-02 07:11:50.503 STDERR [INFO] I0802 07:11:50.484185  2751 net.cpp:399] lstm2_ -> h_0
2016-08-02 07:11:50.503 STDERR [INFO] I0802 07:11:50.484242  2751 net.cpp:141] Setting up lstm2_
2016-08-02 07:11:50.503 STDERR [INFO] I0802 07:11:50.484252  2751 net.cpp:148] Top shape: 1 1 1000 (1000)
2016-08-02 07:11:50.503 STDERR [INFO] I0802 07:11:50.484258  2751 net.cpp:148] Top shape: 1 1 1000 (1000)
2016-08-02 07:11:50.503 STDERR [INFO] I0802 07:11:50.484263  2751 net.cpp:156] Memory required for data: 14008
2016-08-02 07:11:50.504 STDERR [INFO] I0802 07:11:50.484268  2751 layer_factory.hpp:77] Creating layer lstm2_cont_slice
2016-08-02 07:11:50.504 STDERR [INFO] I0802 07:11:50.484277  2751 net.cpp:91] Creating Layer lstm2_cont_slice
2016-08-02 07:11:50.504 STDERR [INFO] I0802 07:11:50.484283  2751 net.cpp:425] lstm2_cont_slice <- cont
2016-08-02 07:11:50.504 STDERR [INFO] I0802 07:11:50.484293  2751 net.cpp:399] lstm2_cont_slice -> cont_1
2016-08-02 07:11:50.504 STDERR [INFO] I0802 07:11:50.484329  2751 net.cpp:141] Setting up lstm2_cont_slice
2016-08-02 07:11:50.504 STDERR [INFO] I0802 07:11:50.484343  2751 net.cpp:148] Top shape: 1 1 (1)
2016-08-02 07:11:50.504 STDERR [INFO] I0802 07:11:50.484347  2751 net.cpp:156] Memory required for data: 14012
2016-08-02 07:11:50.504 STDERR [INFO] I0802 07:11:50.484354  2751 layer_factory.hpp:77] Creating layer cont_1_lstm2_cont_slice_0_split
2016-08-02 07:11:50.504 STDERR [INFO] I0802 07:11:50.484360  2751 net.cpp:91] Creating Layer cont_1_lstm2_cont_slice_0_split
2016-08-02 07:11:50.504 STDERR [INFO] I0802 07:11:50.484365  2751 net.cpp:425] cont_1_lstm2_cont_slice_0_split <- cont_1
2016-08-02 07:11:50.504 STDERR [INFO] I0802 07:11:50.484372  2751 net.cpp:399] cont_1_lstm2_cont_slice_0_split -> cont_1_lstm2_cont_slice_0_split_0
2016-08-02 07:11:50.504 STDERR [INFO] I0802 07:11:50.484381  2751 net.cpp:399] cont_1_lstm2_cont_slice_0_split -> cont_1_lstm2_cont_slice_0_split_1
2016-08-02 07:11:50.505 STDERR [INFO] I0802 07:11:50.484436  2751 net.cpp:141] Setting up cont_1_lstm2_cont_slice_0_split
2016-08-02 07:11:50.505 STDERR [INFO] I0802 07:11:50.484444  2751 net.cpp:148] Top shape: 1 1 (1)
2016-08-02 07:11:50.505 STDERR [INFO] I0802 07:11:50.484452  2751 net.cpp:148] Top shape: 1 1 (1)
2016-08-02 07:11:50.505 STDERR [INFO] I0802 07:11:50.484457  2751 net.cpp:156] Memory required for data: 14020
2016-08-02 07:11:50.505 STDERR [INFO] I0802 07:11:50.484462  2751 layer_factory.hpp:77] Creating layer lstm2_x_transform
2016-08-02 07:11:50.505 STDERR [INFO] I0802 07:11:50.484474  2751 net.cpp:91] Creating Layer lstm2_x_transform
2016-08-02 07:11:50.505 STDERR [INFO] I0802 07:11:50.484480  2751 net.cpp:425] lstm2_x_transform <- x
2016-08-02 07:11:50.505 STDERR [INFO] I0802 07:11:50.484489  2751 net.cpp:399] lstm2_x_transform -> W_xc_x
2016-08-02 07:11:50.548 STDERR [INFO] I0802 07:11:50.548315  2751 net.cpp:141] Setting up lstm2_x_transform
2016-08-02 07:11:50.548 STDERR [INFO] I0802 07:11:50.548365  2751 net.cpp:148] Top shape: 1 1 4000 (4000)
2016-08-02 07:11:50.549 STDERR [INFO] I0802 07:11:50.548372  2751 net.cpp:156] Memory required for data: 30020
2016-08-02 07:11:50.549 STDERR [INFO] I0802 07:11:50.548393  2751 layer_factory.hpp:77] Creating layer lstm2_W_xc_x_slice
2016-08-02 07:11:50.549 STDERR [INFO] I0802 07:11:50.548410  2751 net.cpp:91] Creating Layer lstm2_W_xc_x_slice
2016-08-02 07:11:50.549 STDERR [INFO] I0802 07:11:50.548418  2751 net.cpp:425] lstm2_W_xc_x_slice <- W_xc_x
2016-08-02 07:11:50.549 STDERR [INFO] I0802 07:11:50.548434  2751 net.cpp:399] lstm2_W_xc_x_slice -> W_xc_x_1
2016-08-02 07:11:50.549 STDERR [INFO] I0802 07:11:50.548485  2751 net.cpp:141] Setting up lstm2_W_xc_x_slice
2016-08-02 07:11:50.549 STDERR [INFO] I0802 07:11:50.548496  2751 net.cpp:148] Top shape: 1 1 4000 (4000)
2016-08-02 07:11:50.549 STDERR [INFO] I0802 07:11:50.548501  2751 net.cpp:156] Memory required for data: 46020
2016-08-02 07:11:50.549 STDERR [INFO] I0802 07:11:50.548506  2751 layer_factory.hpp:77] Creating layer lstm2_h_conted_0
2016-08-02 07:11:50.549 STDERR [INFO] I0802 07:11:50.548517  2751 net.cpp:91] Creating Layer lstm2_h_conted_0
2016-08-02 07:11:50.549 STDERR [INFO] I0802 07:11:50.548523  2751 net.cpp:425] lstm2_h_conted_0 <- h_0
2016-08-02 07:11:50.550 STDERR [INFO] I0802 07:11:50.548529  2751 net.cpp:425] lstm2_h_conted_0 <- cont_1_lstm2_cont_slice_0_split_0
2016-08-02 07:11:50.550 STDERR [INFO] I0802 07:11:50.548542  2751 net.cpp:399] lstm2_h_conted_0 -> h_conted_0
2016-08-02 07:11:50.550 STDERR [INFO] I0802 07:11:50.548641  2751 net.cpp:141] Setting up lstm2_h_conted_0
2016-08-02 07:11:50.550 STDERR [INFO] I0802 07:11:50.548652  2751 net.cpp:148] Top shape: 1 1 1000 (1000)
2016-08-02 07:11:50.550 STDERR [INFO] I0802 07:11:50.548657  2751 net.cpp:156] Memory required for data: 50020
2016-08-02 07:11:50.550 STDERR [INFO] I0802 07:11:50.548662  2751 layer_factory.hpp:77] Creating layer lstm2_transform_1
2016-08-02 07:11:50.550 STDERR [INFO] I0802 07:11:50.548688  2751 net.cpp:91] Creating Layer lstm2_transform_1
2016-08-02 07:11:50.550 STDERR [INFO] I0802 07:11:50.548694  2751 net.cpp:425] lstm2_transform_1 <- h_conted_0
2016-08-02 07:11:50.550 STDERR [INFO] I0802 07:11:50.548703  2751 net.cpp:399] lstm2_transform_1 -> W_hc_h_0
2016-08-02 07:11:50.591 STDERR [INFO] I0802 07:11:50.591285  2751 net.cpp:141] Setting up lstm2_transform_1
2016-08-02 07:11:50.591 STDERR [INFO] I0802 07:11:50.591336  2751 net.cpp:148] Top shape: 1 1 4000 (4000)
2016-08-02 07:11:50.591 STDERR [INFO] I0802 07:11:50.591341  2751 net.cpp:156] Memory required for data: 66020
2016-08-02 07:11:50.592 STDERR [INFO] I0802 07:11:50.591361  2751 layer_factory.hpp:77] Creating layer lstm2_gate_input_1
2016-08-02 07:11:50.592 STDERR [INFO] I0802 07:11:50.591383  2751 net.cpp:91] Creating Layer lstm2_gate_input_1
2016-08-02 07:11:50.592 STDERR [INFO] I0802 07:11:50.591392  2751 net.cpp:425] lstm2_gate_input_1 <- W_hc_h_0
2016-08-02 07:11:50.592 STDERR [INFO] I0802 07:11:50.591400  2751 net.cpp:425] lstm2_gate_input_1 <- W_xc_x_1
2016-08-02 07:11:50.592 STDERR [INFO] I0802 07:11:50.591413  2751 net.cpp:399] lstm2_gate_input_1 -> gate_input_1
2016-08-02 07:11:50.592 STDERR [INFO] I0802 07:11:50.591464  2751 net.cpp:141] Setting up lstm2_gate_input_1
2016-08-02 07:11:50.592 STDERR [INFO] I0802 07:11:50.591473  2751 net.cpp:148] Top shape: 1 1 4000 (4000)
2016-08-02 07:11:50.592 STDERR [INFO] I0802 07:11:50.591478  2751 net.cpp:156] Memory required for data: 82020
2016-08-02 07:11:50.592 STDERR [INFO] I0802 07:11:50.591483  2751 layer_factory.hpp:77] Creating layer lstm2_unit_1
2016-08-02 07:11:50.592 STDERR [INFO] I0802 07:11:50.591496  2751 net.cpp:91] Creating Layer lstm2_unit_1
2016-08-02 07:11:50.592 STDERR [INFO] I0802 07:11:50.591502  2751 net.cpp:425] lstm2_unit_1 <- c_0
2016-08-02 07:11:50.593 STDERR [INFO] I0802 07:11:50.591509  2751 net.cpp:425] lstm2_unit_1 <- gate_input_1
2016-08-02 07:11:50.593 STDERR [INFO] I0802 07:11:50.591516  2751 net.cpp:425] lstm2_unit_1 <- cont_1_lstm2_cont_slice_0_split_1
2016-08-02 07:11:50.593 STDERR [INFO] I0802 07:11:50.591522  2751 net.cpp:399] lstm2_unit_1 -> c_1
2016-08-02 07:11:50.593 STDERR [INFO] I0802 07:11:50.591532  2751 net.cpp:399] lstm2_unit_1 -> h_1
2016-08-02 07:11:50.593 STDERR [INFO] I0802 07:11:50.591601  2751 net.cpp:141] Setting up lstm2_unit_1
2016-08-02 07:11:50.593 STDERR [INFO] I0802 07:11:50.591611  2751 net.cpp:148] Top shape: 1 1 1000 (1000)
2016-08-02 07:11:50.593 STDERR [INFO] I0802 07:11:50.591619  2751 net.cpp:148] Top shape: 1 1 1000 (1000)
2016-08-02 07:11:50.593 STDERR [INFO] I0802 07:11:50.591622  2751 net.cpp:156] Memory required for data: 90020
2016-08-02 07:11:50.593 STDERR [INFO] I0802 07:11:50.591629  2751 layer_factory.hpp:77] Creating layer lstm2_
2016-08-02 07:11:50.593 STDERR [INFO] I0802 07:11:50.591639  2751 net.cpp:91] Creating Layer lstm2_
2016-08-02 07:11:50.593 STDERR [INFO] I0802 07:11:50.591644  2751 net.cpp:425] lstm2_ <- c_1
2016-08-02 07:11:50.593 STDERR [INFO] I0802 07:11:50.591653  2751 net.cpp:399] lstm2_ -> c_T
2016-08-02 07:11:50.594 STDERR [INFO] I0802 07:11:50.591687  2751 net.cpp:141] Setting up lstm2_
2016-08-02 07:11:50.594 STDERR [INFO] I0802 07:11:50.591696  2751 net.cpp:148] Top shape: 1 1 1000 (1000)
2016-08-02 07:11:50.594 STDERR [INFO] I0802 07:11:50.591701  2751 net.cpp:156] Memory required for data: 94020
2016-08-02 07:11:50.594 STDERR [INFO] I0802 07:11:50.591706  2751 layer_factory.hpp:77] Creating layer lstm2_h_concat
2016-08-02 07:11:50.594 STDERR [INFO] I0802 07:11:50.591717  2751 net.cpp:91] Creating Layer lstm2_h_concat
2016-08-02 07:11:50.594 STDERR [INFO] I0802 07:11:50.591722  2751 net.cpp:425] lstm2_h_concat <- h_1
2016-08-02 07:11:50.594 STDERR [INFO] I0802 07:11:50.591729  2751 net.cpp:399] lstm2_h_concat -> h
2016-08-02 07:11:50.594 STDERR [INFO] I0802 07:11:50.591770  2751 net.cpp:141] Setting up lstm2_h_concat
2016-08-02 07:11:50.594 STDERR [INFO] I0802 07:11:50.591780  2751 net.cpp:148] Top shape: 1 1 1000 (1000)
2016-08-02 07:11:50.594 STDERR [INFO] I0802 07:11:50.591784  2751 net.cpp:156] Memory required for data: 98020
2016-08-02 07:11:50.594 STDERR [INFO] I0802 07:11:50.591789  2751 layer_factory.hpp:77] Creating layer h_pseudoloss
2016-08-02 07:11:50.594 STDERR [INFO] I0802 07:11:50.591800  2751 net.cpp:91] Creating Layer h_pseudoloss
2016-08-02 07:11:50.594 STDERR [INFO] I0802 07:11:50.591805  2751 net.cpp:425] h_pseudoloss <- h
…
