…
I0802 21:39:13.413053 19149 upgrade_proto.cpp:66] Attempting to upgrade input file specified using deprecated input fields: /tmp/cvld5979369385553686555/s2vt.words_to_preds.prototxt
I0802 21:39:13.413166 19149 upgrade_proto.cpp:69] Successfully upgraded file specified using deprecated input fields.
W0802 21:39:13.413177 19149 upgrade_proto.cpp:71] Note that future Caffe releases will only support input layers and not input fields.
I0802 21:39:13.413383 19159 net.cpp:49] Initializing net from parameters: 
name: "CaffeNet"
state {
  phase: TEST
}
layer {
  name: "data"
  type: "Input"
  top: "data"
  input_param {
    shape {
      dim: 10
      dim: 3
      dim: 227
      dim: 227
    }
  }
}
layer {
  name: "conv1"
  type: "Convolution"
  bottom: "data"
  top: "conv1"
  convolution_param {
    num_output: 96
    kernel_size: 11
    stride: 4
  }
}
layer {
  name: "relu1"
  type: "ReLU"
  bottom: "conv1"
  top: "conv1"
}
layer {
  name: "pool1"
  type: "Pooling"
  bottom: "conv1"
  top: "pool1"
  pooling_param {
    pool: MAX
    kernel_size: 3
    stride: 2
  }
}
layer {
  name: "norm1"
  type: "LRN"
  bottom: "pool1"
  top: "norm1"
  lrn_param {
    local_size: 5
    alpha: 0.0001
    beta: 0.75
  }
}
layer {
  name: "conv2"
  type: "Convolution"
  bottom: "norm1"
  top: "conv2"
  convolution_param {
    num_output: 256
    pad: 2
    kernel_size: 5
    group: 2
  }
}
layer {
  name: "relu2"
  type: "ReLU"
  bottom: "conv2"
  top: "conv2"
}
layer {
  name: "pool2"
  type: "Pooling"
  bottom: "conv2"
  top: "pool2"
  pooling_param {
    pool: MAX
    kernel_size: 3
    stride: 2
  }
}
layer {
  name: "norm2"
  type: "LRN"
  bottom: "pool2"
  top: "norm2"
  lrn_param {
    local_size: 5
    alpha: 0.0001
    beta: 0.75
  }
}
layer {
  name: "conv3"
  type: "Convolution"
  bottom: "norm2"
  top: "conv3"
  convolution_param {
    num_output: 384
    pad: 1
    kernel_size: 3
  }
}
layer {
  name: "relu3"
  type: "ReLU"
  bottom: "conv3"
  top: "conv3"
}
layer {
  name: "conv4"
  type: "Convolution"
  bottom: "conv3"
  top: "conv4"
  convolution_param {
    num_output: 384
    pad: 1
    kernel_size: 3
    group: 2
  }
}
layer {
  name: "relu4"
  type: "ReLU"
  bottom: "conv4"
  top: "conv4"
}
layer {
  name: "conv5"
  type: "Convolution"
  bottom: "conv4"
  top: "conv5"
  convolution_param {
    num_output: 256
    pad: 1
    kernel_size: 3
    group: 2
  }
}
layer {
  name: "relu5"
  type: "ReLU"
  bottom: "conv5"
  top: "conv5"
}
layer {
  name: "pool5"
  type: "Pooling"
  bottom: "conv5"
  top: "pool5"
  pooling_param {
    pool: MAX
    kernel_size: 3
    stride: 2
  }
}
layer {
  name: "fc6"
  type: "InnerProduct"
  bottom: "pool5"
  top: "fc6"
  inner_product_param {
    num_output: 4096
  }
}
layer {
  name: "relu6"
  type: "ReLU"
  bottom: "fc6"
  top: "fc6"
}
layer {
  name: "drop6"
  type: "Dropout"
  bottom: "fc6"
  top: "fc6"
  dropout_param {
    dropout_ratio: 0.5
  }
}
layer {
  name: "fc7"
  type: "InnerProduct"
  bottom: "fc6"
  top: "fc7"
  inner_product_param {
    num_output: 4096
  }
}
layer {
  name: "relu7"
  type: "ReLU"
  bottom: "fc7"
  top: "fc7"
}
layer {
  name: "drop7"
  type: "Dropout"
  bottom: "fc7"
  top: "fc7"
  dropout_param {
    dropout_ratio: 0.5
  }
}
layer {
  name: "fc8"
  type: "InnerProduct"
  bottom: "fc7"
  top: "fc8"
  inner_product_param {
    num_output: 1000
  }
}
layer {
  name: "prob"
  type: "Softmax"
  bottom: "fc8"
  top: "prob"
}
I0802 21:39:13.413424 19149 net.cpp:49] Initializing net from parameters: 
name: "s2vt:features_to_lstm"
state {
  phase: TEST
}
layer {
  name: "input"
  type: "Input"
  top: "frames_fc7"
  top: "cont_sentence"
  top: "input_sentence"
  top: "stage_indicator"
  input_param {
    shape {
      dim: 1
      dim: 4096
    }
    shape {
      dim: 1
      dim: 1
    }
    shape {
      dim: 1
      dim: 1
    }
    shape {
      dim: 1
      dim: 1
    }
  }
}
layer {
  name: "embed_encoder"
  type: "InnerProduct"
  bottom: "frames_fc7"
  top: "embedded_in_frames"
  param {
    lr_mult: 1
    decay_mult: 1
  }
  param {
    lr_mult: 2
    decay_mult: 0
  }
  inner_product_param {
    num_output: 500
    weight_filler {
      type: "xavier"
    }
    bias_filler {
      type: "constant"
      value: 0.2
    }
  }
}
layer {
  name: "reshape_frames"
  type: "Reshape"
  bottom: "embedded_in_frames"
  top: "embedded_input_frames"
  reshape_param {
    shape {
      dim: 1
      dim: 1
      dim: 500
    }
  }
}
layer {
  name: "reshape_stage_indicator"
  type: "Reshape"
  bottom: "stage_indicator"
  top: "reshaped_stage_indicator"
  reshape_param {
    shape {
      dim: 1
      dim: 1
      dim: 1
    }
  }
}
layer {
  name: "embedding"
  type: "Embed"
  bottom: "input_sentence"
  top: "embedded_input_sentence"
  param {
    lr_mult: 1
  }
  embed_param {
    num_output: 500
    input_dim: 46168
    bias_term: false
    weight_filler {
      type: "uniform"
      min: -0.08
      max: 0.08
    }
  }
}
layer {
  name: "lstm1"
  type: "LSTM"
  bottom: "embedded_input_frames"
  bottom: "cont_sentence"
  top: "lstm1"
  recurrent_param {
    num_output: 1000
    weight_filler {
      type: "uniform"
      min: -0.08
      max: 0.08
    }
    bias_filler {
      type: "constant"
      value: 0
    }
  }
}
layer {
  name: "concat"
  type: "Concat"
  bottom: "lstm1"
  bottom: "embedded_input_sentence"
  bottom: "reshaped_stage_indicator"
  top: "lstm1_video_sequence"
  concat_param {
    concat_dim: 2
  }
}
layer {
  name: "lstm2"
  type: "LSTM"
  bottom: "lstm1_video_sequence"
  bottom: "cont_sentence"
  top: "lstm2"
  recurrent_param {
    num_output: 1000
    weight_filler {
      type: "uniform"
      min: -0.08
      max: 0.08
    }
    bias_filler {
      type: "constant"
      value: 0
    }
  }
}
layer {
  name: "predict"
  type: "InnerProduct"
  bottom: "lstm2"
  top: "predict"
  param {
    lr_mult: 1
    decay_mult: 1
  }
  param {
    lr_mult: 2
    decay_mult: 0
  }
  inner_product_param {
    num_output: 46168
    weight_filler {
      type: "uniform"
      min: -0.08
      max: 0.08
    }
    bias_filler {
      type: "constant"
      value: 0
    }
    axis: 2
  }
}
layer {
  name: "probs"
  type: "Softmax"
  bottom: "predict"
  top: "probs"
  softmax_param {
    axis: 2
  }
}
I0802 21:39:13.413508 19159 layer_factory.hpp:77] Creating layer data
I0802 21:39:13.413542 19159 net.cpp:91] Creating Layer data
I0802 21:39:13.413552 19159 net.cpp:399] data -> data
I0802 21:39:13.413553 19149 layer_factory.hpp:77] Creating layer input
I0802 21:39:13.413568 19149 net.cpp:91] Creating Layer input
I0802 21:39:13.413578 19149 net.cpp:399] input -> frames_fc7
I0802 21:39:13.413592 19149 net.cpp:399] input -> cont_sentence
I0802 21:39:13.413605 19149 net.cpp:399] input -> input_sentence
I0802 21:39:13.413617 19149 net.cpp:399] input -> stage_indicator
I0802 21:39:14.006392 19159 net.cpp:141] Setting up data
I0802 21:39:14.006465 19159 net.cpp:148] Top shape: 10 3 227 227 (1545870)
I0802 21:39:14.006474 19159 net.cpp:156] Memory required for data: 6183480
I0802 21:39:14.006494 19159 layer_factory.hpp:77] Creating layer conv1
I0802 21:39:14.006497 19149 net.cpp:141] Setting up input
I0802 21:39:14.006518 19149 net.cpp:148] Top shape: 1 4096 (4096)
I0802 21:39:14.006526 19149 net.cpp:148] Top shape: 1 1 (1)
I0802 21:39:14.006526 19159 net.cpp:91] Creating Layer conv1
I0802 21:39:14.006539 19149 net.cpp:148] Top shape: 1 1 (1)
I0802 21:39:14.006546 19149 net.cpp:148] Top shape: 1 1 (1)
I0802 21:39:14.006547 19159 net.cpp:425] conv1 <- data
I0802 21:39:14.006552 19149 net.cpp:156] Memory required for data: 16396
I0802 21:39:14.006559 19149 layer_factory.hpp:77] Creating layer cont_sentence_input_1_split
I0802 21:39:14.006563 19159 net.cpp:399] conv1 -> conv1
I0802 21:39:14.006583 19149 net.cpp:91] Creating Layer cont_sentence_input_1_split
I0802 21:39:14.006590 19149 net.cpp:425] cont_sentence_input_1_split <- cont_sentence
I0802 21:39:14.006614 19149 net.cpp:399] cont_sentence_input_1_split -> cont_sentence_input_1_split_0
I0802 21:39:14.006628 19149 net.cpp:399] cont_sentence_input_1_split -> cont_sentence_input_1_split_1
I0802 21:39:14.006855 19149 net.cpp:141] Setting up cont_sentence_input_1_split
I0802 21:39:14.006875 19149 net.cpp:148] Top shape: 1 1 (1)
I0802 21:39:14.006888 19149 net.cpp:148] Top shape: 1 1 (1)
I0802 21:39:14.006896 19149 net.cpp:156] Memory required for data: 16404
I0802 21:39:14.006906 19149 layer_factory.hpp:77] Creating layer embed_encoder
I0802 21:39:14.006937 19149 net.cpp:91] Creating Layer embed_encoder
I0802 21:39:14.006950 19149 net.cpp:425] embed_encoder <- frames_fc7
I0802 21:39:14.006968 19149 net.cpp:399] embed_encoder -> embedded_in_frames
I0802 21:39:14.042491 19149 net.cpp:141] Setting up embed_encoder
I0802 21:39:14.042551 19149 net.cpp:148] Top shape: 1 500 (500)
I0802 21:39:14.042563 19149 net.cpp:156] Memory required for data: 18404
I0802 21:39:14.042608 19149 layer_factory.hpp:77] Creating layer reshape_frames
I0802 21:39:14.042646 19149 net.cpp:91] Creating Layer reshape_frames
I0802 21:39:14.042659 19149 net.cpp:425] reshape_frames <- embedded_in_frames
I0802 21:39:14.042678 19149 net.cpp:399] reshape_frames -> embedded_input_frames
I0802 21:39:14.042762 19149 net.cpp:141] Setting up reshape_frames
I0802 21:39:14.042778 19149 net.cpp:148] Top shape: 1 1 500 (500)
I0802 21:39:14.042783 19149 net.cpp:156] Memory required for data: 20404
I0802 21:39:14.042788 19149 layer_factory.hpp:77] Creating layer reshape_stage_indicator
I0802 21:39:14.042804 19149 net.cpp:91] Creating Layer reshape_stage_indicator
I0802 21:39:14.042811 19149 net.cpp:425] reshape_stage_indicator <- stage_indicator
I0802 21:39:14.042821 19149 net.cpp:399] reshape_stage_indicator -> reshaped_stage_indicator
I0802 21:39:14.042865 19149 net.cpp:141] Setting up reshape_stage_indicator
I0802 21:39:14.042875 19149 net.cpp:148] Top shape: 1 1 1 (1)
I0802 21:39:14.042879 19149 net.cpp:156] Memory required for data: 20408
I0802 21:39:14.042884 19149 layer_factory.hpp:77] Creating layer embedding
I0802 21:39:14.042903 19149 net.cpp:91] Creating Layer embedding
I0802 21:39:14.042908 19149 net.cpp:425] embedding <- input_sentence
I0802 21:39:14.042917 19149 net.cpp:399] embedding -> embedded_input_sentence
I0802 21:39:14.308888 19149 net.cpp:141] Setting up embedding
I0802 21:39:14.308943 19149 net.cpp:148] Top shape: 1 1 500 (500)
I0802 21:39:14.308950 19149 net.cpp:156] Memory required for data: 22408
I0802 21:39:14.308969 19149 layer_factory.hpp:77] Creating layer lstm1
I0802 21:39:14.308993 19149 net.cpp:91] Creating Layer lstm1
I0802 21:39:14.309002 19149 net.cpp:425] lstm1 <- embedded_input_frames
I0802 21:39:14.309012 19149 net.cpp:425] lstm1 <- cont_sentence_input_1_split_0
I0802 21:39:14.309032 19149 net.cpp:399] lstm1 -> lstm1
I0802 21:39:14.309072 19149 recurrent_layer.cpp:20] Initializing recurrent layer: assuming input batch contains 1 timesteps of 1 independent streams.
I0802 21:39:14.309454 19149 net.cpp:49] Initializing net from parameters: 
layer {
  name: "lstm1_"
  type: "Input"
  top: "x"
  top: "cont"
  input_param {
    shape {
      dim: 1
      dim: 1
      dim: 500
    }
    shape {
      dim: 1
      dim: 1
    }
  }
}
layer {
  name: "lstm1_"
  type: "Input"
  top: "c_0"
  top: "h_0"
  input_param {
    shape {
      dim: 1
      dim: 1
      dim: 1000
    }
    shape {
      dim: 1
      dim: 1
      dim: 1000
    }
  }
}
layer {
  name: "lstm1_cont_slice"
  type: "Slice"
  bottom: "cont"
  top: "cont_1"
  slice_param {
    axis: 0
  }
}
layer {
  name: "lstm1_x_transform"
  type: "InnerProduct"
  bottom: "x"
  top: "W_xc_x"
  param {
    name: "W_xc"
  }
  param {
    name: "b_c"
  }
  propagate_down: true
  inner_product_param {
    num_output: 4000
    bias_term: true
    weight_filler {
      type: "uniform"
      min: -0.08
      max: 0.08
    }
    bias_filler {
      type: "constant"
      value: 0
    }
    axis: 2
  }
}
layer {
  name: "lstm1_W_xc_x_slice"
  type: "Slice"
  bottom: "W_xc_x"
  top: "W_xc_x_1"
  slice_param {
    axis: 0
  }
}
layer {
  name: "lstm1_h_conted_0"
  type: "Scale"
  bottom: "h_0"
  bottom: "cont_1"
  top: "h_conted_0"
  scale_param {
    axis: 0
  }
}
layer {
  name: "lstm1_transform_1"
  type: "InnerProduct"
  bottom: "h_conted_0"
  top: "W_hc_h_0"
  param {
    name: "W_hc"
  }
  inner_product_param {
    num_output: 4000
    bias_term: false
    weight_filler {
      type: "uniform"
      min: -0.08
      max: 0.08
    }
    axis: 2
  }
}
layer {
  name: "lstm1_gate_input_1"
  type: "Eltwise"
  bottom: "W_hc_h_0"
  bottom: "W_xc_x_1"
  top: "gate_input_1"
  eltwise_param {
    operation: SUM
  }
}
layer {
  name: "lstm1_unit_1"
  type: "LSTMUnit"
  bottom: "c_0"
  bottom: "gate_input_1"
  bottom: "cont_1"
  top: "c_1"
  top: "h_1"
}
layer {
  name: "lstm1_"
  type: "Split"
  bottom: "c_1"
  top: "c_T"
}
layer {
  name: "lstm1_h_concat"
  type: "Concat"
  bottom: "h_1"
  top: "h"
  concat_param {
    axis: 0
  }
}
layer {
  name: "h_pseudoloss"
  type: "Reduction"
  bottom: "h"
  top: "h_pseudoloss"
  loss_weight: 1
}
I0802 21:39:14.309553 19149 layer_factory.hpp:77] Creating layer lstm1_
I0802 21:39:14.309567 19149 net.cpp:91] Creating Layer lstm1_
I0802 21:39:14.309573 19149 net.cpp:399] lstm1_ -> x
I0802 21:39:14.309586 19149 net.cpp:399] lstm1_ -> cont
I0802 21:39:14.313493 19149 net.cpp:141] Setting up lstm1_
I0802 21:39:14.313513 19149 net.cpp:148] Top shape: 1 1 500 (500)
I0802 21:39:14.313521 19149 net.cpp:148] Top shape: 1 1 (1)
I0802 21:39:14.313525 19149 net.cpp:156] Memory required for data: 2004
I0802 21:39:14.313531 19149 layer_factory.hpp:77] Creating layer lstm1_
I0802 21:39:14.313549 19149 net.cpp:91] Creating Layer lstm1_
I0802 21:39:14.313557 19149 net.cpp:399] lstm1_ -> c_0
I0802 21:39:14.313570 19149 net.cpp:399] lstm1_ -> h_0
I0802 21:39:14.313630 19149 net.cpp:141] Setting up lstm1_
I0802 21:39:14.313640 19149 net.cpp:148] Top shape: 1 1 1000 (1000)
I0802 21:39:14.313647 19149 net.cpp:148] Top shape: 1 1 1000 (1000)
I0802 21:39:14.313652 19149 net.cpp:156] Memory required for data: 10004
I0802 21:39:14.313655 19149 layer_factory.hpp:77] Creating layer lstm1_cont_slice
I0802 21:39:14.313668 19149 net.cpp:91] Creating Layer lstm1_cont_slice
I0802 21:39:14.313673 19149 net.cpp:425] lstm1_cont_slice <- cont
I0802 21:39:14.313681 19149 net.cpp:399] lstm1_cont_slice -> cont_1
I0802 21:39:14.313725 19149 net.cpp:141] Setting up lstm1_cont_slice
I0802 21:39:14.313735 19149 net.cpp:148] Top shape: 1 1 (1)
I0802 21:39:14.313740 19149 net.cpp:156] Memory required for data: 10008
I0802 21:39:14.313745 19149 layer_factory.hpp:77] Creating layer cont_1_lstm1_cont_slice_0_split
I0802 21:39:14.313753 19149 net.cpp:91] Creating Layer cont_1_lstm1_cont_slice_0_split
I0802 21:39:14.313758 19149 net.cpp:425] cont_1_lstm1_cont_slice_0_split <- cont_1
I0802 21:39:14.313768 19149 net.cpp:399] cont_1_lstm1_cont_slice_0_split -> cont_1_lstm1_cont_slice_0_split_0
I0802 21:39:14.313776 19149 net.cpp:399] cont_1_lstm1_cont_slice_0_split -> cont_1_lstm1_cont_slice_0_split_1
I0802 21:39:14.314374 19149 net.cpp:141] Setting up cont_1_lstm1_cont_slice_0_split
I0802 21:39:14.314398 19149 net.cpp:148] Top shape: 1 1 (1)
I0802 21:39:14.314404 19149 net.cpp:148] Top shape: 1 1 (1)
I0802 21:39:14.314409 19149 net.cpp:156] Memory required for data: 10016
I0802 21:39:14.314414 19149 layer_factory.hpp:77] Creating layer lstm1_x_transform
I0802 21:39:14.314427 19149 net.cpp:91] Creating Layer lstm1_x_transform
I0802 21:39:14.314434 19149 net.cpp:425] lstm1_x_transform <- x
I0802 21:39:14.314445 19149 net.cpp:399] lstm1_x_transform -> W_xc_x
I0802 21:39:14.332460 19159 net.cpp:141] Setting up conv1
I0802 21:39:14.332510 19159 net.cpp:148] Top shape: 10 96 55 55 (2904000)
I0802 21:39:14.332518 19159 net.cpp:156] Memory required for data: 17799480
I0802 21:39:14.332542 19159 layer_factory.hpp:77] Creating layer relu1
I0802 21:39:14.332562 19159 net.cpp:91] Creating Layer relu1
I0802 21:39:14.332576 19159 net.cpp:425] relu1 <- conv1
I0802 21:39:14.332586 19159 net.cpp:386] relu1 -> conv1 (in-place)
I0802 21:39:14.332999 19159 net.cpp:141] Setting up relu1
I0802 21:39:14.333014 19159 net.cpp:148] Top shape: 10 96 55 55 (2904000)
I0802 21:39:14.333019 19159 net.cpp:156] Memory required for data: 29415480
I0802 21:39:14.333025 19159 layer_factory.hpp:77] Creating layer pool1
I0802 21:39:14.333040 19159 net.cpp:91] Creating Layer pool1
I0802 21:39:14.333045 19159 net.cpp:425] pool1 <- conv1
I0802 21:39:14.333055 19159 net.cpp:399] pool1 -> pool1
I0802 21:39:14.333133 19159 net.cpp:141] Setting up pool1
I0802 21:39:14.333145 19159 net.cpp:148] Top shape: 10 96 27 27 (699840)
I0802 21:39:14.333150 19159 net.cpp:156] Memory required for data: 32214840
I0802 21:39:14.333155 19159 layer_factory.hpp:77] Creating layer norm1
I0802 21:39:14.333173 19159 net.cpp:91] Creating Layer norm1
I0802 21:39:14.333178 19159 net.cpp:425] norm1 <- pool1
I0802 21:39:14.333186 19159 net.cpp:399] norm1 -> norm1
I0802 21:39:14.333654 19159 net.cpp:141] Setting up norm1
I0802 21:39:14.333670 19159 net.cpp:148] Top shape: 10 96 27 27 (699840)
I0802 21:39:14.333676 19159 net.cpp:156] Memory required for data: 35014200
I0802 21:39:14.333683 19159 layer_factory.hpp:77] Creating layer conv2
I0802 21:39:14.333698 19159 net.cpp:91] Creating Layer conv2
I0802 21:39:14.333703 19159 net.cpp:425] conv2 <- norm1
I0802 21:39:14.333711 19159 net.cpp:399] conv2 -> conv2
I0802 21:39:14.337882 19159 net.cpp:141] Setting up conv2
I0802 21:39:14.337905 19159 net.cpp:148] Top shape: 10 256 27 27 (1866240)
I0802 21:39:14.337911 19159 net.cpp:156] Memory required for data: 42479160
I0802 21:39:14.337926 19159 layer_factory.hpp:77] Creating layer relu2
I0802 21:39:14.337937 19159 net.cpp:91] Creating Layer relu2
I0802 21:39:14.337944 19159 net.cpp:425] relu2 <- conv2
I0802 21:39:14.337950 19159 net.cpp:386] relu2 -> conv2 (in-place)
I0802 21:39:14.338390 19159 net.cpp:141] Setting up relu2
I0802 21:39:14.338405 19159 net.cpp:148] Top shape: 10 256 27 27 (1866240)
I0802 21:39:14.338410 19159 net.cpp:156] Memory required for data: 49944120
I0802 21:39:14.338416 19159 layer_factory.hpp:77] Creating layer pool2
I0802 21:39:14.338428 19159 net.cpp:91] Creating Layer pool2
I0802 21:39:14.338433 19159 net.cpp:425] pool2 <- conv2
I0802 21:39:14.338443 19159 net.cpp:399] pool2 -> pool2
I0802 21:39:14.338536 19159 net.cpp:141] Setting up pool2
I0802 21:39:14.338551 19159 net.cpp:148] Top shape: 10 256 13 13 (432640)
I0802 21:39:14.338556 19159 net.cpp:156] Memory required for data: 51674680
I0802 21:39:14.338560 19159 layer_factory.hpp:77] Creating layer norm2
I0802 21:39:14.338573 19159 net.cpp:91] Creating Layer norm2
I0802 21:39:14.338578 19159 net.cpp:425] norm2 <- pool2
I0802 21:39:14.338587 19159 net.cpp:399] norm2 -> norm2
I0802 21:39:14.339046 19159 net.cpp:141] Setting up norm2
I0802 21:39:14.339069 19159 net.cpp:148] Top shape: 10 256 13 13 (432640)
I0802 21:39:14.339081 19159 net.cpp:156] Memory required for data: 53405240
I0802 21:39:14.339090 19159 layer_factory.hpp:77] Creating layer conv3
I0802 21:39:14.339114 19159 net.cpp:91] Creating Layer conv3
I0802 21:39:14.339126 19159 net.cpp:425] conv3 <- norm2
I0802 21:39:14.339143 19159 net.cpp:399] conv3 -> conv3
I0802 21:39:14.339336 19149 net.cpp:141] Setting up lstm1_x_transform
I0802 21:39:14.339356 19149 net.cpp:148] Top shape: 1 1 4000 (4000)
I0802 21:39:14.339361 19149 net.cpp:156] Memory required for data: 26016
I0802 21:39:14.339378 19149 layer_factory.hpp:77] Creating layer lstm1_W_xc_x_slice
I0802 21:39:14.339390 19149 net.cpp:91] Creating Layer lstm1_W_xc_x_slice
I0802 21:39:14.339397 19149 net.cpp:425] lstm1_W_xc_x_slice <- W_xc_x
I0802 21:39:14.339406 19149 net.cpp:399] lstm1_W_xc_x_slice -> W_xc_x_1
I0802 21:39:14.339465 19149 net.cpp:141] Setting up lstm1_W_xc_x_slice
I0802 21:39:14.339478 19149 net.cpp:148] Top shape: 1 1 4000 (4000)
I0802 21:39:14.339481 19149 net.cpp:156] Memory required for data: 42016
I0802 21:39:14.339486 19149 layer_factory.hpp:77] Creating layer lstm1_h_conted_0
I0802 21:39:14.339498 19149 net.cpp:91] Creating Layer lstm1_h_conted_0
I0802 21:39:14.339504 19149 net.cpp:425] lstm1_h_conted_0 <- h_0
I0802 21:39:14.339509 19149 net.cpp:425] lstm1_h_conted_0 <- cont_1_lstm1_cont_slice_0_split_0
I0802 21:39:14.339517 19149 net.cpp:399] lstm1_h_conted_0 -> h_conted_0
I0802 21:39:14.342304 19149 net.cpp:141] Setting up lstm1_h_conted_0
I0802 21:39:14.342326 19149 net.cpp:148] Top shape: 1 1 1000 (1000)
I0802 21:39:14.342332 19149 net.cpp:156] Memory required for data: 46016
I0802 21:39:14.342339 19149 layer_factory.hpp:77] Creating layer lstm1_transform_1
I0802 21:39:14.342353 19149 net.cpp:91] Creating Layer lstm1_transform_1
I0802 21:39:14.342360 19149 net.cpp:425] lstm1_transform_1 <- h_conted_0
I0802 21:39:14.342372 19149 net.cpp:399] lstm1_transform_1 -> W_hc_h_0
I0802 21:39:14.354380 19159 net.cpp:141] Setting up conv3
I0802 21:39:14.354436 19159 net.cpp:148] Top shape: 10 384 13 13 (648960)
I0802 21:39:14.354444 19159 net.cpp:156] Memory required for data: 56001080
I0802 21:39:14.354467 19159 layer_factory.hpp:77] Creating layer relu3
I0802 21:39:14.354486 19159 net.cpp:91] Creating Layer relu3
I0802 21:39:14.354493 19159 net.cpp:425] relu3 <- conv3
I0802 21:39:14.354504 19159 net.cpp:386] relu3 -> conv3 (in-place)
I0802 21:39:14.354953 19159 net.cpp:141] Setting up relu3
I0802 21:39:14.354966 19159 net.cpp:148] Top shape: 10 384 13 13 (648960)
I0802 21:39:14.354972 19159 net.cpp:156] Memory required for data: 58596920
I0802 21:39:14.354979 19159 layer_factory.hpp:77] Creating layer conv4
I0802 21:39:14.354995 19159 net.cpp:91] Creating Layer conv4
I0802 21:39:14.355000 19159 net.cpp:425] conv4 <- conv3
I0802 21:39:14.355010 19159 net.cpp:399] conv4 -> conv4
I0802 21:39:14.359957 19159 net.cpp:141] Setting up conv4
I0802 21:39:14.359989 19159 net.cpp:148] Top shape: 10 384 13 13 (648960)
I0802 21:39:14.359997 19159 net.cpp:156] Memory required for data: 61192760
I0802 21:39:14.360008 19159 layer_factory.hpp:77] Creating layer relu4
I0802 21:39:14.360023 19159 net.cpp:91] Creating Layer relu4
I0802 21:39:14.360029 19159 net.cpp:425] relu4 <- conv4
I0802 21:39:14.360040 19159 net.cpp:386] relu4 -> conv4 (in-place)
I0802 21:39:14.360486 19159 net.cpp:141] Setting up relu4
I0802 21:39:14.360502 19159 net.cpp:148] Top shape: 10 384 13 13 (648960)
I0802 21:39:14.360507 19159 net.cpp:156] Memory required for data: 63788600
I0802 21:39:14.360512 19159 layer_factory.hpp:77] Creating layer conv5
I0802 21:39:14.360528 19159 net.cpp:91] Creating Layer conv5
I0802 21:39:14.360534 19159 net.cpp:425] conv5 <- conv4
I0802 21:39:14.360543 19159 net.cpp:399] conv5 -> conv5
I0802 21:39:14.364783 19159 net.cpp:141] Setting up conv5
I0802 21:39:14.364805 19159 net.cpp:148] Top shape: 10 256 13 13 (432640)
I0802 21:39:14.364811 19159 net.cpp:156] Memory required for data: 65519160
I0802 21:39:14.364828 19159 layer_factory.hpp:77] Creating layer relu5
I0802 21:39:14.364838 19159 net.cpp:91] Creating Layer relu5
I0802 21:39:14.364843 19159 net.cpp:425] relu5 <- conv5
I0802 21:39:14.364850 19159 net.cpp:386] relu5 -> conv5 (in-place)
I0802 21:39:14.365430 19159 net.cpp:141] Setting up relu5
I0802 21:39:14.365452 19159 net.cpp:148] Top shape: 10 256 13 13 (432640)
I0802 21:39:14.365463 19159 net.cpp:156] Memory required for data: 67249720
I0802 21:39:14.365473 19159 layer_factory.hpp:77] Creating layer pool5
I0802 21:39:14.365491 19159 net.cpp:91] Creating Layer pool5
I0802 21:39:14.365500 19159 net.cpp:425] pool5 <- conv5
I0802 21:39:14.365515 19159 net.cpp:399] pool5 -> pool5
I0802 21:39:14.365591 19159 net.cpp:141] Setting up pool5
I0802 21:39:14.365602 19159 net.cpp:148] Top shape: 10 256 6 6 (92160)
I0802 21:39:14.365605 19159 net.cpp:156] Memory required for data: 67618360
I0802 21:39:14.365612 19159 layer_factory.hpp:77] Creating layer fc6
I0802 21:39:14.365631 19159 net.cpp:91] Creating Layer fc6
I0802 21:39:14.365638 19159 net.cpp:425] fc6 <- pool5
I0802 21:39:14.365644 19159 net.cpp:399] fc6 -> fc6
I0802 21:39:14.458765 19149 net.cpp:141] Setting up lstm1_transform_1
I0802 21:39:14.458819 19149 net.cpp:148] Top shape: 1 1 4000 (4000)
I0802 21:39:14.458825 19149 net.cpp:156] Memory required for data: 62016
I0802 21:39:14.458848 19149 layer_factory.hpp:77] Creating layer lstm1_gate_input_1
I0802 21:39:14.458871 19149 net.cpp:91] Creating Layer lstm1_gate_input_1
I0802 21:39:14.458878 19149 net.cpp:425] lstm1_gate_input_1 <- W_hc_h_0
I0802 21:39:14.458887 19149 net.cpp:425] lstm1_gate_input_1 <- W_xc_x_1
I0802 21:39:14.458895 19149 net.cpp:399] lstm1_gate_input_1 -> gate_input_1
I0802 21:39:14.458971 19149 net.cpp:141] Setting up lstm1_gate_input_1
I0802 21:39:14.458982 19149 net.cpp:148] Top shape: 1 1 4000 (4000)
I0802 21:39:14.458987 19149 net.cpp:156] Memory required for data: 78016
I0802 21:39:14.458992 19149 layer_factory.hpp:77] Creating layer lstm1_unit_1
I0802 21:39:14.459005 19149 net.cpp:91] Creating Layer lstm1_unit_1
I0802 21:39:14.459010 19149 net.cpp:425] lstm1_unit_1 <- c_0
I0802 21:39:14.459017 19149 net.cpp:425] lstm1_unit_1 <- gate_input_1
I0802 21:39:14.459022 19149 net.cpp:425] lstm1_unit_1 <- cont_1_lstm1_cont_slice_0_split_1
I0802 21:39:14.459029 19149 net.cpp:399] lstm1_unit_1 -> c_1
I0802 21:39:14.459039 19149 net.cpp:399] lstm1_unit_1 -> h_1
I0802 21:39:14.459113 19149 net.cpp:141] Setting up lstm1_unit_1
I0802 21:39:14.459123 19149 net.cpp:148] Top shape: 1 1 1000 (1000)
I0802 21:39:14.459130 19149 net.cpp:148] Top shape: 1 1 1000 (1000)
I0802 21:39:14.459134 19149 net.cpp:156] Memory required for data: 86016
I0802 21:39:14.459139 19149 layer_factory.hpp:77] Creating layer lstm1_
I0802 21:39:14.459148 19149 net.cpp:91] Creating Layer lstm1_
I0802 21:39:14.459153 19149 net.cpp:425] lstm1_ <- c_1
I0802 21:39:14.459161 19149 net.cpp:399] lstm1_ -> c_T
I0802 21:39:14.459194 19149 net.cpp:141] Setting up lstm1_
I0802 21:39:14.459203 19149 net.cpp:148] Top shape: 1 1 1000 (1000)
I0802 21:39:14.459208 19149 net.cpp:156] Memory required for data: 90016
I0802 21:39:14.459213 19149 layer_factory.hpp:77] Creating layer lstm1_h_concat
I0802 21:39:14.459235 19149 net.cpp:91] Creating Layer lstm1_h_concat
I0802 21:39:14.459241 19149 net.cpp:425] lstm1_h_concat <- h_1
I0802 21:39:14.459249 19149 net.cpp:399] lstm1_h_concat -> h
I0802 21:39:14.459290 19149 net.cpp:141] Setting up lstm1_h_concat
I0802 21:39:14.459300 19149 net.cpp:148] Top shape: 1 1 1000 (1000)
I0802 21:39:14.459306 19149 net.cpp:156] Memory required for data: 94016
I0802 21:39:14.459309 19149 layer_factory.hpp:77] Creating layer h_pseudoloss
I0802 21:39:14.459326 19149 net.cpp:91] Creating Layer h_pseudoloss
I0802 21:39:14.459331 19149 net.cpp:425] h_pseudoloss <- h
I0802 21:39:14.459342 19149 net.cpp:399] h_pseudoloss -> h_pseudoloss
I0802 21:39:14.459436 19149 net.cpp:141] Setting up h_pseudoloss
…
I0802 21:39:14.459555 19149 net.cpp:219] lstm1_ does not need backward computation.
I0802 21:39:14.459559 19149 net.cpp:261] This network produces output c_T
I0802 21:39:14.459564 19149 net.cpp:261] This network produces output h_pseudoloss
I0802 21:39:14.459583 19149 net.cpp:274] Network initialization done.
I0802 21:39:14.459645 19149 recurrent_layer.cpp:150] Adding parameter 0: W_xc
I0802 21:39:14.459651 19149 recurrent_layer.cpp:150] Adding parameter 1: b_c
I0802 21:39:14.459656 19149 recurrent_layer.cpp:150] Adding parameter 2: W_hc
I0802 21:39:14.459789 19149 net.cpp:141] Setting up lstm1
I0802 21:39:14.459802 19149 net.cpp:148] Top shape: 1 1 1000 (1000)
I0802 21:39:14.459807 19149 net.cpp:156] Memory required for data: 26408
I0802 21:39:14.459822 19149 layer_factory.hpp:77] Creating layer concat
I0802 21:39:14.459832 19149 net.cpp:91] Creating Layer concat
I0802 21:39:14.459839 19149 net.cpp:425] concat <- lstm1
I0802 21:39:14.459846 19149 net.cpp:425] concat <- embedded_input_sentence
I0802 21:39:14.459852 19149 net.cpp:425] concat <- reshaped_stage_indicator
I0802 21:39:14.459859 19149 net.cpp:399] concat -> lstm1_video_sequence
I0802 21:39:14.459897 19149 net.cpp:141] Setting up concat
I0802 21:39:14.459908 19149 net.cpp:148] Top shape: 1 1 1501 (1501)
I0802 21:39:14.459911 19149 net.cpp:156] Memory required for data: 32412
I0802 21:39:14.459916 19149 layer_factory.hpp:77] Creating layer lstm2
I0802 21:39:14.459929 19149 net.cpp:91] Creating Layer lstm2
I0802 21:39:14.459935 19149 net.cpp:425] lstm2 <- lstm1_video_sequence
I0802 21:39:14.459941 19149 net.cpp:425] lstm2 <- cont_sentence_input_1_split_1
I0802 21:39:14.459949 19149 net.cpp:399] lstm2 -> lstm2
I0802 21:39:14.459960 19149 recurrent_layer.cpp:20] Initializing recurrent layer: assuming input batch contains 1 timesteps of 1 independent streams.
I0802 21:39:14.460249 19149 net.cpp:49] Initializing net from parameters: 
layer {
  name: "lstm2_"
  type: "Input"
  top: "x"
  top: "cont"
  input_param {
    shape {
      dim: 1
      dim: 1
      dim: 1501
    }
    shape {
      dim: 1
      dim: 1
    }
  }
}
layer {
  name: "lstm2_"
  type: "Input"
  top: "c_0"
  top: "h_0"
  input_param {
    shape {
      dim: 1
      dim: 1
      dim: 1000
    }
    shape {
      dim: 1
      dim: 1
      dim: 1000
    }
  }
}
layer {
  name: "lstm2_cont_slice"
  type: "Slice"
  bottom: "cont"
  top: "cont_1"
  slice_param {
    axis: 0
  }
}
layer {
  name: "lstm2_x_transform"
  type: "InnerProduct"
  bottom: "x"
  top: "W_xc_x"
  param {
    name: "W_xc"
  }
  param {
    name: "b_c"
  }
  propagate_down: true
  inner_product_param {
    num_output: 4000
    bias_term: true
    weight_filler {
      type: "uniform"
      min: -0.08
      max: 0.08
    }
    bias_filler {
      type: "constant"
      value: 0
    }
    axis: 2
  }
}
layer {
  name: "lstm2_W_xc_x_slice"
  type: "Slice"
  bottom: "W_xc_x"
  top: "W_xc_x_1"
  slice_param {
    axis: 0
  }
}
layer {
  name: "lstm2_h_conted_0"
  type: "Scale"
  bottom: "h_0"
  bottom: "cont_1"
  top: "h_conted_0"
  scale_param {
    axis: 0
  }
}
layer {
  name: "lstm2_transform_1"
  type: "InnerProduct"
  bottom: "h_conted_0"
  top: "W_hc_h_0"
  param {
    name: "W_hc"
  }
  inner_product_param {
    num_output: 4000
    bias_term: false
    weight_filler {
      type: "uniform"
      min: -0.08
      max: 0.08
    }
    axis: 2
  }
}
layer {
  name: "lstm2_gate_input_1"
  type: "Eltwise"
  bottom: "W_hc_h_0"
  bottom: "W_xc_x_1"
  top: "gate_input_1"
  eltwise_param {
    operation: SUM
  }
}
layer {
  name: "lstm2_unit_1"
  type: "LSTMUnit"
  bottom: "c_0"
  bottom: "gate_input_1"
  bottom: "cont_1"
  top: "c_1"
  top: "h_1"
}
layer {
  name: "lstm2_"
  type: "Split"
  bottom: "c_1"
  top: "c_T"
}
layer {
  name: "lstm2_h_concat"
  type: "Concat"
  bottom: "h_1"
  top: "h"
  concat_param {
    axis: 0
  }
}
layer {
  name: "h_pseudoloss"
  type: "Reduction"
  bottom: "h"
  top: "h_pseudoloss"
  loss_weight: 1
}
I0802 21:39:14.460346 19149 layer_factory.hpp:77] Creating layer lstm2_
I0802 21:39:14.460367 19149 net.cpp:91] Creating Layer lstm2_
I0802 21:39:14.460374 19149 net.cpp:399] lstm2_ -> x
I0802 21:39:14.460386 19149 net.cpp:399] lstm2_ -> cont
I0802 21:39:14.460446 19149 net.cpp:141] Setting up lstm2_
I0802 21:39:14.460458 19149 net.cpp:148] Top shape: 1 1 1501 (1501)
I0802 21:39:14.460464 19149 net.cpp:148] Top shape: 1 1 (1)
I0802 21:39:14.460469 19149 net.cpp:156] Memory required for data: 6008
I0802 21:39:14.460474 19149 layer_factory.hpp:77] Creating layer lstm2_
I0802 21:39:14.460482 19149 net.cpp:91] Creating Layer lstm2_
I0802 21:39:14.460489 19149 net.cpp:399] lstm2_ -> c_0
I0802 21:39:14.460499 19149 net.cpp:399] lstm2_ -> h_0
I0802 21:39:14.460558 19149 net.cpp:141] Setting up lstm2_
I0802 21:39:14.460568 19149 net.cpp:148] Top shape: 1 1 1000 (1000)
I0802 21:39:14.460574 19149 net.cpp:148] Top shape: 1 1 1000 (1000)
I0802 21:39:14.460578 19149 net.cpp:156] Memory required for data: 14008
I0802 21:39:14.460582 19149 layer_factory.hpp:77] Creating layer lstm2_cont_slice
I0802 21:39:14.460592 19149 net.cpp:91] Creating Layer lstm2_cont_slice
I0802 21:39:14.460597 19149 net.cpp:425] lstm2_cont_slice <- cont
I0802 21:39:14.460608 19149 net.cpp:399] lstm2_cont_slice -> cont_1
I0802 21:39:14.460644 19149 net.cpp:141] Setting up lstm2_cont_slice
I0802 21:39:14.460657 19149 net.cpp:148] Top shape: 1 1 (1)
I0802 21:39:14.460662 19149 net.cpp:156] Memory required for data: 14012
I0802 21:39:14.460667 19149 layer_factory.hpp:77] Creating layer cont_1_lstm2_cont_slice_0_split
I0802 21:39:14.460675 19149 net.cpp:91] Creating Layer cont_1_lstm2_cont_slice_0_split
I0802 21:39:14.460680 19149 net.cpp:425] cont_1_lstm2_cont_slice_0_split <- cont_1
I0802 21:39:14.460686 19149 net.cpp:399] cont_1_lstm2_cont_slice_0_split -> cont_1_lstm2_cont_slice_0_split_0
I0802 21:39:14.460695 19149 net.cpp:399] cont_1_lstm2_cont_slice_0_split -> cont_1_lstm2_cont_slice_0_split_1
I0802 21:39:14.460750 19149 net.cpp:141] Setting up cont_1_lstm2_cont_slice_0_split
I0802 21:39:14.460759 19149 net.cpp:148] Top shape: 1 1 (1)
I0802 21:39:14.460765 19149 net.cpp:148] Top shape: 1 1 (1)
I0802 21:39:14.460769 19149 net.cpp:156] Memory required for data: 14020
I0802 21:39:14.460774 19149 layer_factory.hpp:77] Creating layer lstm2_x_transform
I0802 21:39:14.460788 19149 net.cpp:91] Creating Layer lstm2_x_transform
I0802 21:39:14.460793 19149 net.cpp:425] lstm2_x_transform <- x
I0802 21:39:14.460800 19149 net.cpp:399] lstm2_x_transform -> W_xc_x
I0802 21:39:14.515136 19159 net.cpp:141] Setting up fc6
I0802 21:39:14.515187 19159 net.cpp:148] Top shape: 10 4096 (40960)
I0802 21:39:14.515194 19159 net.cpp:156] Memory required for data: 67782200
I0802 21:39:14.515210 19159 layer_factory.hpp:77] Creating layer relu6
I0802 21:39:14.515228 19159 net.cpp:91] Creating Layer relu6
I0802 21:39:14.515235 19159 net.cpp:425] relu6 <- fc6
I0802 21:39:14.515250 19159 net.cpp:386] relu6 -> fc6 (in-place)
I0802 21:39:14.515642 19159 net.cpp:141] Setting up relu6
I0802 21:39:14.515655 19159 net.cpp:148] Top shape: 10 4096 (40960)
I0802 21:39:14.515661 19159 net.cpp:156] Memory required for data: 67946040
I0802 21:39:14.515666 19159 layer_factory.hpp:77] Creating layer drop6
I0802 21:39:14.515681 19159 net.cpp:91] Creating Layer drop6
I0802 21:39:14.515686 19159 net.cpp:425] drop6 <- fc6
I0802 21:39:14.515693 19159 net.cpp:386] drop6 -> fc6 (in-place)
I0802 21:39:14.515753 19159 net.cpp:141] Setting up drop6
I0802 21:39:14.515763 19159 net.cpp:148] Top shape: 10 4096 (40960)
I0802 21:39:14.515768 19159 net.cpp:156] Memory required for data: 68109880
I0802 21:39:14.515772 19159 layer_factory.hpp:77] Creating layer fc7
I0802 21:39:14.515784 19159 net.cpp:91] Creating Layer fc7
I0802 21:39:14.515787 19159 net.cpp:425] fc7 <- fc6
I0802 21:39:14.515799 19159 net.cpp:399] fc7 -> fc7
I0802 21:39:14.558233 19149 net.cpp:141] Setting up lstm2_x_transform
I0802 21:39:14.558293 19149 net.cpp:148] Top shape: 1 1 4000 (4000)
I0802 21:39:14.558300 19149 net.cpp:156] Memory required for data: 30020
I0802 21:39:14.558326 19149 layer_factory.hpp:77] Creating layer lstm2_W_xc_x_slice
I0802 21:39:14.558363 19149 net.cpp:91] Creating Layer lstm2_W_xc_x_slice
I0802 21:39:14.558373 19149 net.cpp:425] lstm2_W_xc_x_slice <- W_xc_x
I0802 21:39:14.558384 19149 net.cpp:399] lstm2_W_xc_x_slice -> W_xc_x_1
I0802 21:39:14.558444 19149 net.cpp:141] Setting up lstm2_W_xc_x_slice
I0802 21:39:14.558455 19149 net.cpp:148] Top shape: 1 1 4000 (4000)
I0802 21:39:14.558460 19149 net.cpp:156] Memory required for data: 46020
I0802 21:39:14.558465 19149 layer_factory.hpp:77] Creating layer lstm2_h_conted_0
I0802 21:39:14.558485 19149 net.cpp:91] Creating Layer lstm2_h_conted_0
I0802 21:39:14.558492 19149 net.cpp:425] lstm2_h_conted_0 <- h_0
I0802 21:39:14.558498 19149 net.cpp:425] lstm2_h_conted_0 <- cont_1_lstm2_cont_slice_0_split_0
I0802 21:39:14.558507 19149 net.cpp:399] lstm2_h_conted_0 -> h_conted_0
I0802 21:39:14.558640 19149 net.cpp:141] Setting up lstm2_h_conted_0
I0802 21:39:14.558655 19149 net.cpp:148] Top shape: 1 1 1000 (1000)
I0802 21:39:14.558660 19149 net.cpp:156] Memory required for data: 50020
I0802 21:39:14.558665 19149 layer_factory.hpp:77] Creating layer lstm2_transform_1
I0802 21:39:14.558681 19149 net.cpp:91] Creating Layer lstm2_transform_1
I0802 21:39:14.558687 19149 net.cpp:425] lstm2_transform_1 <- h_conted_0
I0802 21:39:14.558699 19149 net.cpp:399] lstm2_transform_1 -> W_hc_h_0
I0802 21:39:14.583590 19159 net.cpp:141] Setting up fc7
I0802 21:39:14.583642 19159 net.cpp:148] Top shape: 10 4096 (40960)
I0802 21:39:14.583649 19159 net.cpp:156] Memory required for data: 68273720
I0802 21:39:14.583673 19159 layer_factory.hpp:77] Creating layer relu7
I0802 21:39:14.583696 19159 net.cpp:91] Creating Layer relu7
I0802 21:39:14.583711 19159 net.cpp:425] relu7 <- fc7
I0802 21:39:14.583720 19159 net.cpp:386] relu7 -> fc7 (in-place)
I0802 21:39:14.584491 19159 net.cpp:141] Setting up relu7
I0802 21:39:14.584506 19159 net.cpp:148] Top shape: 10 4096 (40960)
I0802 21:39:14.584511 19159 net.cpp:156] Memory required for data: 68437560
I0802 21:39:14.584520 19159 layer_factory.hpp:77] Creating layer drop7
I0802 21:39:14.584544 19159 net.cpp:91] Creating Layer drop7
I0802 21:39:14.584552 19159 net.cpp:425] drop7 <- fc7
I0802 21:39:14.584558 19159 net.cpp:386] drop7 -> fc7 (in-place)
I0802 21:39:14.584606 19159 net.cpp:141] Setting up drop7
I0802 21:39:14.584616 19159 net.cpp:148] Top shape: 10 4096 (40960)
I0802 21:39:14.584621 19159 net.cpp:156] Memory required for data: 68601400
I0802 21:39:14.584626 19159 layer_factory.hpp:77] Creating layer fc8
I0802 21:39:14.584636 19159 net.cpp:91] Creating Layer fc8
I0802 21:39:14.584641 19159 net.cpp:425] fc8 <- fc7
I0802 21:39:14.584653 19159 net.cpp:399] fc8 -> fc8
I0802 21:39:14.601267 19159 net.cpp:141] Setting up fc8
I0802 21:39:14.601315 19159 net.cpp:148] Top shape: 10 1000 (10000)
I0802 21:39:14.601321 19159 net.cpp:156] Memory required for data: 68641400
I0802 21:39:14.601336 19159 layer_factory.hpp:77] Creating layer prob
I0802 21:39:14.601357 19159 net.cpp:91] Creating Layer prob
I0802 21:39:14.601366 19159 net.cpp:425] prob <- fc8
I0802 21:39:14.601399 19159 net.cpp:399] prob -> prob
I0802 21:39:14.601933 19159 net.cpp:141] Setting up prob
I0802 21:39:14.601945 19159 net.cpp:148] Top shape: 10 1000 (10000)
I0802 21:39:14.601951 19159 net.cpp:156] Memory required for data: 68681400
I0802 21:39:14.601956 19159 net.cpp:219] prob does not need backward computation.
I0802 21:39:14.601963 19159 net.cpp:219] fc8 does not need backward computation.
I0802 21:39:14.601968 19159 net.cpp:219] drop7 does not need backward computation.
I0802 21:39:14.601972 19159 net.cpp:219] relu7 does not need backward computation.
…
I0802 21:39:14.602080 19159 net.cpp:219] norm1 does not need backward computation.
I0802 21:39:14.602085 19159 net.cpp:219] pool1 does not need backward computation.
I0802 21:39:14.602092 19159 net.cpp:219] relu1 does not need backward computation.
I0802 21:39:14.602095 19159 net.cpp:219] conv1 does not need backward computation.
I0802 21:39:14.602100 19159 net.cpp:219] data does not need backward computation.
I0802 21:39:14.602104 19159 net.cpp:261] This network produces output prob
I0802 21:39:14.602128 19159 net.cpp:274] Network initialization done.
I0802 21:39:14.609668 19149 net.cpp:141] Setting up lstm2_transform_1
I0802 21:39:14.609716 19149 net.cpp:148] Top shape: 1 1 4000 (4000)
I0802 21:39:14.609724 19149 net.cpp:156] Memory required for data: 66020
I0802 21:39:14.609745 19149 layer_factory.hpp:77] Creating layer lstm2_gate_input_1
I0802 21:39:14.609766 19149 net.cpp:91] Creating Layer lstm2_gate_input_1
I0802 21:39:14.609773 19149 net.cpp:425] lstm2_gate_input_1 <- W_hc_h_0
I0802 21:39:14.609782 19149 net.cpp:425] lstm2_gate_input_1 <- W_xc_x_1
I0802 21:39:14.609791 19149 net.cpp:399] lstm2_gate_input_1 -> gate_input_1
I0802 21:39:14.609851 19149 net.cpp:141] Setting up lstm2_gate_input_1
I0802 21:39:14.609863 19149 net.cpp:148] Top shape: 1 1 4000 (4000)
I0802 21:39:14.609866 19149 net.cpp:156] Memory required for data: 82020
I0802 21:39:14.609871 19149 layer_factory.hpp:77] Creating layer lstm2_unit_1
I0802 21:39:14.609885 19149 net.cpp:91] Creating Layer lstm2_unit_1
I0802 21:39:14.609890 19149 net.cpp:425] lstm2_unit_1 <- c_0
I0802 21:39:14.609896 19149 net.cpp:425] lstm2_unit_1 <- gate_input_1
I0802 21:39:14.609902 19149 net.cpp:425] lstm2_unit_1 <- cont_1_lstm2_cont_slice_0_split_1
I0802 21:39:14.609910 19149 net.cpp:399] lstm2_unit_1 -> c_1
I0802 21:39:14.609920 19149 net.cpp:399] lstm2_unit_1 -> h_1
I0802 21:39:14.609994 19149 net.cpp:141] Setting up lstm2_unit_1
I0802 21:39:14.610004 19149 net.cpp:148] Top shape: 1 1 1000 (1000)
I0802 21:39:14.610011 19149 net.cpp:148] Top shape: 1 1 1000 (1000)
I0802 21:39:14.610015 19149 net.cpp:156] Memory required for data: 90020
I0802 21:39:14.610020 19149 layer_factory.hpp:77] Creating layer lstm2_
I0802 21:39:14.610029 19149 net.cpp:91] Creating Layer lstm2_
I0802 21:39:14.610034 19149 net.cpp:425] lstm2_ <- c_1
I0802 21:39:14.610041 19149 net.cpp:399] lstm2_ -> c_T
I0802 21:39:14.610076 19149 net.cpp:141] Setting up lstm2_
I0802 21:39:14.610085 19149 net.cpp:148] Top shape: 1 1 1000 (1000)
I0802 21:39:14.610090 19149 net.cpp:156] Memory required for data: 94020
I0802 21:39:14.610095 19149 layer_factory.hpp:77] Creating layer lstm2_h_concat
I0802 21:39:14.610110 19149 net.cpp:91] Creating Layer lstm2_h_concat
I0802 21:39:14.610115 19149 net.cpp:425] lstm2_h_concat <- h_1
I0802 21:39:14.610122 19149 net.cpp:399] lstm2_h_concat -> h
I0802 21:39:14.610162 19149 net.cpp:141] Setting up lstm2_h_concat
I0802 21:39:14.610172 19149 net.cpp:148] Top shape: 1 1 1000 (1000)
I0802 21:39:14.610177 19149 net.cpp:156] Memory required for data: 98020
I0802 21:39:14.610182 19149 layer_factory.hpp:77] Creating layer h_pseudoloss
I0802 21:39:14.610191 19149 net.cpp:91] Creating Layer h_pseudoloss
I0802 21:39:14.610196 19149 net.cpp:425] h_pseudoloss <- h
I0802 21:39:14.610206 19149 net.cpp:399] h_pseudoloss -> h_pseudoloss
I0802 21:39:14.610308 19149 net.cpp:141] Setting up h_pseudoloss
…
