…
Java HotSpot(TM) 64-Bit Server VM warning: You have loaded library /tmp/cvld2682110607245926792/libopencv_java310.xine1.so which might have disabled stack guard. The VM will try to fix the stack guard now.
It's highly recommended that you fix the library with 'execstack -c <libfile>', or link it with '-z noexecstack'.
WARNING: Logging before InitGoogleLogging() is written to STDERR
I0720 16:23:03.148864 24954 net.cpp:49] Initializing net from parameters: 
name: "CaffeNet"
state {
  phase: TEST
}
layer {
  name: "data"
  type: "Input"
  top: "data"
  input_param {
    shape {
      dim: 10
      dim: 3
      dim: 227
      dim: 227
    }
  }
}
layer {
  name: "conv1"
  type: "Convolution"
  bottom: "data"
  top: "conv1"
  convolution_param {
    num_output: 96
    kernel_size: 11
    stride: 4
  }
}
layer {
  name: "relu1"
  type: "ReLU"
  bottom: "conv1"
  top: "conv1"
}
layer {
  name: "pool1"
  type: "Pooling"
  bottom: "conv1"
  top: "pool1"
  pooling_param {
    pool: MAX
    kernel_size: 3
    stride: 2
  }
}
layer {
  name: "norm1"
  type: "LRN"
  bottom: "pool1"
  top: "norm1"
  lrn_param {
    local_size: 5
    alpha: 0.0001
    beta: 0.75
  }
}
layer {
  name: "conv2"
  type: "Convolution"
  bottom: "norm1"
  top: "conv2"
  convolution_param {
    num_output: 256
    pad: 2
    kernel_size: 5
    group: 2
  }
}
layer {
  name: "relu2"
  type: "ReLU"
  bottom: "conv2"
  top: "conv2"
}
layer {
  name: "pool2"
  type: "Pooling"
  bottom: "conv2"
  top: "pool2"
  pooling_param {
    pool: MAX
    kernel_size: 3
    stride: 2
  }
}
layer {
  name: "norm2"
  type: "LRN"
  bottom: "pool2"
  top: "norm2"
  lrn_param {
    local_size: 5
    alpha: 0.0001
    beta: 0.75
  }
}
layer {
  name: "conv3"
  type: "Convolution"
  bottom: "norm2"
  top: "conv3"
  convolution_param {
    num_output: 384
    pad: 1
    kernel_size: 3
  }
}
layer {
  name: "relu3"
  type: "ReLU"
  bottom: "conv3"
  top: "conv3"
}
layer {
  name: "conv4"
  type: "Convolution"
  bottom: "conv3"
  top: "conv4"
  convolution_param {
    num_output: 384
    pad: 1
    kernel_size: 3
    group: 2
  }
}
layer {
  name: "relu4"
  type: "ReLU"
  bottom: "conv4"
  top: "conv4"
}
layer {
  name: "conv5"
  type: "Convolution"
  bottom: "conv4"
  top: "conv5"
  convolution_param {
    num_output: 256
    pad: 1
    kernel_size: 3
    group: 2
  }
}
layer {
  name: "relu5"
  type: "ReLU"
  bottom: "conv5"
  top: "conv5"
}
layer {
  name: "pool5"
  type: "Pooling"
  bottom: "conv5"
  top: "pool5"
  pooling_param {
    pool: MAX
    kernel_size: 3
    stride: 2
  }
}
layer {
  name: "fc6"
  type: "InnerProduct"
  bottom: "pool5"
  top: "fc6"
  inner_product_param {
    num_output: 4096
  }
}
layer {
  name: "relu6"
  type: "ReLU"
  bottom: "fc6"
  top: "fc6"
}
layer {
  name: "drop6"
  type: "Dropout"
  bottom: "fc6"
  top: "fc6"
  dropout_param {
    dropout_ratio: 0.5
  }
}
layer {
  name: "fc7"
  type: "InnerProduct"
  bottom: "fc6"
  top: "fc7"
  inner_product_param {
    num_output: 4096
  }
}
layer {
  name: "relu7"
  type: "ReLU"
  bottom: "fc7"
  top: "fc7"
}
layer {
  name: "drop7"
  type: "Dropout"
  bottom: "fc7"
  top: "fc7"
  dropout_param {
    dropout_ratio: 0.5
  }
}
layer {
  name: "fc8"
  type: "InnerProduct"
  bottom: "fc7"
  top: "fc8"
  inner_product_param {
    num_output: 1000
  }
}
layer {
  name: "prob"
  type: "Softmax"
  bottom: "fc8"
  top: "prob"
}
I0720 16:23:03.149060 24954 layer_factory.hpp:77] Creating layer data
I0720 16:23:03.149087 24954 net.cpp:91] Creating Layer data
I0720 16:23:03.149097 24954 net.cpp:399] data -> data
I0720 16:23:03.157022 24960 net.cpp:49] Initializing net from parameters: 
name: "CaffeNet"
state {
  phase: TEST
}
layer {
  name: "data"
  type: "Input"
  top: "data"
  input_param {
    shape {
      dim: 10
      dim: 3
      dim: 227
      dim: 227
    }
  }
}
layer {
  name: "conv1"
  type: "Convolution"
  bottom: "data"
  top: "conv1"
  convolution_param {
    num_output: 96
    kernel_size: 11
    stride: 4
  }
}
layer {
  name: "relu1"
  type: "ReLU"
  bottom: "conv1"
  top: "conv1"
}
layer {
  name: "pool1"
  type: "Pooling"
  bottom: "conv1"
  top: "pool1"
  pooling_param {
    pool: MAX
    kernel_size: 3
    stride: 2
  }
}
layer {
  name: "norm1"
  type: "LRN"
  bottom: "pool1"
  top: "norm1"
  lrn_param {
    local_size: 5
    alpha: 0.0001
    beta: 0.75
  }
}
layer {
  name: "conv2"
  type: "Convolution"
  bottom: "norm1"
  top: "conv2"
  convolution_param {
    num_output: 256
    pad: 2
    kernel_size: 5
    group: 2
  }
}
layer {
  name: "relu2"
  type: "ReLU"
  bottom: "conv2"
  top: "conv2"
}
layer {
  name: "pool2"
  type: "Pooling"
  bottom: "conv2"
  top: "pool2"
  pooling_param {
    pool: MAX
    kernel_size: 3
    stride: 2
  }
}
layer {
  name: "norm2"
  type: "LRN"
  bottom: "pool2"
  top: "norm2"
  lrn_param {
    local_size: 5
    alpha: 0.0001
    beta: 0.75
  }
}
layer {
  name: "conv3"
  type: "Convolution"
  bottom: "norm2"
  top: "conv3"
  convolution_param {
    num_output: 384
    pad: 1
    kernel_size: 3
  }
}
layer {
  name: "relu3"
  type: "ReLU"
  bottom: "conv3"
  top: "conv3"
}
layer {
  name: "conv4"
  type: "Convolution"
  bottom: "conv3"
  top: "conv4"
  convolution_param {
    num_output: 384
    pad: 1
    kernel_size: 3
    group: 2
  }
}
layer {
  name: "relu4"
  type: "ReLU"
  bottom: "conv4"
  top: "conv4"
}
layer {
  name: "conv5"
  type: "Convolution"
  bottom: "conv4"
  top: "conv5"
  convolution_param {
    num_output: 256
    pad: 1
    kernel_size: 3
    group: 2
  }
}
layer {
  name: "relu5"
  type: "ReLU"
  bottom: "conv5"
  top: "conv5"
}
layer {
  name: "pool5"
  type: "Pooling"
  bottom: "conv5"
  top: "pool5"
  pooling_param {
    pool: MAX
    kernel_size: 3
    stride: 2
  }
}
layer {
  name: "fc6"
  type: "InnerProduct"
  bottom: "pool5"
  top: "fc6"
  inner_product_param {
    num_output: 4096
  }
}
layer {
  name: "relu6"
  type: "ReLU"
  bottom: "fc6"
  top: "fc6"
}
layer {
  name: "drop6"
  type: "Dropout"
  bottom: "fc6"
  top: "fc6"
  dropout_param {
    dropout_ratio: 0.5
  }
}
layer {
  name: "fc7"
  type: "InnerProduct"
  bottom: "fc6"
  top: "fc7"
  inner_product_param {
    num_output: 4096
  }
}
layer {
  name: "relu7"
  type: "ReLU"
  bottom: "fc7"
  top: "fc7"
}
layer {
  name: "drop7"
  type: "Dropout"
  bottom: "fc7"
  top: "fc7"
  dropout_param {
    dropout_ratio: 0.5
  }
}
layer {
  name: "fc8"
  type: "InnerProduct"
  bottom: "fc7"
  top: "fc8"
  inner_product_param {
    num_output: 1000
  }
}
layer {
  name: "prob"
  type: "Softmax"
  bottom: "fc8"
  top: "prob"
}
I0720 16:23:03.157148 24960 layer_factory.hpp:77] Creating layer data
I0720 16:23:03.157166 24960 net.cpp:91] Creating Layer data
I0720 16:23:03.157173 24960 net.cpp:399] data -> data
I0720 16:23:03.489261 24944 upgrade_proto.cpp:66] Attempting to upgrade input file specified using deprecated input fields: /tmp/cvld2682110607245926792/s2vt.words_to_preds.prototxt
I0720 16:23:03.489315 24944 upgrade_proto.cpp:69] Successfully upgraded file specified using deprecated input fields.
W0720 16:23:03.489323 24944 upgrade_proto.cpp:71] Note that future Caffe releases will only support input layers and not input fields.
I0720 16:23:03.489594 24944 net.cpp:49] Initializing net from parameters: 
name: "s2vt:features_to_lstm"
state {
  phase: TEST
}
layer {
  name: "input"
  type: "Input"
  top: "frames_fc7"
  top: "cont_sentence"
  top: "input_sentence"
  top: "stage_indicator"
  input_param {
    shape {
      dim: 1
      dim: 4096
    }
    shape {
      dim: 1
      dim: 1
    }
    shape {
      dim: 1
      dim: 1
    }
    shape {
      dim: 1
      dim: 1
    }
  }
}
layer {
  name: "embed_encoder"
  type: "InnerProduct"
  bottom: "frames_fc7"
  top: "embedded_in_frames"
  param {
    lr_mult: 1
    decay_mult: 1
  }
  param {
    lr_mult: 2
    decay_mult: 0
  }
  inner_product_param {
    num_output: 500
    weight_filler {
      type: "xavier"
    }
    bias_filler {
      type: "constant"
      value: 0.2
    }
  }
}
layer {
  name: "reshape_frames"
  type: "Reshape"
  bottom: "embedded_in_frames"
  top: "embedded_input_frames"
  reshape_param {
    shape {
      dim: 1
      dim: 1
      dim: 500
    }
  }
}
layer {
  name: "reshape_stage_indicator"
  type: "Reshape"
  bottom: "stage_indicator"
  top: "reshaped_stage_indicator"
  reshape_param {
    shape {
      dim: 1
      dim: 1
      dim: 1
    }
  }
}
layer {
  name: "embedding"
  type: "Embed"
  bottom: "input_sentence"
  top: "embedded_input_sentence"
  param {
    lr_mult: 1
  }
  embed_param {
    num_output: 500
    input_dim: 46168
    bias_term: false
    weight_filler {
      type: "uniform"
      min: -0.08
      max: 0.08
    }
  }
}
layer {
  name: "lstm1"
  type: "LSTM"
  bottom: "embedded_input_frames"
  bottom: "cont_sentence"
  top: "lstm1"
  recurrent_param {
    num_output: 1000
    weight_filler {
      type: "uniform"
      min: -0.08
      max: 0.08
    }
    bias_filler {
      type: "constant"
      value: 0
    }
  }
}
layer {
  name: "concat"
  type: "Concat"
  bottom: "lstm1"
  bottom: "embedded_input_sentence"
  bottom: "reshaped_stage_indicator"
  top: "lstm1_video_sequence"
  concat_param {
    concat_dim: 2
  }
}
layer {
  name: "lstm2"
  type: "LSTM"
  bottom: "lstm1_video_sequence"
  bottom: "cont_sentence"
  top: "lstm2"
  recurrent_param {
    num_output: 1000
    weight_filler {
      type: "uniform"
      min: -0.08
      max: 0.08
    }
    bias_filler {
      type: "constant"
      value: 0
    }
  }
}
layer {
  name: "predict"
  type: "InnerProduct"
  bottom: "lstm2"
  top: "predict"
  param {
    lr_mult: 1
    decay_mult: 1
  }
  param {
    lr_mult: 2
    decay_mult: 0
  }
  inner_product_param {
    num_output: 46168
    weight_filler {
      type: "uniform"
      min: -0.08
      max: 0.08
    }
    bias_filler {
      type: "constant"
      value: 0
    }
    axis: 2
  }
}
layer {
  name: "probs"
  type: "Softmax"
  bottom: "predict"
  top: "probs"
  softmax_param {
    axis: 2
  }
}
I0720 16:23:03.489729 24944 layer_factory.hpp:77] Creating layer input
I0720 16:23:03.489748 24944 net.cpp:91] Creating Layer input
I0720 16:23:03.489756 24944 net.cpp:399] input -> frames_fc7
I0720 16:23:03.489774 24944 net.cpp:399] input -> cont_sentence
I0720 16:23:03.489789 24944 net.cpp:399] input -> input_sentence
I0720 16:23:03.489799 24944 net.cpp:399] input -> stage_indicator
I0720 16:23:04.235179 24954 net.cpp:141] Setting up data
I0720 16:23:04.235263 24954 net.cpp:148] Top shape: 10 3 227 227 (1545870)
I0720 16:23:04.235270 24954 net.cpp:156] Memory required for data: 6183480
I0720 16:23:04.235292 24954 layer_factory.hpp:77] Creating layer conv1
I0720 16:23:04.235323 24954 net.cpp:91] Creating Layer conv1
I0720 16:23:04.235333 24954 net.cpp:425] conv1 <- data
I0720 16:23:04.235337 24944 net.cpp:141] Setting up input
I0720 16:23:04.235347 24954 net.cpp:399] conv1 -> conv1
I0720 16:23:04.235361 24944 net.cpp:148] Top shape: 1 4096 (4096)
I0720 16:23:04.235369 24944 net.cpp:148] Top shape: 1 1 (1)
I0720 16:23:04.235375 24944 net.cpp:148] Top shape: 1 1 (1)
I0720 16:23:04.235381 24944 net.cpp:148] Top shape: 1 1 (1)
I0720 16:23:04.235385 24944 net.cpp:156] Memory required for data: 16396
I0720 16:23:04.235391 24944 layer_factory.hpp:77] Creating layer cont_sentence_input_1_split
I0720 16:23:04.235412 24944 net.cpp:91] Creating Layer cont_sentence_input_1_split
I0720 16:23:04.235419 24944 net.cpp:425] cont_sentence_input_1_split <- cont_sentence
I0720 16:23:04.235445 24944 net.cpp:399] cont_sentence_input_1_split -> cont_sentence_input_1_split_0
I0720 16:23:04.235456 24944 net.cpp:399] cont_sentence_input_1_split -> cont_sentence_input_1_split_1
I0720 16:23:04.235612 24944 net.cpp:141] Setting up cont_sentence_input_1_split
I0720 16:23:04.235628 24944 net.cpp:148] Top shape: 1 1 (1)
I0720 16:23:04.235635 24944 net.cpp:148] Top shape: 1 1 (1)
I0720 16:23:04.235638 24944 net.cpp:156] Memory required for data: 16404
I0720 16:23:04.235644 24944 layer_factory.hpp:77] Creating layer embed_encoder
I0720 16:23:04.235661 24944 net.cpp:91] Creating Layer embed_encoder
I0720 16:23:04.235666 24944 net.cpp:425] embed_encoder <- frames_fc7
I0720 16:23:04.235678 24944 net.cpp:399] embed_encoder -> embedded_in_frames
I0720 16:23:04.246317 24960 net.cpp:141] Setting up data
I0720 16:23:04.246361 24960 net.cpp:148] Top shape: 10 3 227 227 (1545870)
I0720 16:23:04.246367 24960 net.cpp:156] Memory required for data: 6183480
I0720 16:23:04.246378 24960 layer_factory.hpp:77] Creating layer conv1
I0720 16:23:04.246402 24960 net.cpp:91] Creating Layer conv1
I0720 16:23:04.246407 24960 net.cpp:425] conv1 <- data
I0720 16:23:04.246417 24960 net.cpp:399] conv1 -> conv1
I0720 16:23:04.311571 24944 net.cpp:141] Setting up embed_encoder
I0720 16:23:04.311621 24944 net.cpp:148] Top shape: 1 500 (500)
I0720 16:23:04.311627 24944 net.cpp:156] Memory required for data: 18404
I0720 16:23:04.311656 24944 layer_factory.hpp:77] Creating layer reshape_frames
I0720 16:23:04.311688 24944 net.cpp:91] Creating Layer reshape_frames
I0720 16:23:04.311697 24944 net.cpp:425] reshape_frames <- embedded_in_frames
I0720 16:23:04.311709 24944 net.cpp:399] reshape_frames -> embedded_input_frames
I0720 16:23:04.324960 24944 net.cpp:141] Setting up reshape_frames
I0720 16:23:04.324995 24944 net.cpp:148] Top shape: 1 1 500 (500)
I0720 16:23:04.325001 24944 net.cpp:156] Memory required for data: 20404
I0720 16:23:04.325009 24944 layer_factory.hpp:77] Creating layer reshape_stage_indicator
I0720 16:23:04.325028 24944 net.cpp:91] Creating Layer reshape_stage_indicator
I0720 16:23:04.325034 24944 net.cpp:425] reshape_stage_indicator <- stage_indicator
I0720 16:23:04.325045 24944 net.cpp:399] reshape_stage_indicator -> reshaped_stage_indicator
I0720 16:23:04.333326 24944 net.cpp:141] Setting up reshape_stage_indicator
I0720 16:23:04.333353 24944 net.cpp:148] Top shape: 1 1 1 (1)
I0720 16:23:04.333358 24944 net.cpp:156] Memory required for data: 20408
I0720 16:23:04.333365 24944 layer_factory.hpp:77] Creating layer embedding
I0720 16:23:04.333384 24944 net.cpp:91] Creating Layer embedding
I0720 16:23:04.333389 24944 net.cpp:425] embedding <- input_sentence
I0720 16:23:04.333401 24944 net.cpp:399] embedding -> embedded_input_sentence
I0720 16:23:04.604145 24944 net.cpp:141] Setting up embedding
I0720 16:23:04.604195 24944 net.cpp:148] Top shape: 1 1 500 (500)
I0720 16:23:04.604202 24944 net.cpp:156] Memory required for data: 22408
I0720 16:23:04.604220 24944 layer_factory.hpp:77] Creating layer lstm1
I0720 16:23:04.604244 24944 net.cpp:91] Creating Layer lstm1
I0720 16:23:04.604254 24944 net.cpp:425] lstm1 <- embedded_input_frames
I0720 16:23:04.604264 24944 net.cpp:425] lstm1 <- cont_sentence_input_1_split_0
I0720 16:23:04.604274 24944 net.cpp:399] lstm1 -> lstm1
I0720 16:23:04.604316 24944 recurrent_layer.cpp:20] Initializing recurrent layer: assuming input batch contains 1 timesteps of 1 independent streams.
I0720 16:23:04.604677 24944 net.cpp:49] Initializing net from parameters: 
layer {
  name: "lstm1_"
  type: "Input"
  top: "x"
  top: "cont"
  input_param {
    shape {
      dim: 1
      dim: 1
      dim: 500
    }
    shape {
      dim: 1
      dim: 1
    }
  }
}
layer {
  name: "lstm1_"
  type: "Input"
  top: "c_0"
  top: "h_0"
  input_param {
    shape {
      dim: 1
      dim: 1
      dim: 1000
    }
    shape {
      dim: 1
      dim: 1
      dim: 1000
    }
  }
}
layer {
  name: "lstm1_cont_slice"
  type: "Slice"
  bottom: "cont"
  top: "cont_1"
  slice_param {
    axis: 0
  }
}
layer {
  name: "lstm1_x_transform"
  type: "InnerProduct"
  bottom: "x"
  top: "W_xc_x"
  param {
    name: "W_xc"
  }
  param {
    name: "b_c"
  }
  propagate_down: true
  inner_product_param {
    num_output: 4000
    bias_term: true
    weight_filler {
      type: "uniform"
      min: -0.08
      max: 0.08
    }
    bias_filler {
      type: "constant"
      value: 0
    }
    axis: 2
  }
}
layer {
  name: "lstm1_W_xc_x_slice"
  type: "Slice"
  bottom: "W_xc_x"
  top: "W_xc_x_1"
  slice_param {
    axis: 0
  }
}
layer {
  name: "lstm1_h_conted_0"
  type: "Scale"
  bottom: "h_0"
  bottom: "cont_1"
  top: "h_conted_0"
  scale_param {
    axis: 0
  }
}
layer {
  name: "lstm1_transform_1"
  type: "InnerProduct"
  bottom: "h_conted_0"
  top: "W_hc_h_0"
  param {
    name: "W_hc"
  }
  inner_product_param {
    num_output: 4000
    bias_term: false
    weight_filler {
      type: "uniform"
      min: -0.08
      max: 0.08
    }
    axis: 2
  }
}
layer {
  name: "lstm1_gate_input_1"
  type: "Eltwise"
  bottom: "W_hc_h_0"
  bottom: "W_xc_x_1"
  top: "gate_input_1"
  eltwise_param {
    operation: SUM
  }
}
layer {
  name: "lstm1_unit_1"
  type: "LSTMUnit"
  bottom: "c_0"
  bottom: "gate_input_1"
  bottom: "cont_1"
  top: "c_1"
  top: "h_1"
}
layer {
  name: "lstm1_"
  type: "Split"
  bottom: "c_1"
  top: "c_T"
}
layer {
  name: "lstm1_h_concat"
  type: "Concat"
  bottom: "h_1"
  top: "h"
  concat_param {
    axis: 0
  }
}
layer {
  name: "h_pseudoloss"
  type: "Reduction"
  bottom: "h"
  top: "h_pseudoloss"
  loss_weight: 1
}
I0720 16:23:04.604779 24944 layer_factory.hpp:77] Creating layer lstm1_
I0720 16:23:04.604794 24944 net.cpp:91] Creating Layer lstm1_
I0720 16:23:04.604800 24944 net.cpp:399] lstm1_ -> x
I0720 16:23:04.604814 24944 net.cpp:399] lstm1_ -> cont
I0720 16:23:04.622998 24944 net.cpp:141] Setting up lstm1_
I0720 16:23:04.623057 24944 net.cpp:148] Top shape: 1 1 500 (500)
I0720 16:23:04.623072 24944 net.cpp:148] Top shape: 1 1 (1)
I0720 16:23:04.623081 24944 net.cpp:156] Memory required for data: 2004
I0720 16:23:04.623097 24944 layer_factory.hpp:77] Creating layer lstm1_
I0720 16:23:04.623128 24944 net.cpp:91] Creating Layer lstm1_
I0720 16:23:04.623147 24944 net.cpp:399] lstm1_ -> c_0
I0720 16:23:04.623175 24944 net.cpp:399] lstm1_ -> h_0
I0720 16:23:04.633605 24944 net.cpp:141] Setting up lstm1_
I0720 16:23:04.633666 24944 net.cpp:148] Top shape: 1 1 1000 (1000)
I0720 16:23:04.633682 24944 net.cpp:148] Top shape: 1 1 1000 (1000)
I0720 16:23:04.633692 24944 net.cpp:156] Memory required for data: 10004
I0720 16:23:04.633708 24944 layer_factory.hpp:77] Creating layer lstm1_cont_slice
I0720 16:23:04.633735 24944 net.cpp:91] Creating Layer lstm1_cont_slice
I0720 16:23:04.633747 24944 net.cpp:425] lstm1_cont_slice <- cont
I0720 16:23:04.633770 24944 net.cpp:399] lstm1_cont_slice -> cont_1
I0720 16:23:04.636147 24944 net.cpp:141] Setting up lstm1_cont_slice
I0720 16:23:04.636180 24944 net.cpp:148] Top shape: 1 1 (1)
I0720 16:23:04.636190 24944 net.cpp:156] Memory required for data: 10008
I0720 16:23:04.636201 24944 layer_factory.hpp:77] Creating layer cont_1_lstm1_cont_slice_0_split
I0720 16:23:04.636224 24944 net.cpp:91] Creating Layer cont_1_lstm1_cont_slice_0_split
I0720 16:23:04.636234 24944 net.cpp:425] cont_1_lstm1_cont_slice_0_split <- cont_1
I0720 16:23:04.636247 24944 net.cpp:399] cont_1_lstm1_cont_slice_0_split -> cont_1_lstm1_cont_slice_0_split_0
I0720 16:23:04.636265 24944 net.cpp:399] cont_1_lstm1_cont_slice_0_split -> cont_1_lstm1_cont_slice_0_split_1
I0720 16:23:04.650486 24944 net.cpp:141] Setting up cont_1_lstm1_cont_slice_0_split
I0720 16:23:04.650533 24944 net.cpp:148] Top shape: 1 1 (1)
I0720 16:23:04.650542 24944 net.cpp:148] Top shape: 1 1 (1)
I0720 16:23:04.650547 24944 net.cpp:156] Memory required for data: 10016
I0720 16:23:04.650555 24944 layer_factory.hpp:77] Creating layer lstm1_x_transform
I0720 16:23:04.650583 24944 net.cpp:91] Creating Layer lstm1_x_transform
I0720 16:23:04.650589 24944 net.cpp:425] lstm1_x_transform <- x
I0720 16:23:04.650602 24944 net.cpp:399] lstm1_x_transform -> W_xc_x
I0720 16:23:04.737519 24944 net.cpp:141] Setting up lstm1_x_transform
I0720 16:23:04.737573 24944 net.cpp:148] Top shape: 1 1 4000 (4000)
I0720 16:23:04.737581 24944 net.cpp:156] Memory required for data: 26016
I0720 16:23:04.737603 24944 layer_factory.hpp:77] Creating layer lstm1_W_xc_x_slice
I0720 16:23:04.737625 24944 net.cpp:91] Creating Layer lstm1_W_xc_x_slice
I0720 16:23:04.737632 24944 net.cpp:425] lstm1_W_xc_x_slice <- W_xc_x
I0720 16:23:04.737643 24944 net.cpp:399] lstm1_W_xc_x_slice -> W_xc_x_1
I0720 16:23:04.743180 24944 net.cpp:141] Setting up lstm1_W_xc_x_slice
I0720 16:23:04.743203 24944 net.cpp:148] Top shape: 1 1 4000 (4000)
I0720 16:23:04.743208 24944 net.cpp:156] Memory required for data: 42016
I0720 16:23:04.743214 24944 layer_factory.hpp:77] Creating layer lstm1_h_conted_0
I0720 16:23:04.743230 24944 net.cpp:91] Creating Layer lstm1_h_conted_0
I0720 16:23:04.743237 24944 net.cpp:425] lstm1_h_conted_0 <- h_0
I0720 16:23:04.743243 24944 net.cpp:425] lstm1_h_conted_0 <- cont_1_lstm1_cont_slice_0_split_0
I0720 16:23:04.743250 24944 net.cpp:399] lstm1_h_conted_0 -> h_conted_0
I0720 16:23:04.748512 24944 net.cpp:141] Setting up lstm1_h_conted_0
I0720 16:23:04.748535 24944 net.cpp:148] Top shape: 1 1 1000 (1000)
I0720 16:23:04.748540 24944 net.cpp:156] Memory required for data: 46016
I0720 16:23:04.748546 24944 layer_factory.hpp:77] Creating layer lstm1_transform_1
I0720 16:23:04.748564 24944 net.cpp:91] Creating Layer lstm1_transform_1
I0720 16:23:04.748569 24944 net.cpp:425] lstm1_transform_1 <- h_conted_0
I0720 16:23:04.748586 24944 net.cpp:399] lstm1_transform_1 -> W_hc_h_0
I0720 16:23:04.750030 24960 net.cpp:141] Setting up conv1
I0720 16:23:04.750080 24960 net.cpp:148] Top shape: 10 96 55 55 (2904000)
I0720 16:23:04.750087 24960 net.cpp:156] Memory required for data: 17799480
I0720 16:23:04.750133 24960 layer_factory.hpp:77] Creating layer relu1
I0720 16:23:04.750154 24960 net.cpp:91] Creating Layer relu1
I0720 16:23:04.750161 24960 net.cpp:425] relu1 <- conv1
I0720 16:23:04.750170 24960 net.cpp:386] relu1 -> conv1 (in-place)
I0720 16:23:04.751365 24960 net.cpp:141] Setting up relu1
I0720 16:23:04.751400 24960 net.cpp:148] Top shape: 10 96 55 55 (2904000)
I0720 16:23:04.751408 24960 net.cpp:156] Memory required for data: 29415480
I0720 16:23:04.751421 24960 layer_factory.hpp:77] Creating layer pool1
I0720 16:23:04.751457 24960 net.cpp:91] Creating Layer pool1
I0720 16:23:04.751471 24960 net.cpp:425] pool1 <- conv1
I0720 16:23:04.751484 24960 net.cpp:399] pool1 -> pool1
I0720 16:23:04.762104 24960 net.cpp:141] Setting up pool1
I0720 16:23:04.762127 24960 net.cpp:148] Top shape: 10 96 27 27 (699840)
I0720 16:23:04.762133 24960 net.cpp:156] Memory required for data: 32214840
I0720 16:23:04.762159 24960 layer_factory.hpp:77] Creating layer norm1
I0720 16:23:04.762189 24960 net.cpp:91] Creating Layer norm1
I0720 16:23:04.762195 24960 net.cpp:425] norm1 <- pool1
I0720 16:23:04.762204 24960 net.cpp:399] norm1 -> norm1
I0720 16:23:04.763891 24960 net.cpp:141] Setting up norm1
I0720 16:23:04.763911 24960 net.cpp:148] Top shape: 10 96 27 27 (699840)
I0720 16:23:04.763917 24960 net.cpp:156] Memory required for data: 35014200
I0720 16:23:04.763923 24960 layer_factory.hpp:77] Creating layer conv2
I0720 16:23:04.763943 24960 net.cpp:91] Creating Layer conv2
I0720 16:23:04.763949 24960 net.cpp:425] conv2 <- norm1
I0720 16:23:04.763957 24960 net.cpp:399] conv2 -> conv2
I0720 16:23:04.765007 24954 net.cpp:141] Setting up conv1
I0720 16:23:04.765056 24954 net.cpp:148] Top shape: 10 96 55 55 (2904000)
I0720 16:23:04.765064 24954 net.cpp:156] Memory required for data: 17799480
I0720 16:23:04.765094 24954 layer_factory.hpp:77] Creating layer relu1
I0720 16:23:04.765113 24954 net.cpp:91] Creating Layer relu1
I0720 16:23:04.765120 24954 net.cpp:425] relu1 <- conv1
I0720 16:23:04.765130 24954 net.cpp:386] relu1 -> conv1 (in-place)
I0720 16:23:04.766086 24954 net.cpp:141] Setting up relu1
I0720 16:23:04.766105 24954 net.cpp:148] Top shape: 10 96 55 55 (2904000)
I0720 16:23:04.766110 24954 net.cpp:156] Memory required for data: 29415480
I0720 16:23:04.766116 24954 layer_factory.hpp:77] Creating layer pool1
I0720 16:23:04.766129 24954 net.cpp:91] Creating Layer pool1
I0720 16:23:04.766134 24954 net.cpp:425] pool1 <- conv1
I0720 16:23:04.766144 24954 net.cpp:399] pool1 -> pool1
I0720 16:23:04.767981 24954 net.cpp:141] Setting up pool1
I0720 16:23:04.767997 24954 net.cpp:148] Top shape: 10 96 27 27 (699840)
I0720 16:23:04.768002 24954 net.cpp:156] Memory required for data: 32214840
I0720 16:23:04.768007 24954 layer_factory.hpp:77] Creating layer norm1
I0720 16:23:04.768020 24954 net.cpp:91] Creating Layer norm1
I0720 16:23:04.768026 24954 net.cpp:425] norm1 <- pool1
I0720 16:23:04.768033 24954 net.cpp:399] norm1 -> norm1
I0720 16:23:04.769203 24954 net.cpp:141] Setting up norm1
I0720 16:23:04.769222 24954 net.cpp:148] Top shape: 10 96 27 27 (699840)
I0720 16:23:04.769227 24954 net.cpp:156] Memory required for data: 35014200
I0720 16:23:04.769233 24954 layer_factory.hpp:77] Creating layer conv2
I0720 16:23:04.769253 24954 net.cpp:91] Creating Layer conv2
I0720 16:23:04.769259 24954 net.cpp:425] conv2 <- norm1
I0720 16:23:04.769268 24954 net.cpp:399] conv2 -> conv2
I0720 16:23:04.778180 24960 net.cpp:141] Setting up conv2
I0720 16:23:04.778209 24960 net.cpp:148] Top shape: 10 256 27 27 (1866240)
I0720 16:23:04.778215 24960 net.cpp:156] Memory required for data: 42479160
I0720 16:23:04.778230 24960 layer_factory.hpp:77] Creating layer relu2
I0720 16:23:04.778244 24960 net.cpp:91] Creating Layer relu2
I0720 16:23:04.778249 24960 net.cpp:425] relu2 <- conv2
I0720 16:23:04.778259 24960 net.cpp:386] relu2 -> conv2 (in-place)
I0720 16:23:04.779880 24960 net.cpp:141] Setting up relu2
I0720 16:23:04.779896 24960 net.cpp:148] Top shape: 10 256 27 27 (1866240)
I0720 16:23:04.779902 24960 net.cpp:156] Memory required for data: 49944120
I0720 16:23:04.779907 24960 layer_factory.hpp:77] Creating layer pool2
I0720 16:23:04.779933 24960 net.cpp:91] Creating Layer pool2
I0720 16:23:04.779940 24960 net.cpp:425] pool2 <- conv2
I0720 16:23:04.779947 24960 net.cpp:399] pool2 -> pool2
I0720 16:23:04.780098 24954 net.cpp:141] Setting up conv2
I0720 16:23:04.780127 24954 net.cpp:148] Top shape: 10 256 27 27 (1866240)
I0720 16:23:04.780133 24954 net.cpp:156] Memory required for data: 42479160
I0720 16:23:04.780140 24960 net.cpp:141] Setting up pool2
I0720 16:23:04.780148 24954 layer_factory.hpp:77] Creating layer relu2
I0720 16:23:04.780154 24960 net.cpp:148] Top shape: 10 256 13 13 (432640)
I0720 16:23:04.780159 24960 net.cpp:156] Memory required for data: 51674680
I0720 16:23:04.780161 24954 net.cpp:91] Creating Layer relu2
I0720 16:23:04.780169 24954 net.cpp:425] relu2 <- conv2
I0720 16:23:04.780165 24960 layer_factory.hpp:77] Creating layer norm2
I0720 16:23:04.780182 24954 net.cpp:386] relu2 -> conv2 (in-place)
I0720 16:23:04.780190 24960 net.cpp:91] Creating Layer norm2
I0720 16:23:04.780197 24960 net.cpp:425] norm2 <- pool2
I0720 16:23:04.780205 24960 net.cpp:399] norm2 -> norm2
I0720 16:23:04.781095 24960 net.cpp:141] Setting up norm2
I0720 16:23:04.781110 24960 net.cpp:148] Top shape: 10 256 13 13 (432640)
I0720 16:23:04.781113 24960 net.cpp:156] Memory required for data: 53405240
I0720 16:23:04.781121 24960 layer_factory.hpp:77] Creating layer conv3
I0720 16:23:04.781134 24960 net.cpp:91] Creating Layer conv3
I0720 16:23:04.781141 24960 net.cpp:425] conv3 <- norm2
I0720 16:23:04.781149 24960 net.cpp:399] conv3 -> conv3
I0720 16:23:04.781179 24954 net.cpp:141] Setting up relu2
I0720 16:23:04.781195 24954 net.cpp:148] Top shape: 10 256 27 27 (1866240)
I0720 16:23:04.781200 24954 net.cpp:156] Memory required for data: 49944120
I0720 16:23:04.781205 24954 layer_factory.hpp:77] Creating layer pool2
I0720 16:23:04.781220 24954 net.cpp:91] Creating Layer pool2
I0720 16:23:04.781225 24954 net.cpp:425] pool2 <- conv2
I0720 16:23:04.781234 24954 net.cpp:399] pool2 -> pool2
I0720 16:23:04.781515 24954 net.cpp:141] Setting up pool2
I0720 16:23:04.781528 24954 net.cpp:148] Top shape: 10 256 13 13 (432640)
I0720 16:23:04.781533 24954 net.cpp:156] Memory required for data: 51674680
I0720 16:23:04.781538 24954 layer_factory.hpp:77] Creating layer norm2
I0720 16:23:04.781563 24954 net.cpp:91] Creating Layer norm2
I0720 16:23:04.781569 24954 net.cpp:425] norm2 <- pool2
I0720 16:23:04.781579 24954 net.cpp:399] norm2 -> norm2
I0720 16:23:04.784883 24954 net.cpp:141] Setting up norm2
I0720 16:23:04.784904 24954 net.cpp:148] Top shape: 10 256 13 13 (432640)
I0720 16:23:04.784909 24954 net.cpp:156] Memory required for data: 53405240
I0720 16:23:04.784915 24954 layer_factory.hpp:77] Creating layer conv3
I0720 16:23:04.784927 24954 net.cpp:91] Creating Layer conv3
I0720 16:23:04.784934 24954 net.cpp:425] conv3 <- norm2
I0720 16:23:04.784945 24954 net.cpp:399] conv3 -> conv3
I0720 16:23:04.792493 24960 net.cpp:141] Setting up conv3
I0720 16:23:04.792522 24960 net.cpp:148] Top shape: 10 384 13 13 (648960)
I0720 16:23:04.792528 24960 net.cpp:156] Memory required for data: 56001080
I0720 16:23:04.792547 24960 layer_factory.hpp:77] Creating layer relu3
I0720 16:23:04.792572 24960 net.cpp:91] Creating Layer relu3
I0720 16:23:04.792578 24960 net.cpp:425] relu3 <- conv3
I0720 16:23:04.792587 24960 net.cpp:386] relu3 -> conv3 (in-place)
I0720 16:23:04.793421 24954 net.cpp:141] Setting up conv3
I0720 16:23:04.793453 24954 net.cpp:148] Top shape: 10 384 13 13 (648960)
I0720 16:23:04.793460 24954 net.cpp:156] Memory required for data: 56001080
I0720 16:23:04.793480 24954 layer_factory.hpp:77] Creating layer relu3
I0720 16:23:04.793478 24960 net.cpp:141] Setting up relu3
I0720 16:23:04.793494 24954 net.cpp:91] Creating Layer relu3
I0720 16:23:04.793496 24960 net.cpp:148] Top shape: 10 384 13 13 (648960)
I0720 16:23:04.793501 24954 net.cpp:425] relu3 <- conv3
I0720 16:23:04.793505 24960 net.cpp:156] Memory required for data: 58596920
I0720 16:23:04.793511 24960 layer_factory.hpp:77] Creating layer conv4
I0720 16:23:04.793515 24954 net.cpp:386] relu3 -> conv3 (in-place)
I0720 16:23:04.793524 24960 net.cpp:91] Creating Layer conv4
I0720 16:23:04.793531 24960 net.cpp:425] conv4 <- conv3
I0720 16:23:04.793545 24960 net.cpp:399] conv4 -> conv4
I0720 16:23:04.794554 24954 net.cpp:141] Setting up relu3
I0720 16:23:04.794570 24954 net.cpp:148] Top shape: 10 384 13 13 (648960)
I0720 16:23:04.794576 24954 net.cpp:156] Memory required for data: 58596920
I0720 16:23:04.794581 24954 layer_factory.hpp:77] Creating layer conv4
I0720 16:23:04.794602 24954 net.cpp:91] Creating Layer conv4
I0720 16:23:04.794608 24954 net.cpp:425] conv4 <- conv3
I0720 16:23:04.794620 24954 net.cpp:399] conv4 -> conv4
I0720 16:23:04.800547 24944 net.cpp:141] Setting up lstm1_transform_1
I0720 16:23:04.800580 24944 net.cpp:148] Top shape: 1 1 4000 (4000)
I0720 16:23:04.800586 24944 net.cpp:156] Memory required for data: 62016
I0720 16:23:04.800604 24944 layer_factory.hpp:77] Creating layer lstm1_gate_input_1
I0720 16:23:04.800626 24944 net.cpp:91] Creating Layer lstm1_gate_input_1
I0720 16:23:04.800631 24944 net.cpp:425] lstm1_gate_input_1 <- W_hc_h_0
I0720 16:23:04.800643 24944 net.cpp:425] lstm1_gate_input_1 <- W_xc_x_1
I0720 16:23:04.800660 24944 net.cpp:399] lstm1_gate_input_1 -> gate_input_1
I0720 16:23:04.800832 24944 net.cpp:141] Setting up lstm1_gate_input_1
I0720 16:23:04.800845 24944 net.cpp:148] Top shape: 1 1 4000 (4000)
I0720 16:23:04.800849 24944 net.cpp:156] Memory required for data: 78016
I0720 16:23:04.800855 24944 layer_factory.hpp:77] Creating layer lstm1_unit_1
I0720 16:23:04.800868 24944 net.cpp:91] Creating Layer lstm1_unit_1
I0720 16:23:04.800873 24944 net.cpp:425] lstm1_unit_1 <- c_0
I0720 16:23:04.800879 24944 net.cpp:425] lstm1_unit_1 <- gate_input_1
I0720 16:23:04.800884 24944 net.cpp:425] lstm1_unit_1 <- cont_1_lstm1_cont_slice_0_split_1
I0720 16:23:04.800891 24944 net.cpp:399] lstm1_unit_1 -> c_1
I0720 16:23:04.800900 24944 net.cpp:399] lstm1_unit_1 -> h_1
I0720 16:23:04.801952 24944 net.cpp:141] Setting up lstm1_unit_1
I0720 16:23:04.801965 24944 net.cpp:148] Top shape: 1 1 1000 (1000)
I0720 16:23:04.801972 24944 net.cpp:148] Top shape: 1 1 1000 (1000)
I0720 16:23:04.801976 24944 net.cpp:156] Memory required for data: 86016
I0720 16:23:04.801981 24944 layer_factory.hpp:77] Creating layer lstm1_
I0720 16:23:04.801993 24944 net.cpp:91] Creating Layer lstm1_
I0720 16:23:04.801998 24944 net.cpp:425] lstm1_ <- c_1
I0720 16:23:04.802006 24944 net.cpp:399] lstm1_ -> c_T
I0720 16:23:04.802453 24944 net.cpp:141] Setting up lstm1_
I0720 16:23:04.802465 24944 net.cpp:148] Top shape: 1 1 1000 (1000)
I0720 16:23:04.802470 24944 net.cpp:156] Memory required for data: 90016
I0720 16:23:04.802475 24944 layer_factory.hpp:77] Creating layer lstm1_h_concat
I0720 16:23:04.802495 24944 net.cpp:91] Creating Layer lstm1_h_concat
I0720 16:23:04.802501 24944 net.cpp:425] lstm1_h_concat <- h_1
I0720 16:23:04.802510 24944 net.cpp:399] lstm1_h_concat -> h
I0720 16:23:04.804056 24944 net.cpp:141] Setting up lstm1_h_concat
I0720 16:23:04.804071 24944 net.cpp:148] Top shape: 1 1 1000 (1000)
I0720 16:23:04.804076 24944 net.cpp:156] Memory required for data: 94016
I0720 16:23:04.804081 24944 layer_factory.hpp:77] Creating layer h_pseudoloss
I0720 16:23:04.804096 24944 net.cpp:91] Creating Layer h_pseudoloss
I0720 16:23:04.804101 24944 net.cpp:425] h_pseudoloss <- h
I0720 16:23:04.804108 24944 net.cpp:399] h_pseudoloss -> h_pseudoloss
I0720 16:23:04.805310 24944 net.cpp:141] Setting up h_pseudoloss
…
I0720 16:23:04.805534 24944 net.cpp:219] lstm1_ does not need backward computation.
I0720 16:23:04.805541 24944 net.cpp:261] This network produces output c_T
I0720 16:23:04.805551 24944 net.cpp:261] This network produces output h_pseudoloss
I0720 16:23:04.805583 24944 net.cpp:274] Network initialization done.
I0720 16:23:04.805690 24944 recurrent_layer.cpp:150] Adding parameter 0: W_xc
I0720 16:23:04.805704 24944 recurrent_layer.cpp:150] Adding parameter 1: b_c
I0720 16:23:04.805712 24944 recurrent_layer.cpp:150] Adding parameter 2: W_hc
I0720 16:23:04.807556 24944 net.cpp:141] Setting up lstm1
I0720 16:23:04.807601 24944 net.cpp:148] Top shape: 1 1 1000 (1000)
I0720 16:23:04.807611 24944 net.cpp:156] Memory required for data: 26408
I0720 16:23:04.807672 24944 layer_factory.hpp:77] Creating layer concat
I0720 16:23:04.807689 24944 net.cpp:91] Creating Layer concat
I0720 16:23:04.807699 24944 net.cpp:425] concat <- lstm1
I0720 16:23:04.807693 24960 net.cpp:141] Setting up conv4
I0720 16:23:04.807716 24944 net.cpp:425] concat <- embedded_input_sentence
I0720 16:23:04.807734 24960 net.cpp:148] Top shape: 10 384 13 13 (648960)
I0720 16:23:04.807742 24960 net.cpp:156] Memory required for data: 61192760
I0720 16:23:04.807744 24944 net.cpp:425] concat <- reshaped_stage_indicator
I0720 16:23:04.807754 24960 layer_factory.hpp:77] Creating layer relu4
I0720 16:23:04.807757 24944 net.cpp:399] concat -> lstm1_video_sequence
I0720 16:23:04.807767 24960 net.cpp:91] Creating Layer relu4
I0720 16:23:04.807775 24960 net.cpp:425] relu4 <- conv4
I0720 16:23:04.807787 24960 net.cpp:386] relu4 -> conv4 (in-place)
I0720 16:23:04.808730 24944 net.cpp:141] Setting up concat
I0720 16:23:04.808749 24944 net.cpp:148] Top shape: 1 1 1501 (1501)
I0720 16:23:04.808758 24944 net.cpp:156] Memory required for data: 32412
I0720 16:23:04.808768 24944 layer_factory.hpp:77] Creating layer lstm2
I0720 16:23:04.808809 24944 net.cpp:91] Creating Layer lstm2
I0720 16:23:04.808820 24944 net.cpp:425] lstm2 <- lstm1_video_sequence
I0720 16:23:04.808830 24944 net.cpp:425] lstm2 <- cont_sentence_input_1_split_1
I0720 16:23:04.808842 24944 net.cpp:399] lstm2 -> lstm2
I0720 16:23:04.808850 24960 net.cpp:141] Setting up relu4
I0720 16:23:04.808861 24944 recurrent_layer.cpp:20] Initializing recurrent layer: assuming input batch contains 1 timesteps of 1 independent streams.
I0720 16:23:04.808866 24960 net.cpp:148] Top shape: 10 384 13 13 (648960)
I0720 16:23:04.808881 24960 net.cpp:156] Memory required for data: 63788600
I0720 16:23:04.808902 24960 layer_factory.hpp:77] Creating layer conv5
I0720 16:23:04.808925 24960 net.cpp:91] Creating Layer conv5
I0720 16:23:04.808931 24960 net.cpp:425] conv5 <- conv4
I0720 16:23:04.808943 24960 net.cpp:399] conv5 -> conv5
I0720 16:23:04.809329 24944 net.cpp:49] Initializing net from parameters: 
layer {
  name: "lstm2_"
  type: "Input"
  top: "x"
  top: "cont"
  input_param {
    shape {
      dim: 1
      dim: 1
      dim: 1501
    }
    shape {
      dim: 1
      dim: 1
    }
  }
}
layer {
  name: "lstm2_"
  type: "Input"
  top: "c_0"
  top: "h_0"
  input_param {
    shape {
      dim: 1
      dim: 1
      dim: 1000
    }
    shape {
      dim: 1
      dim: 1
      dim: 1000
    }
  }
}
layer {
  name: "lstm2_cont_slice"
  type: "Slice"
  bottom: "cont"
  top: "cont_1"
  slice_param {
    axis: 0
  }
}
layer {
  name: "lstm2_x_transform"
  type: "InnerProduct"
  bottom: "x"
  top: "W_xc_x"
  param {
    name: "W_xc"
  }
  param {
    name: "b_c"
  }
  propagate_down: true
  inner_product_param {
    num_output: 4000
    bias_term: true
    weight_filler {
      type: "uniform"
      min: -0.08
      max: 0.08
    }
    bias_filler {
      type: "constant"
      value: 0
    }
    axis: 2
  }
}
layer {
  name: "lstm2_W_xc_x_slice"
  type: "Slice"
  bottom: "W_xc_x"
  top: "W_xc_x_1"
  slice_param {
    axis: 0
  }
}
layer {
  name: "lstm2_h_conted_0"
  type: "Scale"
  bottom: "h_0"
  bottom: "cont_1"
  top: "h_conted_0"
  scale_param {
    axis: 0
  }
}
layer {
  name: "lstm2_transform_1"
  type: "InnerProduct"
  bottom: "h_conted_0"
  top: "W_hc_h_0"
  param {
    name: "W_hc"
  }
  inner_product_param {
    num_output: 4000
    bias_term: false
    weight_filler {
      type: "uniform"
      min: -0.08
      max: 0.08
    }
    axis: 2
  }
}
layer {
  name: "lstm2_gate_input_1"
  type: "Eltwise"
  bottom: "W_hc_h_0"
  bottom: "W_xc_x_1"
  top: "gate_input_1"
  eltwise_param {
    operation: SUM
  }
}
layer {
  name: "lstm2_unit_1"
  type: "LSTMUnit"
  bottom: "c_0"
  bottom: "gate_input_1"
  bottom: "cont_1"
  top: "c_1"
  top: "h_1"
}
layer {
  name: "lstm2_"
  type: "Split"
  bottom: "c_1"
  top: "c_T"
}
layer {
  name: "lstm2_h_concat"
  type: "Concat"
  bottom: "h_1"
  top: "h"
  concat_param {
    axis: 0
  }
}
layer {
  name: "h_pseudoloss"
  type: "Reduction"
  bottom: "h"
  top: "h_pseudoloss"
  loss_weight: 1
}
I0720 16:23:04.809335 24954 net.cpp:141] Setting up conv4
I0720 16:23:04.809355 24954 net.cpp:148] Top shape: 10 384 13 13 (648960)
I0720 16:23:04.809361 24954 net.cpp:156] Memory required for data: 61192760
I0720 16:23:04.809372 24954 layer_factory.hpp:77] Creating layer relu4
I0720 16:23:04.809384 24954 net.cpp:91] Creating Layer relu4
I0720 16:23:04.809391 24954 net.cpp:425] relu4 <- conv4
I0720 16:23:04.809398 24954 net.cpp:386] relu4 -> conv4 (in-place)
I0720 16:23:04.809473 24944 layer_factory.hpp:77] Creating layer lstm2_
I0720 16:23:04.809492 24944 net.cpp:91] Creating Layer lstm2_
I0720 16:23:04.809504 24944 net.cpp:399] lstm2_ -> x
I0720 16:23:04.809521 24944 net.cpp:399] lstm2_ -> cont
I0720 16:23:04.810547 24944 net.cpp:141] Setting up lstm2_
I0720 16:23:04.810570 24944 net.cpp:148] Top shape: 1 1 1501 (1501)
I0720 16:23:04.810581 24944 net.cpp:148] Top shape: 1 1 (1)
I0720 16:23:04.810590 24944 net.cpp:156] Memory required for data: 6008
I0720 16:23:04.810600 24944 layer_factory.hpp:77] Creating layer lstm2_
I0720 16:23:04.810614 24954 net.cpp:141] Setting up relu4
I0720 16:23:04.810616 24944 net.cpp:91] Creating Layer lstm2_
I0720 16:23:04.810632 24954 net.cpp:148] Top shape: 10 384 13 13 (648960)
I0720 16:23:04.810642 24954 net.cpp:156] Memory required for data: 63788600
I0720 16:23:04.810641 24944 net.cpp:399] lstm2_ -> c_0
I0720 16:23:04.810648 24954 layer_factory.hpp:77] Creating layer conv5
I0720 16:23:04.810664 24954 net.cpp:91] Creating Layer conv5
I0720 16:23:04.810667 24944 net.cpp:399] lstm2_ -> h_0
I0720 16:23:04.810670 24954 net.cpp:425] conv5 <- conv4
I0720 16:23:04.811398 24954 net.cpp:399] conv5 -> conv5
I0720 16:23:04.812961 24944 net.cpp:141] Setting up lstm2_
I0720 16:23:04.812984 24944 net.cpp:148] Top shape: 1 1 1000 (1000)
I0720 16:23:04.812996 24944 net.cpp:148] Top shape: 1 1 1000 (1000)
I0720 16:23:04.813004 24944 net.cpp:156] Memory required for data: 14008
I0720 16:23:04.813014 24944 layer_factory.hpp:77] Creating layer lstm2_cont_slice
I0720 16:23:04.813030 24944 net.cpp:91] Creating Layer lstm2_cont_slice
I0720 16:23:04.813040 24944 net.cpp:425] lstm2_cont_slice <- cont
I0720 16:23:04.813052 24944 net.cpp:399] lstm2_cont_slice -> cont_1
I0720 16:23:04.813163 24944 net.cpp:141] Setting up lstm2_cont_slice
I0720 16:23:04.813179 24944 net.cpp:148] Top shape: 1 1 (1)
I0720 16:23:04.813187 24944 net.cpp:156] Memory required for data: 14012
I0720 16:23:04.813196 24944 layer_factory.hpp:77] Creating layer cont_1_lstm2_cont_slice_0_split
I0720 16:23:04.813207 24944 net.cpp:91] Creating Layer cont_1_lstm2_cont_slice_0_split
I0720 16:23:04.813215 24944 net.cpp:425] cont_1_lstm2_cont_slice_0_split <- cont_1
I0720 16:23:04.813227 24944 net.cpp:399] cont_1_lstm2_cont_slice_0_split -> cont_1_lstm2_cont_slice_0_split_0
I0720 16:23:04.813246 24944 net.cpp:399] cont_1_lstm2_cont_slice_0_split -> cont_1_lstm2_cont_slice_0_split_1
I0720 16:23:04.813910 24944 net.cpp:141] Setting up cont_1_lstm2_cont_slice_0_split
I0720 16:23:04.813928 24944 net.cpp:148] Top shape: 1 1 (1)
I0720 16:23:04.813941 24944 net.cpp:148] Top shape: 1 1 (1)
I0720 16:23:04.813947 24944 net.cpp:156] Memory required for data: 14020
I0720 16:23:04.813956 24944 layer_factory.hpp:77] Creating layer lstm2_x_transform
I0720 16:23:04.813973 24944 net.cpp:91] Creating Layer lstm2_x_transform
I0720 16:23:04.813982 24944 net.cpp:425] lstm2_x_transform <- x
I0720 16:23:04.814788 24944 net.cpp:399] lstm2_x_transform -> W_xc_x
I0720 16:23:04.836766 24960 net.cpp:141] Setting up conv5
I0720 16:23:04.836801 24960 net.cpp:148] Top shape: 10 256 13 13 (432640)
I0720 16:23:04.836807 24960 net.cpp:156] Memory required for data: 65519160
I0720 16:23:04.836825 24960 layer_factory.hpp:77] Creating layer relu5
I0720 16:23:04.836855 24960 net.cpp:91] Creating Layer relu5
I0720 16:23:04.836861 24960 net.cpp:425] relu5 <- conv5
I0720 16:23:04.836874 24960 net.cpp:386] relu5 -> conv5 (in-place)
I0720 16:23:04.838330 24960 net.cpp:141] Setting up relu5
I0720 16:23:04.838347 24960 net.cpp:148] Top shape: 10 256 13 13 (432640)
I0720 16:23:04.838352 24960 net.cpp:156] Memory required for data: 67249720
I0720 16:23:04.838358 24960 layer_factory.hpp:77] Creating layer pool5
I0720 16:23:04.838369 24960 net.cpp:91] Creating Layer pool5
I0720 16:23:04.838376 24960 net.cpp:425] pool5 <- conv5
I0720 16:23:04.838388 24960 net.cpp:399] pool5 -> pool5
I0720 16:23:04.838634 24954 net.cpp:141] Setting up conv5
I0720 16:23:04.838655 24960 net.cpp:141] Setting up pool5
I0720 16:23:04.838676 24954 net.cpp:148] Top shape: 10 256 13 13 (432640)
I0720 16:23:04.838680 24960 net.cpp:148] Top shape: 10 256 6 6 (92160)
I0720 16:23:04.838685 24954 net.cpp:156] Memory required for data: 65519160
I0720 16:23:04.838697 24960 net.cpp:156] Memory required for data: 67618360
I0720 16:23:04.838706 24960 layer_factory.hpp:77] Creating layer fc6
I0720 16:23:04.838721 24960 net.cpp:91] Creating Layer fc6
I0720 16:23:04.838724 24954 layer_factory.hpp:77] Creating layer relu5
I0720 16:23:04.838726 24960 net.cpp:425] fc6 <- pool5
I0720 16:23:04.838744 24954 net.cpp:91] Creating Layer relu5
I0720 16:23:04.838748 24960 net.cpp:399] fc6 -> fc6
I0720 16:23:04.838752 24954 net.cpp:425] relu5 <- conv5
I0720 16:23:04.838768 24954 net.cpp:386] relu5 -> conv5 (in-place)
I0720 16:23:04.904355 24954 net.cpp:141] Setting up relu5
I0720 16:23:04.904407 24954 net.cpp:148] Top shape: 10 256 13 13 (432640)
I0720 16:23:04.904414 24954 net.cpp:156] Memory required for data: 67249720
I0720 16:23:04.904427 24954 layer_factory.hpp:77] Creating layer pool5
I0720 16:23:04.904449 24954 net.cpp:91] Creating Layer pool5
I0720 16:23:04.904456 24954 net.cpp:425] pool5 <- conv5
I0720 16:23:04.904469 24954 net.cpp:399] pool5 -> pool5
I0720 16:23:04.913550 24954 net.cpp:141] Setting up pool5
I0720 16:23:04.913573 24954 net.cpp:148] Top shape: 10 256 6 6 (92160)
I0720 16:23:04.913578 24954 net.cpp:156] Memory required for data: 67618360
I0720 16:23:04.913583 24954 layer_factory.hpp:77] Creating layer fc6
I0720 16:23:04.913602 24954 net.cpp:91] Creating Layer fc6
I0720 16:23:04.913609 24954 net.cpp:425] fc6 <- pool5
I0720 16:23:04.913616 24954 net.cpp:399] fc6 -> fc6
I0720 16:23:04.913658 24944 net.cpp:141] Setting up lstm2_x_transform
I0720 16:23:04.913679 24944 net.cpp:148] Top shape: 1 1 4000 (4000)
I0720 16:23:04.913684 24944 net.cpp:156] Memory required for data: 30020
I0720 16:23:04.913702 24944 layer_factory.hpp:77] Creating layer lstm2_W_xc_x_slice
I0720 16:23:04.913714 24944 net.cpp:91] Creating Layer lstm2_W_xc_x_slice
I0720 16:23:04.913720 24944 net.cpp:425] lstm2_W_xc_x_slice <- W_xc_x
I0720 16:23:04.913728 24944 net.cpp:399] lstm2_W_xc_x_slice -> W_xc_x_1
I0720 16:23:04.987922 24944 net.cpp:141] Setting up lstm2_W_xc_x_slice
I0720 16:23:04.987978 24944 net.cpp:148] Top shape: 1 1 4000 (4000)
I0720 16:23:04.987984 24944 net.cpp:156] Memory required for data: 46020
I0720 16:23:04.987993 24944 layer_factory.hpp:77] Creating layer lstm2_h_conted_0
I0720 16:23:04.988013 24944 net.cpp:91] Creating Layer lstm2_h_conted_0
I0720 16:23:04.988020 24944 net.cpp:425] lstm2_h_conted_0 <- h_0
I0720 16:23:04.988030 24944 net.cpp:425] lstm2_h_conted_0 <- cont_1_lstm2_cont_slice_0_split_0
I0720 16:23:04.988039 24944 net.cpp:399] lstm2_h_conted_0 -> h_conted_0
I0720 16:23:04.988158 24960 net.cpp:141] Setting up fc6
I0720 16:23:04.988203 24960 net.cpp:148] Top shape: 10 4096 (40960)
I0720 16:23:04.988207 24960 net.cpp:156] Memory required for data: 67782200
I0720 16:23:04.988237 24960 layer_factory.hpp:77] Creating layer relu6
I0720 16:23:04.988273 24960 net.cpp:91] Creating Layer relu6
I0720 16:23:04.988281 24960 net.cpp:425] relu6 <- fc6
I0720 16:23:04.988291 24960 net.cpp:386] relu6 -> fc6 (in-place)
I0720 16:23:04.988610 24944 net.cpp:141] Setting up lstm2_h_conted_0
I0720 16:23:04.988626 24944 net.cpp:148] Top shape: 1 1 1000 (1000)
I0720 16:23:04.988631 24944 net.cpp:156] Memory required for data: 50020
I0720 16:23:04.988636 24944 layer_factory.hpp:77] Creating layer lstm2_transform_1
I0720 16:23:04.988651 24944 net.cpp:91] Creating Layer lstm2_transform_1
I0720 16:23:04.988656 24944 net.cpp:425] lstm2_transform_1 <- h_conted_0
I0720 16:23:04.988667 24944 net.cpp:399] lstm2_transform_1 -> W_hc_h_0
I0720 16:23:04.988829 24960 net.cpp:141] Setting up relu6
I0720 16:23:04.988843 24960 net.cpp:148] Top shape: 10 4096 (40960)
I0720 16:23:04.988848 24960 net.cpp:156] Memory required for data: 67946040
I0720 16:23:04.988854 24960 layer_factory.hpp:77] Creating layer drop6
I0720 16:23:04.988879 24960 net.cpp:91] Creating Layer drop6
I0720 16:23:04.988885 24960 net.cpp:425] drop6 <- fc6
I0720 16:23:04.996707 24960 net.cpp:386] drop6 -> fc6 (in-place)
I0720 16:23:04.998597 24960 net.cpp:141] Setting up drop6
I0720 16:23:04.998618 24960 net.cpp:148] Top shape: 10 4096 (40960)
I0720 16:23:04.998625 24960 net.cpp:156] Memory required for data: 68109880
I0720 16:23:04.998631 24960 layer_factory.hpp:77] Creating layer fc7
I0720 16:23:04.998651 24960 net.cpp:91] Creating Layer fc7
I0720 16:23:04.998656 24960 net.cpp:425] fc7 <- fc6
I0720 16:23:04.998666 24960 net.cpp:399] fc7 -> fc7
I0720 16:23:05.040130 24954 net.cpp:141] Setting up fc6
I0720 16:23:05.040184 24954 net.cpp:148] Top shape: 10 4096 (40960)
I0720 16:23:05.040190 24954 net.cpp:156] Memory required for data: 67782200
I0720 16:23:05.040207 24954 layer_factory.hpp:77] Creating layer relu6
I0720 16:23:05.040228 24954 net.cpp:91] Creating Layer relu6
I0720 16:23:05.040235 24954 net.cpp:425] relu6 <- fc6
I0720 16:23:05.040246 24954 net.cpp:386] relu6 -> fc6 (in-place)
I0720 16:23:05.040630 24954 net.cpp:141] Setting up relu6
I0720 16:23:05.040642 24954 net.cpp:148] Top shape: 10 4096 (40960)
I0720 16:23:05.040647 24954 net.cpp:156] Memory required for data: 67946040
I0720 16:23:05.040652 24954 layer_factory.hpp:77] Creating layer drop6
I0720 16:23:05.040670 24954 net.cpp:91] Creating Layer drop6
I0720 16:23:05.040675 24954 net.cpp:425] drop6 <- fc6
I0720 16:23:05.040685 24954 net.cpp:386] drop6 -> fc6 (in-place)
I0720 16:23:05.040760 24954 net.cpp:141] Setting up drop6
I0720 16:23:05.040769 24954 net.cpp:148] Top shape: 10 4096 (40960)
I0720 16:23:05.040774 24954 net.cpp:156] Memory required for data: 68109880
I0720 16:23:05.040781 24954 layer_factory.hpp:77] Creating layer fc7
I0720 16:23:05.040792 24954 net.cpp:91] Creating Layer fc7
I0720 16:23:05.040797 24954 net.cpp:425] fc7 <- fc6
I0720 16:23:05.040807 24954 net.cpp:399] fc7 -> fc7
I0720 16:23:05.075072 24944 net.cpp:141] Setting up lstm2_transform_1
I0720 16:23:05.075124 24944 net.cpp:148] Top shape: 1 1 4000 (4000)
I0720 16:23:05.075129 24944 net.cpp:156] Memory required for data: 66020
I0720 16:23:05.075152 24944 layer_factory.hpp:77] Creating layer lstm2_gate_input_1
I0720 16:23:05.075177 24944 net.cpp:91] Creating Layer lstm2_gate_input_1
I0720 16:23:05.075186 24944 net.cpp:425] lstm2_gate_input_1 <- W_hc_h_0
I0720 16:23:05.075194 24944 net.cpp:425] lstm2_gate_input_1 <- W_xc_x_1
I0720 16:23:05.075203 24944 net.cpp:399] lstm2_gate_input_1 -> gate_input_1
I0720 16:23:05.075251 24960 net.cpp:141] Setting up fc7
I0720 16:23:05.075295 24960 net.cpp:148] Top shape: 10 4096 (40960)
I0720 16:23:05.075301 24960 net.cpp:156] Memory required for data: 68273720
I0720 16:23:05.075315 24944 net.cpp:141] Setting up lstm2_gate_input_1
I0720 16:23:05.075320 24960 layer_factory.hpp:77] Creating layer relu7
I0720 16:23:05.075332 24944 net.cpp:148] Top shape: 1 1 4000 (4000)
I0720 16:23:05.075338 24944 net.cpp:156] Memory required for data: 82020
I0720 16:23:05.075345 24944 layer_factory.hpp:77] Creating layer lstm2_unit_1
I0720 16:23:05.075350 24960 net.cpp:91] Creating Layer relu7
I0720 16:23:05.075354 24944 net.cpp:91] Creating Layer lstm2_unit_1
I0720 16:23:05.075357 24960 net.cpp:425] relu7 <- fc7
I0720 16:23:05.075361 24944 net.cpp:425] lstm2_unit_1 <- c_0
I0720 16:23:05.075367 24944 net.cpp:425] lstm2_unit_1 <- gate_input_1
I0720 16:23:05.075371 24960 net.cpp:386] relu7 -> fc7 (in-place)
I0720 16:23:05.075372 24944 net.cpp:425] lstm2_unit_1 <- cont_1_lstm2_cont_slice_0_split_1
I0720 16:23:05.075397 24944 net.cpp:399] lstm2_unit_1 -> c_1
I0720 16:23:05.075407 24944 net.cpp:399] lstm2_unit_1 -> h_1
I0720 16:23:05.077225 24944 net.cpp:141] Setting up lstm2_unit_1
I0720 16:23:05.077255 24944 net.cpp:148] Top shape: 1 1 1000 (1000)
I0720 16:23:05.077260 24944 net.cpp:148] Top shape: 1 1 1000 (1000)
I0720 16:23:05.077265 24944 net.cpp:156] Memory required for data: 90020
I0720 16:23:05.077272 24944 layer_factory.hpp:77] Creating layer lstm2_
I0720 16:23:05.077270 24960 net.cpp:141] Setting up relu7
I0720 16:23:05.077291 24944 net.cpp:91] Creating Layer lstm2_
I0720 16:23:05.077294 24960 net.cpp:148] Top shape: 10 4096 (40960)
I0720 16:23:05.077297 24944 net.cpp:425] lstm2_ <- c_1
I0720 16:23:05.077301 24960 net.cpp:156] Memory required for data: 68437560
I0720 16:23:05.077307 24960 layer_factory.hpp:77] Creating layer drop7
I0720 16:23:05.077311 24944 net.cpp:399] lstm2_ -> c_T
I0720 16:23:05.077355 24960 net.cpp:91] Creating Layer drop7
I0720 16:23:05.077363 24960 net.cpp:425] drop7 <- fc7
I0720 16:23:05.077370 24960 net.cpp:386] drop7 -> fc7 (in-place)
I0720 16:23:05.077381 24944 net.cpp:141] Setting up lstm2_
I0720 16:23:05.077392 24944 net.cpp:148] Top shape: 1 1 1000 (1000)
I0720 16:23:05.077397 24944 net.cpp:156] Memory required for data: 94020
I0720 16:23:05.077402 24944 layer_factory.hpp:77] Creating layer lstm2_h_concat
I0720 16:23:05.077415 24944 net.cpp:91] Creating Layer lstm2_h_concat
I0720 16:23:05.077421 24944 net.cpp:425] lstm2_h_concat <- h_1
I0720 16:23:05.077430 24944 net.cpp:399] lstm2_h_concat -> h
I0720 16:23:05.077460 24960 net.cpp:141] Setting up drop7
I0720 16:23:05.077471 24960 net.cpp:148] Top shape: 10 4096 (40960)
I0720 16:23:05.077474 24960 net.cpp:156] Memory required for data: 68601400
I0720 16:23:05.077481 24960 layer_factory.hpp:77] Creating layer fc8
I0720 16:23:05.077496 24960 net.cpp:91] Creating Layer fc8
I0720 16:23:05.077502 24960 net.cpp:425] fc8 <- fc7
I0720 16:23:05.077514 24960 net.cpp:399] fc8 -> fc8
I0720 16:23:05.077527 24944 net.cpp:141] Setting up lstm2_h_concat
I0720 16:23:05.077539 24944 net.cpp:148] Top shape: 1 1 1000 (1000)
I0720 16:23:05.077543 24944 net.cpp:156] Memory required for data: 98020
I0720 16:23:05.077548 24944 layer_factory.hpp:77] Creating layer h_pseudoloss
I0720 16:23:05.077561 24944 net.cpp:91] Creating Layer h_pseudoloss
I0720 16:23:05.077566 24944 net.cpp:425] h_pseudoloss <- h
I0720 16:23:05.077574 24944 net.cpp:399] h_pseudoloss -> h_pseudoloss
I0720 16:23:05.088059 24944 net.cpp:141] Setting up h_pseudoloss
…
I0720 16:23:05.088207 24944 net.cpp:219] lstm2_ does not need backward computation.
I0720 16:23:05.088212 24944 net.cpp:261] This network produces output c_T
I0720 16:23:05.088218 24944 net.cpp:261] This network produces output h_pseudoloss
I0720 16:23:05.088238 24944 net.cpp:274] Network initialization done.
I0720 16:23:05.088302 24944 recurrent_layer.cpp:150] Adding parameter 0: W_xc
I0720 16:23:05.088310 24944 recurrent_layer.cpp:150] Adding parameter 1: b_c
I0720 16:23:05.088315 24944 recurrent_layer.cpp:150] Adding parameter 2: W_hc
I0720 16:23:05.088502 24944 net.cpp:141] Setting up lstm2
I0720 16:23:05.088515 24944 net.cpp:148] Top shape: 1 1 1000 (1000)
I0720 16:23:05.088521 24944 net.cpp:156] Memory required for data: 36412
I0720 16:23:05.088538 24944 layer_factory.hpp:77] Creating layer predict
I0720 16:23:05.088557 24944 net.cpp:91] Creating Layer predict
I0720 16:23:05.088564 24944 net.cpp:425] predict <- lstm2
I0720 16:23:05.088573 24944 net.cpp:399] predict -> predict
I0720 16:23:05.181151 24960 net.cpp:141] Setting up fc8
I0720 16:23:05.181201 24960 net.cpp:148] Top shape: 10 1000 (10000)
I0720 16:23:05.181207 24960 net.cpp:156] Memory required for data: 68641400
I0720 16:23:05.181226 24960 layer_factory.hpp:77] Creating layer prob
I0720 16:23:05.181227 24954 net.cpp:141] Setting up fc7
I0720 16:23:05.181246 24960 net.cpp:91] Creating Layer prob
I0720 16:23:05.181273 24954 net.cpp:148] Top shape: 10 4096 (40960)
I0720 16:23:05.181275 24960 net.cpp:425] prob <- fc8
I0720 16:23:05.181282 24954 net.cpp:156] Memory required for data: 68273720
I0720 16:23:05.181294 24960 net.cpp:399] prob -> prob
I0720 16:23:05.181298 24954 layer_factory.hpp:77] Creating layer relu7
I0720 16:23:05.181324 24954 net.cpp:91] Creating Layer relu7
I0720 16:23:05.181332 24954 net.cpp:425] relu7 <- fc7
I0720 16:23:05.181342 24954 net.cpp:386] relu7 -> fc7 (in-place)
I0720 16:23:05.183248 24960 net.cpp:141] Setting up prob
I0720 16:23:05.183265 24960 net.cpp:148] Top shape: 10 1000 (10000)
I0720 16:23:05.183270 24960 net.cpp:156] Memory required for data: 68681400
I0720 16:23:05.183276 24960 net.cpp:219] prob does not need backward computation.
I0720 16:23:05.183282 24960 net.cpp:219] fc8 does not need backward computation.
I0720 16:23:05.183286 24960 net.cpp:219] drop7 does not need backward computation.
I0720 16:23:05.183291 24960 net.cpp:219] relu7 does not need backward computation.
I0720 16:23:05.183296 24960 net.cpp:219] fc7 does not need backward computation.
I0720 16:23:05.183286 24954 net.cpp:141] Setting up relu7
I0720 16:23:05.183301 24960 net.cpp:219] drop6 does not need backward computation.
I0720 16:23:05.183325 24954 net.cpp:148] Top shape: 10 4096 (40960)
I0720 16:23:05.183326 24960 net.cpp:219] relu6 does not need backward computation.
I0720 16:23:05.183331 24954 net.cpp:156] Memory required for data: 68437560
I0720 16:23:05.183332 24960 net.cpp:219] fc6 does not need backward computation.
I0720 16:23:05.183342 24954 layer_factory.hpp:77] Creating layer drop7
I0720 16:23:05.183347 24960 net.cpp:219] pool5 does not need backward computation.
…
