…
2016-07-30 10:23:37.144 STDERR [INFO] I0730 10:23:37.075877 29946 net.cpp:399] data -> data
2016-07-30 10:23:37.144 STDERR [INFO] I0730 10:23:37.075881 29934 net.cpp:399] input -> frames_fc7
2016-07-30 10:23:37.144 STDERR [INFO] I0730 10:23:37.075922 29934 net.cpp:399] input -> cont_sentence
2016-07-30 10:23:37.144 STDERR [INFO] I0730 10:23:37.075937 29934 net.cpp:399] input -> input_sentence
2016-07-30 10:23:37.144 STDERR [INFO] I0730 10:23:37.075949 29934 net.cpp:399] input -> stage_indicator
2016-07-30 10:23:37.692 STDERR [INFO] I0730 10:23:37.691812 29946 net.cpp:141] Setting up data
2016-07-30 10:23:37.692 STDERR [INFO] I0730 10:23:37.691887 29946 net.cpp:148] Top shape: 10 3 227 227 (1545870)
2016-07-30 10:23:37.692 STDERR [INFO] I0730 10:23:37.691895 29946 net.cpp:156] Memory required for data: 6183480
2016-07-30 10:23:37.692 STDERR [INFO] I0730 10:23:37.691916 29946 layer_factory.hpp:77] Creating layer conv1
2016-07-30 10:23:37.693 STDERR [INFO] I0730 10:23:37.691946 29946 net.cpp:91] Creating Layer conv1
2016-07-30 10:23:37.693 STDERR [INFO] I0730 10:23:37.691956 29946 net.cpp:425] conv1 <- data
2016-07-30 10:23:37.693 STDERR [INFO] I0730 10:23:37.691947 29934 net.cpp:141] Setting up input
2016-07-30 10:23:37.693 STDERR [INFO] I0730 10:23:37.691997 29934 net.cpp:148] Top shape: 1 4096 (4096)
2016-07-30 10:23:37.693 STDERR [INFO] I0730 10:23:37.692005 29934 net.cpp:148] Top shape: 1 1 (1)
2016-07-30 10:23:37.693 STDERR [INFO] I0730 10:23:37.691970 29946 net.cpp:399] conv1 -> conv1
2016-07-30 10:23:37.693 STDERR [INFO] I0730 10:23:37.692013 29934 net.cpp:148] Top shape: 1 1 (1)
2016-07-30 10:23:37.694 STDERR [INFO] I0730 10:23:37.692030 29934 net.cpp:148] Top shape: 1 1 (1)
2016-07-30 10:23:37.694 STDERR [INFO] I0730 10:23:37.692035 29934 net.cpp:156] Memory required for data: 16396
2016-07-30 10:23:37.694 STDERR [INFO] I0730 10:23:37.692046 29934 layer_factory.hpp:77] Creating layer cont_sentence_input_1_split
2016-07-30 10:23:37.694 STDERR [INFO] I0730 10:23:37.692075 29934 net.cpp:91] Creating Layer cont_sentence_input_1_split
2016-07-30 10:23:37.694 STDERR [INFO] I0730 10:23:37.692083 29934 net.cpp:425] cont_sentence_input_1_split <- cont_sentence
2016-07-30 10:23:37.695 STDERR [INFO] I0730 10:23:37.692114 29934 net.cpp:399] cont_sentence_input_1_split -> cont_sentence_input_1_split_0
2016-07-30 10:23:37.695 STDERR [INFO] I0730 10:23:37.692128 29934 net.cpp:399] cont_sentence_input_1_split -> cont_sentence_input_1_split_1
2016-07-30 10:23:37.695 STDERR [INFO] I0730 10:23:37.692333 29934 net.cpp:141] Setting up cont_sentence_input_1_split
2016-07-30 10:23:37.695 STDERR [INFO] I0730 10:23:37.692347 29934 net.cpp:148] Top shape: 1 1 (1)
2016-07-30 10:23:37.695 STDERR [INFO] I0730 10:23:37.692353 29934 net.cpp:148] Top shape: 1 1 (1)
2016-07-30 10:23:37.695 STDERR [INFO] I0730 10:23:37.692358 29934 net.cpp:156] Memory required for data: 16404
2016-07-30 10:23:37.695 STDERR [INFO] I0730 10:23:37.692363 29934 layer_factory.hpp:77] Creating layer embed_encoder
2016-07-30 10:23:37.695 STDERR [INFO] I0730 10:23:37.692404 29934 net.cpp:91] Creating Layer embed_encoder
2016-07-30 10:23:37.696 STDERR [INFO] I0730 10:23:37.692412 29934 net.cpp:425] embed_encoder <- frames_fc7
2016-07-30 10:23:37.696 STDERR [INFO] I0730 10:23:37.692885 29934 net.cpp:399] embed_encoder -> embedded_in_frames
2016-07-30 10:23:37.720 STDERR [INFO] I0730 10:23:37.720544 29934 net.cpp:141] Setting up embed_encoder
2016-07-30 10:23:37.721 STDERR [INFO] I0730 10:23:37.720597 29934 net.cpp:148] Top shape: 1 500 (500)
2016-07-30 10:23:37.721 STDERR [INFO] I0730 10:23:37.720604 29934 net.cpp:156] Memory required for data: 18404
2016-07-30 10:23:37.721 STDERR [INFO] I0730 10:23:37.720643 29934 layer_factory.hpp:77] Creating layer reshape_frames
2016-07-30 10:23:37.721 STDERR [INFO] I0730 10:23:37.720676 29934 net.cpp:91] Creating Layer reshape_frames
2016-07-30 10:23:37.721 STDERR [INFO] I0730 10:23:37.720685 29934 net.cpp:425] reshape_frames <- embedded_in_frames
2016-07-30 10:23:37.721 STDERR [INFO] I0730 10:23:37.720696 29934 net.cpp:399] reshape_frames -> embedded_input_frames
2016-07-30 10:23:37.722 STDERR [INFO] I0730 10:23:37.722229 29934 net.cpp:141] Setting up reshape_frames
2016-07-30 10:23:37.722 STDERR [INFO] I0730 10:23:37.722249 29934 net.cpp:148] Top shape: 1 1 500 (500)
2016-07-30 10:23:37.722 STDERR [INFO] I0730 10:23:37.722255 29934 net.cpp:156] Memory required for data: 20404
2016-07-30 10:23:37.722 STDERR [INFO] I0730 10:23:37.722261 29934 layer_factory.hpp:77] Creating layer reshape_stage_indicator
2016-07-30 10:23:37.722 STDERR [INFO] I0730 10:23:37.722275 29934 net.cpp:91] Creating Layer reshape_stage_indicator
2016-07-30 10:23:37.722 STDERR [INFO] I0730 10:23:37.722281 29934 net.cpp:425] reshape_stage_indicator <- stage_indicator
2016-07-30 10:23:37.722 STDERR [INFO] I0730 10:23:37.722290 29934 net.cpp:399] reshape_stage_indicator -> reshaped_stage_indicator
2016-07-30 10:23:37.724 STDERR [INFO] I0730 10:23:37.724859 29934 net.cpp:141] Setting up reshape_stage_indicator
2016-07-30 10:23:37.725 STDERR [INFO] I0730 10:23:37.724884 29934 net.cpp:148] Top shape: 1 1 1 (1)
2016-07-30 10:23:37.725 STDERR [INFO] I0730 10:23:37.724889 29934 net.cpp:156] Memory required for data: 20408
2016-07-30 10:23:37.725 STDERR [INFO] I0730 10:23:37.724895 29934 layer_factory.hpp:77] Creating layer embedding
2016-07-30 10:23:37.726 STDERR [INFO] I0730 10:23:37.724910 29934 net.cpp:91] Creating Layer embedding
2016-07-30 10:23:37.726 STDERR [INFO] I0730 10:23:37.724915 29934 net.cpp:425] embedding <- input_sentence
2016-07-30 10:23:37.726 STDERR [INFO] I0730 10:23:37.724925 29934 net.cpp:399] embedding -> embedded_input_sentence
2016-07-30 10:23:37.975 STDERR [INFO] I0730 10:23:37.975508 29934 net.cpp:141] Setting up embedding
2016-07-30 10:23:37.976 STDERR [INFO] I0730 10:23:37.975563 29934 net.cpp:148] Top shape: 1 1 500 (500)
2016-07-30 10:23:37.976 STDERR [INFO] I0730 10:23:37.975569 29934 net.cpp:156] Memory required for data: 22408
2016-07-30 10:23:37.976 STDERR [INFO] I0730 10:23:37.975589 29934 layer_factory.hpp:77] Creating layer lstm1
2016-07-30 10:23:37.977 STDERR [INFO] I0730 10:23:37.975612 29934 net.cpp:91] Creating Layer lstm1
2016-07-30 10:23:37.977 STDERR [INFO] I0730 10:23:37.975621 29934 net.cpp:425] lstm1 <- embedded_input_frames
…
2016-07-30 10:23:37.995 STDERR [INFO] }
2016-07-30 10:23:37.995 STDERR [INFO] I0730 10:23:37.976222 29934 layer_factory.hpp:77] Creating layer lstm1_
2016-07-30 10:23:37.995 STDERR [INFO] I0730 10:23:37.976238 29934 net.cpp:91] Creating Layer lstm1_
2016-07-30 10:23:37.995 STDERR [INFO] I0730 10:23:37.976244 29934 net.cpp:399] lstm1_ -> x
2016-07-30 10:23:37.995 STDERR [INFO] I0730 10:23:37.976258 29934 net.cpp:399] lstm1_ -> cont
2016-07-30 10:23:37.995 STDERR [INFO] I0730 10:23:37.978988 29934 net.cpp:141] Setting up lstm1_
2016-07-30 10:23:37.995 STDERR [INFO] I0730 10:23:37.979009 29934 net.cpp:148] Top shape: 1 1 500 (500)
2016-07-30 10:23:37.996 STDERR [INFO] I0730 10:23:37.979017 29934 net.cpp:148] Top shape: 1 1 (1)
2016-07-30 10:23:37.996 STDERR [INFO] I0730 10:23:37.979022 29934 net.cpp:156] Memory required for data: 2004
2016-07-30 10:23:37.996 STDERR [INFO] I0730 10:23:37.979027 29934 layer_factory.hpp:77] Creating layer lstm1_
2016-07-30 10:23:37.996 STDERR [INFO] I0730 10:23:37.979044 29934 net.cpp:91] Creating Layer lstm1_
2016-07-30 10:23:37.996 STDERR [INFO] I0730 10:23:37.979053 29934 net.cpp:399] lstm1_ -> c_0
2016-07-30 10:23:37.996 STDERR [INFO] I0730 10:23:37.979065 29934 net.cpp:399] lstm1_ -> h_0
2016-07-30 10:23:37.996 STDERR [INFO] I0730 10:23:37.982235 29934 net.cpp:141] Setting up lstm1_
2016-07-30 10:23:37.996 STDERR [INFO] I0730 10:23:37.982255 29934 net.cpp:148] Top shape: 1 1 1000 (1000)
2016-07-30 10:23:37.996 STDERR [INFO] I0730 10:23:37.982262 29934 net.cpp:148] Top shape: 1 1 1000 (1000)
2016-07-30 10:23:37.996 STDERR [INFO] I0730 10:23:37.982267 29934 net.cpp:156] Memory required for data: 10004
2016-07-30 10:23:37.996 STDERR [INFO] I0730 10:23:37.982273 29934 layer_factory.hpp:77] Creating layer lstm1_cont_slice
2016-07-30 10:23:37.996 STDERR [INFO] I0730 10:23:37.982287 29934 net.cpp:91] Creating Layer lstm1_cont_slice
2016-07-30 10:23:37.997 STDERR [INFO] I0730 10:23:37.982297 29934 net.cpp:425] lstm1_cont_slice <- cont
2016-07-30 10:23:37.997 STDERR [INFO] I0730 10:23:37.982317 29934 net.cpp:399] lstm1_cont_slice -> cont_1
2016-07-30 10:23:37.997 STDERR [INFO] I0730 10:23:37.982511 29934 net.cpp:141] Setting up lstm1_cont_slice
2016-07-30 10:23:37.997 STDERR [INFO] I0730 10:23:37.982524 29934 net.cpp:148] Top shape: 1 1 (1)
2016-07-30 10:23:37.997 STDERR [INFO] I0730 10:23:37.982529 29934 net.cpp:156] Memory required for data: 10008
2016-07-30 10:23:37.997 STDERR [INFO] I0730 10:23:37.982534 29934 layer_factory.hpp:77] Creating layer cont_1_lstm1_cont_slice_0_split
2016-07-30 10:23:37.997 STDERR [INFO] I0730 10:23:37.982543 29934 net.cpp:91] Creating Layer cont_1_lstm1_cont_slice_0_split
2016-07-30 10:23:37.997 STDERR [INFO] I0730 10:23:37.982548 29934 net.cpp:425] cont_1_lstm1_cont_slice_0_split <- cont_1
2016-07-30 10:23:37.997 STDERR [INFO] I0730 10:23:37.982556 29934 net.cpp:399] cont_1_lstm1_cont_slice_0_split -> cont_1_lstm1_cont_slice_0_split_0
2016-07-30 10:23:37.997 STDERR [INFO] I0730 10:23:37.982565 29934 net.cpp:399] cont_1_lstm1_cont_slice_0_split -> cont_1_lstm1_cont_slice_0_split_1
2016-07-30 10:23:37.997 STDERR [INFO] I0730 10:23:37.988162 29934 net.cpp:141] Setting up cont_1_lstm1_cont_slice_0_split
2016-07-30 10:23:37.997 STDERR [INFO] I0730 10:23:37.988184 29934 net.cpp:148] Top shape: 1 1 (1)
2016-07-30 10:23:37.998 STDERR [INFO] I0730 10:23:37.988191 29934 net.cpp:148] Top shape: 1 1 (1)
2016-07-30 10:23:37.998 STDERR [INFO] I0730 10:23:37.988195 29934 net.cpp:156] Memory required for data: 10016
2016-07-30 10:23:37.998 STDERR [INFO] I0730 10:23:37.988201 29934 layer_factory.hpp:77] Creating layer lstm1_x_transform
2016-07-30 10:23:37.998 STDERR [INFO] I0730 10:23:37.988230 29934 net.cpp:91] Creating Layer lstm1_x_transform
2016-07-30 10:23:37.998 STDERR [INFO] I0730 10:23:37.988236 29934 net.cpp:425] lstm1_x_transform <- x
2016-07-30 10:23:37.998 STDERR [INFO] I0730 10:23:37.988246 29934 net.cpp:399] lstm1_x_transform -> W_xc_x
2016-07-30 10:23:38.016 STDERR [INFO] I0730 10:23:38.016686 29934 net.cpp:141] Setting up lstm1_x_transform
2016-07-30 10:23:38.017 STDERR [INFO] I0730 10:23:38.016733 29934 net.cpp:148] Top shape: 1 1 4000 (4000)
2016-07-30 10:23:38.017 STDERR [INFO] I0730 10:23:38.016739 29934 net.cpp:156] Memory required for data: 26016
2016-07-30 10:23:38.017 STDERR [INFO] I0730 10:23:38.016762 29934 layer_factory.hpp:77] Creating layer lstm1_W_xc_x_slice
2016-07-30 10:23:38.017 STDERR [INFO] I0730 10:23:38.016778 29934 net.cpp:91] Creating Layer lstm1_W_xc_x_slice
2016-07-30 10:23:38.017 STDERR [INFO] I0730 10:23:38.016787 29934 net.cpp:425] lstm1_W_xc_x_slice <- W_xc_x
2016-07-30 10:23:38.017 STDERR [INFO] I0730 10:23:38.016796 29934 net.cpp:399] lstm1_W_xc_x_slice -> W_xc_x_1
2016-07-30 10:23:38.018 STDERR [INFO] I0730 10:23:38.018103 29934 net.cpp:141] Setting up lstm1_W_xc_x_slice
2016-07-30 10:23:38.018 STDERR [INFO] I0730 10:23:38.018126 29934 net.cpp:148] Top shape: 1 1 4000 (4000)
2016-07-30 10:23:38.018 STDERR [INFO] I0730 10:23:38.018132 29934 net.cpp:156] Memory required for data: 42016
2016-07-30 10:23:38.018 STDERR [INFO] I0730 10:23:38.018138 29934 layer_factory.hpp:77] Creating layer lstm1_h_conted_0
2016-07-30 10:23:38.018 STDERR [INFO] I0730 10:23:38.018162 29934 net.cpp:91] Creating Layer lstm1_h_conted_0
2016-07-30 10:23:38.018 STDERR [INFO] I0730 10:23:38.018168 29934 net.cpp:425] lstm1_h_conted_0 <- h_0
2016-07-30 10:23:38.018 STDERR [INFO] I0730 10:23:38.018175 29934 net.cpp:425] lstm1_h_conted_0 <- cont_1_lstm1_cont_slice_0_split_0
2016-07-30 10:23:38.018 STDERR [INFO] I0730 10:23:38.018184 29934 net.cpp:399] lstm1_h_conted_0 -> h_conted_0
2016-07-30 10:23:38.018 STDERR [INFO] I0730 10:23:38.018458 29934 net.cpp:141] Setting up lstm1_h_conted_0
2016-07-30 10:23:38.019 STDERR [INFO] I0730 10:23:38.018471 29934 net.cpp:148] Top shape: 1 1 1000 (1000)
2016-07-30 10:23:38.019 STDERR [INFO] I0730 10:23:38.018476 29934 net.cpp:156] Memory required for data: 46016
2016-07-30 10:23:38.019 STDERR [INFO] I0730 10:23:38.018481 29934 layer_factory.hpp:77] Creating layer lstm1_transform_1
2016-07-30 10:23:38.019 STDERR [INFO] I0730 10:23:38.018496 29934 net.cpp:91] Creating Layer lstm1_transform_1
2016-07-30 10:23:38.019 STDERR [INFO] I0730 10:23:38.018501 29934 net.cpp:425] lstm1_transform_1 <- h_conted_0
2016-07-30 10:23:38.019 STDERR [INFO] I0730 10:23:38.018510 29934 net.cpp:399] lstm1_transform_1 -> W_hc_h_0
2016-07-30 10:23:38.050 STDERR [INFO] I0730 10:23:38.049805 29946 net.cpp:141] Setting up conv1
2016-07-30 10:23:38.050 STDERR [INFO] I0730 10:23:38.049876 29946 net.cpp:148] Top shape: 10 96 55 55 (2904000)
2016-07-30 10:23:38.050 STDERR [INFO] I0730 10:23:38.049883 29946 net.cpp:156] Memory required for data: 17799480
2016-07-30 10:23:38.050 STDERR [INFO] I0730 10:23:38.049917 29946 layer_factory.hpp:77] Creating layer relu1
2016-07-30 10:23:38.050 STDERR [INFO] I0730 10:23:38.049943 29946 net.cpp:91] Creating Layer relu1
2016-07-30 10:23:38.051 STDERR [INFO] I0730 10:23:38.049952 29946 net.cpp:425] relu1 <- conv1
2016-07-30 10:23:38.051 STDERR [INFO] I0730 10:23:38.049970 29946 net.cpp:386] relu1 -> conv1 (in-place)
2016-07-30 10:23:38.051 STDERR [INFO] I0730 10:23:38.050881 29946 net.cpp:141] Setting up relu1
2016-07-30 10:23:38.051 STDERR [INFO] I0730 10:23:38.050899 29946 net.cpp:148] Top shape: 10 96 55 55 (2904000)
2016-07-30 10:23:38.051 STDERR [INFO] I0730 10:23:38.050904 29946 net.cpp:156] Memory required for data: 29415480
2016-07-30 10:23:38.051 STDERR [INFO] I0730 10:23:38.050910 29946 layer_factory.hpp:77] Creating layer pool1
2016-07-30 10:23:38.051 STDERR [INFO] I0730 10:23:38.050925 29946 net.cpp:91] Creating Layer pool1
2016-07-30 10:23:38.051 STDERR [INFO] I0730 10:23:38.050930 29946 net.cpp:425] pool1 <- conv1
2016-07-30 10:23:38.051 STDERR [INFO] I0730 10:23:38.050945 29946 net.cpp:399] pool1 -> pool1
2016-07-30 10:23:38.051 STDERR [INFO] I0730 10:23:38.051033 29946 net.cpp:141] Setting up pool1
2016-07-30 10:23:38.052 STDERR [INFO] I0730 10:23:38.051043 29946 net.cpp:148] Top shape: 10 96 27 27 (699840)
2016-07-30 10:23:38.052 STDERR [INFO] I0730 10:23:38.051048 29946 net.cpp:156] Memory required for data: 32214840
2016-07-30 10:23:38.052 STDERR [INFO] I0730 10:23:38.051054 29946 layer_factory.hpp:77] Creating layer norm1
2016-07-30 10:23:38.052 STDERR [INFO] I0730 10:23:38.051089 29946 net.cpp:91] Creating Layer norm1
2016-07-30 10:23:38.052 STDERR [INFO] I0730 10:23:38.051095 29946 net.cpp:425] norm1 <- pool1
2016-07-30 10:23:38.052 STDERR [INFO] I0730 10:23:38.051101 29946 net.cpp:399] norm1 -> norm1
2016-07-30 10:23:38.052 STDERR [INFO] I0730 10:23:38.052005 29946 net.cpp:141] Setting up norm1
2016-07-30 10:23:38.052 STDERR [INFO] I0730 10:23:38.052021 29946 net.cpp:148] Top shape: 10 96 27 27 (699840)
2016-07-30 10:23:38.052 STDERR [INFO] I0730 10:23:38.052026 29946 net.cpp:156] Memory required for data: 35014200
2016-07-30 10:23:38.052 STDERR [INFO] I0730 10:23:38.052031 29946 layer_factory.hpp:77] Creating layer conv2
2016-07-30 10:23:38.052 STDERR [INFO] I0730 10:23:38.052053 29946 net.cpp:91] Creating Layer conv2
2016-07-30 10:23:38.053 STDERR [INFO] I0730 10:23:38.052059 29946 net.cpp:425] conv2 <- norm1
2016-07-30 10:23:38.053 STDERR [INFO] I0730 10:23:38.052067 29946 net.cpp:399] conv2 -> conv2
2016-07-30 10:23:38.057 STDERR [INFO] I0730 10:23:38.057292 29946 net.cpp:141] Setting up conv2
2016-07-30 10:23:38.057 STDERR [INFO] I0730 10:23:38.057332 29946 net.cpp:148] Top shape: 10 256 27 27 (1866240)
2016-07-30 10:23:38.057 STDERR [INFO] I0730 10:23:38.057339 29946 net.cpp:156] Memory required for data: 42479160
2016-07-30 10:23:38.057 STDERR [INFO] I0730 10:23:38.057361 29946 layer_factory.hpp:77] Creating layer relu2
2016-07-30 10:23:38.057 STDERR [INFO] I0730 10:23:38.057379 29946 net.cpp:91] Creating Layer relu2
2016-07-30 10:23:38.058 STDERR [INFO] I0730 10:23:38.057384 29946 net.cpp:425] relu2 <- conv2
2016-07-30 10:23:38.058 STDERR [INFO] I0730 10:23:38.057397 29946 net.cpp:386] relu2 -> conv2 (in-place)
2016-07-30 10:23:38.058 STDERR [INFO] I0730 10:23:38.058250 29946 net.cpp:141] Setting up relu2
2016-07-30 10:23:38.058 STDERR [INFO] I0730 10:23:38.058269 29946 net.cpp:148] Top shape: 10 256 27 27 (1866240)
2016-07-30 10:23:38.058 STDERR [INFO] I0730 10:23:38.058274 29946 net.cpp:156] Memory required for data: 49944120
2016-07-30 10:23:38.058 STDERR [INFO] I0730 10:23:38.058280 29946 layer_factory.hpp:77] Creating layer pool2
2016-07-30 10:23:38.058 STDERR [INFO] I0730 10:23:38.058300 29946 net.cpp:91] Creating Layer pool2
2016-07-30 10:23:38.058 STDERR [INFO] I0730 10:23:38.058305 29946 net.cpp:425] pool2 <- conv2
2016-07-30 10:23:38.058 STDERR [INFO] I0730 10:23:38.058315 29946 net.cpp:399] pool2 -> pool2
2016-07-30 10:23:38.058 STDERR [INFO] I0730 10:23:38.058387 29946 net.cpp:141] Setting up pool2
2016-07-30 10:23:38.059 STDERR [INFO] I0730 10:23:38.058398 29946 net.cpp:148] Top shape: 10 256 13 13 (432640)
2016-07-30 10:23:38.059 STDERR [INFO] I0730 10:23:38.058403 29946 net.cpp:156] Memory required for data: 51674680
2016-07-30 10:23:38.059 STDERR [INFO] I0730 10:23:38.058408 29946 layer_factory.hpp:77] Creating layer norm2
2016-07-30 10:23:38.059 STDERR [INFO] I0730 10:23:38.058423 29946 net.cpp:91] Creating Layer norm2
2016-07-30 10:23:38.059 STDERR [INFO] I0730 10:23:38.058429 29946 net.cpp:425] norm2 <- pool2
2016-07-30 10:23:38.059 STDERR [INFO] I0730 10:23:38.058436 29946 net.cpp:399] norm2 -> norm2
2016-07-30 10:23:38.059 STDERR [INFO] I0730 10:23:38.058755 29946 net.cpp:141] Setting up norm2
2016-07-30 10:23:38.059 STDERR [INFO] I0730 10:23:38.058769 29946 net.cpp:148] Top shape: 10 256 13 13 (432640)
2016-07-30 10:23:38.059 STDERR [INFO] I0730 10:23:38.058774 29946 net.cpp:156] Memory required for data: 53405240
2016-07-30 10:23:38.059 STDERR [INFO] I0730 10:23:38.058779 29946 layer_factory.hpp:77] Creating layer conv3
2016-07-30 10:23:38.059 STDERR [INFO] I0730 10:23:38.058805 29946 net.cpp:91] Creating Layer conv3
2016-07-30 10:23:38.060 STDERR [INFO] I0730 10:23:38.058811 29946 net.cpp:425] conv3 <- norm2
2016-07-30 10:23:38.060 STDERR [INFO] I0730 10:23:38.058818 29946 net.cpp:399] conv3 -> conv3
2016-07-30 10:23:38.064 STDERR [INFO] I0730 10:23:38.064462 29946 net.cpp:141] Setting up conv3
2016-07-30 10:23:38.064 STDERR [INFO] I0730 10:23:38.064489 29946 net.cpp:148] Top shape: 10 384 13 13 (648960)
2016-07-30 10:23:38.065 STDERR [INFO] I0730 10:23:38.064496 29946 net.cpp:156] Memory required for data: 56001080
2016-07-30 10:23:38.065 STDERR [INFO] I0730 10:23:38.064513 29946 layer_factory.hpp:77] Creating layer relu3
2016-07-30 10:23:38.065 STDERR [INFO] I0730 10:23:38.064525 29946 net.cpp:91] Creating Layer relu3
2016-07-30 10:23:38.065 STDERR [INFO] I0730 10:23:38.064530 29946 net.cpp:425] relu3 <- conv3
2016-07-30 10:23:38.065 STDERR [INFO] I0730 10:23:38.064543 29946 net.cpp:386] relu3 -> conv3 (in-place)
2016-07-30 10:23:38.066 STDERR [INFO] I0730 10:23:38.065351 29946 net.cpp:141] Setting up relu3
2016-07-30 10:23:38.066 STDERR [INFO] I0730 10:23:38.065366 29946 net.cpp:148] Top shape: 10 384 13 13 (648960)
2016-07-30 10:23:38.066 STDERR [INFO] I0730 10:23:38.065371 29946 net.cpp:156] Memory required for data: 58596920
2016-07-30 10:23:38.066 STDERR [INFO] I0730 10:23:38.065377 29946 layer_factory.hpp:77] Creating layer conv4
2016-07-30 10:23:38.066 STDERR [INFO] I0730 10:23:38.065394 29946 net.cpp:91] Creating Layer conv4
2016-07-30 10:23:38.066 STDERR [INFO] I0730 10:23:38.065400 29946 net.cpp:425] conv4 <- conv3
2016-07-30 10:23:38.066 STDERR [INFO] I0730 10:23:38.065412 29946 net.cpp:399] conv4 -> conv4
2016-07-30 10:23:38.068 STDERR [INFO] I0730 10:23:38.067931 29934 net.cpp:141] Setting up lstm1_transform_1
2016-07-30 10:23:38.068 STDERR [INFO] I0730 10:23:38.067960 29934 net.cpp:148] Top shape: 1 1 4000 (4000)
2016-07-30 10:23:38.068 STDERR [INFO] I0730 10:23:38.067965 29934 net.cpp:156] Memory required for data: 62016
2016-07-30 10:23:38.068 STDERR [INFO] I0730 10:23:38.067981 29934 layer_factory.hpp:77] Creating layer lstm1_gate_input_1
2016-07-30 10:23:38.068 STDERR [INFO] I0730 10:23:38.068001 29934 net.cpp:91] Creating Layer lstm1_gate_input_1
2016-07-30 10:23:38.068 STDERR [INFO] I0730 10:23:38.068008 29934 net.cpp:425] lstm1_gate_input_1 <- W_hc_h_0
2016-07-30 10:23:38.068 STDERR [INFO] I0730 10:23:38.068017 29934 net.cpp:425] lstm1_gate_input_1 <- W_xc_x_1
2016-07-30 10:23:38.068 STDERR [INFO] I0730 10:23:38.068025 29934 net.cpp:399] lstm1_gate_input_1 -> gate_input_1
2016-07-30 10:23:38.068 STDERR [INFO] I0730 10:23:38.068238 29934 net.cpp:141] Setting up lstm1_gate_input_1
2016-07-30 10:23:38.069 STDERR [INFO] I0730 10:23:38.068249 29934 net.cpp:148] Top shape: 1 1 4000 (4000)
2016-07-30 10:23:38.069 STDERR [INFO] I0730 10:23:38.068254 29934 net.cpp:156] Memory required for data: 78016
2016-07-30 10:23:38.069 STDERR [INFO] I0730 10:23:38.068259 29934 layer_factory.hpp:77] Creating layer lstm1_unit_1
2016-07-30 10:23:38.069 STDERR [INFO] I0730 10:23:38.068275 29934 net.cpp:91] Creating Layer lstm1_unit_1
2016-07-30 10:23:38.069 STDERR [INFO] I0730 10:23:38.068281 29934 net.cpp:425] lstm1_unit_1 <- c_0
2016-07-30 10:23:38.069 STDERR [INFO] I0730 10:23:38.068289 29934 net.cpp:425] lstm1_unit_1 <- gate_input_1
2016-07-30 10:23:38.069 STDERR [INFO] I0730 10:23:38.068294 29934 net.cpp:425] lstm1_unit_1 <- cont_1_lstm1_cont_slice_0_split_1
2016-07-30 10:23:38.069 STDERR [INFO] I0730 10:23:38.068305 29934 net.cpp:399] lstm1_unit_1 -> c_1
2016-07-30 10:23:38.069 STDERR [INFO] I0730 10:23:38.068315 29934 net.cpp:399] lstm1_unit_1 -> h_1
2016-07-30 10:23:38.069 STDERR [INFO] I0730 10:23:38.068409 29934 net.cpp:141] Setting up lstm1_unit_1
2016-07-30 10:23:38.069 STDERR [INFO] I0730 10:23:38.068420 29934 net.cpp:148] Top shape: 1 1 1000 (1000)
2016-07-30 10:23:38.069 STDERR [INFO] I0730 10:23:38.068428 29934 net.cpp:148] Top shape: 1 1 1000 (1000)
2016-07-30 10:23:38.070 STDERR [INFO] I0730 10:23:38.068433 29934 net.cpp:156] Memory required for data: 86016
2016-07-30 10:23:38.070 STDERR [INFO] I0730 10:23:38.068437 29934 layer_factory.hpp:77] Creating layer lstm1_
2016-07-30 10:23:38.070 STDERR [INFO] I0730 10:23:38.068459 29934 net.cpp:91] Creating Layer lstm1_
2016-07-30 10:23:38.070 STDERR [INFO] I0730 10:23:38.068464 29934 net.cpp:425] lstm1_ <- c_1
2016-07-30 10:23:38.070 STDERR [INFO] I0730 10:23:38.068473 29934 net.cpp:399] lstm1_ -> c_T
2016-07-30 10:23:38.070 STDERR [INFO] I0730 10:23:38.069226 29934 net.cpp:141] Setting up lstm1_
2016-07-30 10:23:38.070 STDERR [INFO] I0730 10:23:38.069238 29934 net.cpp:148] Top shape: 1 1 1000 (1000)
2016-07-30 10:23:38.070 STDERR [INFO] I0730 10:23:38.069243 29934 net.cpp:156] Memory required for data: 90016
2016-07-30 10:23:38.070 STDERR [INFO] I0730 10:23:38.069248 29934 layer_factory.hpp:77] Creating layer lstm1_h_concat
2016-07-30 10:23:38.071 STDERR [INFO] I0730 10:23:38.069259 29934 net.cpp:91] Creating Layer lstm1_h_concat
2016-07-30 10:23:38.071 STDERR [INFO] I0730 10:23:38.069264 29934 net.cpp:425] lstm1_h_concat <- h_1
2016-07-30 10:23:38.071 STDERR [INFO] I0730 10:23:38.069281 29934 net.cpp:399] lstm1_h_concat -> h
2016-07-30 10:23:38.071 STDERR [INFO] I0730 10:23:38.069355 29934 net.cpp:141] Setting up lstm1_h_concat
2016-07-30 10:23:38.071 STDERR [INFO] I0730 10:23:38.069370 29934 net.cpp:148] Top shape: 1 1 1000 (1000)
2016-07-30 10:23:38.071 STDERR [INFO] I0730 10:23:38.069375 29934 net.cpp:156] Memory required for data: 94016
2016-07-30 10:23:38.071 STDERR [INFO] I0730 10:23:38.069380 29934 layer_factory.hpp:77] Creating layer h_pseudoloss
2016-07-30 10:23:38.071 STDERR [INFO] I0730 10:23:38.069396 29934 net.cpp:91] Creating Layer h_pseudoloss
2016-07-30 10:23:38.071 STDERR [INFO] I0730 10:23:38.069402 29934 net.cpp:425] h_pseudoloss <- h
…
2016-07-30 10:23:38.088 STDERR [INFO] }
2016-07-30 10:23:38.088 STDERR [INFO] I0730 10:23:38.071882 29934 layer_factory.hpp:77] Creating layer lstm2_
2016-07-30 10:23:38.088 STDERR [INFO] I0730 10:23:38.071895 29934 net.cpp:91] Creating Layer lstm2_
2016-07-30 10:23:38.088 STDERR [INFO] I0730 10:23:38.071902 29934 net.cpp:399] lstm2_ -> x
2016-07-30 10:23:38.088 STDERR [INFO] I0730 10:23:38.071902 29946 net.cpp:141] Setting up conv4
2016-07-30 10:23:38.088 STDERR [INFO] I0730 10:23:38.071915 29934 net.cpp:399] lstm2_ -> cont
2016-07-30 10:23:38.088 STDERR [INFO] I0730 10:23:38.071920 29946 net.cpp:148] Top shape: 10 384 13 13 (648960)
2016-07-30 10:23:38.088 STDERR [INFO] I0730 10:23:38.071926 29946 net.cpp:156] Memory required for data: 61192760
2016-07-30 10:23:38.088 STDERR [INFO] I0730 10:23:38.071936 29946 layer_factory.hpp:77] Creating layer relu4
2016-07-30 10:23:38.088 STDERR [INFO] I0730 10:23:38.071949 29946 net.cpp:91] Creating Layer relu4
2016-07-30 10:23:38.089 STDERR [INFO] I0730 10:23:38.071955 29946 net.cpp:425] relu4 <- conv4
2016-07-30 10:23:38.089 STDERR [INFO] I0730 10:23:38.071962 29946 net.cpp:386] relu4 -> conv4 (in-place)
2016-07-30 10:23:38.089 STDERR [INFO] I0730 10:23:38.071985 29934 net.cpp:141] Setting up lstm2_
2016-07-30 10:23:38.089 STDERR [INFO] I0730 10:23:38.071996 29934 net.cpp:148] Top shape: 1 1 1501 (1501)
2016-07-30 10:23:38.089 STDERR [INFO] I0730 10:23:38.072003 29934 net.cpp:148] Top shape: 1 1 (1)
2016-07-30 10:23:38.089 STDERR [INFO] I0730 10:23:38.072007 29934 net.cpp:156] Memory required for data: 6008
2016-07-30 10:23:38.089 STDERR [INFO] I0730 10:23:38.072012 29934 layer_factory.hpp:77] Creating layer lstm2_
2016-07-30 10:23:38.089 STDERR [INFO] I0730 10:23:38.072027 29934 net.cpp:91] Creating Layer lstm2_
2016-07-30 10:23:38.089 STDERR [INFO] I0730 10:23:38.072034 29934 net.cpp:399] lstm2_ -> c_0
2016-07-30 10:23:38.089 STDERR [INFO] I0730 10:23:38.072046 29934 net.cpp:399] lstm2_ -> h_0
2016-07-30 10:23:38.089 STDERR [INFO] I0730 10:23:38.072747 29934 net.cpp:141] Setting up lstm2_
2016-07-30 10:23:38.089 STDERR [INFO] I0730 10:23:38.072760 29934 net.cpp:148] Top shape: 1 1 1000 (1000)
2016-07-30 10:23:38.089 STDERR [INFO] I0730 10:23:38.072767 29934 net.cpp:148] Top shape: 1 1 1000 (1000)
2016-07-30 10:23:38.090 STDERR [INFO] I0730 10:23:38.072772 29934 net.cpp:156] Memory required for data: 14008
2016-07-30 10:23:38.090 STDERR [INFO] I0730 10:23:38.072777 29934 layer_factory.hpp:77] Creating layer lstm2_cont_slice
2016-07-30 10:23:38.090 STDERR [INFO] I0730 10:23:38.072785 29934 net.cpp:91] Creating Layer lstm2_cont_slice
2016-07-30 10:23:38.090 STDERR [INFO] I0730 10:23:38.072791 29934 net.cpp:425] lstm2_cont_slice <- cont
2016-07-30 10:23:38.090 STDERR [INFO] I0730 10:23:38.072799 29934 net.cpp:399] lstm2_cont_slice -> cont_1
2016-07-30 10:23:38.090 STDERR [INFO] I0730 10:23:38.072863 29934 net.cpp:141] Setting up lstm2_cont_slice
2016-07-30 10:23:38.090 STDERR [INFO] I0730 10:23:38.072875 29934 net.cpp:148] Top shape: 1 1 (1)
2016-07-30 10:23:38.090 STDERR [INFO] I0730 10:23:38.072871 29946 net.cpp:141] Setting up relu4
2016-07-30 10:23:38.090 STDERR [INFO] I0730 10:23:38.072882 29934 net.cpp:156] Memory required for data: 14012
2016-07-30 10:23:38.090 STDERR [INFO] I0730 10:23:38.072896 29934 layer_factory.hpp:77] Creating layer cont_1_lstm2_cont_slice_0_split
2016-07-30 10:23:38.090 STDERR [INFO] I0730 10:23:38.072896 29946 net.cpp:148] Top shape: 10 384 13 13 (648960)
2016-07-30 10:23:38.090 STDERR [INFO] I0730 10:23:38.072903 29934 net.cpp:91] Creating Layer cont_1_lstm2_cont_slice_0_split
2016-07-30 10:23:38.091 STDERR [INFO] I0730 10:23:38.072906 29946 net.cpp:156] Memory required for data: 63788600
2016-07-30 10:23:38.091 STDERR [INFO] I0730 10:23:38.072908 29934 net.cpp:425] cont_1_lstm2_cont_slice_0_split <- cont_1
2016-07-30 10:23:38.091 STDERR [INFO] I0730 10:23:38.072912 29946 layer_factory.hpp:77] Creating layer conv5
2016-07-30 10:23:38.091 STDERR [INFO] I0730 10:23:38.072919 29934 net.cpp:399] cont_1_lstm2_cont_slice_0_split -> cont_1_lstm2_cont_slice_0_split_0
2016-07-30 10:23:38.091 STDERR [INFO] I0730 10:23:38.072926 29946 net.cpp:91] Creating Layer conv5
2016-07-30 10:23:38.091 STDERR [INFO] I0730 10:23:38.072928 29934 net.cpp:399] cont_1_lstm2_cont_slice_0_split -> cont_1_lstm2_cont_slice_0_split_1
2016-07-30 10:23:38.091 STDERR [INFO] I0730 10:23:38.072932 29946 net.cpp:425] conv5 <- conv4
2016-07-30 10:23:38.091 STDERR [INFO] I0730 10:23:38.072944 29946 net.cpp:399] conv5 -> conv5
2016-07-30 10:23:38.091 STDERR [INFO] I0730 10:23:38.073168 29934 net.cpp:141] Setting up cont_1_lstm2_cont_slice_0_split
2016-07-30 10:23:38.091 STDERR [INFO] I0730 10:23:38.073181 29934 net.cpp:148] Top shape: 1 1 (1)
2016-07-30 10:23:38.092 STDERR [INFO] I0730 10:23:38.073189 29934 net.cpp:148] Top shape: 1 1 (1)
2016-07-30 10:23:38.092 STDERR [INFO] I0730 10:23:38.073192 29934 net.cpp:156] Memory required for data: 14020
2016-07-30 10:23:38.092 STDERR [INFO] I0730 10:23:38.073197 29934 layer_factory.hpp:77] Creating layer lstm2_x_transform
2016-07-30 10:23:38.092 STDERR [INFO] I0730 10:23:38.073209 29934 net.cpp:91] Creating Layer lstm2_x_transform
2016-07-30 10:23:38.092 STDERR [INFO] I0730 10:23:38.073213 29934 net.cpp:425] lstm2_x_transform <- x
2016-07-30 10:23:38.092 STDERR [INFO] I0730 10:23:38.073226 29934 net.cpp:399] lstm2_x_transform -> W_xc_x
2016-07-30 10:23:38.093 STDERR [INFO] I0730 10:23:38.092972 29946 net.cpp:141] Setting up conv5
2016-07-30 10:23:38.093 STDERR [INFO] I0730 10:23:38.093029 29946 net.cpp:148] Top shape: 10 256 13 13 (432640)
2016-07-30 10:23:38.093 STDERR [INFO] I0730 10:23:38.093035 29946 net.cpp:156] Memory required for data: 65519160
2016-07-30 10:23:38.093 STDERR [INFO] I0730 10:23:38.093068 29946 layer_factory.hpp:77] Creating layer relu5
2016-07-30 10:23:38.093 STDERR [INFO] I0730 10:23:38.093089 29946 net.cpp:91] Creating Layer relu5
2016-07-30 10:23:38.093 STDERR [INFO] I0730 10:23:38.093097 29946 net.cpp:425] relu5 <- conv5
2016-07-30 10:23:38.093 STDERR [INFO] I0730 10:23:38.093107 29946 net.cpp:386] relu5 -> conv5 (in-place)
2016-07-30 10:23:38.094 STDERR [INFO] I0730 10:23:38.093955 29946 net.cpp:141] Setting up relu5
2016-07-30 10:23:38.094 STDERR [INFO] I0730 10:23:38.093973 29946 net.cpp:148] Top shape: 10 256 13 13 (432640)
2016-07-30 10:23:38.094 STDERR [INFO] I0730 10:23:38.093979 29946 net.cpp:156] Memory required for data: 67249720
2016-07-30 10:23:38.094 STDERR [INFO] I0730 10:23:38.093986 29946 layer_factory.hpp:77] Creating layer pool5
2016-07-30 10:23:38.094 STDERR [INFO] I0730 10:23:38.093998 29946 net.cpp:91] Creating Layer pool5
2016-07-30 10:23:38.094 STDERR [INFO] I0730 10:23:38.094003 29946 net.cpp:425] pool5 <- conv5
2016-07-30 10:23:38.094 STDERR [INFO] I0730 10:23:38.094012 29946 net.cpp:399] pool5 -> pool5
2016-07-30 10:23:38.094 STDERR [INFO] I0730 10:23:38.094091 29946 net.cpp:141] Setting up pool5
2016-07-30 10:23:38.094 STDERR [INFO] I0730 10:23:38.094102 29946 net.cpp:148] Top shape: 10 256 6 6 (92160)
2016-07-30 10:23:38.094 STDERR [INFO] I0730 10:23:38.094107 29946 net.cpp:156] Memory required for data: 67618360
2016-07-30 10:23:38.094 STDERR [INFO] I0730 10:23:38.094112 29946 layer_factory.hpp:77] Creating layer fc6
2016-07-30 10:23:38.095 STDERR [INFO] I0730 10:23:38.094131 29946 net.cpp:91] Creating Layer fc6
2016-07-30 10:23:38.095 STDERR [INFO] I0730 10:23:38.094137 29946 net.cpp:425] fc6 <- pool5
2016-07-30 10:23:38.095 STDERR [INFO] I0730 10:23:38.094144 29946 net.cpp:399] fc6 -> fc6
2016-07-30 10:23:38.166 STDERR [INFO] I0730 10:23:38.166231 29934 net.cpp:141] Setting up lstm2_x_transform
2016-07-30 10:23:38.166 STDERR [INFO] I0730 10:23:38.166283 29934 net.cpp:148] Top shape: 1 1 4000 (4000)
2016-07-30 10:23:38.166 STDERR [INFO] I0730 10:23:38.166290 29934 net.cpp:156] Memory required for data: 30020
2016-07-30 10:23:38.167 STDERR [INFO] I0730 10:23:38.166313 29934 layer_factory.hpp:77] Creating layer lstm2_W_xc_x_slice
2016-07-30 10:23:38.167 STDERR [INFO] I0730 10:23:38.166329 29934 net.cpp:91] Creating Layer lstm2_W_xc_x_slice
2016-07-30 10:23:38.167 STDERR [INFO] I0730 10:23:38.166337 29934 net.cpp:425] lstm2_W_xc_x_slice <- W_xc_x
2016-07-30 10:23:38.167 STDERR [INFO] I0730 10:23:38.166349 29934 net.cpp:399] lstm2_W_xc_x_slice -> W_xc_x_1
2016-07-30 10:23:38.167 STDERR [INFO] I0730 10:23:38.166405 29934 net.cpp:141] Setting up lstm2_W_xc_x_slice
2016-07-30 10:23:38.167 STDERR [INFO] I0730 10:23:38.166417 29934 net.cpp:148] Top shape: 1 1 4000 (4000)
2016-07-30 10:23:38.167 STDERR [INFO] I0730 10:23:38.166422 29934 net.cpp:156] Memory required for data: 46020
2016-07-30 10:23:38.168 STDERR [INFO] I0730 10:23:38.166427 29934 layer_factory.hpp:77] Creating layer lstm2_h_conted_0
2016-07-30 10:23:38.168 STDERR [INFO] I0730 10:23:38.166440 29934 net.cpp:91] Creating Layer lstm2_h_conted_0
2016-07-30 10:23:38.168 STDERR [INFO] I0730 10:23:38.166445 29934 net.cpp:425] lstm2_h_conted_0 <- h_0
2016-07-30 10:23:38.168 STDERR [INFO] I0730 10:23:38.166452 29934 net.cpp:425] lstm2_h_conted_0 <- cont_1_lstm2_cont_slice_0_split_0
2016-07-30 10:23:38.168 STDERR [INFO] I0730 10:23:38.166460 29934 net.cpp:399] lstm2_h_conted_0 -> h_conted_0
2016-07-30 10:23:38.168 STDERR [INFO] I0730 10:23:38.166568 29934 net.cpp:141] Setting up lstm2_h_conted_0
2016-07-30 10:23:38.168 STDERR [INFO] I0730 10:23:38.166577 29934 net.cpp:148] Top shape: 1 1 1000 (1000)
2016-07-30 10:23:38.168 STDERR [INFO] I0730 10:23:38.166582 29934 net.cpp:156] Memory required for data: 50020
2016-07-30 10:23:38.168 STDERR [INFO] I0730 10:23:38.166587 29934 layer_factory.hpp:77] Creating layer lstm2_transform_1
2016-07-30 10:23:38.168 STDERR [INFO] I0730 10:23:38.166601 29934 net.cpp:91] Creating Layer lstm2_transform_1
2016-07-30 10:23:38.168 STDERR [INFO] I0730 10:23:38.166607 29934 net.cpp:425] lstm2_transform_1 <- h_conted_0
2016-07-30 10:23:38.169 STDERR [INFO] I0730 10:23:38.166620 29934 net.cpp:399] lstm2_transform_1 -> W_hc_h_0
2016-07-30 10:23:38.210 STDERR [INFO] I0730 10:23:38.209833 29946 net.cpp:141] Setting up fc6
2016-07-30 10:23:38.210 STDERR [INFO] I0730 10:23:38.209900 29946 net.cpp:148] Top shape: 10 4096 (40960)
2016-07-30 10:23:38.210 STDERR [INFO] I0730 10:23:38.209908 29946 net.cpp:156] Memory required for data: 67782200
2016-07-30 10:23:38.210 STDERR [INFO] I0730 10:23:38.209928 29946 layer_factory.hpp:77] Creating layer relu6
2016-07-30 10:23:38.210 STDERR [INFO] I0730 10:23:38.210002 29946 net.cpp:91] Creating Layer relu6
2016-07-30 10:23:38.210 STDERR [INFO] I0730 10:23:38.210011 29946 net.cpp:425] relu6 <- fc6
2016-07-30 10:23:38.210 STDERR [INFO] I0730 10:23:38.210027 29946 net.cpp:386] relu6 -> fc6 (in-place)
2016-07-30 10:23:38.211 STDERR [INFO] I0730 10:23:38.210567 29946 net.cpp:141] Setting up relu6
2016-07-30 10:23:38.211 STDERR [INFO] I0730 10:23:38.210582 29946 net.cpp:148] Top shape: 10 4096 (40960)
2016-07-30 10:23:38.211 STDERR [INFO] I0730 10:23:38.210589 29946 net.cpp:156] Memory required for data: 67946040
2016-07-30 10:23:38.211 STDERR [INFO] I0730 10:23:38.210598 29946 layer_factory.hpp:77] Creating layer drop6
2016-07-30 10:23:38.211 STDERR [INFO] I0730 10:23:38.210644 29946 net.cpp:91] Creating Layer drop6
2016-07-30 10:23:38.211 STDERR [INFO] I0730 10:23:38.210650 29946 net.cpp:425] drop6 <- fc6
2016-07-30 10:23:38.211 STDERR [INFO] I0730 10:23:38.210657 29946 net.cpp:386] drop6 -> fc6 (in-place)
2016-07-30 10:23:38.211 STDERR [INFO] I0730 10:23:38.210752 29946 net.cpp:141] Setting up drop6
2016-07-30 10:23:38.211 STDERR [INFO] I0730 10:23:38.210764 29946 net.cpp:148] Top shape: 10 4096 (40960)
2016-07-30 10:23:38.211 STDERR [INFO] I0730 10:23:38.210769 29946 net.cpp:156] Memory required for data: 68109880
2016-07-30 10:23:38.211 STDERR [INFO] I0730 10:23:38.210775 29946 layer_factory.hpp:77] Creating layer fc7
2016-07-30 10:23:38.211 STDERR [INFO] I0730 10:23:38.210801 29946 net.cpp:91] Creating Layer fc7
2016-07-30 10:23:38.212 STDERR [INFO] I0730 10:23:38.210808 29946 net.cpp:425] fc7 <- fc6
2016-07-30 10:23:38.212 STDERR [INFO] I0730 10:23:38.210819 29946 net.cpp:399] fc7 -> fc7
2016-07-30 10:23:38.244 STDERR [INFO] I0730 10:23:38.244690 29934 net.cpp:141] Setting up lstm2_transform_1
2016-07-30 10:23:38.245 STDERR [INFO] I0730 10:23:38.244745 29934 net.cpp:148] Top shape: 1 1 4000 (4000)
2016-07-30 10:23:38.245 STDERR [INFO] I0730 10:23:38.244750 29934 net.cpp:156] Memory required for data: 66020
2016-07-30 10:23:38.245 STDERR [INFO] I0730 10:23:38.244776 29934 layer_factory.hpp:77] Creating layer lstm2_gate_input_1
2016-07-30 10:23:38.245 STDERR [INFO] I0730 10:23:38.244798 29934 net.cpp:91] Creating Layer lstm2_gate_input_1
2016-07-30 10:23:38.245 STDERR [INFO] I0730 10:23:38.244808 29934 net.cpp:425] lstm2_gate_input_1 <- W_hc_h_0
2016-07-30 10:23:38.245 STDERR [INFO] I0730 10:23:38.244817 29934 net.cpp:425] lstm2_gate_input_1 <- W_xc_x_1
2016-07-30 10:23:38.245 STDERR [INFO] I0730 10:23:38.244832 29934 net.cpp:399] lstm2_gate_input_1 -> gate_input_1
2016-07-30 10:23:38.245 STDERR [INFO] I0730 10:23:38.244895 29934 net.cpp:141] Setting up lstm2_gate_input_1
2016-07-30 10:23:38.246 STDERR [INFO] I0730 10:23:38.244910 29934 net.cpp:148] Top shape: 1 1 4000 (4000)
2016-07-30 10:23:38.246 STDERR [INFO] I0730 10:23:38.244915 29934 net.cpp:156] Memory required for data: 82020
2016-07-30 10:23:38.246 STDERR [INFO] I0730 10:23:38.244920 29934 layer_factory.hpp:77] Creating layer lstm2_unit_1
2016-07-30 10:23:38.246 STDERR [INFO] I0730 10:23:38.244930 29934 net.cpp:91] Creating Layer lstm2_unit_1
2016-07-30 10:23:38.246 STDERR [INFO] I0730 10:23:38.244935 29934 net.cpp:425] lstm2_unit_1 <- c_0
2016-07-30 10:23:38.246 STDERR [INFO] I0730 10:23:38.244941 29934 net.cpp:425] lstm2_unit_1 <- gate_input_1
2016-07-30 10:23:38.246 STDERR [INFO] I0730 10:23:38.244947 29934 net.cpp:425] lstm2_unit_1 <- cont_1_lstm2_cont_slice_0_split_1
2016-07-30 10:23:38.246 STDERR [INFO] I0730 10:23:38.244954 29934 net.cpp:399] lstm2_unit_1 -> c_1
2016-07-30 10:23:38.246 STDERR [INFO] I0730 10:23:38.244963 29934 net.cpp:399] lstm2_unit_1 -> h_1
2016-07-30 10:23:38.246 STDERR [INFO] I0730 10:23:38.245036 29934 net.cpp:141] Setting up lstm2_unit_1
2016-07-30 10:23:38.246 STDERR [INFO] I0730 10:23:38.245046 29934 net.cpp:148] Top shape: 1 1 1000 (1000)
2016-07-30 10:23:38.246 STDERR [INFO] I0730 10:23:38.245052 29934 net.cpp:148] Top shape: 1 1 1000 (1000)
2016-07-30 10:23:38.247 STDERR [INFO] I0730 10:23:38.245057 29934 net.cpp:156] Memory required for data: 90020
2016-07-30 10:23:38.247 STDERR [INFO] I0730 10:23:38.245062 29934 layer_factory.hpp:77] Creating layer lstm2_
2016-07-30 10:23:38.247 STDERR [INFO] I0730 10:23:38.245071 29934 net.cpp:91] Creating Layer lstm2_
2016-07-30 10:23:38.247 STDERR [INFO] I0730 10:23:38.245076 29934 net.cpp:425] lstm2_ <- c_1
2016-07-30 10:23:38.247 STDERR [INFO] I0730 10:23:38.245085 29934 net.cpp:399] lstm2_ -> c_T
2016-07-30 10:23:38.247 STDERR [INFO] I0730 10:23:38.245120 29934 net.cpp:141] Setting up lstm2_
2016-07-30 10:23:38.247 STDERR [INFO] I0730 10:23:38.245128 29934 net.cpp:148] Top shape: 1 1 1000 (1000)
2016-07-30 10:23:38.247 STDERR [INFO] I0730 10:23:38.245132 29934 net.cpp:156] Memory required for data: 94020
2016-07-30 10:23:38.247 STDERR [INFO] I0730 10:23:38.245137 29934 layer_factory.hpp:77] Creating layer lstm2_h_concat
2016-07-30 10:23:38.248 STDERR [INFO] I0730 10:23:38.245153 29934 net.cpp:91] Creating Layer lstm2_h_concat
2016-07-30 10:23:38.248 STDERR [INFO] I0730 10:23:38.245158 29934 net.cpp:425] lstm2_h_concat <- h_1
2016-07-30 10:23:38.248 STDERR [INFO] I0730 10:23:38.245167 29934 net.cpp:399] lstm2_h_concat -> h
2016-07-30 10:23:38.248 STDERR [INFO] I0730 10:23:38.245205 29934 net.cpp:141] Setting up lstm2_h_concat
2016-07-30 10:23:38.248 STDERR [INFO] I0730 10:23:38.245215 29934 net.cpp:148] Top shape: 1 1 1000 (1000)
2016-07-30 10:23:38.248 STDERR [INFO] I0730 10:23:38.245219 29934 net.cpp:156] Memory required for data: 98020
2016-07-30 10:23:38.248 STDERR [INFO] I0730 10:23:38.245224 29934 layer_factory.hpp:77] Creating layer h_pseudoloss
2016-07-30 10:23:38.248 STDERR [INFO] I0730 10:23:38.245234 29934 net.cpp:91] Creating Layer h_pseudoloss
2016-07-30 10:23:38.248 STDERR [INFO] I0730 10:23:38.245239 29934 net.cpp:425] h_pseudoloss <- h
…
2016-07-30 10:23:38.251 STDERR [INFO] I0730 10:23:38.245517 29934 net.cpp:274] Network initialization done.
2016-07-30 10:23:38.251 STDERR [INFO] I0730 10:23:38.245579 29934 recurrent_layer.cpp:150] Adding parameter 0: W_xc
2016-07-30 10:23:38.251 STDERR [INFO] I0730 10:23:38.245586 29934 recurrent_layer.cpp:150] Adding parameter 1: b_c
2016-07-30 10:23:38.251 STDERR [INFO] I0730 10:23:38.245591 29934 recurrent_layer.cpp:150] Adding parameter 2: W_hc
2016-07-30 10:23:38.251 STDERR [INFO] I0730 10:23:38.245710 29934 net.cpp:141] Setting up lstm2
2016-07-30 10:23:38.251 STDERR [INFO] I0730 10:23:38.245729 29934 net.cpp:148] Top shape: 1 1 1000 (1000)
2016-07-30 10:23:38.252 STDERR [INFO] I0730 10:23:38.245735 29934 net.cpp:156] Memory required for data: 36412
2016-07-30 10:23:38.252 STDERR [INFO] I0730 10:23:38.245751 29934 layer_factory.hpp:77] Creating layer predict
2016-07-30 10:23:38.252 STDERR [INFO] I0730 10:23:38.245769 29934 net.cpp:91] Creating Layer predict
2016-07-30 10:23:38.252 STDERR [INFO] I0730 10:23:38.245779 29934 net.cpp:425] predict <- lstm2
2016-07-30 10:23:38.252 STDERR [INFO] I0730 10:23:38.245787 29934 net.cpp:399] predict -> predict
2016-07-30 10:23:38.336 STDERR [INFO] I0730 10:23:38.336158 29946 net.cpp:141] Setting up fc7
2016-07-30 10:23:38.336 STDERR [INFO] I0730 10:23:38.336221 29946 net.cpp:148] Top shape: 10 4096 (40960)
2016-07-30 10:23:38.336 STDERR [INFO] I0730 10:23:38.336228 29946 net.cpp:156] Memory required for data: 68273720
2016-07-30 10:23:38.336 STDERR [INFO] I0730 10:23:38.336249 29946 layer_factory.hpp:77] Creating layer relu7
2016-07-30 10:23:38.337 STDERR [INFO] I0730 10:23:38.336268 29946 net.cpp:91] Creating Layer relu7
2016-07-30 10:23:38.337 STDERR [INFO] I0730 10:23:38.336277 29946 net.cpp:425] relu7 <- fc7
2016-07-30 10:23:38.337 STDERR [INFO] I0730 10:23:38.336293 29946 net.cpp:386] relu7 -> fc7 (in-place)
2016-07-30 10:23:38.338 STDERR [INFO] I0730 10:23:38.338027 29946 net.cpp:141] Setting up relu7
2016-07-30 10:23:38.338 STDERR [INFO] I0730 10:23:38.338047 29946 net.cpp:148] Top shape: 10 4096 (40960)
2016-07-30 10:23:38.338 STDERR [INFO] I0730 10:23:38.338052 29946 net.cpp:156] Memory required for data: 68437560
2016-07-30 10:23:38.338 STDERR [INFO] I0730 10:23:38.338057 29946 layer_factory.hpp:77] Creating layer drop7
2016-07-30 10:23:38.338 STDERR [INFO] I0730 10:23:38.338073 29946 net.cpp:91] Creating Layer drop7
2016-07-30 10:23:38.338 STDERR [INFO] I0730 10:23:38.338079 29946 net.cpp:425] drop7 <- fc7
2016-07-30 10:23:38.338 STDERR [INFO] I0730 10:23:38.338088 29946 net.cpp:386] drop7 -> fc7 (in-place)
2016-07-30 10:23:38.338 STDERR [INFO] I0730 10:23:38.338135 29946 net.cpp:141] Setting up drop7
2016-07-30 10:23:38.339 STDERR [INFO] I0730 10:23:38.338145 29946 net.cpp:148] Top shape: 10 4096 (40960)
2016-07-30 10:23:38.339 STDERR [INFO] I0730 10:23:38.338150 29946 net.cpp:156] Memory required for data: 68601400
2016-07-30 10:23:38.339 STDERR [INFO] I0730 10:23:38.338155 29946 layer_factory.hpp:77] Creating layer fc8
2016-07-30 10:23:38.339 STDERR [INFO] I0730 10:23:38.338166 29946 net.cpp:91] Creating Layer fc8
2016-07-30 10:23:38.339 STDERR [INFO] I0730 10:23:38.338171 29946 net.cpp:425] fc8 <- fc7
2016-07-30 10:23:38.339 STDERR [INFO] I0730 10:23:38.338183 29946 net.cpp:399] fc8 -> fc8
2016-07-30 10:23:38.357 STDERR [INFO] I0730 10:23:38.357720 29946 net.cpp:141] Setting up fc8
2016-07-30 10:23:38.358 STDERR [INFO] I0730 10:23:38.357803 29946 net.cpp:148] Top shape: 10 1000 (10000)
2016-07-30 10:23:38.358 STDERR [INFO] I0730 10:23:38.357815 29946 net.cpp:156] Memory required for data: 68641400
2016-07-30 10:23:38.359 STDERR [INFO] I0730 10:23:38.357839 29946 layer_factory.hpp:77] Creating layer prob
2016-07-30 10:23:38.359 STDERR [INFO] I0730 10:23:38.357875 29946 net.cpp:91] Creating Layer prob
2016-07-30 10:23:38.359 STDERR [INFO] I0730 10:23:38.357887 29946 net.cpp:425] prob <- fc8
2016-07-30 10:23:38.359 STDERR [INFO] I0730 10:23:38.357904 29946 net.cpp:399] prob -> prob
2016-07-30 10:23:38.359 STDERR [INFO] I0730 10:23:38.358626 29946 net.cpp:141] Setting up prob
2016-07-30 10:23:38.359 STDERR [INFO] I0730 10:23:38.358649 29946 net.cpp:148] Top shape: 10 1000 (10000)
2016-07-30 10:23:38.359 STDERR [INFO] I0730 10:23:38.358657 29946 net.cpp:156] Memory required for data: 68681400
2016-07-30 10:23:38.359 STDERR [INFO] I0730 10:23:38.358667 29946 net.cpp:219] prob does not need backward computation.
2016-07-30 10:23:38.360 STDERR [INFO] I0730 10:23:38.358675 29946 net.cpp:219] fc8 does not need backward computation.
2016-07-30 10:23:38.360 STDERR [INFO] I0730 10:23:38.358683 29946 net.cpp:219] drop7 does not need backward computation.
…
