…
I0730 10:23:37.075316 29934 upgrade_proto.cpp:66] Attempting to upgrade input file specified using deprecated input fields: /tmp/cvld1250648668110147855/s2vt.words_to_preds.prototxt
I0730 10:23:37.075459 29934 upgrade_proto.cpp:69] Successfully upgraded file specified using deprecated input fields.
W0730 10:23:37.075469 29934 upgrade_proto.cpp:71] Note that future Caffe releases will only support input layers and not input fields.
I0730 10:23:37.075682 29946 net.cpp:49] Initializing net from parameters: 
name: "CaffeNet"
state {
  phase: TEST
}
layer {
  name: "data"
  type: "Input"
  top: "data"
  input_param {
    shape {
      dim: 10
      dim: 3
      dim: 227
      dim: 227
    }
  }
}
layer {
  name: "conv1"
  type: "Convolution"
  bottom: "data"
  top: "conv1"
  convolution_param {
    num_output: 96
    kernel_size: 11
    stride: 4
  }
}
layer {
  name: "relu1"
  type: "ReLU"
  bottom: "conv1"
  top: "conv1"
}
layer {
  name: "pool1"
  type: "Pooling"
  bottom: "conv1"
  top: "pool1"
  pooling_param {
    pool: MAX
    kernel_size: 3
    stride: 2
  }
}
layer {
  name: "norm1"
  type: "LRN"
  bottom: "pool1"
  top: "norm1"
  lrn_param {
    local_size: 5
    alpha: 0.0001
    beta: 0.75
  }
}
layer {
  name: "conv2"
  type: "Convolution"
  bottom: "norm1"
  top: "conv2"
  convolution_param {
    num_output: 256
    pad: 2
    kernel_size: 5
    group: 2
  }
}
layer {
  name: "relu2"
  type: "ReLU"
  bottom: "conv2"
  top: "conv2"
}
layer {
  name: "pool2"
  type: "Pooling"
  bottom: "conv2"
  top: "pool2"
  pooling_param {
    pool: MAX
    kernel_size: 3
    stride: 2
  }
}
layer {
  name: "norm2"
  type: "LRN"
  bottom: "pool2"
  top: "norm2"
  lrn_param {
    local_size: 5
    alpha: 0.0001
    beta: 0.75
  }
}
layer {
  name: "conv3"
  type: "Convolution"
  bottom: "norm2"
  top: "conv3"
  convolution_param {
    num_output: 384
    pad: 1
    kernel_size: 3
  }
}
layer {
  name: "relu3"
  type: "ReLU"
  bottom: "conv3"
  top: "conv3"
}
layer {
  name: "conv4"
  type: "Convolution"
  bottom: "conv3"
  top: "conv4"
  convolution_param {
    num_output: 384
    pad: 1
    kernel_size: 3
    group: 2
  }
}
layer {
  name: "relu4"
  type: "ReLU"
  bottom: "conv4"
  top: "conv4"
}
layer {
  name: "conv5"
  type: "Convolution"
  bottom: "conv4"
  top: "conv5"
  convolution_param {
    num_output: 256
    pad: 1
    kernel_size: 3
    group: 2
  }
}
layer {
  name: "relu5"
  type: "ReLU"
  bottom: "conv5"
  top: "conv5"
}
layer {
  name: "pool5"
  type: "Pooling"
  bottom: "conv5"
  top: "pool5"
  pooling_param {
    pool: MAX
    kernel_size: 3
    stride: 2
  }
}
layer {
  name: "fc6"
  type: "InnerProduct"
  bottom: "pool5"
  top: "fc6"
  inner_product_param {
    num_output: 4096
  }
}
layer {
  name: "relu6"
  type: "ReLU"
  bottom: "fc6"
  top: "fc6"
}
layer {
  name: "drop6"
  type: "Dropout"
  bottom: "fc6"
  top: "fc6"
  dropout_param {
    dropout_ratio: 0.5
  }
}
layer {
  name: "fc7"
  type: "InnerProduct"
  bottom: "fc6"
  top: "fc7"
  inner_product_param {
    num_output: 4096
  }
}
layer {
  name: "relu7"
  type: "ReLU"
  bottom: "fc7"
  top: "fc7"
}
layer {
  name: "drop7"
  type: "Dropout"
  bottom: "fc7"
  top: "fc7"
  dropout_param {
    dropout_ratio: 0.5
  }
}
layer {
  name: "fc8"
  type: "InnerProduct"
  bottom: "fc7"
  top: "fc8"
  inner_product_param {
    num_output: 1000
  }
}
layer {
  name: "prob"
  type: "Softmax"
  bottom: "fc8"
  top: "prob"
}
I0730 10:23:37.075721 29934 net.cpp:49] Initializing net from parameters: 
name: "s2vt:features_to_lstm"
state {
  phase: TEST
}
layer {
  name: "input"
  type: "Input"
  top: "frames_fc7"
  top: "cont_sentence"
  top: "input_sentence"
  top: "stage_indicator"
  input_param {
    shape {
      dim: 1
      dim: 4096
    }
    shape {
      dim: 1
      dim: 1
    }
    shape {
      dim: 1
      dim: 1
    }
    shape {
      dim: 1
      dim: 1
    }
  }
}
layer {
  name: "embed_encoder"
  type: "InnerProduct"
  bottom: "frames_fc7"
  top: "embedded_in_frames"
  param {
    lr_mult: 1
    decay_mult: 1
  }
  param {
    lr_mult: 2
    decay_mult: 0
  }
  inner_product_param {
    num_output: 500
    weight_filler {
      type: "xavier"
    }
    bias_filler {
      type: "constant"
      value: 0.2
    }
  }
}
layer {
  name: "reshape_frames"
  type: "Reshape"
  bottom: "embedded_in_frames"
  top: "embedded_input_frames"
  reshape_param {
    shape {
      dim: 1
      dim: 1
      dim: 500
    }
  }
}
layer {
  name: "reshape_stage_indicator"
  type: "Reshape"
  bottom: "stage_indicator"
  top: "reshaped_stage_indicator"
  reshape_param {
    shape {
      dim: 1
      dim: 1
      dim: 1
    }
  }
}
layer {
  name: "embedding"
  type: "Embed"
  bottom: "input_sentence"
  top: "embedded_input_sentence"
  param {
    lr_mult: 1
  }
  embed_param {
    num_output: 500
    input_dim: 46168
    bias_term: false
    weight_filler {
      type: "uniform"
      min: -0.08
      max: 0.08
    }
  }
}
layer {
  name: "lstm1"
  type: "LSTM"
  bottom: "embedded_input_frames"
  bottom: "cont_sentence"
  top: "lstm1"
  recurrent_param {
    num_output: 1000
    weight_filler {
      type: "uniform"
      min: -0.08
      max: 0.08
    }
    bias_filler {
      type: "constant"
      value: 0
    }
  }
}
layer {
  name: "concat"
  type: "Concat"
  bottom: "lstm1"
  bottom: "embedded_input_sentence"
  bottom: "reshaped_stage_indicator"
  top: "lstm1_video_sequence"
  concat_param {
    concat_dim: 2
  }
}
layer {
  name: "lstm2"
  type: "LSTM"
  bottom: "lstm1_video_sequence"
  bottom: "cont_sentence"
  top: "lstm2"
  recurrent_param {
    num_output: 1000
    weight_filler {
      type: "uniform"
      min: -0.08
      max: 0.08
    }
    bias_filler {
      type: "constant"
      value: 0
    }
  }
}
layer {
  name: "predict"
  type: "InnerProduct"
  bottom: "lstm2"
  top: "predict"
  param {
    lr_mult: 1
    decay_mult: 1
  }
  param {
    lr_mult: 2
    decay_mult: 0
  }
  inner_product_param {
    num_output: 46168
    weight_filler {
      type: "uniform"
      min: -0.08
      max: 0.08
    }
    bias_filler {
      type: "constant"
      value: 0
    }
    axis: 2
  }
}
layer {
  name: "probs"
  type: "Softmax"
  bottom: "predict"
  top: "probs"
  softmax_param {
    axis: 2
  }
}
I0730 10:23:37.075820 29946 layer_factory.hpp:77] Creating layer data
I0730 10:23:37.075850 29934 layer_factory.hpp:77] Creating layer input
I0730 10:23:37.075853 29946 net.cpp:91] Creating Layer data
I0730 10:23:37.075872 29934 net.cpp:91] Creating Layer input
I0730 10:23:37.075877 29946 net.cpp:399] data -> data
I0730 10:23:37.075881 29934 net.cpp:399] input -> frames_fc7
I0730 10:23:37.075922 29934 net.cpp:399] input -> cont_sentence
I0730 10:23:37.075937 29934 net.cpp:399] input -> input_sentence
I0730 10:23:37.075949 29934 net.cpp:399] input -> stage_indicator
I0730 10:23:37.691812 29946 net.cpp:141] Setting up data
I0730 10:23:37.691887 29946 net.cpp:148] Top shape: 10 3 227 227 (1545870)
I0730 10:23:37.691895 29946 net.cpp:156] Memory required for data: 6183480
I0730 10:23:37.691916 29946 layer_factory.hpp:77] Creating layer conv1
I0730 10:23:37.691946 29946 net.cpp:91] Creating Layer conv1
I0730 10:23:37.691956 29946 net.cpp:425] conv1 <- data
I0730 10:23:37.691947 29934 net.cpp:141] Setting up input
I0730 10:23:37.691997 29934 net.cpp:148] Top shape: 1 4096 (4096)
I0730 10:23:37.692005 29934 net.cpp:148] Top shape: 1 1 (1)
I0730 10:23:37.691970 29946 net.cpp:399] conv1 -> conv1
I0730 10:23:37.692013 29934 net.cpp:148] Top shape: 1 1 (1)
I0730 10:23:37.692030 29934 net.cpp:148] Top shape: 1 1 (1)
I0730 10:23:37.692035 29934 net.cpp:156] Memory required for data: 16396
I0730 10:23:37.692046 29934 layer_factory.hpp:77] Creating layer cont_sentence_input_1_split
I0730 10:23:37.692075 29934 net.cpp:91] Creating Layer cont_sentence_input_1_split
I0730 10:23:37.692083 29934 net.cpp:425] cont_sentence_input_1_split <- cont_sentence
I0730 10:23:37.692114 29934 net.cpp:399] cont_sentence_input_1_split -> cont_sentence_input_1_split_0
I0730 10:23:37.692128 29934 net.cpp:399] cont_sentence_input_1_split -> cont_sentence_input_1_split_1
I0730 10:23:37.692333 29934 net.cpp:141] Setting up cont_sentence_input_1_split
I0730 10:23:37.692347 29934 net.cpp:148] Top shape: 1 1 (1)
I0730 10:23:37.692353 29934 net.cpp:148] Top shape: 1 1 (1)
I0730 10:23:37.692358 29934 net.cpp:156] Memory required for data: 16404
I0730 10:23:37.692363 29934 layer_factory.hpp:77] Creating layer embed_encoder
I0730 10:23:37.692404 29934 net.cpp:91] Creating Layer embed_encoder
I0730 10:23:37.692412 29934 net.cpp:425] embed_encoder <- frames_fc7
I0730 10:23:37.692885 29934 net.cpp:399] embed_encoder -> embedded_in_frames
I0730 10:23:37.720544 29934 net.cpp:141] Setting up embed_encoder
I0730 10:23:37.720597 29934 net.cpp:148] Top shape: 1 500 (500)
I0730 10:23:37.720604 29934 net.cpp:156] Memory required for data: 18404
I0730 10:23:37.720643 29934 layer_factory.hpp:77] Creating layer reshape_frames
I0730 10:23:37.720676 29934 net.cpp:91] Creating Layer reshape_frames
I0730 10:23:37.720685 29934 net.cpp:425] reshape_frames <- embedded_in_frames
I0730 10:23:37.720696 29934 net.cpp:399] reshape_frames -> embedded_input_frames
I0730 10:23:37.722229 29934 net.cpp:141] Setting up reshape_frames
I0730 10:23:37.722249 29934 net.cpp:148] Top shape: 1 1 500 (500)
I0730 10:23:37.722255 29934 net.cpp:156] Memory required for data: 20404
I0730 10:23:37.722261 29934 layer_factory.hpp:77] Creating layer reshape_stage_indicator
I0730 10:23:37.722275 29934 net.cpp:91] Creating Layer reshape_stage_indicator
I0730 10:23:37.722281 29934 net.cpp:425] reshape_stage_indicator <- stage_indicator
I0730 10:23:37.722290 29934 net.cpp:399] reshape_stage_indicator -> reshaped_stage_indicator
I0730 10:23:37.724859 29934 net.cpp:141] Setting up reshape_stage_indicator
I0730 10:23:37.724884 29934 net.cpp:148] Top shape: 1 1 1 (1)
I0730 10:23:37.724889 29934 net.cpp:156] Memory required for data: 20408
I0730 10:23:37.724895 29934 layer_factory.hpp:77] Creating layer embedding
I0730 10:23:37.724910 29934 net.cpp:91] Creating Layer embedding
I0730 10:23:37.724915 29934 net.cpp:425] embedding <- input_sentence
I0730 10:23:37.724925 29934 net.cpp:399] embedding -> embedded_input_sentence
I0730 10:23:37.975508 29934 net.cpp:141] Setting up embedding
I0730 10:23:37.975563 29934 net.cpp:148] Top shape: 1 1 500 (500)
I0730 10:23:37.975569 29934 net.cpp:156] Memory required for data: 22408
I0730 10:23:37.975589 29934 layer_factory.hpp:77] Creating layer lstm1
I0730 10:23:37.975612 29934 net.cpp:91] Creating Layer lstm1
I0730 10:23:37.975621 29934 net.cpp:425] lstm1 <- embedded_input_frames
I0730 10:23:37.975631 29934 net.cpp:425] lstm1 <- cont_sentence_input_1_split_0
I0730 10:23:37.975641 29934 net.cpp:399] lstm1 -> lstm1
I0730 10:23:37.975680 29934 recurrent_layer.cpp:20] Initializing recurrent layer: assuming input batch contains 1 timesteps of 1 independent streams.
I0730 10:23:37.976105 29934 net.cpp:49] Initializing net from parameters: 
layer {
  name: "lstm1_"
  type: "Input"
  top: "x"
  top: "cont"
  input_param {
    shape {
      dim: 1
      dim: 1
      dim: 500
    }
    shape {
      dim: 1
      dim: 1
    }
  }
}
layer {
  name: "lstm1_"
  type: "Input"
  top: "c_0"
  top: "h_0"
  input_param {
    shape {
      dim: 1
      dim: 1
      dim: 1000
    }
    shape {
      dim: 1
      dim: 1
      dim: 1000
    }
  }
}
layer {
  name: "lstm1_cont_slice"
  type: "Slice"
  bottom: "cont"
  top: "cont_1"
  slice_param {
    axis: 0
  }
}
layer {
  name: "lstm1_x_transform"
  type: "InnerProduct"
  bottom: "x"
  top: "W_xc_x"
  param {
    name: "W_xc"
  }
  param {
    name: "b_c"
  }
  propagate_down: true
  inner_product_param {
    num_output: 4000
    bias_term: true
    weight_filler {
      type: "uniform"
      min: -0.08
      max: 0.08
    }
    bias_filler {
      type: "constant"
      value: 0
    }
    axis: 2
  }
}
layer {
  name: "lstm1_W_xc_x_slice"
  type: "Slice"
  bottom: "W_xc_x"
  top: "W_xc_x_1"
  slice_param {
    axis: 0
  }
}
layer {
  name: "lstm1_h_conted_0"
  type: "Scale"
  bottom: "h_0"
  bottom: "cont_1"
  top: "h_conted_0"
  scale_param {
    axis: 0
  }
}
layer {
  name: "lstm1_transform_1"
  type: "InnerProduct"
  bottom: "h_conted_0"
  top: "W_hc_h_0"
  param {
    name: "W_hc"
  }
  inner_product_param {
    num_output: 4000
    bias_term: false
    weight_filler {
      type: "uniform"
      min: -0.08
      max: 0.08
    }
    axis: 2
  }
}
layer {
  name: "lstm1_gate_input_1"
  type: "Eltwise"
  bottom: "W_hc_h_0"
  bottom: "W_xc_x_1"
  top: "gate_input_1"
  eltwise_param {
    operation: SUM
  }
}
layer {
  name: "lstm1_unit_1"
  type: "LSTMUnit"
  bottom: "c_0"
  bottom: "gate_input_1"
  bottom: "cont_1"
  top: "c_1"
  top: "h_1"
}
layer {
  name: "lstm1_"
  type: "Split"
  bottom: "c_1"
  top: "c_T"
}
layer {
  name: "lstm1_h_concat"
  type: "Concat"
  bottom: "h_1"
  top: "h"
  concat_param {
    axis: 0
  }
}
layer {
  name: "h_pseudoloss"
  type: "Reduction"
  bottom: "h"
  top: "h_pseudoloss"
  loss_weight: 1
}
I0730 10:23:37.976222 29934 layer_factory.hpp:77] Creating layer lstm1_
I0730 10:23:37.976238 29934 net.cpp:91] Creating Layer lstm1_
I0730 10:23:37.976244 29934 net.cpp:399] lstm1_ -> x
I0730 10:23:37.976258 29934 net.cpp:399] lstm1_ -> cont
I0730 10:23:37.978988 29934 net.cpp:141] Setting up lstm1_
I0730 10:23:37.979009 29934 net.cpp:148] Top shape: 1 1 500 (500)
I0730 10:23:37.979017 29934 net.cpp:148] Top shape: 1 1 (1)
I0730 10:23:37.979022 29934 net.cpp:156] Memory required for data: 2004
I0730 10:23:37.979027 29934 layer_factory.hpp:77] Creating layer lstm1_
I0730 10:23:37.979044 29934 net.cpp:91] Creating Layer lstm1_
I0730 10:23:37.979053 29934 net.cpp:399] lstm1_ -> c_0
I0730 10:23:37.979065 29934 net.cpp:399] lstm1_ -> h_0
I0730 10:23:37.982235 29934 net.cpp:141] Setting up lstm1_
I0730 10:23:37.982255 29934 net.cpp:148] Top shape: 1 1 1000 (1000)
I0730 10:23:37.982262 29934 net.cpp:148] Top shape: 1 1 1000 (1000)
I0730 10:23:37.982267 29934 net.cpp:156] Memory required for data: 10004
I0730 10:23:37.982273 29934 layer_factory.hpp:77] Creating layer lstm1_cont_slice
I0730 10:23:37.982287 29934 net.cpp:91] Creating Layer lstm1_cont_slice
I0730 10:23:37.982297 29934 net.cpp:425] lstm1_cont_slice <- cont
I0730 10:23:37.982317 29934 net.cpp:399] lstm1_cont_slice -> cont_1
I0730 10:23:37.982511 29934 net.cpp:141] Setting up lstm1_cont_slice
I0730 10:23:37.982524 29934 net.cpp:148] Top shape: 1 1 (1)
I0730 10:23:37.982529 29934 net.cpp:156] Memory required for data: 10008
I0730 10:23:37.982534 29934 layer_factory.hpp:77] Creating layer cont_1_lstm1_cont_slice_0_split
I0730 10:23:37.982543 29934 net.cpp:91] Creating Layer cont_1_lstm1_cont_slice_0_split
I0730 10:23:37.982548 29934 net.cpp:425] cont_1_lstm1_cont_slice_0_split <- cont_1
I0730 10:23:37.982556 29934 net.cpp:399] cont_1_lstm1_cont_slice_0_split -> cont_1_lstm1_cont_slice_0_split_0
I0730 10:23:37.982565 29934 net.cpp:399] cont_1_lstm1_cont_slice_0_split -> cont_1_lstm1_cont_slice_0_split_1
I0730 10:23:37.988162 29934 net.cpp:141] Setting up cont_1_lstm1_cont_slice_0_split
I0730 10:23:37.988184 29934 net.cpp:148] Top shape: 1 1 (1)
I0730 10:23:37.988191 29934 net.cpp:148] Top shape: 1 1 (1)
I0730 10:23:37.988195 29934 net.cpp:156] Memory required for data: 10016
I0730 10:23:37.988201 29934 layer_factory.hpp:77] Creating layer lstm1_x_transform
I0730 10:23:37.988230 29934 net.cpp:91] Creating Layer lstm1_x_transform
I0730 10:23:37.988236 29934 net.cpp:425] lstm1_x_transform <- x
I0730 10:23:37.988246 29934 net.cpp:399] lstm1_x_transform -> W_xc_x
I0730 10:23:38.016686 29934 net.cpp:141] Setting up lstm1_x_transform
I0730 10:23:38.016733 29934 net.cpp:148] Top shape: 1 1 4000 (4000)
I0730 10:23:38.016739 29934 net.cpp:156] Memory required for data: 26016
I0730 10:23:38.016762 29934 layer_factory.hpp:77] Creating layer lstm1_W_xc_x_slice
I0730 10:23:38.016778 29934 net.cpp:91] Creating Layer lstm1_W_xc_x_slice
I0730 10:23:38.016787 29934 net.cpp:425] lstm1_W_xc_x_slice <- W_xc_x
I0730 10:23:38.016796 29934 net.cpp:399] lstm1_W_xc_x_slice -> W_xc_x_1
I0730 10:23:38.018103 29934 net.cpp:141] Setting up lstm1_W_xc_x_slice
I0730 10:23:38.018126 29934 net.cpp:148] Top shape: 1 1 4000 (4000)
I0730 10:23:38.018132 29934 net.cpp:156] Memory required for data: 42016
I0730 10:23:38.018138 29934 layer_factory.hpp:77] Creating layer lstm1_h_conted_0
I0730 10:23:38.018162 29934 net.cpp:91] Creating Layer lstm1_h_conted_0
I0730 10:23:38.018168 29934 net.cpp:425] lstm1_h_conted_0 <- h_0
I0730 10:23:38.018175 29934 net.cpp:425] lstm1_h_conted_0 <- cont_1_lstm1_cont_slice_0_split_0
I0730 10:23:38.018184 29934 net.cpp:399] lstm1_h_conted_0 -> h_conted_0
I0730 10:23:38.018458 29934 net.cpp:141] Setting up lstm1_h_conted_0
I0730 10:23:38.018471 29934 net.cpp:148] Top shape: 1 1 1000 (1000)
I0730 10:23:38.018476 29934 net.cpp:156] Memory required for data: 46016
I0730 10:23:38.018481 29934 layer_factory.hpp:77] Creating layer lstm1_transform_1
I0730 10:23:38.018496 29934 net.cpp:91] Creating Layer lstm1_transform_1
I0730 10:23:38.018501 29934 net.cpp:425] lstm1_transform_1 <- h_conted_0
I0730 10:23:38.018510 29934 net.cpp:399] lstm1_transform_1 -> W_hc_h_0
I0730 10:23:38.049805 29946 net.cpp:141] Setting up conv1
I0730 10:23:38.049876 29946 net.cpp:148] Top shape: 10 96 55 55 (2904000)
I0730 10:23:38.049883 29946 net.cpp:156] Memory required for data: 17799480
I0730 10:23:38.049917 29946 layer_factory.hpp:77] Creating layer relu1
I0730 10:23:38.049943 29946 net.cpp:91] Creating Layer relu1
I0730 10:23:38.049952 29946 net.cpp:425] relu1 <- conv1
I0730 10:23:38.049970 29946 net.cpp:386] relu1 -> conv1 (in-place)
I0730 10:23:38.050881 29946 net.cpp:141] Setting up relu1
I0730 10:23:38.050899 29946 net.cpp:148] Top shape: 10 96 55 55 (2904000)
I0730 10:23:38.050904 29946 net.cpp:156] Memory required for data: 29415480
I0730 10:23:38.050910 29946 layer_factory.hpp:77] Creating layer pool1
I0730 10:23:38.050925 29946 net.cpp:91] Creating Layer pool1
I0730 10:23:38.050930 29946 net.cpp:425] pool1 <- conv1
I0730 10:23:38.050945 29946 net.cpp:399] pool1 -> pool1
I0730 10:23:38.051033 29946 net.cpp:141] Setting up pool1
I0730 10:23:38.051043 29946 net.cpp:148] Top shape: 10 96 27 27 (699840)
I0730 10:23:38.051048 29946 net.cpp:156] Memory required for data: 32214840
I0730 10:23:38.051054 29946 layer_factory.hpp:77] Creating layer norm1
I0730 10:23:38.051089 29946 net.cpp:91] Creating Layer norm1
I0730 10:23:38.051095 29946 net.cpp:425] norm1 <- pool1
I0730 10:23:38.051101 29946 net.cpp:399] norm1 -> norm1
I0730 10:23:38.052005 29946 net.cpp:141] Setting up norm1
I0730 10:23:38.052021 29946 net.cpp:148] Top shape: 10 96 27 27 (699840)
I0730 10:23:38.052026 29946 net.cpp:156] Memory required for data: 35014200
I0730 10:23:38.052031 29946 layer_factory.hpp:77] Creating layer conv2
I0730 10:23:38.052053 29946 net.cpp:91] Creating Layer conv2
I0730 10:23:38.052059 29946 net.cpp:425] conv2 <- norm1
I0730 10:23:38.052067 29946 net.cpp:399] conv2 -> conv2
I0730 10:23:38.057292 29946 net.cpp:141] Setting up conv2
I0730 10:23:38.057332 29946 net.cpp:148] Top shape: 10 256 27 27 (1866240)
I0730 10:23:38.057339 29946 net.cpp:156] Memory required for data: 42479160
I0730 10:23:38.057361 29946 layer_factory.hpp:77] Creating layer relu2
I0730 10:23:38.057379 29946 net.cpp:91] Creating Layer relu2
I0730 10:23:38.057384 29946 net.cpp:425] relu2 <- conv2
I0730 10:23:38.057397 29946 net.cpp:386] relu2 -> conv2 (in-place)
I0730 10:23:38.058250 29946 net.cpp:141] Setting up relu2
I0730 10:23:38.058269 29946 net.cpp:148] Top shape: 10 256 27 27 (1866240)
I0730 10:23:38.058274 29946 net.cpp:156] Memory required for data: 49944120
I0730 10:23:38.058280 29946 layer_factory.hpp:77] Creating layer pool2
I0730 10:23:38.058300 29946 net.cpp:91] Creating Layer pool2
I0730 10:23:38.058305 29946 net.cpp:425] pool2 <- conv2
I0730 10:23:38.058315 29946 net.cpp:399] pool2 -> pool2
I0730 10:23:38.058387 29946 net.cpp:141] Setting up pool2
I0730 10:23:38.058398 29946 net.cpp:148] Top shape: 10 256 13 13 (432640)
I0730 10:23:38.058403 29946 net.cpp:156] Memory required for data: 51674680
I0730 10:23:38.058408 29946 layer_factory.hpp:77] Creating layer norm2
I0730 10:23:38.058423 29946 net.cpp:91] Creating Layer norm2
I0730 10:23:38.058429 29946 net.cpp:425] norm2 <- pool2
I0730 10:23:38.058436 29946 net.cpp:399] norm2 -> norm2
I0730 10:23:38.058755 29946 net.cpp:141] Setting up norm2
I0730 10:23:38.058769 29946 net.cpp:148] Top shape: 10 256 13 13 (432640)
I0730 10:23:38.058774 29946 net.cpp:156] Memory required for data: 53405240
I0730 10:23:38.058779 29946 layer_factory.hpp:77] Creating layer conv3
I0730 10:23:38.058805 29946 net.cpp:91] Creating Layer conv3
I0730 10:23:38.058811 29946 net.cpp:425] conv3 <- norm2
I0730 10:23:38.058818 29946 net.cpp:399] conv3 -> conv3
I0730 10:23:38.064462 29946 net.cpp:141] Setting up conv3
I0730 10:23:38.064489 29946 net.cpp:148] Top shape: 10 384 13 13 (648960)
I0730 10:23:38.064496 29946 net.cpp:156] Memory required for data: 56001080
I0730 10:23:38.064513 29946 layer_factory.hpp:77] Creating layer relu3
I0730 10:23:38.064525 29946 net.cpp:91] Creating Layer relu3
I0730 10:23:38.064530 29946 net.cpp:425] relu3 <- conv3
I0730 10:23:38.064543 29946 net.cpp:386] relu3 -> conv3 (in-place)
I0730 10:23:38.065351 29946 net.cpp:141] Setting up relu3
I0730 10:23:38.065366 29946 net.cpp:148] Top shape: 10 384 13 13 (648960)
I0730 10:23:38.065371 29946 net.cpp:156] Memory required for data: 58596920
I0730 10:23:38.065377 29946 layer_factory.hpp:77] Creating layer conv4
I0730 10:23:38.065394 29946 net.cpp:91] Creating Layer conv4
I0730 10:23:38.065400 29946 net.cpp:425] conv4 <- conv3
I0730 10:23:38.065412 29946 net.cpp:399] conv4 -> conv4
I0730 10:23:38.067931 29934 net.cpp:141] Setting up lstm1_transform_1
I0730 10:23:38.067960 29934 net.cpp:148] Top shape: 1 1 4000 (4000)
I0730 10:23:38.067965 29934 net.cpp:156] Memory required for data: 62016
I0730 10:23:38.067981 29934 layer_factory.hpp:77] Creating layer lstm1_gate_input_1
I0730 10:23:38.068001 29934 net.cpp:91] Creating Layer lstm1_gate_input_1
I0730 10:23:38.068008 29934 net.cpp:425] lstm1_gate_input_1 <- W_hc_h_0
I0730 10:23:38.068017 29934 net.cpp:425] lstm1_gate_input_1 <- W_xc_x_1
I0730 10:23:38.068025 29934 net.cpp:399] lstm1_gate_input_1 -> gate_input_1
I0730 10:23:38.068238 29934 net.cpp:141] Setting up lstm1_gate_input_1
I0730 10:23:38.068249 29934 net.cpp:148] Top shape: 1 1 4000 (4000)
I0730 10:23:38.068254 29934 net.cpp:156] Memory required for data: 78016
I0730 10:23:38.068259 29934 layer_factory.hpp:77] Creating layer lstm1_unit_1
I0730 10:23:38.068275 29934 net.cpp:91] Creating Layer lstm1_unit_1
I0730 10:23:38.068281 29934 net.cpp:425] lstm1_unit_1 <- c_0
I0730 10:23:38.068289 29934 net.cpp:425] lstm1_unit_1 <- gate_input_1
I0730 10:23:38.068294 29934 net.cpp:425] lstm1_unit_1 <- cont_1_lstm1_cont_slice_0_split_1
I0730 10:23:38.068305 29934 net.cpp:399] lstm1_unit_1 -> c_1
I0730 10:23:38.068315 29934 net.cpp:399] lstm1_unit_1 -> h_1
I0730 10:23:38.068409 29934 net.cpp:141] Setting up lstm1_unit_1
I0730 10:23:38.068420 29934 net.cpp:148] Top shape: 1 1 1000 (1000)
I0730 10:23:38.068428 29934 net.cpp:148] Top shape: 1 1 1000 (1000)
I0730 10:23:38.068433 29934 net.cpp:156] Memory required for data: 86016
I0730 10:23:38.068437 29934 layer_factory.hpp:77] Creating layer lstm1_
I0730 10:23:38.068459 29934 net.cpp:91] Creating Layer lstm1_
I0730 10:23:38.068464 29934 net.cpp:425] lstm1_ <- c_1
I0730 10:23:38.068473 29934 net.cpp:399] lstm1_ -> c_T
I0730 10:23:38.069226 29934 net.cpp:141] Setting up lstm1_
I0730 10:23:38.069238 29934 net.cpp:148] Top shape: 1 1 1000 (1000)
I0730 10:23:38.069243 29934 net.cpp:156] Memory required for data: 90016
I0730 10:23:38.069248 29934 layer_factory.hpp:77] Creating layer lstm1_h_concat
I0730 10:23:38.069259 29934 net.cpp:91] Creating Layer lstm1_h_concat
I0730 10:23:38.069264 29934 net.cpp:425] lstm1_h_concat <- h_1
I0730 10:23:38.069281 29934 net.cpp:399] lstm1_h_concat -> h
I0730 10:23:38.069355 29934 net.cpp:141] Setting up lstm1_h_concat
I0730 10:23:38.069370 29934 net.cpp:148] Top shape: 1 1 1000 (1000)
I0730 10:23:38.069375 29934 net.cpp:156] Memory required for data: 94016
I0730 10:23:38.069380 29934 layer_factory.hpp:77] Creating layer h_pseudoloss
I0730 10:23:38.069396 29934 net.cpp:91] Creating Layer h_pseudoloss
I0730 10:23:38.069402 29934 net.cpp:425] h_pseudoloss <- h
I0730 10:23:38.069409 29934 net.cpp:399] h_pseudoloss -> h_pseudoloss
I0730 10:23:38.069664 29934 net.cpp:141] Setting up h_pseudoloss
…
I0730 10:23:38.069813 29934 net.cpp:219] lstm1_ does not need backward computation.
I0730 10:23:38.069818 29934 net.cpp:261] This network produces output c_T
I0730 10:23:38.069823 29934 net.cpp:261] This network produces output h_pseudoloss
I0730 10:23:38.069840 29934 net.cpp:274] Network initialization done.
I0730 10:23:38.069911 29934 recurrent_layer.cpp:150] Adding parameter 0: W_xc
I0730 10:23:38.069918 29934 recurrent_layer.cpp:150] Adding parameter 1: b_c
I0730 10:23:38.069923 29934 recurrent_layer.cpp:150] Adding parameter 2: W_hc
I0730 10:23:38.070618 29934 net.cpp:141] Setting up lstm1
I0730 10:23:38.070632 29934 net.cpp:148] Top shape: 1 1 1000 (1000)
I0730 10:23:38.070636 29934 net.cpp:156] Memory required for data: 26408
I0730 10:23:38.070652 29934 layer_factory.hpp:77] Creating layer concat
I0730 10:23:38.070663 29934 net.cpp:91] Creating Layer concat
I0730 10:23:38.070670 29934 net.cpp:425] concat <- lstm1
I0730 10:23:38.070677 29934 net.cpp:425] concat <- embedded_input_sentence
I0730 10:23:38.070683 29934 net.cpp:425] concat <- reshaped_stage_indicator
I0730 10:23:38.070699 29934 net.cpp:399] concat -> lstm1_video_sequence
I0730 10:23:38.071419 29934 net.cpp:141] Setting up concat
I0730 10:23:38.071430 29934 net.cpp:148] Top shape: 1 1 1501 (1501)
I0730 10:23:38.071435 29934 net.cpp:156] Memory required for data: 32412
I0730 10:23:38.071440 29934 layer_factory.hpp:77] Creating layer lstm2
I0730 10:23:38.071455 29934 net.cpp:91] Creating Layer lstm2
I0730 10:23:38.071460 29934 net.cpp:425] lstm2 <- lstm1_video_sequence
I0730 10:23:38.071466 29934 net.cpp:425] lstm2 <- cont_sentence_input_1_split_1
I0730 10:23:38.071475 29934 net.cpp:399] lstm2 -> lstm2
I0730 10:23:38.071485 29934 recurrent_layer.cpp:20] Initializing recurrent layer: assuming input batch contains 1 timesteps of 1 independent streams.
I0730 10:23:38.071779 29934 net.cpp:49] Initializing net from parameters: 
layer {
  name: "lstm2_"
  type: "Input"
  top: "x"
  top: "cont"
  input_param {
    shape {
      dim: 1
      dim: 1
      dim: 1501
    }
    shape {
      dim: 1
      dim: 1
    }
  }
}
layer {
  name: "lstm2_"
  type: "Input"
  top: "c_0"
  top: "h_0"
  input_param {
    shape {
      dim: 1
      dim: 1
      dim: 1000
    }
    shape {
      dim: 1
      dim: 1
      dim: 1000
    }
  }
}
layer {
  name: "lstm2_cont_slice"
  type: "Slice"
  bottom: "cont"
  top: "cont_1"
  slice_param {
    axis: 0
  }
}
layer {
  name: "lstm2_x_transform"
  type: "InnerProduct"
  bottom: "x"
  top: "W_xc_x"
  param {
    name: "W_xc"
  }
  param {
    name: "b_c"
  }
  propagate_down: true
  inner_product_param {
    num_output: 4000
    bias_term: true
    weight_filler {
      type: "uniform"
      min: -0.08
      max: 0.08
    }
    bias_filler {
      type: "constant"
      value: 0
    }
    axis: 2
  }
}
layer {
  name: "lstm2_W_xc_x_slice"
  type: "Slice"
  bottom: "W_xc_x"
  top: "W_xc_x_1"
  slice_param {
    axis: 0
  }
}
layer {
  name: "lstm2_h_conted_0"
  type: "Scale"
  bottom: "h_0"
  bottom: "cont_1"
  top: "h_conted_0"
  scale_param {
    axis: 0
  }
}
layer {
  name: "lstm2_transform_1"
  type: "InnerProduct"
  bottom: "h_conted_0"
  top: "W_hc_h_0"
  param {
    name: "W_hc"
  }
  inner_product_param {
    num_output: 4000
    bias_term: false
    weight_filler {
      type: "uniform"
      min: -0.08
      max: 0.08
    }
    axis: 2
  }
}
layer {
  name: "lstm2_gate_input_1"
  type: "Eltwise"
  bottom: "W_hc_h_0"
  bottom: "W_xc_x_1"
  top: "gate_input_1"
  eltwise_param {
    operation: SUM
  }
}
layer {
  name: "lstm2_unit_1"
  type: "LSTMUnit"
  bottom: "c_0"
  bottom: "gate_input_1"
  bottom: "cont_1"
  top: "c_1"
  top: "h_1"
}
layer {
  name: "lstm2_"
  type: "Split"
  bottom: "c_1"
  top: "c_T"
}
layer {
  name: "lstm2_h_concat"
  type: "Concat"
  bottom: "h_1"
  top: "h"
  concat_param {
    axis: 0
  }
}
layer {
  name: "h_pseudoloss"
  type: "Reduction"
  bottom: "h"
  top: "h_pseudoloss"
  loss_weight: 1
}
I0730 10:23:38.071882 29934 layer_factory.hpp:77] Creating layer lstm2_
I0730 10:23:38.071895 29934 net.cpp:91] Creating Layer lstm2_
I0730 10:23:38.071902 29934 net.cpp:399] lstm2_ -> x
I0730 10:23:38.071902 29946 net.cpp:141] Setting up conv4
I0730 10:23:38.071915 29934 net.cpp:399] lstm2_ -> cont
I0730 10:23:38.071920 29946 net.cpp:148] Top shape: 10 384 13 13 (648960)
I0730 10:23:38.071926 29946 net.cpp:156] Memory required for data: 61192760
I0730 10:23:38.071936 29946 layer_factory.hpp:77] Creating layer relu4
I0730 10:23:38.071949 29946 net.cpp:91] Creating Layer relu4
I0730 10:23:38.071955 29946 net.cpp:425] relu4 <- conv4
I0730 10:23:38.071962 29946 net.cpp:386] relu4 -> conv4 (in-place)
I0730 10:23:38.071985 29934 net.cpp:141] Setting up lstm2_
I0730 10:23:38.071996 29934 net.cpp:148] Top shape: 1 1 1501 (1501)
I0730 10:23:38.072003 29934 net.cpp:148] Top shape: 1 1 (1)
I0730 10:23:38.072007 29934 net.cpp:156] Memory required for data: 6008
I0730 10:23:38.072012 29934 layer_factory.hpp:77] Creating layer lstm2_
I0730 10:23:38.072027 29934 net.cpp:91] Creating Layer lstm2_
I0730 10:23:38.072034 29934 net.cpp:399] lstm2_ -> c_0
I0730 10:23:38.072046 29934 net.cpp:399] lstm2_ -> h_0
I0730 10:23:38.072747 29934 net.cpp:141] Setting up lstm2_
I0730 10:23:38.072760 29934 net.cpp:148] Top shape: 1 1 1000 (1000)
I0730 10:23:38.072767 29934 net.cpp:148] Top shape: 1 1 1000 (1000)
I0730 10:23:38.072772 29934 net.cpp:156] Memory required for data: 14008
I0730 10:23:38.072777 29934 layer_factory.hpp:77] Creating layer lstm2_cont_slice
I0730 10:23:38.072785 29934 net.cpp:91] Creating Layer lstm2_cont_slice
I0730 10:23:38.072791 29934 net.cpp:425] lstm2_cont_slice <- cont
I0730 10:23:38.072799 29934 net.cpp:399] lstm2_cont_slice -> cont_1
I0730 10:23:38.072863 29934 net.cpp:141] Setting up lstm2_cont_slice
I0730 10:23:38.072875 29934 net.cpp:148] Top shape: 1 1 (1)
I0730 10:23:38.072871 29946 net.cpp:141] Setting up relu4
I0730 10:23:38.072882 29934 net.cpp:156] Memory required for data: 14012
I0730 10:23:38.072896 29934 layer_factory.hpp:77] Creating layer cont_1_lstm2_cont_slice_0_split
I0730 10:23:38.072896 29946 net.cpp:148] Top shape: 10 384 13 13 (648960)
I0730 10:23:38.072903 29934 net.cpp:91] Creating Layer cont_1_lstm2_cont_slice_0_split
I0730 10:23:38.072906 29946 net.cpp:156] Memory required for data: 63788600
I0730 10:23:38.072908 29934 net.cpp:425] cont_1_lstm2_cont_slice_0_split <- cont_1
I0730 10:23:38.072912 29946 layer_factory.hpp:77] Creating layer conv5
I0730 10:23:38.072919 29934 net.cpp:399] cont_1_lstm2_cont_slice_0_split -> cont_1_lstm2_cont_slice_0_split_0
I0730 10:23:38.072926 29946 net.cpp:91] Creating Layer conv5
I0730 10:23:38.072928 29934 net.cpp:399] cont_1_lstm2_cont_slice_0_split -> cont_1_lstm2_cont_slice_0_split_1
I0730 10:23:38.072932 29946 net.cpp:425] conv5 <- conv4
I0730 10:23:38.072944 29946 net.cpp:399] conv5 -> conv5
I0730 10:23:38.073168 29934 net.cpp:141] Setting up cont_1_lstm2_cont_slice_0_split
I0730 10:23:38.073181 29934 net.cpp:148] Top shape: 1 1 (1)
I0730 10:23:38.073189 29934 net.cpp:148] Top shape: 1 1 (1)
I0730 10:23:38.073192 29934 net.cpp:156] Memory required for data: 14020
I0730 10:23:38.073197 29934 layer_factory.hpp:77] Creating layer lstm2_x_transform
I0730 10:23:38.073209 29934 net.cpp:91] Creating Layer lstm2_x_transform
I0730 10:23:38.073213 29934 net.cpp:425] lstm2_x_transform <- x
I0730 10:23:38.073226 29934 net.cpp:399] lstm2_x_transform -> W_xc_x
I0730 10:23:38.092972 29946 net.cpp:141] Setting up conv5
I0730 10:23:38.093029 29946 net.cpp:148] Top shape: 10 256 13 13 (432640)
I0730 10:23:38.093035 29946 net.cpp:156] Memory required for data: 65519160
I0730 10:23:38.093068 29946 layer_factory.hpp:77] Creating layer relu5
I0730 10:23:38.093089 29946 net.cpp:91] Creating Layer relu5
I0730 10:23:38.093097 29946 net.cpp:425] relu5 <- conv5
I0730 10:23:38.093107 29946 net.cpp:386] relu5 -> conv5 (in-place)
I0730 10:23:38.093955 29946 net.cpp:141] Setting up relu5
I0730 10:23:38.093973 29946 net.cpp:148] Top shape: 10 256 13 13 (432640)
I0730 10:23:38.093979 29946 net.cpp:156] Memory required for data: 67249720
I0730 10:23:38.093986 29946 layer_factory.hpp:77] Creating layer pool5
I0730 10:23:38.093998 29946 net.cpp:91] Creating Layer pool5
I0730 10:23:38.094003 29946 net.cpp:425] pool5 <- conv5
I0730 10:23:38.094012 29946 net.cpp:399] pool5 -> pool5
I0730 10:23:38.094091 29946 net.cpp:141] Setting up pool5
I0730 10:23:38.094102 29946 net.cpp:148] Top shape: 10 256 6 6 (92160)
I0730 10:23:38.094107 29946 net.cpp:156] Memory required for data: 67618360
I0730 10:23:38.094112 29946 layer_factory.hpp:77] Creating layer fc6
I0730 10:23:38.094131 29946 net.cpp:91] Creating Layer fc6
I0730 10:23:38.094137 29946 net.cpp:425] fc6 <- pool5
I0730 10:23:38.094144 29946 net.cpp:399] fc6 -> fc6
I0730 10:23:38.166231 29934 net.cpp:141] Setting up lstm2_x_transform
I0730 10:23:38.166283 29934 net.cpp:148] Top shape: 1 1 4000 (4000)
I0730 10:23:38.166290 29934 net.cpp:156] Memory required for data: 30020
I0730 10:23:38.166313 29934 layer_factory.hpp:77] Creating layer lstm2_W_xc_x_slice
I0730 10:23:38.166329 29934 net.cpp:91] Creating Layer lstm2_W_xc_x_slice
I0730 10:23:38.166337 29934 net.cpp:425] lstm2_W_xc_x_slice <- W_xc_x
I0730 10:23:38.166349 29934 net.cpp:399] lstm2_W_xc_x_slice -> W_xc_x_1
I0730 10:23:38.166405 29934 net.cpp:141] Setting up lstm2_W_xc_x_slice
I0730 10:23:38.166417 29934 net.cpp:148] Top shape: 1 1 4000 (4000)
I0730 10:23:38.166422 29934 net.cpp:156] Memory required for data: 46020
I0730 10:23:38.166427 29934 layer_factory.hpp:77] Creating layer lstm2_h_conted_0
I0730 10:23:38.166440 29934 net.cpp:91] Creating Layer lstm2_h_conted_0
I0730 10:23:38.166445 29934 net.cpp:425] lstm2_h_conted_0 <- h_0
I0730 10:23:38.166452 29934 net.cpp:425] lstm2_h_conted_0 <- cont_1_lstm2_cont_slice_0_split_0
I0730 10:23:38.166460 29934 net.cpp:399] lstm2_h_conted_0 -> h_conted_0
I0730 10:23:38.166568 29934 net.cpp:141] Setting up lstm2_h_conted_0
I0730 10:23:38.166577 29934 net.cpp:148] Top shape: 1 1 1000 (1000)
I0730 10:23:38.166582 29934 net.cpp:156] Memory required for data: 50020
I0730 10:23:38.166587 29934 layer_factory.hpp:77] Creating layer lstm2_transform_1
I0730 10:23:38.166601 29934 net.cpp:91] Creating Layer lstm2_transform_1
I0730 10:23:38.166607 29934 net.cpp:425] lstm2_transform_1 <- h_conted_0
I0730 10:23:38.166620 29934 net.cpp:399] lstm2_transform_1 -> W_hc_h_0
I0730 10:23:38.209833 29946 net.cpp:141] Setting up fc6
I0730 10:23:38.209900 29946 net.cpp:148] Top shape: 10 4096 (40960)
I0730 10:23:38.209908 29946 net.cpp:156] Memory required for data: 67782200
I0730 10:23:38.209928 29946 layer_factory.hpp:77] Creating layer relu6
I0730 10:23:38.210002 29946 net.cpp:91] Creating Layer relu6
I0730 10:23:38.210011 29946 net.cpp:425] relu6 <- fc6
I0730 10:23:38.210027 29946 net.cpp:386] relu6 -> fc6 (in-place)
I0730 10:23:38.210567 29946 net.cpp:141] Setting up relu6
I0730 10:23:38.210582 29946 net.cpp:148] Top shape: 10 4096 (40960)
I0730 10:23:38.210589 29946 net.cpp:156] Memory required for data: 67946040
I0730 10:23:38.210598 29946 layer_factory.hpp:77] Creating layer drop6
I0730 10:23:38.210644 29946 net.cpp:91] Creating Layer drop6
I0730 10:23:38.210650 29946 net.cpp:425] drop6 <- fc6
I0730 10:23:38.210657 29946 net.cpp:386] drop6 -> fc6 (in-place)
I0730 10:23:38.210752 29946 net.cpp:141] Setting up drop6
I0730 10:23:38.210764 29946 net.cpp:148] Top shape: 10 4096 (40960)
I0730 10:23:38.210769 29946 net.cpp:156] Memory required for data: 68109880
I0730 10:23:38.210775 29946 layer_factory.hpp:77] Creating layer fc7
I0730 10:23:38.210801 29946 net.cpp:91] Creating Layer fc7
I0730 10:23:38.210808 29946 net.cpp:425] fc7 <- fc6
I0730 10:23:38.210819 29946 net.cpp:399] fc7 -> fc7
I0730 10:23:38.244690 29934 net.cpp:141] Setting up lstm2_transform_1
I0730 10:23:38.244745 29934 net.cpp:148] Top shape: 1 1 4000 (4000)
I0730 10:23:38.244750 29934 net.cpp:156] Memory required for data: 66020
I0730 10:23:38.244776 29934 layer_factory.hpp:77] Creating layer lstm2_gate_input_1
I0730 10:23:38.244798 29934 net.cpp:91] Creating Layer lstm2_gate_input_1
I0730 10:23:38.244808 29934 net.cpp:425] lstm2_gate_input_1 <- W_hc_h_0
I0730 10:23:38.244817 29934 net.cpp:425] lstm2_gate_input_1 <- W_xc_x_1
I0730 10:23:38.244832 29934 net.cpp:399] lstm2_gate_input_1 -> gate_input_1
I0730 10:23:38.244895 29934 net.cpp:141] Setting up lstm2_gate_input_1
I0730 10:23:38.244910 29934 net.cpp:148] Top shape: 1 1 4000 (4000)
I0730 10:23:38.244915 29934 net.cpp:156] Memory required for data: 82020
I0730 10:23:38.244920 29934 layer_factory.hpp:77] Creating layer lstm2_unit_1
I0730 10:23:38.244930 29934 net.cpp:91] Creating Layer lstm2_unit_1
I0730 10:23:38.244935 29934 net.cpp:425] lstm2_unit_1 <- c_0
I0730 10:23:38.244941 29934 net.cpp:425] lstm2_unit_1 <- gate_input_1
I0730 10:23:38.244947 29934 net.cpp:425] lstm2_unit_1 <- cont_1_lstm2_cont_slice_0_split_1
I0730 10:23:38.244954 29934 net.cpp:399] lstm2_unit_1 -> c_1
I0730 10:23:38.244963 29934 net.cpp:399] lstm2_unit_1 -> h_1
I0730 10:23:38.245036 29934 net.cpp:141] Setting up lstm2_unit_1
I0730 10:23:38.245046 29934 net.cpp:148] Top shape: 1 1 1000 (1000)
I0730 10:23:38.245052 29934 net.cpp:148] Top shape: 1 1 1000 (1000)
I0730 10:23:38.245057 29934 net.cpp:156] Memory required for data: 90020
I0730 10:23:38.245062 29934 layer_factory.hpp:77] Creating layer lstm2_
I0730 10:23:38.245071 29934 net.cpp:91] Creating Layer lstm2_
I0730 10:23:38.245076 29934 net.cpp:425] lstm2_ <- c_1
I0730 10:23:38.245085 29934 net.cpp:399] lstm2_ -> c_T
I0730 10:23:38.245120 29934 net.cpp:141] Setting up lstm2_
I0730 10:23:38.245128 29934 net.cpp:148] Top shape: 1 1 1000 (1000)
I0730 10:23:38.245132 29934 net.cpp:156] Memory required for data: 94020
I0730 10:23:38.245137 29934 layer_factory.hpp:77] Creating layer lstm2_h_concat
I0730 10:23:38.245153 29934 net.cpp:91] Creating Layer lstm2_h_concat
I0730 10:23:38.245158 29934 net.cpp:425] lstm2_h_concat <- h_1
I0730 10:23:38.245167 29934 net.cpp:399] lstm2_h_concat -> h
I0730 10:23:38.245205 29934 net.cpp:141] Setting up lstm2_h_concat
I0730 10:23:38.245215 29934 net.cpp:148] Top shape: 1 1 1000 (1000)
I0730 10:23:38.245219 29934 net.cpp:156] Memory required for data: 98020
I0730 10:23:38.245224 29934 layer_factory.hpp:77] Creating layer h_pseudoloss
I0730 10:23:38.245234 29934 net.cpp:91] Creating Layer h_pseudoloss
I0730 10:23:38.245239 29934 net.cpp:425] h_pseudoloss <- h
I0730 10:23:38.245250 29934 net.cpp:399] h_pseudoloss -> h_pseudoloss
I0730 10:23:38.245362 29934 net.cpp:141] Setting up h_pseudoloss
…
I0730 10:23:38.245487 29934 net.cpp:219] lstm2_ does not need backward computation.
I0730 10:23:38.245491 29934 net.cpp:261] This network produces output c_T
I0730 10:23:38.245496 29934 net.cpp:261] This network produces output h_pseudoloss
I0730 10:23:38.245517 29934 net.cpp:274] Network initialization done.
I0730 10:23:38.245579 29934 recurrent_layer.cpp:150] Adding parameter 0: W_xc
I0730 10:23:38.245586 29934 recurrent_layer.cpp:150] Adding parameter 1: b_c
I0730 10:23:38.245591 29934 recurrent_layer.cpp:150] Adding parameter 2: W_hc
I0730 10:23:38.245710 29934 net.cpp:141] Setting up lstm2
I0730 10:23:38.245729 29934 net.cpp:148] Top shape: 1 1 1000 (1000)
I0730 10:23:38.245735 29934 net.cpp:156] Memory required for data: 36412
I0730 10:23:38.245751 29934 layer_factory.hpp:77] Creating layer predict
I0730 10:23:38.245769 29934 net.cpp:91] Creating Layer predict
I0730 10:23:38.245779 29934 net.cpp:425] predict <- lstm2
I0730 10:23:38.245787 29934 net.cpp:399] predict -> predict
I0730 10:23:38.336158 29946 net.cpp:141] Setting up fc7
I0730 10:23:38.336221 29946 net.cpp:148] Top shape: 10 4096 (40960)
I0730 10:23:38.336228 29946 net.cpp:156] Memory required for data: 68273720
I0730 10:23:38.336249 29946 layer_factory.hpp:77] Creating layer relu7
I0730 10:23:38.336268 29946 net.cpp:91] Creating Layer relu7
I0730 10:23:38.336277 29946 net.cpp:425] relu7 <- fc7
I0730 10:23:38.336293 29946 net.cpp:386] relu7 -> fc7 (in-place)
I0730 10:23:38.338027 29946 net.cpp:141] Setting up relu7
I0730 10:23:38.338047 29946 net.cpp:148] Top shape: 10 4096 (40960)
I0730 10:23:38.338052 29946 net.cpp:156] Memory required for data: 68437560
I0730 10:23:38.338057 29946 layer_factory.hpp:77] Creating layer drop7
I0730 10:23:38.338073 29946 net.cpp:91] Creating Layer drop7
I0730 10:23:38.338079 29946 net.cpp:425] drop7 <- fc7
I0730 10:23:38.338088 29946 net.cpp:386] drop7 -> fc7 (in-place)
I0730 10:23:38.338135 29946 net.cpp:141] Setting up drop7
I0730 10:23:38.338145 29946 net.cpp:148] Top shape: 10 4096 (40960)
I0730 10:23:38.338150 29946 net.cpp:156] Memory required for data: 68601400
I0730 10:23:38.338155 29946 layer_factory.hpp:77] Creating layer fc8
I0730 10:23:38.338166 29946 net.cpp:91] Creating Layer fc8
I0730 10:23:38.338171 29946 net.cpp:425] fc8 <- fc7
I0730 10:23:38.338183 29946 net.cpp:399] fc8 -> fc8
I0730 10:23:38.357720 29946 net.cpp:141] Setting up fc8
I0730 10:23:38.357803 29946 net.cpp:148] Top shape: 10 1000 (10000)
I0730 10:23:38.357815 29946 net.cpp:156] Memory required for data: 68641400
I0730 10:23:38.357839 29946 layer_factory.hpp:77] Creating layer prob
I0730 10:23:38.357875 29946 net.cpp:91] Creating Layer prob
I0730 10:23:38.357887 29946 net.cpp:425] prob <- fc8
I0730 10:23:38.357904 29946 net.cpp:399] prob -> prob
I0730 10:23:38.358626 29946 net.cpp:141] Setting up prob
I0730 10:23:38.358649 29946 net.cpp:148] Top shape: 10 1000 (10000)
I0730 10:23:38.358657 29946 net.cpp:156] Memory required for data: 68681400
I0730 10:23:38.358667 29946 net.cpp:219] prob does not need backward computation.
I0730 10:23:38.358675 29946 net.cpp:219] fc8 does not need backward computation.
I0730 10:23:38.358683 29946 net.cpp:219] drop7 does not need backward computation.
I0730 10:23:38.358705 29946 net.cpp:219] relu7 does not need backward computation.
…
