…
Java HotSpot(TM) 64-Bit Server VM warning: You have loaded library /home/peifeng/work/run/storm102/data/workers/80366af6-8d28-43a1-a1a2-5105e0e2024f/tmp/cvld1321733385179578474/libopencv_java310.xine1.so which might have disabled stack guard. The VM will try to fix the stack guard now.
It's highly recommended that you fix the library with 'execstack -c <libfile>', or link it with '-z noexecstack'.
WARNING: Logging before InitGoogleLogging() is written to STDERR
I0913 20:31:21.703181  5857 net.cpp:49] Initializing net from parameters: 
name: "GoogleNet"
state {
  phase: TEST
}
layer {
  name: "data"
  type: "Input"
  top: "data"
  input_param {
    shape {
      dim: 10
      dim: 3
      dim: 224
      dim: 224
    }
  }
}
layer {
  name: "conv1/7x7_s2"
  type: "Convolution"
  bottom: "data"
  top: "conv1/7x7_s2"
  param {
    lr_mult: 1
    decay_mult: 1
  }
  param {
    lr_mult: 2
    decay_mult: 0
  }
  convolution_param {
    num_output: 64
    pad: 3
    kernel_size: 7
    stride: 2
    weight_filler {
      type: "xavier"
      std: 0.1
    }
    bias_filler {
      type: "constant"
      value: 0.2
    }
  }
}
layer {
  name: "conv1/relu_7x7"
  type: "ReLU"
  bottom: "conv1/7x7_s2"
  top: "conv1/7x7_s2"
}
layer {
  name: "pool1/3x3_s2"
  type: "Pooling"
  bottom: "conv1/7x7_s2"
  top: "pool1/3x3_s2"
  pooling_param {
    pool: MAX
    kernel_size: 3
    stride: 2
  }
}
layer {
  name: "pool1/norm1"
  type: "LRN"
  bottom: "pool1/3x3_s2"
  top: "pool1/norm1"
  lrn_param {
    local_size: 5
    alpha: 0.0001
    beta: 0.75
  }
}
layer {
  name: "conv2/3x3_reduce"
  type: "Convolution"
  bottom: "pool1/norm1"
  top: "conv2/3x3_reduce"
  param {
    lr_mult: 1
    decay_mult: 1
  }
  param {
    lr_mult: 2
    decay_mult: 0
  }
  convolution_param {
    num_output: 64
    kernel_size: 1
    weight_filler {
      type: "xavier"
      std: 0.1
    }
    bias_filler {
      type: "constant"
      value: 0.2
    }
  }
}
layer {
  name: "conv2/relu_3x3_reduce"
  type: "ReLU"
  bottom: "conv2/3x3_reduce"
  top: "conv2/3x3_reduce"
}
layer {
  name: "conv2/3x3"
  type: "Convolution"
  bottom: "conv2/3x3_reduce"
  top: "conv2/3x3"
  param {
    lr_mult: 1
    decay_mult: 1
  }
  param {
    lr_mult: 2
    decay_mult: 0
  }
  convolution_param {
    num_output: 192
    pad: 1
    kernel_size: 3
    weight_filler {
      type: "xavier"
      std: 0.03
    }
    bias_filler {
      type: "constant"
      value: 0.2
    }
  }
}
layer {
  name: "conv2/relu_3x3"
  type: "ReLU"
  bottom: "conv2/3x3"
  top: "conv2/3x3"
}
layer {
  name: "conv2/norm2"
  type: "LRN"
  bottom: "conv2/3x3"
  top: "conv2/norm2"
  lrn_param {
    local_size: 5
    alpha: 0.0001
    beta: 0.75
  }
}
layer {
  name: "pool2/3x3_s2"
  type: "Pooling"
  bottom: "conv2/norm2"
  top: "pool2/3x3_s2"
  pooling_param {
    pool: MAX
    kernel_size: 3
    stride: 2
  }
}
layer {
  name: "inception_3a/1x1"
  type: "Convolution"
  bottom: "pool2/3x3_s2"
  top: "inception_3a/1x1"
  param {
    lr_mult: 1
    decay_mult: 1
  }
  param {
    lr_mult: 2
    decay_mult: 0
  }
  convolution_param {
    num_output: 64
    kernel_size: 1
    weight_filler {
      type: "xavier"
      std: 0.03
    }
    bias_filler {
      type: "constant"
      value: 0.2
    }
  }
}
layer {
  name: "inception_3a/relu_1x1"
  type: "ReLU"
  bottom: "inception_3a/1x1"
  top: "inception_3a/1x1"
}
layer {
  name: "inception_3a/3x3_reduce"
  type: "Convolution"
  bottom: "pool2/3x3_s2"
  top: "inception_3a/3x3_reduce"
  param {
    lr_mult: 1
    decay_mult: 1
  }
  param {
    lr_mult: 2
    decay_mult: 0
  }
  convolution_param {
    num_output: 96
    kernel_size: 1
    weight_filler {
      type: "xavier"
      std: 0.09
    }
    bias_filler {
      type: "constant"
      value: 0.2
    }
  }
}
layer {
  name: "inception_3a/relu_3x3_reduce"
  type: "ReLU"
  bottom: "inception_3a/3x3_reduce"
  top: "inception_3a/3x3_reduce"
}
layer {
  name: "inception_3a/3x3"
  type: "Convolution"
  bottom: "inception_3a/3x3_reduce"
  top: "inception_3a/3x3"
  param {
    lr_mult: 1
    decay_mult: 1
  }
  param {
    lr_mult: 2
    decay_mult: 0
  }
  convolution_param {
    num_output: 128
    pad: 1
    kernel_size: 3
    weight_filler {
      type: "xavier"
      std: 0.03
    }
    bias_filler {
      type: "constant"
      value: 0.2
    }
  }
}
layer {
  name: "inception_3a/relu_3x3"
  type: "ReLU"
  bottom: "inception_3a/3x3"
  top: "inception_3a/3x3"
}
layer {
  name: "inception_3a/5x5_reduce"
  type: "Convolution"
  bottom: "pool2/3x3_s2"
  top: "inception_3a/5x5_reduce"
  param {
    lr_mult: 1
    decay_mult: 1
  }
  param {
    lr_mult: 2
    decay_mult: 0
  }
  convolution_param {
    num_output: 16
    kernel_size: 1
    weight_filler {
      type: "xavier"
      std: 0.2
    }
    bias_filler {
      type: "constant"
      value: 0.2
    }
  }
}
layer {
  name: "inception_3a/relu_5x5_reduce"
  type: "ReLU"
  bottom: "inception_3a/5x5_reduce"
  top: "inception_3a/5x5_reduce"
}
layer {
  name: "inception_3a/5x5"
  type: "Convolution"
  bottom: "inception_3a/5x5_reduce"
  top: "inception_3a/5x5"
  param {
    lr_mult: 1
    decay_mult: 1
  }
  param {
    lr_mult: 2
    decay_mult: 0
  }
  convolution_param {
    num_output: 32
    pad: 2
    kernel_size: 5
    weight_filler {
      type: "xavier"
      std: 0.03
    }
    bias_filler {
      type: "constant"
      value: 0.2
    }
  }
}
layer {
  name: "inception_3a/relu_5x5"
  type: "ReLU"
  bottom: "inception_3a/5x5"
  top: "inception_3a/5x5"
}
layer {
  name: "inception_3a/pool"
  type: "Pooling"
  bottom: "pool2/3x3_s2"
  top: "inception_3a/pool"
  pooling_param {
    pool: MAX
    kernel_size: 3
    stride: 1
    pad: 1
  }
}
layer {
  name: "inception_3a/pool_proj"
  type: "Convolution"
  bottom: "inception_3a/pool"
  top: "inception_3a/pool_proj"
  param {
    lr_mult: 1
    decay_mult: 1
  }
  param {
    lr_mult: 2
    decay_mult: 0
  }
  convolution_param {
    num_output: 32
    kernel_size: 1
    weight_filler {
      type: "xavier"
      std: 0.1
    }
    bias_filler {
      type: "constant"
      value: 0.2
    }
  }
}
layer {
  name: "inception_3a/relu_pool_proj"
  type: "ReLU"
  bottom: "inception_3a/pool_proj"
  top: "inception_3a/pool_proj"
}
layer {
  name: "inception_3a/output"
  type: "Concat"
  bottom: "inception_3a/1x1"
  bottom: "inception_3a/3x3"
  bottom: "inception_3a/5x5"
  bottom: "inception_3a/pool_proj"
  top: "inception_3a/output"
}
layer {
  name: "inception_3b/1x1"
  type: "Convolution"
  bottom: "inception_3a/output"
  top: "inception_3b/1x1"
  param {
    lr_mult: 1
    decay_mult: 1
  }
  param {
    lr_mult: 2
    decay_mult: 0
  }
  convolution_param {
    num_output: 128
    kernel_size: 1
    weight_filler {
      type: "xavier"
      std: 0.03
    }
    bias_filler {
      type: "constant"
      value: 0.2
    }
  }
}
layer {
  name: "inception_3b/relu_1x1"
  type: "ReLU"
  bottom: "inception_3b/1x1"
  top: "inception_3b/1x1"
}
layer {
  name: "inception_3b/3x3_reduce"
  type: "Convolution"
  bottom: "inception_3a/output"
  top: "inception_3b/3x3_reduce"
  param {
    lr_mult: 1
    decay_mult: 1
  }
  param {
    lr_mult: 2
    decay_mult: 0
  }
  convolution_param {
    num_output: 128
    kernel_size: 1
    weight_filler {
      type: "xavier"
      std: 0.09
    }
    bias_filler {
      type: "constant"
      value: 0.2
    }
  }
}
layer {
  name: "inception_3b/relu_3x3_reduce"
  type: "ReLU"
  bottom: "inception_3b/3x3_reduce"
  top: "inception_3b/3x3_reduce"
}
layer {
  name: "inception_3b/3x3"
  type: "Convolution"
  bottom: "inception_3b/3x3_reduce"
  top: "inception_3b/3x3"
  param {
    lr_mult: 1
    decay_mult: 1
  }
  param {
    lr_mult: 2
    decay_mult: 0
  }
  convolution_param {
    num_output: 192
    pad: 1
    kernel_size: 3
    weight_filler {
      type: "xavier"
      std: 0.03
    }
    bias_filler {
      type: "constant"
      value: 0.2
    }
  }
}
layer {
  name: "inception_3b/relu_3x3"
  type: "ReLU"
  bottom: "inception_3b/3x3"
  top: "inception_3b/3x3"
}
layer {
  name: "inception_3b/5x5_reduce"
  type: "Convolution"
  bottom: "inception_3a/output"
  top: "inception_3b/5x5_reduce"
  param {
    lr_mult: 1
    decay_mult: 1
  }
  param {
    lr_mult: 2
    decay_mult: 0
  }
  convolution_param {
    num_output: 32
    kernel_size: 1
    weight_filler {
      type: "xavier"
      std: 0.2
    }
    bias_filler {
      type: "constant"
      value: 0.2
    }
  }
}
layer {
  name: "inception_3b/relu_5x5_reduce"
  type: "ReLU"
  bottom: "inception_3b/5x5_reduce"
  top: "inception_3b/5x5_reduce"
}
layer {
  name: "inception_3b/5x5"
  type: "Convolution"
  bottom: "inception_3b/5x5_reduce"
  top: "inception_3b/5x5"
  param {
    lr_mult: 1
    decay_mult: 1
  }
  param {
    lr_mult: 2
    decay_mult: 0
  }
  convolution_param {
    num_output: 96
    pad: 2
    kernel_size: 5
    weight_filler {
      type: "xavier"
      std: 0.03
    }
    bias_filler {
      type: "constant"
      value: 0.2
    }
  }
}
layer {
  name: "inception_3b/relu_5x5"
  type: "ReLU"
  bottom: "inception_3b/5x5"
  top: "inception_3b/5x5"
}
layer {
  name: "inception_3b/pool"
  type: "Pooling"
  bottom: "inception_3a/output"
  top: "inception_3b/pool"
  pooling_param {
    pool: MAX
    kernel_size: 3
    stride: 1
    pad: 1
  }
}
layer {
  name: "inception_3b/pool_proj"
  type: "Convolution"
  bottom: "inception_3b/pool"
  top: "inception_3b/pool_proj"
  param {
    lr_mult: 1
    decay_mult: 1
  }
  param {
    lr_mult: 2
    decay_mult: 0
  }
  convolution_param {
    num_output: 64
    kernel_size: 1
    weight_filler {
      type: "xavier"
      std: 0.1
    }
    bias_filler {
      type: "constant"
      value: 0.2
    }
  }
}
layer {
  name: "inception_3b/relu_pool_proj"
  type: "ReLU"
  bottom: "inception_3b/pool_proj"
  top: "inception_3b/pool_proj"
}
layer {
  name: "inception_3b/output"
  type: "Concat"
  bottom: "inception_3b/1x1"
  bottom: "inception_3b/3x3"
  bottom: "inception_3b/5x5"
  bottom: "inception_3b/pool_proj"
  top: "inception_3b/output"
}
layer {
  name: "pool3/3x3_s2"
  type: "Pooling"
  bottom: "inception_3b/output"
  top: "pool3/3x3_s2"
  pooling_param {
    pool: MAX
    kernel_size: 3
    stride: 2
  }
}
layer {
  name: "inception_4a/1x1"
  type: "Convolution"
  bottom: "pool3/3x3_s2"
  top: "inception_4a/1x1"
  param {
    lr_mult: 1
    decay_mult: 1
  }
  param {
    lr_mult: 2
    decay_mult: 0
  }
  convolution_param {
    num_output: 192
    kernel_size: 1
    weight_filler {
      type: "xavier"
      std: 0.03
    }
    bias_filler {
      type: "constant"
      value: 0.2
    }
  }
}
layer {
  name: "inception_4a/relu_1x1"
  type: "ReLU"
  bottom: "inception_4a/1x1"
  top: "inception_4a/1x1"
}
layer {
  name: "inception_4a/3x3_reduce"
  type: "Convolution"
  bottom: "pool3/3x3_s2"
  top: "inception_4a/3x3_reduce"
  param {
    lr_mult: 1
    decay_mult: 1
  }
  param {
    lr_mult: 2
    decay_mult: 0
  }
  convolution_param {
    num_output: 96
    kernel_size: 1
    weight_filler {
      type: "xavier"
      std: 0.09
    }
    bias_filler {
      type: "constant"
      value: 0.2
    }
  }
}
layer {
  name: "inception_4a/relu_3x3_reduce"
  type: "ReLU"
  bottom: "inception_4a/3x3_reduce"
  top: "inception_4a/3x3_reduce"
}
layer {
  name: "inception_4a/3x3"
  type: "Convolution"
  bottom: "inception_4a/3x3_reduce"
  top: "inception_4a/3x3"
  param {
    lr_mult: 1
    decay_mult: 1
  }
  param {
    lr_mult: 2
    decay_mult: 0
  }
  convolution_param {
    num_output: 208
    pad: 1
    kernel_size: 3
    weight_filler {
      type: "xavier"
      std: 0.03
    }
    bias_filler {
      type: "constant"
      value: 0.2
    }
  }
}
layer {
  name: "inception_4a/relu_3x3"
  type: "ReLU"
  bottom: "inception_4a/3x3"
  top: "inception_4a/3x3"
}
layer {
  name: "inception_4a/5x5_reduce"
  type: "Convolution"
  bottom: "pool3/3x3_s2"
  top: "inception_4a/5x5_reduce"
  param {
    lr_mult: 1
    decay_mult: 1
  }
  param {
    lr_mult: 2
    decay_mult: 0
  }
  convolution_param {
    num_output: 16
    kernel_size: 1
    weight_filler {
      type: "xavier"
      std: 0.2
    }
    bias_filler {
      type: "constant"
      value: 0.2
    }
  }
}
layer {
  name: "inception_4a/relu_5x5_reduce"
  type: "ReLU"
  bottom: "inception_4a/5x5_reduce"
  top: "inception_4a/5x5_reduce"
}
layer {
  name: "inception_4a/5x5"
  type: "Convolution"
  bottom: "inception_4a/5x5_reduce"
  top: "inception_4a/5x5"
  param {
    lr_mult: 1
    decay_mult: 1
  }
  param {
    lr_mult: 2
    decay_mult: 0
  }
  convolution_param {
    num_output: 48
    pad: 2
    kernel_size: 5
    weight_filler {
      type: "xavier"
      std: 0.03
    }
    bias_filler {
      type: "constant"
      value: 0.2
    }
  }
}
layer {
  name: "inception_4a/relu_5x5"
  type: "ReLU"
  bottom: "inception_4a/5x5"
  top: "inception_4a/5x5"
}
layer {
  name: "inception_4a/pool"
  type: "Pooling"
  bottom: "pool3/3x3_s2"
  top: "inception_4a/pool"
  pooling_param {
    pool: MAX
    kernel_size: 3
    stride: 1
    pad: 1
  }
}
layer {
  name: "inception_4a/pool_proj"
  type: "Convolution"
  bottom: "inception_4a/pool"
  top: "inception_4a/pool_proj"
  param {
    lr_mult: 1
    decay_mult: 1
  }
  param {
    lr_mult: 2
    decay_mult: 0
  }
  convolution_param {
    num_output: 64
    kernel_size: 1
    weight_filler {
      type: "xavier"
      std: 0.1
    }
    bias_filler {
      type: "constant"
      value: 0.2
    }
  }
}
layer {
  name: "inception_4a/relu_pool_proj"
  type: "ReLU"
  bottom: "inception_4a/pool_proj"
  top: "inception_4a/pool_proj"
}
layer {
  name: "inception_4a/output"
  type: "Concat"
  bottom: "inception_4a/1x1"
  bottom: "inception_4a/3x3"
  bottom: "inception_4a/5x5"
  bottom: "inception_4a/pool_proj"
  top: "inception_4a/output"
}
layer {
  name: "inception_4b/1x1"
  type: "Convolution"
  bottom: "inception_4a/output"
  top: "inception_4b/1x1"
  param {
    lr_mult: 1
    decay_mult: 1
  }
  param {
    lr_mult: 2
    decay_mult: 0
  }
  convolution_param {
    num_output: 160
    kernel_size: 1
    weight_filler {
      type: "xavier"
      std: 0.03
    }
    bias_filler {
      type: "constant"
      value: 0.2
    }
  }
}
layer {
  name: "inception_4b/relu_1x1"
  type: "ReLU"
  bottom: "inception_4b/1x1"
  top: "inception_4b/1x1"
}
layer {
  name: "inception_4b/3x3_reduce"
  type: "Convolution"
  bottom: "inception_4a/output"
  top: "inception_4b/3x3_reduce"
  param {
    lr_mult: 1
    decay_mult: 1
  }
  param {
    lr_mult: 2
    decay_mult: 0
  }
  convolution_param {
    num_output: 112
    kernel_size: 1
    weight_filler {
      type: "xavier"
      std: 0.09
    }
    bias_filler {
      type: "constant"
      value: 0.2
    }
  }
}
layer {
  name: "inception_4b/relu_3x3_reduce"
  type: "ReLU"
  bottom: "inception_4b/3x3_reduce"
  top: "inception_4b/3x3_reduce"
}
layer {
  name: "inception_4b/3x3"
  type: "Convolution"
  bottom: "inception_4b/3x3_reduce"
  top: "inception_4b/3x3"
  param {
    lr_mult: 1
    decay_mult: 1
  }
  param {
    lr_mult: 2
    decay_mult: 0
  }
  convolution_param {
    num_output: 224
    pad: 1
    kernel_size: 3
    weight_filler {
      type: "xavier"
      std: 0.03
    }
    bias_filler {
      type: "constant"
      value: 0.2
    }
  }
}
layer {
  name: "inception_4b/relu_3x3"
  type: "ReLU"
  bottom: "inception_4b/3x3"
  top: "inception_4b/3x3"
}
layer {
  name: "inception_4b/5x5_reduce"
  type: "Convolution"
  bottom: "inception_4a/output"
  top: "inception_4b/5x5_reduce"
  param {
    lr_mult: 1
    decay_mult: 1
  }
  param {
    lr_mult: 2
    decay_mult: 0
  }
  convolution_param {
    num_output: 24
    kernel_size: 1
    weight_filler {
      type: "xavier"
      std: 0.2
    }
    bias_filler {
      type: "constant"
      value: 0.2
    }
  }
}
layer {
  name: "inception_4b/relu_5x5_reduce"
  type: "ReLU"
  bottom: "inception_4b/5x5_reduce"
  top: "inception_4b/5x5_reduce"
}
layer {
  name: "inception_4b/5x5"
  type: "Convolution"
  bottom: "inception_4b/5x5_reduce"
  top: "inception_4b/5x5"
  param {
    lr_mult: 1
    decay_mult: 1
  }
  param {
    lr_mult: 2
    decay_mult: 0
  }
  convolution_param {
    num_output: 64
    pad: 2
    kernel_size: 5
    weight_filler {
      type: "xavier"
      std: 0.03
    }
    bias_filler {
      type: "constant"
      value: 0.2
    }
  }
}
layer {
  name: "inception_4b/relu_5x5"
  type: "ReLU"
  bottom: "inception_4b/5x5"
  top: "inception_4b/5x5"
}
layer {
  name: "inception_4b/pool"
  type: "Pooling"
  bottom: "inception_4a/output"
  top: "inception_4b/pool"
  pooling_param {
    pool: MAX
    kernel_size: 3
    stride: 1
    pad: 1
  }
}
layer {
  name: "inception_4b/pool_proj"
  type: "Convolution"
  bottom: "inception_4b/pool"
  top: "inception_4b/pool_proj"
  param {
    lr_mult: 1
    decay_mult: 1
  }
  param {
    lr_mult: 2
    decay_mult: 0
  }
  convolution_param {
    num_output: 64
    kernel_size: 1
    weight_filler {
      type: "xavier"
      std: 0.1
    }
    bias_filler {
      type: "constant"
      value: 0.2
    }
  }
}
layer {
  name: "inception_4b/relu_pool_proj"
  type: "ReLU"
  bottom: "inception_4b/pool_proj"
  top: "inception_4b/pool_proj"
}
layer {
  name: "inception_4b/output"
  type: "Concat"
  bottom: "inception_4b/1x1"
  bottom: "inception_4b/3x3"
  bottom: "inception_4b/5x5"
  bottom: "inception_4b/pool_proj"
  top: "inception_4b/output"
}
layer {
  name: "inception_4c/1x1"
  type: "Convolution"
  bottom: "inception_4b/output"
  top: "inception_4c/1x1"
  param {
    lr_mult: 1
    decay_mult: 1
  }
  param {
    lr_mult: 2
    decay_mult: 0
  }
  convolution_param {
    num_output: 128
    kernel_size: 1
    weight_filler {
      type: "xavier"
      std: 0.03
    }
    bias_filler {
      type: "constant"
      value: 0.2
    }
  }
}
layer {
  name: "inception_4c/relu_1x1"
  type: "ReLU"
  bottom: "inception_4c/1x1"
  top: "inception_4c/1x1"
}
layer {
  name: "inception_4c/3x3_reduce"
  type: "Convolution"
  bottom: "inception_4b/output"
  top: "inception_4c/3x3_reduce"
  param {
    lr_mult: 1
    decay_mult: 1
  }
  param {
    lr_mult: 2
    decay_mult: 0
  }
  convolution_param {
    num_output: 128
    kernel_size: 1
    weight_filler {
      type: "xavier"
      std: 0.09
    }
    bias_filler {
      type: "constant"
      value: 0.2
    }
  }
}
layer {
  name: "inception_4c/relu_3x3_reduce"
  type: "ReLU"
  bottom: "inception_4c/3x3_reduce"
  top: "inception_4c/3x3_reduce"
}
layer {
  name: "inception_4c/3x3"
  type: "Convolution"
  bottom: "inception_4c/3x3_reduce"
  top: "inception_4c/3x3"
  param {
    lr_mult: 1
    decay_mult: 1
  }
  param {
    lr_mult: 2
    decay_mult: 0
  }
  convolution_param {
    num_output: 256
    pad: 1
    kernel_size: 3
    weight_filler {
      type: "xavier"
      std: 0.03
    }
    bias_filler {
      type: "constant"
      value: 0.2
    }
  }
}
layer {
  name: "inception_4c/relu_3x3"
  type: "ReLU"
  bottom: "inception_4c/3x3"
  top: "inception_4c/3x3"
}
layer {
  name: "inception_4c/5x5_reduce"
  type: "Convolution"
  bottom: "inception_4b/output"
  top: "inception_4c/5x5_reduce"
  param {
    lr_mult: 1
    decay_mult: 1
  }
  param {
    lr_mult: 2
    decay_mult: 0
  }
  convolution_param {
    num_output: 24
    kernel_size: 1
    weight_filler {
      type: "xavier"
      std: 0.2
    }
    bias_filler {
      type: "constant"
      value: 0.2
    }
  }
}
layer {
  name: "inception_4c/relu_5x5_reduce"
  type: "ReLU"
  bottom: "inception_4c/5x5_reduce"
  top: "inception_4c/5x5_reduce"
}
layer {
  name: "inception_4c/5x5"
  type: "Convolution"
  bottom: "inception_4c/5x5_reduce"
  top: "inception_4c/5x5"
  param {
    lr_mult: 1
    decay_mult: 1
  }
  param {
    lr_mult: 2
    decay_mult: 0
  }
  convolution_param {
    num_output: 64
    pad: 2
    kernel_size: 5
    weight_filler {
      type: "xavier"
      std: 0.03
    }
    bias_filler {
      type: "constant"
      value: 0.2
    }
  }
}
layer {
  name: "inception_4c/relu_5x5"
  type: "ReLU"
  bottom: "inception_4c/5x5"
  top: "inception_4c/5x5"
}
layer {
  name: "inception_4c/pool"
  type: "Pooling"
  bottom: "inception_4b/output"
  top: "inception_4c/pool"
  pooling_param {
    pool: MAX
    kernel_size: 3
    stride: 1
    pad: 1
  }
}
layer {
  name: "inception_4c/pool_proj"
  type: "Convolution"
  bottom: "inception_4c/pool"
  top: "inception_4c/pool_proj"
  param {
    lr_mult: 1
    decay_mult: 1
  }
  param {
    lr_mult: 2
    decay_mult: 0
  }
  convolution_param {
    num_output: 64
    kernel_size: 1
    weight_filler {
      type: "xavier"
      std: 0.1
    }
    bias_filler {
      type: "constant"
      value: 0.2
    }
  }
}
layer {
  name: "inception_4c/relu_pool_proj"
  type: "ReLU"
  bottom: "inception_4c/pool_proj"
  top: "inception_4c/pool_proj"
}
layer {
  name: "inception_4c/output"
  type: "Concat"
  bottom: "inception_4c/1x1"
  bottom: "inception_4c/3x3"
  bottom: "inception_4c/5x5"
  bottom: "inception_4c/pool_proj"
  top: "inception_4c/output"
}
layer {
  name: "inception_4d/1x1"
  type: "Convolution"
  bottom: "inception_4c/output"
  top: "inception_4d/1x1"
  param {
    lr_mult: 1
    decay_mult: 1
  }
  param {
    lr_mult: 2
    decay_mult: 0
  }
  convolution_param {
    num_output: 112
    kernel_size: 1
    weight_filler {
      type: "xavier"
      std: 0.03
    }
    bias_filler {
      type: "constant"
      value: 0.2
    }
  }
}
layer {
  name: "inception_4d/relu_1x1"
  type: "ReLU"
  bottom: "inception_4d/1x1"
  top: "inception_4d/1x1"
}
layer {
  name: "inception_4d/3x3_reduce"
  type: "Convolution"
  bottom: "inception_4c/output"
  top: "inception_4d/3x3_reduce"
  param {
    lr_mult: 1
    decay_mult: 1
  }
  param {
    lr_mult: 2
    decay_mult: 0
  }
  convolution_param {
    num_output: 144
    kernel_size: 1
    weight_filler {
      type: "xavier"
      std: 0.09
    }
    bias_filler {
      type: "constant"
      value: 0.2
    }
  }
}
layer {
  name: "inception_4d/relu_3x3_reduce"
  type: "ReLU"
  bottom: "inception_4d/3x3_reduce"
  top: "inception_4d/3x3_reduce"
}
layer {
  name: "inception_4d/3x3"
  type: "Convolution"
  bottom: "inception_4d/3x3_reduce"
  top: "inception_4d/3x3"
  param {
    lr_mult: 1
    decay_mult: 1
  }
  param {
    lr_mult: 2
    decay_mult: 0
  }
  convolution_param {
    num_output: 288
    pad: 1
    kernel_size: 3
    weight_filler {
      type: "xavier"
      std: 0.03
    }
    bias_filler {
      type: "constant"
      value: 0.2
    }
  }
}
layer {
  name: "inception_4d/relu_3x3"
  type: "ReLU"
  bottom: "inception_4d/3x3"
  top: "inception_4d/3x3"
}
layer {
  name: "inception_4d/5x5_reduce"
  type: "Convolution"
  bottom: "inception_4c/output"
  top: "inception_4d/5x5_reduce"
  param {
    lr_mult: 1
    decay_mult: 1
  }
  param {
    lr_mult: 2
    decay_mult: 0
  }
  convolution_param {
    num_output: 32
    kernel_size: 1
    weight_filler {
      type: "xavier"
      std: 0.2
    }
    bias_filler {
      type: "constant"
      value: 0.2
    }
  }
}
layer {
  name: "inception_4d/relu_5x5_reduce"
  type: "ReLU"
  bottom: "inception_4d/5x5_reduce"
  top: "inception_4d/5x5_reduce"
}
layer {
  name: "inception_4d/5x5"
  type: "Convolution"
  bottom: "inception_4d/5x5_reduce"
  top: "inception_4d/5x5"
  param {
    lr_mult: 1
    decay_mult: 1
  }
  param {
    lr_mult: 2
    decay_mult: 0
  }
  convolution_param {
    num_output: 64
    pad: 2
    kernel_size: 5
    weight_filler {
      type: "xavier"
      std: 0.03
    }
    bias_filler {
      type: "constant"
      value: 0.2
    }
  }
}
layer {
  name: "inception_4d/relu_5x5"
  type: "ReLU"
  bottom: "inception_4d/5x5"
  top: "inception_4d/5x5"
}
layer {
  name: "inception_4d/pool"
  type: "Pooling"
  bottom: "inception_4c/output"
  top: "inception_4d/pool"
  pooling_param {
    pool: MAX
    kernel_size: 3
    stride: 1
    pad: 1
  }
}
layer {
  name: "inception_4d/pool_proj"
  type: "Convolution"
  bottom: "inception_4d/pool"
  top: "inception_4d/pool_proj"
  param {
    lr_mult: 1
    decay_mult: 1
  }
  param {
    lr_mult: 2
    decay_mult: 0
  }
  convolution_param {
    num_output: 64
    kernel_size: 1
    weight_filler {
      type: "xavier"
      std: 0.1
    }
    bias_filler {
      type: "constant"
      value: 0.2
    }
  }
}
layer {
  name: "inception_4d/relu_pool_proj"
  type: "ReLU"
  bottom: "inception_4d/pool_proj"
  top: "inception_4d/pool_proj"
}
layer {
  name: "inception_4d/output"
  type: "Concat"
  bottom: "inception_4d/1x1"
  bottom: "inception_4d/3x3"
  bottom: "inception_4d/5x5"
  bottom: "inception_4d/pool_proj"
  top: "inception_4d/output"
}
layer {
  name: "inception_4e/1x1"
  type: "Convolution"
  bottom: "inception_4d/output"
  top: "inception_4e/1x1"
  param {
    lr_mult: 1
    decay_mult: 1
  }
  param {
    lr_mult: 2
    decay_mult: 0
  }
  convolution_param {
    num_output: 256
    kernel_size: 1
    weight_filler {
      type: "xavier"
      std: 0.03
    }
    bias_filler {
      type: "constant"
      value: 0.2
    }
  }
}
layer {
  name: "inception_4e/relu_1x1"
  type: "ReLU"
  bottom: "inception_4e/1x1"
  top: "inception_4e/1x1"
}
layer {
  name: "inception_4e/3x3_reduce"
  type: "Convolution"
  bottom: "inception_4d/output"
  top: "inception_4e/3x3_reduce"
  param {
    lr_mult: 1
    decay_mult: 1
  }
  param {
    lr_mult: 2
    decay_mult: 0
  }
  convolution_param {
    num_output: 160
    kernel_size: 1
    weight_filler {
      type: "xavier"
      std: 0.09
    }
    bias_filler {
      type: "constant"
      value: 0.2
    }
  }
}
layer {
  name: "inception_4e/relu_3x3_reduce"
  type: "ReLU"
  bottom: "inception_4e/3x3_reduce"
  top: "inception_4e/3x3_reduce"
}
layer {
  name: "inception_4e/3x3"
  type: "Convolution"
  bottom: "inception_4e/3x3_reduce"
  top: "inception_4e/3x3"
  param {
    lr_mult: 1
    decay_mult: 1
  }
  param {
    lr_mult: 2
    decay_mult: 0
  }
  convolution_param {
    num_output: 320
    pad: 1
    kernel_size: 3
    weight_filler {
      type: "xavier"
      std: 0.03
    }
    bias_filler {
      type: "constant"
      value: 0.2
    }
  }
}
layer {
  name: "inception_4e/relu_3x3"
  type: "ReLU"
  bottom: "inception_4e/3x3"
  top: "inception_4e/3x3"
}
layer {
  name: "inception_4e/5x5_reduce"
  type: "Convolution"
  bottom: "inception_4d/output"
  top: "inception_4e/5x5_reduce"
  param {
    lr_mult: 1
    decay_mult: 1
  }
  param {
    lr_mult: 2
    decay_mult: 0
  }
  convolution_param {
    num_output: 32
    kernel_size: 1
    weight_filler {
      type: "xavier"
      std: 0.2
    }
    bias_filler {
      type: "constant"
      value: 0.2
    }
  }
}
layer {
  name: "inception_4e/relu_5x5_reduce"
  type: "ReLU"
  bottom: "inception_4e/5x5_reduce"
  top: "inception_4e/5x5_reduce"
}
layer {
  name: "inception_4e/5x5"
  type: "Convolution"
  bottom: "inception_4e/5x5_reduce"
  top: "inception_4e/5x5"
  param {
    lr_mult: 1
    decay_mult: 1
  }
  param {
    lr_mult: 2
    decay_mult: 0
  }
  convolution_param {
    num_output: 128
    pad: 2
    kernel_size: 5
    weight_filler {
      type: "xavier"
      std: 0.03
    }
    bias_filler {
      type: "constant"
      value: 0.2
    }
  }
}
layer {
  name: "inception_4e/relu_5x5"
  type: "ReLU"
  bottom: "inception_4e/5x5"
  top: "inception_4e/5x5"
}
layer {
  name: "inception_4e/pool"
  type: "Pooling"
  bottom: "inception_4d/output"
  top: "inception_4e/pool"
  pooling_param {
    pool: MAX
    kernel_size: 3
    stride: 1
    pad: 1
  }
}
layer {
  name: "inception_4e/pool_proj"
  type: "Convolution"
  bottom: "inception_4e/pool"
  top: "inception_4e/pool_proj"
  param {
    lr_mult: 1
    decay_mult: 1
  }
  param {
    lr_mult: 2
    decay_mult: 0
  }
  convolution_param {
    num_output: 128
    kernel_size: 1
    weight_filler {
      type: "xavier"
      std: 0.1
    }
    bias_filler {
      type: "constant"
      value: 0.2
    }
  }
}
layer {
  name: "inception_4e/relu_pool_proj"
  type: "ReLU"
  bottom: "inception_4e/pool_proj"
  top: "inception_4e/pool_proj"
}
layer {
  name: "inception_4e/output"
  type: "Concat"
  bottom: "inception_4e/1x1"
  bottom: "inception_4e/3x3"
  bottom: "inception_4e/5x5"
  bottom: "inception_4e/pool_proj"
  top: "inception_4e/output"
}
layer {
  name: "pool4/3x3_s2"
  type: "Pooling"
  bottom: "inception_4e/output"
  top: "pool4/3x3_s2"
  pooling_param {
    pool: MAX
    kernel_size: 3
    stride: 2
  }
}
layer {
  name: "inception_5a/1x1"
  type: "Convolution"
  bottom: "pool4/3x3_s2"
  top: "inception_5a/1x1"
  param {
    lr_mult: 1
    decay_mult: 1
  }
  param {
    lr_mult: 2
    decay_mult: 0
  }
  convolution_param {
    num_output: 256
    kernel_size: 1
    weight_filler {
      type: "xavier"
      std: 0.03
    }
    bias_filler {
      type: "constant"
      value: 0.2
    }
  }
}
layer {
  name: "inception_5a/relu_1x1"
  type: "ReLU"
  bottom: "inception_5a/1x1"
  top: "inception_5a/1x1"
}
layer {
  name: "inception_5a/3x3_reduce"
  type: "Convolution"
  bottom: "pool4/3x3_s2"
  top: "inception_5a/3x3_reduce"
  param {
    lr_mult: 1
    decay_mult: 1
  }
  param {
    lr_mult: 2
    decay_mult: 0
  }
  convolution_param {
    num_output: 160
    kernel_size: 1
    weight_filler {
      type: "xavier"
      std: 0.09
    }
    bias_filler {
      type: "constant"
      value: 0.2
    }
  }
}
layer {
  name: "inception_5a/relu_3x3_reduce"
  type: "ReLU"
  bottom: "inception_5a/3x3_reduce"
  top: "inception_5a/3x3_reduce"
}
layer {
  name: "inception_5a/3x3"
  type: "Convolution"
  bottom: "inception_5a/3x3_reduce"
  top: "inception_5a/3x3"
  param {
    lr_mult: 1
    decay_mult: 1
  }
  param {
    lr_mult: 2
    decay_mult: 0
  }
  convolution_param {
    num_output: 320
    pad: 1
    kernel_size: 3
    weight_filler {
      type: "xavier"
      std: 0.03
    }
    bias_filler {
      type: "constant"
      value: 0.2
    }
  }
}
layer {
  name: "inception_5a/relu_3x3"
  type: "ReLU"
  bottom: "inception_5a/3x3"
  top: "inception_5a/3x3"
}
layer {
  name: "inception_5a/5x5_reduce"
  type: "Convolution"
  bottom: "pool4/3x3_s2"
  top: "inception_5a/5x5_reduce"
  param {
    lr_mult: 1
    decay_mult: 1
  }
  param {
    lr_mult: 2
    decay_mult: 0
  }
  convolution_param {
    num_output: 32
    kernel_size: 1
    weight_filler {
      type: "xavier"
      std: 0.2
    }
    bias_filler {
      type: "constant"
      value: 0.2
    }
I0913 20:31:21.704061  5857 layer_factory.hpp:77] Creating layer data
I0913 20:31:21.704100  5857 net.cpp:91] Creating Layer data
I0913 20:31:21.704115  5857 net.cpp:399] data -> data
I0913 20:31:22.226730  5857 net.cpp:141] Setting up data
I0913 20:31:22.226797  5857 net.cpp:148] Top shape: 10 3 224 224 (1505280)
I0913 20:31:22.226804  5857 net.cpp:156] Memory required for data: 6021120
I0913 20:31:22.226824  5857 layer_factory.hpp:77] Creating layer conv1/7x7_s2
I0913 20:31:22.226858  5857 net.cpp:91] Creating Layer conv1/7x7_s2
I0913 20:31:22.226867  5857 net.cpp:425] conv1/7x7_s2 <- data
I0913 20:31:22.226884  5857 net.cpp:399] conv1/7x7_s2 -> conv1/7x7_s2
I0913 20:31:22.398870  5857 net.cpp:141] Setting up conv1/7x7_s2
I0913 20:31:22.398910  5857 net.cpp:148] Top shape: 10 64 112 112 (8028160)
I0913 20:31:22.398916  5857 net.cpp:156] Memory required for data: 38133760
I0913 20:31:22.398939  5857 layer_factory.hpp:77] Creating layer conv1/relu_7x7
I0913 20:31:22.398955  5857 net.cpp:91] Creating Layer conv1/relu_7x7
I0913 20:31:22.398962  5857 net.cpp:425] conv1/relu_7x7 <- conv1/7x7_s2
I0913 20:31:22.398968  5857 net.cpp:386] conv1/relu_7x7 -> conv1/7x7_s2 (in-place)
I0913 20:31:22.399341  5857 net.cpp:141] Setting up conv1/relu_7x7
I0913 20:31:22.399354  5857 net.cpp:148] Top shape: 10 64 112 112 (8028160)
I0913 20:31:22.399359  5857 net.cpp:156] Memory required for data: 70246400
I0913 20:31:22.399364  5857 layer_factory.hpp:77] Creating layer pool1/3x3_s2
I0913 20:31:22.399375  5857 net.cpp:91] Creating Layer pool1/3x3_s2
I0913 20:31:22.399380  5857 net.cpp:425] pool1/3x3_s2 <- conv1/7x7_s2
I0913 20:31:22.399387  5857 net.cpp:399] pool1/3x3_s2 -> pool1/3x3_s2
I0913 20:31:22.399456  5857 net.cpp:141] Setting up pool1/3x3_s2
I0913 20:31:22.399466  5857 net.cpp:148] Top shape: 10 64 56 56 (2007040)
I0913 20:31:22.399469  5857 net.cpp:156] Memory required for data: 78274560
I0913 20:31:22.399474  5857 layer_factory.hpp:77] Creating layer pool1/norm1
I0913 20:31:22.399488  5857 net.cpp:91] Creating Layer pool1/norm1
I0913 20:31:22.399493  5857 net.cpp:425] pool1/norm1 <- pool1/3x3_s2
I0913 20:31:22.399500  5857 net.cpp:399] pool1/norm1 -> pool1/norm1
I0913 20:31:22.399739  5857 net.cpp:141] Setting up pool1/norm1
I0913 20:31:22.399751  5857 net.cpp:148] Top shape: 10 64 56 56 (2007040)
I0913 20:31:22.399756  5857 net.cpp:156] Memory required for data: 86302720
I0913 20:31:22.399760  5857 layer_factory.hpp:77] Creating layer conv2/3x3_reduce
I0913 20:31:22.399777  5857 net.cpp:91] Creating Layer conv2/3x3_reduce
I0913 20:31:22.399781  5857 net.cpp:425] conv2/3x3_reduce <- pool1/norm1
I0913 20:31:22.399790  5857 net.cpp:399] conv2/3x3_reduce -> conv2/3x3_reduce
I0913 20:31:22.401782  5857 net.cpp:141] Setting up conv2/3x3_reduce
I0913 20:31:22.401801  5857 net.cpp:148] Top shape: 10 64 56 56 (2007040)
I0913 20:31:22.401806  5857 net.cpp:156] Memory required for data: 94330880
I0913 20:31:22.401818  5857 layer_factory.hpp:77] Creating layer conv2/relu_3x3_reduce
I0913 20:31:22.401826  5857 net.cpp:91] Creating Layer conv2/relu_3x3_reduce
I0913 20:31:22.401831  5857 net.cpp:425] conv2/relu_3x3_reduce <- conv2/3x3_reduce
I0913 20:31:22.401837  5857 net.cpp:386] conv2/relu_3x3_reduce -> conv2/3x3_reduce (in-place)
I0913 20:31:22.402215  5857 net.cpp:141] Setting up conv2/relu_3x3_reduce
I0913 20:31:22.402226  5857 net.cpp:148] Top shape: 10 64 56 56 (2007040)
I0913 20:31:22.402230  5857 net.cpp:156] Memory required for data: 102359040
I0913 20:31:22.402235  5857 layer_factory.hpp:77] Creating layer conv2/3x3
I0913 20:31:22.402251  5857 net.cpp:91] Creating Layer conv2/3x3
I0913 20:31:22.402256  5857 net.cpp:425] conv2/3x3 <- conv2/3x3_reduce
I0913 20:31:22.402266  5857 net.cpp:399] conv2/3x3 -> conv2/3x3
I0913 20:31:22.405347  5857 net.cpp:141] Setting up conv2/3x3
I0913 20:31:22.405365  5857 net.cpp:148] Top shape: 10 192 56 56 (6021120)
I0913 20:31:22.405370  5857 net.cpp:156] Memory required for data: 126443520
I0913 20:31:22.405385  5857 layer_factory.hpp:77] Creating layer conv2/relu_3x3
I0913 20:31:22.405395  5857 net.cpp:91] Creating Layer conv2/relu_3x3
I0913 20:31:22.405400  5857 net.cpp:425] conv2/relu_3x3 <- conv2/3x3
I0913 20:31:22.405408  5857 net.cpp:386] conv2/relu_3x3 -> conv2/3x3 (in-place)
I0913 20:31:22.405637  5857 net.cpp:141] Setting up conv2/relu_3x3
I0913 20:31:22.405647  5857 net.cpp:148] Top shape: 10 192 56 56 (6021120)
I0913 20:31:22.405652  5857 net.cpp:156] Memory required for data: 150528000
I0913 20:31:22.405655  5857 layer_factory.hpp:77] Creating layer conv2/norm2
I0913 20:31:22.405668  5857 net.cpp:91] Creating Layer conv2/norm2
I0913 20:31:22.405673  5857 net.cpp:425] conv2/norm2 <- conv2/3x3
I0913 20:31:22.405680  5857 net.cpp:399] conv2/norm2 -> conv2/norm2
I0913 20:31:22.406121  5857 net.cpp:141] Setting up conv2/norm2
I0913 20:31:22.406134  5857 net.cpp:148] Top shape: 10 192 56 56 (6021120)
I0913 20:31:22.406138  5857 net.cpp:156] Memory required for data: 174612480
I0913 20:31:22.406142  5857 layer_factory.hpp:77] Creating layer pool2/3x3_s2
I0913 20:31:22.406150  5857 net.cpp:91] Creating Layer pool2/3x3_s2
I0913 20:31:22.406155  5857 net.cpp:425] pool2/3x3_s2 <- conv2/norm2
I0913 20:31:22.406164  5857 net.cpp:399] pool2/3x3_s2 -> pool2/3x3_s2
I0913 20:31:22.406213  5857 net.cpp:141] Setting up pool2/3x3_s2
I0913 20:31:22.406222  5857 net.cpp:148] Top shape: 10 192 28 28 (1505280)
I0913 20:31:22.406226  5857 net.cpp:156] Memory required for data: 180633600
I0913 20:31:22.406231  5857 layer_factory.hpp:77] Creating layer pool2/3x3_s2_pool2/3x3_s2_0_split
I0913 20:31:22.406244  5857 net.cpp:91] Creating Layer pool2/3x3_s2_pool2/3x3_s2_0_split
I0913 20:31:22.406250  5857 net.cpp:425] pool2/3x3_s2_pool2/3x3_s2_0_split <- pool2/3x3_s2
I0913 20:31:22.406255  5857 net.cpp:399] pool2/3x3_s2_pool2/3x3_s2_0_split -> pool2/3x3_s2_pool2/3x3_s2_0_split_0
I0913 20:31:22.406267  5857 net.cpp:399] pool2/3x3_s2_pool2/3x3_s2_0_split -> pool2/3x3_s2_pool2/3x3_s2_0_split_1
I0913 20:31:22.406276  5857 net.cpp:399] pool2/3x3_s2_pool2/3x3_s2_0_split -> pool2/3x3_s2_pool2/3x3_s2_0_split_2
I0913 20:31:22.406283  5857 net.cpp:399] pool2/3x3_s2_pool2/3x3_s2_0_split -> pool2/3x3_s2_pool2/3x3_s2_0_split_3
I0913 20:31:22.406353  5857 net.cpp:141] Setting up pool2/3x3_s2_pool2/3x3_s2_0_split
I0913 20:31:22.406363  5857 net.cpp:148] Top shape: 10 192 28 28 (1505280)
I0913 20:31:22.406368  5857 net.cpp:148] Top shape: 10 192 28 28 (1505280)
I0913 20:31:22.406373  5857 net.cpp:148] Top shape: 10 192 28 28 (1505280)
I0913 20:31:22.406378  5857 net.cpp:148] Top shape: 10 192 28 28 (1505280)
I0913 20:31:22.406381  5857 net.cpp:156] Memory required for data: 204718080
I0913 20:31:22.406386  5857 layer_factory.hpp:77] Creating layer inception_3a/1x1
I0913 20:31:22.406402  5857 net.cpp:91] Creating Layer inception_3a/1x1
I0913 20:31:22.406407  5857 net.cpp:425] inception_3a/1x1 <- pool2/3x3_s2_pool2/3x3_s2_0_split_0
I0913 20:31:22.406426  5857 net.cpp:399] inception_3a/1x1 -> inception_3a/1x1
I0913 20:31:22.408351  5857 net.cpp:141] Setting up inception_3a/1x1
I0913 20:31:22.408370  5857 net.cpp:148] Top shape: 10 64 28 28 (501760)
I0913 20:31:22.408375  5857 net.cpp:156] Memory required for data: 206725120
I0913 20:31:22.408382  5857 layer_factory.hpp:77] Creating layer inception_3a/relu_1x1
I0913 20:31:22.408395  5857 net.cpp:91] Creating Layer inception_3a/relu_1x1
I0913 20:31:22.408401  5857 net.cpp:425] inception_3a/relu_1x1 <- inception_3a/1x1
I0913 20:31:22.408407  5857 net.cpp:386] inception_3a/relu_1x1 -> inception_3a/1x1 (in-place)
I0913 20:31:22.408795  5857 net.cpp:141] Setting up inception_3a/relu_1x1
I0913 20:31:22.408807  5857 net.cpp:148] Top shape: 10 64 28 28 (501760)
I0913 20:31:22.408812  5857 net.cpp:156] Memory required for data: 208732160
I0913 20:31:22.408816  5857 layer_factory.hpp:77] Creating layer inception_3a/3x3_reduce
I0913 20:31:22.408836  5857 net.cpp:91] Creating Layer inception_3a/3x3_reduce
I0913 20:31:22.408843  5857 net.cpp:425] inception_3a/3x3_reduce <- pool2/3x3_s2_pool2/3x3_s2_0_split_1
I0913 20:31:22.408850  5857 net.cpp:399] inception_3a/3x3_reduce -> inception_3a/3x3_reduce
I0913 20:31:22.411260  5857 net.cpp:141] Setting up inception_3a/3x3_reduce
I0913 20:31:22.411278  5857 net.cpp:148] Top shape: 10 96 28 28 (752640)
I0913 20:31:22.411283  5857 net.cpp:156] Memory required for data: 211742720
I0913 20:31:22.411294  5857 layer_factory.hpp:77] Creating layer inception_3a/relu_3x3_reduce
I0913 20:31:22.411305  5857 net.cpp:91] Creating Layer inception_3a/relu_3x3_reduce
I0913 20:31:22.411310  5857 net.cpp:425] inception_3a/relu_3x3_reduce <- inception_3a/3x3_reduce
I0913 20:31:22.411317  5857 net.cpp:386] inception_3a/relu_3x3_reduce -> inception_3a/3x3_reduce (in-place)
I0913 20:31:22.411550  5857 net.cpp:141] Setting up inception_3a/relu_3x3_reduce
I0913 20:31:22.411561  5857 net.cpp:148] Top shape: 10 96 28 28 (752640)
I0913 20:31:22.411564  5857 net.cpp:156] Memory required for data: 214753280
I0913 20:31:22.411569  5857 layer_factory.hpp:77] Creating layer inception_3a/3x3
I0913 20:31:22.411588  5857 net.cpp:91] Creating Layer inception_3a/3x3
I0913 20:31:22.411594  5857 net.cpp:425] inception_3a/3x3 <- inception_3a/3x3_reduce
I0913 20:31:22.411604  5857 net.cpp:399] inception_3a/3x3 -> inception_3a/3x3
I0913 20:31:22.413755  5857 net.cpp:141] Setting up inception_3a/3x3
I0913 20:31:22.413774  5857 net.cpp:148] Top shape: 10 128 28 28 (1003520)
I0913 20:31:22.413779  5857 net.cpp:156] Memory required for data: 218767360
I0913 20:31:22.413789  5857 layer_factory.hpp:77] Creating layer inception_3a/relu_3x3
I0913 20:31:22.413796  5857 net.cpp:91] Creating Layer inception_3a/relu_3x3
I0913 20:31:22.413801  5857 net.cpp:425] inception_3a/relu_3x3 <- inception_3a/3x3
I0913 20:31:22.413808  5857 net.cpp:386] inception_3a/relu_3x3 -> inception_3a/3x3 (in-place)
I0913 20:31:22.414192  5857 net.cpp:141] Setting up inception_3a/relu_3x3
I0913 20:31:22.414204  5857 net.cpp:148] Top shape: 10 128 28 28 (1003520)
I0913 20:31:22.414208  5857 net.cpp:156] Memory required for data: 222781440
I0913 20:31:22.414213  5857 layer_factory.hpp:77] Creating layer inception_3a/5x5_reduce
I0913 20:31:22.414228  5857 net.cpp:91] Creating Layer inception_3a/5x5_reduce
I0913 20:31:22.414234  5857 net.cpp:425] inception_3a/5x5_reduce <- pool2/3x3_s2_pool2/3x3_s2_0_split_2
I0913 20:31:22.414244  5857 net.cpp:399] inception_3a/5x5_reduce -> inception_3a/5x5_reduce
I0913 20:31:22.415444  5857 net.cpp:141] Setting up inception_3a/5x5_reduce
I0913 20:31:22.415460  5857 net.cpp:148] Top shape: 10 16 28 28 (125440)
I0913 20:31:22.415465  5857 net.cpp:156] Memory required for data: 223283200
I0913 20:31:22.415473  5857 layer_factory.hpp:77] Creating layer inception_3a/relu_5x5_reduce
I0913 20:31:22.415482  5857 net.cpp:91] Creating Layer inception_3a/relu_5x5_reduce
I0913 20:31:22.415487  5857 net.cpp:425] inception_3a/relu_5x5_reduce <- inception_3a/5x5_reduce
I0913 20:31:22.415496  5857 net.cpp:386] inception_3a/relu_5x5_reduce -> inception_3a/5x5_reduce (in-place)
I0913 20:31:22.415874  5857 net.cpp:141] Setting up inception_3a/relu_5x5_reduce
I0913 20:31:22.415886  5857 net.cpp:148] Top shape: 10 16 28 28 (125440)
I0913 20:31:22.415890  5857 net.cpp:156] Memory required for data: 223784960
I0913 20:31:22.415895  5857 layer_factory.hpp:77] Creating layer inception_3a/5x5
I0913 20:31:22.415910  5857 net.cpp:91] Creating Layer inception_3a/5x5
I0913 20:31:22.415916  5857 net.cpp:425] inception_3a/5x5 <- inception_3a/5x5_reduce
I0913 20:31:22.415926  5857 net.cpp:399] inception_3a/5x5 -> inception_3a/5x5
I0913 20:31:22.417876  5857 net.cpp:141] Setting up inception_3a/5x5
I0913 20:31:22.417893  5857 net.cpp:148] Top shape: 10 32 28 28 (250880)
I0913 20:31:22.417897  5857 net.cpp:156] Memory required for data: 224788480
I0913 20:31:22.417906  5857 layer_factory.hpp:77] Creating layer inception_3a/relu_5x5
I0913 20:31:22.417918  5857 net.cpp:91] Creating Layer inception_3a/relu_5x5
I0913 20:31:22.417924  5857 net.cpp:425] inception_3a/relu_5x5 <- inception_3a/5x5
I0913 20:31:22.417932  5857 net.cpp:386] inception_3a/relu_5x5 -> inception_3a/5x5 (in-place)
I0913 20:31:22.418165  5857 net.cpp:141] Setting up inception_3a/relu_5x5
I0913 20:31:22.418175  5857 net.cpp:148] Top shape: 10 32 28 28 (250880)
I0913 20:31:22.418179  5857 net.cpp:156] Memory required for data: 225792000
I0913 20:31:22.418184  5857 layer_factory.hpp:77] Creating layer inception_3a/pool
I0913 20:31:22.418193  5857 net.cpp:91] Creating Layer inception_3a/pool
I0913 20:31:22.418198  5857 net.cpp:425] inception_3a/pool <- pool2/3x3_s2_pool2/3x3_s2_0_split_3
I0913 20:31:22.418222  5857 net.cpp:399] inception_3a/pool -> inception_3a/pool
I0913 20:31:22.418287  5857 net.cpp:141] Setting up inception_3a/pool
I0913 20:31:22.418298  5857 net.cpp:148] Top shape: 10 192 28 28 (1505280)
I0913 20:31:22.418303  5857 net.cpp:156] Memory required for data: 231813120
I0913 20:31:22.418308  5857 layer_factory.hpp:77] Creating layer inception_3a/pool_proj
I0913 20:31:22.418330  5857 net.cpp:91] Creating Layer inception_3a/pool_proj
I0913 20:31:22.418337  5857 net.cpp:425] inception_3a/pool_proj <- inception_3a/pool
I0913 20:31:22.418345  5857 net.cpp:399] inception_3a/pool_proj -> inception_3a/pool_proj
I0913 20:31:22.419713  5857 net.cpp:141] Setting up inception_3a/pool_proj
I0913 20:31:22.419740  5857 net.cpp:148] Top shape: 10 32 28 28 (250880)
I0913 20:31:22.419746  5857 net.cpp:156] Memory required for data: 232816640
I0913 20:31:22.419760  5857 layer_factory.hpp:77] Creating layer inception_3a/relu_pool_proj
I0913 20:31:22.419770  5857 net.cpp:91] Creating Layer inception_3a/relu_pool_proj
I0913 20:31:22.419775  5857 net.cpp:425] inception_3a/relu_pool_proj <- inception_3a/pool_proj
I0913 20:31:22.419781  5857 net.cpp:386] inception_3a/relu_pool_proj -> inception_3a/pool_proj (in-place)
I0913 20:31:22.420172  5857 net.cpp:141] Setting up inception_3a/relu_pool_proj
I0913 20:31:22.420186  5857 net.cpp:148] Top shape: 10 32 28 28 (250880)
I0913 20:31:22.420192  5857 net.cpp:156] Memory required for data: 233820160
I0913 20:31:22.420197  5857 layer_factory.hpp:77] Creating layer inception_3a/output
I0913 20:31:22.420212  5857 net.cpp:91] Creating Layer inception_3a/output
I0913 20:31:22.420217  5857 net.cpp:425] inception_3a/output <- inception_3a/1x1
I0913 20:31:22.420222  5857 net.cpp:425] inception_3a/output <- inception_3a/3x3
I0913 20:31:22.420227  5857 net.cpp:425] inception_3a/output <- inception_3a/5x5
I0913 20:31:22.420231  5857 net.cpp:425] inception_3a/output <- inception_3a/pool_proj
I0913 20:31:22.420238  5857 net.cpp:399] inception_3a/output -> inception_3a/output
I0913 20:31:22.420279  5857 net.cpp:141] Setting up inception_3a/output
I0913 20:31:22.420287  5857 net.cpp:148] Top shape: 10 256 28 28 (2007040)
I0913 20:31:22.420291  5857 net.cpp:156] Memory required for data: 241848320
I0913 20:31:22.420296  5857 layer_factory.hpp:77] Creating layer inception_3a/output_inception_3a/output_0_split
I0913 20:31:22.420307  5857 net.cpp:91] Creating Layer inception_3a/output_inception_3a/output_0_split
I0913 20:31:22.420316  5857 net.cpp:425] inception_3a/output_inception_3a/output_0_split <- inception_3a/output
I0913 20:31:22.420328  5857 net.cpp:399] inception_3a/output_inception_3a/output_0_split -> inception_3a/output_inception_3a/output_0_split_0
I0913 20:31:22.420338  5857 net.cpp:399] inception_3a/output_inception_3a/output_0_split -> inception_3a/output_inception_3a/output_0_split_1
I0913 20:31:22.420346  5857 net.cpp:399] inception_3a/output_inception_3a/output_0_split -> inception_3a/output_inception_3a/output_0_split_2
I0913 20:31:22.420354  5857 net.cpp:399] inception_3a/output_inception_3a/output_0_split -> inception_3a/output_inception_3a/output_0_split_3
I0913 20:31:22.420435  5857 net.cpp:141] Setting up inception_3a/output_inception_3a/output_0_split
I0913 20:31:22.420444  5857 net.cpp:148] Top shape: 10 256 28 28 (2007040)
I0913 20:31:22.420449  5857 net.cpp:148] Top shape: 10 256 28 28 (2007040)
I0913 20:31:22.420454  5857 net.cpp:148] Top shape: 10 256 28 28 (2007040)
I0913 20:31:22.420459  5857 net.cpp:148] Top shape: 10 256 28 28 (2007040)
I0913 20:31:22.420464  5857 net.cpp:156] Memory required for data: 273960960
I0913 20:31:22.420467  5857 layer_factory.hpp:77] Creating layer inception_3b/1x1
I0913 20:31:22.420481  5857 net.cpp:91] Creating Layer inception_3b/1x1
I0913 20:31:22.420487  5857 net.cpp:425] inception_3b/1x1 <- inception_3a/output_inception_3a/output_0_split_0
I0913 20:31:22.420501  5857 net.cpp:399] inception_3b/1x1 -> inception_3b/1x1
I0913 20:31:22.421900  5857 net.cpp:141] Setting up inception_3b/1x1
I0913 20:31:22.421913  5857 net.cpp:148] Top shape: 10 128 28 28 (1003520)
I0913 20:31:22.421917  5857 net.cpp:156] Memory required for data: 277975040
I0913 20:31:22.421926  5857 layer_factory.hpp:77] Creating layer inception_3b/relu_1x1
I0913 20:31:22.421933  5857 net.cpp:91] Creating Layer inception_3b/relu_1x1
I0913 20:31:22.421938  5857 net.cpp:425] inception_3b/relu_1x1 <- inception_3b/1x1
I0913 20:31:22.421949  5857 net.cpp:386] inception_3b/relu_1x1 -> inception_3b/1x1 (in-place)
I0913 20:31:22.422323  5857 net.cpp:141] Setting up inception_3b/relu_1x1
I0913 20:31:22.422335  5857 net.cpp:148] Top shape: 10 128 28 28 (1003520)
I0913 20:31:22.422339  5857 net.cpp:156] Memory required for data: 281989120
I0913 20:31:22.422344  5857 layer_factory.hpp:77] Creating layer inception_3b/3x3_reduce
I0913 20:31:22.422359  5857 net.cpp:91] Creating Layer inception_3b/3x3_reduce
I0913 20:31:22.422364  5857 net.cpp:425] inception_3b/3x3_reduce <- inception_3a/output_inception_3a/output_0_split_1
I0913 20:31:22.422375  5857 net.cpp:399] inception_3b/3x3_reduce -> inception_3b/3x3_reduce
I0913 20:31:22.423938  5857 net.cpp:141] Setting up inception_3b/3x3_reduce
I0913 20:31:22.423952  5857 net.cpp:148] Top shape: 10 128 28 28 (1003520)
I0913 20:31:22.423971  5857 net.cpp:156] Memory required for data: 286003200
I0913 20:31:22.423979  5857 layer_factory.hpp:77] Creating layer inception_3b/relu_3x3_reduce
I0913 20:31:22.423991  5857 net.cpp:91] Creating Layer inception_3b/relu_3x3_reduce
I0913 20:31:22.423997  5857 net.cpp:425] inception_3b/relu_3x3_reduce <- inception_3b/3x3_reduce
I0913 20:31:22.424005  5857 net.cpp:386] inception_3b/relu_3x3_reduce -> inception_3b/3x3_reduce (in-place)
I0913 20:31:22.424237  5857 net.cpp:141] Setting up inception_3b/relu_3x3_reduce
I0913 20:31:22.424248  5857 net.cpp:148] Top shape: 10 128 28 28 (1003520)
I0913 20:31:22.424252  5857 net.cpp:156] Memory required for data: 290017280
I0913 20:31:22.424257  5857 layer_factory.hpp:77] Creating layer inception_3b/3x3
I0913 20:31:22.424271  5857 net.cpp:91] Creating Layer inception_3b/3x3
I0913 20:31:22.424278  5857 net.cpp:425] inception_3b/3x3 <- inception_3b/3x3_reduce
I0913 20:31:22.424288  5857 net.cpp:399] inception_3b/3x3 -> inception_3b/3x3
I0913 20:31:22.427934  5857 net.cpp:141] Setting up inception_3b/3x3
I0913 20:31:22.427953  5857 net.cpp:148] Top shape: 10 192 28 28 (1505280)
I0913 20:31:22.427958  5857 net.cpp:156] Memory required for data: 296038400
I0913 20:31:22.427966  5857 layer_factory.hpp:77] Creating layer inception_3b/relu_3x3
I0913 20:31:22.427978  5857 net.cpp:91] Creating Layer inception_3b/relu_3x3
I0913 20:31:22.427984  5857 net.cpp:425] inception_3b/relu_3x3 <- inception_3b/3x3
I0913 20:31:22.427994  5857 net.cpp:386] inception_3b/relu_3x3 -> inception_3b/3x3 (in-place)
I0913 20:31:22.428387  5857 net.cpp:141] Setting up inception_3b/relu_3x3
I0913 20:31:22.428400  5857 net.cpp:148] Top shape: 10 192 28 28 (1505280)
I0913 20:31:22.428405  5857 net.cpp:156] Memory required for data: 302059520
I0913 20:31:22.428409  5857 layer_factory.hpp:77] Creating layer inception_3b/5x5_reduce
I0913 20:31:22.428424  5857 net.cpp:91] Creating Layer inception_3b/5x5_reduce
I0913 20:31:22.428429  5857 net.cpp:425] inception_3b/5x5_reduce <- inception_3a/output_inception_3a/output_0_split_2
I0913 20:31:22.428441  5857 net.cpp:399] inception_3b/5x5_reduce -> inception_3b/5x5_reduce
I0913 20:31:22.429664  5857 net.cpp:141] Setting up inception_3b/5x5_reduce
I0913 20:31:22.429680  5857 net.cpp:148] Top shape: 10 32 28 28 (250880)
I0913 20:31:22.429685  5857 net.cpp:156] Memory required for data: 303063040
I0913 20:31:22.429693  5857 layer_factory.hpp:77] Creating layer inception_3b/relu_5x5_reduce
I0913 20:31:22.429702  5857 net.cpp:91] Creating Layer inception_3b/relu_5x5_reduce
I0913 20:31:22.429707  5857 net.cpp:425] inception_3b/relu_5x5_reduce <- inception_3b/5x5_reduce
I0913 20:31:22.429718  5857 net.cpp:386] inception_3b/relu_5x5_reduce -> inception_3b/5x5_reduce (in-place)
I0913 20:31:22.430097  5857 net.cpp:141] Setting up inception_3b/relu_5x5_reduce
I0913 20:31:22.430109  5857 net.cpp:148] Top shape: 10 32 28 28 (250880)
I0913 20:31:22.430114  5857 net.cpp:156] Memory required for data: 304066560
I0913 20:31:22.430119  5857 layer_factory.hpp:77] Creating layer inception_3b/5x5
I0913 20:31:22.430135  5857 net.cpp:91] Creating Layer inception_3b/5x5
I0913 20:31:22.430140  5857 net.cpp:425] inception_3b/5x5 <- inception_3b/5x5_reduce
I0913 20:31:22.430150  5857 net.cpp:399] inception_3b/5x5 -> inception_3b/5x5
I0913 20:31:22.432765  5857 net.cpp:141] Setting up inception_3b/5x5
I0913 20:31:22.432793  5857 net.cpp:148] Top shape: 10 96 28 28 (752640)
I0913 20:31:22.432798  5857 net.cpp:156] Memory required for data: 307077120
I0913 20:31:22.432807  5857 layer_factory.hpp:77] Creating layer inception_3b/relu_5x5
I0913 20:31:22.432816  5857 net.cpp:91] Creating Layer inception_3b/relu_5x5
I0913 20:31:22.432821  5857 net.cpp:425] inception_3b/relu_5x5 <- inception_3b/5x5
I0913 20:31:22.432832  5857 net.cpp:386] inception_3b/relu_5x5 -> inception_3b/5x5 (in-place)
I0913 20:31:22.433149  5857 net.cpp:141] Setting up inception_3b/relu_5x5
I0913 20:31:22.433161  5857 net.cpp:148] Top shape: 10 96 28 28 (752640)
I0913 20:31:22.433168  5857 net.cpp:156] Memory required for data: 310087680
I0913 20:31:22.433172  5857 layer_factory.hpp:77] Creating layer inception_3b/pool
I0913 20:31:22.433182  5857 net.cpp:91] Creating Layer inception_3b/pool
I0913 20:31:22.433187  5857 net.cpp:425] inception_3b/pool <- inception_3a/output_inception_3a/output_0_split_3
I0913 20:31:22.433193  5857 net.cpp:399] inception_3b/pool -> inception_3b/pool
I0913 20:31:22.433254  5857 net.cpp:141] Setting up inception_3b/pool
I0913 20:31:22.433264  5857 net.cpp:148] Top shape: 10 256 28 28 (2007040)
I0913 20:31:22.433267  5857 net.cpp:156] Memory required for data: 318115840
I0913 20:31:22.433271  5857 layer_factory.hpp:77] Creating layer inception_3b/pool_proj
I0913 20:31:22.433285  5857 net.cpp:91] Creating Layer inception_3b/pool_proj
I0913 20:31:22.433291  5857 net.cpp:425] inception_3b/pool_proj <- inception_3b/pool
I0913 20:31:22.433301  5857 net.cpp:399] inception_3b/pool_proj -> inception_3b/pool_proj
I0913 20:31:22.434775  5857 net.cpp:141] Setting up inception_3b/pool_proj
I0913 20:31:22.434803  5857 net.cpp:148] Top shape: 10 64 28 28 (501760)
I0913 20:31:22.434809  5857 net.cpp:156] Memory required for data: 320122880
I0913 20:31:22.434818  5857 layer_factory.hpp:77] Creating layer inception_3b/relu_pool_proj
I0913 20:31:22.434829  5857 net.cpp:91] Creating Layer inception_3b/relu_pool_proj
I0913 20:31:22.434835  5857 net.cpp:425] inception_3b/relu_pool_proj <- inception_3b/pool_proj
I0913 20:31:22.434841  5857 net.cpp:386] inception_3b/relu_pool_proj -> inception_3b/pool_proj (in-place)
I0913 20:31:22.435240  5857 net.cpp:141] Setting up inception_3b/relu_pool_proj
I0913 20:31:22.435251  5857 net.cpp:148] Top shape: 10 64 28 28 (501760)
I0913 20:31:22.435256  5857 net.cpp:156] Memory required for data: 322129920
I0913 20:31:22.435261  5857 layer_factory.hpp:77] Creating layer inception_3b/output
I0913 20:31:22.435271  5857 net.cpp:91] Creating Layer inception_3b/output
I0913 20:31:22.435277  5857 net.cpp:425] inception_3b/output <- inception_3b/1x1
I0913 20:31:22.435283  5857 net.cpp:425] inception_3b/output <- inception_3b/3x3
I0913 20:31:22.435288  5857 net.cpp:425] inception_3b/output <- inception_3b/5x5
I0913 20:31:22.435293  5857 net.cpp:425] inception_3b/output <- inception_3b/pool_proj
I0913 20:31:22.435299  5857 net.cpp:399] inception_3b/output -> inception_3b/output
I0913 20:31:22.435338  5857 net.cpp:141] Setting up inception_3b/output
I0913 20:31:22.435348  5857 net.cpp:148] Top shape: 10 480 28 28 (3763200)
I0913 20:31:22.435351  5857 net.cpp:156] Memory required for data: 337182720
I0913 20:31:22.435355  5857 layer_factory.hpp:77] Creating layer pool3/3x3_s2
I0913 20:31:22.435364  5857 net.cpp:91] Creating Layer pool3/3x3_s2
I0913 20:31:22.435367  5857 net.cpp:425] pool3/3x3_s2 <- inception_3b/output
I0913 20:31:22.435377  5857 net.cpp:399] pool3/3x3_s2 -> pool3/3x3_s2
I0913 20:31:22.435434  5857 net.cpp:141] Setting up pool3/3x3_s2
I0913 20:31:22.435443  5857 net.cpp:148] Top shape: 10 480 14 14 (940800)
I0913 20:31:22.435447  5857 net.cpp:156] Memory required for data: 340945920
I0913 20:31:22.435451  5857 layer_factory.hpp:77] Creating layer pool3/3x3_s2_pool3/3x3_s2_0_split
I0913 20:31:22.435461  5857 net.cpp:91] Creating Layer pool3/3x3_s2_pool3/3x3_s2_0_split
I0913 20:31:22.435466  5857 net.cpp:425] pool3/3x3_s2_pool3/3x3_s2_0_split <- pool3/3x3_s2
I0913 20:31:22.435472  5857 net.cpp:399] pool3/3x3_s2_pool3/3x3_s2_0_split -> pool3/3x3_s2_pool3/3x3_s2_0_split_0
I0913 20:31:22.435479  5857 net.cpp:399] pool3/3x3_s2_pool3/3x3_s2_0_split -> pool3/3x3_s2_pool3/3x3_s2_0_split_1
I0913 20:31:22.435487  5857 net.cpp:399] pool3/3x3_s2_pool3/3x3_s2_0_split -> pool3/3x3_s2_pool3/3x3_s2_0_split_2
I0913 20:31:22.435494  5857 net.cpp:399] pool3/3x3_s2_pool3/3x3_s2_0_split -> pool3/3x3_s2_pool3/3x3_s2_0_split_3
I0913 20:31:22.435571  5857 net.cpp:141] Setting up pool3/3x3_s2_pool3/3x3_s2_0_split
I0913 20:31:22.435580  5857 net.cpp:148] Top shape: 10 480 14 14 (940800)
I0913 20:31:22.435585  5857 net.cpp:148] Top shape: 10 480 14 14 (940800)
I0913 20:31:22.435590  5857 net.cpp:148] Top shape: 10 480 14 14 (940800)
I0913 20:31:22.435595  5857 net.cpp:148] Top shape: 10 480 14 14 (940800)
I0913 20:31:22.435598  5857 net.cpp:156] Memory required for data: 355998720
I0913 20:31:22.435602  5857 layer_factory.hpp:77] Creating layer inception_4a/1x1
I0913 20:31:22.435616  5857 net.cpp:91] Creating Layer inception_4a/1x1
I0913 20:31:22.435622  5857 net.cpp:425] inception_4a/1x1 <- pool3/3x3_s2_pool3/3x3_s2_0_split_0
I0913 20:31:22.435632  5857 net.cpp:399] inception_4a/1x1 -> inception_4a/1x1
I0913 20:31:22.437757  5857 net.cpp:141] Setting up inception_4a/1x1
I0913 20:31:22.437785  5857 net.cpp:148] Top shape: 10 192 14 14 (376320)
I0913 20:31:22.437791  5857 net.cpp:156] Memory required for data: 357504000
I0913 20:31:22.437799  5857 layer_factory.hpp:77] Creating layer inception_4a/relu_1x1
I0913 20:31:22.437811  5857 net.cpp:91] Creating Layer inception_4a/relu_1x1
I0913 20:31:22.437818  5857 net.cpp:425] inception_4a/relu_1x1 <- inception_4a/1x1
I0913 20:31:22.437825  5857 net.cpp:386] inception_4a/relu_1x1 -> inception_4a/1x1 (in-place)
I0913 20:31:22.438212  5857 net.cpp:141] Setting up inception_4a/relu_1x1
I0913 20:31:22.438225  5857 net.cpp:148] Top shape: 10 192 14 14 (376320)
I0913 20:31:22.438230  5857 net.cpp:156] Memory required for data: 359009280
I0913 20:31:22.438233  5857 layer_factory.hpp:77] Creating layer inception_4a/3x3_reduce
I0913 20:31:22.438247  5857 net.cpp:91] Creating Layer inception_4a/3x3_reduce
I0913 20:31:22.438253  5857 net.cpp:425] inception_4a/3x3_reduce <- pool3/3x3_s2_pool3/3x3_s2_0_split_1
I0913 20:31:22.438273  5857 net.cpp:399] inception_4a/3x3_reduce -> inception_4a/3x3_reduce
I0913 20:31:22.439996  5857 net.cpp:141] Setting up inception_4a/3x3_reduce
I0913 20:31:22.440009  5857 net.cpp:148] Top shape: 10 96 14 14 (188160)
I0913 20:31:22.440013  5857 net.cpp:156] Memory required for data: 359761920
I0913 20:31:22.440032  5857 layer_factory.hpp:77] Creating layer inception_4a/relu_3x3_reduce
I0913 20:31:22.440043  5857 net.cpp:91] Creating Layer inception_4a/relu_3x3_reduce
I0913 20:31:22.440049  5857 net.cpp:425] inception_4a/relu_3x3_reduce <- inception_4a/3x3_reduce
I0913 20:31:22.440057  5857 net.cpp:386] inception_4a/relu_3x3_reduce -> inception_4a/3x3_reduce (in-place)
I0913 20:31:22.440286  5857 net.cpp:141] Setting up inception_4a/relu_3x3_reduce
I0913 20:31:22.440297  5857 net.cpp:148] Top shape: 10 96 14 14 (188160)
I0913 20:31:22.440302  5857 net.cpp:156] Memory required for data: 360514560
I0913 20:31:22.440306  5857 layer_factory.hpp:77] Creating layer inception_4a/3x3
I0913 20:31:22.440321  5857 net.cpp:91] Creating Layer inception_4a/3x3
I0913 20:31:22.440327  5857 net.cpp:425] inception_4a/3x3 <- inception_4a/3x3_reduce
I0913 20:31:22.440337  5857 net.cpp:399] inception_4a/3x3 -> inception_4a/3x3
I0913 20:31:22.443728  5857 net.cpp:141] Setting up inception_4a/3x3
I0913 20:31:22.443742  5857 net.cpp:148] Top shape: 10 208 14 14 (407680)
I0913 20:31:22.443747  5857 net.cpp:156] Memory required for data: 362145280
I0913 20:31:22.443754  5857 layer_factory.hpp:77] Creating layer inception_4a/relu_3x3
I0913 20:31:22.443763  5857 net.cpp:91] Creating Layer inception_4a/relu_3x3
I0913 20:31:22.443768  5857 net.cpp:425] inception_4a/relu_3x3 <- inception_4a/3x3
I0913 20:31:22.443775  5857 net.cpp:386] inception_4a/relu_3x3 -> inception_4a/3x3 (in-place)
I0913 20:31:22.444182  5857 net.cpp:141] Setting up inception_4a/relu_3x3
I0913 20:31:22.444195  5857 net.cpp:148] Top shape: 10 208 14 14 (407680)
I0913 20:31:22.444198  5857 net.cpp:156] Memory required for data: 363776000
I0913 20:31:22.444203  5857 layer_factory.hpp:77] Creating layer inception_4a/5x5_reduce
I0913 20:31:22.444217  5857 net.cpp:91] Creating Layer inception_4a/5x5_reduce
I0913 20:31:22.444223  5857 net.cpp:425] inception_4a/5x5_reduce <- pool3/3x3_s2_pool3/3x3_s2_0_split_2
I0913 20:31:22.444233  5857 net.cpp:399] inception_4a/5x5_reduce -> inception_4a/5x5_reduce
I0913 20:31:22.445447  5857 net.cpp:141] Setting up inception_4a/5x5_reduce
I0913 20:31:22.445461  5857 net.cpp:148] Top shape: 10 16 14 14 (31360)
I0913 20:31:22.445464  5857 net.cpp:156] Memory required for data: 363901440
I0913 20:31:22.445472  5857 layer_factory.hpp:77] Creating layer inception_4a/relu_5x5_reduce
I0913 20:31:22.445479  5857 net.cpp:91] Creating Layer inception_4a/relu_5x5_reduce
I0913 20:31:22.445485  5857 net.cpp:425] inception_4a/relu_5x5_reduce <- inception_4a/5x5_reduce
I0913 20:31:22.445495  5857 net.cpp:386] inception_4a/relu_5x5_reduce -> inception_4a/5x5_reduce (in-place)
I0913 20:31:22.445897  5857 net.cpp:141] Setting up inception_4a/relu_5x5_reduce
I0913 20:31:22.445909  5857 net.cpp:148] Top shape: 10 16 14 14 (31360)
I0913 20:31:22.445914  5857 net.cpp:156] Memory required for data: 364026880
I0913 20:31:22.445919  5857 layer_factory.hpp:77] Creating layer inception_4a/5x5
I0913 20:31:22.445933  5857 net.cpp:91] Creating Layer inception_4a/5x5
I0913 20:31:22.445941  5857 net.cpp:425] inception_4a/5x5 <- inception_4a/5x5_reduce
I0913 20:31:22.445950  5857 net.cpp:399] inception_4a/5x5 -> inception_4a/5x5
I0913 20:31:22.447849  5857 net.cpp:141] Setting up inception_4a/5x5
I0913 20:31:22.447863  5857 net.cpp:148] Top shape: 10 48 14 14 (94080)
I0913 20:31:22.447868  5857 net.cpp:156] Memory required for data: 364403200
I0913 20:31:22.447876  5857 layer_factory.hpp:77] Creating layer inception_4a/relu_5x5
I0913 20:31:22.447885  5857 net.cpp:91] Creating Layer inception_4a/relu_5x5
I0913 20:31:22.447890  5857 net.cpp:425] inception_4a/relu_5x5 <- inception_4a/5x5
I0913 20:31:22.447901  5857 net.cpp:386] inception_4a/relu_5x5 -> inception_4a/5x5 (in-place)
I0913 20:31:22.448144  5857 net.cpp:141] Setting up inception_4a/relu_5x5
I0913 20:31:22.448158  5857 net.cpp:148] Top shape: 10 48 14 14 (94080)
I0913 20:31:22.448163  5857 net.cpp:156] Memory required for data: 364779520
I0913 20:31:22.448168  5857 layer_factory.hpp:77] Creating layer inception_4a/pool
I0913 20:31:22.448176  5857 net.cpp:91] Creating Layer inception_4a/pool
I0913 20:31:22.448181  5857 net.cpp:425] inception_4a/pool <- pool3/3x3_s2_pool3/3x3_s2_0_split_3
I0913 20:31:22.448189  5857 net.cpp:399] inception_4a/pool -> inception_4a/pool
I0913 20:31:22.448257  5857 net.cpp:141] Setting up inception_4a/pool
I0913 20:31:22.448267  5857 net.cpp:148] Top shape: 10 480 14 14 (940800)
I0913 20:31:22.448271  5857 net.cpp:156] Memory required for data: 368542720
I0913 20:31:22.448276  5857 layer_factory.hpp:77] Creating layer inception_4a/pool_proj
I0913 20:31:22.448290  5857 net.cpp:91] Creating Layer inception_4a/pool_proj
I0913 20:31:22.448297  5857 net.cpp:425] inception_4a/pool_proj <- inception_4a/pool
I0913 20:31:22.448307  5857 net.cpp:399] inception_4a/pool_proj -> inception_4a/pool_proj
I0913 20:31:22.449905  5857 net.cpp:141] Setting up inception_4a/pool_proj
I0913 20:31:22.449923  5857 net.cpp:148] Top shape: 10 64 14 14 (125440)
I0913 20:31:22.449928  5857 net.cpp:156] Memory required for data: 369044480
I0913 20:31:22.449936  5857 layer_factory.hpp:77] Creating layer inception_4a/relu_pool_proj
I0913 20:31:22.449947  5857 net.cpp:91] Creating Layer inception_4a/relu_pool_proj
I0913 20:31:22.449954  5857 net.cpp:425] inception_4a/relu_pool_proj <- inception_4a/pool_proj
I0913 20:31:22.449960  5857 net.cpp:386] inception_4a/relu_pool_proj -> inception_4a/pool_proj (in-place)
I0913 20:31:22.450350  5857 net.cpp:141] Setting up inception_4a/relu_pool_proj
I0913 20:31:22.450361  5857 net.cpp:148] Top shape: 10 64 14 14 (125440)
I0913 20:31:22.450366  5857 net.cpp:156] Memory required for data: 369546240
I0913 20:31:22.450371  5857 layer_factory.hpp:77] Creating layer inception_4a/output
I0913 20:31:22.450382  5857 net.cpp:91] Creating Layer inception_4a/output
I0913 20:31:22.450387  5857 net.cpp:425] inception_4a/output <- inception_4a/1x1
I0913 20:31:22.450393  5857 net.cpp:425] inception_4a/output <- inception_4a/3x3
I0913 20:31:22.450398  5857 net.cpp:425] inception_4a/output <- inception_4a/5x5
I0913 20:31:22.450404  5857 net.cpp:425] inception_4a/output <- inception_4a/pool_proj
I0913 20:31:22.450410  5857 net.cpp:399] inception_4a/output -> inception_4a/output
I0913 20:31:22.450453  5857 net.cpp:141] Setting up inception_4a/output
I0913 20:31:22.450462  5857 net.cpp:148] Top shape: 10 512 14 14 (1003520)
I0913 20:31:22.450466  5857 net.cpp:156] Memory required for data: 373560320
I0913 20:31:22.450470  5857 layer_factory.hpp:77] Creating layer inception_4a/output_inception_4a/output_0_split
I0913 20:31:22.450477  5857 net.cpp:91] Creating Layer inception_4a/output_inception_4a/output_0_split
I0913 20:31:22.450482  5857 net.cpp:425] inception_4a/output_inception_4a/output_0_split <- inception_4a/output
I0913 20:31:22.450491  5857 net.cpp:399] inception_4a/output_inception_4a/output_0_split -> inception_4a/output_inception_4a/output_0_split_0
I0913 20:31:22.450500  5857 net.cpp:399] inception_4a/output_inception_4a/output_0_split -> inception_4a/output_inception_4a/output_0_split_1
I0913 20:31:22.450507  5857 net.cpp:399] inception_4a/output_inception_4a/output_0_split -> inception_4a/output_inception_4a/output_0_split_2
I0913 20:31:22.450515  5857 net.cpp:399] inception_4a/output_inception_4a/output_0_split -> inception_4a/output_inception_4a/output_0_split_3
I0913 20:31:22.450598  5857 net.cpp:141] Setting up inception_4a/output_inception_4a/output_0_split
I0913 20:31:22.450606  5857 net.cpp:148] Top shape: 10 512 14 14 (1003520)
I0913 20:31:22.450613  5857 net.cpp:148] Top shape: 10 512 14 14 (1003520)
I0913 20:31:22.450618  5857 net.cpp:148] Top shape: 10 512 14 14 (1003520)
I0913 20:31:22.450623  5857 net.cpp:148] Top shape: 10 512 14 14 (1003520)
I0913 20:31:22.450626  5857 net.cpp:156] Memory required for data: 389616640
I0913 20:31:22.450630  5857 layer_factory.hpp:77] Creating layer inception_4b/1x1
I0913 20:31:22.450644  5857 net.cpp:91] Creating Layer inception_4b/1x1
I0913 20:31:22.450649  5857 net.cpp:425] inception_4b/1x1 <- inception_4a/output_inception_4a/output_0_split_0
I0913 20:31:22.450659  5857 net.cpp:399] inception_4b/1x1 -> inception_4b/1x1
I0913 20:31:22.452502  5857 net.cpp:141] Setting up inception_4b/1x1
I0913 20:31:22.452529  5857 net.cpp:148] Top shape: 10 160 14 14 (313600)
I0913 20:31:22.452535  5857 net.cpp:156] Memory required for data: 390871040
I0913 20:31:22.452543  5857 layer_factory.hpp:77] Creating layer inception_4b/relu_1x1
I0913 20:31:22.452553  5857 net.cpp:91] Creating Layer inception_4b/relu_1x1
I0913 20:31:22.452558  5857 net.cpp:425] inception_4b/relu_1x1 <- inception_4b/1x1
I0913 20:31:22.452572  5857 net.cpp:386] inception_4b/relu_1x1 -> inception_4b/1x1 (in-place)
I0913 20:31:22.452958  5857 net.cpp:141] Setting up inception_4b/relu_1x1
I0913 20:31:22.452970  5857 net.cpp:148] Top shape: 10 160 14 14 (313600)
I0913 20:31:22.452975  5857 net.cpp:156] Memory required for data: 392125440
I0913 20:31:22.452980  5857 layer_factory.hpp:77] Creating layer inception_4b/3x3_reduce
I0913 20:31:22.452994  5857 net.cpp:91] Creating Layer inception_4b/3x3_reduce
I0913 20:31:22.453001  5857 net.cpp:425] inception_4b/3x3_reduce <- inception_4a/output_inception_4a/output_0_split_1
I0913 20:31:22.453011  5857 net.cpp:399] inception_4b/3x3_reduce -> inception_4b/3x3_reduce
I0913 20:31:22.454802  5857 net.cpp:141] Setting up inception_4b/3x3_reduce
I0913 20:31:22.454830  5857 net.cpp:148] Top shape: 10 112 14 14 (219520)
I0913 20:31:22.454835  5857 net.cpp:156] Memory required for data: 393003520
I0913 20:31:22.454844  5857 layer_factory.hpp:77] Creating layer inception_4b/relu_3x3_reduce
I0913 20:31:22.454855  5857 net.cpp:91] Creating Layer inception_4b/relu_3x3_reduce
I0913 20:31:22.454861  5857 net.cpp:425] inception_4b/relu_3x3_reduce <- inception_4b/3x3_reduce
I0913 20:31:22.454869  5857 net.cpp:386] inception_4b/relu_3x3_reduce -> inception_4b/3x3_reduce (in-place)
I0913 20:31:22.455096  5857 net.cpp:141] Setting up inception_4b/relu_3x3_reduce
I0913 20:31:22.455106  5857 net.cpp:148] Top shape: 10 112 14 14 (219520)
I0913 20:31:22.455111  5857 net.cpp:156] Memory required for data: 393881600
I0913 20:31:22.455116  5857 layer_factory.hpp:77] Creating layer inception_4b/3x3
I0913 20:31:22.455129  5857 net.cpp:91] Creating Layer inception_4b/3x3
I0913 20:31:22.455135  5857 net.cpp:425] inception_4b/3x3 <- inception_4b/3x3_reduce
I0913 20:31:22.455145  5857 net.cpp:399] inception_4b/3x3 -> inception_4b/3x3
I0913 20:31:22.459089  5857 net.cpp:141] Setting up inception_4b/3x3
I0913 20:31:22.459120  5857 net.cpp:148] Top shape: 10 224 14 14 (439040)
I0913 20:31:22.459125  5857 net.cpp:156] Memory required for data: 395637760
I0913 20:31:22.459133  5857 layer_factory.hpp:77] Creating layer inception_4b/relu_3x3
I0913 20:31:22.459141  5857 net.cpp:91] Creating Layer inception_4b/relu_3x3
I0913 20:31:22.459147  5857 net.cpp:425] inception_4b/relu_3x3 <- inception_4b/3x3
I0913 20:31:22.459157  5857 net.cpp:386] inception_4b/relu_3x3 -> inception_4b/3x3 (in-place)
I0913 20:31:22.459563  5857 net.cpp:141] Setting up inception_4b/relu_3x3
I0913 20:31:22.459574  5857 net.cpp:148] Top shape: 10 224 14 14 (439040)
I0913 20:31:22.459579  5857 net.cpp:156] Memory required for data: 397393920
I0913 20:31:22.459583  5857 layer_factory.hpp:77] Creating layer inception_4b/5x5_reduce
I0913 20:31:22.459606  5857 net.cpp:91] Creating Layer inception_4b/5x5_reduce
I0913 20:31:22.459612  5857 net.cpp:425] inception_4b/5x5_reduce <- inception_4a/output_inception_4a/output_0_split_2
I0913 20:31:22.459625  5857 net.cpp:399] inception_4b/5x5_reduce -> inception_4b/5x5_reduce
I0913 20:31:22.460961  5857 net.cpp:141] Setting up inception_4b/5x5_reduce
I0913 20:31:22.460990  5857 net.cpp:148] Top shape: 10 24 14 14 (47040)
I0913 20:31:22.460995  5857 net.cpp:156] Memory required for data: 397582080
I0913 20:31:22.461004  5857 layer_factory.hpp:77] Creating layer inception_4b/relu_5x5_reduce
I0913 20:31:22.461012  5857 net.cpp:91] Creating Layer inception_4b/relu_5x5_reduce
I0913 20:31:22.461017  5857 net.cpp:425] inception_4b/relu_5x5_reduce <- inception_4b/5x5_reduce
I0913 20:31:22.461026  5857 net.cpp:386] inception_4b/relu_5x5_reduce -> inception_4b/5x5_reduce (in-place)
I0913 20:31:22.461411  5857 net.cpp:141] Setting up inception_4b/relu_5x5_reduce
I0913 20:31:22.461422  5857 net.cpp:148] Top shape: 10 24 14 14 (47040)
I0913 20:31:22.461427  5857 net.cpp:156] Memory required for data: 397770240
I0913 20:31:22.461432  5857 layer_factory.hpp:77] Creating layer inception_4b/5x5
I0913 20:31:22.461448  5857 net.cpp:91] Creating Layer inception_4b/5x5
I0913 20:31:22.461454  5857 net.cpp:425] inception_4b/5x5 <- inception_4b/5x5_reduce
I0913 20:31:22.461465  5857 net.cpp:399] inception_4b/5x5 -> inception_4b/5x5
I0913 20:31:22.463843  5857 net.cpp:141] Setting up inception_4b/5x5
I0913 20:31:22.463872  5857 net.cpp:148] Top shape: 10 64 14 14 (125440)
I0913 20:31:22.463878  5857 net.cpp:156] Memory required for data: 398272000
I0913 20:31:22.463886  5857 layer_factory.hpp:77] Creating layer inception_4b/relu_5x5
I0913 20:31:22.463898  5857 net.cpp:91] Creating Layer inception_4b/relu_5x5
I0913 20:31:22.463904  5857 net.cpp:425] inception_4b/relu_5x5 <- inception_4b/5x5
I0913 20:31:22.463912  5857 net.cpp:386] inception_4b/relu_5x5 -> inception_4b/5x5 (in-place)
I0913 20:31:22.464161  5857 net.cpp:141] Setting up inception_4b/relu_5x5
I0913 20:31:22.464175  5857 net.cpp:148] Top shape: 10 64 14 14 (125440)
I0913 20:31:22.464184  5857 net.cpp:156] Memory required for data: 398773760
I0913 20:31:22.464192  5857 layer_factory.hpp:77] Creating layer inception_4b/pool
I0913 20:31:22.464201  5857 net.cpp:91] Creating Layer inception_4b/pool
I0913 20:31:22.464207  5857 net.cpp:425] inception_4b/pool <- inception_4a/output_inception_4a/output_0_split_3
I0913 20:31:22.464218  5857 net.cpp:399] inception_4b/pool -> inception_4b/pool
I0913 20:31:22.464280  5857 net.cpp:141] Setting up inception_4b/pool
I0913 20:31:22.464290  5857 net.cpp:148] Top shape: 10 512 14 14 (1003520)
I0913 20:31:22.464294  5857 net.cpp:156] Memory required for data: 402787840
I0913 20:31:22.464298  5857 layer_factory.hpp:77] Creating layer inception_4b/pool_proj
I0913 20:31:22.464315  5857 net.cpp:91] Creating Layer inception_4b/pool_proj
I0913 20:31:22.464320  5857 net.cpp:425] inception_4b/pool_proj <- inception_4b/pool
I0913 20:31:22.464329  5857 net.cpp:399] inception_4b/pool_proj -> inception_4b/pool_proj
I0913 20:31:22.465989  5857 net.cpp:141] Setting up inception_4b/pool_proj
I0913 20:31:22.466006  5857 net.cpp:148] Top shape: 10 64 14 14 (125440)
I0913 20:31:22.466011  5857 net.cpp:156] Memory required for data: 403289600
I0913 20:31:22.466018  5857 layer_factory.hpp:77] Creating layer inception_4b/relu_pool_proj
I0913 20:31:22.466028  5857 net.cpp:91] Creating Layer inception_4b/relu_pool_proj
I0913 20:31:22.466034  5857 net.cpp:425] inception_4b/relu_pool_proj <- inception_4b/pool_proj
I0913 20:31:22.466042  5857 net.cpp:386] inception_4b/relu_pool_proj -> inception_4b/pool_proj (in-place)
I0913 20:31:22.466444  5857 net.cpp:141] Setting up inception_4b/relu_pool_proj
I0913 20:31:22.466455  5857 net.cpp:148] Top shape: 10 64 14 14 (125440)
I0913 20:31:22.466459  5857 net.cpp:156] Memory required for data: 403791360
I0913 20:31:22.466464  5857 layer_factory.hpp:77] Creating layer inception_4b/output
I0913 20:31:22.466475  5857 net.cpp:91] Creating Layer inception_4b/output
I0913 20:31:22.466480  5857 net.cpp:425] inception_4b/output <- inception_4b/1x1
I0913 20:31:22.466485  5857 net.cpp:425] inception_4b/output <- inception_4b/3x3
I0913 20:31:22.466491  5857 net.cpp:425] inception_4b/output <- inception_4b/5x5
I0913 20:31:22.466496  5857 net.cpp:425] inception_4b/output <- inception_4b/pool_proj
I0913 20:31:22.466502  5857 net.cpp:399] inception_4b/output -> inception_4b/output
I0913 20:31:22.466544  5857 net.cpp:141] Setting up inception_4b/output
I0913 20:31:22.466554  5857 net.cpp:148] Top shape: 10 512 14 14 (1003520)
I0913 20:31:22.466558  5857 net.cpp:156] Memory required for data: 407805440
I0913 20:31:22.466562  5857 layer_factory.hpp:77] Creating layer inception_4b/output_inception_4b/output_0_split
I0913 20:31:22.466569  5857 net.cpp:91] Creating Layer inception_4b/output_inception_4b/output_0_split
I0913 20:31:22.466574  5857 net.cpp:425] inception_4b/output_inception_4b/output_0_split <- inception_4b/output
I0913 20:31:22.466583  5857 net.cpp:399] inception_4b/output_inception_4b/output_0_split -> inception_4b/output_inception_4b/output_0_split_0
I0913 20:31:22.466591  5857 net.cpp:399] inception_4b/output_inception_4b/output_0_split -> inception_4b/output_inception_4b/output_0_split_1
I0913 20:31:22.466599  5857 net.cpp:399] inception_4b/output_inception_4b/output_0_split -> inception_4b/output_inception_4b/output_0_split_2
I0913 20:31:22.466606  5857 net.cpp:399] inception_4b/output_inception_4b/output_0_split -> inception_4b/output_inception_4b/output_0_split_3
I0913 20:31:22.466691  5857 net.cpp:141] Setting up inception_4b/output_inception_4b/output_0_split
I0913 20:31:22.466701  5857 net.cpp:148] Top shape: 10 512 14 14 (1003520)
I0913 20:31:22.466706  5857 net.cpp:148] Top shape: 10 512 14 14 (1003520)
I0913 20:31:22.466711  5857 net.cpp:148] Top shape: 10 512 14 14 (1003520)
I0913 20:31:22.466717  5857 net.cpp:148] Top shape: 10 512 14 14 (1003520)
I0913 20:31:22.466719  5857 net.cpp:156] Memory required for data: 423861760
I0913 20:31:22.466724  5857 layer_factory.hpp:77] Creating layer inception_4c/1x1
I0913 20:31:22.466738  5857 net.cpp:91] Creating Layer inception_4c/1x1
I0913 20:31:22.466744  5857 net.cpp:425] inception_4c/1x1 <- inception_4b/output_inception_4b/output_0_split_0
I0913 20:31:22.466753  5857 net.cpp:399] inception_4c/1x1 -> inception_4c/1x1
I0913 20:31:22.468466  5857 net.cpp:141] Setting up inception_4c/1x1
I0913 20:31:22.468482  5857 net.cpp:148] Top shape: 10 128 14 14 (250880)
I0913 20:31:22.468487  5857 net.cpp:156] Memory required for data: 424865280
I0913 20:31:22.468495  5857 layer_factory.hpp:77] Creating layer inception_4c/relu_1x1
I0913 20:31:22.468503  5857 net.cpp:91] Creating Layer inception_4c/relu_1x1
I0913 20:31:22.468508  5857 net.cpp:425] inception_4c/relu_1x1 <- inception_4c/1x1
I0913 20:31:22.468518  5857 net.cpp:386] inception_4c/relu_1x1 -> inception_4c/1x1 (in-place)
I0913 20:31:22.468909  5857 net.cpp:141] Setting up inception_4c/relu_1x1
I0913 20:31:22.468920  5857 net.cpp:148] Top shape: 10 128 14 14 (250880)
I0913 20:31:22.468924  5857 net.cpp:156] Memory required for data: 425868800
I0913 20:31:22.468930  5857 layer_factory.hpp:77] Creating layer inception_4c/3x3_reduce
I0913 20:31:22.468943  5857 net.cpp:91] Creating Layer inception_4c/3x3_reduce
I0913 20:31:22.468950  5857 net.cpp:425] inception_4c/3x3_reduce <- inception_4b/output_inception_4b/output_0_split_1
I0913 20:31:22.468961  5857 net.cpp:399] inception_4c/3x3_reduce -> inception_4c/3x3_reduce
I0913 20:31:22.470871  5857 net.cpp:141] Setting up inception_4c/3x3_reduce
I0913 20:31:22.470890  5857 net.cpp:148] Top shape: 10 128 14 14 (250880)
I0913 20:31:22.470895  5857 net.cpp:156] Memory required for data: 426872320
I0913 20:31:22.470902  5857 layer_factory.hpp:77] Creating layer inception_4c/relu_3x3_reduce
I0913 20:31:22.470911  5857 net.cpp:91] Creating Layer inception_4c/relu_3x3_reduce
I0913 20:31:22.470916  5857 net.cpp:425] inception_4c/relu_3x3_reduce <- inception_4c/3x3_reduce
I0913 20:31:22.470922  5857 net.cpp:386] inception_4c/relu_3x3_reduce -> inception_4c/3x3_reduce (in-place)
I0913 20:31:22.471153  5857 net.cpp:141] Setting up inception_4c/relu_3x3_reduce
I0913 20:31:22.471163  5857 net.cpp:148] Top shape: 10 128 14 14 (250880)
I0913 20:31:22.471168  5857 net.cpp:156] Memory required for data: 427875840
I0913 20:31:22.471173  5857 layer_factory.hpp:77] Creating layer inception_4c/3x3
I0913 20:31:22.471186  5857 net.cpp:91] Creating Layer inception_4c/3x3
I0913 20:31:22.471191  5857 net.cpp:425] inception_4c/3x3 <- inception_4c/3x3_reduce
I0913 20:31:22.471204  5857 net.cpp:399] inception_4c/3x3 -> inception_4c/3x3
I0913 20:31:22.475508  5857 net.cpp:141] Setting up inception_4c/3x3
I0913 20:31:22.475525  5857 net.cpp:148] Top shape: 10 256 14 14 (501760)
I0913 20:31:22.475530  5857 net.cpp:156] Memory required for data: 429882880
I0913 20:31:22.475538  5857 layer_factory.hpp:77] Creating layer inception_4c/relu_3x3
I0913 20:31:22.475553  5857 net.cpp:91] Creating Layer inception_4c/relu_3x3
I0913 20:31:22.475559  5857 net.cpp:425] inception_4c/relu_3x3 <- inception_4c/3x3
I0913 20:31:22.475566  5857 net.cpp:386] inception_4c/relu_3x3 -> inception_4c/3x3 (in-place)
I0913 20:31:22.475962  5857 net.cpp:141] Setting up inception_4c/relu_3x3
I0913 20:31:22.475975  5857 net.cpp:148] Top shape: 10 256 14 14 (501760)
I0913 20:31:22.475978  5857 net.cpp:156] Memory required for data: 431889920
I0913 20:31:22.475983  5857 layer_factory.hpp:77] Creating layer inception_4c/5x5_reduce
I0913 20:31:22.475999  5857 net.cpp:91] Creating Layer inception_4c/5x5_reduce
I0913 20:31:22.476006  5857 net.cpp:425] inception_4c/5x5_reduce <- inception_4b/output_inception_4b/output_0_split_2
I0913 20:31:22.476014  5857 net.cpp:399] inception_4c/5x5_reduce -> inception_4c/5x5_reduce
I0913 20:31:22.477385  5857 net.cpp:141] Setting up inception_4c/5x5_reduce
I0913 20:31:22.477401  5857 net.cpp:148] Top shape: 10 24 14 14 (47040)
I0913 20:31:22.477406  5857 net.cpp:156] Memory required for data: 432078080
I0913 20:31:22.477416  5857 layer_factory.hpp:77] Creating layer inception_4c/relu_5x5_reduce
I0913 20:31:22.477422  5857 net.cpp:91] Creating Layer inception_4c/relu_5x5_reduce
I0913 20:31:22.477428  5857 net.cpp:425] inception_4c/relu_5x5_reduce <- inception_4c/5x5_reduce
I0913 20:31:22.477437  5857 net.cpp:386] inception_4c/relu_5x5_reduce -> inception_4c/5x5_reduce (in-place)
I0913 20:31:22.477866  5857 net.cpp:141] Setting up inception_4c/relu_5x5_reduce
I0913 20:31:22.477882  5857 net.cpp:148] Top shape: 10 24 14 14 (47040)
I0913 20:31:22.477890  5857 net.cpp:156] Memory required for data: 432266240
I0913 20:31:22.477898  5857 layer_factory.hpp:77] Creating layer inception_4c/5x5
I0913 20:31:22.477919  5857 net.cpp:91] Creating Layer inception_4c/5x5
I0913 20:31:22.477928  5857 net.cpp:425] inception_4c/5x5 <- inception_4c/5x5_reduce
I0913 20:31:22.477949  5857 net.cpp:399] inception_4c/5x5 -> inception_4c/5x5
I0913 20:31:22.480955  5857 net.cpp:141] Setting up inception_4c/5x5
I0913 20:31:22.480978  5857 net.cpp:148] Top shape: 10 64 14 14 (125440)
I0913 20:31:22.480989  5857 net.cpp:156] Memory required for data: 432768000
I0913 20:31:22.481004  5857 layer_factory.hpp:77] Creating layer inception_4c/relu_5x5
I0913 20:31:22.481016  5857 net.cpp:91] Creating Layer inception_4c/relu_5x5
I0913 20:31:22.481025  5857 net.cpp:425] inception_4c/relu_5x5 <- inception_4c/5x5
I0913 20:31:22.481042  5857 net.cpp:386] inception_4c/relu_5x5 -> inception_4c/5x5 (in-place)
I0913 20:31:22.481410  5857 net.cpp:141] Setting up inception_4c/relu_5x5
I0913 20:31:22.481431  5857 net.cpp:148] Top shape: 10 64 14 14 (125440)
I0913 20:31:22.481438  5857 net.cpp:156] Memory required for data: 433269760
I0913 20:31:22.481446  5857 layer_factory.hpp:77] Creating layer inception_4c/pool
I0913 20:31:22.481459  5857 net.cpp:91] Creating Layer inception_4c/pool
I0913 20:31:22.481470  5857 net.cpp:425] inception_4c/pool <- inception_4b/output_inception_4b/output_0_split_3
I0913 20:31:22.481483  5857 net.cpp:399] inception_4c/pool -> inception_4c/pool
I0913 20:31:22.481586  5857 net.cpp:141] Setting up inception_4c/pool
I0913 20:31:22.481602  5857 net.cpp:148] Top shape: 10 512 14 14 (1003520)
I0913 20:31:22.481611  5857 net.cpp:156] Memory required for data: 437283840
I0913 20:31:22.481618  5857 layer_factory.hpp:77] Creating layer inception_4c/pool_proj
I0913 20:31:22.481640  5857 net.cpp:91] Creating Layer inception_4c/pool_proj
I0913 20:31:22.481649  5857 net.cpp:425] inception_4c/pool_proj <- inception_4c/pool
I0913 20:31:22.481667  5857 net.cpp:399] inception_4c/pool_proj -> inception_4c/pool_proj
I0913 20:31:22.485232  5857 net.cpp:141] Setting up inception_4c/pool_proj
I0913 20:31:22.485256  5857 net.cpp:148] Top shape: 10 64 14 14 (125440)
I0913 20:31:22.485265  5857 net.cpp:156] Memory required for data: 437785600
I0913 20:31:22.485303  5857 layer_factory.hpp:77] Creating layer inception_4c/relu_pool_proj
I0913 20:31:22.485321  5857 net.cpp:91] Creating Layer inception_4c/relu_pool_proj
I0913 20:31:22.485329  5857 net.cpp:425] inception_4c/relu_pool_proj <- inception_4c/pool_proj
I0913 20:31:22.485340  5857 net.cpp:386] inception_4c/relu_pool_proj -> inception_4c/pool_proj (in-place)
I0913 20:31:22.485937  5857 net.cpp:141] Setting up inception_4c/relu_pool_proj
I0913 20:31:22.485960  5857 net.cpp:148] Top shape: 10 64 14 14 (125440)
I0913 20:31:22.485970  5857 net.cpp:156] Memory required for data: 438287360
I0913 20:31:22.485980  5857 layer_factory.hpp:77] Creating layer inception_4c/output
I0913 20:31:22.485996  5857 net.cpp:91] Creating Layer inception_4c/output
I0913 20:31:22.486006  5857 net.cpp:425] inception_4c/output <- inception_4c/1x1
I0913 20:31:22.486017  5857 net.cpp:425] inception_4c/output <- inception_4c/3x3
I0913 20:31:22.486027  5857 net.cpp:425] inception_4c/output <- inception_4c/5x5
I0913 20:31:22.486037  5857 net.cpp:425] inception_4c/output <- inception_4c/pool_proj
I0913 20:31:22.486048  5857 net.cpp:399] inception_4c/output -> inception_4c/output
I0913 20:31:22.486110  5857 net.cpp:141] Setting up inception_4c/output
I0913 20:31:22.486126  5857 net.cpp:148] Top shape: 10 512 14 14 (1003520)
I0913 20:31:22.486134  5857 net.cpp:156] Memory required for data: 442301440
I0913 20:31:22.486141  5857 layer_factory.hpp:77] Creating layer inception_4c/output_inception_4c/output_0_split
I0913 20:31:22.486160  5857 net.cpp:91] Creating Layer inception_4c/output_inception_4c/output_0_split
I0913 20:31:22.486169  5857 net.cpp:425] inception_4c/output_inception_4c/output_0_split <- inception_4c/output
I0913 20:31:22.486184  5857 net.cpp:399] inception_4c/output_inception_4c/output_0_split -> inception_4c/output_inception_4c/output_0_split_0
I0913 20:31:22.486199  5857 net.cpp:399] inception_4c/output_inception_4c/output_0_split -> inception_4c/output_inception_4c/output_0_split_1
I0913 20:31:22.486213  5857 net.cpp:399] inception_4c/output_inception_4c/output_0_split -> inception_4c/output_inception_4c/output_0_split_2
I0913 20:31:22.486227  5857 net.cpp:399] inception_4c/output_inception_4c/output_0_split -> inception_4c/output_inception_4c/output_0_split_3
I0913 20:31:22.486373  5857 net.cpp:141] Setting up inception_4c/output_inception_4c/output_0_split
I0913 20:31:22.486392  5857 net.cpp:148] Top shape: 10 512 14 14 (1003520)
I0913 20:31:22.486402  5857 net.cpp:148] Top shape: 10 512 14 14 (1003520)
I0913 20:31:22.486410  5857 net.cpp:148] Top shape: 10 512 14 14 (1003520)
I0913 20:31:22.486419  5857 net.cpp:148] Top shape: 10 512 14 14 (1003520)
I0913 20:31:22.486426  5857 net.cpp:156] Memory required for data: 458357760
I0913 20:31:22.486435  5857 layer_factory.hpp:77] Creating layer inception_4d/1x1
I0913 20:31:22.486451  5857 net.cpp:91] Creating Layer inception_4d/1x1
I0913 20:31:22.486460  5857 net.cpp:425] inception_4d/1x1 <- inception_4c/output_inception_4c/output_0_split_0
I0913 20:31:22.486479  5857 net.cpp:399] inception_4d/1x1 -> inception_4d/1x1
I0913 20:31:22.489084  5857 net.cpp:141] Setting up inception_4d/1x1
I0913 20:31:22.489111  5857 net.cpp:148] Top shape: 10 112 14 14 (219520)
I0913 20:31:22.489120  5857 net.cpp:156] Memory required for data: 459235840
I0913 20:31:22.489136  5857 layer_factory.hpp:77] Creating layer inception_4d/relu_1x1
I0913 20:31:22.489148  5857 net.cpp:91] Creating Layer inception_4d/relu_1x1
I0913 20:31:22.489158  5857 net.cpp:425] inception_4d/relu_1x1 <- inception_4d/1x1
I0913 20:31:22.489169  5857 net.cpp:386] inception_4d/relu_1x1 -> inception_4d/1x1 (in-place)
I0913 20:31:22.489737  5857 net.cpp:141] Setting up inception_4d/relu_1x1
I0913 20:31:22.489761  5857 net.cpp:148] Top shape: 10 112 14 14 (219520)
I0913 20:31:22.489770  5857 net.cpp:156] Memory required for data: 460113920
I0913 20:31:22.489779  5857 layer_factory.hpp:77] Creating layer inception_4d/3x3_reduce
I0913 20:31:22.489802  5857 net.cpp:91] Creating Layer inception_4d/3x3_reduce
I0913 20:31:22.489812  5857 net.cpp:425] inception_4d/3x3_reduce <- inception_4c/output_inception_4c/output_0_split_1
I0913 20:31:22.489827  5857 net.cpp:399] inception_4d/3x3_reduce -> inception_4d/3x3_reduce
I0913 20:31:22.495525  5857 net.cpp:141] Setting up inception_4d/3x3_reduce
I0913 20:31:22.495575  5857 net.cpp:148] Top shape: 10 144 14 14 (282240)
I0913 20:31:22.495584  5857 net.cpp:156] Memory required for data: 461242880
I0913 20:31:22.495601  5857 layer_factory.hpp:77] Creating layer inception_4d/relu_3x3_reduce
I0913 20:31:22.495625  5857 net.cpp:91] Creating Layer inception_4d/relu_3x3_reduce
I0913 20:31:22.495635  5857 net.cpp:425] inception_4d/relu_3x3_reduce <- inception_4d/3x3_reduce
I0913 20:31:22.495648  5857 net.cpp:386] inception_4d/relu_3x3_reduce -> inception_4d/3x3_reduce (in-place)
I0913 20:31:22.495982  5857 net.cpp:141] Setting up inception_4d/relu_3x3_reduce
I0913 20:31:22.495996  5857 net.cpp:148] Top shape: 10 144 14 14 (282240)
I0913 20:31:22.496003  5857 net.cpp:156] Memory required for data: 462371840
I0913 20:31:22.496011  5857 layer_factory.hpp:77] Creating layer inception_4d/3x3
I0913 20:31:22.496035  5857 net.cpp:91] Creating Layer inception_4d/3x3
I0913 20:31:22.496043  5857 net.cpp:425] inception_4d/3x3 <- inception_4d/3x3_reduce
I0913 20:31:22.496065  5857 net.cpp:399] inception_4d/3x3 -> inception_4d/3x3
I0913 20:31:22.502840  5857 net.cpp:141] Setting up inception_4d/3x3
I0913 20:31:22.502862  5857 net.cpp:148] Top shape: 10 288 14 14 (564480)
I0913 20:31:22.502868  5857 net.cpp:156] Memory required for data: 464629760
I0913 20:31:22.502884  5857 layer_factory.hpp:77] Creating layer inception_4d/relu_3x3
I0913 20:31:22.502900  5857 net.cpp:91] Creating Layer inception_4d/relu_3x3
I0913 20:31:22.502907  5857 net.cpp:425] inception_4d/relu_3x3 <- inception_4d/3x3
I0913 20:31:22.502914  5857 net.cpp:386] inception_4d/relu_3x3 -> inception_4d/3x3 (in-place)
I0913 20:31:22.503330  5857 net.cpp:141] Setting up inception_4d/relu_3x3
I0913 20:31:22.503343  5857 net.cpp:148] Top shape: 10 288 14 14 (564480)
I0913 20:31:22.503347  5857 net.cpp:156] Memory required for data: 466887680
I0913 20:31:22.503352  5857 layer_factory.hpp:77] Creating layer inception_4d/5x5_reduce
I0913 20:31:22.503368  5857 net.cpp:91] Creating Layer inception_4d/5x5_reduce
I0913 20:31:22.503374  5857 net.cpp:425] inception_4d/5x5_reduce <- inception_4c/output_inception_4c/output_0_split_2
I0913 20:31:22.503386  5857 net.cpp:399] inception_4d/5x5_reduce -> inception_4d/5x5_reduce
I0913 20:31:22.504866  5857 net.cpp:141] Setting up inception_4d/5x5_reduce
I0913 20:31:22.504890  5857 net.cpp:148] Top shape: 10 32 14 14 (62720)
I0913 20:31:22.504895  5857 net.cpp:156] Memory required for data: 467138560
I0913 20:31:22.504905  5857 layer_factory.hpp:77] Creating layer inception_4d/relu_5x5_reduce
I0913 20:31:22.504919  5857 net.cpp:91] Creating Layer inception_4d/relu_5x5_reduce
I0913 20:31:22.504926  5857 net.cpp:425] inception_4d/relu_5x5_reduce <- inception_4d/5x5_reduce
I0913 20:31:22.504933  5857 net.cpp:386] inception_4d/relu_5x5_reduce -> inception_4d/5x5_reduce (in-place)
I0913 20:31:22.505342  5857 net.cpp:141] Setting up inception_4d/relu_5x5_reduce
I0913 20:31:22.505353  5857 net.cpp:148] Top shape: 10 32 14 14 (62720)
I0913 20:31:22.505358  5857 net.cpp:156] Memory required for data: 467389440
I0913 20:31:22.505362  5857 layer_factory.hpp:77] Creating layer inception_4d/5x5
I0913 20:31:22.505378  5857 net.cpp:91] Creating Layer inception_4d/5x5
I0913 20:31:22.505384  5857 net.cpp:425] inception_4d/5x5 <- inception_4d/5x5_reduce
I0913 20:31:22.505395  5857 net.cpp:399] inception_4d/5x5 -> inception_4d/5x5
I0913 20:31:22.507236  5857 net.cpp:141] Setting up inception_4d/5x5
I0913 20:31:22.507252  5857 net.cpp:148] Top shape: 10 64 14 14 (125440)
I0913 20:31:22.507257  5857 net.cpp:156] Memory required for data: 467891200
I0913 20:31:22.507266  5857 layer_factory.hpp:77] Creating layer inception_4d/relu_5x5
I0913 20:31:22.507273  5857 net.cpp:91] Creating Layer inception_4d/relu_5x5
I0913 20:31:22.507278  5857 net.cpp:425] inception_4d/relu_5x5 <- inception_4d/5x5
I0913 20:31:22.507292  5857 net.cpp:386] inception_4d/relu_5x5 -> inception_4d/5x5 (in-place)
I0913 20:31:22.507530  5857 net.cpp:141] Setting up inception_4d/relu_5x5
I0913 20:31:22.507542  5857 net.cpp:148] Top shape: 10 64 14 14 (125440)
I0913 20:31:22.507547  5857 net.cpp:156] Memory required for data: 468392960
I0913 20:31:22.507551  5857 layer_factory.hpp:77] Creating layer inception_4d/pool
I0913 20:31:22.507561  5857 net.cpp:91] Creating Layer inception_4d/pool
I0913 20:31:22.507567  5857 net.cpp:425] inception_4d/pool <- inception_4c/output_inception_4c/output_0_split_3
I0913 20:31:22.507575  5857 net.cpp:399] inception_4d/pool -> inception_4d/pool
I0913 20:31:22.507643  5857 net.cpp:141] Setting up inception_4d/pool
I0913 20:31:22.507652  5857 net.cpp:148] Top shape: 10 512 14 14 (1003520)
I0913 20:31:22.507657  5857 net.cpp:156] Memory required for data: 472407040
I0913 20:31:22.507661  5857 layer_factory.hpp:77] Creating layer inception_4d/pool_proj
I0913 20:31:22.507675  5857 net.cpp:91] Creating Layer inception_4d/pool_proj
I0913 20:31:22.507680  5857 net.cpp:425] inception_4d/pool_proj <- inception_4d/pool
I0913 20:31:22.507690  5857 net.cpp:399] inception_4d/pool_proj -> inception_4d/pool_proj
I0913 20:31:22.509404  5857 net.cpp:141] Setting up inception_4d/pool_proj
I0913 20:31:22.509420  5857 net.cpp:148] Top shape: 10 64 14 14 (125440)
I0913 20:31:22.509425  5857 net.cpp:156] Memory required for data: 472908800
I0913 20:31:22.509434  5857 layer_factory.hpp:77] Creating layer inception_4d/relu_pool_proj
I0913 20:31:22.509445  5857 net.cpp:91] Creating Layer inception_4d/relu_pool_proj
I0913 20:31:22.509451  5857 net.cpp:425] inception_4d/relu_pool_proj <- inception_4d/pool_proj
I0913 20:31:22.509459  5857 net.cpp:386] inception_4d/relu_pool_proj -> inception_4d/pool_proj (in-place)
I0913 20:31:22.509870  5857 net.cpp:141] Setting up inception_4d/relu_pool_proj
I0913 20:31:22.509881  5857 net.cpp:148] Top shape: 10 64 14 14 (125440)
I0913 20:31:22.509886  5857 net.cpp:156] Memory required for data: 473410560
I0913 20:31:22.509891  5857 layer_factory.hpp:77] Creating layer inception_4d/output
I0913 20:31:22.509902  5857 net.cpp:91] Creating Layer inception_4d/output
I0913 20:31:22.509908  5857 net.cpp:425] inception_4d/output <- inception_4d/1x1
I0913 20:31:22.509914  5857 net.cpp:425] inception_4d/output <- inception_4d/3x3
I0913 20:31:22.509920  5857 net.cpp:425] inception_4d/output <- inception_4d/5x5
I0913 20:31:22.509925  5857 net.cpp:425] inception_4d/output <- inception_4d/pool_proj
I0913 20:31:22.509932  5857 net.cpp:399] inception_4d/output -> inception_4d/output
I0913 20:31:22.509979  5857 net.cpp:141] Setting up inception_4d/output
I0913 20:31:22.509987  5857 net.cpp:148] Top shape: 10 528 14 14 (1034880)
I0913 20:31:22.509992  5857 net.cpp:156] Memory required for data: 477550080
I0913 20:31:22.509996  5857 layer_factory.hpp:77] Creating layer inception_4d/output_inception_4d/output_0_split
I0913 20:31:22.510004  5857 net.cpp:91] Creating Layer inception_4d/output_inception_4d/output_0_split
I0913 20:31:22.510009  5857 net.cpp:425] inception_4d/output_inception_4d/output_0_split <- inception_4d/output
I0913 20:31:22.510020  5857 net.cpp:399] inception_4d/output_inception_4d/output_0_split -> inception_4d/output_inception_4d/output_0_split_0
I0913 20:31:22.510030  5857 net.cpp:399] inception_4d/output_inception_4d/output_0_split -> inception_4d/output_inception_4d/output_0_split_1
I0913 20:31:22.510037  5857 net.cpp:399] inception_4d/output_inception_4d/output_0_split -> inception_4d/output_inception_4d/output_0_split_2
I0913 20:31:22.510046  5857 net.cpp:399] inception_4d/output_inception_4d/output_0_split -> inception_4d/output_inception_4d/output_0_split_3
I0913 20:31:22.510146  5857 net.cpp:141] Setting up inception_4d/output_inception_4d/output_0_split
I0913 20:31:22.510155  5857 net.cpp:148] Top shape: 10 528 14 14 (1034880)
I0913 20:31:22.510161  5857 net.cpp:148] Top shape: 10 528 14 14 (1034880)
I0913 20:31:22.510166  5857 net.cpp:148] Top shape: 10 528 14 14 (1034880)
I0913 20:31:22.510171  5857 net.cpp:148] Top shape: 10 528 14 14 (1034880)
I0913 20:31:22.510175  5857 net.cpp:156] Memory required for data: 494108160
I0913 20:31:22.510179  5857 layer_factory.hpp:77] Creating layer inception_4e/1x1
I0913 20:31:22.510192  5857 net.cpp:91] Creating Layer inception_4e/1x1
I0913 20:31:22.510198  5857 net.cpp:425] inception_4e/1x1 <- inception_4d/output_inception_4d/output_0_split_0
I0913 20:31:22.510210  5857 net.cpp:399] inception_4e/1x1 -> inception_4e/1x1
I0913 20:31:22.513494  5857 net.cpp:141] Setting up inception_4e/1x1
I0913 20:31:22.513512  5857 net.cpp:148] Top shape: 10 256 14 14 (501760)
I0913 20:31:22.513517  5857 net.cpp:156] Memory required for data: 496115200
I0913 20:31:22.513525  5857 layer_factory.hpp:77] Creating layer inception_4e/relu_1x1
I0913 20:31:22.513537  5857 net.cpp:91] Creating Layer inception_4e/relu_1x1
I0913 20:31:22.513543  5857 net.cpp:425] inception_4e/relu_1x1 <- inception_4e/1x1
I0913 20:31:22.513550  5857 net.cpp:386] inception_4e/relu_1x1 -> inception_4e/1x1 (in-place)
I0913 20:31:22.513957  5857 net.cpp:141] Setting up inception_4e/relu_1x1
I0913 20:31:22.513970  5857 net.cpp:148] Top shape: 10 256 14 14 (501760)
I0913 20:31:22.513975  5857 net.cpp:156] Memory required for data: 498122240
I0913 20:31:22.513980  5857 layer_factory.hpp:77] Creating layer inception_4e/3x3_reduce
I0913 20:31:22.513998  5857 net.cpp:91] Creating Layer inception_4e/3x3_reduce
I0913 20:31:22.514004  5857 net.cpp:425] inception_4e/3x3_reduce <- inception_4d/output_inception_4d/output_0_split_1
I0913 20:31:22.514014  5857 net.cpp:399] inception_4e/3x3_reduce -> inception_4e/3x3_reduce
I0913 20:31:22.516141  5857 net.cpp:141] Setting up inception_4e/3x3_reduce
I0913 20:31:22.516157  5857 net.cpp:148] Top shape: 10 160 14 14 (313600)
I0913 20:31:22.516162  5857 net.cpp:156] Memory required for data: 499376640
I0913 20:31:22.516171  5857 layer_factory.hpp:77] Creating layer inception_4e/relu_3x3_reduce
I0913 20:31:22.516180  5857 net.cpp:91] Creating Layer inception_4e/relu_3x3_reduce
I0913 20:31:22.516185  5857 net.cpp:425] inception_4e/relu_3x3_reduce <- inception_4e/3x3_reduce
I0913 20:31:22.516194  5857 net.cpp:386] inception_4e/relu_3x3_reduce -> inception_4e/3x3_reduce (in-place)
I0913 20:31:22.516438  5857 net.cpp:141] Setting up inception_4e/relu_3x3_reduce
I0913 20:31:22.516448  5857 net.cpp:148] Top shape: 10 160 14 14 (313600)
I0913 20:31:22.516453  5857 net.cpp:156] Memory required for data: 500631040
I0913 20:31:22.516456  5857 layer_factory.hpp:77] Creating layer inception_4e/3x3
I0913 20:31:22.516472  5857 net.cpp:91] Creating Layer inception_4e/3x3
I0913 20:31:22.516479  5857 net.cpp:425] inception_4e/3x3 <- inception_4e/3x3_reduce
I0913 20:31:22.516486  5857 net.cpp:399] inception_4e/3x3 -> inception_4e/3x3
I0913 20:31:22.522482  5857 net.cpp:141] Setting up inception_4e/3x3
I0913 20:31:22.522502  5857 net.cpp:148] Top shape: 10 320 14 14 (627200)
I0913 20:31:22.522507  5857 net.cpp:156] Memory required for data: 503139840
I0913 20:31:22.522522  5857 layer_factory.hpp:77] Creating layer inception_4e/relu_3x3
I0913 20:31:22.522531  5857 net.cpp:91] Creating Layer inception_4e/relu_3x3
I0913 20:31:22.522537  5857 net.cpp:425] inception_4e/relu_3x3 <- inception_4e/3x3
I0913 20:31:22.522547  5857 net.cpp:386] inception_4e/relu_3x3 -> inception_4e/3x3 (in-place)
I0913 20:31:22.522972  5857 net.cpp:141] Setting up inception_4e/relu_3x3
I0913 20:31:22.522984  5857 net.cpp:148] Top shape: 10 320 14 14 (627200)
I0913 20:31:22.522989  5857 net.cpp:156] Memory required for data: 505648640
I0913 20:31:22.522994  5857 layer_factory.hpp:77] Creating layer inception_4e/5x5_reduce
I0913 20:31:22.523011  5857 net.cpp:91] Creating Layer inception_4e/5x5_reduce
I0913 20:31:22.523017  5857 net.cpp:425] inception_4e/5x5_reduce <- inception_4d/output_inception_4d/output_0_split_2
I0913 20:31:22.523026  5857 net.cpp:399] inception_4e/5x5_reduce -> inception_4e/5x5_reduce
I0913 20:31:22.524505  5857 net.cpp:141] Setting up inception_4e/5x5_reduce
I0913 20:31:22.524523  5857 net.cpp:148] Top shape: 10 32 14 14 (62720)
I0913 20:31:22.524526  5857 net.cpp:156] Memory required for data: 505899520
I0913 20:31:22.524535  5857 layer_factory.hpp:77] Creating layer inception_4e/relu_5x5_reduce
I0913 20:31:22.524546  5857 net.cpp:91] Creating Layer inception_4e/relu_5x5_reduce
I0913 20:31:22.524554  5857 net.cpp:425] inception_4e/relu_5x5_reduce <- inception_4e/5x5_reduce
I0913 20:31:22.524559  5857 net.cpp:386] inception_4e/relu_5x5_reduce -> inception_4e/5x5_reduce (in-place)
I0913 20:31:22.524966  5857 net.cpp:141] Setting up inception_4e/relu_5x5_reduce
I0913 20:31:22.524981  5857 net.cpp:148] Top shape: 10 32 14 14 (62720)
I0913 20:31:22.524986  5857 net.cpp:156] Memory required for data: 506150400
I0913 20:31:22.524991  5857 layer_factory.hpp:77] Creating layer inception_4e/5x5
I0913 20:31:22.525004  5857 net.cpp:91] Creating Layer inception_4e/5x5
I0913 20:31:22.525010  5857 net.cpp:425] inception_4e/5x5 <- inception_4e/5x5_reduce
I0913 20:31:22.525019  5857 net.cpp:399] inception_4e/5x5 -> inception_4e/5x5
I0913 20:31:22.527978  5857 net.cpp:141] Setting up inception_4e/5x5
I0913 20:31:22.527995  5857 net.cpp:148] Top shape: 10 128 14 14 (250880)
I0913 20:31:22.528000  5857 net.cpp:156] Memory required for data: 507153920
I0913 20:31:22.528008  5857 layer_factory.hpp:77] Creating layer inception_4e/relu_5x5
I0913 20:31:22.528019  5857 net.cpp:91] Creating Layer inception_4e/relu_5x5
I0913 20:31:22.528025  5857 net.cpp:425] inception_4e/relu_5x5 <- inception_4e/5x5
I0913 20:31:22.528033  5857 net.cpp:386] inception_4e/relu_5x5 -> inception_4e/5x5 (in-place)
I0913 20:31:22.528282  5857 net.cpp:141] Setting up inception_4e/relu_5x5
I0913 20:31:22.528293  5857 net.cpp:148] Top shape: 10 128 14 14 (250880)
I0913 20:31:22.528298  5857 net.cpp:156] Memory required for data: 508157440
I0913 20:31:22.528302  5857 layer_factory.hpp:77] Creating layer inception_4e/pool
I0913 20:31:22.528312  5857 net.cpp:91] Creating Layer inception_4e/pool
I0913 20:31:22.528317  5857 net.cpp:425] inception_4e/pool <- inception_4d/output_inception_4d/output_0_split_3
I0913 20:31:22.528327  5857 net.cpp:399] inception_4e/pool -> inception_4e/pool
I0913 20:31:22.528401  5857 net.cpp:141] Setting up inception_4e/pool
I0913 20:31:22.528412  5857 net.cpp:148] Top shape: 10 528 14 14 (1034880)
I0913 20:31:22.528416  5857 net.cpp:156] Memory required for data: 512296960
I0913 20:31:22.528421  5857 layer_factory.hpp:77] Creating layer inception_4e/pool_proj
I0913 20:31:22.528434  5857 net.cpp:91] Creating Layer inception_4e/pool_proj
I0913 20:31:22.528439  5857 net.cpp:425] inception_4e/pool_proj <- inception_4e/pool
I0913 20:31:22.528448  5857 net.cpp:399] inception_4e/pool_proj -> inception_4e/pool_proj
I0913 20:31:22.530410  5857 net.cpp:141] Setting up inception_4e/pool_proj
I0913 20:31:22.530426  5857 net.cpp:148] Top shape: 10 128 14 14 (250880)
I0913 20:31:22.530431  5857 net.cpp:156] Memory required for data: 513300480
I0913 20:31:22.530438  5857 layer_factory.hpp:77] Creating layer inception_4e/relu_pool_proj
I0913 20:31:22.530447  5857 net.cpp:91] Creating Layer inception_4e/relu_pool_proj
I0913 20:31:22.530452  5857 net.cpp:425] inception_4e/relu_pool_proj <- inception_4e/pool_proj
I0913 20:31:22.530462  5857 net.cpp:386] inception_4e/relu_pool_proj -> inception_4e/pool_proj (in-place)
I0913 20:31:22.530879  5857 net.cpp:141] Setting up inception_4e/relu_pool_proj
I0913 20:31:22.530891  5857 net.cpp:148] Top shape: 10 128 14 14 (250880)
I0913 20:31:22.530895  5857 net.cpp:156] Memory required for data: 514304000
I0913 20:31:22.530900  5857 layer_factory.hpp:77] Creating layer inception_4e/output
I0913 20:31:22.530911  5857 net.cpp:91] Creating Layer inception_4e/output
I0913 20:31:22.530917  5857 net.cpp:425] inception_4e/output <- inception_4e/1x1
I0913 20:31:22.530923  5857 net.cpp:425] inception_4e/output <- inception_4e/3x3
I0913 20:31:22.530930  5857 net.cpp:425] inception_4e/output <- inception_4e/5x5
I0913 20:31:22.530935  5857 net.cpp:425] inception_4e/output <- inception_4e/pool_proj
I0913 20:31:22.530941  5857 net.cpp:399] inception_4e/output -> inception_4e/output
I0913 20:31:22.530988  5857 net.cpp:141] Setting up inception_4e/output
I0913 20:31:22.530998  5857 net.cpp:148] Top shape: 10 832 14 14 (1630720)
I0913 20:31:22.531002  5857 net.cpp:156] Memory required for data: 520826880
I0913 20:31:22.531007  5857 layer_factory.hpp:77] Creating layer pool4/3x3_s2
I0913 20:31:22.531013  5857 net.cpp:91] Creating Layer pool4/3x3_s2
I0913 20:31:22.531018  5857 net.cpp:425] pool4/3x3_s2 <- inception_4e/output
I0913 20:31:22.531029  5857 net.cpp:399] pool4/3x3_s2 -> pool4/3x3_s2
I0913 20:31:22.531090  5857 net.cpp:141] Setting up pool4/3x3_s2
I0913 20:31:22.531100  5857 net.cpp:148] Top shape: 10 832 7 7 (407680)
I0913 20:31:22.531103  5857 net.cpp:156] Memory required for data: 522457600
I0913 20:31:22.531107  5857 layer_factory.hpp:77] Creating layer pool4/3x3_s2_pool4/3x3_s2_0_split
I0913 20:31:22.531119  5857 net.cpp:91] Creating Layer pool4/3x3_s2_pool4/3x3_s2_0_split
I0913 20:31:22.531124  5857 net.cpp:425] pool4/3x3_s2_pool4/3x3_s2_0_split <- pool4/3x3_s2
I0913 20:31:22.531131  5857 net.cpp:399] pool4/3x3_s2_pool4/3x3_s2_0_split -> pool4/3x3_s2_pool4/3x3_s2_0_split_0
I0913 20:31:22.531143  5857 net.cpp:399] pool4/3x3_s2_pool4/3x3_s2_0_split -> pool4/3x3_s2_pool4/3x3_s2_0_split_1
I0913 20:31:22.531152  5857 net.cpp:399] pool4/3x3_s2_pool4/3x3_s2_0_split -> pool4/3x3_s2_pool4/3x3_s2_0_split_2
I0913 20:31:22.531159  5857 net.cpp:399] pool4/3x3_s2_pool4/3x3_s2_0_split -> pool4/3x3_s2_pool4/3x3_s2_0_split_3
I0913 20:31:22.531253  5857 net.cpp:141] Setting up pool4/3x3_s2_pool4/3x3_s2_0_split
I0913 20:31:22.531262  5857 net.cpp:148] Top shape: 10 832 7 7 (407680)
I0913 20:31:22.531268  5857 net.cpp:148] Top shape: 10 832 7 7 (407680)
I0913 20:31:22.531273  5857 net.cpp:148] Top shape: 10 832 7 7 (407680)
I0913 20:31:22.531278  5857 net.cpp:148] Top shape: 10 832 7 7 (407680)
I0913 20:31:22.531282  5857 net.cpp:156] Memory required for data: 528980480
I0913 20:31:22.531286  5857 layer_factory.hpp:77] Creating layer inception_5a/1x1
I0913 20:31:22.531299  5857 net.cpp:91] Creating Layer inception_5a/1x1
I0913 20:31:22.531304  5857 net.cpp:425] inception_5a/1x1 <- pool4/3x3_s2_pool4/3x3_s2_0_split_0
I0913 20:31:22.531316  5857 net.cpp:399] inception_5a/1x1 -> inception_5a/1x1
I0913 20:31:22.534925  5857 net.cpp:141] Setting up inception_5a/1x1
I0913 20:31:22.534942  5857 net.cpp:148] Top shape: 10 256 7 7 (125440)
I0913 20:31:22.534947  5857 net.cpp:156] Memory required for data: 529482240
I0913 20:31:22.534955  5857 layer_factory.hpp:77] Creating layer inception_5a/relu_1x1
I0913 20:31:22.534963  5857 net.cpp:91] Creating Layer inception_5a/relu_1x1
I0913 20:31:22.534970  5857 net.cpp:425] inception_5a/relu_1x1 <- inception_5a/1x1
I0913 20:31:22.534981  5857 net.cpp:386] inception_5a/relu_1x1 -> inception_5a/1x1 (in-place)
I0913 20:31:22.535387  5857 net.cpp:141] Setting up inception_5a/relu_1x1
I0913 20:31:22.535398  5857 net.cpp:148] Top shape: 10 256 7 7 (125440)
I0913 20:31:22.535403  5857 net.cpp:156] Memory required for data: 529984000
I0913 20:31:22.535408  5857 layer_factory.hpp:77] Creating layer inception_5a/3x3_reduce
I0913 20:31:22.535423  5857 net.cpp:91] Creating Layer inception_5a/3x3_reduce
I0913 20:31:22.535430  5857 net.cpp:425] inception_5a/3x3_reduce <- pool4/3x3_s2_pool4/3x3_s2_0_split_1
I0913 20:31:22.535439  5857 net.cpp:399] inception_5a/3x3_reduce -> inception_5a/3x3_reduce
I0913 20:31:22.538657  5857 net.cpp:141] Setting up inception_5a/3x3_reduce
I0913 20:31:22.538674  5857 net.cpp:148] Top shape: 10 160 7 7 (78400)
I0913 20:31:22.538679  5857 net.cpp:156] Memory required for data: 530297600
I0913 20:31:22.538687  5857 layer_factory.hpp:77] Creating layer inception_5a/relu_3x3_reduce
I0913 20:31:22.538696  5857 net.cpp:91] Creating Layer inception_5a/relu_3x3_reduce
I0913 20:31:22.538702  5857 net.cpp:425] inception_5a/relu_3x3_reduce <- inception_5a/3x3_reduce
I0913 20:31:22.538707  5857 net.cpp:386] inception_5a/relu_3x3_reduce -> inception_5a/3x3_reduce (in-place)
I0913 20:31:22.538959  5857 net.cpp:141] Setting up inception_5a/relu_3x3_reduce
I0913 20:31:22.538969  5857 net.cpp:148] Top shape: 10 160 7 7 (78400)
I0913 20:31:22.538974  5857 net.cpp:156] Memory required for data: 530611200
I0913 20:31:22.538978  5857 layer_factory.hpp:77] Creating layer inception_5a/3x3
I0913 20:31:22.538992  5857 net.cpp:91] Creating Layer inception_5a/3x3
I0913 20:31:22.538997  5857 net.cpp:425] inception_5a/3x3 <- inception_5a/3x3_reduce
I0913 20:31:22.539010  5857 net.cpp:399] inception_5a/3x3 -> inception_5a/3x3
I0913 20:31:22.545428  5857 net.cpp:141] Setting up inception_5a/3x3
I0913 20:31:22.545445  5857 net.cpp:148] Top shape: 10 320 7 7 (156800)
I0913 20:31:22.545450  5857 net.cpp:156] Memory required for data: 531238400
I0913 20:31:22.545459  5857 layer_factory.hpp:77] Creating layer inception_5a/relu_3x3
I0913 20:31:22.545471  5857 net.cpp:91] Creating Layer inception_5a/relu_3x3
I0913 20:31:22.545478  5857 net.cpp:425] inception_5a/relu_3x3 <- inception_5a/3x3
I0913 20:31:22.545485  5857 net.cpp:386] inception_5a/relu_3x3 -> inception_5a/3x3 (in-place)
I0913 20:31:22.545925  5857 net.cpp:141] Setting up inception_5a/relu_3x3
I0913 20:31:22.545938  5857 net.cpp:148] Top shape: 10 320 7 7 (156800)
I0913 20:31:22.545943  5857 net.cpp:156] Memory required for data: 531865600
I0913 20:31:22.545948  5857 layer_factory.hpp:77] Creating layer inception_5a/5x5_reduce
I0913 20:31:22.545965  5857 net.cpp:91] Creating Layer inception_5a/5x5_reduce
I0913 20:31:22.545971  5857 net.cpp:425] inception_5a/5x5_reduce <- pool4/3x3_s2_pool4/3x3_s2_0_split_2
I0913 20:31:22.545980  5857 net.cpp:399] inception_5a/5x5_reduce -> inception_5a/5x5_reduce
I0913 20:31:22.547583  5857 net.cpp:141] Setting up inception_5a/5x5_reduce
I0913 20:31:22.547605  5857 net.cpp:148] Top shape: 10 32 7 7 (15680)
I0913 20:31:22.547612  5857 net.cpp:156] Memory required for data: 531928320
I0913 20:31:22.547627  5857 layer_factory.hpp:77] Creating layer inception_5a/relu_5x5_reduce
I0913 20:31:22.547647  5857 net.cpp:91] Creating Layer inception_5a/relu_5x5_reduce
I0913 20:31:22.547658  5857 net.cpp:425] inception_5a/relu_5x5_reduce <- inception_5a/5x5_reduce
I0913 20:31:22.547672  5857 net.cpp:386] inception_5a/relu_5x5_reduce -> inception_5a/5x5_reduce (in-place)
I0913 20:31:22.548339  5857 net.cpp:141] Setting up inception_5a/relu_5x5_reduce
I0913 20:31:22.548360  5857 net.cpp:148] Top shape: 10 32 7 7 (15680)
I0913 20:31:22.548369  5857 net.cpp:156] Memory required for data: 531991040
I0913 20:31:22.548379  5857 layer_factory.hpp:77] Creating layer inception_5a/5x5
I0913 20:31:22.548413  5857 net.cpp:91] Creating Layer inception_5a/5x5
I0913 20:31:22.548426  5857 net.cpp:425] inception_5a/5x5 <- inception_5a/5x5_reduce
I0913 20:31:22.548444  5857 net.cpp:399] inception_5a/5x5 -> inception_5a/5x5
I0913 20:31:22.551067  5857 net.cpp:141] Setting up inception_5a/5x5
I0913 20:31:22.551089  5857 net.cpp:148] Top shape: 10 128 7 7 (62720)
I0913 20:31:22.551098  5857 net.cpp:156] Memory required for data: 532241920
I0913 20:31:22.551115  5857 layer_factory.hpp:77] Creating layer inception_5a/relu_5x5
I0913 20:31:22.551161  5857 net.cpp:91] Creating Layer inception_5a/relu_5x5
I0913 20:31:22.551175  5857 net.cpp:425] inception_5a/relu_5x5 <- inception_5a/5x5
I0913 20:31:22.551188  5857 net.cpp:386] inception_5a/relu_5x5 -> inception_5a/5x5 (in-place)
I0913 20:31:22.551609  5857 net.cpp:141] Setting up inception_5a/relu_5x5
I0913 20:31:22.551628  5857 net.cpp:148] Top shape: 10 128 7 7 (62720)
I0913 20:31:22.551637  5857 net.cpp:156] Memory required for data: 532492800
I0913 20:31:22.551647  5857 layer_factory.hpp:77] Creating layer inception_5a/pool
I0913 20:31:22.551663  5857 net.cpp:91] Creating Layer inception_5a/pool
I0913 20:31:22.551676  5857 net.cpp:425] inception_5a/pool <- pool4/3x3_s2_pool4/3x3_s2_0_split_3
I0913 20:31:22.551695  5857 net.cpp:399] inception_5a/pool -> inception_5a/pool
I0913 20:31:22.551826  5857 net.cpp:141] Setting up inception_5a/pool
I0913 20:31:22.551844  5857 net.cpp:148] Top shape: 10 832 7 7 (407680)
I0913 20:31:22.551852  5857 net.cpp:156] Memory required for data: 534123520
I0913 20:31:22.551862  5857 layer_factory.hpp:77] Creating layer inception_5a/pool_proj
I0913 20:31:22.551889  5857 net.cpp:91] Creating Layer inception_5a/pool_proj
I0913 20:31:22.551903  5857 net.cpp:425] inception_5a/pool_proj <- inception_5a/pool
I0913 20:31:22.551918  5857 net.cpp:399] inception_5a/pool_proj -> inception_5a/pool_proj
I0913 20:31:22.555452  5857 net.cpp:141] Setting up inception_5a/pool_proj
I0913 20:31:22.555475  5857 net.cpp:148] Top shape: 10 128 7 7 (62720)
I0913 20:31:22.555485  5857 net.cpp:156] Memory required for data: 534374400
I0913 20:31:22.555502  5857 layer_factory.hpp:77] Creating layer inception_5a/relu_pool_proj
I0913 20:31:22.555516  5857 net.cpp:91] Creating Layer inception_5a/relu_pool_proj
I0913 20:31:22.555527  5857 net.cpp:425] inception_5a/relu_pool_proj <- inception_5a/pool_proj
I0913 20:31:22.555546  5857 net.cpp:386] inception_5a/relu_pool_proj -> inception_5a/pool_proj (in-place)
I0913 20:31:22.556218  5857 net.cpp:141] Setting up inception_5a/relu_pool_proj
I0913 20:31:22.556238  5857 net.cpp:148] Top shape: 10 128 7 7 (62720)
I0913 20:31:22.556247  5857 net.cpp:156] Memory required for data: 534625280
I0913 20:31:22.556257  5857 layer_factory.hpp:77] Creating layer inception_5a/output
I0913 20:31:22.556270  5857 net.cpp:91] Creating Layer inception_5a/output
I0913 20:31:22.556282  5857 net.cpp:425] inception_5a/output <- inception_5a/1x1
I0913 20:31:22.556293  5857 net.cpp:425] inception_5a/output <- inception_5a/3x3
I0913 20:31:22.556304  5857 net.cpp:425] inception_5a/output <- inception_5a/5x5
I0913 20:31:22.556314  5857 net.cpp:425] inception_5a/output <- inception_5a/pool_proj
I0913 20:31:22.556334  5857 net.cpp:399] inception_5a/output -> inception_5a/output
I0913 20:31:22.556412  5857 net.cpp:141] Setting up inception_5a/output
I0913 20:31:22.556437  5857 net.cpp:148] Top shape: 10 832 7 7 (407680)
I0913 20:31:22.556444  5857 net.cpp:156] Memory required for data: 536256000
I0913 20:31:22.556454  5857 layer_factory.hpp:77] Creating layer inception_5a/output_inception_5a/output_0_split
I0913 20:31:22.556468  5857 net.cpp:91] Creating Layer inception_5a/output_inception_5a/output_0_split
I0913 20:31:22.556478  5857 net.cpp:425] inception_5a/output_inception_5a/output_0_split <- inception_5a/output
I0913 20:31:22.556491  5857 net.cpp:399] inception_5a/output_inception_5a/output_0_split -> inception_5a/output_inception_5a/output_0_split_0
I0913 20:31:22.556515  5857 net.cpp:399] inception_5a/output_inception_5a/output_0_split -> inception_5a/output_inception_5a/output_0_split_1
I0913 20:31:22.556535  5857 net.cpp:399] inception_5a/output_inception_5a/output_0_split -> inception_5a/output_inception_5a/output_0_split_2
I0913 20:31:22.556551  5857 net.cpp:399] inception_5a/output_inception_5a/output_0_split -> inception_5a/output_inception_5a/output_0_split_3
I0913 20:31:22.556759  5857 net.cpp:141] Setting up inception_5a/output_inception_5a/output_0_split
I0913 20:31:22.556777  5857 net.cpp:148] Top shape: 10 832 7 7 (407680)
I0913 20:31:22.556788  5857 net.cpp:148] Top shape: 10 832 7 7 (407680)
I0913 20:31:22.556799  5857 net.cpp:148] Top shape: 10 832 7 7 (407680)
I0913 20:31:22.556810  5857 net.cpp:148] Top shape: 10 832 7 7 (407680)
I0913 20:31:22.556818  5857 net.cpp:156] Memory required for data: 542778880
I0913 20:31:22.556825  5857 layer_factory.hpp:77] Creating layer inception_5b/1x1
I0913 20:31:22.556854  5857 net.cpp:91] Creating Layer inception_5b/1x1
I0913 20:31:22.556866  5857 net.cpp:425] inception_5b/1x1 <- inception_5a/output_inception_5a/output_0_split_0
I0913 20:31:22.556884  5857 net.cpp:399] inception_5b/1x1 -> inception_5b/1x1
I0913 20:31:22.562160  5857 net.cpp:141] Setting up inception_5b/1x1
I0913 20:31:22.562186  5857 net.cpp:148] Top shape: 10 384 7 7 (188160)
I0913 20:31:22.562196  5857 net.cpp:156] Memory required for data: 543531520
I0913 20:31:22.562213  5857 layer_factory.hpp:77] Creating layer inception_5b/relu_1x1
I0913 20:31:22.562233  5857 net.cpp:91] Creating Layer inception_5b/relu_1x1
I0913 20:31:22.562245  5857 net.cpp:425] inception_5b/relu_1x1 <- inception_5b/1x1
I0913 20:31:22.562258  5857 net.cpp:386] inception_5b/relu_1x1 -> inception_5b/1x1 (in-place)
I0913 20:31:22.562907  5857 net.cpp:141] Setting up inception_5b/relu_1x1
I0913 20:31:22.562927  5857 net.cpp:148] Top shape: 10 384 7 7 (188160)
I0913 20:31:22.562935  5857 net.cpp:156] Memory required for data: 544284160
I0913 20:31:22.562945  5857 layer_factory.hpp:77] Creating layer inception_5b/3x3_reduce
I0913 20:31:22.562970  5857 net.cpp:91] Creating Layer inception_5b/3x3_reduce
I0913 20:31:22.562983  5857 net.cpp:425] inception_5b/3x3_reduce <- inception_5a/output_inception_5a/output_0_split_1
I0913 20:31:22.563005  5857 net.cpp:399] inception_5b/3x3_reduce -> inception_5b/3x3_reduce
I0913 20:31:22.566887  5857 net.cpp:141] Setting up inception_5b/3x3_reduce
I0913 20:31:22.566916  5857 net.cpp:148] Top shape: 10 192 7 7 (94080)
I0913 20:31:22.566926  5857 net.cpp:156] Memory required for data: 544660480
I0913 20:31:22.566941  5857 layer_factory.hpp:77] Creating layer inception_5b/relu_3x3_reduce
I0913 20:31:22.566968  5857 net.cpp:91] Creating Layer inception_5b/relu_3x3_reduce
I0913 20:31:22.566980  5857 net.cpp:425] inception_5b/relu_3x3_reduce <- inception_5b/3x3_reduce
I0913 20:31:22.566994  5857 net.cpp:386] inception_5b/relu_3x3_reduce -> inception_5b/3x3_reduce (in-place)
I0913 20:31:22.567415  5857 net.cpp:141] Setting up inception_5b/relu_3x3_reduce
I0913 20:31:22.567435  5857 net.cpp:148] Top shape: 10 192 7 7 (94080)
I0913 20:31:22.567443  5857 net.cpp:156] Memory required for data: 545036800
I0913 20:31:22.567453  5857 layer_factory.hpp:77] Creating layer inception_5b/3x3
I0913 20:31:22.567481  5857 net.cpp:91] Creating Layer inception_5b/3x3
I0913 20:31:22.567494  5857 net.cpp:425] inception_5b/3x3 <- inception_5b/3x3_reduce
I0913 20:31:22.567512  5857 net.cpp:399] inception_5b/3x3 -> inception_5b/3x3
I0913 20:31:22.575728  5857 net.cpp:141] Setting up inception_5b/3x3
I0913 20:31:22.575752  5857 net.cpp:148] Top shape: 10 384 7 7 (188160)
I0913 20:31:22.575762  5857 net.cpp:156] Memory required for data: 545789440
I0913 20:31:22.575778  5857 layer_factory.hpp:77] Creating layer inception_5b/relu_3x3
I0913 20:31:22.575798  5857 net.cpp:91] Creating Layer inception_5b/relu_3x3
I0913 20:31:22.575810  5857 net.cpp:425] inception_5b/relu_3x3 <- inception_5b/3x3
I0913 20:31:22.575824  5857 net.cpp:386] inception_5b/relu_3x3 -> inception_5b/3x3 (in-place)
I0913 20:31:22.576513  5857 net.cpp:141] Setting up inception_5b/relu_3x3
I0913 20:31:22.576534  5857 net.cpp:148] Top shape: 10 384 7 7 (188160)
I0913 20:31:22.576545  5857 net.cpp:156] Memory required for data: 546542080
I0913 20:31:22.576553  5857 layer_factory.hpp:77] Creating layer inception_5b/5x5_reduce
I0913 20:31:22.576586  5857 net.cpp:91] Creating Layer inception_5b/5x5_reduce
I0913 20:31:22.576601  5857 net.cpp:425] inception_5b/5x5_reduce <- inception_5a/output_inception_5a/output_0_split_2
I0913 20:31:22.576617  5857 net.cpp:399] inception_5b/5x5_reduce -> inception_5b/5x5_reduce
I0913 20:31:22.578606  5857 net.cpp:141] Setting up inception_5b/5x5_reduce
I0913 20:31:22.578626  5857 net.cpp:148] Top shape: 10 48 7 7 (23520)
I0913 20:31:22.578635  5857 net.cpp:156] Memory required for data: 546636160
I0913 20:31:22.578652  5857 layer_factory.hpp:77] Creating layer inception_5b/relu_5x5_reduce
I0913 20:31:22.578668  5857 net.cpp:91] Creating Layer inception_5b/relu_5x5_reduce
I0913 20:31:22.578680  5857 net.cpp:425] inception_5b/relu_5x5_reduce <- inception_5b/5x5_reduce
I0913 20:31:22.578697  5857 net.cpp:386] inception_5b/relu_5x5_reduce -> inception_5b/5x5_reduce (in-place)
I0913 20:31:22.579335  5857 net.cpp:141] Setting up inception_5b/relu_5x5_reduce
I0913 20:31:22.579355  5857 net.cpp:148] Top shape: 10 48 7 7 (23520)
I0913 20:31:22.579365  5857 net.cpp:156] Memory required for data: 546730240
I0913 20:31:22.579373  5857 layer_factory.hpp:77] Creating layer inception_5b/5x5
I0913 20:31:22.579398  5857 net.cpp:91] Creating Layer inception_5b/5x5
I0913 20:31:22.579412  5857 net.cpp:425] inception_5b/5x5 <- inception_5b/5x5_reduce
I0913 20:31:22.579432  5857 net.cpp:399] inception_5b/5x5 -> inception_5b/5x5
I0913 20:31:22.582726  5857 net.cpp:141] Setting up inception_5b/5x5
I0913 20:31:22.582752  5857 net.cpp:148] Top shape: 10 128 7 7 (62720)
I0913 20:31:22.582761  5857 net.cpp:156] Memory required for data: 546981120
I0913 20:31:22.582777  5857 layer_factory.hpp:77] Creating layer inception_5b/relu_5x5
I0913 20:31:22.582792  5857 net.cpp:91] Creating Layer inception_5b/relu_5x5
I0913 20:31:22.582803  5857 net.cpp:425] inception_5b/relu_5x5 <- inception_5b/5x5
I0913 20:31:22.582819  5857 net.cpp:386] inception_5b/relu_5x5 -> inception_5b/5x5 (in-place)
I0913 20:31:22.583231  5857 net.cpp:141] Setting up inception_5b/relu_5x5
I0913 20:31:22.583250  5857 net.cpp:148] Top shape: 10 128 7 7 (62720)
I0913 20:31:22.583259  5857 net.cpp:156] Memory required for data: 547232000
I0913 20:31:22.583268  5857 layer_factory.hpp:77] Creating layer inception_5b/pool
I0913 20:31:22.583289  5857 net.cpp:91] Creating Layer inception_5b/pool
I0913 20:31:22.583302  5857 net.cpp:425] inception_5b/pool <- inception_5a/output_inception_5a/output_0_split_3
I0913 20:31:22.583317  5857 net.cpp:399] inception_5b/pool -> inception_5b/pool
I0913 20:31:22.583457  5857 net.cpp:141] Setting up inception_5b/pool
I0913 20:31:22.583475  5857 net.cpp:148] Top shape: 10 832 7 7 (407680)
I0913 20:31:22.583484  5857 net.cpp:156] Memory required for data: 548862720
I0913 20:31:22.583492  5857 layer_factory.hpp:77] Creating layer inception_5b/pool_proj
I0913 20:31:22.583518  5857 net.cpp:91] Creating Layer inception_5b/pool_proj
I0913 20:31:22.583534  5857 net.cpp:425] inception_5b/pool_proj <- inception_5b/pool
I0913 20:31:22.583557  5857 net.cpp:399] inception_5b/pool_proj -> inception_5b/pool_proj
I0913 20:31:22.587080  5857 net.cpp:141] Setting up inception_5b/pool_proj
I0913 20:31:22.587102  5857 net.cpp:148] Top shape: 10 128 7 7 (62720)
I0913 20:31:22.587111  5857 net.cpp:156] Memory required for data: 549113600
I0913 20:31:22.587128  5857 layer_factory.hpp:77] Creating layer inception_5b/relu_pool_proj
I0913 20:31:22.587148  5857 net.cpp:91] Creating Layer inception_5b/relu_pool_proj
I0913 20:31:22.587162  5857 net.cpp:425] inception_5b/relu_pool_proj <- inception_5b/pool_proj
I0913 20:31:22.587175  5857 net.cpp:386] inception_5b/relu_pool_proj -> inception_5b/pool_proj (in-place)
I0913 20:31:22.587816  5857 net.cpp:141] Setting up inception_5b/relu_pool_proj
I0913 20:31:22.587842  5857 net.cpp:148] Top shape: 10 128 7 7 (62720)
I0913 20:31:22.587852  5857 net.cpp:156] Memory required for data: 549364480
I0913 20:31:22.587862  5857 layer_factory.hpp:77] Creating layer inception_5b/output
I0913 20:31:22.587882  5857 net.cpp:91] Creating Layer inception_5b/output
I0913 20:31:22.587898  5857 net.cpp:425] inception_5b/output <- inception_5b/1x1
I0913 20:31:22.587911  5857 net.cpp:425] inception_5b/output <- inception_5b/3x3
I0913 20:31:22.587923  5857 net.cpp:425] inception_5b/output <- inception_5b/5x5
I0913 20:31:22.587934  5857 net.cpp:425] inception_5b/output <- inception_5b/pool_proj
I0913 20:31:22.587946  5857 net.cpp:399] inception_5b/output -> inception_5b/output
I0913 20:31:22.588026  5857 net.cpp:141] Setting up inception_5b/output
I0913 20:31:22.588042  5857 net.cpp:148] Top shape: 10 1024 7 7 (501760)
I0913 20:31:22.588049  5857 net.cpp:156] Memory required for data: 551371520
I0913 20:31:22.588058  5857 layer_factory.hpp:77] Creating layer pool5/7x7_s1
I0913 20:31:22.588080  5857 net.cpp:91] Creating Layer pool5/7x7_s1
I0913 20:31:22.588091  5857 net.cpp:425] pool5/7x7_s1 <- inception_5b/output
I0913 20:31:22.588122  5857 net.cpp:399] pool5/7x7_s1 -> pool5/7x7_s1
I0913 20:31:22.588655  5857 net.cpp:141] Setting up pool5/7x7_s1
I0913 20:31:22.588675  5857 net.cpp:148] Top shape: 10 1024 1 1 (10240)
I0913 20:31:22.588683  5857 net.cpp:156] Memory required for data: 551412480
I0913 20:31:22.588692  5857 layer_factory.hpp:77] Creating layer pool5/drop_7x7_s1
I0913 20:31:22.588719  5857 net.cpp:91] Creating Layer pool5/drop_7x7_s1
I0913 20:31:22.588732  5857 net.cpp:425] pool5/drop_7x7_s1 <- pool5/7x7_s1
I0913 20:31:22.588747  5857 net.cpp:386] pool5/drop_7x7_s1 -> pool5/7x7_s1 (in-place)
I0913 20:31:22.588824  5857 net.cpp:141] Setting up pool5/drop_7x7_s1
I0913 20:31:22.588841  5857 net.cpp:148] Top shape: 10 1024 1 1 (10240)
I0913 20:31:22.588850  5857 net.cpp:156] Memory required for data: 551453440
I0913 20:31:22.588857  5857 layer_factory.hpp:77] Creating layer loss3/classifier
I0913 20:31:22.588888  5857 net.cpp:91] Creating Layer loss3/classifier
I0913 20:31:22.588901  5857 net.cpp:425] loss3/classifier <- pool5/7x7_s1
I0913 20:31:22.588923  5857 net.cpp:399] loss3/classifier -> loss3/classifier
I0913 20:31:22.599266  5857 net.cpp:141] Setting up loss3/classifier
I0913 20:31:22.599294  5857 net.cpp:148] Top shape: 10 1000 (10000)
I0913 20:31:22.599303  5857 net.cpp:156] Memory required for data: 551493440
I0913 20:31:22.599320  5857 layer_factory.hpp:77] Creating layer prob
I0913 20:31:22.599337  5857 net.cpp:91] Creating Layer prob
I0913 20:31:22.599349  5857 net.cpp:425] prob <- loss3/classifier
I0913 20:31:22.599361  5857 net.cpp:399] prob -> prob
I0913 20:31:22.600179  5857 net.cpp:141] Setting up prob
I0913 20:31:22.600203  5857 net.cpp:148] Top shape: 10 1000 (10000)
I0913 20:31:22.600211  5857 net.cpp:156] Memory required for data: 551533440
I0913 20:31:22.600221  5857 net.cpp:219] prob does not need backward computation.
I0913 20:31:22.600230  5857 net.cpp:219] loss3/classifier does not need backward computation.
I0913 20:31:22.600239  5857 net.cpp:219] pool5/drop_7x7_s1 does not need backward computation.
I0913 20:31:22.600247  5857 net.cpp:219] pool5/7x7_s1 does not need backward computation.
…
