…
Java HotSpot(TM) 64-Bit Server VM warning: You have loaded library /tmp/cvld5104085028170287133/libopencv_java310.xine1.so which might have disabled stack guard. The VM will try to fix the stack guard now.
It's highly recommended that you fix the library with 'execstack -c <libfile>', or link it with '-z noexecstack'.
WARNING: Logging before InitGoogleLogging() is written to STDERR
I0729 17:00:21.602489 19213 net.cpp:49] Initializing net from parameters: 
name: "GoogleNet"
state {
  phase: TEST
}
layer {
  name: "data"
  type: "Input"
  top: "data"
  input_param {
    shape {
      dim: 10
      dim: 3
      dim: 224
      dim: 224
    }
  }
}
layer {
  name: "conv1/7x7_s2"
  type: "Convolution"
  bottom: "data"
  top: "conv1/7x7_s2"
  param {
    lr_mult: 1
    decay_mult: 1
  }
  param {
    lr_mult: 2
    decay_mult: 0
  }
  convolution_param {
    num_output: 64
    pad: 3
    kernel_size: 7
    stride: 2
    weight_filler {
      type: "xavier"
      std: 0.1
    }
    bias_filler {
      type: "constant"
      value: 0.2
    }
  }
}
layer {
  name: "conv1/relu_7x7"
  type: "ReLU"
  bottom: "conv1/7x7_s2"
  top: "conv1/7x7_s2"
}
layer {
  name: "pool1/3x3_s2"
  type: "Pooling"
  bottom: "conv1/7x7_s2"
  top: "pool1/3x3_s2"
  pooling_param {
    pool: MAX
    kernel_size: 3
    stride: 2
  }
}
layer {
  name: "pool1/norm1"
  type: "LRN"
  bottom: "pool1/3x3_s2"
  top: "pool1/norm1"
  lrn_param {
    local_size: 5
    alpha: 0.0001
    beta: 0.75
  }
}
layer {
  name: "conv2/3x3_reduce"
  type: "Convolution"
  bottom: "pool1/norm1"
  top: "conv2/3x3_reduce"
  param {
    lr_mult: 1
    decay_mult: 1
  }
  param {
    lr_mult: 2
    decay_mult: 0
  }
  convolution_param {
    num_output: 64
    kernel_size: 1
    weight_filler {
      type: "xavier"
      std: 0.1
    }
    bias_filler {
      type: "constant"
      value: 0.2
    }
  }
}
layer {
  name: "conv2/relu_3x3_reduce"
  type: "ReLU"
  bottom: "conv2/3x3_reduce"
  top: "conv2/3x3_reduce"
}
layer {
  name: "conv2/3x3"
  type: "Convolution"
  bottom: "conv2/3x3_reduce"
  top: "conv2/3x3"
  param {
    lr_mult: 1
    decay_mult: 1
  }
  param {
    lr_mult: 2
    decay_mult: 0
  }
  convolution_param {
    num_output: 192
    pad: 1
    kernel_size: 3
    weight_filler {
      type: "xavier"
      std: 0.03
    }
    bias_filler {
      type: "constant"
      value: 0.2
    }
  }
}
layer {
  name: "conv2/relu_3x3"
  type: "ReLU"
  bottom: "conv2/3x3"
  top: "conv2/3x3"
}
layer {
  name: "conv2/norm2"
  type: "LRN"
  bottom: "conv2/3x3"
  top: "conv2/norm2"
  lrn_param {
    local_size: 5
    alpha: 0.0001
    beta: 0.75
  }
}
layer {
  name: "pool2/3x3_s2"
  type: "Pooling"
  bottom: "conv2/norm2"
  top: "pool2/3x3_s2"
  pooling_param {
    pool: MAX
    kernel_size: 3
    stride: 2
  }
}
layer {
  name: "inception_3a/1x1"
  type: "Convolution"
  bottom: "pool2/3x3_s2"
  top: "inception_3a/1x1"
  param {
    lr_mult: 1
    decay_mult: 1
  }
  param {
    lr_mult: 2
    decay_mult: 0
  }
  convolution_param {
    num_output: 64
    kernel_size: 1
    weight_filler {
      type: "xavier"
      std: 0.03
    }
    bias_filler {
      type: "constant"
      value: 0.2
    }
  }
}
layer {
  name: "inception_3a/relu_1x1"
  type: "ReLU"
  bottom: "inception_3a/1x1"
  top: "inception_3a/1x1"
}
layer {
  name: "inception_3a/3x3_reduce"
  type: "Convolution"
  bottom: "pool2/3x3_s2"
  top: "inception_3a/3x3_reduce"
  param {
    lr_mult: 1
    decay_mult: 1
  }
  param {
    lr_mult: 2
    decay_mult: 0
  }
  convolution_param {
    num_output: 96
    kernel_size: 1
    weight_filler {
      type: "xavier"
      std: 0.09
    }
    bias_filler {
      type: "constant"
      value: 0.2
    }
  }
}
layer {
  name: "inception_3a/relu_3x3_reduce"
  type: "ReLU"
  bottom: "inception_3a/3x3_reduce"
  top: "inception_3a/3x3_reduce"
}
layer {
  name: "inception_3a/3x3"
  type: "Convolution"
  bottom: "inception_3a/3x3_reduce"
  top: "inception_3a/3x3"
  param {
    lr_mult: 1
    decay_mult: 1
  }
  param {
    lr_mult: 2
    decay_mult: 0
  }
  convolution_param {
    num_output: 128
    pad: 1
    kernel_size: 3
    weight_filler {
      type: "xavier"
      std: 0.03
    }
    bias_filler {
      type: "constant"
      value: 0.2
    }
  }
}
layer {
  name: "inception_3a/relu_3x3"
  type: "ReLU"
  bottom: "inception_3a/3x3"
  top: "inception_3a/3x3"
}
layer {
  name: "inception_3a/5x5_reduce"
  type: "Convolution"
  bottom: "pool2/3x3_s2"
  top: "inception_3a/5x5_reduce"
  param {
    lr_mult: 1
    decay_mult: 1
  }
  param {
    lr_mult: 2
    decay_mult: 0
  }
  convolution_param {
    num_output: 16
    kernel_size: 1
    weight_filler {
      type: "xavier"
      std: 0.2
    }
    bias_filler {
      type: "constant"
      value: 0.2
    }
  }
}
layer {
  name: "inception_3a/relu_5x5_reduce"
  type: "ReLU"
  bottom: "inception_3a/5x5_reduce"
  top: "inception_3a/5x5_reduce"
}
layer {
  name: "inception_3a/5x5"
  type: "Convolution"
  bottom: "inception_3a/5x5_reduce"
  top: "inception_3a/5x5"
  param {
    lr_mult: 1
    decay_mult: 1
  }
  param {
    lr_mult: 2
    decay_mult: 0
  }
  convolution_param {
    num_output: 32
    pad: 2
    kernel_size: 5
    weight_filler {
      type: "xavier"
      std: 0.03
    }
    bias_filler {
      type: "constant"
      value: 0.2
    }
  }
}
layer {
  name: "inception_3a/relu_5x5"
  type: "ReLU"
  bottom: "inception_3a/5x5"
  top: "inception_3a/5x5"
}
layer {
  name: "inception_3a/pool"
  type: "Pooling"
  bottom: "pool2/3x3_s2"
  top: "inception_3a/pool"
  pooling_param {
    pool: MAX
    kernel_size: 3
    stride: 1
    pad: 1
  }
}
layer {
  name: "inception_3a/pool_proj"
  type: "Convolution"
  bottom: "inception_3a/pool"
  top: "inception_3a/pool_proj"
  param {
    lr_mult: 1
    decay_mult: 1
  }
  param {
    lr_mult: 2
    decay_mult: 0
  }
  convolution_param {
    num_output: 32
    kernel_size: 1
    weight_filler {
      type: "xavier"
      std: 0.1
    }
    bias_filler {
      type: "constant"
      value: 0.2
    }
  }
}
layer {
  name: "inception_3a/relu_pool_proj"
  type: "ReLU"
  bottom: "inception_3a/pool_proj"
  top: "inception_3a/pool_proj"
}
layer {
  name: "inception_3a/output"
  type: "Concat"
  bottom: "inception_3a/1x1"
  bottom: "inception_3a/3x3"
  bottom: "inception_3a/5x5"
  bottom: "inception_3a/pool_proj"
  top: "inception_3a/output"
}
layer {
  name: "inception_3b/1x1"
  type: "Convolution"
  bottom: "inception_3a/output"
  top: "inception_3b/1x1"
  param {
    lr_mult: 1
    decay_mult: 1
  }
  param {
    lr_mult: 2
    decay_mult: 0
  }
  convolution_param {
    num_output: 128
    kernel_size: 1
    weight_filler {
      type: "xavier"
      std: 0.03
    }
    bias_filler {
      type: "constant"
      value: 0.2
    }
  }
}
layer {
  name: "inception_3b/relu_1x1"
  type: "ReLU"
  bottom: "inception_3b/1x1"
  top: "inception_3b/1x1"
}
layer {
  name: "inception_3b/3x3_reduce"
  type: "Convolution"
  bottom: "inception_3a/output"
  top: "inception_3b/3x3_reduce"
  param {
    lr_mult: 1
    decay_mult: 1
  }
  param {
    lr_mult: 2
    decay_mult: 0
  }
  convolution_param {
    num_output: 128
    kernel_size: 1
    weight_filler {
      type: "xavier"
      std: 0.09
    }
    bias_filler {
      type: "constant"
      value: 0.2
    }
  }
}
layer {
  name: "inception_3b/relu_3x3_reduce"
  type: "ReLU"
  bottom: "inception_3b/3x3_reduce"
  top: "inception_3b/3x3_reduce"
}
layer {
  name: "inception_3b/3x3"
  type: "Convolution"
  bottom: "inception_3b/3x3_reduce"
  top: "inception_3b/3x3"
  param {
    lr_mult: 1
    decay_mult: 1
  }
  param {
    lr_mult: 2
    decay_mult: 0
  }
  convolution_param {
    num_output: 192
    pad: 1
    kernel_size: 3
    weight_filler {
      type: "xavier"
      std: 0.03
    }
    bias_filler {
      type: "constant"
      value: 0.2
    }
  }
}
layer {
  name: "inception_3b/relu_3x3"
  type: "ReLU"
  bottom: "inception_3b/3x3"
  top: "inception_3b/3x3"
}
layer {
  name: "inception_3b/5x5_reduce"
  type: "Convolution"
  bottom: "inception_3a/output"
  top: "inception_3b/5x5_reduce"
  param {
    lr_mult: 1
    decay_mult: 1
  }
  param {
    lr_mult: 2
    decay_mult: 0
  }
  convolution_param {
    num_output: 32
    kernel_size: 1
    weight_filler {
      type: "xavier"
      std: 0.2
    }
    bias_filler {
      type: "constant"
      value: 0.2
    }
  }
}
layer {
  name: "inception_3b/relu_5x5_reduce"
  type: "ReLU"
  bottom: "inception_3b/5x5_reduce"
  top: "inception_3b/5x5_reduce"
}
layer {
  name: "inception_3b/5x5"
  type: "Convolution"
  bottom: "inception_3b/5x5_reduce"
  top: "inception_3b/5x5"
  param {
    lr_mult: 1
    decay_mult: 1
  }
  param {
    lr_mult: 2
    decay_mult: 0
  }
  convolution_param {
    num_output: 96
    pad: 2
    kernel_size: 5
    weight_filler {
      type: "xavier"
      std: 0.03
    }
    bias_filler {
      type: "constant"
      value: 0.2
    }
  }
}
layer {
  name: "inception_3b/relu_5x5"
  type: "ReLU"
  bottom: "inception_3b/5x5"
  top: "inception_3b/5x5"
}
layer {
  name: "inception_3b/pool"
  type: "Pooling"
  bottom: "inception_3a/output"
  top: "inception_3b/pool"
  pooling_param {
    pool: MAX
    kernel_size: 3
    stride: 1
    pad: 1
  }
}
layer {
  name: "inception_3b/pool_proj"
  type: "Convolution"
  bottom: "inception_3b/pool"
  top: "inception_3b/pool_proj"
  param {
    lr_mult: 1
    decay_mult: 1
  }
  param {
    lr_mult: 2
    decay_mult: 0
  }
  convolution_param {
    num_output: 64
    kernel_size: 1
    weight_filler {
      type: "xavier"
      std: 0.1
    }
    bias_filler {
      type: "constant"
      value: 0.2
    }
  }
}
layer {
  name: "inception_3b/relu_pool_proj"
  type: "ReLU"
  bottom: "inception_3b/pool_proj"
  top: "inception_3b/pool_proj"
}
layer {
  name: "inception_3b/output"
  type: "Concat"
  bottom: "inception_3b/1x1"
  bottom: "inception_3b/3x3"
  bottom: "inception_3b/5x5"
  bottom: "inception_3b/pool_proj"
  top: "inception_3b/output"
}
layer {
  name: "pool3/3x3_s2"
  type: "Pooling"
  bottom: "inception_3b/output"
  top: "pool3/3x3_s2"
  pooling_param {
    pool: MAX
    kernel_size: 3
    stride: 2
  }
}
layer {
  name: "inception_4a/1x1"
  type: "Convolution"
  bottom: "pool3/3x3_s2"
  top: "inception_4a/1x1"
  param {
    lr_mult: 1
    decay_mult: 1
  }
  param {
    lr_mult: 2
    decay_mult: 0
  }
  convolution_param {
    num_output: 192
    kernel_size: 1
    weight_filler {
      type: "xavier"
      std: 0.03
    }
    bias_filler {
      type: "constant"
      value: 0.2
    }
  }
}
layer {
  name: "inception_4a/relu_1x1"
  type: "ReLU"
  bottom: "inception_4a/1x1"
  top: "inception_4a/1x1"
}
layer {
  name: "inception_4a/3x3_reduce"
  type: "Convolution"
  bottom: "pool3/3x3_s2"
  top: "inception_4a/3x3_reduce"
  param {
    lr_mult: 1
    decay_mult: 1
  }
  param {
    lr_mult: 2
    decay_mult: 0
  }
  convolution_param {
    num_output: 96
    kernel_size: 1
    weight_filler {
      type: "xavier"
      std: 0.09
    }
    bias_filler {
      type: "constant"
      value: 0.2
    }
  }
}
layer {
  name: "inception_4a/relu_3x3_reduce"
  type: "ReLU"
  bottom: "inception_4a/3x3_reduce"
  top: "inception_4a/3x3_reduce"
}
layer {
  name: "inception_4a/3x3"
  type: "Convolution"
  bottom: "inception_4a/3x3_reduce"
  top: "inception_4a/3x3"
  param {
    lr_mult: 1
    decay_mult: 1
  }
  param {
    lr_mult: 2
    decay_mult: 0
  }
  convolution_param {
    num_output: 208
    pad: 1
    kernel_size: 3
    weight_filler {
      type: "xavier"
      std: 0.03
    }
    bias_filler {
      type: "constant"
      value: 0.2
    }
  }
}
layer {
  name: "inception_4a/relu_3x3"
  type: "ReLU"
  bottom: "inception_4a/3x3"
  top: "inception_4a/3x3"
}
layer {
  name: "inception_4a/5x5_reduce"
  type: "Convolution"
  bottom: "pool3/3x3_s2"
  top: "inception_4a/5x5_reduce"
  param {
    lr_mult: 1
    decay_mult: 1
  }
  param {
    lr_mult: 2
    decay_mult: 0
  }
  convolution_param {
    num_output: 16
    kernel_size: 1
    weight_filler {
      type: "xavier"
      std: 0.2
    }
    bias_filler {
      type: "constant"
      value: 0.2
    }
  }
}
layer {
  name: "inception_4a/relu_5x5_reduce"
  type: "ReLU"
  bottom: "inception_4a/5x5_reduce"
  top: "inception_4a/5x5_reduce"
}
layer {
  name: "inception_4a/5x5"
  type: "Convolution"
  bottom: "inception_4a/5x5_reduce"
  top: "inception_4a/5x5"
  param {
    lr_mult: 1
    decay_mult: 1
  }
  param {
    lr_mult: 2
    decay_mult: 0
  }
  convolution_param {
    num_output: 48
    pad: 2
    kernel_size: 5
    weight_filler {
      type: "xavier"
      std: 0.03
    }
    bias_filler {
      type: "constant"
      value: 0.2
    }
  }
}
layer {
  name: "inception_4a/relu_5x5"
  type: "ReLU"
  bottom: "inception_4a/5x5"
  top: "inception_4a/5x5"
}
layer {
  name: "inception_4a/pool"
  type: "Pooling"
  bottom: "pool3/3x3_s2"
  top: "inception_4a/pool"
  pooling_param {
    pool: MAX
    kernel_size: 3
    stride: 1
    pad: 1
  }
}
layer {
  name: "inception_4a/pool_proj"
  type: "Convolution"
  bottom: "inception_4a/pool"
  top: "inception_4a/pool_proj"
  param {
    lr_mult: 1
    decay_mult: 1
  }
  param {
    lr_mult: 2
    decay_mult: 0
  }
  convolution_param {
    num_output: 64
    kernel_size: 1
    weight_filler {
      type: "xavier"
      std: 0.1
    }
    bias_filler {
      type: "constant"
      value: 0.2
    }
  }
}
layer {
  name: "inception_4a/relu_pool_proj"
  type: "ReLU"
  bottom: "inception_4a/pool_proj"
  top: "inception_4a/pool_proj"
}
layer {
  name: "inception_4a/output"
  type: "Concat"
  bottom: "inception_4a/1x1"
  bottom: "inception_4a/3x3"
  bottom: "inception_4a/5x5"
  bottom: "inception_4a/pool_proj"
  top: "inception_4a/output"
}
layer {
  name: "inception_4b/1x1"
  type: "Convolution"
  bottom: "inception_4a/output"
  top: "inception_4b/1x1"
  param {
    lr_mult: 1
    decay_mult: 1
  }
  param {
    lr_mult: 2
    decay_mult: 0
  }
  convolution_param {
    num_output: 160
    kernel_size: 1
    weight_filler {
      type: "xavier"
      std: 0.03
    }
    bias_filler {
      type: "constant"
      value: 0.2
    }
  }
}
layer {
  name: "inception_4b/relu_1x1"
  type: "ReLU"
  bottom: "inception_4b/1x1"
  top: "inception_4b/1x1"
}
layer {
  name: "inception_4b/3x3_reduce"
  type: "Convolution"
  bottom: "inception_4a/output"
  top: "inception_4b/3x3_reduce"
  param {
    lr_mult: 1
    decay_mult: 1
  }
  param {
    lr_mult: 2
    decay_mult: 0
  }
  convolution_param {
    num_output: 112
    kernel_size: 1
    weight_filler {
      type: "xavier"
      std: 0.09
    }
    bias_filler {
      type: "constant"
      value: 0.2
    }
  }
}
layer {
  name: "inception_4b/relu_3x3_reduce"
  type: "ReLU"
  bottom: "inception_4b/3x3_reduce"
  top: "inception_4b/3x3_reduce"
}
layer {
  name: "inception_4b/3x3"
  type: "Convolution"
  bottom: "inception_4b/3x3_reduce"
  top: "inception_4b/3x3"
  param {
    lr_mult: 1
    decay_mult: 1
  }
  param {
    lr_mult: 2
    decay_mult: 0
  }
  convolution_param {
    num_output: 224
    pad: 1
    kernel_size: 3
    weight_filler {
      type: "xavier"
      std: 0.03
    }
    bias_filler {
      type: "constant"
      value: 0.2
    }
  }
}
layer {
  name: "inception_4b/relu_3x3"
  type: "ReLU"
  bottom: "inception_4b/3x3"
  top: "inception_4b/3x3"
}
layer {
  name: "inception_4b/5x5_reduce"
  type: "Convolution"
  bottom: "inception_4a/output"
  top: "inception_4b/5x5_reduce"
  param {
    lr_mult: 1
    decay_mult: 1
  }
  param {
    lr_mult: 2
    decay_mult: 0
  }
  convolution_param {
    num_output: 24
    kernel_size: 1
    weight_filler {
      type: "xavier"
      std: 0.2
    }
    bias_filler {
      type: "constant"
      value: 0.2
    }
  }
}
layer {
  name: "inception_4b/relu_5x5_reduce"
  type: "ReLU"
  bottom: "inception_4b/5x5_reduce"
  top: "inception_4b/5x5_reduce"
}
layer {
  name: "inception_4b/5x5"
  type: "Convolution"
  bottom: "inception_4b/5x5_reduce"
  top: "inception_4b/5x5"
  param {
    lr_mult: 1
    decay_mult: 1
  }
  param {
    lr_mult: 2
    decay_mult: 0
  }
  convolution_param {
    num_output: 64
    pad: 2
    kernel_size: 5
    weight_filler {
      type: "xavier"
      std: 0.03
    }
    bias_filler {
      type: "constant"
      value: 0.2
    }
  }
}
layer {
  name: "inception_4b/relu_5x5"
  type: "ReLU"
  bottom: "inception_4b/5x5"
  top: "inception_4b/5x5"
}
layer {
  name: "inception_4b/pool"
  type: "Pooling"
  bottom: "inception_4a/output"
  top: "inception_4b/pool"
  pooling_param {
    pool: MAX
    kernel_size: 3
    stride: 1
    pad: 1
  }
}
layer {
  name: "inception_4b/pool_proj"
  type: "Convolution"
  bottom: "inception_4b/pool"
  top: "inception_4b/pool_proj"
  param {
    lr_mult: 1
    decay_mult: 1
  }
  param {
    lr_mult: 2
    decay_mult: 0
  }
  convolution_param {
    num_output: 64
    kernel_size: 1
    weight_filler {
      type: "xavier"
      std: 0.1
    }
    bias_filler {
      type: "constant"
      value: 0.2
    }
  }
}
layer {
  name: "inception_4b/relu_pool_proj"
  type: "ReLU"
  bottom: "inception_4b/pool_proj"
  top: "inception_4b/pool_proj"
}
layer {
  name: "inception_4b/output"
  type: "Concat"
  bottom: "inception_4b/1x1"
  bottom: "inception_4b/3x3"
  bottom: "inception_4b/5x5"
  bottom: "inception_4b/pool_proj"
  top: "inception_4b/output"
}
layer {
  name: "inception_4c/1x1"
  type: "Convolution"
  bottom: "inception_4b/output"
  top: "inception_4c/1x1"
  param {
    lr_mult: 1
    decay_mult: 1
  }
  param {
    lr_mult: 2
    decay_mult: 0
  }
  convolution_param {
    num_output: 128
    kernel_size: 1
    weight_filler {
      type: "xavier"
      std: 0.03
    }
    bias_filler {
      type: "constant"
      value: 0.2
    }
  }
}
layer {
  name: "inception_4c/relu_1x1"
  type: "ReLU"
  bottom: "inception_4c/1x1"
  top: "inception_4c/1x1"
}
layer {
  name: "inception_4c/3x3_reduce"
  type: "Convolution"
  bottom: "inception_4b/output"
  top: "inception_4c/3x3_reduce"
  param {
    lr_mult: 1
    decay_mult: 1
  }
  param {
    lr_mult: 2
    decay_mult: 0
  }
  convolution_param {
    num_output: 128
    kernel_size: 1
    weight_filler {
      type: "xavier"
      std: 0.09
    }
    bias_filler {
      type: "constant"
      value: 0.2
    }
  }
}
layer {
  name: "inception_4c/relu_3x3_reduce"
  type: "ReLU"
  bottom: "inception_4c/3x3_reduce"
  top: "inception_4c/3x3_reduce"
}
layer {
  name: "inception_4c/3x3"
  type: "Convolution"
  bottom: "inception_4c/3x3_reduce"
  top: "inception_4c/3x3"
  param {
    lr_mult: 1
    decay_mult: 1
  }
  param {
    lr_mult: 2
    decay_mult: 0
  }
  convolution_param {
    num_output: 256
    pad: 1
    kernel_size: 3
    weight_filler {
      type: "xavier"
      std: 0.03
    }
    bias_filler {
      type: "constant"
      value: 0.2
    }
  }
}
layer {
  name: "inception_4c/relu_3x3"
  type: "ReLU"
  bottom: "inception_4c/3x3"
  top: "inception_4c/3x3"
}
layer {
  name: "inception_4c/5x5_reduce"
  type: "Convolution"
  bottom: "inception_4b/output"
  top: "inception_4c/5x5_reduce"
  param {
    lr_mult: 1
    decay_mult: 1
  }
  param {
    lr_mult: 2
    decay_mult: 0
  }
  convolution_param {
    num_output: 24
    kernel_size: 1
    weight_filler {
      type: "xavier"
      std: 0.2
    }
    bias_filler {
      type: "constant"
      value: 0.2
    }
  }
}
layer {
  name: "inception_4c/relu_5x5_reduce"
  type: "ReLU"
  bottom: "inception_4c/5x5_reduce"
  top: "inception_4c/5x5_reduce"
}
layer {
  name: "inception_4c/5x5"
  type: "Convolution"
  bottom: "inception_4c/5x5_reduce"
  top: "inception_4c/5x5"
  param {
    lr_mult: 1
    decay_mult: 1
  }
  param {
    lr_mult: 2
    decay_mult: 0
  }
  convolution_param {
    num_output: 64
    pad: 2
    kernel_size: 5
    weight_filler {
      type: "xavier"
      std: 0.03
    }
    bias_filler {
      type: "constant"
      value: 0.2
    }
  }
}
layer {
  name: "inception_4c/relu_5x5"
  type: "ReLU"
  bottom: "inception_4c/5x5"
  top: "inception_4c/5x5"
}
layer {
  name: "inception_4c/pool"
  type: "Pooling"
  bottom: "inception_4b/output"
  top: "inception_4c/pool"
  pooling_param {
    pool: MAX
    kernel_size: 3
    stride: 1
    pad: 1
  }
}
layer {
  name: "inception_4c/pool_proj"
  type: "Convolution"
  bottom: "inception_4c/pool"
  top: "inception_4c/pool_proj"
  param {
    lr_mult: 1
    decay_mult: 1
  }
  param {
    lr_mult: 2
    decay_mult: 0
  }
  convolution_param {
    num_output: 64
    kernel_size: 1
    weight_filler {
      type: "xavier"
      std: 0.1
    }
    bias_filler {
      type: "constant"
      value: 0.2
    }
  }
}
layer {
  name: "inception_4c/relu_pool_proj"
  type: "ReLU"
  bottom: "inception_4c/pool_proj"
  top: "inception_4c/pool_proj"
}
layer {
  name: "inception_4c/output"
  type: "Concat"
  bottom: "inception_4c/1x1"
  bottom: "inception_4c/3x3"
  bottom: "inception_4c/5x5"
  bottom: "inception_4c/pool_proj"
  top: "inception_4c/output"
}
layer {
  name: "inception_4d/1x1"
  type: "Convolution"
  bottom: "inception_4c/output"
  top: "inception_4d/1x1"
  param {
    lr_mult: 1
    decay_mult: 1
  }
  param {
    lr_mult: 2
    decay_mult: 0
  }
  convolution_param {
    num_output: 112
    kernel_size: 1
    weight_filler {
      type: "xavier"
      std: 0.03
    }
    bias_filler {
      type: "constant"
      value: 0.2
    }
  }
}
layer {
  name: "inception_4d/relu_1x1"
  type: "ReLU"
  bottom: "inception_4d/1x1"
  top: "inception_4d/1x1"
}
layer {
  name: "inception_4d/3x3_reduce"
  type: "Convolution"
  bottom: "inception_4c/output"
  top: "inception_4d/3x3_reduce"
  param {
    lr_mult: 1
    decay_mult: 1
  }
  param {
    lr_mult: 2
    decay_mult: 0
  }
  convolution_param {
    num_output: 144
    kernel_size: 1
    weight_filler {
      type: "xavier"
      std: 0.09
    }
    bias_filler {
      type: "constant"
      value: 0.2
    }
  }
}
layer {
  name: "inception_4d/relu_3x3_reduce"
  type: "ReLU"
  bottom: "inception_4d/3x3_reduce"
  top: "inception_4d/3x3_reduce"
}
layer {
  name: "inception_4d/3x3"
  type: "Convolution"
  bottom: "inception_4d/3x3_reduce"
  top: "inception_4d/3x3"
  param {
    lr_mult: 1
    decay_mult: 1
  }
  param {
    lr_mult: 2
    decay_mult: 0
  }
  convolution_param {
    num_output: 288
    pad: 1
    kernel_size: 3
    weight_filler {
      type: "xavier"
      std: 0.03
    }
    bias_filler {
      type: "constant"
      value: 0.2
    }
  }
}
layer {
  name: "inception_4d/relu_3x3"
  type: "ReLU"
  bottom: "inception_4d/3x3"
  top: "inception_4d/3x3"
}
layer {
  name: "inception_4d/5x5_reduce"
  type: "Convolution"
  bottom: "inception_4c/output"
  top: "inception_4d/5x5_reduce"
  param {
    lr_mult: 1
    decay_mult: 1
  }
  param {
    lr_mult: 2
    decay_mult: 0
  }
  convolution_param {
    num_output: 32
    kernel_size: 1
    weight_filler {
      type: "xavier"
      std: 0.2
    }
    bias_filler {
      type: "constant"
      value: 0.2
    }
  }
}
layer {
  name: "inception_4d/relu_5x5_reduce"
  type: "ReLU"
  bottom: "inception_4d/5x5_reduce"
  top: "inception_4d/5x5_reduce"
}
layer {
  name: "inception_4d/5x5"
  type: "Convolution"
  bottom: "inception_4d/5x5_reduce"
  top: "inception_4d/5x5"
  param {
    lr_mult: 1
    decay_mult: 1
  }
  param {
    lr_mult: 2
    decay_mult: 0
  }
  convolution_param {
    num_output: 64
    pad: 2
    kernel_size: 5
    weight_filler {
      type: "xavier"
      std: 0.03
    }
    bias_filler {
      type: "constant"
      value: 0.2
    }
  }
}
layer {
  name: "inception_4d/relu_5x5"
  type: "ReLU"
  bottom: "inception_4d/5x5"
  top: "inception_4d/5x5"
}
layer {
  name: "inception_4d/pool"
  type: "Pooling"
  bottom: "inception_4c/output"
  top: "inception_4d/pool"
  pooling_param {
    pool: MAX
    kernel_size: 3
    stride: 1
    pad: 1
  }
}
layer {
  name: "inception_4d/pool_proj"
  type: "Convolution"
  bottom: "inception_4d/pool"
  top: "inception_4d/pool_proj"
  param {
    lr_mult: 1
    decay_mult: 1
  }
  param {
    lr_mult: 2
    decay_mult: 0
  }
  convolution_param {
    num_output: 64
    kernel_size: 1
    weight_filler {
      type: "xavier"
      std: 0.1
    }
    bias_filler {
      type: "constant"
      value: 0.2
    }
  }
}
layer {
  name: "inception_4d/relu_pool_proj"
  type: "ReLU"
  bottom: "inception_4d/pool_proj"
  top: "inception_4d/pool_proj"
}
layer {
  name: "inception_4d/output"
  type: "Concat"
  bottom: "inception_4d/1x1"
  bottom: "inception_4d/3x3"
  bottom: "inception_4d/5x5"
  bottom: "inception_4d/pool_proj"
  top: "inception_4d/output"
}
layer {
  name: "inception_4e/1x1"
  type: "Convolution"
  bottom: "inception_4d/output"
  top: "inception_4e/1x1"
  param {
    lr_mult: 1
    decay_mult: 1
  }
  param {
    lr_mult: 2
    decay_mult: 0
  }
  convolution_param {
    num_output: 256
    kernel_size: 1
    weight_filler {
      type: "xavier"
      std: 0.03
    }
    bias_filler {
      type: "constant"
      value: 0.2
    }
  }
}
layer {
  name: "inception_4e/relu_1x1"
  type: "ReLU"
  bottom: "inception_4e/1x1"
  top: "inception_4e/1x1"
}
layer {
  name: "inception_4e/3x3_reduce"
  type: "Convolution"
  bottom: "inception_4d/output"
  top: "inception_4e/3x3_reduce"
  param {
    lr_mult: 1
    decay_mult: 1
  }
  param {
    lr_mult: 2
    decay_mult: 0
  }
  convolution_param {
    num_output: 160
    kernel_size: 1
    weight_filler {
      type: "xavier"
      std: 0.09
    }
    bias_filler {
      type: "constant"
      value: 0.2
    }
  }
}
layer {
  name: "inception_4e/relu_3x3_reduce"
  type: "ReLU"
  bottom: "inception_4e/3x3_reduce"
  top: "inception_4e/3x3_reduce"
}
layer {
  name: "inception_4e/3x3"
  type: "Convolution"
  bottom: "inception_4e/3x3_reduce"
  top: "inception_4e/3x3"
  param {
    lr_mult: 1
    decay_mult: 1
  }
  param {
    lr_mult: 2
    decay_mult: 0
  }
  convolution_param {
    num_output: 320
    pad: 1
    kernel_size: 3
    weight_filler {
      type: "xavier"
      std: 0.03
    }
    bias_filler {
      type: "constant"
      value: 0.2
    }
  }
}
layer {
  name: "inception_4e/relu_3x3"
  type: "ReLU"
  bottom: "inception_4e/3x3"
  top: "inception_4e/3x3"
}
layer {
  name: "inception_4e/5x5_reduce"
  type: "Convolution"
  bottom: "inception_4d/output"
  top: "inception_4e/5x5_reduce"
  param {
    lr_mult: 1
    decay_mult: 1
  }
  param {
    lr_mult: 2
    decay_mult: 0
  }
  convolution_param {
    num_output: 32
    kernel_size: 1
    weight_filler {
      type: "xavier"
      std: 0.2
    }
    bias_filler {
      type: "constant"
      value: 0.2
    }
  }
}
layer {
  name: "inception_4e/relu_5x5_reduce"
  type: "ReLU"
  bottom: "inception_4e/5x5_reduce"
  top: "inception_4e/5x5_reduce"
}
layer {
  name: "inception_4e/5x5"
  type: "Convolution"
  bottom: "inception_4e/5x5_reduce"
  top: "inception_4e/5x5"
  param {
    lr_mult: 1
    decay_mult: 1
  }
  param {
    lr_mult: 2
    decay_mult: 0
  }
  convolution_param {
    num_output: 128
    pad: 2
    kernel_size: 5
    weight_filler {
      type: "xavier"
      std: 0.03
    }
    bias_filler {
      type: "constant"
      value: 0.2
    }
  }
}
layer {
  name: "inception_4e/relu_5x5"
  type: "ReLU"
  bottom: "inception_4e/5x5"
  top: "inception_4e/5x5"
}
layer {
  name: "inception_4e/pool"
  type: "Pooling"
  bottom: "inception_4d/output"
  top: "inception_4e/pool"
  pooling_param {
    pool: MAX
    kernel_size: 3
    stride: 1
    pad: 1
  }
}
layer {
  name: "inception_4e/pool_proj"
  type: "Convolution"
  bottom: "inception_4e/pool"
  top: "inception_4e/pool_proj"
  param {
    lr_mult: 1
    decay_mult: 1
  }
  param {
    lr_mult: 2
    decay_mult: 0
  }
  convolution_param {
    num_output: 128
    kernel_size: 1
    weight_filler {
      type: "xavier"
      std: 0.1
    }
    bias_filler {
      type: "constant"
      value: 0.2
    }
  }
}
layer {
  name: "inception_4e/relu_pool_proj"
  type: "ReLU"
  bottom: "inception_4e/pool_proj"
  top: "inception_4e/pool_proj"
}
layer {
  name: "inception_4e/output"
  type: "Concat"
  bottom: "inception_4e/1x1"
  bottom: "inception_4e/3x3"
  bottom: "inception_4e/5x5"
  bottom: "inception_4e/pool_proj"
  top: "inception_4e/output"
}
layer {
  name: "pool4/3x3_s2"
  type: "Pooling"
  bottom: "inception_4e/output"
  top: "pool4/3x3_s2"
  pooling_param {
    pool: MAX
    kernel_size: 3
    stride: 2
  }
}
layer {
  name: "inception_5a/1x1"
  type: "Convolution"
  bottom: "pool4/3x3_s2"
  top: "inception_5a/1x1"
  param {
    lr_mult: 1
    decay_mult: 1
  }
  param {
    lr_mult: 2
    decay_mult: 0
  }
  convolution_param {
    num_output: 256
    kernel_size: 1
    weight_filler {
      type: "xavier"
      std: 0.03
    }
    bias_filler {
      type: "constant"
      value: 0.2
    }
  }
}
layer {
  name: "inception_5a/relu_1x1"
  type: "ReLU"
  bottom: "inception_5a/1x1"
  top: "inception_5a/1x1"
}
layer {
  name: "inception_5a/3x3_reduce"
  type: "Convolution"
  bottom: "pool4/3x3_s2"
  top: "inception_5a/3x3_reduce"
  param {
    lr_mult: 1
    decay_mult: 1
  }
  param {
    lr_mult: 2
    decay_mult: 0
  }
  convolution_param {
    num_output: 160
    kernel_size: 1
    weight_filler {
      type: "xavier"
      std: 0.09
    }
    bias_filler {
      type: "constant"
      value: 0.2
    }
  }
}
layer {
  name: "inception_5a/relu_3x3_reduce"
  type: "ReLU"
  bottom: "inception_5a/3x3_reduce"
  top: "inception_5a/3x3_reduce"
}
layer {
  name: "inception_5a/3x3"
  type: "Convolution"
  bottom: "inception_5a/3x3_reduce"
  top: "inception_5a/3x3"
  param {
    lr_mult: 1
    decay_mult: 1
  }
  param {
    lr_mult: 2
    decay_mult: 0
  }
  convolution_param {
    num_output: 320
    pad: 1
    kernel_size: 3
    weight_filler {
      type: "xavier"
      std: 0.03
    }
    bias_filler {
      type: "constant"
      value: 0.2
    }
  }
}
layer {
  name: "inception_5a/relu_3x3"
  type: "ReLU"
  bottom: "inception_5a/3x3"
  top: "inception_5a/3x3"
}
layer {
  name: "inception_5a/5x5_reduce"
  type: "Convolution"
  bottom: "pool4/3x3_s2"
  top: "inception_5a/5x5_reduce"
  param {
    lr_mult: 1
    decay_mult: 1
  }
  param {
    lr_mult: 2
    decay_mult: 0
  }
  convolution_param {
    num_output: 32
    kernel_size: 1
    weight_filler {
      type: "xavier"
      std: 0.2
    }
    bias_filler {
      type: "constant"
      value: 0.2
    }
I0729 17:00:21.603775 19213 layer_factory.hpp:77] Creating layer data
I0729 17:00:21.603812 19213 net.cpp:91] Creating Layer data
I0729 17:00:21.603829 19213 net.cpp:399] data -> data
I0729 17:00:22.126826 19213 net.cpp:141] Setting up data
I0729 17:00:22.126885 19213 net.cpp:148] Top shape: 10 3 224 224 (1505280)
I0729 17:00:22.126891 19213 net.cpp:156] Memory required for data: 6021120
I0729 17:00:22.126914 19213 layer_factory.hpp:77] Creating layer conv1/7x7_s2
I0729 17:00:22.126955 19213 net.cpp:91] Creating Layer conv1/7x7_s2
I0729 17:00:22.126965 19213 net.cpp:425] conv1/7x7_s2 <- data
I0729 17:00:22.126979 19213 net.cpp:399] conv1/7x7_s2 -> conv1/7x7_s2
I0729 17:00:22.341341 19213 net.cpp:141] Setting up conv1/7x7_s2
I0729 17:00:22.341384 19213 net.cpp:148] Top shape: 10 64 112 112 (8028160)
I0729 17:00:22.341390 19213 net.cpp:156] Memory required for data: 38133760
I0729 17:00:22.341418 19213 layer_factory.hpp:77] Creating layer conv1/relu_7x7
I0729 17:00:22.341439 19213 net.cpp:91] Creating Layer conv1/relu_7x7
I0729 17:00:22.341444 19213 net.cpp:425] conv1/relu_7x7 <- conv1/7x7_s2
I0729 17:00:22.341451 19213 net.cpp:386] conv1/relu_7x7 -> conv1/7x7_s2 (in-place)
I0729 17:00:22.342118 19213 net.cpp:141] Setting up conv1/relu_7x7
I0729 17:00:22.342131 19213 net.cpp:148] Top shape: 10 64 112 112 (8028160)
I0729 17:00:22.342135 19213 net.cpp:156] Memory required for data: 70246400
I0729 17:00:22.342140 19213 layer_factory.hpp:77] Creating layer pool1/3x3_s2
I0729 17:00:22.342152 19213 net.cpp:91] Creating Layer pool1/3x3_s2
I0729 17:00:22.342157 19213 net.cpp:425] pool1/3x3_s2 <- conv1/7x7_s2
I0729 17:00:22.342166 19213 net.cpp:399] pool1/3x3_s2 -> pool1/3x3_s2
I0729 17:00:22.342262 19213 net.cpp:141] Setting up pool1/3x3_s2
I0729 17:00:22.342272 19213 net.cpp:148] Top shape: 10 64 56 56 (2007040)
I0729 17:00:22.342277 19213 net.cpp:156] Memory required for data: 78274560
I0729 17:00:22.342281 19213 layer_factory.hpp:77] Creating layer pool1/norm1
I0729 17:00:22.342298 19213 net.cpp:91] Creating Layer pool1/norm1
I0729 17:00:22.342303 19213 net.cpp:425] pool1/norm1 <- pool1/3x3_s2
I0729 17:00:22.342313 19213 net.cpp:399] pool1/norm1 -> pool1/norm1
I0729 17:00:22.343032 19213 net.cpp:141] Setting up pool1/norm1
I0729 17:00:22.343047 19213 net.cpp:148] Top shape: 10 64 56 56 (2007040)
I0729 17:00:22.343052 19213 net.cpp:156] Memory required for data: 86302720
I0729 17:00:22.343057 19213 layer_factory.hpp:77] Creating layer conv2/3x3_reduce
I0729 17:00:22.343080 19213 net.cpp:91] Creating Layer conv2/3x3_reduce
I0729 17:00:22.343085 19213 net.cpp:425] conv2/3x3_reduce <- pool1/norm1
I0729 17:00:22.343091 19213 net.cpp:399] conv2/3x3_reduce -> conv2/3x3_reduce
I0729 17:00:22.346350 19213 net.cpp:141] Setting up conv2/3x3_reduce
I0729 17:00:22.346366 19213 net.cpp:148] Top shape: 10 64 56 56 (2007040)
I0729 17:00:22.346371 19213 net.cpp:156] Memory required for data: 94330880
I0729 17:00:22.346387 19213 layer_factory.hpp:77] Creating layer conv2/relu_3x3_reduce
I0729 17:00:22.346396 19213 net.cpp:91] Creating Layer conv2/relu_3x3_reduce
I0729 17:00:22.346401 19213 net.cpp:425] conv2/relu_3x3_reduce <- conv2/3x3_reduce
I0729 17:00:22.346410 19213 net.cpp:386] conv2/relu_3x3_reduce -> conv2/3x3_reduce (in-place)
I0729 17:00:22.347100 19213 net.cpp:141] Setting up conv2/relu_3x3_reduce
I0729 17:00:22.347113 19213 net.cpp:148] Top shape: 10 64 56 56 (2007040)
I0729 17:00:22.347117 19213 net.cpp:156] Memory required for data: 102359040
I0729 17:00:22.347123 19213 layer_factory.hpp:77] Creating layer conv2/3x3
I0729 17:00:22.347136 19213 net.cpp:91] Creating Layer conv2/3x3
I0729 17:00:22.347141 19213 net.cpp:425] conv2/3x3 <- conv2/3x3_reduce
I0729 17:00:22.347152 19213 net.cpp:399] conv2/3x3 -> conv2/3x3
I0729 17:00:22.351820 19213 net.cpp:141] Setting up conv2/3x3
I0729 17:00:22.351836 19213 net.cpp:148] Top shape: 10 192 56 56 (6021120)
I0729 17:00:22.351841 19213 net.cpp:156] Memory required for data: 126443520
I0729 17:00:22.351855 19213 layer_factory.hpp:77] Creating layer conv2/relu_3x3
I0729 17:00:22.351864 19213 net.cpp:91] Creating Layer conv2/relu_3x3
I0729 17:00:22.351869 19213 net.cpp:425] conv2/relu_3x3 <- conv2/3x3
I0729 17:00:22.351876 19213 net.cpp:386] conv2/relu_3x3 -> conv2/3x3 (in-place)
I0729 17:00:22.352094 19213 net.cpp:141] Setting up conv2/relu_3x3
I0729 17:00:22.352105 19213 net.cpp:148] Top shape: 10 192 56 56 (6021120)
I0729 17:00:22.352109 19213 net.cpp:156] Memory required for data: 150528000
I0729 17:00:22.352114 19213 layer_factory.hpp:77] Creating layer conv2/norm2
I0729 17:00:22.352125 19213 net.cpp:91] Creating Layer conv2/norm2
I0729 17:00:22.352130 19213 net.cpp:425] conv2/norm2 <- conv2/3x3
I0729 17:00:22.352136 19213 net.cpp:399] conv2/norm2 -> conv2/norm2
I0729 17:00:22.352855 19213 net.cpp:141] Setting up conv2/norm2
I0729 17:00:22.352869 19213 net.cpp:148] Top shape: 10 192 56 56 (6021120)
I0729 17:00:22.352872 19213 net.cpp:156] Memory required for data: 174612480
I0729 17:00:22.352877 19213 layer_factory.hpp:77] Creating layer pool2/3x3_s2
I0729 17:00:22.352886 19213 net.cpp:91] Creating Layer pool2/3x3_s2
I0729 17:00:22.352891 19213 net.cpp:425] pool2/3x3_s2 <- conv2/norm2
I0729 17:00:22.352900 19213 net.cpp:399] pool2/3x3_s2 -> pool2/3x3_s2
I0729 17:00:22.352963 19213 net.cpp:141] Setting up pool2/3x3_s2
I0729 17:00:22.352972 19213 net.cpp:148] Top shape: 10 192 28 28 (1505280)
I0729 17:00:22.352977 19213 net.cpp:156] Memory required for data: 180633600
I0729 17:00:22.352980 19213 layer_factory.hpp:77] Creating layer pool2/3x3_s2_pool2/3x3_s2_0_split
I0729 17:00:22.352990 19213 net.cpp:91] Creating Layer pool2/3x3_s2_pool2/3x3_s2_0_split
I0729 17:00:22.352995 19213 net.cpp:425] pool2/3x3_s2_pool2/3x3_s2_0_split <- pool2/3x3_s2
I0729 17:00:22.353003 19213 net.cpp:399] pool2/3x3_s2_pool2/3x3_s2_0_split -> pool2/3x3_s2_pool2/3x3_s2_0_split_0
I0729 17:00:22.353011 19213 net.cpp:399] pool2/3x3_s2_pool2/3x3_s2_0_split -> pool2/3x3_s2_pool2/3x3_s2_0_split_1
I0729 17:00:22.353019 19213 net.cpp:399] pool2/3x3_s2_pool2/3x3_s2_0_split -> pool2/3x3_s2_pool2/3x3_s2_0_split_2
I0729 17:00:22.353025 19213 net.cpp:399] pool2/3x3_s2_pool2/3x3_s2_0_split -> pool2/3x3_s2_pool2/3x3_s2_0_split_3
I0729 17:00:22.353124 19213 net.cpp:141] Setting up pool2/3x3_s2_pool2/3x3_s2_0_split
I0729 17:00:22.353133 19213 net.cpp:148] Top shape: 10 192 28 28 (1505280)
I0729 17:00:22.353138 19213 net.cpp:148] Top shape: 10 192 28 28 (1505280)
I0729 17:00:22.353143 19213 net.cpp:148] Top shape: 10 192 28 28 (1505280)
I0729 17:00:22.353148 19213 net.cpp:148] Top shape: 10 192 28 28 (1505280)
I0729 17:00:22.353152 19213 net.cpp:156] Memory required for data: 204718080
I0729 17:00:22.353157 19213 layer_factory.hpp:77] Creating layer inception_3a/1x1
I0729 17:00:22.353170 19213 net.cpp:91] Creating Layer inception_3a/1x1
I0729 17:00:22.353176 19213 net.cpp:425] inception_3a/1x1 <- pool2/3x3_s2_pool2/3x3_s2_0_split_0
I0729 17:00:22.353195 19213 net.cpp:399] inception_3a/1x1 -> inception_3a/1x1
I0729 17:00:22.357192 19213 net.cpp:141] Setting up inception_3a/1x1
I0729 17:00:22.357209 19213 net.cpp:148] Top shape: 10 64 28 28 (501760)
I0729 17:00:22.357214 19213 net.cpp:156] Memory required for data: 206725120
I0729 17:00:22.357223 19213 layer_factory.hpp:77] Creating layer inception_3a/relu_1x1
I0729 17:00:22.357230 19213 net.cpp:91] Creating Layer inception_3a/relu_1x1
I0729 17:00:22.357235 19213 net.cpp:425] inception_3a/relu_1x1 <- inception_3a/1x1
I0729 17:00:22.357241 19213 net.cpp:386] inception_3a/relu_1x1 -> inception_3a/1x1 (in-place)
I0729 17:00:22.357466 19213 net.cpp:141] Setting up inception_3a/relu_1x1
I0729 17:00:22.357477 19213 net.cpp:148] Top shape: 10 64 28 28 (501760)
I0729 17:00:22.357481 19213 net.cpp:156] Memory required for data: 208732160
I0729 17:00:22.357486 19213 layer_factory.hpp:77] Creating layer inception_3a/3x3_reduce
I0729 17:00:22.357499 19213 net.cpp:91] Creating Layer inception_3a/3x3_reduce
I0729 17:00:22.357504 19213 net.cpp:425] inception_3a/3x3_reduce <- pool2/3x3_s2_pool2/3x3_s2_0_split_1
I0729 17:00:22.357516 19213 net.cpp:399] inception_3a/3x3_reduce -> inception_3a/3x3_reduce
I0729 17:00:22.361060 19213 net.cpp:141] Setting up inception_3a/3x3_reduce
I0729 17:00:22.361073 19213 net.cpp:148] Top shape: 10 96 28 28 (752640)
I0729 17:00:22.361078 19213 net.cpp:156] Memory required for data: 211742720
I0729 17:00:22.361089 19213 layer_factory.hpp:77] Creating layer inception_3a/relu_3x3_reduce
I0729 17:00:22.361099 19213 net.cpp:91] Creating Layer inception_3a/relu_3x3_reduce
I0729 17:00:22.361104 19213 net.cpp:425] inception_3a/relu_3x3_reduce <- inception_3a/3x3_reduce
I0729 17:00:22.361111 19213 net.cpp:386] inception_3a/relu_3x3_reduce -> inception_3a/3x3_reduce (in-place)
I0729 17:00:22.361320 19213 net.cpp:141] Setting up inception_3a/relu_3x3_reduce
I0729 17:00:22.361330 19213 net.cpp:148] Top shape: 10 96 28 28 (752640)
I0729 17:00:22.361335 19213 net.cpp:156] Memory required for data: 214753280
I0729 17:00:22.361338 19213 layer_factory.hpp:77] Creating layer inception_3a/3x3
I0729 17:00:22.361356 19213 net.cpp:91] Creating Layer inception_3a/3x3
I0729 17:00:22.361361 19213 net.cpp:425] inception_3a/3x3 <- inception_3a/3x3_reduce
I0729 17:00:22.361372 19213 net.cpp:399] inception_3a/3x3 -> inception_3a/3x3
I0729 17:00:22.364141 19213 net.cpp:141] Setting up inception_3a/3x3
I0729 17:00:22.364157 19213 net.cpp:148] Top shape: 10 128 28 28 (1003520)
I0729 17:00:22.364162 19213 net.cpp:156] Memory required for data: 218767360
I0729 17:00:22.364169 19213 layer_factory.hpp:77] Creating layer inception_3a/relu_3x3
I0729 17:00:22.364181 19213 net.cpp:91] Creating Layer inception_3a/relu_3x3
I0729 17:00:22.364187 19213 net.cpp:425] inception_3a/relu_3x3 <- inception_3a/3x3
I0729 17:00:22.364192 19213 net.cpp:386] inception_3a/relu_3x3 -> inception_3a/3x3 (in-place)
I0729 17:00:22.364840 19213 net.cpp:141] Setting up inception_3a/relu_3x3
I0729 17:00:22.364852 19213 net.cpp:148] Top shape: 10 128 28 28 (1003520)
I0729 17:00:22.364856 19213 net.cpp:156] Memory required for data: 222781440
I0729 17:00:22.364861 19213 layer_factory.hpp:77] Creating layer inception_3a/5x5_reduce
I0729 17:00:22.364877 19213 net.cpp:91] Creating Layer inception_3a/5x5_reduce
I0729 17:00:22.364883 19213 net.cpp:425] inception_3a/5x5_reduce <- pool2/3x3_s2_pool2/3x3_s2_0_split_2
I0729 17:00:22.364891 19213 net.cpp:399] inception_3a/5x5_reduce -> inception_3a/5x5_reduce
I0729 17:00:22.366950 19213 net.cpp:141] Setting up inception_3a/5x5_reduce
I0729 17:00:22.366963 19213 net.cpp:148] Top shape: 10 16 28 28 (125440)
I0729 17:00:22.366968 19213 net.cpp:156] Memory required for data: 223283200
I0729 17:00:22.366976 19213 layer_factory.hpp:77] Creating layer inception_3a/relu_5x5_reduce
I0729 17:00:22.366997 19213 net.cpp:91] Creating Layer inception_3a/relu_5x5_reduce
I0729 17:00:22.367002 19213 net.cpp:425] inception_3a/relu_5x5_reduce <- inception_3a/5x5_reduce
I0729 17:00:22.367012 19213 net.cpp:386] inception_3a/relu_5x5_reduce -> inception_3a/5x5_reduce (in-place)
I0729 17:00:22.367219 19213 net.cpp:141] Setting up inception_3a/relu_5x5_reduce
I0729 17:00:22.367230 19213 net.cpp:148] Top shape: 10 16 28 28 (125440)
I0729 17:00:22.367234 19213 net.cpp:156] Memory required for data: 223784960
I0729 17:00:22.367239 19213 layer_factory.hpp:77] Creating layer inception_3a/5x5
I0729 17:00:22.367254 19213 net.cpp:91] Creating Layer inception_3a/5x5
I0729 17:00:22.367260 19213 net.cpp:425] inception_3a/5x5 <- inception_3a/5x5_reduce
I0729 17:00:22.367267 19213 net.cpp:399] inception_3a/5x5 -> inception_3a/5x5
I0729 17:00:22.370378 19213 net.cpp:141] Setting up inception_3a/5x5
I0729 17:00:22.370391 19213 net.cpp:148] Top shape: 10 32 28 28 (250880)
I0729 17:00:22.370395 19213 net.cpp:156] Memory required for data: 224788480
I0729 17:00:22.370404 19213 layer_factory.hpp:77] Creating layer inception_3a/relu_5x5
I0729 17:00:22.370411 19213 net.cpp:91] Creating Layer inception_3a/relu_5x5
I0729 17:00:22.370416 19213 net.cpp:425] inception_3a/relu_5x5 <- inception_3a/5x5
I0729 17:00:22.370426 19213 net.cpp:386] inception_3a/relu_5x5 -> inception_3a/5x5 (in-place)
I0729 17:00:22.370647 19213 net.cpp:141] Setting up inception_3a/relu_5x5
I0729 17:00:22.370659 19213 net.cpp:148] Top shape: 10 32 28 28 (250880)
I0729 17:00:22.370664 19213 net.cpp:156] Memory required for data: 225792000
I0729 17:00:22.370669 19213 layer_factory.hpp:77] Creating layer inception_3a/pool
I0729 17:00:22.370676 19213 net.cpp:91] Creating Layer inception_3a/pool
I0729 17:00:22.370682 19213 net.cpp:425] inception_3a/pool <- pool2/3x3_s2_pool2/3x3_s2_0_split_3
I0729 17:00:22.370694 19213 net.cpp:399] inception_3a/pool -> inception_3a/pool
I0729 17:00:22.370770 19213 net.cpp:141] Setting up inception_3a/pool
I0729 17:00:22.370781 19213 net.cpp:148] Top shape: 10 192 28 28 (1505280)
I0729 17:00:22.370785 19213 net.cpp:156] Memory required for data: 231813120
I0729 17:00:22.370790 19213 layer_factory.hpp:77] Creating layer inception_3a/pool_proj
I0729 17:00:22.370801 19213 net.cpp:91] Creating Layer inception_3a/pool_proj
I0729 17:00:22.370805 19213 net.cpp:425] inception_3a/pool_proj <- inception_3a/pool
I0729 17:00:22.370816 19213 net.cpp:399] inception_3a/pool_proj -> inception_3a/pool_proj
I0729 17:00:22.372853 19213 net.cpp:141] Setting up inception_3a/pool_proj
I0729 17:00:22.372866 19213 net.cpp:148] Top shape: 10 32 28 28 (250880)
I0729 17:00:22.372871 19213 net.cpp:156] Memory required for data: 232816640
I0729 17:00:22.372885 19213 layer_factory.hpp:77] Creating layer inception_3a/relu_pool_proj
I0729 17:00:22.372892 19213 net.cpp:91] Creating Layer inception_3a/relu_pool_proj
I0729 17:00:22.372897 19213 net.cpp:425] inception_3a/relu_pool_proj <- inception_3a/pool_proj
I0729 17:00:22.372905 19213 net.cpp:386] inception_3a/relu_pool_proj -> inception_3a/pool_proj (in-place)
I0729 17:00:22.373558 19213 net.cpp:141] Setting up inception_3a/relu_pool_proj
I0729 17:00:22.373569 19213 net.cpp:148] Top shape: 10 32 28 28 (250880)
I0729 17:00:22.373574 19213 net.cpp:156] Memory required for data: 233820160
I0729 17:00:22.373579 19213 layer_factory.hpp:77] Creating layer inception_3a/output
I0729 17:00:22.373592 19213 net.cpp:91] Creating Layer inception_3a/output
I0729 17:00:22.373597 19213 net.cpp:425] inception_3a/output <- inception_3a/1x1
I0729 17:00:22.373602 19213 net.cpp:425] inception_3a/output <- inception_3a/3x3
I0729 17:00:22.373607 19213 net.cpp:425] inception_3a/output <- inception_3a/5x5
I0729 17:00:22.373612 19213 net.cpp:425] inception_3a/output <- inception_3a/pool_proj
I0729 17:00:22.373618 19213 net.cpp:399] inception_3a/output -> inception_3a/output
I0729 17:00:22.373672 19213 net.cpp:141] Setting up inception_3a/output
I0729 17:00:22.373680 19213 net.cpp:148] Top shape: 10 256 28 28 (2007040)
I0729 17:00:22.373684 19213 net.cpp:156] Memory required for data: 241848320
I0729 17:00:22.373688 19213 layer_factory.hpp:77] Creating layer inception_3a/output_inception_3a/output_0_split
I0729 17:00:22.373695 19213 net.cpp:91] Creating Layer inception_3a/output_inception_3a/output_0_split
I0729 17:00:22.373699 19213 net.cpp:425] inception_3a/output_inception_3a/output_0_split <- inception_3a/output
I0729 17:00:22.373708 19213 net.cpp:399] inception_3a/output_inception_3a/output_0_split -> inception_3a/output_inception_3a/output_0_split_0
I0729 17:00:22.373716 19213 net.cpp:399] inception_3a/output_inception_3a/output_0_split -> inception_3a/output_inception_3a/output_0_split_1
I0729 17:00:22.373724 19213 net.cpp:399] inception_3a/output_inception_3a/output_0_split -> inception_3a/output_inception_3a/output_0_split_2
I0729 17:00:22.373731 19213 net.cpp:399] inception_3a/output_inception_3a/output_0_split -> inception_3a/output_inception_3a/output_0_split_3
I0729 17:00:22.373857 19213 net.cpp:141] Setting up inception_3a/output_inception_3a/output_0_split
I0729 17:00:22.373867 19213 net.cpp:148] Top shape: 10 256 28 28 (2007040)
I0729 17:00:22.373872 19213 net.cpp:148] Top shape: 10 256 28 28 (2007040)
I0729 17:00:22.373878 19213 net.cpp:148] Top shape: 10 256 28 28 (2007040)
I0729 17:00:22.373883 19213 net.cpp:148] Top shape: 10 256 28 28 (2007040)
I0729 17:00:22.373886 19213 net.cpp:156] Memory required for data: 273960960
I0729 17:00:22.373891 19213 layer_factory.hpp:77] Creating layer inception_3b/1x1
I0729 17:00:22.373905 19213 net.cpp:91] Creating Layer inception_3b/1x1
I0729 17:00:22.373910 19213 net.cpp:425] inception_3b/1x1 <- inception_3a/output_inception_3a/output_0_split_0
I0729 17:00:22.373921 19213 net.cpp:399] inception_3b/1x1 -> inception_3b/1x1
I0729 17:00:22.376145 19213 net.cpp:141] Setting up inception_3b/1x1
I0729 17:00:22.376159 19213 net.cpp:148] Top shape: 10 128 28 28 (1003520)
I0729 17:00:22.376163 19213 net.cpp:156] Memory required for data: 277975040
I0729 17:00:22.376174 19213 layer_factory.hpp:77] Creating layer inception_3b/relu_1x1
I0729 17:00:22.376183 19213 net.cpp:91] Creating Layer inception_3b/relu_1x1
I0729 17:00:22.376188 19213 net.cpp:425] inception_3b/relu_1x1 <- inception_3b/1x1
I0729 17:00:22.376199 19213 net.cpp:386] inception_3b/relu_1x1 -> inception_3b/1x1 (in-place)
I0729 17:00:22.376408 19213 net.cpp:141] Setting up inception_3b/relu_1x1
I0729 17:00:22.376418 19213 net.cpp:148] Top shape: 10 128 28 28 (1003520)
I0729 17:00:22.376423 19213 net.cpp:156] Memory required for data: 281989120
I0729 17:00:22.376427 19213 layer_factory.hpp:77] Creating layer inception_3b/3x3_reduce
I0729 17:00:22.376441 19213 net.cpp:91] Creating Layer inception_3b/3x3_reduce
I0729 17:00:22.376446 19213 net.cpp:425] inception_3b/3x3_reduce <- inception_3a/output_inception_3a/output_0_split_1
I0729 17:00:22.376456 19213 net.cpp:399] inception_3b/3x3_reduce -> inception_3b/3x3_reduce
I0729 17:00:22.378705 19213 net.cpp:141] Setting up inception_3b/3x3_reduce
I0729 17:00:22.378720 19213 net.cpp:148] Top shape: 10 128 28 28 (1003520)
I0729 17:00:22.378725 19213 net.cpp:156] Memory required for data: 286003200
I0729 17:00:22.378732 19213 layer_factory.hpp:77] Creating layer inception_3b/relu_3x3_reduce
I0729 17:00:22.378739 19213 net.cpp:91] Creating Layer inception_3b/relu_3x3_reduce
I0729 17:00:22.378744 19213 net.cpp:425] inception_3b/relu_3x3_reduce <- inception_3b/3x3_reduce
I0729 17:00:22.378751 19213 net.cpp:386] inception_3b/relu_3x3_reduce -> inception_3b/3x3_reduce (in-place)
I0729 17:00:22.378960 19213 net.cpp:141] Setting up inception_3b/relu_3x3_reduce
I0729 17:00:22.378971 19213 net.cpp:148] Top shape: 10 128 28 28 (1003520)
I0729 17:00:22.378975 19213 net.cpp:156] Memory required for data: 290017280
I0729 17:00:22.378979 19213 layer_factory.hpp:77] Creating layer inception_3b/3x3
I0729 17:00:22.378993 19213 net.cpp:91] Creating Layer inception_3b/3x3
I0729 17:00:22.378998 19213 net.cpp:425] inception_3b/3x3 <- inception_3b/3x3_reduce
I0729 17:00:22.379009 19213 net.cpp:399] inception_3b/3x3 -> inception_3b/3x3
I0729 17:00:22.384104 19213 net.cpp:141] Setting up inception_3b/3x3
I0729 17:00:22.384117 19213 net.cpp:148] Top shape: 10 192 28 28 (1505280)
I0729 17:00:22.384122 19213 net.cpp:156] Memory required for data: 296038400
I0729 17:00:22.384130 19213 layer_factory.hpp:77] Creating layer inception_3b/relu_3x3
I0729 17:00:22.384145 19213 net.cpp:91] Creating Layer inception_3b/relu_3x3
I0729 17:00:22.384150 19213 net.cpp:425] inception_3b/relu_3x3 <- inception_3b/3x3
I0729 17:00:22.384157 19213 net.cpp:386] inception_3b/relu_3x3 -> inception_3b/3x3 (in-place)
I0729 17:00:22.384804 19213 net.cpp:141] Setting up inception_3b/relu_3x3
I0729 17:00:22.384816 19213 net.cpp:148] Top shape: 10 192 28 28 (1505280)
I0729 17:00:22.384821 19213 net.cpp:156] Memory required for data: 302059520
I0729 17:00:22.384825 19213 layer_factory.hpp:77] Creating layer inception_3b/5x5_reduce
I0729 17:00:22.384838 19213 net.cpp:91] Creating Layer inception_3b/5x5_reduce
I0729 17:00:22.384843 19213 net.cpp:425] inception_3b/5x5_reduce <- inception_3a/output_inception_3a/output_0_split_2
I0729 17:00:22.384855 19213 net.cpp:399] inception_3b/5x5_reduce -> inception_3b/5x5_reduce
I0729 17:00:22.386965 19213 net.cpp:141] Setting up inception_3b/5x5_reduce
I0729 17:00:22.386979 19213 net.cpp:148] Top shape: 10 32 28 28 (250880)
I0729 17:00:22.386987 19213 net.cpp:156] Memory required for data: 303063040
I0729 17:00:22.386996 19213 layer_factory.hpp:77] Creating layer inception_3b/relu_5x5_reduce
I0729 17:00:22.387003 19213 net.cpp:91] Creating Layer inception_3b/relu_5x5_reduce
I0729 17:00:22.387012 19213 net.cpp:425] inception_3b/relu_5x5_reduce <- inception_3b/5x5_reduce
I0729 17:00:22.387018 19213 net.cpp:386] inception_3b/relu_5x5_reduce -> inception_3b/5x5_reduce (in-place)
I0729 17:00:22.387253 19213 net.cpp:141] Setting up inception_3b/relu_5x5_reduce
I0729 17:00:22.387264 19213 net.cpp:148] Top shape: 10 32 28 28 (250880)
I0729 17:00:22.387267 19213 net.cpp:156] Memory required for data: 304066560
I0729 17:00:22.387272 19213 layer_factory.hpp:77] Creating layer inception_3b/5x5
I0729 17:00:22.387289 19213 net.cpp:91] Creating Layer inception_3b/5x5
I0729 17:00:22.387295 19213 net.cpp:425] inception_3b/5x5 <- inception_3b/5x5_reduce
I0729 17:00:22.387302 19213 net.cpp:399] inception_3b/5x5 -> inception_3b/5x5
I0729 17:00:22.391319 19213 net.cpp:141] Setting up inception_3b/5x5
I0729 17:00:22.391335 19213 net.cpp:148] Top shape: 10 96 28 28 (752640)
I0729 17:00:22.391340 19213 net.cpp:156] Memory required for data: 307077120
I0729 17:00:22.391347 19213 layer_factory.hpp:77] Creating layer inception_3b/relu_5x5
I0729 17:00:22.391355 19213 net.cpp:91] Creating Layer inception_3b/relu_5x5
I0729 17:00:22.391360 19213 net.cpp:425] inception_3b/relu_5x5 <- inception_3b/5x5
I0729 17:00:22.391371 19213 net.cpp:386] inception_3b/relu_5x5 -> inception_3b/5x5 (in-place)
I0729 17:00:22.391602 19213 net.cpp:141] Setting up inception_3b/relu_5x5
I0729 17:00:22.391613 19213 net.cpp:148] Top shape: 10 96 28 28 (752640)
I0729 17:00:22.391618 19213 net.cpp:156] Memory required for data: 310087680
I0729 17:00:22.391621 19213 layer_factory.hpp:77] Creating layer inception_3b/pool
I0729 17:00:22.391629 19213 net.cpp:91] Creating Layer inception_3b/pool
I0729 17:00:22.391634 19213 net.cpp:425] inception_3b/pool <- inception_3a/output_inception_3a/output_0_split_3
I0729 17:00:22.391640 19213 net.cpp:399] inception_3b/pool -> inception_3b/pool
I0729 17:00:22.391716 19213 net.cpp:141] Setting up inception_3b/pool
I0729 17:00:22.391727 19213 net.cpp:148] Top shape: 10 256 28 28 (2007040)
I0729 17:00:22.391732 19213 net.cpp:156] Memory required for data: 318115840
I0729 17:00:22.391736 19213 layer_factory.hpp:77] Creating layer inception_3b/pool_proj
I0729 17:00:22.391752 19213 net.cpp:91] Creating Layer inception_3b/pool_proj
I0729 17:00:22.391757 19213 net.cpp:425] inception_3b/pool_proj <- inception_3b/pool
I0729 17:00:22.391764 19213 net.cpp:399] inception_3b/pool_proj -> inception_3b/pool_proj
I0729 17:00:22.393884 19213 net.cpp:141] Setting up inception_3b/pool_proj
I0729 17:00:22.393898 19213 net.cpp:148] Top shape: 10 64 28 28 (501760)
I0729 17:00:22.393903 19213 net.cpp:156] Memory required for data: 320122880
I0729 17:00:22.393910 19213 layer_factory.hpp:77] Creating layer inception_3b/relu_pool_proj
I0729 17:00:22.393918 19213 net.cpp:91] Creating Layer inception_3b/relu_pool_proj
I0729 17:00:22.393925 19213 net.cpp:425] inception_3b/relu_pool_proj <- inception_3b/pool_proj
I0729 17:00:22.393931 19213 net.cpp:386] inception_3b/relu_pool_proj -> inception_3b/pool_proj (in-place)
I0729 17:00:22.394583 19213 net.cpp:141] Setting up inception_3b/relu_pool_proj
I0729 17:00:22.394595 19213 net.cpp:148] Top shape: 10 64 28 28 (501760)
I0729 17:00:22.394599 19213 net.cpp:156] Memory required for data: 322129920
I0729 17:00:22.394604 19213 layer_factory.hpp:77] Creating layer inception_3b/output
I0729 17:00:22.394613 19213 net.cpp:91] Creating Layer inception_3b/output
I0729 17:00:22.394619 19213 net.cpp:425] inception_3b/output <- inception_3b/1x1
I0729 17:00:22.394624 19213 net.cpp:425] inception_3b/output <- inception_3b/3x3
I0729 17:00:22.394629 19213 net.cpp:425] inception_3b/output <- inception_3b/5x5
I0729 17:00:22.394634 19213 net.cpp:425] inception_3b/output <- inception_3b/pool_proj
I0729 17:00:22.394641 19213 net.cpp:399] inception_3b/output -> inception_3b/output
I0729 17:00:22.394697 19213 net.cpp:141] Setting up inception_3b/output
I0729 17:00:22.394707 19213 net.cpp:148] Top shape: 10 480 28 28 (3763200)
I0729 17:00:22.394726 19213 net.cpp:156] Memory required for data: 337182720
I0729 17:00:22.394731 19213 layer_factory.hpp:77] Creating layer pool3/3x3_s2
I0729 17:00:22.394739 19213 net.cpp:91] Creating Layer pool3/3x3_s2
I0729 17:00:22.394743 19213 net.cpp:425] pool3/3x3_s2 <- inception_3b/output
I0729 17:00:22.394749 19213 net.cpp:399] pool3/3x3_s2 -> pool3/3x3_s2
I0729 17:00:22.394843 19213 net.cpp:141] Setting up pool3/3x3_s2
I0729 17:00:22.394853 19213 net.cpp:148] Top shape: 10 480 14 14 (940800)
I0729 17:00:22.394858 19213 net.cpp:156] Memory required for data: 340945920
I0729 17:00:22.394862 19213 layer_factory.hpp:77] Creating layer pool3/3x3_s2_pool3/3x3_s2_0_split
I0729 17:00:22.394870 19213 net.cpp:91] Creating Layer pool3/3x3_s2_pool3/3x3_s2_0_split
I0729 17:00:22.394876 19213 net.cpp:425] pool3/3x3_s2_pool3/3x3_s2_0_split <- pool3/3x3_s2
I0729 17:00:22.394881 19213 net.cpp:399] pool3/3x3_s2_pool3/3x3_s2_0_split -> pool3/3x3_s2_pool3/3x3_s2_0_split_0
I0729 17:00:22.394893 19213 net.cpp:399] pool3/3x3_s2_pool3/3x3_s2_0_split -> pool3/3x3_s2_pool3/3x3_s2_0_split_1
I0729 17:00:22.394902 19213 net.cpp:399] pool3/3x3_s2_pool3/3x3_s2_0_split -> pool3/3x3_s2_pool3/3x3_s2_0_split_2
I0729 17:00:22.394909 19213 net.cpp:399] pool3/3x3_s2_pool3/3x3_s2_0_split -> pool3/3x3_s2_pool3/3x3_s2_0_split_3
I0729 17:00:22.395028 19213 net.cpp:141] Setting up pool3/3x3_s2_pool3/3x3_s2_0_split
I0729 17:00:22.395037 19213 net.cpp:148] Top shape: 10 480 14 14 (940800)
I0729 17:00:22.395043 19213 net.cpp:148] Top shape: 10 480 14 14 (940800)
I0729 17:00:22.395050 19213 net.cpp:148] Top shape: 10 480 14 14 (940800)
I0729 17:00:22.395054 19213 net.cpp:148] Top shape: 10 480 14 14 (940800)
I0729 17:00:22.395058 19213 net.cpp:156] Memory required for data: 355998720
I0729 17:00:22.395062 19213 layer_factory.hpp:77] Creating layer inception_4a/1x1
I0729 17:00:22.395073 19213 net.cpp:91] Creating Layer inception_4a/1x1
I0729 17:00:22.395078 19213 net.cpp:425] inception_4a/1x1 <- pool3/3x3_s2_pool3/3x3_s2_0_split_0
I0729 17:00:22.395090 19213 net.cpp:399] inception_4a/1x1 -> inception_4a/1x1
I0729 17:00:22.398417 19213 net.cpp:141] Setting up inception_4a/1x1
I0729 17:00:22.398432 19213 net.cpp:148] Top shape: 10 192 14 14 (376320)
I0729 17:00:22.398437 19213 net.cpp:156] Memory required for data: 357504000
I0729 17:00:22.398445 19213 layer_factory.hpp:77] Creating layer inception_4a/relu_1x1
I0729 17:00:22.398452 19213 net.cpp:91] Creating Layer inception_4a/relu_1x1
I0729 17:00:22.398458 19213 net.cpp:425] inception_4a/relu_1x1 <- inception_4a/1x1
I0729 17:00:22.398464 19213 net.cpp:386] inception_4a/relu_1x1 -> inception_4a/1x1 (in-place)
I0729 17:00:22.398682 19213 net.cpp:141] Setting up inception_4a/relu_1x1
I0729 17:00:22.398700 19213 net.cpp:148] Top shape: 10 192 14 14 (376320)
I0729 17:00:22.398705 19213 net.cpp:156] Memory required for data: 359009280
I0729 17:00:22.398710 19213 layer_factory.hpp:77] Creating layer inception_4a/3x3_reduce
I0729 17:00:22.398722 19213 net.cpp:91] Creating Layer inception_4a/3x3_reduce
I0729 17:00:22.398728 19213 net.cpp:425] inception_4a/3x3_reduce <- pool3/3x3_s2_pool3/3x3_s2_0_split_1
I0729 17:00:22.398739 19213 net.cpp:399] inception_4a/3x3_reduce -> inception_4a/3x3_reduce
I0729 17:00:22.401083 19213 net.cpp:141] Setting up inception_4a/3x3_reduce
I0729 17:00:22.401099 19213 net.cpp:148] Top shape: 10 96 14 14 (188160)
I0729 17:00:22.401104 19213 net.cpp:156] Memory required for data: 359761920
I0729 17:00:22.401119 19213 layer_factory.hpp:77] Creating layer inception_4a/relu_3x3_reduce
I0729 17:00:22.401127 19213 net.cpp:91] Creating Layer inception_4a/relu_3x3_reduce
I0729 17:00:22.401132 19213 net.cpp:425] inception_4a/relu_3x3_reduce <- inception_4a/3x3_reduce
I0729 17:00:22.401139 19213 net.cpp:386] inception_4a/relu_3x3_reduce -> inception_4a/3x3_reduce (in-place)
I0729 17:00:22.401352 19213 net.cpp:141] Setting up inception_4a/relu_3x3_reduce
I0729 17:00:22.401362 19213 net.cpp:148] Top shape: 10 96 14 14 (188160)
I0729 17:00:22.401367 19213 net.cpp:156] Memory required for data: 360514560
I0729 17:00:22.401371 19213 layer_factory.hpp:77] Creating layer inception_4a/3x3
I0729 17:00:22.401384 19213 net.cpp:91] Creating Layer inception_4a/3x3
I0729 17:00:22.401389 19213 net.cpp:425] inception_4a/3x3 <- inception_4a/3x3_reduce
I0729 17:00:22.401401 19213 net.cpp:399] inception_4a/3x3 -> inception_4a/3x3
I0729 17:00:22.406153 19213 net.cpp:141] Setting up inception_4a/3x3
I0729 17:00:22.406167 19213 net.cpp:148] Top shape: 10 208 14 14 (407680)
I0729 17:00:22.406172 19213 net.cpp:156] Memory required for data: 362145280
I0729 17:00:22.406179 19213 layer_factory.hpp:77] Creating layer inception_4a/relu_3x3
I0729 17:00:22.406189 19213 net.cpp:91] Creating Layer inception_4a/relu_3x3
I0729 17:00:22.406195 19213 net.cpp:425] inception_4a/relu_3x3 <- inception_4a/3x3
I0729 17:00:22.406201 19213 net.cpp:386] inception_4a/relu_3x3 -> inception_4a/3x3 (in-place)
I0729 17:00:22.406864 19213 net.cpp:141] Setting up inception_4a/relu_3x3
I0729 17:00:22.406877 19213 net.cpp:148] Top shape: 10 208 14 14 (407680)
I0729 17:00:22.406882 19213 net.cpp:156] Memory required for data: 363776000
I0729 17:00:22.406885 19213 layer_factory.hpp:77] Creating layer inception_4a/5x5_reduce
I0729 17:00:22.406898 19213 net.cpp:91] Creating Layer inception_4a/5x5_reduce
I0729 17:00:22.406904 19213 net.cpp:425] inception_4a/5x5_reduce <- pool3/3x3_s2_pool3/3x3_s2_0_split_2
I0729 17:00:22.406915 19213 net.cpp:399] inception_4a/5x5_reduce -> inception_4a/5x5_reduce
I0729 17:00:22.409080 19213 net.cpp:141] Setting up inception_4a/5x5_reduce
I0729 17:00:22.409092 19213 net.cpp:148] Top shape: 10 16 14 14 (31360)
I0729 17:00:22.409097 19213 net.cpp:156] Memory required for data: 363901440
I0729 17:00:22.409106 19213 layer_factory.hpp:77] Creating layer inception_4a/relu_5x5_reduce
I0729 17:00:22.409114 19213 net.cpp:91] Creating Layer inception_4a/relu_5x5_reduce
I0729 17:00:22.409121 19213 net.cpp:425] inception_4a/relu_5x5_reduce <- inception_4a/5x5_reduce
I0729 17:00:22.409126 19213 net.cpp:386] inception_4a/relu_5x5_reduce -> inception_4a/5x5_reduce (in-place)
I0729 17:00:22.409343 19213 net.cpp:141] Setting up inception_4a/relu_5x5_reduce
I0729 17:00:22.409355 19213 net.cpp:148] Top shape: 10 16 14 14 (31360)
I0729 17:00:22.409360 19213 net.cpp:156] Memory required for data: 364026880
I0729 17:00:22.409364 19213 layer_factory.hpp:77] Creating layer inception_4a/5x5
I0729 17:00:22.409378 19213 net.cpp:91] Creating Layer inception_4a/5x5
I0729 17:00:22.409382 19213 net.cpp:425] inception_4a/5x5 <- inception_4a/5x5_reduce
I0729 17:00:22.409390 19213 net.cpp:399] inception_4a/5x5 -> inception_4a/5x5
I0729 17:00:22.411677 19213 net.cpp:141] Setting up inception_4a/5x5
I0729 17:00:22.411690 19213 net.cpp:148] Top shape: 10 48 14 14 (94080)
I0729 17:00:22.411695 19213 net.cpp:156] Memory required for data: 364403200
I0729 17:00:22.411703 19213 layer_factory.hpp:77] Creating layer inception_4a/relu_5x5
I0729 17:00:22.411710 19213 net.cpp:91] Creating Layer inception_4a/relu_5x5
I0729 17:00:22.411715 19213 net.cpp:425] inception_4a/relu_5x5 <- inception_4a/5x5
I0729 17:00:22.411725 19213 net.cpp:386] inception_4a/relu_5x5 -> inception_4a/5x5 (in-place)
I0729 17:00:22.411942 19213 net.cpp:141] Setting up inception_4a/relu_5x5
I0729 17:00:22.411952 19213 net.cpp:148] Top shape: 10 48 14 14 (94080)
I0729 17:00:22.411957 19213 net.cpp:156] Memory required for data: 364779520
I0729 17:00:22.411960 19213 layer_factory.hpp:77] Creating layer inception_4a/pool
I0729 17:00:22.411972 19213 net.cpp:91] Creating Layer inception_4a/pool
I0729 17:00:22.411977 19213 net.cpp:425] inception_4a/pool <- pool3/3x3_s2_pool3/3x3_s2_0_split_3
I0729 17:00:22.411983 19213 net.cpp:399] inception_4a/pool -> inception_4a/pool
I0729 17:00:22.412062 19213 net.cpp:141] Setting up inception_4a/pool
I0729 17:00:22.412072 19213 net.cpp:148] Top shape: 10 480 14 14 (940800)
I0729 17:00:22.412076 19213 net.cpp:156] Memory required for data: 368542720
I0729 17:00:22.412081 19213 layer_factory.hpp:77] Creating layer inception_4a/pool_proj
I0729 17:00:22.412093 19213 net.cpp:91] Creating Layer inception_4a/pool_proj
I0729 17:00:22.412099 19213 net.cpp:425] inception_4a/pool_proj <- inception_4a/pool
I0729 17:00:22.412111 19213 net.cpp:399] inception_4a/pool_proj -> inception_4a/pool_proj
I0729 17:00:22.414378 19213 net.cpp:141] Setting up inception_4a/pool_proj
I0729 17:00:22.414391 19213 net.cpp:148] Top shape: 10 64 14 14 (125440)
I0729 17:00:22.414396 19213 net.cpp:156] Memory required for data: 369044480
I0729 17:00:22.414403 19213 layer_factory.hpp:77] Creating layer inception_4a/relu_pool_proj
I0729 17:00:22.414413 19213 net.cpp:91] Creating Layer inception_4a/relu_pool_proj
I0729 17:00:22.414419 19213 net.cpp:425] inception_4a/relu_pool_proj <- inception_4a/pool_proj
I0729 17:00:22.414425 19213 net.cpp:386] inception_4a/relu_pool_proj -> inception_4a/pool_proj (in-place)
I0729 17:00:22.415125 19213 net.cpp:141] Setting up inception_4a/relu_pool_proj
I0729 17:00:22.415139 19213 net.cpp:148] Top shape: 10 64 14 14 (125440)
I0729 17:00:22.415144 19213 net.cpp:156] Memory required for data: 369546240
I0729 17:00:22.415149 19213 layer_factory.hpp:77] Creating layer inception_4a/output
I0729 17:00:22.415156 19213 net.cpp:91] Creating Layer inception_4a/output
I0729 17:00:22.415161 19213 net.cpp:425] inception_4a/output <- inception_4a/1x1
I0729 17:00:22.415166 19213 net.cpp:425] inception_4a/output <- inception_4a/3x3
I0729 17:00:22.415171 19213 net.cpp:425] inception_4a/output <- inception_4a/5x5
I0729 17:00:22.415176 19213 net.cpp:425] inception_4a/output <- inception_4a/pool_proj
I0729 17:00:22.415182 19213 net.cpp:399] inception_4a/output -> inception_4a/output
I0729 17:00:22.415238 19213 net.cpp:141] Setting up inception_4a/output
I0729 17:00:22.415247 19213 net.cpp:148] Top shape: 10 512 14 14 (1003520)
I0729 17:00:22.415251 19213 net.cpp:156] Memory required for data: 373560320
I0729 17:00:22.415256 19213 layer_factory.hpp:77] Creating layer inception_4a/output_inception_4a/output_0_split
I0729 17:00:22.415262 19213 net.cpp:91] Creating Layer inception_4a/output_inception_4a/output_0_split
I0729 17:00:22.415267 19213 net.cpp:425] inception_4a/output_inception_4a/output_0_split <- inception_4a/output
I0729 17:00:22.415272 19213 net.cpp:399] inception_4a/output_inception_4a/output_0_split -> inception_4a/output_inception_4a/output_0_split_0
I0729 17:00:22.415283 19213 net.cpp:399] inception_4a/output_inception_4a/output_0_split -> inception_4a/output_inception_4a/output_0_split_1
I0729 17:00:22.415292 19213 net.cpp:399] inception_4a/output_inception_4a/output_0_split -> inception_4a/output_inception_4a/output_0_split_2
I0729 17:00:22.415298 19213 net.cpp:399] inception_4a/output_inception_4a/output_0_split -> inception_4a/output_inception_4a/output_0_split_3
I0729 17:00:22.415421 19213 net.cpp:141] Setting up inception_4a/output_inception_4a/output_0_split
I0729 17:00:22.415431 19213 net.cpp:148] Top shape: 10 512 14 14 (1003520)
I0729 17:00:22.415436 19213 net.cpp:148] Top shape: 10 512 14 14 (1003520)
I0729 17:00:22.415441 19213 net.cpp:148] Top shape: 10 512 14 14 (1003520)
I0729 17:00:22.415446 19213 net.cpp:148] Top shape: 10 512 14 14 (1003520)
I0729 17:00:22.415449 19213 net.cpp:156] Memory required for data: 389616640
I0729 17:00:22.415453 19213 layer_factory.hpp:77] Creating layer inception_4b/1x1
I0729 17:00:22.415465 19213 net.cpp:91] Creating Layer inception_4b/1x1
I0729 17:00:22.415472 19213 net.cpp:425] inception_4b/1x1 <- inception_4a/output_inception_4a/output_0_split_0
I0729 17:00:22.415482 19213 net.cpp:399] inception_4b/1x1 -> inception_4b/1x1
I0729 17:00:22.418066 19213 net.cpp:141] Setting up inception_4b/1x1
I0729 17:00:22.418079 19213 net.cpp:148] Top shape: 10 160 14 14 (313600)
I0729 17:00:22.418084 19213 net.cpp:156] Memory required for data: 390871040
I0729 17:00:22.418092 19213 layer_factory.hpp:77] Creating layer inception_4b/relu_1x1
I0729 17:00:22.418102 19213 net.cpp:91] Creating Layer inception_4b/relu_1x1
I0729 17:00:22.418107 19213 net.cpp:425] inception_4b/relu_1x1 <- inception_4b/1x1
I0729 17:00:22.418113 19213 net.cpp:386] inception_4b/relu_1x1 -> inception_4b/1x1 (in-place)
I0729 17:00:22.418334 19213 net.cpp:141] Setting up inception_4b/relu_1x1
I0729 17:00:22.418345 19213 net.cpp:148] Top shape: 10 160 14 14 (313600)
I0729 17:00:22.418349 19213 net.cpp:156] Memory required for data: 392125440
I0729 17:00:22.418354 19213 layer_factory.hpp:77] Creating layer inception_4b/3x3_reduce
I0729 17:00:22.418370 19213 net.cpp:91] Creating Layer inception_4b/3x3_reduce
I0729 17:00:22.418375 19213 net.cpp:425] inception_4b/3x3_reduce <- inception_4a/output_inception_4a/output_0_split_1
I0729 17:00:22.418381 19213 net.cpp:399] inception_4b/3x3_reduce -> inception_4b/3x3_reduce
I0729 17:00:22.420960 19213 net.cpp:141] Setting up inception_4b/3x3_reduce
I0729 17:00:22.420974 19213 net.cpp:148] Top shape: 10 112 14 14 (219520)
I0729 17:00:22.420979 19213 net.cpp:156] Memory required for data: 393003520
I0729 17:00:22.420985 19213 layer_factory.hpp:77] Creating layer inception_4b/relu_3x3_reduce
I0729 17:00:22.420994 19213 net.cpp:91] Creating Layer inception_4b/relu_3x3_reduce
I0729 17:00:22.420999 19213 net.cpp:425] inception_4b/relu_3x3_reduce <- inception_4b/3x3_reduce
I0729 17:00:22.421007 19213 net.cpp:386] inception_4b/relu_3x3_reduce -> inception_4b/3x3_reduce (in-place)
I0729 17:00:22.421222 19213 net.cpp:141] Setting up inception_4b/relu_3x3_reduce
I0729 17:00:22.421236 19213 net.cpp:148] Top shape: 10 112 14 14 (219520)
I0729 17:00:22.421239 19213 net.cpp:156] Memory required for data: 393881600
I0729 17:00:22.421244 19213 layer_factory.hpp:77] Creating layer inception_4b/3x3
I0729 17:00:22.421258 19213 net.cpp:91] Creating Layer inception_4b/3x3
I0729 17:00:22.421263 19213 net.cpp:425] inception_4b/3x3 <- inception_4b/3x3_reduce
I0729 17:00:22.421272 19213 net.cpp:399] inception_4b/3x3 -> inception_4b/3x3
I0729 17:00:22.426920 19213 net.cpp:141] Setting up inception_4b/3x3
I0729 17:00:22.426936 19213 net.cpp:148] Top shape: 10 224 14 14 (439040)
I0729 17:00:22.426941 19213 net.cpp:156] Memory required for data: 395637760
I0729 17:00:22.426949 19213 layer_factory.hpp:77] Creating layer inception_4b/relu_3x3
I0729 17:00:22.426957 19213 net.cpp:91] Creating Layer inception_4b/relu_3x3
I0729 17:00:22.426962 19213 net.cpp:425] inception_4b/relu_3x3 <- inception_4b/3x3
I0729 17:00:22.426969 19213 net.cpp:386] inception_4b/relu_3x3 -> inception_4b/3x3 (in-place)
I0729 17:00:22.427651 19213 net.cpp:141] Setting up inception_4b/relu_3x3
I0729 17:00:22.427664 19213 net.cpp:148] Top shape: 10 224 14 14 (439040)
I0729 17:00:22.427669 19213 net.cpp:156] Memory required for data: 397393920
I0729 17:00:22.427672 19213 layer_factory.hpp:77] Creating layer inception_4b/5x5_reduce
I0729 17:00:22.427695 19213 net.cpp:91] Creating Layer inception_4b/5x5_reduce
I0729 17:00:22.427700 19213 net.cpp:425] inception_4b/5x5_reduce <- inception_4a/output_inception_4a/output_0_split_2
I0729 17:00:22.427708 19213 net.cpp:399] inception_4b/5x5_reduce -> inception_4b/5x5_reduce
I0729 17:00:22.429895 19213 net.cpp:141] Setting up inception_4b/5x5_reduce
I0729 17:00:22.429908 19213 net.cpp:148] Top shape: 10 24 14 14 (47040)
I0729 17:00:22.429913 19213 net.cpp:156] Memory required for data: 397582080
I0729 17:00:22.429920 19213 layer_factory.hpp:77] Creating layer inception_4b/relu_5x5_reduce
I0729 17:00:22.429931 19213 net.cpp:91] Creating Layer inception_4b/relu_5x5_reduce
I0729 17:00:22.429937 19213 net.cpp:425] inception_4b/relu_5x5_reduce <- inception_4b/5x5_reduce
I0729 17:00:22.429944 19213 net.cpp:386] inception_4b/relu_5x5_reduce -> inception_4b/5x5_reduce (in-place)
I0729 17:00:22.430165 19213 net.cpp:141] Setting up inception_4b/relu_5x5_reduce
I0729 17:00:22.430174 19213 net.cpp:148] Top shape: 10 24 14 14 (47040)
I0729 17:00:22.721424 19213 net.cpp:156] Memory required for data: 397770240
I0729 17:00:22.721457 19213 layer_factory.hpp:77] Creating layer inception_4b/5x5
I0729 17:00:22.721510 19213 net.cpp:91] Creating Layer inception_4b/5x5
I0729 17:00:22.721525 19213 net.cpp:425] inception_4b/5x5 <- inception_4b/5x5_reduce
I0729 17:00:22.721549 19213 net.cpp:399] inception_4b/5x5 -> inception_4b/5x5
I0729 17:00:22.729007 19213 net.cpp:141] Setting up inception_4b/5x5
I0729 17:00:22.729043 19213 net.cpp:148] Top shape: 10 64 14 14 (125440)
I0729 17:00:22.729056 19213 net.cpp:156] Memory required for data: 398272000
I0729 17:00:22.729077 19213 layer_factory.hpp:77] Creating layer inception_4b/relu_5x5
I0729 17:00:22.729100 19213 net.cpp:91] Creating Layer inception_4b/relu_5x5
I0729 17:00:22.729115 19213 net.cpp:425] inception_4b/relu_5x5 <- inception_4b/5x5
I0729 17:00:22.729131 19213 net.cpp:386] inception_4b/relu_5x5 -> inception_4b/5x5 (in-place)
I0729 17:00:22.729559 19213 net.cpp:141] Setting up inception_4b/relu_5x5
I0729 17:00:22.729579 19213 net.cpp:148] Top shape: 10 64 14 14 (125440)
I0729 17:00:22.729590 19213 net.cpp:156] Memory required for data: 398773760
I0729 17:00:22.729600 19213 layer_factory.hpp:77] Creating layer inception_4b/pool
I0729 17:00:22.729624 19213 net.cpp:91] Creating Layer inception_4b/pool
I0729 17:00:22.729640 19213 net.cpp:425] inception_4b/pool <- inception_4a/output_inception_4a/output_0_split_3
I0729 17:00:22.729660 19213 net.cpp:399] inception_4b/pool -> inception_4b/pool
I0729 17:00:22.729821 19213 net.cpp:141] Setting up inception_4b/pool
I0729 17:00:22.729841 19213 net.cpp:148] Top shape: 10 512 14 14 (1003520)
I0729 17:00:22.729851 19213 net.cpp:156] Memory required for data: 402787840
I0729 17:00:22.729861 19213 layer_factory.hpp:77] Creating layer inception_4b/pool_proj
I0729 17:00:22.729892 19213 net.cpp:91] Creating Layer inception_4b/pool_proj
I0729 17:00:22.729907 19213 net.cpp:425] inception_4b/pool_proj <- inception_4b/pool
I0729 17:00:22.729926 19213 net.cpp:399] inception_4b/pool_proj -> inception_4b/pool_proj
I0729 17:00:22.633815 19209 net.cpp:49] Initializing net from parameters: 
name: "GoogleNet"
state {
  phase: TEST
}
layer {
  name: "data"
  type: "Input"
  top: "data"
  input_param {
    shape {
      dim: 10
      dim: 3
      dim: 224
      dim: 224
    }
  }
}
layer {
  name: "conv1/7x7_s2"
  type: "Convolution"
  bottom: "data"
  top: "conv1/7x7_s2"
  param {
    lr_mult: 1
    decay_mult: 1
  }
  param {
    lr_mult: 2
    decay_mult: 0
  }
  convolution_param {
    num_output: 64
    pad: 3
    kernel_size: 7
    stride: 2
    weight_filler {
      type: "xavier"
      std: 0.1
    }
    bias_filler {
      type: "constant"
      value: 0.2
    }
  }
}
layer {
  name: "conv1/relu_7x7"
  type: "ReLU"
  bottom: "conv1/7x7_s2"
  top: "conv1/7x7_s2"
}
layer {
  name: "pool1/3x3_s2"
  type: "Pooling"
  bottom: "conv1/7x7_s2"
  top: "pool1/3x3_s2"
  pooling_param {
    pool: MAX
    kernel_size: 3
    stride: 2
  }
}
layer {
  name: "pool1/norm1"
  type: "LRN"
  bottom: "pool1/3x3_s2"
  top: "pool1/norm1"
  lrn_param {
    local_size: 5
    alpha: 0.0001
    beta: 0.75
  }
}
layer {
  name: "conv2/3x3_reduce"
  type: "Convolution"
  bottom: "pool1/norm1"
  top: "conv2/3x3_reduce"
  param {
    lr_mult: 1
    decay_mult: 1
  }
  param {
    lr_mult: 2
    decay_mult: 0
  }
  convolution_param {
    num_output: 64
    kernel_size: 1
    weight_filler {
      type: "xavier"
      std: 0.1
    }
    bias_filler {
      type: "constant"
      value: 0.2
    }
  }
}
layer {
  name: "conv2/relu_3x3_reduce"
  type: "ReLU"
  bottom: "conv2/3x3_reduce"
  top: "conv2/3x3_reduce"
}
layer {
  name: "conv2/3x3"
  type: "Convolution"
  bottom: "conv2/3x3_reduce"
  top: "conv2/3x3"
  param {
    lr_mult: 1
    decay_mult: 1
  }
  param {
    lr_mult: 2
    decay_mult: 0
  }
  convolution_param {
    num_output: 192
    pad: 1
    kernel_size: 3
    weight_filler {
      type: "xavier"
      std: 0.03
    }
    bias_filler {
      type: "constant"
      value: 0.2
    }
  }
}
layer {
  name: "conv2/relu_3x3"
  type: "ReLU"
  bottom: "conv2/3x3"
  top: "conv2/3x3"
}
layer {
  name: "conv2/norm2"
  type: "LRN"
  bottom: "conv2/3x3"
  top: "conv2/norm2"
  lrn_param {
    local_size: 5
    alpha: 0.0001
    beta: 0.75
  }
}
layer {
  name: "pool2/3x3_s2"
  type: "Pooling"
  bottom: "conv2/norm2"
  top: "pool2/3x3_s2"
  pooling_param {
    pool: MAX
    kernel_size: 3
    stride: 2
  }
}
layer {
  name: "inception_3a/1x1"
  type: "Convolution"
  bottom: "pool2/3x3_s2"
  top: "inception_3a/1x1"
  param {
    lr_mult: 1
    decay_mult: 1
  }
  param {
    lr_mult: 2
    decay_mult: 0
  }
  convolution_param {
    num_output: 64
    kernel_size: 1
    weight_filler {
      type: "xavier"
      std: 0.03
    }
    bias_filler {
      type: "constant"
      value: 0.2
    }
  }
}
layer {
  name: "inception_3a/relu_1x1"
  type: "ReLU"
  bottom: "inception_3a/1x1"
  top: "inception_3a/1x1"
}
layer {
  name: "inception_3a/3x3_reduce"
  type: "Convolution"
  bottom: "pool2/3x3_s2"
  top: "inception_3a/3x3_reduce"
  param {
    lr_mult: 1
    decay_mult: 1
  }
  param {
    lr_mult: 2
    decay_mult: 0
  }
  convolution_param {
    num_output: 96
    kernel_size: 1
    weight_filler {
      type: "xavier"
      std: 0.09
    }
    bias_filler {
      type: "constant"
      value: 0.2
    }
  }
}
layer {
  name: "inception_3a/relu_3x3_reduce"
  type: "ReLU"
  bottom: "inception_3a/3x3_reduce"
  top: "inception_3a/3x3_reduce"
}
layer {
  name: "inception_3a/3x3"
  type: "Convolution"
  bottom: "inception_3a/3x3_reduce"
  top: "inception_3a/3x3"
  param {
    lr_mult: 1
    decay_mult: 1
  }
  param {
    lr_mult: 2
    decay_mult: 0
  }
  convolution_param {
    num_output: 128
    pad: 1
    kernel_size: 3
    weight_filler {
      type: "xavier"
      std: 0.03
    }
    bias_filler {
      type: "constant"
      value: 0.2
    }
  }
}
layer {
  name: "inception_3a/relu_3x3"
  type: "ReLU"
  bottom: "inception_3a/3x3"
  top: "inception_3a/3x3"
}
layer {
  name: "inception_3a/5x5_reduce"
  type: "Convolution"
  bottom: "pool2/3x3_s2"
  top: "inception_3a/5x5_reduce"
  param {
    lr_mult: 1
    decay_mult: 1
  }
  param {
    lr_mult: 2
    decay_mult: 0
  }
  convolution_param {
    num_output: 16
    kernel_size: 1
    weight_filler {
      type: "xavier"
      std: 0.2
    }
    bias_filler {
      type: "constant"
      value: 0.2
    }
  }
}
layer {
  name: "inception_3a/relu_5x5_reduce"
  type: "ReLU"
  bottom: "inception_3a/5x5_reduce"
  top: "inception_3a/5x5_reduce"
}
layer {
  name: "inception_3a/5x5"
  type: "Convolution"
  bottom: "inception_3a/5x5_reduce"
  top: "inception_3a/5x5"
  param {
    lr_mult: 1
    decay_mult: 1
  }
  param {
    lr_mult: 2
    decay_mult: 0
  }
  convolution_param {
    num_output: 32
    pad: 2
    kernel_size: 5
    weight_filler {
      type: "xavier"
      std: 0.03
    }
    bias_filler {
      type: "constant"
      value: 0.2
    }
  }
}
layer {
  name: "inception_3a/relu_5x5"
  type: "ReLU"
  bottom: "inception_3a/5x5"
  top: "inception_3a/5x5"
}
layer {
  name: "inception_3a/pool"
  type: "Pooling"
  bottom: "pool2/3x3_s2"
  top: "inception_3a/pool"
  pooling_param {
    pool: MAX
    kernel_size: 3
    stride: 1
    pad: 1
  }
}
layer {
  name: "inception_3a/pool_proj"
  type: "Convolution"
  bottom: "inception_3a/pool"
  top: "inception_3a/pool_proj"
  param {
    lr_mult: 1
    decay_mult: 1
  }
  param {
    lr_mult: 2
    decay_mult: 0
  }
  convolution_param {
    num_output: 32
    kernel_size: 1
    weight_filler {
      type: "xavier"
      std: 0.1
    }
    bias_filler {
      type: "constant"
      value: 0.2
    }
  }
}
layer {
  name: "inception_3a/relu_pool_proj"
  type: "ReLU"
  bottom: "inception_3a/pool_proj"
  top: "inception_3a/pool_proj"
}
layer {
  name: "inception_3a/output"
  type: "Concat"
  bottom: "inception_3a/1x1"
  bottom: "inception_3a/3x3"
  bottom: "inception_3a/5x5"
  bottom: "inception_3a/pool_proj"
  top: "inception_3a/output"
}
layer {
  name: "inception_3b/1x1"
  type: "Convolution"
  bottom: "inception_3a/output"
  top: "inception_3b/1x1"
  param {
    lr_mult: 1
    decay_mult: 1
  }
  param {
    lr_mult: 2
    decay_mult: 0
  }
  convolution_param {
    num_output: 128
    kernel_size: 1
    weight_filler {
      type: "xavier"
      std: 0.03
    }
    bias_filler {
      type: "constant"
      value: 0.2
    }
  }
}
layer {
  name: "inception_3b/relu_1x1"
  type: "ReLU"
  bottom: "inception_3b/1x1"
  top: "inception_3b/1x1"
}
layer {
  name: "inception_3b/3x3_reduce"
  type: "Convolution"
  bottom: "inception_3a/output"
  top: "inception_3b/3x3_reduce"
  param {
    lr_mult: 1
    decay_mult: 1
  }
  param {
    lr_mult: 2
    decay_mult: 0
  }
  convolution_param {
    num_output: 128
    kernel_size: 1
    weight_filler {
      type: "xavier"
      std: 0.09
    }
    bias_filler {
      type: "constant"
      value: 0.2
    }
  }
}
layer {
  name: "inception_3b/relu_3x3_reduce"
  type: "ReLU"
  bottom: "inception_3b/3x3_reduce"
  top: "inception_3b/3x3_reduce"
}
layer {
  name: "inception_3b/3x3"
  type: "Convolution"
  bottom: "inception_3b/3x3_reduce"
  top: "inception_3b/3x3"
  param {
    lr_mult: 1
    decay_mult: 1
  }
  param {
    lr_mult: 2
    decay_mult: 0
  }
  convolution_param {
    num_output: 192
    pad: 1
    kernel_size: 3
    weight_filler {
      type: "xavier"
      std: 0.03
    }
    bias_filler {
      type: "constant"
      value: 0.2
    }
  }
}
layer {
  name: "inception_3b/relu_3x3"
  type: "ReLU"
  bottom: "inception_3b/3x3"
  top: "inception_3b/3x3"
}
layer {
  name: "inception_3b/5x5_reduce"
  type: "Convolution"
  bottom: "inception_3a/output"
  top: "inception_3b/5x5_reduce"
  param {
    lr_mult: 1
    decay_mult: 1
  }
  param {
    lr_mult: 2
    decay_mult: 0
  }
  convolution_param {
    num_output: 32
    kernel_size: 1
    weight_filler {
      type: "xavier"
      std: 0.2
    }
    bias_filler {
      type: "constant"
      value: 0.2
    }
  }
}
layer {
  name: "inception_3b/relu_5x5_reduce"
  type: "ReLU"
  bottom: "inception_3b/5x5_reduce"
  top: "inception_3b/5x5_reduce"
}
layer {
  name: "inception_3b/5x5"
  type: "Convolution"
  bottom: "inception_3b/5x5_reduce"
  top: "inception_3b/5x5"
  param {
    lr_mult: 1
    decay_mult: 1
  }
  param {
    lr_mult: 2
    decay_mult: 0
  }
  convolution_param {
    num_output: 96
    pad: 2
    kernel_size: 5
    weight_filler {
      type: "xavier"
      std: 0.03
    }
    bias_filler {
      type: "constant"
      value: 0.2
    }
  }
}
layer {
  name: "inception_3b/relu_5x5"
  type: "ReLU"
  bottom: "inception_3b/5x5"
  top: "inception_3b/5x5"
}
layer {
  name: "inception_3b/pool"
  type: "Pooling"
  bottom: "inception_3a/output"
  top: "inception_3b/pool"
  pooling_param {
    pool: MAX
    kernel_size: 3
    stride: 1
    pad: 1
  }
}
layer {
  name: "inception_3b/pool_proj"
  type: "Convolution"
  bottom: "inception_3b/pool"
  top: "inception_3b/pool_proj"
  param {
    lr_mult: 1
    decay_mult: 1
  }
  param {
    lr_mult: 2
    decay_mult: 0
  }
  convolution_param {
    num_output: 64
    kernel_size: 1
    weight_filler {
      type: "xavier"
      std: 0.1
    }
    bias_filler {
      type: "constant"
      value: 0.2
    }
  }
}
layer {
  name: "inception_3b/relu_pool_proj"
  type: "ReLU"
  bottom: "inception_3b/pool_proj"
  top: "inception_3b/pool_proj"
}
layer {
  name: "inception_3b/output"
  type: "Concat"
  bottom: "inception_3b/1x1"
  bottom: "inception_3b/3x3"
  bottom: "inception_3b/5x5"
  bottom: "inception_3b/pool_proj"
  top: "inception_3b/output"
}
layer {
  name: "pool3/3x3_s2"
  type: "Pooling"
  bottom: "inception_3b/output"
  top: "pool3/3x3_s2"
  pooling_param {
    pool: MAX
    kernel_size: 3
    stride: 2
  }
}
layer {
  name: "inception_4a/1x1"
  type: "Convolution"
  bottom: "pool3/3x3_s2"
  top: "inception_4a/1x1"
  param {
    lr_mult: 1
    decay_mult: 1
  }
  param {
    lr_mult: 2
    decay_mult: 0
  }
  convolution_param {
    num_output: 192
    kernel_size: 1
    weight_filler {
      type: "xavier"
      std: 0.03
    }
    bias_filler {
      type: "constant"
      value: 0.2
    }
  }
}
layer {
  name: "inception_4a/relu_1x1"
  type: "ReLU"
  bottom: "inception_4a/1x1"
  top: "inception_4a/1x1"
}
layer {
  name: "inception_4a/3x3_reduce"
  type: "Convolution"
  bottom: "pool3/3x3_s2"
  top: "inception_4a/3x3_reduce"
  param {
    lr_mult: 1
    decay_mult: 1
  }
  param {
    lr_mult: 2
    decay_mult: 0
  }
  convolution_param {
    num_output: 96
    kernel_size: 1
    weight_filler {
      type: "xavier"
      std: 0.09
    }
    bias_filler {
      type: "constant"
      value: 0.2
    }
  }
}
layer {
  name: "inception_4a/relu_3x3_reduce"
  type: "ReLU"
  bottom: "inception_4a/3x3_reduce"
  top: "inception_4a/3x3_reduce"
}
layer {
  name: "inception_4a/3x3"
  type: "Convolution"
  bottom: "inception_4a/3x3_reduce"
  top: "inception_4a/3x3"
  param {
    lr_mult: 1
    decay_mult: 1
  }
  param {
    lr_mult: 2
    decay_mult: 0
  }
  convolution_param {
    num_output: 208
    pad: 1
    kernel_size: 3
    weight_filler {
      type: "xavier"
      std: 0.03
    }
    bias_filler {
      type: "constant"
      value: 0.2
    }
  }
}
layer {
  name: "inception_4a/relu_3x3"
  type: "ReLU"
  bottom: "inception_4a/3x3"
  top: "inception_4a/3x3"
}
layer {
  name: "inception_4a/5x5_reduce"
  type: "Convolution"
  bottom: "pool3/3x3_s2"
  top: "inception_4a/5x5_reduce"
  param {
    lr_mult: 1
    decay_mult: 1
  }
  param {
    lr_mult: 2
    decay_mult: 0
  }
  convolution_param {
    num_output: 16
    kernel_size: 1
    weight_filler {
      type: "xavier"
      std: 0.2
    }
    bias_filler {
      type: "constant"
      value: 0.2
    }
  }
}
layer {
  name: "inception_4a/relu_5x5_reduce"
  type: "ReLU"
  bottom: "inception_4a/5x5_reduce"
  top: "inception_4a/5x5_reduce"
}
layer {
  name: "inception_4a/5x5"
  type: "Convolution"
  bottom: "inception_4a/5x5_reduce"
  top: "inception_4a/5x5"
  param {
    lr_mult: 1
    decay_mult: 1
  }
  param {
    lr_mult: 2
    decay_mult: 0
  }
  convolution_param {
    num_output: 48
    pad: 2
    kernel_size: 5
    weight_filler {
      type: "xavier"
      std: 0.03
    }
    bias_filler {
      type: "constant"
      value: 0.2
    }
  }
}
layer {
  name: "inception_4a/relu_5x5"
  type: "ReLU"
  bottom: "inception_4a/5x5"
  top: "inception_4a/5x5"
}
layer {
  name: "inception_4a/pool"
  type: "Pooling"
  bottom: "pool3/3x3_s2"
  top: "inception_4a/pool"
  pooling_param {
    pool: MAX
    kernel_size: 3
    stride: 1
    pad: 1
  }
}
layer {
  name: "inception_4a/pool_proj"
  type: "Convolution"
  bottom: "inception_4a/pool"
  top: "inception_4a/pool_proj"
  param {
    lr_mult: 1
    decay_mult: 1
  }
  param {
    lr_mult: 2
    decay_mult: 0
  }
  convolution_param {
    num_output: 64
    kernel_size: 1
    weight_filler {
      type: "xavier"
      std: 0.1
    }
    bias_filler {
      type: "constant"
      value: 0.2
    }
  }
}
layer {
  name: "inception_4a/relu_pool_proj"
  type: "ReLU"
  bottom: "inception_4a/pool_proj"
  top: "inception_4a/pool_proj"
}
layer {
  name: "inception_4a/output"
  type: "Concat"
  bottom: "inception_4a/1x1"
  bottom: "inception_4a/3x3"
  bottom: "inception_4a/5x5"
  bottom: "inception_4a/pool_proj"
  top: "inception_4a/output"
}
layer {
  name: "inception_4b/1x1"
  type: "Convolution"
  bottom: "inception_4a/output"
  top: "inception_4b/1x1"
  param {
    lr_mult: 1
    decay_mult: 1
  }
  param {
    lr_mult: 2
    decay_mult: 0
  }
  convolution_param {
    num_output: 160
    kernel_size: 1
    weight_filler {
      type: "xavier"
      std: 0.03
    }
    bias_filler {
      type: "constant"
      value: 0.2
    }
  }
}
layer {
  name: "inception_4b/relu_1x1"
  type: "ReLU"
  bottom: "inception_4b/1x1"
  top: "inception_4b/1x1"
}
layer {
  name: "inception_4b/3x3_reduce"
  type: "Convolution"
  bottom: "inception_4a/output"
  top: "inception_4b/3x3_reduce"
  param {
    lr_mult: 1
    decay_mult: 1
  }
  param {
    lr_mult: 2
    decay_mult: 0
  }
  convolution_param {
    num_output: 112
    kernel_size: 1
    weight_filler {
      type: "xavier"
      std: 0.09
    }
    bias_filler {
      type: "constant"
      value: 0.2
    }
  }
}
layer {
  name: "inception_4b/relu_3x3_reduce"
  type: "ReLU"
  bottom: "inception_4b/3x3_reduce"
  top: "inception_4b/3x3_reduce"
}
layer {
  name: "inception_4b/3x3"
  type: "Convolution"
  bottom: "inception_4b/3x3_reduce"
  top: "inception_4b/3x3"
  param {
    lr_mult: 1
    decay_mult: 1
  }
  param {
    lr_mult: 2
    decay_mult: 0
  }
  convolution_param {
    num_output: 224
    pad: 1
    kernel_size: 3
    weight_filler {
      type: "xavier"
      std: 0.03
    }
    bias_filler {
      type: "constant"
      value: 0.2
    }
  }
}
layer {
  name: "inception_4b/relu_3x3"
  type: "ReLU"
  bottom: "inception_4b/3x3"
  top: "inception_4b/3x3"
}
layer {
  name: "inception_4b/5x5_reduce"
  type: "Convolution"
  bottom: "inception_4a/output"
  top: "inception_4b/5x5_reduce"
  param {
    lr_mult: 1
    decay_mult: 1
  }
  param {
    lr_mult: 2
    decay_mult: 0
  }
  convolution_param {
    num_output: 24
    kernel_size: 1
    weight_filler {
      type: "xavier"
      std: 0.2
    }
    bias_filler {
      type: "constant"
      value: 0.2
    }
  }
}
layer {
  name: "inception_4b/relu_5x5_reduce"
  type: "ReLU"
  bottom: "inception_4b/5x5_reduce"
  top: "inception_4b/5x5_reduce"
}
layer {
  name: "inception_4b/5x5"
  type: "Convolution"
  bottom: "inception_4b/5x5_reduce"
  top: "inception_4b/5x5"
  param {
    lr_mult: 1
    decay_mult: 1
  }
  param {
    lr_mult: 2
    decay_mult: 0
  }
  convolution_param {
    num_output: 64
    pad: 2
    kernel_size: 5
    weight_filler {
      type: "xavier"
      std: 0.03
    }
    bias_filler {
      type: "constant"
      value: 0.2
    }
  }
}
layer {
  name: "inception_4b/relu_5x5"
  type: "ReLU"
  bottom: "inception_4b/5x5"
  top: "inception_4b/5x5"
}
layer {
  name: "inception_4b/pool"
  type: "Pooling"
  bottom: "inception_4a/output"
  top: "inception_4b/pool"
  pooling_param {
    pool: MAX
    kernel_size: 3
    stride: 1
    pad: 1
  }
}
layer {
  name: "inception_4b/pool_proj"
  type: "Convolution"
  bottom: "inception_4b/pool"
  top: "inception_4b/pool_proj"
  param {
    lr_mult: 1
    decay_mult: 1
  }
  param {
    lr_mult: 2
    decay_mult: 0
  }
  convolution_param {
    num_output: 64
    kernel_size: 1
    weight_filler {
      type: "xavier"
      std: 0.1
    }
    bias_filler {
      type: "constant"
      value: 0.2
    }
  }
}
layer {
  name: "inception_4b/relu_pool_proj"
  type: "ReLU"
  bottom: "inception_4b/pool_proj"
  top: "inception_4b/pool_proj"
}
layer {
  name: "inception_4b/output"
  type: "Concat"
  bottom: "inception_4b/1x1"
  bottom: "inception_4b/3x3"
  bottom: "inception_4b/5x5"
  bottom: "inception_4b/pool_proj"
  top: "inception_4b/output"
}
layer {
  name: "inception_4c/1x1"
  type: "Convolution"
  bottom: "inception_4b/output"
  top: "inception_4c/1x1"
  param {
    lr_mult: 1
    decay_mult: 1
  }
  param {
    lr_mult: 2
    decay_mult: 0
  }
  convolution_param {
    num_output: 128
    kernel_size: 1
    weight_filler {
      type: "xavier"
      std: 0.03
    }
    bias_filler {
      type: "constant"
      value: 0.2
    }
  }
}
layer {
  name: "inception_4c/relu_1x1"
  type: "ReLU"
  bottom: "inception_4c/1x1"
  top: "inception_4c/1x1"
}
layer {
  name: "inception_4c/3x3_reduce"
  type: "Convolution"
  bottom: "inception_4b/output"
  top: "inception_4c/3x3_reduce"
  param {
    lr_mult: 1
    decay_mult: 1
  }
  param {
    lr_mult: 2
    decay_mult: 0
  }
  convolution_param {
    num_output: 128
    kernel_size: 1
    weight_filler {
      type: "xavier"
      std: 0.09
    }
    bias_filler {
      type: "constant"
      value: 0.2
    }
  }
}
layer {
  name: "inception_4c/relu_3x3_reduce"
  type: "ReLU"
  bottom: "inception_4c/3x3_reduce"
  top: "inception_4c/3x3_reduce"
}
layer {
  name: "inception_4c/3x3"
  type: "Convolution"
  bottom: "inception_4c/3x3_reduce"
  top: "inception_4c/3x3"
  param {
    lr_mult: 1
    decay_mult: 1
  }
  param {
    lr_mult: 2
    decay_mult: 0
  }
  convolution_param {
    num_output: 256
    pad: 1
    kernel_size: 3
    weight_filler {
      type: "xavier"
      std: 0.03
    }
    bias_filler {
      type: "constant"
      value: 0.2
    }
  }
}
layer {
  name: "inception_4c/relu_3x3"
  type: "ReLU"
  bottom: "inception_4c/3x3"
  top: "inception_4c/3x3"
}
layer {
  name: "inception_4c/5x5_reduce"
  type: "Convolution"
  bottom: "inception_4b/output"
  top: "inception_4c/5x5_reduce"
  param {
    lr_mult: 1
    decay_mult: 1
  }
  param {
    lr_mult: 2
    decay_mult: 0
  }
  convolution_param {
    num_output: 24
    kernel_size: 1
    weight_filler {
      type: "xavier"
      std: 0.2
    }
    bias_filler {
      type: "constant"
      value: 0.2
    }
  }
}
layer {
  name: "inception_4c/relu_5x5_reduce"
  type: "ReLU"
  bottom: "inception_4c/5x5_reduce"
  top: "inception_4c/5x5_reduce"
}
layer {
  name: "inception_4c/5x5"
  type: "Convolution"
  bottom: "inception_4c/5x5_reduce"
  top: "inception_4c/5x5"
  param {
    lr_mult: 1
    decay_mult: 1
  }
  param {
    lr_mult: 2
    decay_mult: 0
  }
  convolution_param {
    num_output: 64
    pad: 2
    kernel_size: 5
    weight_filler {
      type: "xavier"
      std: 0.03
    }
    bias_filler {
      type: "constant"
      value: 0.2
    }
  }
}
layer {
  name: "inception_4c/relu_5x5"
  type: "ReLU"
  bottom: "inception_4c/5x5"
  top: "inception_4c/5x5"
}
layer {
  name: "inception_4c/pool"
  type: "Pooling"
  bottom: "inception_4b/output"
  top: "inception_4c/pool"
  pooling_param {
    pool: MAX
    kernel_size: 3
    stride: 1
    pad: 1
  }
}
layer {
  name: "inception_4c/pool_proj"
  type: "Convolution"
  bottom: "inception_4c/pool"
  top: "inception_4c/pool_proj"
  param {
    lr_mult: 1
    decay_mult: 1
  }
  param {
    lr_mult: 2
    decay_mult: 0
  }
  convolution_param {
    num_output: 64
    kernel_size: 1
    weight_filler {
      type: "xavier"
      std: 0.1
    }
    bias_filler {
      type: "constant"
      value: 0.2
    }
  }
}
layer {
  name: "inception_4c/relu_pool_proj"
  type: "ReLU"
  bottom: "inception_4c/pool_proj"
  top: "inception_4c/pool_proj"
}
layer {
  name: "inception_4c/output"
  type: "Concat"
  bottom: "inception_4c/1x1"
  bottom: "inception_4c/3x3"
  bottom: "inception_4c/5x5"
  bottom: "inception_4c/pool_proj"
  top: "inception_4c/output"
}
layer {
  name: "inception_4d/1x1"
  type: "Convolution"
  bottom: "inception_4c/output"
  top: "inception_4d/1x1"
  param {
    lr_mult: 1
    decay_mult: 1
  }
  param {
    lr_mult: 2
    decay_mult: 0
  }
  convolution_param {
    num_output: 112
    kernel_size: 1
    weight_filler {
      type: "xavier"
      std: 0.03
    }
    bias_filler {
      type: "constant"
      value: 0.2
    }
  }
}
layer {
  name: "inception_4d/relu_1x1"
  type: "ReLU"
  bottom: "inception_4d/1x1"
  top: "inception_4d/1x1"
}
layer {
  name: "inception_4d/3x3_reduce"
  type: "Convolution"
  bottom: "inception_4c/output"
  top: "inception_4d/3x3_reduce"
  param {
    lr_mult: 1
    decay_mult: 1
  }
  param {
    lr_mult: 2
    decay_mult: 0
  }
  convolution_param {
    num_output: 144
    kernel_size: 1
    weight_filler {
      type: "xavier"
      std: 0.09
    }
    bias_filler {
      type: "constant"
      value: 0.2
    }
  }
}
layer {
  name: "inception_4d/relu_3x3_reduce"
  type: "ReLU"
  bottom: "inception_4d/3x3_reduce"
  top: "inception_4d/3x3_reduce"
}
layer {
  name: "inception_4d/3x3"
  type: "Convolution"
  bottom: "inception_4d/3x3_reduce"
  top: "inception_4d/3x3"
  param {
    lr_mult: 1
    decay_mult: 1
  }
  param {
    lr_mult: 2
    decay_mult: 0
  }
  convolution_param {
    num_output: 288
    pad: 1
    kernel_size: 3
    weight_filler {
      type: "xavier"
      std: 0.03
    }
    bias_filler {
      type: "constant"
      value: 0.2
    }
  }
}
layer {
  name: "inception_4d/relu_3x3"
  type: "ReLU"
  bottom: "inception_4d/3x3"
  top: "inception_4d/3x3"
}
layer {
  name: "inception_4d/5x5_reduce"
  type: "Convolution"
  bottom: "inception_4c/output"
  top: "inception_4d/5x5_reduce"
  param {
    lr_mult: 1
    decay_mult: 1
  }
  param {
    lr_mult: 2
    decay_mult: 0
  }
  convolution_param {
    num_output: 32
    kernel_size: 1
    weight_filler {
      type: "xavier"
      std: 0.2
    }
    bias_filler {
      type: "constant"
      value: 0.2
    }
  }
}
layer {
  name: "inception_4d/relu_5x5_reduce"
  type: "ReLU"
  bottom: "inception_4d/5x5_reduce"
  top: "inception_4d/5x5_reduce"
}
layer {
  name: "inception_4d/5x5"
  type: "Convolution"
  bottom: "inception_4d/5x5_reduce"
  top: "inception_4d/5x5"
  param {
    lr_mult: 1
    decay_mult: 1
  }
  param {
    lr_mult: 2
    decay_mult: 0
  }
  convolution_param {
    num_output: 64
    pad: 2
    kernel_size: 5
    weight_filler {
      type: "xavier"
      std: 0.03
    }
    bias_filler {
      type: "constant"
      value: 0.2
    }
  }
}
layer {
  name: "inception_4d/relu_5x5"
  type: "ReLU"
  bottom: "inception_4d/5x5"
  top: "inception_4d/5x5"
}
layer {
  name: "inception_4d/pool"
  type: "Pooling"
  bottom: "inception_4c/output"
  top: "inception_4d/pool"
  pooling_param {
    pool: MAX
    kernel_size: 3
    stride: 1
    pad: 1
  }
}
layer {
  name: "inception_4d/pool_proj"
  type: "Convolution"
  bottom: "inception_4d/pool"
  top: "inception_4d/pool_proj"
  param {
    lr_mult: 1
    decay_mult: 1
  }
  param {
    lr_mult: 2
    decay_mult: 0
  }
  convolution_param {
    num_output: 64
    kernel_size: 1
    weight_filler {
      type: "xavier"
      std: 0.1
    }
    bias_filler {
      type: "constant"
      value: 0.2
    }
  }
}
layer {
  name: "inception_4d/relu_pool_proj"
  type: "ReLU"
  bottom: "inception_4d/pool_proj"
  top: "inception_4d/pool_proj"
}
layer {
  name: "inception_4d/output"
  type: "Concat"
  bottom: "inception_4d/1x1"
  bottom: "inception_4d/3x3"
  bottom: "inception_4d/5x5"
  bottom: "inception_4d/pool_proj"
  top: "inception_4d/output"
}
layer {
  name: "inception_4e/1x1"
  type: "Convolution"
  bottom: "inception_4d/output"
  top: "inception_4e/1x1"
  param {
    lr_mult: 1
    decay_mult: 1
  }
  param {
    lr_mult: 2
    decay_mult: 0
  }
  convolution_param {
    num_output: 256
    kernel_size: 1
    weight_filler {
      type: "xavier"
      std: 0.03
    }
    bias_filler {
      type: "constant"
      value: 0.2
    }
  }
}
layer {
  name: "inception_4e/relu_1x1"
  type: "ReLU"
  bottom: "inception_4e/1x1"
  top: "inception_4e/1x1"
}
layer {
  name: "inception_4e/3x3_reduce"
  type: "Convolution"
  bottom: "inception_4d/output"
  top: "inception_4e/3x3_reduce"
  param {
    lr_mult: 1
    decay_mult: 1
  }
  param {
    lr_mult: 2
    decay_mult: 0
  }
  convolution_param {
    num_output: 160
    kernel_size: 1
    weight_filler {
      type: "xavier"
      std: 0.09
    }
    bias_filler {
      type: "constant"
      value: 0.2
    }
  }
}
layer {
  name: "inception_4e/relu_3x3_reduce"
  type: "ReLU"
  bottom: "inception_4e/3x3_reduce"
  top: "inception_4e/3x3_reduce"
}
layer {
  name: "inception_4e/3x3"
  type: "Convolution"
  bottom: "inception_4e/3x3_reduce"
  top: "inception_4e/3x3"
  param {
    lr_mult: 1
    decay_mult: 1
  }
  param {
    lr_mult: 2
    decay_mult: 0
  }
  convolution_param {
    num_output: 320
    pad: 1
    kernel_size: 3
    weight_filler {
      type: "xavier"
      std: 0.03
    }
    bias_filler {
      type: "constant"
      value: 0.2
    }
  }
}
layer {
  name: "inception_4e/relu_3x3"
  type: "ReLU"
  bottom: "inception_4e/3x3"
  top: "inception_4e/3x3"
}
layer {
  name: "inception_4e/5x5_reduce"
  type: "Convolution"
  bottom: "inception_4d/output"
  top: "inception_4e/5x5_reduce"
  param {
    lr_mult: 1
    decay_mult: 1
  }
  param {
    lr_mult: 2
    decay_mult: 0
  }
  convolution_param {
    num_output: 32
    kernel_size: 1
    weight_filler {
      type: "xavier"
      std: 0.2
    }
    bias_filler {
      type: "constant"
      value: 0.2
    }
  }
}
layer {
  name: "inception_4e/relu_5x5_reduce"
  type: "ReLU"
  bottom: "inception_4e/5x5_reduce"
  top: "inception_4e/5x5_reduce"
}
layer {
  name: "inception_4e/5x5"
  type: "Convolution"
  bottom: "inception_4e/5x5_reduce"
  top: "inception_4e/5x5"
  param {
    lr_mult: 1
    decay_mult: 1
  }
  param {
    lr_mult: 2
    decay_mult: 0
  }
  convolution_param {
    num_output: 128
    pad: 2
    kernel_size: 5
    weight_filler {
      type: "xavier"
      std: 0.03
    }
    bias_filler {
      type: "constant"
      value: 0.2
    }
  }
}
layer {
  name: "inception_4e/relu_5x5"
  type: "ReLU"
  bottom: "inception_4e/5x5"
  top: "inception_4e/5x5"
}
layer {
  name: "inception_4e/pool"
  type: "Pooling"
  bottom: "inception_4d/output"
  top: "inception_4e/pool"
  pooling_param {
    pool: MAX
    kernel_size: 3
    stride: 1
    pad: 1
  }
}
layer {
  name: "inception_4e/pool_proj"
  type: "Convolution"
  bottom: "inception_4e/pool"
  top: "inception_4e/pool_proj"
  param {
    lr_mult: 1
    decay_mult: 1
  }
  param {
    lr_mult: 2
    decay_mult: 0
  }
  convolution_param {
    num_output: 128
    kernel_size: 1
    weight_filler {
      type: "xavier"
      std: 0.1
    }
    bias_filler {
      type: "constant"
      value: 0.2
    }
  }
}
layer {
  name: "inception_4e/relu_pool_proj"
  type: "ReLU"
  bottom: "inception_4e/pool_proj"
  top: "inception_4e/pool_proj"
}
layer {
  name: "inception_4e/output"
  type: "Concat"
  bottom: "inception_4e/1x1"
  bottom: "inception_4e/3x3"
  bottom: "inception_4e/5x5"
  bottom: "inception_4e/pool_proj"
  top: "inception_4e/output"
}
layer {
  name: "pool4/3x3_s2"
  type: "Pooling"
  bottom: "inception_4e/output"
  top: "pool4/3x3_s2"
  pooling_param {
    pool: MAX
    kernel_size: 3
    stride: 2
  }
}
layer {
  name: "inception_5a/1x1"
  type: "Convolution"
  bottom: "pool4/3x3_s2"
  top: "inception_5a/1x1"
  param {
    lr_mult: 1
    decay_mult: 1
  }
  param {
    lr_mult: 2
    decay_mult: 0
  }
  convolution_param {
    num_output: 256
    kernel_size: 1
    weight_filler {
      type: "xavier"
      std: 0.03
    }
    bias_filler {
      type: "constant"
      value: 0.2
    }
  }
}
layer {
  name: "inception_5a/relu_1x1"
  type: "ReLU"
  bottom: "inception_5a/1x1"
  top: "inception_5a/1x1"
}
layer {
  name: "inception_5a/3x3_reduce"
  type: "Convolution"
  bottom: "pool4/3x3_s2"
  top: "inception_5a/3x3_reduce"
  param {
    lr_mult: 1
    decay_mult: 1
  }
  param {
    lr_mult: 2
    decay_mult: 0
  }
  convolution_param {
    num_output: 160
    kernel_size: 1
    weight_filler {
      type: "xavier"
      std: 0.09
    }
    bias_filler {
      type: "constant"
      value: 0.2
    }
  }
}
layer {
  name: "inception_5a/relu_3x3_reduce"
  type: "ReLU"
  bottom: "inception_5a/3x3_reduce"
  top: "inception_5a/3x3_reduce"
}
layer {
  name: "inception_5a/3x3"
  type: "Convolution"
  bottom: "inception_5a/3x3_reduce"
  top: "inception_5a/3x3"
  param {
    lr_mult: 1
    decay_mult: 1
  }
  param {
    lr_mult: 2
    decay_mult: 0
  }
  convolution_param {
    num_output: 320
    pad: 1
    kernel_size: 3
    weight_filler {
      type: "xavier"
      std: 0.03
    }
    bias_filler {
      type: "constant"
      value: 0.2
    }
  }
}
layer {
  name: "inception_5a/relu_3x3"
  type: "ReLU"
  bottom: "inception_5a/3x3"
  top: "inception_5a/3x3"
}
layer {
  name: "inception_5a/5x5_reduce"
  type: "Convolution"
  bottom: "pool4/3x3_s2"
  top: "inception_5a/5x5_reduce"
  param {
    lr_mult: 1
    decay_mult: 1
  }
  param {
    lr_mult: 2
    decay_mult: 0
  }
  convolution_param {
    num_output: 32
    kernel_size: 1
    weight_filler {
      type: "xavier"
      std: 0.2
    }
    bias_filler {
      type: "constant"
      value: 0.2
    }
I0729 17:00:22.734174 19213 net.cpp:141] Setting up inception_4b/pool_proj
I0729 17:00:22.838001 19213 net.cpp:148] Top shape: 10 64 14 14 (125440)
I0729 17:00:22.838024 19213 net.cpp:156] Memory required for data: 403289600
I0729 17:00:22.838047 19213 layer_factory.hpp:77] Creating layer inception_4b/relu_pool_proj
I0729 17:00:22.838079 19213 net.cpp:91] Creating Layer inception_4b/relu_pool_proj
I0729 17:00:22.838093 19213 net.cpp:425] inception_4b/relu_pool_proj <- inception_4b/pool_proj
I0729 17:00:22.838109 19213 net.cpp:386] inception_4b/relu_pool_proj -> inception_4b/pool_proj (in-place)
I0729 17:00:22.840240 19213 net.cpp:141] Setting up inception_4b/relu_pool_proj
I0729 17:00:22.840276 19213 net.cpp:148] Top shape: 10 64 14 14 (125440)
I0729 17:00:22.840287 19213 net.cpp:156] Memory required for data: 403791360
I0729 17:00:22.840301 19213 layer_factory.hpp:77] Creating layer inception_4b/output
I0729 17:00:22.840327 19213 net.cpp:91] Creating Layer inception_4b/output
I0729 17:00:22.840342 19213 net.cpp:425] inception_4b/output <- inception_4b/1x1
I0729 17:00:22.840358 19213 net.cpp:425] inception_4b/output <- inception_4b/3x3
I0729 17:00:22.840371 19213 net.cpp:425] inception_4b/output <- inception_4b/5x5
I0729 17:00:22.840384 19213 net.cpp:425] inception_4b/output <- inception_4b/pool_proj
I0729 17:00:22.840399 19213 net.cpp:399] inception_4b/output -> inception_4b/output
I0729 17:00:22.840546 19213 net.cpp:141] Setting up inception_4b/output
I0729 17:00:22.840564 19213 net.cpp:148] Top shape: 10 512 14 14 (1003520)
I0729 17:00:22.840574 19213 net.cpp:156] Memory required for data: 407805440
I0729 17:00:22.840584 19213 layer_factory.hpp:77] Creating layer inception_4b/output_inception_4b/output_0_split
I0729 17:00:22.840608 19213 net.cpp:91] Creating Layer inception_4b/output_inception_4b/output_0_split
I0729 17:00:22.840622 19213 net.cpp:425] inception_4b/output_inception_4b/output_0_split <- inception_4b/output
I0729 17:00:22.840641 19213 net.cpp:399] inception_4b/output_inception_4b/output_0_split -> inception_4b/output_inception_4b/output_0_split_0
I0729 17:00:22.840662 19213 net.cpp:399] inception_4b/output_inception_4b/output_0_split -> inception_4b/output_inception_4b/output_0_split_1
I0729 17:00:22.840682 19213 net.cpp:399] inception_4b/output_inception_4b/output_0_split -> inception_4b/output_inception_4b/output_0_split_2
I0729 17:00:22.840698 19213 net.cpp:399] inception_4b/output_inception_4b/output_0_split -> inception_4b/output_inception_4b/output_0_split_3
I0729 17:00:22.840975 19213 net.cpp:141] Setting up inception_4b/output_inception_4b/output_0_split
I0729 17:00:22.840994 19213 net.cpp:148] Top shape: 10 512 14 14 (1003520)
I0729 17:00:22.841007 19213 net.cpp:148] Top shape: 10 512 14 14 (1003520)
I0729 17:00:22.841019 19213 net.cpp:148] Top shape: 10 512 14 14 (1003520)
I0729 17:00:22.841032 19213 net.cpp:148] Top shape: 10 512 14 14 (1003520)
I0729 17:00:22.841040 19213 net.cpp:156] Memory required for data: 423861760
I0729 17:00:22.841051 19213 layer_factory.hpp:77] Creating layer inception_4c/1x1
I0729 17:00:22.841084 19213 net.cpp:91] Creating Layer inception_4c/1x1
I0729 17:00:22.841104 19213 net.cpp:425] inception_4c/1x1 <- inception_4b/output_inception_4b/output_0_split_0
I0729 17:00:22.841125 19213 net.cpp:399] inception_4c/1x1 -> inception_4c/1x1
I0729 17:00:22.831683 19209 layer_factory.hpp:77] Creating layer data
I0729 17:00:22.846276 19209 net.cpp:91] Creating Layer data
I0729 17:00:22.846307 19209 net.cpp:399] data -> data
I0729 17:00:22.861855 19213 net.cpp:141] Setting up inception_4c/1x1
I0729 17:00:22.861901 19213 net.cpp:148] Top shape: 10 128 14 14 (250880)
I0729 17:00:22.861909 19213 net.cpp:156] Memory required for data: 424865280
I0729 17:00:22.861928 19213 layer_factory.hpp:77] Creating layer inception_4c/relu_1x1
I0729 17:00:22.861949 19213 net.cpp:91] Creating Layer inception_4c/relu_1x1
I0729 17:00:22.861959 19213 net.cpp:425] inception_4c/relu_1x1 <- inception_4c/1x1
I0729 17:00:22.861976 19213 net.cpp:386] inception_4c/relu_1x1 -> inception_4c/1x1 (in-place)
I0729 17:00:22.862457 19213 net.cpp:141] Setting up inception_4c/relu_1x1
I0729 17:00:22.862474 19213 net.cpp:148] Top shape: 10 128 14 14 (250880)
I0729 17:00:22.862481 19213 net.cpp:156] Memory required for data: 425868800
I0729 17:00:22.862489 19213 layer_factory.hpp:77] Creating layer inception_4c/3x3_reduce
I0729 17:00:22.862558 19213 net.cpp:91] Creating Layer inception_4c/3x3_reduce
I0729 17:00:22.862571 19213 net.cpp:425] inception_4c/3x3_reduce <- inception_4b/output_inception_4b/output_0_split_1
I0729 17:00:22.862586 19213 net.cpp:399] inception_4c/3x3_reduce -> inception_4c/3x3_reduce
I0729 17:00:22.888491 19213 net.cpp:141] Setting up inception_4c/3x3_reduce
I0729 17:00:22.888531 19213 net.cpp:148] Top shape: 10 128 14 14 (250880)
I0729 17:00:22.888537 19213 net.cpp:156] Memory required for data: 426872320
I0729 17:00:22.888555 19213 layer_factory.hpp:77] Creating layer inception_4c/relu_3x3_reduce
I0729 17:00:22.888571 19213 net.cpp:91] Creating Layer inception_4c/relu_3x3_reduce
I0729 17:00:22.888581 19213 net.cpp:425] inception_4c/relu_3x3_reduce <- inception_4c/3x3_reduce
I0729 17:00:22.888594 19213 net.cpp:386] inception_4c/relu_3x3_reduce -> inception_4c/3x3_reduce (in-place)
I0729 17:00:22.888921 19213 net.cpp:141] Setting up inception_4c/relu_3x3_reduce
I0729 17:00:22.888937 19213 net.cpp:148] Top shape: 10 128 14 14 (250880)
I0729 17:00:22.888942 19213 net.cpp:156] Memory required for data: 427875840
I0729 17:00:22.888947 19213 layer_factory.hpp:77] Creating layer inception_4c/3x3
I0729 17:00:22.888967 19213 net.cpp:91] Creating Layer inception_4c/3x3
I0729 17:00:22.888973 19213 net.cpp:425] inception_4c/3x3 <- inception_4c/3x3_reduce
I0729 17:00:22.888984 19213 net.cpp:399] inception_4c/3x3 -> inception_4c/3x3
I0729 17:00:22.929250 19213 net.cpp:141] Setting up inception_4c/3x3
I0729 17:00:22.929297 19213 net.cpp:148] Top shape: 10 256 14 14 (501760)
I0729 17:00:22.929308 19213 net.cpp:156] Memory required for data: 429882880
I0729 17:00:22.929330 19213 layer_factory.hpp:77] Creating layer inception_4c/relu_3x3
I0729 17:00:22.929358 19213 net.cpp:91] Creating Layer inception_4c/relu_3x3
I0729 17:00:22.929373 19213 net.cpp:425] inception_4c/relu_3x3 <- inception_4c/3x3
I0729 17:00:22.929389 19213 net.cpp:386] inception_4c/relu_3x3 -> inception_4c/3x3 (in-place)
I0729 17:00:22.931407 19213 net.cpp:141] Setting up inception_4c/relu_3x3
I0729 17:00:22.931435 19213 net.cpp:148] Top shape: 10 256 14 14 (501760)
I0729 17:00:22.931445 19213 net.cpp:156] Memory required for data: 431889920
I0729 17:00:22.931455 19213 layer_factory.hpp:77] Creating layer inception_4c/5x5_reduce
I0729 17:00:22.931500 19213 net.cpp:91] Creating Layer inception_4c/5x5_reduce
I0729 17:00:22.931514 19213 net.cpp:425] inception_4c/5x5_reduce <- inception_4b/output_inception_4b/output_0_split_2
I0729 17:00:22.931534 19213 net.cpp:399] inception_4c/5x5_reduce -> inception_4c/5x5_reduce
I0729 17:00:22.947042 19213 net.cpp:141] Setting up inception_4c/5x5_reduce
I0729 17:00:22.947099 19213 net.cpp:148] Top shape: 10 24 14 14 (47040)
I0729 17:00:22.947110 19213 net.cpp:156] Memory required for data: 432078080
I0729 17:00:22.947134 19213 layer_factory.hpp:77] Creating layer inception_4c/relu_5x5_reduce
I0729 17:00:22.947156 19213 net.cpp:91] Creating Layer inception_4c/relu_5x5_reduce
I0729 17:00:22.947170 19213 net.cpp:425] inception_4c/relu_5x5_reduce <- inception_4c/5x5_reduce
I0729 17:00:22.947187 19213 net.cpp:386] inception_4c/relu_5x5_reduce -> inception_4c/5x5_reduce (in-place)
I0729 17:00:22.947650 19213 net.cpp:141] Setting up inception_4c/relu_5x5_reduce
I0729 17:00:22.947666 19213 net.cpp:148] Top shape: 10 24 14 14 (47040)
I0729 17:00:22.947674 19213 net.cpp:156] Memory required for data: 432266240
I0729 17:00:22.947682 19213 layer_factory.hpp:77] Creating layer inception_4c/5x5
I0729 17:00:22.947715 19213 net.cpp:91] Creating Layer inception_4c/5x5
I0729 17:00:22.947726 19213 net.cpp:425] inception_4c/5x5 <- inception_4c/5x5_reduce
I0729 17:00:22.947739 19213 net.cpp:399] inception_4c/5x5 -> inception_4c/5x5
I0729 17:00:22.962430 19213 net.cpp:141] Setting up inception_4c/5x5
I0729 17:00:22.962476 19213 net.cpp:148] Top shape: 10 64 14 14 (125440)
I0729 17:00:22.962486 19213 net.cpp:156] Memory required for data: 432768000
I0729 17:00:22.962507 19213 layer_factory.hpp:77] Creating layer inception_4c/relu_5x5
I0729 17:00:22.962535 19213 net.cpp:91] Creating Layer inception_4c/relu_5x5
I0729 17:00:22.962548 19213 net.cpp:425] inception_4c/relu_5x5 <- inception_4c/5x5
I0729 17:00:22.962564 19213 net.cpp:386] inception_4c/relu_5x5 -> inception_4c/5x5 (in-place)
I0729 17:00:22.962977 19213 net.cpp:141] Setting up inception_4c/relu_5x5
I0729 17:00:22.962996 19213 net.cpp:148] Top shape: 10 64 14 14 (125440)
I0729 17:00:22.963003 19213 net.cpp:156] Memory required for data: 433269760
I0729 17:00:22.963011 19213 layer_factory.hpp:77] Creating layer inception_4c/pool
I0729 17:00:22.963027 19213 net.cpp:91] Creating Layer inception_4c/pool
I0729 17:00:22.963037 19213 net.cpp:425] inception_4c/pool <- inception_4b/output_inception_4b/output_0_split_3
I0729 17:00:22.963058 19213 net.cpp:399] inception_4c/pool -> inception_4c/pool
I0729 17:00:22.974380 19213 net.cpp:141] Setting up inception_4c/pool
I0729 17:00:22.974428 19213 net.cpp:148] Top shape: 10 512 14 14 (1003520)
I0729 17:00:22.974438 19213 net.cpp:156] Memory required for data: 437283840
I0729 17:00:22.974452 19213 layer_factory.hpp:77] Creating layer inception_4c/pool_proj
I0729 17:00:22.974494 19213 net.cpp:91] Creating Layer inception_4c/pool_proj
I0729 17:00:22.974510 19213 net.cpp:425] inception_4c/pool_proj <- inception_4c/pool
I0729 17:00:22.974534 19213 net.cpp:399] inception_4c/pool_proj -> inception_4c/pool_proj
I0729 17:00:22.995429 19213 net.cpp:141] Setting up inception_4c/pool_proj
I0729 17:00:22.995474 19213 net.cpp:148] Top shape: 10 64 14 14 (125440)
I0729 17:00:22.995484 19213 net.cpp:156] Memory required for data: 437785600
I0729 17:00:22.995548 19213 layer_factory.hpp:77] Creating layer inception_4c/relu_pool_proj
I0729 17:00:22.995589 19213 net.cpp:91] Creating Layer inception_4c/relu_pool_proj
I0729 17:00:22.995604 19213 net.cpp:425] inception_4c/relu_pool_proj <- inception_4c/pool_proj
I0729 17:00:22.995618 19213 net.cpp:386] inception_4c/relu_pool_proj -> inception_4c/pool_proj (in-place)
I0729 17:00:22.997690 19213 net.cpp:141] Setting up inception_4c/relu_pool_proj
I0729 17:00:22.997727 19213 net.cpp:148] Top shape: 10 64 14 14 (125440)
I0729 17:00:22.997736 19213 net.cpp:156] Memory required for data: 438287360
I0729 17:00:22.997747 19213 layer_factory.hpp:77] Creating layer inception_4c/output
I0729 17:00:22.997771 19213 net.cpp:91] Creating Layer inception_4c/output
I0729 17:00:22.997784 19213 net.cpp:425] inception_4c/output <- inception_4c/1x1
I0729 17:00:22.997797 19213 net.cpp:425] inception_4c/output <- inception_4c/3x3
I0729 17:00:22.997807 19213 net.cpp:425] inception_4c/output <- inception_4c/5x5
I0729 17:00:22.997817 19213 net.cpp:425] inception_4c/output <- inception_4c/pool_proj
I0729 17:00:22.997828 19213 net.cpp:399] inception_4c/output -> inception_4c/output
I0729 17:00:23.007454 19213 net.cpp:141] Setting up inception_4c/output
I0729 17:00:23.007508 19213 net.cpp:148] Top shape: 10 512 14 14 (1003520)
I0729 17:00:23.007519 19213 net.cpp:156] Memory required for data: 442301440
I0729 17:00:23.007531 19213 layer_factory.hpp:77] Creating layer inception_4c/output_inception_4c/output_0_split
I0729 17:00:23.007563 19213 net.cpp:91] Creating Layer inception_4c/output_inception_4c/output_0_split
I0729 17:00:23.007577 19213 net.cpp:425] inception_4c/output_inception_4c/output_0_split <- inception_4c/output
I0729 17:00:23.007598 19213 net.cpp:399] inception_4c/output_inception_4c/output_0_split -> inception_4c/output_inception_4c/output_0_split_0
I0729 17:00:23.007622 19213 net.cpp:399] inception_4c/output_inception_4c/output_0_split -> inception_4c/output_inception_4c/output_0_split_1
I0729 17:00:23.007635 19213 net.cpp:399] inception_4c/output_inception_4c/output_0_split -> inception_4c/output_inception_4c/output_0_split_2
I0729 17:00:23.007649 19213 net.cpp:399] inception_4c/output_inception_4c/output_0_split -> inception_4c/output_inception_4c/output_0_split_3
I0729 17:00:23.008013 19213 net.cpp:141] Setting up inception_4c/output_inception_4c/output_0_split
I0729 17:00:23.008029 19213 net.cpp:148] Top shape: 10 512 14 14 (1003520)
I0729 17:00:23.008039 19213 net.cpp:148] Top shape: 10 512 14 14 (1003520)
I0729 17:00:23.008049 19213 net.cpp:148] Top shape: 10 512 14 14 (1003520)
I0729 17:00:23.008059 19213 net.cpp:148] Top shape: 10 512 14 14 (1003520)
I0729 17:00:23.008065 19213 net.cpp:156] Memory required for data: 458357760
I0729 17:00:23.008072 19213 layer_factory.hpp:77] Creating layer inception_4d/1x1
I0729 17:00:23.008103 19213 net.cpp:91] Creating Layer inception_4d/1x1
I0729 17:00:23.008114 19213 net.cpp:425] inception_4d/1x1 <- inception_4c/output_inception_4c/output_0_split_0
I0729 17:00:23.008132 19213 net.cpp:399] inception_4d/1x1 -> inception_4d/1x1
I0729 17:00:23.039532 19213 net.cpp:141] Setting up inception_4d/1x1
I0729 17:00:23.039587 19213 net.cpp:148] Top shape: 10 112 14 14 (219520)
I0729 17:00:23.039597 19213 net.cpp:156] Memory required for data: 459235840
I0729 17:00:23.039618 19213 layer_factory.hpp:77] Creating layer inception_4d/relu_1x1
I0729 17:00:23.039640 19213 net.cpp:91] Creating Layer inception_4d/relu_1x1
I0729 17:00:23.039654 19213 net.cpp:425] inception_4d/relu_1x1 <- inception_4d/1x1
I0729 17:00:23.039674 19213 net.cpp:386] inception_4d/relu_1x1 -> inception_4d/1x1 (in-place)
I0729 17:00:23.040135 19213 net.cpp:141] Setting up inception_4d/relu_1x1
I0729 17:00:23.040153 19213 net.cpp:148] Top shape: 10 112 14 14 (219520)
I0729 17:00:23.040160 19213 net.cpp:156] Memory required for data: 460113920
I0729 17:00:23.040169 19213 layer_factory.hpp:77] Creating layer inception_4d/3x3_reduce
I0729 17:00:23.040197 19213 net.cpp:91] Creating Layer inception_4d/3x3_reduce
I0729 17:00:23.040208 19213 net.cpp:425] inception_4d/3x3_reduce <- inception_4c/output_inception_4c/output_0_split_1
I0729 17:00:23.040227 19213 net.cpp:399] inception_4d/3x3_reduce -> inception_4d/3x3_reduce
I0729 17:00:23.066447 19213 net.cpp:141] Setting up inception_4d/3x3_reduce
I0729 17:00:23.066501 19213 net.cpp:148] Top shape: 10 144 14 14 (282240)
I0729 17:00:23.066512 19213 net.cpp:156] Memory required for data: 461242880
I0729 17:00:23.066534 19213 layer_factory.hpp:77] Creating layer inception_4d/relu_3x3_reduce
I0729 17:00:23.066561 19213 net.cpp:91] Creating Layer inception_4d/relu_3x3_reduce
I0729 17:00:23.066575 19213 net.cpp:425] inception_4d/relu_3x3_reduce <- inception_4d/3x3_reduce
I0729 17:00:23.066591 19213 net.cpp:386] inception_4d/relu_3x3_reduce -> inception_4d/3x3_reduce (in-place)
I0729 17:00:23.067060 19213 net.cpp:141] Setting up inception_4d/relu_3x3_reduce
I0729 17:00:23.067077 19213 net.cpp:148] Top shape: 10 144 14 14 (282240)
I0729 17:00:23.067085 19213 net.cpp:156] Memory required for data: 462371840
I0729 17:00:23.067093 19213 layer_factory.hpp:77] Creating layer inception_4d/3x3
I0729 17:00:23.067138 19213 net.cpp:91] Creating Layer inception_4d/3x3
I0729 17:00:23.067150 19213 net.cpp:425] inception_4d/3x3 <- inception_4d/3x3_reduce
I0729 17:00:23.067165 19213 net.cpp:399] inception_4d/3x3 -> inception_4d/3x3
I0729 17:00:23.122303 19213 net.cpp:141] Setting up inception_4d/3x3
I0729 17:00:23.122354 19213 net.cpp:148] Top shape: 10 288 14 14 (564480)
I0729 17:00:23.122364 19213 net.cpp:156] Memory required for data: 464629760
I0729 17:00:23.122383 19213 layer_factory.hpp:77] Creating layer inception_4d/relu_3x3
I0729 17:00:23.122405 19213 net.cpp:91] Creating Layer inception_4d/relu_3x3
I0729 17:00:23.122416 19213 net.cpp:425] inception_4d/relu_3x3 <- inception_4d/3x3
I0729 17:00:23.122437 19213 net.cpp:386] inception_4d/relu_3x3 -> inception_4d/3x3 (in-place)
I0729 17:00:23.124956 19213 net.cpp:141] Setting up inception_4d/relu_3x3
I0729 17:00:23.124995 19213 net.cpp:148] Top shape: 10 288 14 14 (564480)
I0729 17:00:23.125005 19213 net.cpp:156] Memory required for data: 466887680
I0729 17:00:23.125016 19213 layer_factory.hpp:77] Creating layer inception_4d/5x5_reduce
I0729 17:00:23.125435 19213 net.cpp:91] Creating Layer inception_4d/5x5_reduce
I0729 17:00:23.125458 19213 net.cpp:425] inception_4d/5x5_reduce <- inception_4c/output_inception_4c/output_0_split_2
I0729 17:00:23.125483 19213 net.cpp:399] inception_4d/5x5_reduce -> inception_4d/5x5_reduce
I0729 17:00:23.149421 19213 net.cpp:141] Setting up inception_4d/5x5_reduce
I0729 17:00:23.149473 19213 net.cpp:148] Top shape: 10 32 14 14 (62720)
I0729 17:00:23.149483 19213 net.cpp:156] Memory required for data: 467138560
I0729 17:00:23.149504 19213 layer_factory.hpp:77] Creating layer inception_4d/relu_5x5_reduce
I0729 17:00:23.149528 19213 net.cpp:91] Creating Layer inception_4d/relu_5x5_reduce
I0729 17:00:23.149540 19213 net.cpp:425] inception_4d/relu_5x5_reduce <- inception_4d/5x5_reduce
I0729 17:00:23.149571 19213 net.cpp:386] inception_4d/relu_5x5_reduce -> inception_4d/5x5_reduce (in-place)
I0729 17:00:23.150053 19213 net.cpp:141] Setting up inception_4d/relu_5x5_reduce
I0729 17:00:23.150069 19213 net.cpp:148] Top shape: 10 32 14 14 (62720)
I0729 17:00:23.150076 19213 net.cpp:156] Memory required for data: 467389440
I0729 17:00:23.150084 19213 layer_factory.hpp:77] Creating layer inception_4d/5x5
I0729 17:00:23.150122 19213 net.cpp:91] Creating Layer inception_4d/5x5
I0729 17:00:23.150135 19213 net.cpp:425] inception_4d/5x5 <- inception_4d/5x5_reduce
I0729 17:00:23.150151 19213 net.cpp:399] inception_4d/5x5 -> inception_4d/5x5
I0729 17:00:23.171180 19213 net.cpp:141] Setting up inception_4d/5x5
I0729 17:00:23.171228 19213 net.cpp:148] Top shape: 10 64 14 14 (125440)
I0729 17:00:23.171241 19213 net.cpp:156] Memory required for data: 467891200
I0729 17:00:23.171263 19213 layer_factory.hpp:77] Creating layer inception_4d/relu_5x5
I0729 17:00:23.171294 19213 net.cpp:91] Creating Layer inception_4d/relu_5x5
I0729 17:00:23.171308 19213 net.cpp:425] inception_4d/relu_5x5 <- inception_4d/5x5
I0729 17:00:23.171324 19213 net.cpp:386] inception_4d/relu_5x5 -> inception_4d/5x5 (in-place)
I0729 17:00:23.171839 19213 net.cpp:141] Setting up inception_4d/relu_5x5
I0729 17:00:23.171855 19213 net.cpp:148] Top shape: 10 64 14 14 (125440)
I0729 17:00:23.171862 19213 net.cpp:156] Memory required for data: 468392960
I0729 17:00:23.171870 19213 layer_factory.hpp:77] Creating layer inception_4d/pool
I0729 17:00:23.171891 19213 net.cpp:91] Creating Layer inception_4d/pool
I0729 17:00:23.171901 19213 net.cpp:425] inception_4d/pool <- inception_4c/output_inception_4c/output_0_split_3
I0729 17:00:23.171916 19213 net.cpp:399] inception_4d/pool -> inception_4d/pool
I0729 17:00:23.172926 19213 net.cpp:141] Setting up inception_4d/pool
I0729 17:00:23.172945 19213 net.cpp:148] Top shape: 10 512 14 14 (1003520)
I0729 17:00:23.172951 19213 net.cpp:156] Memory required for data: 472407040
I0729 17:00:23.172958 19213 layer_factory.hpp:77] Creating layer inception_4d/pool_proj
I0729 17:00:23.172994 19213 net.cpp:91] Creating Layer inception_4d/pool_proj
I0729 17:00:23.173004 19213 net.cpp:425] inception_4d/pool_proj <- inception_4d/pool
I0729 17:00:23.173019 19213 net.cpp:399] inception_4d/pool_proj -> inception_4d/pool_proj
I0729 17:00:23.196472 19213 net.cpp:141] Setting up inception_4d/pool_proj
I0729 17:00:23.196524 19213 net.cpp:148] Top shape: 10 64 14 14 (125440)
I0729 17:00:23.196535 19213 net.cpp:156] Memory required for data: 472908800
I0729 17:00:23.196558 19213 layer_factory.hpp:77] Creating layer inception_4d/relu_pool_proj
I0729 17:00:23.196581 19213 net.cpp:91] Creating Layer inception_4d/relu_pool_proj
I0729 17:00:23.196596 19213 net.cpp:425] inception_4d/relu_pool_proj <- inception_4d/pool_proj
I0729 17:00:23.196616 19213 net.cpp:386] inception_4d/relu_pool_proj -> inception_4d/pool_proj (in-place)
I0729 17:00:23.198397 19213 net.cpp:141] Setting up inception_4d/relu_pool_proj
I0729 17:00:23.198421 19213 net.cpp:148] Top shape: 10 64 14 14 (125440)
I0729 17:00:23.198426 19213 net.cpp:156] Memory required for data: 473410560
I0729 17:00:23.198432 19213 layer_factory.hpp:77] Creating layer inception_4d/output
I0729 17:00:23.198444 19213 net.cpp:91] Creating Layer inception_4d/output
I0729 17:00:23.198451 19213 net.cpp:425] inception_4d/output <- inception_4d/1x1
I0729 17:00:23.198458 19213 net.cpp:425] inception_4d/output <- inception_4d/3x3
I0729 17:00:23.198463 19213 net.cpp:425] inception_4d/output <- inception_4d/5x5
I0729 17:00:23.198469 19213 net.cpp:425] inception_4d/output <- inception_4d/pool_proj
I0729 17:00:23.198480 19213 net.cpp:399] inception_4d/output -> inception_4d/output
I0729 17:00:23.202013 19213 net.cpp:141] Setting up inception_4d/output
I0729 17:00:23.202061 19213 net.cpp:148] Top shape: 10 528 14 14 (1034880)
I0729 17:00:23.202071 19213 net.cpp:156] Memory required for data: 477550080
I0729 17:00:23.202083 19213 layer_factory.hpp:77] Creating layer inception_4d/output_inception_4d/output_0_split
I0729 17:00:23.202114 19213 net.cpp:91] Creating Layer inception_4d/output_inception_4d/output_0_split
I0729 17:00:23.202129 19213 net.cpp:425] inception_4d/output_inception_4d/output_0_split <- inception_4d/output
I0729 17:00:23.202147 19213 net.cpp:399] inception_4d/output_inception_4d/output_0_split -> inception_4d/output_inception_4d/output_0_split_0
I0729 17:00:23.202169 19213 net.cpp:399] inception_4d/output_inception_4d/output_0_split -> inception_4d/output_inception_4d/output_0_split_1
I0729 17:00:23.202190 19213 net.cpp:399] inception_4d/output_inception_4d/output_0_split -> inception_4d/output_inception_4d/output_0_split_2
I0729 17:00:23.202208 19213 net.cpp:399] inception_4d/output_inception_4d/output_0_split -> inception_4d/output_inception_4d/output_0_split_3
I0729 17:00:23.205327 19213 net.cpp:141] Setting up inception_4d/output_inception_4d/output_0_split
I0729 17:00:23.205354 19213 net.cpp:148] Top shape: 10 528 14 14 (1034880)
I0729 17:00:23.205363 19213 net.cpp:148] Top shape: 10 528 14 14 (1034880)
I0729 17:00:23.205368 19213 net.cpp:148] Top shape: 10 528 14 14 (1034880)
I0729 17:00:23.205374 19213 net.cpp:148] Top shape: 10 528 14 14 (1034880)
I0729 17:00:23.205377 19213 net.cpp:156] Memory required for data: 494108160
I0729 17:00:23.205384 19213 layer_factory.hpp:77] Creating layer inception_4e/1x1
I0729 17:00:23.205413 19213 net.cpp:91] Creating Layer inception_4e/1x1
I0729 17:00:23.205420 19213 net.cpp:425] inception_4e/1x1 <- inception_4d/output_inception_4d/output_0_split_0
I0729 17:00:23.205431 19213 net.cpp:399] inception_4e/1x1 -> inception_4e/1x1
I0729 17:00:23.246265 19213 net.cpp:141] Setting up inception_4e/1x1
I0729 17:00:23.246310 19213 net.cpp:148] Top shape: 10 256 14 14 (501760)
I0729 17:00:23.246316 19213 net.cpp:156] Memory required for data: 496115200
I0729 17:00:23.246332 19213 layer_factory.hpp:77] Creating layer inception_4e/relu_1x1
I0729 17:00:23.246352 19213 net.cpp:91] Creating Layer inception_4e/relu_1x1
I0729 17:00:23.246361 19213 net.cpp:425] inception_4e/relu_1x1 <- inception_4e/1x1
I0729 17:00:23.246372 19213 net.cpp:386] inception_4e/relu_1x1 -> inception_4e/1x1 (in-place)
I0729 17:00:23.246723 19213 net.cpp:141] Setting up inception_4e/relu_1x1
I0729 17:00:23.246737 19213 net.cpp:148] Top shape: 10 256 14 14 (501760)
I0729 17:00:23.246740 19213 net.cpp:156] Memory required for data: 498122240
I0729 17:00:23.246745 19213 layer_factory.hpp:77] Creating layer inception_4e/3x3_reduce
I0729 17:00:23.246767 19213 net.cpp:91] Creating Layer inception_4e/3x3_reduce
I0729 17:00:23.246773 19213 net.cpp:425] inception_4e/3x3_reduce <- inception_4d/output_inception_4d/output_0_split_1
I0729 17:00:23.246786 19213 net.cpp:399] inception_4e/3x3_reduce -> inception_4e/3x3_reduce
I0729 17:00:23.254729 19213 net.cpp:141] Setting up inception_4e/3x3_reduce
I0729 17:00:23.254770 19213 net.cpp:148] Top shape: 10 160 14 14 (313600)
I0729 17:00:23.254775 19213 net.cpp:156] Memory required for data: 499376640
I0729 17:00:23.254788 19213 layer_factory.hpp:77] Creating layer inception_4e/relu_3x3_reduce
I0729 17:00:23.254807 19213 net.cpp:91] Creating Layer inception_4e/relu_3x3_reduce
I0729 17:00:23.254817 19213 net.cpp:425] inception_4e/relu_3x3_reduce <- inception_4e/3x3_reduce
I0729 17:00:23.254827 19213 net.cpp:386] inception_4e/relu_3x3_reduce -> inception_4e/3x3_reduce (in-place)
I0729 17:00:23.255089 19213 net.cpp:141] Setting up inception_4e/relu_3x3_reduce
I0729 17:00:23.255100 19213 net.cpp:148] Top shape: 10 160 14 14 (313600)
I0729 17:00:23.255105 19213 net.cpp:156] Memory required for data: 500631040
I0729 17:00:23.255110 19213 layer_factory.hpp:77] Creating layer inception_4e/3x3
I0729 17:00:23.255131 19213 net.cpp:91] Creating Layer inception_4e/3x3
I0729 17:00:23.255136 19213 net.cpp:425] inception_4e/3x3 <- inception_4e/3x3_reduce
I0729 17:00:23.255147 19213 net.cpp:399] inception_4e/3x3 -> inception_4e/3x3
I0729 17:00:23.287380 19213 net.cpp:141] Setting up inception_4e/3x3
I0729 17:00:23.287426 19213 net.cpp:148] Top shape: 10 320 14 14 (627200)
I0729 17:00:23.287433 19213 net.cpp:156] Memory required for data: 503139840
I0729 17:00:23.287447 19213 layer_factory.hpp:77] Creating layer inception_4e/relu_3x3
I0729 17:00:23.287463 19213 net.cpp:91] Creating Layer inception_4e/relu_3x3
I0729 17:00:23.287473 19213 net.cpp:425] inception_4e/relu_3x3 <- inception_4e/3x3
I0729 17:00:23.287483 19213 net.cpp:386] inception_4e/relu_3x3 -> inception_4e/3x3 (in-place)
I0729 17:00:23.288357 19213 net.cpp:141] Setting up inception_4e/relu_3x3
I0729 17:00:23.288373 19213 net.cpp:148] Top shape: 10 320 14 14 (627200)
I0729 17:00:23.288378 19213 net.cpp:156] Memory required for data: 505648640
I0729 17:00:23.288383 19213 layer_factory.hpp:77] Creating layer inception_4e/5x5_reduce
I0729 17:00:23.288403 19213 net.cpp:91] Creating Layer inception_4e/5x5_reduce
I0729 17:00:23.288411 19213 net.cpp:425] inception_4e/5x5_reduce <- inception_4d/output_inception_4d/output_0_split_2
I0729 17:00:23.288422 19213 net.cpp:399] inception_4e/5x5_reduce -> inception_4e/5x5_reduce
I0729 17:00:23.297864 19213 net.cpp:141] Setting up inception_4e/5x5_reduce
I0729 17:00:23.297904 19213 net.cpp:148] Top shape: 10 32 14 14 (62720)
I0729 17:00:23.297910 19213 net.cpp:156] Memory required for data: 505899520
I0729 17:00:23.297926 19213 layer_factory.hpp:77] Creating layer inception_4e/relu_5x5_reduce
I0729 17:00:23.297942 19213 net.cpp:91] Creating Layer inception_4e/relu_5x5_reduce
I0729 17:00:23.297950 19213 net.cpp:425] inception_4e/relu_5x5_reduce <- inception_4e/5x5_reduce
I0729 17:00:23.297965 19213 net.cpp:386] inception_4e/relu_5x5_reduce -> inception_4e/5x5_reduce (in-place)
I0729 17:00:23.298254 19213 net.cpp:141] Setting up inception_4e/relu_5x5_reduce
I0729 17:00:23.298267 19213 net.cpp:148] Top shape: 10 32 14 14 (62720)
I0729 17:00:23.298272 19213 net.cpp:156] Memory required for data: 506150400
I0729 17:00:23.298277 19213 layer_factory.hpp:77] Creating layer inception_4e/5x5
I0729 17:00:23.298301 19213 net.cpp:91] Creating Layer inception_4e/5x5
I0729 17:00:23.298308 19213 net.cpp:425] inception_4e/5x5 <- inception_4e/5x5_reduce
I0729 17:00:23.298317 19213 net.cpp:399] inception_4e/5x5 -> inception_4e/5x5
I0729 17:00:23.319815 19213 net.cpp:141] Setting up inception_4e/5x5
I0729 17:00:23.319860 19213 net.cpp:148] Top shape: 10 128 14 14 (250880)
I0729 17:00:23.319866 19213 net.cpp:156] Memory required for data: 507153920
I0729 17:00:23.319880 19213 layer_factory.hpp:77] Creating layer inception_4e/relu_5x5
I0729 17:00:23.319897 19213 net.cpp:91] Creating Layer inception_4e/relu_5x5
I0729 17:00:23.319905 19213 net.cpp:425] inception_4e/relu_5x5 <- inception_4e/5x5
I0729 17:00:23.319919 19213 net.cpp:386] inception_4e/relu_5x5 -> inception_4e/5x5 (in-place)
I0729 17:00:23.320225 19213 net.cpp:141] Setting up inception_4e/relu_5x5
I0729 17:00:23.320237 19213 net.cpp:148] Top shape: 10 128 14 14 (250880)
I0729 17:00:23.320241 19213 net.cpp:156] Memory required for data: 508157440
I0729 17:00:23.320246 19213 layer_factory.hpp:77] Creating layer inception_4e/pool
I0729 17:00:23.320261 19213 net.cpp:91] Creating Layer inception_4e/pool
I0729 17:00:23.320267 19213 net.cpp:425] inception_4e/pool <- inception_4d/output_inception_4d/output_0_split_3
I0729 17:00:23.320276 19213 net.cpp:399] inception_4e/pool -> inception_4e/pool
I0729 17:00:23.327955 19213 net.cpp:141] Setting up inception_4e/pool
I0729 17:00:23.327994 19213 net.cpp:148] Top shape: 10 528 14 14 (1034880)
I0729 17:00:23.328001 19213 net.cpp:156] Memory required for data: 512296960
I0729 17:00:23.328008 19213 layer_factory.hpp:77] Creating layer inception_4e/pool_proj
I0729 17:00:23.328037 19213 net.cpp:91] Creating Layer inception_4e/pool_proj
I0729 17:00:23.328045 19213 net.cpp:425] inception_4e/pool_proj <- inception_4e/pool
I0729 17:00:23.328061 19213 net.cpp:399] inception_4e/pool_proj -> inception_4e/pool_proj
I0729 17:00:23.352867 19213 net.cpp:141] Setting up inception_4e/pool_proj
I0729 17:00:23.352912 19213 net.cpp:148] Top shape: 10 128 14 14 (250880)
I0729 17:00:23.352918 19213 net.cpp:156] Memory required for data: 513300480
I0729 17:00:23.352933 19213 layer_factory.hpp:77] Creating layer inception_4e/relu_pool_proj
I0729 17:00:23.352951 19213 net.cpp:91] Creating Layer inception_4e/relu_pool_proj
I0729 17:00:23.352959 19213 net.cpp:425] inception_4e/relu_pool_proj <- inception_4e/pool_proj
I0729 17:00:23.352972 19213 net.cpp:386] inception_4e/relu_pool_proj -> inception_4e/pool_proj (in-place)
I0729 17:00:23.354156 19213 net.cpp:141] Setting up inception_4e/relu_pool_proj
I0729 17:00:23.354174 19213 net.cpp:148] Top shape: 10 128 14 14 (250880)
I0729 17:00:23.354179 19213 net.cpp:156] Memory required for data: 514304000
I0729 17:00:23.354184 19213 layer_factory.hpp:77] Creating layer inception_4e/output
I0729 17:00:23.354194 19213 net.cpp:91] Creating Layer inception_4e/output
I0729 17:00:23.354200 19213 net.cpp:425] inception_4e/output <- inception_4e/1x1
I0729 17:00:23.354207 19213 net.cpp:425] inception_4e/output <- inception_4e/3x3
I0729 17:00:23.354213 19213 net.cpp:425] inception_4e/output <- inception_4e/5x5
I0729 17:00:23.354219 19213 net.cpp:425] inception_4e/output <- inception_4e/pool_proj
I0729 17:00:23.354228 19213 net.cpp:399] inception_4e/output -> inception_4e/output
I0729 17:00:23.355301 19213 net.cpp:141] Setting up inception_4e/output
I0729 17:00:23.355316 19213 net.cpp:148] Top shape: 10 832 14 14 (1630720)
I0729 17:00:23.355321 19213 net.cpp:156] Memory required for data: 520826880
I0729 17:00:23.355326 19213 layer_factory.hpp:77] Creating layer pool4/3x3_s2
I0729 17:00:23.355341 19213 net.cpp:91] Creating Layer pool4/3x3_s2
I0729 17:00:23.355347 19213 net.cpp:425] pool4/3x3_s2 <- inception_4e/output
I0729 17:00:23.355355 19213 net.cpp:399] pool4/3x3_s2 -> pool4/3x3_s2
I0729 17:00:23.355659 19213 net.cpp:141] Setting up pool4/3x3_s2
I0729 17:00:23.355669 19213 net.cpp:148] Top shape: 10 832 7 7 (407680)
I0729 17:00:23.355674 19213 net.cpp:156] Memory required for data: 522457600
I0729 17:00:23.355679 19213 layer_factory.hpp:77] Creating layer pool4/3x3_s2_pool4/3x3_s2_0_split
I0729 17:00:23.355690 19213 net.cpp:91] Creating Layer pool4/3x3_s2_pool4/3x3_s2_0_split
I0729 17:00:23.355695 19213 net.cpp:425] pool4/3x3_s2_pool4/3x3_s2_0_split <- pool4/3x3_s2
I0729 17:00:23.355701 19213 net.cpp:399] pool4/3x3_s2_pool4/3x3_s2_0_split -> pool4/3x3_s2_pool4/3x3_s2_0_split_0
I0729 17:00:23.355710 19213 net.cpp:399] pool4/3x3_s2_pool4/3x3_s2_0_split -> pool4/3x3_s2_pool4/3x3_s2_0_split_1
I0729 17:00:23.355717 19213 net.cpp:399] pool4/3x3_s2_pool4/3x3_s2_0_split -> pool4/3x3_s2_pool4/3x3_s2_0_split_2
I0729 17:00:23.355726 19213 net.cpp:399] pool4/3x3_s2_pool4/3x3_s2_0_split -> pool4/3x3_s2_pool4/3x3_s2_0_split_3
I0729 17:00:23.361799 19213 net.cpp:141] Setting up pool4/3x3_s2_pool4/3x3_s2_0_split
I0729 17:00:23.361829 19213 net.cpp:148] Top shape: 10 832 7 7 (407680)
I0729 17:00:23.361835 19213 net.cpp:148] Top shape: 10 832 7 7 (407680)
I0729 17:00:23.361840 19213 net.cpp:148] Top shape: 10 832 7 7 (407680)
I0729 17:00:23.361845 19213 net.cpp:148] Top shape: 10 832 7 7 (407680)
I0729 17:00:23.361850 19213 net.cpp:156] Memory required for data: 528980480
I0729 17:00:23.361855 19213 layer_factory.hpp:77] Creating layer inception_5a/1x1
I0729 17:00:23.361882 19213 net.cpp:91] Creating Layer inception_5a/1x1
I0729 17:00:23.361889 19213 net.cpp:425] inception_5a/1x1 <- pool4/3x3_s2_pool4/3x3_s2_0_split_0
I0729 17:00:23.361901 19213 net.cpp:399] inception_5a/1x1 -> inception_5a/1x1
I0729 17:00:23.394253 19213 net.cpp:141] Setting up inception_5a/1x1
I0729 17:00:23.394294 19213 net.cpp:148] Top shape: 10 256 7 7 (125440)
I0729 17:00:23.394300 19213 net.cpp:156] Memory required for data: 529482240
I0729 17:00:23.394315 19213 layer_factory.hpp:77] Creating layer inception_5a/relu_1x1
I0729 17:00:23.394331 19213 net.cpp:91] Creating Layer inception_5a/relu_1x1
I0729 17:00:23.394340 19213 net.cpp:425] inception_5a/relu_1x1 <- inception_5a/1x1
I0729 17:00:23.394351 19213 net.cpp:386] inception_5a/relu_1x1 -> inception_5a/1x1 (in-place)
I0729 17:00:23.394671 19213 net.cpp:141] Setting up inception_5a/relu_1x1
I0729 17:00:23.394685 19213 net.cpp:148] Top shape: 10 256 7 7 (125440)
I0729 17:00:23.394702 19213 net.cpp:156] Memory required for data: 529984000
I0729 17:00:23.394708 19213 layer_factory.hpp:77] Creating layer inception_5a/3x3_reduce
I0729 17:00:23.394727 19213 net.cpp:91] Creating Layer inception_5a/3x3_reduce
I0729 17:00:23.394733 19213 net.cpp:425] inception_5a/3x3_reduce <- pool4/3x3_s2_pool4/3x3_s2_0_split_1
I0729 17:00:23.394752 19213 net.cpp:399] inception_5a/3x3_reduce -> inception_5a/3x3_reduce
I0729 17:00:23.431586 19213 net.cpp:141] Setting up inception_5a/3x3_reduce
I0729 17:00:23.431630 19213 net.cpp:148] Top shape: 10 160 7 7 (78400)
I0729 17:00:23.431637 19213 net.cpp:156] Memory required for data: 530297600
I0729 17:00:23.431651 19213 layer_factory.hpp:77] Creating layer inception_5a/relu_3x3_reduce
I0729 17:00:23.431671 19213 net.cpp:91] Creating Layer inception_5a/relu_3x3_reduce
I0729 17:00:23.431681 19213 net.cpp:425] inception_5a/relu_3x3_reduce <- inception_5a/3x3_reduce
I0729 17:00:23.431692 19213 net.cpp:386] inception_5a/relu_3x3_reduce -> inception_5a/3x3_reduce (in-place)
I0729 17:00:23.431995 19213 net.cpp:141] Setting up inception_5a/relu_3x3_reduce
I0729 17:00:23.432008 19213 net.cpp:148] Top shape: 10 160 7 7 (78400)
I0729 17:00:23.432011 19213 net.cpp:156] Memory required for data: 530611200
I0729 17:00:23.432016 19213 layer_factory.hpp:77] Creating layer inception_5a/3x3
I0729 17:00:23.432042 19213 net.cpp:91] Creating Layer inception_5a/3x3
I0729 17:00:23.432049 19213 net.cpp:425] inception_5a/3x3 <- inception_5a/3x3_reduce
I0729 17:00:23.432060 19213 net.cpp:399] inception_5a/3x3 -> inception_5a/3x3
I0729 17:00:23.471750 19213 net.cpp:141] Setting up inception_5a/3x3
I0729 17:00:23.471796 19213 net.cpp:148] Top shape: 10 320 7 7 (156800)
I0729 17:00:23.471803 19213 net.cpp:156] Memory required for data: 531238400
I0729 17:00:23.471822 19213 layer_factory.hpp:77] Creating layer inception_5a/relu_3x3
I0729 17:00:23.471839 19213 net.cpp:91] Creating Layer inception_5a/relu_3x3
I0729 17:00:23.471848 19213 net.cpp:425] inception_5a/relu_3x3 <- inception_5a/3x3
I0729 17:00:23.471858 19213 net.cpp:386] inception_5a/relu_3x3 -> inception_5a/3x3 (in-place)
I0729 17:00:23.472728 19213 net.cpp:141] Setting up inception_5a/relu_3x3
I0729 17:00:23.472750 19213 net.cpp:148] Top shape: 10 320 7 7 (156800)
I0729 17:00:23.472755 19213 net.cpp:156] Memory required for data: 531865600
I0729 17:00:23.472761 19213 layer_factory.hpp:77] Creating layer inception_5a/5x5_reduce
I0729 17:00:23.472781 19213 net.cpp:91] Creating Layer inception_5a/5x5_reduce
I0729 17:00:23.472789 19213 net.cpp:425] inception_5a/5x5_reduce <- pool4/3x3_s2_pool4/3x3_s2_0_split_2
I0729 17:00:23.472800 19213 net.cpp:399] inception_5a/5x5_reduce -> inception_5a/5x5_reduce
I0729 17:00:23.501000 19213 net.cpp:141] Setting up inception_5a/5x5_reduce
I0729 17:00:23.501045 19213 net.cpp:148] Top shape: 10 32 7 7 (15680)
I0729 17:00:23.501052 19213 net.cpp:156] Memory required for data: 531928320
I0729 17:00:23.501067 19213 layer_factory.hpp:77] Creating layer inception_5a/relu_5x5_reduce
I0729 17:00:23.501087 19213 net.cpp:91] Creating Layer inception_5a/relu_5x5_reduce
I0729 17:00:23.501096 19213 net.cpp:425] inception_5a/relu_5x5_reduce <- inception_5a/5x5_reduce
I0729 17:00:23.501107 19213 net.cpp:386] inception_5a/relu_5x5_reduce -> inception_5a/5x5_reduce (in-place)
I0729 17:00:23.501420 19213 net.cpp:141] Setting up inception_5a/relu_5x5_reduce
I0729 17:00:23.501432 19213 net.cpp:148] Top shape: 10 32 7 7 (15680)
I0729 17:00:23.501436 19213 net.cpp:156] Memory required for data: 531991040
I0729 17:00:23.501442 19213 layer_factory.hpp:77] Creating layer inception_5a/5x5
I0729 17:00:23.501466 19213 net.cpp:91] Creating Layer inception_5a/5x5
I0729 17:00:23.501472 19213 net.cpp:425] inception_5a/5x5 <- inception_5a/5x5_reduce
I0729 17:00:23.501482 19213 net.cpp:399] inception_5a/5x5 -> inception_5a/5x5
I0729 17:00:23.515130 19213 net.cpp:141] Setting up inception_5a/5x5
I0729 17:00:23.515174 19213 net.cpp:148] Top shape: 10 128 7 7 (62720)
I0729 17:00:23.515182 19213 net.cpp:156] Memory required for data: 532241920
I0729 17:00:23.515197 19213 layer_factory.hpp:77] Creating layer inception_5a/relu_5x5
I0729 17:00:23.515236 19213 net.cpp:91] Creating Layer inception_5a/relu_5x5
I0729 17:00:23.515246 19213 net.cpp:425] inception_5a/relu_5x5 <- inception_5a/5x5
I0729 17:00:23.515256 19213 net.cpp:386] inception_5a/relu_5x5 -> inception_5a/5x5 (in-place)
I0729 17:00:23.515568 19213 net.cpp:141] Setting up inception_5a/relu_5x5
I0729 17:00:23.515579 19213 net.cpp:148] Top shape: 10 128 7 7 (62720)
I0729 17:00:23.515584 19213 net.cpp:156] Memory required for data: 532492800
I0729 17:00:23.515589 19213 layer_factory.hpp:77] Creating layer inception_5a/pool
I0729 17:00:23.515616 19213 net.cpp:91] Creating Layer inception_5a/pool
I0729 17:00:23.515625 19213 net.cpp:425] inception_5a/pool <- pool4/3x3_s2_pool4/3x3_s2_0_split_3
I0729 17:00:23.515635 19213 net.cpp:399] inception_5a/pool -> inception_5a/pool
I0729 17:00:23.522027 19213 net.cpp:141] Setting up inception_5a/pool
I0729 17:00:23.522054 19213 net.cpp:148] Top shape: 10 832 7 7 (407680)
I0729 17:00:23.522059 19213 net.cpp:156] Memory required for data: 534123520
I0729 17:00:23.522065 19213 layer_factory.hpp:77] Creating layer inception_5a/pool_proj
I0729 17:00:23.522094 19213 net.cpp:91] Creating Layer inception_5a/pool_proj
I0729 17:00:23.522101 19213 net.cpp:425] inception_5a/pool_proj <- inception_5a/pool
I0729 17:00:23.522111 19213 net.cpp:399] inception_5a/pool_proj -> inception_5a/pool_proj
I0729 17:00:23.525722 19209 net.cpp:141] Setting up data
I0729 17:00:23.525774 19209 net.cpp:148] Top shape: 10 3 224 224 (1505280)
I0729 17:00:23.525781 19209 net.cpp:156] Memory required for data: 6021120
I0729 17:00:23.525791 19209 layer_factory.hpp:77] Creating layer conv1/7x7_s2
I0729 17:00:23.525822 19209 net.cpp:91] Creating Layer conv1/7x7_s2
I0729 17:00:23.525830 19209 net.cpp:425] conv1/7x7_s2 <- data
I0729 17:00:23.525842 19209 net.cpp:399] conv1/7x7_s2 -> conv1/7x7_s2
I0729 17:00:23.542320 19213 net.cpp:141] Setting up inception_5a/pool_proj
I0729 17:00:23.542361 19213 net.cpp:148] Top shape: 10 128 7 7 (62720)
I0729 17:00:23.542368 19213 net.cpp:156] Memory required for data: 534374400
I0729 17:00:23.542384 19213 layer_factory.hpp:77] Creating layer inception_5a/relu_pool_proj
I0729 17:00:23.542399 19213 net.cpp:91] Creating Layer inception_5a/relu_pool_proj
I0729 17:00:23.542408 19213 net.cpp:425] inception_5a/relu_pool_proj <- inception_5a/pool_proj
I0729 17:00:23.542421 19213 net.cpp:386] inception_5a/relu_pool_proj -> inception_5a/pool_proj (in-place)
I0729 17:00:23.543725 19213 net.cpp:141] Setting up inception_5a/relu_pool_proj
I0729 17:00:23.543743 19213 net.cpp:148] Top shape: 10 128 7 7 (62720)
I0729 17:00:23.543750 19213 net.cpp:156] Memory required for data: 534625280
I0729 17:00:23.543754 19213 layer_factory.hpp:77] Creating layer inception_5a/output
I0729 17:00:23.543763 19213 net.cpp:91] Creating Layer inception_5a/output
I0729 17:00:23.543771 19213 net.cpp:425] inception_5a/output <- inception_5a/1x1
I0729 17:00:23.543777 19213 net.cpp:425] inception_5a/output <- inception_5a/3x3
I0729 17:00:23.543782 19213 net.cpp:425] inception_5a/output <- inception_5a/5x5
I0729 17:00:23.543788 19213 net.cpp:425] inception_5a/output <- inception_5a/pool_proj
I0729 17:00:23.543798 19213 net.cpp:399] inception_5a/output -> inception_5a/output
I0729 17:00:23.544623 19213 net.cpp:141] Setting up inception_5a/output
I0729 17:00:23.544643 19213 net.cpp:148] Top shape: 10 832 7 7 (407680)
I0729 17:00:23.544649 19213 net.cpp:156] Memory required for data: 536256000
I0729 17:00:23.544654 19213 layer_factory.hpp:77] Creating layer inception_5a/output_inception_5a/output_0_split
I0729 17:00:23.544664 19213 net.cpp:91] Creating Layer inception_5a/output_inception_5a/output_0_split
I0729 17:00:23.544669 19213 net.cpp:425] inception_5a/output_inception_5a/output_0_split <- inception_5a/output
I0729 17:00:23.544684 19213 net.cpp:399] inception_5a/output_inception_5a/output_0_split -> inception_5a/output_inception_5a/output_0_split_0
I0729 17:00:23.544694 19213 net.cpp:399] inception_5a/output_inception_5a/output_0_split -> inception_5a/output_inception_5a/output_0_split_1
I0729 17:00:23.544703 19213 net.cpp:399] inception_5a/output_inception_5a/output_0_split -> inception_5a/output_inception_5a/output_0_split_2
I0729 17:00:23.544713 19213 net.cpp:399] inception_5a/output_inception_5a/output_0_split -> inception_5a/output_inception_5a/output_0_split_3
I0729 17:00:23.556324 19213 net.cpp:141] Setting up inception_5a/output_inception_5a/output_0_split
I0729 17:00:23.556362 19213 net.cpp:148] Top shape: 10 832 7 7 (407680)
I0729 17:00:23.556370 19213 net.cpp:148] Top shape: 10 832 7 7 (407680)
I0729 17:00:23.556375 19213 net.cpp:148] Top shape: 10 832 7 7 (407680)
I0729 17:00:23.556381 19213 net.cpp:148] Top shape: 10 832 7 7 (407680)
I0729 17:00:23.556385 19213 net.cpp:156] Memory required for data: 542778880
I0729 17:00:23.556392 19213 layer_factory.hpp:77] Creating layer inception_5b/1x1
I0729 17:00:23.556432 19213 net.cpp:91] Creating Layer inception_5b/1x1
I0729 17:00:23.556442 19213 net.cpp:425] inception_5b/1x1 <- inception_5a/output_inception_5a/output_0_split_0
I0729 17:00:23.556454 19213 net.cpp:399] inception_5b/1x1 -> inception_5b/1x1
I0729 17:00:23.611100 19213 net.cpp:141] Setting up inception_5b/1x1
I0729 17:00:23.611150 19213 net.cpp:148] Top shape: 10 384 7 7 (188160)
I0729 17:00:23.611155 19213 net.cpp:156] Memory required for data: 543531520
I0729 17:00:23.611173 19213 layer_factory.hpp:77] Creating layer inception_5b/relu_1x1
I0729 17:00:23.611191 19213 net.cpp:91] Creating Layer inception_5b/relu_1x1
I0729 17:00:23.611201 19213 net.cpp:425] inception_5b/relu_1x1 <- inception_5b/1x1
I0729 17:00:23.611213 19213 net.cpp:386] inception_5b/relu_1x1 -> inception_5b/1x1 (in-place)
I0729 17:00:23.611534 19213 net.cpp:141] Setting up inception_5b/relu_1x1
I0729 17:00:23.611546 19213 net.cpp:148] Top shape: 10 384 7 7 (188160)
I0729 17:00:23.611552 19213 net.cpp:156] Memory required for data: 544284160
I0729 17:00:23.611557 19213 layer_factory.hpp:77] Creating layer inception_5b/3x3_reduce
I0729 17:00:23.611578 19213 net.cpp:91] Creating Layer inception_5b/3x3_reduce
I0729 17:00:23.611587 19213 net.cpp:425] inception_5b/3x3_reduce <- inception_5a/output_inception_5a/output_0_split_1
I0729 17:00:23.611595 19213 net.cpp:399] inception_5b/3x3_reduce -> inception_5b/3x3_reduce
I0729 17:00:23.632728 19213 net.cpp:141] Setting up inception_5b/3x3_reduce
I0729 17:00:23.632776 19213 net.cpp:148] Top shape: 10 192 7 7 (94080)
I0729 17:00:23.632781 19213 net.cpp:156] Memory required for data: 544660480
I0729 17:00:23.632798 19213 layer_factory.hpp:77] Creating layer inception_5b/relu_3x3_reduce
I0729 17:00:23.632815 19213 net.cpp:91] Creating Layer inception_5b/relu_3x3_reduce
I0729 17:00:23.632824 19213 net.cpp:425] inception_5b/relu_3x3_reduce <- inception_5b/3x3_reduce
I0729 17:00:23.632839 19213 net.cpp:386] inception_5b/relu_3x3_reduce -> inception_5b/3x3_reduce (in-place)
I0729 17:00:23.633107 19213 net.cpp:141] Setting up inception_5b/relu_3x3_reduce
I0729 17:00:23.633121 19213 net.cpp:148] Top shape: 10 192 7 7 (94080)
I0729 17:00:23.633126 19213 net.cpp:156] Memory required for data: 545036800
I0729 17:00:23.633131 19213 layer_factory.hpp:77] Creating layer inception_5b/3x3
I0729 17:00:23.633152 19213 net.cpp:91] Creating Layer inception_5b/3x3
I0729 17:00:23.633157 19213 net.cpp:425] inception_5b/3x3 <- inception_5b/3x3_reduce
I0729 17:00:23.633167 19213 net.cpp:399] inception_5b/3x3 -> inception_5b/3x3
I0729 17:00:23.666421 19213 net.cpp:141] Setting up inception_5b/3x3
I0729 17:00:23.666467 19213 net.cpp:148] Top shape: 10 384 7 7 (188160)
I0729 17:00:23.666473 19213 net.cpp:156] Memory required for data: 545789440
I0729 17:00:23.666488 19213 layer_factory.hpp:77] Creating layer inception_5b/relu_3x3
I0729 17:00:23.666507 19213 net.cpp:91] Creating Layer inception_5b/relu_3x3
I0729 17:00:23.666515 19213 net.cpp:425] inception_5b/relu_3x3 <- inception_5b/3x3
I0729 17:00:23.666528 19213 net.cpp:386] inception_5b/relu_3x3 -> inception_5b/3x3 (in-place)
I0729 17:00:23.667443 19213 net.cpp:141] Setting up inception_5b/relu_3x3
I0729 17:00:23.667459 19213 net.cpp:148] Top shape: 10 384 7 7 (188160)
I0729 17:00:23.667464 19213 net.cpp:156] Memory required for data: 546542080
I0729 17:00:23.667469 19213 layer_factory.hpp:77] Creating layer inception_5b/5x5_reduce
I0729 17:00:23.667491 19213 net.cpp:91] Creating Layer inception_5b/5x5_reduce
I0729 17:00:23.667498 19213 net.cpp:425] inception_5b/5x5_reduce <- inception_5a/output_inception_5a/output_0_split_2
I0729 17:00:23.667521 19213 net.cpp:399] inception_5b/5x5_reduce -> inception_5b/5x5_reduce
I0729 17:00:23.699630 19213 net.cpp:141] Setting up inception_5b/5x5_reduce
I0729 17:00:23.699676 19213 net.cpp:148] Top shape: 10 48 7 7 (23520)
I0729 17:00:23.699683 19213 net.cpp:156] Memory required for data: 546636160
I0729 17:00:23.699699 19213 layer_factory.hpp:77] Creating layer inception_5b/relu_5x5_reduce
I0729 17:00:23.699722 19213 net.cpp:91] Creating Layer inception_5b/relu_5x5_reduce
I0729 17:00:23.699731 19213 net.cpp:425] inception_5b/relu_5x5_reduce <- inception_5b/5x5_reduce
…
I0729 17:00:23.944216 19209 net.cpp:425] inception_4c/1x1 <- inception_4b/output_inception_4b/output_0_split_0
I0729 17:00:23.944226 19209 net.cpp:399] inception_4c/1x1 -> inception_4c/1x1
I0729 17:00:23.947981 19209 net.cpp:141] Setting up inception_4c/1x1
I0729 17:00:23.948010 19209 net.cpp:148] Top shape: 10 128 14 14 (250880)
I0729 17:00:23.948016 19209 net.cpp:156] Memory required for data: 424865280
I0729 17:00:23.948029 19209 layer_factory.hpp:77] Creating layer inception_4c/relu_1x1
I0729 17:00:23.948040 19209 net.cpp:91] Creating Layer inception_4c/relu_1x1
I0729 17:00:23.948045 19209 net.cpp:425] inception_4c/relu_1x1 <- inception_4c/1x1
I0729 17:00:23.948055 19209 net.cpp:386] inception_4c/relu_1x1 -> inception_4c/1x1 (in-place)
I0729 17:00:23.948317 19209 net.cpp:141] Setting up inception_4c/relu_1x1
I0729 17:00:23.948328 19209 net.cpp:148] Top shape: 10 128 14 14 (250880)
I0729 17:00:23.948333 19209 net.cpp:156] Memory required for data: 425868800
I0729 17:00:23.948338 19209 layer_factory.hpp:77] Creating layer inception_4c/3x3_reduce
I0729 17:00:23.948354 19209 net.cpp:91] Creating Layer inception_4c/3x3_reduce
I0729 17:00:23.948359 19209 net.cpp:425] inception_4c/3x3_reduce <- inception_4b/output_inception_4b/output_0_split_1
I0729 17:00:23.948370 19209 net.cpp:399] inception_4c/3x3_reduce -> inception_4c/3x3_reduce
I0729 17:00:23.951802 19209 net.cpp:141] Setting up inception_4c/3x3_reduce
I0729 17:00:23.951824 19209 net.cpp:148] Top shape: 10 128 14 14 (250880)
I0729 17:00:23.951830 19209 net.cpp:156] Memory required for data: 426872320
I0729 17:00:23.951841 19209 layer_factory.hpp:77] Creating layer inception_4c/relu_3x3_reduce
I0729 17:00:23.951863 19209 net.cpp:91] Creating Layer inception_4c/relu_3x3_reduce
I0729 17:00:23.951870 19209 net.cpp:425] inception_4c/relu_3x3_reduce <- inception_4c/3x3_reduce
I0729 17:00:23.951879 19209 net.cpp:386] inception_4c/relu_3x3_reduce -> inception_4c/3x3_reduce (in-place)
I0729 17:00:23.952148 19209 net.cpp:141] Setting up inception_4c/relu_3x3_reduce
I0729 17:00:23.952160 19209 net.cpp:148] Top shape: 10 128 14 14 (250880)
I0729 17:00:23.952165 19209 net.cpp:156] Memory required for data: 427875840
I0729 17:00:23.952170 19209 layer_factory.hpp:77] Creating layer inception_4c/3x3
I0729 17:00:23.952191 19209 net.cpp:91] Creating Layer inception_4c/3x3
I0729 17:00:23.952198 19209 net.cpp:425] inception_4c/3x3 <- inception_4c/3x3_reduce
I0729 17:00:23.952209 19209 net.cpp:399] inception_4c/3x3 -> inception_4c/3x3
…
I0729 17:00:23.960294 19213 net.cpp:752] Ignoring source layer loss2/conv
I0729 17:00:23.960299 19213 net.cpp:752] Ignoring source layer loss2/relu_conv
I0729 17:00:23.960304 19213 net.cpp:752] Ignoring source layer loss2/fc
I0729 17:00:23.960309 19213 net.cpp:752] Ignoring source layer loss2/relu_fc
I0729 17:00:23.960314 19213 net.cpp:752] Ignoring source layer loss2/drop_fc
I0729 17:00:23.960319 19213 net.cpp:752] Ignoring source layer loss2/classifier
I0729 17:00:23.960324 19213 net.cpp:752] Ignoring source layer loss2/loss
I0729 17:00:23.961730 19209 net.cpp:141] Setting up inception_4c/3x3
I0729 17:00:23.961771 19209 net.cpp:148] Top shape: 10 256 14 14 (501760)
I0729 17:00:23.961778 19209 net.cpp:156] Memory required for data: 429882880
I0729 17:00:23.961793 19209 layer_factory.hpp:77] Creating layer inception_4c/relu_3x3
I0729 17:00:23.961810 19209 net.cpp:91] Creating Layer inception_4c/relu_3x3
I0729 17:00:23.961820 19209 net.cpp:425] inception_4c/relu_3x3 <- inception_4c/3x3
I0729 17:00:23.961830 19209 net.cpp:386] inception_4c/relu_3x3 -> inception_4c/3x3 (in-place)
I0729 17:00:23.963793 19209 net.cpp:141] Setting up inception_4c/relu_3x3
I0729 17:00:23.963838 19209 net.cpp:148] Top shape: 10 256 14 14 (501760)
I0729 17:00:23.963843 19209 net.cpp:156] Memory required for data: 431889920
I0729 17:00:23.963852 19209 layer_factory.hpp:77] Creating layer inception_4c/5x5_reduce
I0729 17:00:23.963879 19209 net.cpp:91] Creating Layer inception_4c/5x5_reduce
I0729 17:00:23.963889 19209 net.cpp:425] inception_4c/5x5_reduce <- inception_4b/output_inception_4b/output_0_split_2
I0729 17:00:23.963906 19209 net.cpp:399] inception_4c/5x5_reduce -> inception_4c/5x5_reduce
I0729 17:00:23.964112 19213 net.cpp:752] Ignoring source layer loss3/loss3
I0729 17:00:23.970396 19209 net.cpp:141] Setting up inception_4c/5x5_reduce
I0729 17:00:23.970430 19209 net.cpp:148] Top shape: 10 24 14 14 (47040)
I0729 17:00:23.970437 19209 net.cpp:156] Memory required for data: 432078080
I0729 17:00:23.970449 19209 layer_factory.hpp:77] Creating layer inception_4c/relu_5x5_reduce
I0729 17:00:23.970463 19209 net.cpp:91] Creating Layer inception_4c/relu_5x5_reduce
I0729 17:00:23.970471 19209 net.cpp:425] inception_4c/relu_5x5_reduce <- inception_4c/5x5_reduce
I0729 17:00:23.970479 19209 net.cpp:386] inception_4c/relu_5x5_reduce -> inception_4c/5x5_reduce (in-place)
I0729 17:00:23.970772 19209 net.cpp:141] Setting up inception_4c/relu_5x5_reduce
I0729 17:00:23.970784 19209 net.cpp:148] Top shape: 10 24 14 14 (47040)
I0729 17:00:23.970789 19209 net.cpp:156] Memory required for data: 432266240
I0729 17:00:23.970794 19209 layer_factory.hpp:77] Creating layer inception_4c/5x5
I0729 17:00:23.970813 19209 net.cpp:91] Creating Layer inception_4c/5x5
I0729 17:00:23.970818 19209 net.cpp:425] inception_4c/5x5 <- inception_4c/5x5_reduce
I0729 17:00:23.970831 19209 net.cpp:399] inception_4c/5x5 -> inception_4c/5x5
I0729 17:00:23.976568 19209 net.cpp:141] Setting up inception_4c/5x5
I0729 17:00:23.976598 19209 net.cpp:148] Top shape: 10 64 14 14 (125440)
I0729 17:00:23.976604 19209 net.cpp:156] Memory required for data: 432768000
I0729 17:00:23.976615 19209 layer_factory.hpp:77] Creating layer inception_4c/relu_5x5
I0729 17:00:23.976630 19209 net.cpp:91] Creating Layer inception_4c/relu_5x5
I0729 17:00:23.976639 19209 net.cpp:425] inception_4c/relu_5x5 <- inception_4c/5x5
I0729 17:00:23.976647 19209 net.cpp:386] inception_4c/relu_5x5 -> inception_4c/5x5 (in-place)
I0729 17:00:23.976910 19209 net.cpp:141] Setting up inception_4c/relu_5x5
I0729 17:00:23.976922 19209 net.cpp:148] Top shape: 10 64 14 14 (125440)
I0729 17:00:23.976927 19209 net.cpp:156] Memory required for data: 433269760
I0729 17:00:23.976933 19209 layer_factory.hpp:77] Creating layer inception_4c/pool
I0729 17:00:23.976948 19209 net.cpp:91] Creating Layer inception_4c/pool
I0729 17:00:23.976953 19209 net.cpp:425] inception_4c/pool <- inception_4b/output_inception_4b/output_0_split_3
I0729 17:00:23.976964 19209 net.cpp:399] inception_4c/pool -> inception_4c/pool
I0729 17:00:23.977090 19209 net.cpp:141] Setting up inception_4c/pool
I0729 17:00:23.977102 19209 net.cpp:148] Top shape: 10 512 14 14 (1003520)
I0729 17:00:23.977105 19209 net.cpp:156] Memory required for data: 437283840
I0729 17:00:23.977110 19209 layer_factory.hpp:77] Creating layer inception_4c/pool_proj
I0729 17:00:23.977130 19209 net.cpp:91] Creating Layer inception_4c/pool_proj
I0729 17:00:23.977136 19209 net.cpp:425] inception_4c/pool_proj <- inception_4c/pool
I0729 17:00:23.977144 19209 net.cpp:399] inception_4c/pool_proj -> inception_4c/pool_proj
I0729 17:00:23.982136 19209 net.cpp:141] Setting up inception_4c/pool_proj
I0729 17:00:23.982167 19209 net.cpp:148] Top shape: 10 64 14 14 (125440)
I0729 17:00:23.982172 19209 net.cpp:156] Memory required for data: 437785600
I0729 17:00:23.982206 19209 layer_factory.hpp:77] Creating layer inception_4c/relu_pool_proj
I0729 17:00:23.982216 19209 net.cpp:91] Creating Layer inception_4c/relu_pool_proj
I0729 17:00:23.982223 19209 net.cpp:425] inception_4c/relu_pool_proj <- inception_4c/pool_proj
I0729 17:00:23.982228 19209 net.cpp:386] inception_4c/relu_pool_proj -> inception_4c/pool_proj (in-place)
I0729 17:00:23.983181 19209 net.cpp:141] Setting up inception_4c/relu_pool_proj
I0729 17:00:23.983212 19209 net.cpp:148] Top shape: 10 64 14 14 (125440)
I0729 17:00:23.983218 19209 net.cpp:156] Memory required for data: 438287360
I0729 17:00:23.983223 19209 layer_factory.hpp:77] Creating layer inception_4c/output
I0729 17:00:23.983233 19209 net.cpp:91] Creating Layer inception_4c/output
I0729 17:00:23.983238 19209 net.cpp:425] inception_4c/output <- inception_4c/1x1
I0729 17:00:23.983245 19209 net.cpp:425] inception_4c/output <- inception_4c/3x3
I0729 17:00:23.983250 19209 net.cpp:425] inception_4c/output <- inception_4c/5x5
I0729 17:00:23.983255 19209 net.cpp:425] inception_4c/output <- inception_4c/pool_proj
I0729 17:00:23.983263 19209 net.cpp:399] inception_4c/output -> inception_4c/output
I0729 17:00:23.983333 19209 net.cpp:141] Setting up inception_4c/output
I0729 17:00:23.983345 19209 net.cpp:148] Top shape: 10 512 14 14 (1003520)
I0729 17:00:23.983350 19209 net.cpp:156] Memory required for data: 442301440
I0729 17:00:23.983353 19209 layer_factory.hpp:77] Creating layer inception_4c/output_inception_4c/output_0_split
I0729 17:00:23.983361 19209 net.cpp:91] Creating Layer inception_4c/output_inception_4c/output_0_split
I0729 17:00:23.983366 19209 net.cpp:425] inception_4c/output_inception_4c/output_0_split <- inception_4c/output
I0729 17:00:23.983376 19209 net.cpp:399] inception_4c/output_inception_4c/output_0_split -> inception_4c/output_inception_4c/output_0_split_0
I0729 17:00:23.983386 19209 net.cpp:399] inception_4c/output_inception_4c/output_0_split -> inception_4c/output_inception_4c/output_0_split_1
I0729 17:00:23.983394 19209 net.cpp:399] inception_4c/output_inception_4c/output_0_split -> inception_4c/output_inception_4c/output_0_split_2
I0729 17:00:23.983402 19209 net.cpp:399] inception_4c/output_inception_4c/output_0_split -> inception_4c/output_inception_4c/output_0_split_3
I0729 17:00:23.983573 19209 net.cpp:141] Setting up inception_4c/output_inception_4c/output_0_split
I0729 17:00:23.983584 19209 net.cpp:148] Top shape: 10 512 14 14 (1003520)
I0729 17:00:23.983589 19209 net.cpp:148] Top shape: 10 512 14 14 (1003520)
I0729 17:00:23.983595 19209 net.cpp:148] Top shape: 10 512 14 14 (1003520)
I0729 17:00:23.983600 19209 net.cpp:148] Top shape: 10 512 14 14 (1003520)
I0729 17:00:23.983604 19209 net.cpp:156] Memory required for data: 458357760
I0729 17:00:23.983608 19209 layer_factory.hpp:77] Creating layer inception_4d/1x1
I0729 17:00:23.983623 19209 net.cpp:91] Creating Layer inception_4d/1x1
I0729 17:00:23.983628 19209 net.cpp:425] inception_4d/1x1 <- inception_4c/output_inception_4c/output_0_split_0
I0729 17:00:23.983640 19209 net.cpp:399] inception_4d/1x1 -> inception_4d/1x1
I0729 17:00:23.987282 19209 net.cpp:141] Setting up inception_4d/1x1
I0729 17:00:23.987299 19209 net.cpp:148] Top shape: 10 112 14 14 (219520)
I0729 17:00:23.987305 19209 net.cpp:156] Memory required for data: 459235840
I0729 17:00:23.987315 19209 layer_factory.hpp:77] Creating layer inception_4d/relu_1x1
I0729 17:00:23.987324 19209 net.cpp:91] Creating Layer inception_4d/relu_1x1
I0729 17:00:23.987329 19209 net.cpp:425] inception_4d/relu_1x1 <- inception_4d/1x1
I0729 17:00:23.987340 19209 net.cpp:386] inception_4d/relu_1x1 -> inception_4d/1x1 (in-place)
I0729 17:00:23.987604 19209 net.cpp:141] Setting up inception_4d/relu_1x1
I0729 17:00:23.987615 19209 net.cpp:148] Top shape: 10 112 14 14 (219520)
I0729 17:00:23.987620 19209 net.cpp:156] Memory required for data: 460113920
I0729 17:00:23.987624 19209 layer_factory.hpp:77] Creating layer inception_4d/3x3_reduce
I0729 17:00:23.987642 19209 net.cpp:91] Creating Layer inception_4d/3x3_reduce
I0729 17:00:23.987648 19209 net.cpp:425] inception_4d/3x3_reduce <- inception_4c/output_inception_4c/output_0_split_1
I0729 17:00:23.987655 19209 net.cpp:399] inception_4d/3x3_reduce -> inception_4d/3x3_reduce
I0729 17:00:23.991227 19209 net.cpp:141] Setting up inception_4d/3x3_reduce
I0729 17:00:23.991245 19209 net.cpp:148] Top shape: 10 144 14 14 (282240)
I0729 17:00:23.991250 19209 net.cpp:156] Memory required for data: 461242880
I0729 17:00:23.991260 19209 layer_factory.hpp:77] Creating layer inception_4d/relu_3x3_reduce
I0729 17:00:23.991271 19209 net.cpp:91] Creating Layer inception_4d/relu_3x3_reduce
I0729 17:00:23.991276 19209 net.cpp:425] inception_4d/relu_3x3_reduce <- inception_4d/3x3_reduce
I0729 17:00:23.991283 19209 net.cpp:386] inception_4d/relu_3x3_reduce -> inception_4d/3x3_reduce (in-place)
I0729 17:00:23.991530 19209 net.cpp:141] Setting up inception_4d/relu_3x3_reduce
I0729 17:00:23.991541 19209 net.cpp:148] Top shape: 10 144 14 14 (282240)
I0729 17:00:23.991546 19209 net.cpp:156] Memory required for data: 462371840
I0729 17:00:23.991551 19209 layer_factory.hpp:77] Creating layer inception_4d/3x3
I0729 17:00:23.991565 19209 net.cpp:91] Creating Layer inception_4d/3x3
I0729 17:00:23.991571 19209 net.cpp:425] inception_4d/3x3 <- inception_4d/3x3_reduce
I0729 17:00:23.991582 19209 net.cpp:399] inception_4d/3x3 -> inception_4d/3x3
I0729 17:00:23.999850 19209 net.cpp:141] Setting up inception_4d/3x3
I0729 17:00:23.999871 19209 net.cpp:148] Top shape: 10 288 14 14 (564480)
I0729 17:00:23.999876 19209 net.cpp:156] Memory required for data: 464629760
I0729 17:00:23.999886 19209 layer_factory.hpp:77] Creating layer inception_4d/relu_3x3
I0729 17:00:23.999894 19209 net.cpp:91] Creating Layer inception_4d/relu_3x3
I0729 17:00:23.999902 19209 net.cpp:425] inception_4d/relu_3x3 <- inception_4d/3x3
I0729 17:00:23.999909 19209 net.cpp:386] inception_4d/relu_3x3 -> inception_4d/3x3 (in-place)
I0729 17:00:24.000891 19209 net.cpp:141] Setting up inception_4d/relu_3x3
I0729 17:00:24.000906 19209 net.cpp:148] Top shape: 10 288 14 14 (564480)
I0729 17:00:24.000911 19209 net.cpp:156] Memory required for data: 466887680
I0729 17:00:24.000916 19209 layer_factory.hpp:77] Creating layer inception_4d/5x5_reduce
I0729 17:00:24.000931 19209 net.cpp:91] Creating Layer inception_4d/5x5_reduce
I0729 17:00:24.000937 19209 net.cpp:425] inception_4d/5x5_reduce <- inception_4c/output_inception_4c/output_0_split_2
I0729 17:00:24.000949 19209 net.cpp:399] inception_4d/5x5_reduce -> inception_4d/5x5_reduce
I0729 17:00:24.003867 19209 net.cpp:141] Setting up inception_4d/5x5_reduce
I0729 17:00:24.003885 19209 net.cpp:148] Top shape: 10 32 14 14 (62720)
I0729 17:00:24.003890 19209 net.cpp:156] Memory required for data: 467138560
I0729 17:00:24.003900 19209 layer_factory.hpp:77] Creating layer inception_4d/relu_5x5_reduce
I0729 17:00:24.003909 19209 net.cpp:91] Creating Layer inception_4d/relu_5x5_reduce
I0729 17:00:24.003916 19209 net.cpp:425] inception_4d/relu_5x5_reduce <- inception_4d/5x5_reduce
I0729 17:00:24.003922 19209 net.cpp:386] inception_4d/relu_5x5_reduce -> inception_4d/5x5_reduce (in-place)
I0729 17:00:24.004195 19209 net.cpp:141] Setting up inception_4d/relu_5x5_reduce
I0729 17:00:24.004207 19209 net.cpp:148] Top shape: 10 32 14 14 (62720)
I0729 17:00:24.004212 19209 net.cpp:156] Memory required for data: 467389440
I0729 17:00:24.004217 19209 layer_factory.hpp:77] Creating layer inception_4d/5x5
I0729 17:00:24.004235 19209 net.cpp:91] Creating Layer inception_4d/5x5
I0729 17:00:24.004240 19209 net.cpp:425] inception_4d/5x5 <- inception_4d/5x5_reduce
I0729 17:00:24.004261 19209 net.cpp:399] inception_4d/5x5 -> inception_4d/5x5
I0729 17:00:24.007467 19209 net.cpp:141] Setting up inception_4d/5x5
I0729 17:00:24.007483 19209 net.cpp:148] Top shape: 10 64 14 14 (125440)
I0729 17:00:24.007488 19209 net.cpp:156] Memory required for data: 467891200
I0729 17:00:24.007508 19209 layer_factory.hpp:77] Creating layer inception_4d/relu_5x5
I0729 17:00:24.007520 19209 net.cpp:91] Creating Layer inception_4d/relu_5x5
I0729 17:00:24.007526 19209 net.cpp:425] inception_4d/relu_5x5 <- inception_4d/5x5
I0729 17:00:24.007534 19209 net.cpp:386] inception_4d/relu_5x5 -> inception_4d/5x5 (in-place)
I0729 17:00:24.007781 19209 net.cpp:141] Setting up inception_4d/relu_5x5
I0729 17:00:24.007791 19209 net.cpp:148] Top shape: 10 64 14 14 (125440)
I0729 17:00:24.007796 19209 net.cpp:156] Memory required for data: 468392960
I0729 17:00:24.007800 19209 layer_factory.hpp:77] Creating layer inception_4d/pool
I0729 17:00:24.007809 19209 net.cpp:91] Creating Layer inception_4d/pool
I0729 17:00:24.007814 19209 net.cpp:425] inception_4d/pool <- inception_4c/output_inception_4c/output_0_split_3
I0729 17:00:24.007824 19209 net.cpp:399] inception_4d/pool -> inception_4d/pool
I0729 17:00:24.007949 19209 net.cpp:141] Setting up inception_4d/pool
I0729 17:00:24.007961 19209 net.cpp:148] Top shape: 10 512 14 14 (1003520)
I0729 17:00:24.007964 19209 net.cpp:156] Memory required for data: 472407040
I0729 17:00:24.007969 19209 layer_factory.hpp:77] Creating layer inception_4d/pool_proj
I0729 17:00:24.007984 19209 net.cpp:91] Creating Layer inception_4d/pool_proj
I0729 17:00:24.007990 19209 net.cpp:425] inception_4d/pool_proj <- inception_4d/pool
I0729 17:00:24.007999 19209 net.cpp:399] inception_4d/pool_proj -> inception_4d/pool_proj
I0729 17:00:24.011813 19209 net.cpp:141] Setting up inception_4d/pool_proj
I0729 17:00:24.011847 19209 net.cpp:148] Top shape: 10 64 14 14 (125440)
I0729 17:00:24.011852 19209 net.cpp:156] Memory required for data: 472908800
I0729 17:00:24.011862 19209 layer_factory.hpp:77] Creating layer inception_4d/relu_pool_proj
I0729 17:00:24.011873 19209 net.cpp:91] Creating Layer inception_4d/relu_pool_proj
I0729 17:00:24.011879 19209 net.cpp:425] inception_4d/relu_pool_proj <- inception_4d/pool_proj
I0729 17:00:24.011886 19209 net.cpp:386] inception_4d/relu_pool_proj -> inception_4d/pool_proj (in-place)
I0729 17:00:24.012820 19209 net.cpp:141] Setting up inception_4d/relu_pool_proj
I0729 17:00:24.012848 19209 net.cpp:148] Top shape: 10 64 14 14 (125440)
I0729 17:00:24.012854 19209 net.cpp:156] Memory required for data: 473410560
I0729 17:00:24.012859 19209 layer_factory.hpp:77] Creating layer inception_4d/output
I0729 17:00:24.012871 19209 net.cpp:91] Creating Layer inception_4d/output
I0729 17:00:24.012876 19209 net.cpp:425] inception_4d/output <- inception_4d/1x1
I0729 17:00:24.012883 19209 net.cpp:425] inception_4d/output <- inception_4d/3x3
I0729 17:00:24.012889 19209 net.cpp:425] inception_4d/output <- inception_4d/5x5
I0729 17:00:24.012894 19209 net.cpp:425] inception_4d/output <- inception_4d/pool_proj
I0729 17:00:24.012902 19209 net.cpp:399] inception_4d/output -> inception_4d/output
I0729 17:00:24.012976 19209 net.cpp:141] Setting up inception_4d/output
I0729 17:00:24.012989 19209 net.cpp:148] Top shape: 10 528 14 14 (1034880)
I0729 17:00:24.012995 19209 net.cpp:156] Memory required for data: 477550080
I0729 17:00:24.013000 19209 layer_factory.hpp:77] Creating layer inception_4d/output_inception_4d/output_0_split
I0729 17:00:24.013006 19209 net.cpp:91] Creating Layer inception_4d/output_inception_4d/output_0_split
I0729 17:00:24.013011 19209 net.cpp:425] inception_4d/output_inception_4d/output_0_split <- inception_4d/output
I0729 17:00:24.013018 19209 net.cpp:399] inception_4d/output_inception_4d/output_0_split -> inception_4d/output_inception_4d/output_0_split_0
I0729 17:00:24.013026 19209 net.cpp:399] inception_4d/output_inception_4d/output_0_split -> inception_4d/output_inception_4d/output_0_split_1
I0729 17:00:24.013034 19209 net.cpp:399] inception_4d/output_inception_4d/output_0_split -> inception_4d/output_inception_4d/output_0_split_2
I0729 17:00:24.013046 19209 net.cpp:399] inception_4d/output_inception_4d/output_0_split -> inception_4d/output_inception_4d/output_0_split_3
I0729 17:00:24.013223 19209 net.cpp:141] Setting up inception_4d/output_inception_4d/output_0_split
I0729 17:00:24.013233 19209 net.cpp:148] Top shape: 10 528 14 14 (1034880)
I0729 17:00:24.013239 19209 net.cpp:148] Top shape: 10 528 14 14 (1034880)
I0729 17:00:24.013244 19209 net.cpp:148] Top shape: 10 528 14 14 (1034880)
I0729 17:00:24.013249 19209 net.cpp:148] Top shape: 10 528 14 14 (1034880)
I0729 17:00:24.013253 19209 net.cpp:156] Memory required for data: 494108160
I0729 17:00:24.013258 19209 layer_factory.hpp:77] Creating layer inception_4e/1x1
I0729 17:00:24.013276 19209 net.cpp:91] Creating Layer inception_4e/1x1
I0729 17:00:24.013283 19209 net.cpp:425] inception_4e/1x1 <- inception_4d/output_inception_4d/output_0_split_0
I0729 17:00:24.013291 19209 net.cpp:399] inception_4e/1x1 -> inception_4e/1x1
I0729 17:00:24.020514 19209 net.cpp:141] Setting up inception_4e/1x1
I0729 17:00:24.020534 19209 net.cpp:148] Top shape: 10 256 14 14 (501760)
I0729 17:00:24.020551 19209 net.cpp:156] Memory required for data: 496115200
I0729 17:00:24.020561 19209 layer_factory.hpp:77] Creating layer inception_4e/relu_1x1
I0729 17:00:24.020576 19209 net.cpp:91] Creating Layer inception_4e/relu_1x1
I0729 17:00:24.020582 19209 net.cpp:425] inception_4e/relu_1x1 <- inception_4e/1x1
I0729 17:00:24.020591 19209 net.cpp:386] inception_4e/relu_1x1 -> inception_4e/1x1 (in-place)
I0729 17:00:24.020843 19209 net.cpp:141] Setting up inception_4e/relu_1x1
I0729 17:00:24.020854 19209 net.cpp:148] Top shape: 10 256 14 14 (501760)
I0729 17:00:24.020859 19209 net.cpp:156] Memory required for data: 498122240
I0729 17:00:24.020864 19209 layer_factory.hpp:77] Creating layer inception_4e/3x3_reduce
I0729 17:00:24.020879 19209 net.cpp:91] Creating Layer inception_4e/3x3_reduce
I0729 17:00:24.020886 19209 net.cpp:425] inception_4e/3x3_reduce <- inception_4d/output_inception_4d/output_0_split_1
I0729 17:00:24.020897 19209 net.cpp:399] inception_4e/3x3_reduce -> inception_4e/3x3_reduce
I0729 17:00:24.024304 19209 net.cpp:141] Setting up inception_4e/3x3_reduce
I0729 17:00:24.024323 19209 net.cpp:148] Top shape: 10 160 14 14 (313600)
I0729 17:00:24.024341 19209 net.cpp:156] Memory required for data: 499376640
I0729 17:00:24.024351 19209 layer_factory.hpp:77] Creating layer inception_4e/relu_3x3_reduce
I0729 17:00:24.024361 19209 net.cpp:91] Creating Layer inception_4e/relu_3x3_reduce
I0729 17:00:24.024366 19209 net.cpp:425] inception_4e/relu_3x3_reduce <- inception_4e/3x3_reduce
I0729 17:00:24.024374 19209 net.cpp:386] inception_4e/relu_3x3_reduce -> inception_4e/3x3_reduce (in-place)
I0729 17:00:24.024626 19209 net.cpp:141] Setting up inception_4e/relu_3x3_reduce
I0729 17:00:24.024637 19209 net.cpp:148] Top shape: 10 160 14 14 (313600)
I0729 17:00:24.024641 19209 net.cpp:156] Memory required for data: 500631040
I0729 17:00:24.024646 19209 layer_factory.hpp:77] Creating layer inception_4e/3x3
I0729 17:00:24.024660 19209 net.cpp:91] Creating Layer inception_4e/3x3
I0729 17:00:24.024667 19209 net.cpp:425] inception_4e/3x3 <- inception_4e/3x3_reduce
I0729 17:00:24.024677 19209 net.cpp:399] inception_4e/3x3 -> inception_4e/3x3
I0729 17:00:24.032821 19209 net.cpp:141] Setting up inception_4e/3x3
I0729 17:00:24.032840 19209 net.cpp:148] Top shape: 10 320 14 14 (627200)
I0729 17:00:24.032845 19209 net.cpp:156] Memory required for data: 503139840
I0729 17:00:24.032867 19209 layer_factory.hpp:77] Creating layer inception_4e/relu_3x3
I0729 17:00:24.032879 19209 net.cpp:91] Creating Layer inception_4e/relu_3x3
I0729 17:00:24.032886 19209 net.cpp:425] inception_4e/relu_3x3 <- inception_4e/3x3
I0729 17:00:24.032892 19209 net.cpp:386] inception_4e/relu_3x3 -> inception_4e/3x3 (in-place)
I0729 17:00:24.033814 19209 net.cpp:141] Setting up inception_4e/relu_3x3
I0729 17:00:24.033828 19209 net.cpp:148] Top shape: 10 320 14 14 (627200)
I0729 17:00:24.033833 19209 net.cpp:156] Memory required for data: 505648640
I0729 17:00:24.033852 19209 layer_factory.hpp:77] Creating layer inception_4e/5x5_reduce
I0729 17:00:24.033867 19209 net.cpp:91] Creating Layer inception_4e/5x5_reduce
I0729 17:00:24.033874 19209 net.cpp:425] inception_4e/5x5_reduce <- inception_4d/output_inception_4d/output_0_split_2
I0729 17:00:24.033885 19209 net.cpp:399] inception_4e/5x5_reduce -> inception_4e/5x5_reduce
I0729 17:00:24.036664 19209 net.cpp:141] Setting up inception_4e/5x5_reduce
I0729 17:00:24.036680 19209 net.cpp:148] Top shape: 10 32 14 14 (62720)
I0729 17:00:24.036685 19209 net.cpp:156] Memory required for data: 505899520
I0729 17:00:24.036707 19209 layer_factory.hpp:77] Creating layer inception_4e/relu_5x5_reduce
I0729 17:00:24.036718 19209 net.cpp:91] Creating Layer inception_4e/relu_5x5_reduce
I0729 17:00:24.036725 19209 net.cpp:425] inception_4e/relu_5x5_reduce <- inception_4e/5x5_reduce
I0729 17:00:24.036731 19209 net.cpp:386] inception_4e/relu_5x5_reduce -> inception_4e/5x5_reduce (in-place)
I0729 17:00:24.036983 19209 net.cpp:141] Setting up inception_4e/relu_5x5_reduce
I0729 17:00:24.036993 19209 net.cpp:148] Top shape: 10 32 14 14 (62720)
I0729 17:00:24.036998 19209 net.cpp:156] Memory required for data: 506150400
I0729 17:00:24.037003 19209 layer_factory.hpp:77] Creating layer inception_4e/5x5
I0729 17:00:24.037019 19209 net.cpp:91] Creating Layer inception_4e/5x5
I0729 17:00:24.037025 19209 net.cpp:425] inception_4e/5x5 <- inception_4e/5x5_reduce
I0729 17:00:24.037034 19209 net.cpp:399] inception_4e/5x5 -> inception_4e/5x5
I0729 17:00:24.047911 19209 net.cpp:141] Setting up inception_4e/5x5
I0729 17:00:24.047945 19209 net.cpp:148] Top shape: 10 128 14 14 (250880)
I0729 17:00:24.047955 19209 net.cpp:156] Memory required for data: 507153920
I0729 17:00:24.047971 19209 layer_factory.hpp:77] Creating layer inception_4e/relu_5x5
I0729 17:00:24.047986 19209 net.cpp:91] Creating Layer inception_4e/relu_5x5
I0729 17:00:24.047996 19209 net.cpp:425] inception_4e/relu_5x5 <- inception_4e/5x5
I0729 17:00:24.048012 19209 net.cpp:386] inception_4e/relu_5x5 -> inception_4e/5x5 (in-place)
I0729 17:00:24.048367 19209 net.cpp:141] Setting up inception_4e/relu_5x5
I0729 17:00:24.048382 19209 net.cpp:148] Top shape: 10 128 14 14 (250880)
I0729 17:00:24.048389 19209 net.cpp:156] Memory required for data: 508157440
I0729 17:00:24.048398 19209 layer_factory.hpp:77] Creating layer inception_4e/pool
I0729 17:00:24.048416 19209 net.cpp:91] Creating Layer inception_4e/pool
I0729 17:00:24.048425 19209 net.cpp:425] inception_4e/pool <- inception_4d/output_inception_4d/output_0_split_3
I0729 17:00:24.048437 19209 net.cpp:399] inception_4e/pool -> inception_4e/pool
I0729 17:00:24.048594 19209 net.cpp:141] Setting up inception_4e/pool
I0729 17:00:24.048609 19209 net.cpp:148] Top shape: 10 528 14 14 (1034880)
I0729 17:00:24.048615 19209 net.cpp:156] Memory required for data: 512296960
I0729 17:00:24.048622 19209 layer_factory.hpp:77] Creating layer inception_4e/pool_proj
I0729 17:00:24.048647 19209 net.cpp:91] Creating Layer inception_4e/pool_proj
I0729 17:00:24.048658 19209 net.cpp:425] inception_4e/pool_proj <- inception_4e/pool
I0729 17:00:24.048673 19209 net.cpp:399] inception_4e/pool_proj -> inception_4e/pool_proj
I0729 17:00:24.054175 19209 net.cpp:141] Setting up inception_4e/pool_proj
I0729 17:00:24.054201 19209 net.cpp:148] Top shape: 10 128 14 14 (250880)
I0729 17:00:24.054210 19209 net.cpp:156] Memory required for data: 513300480
I0729 17:00:24.054225 19209 layer_factory.hpp:77] Creating layer inception_4e/relu_pool_proj
I0729 17:00:24.054239 19209 net.cpp:91] Creating Layer inception_4e/relu_pool_proj
I0729 17:00:24.054247 19209 net.cpp:425] inception_4e/relu_pool_proj <- inception_4e/pool_proj
I0729 17:00:24.054265 19209 net.cpp:386] inception_4e/relu_pool_proj -> inception_4e/pool_proj (in-place)
I0729 17:00:24.055886 19209 net.cpp:141] Setting up inception_4e/relu_pool_proj
I0729 17:00:24.055908 19209 net.cpp:148] Top shape: 10 128 14 14 (250880)
I0729 17:00:24.055917 19209 net.cpp:156] Memory required for data: 514304000
I0729 17:00:24.055924 19209 layer_factory.hpp:77] Creating layer inception_4e/output
I0729 17:00:24.055938 19209 net.cpp:91] Creating Layer inception_4e/output
I0729 17:00:24.055945 19209 net.cpp:425] inception_4e/output <- inception_4e/1x1
I0729 17:00:24.055955 19209 net.cpp:425] inception_4e/output <- inception_4e/3x3
I0729 17:00:24.055964 19209 net.cpp:425] inception_4e/output <- inception_4e/5x5
I0729 17:00:24.055972 19209 net.cpp:425] inception_4e/output <- inception_4e/pool_proj
I0729 17:00:24.055986 19209 net.cpp:399] inception_4e/output -> inception_4e/output
I0729 17:00:24.056083 19209 net.cpp:141] Setting up inception_4e/output
I0729 17:00:24.056097 19209 net.cpp:148] Top shape: 10 832 14 14 (1630720)
I0729 17:00:24.056104 19209 net.cpp:156] Memory required for data: 520826880
I0729 17:00:24.056113 19209 layer_factory.hpp:77] Creating layer pool4/3x3_s2
I0729 17:00:24.056129 19209 net.cpp:91] Creating Layer pool4/3x3_s2
I0729 17:00:24.056138 19209 net.cpp:425] pool4/3x3_s2 <- inception_4e/output
I0729 17:00:24.056150 19209 net.cpp:399] pool4/3x3_s2 -> pool4/3x3_s2
I0729 17:00:24.056298 19209 net.cpp:141] Setting up pool4/3x3_s2
I0729 17:00:24.056313 19209 net.cpp:148] Top shape: 10 832 7 7 (407680)
I0729 17:00:24.056320 19209 net.cpp:156] Memory required for data: 522457600
I0729 17:00:24.056329 19209 layer_factory.hpp:77] Creating layer pool4/3x3_s2_pool4/3x3_s2_0_split
I0729 17:00:24.056340 19209 net.cpp:91] Creating Layer pool4/3x3_s2_pool4/3x3_s2_0_split
I0729 17:00:24.056349 19209 net.cpp:425] pool4/3x3_s2_pool4/3x3_s2_0_split <- pool4/3x3_s2
I0729 17:00:24.056363 19209 net.cpp:399] pool4/3x3_s2_pool4/3x3_s2_0_split -> pool4/3x3_s2_pool4/3x3_s2_0_split_0
I0729 17:00:24.056376 19209 net.cpp:399] pool4/3x3_s2_pool4/3x3_s2_0_split -> pool4/3x3_s2_pool4/3x3_s2_0_split_1
I0729 17:00:24.056390 19209 net.cpp:399] pool4/3x3_s2_pool4/3x3_s2_0_split -> pool4/3x3_s2_pool4/3x3_s2_0_split_2
I0729 17:00:24.056401 19209 net.cpp:399] pool4/3x3_s2_pool4/3x3_s2_0_split -> pool4/3x3_s2_pool4/3x3_s2_0_split_3
I0729 17:00:24.056643 19209 net.cpp:141] Setting up pool4/3x3_s2_pool4/3x3_s2_0_split
I0729 17:00:24.056658 19209 net.cpp:148] Top shape: 10 832 7 7 (407680)
I0729 17:00:24.056668 19209 net.cpp:148] Top shape: 10 832 7 7 (407680)
I0729 17:00:24.056676 19209 net.cpp:148] Top shape: 10 832 7 7 (407680)
I0729 17:00:24.056685 19209 net.cpp:148] Top shape: 10 832 7 7 (407680)
I0729 17:00:24.056691 19209 net.cpp:156] Memory required for data: 528980480
I0729 17:00:24.056699 19209 layer_factory.hpp:77] Creating layer inception_5a/1x1
I0729 17:00:24.056715 19209 net.cpp:91] Creating Layer inception_5a/1x1
I0729 17:00:24.056725 19209 net.cpp:425] inception_5a/1x1 <- pool4/3x3_s2_pool4/3x3_s2_0_split_0
I0729 17:00:24.056741 19209 net.cpp:399] inception_5a/1x1 -> inception_5a/1x1
I0729 17:00:24.065337 19209 net.cpp:141] Setting up inception_5a/1x1
I0729 17:00:24.065366 19209 net.cpp:148] Top shape: 10 256 7 7 (125440)
I0729 17:00:24.065372 19209 net.cpp:156] Memory required for data: 529482240
I0729 17:00:24.065384 19209 layer_factory.hpp:77] Creating layer inception_5a/relu_1x1
I0729 17:00:24.065394 19209 net.cpp:91] Creating Layer inception_5a/relu_1x1
I0729 17:00:24.065402 19209 net.cpp:425] inception_5a/relu_1x1 <- inception_5a/1x1
I0729 17:00:24.065412 19209 net.cpp:386] inception_5a/relu_1x1 -> inception_5a/1x1 (in-place)
I0729 17:00:24.065677 19209 net.cpp:141] Setting up inception_5a/relu_1x1
I0729 17:00:24.065690 19209 net.cpp:148] Top shape: 10 256 7 7 (125440)
I0729 17:00:24.065693 19209 net.cpp:156] Memory required for data: 529984000
I0729 17:00:24.065698 19209 layer_factory.hpp:77] Creating layer inception_5a/3x3_reduce
I0729 17:00:24.065716 19209 net.cpp:91] Creating Layer inception_5a/3x3_reduce
I0729 17:00:24.065724 19209 net.cpp:425] inception_5a/3x3_reduce <- pool4/3x3_s2_pool4/3x3_s2_0_split_1
I0729 17:00:24.065733 19209 net.cpp:399] inception_5a/3x3_reduce -> inception_5a/3x3_reduce
I0729 17:00:24.080965 19209 net.cpp:141] Setting up inception_5a/3x3_reduce
I0729 17:00:24.081027 19209 net.cpp:148] Top shape: 10 160 7 7 (78400)
I0729 17:00:24.081033 19209 net.cpp:156] Memory required for data: 530297600
I0729 17:00:24.081049 19209 layer_factory.hpp:77] Creating layer inception_5a/relu_3x3_reduce
I0729 17:00:24.081068 19209 net.cpp:91] Creating Layer inception_5a/relu_3x3_reduce
I0729 17:00:24.081078 19209 net.cpp:425] inception_5a/relu_3x3_reduce <- inception_5a/3x3_reduce
I0729 17:00:24.081087 19209 net.cpp:386] inception_5a/relu_3x3_reduce -> inception_5a/3x3_reduce (in-place)
I0729 17:00:24.081367 19209 net.cpp:141] Setting up inception_5a/relu_3x3_reduce
I0729 17:00:24.081378 19209 net.cpp:148] Top shape: 10 160 7 7 (78400)
I0729 17:00:24.081382 19209 net.cpp:156] Memory required for data: 530611200
I0729 17:00:24.081387 19209 layer_factory.hpp:77] Creating layer inception_5a/3x3
I0729 17:00:24.081409 19209 net.cpp:91] Creating Layer inception_5a/3x3
I0729 17:00:24.081416 19209 net.cpp:425] inception_5a/3x3 <- inception_5a/3x3_reduce
I0729 17:00:24.081429 19209 net.cpp:399] inception_5a/3x3 -> inception_5a/3x3
I0729 17:00:24.097635 19209 net.cpp:141] Setting up inception_5a/3x3
I0729 17:00:24.097681 19209 net.cpp:148] Top shape: 10 320 7 7 (156800)
I0729 17:00:24.097690 19209 net.cpp:156] Memory required for data: 531238400
I0729 17:00:24.097707 19209 layer_factory.hpp:77] Creating layer inception_5a/relu_3x3
I0729 17:00:24.097728 19209 net.cpp:91] Creating Layer inception_5a/relu_3x3
I0729 17:00:24.097738 19209 net.cpp:425] inception_5a/relu_3x3 <- inception_5a/3x3
I0729 17:00:24.097748 19209 net.cpp:386] inception_5a/relu_3x3 -> inception_5a/3x3 (in-place)
I0729 17:00:24.098762 19209 net.cpp:141] Setting up inception_5a/relu_3x3
I0729 17:00:24.098783 19209 net.cpp:148] Top shape: 10 320 7 7 (156800)
I0729 17:00:24.098789 19209 net.cpp:156] Memory required for data: 531865600
I0729 17:00:24.098794 19209 layer_factory.hpp:77] Creating layer inception_5a/5x5_reduce
I0729 17:00:24.098820 19209 net.cpp:91] Creating Layer inception_5a/5x5_reduce
I0729 17:00:24.098827 19209 net.cpp:425] inception_5a/5x5_reduce <- pool4/3x3_s2_pool4/3x3_s2_0_split_2
I0729 17:00:24.098839 19209 net.cpp:399] inception_5a/5x5_reduce -> inception_5a/5x5_reduce
I0729 17:00:24.107748 19209 net.cpp:141] Setting up inception_5a/5x5_reduce
I0729 17:00:24.107795 19209 net.cpp:148] Top shape: 10 32 7 7 (15680)
I0729 17:00:24.107803 19209 net.cpp:156] Memory required for data: 531928320
I0729 17:00:24.107820 19209 layer_factory.hpp:77] Creating layer inception_5a/relu_5x5_reduce
I0729 17:00:24.107846 19209 net.cpp:91] Creating Layer inception_5a/relu_5x5_reduce
I0729 17:00:24.107856 19209 net.cpp:425] inception_5a/relu_5x5_reduce <- inception_5a/5x5_reduce
I0729 17:00:24.107867 19209 net.cpp:386] inception_5a/relu_5x5_reduce -> inception_5a/5x5_reduce (in-place)
I0729 17:00:24.108139 19209 net.cpp:141] Setting up inception_5a/relu_5x5_reduce
I0729 17:00:24.108150 19209 net.cpp:148] Top shape: 10 32 7 7 (15680)
I0729 17:00:24.108155 19209 net.cpp:156] Memory required for data: 531991040
I0729 17:00:24.108160 19209 layer_factory.hpp:77] Creating layer inception_5a/5x5
I0729 17:00:24.108182 19209 net.cpp:91] Creating Layer inception_5a/5x5
I0729 17:00:24.108188 19209 net.cpp:425] inception_5a/5x5 <- inception_5a/5x5_reduce
I0729 17:00:24.108199 19209 net.cpp:399] inception_5a/5x5 -> inception_5a/5x5
I0729 17:00:24.119467 19209 net.cpp:141] Setting up inception_5a/5x5
I0729 17:00:24.119526 19209 net.cpp:148] Top shape: 10 128 7 7 (62720)
I0729 17:00:24.119534 19209 net.cpp:156] Memory required for data: 532241920
I0729 17:00:24.119550 19209 layer_factory.hpp:77] Creating layer inception_5a/relu_5x5
I0729 17:00:24.119596 19209 net.cpp:91] Creating Layer inception_5a/relu_5x5
I0729 17:00:24.119606 19209 net.cpp:425] inception_5a/relu_5x5 <- inception_5a/5x5
I0729 17:00:24.119616 19209 net.cpp:386] inception_5a/relu_5x5 -> inception_5a/5x5 (in-place)
I0729 17:00:24.119891 19209 net.cpp:141] Setting up inception_5a/relu_5x5
I0729 17:00:24.119902 19209 net.cpp:148] Top shape: 10 128 7 7 (62720)
I0729 17:00:24.119907 19209 net.cpp:156] Memory required for data: 532492800
I0729 17:00:24.119915 19209 layer_factory.hpp:77] Creating layer inception_5a/pool
I0729 17:00:24.119925 19209 net.cpp:91] Creating Layer inception_5a/pool
I0729 17:00:24.119931 19209 net.cpp:425] inception_5a/pool <- pool4/3x3_s2_pool4/3x3_s2_0_split_3
I0729 17:00:24.119940 19209 net.cpp:399] inception_5a/pool -> inception_5a/pool
I0729 17:00:24.120074 19209 net.cpp:141] Setting up inception_5a/pool
I0729 17:00:24.120084 19209 net.cpp:148] Top shape: 10 832 7 7 (407680)
I0729 17:00:24.120088 19209 net.cpp:156] Memory required for data: 534123520
I0729 17:00:24.120092 19209 layer_factory.hpp:77] Creating layer inception_5a/pool_proj
I0729 17:00:24.120115 19209 net.cpp:91] Creating Layer inception_5a/pool_proj
I0729 17:00:24.120121 19209 net.cpp:425] inception_5a/pool_proj <- inception_5a/pool
I0729 17:00:24.120128 19209 net.cpp:399] inception_5a/pool_proj -> inception_5a/pool_proj
I0729 17:00:24.133102 19209 net.cpp:141] Setting up inception_5a/pool_proj
I0729 17:00:24.133162 19209 net.cpp:148] Top shape: 10 128 7 7 (62720)
I0729 17:00:24.133168 19209 net.cpp:156] Memory required for data: 534374400
I0729 17:00:24.133184 19209 layer_factory.hpp:77] Creating layer inception_5a/relu_pool_proj
I0729 17:00:24.133199 19209 net.cpp:91] Creating Layer inception_5a/relu_pool_proj
I0729 17:00:24.133209 19209 net.cpp:425] inception_5a/relu_pool_proj <- inception_5a/pool_proj
I0729 17:00:24.133222 19209 net.cpp:386] inception_5a/relu_pool_proj -> inception_5a/pool_proj (in-place)
I0729 17:00:24.141149 19209 net.cpp:141] Setting up inception_5a/relu_pool_proj
I0729 17:00:24.141211 19209 net.cpp:148] Top shape: 10 128 7 7 (62720)
I0729 17:00:24.141217 19209 net.cpp:156] Memory required for data: 534625280
I0729 17:00:24.141227 19209 layer_factory.hpp:77] Creating layer inception_5a/output
I0729 17:00:24.141247 19209 net.cpp:91] Creating Layer inception_5a/output
I0729 17:00:24.141257 19209 net.cpp:425] inception_5a/output <- inception_5a/1x1
I0729 17:00:24.141268 19209 net.cpp:425] inception_5a/output <- inception_5a/3x3
I0729 17:00:24.141274 19209 net.cpp:425] inception_5a/output <- inception_5a/5x5
I0729 17:00:24.141280 19209 net.cpp:425] inception_5a/output <- inception_5a/pool_proj
I0729 17:00:24.141288 19209 net.cpp:399] inception_5a/output -> inception_5a/output
I0729 17:00:24.141427 19209 net.cpp:141] Setting up inception_5a/output
I0729 17:00:24.141438 19209 net.cpp:148] Top shape: 10 832 7 7 (407680)
I0729 17:00:24.141443 19209 net.cpp:156] Memory required for data: 536256000
I0729 17:00:24.141448 19209 layer_factory.hpp:77] Creating layer inception_5a/output_inception_5a/output_0_split
I0729 17:00:24.141458 19209 net.cpp:91] Creating Layer inception_5a/output_inception_5a/output_0_split
I0729 17:00:24.141464 19209 net.cpp:425] inception_5a/output_inception_5a/output_0_split <- inception_5a/output
I0729 17:00:24.141470 19209 net.cpp:399] inception_5a/output_inception_5a/output_0_split -> inception_5a/output_inception_5a/output_0_split_0
I0729 17:00:24.141479 19209 net.cpp:399] inception_5a/output_inception_5a/output_0_split -> inception_5a/output_inception_5a/output_0_split_1
I0729 17:00:24.141489 19209 net.cpp:399] inception_5a/output_inception_5a/output_0_split -> inception_5a/output_inception_5a/output_0_split_2
I0729 17:00:24.141496 19209 net.cpp:399] inception_5a/output_inception_5a/output_0_split -> inception_5a/output_inception_5a/output_0_split_3
I0729 17:00:24.141702 19209 net.cpp:141] Setting up inception_5a/output_inception_5a/output_0_split
I0729 17:00:24.141713 19209 net.cpp:148] Top shape: 10 832 7 7 (407680)
I0729 17:00:24.141719 19209 net.cpp:148] Top shape: 10 832 7 7 (407680)
I0729 17:00:24.141724 19209 net.cpp:148] Top shape: 10 832 7 7 (407680)
I0729 17:00:24.141729 19209 net.cpp:148] Top shape: 10 832 7 7 (407680)
I0729 17:00:24.141733 19209 net.cpp:156] Memory required for data: 542778880
I0729 17:00:24.141738 19209 layer_factory.hpp:77] Creating layer inception_5b/1x1
I0729 17:00:24.141763 19209 net.cpp:91] Creating Layer inception_5b/1x1
I0729 17:00:24.141770 19209 net.cpp:425] inception_5b/1x1 <- inception_5a/output_inception_5a/output_0_split_0
I0729 17:00:24.141778 19209 net.cpp:399] inception_5b/1x1 -> inception_5b/1x1
I0729 17:00:24.155454 19209 net.cpp:141] Setting up inception_5b/1x1
I0729 17:00:24.155515 19209 net.cpp:148] Top shape: 10 384 7 7 (188160)
I0729 17:00:24.155522 19209 net.cpp:156] Memory required for data: 543531520
I0729 17:00:24.155539 19209 layer_factory.hpp:77] Creating layer inception_5b/relu_1x1
I0729 17:00:24.155555 19209 net.cpp:91] Creating Layer inception_5b/relu_1x1
I0729 17:00:24.155565 19209 net.cpp:425] inception_5b/relu_1x1 <- inception_5b/1x1
I0729 17:00:24.155578 19209 net.cpp:386] inception_5b/relu_1x1 -> inception_5b/1x1 (in-place)
I0729 17:00:24.155848 19209 net.cpp:141] Setting up inception_5b/relu_1x1
I0729 17:00:24.155859 19209 net.cpp:148] Top shape: 10 384 7 7 (188160)
I0729 17:00:24.155864 19209 net.cpp:156] Memory required for data: 544284160
I0729 17:00:24.155869 19209 layer_factory.hpp:77] Creating layer inception_5b/3x3_reduce
I0729 17:00:24.155889 19209 net.cpp:91] Creating Layer inception_5b/3x3_reduce
I0729 17:00:24.155895 19209 net.cpp:425] inception_5b/3x3_reduce <- inception_5a/output_inception_5a/output_0_split_1
I0729 17:00:24.155907 19209 net.cpp:399] inception_5b/3x3_reduce -> inception_5b/3x3_reduce
I0729 17:00:24.170377 19209 net.cpp:141] Setting up inception_5b/3x3_reduce
I0729 17:00:24.170428 19209 net.cpp:148] Top shape: 10 192 7 7 (94080)
I0729 17:00:24.170434 19209 net.cpp:156] Memory required for data: 544660480
I0729 17:00:24.170449 19209 layer_factory.hpp:77] Creating layer inception_5b/relu_3x3_reduce
I0729 17:00:24.170466 19209 net.cpp:91] Creating Layer inception_5b/relu_3x3_reduce
I0729 17:00:24.170475 19209 net.cpp:425] inception_5b/relu_3x3_reduce <- inception_5b/3x3_reduce
I0729 17:00:24.170485 19209 net.cpp:386] inception_5b/relu_3x3_reduce -> inception_5b/3x3_reduce (in-place)
I0729 17:00:24.170766 19209 net.cpp:141] Setting up inception_5b/relu_3x3_reduce
I0729 17:00:24.170778 19209 net.cpp:148] Top shape: 10 192 7 7 (94080)
I0729 17:00:24.170783 19209 net.cpp:156] Memory required for data: 545036800
I0729 17:00:24.170789 19209 layer_factory.hpp:77] Creating layer inception_5b/3x3
I0729 17:00:24.170810 19209 net.cpp:91] Creating Layer inception_5b/3x3
I0729 17:00:24.170816 19209 net.cpp:425] inception_5b/3x3 <- inception_5b/3x3_reduce
I0729 17:00:24.170825 19209 net.cpp:399] inception_5b/3x3 -> inception_5b/3x3
I0729 17:00:24.195873 19209 net.cpp:141] Setting up inception_5b/3x3
I0729 17:00:24.195930 19209 net.cpp:148] Top shape: 10 384 7 7 (188160)
I0729 17:00:24.195937 19209 net.cpp:156] Memory required for data: 545789440
I0729 17:00:24.195955 19209 layer_factory.hpp:77] Creating layer inception_5b/relu_3x3
I0729 17:00:24.195971 19209 net.cpp:91] Creating Layer inception_5b/relu_3x3
I0729 17:00:24.195981 19209 net.cpp:425] inception_5b/relu_3x3 <- inception_5b/3x3
I0729 17:00:24.195996 19209 net.cpp:386] inception_5b/relu_3x3 -> inception_5b/3x3 (in-place)
I0729 17:00:24.196866 19209 net.cpp:141] Setting up inception_5b/relu_3x3
I0729 17:00:24.196895 19209 net.cpp:148] Top shape: 10 384 7 7 (188160)
I0729 17:00:24.196900 19209 net.cpp:156] Memory required for data: 546542080
I0729 17:00:24.196905 19209 layer_factory.hpp:77] Creating layer inception_5b/5x5_reduce
I0729 17:00:24.196929 19209 net.cpp:91] Creating Layer inception_5b/5x5_reduce
I0729 17:00:24.196936 19209 net.cpp:425] inception_5b/5x5_reduce <- inception_5a/output_inception_5a/output_0_split_2
I0729 17:00:24.196949 19209 net.cpp:399] inception_5b/5x5_reduce -> inception_5b/5x5_reduce
I0729 17:00:24.211442 19209 net.cpp:141] Setting up inception_5b/5x5_reduce
I0729 17:00:24.211503 19209 net.cpp:148] Top shape: 10 48 7 7 (23520)
I0729 17:00:24.211510 19209 net.cpp:156] Memory required for data: 546636160
I0729 17:00:24.211527 19209 layer_factory.hpp:77] Creating layer inception_5b/relu_5x5_reduce
I0729 17:00:24.211545 19209 net.cpp:91] Creating Layer inception_5b/relu_5x5_reduce
I0729 17:00:24.211555 19209 net.cpp:425] inception_5b/relu_5x5_reduce <- inception_5b/5x5_reduce
I0729 17:00:24.211565 19209 net.cpp:386] inception_5b/relu_5x5_reduce -> inception_5b/5x5_reduce (in-place)
I0729 17:00:24.211905 19209 net.cpp:141] Setting up inception_5b/relu_5x5_reduce
I0729 17:00:24.211917 19209 net.cpp:148] Top shape: 10 48 7 7 (23520)
I0729 17:00:24.211921 19209 net.cpp:156] Memory required for data: 546730240
I0729 17:00:24.211927 19209 layer_factory.hpp:77] Creating layer inception_5b/5x5
I0729 17:00:24.211951 19209 net.cpp:91] Creating Layer inception_5b/5x5
I0729 17:00:24.211956 19209 net.cpp:425] inception_5b/5x5 <- inception_5b/5x5_reduce
I0729 17:00:24.211968 19209 net.cpp:399] inception_5b/5x5 -> inception_5b/5x5
I0729 17:00:24.227535 19209 net.cpp:141] Setting up inception_5b/5x5
I0729 17:00:24.227579 19209 net.cpp:148] Top shape: 10 128 7 7 (62720)
I0729 17:00:24.227586 19209 net.cpp:156] Memory required for data: 546981120
I0729 17:00:24.227602 19209 layer_factory.hpp:77] Creating layer inception_5b/relu_5x5
I0729 17:00:24.227620 19209 net.cpp:91] Creating Layer inception_5b/relu_5x5
I0729 17:00:24.227630 19209 net.cpp:425] inception_5b/relu_5x5 <- inception_5b/5x5
I0729 17:00:24.227643 19209 net.cpp:386] inception_5b/relu_5x5 -> inception_5b/5x5 (in-place)
I0729 17:00:24.227922 19209 net.cpp:141] Setting up inception_5b/relu_5x5
I0729 17:00:24.227933 19209 net.cpp:148] Top shape: 10 128 7 7 (62720)
I0729 17:00:24.227938 19209 net.cpp:156] Memory required for data: 547232000
I0729 17:00:24.227943 19209 layer_factory.hpp:77] Creating layer inception_5b/pool
I0729 17:00:24.227957 19209 net.cpp:91] Creating Layer inception_5b/pool
I0729 17:00:24.227964 19209 net.cpp:425] inception_5b/pool <- inception_5a/output_inception_5a/output_0_split_3
I0729 17:00:24.227972 19209 net.cpp:399] inception_5b/pool -> inception_5b/pool
I0729 17:00:24.228111 19209 net.cpp:141] Setting up inception_5b/pool
I0729 17:00:24.228122 19209 net.cpp:148] Top shape: 10 832 7 7 (407680)
I0729 17:00:24.228127 19209 net.cpp:156] Memory required for data: 548862720
I0729 17:00:24.228132 19209 layer_factory.hpp:77] Creating layer inception_5b/pool_proj
I0729 17:00:24.228153 19209 net.cpp:91] Creating Layer inception_5b/pool_proj
I0729 17:00:24.228160 19209 net.cpp:425] inception_5b/pool_proj <- inception_5b/pool
I0729 17:00:24.228170 19209 net.cpp:399] inception_5b/pool_proj -> inception_5b/pool_proj
I0729 17:00:24.243929 19209 net.cpp:141] Setting up inception_5b/pool_proj
I0729 17:00:24.243989 19209 net.cpp:148] Top shape: 10 128 7 7 (62720)
I0729 17:00:24.243996 19209 net.cpp:156] Memory required for data: 549113600
I0729 17:00:24.244014 19209 layer_factory.hpp:77] Creating layer inception_5b/relu_pool_proj
I0729 17:00:24.244034 19209 net.cpp:91] Creating Layer inception_5b/relu_pool_proj
I0729 17:00:24.244042 19209 net.cpp:425] inception_5b/relu_pool_proj <- inception_5b/pool_proj
I0729 17:00:24.244052 19209 net.cpp:386] inception_5b/relu_pool_proj -> inception_5b/pool_proj (in-place)
I0729 17:00:24.244971 19209 net.cpp:141] Setting up inception_5b/relu_pool_proj
I0729 17:00:24.244987 19209 net.cpp:148] Top shape: 10 128 7 7 (62720)
I0729 17:00:24.245005 19209 net.cpp:156] Memory required for data: 549364480
I0729 17:00:24.245010 19209 layer_factory.hpp:77] Creating layer inception_5b/output
I0729 17:00:24.245021 19209 net.cpp:91] Creating Layer inception_5b/output
I0729 17:00:24.245028 19209 net.cpp:425] inception_5b/output <- inception_5b/1x1
I0729 17:00:24.245034 19209 net.cpp:425] inception_5b/output <- inception_5b/3x3
I0729 17:00:24.245040 19209 net.cpp:425] inception_5b/output <- inception_5b/5x5
I0729 17:00:24.245046 19209 net.cpp:425] inception_5b/output <- inception_5b/pool_proj
I0729 17:00:24.245052 19209 net.cpp:399] inception_5b/output -> inception_5b/output
I0729 17:00:24.245139 19209 net.cpp:141] Setting up inception_5b/output
I0729 17:00:24.245154 19209 net.cpp:148] Top shape: 10 1024 7 7 (501760)
I0729 17:00:24.245159 19209 net.cpp:156] Memory required for data: 551371520
I0729 17:00:24.245164 19209 layer_factory.hpp:77] Creating layer pool5/7x7_s1
I0729 17:00:24.245175 19209 net.cpp:91] Creating Layer pool5/7x7_s1
I0729 17:00:24.245180 19209 net.cpp:425] pool5/7x7_s1 <- inception_5b/output
I0729 17:00:24.245187 19209 net.cpp:399] pool5/7x7_s1 -> pool5/7x7_s1
I0729 17:00:24.245514 19209 net.cpp:141] Setting up pool5/7x7_s1
I0729 17:00:24.245527 19209 net.cpp:148] Top shape: 10 1024 1 1 (10240)
I0729 17:00:24.245530 19209 net.cpp:156] Memory required for data: 551412480
I0729 17:00:24.245535 19209 layer_factory.hpp:77] Creating layer pool5/drop_7x7_s1
I0729 17:00:24.245544 19209 net.cpp:91] Creating Layer pool5/drop_7x7_s1
I0729 17:00:24.245549 19209 net.cpp:425] pool5/drop_7x7_s1 <- pool5/7x7_s1
I0729 17:00:24.245558 19209 net.cpp:386] pool5/drop_7x7_s1 -> pool5/7x7_s1 (in-place)
I0729 17:00:24.245628 19209 net.cpp:141] Setting up pool5/drop_7x7_s1
I0729 17:00:24.245638 19209 net.cpp:148] Top shape: 10 1024 1 1 (10240)
I0729 17:00:24.245642 19209 net.cpp:156] Memory required for data: 551453440
I0729 17:00:24.245647 19209 layer_factory.hpp:77] Creating layer loss3/classifier
I0729 17:00:24.245662 19209 net.cpp:91] Creating Layer loss3/classifier
I0729 17:00:24.245668 19209 net.cpp:425] loss3/classifier <- pool5/7x7_s1
I0729 17:00:24.245676 19209 net.cpp:399] loss3/classifier -> loss3/classifier
I0729 17:00:24.265961 19209 net.cpp:141] Setting up loss3/classifier
I0729 17:00:24.266021 19209 net.cpp:148] Top shape: 10 1000 (10000)
I0729 17:00:24.266027 19209 net.cpp:156] Memory required for data: 551493440
I0729 17:00:24.266044 19209 layer_factory.hpp:77] Creating layer prob
I0729 17:00:24.266060 19209 net.cpp:91] Creating Layer prob
I0729 17:00:24.266070 19209 net.cpp:425] prob <- loss3/classifier
I0729 17:00:24.266080 19209 net.cpp:399] prob -> prob
I0729 17:00:24.268554 19209 net.cpp:141] Setting up prob
I0729 17:00:24.268591 19209 net.cpp:148] Top shape: 10 1000 (10000)
I0729 17:00:24.268599 19209 net.cpp:156] Memory required for data: 551533440
I0729 17:00:24.268604 19209 net.cpp:219] prob does not need backward computation.
I0729 17:00:24.268610 19209 net.cpp:219] loss3/classifier does not need backward computation.
I0729 17:00:24.268615 19209 net.cpp:219] pool5/drop_7x7_s1 does not need backward computation.
I0729 17:00:24.268620 19209 net.cpp:219] pool5/7x7_s1 does not need backward computation.
…
