…
Java HotSpot(TM) 64-Bit Server VM warning: You have loaded library /tmp/cvld6222069470341149928/libopencv_java310.xine1.so which might have disabled stack guard. The VM will try to fix the stack guard now.
It's highly recommended that you fix the library with 'execstack -c <libfile>', or link it with '-z noexecstack'.
WARNING: Logging before InitGoogleLogging() is written to STDERR
I0731 23:57:42.500675 31757 net.cpp:49] Initializing net from parameters: 
name: "CaffeNet"
state {
  phase: TEST
}
layer {
  name: "data"
  type: "Input"
  top: "data"
  input_param {
    shape {
      dim: 10
      dim: 3
      dim: 227
      dim: 227
    }
  }
}
layer {
  name: "conv1"
  type: "Convolution"
  bottom: "data"
  top: "conv1"
  convolution_param {
    num_output: 96
    kernel_size: 11
    stride: 4
  }
}
layer {
  name: "relu1"
  type: "ReLU"
  bottom: "conv1"
  top: "conv1"
}
layer {
  name: "pool1"
  type: "Pooling"
  bottom: "conv1"
  top: "pool1"
  pooling_param {
    pool: MAX
    kernel_size: 3
    stride: 2
  }
}
layer {
  name: "norm1"
  type: "LRN"
  bottom: "pool1"
  top: "norm1"
  lrn_param {
    local_size: 5
    alpha: 0.0001
    beta: 0.75
  }
}
layer {
  name: "conv2"
  type: "Convolution"
  bottom: "norm1"
  top: "conv2"
  convolution_param {
    num_output: 256
    pad: 2
    kernel_size: 5
    group: 2
  }
}
layer {
  name: "relu2"
  type: "ReLU"
  bottom: "conv2"
  top: "conv2"
}
layer {
  name: "pool2"
  type: "Pooling"
  bottom: "conv2"
  top: "pool2"
  pooling_param {
    pool: MAX
    kernel_size: 3
    stride: 2
  }
}
layer {
  name: "norm2"
  type: "LRN"
  bottom: "pool2"
  top: "norm2"
  lrn_param {
    local_size: 5
    alpha: 0.0001
    beta: 0.75
  }
}
layer {
  name: "conv3"
  type: "Convolution"
  bottom: "norm2"
  top: "conv3"
  convolution_param {
    num_output: 384
    pad: 1
    kernel_size: 3
  }
}
layer {
  name: "relu3"
  type: "ReLU"
  bottom: "conv3"
  top: "conv3"
}
layer {
  name: "conv4"
  type: "Convolution"
  bottom: "conv3"
  top: "conv4"
  convolution_param {
    num_output: 384
    pad: 1
    kernel_size: 3
    group: 2
  }
}
layer {
  name: "relu4"
  type: "ReLU"
  bottom: "conv4"
  top: "conv4"
}
layer {
  name: "conv5"
  type: "Convolution"
  bottom: "conv4"
  top: "conv5"
  convolution_param {
    num_output: 256
    pad: 1
    kernel_size: 3
    group: 2
  }
}
layer {
  name: "relu5"
  type: "ReLU"
  bottom: "conv5"
  top: "conv5"
}
layer {
  name: "pool5"
  type: "Pooling"
  bottom: "conv5"
  top: "pool5"
  pooling_param {
    pool: MAX
    kernel_size: 3
    stride: 2
  }
}
layer {
  name: "fc6"
  type: "InnerProduct"
  bottom: "pool5"
  top: "fc6"
  inner_product_param {
    num_output: 4096
  }
}
layer {
  name: "relu6"
  type: "ReLU"
  bottom: "fc6"
  top: "fc6"
}
layer {
  name: "drop6"
  type: "Dropout"
  bottom: "fc6"
  top: "fc6"
  dropout_param {
    dropout_ratio: 0.5
  }
}
layer {
  name: "fc7"
  type: "InnerProduct"
  bottom: "fc6"
  top: "fc7"
  inner_product_param {
    num_output: 4096
  }
}
layer {
  name: "relu7"
  type: "ReLU"
  bottom: "fc7"
  top: "fc7"
}
layer {
  name: "drop7"
  type: "Dropout"
  bottom: "fc7"
  top: "fc7"
  dropout_param {
    dropout_ratio: 0.5
  }
}
layer {
  name: "fc8"
  type: "InnerProduct"
  bottom: "fc7"
  top: "fc8"
  inner_product_param {
    num_output: 1000
  }
}
layer {
  name: "prob"
  type: "Softmax"
  bottom: "fc8"
  top: "prob"
}
I0731 23:57:42.500881 31757 layer_factory.hpp:77] Creating layer data
I0731 23:57:42.500905 31757 net.cpp:91] Creating Layer data
I0731 23:57:42.500916 31757 net.cpp:399] data -> data
I0731 23:57:42.967561 31757 net.cpp:141] Setting up data
I0731 23:57:42.967594 31747 upgrade_proto.cpp:66] Attempting to upgrade input file specified using deprecated input fields: /tmp/cvld6222069470341149928/s2vt.words_to_preds.prototxt
I0731 23:57:42.967638 31747 upgrade_proto.cpp:69] Successfully upgraded file specified using deprecated input fields.
W0731 23:57:42.967644 31747 upgrade_proto.cpp:71] Note that future Caffe releases will only support input layers and not input fields.
I0731 23:57:42.967656 31757 net.cpp:148] Top shape: 10 3 227 227 (1545870)
I0731 23:57:42.967664 31757 net.cpp:156] Memory required for data: 6183480
I0731 23:57:42.967684 31757 layer_factory.hpp:77] Creating layer conv1
I0731 23:57:42.967715 31757 net.cpp:91] Creating Layer conv1
I0731 23:57:42.967722 31757 net.cpp:425] conv1 <- data
I0731 23:57:42.967736 31757 net.cpp:399] conv1 -> conv1
I0731 23:57:42.967877 31747 net.cpp:49] Initializing net from parameters: 
name: "s2vt:features_to_lstm"
state {
  phase: TEST
}
layer {
  name: "input"
  type: "Input"
  top: "frames_fc7"
  top: "cont_sentence"
  top: "input_sentence"
  top: "stage_indicator"
  input_param {
    shape {
      dim: 1
      dim: 4096
    }
    shape {
      dim: 1
      dim: 1
    }
    shape {
      dim: 1
      dim: 1
    }
    shape {
      dim: 1
      dim: 1
    }
  }
}
layer {
  name: "embed_encoder"
  type: "InnerProduct"
  bottom: "frames_fc7"
  top: "embedded_in_frames"
  param {
    lr_mult: 1
    decay_mult: 1
  }
  param {
    lr_mult: 2
    decay_mult: 0
  }
  inner_product_param {
    num_output: 500
    weight_filler {
      type: "xavier"
    }
    bias_filler {
      type: "constant"
      value: 0.2
    }
  }
}
layer {
  name: "reshape_frames"
  type: "Reshape"
  bottom: "embedded_in_frames"
  top: "embedded_input_frames"
  reshape_param {
    shape {
      dim: 1
      dim: 1
      dim: 500
    }
  }
}
layer {
  name: "reshape_stage_indicator"
  type: "Reshape"
  bottom: "stage_indicator"
  top: "reshaped_stage_indicator"
  reshape_param {
    shape {
      dim: 1
      dim: 1
      dim: 1
    }
  }
}
layer {
  name: "embedding"
  type: "Embed"
  bottom: "input_sentence"
  top: "embedded_input_sentence"
  param {
    lr_mult: 1
  }
  embed_param {
    num_output: 500
    input_dim: 46168
    bias_term: false
    weight_filler {
      type: "uniform"
      min: -0.08
      max: 0.08
    }
  }
}
layer {
  name: "lstm1"
  type: "LSTM"
  bottom: "embedded_input_frames"
  bottom: "cont_sentence"
  top: "lstm1"
  recurrent_param {
    num_output: 1000
    weight_filler {
      type: "uniform"
      min: -0.08
      max: 0.08
    }
    bias_filler {
      type: "constant"
      value: 0
    }
  }
}
layer {
  name: "concat"
  type: "Concat"
  bottom: "lstm1"
  bottom: "embedded_input_sentence"
  bottom: "reshaped_stage_indicator"
  top: "lstm1_video_sequence"
  concat_param {
    concat_dim: 2
  }
}
layer {
  name: "lstm2"
  type: "LSTM"
  bottom: "lstm1_video_sequence"
  bottom: "cont_sentence"
  top: "lstm2"
  recurrent_param {
    num_output: 1000
    weight_filler {
      type: "uniform"
      min: -0.08
      max: 0.08
    }
    bias_filler {
      type: "constant"
      value: 0
    }
  }
}
layer {
  name: "predict"
  type: "InnerProduct"
  bottom: "lstm2"
  top: "predict"
  param {
    lr_mult: 1
    decay_mult: 1
  }
  param {
    lr_mult: 2
    decay_mult: 0
  }
  inner_product_param {
    num_output: 46168
    weight_filler {
      type: "uniform"
      min: -0.08
      max: 0.08
    }
    bias_filler {
      type: "constant"
      value: 0
    }
    axis: 2
  }
}
layer {
  name: "probs"
  type: "Softmax"
  bottom: "predict"
  top: "probs"
  softmax_param {
    axis: 2
  }
}
I0731 23:57:42.967972 31747 layer_factory.hpp:77] Creating layer input
I0731 23:57:42.968000 31747 net.cpp:91] Creating Layer input
I0731 23:57:42.968016 31747 net.cpp:399] input -> frames_fc7
I0731 23:57:42.968034 31747 net.cpp:399] input -> cont_sentence
I0731 23:57:42.968044 31747 net.cpp:399] input -> input_sentence
I0731 23:57:42.968055 31747 net.cpp:399] input -> stage_indicator
I0731 23:57:42.968786 31747 net.cpp:141] Setting up input
I0731 23:57:42.968798 31747 net.cpp:148] Top shape: 1 4096 (4096)
I0731 23:57:42.968804 31747 net.cpp:148] Top shape: 1 1 (1)
I0731 23:57:42.968809 31747 net.cpp:148] Top shape: 1 1 (1)
I0731 23:57:42.968814 31747 net.cpp:148] Top shape: 1 1 (1)
I0731 23:57:42.968818 31747 net.cpp:156] Memory required for data: 16396
I0731 23:57:42.968822 31747 layer_factory.hpp:77] Creating layer cont_sentence_input_1_split
I0731 23:57:42.968838 31747 net.cpp:91] Creating Layer cont_sentence_input_1_split
I0731 23:57:42.968844 31747 net.cpp:425] cont_sentence_input_1_split <- cont_sentence
I0731 23:57:42.968863 31747 net.cpp:399] cont_sentence_input_1_split -> cont_sentence_input_1_split_0
I0731 23:57:42.968874 31747 net.cpp:399] cont_sentence_input_1_split -> cont_sentence_input_1_split_1
I0731 23:57:42.969154 31747 net.cpp:141] Setting up cont_sentence_input_1_split
I0731 23:57:42.969166 31747 net.cpp:148] Top shape: 1 1 (1)
I0731 23:57:42.969172 31747 net.cpp:148] Top shape: 1 1 (1)
I0731 23:57:42.969175 31747 net.cpp:156] Memory required for data: 16404
I0731 23:57:42.969179 31747 layer_factory.hpp:77] Creating layer embed_encoder
I0731 23:57:42.969195 31747 net.cpp:91] Creating Layer embed_encoder
I0731 23:57:42.969200 31747 net.cpp:425] embed_encoder <- frames_fc7
I0731 23:57:42.969210 31747 net.cpp:399] embed_encoder -> embedded_in_frames
I0731 23:57:42.990080 31747 net.cpp:141] Setting up embed_encoder
I0731 23:57:42.990114 31747 net.cpp:148] Top shape: 1 500 (500)
I0731 23:57:42.990120 31747 net.cpp:156] Memory required for data: 18404
I0731 23:57:42.990144 31747 layer_factory.hpp:77] Creating layer reshape_frames
I0731 23:57:42.990180 31747 net.cpp:91] Creating Layer reshape_frames
I0731 23:57:42.990187 31747 net.cpp:425] reshape_frames <- embedded_in_frames
I0731 23:57:42.990198 31747 net.cpp:399] reshape_frames -> embedded_input_frames
I0731 23:57:42.991123 31747 net.cpp:141] Setting up reshape_frames
I0731 23:57:42.991134 31747 net.cpp:148] Top shape: 1 1 500 (500)
I0731 23:57:42.991138 31747 net.cpp:156] Memory required for data: 20404
I0731 23:57:42.991143 31747 layer_factory.hpp:77] Creating layer reshape_stage_indicator
I0731 23:57:42.991155 31747 net.cpp:91] Creating Layer reshape_stage_indicator
I0731 23:57:42.991160 31747 net.cpp:425] reshape_stage_indicator <- stage_indicator
I0731 23:57:42.991173 31747 net.cpp:399] reshape_stage_indicator -> reshaped_stage_indicator
I0731 23:57:42.991652 31747 net.cpp:141] Setting up reshape_stage_indicator
I0731 23:57:42.991662 31747 net.cpp:148] Top shape: 1 1 1 (1)
I0731 23:57:42.991667 31747 net.cpp:156] Memory required for data: 20408
I0731 23:57:42.991672 31747 layer_factory.hpp:77] Creating layer embedding
I0731 23:57:42.991683 31747 net.cpp:91] Creating Layer embedding
I0731 23:57:42.991688 31747 net.cpp:425] embedding <- input_sentence
I0731 23:57:42.991700 31747 net.cpp:399] embedding -> embedded_input_sentence
I0731 23:57:43.205907 31747 net.cpp:141] Setting up embedding
I0731 23:57:43.205965 31747 net.cpp:148] Top shape: 1 1 500 (500)
I0731 23:57:43.205971 31747 net.cpp:156] Memory required for data: 22408
I0731 23:57:43.205987 31747 layer_factory.hpp:77] Creating layer lstm1
I0731 23:57:43.206007 31747 net.cpp:91] Creating Layer lstm1
I0731 23:57:43.206015 31747 net.cpp:425] lstm1 <- embedded_input_frames
I0731 23:57:43.206024 31747 net.cpp:425] lstm1 <- cont_sentence_input_1_split_0
I0731 23:57:43.206037 31747 net.cpp:399] lstm1 -> lstm1
I0731 23:57:43.206074 31747 recurrent_layer.cpp:20] Initializing recurrent layer: assuming input batch contains 1 timesteps of 1 independent streams.
I0731 23:57:43.206413 31747 net.cpp:49] Initializing net from parameters: 
layer {
  name: "lstm1_"
  type: "Input"
  top: "x"
  top: "cont"
  input_param {
    shape {
      dim: 1
      dim: 1
      dim: 500
    }
    shape {
      dim: 1
      dim: 1
    }
  }
}
layer {
  name: "lstm1_"
  type: "Input"
  top: "c_0"
  top: "h_0"
  input_param {
    shape {
      dim: 1
      dim: 1
      dim: 1000
    }
    shape {
      dim: 1
      dim: 1
      dim: 1000
    }
  }
}
layer {
  name: "lstm1_cont_slice"
  type: "Slice"
  bottom: "cont"
  top: "cont_1"
  slice_param {
    axis: 0
  }
}
layer {
  name: "lstm1_x_transform"
  type: "InnerProduct"
  bottom: "x"
  top: "W_xc_x"
  param {
    name: "W_xc"
  }
  param {
    name: "b_c"
  }
  propagate_down: true
  inner_product_param {
    num_output: 4000
    bias_term: true
    weight_filler {
      type: "uniform"
      min: -0.08
      max: 0.08
    }
    bias_filler {
      type: "constant"
      value: 0
    }
    axis: 2
  }
}
layer {
  name: "lstm1_W_xc_x_slice"
  type: "Slice"
  bottom: "W_xc_x"
  top: "W_xc_x_1"
  slice_param {
    axis: 0
  }
}
layer {
  name: "lstm1_h_conted_0"
  type: "Scale"
  bottom: "h_0"
  bottom: "cont_1"
  top: "h_conted_0"
  scale_param {
    axis: 0
  }
}
layer {
  name: "lstm1_transform_1"
  type: "InnerProduct"
  bottom: "h_conted_0"
  top: "W_hc_h_0"
  param {
    name: "W_hc"
  }
  inner_product_param {
    num_output: 4000
    bias_term: false
    weight_filler {
      type: "uniform"
      min: -0.08
      max: 0.08
    }
    axis: 2
  }
}
layer {
  name: "lstm1_gate_input_1"
  type: "Eltwise"
  bottom: "W_hc_h_0"
  bottom: "W_xc_x_1"
  top: "gate_input_1"
  eltwise_param {
    operation: SUM
  }
}
layer {
  name: "lstm1_unit_1"
  type: "LSTMUnit"
  bottom: "c_0"
  bottom: "gate_input_1"
  bottom: "cont_1"
  top: "c_1"
  top: "h_1"
}
layer {
  name: "lstm1_"
  type: "Split"
  bottom: "c_1"
  top: "c_T"
}
layer {
  name: "lstm1_h_concat"
  type: "Concat"
  bottom: "h_1"
  top: "h"
  concat_param {
    axis: 0
  }
}
layer {
  name: "h_pseudoloss"
  type: "Reduction"
  bottom: "h"
  top: "h_pseudoloss"
  loss_weight: 1
}
I0731 23:57:43.206502 31747 layer_factory.hpp:77] Creating layer lstm1_
I0731 23:57:43.206516 31747 net.cpp:91] Creating Layer lstm1_
I0731 23:57:43.206521 31747 net.cpp:399] lstm1_ -> x
I0731 23:57:43.206533 31747 net.cpp:399] lstm1_ -> cont
I0731 23:57:43.207767 31747 net.cpp:141] Setting up lstm1_
I0731 23:57:43.207784 31747 net.cpp:148] Top shape: 1 1 500 (500)
I0731 23:57:43.207790 31747 net.cpp:148] Top shape: 1 1 (1)
I0731 23:57:43.207794 31747 net.cpp:156] Memory required for data: 2004
I0731 23:57:43.207799 31747 layer_factory.hpp:77] Creating layer lstm1_
I0731 23:57:43.207810 31747 net.cpp:91] Creating Layer lstm1_
I0731 23:57:43.207821 31747 net.cpp:399] lstm1_ -> c_0
I0731 23:57:43.207833 31747 net.cpp:399] lstm1_ -> h_0
I0731 23:57:43.207954 31747 net.cpp:141] Setting up lstm1_
I0731 23:57:43.207964 31747 net.cpp:148] Top shape: 1 1 1000 (1000)
I0731 23:57:43.207970 31747 net.cpp:148] Top shape: 1 1 1000 (1000)
I0731 23:57:43.207974 31747 net.cpp:156] Memory required for data: 10004
I0731 23:57:43.207978 31747 layer_factory.hpp:77] Creating layer lstm1_cont_slice
I0731 23:57:43.207988 31747 net.cpp:91] Creating Layer lstm1_cont_slice
I0731 23:57:43.207993 31747 net.cpp:425] lstm1_cont_slice <- cont
I0731 23:57:43.208001 31747 net.cpp:399] lstm1_cont_slice -> cont_1
I0731 23:57:43.213122 31747 net.cpp:141] Setting up lstm1_cont_slice
I0731 23:57:43.213155 31747 net.cpp:148] Top shape: 1 1 (1)
I0731 23:57:43.213165 31747 net.cpp:156] Memory required for data: 10008
I0731 23:57:43.213176 31747 layer_factory.hpp:77] Creating layer cont_1_lstm1_cont_slice_0_split
I0731 23:57:43.213198 31747 net.cpp:91] Creating Layer cont_1_lstm1_cont_slice_0_split
I0731 23:57:43.213209 31747 net.cpp:425] cont_1_lstm1_cont_slice_0_split <- cont_1
I0731 23:57:43.213223 31747 net.cpp:399] cont_1_lstm1_cont_slice_0_split -> cont_1_lstm1_cont_slice_0_split_0
I0731 23:57:43.213245 31747 net.cpp:399] cont_1_lstm1_cont_slice_0_split -> cont_1_lstm1_cont_slice_0_split_1
I0731 23:57:43.213331 31747 net.cpp:141] Setting up cont_1_lstm1_cont_slice_0_split
I0731 23:57:43.213346 31747 net.cpp:148] Top shape: 1 1 (1)
I0731 23:57:43.213356 31747 net.cpp:148] Top shape: 1 1 (1)
I0731 23:57:43.213364 31747 net.cpp:156] Memory required for data: 10016
I0731 23:57:43.213371 31747 layer_factory.hpp:77] Creating layer lstm1_x_transform
I0731 23:57:43.213392 31747 net.cpp:91] Creating Layer lstm1_x_transform
I0731 23:57:43.213400 31747 net.cpp:425] lstm1_x_transform <- x
I0731 23:57:43.213414 31747 net.cpp:399] lstm1_x_transform -> W_xc_x
I0731 23:57:43.220497 31757 net.cpp:141] Setting up conv1
I0731 23:57:43.220541 31757 net.cpp:148] Top shape: 10 96 55 55 (2904000)
I0731 23:57:43.220547 31757 net.cpp:156] Memory required for data: 17799480
I0731 23:57:43.220569 31757 layer_factory.hpp:77] Creating layer relu1
I0731 23:57:43.220587 31757 net.cpp:91] Creating Layer relu1
I0731 23:57:43.220593 31757 net.cpp:425] relu1 <- conv1
I0731 23:57:43.220602 31757 net.cpp:386] relu1 -> conv1 (in-place)
I0731 23:57:43.221029 31757 net.cpp:141] Setting up relu1
I0731 23:57:43.221041 31757 net.cpp:148] Top shape: 10 96 55 55 (2904000)
I0731 23:57:43.221046 31757 net.cpp:156] Memory required for data: 29415480
I0731 23:57:43.221052 31757 layer_factory.hpp:77] Creating layer pool1
I0731 23:57:43.221065 31757 net.cpp:91] Creating Layer pool1
I0731 23:57:43.221070 31757 net.cpp:425] pool1 <- conv1
I0731 23:57:43.221078 31757 net.cpp:399] pool1 -> pool1
I0731 23:57:43.221145 31757 net.cpp:141] Setting up pool1
I0731 23:57:43.221155 31757 net.cpp:148] Top shape: 10 96 27 27 (699840)
I0731 23:57:43.221159 31757 net.cpp:156] Memory required for data: 32214840
I0731 23:57:43.221164 31757 layer_factory.hpp:77] Creating layer norm1
I0731 23:57:43.221181 31757 net.cpp:91] Creating Layer norm1
I0731 23:57:43.221186 31757 net.cpp:425] norm1 <- pool1
I0731 23:57:43.221194 31757 net.cpp:399] norm1 -> norm1
I0731 23:57:43.221662 31757 net.cpp:141] Setting up norm1
I0731 23:57:43.221676 31757 net.cpp:148] Top shape: 10 96 27 27 (699840)
I0731 23:57:43.221681 31757 net.cpp:156] Memory required for data: 35014200
I0731 23:57:43.221686 31757 layer_factory.hpp:77] Creating layer conv2
I0731 23:57:43.221703 31757 net.cpp:91] Creating Layer conv2
I0731 23:57:43.221707 31757 net.cpp:425] conv2 <- norm1
I0731 23:57:43.221715 31757 net.cpp:399] conv2 -> conv2
I0731 23:57:43.224968 31757 net.cpp:141] Setting up conv2
I0731 23:57:43.224990 31757 net.cpp:148] Top shape: 10 256 27 27 (1866240)
I0731 23:57:43.224997 31757 net.cpp:156] Memory required for data: 42479160
I0731 23:57:43.225008 31757 layer_factory.hpp:77] Creating layer relu2
I0731 23:57:43.225018 31757 net.cpp:91] Creating Layer relu2
I0731 23:57:43.225021 31757 net.cpp:425] relu2 <- conv2
I0731 23:57:43.225031 31757 net.cpp:386] relu2 -> conv2 (in-place)
I0731 23:57:43.225476 31757 net.cpp:141] Setting up relu2
I0731 23:57:43.225489 31757 net.cpp:148] Top shape: 10 256 27 27 (1866240)
I0731 23:57:43.225493 31757 net.cpp:156] Memory required for data: 49944120
I0731 23:57:43.225498 31757 layer_factory.hpp:77] Creating layer pool2
I0731 23:57:43.225510 31757 net.cpp:91] Creating Layer pool2
I0731 23:57:43.225515 31757 net.cpp:425] pool2 <- conv2
I0731 23:57:43.225522 31757 net.cpp:399] pool2 -> pool2
I0731 23:57:43.225579 31757 net.cpp:141] Setting up pool2
I0731 23:57:43.225589 31757 net.cpp:148] Top shape: 10 256 13 13 (432640)
I0731 23:57:43.225592 31757 net.cpp:156] Memory required for data: 51674680
I0731 23:57:43.225597 31757 layer_factory.hpp:77] Creating layer norm2
I0731 23:57:43.225610 31757 net.cpp:91] Creating Layer norm2
I0731 23:57:43.225615 31757 net.cpp:425] norm2 <- pool2
I0731 23:57:43.225622 31757 net.cpp:399] norm2 -> norm2
I0731 23:57:43.225878 31757 net.cpp:141] Setting up norm2
I0731 23:57:43.225888 31757 net.cpp:148] Top shape: 10 256 13 13 (432640)
I0731 23:57:43.225893 31757 net.cpp:156] Memory required for data: 53405240
I0731 23:57:43.225898 31757 layer_factory.hpp:77] Creating layer conv3
I0731 23:57:43.225911 31757 net.cpp:91] Creating Layer conv3
I0731 23:57:43.225917 31757 net.cpp:425] conv3 <- norm2
I0731 23:57:43.225924 31757 net.cpp:399] conv3 -> conv3
I0731 23:57:43.229584 31757 net.cpp:141] Setting up conv3
I0731 23:57:43.229606 31757 net.cpp:148] Top shape: 10 384 13 13 (648960)
I0731 23:57:43.229611 31757 net.cpp:156] Memory required for data: 56001080
I0731 23:57:43.229625 31757 layer_factory.hpp:77] Creating layer relu3
I0731 23:57:43.229635 31757 net.cpp:91] Creating Layer relu3
I0731 23:57:43.229640 31757 net.cpp:425] relu3 <- conv3
I0731 23:57:43.229648 31757 net.cpp:386] relu3 -> conv3 (in-place)
I0731 23:57:43.230079 31757 net.cpp:141] Setting up relu3
I0731 23:57:43.230092 31757 net.cpp:148] Top shape: 10 384 13 13 (648960)
I0731 23:57:43.230096 31757 net.cpp:156] Memory required for data: 58596920
I0731 23:57:43.230101 31757 layer_factory.hpp:77] Creating layer conv4
I0731 23:57:43.230114 31757 net.cpp:91] Creating Layer conv4
I0731 23:57:43.230119 31757 net.cpp:425] conv4 <- conv3
I0731 23:57:43.230126 31757 net.cpp:399] conv4 -> conv4
I0731 23:57:43.234163 31757 net.cpp:141] Setting up conv4
I0731 23:57:43.234184 31757 net.cpp:148] Top shape: 10 384 13 13 (648960)
I0731 23:57:43.234189 31757 net.cpp:156] Memory required for data: 61192760
I0731 23:57:43.234199 31757 layer_factory.hpp:77] Creating layer relu4
I0731 23:57:43.234215 31757 net.cpp:91] Creating Layer relu4
I0731 23:57:43.234221 31757 net.cpp:425] relu4 <- conv4
I0731 23:57:43.234228 31757 net.cpp:386] relu4 -> conv4 (in-place)
I0731 23:57:43.234669 31757 net.cpp:141] Setting up relu4
I0731 23:57:43.234681 31757 net.cpp:148] Top shape: 10 384 13 13 (648960)
I0731 23:57:43.234685 31757 net.cpp:156] Memory required for data: 63788600
I0731 23:57:43.234690 31757 layer_factory.hpp:77] Creating layer conv5
I0731 23:57:43.234705 31757 net.cpp:91] Creating Layer conv5
I0731 23:57:43.234710 31757 net.cpp:425] conv5 <- conv4
I0731 23:57:43.234720 31757 net.cpp:399] conv5 -> conv5
I0731 23:57:43.236137 31747 net.cpp:141] Setting up lstm1_x_transform
I0731 23:57:43.236156 31747 net.cpp:148] Top shape: 1 1 4000 (4000)
I0731 23:57:43.236161 31747 net.cpp:156] Memory required for data: 26016
I0731 23:57:43.236176 31747 layer_factory.hpp:77] Creating layer lstm1_W_xc_x_slice
I0731 23:57:43.236186 31747 net.cpp:91] Creating Layer lstm1_W_xc_x_slice
I0731 23:57:43.236192 31747 net.cpp:425] lstm1_W_xc_x_slice <- W_xc_x
I0731 23:57:43.236201 31747 net.cpp:399] lstm1_W_xc_x_slice -> W_xc_x_1
I0731 23:57:43.236243 31747 net.cpp:141] Setting up lstm1_W_xc_x_slice
I0731 23:57:43.236253 31747 net.cpp:148] Top shape: 1 1 4000 (4000)
I0731 23:57:43.236258 31747 net.cpp:156] Memory required for data: 42016
I0731 23:57:43.236261 31747 layer_factory.hpp:77] Creating layer lstm1_h_conted_0
I0731 23:57:43.236271 31747 net.cpp:91] Creating Layer lstm1_h_conted_0
I0731 23:57:43.236276 31747 net.cpp:425] lstm1_h_conted_0 <- h_0
I0731 23:57:43.236282 31747 net.cpp:425] lstm1_h_conted_0 <- cont_1_lstm1_cont_slice_0_split_0
I0731 23:57:43.236289 31747 net.cpp:399] lstm1_h_conted_0 -> h_conted_0
I0731 23:57:43.236634 31747 net.cpp:141] Setting up lstm1_h_conted_0
I0731 23:57:43.236644 31747 net.cpp:148] Top shape: 1 1 1000 (1000)
I0731 23:57:43.236649 31747 net.cpp:156] Memory required for data: 46016
I0731 23:57:43.236654 31747 layer_factory.hpp:77] Creating layer lstm1_transform_1
I0731 23:57:43.236665 31747 net.cpp:91] Creating Layer lstm1_transform_1
I0731 23:57:43.236670 31747 net.cpp:425] lstm1_transform_1 <- h_conted_0
I0731 23:57:43.236678 31747 net.cpp:399] lstm1_transform_1 -> W_hc_h_0
I0731 23:57:43.246224 31757 net.cpp:141] Setting up conv5
I0731 23:57:43.246284 31757 net.cpp:148] Top shape: 10 256 13 13 (432640)
I0731 23:57:43.246290 31757 net.cpp:156] Memory required for data: 65519160
I0731 23:57:43.246310 31757 layer_factory.hpp:77] Creating layer relu5
I0731 23:57:43.246330 31757 net.cpp:91] Creating Layer relu5
I0731 23:57:43.246337 31757 net.cpp:425] relu5 <- conv5
I0731 23:57:43.246345 31757 net.cpp:386] relu5 -> conv5 (in-place)
I0731 23:57:43.246809 31757 net.cpp:141] Setting up relu5
I0731 23:57:43.246824 31757 net.cpp:148] Top shape: 10 256 13 13 (432640)
I0731 23:57:43.246829 31757 net.cpp:156] Memory required for data: 67249720
I0731 23:57:43.246834 31757 layer_factory.hpp:77] Creating layer pool5
I0731 23:57:43.246845 31757 net.cpp:91] Creating Layer pool5
I0731 23:57:43.246850 31757 net.cpp:425] pool5 <- conv5
I0731 23:57:43.246860 31757 net.cpp:399] pool5 -> pool5
I0731 23:57:43.246922 31757 net.cpp:141] Setting up pool5
I0731 23:57:43.246935 31757 net.cpp:148] Top shape: 10 256 6 6 (92160)
I0731 23:57:43.246939 31757 net.cpp:156] Memory required for data: 67618360
I0731 23:57:43.246944 31757 layer_factory.hpp:77] Creating layer fc6
I0731 23:57:43.246958 31757 net.cpp:91] Creating Layer fc6
I0731 23:57:43.246963 31757 net.cpp:425] fc6 <- pool5
I0731 23:57:43.246969 31757 net.cpp:399] fc6 -> fc6
I0731 23:57:43.308400 31747 net.cpp:141] Setting up lstm1_transform_1
I0731 23:57:43.308460 31747 net.cpp:148] Top shape: 1 1 4000 (4000)
I0731 23:57:43.308466 31747 net.cpp:156] Memory required for data: 62016
I0731 23:57:43.308487 31747 layer_factory.hpp:77] Creating layer lstm1_gate_input_1
I0731 23:57:43.308516 31747 net.cpp:91] Creating Layer lstm1_gate_input_1
I0731 23:57:43.308523 31747 net.cpp:425] lstm1_gate_input_1 <- W_hc_h_0
I0731 23:57:43.308532 31747 net.cpp:425] lstm1_gate_input_1 <- W_xc_x_1
I0731 23:57:43.308540 31747 net.cpp:399] lstm1_gate_input_1 -> gate_input_1
I0731 23:57:43.308604 31747 net.cpp:141] Setting up lstm1_gate_input_1
I0731 23:57:43.308614 31747 net.cpp:148] Top shape: 1 1 4000 (4000)
I0731 23:57:43.308617 31747 net.cpp:156] Memory required for data: 78016
I0731 23:57:43.308622 31747 layer_factory.hpp:77] Creating layer lstm1_unit_1
I0731 23:57:43.308631 31747 net.cpp:91] Creating Layer lstm1_unit_1
I0731 23:57:43.308635 31747 net.cpp:425] lstm1_unit_1 <- c_0
I0731 23:57:43.308641 31747 net.cpp:425] lstm1_unit_1 <- gate_input_1
I0731 23:57:43.308647 31747 net.cpp:425] lstm1_unit_1 <- cont_1_lstm1_cont_slice_0_split_1
I0731 23:57:43.308656 31747 net.cpp:399] lstm1_unit_1 -> c_1
I0731 23:57:43.308665 31747 net.cpp:399] lstm1_unit_1 -> h_1
I0731 23:57:43.308724 31747 net.cpp:141] Setting up lstm1_unit_1
I0731 23:57:43.308733 31747 net.cpp:148] Top shape: 1 1 1000 (1000)
I0731 23:57:43.308739 31747 net.cpp:148] Top shape: 1 1 1000 (1000)
I0731 23:57:43.308743 31747 net.cpp:156] Memory required for data: 86016
I0731 23:57:43.308748 31747 layer_factory.hpp:77] Creating layer lstm1_
I0731 23:57:43.308758 31747 net.cpp:91] Creating Layer lstm1_
I0731 23:57:43.308763 31747 net.cpp:425] lstm1_ <- c_1
I0731 23:57:43.308769 31747 net.cpp:399] lstm1_ -> c_T
I0731 23:57:43.308799 31747 net.cpp:141] Setting up lstm1_
I0731 23:57:43.308807 31747 net.cpp:148] Top shape: 1 1 1000 (1000)
I0731 23:57:43.308811 31747 net.cpp:156] Memory required for data: 90016
I0731 23:57:43.308815 31747 layer_factory.hpp:77] Creating layer lstm1_h_concat
I0731 23:57:43.308825 31747 net.cpp:91] Creating Layer lstm1_h_concat
I0731 23:57:43.308830 31747 net.cpp:425] lstm1_h_concat <- h_1
I0731 23:57:43.308838 31747 net.cpp:399] lstm1_h_concat -> h
I0731 23:57:43.308878 31747 net.cpp:141] Setting up lstm1_h_concat
I0731 23:57:43.308887 31747 net.cpp:148] Top shape: 1 1 1000 (1000)
I0731 23:57:43.308892 31747 net.cpp:156] Memory required for data: 94016
I0731 23:57:43.308897 31747 layer_factory.hpp:77] Creating layer h_pseudoloss
I0731 23:57:43.308909 31747 net.cpp:91] Creating Layer h_pseudoloss
I0731 23:57:43.308914 31747 net.cpp:425] h_pseudoloss <- h
I0731 23:57:43.308922 31747 net.cpp:399] h_pseudoloss -> h_pseudoloss
I0731 23:57:43.309010 31747 net.cpp:141] Setting up h_pseudoloss
…
I0731 23:57:43.309128 31747 net.cpp:219] lstm1_ does not need backward computation.
I0731 23:57:43.309131 31747 net.cpp:261] This network produces output c_T
I0731 23:57:43.309136 31747 net.cpp:261] This network produces output h_pseudoloss
I0731 23:57:43.309152 31747 net.cpp:274] Network initialization done.
I0731 23:57:43.309222 31747 recurrent_layer.cpp:150] Adding parameter 0: W_xc
I0731 23:57:43.309233 31747 recurrent_layer.cpp:150] Adding parameter 1: b_c
I0731 23:57:43.309242 31747 recurrent_layer.cpp:150] Adding parameter 2: W_hc
I0731 23:57:43.309413 31747 net.cpp:141] Setting up lstm1
I0731 23:57:43.309433 31747 net.cpp:148] Top shape: 1 1 1000 (1000)
I0731 23:57:43.309442 31747 net.cpp:156] Memory required for data: 26408
I0731 23:57:43.309465 31747 layer_factory.hpp:77] Creating layer concat
I0731 23:57:43.309483 31747 net.cpp:91] Creating Layer concat
I0731 23:57:43.309494 31747 net.cpp:425] concat <- lstm1
I0731 23:57:43.309505 31747 net.cpp:425] concat <- embedded_input_sentence
I0731 23:57:43.309516 31747 net.cpp:425] concat <- reshaped_stage_indicator
I0731 23:57:43.309528 31747 net.cpp:399] concat -> lstm1_video_sequence
I0731 23:57:43.309592 31747 net.cpp:141] Setting up concat
I0731 23:57:43.309607 31747 net.cpp:148] Top shape: 1 1 1501 (1501)
I0731 23:57:43.309617 31747 net.cpp:156] Memory required for data: 32412
I0731 23:57:43.309625 31747 layer_factory.hpp:77] Creating layer lstm2
I0731 23:57:43.309653 31747 net.cpp:91] Creating Layer lstm2
I0731 23:57:43.309664 31747 net.cpp:425] lstm2 <- lstm1_video_sequence
I0731 23:57:43.309675 31747 net.cpp:425] lstm2 <- cont_sentence_input_1_split_1
I0731 23:57:43.309689 31747 net.cpp:399] lstm2 -> lstm2
I0731 23:57:43.309706 31747 recurrent_layer.cpp:20] Initializing recurrent layer: assuming input batch contains 1 timesteps of 1 independent streams.
I0731 23:57:43.310119 31747 net.cpp:49] Initializing net from parameters: 
layer {
  name: "lstm2_"
  type: "Input"
  top: "x"
  top: "cont"
  input_param {
    shape {
      dim: 1
      dim: 1
      dim: 1501
    }
    shape {
      dim: 1
      dim: 1
    }
  }
}
layer {
  name: "lstm2_"
  type: "Input"
  top: "c_0"
  top: "h_0"
  input_param {
    shape {
      dim: 1
      dim: 1
      dim: 1000
    }
    shape {
      dim: 1
      dim: 1
      dim: 1000
    }
  }
}
layer {
  name: "lstm2_cont_slice"
  type: "Slice"
  bottom: "cont"
  top: "cont_1"
  slice_param {
    axis: 0
  }
}
layer {
  name: "lstm2_x_transform"
  type: "InnerProduct"
  bottom: "x"
  top: "W_xc_x"
  param {
    name: "W_xc"
  }
  param {
    name: "b_c"
  }
  propagate_down: true
  inner_product_param {
    num_output: 4000
    bias_term: true
    weight_filler {
      type: "uniform"
      min: -0.08
      max: 0.08
    }
    bias_filler {
      type: "constant"
      value: 0
    }
    axis: 2
  }
}
layer {
  name: "lstm2_W_xc_x_slice"
  type: "Slice"
  bottom: "W_xc_x"
  top: "W_xc_x_1"
  slice_param {
    axis: 0
  }
}
layer {
  name: "lstm2_h_conted_0"
  type: "Scale"
  bottom: "h_0"
  bottom: "cont_1"
  top: "h_conted_0"
  scale_param {
    axis: 0
  }
}
layer {
  name: "lstm2_transform_1"
  type: "InnerProduct"
  bottom: "h_conted_0"
  top: "W_hc_h_0"
  param {
    name: "W_hc"
  }
  inner_product_param {
    num_output: 4000
    bias_term: false
    weight_filler {
      type: "uniform"
      min: -0.08
      max: 0.08
    }
    axis: 2
  }
}
layer {
  name: "lstm2_gate_input_1"
  type: "Eltwise"
  bottom: "W_hc_h_0"
  bottom: "W_xc_x_1"
  top: "gate_input_1"
  eltwise_param {
    operation: SUM
  }
}
layer {
  name: "lstm2_unit_1"
  type: "LSTMUnit"
  bottom: "c_0"
  bottom: "gate_input_1"
  bottom: "cont_1"
  top: "c_1"
  top: "h_1"
}
layer {
  name: "lstm2_"
  type: "Split"
  bottom: "c_1"
  top: "c_T"
}
layer {
  name: "lstm2_h_concat"
  type: "Concat"
  bottom: "h_1"
  top: "h"
  concat_param {
    axis: 0
  }
}
layer {
  name: "h_pseudoloss"
  type: "Reduction"
  bottom: "h"
  top: "h_pseudoloss"
  loss_weight: 1
}
I0731 23:57:43.310250 31747 layer_factory.hpp:77] Creating layer lstm2_
I0731 23:57:43.310269 31747 net.cpp:91] Creating Layer lstm2_
I0731 23:57:43.310279 31747 net.cpp:399] lstm2_ -> x
I0731 23:57:43.310297 31747 net.cpp:399] lstm2_ -> cont
I0731 23:57:43.310391 31747 net.cpp:141] Setting up lstm2_
I0731 23:57:43.310407 31747 net.cpp:148] Top shape: 1 1 1501 (1501)
I0731 23:57:43.310420 31747 net.cpp:148] Top shape: 1 1 (1)
I0731 23:57:43.310426 31747 net.cpp:156] Memory required for data: 6008
I0731 23:57:43.310436 31747 layer_factory.hpp:77] Creating layer lstm2_
I0731 23:57:43.310451 31747 net.cpp:91] Creating Layer lstm2_
I0731 23:57:43.310470 31747 net.cpp:399] lstm2_ -> c_0
I0731 23:57:43.310487 31747 net.cpp:399] lstm2_ -> h_0
I0731 23:57:43.310567 31747 net.cpp:141] Setting up lstm2_
I0731 23:57:43.310582 31747 net.cpp:148] Top shape: 1 1 1000 (1000)
I0731 23:57:43.310592 31747 net.cpp:148] Top shape: 1 1 1000 (1000)
I0731 23:57:43.310600 31747 net.cpp:156] Memory required for data: 14008
I0731 23:57:43.310606 31747 layer_factory.hpp:77] Creating layer lstm2_cont_slice
I0731 23:57:43.310619 31747 net.cpp:91] Creating Layer lstm2_cont_slice
I0731 23:57:43.310628 31747 net.cpp:425] lstm2_cont_slice <- cont
I0731 23:57:43.310641 31747 net.cpp:399] lstm2_cont_slice -> cont_1
I0731 23:57:43.310703 31747 net.cpp:141] Setting up lstm2_cont_slice
I0731 23:57:43.310719 31747 net.cpp:148] Top shape: 1 1 (1)
I0731 23:57:43.310726 31747 net.cpp:156] Memory required for data: 14012
I0731 23:57:43.310734 31747 layer_factory.hpp:77] Creating layer cont_1_lstm2_cont_slice_0_split
I0731 23:57:43.310748 31747 net.cpp:91] Creating Layer cont_1_lstm2_cont_slice_0_split
I0731 23:57:43.310757 31747 net.cpp:425] cont_1_lstm2_cont_slice_0_split <- cont_1
I0731 23:57:43.310768 31747 net.cpp:399] cont_1_lstm2_cont_slice_0_split -> cont_1_lstm2_cont_slice_0_split_0
I0731 23:57:43.310782 31747 net.cpp:399] cont_1_lstm2_cont_slice_0_split -> cont_1_lstm2_cont_slice_0_split_1
I0731 23:57:43.310860 31747 net.cpp:141] Setting up cont_1_lstm2_cont_slice_0_split
I0731 23:57:43.310875 31747 net.cpp:148] Top shape: 1 1 (1)
I0731 23:57:43.310885 31747 net.cpp:148] Top shape: 1 1 (1)
I0731 23:57:43.310892 31747 net.cpp:156] Memory required for data: 14020
I0731 23:57:43.310900 31747 layer_factory.hpp:77] Creating layer lstm2_x_transform
I0731 23:57:43.310920 31747 net.cpp:91] Creating Layer lstm2_x_transform
I0731 23:57:43.310928 31747 net.cpp:425] lstm2_x_transform <- x
I0731 23:57:43.310942 31747 net.cpp:399] lstm2_x_transform -> W_xc_x
I0731 23:57:43.346896 31757 net.cpp:141] Setting up fc6
I0731 23:57:43.346961 31757 net.cpp:148] Top shape: 10 4096 (40960)
I0731 23:57:43.346967 31757 net.cpp:156] Memory required for data: 67782200
I0731 23:57:43.346982 31757 layer_factory.hpp:77] Creating layer relu6
I0731 23:57:43.347012 31757 net.cpp:91] Creating Layer relu6
I0731 23:57:43.347018 31757 net.cpp:425] relu6 <- fc6
I0731 23:57:43.347026 31757 net.cpp:386] relu6 -> fc6 (in-place)
I0731 23:57:43.347359 31757 net.cpp:141] Setting up relu6
I0731 23:57:43.347370 31757 net.cpp:148] Top shape: 10 4096 (40960)
I0731 23:57:43.347374 31757 net.cpp:156] Memory required for data: 67946040
I0731 23:57:43.347379 31757 layer_factory.hpp:77] Creating layer drop6
I0731 23:57:43.347393 31757 net.cpp:91] Creating Layer drop6
I0731 23:57:43.347398 31757 net.cpp:425] drop6 <- fc6
I0731 23:57:43.347407 31757 net.cpp:386] drop6 -> fc6 (in-place)
I0731 23:57:43.347455 31757 net.cpp:141] Setting up drop6
I0731 23:57:43.347463 31757 net.cpp:148] Top shape: 10 4096 (40960)
I0731 23:57:43.347467 31757 net.cpp:156] Memory required for data: 68109880
I0731 23:57:43.347472 31757 layer_factory.hpp:77] Creating layer fc7
I0731 23:57:43.347482 31757 net.cpp:91] Creating Layer fc7
I0731 23:57:43.347486 31757 net.cpp:425] fc7 <- fc6
I0731 23:57:43.347497 31757 net.cpp:399] fc7 -> fc7
I0731 23:57:43.375458 31747 net.cpp:141] Setting up lstm2_x_transform
I0731 23:57:43.375505 31747 net.cpp:148] Top shape: 1 1 4000 (4000)
I0731 23:57:43.375510 31747 net.cpp:156] Memory required for data: 30020
I0731 23:57:43.375532 31747 layer_factory.hpp:77] Creating layer lstm2_W_xc_x_slice
I0731 23:57:43.375550 31747 net.cpp:91] Creating Layer lstm2_W_xc_x_slice
I0731 23:57:43.375556 31747 net.cpp:425] lstm2_W_xc_x_slice <- W_xc_x
I0731 23:57:43.375566 31747 net.cpp:399] lstm2_W_xc_x_slice -> W_xc_x_1
I0731 23:57:43.375614 31747 net.cpp:141] Setting up lstm2_W_xc_x_slice
I0731 23:57:43.375625 31747 net.cpp:148] Top shape: 1 1 4000 (4000)
I0731 23:57:43.375629 31747 net.cpp:156] Memory required for data: 46020
I0731 23:57:43.375633 31747 layer_factory.hpp:77] Creating layer lstm2_h_conted_0
I0731 23:57:43.375653 31747 net.cpp:91] Creating Layer lstm2_h_conted_0
I0731 23:57:43.375658 31747 net.cpp:425] lstm2_h_conted_0 <- h_0
I0731 23:57:43.375664 31747 net.cpp:425] lstm2_h_conted_0 <- cont_1_lstm2_cont_slice_0_split_0
I0731 23:57:43.375671 31747 net.cpp:399] lstm2_h_conted_0 -> h_conted_0
I0731 23:57:43.375766 31747 net.cpp:141] Setting up lstm2_h_conted_0
I0731 23:57:43.375779 31747 net.cpp:148] Top shape: 1 1 1000 (1000)
I0731 23:57:43.375787 31747 net.cpp:156] Memory required for data: 50020
I0731 23:57:43.375793 31747 layer_factory.hpp:77] Creating layer lstm2_transform_1
I0731 23:57:43.375808 31747 net.cpp:91] Creating Layer lstm2_transform_1
I0731 23:57:43.375813 31747 net.cpp:425] lstm2_transform_1 <- h_conted_0
I0731 23:57:43.375823 31747 net.cpp:399] lstm2_transform_1 -> W_hc_h_0
I0731 23:57:43.391845 31757 net.cpp:141] Setting up fc7
I0731 23:57:43.391909 31757 net.cpp:148] Top shape: 10 4096 (40960)
I0731 23:57:43.391916 31757 net.cpp:156] Memory required for data: 68273720
I0731 23:57:43.391928 31757 layer_factory.hpp:77] Creating layer relu7
I0731 23:57:43.391944 31757 net.cpp:91] Creating Layer relu7
I0731 23:57:43.391950 31757 net.cpp:425] relu7 <- fc7
I0731 23:57:43.391959 31757 net.cpp:386] relu7 -> fc7 (in-place)
I0731 23:57:43.392721 31757 net.cpp:141] Setting up relu7
I0731 23:57:43.392734 31757 net.cpp:148] Top shape: 10 4096 (40960)
I0731 23:57:43.392738 31757 net.cpp:156] Memory required for data: 68437560
I0731 23:57:43.392743 31757 layer_factory.hpp:77] Creating layer drop7
I0731 23:57:43.392755 31757 net.cpp:91] Creating Layer drop7
I0731 23:57:43.392758 31757 net.cpp:425] drop7 <- fc7
I0731 23:57:43.392771 31757 net.cpp:386] drop7 -> fc7 (in-place)
I0731 23:57:43.392809 31757 net.cpp:141] Setting up drop7
I0731 23:57:43.392820 31757 net.cpp:148] Top shape: 10 4096 (40960)
I0731 23:57:43.392825 31757 net.cpp:156] Memory required for data: 68601400
I0731 23:57:43.392829 31757 layer_factory.hpp:77] Creating layer fc8
I0731 23:57:43.392839 31757 net.cpp:91] Creating Layer fc8
I0731 23:57:43.392844 31757 net.cpp:425] fc8 <- fc7
I0731 23:57:43.392850 31757 net.cpp:399] fc8 -> fc8
I0731 23:57:43.404476 31757 net.cpp:141] Setting up fc8
I0731 23:57:43.404539 31757 net.cpp:148] Top shape: 10 1000 (10000)
I0731 23:57:43.404546 31757 net.cpp:156] Memory required for data: 68641400
I0731 23:57:43.404561 31757 layer_factory.hpp:77] Creating layer prob
I0731 23:57:43.404577 31757 net.cpp:91] Creating Layer prob
I0731 23:57:43.404584 31757 net.cpp:425] prob <- fc8
I0731 23:57:43.404599 31757 net.cpp:399] prob -> prob
I0731 23:57:43.405344 31757 net.cpp:141] Setting up prob
I0731 23:57:43.405387 31757 net.cpp:148] Top shape: 10 1000 (10000)
I0731 23:57:43.405398 31757 net.cpp:156] Memory required for data: 68681400
I0731 23:57:43.405410 31757 net.cpp:219] prob does not need backward computation.
I0731 23:57:43.405417 31757 net.cpp:219] fc8 does not need backward computation.
I0731 23:57:43.405422 31757 net.cpp:219] drop7 does not need backward computation.
I0731 23:57:43.405427 31757 net.cpp:219] relu7 does not need backward computation.
…
I0731 23:57:43.405500 31757 net.cpp:219] norm1 does not need backward computation.
I0731 23:57:43.405505 31757 net.cpp:219] pool1 does not need backward computation.
I0731 23:57:43.405510 31757 net.cpp:219] relu1 does not need backward computation.
I0731 23:57:43.405514 31757 net.cpp:219] conv1 does not need backward computation.
I0731 23:57:43.405519 31757 net.cpp:219] data does not need backward computation.
I0731 23:57:43.405522 31757 net.cpp:261] This network produces output prob
I0731 23:57:43.406108 31757 net.cpp:274] Network initialization done.
I0731 23:57:43.415112 31747 net.cpp:141] Setting up lstm2_transform_1
I0731 23:57:43.415156 31747 net.cpp:148] Top shape: 1 1 4000 (4000)
I0731 23:57:43.415163 31747 net.cpp:156] Memory required for data: 66020
I0731 23:57:43.415179 31747 layer_factory.hpp:77] Creating layer lstm2_gate_input_1
I0731 23:57:43.415196 31747 net.cpp:91] Creating Layer lstm2_gate_input_1
I0731 23:57:43.415204 31747 net.cpp:425] lstm2_gate_input_1 <- W_hc_h_0
I0731 23:57:43.415211 31747 net.cpp:425] lstm2_gate_input_1 <- W_xc_x_1
I0731 23:57:43.415220 31747 net.cpp:399] lstm2_gate_input_1 -> gate_input_1
I0731 23:57:43.415272 31747 net.cpp:141] Setting up lstm2_gate_input_1
I0731 23:57:43.415282 31747 net.cpp:148] Top shape: 1 1 4000 (4000)
I0731 23:57:43.415285 31747 net.cpp:156] Memory required for data: 82020
I0731 23:57:43.415290 31747 layer_factory.hpp:77] Creating layer lstm2_unit_1
I0731 23:57:43.415302 31747 net.cpp:91] Creating Layer lstm2_unit_1
I0731 23:57:43.415307 31747 net.cpp:425] lstm2_unit_1 <- c_0
I0731 23:57:43.415313 31747 net.cpp:425] lstm2_unit_1 <- gate_input_1
I0731 23:57:43.415318 31747 net.cpp:425] lstm2_unit_1 <- cont_1_lstm2_cont_slice_0_split_1
I0731 23:57:43.415323 31747 net.cpp:399] lstm2_unit_1 -> c_1
I0731 23:57:43.415333 31747 net.cpp:399] lstm2_unit_1 -> h_1
I0731 23:57:43.415398 31747 net.cpp:141] Setting up lstm2_unit_1
I0731 23:57:43.415407 31747 net.cpp:148] Top shape: 1 1 1000 (1000)
I0731 23:57:43.415412 31747 net.cpp:148] Top shape: 1 1 1000 (1000)
I0731 23:57:43.415416 31747 net.cpp:156] Memory required for data: 90020
I0731 23:57:43.415421 31747 layer_factory.hpp:77] Creating layer lstm2_
I0731 23:57:43.415429 31747 net.cpp:91] Creating Layer lstm2_
I0731 23:57:43.415433 31747 net.cpp:425] lstm2_ <- c_1
I0731 23:57:43.415441 31747 net.cpp:399] lstm2_ -> c_T
I0731 23:57:43.415470 31747 net.cpp:141] Setting up lstm2_
I0731 23:57:43.415478 31747 net.cpp:148] Top shape: 1 1 1000 (1000)
I0731 23:57:43.415482 31747 net.cpp:156] Memory required for data: 94020
I0731 23:57:43.415488 31747 layer_factory.hpp:77] Creating layer lstm2_h_concat
I0731 23:57:43.415499 31747 net.cpp:91] Creating Layer lstm2_h_concat
I0731 23:57:43.415504 31747 net.cpp:425] lstm2_h_concat <- h_1
I0731 23:57:43.415510 31747 net.cpp:399] lstm2_h_concat -> h
I0731 23:57:43.415546 31747 net.cpp:141] Setting up lstm2_h_concat
I0731 23:57:43.415555 31747 net.cpp:148] Top shape: 1 1 1000 (1000)
I0731 23:57:43.415560 31747 net.cpp:156] Memory required for data: 98020
I0731 23:57:43.415563 31747 layer_factory.hpp:77] Creating layer h_pseudoloss
I0731 23:57:43.415571 31747 net.cpp:91] Creating Layer h_pseudoloss
I0731 23:57:43.415576 31747 net.cpp:425] h_pseudoloss <- h
I0731 23:57:43.415585 31747 net.cpp:399] h_pseudoloss -> h_pseudoloss
I0731 23:57:43.415686 31747 net.cpp:141] Setting up h_pseudoloss
…
