…
Java HotSpot(TM) 64-Bit Server VM warning: You have loaded library /tmp/cvld6862028538703281454/libopencv_java310.xine1.so which might have disabled stack guard. The VM will try to fix the stack guard now.
It's highly recommended that you fix the library with 'execstack -c <libfile>', or link it with '-z noexecstack'.
WARNING: Logging before InitGoogleLogging() is written to STDERR
I0714 22:06:00.561321 21615 net.cpp:49] Initializing net from parameters: 
name: "GoogleNet"
state {
  phase: TEST
}
layer {
  name: "data"
  type: "Input"
  top: "data"
  input_param {
    shape {
      dim: 10
      dim: 3
      dim: 224
      dim: 224
    }
  }
}
layer {
  name: "conv1/7x7_s2"
  type: "Convolution"
  bottom: "data"
  top: "conv1/7x7_s2"
  param {
    lr_mult: 1
    decay_mult: 1
  }
  param {
    lr_mult: 2
    decay_mult: 0
  }
  convolution_param {
    num_output: 64
    pad: 3
    kernel_size: 7
    stride: 2
    weight_filler {
      type: "xavier"
      std: 0.1
    }
    bias_filler {
      type: "constant"
      value: 0.2
    }
  }
}
layer {
  name: "conv1/relu_7x7"
  type: "ReLU"
  bottom: "conv1/7x7_s2"
  top: "conv1/7x7_s2"
}
layer {
  name: "pool1/3x3_s2"
  type: "Pooling"
  bottom: "conv1/7x7_s2"
  top: "pool1/3x3_s2"
  pooling_param {
    pool: MAX
    kernel_size: 3
    stride: 2
  }
}
layer {
  name: "pool1/norm1"
  type: "LRN"
  bottom: "pool1/3x3_s2"
  top: "pool1/norm1"
  lrn_param {
    local_size: 5
    alpha: 0.0001
    beta: 0.75
  }
}
layer {
  name: "conv2/3x3_reduce"
  type: "Convolution"
  bottom: "pool1/norm1"
  top: "conv2/3x3_reduce"
  param {
    lr_mult: 1
    decay_mult: 1
  }
  param {
    lr_mult: 2
    decay_mult: 0
  }
  convolution_param {
    num_output: 64
    kernel_size: 1
    weight_filler {
      type: "xavier"
      std: 0.1
    }
    bias_filler {
      type: "constant"
      value: 0.2
    }
  }
}
layer {
  name: "conv2/relu_3x3_reduce"
  type: "ReLU"
  bottom: "conv2/3x3_reduce"
  top: "conv2/3x3_reduce"
}
layer {
  name: "conv2/3x3"
  type: "Convolution"
  bottom: "conv2/3x3_reduce"
  top: "conv2/3x3"
  param {
    lr_mult: 1
    decay_mult: 1
  }
  param {
    lr_mult: 2
    decay_mult: 0
  }
  convolution_param {
    num_output: 192
    pad: 1
    kernel_size: 3
    weight_filler {
      type: "xavier"
      std: 0.03
    }
    bias_filler {
      type: "constant"
      value: 0.2
    }
  }
}
layer {
  name: "conv2/relu_3x3"
  type: "ReLU"
  bottom: "conv2/3x3"
  top: "conv2/3x3"
}
layer {
  name: "conv2/norm2"
  type: "LRN"
  bottom: "conv2/3x3"
  top: "conv2/norm2"
  lrn_param {
    local_size: 5
    alpha: 0.0001
    beta: 0.75
  }
}
layer {
  name: "pool2/3x3_s2"
  type: "Pooling"
  bottom: "conv2/norm2"
  top: "pool2/3x3_s2"
  pooling_param {
    pool: MAX
    kernel_size: 3
    stride: 2
  }
}
layer {
  name: "inception_3a/1x1"
  type: "Convolution"
  bottom: "pool2/3x3_s2"
  top: "inception_3a/1x1"
  param {
    lr_mult: 1
    decay_mult: 1
  }
  param {
    lr_mult: 2
    decay_mult: 0
  }
  convolution_param {
    num_output: 64
    kernel_size: 1
    weight_filler {
      type: "xavier"
      std: 0.03
    }
    bias_filler {
      type: "constant"
      value: 0.2
    }
  }
}
layer {
  name: "inception_3a/relu_1x1"
  type: "ReLU"
  bottom: "inception_3a/1x1"
  top: "inception_3a/1x1"
}
layer {
  name: "inception_3a/3x3_reduce"
  type: "Convolution"
  bottom: "pool2/3x3_s2"
  top: "inception_3a/3x3_reduce"
  param {
    lr_mult: 1
    decay_mult: 1
  }
  param {
    lr_mult: 2
    decay_mult: 0
  }
  convolution_param {
    num_output: 96
    kernel_size: 1
    weight_filler {
      type: "xavier"
      std: 0.09
    }
    bias_filler {
      type: "constant"
      value: 0.2
    }
  }
}
layer {
  name: "inception_3a/relu_3x3_reduce"
  type: "ReLU"
  bottom: "inception_3a/3x3_reduce"
  top: "inception_3a/3x3_reduce"
}
layer {
  name: "inception_3a/3x3"
  type: "Convolution"
  bottom: "inception_3a/3x3_reduce"
  top: "inception_3a/3x3"
  param {
    lr_mult: 1
    decay_mult: 1
  }
  param {
    lr_mult: 2
    decay_mult: 0
  }
  convolution_param {
    num_output: 128
    pad: 1
    kernel_size: 3
    weight_filler {
      type: "xavier"
      std: 0.03
    }
    bias_filler {
      type: "constant"
      value: 0.2
    }
  }
}
layer {
  name: "inception_3a/relu_3x3"
  type: "ReLU"
  bottom: "inception_3a/3x3"
  top: "inception_3a/3x3"
}
layer {
  name: "inception_3a/5x5_reduce"
  type: "Convolution"
  bottom: "pool2/3x3_s2"
  top: "inception_3a/5x5_reduce"
  param {
    lr_mult: 1
    decay_mult: 1
  }
  param {
    lr_mult: 2
    decay_mult: 0
  }
  convolution_param {
    num_output: 16
    kernel_size: 1
    weight_filler {
      type: "xavier"
      std: 0.2
    }
    bias_filler {
      type: "constant"
      value: 0.2
    }
  }
}
layer {
  name: "inception_3a/relu_5x5_reduce"
  type: "ReLU"
  bottom: "inception_3a/5x5_reduce"
  top: "inception_3a/5x5_reduce"
}
layer {
  name: "inception_3a/5x5"
  type: "Convolution"
  bottom: "inception_3a/5x5_reduce"
  top: "inception_3a/5x5"
  param {
    lr_mult: 1
    decay_mult: 1
  }
  param {
    lr_mult: 2
    decay_mult: 0
  }
  convolution_param {
    num_output: 32
    pad: 2
    kernel_size: 5
    weight_filler {
      type: "xavier"
      std: 0.03
    }
    bias_filler {
      type: "constant"
      value: 0.2
    }
  }
}
layer {
  name: "inception_3a/relu_5x5"
  type: "ReLU"
  bottom: "inception_3a/5x5"
  top: "inception_3a/5x5"
}
layer {
  name: "inception_3a/pool"
  type: "Pooling"
  bottom: "pool2/3x3_s2"
  top: "inception_3a/pool"
  pooling_param {
    pool: MAX
    kernel_size: 3
    stride: 1
    pad: 1
  }
}
layer {
  name: "inception_3a/pool_proj"
  type: "Convolution"
  bottom: "inception_3a/pool"
  top: "inception_3a/pool_proj"
  param {
    lr_mult: 1
    decay_mult: 1
  }
  param {
    lr_mult: 2
    decay_mult: 0
  }
  convolution_param {
    num_output: 32
    kernel_size: 1
    weight_filler {
      type: "xavier"
      std: 0.1
    }
    bias_filler {
      type: "constant"
      value: 0.2
    }
  }
}
layer {
  name: "inception_3a/relu_pool_proj"
  type: "ReLU"
  bottom: "inception_3a/pool_proj"
  top: "inception_3a/pool_proj"
}
layer {
  name: "inception_3a/output"
  type: "Concat"
  bottom: "inception_3a/1x1"
  bottom: "inception_3a/3x3"
  bottom: "inception_3a/5x5"
  bottom: "inception_3a/pool_proj"
  top: "inception_3a/output"
}
layer {
  name: "inception_3b/1x1"
  type: "Convolution"
  bottom: "inception_3a/output"
  top: "inception_3b/1x1"
  param {
    lr_mult: 1
    decay_mult: 1
  }
  param {
    lr_mult: 2
    decay_mult: 0
  }
  convolution_param {
    num_output: 128
    kernel_size: 1
    weight_filler {
      type: "xavier"
      std: 0.03
    }
    bias_filler {
      type: "constant"
      value: 0.2
    }
  }
}
layer {
  name: "inception_3b/relu_1x1"
  type: "ReLU"
  bottom: "inception_3b/1x1"
  top: "inception_3b/1x1"
}
layer {
  name: "inception_3b/3x3_reduce"
  type: "Convolution"
  bottom: "inception_3a/output"
  top: "inception_3b/3x3_reduce"
  param {
    lr_mult: 1
    decay_mult: 1
  }
  param {
    lr_mult: 2
    decay_mult: 0
  }
  convolution_param {
    num_output: 128
    kernel_size: 1
    weight_filler {
      type: "xavier"
      std: 0.09
    }
    bias_filler {
      type: "constant"
      value: 0.2
    }
  }
}
layer {
  name: "inception_3b/relu_3x3_reduce"
  type: "ReLU"
  bottom: "inception_3b/3x3_reduce"
  top: "inception_3b/3x3_reduce"
}
layer {
  name: "inception_3b/3x3"
  type: "Convolution"
  bottom: "inception_3b/3x3_reduce"
  top: "inception_3b/3x3"
  param {
    lr_mult: 1
    decay_mult: 1
  }
  param {
    lr_mult: 2
    decay_mult: 0
  }
  convolution_param {
    num_output: 192
    pad: 1
    kernel_size: 3
    weight_filler {
      type: "xavier"
      std: 0.03
    }
    bias_filler {
      type: "constant"
      value: 0.2
    }
  }
}
layer {
  name: "inception_3b/relu_3x3"
  type: "ReLU"
  bottom: "inception_3b/3x3"
  top: "inception_3b/3x3"
}
layer {
  name: "inception_3b/5x5_reduce"
  type: "Convolution"
  bottom: "inception_3a/output"
  top: "inception_3b/5x5_reduce"
  param {
    lr_mult: 1
    decay_mult: 1
  }
  param {
    lr_mult: 2
    decay_mult: 0
  }
  convolution_param {
    num_output: 32
    kernel_size: 1
    weight_filler {
      type: "xavier"
      std: 0.2
    }
    bias_filler {
      type: "constant"
      value: 0.2
    }
  }
}
layer {
  name: "inception_3b/relu_5x5_reduce"
  type: "ReLU"
  bottom: "inception_3b/5x5_reduce"
  top: "inception_3b/5x5_reduce"
}
layer {
  name: "inception_3b/5x5"
  type: "Convolution"
  bottom: "inception_3b/5x5_reduce"
  top: "inception_3b/5x5"
  param {
    lr_mult: 1
    decay_mult: 1
  }
  param {
    lr_mult: 2
    decay_mult: 0
  }
  convolution_param {
    num_output: 96
    pad: 2
    kernel_size: 5
    weight_filler {
      type: "xavier"
      std: 0.03
    }
    bias_filler {
      type: "constant"
      value: 0.2
    }
  }
}
layer {
  name: "inception_3b/relu_5x5"
  type: "ReLU"
  bottom: "inception_3b/5x5"
  top: "inception_3b/5x5"
}
layer {
  name: "inception_3b/pool"
  type: "Pooling"
  bottom: "inception_3a/output"
  top: "inception_3b/pool"
  pooling_param {
    pool: MAX
    kernel_size: 3
    stride: 1
    pad: 1
  }
}
layer {
  name: "inception_3b/pool_proj"
  type: "Convolution"
  bottom: "inception_3b/pool"
  top: "inception_3b/pool_proj"
  param {
    lr_mult: 1
    decay_mult: 1
  }
  param {
    lr_mult: 2
    decay_mult: 0
  }
  convolution_param {
    num_output: 64
    kernel_size: 1
    weight_filler {
      type: "xavier"
      std: 0.1
    }
    bias_filler {
      type: "constant"
      value: 0.2
    }
  }
}
layer {
  name: "inception_3b/relu_pool_proj"
  type: "ReLU"
  bottom: "inception_3b/pool_proj"
  top: "inception_3b/pool_proj"
}
layer {
  name: "inception_3b/output"
  type: "Concat"
  bottom: "inception_3b/1x1"
  bottom: "inception_3b/3x3"
  bottom: "inception_3b/5x5"
  bottom: "inception_3b/pool_proj"
  top: "inception_3b/output"
}
layer {
  name: "pool3/3x3_s2"
  type: "Pooling"
  bottom: "inception_3b/output"
  top: "pool3/3x3_s2"
  pooling_param {
    pool: MAX
    kernel_size: 3
    stride: 2
  }
}
layer {
  name: "inception_4a/1x1"
  type: "Convolution"
  bottom: "pool3/3x3_s2"
  top: "inception_4a/1x1"
  param {
    lr_mult: 1
    decay_mult: 1
  }
  param {
    lr_mult: 2
    decay_mult: 0
  }
  convolution_param {
    num_output: 192
    kernel_size: 1
    weight_filler {
      type: "xavier"
      std: 0.03
    }
    bias_filler {
      type: "constant"
      value: 0.2
    }
  }
}
layer {
  name: "inception_4a/relu_1x1"
  type: "ReLU"
  bottom: "inception_4a/1x1"
  top: "inception_4a/1x1"
}
layer {
  name: "inception_4a/3x3_reduce"
  type: "Convolution"
  bottom: "pool3/3x3_s2"
  top: "inception_4a/3x3_reduce"
  param {
    lr_mult: 1
    decay_mult: 1
  }
  param {
    lr_mult: 2
    decay_mult: 0
  }
  convolution_param {
    num_output: 96
    kernel_size: 1
    weight_filler {
      type: "xavier"
      std: 0.09
    }
    bias_filler {
      type: "constant"
      value: 0.2
    }
  }
}
layer {
  name: "inception_4a/relu_3x3_reduce"
  type: "ReLU"
  bottom: "inception_4a/3x3_reduce"
  top: "inception_4a/3x3_reduce"
}
layer {
  name: "inception_4a/3x3"
  type: "Convolution"
  bottom: "inception_4a/3x3_reduce"
  top: "inception_4a/3x3"
  param {
    lr_mult: 1
    decay_mult: 1
  }
  param {
    lr_mult: 2
    decay_mult: 0
  }
  convolution_param {
    num_output: 208
    pad: 1
    kernel_size: 3
    weight_filler {
      type: "xavier"
      std: 0.03
    }
    bias_filler {
      type: "constant"
      value: 0.2
    }
  }
}
layer {
  name: "inception_4a/relu_3x3"
  type: "ReLU"
  bottom: "inception_4a/3x3"
  top: "inception_4a/3x3"
}
layer {
  name: "inception_4a/5x5_reduce"
  type: "Convolution"
  bottom: "pool3/3x3_s2"
  top: "inception_4a/5x5_reduce"
  param {
    lr_mult: 1
    decay_mult: 1
  }
  param {
    lr_mult: 2
    decay_mult: 0
  }
  convolution_param {
    num_output: 16
    kernel_size: 1
    weight_filler {
      type: "xavier"
      std: 0.2
    }
    bias_filler {
      type: "constant"
      value: 0.2
    }
  }
}
layer {
  name: "inception_4a/relu_5x5_reduce"
  type: "ReLU"
  bottom: "inception_4a/5x5_reduce"
  top: "inception_4a/5x5_reduce"
}
layer {
  name: "inception_4a/5x5"
  type: "Convolution"
  bottom: "inception_4a/5x5_reduce"
  top: "inception_4a/5x5"
  param {
    lr_mult: 1
    decay_mult: 1
  }
  param {
    lr_mult: 2
    decay_mult: 0
  }
  convolution_param {
    num_output: 48
    pad: 2
    kernel_size: 5
    weight_filler {
      type: "xavier"
      std: 0.03
    }
    bias_filler {
      type: "constant"
      value: 0.2
    }
  }
}
layer {
  name: "inception_4a/relu_5x5"
  type: "ReLU"
  bottom: "inception_4a/5x5"
  top: "inception_4a/5x5"
}
layer {
  name: "inception_4a/pool"
  type: "Pooling"
  bottom: "pool3/3x3_s2"
  top: "inception_4a/pool"
  pooling_param {
    pool: MAX
    kernel_size: 3
    stride: 1
    pad: 1
  }
}
layer {
  name: "inception_4a/pool_proj"
  type: "Convolution"
  bottom: "inception_4a/pool"
  top: "inception_4a/pool_proj"
  param {
    lr_mult: 1
    decay_mult: 1
  }
  param {
    lr_mult: 2
    decay_mult: 0
  }
  convolution_param {
    num_output: 64
    kernel_size: 1
    weight_filler {
      type: "xavier"
      std: 0.1
    }
    bias_filler {
      type: "constant"
      value: 0.2
    }
  }
}
layer {
  name: "inception_4a/relu_pool_proj"
  type: "ReLU"
  bottom: "inception_4a/pool_proj"
  top: "inception_4a/pool_proj"
}
layer {
  name: "inception_4a/output"
  type: "Concat"
  bottom: "inception_4a/1x1"
  bottom: "inception_4a/3x3"
  bottom: "inception_4a/5x5"
  bottom: "inception_4a/pool_proj"
  top: "inception_4a/output"
}
layer {
  name: "inception_4b/1x1"
  type: "Convolution"
  bottom: "inception_4a/output"
  top: "inception_4b/1x1"
  param {
    lr_mult: 1
    decay_mult: 1
  }
  param {
    lr_mult: 2
    decay_mult: 0
  }
  convolution_param {
    num_output: 160
    kernel_size: 1
    weight_filler {
      type: "xavier"
      std: 0.03
    }
    bias_filler {
      type: "constant"
      value: 0.2
    }
  }
}
layer {
  name: "inception_4b/relu_1x1"
  type: "ReLU"
  bottom: "inception_4b/1x1"
  top: "inception_4b/1x1"
}
layer {
  name: "inception_4b/3x3_reduce"
  type: "Convolution"
  bottom: "inception_4a/output"
  top: "inception_4b/3x3_reduce"
  param {
    lr_mult: 1
    decay_mult: 1
  }
  param {
    lr_mult: 2
    decay_mult: 0
  }
  convolution_param {
    num_output: 112
    kernel_size: 1
    weight_filler {
      type: "xavier"
      std: 0.09
    }
    bias_filler {
      type: "constant"
      value: 0.2
    }
  }
}
layer {
  name: "inception_4b/relu_3x3_reduce"
  type: "ReLU"
  bottom: "inception_4b/3x3_reduce"
  top: "inception_4b/3x3_reduce"
}
layer {
  name: "inception_4b/3x3"
  type: "Convolution"
  bottom: "inception_4b/3x3_reduce"
  top: "inception_4b/3x3"
  param {
    lr_mult: 1
    decay_mult: 1
  }
  param {
    lr_mult: 2
    decay_mult: 0
  }
  convolution_param {
    num_output: 224
    pad: 1
    kernel_size: 3
    weight_filler {
      type: "xavier"
      std: 0.03
    }
    bias_filler {
      type: "constant"
      value: 0.2
    }
  }
}
layer {
  name: "inception_4b/relu_3x3"
  type: "ReLU"
  bottom: "inception_4b/3x3"
  top: "inception_4b/3x3"
}
layer {
  name: "inception_4b/5x5_reduce"
  type: "Convolution"
  bottom: "inception_4a/output"
  top: "inception_4b/5x5_reduce"
  param {
    lr_mult: 1
    decay_mult: 1
  }
  param {
    lr_mult: 2
    decay_mult: 0
  }
  convolution_param {
    num_output: 24
    kernel_size: 1
    weight_filler {
      type: "xavier"
      std: 0.2
    }
    bias_filler {
      type: "constant"
      value: 0.2
    }
  }
}
layer {
  name: "inception_4b/relu_5x5_reduce"
  type: "ReLU"
  bottom: "inception_4b/5x5_reduce"
  top: "inception_4b/5x5_reduce"
}
layer {
  name: "inception_4b/5x5"
  type: "Convolution"
  bottom: "inception_4b/5x5_reduce"
  top: "inception_4b/5x5"
  param {
    lr_mult: 1
    decay_mult: 1
  }
  param {
    lr_mult: 2
    decay_mult: 0
  }
  convolution_param {
    num_output: 64
    pad: 2
    kernel_size: 5
    weight_filler {
      type: "xavier"
      std: 0.03
    }
    bias_filler {
      type: "constant"
      value: 0.2
    }
  }
}
layer {
  name: "inception_4b/relu_5x5"
  type: "ReLU"
  bottom: "inception_4b/5x5"
  top: "inception_4b/5x5"
}
layer {
  name: "inception_4b/pool"
  type: "Pooling"
  bottom: "inception_4a/output"
  top: "inception_4b/pool"
  pooling_param {
    pool: MAX
    kernel_size: 3
    stride: 1
    pad: 1
  }
}
layer {
  name: "inception_4b/pool_proj"
  type: "Convolution"
  bottom: "inception_4b/pool"
  top: "inception_4b/pool_proj"
  param {
    lr_mult: 1
    decay_mult: 1
  }
  param {
    lr_mult: 2
    decay_mult: 0
  }
  convolution_param {
    num_output: 64
    kernel_size: 1
    weight_filler {
      type: "xavier"
      std: 0.1
    }
    bias_filler {
      type: "constant"
      value: 0.2
    }
  }
}
layer {
  name: "inception_4b/relu_pool_proj"
  type: "ReLU"
  bottom: "inception_4b/pool_proj"
  top: "inception_4b/pool_proj"
}
layer {
  name: "inception_4b/output"
  type: "Concat"
  bottom: "inception_4b/1x1"
  bottom: "inception_4b/3x3"
  bottom: "inception_4b/5x5"
  bottom: "inception_4b/pool_proj"
  top: "inception_4b/output"
}
layer {
  name: "inception_4c/1x1"
  type: "Convolution"
  bottom: "inception_4b/output"
  top: "inception_4c/1x1"
  param {
    lr_mult: 1
    decay_mult: 1
  }
  param {
    lr_mult: 2
    decay_mult: 0
  }
  convolution_param {
    num_output: 128
    kernel_size: 1
    weight_filler {
      type: "xavier"
      std: 0.03
    }
    bias_filler {
      type: "constant"
      value: 0.2
    }
  }
}
layer {
  name: "inception_4c/relu_1x1"
  type: "ReLU"
  bottom: "inception_4c/1x1"
  top: "inception_4c/1x1"
}
layer {
  name: "inception_4c/3x3_reduce"
  type: "Convolution"
  bottom: "inception_4b/output"
  top: "inception_4c/3x3_reduce"
  param {
    lr_mult: 1
    decay_mult: 1
  }
  param {
    lr_mult: 2
    decay_mult: 0
  }
  convolution_param {
    num_output: 128
    kernel_size: 1
    weight_filler {
      type: "xavier"
      std: 0.09
    }
    bias_filler {
      type: "constant"
      value: 0.2
    }
  }
}
layer {
  name: "inception_4c/relu_3x3_reduce"
  type: "ReLU"
  bottom: "inception_4c/3x3_reduce"
  top: "inception_4c/3x3_reduce"
}
layer {
  name: "inception_4c/3x3"
  type: "Convolution"
  bottom: "inception_4c/3x3_reduce"
  top: "inception_4c/3x3"
  param {
    lr_mult: 1
    decay_mult: 1
  }
  param {
    lr_mult: 2
    decay_mult: 0
  }
  convolution_param {
    num_output: 256
    pad: 1
    kernel_size: 3
    weight_filler {
      type: "xavier"
      std: 0.03
    }
    bias_filler {
      type: "constant"
      value: 0.2
    }
  }
}
layer {
  name: "inception_4c/relu_3x3"
  type: "ReLU"
  bottom: "inception_4c/3x3"
  top: "inception_4c/3x3"
}
layer {
  name: "inception_4c/5x5_reduce"
  type: "Convolution"
  bottom: "inception_4b/output"
  top: "inception_4c/5x5_reduce"
  param {
    lr_mult: 1
    decay_mult: 1
  }
  param {
    lr_mult: 2
    decay_mult: 0
  }
  convolution_param {
    num_output: 24
    kernel_size: 1
    weight_filler {
      type: "xavier"
      std: 0.2
    }
    bias_filler {
      type: "constant"
      value: 0.2
    }
  }
}
layer {
  name: "inception_4c/relu_5x5_reduce"
  type: "ReLU"
  bottom: "inception_4c/5x5_reduce"
  top: "inception_4c/5x5_reduce"
}
layer {
  name: "inception_4c/5x5"
  type: "Convolution"
  bottom: "inception_4c/5x5_reduce"
  top: "inception_4c/5x5"
  param {
    lr_mult: 1
    decay_mult: 1
  }
  param {
    lr_mult: 2
    decay_mult: 0
  }
  convolution_param {
    num_output: 64
    pad: 2
    kernel_size: 5
    weight_filler {
      type: "xavier"
      std: 0.03
    }
    bias_filler {
      type: "constant"
      value: 0.2
    }
  }
}
layer {
  name: "inception_4c/relu_5x5"
  type: "ReLU"
  bottom: "inception_4c/5x5"
  top: "inception_4c/5x5"
}
layer {
  name: "inception_4c/pool"
  type: "Pooling"
  bottom: "inception_4b/output"
  top: "inception_4c/pool"
  pooling_param {
    pool: MAX
    kernel_size: 3
    stride: 1
    pad: 1
  }
}
layer {
  name: "inception_4c/pool_proj"
  type: "Convolution"
  bottom: "inception_4c/pool"
  top: "inception_4c/pool_proj"
  param {
    lr_mult: 1
    decay_mult: 1
  }
  param {
    lr_mult: 2
    decay_mult: 0
  }
  convolution_param {
    num_output: 64
    kernel_size: 1
    weight_filler {
      type: "xavier"
      std: 0.1
    }
    bias_filler {
      type: "constant"
      value: 0.2
    }
  }
}
layer {
  name: "inception_4c/relu_pool_proj"
  type: "ReLU"
  bottom: "inception_4c/pool_proj"
  top: "inception_4c/pool_proj"
}
layer {
  name: "inception_4c/output"
  type: "Concat"
  bottom: "inception_4c/1x1"
  bottom: "inception_4c/3x3"
  bottom: "inception_4c/5x5"
  bottom: "inception_4c/pool_proj"
  top: "inception_4c/output"
}
layer {
  name: "inception_4d/1x1"
  type: "Convolution"
  bottom: "inception_4c/output"
  top: "inception_4d/1x1"
  param {
    lr_mult: 1
    decay_mult: 1
  }
  param {
    lr_mult: 2
    decay_mult: 0
  }
  convolution_param {
    num_output: 112
    kernel_size: 1
    weight_filler {
      type: "xavier"
      std: 0.03
    }
    bias_filler {
      type: "constant"
      value: 0.2
    }
  }
}
layer {
  name: "inception_4d/relu_1x1"
  type: "ReLU"
  bottom: "inception_4d/1x1"
  top: "inception_4d/1x1"
}
layer {
  name: "inception_4d/3x3_reduce"
  type: "Convolution"
  bottom: "inception_4c/output"
  top: "inception_4d/3x3_reduce"
  param {
    lr_mult: 1
    decay_mult: 1
  }
  param {
    lr_mult: 2
    decay_mult: 0
  }
  convolution_param {
    num_output: 144
    kernel_size: 1
    weight_filler {
      type: "xavier"
      std: 0.09
    }
    bias_filler {
      type: "constant"
      value: 0.2
    }
  }
}
layer {
  name: "inception_4d/relu_3x3_reduce"
  type: "ReLU"
  bottom: "inception_4d/3x3_reduce"
  top: "inception_4d/3x3_reduce"
}
layer {
  name: "inception_4d/3x3"
  type: "Convolution"
  bottom: "inception_4d/3x3_reduce"
  top: "inception_4d/3x3"
  param {
    lr_mult: 1
    decay_mult: 1
  }
  param {
    lr_mult: 2
    decay_mult: 0
  }
  convolution_param {
    num_output: 288
    pad: 1
    kernel_size: 3
    weight_filler {
      type: "xavier"
      std: 0.03
    }
    bias_filler {
      type: "constant"
      value: 0.2
    }
  }
}
layer {
  name: "inception_4d/relu_3x3"
  type: "ReLU"
  bottom: "inception_4d/3x3"
  top: "inception_4d/3x3"
}
layer {
  name: "inception_4d/5x5_reduce"
  type: "Convolution"
  bottom: "inception_4c/output"
  top: "inception_4d/5x5_reduce"
  param {
    lr_mult: 1
    decay_mult: 1
  }
  param {
    lr_mult: 2
    decay_mult: 0
  }
  convolution_param {
    num_output: 32
    kernel_size: 1
    weight_filler {
      type: "xavier"
      std: 0.2
    }
    bias_filler {
      type: "constant"
      value: 0.2
    }
  }
}
layer {
  name: "inception_4d/relu_5x5_reduce"
  type: "ReLU"
  bottom: "inception_4d/5x5_reduce"
  top: "inception_4d/5x5_reduce"
}
layer {
  name: "inception_4d/5x5"
  type: "Convolution"
  bottom: "inception_4d/5x5_reduce"
  top: "inception_4d/5x5"
  param {
    lr_mult: 1
    decay_mult: 1
  }
  param {
    lr_mult: 2
    decay_mult: 0
  }
  convolution_param {
    num_output: 64
    pad: 2
    kernel_size: 5
    weight_filler {
      type: "xavier"
      std: 0.03
    }
    bias_filler {
      type: "constant"
      value: 0.2
    }
  }
}
layer {
  name: "inception_4d/relu_5x5"
  type: "ReLU"
  bottom: "inception_4d/5x5"
  top: "inception_4d/5x5"
}
layer {
  name: "inception_4d/pool"
  type: "Pooling"
  bottom: "inception_4c/output"
  top: "inception_4d/pool"
  pooling_param {
    pool: MAX
    kernel_size: 3
    stride: 1
    pad: 1
  }
}
layer {
  name: "inception_4d/pool_proj"
  type: "Convolution"
  bottom: "inception_4d/pool"
  top: "inception_4d/pool_proj"
  param {
    lr_mult: 1
    decay_mult: 1
  }
  param {
    lr_mult: 2
    decay_mult: 0
  }
  convolution_param {
    num_output: 64
    kernel_size: 1
    weight_filler {
      type: "xavier"
      std: 0.1
    }
    bias_filler {
      type: "constant"
      value: 0.2
    }
  }
}
layer {
  name: "inception_4d/relu_pool_proj"
  type: "ReLU"
  bottom: "inception_4d/pool_proj"
  top: "inception_4d/pool_proj"
}
layer {
  name: "inception_4d/output"
  type: "Concat"
  bottom: "inception_4d/1x1"
  bottom: "inception_4d/3x3"
  bottom: "inception_4d/5x5"
  bottom: "inception_4d/pool_proj"
  top: "inception_4d/output"
}
layer {
  name: "inception_4e/1x1"
  type: "Convolution"
  bottom: "inception_4d/output"
  top: "inception_4e/1x1"
  param {
    lr_mult: 1
    decay_mult: 1
  }
  param {
    lr_mult: 2
    decay_mult: 0
  }
  convolution_param {
    num_output: 256
    kernel_size: 1
    weight_filler {
      type: "xavier"
      std: 0.03
    }
    bias_filler {
      type: "constant"
      value: 0.2
    }
  }
}
layer {
  name: "inception_4e/relu_1x1"
  type: "ReLU"
  bottom: "inception_4e/1x1"
  top: "inception_4e/1x1"
}
layer {
  name: "inception_4e/3x3_reduce"
  type: "Convolution"
  bottom: "inception_4d/output"
  top: "inception_4e/3x3_reduce"
  param {
    lr_mult: 1
    decay_mult: 1
  }
  param {
    lr_mult: 2
    decay_mult: 0
  }
  convolution_param {
    num_output: 160
    kernel_size: 1
    weight_filler {
      type: "xavier"
      std: 0.09
    }
    bias_filler {
      type: "constant"
      value: 0.2
    }
  }
}
layer {
  name: "inception_4e/relu_3x3_reduce"
  type: "ReLU"
  bottom: "inception_4e/3x3_reduce"
  top: "inception_4e/3x3_reduce"
}
layer {
  name: "inception_4e/3x3"
  type: "Convolution"
  bottom: "inception_4e/3x3_reduce"
  top: "inception_4e/3x3"
  param {
    lr_mult: 1
    decay_mult: 1
  }
  param {
    lr_mult: 2
    decay_mult: 0
  }
  convolution_param {
    num_output: 320
    pad: 1
    kernel_size: 3
    weight_filler {
      type: "xavier"
      std: 0.03
    }
    bias_filler {
      type: "constant"
      value: 0.2
    }
  }
}
layer {
  name: "inception_4e/relu_3x3"
  type: "ReLU"
  bottom: "inception_4e/3x3"
  top: "inception_4e/3x3"
}
layer {
  name: "inception_4e/5x5_reduce"
  type: "Convolution"
  bottom: "inception_4d/output"
  top: "inception_4e/5x5_reduce"
  param {
    lr_mult: 1
    decay_mult: 1
  }
  param {
    lr_mult: 2
    decay_mult: 0
  }
  convolution_param {
    num_output: 32
    kernel_size: 1
    weight_filler {
      type: "xavier"
      std: 0.2
    }
    bias_filler {
      type: "constant"
      value: 0.2
    }
  }
}
layer {
  name: "inception_4e/relu_5x5_reduce"
  type: "ReLU"
  bottom: "inception_4e/5x5_reduce"
  top: "inception_4e/5x5_reduce"
}
layer {
  name: "inception_4e/5x5"
  type: "Convolution"
  bottom: "inception_4e/5x5_reduce"
  top: "inception_4e/5x5"
  param {
    lr_mult: 1
    decay_mult: 1
  }
  param {
    lr_mult: 2
    decay_mult: 0
  }
  convolution_param {
    num_output: 128
    pad: 2
    kernel_size: 5
    weight_filler {
      type: "xavier"
      std: 0.03
    }
    bias_filler {
      type: "constant"
      value: 0.2
    }
  }
}
layer {
  name: "inception_4e/relu_5x5"
  type: "ReLU"
  bottom: "inception_4e/5x5"
  top: "inception_4e/5x5"
}
layer {
  name: "inception_4e/pool"
  type: "Pooling"
  bottom: "inception_4d/output"
  top: "inception_4e/pool"
  pooling_param {
    pool: MAX
    kernel_size: 3
    stride: 1
    pad: 1
  }
}
layer {
  name: "inception_4e/pool_proj"
  type: "Convolution"
  bottom: "inception_4e/pool"
  top: "inception_4e/pool_proj"
  param {
    lr_mult: 1
    decay_mult: 1
  }
  param {
    lr_mult: 2
    decay_mult: 0
  }
  convolution_param {
    num_output: 128
    kernel_size: 1
    weight_filler {
      type: "xavier"
      std: 0.1
    }
    bias_filler {
      type: "constant"
      value: 0.2
    }
  }
}
layer {
  name: "inception_4e/relu_pool_proj"
  type: "ReLU"
  bottom: "inception_4e/pool_proj"
  top: "inception_4e/pool_proj"
}
layer {
  name: "inception_4e/output"
  type: "Concat"
  bottom: "inception_4e/1x1"
  bottom: "inception_4e/3x3"
  bottom: "inception_4e/5x5"
  bottom: "inception_4e/pool_proj"
  top: "inception_4e/output"
}
layer {
  name: "pool4/3x3_s2"
  type: "Pooling"
  bottom: "inception_4e/output"
  top: "pool4/3x3_s2"
  pooling_param {
    pool: MAX
    kernel_size: 3
    stride: 2
  }
}
layer {
  name: "inception_5a/1x1"
  type: "Convolution"
  bottom: "pool4/3x3_s2"
  top: "inception_5a/1x1"
  param {
    lr_mult: 1
    decay_mult: 1
  }
  param {
    lr_mult: 2
    decay_mult: 0
  }
  convolution_param {
    num_output: 256
    kernel_size: 1
    weight_filler {
      type: "xavier"
      std: 0.03
    }
    bias_filler {
      type: "constant"
      value: 0.2
    }
  }
}
layer {
  name: "inception_5a/relu_1x1"
  type: "ReLU"
  bottom: "inception_5a/1x1"
  top: "inception_5a/1x1"
}
layer {
  name: "inception_5a/3x3_reduce"
  type: "Convolution"
  bottom: "pool4/3x3_s2"
  top: "inception_5a/3x3_reduce"
  param {
    lr_mult: 1
    decay_mult: 1
  }
  param {
    lr_mult: 2
    decay_mult: 0
  }
  convolution_param {
    num_output: 160
    kernel_size: 1
    weight_filler {
      type: "xavier"
      std: 0.09
    }
    bias_filler {
      type: "constant"
      value: 0.2
    }
  }
}
layer {
  name: "inception_5a/relu_3x3_reduce"
  type: "ReLU"
  bottom: "inception_5a/3x3_reduce"
  top: "inception_5a/3x3_reduce"
}
layer {
  name: "inception_5a/3x3"
  type: "Convolution"
  bottom: "inception_5a/3x3_reduce"
  top: "inception_5a/3x3"
  param {
    lr_mult: 1
    decay_mult: 1
  }
  param {
    lr_mult: 2
    decay_mult: 0
  }
  convolution_param {
    num_output: 320
    pad: 1
    kernel_size: 3
    weight_filler {
      type: "xavier"
      std: 0.03
    }
    bias_filler {
      type: "constant"
      value: 0.2
    }
  }
}
layer {
  name: "inception_5a/relu_3x3"
  type: "ReLU"
  bottom: "inception_5a/3x3"
  top: "inception_5a/3x3"
}
layer {
  name: "inception_5a/5x5_reduce"
  type: "Convolution"
  bottom: "pool4/3x3_s2"
  top: "inception_5a/5x5_reduce"
  param {
    lr_mult: 1
    decay_mult: 1
  }
  param {
    lr_mult: 2
    decay_mult: 0
  }
  convolution_param {
    num_output: 32
    kernel_size: 1
    weight_filler {
      type: "xavier"
      std: 0.2
    }
    bias_filler {
      type: "constant"
      value: 0.2
    }
I0714 22:06:00.562463 21615 layer_factory.hpp:77] Creating layer data
I0714 22:06:00.562510 21615 net.cpp:91] Creating Layer data
I0714 22:06:00.562523 21615 net.cpp:399] data -> data
I0714 22:06:00.608786 21619 net.cpp:49] Initializing net from parameters: 
name: "GoogleNet"
state {
  phase: TEST
}
layer {
  name: "data"
  type: "Input"
  top: "data"
  input_param {
    shape {
      dim: 10
      dim: 3
      dim: 224
      dim: 224
    }
  }
}
layer {
  name: "conv1/7x7_s2"
  type: "Convolution"
  bottom: "data"
  top: "conv1/7x7_s2"
  param {
    lr_mult: 1
    decay_mult: 1
  }
  param {
    lr_mult: 2
    decay_mult: 0
  }
  convolution_param {
    num_output: 64
    pad: 3
    kernel_size: 7
    stride: 2
    weight_filler {
      type: "xavier"
      std: 0.1
    }
    bias_filler {
      type: "constant"
      value: 0.2
    }
  }
}
layer {
  name: "conv1/relu_7x7"
  type: "ReLU"
  bottom: "conv1/7x7_s2"
  top: "conv1/7x7_s2"
}
layer {
  name: "pool1/3x3_s2"
  type: "Pooling"
  bottom: "conv1/7x7_s2"
  top: "pool1/3x3_s2"
  pooling_param {
    pool: MAX
    kernel_size: 3
    stride: 2
  }
}
layer {
  name: "pool1/norm1"
  type: "LRN"
  bottom: "pool1/3x3_s2"
  top: "pool1/norm1"
  lrn_param {
    local_size: 5
    alpha: 0.0001
    beta: 0.75
  }
}
layer {
  name: "conv2/3x3_reduce"
  type: "Convolution"
  bottom: "pool1/norm1"
  top: "conv2/3x3_reduce"
  param {
    lr_mult: 1
    decay_mult: 1
  }
  param {
    lr_mult: 2
    decay_mult: 0
  }
  convolution_param {
    num_output: 64
    kernel_size: 1
    weight_filler {
      type: "xavier"
      std: 0.1
    }
    bias_filler {
      type: "constant"
      value: 0.2
    }
  }
}
layer {
  name: "conv2/relu_3x3_reduce"
  type: "ReLU"
  bottom: "conv2/3x3_reduce"
  top: "conv2/3x3_reduce"
}
layer {
  name: "conv2/3x3"
  type: "Convolution"
  bottom: "conv2/3x3_reduce"
  top: "conv2/3x3"
  param {
    lr_mult: 1
    decay_mult: 1
  }
  param {
    lr_mult: 2
    decay_mult: 0
  }
  convolution_param {
    num_output: 192
    pad: 1
    kernel_size: 3
    weight_filler {
      type: "xavier"
      std: 0.03
    }
    bias_filler {
      type: "constant"
      value: 0.2
    }
  }
}
layer {
  name: "conv2/relu_3x3"
  type: "ReLU"
  bottom: "conv2/3x3"
  top: "conv2/3x3"
}
layer {
  name: "conv2/norm2"
  type: "LRN"
  bottom: "conv2/3x3"
  top: "conv2/norm2"
  lrn_param {
    local_size: 5
    alpha: 0.0001
    beta: 0.75
  }
}
layer {
  name: "pool2/3x3_s2"
  type: "Pooling"
  bottom: "conv2/norm2"
  top: "pool2/3x3_s2"
  pooling_param {
    pool: MAX
    kernel_size: 3
    stride: 2
  }
}
layer {
  name: "inception_3a/1x1"
  type: "Convolution"
  bottom: "pool2/3x3_s2"
  top: "inception_3a/1x1"
  param {
    lr_mult: 1
    decay_mult: 1
  }
  param {
    lr_mult: 2
    decay_mult: 0
  }
  convolution_param {
    num_output: 64
    kernel_size: 1
    weight_filler {
      type: "xavier"
      std: 0.03
    }
    bias_filler {
      type: "constant"
      value: 0.2
    }
  }
}
layer {
  name: "inception_3a/relu_1x1"
  type: "ReLU"
  bottom: "inception_3a/1x1"
  top: "inception_3a/1x1"
}
layer {
  name: "inception_3a/3x3_reduce"
  type: "Convolution"
  bottom: "pool2/3x3_s2"
  top: "inception_3a/3x3_reduce"
  param {
    lr_mult: 1
    decay_mult: 1
  }
  param {
    lr_mult: 2
    decay_mult: 0
  }
  convolution_param {
    num_output: 96
    kernel_size: 1
    weight_filler {
      type: "xavier"
      std: 0.09
    }
    bias_filler {
      type: "constant"
      value: 0.2
    }
  }
}
layer {
  name: "inception_3a/relu_3x3_reduce"
  type: "ReLU"
  bottom: "inception_3a/3x3_reduce"
  top: "inception_3a/3x3_reduce"
}
layer {
  name: "inception_3a/3x3"
  type: "Convolution"
  bottom: "inception_3a/3x3_reduce"
  top: "inception_3a/3x3"
  param {
    lr_mult: 1
    decay_mult: 1
  }
  param {
    lr_mult: 2
    decay_mult: 0
  }
  convolution_param {
    num_output: 128
    pad: 1
    kernel_size: 3
    weight_filler {
      type: "xavier"
      std: 0.03
    }
    bias_filler {
      type: "constant"
      value: 0.2
    }
  }
}
layer {
  name: "inception_3a/relu_3x3"
  type: "ReLU"
  bottom: "inception_3a/3x3"
  top: "inception_3a/3x3"
}
layer {
  name: "inception_3a/5x5_reduce"
  type: "Convolution"
  bottom: "pool2/3x3_s2"
  top: "inception_3a/5x5_reduce"
  param {
    lr_mult: 1
    decay_mult: 1
  }
  param {
    lr_mult: 2
    decay_mult: 0
  }
  convolution_param {
    num_output: 16
    kernel_size: 1
    weight_filler {
      type: "xavier"
      std: 0.2
    }
    bias_filler {
      type: "constant"
      value: 0.2
    }
  }
}
layer {
  name: "inception_3a/relu_5x5_reduce"
  type: "ReLU"
  bottom: "inception_3a/5x5_reduce"
  top: "inception_3a/5x5_reduce"
}
layer {
  name: "inception_3a/5x5"
  type: "Convolution"
  bottom: "inception_3a/5x5_reduce"
  top: "inception_3a/5x5"
  param {
    lr_mult: 1
    decay_mult: 1
  }
  param {
    lr_mult: 2
    decay_mult: 0
  }
  convolution_param {
    num_output: 32
    pad: 2
    kernel_size: 5
    weight_filler {
      type: "xavier"
      std: 0.03
    }
    bias_filler {
      type: "constant"
      value: 0.2
    }
  }
}
layer {
  name: "inception_3a/relu_5x5"
  type: "ReLU"
  bottom: "inception_3a/5x5"
  top: "inception_3a/5x5"
}
layer {
  name: "inception_3a/pool"
  type: "Pooling"
  bottom: "pool2/3x3_s2"
  top: "inception_3a/pool"
  pooling_param {
    pool: MAX
    kernel_size: 3
    stride: 1
    pad: 1
  }
}
layer {
  name: "inception_3a/pool_proj"
  type: "Convolution"
  bottom: "inception_3a/pool"
  top: "inception_3a/pool_proj"
  param {
    lr_mult: 1
    decay_mult: 1
  }
  param {
    lr_mult: 2
    decay_mult: 0
  }
  convolution_param {
    num_output: 32
    kernel_size: 1
    weight_filler {
      type: "xavier"
      std: 0.1
    }
    bias_filler {
      type: "constant"
      value: 0.2
    }
  }
}
layer {
  name: "inception_3a/relu_pool_proj"
  type: "ReLU"
  bottom: "inception_3a/pool_proj"
  top: "inception_3a/pool_proj"
}
layer {
  name: "inception_3a/output"
  type: "Concat"
  bottom: "inception_3a/1x1"
  bottom: "inception_3a/3x3"
  bottom: "inception_3a/5x5"
  bottom: "inception_3a/pool_proj"
  top: "inception_3a/output"
}
layer {
  name: "inception_3b/1x1"
  type: "Convolution"
  bottom: "inception_3a/output"
  top: "inception_3b/1x1"
  param {
    lr_mult: 1
    decay_mult: 1
  }
  param {
    lr_mult: 2
    decay_mult: 0
  }
  convolution_param {
    num_output: 128
    kernel_size: 1
    weight_filler {
      type: "xavier"
      std: 0.03
    }
    bias_filler {
      type: "constant"
      value: 0.2
    }
  }
}
layer {
  name: "inception_3b/relu_1x1"
  type: "ReLU"
  bottom: "inception_3b/1x1"
  top: "inception_3b/1x1"
}
layer {
  name: "inception_3b/3x3_reduce"
  type: "Convolution"
  bottom: "inception_3a/output"
  top: "inception_3b/3x3_reduce"
  param {
    lr_mult: 1
    decay_mult: 1
  }
  param {
    lr_mult: 2
    decay_mult: 0
  }
  convolution_param {
    num_output: 128
    kernel_size: 1
    weight_filler {
      type: "xavier"
      std: 0.09
    }
    bias_filler {
      type: "constant"
      value: 0.2
    }
  }
}
layer {
  name: "inception_3b/relu_3x3_reduce"
  type: "ReLU"
  bottom: "inception_3b/3x3_reduce"
  top: "inception_3b/3x3_reduce"
}
layer {
  name: "inception_3b/3x3"
  type: "Convolution"
  bottom: "inception_3b/3x3_reduce"
  top: "inception_3b/3x3"
  param {
    lr_mult: 1
    decay_mult: 1
  }
  param {
    lr_mult: 2
    decay_mult: 0
  }
  convolution_param {
    num_output: 192
    pad: 1
    kernel_size: 3
    weight_filler {
      type: "xavier"
      std: 0.03
    }
    bias_filler {
      type: "constant"
      value: 0.2
    }
  }
}
layer {
  name: "inception_3b/relu_3x3"
  type: "ReLU"
  bottom: "inception_3b/3x3"
  top: "inception_3b/3x3"
}
layer {
  name: "inception_3b/5x5_reduce"
  type: "Convolution"
  bottom: "inception_3a/output"
  top: "inception_3b/5x5_reduce"
  param {
    lr_mult: 1
    decay_mult: 1
  }
  param {
    lr_mult: 2
    decay_mult: 0
  }
  convolution_param {
    num_output: 32
    kernel_size: 1
    weight_filler {
      type: "xavier"
      std: 0.2
    }
    bias_filler {
      type: "constant"
      value: 0.2
    }
  }
}
layer {
  name: "inception_3b/relu_5x5_reduce"
  type: "ReLU"
  bottom: "inception_3b/5x5_reduce"
  top: "inception_3b/5x5_reduce"
}
layer {
  name: "inception_3b/5x5"
  type: "Convolution"
  bottom: "inception_3b/5x5_reduce"
  top: "inception_3b/5x5"
  param {
    lr_mult: 1
    decay_mult: 1
  }
  param {
    lr_mult: 2
    decay_mult: 0
  }
  convolution_param {
    num_output: 96
    pad: 2
    kernel_size: 5
    weight_filler {
      type: "xavier"
      std: 0.03
    }
    bias_filler {
      type: "constant"
      value: 0.2
    }
  }
}
layer {
  name: "inception_3b/relu_5x5"
  type: "ReLU"
  bottom: "inception_3b/5x5"
  top: "inception_3b/5x5"
}
layer {
  name: "inception_3b/pool"
  type: "Pooling"
  bottom: "inception_3a/output"
  top: "inception_3b/pool"
  pooling_param {
    pool: MAX
    kernel_size: 3
    stride: 1
    pad: 1
  }
}
layer {
  name: "inception_3b/pool_proj"
  type: "Convolution"
  bottom: "inception_3b/pool"
  top: "inception_3b/pool_proj"
  param {
    lr_mult: 1
    decay_mult: 1
  }
  param {
    lr_mult: 2
    decay_mult: 0
  }
  convolution_param {
    num_output: 64
    kernel_size: 1
    weight_filler {
      type: "xavier"
      std: 0.1
    }
    bias_filler {
      type: "constant"
      value: 0.2
    }
  }
}
layer {
  name: "inception_3b/relu_pool_proj"
  type: "ReLU"
  bottom: "inception_3b/pool_proj"
  top: "inception_3b/pool_proj"
}
layer {
  name: "inception_3b/output"
  type: "Concat"
  bottom: "inception_3b/1x1"
  bottom: "inception_3b/3x3"
  bottom: "inception_3b/5x5"
  bottom: "inception_3b/pool_proj"
  top: "inception_3b/output"
}
layer {
  name: "pool3/3x3_s2"
  type: "Pooling"
  bottom: "inception_3b/output"
  top: "pool3/3x3_s2"
  pooling_param {
    pool: MAX
    kernel_size: 3
    stride: 2
  }
}
layer {
  name: "inception_4a/1x1"
  type: "Convolution"
  bottom: "pool3/3x3_s2"
  top: "inception_4a/1x1"
  param {
    lr_mult: 1
    decay_mult: 1
  }
  param {
    lr_mult: 2
    decay_mult: 0
  }
  convolution_param {
    num_output: 192
    kernel_size: 1
    weight_filler {
      type: "xavier"
      std: 0.03
    }
    bias_filler {
      type: "constant"
      value: 0.2
    }
  }
}
layer {
  name: "inception_4a/relu_1x1"
  type: "ReLU"
  bottom: "inception_4a/1x1"
  top: "inception_4a/1x1"
}
layer {
  name: "inception_4a/3x3_reduce"
  type: "Convolution"
  bottom: "pool3/3x3_s2"
  top: "inception_4a/3x3_reduce"
  param {
    lr_mult: 1
    decay_mult: 1
  }
  param {
    lr_mult: 2
    decay_mult: 0
  }
  convolution_param {
    num_output: 96
    kernel_size: 1
    weight_filler {
      type: "xavier"
      std: 0.09
    }
    bias_filler {
      type: "constant"
      value: 0.2
    }
  }
}
layer {
  name: "inception_4a/relu_3x3_reduce"
  type: "ReLU"
  bottom: "inception_4a/3x3_reduce"
  top: "inception_4a/3x3_reduce"
}
layer {
  name: "inception_4a/3x3"
  type: "Convolution"
  bottom: "inception_4a/3x3_reduce"
  top: "inception_4a/3x3"
  param {
    lr_mult: 1
    decay_mult: 1
  }
  param {
    lr_mult: 2
    decay_mult: 0
  }
  convolution_param {
    num_output: 208
    pad: 1
    kernel_size: 3
    weight_filler {
      type: "xavier"
      std: 0.03
    }
    bias_filler {
      type: "constant"
      value: 0.2
    }
  }
}
layer {
  name: "inception_4a/relu_3x3"
  type: "ReLU"
  bottom: "inception_4a/3x3"
  top: "inception_4a/3x3"
}
layer {
  name: "inception_4a/5x5_reduce"
  type: "Convolution"
  bottom: "pool3/3x3_s2"
  top: "inception_4a/5x5_reduce"
  param {
    lr_mult: 1
    decay_mult: 1
  }
  param {
    lr_mult: 2
    decay_mult: 0
  }
  convolution_param {
    num_output: 16
    kernel_size: 1
    weight_filler {
      type: "xavier"
      std: 0.2
    }
    bias_filler {
      type: "constant"
      value: 0.2
    }
  }
}
layer {
  name: "inception_4a/relu_5x5_reduce"
  type: "ReLU"
  bottom: "inception_4a/5x5_reduce"
  top: "inception_4a/5x5_reduce"
}
layer {
  name: "inception_4a/5x5"
  type: "Convolution"
  bottom: "inception_4a/5x5_reduce"
  top: "inception_4a/5x5"
  param {
    lr_mult: 1
    decay_mult: 1
  }
  param {
    lr_mult: 2
    decay_mult: 0
  }
  convolution_param {
    num_output: 48
    pad: 2
    kernel_size: 5
    weight_filler {
      type: "xavier"
      std: 0.03
    }
    bias_filler {
      type: "constant"
      value: 0.2
    }
  }
}
layer {
  name: "inception_4a/relu_5x5"
  type: "ReLU"
  bottom: "inception_4a/5x5"
  top: "inception_4a/5x5"
}
layer {
  name: "inception_4a/pool"
  type: "Pooling"
  bottom: "pool3/3x3_s2"
  top: "inception_4a/pool"
  pooling_param {
    pool: MAX
    kernel_size: 3
    stride: 1
    pad: 1
  }
}
layer {
  name: "inception_4a/pool_proj"
  type: "Convolution"
  bottom: "inception_4a/pool"
  top: "inception_4a/pool_proj"
  param {
    lr_mult: 1
    decay_mult: 1
  }
  param {
    lr_mult: 2
    decay_mult: 0
  }
  convolution_param {
    num_output: 64
    kernel_size: 1
    weight_filler {
      type: "xavier"
      std: 0.1
    }
    bias_filler {
      type: "constant"
      value: 0.2
    }
  }
}
layer {
  name: "inception_4a/relu_pool_proj"
  type: "ReLU"
  bottom: "inception_4a/pool_proj"
  top: "inception_4a/pool_proj"
}
layer {
  name: "inception_4a/output"
  type: "Concat"
  bottom: "inception_4a/1x1"
  bottom: "inception_4a/3x3"
  bottom: "inception_4a/5x5"
  bottom: "inception_4a/pool_proj"
  top: "inception_4a/output"
}
layer {
  name: "inception_4b/1x1"
  type: "Convolution"
  bottom: "inception_4a/output"
  top: "inception_4b/1x1"
  param {
    lr_mult: 1
    decay_mult: 1
  }
  param {
    lr_mult: 2
    decay_mult: 0
  }
  convolution_param {
    num_output: 160
    kernel_size: 1
    weight_filler {
      type: "xavier"
      std: 0.03
    }
    bias_filler {
      type: "constant"
      value: 0.2
    }
  }
}
layer {
  name: "inception_4b/relu_1x1"
  type: "ReLU"
  bottom: "inception_4b/1x1"
  top: "inception_4b/1x1"
}
layer {
  name: "inception_4b/3x3_reduce"
  type: "Convolution"
  bottom: "inception_4a/output"
  top: "inception_4b/3x3_reduce"
  param {
    lr_mult: 1
    decay_mult: 1
  }
  param {
    lr_mult: 2
    decay_mult: 0
  }
  convolution_param {
    num_output: 112
    kernel_size: 1
    weight_filler {
      type: "xavier"
      std: 0.09
    }
    bias_filler {
      type: "constant"
      value: 0.2
    }
  }
}
layer {
  name: "inception_4b/relu_3x3_reduce"
  type: "ReLU"
  bottom: "inception_4b/3x3_reduce"
  top: "inception_4b/3x3_reduce"
}
layer {
  name: "inception_4b/3x3"
  type: "Convolution"
  bottom: "inception_4b/3x3_reduce"
  top: "inception_4b/3x3"
  param {
    lr_mult: 1
    decay_mult: 1
  }
  param {
    lr_mult: 2
    decay_mult: 0
  }
  convolution_param {
    num_output: 224
    pad: 1
    kernel_size: 3
    weight_filler {
      type: "xavier"
      std: 0.03
    }
    bias_filler {
      type: "constant"
      value: 0.2
    }
  }
}
layer {
  name: "inception_4b/relu_3x3"
  type: "ReLU"
  bottom: "inception_4b/3x3"
  top: "inception_4b/3x3"
}
layer {
  name: "inception_4b/5x5_reduce"
  type: "Convolution"
  bottom: "inception_4a/output"
  top: "inception_4b/5x5_reduce"
  param {
    lr_mult: 1
    decay_mult: 1
  }
  param {
    lr_mult: 2
    decay_mult: 0
  }
  convolution_param {
    num_output: 24
    kernel_size: 1
    weight_filler {
      type: "xavier"
      std: 0.2
    }
    bias_filler {
      type: "constant"
      value: 0.2
    }
  }
}
layer {
  name: "inception_4b/relu_5x5_reduce"
  type: "ReLU"
  bottom: "inception_4b/5x5_reduce"
  top: "inception_4b/5x5_reduce"
}
layer {
  name: "inception_4b/5x5"
  type: "Convolution"
  bottom: "inception_4b/5x5_reduce"
  top: "inception_4b/5x5"
  param {
    lr_mult: 1
    decay_mult: 1
  }
  param {
    lr_mult: 2
    decay_mult: 0
  }
  convolution_param {
    num_output: 64
    pad: 2
    kernel_size: 5
    weight_filler {
      type: "xavier"
      std: 0.03
    }
    bias_filler {
      type: "constant"
      value: 0.2
    }
  }
}
layer {
  name: "inception_4b/relu_5x5"
  type: "ReLU"
  bottom: "inception_4b/5x5"
  top: "inception_4b/5x5"
}
layer {
  name: "inception_4b/pool"
  type: "Pooling"
  bottom: "inception_4a/output"
  top: "inception_4b/pool"
  pooling_param {
    pool: MAX
    kernel_size: 3
    stride: 1
    pad: 1
  }
}
layer {
  name: "inception_4b/pool_proj"
  type: "Convolution"
  bottom: "inception_4b/pool"
  top: "inception_4b/pool_proj"
  param {
    lr_mult: 1
    decay_mult: 1
  }
  param {
    lr_mult: 2
    decay_mult: 0
  }
  convolution_param {
    num_output: 64
    kernel_size: 1
    weight_filler {
      type: "xavier"
      std: 0.1
    }
    bias_filler {
      type: "constant"
      value: 0.2
    }
  }
}
layer {
  name: "inception_4b/relu_pool_proj"
  type: "ReLU"
  bottom: "inception_4b/pool_proj"
  top: "inception_4b/pool_proj"
}
layer {
  name: "inception_4b/output"
  type: "Concat"
  bottom: "inception_4b/1x1"
  bottom: "inception_4b/3x3"
  bottom: "inception_4b/5x5"
  bottom: "inception_4b/pool_proj"
  top: "inception_4b/output"
}
layer {
  name: "inception_4c/1x1"
  type: "Convolution"
  bottom: "inception_4b/output"
  top: "inception_4c/1x1"
  param {
    lr_mult: 1
    decay_mult: 1
  }
  param {
    lr_mult: 2
    decay_mult: 0
  }
  convolution_param {
    num_output: 128
    kernel_size: 1
    weight_filler {
      type: "xavier"
      std: 0.03
    }
    bias_filler {
      type: "constant"
      value: 0.2
    }
  }
}
layer {
  name: "inception_4c/relu_1x1"
  type: "ReLU"
  bottom: "inception_4c/1x1"
  top: "inception_4c/1x1"
}
layer {
  name: "inception_4c/3x3_reduce"
  type: "Convolution"
  bottom: "inception_4b/output"
  top: "inception_4c/3x3_reduce"
  param {
    lr_mult: 1
    decay_mult: 1
  }
  param {
    lr_mult: 2
    decay_mult: 0
  }
  convolution_param {
    num_output: 128
    kernel_size: 1
    weight_filler {
      type: "xavier"
      std: 0.09
    }
    bias_filler {
      type: "constant"
      value: 0.2
    }
  }
}
layer {
  name: "inception_4c/relu_3x3_reduce"
  type: "ReLU"
  bottom: "inception_4c/3x3_reduce"
  top: "inception_4c/3x3_reduce"
}
layer {
  name: "inception_4c/3x3"
  type: "Convolution"
  bottom: "inception_4c/3x3_reduce"
  top: "inception_4c/3x3"
  param {
    lr_mult: 1
    decay_mult: 1
  }
  param {
    lr_mult: 2
    decay_mult: 0
  }
  convolution_param {
    num_output: 256
    pad: 1
    kernel_size: 3
    weight_filler {
      type: "xavier"
      std: 0.03
    }
    bias_filler {
      type: "constant"
      value: 0.2
    }
  }
}
layer {
  name: "inception_4c/relu_3x3"
  type: "ReLU"
  bottom: "inception_4c/3x3"
  top: "inception_4c/3x3"
}
layer {
  name: "inception_4c/5x5_reduce"
  type: "Convolution"
  bottom: "inception_4b/output"
  top: "inception_4c/5x5_reduce"
  param {
    lr_mult: 1
    decay_mult: 1
  }
  param {
    lr_mult: 2
    decay_mult: 0
  }
  convolution_param {
    num_output: 24
    kernel_size: 1
    weight_filler {
      type: "xavier"
      std: 0.2
    }
    bias_filler {
      type: "constant"
      value: 0.2
    }
  }
}
layer {
  name: "inception_4c/relu_5x5_reduce"
  type: "ReLU"
  bottom: "inception_4c/5x5_reduce"
  top: "inception_4c/5x5_reduce"
}
layer {
  name: "inception_4c/5x5"
  type: "Convolution"
  bottom: "inception_4c/5x5_reduce"
  top: "inception_4c/5x5"
  param {
    lr_mult: 1
    decay_mult: 1
  }
  param {
    lr_mult: 2
    decay_mult: 0
  }
  convolution_param {
    num_output: 64
    pad: 2
    kernel_size: 5
    weight_filler {
      type: "xavier"
      std: 0.03
    }
    bias_filler {
      type: "constant"
      value: 0.2
    }
  }
}
layer {
  name: "inception_4c/relu_5x5"
  type: "ReLU"
  bottom: "inception_4c/5x5"
  top: "inception_4c/5x5"
}
layer {
  name: "inception_4c/pool"
  type: "Pooling"
  bottom: "inception_4b/output"
  top: "inception_4c/pool"
  pooling_param {
    pool: MAX
    kernel_size: 3
    stride: 1
    pad: 1
  }
}
layer {
  name: "inception_4c/pool_proj"
  type: "Convolution"
  bottom: "inception_4c/pool"
  top: "inception_4c/pool_proj"
  param {
    lr_mult: 1
    decay_mult: 1
  }
  param {
    lr_mult: 2
    decay_mult: 0
  }
  convolution_param {
    num_output: 64
    kernel_size: 1
    weight_filler {
      type: "xavier"
      std: 0.1
    }
    bias_filler {
      type: "constant"
      value: 0.2
    }
  }
}
layer {
  name: "inception_4c/relu_pool_proj"
  type: "ReLU"
  bottom: "inception_4c/pool_proj"
  top: "inception_4c/pool_proj"
}
layer {
  name: "inception_4c/output"
  type: "Concat"
  bottom: "inception_4c/1x1"
  bottom: "inception_4c/3x3"
  bottom: "inception_4c/5x5"
  bottom: "inception_4c/pool_proj"
  top: "inception_4c/output"
}
layer {
  name: "inception_4d/1x1"
  type: "Convolution"
  bottom: "inception_4c/output"
  top: "inception_4d/1x1"
  param {
    lr_mult: 1
    decay_mult: 1
  }
  param {
    lr_mult: 2
    decay_mult: 0
  }
  convolution_param {
    num_output: 112
    kernel_size: 1
    weight_filler {
      type: "xavier"
      std: 0.03
    }
    bias_filler {
      type: "constant"
      value: 0.2
    }
  }
}
layer {
  name: "inception_4d/relu_1x1"
  type: "ReLU"
  bottom: "inception_4d/1x1"
  top: "inception_4d/1x1"
}
layer {
  name: "inception_4d/3x3_reduce"
  type: "Convolution"
  bottom: "inception_4c/output"
  top: "inception_4d/3x3_reduce"
  param {
    lr_mult: 1
    decay_mult: 1
  }
  param {
    lr_mult: 2
    decay_mult: 0
  }
  convolution_param {
    num_output: 144
    kernel_size: 1
    weight_filler {
      type: "xavier"
      std: 0.09
    }
    bias_filler {
      type: "constant"
      value: 0.2
    }
  }
}
layer {
  name: "inception_4d/relu_3x3_reduce"
  type: "ReLU"
  bottom: "inception_4d/3x3_reduce"
  top: "inception_4d/3x3_reduce"
}
layer {
  name: "inception_4d/3x3"
  type: "Convolution"
  bottom: "inception_4d/3x3_reduce"
  top: "inception_4d/3x3"
  param {
    lr_mult: 1
    decay_mult: 1
  }
  param {
    lr_mult: 2
    decay_mult: 0
  }
  convolution_param {
    num_output: 288
    pad: 1
    kernel_size: 3
    weight_filler {
      type: "xavier"
      std: 0.03
    }
    bias_filler {
      type: "constant"
      value: 0.2
    }
  }
}
layer {
  name: "inception_4d/relu_3x3"
  type: "ReLU"
  bottom: "inception_4d/3x3"
  top: "inception_4d/3x3"
}
layer {
  name: "inception_4d/5x5_reduce"
  type: "Convolution"
  bottom: "inception_4c/output"
  top: "inception_4d/5x5_reduce"
  param {
    lr_mult: 1
    decay_mult: 1
  }
  param {
    lr_mult: 2
    decay_mult: 0
  }
  convolution_param {
    num_output: 32
    kernel_size: 1
    weight_filler {
      type: "xavier"
      std: 0.2
    }
    bias_filler {
      type: "constant"
      value: 0.2
    }
  }
}
layer {
  name: "inception_4d/relu_5x5_reduce"
  type: "ReLU"
  bottom: "inception_4d/5x5_reduce"
  top: "inception_4d/5x5_reduce"
}
layer {
  name: "inception_4d/5x5"
  type: "Convolution"
  bottom: "inception_4d/5x5_reduce"
  top: "inception_4d/5x5"
  param {
    lr_mult: 1
    decay_mult: 1
  }
  param {
    lr_mult: 2
    decay_mult: 0
  }
  convolution_param {
    num_output: 64
    pad: 2
    kernel_size: 5
    weight_filler {
      type: "xavier"
      std: 0.03
    }
    bias_filler {
      type: "constant"
      value: 0.2
    }
  }
}
layer {
  name: "inception_4d/relu_5x5"
  type: "ReLU"
  bottom: "inception_4d/5x5"
  top: "inception_4d/5x5"
}
layer {
  name: "inception_4d/pool"
  type: "Pooling"
  bottom: "inception_4c/output"
  top: "inception_4d/pool"
  pooling_param {
    pool: MAX
    kernel_size: 3
    stride: 1
    pad: 1
  }
}
layer {
  name: "inception_4d/pool_proj"
  type: "Convolution"
  bottom: "inception_4d/pool"
  top: "inception_4d/pool_proj"
  param {
    lr_mult: 1
    decay_mult: 1
  }
  param {
    lr_mult: 2
    decay_mult: 0
  }
  convolution_param {
    num_output: 64
    kernel_size: 1
    weight_filler {
      type: "xavier"
      std: 0.1
    }
    bias_filler {
      type: "constant"
      value: 0.2
    }
  }
}
layer {
  name: "inception_4d/relu_pool_proj"
  type: "ReLU"
  bottom: "inception_4d/pool_proj"
  top: "inception_4d/pool_proj"
}
layer {
  name: "inception_4d/output"
  type: "Concat"
  bottom: "inception_4d/1x1"
  bottom: "inception_4d/3x3"
  bottom: "inception_4d/5x5"
  bottom: "inception_4d/pool_proj"
  top: "inception_4d/output"
}
layer {
  name: "inception_4e/1x1"
  type: "Convolution"
  bottom: "inception_4d/output"
  top: "inception_4e/1x1"
  param {
    lr_mult: 1
    decay_mult: 1
  }
  param {
    lr_mult: 2
    decay_mult: 0
  }
  convolution_param {
    num_output: 256
    kernel_size: 1
    weight_filler {
      type: "xavier"
      std: 0.03
    }
    bias_filler {
      type: "constant"
      value: 0.2
    }
  }
}
layer {
  name: "inception_4e/relu_1x1"
  type: "ReLU"
  bottom: "inception_4e/1x1"
  top: "inception_4e/1x1"
}
layer {
  name: "inception_4e/3x3_reduce"
  type: "Convolution"
  bottom: "inception_4d/output"
  top: "inception_4e/3x3_reduce"
  param {
    lr_mult: 1
    decay_mult: 1
  }
  param {
    lr_mult: 2
    decay_mult: 0
  }
  convolution_param {
    num_output: 160
    kernel_size: 1
    weight_filler {
      type: "xavier"
      std: 0.09
    }
    bias_filler {
      type: "constant"
      value: 0.2
    }
  }
}
layer {
  name: "inception_4e/relu_3x3_reduce"
  type: "ReLU"
  bottom: "inception_4e/3x3_reduce"
  top: "inception_4e/3x3_reduce"
}
layer {
  name: "inception_4e/3x3"
  type: "Convolution"
  bottom: "inception_4e/3x3_reduce"
  top: "inception_4e/3x3"
  param {
    lr_mult: 1
    decay_mult: 1
  }
  param {
    lr_mult: 2
    decay_mult: 0
  }
  convolution_param {
    num_output: 320
    pad: 1
    kernel_size: 3
    weight_filler {
      type: "xavier"
      std: 0.03
    }
    bias_filler {
      type: "constant"
      value: 0.2
    }
  }
}
layer {
  name: "inception_4e/relu_3x3"
  type: "ReLU"
  bottom: "inception_4e/3x3"
  top: "inception_4e/3x3"
}
layer {
  name: "inception_4e/5x5_reduce"
  type: "Convolution"
  bottom: "inception_4d/output"
  top: "inception_4e/5x5_reduce"
  param {
    lr_mult: 1
    decay_mult: 1
  }
  param {
    lr_mult: 2
    decay_mult: 0
  }
  convolution_param {
    num_output: 32
    kernel_size: 1
    weight_filler {
      type: "xavier"
      std: 0.2
    }
    bias_filler {
      type: "constant"
      value: 0.2
    }
  }
}
layer {
  name: "inception_4e/relu_5x5_reduce"
  type: "ReLU"
  bottom: "inception_4e/5x5_reduce"
  top: "inception_4e/5x5_reduce"
}
layer {
  name: "inception_4e/5x5"
  type: "Convolution"
  bottom: "inception_4e/5x5_reduce"
  top: "inception_4e/5x5"
  param {
    lr_mult: 1
    decay_mult: 1
  }
  param {
    lr_mult: 2
    decay_mult: 0
  }
  convolution_param {
    num_output: 128
    pad: 2
    kernel_size: 5
    weight_filler {
      type: "xavier"
      std: 0.03
    }
    bias_filler {
      type: "constant"
      value: 0.2
    }
  }
}
layer {
  name: "inception_4e/relu_5x5"
  type: "ReLU"
  bottom: "inception_4e/5x5"
  top: "inception_4e/5x5"
}
layer {
  name: "inception_4e/pool"
  type: "Pooling"
  bottom: "inception_4d/output"
  top: "inception_4e/pool"
  pooling_param {
    pool: MAX
    kernel_size: 3
    stride: 1
    pad: 1
  }
}
layer {
  name: "inception_4e/pool_proj"
  type: "Convolution"
  bottom: "inception_4e/pool"
  top: "inception_4e/pool_proj"
  param {
    lr_mult: 1
    decay_mult: 1
  }
  param {
    lr_mult: 2
    decay_mult: 0
  }
  convolution_param {
    num_output: 128
    kernel_size: 1
    weight_filler {
      type: "xavier"
      std: 0.1
    }
    bias_filler {
      type: "constant"
      value: 0.2
    }
  }
}
layer {
  name: "inception_4e/relu_pool_proj"
  type: "ReLU"
  bottom: "inception_4e/pool_proj"
  top: "inception_4e/pool_proj"
}
layer {
  name: "inception_4e/output"
  type: "Concat"
  bottom: "inception_4e/1x1"
  bottom: "inception_4e/3x3"
  bottom: "inception_4e/5x5"
  bottom: "inception_4e/pool_proj"
  top: "inception_4e/output"
}
layer {
  name: "pool4/3x3_s2"
  type: "Pooling"
  bottom: "inception_4e/output"
  top: "pool4/3x3_s2"
  pooling_param {
    pool: MAX
    kernel_size: 3
    stride: 2
  }
}
layer {
  name: "inception_5a/1x1"
  type: "Convolution"
  bottom: "pool4/3x3_s2"
  top: "inception_5a/1x1"
  param {
    lr_mult: 1
    decay_mult: 1
  }
  param {
    lr_mult: 2
    decay_mult: 0
  }
  convolution_param {
    num_output: 256
    kernel_size: 1
    weight_filler {
      type: "xavier"
      std: 0.03
    }
    bias_filler {
      type: "constant"
      value: 0.2
    }
  }
}
layer {
  name: "inception_5a/relu_1x1"
  type: "ReLU"
  bottom: "inception_5a/1x1"
  top: "inception_5a/1x1"
}
layer {
  name: "inception_5a/3x3_reduce"
  type: "Convolution"
  bottom: "pool4/3x3_s2"
  top: "inception_5a/3x3_reduce"
  param {
    lr_mult: 1
    decay_mult: 1
  }
  param {
    lr_mult: 2
    decay_mult: 0
  }
  convolution_param {
    num_output: 160
    kernel_size: 1
    weight_filler {
      type: "xavier"
      std: 0.09
    }
    bias_filler {
      type: "constant"
      value: 0.2
    }
  }
}
layer {
  name: "inception_5a/relu_3x3_reduce"
  type: "ReLU"
  bottom: "inception_5a/3x3_reduce"
  top: "inception_5a/3x3_reduce"
}
layer {
  name: "inception_5a/3x3"
  type: "Convolution"
  bottom: "inception_5a/3x3_reduce"
  top: "inception_5a/3x3"
  param {
    lr_mult: 1
    decay_mult: 1
  }
  param {
    lr_mult: 2
    decay_mult: 0
  }
  convolution_param {
    num_output: 320
    pad: 1
    kernel_size: 3
    weight_filler {
      type: "xavier"
      std: 0.03
    }
    bias_filler {
      type: "constant"
      value: 0.2
    }
  }
}
layer {
  name: "inception_5a/relu_3x3"
  type: "ReLU"
  bottom: "inception_5a/3x3"
  top: "inception_5a/3x3"
}
layer {
  name: "inception_5a/5x5_reduce"
  type: "Convolution"
  bottom: "pool4/3x3_s2"
  top: "inception_5a/5x5_reduce"
  param {
    lr_mult: 1
    decay_mult: 1
  }
  param {
    lr_mult: 2
    decay_mult: 0
  }
  convolution_param {
    num_output: 32
    kernel_size: 1
    weight_filler {
      type: "xavier"
      std: 0.2
    }
    bias_filler {
      type: "constant"
      value: 0.2
    }
I0714 22:06:00.609670 21619 layer_factory.hpp:77] Creating layer data
I0714 22:06:00.609690 21619 net.cpp:91] Creating Layer data
I0714 22:06:00.609699 21619 net.cpp:399] data -> data
I0714 22:06:01.677304 21615 net.cpp:141] Setting up data
I0714 22:06:01.677409 21615 net.cpp:148] Top shape: 10 3 224 224 (1505280)
I0714 22:06:01.677417 21615 net.cpp:156] Memory required for data: 6021120
I0714 22:06:01.677439 21615 layer_factory.hpp:77] Creating layer conv1/7x7_s2
I0714 22:06:01.677482 21615 net.cpp:91] Creating Layer conv1/7x7_s2
I0714 22:06:01.677492 21615 net.cpp:425] conv1/7x7_s2 <- data
I0714 22:06:01.677507 21615 net.cpp:399] conv1/7x7_s2 -> conv1/7x7_s2
I0714 22:06:01.681612 21619 net.cpp:141] Setting up data
I0714 22:06:01.681674 21619 net.cpp:148] Top shape: 10 3 224 224 (1505280)
I0714 22:06:01.681681 21619 net.cpp:156] Memory required for data: 6021120
I0714 22:06:01.681692 21619 layer_factory.hpp:77] Creating layer conv1/7x7_s2
I0714 22:06:01.681725 21619 net.cpp:91] Creating Layer conv1/7x7_s2
I0714 22:06:01.681730 21619 net.cpp:425] conv1/7x7_s2 <- data
I0714 22:06:01.681742 21619 net.cpp:399] conv1/7x7_s2 -> conv1/7x7_s2
I0714 22:06:02.129479 21619 net.cpp:141] Setting up conv1/7x7_s2
I0714 22:06:02.129540 21619 net.cpp:148] Top shape: 10 64 112 112 (8028160)
I0714 22:06:02.129550 21619 net.cpp:156] Memory required for data: 38133760
I0714 22:06:02.129585 21619 layer_factory.hpp:77] Creating layer conv1/relu_7x7
I0714 22:06:02.129607 21619 net.cpp:91] Creating Layer conv1/relu_7x7
I0714 22:06:02.129616 21619 net.cpp:425] conv1/relu_7x7 <- conv1/7x7_s2
I0714 22:06:02.129626 21619 net.cpp:386] conv1/relu_7x7 -> conv1/7x7_s2 (in-place)
I0714 22:06:02.131042 21619 net.cpp:141] Setting up conv1/relu_7x7
I0714 22:06:02.131060 21619 net.cpp:148] Top shape: 10 64 112 112 (8028160)
I0714 22:06:02.131065 21619 net.cpp:156] Memory required for data: 70246400
I0714 22:06:02.131072 21619 layer_factory.hpp:77] Creating layer pool1/3x3_s2
I0714 22:06:02.131086 21619 net.cpp:91] Creating Layer pool1/3x3_s2
I0714 22:06:02.131093 21619 net.cpp:425] pool1/3x3_s2 <- conv1/7x7_s2
I0714 22:06:02.131101 21619 net.cpp:399] pool1/3x3_s2 -> pool1/3x3_s2
I0714 22:06:02.131106 21615 net.cpp:141] Setting up conv1/7x7_s2
I0714 22:06:02.131148 21615 net.cpp:148] Top shape: 10 64 112 112 (8028160)
I0714 22:06:02.131155 21615 net.cpp:156] Memory required for data: 38133760
I0714 22:06:02.131177 21615 layer_factory.hpp:77] Creating layer conv1/relu_7x7
I0714 22:06:02.131196 21615 net.cpp:91] Creating Layer conv1/relu_7x7
I0714 22:06:02.131203 21615 net.cpp:425] conv1/relu_7x7 <- conv1/7x7_s2
I0714 22:06:02.131212 21615 net.cpp:386] conv1/relu_7x7 -> conv1/7x7_s2 (in-place)
I0714 22:06:02.131952 21619 net.cpp:141] Setting up pool1/3x3_s2
I0714 22:06:02.131966 21619 net.cpp:148] Top shape: 10 64 56 56 (2007040)
I0714 22:06:02.131971 21619 net.cpp:156] Memory required for data: 78274560
I0714 22:06:02.131978 21619 layer_factory.hpp:77] Creating layer pool1/norm1
I0714 22:06:02.132002 21619 net.cpp:91] Creating Layer pool1/norm1
I0714 22:06:02.132009 21619 net.cpp:425] pool1/norm1 <- pool1/3x3_s2
I0714 22:06:02.132016 21619 net.cpp:399] pool1/norm1 -> pool1/norm1
I0714 22:06:02.132050 21615 net.cpp:141] Setting up conv1/relu_7x7
I0714 22:06:02.132066 21615 net.cpp:148] Top shape: 10 64 112 112 (8028160)
I0714 22:06:02.132071 21615 net.cpp:156] Memory required for data: 70246400
I0714 22:06:02.132076 21615 layer_factory.hpp:77] Creating layer pool1/3x3_s2
I0714 22:06:02.132088 21615 net.cpp:91] Creating Layer pool1/3x3_s2
I0714 22:06:02.132093 21615 net.cpp:425] pool1/3x3_s2 <- conv1/7x7_s2
I0714 22:06:02.132105 21615 net.cpp:399] pool1/3x3_s2 -> pool1/3x3_s2
I0714 22:06:02.132864 21615 net.cpp:141] Setting up pool1/3x3_s2
I0714 22:06:02.132882 21615 net.cpp:148] Top shape: 10 64 56 56 (2007040)
I0714 22:06:02.132887 21615 net.cpp:156] Memory required for data: 78274560
I0714 22:06:02.132892 21615 layer_factory.hpp:77] Creating layer pool1/norm1
I0714 22:06:02.132906 21615 net.cpp:91] Creating Layer pool1/norm1
I0714 22:06:02.132911 21615 net.cpp:425] pool1/norm1 <- pool1/3x3_s2
I0714 22:06:02.132926 21615 net.cpp:399] pool1/norm1 -> pool1/norm1
I0714 22:06:02.133785 21619 net.cpp:141] Setting up pool1/norm1
I0714 22:06:02.133805 21619 net.cpp:148] Top shape: 10 64 56 56 (2007040)
I0714 22:06:02.133810 21619 net.cpp:156] Memory required for data: 86302720
I0714 22:06:02.133816 21619 layer_factory.hpp:77] Creating layer conv2/3x3_reduce
I0714 22:06:02.133844 21619 net.cpp:91] Creating Layer conv2/3x3_reduce
I0714 22:06:02.133851 21619 net.cpp:425] conv2/3x3_reduce <- pool1/norm1
I0714 22:06:02.133860 21619 net.cpp:399] conv2/3x3_reduce -> conv2/3x3_reduce
I0714 22:06:02.133975 21615 net.cpp:141] Setting up pool1/norm1
I0714 22:06:02.133991 21615 net.cpp:148] Top shape: 10 64 56 56 (2007040)
I0714 22:06:02.133999 21615 net.cpp:156] Memory required for data: 86302720
I0714 22:06:02.134006 21615 layer_factory.hpp:77] Creating layer conv2/3x3_reduce
I0714 22:06:02.134027 21615 net.cpp:91] Creating Layer conv2/3x3_reduce
I0714 22:06:02.134032 21615 net.cpp:425] conv2/3x3_reduce <- pool1/norm1
I0714 22:06:02.134045 21615 net.cpp:399] conv2/3x3_reduce -> conv2/3x3_reduce
I0714 22:06:02.141171 21619 net.cpp:141] Setting up conv2/3x3_reduce
I0714 22:06:02.141193 21619 net.cpp:148] Top shape: 10 64 56 56 (2007040)
I0714 22:06:02.141199 21619 net.cpp:156] Memory required for data: 94330880
I0714 22:06:02.141213 21619 layer_factory.hpp:77] Creating layer conv2/relu_3x3_reduce
I0714 22:06:02.141223 21619 net.cpp:91] Creating Layer conv2/relu_3x3_reduce
I0714 22:06:02.141228 21619 net.cpp:425] conv2/relu_3x3_reduce <- conv2/3x3_reduce
I0714 22:06:02.141240 21619 net.cpp:386] conv2/relu_3x3_reduce -> conv2/3x3_reduce (in-place)
I0714 22:06:02.142267 21619 net.cpp:141] Setting up conv2/relu_3x3_reduce
I0714 22:06:02.142284 21619 net.cpp:148] Top shape: 10 64 56 56 (2007040)
I0714 22:06:02.142290 21619 net.cpp:156] Memory required for data: 102359040
I0714 22:06:02.142295 21619 layer_factory.hpp:77] Creating layer conv2/3x3
I0714 22:06:02.142293 21615 net.cpp:141] Setting up conv2/3x3_reduce
I0714 22:06:02.142319 21615 net.cpp:148] Top shape: 10 64 56 56 (2007040)
I0714 22:06:02.142325 21619 net.cpp:91] Creating Layer conv2/3x3
I0714 22:06:02.142328 21615 net.cpp:156] Memory required for data: 94330880
I0714 22:06:02.142338 21619 net.cpp:425] conv2/3x3 <- conv2/3x3_reduce
I0714 22:06:02.142354 21615 layer_factory.hpp:77] Creating layer conv2/relu_3x3_reduce
I0714 22:06:02.142359 21619 net.cpp:399] conv2/3x3 -> conv2/3x3
I0714 22:06:02.142366 21615 net.cpp:91] Creating Layer conv2/relu_3x3_reduce
I0714 22:06:02.142372 21615 net.cpp:425] conv2/relu_3x3_reduce <- conv2/3x3_reduce
I0714 22:06:02.142379 21615 net.cpp:386] conv2/relu_3x3_reduce -> conv2/3x3_reduce (in-place)
I0714 22:06:02.143393 21615 net.cpp:141] Setting up conv2/relu_3x3_reduce
I0714 22:06:02.143414 21615 net.cpp:148] Top shape: 10 64 56 56 (2007040)
I0714 22:06:02.143419 21615 net.cpp:156] Memory required for data: 102359040
I0714 22:06:02.143425 21615 layer_factory.hpp:77] Creating layer conv2/3x3
I0714 22:06:02.143445 21615 net.cpp:91] Creating Layer conv2/3x3
I0714 22:06:02.143451 21615 net.cpp:425] conv2/3x3 <- conv2/3x3_reduce
I0714 22:06:02.143463 21615 net.cpp:399] conv2/3x3 -> conv2/3x3
I0714 22:06:02.152029 21619 net.cpp:141] Setting up conv2/3x3
I0714 22:06:02.152051 21619 net.cpp:148] Top shape: 10 192 56 56 (6021120)
I0714 22:06:02.152058 21619 net.cpp:156] Memory required for data: 126443520
I0714 22:06:02.152071 21619 layer_factory.hpp:77] Creating layer conv2/relu_3x3
I0714 22:06:02.152087 21619 net.cpp:91] Creating Layer conv2/relu_3x3
I0714 22:06:02.152093 21619 net.cpp:425] conv2/relu_3x3 <- conv2/3x3
I0714 22:06:02.152104 21619 net.cpp:386] conv2/relu_3x3 -> conv2/3x3 (in-place)
I0714 22:06:02.152514 21619 net.cpp:141] Setting up conv2/relu_3x3
I0714 22:06:02.152529 21619 net.cpp:148] Top shape: 10 192 56 56 (6021120)
I0714 22:06:02.152534 21619 net.cpp:156] Memory required for data: 150528000
I0714 22:06:02.152539 21619 layer_factory.hpp:77] Creating layer conv2/norm2
I0714 22:06:02.152554 21619 net.cpp:91] Creating Layer conv2/norm2
I0714 22:06:02.152559 21619 net.cpp:425] conv2/norm2 <- conv2/3x3
I0714 22:06:02.152567 21619 net.cpp:399] conv2/norm2 -> conv2/norm2
I0714 22:06:02.153190 21615 net.cpp:141] Setting up conv2/3x3
I0714 22:06:02.153213 21615 net.cpp:148] Top shape: 10 192 56 56 (6021120)
I0714 22:06:02.153218 21615 net.cpp:156] Memory required for data: 126443520
I0714 22:06:02.153233 21615 layer_factory.hpp:77] Creating layer conv2/relu_3x3
I0714 22:06:02.153249 21615 net.cpp:91] Creating Layer conv2/relu_3x3
I0714 22:06:02.153254 21615 net.cpp:425] conv2/relu_3x3 <- conv2/3x3
I0714 22:06:02.153262 21615 net.cpp:386] conv2/relu_3x3 -> conv2/3x3 (in-place)
I0714 22:06:02.153539 21615 net.cpp:141] Setting up conv2/relu_3x3
I0714 22:06:02.153553 21615 net.cpp:148] Top shape: 10 192 56 56 (6021120)
I0714 22:06:02.153558 21615 net.cpp:156] Memory required for data: 150528000
I0714 22:06:02.153563 21615 layer_factory.hpp:77] Creating layer conv2/norm2
I0714 22:06:02.153576 21615 net.cpp:91] Creating Layer conv2/norm2
I0714 22:06:02.153583 21615 net.cpp:425] conv2/norm2 <- conv2/3x3
I0714 22:06:02.153590 21615 net.cpp:399] conv2/norm2 -> conv2/norm2
I0714 22:06:02.154520 21619 net.cpp:141] Setting up conv2/norm2
I0714 22:06:02.154539 21619 net.cpp:148] Top shape: 10 192 56 56 (6021120)
I0714 22:06:02.154544 21619 net.cpp:156] Memory required for data: 174612480
I0714 22:06:02.154551 21619 layer_factory.hpp:77] Creating layer pool2/3x3_s2
I0714 22:06:02.154561 21619 net.cpp:91] Creating Layer pool2/3x3_s2
I0714 22:06:02.154567 21619 net.cpp:425] pool2/3x3_s2 <- conv2/norm2
I0714 22:06:02.154578 21619 net.cpp:399] pool2/3x3_s2 -> pool2/3x3_s2
I0714 22:06:02.154829 21619 net.cpp:141] Setting up pool2/3x3_s2
I0714 22:06:02.154842 21619 net.cpp:148] Top shape: 10 192 28 28 (1505280)
I0714 22:06:02.154847 21619 net.cpp:156] Memory required for data: 180633600
I0714 22:06:02.154852 21619 layer_factory.hpp:77] Creating layer pool2/3x3_s2_pool2/3x3_s2_0_split
I0714 22:06:02.154855 21615 net.cpp:141] Setting up conv2/norm2
I0714 22:06:02.154863 21619 net.cpp:91] Creating Layer pool2/3x3_s2_pool2/3x3_s2_0_split
I0714 22:06:02.154870 21619 net.cpp:425] pool2/3x3_s2_pool2/3x3_s2_0_split <- pool2/3x3_s2
I0714 22:06:02.154871 21615 net.cpp:148] Top shape: 10 192 56 56 (6021120)
I0714 22:06:02.154877 21615 net.cpp:156] Memory required for data: 174612480
I0714 22:06:02.154881 21619 net.cpp:399] pool2/3x3_s2_pool2/3x3_s2_0_split -> pool2/3x3_s2_pool2/3x3_s2_0_split_0
I0714 22:06:02.154883 21615 layer_factory.hpp:77] Creating layer pool2/3x3_s2
I0714 22:06:02.154898 21619 net.cpp:399] pool2/3x3_s2_pool2/3x3_s2_0_split -> pool2/3x3_s2_pool2/3x3_s2_0_split_1
I0714 22:06:02.154904 21615 net.cpp:91] Creating Layer pool2/3x3_s2
I0714 22:06:02.154908 21619 net.cpp:399] pool2/3x3_s2_pool2/3x3_s2_0_split -> pool2/3x3_s2_pool2/3x3_s2_0_split_2
I0714 22:06:02.154911 21615 net.cpp:425] pool2/3x3_s2 <- conv2/norm2
I0714 22:06:02.154918 21619 net.cpp:399] pool2/3x3_s2_pool2/3x3_s2_0_split -> pool2/3x3_s2_pool2/3x3_s2_0_split_3
I0714 22:06:02.154920 21615 net.cpp:399] pool2/3x3_s2 -> pool2/3x3_s2
I0714 22:06:02.155203 21615 net.cpp:141] Setting up pool2/3x3_s2
I0714 22:06:02.155217 21615 net.cpp:148] Top shape: 10 192 28 28 (1505280)
I0714 22:06:02.155222 21615 net.cpp:156] Memory required for data: 180633600
I0714 22:06:02.155228 21615 layer_factory.hpp:77] Creating layer pool2/3x3_s2_pool2/3x3_s2_0_split
I0714 22:06:02.155238 21615 net.cpp:91] Creating Layer pool2/3x3_s2_pool2/3x3_s2_0_split
I0714 22:06:02.155243 21615 net.cpp:425] pool2/3x3_s2_pool2/3x3_s2_0_split <- pool2/3x3_s2
I0714 22:06:02.155251 21615 net.cpp:399] pool2/3x3_s2_pool2/3x3_s2_0_split -> pool2/3x3_s2_pool2/3x3_s2_0_split_0
I0714 22:06:02.155263 21619 net.cpp:141] Setting up pool2/3x3_s2_pool2/3x3_s2_0_split
I0714 22:06:02.155269 21615 net.cpp:399] pool2/3x3_s2_pool2/3x3_s2_0_split -> pool2/3x3_s2_pool2/3x3_s2_0_split_1
I0714 22:06:02.155277 21619 net.cpp:148] Top shape: 10 192 28 28 (1505280)
I0714 22:06:02.155280 21615 net.cpp:399] pool2/3x3_s2_pool2/3x3_s2_0_split -> pool2/3x3_s2_pool2/3x3_s2_0_split_2
I0714 22:06:02.155285 21619 net.cpp:148] Top shape: 10 192 28 28 (1505280)
I0714 22:06:02.155292 21615 net.cpp:399] pool2/3x3_s2_pool2/3x3_s2_0_split -> pool2/3x3_s2_pool2/3x3_s2_0_split_3
I0714 22:06:02.155292 21619 net.cpp:148] Top shape: 10 192 28 28 (1505280)
I0714 22:06:02.155308 21619 net.cpp:148] Top shape: 10 192 28 28 (1505280)
I0714 22:06:02.155313 21619 net.cpp:156] Memory required for data: 204718080
I0714 22:06:02.155318 21619 layer_factory.hpp:77] Creating layer inception_3a/1x1
I0714 22:06:02.155336 21619 net.cpp:91] Creating Layer inception_3a/1x1
I0714 22:06:02.155341 21619 net.cpp:425] inception_3a/1x1 <- pool2/3x3_s2_pool2/3x3_s2_0_split_0
I0714 22:06:02.155375 21619 net.cpp:399] inception_3a/1x1 -> inception_3a/1x1
I0714 22:06:02.155593 21615 net.cpp:141] Setting up pool2/3x3_s2_pool2/3x3_s2_0_split
I0714 22:06:02.155607 21615 net.cpp:148] Top shape: 10 192 28 28 (1505280)
I0714 22:06:02.155613 21615 net.cpp:148] Top shape: 10 192 28 28 (1505280)
I0714 22:06:02.155619 21615 net.cpp:148] Top shape: 10 192 28 28 (1505280)
I0714 22:06:02.155624 21615 net.cpp:148] Top shape: 10 192 28 28 (1505280)
I0714 22:06:02.155628 21615 net.cpp:156] Memory required for data: 204718080
I0714 22:06:02.155634 21615 layer_factory.hpp:77] Creating layer inception_3a/1x1
I0714 22:06:02.155652 21615 net.cpp:91] Creating Layer inception_3a/1x1
I0714 22:06:02.155658 21615 net.cpp:425] inception_3a/1x1 <- pool2/3x3_s2_pool2/3x3_s2_0_split_0
I0714 22:06:02.155673 21615 net.cpp:399] inception_3a/1x1 -> inception_3a/1x1
I0714 22:06:02.162142 21619 net.cpp:141] Setting up inception_3a/1x1
I0714 22:06:02.162173 21619 net.cpp:148] Top shape: 10 64 28 28 (501760)
I0714 22:06:02.162179 21619 net.cpp:156] Memory required for data: 206725120
I0714 22:06:02.162192 21619 layer_factory.hpp:77] Creating layer inception_3a/relu_1x1
I0714 22:06:02.162204 21619 net.cpp:91] Creating Layer inception_3a/relu_1x1
I0714 22:06:02.162209 21619 net.cpp:425] inception_3a/relu_1x1 <- inception_3a/1x1
I0714 22:06:02.162222 21619 net.cpp:386] inception_3a/relu_1x1 -> inception_3a/1x1 (in-place)
I0714 22:06:02.162706 21619 net.cpp:141] Setting up inception_3a/relu_1x1
I0714 22:06:02.162724 21619 net.cpp:148] Top shape: 10 64 28 28 (501760)
I0714 22:06:02.162729 21619 net.cpp:156] Memory required for data: 208732160
I0714 22:06:02.162734 21619 layer_factory.hpp:77] Creating layer inception_3a/3x3_reduce
I0714 22:06:02.162756 21619 net.cpp:91] Creating Layer inception_3a/3x3_reduce
I0714 22:06:02.162763 21619 net.cpp:425] inception_3a/3x3_reduce <- pool2/3x3_s2_pool2/3x3_s2_0_split_1
I0714 22:06:02.162773 21619 net.cpp:399] inception_3a/3x3_reduce -> inception_3a/3x3_reduce
I0714 22:06:02.164710 21615 net.cpp:141] Setting up inception_3a/1x1
I0714 22:06:02.164733 21615 net.cpp:148] Top shape: 10 64 28 28 (501760)
I0714 22:06:02.164739 21615 net.cpp:156] Memory required for data: 206725120
I0714 22:06:02.164752 21615 layer_factory.hpp:77] Creating layer inception_3a/relu_1x1
I0714 22:06:02.164767 21615 net.cpp:91] Creating Layer inception_3a/relu_1x1
I0714 22:06:02.164774 21615 net.cpp:425] inception_3a/relu_1x1 <- inception_3a/1x1
I0714 22:06:02.164783 21615 net.cpp:386] inception_3a/relu_1x1 -> inception_3a/1x1 (in-place)
I0714 22:06:02.165663 21615 net.cpp:141] Setting up inception_3a/relu_1x1
I0714 22:06:02.165679 21615 net.cpp:148] Top shape: 10 64 28 28 (501760)
I0714 22:06:02.165684 21615 net.cpp:156] Memory required for data: 208732160
I0714 22:06:02.165690 21615 layer_factory.hpp:77] Creating layer inception_3a/3x3_reduce
I0714 22:06:02.165709 21615 net.cpp:91] Creating Layer inception_3a/3x3_reduce
I0714 22:06:02.165715 21615 net.cpp:425] inception_3a/3x3_reduce <- pool2/3x3_s2_pool2/3x3_s2_0_split_1
I0714 22:06:02.165729 21615 net.cpp:399] inception_3a/3x3_reduce -> inception_3a/3x3_reduce
I0714 22:06:02.171893 21619 net.cpp:141] Setting up inception_3a/3x3_reduce
I0714 22:06:02.171916 21619 net.cpp:148] Top shape: 10 96 28 28 (752640)
I0714 22:06:02.171922 21619 net.cpp:156] Memory required for data: 211742720
I0714 22:06:02.171938 21619 layer_factory.hpp:77] Creating layer inception_3a/relu_3x3_reduce
I0714 22:06:02.171953 21619 net.cpp:91] Creating Layer inception_3a/relu_3x3_reduce
I0714 22:06:02.171960 21619 net.cpp:425] inception_3a/relu_3x3_reduce <- inception_3a/3x3_reduce
I0714 22:06:02.171968 21619 net.cpp:386] inception_3a/relu_3x3_reduce -> inception_3a/3x3_reduce (in-place)
I0714 22:06:02.172255 21619 net.cpp:141] Setting up inception_3a/relu_3x3_reduce
I0714 22:06:02.172266 21619 net.cpp:148] Top shape: 10 96 28 28 (752640)
I0714 22:06:02.172272 21619 net.cpp:156] Memory required for data: 214753280
I0714 22:06:02.172277 21619 layer_factory.hpp:77] Creating layer inception_3a/3x3
I0714 22:06:02.172302 21619 net.cpp:91] Creating Layer inception_3a/3x3
I0714 22:06:02.172307 21619 net.cpp:425] inception_3a/3x3 <- inception_3a/3x3_reduce
I0714 22:06:02.172319 21619 net.cpp:399] inception_3a/3x3 -> inception_3a/3x3
I0714 22:06:02.173387 21615 net.cpp:141] Setting up inception_3a/3x3_reduce
I0714 22:06:02.173408 21615 net.cpp:148] Top shape: 10 96 28 28 (752640)
I0714 22:06:02.173414 21615 net.cpp:156] Memory required for data: 211742720
I0714 22:06:02.173429 21615 layer_factory.hpp:77] Creating layer inception_3a/relu_3x3_reduce
I0714 22:06:02.173440 21615 net.cpp:91] Creating Layer inception_3a/relu_3x3_reduce
I0714 22:06:02.173446 21615 net.cpp:425] inception_3a/relu_3x3_reduce <- inception_3a/3x3_reduce
I0714 22:06:02.173458 21615 net.cpp:386] inception_3a/relu_3x3_reduce -> inception_3a/3x3_reduce (in-place)
I0714 22:06:02.173725 21615 net.cpp:141] Setting up inception_3a/relu_3x3_reduce
I0714 22:06:02.173740 21615 net.cpp:148] Top shape: 10 96 28 28 (752640)
I0714 22:06:02.173745 21615 net.cpp:156] Memory required for data: 214753280
I0714 22:06:02.173750 21615 layer_factory.hpp:77] Creating layer inception_3a/3x3
I0714 22:06:02.173771 21615 net.cpp:91] Creating Layer inception_3a/3x3
I0714 22:06:02.173777 21615 net.cpp:425] inception_3a/3x3 <- inception_3a/3x3_reduce
I0714 22:06:02.173790 21615 net.cpp:399] inception_3a/3x3 -> inception_3a/3x3
I0714 22:06:02.177327 21619 net.cpp:141] Setting up inception_3a/3x3
I0714 22:06:02.177347 21619 net.cpp:148] Top shape: 10 128 28 28 (1003520)
I0714 22:06:02.177353 21619 net.cpp:156] Memory required for data: 218767360
I0714 22:06:02.177363 21619 layer_factory.hpp:77] Creating layer inception_3a/relu_3x3
I0714 22:06:02.177374 21619 net.cpp:91] Creating Layer inception_3a/relu_3x3
I0714 22:06:02.177381 21619 net.cpp:425] inception_3a/relu_3x3 <- inception_3a/3x3
I0714 22:06:02.177388 21619 net.cpp:386] inception_3a/relu_3x3 -> inception_3a/3x3 (in-place)
I0714 22:06:02.178385 21619 net.cpp:141] Setting up inception_3a/relu_3x3
I0714 22:06:02.178401 21619 net.cpp:148] Top shape: 10 128 28 28 (1003520)
I0714 22:06:02.178407 21619 net.cpp:156] Memory required for data: 222781440
I0714 22:06:02.178412 21619 layer_factory.hpp:77] Creating layer inception_3a/5x5_reduce
I0714 22:06:02.178431 21619 net.cpp:91] Creating Layer inception_3a/5x5_reduce
I0714 22:06:02.178438 21619 net.cpp:425] inception_3a/5x5_reduce <- pool2/3x3_s2_pool2/3x3_s2_0_split_2
I0714 22:06:02.178442 21615 net.cpp:141] Setting up inception_3a/3x3
I0714 22:06:02.178452 21619 net.cpp:399] inception_3a/5x5_reduce -> inception_3a/5x5_reduce
I0714 22:06:02.178459 21615 net.cpp:148] Top shape: 10 128 28 28 (1003520)
I0714 22:06:02.178465 21615 net.cpp:156] Memory required for data: 218767360
I0714 22:06:02.178475 21615 layer_factory.hpp:77] Creating layer inception_3a/relu_3x3
I0714 22:06:02.178488 21615 net.cpp:91] Creating Layer inception_3a/relu_3x3
I0714 22:06:02.178494 21615 net.cpp:425] inception_3a/relu_3x3 <- inception_3a/3x3
I0714 22:06:02.178503 21615 net.cpp:386] inception_3a/relu_3x3 -> inception_3a/3x3 (in-place)
I0714 22:06:02.179527 21615 net.cpp:141] Setting up inception_3a/relu_3x3
I0714 22:06:02.179548 21615 net.cpp:148] Top shape: 10 128 28 28 (1003520)
I0714 22:06:02.179553 21615 net.cpp:156] Memory required for data: 222781440
I0714 22:06:02.179558 21615 layer_factory.hpp:77] Creating layer inception_3a/5x5_reduce
I0714 22:06:02.179576 21615 net.cpp:91] Creating Layer inception_3a/5x5_reduce
I0714 22:06:02.179584 21615 net.cpp:425] inception_3a/5x5_reduce <- pool2/3x3_s2_pool2/3x3_s2_0_split_2
I0714 22:06:02.179594 21615 net.cpp:399] inception_3a/5x5_reduce -> inception_3a/5x5_reduce
I0714 22:06:02.183212 21619 net.cpp:141] Setting up inception_3a/5x5_reduce
I0714 22:06:02.183233 21619 net.cpp:148] Top shape: 10 16 28 28 (125440)
I0714 22:06:02.183238 21619 net.cpp:156] Memory required for data: 223283200
I0714 22:06:02.183248 21619 layer_factory.hpp:77] Creating layer inception_3a/relu_5x5_reduce
I0714 22:06:02.183259 21619 net.cpp:91] Creating Layer inception_3a/relu_5x5_reduce
I0714 22:06:02.183265 21619 net.cpp:425] inception_3a/relu_5x5_reduce <- inception_3a/5x5_reduce
I0714 22:06:02.183274 21619 net.cpp:386] inception_3a/relu_5x5_reduce -> inception_3a/5x5_reduce (in-place)
I0714 22:06:02.183573 21619 net.cpp:141] Setting up inception_3a/relu_5x5_reduce
I0714 22:06:02.183588 21619 net.cpp:148] Top shape: 10 16 28 28 (125440)
I0714 22:06:02.183594 21619 net.cpp:156] Memory required for data: 223784960
I0714 22:06:02.183599 21619 layer_factory.hpp:77] Creating layer inception_3a/5x5
I0714 22:06:02.183619 21619 net.cpp:91] Creating Layer inception_3a/5x5
I0714 22:06:02.183624 21619 net.cpp:425] inception_3a/5x5 <- inception_3a/5x5_reduce
I0714 22:06:02.183634 21619 net.cpp:399] inception_3a/5x5 -> inception_3a/5x5
I0714 22:06:02.184667 21615 net.cpp:141] Setting up inception_3a/5x5_reduce
I0714 22:06:02.184686 21615 net.cpp:148] Top shape: 10 16 28 28 (125440)
I0714 22:06:02.184692 21615 net.cpp:156] Memory required for data: 223283200
I0714 22:06:02.184702 21615 layer_factory.hpp:77] Creating layer inception_3a/relu_5x5_reduce
I0714 22:06:02.184712 21615 net.cpp:91] Creating Layer inception_3a/relu_5x5_reduce
I0714 22:06:02.184720 21615 net.cpp:425] inception_3a/relu_5x5_reduce <- inception_3a/5x5_reduce
I0714 22:06:02.184727 21615 net.cpp:386] inception_3a/relu_5x5_reduce -> inception_3a/5x5_reduce (in-place)
I0714 22:06:02.185082 21615 net.cpp:141] Setting up inception_3a/relu_5x5_reduce
I0714 22:06:02.185096 21615 net.cpp:148] Top shape: 10 16 28 28 (125440)
I0714 22:06:02.185101 21615 net.cpp:156] Memory required for data: 223784960
I0714 22:06:02.185106 21615 layer_factory.hpp:77] Creating layer inception_3a/5x5
I0714 22:06:02.185122 21615 net.cpp:91] Creating Layer inception_3a/5x5
I0714 22:06:02.185129 21615 net.cpp:425] inception_3a/5x5 <- inception_3a/5x5_reduce
I0714 22:06:02.185142 21615 net.cpp:399] inception_3a/5x5 -> inception_3a/5x5
I0714 22:06:02.189657 21619 net.cpp:141] Setting up inception_3a/5x5
I0714 22:06:02.189677 21619 net.cpp:148] Top shape: 10 32 28 28 (250880)
I0714 22:06:02.189683 21619 net.cpp:156] Memory required for data: 224788480
I0714 22:06:02.189693 21619 layer_factory.hpp:77] Creating layer inception_3a/relu_5x5
I0714 22:06:02.189703 21619 net.cpp:91] Creating Layer inception_3a/relu_5x5
I0714 22:06:02.189713 21619 net.cpp:425] inception_3a/relu_5x5 <- inception_3a/5x5
I0714 22:06:02.189721 21619 net.cpp:386] inception_3a/relu_5x5 -> inception_3a/5x5 (in-place)
I0714 22:06:02.190006 21619 net.cpp:141] Setting up inception_3a/relu_5x5
I0714 22:06:02.190018 21619 net.cpp:148] Top shape: 10 32 28 28 (250880)
I0714 22:06:02.190023 21619 net.cpp:156] Memory required for data: 225792000
I0714 22:06:02.190029 21619 layer_factory.hpp:77] Creating layer inception_3a/pool
I0714 22:06:02.190043 21619 net.cpp:91] Creating Layer inception_3a/pool
I0714 22:06:02.190049 21619 net.cpp:425] inception_3a/pool <- pool2/3x3_s2_pool2/3x3_s2_0_split_3
I0714 22:06:02.190058 21619 net.cpp:399] inception_3a/pool -> inception_3a/pool
I0714 22:06:02.190268 21619 net.cpp:141] Setting up inception_3a/pool
I0714 22:06:02.190280 21619 net.cpp:148] Top shape: 10 192 28 28 (1505280)
I0714 22:06:02.190284 21619 net.cpp:156] Memory required for data: 231813120
I0714 22:06:02.190290 21619 layer_factory.hpp:77] Creating layer inception_3a/pool_proj
I0714 22:06:02.190317 21619 net.cpp:91] Creating Layer inception_3a/pool_proj
I0714 22:06:02.190325 21619 net.cpp:425] inception_3a/pool_proj <- inception_3a/pool
I0714 22:06:02.190335 21619 net.cpp:399] inception_3a/pool_proj -> inception_3a/pool_proj
I0714 22:06:02.192401 21615 net.cpp:141] Setting up inception_3a/5x5
I0714 22:06:02.192421 21615 net.cpp:148] Top shape: 10 32 28 28 (250880)
I0714 22:06:02.192427 21615 net.cpp:156] Memory required for data: 224788480
I0714 22:06:02.192441 21615 layer_factory.hpp:77] Creating layer inception_3a/relu_5x5
I0714 22:06:02.192451 21615 net.cpp:91] Creating Layer inception_3a/relu_5x5
I0714 22:06:02.192457 21615 net.cpp:425] inception_3a/relu_5x5 <- inception_3a/5x5
I0714 22:06:02.192468 21615 net.cpp:386] inception_3a/relu_5x5 -> inception_3a/5x5 (in-place)
I0714 22:06:02.192752 21615 net.cpp:141] Setting up inception_3a/relu_5x5
I0714 22:06:02.192765 21615 net.cpp:148] Top shape: 10 32 28 28 (250880)
I0714 22:06:02.192770 21615 net.cpp:156] Memory required for data: 225792000
I0714 22:06:02.192775 21615 layer_factory.hpp:77] Creating layer inception_3a/pool
I0714 22:06:02.192788 21615 net.cpp:91] Creating Layer inception_3a/pool
I0714 22:06:02.192795 21615 net.cpp:425] inception_3a/pool <- pool2/3x3_s2_pool2/3x3_s2_0_split_3
I0714 22:06:02.192803 21615 net.cpp:399] inception_3a/pool -> inception_3a/pool
I0714 22:06:02.193297 21615 net.cpp:141] Setting up inception_3a/pool
I0714 22:06:02.193312 21615 net.cpp:148] Top shape: 10 192 28 28 (1505280)
I0714 22:06:02.193317 21615 net.cpp:156] Memory required for data: 231813120
I0714 22:06:02.193322 21615 layer_factory.hpp:77] Creating layer inception_3a/pool_proj
I0714 22:06:02.193339 21615 net.cpp:91] Creating Layer inception_3a/pool_proj
I0714 22:06:02.193346 21615 net.cpp:425] inception_3a/pool_proj <- inception_3a/pool
I0714 22:06:02.193357 21615 net.cpp:399] inception_3a/pool_proj -> inception_3a/pool_proj
I0714 22:06:02.195950 21619 net.cpp:141] Setting up inception_3a/pool_proj
I0714 22:06:02.195971 21619 net.cpp:148] Top shape: 10 32 28 28 (250880)
I0714 22:06:02.195976 21619 net.cpp:156] Memory required for data: 232816640
I0714 22:06:02.195991 21619 layer_factory.hpp:77] Creating layer inception_3a/relu_pool_proj
I0714 22:06:02.196012 21619 net.cpp:91] Creating Layer inception_3a/relu_pool_proj
I0714 22:06:02.196019 21619 net.cpp:425] inception_3a/relu_pool_proj <- inception_3a/pool_proj
I0714 22:06:02.196028 21619 net.cpp:386] inception_3a/relu_pool_proj -> inception_3a/pool_proj (in-place)
I0714 22:06:02.196976 21619 net.cpp:141] Setting up inception_3a/relu_pool_proj
I0714 22:06:02.196993 21619 net.cpp:148] Top shape: 10 32 28 28 (250880)
I0714 22:06:02.197000 21619 net.cpp:156] Memory required for data: 233820160
I0714 22:06:02.197005 21619 layer_factory.hpp:77] Creating layer inception_3a/output
I0714 22:06:02.197036 21619 net.cpp:91] Creating Layer inception_3a/output
I0714 22:06:02.197042 21619 net.cpp:425] inception_3a/output <- inception_3a/1x1
I0714 22:06:02.197049 21619 net.cpp:425] inception_3a/output <- inception_3a/3x3
I0714 22:06:02.197055 21619 net.cpp:425] inception_3a/output <- inception_3a/5x5
I0714 22:06:02.197062 21619 net.cpp:425] inception_3a/output <- inception_3a/pool_proj
I0714 22:06:02.197070 21619 net.cpp:399] inception_3a/output -> inception_3a/output
I0714 22:06:02.197304 21619 net.cpp:141] Setting up inception_3a/output
I0714 22:06:02.197315 21619 net.cpp:148] Top shape: 10 256 28 28 (2007040)
I0714 22:06:02.197320 21619 net.cpp:156] Memory required for data: 241848320
I0714 22:06:02.197325 21619 layer_factory.hpp:77] Creating layer inception_3a/output_inception_3a/output_0_split
I0714 22:06:02.197336 21619 net.cpp:91] Creating Layer inception_3a/output_inception_3a/output_0_split
I0714 22:06:02.197341 21619 net.cpp:425] inception_3a/output_inception_3a/output_0_split <- inception_3a/output
I0714 22:06:02.197351 21619 net.cpp:399] inception_3a/output_inception_3a/output_0_split -> inception_3a/output_inception_3a/output_0_split_0
I0714 22:06:02.197361 21619 net.cpp:399] inception_3a/output_inception_3a/output_0_split -> inception_3a/output_inception_3a/output_0_split_1
I0714 22:06:02.197371 21619 net.cpp:399] inception_3a/output_inception_3a/output_0_split -> inception_3a/output_inception_3a/output_0_split_2
I0714 22:06:02.197379 21619 net.cpp:399] inception_3a/output_inception_3a/output_0_split -> inception_3a/output_inception_3a/output_0_split_3
I0714 22:06:02.197789 21619 net.cpp:141] Setting up inception_3a/output_inception_3a/output_0_split
I0714 22:06:02.197801 21619 net.cpp:148] Top shape: 10 256 28 28 (2007040)
I0714 22:06:02.197808 21619 net.cpp:148] Top shape: 10 256 28 28 (2007040)
I0714 22:06:02.197813 21619 net.cpp:148] Top shape: 10 256 28 28 (2007040)
I0714 22:06:02.197818 21619 net.cpp:148] Top shape: 10 256 28 28 (2007040)
I0714 22:06:02.197823 21619 net.cpp:156] Memory required for data: 273960960
I0714 22:06:02.197827 21619 layer_factory.hpp:77] Creating layer inception_3b/1x1
I0714 22:06:02.197845 21619 net.cpp:91] Creating Layer inception_3b/1x1
I0714 22:06:02.197851 21619 net.cpp:425] inception_3b/1x1 <- inception_3a/output_inception_3a/output_0_split_0
I0714 22:06:02.197863 21619 net.cpp:399] inception_3b/1x1 -> inception_3b/1x1
I0714 22:06:02.198371 21615 net.cpp:141] Setting up inception_3a/pool_proj
I0714 22:06:02.198388 21615 net.cpp:148] Top shape: 10 32 28 28 (250880)
I0714 22:06:02.198393 21615 net.cpp:156] Memory required for data: 232816640
I0714 22:06:02.198408 21615 layer_factory.hpp:77] Creating layer inception_3a/relu_pool_proj
I0714 22:06:02.198421 21615 net.cpp:91] Creating Layer inception_3a/relu_pool_proj
I0714 22:06:02.198428 21615 net.cpp:425] inception_3a/relu_pool_proj <- inception_3a/pool_proj
I0714 22:06:02.198436 21615 net.cpp:386] inception_3a/relu_pool_proj -> inception_3a/pool_proj (in-place)
I0714 22:06:02.199311 21615 net.cpp:141] Setting up inception_3a/relu_pool_proj
I0714 22:06:02.199328 21615 net.cpp:148] Top shape: 10 32 28 28 (250880)
I0714 22:06:02.199333 21615 net.cpp:156] Memory required for data: 233820160
I0714 22:06:02.199339 21615 layer_factory.hpp:77] Creating layer inception_3a/output
I0714 22:06:02.199352 21615 net.cpp:91] Creating Layer inception_3a/output
I0714 22:06:02.199358 21615 net.cpp:425] inception_3a/output <- inception_3a/1x1
I0714 22:06:02.199367 21615 net.cpp:425] inception_3a/output <- inception_3a/3x3
I0714 22:06:02.199373 21615 net.cpp:425] inception_3a/output <- inception_3a/5x5
I0714 22:06:02.199380 21615 net.cpp:425] inception_3a/output <- inception_3a/pool_proj
I0714 22:06:02.199393 21615 net.cpp:399] inception_3a/output -> inception_3a/output
I0714 22:06:02.199493 21615 net.cpp:141] Setting up inception_3a/output
I0714 22:06:02.199506 21615 net.cpp:148] Top shape: 10 256 28 28 (2007040)
I0714 22:06:02.199512 21615 net.cpp:156] Memory required for data: 241848320
I0714 22:06:02.199517 21615 layer_factory.hpp:77] Creating layer inception_3a/output_inception_3a/output_0_split
I0714 22:06:02.199529 21615 net.cpp:91] Creating Layer inception_3a/output_inception_3a/output_0_split
I0714 22:06:02.199535 21615 net.cpp:425] inception_3a/output_inception_3a/output_0_split <- inception_3a/output
I0714 22:06:02.199543 21615 net.cpp:399] inception_3a/output_inception_3a/output_0_split -> inception_3a/output_inception_3a/output_0_split_0
I0714 22:06:02.199555 21615 net.cpp:399] inception_3a/output_inception_3a/output_0_split -> inception_3a/output_inception_3a/output_0_split_1
I0714 22:06:02.199564 21615 net.cpp:399] inception_3a/output_inception_3a/output_0_split -> inception_3a/output_inception_3a/output_0_split_2
I0714 22:06:02.199573 21615 net.cpp:399] inception_3a/output_inception_3a/output_0_split -> inception_3a/output_inception_3a/output_0_split_3
I0714 22:06:02.200024 21615 net.cpp:141] Setting up inception_3a/output_inception_3a/output_0_split
I0714 22:06:02.200037 21615 net.cpp:148] Top shape: 10 256 28 28 (2007040)
I0714 22:06:02.200043 21615 net.cpp:148] Top shape: 10 256 28 28 (2007040)
I0714 22:06:02.200048 21615 net.cpp:148] Top shape: 10 256 28 28 (2007040)
I0714 22:06:02.200054 21615 net.cpp:148] Top shape: 10 256 28 28 (2007040)
I0714 22:06:02.200058 21615 net.cpp:156] Memory required for data: 273960960
I0714 22:06:02.200063 21615 layer_factory.hpp:77] Creating layer inception_3b/1x1
I0714 22:06:02.200080 21615 net.cpp:91] Creating Layer inception_3b/1x1
I0714 22:06:02.200086 21615 net.cpp:425] inception_3b/1x1 <- inception_3a/output_inception_3a/output_0_split_0
I0714 22:06:02.200098 21615 net.cpp:399] inception_3b/1x1 -> inception_3b/1x1
I0714 22:06:02.202247 21619 net.cpp:141] Setting up inception_3b/1x1
I0714 22:06:02.202268 21619 net.cpp:148] Top shape: 10 128 28 28 (1003520)
I0714 22:06:02.202275 21619 net.cpp:156] Memory required for data: 277975040
I0714 22:06:02.202285 21619 layer_factory.hpp:77] Creating layer inception_3b/relu_1x1
I0714 22:06:02.202296 21619 net.cpp:91] Creating Layer inception_3b/relu_1x1
I0714 22:06:02.202301 21619 net.cpp:425] inception_3b/relu_1x1 <- inception_3b/1x1
I0714 22:06:02.202309 21619 net.cpp:386] inception_3b/relu_1x1 -> inception_3b/1x1 (in-place)
I0714 22:06:02.202697 21619 net.cpp:141] Setting up inception_3b/relu_1x1
I0714 22:06:02.202713 21619 net.cpp:148] Top shape: 10 128 28 28 (1003520)
I0714 22:06:02.202718 21619 net.cpp:156] Memory required for data: 281989120
I0714 22:06:02.202723 21619 layer_factory.hpp:77] Creating layer inception_3b/3x3_reduce
I0714 22:06:02.202745 21619 net.cpp:91] Creating Layer inception_3b/3x3_reduce
I0714 22:06:02.202751 21619 net.cpp:425] inception_3b/3x3_reduce <- inception_3a/output_inception_3a/output_0_split_1
I0714 22:06:02.202765 21619 net.cpp:399] inception_3b/3x3_reduce -> inception_3b/3x3_reduce
I0714 22:06:02.204983 21615 net.cpp:141] Setting up inception_3b/1x1
I0714 22:06:02.205005 21615 net.cpp:148] Top shape: 10 128 28 28 (1003520)
I0714 22:06:02.205011 21615 net.cpp:156] Memory required for data: 277975040
I0714 22:06:02.205023 21615 layer_factory.hpp:77] Creating layer inception_3b/relu_1x1
I0714 22:06:02.205031 21615 net.cpp:91] Creating Layer inception_3b/relu_1x1
I0714 22:06:02.205039 21615 net.cpp:425] inception_3b/relu_1x1 <- inception_3b/1x1
I0714 22:06:02.205046 21615 net.cpp:386] inception_3b/relu_1x1 -> inception_3b/1x1 (in-place)
I0714 22:06:02.205407 21615 net.cpp:141] Setting up inception_3b/relu_1x1
I0714 22:06:02.205420 21615 net.cpp:148] Top shape: 10 128 28 28 (1003520)
I0714 22:06:02.205425 21615 net.cpp:156] Memory required for data: 281989120
I0714 22:06:02.205431 21615 layer_factory.hpp:77] Creating layer inception_3b/3x3_reduce
I0714 22:06:02.205447 21615 net.cpp:91] Creating Layer inception_3b/3x3_reduce
I0714 22:06:02.205453 21615 net.cpp:425] inception_3b/3x3_reduce <- inception_3a/output_inception_3a/output_0_split_1
I0714 22:06:02.205468 21615 net.cpp:399] inception_3b/3x3_reduce -> inception_3b/3x3_reduce
I0714 22:06:02.208768 21619 net.cpp:141] Setting up inception_3b/3x3_reduce
I0714 22:06:02.208788 21619 net.cpp:148] Top shape: 10 128 28 28 (1003520)
I0714 22:06:02.208794 21619 net.cpp:156] Memory required for data: 286003200
I0714 22:06:02.208806 21619 layer_factory.hpp:77] Creating layer inception_3b/relu_3x3_reduce
I0714 22:06:02.208822 21619 net.cpp:91] Creating Layer inception_3b/relu_3x3_reduce
I0714 22:06:02.208828 21619 net.cpp:425] inception_3b/relu_3x3_reduce <- inception_3b/3x3_reduce
I0714 22:06:02.208840 21619 net.cpp:386] inception_3b/relu_3x3_reduce -> inception_3b/3x3_reduce (in-place)
I0714 22:06:02.209300 21619 net.cpp:141] Setting up inception_3b/relu_3x3_reduce
I0714 22:06:02.209313 21619 net.cpp:148] Top shape: 10 128 28 28 (1003520)
I0714 22:06:02.209318 21619 net.cpp:156] Memory required for data: 290017280
I0714 22:06:02.209324 21619 layer_factory.hpp:77] Creating layer inception_3b/3x3
I0714 22:06:02.209352 21619 net.cpp:91] Creating Layer inception_3b/3x3
I0714 22:06:02.209360 21619 net.cpp:425] inception_3b/3x3 <- inception_3b/3x3_reduce
I0714 22:06:02.209372 21619 net.cpp:399] inception_3b/3x3 -> inception_3b/3x3
I0714 22:06:02.213392 21615 net.cpp:141] Setting up inception_3b/3x3_reduce
I0714 22:06:02.213443 21615 net.cpp:148] Top shape: 10 128 28 28 (1003520)
I0714 22:06:02.213454 21615 net.cpp:156] Memory required for data: 286003200
I0714 22:06:02.213479 21615 layer_factory.hpp:77] Creating layer inception_3b/relu_3x3_reduce
I0714 22:06:02.213508 21615 net.cpp:91] Creating Layer inception_3b/relu_3x3_reduce
I0714 22:06:02.213523 21615 net.cpp:425] inception_3b/relu_3x3_reduce <- inception_3b/3x3_reduce
I0714 22:06:02.213541 21615 net.cpp:386] inception_3b/relu_3x3_reduce -> inception_3b/3x3_reduce (in-place)
I0714 22:06:02.214025 21615 net.cpp:141] Setting up inception_3b/relu_3x3_reduce
I0714 22:06:02.214049 21615 net.cpp:148] Top shape: 10 128 28 28 (1003520)
I0714 22:06:02.214061 21615 net.cpp:156] Memory required for data: 290017280
I0714 22:06:02.214071 21615 layer_factory.hpp:77] Creating layer inception_3b/3x3
I0714 22:06:02.214103 21615 net.cpp:91] Creating Layer inception_3b/3x3
I0714 22:06:02.214117 21615 net.cpp:425] inception_3b/3x3 <- inception_3b/3x3_reduce
I0714 22:06:02.214139 21615 net.cpp:399] inception_3b/3x3 -> inception_3b/3x3
I0714 22:06:02.220335 21619 net.cpp:141] Setting up inception_3b/3x3
I0714 22:06:02.220365 21619 net.cpp:148] Top shape: 10 192 28 28 (1505280)
I0714 22:06:02.220371 21619 net.cpp:156] Memory required for data: 296038400
I0714 22:06:02.220381 21619 layer_factory.hpp:77] Creating layer inception_3b/relu_3x3
I0714 22:06:02.220397 21619 net.cpp:91] Creating Layer inception_3b/relu_3x3
I0714 22:06:02.220403 21619 net.cpp:425] inception_3b/relu_3x3 <- inception_3b/3x3
I0714 22:06:02.220417 21619 net.cpp:386] inception_3b/relu_3x3 -> inception_3b/3x3 (in-place)
I0714 22:06:02.221365 21619 net.cpp:141] Setting up inception_3b/relu_3x3
I0714 22:06:02.221384 21619 net.cpp:148] Top shape: 10 192 28 28 (1505280)
I0714 22:06:02.221388 21619 net.cpp:156] Memory required for data: 302059520
I0714 22:06:02.221395 21619 layer_factory.hpp:77] Creating layer inception_3b/5x5_reduce
I0714 22:06:02.221413 21619 net.cpp:91] Creating Layer inception_3b/5x5_reduce
I0714 22:06:02.221427 21619 net.cpp:425] inception_3b/5x5_reduce <- inception_3a/output_inception_3a/output_0_split_2
I0714 22:06:02.221451 21619 net.cpp:399] inception_3b/5x5_reduce -> inception_3b/5x5_reduce
I0714 22:06:02.225183 21615 net.cpp:141] Setting up inception_3b/3x3
I0714 22:06:02.225214 21615 net.cpp:148] Top shape: 10 192 28 28 (1505280)
I0714 22:06:02.225220 21615 net.cpp:156] Memory required for data: 296038400
I0714 22:06:02.225234 21615 layer_factory.hpp:77] Creating layer inception_3b/relu_3x3
I0714 22:06:02.225255 21615 net.cpp:91] Creating Layer inception_3b/relu_3x3
I0714 22:06:02.225263 21615 net.cpp:425] inception_3b/relu_3x3 <- inception_3b/3x3
I0714 22:06:02.225273 21615 net.cpp:386] inception_3b/relu_3x3 -> inception_3b/3x3 (in-place)
I0714 22:06:02.226511 21615 net.cpp:141] Setting up inception_3b/relu_3x3
I0714 22:06:02.226529 21615 net.cpp:148] Top shape: 10 192 28 28 (1505280)
I0714 22:06:02.226534 21615 net.cpp:156] Memory required for data: 302059520
I0714 22:06:02.226541 21615 layer_factory.hpp:77] Creating layer inception_3b/5x5_reduce
I0714 22:06:02.226562 21615 net.cpp:91] Creating Layer inception_3b/5x5_reduce
I0714 22:06:02.226569 21615 net.cpp:425] inception_3b/5x5_reduce <- inception_3a/output_inception_3a/output_0_split_2
I0714 22:06:02.226583 21615 net.cpp:399] inception_3b/5x5_reduce -> inception_3b/5x5_reduce
I0714 22:06:02.227915 21619 net.cpp:141] Setting up inception_3b/5x5_reduce
I0714 22:06:02.227936 21619 net.cpp:148] Top shape: 10 32 28 28 (250880)
I0714 22:06:02.227942 21619 net.cpp:156] Memory required for data: 303063040
I0714 22:06:02.227952 21619 layer_factory.hpp:77] Creating layer inception_3b/relu_5x5_reduce
I0714 22:06:02.227962 21619 net.cpp:91] Creating Layer inception_3b/relu_5x5_reduce
I0714 22:06:02.227968 21619 net.cpp:425] inception_3b/relu_5x5_reduce <- inception_3b/5x5_reduce
I0714 22:06:02.227982 21619 net.cpp:386] inception_3b/relu_5x5_reduce -> inception_3b/5x5_reduce (in-place)
I0714 22:06:02.228392 21619 net.cpp:141] Setting up inception_3b/relu_5x5_reduce
I0714 22:06:02.228410 21619 net.cpp:148] Top shape: 10 32 28 28 (250880)
I0714 22:06:02.228415 21619 net.cpp:156] Memory required for data: 304066560
I0714 22:06:02.228420 21619 layer_factory.hpp:77] Creating layer inception_3b/5x5
I0714 22:06:02.228438 21619 net.cpp:91] Creating Layer inception_3b/5x5
I0714 22:06:02.228446 21619 net.cpp:425] inception_3b/5x5 <- inception_3b/5x5_reduce
I0714 22:06:02.228454 21619 net.cpp:399] inception_3b/5x5 -> inception_3b/5x5
I0714 22:06:02.232939 21615 net.cpp:141] Setting up inception_3b/5x5_reduce
I0714 22:06:02.232961 21615 net.cpp:148] Top shape: 10 32 28 28 (250880)
I0714 22:06:02.232967 21615 net.cpp:156] Memory required for data: 303063040
I0714 22:06:02.232978 21615 layer_factory.hpp:77] Creating layer inception_3b/relu_5x5_reduce
I0714 22:06:02.232990 21615 net.cpp:91] Creating Layer inception_3b/relu_5x5_reduce
I0714 22:06:02.233009 21615 net.cpp:425] inception_3b/relu_5x5_reduce <- inception_3b/5x5_reduce
I0714 22:06:02.233019 21615 net.cpp:386] inception_3b/relu_5x5_reduce -> inception_3b/5x5_reduce (in-place)
I0714 22:06:02.233299 21615 net.cpp:141] Setting up inception_3b/relu_5x5_reduce
I0714 22:06:02.233311 21615 net.cpp:148] Top shape: 10 32 28 28 (250880)
I0714 22:06:02.233316 21615 net.cpp:156] Memory required for data: 304066560
I0714 22:06:02.233321 21615 layer_factory.hpp:77] Creating layer inception_3b/5x5
I0714 22:06:02.233340 21615 net.cpp:91] Creating Layer inception_3b/5x5
I0714 22:06:02.233346 21615 net.cpp:425] inception_3b/5x5 <- inception_3b/5x5_reduce
I0714 22:06:02.233360 21615 net.cpp:399] inception_3b/5x5 -> inception_3b/5x5
I0714 22:06:02.237885 21619 net.cpp:141] Setting up inception_3b/5x5
I0714 22:06:02.237908 21619 net.cpp:148] Top shape: 10 96 28 28 (752640)
I0714 22:06:02.237915 21619 net.cpp:156] Memory required for data: 307077120
I0714 22:06:02.237926 21619 layer_factory.hpp:77] Creating layer inception_3b/relu_5x5
I0714 22:06:02.237938 21619 net.cpp:91] Creating Layer inception_3b/relu_5x5
I0714 22:06:02.237944 21619 net.cpp:425] inception_3b/relu_5x5 <- inception_3b/5x5
I0714 22:06:02.237953 21619 net.cpp:386] inception_3b/relu_5x5 -> inception_3b/5x5 (in-place)
I0714 22:06:02.238302 21619 net.cpp:141] Setting up inception_3b/relu_5x5
I0714 22:06:02.238315 21619 net.cpp:148] Top shape: 10 96 28 28 (752640)
I0714 22:06:02.238320 21619 net.cpp:156] Memory required for data: 310087680
I0714 22:06:02.238327 21619 layer_factory.hpp:77] Creating layer inception_3b/pool
I0714 22:06:02.238340 21619 net.cpp:91] Creating Layer inception_3b/pool
I0714 22:06:02.238348 21619 net.cpp:425] inception_3b/pool <- inception_3a/output_inception_3a/output_0_split_3
I0714 22:06:02.238358 21619 net.cpp:399] inception_3b/pool -> inception_3b/pool
I0714 22:06:02.239265 21619 net.cpp:141] Setting up inception_3b/pool
I0714 22:06:02.239290 21619 net.cpp:148] Top shape: 10 256 28 28 (2007040)
I0714 22:06:02.239300 21619 net.cpp:156] Memory required for data: 318115840
I0714 22:06:02.239310 21619 layer_factory.hpp:77] Creating layer inception_3b/pool_proj
I0714 22:06:02.239344 21619 net.cpp:91] Creating Layer inception_3b/pool_proj
I0714 22:06:02.239356 21619 net.cpp:425] inception_3b/pool_proj <- inception_3b/pool
I0714 22:06:02.239372 21619 net.cpp:399] inception_3b/pool_proj -> inception_3b/pool_proj
I0714 22:06:02.241367 21615 net.cpp:141] Setting up inception_3b/5x5
I0714 22:06:02.241389 21615 net.cpp:148] Top shape: 10 96 28 28 (752640)
I0714 22:06:02.241395 21615 net.cpp:156] Memory required for data: 307077120
I0714 22:06:02.241406 21615 layer_factory.hpp:77] Creating layer inception_3b/relu_5x5
I0714 22:06:02.241417 21615 net.cpp:91] Creating Layer inception_3b/relu_5x5
I0714 22:06:02.241423 21615 net.cpp:425] inception_3b/relu_5x5 <- inception_3b/5x5
I0714 22:06:02.241435 21615 net.cpp:386] inception_3b/relu_5x5 -> inception_3b/5x5 (in-place)
I0714 22:06:02.241775 21615 net.cpp:141] Setting up inception_3b/relu_5x5
I0714 22:06:02.241788 21615 net.cpp:148] Top shape: 10 96 28 28 (752640)
I0714 22:06:02.241793 21615 net.cpp:156] Memory required for data: 310087680
I0714 22:06:02.241799 21615 layer_factory.hpp:77] Creating layer inception_3b/pool
I0714 22:06:02.241811 21615 net.cpp:91] Creating Layer inception_3b/pool
I0714 22:06:02.241817 21615 net.cpp:425] inception_3b/pool <- inception_3a/output_inception_3a/output_0_split_3
I0714 22:06:02.241825 21615 net.cpp:399] inception_3b/pool -> inception_3b/pool
I0714 22:06:02.242326 21615 net.cpp:141] Setting up inception_3b/pool
I0714 22:06:02.242341 21615 net.cpp:148] Top shape: 10 256 28 28 (2007040)
I0714 22:06:02.242346 21615 net.cpp:156] Memory required for data: 318115840
I0714 22:06:02.242352 21615 layer_factory.hpp:77] Creating layer inception_3b/pool_proj
I0714 22:06:02.242367 21615 net.cpp:91] Creating Layer inception_3b/pool_proj
I0714 22:06:02.242372 21615 net.cpp:425] inception_3b/pool_proj <- inception_3b/pool
I0714 22:06:02.242383 21615 net.cpp:399] inception_3b/pool_proj -> inception_3b/pool_proj
I0714 22:06:02.244477 21619 net.cpp:141] Setting up inception_3b/pool_proj
I0714 22:06:02.244500 21619 net.cpp:148] Top shape: 10 64 28 28 (501760)
I0714 22:06:02.244506 21619 net.cpp:156] Memory required for data: 320122880
I0714 22:06:02.244518 21619 layer_factory.hpp:77] Creating layer inception_3b/relu_pool_proj
I0714 22:06:02.244527 21619 net.cpp:91] Creating Layer inception_3b/relu_pool_proj
I0714 22:06:02.244534 21619 net.cpp:425] inception_3b/relu_pool_proj <- inception_3b/pool_proj
I0714 22:06:02.244546 21619 net.cpp:386] inception_3b/relu_pool_proj -> inception_3b/pool_proj (in-place)
I0714 22:06:02.245790 21619 net.cpp:141] Setting up inception_3b/relu_pool_proj
I0714 22:06:02.245808 21619 net.cpp:148] Top shape: 10 64 28 28 (501760)
I0714 22:06:02.245813 21619 net.cpp:156] Memory required for data: 322129920
I0714 22:06:02.245820 21619 layer_factory.hpp:77] Creating layer inception_3b/output
I0714 22:06:02.245829 21619 net.cpp:91] Creating Layer inception_3b/output
I0714 22:06:02.245836 21619 net.cpp:425] inception_3b/output <- inception_3b/1x1
I0714 22:06:02.245842 21619 net.cpp:425] inception_3b/output <- inception_3b/3x3
I0714 22:06:02.245848 21619 net.cpp:425] inception_3b/output <- inception_3b/5x5
I0714 22:06:02.245854 21619 net.cpp:425] inception_3b/output <- inception_3b/pool_proj
I0714 22:06:02.245865 21619 net.cpp:399] inception_3b/output -> inception_3b/output
I0714 22:06:02.246175 21619 net.cpp:141] Setting up inception_3b/output
I0714 22:06:02.246186 21619 net.cpp:148] Top shape: 10 480 28 28 (3763200)
I0714 22:06:02.246191 21619 net.cpp:156] Memory required for data: 337182720
I0714 22:06:02.246197 21619 layer_factory.hpp:77] Creating layer pool3/3x3_s2
I0714 22:06:02.246212 21619 net.cpp:91] Creating Layer pool3/3x3_s2
I0714 22:06:02.246217 21619 net.cpp:425] pool3/3x3_s2 <- inception_3b/output
I0714 22:06:02.246225 21619 net.cpp:399] pool3/3x3_s2 -> pool3/3x3_s2
I0714 22:06:02.246593 21619 net.cpp:141] Setting up pool3/3x3_s2
I0714 22:06:02.246609 21619 net.cpp:148] Top shape: 10 480 14 14 (940800)
I0714 22:06:02.246614 21619 net.cpp:156] Memory required for data: 340945920
I0714 22:06:02.246620 21619 layer_factory.hpp:77] Creating layer pool3/3x3_s2_pool3/3x3_s2_0_split
I0714 22:06:02.246631 21619 net.cpp:91] Creating Layer pool3/3x3_s2_pool3/3x3_s2_0_split
I0714 22:06:02.246636 21619 net.cpp:425] pool3/3x3_s2_pool3/3x3_s2_0_split <- pool3/3x3_s2
I0714 22:06:02.246646 21619 net.cpp:399] pool3/3x3_s2_pool3/3x3_s2_0_split -> pool3/3x3_s2_pool3/3x3_s2_0_split_0
I0714 22:06:02.246655 21619 net.cpp:399] pool3/3x3_s2_pool3/3x3_s2_0_split -> pool3/3x3_s2_pool3/3x3_s2_0_split_1
I0714 22:06:02.246665 21619 net.cpp:399] pool3/3x3_s2_pool3/3x3_s2_0_split -> pool3/3x3_s2_pool3/3x3_s2_0_split_2
I0714 22:06:02.246672 21619 net.cpp:399] pool3/3x3_s2_pool3/3x3_s2_0_split -> pool3/3x3_s2_pool3/3x3_s2_0_split_3
I0714 22:06:02.247257 21619 net.cpp:141] Setting up pool3/3x3_s2_pool3/3x3_s2_0_split
I0714 22:06:02.247272 21619 net.cpp:148] Top shape: 10 480 14 14 (940800)
I0714 22:06:02.247278 21619 net.cpp:148] Top shape: 10 480 14 14 (940800)
I0714 22:06:02.247284 21619 net.cpp:148] Top shape: 10 480 14 14 (940800)
I0714 22:06:02.247289 21619 net.cpp:148] Top shape: 10 480 14 14 (940800)
I0714 22:06:02.247294 21619 net.cpp:156] Memory required for data: 355998720
I0714 22:06:02.247300 21619 layer_factory.hpp:77] Creating layer inception_4a/1x1
I0714 22:06:02.247318 21619 net.cpp:91] Creating Layer inception_4a/1x1
I0714 22:06:02.247324 21619 net.cpp:425] inception_4a/1x1 <- pool3/3x3_s2_pool3/3x3_s2_0_split_0
I0714 22:06:02.247334 21619 net.cpp:399] inception_4a/1x1 -> inception_4a/1x1
I0714 22:06:02.247369 21615 net.cpp:141] Setting up inception_3b/pool_proj
I0714 22:06:02.247385 21615 net.cpp:148] Top shape: 10 64 28 28 (501760)
I0714 22:06:02.247391 21615 net.cpp:156] Memory required for data: 320122880
I0714 22:06:02.247402 21615 layer_factory.hpp:77] Creating layer inception_3b/relu_pool_proj
I0714 22:06:02.247412 21615 net.cpp:91] Creating Layer inception_3b/relu_pool_proj
I0714 22:06:02.247418 21615 net.cpp:425] inception_3b/relu_pool_proj <- inception_3b/pool_proj
I0714 22:06:02.247426 21615 net.cpp:386] inception_3b/relu_pool_proj -> inception_3b/pool_proj (in-place)
I0714 22:06:02.248427 21615 net.cpp:141] Setting up inception_3b/relu_pool_proj
I0714 22:06:02.248445 21615 net.cpp:148] Top shape: 10 64 28 28 (501760)
I0714 22:06:02.248450 21615 net.cpp:156] Memory required for data: 322129920
I0714 22:06:02.248456 21615 layer_factory.hpp:77] Creating layer inception_3b/output
I0714 22:06:02.248466 21615 net.cpp:91] Creating Layer inception_3b/output
I0714 22:06:02.248472 21615 net.cpp:425] inception_3b/output <- inception_3b/1x1
I0714 22:06:02.248481 21615 net.cpp:425] inception_3b/output <- inception_3b/3x3
I0714 22:06:02.248486 21615 net.cpp:425] inception_3b/output <- inception_3b/5x5
I0714 22:06:02.248492 21615 net.cpp:425] inception_3b/output <- inception_3b/pool_proj
I0714 22:06:02.248503 21615 net.cpp:399] inception_3b/output -> inception_3b/output
I0714 22:06:02.248626 21615 net.cpp:141] Setting up inception_3b/output
I0714 22:06:02.248638 21615 net.cpp:148] Top shape: 10 480 28 28 (3763200)
I0714 22:06:02.248642 21615 net.cpp:156] Memory required for data: 337182720
I0714 22:06:02.248648 21615 layer_factory.hpp:77] Creating layer pool3/3x3_s2
I0714 22:06:02.248658 21615 net.cpp:91] Creating Layer pool3/3x3_s2
I0714 22:06:02.248663 21615 net.cpp:425] pool3/3x3_s2 <- inception_3b/output
I0714 22:06:02.248677 21615 net.cpp:399] pool3/3x3_s2 -> pool3/3x3_s2
I0714 22:06:02.248795 21615 net.cpp:141] Setting up pool3/3x3_s2
I0714 22:06:02.248807 21615 net.cpp:148] Top shape: 10 480 14 14 (940800)
I0714 22:06:02.248811 21615 net.cpp:156] Memory required for data: 340945920
I0714 22:06:02.248817 21615 layer_factory.hpp:77] Creating layer pool3/3x3_s2_pool3/3x3_s2_0_split
I0714 22:06:02.248831 21615 net.cpp:91] Creating Layer pool3/3x3_s2_pool3/3x3_s2_0_split
I0714 22:06:02.248837 21615 net.cpp:425] pool3/3x3_s2_pool3/3x3_s2_0_split <- pool3/3x3_s2
I0714 22:06:02.248845 21615 net.cpp:399] pool3/3x3_s2_pool3/3x3_s2_0_split -> pool3/3x3_s2_pool3/3x3_s2_0_split_0
I0714 22:06:02.248854 21615 net.cpp:399] pool3/3x3_s2_pool3/3x3_s2_0_split -> pool3/3x3_s2_pool3/3x3_s2_0_split_1
I0714 22:06:02.248865 21615 net.cpp:399] pool3/3x3_s2_pool3/3x3_s2_0_split -> pool3/3x3_s2_pool3/3x3_s2_0_split_2
I0714 22:06:02.248874 21615 net.cpp:399] pool3/3x3_s2_pool3/3x3_s2_0_split -> pool3/3x3_s2_pool3/3x3_s2_0_split_3
I0714 22:06:02.249038 21615 net.cpp:141] Setting up pool3/3x3_s2_pool3/3x3_s2_0_split
I0714 22:06:02.249049 21615 net.cpp:148] Top shape: 10 480 14 14 (940800)
I0714 22:06:02.249055 21615 net.cpp:148] Top shape: 10 480 14 14 (940800)
I0714 22:06:02.249061 21615 net.cpp:148] Top shape: 10 480 14 14 (940800)
I0714 22:06:02.249068 21615 net.cpp:148] Top shape: 10 480 14 14 (940800)
I0714 22:06:02.249071 21615 net.cpp:156] Memory required for data: 355998720
I0714 22:06:02.249078 21615 layer_factory.hpp:77] Creating layer inception_4a/1x1
I0714 22:06:02.249094 21615 net.cpp:91] Creating Layer inception_4a/1x1
I0714 22:06:02.249100 21615 net.cpp:425] inception_4a/1x1 <- pool3/3x3_s2_pool3/3x3_s2_0_split_0
I0714 22:06:02.249110 21615 net.cpp:399] inception_4a/1x1 -> inception_4a/1x1
I0714 22:06:02.254427 21619 net.cpp:141] Setting up inception_4a/1x1
I0714 22:06:02.254451 21619 net.cpp:148] Top shape: 10 192 14 14 (376320)
I0714 22:06:02.254456 21619 net.cpp:156] Memory required for data: 357504000
I0714 22:06:02.254467 21619 layer_factory.hpp:77] Creating layer inception_4a/relu_1x1
I0714 22:06:02.254482 21619 net.cpp:91] Creating Layer inception_4a/relu_1x1
I0714 22:06:02.254490 21619 net.cpp:425] inception_4a/relu_1x1 <- inception_4a/1x1
I0714 22:06:02.254501 21619 net.cpp:386] inception_4a/relu_1x1 -> inception_4a/1x1 (in-place)
I0714 22:06:02.254976 21619 net.cpp:141] Setting up inception_4a/relu_1x1
I0714 22:06:02.254990 21619 net.cpp:148] Top shape: 10 192 14 14 (376320)
I0714 22:06:02.254995 21619 net.cpp:156] Memory required for data: 359009280
I0714 22:06:02.255002 21619 layer_factory.hpp:77] Creating layer inception_4a/3x3_reduce
I0714 22:06:02.255020 21619 net.cpp:91] Creating Layer inception_4a/3x3_reduce
I0714 22:06:02.255028 21619 net.cpp:425] inception_4a/3x3_reduce <- pool3/3x3_s2_pool3/3x3_s2_0_split_1
I0714 22:06:02.255040 21619 net.cpp:399] inception_4a/3x3_reduce -> inception_4a/3x3_reduce
I0714 22:06:02.255053 21615 net.cpp:141] Setting up inception_4a/1x1
I0714 22:06:02.255071 21615 net.cpp:148] Top shape: 10 192 14 14 (376320)
I0714 22:06:02.255077 21615 net.cpp:156] Memory required for data: 357504000
I0714 22:06:02.255087 21615 layer_factory.hpp:77] Creating layer inception_4a/relu_1x1
I0714 22:06:02.255101 21615 net.cpp:91] Creating Layer inception_4a/relu_1x1
I0714 22:06:02.255108 21615 net.cpp:425] inception_4a/relu_1x1 <- inception_4a/1x1
I0714 22:06:02.255117 21615 net.cpp:386] inception_4a/relu_1x1 -> inception_4a/1x1 (in-place)
I0714 22:06:02.255566 21615 net.cpp:141] Setting up inception_4a/relu_1x1
I0714 22:06:02.255580 21615 net.cpp:148] Top shape: 10 192 14 14 (376320)
I0714 22:06:02.255585 21615 net.cpp:156] Memory required for data: 359009280
I0714 22:06:02.255590 21615 layer_factory.hpp:77] Creating layer inception_4a/3x3_reduce
I0714 22:06:02.255611 21615 net.cpp:91] Creating Layer inception_4a/3x3_reduce
I0714 22:06:02.255617 21615 net.cpp:425] inception_4a/3x3_reduce <- pool3/3x3_s2_pool3/3x3_s2_0_split_1
I0714 22:06:02.255630 21615 net.cpp:399] inception_4a/3x3_reduce -> inception_4a/3x3_reduce
I0714 22:06:02.260190 21619 net.cpp:141] Setting up inception_4a/3x3_reduce
I0714 22:06:02.260213 21619 net.cpp:148] Top shape: 10 96 14 14 (188160)
I0714 22:06:02.260220 21619 net.cpp:156] Memory required for data: 359761920
I0714 22:06:02.260244 21619 layer_factory.hpp:77] Creating layer inception_4a/relu_3x3_reduce
I0714 22:06:02.260256 21619 net.cpp:91] Creating Layer inception_4a/relu_3x3_reduce
I0714 22:06:02.260262 21619 net.cpp:425] inception_4a/relu_3x3_reduce <- inception_4a/3x3_reduce
I0714 22:06:02.260272 21619 net.cpp:386] inception_4a/relu_3x3_reduce -> inception_4a/3x3_reduce (in-place)
I0714 22:06:02.260606 21615 net.cpp:141] Setting up inception_4a/3x3_reduce
I0714 22:06:02.260627 21615 net.cpp:148] Top shape: 10 96 14 14 (188160)
I0714 22:06:02.260632 21615 net.cpp:156] Memory required for data: 359761920
I0714 22:06:02.260651 21615 layer_factory.hpp:77] Creating layer inception_4a/relu_3x3_reduce
I0714 22:06:02.260665 21615 net.cpp:91] Creating Layer inception_4a/relu_3x3_reduce
I0714 22:06:02.260673 21615 net.cpp:425] inception_4a/relu_3x3_reduce <- inception_4a/3x3_reduce
I0714 22:06:02.260681 21615 net.cpp:386] inception_4a/relu_3x3_reduce -> inception_4a/3x3_reduce (in-place)
I0714 22:06:02.260685 21619 net.cpp:141] Setting up inception_4a/relu_3x3_reduce
I0714 22:06:02.260699 21619 net.cpp:148] Top shape: 10 96 14 14 (188160)
I0714 22:06:02.260704 21619 net.cpp:156] Memory required for data: 360514560
I0714 22:06:02.260710 21619 layer_factory.hpp:77] Creating layer inception_4a/3x3
I0714 22:06:02.260730 21619 net.cpp:91] Creating Layer inception_4a/3x3
I0714 22:06:02.260738 21619 net.cpp:425] inception_4a/3x3 <- inception_4a/3x3_reduce
I0714 22:06:02.260748 21619 net.cpp:399] inception_4a/3x3 -> inception_4a/3x3
I0714 22:06:02.261203 21615 net.cpp:141] Setting up inception_4a/relu_3x3_reduce
I0714 22:06:02.261216 21615 net.cpp:148] Top shape: 10 96 14 14 (188160)
I0714 22:06:02.261221 21615 net.cpp:156] Memory required for data: 360514560
I0714 22:06:02.261227 21615 layer_factory.hpp:77] Creating layer inception_4a/3x3
I0714 22:06:02.261246 21615 net.cpp:91] Creating Layer inception_4a/3x3
I0714 22:06:02.261253 21615 net.cpp:425] inception_4a/3x3 <- inception_4a/3x3_reduce
I0714 22:06:02.261265 21615 net.cpp:399] inception_4a/3x3 -> inception_4a/3x3
I0714 22:06:02.269284 21619 net.cpp:141] Setting up inception_4a/3x3
I0714 22:06:02.269305 21619 net.cpp:148] Top shape: 10 208 14 14 (407680)
I0714 22:06:02.269311 21619 net.cpp:156] Memory required for data: 362145280
I0714 22:06:02.269322 21619 layer_factory.hpp:77] Creating layer inception_4a/relu_3x3
I0714 22:06:02.269332 21619 net.cpp:91] Creating Layer inception_4a/relu_3x3
I0714 22:06:02.269338 21619 net.cpp:425] inception_4a/relu_3x3 <- inception_4a/3x3
I0714 22:06:02.269361 21619 net.cpp:386] inception_4a/relu_3x3 -> inception_4a/3x3 (in-place)
I0714 22:06:02.270447 21619 net.cpp:141] Setting up inception_4a/relu_3x3
I0714 22:06:02.270464 21619 net.cpp:148] Top shape: 10 208 14 14 (407680)
I0714 22:06:02.270470 21619 net.cpp:156] Memory required for data: 363776000
I0714 22:06:02.270476 21619 layer_factory.hpp:77] Creating layer inception_4a/5x5_reduce
I0714 22:06:02.270494 21619 net.cpp:91] Creating Layer inception_4a/5x5_reduce
I0714 22:06:02.270504 21619 net.cpp:425] inception_4a/5x5_reduce <- pool3/3x3_s2_pool3/3x3_s2_0_split_2
I0714 22:06:02.270515 21619 net.cpp:399] inception_4a/5x5_reduce -> inception_4a/5x5_reduce
I0714 22:06:02.270704 21615 net.cpp:141] Setting up inception_4a/3x3
I0714 22:06:02.270721 21615 net.cpp:148] Top shape: 10 208 14 14 (407680)
I0714 22:06:02.270727 21615 net.cpp:156] Memory required for data: 362145280
I0714 22:06:02.270737 21615 layer_factory.hpp:77] Creating layer inception_4a/relu_3x3
I0714 22:06:02.270747 21615 net.cpp:91] Creating Layer inception_4a/relu_3x3
I0714 22:06:02.270753 21615 net.cpp:425] inception_4a/relu_3x3 <- inception_4a/3x3
I0714 22:06:02.270761 21615 net.cpp:386] inception_4a/relu_3x3 -> inception_4a/3x3 (in-place)
I0714 22:06:02.271785 21615 net.cpp:141] Setting up inception_4a/relu_3x3
I0714 22:06:02.271803 21615 net.cpp:148] Top shape: 10 208 14 14 (407680)
I0714 22:06:02.271809 21615 net.cpp:156] Memory required for data: 363776000
I0714 22:06:02.271816 21615 layer_factory.hpp:77] Creating layer inception_4a/5x5_reduce
I0714 22:06:02.271834 21615 net.cpp:91] Creating Layer inception_4a/5x5_reduce
I0714 22:06:02.271842 21615 net.cpp:425] inception_4a/5x5_reduce <- pool3/3x3_s2_pool3/3x3_s2_0_split_2
I0714 22:06:02.271854 21615 net.cpp:399] inception_4a/5x5_reduce -> inception_4a/5x5_reduce
I0714 22:06:02.276571 21619 net.cpp:141] Setting up inception_4a/5x5_reduce
I0714 22:06:02.276593 21619 net.cpp:148] Top shape: 10 16 14 14 (31360)
I0714 22:06:02.276599 21619 net.cpp:156] Memory required for data: 363901440
I0714 22:06:02.276609 21619 layer_factory.hpp:77] Creating layer inception_4a/relu_5x5_reduce
I0714 22:06:02.276628 21619 net.cpp:91] Creating Layer inception_4a/relu_5x5_reduce
I0714 22:06:02.276635 21619 net.cpp:425] inception_4a/relu_5x5_reduce <- inception_4a/5x5_reduce
I0714 22:06:02.276643 21619 net.cpp:386] inception_4a/relu_5x5_reduce -> inception_4a/5x5_reduce (in-place)
I0714 22:06:02.277099 21619 net.cpp:141] Setting up inception_4a/relu_5x5_reduce
I0714 22:06:02.277112 21619 net.cpp:148] Top shape: 10 16 14 14 (31360)
I0714 22:06:02.277117 21619 net.cpp:156] Memory required for data: 364026880
I0714 22:06:02.277123 21619 layer_factory.hpp:77] Creating layer inception_4a/5x5
I0714 22:06:02.277143 21619 net.cpp:91] Creating Layer inception_4a/5x5
I0714 22:06:02.277149 21619 net.cpp:425] inception_4a/5x5 <- inception_4a/5x5_reduce
I0714 22:06:02.277161 21619 net.cpp:399] inception_4a/5x5 -> inception_4a/5x5
I0714 22:06:02.277207 21615 net.cpp:141] Setting up inception_4a/5x5_reduce
I0714 22:06:02.277225 21615 net.cpp:148] Top shape: 10 16 14 14 (31360)
I0714 22:06:02.277230 21615 net.cpp:156] Memory required for data: 363901440
I0714 22:06:02.277240 21615 layer_factory.hpp:77] Creating layer inception_4a/relu_5x5_reduce
I0714 22:06:02.277250 21615 net.cpp:91] Creating Layer inception_4a/relu_5x5_reduce
I0714 22:06:02.277256 21615 net.cpp:425] inception_4a/relu_5x5_reduce <- inception_4a/5x5_reduce
I0714 22:06:02.277267 21615 net.cpp:386] inception_4a/relu_5x5_reduce -> inception_4a/5x5_reduce (in-place)
I0714 22:06:02.277695 21615 net.cpp:141] Setting up inception_4a/relu_5x5_reduce
I0714 22:06:02.277712 21615 net.cpp:148] Top shape: 10 16 14 14 (31360)
I0714 22:06:02.277717 21615 net.cpp:156] Memory required for data: 364026880
I0714 22:06:02.277722 21615 layer_factory.hpp:77] Creating layer inception_4a/5x5
I0714 22:06:02.277741 21615 net.cpp:91] Creating Layer inception_4a/5x5
I0714 22:06:02.277748 21615 net.cpp:425] inception_4a/5x5 <- inception_4a/5x5_reduce
I0714 22:06:02.277757 21615 net.cpp:399] inception_4a/5x5 -> inception_4a/5x5
I0714 22:06:02.282017 21619 net.cpp:141] Setting up inception_4a/5x5
I0714 22:06:02.282037 21619 net.cpp:148] Top shape: 10 48 14 14 (94080)
I0714 22:06:02.282043 21619 net.cpp:156] Memory required for data: 364403200
I0714 22:06:02.282053 21619 layer_factory.hpp:77] Creating layer inception_4a/relu_5x5
I0714 22:06:02.282064 21619 net.cpp:91] Creating Layer inception_4a/relu_5x5
I0714 22:06:02.282071 21619 net.cpp:425] inception_4a/relu_5x5 <- inception_4a/5x5
I0714 22:06:02.282083 21619 net.cpp:386] inception_4a/relu_5x5 -> inception_4a/5x5 (in-place)
I0714 22:06:02.282506 21615 net.cpp:141] Setting up inception_4a/5x5
I0714 22:06:02.282528 21615 net.cpp:148] Top shape: 10 48 14 14 (94080)
I0714 22:06:02.282534 21615 net.cpp:156] Memory required for data: 364403200
I0714 22:06:02.282532 21619 net.cpp:141] Setting up inception_4a/relu_5x5
I0714 22:06:02.282546 21615 layer_factory.hpp:77] Creating layer inception_4a/relu_5x5
I0714 22:06:02.282547 21619 net.cpp:148] Top shape: 10 48 14 14 (94080)
I0714 22:06:02.282563 21619 net.cpp:156] Memory required for data: 364779520
I0714 22:06:02.282565 21615 net.cpp:91] Creating Layer inception_4a/relu_5x5
I0714 22:06:02.282570 21619 layer_factory.hpp:77] Creating layer inception_4a/pool
I0714 22:06:02.282572 21615 net.cpp:425] inception_4a/relu_5x5 <- inception_4a/5x5
I0714 22:06:02.282582 21615 net.cpp:386] inception_4a/relu_5x5 -> inception_4a/5x5 (in-place)
I0714 22:06:02.282587 21619 net.cpp:91] Creating Layer inception_4a/pool
I0714 22:06:02.282593 21619 net.cpp:425] inception_4a/pool <- pool3/3x3_s2_pool3/3x3_s2_0_split_3
I0714 22:06:02.282603 21619 net.cpp:399] inception_4a/pool -> inception_4a/pool
I0714 22:06:02.282937 21619 net.cpp:141] Setting up inception_4a/pool
I0714 22:06:02.282948 21619 net.cpp:148] Top shape: 10 480 14 14 (940800)
I0714 22:06:02.282953 21619 net.cpp:156] Memory required for data: 368542720
I0714 22:06:02.282959 21619 layer_factory.hpp:77] Creating layer inception_4a/pool_proj
I0714 22:06:02.282977 21619 net.cpp:91] Creating Layer inception_4a/pool_proj
I0714 22:06:02.282985 21619 net.cpp:425] inception_4a/pool_proj <- inception_4a/pool
I0714 22:06:02.282995 21619 net.cpp:399] inception_4a/pool_proj -> inception_4a/pool_proj
I0714 22:06:02.283012 21615 net.cpp:141] Setting up inception_4a/relu_5x5
I0714 22:06:02.283026 21615 net.cpp:148] Top shape: 10 48 14 14 (94080)
I0714 22:06:02.283031 21615 net.cpp:156] Memory required for data: 364779520
I0714 22:06:02.283037 21615 layer_factory.hpp:77] Creating layer inception_4a/pool
I0714 22:06:02.283047 21615 net.cpp:91] Creating Layer inception_4a/pool
I0714 22:06:02.283053 21615 net.cpp:425] inception_4a/pool <- pool3/3x3_s2_pool3/3x3_s2_0_split_3
I0714 22:06:02.283066 21615 net.cpp:399] inception_4a/pool -> inception_4a/pool
I0714 22:06:02.283388 21615 net.cpp:141] Setting up inception_4a/pool
I0714 22:06:02.283401 21615 net.cpp:148] Top shape: 10 480 14 14 (940800)
I0714 22:06:02.283406 21615 net.cpp:156] Memory required for data: 368542720
I0714 22:06:02.283411 21615 layer_factory.hpp:77] Creating layer inception_4a/pool_proj
I0714 22:06:02.283428 21615 net.cpp:91] Creating Layer inception_4a/pool_proj
I0714 22:06:02.283435 21615 net.cpp:425] inception_4a/pool_proj <- inception_4a/pool
I0714 22:06:02.283447 21615 net.cpp:399] inception_4a/pool_proj -> inception_4a/pool_proj
I0714 22:06:02.287716 21619 net.cpp:141] Setting up inception_4a/pool_proj
I0714 22:06:02.287737 21619 net.cpp:148] Top shape: 10 64 14 14 (125440)
I0714 22:06:02.287744 21619 net.cpp:156] Memory required for data: 369044480
I0714 22:06:02.287755 21619 layer_factory.hpp:77] Creating layer inception_4a/relu_pool_proj
I0714 22:06:02.287768 21619 net.cpp:91] Creating Layer inception_4a/relu_pool_proj
I0714 22:06:02.287775 21619 net.cpp:425] inception_4a/relu_pool_proj <- inception_4a/pool_proj
I0714 22:06:02.287783 21619 net.cpp:386] inception_4a/relu_pool_proj -> inception_4a/pool_proj (in-place)
I0714 22:06:02.288800 21619 net.cpp:141] Setting up inception_4a/relu_pool_proj
I0714 22:06:02.288816 21619 net.cpp:148] Top shape: 10 64 14 14 (125440)
I0714 22:06:02.288821 21619 net.cpp:156] Memory required for data: 369546240
I0714 22:06:02.288827 21619 layer_factory.hpp:77] Creating layer inception_4a/output
I0714 22:06:02.288842 21619 net.cpp:91] Creating Layer inception_4a/output
I0714 22:06:02.288848 21619 net.cpp:425] inception_4a/output <- inception_4a/1x1
I0714 22:06:02.288856 21619 net.cpp:425] inception_4a/output <- inception_4a/3x3
I0714 22:06:02.288863 21619 net.cpp:425] inception_4a/output <- inception_4a/5x5
I0714 22:06:02.288863 21615 net.cpp:141] Setting up inception_4a/pool_proj
I0714 22:06:02.288869 21619 net.cpp:425] inception_4a/output <- inception_4a/pool_proj
I0714 22:06:02.288883 21615 net.cpp:148] Top shape: 10 64 14 14 (125440)
I0714 22:06:02.288888 21619 net.cpp:399] inception_4a/output -> inception_4a/output
I0714 22:06:02.288889 21615 net.cpp:156] Memory required for data: 369044480
I0714 22:06:02.288911 21615 layer_factory.hpp:77] Creating layer inception_4a/relu_pool_proj
I0714 22:06:02.288921 21615 net.cpp:91] Creating Layer inception_4a/relu_pool_proj
I0714 22:06:02.288928 21615 net.cpp:425] inception_4a/relu_pool_proj <- inception_4a/pool_proj
I0714 22:06:02.288940 21615 net.cpp:386] inception_4a/relu_pool_proj -> inception_4a/pool_proj (in-place)
I0714 22:06:02.289727 21619 net.cpp:141] Setting up inception_4a/output
I0714 22:06:02.289742 21619 net.cpp:148] Top shape: 10 512 14 14 (1003520)
I0714 22:06:02.289747 21619 net.cpp:156] Memory required for data: 373560320
I0714 22:06:02.289752 21619 layer_factory.hpp:77] Creating layer inception_4a/output_inception_4a/output_0_split
I0714 22:06:02.289762 21619 net.cpp:91] Creating Layer inception_4a/output_inception_4a/output_0_split
I0714 22:06:02.289768 21619 net.cpp:425] inception_4a/output_inception_4a/output_0_split <- inception_4a/output
I0714 22:06:02.289778 21619 net.cpp:399] inception_4a/output_inception_4a/output_0_split -> inception_4a/output_inception_4a/output_0_split_0
I0714 22:06:02.289789 21619 net.cpp:399] inception_4a/output_inception_4a/output_0_split -> inception_4a/output_inception_4a/output_0_split_1
I0714 22:06:02.289798 21619 net.cpp:399] inception_4a/output_inception_4a/output_0_split -> inception_4a/output_inception_4a/output_0_split_2
I0714 22:06:02.289806 21619 net.cpp:399] inception_4a/output_inception_4a/output_0_split -> inception_4a/output_inception_4a/output_0_split_3
I0714 22:06:02.289834 21615 net.cpp:141] Setting up inception_4a/relu_pool_proj
I0714 22:06:02.289849 21615 net.cpp:148] Top shape: 10 64 14 14 (125440)
I0714 22:06:02.289854 21615 net.cpp:156] Memory required for data: 369546240
I0714 22:06:02.289860 21615 layer_factory.hpp:77] Creating layer inception_4a/output
I0714 22:06:02.289868 21615 net.cpp:91] Creating Layer inception_4a/output
I0714 22:06:02.289875 21615 net.cpp:425] inception_4a/output <- inception_4a/1x1
I0714 22:06:02.289886 21615 net.cpp:425] inception_4a/output <- inception_4a/3x3
I0714 22:06:02.289892 21615 net.cpp:425] inception_4a/output <- inception_4a/5x5
I0714 22:06:02.289898 21615 net.cpp:425] inception_4a/output <- inception_4a/pool_proj
I0714 22:06:02.289906 21615 net.cpp:399] inception_4a/output -> inception_4a/output
I0714 22:06:02.290071 21615 net.cpp:141] Setting up inception_4a/output
I0714 22:06:02.290082 21615 net.cpp:148] Top shape: 10 512 14 14 (1003520)
I0714 22:06:02.290087 21615 net.cpp:156] Memory required for data: 373560320
I0714 22:06:02.290092 21615 layer_factory.hpp:77] Creating layer inception_4a/output_inception_4a/output_0_split
I0714 22:06:02.290103 21619 net.cpp:141] Setting up inception_4a/output_inception_4a/output_0_split
I0714 22:06:02.290107 21615 net.cpp:91] Creating Layer inception_4a/output_inception_4a/output_0_split
I0714 22:06:02.290119 21619 net.cpp:148] Top shape: 10 512 14 14 (1003520)
I0714 22:06:02.290124 21615 net.cpp:425] inception_4a/output_inception_4a/output_0_split <- inception_4a/output
I0714 22:06:02.290127 21619 net.cpp:148] Top shape: 10 512 14 14 (1003520)
I0714 22:06:02.290133 21619 net.cpp:148] Top shape: 10 512 14 14 (1003520)
I0714 22:06:02.290134 21615 net.cpp:399] inception_4a/output_inception_4a/output_0_split -> inception_4a/output_inception_4a/output_0_split_0
I0714 22:06:02.290139 21619 net.cpp:148] Top shape: 10 512 14 14 (1003520)
I0714 22:06:02.290144 21619 net.cpp:156] Memory required for data: 389616640
I0714 22:06:02.290146 21615 net.cpp:399] inception_4a/output_inception_4a/output_0_split -> inception_4a/output_inception_4a/output_0_split_1
I0714 22:06:02.290149 21619 layer_factory.hpp:77] Creating layer inception_4b/1x1
I0714 22:06:02.290163 21615 net.cpp:399] inception_4a/output_inception_4a/output_0_split -> inception_4a/output_inception_4a/output_0_split_2
I0714 22:06:02.290172 21615 net.cpp:399] inception_4a/output_inception_4a/output_0_split -> inception_4a/output_inception_4a/output_0_split_3
I0714 22:06:02.290179 21619 net.cpp:91] Creating Layer inception_4b/1x1
I0714 22:06:02.290186 21619 net.cpp:425] inception_4b/1x1 <- inception_4a/output_inception_4a/output_0_split_0
I0714 22:06:02.290197 21619 net.cpp:399] inception_4b/1x1 -> inception_4b/1x1
I0714 22:06:02.290716 21615 net.cpp:141] Setting up inception_4a/output_inception_4a/output_0_split
I0714 22:06:02.290730 21615 net.cpp:148] Top shape: 10 512 14 14 (1003520)
I0714 22:06:02.290736 21615 net.cpp:148] Top shape: 10 512 14 14 (1003520)
I0714 22:06:02.290742 21615 net.cpp:148] Top shape: 10 512 14 14 (1003520)
I0714 22:06:02.290747 21615 net.cpp:148] Top shape: 10 512 14 14 (1003520)
I0714 22:06:02.290752 21615 net.cpp:156] Memory required for data: 389616640
I0714 22:06:02.290757 21615 layer_factory.hpp:77] Creating layer inception_4b/1x1
I0714 22:06:02.290776 21615 net.cpp:91] Creating Layer inception_4b/1x1
I0714 22:06:02.290782 21615 net.cpp:425] inception_4b/1x1 <- inception_4a/output_inception_4a/output_0_split_0
I0714 22:06:02.290792 21615 net.cpp:399] inception_4b/1x1 -> inception_4b/1x1
I0714 22:06:02.295254 21619 net.cpp:141] Setting up inception_4b/1x1
I0714 22:06:02.295274 21619 net.cpp:148] Top shape: 10 160 14 14 (313600)
I0714 22:06:02.295280 21619 net.cpp:156] Memory required for data: 390871040
I0714 22:06:02.295290 21619 layer_factory.hpp:77] Creating layer inception_4b/relu_1x1
I0714 22:06:02.295300 21619 net.cpp:91] Creating Layer inception_4b/relu_1x1
I0714 22:06:02.295307 21619 net.cpp:425] inception_4b/relu_1x1 <- inception_4b/1x1
I0714 22:06:02.295320 21619 net.cpp:386] inception_4b/relu_1x1 -> inception_4b/1x1 (in-place)
I0714 22:06:02.295713 21615 net.cpp:141] Setting up inception_4b/1x1
I0714 22:06:02.295729 21615 net.cpp:148] Top shape: 10 160 14 14 (313600)
I0714 22:06:02.295735 21615 net.cpp:156] Memory required for data: 390871040
I0714 22:06:02.295747 21615 layer_factory.hpp:77] Creating layer inception_4b/relu_1x1
I0714 22:06:02.295748 21619 net.cpp:141] Setting up inception_4b/relu_1x1
I0714 22:06:02.295758 21615 net.cpp:91] Creating Layer inception_4b/relu_1x1
I0714 22:06:02.295766 21615 net.cpp:425] inception_4b/relu_1x1 <- inception_4b/1x1
I0714 22:06:02.295766 21619 net.cpp:148] Top shape: 10 160 14 14 (313600)
I0714 22:06:02.295779 21615 net.cpp:386] inception_4b/relu_1x1 -> inception_4b/1x1 (in-place)
I0714 22:06:02.295783 21619 net.cpp:156] Memory required for data: 392125440
I0714 22:06:02.295789 21619 layer_factory.hpp:77] Creating layer inception_4b/3x3_reduce
I0714 22:06:02.295809 21619 net.cpp:91] Creating Layer inception_4b/3x3_reduce
I0714 22:06:02.295815 21619 net.cpp:425] inception_4b/3x3_reduce <- inception_4a/output_inception_4a/output_0_split_1
I0714 22:06:02.295825 21619 net.cpp:399] inception_4b/3x3_reduce -> inception_4b/3x3_reduce
I0714 22:06:02.296268 21615 net.cpp:141] Setting up inception_4b/relu_1x1
I0714 22:06:02.296281 21615 net.cpp:148] Top shape: 10 160 14 14 (313600)
I0714 22:06:02.296286 21615 net.cpp:156] Memory required for data: 392125440
I0714 22:06:02.296293 21615 layer_factory.hpp:77] Creating layer inception_4b/3x3_reduce
I0714 22:06:02.296309 21615 net.cpp:91] Creating Layer inception_4b/3x3_reduce
I0714 22:06:02.296316 21615 net.cpp:425] inception_4b/3x3_reduce <- inception_4a/output_inception_4a/output_0_split_1
I0714 22:06:02.296330 21615 net.cpp:399] inception_4b/3x3_reduce -> inception_4b/3x3_reduce
I0714 22:06:02.300987 21619 net.cpp:141] Setting up inception_4b/3x3_reduce
I0714 22:06:02.301008 21619 net.cpp:148] Top shape: 10 112 14 14 (219520)
I0714 22:06:02.301014 21619 net.cpp:156] Memory required for data: 393003520
I0714 22:06:02.301024 21619 layer_factory.hpp:77] Creating layer inception_4b/relu_3x3_reduce
I0714 22:06:02.301038 21619 net.cpp:91] Creating Layer inception_4b/relu_3x3_reduce
I0714 22:06:02.301044 21619 net.cpp:425] inception_4b/relu_3x3_reduce <- inception_4b/3x3_reduce
I0714 22:06:02.301053 21619 net.cpp:386] inception_4b/relu_3x3_reduce -> inception_4b/3x3_reduce (in-place)
I0714 22:06:02.301483 21619 net.cpp:141] Setting up inception_4b/relu_3x3_reduce
I0714 22:06:02.301488 21615 net.cpp:141] Setting up inception_4b/3x3_reduce
I0714 22:06:02.301497 21619 net.cpp:148] Top shape: 10 112 14 14 (219520)
I0714 22:06:02.301503 21619 net.cpp:156] Memory required for data: 393881600
I0714 22:06:02.301506 21615 net.cpp:148] Top shape: 10 112 14 14 (219520)
I0714 22:06:02.301509 21619 layer_factory.hpp:77] Creating layer inception_4b/3x3
I0714 22:06:02.301512 21615 net.cpp:156] Memory required for data: 393003520
I0714 22:06:02.301523 21615 layer_factory.hpp:77] Creating layer inception_4b/relu_3x3_reduce
I0714 22:06:02.301532 21619 net.cpp:91] Creating Layer inception_4b/3x3
I0714 22:06:02.301537 21615 net.cpp:91] Creating Layer inception_4b/relu_3x3_reduce
I0714 22:06:02.301540 21619 net.cpp:425] inception_4b/3x3 <- inception_4b/3x3_reduce
I0714 22:06:02.301545 21615 net.cpp:425] inception_4b/relu_3x3_reduce <- inception_4b/3x3_reduce
I0714 22:06:02.301551 21619 net.cpp:399] inception_4b/3x3 -> inception_4b/3x3
I0714 22:06:02.301558 21615 net.cpp:386] inception_4b/relu_3x3_reduce -> inception_4b/3x3_reduce (in-place)
I0714 22:06:02.302026 21615 net.cpp:141] Setting up inception_4b/relu_3x3_reduce
I0714 22:06:02.302040 21615 net.cpp:148] Top shape: 10 112 14 14 (219520)
I0714 22:06:02.302045 21615 net.cpp:156] Memory required for data: 393881600
I0714 22:06:02.302050 21615 layer_factory.hpp:77] Creating layer inception_4b/3x3
I0714 22:06:02.302070 21615 net.cpp:91] Creating Layer inception_4b/3x3
I0714 22:06:02.302078 21615 net.cpp:425] inception_4b/3x3 <- inception_4b/3x3_reduce
I0714 22:06:02.302088 21615 net.cpp:399] inception_4b/3x3 -> inception_4b/3x3
I0714 22:06:02.311097 21619 net.cpp:141] Setting up inception_4b/3x3
I0714 22:06:02.311118 21619 net.cpp:148] Top shape: 10 224 14 14 (439040)
I0714 22:06:02.311123 21619 net.cpp:156] Memory required for data: 395637760
I0714 22:06:02.311134 21619 layer_factory.hpp:77] Creating layer inception_4b/relu_3x3
I0714 22:06:02.311144 21619 net.cpp:91] Creating Layer inception_4b/relu_3x3
I0714 22:06:02.311151 21619 net.cpp:425] inception_4b/relu_3x3 <- inception_4b/3x3
I0714 22:06:02.311162 21619 net.cpp:386] inception_4b/relu_3x3 -> inception_4b/3x3 (in-place)
I0714 22:06:02.312597 21619 net.cpp:141] Setting up inception_4b/relu_3x3
I0714 22:06:02.312615 21619 net.cpp:148] Top shape: 10 224 14 14 (439040)
I0714 22:06:02.312620 21619 net.cpp:156] Memory required for data: 397393920
I0714 22:06:02.312626 21619 layer_factory.hpp:77] Creating layer inception_4b/5x5_reduce
I0714 22:06:02.312657 21619 net.cpp:91] Creating Layer inception_4b/5x5_reduce
I0714 22:06:02.312664 21619 net.cpp:425] inception_4b/5x5_reduce <- inception_4a/output_inception_4a/output_0_split_2
I0714 22:06:02.312677 21619 net.cpp:399] inception_4b/5x5_reduce -> inception_4b/5x5_reduce
I0714 22:06:02.312750 21615 net.cpp:141] Setting up inception_4b/3x3
I0714 22:06:02.312767 21615 net.cpp:148] Top shape: 10 224 14 14 (439040)
I0714 22:06:02.312773 21615 net.cpp:156] Memory required for data: 395637760
I0714 22:06:02.312783 21615 layer_factory.hpp:77] Creating layer inception_4b/relu_3x3
I0714 22:06:02.312795 21615 net.cpp:91] Creating Layer inception_4b/relu_3x3
I0714 22:06:02.312803 21615 net.cpp:425] inception_4b/relu_3x3 <- inception_4b/3x3
I0714 22:06:02.312810 21615 net.cpp:386] inception_4b/relu_3x3 -> inception_4b/3x3 (in-place)
I0714 22:06:02.313812 21615 net.cpp:141] Setting up inception_4b/relu_3x3
I0714 22:06:02.313832 21615 net.cpp:148] Top shape: 10 224 14 14 (439040)
I0714 22:06:02.313838 21615 net.cpp:156] Memory required for data: 397393920
I0714 22:06:02.313843 21615 layer_factory.hpp:77] Creating layer inception_4b/5x5_reduce
I0714 22:06:02.313874 21615 net.cpp:91] Creating Layer inception_4b/5x5_reduce
I0714 22:06:02.313880 21615 net.cpp:425] inception_4b/5x5_reduce <- inception_4a/output_inception_4a/output_0_split_2
I0714 22:06:02.313894 21615 net.cpp:399] inception_4b/5x5_reduce -> inception_4b/5x5_reduce
I0714 22:06:02.318878 21619 net.cpp:141] Setting up inception_4b/5x5_reduce
I0714 22:06:02.318902 21619 net.cpp:148] Top shape: 10 24 14 14 (47040)
I0714 22:06:02.318908 21619 net.cpp:156] Memory required for data: 397582080
I0714 22:06:02.318919 21619 layer_factory.hpp:77] Creating layer inception_4b/relu_5x5_reduce
I0714 22:06:02.318929 21619 net.cpp:91] Creating Layer inception_4b/relu_5x5_reduce
I0714 22:06:02.318935 21619 net.cpp:425] inception_4b/relu_5x5_reduce <- inception_4b/5x5_reduce
I0714 22:06:02.318943 21619 net.cpp:386] inception_4b/relu_5x5_reduce -> inception_4b/5x5_reduce (in-place)
I0714 22:06:02.319408 21619 net.cpp:141] Setting up inception_4b/relu_5x5_reduce
I0714 22:06:02.319423 21619 net.cpp:148] Top shape: 10 24 14 14 (47040)
I0714 22:06:02.319429 21619 net.cpp:156] Memory required for data: 397770240
I0714 22:06:02.319434 21619 layer_factory.hpp:77] Creating layer inception_4b/5x5
I0714 22:06:02.319453 21619 net.cpp:91] Creating Layer inception_4b/5x5
I0714 22:06:02.319458 21619 net.cpp:425] inception_4b/5x5 <- inception_4b/5x5_reduce
I0714 22:06:02.319473 21619 net.cpp:399] inception_4b/5x5 -> inception_4b/5x5
I0714 22:06:02.319522 21615 net.cpp:141] Setting up inception_4b/5x5_reduce
I0714 22:06:02.319540 21615 net.cpp:148] Top shape: 10 24 14 14 (47040)
I0714 22:06:02.319545 21615 net.cpp:156] Memory required for data: 397582080
I0714 22:06:02.319555 21615 layer_factory.hpp:77] Creating layer inception_4b/relu_5x5_reduce
I0714 22:06:02.319567 21615 net.cpp:91] Creating Layer inception_4b/relu_5x5_reduce
I0714 22:06:02.319574 21615 net.cpp:425] inception_4b/relu_5x5_reduce <- inception_4b/5x5_reduce
I0714 22:06:02.319582 21615 net.cpp:386] inception_4b/relu_5x5_reduce -> inception_4b/5x5_reduce (in-place)
I0714 22:06:02.320030 21615 net.cpp:141] Setting up inception_4b/relu_5x5_reduce
I0714 22:06:02.320044 21615 net.cpp:148] Top shape: 10 24 14 14 (47040)
I0714 22:06:02.320049 21615 net.cpp:156] Memory required for data: 397770240
I0714 22:06:02.320055 21615 layer_factory.hpp:77] Creating layer inception_4b/5x5
I0714 22:06:02.320075 21615 net.cpp:91] Creating Layer inception_4b/5x5
I0714 22:06:02.320082 21615 net.cpp:425] inception_4b/5x5 <- inception_4b/5x5_reduce
I0714 22:06:02.320092 21615 net.cpp:399] inception_4b/5x5 -> inception_4b/5x5
I0714 22:06:02.327865 21619 net.cpp:141] Setting up inception_4b/5x5
I0714 22:06:02.327886 21619 net.cpp:148] Top shape: 10 64 14 14 (125440)
I0714 22:06:02.327893 21619 net.cpp:156] Memory required for data: 398272000
I0714 22:06:02.327903 21619 layer_factory.hpp:77] Creating layer inception_4b/relu_5x5
I0714 22:06:02.327918 21619 net.cpp:91] Creating Layer inception_4b/relu_5x5
I0714 22:06:02.327924 21619 net.cpp:425] inception_4b/relu_5x5 <- inception_4b/5x5
I0714 22:06:02.327934 21619 net.cpp:386] inception_4b/relu_5x5 -> inception_4b/5x5 (in-place)
I0714 22:06:02.328369 21619 net.cpp:141] Setting up inception_4b/relu_5x5
I0714 22:06:02.328382 21619 net.cpp:148] Top shape: 10 64 14 14 (125440)
I0714 22:06:02.328387 21619 net.cpp:156] Memory required for data: 398773760
I0714 22:06:02.328393 21619 layer_factory.hpp:77] Creating layer inception_4b/pool
I0714 22:06:02.328403 21619 net.cpp:91] Creating Layer inception_4b/pool
I0714 22:06:02.328409 21619 net.cpp:425] inception_4b/pool <- inception_4a/output_inception_4a/output_0_split_3
I0714 22:06:02.328408 21615 net.cpp:141] Setting up inception_4b/5x5
I0714 22:06:02.328424 21619 net.cpp:399] inception_4b/pool -> inception_4b/pool
I0714 22:06:02.328428 21615 net.cpp:148] Top shape: 10 64 14 14 (125440)
I0714 22:06:02.328435 21615 net.cpp:156] Memory required for data: 398272000
I0714 22:06:02.328445 21615 layer_factory.hpp:77] Creating layer inception_4b/relu_5x5
I0714 22:06:02.328455 21615 net.cpp:91] Creating Layer inception_4b/relu_5x5
I0714 22:06:02.328462 21615 net.cpp:425] inception_4b/relu_5x5 <- inception_4b/5x5
I0714 22:06:02.328474 21615 net.cpp:386] inception_4b/relu_5x5 -> inception_4b/5x5 (in-place)
I0714 22:06:02.328776 21619 net.cpp:141] Setting up inception_4b/pool
I0714 22:06:02.328790 21619 net.cpp:148] Top shape: 10 512 14 14 (1003520)
I0714 22:06:02.328794 21619 net.cpp:156] Memory required for data: 402787840
I0714 22:06:02.328800 21619 layer_factory.hpp:77] Creating layer inception_4b/pool_proj
I0714 22:06:02.328819 21619 net.cpp:91] Creating Layer inception_4b/pool_proj
I0714 22:06:02.328825 21619 net.cpp:425] inception_4b/pool_proj <- inception_4b/pool
I0714 22:06:02.328835 21619 net.cpp:399] inception_4b/pool_proj -> inception_4b/pool_proj
I0714 22:06:02.328876 21615 net.cpp:141] Setting up inception_4b/relu_5x5
I0714 22:06:02.328891 21615 net.cpp:148] Top shape: 10 64 14 14 (125440)
I0714 22:06:02.328896 21615 net.cpp:156] Memory required for data: 398773760
I0714 22:06:02.328902 21615 layer_factory.hpp:77] Creating layer inception_4b/pool
I0714 22:06:02.328914 21615 net.cpp:91] Creating Layer inception_4b/pool
I0714 22:06:02.328922 21615 net.cpp:425] inception_4b/pool <- inception_4a/output_inception_4a/output_0_split_3
I0714 22:06:02.328929 21615 net.cpp:399] inception_4b/pool -> inception_4b/pool
I0714 22:06:02.329309 21615 net.cpp:141] Setting up inception_4b/pool
I0714 22:06:02.329322 21615 net.cpp:148] Top shape: 10 512 14 14 (1003520)
I0714 22:06:02.329326 21615 net.cpp:156] Memory required for data: 402787840
I0714 22:06:02.329332 21615 layer_factory.hpp:77] Creating layer inception_4b/pool_proj
I0714 22:06:02.329349 21615 net.cpp:91] Creating Layer inception_4b/pool_proj
I0714 22:06:02.329355 21615 net.cpp:425] inception_4b/pool_proj <- inception_4b/pool
I0714 22:06:02.329370 21615 net.cpp:399] inception_4b/pool_proj -> inception_4b/pool_proj
I0714 22:06:02.333470 21619 net.cpp:141] Setting up inception_4b/pool_proj
I0714 22:06:02.333494 21619 net.cpp:148] Top shape: 10 64 14 14 (125440)
I0714 22:06:02.333500 21619 net.cpp:156] Memory required for data: 403289600
I0714 22:06:02.333510 21619 layer_factory.hpp:77] Creating layer inception_4b/relu_pool_proj
I0714 22:06:02.333520 21619 net.cpp:91] Creating Layer inception_4b/relu_pool_proj
I0714 22:06:02.333528 21619 net.cpp:425] inception_4b/relu_pool_proj <- inception_4b/pool_proj
I0714 22:06:02.333535 21619 net.cpp:386] inception_4b/relu_pool_proj -> inception_4b/pool_proj (in-place)
I0714 22:06:02.334617 21619 net.cpp:141] Setting up inception_4b/relu_pool_proj
I0714 22:06:02.334635 21619 net.cpp:148] Top shape: 10 64 14 14 (125440)
I0714 22:06:02.334640 21619 net.cpp:156] Memory required for data: 403791360
I0714 22:06:02.334645 21619 layer_factory.hpp:77] Creating layer inception_4b/output
I0714 22:06:02.334656 21619 net.cpp:91] Creating Layer inception_4b/output
I0714 22:06:02.334661 21619 net.cpp:425] inception_4b/output <- inception_4b/1x1
I0714 22:06:02.334669 21619 net.cpp:425] inception_4b/output <- inception_4b/3x3
I0714 22:06:02.334674 21619 net.cpp:425] inception_4b/output <- inception_4b/5x5
I0714 22:06:02.334681 21619 net.cpp:425] inception_4b/output <- inception_4b/pool_proj
I0714 22:06:02.334697 21619 net.cpp:399] inception_4b/output -> inception_4b/output
I0714 22:06:02.334746 21615 net.cpp:141] Setting up inception_4b/pool_proj
I0714 22:06:02.334764 21615 net.cpp:148] Top shape: 10 64 14 14 (125440)
I0714 22:06:02.334770 21615 net.cpp:156] Memory required for data: 403289600
I0714 22:06:02.334780 21615 layer_factory.hpp:77] Creating layer inception_4b/relu_pool_proj
I0714 22:06:02.334794 21615 net.cpp:91] Creating Layer inception_4b/relu_pool_proj
I0714 22:06:02.334796 21619 net.cpp:141] Setting up inception_4b/output
I0714 22:06:02.334800 21615 net.cpp:425] inception_4b/relu_pool_proj <- inception_4b/pool_proj
I0714 22:06:02.334813 21619 net.cpp:148] Top shape: 10 512 14 14 (1003520)
I0714 22:06:02.334818 21619 net.cpp:156] Memory required for data: 407805440
I0714 22:06:02.334821 21615 net.cpp:386] inception_4b/relu_pool_proj -> inception_4b/pool_proj (in-place)
I0714 22:06:02.334825 21619 layer_factory.hpp:77] Creating layer inception_4b/output_inception_4b/output_0_split
I0714 22:06:02.334835 21619 net.cpp:91] Creating Layer inception_4b/output_inception_4b/output_0_split
I0714 22:06:02.334841 21619 net.cpp:425] inception_4b/output_inception_4b/output_0_split <- inception_4b/output
I0714 22:06:02.334862 21619 net.cpp:399] inception_4b/output_inception_4b/output_0_split -> inception_4b/output_inception_4b/output_0_split_0
I0714 22:06:02.334874 21619 net.cpp:399] inception_4b/output_inception_4b/output_0_split -> inception_4b/output_inception_4b/output_0_split_1
I0714 22:06:02.334883 21619 net.cpp:399] inception_4b/output_inception_4b/output_0_split -> inception_4b/output_inception_4b/output_0_split_2
I0714 22:06:02.334892 21619 net.cpp:399] inception_4b/output_inception_4b/output_0_split -> inception_4b/output_inception_4b/output_0_split_3
I0714 22:06:02.335875 21619 net.cpp:141] Setting up inception_4b/output_inception_4b/output_0_split
I0714 22:06:02.335888 21615 net.cpp:141] Setting up inception_4b/relu_pool_proj
I0714 22:06:02.335888 21619 net.cpp:148] Top shape: 10 512 14 14 (1003520)
I0714 22:06:02.335909 21615 net.cpp:148] Top shape: 10 64 14 14 (125440)
I0714 22:06:02.335914 21619 net.cpp:148] Top shape: 10 512 14 14 (1003520)
I0714 22:06:02.335916 21615 net.cpp:156] Memory required for data: 403791360
I0714 22:06:02.335922 21619 net.cpp:148] Top shape: 10 512 14 14 (1003520)
I0714 22:06:02.335923 21615 layer_factory.hpp:77] Creating layer inception_4b/output
I0714 22:06:02.335929 21619 net.cpp:148] Top shape: 10 512 14 14 (1003520)
I0714 22:06:02.335933 21619 net.cpp:156] Memory required for data: 423861760
I0714 22:06:02.335937 21615 net.cpp:91] Creating Layer inception_4b/output
I0714 22:06:02.335939 21619 layer_factory.hpp:77] Creating layer inception_4c/1x1
I0714 22:06:02.335944 21615 net.cpp:425] inception_4b/output <- inception_4b/1x1
I0714 22:06:02.335953 21615 net.cpp:425] inception_4b/output <- inception_4b/3x3
I0714 22:06:02.335958 21619 net.cpp:91] Creating Layer inception_4c/1x1
…
I0714 22:06:02.487377 21619 net.cpp:386] inception_4e/relu_pool_proj -> inception_4e/pool_proj (in-place)
I0714 22:06:02.488435 21619 net.cpp:141] Setting up inception_4e/relu_pool_proj
I0714 22:06:02.488453 21619 net.cpp:148] Top shape: 10 128 14 14 (250880)
I0714 22:06:02.488459 21619 net.cpp:156] Memory required for data: 514304000
I0714 22:06:02.488466 21619 layer_factory.hpp:77] Creating layer inception_4e/output
I0714 22:06:02.488481 21619 net.cpp:91] Creating Layer inception_4e/output
I0714 22:06:02.488487 21619 net.cpp:425] inception_4e/output <- inception_4e/1x1
I0714 22:06:02.488494 21619 net.cpp:425] inception_4e/output <- inception_4e/3x3
I0714 22:06:02.488502 21619 net.cpp:425] inception_4e/output <- inception_4e/5x5
I0714 22:06:02.488507 21619 net.cpp:425] inception_4e/output <- inception_4e/pool_proj
I0714 22:06:02.488514 21619 net.cpp:399] inception_4e/output -> inception_4e/output
I0714 22:06:02.488700 21619 net.cpp:141] Setting up inception_4e/output
I0714 22:06:02.488713 21619 net.cpp:148] Top shape: 10 832 14 14 (1630720)
I0714 22:06:02.488718 21619 net.cpp:156] Memory required for data: 520826880
I0714 22:06:02.488723 21619 layer_factory.hpp:77] Creating layer pool4/3x3_s2
I0714 22:06:02.488737 21619 net.cpp:91] Creating Layer pool4/3x3_s2
I0714 22:06:02.488744 21619 net.cpp:425] pool4/3x3_s2 <- inception_4e/output
I0714 22:06:02.488754 21619 net.cpp:399] pool4/3x3_s2 -> pool4/3x3_s2
I0714 22:06:02.488972 21619 net.cpp:141] Setting up pool4/3x3_s2
I0714 22:06:02.488984 21619 net.cpp:148] Top shape: 10 832 7 7 (407680)
I0714 22:06:02.488988 21619 net.cpp:156] Memory required for data: 522457600
I0714 22:06:02.488993 21619 layer_factory.hpp:77] Creating layer pool4/3x3_s2_pool4/3x3_s2_0_split
I0714 22:06:02.489008 21619 net.cpp:91] Creating Layer pool4/3x3_s2_pool4/3x3_s2_0_split
I0714 22:06:02.489013 21619 net.cpp:425] pool4/3x3_s2_pool4/3x3_s2_0_split <- pool4/3x3_s2
I0714 22:06:02.489022 21619 net.cpp:399] pool4/3x3_s2_pool4/3x3_s2_0_split -> pool4/3x3_s2_pool4/3x3_s2_0_split_0
I0714 22:06:02.489033 21619 net.cpp:399] pool4/3x3_s2_pool4/3x3_s2_0_split -> pool4/3x3_s2_pool4/3x3_s2_0_split_1
I0714 22:06:02.489042 21619 net.cpp:399] pool4/3x3_s2_pool4/3x3_s2_0_split -> pool4/3x3_s2_pool4/3x3_s2_0_split_2
I0714 22:06:02.489051 21619 net.cpp:399] pool4/3x3_s2_pool4/3x3_s2_0_split -> pool4/3x3_s2_pool4/3x3_s2_0_split_3
I0714 22:06:02.489688 21619 net.cpp:141] Setting up pool4/3x3_s2_pool4/3x3_s2_0_split
I0714 22:06:02.489701 21619 net.cpp:148] Top shape: 10 832 7 7 (407680)
I0714 22:06:02.489706 21619 net.cpp:148] Top shape: 10 832 7 7 (407680)
I0714 22:06:02.489712 21619 net.cpp:148] Top shape: 10 832 7 7 (407680)
I0714 22:06:02.489718 21619 net.cpp:148] Top shape: 10 832 7 7 (407680)
I0714 22:06:02.489722 21619 net.cpp:156] Memory required for data: 528980480
I0714 22:06:02.489727 21619 layer_factory.hpp:77] Creating layer inception_5a/1x1
I0714 22:06:02.489747 21619 net.cpp:91] Creating Layer inception_5a/1x1
I0714 22:06:02.489753 21619 net.cpp:425] inception_5a/1x1 <- pool4/3x3_s2_pool4/3x3_s2_0_split_0
I0714 22:06:02.489763 21619 net.cpp:399] inception_5a/1x1 -> inception_5a/1x1
I0714 22:06:02.494177 21615 net.cpp:141] Setting up inception_4e/5x5_reduce
I0714 22:06:02.494199 21615 net.cpp:148] Top shape: 10 32 14 14 (62720)
I0714 22:06:02.494205 21615 net.cpp:156] Memory required for data: 505899520
I0714 22:06:02.494216 21615 layer_factory.hpp:77] Creating layer inception_4e/relu_5x5_reduce
I0714 22:06:02.494227 21615 net.cpp:91] Creating Layer inception_4e/relu_5x5_reduce
I0714 22:06:02.494237 21615 net.cpp:425] inception_4e/relu_5x5_reduce <- inception_4e/5x5_reduce
I0714 22:06:02.494246 21615 net.cpp:386] inception_4e/relu_5x5_reduce -> inception_4e/5x5_reduce (in-place)
I0714 22:06:02.494547 21615 net.cpp:141] Setting up inception_4e/relu_5x5_reduce
I0714 22:06:02.494560 21615 net.cpp:148] Top shape: 10 32 14 14 (62720)
I0714 22:06:02.494565 21615 net.cpp:156] Memory required for data: 506150400
I0714 22:06:02.494570 21615 layer_factory.hpp:77] Creating layer inception_4e/5x5
I0714 22:06:02.494591 21615 net.cpp:91] Creating Layer inception_4e/5x5
I0714 22:06:02.494598 21615 net.cpp:425] inception_4e/5x5 <- inception_4e/5x5_reduce
I0714 22:06:02.494608 21615 net.cpp:399] inception_4e/5x5 -> inception_4e/5x5
I0714 22:06:02.500993 21619 net.cpp:141] Setting up inception_5a/1x1
I0714 22:06:02.501014 21619 net.cpp:148] Top shape: 10 256 7 7 (125440)
I0714 22:06:02.501020 21619 net.cpp:156] Memory required for data: 529482240
I0714 22:06:02.501030 21619 layer_factory.hpp:77] Creating layer inception_5a/relu_1x1
I0714 22:06:02.501044 21619 net.cpp:91] Creating Layer inception_5a/relu_1x1
I0714 22:06:02.501050 21619 net.cpp:425] inception_5a/relu_1x1 <- inception_5a/1x1
I0714 22:06:02.501060 21619 net.cpp:386] inception_5a/relu_1x1 -> inception_5a/1x1 (in-place)
I0714 22:06:02.501466 21615 net.cpp:141] Setting up inception_4e/5x5
I0714 22:06:02.501484 21615 net.cpp:148] Top shape: 10 128 14 14 (250880)
I0714 22:06:02.501490 21615 net.cpp:156] Memory required for data: 507153920
I0714 22:06:02.501500 21615 layer_factory.hpp:77] Creating layer inception_4e/relu_5x5
I0714 22:06:02.501510 21615 net.cpp:91] Creating Layer inception_4e/relu_5x5
I0714 22:06:02.501516 21615 net.cpp:425] inception_4e/relu_5x5 <- inception_4e/5x5
I0714 22:06:02.501531 21615 net.cpp:386] inception_4e/relu_5x5 -> inception_4e/5x5 (in-place)
I0714 22:06:02.501550 21619 net.cpp:141] Setting up inception_5a/relu_1x1
I0714 22:06:02.501565 21619 net.cpp:148] Top shape: 10 256 7 7 (125440)
I0714 22:06:02.501570 21619 net.cpp:156] Memory required for data: 529984000
I0714 22:06:02.501575 21619 layer_factory.hpp:77] Creating layer inception_5a/3x3_reduce
I0714 22:06:02.501595 21619 net.cpp:91] Creating Layer inception_5a/3x3_reduce
I0714 22:06:02.501602 21619 net.cpp:425] inception_5a/3x3_reduce <- pool4/3x3_s2_pool4/3x3_s2_0_split_1
I0714 22:06:02.501613 21619 net.cpp:399] inception_5a/3x3_reduce -> inception_5a/3x3_reduce
I0714 22:06:02.502055 21615 net.cpp:141] Setting up inception_4e/relu_5x5
I0714 22:06:02.502069 21615 net.cpp:148] Top shape: 10 128 14 14 (250880)
I0714 22:06:02.502075 21615 net.cpp:156] Memory required for data: 508157440
I0714 22:06:02.502080 21615 layer_factory.hpp:77] Creating layer inception_4e/pool
I0714 22:06:02.502094 21615 net.cpp:91] Creating Layer inception_4e/pool
I0714 22:06:02.502101 21615 net.cpp:425] inception_4e/pool <- inception_4d/output_inception_4d/output_0_split_3
I0714 22:06:02.502111 21615 net.cpp:399] inception_4e/pool -> inception_4e/pool
I0714 22:06:02.502416 21615 net.cpp:141] Setting up inception_4e/pool
I0714 22:06:02.502429 21615 net.cpp:148] Top shape: 10 528 14 14 (1034880)
I0714 22:06:02.502434 21615 net.cpp:156] Memory required for data: 512296960
I0714 22:06:02.502439 21615 layer_factory.hpp:77] Creating layer inception_4e/pool_proj
I0714 22:06:02.502459 21615 net.cpp:91] Creating Layer inception_4e/pool_proj
I0714 22:06:02.502465 21615 net.cpp:425] inception_4e/pool_proj <- inception_4e/pool
I0714 22:06:02.502477 21615 net.cpp:399] inception_4e/pool_proj -> inception_4e/pool_proj
I0714 22:06:02.510587 21615 net.cpp:141] Setting up inception_4e/pool_proj
I0714 22:06:02.510612 21615 net.cpp:148] Top shape: 10 128 14 14 (250880)
I0714 22:06:02.510617 21615 net.cpp:156] Memory required for data: 513300480
I0714 22:06:02.510628 21615 layer_factory.hpp:77] Creating layer inception_4e/relu_pool_proj
I0714 22:06:02.510639 21615 net.cpp:91] Creating Layer inception_4e/relu_pool_proj
I0714 22:06:02.510646 21615 net.cpp:425] inception_4e/relu_pool_proj <- inception_4e/pool_proj
I0714 22:06:02.510658 21615 net.cpp:386] inception_4e/relu_pool_proj -> inception_4e/pool_proj (in-place)
I0714 22:06:02.511780 21615 net.cpp:141] Setting up inception_4e/relu_pool_proj
I0714 22:06:02.511800 21615 net.cpp:148] Top shape: 10 128 14 14 (250880)
I0714 22:06:02.511804 21615 net.cpp:156] Memory required for data: 514304000
I0714 22:06:02.511811 21615 layer_factory.hpp:77] Creating layer inception_4e/output
I0714 22:06:02.511821 21615 net.cpp:91] Creating Layer inception_4e/output
I0714 22:06:02.511826 21615 net.cpp:425] inception_4e/output <- inception_4e/1x1
I0714 22:06:02.511834 21615 net.cpp:425] inception_4e/output <- inception_4e/3x3
I0714 22:06:02.511840 21615 net.cpp:425] inception_4e/output <- inception_4e/5x5
I0714 22:06:02.511847 21615 net.cpp:425] inception_4e/output <- inception_4e/pool_proj
I0714 22:06:02.511858 21615 net.cpp:399] inception_4e/output -> inception_4e/output
I0714 22:06:02.512437 21615 net.cpp:141] Setting up inception_4e/output
I0714 22:06:02.512452 21615 net.cpp:148] Top shape: 10 832 14 14 (1630720)
I0714 22:06:02.512459 21615 net.cpp:156] Memory required for data: 520826880
I0714 22:06:02.512464 21615 layer_factory.hpp:77] Creating layer pool4/3x3_s2
I0714 22:06:02.512478 21615 net.cpp:91] Creating Layer pool4/3x3_s2
I0714 22:06:02.512485 21615 net.cpp:425] pool4/3x3_s2 <- inception_4e/output
I0714 22:06:02.512492 21615 net.cpp:399] pool4/3x3_s2 -> pool4/3x3_s2
I0714 22:06:02.512714 21615 net.cpp:141] Setting up pool4/3x3_s2
I0714 22:06:02.512727 21615 net.cpp:148] Top shape: 10 832 7 7 (407680)
I0714 22:06:02.512732 21615 net.cpp:156] Memory required for data: 522457600
I0714 22:06:02.512737 21615 layer_factory.hpp:77] Creating layer pool4/3x3_s2_pool4/3x3_s2_0_split
I0714 22:06:02.512747 21615 net.cpp:91] Creating Layer pool4/3x3_s2_pool4/3x3_s2_0_split
I0714 22:06:02.512753 21615 net.cpp:425] pool4/3x3_s2_pool4/3x3_s2_0_split <- pool4/3x3_s2
I0714 22:06:02.512763 21615 net.cpp:399] pool4/3x3_s2_pool4/3x3_s2_0_split -> pool4/3x3_s2_pool4/3x3_s2_0_split_0
I0714 22:06:02.512774 21615 net.cpp:399] pool4/3x3_s2_pool4/3x3_s2_0_split -> pool4/3x3_s2_pool4/3x3_s2_0_split_1
I0714 22:06:02.512784 21615 net.cpp:399] pool4/3x3_s2_pool4/3x3_s2_0_split -> pool4/3x3_s2_pool4/3x3_s2_0_split_2
I0714 22:06:02.512791 21615 net.cpp:399] pool4/3x3_s2_pool4/3x3_s2_0_split -> pool4/3x3_s2_pool4/3x3_s2_0_split_3
I0714 22:06:02.513300 21615 net.cpp:141] Setting up pool4/3x3_s2_pool4/3x3_s2_0_split
I0714 22:06:02.513314 21615 net.cpp:148] Top shape: 10 832 7 7 (407680)
I0714 22:06:02.513321 21615 net.cpp:148] Top shape: 10 832 7 7 (407680)
I0714 22:06:02.513327 21615 net.cpp:148] Top shape: 10 832 7 7 (407680)
I0714 22:06:02.513332 21615 net.cpp:148] Top shape: 10 832 7 7 (407680)
I0714 22:06:02.513336 21615 net.cpp:156] Memory required for data: 528980480
I0714 22:06:02.513341 21615 layer_factory.hpp:77] Creating layer inception_5a/1x1
I0714 22:06:02.513356 21615 net.cpp:91] Creating Layer inception_5a/1x1
I0714 22:06:02.513362 21615 net.cpp:425] inception_5a/1x1 <- pool4/3x3_s2_pool4/3x3_s2_0_split_0
I0714 22:06:02.513376 21615 net.cpp:399] inception_5a/1x1 -> inception_5a/1x1
I0714 22:06:02.514063 21619 net.cpp:141] Setting up inception_5a/3x3_reduce
I0714 22:06:02.514097 21619 net.cpp:148] Top shape: 10 160 7 7 (78400)
I0714 22:06:02.514109 21619 net.cpp:156] Memory required for data: 530297600
I0714 22:06:02.514130 21619 layer_factory.hpp:77] Creating layer inception_5a/relu_3x3_reduce
I0714 22:06:02.514149 21619 net.cpp:91] Creating Layer inception_5a/relu_3x3_reduce
I0714 22:06:02.514161 21619 net.cpp:425] inception_5a/relu_3x3_reduce <- inception_5a/3x3_reduce
I0714 22:06:02.514183 21619 net.cpp:386] inception_5a/relu_3x3_reduce -> inception_5a/3x3_reduce (in-place)
I0714 22:06:02.515105 21619 net.cpp:141] Setting up inception_5a/relu_3x3_reduce
I0714 22:06:02.515132 21619 net.cpp:148] Top shape: 10 160 7 7 (78400)
I0714 22:06:02.515142 21619 net.cpp:156] Memory required for data: 530611200
I0714 22:06:02.515152 21619 layer_factory.hpp:77] Creating layer inception_5a/3x3
I0714 22:06:02.515183 21619 net.cpp:91] Creating Layer inception_5a/3x3
I0714 22:06:02.515195 21619 net.cpp:425] inception_5a/3x3 <- inception_5a/3x3_reduce
I0714 22:06:02.515213 21619 net.cpp:399] inception_5a/3x3 -> inception_5a/3x3
I0714 22:06:02.522579 21615 net.cpp:141] Setting up inception_5a/1x1
I0714 22:06:02.522603 21615 net.cpp:148] Top shape: 10 256 7 7 (125440)
I0714 22:06:02.522608 21615 net.cpp:156] Memory required for data: 529482240
I0714 22:06:02.522619 21615 layer_factory.hpp:77] Creating layer inception_5a/relu_1x1
I0714 22:06:02.522634 21615 net.cpp:91] Creating Layer inception_5a/relu_1x1
I0714 22:06:02.522640 21615 net.cpp:425] inception_5a/relu_1x1 <- inception_5a/1x1
I0714 22:06:02.522651 21615 net.cpp:386] inception_5a/relu_1x1 -> inception_5a/1x1 (in-place)
I0714 22:06:02.522961 21615 net.cpp:141] Setting up inception_5a/relu_1x1
I0714 22:06:02.522975 21615 net.cpp:148] Top shape: 10 256 7 7 (125440)
I0714 22:06:02.522980 21615 net.cpp:156] Memory required for data: 529984000
I0714 22:06:02.522986 21615 layer_factory.hpp:77] Creating layer inception_5a/3x3_reduce
I0714 22:06:02.523005 21615 net.cpp:91] Creating Layer inception_5a/3x3_reduce
I0714 22:06:02.523011 21615 net.cpp:425] inception_5a/3x3_reduce <- pool4/3x3_s2_pool4/3x3_s2_0_split_1
I0714 22:06:02.523025 21615 net.cpp:399] inception_5a/3x3_reduce -> inception_5a/3x3_reduce
I0714 22:06:02.530320 21619 net.cpp:141] Setting up inception_5a/3x3
I0714 22:06:02.530346 21619 net.cpp:148] Top shape: 10 320 7 7 (156800)
I0714 22:06:02.530352 21619 net.cpp:156] Memory required for data: 531238400
I0714 22:06:02.530364 21619 layer_factory.hpp:77] Creating layer inception_5a/relu_3x3
I0714 22:06:02.530375 21619 net.cpp:91] Creating Layer inception_5a/relu_3x3
I0714 22:06:02.530382 21619 net.cpp:425] inception_5a/relu_3x3 <- inception_5a/3x3
I0714 22:06:02.530398 21619 net.cpp:386] inception_5a/relu_3x3 -> inception_5a/3x3 (in-place)
I0714 22:06:02.531616 21619 net.cpp:141] Setting up inception_5a/relu_3x3
I0714 22:06:02.531633 21619 net.cpp:148] Top shape: 10 320 7 7 (156800)
I0714 22:06:02.531639 21619 net.cpp:156] Memory required for data: 531865600
I0714 22:06:02.531646 21619 layer_factory.hpp:77] Creating layer inception_5a/5x5_reduce
I0714 22:06:02.531663 21619 net.cpp:91] Creating Layer inception_5a/5x5_reduce
I0714 22:06:02.531672 21619 net.cpp:425] inception_5a/5x5_reduce <- pool4/3x3_s2_pool4/3x3_s2_0_split_2
I0714 22:06:02.531687 21619 net.cpp:399] inception_5a/5x5_reduce -> inception_5a/5x5_reduce
I0714 22:06:02.531905 21615 net.cpp:141] Setting up inception_5a/3x3_reduce
I0714 22:06:02.531929 21615 net.cpp:148] Top shape: 10 160 7 7 (78400)
I0714 22:06:02.531935 21615 net.cpp:156] Memory required for data: 530297600
I0714 22:06:02.531945 21615 layer_factory.hpp:77] Creating layer inception_5a/relu_3x3_reduce
I0714 22:06:02.531956 21615 net.cpp:91] Creating Layer inception_5a/relu_3x3_reduce
I0714 22:06:02.531963 21615 net.cpp:425] inception_5a/relu_3x3_reduce <- inception_5a/3x3_reduce
I0714 22:06:02.531971 21615 net.cpp:386] inception_5a/relu_3x3_reduce -> inception_5a/3x3_reduce (in-place)
I0714 22:06:02.532500 21615 net.cpp:141] Setting up inception_5a/relu_3x3_reduce
I0714 22:06:02.532516 21615 net.cpp:148] Top shape: 10 160 7 7 (78400)
I0714 22:06:02.532521 21615 net.cpp:156] Memory required for data: 530611200
I0714 22:06:02.532527 21615 layer_factory.hpp:77] Creating layer inception_5a/3x3
I0714 22:06:02.532546 21615 net.cpp:91] Creating Layer inception_5a/3x3
I0714 22:06:02.532552 21615 net.cpp:425] inception_5a/3x3 <- inception_5a/3x3_reduce
I0714 22:06:02.532567 21615 net.cpp:399] inception_5a/3x3 -> inception_5a/3x3
I0714 22:06:02.539667 21619 net.cpp:141] Setting up inception_5a/5x5_reduce
I0714 22:06:02.539693 21619 net.cpp:148] Top shape: 10 32 7 7 (15680)
I0714 22:06:02.539700 21619 net.cpp:156] Memory required for data: 531928320
I0714 22:06:02.539711 21619 layer_factory.hpp:77] Creating layer inception_5a/relu_5x5_reduce
I0714 22:06:02.539726 21619 net.cpp:91] Creating Layer inception_5a/relu_5x5_reduce
I0714 22:06:02.539736 21619 net.cpp:425] inception_5a/relu_5x5_reduce <- inception_5a/5x5_reduce
I0714 22:06:02.539744 21619 net.cpp:386] inception_5a/relu_5x5_reduce -> inception_5a/5x5_reduce (in-place)
I0714 22:06:02.540052 21619 net.cpp:141] Setting up inception_5a/relu_5x5_reduce
I0714 22:06:02.540066 21619 net.cpp:148] Top shape: 10 32 7 7 (15680)
I0714 22:06:02.540071 21619 net.cpp:156] Memory required for data: 531991040
I0714 22:06:02.540076 21619 layer_factory.hpp:77] Creating layer inception_5a/5x5
I0714 22:06:02.540094 21619 net.cpp:91] Creating Layer inception_5a/5x5
I0714 22:06:02.540102 21619 net.cpp:425] inception_5a/5x5 <- inception_5a/5x5_reduce
I0714 22:06:02.540113 21619 net.cpp:399] inception_5a/5x5 -> inception_5a/5x5
I0714 22:06:02.545444 21619 net.cpp:141] Setting up inception_5a/5x5
I0714 22:06:02.545464 21619 net.cpp:148] Top shape: 10 128 7 7 (62720)
I0714 22:06:02.545470 21619 net.cpp:156] Memory required for data: 532241920
I0714 22:06:02.545481 21619 layer_factory.hpp:77] Creating layer inception_5a/relu_5x5
I0714 22:06:02.545522 21619 net.cpp:91] Creating Layer inception_5a/relu_5x5
I0714 22:06:02.545529 21619 net.cpp:425] inception_5a/relu_5x5 <- inception_5a/5x5
I0714 22:06:02.545538 21619 net.cpp:386] inception_5a/relu_5x5 -> inception_5a/5x5 (in-place)
I0714 22:06:02.546020 21619 net.cpp:141] Setting up inception_5a/relu_5x5
I0714 22:06:02.546036 21619 net.cpp:148] Top shape: 10 128 7 7 (62720)
I0714 22:06:02.546041 21619 net.cpp:156] Memory required for data: 532492800
I0714 22:06:02.546046 21619 layer_factory.hpp:77] Creating layer inception_5a/pool
I0714 22:06:02.546056 21619 net.cpp:91] Creating Layer inception_5a/pool
I0714 22:06:02.546063 21619 net.cpp:425] inception_5a/pool <- pool4/3x3_s2_pool4/3x3_s2_0_split_3
I0714 22:06:02.546077 21619 net.cpp:399] inception_5a/pool -> inception_5a/pool
I0714 22:06:02.546314 21619 net.cpp:141] Setting up inception_5a/pool
I0714 22:06:02.546327 21619 net.cpp:148] Top shape: 10 832 7 7 (407680)
I0714 22:06:02.546331 21619 net.cpp:156] Memory required for data: 534123520
I0714 22:06:02.546337 21619 layer_factory.hpp:77] Creating layer inception_5a/pool_proj
I0714 22:06:02.546353 21619 net.cpp:91] Creating Layer inception_5a/pool_proj
I0714 22:06:02.546360 21619 net.cpp:425] inception_5a/pool_proj <- inception_5a/pool
I0714 22:06:02.546372 21619 net.cpp:399] inception_5a/pool_proj -> inception_5a/pool_proj
I0714 22:06:02.547047 21615 net.cpp:141] Setting up inception_5a/3x3
I0714 22:06:02.547067 21615 net.cpp:148] Top shape: 10 320 7 7 (156800)
I0714 22:06:02.547073 21615 net.cpp:156] Memory required for data: 531238400
I0714 22:06:02.547085 21615 layer_factory.hpp:77] Creating layer inception_5a/relu_3x3
I0714 22:06:02.547098 21615 net.cpp:91] Creating Layer inception_5a/relu_3x3
I0714 22:06:02.547106 21615 net.cpp:425] inception_5a/relu_3x3 <- inception_5a/3x3
I0714 22:06:02.547114 21615 net.cpp:386] inception_5a/relu_3x3 -> inception_5a/3x3 (in-place)
I0714 22:06:02.548188 21615 net.cpp:141] Setting up inception_5a/relu_3x3
I0714 22:06:02.548207 21615 net.cpp:148] Top shape: 10 320 7 7 (156800)
I0714 22:06:02.548212 21615 net.cpp:156] Memory required for data: 531865600
I0714 22:06:02.548218 21615 layer_factory.hpp:77] Creating layer inception_5a/5x5_reduce
I0714 22:06:02.548238 21615 net.cpp:91] Creating Layer inception_5a/5x5_reduce
I0714 22:06:02.548245 21615 net.cpp:425] inception_5a/5x5_reduce <- pool4/3x3_s2_pool4/3x3_s2_0_split_2
I0714 22:06:02.548256 21615 net.cpp:399] inception_5a/5x5_reduce -> inception_5a/5x5_reduce
I0714 22:06:02.554018 21619 net.cpp:141] Setting up inception_5a/pool_proj
I0714 22:06:02.554039 21619 net.cpp:148] Top shape: 10 128 7 7 (62720)
I0714 22:06:02.554049 21619 net.cpp:156] Memory required for data: 534374400
I0714 22:06:02.554059 21619 layer_factory.hpp:77] Creating layer inception_5a/relu_pool_proj
I0714 22:06:02.554069 21619 net.cpp:91] Creating Layer inception_5a/relu_pool_proj
I0714 22:06:02.554075 21619 net.cpp:425] inception_5a/relu_pool_proj <- inception_5a/pool_proj
I0714 22:06:02.554083 21619 net.cpp:386] inception_5a/relu_pool_proj -> inception_5a/pool_proj (in-place)
I0714 22:06:02.555042 21615 net.cpp:141] Setting up inception_5a/5x5_reduce
I0714 22:06:02.555063 21615 net.cpp:148] Top shape: 10 32 7 7 (15680)
I0714 22:06:02.555068 21615 net.cpp:156] Memory required for data: 531928320
I0714 22:06:02.555079 21615 layer_factory.hpp:77] Creating layer inception_5a/relu_5x5_reduce
I0714 22:06:02.555078 21619 net.cpp:141] Setting up inception_5a/relu_pool_proj
I0714 22:06:02.555091 21615 net.cpp:91] Creating Layer inception_5a/relu_5x5_reduce
I0714 22:06:02.555097 21619 net.cpp:148] Top shape: 10 128 7 7 (62720)
I0714 22:06:02.555099 21615 net.cpp:425] inception_5a/relu_5x5_reduce <- inception_5a/5x5_reduce
I0714 22:06:02.555109 21619 net.cpp:156] Memory required for data: 534625280
I0714 22:06:02.555114 21619 layer_factory.hpp:77] Creating layer inception_5a/output
I0714 22:06:02.555119 21615 net.cpp:386] inception_5a/relu_5x5_reduce -> inception_5a/5x5_reduce (in-place)
I0714 22:06:02.555124 21619 net.cpp:91] Creating Layer inception_5a/output
I0714 22:06:02.555130 21619 net.cpp:425] inception_5a/output <- inception_5a/1x1
I0714 22:06:02.555138 21619 net.cpp:425] inception_5a/output <- inception_5a/3x3
I0714 22:06:02.555145 21619 net.cpp:425] inception_5a/output <- inception_5a/5x5
I0714 22:06:02.555150 21619 net.cpp:425] inception_5a/output <- inception_5a/pool_proj
I0714 22:06:02.555157 21619 net.cpp:399] inception_5a/output -> inception_5a/output
I0714 22:06:02.555388 21619 net.cpp:141] Setting up inception_5a/output
I0714 22:06:02.555402 21619 net.cpp:148] Top shape: 10 832 7 7 (407680)
I0714 22:06:02.555405 21619 net.cpp:156] Memory required for data: 536256000
I0714 22:06:02.555411 21619 layer_factory.hpp:77] Creating layer inception_5a/output_inception_5a/output_0_split
I0714 22:06:02.555421 21619 net.cpp:91] Creating Layer inception_5a/output_inception_5a/output_0_split
I0714 22:06:02.555426 21619 net.cpp:425] inception_5a/output_inception_5a/output_0_split <- inception_5a/output
I0714 22:06:02.555434 21619 net.cpp:399] inception_5a/output_inception_5a/output_0_split -> inception_5a/output_inception_5a/output_0_split_0
I0714 22:06:02.555449 21619 net.cpp:399] inception_5a/output_inception_5a/output_0_split -> inception_5a/output_inception_5a/output_0_split_1
I0714 22:06:02.555459 21619 net.cpp:399] inception_5a/output_inception_5a/output_0_split -> inception_5a/output_inception_5a/output_0_split_2
I0714 22:06:02.555469 21619 net.cpp:399] inception_5a/output_inception_5a/output_0_split -> inception_5a/output_inception_5a/output_0_split_3
I0714 22:06:02.555500 21615 net.cpp:141] Setting up inception_5a/relu_5x5_reduce
I0714 22:06:02.555517 21615 net.cpp:148] Top shape: 10 32 7 7 (15680)
I0714 22:06:02.555522 21615 net.cpp:156] Memory required for data: 531991040
I0714 22:06:02.555527 21615 layer_factory.hpp:77] Creating layer inception_5a/5x5
I0714 22:06:02.555547 21615 net.cpp:91] Creating Layer inception_5a/5x5
I0714 22:06:02.555554 21615 net.cpp:425] inception_5a/5x5 <- inception_5a/5x5_reduce
I0714 22:06:02.555564 21615 net.cpp:399] inception_5a/5x5 -> inception_5a/5x5
I0714 22:06:02.555927 21619 net.cpp:141] Setting up inception_5a/output_inception_5a/output_0_split
I0714 22:06:02.555938 21619 net.cpp:148] Top shape: 10 832 7 7 (407680)
I0714 22:06:02.555944 21619 net.cpp:148] Top shape: 10 832 7 7 (407680)
I0714 22:06:02.555950 21619 net.cpp:148] Top shape: 10 832 7 7 (407680)
I0714 22:06:02.555955 21619 net.cpp:148] Top shape: 10 832 7 7 (407680)
I0714 22:06:02.555959 21619 net.cpp:156] Memory required for data: 542778880
I0714 22:06:02.555964 21619 layer_factory.hpp:77] Creating layer inception_5b/1x1
I0714 22:06:02.555986 21619 net.cpp:91] Creating Layer inception_5b/1x1
I0714 22:06:02.555992 21619 net.cpp:425] inception_5b/1x1 <- inception_5a/output_inception_5a/output_0_split_0
I0714 22:06:02.556005 21619 net.cpp:399] inception_5b/1x1 -> inception_5b/1x1
I0714 22:06:02.561143 21615 net.cpp:141] Setting up inception_5a/5x5
I0714 22:06:02.561164 21615 net.cpp:148] Top shape: 10 128 7 7 (62720)
I0714 22:06:02.561170 21615 net.cpp:156] Memory required for data: 532241920
I0714 22:06:02.561180 21615 layer_factory.hpp:77] Creating layer inception_5a/relu_5x5
I0714 22:06:02.561221 21615 net.cpp:91] Creating Layer inception_5a/relu_5x5
I0714 22:06:02.561229 21615 net.cpp:425] inception_5a/relu_5x5 <- inception_5a/5x5
I0714 22:06:02.561238 21615 net.cpp:386] inception_5a/relu_5x5 -> inception_5a/5x5 (in-place)
I0714 22:06:02.561666 21615 net.cpp:141] Setting up inception_5a/relu_5x5
I0714 22:06:02.561683 21615 net.cpp:148] Top shape: 10 128 7 7 (62720)
I0714 22:06:02.561689 21615 net.cpp:156] Memory required for data: 532492800
I0714 22:06:02.561696 21615 layer_factory.hpp:77] Creating layer inception_5a/pool
I0714 22:06:02.561707 21615 net.cpp:91] Creating Layer inception_5a/pool
I0714 22:06:02.561712 21615 net.cpp:425] inception_5a/pool <- pool4/3x3_s2_pool4/3x3_s2_0_split_3
I0714 22:06:02.561720 21615 net.cpp:399] inception_5a/pool -> inception_5a/pool
I0714 22:06:02.561954 21615 net.cpp:141] Setting up inception_5a/pool
I0714 22:06:02.561969 21615 net.cpp:148] Top shape: 10 832 7 7 (407680)
I0714 22:06:02.561975 21615 net.cpp:156] Memory required for data: 534123520
I0714 22:06:02.561980 21615 layer_factory.hpp:77] Creating layer inception_5a/pool_proj
I0714 22:06:02.561998 21615 net.cpp:91] Creating Layer inception_5a/pool_proj
I0714 22:06:02.562005 21615 net.cpp:425] inception_5a/pool_proj <- inception_5a/pool
I0714 22:06:02.562014 21615 net.cpp:399] inception_5a/pool_proj -> inception_5a/pool_proj
I0714 22:06:02.566303 21619 net.cpp:141] Setting up inception_5b/1x1
I0714 22:06:02.566323 21619 net.cpp:148] Top shape: 10 384 7 7 (188160)
I0714 22:06:02.566329 21619 net.cpp:156] Memory required for data: 543531520
I0714 22:06:02.566339 21619 layer_factory.hpp:77] Creating layer inception_5b/relu_1x1
I0714 22:06:02.566351 21619 net.cpp:91] Creating Layer inception_5b/relu_1x1
I0714 22:06:02.566359 21619 net.cpp:425] inception_5b/relu_1x1 <- inception_5b/1x1
I0714 22:06:02.566367 21619 net.cpp:386] inception_5b/relu_1x1 -> inception_5b/1x1 (in-place)
I0714 22:06:02.566678 21619 net.cpp:141] Setting up inception_5b/relu_1x1
I0714 22:06:02.566704 21619 net.cpp:148] Top shape: 10 384 7 7 (188160)
I0714 22:06:02.566709 21619 net.cpp:156] Memory required for data: 544284160
I0714 22:06:02.566715 21619 layer_factory.hpp:77] Creating layer inception_5b/3x3_reduce
I0714 22:06:02.566733 21619 net.cpp:91] Creating Layer inception_5b/3x3_reduce
I0714 22:06:02.566740 21619 net.cpp:425] inception_5b/3x3_reduce <- inception_5a/output_inception_5a/output_0_split_1
I0714 22:06:02.566752 21619 net.cpp:399] inception_5b/3x3_reduce -> inception_5b/3x3_reduce
I0714 22:06:02.571130 21615 net.cpp:141] Setting up inception_5a/pool_proj
I0714 22:06:02.571151 21615 net.cpp:148] Top shape: 10 128 7 7 (62720)
I0714 22:06:02.571157 21615 net.cpp:156] Memory required for data: 534374400
I0714 22:06:02.571167 21615 layer_factory.hpp:77] Creating layer inception_5a/relu_pool_proj
I0714 22:06:02.571178 21615 net.cpp:91] Creating Layer inception_5a/relu_pool_proj
I0714 22:06:02.571185 21615 net.cpp:425] inception_5a/relu_pool_proj <- inception_5a/pool_proj
I0714 22:06:02.571195 21615 net.cpp:386] inception_5a/relu_pool_proj -> inception_5a/pool_proj (in-place)
I0714 22:06:02.572044 21615 net.cpp:141] Setting up inception_5a/relu_pool_proj
I0714 22:06:02.572062 21615 net.cpp:148] Top shape: 10 128 7 7 (62720)
I0714 22:06:02.572067 21615 net.cpp:156] Memory required for data: 534625280
I0714 22:06:02.572073 21615 layer_factory.hpp:77] Creating layer inception_5a/output
I0714 22:06:02.572083 21615 net.cpp:91] Creating Layer inception_5a/output
I0714 22:06:02.572090 21615 net.cpp:425] inception_5a/output <- inception_5a/1x1
I0714 22:06:02.572111 21615 net.cpp:425] inception_5a/output <- inception_5a/3x3
I0714 22:06:02.572118 21615 net.cpp:425] inception_5a/output <- inception_5a/5x5
I0714 22:06:02.572124 21615 net.cpp:425] inception_5a/output <- inception_5a/pool_proj
I0714 22:06:02.572130 21615 net.cpp:399] inception_5a/output -> inception_5a/output
I0714 22:06:02.572271 21615 net.cpp:141] Setting up inception_5a/output
I0714 22:06:02.572283 21615 net.cpp:148] Top shape: 10 832 7 7 (407680)
I0714 22:06:02.572288 21615 net.cpp:156] Memory required for data: 536256000
I0714 22:06:02.572293 21615 layer_factory.hpp:77] Creating layer inception_5a/output_inception_5a/output_0_split
I0714 22:06:02.572305 21615 net.cpp:91] Creating Layer inception_5a/output_inception_5a/output_0_split
I0714 22:06:02.572311 21615 net.cpp:425] inception_5a/output_inception_5a/output_0_split <- inception_5a/output
I0714 22:06:02.572319 21615 net.cpp:399] inception_5a/output_inception_5a/output_0_split -> inception_5a/output_inception_5a/output_0_split_0
I0714 22:06:02.572329 21615 net.cpp:399] inception_5a/output_inception_5a/output_0_split -> inception_5a/output_inception_5a/output_0_split_1
I0714 22:06:02.572338 21615 net.cpp:399] inception_5a/output_inception_5a/output_0_split -> inception_5a/output_inception_5a/output_0_split_2
I0714 22:06:02.572347 21615 net.cpp:399] inception_5a/output_inception_5a/output_0_split -> inception_5a/output_inception_5a/output_0_split_3
I0714 22:06:02.573505 21615 net.cpp:141] Setting up inception_5a/output_inception_5a/output_0_split
I0714 22:06:02.573526 21615 net.cpp:148] Top shape: 10 832 7 7 (407680)
I0714 22:06:02.573534 21615 net.cpp:148] Top shape: 10 832 7 7 (407680)
I0714 22:06:02.573540 21615 net.cpp:148] Top shape: 10 832 7 7 (407680)
I0714 22:06:02.573545 21615 net.cpp:148] Top shape: 10 832 7 7 (407680)
I0714 22:06:02.573549 21615 net.cpp:156] Memory required for data: 542778880
I0714 22:06:02.573555 21615 layer_factory.hpp:77] Creating layer inception_5b/1x1
I0714 22:06:02.573587 21615 net.cpp:91] Creating Layer inception_5b/1x1
I0714 22:06:02.573596 21615 net.cpp:425] inception_5b/1x1 <- inception_5a/output_inception_5a/output_0_split_0
I0714 22:06:02.573606 21615 net.cpp:399] inception_5b/1x1 -> inception_5b/1x1
I0714 22:06:02.577337 21619 net.cpp:141] Setting up inception_5b/3x3_reduce
I0714 22:06:02.577359 21619 net.cpp:148] Top shape: 10 192 7 7 (94080)
I0714 22:06:02.577365 21619 net.cpp:156] Memory required for data: 544660480
I0714 22:06:02.577375 21619 layer_factory.hpp:77] Creating layer inception_5b/relu_3x3_reduce
I0714 22:06:02.577385 21619 net.cpp:91] Creating Layer inception_5b/relu_3x3_reduce
I0714 22:06:02.577392 21619 net.cpp:425] inception_5b/relu_3x3_reduce <- inception_5b/3x3_reduce
I0714 22:06:02.577401 21619 net.cpp:386] inception_5b/relu_3x3_reduce -> inception_5b/3x3_reduce (in-place)
I0714 22:06:02.577718 21619 net.cpp:141] Setting up inception_5b/relu_3x3_reduce
I0714 22:06:02.577730 21619 net.cpp:148] Top shape: 10 192 7 7 (94080)
I0714 22:06:02.577735 21619 net.cpp:156] Memory required for data: 545036800
I0714 22:06:02.577740 21619 layer_factory.hpp:77] Creating layer inception_5b/3x3
I0714 22:06:02.577757 21619 net.cpp:91] Creating Layer inception_5b/3x3
I0714 22:06:02.577764 21619 net.cpp:425] inception_5b/3x3 <- inception_5b/3x3_reduce
I0714 22:06:02.577777 21619 net.cpp:399] inception_5b/3x3 -> inception_5b/3x3
I0714 22:06:02.583534 21615 net.cpp:141] Setting up inception_5b/1x1
I0714 22:06:02.583560 21615 net.cpp:148] Top shape: 10 384 7 7 (188160)
I0714 22:06:02.583567 21615 net.cpp:156] Memory required for data: 543531520
I0714 22:06:02.583578 21615 layer_factory.hpp:77] Creating layer inception_5b/relu_1x1
I0714 22:06:02.583590 21615 net.cpp:91] Creating Layer inception_5b/relu_1x1
I0714 22:06:02.583596 21615 net.cpp:425] inception_5b/relu_1x1 <- inception_5b/1x1
I0714 22:06:02.583606 21615 net.cpp:386] inception_5b/relu_1x1 -> inception_5b/1x1 (in-place)
I0714 22:06:02.583914 21615 net.cpp:141] Setting up inception_5b/relu_1x1
I0714 22:06:02.583926 21615 net.cpp:148] Top shape: 10 384 7 7 (188160)
I0714 22:06:02.583931 21615 net.cpp:156] Memory required for data: 544284160
I0714 22:06:02.583936 21615 layer_factory.hpp:77] Creating layer inception_5b/3x3_reduce
I0714 22:06:02.583955 21615 net.cpp:91] Creating Layer inception_5b/3x3_reduce
I0714 22:06:02.583961 21615 net.cpp:425] inception_5b/3x3_reduce <- inception_5a/output_inception_5a/output_0_split_1
I0714 22:06:02.583978 21615 net.cpp:399] inception_5b/3x3_reduce -> inception_5b/3x3_reduce
I0714 22:06:02.589993 21619 net.cpp:141] Setting up inception_5b/3x3
I0714 22:06:02.590015 21619 net.cpp:148] Top shape: 10 384 7 7 (188160)
I0714 22:06:02.590021 21619 net.cpp:156] Memory required for data: 545789440
I0714 22:06:02.590031 21619 layer_factory.hpp:77] Creating layer inception_5b/relu_3x3
I0714 22:06:02.590046 21619 net.cpp:91] Creating Layer inception_5b/relu_3x3
I0714 22:06:02.590054 21619 net.cpp:425] inception_5b/relu_3x3 <- inception_5b/3x3
I0714 22:06:02.590062 21619 net.cpp:386] inception_5b/relu_3x3 -> inception_5b/3x3 (in-place)
I0714 22:06:02.591486 21619 net.cpp:141] Setting up inception_5b/relu_3x3
I0714 22:06:02.591503 21619 net.cpp:148] Top shape: 10 384 7 7 (188160)
I0714 22:06:02.591509 21619 net.cpp:156] Memory required for data: 546542080
I0714 22:06:02.591516 21619 layer_factory.hpp:77] Creating layer inception_5b/5x5_reduce
I0714 22:06:02.591536 21619 net.cpp:91] Creating Layer inception_5b/5x5_reduce
I0714 22:06:02.591542 21619 net.cpp:425] inception_5b/5x5_reduce <- inception_5a/output_inception_5a/output_0_split_2
I0714 22:06:02.591553 21619 net.cpp:399] inception_5b/5x5_reduce -> inception_5b/5x5_reduce
I0714 22:06:02.591740 21615 net.cpp:141] Setting up inception_5b/3x3_reduce
I0714 22:06:02.591758 21615 net.cpp:148] Top shape: 10 192 7 7 (94080)
I0714 22:06:02.591763 21615 net.cpp:156] Memory required for data: 544660480
I0714 22:06:02.591773 21615 layer_factory.hpp:77] Creating layer inception_5b/relu_3x3_reduce
I0714 22:06:02.591786 21615 net.cpp:91] Creating Layer inception_5b/relu_3x3_reduce
I0714 22:06:02.591794 21615 net.cpp:425] inception_5b/relu_3x3_reduce <- inception_5b/3x3_reduce
I0714 22:06:02.591802 21615 net.cpp:386] inception_5b/relu_3x3_reduce -> inception_5b/3x3_reduce (in-place)
I0714 22:06:02.592284 21615 net.cpp:141] Setting up inception_5b/relu_3x3_reduce
I0714 22:06:02.592300 21615 net.cpp:148] Top shape: 10 192 7 7 (94080)
I0714 22:06:02.592305 21615 net.cpp:156] Memory required for data: 545036800
I0714 22:06:02.592310 21615 layer_factory.hpp:77] Creating layer inception_5b/3x3
I0714 22:06:02.592332 21615 net.cpp:91] Creating Layer inception_5b/3x3
I0714 22:06:02.592339 21615 net.cpp:425] inception_5b/3x3 <- inception_5b/3x3_reduce
I0714 22:06:02.592350 21615 net.cpp:399] inception_5b/3x3 -> inception_5b/3x3
I0714 22:06:02.598150 21619 net.cpp:141] Setting up inception_5b/5x5_reduce
I0714 22:06:02.598172 21619 net.cpp:148] Top shape: 10 48 7 7 (23520)
I0714 22:06:02.598178 21619 net.cpp:156] Memory required for data: 546636160
I0714 22:06:02.598188 21619 layer_factory.hpp:77] Creating layer inception_5b/relu_5x5_reduce
I0714 22:06:02.598199 21619 net.cpp:91] Creating Layer inception_5b/relu_5x5_reduce
I0714 22:06:02.598206 21619 net.cpp:425] inception_5b/relu_5x5_reduce <- inception_5b/5x5_reduce
I0714 22:06:02.598218 21619 net.cpp:386] inception_5b/relu_5x5_reduce -> inception_5b/5x5_reduce (in-place)
I0714 22:06:02.598517 21619 net.cpp:141] Setting up inception_5b/relu_5x5_reduce
I0714 22:06:02.598531 21619 net.cpp:148] Top shape: 10 48 7 7 (23520)
I0714 22:06:02.598537 21619 net.cpp:156] Memory required for data: 546730240
I0714 22:06:02.598543 21619 layer_factory.hpp:77] Creating layer inception_5b/5x5
I0714 22:06:02.598557 21619 net.cpp:91] Creating Layer inception_5b/5x5
I0714 22:06:02.598563 21619 net.cpp:425] inception_5b/5x5 <- inception_5b/5x5_reduce
I0714 22:06:02.598577 21619 net.cpp:399] inception_5b/5x5 -> inception_5b/5x5
I0714 22:06:02.605258 21615 net.cpp:141] Setting up inception_5b/3x3
I0714 22:06:02.605283 21615 net.cpp:148] Top shape: 10 384 7 7 (188160)
I0714 22:06:02.605290 21615 net.cpp:156] Memory required for data: 545789440
I0714 22:06:02.605303 21615 layer_factory.hpp:77] Creating layer inception_5b/relu_3x3
I0714 22:06:02.605314 21615 net.cpp:91] Creating Layer inception_5b/relu_3x3
I0714 22:06:02.605322 21615 net.cpp:425] inception_5b/relu_3x3 <- inception_5b/3x3
I0714 22:06:02.605335 21615 net.cpp:386] inception_5b/relu_3x3 -> inception_5b/3x3 (in-place)
I0714 22:06:02.606308 21619 net.cpp:141] Setting up inception_5b/5x5
I0714 22:06:02.606340 21619 net.cpp:148] Top shape: 10 128 7 7 (62720)
I0714 22:06:02.606353 21619 net.cpp:156] Memory required for data: 546981120
I0714 22:06:02.606374 21619 layer_factory.hpp:77] Creating layer inception_5b/relu_5x5
I0714 22:06:02.606395 21619 net.cpp:91] Creating Layer inception_5b/relu_5x5
I0714 22:06:02.606408 21619 net.cpp:425] inception_5b/relu_5x5 <- inception_5b/5x5
I0714 22:06:02.606415 21615 net.cpp:141] Setting up inception_5b/relu_3x3
I0714 22:06:02.606425 21619 net.cpp:386] inception_5b/relu_5x5 -> inception_5b/5x5 (in-place)
I0714 22:06:02.606431 21615 net.cpp:148] Top shape: 10 384 7 7 (188160)
I0714 22:06:02.606436 21615 net.cpp:156] Memory required for data: 546542080
I0714 22:06:02.606442 21615 layer_factory.hpp:77] Creating layer inception_5b/5x5_reduce
I0714 22:06:02.606462 21615 net.cpp:91] Creating Layer inception_5b/5x5_reduce
I0714 22:06:02.606470 21615 net.cpp:425] inception_5b/5x5_reduce <- inception_5a/output_inception_5a/output_0_split_2
I0714 22:06:02.606483 21615 net.cpp:399] inception_5b/5x5_reduce -> inception_5b/5x5_reduce
I0714 22:06:02.607043 21619 net.cpp:141] Setting up inception_5b/relu_5x5
I0714 22:06:02.607060 21619 net.cpp:148] Top shape: 10 128 7 7 (62720)
I0714 22:06:02.607065 21619 net.cpp:156] Memory required for data: 547232000
I0714 22:06:02.607071 21619 layer_factory.hpp:77] Creating layer inception_5b/pool
I0714 22:06:02.607085 21619 net.cpp:91] Creating Layer inception_5b/pool
I0714 22:06:02.607092 21619 net.cpp:425] inception_5b/pool <- inception_5a/output_inception_5a/output_0_split_3
I0714 22:06:02.607103 21619 net.cpp:399] inception_5b/pool -> inception_5b/pool
I0714 22:06:02.607440 21619 net.cpp:141] Setting up inception_5b/pool
I0714 22:06:02.607453 21619 net.cpp:148] Top shape: 10 832 7 7 (407680)
I0714 22:06:02.607457 21619 net.cpp:156] Memory required for data: 548862720
I0714 22:06:02.607463 21619 layer_factory.hpp:77] Creating layer inception_5b/pool_proj
I0714 22:06:02.607484 21619 net.cpp:91] Creating Layer inception_5b/pool_proj
I0714 22:06:02.607491 21619 net.cpp:425] inception_5b/pool_proj <- inception_5b/pool
I0714 22:06:02.607501 21619 net.cpp:399] inception_5b/pool_proj -> inception_5b/pool_proj
I0714 22:06:02.614660 21615 net.cpp:141] Setting up inception_5b/5x5_reduce
I0714 22:06:02.614704 21615 net.cpp:148] Top shape: 10 48 7 7 (23520)
I0714 22:06:02.614717 21615 net.cpp:156] Memory required for data: 546636160
I0714 22:06:02.614733 21615 layer_factory.hpp:77] Creating layer inception_5b/relu_5x5_reduce
I0714 22:06:02.614755 21615 net.cpp:91] Creating Layer inception_5b/relu_5x5_reduce
I0714 22:06:02.614763 21615 net.cpp:425] inception_5b/relu_5x5_reduce <- inception_5b/5x5_reduce
I0714 22:06:02.614773 21615 net.cpp:386] inception_5b/relu_5x5_reduce -> inception_5b/5x5_reduce (in-place)
I0714 22:06:02.615200 21615 net.cpp:141] Setting up inception_5b/relu_5x5_reduce
I0714 22:06:02.615214 21615 net.cpp:148] Top shape: 10 48 7 7 (23520)
I0714 22:06:02.615219 21615 net.cpp:156] Memory required for data: 546730240
I0714 22:06:02.615226 21615 layer_factory.hpp:77] Creating layer inception_5b/5x5
I0714 22:06:02.615247 21615 net.cpp:91] Creating Layer inception_5b/5x5
I0714 22:06:02.615253 21615 net.cpp:425] inception_5b/5x5 <- inception_5b/5x5_reduce
I0714 22:06:02.615267 21615 net.cpp:399] inception_5b/5x5 -> inception_5b/5x5
I0714 22:06:02.615814 21619 net.cpp:141] Setting up inception_5b/pool_proj
I0714 22:06:02.615838 21619 net.cpp:148] Top shape: 10 128 7 7 (62720)
I0714 22:06:02.615844 21619 net.cpp:156] Memory required for data: 549113600
I0714 22:06:02.615855 21619 layer_factory.hpp:77] Creating layer inception_5b/relu_pool_proj
I0714 22:06:02.615865 21619 net.cpp:91] Creating Layer inception_5b/relu_pool_proj
I0714 22:06:02.615874 21619 net.cpp:425] inception_5b/relu_pool_proj <- inception_5b/pool_proj
I0714 22:06:02.615881 21619 net.cpp:386] inception_5b/relu_pool_proj -> inception_5b/pool_proj (in-place)
I0714 22:06:02.617192 21619 net.cpp:141] Setting up inception_5b/relu_pool_proj
I0714 22:06:02.617211 21619 net.cpp:148] Top shape: 10 128 7 7 (62720)
I0714 22:06:02.617216 21619 net.cpp:156] Memory required for data: 549364480
I0714 22:06:02.617223 21619 layer_factory.hpp:77] Creating layer inception_5b/output
I0714 22:06:02.617233 21619 net.cpp:91] Creating Layer inception_5b/output
I0714 22:06:02.617238 21619 net.cpp:425] inception_5b/output <- inception_5b/1x1
I0714 22:06:02.617246 21619 net.cpp:425] inception_5b/output <- inception_5b/3x3
I0714 22:06:02.617254 21619 net.cpp:425] inception_5b/output <- inception_5b/5x5
I0714 22:06:02.617259 21619 net.cpp:425] inception_5b/output <- inception_5b/pool_proj
I0714 22:06:02.617266 21619 net.cpp:399] inception_5b/output -> inception_5b/output
I0714 22:06:02.617415 21619 net.cpp:141] Setting up inception_5b/output
I0714 22:06:02.617429 21619 net.cpp:148] Top shape: 10 1024 7 7 (501760)
I0714 22:06:02.617432 21619 net.cpp:156] Memory required for data: 551371520
I0714 22:06:02.617439 21619 layer_factory.hpp:77] Creating layer pool5/7x7_s1
I0714 22:06:02.617447 21619 net.cpp:91] Creating Layer pool5/7x7_s1
I0714 22:06:02.617454 21619 net.cpp:425] pool5/7x7_s1 <- inception_5b/output
I0714 22:06:02.617466 21619 net.cpp:399] pool5/7x7_s1 -> pool5/7x7_s1
I0714 22:06:02.617875 21619 net.cpp:141] Setting up pool5/7x7_s1
I0714 22:06:02.617888 21619 net.cpp:148] Top shape: 10 1024 1 1 (10240)
I0714 22:06:02.617893 21619 net.cpp:156] Memory required for data: 551412480
I0714 22:06:02.617898 21619 layer_factory.hpp:77] Creating layer pool5/drop_7x7_s1
I0714 22:06:02.617911 21619 net.cpp:91] Creating Layer pool5/drop_7x7_s1
I0714 22:06:02.617918 21619 net.cpp:425] pool5/drop_7x7_s1 <- pool5/7x7_s1
I0714 22:06:02.617924 21619 net.cpp:386] pool5/drop_7x7_s1 -> pool5/7x7_s1 (in-place)
I0714 22:06:02.618026 21619 net.cpp:141] Setting up pool5/drop_7x7_s1
I0714 22:06:02.618041 21619 net.cpp:148] Top shape: 10 1024 1 1 (10240)
I0714 22:06:02.618046 21619 net.cpp:156] Memory required for data: 551453440
I0714 22:06:02.618051 21619 layer_factory.hpp:77] Creating layer loss3/classifier
I0714 22:06:02.618062 21619 net.cpp:91] Creating Layer loss3/classifier
I0714 22:06:02.618068 21619 net.cpp:425] loss3/classifier <- pool5/7x7_s1
I0714 22:06:02.618080 21619 net.cpp:399] loss3/classifier -> loss3/classifier
I0714 22:06:02.625707 21615 net.cpp:141] Setting up inception_5b/5x5
I0714 22:06:02.625743 21615 net.cpp:148] Top shape: 10 128 7 7 (62720)
I0714 22:06:02.625751 21615 net.cpp:156] Memory required for data: 546981120
I0714 22:06:02.625766 21615 layer_factory.hpp:77] Creating layer inception_5b/relu_5x5
I0714 22:06:02.625782 21615 net.cpp:91] Creating Layer inception_5b/relu_5x5
I0714 22:06:02.625792 21615 net.cpp:425] inception_5b/relu_5x5 <- inception_5b/5x5
I0714 22:06:02.625803 21615 net.cpp:386] inception_5b/relu_5x5 -> inception_5b/5x5 (in-place)
I0714 22:06:02.626129 21615 net.cpp:141] Setting up inception_5b/relu_5x5
I0714 22:06:02.626143 21615 net.cpp:148] Top shape: 10 128 7 7 (62720)
I0714 22:06:02.626148 21615 net.cpp:156] Memory required for data: 547232000
I0714 22:06:02.626155 21615 layer_factory.hpp:77] Creating layer inception_5b/pool
I0714 22:06:02.626169 21615 net.cpp:91] Creating Layer inception_5b/pool
I0714 22:06:02.626176 21615 net.cpp:425] inception_5b/pool <- inception_5a/output_inception_5a/output_0_split_3
I0714 22:06:02.626186 21615 net.cpp:399] inception_5b/pool -> inception_5b/pool
I0714 22:06:02.626356 21615 net.cpp:141] Setting up inception_5b/pool
I0714 22:06:02.626368 21615 net.cpp:148] Top shape: 10 832 7 7 (407680)
I0714 22:06:02.626373 21615 net.cpp:156] Memory required for data: 548862720
I0714 22:06:02.626379 21615 layer_factory.hpp:77] Creating layer inception_5b/pool_proj
I0714 22:06:02.626400 21615 net.cpp:91] Creating Layer inception_5b/pool_proj
I0714 22:06:02.626407 21615 net.cpp:425] inception_5b/pool_proj <- inception_5b/pool
I0714 22:06:02.626420 21615 net.cpp:399] inception_5b/pool_proj -> inception_5b/pool_proj
I0714 22:06:02.631999 21619 net.cpp:141] Setting up loss3/classifier
I0714 22:06:02.632020 21619 net.cpp:148] Top shape: 10 1000 (10000)
I0714 22:06:02.632025 21619 net.cpp:156] Memory required for data: 551493440
I0714 22:06:02.632037 21619 layer_factory.hpp:77] Creating layer prob
I0714 22:06:02.632048 21619 net.cpp:91] Creating Layer prob
I0714 22:06:02.632055 21619 net.cpp:425] prob <- loss3/classifier
I0714 22:06:02.632064 21619 net.cpp:399] prob -> prob
I0714 22:06:02.633643 21615 net.cpp:141] Setting up inception_5b/pool_proj
I0714 22:06:02.633663 21615 net.cpp:148] Top shape: 10 128 7 7 (62720)
I0714 22:06:02.633669 21615 net.cpp:156] Memory required for data: 549113600
I0714 22:06:02.633680 21615 layer_factory.hpp:77] Creating layer inception_5b/relu_pool_proj
I0714 22:06:02.633693 21615 net.cpp:91] Creating Layer inception_5b/relu_pool_proj
I0714 22:06:02.633700 21615 net.cpp:425] inception_5b/relu_pool_proj <- inception_5b/pool_proj
I0714 22:06:02.633709 21615 net.cpp:386] inception_5b/relu_pool_proj -> inception_5b/pool_proj (in-place)
I0714 22:06:02.633711 21619 net.cpp:141] Setting up prob
I0714 22:06:02.633726 21619 net.cpp:148] Top shape: 10 1000 (10000)
I0714 22:06:02.633733 21619 net.cpp:156] Memory required for data: 551533440
I0714 22:06:02.633738 21619 net.cpp:219] prob does not need backward computation.
I0714 22:06:02.633744 21619 net.cpp:219] loss3/classifier does not need backward computation.
I0714 22:06:02.633749 21619 net.cpp:219] pool5/drop_7x7_s1 does not need backward computation.
I0714 22:06:02.633754 21619 net.cpp:219] pool5/7x7_s1 does not need backward computation.
…
I0714 22:06:02.634523 21619 net.cpp:219] pool1/norm1 does not need backward computation.
I0714 22:06:02.634529 21619 net.cpp:219] pool1/3x3_s2 does not need backward computation.
I0714 22:06:02.634547 21619 net.cpp:219] conv1/relu_7x7 does not need backward computation.
I0714 22:06:02.634554 21619 net.cpp:219] conv1/7x7_s2 does not need backward computation.
I0714 22:06:02.634562 21619 net.cpp:219] data does not need backward computation.
I0714 22:06:02.634567 21619 net.cpp:261] This network produces output prob
I0714 22:06:02.634598 21615 net.cpp:141] Setting up inception_5b/relu_pool_proj
I0714 22:06:02.634613 21615 net.cpp:148] Top shape: 10 128 7 7 (62720)
I0714 22:06:02.634619 21615 net.cpp:156] Memory required for data: 549364480
I0714 22:06:02.634625 21615 layer_factory.hpp:77] Creating layer inception_5b/output
I0714 22:06:02.634639 21615 net.cpp:91] Creating Layer inception_5b/output
I0714 22:06:02.634645 21615 net.cpp:425] inception_5b/output <- inception_5b/1x1
I0714 22:06:02.634654 21615 net.cpp:425] inception_5b/output <- inception_5b/3x3
I0714 22:06:02.634660 21615 net.cpp:425] inception_5b/output <- inception_5b/5x5
I0714 22:06:02.634665 21615 net.cpp:425] inception_5b/output <- inception_5b/pool_proj
I0714 22:06:02.634672 21615 net.cpp:399] inception_5b/output -> inception_5b/output
I0714 22:06:02.634721 21619 net.cpp:274] Network initialization done.
I0714 22:06:02.634781 21615 net.cpp:141] Setting up inception_5b/output
I0714 22:06:02.634795 21615 net.cpp:148] Top shape: 10 1024 7 7 (501760)
I0714 22:06:02.634800 21615 net.cpp:156] Memory required for data: 551371520
I0714 22:06:02.634805 21615 layer_factory.hpp:77] Creating layer pool5/7x7_s1
I0714 22:06:02.634815 21615 net.cpp:91] Creating Layer pool5/7x7_s1
I0714 22:06:02.634821 21615 net.cpp:425] pool5/7x7_s1 <- inception_5b/output
I0714 22:06:02.634830 21615 net.cpp:399] pool5/7x7_s1 -> pool5/7x7_s1
I0714 22:06:02.635210 21615 net.cpp:141] Setting up pool5/7x7_s1
I0714 22:06:02.635226 21615 net.cpp:148] Top shape: 10 1024 1 1 (10240)
I0714 22:06:02.635231 21615 net.cpp:156] Memory required for data: 551412480
I0714 22:06:02.635236 21615 layer_factory.hpp:77] Creating layer pool5/drop_7x7_s1
I0714 22:06:02.635247 21615 net.cpp:91] Creating Layer pool5/drop_7x7_s1
I0714 22:06:02.635253 21615 net.cpp:425] pool5/drop_7x7_s1 <- pool5/7x7_s1
I0714 22:06:02.635262 21615 net.cpp:386] pool5/drop_7x7_s1 -> pool5/7x7_s1 (in-place)
I0714 22:06:02.635349 21615 net.cpp:141] Setting up pool5/drop_7x7_s1
I0714 22:06:02.635360 21615 net.cpp:148] Top shape: 10 1024 1 1 (10240)
I0714 22:06:02.635366 21615 net.cpp:156] Memory required for data: 551453440
I0714 22:06:02.635371 21615 layer_factory.hpp:77] Creating layer loss3/classifier
I0714 22:06:02.635388 21615 net.cpp:91] Creating Layer loss3/classifier
I0714 22:06:02.635395 21615 net.cpp:425] loss3/classifier <- pool5/7x7_s1
I0714 22:06:02.635402 21615 net.cpp:399] loss3/classifier -> loss3/classifier
I0714 22:06:02.648339 21615 net.cpp:141] Setting up loss3/classifier
I0714 22:06:02.648388 21615 net.cpp:148] Top shape: 10 1000 (10000)
I0714 22:06:02.648396 21615 net.cpp:156] Memory required for data: 551493440
I0714 22:06:02.648411 21615 layer_factory.hpp:77] Creating layer prob
I0714 22:06:02.648427 21615 net.cpp:91] Creating Layer prob
I0714 22:06:02.648435 21615 net.cpp:425] prob <- loss3/classifier
I0714 22:06:02.648447 21615 net.cpp:399] prob -> prob
I0714 22:06:02.650424 21615 net.cpp:141] Setting up prob
I0714 22:06:02.650449 21615 net.cpp:148] Top shape: 10 1000 (10000)
I0714 22:06:02.650455 21615 net.cpp:156] Memory required for data: 551533440
I0714 22:06:02.650461 21615 net.cpp:219] prob does not need backward computation.
I0714 22:06:02.650467 21615 net.cpp:219] loss3/classifier does not need backward computation.
I0714 22:06:02.650472 21615 net.cpp:219] pool5/drop_7x7_s1 does not need backward computation.
I0714 22:06:02.650477 21615 net.cpp:219] pool5/7x7_s1 does not need backward computation.
…
