…
Java HotSpot(TM) 64-Bit Server VM warning: You have loaded library /home/lvnguyen/tools/opencv-3.1.0/install/lib/libopencv_core.so.3.1.0 which might have disabled stack guard. The VM will try to fix the stack guard now.
It's highly recommended that you fix the library with 'execstack -c <libfile>', or link it with '-z noexecstack'.
WARNING: Logging before InitGoogleLogging() is written to STDERR
I0705 15:36:11.715977 28465 net.cpp:49] Initializing net from parameters: 
name: "GoogleNet"
state {
  phase: TEST
}
layer {
  name: "data"
  type: "Input"
  top: "data"
  input_param {
    shape {
      dim: 10
      dim: 3
      dim: 224
      dim: 224
    }
  }
}
layer {
  name: "conv1/7x7_s2"
  type: "Convolution"
  bottom: "data"
  top: "conv1/7x7_s2"
  param {
    lr_mult: 1
    decay_mult: 1
  }
  param {
    lr_mult: 2
    decay_mult: 0
  }
  convolution_param {
    num_output: 64
    pad: 3
    kernel_size: 7
    stride: 2
    weight_filler {
      type: "xavier"
      std: 0.1
    }
    bias_filler {
      type: "constant"
      value: 0.2
    }
  }
}
layer {
  name: "conv1/relu_7x7"
  type: "ReLU"
  bottom: "conv1/7x7_s2"
  top: "conv1/7x7_s2"
}
layer {
  name: "pool1/3x3_s2"
  type: "Pooling"
  bottom: "conv1/7x7_s2"
  top: "pool1/3x3_s2"
  pooling_param {
    pool: MAX
    kernel_size: 3
    stride: 2
  }
}
layer {
  name: "pool1/norm1"
  type: "LRN"
  bottom: "pool1/3x3_s2"
  top: "pool1/norm1"
  lrn_param {
    local_size: 5
    alpha: 0.0001
    beta: 0.75
  }
}
layer {
  name: "conv2/3x3_reduce"
  type: "Convolution"
  bottom: "pool1/norm1"
  top: "conv2/3x3_reduce"
  param {
    lr_mult: 1
    decay_mult: 1
  }
  param {
    lr_mult: 2
    decay_mult: 0
  }
  convolution_param {
    num_output: 64
    kernel_size: 1
    weight_filler {
      type: "xavier"
      std: 0.1
    }
    bias_filler {
      type: "constant"
      value: 0.2
    }
  }
}
layer {
  name: "conv2/relu_3x3_reduce"
  type: "ReLU"
  bottom: "conv2/3x3_reduce"
  top: "conv2/3x3_reduce"
}
layer {
  name: "conv2/3x3"
  type: "Convolution"
  bottom: "conv2/3x3_reduce"
  top: "conv2/3x3"
  param {
    lr_mult: 1
    decay_mult: 1
  }
  param {
    lr_mult: 2
    decay_mult: 0
  }
  convolution_param {
    num_output: 192
    pad: 1
    kernel_size: 3
    weight_filler {
      type: "xavier"
      std: 0.03
    }
    bias_filler {
      type: "constant"
      value: 0.2
    }
  }
}
layer {
  name: "conv2/relu_3x3"
  type: "ReLU"
  bottom: "conv2/3x3"
  top: "conv2/3x3"
}
layer {
  name: "conv2/norm2"
  type: "LRN"
  bottom: "conv2/3x3"
  top: "conv2/norm2"
  lrn_param {
    local_size: 5
    alpha: 0.0001
    beta: 0.75
  }
}
layer {
  name: "pool2/3x3_s2"
  type: "Pooling"
  bottom: "conv2/norm2"
  top: "pool2/3x3_s2"
  pooling_param {
    pool: MAX
    kernel_size: 3
    stride: 2
  }
}
layer {
  name: "inception_3a/1x1"
  type: "Convolution"
  bottom: "pool2/3x3_s2"
  top: "inception_3a/1x1"
  param {
    lr_mult: 1
    decay_mult: 1
  }
  param {
    lr_mult: 2
    decay_mult: 0
  }
  convolution_param {
    num_output: 64
    kernel_size: 1
    weight_filler {
      type: "xavier"
      std: 0.03
    }
    bias_filler {
      type: "constant"
      value: 0.2
    }
  }
}
layer {
  name: "inception_3a/relu_1x1"
  type: "ReLU"
  bottom: "inception_3a/1x1"
  top: "inception_3a/1x1"
}
layer {
  name: "inception_3a/3x3_reduce"
  type: "Convolution"
  bottom: "pool2/3x3_s2"
  top: "inception_3a/3x3_reduce"
  param {
    lr_mult: 1
    decay_mult: 1
  }
  param {
    lr_mult: 2
    decay_mult: 0
  }
  convolution_param {
    num_output: 96
    kernel_size: 1
    weight_filler {
      type: "xavier"
      std: 0.09
    }
    bias_filler {
      type: "constant"
      value: 0.2
    }
  }
}
layer {
  name: "inception_3a/relu_3x3_reduce"
  type: "ReLU"
  bottom: "inception_3a/3x3_reduce"
  top: "inception_3a/3x3_reduce"
}
layer {
  name: "inception_3a/3x3"
  type: "Convolution"
  bottom: "inception_3a/3x3_reduce"
  top: "inception_3a/3x3"
  param {
    lr_mult: 1
    decay_mult: 1
  }
  param {
    lr_mult: 2
    decay_mult: 0
  }
  convolution_param {
    num_output: 128
    pad: 1
    kernel_size: 3
    weight_filler {
      type: "xavier"
      std: 0.03
    }
    bias_filler {
      type: "constant"
      value: 0.2
    }
  }
}
layer {
  name: "inception_3a/relu_3x3"
  type: "ReLU"
  bottom: "inception_3a/3x3"
  top: "inception_3a/3x3"
}
layer {
  name: "inception_3a/5x5_reduce"
  type: "Convolution"
  bottom: "pool2/3x3_s2"
  top: "inception_3a/5x5_reduce"
  param {
    lr_mult: 1
    decay_mult: 1
  }
  param {
    lr_mult: 2
    decay_mult: 0
  }
  convolution_param {
    num_output: 16
    kernel_size: 1
    weight_filler {
      type: "xavier"
      std: 0.2
    }
    bias_filler {
      type: "constant"
      value: 0.2
    }
  }
}
layer {
  name: "inception_3a/relu_5x5_reduce"
  type: "ReLU"
  bottom: "inception_3a/5x5_reduce"
  top: "inception_3a/5x5_reduce"
}
layer {
  name: "inception_3a/5x5"
  type: "Convolution"
  bottom: "inception_3a/5x5_reduce"
  top: "inception_3a/5x5"
  param {
    lr_mult: 1
    decay_mult: 1
  }
  param {
    lr_mult: 2
    decay_mult: 0
  }
  convolution_param {
    num_output: 32
    pad: 2
    kernel_size: 5
    weight_filler {
      type: "xavier"
      std: 0.03
    }
    bias_filler {
      type: "constant"
      value: 0.2
    }
  }
}
layer {
  name: "inception_3a/relu_5x5"
  type: "ReLU"
  bottom: "inception_3a/5x5"
  top: "inception_3a/5x5"
}
layer {
  name: "inception_3a/pool"
  type: "Pooling"
  bottom: "pool2/3x3_s2"
  top: "inception_3a/pool"
  pooling_param {
    pool: MAX
    kernel_size: 3
    stride: 1
    pad: 1
  }
}
layer {
  name: "inception_3a/pool_proj"
  type: "Convolution"
  bottom: "inception_3a/pool"
  top: "inception_3a/pool_proj"
  param {
    lr_mult: 1
    decay_mult: 1
  }
  param {
    lr_mult: 2
    decay_mult: 0
  }
  convolution_param {
    num_output: 32
    kernel_size: 1
    weight_filler {
      type: "xavier"
      std: 0.1
    }
    bias_filler {
      type: "constant"
      value: 0.2
    }
  }
}
layer {
  name: "inception_3a/relu_pool_proj"
  type: "ReLU"
  bottom: "inception_3a/pool_proj"
  top: "inception_3a/pool_proj"
}
layer {
  name: "inception_3a/output"
  type: "Concat"
  bottom: "inception_3a/1x1"
  bottom: "inception_3a/3x3"
  bottom: "inception_3a/5x5"
  bottom: "inception_3a/pool_proj"
  top: "inception_3a/output"
}
layer {
  name: "inception_3b/1x1"
  type: "Convolution"
  bottom: "inception_3a/output"
  top: "inception_3b/1x1"
  param {
    lr_mult: 1
    decay_mult: 1
  }
  param {
    lr_mult: 2
    decay_mult: 0
  }
  convolution_param {
    num_output: 128
    kernel_size: 1
    weight_filler {
      type: "xavier"
      std: 0.03
    }
    bias_filler {
      type: "constant"
      value: 0.2
    }
  }
}
layer {
  name: "inception_3b/relu_1x1"
  type: "ReLU"
  bottom: "inception_3b/1x1"
  top: "inception_3b/1x1"
}
layer {
  name: "inception_3b/3x3_reduce"
  type: "Convolution"
  bottom: "inception_3a/output"
  top: "inception_3b/3x3_reduce"
  param {
    lr_mult: 1
    decay_mult: 1
  }
  param {
    lr_mult: 2
    decay_mult: 0
  }
  convolution_param {
    num_output: 128
    kernel_size: 1
    weight_filler {
      type: "xavier"
      std: 0.09
    }
    bias_filler {
      type: "constant"
      value: 0.2
    }
  }
}
layer {
  name: "inception_3b/relu_3x3_reduce"
  type: "ReLU"
  bottom: "inception_3b/3x3_reduce"
  top: "inception_3b/3x3_reduce"
}
layer {
  name: "inception_3b/3x3"
  type: "Convolution"
  bottom: "inception_3b/3x3_reduce"
  top: "inception_3b/3x3"
  param {
    lr_mult: 1
    decay_mult: 1
  }
  param {
    lr_mult: 2
    decay_mult: 0
  }
  convolution_param {
    num_output: 192
    pad: 1
    kernel_size: 3
    weight_filler {
      type: "xavier"
      std: 0.03
    }
    bias_filler {
      type: "constant"
      value: 0.2
    }
  }
}
layer {
  name: "inception_3b/relu_3x3"
  type: "ReLU"
  bottom: "inception_3b/3x3"
  top: "inception_3b/3x3"
}
layer {
  name: "inception_3b/5x5_reduce"
  type: "Convolution"
  bottom: "inception_3a/output"
  top: "inception_3b/5x5_reduce"
  param {
    lr_mult: 1
    decay_mult: 1
  }
  param {
    lr_mult: 2
    decay_mult: 0
  }
  convolution_param {
    num_output: 32
    kernel_size: 1
    weight_filler {
      type: "xavier"
      std: 0.2
    }
    bias_filler {
      type: "constant"
      value: 0.2
    }
  }
}
layer {
  name: "inception_3b/relu_5x5_reduce"
  type: "ReLU"
  bottom: "inception_3b/5x5_reduce"
  top: "inception_3b/5x5_reduce"
}
layer {
  name: "inception_3b/5x5"
  type: "Convolution"
  bottom: "inception_3b/5x5_reduce"
  top: "inception_3b/5x5"
  param {
    lr_mult: 1
    decay_mult: 1
  }
  param {
    lr_mult: 2
    decay_mult: 0
  }
  convolution_param {
    num_output: 96
    pad: 2
    kernel_size: 5
    weight_filler {
      type: "xavier"
      std: 0.03
    }
    bias_filler {
      type: "constant"
      value: 0.2
    }
  }
}
layer {
  name: "inception_3b/relu_5x5"
  type: "ReLU"
  bottom: "inception_3b/5x5"
  top: "inception_3b/5x5"
}
layer {
  name: "inception_3b/pool"
  type: "Pooling"
  bottom: "inception_3a/output"
  top: "inception_3b/pool"
  pooling_param {
    pool: MAX
    kernel_size: 3
    stride: 1
    pad: 1
  }
}
layer {
  name: "inception_3b/pool_proj"
  type: "Convolution"
  bottom: "inception_3b/pool"
  top: "inception_3b/pool_proj"
  param {
    lr_mult: 1
    decay_mult: 1
  }
  param {
    lr_mult: 2
    decay_mult: 0
  }
  convolution_param {
    num_output: 64
    kernel_size: 1
    weight_filler {
      type: "xavier"
      std: 0.1
    }
    bias_filler {
      type: "constant"
      value: 0.2
    }
  }
}
layer {
  name: "inception_3b/relu_pool_proj"
  type: "ReLU"
  bottom: "inception_3b/pool_proj"
  top: "inception_3b/pool_proj"
}
layer {
  name: "inception_3b/output"
  type: "Concat"
  bottom: "inception_3b/1x1"
  bottom: "inception_3b/3x3"
  bottom: "inception_3b/5x5"
  bottom: "inception_3b/pool_proj"
  top: "inception_3b/output"
}
layer {
  name: "pool3/3x3_s2"
  type: "Pooling"
  bottom: "inception_3b/output"
  top: "pool3/3x3_s2"
  pooling_param {
    pool: MAX
    kernel_size: 3
    stride: 2
  }
}
layer {
  name: "inception_4a/1x1"
  type: "Convolution"
  bottom: "pool3/3x3_s2"
  top: "inception_4a/1x1"
  param {
    lr_mult: 1
    decay_mult: 1
  }
  param {
    lr_mult: 2
    decay_mult: 0
  }
  convolution_param {
    num_output: 192
    kernel_size: 1
    weight_filler {
      type: "xavier"
      std: 0.03
    }
    bias_filler {
      type: "constant"
      value: 0.2
    }
  }
}
layer {
  name: "inception_4a/relu_1x1"
  type: "ReLU"
  bottom: "inception_4a/1x1"
  top: "inception_4a/1x1"
}
layer {
  name: "inception_4a/3x3_reduce"
  type: "Convolution"
  bottom: "pool3/3x3_s2"
  top: "inception_4a/3x3_reduce"
  param {
    lr_mult: 1
    decay_mult: 1
  }
  param {
    lr_mult: 2
    decay_mult: 0
  }
  convolution_param {
    num_output: 96
    kernel_size: 1
    weight_filler {
      type: "xavier"
      std: 0.09
    }
    bias_filler {
      type: "constant"
      value: 0.2
    }
  }
}
layer {
  name: "inception_4a/relu_3x3_reduce"
  type: "ReLU"
  bottom: "inception_4a/3x3_reduce"
  top: "inception_4a/3x3_reduce"
}
layer {
  name: "inception_4a/3x3"
  type: "Convolution"
  bottom: "inception_4a/3x3_reduce"
  top: "inception_4a/3x3"
  param {
    lr_mult: 1
    decay_mult: 1
  }
  param {
    lr_mult: 2
    decay_mult: 0
  }
  convolution_param {
    num_output: 208
    pad: 1
    kernel_size: 3
    weight_filler {
      type: "xavier"
      std: 0.03
    }
    bias_filler {
      type: "constant"
      value: 0.2
    }
  }
}
layer {
  name: "inception_4a/relu_3x3"
  type: "ReLU"
  bottom: "inception_4a/3x3"
  top: "inception_4a/3x3"
}
layer {
  name: "inception_4a/5x5_reduce"
  type: "Convolution"
  bottom: "pool3/3x3_s2"
  top: "inception_4a/5x5_reduce"
  param {
    lr_mult: 1
    decay_mult: 1
  }
  param {
    lr_mult: 2
    decay_mult: 0
  }
  convolution_param {
    num_output: 16
    kernel_size: 1
    weight_filler {
      type: "xavier"
      std: 0.2
    }
    bias_filler {
      type: "constant"
      value: 0.2
    }
  }
}
layer {
  name: "inception_4a/relu_5x5_reduce"
  type: "ReLU"
  bottom: "inception_4a/5x5_reduce"
  top: "inception_4a/5x5_reduce"
}
layer {
  name: "inception_4a/5x5"
  type: "Convolution"
  bottom: "inception_4a/5x5_reduce"
  top: "inception_4a/5x5"
  param {
    lr_mult: 1
    decay_mult: 1
  }
  param {
    lr_mult: 2
    decay_mult: 0
  }
  convolution_param {
    num_output: 48
    pad: 2
    kernel_size: 5
    weight_filler {
      type: "xavier"
      std: 0.03
    }
    bias_filler {
      type: "constant"
      value: 0.2
    }
  }
}
layer {
  name: "inception_4a/relu_5x5"
  type: "ReLU"
  bottom: "inception_4a/5x5"
  top: "inception_4a/5x5"
}
layer {
  name: "inception_4a/pool"
  type: "Pooling"
  bottom: "pool3/3x3_s2"
  top: "inception_4a/pool"
  pooling_param {
    pool: MAX
    kernel_size: 3
    stride: 1
    pad: 1
  }
}
layer {
  name: "inception_4a/pool_proj"
  type: "Convolution"
  bottom: "inception_4a/pool"
  top: "inception_4a/pool_proj"
  param {
    lr_mult: 1
    decay_mult: 1
  }
  param {
    lr_mult: 2
    decay_mult: 0
  }
  convolution_param {
    num_output: 64
    kernel_size: 1
    weight_filler {
      type: "xavier"
      std: 0.1
    }
    bias_filler {
      type: "constant"
      value: 0.2
    }
  }
}
layer {
  name: "inception_4a/relu_pool_proj"
  type: "ReLU"
  bottom: "inception_4a/pool_proj"
  top: "inception_4a/pool_proj"
}
layer {
  name: "inception_4a/output"
  type: "Concat"
  bottom: "inception_4a/1x1"
  bottom: "inception_4a/3x3"
  bottom: "inception_4a/5x5"
  bottom: "inception_4a/pool_proj"
  top: "inception_4a/output"
}
layer {
  name: "inception_4b/1x1"
  type: "Convolution"
  bottom: "inception_4a/output"
  top: "inception_4b/1x1"
  param {
    lr_mult: 1
    decay_mult: 1
  }
  param {
    lr_mult: 2
    decay_mult: 0
  }
  convolution_param {
    num_output: 160
    kernel_size: 1
    weight_filler {
      type: "xavier"
      std: 0.03
    }
    bias_filler {
      type: "constant"
      value: 0.2
    }
  }
}
layer {
  name: "inception_4b/relu_1x1"
  type: "ReLU"
  bottom: "inception_4b/1x1"
  top: "inception_4b/1x1"
}
layer {
  name: "inception_4b/3x3_reduce"
  type: "Convolution"
  bottom: "inception_4a/output"
  top: "inception_4b/3x3_reduce"
  param {
    lr_mult: 1
    decay_mult: 1
  }
  param {
    lr_mult: 2
    decay_mult: 0
  }
  convolution_param {
    num_output: 112
    kernel_size: 1
    weight_filler {
      type: "xavier"
      std: 0.09
    }
    bias_filler {
      type: "constant"
      value: 0.2
    }
  }
}
layer {
  name: "inception_4b/relu_3x3_reduce"
  type: "ReLU"
  bottom: "inception_4b/3x3_reduce"
  top: "inception_4b/3x3_reduce"
}
layer {
  name: "inception_4b/3x3"
  type: "Convolution"
  bottom: "inception_4b/3x3_reduce"
  top: "inception_4b/3x3"
  param {
    lr_mult: 1
    decay_mult: 1
  }
  param {
    lr_mult: 2
    decay_mult: 0
  }
  convolution_param {
    num_output: 224
    pad: 1
    kernel_size: 3
    weight_filler {
      type: "xavier"
      std: 0.03
    }
    bias_filler {
      type: "constant"
      value: 0.2
    }
  }
}
layer {
  name: "inception_4b/relu_3x3"
  type: "ReLU"
  bottom: "inception_4b/3x3"
  top: "inception_4b/3x3"
}
layer {
  name: "inception_4b/5x5_reduce"
  type: "Convolution"
  bottom: "inception_4a/output"
  top: "inception_4b/5x5_reduce"
  param {
    lr_mult: 1
    decay_mult: 1
  }
  param {
    lr_mult: 2
    decay_mult: 0
  }
  convolution_param {
    num_output: 24
    kernel_size: 1
    weight_filler {
      type: "xavier"
      std: 0.2
    }
    bias_filler {
      type: "constant"
      value: 0.2
    }
  }
}
layer {
  name: "inception_4b/relu_5x5_reduce"
  type: "ReLU"
  bottom: "inception_4b/5x5_reduce"
  top: "inception_4b/5x5_reduce"
}
layer {
  name: "inception_4b/5x5"
  type: "Convolution"
  bottom: "inception_4b/5x5_reduce"
  top: "inception_4b/5x5"
  param {
    lr_mult: 1
    decay_mult: 1
  }
  param {
    lr_mult: 2
    decay_mult: 0
  }
  convolution_param {
    num_output: 64
    pad: 2
    kernel_size: 5
    weight_filler {
      type: "xavier"
      std: 0.03
    }
    bias_filler {
      type: "constant"
      value: 0.2
    }
  }
}
layer {
  name: "inception_4b/relu_5x5"
  type: "ReLU"
  bottom: "inception_4b/5x5"
  top: "inception_4b/5x5"
}
layer {
  name: "inception_4b/pool"
  type: "Pooling"
  bottom: "inception_4a/output"
  top: "inception_4b/pool"
  pooling_param {
    pool: MAX
    kernel_size: 3
    stride: 1
    pad: 1
  }
}
layer {
  name: "inception_4b/pool_proj"
  type: "Convolution"
  bottom: "inception_4b/pool"
  top: "inception_4b/pool_proj"
  param {
    lr_mult: 1
    decay_mult: 1
  }
  param {
    lr_mult: 2
    decay_mult: 0
  }
  convolution_param {
    num_output: 64
    kernel_size: 1
    weight_filler {
      type: "xavier"
      std: 0.1
    }
    bias_filler {
      type: "constant"
      value: 0.2
    }
  }
}
layer {
  name: "inception_4b/relu_pool_proj"
  type: "ReLU"
  bottom: "inception_4b/pool_proj"
  top: "inception_4b/pool_proj"
}
layer {
  name: "inception_4b/output"
  type: "Concat"
  bottom: "inception_4b/1x1"
  bottom: "inception_4b/3x3"
  bottom: "inception_4b/5x5"
  bottom: "inception_4b/pool_proj"
  top: "inception_4b/output"
}
layer {
  name: "inception_4c/1x1"
  type: "Convolution"
  bottom: "inception_4b/output"
  top: "inception_4c/1x1"
  param {
    lr_mult: 1
    decay_mult: 1
  }
  param {
    lr_mult: 2
    decay_mult: 0
  }
  convolution_param {
    num_output: 128
    kernel_size: 1
    weight_filler {
      type: "xavier"
      std: 0.03
    }
    bias_filler {
      type: "constant"
      value: 0.2
    }
  }
}
layer {
  name: "inception_4c/relu_1x1"
  type: "ReLU"
  bottom: "inception_4c/1x1"
  top: "inception_4c/1x1"
}
layer {
  name: "inception_4c/3x3_reduce"
  type: "Convolution"
  bottom: "inception_4b/output"
  top: "inception_4c/3x3_reduce"
  param {
    lr_mult: 1
    decay_mult: 1
  }
  param {
    lr_mult: 2
    decay_mult: 0
  }
  convolution_param {
    num_output: 128
    kernel_size: 1
    weight_filler {
      type: "xavier"
      std: 0.09
    }
    bias_filler {
      type: "constant"
      value: 0.2
    }
  }
}
layer {
  name: "inception_4c/relu_3x3_reduce"
  type: "ReLU"
  bottom: "inception_4c/3x3_reduce"
  top: "inception_4c/3x3_reduce"
}
layer {
  name: "inception_4c/3x3"
  type: "Convolution"
  bottom: "inception_4c/3x3_reduce"
  top: "inception_4c/3x3"
  param {
    lr_mult: 1
    decay_mult: 1
  }
  param {
    lr_mult: 2
    decay_mult: 0
  }
  convolution_param {
    num_output: 256
    pad: 1
    kernel_size: 3
    weight_filler {
      type: "xavier"
      std: 0.03
    }
    bias_filler {
      type: "constant"
      value: 0.2
    }
  }
}
layer {
  name: "inception_4c/relu_3x3"
  type: "ReLU"
  bottom: "inception_4c/3x3"
  top: "inception_4c/3x3"
}
layer {
  name: "inception_4c/5x5_reduce"
  type: "Convolution"
  bottom: "inception_4b/output"
  top: "inception_4c/5x5_reduce"
  param {
    lr_mult: 1
    decay_mult: 1
  }
  param {
    lr_mult: 2
    decay_mult: 0
  }
  convolution_param {
    num_output: 24
    kernel_size: 1
    weight_filler {
      type: "xavier"
      std: 0.2
    }
    bias_filler {
      type: "constant"
      value: 0.2
    }
  }
}
layer {
  name: "inception_4c/relu_5x5_reduce"
  type: "ReLU"
  bottom: "inception_4c/5x5_reduce"
  top: "inception_4c/5x5_reduce"
}
layer {
  name: "inception_4c/5x5"
  type: "Convolution"
  bottom: "inception_4c/5x5_reduce"
  top: "inception_4c/5x5"
  param {
    lr_mult: 1
    decay_mult: 1
  }
  param {
    lr_mult: 2
    decay_mult: 0
  }
  convolution_param {
    num_output: 64
    pad: 2
    kernel_size: 5
    weight_filler {
      type: "xavier"
      std: 0.03
    }
    bias_filler {
      type: "constant"
      value: 0.2
    }
  }
}
layer {
  name: "inception_4c/relu_5x5"
  type: "ReLU"
  bottom: "inception_4c/5x5"
  top: "inception_4c/5x5"
}
layer {
  name: "inception_4c/pool"
  type: "Pooling"
  bottom: "inception_4b/output"
  top: "inception_4c/pool"
  pooling_param {
    pool: MAX
    kernel_size: 3
    stride: 1
    pad: 1
  }
}
layer {
  name: "inception_4c/pool_proj"
  type: "Convolution"
  bottom: "inception_4c/pool"
  top: "inception_4c/pool_proj"
  param {
    lr_mult: 1
    decay_mult: 1
  }
  param {
    lr_mult: 2
    decay_mult: 0
  }
  convolution_param {
    num_output: 64
    kernel_size: 1
    weight_filler {
      type: "xavier"
      std: 0.1
    }
    bias_filler {
      type: "constant"
      value: 0.2
    }
  }
}
layer {
  name: "inception_4c/relu_pool_proj"
  type: "ReLU"
  bottom: "inception_4c/pool_proj"
  top: "inception_4c/pool_proj"
}
layer {
  name: "inception_4c/output"
  type: "Concat"
  bottom: "inception_4c/1x1"
  bottom: "inception_4c/3x3"
  bottom: "inception_4c/5x5"
  bottom: "inception_4c/pool_proj"
  top: "inception_4c/output"
}
layer {
  name: "inception_4d/1x1"
  type: "Convolution"
  bottom: "inception_4c/output"
  top: "inception_4d/1x1"
  param {
    lr_mult: 1
    decay_mult: 1
  }
  param {
    lr_mult: 2
    decay_mult: 0
  }
  convolution_param {
    num_output: 112
    kernel_size: 1
    weight_filler {
      type: "xavier"
      std: 0.03
    }
    bias_filler {
      type: "constant"
      value: 0.2
    }
  }
}
layer {
  name: "inception_4d/relu_1x1"
  type: "ReLU"
  bottom: "inception_4d/1x1"
  top: "inception_4d/1x1"
}
layer {
  name: "inception_4d/3x3_reduce"
  type: "Convolution"
  bottom: "inception_4c/output"
  top: "inception_4d/3x3_reduce"
  param {
    lr_mult: 1
    decay_mult: 1
  }
  param {
    lr_mult: 2
    decay_mult: 0
  }
  convolution_param {
    num_output: 144
    kernel_size: 1
    weight_filler {
      type: "xavier"
      std: 0.09
    }
    bias_filler {
      type: "constant"
      value: 0.2
    }
  }
}
layer {
  name: "inception_4d/relu_3x3_reduce"
  type: "ReLU"
  bottom: "inception_4d/3x3_reduce"
  top: "inception_4d/3x3_reduce"
}
layer {
  name: "inception_4d/3x3"
  type: "Convolution"
  bottom: "inception_4d/3x3_reduce"
  top: "inception_4d/3x3"
  param {
    lr_mult: 1
    decay_mult: 1
  }
  param {
    lr_mult: 2
    decay_mult: 0
  }
  convolution_param {
    num_output: 288
    pad: 1
    kernel_size: 3
    weight_filler {
      type: "xavier"
      std: 0.03
    }
    bias_filler {
      type: "constant"
      value: 0.2
    }
  }
}
layer {
  name: "inception_4d/relu_3x3"
  type: "ReLU"
  bottom: "inception_4d/3x3"
  top: "inception_4d/3x3"
}
layer {
  name: "inception_4d/5x5_reduce"
  type: "Convolution"
  bottom: "inception_4c/output"
  top: "inception_4d/5x5_reduce"
  param {
    lr_mult: 1
    decay_mult: 1
  }
  param {
    lr_mult: 2
    decay_mult: 0
  }
  convolution_param {
    num_output: 32
    kernel_size: 1
    weight_filler {
      type: "xavier"
      std: 0.2
    }
    bias_filler {
      type: "constant"
      value: 0.2
    }
  }
}
layer {
  name: "inception_4d/relu_5x5_reduce"
  type: "ReLU"
  bottom: "inception_4d/5x5_reduce"
  top: "inception_4d/5x5_reduce"
}
layer {
  name: "inception_4d/5x5"
  type: "Convolution"
  bottom: "inception_4d/5x5_reduce"
  top: "inception_4d/5x5"
  param {
    lr_mult: 1
    decay_mult: 1
  }
  param {
    lr_mult: 2
    decay_mult: 0
  }
  convolution_param {
    num_output: 64
    pad: 2
    kernel_size: 5
    weight_filler {
      type: "xavier"
      std: 0.03
    }
    bias_filler {
      type: "constant"
      value: 0.2
    }
  }
}
layer {
  name: "inception_4d/relu_5x5"
  type: "ReLU"
  bottom: "inception_4d/5x5"
  top: "inception_4d/5x5"
}
layer {
  name: "inception_4d/pool"
  type: "Pooling"
  bottom: "inception_4c/output"
  top: "inception_4d/pool"
  pooling_param {
    pool: MAX
    kernel_size: 3
    stride: 1
    pad: 1
  }
}
layer {
  name: "inception_4d/pool_proj"
  type: "Convolution"
  bottom: "inception_4d/pool"
  top: "inception_4d/pool_proj"
  param {
    lr_mult: 1
    decay_mult: 1
  }
  param {
    lr_mult: 2
    decay_mult: 0
  }
  convolution_param {
    num_output: 64
    kernel_size: 1
    weight_filler {
      type: "xavier"
      std: 0.1
    }
    bias_filler {
      type: "constant"
      value: 0.2
    }
  }
}
layer {
  name: "inception_4d/relu_pool_proj"
  type: "ReLU"
  bottom: "inception_4d/pool_proj"
  top: "inception_4d/pool_proj"
}
layer {
  name: "inception_4d/output"
  type: "Concat"
  bottom: "inception_4d/1x1"
  bottom: "inception_4d/3x3"
  bottom: "inception_4d/5x5"
  bottom: "inception_4d/pool_proj"
  top: "inception_4d/output"
}
layer {
  name: "inception_4e/1x1"
  type: "Convolution"
  bottom: "inception_4d/output"
  top: "inception_4e/1x1"
  param {
    lr_mult: 1
    decay_mult: 1
  }
  param {
    lr_mult: 2
    decay_mult: 0
  }
  convolution_param {
    num_output: 256
    kernel_size: 1
    weight_filler {
      type: "xavier"
      std: 0.03
    }
    bias_filler {
      type: "constant"
      value: 0.2
    }
  }
}
layer {
  name: "inception_4e/relu_1x1"
  type: "ReLU"
  bottom: "inception_4e/1x1"
  top: "inception_4e/1x1"
}
layer {
  name: "inception_4e/3x3_reduce"
  type: "Convolution"
  bottom: "inception_4d/output"
  top: "inception_4e/3x3_reduce"
  param {
    lr_mult: 1
    decay_mult: 1
  }
  param {
    lr_mult: 2
    decay_mult: 0
  }
  convolution_param {
    num_output: 160
    kernel_size: 1
    weight_filler {
      type: "xavier"
      std: 0.09
    }
    bias_filler {
      type: "constant"
      value: 0.2
    }
  }
}
layer {
  name: "inception_4e/relu_3x3_reduce"
  type: "ReLU"
  bottom: "inception_4e/3x3_reduce"
  top: "inception_4e/3x3_reduce"
}
layer {
  name: "inception_4e/3x3"
  type: "Convolution"
  bottom: "inception_4e/3x3_reduce"
  top: "inception_4e/3x3"
  param {
    lr_mult: 1
    decay_mult: 1
  }
  param {
    lr_mult: 2
    decay_mult: 0
  }
  convolution_param {
    num_output: 320
    pad: 1
    kernel_size: 3
    weight_filler {
      type: "xavier"
      std: 0.03
    }
    bias_filler {
      type: "constant"
      value: 0.2
    }
  }
}
layer {
  name: "inception_4e/relu_3x3"
  type: "ReLU"
  bottom: "inception_4e/3x3"
  top: "inception_4e/3x3"
}
layer {
  name: "inception_4e/5x5_reduce"
  type: "Convolution"
  bottom: "inception_4d/output"
  top: "inception_4e/5x5_reduce"
  param {
    lr_mult: 1
    decay_mult: 1
  }
  param {
    lr_mult: 2
    decay_mult: 0
  }
  convolution_param {
    num_output: 32
    kernel_size: 1
    weight_filler {
      type: "xavier"
      std: 0.2
    }
    bias_filler {
      type: "constant"
      value: 0.2
    }
  }
}
layer {
  name: "inception_4e/relu_5x5_reduce"
  type: "ReLU"
  bottom: "inception_4e/5x5_reduce"
  top: "inception_4e/5x5_reduce"
}
layer {
  name: "inception_4e/5x5"
  type: "Convolution"
  bottom: "inception_4e/5x5_reduce"
  top: "inception_4e/5x5"
  param {
    lr_mult: 1
    decay_mult: 1
  }
  param {
    lr_mult: 2
    decay_mult: 0
  }
  convolution_param {
    num_output: 128
    pad: 2
    kernel_size: 5
    weight_filler {
      type: "xavier"
      std: 0.03
    }
    bias_filler {
      type: "constant"
      value: 0.2
    }
  }
}
layer {
  name: "inception_4e/relu_5x5"
  type: "ReLU"
  bottom: "inception_4e/5x5"
  top: "inception_4e/5x5"
}
layer {
  name: "inception_4e/pool"
  type: "Pooling"
  bottom: "inception_4d/output"
  top: "inception_4e/pool"
  pooling_param {
    pool: MAX
    kernel_size: 3
    stride: 1
    pad: 1
  }
}
layer {
  name: "inception_4e/pool_proj"
  type: "Convolution"
  bottom: "inception_4e/pool"
  top: "inception_4e/pool_proj"
  param {
    lr_mult: 1
    decay_mult: 1
  }
  param {
    lr_mult: 2
    decay_mult: 0
  }
  convolution_param {
    num_output: 128
    kernel_size: 1
    weight_filler {
      type: "xavier"
      std: 0.1
    }
    bias_filler {
      type: "constant"
      value: 0.2
    }
  }
}
layer {
  name: "inception_4e/relu_pool_proj"
  type: "ReLU"
  bottom: "inception_4e/pool_proj"
  top: "inception_4e/pool_proj"
}
layer {
  name: "inception_4e/output"
  type: "Concat"
  bottom: "inception_4e/1x1"
  bottom: "inception_4e/3x3"
  bottom: "inception_4e/5x5"
  bottom: "inception_4e/pool_proj"
  top: "inception_4e/output"
}
layer {
  name: "pool4/3x3_s2"
  type: "Pooling"
  bottom: "inception_4e/output"
  top: "pool4/3x3_s2"
  pooling_param {
    pool: MAX
    kernel_size: 3
    stride: 2
  }
}
layer {
  name: "inception_5a/1x1"
  type: "Convolution"
  bottom: "pool4/3x3_s2"
  top: "inception_5a/1x1"
  param {
    lr_mult: 1
    decay_mult: 1
  }
  param {
    lr_mult: 2
    decay_mult: 0
  }
  convolution_param {
    num_output: 256
    kernel_size: 1
    weight_filler {
      type: "xavier"
      std: 0.03
    }
    bias_filler {
      type: "constant"
      value: 0.2
    }
  }
}
layer {
  name: "inception_5a/relu_1x1"
  type: "ReLU"
  bottom: "inception_5a/1x1"
  top: "inception_5a/1x1"
}
layer {
  name: "inception_5a/3x3_reduce"
  type: "Convolution"
  bottom: "pool4/3x3_s2"
  top: "inception_5a/3x3_reduce"
  param {
    lr_mult: 1
    decay_mult: 1
  }
  param {
    lr_mult: 2
    decay_mult: 0
  }
  convolution_param {
    num_output: 160
    kernel_size: 1
    weight_filler {
      type: "xavier"
      std: 0.09
    }
    bias_filler {
      type: "constant"
      value: 0.2
    }
  }
}
layer {
  name: "inception_5a/relu_3x3_reduce"
  type: "ReLU"
  bottom: "inception_5a/3x3_reduce"
  top: "inception_5a/3x3_reduce"
}
layer {
  name: "inception_5a/3x3"
  type: "Convolution"
  bottom: "inception_5a/3x3_reduce"
  top: "inception_5a/3x3"
  param {
    lr_mult: 1
    decay_mult: 1
  }
  param {
    lr_mult: 2
    decay_mult: 0
  }
  convolution_param {
    num_output: 320
    pad: 1
    kernel_size: 3
    weight_filler {
      type: "xavier"
      std: 0.03
    }
    bias_filler {
      type: "constant"
      value: 0.2
    }
  }
}
layer {
  name: "inception_5a/relu_3x3"
  type: "ReLU"
  bottom: "inception_5a/3x3"
  top: "inception_5a/3x3"
}
layer {
  name: "inception_5a/5x5_reduce"
  type: "Convolution"
  bottom: "pool4/3x3_s2"
  top: "inception_5a/5x5_reduce"
  param {
    lr_mult: 1
    decay_mult: 1
  }
  param {
    lr_mult: 2
    decay_mult: 0
  }
  convolution_param {
    num_output: 32
    kernel_size: 1
    weight_filler {
      type: "xavier"
      std: 0.2
    }
    bias_filler {
      type: "constant"
      value: 0.2
    }
I0705 15:36:11.716852 28465 layer_factory.hpp:77] Creating layer data
I0705 15:36:11.716878 28465 net.cpp:91] Creating Layer data
I0705 15:36:11.716888 28465 net.cpp:399] data -> data
I0705 15:36:12.167598 28465 net.cpp:141] Setting up data
I0705 15:36:12.167666 28465 net.cpp:148] Top shape: 10 3 224 224 (1505280)
I0705 15:36:12.167673 28465 net.cpp:156] Memory required for data: 6021120
I0705 15:36:12.167692 28465 layer_factory.hpp:77] Creating layer conv1/7x7_s2
I0705 15:36:12.167726 28465 net.cpp:91] Creating Layer conv1/7x7_s2
I0705 15:36:12.167735 28465 net.cpp:425] conv1/7x7_s2 <- data
I0705 15:36:12.167749 28465 net.cpp:399] conv1/7x7_s2 -> conv1/7x7_s2
I0705 15:36:12.399477 28465 net.cpp:141] Setting up conv1/7x7_s2
I0705 15:36:12.399523 28465 net.cpp:148] Top shape: 10 64 112 112 (8028160)
I0705 15:36:12.399528 28465 net.cpp:156] Memory required for data: 38133760
I0705 15:36:12.399564 28465 layer_factory.hpp:77] Creating layer conv1/relu_7x7
I0705 15:36:12.399581 28465 net.cpp:91] Creating Layer conv1/relu_7x7
I0705 15:36:12.399587 28465 net.cpp:425] conv1/relu_7x7 <- conv1/7x7_s2
I0705 15:36:12.399595 28465 net.cpp:386] conv1/relu_7x7 -> conv1/7x7_s2 (in-place)
I0705 15:36:12.400308 28465 net.cpp:141] Setting up conv1/relu_7x7
I0705 15:36:12.400334 28465 net.cpp:148] Top shape: 10 64 112 112 (8028160)
I0705 15:36:12.400338 28465 net.cpp:156] Memory required for data: 70246400
I0705 15:36:12.400344 28465 layer_factory.hpp:77] Creating layer pool1/3x3_s2
I0705 15:36:12.400355 28465 net.cpp:91] Creating Layer pool1/3x3_s2
I0705 15:36:12.400360 28465 net.cpp:425] pool1/3x3_s2 <- conv1/7x7_s2
I0705 15:36:12.400367 28465 net.cpp:399] pool1/3x3_s2 -> pool1/3x3_s2
I0705 15:36:12.400435 28465 net.cpp:141] Setting up pool1/3x3_s2
I0705 15:36:12.400445 28465 net.cpp:148] Top shape: 10 64 56 56 (2007040)
I0705 15:36:12.400449 28465 net.cpp:156] Memory required for data: 78274560
I0705 15:36:12.400454 28465 layer_factory.hpp:77] Creating layer pool1/norm1
I0705 15:36:12.400470 28465 net.cpp:91] Creating Layer pool1/norm1
I0705 15:36:12.400475 28465 net.cpp:425] pool1/norm1 <- pool1/3x3_s2
I0705 15:36:12.400481 28465 net.cpp:399] pool1/norm1 -> pool1/norm1
I0705 15:36:12.400743 28465 net.cpp:141] Setting up pool1/norm1
I0705 15:36:12.400753 28465 net.cpp:148] Top shape: 10 64 56 56 (2007040)
I0705 15:36:12.400758 28465 net.cpp:156] Memory required for data: 86302720
I0705 15:36:12.400763 28465 layer_factory.hpp:77] Creating layer conv2/3x3_reduce
I0705 15:36:12.400781 28465 net.cpp:91] Creating Layer conv2/3x3_reduce
I0705 15:36:12.400786 28465 net.cpp:425] conv2/3x3_reduce <- pool1/norm1
I0705 15:36:12.400797 28465 net.cpp:399] conv2/3x3_reduce -> conv2/3x3_reduce
I0705 15:36:12.403986 28465 net.cpp:141] Setting up conv2/3x3_reduce
I0705 15:36:12.404016 28465 net.cpp:148] Top shape: 10 64 56 56 (2007040)
I0705 15:36:12.404021 28465 net.cpp:156] Memory required for data: 94330880
I0705 15:36:12.404037 28465 layer_factory.hpp:77] Creating layer conv2/relu_3x3_reduce
I0705 15:36:12.404048 28465 net.cpp:91] Creating Layer conv2/relu_3x3_reduce
I0705 15:36:12.404053 28465 net.cpp:425] conv2/relu_3x3_reduce <- conv2/3x3_reduce
I0705 15:36:12.404059 28465 net.cpp:386] conv2/relu_3x3_reduce -> conv2/3x3_reduce (in-place)
I0705 15:36:12.404731 28465 net.cpp:141] Setting up conv2/relu_3x3_reduce
I0705 15:36:12.404747 28465 net.cpp:148] Top shape: 10 64 56 56 (2007040)
I0705 15:36:12.404752 28465 net.cpp:156] Memory required for data: 102359040
I0705 15:36:12.404755 28465 layer_factory.hpp:77] Creating layer conv2/3x3
I0705 15:36:12.404772 28465 net.cpp:91] Creating Layer conv2/3x3
I0705 15:36:12.404777 28465 net.cpp:425] conv2/3x3 <- conv2/3x3_reduce
I0705 15:36:12.404788 28465 net.cpp:399] conv2/3x3 -> conv2/3x3
I0705 15:36:12.408577 28465 net.cpp:141] Setting up conv2/3x3
I0705 15:36:12.408597 28465 net.cpp:148] Top shape: 10 192 56 56 (6021120)
I0705 15:36:12.408602 28465 net.cpp:156] Memory required for data: 126443520
I0705 15:36:12.408617 28465 layer_factory.hpp:77] Creating layer conv2/relu_3x3
I0705 15:36:12.408627 28465 net.cpp:91] Creating Layer conv2/relu_3x3
I0705 15:36:12.408632 28465 net.cpp:425] conv2/relu_3x3 <- conv2/3x3
I0705 15:36:12.408638 28465 net.cpp:386] conv2/relu_3x3 -> conv2/3x3 (in-place)
I0705 15:36:12.409314 28465 net.cpp:141] Setting up conv2/relu_3x3
I0705 15:36:12.409330 28465 net.cpp:148] Top shape: 10 192 56 56 (6021120)
I0705 15:36:12.409335 28465 net.cpp:156] Memory required for data: 150528000
I0705 15:36:12.409340 28465 layer_factory.hpp:77] Creating layer conv2/norm2
I0705 15:36:12.409349 28465 net.cpp:91] Creating Layer conv2/norm2
I0705 15:36:12.409354 28465 net.cpp:425] conv2/norm2 <- conv2/3x3
I0705 15:36:12.409364 28465 net.cpp:399] conv2/norm2 -> conv2/norm2
I0705 15:36:12.409601 28465 net.cpp:141] Setting up conv2/norm2
I0705 15:36:12.409612 28465 net.cpp:148] Top shape: 10 192 56 56 (6021120)
I0705 15:36:12.409618 28465 net.cpp:156] Memory required for data: 174612480
I0705 15:36:12.409623 28465 layer_factory.hpp:77] Creating layer pool2/3x3_s2
I0705 15:36:12.409631 28465 net.cpp:91] Creating Layer pool2/3x3_s2
I0705 15:36:12.409636 28465 net.cpp:425] pool2/3x3_s2 <- conv2/norm2
I0705 15:36:12.409642 28465 net.cpp:399] pool2/3x3_s2 -> pool2/3x3_s2
I0705 15:36:12.409693 28465 net.cpp:141] Setting up pool2/3x3_s2
I0705 15:36:12.409700 28465 net.cpp:148] Top shape: 10 192 28 28 (1505280)
I0705 15:36:12.409704 28465 net.cpp:156] Memory required for data: 180633600
I0705 15:36:12.409708 28465 layer_factory.hpp:77] Creating layer pool2/3x3_s2_pool2/3x3_s2_0_split
I0705 15:36:12.409723 28465 net.cpp:91] Creating Layer pool2/3x3_s2_pool2/3x3_s2_0_split
I0705 15:36:12.409729 28465 net.cpp:425] pool2/3x3_s2_pool2/3x3_s2_0_split <- pool2/3x3_s2
I0705 15:36:12.409737 28465 net.cpp:399] pool2/3x3_s2_pool2/3x3_s2_0_split -> pool2/3x3_s2_pool2/3x3_s2_0_split_0
I0705 15:36:12.409746 28465 net.cpp:399] pool2/3x3_s2_pool2/3x3_s2_0_split -> pool2/3x3_s2_pool2/3x3_s2_0_split_1
I0705 15:36:12.409754 28465 net.cpp:399] pool2/3x3_s2_pool2/3x3_s2_0_split -> pool2/3x3_s2_pool2/3x3_s2_0_split_2
I0705 15:36:12.409761 28465 net.cpp:399] pool2/3x3_s2_pool2/3x3_s2_0_split -> pool2/3x3_s2_pool2/3x3_s2_0_split_3
I0705 15:36:12.409833 28465 net.cpp:141] Setting up pool2/3x3_s2_pool2/3x3_s2_0_split
I0705 15:36:12.409842 28465 net.cpp:148] Top shape: 10 192 28 28 (1505280)
I0705 15:36:12.409847 28465 net.cpp:148] Top shape: 10 192 28 28 (1505280)
I0705 15:36:12.409852 28465 net.cpp:148] Top shape: 10 192 28 28 (1505280)
I0705 15:36:12.409857 28465 net.cpp:148] Top shape: 10 192 28 28 (1505280)
I0705 15:36:12.409860 28465 net.cpp:156] Memory required for data: 204718080
I0705 15:36:12.409864 28465 layer_factory.hpp:77] Creating layer inception_3a/1x1
I0705 15:36:12.409878 28465 net.cpp:91] Creating Layer inception_3a/1x1
I0705 15:36:12.409883 28465 net.cpp:425] inception_3a/1x1 <- pool2/3x3_s2_pool2/3x3_s2_0_split_0
I0705 15:36:12.409907 28465 net.cpp:399] inception_3a/1x1 -> inception_3a/1x1
I0705 15:36:12.413416 28465 net.cpp:141] Setting up inception_3a/1x1
I0705 15:36:12.413439 28465 net.cpp:148] Top shape: 10 64 28 28 (501760)
I0705 15:36:12.413444 28465 net.cpp:156] Memory required for data: 206725120
I0705 15:36:12.413455 28465 layer_factory.hpp:77] Creating layer inception_3a/relu_1x1
I0705 15:36:12.413465 28465 net.cpp:91] Creating Layer inception_3a/relu_1x1
I0705 15:36:12.413471 28465 net.cpp:425] inception_3a/relu_1x1 <- inception_3a/1x1
I0705 15:36:12.413480 28465 net.cpp:386] inception_3a/relu_1x1 -> inception_3a/1x1 (in-place)
I0705 15:36:12.414216 28465 net.cpp:141] Setting up inception_3a/relu_1x1
I0705 15:36:12.414229 28465 net.cpp:148] Top shape: 10 64 28 28 (501760)
I0705 15:36:12.414234 28465 net.cpp:156] Memory required for data: 208732160
I0705 15:36:12.414238 28465 layer_factory.hpp:77] Creating layer inception_3a/3x3_reduce
I0705 15:36:12.414255 28465 net.cpp:91] Creating Layer inception_3a/3x3_reduce
I0705 15:36:12.414260 28465 net.cpp:425] inception_3a/3x3_reduce <- pool2/3x3_s2_pool2/3x3_s2_0_split_1
I0705 15:36:12.414268 28465 net.cpp:399] inception_3a/3x3_reduce -> inception_3a/3x3_reduce
I0705 15:36:12.417287 28465 net.cpp:141] Setting up inception_3a/3x3_reduce
I0705 15:36:12.417306 28465 net.cpp:148] Top shape: 10 96 28 28 (752640)
I0705 15:36:12.417311 28465 net.cpp:156] Memory required for data: 211742720
I0705 15:36:12.417328 28465 layer_factory.hpp:77] Creating layer inception_3a/relu_3x3_reduce
I0705 15:36:12.417337 28465 net.cpp:91] Creating Layer inception_3a/relu_3x3_reduce
I0705 15:36:12.417342 28465 net.cpp:425] inception_3a/relu_3x3_reduce <- inception_3a/3x3_reduce
I0705 15:36:12.417351 28465 net.cpp:386] inception_3a/relu_3x3_reduce -> inception_3a/3x3_reduce (in-place)
I0705 15:36:12.417559 28465 net.cpp:141] Setting up inception_3a/relu_3x3_reduce
I0705 15:36:12.417569 28465 net.cpp:148] Top shape: 10 96 28 28 (752640)
I0705 15:36:12.417573 28465 net.cpp:156] Memory required for data: 214753280
I0705 15:36:12.417578 28465 layer_factory.hpp:77] Creating layer inception_3a/3x3
I0705 15:36:12.417598 28465 net.cpp:91] Creating Layer inception_3a/3x3
I0705 15:36:12.417603 28465 net.cpp:425] inception_3a/3x3 <- inception_3a/3x3_reduce
I0705 15:36:12.417610 28465 net.cpp:399] inception_3a/3x3 -> inception_3a/3x3
I0705 15:36:12.420361 28465 net.cpp:141] Setting up inception_3a/3x3
I0705 15:36:12.420377 28465 net.cpp:148] Top shape: 10 128 28 28 (1003520)
I0705 15:36:12.420382 28465 net.cpp:156] Memory required for data: 218767360
I0705 15:36:12.420390 28465 layer_factory.hpp:77] Creating layer inception_3a/relu_3x3
I0705 15:36:12.420400 28465 net.cpp:91] Creating Layer inception_3a/relu_3x3
I0705 15:36:12.420406 28465 net.cpp:425] inception_3a/relu_3x3 <- inception_3a/3x3
I0705 15:36:12.420413 28465 net.cpp:386] inception_3a/relu_3x3 -> inception_3a/3x3 (in-place)
I0705 15:36:12.420619 28465 net.cpp:141] Setting up inception_3a/relu_3x3
I0705 15:36:12.420630 28465 net.cpp:148] Top shape: 10 128 28 28 (1003520)
I0705 15:36:12.420634 28465 net.cpp:156] Memory required for data: 222781440
I0705 15:36:12.420639 28465 layer_factory.hpp:77] Creating layer inception_3a/5x5_reduce
I0705 15:36:12.420655 28465 net.cpp:91] Creating Layer inception_3a/5x5_reduce
I0705 15:36:12.420660 28465 net.cpp:425] inception_3a/5x5_reduce <- pool2/3x3_s2_pool2/3x3_s2_0_split_2
I0705 15:36:12.420668 28465 net.cpp:399] inception_3a/5x5_reduce -> inception_3a/5x5_reduce
I0705 15:36:12.423039 28465 net.cpp:141] Setting up inception_3a/5x5_reduce
I0705 15:36:12.423058 28465 net.cpp:148] Top shape: 10 16 28 28 (125440)
I0705 15:36:12.423064 28465 net.cpp:156] Memory required for data: 223283200
I0705 15:36:12.423072 28465 layer_factory.hpp:77] Creating layer inception_3a/relu_5x5_reduce
I0705 15:36:12.423080 28465 net.cpp:91] Creating Layer inception_3a/relu_5x5_reduce
I0705 15:36:12.423086 28465 net.cpp:425] inception_3a/relu_5x5_reduce <- inception_3a/5x5_reduce
I0705 15:36:12.423094 28465 net.cpp:386] inception_3a/relu_5x5_reduce -> inception_3a/5x5_reduce (in-place)
I0705 15:36:12.423781 28465 net.cpp:141] Setting up inception_3a/relu_5x5_reduce
I0705 15:36:12.423796 28465 net.cpp:148] Top shape: 10 16 28 28 (125440)
I0705 15:36:12.423800 28465 net.cpp:156] Memory required for data: 223784960
I0705 15:36:12.423805 28465 layer_factory.hpp:77] Creating layer inception_3a/5x5
I0705 15:36:12.423820 28465 net.cpp:91] Creating Layer inception_3a/5x5
I0705 15:36:12.423826 28465 net.cpp:425] inception_3a/5x5 <- inception_3a/5x5_reduce
I0705 15:36:12.423835 28465 net.cpp:399] inception_3a/5x5 -> inception_3a/5x5
I0705 15:36:12.426924 28465 net.cpp:141] Setting up inception_3a/5x5
I0705 15:36:12.426942 28465 net.cpp:148] Top shape: 10 32 28 28 (250880)
I0705 15:36:12.426947 28465 net.cpp:156] Memory required for data: 224788480
I0705 15:36:12.426956 28465 layer_factory.hpp:77] Creating layer inception_3a/relu_5x5
I0705 15:36:12.426964 28465 net.cpp:91] Creating Layer inception_3a/relu_5x5
I0705 15:36:12.426970 28465 net.cpp:425] inception_3a/relu_5x5 <- inception_3a/5x5
I0705 15:36:12.426980 28465 net.cpp:386] inception_3a/relu_5x5 -> inception_3a/5x5 (in-place)
I0705 15:36:12.427207 28465 net.cpp:141] Setting up inception_3a/relu_5x5
I0705 15:36:12.427220 28465 net.cpp:148] Top shape: 10 32 28 28 (250880)
I0705 15:36:12.427224 28465 net.cpp:156] Memory required for data: 225792000
I0705 15:36:12.427229 28465 layer_factory.hpp:77] Creating layer inception_3a/pool
I0705 15:36:12.427238 28465 net.cpp:91] Creating Layer inception_3a/pool
I0705 15:36:12.427243 28465 net.cpp:425] inception_3a/pool <- pool2/3x3_s2_pool2/3x3_s2_0_split_3
I0705 15:36:12.427250 28465 net.cpp:399] inception_3a/pool -> inception_3a/pool
I0705 15:36:12.427310 28465 net.cpp:141] Setting up inception_3a/pool
I0705 15:36:12.427319 28465 net.cpp:148] Top shape: 10 192 28 28 (1505280)
I0705 15:36:12.427322 28465 net.cpp:156] Memory required for data: 231813120
I0705 15:36:12.427326 28465 layer_factory.hpp:77] Creating layer inception_3a/pool_proj
I0705 15:36:12.427340 28465 net.cpp:91] Creating Layer inception_3a/pool_proj
I0705 15:36:12.427345 28465 net.cpp:425] inception_3a/pool_proj <- inception_3a/pool
I0705 15:36:12.427356 28465 net.cpp:399] inception_3a/pool_proj -> inception_3a/pool_proj
I0705 15:36:12.429298 28465 net.cpp:141] Setting up inception_3a/pool_proj
I0705 15:36:12.429314 28465 net.cpp:148] Top shape: 10 32 28 28 (250880)
I0705 15:36:12.429319 28465 net.cpp:156] Memory required for data: 232816640
I0705 15:36:12.429335 28465 layer_factory.hpp:77] Creating layer inception_3a/relu_pool_proj
I0705 15:36:12.429347 28465 net.cpp:91] Creating Layer inception_3a/relu_pool_proj
I0705 15:36:12.429352 28465 net.cpp:425] inception_3a/relu_pool_proj <- inception_3a/pool_proj
I0705 15:36:12.429359 28465 net.cpp:386] inception_3a/relu_pool_proj -> inception_3a/pool_proj (in-place)
I0705 15:36:12.429568 28465 net.cpp:141] Setting up inception_3a/relu_pool_proj
I0705 15:36:12.429577 28465 net.cpp:148] Top shape: 10 32 28 28 (250880)
I0705 15:36:12.429581 28465 net.cpp:156] Memory required for data: 233820160
I0705 15:36:12.429586 28465 layer_factory.hpp:77] Creating layer inception_3a/output
I0705 15:36:12.429605 28465 net.cpp:91] Creating Layer inception_3a/output
I0705 15:36:12.429610 28465 net.cpp:425] inception_3a/output <- inception_3a/1x1
I0705 15:36:12.429616 28465 net.cpp:425] inception_3a/output <- inception_3a/3x3
I0705 15:36:12.429621 28465 net.cpp:425] inception_3a/output <- inception_3a/5x5
I0705 15:36:12.429625 28465 net.cpp:425] inception_3a/output <- inception_3a/pool_proj
I0705 15:36:12.429631 28465 net.cpp:399] inception_3a/output -> inception_3a/output
I0705 15:36:12.429669 28465 net.cpp:141] Setting up inception_3a/output
I0705 15:36:12.429678 28465 net.cpp:148] Top shape: 10 256 28 28 (2007040)
I0705 15:36:12.429682 28465 net.cpp:156] Memory required for data: 241848320
I0705 15:36:12.429687 28465 layer_factory.hpp:77] Creating layer inception_3a/output_inception_3a/output_0_split
I0705 15:36:12.429693 28465 net.cpp:91] Creating Layer inception_3a/output_inception_3a/output_0_split
I0705 15:36:12.429697 28465 net.cpp:425] inception_3a/output_inception_3a/output_0_split <- inception_3a/output
I0705 15:36:12.429708 28465 net.cpp:399] inception_3a/output_inception_3a/output_0_split -> inception_3a/output_inception_3a/output_0_split_0
I0705 15:36:12.429715 28465 net.cpp:399] inception_3a/output_inception_3a/output_0_split -> inception_3a/output_inception_3a/output_0_split_1
I0705 15:36:12.429723 28465 net.cpp:399] inception_3a/output_inception_3a/output_0_split -> inception_3a/output_inception_3a/output_0_split_2
I0705 15:36:12.429730 28465 net.cpp:399] inception_3a/output_inception_3a/output_0_split -> inception_3a/output_inception_3a/output_0_split_3
I0705 15:36:12.429807 28465 net.cpp:141] Setting up inception_3a/output_inception_3a/output_0_split
I0705 15:36:12.429816 28465 net.cpp:148] Top shape: 10 256 28 28 (2007040)
I0705 15:36:12.429822 28465 net.cpp:148] Top shape: 10 256 28 28 (2007040)
I0705 15:36:12.429827 28465 net.cpp:148] Top shape: 10 256 28 28 (2007040)
I0705 15:36:12.429832 28465 net.cpp:148] Top shape: 10 256 28 28 (2007040)
I0705 15:36:12.429836 28465 net.cpp:156] Memory required for data: 273960960
I0705 15:36:12.429841 28465 layer_factory.hpp:77] Creating layer inception_3b/1x1
I0705 15:36:12.429854 28465 net.cpp:91] Creating Layer inception_3b/1x1
I0705 15:36:12.429859 28465 net.cpp:425] inception_3b/1x1 <- inception_3a/output_inception_3a/output_0_split_0
I0705 15:36:12.429867 28465 net.cpp:399] inception_3b/1x1 -> inception_3b/1x1
I0705 15:36:12.432051 28465 net.cpp:141] Setting up inception_3b/1x1
I0705 15:36:12.432070 28465 net.cpp:148] Top shape: 10 128 28 28 (1003520)
I0705 15:36:12.432075 28465 net.cpp:156] Memory required for data: 277975040
I0705 15:36:12.432083 28465 layer_factory.hpp:77] Creating layer inception_3b/relu_1x1
I0705 15:36:12.432091 28465 net.cpp:91] Creating Layer inception_3b/relu_1x1
I0705 15:36:12.432096 28465 net.cpp:425] inception_3b/relu_1x1 <- inception_3b/1x1
I0705 15:36:12.432102 28465 net.cpp:386] inception_3b/relu_1x1 -> inception_3b/1x1 (in-place)
I0705 15:36:12.432842 28465 net.cpp:141] Setting up inception_3b/relu_1x1
I0705 15:36:12.432857 28465 net.cpp:148] Top shape: 10 128 28 28 (1003520)
I0705 15:36:12.432862 28465 net.cpp:156] Memory required for data: 281989120
I0705 15:36:12.432865 28465 layer_factory.hpp:77] Creating layer inception_3b/3x3_reduce
I0705 15:36:12.432881 28465 net.cpp:91] Creating Layer inception_3b/3x3_reduce
I0705 15:36:12.432888 28465 net.cpp:425] inception_3b/3x3_reduce <- inception_3a/output_inception_3a/output_0_split_1
I0705 15:36:12.432895 28465 net.cpp:399] inception_3b/3x3_reduce -> inception_3b/3x3_reduce
I0705 15:36:12.435068 28465 net.cpp:141] Setting up inception_3b/3x3_reduce
I0705 15:36:12.435086 28465 net.cpp:148] Top shape: 10 128 28 28 (1003520)
I0705 15:36:12.435091 28465 net.cpp:156] Memory required for data: 286003200
I0705 15:36:12.435098 28465 layer_factory.hpp:77] Creating layer inception_3b/relu_3x3_reduce
I0705 15:36:12.435106 28465 net.cpp:91] Creating Layer inception_3b/relu_3x3_reduce
I0705 15:36:12.435111 28465 net.cpp:425] inception_3b/relu_3x3_reduce <- inception_3b/3x3_reduce
I0705 15:36:12.435124 28465 net.cpp:386] inception_3b/relu_3x3_reduce -> inception_3b/3x3_reduce (in-place)
I0705 15:36:12.435335 28465 net.cpp:141] Setting up inception_3b/relu_3x3_reduce
I0705 15:36:12.435348 28465 net.cpp:148] Top shape: 10 128 28 28 (1003520)
I0705 15:36:12.435353 28465 net.cpp:156] Memory required for data: 290017280
I0705 15:36:12.435358 28465 layer_factory.hpp:77] Creating layer inception_3b/3x3
I0705 15:36:12.435372 28465 net.cpp:91] Creating Layer inception_3b/3x3
I0705 15:36:12.435377 28465 net.cpp:425] inception_3b/3x3 <- inception_3b/3x3_reduce
I0705 15:36:12.435385 28465 net.cpp:399] inception_3b/3x3 -> inception_3b/3x3
I0705 15:36:12.440352 28465 net.cpp:141] Setting up inception_3b/3x3
I0705 15:36:12.440389 28465 net.cpp:148] Top shape: 10 192 28 28 (1505280)
I0705 15:36:12.440394 28465 net.cpp:156] Memory required for data: 296038400
I0705 15:36:12.440407 28465 layer_factory.hpp:77] Creating layer inception_3b/relu_3x3
I0705 15:36:12.440425 28465 net.cpp:91] Creating Layer inception_3b/relu_3x3
I0705 15:36:12.440433 28465 net.cpp:425] inception_3b/relu_3x3 <- inception_3b/3x3
I0705 15:36:12.440441 28465 net.cpp:386] inception_3b/relu_3x3 -> inception_3b/3x3 (in-place)
I0705 15:36:12.440659 28465 net.cpp:141] Setting up inception_3b/relu_3x3
I0705 15:36:12.440671 28465 net.cpp:148] Top shape: 10 192 28 28 (1505280)
I0705 15:36:12.440676 28465 net.cpp:156] Memory required for data: 302059520
I0705 15:36:12.440680 28465 layer_factory.hpp:77] Creating layer inception_3b/5x5_reduce
I0705 15:36:12.440704 28465 net.cpp:91] Creating Layer inception_3b/5x5_reduce
I0705 15:36:12.440709 28465 net.cpp:425] inception_3b/5x5_reduce <- inception_3a/output_inception_3a/output_0_split_2
I0705 15:36:12.440718 28465 net.cpp:399] inception_3b/5x5_reduce -> inception_3b/5x5_reduce
I0705 15:36:12.443080 28465 net.cpp:141] Setting up inception_3b/5x5_reduce
I0705 15:36:12.443104 28465 net.cpp:148] Top shape: 10 32 28 28 (250880)
I0705 15:36:12.443109 28465 net.cpp:156] Memory required for data: 303063040
I0705 15:36:12.443117 28465 layer_factory.hpp:77] Creating layer inception_3b/relu_5x5_reduce
I0705 15:36:12.443126 28465 net.cpp:91] Creating Layer inception_3b/relu_5x5_reduce
I0705 15:36:12.443132 28465 net.cpp:425] inception_3b/relu_5x5_reduce <- inception_3b/5x5_reduce
I0705 15:36:12.443138 28465 net.cpp:386] inception_3b/relu_5x5_reduce -> inception_3b/5x5_reduce (in-place)
I0705 15:36:12.443856 28465 net.cpp:141] Setting up inception_3b/relu_5x5_reduce
I0705 15:36:12.443871 28465 net.cpp:148] Top shape: 10 32 28 28 (250880)
I0705 15:36:12.443874 28465 net.cpp:156] Memory required for data: 304066560
I0705 15:36:12.443879 28465 layer_factory.hpp:77] Creating layer inception_3b/5x5
I0705 15:36:12.443895 28465 net.cpp:91] Creating Layer inception_3b/5x5
I0705 15:36:12.443902 28465 net.cpp:425] inception_3b/5x5 <- inception_3b/5x5_reduce
I0705 15:36:12.443909 28465 net.cpp:399] inception_3b/5x5 -> inception_3b/5x5
I0705 15:36:12.447588 28465 net.cpp:141] Setting up inception_3b/5x5
I0705 15:36:12.447612 28465 net.cpp:148] Top shape: 10 96 28 28 (752640)
I0705 15:36:12.447616 28465 net.cpp:156] Memory required for data: 307077120
I0705 15:36:12.447624 28465 layer_factory.hpp:77] Creating layer inception_3b/relu_5x5
I0705 15:36:12.447635 28465 net.cpp:91] Creating Layer inception_3b/relu_5x5
I0705 15:36:12.447648 28465 net.cpp:425] inception_3b/relu_5x5 <- inception_3b/5x5
I0705 15:36:12.447654 28465 net.cpp:386] inception_3b/relu_5x5 -> inception_3b/5x5 (in-place)
I0705 15:36:12.447921 28465 net.cpp:141] Setting up inception_3b/relu_5x5
I0705 15:36:12.447935 28465 net.cpp:148] Top shape: 10 96 28 28 (752640)
I0705 15:36:12.447939 28465 net.cpp:156] Memory required for data: 310087680
I0705 15:36:12.447944 28465 layer_factory.hpp:77] Creating layer inception_3b/pool
I0705 15:36:12.447953 28465 net.cpp:91] Creating Layer inception_3b/pool
I0705 15:36:12.447958 28465 net.cpp:425] inception_3b/pool <- inception_3a/output_inception_3a/output_0_split_3
I0705 15:36:12.447968 28465 net.cpp:399] inception_3b/pool -> inception_3b/pool
I0705 15:36:12.448035 28465 net.cpp:141] Setting up inception_3b/pool
I0705 15:36:12.448045 28465 net.cpp:148] Top shape: 10 256 28 28 (2007040)
I0705 15:36:12.448050 28465 net.cpp:156] Memory required for data: 318115840
I0705 15:36:12.448053 28465 layer_factory.hpp:77] Creating layer inception_3b/pool_proj
I0705 15:36:12.448065 28465 net.cpp:91] Creating Layer inception_3b/pool_proj
I0705 15:36:12.448076 28465 net.cpp:425] inception_3b/pool_proj <- inception_3b/pool
I0705 15:36:12.448086 28465 net.cpp:399] inception_3b/pool_proj -> inception_3b/pool_proj
I0705 15:36:12.450518 28465 net.cpp:141] Setting up inception_3b/pool_proj
I0705 15:36:12.450544 28465 net.cpp:148] Top shape: 10 64 28 28 (501760)
I0705 15:36:12.450549 28465 net.cpp:156] Memory required for data: 320122880
I0705 15:36:12.450561 28465 layer_factory.hpp:77] Creating layer inception_3b/relu_pool_proj
I0705 15:36:12.450569 28465 net.cpp:91] Creating Layer inception_3b/relu_pool_proj
I0705 15:36:12.450577 28465 net.cpp:425] inception_3b/relu_pool_proj <- inception_3b/pool_proj
I0705 15:36:12.450583 28465 net.cpp:386] inception_3b/relu_pool_proj -> inception_3b/pool_proj (in-place)
I0705 15:36:12.450814 28465 net.cpp:141] Setting up inception_3b/relu_pool_proj
I0705 15:36:12.450824 28465 net.cpp:148] Top shape: 10 64 28 28 (501760)
I0705 15:36:12.450829 28465 net.cpp:156] Memory required for data: 322129920
I0705 15:36:12.450834 28465 layer_factory.hpp:77] Creating layer inception_3b/output
I0705 15:36:12.450844 28465 net.cpp:91] Creating Layer inception_3b/output
I0705 15:36:12.450848 28465 net.cpp:425] inception_3b/output <- inception_3b/1x1
I0705 15:36:12.450855 28465 net.cpp:425] inception_3b/output <- inception_3b/3x3
I0705 15:36:12.450860 28465 net.cpp:425] inception_3b/output <- inception_3b/5x5
I0705 15:36:12.450865 28465 net.cpp:425] inception_3b/output <- inception_3b/pool_proj
I0705 15:36:12.450870 28465 net.cpp:399] inception_3b/output -> inception_3b/output
I0705 15:36:12.450909 28465 net.cpp:141] Setting up inception_3b/output
I0705 15:36:12.450920 28465 net.cpp:148] Top shape: 10 480 28 28 (3763200)
I0705 15:36:12.450924 28465 net.cpp:156] Memory required for data: 337182720
I0705 15:36:12.450928 28465 layer_factory.hpp:77] Creating layer pool3/3x3_s2
I0705 15:36:12.450937 28465 net.cpp:91] Creating Layer pool3/3x3_s2
I0705 15:36:12.450942 28465 net.cpp:425] pool3/3x3_s2 <- inception_3b/output
I0705 15:36:12.450949 28465 net.cpp:399] pool3/3x3_s2 -> pool3/3x3_s2
I0705 15:36:12.451011 28465 net.cpp:141] Setting up pool3/3x3_s2
I0705 15:36:12.451020 28465 net.cpp:148] Top shape: 10 480 14 14 (940800)
I0705 15:36:12.451025 28465 net.cpp:156] Memory required for data: 340945920
I0705 15:36:12.451028 28465 layer_factory.hpp:77] Creating layer pool3/3x3_s2_pool3/3x3_s2_0_split
I0705 15:36:12.451036 28465 net.cpp:91] Creating Layer pool3/3x3_s2_pool3/3x3_s2_0_split
I0705 15:36:12.451041 28465 net.cpp:425] pool3/3x3_s2_pool3/3x3_s2_0_split <- pool3/3x3_s2
I0705 15:36:12.451050 28465 net.cpp:399] pool3/3x3_s2_pool3/3x3_s2_0_split -> pool3/3x3_s2_pool3/3x3_s2_0_split_0
I0705 15:36:12.451058 28465 net.cpp:399] pool3/3x3_s2_pool3/3x3_s2_0_split -> pool3/3x3_s2_pool3/3x3_s2_0_split_1
I0705 15:36:12.451066 28465 net.cpp:399] pool3/3x3_s2_pool3/3x3_s2_0_split -> pool3/3x3_s2_pool3/3x3_s2_0_split_2
I0705 15:36:12.451073 28465 net.cpp:399] pool3/3x3_s2_pool3/3x3_s2_0_split -> pool3/3x3_s2_pool3/3x3_s2_0_split_3
I0705 15:36:12.451149 28465 net.cpp:141] Setting up pool3/3x3_s2_pool3/3x3_s2_0_split
I0705 15:36:12.451158 28465 net.cpp:148] Top shape: 10 480 14 14 (940800)
I0705 15:36:12.451164 28465 net.cpp:148] Top shape: 10 480 14 14 (940800)
I0705 15:36:12.451169 28465 net.cpp:148] Top shape: 10 480 14 14 (940800)
I0705 15:36:12.451172 28465 net.cpp:148] Top shape: 10 480 14 14 (940800)
I0705 15:36:12.451176 28465 net.cpp:156] Memory required for data: 355998720
I0705 15:36:12.451180 28465 layer_factory.hpp:77] Creating layer inception_4a/1x1
I0705 15:36:12.451197 28465 net.cpp:91] Creating Layer inception_4a/1x1
I0705 15:36:12.451202 28465 net.cpp:425] inception_4a/1x1 <- pool3/3x3_s2_pool3/3x3_s2_0_split_0
I0705 15:36:12.451210 28465 net.cpp:399] inception_4a/1x1 -> inception_4a/1x1
I0705 15:36:12.454473 28465 net.cpp:141] Setting up inception_4a/1x1
I0705 15:36:12.454491 28465 net.cpp:148] Top shape: 10 192 14 14 (376320)
I0705 15:36:12.454496 28465 net.cpp:156] Memory required for data: 357504000
I0705 15:36:12.454504 28465 layer_factory.hpp:77] Creating layer inception_4a/relu_1x1
I0705 15:36:12.454512 28465 net.cpp:91] Creating Layer inception_4a/relu_1x1
I0705 15:36:12.454519 28465 net.cpp:425] inception_4a/relu_1x1 <- inception_4a/1x1
I0705 15:36:12.454529 28465 net.cpp:386] inception_4a/relu_1x1 -> inception_4a/1x1 (in-place)
I0705 15:36:12.455255 28465 net.cpp:141] Setting up inception_4a/relu_1x1
I0705 15:36:12.455271 28465 net.cpp:148] Top shape: 10 192 14 14 (376320)
I0705 15:36:12.455276 28465 net.cpp:156] Memory required for data: 359009280
I0705 15:36:12.455281 28465 layer_factory.hpp:77] Creating layer inception_4a/3x3_reduce
I0705 15:36:12.455296 28465 net.cpp:91] Creating Layer inception_4a/3x3_reduce
I0705 15:36:12.455302 28465 net.cpp:425] inception_4a/3x3_reduce <- pool3/3x3_s2_pool3/3x3_s2_0_split_1
I0705 15:36:12.455312 28465 net.cpp:399] inception_4a/3x3_reduce -> inception_4a/3x3_reduce
I0705 15:36:12.457631 28465 net.cpp:141] Setting up inception_4a/3x3_reduce
I0705 15:36:12.457649 28465 net.cpp:148] Top shape: 10 96 14 14 (188160)
I0705 15:36:12.457653 28465 net.cpp:156] Memory required for data: 359761920
I0705 15:36:12.457674 28465 layer_factory.hpp:77] Creating layer inception_4a/relu_3x3_reduce
I0705 15:36:12.457684 28465 net.cpp:91] Creating Layer inception_4a/relu_3x3_reduce
I0705 15:36:12.457689 28465 net.cpp:425] inception_4a/relu_3x3_reduce <- inception_4a/3x3_reduce
I0705 15:36:12.457695 28465 net.cpp:386] inception_4a/relu_3x3_reduce -> inception_4a/3x3_reduce (in-place)
I0705 15:36:12.457908 28465 net.cpp:141] Setting up inception_4a/relu_3x3_reduce
I0705 15:36:12.457919 28465 net.cpp:148] Top shape: 10 96 14 14 (188160)
I0705 15:36:12.457923 28465 net.cpp:156] Memory required for data: 360514560
I0705 15:36:12.457927 28465 layer_factory.hpp:77] Creating layer inception_4a/3x3
I0705 15:36:12.457942 28465 net.cpp:91] Creating Layer inception_4a/3x3
I0705 15:36:12.457947 28465 net.cpp:425] inception_4a/3x3 <- inception_4a/3x3_reduce
I0705 15:36:12.457958 28465 net.cpp:399] inception_4a/3x3 -> inception_4a/3x3
I0705 15:36:12.462306 28465 net.cpp:141] Setting up inception_4a/3x3
I0705 15:36:12.462326 28465 net.cpp:148] Top shape: 10 208 14 14 (407680)
I0705 15:36:12.462330 28465 net.cpp:156] Memory required for data: 362145280
I0705 15:36:12.462339 28465 layer_factory.hpp:77] Creating layer inception_4a/relu_3x3
I0705 15:36:12.462347 28465 net.cpp:91] Creating Layer inception_4a/relu_3x3
I0705 15:36:12.462353 28465 net.cpp:425] inception_4a/relu_3x3 <- inception_4a/3x3
I0705 15:36:12.462363 28465 net.cpp:386] inception_4a/relu_3x3 -> inception_4a/3x3 (in-place)
I0705 15:36:12.462592 28465 net.cpp:141] Setting up inception_4a/relu_3x3
I0705 15:36:12.462604 28465 net.cpp:148] Top shape: 10 208 14 14 (407680)
I0705 15:36:12.462609 28465 net.cpp:156] Memory required for data: 363776000
I0705 15:36:12.462612 28465 layer_factory.hpp:77] Creating layer inception_4a/5x5_reduce
I0705 15:36:12.462630 28465 net.cpp:91] Creating Layer inception_4a/5x5_reduce
I0705 15:36:12.462635 28465 net.cpp:425] inception_4a/5x5_reduce <- pool3/3x3_s2_pool3/3x3_s2_0_split_2
I0705 15:36:12.462644 28465 net.cpp:399] inception_4a/5x5_reduce -> inception_4a/5x5_reduce
I0705 15:36:12.465173 28465 net.cpp:141] Setting up inception_4a/5x5_reduce
I0705 15:36:12.465194 28465 net.cpp:148] Top shape: 10 16 14 14 (31360)
I0705 15:36:12.465199 28465 net.cpp:156] Memory required for data: 363901440
I0705 15:36:12.465209 28465 layer_factory.hpp:77] Creating layer inception_4a/relu_5x5_reduce
I0705 15:36:12.465220 28465 net.cpp:91] Creating Layer inception_4a/relu_5x5_reduce
I0705 15:36:12.465226 28465 net.cpp:425] inception_4a/relu_5x5_reduce <- inception_4a/5x5_reduce
I0705 15:36:12.465234 28465 net.cpp:386] inception_4a/relu_5x5_reduce -> inception_4a/5x5_reduce (in-place)
I0705 15:36:12.465948 28465 net.cpp:141] Setting up inception_4a/relu_5x5_reduce
I0705 15:36:12.465966 28465 net.cpp:148] Top shape: 10 16 14 14 (31360)
I0705 15:36:12.465971 28465 net.cpp:156] Memory required for data: 364026880
I0705 15:36:12.465976 28465 layer_factory.hpp:77] Creating layer inception_4a/5x5
I0705 15:36:12.465992 28465 net.cpp:91] Creating Layer inception_4a/5x5
I0705 15:36:12.465998 28465 net.cpp:425] inception_4a/5x5 <- inception_4a/5x5_reduce
I0705 15:36:12.466006 28465 net.cpp:399] inception_4a/5x5 -> inception_4a/5x5
I0705 15:36:12.468142 28465 net.cpp:141] Setting up inception_4a/5x5
I0705 15:36:12.468161 28465 net.cpp:148] Top shape: 10 48 14 14 (94080)
I0705 15:36:12.468166 28465 net.cpp:156] Memory required for data: 364403200
I0705 15:36:12.468174 28465 layer_factory.hpp:77] Creating layer inception_4a/relu_5x5
I0705 15:36:12.468186 28465 net.cpp:91] Creating Layer inception_4a/relu_5x5
I0705 15:36:12.468191 28465 net.cpp:425] inception_4a/relu_5x5 <- inception_4a/5x5
I0705 15:36:12.468199 28465 net.cpp:386] inception_4a/relu_5x5 -> inception_4a/5x5 (in-place)
I0705 15:36:12.468417 28465 net.cpp:141] Setting up inception_4a/relu_5x5
I0705 15:36:12.468428 28465 net.cpp:148] Top shape: 10 48 14 14 (94080)
I0705 15:36:12.468432 28465 net.cpp:156] Memory required for data: 364779520
I0705 15:36:12.468437 28465 layer_factory.hpp:77] Creating layer inception_4a/pool
I0705 15:36:12.468446 28465 net.cpp:91] Creating Layer inception_4a/pool
I0705 15:36:12.468451 28465 net.cpp:425] inception_4a/pool <- pool3/3x3_s2_pool3/3x3_s2_0_split_3
I0705 15:36:12.468461 28465 net.cpp:399] inception_4a/pool -> inception_4a/pool
I0705 15:36:12.468520 28465 net.cpp:141] Setting up inception_4a/pool
I0705 15:36:12.468531 28465 net.cpp:148] Top shape: 10 480 14 14 (940800)
I0705 15:36:12.468535 28465 net.cpp:156] Memory required for data: 368542720
I0705 15:36:12.468539 28465 layer_factory.hpp:77] Creating layer inception_4a/pool_proj
I0705 15:36:12.468551 28465 net.cpp:91] Creating Layer inception_4a/pool_proj
I0705 15:36:12.468556 28465 net.cpp:425] inception_4a/pool_proj <- inception_4a/pool
I0705 15:36:12.468566 28465 net.cpp:399] inception_4a/pool_proj -> inception_4a/pool_proj
I0705 15:36:12.470752 28465 net.cpp:141] Setting up inception_4a/pool_proj
I0705 15:36:12.470769 28465 net.cpp:148] Top shape: 10 64 14 14 (125440)
I0705 15:36:12.470774 28465 net.cpp:156] Memory required for data: 369044480
I0705 15:36:12.470782 28465 layer_factory.hpp:77] Creating layer inception_4a/relu_pool_proj
I0705 15:36:12.470793 28465 net.cpp:91] Creating Layer inception_4a/relu_pool_proj
I0705 15:36:12.470800 28465 net.cpp:425] inception_4a/relu_pool_proj <- inception_4a/pool_proj
I0705 15:36:12.470806 28465 net.cpp:386] inception_4a/relu_pool_proj -> inception_4a/pool_proj (in-place)
I0705 15:36:12.471024 28465 net.cpp:141] Setting up inception_4a/relu_pool_proj
I0705 15:36:12.471035 28465 net.cpp:148] Top shape: 10 64 14 14 (125440)
I0705 15:36:12.471038 28465 net.cpp:156] Memory required for data: 369546240
I0705 15:36:12.471042 28465 layer_factory.hpp:77] Creating layer inception_4a/output
I0705 15:36:12.471050 28465 net.cpp:91] Creating Layer inception_4a/output
I0705 15:36:12.471055 28465 net.cpp:425] inception_4a/output <- inception_4a/1x1
I0705 15:36:12.471060 28465 net.cpp:425] inception_4a/output <- inception_4a/3x3
I0705 15:36:12.471065 28465 net.cpp:425] inception_4a/output <- inception_4a/5x5
I0705 15:36:12.471071 28465 net.cpp:425] inception_4a/output <- inception_4a/pool_proj
I0705 15:36:12.471081 28465 net.cpp:399] inception_4a/output -> inception_4a/output
I0705 15:36:12.471119 28465 net.cpp:141] Setting up inception_4a/output
I0705 15:36:12.471130 28465 net.cpp:148] Top shape: 10 512 14 14 (1003520)
I0705 15:36:12.471134 28465 net.cpp:156] Memory required for data: 373560320
I0705 15:36:12.471138 28465 layer_factory.hpp:77] Creating layer inception_4a/output_inception_4a/output_0_split
I0705 15:36:12.471146 28465 net.cpp:91] Creating Layer inception_4a/output_inception_4a/output_0_split
I0705 15:36:12.471150 28465 net.cpp:425] inception_4a/output_inception_4a/output_0_split <- inception_4a/output
I0705 15:36:12.471156 28465 net.cpp:399] inception_4a/output_inception_4a/output_0_split -> inception_4a/output_inception_4a/output_0_split_0
I0705 15:36:12.471165 28465 net.cpp:399] inception_4a/output_inception_4a/output_0_split -> inception_4a/output_inception_4a/output_0_split_1
I0705 15:36:12.471173 28465 net.cpp:399] inception_4a/output_inception_4a/output_0_split -> inception_4a/output_inception_4a/output_0_split_2
I0705 15:36:12.471184 28465 net.cpp:399] inception_4a/output_inception_4a/output_0_split -> inception_4a/output_inception_4a/output_0_split_3
I0705 15:36:12.471273 28465 net.cpp:141] Setting up inception_4a/output_inception_4a/output_0_split
I0705 15:36:12.471282 28465 net.cpp:148] Top shape: 10 512 14 14 (1003520)
I0705 15:36:12.471287 28465 net.cpp:148] Top shape: 10 512 14 14 (1003520)
I0705 15:36:12.471292 28465 net.cpp:148] Top shape: 10 512 14 14 (1003520)
I0705 15:36:12.471297 28465 net.cpp:148] Top shape: 10 512 14 14 (1003520)
I0705 15:36:12.471300 28465 net.cpp:156] Memory required for data: 389616640
I0705 15:36:12.471304 28465 layer_factory.hpp:77] Creating layer inception_4b/1x1
I0705 15:36:12.471318 28465 net.cpp:91] Creating Layer inception_4b/1x1
I0705 15:36:12.471323 28465 net.cpp:425] inception_4b/1x1 <- inception_4a/output_inception_4a/output_0_split_0
I0705 15:36:12.471333 28465 net.cpp:399] inception_4b/1x1 -> inception_4b/1x1
I0705 15:36:12.474021 28465 net.cpp:141] Setting up inception_4b/1x1
I0705 15:36:12.474038 28465 net.cpp:148] Top shape: 10 160 14 14 (313600)
I0705 15:36:12.474042 28465 net.cpp:156] Memory required for data: 390871040
I0705 15:36:12.474051 28465 layer_factory.hpp:77] Creating layer inception_4b/relu_1x1
I0705 15:36:12.474061 28465 net.cpp:91] Creating Layer inception_4b/relu_1x1
I0705 15:36:12.474067 28465 net.cpp:425] inception_4b/relu_1x1 <- inception_4b/1x1
I0705 15:36:12.474074 28465 net.cpp:386] inception_4b/relu_1x1 -> inception_4b/1x1 (in-place)
I0705 15:36:12.474787 28465 net.cpp:141] Setting up inception_4b/relu_1x1
I0705 15:36:12.474803 28465 net.cpp:148] Top shape: 10 160 14 14 (313600)
I0705 15:36:12.474807 28465 net.cpp:156] Memory required for data: 392125440
I0705 15:36:12.474813 28465 layer_factory.hpp:77] Creating layer inception_4b/3x3_reduce
I0705 15:36:12.474828 28465 net.cpp:91] Creating Layer inception_4b/3x3_reduce
I0705 15:36:12.474833 28465 net.cpp:425] inception_4b/3x3_reduce <- inception_4a/output_inception_4a/output_0_split_1
I0705 15:36:12.474844 28465 net.cpp:399] inception_4b/3x3_reduce -> inception_4b/3x3_reduce
I0705 15:36:12.477236 28465 net.cpp:141] Setting up inception_4b/3x3_reduce
I0705 15:36:12.477255 28465 net.cpp:148] Top shape: 10 112 14 14 (219520)
I0705 15:36:12.477260 28465 net.cpp:156] Memory required for data: 393003520
I0705 15:36:12.477268 28465 layer_factory.hpp:77] Creating layer inception_4b/relu_3x3_reduce
I0705 15:36:12.477277 28465 net.cpp:91] Creating Layer inception_4b/relu_3x3_reduce
I0705 15:36:12.477283 28465 net.cpp:425] inception_4b/relu_3x3_reduce <- inception_4b/3x3_reduce
I0705 15:36:12.477288 28465 net.cpp:386] inception_4b/relu_3x3_reduce -> inception_4b/3x3_reduce (in-place)
I0705 15:36:12.477514 28465 net.cpp:141] Setting up inception_4b/relu_3x3_reduce
I0705 15:36:12.477524 28465 net.cpp:148] Top shape: 10 112 14 14 (219520)
I0705 15:36:12.477529 28465 net.cpp:156] Memory required for data: 393881600
I0705 15:36:12.477533 28465 layer_factory.hpp:77] Creating layer inception_4b/3x3
I0705 15:36:12.477546 28465 net.cpp:91] Creating Layer inception_4b/3x3
I0705 15:36:12.477551 28465 net.cpp:425] inception_4b/3x3 <- inception_4b/3x3_reduce
I0705 15:36:12.477562 28465 net.cpp:399] inception_4b/3x3 -> inception_4b/3x3
I0705 15:36:12.482765 28465 net.cpp:141] Setting up inception_4b/3x3
I0705 15:36:12.482784 28465 net.cpp:148] Top shape: 10 224 14 14 (439040)
I0705 15:36:12.482789 28465 net.cpp:156] Memory required for data: 395637760
I0705 15:36:12.482797 28465 layer_factory.hpp:77] Creating layer inception_4b/relu_3x3
I0705 15:36:12.482808 28465 net.cpp:91] Creating Layer inception_4b/relu_3x3
I0705 15:36:12.482813 28465 net.cpp:425] inception_4b/relu_3x3 <- inception_4b/3x3
I0705 15:36:12.482820 28465 net.cpp:386] inception_4b/relu_3x3 -> inception_4b/3x3 (in-place)
I0705 15:36:12.483055 28465 net.cpp:141] Setting up inception_4b/relu_3x3
I0705 15:36:12.483068 28465 net.cpp:148] Top shape: 10 224 14 14 (439040)
I0705 15:36:12.483073 28465 net.cpp:156] Memory required for data: 397393920
I0705 15:36:12.483078 28465 layer_factory.hpp:77] Creating layer inception_4b/5x5_reduce
I0705 15:36:12.483105 28465 net.cpp:91] Creating Layer inception_4b/5x5_reduce
I0705 15:36:12.483111 28465 net.cpp:425] inception_4b/5x5_reduce <- inception_4a/output_inception_4a/output_0_split_2
I0705 15:36:12.483124 28465 net.cpp:399] inception_4b/5x5_reduce -> inception_4b/5x5_reduce
I0705 15:36:12.485213 28465 net.cpp:141] Setting up inception_4b/5x5_reduce
I0705 15:36:12.485229 28465 net.cpp:148] Top shape: 10 24 14 14 (47040)
I0705 15:36:12.485234 28465 net.cpp:156] Memory required for data: 397582080
I0705 15:36:12.485242 28465 layer_factory.hpp:77] Creating layer inception_4b/relu_5x5_reduce
I0705 15:36:12.485250 28465 net.cpp:91] Creating Layer inception_4b/relu_5x5_reduce
I0705 15:36:12.485255 28465 net.cpp:425] inception_4b/relu_5x5_reduce <- inception_4b/5x5_reduce
I0705 15:36:12.485265 28465 net.cpp:386] inception_4b/relu_5x5_reduce -> inception_4b/5x5_reduce (in-place)
I0705 15:36:12.485958 28465 net.cpp:141] Setting up inception_4b/relu_5x5_reduce
I0705 15:36:12.485973 28465 net.cpp:148] Top shape: 10 24 14 14 (47040)
I0705 15:36:12.485978 28465 net.cpp:156] Memory required for data: 397770240
I0705 15:36:12.485982 28465 layer_factory.hpp:77] Creating layer inception_4b/5x5
I0705 15:36:12.485998 28465 net.cpp:91] Creating Layer inception_4b/5x5
I0705 15:36:12.486003 28465 net.cpp:425] inception_4b/5x5 <- inception_4b/5x5_reduce
I0705 15:36:12.486014 28465 net.cpp:399] inception_4b/5x5 -> inception_4b/5x5
I0705 15:36:12.489269 28465 net.cpp:141] Setting up inception_4b/5x5
I0705 15:36:12.489285 28465 net.cpp:148] Top shape: 10 64 14 14 (125440)
I0705 15:36:12.489290 28465 net.cpp:156] Memory required for data: 398272000
I0705 15:36:12.489300 28465 layer_factory.hpp:77] Creating layer inception_4b/relu_5x5
I0705 15:36:12.489310 28465 net.cpp:91] Creating Layer inception_4b/relu_5x5
I0705 15:36:12.489315 28465 net.cpp:425] inception_4b/relu_5x5 <- inception_4b/5x5
I0705 15:36:12.489321 28465 net.cpp:386] inception_4b/relu_5x5 -> inception_4b/5x5 (in-place)
I0705 15:36:12.489552 28465 net.cpp:141] Setting up inception_4b/relu_5x5
I0705 15:36:12.489563 28465 net.cpp:148] Top shape: 10 64 14 14 (125440)
I0705 15:36:12.489567 28465 net.cpp:156] Memory required for data: 398773760
I0705 15:36:12.489572 28465 layer_factory.hpp:77] Creating layer inception_4b/pool
I0705 15:36:12.489580 28465 net.cpp:91] Creating Layer inception_4b/pool
I0705 15:36:12.489585 28465 net.cpp:425] inception_4b/pool <- inception_4a/output_inception_4a/output_0_split_3
I0705 15:36:12.489595 28465 net.cpp:399] inception_4b/pool -> inception_4b/pool
I0705 15:36:12.489655 28465 net.cpp:141] Setting up inception_4b/pool
I0705 15:36:12.489667 28465 net.cpp:148] Top shape: 10 512 14 14 (1003520)
I0705 15:36:12.489671 28465 net.cpp:156] Memory required for data: 402787840
I0705 15:36:12.489675 28465 layer_factory.hpp:77] Creating layer inception_4b/pool_proj
I0705 15:36:12.489686 28465 net.cpp:91] Creating Layer inception_4b/pool_proj
I0705 15:36:12.489691 28465 net.cpp:425] inception_4b/pool_proj <- inception_4b/pool
I0705 15:36:12.489701 28465 net.cpp:399] inception_4b/pool_proj -> inception_4b/pool_proj
I0705 15:36:12.491926 28465 net.cpp:141] Setting up inception_4b/pool_proj
I0705 15:36:12.491943 28465 net.cpp:148] Top shape: 10 64 14 14 (125440)
I0705 15:36:12.491948 28465 net.cpp:156] Memory required for data: 403289600
I0705 15:36:12.491957 28465 layer_factory.hpp:77] Creating layer inception_4b/relu_pool_proj
I0705 15:36:12.491966 28465 net.cpp:91] Creating Layer inception_4b/relu_pool_proj
I0705 15:36:12.491971 28465 net.cpp:425] inception_4b/relu_pool_proj <- inception_4b/pool_proj
I0705 15:36:12.491981 28465 net.cpp:386] inception_4b/relu_pool_proj -> inception_4b/pool_proj (in-place)
I0705 15:36:12.492208 28465 net.cpp:141] Setting up inception_4b/relu_pool_proj
I0705 15:36:12.492218 28465 net.cpp:148] Top shape: 10 64 14 14 (125440)
I0705 15:36:12.492223 28465 net.cpp:156] Memory required for data: 403791360
I0705 15:36:12.492228 28465 layer_factory.hpp:77] Creating layer inception_4b/output
I0705 15:36:12.492235 28465 net.cpp:91] Creating Layer inception_4b/output
I0705 15:36:12.492239 28465 net.cpp:425] inception_4b/output <- inception_4b/1x1
I0705 15:36:12.492245 28465 net.cpp:425] inception_4b/output <- inception_4b/3x3
I0705 15:36:12.492250 28465 net.cpp:425] inception_4b/output <- inception_4b/5x5
I0705 15:36:12.492254 28465 net.cpp:425] inception_4b/output <- inception_4b/pool_proj
I0705 15:36:12.492260 28465 net.cpp:399] inception_4b/output -> inception_4b/output
I0705 15:36:12.492303 28465 net.cpp:141] Setting up inception_4b/output
I0705 15:36:12.492312 28465 net.cpp:148] Top shape: 10 512 14 14 (1003520)
I0705 15:36:12.492316 28465 net.cpp:156] Memory required for data: 407805440
I0705 15:36:12.492321 28465 layer_factory.hpp:77] Creating layer inception_4b/output_inception_4b/output_0_split
I0705 15:36:12.492331 28465 net.cpp:91] Creating Layer inception_4b/output_inception_4b/output_0_split
I0705 15:36:12.492336 28465 net.cpp:425] inception_4b/output_inception_4b/output_0_split <- inception_4b/output
I0705 15:36:12.492341 28465 net.cpp:399] inception_4b/output_inception_4b/output_0_split -> inception_4b/output_inception_4b/output_0_split_0
I0705 15:36:12.492349 28465 net.cpp:399] inception_4b/output_inception_4b/output_0_split -> inception_4b/output_inception_4b/output_0_split_1
I0705 15:36:12.492357 28465 net.cpp:399] inception_4b/output_inception_4b/output_0_split -> inception_4b/output_inception_4b/output_0_split_2
I0705 15:36:12.492364 28465 net.cpp:399] inception_4b/output_inception_4b/output_0_split -> inception_4b/output_inception_4b/output_0_split_3
I0705 15:36:12.492449 28465 net.cpp:141] Setting up inception_4b/output_inception_4b/output_0_split
I0705 15:36:12.492457 28465 net.cpp:148] Top shape: 10 512 14 14 (1003520)
I0705 15:36:12.492463 28465 net.cpp:148] Top shape: 10 512 14 14 (1003520)
I0705 15:36:12.492467 28465 net.cpp:148] Top shape: 10 512 14 14 (1003520)
I0705 15:36:12.492472 28465 net.cpp:148] Top shape: 10 512 14 14 (1003520)
I0705 15:36:12.492476 28465 net.cpp:156] Memory required for data: 423861760
I0705 15:36:12.492480 28465 layer_factory.hpp:77] Creating layer inception_4c/1x1
I0705 15:36:12.492494 28465 net.cpp:91] Creating Layer inception_4c/1x1
I0705 15:36:12.492499 28465 net.cpp:425] inception_4c/1x1 <- inception_4b/output_inception_4b/output_0_split_0
I0705 15:36:12.492509 28465 net.cpp:399] inception_4c/1x1 -> inception_4c/1x1
I0705 15:36:12.495394 28465 net.cpp:141] Setting up inception_4c/1x1
I0705 15:36:12.495424 28465 net.cpp:148] Top shape: 10 128 14 14 (250880)
I0705 15:36:12.495429 28465 net.cpp:156] Memory required for data: 424865280
I0705 15:36:12.495439 28465 layer_factory.hpp:77] Creating layer inception_4c/relu_1x1
I0705 15:36:12.495448 28465 net.cpp:91] Creating Layer inception_4c/relu_1x1
I0705 15:36:12.495455 28465 net.cpp:425] inception_4c/relu_1x1 <- inception_4c/1x1
I0705 15:36:12.495467 28465 net.cpp:386] inception_4c/relu_1x1 -> inception_4c/1x1 (in-place)
I0705 15:36:12.496196 28465 net.cpp:141] Setting up inception_4c/relu_1x1
I0705 15:36:12.496212 28465 net.cpp:148] Top shape: 10 128 14 14 (250880)
I0705 15:36:12.496215 28465 net.cpp:156] Memory required for data: 425868800
I0705 15:36:12.496220 28465 layer_factory.hpp:77] Creating layer inception_4c/3x3_reduce
I0705 15:36:12.496237 28465 net.cpp:91] Creating Layer inception_4c/3x3_reduce
I0705 15:36:12.496243 28465 net.cpp:425] inception_4c/3x3_reduce <- inception_4b/output_inception_4b/output_0_split_1
I0705 15:36:12.496255 28465 net.cpp:399] inception_4c/3x3_reduce -> inception_4c/3x3_reduce
I0705 15:36:12.498808 28465 net.cpp:141] Setting up inception_4c/3x3_reduce
I0705 15:36:12.498826 28465 net.cpp:148] Top shape: 10 128 14 14 (250880)
I0705 15:36:12.498831 28465 net.cpp:156] Memory required for data: 426872320
I0705 15:36:12.498839 28465 layer_factory.hpp:77] Creating layer inception_4c/relu_3x3_reduce
I0705 15:36:12.498850 28465 net.cpp:91] Creating Layer inception_4c/relu_3x3_reduce
I0705 15:36:12.498857 28465 net.cpp:425] inception_4c/relu_3x3_reduce <- inception_4c/3x3_reduce
I0705 15:36:12.498862 28465 net.cpp:386] inception_4c/relu_3x3_reduce -> inception_4c/3x3_reduce (in-place)
I0705 15:36:12.499100 28465 net.cpp:141] Setting up inception_4c/relu_3x3_reduce
I0705 15:36:12.499112 28465 net.cpp:148] Top shape: 10 128 14 14 (250880)
I0705 15:36:12.499116 28465 net.cpp:156] Memory required for data: 427875840
I0705 15:36:12.499120 28465 layer_factory.hpp:77] Creating layer inception_4c/3x3
I0705 15:36:12.499138 28465 net.cpp:91] Creating Layer inception_4c/3x3
I0705 15:36:12.499143 28465 net.cpp:425] inception_4c/3x3 <- inception_4c/3x3_reduce
I0705 15:36:12.499155 28465 net.cpp:399] inception_4c/3x3 -> inception_4c/3x3
I0705 15:36:12.504468 28465 net.cpp:141] Setting up inception_4c/3x3
I0705 15:36:12.504488 28465 net.cpp:148] Top shape: 10 256 14 14 (501760)
I0705 15:36:12.504493 28465 net.cpp:156] Memory required for data: 429882880
I0705 15:36:12.504503 28465 layer_factory.hpp:77] Creating layer inception_4c/relu_3x3
I0705 15:36:12.504513 28465 net.cpp:91] Creating Layer inception_4c/relu_3x3
I0705 15:36:12.504518 28465 net.cpp:425] inception_4c/relu_3x3 <- inception_4c/3x3
I0705 15:36:12.504524 28465 net.cpp:386] inception_4c/relu_3x3 -> inception_4c/3x3 (in-place)
I0705 15:36:12.504767 28465 net.cpp:141] Setting up inception_4c/relu_3x3
I0705 15:36:12.504782 28465 net.cpp:148] Top shape: 10 256 14 14 (501760)
I0705 15:36:12.504786 28465 net.cpp:156] Memory required for data: 431889920
I0705 15:36:12.504791 28465 layer_factory.hpp:77] Creating layer inception_4c/5x5_reduce
I0705 15:36:12.504806 28465 net.cpp:91] Creating Layer inception_4c/5x5_reduce
I0705 15:36:12.504811 28465 net.cpp:425] inception_4c/5x5_reduce <- inception_4b/output_inception_4b/output_0_split_2
I0705 15:36:12.504819 28465 net.cpp:399] inception_4c/5x5_reduce -> inception_4c/5x5_reduce
I0705 15:36:12.506973 28465 net.cpp:141] Setting up inception_4c/5x5_reduce
I0705 15:36:12.506991 28465 net.cpp:148] Top shape: 10 24 14 14 (47040)
I0705 15:36:12.506996 28465 net.cpp:156] Memory required for data: 432078080
I0705 15:36:12.507005 28465 layer_factory.hpp:77] Creating layer inception_4c/relu_5x5_reduce
I0705 15:36:12.507014 28465 net.cpp:91] Creating Layer inception_4c/relu_5x5_reduce
I0705 15:36:12.507019 28465 net.cpp:425] inception_4c/relu_5x5_reduce <- inception_4c/5x5_reduce
I0705 15:36:12.507028 28465 net.cpp:386] inception_4c/relu_5x5_reduce -> inception_4c/5x5_reduce (in-place)
I0705 15:36:12.507747 28465 net.cpp:141] Setting up inception_4c/relu_5x5_reduce
I0705 15:36:12.507762 28465 net.cpp:148] Top shape: 10 24 14 14 (47040)
I0705 15:36:12.507767 28465 net.cpp:156] Memory required for data: 432266240
I0705 15:36:12.507772 28465 layer_factory.hpp:77] Creating layer inception_4c/5x5
I0705 15:36:12.507787 28465 net.cpp:91] Creating Layer inception_4c/5x5
I0705 15:36:12.507793 28465 net.cpp:425] inception_4c/5x5 <- inception_4c/5x5_reduce
I0705 15:36:12.507803 28465 net.cpp:399] inception_4c/5x5 -> inception_4c/5x5
I0705 15:36:12.510756 28465 net.cpp:141] Setting up inception_4c/5x5
I0705 15:36:12.510774 28465 net.cpp:148] Top shape: 10 64 14 14 (125440)
I0705 15:36:12.510779 28465 net.cpp:156] Memory required for data: 432768000
I0705 15:36:12.510788 28465 layer_factory.hpp:77] Creating layer inception_4c/relu_5x5
I0705 15:36:12.510797 28465 net.cpp:91] Creating Layer inception_4c/relu_5x5
I0705 15:36:12.510802 28465 net.cpp:425] inception_4c/relu_5x5 <- inception_4c/5x5
I0705 15:36:12.510810 28465 net.cpp:386] inception_4c/relu_5x5 -> inception_4c/5x5 (in-place)
I0705 15:36:12.511049 28465 net.cpp:141] Setting up inception_4c/relu_5x5
I0705 15:36:12.511060 28465 net.cpp:148] Top shape: 10 64 14 14 (125440)
I0705 15:36:12.511065 28465 net.cpp:156] Memory required for data: 433269760
I0705 15:36:12.511070 28465 layer_factory.hpp:77] Creating layer inception_4c/pool
I0705 15:36:12.511081 28465 net.cpp:91] Creating Layer inception_4c/pool
I0705 15:36:12.511087 28465 net.cpp:425] inception_4c/pool <- inception_4b/output_inception_4b/output_0_split_3
I0705 15:36:12.511095 28465 net.cpp:399] inception_4c/pool -> inception_4c/pool
I0705 15:36:12.511173 28465 net.cpp:141] Setting up inception_4c/pool
I0705 15:36:12.511183 28465 net.cpp:148] Top shape: 10 512 14 14 (1003520)
I0705 15:36:12.511186 28465 net.cpp:156] Memory required for data: 437283840
I0705 15:36:12.511191 28465 layer_factory.hpp:77] Creating layer inception_4c/pool_proj
I0705 15:36:12.511204 28465 net.cpp:91] Creating Layer inception_4c/pool_proj
I0705 15:36:12.511210 28465 net.cpp:425] inception_4c/pool_proj <- inception_4c/pool
I0705 15:36:12.511221 28465 net.cpp:399] inception_4c/pool_proj -> inception_4c/pool_proj
I0705 15:36:12.514842 28465 net.cpp:141] Setting up inception_4c/pool_proj
I0705 15:36:12.514868 28465 net.cpp:148] Top shape: 10 64 14 14 (125440)
I0705 15:36:12.514873 28465 net.cpp:156] Memory required for data: 437785600
I0705 15:36:12.514900 28465 layer_factory.hpp:77] Creating layer inception_4c/relu_pool_proj
I0705 15:36:12.514911 28465 net.cpp:91] Creating Layer inception_4c/relu_pool_proj
I0705 15:36:12.514917 28465 net.cpp:425] inception_4c/relu_pool_proj <- inception_4c/pool_proj
I0705 15:36:12.514925 28465 net.cpp:386] inception_4c/relu_pool_proj -> inception_4c/pool_proj (in-place)
I0705 15:36:12.515166 28465 net.cpp:141] Setting up inception_4c/relu_pool_proj
I0705 15:36:12.515177 28465 net.cpp:148] Top shape: 10 64 14 14 (125440)
I0705 15:36:12.515183 28465 net.cpp:156] Memory required for data: 438287360
I0705 15:36:12.515192 28465 layer_factory.hpp:77] Creating layer inception_4c/output
I0705 15:36:12.515208 28465 net.cpp:91] Creating Layer inception_4c/output
I0705 15:36:12.515214 28465 net.cpp:425] inception_4c/output <- inception_4c/1x1
I0705 15:36:12.515220 28465 net.cpp:425] inception_4c/output <- inception_4c/3x3
I0705 15:36:12.515225 28465 net.cpp:425] inception_4c/output <- inception_4c/5x5
I0705 15:36:12.515230 28465 net.cpp:425] inception_4c/output <- inception_4c/pool_proj
I0705 15:36:12.515236 28465 net.cpp:399] inception_4c/output -> inception_4c/output
I0705 15:36:12.515285 28465 net.cpp:141] Setting up inception_4c/output
I0705 15:36:12.515293 28465 net.cpp:148] Top shape: 10 512 14 14 (1003520)
I0705 15:36:12.515298 28465 net.cpp:156] Memory required for data: 442301440
I0705 15:36:12.515302 28465 layer_factory.hpp:77] Creating layer inception_4c/output_inception_4c/output_0_split
I0705 15:36:12.515311 28465 net.cpp:91] Creating Layer inception_4c/output_inception_4c/output_0_split
I0705 15:36:12.515316 28465 net.cpp:425] inception_4c/output_inception_4c/output_0_split <- inception_4c/output
I0705 15:36:12.515323 28465 net.cpp:399] inception_4c/output_inception_4c/output_0_split -> inception_4c/output_inception_4c/output_0_split_0
I0705 15:36:12.515332 28465 net.cpp:399] inception_4c/output_inception_4c/output_0_split -> inception_4c/output_inception_4c/output_0_split_1
I0705 15:36:12.515339 28465 net.cpp:399] inception_4c/output_inception_4c/output_0_split -> inception_4c/output_inception_4c/output_0_split_2
I0705 15:36:12.515347 28465 net.cpp:399] inception_4c/output_inception_4c/output_0_split -> inception_4c/output_inception_4c/output_0_split_3
I0705 15:36:12.515434 28465 net.cpp:141] Setting up inception_4c/output_inception_4c/output_0_split
I0705 15:36:12.515444 28465 net.cpp:148] Top shape: 10 512 14 14 (1003520)
I0705 15:36:12.515450 28465 net.cpp:148] Top shape: 10 512 14 14 (1003520)
I0705 15:36:12.515455 28465 net.cpp:148] Top shape: 10 512 14 14 (1003520)
I0705 15:36:12.515460 28465 net.cpp:148] Top shape: 10 512 14 14 (1003520)
I0705 15:36:12.515463 28465 net.cpp:156] Memory required for data: 458357760
I0705 15:36:12.515467 28465 layer_factory.hpp:77] Creating layer inception_4d/1x1
I0705 15:36:12.515481 28465 net.cpp:91] Creating Layer inception_4d/1x1
I0705 15:36:12.515487 28465 net.cpp:425] inception_4d/1x1 <- inception_4c/output_inception_4c/output_0_split_0
I0705 15:36:12.515496 28465 net.cpp:399] inception_4d/1x1 -> inception_4d/1x1
I0705 15:36:12.518072 28465 net.cpp:141] Setting up inception_4d/1x1
I0705 15:36:12.518090 28465 net.cpp:148] Top shape: 10 112 14 14 (219520)
I0705 15:36:12.518095 28465 net.cpp:156] Memory required for data: 459235840
I0705 15:36:12.518105 28465 layer_factory.hpp:77] Creating layer inception_4d/relu_1x1
I0705 15:36:12.518115 28465 net.cpp:91] Creating Layer inception_4d/relu_1x1
I0705 15:36:12.518121 28465 net.cpp:425] inception_4d/relu_1x1 <- inception_4d/1x1
I0705 15:36:12.518128 28465 net.cpp:386] inception_4d/relu_1x1 -> inception_4d/1x1 (in-place)
I0705 15:36:12.518863 28465 net.cpp:141] Setting up inception_4d/relu_1x1
I0705 15:36:12.518878 28465 net.cpp:148] Top shape: 10 112 14 14 (219520)
I0705 15:36:12.518883 28465 net.cpp:156] Memory required for data: 460113920
I0705 15:36:12.518888 28465 layer_factory.hpp:77] Creating layer inception_4d/3x3_reduce
I0705 15:36:12.518905 28465 net.cpp:91] Creating Layer inception_4d/3x3_reduce
I0705 15:36:12.518910 28465 net.cpp:425] inception_4d/3x3_reduce <- inception_4c/output_inception_4c/output_0_split_1
I0705 15:36:12.518919 28465 net.cpp:399] inception_4d/3x3_reduce -> inception_4d/3x3_reduce
I0705 15:36:12.521543 28465 net.cpp:141] Setting up inception_4d/3x3_reduce
I0705 15:36:12.521561 28465 net.cpp:148] Top shape: 10 144 14 14 (282240)
I0705 15:36:12.521566 28465 net.cpp:156] Memory required for data: 461242880
I0705 15:36:12.521574 28465 layer_factory.hpp:77] Creating layer inception_4d/relu_3x3_reduce
I0705 15:36:12.521585 28465 net.cpp:91] Creating Layer inception_4d/relu_3x3_reduce
I0705 15:36:12.521590 28465 net.cpp:425] inception_4d/relu_3x3_reduce <- inception_4d/3x3_reduce
I0705 15:36:12.521597 28465 net.cpp:386] inception_4d/relu_3x3_reduce -> inception_4d/3x3_reduce (in-place)
I0705 15:36:12.521847 28465 net.cpp:141] Setting up inception_4d/relu_3x3_reduce
I0705 15:36:12.521858 28465 net.cpp:148] Top shape: 10 144 14 14 (282240)
I0705 15:36:12.521862 28465 net.cpp:156] Memory required for data: 462371840
I0705 15:36:12.521867 28465 layer_factory.hpp:77] Creating layer inception_4d/3x3
I0705 15:36:12.521883 28465 net.cpp:91] Creating Layer inception_4d/3x3
I0705 15:36:12.521889 28465 net.cpp:425] inception_4d/3x3 <- inception_4d/3x3_reduce
I0705 15:36:12.521898 28465 net.cpp:399] inception_4d/3x3 -> inception_4d/3x3
I0705 15:36:12.528991 28465 net.cpp:141] Setting up inception_4d/3x3
I0705 15:36:12.529031 28465 net.cpp:148] Top shape: 10 288 14 14 (564480)
I0705 15:36:12.529037 28465 net.cpp:156] Memory required for data: 464629760
I0705 15:36:12.529048 28465 layer_factory.hpp:77] Creating layer inception_4d/relu_3x3
I0705 15:36:12.529062 28465 net.cpp:91] Creating Layer inception_4d/relu_3x3
I0705 15:36:12.529068 28465 net.cpp:425] inception_4d/relu_3x3 <- inception_4d/3x3
I0705 15:36:12.529081 28465 net.cpp:386] inception_4d/relu_3x3 -> inception_4d/3x3 (in-place)
I0705 15:36:12.529307 28465 net.cpp:141] Setting up inception_4d/relu_3x3
I0705 15:36:12.529319 28465 net.cpp:148] Top shape: 10 288 14 14 (564480)
I0705 15:36:12.529322 28465 net.cpp:156] Memory required for data: 466887680
I0705 15:36:12.529327 28465 layer_factory.hpp:77] Creating layer inception_4d/5x5_reduce
I0705 15:36:12.529343 28465 net.cpp:91] Creating Layer inception_4d/5x5_reduce
I0705 15:36:12.529350 28465 net.cpp:425] inception_4d/5x5_reduce <- inception_4c/output_inception_4c/output_0_split_2
I0705 15:36:12.529361 28465 net.cpp:399] inception_4d/5x5_reduce -> inception_4d/5x5_reduce
I0705 15:36:12.531545 28465 net.cpp:141] Setting up inception_4d/5x5_reduce
I0705 15:36:12.531563 28465 net.cpp:148] Top shape: 10 32 14 14 (62720)
I0705 15:36:12.531568 28465 net.cpp:156] Memory required for data: 467138560
I0705 15:36:12.531575 28465 layer_factory.hpp:77] Creating layer inception_4d/relu_5x5_reduce
I0705 15:36:12.531589 28465 net.cpp:91] Creating Layer inception_4d/relu_5x5_reduce
I0705 15:36:12.531594 28465 net.cpp:425] inception_4d/relu_5x5_reduce <- inception_4d/5x5_reduce
I0705 15:36:12.531601 28465 net.cpp:386] inception_4d/relu_5x5_reduce -> inception_4d/5x5_reduce (in-place)
I0705 15:36:12.532299 28465 net.cpp:141] Setting up inception_4d/relu_5x5_reduce
I0705 15:36:12.532313 28465 net.cpp:148] Top shape: 10 32 14 14 (62720)
I0705 15:36:12.532317 28465 net.cpp:156] Memory required for data: 467389440
I0705 15:36:12.532322 28465 layer_factory.hpp:77] Creating layer inception_4d/5x5
I0705 15:36:12.532340 28465 net.cpp:91] Creating Layer inception_4d/5x5
I0705 15:36:12.532346 28465 net.cpp:425] inception_4d/5x5 <- inception_4d/5x5_reduce
I0705 15:36:12.532354 28465 net.cpp:399] inception_4d/5x5 -> inception_4d/5x5
I0705 15:36:12.534816 28465 net.cpp:141] Setting up inception_4d/5x5
I0705 15:36:12.534834 28465 net.cpp:148] Top shape: 10 64 14 14 (125440)
I0705 15:36:12.534839 28465 net.cpp:156] Memory required for data: 467891200
I0705 15:36:12.534847 28465 layer_factory.hpp:77] Creating layer inception_4d/relu_5x5
I0705 15:36:12.534858 28465 net.cpp:91] Creating Layer inception_4d/relu_5x5
I0705 15:36:12.534864 28465 net.cpp:425] inception_4d/relu_5x5 <- inception_4d/5x5
I0705 15:36:12.534873 28465 net.cpp:386] inception_4d/relu_5x5 -> inception_4d/5x5 (in-place)
I0705 15:36:12.535616 28465 net.cpp:141] Setting up inception_4d/relu_5x5
I0705 15:36:12.535639 28465 net.cpp:148] Top shape: 10 64 14 14 (125440)
I0705 15:36:12.535643 28465 net.cpp:156] Memory required for data: 468392960
I0705 15:36:12.535648 28465 layer_factory.hpp:77] Creating layer inception_4d/pool
I0705 15:36:12.535665 28465 net.cpp:91] Creating Layer inception_4d/pool
I0705 15:36:12.535671 28465 net.cpp:425] inception_4d/pool <- inception_4c/output_inception_4c/output_0_split_3
I0705 15:36:12.535681 28465 net.cpp:399] inception_4d/pool -> inception_4d/pool
I0705 15:36:12.535763 28465 net.cpp:141] Setting up inception_4d/pool
I0705 15:36:12.535773 28465 net.cpp:148] Top shape: 10 512 14 14 (1003520)
I0705 15:36:12.535776 28465 net.cpp:156] Memory required for data: 472407040
I0705 15:36:12.535781 28465 layer_factory.hpp:77] Creating layer inception_4d/pool_proj
I0705 15:36:12.535796 28465 net.cpp:91] Creating Layer inception_4d/pool_proj
I0705 15:36:12.535801 28465 net.cpp:425] inception_4d/pool_proj <- inception_4d/pool
I0705 15:36:12.535809 28465 net.cpp:399] inception_4d/pool_proj -> inception_4d/pool_proj
I0705 15:36:12.538429 28465 net.cpp:141] Setting up inception_4d/pool_proj
I0705 15:36:12.538449 28465 net.cpp:148] Top shape: 10 64 14 14 (125440)
I0705 15:36:12.538453 28465 net.cpp:156] Memory required for data: 472908800
I0705 15:36:12.538462 28465 layer_factory.hpp:77] Creating layer inception_4d/relu_pool_proj
I0705 15:36:12.538472 28465 net.cpp:91] Creating Layer inception_4d/relu_pool_proj
I0705 15:36:12.538478 28465 net.cpp:425] inception_4d/relu_pool_proj <- inception_4d/pool_proj
I0705 15:36:12.538485 28465 net.cpp:386] inception_4d/relu_pool_proj -> inception_4d/pool_proj (in-place)
I0705 15:36:12.538738 28465 net.cpp:141] Setting up inception_4d/relu_pool_proj
I0705 15:36:12.538750 28465 net.cpp:148] Top shape: 10 64 14 14 (125440)
I0705 15:36:12.538754 28465 net.cpp:156] Memory required for data: 473410560
I0705 15:36:12.538759 28465 layer_factory.hpp:77] Creating layer inception_4d/output
I0705 15:36:12.538770 28465 net.cpp:91] Creating Layer inception_4d/output
I0705 15:36:12.538775 28465 net.cpp:425] inception_4d/output <- inception_4d/1x1
I0705 15:36:12.538781 28465 net.cpp:425] inception_4d/output <- inception_4d/3x3
I0705 15:36:12.538786 28465 net.cpp:425] inception_4d/output <- inception_4d/5x5
I0705 15:36:12.538791 28465 net.cpp:425] inception_4d/output <- inception_4d/pool_proj
I0705 15:36:12.538797 28465 net.cpp:399] inception_4d/output -> inception_4d/output
I0705 15:36:12.538843 28465 net.cpp:141] Setting up inception_4d/output
I0705 15:36:12.538852 28465 net.cpp:148] Top shape: 10 528 14 14 (1034880)
I0705 15:36:12.538856 28465 net.cpp:156] Memory required for data: 477550080
I0705 15:36:12.538861 28465 layer_factory.hpp:77] Creating layer inception_4d/output_inception_4d/output_0_split
I0705 15:36:12.538868 28465 net.cpp:91] Creating Layer inception_4d/output_inception_4d/output_0_split
I0705 15:36:12.538873 28465 net.cpp:425] inception_4d/output_inception_4d/output_0_split <- inception_4d/output
I0705 15:36:12.538883 28465 net.cpp:399] inception_4d/output_inception_4d/output_0_split -> inception_4d/output_inception_4d/output_0_split_0
I0705 15:36:12.538892 28465 net.cpp:399] inception_4d/output_inception_4d/output_0_split -> inception_4d/output_inception_4d/output_0_split_1
I0705 15:36:12.538900 28465 net.cpp:399] inception_4d/output_inception_4d/output_0_split -> inception_4d/output_inception_4d/output_0_split_2
I0705 15:36:12.538908 28465 net.cpp:399] inception_4d/output_inception_4d/output_0_split -> inception_4d/output_inception_4d/output_0_split_3
I0705 15:36:12.539003 28465 net.cpp:141] Setting up inception_4d/output_inception_4d/output_0_split
I0705 15:36:12.539012 28465 net.cpp:148] Top shape: 10 528 14 14 (1034880)
I0705 15:36:12.539017 28465 net.cpp:148] Top shape: 10 528 14 14 (1034880)
I0705 15:36:12.539022 28465 net.cpp:148] Top shape: 10 528 14 14 (1034880)
I0705 15:36:12.539027 28465 net.cpp:148] Top shape: 10 528 14 14 (1034880)
I0705 15:36:12.539031 28465 net.cpp:156] Memory required for data: 494108160
I0705 15:36:12.539036 28465 layer_factory.hpp:77] Creating layer inception_4e/1x1
I0705 15:36:12.539047 28465 net.cpp:91] Creating Layer inception_4e/1x1
I0705 15:36:12.539053 28465 net.cpp:425] inception_4e/1x1 <- inception_4d/output_inception_4d/output_0_split_0
I0705 15:36:12.539060 28465 net.cpp:399] inception_4e/1x1 -> inception_4e/1x1
I0705 15:36:12.543721 28465 net.cpp:141] Setting up inception_4e/1x1
I0705 15:36:12.543740 28465 net.cpp:148] Top shape: 10 256 14 14 (501760)
I0705 15:36:12.543745 28465 net.cpp:156] Memory required for data: 496115200
I0705 15:36:12.543752 28465 layer_factory.hpp:77] Creating layer inception_4e/relu_1x1
I0705 15:36:12.543761 28465 net.cpp:91] Creating Layer inception_4e/relu_1x1
I0705 15:36:12.543766 28465 net.cpp:425] inception_4e/relu_1x1 <- inception_4e/1x1
I0705 15:36:12.543774 28465 net.cpp:386] inception_4e/relu_1x1 -> inception_4e/1x1 (in-place)
I0705 15:36:12.544502 28465 net.cpp:141] Setting up inception_4e/relu_1x1
I0705 15:36:12.544517 28465 net.cpp:148] Top shape: 10 256 14 14 (501760)
I0705 15:36:12.544520 28465 net.cpp:156] Memory required for data: 498122240
I0705 15:36:12.544525 28465 layer_factory.hpp:77] Creating layer inception_4e/3x3_reduce
I0705 15:36:12.544538 28465 net.cpp:91] Creating Layer inception_4e/3x3_reduce
I0705 15:36:12.544544 28465 net.cpp:425] inception_4e/3x3_reduce <- inception_4d/output_inception_4d/output_0_split_1
I0705 15:36:12.544555 28465 net.cpp:399] inception_4e/3x3_reduce -> inception_4e/3x3_reduce
I0705 15:36:12.547217 28465 net.cpp:141] Setting up inception_4e/3x3_reduce
I0705 15:36:12.547236 28465 net.cpp:148] Top shape: 10 160 14 14 (313600)
I0705 15:36:12.547241 28465 net.cpp:156] Memory required for data: 499376640
I0705 15:36:12.547250 28465 layer_factory.hpp:77] Creating layer inception_4e/relu_3x3_reduce
I0705 15:36:12.547257 28465 net.cpp:91] Creating Layer inception_4e/relu_3x3_reduce
I0705 15:36:12.547263 28465 net.cpp:425] inception_4e/relu_3x3_reduce <- inception_4e/3x3_reduce
I0705 15:36:12.547269 28465 net.cpp:386] inception_4e/relu_3x3_reduce -> inception_4e/3x3_reduce (in-place)
I0705 15:36:12.547500 28465 net.cpp:141] Setting up inception_4e/relu_3x3_reduce
I0705 15:36:12.547511 28465 net.cpp:148] Top shape: 10 160 14 14 (313600)
I0705 15:36:12.547515 28465 net.cpp:156] Memory required for data: 500631040
I0705 15:36:12.547519 28465 layer_factory.hpp:77] Creating layer inception_4e/3x3
I0705 15:36:12.547533 28465 net.cpp:91] Creating Layer inception_4e/3x3
I0705 15:36:12.547538 28465 net.cpp:425] inception_4e/3x3 <- inception_4e/3x3_reduce
I0705 15:36:12.547549 28465 net.cpp:399] inception_4e/3x3 -> inception_4e/3x3
I0705 15:36:12.554534 28465 net.cpp:141] Setting up inception_4e/3x3
I0705 15:36:12.554561 28465 net.cpp:148] Top shape: 10 320 14 14 (627200)
I0705 15:36:12.554568 28465 net.cpp:156] Memory required for data: 503139840
I0705 15:36:12.554576 28465 layer_factory.hpp:77] Creating layer inception_4e/relu_3x3
I0705 15:36:12.554589 28465 net.cpp:91] Creating Layer inception_4e/relu_3x3
I0705 15:36:12.554596 28465 net.cpp:425] inception_4e/relu_3x3 <- inception_4e/3x3
I0705 15:36:12.554605 28465 net.cpp:386] inception_4e/relu_3x3 -> inception_4e/3x3 (in-place)
I0705 15:36:12.554872 28465 net.cpp:141] Setting up inception_4e/relu_3x3
I0705 15:36:12.554883 28465 net.cpp:148] Top shape: 10 320 14 14 (627200)
I0705 15:36:12.554888 28465 net.cpp:156] Memory required for data: 505648640
I0705 15:36:12.554893 28465 layer_factory.hpp:77] Creating layer inception_4e/5x5_reduce
I0705 15:36:12.554908 28465 net.cpp:91] Creating Layer inception_4e/5x5_reduce
I0705 15:36:12.554914 28465 net.cpp:425] inception_4e/5x5_reduce <- inception_4d/output_inception_4d/output_0_split_2
I0705 15:36:12.554925 28465 net.cpp:399] inception_4e/5x5_reduce -> inception_4e/5x5_reduce
I0705 15:36:12.557190 28465 net.cpp:141] Setting up inception_4e/5x5_reduce
I0705 15:36:12.557206 28465 net.cpp:148] Top shape: 10 32 14 14 (62720)
I0705 15:36:12.557211 28465 net.cpp:156] Memory required for data: 505899520
I0705 15:36:12.557219 28465 layer_factory.hpp:77] Creating layer inception_4e/relu_5x5_reduce
I0705 15:36:12.557242 28465 net.cpp:91] Creating Layer inception_4e/relu_5x5_reduce
I0705 15:36:12.557248 28465 net.cpp:425] inception_4e/relu_5x5_reduce <- inception_4e/5x5_reduce
I0705 15:36:12.557255 28465 net.cpp:386] inception_4e/relu_5x5_reduce -> inception_4e/5x5_reduce (in-place)
I0705 15:36:12.557966 28465 net.cpp:141] Setting up inception_4e/relu_5x5_reduce
I0705 15:36:12.557982 28465 net.cpp:148] Top shape: 10 32 14 14 (62720)
I0705 15:36:12.557986 28465 net.cpp:156] Memory required for data: 506150400
I0705 15:36:12.557991 28465 layer_factory.hpp:77] Creating layer inception_4e/5x5
I0705 15:36:12.558006 28465 net.cpp:91] Creating Layer inception_4e/5x5
I0705 15:36:12.558012 28465 net.cpp:425] inception_4e/5x5 <- inception_4e/5x5_reduce
I0705 15:36:12.558023 28465 net.cpp:399] inception_4e/5x5 -> inception_4e/5x5
I0705 15:36:12.561969 28465 net.cpp:141] Setting up inception_4e/5x5
I0705 15:36:12.562001 28465 net.cpp:148] Top shape: 10 128 14 14 (250880)
I0705 15:36:12.562006 28465 net.cpp:156] Memory required for data: 507153920
I0705 15:36:12.562016 28465 layer_factory.hpp:77] Creating layer inception_4e/relu_5x5
I0705 15:36:12.562024 28465 net.cpp:91] Creating Layer inception_4e/relu_5x5
I0705 15:36:12.562029 28465 net.cpp:425] inception_4e/relu_5x5 <- inception_4e/5x5
I0705 15:36:12.562037 28465 net.cpp:386] inception_4e/relu_5x5 -> inception_4e/5x5 (in-place)
I0705 15:36:12.562265 28465 net.cpp:141] Setting up inception_4e/relu_5x5
I0705 15:36:12.562275 28465 net.cpp:148] Top shape: 10 128 14 14 (250880)
I0705 15:36:12.562280 28465 net.cpp:156] Memory required for data: 508157440
I0705 15:36:12.562284 28465 layer_factory.hpp:77] Creating layer inception_4e/pool
I0705 15:36:12.562295 28465 net.cpp:91] Creating Layer inception_4e/pool
I0705 15:36:12.562301 28465 net.cpp:425] inception_4e/pool <- inception_4d/output_inception_4d/output_0_split_3
I0705 15:36:12.562309 28465 net.cpp:399] inception_4e/pool -> inception_4e/pool
I0705 15:36:12.562381 28465 net.cpp:141] Setting up inception_4e/pool
I0705 15:36:12.562391 28465 net.cpp:148] Top shape: 10 528 14 14 (1034880)
I0705 15:36:12.562394 28465 net.cpp:156] Memory required for data: 512296960
I0705 15:36:12.562398 28465 layer_factory.hpp:77] Creating layer inception_4e/pool_proj
I0705 15:36:12.562412 28465 net.cpp:91] Creating Layer inception_4e/pool_proj
I0705 15:36:12.562418 28465 net.cpp:425] inception_4e/pool_proj <- inception_4e/pool
I0705 15:36:12.562428 28465 net.cpp:399] inception_4e/pool_proj -> inception_4e/pool_proj
I0705 15:36:12.565037 28465 net.cpp:141] Setting up inception_4e/pool_proj
I0705 15:36:12.565055 28465 net.cpp:148] Top shape: 10 128 14 14 (250880)
I0705 15:36:12.565060 28465 net.cpp:156] Memory required for data: 513300480
I0705 15:36:12.565069 28465 layer_factory.hpp:77] Creating layer inception_4e/relu_pool_proj
I0705 15:36:12.565083 28465 net.cpp:91] Creating Layer inception_4e/relu_pool_proj
I0705 15:36:12.565089 28465 net.cpp:425] inception_4e/relu_pool_proj <- inception_4e/pool_proj
I0705 15:36:12.565096 28465 net.cpp:386] inception_4e/relu_pool_proj -> inception_4e/pool_proj (in-place)
I0705 15:36:12.565325 28465 net.cpp:141] Setting up inception_4e/relu_pool_proj
I0705 15:36:12.565336 28465 net.cpp:148] Top shape: 10 128 14 14 (250880)
I0705 15:36:12.565340 28465 net.cpp:156] Memory required for data: 514304000
I0705 15:36:12.565345 28465 layer_factory.hpp:77] Creating layer inception_4e/output
I0705 15:36:12.565352 28465 net.cpp:91] Creating Layer inception_4e/output
I0705 15:36:12.565357 28465 net.cpp:425] inception_4e/output <- inception_4e/1x1
I0705 15:36:12.565362 28465 net.cpp:425] inception_4e/output <- inception_4e/3x3
I0705 15:36:12.565367 28465 net.cpp:425] inception_4e/output <- inception_4e/5x5
I0705 15:36:12.565372 28465 net.cpp:425] inception_4e/output <- inception_4e/pool_proj
I0705 15:36:12.565382 28465 net.cpp:399] inception_4e/output -> inception_4e/output
I0705 15:36:12.565429 28465 net.cpp:141] Setting up inception_4e/output
I0705 15:36:12.565438 28465 net.cpp:148] Top shape: 10 832 14 14 (1630720)
I0705 15:36:12.565443 28465 net.cpp:156] Memory required for data: 520826880
I0705 15:36:12.565446 28465 layer_factory.hpp:77] Creating layer pool4/3x3_s2
I0705 15:36:12.565454 28465 net.cpp:91] Creating Layer pool4/3x3_s2
I0705 15:36:12.565459 28465 net.cpp:425] pool4/3x3_s2 <- inception_4e/output
I0705 15:36:12.565464 28465 net.cpp:399] pool4/3x3_s2 -> pool4/3x3_s2
I0705 15:36:12.565546 28465 net.cpp:141] Setting up pool4/3x3_s2
I0705 15:36:12.565556 28465 net.cpp:148] Top shape: 10 832 7 7 (407680)
I0705 15:36:12.565559 28465 net.cpp:156] Memory required for data: 522457600
I0705 15:36:12.565564 28465 layer_factory.hpp:77] Creating layer pool4/3x3_s2_pool4/3x3_s2_0_split
I0705 15:36:12.565575 28465 net.cpp:91] Creating Layer pool4/3x3_s2_pool4/3x3_s2_0_split
I0705 15:36:12.565580 28465 net.cpp:425] pool4/3x3_s2_pool4/3x3_s2_0_split <- pool4/3x3_s2
I0705 15:36:12.565587 28465 net.cpp:399] pool4/3x3_s2_pool4/3x3_s2_0_split -> pool4/3x3_s2_pool4/3x3_s2_0_split_0
I0705 15:36:12.565594 28465 net.cpp:399] pool4/3x3_s2_pool4/3x3_s2_0_split -> pool4/3x3_s2_pool4/3x3_s2_0_split_1
I0705 15:36:12.565603 28465 net.cpp:399] pool4/3x3_s2_pool4/3x3_s2_0_split -> pool4/3x3_s2_pool4/3x3_s2_0_split_2
I0705 15:36:12.565611 28465 net.cpp:399] pool4/3x3_s2_pool4/3x3_s2_0_split -> pool4/3x3_s2_pool4/3x3_s2_0_split_3
I0705 15:36:12.565706 28465 net.cpp:141] Setting up pool4/3x3_s2_pool4/3x3_s2_0_split
I0705 15:36:12.565716 28465 net.cpp:148] Top shape: 10 832 7 7 (407680)
I0705 15:36:12.565726 28465 net.cpp:148] Top shape: 10 832 7 7 (407680)
I0705 15:36:12.565735 28465 net.cpp:148] Top shape: 10 832 7 7 (407680)
I0705 15:36:12.565745 28465 net.cpp:148] Top shape: 10 832 7 7 (407680)
I0705 15:36:12.565752 28465 net.cpp:156] Memory required for data: 528980480
I0705 15:36:12.565760 28465 layer_factory.hpp:77] Creating layer inception_5a/1x1
I0705 15:36:12.565781 28465 net.cpp:91] Creating Layer inception_5a/1x1
I0705 15:36:12.565790 28465 net.cpp:425] inception_5a/1x1 <- pool4/3x3_s2_pool4/3x3_s2_0_split_0
I0705 15:36:12.565810 28465 net.cpp:399] inception_5a/1x1 -> inception_5a/1x1
I0705 15:36:12.572832 28465 net.cpp:141] Setting up inception_5a/1x1
I0705 15:36:12.572861 28465 net.cpp:148] Top shape: 10 256 7 7 (125440)
I0705 15:36:12.572870 28465 net.cpp:156] Memory required for data: 529482240
I0705 15:36:12.572887 28465 layer_factory.hpp:77] Creating layer inception_5a/relu_1x1
I0705 15:36:12.572906 28465 net.cpp:91] Creating Layer inception_5a/relu_1x1
I0705 15:36:12.572916 28465 net.cpp:425] inception_5a/relu_1x1 <- inception_5a/1x1
I0705 15:36:12.572927 28465 net.cpp:386] inception_5a/relu_1x1 -> inception_5a/1x1 (in-place)
I0705 15:36:12.573957 28465 net.cpp:141] Setting up inception_5a/relu_1x1
I0705 15:36:12.573981 28465 net.cpp:148] Top shape: 10 256 7 7 (125440)
I0705 15:36:12.573987 28465 net.cpp:156] Memory required for data: 529984000
I0705 15:36:12.573995 28465 layer_factory.hpp:77] Creating layer inception_5a/3x3_reduce
I0705 15:36:12.574020 28465 net.cpp:91] Creating Layer inception_5a/3x3_reduce
I0705 15:36:12.574029 28465 net.cpp:425] inception_5a/3x3_reduce <- pool4/3x3_s2_pool4/3x3_s2_0_split_1
I0705 15:36:12.574043 28465 net.cpp:399] inception_5a/3x3_reduce -> inception_5a/3x3_reduce
I0705 15:36:12.580085 28465 net.cpp:141] Setting up inception_5a/3x3_reduce
I0705 15:36:12.580122 28465 net.cpp:148] Top shape: 10 160 7 7 (78400)
I0705 15:36:12.580132 28465 net.cpp:156] Memory required for data: 530297600
I0705 15:36:12.580145 28465 layer_factory.hpp:77] Creating layer inception_5a/relu_3x3_reduce
I0705 15:36:12.580157 28465 net.cpp:91] Creating Layer inception_5a/relu_3x3_reduce
I0705 15:36:12.580166 28465 net.cpp:425] inception_5a/relu_3x3_reduce <- inception_5a/3x3_reduce
I0705 15:36:12.580183 28465 net.cpp:386] inception_5a/relu_3x3_reduce -> inception_5a/3x3_reduce (in-place)
I0705 15:36:12.580518 28465 net.cpp:141] Setting up inception_5a/relu_3x3_reduce
I0705 15:36:12.580536 28465 net.cpp:148] Top shape: 10 160 7 7 (78400)
I0705 15:36:12.580543 28465 net.cpp:156] Memory required for data: 530611200
I0705 15:36:12.580551 28465 layer_factory.hpp:77] Creating layer inception_5a/3x3
I0705 15:36:12.580574 28465 net.cpp:91] Creating Layer inception_5a/3x3
I0705 15:36:12.580585 28465 net.cpp:425] inception_5a/3x3 <- inception_5a/3x3_reduce
I0705 15:36:12.580597 28465 net.cpp:399] inception_5a/3x3 -> inception_5a/3x3
I0705 15:36:12.592229 28465 net.cpp:141] Setting up inception_5a/3x3
I0705 15:36:12.592258 28465 net.cpp:148] Top shape: 10 320 7 7 (156800)
I0705 15:36:12.592267 28465 net.cpp:156] Memory required for data: 531238400
I0705 15:36:12.592285 28465 layer_factory.hpp:77] Creating layer inception_5a/relu_3x3
I0705 15:36:12.592299 28465 net.cpp:91] Creating Layer inception_5a/relu_3x3
I0705 15:36:12.592308 28465 net.cpp:425] inception_5a/relu_3x3 <- inception_5a/3x3
I0705 15:36:12.592324 28465 net.cpp:386] inception_5a/relu_3x3 -> inception_5a/3x3 (in-place)
I0705 15:36:12.592686 28465 net.cpp:141] Setting up inception_5a/relu_3x3
I0705 15:36:12.592702 28465 net.cpp:148] Top shape: 10 320 7 7 (156800)
I0705 15:36:12.592710 28465 net.cpp:156] Memory required for data: 531865600
I0705 15:36:12.592716 28465 layer_factory.hpp:77] Creating layer inception_5a/5x5_reduce
I0705 15:36:12.592741 28465 net.cpp:91] Creating Layer inception_5a/5x5_reduce
I0705 15:36:12.592751 28465 net.cpp:425] inception_5a/5x5_reduce <- pool4/3x3_s2_pool4/3x3_s2_0_split_2
I0705 15:36:12.592767 28465 net.cpp:399] inception_5a/5x5_reduce -> inception_5a/5x5_reduce
I0705 15:36:12.595662 28465 net.cpp:141] Setting up inception_5a/5x5_reduce
I0705 15:36:12.595682 28465 net.cpp:148] Top shape: 10 32 7 7 (15680)
I0705 15:36:12.595687 28465 net.cpp:156] Memory required for data: 531928320
I0705 15:36:12.595696 28465 layer_factory.hpp:77] Creating layer inception_5a/relu_5x5_reduce
I0705 15:36:12.595705 28465 net.cpp:91] Creating Layer inception_5a/relu_5x5_reduce
I0705 15:36:12.595710 28465 net.cpp:425] inception_5a/relu_5x5_reduce <- inception_5a/5x5_reduce
I0705 15:36:12.595720 28465 net.cpp:386] inception_5a/relu_5x5_reduce -> inception_5a/5x5_reduce (in-place)
I0705 15:36:12.596467 28465 net.cpp:141] Setting up inception_5a/relu_5x5_reduce
I0705 15:36:12.596482 28465 net.cpp:148] Top shape: 10 32 7 7 (15680)
I0705 15:36:12.596487 28465 net.cpp:156] Memory required for data: 531991040
I0705 15:36:12.596492 28465 layer_factory.hpp:77] Creating layer inception_5a/5x5
I0705 15:36:12.596506 28465 net.cpp:91] Creating Layer inception_5a/5x5
I0705 15:36:12.596513 28465 net.cpp:425] inception_5a/5x5 <- inception_5a/5x5_reduce
I0705 15:36:12.596524 28465 net.cpp:399] inception_5a/5x5 -> inception_5a/5x5
I0705 15:36:12.599527 28465 net.cpp:141] Setting up inception_5a/5x5
I0705 15:36:12.599547 28465 net.cpp:148] Top shape: 10 128 7 7 (62720)
I0705 15:36:12.599552 28465 net.cpp:156] Memory required for data: 532241920
I0705 15:36:12.599560 28465 layer_factory.hpp:77] Creating layer inception_5a/relu_5x5
I0705 15:36:12.599593 28465 net.cpp:91] Creating Layer inception_5a/relu_5x5
I0705 15:36:12.599602 28465 net.cpp:425] inception_5a/relu_5x5 <- inception_5a/5x5
I0705 15:36:12.599611 28465 net.cpp:386] inception_5a/relu_5x5 -> inception_5a/5x5 (in-place)
I0705 15:36:12.599843 28465 net.cpp:141] Setting up inception_5a/relu_5x5
I0705 15:36:12.599853 28465 net.cpp:148] Top shape: 10 128 7 7 (62720)
I0705 15:36:12.599858 28465 net.cpp:156] Memory required for data: 532492800
I0705 15:36:12.599863 28465 layer_factory.hpp:77] Creating layer inception_5a/pool
I0705 15:36:12.599870 28465 net.cpp:91] Creating Layer inception_5a/pool
I0705 15:36:12.599876 28465 net.cpp:425] inception_5a/pool <- pool4/3x3_s2_pool4/3x3_s2_0_split_3
I0705 15:36:12.599886 28465 net.cpp:399] inception_5a/pool -> inception_5a/pool
I0705 15:36:12.599958 28465 net.cpp:141] Setting up inception_5a/pool
I0705 15:36:12.599967 28465 net.cpp:148] Top shape: 10 832 7 7 (407680)
I0705 15:36:12.599972 28465 net.cpp:156] Memory required for data: 534123520
I0705 15:36:12.599977 28465 layer_factory.hpp:77] Creating layer inception_5a/pool_proj
I0705 15:36:12.599994 28465 net.cpp:91] Creating Layer inception_5a/pool_proj
I0705 15:36:12.600000 28465 net.cpp:425] inception_5a/pool_proj <- inception_5a/pool
I0705 15:36:12.600008 28465 net.cpp:399] inception_5a/pool_proj -> inception_5a/pool_proj
I0705 15:36:12.604315 28465 net.cpp:141] Setting up inception_5a/pool_proj
I0705 15:36:12.604351 28465 net.cpp:148] Top shape: 10 128 7 7 (62720)
I0705 15:36:12.604357 28465 net.cpp:156] Memory required for data: 534374400
I0705 15:36:12.604368 28465 layer_factory.hpp:77] Creating layer inception_5a/relu_pool_proj
I0705 15:36:12.604383 28465 net.cpp:91] Creating Layer inception_5a/relu_pool_proj
I0705 15:36:12.604392 28465 net.cpp:425] inception_5a/relu_pool_proj <- inception_5a/pool_proj
I0705 15:36:12.604400 28465 net.cpp:386] inception_5a/relu_pool_proj -> inception_5a/pool_proj (in-place)
I0705 15:36:12.604637 28465 net.cpp:141] Setting up inception_5a/relu_pool_proj
I0705 15:36:12.604648 28465 net.cpp:148] Top shape: 10 128 7 7 (62720)
I0705 15:36:12.604652 28465 net.cpp:156] Memory required for data: 534625280
I0705 15:36:12.604656 28465 layer_factory.hpp:77] Creating layer inception_5a/output
I0705 15:36:12.604665 28465 net.cpp:91] Creating Layer inception_5a/output
I0705 15:36:12.604671 28465 net.cpp:425] inception_5a/output <- inception_5a/1x1
I0705 15:36:12.604676 28465 net.cpp:425] inception_5a/output <- inception_5a/3x3
I0705 15:36:12.604681 28465 net.cpp:425] inception_5a/output <- inception_5a/5x5
I0705 15:36:12.604686 28465 net.cpp:425] inception_5a/output <- inception_5a/pool_proj
I0705 15:36:12.604691 28465 net.cpp:399] inception_5a/output -> inception_5a/output
I0705 15:36:12.604744 28465 net.cpp:141] Setting up inception_5a/output
I0705 15:36:12.604753 28465 net.cpp:148] Top shape: 10 832 7 7 (407680)
I0705 15:36:12.604758 28465 net.cpp:156] Memory required for data: 536256000
I0705 15:36:12.604761 28465 layer_factory.hpp:77] Creating layer inception_5a/output_inception_5a/output_0_split
I0705 15:36:12.604773 28465 net.cpp:91] Creating Layer inception_5a/output_inception_5a/output_0_split
I0705 15:36:12.604776 28465 net.cpp:425] inception_5a/output_inception_5a/output_0_split <- inception_5a/output
I0705 15:36:12.604784 28465 net.cpp:399] inception_5a/output_inception_5a/output_0_split -> inception_5a/output_inception_5a/output_0_split_0
I0705 15:36:12.604792 28465 net.cpp:399] inception_5a/output_inception_5a/output_0_split -> inception_5a/output_inception_5a/output_0_split_1
I0705 15:36:12.604800 28465 net.cpp:399] inception_5a/output_inception_5a/output_0_split -> inception_5a/output_inception_5a/output_0_split_2
I0705 15:36:12.604807 28465 net.cpp:399] inception_5a/output_inception_5a/output_0_split -> inception_5a/output_inception_5a/output_0_split_3
I0705 15:36:12.604910 28465 net.cpp:141] Setting up inception_5a/output_inception_5a/output_0_split
I0705 15:36:12.604919 28465 net.cpp:148] Top shape: 10 832 7 7 (407680)
I0705 15:36:12.604925 28465 net.cpp:148] Top shape: 10 832 7 7 (407680)
I0705 15:36:12.604929 28465 net.cpp:148] Top shape: 10 832 7 7 (407680)
I0705 15:36:12.604934 28465 net.cpp:148] Top shape: 10 832 7 7 (407680)
I0705 15:36:12.604938 28465 net.cpp:156] Memory required for data: 542778880
I0705 15:36:12.604943 28465 layer_factory.hpp:77] Creating layer inception_5b/1x1
I0705 15:36:12.604957 28465 net.cpp:91] Creating Layer inception_5b/1x1
I0705 15:36:12.604964 28465 net.cpp:425] inception_5b/1x1 <- inception_5a/output_inception_5a/output_0_split_0
I0705 15:36:12.604974 28465 net.cpp:399] inception_5b/1x1 -> inception_5b/1x1
I0705 15:36:12.611354 28465 net.cpp:141] Setting up inception_5b/1x1
I0705 15:36:12.611388 28465 net.cpp:148] Top shape: 10 384 7 7 (188160)
I0705 15:36:12.611394 28465 net.cpp:156] Memory required for data: 543531520
I0705 15:36:12.611405 28465 layer_factory.hpp:77] Creating layer inception_5b/relu_1x1
I0705 15:36:12.611419 28465 net.cpp:91] Creating Layer inception_5b/relu_1x1
I0705 15:36:12.611425 28465 net.cpp:425] inception_5b/relu_1x1 <- inception_5b/1x1
I0705 15:36:12.611433 28465 net.cpp:386] inception_5b/relu_1x1 -> inception_5b/1x1 (in-place)
I0705 15:36:12.612382 28465 net.cpp:141] Setting up inception_5b/relu_1x1
I0705 15:36:12.612401 28465 net.cpp:148] Top shape: 10 384 7 7 (188160)
I0705 15:36:12.612406 28465 net.cpp:156] Memory required for data: 544284160
I0705 15:36:12.612411 28465 layer_factory.hpp:77] Creating layer inception_5b/3x3_reduce
I0705 15:36:12.612428 28465 net.cpp:91] Creating Layer inception_5b/3x3_reduce
I0705 15:36:12.612435 28465 net.cpp:425] inception_5b/3x3_reduce <- inception_5a/output_inception_5a/output_0_split_1
I0705 15:36:12.612443 28465 net.cpp:399] inception_5b/3x3_reduce -> inception_5b/3x3_reduce
I0705 15:36:12.617111 28465 net.cpp:141] Setting up inception_5b/3x3_reduce
I0705 15:36:12.617136 28465 net.cpp:148] Top shape: 10 192 7 7 (94080)
I0705 15:36:12.617142 28465 net.cpp:156] Memory required for data: 544660480
I0705 15:36:12.617151 28465 layer_factory.hpp:77] Creating layer inception_5b/relu_3x3_reduce
I0705 15:36:12.617163 28465 net.cpp:91] Creating Layer inception_5b/relu_3x3_reduce
I0705 15:36:12.617169 28465 net.cpp:425] inception_5b/relu_3x3_reduce <- inception_5b/3x3_reduce
I0705 15:36:12.617177 28465 net.cpp:386] inception_5b/relu_3x3_reduce -> inception_5b/3x3_reduce (in-place)
I0705 15:36:12.617429 28465 net.cpp:141] Setting up inception_5b/relu_3x3_reduce
I0705 15:36:12.617441 28465 net.cpp:148] Top shape: 10 192 7 7 (94080)
I0705 15:36:12.617445 28465 net.cpp:156] Memory required for data: 545036800
I0705 15:36:12.617450 28465 layer_factory.hpp:77] Creating layer inception_5b/3x3
I0705 15:36:12.617465 28465 net.cpp:91] Creating Layer inception_5b/3x3
I0705 15:36:12.617471 28465 net.cpp:425] inception_5b/3x3 <- inception_5b/3x3_reduce
I0705 15:36:12.617482 28465 net.cpp:399] inception_5b/3x3 -> inception_5b/3x3
I0705 15:36:12.626720 28465 net.cpp:141] Setting up inception_5b/3x3
I0705 15:36:12.626749 28465 net.cpp:148] Top shape: 10 384 7 7 (188160)
I0705 15:36:12.626755 28465 net.cpp:156] Memory required for data: 545789440
I0705 15:36:12.626765 28465 layer_factory.hpp:77] Creating layer inception_5b/relu_3x3
I0705 15:36:12.626778 28465 net.cpp:91] Creating Layer inception_5b/relu_3x3
I0705 15:36:12.626785 28465 net.cpp:425] inception_5b/relu_3x3 <- inception_5b/3x3
I0705 15:36:12.626792 28465 net.cpp:386] inception_5b/relu_3x3 -> inception_5b/3x3 (in-place)
I0705 15:36:12.627033 28465 net.cpp:141] Setting up inception_5b/relu_3x3
I0705 15:36:12.627043 28465 net.cpp:148] Top shape: 10 384 7 7 (188160)
I0705 15:36:12.627048 28465 net.cpp:156] Memory required for data: 546542080
I0705 15:36:12.627053 28465 layer_factory.hpp:77] Creating layer inception_5b/5x5_reduce
I0705 15:36:12.627068 28465 net.cpp:91] Creating Layer inception_5b/5x5_reduce
I0705 15:36:12.627074 28465 net.cpp:425] inception_5b/5x5_reduce <- inception_5a/output_inception_5a/output_0_split_2
I0705 15:36:12.627085 28465 net.cpp:399] inception_5b/5x5_reduce -> inception_5b/5x5_reduce
I0705 15:36:12.629690 28465 net.cpp:141] Setting up inception_5b/5x5_reduce
I0705 15:36:12.629711 28465 net.cpp:148] Top shape: 10 48 7 7 (23520)
I0705 15:36:12.629716 28465 net.cpp:156] Memory required for data: 546636160
I0705 15:36:12.629725 28465 layer_factory.hpp:77] Creating layer inception_5b/relu_5x5_reduce
I0705 15:36:12.629736 28465 net.cpp:91] Creating Layer inception_5b/relu_5x5_reduce
I0705 15:36:12.629742 28465 net.cpp:425] inception_5b/relu_5x5_reduce <- inception_5b/5x5_reduce
I0705 15:36:12.629750 28465 net.cpp:386] inception_5b/relu_5x5_reduce -> inception_5b/5x5_reduce (in-place)
I0705 15:36:12.630499 28465 net.cpp:141] Setting up inception_5b/relu_5x5_reduce
I0705 15:36:12.630514 28465 net.cpp:148] Top shape: 10 48 7 7 (23520)
I0705 15:36:12.630518 28465 net.cpp:156] Memory required for data: 546730240
I0705 15:36:12.630523 28465 layer_factory.hpp:77] Creating layer inception_5b/5x5
I0705 15:36:12.630538 28465 net.cpp:91] Creating Layer inception_5b/5x5
I0705 15:36:12.630544 28465 net.cpp:425] inception_5b/5x5 <- inception_5b/5x5_reduce
I0705 15:36:12.630555 28465 net.cpp:399] inception_5b/5x5 -> inception_5b/5x5
I0705 15:36:12.634531 28465 net.cpp:141] Setting up inception_5b/5x5
I0705 15:36:12.634552 28465 net.cpp:148] Top shape: 10 128 7 7 (62720)
I0705 15:36:12.634557 28465 net.cpp:156] Memory required for data: 546981120
I0705 15:36:12.634567 28465 layer_factory.hpp:77] Creating layer inception_5b/relu_5x5
I0705 15:36:12.634578 28465 net.cpp:91] Creating Layer inception_5b/relu_5x5
I0705 15:36:12.634584 28465 net.cpp:425] inception_5b/relu_5x5 <- inception_5b/5x5
I0705 15:36:12.634591 28465 net.cpp:386] inception_5b/relu_5x5 -> inception_5b/5x5 (in-place)
I0705 15:36:12.634850 28465 net.cpp:141] Setting up inception_5b/relu_5x5
I0705 15:36:12.634861 28465 net.cpp:148] Top shape: 10 128 7 7 (62720)
I0705 15:36:12.634865 28465 net.cpp:156] Memory required for data: 547232000
I0705 15:36:12.634871 28465 layer_factory.hpp:77] Creating layer inception_5b/pool
I0705 15:36:12.634882 28465 net.cpp:91] Creating Layer inception_5b/pool
I0705 15:36:12.634888 28465 net.cpp:425] inception_5b/pool <- inception_5a/output_inception_5a/output_0_split_3
I0705 15:36:12.634897 28465 net.cpp:399] inception_5b/pool -> inception_5b/pool
I0705 15:36:12.634974 28465 net.cpp:141] Setting up inception_5b/pool
I0705 15:36:12.634984 28465 net.cpp:148] Top shape: 10 832 7 7 (407680)
I0705 15:36:12.634986 28465 net.cpp:156] Memory required for data: 548862720
I0705 15:36:12.634990 28465 layer_factory.hpp:77] Creating layer inception_5b/pool_proj
I0705 15:36:12.635004 28465 net.cpp:91] Creating Layer inception_5b/pool_proj
I0705 15:36:12.635010 28465 net.cpp:425] inception_5b/pool_proj <- inception_5b/pool
I0705 15:36:12.635020 28465 net.cpp:399] inception_5b/pool_proj -> inception_5b/pool_proj
I0705 15:36:12.639160 28465 net.cpp:141] Setting up inception_5b/pool_proj
I0705 15:36:12.639184 28465 net.cpp:148] Top shape: 10 128 7 7 (62720)
I0705 15:36:12.639189 28465 net.cpp:156] Memory required for data: 549113600
I0705 15:36:12.639199 28465 layer_factory.hpp:77] Creating layer inception_5b/relu_pool_proj
I0705 15:36:12.639211 28465 net.cpp:91] Creating Layer inception_5b/relu_pool_proj
I0705 15:36:12.639219 28465 net.cpp:425] inception_5b/relu_pool_proj <- inception_5b/pool_proj
I0705 15:36:12.639225 28465 net.cpp:386] inception_5b/relu_pool_proj -> inception_5b/pool_proj (in-place)
I0705 15:36:12.639467 28465 net.cpp:141] Setting up inception_5b/relu_pool_proj
I0705 15:36:12.639477 28465 net.cpp:148] Top shape: 10 128 7 7 (62720)
I0705 15:36:12.639482 28465 net.cpp:156] Memory required for data: 549364480
I0705 15:36:12.639485 28465 layer_factory.hpp:77] Creating layer inception_5b/output
I0705 15:36:12.639493 28465 net.cpp:91] Creating Layer inception_5b/output
I0705 15:36:12.639498 28465 net.cpp:425] inception_5b/output <- inception_5b/1x1
I0705 15:36:12.639504 28465 net.cpp:425] inception_5b/output <- inception_5b/3x3
I0705 15:36:12.639510 28465 net.cpp:425] inception_5b/output <- inception_5b/5x5
I0705 15:36:12.639515 28465 net.cpp:425] inception_5b/output <- inception_5b/pool_proj
I0705 15:36:12.639524 28465 net.cpp:399] inception_5b/output -> inception_5b/output
I0705 15:36:12.639574 28465 net.cpp:141] Setting up inception_5b/output
I0705 15:36:12.639585 28465 net.cpp:148] Top shape: 10 1024 7 7 (501760)
I0705 15:36:12.639590 28465 net.cpp:156] Memory required for data: 551371520
I0705 15:36:12.639595 28465 layer_factory.hpp:77] Creating layer pool5/7x7_s1
I0705 15:36:12.639601 28465 net.cpp:91] Creating Layer pool5/7x7_s1
I0705 15:36:12.639606 28465 net.cpp:425] pool5/7x7_s1 <- inception_5b/output
I0705 15:36:12.639613 28465 net.cpp:399] pool5/7x7_s1 -> pool5/7x7_s1
I0705 15:36:12.640593 28465 net.cpp:141] Setting up pool5/7x7_s1
I0705 15:36:12.640612 28465 net.cpp:148] Top shape: 10 1024 1 1 (10240)
I0705 15:36:12.640617 28465 net.cpp:156] Memory required for data: 551412480
I0705 15:36:12.640621 28465 layer_factory.hpp:77] Creating layer pool5/drop_7x7_s1
I0705 15:36:12.640636 28465 net.cpp:91] Creating Layer pool5/drop_7x7_s1
I0705 15:36:12.640641 28465 net.cpp:425] pool5/drop_7x7_s1 <- pool5/7x7_s1
I0705 15:36:12.640650 28465 net.cpp:386] pool5/drop_7x7_s1 -> pool5/7x7_s1 (in-place)
I0705 15:36:12.640699 28465 net.cpp:141] Setting up pool5/drop_7x7_s1
I0705 15:36:12.640708 28465 net.cpp:148] Top shape: 10 1024 1 1 (10240)
I0705 15:36:12.640712 28465 net.cpp:156] Memory required for data: 551453440
I0705 15:36:12.640717 28465 layer_factory.hpp:77] Creating layer loss3/classifier
I0705 15:36:12.640735 28465 net.cpp:91] Creating Layer loss3/classifier
I0705 15:36:12.640741 28465 net.cpp:425] loss3/classifier <- pool5/7x7_s1
I0705 15:36:12.640751 28465 net.cpp:399] loss3/classifier -> loss3/classifier
I0705 15:36:12.651202 28465 net.cpp:141] Setting up loss3/classifier
I0705 15:36:12.651242 28465 net.cpp:148] Top shape: 10 1000 (10000)
I0705 15:36:12.651247 28465 net.cpp:156] Memory required for data: 551493440
I0705 15:36:12.651257 28465 layer_factory.hpp:77] Creating layer prob
I0705 15:36:12.651270 28465 net.cpp:91] Creating Layer prob
I0705 15:36:12.651278 28465 net.cpp:425] prob <- loss3/classifier
I0705 15:36:12.651285 28465 net.cpp:399] prob -> prob
I0705 15:36:12.652725 28465 net.cpp:141] Setting up prob
I0705 15:36:12.652745 28465 net.cpp:148] Top shape: 10 1000 (10000)
I0705 15:36:12.652750 28465 net.cpp:156] Memory required for data: 551533440
I0705 15:36:12.652755 28465 net.cpp:219] prob does not need backward computation.
I0705 15:36:12.652760 28465 net.cpp:219] loss3/classifier does not need backward computation.
I0705 15:36:12.652763 28465 net.cpp:219] pool5/drop_7x7_s1 does not need backward computation.
I0705 15:36:12.652768 28465 net.cpp:219] pool5/7x7_s1 does not need backward computation.
…
