…
W0924 04:19:48.005442 28160 upgrade_proto.cpp:71] Note that future Caffe releases will only support input layers and not input fields.
I0924 04:19:48.005774 28104 net.cpp:49] Initializing net from parameters: 
name: "s2vt:features_to_lstm"
state {
  phase: TEST
}
layer {
  name: "input"
  type: "Input"
  top: "frames_fc7"
  top: "cont_sentence"
  top: "input_sentence"
  top: "stage_indicator"
  input_param {
    shape {
      dim: 1
      dim: 4096
    }
    shape {
      dim: 1
      dim: 1
    }
    shape {
      dim: 1
      dim: 1
    }
    shape {
      dim: 1
      dim: 1
    }
  }
}
layer {
  name: "embed_encoder"
  type: "InnerProduct"
  bottom: "frames_fc7"
  top: "embedded_in_frames"
  param {
    lr_mult: 1
    decay_mult: 1
  }
  param {
    lr_mult: 2
    decay_mult: 0
  }
  inner_product_param {
    num_output: 500
    weight_filler {
      type: "xavier"
    }
    bias_filler {
      type: "constant"
      value: 0.2
    }
  }
}
layer {
  name: "reshape_frames"
  type: "Reshape"
  bottom: "embedded_in_frames"
  top: "embedded_input_frames"
  reshape_param {
    shape {
      dim: 1
      dim: 1
      dim: 500
    }
  }
}
layer {
  name: "reshape_stage_indicator"
  type: "Reshape"
  bottom: "stage_indicator"
  top: "reshaped_stage_indicator"
  reshape_param {
    shape {
      dim: 1
      dim: 1
      dim: 1
    }
  }
}
layer {
  name: "embedding"
  type: "Embed"
  bottom: "input_sentence"
  top: "embedded_input_sentence"
  param {
    lr_mult: 1
  }
  embed_param {
    num_output: 500
    input_dim: 46168
    bias_term: false
    weight_filler {
      type: "uniform"
      min: -0.08
      max: 0.08
    }
  }
}
layer {
  name: "lstm1"
  type: "LSTM"
  bottom: "embedded_input_frames"
  bottom: "cont_sentence"
  top: "lstm1"
  recurrent_param {
    num_output: 1000
    weight_filler {
      type: "uniform"
      min: -0.08
      max: 0.08
    }
    bias_filler {
      type: "constant"
      value: 0
    }
  }
}
layer {
  name: "concat"
  type: "Concat"
  bottom: "lstm1"
  bottom: "embedded_input_sentence"
  bottom: "reshaped_stage_indicator"
  top: "lstm1_video_sequence"
  concat_param {
    concat_dim: 2
  }
}
layer {
  name: "lstm2"
  type: "LSTM"
  bottom: "lstm1_video_sequence"
  bottom: "cont_sentence"
  top: "lstm2"
  recurrent_param {
    num_output: 1000
    weight_filler {
      type: "uniform"
      min: -0.08
      max: 0.08
    }
    bias_filler {
      type: "constant"
      value: 0
    }
  }
}
layer {
  name: "predict"
  type: "InnerProduct"
  bottom: "lstm2"
  top: "predict"
  param {
    lr_mult: 1
    decay_mult: 1
  }
  param {
    lr_mult: 2
    decay_mult: 0
  }
  inner_product_param {
    num_output: 46168
    weight_filler {
      type: "uniform"
      min: -0.08
      max: 0.08
    }
    bias_filler {
      type: "constant"
      value: 0
    }
    axis: 2
  }
}
layer {
  name: "probs"
  type: "Softmax"
  bottom: "predict"
  top: "probs"
  softmax_param {
    axis: 2
  }
}
I0924 04:19:48.005774 28122 net.cpp:49] Initializing net from parameters: 
name: "s2vt:features_to_lstm"
state {
  phase: TEST
}
layer {
  name: "input"
  type: "Input"
  top: "frames_fc7"
  top: "cont_sentence"
  top: "input_sentence"
  top: "stage_indicator"
  input_param {
    shape {
      dim: 1
      dim: 4096
    }
    shape {
      dim: 1
      dim: 1
    }
    shape {
      dim: 1
      dim: 1
    }
    shape {
      dim: 1
      dim: 1
    }
  }
}
layer {
  name: "embed_encoder"
  type: "InnerProduct"
  bottom: "frames_fc7"
  top: "embedded_in_frames"
  param {
    lr_mult: 1
    decay_mult: 1
  }
  param {
    lr_mult: 2
    decay_mult: 0
  }
  inner_product_param {
    num_output: 500
    weight_filler {
      type: "xavier"
    }
    bias_filler {
      type: "constant"
      value: 0.2
    }
  }
}
layer {
  name: "reshape_frames"
  type: "Reshape"
  bottom: "embedded_in_frames"
  top: "embedded_input_frames"
  reshape_param {
    shape {
      dim: 1
      dim: 1
      dim: 500
    }
  }
}
layer {
  name: "reshape_stage_indicator"
  type: "Reshape"
  bottom: "stage_indicator"
  top: "reshaped_stage_indicator"
  reshape_param {
    shape {
      dim: 1
      dim: 1
      dim: 1
    }
  }
}
layer {
  name: "embedding"
  type: "Embed"
  bottom: "input_sentence"
  top: "embedded_input_sentence"
  param {
    lr_mult: 1
  }
  embed_param {
    num_output: 500
    input_dim: 46168
    bias_term: false
    weight_filler {
      type: "uniform"
      min: -0.08
      max: 0.08
    }
  }
}
layer {
  name: "lstm1"
  type: "LSTM"
  bottom: "embedded_input_frames"
  bottom: "cont_sentence"
  top: "lstm1"
  recurrent_param {
    num_output: 1000
    weight_filler {
      type: "uniform"
      min: -0.08
      max: 0.08
    }
    bias_filler {
      type: "constant"
      value: 0
    }
  }
}
layer {
  name: "concat"
  type: "Concat"
  bottom: "lstm1"
  bottom: "embedded_input_sentence"
  bottom: "reshaped_stage_indicator"
  top: "lstm1_video_sequence"
  concat_param {
    concat_dim: 2
  }
}
layer {
  name: "lstm2"
  type: "LSTM"
  bottom: "lstm1_video_sequence"
  bottom: "cont_sentence"
  top: "lstm2"
  recurrent_param {
    num_output: 1000
    weight_filler {
      type: "uniform"
      min: -0.08
      max: 0.08
    }
    bias_filler {
      type: "constant"
      value: 0
    }
  }
}
layer {
  name: "predict"
  type: "InnerProduct"
  bottom: "lstm2"
  top: "predict"
  param {
    lr_mult: 1
    decay_mult: 1
  }
  param {
    lr_mult: 2
    decay_mult: 0
  }
  inner_product_param {
    num_output: 46168
    weight_filler {
      type: "uniform"
      min: -0.08
      max: 0.08
    }
    bias_filler {
      type: "constant"
      value: 0
    }
    axis: 2
  }
}
layer {
  name: "probs"
  type: "Softmax"
  bottom: "predict"
  top: "probs"
  softmax_param {
    axis: 2
  }
}
I0924 04:19:48.005805 28112 net.cpp:49] Initializing net from parameters: 
name: "s2vt:features_to_lstm"
state {
  phase: TEST
}
layer {
  name: "input"
  type: "Input"
  top: "frames_fc7"
  top: "cont_sentence"
  top: "input_sentence"
  top: "stage_indicator"
  input_param {
    shape {
      dim: 1
      dim: 4096
    }
    shape {
      dim: 1
      dim: 1
    }
    shape {
      dim: 1
      dim: 1
    }
    shape {
      dim: 1
      dim: 1
    }
  }
}
layer {
  name: "embed_encoder"
  type: "InnerProduct"
  bottom: "frames_fc7"
  top: "embedded_in_frames"
  param {
    lr_mult: 1
    decay_mult: 1
  }
  param {
    lr_mult: 2
    decay_mult: 0
  }
  inner_product_param {
    num_output: 500
    weight_filler {
      type: "xavier"
    }
    bias_filler {
      type: "constant"
      value: 0.2
    }
  }
}
layer {
  name: "reshape_frames"
  type: "Reshape"
  bottom: "embedded_in_frames"
  top: "embedded_input_frames"
  reshape_param {
    shape {
      dim: 1
      dim: 1
      dim: 500
    }
  }
}
layer {
  name: "reshape_stage_indicator"
  type: "Reshape"
  bottom: "stage_indicator"
  top: "reshaped_stage_indicator"
  reshape_param {
    shape {
      dim: 1
      dim: 1
      dim: 1
    }
  }
}
layer {
  name: "embedding"
  type: "Embed"
  bottom: "input_sentence"
  top: "embedded_input_sentence"
  param {
    lr_mult: 1
  }
  embed_param {
    num_output: 500
    input_dim: 46168
    bias_term: false
    weight_filler {
      type: "uniform"
      min: -0.08
      max: 0.08
    }
  }
}
layer {
  name: "lstm1"
  type: "LSTM"
  bottom: "embedded_input_frames"
  bottom: "cont_sentence"
  top: "lstm1"
  recurrent_param {
    num_output: 1000
    weight_filler {
      type: "uniform"
      min: -0.08
      max: 0.08
    }
    bias_filler {
      type: "constant"
      value: 0
    }
  }
}
layer {
  name: "concat"
  type: "Concat"
  bottom: "lstm1"
  bottom: "embedded_input_sentence"
  bottom: "reshaped_stage_indicator"
  top: "lstm1_video_sequence"
  concat_param {
    concat_dim: 2
  }
}
layer {
  name: "lstm2"
  type: "LSTM"
  bottom: "lstm1_video_sequence"
  bottom: "cont_sentence"
  top: "lstm2"
  recurrent_param {
    num_output: 1000
    weight_filler {
      type: "uniform"
      min: -0.08
      max: 0.08
    }
    bias_filler {
      type: "constant"
      value: 0
    }
  }
}
layer {
  name: "predict"
  type: "InnerProduct"
  bottom: "lstm2"
  top: "predict"
  param {
    lr_mult: 1
    decay_mult: 1
  }
  param {
    lr_mult: 2
    decay_mult: 0
  }
  inner_product_param {
    num_output: 46168
    weight_filler {
      type: "uniform"
      min: -0.08
      max: 0.08
    }
    bias_filler {
      type: "constant"
      value: 0
    }
    axis: 2
  }
}
layer {
  name: "probs"
  type: "Softmax"
  bottom: "predict"
  top: "probs"
  softmax_param {
    axis: 2
  }
}
I0924 04:19:48.005798 28160 net.cpp:49] Initializing net from parameters: 
name: "s2vt:features_to_lstm"
state {
  phase: TEST
}
layer {
  name: "input"
  type: "Input"
  top: "frames_fc7"
  top: "cont_sentence"
  top: "input_sentence"
  top: "stage_indicator"
  input_param {
    shape {
      dim: 1
      dim: 4096
    }
    shape {
      dim: 1
      dim: 1
    }
    shape {
      dim: 1
      dim: 1
    }
    shape {
      dim: 1
      dim: 1
    }
  }
}
layer {
  name: "embed_encoder"
  type: "InnerProduct"
  bottom: "frames_fc7"
  top: "embedded_in_frames"
  param {
    lr_mult: 1
    decay_mult: 1
  }
  param {
    lr_mult: 2
    decay_mult: 0
  }
  inner_product_param {
    num_output: 500
    weight_filler {
      type: "xavier"
    }
    bias_filler {
      type: "constant"
      value: 0.2
    }
  }
}
layer {
  name: "reshape_frames"
  type: "Reshape"
  bottom: "embedded_in_frames"
  top: "embedded_input_frames"
  reshape_param {
    shape {
      dim: 1
      dim: 1
      dim: 500
    }
  }
}
layer {
  name: "reshape_stage_indicator"
  type: "Reshape"
  bottom: "stage_indicator"
  top: "reshaped_stage_indicator"
  reshape_param {
    shape {
      dim: 1
      dim: 1
      dim: 1
    }
  }
}
layer {
  name: "embedding"
  type: "Embed"
  bottom: "input_sentence"
  top: "embedded_input_sentence"
  param {
    lr_mult: 1
  }
  embed_param {
    num_output: 500
    input_dim: 46168
    bias_term: false
    weight_filler {
      type: "uniform"
      min: -0.08
      max: 0.08
    }
  }
}
layer {
  name: "lstm1"
  type: "LSTM"
  bottom: "embedded_input_frames"
  bottom: "cont_sentence"
  top: "lstm1"
  recurrent_param {
    num_output: 1000
    weight_filler {
      type: "uniform"
      min: -0.08
      max: 0.08
    }
    bias_filler {
      type: "constant"
      value: 0
    }
  }
}
layer {
  name: "concat"
  type: "Concat"
  bottom: "lstm1"
  bottom: "embedded_input_sentence"
  bottom: "reshaped_stage_indicator"
  top: "lstm1_video_sequence"
  concat_param {
    concat_dim: 2
  }
}
layer {
  name: "lstm2"
  type: "LSTM"
  bottom: "lstm1_video_sequence"
  bottom: "cont_sentence"
  top: "lstm2"
  recurrent_param {
    num_output: 1000
    weight_filler {
      type: "uniform"
      min: -0.08
      max: 0.08
    }
    bias_filler {
      type: "constant"
      value: 0
    }
  }
}
layer {
  name: "predict"
  type: "InnerProduct"
  bottom: "lstm2"
  top: "predict"
  param {
    lr_mult: 1
    decay_mult: 1
  }
  param {
    lr_mult: 2
    decay_mult: 0
  }
  inner_product_param {
    num_output: 46168
    weight_filler {
      type: "uniform"
      min: -0.08
      max: 0.08
    }
    bias_filler {
      type: "constant"
      value: 0
    }
    axis: 2
  }
}
layer {
  name: "probs"
  type: "Softmax"
  bottom: "predict"
  top: "probs"
  softmax_param {
    axis: 2
  }
}
I0924 04:19:48.005936 28104 layer_factory.hpp:77] Creating layer input
I0924 04:19:48.005937 28160 layer_factory.hpp:77] Creating layer input
I0924 04:19:48.005939 28112 layer_factory.hpp:77] Creating layer input
I0924 04:19:48.005937 28122 layer_factory.hpp:77] Creating layer input
I0924 04:19:48.005973 28122 net.cpp:91] Creating Layer input
…
I0924 04:19:48.007508 28148 upgrade_proto.cpp:66] Attempting to upgrade input file specified using deprecated input fields: /home/peifeng/work/run/storm102/data/workers/c42e73b3-b31f-484a-8cfb-f9746c12d91a/tmp/cvld259717664244858595/s2vt.words_to_preds.prototxt
I0924 04:19:48.007525 28148 upgrade_proto.cpp:69] Successfully upgraded file specified using deprecated input fields.
W0924 04:19:48.007530 28148 upgrade_proto.cpp:71] Note that future Caffe releases will only support input layers and not input fields.
I0924 04:19:48.007545 28114 net.cpp:49] Initializing net from parameters: 
name: "CaffeNet"
state {
  phase: TEST
}
layer {
  name: "data"
  type: "Input"
  top: "data"
  input_param {
    shape {
      dim: 10
      dim: 3
      dim: 227
      dim: 227
    }
  }
}
layer {
  name: "conv1"
  type: "Convolution"
  bottom: "data"
  top: "conv1"
  convolution_param {
    num_output: 96
    kernel_size: 11
    stride: 4
  }
}
layer {
  name: "relu1"
  type: "ReLU"
  bottom: "conv1"
  top: "conv1"
}
layer {
  name: "pool1"
  type: "Pooling"
  bottom: "conv1"
  top: "pool1"
  pooling_param {
    pool: MAX
    kernel_size: 3
    stride: 2
  }
}
layer {
  name: "norm1"
  type: "LRN"
  bottom: "pool1"
  top: "norm1"
  lrn_param {
    local_size: 5
    alpha: 0.0001
    beta: 0.75
  }
}
layer {
  name: "conv2"
  type: "Convolution"
  bottom: "norm1"
  top: "conv2"
  convolution_param {
    num_output: 256
    pad: 2
    kernel_size: 5
    group: 2
  }
}
layer {
  name: "relu2"
  type: "ReLU"
  bottom: "conv2"
  top: "conv2"
}
layer {
  name: "pool2"
  type: "Pooling"
  bottom: "conv2"
  top: "pool2"
  pooling_param {
    pool: MAX
    kernel_size: 3
    stride: 2
  }
}
layer {
  name: "norm2"
  type: "LRN"
  bottom: "pool2"
  top: "norm2"
  lrn_param {
    local_size: 5
    alpha: 0.0001
    beta: 0.75
  }
}
layer {
  name: "conv3"
  type: "Convolution"
  bottom: "norm2"
  top: "conv3"
  convolution_param {
    num_output: 384
    pad: 1
    kernel_size: 3
  }
}
layer {
  name: "relu3"
  type: "ReLU"
  bottom: "conv3"
  top: "conv3"
}
layer {
  name: "conv4"
  type: "Convolution"
  bottom: "conv3"
  top: "conv4"
  convolution_param {
    num_output: 384
    pad: 1
    kernel_size: 3
    group: 2
  }
}
layer {
  name: "relu4"
  type: "ReLU"
  bottom: "conv4"
  top: "conv4"
}
layer {
  name: "conv5"
  type: "Convolution"
  bottom: "conv4"
  top: "conv5"
  convolution_param {
    num_output: 256
    pad: 1
    kernel_size: 3
    group: 2
  }
}
layer {
  name: "relu5"
  type: "ReLU"
  bottom: "conv5"
  top: "conv5"
}
layer {
  name: "pool5"
  type: "Pooling"
  bottom: "conv5"
  top: "pool5"
  pooling_param {
    pool: MAX
    kernel_size: 3
    stride: 2
  }
}
layer {
  name: "fc6"
  type: "InnerProduct"
  bottom: "pool5"
  top: "fc6"
  inner_product_param {
    num_output: 4096
  }
}
layer {
  name: "relu6"
  type: "ReLU"
  bottom: "fc6"
  top: "fc6"
}
layer {
  name: "drop6"
  type: "Dropout"
  bottom: "fc6"
  top: "fc6"
  dropout_param {
    dropout_ratio: 0.5
  }
}
layer {
  name: "fc7"
  type: "InnerProduct"
  bottom: "fc6"
  top: "fc7"
  inner_product_param {
    num_output: 4096
  }
}
layer {
  name: "relu7"
  type: "ReLU"
  bottom: "fc7"
  top: "fc7"
}
layer {
  name: "drop7"
  type: "Dropout"
  bottom: "fc7"
  top: "fc7"
  dropout_param {
    dropout_ratio: 0.5
  }
}
layer {
  name: "fc8"
  type: "InnerProduct"
  bottom: "fc7"
  top: "fc8"
  inner_product_param {
    num_output: 1000
  }
}
layer {
  name: "prob"
  type: "Softmax"
  bottom: "fc8"
  top: "prob"
}
I0924 04:19:48.007697 28114 layer_factory.hpp:77] Creating layer data
I0924 04:19:48.007714 28114 net.cpp:91] Creating Layer data
I0924 04:19:48.007720 28114 net.cpp:399] data -> data
I0924 04:19:48.007788 28148 net.cpp:49] Initializing net from parameters: 
name: "s2vt:features_to_lstm"
state {
  phase: TEST
}
layer {
  name: "input"
  type: "Input"
  top: "frames_fc7"
  top: "cont_sentence"
  top: "input_sentence"
  top: "stage_indicator"
  input_param {
    shape {
      dim: 1
      dim: 4096
    }
    shape {
      dim: 1
      dim: 1
    }
    shape {
      dim: 1
      dim: 1
    }
    shape {
      dim: 1
      dim: 1
    }
  }
}
layer {
  name: "embed_encoder"
  type: "InnerProduct"
  bottom: "frames_fc7"
  top: "embedded_in_frames"
  param {
    lr_mult: 1
    decay_mult: 1
  }
  param {
    lr_mult: 2
    decay_mult: 0
  }
  inner_product_param {
    num_output: 500
    weight_filler {
      type: "xavier"
    }
    bias_filler {
      type: "constant"
      value: 0.2
    }
  }
}
layer {
  name: "reshape_frames"
  type: "Reshape"
  bottom: "embedded_in_frames"
  top: "embedded_input_frames"
  reshape_param {
    shape {
      dim: 1
      dim: 1
      dim: 500
    }
  }
}
layer {
  name: "reshape_stage_indicator"
  type: "Reshape"
  bottom: "stage_indicator"
  top: "reshaped_stage_indicator"
  reshape_param {
    shape {
      dim: 1
      dim: 1
      dim: 1
    }
  }
}
layer {
  name: "embedding"
  type: "Embed"
  bottom: "input_sentence"
  top: "embedded_input_sentence"
  param {
    lr_mult: 1
  }
  embed_param {
    num_output: 500
    input_dim: 46168
    bias_term: false
    weight_filler {
      type: "uniform"
      min: -0.08
      max: 0.08
    }
  }
}
layer {
  name: "lstm1"
  type: "LSTM"
  bottom: "embedded_input_frames"
  bottom: "cont_sentence"
  top: "lstm1"
  recurrent_param {
    num_output: 1000
    weight_filler {
      type: "uniform"
      min: -0.08
      max: 0.08
    }
    bias_filler {
      type: "constant"
      value: 0
    }
  }
}
layer {
  name: "concat"
  type: "Concat"
  bottom: "lstm1"
  bottom: "embedded_input_sentence"
  bottom: "reshaped_stage_indicator"
  top: "lstm1_video_sequence"
  concat_param {
    concat_dim: 2
  }
}
layer {
  name: "lstm2"
  type: "LSTM"
  bottom: "lstm1_video_sequence"
  bottom: "cont_sentence"
  top: "lstm2"
  recurrent_param {
    num_output: 1000
    weight_filler {
      type: "uniform"
      min: -0.08
      max: 0.08
    }
    bias_filler {
      type: "constant"
      value: 0
    }
  }
}
layer {
  name: "predict"
  type: "InnerProduct"
  bottom: "lstm2"
  top: "predict"
  param {
    lr_mult: 1
    decay_mult: 1
  }
  param {
    lr_mult: 2
    decay_mult: 0
  }
  inner_product_param {
    num_output: 46168
    weight_filler {
      type: "uniform"
      min: -0.08
      max: 0.08
    }
    bias_filler {
      type: "constant"
      value: 0
    }
    axis: 2
  }
}
layer {
  name: "probs"
  type: "Softmax"
  bottom: "predict"
  top: "probs"
  softmax_param {
    axis: 2
  }
}
I0924 04:19:48.007827 28128 upgrade_proto.cpp:66] Attempting to upgrade input file specified using deprecated input fields: /home/peifeng/work/run/storm102/data/workers/c42e73b3-b31f-484a-8cfb-f9746c12d91a/tmp/cvld259717664244858595/s2vt.words_to_preds.prototxt
I0924 04:19:48.007845 28128 upgrade_proto.cpp:69] Successfully upgraded file specified using deprecated input fields.
W0924 04:19:48.007850 28128 upgrade_proto.cpp:71] Note that future Caffe releases will only support input layers and not input fields.
I0924 04:19:48.007903 28148 layer_factory.hpp:77] Creating layer input
I0924 04:19:48.007916 28148 net.cpp:91] Creating Layer input
I0924 04:19:48.007923 28148 net.cpp:399] input -> frames_fc7
I0924 04:19:48.007936 28148 net.cpp:399] input -> cont_sentence
I0924 04:19:48.007946 28148 net.cpp:399] input -> input_sentence
I0924 04:19:48.007957 28148 net.cpp:399] input -> stage_indicator
I0924 04:19:48.008074 28128 net.cpp:49] Initializing net from parameters: 
name: "s2vt:features_to_lstm"
state {
  phase: TEST
}
layer {
  name: "input"
  type: "Input"
  top: "frames_fc7"
  top: "cont_sentence"
  top: "input_sentence"
  top: "stage_indicator"
  input_param {
    shape {
      dim: 1
      dim: 4096
    }
    shape {
      dim: 1
      dim: 1
    }
    shape {
      dim: 1
      dim: 1
    }
    shape {
      dim: 1
      dim: 1
    }
  }
}
layer {
  name: "embed_encoder"
  type: "InnerProduct"
  bottom: "frames_fc7"
  top: "embedded_in_frames"
  param {
    lr_mult: 1
    decay_mult: 1
  }
  param {
    lr_mult: 2
    decay_mult: 0
  }
  inner_product_param {
    num_output: 500
    weight_filler {
      type: "xavier"
    }
    bias_filler {
      type: "constant"
      value: 0.2
    }
  }
}
layer {
  name: "reshape_frames"
  type: "Reshape"
  bottom: "embedded_in_frames"
  top: "embedded_input_frames"
  reshape_param {
    shape {
      dim: 1
      dim: 1
      dim: 500
    }
  }
}
layer {
  name: "reshape_stage_indicator"
  type: "Reshape"
  bottom: "stage_indicator"
  top: "reshaped_stage_indicator"
  reshape_param {
    shape {
      dim: 1
      dim: 1
      dim: 1
    }
  }
}
layer {
  name: "embedding"
  type: "Embed"
  bottom: "input_sentence"
  top: "embedded_input_sentence"
  param {
    lr_mult: 1
  }
  embed_param {
    num_output: 500
    input_dim: 46168
    bias_term: false
    weight_filler {
      type: "uniform"
      min: -0.08
      max: 0.08
    }
  }
}
layer {
  name: "lstm1"
  type: "LSTM"
  bottom: "embedded_input_frames"
  bottom: "cont_sentence"
  top: "lstm1"
  recurrent_param {
    num_output: 1000
    weight_filler {
      type: "uniform"
      min: -0.08
      max: 0.08
    }
    bias_filler {
      type: "constant"
      value: 0
    }
  }
}
layer {
  name: "concat"
  type: "Concat"
  bottom: "lstm1"
  bottom: "embedded_input_sentence"
  bottom: "reshaped_stage_indicator"
  top: "lstm1_video_sequence"
  concat_param {
    concat_dim: 2
  }
}
layer {
  name: "lstm2"
  type: "LSTM"
  bottom: "lstm1_video_sequence"
  bottom: "cont_sentence"
  top: "lstm2"
  recurrent_param {
    num_output: 1000
    weight_filler {
      type: "uniform"
      min: -0.08
      max: 0.08
    }
    bias_filler {
      type: "constant"
      value: 0
    }
  }
}
layer {
  name: "predict"
  type: "InnerProduct"
  bottom: "lstm2"
  top: "predict"
  param {
    lr_mult: 1
    decay_mult: 1
  }
  param {
    lr_mult: 2
    decay_mult: 0
  }
  inner_product_param {
    num_output: 46168
    weight_filler {
      type: "uniform"
      min: -0.08
      max: 0.08
    }
    bias_filler {
      type: "constant"
      value: 0
    }
    axis: 2
  }
}
layer {
  name: "probs"
  type: "Softmax"
  bottom: "predict"
  top: "probs"
  softmax_param {
    axis: 2
  }
}
I0924 04:19:48.008088 28156 upgrade_proto.cpp:66] Attempting to upgrade input file specified using deprecated input fields: /home/peifeng/work/run/storm102/data/workers/c42e73b3-b31f-484a-8cfb-f9746c12d91a/tmp/cvld259717664244858595/s2vt.words_to_preds.prototxt
I0924 04:19:48.008106 28156 upgrade_proto.cpp:69] Successfully upgraded file specified using deprecated input fields.
…
I0924 04:19:48.008296 28108 upgrade_proto.cpp:66] Attempting to upgrade input file specified using deprecated input fields: /home/peifeng/work/run/storm102/data/workers/c42e73b3-b31f-484a-8cfb-f9746c12d91a/tmp/cvld259717664244858595/s2vt.words_to_preds.prototxt
I0924 04:19:48.008312 28156 net.cpp:49] Initializing net from parameters: 
name: "s2vt:features_to_lstm"
state {
  phase: TEST
}
layer {
  name: "input"
  type: "Input"
  top: "frames_fc7"
  top: "cont_sentence"
  top: "input_sentence"
  top: "stage_indicator"
  input_param {
    shape {
      dim: 1
      dim: 4096
    }
    shape {
      dim: 1
      dim: 1
    }
    shape {
      dim: 1
      dim: 1
    }
    shape {
      dim: 1
      dim: 1
    }
  }
}
layer {
  name: "embed_encoder"
  type: "InnerProduct"
  bottom: "frames_fc7"
  top: "embedded_in_frames"
  param {
    lr_mult: 1
    decay_mult: 1
  }
  param {
    lr_mult: 2
    decay_mult: 0
  }
  inner_product_param {
    num_output: 500
    weight_filler {
      type: "xavier"
    }
    bias_filler {
      type: "constant"
      value: 0.2
    }
  }
}
layer {
  name: "reshape_frames"
  type: "Reshape"
  bottom: "embedded_in_frames"
  top: "embedded_input_frames"
  reshape_param {
    shape {
      dim: 1
      dim: 1
      dim: 500
    }
  }
}
layer {
  name: "reshape_stage_indicator"
  type: "Reshape"
  bottom: "stage_indicator"
  top: "reshaped_stage_indicator"
  reshape_param {
    shape {
      dim: 1
      dim: 1
      dim: 1
    }
  }
}
layer {
  name: "embedding"
  type: "Embed"
  bottom: "input_sentence"
  top: "embedded_input_sentence"
  param {
    lr_mult: 1
  }
  embed_param {
    num_output: 500
    input_dim: 46168
    bias_term: false
    weight_filler {
      type: "uniform"
      min: -0.08
      max: 0.08
    }
  }
}
layer {
  name: "lstm1"
  type: "LSTM"
  bottom: "embedded_input_frames"
  bottom: "cont_sentence"
  top: "lstm1"
  recurrent_param {
    num_output: 1000
    weight_filler {
      type: "uniform"
      min: -0.08
      max: 0.08
    }
    bias_filler {
      type: "constant"
      value: 0
    }
  }
}
layer {
  name: "concat"
  type: "Concat"
  bottom: "lstm1"
  bottom: "embedded_input_sentence"
  bottom: "reshaped_stage_indicator"
  top: "lstm1_video_sequence"
  concat_param {
    concat_dim: 2
  }
}
layer {
  name: "lstm2"
  type: "LSTM"
  bottom: "lstm1_video_sequence"
  bottom: "cont_sentence"
  top: "lstm2"
  recurrent_param {
    num_output: 1000
    weight_filler {
      type: "uniform"
      min: -0.08
      max: 0.08
    }
    bias_filler {
      type: "constant"
      value: 0
    }
  }
}
layer {
  name: "predict"
  type: "InnerProduct"
  bottom: "lstm2"
  top: "predict"
  param {
    lr_mult: 1
    decay_mult: 1
  }
  param {
    lr_mult: 2
    decay_mult: 0
  }
  inner_product_param {
    num_output: 46168
    weight_filler {
      type: "uniform"
      min: -0.08
      max: 0.08
    }
    bias_filler {
      type: "constant"
      value: 0
    }
    axis: 2
  }
}
layer {
  name: "probs"
  type: "Softmax"
  bottom: "predict"
  top: "probs"
  softmax_param {
    axis: 2
  }
}
I0924 04:19:48.008296 28134 upgrade_proto.cpp:66] Attempting to upgrade input file specified using deprecated input fields: /home/peifeng/work/run/storm102/data/workers/c42e73b3-b31f-484a-8cfb-f9746c12d91a/tmp/cvld259717664244858595/s2vt.words_to_preds.prototxt
I0924 04:19:48.008330 28108 upgrade_proto.cpp:69] Successfully upgraded file specified using deprecated input fields.
…
I0924 04:19:48.008443 28156 net.cpp:399] input -> input_sentence
I0924 04:19:48.008455 28156 net.cpp:399] input -> stage_indicator
I0924 04:19:48.008615 28100 net.cpp:49] Initializing net from parameters: 
name: "s2vt:features_to_lstm"
state {
  phase: TEST
}
layer {
  name: "input"
  type: "Input"
  top: "frames_fc7"
  top: "cont_sentence"
  top: "input_sentence"
  top: "stage_indicator"
  input_param {
    shape {
      dim: 1
      dim: 4096
    }
    shape {
      dim: 1
      dim: 1
    }
    shape {
      dim: 1
      dim: 1
    }
    shape {
      dim: 1
      dim: 1
    }
  }
}
layer {
  name: "embed_encoder"
  type: "InnerProduct"
  bottom: "frames_fc7"
  top: "embedded_in_frames"
  param {
    lr_mult: 1
    decay_mult: 1
  }
  param {
    lr_mult: 2
    decay_mult: 0
  }
  inner_product_param {
    num_output: 500
    weight_filler {
      type: "xavier"
    }
    bias_filler {
      type: "constant"
      value: 0.2
    }
  }
}
layer {
  name: "reshape_frames"
  type: "Reshape"
  bottom: "embedded_in_frames"
  top: "embedded_input_frames"
  reshape_param {
    shape {
      dim: 1
      dim: 1
      dim: 500
    }
  }
}
layer {
  name: "reshape_stage_indicator"
  type: "Reshape"
  bottom: "stage_indicator"
  top: "reshaped_stage_indicator"
  reshape_param {
    shape {
      dim: 1
      dim: 1
      dim: 1
    }
  }
}
layer {
  name: "embedding"
  type: "Embed"
  bottom: "input_sentence"
  top: "embedded_input_sentence"
  param {
    lr_mult: 1
  }
  embed_param {
    num_output: 500
    input_dim: 46168
    bias_term: false
    weight_filler {
      type: "uniform"
      min: -0.08
      max: 0.08
    }
  }
}
layer {
  name: "lstm1"
  type: "LSTM"
  bottom: "embedded_input_frames"
  bottom: "cont_sentence"
  top: "lstm1"
  recurrent_param {
    num_output: 1000
    weight_filler {
      type: "uniform"
      min: -0.08
      max: 0.08
    }
    bias_filler {
      type: "constant"
      value: 0
    }
  }
}
layer {
  name: "concat"
  type: "Concat"
  bottom: "lstm1"
  bottom: "embedded_input_sentence"
  bottom: "reshaped_stage_indicator"
  top: "lstm1_video_sequence"
  concat_param {
    concat_dim: 2
  }
}
layer {
  name: "lstm2"
  type: "LSTM"
  bottom: "lstm1_video_sequence"
  bottom: "cont_sentence"
  top: "lstm2"
  recurrent_param {
    num_output: 1000
    weight_filler {
      type: "uniform"
      min: -0.08
      max: 0.08
    }
    bias_filler {
      type: "constant"
      value: 0
    }
  }
}
layer {
  name: "predict"
  type: "InnerProduct"
  bottom: "lstm2"
  top: "predict"
  param {
    lr_mult: 1
    decay_mult: 1
  }
  param {
    lr_mult: 2
    decay_mult: 0
  }
  inner_product_param {
    num_output: 46168
    weight_filler {
      type: "uniform"
      min: -0.08
      max: 0.08
    }
    bias_filler {
      type: "constant"
      value: 0
    }
    axis: 2
  }
}
layer {
  name: "probs"
  type: "Softmax"
  bottom: "predict"
  top: "probs"
  softmax_param {
    axis: 2
  }
}
I0924 04:19:48.008657 28134 net.cpp:49] Initializing net from parameters: 
name: "s2vt:features_to_lstm"
state {
  phase: TEST
}
layer {
  name: "input"
  type: "Input"
  top: "frames_fc7"
  top: "cont_sentence"
  top: "input_sentence"
  top: "stage_indicator"
  input_param {
    shape {
      dim: 1
      dim: 4096
    }
    shape {
      dim: 1
      dim: 1
    }
    shape {
      dim: 1
      dim: 1
    }
    shape {
      dim: 1
      dim: 1
    }
  }
}
layer {
  name: "embed_encoder"
  type: "InnerProduct"
  bottom: "frames_fc7"
  top: "embedded_in_frames"
  param {
    lr_mult: 1
    decay_mult: 1
  }
  param {
    lr_mult: 2
    decay_mult: 0
  }
  inner_product_param {
    num_output: 500
    weight_filler {
      type: "xavier"
    }
    bias_filler {
      type: "constant"
      value: 0.2
    }
  }
}
layer {
  name: "reshape_frames"
  type: "Reshape"
  bottom: "embedded_in_frames"
  top: "embedded_input_frames"
  reshape_param {
    shape {
      dim: 1
      dim: 1
      dim: 500
    }
  }
}
layer {
  name: "reshape_stage_indicator"
  type: "Reshape"
  bottom: "stage_indicator"
  top: "reshaped_stage_indicator"
  reshape_param {
    shape {
      dim: 1
      dim: 1
      dim: 1
    }
  }
}
layer {
  name: "embedding"
  type: "Embed"
  bottom: "input_sentence"
  top: "embedded_input_sentence"
  param {
    lr_mult: 1
  }
  embed_param {
    num_output: 500
    input_dim: 46168
    bias_term: false
    weight_filler {
      type: "uniform"
      min: -0.08
      max: 0.08
    }
  }
}
layer {
  name: "lstm1"
  type: "LSTM"
  bottom: "embedded_input_frames"
  bottom: "cont_sentence"
  top: "lstm1"
  recurrent_param {
    num_output: 1000
    weight_filler {
      type: "uniform"
      min: -0.08
      max: 0.08
    }
    bias_filler {
      type: "constant"
      value: 0
    }
  }
}
layer {
  name: "concat"
  type: "Concat"
  bottom: "lstm1"
  bottom: "embedded_input_sentence"
  bottom: "reshaped_stage_indicator"
  top: "lstm1_video_sequence"
  concat_param {
    concat_dim: 2
  }
}
layer {
  name: "lstm2"
  type: "LSTM"
  bottom: "lstm1_video_sequence"
  bottom: "cont_sentence"
  top: "lstm2"
  recurrent_param {
    num_output: 1000
    weight_filler {
      type: "uniform"
      min: -0.08
      max: 0.08
    }
    bias_filler {
      type: "constant"
      value: 0
    }
  }
}
layer {
  name: "predict"
  type: "InnerProduct"
  bottom: "lstm2"
  top: "predict"
  param {
    lr_mult: 1
    decay_mult: 1
  }
  param {
    lr_mult: 2
    decay_mult: 0
  }
  inner_product_param {
    num_output: 46168
    weight_filler {
      type: "uniform"
      min: -0.08
      max: 0.08
    }
    bias_filler {
      type: "constant"
      value: 0
    }
    axis: 2
  }
}
layer {
  name: "probs"
  type: "Softmax"
  bottom: "predict"
  top: "probs"
  softmax_param {
    axis: 2
  }
}
I0924 04:19:48.008657 28108 net.cpp:49] Initializing net from parameters: 
name: "s2vt:features_to_lstm"
state {
  phase: TEST
}
layer {
  name: "input"
  type: "Input"
  top: "frames_fc7"
  top: "cont_sentence"
  top: "input_sentence"
  top: "stage_indicator"
  input_param {
    shape {
      dim: 1
      dim: 4096
    }
    shape {
      dim: 1
      dim: 1
    }
    shape {
      dim: 1
      dim: 1
    }
    shape {
      dim: 1
      dim: 1
    }
  }
}
layer {
  name: "embed_encoder"
  type: "InnerProduct"
  bottom: "frames_fc7"
  top: "embedded_in_frames"
  param {
    lr_mult: 1
    decay_mult: 1
  }
  param {
    lr_mult: 2
    decay_mult: 0
  }
  inner_product_param {
    num_output: 500
    weight_filler {
      type: "xavier"
    }
    bias_filler {
      type: "constant"
      value: 0.2
    }
  }
}
layer {
  name: "reshape_frames"
  type: "Reshape"
  bottom: "embedded_in_frames"
  top: "embedded_input_frames"
  reshape_param {
    shape {
      dim: 1
      dim: 1
      dim: 500
    }
  }
}
layer {
  name: "reshape_stage_indicator"
  type: "Reshape"
  bottom: "stage_indicator"
  top: "reshaped_stage_indicator"
  reshape_param {
    shape {
      dim: 1
      dim: 1
      dim: 1
    }
  }
}
layer {
  name: "embedding"
  type: "Embed"
  bottom: "input_sentence"
  top: "embedded_input_sentence"
  param {
    lr_mult: 1
  }
  embed_param {
    num_output: 500
    input_dim: 46168
    bias_term: false
    weight_filler {
      type: "uniform"
      min: -0.08
      max: 0.08
    }
  }
}
layer {
  name: "lstm1"
  type: "LSTM"
  bottom: "embedded_input_frames"
  bottom: "cont_sentence"
  top: "lstm1"
  recurrent_param {
    num_output: 1000
    weight_filler {
      type: "uniform"
      min: -0.08
      max: 0.08
    }
    bias_filler {
      type: "constant"
      value: 0
    }
  }
}
layer {
  name: "concat"
  type: "Concat"
  bottom: "lstm1"
  bottom: "embedded_input_sentence"
  bottom: "reshaped_stage_indicator"
  top: "lstm1_video_sequence"
  concat_param {
    concat_dim: 2
  }
}
layer {
  name: "lstm2"
  type: "LSTM"
  bottom: "lstm1_video_sequence"
  bottom: "cont_sentence"
  top: "lstm2"
  recurrent_param {
    num_output: 1000
    weight_filler {
      type: "uniform"
      min: -0.08
      max: 0.08
    }
    bias_filler {
      type: "constant"
      value: 0
    }
  }
}
layer {
  name: "predict"
  type: "InnerProduct"
  bottom: "lstm2"
  top: "predict"
  param {
    lr_mult: 1
    decay_mult: 1
  }
  param {
    lr_mult: 2
    decay_mult: 0
  }
  inner_product_param {
    num_output: 46168
    weight_filler {
      type: "uniform"
      min: -0.08
      max: 0.08
    }
    bias_filler {
      type: "constant"
      value: 0
    }
    axis: 2
  }
}
layer {
  name: "probs"
  type: "Softmax"
  bottom: "predict"
  top: "probs"
  softmax_param {
    axis: 2
  }
}
I0924 04:19:48.008728 28100 layer_factory.hpp:77] Creating layer input
I0924 04:19:48.008749 28100 net.cpp:91] Creating Layer input
I0924 04:19:48.008762 28100 net.cpp:399] input -> frames_fc7
I0924 04:19:48.008782 28100 net.cpp:399] input -> cont_sentence
I0924 04:19:48.008801 28100 net.cpp:399] input -> input_sentence
I0924 04:19:48.008795 28108 layer_factory.hpp:77] Creating layer input
I0924 04:19:48.008795 28134 layer_factory.hpp:77] Creating layer input
I0924 04:19:48.008821 28100 net.cpp:399] input -> stage_indicator
I0924 04:19:48.008826 28108 net.cpp:91] Creating Layer input
I0924 04:19:48.008828 28134 net.cpp:91] Creating Layer input
I0924 04:19:48.008843 28108 net.cpp:399] input -> frames_fc7
I0924 04:19:48.008846 28134 net.cpp:399] input -> frames_fc7
I0924 04:19:48.008863 28108 net.cpp:399] input -> cont_sentence
I0924 04:19:48.008863 28134 net.cpp:399] input -> cont_sentence
I0924 04:19:48.008888 28134 net.cpp:399] input -> input_sentence
I0924 04:19:48.008888 28108 net.cpp:399] input -> input_sentence
I0924 04:19:48.008910 28134 net.cpp:399] input -> stage_indicator
I0924 04:19:48.008913 28108 net.cpp:399] input -> stage_indicator
I0924 04:19:49.219060 28122 net.cpp:141] Setting up input
I0924 04:19:49.219199 28122 net.cpp:148] Top shape: 1 4096 (4096)
I0924 04:19:49.219216 28122 net.cpp:148] Top shape: 1 1 (1)
I0924 04:19:49.219226 28122 net.cpp:148] Top shape: 1 1 (1)
I0924 04:19:49.219236 28122 net.cpp:148] Top shape: 1 1 (1)
I0924 04:19:49.219243 28122 net.cpp:156] Memory required for data: 16396
I0924 04:19:49.219276 28122 layer_factory.hpp:77] Creating layer cont_sentence_input_1_split
I0924 04:19:49.219332 28122 net.cpp:91] Creating Layer cont_sentence_input_1_split
I0924 04:19:49.219348 28122 net.cpp:425] cont_sentence_input_1_split <- cont_sentence
I0924 04:19:49.219383 28122 net.cpp:399] cont_sentence_input_1_split -> cont_sentence_input_1_split_0
I0924 04:19:49.219408 28122 net.cpp:399] cont_sentence_input_1_split -> cont_sentence_input_1_split_1
I0924 04:19:49.219496 28122 net.cpp:141] Setting up cont_sentence_input_1_split
I0924 04:19:49.219514 28122 net.cpp:148] Top shape: 1 1 (1)
I0924 04:19:49.219526 28122 net.cpp:148] Top shape: 1 1 (1)
I0924 04:19:49.219532 28122 net.cpp:156] Memory required for data: 16404
I0924 04:19:49.219542 28122 layer_factory.hpp:77] Creating layer embed_encoder
I0924 04:19:49.219575 28122 net.cpp:91] Creating Layer embed_encoder
I0924 04:19:49.219585 28122 net.cpp:425] embed_encoder <- frames_fc7
I0924 04:19:49.219604 28122 net.cpp:399] embed_encoder -> embedded_in_frames
I0924 04:19:49.224369 28156 net.cpp:141] Setting up input
I0924 04:19:49.224416 28156 net.cpp:148] Top shape: 1 4096 (4096)
I0924 04:19:49.224426 28156 net.cpp:148] Top shape: 1 1 (1)
I0924 04:19:49.224436 28156 net.cpp:148] Top shape: 1 1 (1)
I0924 04:19:49.224447 28156 net.cpp:148] Top shape: 1 1 (1)
I0924 04:19:49.224454 28156 net.cpp:156] Memory required for data: 16396
I0924 04:19:49.224467 28156 layer_factory.hpp:77] Creating layer cont_sentence_input_1_split
I0924 04:19:49.224498 28156 net.cpp:91] Creating Layer cont_sentence_input_1_split
I0924 04:19:49.224509 28156 net.cpp:425] cont_sentence_input_1_split <- cont_sentence
I0924 04:19:49.224522 28156 net.cpp:399] cont_sentence_input_1_split -> cont_sentence_input_1_split_0
I0924 04:19:49.224539 28156 net.cpp:399] cont_sentence_input_1_split -> cont_sentence_input_1_split_1
I0924 04:19:49.224613 28156 net.cpp:141] Setting up cont_sentence_input_1_split
I0924 04:19:49.224623 28156 net.cpp:148] Top shape: 1 1 (1)
I0924 04:19:49.224629 28156 net.cpp:148] Top shape: 1 1 (1)
I0924 04:19:49.224633 28156 net.cpp:156] Memory required for data: 16404
I0924 04:19:49.224639 28156 layer_factory.hpp:77] Creating layer embed_encoder
I0924 04:19:49.224660 28156 net.cpp:91] Creating Layer embed_encoder
I0924 04:19:49.224669 28156 net.cpp:425] embed_encoder <- frames_fc7
I0924 04:19:49.224684 28156 net.cpp:399] embed_encoder -> embedded_in_frames
I0924 04:19:49.224906 28108 net.cpp:141] Setting up input
I0924 04:19:49.224942 28108 net.cpp:148] Top shape: 1 4096 (4096)
I0924 04:19:49.224951 28108 net.cpp:148] Top shape: 1 1 (1)
I0924 04:19:49.224956 28108 net.cpp:148] Top shape: 1 1 (1)
I0924 04:19:49.224961 28108 net.cpp:148] Top shape: 1 1 (1)
I0924 04:19:49.224967 28108 net.cpp:156] Memory required for data: 16396
I0924 04:19:49.224974 28108 layer_factory.hpp:77] Creating layer cont_sentence_input_1_split
I0924 04:19:49.224992 28108 net.cpp:91] Creating Layer cont_sentence_input_1_split
I0924 04:19:49.224997 28108 net.cpp:425] cont_sentence_input_1_split <- cont_sentence
I0924 04:19:49.225009 28108 net.cpp:399] cont_sentence_input_1_split -> cont_sentence_input_1_split_0
I0924 04:19:49.225023 28108 net.cpp:399] cont_sentence_input_1_split -> cont_sentence_input_1_split_1
I0924 04:19:49.225028 28114 net.cpp:141] Setting up data
I0924 04:19:49.225052 28114 net.cpp:148] Top shape: 10 3 227 227 (1545870)
I0924 04:19:49.225064 28114 net.cpp:156] Memory required for data: 6183480
I0924 04:19:49.225076 28114 layer_factory.hpp:77] Creating layer conv1
I0924 04:19:49.225091 28148 net.cpp:141] Setting up input
I0924 04:19:49.225106 28148 net.cpp:148] Top shape: 1 4096 (4096)
I0924 04:19:49.225113 28148 net.cpp:148] Top shape: 1 1 (1)
I0924 04:19:49.225119 28148 net.cpp:148] Top shape: 1 1 (1)
I0924 04:19:49.225121 28114 net.cpp:91] Creating Layer conv1
I0924 04:19:49.225126 28148 net.cpp:148] Top shape: 1 1 (1)
I0924 04:19:49.225139 28114 net.cpp:425] conv1 <- data
I0924 04:19:49.225142 28148 net.cpp:156] Memory required for data: 16396
I0924 04:19:49.225150 28148 layer_factory.hpp:77] Creating layer cont_sentence_input_1_split
I0924 04:19:49.225157 28114 net.cpp:399] conv1 -> conv1
I0924 04:19:49.225162 28148 net.cpp:91] Creating Layer cont_sentence_input_1_split
I0924 04:19:49.225169 28148 net.cpp:425] cont_sentence_input_1_split <- cont_sentence
I0924 04:19:49.225178 28148 net.cpp:399] cont_sentence_input_1_split -> cont_sentence_input_1_split_0
I0924 04:19:49.225190 28148 net.cpp:399] cont_sentence_input_1_split -> cont_sentence_input_1_split_1
I0924 04:19:49.225347 28160 net.cpp:141] Setting up input
I0924 04:19:49.225368 28160 net.cpp:148] Top shape: 1 4096 (4096)
I0924 04:19:49.225375 28160 net.cpp:148] Top shape: 1 1 (1)
I0924 04:19:49.225381 28160 net.cpp:148] Top shape: 1 1 (1)
I0924 04:19:49.225388 28160 net.cpp:148] Top shape: 1 1 (1)
I0924 04:19:49.225391 28160 net.cpp:156] Memory required for data: 16396
I0924 04:19:49.225399 28160 layer_factory.hpp:77] Creating layer cont_sentence_input_1_split
I0924 04:19:49.225410 28160 net.cpp:91] Creating Layer cont_sentence_input_1_split
I0924 04:19:49.225416 28160 net.cpp:425] cont_sentence_input_1_split <- cont_sentence
I0924 04:19:49.225425 28160 net.cpp:399] cont_sentence_input_1_split -> cont_sentence_input_1_split_0
I0924 04:19:49.225437 28160 net.cpp:399] cont_sentence_input_1_split -> cont_sentence_input_1_split_1
I0924 04:19:49.225456 28128 net.cpp:141] Setting up input
I0924 04:19:49.225481 28128 net.cpp:148] Top shape: 1 4096 (4096)
I0924 04:19:49.225487 28160 net.cpp:141] Setting up cont_sentence_input_1_split
I0924 04:19:49.225492 28128 net.cpp:148] Top shape: 1 1 (1)
I0924 04:19:49.225497 28160 net.cpp:148] Top shape: 1 1 (1)
I0924 04:19:49.225502 28160 net.cpp:148] Top shape: 1 1 (1)
I0924 04:19:49.225502 28128 net.cpp:148] Top shape: 1 1 (1)
I0924 04:19:49.225507 28160 net.cpp:156] Memory required for data: 16404
I0924 04:19:49.225512 28128 net.cpp:148] Top shape: 1 1 (1)
I0924 04:19:49.225514 28160 layer_factory.hpp:77] Creating layer embed_encoder
I0924 04:19:49.225527 28128 net.cpp:156] Memory required for data: 16396
I0924 04:19:49.225538 28128 layer_factory.hpp:77] Creating layer cont_sentence_input_1_split
I0924 04:19:49.225541 28160 net.cpp:91] Creating Layer embed_encoder
I0924 04:19:49.225548 28160 net.cpp:425] embed_encoder <- frames_fc7
I0924 04:19:49.225554 28128 net.cpp:91] Creating Layer cont_sentence_input_1_split
I0924 04:19:49.225556 28160 net.cpp:399] embed_encoder -> embedded_in_frames
I0924 04:19:49.225569 28128 net.cpp:425] cont_sentence_input_1_split <- cont_sentence
I0924 04:19:49.225582 28128 net.cpp:399] cont_sentence_input_1_split -> cont_sentence_input_1_split_0
I0924 04:19:49.225600 28128 net.cpp:399] cont_sentence_input_1_split -> cont_sentence_input_1_split_1
I0924 04:19:49.232223 28134 net.cpp:141] Setting up input
I0924 04:19:49.232285 28134 net.cpp:148] Top shape: 1 4096 (4096)
I0924 04:19:49.232316 28134 net.cpp:148] Top shape: 1 1 (1)
I0924 04:19:49.232334 28134 net.cpp:148] Top shape: 1 1 (1)
I0924 04:19:49.232345 28134 net.cpp:148] Top shape: 1 1 (1)
I0924 04:19:49.232353 28134 net.cpp:156] Memory required for data: 16396
I0924 04:19:49.232367 28134 layer_factory.hpp:77] Creating layer cont_sentence_input_1_split
I0924 04:19:49.232393 28134 net.cpp:91] Creating Layer cont_sentence_input_1_split
I0924 04:19:49.232379 28104 net.cpp:141] Setting up input
I0924 04:19:49.232450 28104 net.cpp:148] Top shape: 1 4096 (4096)
I0924 04:19:49.232460 28104 net.cpp:148] Top shape: 1 1 (1)
I0924 04:19:49.232465 28104 net.cpp:148] Top shape: 1 1 (1)
I0924 04:19:49.232471 28104 net.cpp:148] Top shape: 1 1 (1)
I0924 04:19:49.232476 28104 net.cpp:156] Memory required for data: 16396
I0924 04:19:49.232484 28104 layer_factory.hpp:77] Creating layer cont_sentence_input_1_split
I0924 04:19:49.232502 28104 net.cpp:91] Creating Layer cont_sentence_input_1_split
I0924 04:19:49.232509 28104 net.cpp:425] cont_sentence_input_1_split <- cont_sentence
I0924 04:19:49.232523 28104 net.cpp:399] cont_sentence_input_1_split -> cont_sentence_input_1_split_0
I0924 04:19:49.232540 28104 net.cpp:399] cont_sentence_input_1_split -> cont_sentence_input_1_split_1
I0924 04:19:49.232552 28108 net.cpp:141] Setting up cont_sentence_input_1_split
I0924 04:19:49.232568 28108 net.cpp:148] Top shape: 1 1 (1)
I0924 04:19:49.232578 28108 net.cpp:148] Top shape: 1 1 (1)
I0924 04:19:49.232584 28108 net.cpp:156] Memory required for data: 16404
I0924 04:19:49.232592 28108 layer_factory.hpp:77] Creating layer embed_encoder
I0924 04:19:49.232606 28104 net.cpp:141] Setting up cont_sentence_input_1_split
I0924 04:19:49.232616 28104 net.cpp:148] Top shape: 1 1 (1)
I0924 04:19:49.232419 28134 net.cpp:425] cont_sentence_input_1_split <- cont_sentence
I0924 04:19:49.232630 28104 net.cpp:148] Top shape: 1 1 (1)
I0924 04:19:49.232635 28104 net.cpp:156] Memory required for data: 16404
I0924 04:19:49.232642 28104 layer_factory.hpp:77] Creating layer embed_encoder
I0924 04:19:49.232642 28134 net.cpp:399] cont_sentence_input_1_split -> cont_sentence_input_1_split_0
I0924 04:19:49.232658 28104 net.cpp:91] Creating Layer embed_encoder
I0924 04:19:49.232662 28134 net.cpp:399] cont_sentence_input_1_split -> cont_sentence_input_1_split_1
I0924 04:19:49.232666 28104 net.cpp:425] embed_encoder <- frames_fc7
I0924 04:19:49.232615 28108 net.cpp:91] Creating Layer embed_encoder
I0924 04:19:49.232712 28108 net.cpp:425] embed_encoder <- frames_fc7
I0924 04:19:49.232720 28104 net.cpp:399] embed_encoder -> embedded_in_frames
I0924 04:19:49.232725 28108 net.cpp:399] embed_encoder -> embedded_in_frames
I0924 04:19:49.237606 28128 net.cpp:141] Setting up cont_sentence_input_1_split
I0924 04:19:49.237628 28128 net.cpp:148] Top shape: 1 1 (1)
I0924 04:19:49.237635 28128 net.cpp:148] Top shape: 1 1 (1)
I0924 04:19:49.237640 28128 net.cpp:156] Memory required for data: 16404
I0924 04:19:49.237646 28128 layer_factory.hpp:77] Creating layer embed_encoder
I0924 04:19:49.237661 28128 net.cpp:91] Creating Layer embed_encoder
I0924 04:19:49.237668 28128 net.cpp:425] embed_encoder <- frames_fc7
I0924 04:19:49.237679 28128 net.cpp:399] embed_encoder -> embedded_in_frames
I0924 04:19:49.237704 28148 net.cpp:141] Setting up cont_sentence_input_1_split
I0924 04:19:49.237722 28148 net.cpp:148] Top shape: 1 1 (1)
I0924 04:19:49.237730 28148 net.cpp:148] Top shape: 1 1 (1)
I0924 04:19:49.237733 28148 net.cpp:156] Memory required for data: 16404
I0924 04:19:49.237740 28148 layer_factory.hpp:77] Creating layer embed_encoder
I0924 04:19:49.237764 28148 net.cpp:91] Creating Layer embed_encoder
I0924 04:19:49.237772 28148 net.cpp:425] embed_encoder <- frames_fc7
I0924 04:19:49.237782 28148 net.cpp:399] embed_encoder -> embedded_in_frames
I0924 04:19:49.237928 28112 net.cpp:141] Setting up input
I0924 04:19:49.237987 28112 net.cpp:148] Top shape: 1 4096 (4096)
I0924 04:19:49.237999 28112 net.cpp:148] Top shape: 1 1 (1)
I0924 04:19:49.238008 28112 net.cpp:148] Top shape: 1 1 (1)
I0924 04:19:49.238018 28112 net.cpp:148] Top shape: 1 1 (1)
I0924 04:19:49.238024 28112 net.cpp:156] Memory required for data: 16396
I0924 04:19:49.238046 28112 layer_factory.hpp:77] Creating layer cont_sentence_input_1_split
I0924 04:19:49.238114 28112 net.cpp:91] Creating Layer cont_sentence_input_1_split
I0924 04:19:49.238131 28112 net.cpp:425] cont_sentence_input_1_split <- cont_sentence
I0924 04:19:49.238140 28112 net.cpp:399] cont_sentence_input_1_split -> cont_sentence_input_1_split_0
I0924 04:19:49.238152 28112 net.cpp:399] cont_sentence_input_1_split -> cont_sentence_input_1_split_1
I0924 04:19:49.242624 28100 net.cpp:141] Setting up input
I0924 04:19:49.242673 28100 net.cpp:148] Top shape: 1 4096 (4096)
I0924 04:19:49.242686 28100 net.cpp:148] Top shape: 1 1 (1)
I0924 04:19:49.242697 28100 net.cpp:148] Top shape: 1 1 (1)
I0924 04:19:49.242705 28100 net.cpp:148] Top shape: 1 1 (1)
I0924 04:19:49.242712 28100 net.cpp:156] Memory required for data: 16396
I0924 04:19:49.242724 28100 layer_factory.hpp:77] Creating layer cont_sentence_input_1_split
I0924 04:19:49.242792 28100 net.cpp:91] Creating Layer cont_sentence_input_1_split
I0924 04:19:49.242811 28100 net.cpp:425] cont_sentence_input_1_split <- cont_sentence
I0924 04:19:49.242822 28100 net.cpp:399] cont_sentence_input_1_split -> cont_sentence_input_1_split_0
I0924 04:19:49.242836 28100 net.cpp:399] cont_sentence_input_1_split -> cont_sentence_input_1_split_1
I0924 04:19:49.242843 28134 net.cpp:141] Setting up cont_sentence_input_1_split
I0924 04:19:49.242871 28134 net.cpp:148] Top shape: 1 1 (1)
I0924 04:19:49.242883 28134 net.cpp:148] Top shape: 1 1 (1)
I0924 04:19:49.242892 28134 net.cpp:156] Memory required for data: 16404
I0924 04:19:49.242899 28134 layer_factory.hpp:77] Creating layer embed_encoder
I0924 04:19:49.242925 28134 net.cpp:91] Creating Layer embed_encoder
I0924 04:19:49.242936 28134 net.cpp:425] embed_encoder <- frames_fc7
I0924 04:19:49.242943 28112 net.cpp:141] Setting up cont_sentence_input_1_split
I0924 04:19:49.242956 28112 net.cpp:148] Top shape: 1 1 (1)
I0924 04:19:49.242964 28112 net.cpp:148] Top shape: 1 1 (1)
I0924 04:19:49.242969 28112 net.cpp:156] Memory required for data: 16404
I0924 04:19:49.242969 28134 net.cpp:399] embed_encoder -> embedded_in_frames
I0924 04:19:49.242975 28112 layer_factory.hpp:77] Creating layer embed_encoder
I0924 04:19:49.243002 28112 net.cpp:91] Creating Layer embed_encoder
I0924 04:19:49.243008 28112 net.cpp:425] embed_encoder <- frames_fc7
I0924 04:19:49.243018 28112 net.cpp:399] embed_encoder -> embedded_in_frames
I0924 04:19:49.266131 28100 net.cpp:141] Setting up cont_sentence_input_1_split
I0924 04:19:49.266190 28100 net.cpp:148] Top shape: 1 1 (1)
I0924 04:19:49.266201 28100 net.cpp:148] Top shape: 1 1 (1)
I0924 04:19:49.266209 28100 net.cpp:156] Memory required for data: 16404
I0924 04:19:49.266223 28100 layer_factory.hpp:77] Creating layer embed_encoder
I0924 04:19:49.266314 28100 net.cpp:91] Creating Layer embed_encoder
I0924 04:19:49.266326 28100 net.cpp:425] embed_encoder <- frames_fc7
I0924 04:19:49.266346 28100 net.cpp:399] embed_encoder -> embedded_in_frames
I0924 04:19:49.267549 28122 net.cpp:141] Setting up embed_encoder
I0924 04:19:49.267597 28122 net.cpp:148] Top shape: 1 500 (500)
I0924 04:19:49.267611 28122 net.cpp:156] Memory required for data: 18404
I0924 04:19:49.267653 28122 layer_factory.hpp:77] Creating layer reshape_frames
I0924 04:19:49.267709 28122 net.cpp:91] Creating Layer reshape_frames
I0924 04:19:49.267724 28122 net.cpp:425] reshape_frames <- embedded_in_frames
I0924 04:19:49.267746 28122 net.cpp:399] reshape_frames -> embedded_input_frames
I0924 04:19:49.267830 28122 net.cpp:141] Setting up reshape_frames
I0924 04:19:49.267850 28122 net.cpp:148] Top shape: 1 1 500 (500)
I0924 04:19:49.267861 28122 net.cpp:156] Memory required for data: 20404
I0924 04:19:49.267870 28122 layer_factory.hpp:77] Creating layer reshape_stage_indicator
I0924 04:19:49.267889 28122 net.cpp:91] Creating Layer reshape_stage_indicator
I0924 04:19:49.267901 28122 net.cpp:425] reshape_stage_indicator <- stage_indicator
I0924 04:19:49.267923 28122 net.cpp:399] reshape_stage_indicator -> reshaped_stage_indicator
I0924 04:19:49.267987 28122 net.cpp:141] Setting up reshape_stage_indicator
I0924 04:19:49.268005 28122 net.cpp:148] Top shape: 1 1 1 (1)
I0924 04:19:49.268014 28122 net.cpp:156] Memory required for data: 20408
I0924 04:19:49.268023 28122 layer_factory.hpp:77] Creating layer embedding
I0924 04:19:49.268045 28122 net.cpp:91] Creating Layer embedding
I0924 04:19:49.268057 28122 net.cpp:425] embedding <- input_sentence
I0924 04:19:49.269875 28122 net.cpp:399] embedding -> embedded_input_sentence
I0924 04:19:49.283589 28156 net.cpp:141] Setting up embed_encoder
I0924 04:19:49.283638 28156 net.cpp:148] Top shape: 1 500 (500)
I0924 04:19:49.283648 28156 net.cpp:156] Memory required for data: 18404
I0924 04:19:49.283704 28156 layer_factory.hpp:77] Creating layer reshape_frames
I0924 04:19:49.283735 28156 net.cpp:91] Creating Layer reshape_frames
I0924 04:19:49.283746 28156 net.cpp:425] reshape_frames <- embedded_in_frames
I0924 04:19:49.283764 28156 net.cpp:399] reshape_frames -> embedded_input_frames
I0924 04:19:49.333184 28148 net.cpp:141] Setting up embed_encoder
I0924 04:19:49.333243 28148 net.cpp:148] Top shape: 1 500 (500)
I0924 04:19:49.333250 28148 net.cpp:156] Memory required for data: 18404
I0924 04:19:49.333272 28148 layer_factory.hpp:77] Creating layer reshape_frames
I0924 04:19:49.333294 28148 net.cpp:91] Creating Layer reshape_frames
I0924 04:19:49.333305 28148 net.cpp:425] reshape_frames <- embedded_in_frames
I0924 04:19:49.333323 28148 net.cpp:399] reshape_frames -> embedded_input_frames
I0924 04:19:49.333330 28160 net.cpp:141] Setting up embed_encoder
I0924 04:19:49.333351 28160 net.cpp:148] Top shape: 1 500 (500)
I0924 04:19:49.333360 28160 net.cpp:156] Memory required for data: 18404
I0924 04:19:49.333384 28160 layer_factory.hpp:77] Creating layer reshape_frames
I0924 04:19:49.333400 28160 net.cpp:91] Creating Layer reshape_frames
I0924 04:19:49.333410 28160 net.cpp:425] reshape_frames <- embedded_in_frames
I0924 04:19:49.333423 28160 net.cpp:399] reshape_frames -> embedded_input_frames
I0924 04:19:49.333513 28128 net.cpp:141] Setting up embed_encoder
I0924 04:19:49.333533 28128 net.cpp:148] Top shape: 1 500 (500)
I0924 04:19:49.333539 28128 net.cpp:156] Memory required for data: 18404
I0924 04:19:49.333554 28128 layer_factory.hpp:77] Creating layer reshape_frames
I0924 04:19:49.333569 28128 net.cpp:91] Creating Layer reshape_frames
I0924 04:19:49.333576 28128 net.cpp:425] reshape_frames <- embedded_in_frames
I0924 04:19:49.333586 28128 net.cpp:399] reshape_frames -> embedded_input_frames
I0924 04:19:49.333580 28156 net.cpp:141] Setting up reshape_frames
I0924 04:19:49.333621 28156 net.cpp:148] Top shape: 1 1 500 (500)
I0924 04:19:49.333626 28156 net.cpp:156] Memory required for data: 20404
I0924 04:19:49.333634 28156 layer_factory.hpp:77] Creating layer reshape_stage_indicator
I0924 04:19:49.333654 28128 net.cpp:141] Setting up reshape_frames
I0924 04:19:49.333662 28156 net.cpp:91] Creating Layer reshape_stage_indicator
I0924 04:19:49.333665 28128 net.cpp:148] Top shape: 1 1 500 (500)
I0924 04:19:49.333670 28156 net.cpp:425] reshape_stage_indicator <- stage_indicator
I0924 04:19:49.333673 28128 net.cpp:156] Memory required for data: 20404
I0924 04:19:49.333679 28128 layer_factory.hpp:77] Creating layer reshape_stage_indicator
I0924 04:19:49.333683 28156 net.cpp:399] reshape_stage_indicator -> reshaped_stage_indicator
I0924 04:19:49.333689 28148 net.cpp:141] Setting up reshape_frames
I0924 04:19:49.333690 28128 net.cpp:91] Creating Layer reshape_stage_indicator
I0924 04:19:49.333711 28148 net.cpp:148] Top shape: 1 1 500 (500)
I0924 04:19:49.333712 28128 net.cpp:425] reshape_stage_indicator <- stage_indicator
I0924 04:19:49.333717 28148 net.cpp:156] Memory required for data: 20404
I0924 04:19:49.333722 28148 layer_factory.hpp:77] Creating layer reshape_stage_indicator
I0924 04:19:49.333726 28128 net.cpp:399] reshape_stage_indicator -> reshaped_stage_indicator
I0924 04:19:49.333735 28148 net.cpp:91] Creating Layer reshape_stage_indicator
I0924 04:19:49.333742 28148 net.cpp:425] reshape_stage_indicator <- stage_indicator
I0924 04:19:49.333752 28148 net.cpp:399] reshape_stage_indicator -> reshaped_stage_indicator
I0924 04:19:49.333789 28160 net.cpp:141] Setting up reshape_frames
I0924 04:19:49.333804 28160 net.cpp:148] Top shape: 1 1 500 (500)
I0924 04:19:49.333812 28160 net.cpp:156] Memory required for data: 20404
I0924 04:19:49.333819 28160 layer_factory.hpp:77] Creating layer reshape_stage_indicator
I0924 04:19:49.333835 28160 net.cpp:91] Creating Layer reshape_stage_indicator
I0924 04:19:49.333843 28160 net.cpp:425] reshape_stage_indicator <- stage_indicator
I0924 04:19:49.333855 28160 net.cpp:399] reshape_stage_indicator -> reshaped_stage_indicator
I0924 04:19:49.333927 28160 net.cpp:141] Setting up reshape_stage_indicator
I0924 04:19:49.333941 28160 net.cpp:148] Top shape: 1 1 1 (1)
I0924 04:19:49.333948 28160 net.cpp:156] Memory required for data: 20408
I0924 04:19:49.333956 28160 layer_factory.hpp:77] Creating layer embedding
I0924 04:19:49.333972 28160 net.cpp:91] Creating Layer embedding
I0924 04:19:49.333981 28160 net.cpp:425] embedding <- input_sentence
I0924 04:19:49.333993 28160 net.cpp:399] embedding -> embedded_input_sentence
I0924 04:19:49.334040 28156 net.cpp:141] Setting up reshape_stage_indicator
I0924 04:19:49.334053 28156 net.cpp:148] Top shape: 1 1 1 (1)
I0924 04:19:49.334059 28156 net.cpp:156] Memory required for data: 20408
I0924 04:19:49.334064 28156 layer_factory.hpp:77] Creating layer embedding
I0924 04:19:49.334079 28156 net.cpp:91] Creating Layer embedding
I0924 04:19:49.334085 28156 net.cpp:425] embedding <- input_sentence
I0924 04:19:49.334095 28156 net.cpp:399] embedding -> embedded_input_sentence
I0924 04:19:49.334108 28100 net.cpp:141] Setting up embed_encoder
I0924 04:19:49.334127 28100 net.cpp:148] Top shape: 1 500 (500)
I0924 04:19:49.334132 28100 net.cpp:156] Memory required for data: 18404
I0924 04:19:49.334149 28100 layer_factory.hpp:77] Creating layer reshape_frames
I0924 04:19:49.334159 28100 net.cpp:91] Creating Layer reshape_frames
I0924 04:19:49.334167 28100 net.cpp:425] reshape_frames <- embedded_in_frames
I0924 04:19:49.334177 28100 net.cpp:399] reshape_frames -> embedded_input_frames
I0924 04:19:49.334187 28112 net.cpp:141] Setting up embed_encoder
I0924 04:19:49.334203 28112 net.cpp:148] Top shape: 1 500 (500)
I0924 04:19:49.334208 28112 net.cpp:156] Memory required for data: 18404
I0924 04:19:49.334223 28112 layer_factory.hpp:77] Creating layer reshape_frames
I0924 04:19:49.334295 28112 net.cpp:91] Creating Layer reshape_frames
I0924 04:19:49.334311 28112 net.cpp:425] reshape_frames <- embedded_in_frames
I0924 04:19:49.334327 28112 net.cpp:399] reshape_frames -> embedded_input_frames
I0924 04:19:49.334533 28128 net.cpp:141] Setting up reshape_stage_indicator
I0924 04:19:49.334553 28128 net.cpp:148] Top shape: 1 1 1 (1)
I0924 04:19:49.334561 28128 net.cpp:156] Memory required for data: 20408
I0924 04:19:49.334569 28128 layer_factory.hpp:77] Creating layer embedding
I0924 04:19:49.334570 28148 net.cpp:141] Setting up reshape_stage_indicator
I0924 04:19:49.334584 28148 net.cpp:148] Top shape: 1 1 1 (1)
I0924 04:19:49.334589 28148 net.cpp:156] Memory required for data: 20408
I0924 04:19:49.334589 28128 net.cpp:91] Creating Layer embedding
I0924 04:19:49.334606 28148 layer_factory.hpp:77] Creating layer embedding
I0924 04:19:49.334640 28128 net.cpp:425] embedding <- input_sentence
I0924 04:19:49.334657 28128 net.cpp:399] embedding -> embedded_input_sentence
I0924 04:19:49.334656 28148 net.cpp:91] Creating Layer embedding
I0924 04:19:49.334683 28104 net.cpp:141] Setting up embed_encoder
I0924 04:19:49.334692 28148 net.cpp:425] embedding <- input_sentence
I0924 04:19:49.334699 28104 net.cpp:148] Top shape: 1 500 (500)
I0924 04:19:49.334728 28104 net.cpp:156] Memory required for data: 18404
I0924 04:19:49.334744 28104 layer_factory.hpp:77] Creating layer reshape_frames
I0924 04:19:49.334766 28104 net.cpp:91] Creating Layer reshape_frames
I0924 04:19:49.334739 28148 net.cpp:399] embedding -> embedded_input_sentence
I0924 04:19:49.334774 28104 net.cpp:425] reshape_frames <- embedded_in_frames
I0924 04:19:49.334785 28104 net.cpp:399] reshape_frames -> embedded_input_frames
I0924 04:19:49.381784 28100 net.cpp:141] Setting up reshape_frames
I0924 04:19:49.381822 28112 net.cpp:141] Setting up reshape_frames
I0924 04:19:49.381847 28112 net.cpp:148] Top shape: 1 1 500 (500)
I0924 04:19:49.381847 28100 net.cpp:148] Top shape: 1 1 500 (500)
I0924 04:19:49.381861 28100 net.cpp:156] Memory required for data: 20404
I0924 04:19:49.381867 28112 net.cpp:156] Memory required for data: 20404
I0924 04:19:49.381875 28100 layer_factory.hpp:77] Creating layer reshape_stage_indicator
I0924 04:19:49.381912 28100 net.cpp:91] Creating Layer reshape_stage_indicator
I0924 04:19:49.381917 28112 layer_factory.hpp:77] Creating layer reshape_stage_indicator
I0924 04:19:49.381927 28100 net.cpp:425] reshape_stage_indicator <- stage_indicator
I0924 04:19:49.381940 28112 net.cpp:91] Creating Layer reshape_stage_indicator
I0924 04:19:49.381947 28100 net.cpp:399] reshape_stage_indicator -> reshaped_stage_indicator
I0924 04:19:49.381952 28112 net.cpp:425] reshape_stage_indicator <- stage_indicator
I0924 04:19:49.381968 28112 net.cpp:399] reshape_stage_indicator -> reshaped_stage_indicator
I0924 04:19:49.474836 28104 net.cpp:141] Setting up reshape_frames
I0924 04:19:49.474918 28104 net.cpp:148] Top shape: 1 1 500 (500)
I0924 04:19:49.474937 28104 net.cpp:156] Memory required for data: 20404
I0924 04:19:49.474951 28100 net.cpp:141] Setting up reshape_stage_indicator
I0924 04:19:49.474957 28104 layer_factory.hpp:77] Creating layer reshape_stage_indicator
I0924 04:19:49.474972 28100 net.cpp:148] Top shape: 1 1 1 (1)
I0924 04:19:49.474990 28100 net.cpp:156] Memory required for data: 20408
I0924 04:19:49.474997 28100 layer_factory.hpp:77] Creating layer embedding
I0924 04:19:49.475003 28112 net.cpp:141] Setting up reshape_stage_indicator
I0924 04:19:49.475014 28100 net.cpp:91] Creating Layer embedding
I0924 04:19:49.475023 28100 net.cpp:425] embedding <- input_sentence
I0924 04:19:49.475018 28104 net.cpp:91] Creating Layer reshape_stage_indicator
I0924 04:19:49.475036 28100 net.cpp:399] embedding -> embedded_input_sentence
I0924 04:19:49.475025 28112 net.cpp:148] Top shape: 1 1 1 (1)
I0924 04:19:49.475052 28104 net.cpp:425] reshape_stage_indicator <- stage_indicator
I0924 04:19:49.475054 28112 net.cpp:156] Memory required for data: 20408
I0924 04:19:49.475083 28112 layer_factory.hpp:77] Creating layer embedding
I0924 04:19:49.475090 28104 net.cpp:399] reshape_stage_indicator -> reshaped_stage_indicator
I0924 04:19:49.475100 28112 net.cpp:91] Creating Layer embedding
I0924 04:19:49.475111 28112 net.cpp:425] embedding <- input_sentence
I0924 04:19:49.475141 28112 net.cpp:399] embedding -> embedded_input_sentence
I0924 04:19:49.526314 28108 net.cpp:141] Setting up embed_encoder
I0924 04:19:49.526361 28108 net.cpp:148] Top shape: 1 500 (500)
I0924 04:19:49.526367 28108 net.cpp:156] Memory required for data: 18404
I0924 04:19:49.526388 28108 layer_factory.hpp:77] Creating layer reshape_frames
I0924 04:19:49.526408 28108 net.cpp:91] Creating Layer reshape_frames
I0924 04:19:49.526417 28108 net.cpp:425] reshape_frames <- embedded_in_frames
I0924 04:19:49.526429 28108 net.cpp:399] reshape_frames -> embedded_input_frames
I0924 04:19:49.565971 28104 net.cpp:141] Setting up reshape_stage_indicator
I0924 04:19:49.566031 28104 net.cpp:148] Top shape: 1 1 1 (1)
I0924 04:19:49.566040 28104 net.cpp:156] Memory required for data: 20408
I0924 04:19:49.566052 28104 layer_factory.hpp:77] Creating layer embedding
I0924 04:19:49.566085 28104 net.cpp:91] Creating Layer embedding
I0924 04:19:49.566095 28104 net.cpp:425] embedding <- input_sentence
I0924 04:19:49.566112 28104 net.cpp:399] embedding -> embedded_input_sentence
I0924 04:19:49.619083 28122 net.cpp:141] Setting up embedding
I0924 04:19:49.619138 28122 net.cpp:148] Top shape: 1 1 500 (500)
I0924 04:19:49.619149 28122 net.cpp:156] Memory required for data: 22408
I0924 04:19:49.619176 28122 layer_factory.hpp:77] Creating layer lstm1
I0924 04:19:49.619201 28108 net.cpp:141] Setting up reshape_frames
I0924 04:19:49.619213 28122 net.cpp:91] Creating Layer lstm1
I0924 04:19:49.619223 28108 net.cpp:148] Top shape: 1 1 500 (500)
I0924 04:19:49.619225 28122 net.cpp:425] lstm1 <- embedded_input_frames
I0924 04:19:49.619241 28108 net.cpp:156] Memory required for data: 20404
I0924 04:19:49.619249 28128 net.cpp:141] Setting up embedding
I0924 04:19:49.619251 28122 net.cpp:425] lstm1 <- cont_sentence_input_1_split_0
I0924 04:19:49.619251 28108 layer_factory.hpp:77] Creating layer reshape_stage_indicator
I0924 04:19:49.619272 28128 net.cpp:148] Top shape: 1 1 500 (500)
I0924 04:19:49.619282 28122 net.cpp:399] lstm1 -> lstm1
I0924 04:19:49.619290 28108 net.cpp:91] Creating Layer reshape_stage_indicator
I0924 04:19:49.619282 28128 net.cpp:156] Memory required for data: 22408
I0924 04:19:49.619307 28108 net.cpp:425] reshape_stage_indicator <- stage_indicator
I0924 04:19:49.619319 28128 layer_factory.hpp:77] Creating layer lstm1
I0924 04:19:49.619326 28122 recurrent_layer.cpp:20] Initializing recurrent layer: assuming input batch contains 1 timesteps of 1 independent streams.
I0924 04:19:49.619321 28108 net.cpp:399] reshape_stage_indicator -> reshaped_stage_indicator
I0924 04:19:49.619344 28128 net.cpp:91] Creating Layer lstm1
I0924 04:19:49.619355 28128 net.cpp:425] lstm1 <- embedded_input_frames
I0924 04:19:49.619367 28128 net.cpp:425] lstm1 <- cont_sentence_input_1_split_0
I0924 04:19:49.619384 28128 net.cpp:399] lstm1 -> lstm1
I0924 04:19:49.619395 28108 net.cpp:141] Setting up reshape_stage_indicator
I0924 04:19:49.619400 28128 recurrent_layer.cpp:20] Initializing recurrent layer: assuming input batch contains 1 timesteps of 1 independent streams.
I0924 04:19:49.619410 28108 net.cpp:148] Top shape: 1 1 1 (1)
I0924 04:19:49.619418 28108 net.cpp:156] Memory required for data: 20408
I0924 04:19:49.619427 28108 layer_factory.hpp:77] Creating layer embedding
I0924 04:19:49.619444 28108 net.cpp:91] Creating Layer embedding
I0924 04:19:49.619452 28108 net.cpp:425] embedding <- input_sentence
I0924 04:19:49.619465 28108 net.cpp:399] embedding -> embedded_input_sentence
I0924 04:19:49.619886 28128 net.cpp:49] Initializing net from parameters: 
layer {
  name: "lstm1_"
  type: "Input"
  top: "x"
  top: "cont"
  input_param {
    shape {
      dim: 1
      dim: 1
      dim: 500
    }
    shape {
      dim: 1
      dim: 1
    }
  }
}
layer {
  name: "lstm1_"
  type: "Input"
  top: "c_0"
  top: "h_0"
  input_param {
    shape {
      dim: 1
      dim: 1
      dim: 1000
    }
    shape {
      dim: 1
      dim: 1
      dim: 1000
    }
  }
}
layer {
  name: "lstm1_cont_slice"
  type: "Slice"
  bottom: "cont"
  top: "cont_1"
  slice_param {
    axis: 0
  }
}
layer {
  name: "lstm1_x_transform"
  type: "InnerProduct"
  bottom: "x"
  top: "W_xc_x"
  param {
    name: "W_xc"
  }
  param {
    name: "b_c"
  }
  propagate_down: true
  inner_product_param {
    num_output: 4000
    bias_term: true
    weight_filler {
      type: "uniform"
      min: -0.08
      max: 0.08
    }
    bias_filler {
      type: "constant"
      value: 0
    }
    axis: 2
  }
}
layer {
  name: "lstm1_W_xc_x_slice"
  type: "Slice"
  bottom: "W_xc_x"
  top: "W_xc_x_1"
  slice_param {
    axis: 0
  }
}
layer {
  name: "lstm1_h_conted_0"
  type: "Scale"
  bottom: "h_0"
  bottom: "cont_1"
  top: "h_conted_0"
  scale_param {
    axis: 0
  }
}
layer {
  name: "lstm1_transform_1"
  type: "InnerProduct"
  bottom: "h_conted_0"
  top: "W_hc_h_0"
  param {
    name: "W_hc"
  }
  inner_product_param {
    num_output: 4000
    bias_term: false
    weight_filler {
      type: "uniform"
      min: -0.08
      max: 0.08
    }
    axis: 2
  }
}
layer {
  name: "lstm1_gate_input_1"
  type: "Eltwise"
  bottom: "W_hc_h_0"
  bottom: "W_xc_x_1"
  top: "gate_input_1"
  eltwise_param {
    operation: SUM
  }
}
layer {
  name: "lstm1_unit_1"
  type: "LSTMUnit"
  bottom: "c_0"
  bottom: "gate_input_1"
  bottom: "cont_1"
  top: "c_1"
  top: "h_1"
}
layer {
  name: "lstm1_"
  type: "Split"
  bottom: "c_1"
  top: "c_T"
}
layer {
  name: "lstm1_h_concat"
  type: "Concat"
  bottom: "h_1"
  top: "h"
  concat_param {
    axis: 0
  }
}
layer {
  name: "h_pseudoloss"
  type: "Reduction"
  bottom: "h"
  top: "h_pseudoloss"
  loss_weight: 1
}
I0924 04:19:49.667840 28122 net.cpp:49] Initializing net from parameters: 
layer {
  name: "lstm1_"
  type: "Input"
  top: "x"
  top: "cont"
  input_param {
    shape {
      dim: 1
      dim: 1
      dim: 500
    }
    shape {
      dim: 1
      dim: 1
    }
  }
}
layer {
  name: "lstm1_"
  type: "Input"
  top: "c_0"
  top: "h_0"
  input_param {
    shape {
      dim: 1
      dim: 1
      dim: 1000
    }
    shape {
      dim: 1
      dim: 1
      dim: 1000
    }
  }
}
layer {
  name: "lstm1_cont_slice"
  type: "Slice"
  bottom: "cont"
  top: "cont_1"
  slice_param {
    axis: 0
  }
}
layer {
  name: "lstm1_x_transform"
  type: "InnerProduct"
  bottom: "x"
  top: "W_xc_x"
  param {
    name: "W_xc"
  }
  param {
    name: "b_c"
  }
  propagate_down: true
  inner_product_param {
    num_output: 4000
    bias_term: true
    weight_filler {
      type: "uniform"
      min: -0.08
      max: 0.08
    }
    bias_filler {
      type: "constant"
      value: 0
    }
    axis: 2
  }
}
layer {
  name: "lstm1_W_xc_x_slice"
  type: "Slice"
  bottom: "W_xc_x"
  top: "W_xc_x_1"
  slice_param {
    axis: 0
  }
}
layer {
  name: "lstm1_h_conted_0"
  type: "Scale"
  bottom: "h_0"
  bottom: "cont_1"
  top: "h_conted_0"
  scale_param {
    axis: 0
  }
}
layer {
  name: "lstm1_transform_1"
  type: "InnerProduct"
  bottom: "h_conted_0"
  top: "W_hc_h_0"
  param {
    name: "W_hc"
  }
  inner_product_param {
    num_output: 4000
    bias_term: false
    weight_filler {
      type: "uniform"
      min: -0.08
      max: 0.08
    }
    axis: 2
  }
}
layer {
  name: "lstm1_gate_input_1"
  type: "Eltwise"
  bottom: "W_hc_h_0"
  bottom: "W_xc_x_1"
  top: "gate_input_1"
  eltwise_param {
    operation: SUM
  }
}
layer {
  name: "lstm1_unit_1"
  type: "LSTMUnit"
  bottom: "c_0"
  bottom: "gate_input_1"
  bottom: "cont_1"
  top: "c_1"
  top: "h_1"
}
layer {
  name: "lstm1_"
  type: "Split"
  bottom: "c_1"
  top: "c_T"
}
layer {
  name: "lstm1_h_concat"
  type: "Concat"
  bottom: "h_1"
  top: "h"
  concat_param {
    axis: 0
  }
}
layer {
  name: "h_pseudoloss"
  type: "Reduction"
  bottom: "h"
  top: "h_pseudoloss"
  loss_weight: 1
}
I0924 04:19:49.668030 28128 layer_factory.hpp:77] Creating layer lstm1_
I0924 04:19:49.668063 28128 net.cpp:91] Creating Layer lstm1_
I0924 04:19:49.668079 28128 net.cpp:399] lstm1_ -> x
I0924 04:19:49.668109 28128 net.cpp:399] lstm1_ -> cont
I0924 04:19:49.669427 28122 layer_factory.hpp:77] Creating layer lstm1_
I0924 04:19:49.669457 28122 net.cpp:91] Creating Layer lstm1_
I0924 04:19:49.669468 28122 net.cpp:399] lstm1_ -> x
I0924 04:19:49.669481 28122 net.cpp:399] lstm1_ -> cont
I0924 04:19:49.675009 28134 net.cpp:141] Setting up embed_encoder
I0924 04:19:49.675066 28134 net.cpp:148] Top shape: 1 500 (500)
I0924 04:19:49.675078 28134 net.cpp:156] Memory required for data: 18404
I0924 04:19:49.675112 28134 layer_factory.hpp:77] Creating layer reshape_frames
I0924 04:19:49.675158 28134 net.cpp:91] Creating Layer reshape_frames
I0924 04:19:49.675171 28134 net.cpp:425] reshape_frames <- embedded_in_frames
I0924 04:19:49.675189 28134 net.cpp:399] reshape_frames -> embedded_input_frames
I0924 04:19:49.675282 28134 net.cpp:141] Setting up reshape_frames
I0924 04:19:49.675300 28134 net.cpp:148] Top shape: 1 1 500 (500)
I0924 04:19:49.675309 28134 net.cpp:156] Memory required for data: 20404
I0924 04:19:49.675320 28134 layer_factory.hpp:77] Creating layer reshape_stage_indicator
I0924 04:19:49.675338 28134 net.cpp:91] Creating Layer reshape_stage_indicator
I0924 04:19:49.675349 28134 net.cpp:425] reshape_stage_indicator <- stage_indicator
I0924 04:19:49.675365 28134 net.cpp:399] reshape_stage_indicator -> reshaped_stage_indicator
I0924 04:19:49.675431 28134 net.cpp:141] Setting up reshape_stage_indicator
I0924 04:19:49.675448 28134 net.cpp:148] Top shape: 1 1 1 (1)
I0924 04:19:49.675457 28134 net.cpp:156] Memory required for data: 20408
I0924 04:19:49.675467 28134 layer_factory.hpp:77] Creating layer embedding
I0924 04:19:49.675498 28134 net.cpp:91] Creating Layer embedding
I0924 04:19:49.675509 28134 net.cpp:425] embedding <- input_sentence
I0924 04:19:49.675525 28134 net.cpp:399] embedding -> embedded_input_sentence
I0924 04:19:49.718855 28160 net.cpp:141] Setting up embedding
I0924 04:19:49.718914 28128 net.cpp:141] Setting up lstm1_
I0924 04:19:49.718921 28160 net.cpp:148] Top shape: 1 1 500 (500)
I0924 04:19:49.718940 28128 net.cpp:148] Top shape: 1 1 500 (500)
I0924 04:19:49.718941 28160 net.cpp:156] Memory required for data: 22408
I0924 04:19:49.718953 28128 net.cpp:148] Top shape: 1 1 (1)
I0924 04:19:49.718961 28128 net.cpp:156] Memory required for data: 2004
I0924 04:19:49.718969 28128 layer_factory.hpp:77] Creating layer lstm1_
I0924 04:19:49.719007 28128 net.cpp:91] Creating Layer lstm1_
I0924 04:19:49.719038 28128 net.cpp:399] lstm1_ -> c_0
I0924 04:19:49.719063 28122 net.cpp:141] Setting up lstm1_
I0924 04:19:49.719065 28128 net.cpp:399] lstm1_ -> h_0
I0924 04:19:49.719094 28122 net.cpp:148] Top shape: 1 1 500 (500)
I0924 04:19:49.719105 28122 net.cpp:148] Top shape: 1 1 (1)
I0924 04:19:49.719113 28122 net.cpp:156] Memory required for data: 2004
I0924 04:19:49.719122 28122 layer_factory.hpp:77] Creating layer lstm1_
I0924 04:19:49.719137 28122 net.cpp:91] Creating Layer lstm1_
I0924 04:19:49.718969 28160 layer_factory.hpp:77] Creating layer lstm1
I0924 04:19:49.719260 28122 net.cpp:399] lstm1_ -> c_0
I0924 04:19:49.719260 28156 net.cpp:141] Setting up embedding
I0924 04:19:49.719260 28160 net.cpp:91] Creating Layer lstm1
I0924 04:19:49.719342 28160 net.cpp:425] lstm1 <- embedded_input_frames
I0924 04:19:49.719343 28156 net.cpp:148] Top shape: 1 1 500 (500)
I0924 04:19:49.719350 28122 net.cpp:399] lstm1_ -> h_0
I0924 04:19:49.719357 28156 net.cpp:156] Memory required for data: 22408
I0924 04:19:49.719360 28160 net.cpp:425] lstm1 <- cont_sentence_input_1_split_0
I0924 04:19:49.719378 28160 net.cpp:399] lstm1 -> lstm1
I0924 04:19:49.719380 28156 layer_factory.hpp:77] Creating layer lstm1
I0924 04:19:49.719399 28160 recurrent_layer.cpp:20] Initializing recurrent layer: assuming input batch contains 1 timesteps of 1 independent streams.
I0924 04:19:49.719470 28156 net.cpp:91] Creating Layer lstm1
I0924 04:19:49.719485 28156 net.cpp:425] lstm1 <- embedded_input_frames
I0924 04:19:49.719498 28156 net.cpp:425] lstm1 <- cont_sentence_input_1_split_0
I0924 04:19:49.719517 28156 net.cpp:399] lstm1 -> lstm1
I0924 04:19:49.719537 28156 recurrent_layer.cpp:20] Initializing recurrent layer: assuming input batch contains 1 timesteps of 1 independent streams.
I0924 04:19:49.719887 28156 net.cpp:49] Initializing net from parameters: 
layer {
  name: "lstm1_"
  type: "Input"
  top: "x"
  top: "cont"
  input_param {
    shape {
      dim: 1
      dim: 1
      dim: 500
    }
    shape {
      dim: 1
      dim: 1
    }
  }
}
layer {
  name: "lstm1_"
  type: "Input"
  top: "c_0"
  top: "h_0"
  input_param {
    shape {
      dim: 1
      dim: 1
      dim: 1000
    }
    shape {
      dim: 1
      dim: 1
      dim: 1000
    }
  }
}
layer {
  name: "lstm1_cont_slice"
  type: "Slice"
  bottom: "cont"
  top: "cont_1"
  slice_param {
    axis: 0
  }
}
layer {
  name: "lstm1_x_transform"
  type: "InnerProduct"
  bottom: "x"
  top: "W_xc_x"
  param {
    name: "W_xc"
  }
  param {
    name: "b_c"
  }
  propagate_down: true
  inner_product_param {
    num_output: 4000
    bias_term: true
    weight_filler {
      type: "uniform"
      min: -0.08
      max: 0.08
    }
    bias_filler {
      type: "constant"
      value: 0
    }
    axis: 2
  }
}
layer {
  name: "lstm1_W_xc_x_slice"
  type: "Slice"
  bottom: "W_xc_x"
  top: "W_xc_x_1"
  slice_param {
    axis: 0
  }
}
layer {
  name: "lstm1_h_conted_0"
  type: "Scale"
  bottom: "h_0"
  bottom: "cont_1"
  top: "h_conted_0"
  scale_param {
    axis: 0
  }
}
layer {
  name: "lstm1_transform_1"
  type: "InnerProduct"
  bottom: "h_conted_0"
  top: "W_hc_h_0"
  param {
    name: "W_hc"
  }
  inner_product_param {
    num_output: 4000
    bias_term: false
    weight_filler {
      type: "uniform"
      min: -0.08
      max: 0.08
    }
    axis: 2
  }
}
layer {
  name: "lstm1_gate_input_1"
  type: "Eltwise"
  bottom: "W_hc_h_0"
  bottom: "W_xc_x_1"
  top: "gate_input_1"
  eltwise_param {
    operation: SUM
  }
}
layer {
  name: "lstm1_unit_1"
  type: "LSTMUnit"
  bottom: "c_0"
  bottom: "gate_input_1"
  bottom: "cont_1"
  top: "c_1"
  top: "h_1"
}
layer {
  name: "lstm1_"
  type: "Split"
  bottom: "c_1"
  top: "c_T"
}
layer {
  name: "lstm1_h_concat"
  type: "Concat"
  bottom: "h_1"
  top: "h"
  concat_param {
    axis: 0
  }
}
layer {
  name: "h_pseudoloss"
  type: "Reduction"
  bottom: "h"
  top: "h_pseudoloss"
  loss_weight: 1
}
I0924 04:19:49.719889 28160 net.cpp:49] Initializing net from parameters: 
layer {
  name: "lstm1_"
  type: "Input"
  top: "x"
  top: "cont"
  input_param {
    shape {
      dim: 1
      dim: 1
      dim: 500
    }
    shape {
      dim: 1
      dim: 1
    }
  }
}
layer {
  name: "lstm1_"
  type: "Input"
  top: "c_0"
  top: "h_0"
  input_param {
    shape {
      dim: 1
      dim: 1
      dim: 1000
    }
    shape {
      dim: 1
      dim: 1
      dim: 1000
    }
  }
}
layer {
  name: "lstm1_cont_slice"
  type: "Slice"
  bottom: "cont"
  top: "cont_1"
  slice_param {
    axis: 0
  }
}
layer {
  name: "lstm1_x_transform"
  type: "InnerProduct"
  bottom: "x"
  top: "W_xc_x"
  param {
    name: "W_xc"
  }
  param {
    name: "b_c"
  }
  propagate_down: true
  inner_product_param {
    num_output: 4000
    bias_term: true
    weight_filler {
      type: "uniform"
      min: -0.08
      max: 0.08
    }
    bias_filler {
      type: "constant"
      value: 0
    }
    axis: 2
  }
}
layer {
  name: "lstm1_W_xc_x_slice"
  type: "Slice"
  bottom: "W_xc_x"
  top: "W_xc_x_1"
  slice_param {
    axis: 0
  }
}
layer {
  name: "lstm1_h_conted_0"
  type: "Scale"
  bottom: "h_0"
  bottom: "cont_1"
  top: "h_conted_0"
  scale_param {
    axis: 0
  }
}
layer {
  name: "lstm1_transform_1"
  type: "InnerProduct"
  bottom: "h_conted_0"
  top: "W_hc_h_0"
  param {
    name: "W_hc"
  }
  inner_product_param {
    num_output: 4000
    bias_term: false
    weight_filler {
      type: "uniform"
      min: -0.08
      max: 0.08
    }
    axis: 2
  }
}
layer {
  name: "lstm1_gate_input_1"
  type: "Eltwise"
  bottom: "W_hc_h_0"
  bottom: "W_xc_x_1"
  top: "gate_input_1"
  eltwise_param {
    operation: SUM
  }
}
layer {
  name: "lstm1_unit_1"
  type: "LSTMUnit"
  bottom: "c_0"
  bottom: "gate_input_1"
  bottom: "cont_1"
  top: "c_1"
  top: "h_1"
}
layer {
  name: "lstm1_"
  type: "Split"
  bottom: "c_1"
  top: "c_T"
}
layer {
  name: "lstm1_h_concat"
  type: "Concat"
  bottom: "h_1"
  top: "h"
  concat_param {
    axis: 0
  }
}
layer {
  name: "h_pseudoloss"
  type: "Reduction"
  bottom: "h"
  top: "h_pseudoloss"
  loss_weight: 1
}
I0924 04:19:49.720052 28160 layer_factory.hpp:77] Creating layer lstm1_
I0924 04:19:49.720052 28156 layer_factory.hpp:77] Creating layer lstm1_
I0924 04:19:49.720087 28160 net.cpp:91] Creating Layer lstm1_
I0924 04:19:49.720093 28156 net.cpp:91] Creating Layer lstm1_
I0924 04:19:49.720099 28160 net.cpp:399] lstm1_ -> x
I0924 04:19:49.720106 28156 net.cpp:399] lstm1_ -> x
I0924 04:19:49.720118 28160 net.cpp:399] lstm1_ -> cont
I0924 04:19:49.720126 28156 net.cpp:399] lstm1_ -> cont
I0924 04:19:49.774958 28100 net.cpp:141] Setting up embedding
I0924 04:19:49.775014 28148 net.cpp:141] Setting up embedding
I0924 04:19:49.775032 28148 net.cpp:148] Top shape: 1 1 500 (500)
I0924 04:19:49.775043 28128 net.cpp:141] Setting up lstm1_
I0924 04:19:49.775056 28148 net.cpp:156] Memory required for data: 22408
I0924 04:19:49.775032 28100 net.cpp:148] Top shape: 1 1 500 (500)
I0924 04:19:49.775073 28100 net.cpp:156] Memory required for data: 22408
I0924 04:19:49.775074 28128 net.cpp:148] Top shape: 1 1 1000 (1000)
I0924 04:19:49.775087 28128 net.cpp:148] Top shape: 1 1 1000 (1000)
I0924 04:19:49.775089 28148 layer_factory.hpp:77] Creating layer lstm1
I0924 04:19:49.775094 28128 net.cpp:156] Memory required for data: 10004
I0924 04:19:49.775090 28100 layer_factory.hpp:77] Creating layer lstm1
I0924 04:19:49.775104 28128 layer_factory.hpp:77] Creating layer lstm1_cont_slice
I0924 04:19:49.775131 28148 net.cpp:91] Creating Layer lstm1
I0924 04:19:49.775130 28100 net.cpp:91] Creating Layer lstm1
I0924 04:19:49.775132 28128 net.cpp:91] Creating Layer lstm1_cont_slice
I0924 04:19:49.775157 28100 net.cpp:425] lstm1 <- embedded_input_frames
I0924 04:19:49.775151 28148 net.cpp:425] lstm1 <- embedded_input_frames
I0924 04:19:49.775177 28100 net.cpp:425] lstm1 <- cont_sentence_input_1_split_0
I0924 04:19:49.775177 28128 net.cpp:425] lstm1_cont_slice <- cont
I0924 04:19:49.775183 28148 net.cpp:425] lstm1 <- cont_sentence_input_1_split_0
I0924 04:19:49.775194 28128 net.cpp:399] lstm1_cont_slice -> cont_1
I0924 04:19:49.775195 28100 net.cpp:399] lstm1 -> lstm1
I0924 04:19:49.775235 28100 recurrent_layer.cpp:20] Initializing recurrent layer: assuming input batch contains 1 timesteps of 1 independent streams.
I0924 04:19:49.775244 28160 net.cpp:141] Setting up lstm1_
I0924 04:19:49.775316 28160 net.cpp:148] Top shape: 1 1 500 (500)
I0924 04:19:49.775342 28160 net.cpp:148] Top shape: 1 1 (1)
I0924 04:19:49.775358 28160 net.cpp:156] Memory required for data: 2004
I0924 04:19:49.775372 28148 net.cpp:399] lstm1 -> lstm1
I0924 04:19:49.775380 28160 layer_factory.hpp:77] Creating layer lstm1_
I0924 04:19:49.775389 28148 recurrent_layer.cpp:20] Initializing recurrent layer: assuming input batch contains 1 timesteps of 1 independent streams.
I0924 04:19:49.775437 28128 net.cpp:141] Setting up lstm1_cont_slice
I0924 04:19:49.775455 28128 net.cpp:148] Top shape: 1 1 (1)
I0924 04:19:49.775461 28128 net.cpp:156] Memory required for data: 10008
I0924 04:19:49.775467 28128 layer_factory.hpp:77] Creating layer cont_1_lstm1_cont_slice_0_split
I0924 04:19:49.775477 28128 net.cpp:91] Creating Layer cont_1_lstm1_cont_slice_0_split
I0924 04:19:49.775482 28128 net.cpp:425] cont_1_lstm1_cont_slice_0_split <- cont_1
I0924 04:19:49.775569 28156 net.cpp:141] Setting up lstm1_
I0924 04:19:49.775576 28122 net.cpp:141] Setting up lstm1_
I0924 04:19:49.775590 28156 net.cpp:148] Top shape: 1 1 500 (500)
I0924 04:19:49.775599 28122 net.cpp:148] Top shape: 1 1 1000 (1000)
I0924 04:19:49.775594 28160 net.cpp:91] Creating Layer lstm1_
I0924 04:19:49.775600 28156 net.cpp:148] Top shape: 1 1 (1)
I0924 04:19:49.775622 28122 net.cpp:148] Top shape: 1 1 1000 (1000)
I0924 04:19:49.775629 28122 net.cpp:156] Memory required for data: 10004
I0924 04:19:49.775635 28156 net.cpp:156] Memory required for data: 2004
I0924 04:19:49.775638 28122 layer_factory.hpp:77] Creating layer lstm1_cont_slice
I0924 04:19:49.775646 28156 layer_factory.hpp:77] Creating layer lstm1_
I0924 04:19:49.775652 28122 net.cpp:91] Creating Layer lstm1_cont_slice
I0924 04:19:49.775660 28122 net.cpp:425] lstm1_cont_slice <- cont
…
I0924 04:19:49.775770 28122 net.cpp:399] lstm1_cont_slice -> cont_1
I0924 04:19:49.775835 28160 net.cpp:399] lstm1_ -> h_0
I0924 04:19:49.775904 28100 net.cpp:49] Initializing net from parameters: 
layer {
  name: "lstm1_"
  type: "Input"
  top: "x"
  top: "cont"
  input_param {
    shape {
      dim: 1
      dim: 1
      dim: 500
    }
    shape {
      dim: 1
      dim: 1
    }
  }
}
layer {
  name: "lstm1_"
  type: "Input"
  top: "c_0"
  top: "h_0"
  input_param {
    shape {
      dim: 1
      dim: 1
      dim: 1000
    }
    shape {
      dim: 1
      dim: 1
      dim: 1000
    }
  }
}
layer {
  name: "lstm1_cont_slice"
  type: "Slice"
  bottom: "cont"
  top: "cont_1"
  slice_param {
    axis: 0
  }
}
layer {
  name: "lstm1_x_transform"
  type: "InnerProduct"
  bottom: "x"
  top: "W_xc_x"
  param {
    name: "W_xc"
  }
  param {
    name: "b_c"
  }
  propagate_down: true
  inner_product_param {
    num_output: 4000
    bias_term: true
    weight_filler {
      type: "uniform"
      min: -0.08
      max: 0.08
    }
    bias_filler {
      type: "constant"
      value: 0
    }
    axis: 2
  }
}
layer {
  name: "lstm1_W_xc_x_slice"
  type: "Slice"
  bottom: "W_xc_x"
  top: "W_xc_x_1"
  slice_param {
    axis: 0
  }
}
layer {
  name: "lstm1_h_conted_0"
  type: "Scale"
  bottom: "h_0"
  bottom: "cont_1"
  top: "h_conted_0"
  scale_param {
    axis: 0
  }
}
layer {
  name: "lstm1_transform_1"
  type: "InnerProduct"
  bottom: "h_conted_0"
  top: "W_hc_h_0"
  param {
    name: "W_hc"
  }
  inner_product_param {
    num_output: 4000
    bias_term: false
    weight_filler {
      type: "uniform"
      min: -0.08
      max: 0.08
    }
    axis: 2
  }
}
layer {
  name: "lstm1_gate_input_1"
  type: "Eltwise"
  bottom: "W_hc_h_0"
  bottom: "W_xc_x_1"
  top: "gate_input_1"
  eltwise_param {
    operation: SUM
  }
}
layer {
  name: "lstm1_unit_1"
  type: "LSTMUnit"
  bottom: "c_0"
  bottom: "gate_input_1"
  bottom: "cont_1"
  top: "c_1"
  top: "h_1"
}
layer {
  name: "lstm1_"
  type: "Split"
  bottom: "c_1"
  top: "c_T"
}
layer {
  name: "lstm1_h_concat"
  type: "Concat"
  bottom: "h_1"
  top: "h"
  concat_param {
    axis: 0
  }
}
layer {
  name: "h_pseudoloss"
  type: "Reduction"
  bottom: "h"
  top: "h_pseudoloss"
  loss_weight: 1
}
I0924 04:19:49.776010 28100 layer_factory.hpp:77] Creating layer lstm1_
I0924 04:19:49.776022 28100 net.cpp:91] Creating Layer lstm1_
I0924 04:19:49.776028 28100 net.cpp:399] lstm1_ -> x
I0924 04:19:49.776041 28100 net.cpp:399] lstm1_ -> cont
I0924 04:19:49.776608 28148 net.cpp:49] Initializing net from parameters: 
layer {
  name: "lstm1_"
  type: "Input"
  top: "x"
  top: "cont"
  input_param {
    shape {
      dim: 1
      dim: 1
      dim: 500
    }
    shape {
      dim: 1
      dim: 1
    }
  }
}
layer {
  name: "lstm1_"
  type: "Input"
  top: "c_0"
  top: "h_0"
  input_param {
    shape {
      dim: 1
      dim: 1
      dim: 1000
    }
    shape {
      dim: 1
      dim: 1
      dim: 1000
    }
  }
}
layer {
  name: "lstm1_cont_slice"
  type: "Slice"
  bottom: "cont"
  top: "cont_1"
  slice_param {
    axis: 0
  }
}
layer {
  name: "lstm1_x_transform"
  type: "InnerProduct"
  bottom: "x"
  top: "W_xc_x"
  param {
    name: "W_xc"
  }
  param {
    name: "b_c"
  }
  propagate_down: true
  inner_product_param {
    num_output: 4000
    bias_term: true
    weight_filler {
      type: "uniform"
      min: -0.08
      max: 0.08
    }
    bias_filler {
      type: "constant"
      value: 0
    }
    axis: 2
  }
}
layer {
  name: "lstm1_W_xc_x_slice"
  type: "Slice"
  bottom: "W_xc_x"
  top: "W_xc_x_1"
  slice_param {
    axis: 0
  }
}
layer {
  name: "lstm1_h_conted_0"
  type: "Scale"
  bottom: "h_0"
  bottom: "cont_1"
  top: "h_conted_0"
  scale_param {
    axis: 0
  }
}
layer {
  name: "lstm1_transform_1"
  type: "InnerProduct"
  bottom: "h_conted_0"
  top: "W_hc_h_0"
  param {
    name: "W_hc"
  }
  inner_product_param {
    num_output: 4000
    bias_term: false
    weight_filler {
      type: "uniform"
      min: -0.08
      max: 0.08
    }
    axis: 2
  }
}
layer {
  name: "lstm1_gate_input_1"
  type: "Eltwise"
  bottom: "W_hc_h_0"
  bottom: "W_xc_x_1"
  top: "gate_input_1"
  eltwise_param {
    operation: SUM
  }
}
layer {
  name: "lstm1_unit_1"
  type: "LSTMUnit"
  bottom: "c_0"
  bottom: "gate_input_1"
  bottom: "cont_1"
  top: "c_1"
  top: "h_1"
}
layer {
  name: "lstm1_"
  type: "Split"
  bottom: "c_1"
  top: "c_T"
}
layer {
  name: "lstm1_h_concat"
  type: "Concat"
  bottom: "h_1"
  top: "h"
  concat_param {
    axis: 0
  }
}
layer {
  name: "h_pseudoloss"
  type: "Reduction"
  bottom: "h"
  top: "h_pseudoloss"
  loss_weight: 1
}
I0924 04:19:49.776757 28148 layer_factory.hpp:77] Creating layer lstm1_
I0924 04:19:49.776777 28148 net.cpp:91] Creating Layer lstm1_
I0924 04:19:49.776789 28148 net.cpp:399] lstm1_ -> x
I0924 04:19:49.776809 28148 net.cpp:399] lstm1_ -> cont
I0924 04:19:49.777456 28122 net.cpp:141] Setting up lstm1_cont_slice
I0924 04:19:49.777477 28122 net.cpp:148] Top shape: 1 1 (1)
I0924 04:19:49.777483 28122 net.cpp:156] Memory required for data: 10008
I0924 04:19:49.777492 28122 layer_factory.hpp:77] Creating layer cont_1_lstm1_cont_slice_0_split
I0924 04:19:49.777513 28122 net.cpp:91] Creating Layer cont_1_lstm1_cont_slice_0_split
I0924 04:19:49.777520 28122 net.cpp:425] cont_1_lstm1_cont_slice_0_split <- cont_1
I0924 04:19:49.777531 28122 net.cpp:399] cont_1_lstm1_cont_slice_0_split -> cont_1_lstm1_cont_slice_0_split_0
I0924 04:19:49.777544 28122 net.cpp:399] cont_1_lstm1_cont_slice_0_split -> cont_1_lstm1_cont_slice_0_split_1
I0924 04:19:49.777638 28122 net.cpp:141] Setting up cont_1_lstm1_cont_slice_0_split
I0924 04:19:49.777652 28122 net.cpp:148] Top shape: 1 1 (1)
I0924 04:19:49.777660 28122 net.cpp:148] Top shape: 1 1 (1)
I0924 04:19:49.777667 28122 net.cpp:156] Memory required for data: 10016
I0924 04:19:49.777673 28122 layer_factory.hpp:77] Creating layer lstm1_x_transform
I0924 04:19:49.777689 28122 net.cpp:91] Creating Layer lstm1_x_transform
I0924 04:19:49.777698 28122 net.cpp:425] lstm1_x_transform <- x
I0924 04:19:49.777710 28122 net.cpp:399] lstm1_x_transform -> W_xc_x
I0924 04:19:49.790834 28148 net.cpp:141] Setting up lstm1_
I0924 04:19:49.790890 28148 net.cpp:148] Top shape: 1 1 500 (500)
I0924 04:19:49.790904 28148 net.cpp:148] Top shape: 1 1 (1)
I0924 04:19:49.790913 28148 net.cpp:156] Memory required for data: 2004
I0924 04:19:49.790928 28148 layer_factory.hpp:77] Creating layer lstm1_
I0924 04:19:49.791023 28148 net.cpp:91] Creating Layer lstm1_
I0924 04:19:49.791077 28148 net.cpp:399] lstm1_ -> c_0
I0924 04:19:49.791075 28160 net.cpp:141] Setting up lstm1_
I0924 04:19:49.791108 28148 net.cpp:399] lstm1_ -> h_0
I0924 04:19:49.791115 28160 net.cpp:148] Top shape: 1 1 1000 (1000)
I0924 04:19:49.791136 28160 net.cpp:148] Top shape: 1 1 1000 (1000)
I0924 04:19:49.791144 28100 net.cpp:141] Setting up lstm1_
I0924 04:19:49.791151 28160 net.cpp:156] Memory required for data: 10004
I0924 04:19:49.791179 28100 net.cpp:148] Top shape: 1 1 500 (500)
I0924 04:19:49.791193 28100 net.cpp:148] Top shape: 1 1 (1)
I0924 04:19:49.791189 28160 layer_factory.hpp:77] Creating layer lstm1_cont_slice
I0924 04:19:49.791205 28156 net.cpp:141] Setting up lstm1_
I0924 04:19:49.791210 28100 net.cpp:156] Memory required for data: 2004
I0924 04:19:49.791244 28160 net.cpp:91] Creating Layer lstm1_cont_slice
I0924 04:19:49.791311 28100 layer_factory.hpp:77] Creating layer lstm1_
I0924 04:19:49.791270 28128 net.cpp:141] Setting up cont_1_lstm1_cont_slice_0_split
I0924 04:19:49.791330 28100 net.cpp:91] Creating Layer lstm1_
I0924 04:19:49.791334 28148 net.cpp:141] Setting up lstm1_
I0924 04:19:49.791328 28160 net.cpp:425] lstm1_cont_slice <- cont
I0924 04:19:49.791348 28128 net.cpp:148] Top shape: 1 1 (1)
I0924 04:19:49.791362 28128 net.cpp:148] Top shape: 1 1 (1)
I0924 04:19:49.791354 28148 net.cpp:148] Top shape: 1 1 1000 (1000)
I0924 04:19:49.791369 28128 net.cpp:156] Memory required for data: 10016
I0924 04:19:49.791354 28100 net.cpp:399] lstm1_ -> c_0
I0924 04:19:49.791373 28160 net.cpp:399] lstm1_cont_slice -> cont_1
I0924 04:19:49.791378 28148 net.cpp:148] Top shape: 1 1 1000 (1000)
I0924 04:19:49.791402 28100 net.cpp:399] lstm1_ -> h_0
I0924 04:19:49.791409 28148 net.cpp:156] Memory required for data: 10004
I0924 04:19:49.791420 28148 layer_factory.hpp:77] Creating layer lstm1_cont_slice
I0924 04:19:49.791440 28148 net.cpp:91] Creating Layer lstm1_cont_slice
I0924 04:19:49.791450 28148 net.cpp:425] lstm1_cont_slice <- cont
I0924 04:19:49.791447 28156 net.cpp:148] Top shape: 1 1 1000 (1000)
I0924 04:19:49.791465 28148 net.cpp:399] lstm1_cont_slice -> cont_1
I0924 04:19:49.791476 28156 net.cpp:148] Top shape: 1 1 1000 (1000)
I0924 04:19:49.791492 28156 net.cpp:156] Memory required for data: 10004
I0924 04:19:49.791510 28156 layer_factory.hpp:77] Creating layer lstm1_cont_slice
I0924 04:19:49.791538 28156 net.cpp:91] Creating Layer lstm1_cont_slice
I0924 04:19:49.791556 28156 net.cpp:425] lstm1_cont_slice <- cont
I0924 04:19:49.791580 28156 net.cpp:399] lstm1_cont_slice -> cont_1
I0924 04:19:49.791381 28128 layer_factory.hpp:77] Creating layer lstm1_x_transform
I0924 04:19:49.793891 28128 net.cpp:91] Creating Layer lstm1_x_transform
I0924 04:19:49.793913 28128 net.cpp:425] lstm1_x_transform <- x
I0924 04:19:49.793933 28128 net.cpp:399] lstm1_x_transform -> W_xc_x
I0924 04:19:49.793967 28160 net.cpp:141] Setting up lstm1_cont_slice
I0924 04:19:49.793988 28160 net.cpp:148] Top shape: 1 1 (1)
I0924 04:19:49.793995 28160 net.cpp:156] Memory required for data: 10008
I0924 04:19:49.794003 28160 layer_factory.hpp:77] Creating layer cont_1_lstm1_cont_slice_0_split
I0924 04:19:49.794023 28160 net.cpp:91] Creating Layer cont_1_lstm1_cont_slice_0_split
I0924 04:19:49.794025 28148 net.cpp:141] Setting up lstm1_cont_slice
I0924 04:19:49.794034 28160 net.cpp:425] cont_1_lstm1_cont_slice_0_split <- cont_1
I0924 04:19:49.794047 28148 net.cpp:148] Top shape: 1 1 (1)
I0924 04:19:49.794050 28160 net.cpp:399] cont_1_lstm1_cont_slice_0_split -> cont_1_lstm1_cont_slice_0_split_0
I0924 04:19:49.794055 28148 net.cpp:156] Memory required for data: 10008
I0924 04:19:49.794065 28148 layer_factory.hpp:77] Creating layer cont_1_lstm1_cont_slice_0_split
I0924 04:19:49.794066 28160 net.cpp:399] cont_1_lstm1_cont_slice_0_split -> cont_1_lstm1_cont_slice_0_split_1
I0924 04:19:49.794085 28148 net.cpp:91] Creating Layer cont_1_lstm1_cont_slice_0_split
I0924 04:19:49.794095 28148 net.cpp:425] cont_1_lstm1_cont_slice_0_split <- cont_1
I0924 04:19:49.794109 28148 net.cpp:399] cont_1_lstm1_cont_slice_0_split -> cont_1_lstm1_cont_slice_0_split_0
I0924 04:19:49.794122 28148 net.cpp:399] cont_1_lstm1_cont_slice_0_split -> cont_1_lstm1_cont_slice_0_split_1
I0924 04:19:49.794224 28156 net.cpp:141] Setting up lstm1_cont_slice
I0924 04:19:49.794241 28156 net.cpp:148] Top shape: 1 1 (1)
I0924 04:19:49.794248 28156 net.cpp:156] Memory required for data: 10008
I0924 04:19:49.794256 28156 layer_factory.hpp:77] Creating layer cont_1_lstm1_cont_slice_0_split
I0924 04:19:49.794268 28156 net.cpp:91] Creating Layer cont_1_lstm1_cont_slice_0_split
I0924 04:19:49.794280 28156 net.cpp:425] cont_1_lstm1_cont_slice_0_split <- cont_1
I0924 04:19:49.794291 28156 net.cpp:399] cont_1_lstm1_cont_slice_0_split -> cont_1_lstm1_cont_slice_0_split_0
I0924 04:19:49.794303 28156 net.cpp:399] cont_1_lstm1_cont_slice_0_split -> cont_1_lstm1_cont_slice_0_split_1
I0924 04:19:49.822762 28160 net.cpp:141] Setting up cont_1_lstm1_cont_slice_0_split
I0924 04:19:49.822818 28160 net.cpp:148] Top shape: 1 1 (1)
I0924 04:19:49.822829 28160 net.cpp:148] Top shape: 1 1 (1)
I0924 04:19:49.822836 28160 net.cpp:156] Memory required for data: 10016
I0924 04:19:49.822849 28160 layer_factory.hpp:77] Creating layer lstm1_x_transform
I0924 04:19:49.822881 28160 net.cpp:91] Creating Layer lstm1_x_transform
I0924 04:19:49.822891 28160 net.cpp:425] lstm1_x_transform <- x
I0924 04:19:49.822913 28160 net.cpp:399] lstm1_x_transform -> W_xc_x
I0924 04:19:49.828253 28100 net.cpp:141] Setting up lstm1_
I0924 04:19:49.828294 28104 net.cpp:141] Setting up embedding
I0924 04:19:49.828328 28104 net.cpp:148] Top shape: 1 1 500 (500)
I0924 04:19:49.828338 28104 net.cpp:156] Memory required for data: 22408
I0924 04:19:49.828358 28104 layer_factory.hpp:77] Creating layer lstm1
I0924 04:19:49.828305 28100 net.cpp:148] Top shape: 1 1 1000 (1000)
I0924 04:19:49.828383 28104 net.cpp:91] Creating Layer lstm1
I0924 04:19:49.828402 28100 net.cpp:148] Top shape: 1 1 1000 (1000)
I0924 04:19:49.828411 28100 net.cpp:156] Memory required for data: 10004
I0924 04:19:49.828410 28104 net.cpp:425] lstm1 <- embedded_input_frames
I0924 04:19:49.828426 28100 layer_factory.hpp:77] Creating layer lstm1_cont_slice
I0924 04:19:49.828436 28104 net.cpp:425] lstm1 <- cont_sentence_input_1_split_0
I0924 04:19:49.828444 28100 net.cpp:91] Creating Layer lstm1_cont_slice
I0924 04:19:49.828454 28100 net.cpp:425] lstm1_cont_slice <- cont
I0924 04:19:49.828454 28104 net.cpp:399] lstm1 -> lstm1
I0924 04:19:49.828466 28100 net.cpp:399] lstm1_cont_slice -> cont_1
I0924 04:19:49.828482 28104 recurrent_layer.cpp:20] Initializing recurrent layer: assuming input batch contains 1 timesteps of 1 independent streams.
I0924 04:19:49.829004 28104 net.cpp:49] Initializing net from parameters: 
layer {
  name: "lstm1_"
  type: "Input"
  top: "x"
  top: "cont"
  input_param {
    shape {
      dim: 1
      dim: 1
      dim: 500
    }
    shape {
      dim: 1
      dim: 1
    }
  }
}
layer {
  name: "lstm1_"
  type: "Input"
  top: "c_0"
  top: "h_0"
  input_param {
    shape {
      dim: 1
      dim: 1
      dim: 1000
    }
    shape {
      dim: 1
      dim: 1
      dim: 1000
    }
  }
}
layer {
  name: "lstm1_cont_slice"
  type: "Slice"
  bottom: "cont"
  top: "cont_1"
  slice_param {
    axis: 0
  }
}
layer {
  name: "lstm1_x_transform"
  type: "InnerProduct"
  bottom: "x"
  top: "W_xc_x"
  param {
    name: "W_xc"
  }
  param {
    name: "b_c"
  }
  propagate_down: true
  inner_product_param {
    num_output: 4000
    bias_term: true
    weight_filler {
      type: "uniform"
      min: -0.08
      max: 0.08
    }
    bias_filler {
      type: "constant"
      value: 0
    }
    axis: 2
  }
}
layer {
  name: "lstm1_W_xc_x_slice"
  type: "Slice"
  bottom: "W_xc_x"
  top: "W_xc_x_1"
  slice_param {
    axis: 0
  }
}
layer {
  name: "lstm1_h_conted_0"
  type: "Scale"
  bottom: "h_0"
  bottom: "cont_1"
  top: "h_conted_0"
  scale_param {
    axis: 0
  }
}
layer {
  name: "lstm1_transform_1"
  type: "InnerProduct"
  bottom: "h_conted_0"
  top: "W_hc_h_0"
  param {
    name: "W_hc"
  }
  inner_product_param {
    num_output: 4000
    bias_term: false
    weight_filler {
      type: "uniform"
      min: -0.08
      max: 0.08
    }
    axis: 2
  }
}
layer {
  name: "lstm1_gate_input_1"
  type: "Eltwise"
  bottom: "W_hc_h_0"
  bottom: "W_xc_x_1"
  top: "gate_input_1"
  eltwise_param {
    operation: SUM
  }
}
layer {
  name: "lstm1_unit_1"
  type: "LSTMUnit"
  bottom: "c_0"
  bottom: "gate_input_1"
  bottom: "cont_1"
  top: "c_1"
  top: "h_1"
}
layer {
  name: "lstm1_"
  type: "Split"
  bottom: "c_1"
  top: "c_T"
}
layer {
  name: "lstm1_h_concat"
  type: "Concat"
  bottom: "h_1"
  top: "h"
  concat_param {
    axis: 0
  }
}
layer {
  name: "h_pseudoloss"
  type: "Reduction"
  bottom: "h"
  top: "h_pseudoloss"
  loss_weight: 1
}
I0924 04:19:49.829169 28104 layer_factory.hpp:77] Creating layer lstm1_
I0924 04:19:49.829200 28104 net.cpp:91] Creating Layer lstm1_
I0924 04:19:49.829215 28104 net.cpp:399] lstm1_ -> x
I0924 04:19:49.829237 28104 net.cpp:399] lstm1_ -> cont
I0924 04:19:49.833926 28156 net.cpp:141] Setting up cont_1_lstm1_cont_slice_0_split
I0924 04:19:49.833979 28156 net.cpp:148] Top shape: 1 1 (1)
I0924 04:19:49.833993 28156 net.cpp:148] Top shape: 1 1 (1)
I0924 04:19:49.833993 28100 net.cpp:141] Setting up lstm1_cont_slice
I0924 04:19:49.834003 28156 net.cpp:156] Memory required for data: 10016
I0924 04:19:49.834028 28100 net.cpp:148] Top shape: 1 1 (1)
I0924 04:19:49.834038 28100 net.cpp:156] Memory required for data: 10008
I0924 04:19:49.834035 28156 layer_factory.hpp:77] Creating layer lstm1_x_transform
I0924 04:19:49.834053 28100 layer_factory.hpp:77] Creating layer cont_1_lstm1_cont_slice_0_split
I0924 04:19:49.834072 28100 net.cpp:91] Creating Layer cont_1_lstm1_cont_slice_0_split
I0924 04:19:49.834082 28100 net.cpp:425] cont_1_lstm1_cont_slice_0_split <- cont_1
I0924 04:19:49.834082 28156 net.cpp:91] Creating Layer lstm1_x_transform
I0924 04:19:49.834095 28156 net.cpp:425] lstm1_x_transform <- x
I0924 04:19:49.834097 28100 net.cpp:399] cont_1_lstm1_cont_slice_0_split -> cont_1_lstm1_cont_slice_0_split_0
I0924 04:19:49.834116 28100 net.cpp:399] cont_1_lstm1_cont_slice_0_split -> cont_1_lstm1_cont_slice_0_split_1
I0924 04:19:49.834117 28156 net.cpp:399] lstm1_x_transform -> W_xc_x
I0924 04:19:49.834198 28100 net.cpp:141] Setting up cont_1_lstm1_cont_slice_0_split
I0924 04:19:49.834211 28100 net.cpp:148] Top shape: 1 1 (1)
I0924 04:19:49.834220 28100 net.cpp:148] Top shape: 1 1 (1)
I0924 04:19:49.834228 28100 net.cpp:156] Memory required for data: 10016
I0924 04:19:49.834235 28100 layer_factory.hpp:77] Creating layer lstm1_x_transform
I0924 04:19:49.834287 28100 net.cpp:91] Creating Layer lstm1_x_transform
I0924 04:19:49.834296 28100 net.cpp:425] lstm1_x_transform <- x
I0924 04:19:49.834312 28100 net.cpp:399] lstm1_x_transform -> W_xc_x
I0924 04:19:49.844277 28104 net.cpp:141] Setting up lstm1_
I0924 04:19:49.844334 28104 net.cpp:148] Top shape: 1 1 500 (500)
I0924 04:19:49.844346 28104 net.cpp:148] Top shape: 1 1 (1)
I0924 04:19:49.844349 28104 net.cpp:156] Memory required for data: 2004
I0924 04:19:49.844359 28104 layer_factory.hpp:77] Creating layer lstm1_
I0924 04:19:49.844383 28104 net.cpp:91] Creating Layer lstm1_
I0924 04:19:49.844390 28104 net.cpp:399] lstm1_ -> c_0
I0924 04:19:49.844455 28104 net.cpp:399] lstm1_ -> h_0
I0924 04:19:49.845484 28148 net.cpp:141] Setting up cont_1_lstm1_cont_slice_0_split
I0924 04:19:49.845527 28148 net.cpp:148] Top shape: 1 1 (1)
I0924 04:19:49.845535 28148 net.cpp:148] Top shape: 1 1 (1)
I0924 04:19:49.845541 28148 net.cpp:156] Memory required for data: 10016
I0924 04:19:49.845548 28148 layer_factory.hpp:77] Creating layer lstm1_x_transform
I0924 04:19:49.845571 28148 net.cpp:91] Creating Layer lstm1_x_transform
I0924 04:19:49.845578 28148 net.cpp:425] lstm1_x_transform <- x
I0924 04:19:49.845593 28148 net.cpp:399] lstm1_x_transform -> W_xc_x
I0924 04:19:49.849495 28104 net.cpp:141] Setting up lstm1_
I0924 04:19:49.849536 28104 net.cpp:148] Top shape: 1 1 1000 (1000)
I0924 04:19:49.849544 28104 net.cpp:148] Top shape: 1 1 1000 (1000)
I0924 04:19:49.849548 28104 net.cpp:156] Memory required for data: 10004
I0924 04:19:49.849556 28104 layer_factory.hpp:77] Creating layer lstm1_cont_slice
I0924 04:19:49.849580 28104 net.cpp:91] Creating Layer lstm1_cont_slice
I0924 04:19:49.849586 28104 net.cpp:425] lstm1_cont_slice <- cont
I0924 04:19:49.849596 28104 net.cpp:399] lstm1_cont_slice -> cont_1
I0924 04:19:49.849763 28104 net.cpp:141] Setting up lstm1_cont_slice
I0924 04:19:49.849789 28104 net.cpp:148] Top shape: 1 1 (1)
I0924 04:19:49.849794 28104 net.cpp:156] Memory required for data: 10008
I0924 04:19:49.849804 28104 layer_factory.hpp:77] Creating layer cont_1_lstm1_cont_slice_0_split
I0924 04:19:49.849820 28104 net.cpp:91] Creating Layer cont_1_lstm1_cont_slice_0_split
I0924 04:19:49.849829 28104 net.cpp:425] cont_1_lstm1_cont_slice_0_split <- cont_1
I0924 04:19:49.849848 28104 net.cpp:399] cont_1_lstm1_cont_slice_0_split -> cont_1_lstm1_cont_slice_0_split_0
I0924 04:19:49.849863 28104 net.cpp:399] cont_1_lstm1_cont_slice_0_split -> cont_1_lstm1_cont_slice_0_split_1
I0924 04:19:49.853965 28122 net.cpp:141] Setting up lstm1_x_transform
I0924 04:19:49.854034 28122 net.cpp:148] Top shape: 1 1 4000 (4000)
I0924 04:19:49.854054 28122 net.cpp:156] Memory required for data: 26016
I0924 04:19:49.854095 28122 layer_factory.hpp:77] Creating layer lstm1_W_xc_x_slice
I0924 04:19:49.854127 28122 net.cpp:91] Creating Layer lstm1_W_xc_x_slice
I0924 04:19:49.854146 28122 net.cpp:425] lstm1_W_xc_x_slice <- W_xc_x
I0924 04:19:49.854171 28122 net.cpp:399] lstm1_W_xc_x_slice -> W_xc_x_1
I0924 04:19:49.854192 28104 net.cpp:141] Setting up cont_1_lstm1_cont_slice_0_split
I0924 04:19:49.854209 28104 net.cpp:148] Top shape: 1 1 (1)
I0924 04:19:49.854219 28104 net.cpp:148] Top shape: 1 1 (1)
I0924 04:19:49.854225 28104 net.cpp:156] Memory required for data: 10016
I0924 04:19:49.854233 28104 layer_factory.hpp:77] Creating layer lstm1_x_transform
I0924 04:19:49.854257 28104 net.cpp:91] Creating Layer lstm1_x_transform
I0924 04:19:49.854266 28104 net.cpp:425] lstm1_x_transform <- x
I0924 04:19:49.854267 28160 net.cpp:141] Setting up lstm1_x_transform
I0924 04:19:49.854280 28104 net.cpp:399] lstm1_x_transform -> W_xc_x
I0924 04:19:49.854287 28160 net.cpp:148] Top shape: 1 1 4000 (4000)
I0924 04:19:49.854295 28160 net.cpp:156] Memory required for data: 26016
I0924 04:19:49.854311 28160 layer_factory.hpp:77] Creating layer lstm1_W_xc_x_slice
I0924 04:19:49.854326 28160 net.cpp:91] Creating Layer lstm1_W_xc_x_slice
I0924 04:19:49.854336 28160 net.cpp:425] lstm1_W_xc_x_slice <- W_xc_x
I0924 04:19:49.854348 28160 net.cpp:399] lstm1_W_xc_x_slice -> W_xc_x_1
I0924 04:19:49.859019 28122 net.cpp:141] Setting up lstm1_W_xc_x_slice
I0924 04:19:49.859028 28160 net.cpp:141] Setting up lstm1_W_xc_x_slice
I0924 04:19:49.859076 28160 net.cpp:148] Top shape: 1 1 4000 (4000)
I0924 04:19:49.859076 28122 net.cpp:148] Top shape: 1 1 4000 (4000)
I0924 04:19:49.859093 28160 net.cpp:156] Memory required for data: 42016
I0924 04:19:49.859105 28122 net.cpp:156] Memory required for data: 42016
I0924 04:19:49.859112 28160 layer_factory.hpp:77] Creating layer lstm1_h_conted_0
I0924 04:19:49.859115 28122 layer_factory.hpp:77] Creating layer lstm1_h_conted_0
I0924 04:19:49.859146 28160 net.cpp:91] Creating Layer lstm1_h_conted_0
I0924 04:19:49.859158 28122 net.cpp:91] Creating Layer lstm1_h_conted_0
I0924 04:19:49.859158 28160 net.cpp:425] lstm1_h_conted_0 <- h_0
I0924 04:19:49.859179 28122 net.cpp:425] lstm1_h_conted_0 <- h_0
I0924 04:19:49.859184 28160 net.cpp:425] lstm1_h_conted_0 <- cont_1_lstm1_cont_slice_0_split_0
I0924 04:19:49.859189 28122 net.cpp:425] lstm1_h_conted_0 <- cont_1_lstm1_cont_slice_0_split_0
I0924 04:19:49.859200 28160 net.cpp:399] lstm1_h_conted_0 -> h_conted_0
I0924 04:19:49.859200 28122 net.cpp:399] lstm1_h_conted_0 -> h_conted_0
I0924 04:19:49.859241 28128 net.cpp:141] Setting up lstm1_x_transform
I0924 04:19:49.859279 28128 net.cpp:148] Top shape: 1 1 4000 (4000)
I0924 04:19:49.859288 28128 net.cpp:156] Memory required for data: 26016
I0924 04:19:49.859311 28128 layer_factory.hpp:77] Creating layer lstm1_W_xc_x_slice
I0924 04:19:49.859326 28128 net.cpp:91] Creating Layer lstm1_W_xc_x_slice
I0924 04:19:49.859335 28128 net.cpp:425] lstm1_W_xc_x_slice <- W_xc_x
I0924 04:19:49.859347 28128 net.cpp:399] lstm1_W_xc_x_slice -> W_xc_x_1
I0924 04:19:49.859484 28128 net.cpp:141] Setting up lstm1_W_xc_x_slice
I0924 04:19:49.859500 28128 net.cpp:148] Top shape: 1 1 4000 (4000)
I0924 04:19:49.859508 28128 net.cpp:156] Memory required for data: 42016
I0924 04:19:49.859516 28128 layer_factory.hpp:77] Creating layer lstm1_h_conted_0
I0924 04:19:49.859545 28128 net.cpp:91] Creating Layer lstm1_h_conted_0
I0924 04:19:49.859555 28128 net.cpp:425] lstm1_h_conted_0 <- h_0
I0924 04:19:49.859565 28128 net.cpp:425] lstm1_h_conted_0 <- cont_1_lstm1_cont_slice_0_split_0
I0924 04:19:49.859577 28128 net.cpp:399] lstm1_h_conted_0 -> h_conted_0
I0924 04:19:49.859586 28160 net.cpp:141] Setting up lstm1_h_conted_0
I0924 04:19:49.859604 28160 net.cpp:148] Top shape: 1 1 1000 (1000)
I0924 04:19:49.859613 28160 net.cpp:156] Memory required for data: 46016
I0924 04:19:49.859622 28160 layer_factory.hpp:77] Creating layer lstm1_transform_1
I0924 04:19:49.859638 28122 net.cpp:141] Setting up lstm1_h_conted_0
I0924 04:19:49.859642 28160 net.cpp:91] Creating Layer lstm1_transform_1
I0924 04:19:49.859658 28160 net.cpp:425] lstm1_transform_1 <- h_conted_0
I0924 04:19:49.859659 28122 net.cpp:148] Top shape: 1 1 1000 (1000)
I0924 04:19:49.859683 28160 net.cpp:399] lstm1_transform_1 -> W_hc_h_0
I0924 04:19:49.859676 28122 net.cpp:156] Memory required for data: 46016
I0924 04:19:49.859699 28122 layer_factory.hpp:77] Creating layer lstm1_transform_1
I0924 04:19:49.859715 28122 net.cpp:91] Creating Layer lstm1_transform_1
I0924 04:19:49.859724 28122 net.cpp:425] lstm1_transform_1 <- h_conted_0
I0924 04:19:49.859772 28122 net.cpp:399] lstm1_transform_1 -> W_hc_h_0
I0924 04:19:49.859783 28128 net.cpp:141] Setting up lstm1_h_conted_0
I0924 04:19:49.859800 28128 net.cpp:148] Top shape: 1 1 1000 (1000)
I0924 04:19:49.859809 28128 net.cpp:156] Memory required for data: 46016
I0924 04:19:49.859817 28128 layer_factory.hpp:77] Creating layer lstm1_transform_1
I0924 04:19:49.859833 28128 net.cpp:91] Creating Layer lstm1_transform_1
I0924 04:19:49.859840 28128 net.cpp:425] lstm1_transform_1 <- h_conted_0
I0924 04:19:49.859853 28128 net.cpp:399] lstm1_transform_1 -> W_hc_h_0
I0924 04:19:49.870790 28108 net.cpp:141] Setting up embedding
I0924 04:19:49.870841 28108 net.cpp:148] Top shape: 1 1 500 (500)
I0924 04:19:49.870851 28108 net.cpp:156] Memory required for data: 22408
I0924 04:19:49.870874 28108 layer_factory.hpp:77] Creating layer lstm1
I0924 04:19:49.870896 28108 net.cpp:91] Creating Layer lstm1
I0924 04:19:49.870908 28108 net.cpp:425] lstm1 <- embedded_input_frames
I0924 04:19:49.870920 28108 net.cpp:425] lstm1 <- cont_sentence_input_1_split_0
I0924 04:19:49.870936 28108 net.cpp:399] lstm1 -> lstm1
I0924 04:19:49.870960 28108 recurrent_layer.cpp:20] Initializing recurrent layer: assuming input batch contains 1 timesteps of 1 independent streams.
I0924 04:19:49.871361 28108 net.cpp:49] Initializing net from parameters: 
layer {
  name: "lstm1_"
  type: "Input"
  top: "x"
  top: "cont"
  input_param {
    shape {
      dim: 1
      dim: 1
      dim: 500
    }
    shape {
      dim: 1
      dim: 1
    }
  }
}
layer {
  name: "lstm1_"
  type: "Input"
  top: "c_0"
  top: "h_0"
  input_param {
    shape {
      dim: 1
      dim: 1
      dim: 1000
    }
    shape {
      dim: 1
      dim: 1
      dim: 1000
    }
  }
}
layer {
  name: "lstm1_cont_slice"
  type: "Slice"
  bottom: "cont"
  top: "cont_1"
  slice_param {
    axis: 0
  }
}
layer {
  name: "lstm1_x_transform"
  type: "InnerProduct"
  bottom: "x"
  top: "W_xc_x"
  param {
    name: "W_xc"
  }
  param {
    name: "b_c"
  }
  propagate_down: true
  inner_product_param {
    num_output: 4000
    bias_term: true
    weight_filler {
      type: "uniform"
      min: -0.08
      max: 0.08
    }
    bias_filler {
      type: "constant"
      value: 0
    }
    axis: 2
  }
}
layer {
  name: "lstm1_W_xc_x_slice"
  type: "Slice"
  bottom: "W_xc_x"
  top: "W_xc_x_1"
  slice_param {
    axis: 0
  }
}
layer {
  name: "lstm1_h_conted_0"
  type: "Scale"
  bottom: "h_0"
  bottom: "cont_1"
  top: "h_conted_0"
  scale_param {
    axis: 0
  }
}
layer {
  name: "lstm1_transform_1"
  type: "InnerProduct"
  bottom: "h_conted_0"
  top: "W_hc_h_0"
  param {
    name: "W_hc"
  }
  inner_product_param {
    num_output: 4000
    bias_term: false
    weight_filler {
      type: "uniform"
      min: -0.08
      max: 0.08
    }
    axis: 2
  }
}
layer {
  name: "lstm1_gate_input_1"
  type: "Eltwise"
  bottom: "W_hc_h_0"
  bottom: "W_xc_x_1"
  top: "gate_input_1"
  eltwise_param {
    operation: SUM
  }
}
layer {
  name: "lstm1_unit_1"
  type: "LSTMUnit"
  bottom: "c_0"
  bottom: "gate_input_1"
  bottom: "cont_1"
  top: "c_1"
  top: "h_1"
}
layer {
  name: "lstm1_"
  type: "Split"
  bottom: "c_1"
  top: "c_T"
}
layer {
  name: "lstm1_h_concat"
  type: "Concat"
  bottom: "h_1"
  top: "h"
  concat_param {
    axis: 0
  }
}
layer {
  name: "h_pseudoloss"
  type: "Reduction"
  bottom: "h"
  top: "h_pseudoloss"
  loss_weight: 1
}
I0924 04:19:49.871489 28108 layer_factory.hpp:77] Creating layer lstm1_
I0924 04:19:49.871505 28108 net.cpp:91] Creating Layer lstm1_
I0924 04:19:49.871515 28108 net.cpp:399] lstm1_ -> x
I0924 04:19:49.871532 28108 net.cpp:399] lstm1_ -> cont
I0924 04:19:49.898351 28156 net.cpp:141] Setting up lstm1_x_transform
I0924 04:19:49.898402 28156 net.cpp:148] Top shape: 1 1 4000 (4000)
I0924 04:19:49.898409 28156 net.cpp:156] Memory required for data: 26016
I0924 04:19:49.898440 28156 layer_factory.hpp:77] Creating layer lstm1_W_xc_x_slice
I0924 04:19:49.898458 28100 net.cpp:141] Setting up lstm1_x_transform
I0924 04:19:49.898468 28156 net.cpp:91] Creating Layer lstm1_W_xc_x_slice
I0924 04:19:49.898476 28100 net.cpp:148] Top shape: 1 1 4000 (4000)
I0924 04:19:49.898476 28156 net.cpp:425] lstm1_W_xc_x_slice <- W_xc_x
I0924 04:19:49.898494 28100 net.cpp:156] Memory required for data: 26016
I0924 04:19:49.898504 28156 net.cpp:399] lstm1_W_xc_x_slice -> W_xc_x_1
I0924 04:19:49.898507 28100 layer_factory.hpp:77] Creating layer lstm1_W_xc_x_slice
I0924 04:19:49.898522 28100 net.cpp:91] Creating Layer lstm1_W_xc_x_slice
I0924 04:19:49.898536 28100 net.cpp:425] lstm1_W_xc_x_slice <- W_xc_x
I0924 04:19:49.898555 28100 net.cpp:399] lstm1_W_xc_x_slice -> W_xc_x_1
I0924 04:19:49.898566 28156 net.cpp:141] Setting up lstm1_W_xc_x_slice
I0924 04:19:49.898577 28156 net.cpp:148] Top shape: 1 1 4000 (4000)
I0924 04:19:49.898582 28156 net.cpp:156] Memory required for data: 42016
I0924 04:19:49.898588 28156 layer_factory.hpp:77] Creating layer lstm1_h_conted_0
I0924 04:19:49.898612 28156 net.cpp:91] Creating Layer lstm1_h_conted_0
I0924 04:19:49.898622 28156 net.cpp:425] lstm1_h_conted_0 <- h_0
I0924 04:19:49.898627 28100 net.cpp:141] Setting up lstm1_W_xc_x_slice
I0924 04:19:49.898629 28156 net.cpp:425] lstm1_h_conted_0 <- cont_1_lstm1_cont_slice_0_split_0
I0924 04:19:49.898649 28100 net.cpp:148] Top shape: 1 1 4000 (4000)
I0924 04:19:49.898653 28156 net.cpp:399] lstm1_h_conted_0 -> h_conted_0
I0924 04:19:49.898658 28100 net.cpp:156] Memory required for data: 42016
I0924 04:19:49.898665 28100 layer_factory.hpp:77] Creating layer lstm1_h_conted_0
I0924 04:19:49.898684 28100 net.cpp:91] Creating Layer lstm1_h_conted_0
I0924 04:19:49.898694 28100 net.cpp:425] lstm1_h_conted_0 <- h_0
I0924 04:19:49.898704 28100 net.cpp:425] lstm1_h_conted_0 <- cont_1_lstm1_cont_slice_0_split_0
I0924 04:19:49.898715 28100 net.cpp:399] lstm1_h_conted_0 -> h_conted_0
I0924 04:19:49.898764 28156 net.cpp:141] Setting up lstm1_h_conted_0
I0924 04:19:49.898779 28156 net.cpp:148] Top shape: 1 1 1000 (1000)
I0924 04:19:49.898787 28156 net.cpp:156] Memory required for data: 46016
I0924 04:19:49.898794 28156 layer_factory.hpp:77] Creating layer lstm1_transform_1
I0924 04:19:49.898814 28156 net.cpp:91] Creating Layer lstm1_transform_1
I0924 04:19:49.898823 28156 net.cpp:425] lstm1_transform_1 <- h_conted_0
I0924 04:19:49.898840 28156 net.cpp:399] lstm1_transform_1 -> W_hc_h_0
I0924 04:19:49.898959 28108 net.cpp:141] Setting up lstm1_
I0924 04:19:49.899014 28108 net.cpp:148] Top shape: 1 1 500 (500)
I0924 04:19:49.899039 28108 net.cpp:148] Top shape: 1 1 (1)
I0924 04:19:49.899052 28108 net.cpp:156] Memory required for data: 2004
I0924 04:19:49.899071 28108 layer_factory.hpp:77] Creating layer lstm1_
I0924 04:19:49.899075 28100 net.cpp:141] Setting up lstm1_h_conted_0
I0924 04:19:49.899091 28100 net.cpp:148] Top shape: 1 1 1000 (1000)
I0924 04:19:49.899096 28100 net.cpp:156] Memory required for data: 46016
I0924 04:19:49.899101 28100 layer_factory.hpp:77] Creating layer lstm1_transform_1
I0924 04:19:49.899116 28100 net.cpp:91] Creating Layer lstm1_transform_1
I0924 04:19:49.899112 28108 net.cpp:91] Creating Layer lstm1_
I0924 04:19:49.899121 28100 net.cpp:425] lstm1_transform_1 <- h_conted_0
I0924 04:19:49.899150 28100 net.cpp:399] lstm1_transform_1 -> W_hc_h_0
I0924 04:19:49.899204 28108 net.cpp:399] lstm1_ -> c_0
I0924 04:19:49.899252 28108 net.cpp:399] lstm1_ -> h_0
I0924 04:19:49.907833 28160 net.cpp:141] Setting up lstm1_transform_1
I0924 04:19:49.908021 28148 net.cpp:141] Setting up lstm1_x_transform
I0924 04:19:49.908375 28160 net.cpp:148] Top shape: 1 1 4000 (4000)
I0924 04:19:49.908583 28148 net.cpp:148] Top shape: 1 1 4000 (4000)
I0924 04:19:49.908732 28160 net.cpp:156] Memory required for data: 62016
I0924 04:19:49.908861 28148 net.cpp:156] Memory required for data: 26016
I0924 04:19:49.908993 28160 layer_factory.hpp:77] Creating layer lstm1_gate_input_1
I0924 04:19:49.909160 28148 layer_factory.hpp:77] Creating layer lstm1_W_xc_x_slice
I0924 04:19:49.909282 28160 net.cpp:91] Creating Layer lstm1_gate_input_1
I0924 04:19:49.909399 28148 net.cpp:91] Creating Layer lstm1_W_xc_x_slice
I0924 04:19:49.909509 28160 net.cpp:425] lstm1_gate_input_1 <- W_hc_h_0
I0924 04:19:49.909631 28148 net.cpp:425] lstm1_W_xc_x_slice <- W_xc_x
I0924 04:19:49.909750 28160 net.cpp:425] lstm1_gate_input_1 <- W_xc_x_1
I0924 04:19:49.909873 28148 net.cpp:399] lstm1_W_xc_x_slice -> W_xc_x_1
I0924 04:19:49.909993 28160 net.cpp:399] lstm1_gate_input_1 -> gate_input_1
I0924 04:19:49.910902 28108 net.cpp:141] Setting up lstm1_
I0924 04:19:49.910923 28108 net.cpp:148] Top shape: 1 1 1000 (1000)
I0924 04:19:49.910933 28108 net.cpp:148] Top shape: 1 1 1000 (1000)
I0924 04:19:49.910940 28108 net.cpp:156] Memory required for data: 10004
I0924 04:19:49.910948 28108 layer_factory.hpp:77] Creating layer lstm1_cont_slice
I0924 04:19:49.910964 28108 net.cpp:91] Creating Layer lstm1_cont_slice
I0924 04:19:49.910972 28108 net.cpp:425] lstm1_cont_slice <- cont
I0924 04:19:49.910984 28108 net.cpp:399] lstm1_cont_slice -> cont_1
I0924 04:19:49.920325 28148 net.cpp:141] Setting up lstm1_W_xc_x_slice
I0924 04:19:49.920351 28160 net.cpp:141] Setting up lstm1_gate_input_1
I0924 04:19:49.920382 28160 net.cpp:148] Top shape: 1 1 4000 (4000)
I0924 04:19:49.920382 28148 net.cpp:148] Top shape: 1 1 4000 (4000)
I0924 04:19:49.920387 28160 net.cpp:156] Memory required for data: 78016
I0924 04:19:49.920392 28148 net.cpp:156] Memory required for data: 42016
I0924 04:19:49.920393 28160 layer_factory.hpp:77] Creating layer lstm1_unit_1
I0924 04:19:49.920409 28148 layer_factory.hpp:77] Creating layer lstm1_h_conted_0
I0924 04:19:49.920428 28160 net.cpp:91] Creating Layer lstm1_unit_1
I0924 04:19:49.920428 28148 net.cpp:91] Creating Layer lstm1_h_conted_0
I0924 04:19:49.920435 28160 net.cpp:425] lstm1_unit_1 <- c_0
I0924 04:19:49.920438 28148 net.cpp:425] lstm1_h_conted_0 <- h_0
I0924 04:19:49.920444 28160 net.cpp:425] lstm1_unit_1 <- gate_input_1
I0924 04:19:49.920449 28148 net.cpp:425] lstm1_h_conted_0 <- cont_1_lstm1_cont_slice_0_split_0
I0924 04:19:49.920450 28160 net.cpp:425] lstm1_unit_1 <- cont_1_lstm1_cont_slice_0_split_1
I0924 04:19:49.920469 28160 net.cpp:399] lstm1_unit_1 -> c_1
I0924 04:19:49.920469 28148 net.cpp:399] lstm1_h_conted_0 -> h_conted_0
I0924 04:19:49.920485 28160 net.cpp:399] lstm1_unit_1 -> h_1
I0924 04:19:49.920495 28108 net.cpp:141] Setting up lstm1_cont_slice
I0924 04:19:49.920513 28108 net.cpp:148] Top shape: 1 1 (1)
I0924 04:19:49.920521 28108 net.cpp:156] Memory required for data: 10008
I0924 04:19:49.920527 28108 layer_factory.hpp:77] Creating layer cont_1_lstm1_cont_slice_0_split
I0924 04:19:49.920541 28108 net.cpp:91] Creating Layer cont_1_lstm1_cont_slice_0_split
I0924 04:19:49.920548 28108 net.cpp:425] cont_1_lstm1_cont_slice_0_split <- cont_1
I0924 04:19:49.920562 28108 net.cpp:399] cont_1_lstm1_cont_slice_0_split -> cont_1_lstm1_cont_slice_0_split_0
I0924 04:19:49.920575 28108 net.cpp:399] cont_1_lstm1_cont_slice_0_split -> cont_1_lstm1_cont_slice_0_split_1
I0924 04:19:49.920660 28108 net.cpp:141] Setting up cont_1_lstm1_cont_slice_0_split
I0924 04:19:49.920672 28108 net.cpp:148] Top shape: 1 1 (1)
I0924 04:19:49.920681 28108 net.cpp:148] Top shape: 1 1 (1)
I0924 04:19:49.920688 28108 net.cpp:156] Memory required for data: 10016
I0924 04:19:49.920696 28108 layer_factory.hpp:77] Creating layer lstm1_x_transform
I0924 04:19:49.920719 28108 net.cpp:91] Creating Layer lstm1_x_transform
I0924 04:19:49.920727 28108 net.cpp:425] lstm1_x_transform <- x
I0924 04:19:49.920725 28148 net.cpp:141] Setting up lstm1_h_conted_0
I0924 04:19:49.920739 28108 net.cpp:399] lstm1_x_transform -> W_xc_x
I0924 04:19:49.920744 28148 net.cpp:148] Top shape: 1 1 1000 (1000)
I0924 04:19:49.920753 28148 net.cpp:156] Memory required for data: 46016
I0924 04:19:49.920763 28148 layer_factory.hpp:77] Creating layer lstm1_transform_1
I0924 04:19:49.920778 28148 net.cpp:91] Creating Layer lstm1_transform_1
I0924 04:19:49.920783 28148 net.cpp:425] lstm1_transform_1 <- h_conted_0
I0924 04:19:49.920792 28148 net.cpp:399] lstm1_transform_1 -> W_hc_h_0
I0924 04:19:49.921020 28104 net.cpp:141] Setting up lstm1_x_transform
I0924 04:19:49.921058 28160 net.cpp:141] Setting up lstm1_unit_1
I0924 04:19:49.921062 28104 net.cpp:148] Top shape: 1 1 4000 (4000)
I0924 04:19:49.921077 28160 net.cpp:148] Top shape: 1 1 1000 (1000)
I0924 04:19:49.921088 28104 net.cpp:156] Memory required for data: 26016
I0924 04:19:49.921098 28160 net.cpp:148] Top shape: 1 1 1000 (1000)
I0924 04:19:49.921113 28160 net.cpp:156] Memory required for data: 86016
I0924 04:19:49.921121 28160 layer_factory.hpp:77] Creating layer lstm1_
I0924 04:19:49.921129 28104 layer_factory.hpp:77] Creating layer lstm1_W_xc_x_slice
I0924 04:19:49.921131 28160 net.cpp:91] Creating Layer lstm1_
I0924 04:19:49.921147 28160 net.cpp:425] lstm1_ <- c_1
I0924 04:19:49.921155 28160 net.cpp:399] lstm1_ -> c_T
I0924 04:19:49.921180 28104 net.cpp:91] Creating Layer lstm1_W_xc_x_slice
I0924 04:19:49.921193 28104 net.cpp:425] lstm1_W_xc_x_slice <- W_xc_x
I0924 04:19:49.921210 28104 net.cpp:399] lstm1_W_xc_x_slice -> W_xc_x_1
I0924 04:19:49.934865 28160 net.cpp:141] Setting up lstm1_
I0924 04:19:49.934921 28160 net.cpp:148] Top shape: 1 1 1000 (1000)
I0924 04:19:49.934927 28160 net.cpp:156] Memory required for data: 90016
I0924 04:19:49.934938 28160 layer_factory.hpp:77] Creating layer lstm1_h_concat
I0924 04:19:49.934963 28160 net.cpp:91] Creating Layer lstm1_h_concat
I0924 04:19:49.934975 28160 net.cpp:425] lstm1_h_concat <- h_1
I0924 04:19:49.934968 28104 net.cpp:141] Setting up lstm1_W_xc_x_slice
I0924 04:19:49.934998 28160 net.cpp:399] lstm1_h_concat -> h
I0924 04:19:49.935011 28104 net.cpp:148] Top shape: 1 1 4000 (4000)
I0924 04:19:49.935022 28104 net.cpp:156] Memory required for data: 42016
I0924 04:19:49.935034 28104 layer_factory.hpp:77] Creating layer lstm1_h_conted_0
I0924 04:19:49.935065 28160 net.cpp:141] Setting up lstm1_h_concat
I0924 04:19:49.935063 28122 net.cpp:141] Setting up lstm1_transform_1
I0924 04:19:49.935084 28160 net.cpp:148] Top shape: 1 1 1000 (1000)
I0924 04:19:49.935066 28104 net.cpp:91] Creating Layer lstm1_h_conted_0
I0924 04:19:49.935093 28160 net.cpp:156] Memory required for data: 94016
I0924 04:19:49.935093 28122 net.cpp:148] Top shape: 1 1 4000 (4000)
I0924 04:19:49.935101 28104 net.cpp:425] lstm1_h_conted_0 <- h_0
I0924 04:19:49.935106 28160 layer_factory.hpp:77] Creating layer h_pseudoloss
I0924 04:19:49.935114 28104 net.cpp:425] lstm1_h_conted_0 <- cont_1_lstm1_cont_slice_0_split_0
I0924 04:19:49.935120 28122 net.cpp:156] Memory required for data: 62016
I0924 04:19:49.935130 28104 net.cpp:399] lstm1_h_conted_0 -> h_conted_0
I0924 04:19:49.935138 28160 net.cpp:91] Creating Layer h_pseudoloss
I0924 04:19:49.935142 28122 layer_factory.hpp:77] Creating layer lstm1_gate_input_1
I0924 04:19:49.935149 28160 net.cpp:425] h_pseudoloss <- h
I0924 04:19:49.935163 28160 net.cpp:399] h_pseudoloss -> h_pseudoloss
I0924 04:19:49.935166 28128 net.cpp:141] Setting up lstm1_transform_1
I0924 04:19:49.935184 28122 net.cpp:91] Creating Layer lstm1_gate_input_1
I0924 04:19:49.935187 28128 net.cpp:148] Top shape: 1 1 4000 (4000)
I0924 04:19:49.935209 28122 net.cpp:425] lstm1_gate_input_1 <- W_hc_h_0
I0924 04:19:49.935212 28128 net.cpp:156] Memory required for data: 62016
I0924 04:19:49.935217 28122 net.cpp:425] lstm1_gate_input_1 <- W_xc_x_1
I0924 04:19:49.935230 28128 layer_factory.hpp:77] Creating layer lstm1_gate_input_1
I0924 04:19:49.935232 28122 net.cpp:399] lstm1_gate_input_1 -> gate_input_1
I0924 04:19:49.935261 28128 net.cpp:91] Creating Layer lstm1_gate_input_1
I0924 04:19:49.935271 28128 net.cpp:425] lstm1_gate_input_1 <- W_hc_h_0
I0924 04:19:49.935281 28128 net.cpp:425] lstm1_gate_input_1 <- W_xc_x_1
I0924 04:19:49.935293 28128 net.cpp:399] lstm1_gate_input_1 -> gate_input_1
I0924 04:19:49.935348 28104 net.cpp:141] Setting up lstm1_h_conted_0
I0924 04:19:49.935364 28104 net.cpp:148] Top shape: 1 1 1000 (1000)
I0924 04:19:49.935372 28104 net.cpp:156] Memory required for data: 46016
I0924 04:19:49.935380 28104 layer_factory.hpp:77] Creating layer lstm1_transform_1
I0924 04:19:49.935402 28104 net.cpp:91] Creating Layer lstm1_transform_1
I0924 04:19:49.935411 28104 net.cpp:425] lstm1_transform_1 <- h_conted_0
I0924 04:19:49.935425 28104 net.cpp:399] lstm1_transform_1 -> W_hc_h_0
I0924 04:19:49.935473 28122 net.cpp:141] Setting up lstm1_gate_input_1
I0924 04:19:49.935487 28122 net.cpp:148] Top shape: 1 1 4000 (4000)
I0924 04:19:49.935492 28122 net.cpp:156] Memory required for data: 78016
I0924 04:19:49.935497 28122 layer_factory.hpp:77] Creating layer lstm1_unit_1
I0924 04:19:49.935506 28122 net.cpp:91] Creating Layer lstm1_unit_1
I0924 04:19:49.935511 28122 net.cpp:425] lstm1_unit_1 <- c_0
I0924 04:19:49.935518 28122 net.cpp:425] lstm1_unit_1 <- gate_input_1
I0924 04:19:49.935529 28122 net.cpp:425] lstm1_unit_1 <- cont_1_lstm1_cont_slice_0_split_1
I0924 04:19:49.935535 28128 net.cpp:141] Setting up lstm1_gate_input_1
I0924 04:19:49.935549 28122 net.cpp:399] lstm1_unit_1 -> c_1
I0924 04:19:49.935551 28128 net.cpp:148] Top shape: 1 1 4000 (4000)
I0924 04:19:49.935576 28128 net.cpp:156] Memory required for data: 78016
I0924 04:19:49.935578 28122 net.cpp:399] lstm1_unit_1 -> h_1
I0924 04:19:49.935585 28128 layer_factory.hpp:77] Creating layer lstm1_unit_1
I0924 04:19:49.935597 28128 net.cpp:91] Creating Layer lstm1_unit_1
I0924 04:19:49.935597 28160 net.cpp:141] Setting up h_pseudoloss
I0924 04:19:49.935605 28128 net.cpp:425] lstm1_unit_1 <- c_0
…
I0924 04:19:49.946106 28128 net.cpp:219] lstm1_cont_slice does not need backward computation.
I0924 04:19:49.946135 28128 net.cpp:219] lstm1_ does not need backward computation.
I0924 04:19:49.946148 28128 net.cpp:219] lstm1_ does not need backward computation.
I0924 04:19:49.946156 28128 net.cpp:261] This network produces output c_T
I0924 04:19:49.946166 28128 net.cpp:261] This network produces output h_pseudoloss
I0924 04:19:49.946190 28128 net.cpp:274] Network initialization done.
I0924 04:19:49.946274 28134 net.cpp:141] Setting up embedding
I0924 04:19:49.946291 28128 recurrent_layer.cpp:150] Adding parameter 0: W_xc
I0924 04:19:49.946295 28134 net.cpp:148] Top shape: 1 1 500 (500)
I0924 04:19:49.946324 28128 recurrent_layer.cpp:150] Adding parameter 1: b_c
I0924 04:19:49.946329 28134 net.cpp:156] Memory required for data: 22408
I0924 04:19:49.946336 28128 recurrent_layer.cpp:150] Adding parameter 2: W_hc
I0924 04:19:49.946348 28134 layer_factory.hpp:77] Creating layer lstm1
I0924 04:19:49.946398 28134 net.cpp:91] Creating Layer lstm1
I0924 04:19:49.946410 28134 net.cpp:425] lstm1 <- embedded_input_frames
I0924 04:19:49.946421 28134 net.cpp:425] lstm1 <- cont_sentence_input_1_split_0
I0924 04:19:49.946435 28134 net.cpp:399] lstm1 -> lstm1
I0924 04:19:49.946452 28134 recurrent_layer.cpp:20] Initializing recurrent layer: assuming input batch contains 1 timesteps of 1 independent streams.
I0924 04:19:49.946524 28128 net.cpp:141] Setting up lstm1
I0924 04:19:49.946544 28128 net.cpp:148] Top shape: 1 1 1000 (1000)
I0924 04:19:49.946554 28128 net.cpp:156] Memory required for data: 26408
I0924 04:19:49.946578 28128 layer_factory.hpp:77] Creating layer concat
I0924 04:19:49.946609 28128 net.cpp:91] Creating Layer concat
I0924 04:19:49.946624 28128 net.cpp:425] concat <- lstm1
I0924 04:19:49.946635 28128 net.cpp:425] concat <- embedded_input_sentence
I0924 04:19:49.946647 28128 net.cpp:425] concat <- reshaped_stage_indicator
I0924 04:19:49.946661 28128 net.cpp:399] concat -> lstm1_video_sequence
I0924 04:19:49.946720 28128 net.cpp:141] Setting up concat
I0924 04:19:49.946738 28128 net.cpp:148] Top shape: 1 1 1501 (1501)
I0924 04:19:49.946748 28128 net.cpp:156] Memory required for data: 32412
I0924 04:19:49.946756 28128 layer_factory.hpp:77] Creating layer lstm2
I0924 04:19:49.946776 28128 net.cpp:91] Creating Layer lstm2
I0924 04:19:49.946789 28128 net.cpp:425] lstm2 <- lstm1_video_sequence
I0924 04:19:49.946799 28128 net.cpp:425] lstm2 <- cont_sentence_input_1_split_1
I0924 04:19:49.946815 28128 net.cpp:399] lstm2 -> lstm2
I0924 04:19:49.946835 28128 recurrent_layer.cpp:20] Initializing recurrent layer: assuming input batch contains 1 timesteps of 1 independent streams.
I0924 04:19:49.946910 28134 net.cpp:49] Initializing net from parameters: 
layer {
  name: "lstm1_"
  type: "Input"
  top: "x"
  top: "cont"
  input_param {
    shape {
      dim: 1
      dim: 1
      dim: 500
    }
    shape {
      dim: 1
      dim: 1
    }
  }
}
layer {
  name: "lstm1_"
  type: "Input"
  top: "c_0"
  top: "h_0"
  input_param {
    shape {
      dim: 1
      dim: 1
      dim: 1000
    }
    shape {
      dim: 1
      dim: 1
      dim: 1000
    }
  }
}
layer {
  name: "lstm1_cont_slice"
  type: "Slice"
  bottom: "cont"
  top: "cont_1"
  slice_param {
    axis: 0
  }
}
layer {
  name: "lstm1_x_transform"
  type: "InnerProduct"
  bottom: "x"
  top: "W_xc_x"
  param {
    name: "W_xc"
  }
  param {
    name: "b_c"
  }
  propagate_down: true
  inner_product_param {
    num_output: 4000
    bias_term: true
    weight_filler {
      type: "uniform"
      min: -0.08
      max: 0.08
    }
    bias_filler {
      type: "constant"
      value: 0
    }
    axis: 2
  }
}
layer {
  name: "lstm1_W_xc_x_slice"
  type: "Slice"
  bottom: "W_xc_x"
  top: "W_xc_x_1"
  slice_param {
    axis: 0
  }
}
layer {
  name: "lstm1_h_conted_0"
  type: "Scale"
  bottom: "h_0"
  bottom: "cont_1"
  top: "h_conted_0"
  scale_param {
    axis: 0
  }
}
layer {
  name: "lstm1_transform_1"
  type: "InnerProduct"
  bottom: "h_conted_0"
  top: "W_hc_h_0"
  param {
    name: "W_hc"
  }
  inner_product_param {
    num_output: 4000
    bias_term: false
    weight_filler {
      type: "uniform"
      min: -0.08
      max: 0.08
    }
    axis: 2
  }
}
layer {
  name: "lstm1_gate_input_1"
  type: "Eltwise"
  bottom: "W_hc_h_0"
  bottom: "W_xc_x_1"
  top: "gate_input_1"
  eltwise_param {
    operation: SUM
  }
}
layer {
  name: "lstm1_unit_1"
  type: "LSTMUnit"
  bottom: "c_0"
  bottom: "gate_input_1"
  bottom: "cont_1"
  top: "c_1"
  top: "h_1"
}
layer {
  name: "lstm1_"
  type: "Split"
  bottom: "c_1"
  top: "c_T"
}
layer {
  name: "lstm1_h_concat"
  type: "Concat"
  bottom: "h_1"
  top: "h"
  concat_param {
    axis: 0
  }
}
layer {
  name: "h_pseudoloss"
  type: "Reduction"
  bottom: "h"
  top: "h_pseudoloss"
  loss_weight: 1
}
I0924 04:19:49.947093 28134 layer_factory.hpp:77] Creating layer lstm1_
I0924 04:19:49.947113 28134 net.cpp:91] Creating Layer lstm1_
I0924 04:19:49.947124 28134 net.cpp:399] lstm1_ -> x
I0924 04:19:49.947141 28134 net.cpp:399] lstm1_ -> cont
I0924 04:19:49.947190 28128 net.cpp:49] Initializing net from parameters: 
layer {
  name: "lstm2_"
  type: "Input"
  top: "x"
  top: "cont"
  input_param {
    shape {
      dim: 1
      dim: 1
      dim: 1501
    }
    shape {
      dim: 1
      dim: 1
    }
  }
}
layer {
  name: "lstm2_"
  type: "Input"
  top: "c_0"
  top: "h_0"
  input_param {
    shape {
      dim: 1
      dim: 1
      dim: 1000
    }
    shape {
      dim: 1
      dim: 1
      dim: 1000
    }
  }
}
layer {
  name: "lstm2_cont_slice"
  type: "Slice"
  bottom: "cont"
  top: "cont_1"
  slice_param {
    axis: 0
  }
}
layer {
  name: "lstm2_x_transform"
  type: "InnerProduct"
  bottom: "x"
  top: "W_xc_x"
  param {
    name: "W_xc"
  }
  param {
    name: "b_c"
  }
  propagate_down: true
  inner_product_param {
    num_output: 4000
    bias_term: true
    weight_filler {
      type: "uniform"
      min: -0.08
      max: 0.08
    }
    bias_filler {
      type: "constant"
      value: 0
    }
    axis: 2
  }
}
layer {
  name: "lstm2_W_xc_x_slice"
  type: "Slice"
  bottom: "W_xc_x"
  top: "W_xc_x_1"
  slice_param {
    axis: 0
  }
}
layer {
  name: "lstm2_h_conted_0"
  type: "Scale"
  bottom: "h_0"
  bottom: "cont_1"
  top: "h_conted_0"
  scale_param {
    axis: 0
  }
}
layer {
  name: "lstm2_transform_1"
  type: "InnerProduct"
  bottom: "h_conted_0"
  top: "W_hc_h_0"
  param {
    name: "W_hc"
  }
  inner_product_param {
    num_output: 4000
    bias_term: false
    weight_filler {
      type: "uniform"
      min: -0.08
      max: 0.08
    }
    axis: 2
  }
}
layer {
  name: "lstm2_gate_input_1"
  type: "Eltwise"
  bottom: "W_hc_h_0"
  bottom: "W_xc_x_1"
  top: "gate_input_1"
  eltwise_param {
    operation: SUM
  }
}
layer {
  name: "lstm2_unit_1"
  type: "LSTMUnit"
  bottom: "c_0"
  bottom: "gate_input_1"
  bottom: "cont_1"
  top: "c_1"
  top: "h_1"
}
layer {
  name: "lstm2_"
  type: "Split"
  bottom: "c_1"
  top: "c_T"
}
layer {
  name: "lstm2_h_concat"
  type: "Concat"
  bottom: "h_1"
  top: "h"
  concat_param {
    axis: 0
  }
}
layer {
  name: "h_pseudoloss"
  type: "Reduction"
  bottom: "h"
  top: "h_pseudoloss"
  loss_weight: 1
}
I0924 04:19:49.947227 28134 net.cpp:141] Setting up lstm1_
I0924 04:19:49.947242 28134 net.cpp:148] Top shape: 1 1 500 (500)
I0924 04:19:49.947253 28134 net.cpp:148] Top shape: 1 1 (1)
I0924 04:19:49.947260 28134 net.cpp:156] Memory required for data: 2004
I0924 04:19:49.947269 28134 layer_factory.hpp:77] Creating layer lstm1_
I0924 04:19:49.947283 28134 net.cpp:91] Creating Layer lstm1_
I0924 04:19:49.947311 28134 net.cpp:399] lstm1_ -> c_0
I0924 04:19:49.947329 28134 net.cpp:399] lstm1_ -> h_0
I0924 04:19:49.947386 28128 layer_factory.hpp:77] Creating layer lstm2_
I0924 04:19:49.947409 28128 net.cpp:91] Creating Layer lstm2_
I0924 04:19:49.947425 28128 net.cpp:399] lstm2_ -> x
I0924 04:19:49.947422 28134 net.cpp:141] Setting up lstm1_
I0924 04:19:49.947448 28128 net.cpp:399] lstm2_ -> cont
I0924 04:19:49.947451 28134 net.cpp:148] Top shape: 1 1 1000 (1000)
I0924 04:19:49.947463 28134 net.cpp:148] Top shape: 1 1 1000 (1000)
I0924 04:19:49.947470 28134 net.cpp:156] Memory required for data: 10004
I0924 04:19:49.947477 28134 layer_factory.hpp:77] Creating layer lstm1_cont_slice
I0924 04:19:49.947491 28134 net.cpp:91] Creating Layer lstm1_cont_slice
I0924 04:19:49.947499 28134 net.cpp:425] lstm1_cont_slice <- cont
I0924 04:19:49.947510 28134 net.cpp:399] lstm1_cont_slice -> cont_1
I0924 04:19:49.947551 28128 net.cpp:141] Setting up lstm2_
I0924 04:19:49.947569 28128 net.cpp:148] Top shape: 1 1 1501 (1501)
I0924 04:19:49.947582 28128 net.cpp:148] Top shape: 1 1 (1)
I0924 04:19:49.947592 28128 net.cpp:156] Memory required for data: 6008
I0924 04:19:49.947602 28128 layer_factory.hpp:77] Creating layer lstm2_
I0924 04:19:49.947618 28128 net.cpp:91] Creating Layer lstm2_
I0924 04:19:49.947651 28128 net.cpp:399] lstm2_ -> c_0
I0924 04:19:49.947674 28128 net.cpp:399] lstm2_ -> h_0
I0924 04:19:49.947785 28128 net.cpp:141] Setting up lstm2_
I0924 04:19:49.947804 28128 net.cpp:148] Top shape: 1 1 1000 (1000)
I0924 04:19:49.947816 28128 net.cpp:148] Top shape: 1 1 1000 (1000)
I0924 04:19:49.947827 28128 net.cpp:156] Memory required for data: 14008
I0924 04:19:49.947837 28128 layer_factory.hpp:77] Creating layer lstm2_cont_slice
I0924 04:19:49.947851 28128 net.cpp:91] Creating Layer lstm2_cont_slice
I0924 04:19:49.947861 28128 net.cpp:425] lstm2_cont_slice <- cont
I0924 04:19:49.947875 28128 net.cpp:399] lstm2_cont_slice -> cont_1
I0924 04:19:49.947958 28128 net.cpp:141] Setting up lstm2_cont_slice
I0924 04:19:49.947978 28128 net.cpp:148] Top shape: 1 1 (1)
I0924 04:19:49.947986 28128 net.cpp:156] Memory required for data: 14012
I0924 04:19:49.947996 28128 layer_factory.hpp:77] Creating layer cont_1_lstm2_cont_slice_0_split
I0924 04:19:49.948027 28128 net.cpp:91] Creating Layer cont_1_lstm2_cont_slice_0_split
I0924 04:19:49.948040 28128 net.cpp:425] cont_1_lstm2_cont_slice_0_split <- cont_1
I0924 04:19:49.948057 28128 net.cpp:399] cont_1_lstm2_cont_slice_0_split -> cont_1_lstm2_cont_slice_0_split_0
I0924 04:19:49.948076 28128 net.cpp:399] cont_1_lstm2_cont_slice_0_split -> cont_1_lstm2_cont_slice_0_split_1
I0924 04:19:49.948191 28128 net.cpp:141] Setting up cont_1_lstm2_cont_slice_0_split
I0924 04:19:49.948210 28128 net.cpp:148] Top shape: 1 1 (1)
I0924 04:19:49.948221 28128 net.cpp:148] Top shape: 1 1 (1)
I0924 04:19:49.948230 28128 net.cpp:156] Memory required for data: 14020
I0924 04:19:49.948240 28128 layer_factory.hpp:77] Creating layer lstm2_x_transform
I0924 04:19:49.948258 28128 net.cpp:91] Creating Layer lstm2_x_transform
I0924 04:19:49.948269 28128 net.cpp:425] lstm2_x_transform <- x
I0924 04:19:49.948303 28128 net.cpp:399] lstm2_x_transform -> W_xc_x
I0924 04:19:49.964752 28122 net.cpp:141] Setting up lstm1_unit_1
I0924 04:19:49.964817 28122 net.cpp:148] Top shape: 1 1 1000 (1000)
I0924 04:19:49.964838 28122 net.cpp:148] Top shape: 1 1 1000 (1000)
I0924 04:19:49.964851 28122 net.cpp:156] Memory required for data: 86016
I0924 04:19:49.964870 28122 layer_factory.hpp:77] Creating layer lstm1_
I0924 04:19:49.964901 28122 net.cpp:91] Creating Layer lstm1_
I0924 04:19:49.964918 28122 net.cpp:425] lstm1_ <- c_1
I0924 04:19:49.964943 28122 net.cpp:399] lstm1_ -> c_T
I0924 04:19:49.965049 28122 net.cpp:141] Setting up lstm1_
I0924 04:19:49.965075 28122 net.cpp:148] Top shape: 1 1 1000 (1000)
I0924 04:19:49.965090 28122 net.cpp:156] Memory required for data: 90016
I0924 04:19:49.965103 28122 layer_factory.hpp:77] Creating layer lstm1_h_concat
I0924 04:19:49.965126 28122 net.cpp:91] Creating Layer lstm1_h_concat
I0924 04:19:49.965143 28122 net.cpp:425] lstm1_h_concat <- h_1
I0924 04:19:49.965170 28122 net.cpp:399] lstm1_h_concat -> h
I0924 04:19:49.965265 28122 net.cpp:141] Setting up lstm1_h_concat
I0924 04:19:49.965289 28122 net.cpp:148] Top shape: 1 1 1000 (1000)
I0924 04:19:49.965302 28122 net.cpp:156] Memory required for data: 94016
I0924 04:19:49.965317 28122 layer_factory.hpp:77] Creating layer h_pseudoloss
I0924 04:19:49.965350 28122 net.cpp:91] Creating Layer h_pseudoloss
I0924 04:19:49.965368 28122 net.cpp:425] h_pseudoloss <- h
I0924 04:19:49.965389 28122 net.cpp:399] h_pseudoloss -> h_pseudoloss
I0924 04:19:49.965628 28122 net.cpp:141] Setting up h_pseudoloss
…
I0924 04:19:49.965904 28122 net.cpp:219] lstm1_ does not need backward computation.
I0924 04:19:49.965916 28122 net.cpp:261] This network produces output c_T
I0924 04:19:49.965930 28122 net.cpp:261] This network produces output h_pseudoloss
I0924 04:19:49.965972 28122 net.cpp:274] Network initialization done.
I0924 04:19:49.966078 28122 recurrent_layer.cpp:150] Adding parameter 0: W_xc
I0924 04:19:49.966096 28122 recurrent_layer.cpp:150] Adding parameter 1: b_c
I0924 04:19:49.966109 28122 recurrent_layer.cpp:150] Adding parameter 2: W_hc
I0924 04:19:49.966357 28122 net.cpp:141] Setting up lstm1
I0924 04:19:49.966383 28122 net.cpp:148] Top shape: 1 1 1000 (1000)
I0924 04:19:49.966398 28122 net.cpp:156] Memory required for data: 26408
I0924 04:19:49.966434 28122 layer_factory.hpp:77] Creating layer concat
I0924 04:19:49.966461 28122 net.cpp:91] Creating Layer concat
I0924 04:19:49.966478 28122 net.cpp:425] concat <- lstm1
I0924 04:19:49.966496 28122 net.cpp:425] concat <- embedded_input_sentence
I0924 04:19:49.966513 28122 net.cpp:425] concat <- reshaped_stage_indicator
I0924 04:19:49.966534 28122 net.cpp:399] concat -> lstm1_video_sequence
I0924 04:19:49.966642 28122 net.cpp:141] Setting up concat
I0924 04:19:49.966671 28122 net.cpp:148] Top shape: 1 1 1501 (1501)
I0924 04:19:49.966686 28122 net.cpp:156] Memory required for data: 32412
I0924 04:19:49.966701 28122 layer_factory.hpp:77] Creating layer lstm2
I0924 04:19:49.966733 28122 net.cpp:91] Creating Layer lstm2
I0924 04:19:49.966750 28122 net.cpp:425] lstm2 <- lstm1_video_sequence
I0924 04:19:49.966768 28122 net.cpp:425] lstm2 <- cont_sentence_input_1_split_1
I0924 04:19:49.966794 28122 net.cpp:399] lstm2 -> lstm2
I0924 04:19:49.966823 28122 recurrent_layer.cpp:20] Initializing recurrent layer: assuming input batch contains 1 timesteps of 1 independent streams.
I0924 04:19:49.967372 28122 net.cpp:49] Initializing net from parameters: 
layer {
  name: "lstm2_"
  type: "Input"
  top: "x"
  top: "cont"
  input_param {
    shape {
      dim: 1
      dim: 1
      dim: 1501
    }
    shape {
      dim: 1
      dim: 1
    }
  }
}
layer {
  name: "lstm2_"
  type: "Input"
  top: "c_0"
  top: "h_0"
  input_param {
    shape {
      dim: 1
      dim: 1
      dim: 1000
    }
    shape {
      dim: 1
      dim: 1
      dim: 1000
    }
  }
}
layer {
  name: "lstm2_cont_slice"
  type: "Slice"
  bottom: "cont"
  top: "cont_1"
  slice_param {
    axis: 0
  }
}
layer {
  name: "lstm2_x_transform"
  type: "InnerProduct"
  bottom: "x"
  top: "W_xc_x"
  param {
    name: "W_xc"
  }
  param {
    name: "b_c"
  }
  propagate_down: true
  inner_product_param {
    num_output: 4000
    bias_term: true
    weight_filler {
      type: "uniform"
      min: -0.08
      max: 0.08
    }
    bias_filler {
      type: "constant"
      value: 0
    }
    axis: 2
  }
}
layer {
  name: "lstm2_W_xc_x_slice"
  type: "Slice"
  bottom: "W_xc_x"
  top: "W_xc_x_1"
  slice_param {
    axis: 0
  }
}
layer {
  name: "lstm2_h_conted_0"
  type: "Scale"
  bottom: "h_0"
  bottom: "cont_1"
  top: "h_conted_0"
  scale_param {
    axis: 0
  }
}
layer {
  name: "lstm2_transform_1"
  type: "InnerProduct"
  bottom: "h_conted_0"
  top: "W_hc_h_0"
  param {
    name: "W_hc"
  }
  inner_product_param {
    num_output: 4000
    bias_term: false
    weight_filler {
      type: "uniform"
      min: -0.08
      max: 0.08
    }
    axis: 2
  }
}
layer {
  name: "lstm2_gate_input_1"
  type: "Eltwise"
  bottom: "W_hc_h_0"
  bottom: "W_xc_x_1"
  top: "gate_input_1"
  eltwise_param {
    operation: SUM
  }
}
layer {
  name: "lstm2_unit_1"
  type: "LSTMUnit"
  bottom: "c_0"
  bottom: "gate_input_1"
  bottom: "cont_1"
  top: "c_1"
  top: "h_1"
}
layer {
  name: "lstm2_"
  type: "Split"
  bottom: "c_1"
  top: "c_T"
}
layer {
  name: "lstm2_h_concat"
  type: "Concat"
  bottom: "h_1"
  top: "h"
  concat_param {
    axis: 0
  }
}
layer {
  name: "h_pseudoloss"
  type: "Reduction"
  bottom: "h"
  top: "h_pseudoloss"
  loss_weight: 1
}
I0924 04:19:49.967571 28122 layer_factory.hpp:77] Creating layer lstm2_
I0924 04:19:49.967605 28122 net.cpp:91] Creating Layer lstm2_
I0924 04:19:49.967625 28122 net.cpp:399] lstm2_ -> x
I0924 04:19:49.967656 28122 net.cpp:399] lstm2_ -> cont
I0924 04:19:49.967808 28122 net.cpp:141] Setting up lstm2_
I0924 04:19:49.967835 28122 net.cpp:148] Top shape: 1 1 1501 (1501)
I0924 04:19:49.967855 28122 net.cpp:148] Top shape: 1 1 (1)
I0924 04:19:49.967869 28122 net.cpp:156] Memory required for data: 6008
I0924 04:19:49.967885 28122 layer_factory.hpp:77] Creating layer lstm2_
I0924 04:19:49.967910 28122 net.cpp:91] Creating Layer lstm2_
I0924 04:19:49.967941 28122 net.cpp:399] lstm2_ -> c_0
I0924 04:19:49.967965 28122 net.cpp:399] lstm2_ -> h_0
I0924 04:19:49.968042 28122 net.cpp:141] Setting up lstm2_
I0924 04:19:49.968056 28122 net.cpp:148] Top shape: 1 1 1000 (1000)
I0924 04:19:49.968065 28122 net.cpp:148] Top shape: 1 1 1000 (1000)
I0924 04:19:49.968071 28122 net.cpp:156] Memory required for data: 14008
I0924 04:19:49.968078 28122 layer_factory.hpp:77] Creating layer lstm2_cont_slice
I0924 04:19:49.968097 28122 net.cpp:91] Creating Layer lstm2_cont_slice
I0924 04:19:49.968106 28122 net.cpp:425] lstm2_cont_slice <- cont
I0924 04:19:49.968116 28122 net.cpp:399] lstm2_cont_slice -> cont_1
I0924 04:19:49.968163 28122 net.cpp:141] Setting up lstm2_cont_slice
I0924 04:19:49.968176 28122 net.cpp:148] Top shape: 1 1 (1)
I0924 04:19:49.968183 28122 net.cpp:156] Memory required for data: 14012
I0924 04:19:49.968189 28122 layer_factory.hpp:77] Creating layer cont_1_lstm2_cont_slice_0_split
I0924 04:19:49.968201 28122 net.cpp:91] Creating Layer cont_1_lstm2_cont_slice_0_split
I0924 04:19:49.968209 28122 net.cpp:425] cont_1_lstm2_cont_slice_0_split <- cont_1
I0924 04:19:49.968225 28122 net.cpp:399] cont_1_lstm2_cont_slice_0_split -> cont_1_lstm2_cont_slice_0_split_0
I0924 04:19:49.968238 28122 net.cpp:399] cont_1_lstm2_cont_slice_0_split -> cont_1_lstm2_cont_slice_0_split_1
I0924 04:19:49.968307 28122 net.cpp:141] Setting up cont_1_lstm2_cont_slice_0_split
I0924 04:19:49.968322 28122 net.cpp:148] Top shape: 1 1 (1)
I0924 04:19:49.968332 28122 net.cpp:148] Top shape: 1 1 (1)
I0924 04:19:49.968338 28122 net.cpp:156] Memory required for data: 14020
I0924 04:19:49.968345 28122 layer_factory.hpp:77] Creating layer lstm2_x_transform
I0924 04:19:49.968363 28122 net.cpp:91] Creating Layer lstm2_x_transform
I0924 04:19:49.968369 28122 net.cpp:425] lstm2_x_transform <- x
I0924 04:19:49.968381 28122 net.cpp:399] lstm2_x_transform -> W_xc_x
I0924 04:19:49.983806 28156 net.cpp:141] Setting up lstm1_transform_1
I0924 04:19:49.983862 28156 net.cpp:148] Top shape: 1 1 4000 (4000)
I0924 04:19:49.983872 28156 net.cpp:156] Memory required for data: 62016
I0924 04:19:49.983901 28156 layer_factory.hpp:77] Creating layer lstm1_gate_input_1
I0924 04:19:49.983928 28156 net.cpp:91] Creating Layer lstm1_gate_input_1
I0924 04:19:49.983938 28156 net.cpp:425] lstm1_gate_input_1 <- W_hc_h_0
I0924 04:19:49.983950 28156 net.cpp:425] lstm1_gate_input_1 <- W_xc_x_1
I0924 04:19:49.983964 28156 net.cpp:399] lstm1_gate_input_1 -> gate_input_1
I0924 04:19:49.984046 28156 net.cpp:141] Setting up lstm1_gate_input_1
I0924 04:19:49.984060 28156 net.cpp:148] Top shape: 1 1 4000 (4000)
I0924 04:19:49.984066 28156 net.cpp:156] Memory required for data: 78016
I0924 04:19:49.984074 28156 layer_factory.hpp:77] Creating layer lstm1_unit_1
I0924 04:19:49.984087 28156 net.cpp:91] Creating Layer lstm1_unit_1
I0924 04:19:49.984096 28156 net.cpp:425] lstm1_unit_1 <- c_0
I0924 04:19:49.984105 28156 net.cpp:425] lstm1_unit_1 <- gate_input_1
I0924 04:19:49.984113 28156 net.cpp:425] lstm1_unit_1 <- cont_1_lstm1_cont_slice_0_split_1
I0924 04:19:49.984124 28156 net.cpp:399] lstm1_unit_1 -> c_1
I0924 04:19:49.984139 28156 net.cpp:399] lstm1_unit_1 -> h_1
I0924 04:19:49.984151 28104 net.cpp:141] Setting up lstm1_transform_1
I0924 04:19:49.984174 28104 net.cpp:148] Top shape: 1 1 4000 (4000)
I0924 04:19:49.984182 28104 net.cpp:156] Memory required for data: 62016
I0924 04:19:49.984200 28104 layer_factory.hpp:77] Creating layer lstm1_gate_input_1
I0924 04:19:49.984220 28104 net.cpp:91] Creating Layer lstm1_gate_input_1
I0924 04:19:49.984230 28104 net.cpp:425] lstm1_gate_input_1 <- W_hc_h_0
I0924 04:19:49.984230 28156 net.cpp:141] Setting up lstm1_unit_1
I0924 04:19:49.984244 28156 net.cpp:148] Top shape: 1 1 1000 (1000)
I0924 04:19:49.984242 28104 net.cpp:425] lstm1_gate_input_1 <- W_xc_x_1
I0924 04:19:49.984253 28156 net.cpp:148] Top shape: 1 1 1000 (1000)
I0924 04:19:49.984261 28156 net.cpp:156] Memory required for data: 86016
I0924 04:19:49.984261 28104 net.cpp:399] lstm1_gate_input_1 -> gate_input_1
I0924 04:19:49.984268 28156 layer_factory.hpp:77] Creating layer lstm1_
I0924 04:19:49.984282 28156 net.cpp:91] Creating Layer lstm1_
I0924 04:19:49.984288 28156 net.cpp:425] lstm1_ <- c_1
I0924 04:19:49.984300 28156 net.cpp:399] lstm1_ -> c_T
I0924 04:19:49.986877 28104 net.cpp:141] Setting up lstm1_gate_input_1
I0924 04:19:49.986898 28104 net.cpp:148] Top shape: 1 1 4000 (4000)
I0924 04:19:49.986906 28104 net.cpp:156] Memory required for data: 78016
I0924 04:19:49.986913 28104 layer_factory.hpp:77] Creating layer lstm1_unit_1
I0924 04:19:49.987203 28104 net.cpp:91] Creating Layer lstm1_unit_1
I0924 04:19:49.987224 28104 net.cpp:425] lstm1_unit_1 <- c_0
I0924 04:19:49.987236 28104 net.cpp:425] lstm1_unit_1 <- gate_input_1
I0924 04:19:49.987247 28104 net.cpp:425] lstm1_unit_1 <- cont_1_lstm1_cont_slice_0_split_1
I0924 04:19:49.987262 28104 net.cpp:399] lstm1_unit_1 -> c_1
I0924 04:19:49.987279 28104 net.cpp:399] lstm1_unit_1 -> h_1
I0924 04:19:49.987618 28100 net.cpp:141] Setting up lstm1_transform_1
I0924 04:19:49.987637 28100 net.cpp:148] Top shape: 1 1 4000 (4000)
I0924 04:19:49.987643 28100 net.cpp:156] Memory required for data: 62016
I0924 04:19:49.987656 28100 layer_factory.hpp:77] Creating layer lstm1_gate_input_1
I0924 04:19:49.987701 28100 net.cpp:91] Creating Layer lstm1_gate_input_1
I0924 04:19:49.987710 28100 net.cpp:425] lstm1_gate_input_1 <- W_hc_h_0
I0924 04:19:49.987720 28100 net.cpp:425] lstm1_gate_input_1 <- W_xc_x_1
I0924 04:19:49.987727 28100 net.cpp:399] lstm1_gate_input_1 -> gate_input_1
I0924 04:19:49.987752 28134 net.cpp:141] Setting up lstm1_cont_slice
I0924 04:19:49.987788 28148 net.cpp:141] Setting up lstm1_transform_1
I0924 04:19:49.987797 28134 net.cpp:148] Top shape: 1 1 (1)
I0924 04:19:49.987812 28134 net.cpp:156] Memory required for data: 10008
I0924 04:19:49.987815 28148 net.cpp:148] Top shape: 1 1 4000 (4000)
I0924 04:19:49.987820 28134 layer_factory.hpp:77] Creating layer cont_1_lstm1_cont_slice_0_split
I0924 04:19:49.987824 28148 net.cpp:156] Memory required for data: 62016
I0924 04:19:49.987835 28156 net.cpp:141] Setting up lstm1_
I0924 04:19:49.987848 28148 layer_factory.hpp:77] Creating layer lstm1_gate_input_1
I0924 04:19:49.987854 28156 net.cpp:148] Top shape: 1 1 1000 (1000)
I0924 04:19:49.987848 28134 net.cpp:91] Creating Layer cont_1_lstm1_cont_slice_0_split
I0924 04:19:49.987861 28156 net.cpp:156] Memory required for data: 90016
I0924 04:19:49.987865 28134 net.cpp:425] cont_1_lstm1_cont_slice_0_split <- cont_1
I0924 04:19:49.987867 28156 layer_factory.hpp:77] Creating layer lstm1_h_concat
I0924 04:19:49.987870 28148 net.cpp:91] Creating Layer lstm1_gate_input_1
I0924 04:19:49.987876 28134 net.cpp:399] cont_1_lstm1_cont_slice_0_split -> cont_1_lstm1_cont_slice_0_split_0
I0924 04:19:49.987880 28156 net.cpp:91] Creating Layer lstm1_h_concat
I0924 04:19:49.987890 28134 net.cpp:399] cont_1_lstm1_cont_slice_0_split -> cont_1_lstm1_cont_slice_0_split_1
I0924 04:19:49.987895 28156 net.cpp:425] lstm1_h_concat <- h_1
I0924 04:19:49.987880 28148 net.cpp:425] lstm1_gate_input_1 <- W_hc_h_0
I0924 04:19:49.987905 28156 net.cpp:399] lstm1_h_concat -> h
I0924 04:19:49.987908 28148 net.cpp:425] lstm1_gate_input_1 <- W_xc_x_1
I0924 04:19:49.987926 28148 net.cpp:399] lstm1_gate_input_1 -> gate_input_1
I0924 04:19:49.988185 28134 net.cpp:141] Setting up cont_1_lstm1_cont_slice_0_split
I0924 04:19:49.988196 28134 net.cpp:148] Top shape: 1 1 (1)
I0924 04:19:49.988204 28134 net.cpp:148] Top shape: 1 1 (1)
I0924 04:19:49.988207 28134 net.cpp:156] Memory required for data: 10016
I0924 04:19:49.988214 28134 layer_factory.hpp:77] Creating layer lstm1_x_transform
I0924 04:19:49.988229 28134 net.cpp:91] Creating Layer lstm1_x_transform
I0924 04:19:49.988234 28134 net.cpp:425] lstm1_x_transform <- x
I0924 04:19:49.988257 28134 net.cpp:399] lstm1_x_transform -> W_xc_x
…
I0924 04:20:40.953528 28478 net.cpp:148] Top shape: 1 1 (1)
I0924 04:20:40.953538 28478 net.cpp:148] Top shape: 1 1 (1)
I0924 04:20:40.953546 28478 net.cpp:156] Memory required for data: 14020
I0924 04:20:40.953552 28478 layer_factory.hpp:77] Creating layer lstm2_x_transform
I0924 04:20:40.953570 28478 net.cpp:91] Creating Layer lstm2_x_transform
I0924 04:20:40.953579 28478 net.cpp:425] lstm2_x_transform <- x
I0924 04:20:40.953591 28478 net.cpp:399] lstm2_x_transform -> W_xc_x
I0924 04:20:40.993500 28512 net.cpp:141] Setting up lstm2_transform_1
I0924 04:20:40.993546 28534 net.cpp:141] Setting up lstm2_transform_1
I0924 04:20:40.993561 28512 net.cpp:148] Top shape: 1 1 4000 (4000)
I0924 04:20:40.993567 28534 net.cpp:148] Top shape: 1 1 4000 (4000)
I0924 04:20:40.993571 28512 net.cpp:156] Memory required for data: 66020
I0924 04:20:40.993576 28534 net.cpp:156] Memory required for data: 66020
I0924 04:20:40.993600 28512 layer_factory.hpp:77] Creating layer lstm2_gate_input_1
I0924 04:20:40.993600 28534 layer_factory.hpp:77] Creating layer lstm2_gate_input_1
I0924 04:20:40.993644 28512 net.cpp:91] Creating Layer lstm2_gate_input_1
I0924 04:20:40.993644 28534 net.cpp:91] Creating Layer lstm2_gate_input_1
I0924 04:20:40.993666 28512 net.cpp:425] lstm2_gate_input_1 <- W_hc_h_0
I0924 04:20:40.993670 28534 net.cpp:425] lstm2_gate_input_1 <- W_hc_h_0
I0924 04:20:40.993677 28512 net.cpp:425] lstm2_gate_input_1 <- W_xc_x_1
I0924 04:20:40.993681 28534 net.cpp:425] lstm2_gate_input_1 <- W_xc_x_1
I0924 04:20:40.993690 28512 net.cpp:399] lstm2_gate_input_1 -> gate_input_1
I0924 04:20:40.993695 28534 net.cpp:399] lstm2_gate_input_1 -> gate_input_1
I0924 04:20:40.995085 28512 net.cpp:141] Setting up lstm2_gate_input_1
I0924 04:20:40.995101 28512 net.cpp:148] Top shape: 1 1 4000 (4000)
I0924 04:20:40.995108 28512 net.cpp:156] Memory required for data: 82020
I0924 04:20:40.995115 28512 layer_factory.hpp:77] Creating layer lstm2_unit_1
I0924 04:20:40.995128 28512 net.cpp:91] Creating Layer lstm2_unit_1
I0924 04:20:40.995136 28512 net.cpp:425] lstm2_unit_1 <- c_0
I0924 04:20:40.995146 28512 net.cpp:425] lstm2_unit_1 <- gate_input_1
I0924 04:20:40.995154 28512 net.cpp:425] lstm2_unit_1 <- cont_1_lstm2_cont_slice_0_split_1
I0924 04:20:40.995165 28512 net.cpp:399] lstm2_unit_1 -> c_1
I0924 04:20:40.995168 28534 net.cpp:141] Setting up lstm2_gate_input_1
I0924 04:20:40.995179 28512 net.cpp:399] lstm2_unit_1 -> h_1
I0924 04:20:40.995184 28534 net.cpp:148] Top shape: 1 1 4000 (4000)
I0924 04:20:40.995193 28534 net.cpp:156] Memory required for data: 82020
I0924 04:20:40.995199 28534 layer_factory.hpp:77] Creating layer lstm2_unit_1
I0924 04:20:40.995211 28534 net.cpp:91] Creating Layer lstm2_unit_1
I0924 04:20:40.995218 28534 net.cpp:425] lstm2_unit_1 <- c_0
I0924 04:20:40.995229 28534 net.cpp:425] lstm2_unit_1 <- gate_input_1
I0924 04:20:40.995237 28534 net.cpp:425] lstm2_unit_1 <- cont_1_lstm2_cont_slice_0_split_1
I0924 04:20:40.995246 28534 net.cpp:399] lstm2_unit_1 -> c_1
I0924 04:20:40.995260 28534 net.cpp:399] lstm2_unit_1 -> h_1
I0924 04:20:40.996676 28512 net.cpp:141] Setting up lstm2_unit_1
I0924 04:20:40.996690 28512 net.cpp:148] Top shape: 1 1 1000 (1000)
I0924 04:20:40.996700 28512 net.cpp:148] Top shape: 1 1 1000 (1000)
I0924 04:20:40.996706 28512 net.cpp:156] Memory required for data: 90020
I0924 04:20:40.996712 28512 layer_factory.hpp:77] Creating layer lstm2_
I0924 04:20:40.996724 28512 net.cpp:91] Creating Layer lstm2_
I0924 04:20:40.996731 28512 net.cpp:425] lstm2_ <- c_1
I0924 04:20:40.996742 28512 net.cpp:399] lstm2_ -> c_T
I0924 04:20:40.996788 28512 net.cpp:141] Setting up lstm2_
I0924 04:20:40.996800 28512 net.cpp:148] Top shape: 1 1 1000 (1000)
I0924 04:20:40.996806 28512 net.cpp:156] Memory required for data: 94020
I0924 04:20:40.996814 28512 layer_factory.hpp:77] Creating layer lstm2_h_concat
I0924 04:20:40.996842 28512 net.cpp:91] Creating Layer lstm2_h_concat
I0924 04:20:40.996850 28512 net.cpp:425] lstm2_h_concat <- h_1
I0924 04:20:40.996860 28512 net.cpp:399] lstm2_h_concat -> h
I0924 04:20:40.996912 28512 net.cpp:141] Setting up lstm2_h_concat
I0924 04:20:40.996924 28512 net.cpp:148] Top shape: 1 1 1000 (1000)
I0924 04:20:40.996932 28512 net.cpp:156] Memory required for data: 98020
I0924 04:20:40.996937 28512 layer_factory.hpp:77] Creating layer h_pseudoloss
I0924 04:20:40.996949 28512 net.cpp:91] Creating Layer h_pseudoloss
I0924 04:20:40.996956 28512 net.cpp:425] h_pseudoloss <- h
I0924 04:20:40.996966 28512 net.cpp:399] h_pseudoloss -> h_pseudoloss
I0924 04:20:40.997090 28512 net.cpp:141] Setting up h_pseudoloss
…
I0924 04:20:40.997229 28512 net.cpp:219] lstm2_ does not need backward computation.
I0924 04:20:40.997236 28512 net.cpp:261] This network produces output c_T
I0924 04:20:40.997242 28512 net.cpp:261] This network produces output h_pseudoloss
I0924 04:20:40.997264 28512 net.cpp:274] Network initialization done.
I0924 04:20:40.997333 28512 recurrent_layer.cpp:150] Adding parameter 0: W_xc
I0924 04:20:40.997341 28512 recurrent_layer.cpp:150] Adding parameter 1: b_c
I0924 04:20:40.997347 28512 recurrent_layer.cpp:150] Adding parameter 2: W_hc
I0924 04:20:40.997490 28512 net.cpp:141] Setting up lstm2
I0924 04:20:40.997505 28512 net.cpp:148] Top shape: 1 1 1000 (1000)
I0924 04:20:40.997512 28512 net.cpp:156] Memory required for data: 36412
I0924 04:20:40.997534 28512 layer_factory.hpp:77] Creating layer predict
I0924 04:20:40.997551 28512 net.cpp:91] Creating Layer predict
I0924 04:20:40.997560 28512 net.cpp:425] predict <- lstm2
I0924 04:20:40.997571 28512 net.cpp:399] predict -> predict
I0924 04:20:41.080540 28500 net.cpp:141] Setting up lstm2_x_transform
I0924 04:20:41.080595 28500 net.cpp:148] Top shape: 1 1 4000 (4000)
I0924 04:20:41.080605 28500 net.cpp:156] Memory required for data: 30020
I0924 04:20:41.080632 28500 layer_factory.hpp:77] Creating layer lstm2_W_xc_x_slice
I0924 04:20:41.080653 28500 net.cpp:91] Creating Layer lstm2_W_xc_x_slice
I0924 04:20:41.080665 28500 net.cpp:425] lstm2_W_xc_x_slice <- W_xc_x
I0924 04:20:41.080685 28500 net.cpp:399] lstm2_W_xc_x_slice -> W_xc_x_1
I0924 04:20:41.080751 28500 net.cpp:141] Setting up lstm2_W_xc_x_slice
I0924 04:20:41.080767 28500 net.cpp:148] Top shape: 1 1 4000 (4000)
I0924 04:20:41.080775 28500 net.cpp:156] Memory required for data: 46020
I0924 04:20:41.080781 28500 layer_factory.hpp:77] Creating layer lstm2_h_conted_0
I0924 04:20:41.080798 28500 net.cpp:91] Creating Layer lstm2_h_conted_0
I0924 04:20:41.080806 28500 net.cpp:425] lstm2_h_conted_0 <- h_0
I0924 04:20:41.080816 28500 net.cpp:425] lstm2_h_conted_0 <- cont_1_lstm2_cont_slice_0_split_0
I0924 04:20:41.080826 28500 net.cpp:399] lstm2_h_conted_0 -> h_conted_0
I0924 04:20:41.081972 28500 net.cpp:141] Setting up lstm2_h_conted_0
I0924 04:20:41.082027 28500 net.cpp:148] Top shape: 1 1 1000 (1000)
I0924 04:20:41.082037 28500 net.cpp:156] Memory required for data: 50020
I0924 04:20:41.082049 28500 layer_factory.hpp:77] Creating layer lstm2_transform_1
I0924 04:20:41.082077 28500 net.cpp:91] Creating Layer lstm2_transform_1
I0924 04:20:41.082087 28500 net.cpp:425] lstm2_transform_1 <- h_conted_0
I0924 04:20:41.082809 28500 net.cpp:399] lstm2_transform_1 -> W_hc_h_0
I0924 04:20:41.082857 28526 net.cpp:141] Setting up lstm2_transform_1
I0924 04:20:41.082880 28526 net.cpp:148] Top shape: 1 1 4000 (4000)
I0924 04:20:41.082888 28526 net.cpp:156] Memory required for data: 66020
I0924 04:20:41.082908 28526 layer_factory.hpp:77] Creating layer lstm2_gate_input_1
I0924 04:20:41.082931 28526 net.cpp:91] Creating Layer lstm2_gate_input_1
I0924 04:20:41.082942 28526 net.cpp:425] lstm2_gate_input_1 <- W_hc_h_0
I0924 04:20:41.082952 28526 net.cpp:425] lstm2_gate_input_1 <- W_xc_x_1
I0924 04:20:41.082964 28526 net.cpp:399] lstm2_gate_input_1 -> gate_input_1
I0924 04:20:41.082962 28506 net.cpp:141] Setting up lstm2_transform_1
I0924 04:20:41.083001 28506 net.cpp:148] Top shape: 1 1 4000 (4000)
I0924 04:20:41.083009 28506 net.cpp:156] Memory required for data: 66020
I0924 04:20:41.083166 28478 net.cpp:141] Setting up lstm2_x_transform
I0924 04:20:41.083189 28478 net.cpp:148] Top shape: 1 1 4000 (4000)
I0924 04:20:41.083197 28478 net.cpp:156] Memory required for data: 30020
I0924 04:20:41.083217 28478 layer_factory.hpp:77] Creating layer lstm2_W_xc_x_slice
I0924 04:20:41.083237 28478 net.cpp:91] Creating Layer lstm2_W_xc_x_slice
I0924 04:20:41.083248 28478 net.cpp:425] lstm2_W_xc_x_slice <- W_xc_x
I0924 04:20:41.083261 28478 net.cpp:399] lstm2_W_xc_x_slice -> W_xc_x_1
I0924 04:20:41.083323 28478 net.cpp:141] Setting up lstm2_W_xc_x_slice
I0924 04:20:41.083336 28478 net.cpp:148] Top shape: 1 1 4000 (4000)
I0924 04:20:41.083343 28478 net.cpp:156] Memory required for data: 46020
I0924 04:20:41.083351 28478 layer_factory.hpp:77] Creating layer lstm2_h_conted_0
I0924 04:20:41.083369 28478 net.cpp:91] Creating Layer lstm2_h_conted_0
I0924 04:20:41.083379 28478 net.cpp:425] lstm2_h_conted_0 <- h_0
I0924 04:20:41.083389 28478 net.cpp:425] lstm2_h_conted_0 <- cont_1_lstm2_cont_slice_0_split_0
I0924 04:20:41.083400 28478 net.cpp:399] lstm2_h_conted_0 -> h_conted_0
I0924 04:20:41.083545 28478 net.cpp:141] Setting up lstm2_h_conted_0
I0924 04:20:41.083560 28478 net.cpp:148] Top shape: 1 1 1000 (1000)
I0924 04:20:41.083567 28478 net.cpp:156] Memory required for data: 50020
I0924 04:20:41.083575 28478 layer_factory.hpp:77] Creating layer lstm2_transform_1
I0924 04:20:41.083596 28478 net.cpp:91] Creating Layer lstm2_transform_1
I0924 04:20:41.083605 28478 net.cpp:425] lstm2_transform_1 <- h_conted_0
I0924 04:20:41.083617 28478 net.cpp:399] lstm2_transform_1 -> W_hc_h_0
I0924 04:20:41.083920 28506 layer_factory.hpp:77] Creating layer lstm2_gate_input_1
I0924 04:20:41.083956 28506 net.cpp:91] Creating Layer lstm2_gate_input_1
I0924 04:20:41.083967 28506 net.cpp:425] lstm2_gate_input_1 <- W_hc_h_0
I0924 04:20:41.083979 28506 net.cpp:425] lstm2_gate_input_1 <- W_xc_x_1
I0924 04:20:41.083992 28506 net.cpp:399] lstm2_gate_input_1 -> gate_input_1
I0924 04:20:41.089144 28526 net.cpp:141] Setting up lstm2_gate_input_1
I0924 04:20:41.089202 28526 net.cpp:148] Top shape: 1 1 4000 (4000)
I0924 04:20:41.089212 28526 net.cpp:156] Memory required for data: 82020
I0924 04:20:41.089226 28526 layer_factory.hpp:77] Creating layer lstm2_unit_1
I0924 04:20:41.089248 28526 net.cpp:91] Creating Layer lstm2_unit_1
I0924 04:20:41.089260 28526 net.cpp:425] lstm2_unit_1 <- c_0
I0924 04:20:41.089275 28526 net.cpp:425] lstm2_unit_1 <- gate_input_1
I0924 04:20:41.089285 28526 net.cpp:425] lstm2_unit_1 <- cont_1_lstm2_cont_slice_0_split_1
I0924 04:20:41.089303 28526 net.cpp:399] lstm2_unit_1 -> c_1
I0924 04:20:41.089323 28526 net.cpp:399] lstm2_unit_1 -> h_1
I0924 04:20:41.100057 28534 net.cpp:141] Setting up lstm2_unit_1
I0924 04:20:41.100116 28534 net.cpp:148] Top shape: 1 1 1000 (1000)
I0924 04:20:41.100128 28534 net.cpp:148] Top shape: 1 1 1000 (1000)
I0924 04:20:41.100136 28534 net.cpp:156] Memory required for data: 90020
I0924 04:20:41.100148 28534 layer_factory.hpp:77] Creating layer lstm2_
I0924 04:20:41.100168 28534 net.cpp:91] Creating Layer lstm2_
I0924 04:20:41.100179 28534 net.cpp:425] lstm2_ <- c_1
I0924 04:20:41.100198 28534 net.cpp:399] lstm2_ -> c_T
I0924 04:20:41.103675 28506 net.cpp:141] Setting up lstm2_gate_input_1
I0924 04:20:41.103715 28534 net.cpp:141] Setting up lstm2_
I0924 04:20:41.103729 28506 net.cpp:148] Top shape: 1 1 4000 (4000)
I0924 04:20:41.103736 28534 net.cpp:148] Top shape: 1 1 1000 (1000)
I0924 04:20:41.103739 28506 net.cpp:156] Memory required for data: 82020
I0924 04:20:41.103744 28534 net.cpp:156] Memory required for data: 94020
I0924 04:20:41.103751 28506 layer_factory.hpp:77] Creating layer lstm2_unit_1
I0924 04:20:41.103754 28534 layer_factory.hpp:77] Creating layer lstm2_h_concat
I0924 04:20:41.103775 28506 net.cpp:91] Creating Layer lstm2_unit_1
I0924 04:20:41.103785 28506 net.cpp:425] lstm2_unit_1 <- c_0
I0924 04:20:41.103803 28506 net.cpp:425] lstm2_unit_1 <- gate_input_1
I0924 04:20:41.103809 28534 net.cpp:91] Creating Layer lstm2_h_concat
I0924 04:20:41.103814 28506 net.cpp:425] lstm2_unit_1 <- cont_1_lstm2_cont_slice_0_split_1
I0924 04:20:41.103821 28534 net.cpp:425] lstm2_h_concat <- h_1
I0924 04:20:41.103827 28506 net.cpp:399] lstm2_unit_1 -> c_1
I0924 04:20:41.103834 28534 net.cpp:399] lstm2_h_concat -> h
I0924 04:20:41.103849 28506 net.cpp:399] lstm2_unit_1 -> h_1
I0924 04:20:41.103926 28534 net.cpp:141] Setting up lstm2_h_concat
I0924 04:20:41.103940 28534 net.cpp:148] Top shape: 1 1 1000 (1000)
I0924 04:20:41.103948 28534 net.cpp:156] Memory required for data: 98020
I0924 04:20:41.103956 28534 layer_factory.hpp:77] Creating layer h_pseudoloss
I0924 04:20:41.103971 28534 net.cpp:91] Creating Layer h_pseudoloss
I0924 04:20:41.103977 28534 net.cpp:425] h_pseudoloss <- h
I0924 04:20:41.103991 28534 net.cpp:399] h_pseudoloss -> h_pseudoloss
I0924 04:20:41.103991 28526 net.cpp:141] Setting up lstm2_unit_1
I0924 04:20:41.104012 28526 net.cpp:148] Top shape: 1 1 1000 (1000)
I0924 04:20:41.104027 28526 net.cpp:148] Top shape: 1 1 1000 (1000)
I0924 04:20:41.104034 28526 net.cpp:156] Memory required for data: 90020
I0924 04:20:41.104044 28526 layer_factory.hpp:77] Creating layer lstm2_
I0924 04:20:41.104060 28526 net.cpp:91] Creating Layer lstm2_
I0924 04:20:41.104073 28526 net.cpp:425] lstm2_ <- c_1
I0924 04:20:41.104087 28526 net.cpp:399] lstm2_ -> c_T
I0924 04:20:41.104163 28526 net.cpp:141] Setting up lstm2_
I0924 04:20:41.104182 28526 net.cpp:148] Top shape: 1 1 1000 (1000)
I0924 04:20:41.104189 28526 net.cpp:156] Memory required for data: 94020
I0924 04:20:41.104198 28526 layer_factory.hpp:77] Creating layer lstm2_h_concat
I0924 04:20:41.104219 28526 net.cpp:91] Creating Layer lstm2_h_concat
I0924 04:20:41.104238 28526 net.cpp:425] lstm2_h_concat <- h_1
I0924 04:20:41.104254 28526 net.cpp:399] lstm2_h_concat -> h
I0924 04:20:41.104276 28482 net.cpp:141] Setting up predict
I0924 04:20:41.104317 28482 net.cpp:148] Top shape: 1 1 46168 (46168)
I0924 04:20:41.104326 28482 net.cpp:156] Memory required for data: 221084
I0924 04:20:41.104338 28526 net.cpp:141] Setting up lstm2_h_concat
I0924 04:20:41.104346 28482 layer_factory.hpp:77] Creating layer probs
I0924 04:20:41.104357 28526 net.cpp:148] Top shape: 1 1 1000 (1000)
I0924 04:20:41.104367 28482 net.cpp:91] Creating Layer probs
I0924 04:20:41.104368 28526 net.cpp:156] Memory required for data: 98020
I0924 04:20:41.104377 28482 net.cpp:425] probs <- predict
I0924 04:20:41.104379 28526 layer_factory.hpp:77] Creating layer h_pseudoloss
I0924 04:20:41.104392 28482 net.cpp:399] probs -> probs
I0924 04:20:41.104395 28526 net.cpp:91] Creating Layer h_pseudoloss
…
I0924 04:20:41.186151 28534 net.cpp:219] lstm2_ does not need backward computation.
I0924 04:20:41.186156 28534 net.cpp:261] This network produces output c_T
I0924 04:20:41.186162 28534 net.cpp:261] This network produces output h_pseudoloss
I0924 04:20:41.186179 28534 net.cpp:274] Network initialization done.
I0924 04:20:41.186252 28534 recurrent_layer.cpp:150] Adding parameter 0: W_xc
I0924 04:20:41.186262 28534 recurrent_layer.cpp:150] Adding parameter 1: b_c
I0924 04:20:41.186267 28534 recurrent_layer.cpp:150] Adding parameter 2: W_hc
I0924 04:20:41.195670 28478 net.cpp:141] Setting up lstm2_transform_1
I0924 04:20:41.195732 28478 net.cpp:148] Top shape: 1 1 4000 (4000)
I0924 04:20:41.195742 28478 net.cpp:156] Memory required for data: 66020
I0924 04:20:41.196017 28506 net.cpp:141] Setting up lstm2_unit_1
I0924 04:20:41.196038 28506 net.cpp:148] Top shape: 1 1 1000 (1000)
I0924 04:20:41.196048 28506 net.cpp:148] Top shape: 1 1 1000 (1000)
I0924 04:20:41.196055 28506 net.cpp:156] Memory required for data: 90020
I0924 04:20:41.196066 28506 layer_factory.hpp:77] Creating layer lstm2_
I0924 04:20:41.196089 28506 net.cpp:91] Creating Layer lstm2_
I0924 04:20:41.196100 28506 net.cpp:425] lstm2_ <- c_1
I0924 04:20:41.196113 28506 net.cpp:399] lstm2_ -> c_T
I0924 04:20:41.196156 28534 net.cpp:141] Setting up lstm2
I0924 04:20:41.196223 28534 net.cpp:148] Top shape: 1 1 1000 (1000)
I0924 04:20:41.196238 28534 net.cpp:156] Memory required for data: 36412
I0924 04:20:41.196249 28506 net.cpp:141] Setting up lstm2_
I0924 04:20:41.196264 28506 net.cpp:148] Top shape: 1 1 1000 (1000)
I0924 04:20:41.196271 28506 net.cpp:156] Memory required for data: 94020
I0924 04:20:41.196280 28506 layer_factory.hpp:77] Creating layer lstm2_h_concat
I0924 04:20:41.196279 28534 layer_factory.hpp:77] Creating layer predict
I0924 04:20:41.196295 28506 net.cpp:91] Creating Layer lstm2_h_concat
I0924 04:20:41.196303 28506 net.cpp:425] lstm2_h_concat <- h_1
I0924 04:20:41.196316 28534 net.cpp:91] Creating Layer predict
I0924 04:20:41.196319 28506 net.cpp:399] lstm2_h_concat -> h
I0924 04:20:41.196346 28534 net.cpp:425] predict <- lstm2
I0924 04:20:41.196372 28534 net.cpp:399] predict -> predict
I0924 04:20:41.197185 28478 layer_factory.hpp:77] Creating layer lstm2_gate_input_1
I0924 04:20:41.197218 28478 net.cpp:91] Creating Layer lstm2_gate_input_1
I0924 04:20:41.197252 28478 net.cpp:425] lstm2_gate_input_1 <- W_hc_h_0
I0924 04:20:41.197264 28478 net.cpp:425] lstm2_gate_input_1 <- W_xc_x_1
I0924 04:20:41.197276 28478 net.cpp:399] lstm2_gate_input_1 -> gate_input_1
I0924 04:20:41.197830 28506 net.cpp:141] Setting up lstm2_h_concat
I0924 04:20:41.197851 28506 net.cpp:148] Top shape: 1 1 1000 (1000)
I0924 04:20:41.197859 28506 net.cpp:156] Memory required for data: 98020
I0924 04:20:41.197866 28506 layer_factory.hpp:77] Creating layer h_pseudoloss
I0924 04:20:41.197880 28506 net.cpp:91] Creating Layer h_pseudoloss
I0924 04:20:41.197888 28506 net.cpp:425] h_pseudoloss <- h
I0924 04:20:41.197898 28506 net.cpp:399] h_pseudoloss -> h_pseudoloss
I0924 04:20:41.198092 28486 net.cpp:141] Setting up predict
I0924 04:20:41.198129 28486 net.cpp:148] Top shape: 1 1 46168 (46168)
I0924 04:20:41.198138 28486 net.cpp:156] Memory required for data: 221084
I0924 04:20:41.198158 28486 layer_factory.hpp:77] Creating layer probs
I0924 04:20:41.198179 28486 net.cpp:91] Creating Layer probs
I0924 04:20:41.198189 28486 net.cpp:425] probs <- predict
I0924 04:20:41.198202 28486 net.cpp:399] probs -> probs
I0924 04:20:41.198343 28478 net.cpp:141] Setting up lstm2_gate_input_1
I0924 04:20:41.198362 28478 net.cpp:148] Top shape: 1 1 4000 (4000)
I0924 04:20:41.198369 28478 net.cpp:156] Memory required for data: 82020
I0924 04:20:41.198379 28478 layer_factory.hpp:77] Creating layer lstm2_unit_1
I0924 04:20:41.198398 28478 net.cpp:91] Creating Layer lstm2_unit_1
I0924 04:20:41.198406 28478 net.cpp:425] lstm2_unit_1 <- c_0
I0924 04:20:41.198417 28478 net.cpp:425] lstm2_unit_1 <- gate_input_1
I0924 04:20:41.198426 28478 net.cpp:425] lstm2_unit_1 <- cont_1_lstm2_cont_slice_0_split_1
…
I0924 04:20:41.198668 28506 net.cpp:219] lstm2_ does not need backward computation.
I0924 04:20:41.198675 28506 net.cpp:261] This network produces output c_T
I0924 04:20:41.198683 28506 net.cpp:261] This network produces output h_pseudoloss
I0924 04:20:41.198706 28506 net.cpp:274] Network initialization done.
I0924 04:20:41.198784 28506 recurrent_layer.cpp:150] Adding parameter 0: W_xc
I0924 04:20:41.198794 28506 recurrent_layer.cpp:150] Adding parameter 1: b_c
I0924 04:20:41.198801 28506 recurrent_layer.cpp:150] Adding parameter 2: W_hc
I0924 04:20:41.286039 28478 net.cpp:141] Setting up lstm2_unit_1
I0924 04:20:41.286103 28478 net.cpp:148] Top shape: 1 1 1000 (1000)
I0924 04:20:41.286114 28478 net.cpp:148] Top shape: 1 1 1000 (1000)
I0924 04:20:41.286123 28478 net.cpp:156] Memory required for data: 90020
I0924 04:20:41.286134 28478 layer_factory.hpp:77] Creating layer lstm2_
I0924 04:20:41.286154 28478 net.cpp:91] Creating Layer lstm2_
I0924 04:20:41.286164 28478 net.cpp:425] lstm2_ <- c_1
I0924 04:20:41.286183 28478 net.cpp:399] lstm2_ -> c_T
I0924 04:20:41.286278 28500 net.cpp:141] Setting up lstm2_transform_1
I0924 04:20:41.286322 28500 net.cpp:148] Top shape: 1 1 4000 (4000)
I0924 04:20:41.286331 28500 net.cpp:156] Memory required for data: 66020
I0924 04:20:41.286329 28506 net.cpp:141] Setting up lstm2
I0924 04:20:41.286353 28506 net.cpp:148] Top shape: 1 1 1000 (1000)
I0924 04:20:41.286358 28500 layer_factory.hpp:77] Creating layer lstm2_gate_input_1
I0924 04:20:41.286361 28506 net.cpp:156] Memory required for data: 36412
I0924 04:20:41.286388 28506 layer_factory.hpp:77] Creating layer predict
I0924 04:20:41.286391 28500 net.cpp:91] Creating Layer lstm2_gate_input_1
I0924 04:20:41.286402 28500 net.cpp:425] lstm2_gate_input_1 <- W_hc_h_0
I0924 04:20:41.286407 28506 net.cpp:91] Creating Layer predict
I0924 04:20:41.286413 28500 net.cpp:425] lstm2_gate_input_1 <- W_xc_x_1
I0924 04:20:41.286417 28506 net.cpp:425] predict <- lstm2
I0924 04:20:41.286427 28500 net.cpp:399] lstm2_gate_input_1 -> gate_input_1
I0924 04:20:41.286430 28506 net.cpp:399] predict -> predict
I0924 04:20:41.287729 28478 net.cpp:141] Setting up lstm2_
I0924 04:20:41.287749 28478 net.cpp:148] Top shape: 1 1 1000 (1000)
I0924 04:20:41.287758 28478 net.cpp:156] Memory required for data: 94020
I0924 04:20:41.287767 28478 layer_factory.hpp:77] Creating layer lstm2_h_concat
I0924 04:20:41.287786 28478 net.cpp:91] Creating Layer lstm2_h_concat
I0924 04:20:41.287796 28478 net.cpp:425] lstm2_h_concat <- h_1
I0924 04:20:41.287817 28478 net.cpp:399] lstm2_h_concat -> h
I0924 04:20:41.374542 28500 net.cpp:141] Setting up lstm2_gate_input_1
I0924 04:20:41.374614 28500 net.cpp:148] Top shape: 1 1 4000 (4000)
I0924 04:20:41.374624 28500 net.cpp:156] Memory required for data: 82020
I0924 04:20:41.374634 28500 layer_factory.hpp:77] Creating layer lstm2_unit_1
I0924 04:20:41.374656 28500 net.cpp:91] Creating Layer lstm2_unit_1
I0924 04:20:41.374668 28500 net.cpp:425] lstm2_unit_1 <- c_0
I0924 04:20:41.374662 28478 net.cpp:141] Setting up lstm2_h_concat
I0924 04:20:41.374714 28478 net.cpp:148] Top shape: 1 1 1000 (1000)
I0924 04:20:41.374723 28478 net.cpp:156] Memory required for data: 98020
I0924 04:20:41.374734 28478 layer_factory.hpp:77] Creating layer h_pseudoloss
I0924 04:20:41.374755 28478 net.cpp:91] Creating Layer h_pseudoloss
I0924 04:20:41.374765 28478 net.cpp:425] h_pseudoloss <- h
I0924 04:20:41.374781 28478 net.cpp:399] h_pseudoloss -> h_pseudoloss
I0924 04:20:41.374683 28500 net.cpp:425] lstm2_unit_1 <- gate_input_1
I0924 04:20:41.375769 28500 net.cpp:425] lstm2_unit_1 <- cont_1_lstm2_cont_slice_0_split_1
I0924 04:20:41.375982 28500 net.cpp:399] lstm2_unit_1 -> c_1
I0924 04:20:41.376010 28500 net.cpp:399] lstm2_unit_1 -> h_1
I0924 04:20:41.376763 28500 net.cpp:141] Setting up lstm2_unit_1
I0924 04:20:41.376785 28500 net.cpp:148] Top shape: 1 1 1000 (1000)
I0924 04:20:41.376794 28500 net.cpp:148] Top shape: 1 1 1000 (1000)
I0924 04:20:41.376801 28500 net.cpp:156] Memory required for data: 90020
I0924 04:20:41.376808 28500 layer_factory.hpp:77] Creating layer lstm2_
I0924 04:20:41.376822 28500 net.cpp:91] Creating Layer lstm2_
I0924 04:20:41.376829 28500 net.cpp:425] lstm2_ <- c_1
I0924 04:20:41.376840 28500 net.cpp:399] lstm2_ -> c_T
I0924 04:20:41.376961 28478 net.cpp:141] Setting up h_pseudoloss
I0924 04:20:41.377002 28478 net.cpp:148] Top shape: (1)
I0924 04:20:41.377012 28500 net.cpp:141] Setting up lstm2_
I0924 04:20:41.377028 28500 net.cpp:148] Top shape: 1 1 1000 (1000)
I0924 04:20:41.377012 28478 net.cpp:151]     with loss weight 1
I0924 04:20:41.377035 28500 net.cpp:156] Memory required for data: 94020
I0924 04:20:41.377041 28478 net.cpp:156] Memory required for data: 98024
I0924 04:20:41.377044 28500 layer_factory.hpp:77] Creating layer lstm2_h_concat
I0924 04:20:41.377069 28478 net.cpp:217] h_pseudoloss needs backward computation.
I0924 04:20:41.377080 28478 net.cpp:217] lstm2_h_concat needs backward computation.
…
I0924 04:20:41.386931 28500 net.cpp:219] lstm2_ does not need backward computation.
I0924 04:20:41.386937 28500 net.cpp:261] This network produces output c_T
I0924 04:20:41.386946 28500 net.cpp:261] This network produces output h_pseudoloss
I0924 04:20:41.386972 28500 net.cpp:274] Network initialization done.
I0924 04:20:41.387048 28500 recurrent_layer.cpp:150] Adding parameter 0: W_xc
I0924 04:20:41.387058 28500 recurrent_layer.cpp:150] Adding parameter 1: b_c
I0924 04:20:41.387065 28500 recurrent_layer.cpp:150] Adding parameter 2: W_hc
I0924 04:20:41.473970 28500 net.cpp:141] Setting up lstm2
I0924 04:20:41.474055 28500 net.cpp:148] Top shape: 1 1 1000 (1000)
I0924 04:20:41.474063 28500 net.cpp:156] Memory required for data: 36412
I0924 04:20:41.474097 28500 layer_factory.hpp:77] Creating layer predict
I0924 04:20:41.474133 28500 net.cpp:91] Creating Layer predict
I0924 04:20:41.474144 28500 net.cpp:425] predict <- lstm2
I0924 04:20:41.474159 28500 net.cpp:399] predict -> predict
I0924 04:20:41.573559 28512 net.cpp:141] Setting up predict
I0924 04:20:41.573624 28512 net.cpp:148] Top shape: 1 1 46168 (46168)
I0924 04:20:41.573634 28512 net.cpp:156] Memory required for data: 221084
I0924 04:20:41.573658 28512 layer_factory.hpp:77] Creating layer probs
I0924 04:20:41.573686 28512 net.cpp:91] Creating Layer probs
I0924 04:20:41.573699 28512 net.cpp:425] probs <- predict
I0924 04:20:41.573715 28512 net.cpp:399] probs -> probs
I0924 04:20:41.575345 28526 net.cpp:141] Setting up predict
I0924 04:20:41.575389 28526 net.cpp:148] Top shape: 1 1 46168 (46168)
I0924 04:20:41.575397 28526 net.cpp:156] Memory required for data: 221084
I0924 04:20:41.575410 28526 layer_factory.hpp:77] Creating layer probs
I0924 04:20:41.575428 28526 net.cpp:91] Creating Layer probs
I0924 04:20:41.575434 28526 net.cpp:425] probs <- predict
I0924 04:20:41.575445 28526 net.cpp:399] probs -> probs
I0924 04:20:41.654145 28534 net.cpp:141] Setting up predict
I0924 04:20:41.654193 28534 net.cpp:148] Top shape: 1 1 46168 (46168)
I0924 04:20:41.654199 28534 net.cpp:156] Memory required for data: 221084
I0924 04:20:41.654214 28534 layer_factory.hpp:77] Creating layer probs
I0924 04:20:41.654233 28534 net.cpp:91] Creating Layer probs
I0924 04:20:41.654240 28534 net.cpp:425] probs <- predict
I0924 04:20:41.654250 28534 net.cpp:399] probs -> probs
I0924 04:20:41.752893 28526 net.cpp:141] Setting up probs
I0924 04:20:41.752944 28526 net.cpp:148] Top shape: 1 1 46168 (46168)
I0924 04:20:41.752950 28526 net.cpp:156] Memory required for data: 405756
I0924 04:20:41.752961 28526 net.cpp:219] probs does not need backward computation.
I0924 04:20:41.752969 28526 net.cpp:219] predict does not need backward computation.
I0924 04:20:41.752974 28526 net.cpp:219] lstm2 does not need backward computation.
I0924 04:20:41.752980 28526 net.cpp:219] concat does not need backward computation.
I0924 04:20:41.752988 28526 net.cpp:219] lstm1 does not need backward computation.
I0924 04:20:41.752995 28526 net.cpp:219] embedding does not need backward computation.
I0924 04:20:41.753001 28526 net.cpp:219] reshape_stage_indicator does not need backward computation.
I0924 04:20:41.753006 28526 net.cpp:219] reshape_frames does not need backward computation.
I0924 04:20:41.753011 28526 net.cpp:219] embed_encoder does not need backward computation.
I0924 04:20:41.753017 28526 net.cpp:219] cont_sentence_input_1_split does not need backward computation.
I0924 04:20:41.753022 28526 net.cpp:219] input does not need backward computation.
I0924 04:20:41.753026 28526 net.cpp:261] This network produces output probs
I0924 04:20:41.753044 28526 net.cpp:274] Network initialization done.
I0924 04:20:41.755298 28512 net.cpp:141] Setting up probs
I0924 04:20:41.755354 28512 net.cpp:148] Top shape: 1 1 46168 (46168)
I0924 04:20:41.755364 28512 net.cpp:156] Memory required for data: 405756
I0924 04:20:41.755378 28512 net.cpp:219] probs does not need backward computation.
I0924 04:20:41.755388 28512 net.cpp:219] predict does not need backward computation.
I0924 04:20:41.755398 28512 net.cpp:219] lstm2 does not need backward computation.
I0924 04:20:41.755409 28512 net.cpp:219] concat does not need backward computation.
I0924 04:20:41.755419 28512 net.cpp:219] lstm1 does not need backward computation.
I0924 04:20:41.755429 28512 net.cpp:219] embedding does not need backward computation.
I0924 04:20:41.755437 28512 net.cpp:219] reshape_stage_indicator does not need backward computation.
I0924 04:20:41.755446 28512 net.cpp:219] reshape_frames does not need backward computation.
I0924 04:20:41.755455 28512 net.cpp:219] embed_encoder does not need backward computation.
I0924 04:20:41.755465 28512 net.cpp:219] cont_sentence_input_1_split does not need backward computation.
I0924 04:20:41.755473 28512 net.cpp:219] input does not need backward computation.
I0924 04:20:41.755480 28512 net.cpp:261] This network produces output probs
I0924 04:20:41.755508 28512 net.cpp:274] Network initialization done.
I0924 04:20:41.759099 28486 net.cpp:141] Setting up probs
I0924 04:20:41.759150 28486 net.cpp:148] Top shape: 1 1 46168 (46168)
I0924 04:20:41.759156 28486 net.cpp:156] Memory required for data: 405756
I0924 04:20:41.759167 28486 net.cpp:219] probs does not need backward computation.
I0924 04:20:41.759174 28486 net.cpp:219] predict does not need backward computation.
I0924 04:20:41.759181 28486 net.cpp:219] lstm2 does not need backward computation.
I0924 04:20:41.759186 28486 net.cpp:219] concat does not need backward computation.
I0924 04:20:41.759192 28486 net.cpp:219] lstm1 does not need backward computation.
I0924 04:20:41.759199 28486 net.cpp:219] embedding does not need backward computation.
I0924 04:20:41.759204 28486 net.cpp:219] reshape_stage_indicator does not need backward computation.
I0924 04:20:41.759209 28486 net.cpp:219] reshape_frames does not need backward computation.
I0924 04:20:41.759214 28486 net.cpp:219] embed_encoder does not need backward computation.
I0924 04:20:41.759219 28486 net.cpp:219] cont_sentence_input_1_split does not need backward computation.
I0924 04:20:41.759228 28486 net.cpp:219] input does not need backward computation.
I0924 04:20:41.759232 28486 net.cpp:261] This network produces output probs
I0924 04:20:41.759250 28486 net.cpp:274] Network initialization done.
I0924 04:20:41.759347 28534 net.cpp:141] Setting up probs
I0924 04:20:41.759366 28538 net.cpp:141] Setting up probs
I0924 04:20:41.759392 28534 net.cpp:148] Top shape: 1 1 46168 (46168)
I0924 04:20:41.759397 28534 net.cpp:156] Memory required for data: 405756
I0924 04:20:41.759405 28534 net.cpp:219] probs does not need backward computation.
I0924 04:20:41.759413 28534 net.cpp:219] predict does not need backward computation.
I0924 04:20:41.759413 28538 net.cpp:148] Top shape: 1 1 46168 (46168)
I0924 04:20:41.759418 28534 net.cpp:219] lstm2 does not need backward computation.
I0924 04:20:41.759421 28538 net.cpp:156] Memory required for data: 405756
I0924 04:20:41.759424 28534 net.cpp:219] concat does not need backward computation.
I0924 04:20:41.759428 28538 net.cpp:219] probs does not need backward computation.
I0924 04:20:41.759433 28534 net.cpp:219] lstm1 does not need backward computation.
…
I0924 04:20:41.759511 28534 net.cpp:261] This network produces output probs
I0924 04:20:41.759518 28538 net.cpp:219] embed_encoder does not need backward computation.
I0924 04:20:41.759524 28538 net.cpp:219] cont_sentence_input_1_split does not need backward computation.
I0924 04:20:41.759531 28538 net.cpp:219] input does not need backward computation.
I0924 04:20:41.759534 28538 net.cpp:261] This network produces output probs
I0924 04:20:41.759541 28534 net.cpp:274] Network initialization done.
I0924 04:20:41.759551 28538 net.cpp:274] Network initialization done.
I0924 04:20:41.760037 28482 net.cpp:141] Setting up probs
I0924 04:20:41.760058 28482 net.cpp:148] Top shape: 1 1 46168 (46168)
I0924 04:20:41.760066 28482 net.cpp:156] Memory required for data: 405756
I0924 04:20:41.760074 28482 net.cpp:219] probs does not need backward computation.
I0924 04:20:41.760083 28482 net.cpp:219] predict does not need backward computation.
I0924 04:20:41.760092 28482 net.cpp:219] lstm2 does not need backward computation.
I0924 04:20:41.760100 28482 net.cpp:219] concat does not need backward computation.
I0924 04:20:41.760109 28482 net.cpp:219] lstm1 does not need backward computation.
I0924 04:20:41.760118 28482 net.cpp:219] embedding does not need backward computation.
I0924 04:20:41.760125 28482 net.cpp:219] reshape_stage_indicator does not need backward computation.
I0924 04:20:41.760133 28482 net.cpp:219] reshape_frames does not need backward computation.
I0924 04:20:41.760140 28482 net.cpp:219] embed_encoder does not need backward computation.
I0924 04:20:41.760149 28482 net.cpp:219] cont_sentence_input_1_split does not need backward computation.
I0924 04:20:41.760156 28482 net.cpp:219] input does not need backward computation.
I0924 04:20:41.760162 28482 net.cpp:261] This network produces output probs
I0924 04:20:41.760190 28482 net.cpp:274] Network initialization done.
I0924 04:20:41.762694 28490 net.cpp:141] Setting up probs
I0924 04:20:41.762718 28490 net.cpp:148] Top shape: 1 1 46168 (46168)
I0924 04:20:41.762727 28490 net.cpp:156] Memory required for data: 405756
I0924 04:20:41.762737 28490 net.cpp:219] probs does not need backward computation.
I0924 04:20:41.762747 28490 net.cpp:219] predict does not need backward computation.
I0924 04:20:41.762755 28490 net.cpp:219] lstm2 does not need backward computation.
I0924 04:20:41.762766 28490 net.cpp:219] concat does not need backward computation.
I0924 04:20:41.762776 28490 net.cpp:219] lstm1 does not need backward computation.
I0924 04:20:41.762786 28490 net.cpp:219] embedding does not need backward computation.
I0924 04:20:41.762796 28490 net.cpp:219] reshape_stage_indicator does not need backward computation.
I0924 04:20:41.762809 28490 net.cpp:219] reshape_frames does not need backward computation.
I0924 04:20:41.762819 28490 net.cpp:219] embed_encoder does not need backward computation.
I0924 04:20:41.762827 28490 net.cpp:219] cont_sentence_input_1_split does not need backward computation.
I0924 04:20:41.762837 28490 net.cpp:219] input does not need backward computation.
I0924 04:20:41.762845 28490 net.cpp:261] This network produces output probs
I0924 04:20:41.762869 28490 net.cpp:274] Network initialization done.
I0924 04:20:41.763242 28492 net.cpp:141] Setting up conv1
I0924 04:20:41.763294 28492 net.cpp:148] Top shape: 10 96 55 55 (2904000)
I0924 04:20:41.763304 28492 net.cpp:156] Memory required for data: 17799480
I0924 04:20:41.763336 28492 layer_factory.hpp:77] Creating layer relu1
I0924 04:20:41.763365 28492 net.cpp:91] Creating Layer relu1
I0924 04:20:41.763376 28492 net.cpp:425] relu1 <- conv1
I0924 04:20:41.763389 28492 net.cpp:386] relu1 -> conv1 (in-place)
I0924 04:20:41.764662 28492 net.cpp:141] Setting up relu1
I0924 04:20:41.764719 28492 net.cpp:148] Top shape: 10 96 55 55 (2904000)
I0924 04:20:41.764732 28492 net.cpp:156] Memory required for data: 29415480
I0924 04:20:41.764745 28492 layer_factory.hpp:77] Creating layer pool1
I0924 04:20:41.764777 28492 net.cpp:91] Creating Layer pool1
I0924 04:20:41.764791 28492 net.cpp:425] pool1 <- conv1
I0924 04:20:41.764809 28492 net.cpp:399] pool1 -> pool1
I0924 04:20:41.765012 28492 net.cpp:141] Setting up pool1
I0924 04:20:41.765033 28492 net.cpp:148] Top shape: 10 96 27 27 (699840)
I0924 04:20:41.765041 28492 net.cpp:156] Memory required for data: 32214840
I0924 04:20:41.765050 28492 layer_factory.hpp:77] Creating layer norm1
I0924 04:20:41.765084 28492 net.cpp:91] Creating Layer norm1
I0924 04:20:41.765094 28492 net.cpp:425] norm1 <- pool1
I0924 04:20:41.765108 28492 net.cpp:399] norm1 -> norm1
I0924 04:20:41.765687 28492 net.cpp:141] Setting up norm1
I0924 04:20:41.765712 28492 net.cpp:148] Top shape: 10 96 27 27 (699840)
I0924 04:20:41.765722 28492 net.cpp:156] Memory required for data: 35014200
I0924 04:20:41.765733 28492 layer_factory.hpp:77] Creating layer conv2
I0924 04:20:41.765759 28492 net.cpp:91] Creating Layer conv2
I0924 04:20:41.765769 28492 net.cpp:425] conv2 <- norm1
I0924 04:20:41.765784 28492 net.cpp:399] conv2 -> conv2
I0924 04:20:41.791921 28506 net.cpp:141] Setting up predict
I0924 04:20:41.791977 28506 net.cpp:148] Top shape: 1 1 46168 (46168)
I0924 04:20:41.791986 28506 net.cpp:156] Memory required for data: 221084
I0924 04:20:41.792007 28506 layer_factory.hpp:77] Creating layer probs
I0924 04:20:41.792032 28506 net.cpp:91] Creating Layer probs
I0924 04:20:41.792044 28506 net.cpp:425] probs <- predict
I0924 04:20:41.792059 28506 net.cpp:399] probs -> probs
I0924 04:20:41.793077 28506 net.cpp:141] Setting up probs
I0924 04:20:41.793109 28506 net.cpp:148] Top shape: 1 1 46168 (46168)
I0924 04:20:41.793118 28506 net.cpp:156] Memory required for data: 405756
I0924 04:20:41.793128 28506 net.cpp:219] probs does not need backward computation.
I0924 04:20:41.793138 28506 net.cpp:219] predict does not need backward computation.
I0924 04:20:41.793145 28506 net.cpp:219] lstm2 does not need backward computation.
I0924 04:20:41.793155 28506 net.cpp:219] concat does not need backward computation.
I0924 04:20:41.793169 28506 net.cpp:219] lstm1 does not need backward computation.
I0924 04:20:41.793179 28506 net.cpp:219] embedding does not need backward computation.
I0924 04:20:41.793186 28506 net.cpp:219] reshape_stage_indicator does not need backward computation.
I0924 04:20:41.793195 28506 net.cpp:219] reshape_frames does not need backward computation.
I0924 04:20:41.793203 28506 net.cpp:219] embed_encoder does not need backward computation.
I0924 04:20:41.793212 28506 net.cpp:219] cont_sentence_input_1_split does not need backward computation.
I0924 04:20:41.793221 28506 net.cpp:219] input does not need backward computation.
I0924 04:20:41.793228 28506 net.cpp:261] This network produces output probs
I0924 04:20:41.793253 28506 net.cpp:274] Network initialization done.
I0924 04:20:41.830061 28492 net.cpp:141] Setting up conv2
I0924 04:20:41.830132 28492 net.cpp:148] Top shape: 10 256 27 27 (1866240)
I0924 04:20:41.830142 28492 net.cpp:156] Memory required for data: 42479160
I0924 04:20:41.830883 28492 layer_factory.hpp:77] Creating layer relu2
I0924 04:20:41.830930 28492 net.cpp:91] Creating Layer relu2
I0924 04:20:41.830943 28492 net.cpp:425] relu2 <- conv2
I0924 04:20:41.830966 28492 net.cpp:386] relu2 -> conv2 (in-place)
I0924 04:20:41.834897 28492 net.cpp:141] Setting up relu2
I0924 04:20:41.834985 28492 net.cpp:148] Top shape: 10 256 27 27 (1866240)
I0924 04:20:41.834996 28492 net.cpp:156] Memory required for data: 49944120
I0924 04:20:41.835011 28492 layer_factory.hpp:77] Creating layer pool2
I0924 04:20:41.835041 28492 net.cpp:91] Creating Layer pool2
I0924 04:20:41.835054 28492 net.cpp:425] pool2 <- conv2
I0924 04:20:41.835075 28492 net.cpp:399] pool2 -> pool2
I0924 04:20:41.836845 28492 net.cpp:141] Setting up pool2
I0924 04:20:41.837680 28492 net.cpp:148] Top shape: 10 256 13 13 (432640)
I0924 04:20:41.837692 28492 net.cpp:156] Memory required for data: 51674680
I0924 04:20:41.837704 28492 layer_factory.hpp:77] Creating layer norm2
I0924 04:20:41.837738 28492 net.cpp:91] Creating Layer norm2
I0924 04:20:41.837749 28492 net.cpp:425] norm2 <- pool2
I0924 04:20:41.838994 28492 net.cpp:399] norm2 -> norm2
I0924 04:20:41.840288 28492 net.cpp:141] Setting up norm2
I0924 04:20:41.840327 28492 net.cpp:148] Top shape: 10 256 13 13 (432640)
I0924 04:20:41.840335 28492 net.cpp:156] Memory required for data: 53405240
I0924 04:20:41.840347 28492 layer_factory.hpp:77] Creating layer conv3
I0924 04:20:41.840831 28492 net.cpp:91] Creating Layer conv3
I0924 04:20:41.840862 28492 net.cpp:425] conv3 <- norm2
I0924 04:20:41.840889 28492 net.cpp:399] conv3 -> conv3
I0924 04:20:41.888306 28478 net.cpp:141] Setting up predict
I0924 04:20:41.888360 28478 net.cpp:148] Top shape: 1 1 46168 (46168)
I0924 04:20:41.888366 28478 net.cpp:156] Memory required for data: 221084
I0924 04:20:41.888381 28478 layer_factory.hpp:77] Creating layer probs
I0924 04:20:41.888397 28478 net.cpp:91] Creating Layer probs
I0924 04:20:41.888406 28478 net.cpp:425] probs <- predict
I0924 04:20:41.888416 28478 net.cpp:399] probs -> probs
I0924 04:20:41.888918 28492 net.cpp:141] Setting up conv3
I0924 04:20:41.888975 28492 net.cpp:148] Top shape: 10 384 13 13 (648960)
I0924 04:20:41.888988 28492 net.cpp:156] Memory required for data: 56001080
I0924 04:20:41.889025 28492 layer_factory.hpp:77] Creating layer relu3
I0924 04:20:41.889093 28492 net.cpp:91] Creating Layer relu3
I0924 04:20:41.889111 28492 net.cpp:425] relu3 <- conv3
I0924 04:20:41.889127 28492 net.cpp:386] relu3 -> conv3 (in-place)
I0924 04:20:41.890856 28492 net.cpp:141] Setting up relu3
I0924 04:20:41.890902 28492 net.cpp:148] Top shape: 10 384 13 13 (648960)
I0924 04:20:41.890913 28492 net.cpp:156] Memory required for data: 58596920
I0924 04:20:41.890925 28492 layer_factory.hpp:77] Creating layer conv4
I0924 04:20:41.891134 28492 net.cpp:91] Creating Layer conv4
I0924 04:20:41.891151 28492 net.cpp:425] conv4 <- conv3
I0924 04:20:41.891171 28492 net.cpp:399] conv4 -> conv4
I0924 04:20:41.891283 28478 net.cpp:141] Setting up probs
I0924 04:20:41.891348 28478 net.cpp:148] Top shape: 1 1 46168 (46168)
I0924 04:20:41.891366 28478 net.cpp:156] Memory required for data: 405756
I0924 04:20:41.891384 28478 net.cpp:219] probs does not need backward computation.
I0924 04:20:41.891402 28478 net.cpp:219] predict does not need backward computation.
I0924 04:20:41.891419 28478 net.cpp:219] lstm2 does not need backward computation.
I0924 04:20:41.891436 28478 net.cpp:219] concat does not need backward computation.
I0924 04:20:41.891454 28478 net.cpp:219] lstm1 does not need backward computation.
I0924 04:20:41.891471 28478 net.cpp:219] embedding does not need backward computation.
I0924 04:20:41.891487 28478 net.cpp:219] reshape_stage_indicator does not need backward computation.
I0924 04:20:41.891504 28478 net.cpp:219] reshape_frames does not need backward computation.
I0924 04:20:41.891518 28478 net.cpp:219] embed_encoder does not need backward computation.
I0924 04:20:41.891535 28478 net.cpp:219] cont_sentence_input_1_split does not need backward computation.
I0924 04:20:41.891551 28478 net.cpp:219] input does not need backward computation.
I0924 04:20:41.891562 28478 net.cpp:261] This network produces output probs
I0924 04:20:41.891605 28478 net.cpp:274] Network initialization done.
I0924 04:20:41.928194 28492 net.cpp:141] Setting up conv4
I0924 04:20:41.928256 28492 net.cpp:148] Top shape: 10 384 13 13 (648960)
I0924 04:20:41.928262 28492 net.cpp:156] Memory required for data: 61192760
I0924 04:20:41.928282 28492 layer_factory.hpp:77] Creating layer relu4
I0924 04:20:41.928303 28492 net.cpp:91] Creating Layer relu4
I0924 04:20:41.928314 28492 net.cpp:425] relu4 <- conv4
I0924 04:20:41.928325 28492 net.cpp:386] relu4 -> conv4 (in-place)
I0924 04:20:41.929016 28492 net.cpp:141] Setting up relu4
I0924 04:20:41.929046 28492 net.cpp:148] Top shape: 10 384 13 13 (648960)
I0924 04:20:41.929052 28492 net.cpp:156] Memory required for data: 63788600
I0924 04:20:41.929059 28492 layer_factory.hpp:77] Creating layer conv5
I0924 04:20:41.929105 28492 net.cpp:91] Creating Layer conv5
I0924 04:20:41.929112 28492 net.cpp:425] conv5 <- conv4
I0924 04:20:41.929124 28492 net.cpp:399] conv5 -> conv5
I0924 04:20:41.937594 28492 net.cpp:141] Setting up conv5
I0924 04:20:41.937698 28492 net.cpp:148] Top shape: 10 256 13 13 (432640)
I0924 04:20:41.937707 28492 net.cpp:156] Memory required for data: 65519160
I0924 04:20:41.937741 28492 layer_factory.hpp:77] Creating layer relu5
I0924 04:20:41.937767 28492 net.cpp:91] Creating Layer relu5
I0924 04:20:41.937777 28492 net.cpp:425] relu5 <- conv5
I0924 04:20:41.937796 28492 net.cpp:386] relu5 -> conv5 (in-place)
I0924 04:20:41.938807 28492 net.cpp:141] Setting up relu5
I0924 04:20:41.938855 28492 net.cpp:148] Top shape: 10 256 13 13 (432640)
I0924 04:20:41.938861 28492 net.cpp:156] Memory required for data: 67249720
I0924 04:20:41.938870 28492 layer_factory.hpp:77] Creating layer pool5
I0924 04:20:41.938896 28492 net.cpp:91] Creating Layer pool5
I0924 04:20:41.938905 28492 net.cpp:425] pool5 <- conv5
I0924 04:20:41.938916 28492 net.cpp:399] pool5 -> pool5
I0924 04:20:41.939082 28492 net.cpp:141] Setting up pool5
I0924 04:20:41.939095 28492 net.cpp:148] Top shape: 10 256 6 6 (92160)
I0924 04:20:41.939098 28492 net.cpp:156] Memory required for data: 67618360
I0924 04:20:41.939103 28492 layer_factory.hpp:77] Creating layer fc6
I0924 04:20:41.939121 28492 net.cpp:91] Creating Layer fc6
I0924 04:20:41.939126 28492 net.cpp:425] fc6 <- pool5
I0924 04:20:41.939136 28492 net.cpp:399] fc6 -> fc6
I0924 04:20:42.021493 28500 net.cpp:141] Setting up predict
I0924 04:20:42.021946 28500 net.cpp:148] Top shape: 1 1 46168 (46168)
I0924 04:20:42.021962 28500 net.cpp:156] Memory required for data: 221084
I0924 04:20:42.021987 28500 layer_factory.hpp:77] Creating layer probs
I0924 04:20:42.022016 28500 net.cpp:91] Creating Layer probs
I0924 04:20:42.022030 28500 net.cpp:425] probs <- predict
I0924 04:20:42.022049 28500 net.cpp:399] probs -> probs
I0924 04:20:42.039274 28500 net.cpp:141] Setting up probs
I0924 04:20:42.039867 28500 net.cpp:148] Top shape: 1 1 46168 (46168)
I0924 04:20:42.048041 28500 net.cpp:156] Memory required for data: 405756
I0924 04:20:42.048089 28500 net.cpp:219] probs does not need backward computation.
I0924 04:20:42.048102 28500 net.cpp:219] predict does not need backward computation.
I0924 04:20:42.048112 28500 net.cpp:219] lstm2 does not need backward computation.
I0924 04:20:42.048122 28500 net.cpp:219] concat does not need backward computation.
I0924 04:20:42.048133 28500 net.cpp:219] lstm1 does not need backward computation.
I0924 04:20:42.048144 28500 net.cpp:219] embedding does not need backward computation.
I0924 04:20:42.048152 28500 net.cpp:219] reshape_stage_indicator does not need backward computation.
I0924 04:20:42.048161 28500 net.cpp:219] reshape_frames does not need backward computation.
I0924 04:20:42.048169 28500 net.cpp:219] embed_encoder does not need backward computation.
I0924 04:20:42.048177 28500 net.cpp:219] cont_sentence_input_1_split does not need backward computation.
I0924 04:20:42.048187 28500 net.cpp:219] input does not need backward computation.
I0924 04:20:42.048195 28500 net.cpp:261] This network produces output probs
I0924 04:20:42.048276 28500 net.cpp:274] Network initialization done.
I0924 04:20:42.062410 28492 net.cpp:141] Setting up fc6
I0924 04:20:42.062476 28492 net.cpp:148] Top shape: 10 4096 (40960)
I0924 04:20:42.062484 28492 net.cpp:156] Memory required for data: 67782200
I0924 04:20:42.062501 28492 layer_factory.hpp:77] Creating layer relu6
I0924 04:20:42.062525 28492 net.cpp:91] Creating Layer relu6
I0924 04:20:42.062531 28492 net.cpp:425] relu6 <- fc6
I0924 04:20:42.062541 28492 net.cpp:386] relu6 -> fc6 (in-place)
I0924 04:20:42.063472 28492 net.cpp:141] Setting up relu6
I0924 04:20:42.063526 28492 net.cpp:148] Top shape: 10 4096 (40960)
I0924 04:20:42.063532 28492 net.cpp:156] Memory required for data: 67946040
I0924 04:20:42.063539 28492 layer_factory.hpp:77] Creating layer drop6
I0924 04:20:42.063570 28492 net.cpp:91] Creating Layer drop6
I0924 04:20:42.063577 28492 net.cpp:425] drop6 <- fc6
I0924 04:20:42.063587 28492 net.cpp:386] drop6 -> fc6 (in-place)
I0924 04:20:42.064262 28492 net.cpp:141] Setting up drop6
I0924 04:20:42.064288 28492 net.cpp:148] Top shape: 10 4096 (40960)
I0924 04:20:42.064293 28492 net.cpp:156] Memory required for data: 68109880
I0924 04:20:42.064299 28492 layer_factory.hpp:77] Creating layer fc7
I0924 04:20:42.064314 28492 net.cpp:91] Creating Layer fc7
I0924 04:20:42.064321 28492 net.cpp:425] fc7 <- fc6
I0924 04:20:42.064332 28492 net.cpp:399] fc7 -> fc7
I0924 04:20:42.139279 28492 net.cpp:141] Setting up fc7
I0924 04:20:42.139345 28492 net.cpp:148] Top shape: 10 4096 (40960)
I0924 04:20:42.139356 28492 net.cpp:156] Memory required for data: 68273720
I0924 04:20:42.139381 28492 layer_factory.hpp:77] Creating layer relu7
I0924 04:20:42.139406 28492 net.cpp:91] Creating Layer relu7
I0924 04:20:42.139417 28492 net.cpp:425] relu7 <- fc7
I0924 04:20:42.141031 28492 net.cpp:386] relu7 -> fc7 (in-place)
I0924 04:20:42.143659 28492 net.cpp:141] Setting up relu7
I0924 04:20:42.143721 28492 net.cpp:148] Top shape: 10 4096 (40960)
I0924 04:20:42.143738 28492 net.cpp:156] Memory required for data: 68437560
I0924 04:20:42.143755 28492 layer_factory.hpp:77] Creating layer drop7
I0924 04:20:42.143784 28492 net.cpp:91] Creating Layer drop7
I0924 04:20:42.143798 28492 net.cpp:425] drop7 <- fc7
I0924 04:20:42.143816 28492 net.cpp:386] drop7 -> fc7 (in-place)
I0924 04:20:42.145674 28492 net.cpp:141] Setting up drop7
I0924 04:20:42.145740 28492 net.cpp:148] Top shape: 10 4096 (40960)
I0924 04:20:42.145751 28492 net.cpp:156] Memory required for data: 68601400
I0924 04:20:42.145766 28492 layer_factory.hpp:77] Creating layer fc8
I0924 04:20:42.145790 28492 net.cpp:91] Creating Layer fc8
I0924 04:20:42.145802 28492 net.cpp:425] fc8 <- fc7
I0924 04:20:42.145823 28492 net.cpp:399] fc8 -> fc8
I0924 04:20:42.171026 28492 net.cpp:141] Setting up fc8
I0924 04:20:42.171094 28492 net.cpp:148] Top shape: 10 1000 (10000)
I0924 04:20:42.171106 28492 net.cpp:156] Memory required for data: 68641400
I0924 04:20:42.171134 28492 layer_factory.hpp:77] Creating layer prob
I0924 04:20:42.171161 28492 net.cpp:91] Creating Layer prob
I0924 04:20:42.171175 28492 net.cpp:425] prob <- fc8
I0924 04:20:42.171519 28492 net.cpp:399] prob -> prob
I0924 04:20:42.175282 28492 net.cpp:141] Setting up prob
I0924 04:20:42.175345 28492 net.cpp:148] Top shape: 10 1000 (10000)
I0924 04:20:42.175357 28492 net.cpp:156] Memory required for data: 68681400
I0924 04:20:42.175375 28492 net.cpp:219] prob does not need backward computation.
I0924 04:20:42.175389 28492 net.cpp:219] fc8 does not need backward computation.
I0924 04:20:42.175400 28492 net.cpp:219] drop7 does not need backward computation.
I0924 04:20:42.175410 28492 net.cpp:219] relu7 does not need backward computation.
…
