…
Java HotSpot(TM) 64-Bit Server VM warning: You have loaded library /tmp/cvld1992645188532439152/libopencv_java310.xine1.so which might have disabled stack guard. The VM will try to fix the stack guard now.
It's highly recommended that you fix the library with 'execstack -c <libfile>', or link it with '-z noexecstack'.
WARNING: Logging before InitGoogleLogging() is written to STDERR
I0720 13:47:15.042222 29482 net.cpp:49] Initializing net from parameters: 
name: "CaffeNet"
state {
  phase: TEST
}
layer {
  name: "data"
  type: "Input"
  top: "data"
  input_param {
    shape {
      dim: 10
      dim: 3
      dim: 227
      dim: 227
    }
  }
}
layer {
  name: "conv1"
  type: "Convolution"
  bottom: "data"
  top: "conv1"
  convolution_param {
    num_output: 96
    kernel_size: 11
    stride: 4
  }
}
layer {
  name: "relu1"
  type: "ReLU"
  bottom: "conv1"
  top: "conv1"
}
layer {
  name: "pool1"
  type: "Pooling"
  bottom: "conv1"
  top: "pool1"
  pooling_param {
    pool: MAX
    kernel_size: 3
    stride: 2
  }
}
layer {
  name: "norm1"
  type: "LRN"
  bottom: "pool1"
  top: "norm1"
  lrn_param {
    local_size: 5
    alpha: 0.0001
    beta: 0.75
  }
}
layer {
  name: "conv2"
  type: "Convolution"
  bottom: "norm1"
  top: "conv2"
  convolution_param {
    num_output: 256
    pad: 2
    kernel_size: 5
    group: 2
  }
}
layer {
  name: "relu2"
  type: "ReLU"
  bottom: "conv2"
  top: "conv2"
}
layer {
  name: "pool2"
  type: "Pooling"
  bottom: "conv2"
  top: "pool2"
  pooling_param {
    pool: MAX
    kernel_size: 3
    stride: 2
  }
}
layer {
  name: "norm2"
  type: "LRN"
  bottom: "pool2"
  top: "norm2"
  lrn_param {
    local_size: 5
    alpha: 0.0001
    beta: 0.75
  }
}
layer {
  name: "conv3"
  type: "Convolution"
  bottom: "norm2"
  top: "conv3"
  convolution_param {
    num_output: 384
    pad: 1
    kernel_size: 3
  }
}
layer {
  name: "relu3"
  type: "ReLU"
  bottom: "conv3"
  top: "conv3"
}
layer {
  name: "conv4"
  type: "Convolution"
  bottom: "conv3"
  top: "conv4"
  convolution_param {
    num_output: 384
    pad: 1
    kernel_size: 3
    group: 2
  }
}
layer {
  name: "relu4"
  type: "ReLU"
  bottom: "conv4"
  top: "conv4"
}
layer {
  name: "conv5"
  type: "Convolution"
  bottom: "conv4"
  top: "conv5"
  convolution_param {
    num_output: 256
    pad: 1
    kernel_size: 3
    group: 2
  }
}
layer {
  name: "relu5"
  type: "ReLU"
  bottom: "conv5"
  top: "conv5"
}
layer {
  name: "pool5"
  type: "Pooling"
  bottom: "conv5"
  top: "pool5"
  pooling_param {
    pool: MAX
    kernel_size: 3
    stride: 2
  }
}
layer {
  name: "fc6"
  type: "InnerProduct"
  bottom: "pool5"
  top: "fc6"
  inner_product_param {
    num_output: 4096
  }
}
layer {
  name: "relu6"
  type: "ReLU"
  bottom: "fc6"
  top: "fc6"
}
layer {
  name: "drop6"
  type: "Dropout"
  bottom: "fc6"
  top: "fc6"
  dropout_param {
    dropout_ratio: 0.5
  }
}
layer {
  name: "fc7"
  type: "InnerProduct"
  bottom: "fc6"
  top: "fc7"
  inner_product_param {
    num_output: 4096
  }
}
layer {
  name: "relu7"
  type: "ReLU"
  bottom: "fc7"
  top: "fc7"
}
layer {
  name: "drop7"
  type: "Dropout"
  bottom: "fc7"
  top: "fc7"
  dropout_param {
    dropout_ratio: 0.5
  }
}
layer {
  name: "fc8"
  type: "InnerProduct"
  bottom: "fc7"
  top: "fc8"
  inner_product_param {
    num_output: 1000
  }
}
layer {
  name: "prob"
  type: "Softmax"
  bottom: "fc8"
  top: "prob"
}
I0720 13:47:15.042222 29522 net.cpp:49] Initializing net from parameters: 
name: "CaffeNet"
state {
  phase: TEST
}
layer {
  name: "data"
  type: "Input"
  top: "data"
  input_param {
    shape {
      dim: 10
      dim: 3
      dim: 227
      dim: 227
    }
  }
}
layer {
  name: "conv1"
  type: "Convolution"
  bottom: "data"
  top: "conv1"
  convolution_param {
    num_output: 96
    kernel_size: 11
    stride: 4
  }
}
layer {
  name: "relu1"
  type: "ReLU"
  bottom: "conv1"
  top: "conv1"
}
layer {
  name: "pool1"
  type: "Pooling"
  bottom: "conv1"
  top: "pool1"
  pooling_param {
    pool: MAX
    kernel_size: 3
    stride: 2
  }
}
layer {
  name: "norm1"
  type: "LRN"
  bottom: "pool1"
  top: "norm1"
  lrn_param {
    local_size: 5
    alpha: 0.0001
    beta: 0.75
  }
}
layer {
  name: "conv2"
  type: "Convolution"
  bottom: "norm1"
  top: "conv2"
  convolution_param {
    num_output: 256
    pad: 2
    kernel_size: 5
    group: 2
  }
}
layer {
  name: "relu2"
  type: "ReLU"
  bottom: "conv2"
  top: "conv2"
}
layer {
  name: "pool2"
  type: "Pooling"
  bottom: "conv2"
  top: "pool2"
  pooling_param {
    pool: MAX
    kernel_size: 3
    stride: 2
  }
}
layer {
  name: "norm2"
  type: "LRN"
  bottom: "pool2"
  top: "norm2"
  lrn_param {
    local_size: 5
    alpha: 0.0001
    beta: 0.75
  }
}
layer {
  name: "conv3"
  type: "Convolution"
  bottom: "norm2"
  top: "conv3"
  convolution_param {
    num_output: 384
    pad: 1
    kernel_size: 3
  }
}
layer {
  name: "relu3"
  type: "ReLU"
  bottom: "conv3"
  top: "conv3"
}
layer {
  name: "conv4"
  type: "Convolution"
  bottom: "conv3"
  top: "conv4"
  convolution_param {
    num_output: 384
    pad: 1
    kernel_size: 3
    group: 2
  }
}
layer {
  name: "relu4"
  type: "ReLU"
  bottom: "conv4"
  top: "conv4"
}
layer {
  name: "conv5"
  type: "Convolution"
  bottom: "conv4"
  top: "conv5"
  convolution_param {
    num_output: 256
    pad: 1
    kernel_size: 3
    group: 2
  }
}
layer {
  name: "relu5"
  type: "ReLU"
  bottom: "conv5"
  top: "conv5"
}
layer {
  name: "pool5"
  type: "Pooling"
  bottom: "conv5"
  top: "pool5"
  pooling_param {
    pool: MAX
    kernel_size: 3
    stride: 2
  }
}
layer {
  name: "fc6"
  type: "InnerProduct"
  bottom: "pool5"
  top: "fc6"
  inner_product_param {
    num_output: 4096
  }
}
layer {
  name: "relu6"
  type: "ReLU"
  bottom: "fc6"
  top: "fc6"
}
layer {
  name: "drop6"
  type: "Dropout"
  bottom: "fc6"
  top: "fc6"
  dropout_param {
    dropout_ratio: 0.5
  }
}
layer {
  name: "fc7"
  type: "InnerProduct"
  bottom: "fc6"
  top: "fc7"
  inner_product_param {
    num_output: 4096
  }
}
layer {
  name: "relu7"
  type: "ReLU"
  bottom: "fc7"
  top: "fc7"
}
layer {
  name: "drop7"
  type: "Dropout"
  bottom: "fc7"
  top: "fc7"
  dropout_param {
    dropout_ratio: 0.5
  }
}
layer {
  name: "fc8"
  type: "InnerProduct"
  bottom: "fc7"
  top: "fc8"
  inner_product_param {
    num_output: 1000
  }
}
layer {
  name: "prob"
  type: "Softmax"
  bottom: "fc8"
  top: "prob"
}
I0720 13:47:15.042222 29478 net.cpp:49] Initializing net from parameters: 
name: "CaffeNet"
state {
  phase: TEST
}
layer {
  name: "data"
  type: "Input"
  top: "data"
  input_param {
    shape {
      dim: 10
      dim: 3
      dim: 227
      dim: 227
    }
  }
}
layer {
  name: "conv1"
  type: "Convolution"
  bottom: "data"
  top: "conv1"
  convolution_param {
    num_output: 96
    kernel_size: 11
    stride: 4
  }
}
layer {
  name: "relu1"
  type: "ReLU"
  bottom: "conv1"
  top: "conv1"
}
layer {
  name: "pool1"
  type: "Pooling"
  bottom: "conv1"
  top: "pool1"
  pooling_param {
    pool: MAX
    kernel_size: 3
    stride: 2
  }
}
layer {
  name: "norm1"
  type: "LRN"
  bottom: "pool1"
  top: "norm1"
  lrn_param {
    local_size: 5
    alpha: 0.0001
    beta: 0.75
  }
}
layer {
  name: "conv2"
  type: "Convolution"
  bottom: "norm1"
  top: "conv2"
  convolution_param {
    num_output: 256
    pad: 2
    kernel_size: 5
    group: 2
  }
}
layer {
  name: "relu2"
  type: "ReLU"
  bottom: "conv2"
  top: "conv2"
}
layer {
  name: "pool2"
  type: "Pooling"
  bottom: "conv2"
  top: "pool2"
  pooling_param {
    pool: MAX
    kernel_size: 3
    stride: 2
  }
}
layer {
  name: "norm2"
  type: "LRN"
  bottom: "pool2"
  top: "norm2"
  lrn_param {
    local_size: 5
    alpha: 0.0001
    beta: 0.75
  }
}
layer {
  name: "conv3"
  type: "Convolution"
  bottom: "norm2"
  top: "conv3"
  convolution_param {
    num_output: 384
    pad: 1
    kernel_size: 3
  }
}
layer {
  name: "relu3"
  type: "ReLU"
  bottom: "conv3"
  top: "conv3"
}
layer {
  name: "conv4"
  type: "Convolution"
  bottom: "conv3"
  top: "conv4"
  convolution_param {
    num_output: 384
    pad: 1
    kernel_size: 3
    group: 2
  }
}
layer {
  name: "relu4"
  type: "ReLU"
  bottom: "conv4"
  top: "conv4"
}
layer {
  name: "conv5"
  type: "Convolution"
  bottom: "conv4"
  top: "conv5"
  convolution_param {
    num_output: 256
    pad: 1
    kernel_size: 3
    group: 2
  }
}
layer {
  name: "relu5"
  type: "ReLU"
  bottom: "conv5"
  top: "conv5"
}
layer {
  name: "pool5"
  type: "Pooling"
  bottom: "conv5"
  top: "pool5"
  pooling_param {
    pool: MAX
    kernel_size: 3
    stride: 2
  }
}
layer {
  name: "fc6"
  type: "InnerProduct"
  bottom: "pool5"
  top: "fc6"
  inner_product_param {
    num_output: 4096
  }
}
layer {
  name: "relu6"
  type: "ReLU"
  bottom: "fc6"
  top: "fc6"
}
layer {
  name: "drop6"
  type: "Dropout"
  bottom: "fc6"
  top: "fc6"
  dropout_param {
    dropout_ratio: 0.5
  }
}
layer {
  name: "fc7"
  type: "InnerProduct"
  bottom: "fc6"
  top: "fc7"
  inner_product_param {
    num_output: 4096
  }
}
layer {
  name: "relu7"
  type: "ReLU"
  bottom: "fc7"
  top: "fc7"
}
layer {
  name: "drop7"
  type: "Dropout"
  bottom: "fc7"
  top: "fc7"
  dropout_param {
    dropout_ratio: 0.5
  }
}
layer {
  name: "fc8"
  type: "InnerProduct"
  bottom: "fc7"
  top: "fc8"
  inner_product_param {
    num_output: 1000
  }
}
layer {
  name: "prob"
  type: "Softmax"
  bottom: "fc8"
  top: "prob"
}
I0720 13:47:15.042222 29512 net.cpp:49] Initializing net from parameters: 
name: "CaffeNet"
state {
  phase: TEST
}
layer {
  name: "data"
  type: "Input"
  top: "data"
  input_param {
    shape {
      dim: 10
      dim: 3
      dim: 227
      dim: 227
    }
  }
}
layer {
  name: "conv1"
  type: "Convolution"
  bottom: "data"
  top: "conv1"
  convolution_param {
    num_output: 96
    kernel_size: 11
    stride: 4
  }
}
layer {
  name: "relu1"
  type: "ReLU"
  bottom: "conv1"
  top: "conv1"
}
layer {
  name: "pool1"
  type: "Pooling"
  bottom: "conv1"
  top: "pool1"
  pooling_param {
    pool: MAX
    kernel_size: 3
    stride: 2
  }
}
layer {
  name: "norm1"
  type: "LRN"
  bottom: "pool1"
  top: "norm1"
  lrn_param {
    local_size: 5
    alpha: 0.0001
    beta: 0.75
  }
}
layer {
  name: "conv2"
  type: "Convolution"
  bottom: "norm1"
  top: "conv2"
  convolution_param {
    num_output: 256
    pad: 2
    kernel_size: 5
    group: 2
  }
}
layer {
  name: "relu2"
  type: "ReLU"
  bottom: "conv2"
  top: "conv2"
}
layer {
  name: "pool2"
  type: "Pooling"
  bottom: "conv2"
  top: "pool2"
  pooling_param {
    pool: MAX
    kernel_size: 3
    stride: 2
  }
}
layer {
  name: "norm2"
  type: "LRN"
  bottom: "pool2"
  top: "norm2"
  lrn_param {
    local_size: 5
    alpha: 0.0001
    beta: 0.75
  }
}
layer {
  name: "conv3"
  type: "Convolution"
  bottom: "norm2"
  top: "conv3"
  convolution_param {
    num_output: 384
    pad: 1
    kernel_size: 3
  }
}
layer {
  name: "relu3"
  type: "ReLU"
  bottom: "conv3"
  top: "conv3"
}
layer {
  name: "conv4"
  type: "Convolution"
  bottom: "conv3"
  top: "conv4"
  convolution_param {
    num_output: 384
    pad: 1
    kernel_size: 3
    group: 2
  }
}
layer {
  name: "relu4"
  type: "ReLU"
  bottom: "conv4"
  top: "conv4"
}
layer {
  name: "conv5"
  type: "Convolution"
  bottom: "conv4"
  top: "conv5"
  convolution_param {
    num_output: 256
    pad: 1
    kernel_size: 3
    group: 2
  }
}
layer {
  name: "relu5"
  type: "ReLU"
  bottom: "conv5"
  top: "conv5"
}
layer {
  name: "pool5"
  type: "Pooling"
  bottom: "conv5"
  top: "pool5"
  pooling_param {
    pool: MAX
    kernel_size: 3
    stride: 2
  }
}
layer {
  name: "fc6"
  type: "InnerProduct"
  bottom: "pool5"
  top: "fc6"
  inner_product_param {
    num_output: 4096
  }
}
layer {
  name: "relu6"
  type: "ReLU"
  bottom: "fc6"
  top: "fc6"
}
layer {
  name: "drop6"
  type: "Dropout"
  bottom: "fc6"
  top: "fc6"
  dropout_param {
    dropout_ratio: 0.5
  }
}
layer {
  name: "fc7"
  type: "InnerProduct"
  bottom: "fc6"
  top: "fc7"
  inner_product_param {
    num_output: 4096
  }
}
layer {
  name: "relu7"
  type: "ReLU"
  bottom: "fc7"
  top: "fc7"
}
layer {
  name: "drop7"
  type: "Dropout"
  bottom: "fc7"
  top: "fc7"
  dropout_param {
    dropout_ratio: 0.5
  }
}
layer {
  name: "fc8"
  type: "InnerProduct"
  bottom: "fc7"
  top: "fc8"
  inner_product_param {
    num_output: 1000
  }
}
layer {
  name: "prob"
  type: "Softmax"
  bottom: "fc8"
  top: "prob"
}
I0720 13:47:15.042222 29490 net.cpp:49] Initializing net from parameters: 
name: "CaffeNet"
state {
  phase: TEST
}
layer {
  name: "data"
  type: "Input"
  top: "data"
  input_param {
    shape {
      dim: 10
      dim: 3
      dim: 227
      dim: 227
    }
  }
}
layer {
  name: "conv1"
  type: "Convolution"
  bottom: "data"
  top: "conv1"
  convolution_param {
    num_output: 96
    kernel_size: 11
    stride: 4
  }
}
layer {
  name: "relu1"
  type: "ReLU"
  bottom: "conv1"
  top: "conv1"
}
layer {
  name: "pool1"
  type: "Pooling"
  bottom: "conv1"
  top: "pool1"
  pooling_param {
    pool: MAX
    kernel_size: 3
    stride: 2
  }
}
layer {
  name: "norm1"
  type: "LRN"
  bottom: "pool1"
  top: "norm1"
  lrn_param {
    local_size: 5
    alpha: 0.0001
    beta: 0.75
  }
}
layer {
  name: "conv2"
  type: "Convolution"
  bottom: "norm1"
  top: "conv2"
  convolution_param {
    num_output: 256
    pad: 2
    kernel_size: 5
    group: 2
  }
}
layer {
  name: "relu2"
  type: "ReLU"
  bottom: "conv2"
  top: "conv2"
}
layer {
  name: "pool2"
  type: "Pooling"
  bottom: "conv2"
  top: "pool2"
  pooling_param {
    pool: MAX
    kernel_size: 3
    stride: 2
  }
}
layer {
  name: "norm2"
  type: "LRN"
  bottom: "pool2"
  top: "norm2"
  lrn_param {
    local_size: 5
    alpha: 0.0001
    beta: 0.75
  }
}
layer {
  name: "conv3"
  type: "Convolution"
  bottom: "norm2"
  top: "conv3"
  convolution_param {
    num_output: 384
    pad: 1
    kernel_size: 3
  }
}
layer {
  name: "relu3"
  type: "ReLU"
  bottom: "conv3"
  top: "conv3"
}
layer {
  name: "conv4"
  type: "Convolution"
  bottom: "conv3"
  top: "conv4"
  convolution_param {
    num_output: 384
    pad: 1
    kernel_size: 3
    group: 2
  }
}
layer {
  name: "relu4"
  type: "ReLU"
  bottom: "conv4"
  top: "conv4"
}
layer {
  name: "conv5"
  type: "Convolution"
  bottom: "conv4"
  top: "conv5"
  convolution_param {
    num_output: 256
    pad: 1
    kernel_size: 3
    group: 2
  }
}
layer {
  name: "relu5"
  type: "ReLU"
  bottom: "conv5"
  top: "conv5"
}
layer {
  name: "pool5"
  type: "Pooling"
  bottom: "conv5"
  top: "pool5"
  pooling_param {
    pool: MAX
    kernel_size: 3
    stride: 2
  }
}
layer {
  name: "fc6"
  type: "InnerProduct"
  bottom: "pool5"
  top: "fc6"
  inner_product_param {
    num_output: 4096
  }
}
layer {
  name: "relu6"
  type: "ReLU"
  bottom: "fc6"
  top: "fc6"
}
layer {
  name: "drop6"
  type: "Dropout"
  bottom: "fc6"
  top: "fc6"
  dropout_param {
    dropout_ratio: 0.5
  }
}
layer {
  name: "fc7"
  type: "InnerProduct"
  bottom: "fc6"
  top: "fc7"
  inner_product_param {
    num_output: 4096
  }
}
layer {
  name: "relu7"
  type: "ReLU"
  bottom: "fc7"
  top: "fc7"
}
layer {
  name: "drop7"
  type: "Dropout"
  bottom: "fc7"
  top: "fc7"
  dropout_param {
    dropout_ratio: 0.5
  }
}
layer {
  name: "fc8"
  type: "InnerProduct"
  bottom: "fc7"
  top: "fc8"
  inner_product_param {
    num_output: 1000
  }
}
layer {
  name: "prob"
  type: "Softmax"
  bottom: "fc8"
  top: "prob"
}
I0720 13:47:15.042222 29494 net.cpp:49] Initializing net from parameters: 
name: "CaffeNet"
state {
  phase: TEST
}
layer {
  name: "data"
  type: "Input"
  top: "data"
  input_param {
    shape {
      dim: 10
      dim: 3
      dim: 227
      dim: 227
    }
  }
}
layer {
  name: "conv1"
  type: "Convolution"
  bottom: "data"
  top: "conv1"
  convolution_param {
    num_output: 96
    kernel_size: 11
    stride: 4
  }
}
layer {
  name: "relu1"
  type: "ReLU"
  bottom: "conv1"
  top: "conv1"
}
layer {
  name: "pool1"
  type: "Pooling"
  bottom: "conv1"
  top: "pool1"
  pooling_param {
    pool: MAX
    kernel_size: 3
    stride: 2
  }
}
layer {
  name: "norm1"
  type: "LRN"
  bottom: "pool1"
  top: "norm1"
  lrn_param {
    local_size: 5
    alpha: 0.0001
    beta: 0.75
  }
}
layer {
  name: "conv2"
  type: "Convolution"
  bottom: "norm1"
  top: "conv2"
  convolution_param {
    num_output: 256
    pad: 2
    kernel_size: 5
    group: 2
  }
}
layer {
  name: "relu2"
  type: "ReLU"
  bottom: "conv2"
  top: "conv2"
}
layer {
  name: "pool2"
  type: "Pooling"
  bottom: "conv2"
  top: "pool2"
  pooling_param {
    pool: MAX
    kernel_size: 3
    stride: 2
  }
}
layer {
  name: "norm2"
  type: "LRN"
  bottom: "pool2"
  top: "norm2"
  lrn_param {
    local_size: 5
    alpha: 0.0001
    beta: 0.75
  }
}
layer {
  name: "conv3"
  type: "Convolution"
  bottom: "norm2"
  top: "conv3"
  convolution_param {
    num_output: 384
    pad: 1
    kernel_size: 3
  }
}
layer {
  name: "relu3"
  type: "ReLU"
  bottom: "conv3"
  top: "conv3"
}
layer {
  name: "conv4"
  type: "Convolution"
  bottom: "conv3"
  top: "conv4"
  convolution_param {
    num_output: 384
    pad: 1
    kernel_size: 3
    group: 2
  }
}
layer {
  name: "relu4"
  type: "ReLU"
  bottom: "conv4"
  top: "conv4"
}
layer {
  name: "conv5"
  type: "Convolution"
  bottom: "conv4"
  top: "conv5"
  convolution_param {
    num_output: 256
    pad: 1
    kernel_size: 3
    group: 2
  }
}
layer {
  name: "relu5"
  type: "ReLU"
  bottom: "conv5"
  top: "conv5"
}
layer {
  name: "pool5"
  type: "Pooling"
  bottom: "conv5"
  top: "pool5"
  pooling_param {
    pool: MAX
    kernel_size: 3
    stride: 2
  }
}
layer {
  name: "fc6"
  type: "InnerProduct"
  bottom: "pool5"
  top: "fc6"
  inner_product_param {
    num_output: 4096
  }
}
layer {
  name: "relu6"
  type: "ReLU"
  bottom: "fc6"
  top: "fc6"
}
layer {
  name: "drop6"
  type: "Dropout"
  bottom: "fc6"
  top: "fc6"
  dropout_param {
    dropout_ratio: 0.5
  }
}
layer {
  name: "fc7"
  type: "InnerProduct"
  bottom: "fc6"
  top: "fc7"
  inner_product_param {
    num_output: 4096
  }
}
layer {
  name: "relu7"
  type: "ReLU"
  bottom: "fc7"
  top: "fc7"
}
layer {
  name: "drop7"
  type: "Dropout"
  bottom: "fc7"
  top: "fc7"
  dropout_param {
    dropout_ratio: 0.5
  }
}
layer {
  name: "fc8"
  type: "InnerProduct"
  bottom: "fc7"
  top: "fc8"
  inner_product_param {
    num_output: 1000
  }
}
layer {
  name: "prob"
  type: "Softmax"
  bottom: "fc8"
  top: "prob"
}
I0720 13:47:15.042515 29482 layer_factory.hpp:77] Creating layer data
I0720 13:47:15.042516 29512 layer_factory.hpp:77] Creating layer data
I0720 13:47:15.042516 29522 layer_factory.hpp:77] Creating layer data
I0720 13:47:15.042516 29490 layer_factory.hpp:77] Creating layer data
I0720 13:47:15.042541 29494 layer_factory.hpp:77] Creating layer data
I0720 13:47:15.042553 29512 net.cpp:91] Creating Layer data
I0720 13:47:15.042553 29482 net.cpp:91] Creating Layer data
I0720 13:47:15.042223 29486 net.cpp:49] Initializing net from parameters: 
name: "CaffeNet"
state {
  phase: TEST
}
layer {
  name: "data"
  type: "Input"
  top: "data"
  input_param {
    shape {
      dim: 10
      dim: 3
      dim: 227
      dim: 227
    }
  }
}
layer {
  name: "conv1"
  type: "Convolution"
  bottom: "data"
  top: "conv1"
  convolution_param {
    num_output: 96
    kernel_size: 11
    stride: 4
  }
}
layer {
  name: "relu1"
  type: "ReLU"
  bottom: "conv1"
  top: "conv1"
}
layer {
  name: "pool1"
  type: "Pooling"
  bottom: "conv1"
  top: "pool1"
  pooling_param {
    pool: MAX
    kernel_size: 3
    stride: 2
  }
}
layer {
  name: "norm1"
  type: "LRN"
  bottom: "pool1"
  top: "norm1"
  lrn_param {
    local_size: 5
    alpha: 0.0001
    beta: 0.75
  }
}
layer {
  name: "conv2"
  type: "Convolution"
  bottom: "norm1"
  top: "conv2"
  convolution_param {
    num_output: 256
    pad: 2
    kernel_size: 5
    group: 2
  }
}
layer {
  name: "relu2"
  type: "ReLU"
  bottom: "conv2"
  top: "conv2"
}
layer {
  name: "pool2"
  type: "Pooling"
  bottom: "conv2"
  top: "pool2"
  pooling_param {
    pool: MAX
    kernel_size: 3
    stride: 2
  }
}
layer {
  name: "norm2"
  type: "LRN"
  bottom: "pool2"
  top: "norm2"
  lrn_param {
    local_size: 5
    alpha: 0.0001
    beta: 0.75
  }
}
layer {
  name: "conv3"
  type: "Convolution"
  bottom: "norm2"
  top: "conv3"
  convolution_param {
    num_output: 384
    pad: 1
    kernel_size: 3
  }
}
layer {
  name: "relu3"
  type: "ReLU"
  bottom: "conv3"
  top: "conv3"
}
layer {
  name: "conv4"
  type: "Convolution"
  bottom: "conv3"
  top: "conv4"
  convolution_param {
    num_output: 384
    pad: 1
    kernel_size: 3
    group: 2
  }
}
layer {
  name: "relu4"
  type: "ReLU"
  bottom: "conv4"
  top: "conv4"
}
layer {
  name: "conv5"
  type: "Convolution"
  bottom: "conv4"
  top: "conv5"
  convolution_param {
    num_output: 256
    pad: 1
    kernel_size: 3
    group: 2
  }
}
layer {
  name: "relu5"
  type: "ReLU"
  bottom: "conv5"
  top: "conv5"
}
layer {
  name: "pool5"
  type: "Pooling"
  bottom: "conv5"
  top: "pool5"
  pooling_param {
    pool: MAX
    kernel_size: 3
    stride: 2
  }
}
layer {
  name: "fc6"
  type: "InnerProduct"
  bottom: "pool5"
  top: "fc6"
  inner_product_param {
    num_output: 4096
  }
}
layer {
  name: "relu6"
  type: "ReLU"
  bottom: "fc6"
  top: "fc6"
}
layer {
  name: "drop6"
  type: "Dropout"
  bottom: "fc6"
  top: "fc6"
  dropout_param {
    dropout_ratio: 0.5
  }
}
layer {
  name: "fc7"
  type: "InnerProduct"
  bottom: "fc6"
  top: "fc7"
  inner_product_param {
    num_output: 4096
  }
}
layer {
  name: "relu7"
  type: "ReLU"
  bottom: "fc7"
  top: "fc7"
}
layer {
  name: "drop7"
  type: "Dropout"
  bottom: "fc7"
  top: "fc7"
  dropout_param {
    dropout_ratio: 0.5
  }
}
layer {
  name: "fc8"
  type: "InnerProduct"
  bottom: "fc7"
  top: "fc8"
  inner_product_param {
    num_output: 1000
  }
}
layer {
  name: "prob"
  type: "Softmax"
  bottom: "fc8"
  top: "prob"
}
I0720 13:47:15.042553 29522 net.cpp:91] Creating Layer data
I0720 13:47:15.042222 29504 net.cpp:49] Initializing net from parameters: 
name: "CaffeNet"
state {
  phase: TEST
}
layer {
  name: "data"
  type: "Input"
  top: "data"
  input_param {
    shape {
      dim: 10
      dim: 3
      dim: 227
      dim: 227
    }
  }
}
layer {
  name: "conv1"
  type: "Convolution"
  bottom: "data"
  top: "conv1"
  convolution_param {
    num_output: 96
    kernel_size: 11
    stride: 4
  }
}
layer {
  name: "relu1"
  type: "ReLU"
  bottom: "conv1"
  top: "conv1"
}
layer {
  name: "pool1"
  type: "Pooling"
  bottom: "conv1"
  top: "pool1"
  pooling_param {
    pool: MAX
    kernel_size: 3
    stride: 2
  }
}
layer {
  name: "norm1"
  type: "LRN"
  bottom: "pool1"
  top: "norm1"
  lrn_param {
    local_size: 5
    alpha: 0.0001
    beta: 0.75
  }
}
layer {
  name: "conv2"
  type: "Convolution"
  bottom: "norm1"
  top: "conv2"
  convolution_param {
    num_output: 256
    pad: 2
    kernel_size: 5
    group: 2
  }
}
layer {
  name: "relu2"
  type: "ReLU"
  bottom: "conv2"
  top: "conv2"
}
layer {
  name: "pool2"
  type: "Pooling"
  bottom: "conv2"
  top: "pool2"
  pooling_param {
    pool: MAX
    kernel_size: 3
    stride: 2
  }
}
layer {
  name: "norm2"
  type: "LRN"
  bottom: "pool2"
  top: "norm2"
  lrn_param {
    local_size: 5
    alpha: 0.0001
    beta: 0.75
  }
}
layer {
  name: "conv3"
  type: "Convolution"
  bottom: "norm2"
  top: "conv3"
  convolution_param {
    num_output: 384
    pad: 1
    kernel_size: 3
  }
}
layer {
  name: "relu3"
  type: "ReLU"
  bottom: "conv3"
  top: "conv3"
}
layer {
  name: "conv4"
  type: "Convolution"
  bottom: "conv3"
  top: "conv4"
  convolution_param {
    num_output: 384
    pad: 1
    kernel_size: 3
    group: 2
  }
}
layer {
  name: "relu4"
  type: "ReLU"
  bottom: "conv4"
  top: "conv4"
}
layer {
  name: "conv5"
  type: "Convolution"
  bottom: "conv4"
  top: "conv5"
  convolution_param {
    num_output: 256
    pad: 1
    kernel_size: 3
    group: 2
  }
}
layer {
  name: "relu5"
  type: "ReLU"
  bottom: "conv5"
  top: "conv5"
}
layer {
  name: "pool5"
  type: "Pooling"
  bottom: "conv5"
  top: "pool5"
  pooling_param {
    pool: MAX
    kernel_size: 3
    stride: 2
  }
}
layer {
  name: "fc6"
  type: "InnerProduct"
  bottom: "pool5"
  top: "fc6"
  inner_product_param {
    num_output: 4096
  }
}
layer {
  name: "relu6"
  type: "ReLU"
  bottom: "fc6"
  top: "fc6"
}
layer {
  name: "drop6"
  type: "Dropout"
  bottom: "fc6"
  top: "fc6"
  dropout_param {
    dropout_ratio: 0.5
  }
}
layer {
  name: "fc7"
  type: "InnerProduct"
  bottom: "fc6"
  top: "fc7"
  inner_product_param {
    num_output: 4096
  }
}
layer {
  name: "relu7"
  type: "ReLU"
  bottom: "fc7"
  top: "fc7"
}
layer {
  name: "drop7"
  type: "Dropout"
  bottom: "fc7"
  top: "fc7"
  dropout_param {
    dropout_ratio: 0.5
  }
}
layer {
  name: "fc8"
  type: "InnerProduct"
  bottom: "fc7"
  top: "fc8"
  inner_product_param {
    num_output: 1000
  }
}
layer {
  name: "prob"
  type: "Softmax"
  bottom: "fc8"
  top: "prob"
}
I0720 13:47:15.042516 29478 layer_factory.hpp:77] Creating layer data
I0720 13:47:15.042553 29490 net.cpp:91] Creating Layer data
I0720 13:47:15.042589 29522 net.cpp:399] data -> data
I0720 13:47:15.042567 29494 net.cpp:91] Creating Layer data
I0720 13:47:15.042573 29482 net.cpp:399] data -> data
I0720 13:47:15.042599 29478 net.cpp:91] Creating Layer data
I0720 13:47:15.042603 29490 net.cpp:399] data -> data
I0720 13:47:15.042609 29494 net.cpp:399] data -> data
I0720 13:47:15.042613 29478 net.cpp:399] data -> data
I0720 13:47:15.042664 29522 net.cpp:141] Setting up data
I0720 13:47:15.042664 29482 net.cpp:141] Setting up data
I0720 13:47:15.042664 29494 net.cpp:141] Setting up data
I0720 13:47:15.042664 29490 net.cpp:141] Setting up data
I0720 13:47:15.042709 29504 layer_factory.hpp:77] Creating layer data
I0720 13:47:15.042664 29478 net.cpp:141] Setting up data
I0720 13:47:15.042726 29486 layer_factory.hpp:77] Creating layer data
I0720 13:47:15.042733 29482 net.cpp:148] Top shape: 10 3 227 227 (1545870)
I0720 13:47:15.042737 29478 net.cpp:148] Top shape: 10 3 227 227 (1545870)
I0720 13:47:15.042732 29504 net.cpp:91] Creating Layer data
I0720 13:47:15.042733 29522 net.cpp:148] Top shape: 10 3 227 227 (1545870)
I0720 13:47:15.042733 29490 net.cpp:148] Top shape: 10 3 227 227 (1545870)
I0720 13:47:15.042753 29486 net.cpp:91] Creating Layer data
I0720 13:47:15.042758 29504 net.cpp:399] data -> data
I0720 13:47:15.042757 29490 net.cpp:156] Memory required for data: 6183480
I0720 13:47:15.042757 29522 net.cpp:156] Memory required for data: 6183480
I0720 13:47:15.042752 29478 net.cpp:156] Memory required for data: 6183480
I0720 13:47:15.042734 29494 net.cpp:148] Top shape: 10 3 227 227 (1545870)
I0720 13:47:15.042747 29482 net.cpp:156] Memory required for data: 6183480
I0720 13:47:15.042767 29486 net.cpp:399] data -> data
I0720 13:47:15.042778 29522 layer_factory.hpp:77] Creating layer conv1
I0720 13:47:15.042574 29512 net.cpp:399] data -> data
I0720 13:47:15.042781 29478 layer_factory.hpp:77] Creating layer conv1
I0720 13:47:15.042778 29490 layer_factory.hpp:77] Creating layer conv1
I0720 13:47:15.042803 29486 net.cpp:141] Setting up data
I0720 13:47:15.042805 29512 net.cpp:141] Setting up data
I0720 13:47:15.042790 29482 layer_factory.hpp:77] Creating layer conv1
I0720 13:47:15.042812 29478 net.cpp:91] Creating Layer conv1
I0720 13:47:15.042786 29494 net.cpp:156] Memory required for data: 6183480
I0720 13:47:15.042814 29490 net.cpp:91] Creating Layer conv1
I0720 13:47:15.042812 29522 net.cpp:91] Creating Layer conv1
I0720 13:47:15.042821 29486 net.cpp:148] Top shape: 10 3 227 227 (1545870)
I0720 13:47:15.042822 29512 net.cpp:148] Top shape: 10 3 227 227 (1545870)
I0720 13:47:15.042837 29490 net.cpp:425] conv1 <- data
I0720 13:47:15.042832 29478 net.cpp:425] conv1 <- data
I0720 13:47:15.042841 29522 net.cpp:425] conv1 <- data
I0720 13:47:15.042847 29512 net.cpp:156] Memory required for data: 6183480
I0720 13:47:15.042835 29494 layer_factory.hpp:77] Creating layer conv1
I0720 13:47:15.042845 29486 net.cpp:156] Memory required for data: 6183480
I0720 13:47:15.042835 29482 net.cpp:91] Creating Layer conv1
I0720 13:47:15.042781 29504 net.cpp:141] Setting up data
I0720 13:47:15.042861 29522 net.cpp:399] conv1 -> conv1
I0720 13:47:15.042861 29490 net.cpp:399] conv1 -> conv1
I0720 13:47:15.042875 29482 net.cpp:425] conv1 <- data
I0720 13:47:15.042879 29504 net.cpp:148] Top shape: 10 3 227 227 (1545870)
I0720 13:47:15.042860 29512 layer_factory.hpp:77] Creating layer conv1
I0720 13:47:15.042872 29494 net.cpp:91] Creating Layer conv1
I0720 13:47:15.042891 29504 net.cpp:156] Memory required for data: 6183480
I0720 13:47:15.042892 29482 net.cpp:399] conv1 -> conv1
I0720 13:47:15.042867 29486 layer_factory.hpp:77] Creating layer conv1
I0720 13:47:15.042898 29494 net.cpp:425] conv1 <- data
I0720 13:47:15.042901 29504 layer_factory.hpp:77] Creating layer conv1
I0720 13:47:15.042902 29512 net.cpp:91] Creating Layer conv1
I0720 13:47:15.042914 29494 net.cpp:399] conv1 -> conv1
I0720 13:47:15.042860 29478 net.cpp:399] conv1 -> conv1
I0720 13:47:15.042917 29512 net.cpp:425] conv1 <- data
I0720 13:47:15.042918 29486 net.cpp:91] Creating Layer conv1
I0720 13:47:15.042940 29512 net.cpp:399] conv1 -> conv1
I0720 13:47:15.042943 29486 net.cpp:425] conv1 <- data
I0720 13:47:15.042961 29486 net.cpp:399] conv1 -> conv1
I0720 13:47:15.042918 29504 net.cpp:91] Creating Layer conv1
I0720 13:47:15.043005 29504 net.cpp:425] conv1 <- data
I0720 13:47:15.043020 29504 net.cpp:399] conv1 -> conv1
I0720 13:47:15.043030 29506 net.cpp:49] Initializing net from parameters: 
name: "CaffeNet"
state {
  phase: TEST
}
layer {
  name: "data"
  type: "Input"
  top: "data"
  input_param {
    shape {
      dim: 10
      dim: 3
      dim: 227
      dim: 227
    }
  }
}
layer {
  name: "conv1"
  type: "Convolution"
  bottom: "data"
  top: "conv1"
  convolution_param {
    num_output: 96
    kernel_size: 11
    stride: 4
  }
}
layer {
  name: "relu1"
  type: "ReLU"
  bottom: "conv1"
  top: "conv1"
}
layer {
  name: "pool1"
  type: "Pooling"
  bottom: "conv1"
  top: "pool1"
  pooling_param {
    pool: MAX
    kernel_size: 3
    stride: 2
  }
}
layer {
  name: "norm1"
  type: "LRN"
  bottom: "pool1"
  top: "norm1"
  lrn_param {
    local_size: 5
    alpha: 0.0001
    beta: 0.75
  }
}
layer {
  name: "conv2"
  type: "Convolution"
  bottom: "norm1"
  top: "conv2"
  convolution_param {
    num_output: 256
    pad: 2
    kernel_size: 5
    group: 2
  }
}
layer {
  name: "relu2"
  type: "ReLU"
  bottom: "conv2"
  top: "conv2"
}
layer {
  name: "pool2"
  type: "Pooling"
  bottom: "conv2"
  top: "pool2"
  pooling_param {
    pool: MAX
    kernel_size: 3
    stride: 2
  }
}
layer {
  name: "norm2"
  type: "LRN"
  bottom: "pool2"
  top: "norm2"
  lrn_param {
    local_size: 5
    alpha: 0.0001
    beta: 0.75
  }
}
layer {
  name: "conv3"
  type: "Convolution"
  bottom: "norm2"
  top: "conv3"
  convolution_param {
    num_output: 384
    pad: 1
    kernel_size: 3
  }
}
layer {
  name: "relu3"
  type: "ReLU"
  bottom: "conv3"
  top: "conv3"
}
layer {
  name: "conv4"
  type: "Convolution"
  bottom: "conv3"
  top: "conv4"
  convolution_param {
    num_output: 384
    pad: 1
    kernel_size: 3
    group: 2
  }
}
layer {
  name: "relu4"
  type: "ReLU"
  bottom: "conv4"
  top: "conv4"
}
layer {
  name: "conv5"
  type: "Convolution"
  bottom: "conv4"
  top: "conv5"
  convolution_param {
    num_output: 256
    pad: 1
    kernel_size: 3
    group: 2
  }
}
layer {
  name: "relu5"
  type: "ReLU"
  bottom: "conv5"
  top: "conv5"
}
layer {
  name: "pool5"
  type: "Pooling"
  bottom: "conv5"
  top: "pool5"
  pooling_param {
    pool: MAX
    kernel_size: 3
    stride: 2
  }
}
layer {
  name: "fc6"
  type: "InnerProduct"
  bottom: "pool5"
  top: "fc6"
  inner_product_param {
    num_output: 4096
  }
}
layer {
  name: "relu6"
  type: "ReLU"
  bottom: "fc6"
  top: "fc6"
}
layer {
  name: "drop6"
  type: "Dropout"
  bottom: "fc6"
  top: "fc6"
  dropout_param {
    dropout_ratio: 0.5
  }
}
layer {
  name: "fc7"
  type: "InnerProduct"
  bottom: "fc6"
  top: "fc7"
  inner_product_param {
    num_output: 4096
  }
}
layer {
  name: "relu7"
  type: "ReLU"
  bottom: "fc7"
  top: "fc7"
}
layer {
  name: "drop7"
  type: "Dropout"
  bottom: "fc7"
  top: "fc7"
  dropout_param {
    dropout_ratio: 0.5
  }
}
layer {
  name: "fc8"
  type: "InnerProduct"
  bottom: "fc7"
  top: "fc8"
  inner_product_param {
    num_output: 1000
  }
}
layer {
  name: "prob"
  type: "Softmax"
  bottom: "fc8"
  top: "prob"
}
I0720 13:47:15.043160 29506 layer_factory.hpp:77] Creating layer data
I0720 13:47:15.043179 29506 net.cpp:91] Creating Layer data
I0720 13:47:15.043190 29506 net.cpp:399] data -> data
I0720 13:47:15.043205 29506 net.cpp:141] Setting up data
I0720 13:47:15.043217 29506 net.cpp:148] Top shape: 10 3 227 227 (1545870)
I0720 13:47:15.043226 29506 net.cpp:156] Memory required for data: 6183480
I0720 13:47:15.043233 29506 layer_factory.hpp:77] Creating layer conv1
I0720 13:47:15.043247 29506 net.cpp:91] Creating Layer conv1
I0720 13:47:15.043256 29506 net.cpp:425] conv1 <- data
I0720 13:47:15.043267 29506 net.cpp:399] conv1 -> conv1
I0720 13:47:15.042769 29510 net.cpp:49] Initializing net from parameters: 
name: "CaffeNet"
state {
  phase: TEST
}
layer {
  name: "data"
  type: "Input"
  top: "data"
  input_param {
    shape {
      dim: 10
      dim: 3
      dim: 227
      dim: 227
    }
  }
}
layer {
  name: "conv1"
  type: "Convolution"
  bottom: "data"
  top: "conv1"
  convolution_param {
    num_output: 96
    kernel_size: 11
    stride: 4
  }
}
layer {
  name: "relu1"
  type: "ReLU"
  bottom: "conv1"
  top: "conv1"
}
layer {
  name: "pool1"
  type: "Pooling"
  bottom: "conv1"
  top: "pool1"
  pooling_param {
    pool: MAX
    kernel_size: 3
    stride: 2
  }
}
layer {
  name: "norm1"
  type: "LRN"
  bottom: "pool1"
  top: "norm1"
  lrn_param {
    local_size: 5
    alpha: 0.0001
    beta: 0.75
  }
}
layer {
  name: "conv2"
  type: "Convolution"
  bottom: "norm1"
  top: "conv2"
  convolution_param {
    num_output: 256
    pad: 2
    kernel_size: 5
    group: 2
  }
}
layer {
  name: "relu2"
  type: "ReLU"
  bottom: "conv2"
  top: "conv2"
}
layer {
  name: "pool2"
  type: "Pooling"
  bottom: "conv2"
  top: "pool2"
  pooling_param {
    pool: MAX
    kernel_size: 3
    stride: 2
  }
}
layer {
  name: "norm2"
  type: "LRN"
  bottom: "pool2"
  top: "norm2"
  lrn_param {
    local_size: 5
    alpha: 0.0001
    beta: 0.75
  }
}
layer {
  name: "conv3"
  type: "Convolution"
  bottom: "norm2"
  top: "conv3"
  convolution_param {
    num_output: 384
    pad: 1
    kernel_size: 3
  }
}
layer {
  name: "relu3"
  type: "ReLU"
  bottom: "conv3"
  top: "conv3"
}
layer {
  name: "conv4"
  type: "Convolution"
  bottom: "conv3"
  top: "conv4"
  convolution_param {
    num_output: 384
    pad: 1
    kernel_size: 3
    group: 2
  }
}
layer {
  name: "relu4"
  type: "ReLU"
  bottom: "conv4"
  top: "conv4"
}
layer {
  name: "conv5"
  type: "Convolution"
  bottom: "conv4"
  top: "conv5"
  convolution_param {
    num_output: 256
    pad: 1
    kernel_size: 3
    group: 2
  }
}
layer {
  name: "relu5"
  type: "ReLU"
  bottom: "conv5"
  top: "conv5"
}
layer {
  name: "pool5"
  type: "Pooling"
  bottom: "conv5"
  top: "pool5"
  pooling_param {
    pool: MAX
    kernel_size: 3
    stride: 2
  }
}
layer {
  name: "fc6"
  type: "InnerProduct"
  bottom: "pool5"
  top: "fc6"
  inner_product_param {
    num_output: 4096
  }
}
layer {
  name: "relu6"
  type: "ReLU"
  bottom: "fc6"
  top: "fc6"
}
layer {
  name: "drop6"
  type: "Dropout"
  bottom: "fc6"
  top: "fc6"
  dropout_param {
    dropout_ratio: 0.5
  }
}
layer {
  name: "fc7"
  type: "InnerProduct"
  bottom: "fc6"
  top: "fc7"
  inner_product_param {
    num_output: 4096
  }
}
layer {
  name: "relu7"
  type: "ReLU"
  bottom: "fc7"
  top: "fc7"
}
layer {
  name: "drop7"
  type: "Dropout"
  bottom: "fc7"
  top: "fc7"
  dropout_param {
    dropout_ratio: 0.5
  }
}
layer {
  name: "fc8"
  type: "InnerProduct"
  bottom: "fc7"
  top: "fc8"
  inner_product_param {
    num_output: 1000
  }
}
layer {
  name: "prob"
  type: "Softmax"
  bottom: "fc8"
  top: "prob"
}
I0720 13:47:15.043452 29510 layer_factory.hpp:77] Creating layer data
I0720 13:47:15.043464 29510 net.cpp:91] Creating Layer data
I0720 13:47:15.043469 29510 net.cpp:399] data -> data
I0720 13:47:15.043480 29510 net.cpp:141] Setting up data
I0720 13:47:15.043488 29510 net.cpp:148] Top shape: 10 3 227 227 (1545870)
I0720 13:47:15.043493 29510 net.cpp:156] Memory required for data: 6183480
I0720 13:47:15.043498 29510 layer_factory.hpp:77] Creating layer conv1
I0720 13:47:15.043505 29510 net.cpp:91] Creating Layer conv1
I0720 13:47:15.043509 29510 net.cpp:425] conv1 <- data
I0720 13:47:15.043516 29510 net.cpp:399] conv1 -> conv1
I0720 13:47:15.592478 29518 upgrade_proto.cpp:66] Attempting to upgrade input file specified using deprecated input fields: /tmp/cvld1992645188532439152/s2vt.words_to_preds.prototxt
I0720 13:47:15.592545 29518 upgrade_proto.cpp:69] Successfully upgraded file specified using deprecated input fields.
W0720 13:47:15.592559 29518 upgrade_proto.cpp:71] Note that future Caffe releases will only support input layers and not input fields.
I0720 13:47:15.592880 29518 net.cpp:49] Initializing net from parameters: 
name: "s2vt:features_to_lstm"
state {
  phase: TEST
}
layer {
  name: "input"
  type: "Input"
  top: "frames_fc7"
  top: "cont_sentence"
  top: "input_sentence"
  top: "stage_indicator"
  input_param {
    shape {
      dim: 1
      dim: 4096
    }
    shape {
      dim: 1
      dim: 1
    }
    shape {
      dim: 1
      dim: 1
    }
    shape {
      dim: 1
      dim: 1
    }
  }
}
layer {
  name: "embed_encoder"
  type: "InnerProduct"
  bottom: "frames_fc7"
  top: "embedded_in_frames"
  param {
    lr_mult: 1
    decay_mult: 1
  }
  param {
    lr_mult: 2
    decay_mult: 0
  }
  inner_product_param {
    num_output: 500
    weight_filler {
      type: "xavier"
    }
    bias_filler {
      type: "constant"
      value: 0.2
    }
  }
}
layer {
  name: "reshape_frames"
  type: "Reshape"
  bottom: "embedded_in_frames"
  top: "embedded_input_frames"
  reshape_param {
    shape {
      dim: 1
      dim: 1
      dim: 500
    }
  }
}
layer {
  name: "reshape_stage_indicator"
  type: "Reshape"
  bottom: "stage_indicator"
  top: "reshaped_stage_indicator"
  reshape_param {
    shape {
      dim: 1
      dim: 1
      dim: 1
    }
  }
}
layer {
  name: "embedding"
  type: "Embed"
  bottom: "input_sentence"
  top: "embedded_input_sentence"
  param {
    lr_mult: 1
  }
  embed_param {
    num_output: 500
    input_dim: 46168
    bias_term: false
    weight_filler {
      type: "uniform"
      min: -0.08
      max: 0.08
    }
  }
}
layer {
  name: "lstm1"
  type: "LSTM"
  bottom: "embedded_input_frames"
  bottom: "cont_sentence"
  top: "lstm1"
  recurrent_param {
    num_output: 1000
    weight_filler {
      type: "uniform"
      min: -0.08
      max: 0.08
    }
    bias_filler {
      type: "constant"
      value: 0
    }
  }
}
layer {
  name: "concat"
  type: "Concat"
  bottom: "lstm1"
  bottom: "embedded_input_sentence"
  bottom: "reshaped_stage_indicator"
  top: "lstm1_video_sequence"
  concat_param {
    concat_dim: 2
  }
}
layer {
  name: "lstm2"
  type: "LSTM"
  bottom: "lstm1_video_sequence"
  bottom: "cont_sentence"
  top: "lstm2"
  recurrent_param {
    num_output: 1000
    weight_filler {
      type: "uniform"
      min: -0.08
      max: 0.08
    }
    bias_filler {
      type: "constant"
      value: 0
    }
  }
}
layer {
  name: "predict"
  type: "InnerProduct"
  bottom: "lstm2"
  top: "predict"
  param {
    lr_mult: 1
    decay_mult: 1
  }
  param {
    lr_mult: 2
    decay_mult: 0
  }
  inner_product_param {
    num_output: 46168
    weight_filler {
      type: "uniform"
      min: -0.08
      max: 0.08
    }
    bias_filler {
      type: "constant"
      value: 0
    }
    axis: 2
  }
}
layer {
  name: "probs"
  type: "Softmax"
  bottom: "predict"
  top: "probs"
  softmax_param {
    axis: 2
  }
}
I0720 13:47:15.592986 29518 layer_factory.hpp:77] Creating layer input
I0720 13:47:15.593003 29518 net.cpp:91] Creating Layer input
I0720 13:47:15.593010 29518 net.cpp:399] input -> frames_fc7
I0720 13:47:15.593031 29518 net.cpp:399] input -> cont_sentence
I0720 13:47:15.593041 29518 net.cpp:399] input -> input_sentence
I0720 13:47:15.593050 29518 net.cpp:399] input -> stage_indicator
I0720 13:47:15.593066 29518 net.cpp:141] Setting up input
I0720 13:47:15.593076 29518 net.cpp:148] Top shape: 1 4096 (4096)
I0720 13:47:15.593081 29518 net.cpp:148] Top shape: 1 1 (1)
I0720 13:47:15.593086 29518 net.cpp:148] Top shape: 1 1 (1)
I0720 13:47:15.593092 29518 net.cpp:148] Top shape: 1 1 (1)
I0720 13:47:15.593096 29518 net.cpp:156] Memory required for data: 16396
I0720 13:47:15.593101 29518 layer_factory.hpp:77] Creating layer cont_sentence_input_1_split
I0720 13:47:15.593122 29518 net.cpp:91] Creating Layer cont_sentence_input_1_split
I0720 13:47:15.593127 29518 net.cpp:425] cont_sentence_input_1_split <- cont_sentence
I0720 13:47:15.593148 29518 net.cpp:399] cont_sentence_input_1_split -> cont_sentence_input_1_split_0
I0720 13:47:15.593158 29518 net.cpp:399] cont_sentence_input_1_split -> cont_sentence_input_1_split_1
I0720 13:47:15.593170 29518 net.cpp:141] Setting up cont_sentence_input_1_split
I0720 13:47:15.593178 29518 net.cpp:148] Top shape: 1 1 (1)
I0720 13:47:15.593184 29518 net.cpp:148] Top shape: 1 1 (1)
I0720 13:47:15.593189 29518 net.cpp:156] Memory required for data: 16404
I0720 13:47:15.593192 29518 layer_factory.hpp:77] Creating layer embed_encoder
I0720 13:47:15.593209 29518 net.cpp:91] Creating Layer embed_encoder
I0720 13:47:15.593214 29518 net.cpp:425] embed_encoder <- frames_fc7
I0720 13:47:15.593224 29518 net.cpp:399] embed_encoder -> embedded_in_frames
I0720 13:47:15.597461 29488 upgrade_proto.cpp:66] Attempting to upgrade input file specified using deprecated input fields: /tmp/cvld1992645188532439152/s2vt.words_to_preds.prototxt
…
W0720 13:47:15.597512 29514 upgrade_proto.cpp:71] Note that future Caffe releases will only support input layers and not input fields.
I0720 13:47:15.597813 29488 net.cpp:49] Initializing net from parameters: 
name: "s2vt:features_to_lstm"
state {
  phase: TEST
}
layer {
  name: "input"
  type: "Input"
  top: "frames_fc7"
  top: "cont_sentence"
  top: "input_sentence"
  top: "stage_indicator"
  input_param {
    shape {
      dim: 1
      dim: 4096
    }
    shape {
      dim: 1
      dim: 1
    }
    shape {
      dim: 1
      dim: 1
    }
    shape {
      dim: 1
      dim: 1
    }
  }
}
layer {
  name: "embed_encoder"
  type: "InnerProduct"
  bottom: "frames_fc7"
  top: "embedded_in_frames"
  param {
    lr_mult: 1
    decay_mult: 1
  }
  param {
    lr_mult: 2
    decay_mult: 0
  }
  inner_product_param {
    num_output: 500
    weight_filler {
      type: "xavier"
    }
    bias_filler {
      type: "constant"
      value: 0.2
    }
  }
}
layer {
  name: "reshape_frames"
  type: "Reshape"
  bottom: "embedded_in_frames"
  top: "embedded_input_frames"
  reshape_param {
    shape {
      dim: 1
      dim: 1
      dim: 500
    }
  }
}
layer {
  name: "reshape_stage_indicator"
  type: "Reshape"
  bottom: "stage_indicator"
  top: "reshaped_stage_indicator"
  reshape_param {
    shape {
      dim: 1
      dim: 1
      dim: 1
    }
  }
}
layer {
  name: "embedding"
  type: "Embed"
  bottom: "input_sentence"
  top: "embedded_input_sentence"
  param {
    lr_mult: 1
  }
  embed_param {
    num_output: 500
    input_dim: 46168
    bias_term: false
    weight_filler {
      type: "uniform"
      min: -0.08
      max: 0.08
    }
  }
}
layer {
  name: "lstm1"
  type: "LSTM"
  bottom: "embedded_input_frames"
  bottom: "cont_sentence"
  top: "lstm1"
  recurrent_param {
    num_output: 1000
    weight_filler {
      type: "uniform"
      min: -0.08
      max: 0.08
    }
    bias_filler {
      type: "constant"
      value: 0
    }
  }
}
layer {
  name: "concat"
  type: "Concat"
  bottom: "lstm1"
  bottom: "embedded_input_sentence"
  bottom: "reshaped_stage_indicator"
  top: "lstm1_video_sequence"
  concat_param {
    concat_dim: 2
  }
}
layer {
  name: "lstm2"
  type: "LSTM"
  bottom: "lstm1_video_sequence"
  bottom: "cont_sentence"
  top: "lstm2"
  recurrent_param {
    num_output: 1000
    weight_filler {
      type: "uniform"
      min: -0.08
      max: 0.08
    }
    bias_filler {
      type: "constant"
      value: 0
    }
  }
}
layer {
  name: "predict"
  type: "InnerProduct"
  bottom: "lstm2"
  top: "predict"
  param {
    lr_mult: 1
    decay_mult: 1
  }
  param {
    lr_mult: 2
    decay_mult: 0
  }
  inner_product_param {
    num_output: 46168
    weight_filler {
      type: "uniform"
      min: -0.08
      max: 0.08
    }
    bias_filler {
      type: "constant"
      value: 0
    }
    axis: 2
  }
}
layer {
  name: "probs"
  type: "Softmax"
  bottom: "predict"
  top: "probs"
  softmax_param {
    axis: 2
  }
}
I0720 13:47:15.597908 29470 upgrade_proto.cpp:66] Attempting to upgrade input file specified using deprecated input fields: /tmp/cvld1992645188532439152/s2vt.words_to_preds.prototxt
I0720 13:47:15.597921 29470 upgrade_proto.cpp:69] Successfully upgraded file specified using deprecated input fields.
I0720 13:47:15.597918 29476 upgrade_proto.cpp:66] Attempting to upgrade input file specified using deprecated input fields: /tmp/cvld1992645188532439152/s2vt.words_to_preds.prototxt
W0720 13:47:15.597929 29470 upgrade_proto.cpp:71] Note that future Caffe releases will only support input layers and not input fields.
I0720 13:47:15.597947 29476 upgrade_proto.cpp:69] Successfully upgraded file specified using deprecated input fields.
W0720 13:47:15.597954 29476 upgrade_proto.cpp:71] Note that future Caffe releases will only support input layers and not input fields.
I0720 13:47:15.598081 29514 net.cpp:49] Initializing net from parameters: 
name: "s2vt:features_to_lstm"
state {
  phase: TEST
}
layer {
  name: "input"
  type: "Input"
  top: "frames_fc7"
  top: "cont_sentence"
  top: "input_sentence"
  top: "stage_indicator"
  input_param {
    shape {
      dim: 1
      dim: 4096
    }
    shape {
      dim: 1
      dim: 1
    }
    shape {
      dim: 1
      dim: 1
    }
    shape {
      dim: 1
      dim: 1
    }
  }
}
layer {
  name: "embed_encoder"
  type: "InnerProduct"
  bottom: "frames_fc7"
  top: "embedded_in_frames"
  param {
    lr_mult: 1
    decay_mult: 1
  }
  param {
    lr_mult: 2
    decay_mult: 0
  }
  inner_product_param {
    num_output: 500
    weight_filler {
      type: "xavier"
    }
    bias_filler {
      type: "constant"
      value: 0.2
    }
  }
}
layer {
  name: "reshape_frames"
  type: "Reshape"
  bottom: "embedded_in_frames"
  top: "embedded_input_frames"
  reshape_param {
    shape {
      dim: 1
      dim: 1
      dim: 500
    }
  }
}
layer {
  name: "reshape_stage_indicator"
  type: "Reshape"
  bottom: "stage_indicator"
  top: "reshaped_stage_indicator"
  reshape_param {
    shape {
      dim: 1
      dim: 1
      dim: 1
    }
  }
}
layer {
  name: "embedding"
  type: "Embed"
  bottom: "input_sentence"
  top: "embedded_input_sentence"
  param {
    lr_mult: 1
  }
  embed_param {
    num_output: 500
    input_dim: 46168
    bias_term: false
    weight_filler {
      type: "uniform"
      min: -0.08
      max: 0.08
    }
  }
}
layer {
  name: "lstm1"
  type: "LSTM"
  bottom: "embedded_input_frames"
  bottom: "cont_sentence"
  top: "lstm1"
  recurrent_param {
    num_output: 1000
    weight_filler {
      type: "uniform"
      min: -0.08
      max: 0.08
    }
    bias_filler {
      type: "constant"
      value: 0
    }
  }
}
layer {
  name: "concat"
  type: "Concat"
  bottom: "lstm1"
  bottom: "embedded_input_sentence"
  bottom: "reshaped_stage_indicator"
  top: "lstm1_video_sequence"
  concat_param {
    concat_dim: 2
  }
}
layer {
  name: "lstm2"
  type: "LSTM"
  bottom: "lstm1_video_sequence"
  bottom: "cont_sentence"
  top: "lstm2"
  recurrent_param {
    num_output: 1000
    weight_filler {
      type: "uniform"
      min: -0.08
      max: 0.08
    }
    bias_filler {
      type: "constant"
      value: 0
    }
  }
}
layer {
  name: "predict"
  type: "InnerProduct"
  bottom: "lstm2"
  top: "predict"
  param {
    lr_mult: 1
    decay_mult: 1
  }
  param {
    lr_mult: 2
    decay_mult: 0
  }
  inner_product_param {
    num_output: 46168
    weight_filler {
      type: "uniform"
      min: -0.08
      max: 0.08
    }
    bias_filler {
      type: "constant"
      value: 0
    }
    axis: 2
  }
}
layer {
  name: "probs"
  type: "Softmax"
  bottom: "predict"
  top: "probs"
  softmax_param {
    axis: 2
  }
}
I0720 13:47:15.598107 29488 layer_factory.hpp:77] Creating layer input
I0720 13:47:15.598117 29492 upgrade_proto.cpp:66] Attempting to upgrade input file specified using deprecated input fields: /tmp/cvld1992645188532439152/s2vt.words_to_preds.prototxt
I0720 13:47:15.598129 29488 net.cpp:91] Creating Layer input
I0720 13:47:15.598142 29488 net.cpp:399] input -> frames_fc7
I0720 13:47:15.598145 29492 upgrade_proto.cpp:69] Successfully upgraded file specified using deprecated input fields.
W0720 13:47:15.598155 29492 upgrade_proto.cpp:71] Note that future Caffe releases will only support input layers and not input fields.
I0720 13:47:15.598163 29488 net.cpp:399] input -> cont_sentence
I0720 13:47:15.598181 29488 net.cpp:399] input -> input_sentence
I0720 13:47:15.598202 29488 net.cpp:399] input -> stage_indicator
I0720 13:47:15.598223 29488 net.cpp:141] Setting up input
I0720 13:47:15.598225 29514 layer_factory.hpp:77] Creating layer input
I0720 13:47:15.598237 29488 net.cpp:148] Top shape: 1 4096 (4096)
I0720 13:47:15.598248 29488 net.cpp:148] Top shape: 1 1 (1)
I0720 13:47:15.598248 29514 net.cpp:91] Creating Layer input
I0720 13:47:15.598274 29488 net.cpp:148] Top shape: 1 1 (1)
I0720 13:47:15.598285 29488 net.cpp:148] Top shape: 1 1 (1)
I0720 13:47:15.598285 29514 net.cpp:399] input -> frames_fc7
I0720 13:47:15.598294 29488 net.cpp:156] Memory required for data: 16396
I0720 13:47:15.598302 29488 layer_factory.hpp:77] Creating layer cont_sentence_input_1_split
I0720 13:47:15.598311 29514 net.cpp:399] input -> cont_sentence
I0720 13:47:15.598316 29488 net.cpp:91] Creating Layer cont_sentence_input_1_split
I0720 13:47:15.598325 29488 net.cpp:425] cont_sentence_input_1_split <- cont_sentence
I0720 13:47:15.598335 29514 net.cpp:399] input -> input_sentence
I0720 13:47:15.598362 29470 net.cpp:49] Initializing net from parameters: 
name: "s2vt:features_to_lstm"
state {
  phase: TEST
}
layer {
  name: "input"
  type: "Input"
  top: "frames_fc7"
  top: "cont_sentence"
  top: "input_sentence"
  top: "stage_indicator"
  input_param {
    shape {
      dim: 1
      dim: 4096
    }
    shape {
      dim: 1
      dim: 1
    }
    shape {
      dim: 1
      dim: 1
    }
    shape {
      dim: 1
      dim: 1
    }
  }
}
layer {
  name: "embed_encoder"
  type: "InnerProduct"
  bottom: "frames_fc7"
  top: "embedded_in_frames"
  param {
    lr_mult: 1
    decay_mult: 1
  }
  param {
    lr_mult: 2
    decay_mult: 0
  }
  inner_product_param {
    num_output: 500
    weight_filler {
      type: "xavier"
    }
    bias_filler {
      type: "constant"
      value: 0.2
    }
  }
}
layer {
  name: "reshape_frames"
  type: "Reshape"
  bottom: "embedded_in_frames"
  top: "embedded_input_frames"
  reshape_param {
    shape {
      dim: 1
      dim: 1
      dim: 500
    }
  }
}
layer {
  name: "reshape_stage_indicator"
  type: "Reshape"
  bottom: "stage_indicator"
  top: "reshaped_stage_indicator"
  reshape_param {
    shape {
      dim: 1
      dim: 1
      dim: 1
    }
  }
}
layer {
  name: "embedding"
  type: "Embed"
  bottom: "input_sentence"
  top: "embedded_input_sentence"
  param {
    lr_mult: 1
  }
  embed_param {
    num_output: 500
    input_dim: 46168
    bias_term: false
    weight_filler {
      type: "uniform"
      min: -0.08
      max: 0.08
    }
  }
}
layer {
  name: "lstm1"
  type: "LSTM"
  bottom: "embedded_input_frames"
  bottom: "cont_sentence"
  top: "lstm1"
  recurrent_param {
    num_output: 1000
    weight_filler {
      type: "uniform"
      min: -0.08
      max: 0.08
    }
    bias_filler {
      type: "constant"
      value: 0
    }
  }
}
layer {
  name: "concat"
  type: "Concat"
  bottom: "lstm1"
  bottom: "embedded_input_sentence"
  bottom: "reshaped_stage_indicator"
  top: "lstm1_video_sequence"
  concat_param {
    concat_dim: 2
  }
}
layer {
  name: "lstm2"
  type: "LSTM"
  bottom: "lstm1_video_sequence"
  bottom: "cont_sentence"
  top: "lstm2"
  recurrent_param {
    num_output: 1000
    weight_filler {
      type: "uniform"
      min: -0.08
      max: 0.08
    }
    bias_filler {
      type: "constant"
      value: 0
    }
  }
}
layer {
  name: "predict"
  type: "InnerProduct"
  bottom: "lstm2"
  top: "predict"
  param {
    lr_mult: 1
    decay_mult: 1
  }
  param {
    lr_mult: 2
    decay_mult: 0
  }
  inner_product_param {
    num_output: 46168
    weight_filler {
      type: "uniform"
      min: -0.08
      max: 0.08
    }
    bias_filler {
      type: "constant"
      value: 0
    }
    axis: 2
  }
}
layer {
  name: "probs"
  type: "Softmax"
  bottom: "predict"
  top: "probs"
  softmax_param {
    axis: 2
  }
}
I0720 13:47:15.598366 29514 net.cpp:399] input -> stage_indicator
I0720 13:47:15.598405 29514 net.cpp:141] Setting up input
I0720 13:47:15.598422 29514 net.cpp:148] Top shape: 1 4096 (4096)
I0720 13:47:15.598424 29476 net.cpp:49] Initializing net from parameters: 
name: "s2vt:features_to_lstm"
state {
  phase: TEST
}
layer {
  name: "input"
  type: "Input"
  top: "frames_fc7"
  top: "cont_sentence"
  top: "input_sentence"
  top: "stage_indicator"
  input_param {
    shape {
      dim: 1
      dim: 4096
    }
    shape {
      dim: 1
      dim: 1
    }
    shape {
      dim: 1
      dim: 1
    }
    shape {
      dim: 1
      dim: 1
    }
  }
}
layer {
  name: "embed_encoder"
  type: "InnerProduct"
  bottom: "frames_fc7"
  top: "embedded_in_frames"
  param {
    lr_mult: 1
    decay_mult: 1
  }
  param {
    lr_mult: 2
    decay_mult: 0
  }
  inner_product_param {
    num_output: 500
    weight_filler {
      type: "xavier"
    }
    bias_filler {
      type: "constant"
      value: 0.2
    }
  }
}
layer {
  name: "reshape_frames"
  type: "Reshape"
  bottom: "embedded_in_frames"
  top: "embedded_input_frames"
  reshape_param {
    shape {
      dim: 1
      dim: 1
      dim: 500
    }
  }
}
layer {
  name: "reshape_stage_indicator"
  type: "Reshape"
  bottom: "stage_indicator"
  top: "reshaped_stage_indicator"
  reshape_param {
    shape {
      dim: 1
      dim: 1
      dim: 1
    }
  }
}
layer {
  name: "embedding"
  type: "Embed"
  bottom: "input_sentence"
  top: "embedded_input_sentence"
  param {
    lr_mult: 1
  }
  embed_param {
    num_output: 500
    input_dim: 46168
    bias_term: false
    weight_filler {
      type: "uniform"
      min: -0.08
      max: 0.08
    }
  }
}
layer {
  name: "lstm1"
  type: "LSTM"
  bottom: "embedded_input_frames"
  bottom: "cont_sentence"
  top: "lstm1"
  recurrent_param {
    num_output: 1000
    weight_filler {
      type: "uniform"
      min: -0.08
      max: 0.08
    }
    bias_filler {
      type: "constant"
      value: 0
    }
  }
}
layer {
  name: "concat"
  type: "Concat"
  bottom: "lstm1"
  bottom: "embedded_input_sentence"
  bottom: "reshaped_stage_indicator"
  top: "lstm1_video_sequence"
  concat_param {
    concat_dim: 2
  }
}
layer {
  name: "lstm2"
  type: "LSTM"
  bottom: "lstm1_video_sequence"
  bottom: "cont_sentence"
  top: "lstm2"
  recurrent_param {
    num_output: 1000
    weight_filler {
      type: "uniform"
      min: -0.08
      max: 0.08
    }
    bias_filler {
      type: "constant"
      value: 0
    }
  }
}
layer {
  name: "predict"
  type: "InnerProduct"
  bottom: "lstm2"
  top: "predict"
  param {
    lr_mult: 1
    decay_mult: 1
  }
  param {
    lr_mult: 2
    decay_mult: 0
  }
  inner_product_param {
    num_output: 46168
    weight_filler {
      type: "uniform"
      min: -0.08
      max: 0.08
    }
    bias_filler {
      type: "constant"
      value: 0
    }
    axis: 2
  }
}
layer {
  name: "probs"
  type: "Softmax"
  bottom: "predict"
  top: "probs"
  softmax_param {
    axis: 2
  }
}
I0720 13:47:15.598436 29514 net.cpp:148] Top shape: 1 1 (1)
I0720 13:47:15.598443 29492 net.cpp:49] Initializing net from parameters: 
name: "s2vt:features_to_lstm"
state {
  phase: TEST
}
layer {
  name: "input"
  type: "Input"
  top: "frames_fc7"
  top: "cont_sentence"
  top: "input_sentence"
  top: "stage_indicator"
  input_param {
    shape {
      dim: 1
      dim: 4096
    }
    shape {
      dim: 1
      dim: 1
    }
    shape {
      dim: 1
      dim: 1
    }
    shape {
      dim: 1
      dim: 1
    }
  }
}
layer {
  name: "embed_encoder"
  type: "InnerProduct"
  bottom: "frames_fc7"
  top: "embedded_in_frames"
  param {
    lr_mult: 1
    decay_mult: 1
  }
  param {
    lr_mult: 2
    decay_mult: 0
  }
  inner_product_param {
    num_output: 500
    weight_filler {
      type: "xavier"
    }
    bias_filler {
      type: "constant"
      value: 0.2
    }
  }
}
layer {
  name: "reshape_frames"
  type: "Reshape"
  bottom: "embedded_in_frames"
  top: "embedded_input_frames"
  reshape_param {
    shape {
      dim: 1
      dim: 1
      dim: 500
    }
  }
}
layer {
  name: "reshape_stage_indicator"
  type: "Reshape"
  bottom: "stage_indicator"
  top: "reshaped_stage_indicator"
  reshape_param {
    shape {
      dim: 1
      dim: 1
      dim: 1
    }
  }
}
layer {
  name: "embedding"
  type: "Embed"
  bottom: "input_sentence"
  top: "embedded_input_sentence"
  param {
    lr_mult: 1
  }
  embed_param {
    num_output: 500
    input_dim: 46168
    bias_term: false
    weight_filler {
      type: "uniform"
      min: -0.08
      max: 0.08
    }
  }
}
layer {
  name: "lstm1"
  type: "LSTM"
  bottom: "embedded_input_frames"
  bottom: "cont_sentence"
  top: "lstm1"
  recurrent_param {
    num_output: 1000
    weight_filler {
      type: "uniform"
      min: -0.08
      max: 0.08
    }
    bias_filler {
      type: "constant"
      value: 0
    }
  }
}
layer {
  name: "concat"
  type: "Concat"
  bottom: "lstm1"
  bottom: "embedded_input_sentence"
  bottom: "reshaped_stage_indicator"
  top: "lstm1_video_sequence"
  concat_param {
    concat_dim: 2
  }
}
layer {
  name: "lstm2"
  type: "LSTM"
  bottom: "lstm1_video_sequence"
  bottom: "cont_sentence"
  top: "lstm2"
  recurrent_param {
    num_output: 1000
    weight_filler {
      type: "uniform"
      min: -0.08
      max: 0.08
    }
    bias_filler {
      type: "constant"
      value: 0
    }
  }
}
layer {
  name: "predict"
  type: "InnerProduct"
  bottom: "lstm2"
  top: "predict"
  param {
    lr_mult: 1
    decay_mult: 1
  }
  param {
    lr_mult: 2
    decay_mult: 0
  }
  inner_product_param {
    num_output: 46168
    weight_filler {
      type: "uniform"
      min: -0.08
      max: 0.08
    }
    bias_filler {
      type: "constant"
      value: 0
    }
    axis: 2
  }
}
layer {
  name: "probs"
  type: "Softmax"
  bottom: "predict"
  top: "probs"
  softmax_param {
    axis: 2
  }
}
I0720 13:47:15.598450 29514 net.cpp:148] Top shape: 1 1 (1)
I0720 13:47:15.598481 29514 net.cpp:148] Top shape: 1 1 (1)
I0720 13:47:15.598491 29514 net.cpp:156] Memory required for data: 16396
I0720 13:47:15.598495 29470 layer_factory.hpp:77] Creating layer input
I0720 13:47:15.598501 29514 layer_factory.hpp:77] Creating layer cont_sentence_input_1_split
I0720 13:47:15.598515 29470 net.cpp:91] Creating Layer input
I0720 13:47:15.598518 29514 net.cpp:91] Creating Layer cont_sentence_input_1_split
I0720 13:47:15.598526 29470 net.cpp:399] input -> frames_fc7
…
I0720 13:47:15.598604 29470 net.cpp:399] input -> stage_indicator
I0720 13:47:15.598606 29508 upgrade_proto.cpp:66] Attempting to upgrade input file specified using deprecated input fields: /tmp/cvld1992645188532439152/s2vt.words_to_preds.prototxt
I0720 13:47:15.598614 29514 net.cpp:141] Setting up cont_sentence_input_1_split
I0720 13:47:15.598624 29470 net.cpp:141] Setting up input
I0720 13:47:15.598628 29508 upgrade_proto.cpp:69] Successfully upgraded file specified using deprecated input fields.
I0720 13:47:15.598615 29492 net.cpp:91] Creating Layer input
I0720 13:47:15.598634 29514 net.cpp:148] Top shape: 1 1 (1)
W0720 13:47:15.598637 29508 upgrade_proto.cpp:71] Note that future Caffe releases will only support input layers and not input fields.
I0720 13:47:15.598640 29470 net.cpp:148] Top shape: 1 4096 (4096)
I0720 13:47:15.598644 29492 net.cpp:399] input -> frames_fc7
I0720 13:47:15.598647 29514 net.cpp:148] Top shape: 1 1 (1)
I0720 13:47:15.598652 29470 net.cpp:148] Top shape: 1 1 (1)
I0720 13:47:15.598656 29514 net.cpp:156] Memory required for data: 16404
I0720 13:47:15.598662 29470 net.cpp:148] Top shape: 1 1 (1)
I0720 13:47:15.598667 29514 layer_factory.hpp:77] Creating layer embed_encoder
I0720 13:47:15.598672 29480 upgrade_proto.cpp:66] Attempting to upgrade input file specified using deprecated input fields: /tmp/cvld1992645188532439152/s2vt.words_to_preds.prototxt
I0720 13:47:15.598676 29470 net.cpp:148] Top shape: 1 1 (1)
I0720 13:47:15.598701 29514 net.cpp:91] Creating Layer embed_encoder
I0720 13:47:15.598704 29480 upgrade_proto.cpp:69] Successfully upgraded file specified using deprecated input fields.
I0720 13:47:15.598662 29492 net.cpp:399] input -> cont_sentence
W0720 13:47:15.598716 29480 upgrade_proto.cpp:71] Note that future Caffe releases will only support input layers and not input fields.
I0720 13:47:15.598723 29514 net.cpp:425] embed_encoder <- frames_fc7
I0720 13:47:15.598732 29492 net.cpp:399] input -> input_sentence
I0720 13:47:15.598742 29514 net.cpp:399] embed_encoder -> embedded_in_frames
I0720 13:47:15.598752 29492 net.cpp:399] input -> stage_indicator
I0720 13:47:15.598773 29492 net.cpp:141] Setting up input
I0720 13:47:15.598337 29488 net.cpp:399] cont_sentence_input_1_split -> cont_sentence_input_1_split_0
I0720 13:47:15.598784 29492 net.cpp:148] Top shape: 1 4096 (4096)
I0720 13:47:15.598794 29492 net.cpp:148] Top shape: 1 1 (1)
I0720 13:47:15.598798 29488 net.cpp:399] cont_sentence_input_1_split -> cont_sentence_input_1_split_1
I0720 13:47:15.598805 29492 net.cpp:148] Top shape: 1 1 (1)
I0720 13:47:15.598816 29492 net.cpp:148] Top shape: 1 1 (1)
I0720 13:47:15.598819 29488 net.cpp:141] Setting up cont_sentence_input_1_split
I0720 13:47:15.598824 29492 net.cpp:156] Memory required for data: 16396
I0720 13:47:15.598834 29492 layer_factory.hpp:77] Creating layer cont_sentence_input_1_split
I0720 13:47:15.598853 29492 net.cpp:91] Creating Layer cont_sentence_input_1_split
I0720 13:47:15.598863 29492 net.cpp:425] cont_sentence_input_1_split <- cont_sentence
I0720 13:47:15.598876 29492 net.cpp:399] cont_sentence_input_1_split -> cont_sentence_input_1_split_0
I0720 13:47:15.598892 29492 net.cpp:399] cont_sentence_input_1_split -> cont_sentence_input_1_split_1
I0720 13:47:15.598903 29474 net.cpp:49] Initializing net from parameters: 
name: "s2vt:features_to_lstm"
state {
  phase: TEST
}
layer {
  name: "input"
  type: "Input"
  top: "frames_fc7"
  top: "cont_sentence"
  top: "input_sentence"
  top: "stage_indicator"
  input_param {
    shape {
      dim: 1
      dim: 4096
    }
    shape {
      dim: 1
      dim: 1
    }
    shape {
      dim: 1
      dim: 1
    }
    shape {
      dim: 1
      dim: 1
    }
  }
}
layer {
  name: "embed_encoder"
  type: "InnerProduct"
  bottom: "frames_fc7"
  top: "embedded_in_frames"
  param {
    lr_mult: 1
    decay_mult: 1
  }
  param {
    lr_mult: 2
    decay_mult: 0
  }
  inner_product_param {
    num_output: 500
    weight_filler {
      type: "xavier"
    }
    bias_filler {
      type: "constant"
      value: 0.2
    }
  }
}
layer {
  name: "reshape_frames"
  type: "Reshape"
  bottom: "embedded_in_frames"
  top: "embedded_input_frames"
  reshape_param {
    shape {
      dim: 1
      dim: 1
      dim: 500
    }
  }
}
layer {
  name: "reshape_stage_indicator"
  type: "Reshape"
  bottom: "stage_indicator"
  top: "reshaped_stage_indicator"
  reshape_param {
    shape {
      dim: 1
      dim: 1
      dim: 1
    }
  }
}
layer {
  name: "embedding"
  type: "Embed"
  bottom: "input_sentence"
  top: "embedded_input_sentence"
  param {
    lr_mult: 1
  }
  embed_param {
    num_output: 500
    input_dim: 46168
    bias_term: false
    weight_filler {
      type: "uniform"
      min: -0.08
      max: 0.08
    }
  }
}
layer {
  name: "lstm1"
  type: "LSTM"
  bottom: "embedded_input_frames"
  bottom: "cont_sentence"
  top: "lstm1"
  recurrent_param {
    num_output: 1000
    weight_filler {
      type: "uniform"
      min: -0.08
      max: 0.08
    }
    bias_filler {
      type: "constant"
      value: 0
    }
  }
}
layer {
  name: "concat"
  type: "Concat"
  bottom: "lstm1"
  bottom: "embedded_input_sentence"
  bottom: "reshaped_stage_indicator"
  top: "lstm1_video_sequence"
  concat_param {
    concat_dim: 2
  }
}
layer {
  name: "lstm2"
  type: "LSTM"
  bottom: "lstm1_video_sequence"
  bottom: "cont_sentence"
  top: "lstm2"
  recurrent_param {
    num_output: 1000
    weight_filler {
      type: "uniform"
      min: -0.08
      max: 0.08
    }
    bias_filler {
      type: "constant"
      value: 0
    }
  }
}
layer {
  name: "predict"
  type: "InnerProduct"
  bottom: "lstm2"
  top: "predict"
  param {
    lr_mult: 1
    decay_mult: 1
  }
  param {
    lr_mult: 2
    decay_mult: 0
  }
  inner_product_param {
    num_output: 46168
    weight_filler {
      type: "uniform"
      min: -0.08
      max: 0.08
    }
    bias_filler {
      type: "constant"
      value: 0
    }
    axis: 2
  }
}
layer {
  name: "probs"
  type: "Softmax"
  bottom: "predict"
  top: "probs"
  softmax_param {
    axis: 2
  }
}
I0720 13:47:15.598703 29470 net.cpp:156] Memory required for data: 16396
I0720 13:47:15.598923 29470 layer_factory.hpp:77] Creating layer cont_sentence_input_1_split
I0720 13:47:15.598937 29470 net.cpp:91] Creating Layer cont_sentence_input_1_split
I0720 13:47:15.598947 29470 net.cpp:425] cont_sentence_input_1_split <- cont_sentence
I0720 13:47:15.598959 29470 net.cpp:399] cont_sentence_input_1_split -> cont_sentence_input_1_split_0
I0720 13:47:15.598955 29508 net.cpp:49] Initializing net from parameters: 
name: "s2vt:features_to_lstm"
state {
  phase: TEST
}
layer {
  name: "input"
  type: "Input"
  top: "frames_fc7"
  top: "cont_sentence"
  top: "input_sentence"
  top: "stage_indicator"
  input_param {
    shape {
      dim: 1
      dim: 4096
    }
    shape {
      dim: 1
      dim: 1
    }
    shape {
      dim: 1
      dim: 1
    }
    shape {
      dim: 1
      dim: 1
    }
  }
}
layer {
  name: "embed_encoder"
  type: "InnerProduct"
  bottom: "frames_fc7"
  top: "embedded_in_frames"
  param {
    lr_mult: 1
    decay_mult: 1
  }
  param {
    lr_mult: 2
    decay_mult: 0
  }
  inner_product_param {
    num_output: 500
    weight_filler {
      type: "xavier"
    }
    bias_filler {
      type: "constant"
      value: 0.2
    }
  }
}
layer {
  name: "reshape_frames"
  type: "Reshape"
  bottom: "embedded_in_frames"
  top: "embedded_input_frames"
  reshape_param {
    shape {
      dim: 1
      dim: 1
      dim: 500
    }
  }
}
layer {
  name: "reshape_stage_indicator"
  type: "Reshape"
  bottom: "stage_indicator"
  top: "reshaped_stage_indicator"
  reshape_param {
    shape {
      dim: 1
      dim: 1
      dim: 1
    }
  }
}
layer {
  name: "embedding"
  type: "Embed"
  bottom: "input_sentence"
  top: "embedded_input_sentence"
  param {
    lr_mult: 1
  }
  embed_param {
    num_output: 500
    input_dim: 46168
    bias_term: false
    weight_filler {
      type: "uniform"
      min: -0.08
      max: 0.08
    }
  }
}
layer {
  name: "lstm1"
  type: "LSTM"
  bottom: "embedded_input_frames"
  bottom: "cont_sentence"
  top: "lstm1"
  recurrent_param {
    num_output: 1000
    weight_filler {
      type: "uniform"
      min: -0.08
      max: 0.08
    }
    bias_filler {
      type: "constant"
      value: 0
    }
  }
}
layer {
  name: "concat"
  type: "Concat"
  bottom: "lstm1"
  bottom: "embedded_input_sentence"
  bottom: "reshaped_stage_indicator"
  top: "lstm1_video_sequence"
  concat_param {
    concat_dim: 2
  }
}
layer {
  name: "lstm2"
  type: "LSTM"
  bottom: "lstm1_video_sequence"
  bottom: "cont_sentence"
  top: "lstm2"
  recurrent_param {
    num_output: 1000
    weight_filler {
      type: "uniform"
      min: -0.08
      max: 0.08
    }
    bias_filler {
      type: "constant"
      value: 0
    }
  }
}
layer {
  name: "predict"
  type: "InnerProduct"
  bottom: "lstm2"
  top: "predict"
  param {
    lr_mult: 1
    decay_mult: 1
  }
  param {
    lr_mult: 2
    decay_mult: 0
  }
  inner_product_param {
    num_output: 46168
    weight_filler {
      type: "uniform"
      min: -0.08
      max: 0.08
    }
    bias_filler {
      type: "constant"
      value: 0
    }
    axis: 2
  }
}
layer {
  name: "probs"
  type: "Softmax"
  bottom: "predict"
  top: "probs"
  softmax_param {
    axis: 2
  }
}
I0720 13:47:15.598974 29470 net.cpp:399] cont_sentence_input_1_split -> cont_sentence_input_1_split_1
I0720 13:47:15.598989 29470 net.cpp:141] Setting up cont_sentence_input_1_split
I0720 13:47:15.599002 29470 net.cpp:148] Top shape: 1 1 (1)
I0720 13:47:15.599014 29470 net.cpp:148] Top shape: 1 1 (1)
I0720 13:47:15.599020 29470 net.cpp:156] Memory required for data: 16404
I0720 13:47:15.599030 29470 layer_factory.hpp:77] Creating layer embed_encoder
I0720 13:47:15.599030 29474 layer_factory.hpp:77] Creating layer input
I0720 13:47:15.599048 29470 net.cpp:91] Creating Layer embed_encoder
I0720 13:47:15.598546 29476 layer_factory.hpp:77] Creating layer input
I0720 13:47:15.599066 29470 net.cpp:425] embed_encoder <- frames_fc7
I0720 13:47:15.599069 29476 net.cpp:91] Creating Layer input
I0720 13:47:15.599073 29480 net.cpp:49] Initializing net from parameters: 
name: "s2vt:features_to_lstm"
state {
  phase: TEST
}
layer {
  name: "input"
  type: "Input"
  top: "frames_fc7"
  top: "cont_sentence"
  top: "input_sentence"
  top: "stage_indicator"
  input_param {
    shape {
      dim: 1
      dim: 4096
    }
    shape {
      dim: 1
      dim: 1
    }
    shape {
      dim: 1
      dim: 1
    }
    shape {
      dim: 1
      dim: 1
    }
  }
}
layer {
  name: "embed_encoder"
  type: "InnerProduct"
  bottom: "frames_fc7"
  top: "embedded_in_frames"
  param {
    lr_mult: 1
    decay_mult: 1
  }
  param {
    lr_mult: 2
    decay_mult: 0
  }
  inner_product_param {
    num_output: 500
    weight_filler {
      type: "xavier"
    }
    bias_filler {
      type: "constant"
      value: 0.2
    }
  }
}
layer {
  name: "reshape_frames"
  type: "Reshape"
  bottom: "embedded_in_frames"
  top: "embedded_input_frames"
  reshape_param {
    shape {
      dim: 1
      dim: 1
      dim: 500
    }
  }
}
layer {
  name: "reshape_stage_indicator"
  type: "Reshape"
  bottom: "stage_indicator"
  top: "reshaped_stage_indicator"
  reshape_param {
    shape {
      dim: 1
      dim: 1
      dim: 1
    }
  }
}
layer {
  name: "embedding"
  type: "Embed"
  bottom: "input_sentence"
  top: "embedded_input_sentence"
  param {
    lr_mult: 1
  }
  embed_param {
    num_output: 500
    input_dim: 46168
    bias_term: false
    weight_filler {
      type: "uniform"
      min: -0.08
      max: 0.08
    }
  }
}
layer {
  name: "lstm1"
  type: "LSTM"
  bottom: "embedded_input_frames"
  bottom: "cont_sentence"
  top: "lstm1"
  recurrent_param {
    num_output: 1000
    weight_filler {
      type: "uniform"
      min: -0.08
      max: 0.08
    }
    bias_filler {
      type: "constant"
      value: 0
    }
  }
}
layer {
  name: "concat"
  type: "Concat"
  bottom: "lstm1"
  bottom: "embedded_input_sentence"
  bottom: "reshaped_stage_indicator"
  top: "lstm1_video_sequence"
  concat_param {
    concat_dim: 2
  }
}
layer {
  name: "lstm2"
  type: "LSTM"
  bottom: "lstm1_video_sequence"
  bottom: "cont_sentence"
  top: "lstm2"
  recurrent_param {
    num_output: 1000
    weight_filler {
      type: "uniform"
      min: -0.08
      max: 0.08
    }
    bias_filler {
      type: "constant"
      value: 0
    }
  }
}
layer {
  name: "predict"
  type: "InnerProduct"
  bottom: "lstm2"
  top: "predict"
  param {
    lr_mult: 1
    decay_mult: 1
  }
  param {
    lr_mult: 2
    decay_mult: 0
  }
  inner_product_param {
    num_output: 46168
    weight_filler {
      type: "uniform"
      min: -0.08
      max: 0.08
    }
    bias_filler {
      type: "constant"
      value: 0
    }
    axis: 2
  }
}
layer {
  name: "probs"
  type: "Softmax"
  bottom: "predict"
  top: "probs"
  softmax_param {
    axis: 2
  }
}
I0720 13:47:15.599083 29470 net.cpp:399] embed_encoder -> embedded_in_frames
I0720 13:47:15.599086 29508 layer_factory.hpp:77] Creating layer input
I0720 13:47:15.599082 29476 net.cpp:399] input -> frames_fc7
I0720 13:47:15.598909 29492 net.cpp:141] Setting up cont_sentence_input_1_split
I0720 13:47:15.599114 29476 net.cpp:399] input -> cont_sentence
I0720 13:47:15.599107 29508 net.cpp:91] Creating Layer input
I0720 13:47:15.599130 29476 net.cpp:399] input -> input_sentence
I0720 13:47:15.599131 29492 net.cpp:148] Top shape: 1 1 (1)
I0720 13:47:15.599140 29476 net.cpp:399] input -> stage_indicator
I0720 13:47:15.599138 29508 net.cpp:399] input -> frames_fc7
I0720 13:47:15.599139 29492 net.cpp:148] Top shape: 1 1 (1)
I0720 13:47:15.599155 29476 net.cpp:141] Setting up input
I0720 13:47:15.599164 29508 net.cpp:399] input -> cont_sentence
I0720 13:47:15.599169 29476 net.cpp:148] Top shape: 1 4096 (4096)
I0720 13:47:15.599180 29476 net.cpp:148] Top shape: 1 1 (1)
I0720 13:47:15.599186 29508 net.cpp:399] input -> input_sentence
I0720 13:47:15.599190 29476 net.cpp:148] Top shape: 1 1 (1)
I0720 13:47:15.599201 29476 net.cpp:148] Top shape: 1 1 (1)
I0720 13:47:15.599201 29480 layer_factory.hpp:77] Creating layer input
I0720 13:47:15.599207 29508 net.cpp:399] input -> stage_indicator
I0720 13:47:15.599050 29474 net.cpp:91] Creating Layer input
I0720 13:47:15.599220 29480 net.cpp:91] Creating Layer input
I0720 13:47:15.599225 29474 net.cpp:399] input -> frames_fc7
I0720 13:47:15.599231 29508 net.cpp:141] Setting up input
I0720 13:47:15.598834 29488 net.cpp:148] Top shape: 1 1 (1)
I0720 13:47:15.599243 29474 net.cpp:399] input -> cont_sentence
I0720 13:47:15.599231 29480 net.cpp:399] input -> frames_fc7
I0720 13:47:15.599248 29508 net.cpp:148] Top shape: 1 4096 (4096)
I0720 13:47:15.599261 29474 net.cpp:399] input -> input_sentence
I0720 13:47:15.599263 29508 net.cpp:148] Top shape: 1 1 (1)
I0720 13:47:15.599267 29480 net.cpp:399] input -> cont_sentence
I0720 13:47:15.599274 29508 net.cpp:148] Top shape: 1 1 (1)
I0720 13:47:15.599277 29474 net.cpp:399] input -> stage_indicator
I0720 13:47:15.599282 29480 net.cpp:399] input -> input_sentence
I0720 13:47:15.599164 29492 net.cpp:156] Memory required for data: 16404
I0720 13:47:15.599297 29474 net.cpp:141] Setting up input
I0720 13:47:15.599284 29508 net.cpp:148] Top shape: 1 1 (1)
I0720 13:47:15.599306 29480 net.cpp:399] input -> stage_indicator
I0720 13:47:15.599309 29508 net.cpp:156] Memory required for data: 16396
I0720 13:47:15.599313 29474 net.cpp:148] Top shape: 1 4096 (4096)
I0720 13:47:15.599318 29508 layer_factory.hpp:77] Creating layer cont_sentence_input_1_split
I0720 13:47:15.599324 29474 net.cpp:148] Top shape: 1 1 (1)
I0720 13:47:15.599330 29508 net.cpp:91] Creating Layer cont_sentence_input_1_split
I0720 13:47:15.599325 29480 net.cpp:141] Setting up input
I0720 13:47:15.599340 29474 net.cpp:148] Top shape: 1 1 (1)
I0720 13:47:15.599342 29508 net.cpp:425] cont_sentence_input_1_split <- cont_sentence
I0720 13:47:15.599346 29480 net.cpp:148] Top shape: 1 4096 (4096)
I0720 13:47:15.599351 29474 net.cpp:148] Top shape: 1 1 (1)
I0720 13:47:15.599356 29480 net.cpp:148] Top shape: 1 1 (1)
I0720 13:47:15.599359 29474 net.cpp:156] Memory required for data: 16396
I0720 13:47:15.599298 29492 layer_factory.hpp:77] Creating layer embed_encoder
I0720 13:47:15.599370 29474 layer_factory.hpp:77] Creating layer cont_sentence_input_1_split
I0720 13:47:15.599248 29488 net.cpp:148] Top shape: 1 1 (1)
I0720 13:47:15.599380 29492 net.cpp:91] Creating Layer embed_encoder
I0720 13:47:15.599370 29480 net.cpp:148] Top shape: 1 1 (1)
I0720 13:47:15.599386 29474 net.cpp:91] Creating Layer cont_sentence_input_1_split
I0720 13:47:15.599392 29492 net.cpp:425] embed_encoder <- frames_fc7
I0720 13:47:15.599382 29488 net.cpp:156] Memory required for data: 16404
I0720 13:47:15.599208 29476 net.cpp:156] Memory required for data: 16396
I0720 13:47:15.599409 29488 layer_factory.hpp:77] Creating layer embed_encoder
I0720 13:47:15.599411 29476 layer_factory.hpp:77] Creating layer cont_sentence_input_1_split
I0720 13:47:15.599356 29508 net.cpp:399] cont_sentence_input_1_split -> cont_sentence_input_1_split_0
I0720 13:47:15.599426 29476 net.cpp:91] Creating Layer cont_sentence_input_1_split
I0720 13:47:15.599411 29492 net.cpp:399] embed_encoder -> embedded_in_frames
I0720 13:47:15.599434 29476 net.cpp:425] cont_sentence_input_1_split <- cont_sentence
I0720 13:47:15.599395 29480 net.cpp:148] Top shape: 1 1 (1)
I0720 13:47:15.599445 29480 net.cpp:156] Memory required for data: 16396
I0720 13:47:15.599450 29476 net.cpp:399] cont_sentence_input_1_split -> cont_sentence_input_1_split_0
I0720 13:47:15.599431 29508 net.cpp:399] cont_sentence_input_1_split -> cont_sentence_input_1_split_1
I0720 13:47:15.599431 29488 net.cpp:91] Creating Layer embed_encoder
I0720 13:47:15.599455 29480 layer_factory.hpp:77] Creating layer cont_sentence_input_1_split
I0720 13:47:15.599467 29476 net.cpp:399] cont_sentence_input_1_split -> cont_sentence_input_1_split_1
I0720 13:47:15.599474 29508 net.cpp:141] Setting up cont_sentence_input_1_split
I0720 13:47:15.599479 29476 net.cpp:141] Setting up cont_sentence_input_1_split
I0720 13:47:15.599467 29488 net.cpp:425] embed_encoder <- frames_fc7
I0720 13:47:15.599396 29474 net.cpp:425] cont_sentence_input_1_split <- cont_sentence
I0720 13:47:15.599488 29508 net.cpp:148] Top shape: 1 1 (1)
I0720 13:47:15.599486 29476 net.cpp:148] Top shape: 1 1 (1)
I0720 13:47:15.599501 29508 net.cpp:148] Top shape: 1 1 (1)
I0720 13:47:15.599494 29480 net.cpp:91] Creating Layer cont_sentence_input_1_split
I0720 13:47:15.599504 29488 net.cpp:399] embed_encoder -> embedded_in_frames
I0720 13:47:15.599503 29474 net.cpp:399] cont_sentence_input_1_split -> cont_sentence_input_1_split_0
I0720 13:47:15.599514 29508 net.cpp:156] Memory required for data: 16404
I0720 13:47:15.599514 29476 net.cpp:148] Top shape: 1 1 (1)
I0720 13:47:15.599514 29480 net.cpp:425] cont_sentence_input_1_split <- cont_sentence
I0720 13:47:15.599526 29474 net.cpp:399] cont_sentence_input_1_split -> cont_sentence_input_1_split_1
I0720 13:47:15.599529 29476 net.cpp:156] Memory required for data: 16404
I0720 13:47:15.599537 29476 layer_factory.hpp:77] Creating layer embed_encoder
I0720 13:47:15.599539 29480 net.cpp:399] cont_sentence_input_1_split -> cont_sentence_input_1_split_0
I0720 13:47:15.599542 29474 net.cpp:141] Setting up cont_sentence_input_1_split
I0720 13:47:15.599555 29474 net.cpp:148] Top shape: 1 1 (1)
I0720 13:47:15.599557 29476 net.cpp:91] Creating Layer embed_encoder
I0720 13:47:15.599557 29480 net.cpp:399] cont_sentence_input_1_split -> cont_sentence_input_1_split_1
I0720 13:47:15.599565 29474 net.cpp:148] Top shape: 1 1 (1)
I0720 13:47:15.599567 29476 net.cpp:425] embed_encoder <- frames_fc7
I0720 13:47:15.599572 29474 net.cpp:156] Memory required for data: 16404
I0720 13:47:15.599577 29480 net.cpp:141] Setting up cont_sentence_input_1_split
I0720 13:47:15.599581 29474 layer_factory.hpp:77] Creating layer embed_encoder
I0720 13:47:15.599583 29476 net.cpp:399] embed_encoder -> embedded_in_frames
I0720 13:47:15.599592 29480 net.cpp:148] Top shape: 1 1 (1)
I0720 13:47:15.599596 29474 net.cpp:91] Creating Layer embed_encoder
I0720 13:47:15.599603 29480 net.cpp:148] Top shape: 1 1 (1)
I0720 13:47:15.599606 29474 net.cpp:425] embed_encoder <- frames_fc7
I0720 13:47:15.599611 29480 net.cpp:156] Memory required for data: 16404
I0720 13:47:15.599524 29508 layer_factory.hpp:77] Creating layer embed_encoder
I0720 13:47:15.599618 29480 layer_factory.hpp:77] Creating layer embed_encoder
I0720 13:47:15.599700 29474 net.cpp:399] embed_encoder -> embedded_in_frames
I0720 13:47:15.599700 29480 net.cpp:91] Creating Layer embed_encoder
…
W0720 13:47:15.604200 29496 upgrade_proto.cpp:71] Note that future Caffe releases will only support input layers and not input fields.
I0720 13:47:15.604609 29496 net.cpp:49] Initializing net from parameters: 
name: "s2vt:features_to_lstm"
state {
  phase: TEST
}
layer {
  name: "input"
  type: "Input"
  top: "frames_fc7"
  top: "cont_sentence"
  top: "input_sentence"
  top: "stage_indicator"
  input_param {
    shape {
      dim: 1
      dim: 4096
    }
    shape {
      dim: 1
      dim: 1
    }
    shape {
      dim: 1
      dim: 1
    }
    shape {
      dim: 1
      dim: 1
    }
  }
}
layer {
  name: "embed_encoder"
  type: "InnerProduct"
  bottom: "frames_fc7"
  top: "embedded_in_frames"
  param {
    lr_mult: 1
    decay_mult: 1
  }
  param {
    lr_mult: 2
    decay_mult: 0
  }
  inner_product_param {
    num_output: 500
    weight_filler {
      type: "xavier"
    }
    bias_filler {
      type: "constant"
      value: 0.2
    }
  }
}
layer {
  name: "reshape_frames"
  type: "Reshape"
  bottom: "embedded_in_frames"
  top: "embedded_input_frames"
  reshape_param {
    shape {
      dim: 1
      dim: 1
      dim: 500
    }
  }
}
layer {
  name: "reshape_stage_indicator"
  type: "Reshape"
  bottom: "stage_indicator"
  top: "reshaped_stage_indicator"
  reshape_param {
    shape {
      dim: 1
      dim: 1
      dim: 1
    }
  }
}
layer {
  name: "embedding"
  type: "Embed"
  bottom: "input_sentence"
  top: "embedded_input_sentence"
  param {
    lr_mult: 1
  }
  embed_param {
    num_output: 500
    input_dim: 46168
    bias_term: false
    weight_filler {
      type: "uniform"
      min: -0.08
      max: 0.08
    }
  }
}
layer {
  name: "lstm1"
  type: "LSTM"
  bottom: "embedded_input_frames"
  bottom: "cont_sentence"
  top: "lstm1"
  recurrent_param {
    num_output: 1000
    weight_filler {
      type: "uniform"
      min: -0.08
      max: 0.08
    }
    bias_filler {
      type: "constant"
      value: 0
    }
  }
}
layer {
  name: "concat"
  type: "Concat"
  bottom: "lstm1"
  bottom: "embedded_input_sentence"
  bottom: "reshaped_stage_indicator"
  top: "lstm1_video_sequence"
  concat_param {
    concat_dim: 2
  }
}
layer {
  name: "lstm2"
  type: "LSTM"
  bottom: "lstm1_video_sequence"
  bottom: "cont_sentence"
  top: "lstm2"
  recurrent_param {
    num_output: 1000
    weight_filler {
      type: "uniform"
      min: -0.08
      max: 0.08
    }
    bias_filler {
      type: "constant"
      value: 0
    }
  }
}
layer {
  name: "predict"
  type: "InnerProduct"
  bottom: "lstm2"
  top: "predict"
  param {
    lr_mult: 1
    decay_mult: 1
  }
  param {
    lr_mult: 2
    decay_mult: 0
  }
  inner_product_param {
    num_output: 46168
    weight_filler {
      type: "uniform"
      min: -0.08
      max: 0.08
    }
    bias_filler {
      type: "constant"
      value: 0
    }
    axis: 2
  }
}
layer {
  name: "probs"
  type: "Softmax"
  bottom: "predict"
  top: "probs"
  softmax_param {
    axis: 2
  }
}
I0720 13:47:15.604779 29496 layer_factory.hpp:77] Creating layer input
I0720 13:47:15.604806 29496 net.cpp:91] Creating Layer input
I0720 13:47:15.604821 29496 net.cpp:399] input -> frames_fc7
I0720 13:47:15.604851 29496 net.cpp:399] input -> cont_sentence
I0720 13:47:15.604871 29496 net.cpp:399] input -> input_sentence
I0720 13:47:15.604892 29496 net.cpp:399] input -> stage_indicator
I0720 13:47:15.604917 29496 net.cpp:141] Setting up input
I0720 13:47:15.604931 29496 net.cpp:148] Top shape: 1 4096 (4096)
I0720 13:47:15.604943 29496 net.cpp:148] Top shape: 1 1 (1)
I0720 13:47:15.604955 29496 net.cpp:148] Top shape: 1 1 (1)
I0720 13:47:15.604966 29496 net.cpp:148] Top shape: 1 1 (1)
I0720 13:47:15.604974 29496 net.cpp:156] Memory required for data: 16396
I0720 13:47:15.604984 29496 layer_factory.hpp:77] Creating layer cont_sentence_input_1_split
I0720 13:47:15.605002 29496 net.cpp:91] Creating Layer cont_sentence_input_1_split
I0720 13:47:15.605013 29496 net.cpp:425] cont_sentence_input_1_split <- cont_sentence
I0720 13:47:15.605031 29496 net.cpp:399] cont_sentence_input_1_split -> cont_sentence_input_1_split_0
I0720 13:47:15.605051 29496 net.cpp:399] cont_sentence_input_1_split -> cont_sentence_input_1_split_1
I0720 13:47:15.605072 29496 net.cpp:141] Setting up cont_sentence_input_1_split
I0720 13:47:15.605087 29496 net.cpp:148] Top shape: 1 1 (1)
I0720 13:47:15.605098 29496 net.cpp:148] Top shape: 1 1 (1)
I0720 13:47:15.605106 29496 net.cpp:156] Memory required for data: 16404
I0720 13:47:15.605115 29496 layer_factory.hpp:77] Creating layer embed_encoder
I0720 13:47:15.605135 29496 net.cpp:91] Creating Layer embed_encoder
I0720 13:47:15.605144 29496 net.cpp:425] embed_encoder <- frames_fc7
I0720 13:47:15.605160 29496 net.cpp:399] embed_encoder -> embedded_in_frames
I0720 13:47:15.630939 29476 net.cpp:141] Setting up embed_encoder
I0720 13:47:15.630995 29476 net.cpp:148] Top shape: 1 500 (500)
I0720 13:47:15.631002 29476 net.cpp:156] Memory required for data: 18404
I0720 13:47:15.631042 29476 layer_factory.hpp:77] Creating layer reshape_frames
I0720 13:47:15.642763 29514 net.cpp:141] Setting up embed_encoder
I0720 13:47:15.642776 29470 net.cpp:141] Setting up embed_encoder
I0720 13:47:15.642791 29514 net.cpp:148] Top shape: 1 500 (500)
I0720 13:47:15.642798 29470 net.cpp:148] Top shape: 1 500 (500)
I0720 13:47:15.642802 29514 net.cpp:156] Memory required for data: 18404
I0720 13:47:15.642798 29476 net.cpp:91] Creating Layer reshape_frames
I0720 13:47:15.642804 29470 net.cpp:156] Memory required for data: 18404
I0720 13:47:15.642833 29514 layer_factory.hpp:77] Creating layer reshape_frames
I0720 13:47:15.642837 29476 net.cpp:425] reshape_frames <- embedded_in_frames
I0720 13:47:15.642853 29476 net.cpp:399] reshape_frames -> embedded_input_frames
I0720 13:47:15.642873 29474 net.cpp:141] Setting up embed_encoder
I0720 13:47:15.642884 29470 layer_factory.hpp:77] Creating layer reshape_frames
I0720 13:47:15.642886 29476 net.cpp:141] Setting up reshape_frames
I0720 13:47:15.642884 29514 net.cpp:91] Creating Layer reshape_frames
I0720 13:47:15.642910 29470 net.cpp:91] Creating Layer reshape_frames
I0720 13:47:15.642897 29474 net.cpp:148] Top shape: 1 500 (500)
I0720 13:47:15.642923 29518 net.cpp:141] Setting up embed_encoder
I0720 13:47:15.642940 29474 net.cpp:156] Memory required for data: 18404
I0720 13:47:15.642935 29470 net.cpp:425] reshape_frames <- embedded_in_frames
I0720 13:47:15.642910 29476 net.cpp:148] Top shape: 1 1 500 (500)
I0720 13:47:15.642935 29514 net.cpp:425] reshape_frames <- embedded_in_frames
I0720 13:47:15.642974 29474 layer_factory.hpp:77] Creating layer reshape_frames
I0720 13:47:15.642892 29488 net.cpp:141] Setting up embed_encoder
I0720 13:47:15.642993 29514 net.cpp:399] reshape_frames -> embedded_input_frames
I0720 13:47:15.642978 29476 net.cpp:156] Memory required for data: 20404
I0720 13:47:15.642968 29518 net.cpp:148] Top shape: 1 500 (500)
I0720 13:47:15.642976 29470 net.cpp:399] reshape_frames -> embedded_input_frames
I0720 13:47:15.643020 29514 net.cpp:141] Setting up reshape_frames
I0720 13:47:15.643009 29474 net.cpp:91] Creating Layer reshape_frames
I0720 13:47:15.643023 29518 net.cpp:156] Memory required for data: 18404
I0720 13:47:15.643020 29476 layer_factory.hpp:77] Creating layer reshape_stage_indicator
I0720 13:47:15.643045 29474 net.cpp:425] reshape_frames <- embedded_in_frames
I0720 13:47:15.643044 29470 net.cpp:141] Setting up reshape_frames
I0720 13:47:15.643059 29476 net.cpp:91] Creating Layer reshape_stage_indicator
I0720 13:47:15.643062 29474 net.cpp:399] reshape_frames -> embedded_input_frames
I0720 13:47:15.643004 29488 net.cpp:148] Top shape: 1 500 (500)
I0720 13:47:15.643079 29476 net.cpp:425] reshape_stage_indicator <- stage_indicator
I0720 13:47:15.643084 29474 net.cpp:141] Setting up reshape_frames
I0720 13:47:15.643072 29470 net.cpp:148] Top shape: 1 1 500 (500)
I0720 13:47:15.643044 29514 net.cpp:148] Top shape: 1 1 500 (500)
I0720 13:47:15.643100 29470 net.cpp:156] Memory required for data: 20404
I0720 13:47:15.643096 29474 net.cpp:148] Top shape: 1 1 500 (500)
I0720 13:47:15.643110 29514 net.cpp:156] Memory required for data: 20404
I0720 13:47:15.643113 29470 layer_factory.hpp:77] Creating layer reshape_stage_indicator
I0720 13:47:15.643117 29474 net.cpp:156] Memory required for data: 20404
I0720 13:47:15.643126 29476 net.cpp:399] reshape_stage_indicator -> reshaped_stage_indicator
I0720 13:47:15.643092 29488 net.cpp:156] Memory required for data: 18404
I0720 13:47:15.643131 29474 layer_factory.hpp:77] Creating layer reshape_stage_indicator
I0720 13:47:15.643131 29470 net.cpp:91] Creating Layer reshape_stage_indicator
I0720 13:47:15.643121 29514 layer_factory.hpp:77] Creating layer reshape_stage_indicator
I0720 13:47:15.643121 29518 layer_factory.hpp:77] Creating layer reshape_frames
I0720 13:47:15.643182 29470 net.cpp:425] reshape_stage_indicator <- stage_indicator
I0720 13:47:15.643175 29476 net.cpp:141] Setting up reshape_stage_indicator
I0720 13:47:15.643182 29474 net.cpp:91] Creating Layer reshape_stage_indicator
I0720 13:47:15.643206 29470 net.cpp:399] reshape_stage_indicator -> reshaped_stage_indicator
I0720 13:47:15.643201 29514 net.cpp:91] Creating Layer reshape_stage_indicator
I0720 13:47:15.643214 29518 net.cpp:91] Creating Layer reshape_frames
I0720 13:47:15.643218 29474 net.cpp:425] reshape_stage_indicator <- stage_indicator
I0720 13:47:15.643223 29514 net.cpp:425] reshape_stage_indicator <- stage_indicator
I0720 13:47:15.643215 29476 net.cpp:148] Top shape: 1 1 1 (1)
I0720 13:47:15.643231 29518 net.cpp:425] reshape_frames <- embedded_in_frames
I0720 13:47:15.643227 29470 net.cpp:141] Setting up reshape_stage_indicator
I0720 13:47:15.643240 29476 net.cpp:156] Memory required for data: 20408
I0720 13:47:15.643235 29474 net.cpp:399] reshape_stage_indicator -> reshaped_stage_indicator
I0720 13:47:15.643236 29514 net.cpp:399] reshape_stage_indicator -> reshaped_stage_indicator
I0720 13:47:15.643252 29470 net.cpp:148] Top shape: 1 1 1 (1)
I0720 13:47:15.643254 29518 net.cpp:399] reshape_frames -> embedded_input_frames
I0720 13:47:15.643254 29476 layer_factory.hpp:77] Creating layer embedding
I0720 13:47:15.643265 29474 net.cpp:141] Setting up reshape_stage_indicator
I0720 13:47:15.643270 29514 net.cpp:141] Setting up reshape_stage_indicator
I0720 13:47:15.643265 29470 net.cpp:156] Memory required for data: 20408
I0720 13:47:15.643283 29474 net.cpp:148] Top shape: 1 1 1 (1)
I0720 13:47:15.643285 29518 net.cpp:141] Setting up reshape_frames
I0720 13:47:15.643290 29514 net.cpp:148] Top shape: 1 1 1 (1)
I0720 13:47:15.643293 29470 layer_factory.hpp:77] Creating layer embedding
I0720 13:47:15.643292 29474 net.cpp:156] Memory required for data: 20408
I0720 13:47:15.643280 29476 net.cpp:91] Creating Layer embedding
I0720 13:47:15.643304 29518 net.cpp:148] Top shape: 1 1 500 (500)
I0720 13:47:15.643299 29514 net.cpp:156] Memory required for data: 20408
I0720 13:47:15.643313 29518 net.cpp:156] Memory required for data: 20404
I0720 13:47:15.643312 29474 layer_factory.hpp:77] Creating layer embedding
I0720 13:47:15.643312 29476 net.cpp:425] embedding <- input_sentence
I0720 13:47:15.643324 29518 layer_factory.hpp:77] Creating layer reshape_stage_indicator
I0720 13:47:15.643318 29514 layer_factory.hpp:77] Creating layer embedding
…
I0720 13:47:15.643368 29514 net.cpp:91] Creating Layer embedding
I0720 13:47:15.643371 29470 net.cpp:399] embedding -> embedded_input_sentence
I0720 13:47:15.643343 29518 net.cpp:91] Creating Layer reshape_stage_indicator
I0720 13:47:15.643381 29514 net.cpp:425] embedding <- input_sentence
I0720 13:47:15.643390 29518 net.cpp:425] reshape_stage_indicator <- stage_indicator
I0720 13:47:15.643396 29514 net.cpp:399] embedding -> embedded_input_sentence
I0720 13:47:15.643406 29518 net.cpp:399] reshape_stage_indicator -> reshaped_stage_indicator
I0720 13:47:15.643431 29518 net.cpp:141] Setting up reshape_stage_indicator
I0720 13:47:15.643452 29518 net.cpp:148] Top shape: 1 1 1 (1)
I0720 13:47:15.643460 29518 net.cpp:156] Memory required for data: 20408
I0720 13:47:15.643468 29518 layer_factory.hpp:77] Creating layer embedding
I0720 13:47:15.643492 29488 net.cpp:91] Creating Layer reshape_frames
I0720 13:47:15.643504 29488 net.cpp:425] reshape_frames <- embedded_in_frames
I0720 13:47:15.643518 29488 net.cpp:399] reshape_frames -> embedded_input_frames
I0720 13:47:15.643535 29488 net.cpp:141] Setting up reshape_frames
I0720 13:47:15.643546 29488 net.cpp:148] Top shape: 1 1 500 (500)
I0720 13:47:15.643554 29488 net.cpp:156] Memory required for data: 20404
I0720 13:47:15.643563 29488 layer_factory.hpp:77] Creating layer reshape_stage_indicator
I0720 13:47:15.643936 29474 net.cpp:399] embedding -> embedded_input_sentence
I0720 13:47:15.644001 29488 net.cpp:91] Creating Layer reshape_stage_indicator
I0720 13:47:15.644018 29488 net.cpp:425] reshape_stage_indicator <- stage_indicator
I0720 13:47:15.644032 29488 net.cpp:399] reshape_stage_indicator -> reshaped_stage_indicator
I0720 13:47:15.644055 29488 net.cpp:141] Setting up reshape_stage_indicator
I0720 13:47:15.644070 29488 net.cpp:148] Top shape: 1 1 1 (1)
I0720 13:47:15.644078 29488 net.cpp:156] Memory required for data: 20408
I0720 13:47:15.644086 29488 layer_factory.hpp:77] Creating layer embedding
I0720 13:47:15.644489 29518 net.cpp:91] Creating Layer embedding
I0720 13:47:15.644502 29518 net.cpp:425] embedding <- input_sentence
I0720 13:47:15.644546 29488 net.cpp:91] Creating Layer embedding
I0720 13:47:15.644552 29518 net.cpp:399] embedding -> embedded_input_sentence
I0720 13:47:15.644577 29488 net.cpp:425] embedding <- input_sentence
I0720 13:47:15.644631 29488 net.cpp:399] embedding -> embedded_input_sentence
I0720 13:47:15.647869 29492 net.cpp:141] Setting up embed_encoder
I0720 13:47:15.647914 29492 net.cpp:148] Top shape: 1 500 (500)
I0720 13:47:15.647927 29492 net.cpp:156] Memory required for data: 18404
I0720 13:47:15.647956 29492 layer_factory.hpp:77] Creating layer reshape_frames
I0720 13:47:15.648434 29492 net.cpp:91] Creating Layer reshape_frames
I0720 13:47:15.648453 29492 net.cpp:425] reshape_frames <- embedded_in_frames
I0720 13:47:15.648473 29492 net.cpp:399] reshape_frames -> embedded_input_frames
I0720 13:47:15.648502 29492 net.cpp:141] Setting up reshape_frames
I0720 13:47:15.648516 29492 net.cpp:148] Top shape: 1 1 500 (500)
I0720 13:47:15.648525 29492 net.cpp:156] Memory required for data: 20404
I0720 13:47:15.648535 29492 layer_factory.hpp:77] Creating layer reshape_stage_indicator
I0720 13:47:15.648558 29492 net.cpp:91] Creating Layer reshape_stage_indicator
I0720 13:47:15.648571 29492 net.cpp:425] reshape_stage_indicator <- stage_indicator
I0720 13:47:15.648586 29492 net.cpp:399] reshape_stage_indicator -> reshaped_stage_indicator
I0720 13:47:15.648607 29492 net.cpp:141] Setting up reshape_stage_indicator
I0720 13:47:15.648622 29492 net.cpp:148] Top shape: 1 1 1 (1)
I0720 13:47:15.648632 29492 net.cpp:156] Memory required for data: 20408
I0720 13:47:15.648640 29492 layer_factory.hpp:77] Creating layer embedding
I0720 13:47:15.649238 29492 net.cpp:91] Creating Layer embedding
I0720 13:47:15.649258 29492 net.cpp:425] embedding <- input_sentence
I0720 13:47:15.649276 29492 net.cpp:399] embedding -> embedded_input_sentence
I0720 13:47:15.658080 29480 net.cpp:141] Setting up embed_encoder
I0720 13:47:15.658128 29480 net.cpp:148] Top shape: 1 500 (500)
I0720 13:47:15.658135 29480 net.cpp:156] Memory required for data: 18404
I0720 13:47:15.658157 29480 layer_factory.hpp:77] Creating layer reshape_frames
I0720 13:47:15.658912 29480 net.cpp:91] Creating Layer reshape_frames
I0720 13:47:15.658939 29480 net.cpp:425] reshape_frames <- embedded_in_frames
I0720 13:47:15.658963 29480 net.cpp:399] reshape_frames -> embedded_input_frames
I0720 13:47:15.658996 29480 net.cpp:141] Setting up reshape_frames
I0720 13:47:15.659011 29480 net.cpp:148] Top shape: 1 1 500 (500)
I0720 13:47:15.659019 29480 net.cpp:156] Memory required for data: 20404
I0720 13:47:15.659031 29480 layer_factory.hpp:77] Creating layer reshape_stage_indicator
I0720 13:47:15.659778 29480 net.cpp:91] Creating Layer reshape_stage_indicator
I0720 13:47:15.659798 29480 net.cpp:425] reshape_stage_indicator <- stage_indicator
I0720 13:47:15.659816 29480 net.cpp:399] reshape_stage_indicator -> reshaped_stage_indicator
I0720 13:47:15.659842 29480 net.cpp:141] Setting up reshape_stage_indicator
I0720 13:47:15.659859 29480 net.cpp:148] Top shape: 1 1 1 (1)
I0720 13:47:15.659868 29480 net.cpp:156] Memory required for data: 20408
I0720 13:47:15.659878 29480 layer_factory.hpp:77] Creating layer embedding
I0720 13:47:15.663303 29480 net.cpp:91] Creating Layer embedding
I0720 13:47:15.663338 29480 net.cpp:425] embedding <- input_sentence
I0720 13:47:15.663358 29480 net.cpp:399] embedding -> embedded_input_sentence
I0720 13:47:15.664783 29508 net.cpp:141] Setting up embed_encoder
I0720 13:47:15.664813 29508 net.cpp:148] Top shape: 1 500 (500)
I0720 13:47:15.664825 29508 net.cpp:156] Memory required for data: 18404
I0720 13:47:15.664856 29508 layer_factory.hpp:77] Creating layer reshape_frames
I0720 13:47:15.666764 29508 net.cpp:91] Creating Layer reshape_frames
I0720 13:47:15.666790 29508 net.cpp:425] reshape_frames <- embedded_in_frames
I0720 13:47:15.666816 29508 net.cpp:399] reshape_frames -> embedded_input_frames
I0720 13:47:15.666851 29508 net.cpp:141] Setting up reshape_frames
I0720 13:47:15.666869 29508 net.cpp:148] Top shape: 1 1 500 (500)
I0720 13:47:15.666880 29508 net.cpp:156] Memory required for data: 20404
I0720 13:47:15.666892 29508 layer_factory.hpp:77] Creating layer reshape_stage_indicator
I0720 13:47:15.668344 29508 net.cpp:91] Creating Layer reshape_stage_indicator
I0720 13:47:15.668362 29508 net.cpp:425] reshape_stage_indicator <- stage_indicator
I0720 13:47:15.668381 29508 net.cpp:399] reshape_stage_indicator -> reshaped_stage_indicator
I0720 13:47:15.668408 29508 net.cpp:141] Setting up reshape_stage_indicator
I0720 13:47:15.668426 29508 net.cpp:148] Top shape: 1 1 1 (1)
I0720 13:47:15.668437 29508 net.cpp:156] Memory required for data: 20408
I0720 13:47:15.668448 29508 layer_factory.hpp:77] Creating layer embedding
I0720 13:47:15.669945 29496 net.cpp:141] Setting up embed_encoder
I0720 13:47:15.669970 29508 net.cpp:91] Creating Layer embedding
I0720 13:47:15.669993 29508 net.cpp:425] embedding <- input_sentence
I0720 13:47:15.669996 29496 net.cpp:148] Top shape: 1 500 (500)
I0720 13:47:15.670019 29496 net.cpp:156] Memory required for data: 18404
I0720 13:47:15.670028 29508 net.cpp:399] embedding -> embedded_input_sentence
I0720 13:47:15.671036 29496 layer_factory.hpp:77] Creating layer reshape_frames
I0720 13:47:15.671078 29496 net.cpp:91] Creating Layer reshape_frames
I0720 13:47:15.671087 29496 net.cpp:425] reshape_frames <- embedded_in_frames
I0720 13:47:15.671097 29496 net.cpp:399] reshape_frames -> embedded_input_frames
I0720 13:47:15.671119 29496 net.cpp:141] Setting up reshape_frames
I0720 13:47:15.671128 29496 net.cpp:148] Top shape: 1 1 500 (500)
I0720 13:47:15.671133 29496 net.cpp:156] Memory required for data: 20404
I0720 13:47:15.671136 29496 layer_factory.hpp:77] Creating layer reshape_stage_indicator
I0720 13:47:15.672374 29496 net.cpp:91] Creating Layer reshape_stage_indicator
I0720 13:47:15.672421 29496 net.cpp:425] reshape_stage_indicator <- stage_indicator
I0720 13:47:15.672453 29496 net.cpp:399] reshape_stage_indicator -> reshaped_stage_indicator
I0720 13:47:15.672967 29496 net.cpp:141] Setting up reshape_stage_indicator
I0720 13:47:15.673007 29496 net.cpp:148] Top shape: 1 1 1 (1)
I0720 13:47:15.673017 29496 net.cpp:156] Memory required for data: 20408
I0720 13:47:15.673027 29496 layer_factory.hpp:77] Creating layer embedding
I0720 13:47:15.673040 29496 net.cpp:91] Creating Layer embedding
I0720 13:47:15.673046 29496 net.cpp:425] embedding <- input_sentence
I0720 13:47:15.673054 29496 net.cpp:399] embedding -> embedded_input_sentence
I0720 13:47:15.871337 29476 net.cpp:141] Setting up embedding
I0720 13:47:15.871404 29476 net.cpp:148] Top shape: 1 1 500 (500)
I0720 13:47:15.871413 29476 net.cpp:156] Memory required for data: 22408
I0720 13:47:15.871438 29476 layer_factory.hpp:77] Creating layer lstm1
I0720 13:47:15.871475 29476 net.cpp:91] Creating Layer lstm1
I0720 13:47:15.871489 29476 net.cpp:425] lstm1 <- embedded_input_frames
I0720 13:47:15.871501 29476 net.cpp:425] lstm1 <- cont_sentence_input_1_split_0
I0720 13:47:15.871515 29476 net.cpp:399] lstm1 -> lstm1
I0720 13:47:15.871565 29476 recurrent_layer.cpp:20] Initializing recurrent layer: assuming input batch contains 1 timesteps of 1 independent streams.
I0720 13:47:15.872079 29476 net.cpp:49] Initializing net from parameters: 
layer {
  name: "lstm1_"
  type: "Input"
  top: "x"
  top: "cont"
  input_param {
    shape {
      dim: 1
      dim: 1
      dim: 500
    }
    shape {
      dim: 1
      dim: 1
    }
  }
}
layer {
  name: "lstm1_"
  type: "Input"
  top: "c_0"
  top: "h_0"
  input_param {
    shape {
      dim: 1
      dim: 1
      dim: 1000
    }
    shape {
      dim: 1
      dim: 1
      dim: 1000
    }
  }
}
layer {
  name: "lstm1_cont_slice"
  type: "Slice"
  bottom: "cont"
  top: "cont_1"
  slice_param {
    axis: 0
  }
}
layer {
  name: "lstm1_x_transform"
  type: "InnerProduct"
  bottom: "x"
  top: "W_xc_x"
  param {
    name: "W_xc"
  }
  param {
    name: "b_c"
  }
  propagate_down: true
  inner_product_param {
    num_output: 4000
    bias_term: true
    weight_filler {
      type: "uniform"
      min: -0.08
      max: 0.08
    }
    bias_filler {
      type: "constant"
      value: 0
    }
    axis: 2
  }
}
layer {
  name: "lstm1_W_xc_x_slice"
  type: "Slice"
  bottom: "W_xc_x"
  top: "W_xc_x_1"
  slice_param {
    axis: 0
  }
}
layer {
  name: "lstm1_h_conted_0"
  type: "Scale"
  bottom: "h_0"
  bottom: "cont_1"
  top: "h_conted_0"
  scale_param {
    axis: 0
  }
}
layer {
  name: "lstm1_transform_1"
  type: "InnerProduct"
  bottom: "h_conted_0"
  top: "W_hc_h_0"
  param {
    name: "W_hc"
  }
  inner_product_param {
    num_output: 4000
    bias_term: false
    weight_filler {
      type: "uniform"
      min: -0.08
      max: 0.08
    }
    axis: 2
  }
}
layer {
  name: "lstm1_gate_input_1"
  type: "Eltwise"
  bottom: "W_hc_h_0"
  bottom: "W_xc_x_1"
  top: "gate_input_1"
  eltwise_param {
    operation: SUM
  }
}
layer {
  name: "lstm1_unit_1"
  type: "LSTMUnit"
  bottom: "c_0"
  bottom: "gate_input_1"
  bottom: "cont_1"
  top: "c_1"
  top: "h_1"
}
layer {
  name: "lstm1_"
  type: "Split"
  bottom: "c_1"
  top: "c_T"
}
layer {
  name: "lstm1_h_concat"
  type: "Concat"
  bottom: "h_1"
  top: "h"
  concat_param {
    axis: 0
  }
}
layer {
  name: "h_pseudoloss"
  type: "Reduction"
  bottom: "h"
  top: "h_pseudoloss"
  loss_weight: 1
}
I0720 13:47:15.872212 29476 layer_factory.hpp:77] Creating layer lstm1_
I0720 13:47:15.872233 29476 net.cpp:91] Creating Layer lstm1_
I0720 13:47:15.872243 29476 net.cpp:399] lstm1_ -> x
I0720 13:47:15.872259 29476 net.cpp:399] lstm1_ -> cont
I0720 13:47:15.872280 29476 net.cpp:141] Setting up lstm1_
I0720 13:47:15.872292 29476 net.cpp:148] Top shape: 1 1 500 (500)
I0720 13:47:15.872300 29476 net.cpp:148] Top shape: 1 1 (1)
I0720 13:47:15.872308 29476 net.cpp:156] Memory required for data: 2004
I0720 13:47:15.872314 29476 layer_factory.hpp:77] Creating layer lstm1_
I0720 13:47:15.872325 29476 net.cpp:91] Creating Layer lstm1_
I0720 13:47:15.872335 29476 net.cpp:399] lstm1_ -> c_0
I0720 13:47:15.872349 29476 net.cpp:399] lstm1_ -> h_0
I0720 13:47:15.872364 29476 net.cpp:141] Setting up lstm1_
I0720 13:47:15.872375 29476 net.cpp:148] Top shape: 1 1 1000 (1000)
I0720 13:47:15.872385 29476 net.cpp:148] Top shape: 1 1 1000 (1000)
I0720 13:47:15.872390 29476 net.cpp:156] Memory required for data: 10004
I0720 13:47:15.872397 29476 layer_factory.hpp:77] Creating layer lstm1_cont_slice
I0720 13:47:15.872409 29476 net.cpp:91] Creating Layer lstm1_cont_slice
I0720 13:47:15.872416 29476 net.cpp:425] lstm1_cont_slice <- cont
I0720 13:47:15.872452 29476 net.cpp:399] lstm1_cont_slice -> cont_1
I0720 13:47:15.872472 29476 net.cpp:141] Setting up lstm1_cont_slice
I0720 13:47:15.872483 29476 net.cpp:148] Top shape: 1 1 (1)
I0720 13:47:15.872488 29476 net.cpp:156] Memory required for data: 10008
I0720 13:47:15.872495 29476 layer_factory.hpp:77] Creating layer cont_1_lstm1_cont_slice_0_split
I0720 13:47:15.872506 29476 net.cpp:91] Creating Layer cont_1_lstm1_cont_slice_0_split
I0720 13:47:15.872514 29476 net.cpp:425] cont_1_lstm1_cont_slice_0_split <- cont_1
I0720 13:47:15.872524 29476 net.cpp:399] cont_1_lstm1_cont_slice_0_split -> cont_1_lstm1_cont_slice_0_split_0
I0720 13:47:15.872535 29476 net.cpp:399] cont_1_lstm1_cont_slice_0_split -> cont_1_lstm1_cont_slice_0_split_1
I0720 13:47:15.872550 29476 net.cpp:141] Setting up cont_1_lstm1_cont_slice_0_split
I0720 13:47:15.872560 29476 net.cpp:148] Top shape: 1 1 (1)
I0720 13:47:15.872567 29476 net.cpp:148] Top shape: 1 1 (1)
I0720 13:47:15.872573 29476 net.cpp:156] Memory required for data: 10016
I0720 13:47:15.872581 29476 layer_factory.hpp:77] Creating layer lstm1_x_transform
I0720 13:47:15.872594 29476 net.cpp:91] Creating Layer lstm1_x_transform
I0720 13:47:15.872606 29476 net.cpp:425] lstm1_x_transform <- x
I0720 13:47:15.872617 29476 net.cpp:399] lstm1_x_transform -> W_xc_x
I0720 13:47:15.900378 29476 net.cpp:141] Setting up lstm1_x_transform
I0720 13:47:15.900974 29476 net.cpp:148] Top shape: 1 1 4000 (4000)
I0720 13:47:15.900990 29476 net.cpp:156] Memory required for data: 26016
I0720 13:47:15.901028 29476 layer_factory.hpp:77] Creating layer lstm1_W_xc_x_slice
I0720 13:47:15.901057 29476 net.cpp:91] Creating Layer lstm1_W_xc_x_slice
I0720 13:47:15.901072 29476 net.cpp:425] lstm1_W_xc_x_slice <- W_xc_x
I0720 13:47:15.901094 29476 net.cpp:399] lstm1_W_xc_x_slice -> W_xc_x_1
I0720 13:47:15.901139 29476 net.cpp:141] Setting up lstm1_W_xc_x_slice
I0720 13:47:15.901159 29476 net.cpp:148] Top shape: 1 1 4000 (4000)
I0720 13:47:15.901170 29476 net.cpp:156] Memory required for data: 42016
I0720 13:47:15.901180 29476 layer_factory.hpp:77] Creating layer lstm1_h_conted_0
I0720 13:47:15.901217 29476 net.cpp:91] Creating Layer lstm1_h_conted_0
I0720 13:47:15.901233 29476 net.cpp:425] lstm1_h_conted_0 <- h_0
I0720 13:47:15.901247 29476 net.cpp:425] lstm1_h_conted_0 <- cont_1_lstm1_cont_slice_0_split_0
I0720 13:47:15.901268 29476 net.cpp:399] lstm1_h_conted_0 -> h_conted_0
I0720 13:47:15.901319 29476 net.cpp:141] Setting up lstm1_h_conted_0
I0720 13:47:15.901340 29476 net.cpp:148] Top shape: 1 1 1000 (1000)
I0720 13:47:15.901351 29476 net.cpp:156] Memory required for data: 46016
I0720 13:47:15.901363 29476 layer_factory.hpp:77] Creating layer lstm1_transform_1
I0720 13:47:15.901389 29476 net.cpp:91] Creating Layer lstm1_transform_1
I0720 13:47:15.901401 29476 net.cpp:425] lstm1_transform_1 <- h_conted_0
I0720 13:47:15.901423 29476 net.cpp:399] lstm1_transform_1 -> W_hc_h_0
I0720 13:47:15.914710 29470 net.cpp:141] Setting up embedding
I0720 13:47:15.914767 29470 net.cpp:148] Top shape: 1 1 500 (500)
I0720 13:47:15.914773 29470 net.cpp:156] Memory required for data: 22408
I0720 13:47:15.914793 29470 layer_factory.hpp:77] Creating layer lstm1
I0720 13:47:15.914813 29470 net.cpp:91] Creating Layer lstm1
I0720 13:47:15.914819 29470 net.cpp:425] lstm1 <- embedded_input_frames
I0720 13:47:15.914829 29470 net.cpp:425] lstm1 <- cont_sentence_input_1_split_0
I0720 13:47:15.914865 29470 net.cpp:399] lstm1 -> lstm1
I0720 13:47:15.914883 29470 recurrent_layer.cpp:20] Initializing recurrent layer: assuming input batch contains 1 timesteps of 1 independent streams.
I0720 13:47:15.915230 29470 net.cpp:49] Initializing net from parameters: 
layer {
  name: "lstm1_"
  type: "Input"
  top: "x"
  top: "cont"
  input_param {
    shape {
      dim: 1
      dim: 1
      dim: 500
    }
    shape {
      dim: 1
      dim: 1
    }
  }
}
layer {
  name: "lstm1_"
  type: "Input"
  top: "c_0"
  top: "h_0"
  input_param {
    shape {
      dim: 1
      dim: 1
      dim: 1000
    }
    shape {
      dim: 1
      dim: 1
      dim: 1000
    }
  }
}
layer {
  name: "lstm1_cont_slice"
  type: "Slice"
  bottom: "cont"
  top: "cont_1"
  slice_param {
    axis: 0
  }
}
layer {
  name: "lstm1_x_transform"
  type: "InnerProduct"
  bottom: "x"
  top: "W_xc_x"
  param {
    name: "W_xc"
  }
  param {
    name: "b_c"
  }
  propagate_down: true
  inner_product_param {
    num_output: 4000
    bias_term: true
    weight_filler {
      type: "uniform"
      min: -0.08
      max: 0.08
    }
    bias_filler {
      type: "constant"
      value: 0
    }
    axis: 2
  }
}
layer {
  name: "lstm1_W_xc_x_slice"
  type: "Slice"
  bottom: "W_xc_x"
  top: "W_xc_x_1"
  slice_param {
    axis: 0
  }
}
layer {
  name: "lstm1_h_conted_0"
  type: "Scale"
  bottom: "h_0"
  bottom: "cont_1"
  top: "h_conted_0"
  scale_param {
    axis: 0
  }
}
layer {
  name: "lstm1_transform_1"
  type: "InnerProduct"
  bottom: "h_conted_0"
  top: "W_hc_h_0"
  param {
    name: "W_hc"
  }
  inner_product_param {
    num_output: 4000
    bias_term: false
    weight_filler {
      type: "uniform"
      min: -0.08
      max: 0.08
    }
    axis: 2
  }
}
layer {
  name: "lstm1_gate_input_1"
  type: "Eltwise"
  bottom: "W_hc_h_0"
  bottom: "W_xc_x_1"
  top: "gate_input_1"
  eltwise_param {
    operation: SUM
  }
}
layer {
  name: "lstm1_unit_1"
  type: "LSTMUnit"
  bottom: "c_0"
  bottom: "gate_input_1"
  bottom: "cont_1"
  top: "c_1"
  top: "h_1"
}
layer {
  name: "lstm1_"
  type: "Split"
  bottom: "c_1"
  top: "c_T"
}
layer {
  name: "lstm1_h_concat"
  type: "Concat"
  bottom: "h_1"
  top: "h"
  concat_param {
    axis: 0
  }
}
layer {
  name: "h_pseudoloss"
  type: "Reduction"
  bottom: "h"
  top: "h_pseudoloss"
  loss_weight: 1
}
I0720 13:47:15.915329 29470 layer_factory.hpp:77] Creating layer lstm1_
I0720 13:47:15.915343 29470 net.cpp:91] Creating Layer lstm1_
I0720 13:47:15.915349 29470 net.cpp:399] lstm1_ -> x
I0720 13:47:15.915361 29470 net.cpp:399] lstm1_ -> cont
I0720 13:47:15.915374 29470 net.cpp:141] Setting up lstm1_
I0720 13:47:15.915381 29470 net.cpp:148] Top shape: 1 1 500 (500)
I0720 13:47:15.915387 29470 net.cpp:148] Top shape: 1 1 (1)
I0720 13:47:15.915391 29470 net.cpp:156] Memory required for data: 2004
I0720 13:47:15.915396 29470 layer_factory.hpp:77] Creating layer lstm1_
I0720 13:47:15.915403 29470 net.cpp:91] Creating Layer lstm1_
I0720 13:47:15.915410 29470 net.cpp:399] lstm1_ -> c_0
I0720 13:47:15.915418 29470 net.cpp:399] lstm1_ -> h_0
I0720 13:47:15.915428 29470 net.cpp:141] Setting up lstm1_
I0720 13:47:15.915434 29470 net.cpp:148] Top shape: 1 1 1000 (1000)
I0720 13:47:15.915439 29470 net.cpp:148] Top shape: 1 1 1000 (1000)
I0720 13:47:15.915443 29470 net.cpp:156] Memory required for data: 10004
I0720 13:47:15.915447 29470 layer_factory.hpp:77] Creating layer lstm1_cont_slice
I0720 13:47:15.915455 29470 net.cpp:91] Creating Layer lstm1_cont_slice
I0720 13:47:15.915459 29470 net.cpp:425] lstm1_cont_slice <- cont
I0720 13:47:15.915467 29470 net.cpp:399] lstm1_cont_slice -> cont_1
I0720 13:47:15.915496 29470 net.cpp:141] Setting up lstm1_cont_slice
I0720 13:47:15.915504 29470 net.cpp:148] Top shape: 1 1 (1)
I0720 13:47:15.915508 29470 net.cpp:156] Memory required for data: 10008
I0720 13:47:15.915513 29470 layer_factory.hpp:77] Creating layer cont_1_lstm1_cont_slice_0_split
I0720 13:47:15.915520 29470 net.cpp:91] Creating Layer cont_1_lstm1_cont_slice_0_split
I0720 13:47:15.915524 29470 net.cpp:425] cont_1_lstm1_cont_slice_0_split <- cont_1
I0720 13:47:15.915532 29470 net.cpp:399] cont_1_lstm1_cont_slice_0_split -> cont_1_lstm1_cont_slice_0_split_0
I0720 13:47:15.915542 29470 net.cpp:399] cont_1_lstm1_cont_slice_0_split -> cont_1_lstm1_cont_slice_0_split_1
I0720 13:47:15.915551 29470 net.cpp:141] Setting up cont_1_lstm1_cont_slice_0_split
I0720 13:47:15.915557 29470 net.cpp:148] Top shape: 1 1 (1)
I0720 13:47:15.915562 29470 net.cpp:148] Top shape: 1 1 (1)
I0720 13:47:15.915566 29470 net.cpp:156] Memory required for data: 10016
I0720 13:47:15.915570 29470 layer_factory.hpp:77] Creating layer lstm1_x_transform
I0720 13:47:15.915580 29470 net.cpp:91] Creating Layer lstm1_x_transform
I0720 13:47:15.915583 29470 net.cpp:425] lstm1_x_transform <- x
I0720 13:47:15.915599 29470 net.cpp:399] lstm1_x_transform -> W_xc_x
I0720 13:47:15.918917 29488 net.cpp:141] Setting up embedding
I0720 13:47:15.918965 29488 net.cpp:148] Top shape: 1 1 500 (500)
I0720 13:47:15.918973 29488 net.cpp:156] Memory required for data: 22408
I0720 13:47:15.918995 29488 layer_factory.hpp:77] Creating layer lstm1
I0720 13:47:15.919019 29488 net.cpp:91] Creating Layer lstm1
I0720 13:47:15.919029 29488 net.cpp:425] lstm1 <- embedded_input_frames
I0720 13:47:15.919041 29488 net.cpp:425] lstm1 <- cont_sentence_input_1_split_0
I0720 13:47:15.919065 29488 net.cpp:399] lstm1 -> lstm1
I0720 13:47:15.919087 29488 recurrent_layer.cpp:20] Initializing recurrent layer: assuming input batch contains 1 timesteps of 1 independent streams.
I0720 13:47:15.919495 29488 net.cpp:49] Initializing net from parameters: 
layer {
  name: "lstm1_"
  type: "Input"
  top: "x"
  top: "cont"
  input_param {
    shape {
      dim: 1
      dim: 1
      dim: 500
    }
    shape {
      dim: 1
      dim: 1
    }
  }
}
layer {
  name: "lstm1_"
  type: "Input"
  top: "c_0"
  top: "h_0"
  input_param {
    shape {
      dim: 1
      dim: 1
      dim: 1000
    }
    shape {
      dim: 1
      dim: 1
      dim: 1000
    }
  }
}
layer {
  name: "lstm1_cont_slice"
  type: "Slice"
  bottom: "cont"
  top: "cont_1"
  slice_param {
    axis: 0
  }
}
layer {
  name: "lstm1_x_transform"
  type: "InnerProduct"
  bottom: "x"
  top: "W_xc_x"
  param {
    name: "W_xc"
  }
  param {
    name: "b_c"
  }
  propagate_down: true
  inner_product_param {
    num_output: 4000
    bias_term: true
    weight_filler {
      type: "uniform"
      min: -0.08
      max: 0.08
    }
    bias_filler {
      type: "constant"
      value: 0
    }
    axis: 2
  }
}
layer {
  name: "lstm1_W_xc_x_slice"
  type: "Slice"
  bottom: "W_xc_x"
  top: "W_xc_x_1"
  slice_param {
    axis: 0
  }
}
layer {
  name: "lstm1_h_conted_0"
  type: "Scale"
  bottom: "h_0"
  bottom: "cont_1"
  top: "h_conted_0"
  scale_param {
    axis: 0
  }
}
layer {
  name: "lstm1_transform_1"
  type: "InnerProduct"
  bottom: "h_conted_0"
  top: "W_hc_h_0"
  param {
    name: "W_hc"
  }
  inner_product_param {
    num_output: 4000
    bias_term: false
    weight_filler {
      type: "uniform"
      min: -0.08
      max: 0.08
    }
    axis: 2
  }
}
layer {
  name: "lstm1_gate_input_1"
  type: "Eltwise"
  bottom: "W_hc_h_0"
  bottom: "W_xc_x_1"
  top: "gate_input_1"
  eltwise_param {
    operation: SUM
  }
}
layer {
  name: "lstm1_unit_1"
  type: "LSTMUnit"
  bottom: "c_0"
  bottom: "gate_input_1"
  bottom: "cont_1"
  top: "c_1"
  top: "h_1"
}
layer {
  name: "lstm1_"
  type: "Split"
  bottom: "c_1"
  top: "c_T"
}
layer {
  name: "lstm1_h_concat"
  type: "Concat"
  bottom: "h_1"
  top: "h"
  concat_param {
    axis: 0
  }
}
layer {
  name: "h_pseudoloss"
  type: "Reduction"
  bottom: "h"
  top: "h_pseudoloss"
  loss_weight: 1
}
I0720 13:47:15.919632 29488 layer_factory.hpp:77] Creating layer lstm1_
I0720 13:47:15.919649 29488 net.cpp:91] Creating Layer lstm1_
I0720 13:47:15.919658 29488 net.cpp:399] lstm1_ -> x
I0720 13:47:15.919674 29488 net.cpp:399] lstm1_ -> cont
I0720 13:47:15.919693 29488 net.cpp:141] Setting up lstm1_
I0720 13:47:15.919704 29488 net.cpp:148] Top shape: 1 1 500 (500)
I0720 13:47:15.919713 29488 net.cpp:148] Top shape: 1 1 (1)
I0720 13:47:15.919719 29488 net.cpp:156] Memory required for data: 2004
I0720 13:47:15.919726 29488 layer_factory.hpp:77] Creating layer lstm1_
I0720 13:47:15.919737 29488 net.cpp:91] Creating Layer lstm1_
I0720 13:47:15.919746 29488 net.cpp:399] lstm1_ -> c_0
I0720 13:47:15.919759 29488 net.cpp:399] lstm1_ -> h_0
I0720 13:47:15.919773 29488 net.cpp:141] Setting up lstm1_
I0720 13:47:15.919785 29488 net.cpp:148] Top shape: 1 1 1000 (1000)
I0720 13:47:15.919792 29488 net.cpp:148] Top shape: 1 1 1000 (1000)
I0720 13:47:15.919798 29488 net.cpp:156] Memory required for data: 10004
I0720 13:47:15.919805 29488 layer_factory.hpp:77] Creating layer lstm1_cont_slice
I0720 13:47:15.919816 29488 net.cpp:91] Creating Layer lstm1_cont_slice
I0720 13:47:15.919822 29488 net.cpp:425] lstm1_cont_slice <- cont
I0720 13:47:15.919832 29488 net.cpp:399] lstm1_cont_slice -> cont_1
I0720 13:47:15.919852 29488 net.cpp:141] Setting up lstm1_cont_slice
I0720 13:47:15.919862 29488 net.cpp:148] Top shape: 1 1 (1)
I0720 13:47:15.919867 29488 net.cpp:156] Memory required for data: 10008
I0720 13:47:15.919873 29488 layer_factory.hpp:77] Creating layer cont_1_lstm1_cont_slice_0_split
I0720 13:47:15.919888 29488 net.cpp:91] Creating Layer cont_1_lstm1_cont_slice_0_split
I0720 13:47:15.919896 29488 net.cpp:425] cont_1_lstm1_cont_slice_0_split <- cont_1
I0720 13:47:15.919905 29488 net.cpp:399] cont_1_lstm1_cont_slice_0_split -> cont_1_lstm1_cont_slice_0_split_0
I0720 13:47:15.919917 29488 net.cpp:399] cont_1_lstm1_cont_slice_0_split -> cont_1_lstm1_cont_slice_0_split_1
I0720 13:47:15.919931 29488 net.cpp:141] Setting up cont_1_lstm1_cont_slice_0_split
I0720 13:47:15.919944 29488 net.cpp:148] Top shape: 1 1 (1)
I0720 13:47:15.919951 29488 net.cpp:148] Top shape: 1 1 (1)
I0720 13:47:15.919957 29488 net.cpp:156] Memory required for data: 10016
I0720 13:47:15.919965 29488 layer_factory.hpp:77] Creating layer lstm1_x_transform
I0720 13:47:15.919977 29488 net.cpp:91] Creating Layer lstm1_x_transform
I0720 13:47:15.919984 29488 net.cpp:425] lstm1_x_transform <- x
I0720 13:47:15.919999 29488 net.cpp:399] lstm1_x_transform -> W_xc_x
I0720 13:47:15.932780 29470 net.cpp:141] Setting up lstm1_x_transform
I0720 13:47:15.932823 29470 net.cpp:148] Top shape: 1 1 4000 (4000)
I0720 13:47:15.932829 29470 net.cpp:156] Memory required for data: 26016
I0720 13:47:15.932852 29470 layer_factory.hpp:77] Creating layer lstm1_W_xc_x_slice
I0720 13:47:15.932868 29470 net.cpp:91] Creating Layer lstm1_W_xc_x_slice
I0720 13:47:15.932874 29470 net.cpp:425] lstm1_W_xc_x_slice <- W_xc_x
I0720 13:47:15.932888 29470 net.cpp:399] lstm1_W_xc_x_slice -> W_xc_x_1
I0720 13:47:15.932909 29470 net.cpp:141] Setting up lstm1_W_xc_x_slice
I0720 13:47:15.932916 29470 net.cpp:148] Top shape: 1 1 4000 (4000)
I0720 13:47:15.932920 29470 net.cpp:156] Memory required for data: 42016
I0720 13:47:15.932925 29470 layer_factory.hpp:77] Creating layer lstm1_h_conted_0
I0720 13:47:15.932934 29470 net.cpp:91] Creating Layer lstm1_h_conted_0
I0720 13:47:15.932940 29470 net.cpp:425] lstm1_h_conted_0 <- h_0
I0720 13:47:15.932945 29470 net.cpp:425] lstm1_h_conted_0 <- cont_1_lstm1_cont_slice_0_split_0
I0720 13:47:15.932955 29470 net.cpp:399] lstm1_h_conted_0 -> h_conted_0
I0720 13:47:15.932978 29470 net.cpp:141] Setting up lstm1_h_conted_0
I0720 13:47:15.932986 29470 net.cpp:148] Top shape: 1 1 1000 (1000)
I0720 13:47:15.932989 29470 net.cpp:156] Memory required for data: 46016
I0720 13:47:15.932993 29470 layer_factory.hpp:77] Creating layer lstm1_transform_1
I0720 13:47:15.933006 29470 net.cpp:91] Creating Layer lstm1_transform_1
I0720 13:47:15.933009 29470 net.cpp:425] lstm1_transform_1 <- h_conted_0
I0720 13:47:15.933019 29470 net.cpp:399] lstm1_transform_1 -> W_hc_h_0
I0720 13:47:15.934506 29508 net.cpp:141] Setting up embedding
I0720 13:47:15.934556 29508 net.cpp:148] Top shape: 1 1 500 (500)
I0720 13:47:15.934561 29508 net.cpp:156] Memory required for data: 22408
I0720 13:47:15.934578 29508 layer_factory.hpp:77] Creating layer lstm1
I0720 13:47:15.934598 29508 net.cpp:91] Creating Layer lstm1
I0720 13:47:15.934605 29508 net.cpp:425] lstm1 <- embedded_input_frames
I0720 13:47:15.934614 29508 net.cpp:425] lstm1 <- cont_sentence_input_1_split_0
I0720 13:47:15.935091 29508 net.cpp:399] lstm1 -> lstm1
I0720 13:47:15.935123 29508 recurrent_layer.cpp:20] Initializing recurrent layer: assuming input batch contains 1 timesteps of 1 independent streams.
I0720 13:47:15.936317 29508 net.cpp:49] Initializing net from parameters: 
layer {
  name: "lstm1_"
  type: "Input"
  top: "x"
  top: "cont"
  input_param {
    shape {
      dim: 1
      dim: 1
      dim: 500
    }
    shape {
      dim: 1
      dim: 1
    }
  }
}
layer {
  name: "lstm1_"
  type: "Input"
  top: "c_0"
  top: "h_0"
  input_param {
    shape {
      dim: 1
      dim: 1
      dim: 1000
    }
    shape {
      dim: 1
      dim: 1
      dim: 1000
    }
  }
}
layer {
  name: "lstm1_cont_slice"
  type: "Slice"
  bottom: "cont"
  top: "cont_1"
  slice_param {
    axis: 0
  }
}
layer {
  name: "lstm1_x_transform"
  type: "InnerProduct"
  bottom: "x"
  top: "W_xc_x"
  param {
    name: "W_xc"
  }
  param {
    name: "b_c"
  }
  propagate_down: true
  inner_product_param {
    num_output: 4000
    bias_term: true
    weight_filler {
      type: "uniform"
      min: -0.08
      max: 0.08
    }
    bias_filler {
      type: "constant"
      value: 0
    }
    axis: 2
  }
}
layer {
  name: "lstm1_W_xc_x_slice"
  type: "Slice"
  bottom: "W_xc_x"
  top: "W_xc_x_1"
  slice_param {
    axis: 0
  }
}
layer {
  name: "lstm1_h_conted_0"
  type: "Scale"
  bottom: "h_0"
  bottom: "cont_1"
  top: "h_conted_0"
  scale_param {
    axis: 0
  }
}
layer {
  name: "lstm1_transform_1"
  type: "InnerProduct"
  bottom: "h_conted_0"
  top: "W_hc_h_0"
  param {
    name: "W_hc"
  }
  inner_product_param {
    num_output: 4000
    bias_term: false
    weight_filler {
      type: "uniform"
      min: -0.08
      max: 0.08
    }
    axis: 2
  }
}
layer {
  name: "lstm1_gate_input_1"
  type: "Eltwise"
  bottom: "W_hc_h_0"
  bottom: "W_xc_x_1"
  top: "gate_input_1"
  eltwise_param {
    operation: SUM
  }
}
layer {
  name: "lstm1_unit_1"
  type: "LSTMUnit"
  bottom: "c_0"
  bottom: "gate_input_1"
  bottom: "cont_1"
  top: "c_1"
  top: "h_1"
}
layer {
  name: "lstm1_"
  type: "Split"
  bottom: "c_1"
  top: "c_T"
}
layer {
  name: "lstm1_h_concat"
  type: "Concat"
  bottom: "h_1"
  top: "h"
  concat_param {
    axis: 0
  }
}
layer {
  name: "h_pseudoloss"
  type: "Reduction"
  bottom: "h"
  top: "h_pseudoloss"
  loss_weight: 1
}
I0720 13:47:15.936373 29474 net.cpp:141] Setting up embedding
I0720 13:47:15.936401 29474 net.cpp:148] Top shape: 1 1 500 (500)
I0720 13:47:15.936408 29474 net.cpp:156] Memory required for data: 22408
I0720 13:47:15.936421 29474 layer_factory.hpp:77] Creating layer lstm1
I0720 13:47:15.936908 29474 net.cpp:91] Creating Layer lstm1
I0720 13:47:15.936930 29474 net.cpp:425] lstm1 <- embedded_input_frames
I0720 13:47:15.936945 29474 net.cpp:425] lstm1 <- cont_sentence_input_1_split_0
I0720 13:47:15.936962 29474 net.cpp:399] lstm1 -> lstm1
I0720 13:47:15.936964 29508 layer_factory.hpp:77] Creating layer lstm1_
I0720 13:47:15.936983 29474 recurrent_layer.cpp:20] Initializing recurrent layer: assuming input batch contains 1 timesteps of 1 independent streams.
I0720 13:47:15.936990 29508 net.cpp:91] Creating Layer lstm1_
I0720 13:47:15.936997 29508 net.cpp:399] lstm1_ -> x
I0720 13:47:15.937011 29508 net.cpp:399] lstm1_ -> cont
I0720 13:47:15.937026 29508 net.cpp:141] Setting up lstm1_
I0720 13:47:15.937034 29508 net.cpp:148] Top shape: 1 1 500 (500)
I0720 13:47:15.937041 29508 net.cpp:148] Top shape: 1 1 (1)
I0720 13:47:15.937044 29508 net.cpp:156] Memory required for data: 2004
I0720 13:47:15.937050 29508 layer_factory.hpp:77] Creating layer lstm1_
I0720 13:47:15.937058 29508 net.cpp:91] Creating Layer lstm1_
I0720 13:47:15.937064 29508 net.cpp:399] lstm1_ -> c_0
I0720 13:47:15.937075 29508 net.cpp:399] lstm1_ -> h_0
I0720 13:47:15.937086 29508 net.cpp:141] Setting up lstm1_
I0720 13:47:15.937093 29508 net.cpp:148] Top shape: 1 1 1000 (1000)
I0720 13:47:15.937099 29508 net.cpp:148] Top shape: 1 1 1000 (1000)
I0720 13:47:15.937104 29508 net.cpp:156] Memory required for data: 10004
I0720 13:47:15.937108 29508 layer_factory.hpp:77] Creating layer lstm1_cont_slice
I0720 13:47:15.937119 29508 net.cpp:91] Creating Layer lstm1_cont_slice
I0720 13:47:15.937124 29508 net.cpp:425] lstm1_cont_slice <- cont
I0720 13:47:15.937131 29508 net.cpp:399] lstm1_cont_slice -> cont_1
I0720 13:47:15.937145 29508 net.cpp:141] Setting up lstm1_cont_slice
I0720 13:47:15.937153 29508 net.cpp:148] Top shape: 1 1 (1)
I0720 13:47:15.937157 29508 net.cpp:156] Memory required for data: 10008
I0720 13:47:15.937162 29508 layer_factory.hpp:77] Creating layer cont_1_lstm1_cont_slice_0_split
I0720 13:47:15.937549 29508 net.cpp:91] Creating Layer cont_1_lstm1_cont_slice_0_split
I0720 13:47:15.937568 29508 net.cpp:425] cont_1_lstm1_cont_slice_0_split <- cont_1
I0720 13:47:15.937580 29508 net.cpp:399] cont_1_lstm1_cont_slice_0_split -> cont_1_lstm1_cont_slice_0_split_0
I0720 13:47:15.937592 29508 net.cpp:399] cont_1_lstm1_cont_slice_0_split -> cont_1_lstm1_cont_slice_0_split_1
I0720 13:47:15.937603 29508 net.cpp:141] Setting up cont_1_lstm1_cont_slice_0_split
I0720 13:47:15.937615 29508 net.cpp:148] Top shape: 1 1 (1)
I0720 13:47:15.937623 29508 net.cpp:148] Top shape: 1 1 (1)
I0720 13:47:15.937626 29508 net.cpp:156] Memory required for data: 10016
I0720 13:47:15.937633 29508 layer_factory.hpp:77] Creating layer lstm1_x_transform
I0720 13:47:15.937644 29508 net.cpp:91] Creating Layer lstm1_x_transform
I0720 13:47:15.937649 29508 net.cpp:425] lstm1_x_transform <- x
I0720 13:47:15.938164 29508 net.cpp:399] lstm1_x_transform -> W_xc_x
I0720 13:47:15.938824 29474 net.cpp:49] Initializing net from parameters: 
layer {
  name: "lstm1_"
  type: "Input"
  top: "x"
  top: "cont"
  input_param {
    shape {
      dim: 1
      dim: 1
      dim: 500
    }
    shape {
      dim: 1
      dim: 1
    }
  }
}
layer {
  name: "lstm1_"
  type: "Input"
  top: "c_0"
  top: "h_0"
  input_param {
    shape {
      dim: 1
      dim: 1
      dim: 1000
    }
    shape {
      dim: 1
      dim: 1
      dim: 1000
    }
  }
}
layer {
  name: "lstm1_cont_slice"
  type: "Slice"
  bottom: "cont"
  top: "cont_1"
  slice_param {
    axis: 0
  }
}
layer {
  name: "lstm1_x_transform"
  type: "InnerProduct"
  bottom: "x"
  top: "W_xc_x"
  param {
    name: "W_xc"
  }
  param {
    name: "b_c"
  }
  propagate_down: true
  inner_product_param {
    num_output: 4000
    bias_term: true
    weight_filler {
      type: "uniform"
      min: -0.08
      max: 0.08
    }
    bias_filler {
      type: "constant"
      value: 0
    }
    axis: 2
  }
}
layer {
  name: "lstm1_W_xc_x_slice"
  type: "Slice"
  bottom: "W_xc_x"
  top: "W_xc_x_1"
  slice_param {
    axis: 0
  }
}
layer {
  name: "lstm1_h_conted_0"
  type: "Scale"
  bottom: "h_0"
  bottom: "cont_1"
  top: "h_conted_0"
  scale_param {
    axis: 0
  }
}
layer {
  name: "lstm1_transform_1"
  type: "InnerProduct"
  bottom: "h_conted_0"
  top: "W_hc_h_0"
  param {
    name: "W_hc"
  }
  inner_product_param {
    num_output: 4000
    bias_term: false
    weight_filler {
      type: "uniform"
      min: -0.08
      max: 0.08
    }
    axis: 2
  }
}
layer {
  name: "lstm1_gate_input_1"
  type: "Eltwise"
  bottom: "W_hc_h_0"
  bottom: "W_xc_x_1"
  top: "gate_input_1"
  eltwise_param {
    operation: SUM
  }
}
layer {
  name: "lstm1_unit_1"
  type: "LSTMUnit"
  bottom: "c_0"
  bottom: "gate_input_1"
  bottom: "cont_1"
  top: "c_1"
  top: "h_1"
}
layer {
  name: "lstm1_"
  type: "Split"
  bottom: "c_1"
  top: "c_T"
}
layer {
  name: "lstm1_h_concat"
  type: "Concat"
  bottom: "h_1"
  top: "h"
  concat_param {
    axis: 0
  }
}
layer {
  name: "h_pseudoloss"
  type: "Reduction"
  bottom: "h"
  top: "h_pseudoloss"
  loss_weight: 1
}
I0720 13:47:15.939462 29474 layer_factory.hpp:77] Creating layer lstm1_
I0720 13:47:15.939489 29474 net.cpp:91] Creating Layer lstm1_
I0720 13:47:15.939502 29474 net.cpp:399] lstm1_ -> x
I0720 13:47:15.939525 29474 net.cpp:399] lstm1_ -> cont
I0720 13:47:15.939548 29474 net.cpp:141] Setting up lstm1_
I0720 13:47:15.939560 29474 net.cpp:148] Top shape: 1 1 500 (500)
I0720 13:47:15.939571 29474 net.cpp:148] Top shape: 1 1 (1)
I0720 13:47:15.939579 29474 net.cpp:156] Memory required for data: 2004
I0720 13:47:15.939589 29474 layer_factory.hpp:77] Creating layer lstm1_
I0720 13:47:15.939604 29474 net.cpp:91] Creating Layer lstm1_
I0720 13:47:15.939616 29474 net.cpp:399] lstm1_ -> c_0
I0720 13:47:15.939635 29474 net.cpp:399] lstm1_ -> h_0
I0720 13:47:15.939653 29474 net.cpp:141] Setting up lstm1_
I0720 13:47:15.939666 29474 net.cpp:148] Top shape: 1 1 1000 (1000)
I0720 13:47:15.939676 29474 net.cpp:148] Top shape: 1 1 1000 (1000)
I0720 13:47:15.939682 29474 net.cpp:156] Memory required for data: 10004
I0720 13:47:15.939692 29474 layer_factory.hpp:77] Creating layer lstm1_cont_slice
I0720 13:47:15.940059 29474 net.cpp:91] Creating Layer lstm1_cont_slice
I0720 13:47:15.940076 29474 net.cpp:425] lstm1_cont_slice <- cont
I0720 13:47:15.940093 29474 net.cpp:399] lstm1_cont_slice -> cont_1
I0720 13:47:15.940117 29474 net.cpp:141] Setting up lstm1_cont_slice
I0720 13:47:15.940134 29474 net.cpp:148] Top shape: 1 1 (1)
I0720 13:47:15.940142 29474 net.cpp:156] Memory required for data: 10008
I0720 13:47:15.940152 29474 layer_factory.hpp:77] Creating layer cont_1_lstm1_cont_slice_0_split
I0720 13:47:15.940167 29474 net.cpp:91] Creating Layer cont_1_lstm1_cont_slice_0_split
I0720 13:47:15.940177 29474 net.cpp:425] cont_1_lstm1_cont_slice_0_split <- cont_1
I0720 13:47:15.940203 29474 net.cpp:399] cont_1_lstm1_cont_slice_0_split -> cont_1_lstm1_cont_slice_0_split_0
I0720 13:47:15.940223 29474 net.cpp:399] cont_1_lstm1_cont_slice_0_split -> cont_1_lstm1_cont_slice_0_split_1
I0720 13:47:15.940242 29474 net.cpp:141] Setting up cont_1_lstm1_cont_slice_0_split
I0720 13:47:15.940255 29474 net.cpp:148] Top shape: 1 1 (1)
I0720 13:47:15.940266 29474 net.cpp:148] Top shape: 1 1 (1)
I0720 13:47:15.940277 29474 net.cpp:156] Memory required for data: 10016
I0720 13:47:15.940263 29518 net.cpp:141] Setting up embedding
I0720 13:47:15.940295 29474 layer_factory.hpp:77] Creating layer lstm1_x_transform
I0720 13:47:15.940325 29518 net.cpp:148] Top shape: 1 1 500 (500)
I0720 13:47:15.940332 29518 net.cpp:156] Memory required for data: 22408
I0720 13:47:15.940349 29518 layer_factory.hpp:77] Creating layer lstm1
I0720 13:47:15.940349 29474 net.cpp:91] Creating Layer lstm1_x_transform
I0720 13:47:15.940364 29474 net.cpp:425] lstm1_x_transform <- x
I0720 13:47:15.940368 29518 net.cpp:91] Creating Layer lstm1
I0720 13:47:15.940377 29518 net.cpp:425] lstm1 <- embedded_input_frames
I0720 13:47:15.940389 29518 net.cpp:425] lstm1 <- cont_sentence_input_1_split_0
I0720 13:47:15.940390 29474 net.cpp:399] lstm1_x_transform -> W_xc_x
I0720 13:47:15.940436 29518 net.cpp:399] lstm1 -> lstm1
I0720 13:47:15.940459 29518 recurrent_layer.cpp:20] Initializing recurrent layer: assuming input batch contains 1 timesteps of 1 independent streams.
I0720 13:47:15.942919 29518 net.cpp:49] Initializing net from parameters: 
layer {
  name: "lstm1_"
  type: "Input"
  top: "x"
  top: "cont"
  input_param {
    shape {
      dim: 1
      dim: 1
      dim: 500
    }
    shape {
      dim: 1
      dim: 1
    }
  }
}
layer {
  name: "lstm1_"
  type: "Input"
  top: "c_0"
  top: "h_0"
  input_param {
    shape {
      dim: 1
      dim: 1
      dim: 1000
    }
    shape {
      dim: 1
      dim: 1
      dim: 1000
    }
  }
}
layer {
  name: "lstm1_cont_slice"
  type: "Slice"
  bottom: "cont"
  top: "cont_1"
  slice_param {
    axis: 0
  }
}
layer {
  name: "lstm1_x_transform"
  type: "InnerProduct"
  bottom: "x"
  top: "W_xc_x"
  param {
    name: "W_xc"
  }
  param {
    name: "b_c"
  }
  propagate_down: true
  inner_product_param {
    num_output: 4000
    bias_term: true
    weight_filler {
      type: "uniform"
      min: -0.08
      max: 0.08
    }
    bias_filler {
      type: "constant"
      value: 0
    }
    axis: 2
  }
}
layer {
  name: "lstm1_W_xc_x_slice"
  type: "Slice"
  bottom: "W_xc_x"
  top: "W_xc_x_1"
  slice_param {
    axis: 0
  }
}
layer {
  name: "lstm1_h_conted_0"
  type: "Scale"
  bottom: "h_0"
  bottom: "cont_1"
  top: "h_conted_0"
  scale_param {
    axis: 0
  }
}
layer {
  name: "lstm1_transform_1"
  type: "InnerProduct"
  bottom: "h_conted_0"
  top: "W_hc_h_0"
  param {
    name: "W_hc"
  }
  inner_product_param {
    num_output: 4000
    bias_term: false
    weight_filler {
      type: "uniform"
      min: -0.08
      max: 0.08
    }
    axis: 2
  }
}
layer {
  name: "lstm1_gate_input_1"
  type: "Eltwise"
  bottom: "W_hc_h_0"
  bottom: "W_xc_x_1"
  top: "gate_input_1"
  eltwise_param {
    operation: SUM
  }
}
layer {
  name: "lstm1_unit_1"
  type: "LSTMUnit"
  bottom: "c_0"
  bottom: "gate_input_1"
  bottom: "cont_1"
  top: "c_1"
  top: "h_1"
}
layer {
  name: "lstm1_"
  type: "Split"
  bottom: "c_1"
  top: "c_T"
}
layer {
  name: "lstm1_h_concat"
  type: "Concat"
  bottom: "h_1"
  top: "h"
  concat_param {
    axis: 0
  }
}
layer {
  name: "h_pseudoloss"
  type: "Reduction"
  bottom: "h"
  top: "h_pseudoloss"
  loss_weight: 1
}
I0720 13:47:15.943498 29518 layer_factory.hpp:77] Creating layer lstm1_
I0720 13:47:15.943524 29518 net.cpp:91] Creating Layer lstm1_
I0720 13:47:15.943536 29518 net.cpp:399] lstm1_ -> x
I0720 13:47:15.943557 29518 net.cpp:399] lstm1_ -> cont
I0720 13:47:15.943578 29518 net.cpp:141] Setting up lstm1_
I0720 13:47:15.943593 29518 net.cpp:148] Top shape: 1 1 500 (500)
I0720 13:47:15.943603 29518 net.cpp:148] Top shape: 1 1 (1)
I0720 13:47:15.943611 29518 net.cpp:156] Memory required for data: 2004
I0720 13:47:15.943620 29518 layer_factory.hpp:77] Creating layer lstm1_
I0720 13:47:15.943634 29518 net.cpp:91] Creating Layer lstm1_
I0720 13:47:15.943646 29518 net.cpp:399] lstm1_ -> c_0
I0720 13:47:15.943663 29518 net.cpp:399] lstm1_ -> h_0
I0720 13:47:15.943681 29518 net.cpp:141] Setting up lstm1_
I0720 13:47:15.943693 29518 net.cpp:148] Top shape: 1 1 1000 (1000)
I0720 13:47:15.943704 29518 net.cpp:148] Top shape: 1 1 1000 (1000)
I0720 13:47:15.943711 29518 net.cpp:156] Memory required for data: 10004
I0720 13:47:15.943720 29518 layer_factory.hpp:77] Creating layer lstm1_cont_slice
I0720 13:47:15.943734 29518 net.cpp:91] Creating Layer lstm1_cont_slice
I0720 13:47:15.943742 29518 net.cpp:425] lstm1_cont_slice <- cont
I0720 13:47:15.944180 29518 net.cpp:399] lstm1_cont_slice -> cont_1
I0720 13:47:15.944206 29518 net.cpp:141] Setting up lstm1_cont_slice
I0720 13:47:15.944218 29518 net.cpp:148] Top shape: 1 1 (1)
I0720 13:47:15.944226 29518 net.cpp:156] Memory required for data: 10008
I0720 13:47:15.944232 29518 layer_factory.hpp:77] Creating layer cont_1_lstm1_cont_slice_0_split
I0720 13:47:15.944244 29518 net.cpp:91] Creating Layer cont_1_lstm1_cont_slice_0_split
I0720 13:47:15.944252 29518 net.cpp:425] cont_1_lstm1_cont_slice_0_split <- cont_1
I0720 13:47:15.944267 29518 net.cpp:399] cont_1_lstm1_cont_slice_0_split -> cont_1_lstm1_cont_slice_0_split_0
I0720 13:47:15.944278 29518 net.cpp:399] cont_1_lstm1_cont_slice_0_split -> cont_1_lstm1_cont_slice_0_split_1
I0720 13:47:15.944293 29518 net.cpp:141] Setting up cont_1_lstm1_cont_slice_0_split
I0720 13:47:15.944304 29518 net.cpp:148] Top shape: 1 1 (1)
I0720 13:47:15.944313 29518 net.cpp:148] Top shape: 1 1 (1)
I0720 13:47:15.944319 29518 net.cpp:156] Memory required for data: 10016
I0720 13:47:15.944326 29518 layer_factory.hpp:77] Creating layer lstm1_x_transform
I0720 13:47:15.944340 29518 net.cpp:91] Creating Layer lstm1_x_transform
I0720 13:47:15.944347 29518 net.cpp:425] lstm1_x_transform <- x
I0720 13:47:15.944382 29518 net.cpp:399] lstm1_x_transform -> W_xc_x
I0720 13:47:15.945200 29488 net.cpp:141] Setting up lstm1_x_transform
I0720 13:47:15.945220 29488 net.cpp:148] Top shape: 1 1 4000 (4000)
I0720 13:47:15.945227 29488 net.cpp:156] Memory required for data: 26016
I0720 13:47:15.945245 29488 layer_factory.hpp:77] Creating layer lstm1_W_xc_x_slice
I0720 13:47:15.945256 29488 net.cpp:91] Creating Layer lstm1_W_xc_x_slice
I0720 13:47:15.945264 29488 net.cpp:425] lstm1_W_xc_x_slice <- W_xc_x
I0720 13:47:15.945274 29488 net.cpp:399] lstm1_W_xc_x_slice -> W_xc_x_1
I0720 13:47:15.945307 29488 net.cpp:141] Setting up lstm1_W_xc_x_slice
I0720 13:47:15.945319 29488 net.cpp:148] Top shape: 1 1 4000 (4000)
I0720 13:47:15.945327 29488 net.cpp:156] Memory required for data: 42016
I0720 13:47:15.945333 29488 layer_factory.hpp:77] Creating layer lstm1_h_conted_0
I0720 13:47:15.945345 29488 net.cpp:91] Creating Layer lstm1_h_conted_0
I0720 13:47:15.945353 29488 net.cpp:425] lstm1_h_conted_0 <- h_0
I0720 13:47:15.945361 29488 net.cpp:425] lstm1_h_conted_0 <- cont_1_lstm1_cont_slice_0_split_0
I0720 13:47:15.945375 29488 net.cpp:399] lstm1_h_conted_0 -> h_conted_0
I0720 13:47:15.945415 29488 net.cpp:141] Setting up lstm1_h_conted_0
I0720 13:47:15.945425 29488 net.cpp:148] Top shape: 1 1 1000 (1000)
I0720 13:47:15.945432 29488 net.cpp:156] Memory required for data: 46016
I0720 13:47:15.945438 29488 layer_factory.hpp:77] Creating layer lstm1_transform_1
I0720 13:47:15.945451 29488 net.cpp:91] Creating Layer lstm1_transform_1
I0720 13:47:15.945458 29488 net.cpp:425] lstm1_transform_1 <- h_conted_0
I0720 13:47:15.945487 29488 net.cpp:399] lstm1_transform_1 -> W_hc_h_0
I0720 13:47:15.946396 29514 net.cpp:141] Setting up embedding
I0720 13:47:15.946419 29514 net.cpp:148] Top shape: 1 1 500 (500)
I0720 13:47:15.946427 29514 net.cpp:156] Memory required for data: 22408
I0720 13:47:15.946441 29514 layer_factory.hpp:77] Creating layer lstm1
I0720 13:47:15.946455 29514 net.cpp:91] Creating Layer lstm1
I0720 13:47:15.946460 29514 net.cpp:425] lstm1 <- embedded_input_frames
I0720 13:47:15.946467 29514 net.cpp:425] lstm1 <- cont_sentence_input_1_split_0
I0720 13:47:15.947412 29514 net.cpp:399] lstm1 -> lstm1
I0720 13:47:15.947440 29514 recurrent_layer.cpp:20] Initializing recurrent layer: assuming input batch contains 1 timesteps of 1 independent streams.
I0720 13:47:15.948676 29480 net.cpp:141] Setting up embedding
I0720 13:47:15.948714 29514 net.cpp:49] Initializing net from parameters: 
layer {
  name: "lstm1_"
  type: "Input"
  top: "x"
  top: "cont"
  input_param {
    shape {
      dim: 1
      dim: 1
      dim: 500
    }
    shape {
      dim: 1
      dim: 1
    }
  }
}
layer {
  name: "lstm1_"
  type: "Input"
  top: "c_0"
  top: "h_0"
  input_param {
    shape {
      dim: 1
      dim: 1
      dim: 1000
    }
    shape {
      dim: 1
      dim: 1
      dim: 1000
    }
  }
}
layer {
  name: "lstm1_cont_slice"
  type: "Slice"
  bottom: "cont"
  top: "cont_1"
  slice_param {
    axis: 0
  }
}
layer {
  name: "lstm1_x_transform"
  type: "InnerProduct"
  bottom: "x"
  top: "W_xc_x"
  param {
    name: "W_xc"
  }
  param {
    name: "b_c"
  }
  propagate_down: true
  inner_product_param {
    num_output: 4000
    bias_term: true
    weight_filler {
      type: "uniform"
      min: -0.08
      max: 0.08
    }
    bias_filler {
      type: "constant"
      value: 0
    }
    axis: 2
  }
}
layer {
  name: "lstm1_W_xc_x_slice"
  type: "Slice"
  bottom: "W_xc_x"
  top: "W_xc_x_1"
  slice_param {
    axis: 0
  }
}
layer {
  name: "lstm1_h_conted_0"
  type: "Scale"
  bottom: "h_0"
  bottom: "cont_1"
  top: "h_conted_0"
  scale_param {
    axis: 0
  }
}
layer {
  name: "lstm1_transform_1"
  type: "InnerProduct"
  bottom: "h_conted_0"
  top: "W_hc_h_0"
  param {
    name: "W_hc"
  }
  inner_product_param {
    num_output: 4000
    bias_term: false
    weight_filler {
      type: "uniform"
      min: -0.08
      max: 0.08
    }
    axis: 2
  }
}
layer {
  name: "lstm1_gate_input_1"
  type: "Eltwise"
  bottom: "W_hc_h_0"
  bottom: "W_xc_x_1"
  top: "gate_input_1"
  eltwise_param {
    operation: SUM
  }
}
layer {
  name: "lstm1_unit_1"
  type: "LSTMUnit"
  bottom: "c_0"
  bottom: "gate_input_1"
  bottom: "cont_1"
  top: "c_1"
  top: "h_1"
}
layer {
  name: "lstm1_"
  type: "Split"
  bottom: "c_1"
  top: "c_T"
}
layer {
  name: "lstm1_h_concat"
  type: "Concat"
  bottom: "h_1"
  top: "h"
  concat_param {
    axis: 0
  }
}
layer {
  name: "h_pseudoloss"
  type: "Reduction"
  bottom: "h"
  top: "h_pseudoloss"
  loss_weight: 1
}
I0720 13:47:15.948727 29480 net.cpp:148] Top shape: 1 1 500 (500)
I0720 13:47:15.948734 29480 net.cpp:156] Memory required for data: 22408
I0720 13:47:15.948752 29480 layer_factory.hpp:77] Creating layer lstm1
I0720 13:47:15.948772 29480 net.cpp:91] Creating Layer lstm1
I0720 13:47:15.948781 29480 net.cpp:425] lstm1 <- embedded_input_frames
I0720 13:47:15.948791 29480 net.cpp:425] lstm1 <- cont_sentence_input_1_split_0
I0720 13:47:15.949332 29480 net.cpp:399] lstm1 -> lstm1
I0720 13:47:15.949347 29514 layer_factory.hpp:77] Creating layer lstm1_
I0720 13:47:15.949364 29480 recurrent_layer.cpp:20] Initializing recurrent layer: assuming input batch contains 1 timesteps of 1 independent streams.
I0720 13:47:15.949369 29514 net.cpp:91] Creating Layer lstm1_
I0720 13:47:15.949378 29514 net.cpp:399] lstm1_ -> x
I0720 13:47:15.949391 29514 net.cpp:399] lstm1_ -> cont
I0720 13:47:15.949406 29514 net.cpp:141] Setting up lstm1_
I0720 13:47:15.949415 29514 net.cpp:148] Top shape: 1 1 500 (500)
I0720 13:47:15.949421 29514 net.cpp:148] Top shape: 1 1 (1)
I0720 13:47:15.949424 29514 net.cpp:156] Memory required for data: 2004
I0720 13:47:15.949430 29514 layer_factory.hpp:77] Creating layer lstm1_
I0720 13:47:15.949437 29514 net.cpp:91] Creating Layer lstm1_
I0720 13:47:15.949443 29514 net.cpp:399] lstm1_ -> c_0
I0720 13:47:15.949453 29514 net.cpp:399] lstm1_ -> h_0
I0720 13:47:15.949462 29514 net.cpp:141] Setting up lstm1_
I0720 13:47:15.949470 29514 net.cpp:148] Top shape: 1 1 1000 (1000)
I0720 13:47:15.949475 29514 net.cpp:148] Top shape: 1 1 1000 (1000)
I0720 13:47:15.949478 29514 net.cpp:156] Memory required for data: 10004
I0720 13:47:15.949482 29514 layer_factory.hpp:77] Creating layer lstm1_cont_slice
I0720 13:47:15.949491 29514 net.cpp:91] Creating Layer lstm1_cont_slice
I0720 13:47:15.949496 29514 net.cpp:425] lstm1_cont_slice <- cont
I0720 13:47:15.949502 29514 net.cpp:399] lstm1_cont_slice -> cont_1
I0720 13:47:15.949515 29514 net.cpp:141] Setting up lstm1_cont_slice
I0720 13:47:15.949522 29514 net.cpp:148] Top shape: 1 1 (1)
I0720 13:47:15.949527 29514 net.cpp:156] Memory required for data: 10008
I0720 13:47:15.949532 29514 layer_factory.hpp:77] Creating layer cont_1_lstm1_cont_slice_0_split
I0720 13:47:15.949960 29514 net.cpp:91] Creating Layer cont_1_lstm1_cont_slice_0_split
I0720 13:47:15.949978 29514 net.cpp:425] cont_1_lstm1_cont_slice_0_split <- cont_1
I0720 13:47:15.949988 29514 net.cpp:399] cont_1_lstm1_cont_slice_0_split -> cont_1_lstm1_cont_slice_0_split_0
I0720 13:47:15.949998 29514 net.cpp:399] cont_1_lstm1_cont_slice_0_split -> cont_1_lstm1_cont_slice_0_split_1
I0720 13:47:15.950009 29514 net.cpp:141] Setting up cont_1_lstm1_cont_slice_0_split
I0720 13:47:15.950021 29514 net.cpp:148] Top shape: 1 1 (1)
I0720 13:47:15.950026 29514 net.cpp:148] Top shape: 1 1 (1)
I0720 13:47:15.950031 29514 net.cpp:156] Memory required for data: 10016
I0720 13:47:15.950036 29514 layer_factory.hpp:77] Creating layer lstm1_x_transform
I0720 13:47:15.950045 29514 net.cpp:91] Creating Layer lstm1_x_transform
I0720 13:47:15.950050 29514 net.cpp:425] lstm1_x_transform <- x
I0720 13:47:15.950588 29514 net.cpp:399] lstm1_x_transform -> W_xc_x
I0720 13:47:15.950613 29480 net.cpp:49] Initializing net from parameters: 
layer {
  name: "lstm1_"
  type: "Input"
  top: "x"
  top: "cont"
  input_param {
    shape {
      dim: 1
      dim: 1
      dim: 500
    }
    shape {
      dim: 1
      dim: 1
    }
  }
}
layer {
  name: "lstm1_"
  type: "Input"
  top: "c_0"
  top: "h_0"
  input_param {
    shape {
      dim: 1
      dim: 1
      dim: 1000
    }
    shape {
      dim: 1
      dim: 1
      dim: 1000
    }
  }
}
layer {
  name: "lstm1_cont_slice"
  type: "Slice"
  bottom: "cont"
  top: "cont_1"
  slice_param {
    axis: 0
  }
}
layer {
  name: "lstm1_x_transform"
  type: "InnerProduct"
  bottom: "x"
  top: "W_xc_x"
  param {
    name: "W_xc"
  }
  param {
    name: "b_c"
  }
  propagate_down: true
  inner_product_param {
    num_output: 4000
    bias_term: true
    weight_filler {
      type: "uniform"
      min: -0.08
      max: 0.08
    }
    bias_filler {
      type: "constant"
      value: 0
    }
    axis: 2
  }
}
layer {
  name: "lstm1_W_xc_x_slice"
  type: "Slice"
  bottom: "W_xc_x"
  top: "W_xc_x_1"
  slice_param {
    axis: 0
  }
}
layer {
  name: "lstm1_h_conted_0"
  type: "Scale"
  bottom: "h_0"
  bottom: "cont_1"
  top: "h_conted_0"
  scale_param {
    axis: 0
  }
}
layer {
  name: "lstm1_transform_1"
  type: "InnerProduct"
  bottom: "h_conted_0"
  top: "W_hc_h_0"
  param {
    name: "W_hc"
  }
  inner_product_param {
    num_output: 4000
    bias_term: false
    weight_filler {
      type: "uniform"
      min: -0.08
      max: 0.08
    }
    axis: 2
  }
}
layer {
  name: "lstm1_gate_input_1"
  type: "Eltwise"
  bottom: "W_hc_h_0"
  bottom: "W_xc_x_1"
  top: "gate_input_1"
  eltwise_param {
    operation: SUM
  }
}
layer {
  name: "lstm1_unit_1"
  type: "LSTMUnit"
  bottom: "c_0"
  bottom: "gate_input_1"
  bottom: "cont_1"
  top: "c_1"
  top: "h_1"
}
layer {
  name: "lstm1_"
  type: "Split"
  bottom: "c_1"
  top: "c_T"
}
layer {
  name: "lstm1_h_concat"
  type: "Concat"
  bottom: "h_1"
  top: "h"
  concat_param {
    axis: 0
  }
}
layer {
  name: "h_pseudoloss"
  type: "Reduction"
  bottom: "h"
  top: "h_pseudoloss"
  loss_weight: 1
}
I0720 13:47:15.951272 29480 layer_factory.hpp:77] Creating layer lstm1_
I0720 13:47:15.951297 29480 net.cpp:91] Creating Layer lstm1_
I0720 13:47:15.951305 29480 net.cpp:399] lstm1_ -> x
I0720 13:47:15.951318 29480 net.cpp:399] lstm1_ -> cont
I0720 13:47:15.951333 29480 net.cpp:141] Setting up lstm1_
I0720 13:47:15.951342 29480 net.cpp:148] Top shape: 1 1 500 (500)
I0720 13:47:15.951349 29480 net.cpp:148] Top shape: 1 1 (1)
I0720 13:47:15.951354 29480 net.cpp:156] Memory required for data: 2004
I0720 13:47:15.951359 29480 layer_factory.hpp:77] Creating layer lstm1_
I0720 13:47:15.951367 29480 net.cpp:91] Creating Layer lstm1_
I0720 13:47:15.951373 29480 net.cpp:399] lstm1_ -> c_0
I0720 13:47:15.951383 29480 net.cpp:399] lstm1_ -> h_0
I0720 13:47:15.951396 29480 net.cpp:141] Setting up lstm1_
I0720 13:47:15.951405 29480 net.cpp:148] Top shape: 1 1 1000 (1000)
I0720 13:47:15.951411 29480 net.cpp:148] Top shape: 1 1 1000 (1000)
I0720 13:47:15.951414 29480 net.cpp:156] Memory required for data: 10004
I0720 13:47:15.951419 29480 layer_factory.hpp:77] Creating layer lstm1_cont_slice
I0720 13:47:15.951428 29480 net.cpp:91] Creating Layer lstm1_cont_slice
I0720 13:47:15.951433 29480 net.cpp:425] lstm1_cont_slice <- cont
I0720 13:47:15.951442 29480 net.cpp:399] lstm1_cont_slice -> cont_1
I0720 13:47:15.951454 29480 net.cpp:141] Setting up lstm1_cont_slice
I0720 13:47:15.951462 29480 net.cpp:148] Top shape: 1 1 (1)
I0720 13:47:15.951467 29480 net.cpp:156] Memory required for data: 10008
I0720 13:47:15.951470 29480 layer_factory.hpp:77] Creating layer cont_1_lstm1_cont_slice_0_split
I0720 13:47:15.951817 29480 net.cpp:91] Creating Layer cont_1_lstm1_cont_slice_0_split
I0720 13:47:15.951835 29480 net.cpp:425] cont_1_lstm1_cont_slice_0_split <- cont_1
I0720 13:47:15.951848 29480 net.cpp:399] cont_1_lstm1_cont_slice_0_split -> cont_1_lstm1_cont_slice_0_split_0
I0720 13:47:15.951858 29480 net.cpp:399] cont_1_lstm1_cont_slice_0_split -> cont_1_lstm1_cont_slice_0_split_1
I0720 13:47:15.951870 29480 net.cpp:141] Setting up cont_1_lstm1_cont_slice_0_split
I0720 13:47:15.952396 29480 net.cpp:148] Top shape: 1 1 (1)
I0720 13:47:15.952414 29480 net.cpp:148] Top shape: 1 1 (1)
I0720 13:47:15.952419 29480 net.cpp:156] Memory required for data: 10016
I0720 13:47:15.952425 29480 layer_factory.hpp:77] Creating layer lstm1_x_transform
I0720 13:47:15.952440 29480 net.cpp:91] Creating Layer lstm1_x_transform
I0720 13:47:15.952445 29480 net.cpp:425] lstm1_x_transform <- x
I0720 13:47:15.952478 29480 net.cpp:399] lstm1_x_transform -> W_xc_x
I0720 13:47:15.957658 29476 net.cpp:141] Setting up lstm1_transform_1
I0720 13:47:15.957718 29476 net.cpp:148] Top shape: 1 1 4000 (4000)
I0720 13:47:15.957731 29476 net.cpp:156] Memory required for data: 62016
I0720 13:47:15.957764 29476 layer_factory.hpp:77] Creating layer lstm1_gate_input_1
I0720 13:47:15.957798 29476 net.cpp:91] Creating Layer lstm1_gate_input_1
I0720 13:47:15.957813 29476 net.cpp:425] lstm1_gate_input_1 <- W_hc_h_0
I0720 13:47:15.957829 29476 net.cpp:425] lstm1_gate_input_1 <- W_xc_x_1
I0720 13:47:15.957846 29476 net.cpp:399] lstm1_gate_input_1 -> gate_input_1
I0720 13:47:15.957885 29476 net.cpp:141] Setting up lstm1_gate_input_1
I0720 13:47:15.957902 29476 net.cpp:148] Top shape: 1 1 4000 (4000)
I0720 13:47:15.957912 29476 net.cpp:156] Memory required for data: 78016
I0720 13:47:15.957921 29476 layer_factory.hpp:77] Creating layer lstm1_unit_1
I0720 13:47:15.957955 29476 net.cpp:91] Creating Layer lstm1_unit_1
I0720 13:47:15.957967 29476 net.cpp:425] lstm1_unit_1 <- c_0
I0720 13:47:15.957979 29476 net.cpp:425] lstm1_unit_1 <- gate_input_1
I0720 13:47:15.957991 29476 net.cpp:425] lstm1_unit_1 <- cont_1_lstm1_cont_slice_0_split_1
I0720 13:47:15.958005 29476 net.cpp:399] lstm1_unit_1 -> c_1
I0720 13:47:15.958022 29476 net.cpp:399] lstm1_unit_1 -> h_1
I0720 13:47:15.958052 29476 net.cpp:141] Setting up lstm1_unit_1
I0720 13:47:15.958068 29476 net.cpp:148] Top shape: 1 1 1000 (1000)
I0720 13:47:15.958079 29476 net.cpp:148] Top shape: 1 1 1000 (1000)
…
I0720 13:47:16.784849 29486 net.cpp:91] Creating Layer conv5
I0720 13:47:16.784863 29486 net.cpp:425] conv5 <- conv4
I0720 13:47:16.785471 29486 net.cpp:399] conv5 -> conv5
I0720 13:47:16.794179 29512 net.cpp:141] Setting up prob
I0720 13:47:16.794270 29512 net.cpp:148] Top shape: 10 1000 (10000)
I0720 13:47:16.794281 29512 net.cpp:156] Memory required for data: 68681400
I0720 13:47:16.794298 29512 net.cpp:219] prob does not need backward computation.
I0720 13:47:16.794312 29512 net.cpp:219] fc8 does not need backward computation.
I0720 13:47:16.794322 29512 net.cpp:219] drop7 does not need backward computation.
I0720 13:47:16.794329 29512 net.cpp:219] relu7 does not need backward computation.
…
I0720 13:47:16.794483 29512 net.cpp:219] norm1 does not need backward computation.
I0720 13:47:16.794492 29512 net.cpp:219] pool1 does not need backward computation.
I0720 13:47:16.794499 29512 net.cpp:219] relu1 does not need backward computation.
I0720 13:47:16.794507 29512 net.cpp:219] conv1 does not need backward computation.
I0720 13:47:16.794514 29512 net.cpp:219] data does not need backward computation.
I0720 13:47:16.794522 29512 net.cpp:261] This network produces output prob
I0720 13:47:16.794986 29512 net.cpp:274] Network initialization done.
I0720 13:47:16.813355 29482 net.cpp:141] Setting up fc6
I0720 13:47:16.813421 29482 net.cpp:148] Top shape: 10 4096 (40960)
I0720 13:47:16.813431 29482 net.cpp:156] Memory required for data: 67782200
I0720 13:47:16.813454 29482 layer_factory.hpp:77] Creating layer relu6
I0720 13:47:16.813478 29482 net.cpp:91] Creating Layer relu6
I0720 13:47:16.813489 29482 net.cpp:425] relu6 <- fc6
I0720 13:47:16.813875 29482 net.cpp:386] relu6 -> fc6 (in-place)
I0720 13:47:16.813875 29494 net.cpp:141] Setting up fc6
I0720 13:47:16.813917 29494 net.cpp:148] Top shape: 10 4096 (40960)
I0720 13:47:16.813927 29494 net.cpp:156] Memory required for data: 67782200
I0720 13:47:16.813948 29494 layer_factory.hpp:77] Creating layer relu6
I0720 13:47:16.813966 29494 net.cpp:91] Creating Layer relu6
I0720 13:47:16.813977 29494 net.cpp:425] relu6 <- fc6
I0720 13:47:16.814448 29494 net.cpp:386] relu6 -> fc6 (in-place)
I0720 13:47:16.845662 29482 net.cpp:141] Setting up relu6
I0720 13:47:16.845731 29482 net.cpp:148] Top shape: 10 4096 (40960)
I0720 13:47:16.845741 29482 net.cpp:156] Memory required for data: 67946040
I0720 13:47:16.845757 29482 layer_factory.hpp:77] Creating layer drop6
I0720 13:47:16.845784 29482 net.cpp:91] Creating Layer drop6
I0720 13:47:16.845796 29482 net.cpp:425] drop6 <- fc6
I0720 13:47:16.845821 29482 net.cpp:386] drop6 -> fc6 (in-place)
I0720 13:47:16.845846 29482 net.cpp:141] Setting up drop6
I0720 13:47:16.845857 29482 net.cpp:148] Top shape: 10 4096 (40960)
I0720 13:47:16.845865 29482 net.cpp:156] Memory required for data: 68109880
I0720 13:47:16.845872 29482 layer_factory.hpp:77] Creating layer fc7
I0720 13:47:16.845890 29482 net.cpp:91] Creating Layer fc7
I0720 13:47:16.845896 29482 net.cpp:425] fc7 <- fc6
I0720 13:47:16.847712 29482 net.cpp:399] fc7 -> fc7
I0720 13:47:16.849144 29494 net.cpp:141] Setting up relu6
I0720 13:47:16.849195 29494 net.cpp:148] Top shape: 10 4096 (40960)
I0720 13:47:16.849206 29494 net.cpp:156] Memory required for data: 67946040
I0720 13:47:16.849225 29494 layer_factory.hpp:77] Creating layer drop6
I0720 13:47:16.849256 29494 net.cpp:91] Creating Layer drop6
I0720 13:47:16.849270 29494 net.cpp:425] drop6 <- fc6
I0720 13:47:16.849287 29494 net.cpp:386] drop6 -> fc6 (in-place)
I0720 13:47:16.849313 29494 net.cpp:141] Setting up drop6
I0720 13:47:16.849325 29494 net.cpp:148] Top shape: 10 4096 (40960)
I0720 13:47:16.849334 29494 net.cpp:156] Memory required for data: 68109880
I0720 13:47:16.849342 29494 layer_factory.hpp:77] Creating layer fc7
I0720 13:47:16.849362 29494 net.cpp:91] Creating Layer fc7
I0720 13:47:16.849370 29494 net.cpp:425] fc7 <- fc6
I0720 13:47:16.849977 29494 net.cpp:399] fc7 -> fc7
I0720 13:47:16.869802 29506 net.cpp:141] Setting up conv5
I0720 13:47:16.869861 29506 net.cpp:148] Top shape: 10 256 13 13 (432640)
I0720 13:47:16.869871 29506 net.cpp:156] Memory required for data: 65519160
I0720 13:47:16.869910 29506 layer_factory.hpp:77] Creating layer relu5
I0720 13:47:16.869936 29506 net.cpp:91] Creating Layer relu5
I0720 13:47:16.869946 29506 net.cpp:425] relu5 <- conv5
I0720 13:47:16.869959 29506 net.cpp:386] relu5 -> conv5 (in-place)
I0720 13:47:16.888334 29506 net.cpp:141] Setting up relu5
I0720 13:47:16.888893 29506 net.cpp:148] Top shape: 10 256 13 13 (432640)
I0720 13:47:16.889312 29506 net.cpp:156] Memory required for data: 67249720
I0720 13:47:16.889338 29506 layer_factory.hpp:77] Creating layer pool5
I0720 13:47:16.889367 29506 net.cpp:91] Creating Layer pool5
I0720 13:47:16.889379 29506 net.cpp:425] pool5 <- conv5
I0720 13:47:16.889391 29506 net.cpp:399] pool5 -> pool5
I0720 13:47:16.889416 29506 net.cpp:141] Setting up pool5
I0720 13:47:16.889425 29506 net.cpp:148] Top shape: 10 256 6 6 (92160)
I0720 13:47:16.889430 29506 net.cpp:156] Memory required for data: 67618360
I0720 13:47:16.889434 29506 layer_factory.hpp:77] Creating layer fc6
I0720 13:47:16.891296 29506 net.cpp:91] Creating Layer fc6
I0720 13:47:16.891365 29506 net.cpp:425] fc6 <- pool5
I0720 13:47:16.891971 29496 net.cpp:141] Setting up probs
I0720 13:47:16.891995 29506 net.cpp:399] fc6 -> fc6
I0720 13:47:16.892046 29496 net.cpp:148] Top shape: 1 1 46168 (46168)
I0720 13:47:16.892057 29496 net.cpp:156] Memory required for data: 405756
I0720 13:47:16.892073 29496 net.cpp:219] probs does not need backward computation.
I0720 13:47:16.892086 29496 net.cpp:219] predict does not need backward computation.
I0720 13:47:16.892097 29496 net.cpp:219] lstm2 does not need backward computation.
I0720 13:47:16.892107 29496 net.cpp:219] concat does not need backward computation.
I0720 13:47:16.892115 29496 net.cpp:219] lstm1 does not need backward computation.
I0720 13:47:16.892124 29496 net.cpp:219] embedding does not need backward computation.
I0720 13:47:16.892133 29496 net.cpp:219] reshape_stage_indicator does not need backward computation.
I0720 13:47:16.892141 29496 net.cpp:219] reshape_frames does not need backward computation.
I0720 13:47:16.892149 29496 net.cpp:219] embed_encoder does not need backward computation.
I0720 13:47:16.892158 29496 net.cpp:219] cont_sentence_input_1_split does not need backward computation.
I0720 13:47:16.892168 29496 net.cpp:219] input does not need backward computation.
I0720 13:47:16.892174 29496 net.cpp:261] This network produces output probs
I0720 13:47:16.892946 29496 net.cpp:274] Network initialization done.
I0720 13:47:16.894618 29482 net.cpp:141] Setting up fc7
I0720 13:47:16.895457 29482 net.cpp:148] Top shape: 10 4096 (40960)
I0720 13:47:16.895604 29482 net.cpp:156] Memory required for data: 68273720
I0720 13:47:16.895635 29482 layer_factory.hpp:77] Creating layer relu7
I0720 13:47:16.895658 29482 net.cpp:91] Creating Layer relu7
I0720 13:47:16.895668 29482 net.cpp:425] relu7 <- fc7
I0720 13:47:16.895681 29482 net.cpp:386] relu7 -> fc7 (in-place)
I0720 13:47:16.896179 29494 net.cpp:141] Setting up fc7
I0720 13:47:16.896370 29494 net.cpp:148] Top shape: 10 4096 (40960)
I0720 13:47:16.896383 29494 net.cpp:156] Memory required for data: 68273720
I0720 13:47:16.896395 29494 layer_factory.hpp:77] Creating layer relu7
I0720 13:47:16.896404 29494 net.cpp:91] Creating Layer relu7
I0720 13:47:16.896411 29494 net.cpp:425] relu7 <- fc7
I0720 13:47:16.896419 29494 net.cpp:386] relu7 -> fc7 (in-place)
I0720 13:47:16.903193 29490 net.cpp:141] Setting up relu5
I0720 13:47:16.903956 29490 net.cpp:148] Top shape: 10 256 13 13 (432640)
I0720 13:47:16.904291 29490 net.cpp:156] Memory required for data: 67249720
I0720 13:47:16.904515 29490 layer_factory.hpp:77] Creating layer pool5
I0720 13:47:16.904760 29490 net.cpp:91] Creating Layer pool5
I0720 13:47:16.904798 29490 net.cpp:425] pool5 <- conv5
I0720 13:47:16.904834 29490 net.cpp:399] pool5 -> pool5
I0720 13:47:16.904894 29490 net.cpp:141] Setting up pool5
I0720 13:47:16.904929 29490 net.cpp:148] Top shape: 10 256 6 6 (92160)
I0720 13:47:16.904947 29490 net.cpp:156] Memory required for data: 67618360
I0720 13:47:16.904963 29490 layer_factory.hpp:77] Creating layer fc6
I0720 13:47:16.906033 29490 net.cpp:91] Creating Layer fc6
I0720 13:47:16.906088 29490 net.cpp:425] fc6 <- pool5
I0720 13:47:16.906126 29490 net.cpp:399] fc6 -> fc6
I0720 13:47:16.912012 29482 net.cpp:141] Setting up relu7
I0720 13:47:16.912072 29482 net.cpp:148] Top shape: 10 4096 (40960)
I0720 13:47:16.912084 29482 net.cpp:156] Memory required for data: 68437560
I0720 13:47:16.912098 29482 layer_factory.hpp:77] Creating layer drop7
I0720 13:47:16.912122 29482 net.cpp:91] Creating Layer drop7
I0720 13:47:16.912135 29482 net.cpp:425] drop7 <- fc7
I0720 13:47:16.912611 29482 net.cpp:386] drop7 -> fc7 (in-place)
I0720 13:47:16.912645 29482 net.cpp:141] Setting up drop7
I0720 13:47:16.912660 29482 net.cpp:148] Top shape: 10 4096 (40960)
I0720 13:47:16.912668 29482 net.cpp:156] Memory required for data: 68601400
I0720 13:47:16.912678 29482 layer_factory.hpp:77] Creating layer fc8
I0720 13:47:16.912694 29482 net.cpp:91] Creating Layer fc8
I0720 13:47:16.912705 29482 net.cpp:425] fc8 <- fc7
I0720 13:47:16.912719 29482 net.cpp:399] fc8 -> fc8
I0720 13:47:16.914032 29494 net.cpp:141] Setting up relu7
I0720 13:47:16.914067 29494 net.cpp:148] Top shape: 10 4096 (40960)
I0720 13:47:16.914078 29494 net.cpp:156] Memory required for data: 68437560
I0720 13:47:16.914091 29494 layer_factory.hpp:77] Creating layer drop7
I0720 13:47:16.914113 29494 net.cpp:91] Creating Layer drop7
I0720 13:47:16.914124 29494 net.cpp:425] drop7 <- fc7
I0720 13:47:16.915195 29494 net.cpp:386] drop7 -> fc7 (in-place)
I0720 13:47:16.915249 29494 net.cpp:141] Setting up drop7
I0720 13:47:16.915267 29494 net.cpp:148] Top shape: 10 4096 (40960)
I0720 13:47:16.915277 29494 net.cpp:156] Memory required for data: 68601400
I0720 13:47:16.915289 29494 layer_factory.hpp:77] Creating layer fc8
I0720 13:47:16.915313 29494 net.cpp:91] Creating Layer fc8
I0720 13:47:16.915323 29494 net.cpp:425] fc8 <- fc7
I0720 13:47:16.916153 29494 net.cpp:399] fc8 -> fc8
I0720 13:47:16.916885 29510 net.cpp:141] Setting up conv4
I0720 13:47:16.916956 29510 net.cpp:148] Top shape: 10 384 13 13 (648960)
I0720 13:47:16.916966 29510 net.cpp:156] Memory required for data: 61192760
I0720 13:47:16.916990 29510 layer_factory.hpp:77] Creating layer relu4
I0720 13:47:16.917006 29510 net.cpp:91] Creating Layer relu4
I0720 13:47:16.917013 29510 net.cpp:425] relu4 <- conv4
I0720 13:47:16.917711 29510 net.cpp:386] relu4 -> conv4 (in-place)
I0720 13:47:16.931921 29482 net.cpp:141] Setting up fc8
I0720 13:47:16.931982 29482 net.cpp:148] Top shape: 10 1000 (10000)
I0720 13:47:16.931991 29482 net.cpp:156] Memory required for data: 68641400
I0720 13:47:16.932018 29482 layer_factory.hpp:77] Creating layer prob
I0720 13:47:16.932621 29482 net.cpp:91] Creating Layer prob
I0720 13:47:16.932648 29482 net.cpp:425] prob <- fc8
I0720 13:47:16.932667 29482 net.cpp:399] prob -> prob
I0720 13:47:16.936501 29494 net.cpp:141] Setting up fc8
I0720 13:47:16.936568 29494 net.cpp:148] Top shape: 10 1000 (10000)
I0720 13:47:16.936574 29494 net.cpp:156] Memory required for data: 68641400
I0720 13:47:16.936597 29494 layer_factory.hpp:77] Creating layer prob
I0720 13:47:16.937458 29494 net.cpp:91] Creating Layer prob
I0720 13:47:16.937499 29494 net.cpp:425] prob <- fc8
I0720 13:47:16.937516 29494 net.cpp:399] prob -> prob
I0720 13:47:16.953784 29510 net.cpp:141] Setting up relu4
I0720 13:47:16.953873 29510 net.cpp:148] Top shape: 10 384 13 13 (648960)
I0720 13:47:16.953886 29510 net.cpp:156] Memory required for data: 63788600
I0720 13:47:16.953904 29510 layer_factory.hpp:77] Creating layer conv5
I0720 13:47:16.954641 29510 net.cpp:91] Creating Layer conv5
I0720 13:47:16.954684 29510 net.cpp:425] conv5 <- conv4
I0720 13:47:16.956146 29510 net.cpp:399] conv5 -> conv5
I0720 13:47:16.957921 29522 net.cpp:141] Setting up conv4
I0720 13:47:16.957979 29522 net.cpp:148] Top shape: 10 384 13 13 (648960)
I0720 13:47:16.957989 29522 net.cpp:156] Memory required for data: 61192760
I0720 13:47:16.958011 29522 layer_factory.hpp:77] Creating layer relu4
I0720 13:47:16.958861 29522 net.cpp:91] Creating Layer relu4
I0720 13:47:16.958881 29522 net.cpp:425] relu4 <- conv4
I0720 13:47:16.958899 29522 net.cpp:386] relu4 -> conv4 (in-place)
I0720 13:47:16.959758 29482 net.cpp:141] Setting up prob
I0720 13:47:16.959800 29482 net.cpp:148] Top shape: 10 1000 (10000)
I0720 13:47:16.959808 29482 net.cpp:156] Memory required for data: 68681400
I0720 13:47:16.959821 29482 net.cpp:219] prob does not need backward computation.
I0720 13:47:16.959831 29482 net.cpp:219] fc8 does not need backward computation.
I0720 13:47:16.959838 29482 net.cpp:219] drop7 does not need backward computation.
I0720 13:47:16.959846 29482 net.cpp:219] relu7 does not need backward computation.
…
I0720 13:47:16.969193 29494 net.cpp:219] norm1 does not need backward computation.
I0720 13:47:16.969202 29494 net.cpp:219] pool1 does not need backward computation.
I0720 13:47:16.969211 29494 net.cpp:219] relu1 does not need backward computation.
I0720 13:47:16.969218 29494 net.cpp:219] conv1 does not need backward computation.
I0720 13:47:16.969228 29494 net.cpp:219] data does not need backward computation.
I0720 13:47:16.969235 29494 net.cpp:261] This network produces output prob
I0720 13:47:16.969271 29494 net.cpp:274] Network initialization done.
I0720 13:47:16.973134 29478 net.cpp:141] Setting up conv5
I0720 13:47:16.973228 29478 net.cpp:148] Top shape: 10 256 13 13 (432640)
I0720 13:47:16.973242 29478 net.cpp:156] Memory required for data: 65519160
I0720 13:47:16.973289 29478 layer_factory.hpp:77] Creating layer relu5
I0720 13:47:16.973320 29478 net.cpp:91] Creating Layer relu5
I0720 13:47:16.973335 29478 net.cpp:425] relu5 <- conv5
I0720 13:47:16.973353 29478 net.cpp:386] relu5 -> conv5 (in-place)
I0720 13:47:16.983777 29478 net.cpp:141] Setting up relu5
I0720 13:47:16.983850 29478 net.cpp:148] Top shape: 10 256 13 13 (432640)
I0720 13:47:16.983860 29478 net.cpp:156] Memory required for data: 67249720
I0720 13:47:16.983876 29478 layer_factory.hpp:77] Creating layer pool5
I0720 13:47:16.984675 29478 net.cpp:91] Creating Layer pool5
I0720 13:47:16.984724 29478 net.cpp:425] pool5 <- conv5
I0720 13:47:16.984748 29478 net.cpp:399] pool5 -> pool5
I0720 13:47:16.984789 29478 net.cpp:141] Setting up pool5
I0720 13:47:16.984808 29478 net.cpp:148] Top shape: 10 256 6 6 (92160)
I0720 13:47:16.984817 29478 net.cpp:156] Memory required for data: 67618360
I0720 13:47:16.984828 29478 layer_factory.hpp:77] Creating layer fc6
I0720 13:47:16.985394 29478 net.cpp:91] Creating Layer fc6
I0720 13:47:16.985435 29478 net.cpp:425] fc6 <- pool5
I0720 13:47:16.985458 29478 net.cpp:399] fc6 -> fc6
I0720 13:47:17.006361 29506 net.cpp:141] Setting up fc6
I0720 13:47:17.006428 29506 net.cpp:148] Top shape: 10 4096 (40960)
I0720 13:47:17.006438 29506 net.cpp:156] Memory required for data: 67782200
I0720 13:47:17.006464 29506 layer_factory.hpp:77] Creating layer relu6
I0720 13:47:17.007527 29506 net.cpp:91] Creating Layer relu6
I0720 13:47:17.007558 29506 net.cpp:425] relu6 <- fc6
I0720 13:47:17.007580 29506 net.cpp:386] relu6 -> fc6 (in-place)
I0720 13:47:17.012568 29488 net.cpp:752] Ignoring source layer data
I0720 13:47:17.012619 29488 net.cpp:752] Ignoring source layer cont_sentence_data_0_split
I0720 13:47:17.012627 29488 net.cpp:752] Ignoring source layer reshape_stg_indicator
I0720 13:47:17.070403 29490 net.cpp:141] Setting up fc6
I0720 13:47:17.070511 29490 net.cpp:148] Top shape: 10 4096 (40960)
I0720 13:47:17.070524 29490 net.cpp:156] Memory required for data: 67782200
I0720 13:47:17.070559 29490 layer_factory.hpp:77] Creating layer relu6
I0720 13:47:17.070593 29490 net.cpp:91] Creating Layer relu6
I0720 13:47:17.070605 29490 net.cpp:425] relu6 <- fc6
I0720 13:47:17.072429 29504 net.cpp:141] Setting up relu4
I0720 13:47:17.072434 29490 net.cpp:386] relu6 -> fc6 (in-place)
I0720 13:47:17.072535 29504 net.cpp:148] Top shape: 10 384 13 13 (648960)
I0720 13:47:17.072548 29504 net.cpp:156] Memory required for data: 63788600
I0720 13:47:17.072569 29504 layer_factory.hpp:77] Creating layer conv5
I0720 13:47:17.073420 29504 net.cpp:91] Creating Layer conv5
I0720 13:47:17.073465 29504 net.cpp:425] conv5 <- conv4
I0720 13:47:17.073499 29504 net.cpp:399] conv5 -> conv5
I0720 13:47:17.126785 29506 net.cpp:141] Setting up relu6
I0720 13:47:17.127223 29506 net.cpp:148] Top shape: 10 4096 (40960)
I0720 13:47:17.127238 29506 net.cpp:156] Memory required for data: 67946040
I0720 13:47:17.127255 29506 layer_factory.hpp:77] Creating layer drop6
I0720 13:47:17.127285 29506 net.cpp:91] Creating Layer drop6
I0720 13:47:17.127300 29506 net.cpp:425] drop6 <- fc6
I0720 13:47:17.127776 29506 net.cpp:386] drop6 -> fc6 (in-place)
I0720 13:47:17.127907 29506 net.cpp:141] Setting up drop6
I0720 13:47:17.128013 29506 net.cpp:148] Top shape: 10 4096 (40960)
I0720 13:47:17.128168 29506 net.cpp:156] Memory required for data: 68109880
I0720 13:47:17.128319 29506 layer_factory.hpp:77] Creating layer fc7
I0720 13:47:17.128450 29506 net.cpp:91] Creating Layer fc7
I0720 13:47:17.128572 29506 net.cpp:425] fc7 <- fc6
I0720 13:47:17.128685 29506 net.cpp:399] fc7 -> fc7
I0720 13:47:17.150856 29486 net.cpp:141] Setting up conv5
I0720 13:47:17.150928 29486 net.cpp:148] Top shape: 10 256 13 13 (432640)
I0720 13:47:17.150938 29486 net.cpp:156] Memory required for data: 65519160
I0720 13:47:17.150985 29486 layer_factory.hpp:77] Creating layer relu5
I0720 13:47:17.151015 29486 net.cpp:91] Creating Layer relu5
I0720 13:47:17.151028 29486 net.cpp:425] relu5 <- conv5
I0720 13:47:17.151044 29486 net.cpp:386] relu5 -> conv5 (in-place)
I0720 13:47:17.171586 29478 net.cpp:141] Setting up fc6
I0720 13:47:17.171703 29478 net.cpp:148] Top shape: 10 4096 (40960)
I0720 13:47:17.171717 29478 net.cpp:156] Memory required for data: 67782200
I0720 13:47:17.171753 29478 layer_factory.hpp:77] Creating layer relu6
I0720 13:47:17.171792 29478 net.cpp:91] Creating Layer relu6
I0720 13:47:17.171805 29478 net.cpp:425] relu6 <- fc6
I0720 13:47:17.173449 29478 net.cpp:386] relu6 -> fc6 (in-place)
I0720 13:47:17.175026 29490 net.cpp:141] Setting up relu6
I0720 13:47:17.175704 29490 net.cpp:148] Top shape: 10 4096 (40960)
I0720 13:47:17.175726 29490 net.cpp:156] Memory required for data: 67946040
I0720 13:47:17.175746 29490 layer_factory.hpp:77] Creating layer drop6
I0720 13:47:17.176481 29490 net.cpp:91] Creating Layer drop6
I0720 13:47:17.176518 29490 net.cpp:425] drop6 <- fc6
I0720 13:47:17.176547 29490 net.cpp:386] drop6 -> fc6 (in-place)
I0720 13:47:17.176585 29490 net.cpp:141] Setting up drop6
I0720 13:47:17.176601 29490 net.cpp:148] Top shape: 10 4096 (40960)
I0720 13:47:17.176612 29490 net.cpp:156] Memory required for data: 68109880
I0720 13:47:17.176623 29490 layer_factory.hpp:77] Creating layer fc7
I0720 13:47:17.176656 29490 net.cpp:91] Creating Layer fc7
I0720 13:47:17.176667 29490 net.cpp:425] fc7 <- fc6
I0720 13:47:17.176682 29490 net.cpp:399] fc7 -> fc7
I0720 13:47:17.183562 29488 net.cpp:752] Ignoring source layer cross_entropy_loss
I0720 13:47:17.193217 29506 net.cpp:141] Setting up fc7
I0720 13:47:17.193301 29506 net.cpp:148] Top shape: 10 4096 (40960)
I0720 13:47:17.193312 29506 net.cpp:156] Memory required for data: 68273720
I0720 13:47:17.193341 29506 layer_factory.hpp:77] Creating layer relu7
I0720 13:47:17.194393 29506 net.cpp:91] Creating Layer relu7
I0720 13:47:17.194396 29508 net.cpp:752] Ignoring source layer data
I0720 13:47:17.194458 29506 net.cpp:425] relu7 <- fc7
I0720 13:47:17.194473 29508 net.cpp:752] Ignoring source layer cont_sentence_data_0_split
I0720 13:47:17.194488 29508 net.cpp:752] Ignoring source layer reshape_stg_indicator
I0720 13:47:17.194489 29506 net.cpp:386] relu7 -> fc7 (in-place)
I0720 13:47:17.204519 29506 net.cpp:141] Setting up relu7
I0720 13:47:17.204591 29506 net.cpp:148] Top shape: 10 4096 (40960)
I0720 13:47:17.204601 29506 net.cpp:156] Memory required for data: 68437560
I0720 13:47:17.204617 29506 layer_factory.hpp:77] Creating layer drop7
I0720 13:47:17.205469 29506 net.cpp:91] Creating Layer drop7
I0720 13:47:17.205471 29486 net.cpp:141] Setting up relu5
I0720 13:47:17.205520 29506 net.cpp:425] drop7 <- fc7
I0720 13:47:17.205535 29486 net.cpp:148] Top shape: 10 256 13 13 (432640)
I0720 13:47:17.205548 29486 net.cpp:156] Memory required for data: 67249720
I0720 13:47:17.205561 29486 layer_factory.hpp:77] Creating layer pool5
I0720 13:47:17.205538 29506 net.cpp:386] drop7 -> fc7 (in-place)
I0720 13:47:17.206081 29522 net.cpp:141] Setting up conv5
I0720 13:47:17.206081 29486 net.cpp:91] Creating Layer pool5
I0720 13:47:17.206112 29506 net.cpp:141] Setting up drop7
I0720 13:47:17.206115 29522 net.cpp:148] Top shape: 10 256 13 13 (432640)
I0720 13:47:17.206128 29506 net.cpp:148] Top shape: 10 4096 (40960)
I0720 13:47:17.206121 29486 net.cpp:425] pool5 <- conv5
I0720 13:47:17.206136 29506 net.cpp:156] Memory required for data: 68601400
I0720 13:47:17.206136 29522 net.cpp:156] Memory required for data: 65519160
I0720 13:47:17.206148 29506 layer_factory.hpp:77] Creating layer fc8
I0720 13:47:17.206149 29486 net.cpp:399] pool5 -> pool5
I0720 13:47:17.206167 29506 net.cpp:91] Creating Layer fc8
I0720 13:47:17.206171 29522 layer_factory.hpp:77] Creating layer relu5
I0720 13:47:17.206176 29506 net.cpp:425] fc8 <- fc7
I0720 13:47:17.206182 29486 net.cpp:141] Setting up pool5
I0720 13:47:17.206187 29522 net.cpp:91] Creating Layer relu5
I0720 13:47:17.206187 29506 net.cpp:399] fc8 -> fc8
I0720 13:47:17.206197 29486 net.cpp:148] Top shape: 10 256 6 6 (92160)
I0720 13:47:17.206202 29522 net.cpp:425] relu5 <- conv5
I0720 13:47:17.206207 29486 net.cpp:156] Memory required for data: 67618360
I0720 13:47:17.206215 29486 layer_factory.hpp:77] Creating layer fc6
I0720 13:47:17.207440 29486 net.cpp:91] Creating Layer fc6
I0720 13:47:17.207440 29522 net.cpp:386] relu5 -> conv5 (in-place)
I0720 13:47:17.207491 29486 net.cpp:425] fc6 <- pool5
I0720 13:47:17.207517 29486 net.cpp:399] fc6 -> fc6
I0720 13:47:17.210070 29522 net.cpp:141] Setting up relu5
I0720 13:47:17.210145 29522 net.cpp:148] Top shape: 10 256 13 13 (432640)
I0720 13:47:17.210155 29522 net.cpp:156] Memory required for data: 67249720
I0720 13:47:17.210172 29522 layer_factory.hpp:77] Creating layer pool5
I0720 13:47:17.210204 29522 net.cpp:91] Creating Layer pool5
I0720 13:47:17.210216 29522 net.cpp:425] pool5 <- conv5
I0720 13:47:17.210232 29522 net.cpp:399] pool5 -> pool5
I0720 13:47:17.210268 29522 net.cpp:141] Setting up pool5
I0720 13:47:17.210280 29522 net.cpp:148] Top shape: 10 256 6 6 (92160)
I0720 13:47:17.210288 29522 net.cpp:156] Memory required for data: 67618360
I0720 13:47:17.210295 29522 layer_factory.hpp:77] Creating layer fc6
I0720 13:47:17.210782 29478 net.cpp:141] Setting up relu6
I0720 13:47:17.210811 29478 net.cpp:148] Top shape: 10 4096 (40960)
I0720 13:47:17.210820 29478 net.cpp:156] Memory required for data: 67946040
I0720 13:47:17.210831 29478 layer_factory.hpp:77] Creating layer drop6
I0720 13:47:17.210850 29478 net.cpp:91] Creating Layer drop6
I0720 13:47:17.210860 29478 net.cpp:425] drop6 <- fc6
I0720 13:47:17.210870 29478 net.cpp:386] drop6 -> fc6 (in-place)
I0720 13:47:17.210891 29478 net.cpp:141] Setting up drop6
I0720 13:47:17.210901 29478 net.cpp:148] Top shape: 10 4096 (40960)
I0720 13:47:17.210907 29478 net.cpp:156] Memory required for data: 68109880
I0720 13:47:17.210914 29478 layer_factory.hpp:77] Creating layer fc7
I0720 13:47:17.210940 29522 net.cpp:91] Creating Layer fc6
I0720 13:47:17.210950 29522 net.cpp:425] fc6 <- pool5
I0720 13:47:17.211562 29478 net.cpp:91] Creating Layer fc7
I0720 13:47:17.211587 29478 net.cpp:425] fc7 <- fc6
I0720 13:47:17.211604 29478 net.cpp:399] fc7 -> fc7
I0720 13:47:17.211657 29522 net.cpp:399] fc6 -> fc6
I0720 13:47:17.232843 29476 net.cpp:752] Ignoring source layer data
I0720 13:47:17.233628 29476 net.cpp:752] Ignoring source layer cont_sentence_data_0_split
I0720 13:47:17.233700 29476 net.cpp:752] Ignoring source layer reshape_stg_indicator
I0720 13:47:17.234166 29506 net.cpp:141] Setting up fc8
I0720 13:47:17.234242 29506 net.cpp:148] Top shape: 10 1000 (10000)
I0720 13:47:17.234253 29506 net.cpp:156] Memory required for data: 68641400
I0720 13:47:17.234282 29506 layer_factory.hpp:77] Creating layer prob
I0720 13:47:17.234309 29506 net.cpp:91] Creating Layer prob
I0720 13:47:17.234323 29506 net.cpp:425] prob <- fc8
I0720 13:47:17.234344 29506 net.cpp:399] prob -> prob
I0720 13:47:17.257082 29490 net.cpp:141] Setting up fc7
I0720 13:47:17.257199 29490 net.cpp:148] Top shape: 10 4096 (40960)
I0720 13:47:17.257210 29490 net.cpp:156] Memory required for data: 68273720
I0720 13:47:17.257262 29490 layer_factory.hpp:77] Creating layer relu7
I0720 13:47:17.257318 29490 net.cpp:91] Creating Layer relu7
I0720 13:47:17.257349 29490 net.cpp:425] relu7 <- fc7
I0720 13:47:17.258656 29490 net.cpp:386] relu7 -> fc7 (in-place)
I0720 13:47:17.258708 29474 net.cpp:752] Ignoring source layer data
I0720 13:47:17.259466 29474 net.cpp:752] Ignoring source layer cont_sentence_data_0_split
I0720 13:47:17.259603 29474 net.cpp:752] Ignoring source layer reshape_stg_indicator
I0720 13:47:17.269503 29506 net.cpp:141] Setting up prob
I0720 13:47:17.269611 29506 net.cpp:148] Top shape: 10 1000 (10000)
I0720 13:47:17.269624 29506 net.cpp:156] Memory required for data: 68681400
I0720 13:47:17.269644 29506 net.cpp:219] prob does not need backward computation.
I0720 13:47:17.269662 29506 net.cpp:219] fc8 does not need backward computation.
I0720 13:47:17.269675 29506 net.cpp:219] drop7 does not need backward computation.
I0720 13:47:17.269685 29506 net.cpp:219] relu7 does not need backward computation.
…
I0720 13:47:17.269860 29506 net.cpp:219] norm1 does not need backward computation.
I0720 13:47:17.269872 29506 net.cpp:219] pool1 does not need backward computation.
I0720 13:47:17.269883 29506 net.cpp:219] relu1 does not need backward computation.
I0720 13:47:17.269893 29506 net.cpp:219] conv1 does not need backward computation.
I0720 13:47:17.269904 29506 net.cpp:219] data does not need backward computation.
I0720 13:47:17.269913 29506 net.cpp:261] This network produces output prob
I0720 13:47:17.270437 29506 net.cpp:274] Network initialization done.
I0720 13:47:17.272145 29490 net.cpp:141] Setting up relu7
I0720 13:47:17.272222 29490 net.cpp:148] Top shape: 10 4096 (40960)
I0720 13:47:17.272234 29490 net.cpp:156] Memory required for data: 68437560
I0720 13:47:17.272253 29490 layer_factory.hpp:77] Creating layer drop7
I0720 13:47:17.274372 29490 net.cpp:91] Creating Layer drop7
I0720 13:47:17.274377 29512 upgrade_proto.cpp:43] Attempting to upgrade input file specified using deprecated transformation parameters: /tmp/cvld1992645188532439152/bvlc_reference_caffenet.caffemodel
I0720 13:47:17.274404 29510 net.cpp:141] Setting up conv5
I0720 13:47:17.274461 29512 upgrade_proto.cpp:46] Successfully upgraded file specified using deprecated data transformation parameters.
I0720 13:47:17.274438 29490 net.cpp:425] drop7 <- fc7
W0720 13:47:17.274485 29512 upgrade_proto.cpp:48] Note that future Caffe releases will only support transform_param messages for transformation fields.
I0720 13:47:17.274495 29512 upgrade_proto.cpp:52] Attempting to upgrade input file specified using deprecated V1LayerParameter: /tmp/cvld1992645188532439152/bvlc_reference_caffenet.caffemodel
I0720 13:47:17.274513 29490 net.cpp:386] drop7 -> fc7 (in-place)
I0720 13:47:17.274551 29490 net.cpp:141] Setting up drop7
I0720 13:47:17.274569 29490 net.cpp:148] Top shape: 10 4096 (40960)
I0720 13:47:17.274579 29490 net.cpp:156] Memory required for data: 68601400
I0720 13:47:17.274591 29490 layer_factory.hpp:77] Creating layer fc8
I0720 13:47:17.275563 29510 net.cpp:148] Top shape: 10 256 13 13 (432640)
I0720 13:47:17.275645 29510 net.cpp:156] Memory required for data: 65519160
I0720 13:47:17.275840 29490 net.cpp:91] Creating Layer fc8
I0720 13:47:17.275876 29490 net.cpp:425] fc8 <- fc7
I0720 13:47:17.275897 29490 net.cpp:399] fc8 -> fc8
I0720 13:47:17.275957 29510 layer_factory.hpp:77] Creating layer relu5
I0720 13:47:17.276000 29510 net.cpp:91] Creating Layer relu5
I0720 13:47:17.276016 29510 net.cpp:425] relu5 <- conv5
I0720 13:47:17.276654 29510 net.cpp:386] relu5 -> conv5 (in-place)
I0720 13:47:17.292454 29510 net.cpp:141] Setting up relu5
I0720 13:47:17.292558 29510 net.cpp:148] Top shape: 10 256 13 13 (432640)
I0720 13:47:17.292572 29510 net.cpp:156] Memory required for data: 67249720
I0720 13:47:17.292594 29510 layer_factory.hpp:77] Creating layer pool5
I0720 13:47:17.293525 29510 net.cpp:91] Creating Layer pool5
I0720 13:47:17.293578 29510 net.cpp:425] pool5 <- conv5
I0720 13:47:17.293613 29510 net.cpp:399] pool5 -> pool5
I0720 13:47:17.293663 29510 net.cpp:141] Setting up pool5
I0720 13:47:17.293683 29510 net.cpp:148] Top shape: 10 256 6 6 (92160)
I0720 13:47:17.293690 29510 net.cpp:156] Memory required for data: 67618360
I0720 13:47:17.293704 29510 layer_factory.hpp:77] Creating layer fc6
I0720 13:47:17.293735 29510 net.cpp:91] Creating Layer fc6
I0720 13:47:17.293745 29510 net.cpp:425] fc6 <- pool5
I0720 13:47:17.294216 29510 net.cpp:399] fc6 -> fc6
I0720 13:47:17.300321 29478 net.cpp:141] Setting up fc7
I0720 13:47:17.300398 29478 net.cpp:148] Top shape: 10 4096 (40960)
I0720 13:47:17.300410 29478 net.cpp:156] Memory required for data: 68273720
I0720 13:47:17.300439 29478 layer_factory.hpp:77] Creating layer relu7
I0720 13:47:17.300468 29478 net.cpp:91] Creating Layer relu7
I0720 13:47:17.300482 29478 net.cpp:425] relu7 <- fc7
I0720 13:47:17.302022 29478 net.cpp:386] relu7 -> fc7 (in-place)
I0720 13:47:17.307229 29478 net.cpp:141] Setting up relu7
I0720 13:47:17.307746 29478 net.cpp:148] Top shape: 10 4096 (40960)
I0720 13:47:17.307768 29478 net.cpp:156] Memory required for data: 68437560
I0720 13:47:17.307786 29478 layer_factory.hpp:77] Creating layer drop7
I0720 13:47:17.307816 29478 net.cpp:91] Creating Layer drop7
I0720 13:47:17.307832 29478 net.cpp:425] drop7 <- fc7
I0720 13:47:17.308842 29478 net.cpp:386] drop7 -> fc7 (in-place)
I0720 13:47:17.309197 29478 net.cpp:141] Setting up drop7
I0720 13:47:17.309227 29478 net.cpp:148] Top shape: 10 4096 (40960)
I0720 13:47:17.309237 29478 net.cpp:156] Memory required for data: 68601400
I0720 13:47:17.309249 29478 layer_factory.hpp:77] Creating layer fc8
I0720 13:47:17.309276 29478 net.cpp:91] Creating Layer fc8
I0720 13:47:17.309288 29478 net.cpp:425] fc8 <- fc7
I0720 13:47:17.309701 29478 net.cpp:399] fc8 -> fc8
I0720 13:47:17.309700 29504 net.cpp:141] Setting up conv5
I0720 13:47:17.309721 29490 net.cpp:141] Setting up fc8
I0720 13:47:17.309906 29490 net.cpp:148] Top shape: 10 1000 (10000)
I0720 13:47:17.309918 29490 net.cpp:156] Memory required for data: 68641400
I0720 13:47:17.309945 29490 layer_factory.hpp:77] Creating layer prob
I0720 13:47:17.309967 29490 net.cpp:91] Creating Layer prob
I0720 13:47:17.309980 29490 net.cpp:425] prob <- fc8
I0720 13:47:17.309897 29504 net.cpp:148] Top shape: 10 256 13 13 (432640)
I0720 13:47:17.310684 29504 net.cpp:156] Memory required for data: 65519160
I0720 13:47:17.310873 29504 layer_factory.hpp:77] Creating layer relu5
I0720 13:47:17.311014 29504 net.cpp:91] Creating Layer relu5
I0720 13:47:17.311321 29504 net.cpp:425] relu5 <- conv5
I0720 13:47:17.311465 29504 net.cpp:386] relu5 -> conv5 (in-place)
I0720 13:47:17.310519 29490 net.cpp:399] prob -> prob
I0720 13:47:17.319680 29490 net.cpp:141] Setting up prob
I0720 13:47:17.319814 29490 net.cpp:148] Top shape: 10 1000 (10000)
I0720 13:47:17.319835 29490 net.cpp:156] Memory required for data: 68681400
I0720 13:47:17.319866 29490 net.cpp:219] prob does not need backward computation.
I0720 13:47:17.319890 29490 net.cpp:219] fc8 does not need backward computation.
I0720 13:47:17.319910 29490 net.cpp:219] drop7 does not need backward computation.
I0720 13:47:17.319924 29490 net.cpp:219] relu7 does not need backward computation.
…
I0720 13:47:17.373528 29514 net.cpp:752] Ignoring source layer reshape_stg_indicator
I0720 13:47:17.392674 29518 net.cpp:752] Ignoring source layer data
I0720 13:47:17.392762 29518 net.cpp:752] Ignoring source layer cont_sentence_data_0_split
I0720 13:47:17.392771 29518 net.cpp:752] Ignoring source layer reshape_stg_indicator
I0720 13:47:17.397577 29480 net.cpp:752] Ignoring source layer data
I0720 13:47:17.397701 29480 net.cpp:752] Ignoring source layer cont_sentence_data_0_split
I0720 13:47:17.397727 29480 net.cpp:752] Ignoring source layer reshape_stg_indicator
I0720 13:47:17.402706 29486 net.cpp:141] Setting up fc6
I0720 13:47:17.414876 29486 net.cpp:148] Top shape: 10 4096 (40960)
I0720 13:47:17.415874 29486 net.cpp:156] Memory required for data: 67782200
I0720 13:47:17.416162 29486 layer_factory.hpp:77] Creating layer relu6
I0720 13:47:17.416566 29486 net.cpp:91] Creating Layer relu6
I0720 13:47:17.416697 29486 net.cpp:425] relu6 <- fc6
I0720 13:47:17.417590 29486 net.cpp:386] relu6 -> fc6 (in-place)
I0720 13:47:17.418709 29508 net.cpp:752] Ignoring source layer cross_entropy_loss
I0720 13:47:17.429172 29522 net.cpp:141] Setting up fc6
I0720 13:47:17.429886 29522 net.cpp:148] Top shape: 10 4096 (40960)
I0720 13:47:17.430093 29522 net.cpp:156] Memory required for data: 67782200
I0720 13:47:17.430349 29522 layer_factory.hpp:77] Creating layer relu6
I0720 13:47:17.429347 29486 net.cpp:141] Setting up relu6
I0720 13:47:17.431881 29522 net.cpp:91] Creating Layer relu6
I0720 13:47:17.431887 29486 net.cpp:148] Top shape: 10 4096 (40960)
I0720 13:47:17.432621 29486 net.cpp:156] Memory required for data: 67946040
I0720 13:47:17.432649 29486 layer_factory.hpp:77] Creating layer drop6
I0720 13:47:17.432696 29486 net.cpp:91] Creating Layer drop6
I0720 13:47:17.432713 29486 net.cpp:425] drop6 <- fc6
I0720 13:47:17.432740 29486 net.cpp:386] drop6 -> fc6 (in-place)
I0720 13:47:17.432790 29486 net.cpp:141] Setting up drop6
I0720 13:47:17.432814 29486 net.cpp:148] Top shape: 10 4096 (40960)
I0720 13:47:17.432822 29486 net.cpp:156] Memory required for data: 68109880
I0720 13:47:17.432832 29486 layer_factory.hpp:77] Creating layer fc7
I0720 13:47:17.433540 29522 net.cpp:425] relu6 <- fc6
I0720 13:47:17.433612 29522 net.cpp:386] relu6 -> fc6 (in-place)
I0720 13:47:17.433787 29486 net.cpp:91] Creating Layer fc7
I0720 13:47:17.433816 29486 net.cpp:425] fc7 <- fc6
I0720 13:47:17.433840 29486 net.cpp:399] fc7 -> fc7
I0720 13:47:17.438025 29476 net.cpp:752] Ignoring source layer cross_entropy_loss
I0720 13:47:17.452477 29522 net.cpp:141] Setting up relu6
I0720 13:47:17.454900 29522 net.cpp:148] Top shape: 10 4096 (40960)
I0720 13:47:17.455951 29522 net.cpp:156] Memory required for data: 67946040
I0720 13:47:17.456231 29522 layer_factory.hpp:77] Creating layer drop6
I0720 13:47:17.459942 29522 net.cpp:91] Creating Layer drop6
I0720 13:47:17.461094 29522 net.cpp:425] drop6 <- fc6
I0720 13:47:17.461911 29522 net.cpp:386] drop6 -> fc6 (in-place)
I0720 13:47:17.463712 29522 net.cpp:141] Setting up drop6
I0720 13:47:17.464694 29522 net.cpp:148] Top shape: 10 4096 (40960)
I0720 13:47:17.464916 29522 net.cpp:156] Memory required for data: 68109880
I0720 13:47:17.464946 29522 layer_factory.hpp:77] Creating layer fc7
I0720 13:47:17.464992 29522 net.cpp:91] Creating Layer fc7
I0720 13:47:17.465008 29522 net.cpp:425] fc7 <- fc6
I0720 13:47:17.465037 29522 net.cpp:399] fc7 -> fc7
I0720 13:47:17.465150 29470 net.cpp:752] Ignoring source layer data
I0720 13:47:17.465194 29470 net.cpp:752] Ignoring source layer cont_sentence_data_0_split
I0720 13:47:17.465204 29470 net.cpp:752] Ignoring source layer reshape_stg_indicator
I0720 13:47:17.475438 29510 net.cpp:141] Setting up fc6
I0720 13:47:17.476151 29510 net.cpp:148] Top shape: 10 4096 (40960)
I0720 13:47:17.476344 29510 net.cpp:156] Memory required for data: 67782200
I0720 13:47:17.476497 29510 layer_factory.hpp:77] Creating layer relu6
I0720 13:47:17.476649 29510 net.cpp:91] Creating Layer relu6
I0720 13:47:17.476778 29510 net.cpp:425] relu6 <- fc6
I0720 13:47:17.476923 29510 net.cpp:386] relu6 -> fc6 (in-place)
I0720 13:47:17.486224 29474 net.cpp:752] Ignoring source layer cross_entropy_loss
I0720 13:47:17.488543 29510 net.cpp:141] Setting up relu6
I0720 13:47:17.489403 29510 net.cpp:148] Top shape: 10 4096 (40960)
I0720 13:47:17.489660 29510 net.cpp:156] Memory required for data: 67946040
I0720 13:47:17.489680 29510 layer_factory.hpp:77] Creating layer drop6
I0720 13:47:17.489702 29510 net.cpp:91] Creating Layer drop6
I0720 13:47:17.489711 29510 net.cpp:425] drop6 <- fc6
I0720 13:47:17.489723 29510 net.cpp:386] drop6 -> fc6 (in-place)
I0720 13:47:17.489747 29510 net.cpp:141] Setting up drop6
I0720 13:47:17.489754 29510 net.cpp:148] Top shape: 10 4096 (40960)
I0720 13:47:17.489758 29510 net.cpp:156] Memory required for data: 68109880
I0720 13:47:17.489763 29510 layer_factory.hpp:77] Creating layer fc7
I0720 13:47:17.492089 29510 net.cpp:91] Creating Layer fc7
I0720 13:47:17.492171 29510 net.cpp:425] fc7 <- fc6
I0720 13:47:17.492207 29510 net.cpp:399] fc7 -> fc7
I0720 13:47:17.516602 29486 net.cpp:141] Setting up fc7
I0720 13:47:17.517523 29486 net.cpp:148] Top shape: 10 4096 (40960)
I0720 13:47:17.517777 29486 net.cpp:156] Memory required for data: 68273720
I0720 13:47:17.517915 29486 layer_factory.hpp:77] Creating layer relu7
I0720 13:47:17.518054 29486 net.cpp:91] Creating Layer relu7
I0720 13:47:17.518201 29486 net.cpp:425] relu7 <- fc7
I0720 13:47:17.518790 29486 net.cpp:386] relu7 -> fc7 (in-place)
I0720 13:47:17.521037 29486 net.cpp:141] Setting up relu7
I0720 13:47:17.521786 29486 net.cpp:148] Top shape: 10 4096 (40960)
I0720 13:47:17.521930 29486 net.cpp:156] Memory required for data: 68437560
I0720 13:47:17.522054 29486 layer_factory.hpp:77] Creating layer drop7
I0720 13:47:17.522253 29486 net.cpp:91] Creating Layer drop7
I0720 13:47:17.522368 29486 net.cpp:425] drop7 <- fc7
I0720 13:47:17.522517 29486 net.cpp:386] drop7 -> fc7 (in-place)
I0720 13:47:17.522657 29486 net.cpp:141] Setting up drop7
I0720 13:47:17.522866 29486 net.cpp:148] Top shape: 10 4096 (40960)
I0720 13:47:17.522985 29486 net.cpp:156] Memory required for data: 68601400
I0720 13:47:17.523207 29486 layer_factory.hpp:77] Creating layer fc8
I0720 13:47:17.524247 29486 net.cpp:91] Creating Layer fc8
I0720 13:47:17.524880 29486 net.cpp:425] fc8 <- fc7
I0720 13:47:17.525045 29486 net.cpp:399] fc8 -> fc8
I0720 13:47:17.537842 29494 upgrade_proto.cpp:43] Attempting to upgrade input file specified using deprecated transformation parameters: /tmp/cvld1992645188532439152/bvlc_reference_caffenet.caffemodel
I0720 13:47:17.538750 29494 upgrade_proto.cpp:46] Successfully upgraded file specified using deprecated data transformation parameters.
W0720 13:47:17.538980 29494 upgrade_proto.cpp:48] Note that future Caffe releases will only support transform_param messages for transformation fields.
I0720 13:47:17.539214 29494 upgrade_proto.cpp:52] Attempting to upgrade input file specified using deprecated V1LayerParameter: /tmp/cvld1992645188532439152/bvlc_reference_caffenet.caffemodel
I0720 13:47:17.542450 29486 net.cpp:141] Setting up fc8
I0720 13:47:17.542549 29486 net.cpp:148] Top shape: 10 1000 (10000)
I0720 13:47:17.542560 29486 net.cpp:156] Memory required for data: 68641400
I0720 13:47:17.542596 29486 layer_factory.hpp:77] Creating layer prob
I0720 13:47:17.542635 29486 net.cpp:91] Creating Layer prob
I0720 13:47:17.542652 29486 net.cpp:425] prob <- fc8
I0720 13:47:17.543249 29486 net.cpp:399] prob -> prob
I0720 13:47:17.548593 29504 net.cpp:141] Setting up fc6
I0720 13:47:17.549283 29504 net.cpp:148] Top shape: 10 4096 (40960)
I0720 13:47:17.549444 29504 net.cpp:156] Memory required for data: 67782200
I0720 13:47:17.549491 29504 layer_factory.hpp:77] Creating layer relu6
I0720 13:47:17.550160 29504 net.cpp:91] Creating Layer relu6
I0720 13:47:17.550196 29504 net.cpp:425] relu6 <- fc6
I0720 13:47:17.550830 29504 net.cpp:386] relu6 -> fc6 (in-place)
I0720 13:47:17.550830 29486 net.cpp:141] Setting up prob
I0720 13:47:17.551054 29486 net.cpp:148] Top shape: 10 1000 (10000)
I0720 13:47:17.551065 29486 net.cpp:156] Memory required for data: 68681400
I0720 13:47:17.551084 29486 net.cpp:219] prob does not need backward computation.
I0720 13:47:17.551095 29486 net.cpp:219] fc8 does not need backward computation.
I0720 13:47:17.551105 29486 net.cpp:219] drop7 does not need backward computation.
I0720 13:47:17.551112 29486 net.cpp:219] relu7 does not need backward computation.
…
I0720 13:47:17.551789 29486 net.cpp:219] norm1 does not need backward computation.
I0720 13:47:17.551805 29486 net.cpp:219] pool1 does not need backward computation.
I0720 13:47:17.551821 29486 net.cpp:219] relu1 does not need backward computation.
I0720 13:47:17.551838 29486 net.cpp:219] conv1 does not need backward computation.
I0720 13:47:17.551853 29486 net.cpp:219] data does not need backward computation.
I0720 13:47:17.551864 29486 net.cpp:261] This network produces output prob
I0720 13:47:17.551913 29486 net.cpp:274] Network initialization done.
I0720 13:47:17.556659 29504 net.cpp:141] Setting up relu6
I0720 13:47:17.556767 29504 net.cpp:148] Top shape: 10 4096 (40960)
I0720 13:47:17.556777 29504 net.cpp:156] Memory required for data: 67946040
I0720 13:47:17.556797 29504 layer_factory.hpp:77] Creating layer drop6
I0720 13:47:17.556834 29504 net.cpp:91] Creating Layer drop6
I0720 13:47:17.556849 29504 net.cpp:425] drop6 <- fc6
I0720 13:47:17.558418 29504 net.cpp:386] drop6 -> fc6 (in-place)
I0720 13:47:17.558981 29504 net.cpp:141] Setting up drop6
I0720 13:47:17.559175 29504 net.cpp:148] Top shape: 10 4096 (40960)
I0720 13:47:17.559305 29504 net.cpp:156] Memory required for data: 68109880
I0720 13:47:17.559439 29504 layer_factory.hpp:77] Creating layer fc7
I0720 13:47:17.559589 29504 net.cpp:91] Creating Layer fc7
I0720 13:47:17.559720 29504 net.cpp:425] fc7 <- fc6
I0720 13:47:17.560657 29522 net.cpp:141] Setting up fc7
I0720 13:47:17.561167 29504 net.cpp:399] fc7 -> fc7
I0720 13:47:17.563004 29522 net.cpp:148] Top shape: 10 4096 (40960)
I0720 13:47:17.563623 29522 net.cpp:156] Memory required for data: 68273720
I0720 13:47:17.563799 29522 layer_factory.hpp:77] Creating layer relu7
I0720 13:47:17.563956 29522 net.cpp:91] Creating Layer relu7
I0720 13:47:17.564085 29522 net.cpp:425] relu7 <- fc7
I0720 13:47:17.564358 29522 net.cpp:386] relu7 -> fc7 (in-place)
I0720 13:47:17.571254 29510 net.cpp:141] Setting up fc7
I0720 13:47:17.572407 29480 net.cpp:752] Ignoring source layer cross_entropy_loss
I0720 13:47:17.572556 29510 net.cpp:148] Top shape: 10 4096 (40960)
I0720 13:47:17.572566 29510 net.cpp:156] Memory required for data: 68273720
I0720 13:47:17.572588 29510 layer_factory.hpp:77] Creating layer relu7
I0720 13:47:17.572610 29510 net.cpp:91] Creating Layer relu7
I0720 13:47:17.572619 29510 net.cpp:425] relu7 <- fc7
I0720 13:47:17.573254 29492 net.cpp:752] Ignoring source layer cross_entropy_loss
I0720 13:47:17.577947 29510 net.cpp:386] relu7 -> fc7 (in-place)
I0720 13:47:17.578341 29518 net.cpp:752] Ignoring source layer cross_entropy_loss
I0720 13:47:17.582743 29514 net.cpp:752] Ignoring source layer cross_entropy_loss
I0720 13:47:17.587791 29510 net.cpp:141] Setting up relu7
I0720 13:47:17.587790 29522 net.cpp:141] Setting up relu7
I0720 13:47:17.587862 29510 net.cpp:148] Top shape: 10 4096 (40960)
I0720 13:47:17.587862 29522 net.cpp:148] Top shape: 10 4096 (40960)
I0720 13:47:17.587877 29510 net.cpp:156] Memory required for data: 68437560
I0720 13:47:17.587880 29522 net.cpp:156] Memory required for data: 68437560
I0720 13:47:17.587891 29510 layer_factory.hpp:77] Creating layer drop7
I0720 13:47:17.587891 29522 layer_factory.hpp:77] Creating layer drop7
I0720 13:47:17.587919 29510 net.cpp:91] Creating Layer drop7
I0720 13:47:17.587920 29522 net.cpp:91] Creating Layer drop7
I0720 13:47:17.587935 29510 net.cpp:425] drop7 <- fc7
I0720 13:47:17.587939 29522 net.cpp:425] drop7 <- fc7
I0720 13:47:17.587951 29510 net.cpp:386] drop7 -> fc7 (in-place)
I0720 13:47:17.587980 29510 net.cpp:141] Setting up drop7
I0720 13:47:17.587992 29510 net.cpp:148] Top shape: 10 4096 (40960)
I0720 13:47:17.587998 29510 net.cpp:156] Memory required for data: 68601400
I0720 13:47:17.588006 29510 layer_factory.hpp:77] Creating layer fc8
I0720 13:47:17.588520 29522 net.cpp:386] drop7 -> fc7 (in-place)
I0720 13:47:17.588524 29510 net.cpp:91] Creating Layer fc8
I0720 13:47:17.588551 29510 net.cpp:425] fc8 <- fc7
I0720 13:47:17.588553 29522 net.cpp:141] Setting up drop7
I0720 13:47:17.588567 29510 net.cpp:399] fc8 -> fc8
I0720 13:47:17.588568 29522 net.cpp:148] Top shape: 10 4096 (40960)
I0720 13:47:17.588587 29522 net.cpp:156] Memory required for data: 68601400
I0720 13:47:17.588596 29522 layer_factory.hpp:77] Creating layer fc8
I0720 13:47:17.588611 29522 net.cpp:91] Creating Layer fc8
I0720 13:47:17.588618 29522 net.cpp:425] fc8 <- fc7
I0720 13:47:17.589068 29522 net.cpp:399] fc8 -> fc8
I0720 13:47:17.601145 29510 net.cpp:141] Setting up fc8
I0720 13:47:17.601634 29510 net.cpp:148] Top shape: 10 1000 (10000)
I0720 13:47:17.601752 29510 net.cpp:156] Memory required for data: 68641400
I0720 13:47:17.601886 29510 layer_factory.hpp:77] Creating layer prob
I0720 13:47:17.602017 29510 net.cpp:91] Creating Layer prob
I0720 13:47:17.602182 29510 net.cpp:425] prob <- fc8
I0720 13:47:17.606612 29510 net.cpp:399] prob -> prob
I0720 13:47:17.607344 29522 net.cpp:141] Setting up fc8
I0720 13:47:17.607381 29522 net.cpp:148] Top shape: 10 1000 (10000)
I0720 13:47:17.607390 29522 net.cpp:156] Memory required for data: 68641400
I0720 13:47:17.607414 29522 layer_factory.hpp:77] Creating layer prob
I0720 13:47:17.607481 29522 net.cpp:91] Creating Layer prob
I0720 13:47:17.607496 29522 net.cpp:425] prob <- fc8
I0720 13:47:17.607511 29522 net.cpp:399] prob -> prob
I0720 13:47:17.608500 29482 upgrade_proto.cpp:43] Attempting to upgrade input file specified using deprecated transformation parameters: /tmp/cvld1992645188532439152/bvlc_reference_caffenet.caffemodel
I0720 13:47:17.608547 29482 upgrade_proto.cpp:46] Successfully upgraded file specified using deprecated data transformation parameters.
W0720 13:47:17.608556 29482 upgrade_proto.cpp:48] Note that future Caffe releases will only support transform_param messages for transformation fields.
I0720 13:47:17.608563 29482 upgrade_proto.cpp:52] Attempting to upgrade input file specified using deprecated V1LayerParameter: /tmp/cvld1992645188532439152/bvlc_reference_caffenet.caffemodel
I0720 13:47:17.613407 29510 net.cpp:141] Setting up prob
I0720 13:47:17.613481 29510 net.cpp:148] Top shape: 10 1000 (10000)
I0720 13:47:17.613493 29510 net.cpp:156] Memory required for data: 68681400
I0720 13:47:17.613509 29510 net.cpp:219] prob does not need backward computation.
I0720 13:47:17.613520 29510 net.cpp:219] fc8 does not need backward computation.
I0720 13:47:17.613533 29510 net.cpp:219] drop7 does not need backward computation.
I0720 13:47:17.613540 29510 net.cpp:219] relu7 does not need backward computation.
…
I0720 13:47:17.616013 29522 net.cpp:219] norm1 does not need backward computation.
I0720 13:47:17.616389 29522 net.cpp:219] pool1 does not need backward computation.
I0720 13:47:17.616405 29522 net.cpp:219] relu1 does not need backward computation.
I0720 13:47:17.616416 29522 net.cpp:219] conv1 does not need backward computation.
I0720 13:47:17.616426 29522 net.cpp:219] data does not need backward computation.
I0720 13:47:17.616435 29522 net.cpp:261] This network produces output prob
I0720 13:47:17.616472 29522 net.cpp:274] Network initialization done.
I0720 13:47:17.625979 29504 net.cpp:141] Setting up fc7
I0720 13:47:17.626432 29504 net.cpp:148] Top shape: 10 4096 (40960)
I0720 13:47:17.626565 29504 net.cpp:156] Memory required for data: 68273720
I0720 13:47:17.626726 29504 layer_factory.hpp:77] Creating layer relu7
I0720 13:47:17.627038 29504 net.cpp:91] Creating Layer relu7
I0720 13:47:17.627238 29504 net.cpp:425] relu7 <- fc7
I0720 13:47:17.627380 29504 net.cpp:386] relu7 -> fc7 (in-place)
I0720 13:47:17.632580 29504 net.cpp:141] Setting up relu7
I0720 13:47:17.632774 29504 net.cpp:148] Top shape: 10 4096 (40960)
I0720 13:47:17.632793 29504 net.cpp:156] Memory required for data: 68437560
I0720 13:47:17.632813 29504 layer_factory.hpp:77] Creating layer drop7
I0720 13:47:17.633229 29504 net.cpp:91] Creating Layer drop7
I0720 13:47:17.633252 29504 net.cpp:425] drop7 <- fc7
I0720 13:47:17.633275 29504 net.cpp:386] drop7 -> fc7 (in-place)
I0720 13:47:17.633313 29504 net.cpp:141] Setting up drop7
I0720 13:47:17.633852 29504 net.cpp:148] Top shape: 10 4096 (40960)
I0720 13:47:17.633872 29504 net.cpp:156] Memory required for data: 68601400
I0720 13:47:17.633887 29504 layer_factory.hpp:77] Creating layer fc8
I0720 13:47:17.633908 29504 net.cpp:91] Creating Layer fc8
I0720 13:47:17.633919 29504 net.cpp:425] fc8 <- fc7
I0720 13:47:17.633934 29504 net.cpp:399] fc8 -> fc8
I0720 13:47:17.650507 29504 net.cpp:141] Setting up fc8
I0720 13:47:17.650598 29504 net.cpp:148] Top shape: 10 1000 (10000)
I0720 13:47:17.650614 29504 net.cpp:156] Memory required for data: 68641400
I0720 13:47:17.650650 29504 layer_factory.hpp:77] Creating layer prob
I0720 13:47:17.650702 29504 net.cpp:91] Creating Layer prob
I0720 13:47:17.650723 29504 net.cpp:425] prob <- fc8
I0720 13:47:17.650755 29504 net.cpp:399] prob -> prob
I0720 13:47:17.653343 29504 net.cpp:141] Setting up prob
I0720 13:47:17.653421 29504 net.cpp:148] Top shape: 10 1000 (10000)
I0720 13:47:17.653436 29504 net.cpp:156] Memory required for data: 68681400
I0720 13:47:17.653456 29504 net.cpp:219] prob does not need backward computation.
I0720 13:47:17.653473 29504 net.cpp:219] fc8 does not need backward computation.
I0720 13:47:17.653486 29504 net.cpp:219] drop7 does not need backward computation.
I0720 13:47:17.653496 29504 net.cpp:219] relu7 does not need backward computation.
…
