…
I0922 22:30:12.546768 28543 upgrade_proto.cpp:66] Attempting to upgrade input file specified using deprecated input fields: /home/peifeng/work/run/storm102/data/workers/8961af26-df7d-456b-bc54-d0c586dec12f/tmp/cvld4190687311278764963/s2vt.words_to_preds.prototxt
I0922 22:30:12.546774 28527 upgrade_proto.cpp:66] Attempting to upgrade input file specified using deprecated input fields: /home/peifeng/work/run/storm102/data/workers/8961af26-df7d-456b-bc54-d0c586dec12f/tmp/cvld4190687311278764963/s2vt.words_to_preds.prototxt
I0922 22:30:12.546856 28521 net.cpp:49] Initializing net from parameters: 
name: "CaffeNet"
state {
  phase: TEST
}
layer {
  name: "data"
  type: "Input"
  top: "data"
  input_param {
    shape {
      dim: 10
      dim: 3
      dim: 227
      dim: 227
    }
  }
}
layer {
  name: "conv1"
  type: "Convolution"
  bottom: "data"
  top: "conv1"
  convolution_param {
    num_output: 96
    kernel_size: 11
    stride: 4
  }
}
layer {
  name: "relu1"
  type: "ReLU"
  bottom: "conv1"
  top: "conv1"
}
layer {
  name: "pool1"
  type: "Pooling"
  bottom: "conv1"
  top: "pool1"
  pooling_param {
    pool: MAX
    kernel_size: 3
    stride: 2
  }
}
layer {
  name: "norm1"
  type: "LRN"
  bottom: "pool1"
  top: "norm1"
  lrn_param {
    local_size: 5
    alpha: 0.0001
    beta: 0.75
  }
}
layer {
  name: "conv2"
  type: "Convolution"
  bottom: "norm1"
  top: "conv2"
  convolution_param {
    num_output: 256
    pad: 2
    kernel_size: 5
    group: 2
  }
}
layer {
  name: "relu2"
  type: "ReLU"
  bottom: "conv2"
  top: "conv2"
}
layer {
  name: "pool2"
  type: "Pooling"
  bottom: "conv2"
  top: "pool2"
  pooling_param {
    pool: MAX
    kernel_size: 3
    stride: 2
  }
}
layer {
  name: "norm2"
  type: "LRN"
  bottom: "pool2"
  top: "norm2"
  lrn_param {
    local_size: 5
    alpha: 0.0001
    beta: 0.75
  }
}
layer {
  name: "conv3"
  type: "Convolution"
  bottom: "norm2"
  top: "conv3"
  convolution_param {
    num_output: 384
    pad: 1
    kernel_size: 3
  }
}
layer {
  name: "relu3"
  type: "ReLU"
  bottom: "conv3"
  top: "conv3"
}
layer {
  name: "conv4"
  type: "Convolution"
  bottom: "conv3"
  top: "conv4"
  convolution_param {
    num_output: 384
    pad: 1
    kernel_size: 3
    group: 2
  }
}
layer {
  name: "relu4"
  type: "ReLU"
  bottom: "conv4"
  top: "conv4"
}
layer {
  name: "conv5"
  type: "Convolution"
  bottom: "conv4"
  top: "conv5"
  convolution_param {
    num_output: 256
    pad: 1
    kernel_size: 3
    group: 2
  }
}
layer {
  name: "relu5"
  type: "ReLU"
  bottom: "conv5"
  top: "conv5"
}
layer {
  name: "pool5"
  type: "Pooling"
  bottom: "conv5"
  top: "pool5"
  pooling_param {
    pool: MAX
    kernel_size: 3
    stride: 2
  }
}
layer {
  name: "fc6"
  type: "InnerProduct"
  bottom: "pool5"
  top: "fc6"
  inner_product_param {
    num_output: 4096
  }
}
layer {
  name: "relu6"
  type: "ReLU"
  bottom: "fc6"
  top: "fc6"
}
layer {
  name: "drop6"
  type: "Dropout"
  bottom: "fc6"
  top: "fc6"
  dropout_param {
    dropout_ratio: 0.5
  }
}
layer {
  name: "fc7"
  type: "InnerProduct"
  bottom: "fc6"
  top: "fc7"
  inner_product_param {
    num_output: 4096
  }
}
layer {
  name: "relu7"
  type: "ReLU"
  bottom: "fc7"
  top: "fc7"
}
layer {
  name: "drop7"
  type: "Dropout"
  bottom: "fc7"
  top: "fc7"
  dropout_param {
    dropout_ratio: 0.5
  }
}
layer {
  name: "fc8"
  type: "InnerProduct"
  bottom: "fc7"
  top: "fc8"
  inner_product_param {
    num_output: 1000
  }
}
layer {
  name: "prob"
  type: "Softmax"
  bottom: "fc8"
  top: "prob"
}
I0922 22:30:12.546936 28523 upgrade_proto.cpp:69] Successfully upgraded file specified using deprecated input fields.
I0922 22:30:12.546942 28527 upgrade_proto.cpp:69] Successfully upgraded file specified using deprecated input fields.
I0922 22:30:12.546936 28543 upgrade_proto.cpp:69] Successfully upgraded file specified using deprecated input fields.
W0922 22:30:12.546962 28527 upgrade_proto.cpp:71] Note that future Caffe releases will only support input layers and not input fields.
W0922 22:30:12.546957 28523 upgrade_proto.cpp:71] Note that future Caffe releases will only support input layers and not input fields.
W0922 22:30:12.546974 28543 upgrade_proto.cpp:71] Note that future Caffe releases will only support input layers and not input fields.
I0922 22:30:12.547129 28521 layer_factory.hpp:77] Creating layer data
I0922 22:30:12.547185 28521 net.cpp:91] Creating Layer data
I0922 22:30:12.547204 28521 net.cpp:399] data -> data
I0922 22:30:12.547392 28543 net.cpp:49] Initializing net from parameters: 
name: "s2vt:features_to_lstm"
state {
  phase: TEST
}
layer {
  name: "input"
  type: "Input"
  top: "frames_fc7"
  top: "cont_sentence"
  top: "input_sentence"
  top: "stage_indicator"
  input_param {
    shape {
      dim: 1
      dim: 4096
    }
    shape {
      dim: 1
      dim: 1
    }
    shape {
      dim: 1
      dim: 1
    }
    shape {
      dim: 1
      dim: 1
    }
  }
}
layer {
  name: "embed_encoder"
  type: "InnerProduct"
  bottom: "frames_fc7"
  top: "embedded_in_frames"
  param {
    lr_mult: 1
    decay_mult: 1
  }
  param {
    lr_mult: 2
    decay_mult: 0
  }
  inner_product_param {
    num_output: 500
    weight_filler {
      type: "xavier"
    }
    bias_filler {
      type: "constant"
      value: 0.2
    }
  }
}
layer {
  name: "reshape_frames"
  type: "Reshape"
  bottom: "embedded_in_frames"
  top: "embedded_input_frames"
  reshape_param {
    shape {
      dim: 1
      dim: 1
      dim: 500
    }
  }
}
layer {
  name: "reshape_stage_indicator"
  type: "Reshape"
  bottom: "stage_indicator"
  top: "reshaped_stage_indicator"
  reshape_param {
    shape {
      dim: 1
      dim: 1
      dim: 1
    }
  }
}
layer {
  name: "embedding"
  type: "Embed"
  bottom: "input_sentence"
  top: "embedded_input_sentence"
  param {
    lr_mult: 1
  }
  embed_param {
    num_output: 500
    input_dim: 46168
    bias_term: false
    weight_filler {
      type: "uniform"
      min: -0.08
      max: 0.08
    }
  }
}
layer {
  name: "lstm1"
  type: "LSTM"
  bottom: "embedded_input_frames"
  bottom: "cont_sentence"
  top: "lstm1"
  recurrent_param {
    num_output: 1000
    weight_filler {
      type: "uniform"
      min: -0.08
      max: 0.08
    }
    bias_filler {
      type: "constant"
      value: 0
    }
  }
}
layer {
  name: "concat"
  type: "Concat"
  bottom: "lstm1"
  bottom: "embedded_input_sentence"
  bottom: "reshaped_stage_indicator"
  top: "lstm1_video_sequence"
  concat_param {
    concat_dim: 2
  }
}
layer {
  name: "lstm2"
  type: "LSTM"
  bottom: "lstm1_video_sequence"
  bottom: "cont_sentence"
  top: "lstm2"
  recurrent_param {
    num_output: 1000
    weight_filler {
      type: "uniform"
      min: -0.08
      max: 0.08
    }
    bias_filler {
      type: "constant"
      value: 0
    }
  }
}
layer {
  name: "predict"
  type: "InnerProduct"
  bottom: "lstm2"
  top: "predict"
  param {
    lr_mult: 1
    decay_mult: 1
  }
  param {
    lr_mult: 2
    decay_mult: 0
  }
  inner_product_param {
    num_output: 46168
    weight_filler {
      type: "uniform"
      min: -0.08
      max: 0.08
    }
    bias_filler {
      type: "constant"
      value: 0
    }
    axis: 2
  }
}
layer {
  name: "probs"
  type: "Softmax"
  bottom: "predict"
  top: "probs"
  softmax_param {
    axis: 2
  }
}
I0922 22:30:12.547402 28523 net.cpp:49] Initializing net from parameters: 
name: "s2vt:features_to_lstm"
state {
  phase: TEST
}
layer {
  name: "input"
  type: "Input"
  top: "frames_fc7"
  top: "cont_sentence"
  top: "input_sentence"
  top: "stage_indicator"
  input_param {
    shape {
      dim: 1
      dim: 4096
    }
    shape {
      dim: 1
      dim: 1
    }
    shape {
      dim: 1
      dim: 1
    }
    shape {
      dim: 1
      dim: 1
    }
  }
}
layer {
  name: "embed_encoder"
  type: "InnerProduct"
  bottom: "frames_fc7"
  top: "embedded_in_frames"
  param {
    lr_mult: 1
    decay_mult: 1
  }
  param {
    lr_mult: 2
    decay_mult: 0
  }
  inner_product_param {
    num_output: 500
    weight_filler {
      type: "xavier"
    }
    bias_filler {
      type: "constant"
      value: 0.2
    }
  }
}
layer {
  name: "reshape_frames"
  type: "Reshape"
  bottom: "embedded_in_frames"
  top: "embedded_input_frames"
  reshape_param {
    shape {
      dim: 1
      dim: 1
      dim: 500
    }
  }
}
layer {
  name: "reshape_stage_indicator"
  type: "Reshape"
  bottom: "stage_indicator"
  top: "reshaped_stage_indicator"
  reshape_param {
    shape {
      dim: 1
      dim: 1
      dim: 1
    }
  }
}
layer {
  name: "embedding"
  type: "Embed"
  bottom: "input_sentence"
  top: "embedded_input_sentence"
  param {
    lr_mult: 1
  }
  embed_param {
    num_output: 500
    input_dim: 46168
    bias_term: false
    weight_filler {
      type: "uniform"
      min: -0.08
      max: 0.08
    }
  }
}
layer {
  name: "lstm1"
  type: "LSTM"
  bottom: "embedded_input_frames"
  bottom: "cont_sentence"
  top: "lstm1"
  recurrent_param {
    num_output: 1000
    weight_filler {
      type: "uniform"
      min: -0.08
      max: 0.08
    }
    bias_filler {
      type: "constant"
      value: 0
    }
  }
}
layer {
  name: "concat"
  type: "Concat"
  bottom: "lstm1"
  bottom: "embedded_input_sentence"
  bottom: "reshaped_stage_indicator"
  top: "lstm1_video_sequence"
  concat_param {
    concat_dim: 2
  }
}
layer {
  name: "lstm2"
  type: "LSTM"
  bottom: "lstm1_video_sequence"
  bottom: "cont_sentence"
  top: "lstm2"
  recurrent_param {
    num_output: 1000
    weight_filler {
      type: "uniform"
      min: -0.08
      max: 0.08
    }
    bias_filler {
      type: "constant"
      value: 0
    }
  }
}
layer {
  name: "predict"
  type: "InnerProduct"
  bottom: "lstm2"
  top: "predict"
  param {
    lr_mult: 1
    decay_mult: 1
  }
  param {
    lr_mult: 2
    decay_mult: 0
  }
  inner_product_param {
    num_output: 46168
    weight_filler {
      type: "uniform"
      min: -0.08
      max: 0.08
    }
    bias_filler {
      type: "constant"
      value: 0
    }
    axis: 2
  }
}
layer {
  name: "probs"
  type: "Softmax"
  bottom: "predict"
  top: "probs"
  softmax_param {
    axis: 2
  }
}
I0922 22:30:12.547462 28527 net.cpp:49] Initializing net from parameters: 
name: "s2vt:features_to_lstm"
state {
  phase: TEST
}
layer {
  name: "input"
  type: "Input"
  top: "frames_fc7"
  top: "cont_sentence"
  top: "input_sentence"
  top: "stage_indicator"
  input_param {
    shape {
      dim: 1
      dim: 4096
    }
    shape {
      dim: 1
      dim: 1
    }
    shape {
      dim: 1
      dim: 1
    }
    shape {
      dim: 1
      dim: 1
    }
  }
}
layer {
  name: "embed_encoder"
  type: "InnerProduct"
  bottom: "frames_fc7"
  top: "embedded_in_frames"
  param {
    lr_mult: 1
    decay_mult: 1
  }
  param {
    lr_mult: 2
    decay_mult: 0
  }
  inner_product_param {
    num_output: 500
    weight_filler {
      type: "xavier"
    }
    bias_filler {
      type: "constant"
      value: 0.2
    }
  }
}
layer {
  name: "reshape_frames"
  type: "Reshape"
  bottom: "embedded_in_frames"
  top: "embedded_input_frames"
  reshape_param {
    shape {
      dim: 1
      dim: 1
      dim: 500
    }
  }
}
layer {
  name: "reshape_stage_indicator"
  type: "Reshape"
  bottom: "stage_indicator"
  top: "reshaped_stage_indicator"
  reshape_param {
    shape {
      dim: 1
      dim: 1
      dim: 1
    }
  }
}
layer {
  name: "embedding"
  type: "Embed"
  bottom: "input_sentence"
  top: "embedded_input_sentence"
  param {
    lr_mult: 1
  }
  embed_param {
    num_output: 500
    input_dim: 46168
    bias_term: false
    weight_filler {
      type: "uniform"
      min: -0.08
      max: 0.08
    }
  }
}
layer {
  name: "lstm1"
  type: "LSTM"
  bottom: "embedded_input_frames"
  bottom: "cont_sentence"
  top: "lstm1"
  recurrent_param {
    num_output: 1000
    weight_filler {
      type: "uniform"
      min: -0.08
      max: 0.08
    }
    bias_filler {
      type: "constant"
      value: 0
    }
  }
}
layer {
  name: "concat"
  type: "Concat"
  bottom: "lstm1"
  bottom: "embedded_input_sentence"
  bottom: "reshaped_stage_indicator"
  top: "lstm1_video_sequence"
  concat_param {
    concat_dim: 2
  }
}
layer {
  name: "lstm2"
  type: "LSTM"
  bottom: "lstm1_video_sequence"
  bottom: "cont_sentence"
  top: "lstm2"
  recurrent_param {
    num_output: 1000
    weight_filler {
      type: "uniform"
      min: -0.08
      max: 0.08
    }
    bias_filler {
      type: "constant"
      value: 0
    }
  }
}
layer {
  name: "predict"
  type: "InnerProduct"
  bottom: "lstm2"
  top: "predict"
  param {
    lr_mult: 1
    decay_mult: 1
  }
  param {
    lr_mult: 2
    decay_mult: 0
  }
  inner_product_param {
    num_output: 46168
    weight_filler {
      type: "uniform"
      min: -0.08
      max: 0.08
    }
    bias_filler {
      type: "constant"
      value: 0
    }
    axis: 2
  }
}
layer {
  name: "probs"
  type: "Softmax"
  bottom: "predict"
  top: "probs"
  softmax_param {
    axis: 2
  }
}
I0922 22:30:12.547574 28523 layer_factory.hpp:77] Creating layer input
I0922 22:30:12.547574 28543 layer_factory.hpp:77] Creating layer input
I0922 22:30:12.547603 28523 net.cpp:91] Creating Layer input
I0922 22:30:12.547605 28543 net.cpp:91] Creating Layer input
I0922 22:30:12.547621 28523 net.cpp:399] input -> frames_fc7
I0922 22:30:12.547623 28543 net.cpp:399] input -> frames_fc7
I0922 22:30:12.547639 28527 layer_factory.hpp:77] Creating layer input
I0922 22:30:12.547647 28543 net.cpp:399] input -> cont_sentence
I0922 22:30:12.547647 28523 net.cpp:399] input -> cont_sentence
I0922 22:30:12.547667 28527 net.cpp:91] Creating Layer input
I0922 22:30:12.547679 28523 net.cpp:399] input -> input_sentence
I0922 22:30:12.547685 28527 net.cpp:399] input -> frames_fc7
I0922 22:30:12.547711 28523 net.cpp:399] input -> stage_indicator
I0922 22:30:12.547682 28543 net.cpp:399] input -> input_sentence
I0922 22:30:12.547739 28543 net.cpp:399] input -> stage_indicator
I0922 22:30:12.547739 28527 net.cpp:399] input -> cont_sentence
I0922 22:30:12.547778 28527 net.cpp:399] input -> input_sentence
I0922 22:30:12.547802 28527 net.cpp:399] input -> stage_indicator
I0922 22:30:13.238260 28521 net.cpp:141] Setting up data
I0922 22:30:13.238384 28523 net.cpp:141] Setting up input
I0922 22:30:13.238476 28523 net.cpp:148] Top shape: 1 4096 (4096)
I0922 22:30:13.238477 28521 net.cpp:148] Top shape: 10 3 227 227 (1545870)
I0922 22:30:13.238487 28523 net.cpp:148] Top shape: 1 1 (1)
I0922 22:30:13.238488 28521 net.cpp:156] Memory required for data: 6183480
I0922 22:30:13.238497 28523 net.cpp:148] Top shape: 1 1 (1)
I0922 22:30:13.238517 28523 net.cpp:148] Top shape: 1 1 (1)
I0922 22:30:13.238520 28521 layer_factory.hpp:77] Creating layer conv1
I0922 22:30:13.238523 28523 net.cpp:156] Memory required for data: 16396
I0922 22:30:13.238544 28523 layer_factory.hpp:77] Creating layer cont_sentence_input_1_split
I0922 22:30:13.238574 28521 net.cpp:91] Creating Layer conv1
I0922 22:30:13.238579 28523 net.cpp:91] Creating Layer cont_sentence_input_1_split
I0922 22:30:13.238585 28521 net.cpp:425] conv1 <- data
I0922 22:30:13.238590 28523 net.cpp:425] cont_sentence_input_1_split <- cont_sentence
I0922 22:30:13.238596 28543 net.cpp:141] Setting up input
I0922 22:30:13.238603 28521 net.cpp:399] conv1 -> conv1
I0922 22:30:13.238622 28543 net.cpp:148] Top shape: 1 4096 (4096)
I0922 22:30:13.238615 28523 net.cpp:399] cont_sentence_input_1_split -> cont_sentence_input_1_split_0
I0922 22:30:13.238633 28543 net.cpp:148] Top shape: 1 1 (1)
I0922 22:30:13.238641 28543 net.cpp:148] Top shape: 1 1 (1)
I0922 22:30:13.238647 28543 net.cpp:148] Top shape: 1 1 (1)
I0922 22:30:13.238648 28523 net.cpp:399] cont_sentence_input_1_split -> cont_sentence_input_1_split_1
I0922 22:30:13.238653 28543 net.cpp:156] Memory required for data: 16396
I0922 22:30:13.238662 28543 layer_factory.hpp:77] Creating layer cont_sentence_input_1_split
I0922 22:30:13.238659 28527 net.cpp:141] Setting up input
I0922 22:30:13.238675 28543 net.cpp:91] Creating Layer cont_sentence_input_1_split
I0922 22:30:13.238682 28543 net.cpp:425] cont_sentence_input_1_split <- cont_sentence
I0922 22:30:13.238682 28527 net.cpp:148] Top shape: 1 4096 (4096)
I0922 22:30:13.238698 28543 net.cpp:399] cont_sentence_input_1_split -> cont_sentence_input_1_split_0
I0922 22:30:13.238699 28527 net.cpp:148] Top shape: 1 1 (1)
I0922 22:30:13.238708 28527 net.cpp:148] Top shape: 1 1 (1)
I0922 22:30:13.238713 28543 net.cpp:399] cont_sentence_input_1_split -> cont_sentence_input_1_split_1
I0922 22:30:13.238714 28527 net.cpp:148] Top shape: 1 1 (1)
I0922 22:30:13.238723 28527 net.cpp:156] Memory required for data: 16396
I0922 22:30:13.238730 28527 layer_factory.hpp:77] Creating layer cont_sentence_input_1_split
I0922 22:30:13.238749 28527 net.cpp:91] Creating Layer cont_sentence_input_1_split
I0922 22:30:13.238756 28527 net.cpp:425] cont_sentence_input_1_split <- cont_sentence
I0922 22:30:13.238777 28527 net.cpp:399] cont_sentence_input_1_split -> cont_sentence_input_1_split_0
I0922 22:30:13.238790 28527 net.cpp:399] cont_sentence_input_1_split -> cont_sentence_input_1_split_1
I0922 22:30:13.238865 28543 net.cpp:141] Setting up cont_sentence_input_1_split
I0922 22:30:13.238878 28543 net.cpp:148] Top shape: 1 1 (1)
I0922 22:30:13.238886 28543 net.cpp:148] Top shape: 1 1 (1)
I0922 22:30:13.238893 28543 net.cpp:156] Memory required for data: 16404
I0922 22:30:13.238899 28543 layer_factory.hpp:77] Creating layer embed_encoder
I0922 22:30:13.238919 28543 net.cpp:91] Creating Layer embed_encoder
I0922 22:30:13.238925 28543 net.cpp:425] embed_encoder <- frames_fc7
I0922 22:30:13.238936 28543 net.cpp:399] embed_encoder -> embedded_in_frames
I0922 22:30:13.239042 28527 net.cpp:141] Setting up cont_sentence_input_1_split
I0922 22:30:13.239110 28527 net.cpp:148] Top shape: 1 1 (1)
I0922 22:30:13.239125 28527 net.cpp:148] Top shape: 1 1 (1)
I0922 22:30:13.239131 28527 net.cpp:156] Memory required for data: 16404
I0922 22:30:13.239138 28527 layer_factory.hpp:77] Creating layer embed_encoder
I0922 22:30:13.239156 28527 net.cpp:91] Creating Layer embed_encoder
I0922 22:30:13.239163 28527 net.cpp:425] embed_encoder <- frames_fc7
I0922 22:30:13.239186 28527 net.cpp:399] embed_encoder -> embedded_in_frames
I0922 22:30:13.240041 28523 net.cpp:141] Setting up cont_sentence_input_1_split
I0922 22:30:13.240064 28523 net.cpp:148] Top shape: 1 1 (1)
I0922 22:30:13.240078 28523 net.cpp:148] Top shape: 1 1 (1)
I0922 22:30:13.240083 28523 net.cpp:156] Memory required for data: 16404
I0922 22:30:13.240089 28523 layer_factory.hpp:77] Creating layer embed_encoder
I0922 22:30:13.240103 28523 net.cpp:91] Creating Layer embed_encoder
I0922 22:30:13.240111 28523 net.cpp:425] embed_encoder <- frames_fc7
I0922 22:30:13.244700 28523 net.cpp:399] embed_encoder -> embedded_in_frames
I0922 22:30:13.276047 28523 net.cpp:141] Setting up embed_encoder
I0922 22:30:13.276095 28523 net.cpp:148] Top shape: 1 500 (500)
I0922 22:30:13.276103 28523 net.cpp:156] Memory required for data: 18404
I0922 22:30:13.276134 28523 layer_factory.hpp:77] Creating layer reshape_frames
I0922 22:30:13.276170 28523 net.cpp:91] Creating Layer reshape_frames
I0922 22:30:13.276180 28523 net.cpp:425] reshape_frames <- embedded_in_frames
I0922 22:30:13.276192 28523 net.cpp:399] reshape_frames -> embedded_input_frames
I0922 22:30:13.276792 28523 net.cpp:141] Setting up reshape_frames
I0922 22:30:13.276809 28523 net.cpp:148] Top shape: 1 1 500 (500)
I0922 22:30:13.276814 28523 net.cpp:156] Memory required for data: 20404
I0922 22:30:13.276820 28523 layer_factory.hpp:77] Creating layer reshape_stage_indicator
I0922 22:30:13.276834 28523 net.cpp:91] Creating Layer reshape_stage_indicator
I0922 22:30:13.276840 28523 net.cpp:425] reshape_stage_indicator <- stage_indicator
I0922 22:30:13.276849 28523 net.cpp:399] reshape_stage_indicator -> reshaped_stage_indicator
I0922 22:30:13.276979 28523 net.cpp:141] Setting up reshape_stage_indicator
I0922 22:30:13.276993 28523 net.cpp:148] Top shape: 1 1 1 (1)
I0922 22:30:13.276998 28523 net.cpp:156] Memory required for data: 20408
I0922 22:30:13.277003 28523 layer_factory.hpp:77] Creating layer embedding
I0922 22:30:13.277022 28523 net.cpp:91] Creating Layer embedding
I0922 22:30:13.277029 28523 net.cpp:425] embedding <- input_sentence
I0922 22:30:13.277040 28523 net.cpp:399] embedding -> embedded_input_sentence
I0922 22:30:13.277290 28527 net.cpp:141] Setting up embed_encoder
I0922 22:30:13.277335 28527 net.cpp:148] Top shape: 1 500 (500)
I0922 22:30:13.277346 28527 net.cpp:156] Memory required for data: 18404
I0922 22:30:13.277375 28527 layer_factory.hpp:77] Creating layer reshape_frames
I0922 22:30:13.277401 28527 net.cpp:91] Creating Layer reshape_frames
I0922 22:30:13.277415 28527 net.cpp:425] reshape_frames <- embedded_in_frames
I0922 22:30:13.277436 28527 net.cpp:399] reshape_frames -> embedded_input_frames
I0922 22:30:13.324692 28527 net.cpp:141] Setting up reshape_frames
I0922 22:30:13.324797 28527 net.cpp:148] Top shape: 1 1 500 (500)
I0922 22:30:13.324813 28527 net.cpp:156] Memory required for data: 20404
I0922 22:30:13.324832 28527 layer_factory.hpp:77] Creating layer reshape_stage_indicator
I0922 22:30:13.324890 28527 net.cpp:91] Creating Layer reshape_stage_indicator
I0922 22:30:13.324910 28527 net.cpp:425] reshape_stage_indicator <- stage_indicator
I0922 22:30:13.324939 28527 net.cpp:399] reshape_stage_indicator -> reshaped_stage_indicator
I0922 22:30:13.324945 28543 net.cpp:141] Setting up embed_encoder
I0922 22:30:13.325012 28543 net.cpp:148] Top shape: 1 500 (500)
I0922 22:30:13.325024 28543 net.cpp:156] Memory required for data: 18404
I0922 22:30:13.325058 28543 layer_factory.hpp:77] Creating layer reshape_frames
I0922 22:30:13.325088 28543 net.cpp:91] Creating Layer reshape_frames
I0922 22:30:13.325103 28543 net.cpp:425] reshape_frames <- embedded_in_frames
I0922 22:30:13.325124 28543 net.cpp:399] reshape_frames -> embedded_input_frames
I0922 22:30:13.329686 28527 net.cpp:141] Setting up reshape_stage_indicator
I0922 22:30:13.329740 28527 net.cpp:148] Top shape: 1 1 1 (1)
I0922 22:30:13.329746 28527 net.cpp:156] Memory required for data: 20408
I0922 22:30:13.329759 28527 layer_factory.hpp:77] Creating layer embedding
I0922 22:30:13.329769 28543 net.cpp:141] Setting up reshape_frames
I0922 22:30:13.329789 28527 net.cpp:91] Creating Layer embedding
I0922 22:30:13.329825 28543 net.cpp:148] Top shape: 1 1 500 (500)
I0922 22:30:13.329826 28527 net.cpp:425] embedding <- input_sentence
I0922 22:30:13.329841 28543 net.cpp:156] Memory required for data: 20404
I0922 22:30:13.329856 28543 layer_factory.hpp:77] Creating layer reshape_stage_indicator
I0922 22:30:13.329859 28527 net.cpp:399] embedding -> embedded_input_sentence
I0922 22:30:13.329895 28543 net.cpp:91] Creating Layer reshape_stage_indicator
I0922 22:30:13.329910 28543 net.cpp:425] reshape_stage_indicator <- stage_indicator
I0922 22:30:13.329928 28543 net.cpp:399] reshape_stage_indicator -> reshaped_stage_indicator
I0922 22:30:13.330359 28543 net.cpp:141] Setting up reshape_stage_indicator
I0922 22:30:13.330379 28543 net.cpp:148] Top shape: 1 1 1 (1)
I0922 22:30:13.330384 28543 net.cpp:156] Memory required for data: 20408
I0922 22:30:13.330390 28543 layer_factory.hpp:77] Creating layer embedding
I0922 22:30:13.330405 28543 net.cpp:91] Creating Layer embedding
I0922 22:30:13.330411 28543 net.cpp:425] embedding <- input_sentence
I0922 22:30:13.330421 28543 net.cpp:399] embedding -> embedded_input_sentence
I0922 22:30:13.523794 28523 net.cpp:141] Setting up embedding
I0922 22:30:13.523844 28523 net.cpp:148] Top shape: 1 1 500 (500)
I0922 22:30:13.523851 28523 net.cpp:156] Memory required for data: 22408
I0922 22:30:13.523872 28523 layer_factory.hpp:77] Creating layer lstm1
I0922 22:30:13.523907 28523 net.cpp:91] Creating Layer lstm1
I0922 22:30:13.523916 28523 net.cpp:425] lstm1 <- embedded_input_frames
I0922 22:30:13.523926 28523 net.cpp:425] lstm1 <- cont_sentence_input_1_split_0
I0922 22:30:13.523939 28523 net.cpp:399] lstm1 -> lstm1
I0922 22:30:13.524013 28523 recurrent_layer.cpp:20] Initializing recurrent layer: assuming input batch contains 1 timesteps of 1 independent streams.
I0922 22:30:13.524552 28523 net.cpp:49] Initializing net from parameters: 
layer {
  name: "lstm1_"
  type: "Input"
  top: "x"
  top: "cont"
  input_param {
    shape {
      dim: 1
      dim: 1
      dim: 500
    }
    shape {
      dim: 1
      dim: 1
    }
  }
}
layer {
  name: "lstm1_"
  type: "Input"
  top: "c_0"
  top: "h_0"
  input_param {
    shape {
      dim: 1
      dim: 1
      dim: 1000
    }
    shape {
      dim: 1
      dim: 1
      dim: 1000
    }
  }
}
layer {
  name: "lstm1_cont_slice"
  type: "Slice"
  bottom: "cont"
  top: "cont_1"
  slice_param {
    axis: 0
  }
}
layer {
  name: "lstm1_x_transform"
  type: "InnerProduct"
  bottom: "x"
  top: "W_xc_x"
  param {
    name: "W_xc"
  }
  param {
    name: "b_c"
  }
  propagate_down: true
  inner_product_param {
    num_output: 4000
    bias_term: true
    weight_filler {
      type: "uniform"
      min: -0.08
      max: 0.08
    }
    bias_filler {
      type: "constant"
      value: 0
    }
    axis: 2
  }
}
layer {
  name: "lstm1_W_xc_x_slice"
  type: "Slice"
  bottom: "W_xc_x"
  top: "W_xc_x_1"
  slice_param {
    axis: 0
  }
}
layer {
  name: "lstm1_h_conted_0"
  type: "Scale"
  bottom: "h_0"
  bottom: "cont_1"
  top: "h_conted_0"
  scale_param {
    axis: 0
  }
}
layer {
  name: "lstm1_transform_1"
  type: "InnerProduct"
  bottom: "h_conted_0"
  top: "W_hc_h_0"
  param {
    name: "W_hc"
  }
  inner_product_param {
    num_output: 4000
    bias_term: false
    weight_filler {
      type: "uniform"
      min: -0.08
      max: 0.08
    }
    axis: 2
  }
}
layer {
  name: "lstm1_gate_input_1"
  type: "Eltwise"
  bottom: "W_hc_h_0"
  bottom: "W_xc_x_1"
  top: "gate_input_1"
  eltwise_param {
    operation: SUM
  }
}
layer {
  name: "lstm1_unit_1"
  type: "LSTMUnit"
  bottom: "c_0"
  bottom: "gate_input_1"
  bottom: "cont_1"
  top: "c_1"
  top: "h_1"
}
layer {
  name: "lstm1_"
  type: "Split"
  bottom: "c_1"
  top: "c_T"
}
layer {
  name: "lstm1_h_concat"
  type: "Concat"
  bottom: "h_1"
  top: "h"
  concat_param {
    axis: 0
  }
}
layer {
  name: "h_pseudoloss"
  type: "Reduction"
  bottom: "h"
  top: "h_pseudoloss"
  loss_weight: 1
}
I0922 22:30:13.524672 28523 layer_factory.hpp:77] Creating layer lstm1_
I0922 22:30:13.524688 28523 net.cpp:91] Creating Layer lstm1_
I0922 22:30:13.524695 28523 net.cpp:399] lstm1_ -> x
I0922 22:30:13.524709 28523 net.cpp:399] lstm1_ -> cont
I0922 22:30:13.527585 28523 net.cpp:141] Setting up lstm1_
I0922 22:30:13.527613 28523 net.cpp:148] Top shape: 1 1 500 (500)
I0922 22:30:13.527621 28523 net.cpp:148] Top shape: 1 1 (1)
I0922 22:30:13.527626 28523 net.cpp:156] Memory required for data: 2004
I0922 22:30:13.527633 28523 layer_factory.hpp:77] Creating layer lstm1_
I0922 22:30:13.527649 28523 net.cpp:91] Creating Layer lstm1_
I0922 22:30:13.527660 28523 net.cpp:399] lstm1_ -> c_0
I0922 22:30:13.527678 28523 net.cpp:399] lstm1_ -> h_0
I0922 22:30:13.529484 28523 net.cpp:141] Setting up lstm1_
I0922 22:30:13.529505 28523 net.cpp:148] Top shape: 1 1 1000 (1000)
I0922 22:30:13.529512 28523 net.cpp:148] Top shape: 1 1 1000 (1000)
I0922 22:30:13.529517 28523 net.cpp:156] Memory required for data: 10004
I0922 22:30:13.529523 28523 layer_factory.hpp:77] Creating layer lstm1_cont_slice
I0922 22:30:13.529536 28523 net.cpp:91] Creating Layer lstm1_cont_slice
I0922 22:30:13.529542 28523 net.cpp:425] lstm1_cont_slice <- cont
I0922 22:30:13.529551 28523 net.cpp:399] lstm1_cont_slice -> cont_1
I0922 22:30:13.538842 28523 net.cpp:141] Setting up lstm1_cont_slice
I0922 22:30:13.538888 28523 net.cpp:148] Top shape: 1 1 (1)
I0922 22:30:13.538894 28523 net.cpp:156] Memory required for data: 10008
I0922 22:30:13.538903 28523 layer_factory.hpp:77] Creating layer cont_1_lstm1_cont_slice_0_split
I0922 22:30:13.538926 28523 net.cpp:91] Creating Layer cont_1_lstm1_cont_slice_0_split
I0922 22:30:13.538934 28523 net.cpp:425] cont_1_lstm1_cont_slice_0_split <- cont_1
I0922 22:30:13.538946 28523 net.cpp:399] cont_1_lstm1_cont_slice_0_split -> cont_1_lstm1_cont_slice_0_split_0
I0922 22:30:13.538961 28523 net.cpp:399] cont_1_lstm1_cont_slice_0_split -> cont_1_lstm1_cont_slice_0_split_1
I0922 22:30:13.539052 28523 net.cpp:141] Setting up cont_1_lstm1_cont_slice_0_split
I0922 22:30:13.539065 28523 net.cpp:148] Top shape: 1 1 (1)
I0922 22:30:13.539072 28523 net.cpp:148] Top shape: 1 1 (1)
I0922 22:30:13.539078 28523 net.cpp:156] Memory required for data: 10016
I0922 22:30:13.539083 28523 layer_factory.hpp:77] Creating layer lstm1_x_transform
I0922 22:30:13.539108 28523 net.cpp:91] Creating Layer lstm1_x_transform
I0922 22:30:13.539113 28523 net.cpp:425] lstm1_x_transform <- x
I0922 22:30:13.539124 28523 net.cpp:399] lstm1_x_transform -> W_xc_x
I0922 22:30:13.563597 28523 net.cpp:141] Setting up lstm1_x_transform
I0922 22:30:13.563648 28523 net.cpp:148] Top shape: 1 1 4000 (4000)
I0922 22:30:13.563655 28523 net.cpp:156] Memory required for data: 26016
I0922 22:30:13.563684 28523 layer_factory.hpp:77] Creating layer lstm1_W_xc_x_slice
I0922 22:30:13.563709 28523 net.cpp:91] Creating Layer lstm1_W_xc_x_slice
I0922 22:30:13.563717 28523 net.cpp:425] lstm1_W_xc_x_slice <- W_xc_x
I0922 22:30:13.563729 28523 net.cpp:399] lstm1_W_xc_x_slice -> W_xc_x_1
I0922 22:30:13.563796 28523 net.cpp:141] Setting up lstm1_W_xc_x_slice
I0922 22:30:13.563808 28523 net.cpp:148] Top shape: 1 1 4000 (4000)
I0922 22:30:13.563813 28523 net.cpp:156] Memory required for data: 42016
I0922 22:30:13.563819 28523 layer_factory.hpp:77] Creating layer lstm1_h_conted_0
I0922 22:30:13.563848 28523 net.cpp:91] Creating Layer lstm1_h_conted_0
I0922 22:30:13.563855 28523 net.cpp:425] lstm1_h_conted_0 <- h_0
I0922 22:30:13.563863 28523 net.cpp:425] lstm1_h_conted_0 <- cont_1_lstm1_cont_slice_0_split_0
I0922 22:30:13.563871 28523 net.cpp:399] lstm1_h_conted_0 -> h_conted_0
I0922 22:30:13.566817 28523 net.cpp:141] Setting up lstm1_h_conted_0
I0922 22:30:13.566838 28523 net.cpp:148] Top shape: 1 1 1000 (1000)
I0922 22:30:13.566844 28523 net.cpp:156] Memory required for data: 46016
I0922 22:30:13.566850 28523 layer_factory.hpp:77] Creating layer lstm1_transform_1
I0922 22:30:13.566884 28523 net.cpp:91] Creating Layer lstm1_transform_1
I0922 22:30:13.566893 28523 net.cpp:425] lstm1_transform_1 <- h_conted_0
I0922 22:30:13.566903 28523 net.cpp:399] lstm1_transform_1 -> W_hc_h_0
I0922 22:30:13.586153 28527 net.cpp:141] Setting up embedding
I0922 22:30:13.586211 28527 net.cpp:148] Top shape: 1 1 500 (500)
I0922 22:30:13.586218 28527 net.cpp:156] Memory required for data: 22408
I0922 22:30:13.586236 28527 layer_factory.hpp:77] Creating layer lstm1
I0922 22:30:13.586258 28527 net.cpp:91] Creating Layer lstm1
I0922 22:30:13.586268 28527 net.cpp:425] lstm1 <- embedded_input_frames
I0922 22:30:13.586278 28527 net.cpp:425] lstm1 <- cont_sentence_input_1_split_0
I0922 22:30:13.586288 28527 net.cpp:399] lstm1 -> lstm1
I0922 22:30:13.586308 28527 recurrent_layer.cpp:20] Initializing recurrent layer: assuming input batch contains 1 timesteps of 1 independent streams.
I0922 22:30:13.586634 28527 net.cpp:49] Initializing net from parameters: 
layer {
  name: "lstm1_"
  type: "Input"
  top: "x"
  top: "cont"
  input_param {
    shape {
      dim: 1
      dim: 1
      dim: 500
    }
    shape {
      dim: 1
      dim: 1
    }
  }
}
layer {
  name: "lstm1_"
  type: "Input"
  top: "c_0"
  top: "h_0"
  input_param {
    shape {
      dim: 1
      dim: 1
      dim: 1000
    }
    shape {
      dim: 1
      dim: 1
      dim: 1000
    }
  }
}
layer {
  name: "lstm1_cont_slice"
  type: "Slice"
  bottom: "cont"
  top: "cont_1"
  slice_param {
    axis: 0
  }
}
layer {
  name: "lstm1_x_transform"
  type: "InnerProduct"
  bottom: "x"
  top: "W_xc_x"
  param {
    name: "W_xc"
  }
  param {
    name: "b_c"
  }
  propagate_down: true
  inner_product_param {
    num_output: 4000
    bias_term: true
    weight_filler {
      type: "uniform"
      min: -0.08
      max: 0.08
    }
    bias_filler {
      type: "constant"
      value: 0
    }
    axis: 2
  }
}
layer {
  name: "lstm1_W_xc_x_slice"
  type: "Slice"
  bottom: "W_xc_x"
  top: "W_xc_x_1"
  slice_param {
    axis: 0
  }
}
layer {
  name: "lstm1_h_conted_0"
  type: "Scale"
  bottom: "h_0"
  bottom: "cont_1"
  top: "h_conted_0"
  scale_param {
    axis: 0
  }
}
layer {
  name: "lstm1_transform_1"
  type: "InnerProduct"
  bottom: "h_conted_0"
  top: "W_hc_h_0"
  param {
    name: "W_hc"
  }
  inner_product_param {
    num_output: 4000
    bias_term: false
    weight_filler {
      type: "uniform"
      min: -0.08
      max: 0.08
    }
    axis: 2
  }
}
layer {
  name: "lstm1_gate_input_1"
  type: "Eltwise"
  bottom: "W_hc_h_0"
  bottom: "W_xc_x_1"
  top: "gate_input_1"
  eltwise_param {
    operation: SUM
  }
}
layer {
  name: "lstm1_unit_1"
  type: "LSTMUnit"
  bottom: "c_0"
  bottom: "gate_input_1"
  bottom: "cont_1"
  top: "c_1"
  top: "h_1"
}
layer {
  name: "lstm1_"
  type: "Split"
  bottom: "c_1"
  top: "c_T"
}
layer {
  name: "lstm1_h_concat"
  type: "Concat"
  bottom: "h_1"
  top: "h"
  concat_param {
    axis: 0
  }
}
layer {
  name: "h_pseudoloss"
  type: "Reduction"
  bottom: "h"
  top: "h_pseudoloss"
  loss_weight: 1
}
I0922 22:30:13.586740 28527 layer_factory.hpp:77] Creating layer lstm1_
I0922 22:30:13.586756 28527 net.cpp:91] Creating Layer lstm1_
I0922 22:30:13.586763 28527 net.cpp:399] lstm1_ -> x
I0922 22:30:13.586776 28527 net.cpp:399] lstm1_ -> cont
I0922 22:30:13.587067 28527 net.cpp:141] Setting up lstm1_
I0922 22:30:13.587082 28527 net.cpp:148] Top shape: 1 1 500 (500)
I0922 22:30:13.587090 28527 net.cpp:148] Top shape: 1 1 (1)
I0922 22:30:13.587095 28527 net.cpp:156] Memory required for data: 2004
I0922 22:30:13.587100 28527 layer_factory.hpp:77] Creating layer lstm1_
I0922 22:30:13.587110 28527 net.cpp:91] Creating Layer lstm1_
I0922 22:30:13.587121 28527 net.cpp:399] lstm1_ -> c_0
I0922 22:30:13.587133 28527 net.cpp:399] lstm1_ -> h_0
I0922 22:30:13.594745 28527 net.cpp:141] Setting up lstm1_
I0922 22:30:13.594791 28527 net.cpp:148] Top shape: 1 1 1000 (1000)
I0922 22:30:13.594799 28527 net.cpp:148] Top shape: 1 1 1000 (1000)
I0922 22:30:13.594805 28527 net.cpp:156] Memory required for data: 10004
I0922 22:30:13.594811 28527 layer_factory.hpp:77] Creating layer lstm1_cont_slice
I0922 22:30:13.594833 28527 net.cpp:91] Creating Layer lstm1_cont_slice
I0922 22:30:13.594841 28527 net.cpp:425] lstm1_cont_slice <- cont
I0922 22:30:13.594852 28527 net.cpp:399] lstm1_cont_slice -> cont_1
I0922 22:30:13.596226 28527 net.cpp:141] Setting up lstm1_cont_slice
I0922 22:30:13.596257 28527 net.cpp:148] Top shape: 1 1 (1)
I0922 22:30:13.596269 28527 net.cpp:156] Memory required for data: 10008
I0922 22:30:13.596281 28527 layer_factory.hpp:77] Creating layer cont_1_lstm1_cont_slice_0_split
I0922 22:30:13.596298 28527 net.cpp:91] Creating Layer cont_1_lstm1_cont_slice_0_split
I0922 22:30:13.596309 28527 net.cpp:425] cont_1_lstm1_cont_slice_0_split <- cont_1
I0922 22:30:13.596329 28527 net.cpp:399] cont_1_lstm1_cont_slice_0_split -> cont_1_lstm1_cont_slice_0_split_0
I0922 22:30:13.596349 28527 net.cpp:399] cont_1_lstm1_cont_slice_0_split -> cont_1_lstm1_cont_slice_0_split_1
I0922 22:30:13.598979 28527 net.cpp:141] Setting up cont_1_lstm1_cont_slice_0_split
I0922 22:30:13.599032 28527 net.cpp:148] Top shape: 1 1 (1)
I0922 22:30:13.599063 28527 net.cpp:148] Top shape: 1 1 (1)
I0922 22:30:13.599076 28527 net.cpp:156] Memory required for data: 10016
I0922 22:30:13.599087 28527 layer_factory.hpp:77] Creating layer lstm1_x_transform
I0922 22:30:13.599123 28527 net.cpp:91] Creating Layer lstm1_x_transform
I0922 22:30:13.599135 28527 net.cpp:425] lstm1_x_transform <- x
I0922 22:30:13.599156 28527 net.cpp:399] lstm1_x_transform -> W_xc_x
I0922 22:30:13.617321 28523 net.cpp:141] Setting up lstm1_transform_1
I0922 22:30:13.617369 28523 net.cpp:148] Top shape: 1 1 4000 (4000)
I0922 22:30:13.617377 28523 net.cpp:156] Memory required for data: 62016
I0922 22:30:13.617403 28523 layer_factory.hpp:77] Creating layer lstm1_gate_input_1
I0922 22:30:13.617431 28523 net.cpp:91] Creating Layer lstm1_gate_input_1
I0922 22:30:13.617439 28523 net.cpp:425] lstm1_gate_input_1 <- W_hc_h_0
I0922 22:30:13.617449 28523 net.cpp:425] lstm1_gate_input_1 <- W_xc_x_1
I0922 22:30:13.617457 28523 net.cpp:399] lstm1_gate_input_1 -> gate_input_1
I0922 22:30:13.617537 28523 net.cpp:141] Setting up lstm1_gate_input_1
I0922 22:30:13.617547 28523 net.cpp:148] Top shape: 1 1 4000 (4000)
I0922 22:30:13.617553 28523 net.cpp:156] Memory required for data: 78016
I0922 22:30:13.617558 28523 layer_factory.hpp:77] Creating layer lstm1_unit_1
I0922 22:30:13.617580 28523 net.cpp:91] Creating Layer lstm1_unit_1
I0922 22:30:13.617586 28523 net.cpp:425] lstm1_unit_1 <- c_0
I0922 22:30:13.617594 28523 net.cpp:425] lstm1_unit_1 <- gate_input_1
I0922 22:30:13.617599 28523 net.cpp:425] lstm1_unit_1 <- cont_1_lstm1_cont_slice_0_split_1
I0922 22:30:13.617607 28523 net.cpp:399] lstm1_unit_1 -> c_1
I0922 22:30:13.617619 28523 net.cpp:399] lstm1_unit_1 -> h_1
I0922 22:30:13.617697 28523 net.cpp:141] Setting up lstm1_unit_1
I0922 22:30:13.617708 28523 net.cpp:148] Top shape: 1 1 1000 (1000)
I0922 22:30:13.617715 28523 net.cpp:148] Top shape: 1 1 1000 (1000)
I0922 22:30:13.617720 28523 net.cpp:156] Memory required for data: 86016
I0922 22:30:13.617725 28523 layer_factory.hpp:77] Creating layer lstm1_
I0922 22:30:13.617735 28523 net.cpp:91] Creating Layer lstm1_
I0922 22:30:13.617741 28523 net.cpp:425] lstm1_ <- c_1
I0922 22:30:13.617753 28523 net.cpp:399] lstm1_ -> c_T
I0922 22:30:13.617791 28523 net.cpp:141] Setting up lstm1_
I0922 22:30:13.617801 28523 net.cpp:148] Top shape: 1 1 1000 (1000)
I0922 22:30:13.617806 28523 net.cpp:156] Memory required for data: 90016
I0922 22:30:13.617812 28523 layer_factory.hpp:77] Creating layer lstm1_h_concat
I0922 22:30:13.617823 28523 net.cpp:91] Creating Layer lstm1_h_concat
I0922 22:30:13.617830 28523 net.cpp:425] lstm1_h_concat <- h_1
I0922 22:30:13.617853 28523 net.cpp:399] lstm1_h_concat -> h
I0922 22:30:13.619480 28523 net.cpp:141] Setting up lstm1_h_concat
I0922 22:30:13.619505 28523 net.cpp:148] Top shape: 1 1 1000 (1000)
I0922 22:30:13.619515 28523 net.cpp:156] Memory required for data: 94016
I0922 22:30:13.619525 28523 layer_factory.hpp:77] Creating layer h_pseudoloss
I0922 22:30:13.619552 28523 net.cpp:91] Creating Layer h_pseudoloss
I0922 22:30:13.619563 28523 net.cpp:425] h_pseudoloss <- h
I0922 22:30:13.619578 28523 net.cpp:399] h_pseudoloss -> h_pseudoloss
I0922 22:30:13.623601 28523 net.cpp:141] Setting up h_pseudoloss
…
I0922 22:30:13.623745 28523 net.cpp:219] lstm1_ does not need backward computation.
I0922 22:30:13.623749 28523 net.cpp:261] This network produces output c_T
I0922 22:30:13.623755 28523 net.cpp:261] This network produces output h_pseudoloss
I0922 22:30:13.623776 28523 net.cpp:274] Network initialization done.
I0922 22:30:13.623860 28523 recurrent_layer.cpp:150] Adding parameter 0: W_xc
I0922 22:30:13.623872 28523 recurrent_layer.cpp:150] Adding parameter 1: b_c
I0922 22:30:13.623878 28523 recurrent_layer.cpp:150] Adding parameter 2: W_hc
I0922 22:30:13.630091 28523 net.cpp:141] Setting up lstm1
I0922 22:30:13.630120 28523 net.cpp:148] Top shape: 1 1 1000 (1000)
I0922 22:30:13.630125 28523 net.cpp:156] Memory required for data: 26408
I0922 22:30:13.630146 28523 layer_factory.hpp:77] Creating layer concat
I0922 22:30:13.630164 28523 net.cpp:91] Creating Layer concat
I0922 22:30:13.630172 28523 net.cpp:425] concat <- lstm1
I0922 22:30:13.630180 28523 net.cpp:425] concat <- embedded_input_sentence
I0922 22:30:13.630187 28523 net.cpp:425] concat <- reshaped_stage_indicator
I0922 22:30:13.630195 28523 net.cpp:399] concat -> lstm1_video_sequence
I0922 22:30:13.631227 28523 net.cpp:141] Setting up concat
I0922 22:30:13.631247 28523 net.cpp:148] Top shape: 1 1 1501 (1501)
I0922 22:30:13.631253 28523 net.cpp:156] Memory required for data: 32412
I0922 22:30:13.631258 28523 layer_factory.hpp:77] Creating layer lstm2
I0922 22:30:13.631275 28523 net.cpp:91] Creating Layer lstm2
I0922 22:30:13.631281 28523 net.cpp:425] lstm2 <- lstm1_video_sequence
I0922 22:30:13.631289 28523 net.cpp:425] lstm2 <- cont_sentence_input_1_split_1
I0922 22:30:13.631299 28523 net.cpp:399] lstm2 -> lstm2
I0922 22:30:13.631314 28523 recurrent_layer.cpp:20] Initializing recurrent layer: assuming input batch contains 1 timesteps of 1 independent streams.
I0922 22:30:13.631619 28523 net.cpp:49] Initializing net from parameters: 
layer {
  name: "lstm2_"
  type: "Input"
  top: "x"
  top: "cont"
  input_param {
    shape {
      dim: 1
      dim: 1
      dim: 1501
    }
    shape {
      dim: 1
      dim: 1
    }
  }
}
layer {
  name: "lstm2_"
  type: "Input"
  top: "c_0"
  top: "h_0"
  input_param {
    shape {
      dim: 1
      dim: 1
      dim: 1000
    }
    shape {
      dim: 1
      dim: 1
      dim: 1000
    }
  }
}
layer {
  name: "lstm2_cont_slice"
  type: "Slice"
  bottom: "cont"
  top: "cont_1"
  slice_param {
    axis: 0
  }
}
layer {
  name: "lstm2_x_transform"
  type: "InnerProduct"
  bottom: "x"
  top: "W_xc_x"
  param {
    name: "W_xc"
  }
  param {
    name: "b_c"
  }
  propagate_down: true
  inner_product_param {
    num_output: 4000
    bias_term: true
    weight_filler {
      type: "uniform"
      min: -0.08
      max: 0.08
    }
    bias_filler {
      type: "constant"
      value: 0
    }
    axis: 2
  }
}
layer {
  name: "lstm2_W_xc_x_slice"
  type: "Slice"
  bottom: "W_xc_x"
  top: "W_xc_x_1"
  slice_param {
    axis: 0
  }
}
layer {
  name: "lstm2_h_conted_0"
  type: "Scale"
  bottom: "h_0"
  bottom: "cont_1"
  top: "h_conted_0"
  scale_param {
    axis: 0
  }
}
layer {
  name: "lstm2_transform_1"
  type: "InnerProduct"
  bottom: "h_conted_0"
  top: "W_hc_h_0"
  param {
    name: "W_hc"
  }
  inner_product_param {
    num_output: 4000
    bias_term: false
    weight_filler {
      type: "uniform"
      min: -0.08
      max: 0.08
    }
    axis: 2
  }
}
layer {
  name: "lstm2_gate_input_1"
  type: "Eltwise"
  bottom: "W_hc_h_0"
  bottom: "W_xc_x_1"
  top: "gate_input_1"
  eltwise_param {
    operation: SUM
  }
}
layer {
  name: "lstm2_unit_1"
  type: "LSTMUnit"
  bottom: "c_0"
  bottom: "gate_input_1"
  bottom: "cont_1"
  top: "c_1"
  top: "h_1"
}
layer {
  name: "lstm2_"
  type: "Split"
  bottom: "c_1"
  top: "c_T"
}
layer {
  name: "lstm2_h_concat"
  type: "Concat"
  bottom: "h_1"
  top: "h"
  concat_param {
    axis: 0
  }
}
layer {
  name: "h_pseudoloss"
  type: "Reduction"
  bottom: "h"
  top: "h_pseudoloss"
  loss_weight: 1
}
I0922 22:30:13.631731 28523 layer_factory.hpp:77] Creating layer lstm2_
I0922 22:30:13.631745 28523 net.cpp:91] Creating Layer lstm2_
I0922 22:30:13.631752 28523 net.cpp:399] lstm2_ -> x
I0922 22:30:13.631765 28523 net.cpp:399] lstm2_ -> cont
I0922 22:30:13.638108 28523 net.cpp:141] Setting up lstm2_
I0922 22:30:13.638129 28523 net.cpp:148] Top shape: 1 1 1501 (1501)
I0922 22:30:13.638139 28523 net.cpp:148] Top shape: 1 1 (1)
I0922 22:30:13.638144 28523 net.cpp:156] Memory required for data: 6008
I0922 22:30:13.638149 28523 layer_factory.hpp:77] Creating layer lstm2_
I0922 22:30:13.638172 28523 net.cpp:91] Creating Layer lstm2_
I0922 22:30:13.638181 28523 net.cpp:399] lstm2_ -> c_0
I0922 22:30:13.638196 28523 net.cpp:399] lstm2_ -> h_0
I0922 22:30:13.638322 28527 net.cpp:141] Setting up lstm1_x_transform
I0922 22:30:13.638368 28527 net.cpp:148] Top shape: 1 1 4000 (4000)
I0922 22:30:13.638380 28527 net.cpp:156] Memory required for data: 26016
I0922 22:30:13.638399 28523 net.cpp:141] Setting up lstm2_
I0922 22:30:13.638408 28527 layer_factory.hpp:77] Creating layer lstm1_W_xc_x_slice
I0922 22:30:13.638414 28523 net.cpp:148] Top shape: 1 1 1000 (1000)
I0922 22:30:13.638432 28523 net.cpp:148] Top shape: 1 1 1000 (1000)
I0922 22:30:13.638437 28523 net.cpp:156] Memory required for data: 14008
I0922 22:30:13.638442 28523 layer_factory.hpp:77] Creating layer lstm2_cont_slice
I0922 22:30:13.638445 28527 net.cpp:91] Creating Layer lstm1_W_xc_x_slice
I0922 22:30:13.638454 28523 net.cpp:91] Creating Layer lstm2_cont_slice
I0922 22:30:13.638461 28523 net.cpp:425] lstm2_cont_slice <- cont
I0922 22:30:13.638461 28527 net.cpp:425] lstm1_W_xc_x_slice <- W_xc_x
I0922 22:30:13.638473 28523 net.cpp:399] lstm2_cont_slice -> cont_1
I0922 22:30:13.638480 28527 net.cpp:399] lstm1_W_xc_x_slice -> W_xc_x_1
I0922 22:30:13.638535 28523 net.cpp:141] Setting up lstm2_cont_slice
I0922 22:30:13.638548 28523 net.cpp:148] Top shape: 1 1 (1)
I0922 22:30:13.638553 28523 net.cpp:156] Memory required for data: 14012
I0922 22:30:13.638559 28523 layer_factory.hpp:77] Creating layer cont_1_lstm2_cont_slice_0_split
I0922 22:30:13.638568 28523 net.cpp:91] Creating Layer cont_1_lstm2_cont_slice_0_split
I0922 22:30:13.638574 28523 net.cpp:425] cont_1_lstm2_cont_slice_0_split <- cont_1
I0922 22:30:13.638584 28523 net.cpp:399] cont_1_lstm2_cont_slice_0_split -> cont_1_lstm2_cont_slice_0_split_0
I0922 22:30:13.638594 28523 net.cpp:399] cont_1_lstm2_cont_slice_0_split -> cont_1_lstm2_cont_slice_0_split_1
I0922 22:30:13.638600 28527 net.cpp:141] Setting up lstm1_W_xc_x_slice
I0922 22:30:13.638619 28527 net.cpp:148] Top shape: 1 1 4000 (4000)
I0922 22:30:13.638628 28527 net.cpp:156] Memory required for data: 42016
I0922 22:30:13.638636 28527 layer_factory.hpp:77] Creating layer lstm1_h_conted_0
I0922 22:30:13.638659 28527 net.cpp:91] Creating Layer lstm1_h_conted_0
I0922 22:30:13.638667 28527 net.cpp:425] lstm1_h_conted_0 <- h_0
I0922 22:30:13.638674 28523 net.cpp:141] Setting up cont_1_lstm2_cont_slice_0_split
I0922 22:30:13.638679 28527 net.cpp:425] lstm1_h_conted_0 <- cont_1_lstm1_cont_slice_0_split_0
I0922 22:30:13.638687 28523 net.cpp:148] Top shape: 1 1 (1)
I0922 22:30:13.638695 28523 net.cpp:148] Top shape: 1 1 (1)
I0922 22:30:13.638695 28527 net.cpp:399] lstm1_h_conted_0 -> h_conted_0
I0922 22:30:13.638702 28523 net.cpp:156] Memory required for data: 14020
I0922 22:30:13.638708 28523 layer_factory.hpp:77] Creating layer lstm2_x_transform
I0922 22:30:13.638721 28523 net.cpp:91] Creating Layer lstm2_x_transform
I0922 22:30:13.638727 28523 net.cpp:425] lstm2_x_transform <- x
I0922 22:30:13.638739 28523 net.cpp:399] lstm2_x_transform -> W_xc_x
I0922 22:30:13.638888 28527 net.cpp:141] Setting up lstm1_h_conted_0
I0922 22:30:13.638907 28527 net.cpp:148] Top shape: 1 1 1000 (1000)
I0922 22:30:13.638916 28527 net.cpp:156] Memory required for data: 46016
I0922 22:30:13.638924 28527 layer_factory.hpp:77] Creating layer lstm1_transform_1
I0922 22:30:13.638950 28527 net.cpp:91] Creating Layer lstm1_transform_1
I0922 22:30:13.638960 28527 net.cpp:425] lstm1_transform_1 <- h_conted_0
I0922 22:30:13.638977 28527 net.cpp:399] lstm1_transform_1 -> W_hc_h_0
I0922 22:30:13.650997 28543 net.cpp:141] Setting up embedding
I0922 22:30:13.651057 28543 net.cpp:148] Top shape: 1 1 500 (500)
I0922 22:30:13.651064 28543 net.cpp:156] Memory required for data: 22408
I0922 22:30:13.651116 28543 layer_factory.hpp:77] Creating layer lstm1
I0922 22:30:13.651145 28543 net.cpp:91] Creating Layer lstm1
I0922 22:30:13.651154 28543 net.cpp:425] lstm1 <- embedded_input_frames
I0922 22:30:13.651165 28543 net.cpp:425] lstm1 <- cont_sentence_input_1_split_0
I0922 22:30:13.651175 28543 net.cpp:399] lstm1 -> lstm1
I0922 22:30:13.651198 28543 recurrent_layer.cpp:20] Initializing recurrent layer: assuming input batch contains 1 timesteps of 1 independent streams.
I0922 22:30:13.651540 28543 net.cpp:49] Initializing net from parameters: 
layer {
  name: "lstm1_"
  type: "Input"
  top: "x"
  top: "cont"
  input_param {
    shape {
      dim: 1
      dim: 1
      dim: 500
    }
    shape {
      dim: 1
      dim: 1
    }
  }
}
layer {
  name: "lstm1_"
  type: "Input"
  top: "c_0"
  top: "h_0"
  input_param {
    shape {
      dim: 1
      dim: 1
      dim: 1000
    }
    shape {
      dim: 1
      dim: 1
      dim: 1000
    }
  }
}
layer {
  name: "lstm1_cont_slice"
  type: "Slice"
  bottom: "cont"
  top: "cont_1"
  slice_param {
    axis: 0
  }
}
layer {
  name: "lstm1_x_transform"
  type: "InnerProduct"
  bottom: "x"
  top: "W_xc_x"
  param {
    name: "W_xc"
  }
  param {
    name: "b_c"
  }
  propagate_down: true
  inner_product_param {
    num_output: 4000
    bias_term: true
    weight_filler {
      type: "uniform"
      min: -0.08
      max: 0.08
    }
    bias_filler {
      type: "constant"
      value: 0
    }
    axis: 2
  }
}
layer {
  name: "lstm1_W_xc_x_slice"
  type: "Slice"
  bottom: "W_xc_x"
  top: "W_xc_x_1"
  slice_param {
    axis: 0
  }
}
layer {
  name: "lstm1_h_conted_0"
  type: "Scale"
  bottom: "h_0"
  bottom: "cont_1"
  top: "h_conted_0"
  scale_param {
    axis: 0
  }
}
layer {
  name: "lstm1_transform_1"
  type: "InnerProduct"
  bottom: "h_conted_0"
  top: "W_hc_h_0"
  param {
    name: "W_hc"
  }
  inner_product_param {
    num_output: 4000
    bias_term: false
    weight_filler {
      type: "uniform"
      min: -0.08
      max: 0.08
    }
    axis: 2
  }
}
layer {
  name: "lstm1_gate_input_1"
  type: "Eltwise"
  bottom: "W_hc_h_0"
  bottom: "W_xc_x_1"
  top: "gate_input_1"
  eltwise_param {
    operation: SUM
  }
}
layer {
  name: "lstm1_unit_1"
  type: "LSTMUnit"
  bottom: "c_0"
  bottom: "gate_input_1"
  bottom: "cont_1"
  top: "c_1"
  top: "h_1"
}
layer {
  name: "lstm1_"
  type: "Split"
  bottom: "c_1"
  top: "c_T"
}
layer {
  name: "lstm1_h_concat"
  type: "Concat"
  bottom: "h_1"
  top: "h"
  concat_param {
    axis: 0
  }
}
layer {
  name: "h_pseudoloss"
  type: "Reduction"
  bottom: "h"
  top: "h_pseudoloss"
  loss_weight: 1
}
I0922 22:30:13.651650 28543 layer_factory.hpp:77] Creating layer lstm1_
I0922 22:30:13.651665 28543 net.cpp:91] Creating Layer lstm1_
I0922 22:30:13.651672 28543 net.cpp:399] lstm1_ -> x
I0922 22:30:13.651685 28543 net.cpp:399] lstm1_ -> cont
I0922 22:30:13.665323 28543 net.cpp:141] Setting up lstm1_
I0922 22:30:13.665379 28543 net.cpp:148] Top shape: 1 1 500 (500)
I0922 22:30:13.665395 28543 net.cpp:148] Top shape: 1 1 (1)
I0922 22:30:13.665405 28543 net.cpp:156] Memory required for data: 2004
I0922 22:30:13.665421 28543 layer_factory.hpp:77] Creating layer lstm1_
I0922 22:30:13.665462 28543 net.cpp:91] Creating Layer lstm1_
I0922 22:30:13.665479 28543 net.cpp:399] lstm1_ -> c_0
I0922 22:30:13.665513 28543 net.cpp:399] lstm1_ -> h_0
I0922 22:30:13.671211 28543 net.cpp:141] Setting up lstm1_
I0922 22:30:13.671253 28543 net.cpp:148] Top shape: 1 1 1000 (1000)
I0922 22:30:13.671270 28543 net.cpp:148] Top shape: 1 1 1000 (1000)
I0922 22:30:13.671279 28543 net.cpp:156] Memory required for data: 10004
I0922 22:30:13.671291 28543 layer_factory.hpp:77] Creating layer lstm1_cont_slice
I0922 22:30:13.671316 28543 net.cpp:91] Creating Layer lstm1_cont_slice
I0922 22:30:13.671329 28543 net.cpp:425] lstm1_cont_slice <- cont
I0922 22:30:13.671349 28543 net.cpp:399] lstm1_cont_slice -> cont_1
I0922 22:30:13.671452 28543 net.cpp:141] Setting up lstm1_cont_slice
I0922 22:30:13.671470 28543 net.cpp:148] Top shape: 1 1 (1)
I0922 22:30:13.671480 28543 net.cpp:156] Memory required for data: 10008
I0922 22:30:13.671489 28543 layer_factory.hpp:77] Creating layer cont_1_lstm1_cont_slice_0_split
I0922 22:30:13.671505 28543 net.cpp:91] Creating Layer cont_1_lstm1_cont_slice_0_split
I0922 22:30:13.671514 28543 net.cpp:425] cont_1_lstm1_cont_slice_0_split <- cont_1
I0922 22:30:13.671528 28543 net.cpp:399] cont_1_lstm1_cont_slice_0_split -> cont_1_lstm1_cont_slice_0_split_0
I0922 22:30:13.671550 28543 net.cpp:399] cont_1_lstm1_cont_slice_0_split -> cont_1_lstm1_cont_slice_0_split_1
I0922 22:30:13.671645 28543 net.cpp:141] Setting up cont_1_lstm1_cont_slice_0_split
I0922 22:30:13.671663 28543 net.cpp:148] Top shape: 1 1 (1)
I0922 22:30:13.671676 28543 net.cpp:148] Top shape: 1 1 (1)
I0922 22:30:13.671685 28543 net.cpp:156] Memory required for data: 10016
I0922 22:30:13.671695 28543 layer_factory.hpp:77] Creating layer lstm1_x_transform
I0922 22:30:13.671725 28543 net.cpp:91] Creating Layer lstm1_x_transform
I0922 22:30:13.671736 28543 net.cpp:425] lstm1_x_transform <- x
I0922 22:30:13.671753 28543 net.cpp:399] lstm1_x_transform -> W_xc_x
I0922 22:30:13.696040 28543 net.cpp:141] Setting up lstm1_x_transform
I0922 22:30:13.696096 28543 net.cpp:148] Top shape: 1 1 4000 (4000)
I0922 22:30:13.696104 28543 net.cpp:156] Memory required for data: 26016
I0922 22:30:13.696128 28543 layer_factory.hpp:77] Creating layer lstm1_W_xc_x_slice
I0922 22:30:13.696152 28543 net.cpp:91] Creating Layer lstm1_W_xc_x_slice
I0922 22:30:13.696161 28543 net.cpp:425] lstm1_W_xc_x_slice <- W_xc_x
I0922 22:30:13.696171 28543 net.cpp:399] lstm1_W_xc_x_slice -> W_xc_x_1
I0922 22:30:13.696225 28543 net.cpp:141] Setting up lstm1_W_xc_x_slice
I0922 22:30:13.696236 28543 net.cpp:148] Top shape: 1 1 4000 (4000)
I0922 22:30:13.696243 28543 net.cpp:156] Memory required for data: 42016
I0922 22:30:13.696247 28543 layer_factory.hpp:77] Creating layer lstm1_h_conted_0
I0922 22:30:13.696259 28543 net.cpp:91] Creating Layer lstm1_h_conted_0
I0922 22:30:13.696265 28543 net.cpp:425] lstm1_h_conted_0 <- h_0
I0922 22:30:13.696280 28543 net.cpp:425] lstm1_h_conted_0 <- cont_1_lstm1_cont_slice_0_split_0
I0922 22:30:13.696290 28543 net.cpp:399] lstm1_h_conted_0 -> h_conted_0
I0922 22:30:13.696421 28543 net.cpp:141] Setting up lstm1_h_conted_0
I0922 22:30:13.696434 28543 net.cpp:148] Top shape: 1 1 1000 (1000)
I0922 22:30:13.696439 28543 net.cpp:156] Memory required for data: 46016
I0922 22:30:13.696444 28543 layer_factory.hpp:77] Creating layer lstm1_transform_1
I0922 22:30:13.696465 28543 net.cpp:91] Creating Layer lstm1_transform_1
I0922 22:30:13.696471 28543 net.cpp:425] lstm1_transform_1 <- h_conted_0
I0922 22:30:13.696480 28543 net.cpp:399] lstm1_transform_1 -> W_hc_h_0
I0922 22:30:13.705277 28527 net.cpp:141] Setting up lstm1_transform_1
I0922 22:30:13.705340 28527 net.cpp:148] Top shape: 1 1 4000 (4000)
I0922 22:30:13.705353 28527 net.cpp:156] Memory required for data: 62016
I0922 22:30:13.705380 28527 layer_factory.hpp:77] Creating layer lstm1_gate_input_1
I0922 22:30:13.705415 28527 net.cpp:91] Creating Layer lstm1_gate_input_1
I0922 22:30:13.705428 28527 net.cpp:425] lstm1_gate_input_1 <- W_hc_h_0
I0922 22:30:13.705443 28527 net.cpp:425] lstm1_gate_input_1 <- W_xc_x_1
I0922 22:30:13.705461 28527 net.cpp:399] lstm1_gate_input_1 -> gate_input_1
I0922 22:30:13.705545 28527 net.cpp:141] Setting up lstm1_gate_input_1
I0922 22:30:13.705564 28527 net.cpp:148] Top shape: 1 1 4000 (4000)
I0922 22:30:13.705572 28527 net.cpp:156] Memory required for data: 78016
I0922 22:30:13.705581 28527 layer_factory.hpp:77] Creating layer lstm1_unit_1
I0922 22:30:13.705597 28527 net.cpp:91] Creating Layer lstm1_unit_1
I0922 22:30:13.705606 28527 net.cpp:425] lstm1_unit_1 <- c_0
I0922 22:30:13.705617 28527 net.cpp:425] lstm1_unit_1 <- gate_input_1
I0922 22:30:13.705627 28527 net.cpp:425] lstm1_unit_1 <- cont_1_lstm1_cont_slice_0_split_1
I0922 22:30:13.705639 28527 net.cpp:399] lstm1_unit_1 -> c_1
I0922 22:30:13.705657 28527 net.cpp:399] lstm1_unit_1 -> h_1
I0922 22:30:13.706087 28527 net.cpp:141] Setting up lstm1_unit_1
I0922 22:30:13.706110 28527 net.cpp:148] Top shape: 1 1 1000 (1000)
I0922 22:30:13.706123 28527 net.cpp:148] Top shape: 1 1 1000 (1000)
I0922 22:30:13.706133 28527 net.cpp:156] Memory required for data: 86016
I0922 22:30:13.706143 28527 layer_factory.hpp:77] Creating layer lstm1_
I0922 22:30:13.706164 28527 net.cpp:91] Creating Layer lstm1_
I0922 22:30:13.706176 28527 net.cpp:425] lstm1_ <- c_1
I0922 22:30:13.706192 28527 net.cpp:399] lstm1_ -> c_T
I0922 22:30:13.706449 28527 net.cpp:141] Setting up lstm1_
I0922 22:30:13.706470 28527 net.cpp:148] Top shape: 1 1 1000 (1000)
I0922 22:30:13.706481 28527 net.cpp:156] Memory required for data: 90016
I0922 22:30:13.706492 28527 layer_factory.hpp:77] Creating layer lstm1_h_concat
I0922 22:30:13.706511 28527 net.cpp:91] Creating Layer lstm1_h_concat
I0922 22:30:13.706522 28527 net.cpp:425] lstm1_h_concat <- h_1
I0922 22:30:13.706544 28527 net.cpp:399] lstm1_h_concat -> h
I0922 22:30:13.706758 28527 net.cpp:141] Setting up lstm1_h_concat
I0922 22:30:13.706779 28527 net.cpp:148] Top shape: 1 1 1000 (1000)
I0922 22:30:13.706789 28527 net.cpp:156] Memory required for data: 94016
I0922 22:30:13.706800 28527 layer_factory.hpp:77] Creating layer h_pseudoloss
I0922 22:30:13.706820 28527 net.cpp:91] Creating Layer h_pseudoloss
I0922 22:30:13.706832 28527 net.cpp:425] h_pseudoloss <- h
I0922 22:30:13.706848 28527 net.cpp:399] h_pseudoloss -> h_pseudoloss
I0922 22:30:13.707029 28523 net.cpp:141] Setting up lstm2_x_transform
I0922 22:30:13.707085 28523 net.cpp:148] Top shape: 1 1 4000 (4000)
I0922 22:30:13.707099 28523 net.cpp:156] Memory required for data: 30020
I0922 22:30:13.707131 28523 layer_factory.hpp:77] Creating layer lstm2_W_xc_x_slice
I0922 22:30:13.707157 28523 net.cpp:91] Creating Layer lstm2_W_xc_x_slice
I0922 22:30:13.707170 28523 net.cpp:425] lstm2_W_xc_x_slice <- W_xc_x
I0922 22:30:13.707188 28523 net.cpp:399] lstm2_W_xc_x_slice -> W_xc_x_1
I0922 22:30:13.707469 28521 net.cpp:141] Setting up conv1
I0922 22:30:13.707500 28521 net.cpp:148] Top shape: 10 96 55 55 (2904000)
I0922 22:30:13.707511 28521 net.cpp:156] Memory required for data: 17799480
I0922 22:30:13.707542 28521 layer_factory.hpp:77] Creating layer relu1
I0922 22:30:13.707566 28521 net.cpp:91] Creating Layer relu1
I0922 22:30:13.707577 28521 net.cpp:425] relu1 <- conv1
I0922 22:30:13.707592 28521 net.cpp:386] relu1 -> conv1 (in-place)
I0922 22:30:13.707710 28527 net.cpp:141] Setting up h_pseudoloss
I0922 22:30:13.707715 28523 net.cpp:141] Setting up lstm2_W_xc_x_slice
I0922 22:30:13.707733 28527 net.cpp:148] Top shape: (1)
I0922 22:30:13.707741 28523 net.cpp:148] Top shape: 1 1 4000 (4000)
I0922 22:30:13.707753 28523 net.cpp:156] Memory required for data: 46020
I0922 22:30:13.707744 28527 net.cpp:151]     with loss weight 1
I0922 22:30:13.707764 28523 layer_factory.hpp:77] Creating layer lstm2_h_conted_0
I0922 22:30:13.707779 28527 net.cpp:156] Memory required for data: 94020
I0922 22:30:13.707806 28523 net.cpp:91] Creating Layer lstm2_h_conted_0
I0922 22:30:13.707808 28527 net.cpp:217] h_pseudoloss needs backward computation.
…
I0922 22:30:13.707939 28527 net.cpp:219] lstm1_ does not need backward computation.
I0922 22:30:13.707947 28527 net.cpp:261] This network produces output c_T
I0922 22:30:13.707967 28527 net.cpp:261] This network produces output h_pseudoloss
I0922 22:30:13.707998 28527 net.cpp:274] Network initialization done.
I0922 22:30:13.708083 28527 recurrent_layer.cpp:150] Adding parameter 0: W_xc
I0922 22:30:13.708106 28527 recurrent_layer.cpp:150] Adding parameter 1: b_c
I0922 22:30:13.708120 28527 recurrent_layer.cpp:150] Adding parameter 2: W_hc
I0922 22:30:13.708441 28523 net.cpp:141] Setting up lstm2_h_conted_0
I0922 22:30:13.708463 28523 net.cpp:148] Top shape: 1 1 1000 (1000)
I0922 22:30:13.708472 28523 net.cpp:156] Memory required for data: 50020
I0922 22:30:13.708482 28523 layer_factory.hpp:77] Creating layer lstm2_transform_1
I0922 22:30:13.708505 28523 net.cpp:91] Creating Layer lstm2_transform_1
I0922 22:30:13.708518 28523 net.cpp:425] lstm2_transform_1 <- h_conted_0
I0922 22:30:13.708544 28523 net.cpp:399] lstm2_transform_1 -> W_hc_h_0
I0922 22:30:13.708817 28527 net.cpp:141] Setting up lstm1
I0922 22:30:13.708842 28527 net.cpp:148] Top shape: 1 1 1000 (1000)
I0922 22:30:13.708851 28527 net.cpp:156] Memory required for data: 26408
I0922 22:30:13.708878 28527 layer_factory.hpp:77] Creating layer concat
I0922 22:30:13.708901 28527 net.cpp:91] Creating Layer concat
I0922 22:30:13.708914 28527 net.cpp:425] concat <- lstm1
I0922 22:30:13.708926 28527 net.cpp:425] concat <- embedded_input_sentence
I0922 22:30:13.708937 28527 net.cpp:425] concat <- reshaped_stage_indicator
I0922 22:30:13.708950 28527 net.cpp:399] concat -> lstm1_video_sequence
I0922 22:30:13.720269 28527 net.cpp:141] Setting up concat
I0922 22:30:13.720286 28521 net.cpp:141] Setting up relu1
I0922 22:30:13.720322 28527 net.cpp:148] Top shape: 1 1 1501 (1501)
I0922 22:30:13.720330 28527 net.cpp:156] Memory required for data: 32412
I0922 22:30:13.720331 28521 net.cpp:148] Top shape: 10 96 55 55 (2904000)
I0922 22:30:13.720340 28527 layer_factory.hpp:77] Creating layer lstm2
I0922 22:30:13.720345 28521 net.cpp:156] Memory required for data: 29415480
I0922 22:30:13.720358 28521 layer_factory.hpp:77] Creating layer pool1
I0922 22:30:13.720366 28527 net.cpp:91] Creating Layer lstm2
I0922 22:30:13.720374 28527 net.cpp:425] lstm2 <- lstm1_video_sequence
I0922 22:30:13.720386 28527 net.cpp:425] lstm2 <- cont_sentence_input_1_split_1
I0922 22:30:13.720384 28521 net.cpp:91] Creating Layer pool1
I0922 22:30:13.720396 28527 net.cpp:399] lstm2 -> lstm2
I0922 22:30:13.720399 28521 net.cpp:425] pool1 <- conv1
I0922 22:30:13.720417 28527 recurrent_layer.cpp:20] Initializing recurrent layer: assuming input batch contains 1 timesteps of 1 independent streams.
I0922 22:30:13.720420 28521 net.cpp:399] pool1 -> pool1
I0922 22:30:13.720579 28521 net.cpp:141] Setting up pool1
I0922 22:30:13.720604 28521 net.cpp:148] Top shape: 10 96 27 27 (699840)
I0922 22:30:13.720615 28521 net.cpp:156] Memory required for data: 32214840
I0922 22:30:13.720626 28521 layer_factory.hpp:77] Creating layer norm1
I0922 22:30:13.720659 28521 net.cpp:91] Creating Layer norm1
I0922 22:30:13.720669 28521 net.cpp:425] norm1 <- pool1
I0922 22:30:13.720685 28521 net.cpp:399] norm1 -> norm1
I0922 22:30:13.720752 28527 net.cpp:49] Initializing net from parameters: 
layer {
  name: "lstm2_"
  type: "Input"
  top: "x"
  top: "cont"
  input_param {
    shape {
      dim: 1
      dim: 1
      dim: 1501
    }
    shape {
      dim: 1
      dim: 1
    }
  }
}
layer {
  name: "lstm2_"
  type: "Input"
  top: "c_0"
  top: "h_0"
  input_param {
    shape {
      dim: 1
      dim: 1
      dim: 1000
    }
    shape {
      dim: 1
      dim: 1
      dim: 1000
    }
  }
}
layer {
  name: "lstm2_cont_slice"
  type: "Slice"
  bottom: "cont"
  top: "cont_1"
  slice_param {
    axis: 0
  }
}
layer {
  name: "lstm2_x_transform"
  type: "InnerProduct"
  bottom: "x"
  top: "W_xc_x"
  param {
    name: "W_xc"
  }
  param {
    name: "b_c"
  }
  propagate_down: true
  inner_product_param {
    num_output: 4000
    bias_term: true
    weight_filler {
      type: "uniform"
      min: -0.08
      max: 0.08
    }
    bias_filler {
      type: "constant"
      value: 0
    }
    axis: 2
  }
}
layer {
  name: "lstm2_W_xc_x_slice"
  type: "Slice"
  bottom: "W_xc_x"
  top: "W_xc_x_1"
  slice_param {
    axis: 0
  }
}
layer {
  name: "lstm2_h_conted_0"
  type: "Scale"
  bottom: "h_0"
  bottom: "cont_1"
  top: "h_conted_0"
  scale_param {
    axis: 0
  }
}
layer {
  name: "lstm2_transform_1"
  type: "InnerProduct"
  bottom: "h_conted_0"
  top: "W_hc_h_0"
  param {
    name: "W_hc"
  }
  inner_product_param {
    num_output: 4000
    bias_term: false
    weight_filler {
      type: "uniform"
      min: -0.08
      max: 0.08
    }
    axis: 2
  }
}
layer {
  name: "lstm2_gate_input_1"
  type: "Eltwise"
  bottom: "W_hc_h_0"
  bottom: "W_xc_x_1"
  top: "gate_input_1"
  eltwise_param {
    operation: SUM
  }
}
layer {
  name: "lstm2_unit_1"
  type: "LSTMUnit"
  bottom: "c_0"
  bottom: "gate_input_1"
  bottom: "cont_1"
  top: "c_1"
  top: "h_1"
}
layer {
  name: "lstm2_"
  type: "Split"
  bottom: "c_1"
  top: "c_T"
}
layer {
  name: "lstm2_h_concat"
  type: "Concat"
  bottom: "h_1"
  top: "h"
  concat_param {
    axis: 0
  }
}
layer {
  name: "h_pseudoloss"
  type: "Reduction"
  bottom: "h"
  top: "h_pseudoloss"
  loss_weight: 1
}
I0922 22:30:13.720855 28527 layer_factory.hpp:77] Creating layer lstm2_
I0922 22:30:13.720868 28527 net.cpp:91] Creating Layer lstm2_
I0922 22:30:13.720876 28527 net.cpp:399] lstm2_ -> x
I0922 22:30:13.720890 28527 net.cpp:399] lstm2_ -> cont
I0922 22:30:13.721112 28527 net.cpp:141] Setting up lstm2_
I0922 22:30:13.721133 28527 net.cpp:148] Top shape: 1 1 1501 (1501)
I0922 22:30:13.721146 28527 net.cpp:148] Top shape: 1 1 (1)
I0922 22:30:13.721153 28527 net.cpp:156] Memory required for data: 6008
I0922 22:30:13.721163 28527 layer_factory.hpp:77] Creating layer lstm2_
I0922 22:30:13.721185 28527 net.cpp:91] Creating Layer lstm2_
I0922 22:30:13.721199 28527 net.cpp:399] lstm2_ -> c_0
I0922 22:30:13.721217 28527 net.cpp:399] lstm2_ -> h_0
I0922 22:30:13.721390 28527 net.cpp:141] Setting up lstm2_
I0922 22:30:13.721405 28527 net.cpp:148] Top shape: 1 1 1000 (1000)
I0922 22:30:13.721411 28527 net.cpp:148] Top shape: 1 1 1000 (1000)
I0922 22:30:13.721416 28527 net.cpp:156] Memory required for data: 14008
I0922 22:30:13.721421 28527 layer_factory.hpp:77] Creating layer lstm2_cont_slice
I0922 22:30:13.721433 28527 net.cpp:91] Creating Layer lstm2_cont_slice
I0922 22:30:13.721438 28527 net.cpp:425] lstm2_cont_slice <- cont
I0922 22:30:13.721447 28527 net.cpp:399] lstm2_cont_slice -> cont_1
I0922 22:30:13.721458 28521 net.cpp:141] Setting up norm1
I0922 22:30:13.721475 28521 net.cpp:148] Top shape: 10 96 27 27 (699840)
I0922 22:30:13.721482 28521 net.cpp:156] Memory required for data: 35014200
I0922 22:30:13.721489 28521 layer_factory.hpp:77] Creating layer conv2
I0922 22:30:13.721498 28527 net.cpp:141] Setting up lstm2_cont_slice
I0922 22:30:13.721508 28521 net.cpp:91] Creating Layer conv2
I0922 22:30:13.721508 28527 net.cpp:148] Top shape: 1 1 (1)
I0922 22:30:13.721519 28521 net.cpp:425] conv2 <- norm1
I0922 22:30:13.721523 28527 net.cpp:156] Memory required for data: 14012
I0922 22:30:13.721529 28527 layer_factory.hpp:77] Creating layer cont_1_lstm2_cont_slice_0_split
I0922 22:30:13.721529 28521 net.cpp:399] conv2 -> conv2
I0922 22:30:13.721539 28527 net.cpp:91] Creating Layer cont_1_lstm2_cont_slice_0_split
I0922 22:30:13.721546 28527 net.cpp:425] cont_1_lstm2_cont_slice_0_split <- cont_1
I0922 22:30:13.721555 28527 net.cpp:399] cont_1_lstm2_cont_slice_0_split -> cont_1_lstm2_cont_slice_0_split_0
I0922 22:30:13.721565 28527 net.cpp:399] cont_1_lstm2_cont_slice_0_split -> cont_1_lstm2_cont_slice_0_split_1
I0922 22:30:13.721731 28527 net.cpp:141] Setting up cont_1_lstm2_cont_slice_0_split
I0922 22:30:13.721745 28527 net.cpp:148] Top shape: 1 1 (1)
I0922 22:30:13.721751 28527 net.cpp:148] Top shape: 1 1 (1)
I0922 22:30:13.721756 28527 net.cpp:156] Memory required for data: 14020
I0922 22:30:13.721761 28527 layer_factory.hpp:77] Creating layer lstm2_x_transform
I0922 22:30:13.721773 28527 net.cpp:91] Creating Layer lstm2_x_transform
I0922 22:30:13.721779 28527 net.cpp:425] lstm2_x_transform <- x
I0922 22:30:13.721791 28527 net.cpp:399] lstm2_x_transform -> W_xc_x
I0922 22:30:13.737532 28521 net.cpp:141] Setting up conv2
I0922 22:30:13.737592 28521 net.cpp:148] Top shape: 10 256 27 27 (1866240)
I0922 22:30:13.737601 28521 net.cpp:156] Memory required for data: 42479160
I0922 22:30:13.737624 28521 layer_factory.hpp:77] Creating layer relu2
I0922 22:30:13.737651 28521 net.cpp:91] Creating Layer relu2
I0922 22:30:13.737660 28521 net.cpp:425] relu2 <- conv2
I0922 22:30:13.737669 28521 net.cpp:386] relu2 -> conv2 (in-place)
I0922 22:30:13.738157 28521 net.cpp:141] Setting up relu2
I0922 22:30:13.738171 28521 net.cpp:148] Top shape: 10 256 27 27 (1866240)
I0922 22:30:13.738178 28521 net.cpp:156] Memory required for data: 49944120
I0922 22:30:13.738186 28521 layer_factory.hpp:77] Creating layer pool2
I0922 22:30:13.738204 28521 net.cpp:91] Creating Layer pool2
I0922 22:30:13.738214 28521 net.cpp:425] pool2 <- conv2
I0922 22:30:13.738256 28521 net.cpp:399] pool2 -> pool2
I0922 22:30:13.738328 28521 net.cpp:141] Setting up pool2
I0922 22:30:13.738340 28521 net.cpp:148] Top shape: 10 256 13 13 (432640)
I0922 22:30:13.738345 28521 net.cpp:156] Memory required for data: 51674680
I0922 22:30:13.738351 28521 layer_factory.hpp:77] Creating layer norm2
I0922 22:30:13.738371 28521 net.cpp:91] Creating Layer norm2
I0922 22:30:13.738378 28521 net.cpp:425] norm2 <- pool2
I0922 22:30:13.738389 28521 net.cpp:399] norm2 -> norm2
I0922 22:30:13.738688 28521 net.cpp:141] Setting up norm2
I0922 22:30:13.738703 28521 net.cpp:148] Top shape: 10 256 13 13 (432640)
I0922 22:30:13.738708 28521 net.cpp:156] Memory required for data: 53405240
I0922 22:30:13.738713 28521 layer_factory.hpp:77] Creating layer conv3
I0922 22:30:13.738732 28521 net.cpp:91] Creating Layer conv3
I0922 22:30:13.738739 28521 net.cpp:425] conv3 <- norm2
I0922 22:30:13.738749 28521 net.cpp:399] conv3 -> conv3
I0922 22:30:13.741753 28543 net.cpp:141] Setting up lstm1_transform_1
I0922 22:30:13.741803 28543 net.cpp:148] Top shape: 1 1 4000 (4000)
I0922 22:30:13.741811 28543 net.cpp:156] Memory required for data: 62016
I0922 22:30:13.741834 28543 layer_factory.hpp:77] Creating layer lstm1_gate_input_1
I0922 22:30:13.741861 28543 net.cpp:91] Creating Layer lstm1_gate_input_1
I0922 22:30:13.741870 28543 net.cpp:425] lstm1_gate_input_1 <- W_hc_h_0
I0922 22:30:13.741879 28543 net.cpp:425] lstm1_gate_input_1 <- W_xc_x_1
I0922 22:30:13.741891 28543 net.cpp:399] lstm1_gate_input_1 -> gate_input_1
I0922 22:30:13.741950 28543 net.cpp:141] Setting up lstm1_gate_input_1
I0922 22:30:13.741961 28543 net.cpp:148] Top shape: 1 1 4000 (4000)
I0922 22:30:13.741966 28543 net.cpp:156] Memory required for data: 78016
I0922 22:30:13.741976 28543 layer_factory.hpp:77] Creating layer lstm1_unit_1
I0922 22:30:13.741991 28543 net.cpp:91] Creating Layer lstm1_unit_1
I0922 22:30:13.741998 28543 net.cpp:425] lstm1_unit_1 <- c_0
I0922 22:30:13.742004 28543 net.cpp:425] lstm1_unit_1 <- gate_input_1
I0922 22:30:13.742010 28543 net.cpp:425] lstm1_unit_1 <- cont_1_lstm1_cont_slice_0_split_1
I0922 22:30:13.742018 28543 net.cpp:399] lstm1_unit_1 -> c_1
I0922 22:30:13.742029 28543 net.cpp:399] lstm1_unit_1 -> h_1
I0922 22:30:13.742103 28543 net.cpp:141] Setting up lstm1_unit_1
I0922 22:30:13.742115 28543 net.cpp:148] Top shape: 1 1 1000 (1000)
I0922 22:30:13.742121 28543 net.cpp:148] Top shape: 1 1 1000 (1000)
I0922 22:30:13.742126 28543 net.cpp:156] Memory required for data: 86016
I0922 22:30:13.742132 28543 layer_factory.hpp:77] Creating layer lstm1_
I0922 22:30:13.742142 28543 net.cpp:91] Creating Layer lstm1_
I0922 22:30:13.742147 28543 net.cpp:425] lstm1_ <- c_1
I0922 22:30:13.742157 28543 net.cpp:399] lstm1_ -> c_T
I0922 22:30:13.742192 28543 net.cpp:141] Setting up lstm1_
I0922 22:30:13.742202 28543 net.cpp:148] Top shape: 1 1 1000 (1000)
I0922 22:30:13.742208 28543 net.cpp:156] Memory required for data: 90016
I0922 22:30:13.742213 28543 layer_factory.hpp:77] Creating layer lstm1_h_concat
I0922 22:30:13.742224 28543 net.cpp:91] Creating Layer lstm1_h_concat
I0922 22:30:13.742229 28543 net.cpp:425] lstm1_h_concat <- h_1
I0922 22:30:13.742238 28543 net.cpp:399] lstm1_h_concat -> h
I0922 22:30:13.742278 28543 net.cpp:141] Setting up lstm1_h_concat
I0922 22:30:13.742290 28543 net.cpp:148] Top shape: 1 1 1000 (1000)
I0922 22:30:13.742293 28543 net.cpp:156] Memory required for data: 94016
I0922 22:30:13.742300 28543 layer_factory.hpp:77] Creating layer h_pseudoloss
I0922 22:30:13.742310 28543 net.cpp:91] Creating Layer h_pseudoloss
I0922 22:30:13.742316 28543 net.cpp:425] h_pseudoloss <- h
I0922 22:30:13.742322 28543 net.cpp:399] h_pseudoloss -> h_pseudoloss
I0922 22:30:13.742424 28543 net.cpp:141] Setting up h_pseudoloss
…
I0922 22:30:13.742534 28543 net.cpp:219] lstm1_ does not need backward computation.
I0922 22:30:13.742538 28543 net.cpp:261] This network produces output c_T
I0922 22:30:13.742543 28543 net.cpp:261] This network produces output h_pseudoloss
I0922 22:30:13.742560 28543 net.cpp:274] Network initialization done.
I0922 22:30:13.742614 28543 recurrent_layer.cpp:150] Adding parameter 0: W_xc
I0922 22:30:13.742622 28543 recurrent_layer.cpp:150] Adding parameter 1: b_c
I0922 22:30:13.742627 28543 recurrent_layer.cpp:150] Adding parameter 2: W_hc
I0922 22:30:13.742745 28543 net.cpp:141] Setting up lstm1
I0922 22:30:13.742758 28543 net.cpp:148] Top shape: 1 1 1000 (1000)
I0922 22:30:13.742763 28543 net.cpp:156] Memory required for data: 26408
I0922 22:30:13.742777 28543 layer_factory.hpp:77] Creating layer concat
I0922 22:30:13.742789 28543 net.cpp:91] Creating Layer concat
I0922 22:30:13.742794 28543 net.cpp:425] concat <- lstm1
I0922 22:30:13.742801 28543 net.cpp:425] concat <- embedded_input_sentence
I0922 22:30:13.742807 28543 net.cpp:425] concat <- reshaped_stage_indicator
I0922 22:30:13.742815 28543 net.cpp:399] concat -> lstm1_video_sequence
I0922 22:30:13.742851 28543 net.cpp:141] Setting up concat
I0922 22:30:13.742861 28543 net.cpp:148] Top shape: 1 1 1501 (1501)
I0922 22:30:13.742866 28543 net.cpp:156] Memory required for data: 32412
I0922 22:30:13.742871 28543 layer_factory.hpp:77] Creating layer lstm2
I0922 22:30:13.742885 28543 net.cpp:91] Creating Layer lstm2
I0922 22:30:13.742892 28543 net.cpp:425] lstm2 <- lstm1_video_sequence
I0922 22:30:13.742898 28543 net.cpp:425] lstm2 <- cont_sentence_input_1_split_1
I0922 22:30:13.742907 28543 net.cpp:399] lstm2 -> lstm2
I0922 22:30:13.742919 28543 recurrent_layer.cpp:20] Initializing recurrent layer: assuming input batch contains 1 timesteps of 1 independent streams.
I0922 22:30:13.743217 28543 net.cpp:49] Initializing net from parameters: 
layer {
  name: "lstm2_"
  type: "Input"
  top: "x"
  top: "cont"
  input_param {
    shape {
      dim: 1
      dim: 1
      dim: 1501
    }
    shape {
      dim: 1
      dim: 1
    }
  }
}
layer {
  name: "lstm2_"
  type: "Input"
  top: "c_0"
  top: "h_0"
  input_param {
    shape {
      dim: 1
      dim: 1
      dim: 1000
    }
    shape {
      dim: 1
      dim: 1
      dim: 1000
    }
  }
}
layer {
  name: "lstm2_cont_slice"
  type: "Slice"
  bottom: "cont"
  top: "cont_1"
  slice_param {
    axis: 0
  }
}
layer {
  name: "lstm2_x_transform"
  type: "InnerProduct"
  bottom: "x"
  top: "W_xc_x"
  param {
    name: "W_xc"
  }
  param {
    name: "b_c"
  }
  propagate_down: true
  inner_product_param {
    num_output: 4000
    bias_term: true
    weight_filler {
      type: "uniform"
      min: -0.08
      max: 0.08
    }
    bias_filler {
      type: "constant"
      value: 0
    }
    axis: 2
  }
}
layer {
  name: "lstm2_W_xc_x_slice"
  type: "Slice"
  bottom: "W_xc_x"
  top: "W_xc_x_1"
  slice_param {
    axis: 0
  }
}
layer {
  name: "lstm2_h_conted_0"
  type: "Scale"
  bottom: "h_0"
  bottom: "cont_1"
  top: "h_conted_0"
  scale_param {
    axis: 0
  }
}
layer {
  name: "lstm2_transform_1"
  type: "InnerProduct"
  bottom: "h_conted_0"
  top: "W_hc_h_0"
  param {
    name: "W_hc"
  }
  inner_product_param {
    num_output: 4000
    bias_term: false
    weight_filler {
      type: "uniform"
      min: -0.08
      max: 0.08
    }
    axis: 2
  }
}
layer {
  name: "lstm2_gate_input_1"
  type: "Eltwise"
  bottom: "W_hc_h_0"
  bottom: "W_xc_x_1"
  top: "gate_input_1"
  eltwise_param {
    operation: SUM
  }
}
layer {
  name: "lstm2_unit_1"
  type: "LSTMUnit"
  bottom: "c_0"
  bottom: "gate_input_1"
  bottom: "cont_1"
  top: "c_1"
  top: "h_1"
}
layer {
  name: "lstm2_"
  type: "Split"
  bottom: "c_1"
  top: "c_T"
}
layer {
  name: "lstm2_h_concat"
  type: "Concat"
  bottom: "h_1"
  top: "h"
  concat_param {
    axis: 0
  }
}
layer {
  name: "h_pseudoloss"
  type: "Reduction"
  bottom: "h"
  top: "h_pseudoloss"
  loss_weight: 1
}
I0922 22:30:13.743321 28543 layer_factory.hpp:77] Creating layer lstm2_
I0922 22:30:13.743335 28543 net.cpp:91] Creating Layer lstm2_
I0922 22:30:13.743342 28543 net.cpp:399] lstm2_ -> x
I0922 22:30:13.743355 28543 net.cpp:399] lstm2_ -> cont
I0922 22:30:13.743908 28543 net.cpp:141] Setting up lstm2_
I0922 22:30:13.743932 28543 net.cpp:148] Top shape: 1 1 1501 (1501)
I0922 22:30:13.743940 28543 net.cpp:148] Top shape: 1 1 (1)
I0922 22:30:13.743945 28543 net.cpp:156] Memory required for data: 6008
I0922 22:30:13.743952 28543 layer_factory.hpp:77] Creating layer lstm2_
I0922 22:30:13.743971 28543 net.cpp:91] Creating Layer lstm2_
I0922 22:30:13.743979 28543 net.cpp:399] lstm2_ -> c_0
I0922 22:30:13.743993 28543 net.cpp:399] lstm2_ -> h_0
I0922 22:30:13.744153 28543 net.cpp:141] Setting up lstm2_
I0922 22:30:13.744166 28543 net.cpp:148] Top shape: 1 1 1000 (1000)
I0922 22:30:13.744174 28543 net.cpp:148] Top shape: 1 1 1000 (1000)
I0922 22:30:13.744179 28543 net.cpp:156] Memory required for data: 14008
I0922 22:30:13.744184 28543 layer_factory.hpp:77] Creating layer lstm2_cont_slice
I0922 22:30:13.744195 28543 net.cpp:91] Creating Layer lstm2_cont_slice
I0922 22:30:13.744200 28543 net.cpp:425] lstm2_cont_slice <- cont
I0922 22:30:13.744210 28543 net.cpp:399] lstm2_cont_slice -> cont_1
I0922 22:30:13.744282 28543 net.cpp:141] Setting up lstm2_cont_slice
I0922 22:30:13.744294 28543 net.cpp:148] Top shape: 1 1 (1)
I0922 22:30:13.744299 28543 net.cpp:156] Memory required for data: 14012
I0922 22:30:13.744304 28543 layer_factory.hpp:77] Creating layer cont_1_lstm2_cont_slice_0_split
I0922 22:30:13.744313 28543 net.cpp:91] Creating Layer cont_1_lstm2_cont_slice_0_split
I0922 22:30:13.744319 28543 net.cpp:425] cont_1_lstm2_cont_slice_0_split <- cont_1
I0922 22:30:13.744343 28543 net.cpp:399] cont_1_lstm2_cont_slice_0_split -> cont_1_lstm2_cont_slice_0_split_0
I0922 22:30:13.744355 28543 net.cpp:399] cont_1_lstm2_cont_slice_0_split -> cont_1_lstm2_cont_slice_0_split_1
I0922 22:30:13.744673 28543 net.cpp:141] Setting up cont_1_lstm2_cont_slice_0_split
I0922 22:30:13.744684 28543 net.cpp:148] Top shape: 1 1 (1)
I0922 22:30:13.744691 28543 net.cpp:148] Top shape: 1 1 (1)
I0922 22:30:13.744696 28543 net.cpp:156] Memory required for data: 14020
I0922 22:30:13.744701 28543 layer_factory.hpp:77] Creating layer lstm2_x_transform
I0922 22:30:13.744720 28543 net.cpp:91] Creating Layer lstm2_x_transform
I0922 22:30:13.744727 28543 net.cpp:425] lstm2_x_transform <- x
I0922 22:30:13.744738 28543 net.cpp:399] lstm2_x_transform -> W_xc_x
I0922 22:30:13.758498 28521 net.cpp:141] Setting up conv3
I0922 22:30:13.758554 28521 net.cpp:148] Top shape: 10 384 13 13 (648960)
I0922 22:30:13.758565 28521 net.cpp:156] Memory required for data: 56001080
I0922 22:30:13.758596 28521 layer_factory.hpp:77] Creating layer relu3
I0922 22:30:13.758628 28521 net.cpp:91] Creating Layer relu3
I0922 22:30:13.758641 28521 net.cpp:425] relu3 <- conv3
I0922 22:30:13.758654 28521 net.cpp:386] relu3 -> conv3 (in-place)
I0922 22:30:13.759073 28521 net.cpp:141] Setting up relu3
I0922 22:30:13.759093 28521 net.cpp:148] Top shape: 10 384 13 13 (648960)
I0922 22:30:13.759101 28521 net.cpp:156] Memory required for data: 58596920
I0922 22:30:13.759111 28521 layer_factory.hpp:77] Creating layer conv4
I0922 22:30:13.759148 28521 net.cpp:91] Creating Layer conv4
I0922 22:30:13.759160 28521 net.cpp:425] conv4 <- conv3
I0922 22:30:13.759173 28521 net.cpp:399] conv4 -> conv4
I0922 22:30:13.766840 28521 net.cpp:141] Setting up conv4
I0922 22:30:13.766897 28521 net.cpp:148] Top shape: 10 384 13 13 (648960)
I0922 22:30:13.766908 28521 net.cpp:156] Memory required for data: 61192760
I0922 22:30:13.766933 28521 layer_factory.hpp:77] Creating layer relu4
I0922 22:30:13.766963 28521 net.cpp:91] Creating Layer relu4
I0922 22:30:13.766975 28521 net.cpp:425] relu4 <- conv4
I0922 22:30:13.766989 28521 net.cpp:386] relu4 -> conv4 (in-place)
I0922 22:30:13.767616 28521 net.cpp:141] Setting up relu4
I0922 22:30:13.767637 28521 net.cpp:148] Top shape: 10 384 13 13 (648960)
I0922 22:30:13.767647 28521 net.cpp:156] Memory required for data: 63788600
I0922 22:30:13.767657 28521 layer_factory.hpp:77] Creating layer conv5
I0922 22:30:13.767681 28521 net.cpp:91] Creating Layer conv5
I0922 22:30:13.767693 28521 net.cpp:425] conv5 <- conv4
I0922 22:30:13.767705 28521 net.cpp:399] conv5 -> conv5
I0922 22:30:13.770614 28523 net.cpp:141] Setting up lstm2_transform_1
I0922 22:30:13.770666 28523 net.cpp:148] Top shape: 1 1 4000 (4000)
I0922 22:30:13.770679 28523 net.cpp:156] Memory required for data: 66020
I0922 22:30:13.770709 28523 layer_factory.hpp:77] Creating layer lstm2_gate_input_1
I0922 22:30:13.770741 28523 net.cpp:91] Creating Layer lstm2_gate_input_1
I0922 22:30:13.770756 28523 net.cpp:425] lstm2_gate_input_1 <- W_hc_h_0
I0922 22:30:13.770771 28523 net.cpp:425] lstm2_gate_input_1 <- W_xc_x_1
I0922 22:30:13.770814 28523 net.cpp:399] lstm2_gate_input_1 -> gate_input_1
I0922 22:30:13.771301 28523 net.cpp:141] Setting up lstm2_gate_input_1
I0922 22:30:13.771329 28523 net.cpp:148] Top shape: 1 1 4000 (4000)
I0922 22:30:13.771340 28523 net.cpp:156] Memory required for data: 82020
I0922 22:30:13.771351 28523 layer_factory.hpp:77] Creating layer lstm2_unit_1
I0922 22:30:13.771368 28523 net.cpp:91] Creating Layer lstm2_unit_1
I0922 22:30:13.771379 28523 net.cpp:425] lstm2_unit_1 <- c_0
I0922 22:30:13.771394 28523 net.cpp:425] lstm2_unit_1 <- gate_input_1
I0922 22:30:13.771404 28523 net.cpp:425] lstm2_unit_1 <- cont_1_lstm2_cont_slice_0_split_1
I0922 22:30:13.771420 28523 net.cpp:399] lstm2_unit_1 -> c_1
I0922 22:30:13.771440 28523 net.cpp:399] lstm2_unit_1 -> h_1
I0922 22:30:13.772197 28523 net.cpp:141] Setting up lstm2_unit_1
I0922 22:30:13.772218 28523 net.cpp:148] Top shape: 1 1 1000 (1000)
I0922 22:30:13.772231 28523 net.cpp:148] Top shape: 1 1 1000 (1000)
I0922 22:30:13.772239 28523 net.cpp:156] Memory required for data: 90020
I0922 22:30:13.772249 28523 layer_factory.hpp:77] Creating layer lstm2_
I0922 22:30:13.772264 28523 net.cpp:91] Creating Layer lstm2_
I0922 22:30:13.772274 28523 net.cpp:425] lstm2_ <- c_1
I0922 22:30:13.772287 28523 net.cpp:399] lstm2_ -> c_T
I0922 22:30:13.772357 28523 net.cpp:141] Setting up lstm2_
I0922 22:30:13.772374 28523 net.cpp:148] Top shape: 1 1 1000 (1000)
I0922 22:30:13.772382 28523 net.cpp:156] Memory required for data: 94020
I0922 22:30:13.772392 28523 layer_factory.hpp:77] Creating layer lstm2_h_concat
I0922 22:30:13.772415 28523 net.cpp:91] Creating Layer lstm2_h_concat
I0922 22:30:13.772426 28523 net.cpp:425] lstm2_h_concat <- h_1
I0922 22:30:13.772440 28523 net.cpp:399] lstm2_h_concat -> h
I0922 22:30:13.772980 28523 net.cpp:141] Setting up lstm2_h_concat
I0922 22:30:13.773000 28523 net.cpp:148] Top shape: 1 1 1000 (1000)
I0922 22:30:13.773008 28523 net.cpp:156] Memory required for data: 98020
I0922 22:30:13.773017 28523 layer_factory.hpp:77] Creating layer h_pseudoloss
I0922 22:30:13.773033 28523 net.cpp:91] Creating Layer h_pseudoloss
I0922 22:30:13.773042 28523 net.cpp:425] h_pseudoloss <- h
I0922 22:30:13.773062 28523 net.cpp:399] h_pseudoloss -> h_pseudoloss
I0922 22:30:13.773902 28523 net.cpp:141] Setting up h_pseudoloss
…
I0922 22:30:13.774082 28523 net.cpp:219] lstm2_ does not need backward computation.
I0922 22:30:13.774090 28523 net.cpp:261] This network produces output c_T
I0922 22:30:13.774098 28523 net.cpp:261] This network produces output h_pseudoloss
I0922 22:30:13.774148 28523 net.cpp:274] Network initialization done.
I0922 22:30:13.774231 28523 recurrent_layer.cpp:150] Adding parameter 0: W_xc
I0922 22:30:13.774245 28523 recurrent_layer.cpp:150] Adding parameter 1: b_c
I0922 22:30:13.774253 28523 recurrent_layer.cpp:150] Adding parameter 2: W_hc
I0922 22:30:13.774487 28523 net.cpp:141] Setting up lstm2
I0922 22:30:13.774507 28523 net.cpp:148] Top shape: 1 1 1000 (1000)
I0922 22:30:13.774516 28523 net.cpp:156] Memory required for data: 36412
I0922 22:30:13.774544 28523 layer_factory.hpp:77] Creating layer predict
I0922 22:30:13.774566 28523 net.cpp:91] Creating Layer predict
I0922 22:30:13.774579 28523 net.cpp:425] predict <- lstm2
I0922 22:30:13.774593 28523 net.cpp:399] predict -> predict
I0922 22:30:13.774960 28521 net.cpp:141] Setting up conv5
I0922 22:30:13.774997 28521 net.cpp:148] Top shape: 10 256 13 13 (432640)
I0922 22:30:13.775003 28521 net.cpp:156] Memory required for data: 65519160
I0922 22:30:13.775034 28521 layer_factory.hpp:77] Creating layer relu5
I0922 22:30:13.775058 28521 net.cpp:91] Creating Layer relu5
I0922 22:30:13.775069 28521 net.cpp:425] relu5 <- conv5
I0922 22:30:13.775085 28521 net.cpp:386] relu5 -> conv5 (in-place)
I0922 22:30:13.873250 28543 net.cpp:141] Setting up lstm2_x_transform
I0922 22:30:13.873306 28543 net.cpp:148] Top shape: 1 1 4000 (4000)
I0922 22:30:13.873313 28543 net.cpp:156] Memory required for data: 30020
I0922 22:30:13.873339 28543 layer_factory.hpp:77] Creating layer lstm2_W_xc_x_slice
I0922 22:30:13.873359 28543 net.cpp:91] Creating Layer lstm2_W_xc_x_slice
I0922 22:30:13.873368 28543 net.cpp:425] lstm2_W_xc_x_slice <- W_xc_x
I0922 22:30:13.873378 28543 net.cpp:399] lstm2_W_xc_x_slice -> W_xc_x_1
I0922 22:30:13.873528 28527 net.cpp:141] Setting up lstm2_x_transform
I0922 22:30:13.873570 28527 net.cpp:148] Top shape: 1 1 4000 (4000)
I0922 22:30:13.873572 28543 net.cpp:141] Setting up lstm2_W_xc_x_slice
I0922 22:30:13.873577 28527 net.cpp:156] Memory required for data: 30020
I0922 22:30:13.873587 28543 net.cpp:148] Top shape: 1 1 4000 (4000)
I0922 22:30:13.873594 28543 net.cpp:156] Memory required for data: 46020
I0922 22:30:13.873600 28543 layer_factory.hpp:77] Creating layer lstm2_h_conted_0
I0922 22:30:13.873601 28527 layer_factory.hpp:77] Creating layer lstm2_W_xc_x_slice
I0922 22:30:13.873612 28543 net.cpp:91] Creating Layer lstm2_h_conted_0
I0922 22:30:13.873620 28543 net.cpp:425] lstm2_h_conted_0 <- h_0
I0922 22:30:13.873620 28527 net.cpp:91] Creating Layer lstm2_W_xc_x_slice
I0922 22:30:13.873627 28543 net.cpp:425] lstm2_h_conted_0 <- cont_1_lstm2_cont_slice_0_split_0
I0922 22:30:13.873630 28527 net.cpp:425] lstm2_W_xc_x_slice <- W_xc_x
I0922 22:30:13.873636 28543 net.cpp:399] lstm2_h_conted_0 -> h_conted_0
I0922 22:30:13.873641 28527 net.cpp:399] lstm2_W_xc_x_slice -> W_xc_x_1
I0922 22:30:13.873848 28543 net.cpp:141] Setting up lstm2_h_conted_0
I0922 22:30:13.873862 28543 net.cpp:148] Top shape: 1 1 1000 (1000)
I0922 22:30:13.873867 28543 net.cpp:156] Memory required for data: 50020
I0922 22:30:13.873873 28543 layer_factory.hpp:77] Creating layer lstm2_transform_1
I0922 22:30:13.873888 28543 net.cpp:91] Creating Layer lstm2_transform_1
I0922 22:30:13.873894 28543 net.cpp:425] lstm2_transform_1 <- h_conted_0
I0922 22:30:13.873908 28543 net.cpp:399] lstm2_transform_1 -> W_hc_h_0
I0922 22:30:13.873908 28527 net.cpp:141] Setting up lstm2_W_xc_x_slice
I0922 22:30:13.873924 28527 net.cpp:148] Top shape: 1 1 4000 (4000)
I0922 22:30:13.873929 28527 net.cpp:156] Memory required for data: 46020
I0922 22:30:13.873934 28527 layer_factory.hpp:77] Creating layer lstm2_h_conted_0
I0922 22:30:13.873946 28527 net.cpp:91] Creating Layer lstm2_h_conted_0
I0922 22:30:13.873952 28527 net.cpp:425] lstm2_h_conted_0 <- h_0
I0922 22:30:13.873960 28527 net.cpp:425] lstm2_h_conted_0 <- cont_1_lstm2_cont_slice_0_split_0
I0922 22:30:13.873968 28527 net.cpp:399] lstm2_h_conted_0 -> h_conted_0
I0922 22:30:13.874043 28521 net.cpp:141] Setting up relu5
I0922 22:30:13.874073 28521 net.cpp:148] Top shape: 10 256 13 13 (432640)
I0922 22:30:13.874083 28521 net.cpp:156] Memory required for data: 67249720
I0922 22:30:13.874095 28521 layer_factory.hpp:77] Creating layer pool5
I0922 22:30:13.874117 28521 net.cpp:91] Creating Layer pool5
I0922 22:30:13.874130 28521 net.cpp:425] pool5 <- conv5
I0922 22:30:13.874151 28521 net.cpp:399] pool5 -> pool5
I0922 22:30:13.882983 28521 net.cpp:141] Setting up pool5
I0922 22:30:13.883067 28521 net.cpp:148] Top shape: 10 256 6 6 (92160)
I0922 22:30:13.883080 28521 net.cpp:156] Memory required for data: 67618360
I0922 22:30:13.883097 28521 layer_factory.hpp:77] Creating layer fc6
I0922 22:30:13.883098 28527 net.cpp:141] Setting up lstm2_h_conted_0
I0922 22:30:13.883136 28527 net.cpp:148] Top shape: 1 1 1000 (1000)
I0922 22:30:13.883149 28521 net.cpp:91] Creating Layer fc6
I0922 22:30:13.883153 28527 net.cpp:156] Memory required for data: 50020
I0922 22:30:13.883163 28521 net.cpp:425] fc6 <- pool5
I0922 22:30:13.883172 28527 layer_factory.hpp:77] Creating layer lstm2_transform_1
I0922 22:30:13.883186 28521 net.cpp:399] fc6 -> fc6
I0922 22:30:13.883203 28527 net.cpp:91] Creating Layer lstm2_transform_1
I0922 22:30:13.883224 28527 net.cpp:425] lstm2_transform_1 <- h_conted_0
I0922 22:30:13.883258 28527 net.cpp:399] lstm2_transform_1 -> W_hc_h_0
I0922 22:30:13.972411 28543 net.cpp:141] Setting up lstm2_transform_1
I0922 22:30:13.972470 28543 net.cpp:148] Top shape: 1 1 4000 (4000)
I0922 22:30:13.972476 28543 net.cpp:156] Memory required for data: 66020
I0922 22:30:13.972504 28543 layer_factory.hpp:77] Creating layer lstm2_gate_input_1
I0922 22:30:13.972532 28543 net.cpp:91] Creating Layer lstm2_gate_input_1
I0922 22:30:13.972540 28543 net.cpp:425] lstm2_gate_input_1 <- W_hc_h_0
I0922 22:30:13.972550 28543 net.cpp:425] lstm2_gate_input_1 <- W_xc_x_1
I0922 22:30:13.972558 28543 net.cpp:399] lstm2_gate_input_1 -> gate_input_1
I0922 22:30:13.983609 28543 net.cpp:141] Setting up lstm2_gate_input_1
I0922 22:30:13.983642 28543 net.cpp:148] Top shape: 1 1 4000 (4000)
I0922 22:30:13.983649 28543 net.cpp:156] Memory required for data: 82020
I0922 22:30:13.983655 28543 layer_factory.hpp:77] Creating layer lstm2_unit_1
I0922 22:30:13.983674 28543 net.cpp:91] Creating Layer lstm2_unit_1
I0922 22:30:13.983680 28543 net.cpp:425] lstm2_unit_1 <- c_0
I0922 22:30:13.983690 28543 net.cpp:425] lstm2_unit_1 <- gate_input_1
I0922 22:30:13.983696 28543 net.cpp:425] lstm2_unit_1 <- cont_1_lstm2_cont_slice_0_split_1
I0922 22:30:13.983705 28543 net.cpp:399] lstm2_unit_1 -> c_1
I0922 22:30:13.983718 28543 net.cpp:399] lstm2_unit_1 -> h_1
I0922 22:30:13.983803 28543 net.cpp:141] Setting up lstm2_unit_1
I0922 22:30:13.983816 28543 net.cpp:148] Top shape: 1 1 1000 (1000)
I0922 22:30:13.983824 28543 net.cpp:148] Top shape: 1 1 1000 (1000)
I0922 22:30:13.983829 28543 net.cpp:156] Memory required for data: 90020
I0922 22:30:13.983834 28543 layer_factory.hpp:77] Creating layer lstm2_
I0922 22:30:13.983844 28543 net.cpp:91] Creating Layer lstm2_
I0922 22:30:13.983849 28543 net.cpp:425] lstm2_ <- c_1
I0922 22:30:13.983856 28543 net.cpp:399] lstm2_ -> c_T
I0922 22:30:13.983893 28543 net.cpp:141] Setting up lstm2_
I0922 22:30:13.983903 28543 net.cpp:148] Top shape: 1 1 1000 (1000)
I0922 22:30:13.983908 28543 net.cpp:156] Memory required for data: 94020
I0922 22:30:13.983913 28543 layer_factory.hpp:77] Creating layer lstm2_h_concat
I0922 22:30:13.983928 28543 net.cpp:91] Creating Layer lstm2_h_concat
I0922 22:30:13.983934 28543 net.cpp:425] lstm2_h_concat <- h_1
I0922 22:30:13.983942 28543 net.cpp:399] lstm2_h_concat -> h
I0922 22:30:13.983985 28543 net.cpp:141] Setting up lstm2_h_concat
I0922 22:30:13.983996 28543 net.cpp:148] Top shape: 1 1 1000 (1000)
I0922 22:30:13.984001 28543 net.cpp:156] Memory required for data: 98020
I0922 22:30:13.984006 28543 layer_factory.hpp:77] Creating layer h_pseudoloss
I0922 22:30:13.984017 28543 net.cpp:91] Creating Layer h_pseudoloss
I0922 22:30:13.984022 28543 net.cpp:425] h_pseudoloss <- h
I0922 22:30:13.984032 28543 net.cpp:399] h_pseudoloss -> h_pseudoloss
I0922 22:30:13.984148 28543 net.cpp:141] Setting up h_pseudoloss
…
I0922 22:30:13.984266 28543 net.cpp:219] lstm2_ does not need backward computation.
I0922 22:30:13.984272 28543 net.cpp:261] This network produces output c_T
I0922 22:30:13.984277 28543 net.cpp:261] This network produces output h_pseudoloss
I0922 22:30:13.984299 28543 net.cpp:274] Network initialization done.
I0922 22:30:13.984359 28543 recurrent_layer.cpp:150] Adding parameter 0: W_xc
I0922 22:30:13.984365 28543 recurrent_layer.cpp:150] Adding parameter 1: b_c
I0922 22:30:13.984370 28543 recurrent_layer.cpp:150] Adding parameter 2: W_hc
I0922 22:30:13.984495 28543 net.cpp:141] Setting up lstm2
I0922 22:30:13.984508 28543 net.cpp:148] Top shape: 1 1 1000 (1000)
I0922 22:30:13.984513 28543 net.cpp:156] Memory required for data: 36412
I0922 22:30:13.984530 28543 layer_factory.hpp:77] Creating layer predict
I0922 22:30:13.984547 28543 net.cpp:91] Creating Layer predict
I0922 22:30:13.984555 28543 net.cpp:425] predict <- lstm2
I0922 22:30:13.984563 28543 net.cpp:399] predict -> predict
I0922 22:30:14.074051 28527 net.cpp:141] Setting up lstm2_transform_1
I0922 22:30:14.074115 28527 net.cpp:148] Top shape: 1 1 4000 (4000)
I0922 22:30:14.074126 28527 net.cpp:156] Memory required for data: 66020
I0922 22:30:14.074151 28527 layer_factory.hpp:77] Creating layer lstm2_gate_input_1
I0922 22:30:14.074179 28527 net.cpp:91] Creating Layer lstm2_gate_input_1
I0922 22:30:14.074193 28527 net.cpp:425] lstm2_gate_input_1 <- W_hc_h_0
I0922 22:30:14.074206 28527 net.cpp:425] lstm2_gate_input_1 <- W_xc_x_1
I0922 22:30:14.074225 28527 net.cpp:399] lstm2_gate_input_1 -> gate_input_1
I0922 22:30:14.074239 28521 net.cpp:141] Setting up fc6
I0922 22:30:14.074265 28521 net.cpp:148] Top shape: 10 4096 (40960)
I0922 22:30:14.074275 28521 net.cpp:156] Memory required for data: 67782200
I0922 22:30:14.074293 28521 layer_factory.hpp:77] Creating layer relu6
I0922 22:30:14.074311 28527 net.cpp:141] Setting up lstm2_gate_input_1
I0922 22:30:14.074316 28521 net.cpp:91] Creating Layer relu6
I0922 22:30:14.074327 28521 net.cpp:425] relu6 <- fc6
I0922 22:30:14.074332 28527 net.cpp:148] Top shape: 1 1 4000 (4000)
I0922 22:30:14.074342 28527 net.cpp:156] Memory required for data: 82020
I0922 22:30:14.074340 28521 net.cpp:386] relu6 -> fc6 (in-place)
I0922 22:30:14.074357 28527 layer_factory.hpp:77] Creating layer lstm2_unit_1
I0922 22:30:14.074373 28527 net.cpp:91] Creating Layer lstm2_unit_1
I0922 22:30:14.074383 28527 net.cpp:425] lstm2_unit_1 <- c_0
I0922 22:30:14.074396 28527 net.cpp:425] lstm2_unit_1 <- gate_input_1
I0922 22:30:14.074407 28527 net.cpp:425] lstm2_unit_1 <- cont_1_lstm2_cont_slice_0_split_1
I0922 22:30:14.074419 28527 net.cpp:399] lstm2_unit_1 -> c_1
I0922 22:30:14.074436 28527 net.cpp:399] lstm2_unit_1 -> h_1
I0922 22:30:14.074816 28527 net.cpp:141] Setting up lstm2_unit_1
I0922 22:30:14.074838 28527 net.cpp:148] Top shape: 1 1 1000 (1000)
I0922 22:30:14.074849 28527 net.cpp:148] Top shape: 1 1 1000 (1000)
I0922 22:30:14.074858 28527 net.cpp:156] Memory required for data: 90020
I0922 22:30:14.074869 28527 layer_factory.hpp:77] Creating layer lstm2_
I0922 22:30:14.074884 28527 net.cpp:91] Creating Layer lstm2_
I0922 22:30:14.074915 28527 net.cpp:425] lstm2_ <- c_1
I0922 22:30:14.074934 28527 net.cpp:399] lstm2_ -> c_T
I0922 22:30:14.075002 28527 net.cpp:141] Setting up lstm2_
I0922 22:30:14.075032 28527 net.cpp:148] Top shape: 1 1 1000 (1000)
I0922 22:30:14.075045 28527 net.cpp:156] Memory required for data: 94020
I0922 22:30:14.075065 28527 layer_factory.hpp:77] Creating layer lstm2_h_concat
I0922 22:30:14.075091 28527 net.cpp:91] Creating Layer lstm2_h_concat
I0922 22:30:14.075104 28527 net.cpp:425] lstm2_h_concat <- h_1
I0922 22:30:14.075109 28521 net.cpp:141] Setting up relu6
I0922 22:30:14.075125 28527 net.cpp:399] lstm2_h_concat -> h
I0922 22:30:14.075130 28521 net.cpp:148] Top shape: 10 4096 (40960)
I0922 22:30:14.075140 28521 net.cpp:156] Memory required for data: 67946040
I0922 22:30:14.075150 28521 layer_factory.hpp:77] Creating layer drop6
I0922 22:30:14.075181 28521 net.cpp:91] Creating Layer drop6
I0922 22:30:14.075191 28521 net.cpp:425] drop6 <- fc6
I0922 22:30:14.075196 28527 net.cpp:141] Setting up lstm2_h_concat
I0922 22:30:14.075203 28521 net.cpp:386] drop6 -> fc6 (in-place)
I0922 22:30:14.075215 28527 net.cpp:148] Top shape: 1 1 1000 (1000)
I0922 22:30:14.075227 28527 net.cpp:156] Memory required for data: 98020
I0922 22:30:14.075237 28527 layer_factory.hpp:77] Creating layer h_pseudoloss
I0922 22:30:14.075254 28527 net.cpp:91] Creating Layer h_pseudoloss
I0922 22:30:14.075265 28527 net.cpp:425] h_pseudoloss <- h
I0922 22:30:14.075287 28521 net.cpp:141] Setting up drop6
I0922 22:30:14.075287 28527 net.cpp:399] h_pseudoloss -> h_pseudoloss
I0922 22:30:14.075309 28521 net.cpp:148] Top shape: 10 4096 (40960)
I0922 22:30:14.075320 28521 net.cpp:156] Memory required for data: 68109880
I0922 22:30:14.075330 28521 layer_factory.hpp:77] Creating layer fc7
I0922 22:30:14.075356 28521 net.cpp:91] Creating Layer fc7
I0922 22:30:14.075366 28521 net.cpp:425] fc7 <- fc6
I0922 22:30:14.075378 28521 net.cpp:399] fc7 -> fc7
I0922 22:30:14.075538 28527 net.cpp:141] Setting up h_pseudoloss
I0922 22:30:14.075561 28527 net.cpp:148] Top shape: (1)
…
I0922 22:30:14.075747 28527 net.cpp:219] lstm2_ does not need backward computation.
I0922 22:30:14.075757 28527 net.cpp:261] This network produces output c_T
I0922 22:30:14.075767 28527 net.cpp:261] This network produces output h_pseudoloss
I0922 22:30:14.075803 28527 net.cpp:274] Network initialization done.
I0922 22:30:14.075886 28527 recurrent_layer.cpp:150] Adding parameter 0: W_xc
I0922 22:30:14.075902 28527 recurrent_layer.cpp:150] Adding parameter 1: b_c
I0922 22:30:14.075912 28527 recurrent_layer.cpp:150] Adding parameter 2: W_hc
I0922 22:30:14.119797 28527 net.cpp:141] Setting up lstm2
I0922 22:30:14.119860 28527 net.cpp:148] Top shape: 1 1 1000 (1000)
I0922 22:30:14.119871 28527 net.cpp:156] Memory required for data: 36412
I0922 22:30:14.119904 28527 layer_factory.hpp:77] Creating layer predict
I0922 22:30:14.119932 28527 net.cpp:91] Creating Layer predict
I0922 22:30:14.119946 28527 net.cpp:425] predict <- lstm2
I0922 22:30:14.119966 28527 net.cpp:399] predict -> predict
I0922 22:30:14.209224 28521 net.cpp:141] Setting up fc7
I0922 22:30:14.209282 28521 net.cpp:148] Top shape: 10 4096 (40960)
I0922 22:30:14.209290 28521 net.cpp:156] Memory required for data: 68273720
I0922 22:30:14.209306 28521 layer_factory.hpp:77] Creating layer relu7
I0922 22:30:14.209331 28521 net.cpp:91] Creating Layer relu7
I0922 22:30:14.209339 28521 net.cpp:425] relu7 <- fc7
I0922 22:30:14.209349 28521 net.cpp:386] relu7 -> fc7 (in-place)
I0922 22:30:14.210027 28521 net.cpp:141] Setting up relu7
I0922 22:30:14.210045 28521 net.cpp:148] Top shape: 10 4096 (40960)
I0922 22:30:14.210052 28521 net.cpp:156] Memory required for data: 68437560
I0922 22:30:14.210057 28521 layer_factory.hpp:77] Creating layer drop7
I0922 22:30:14.210074 28521 net.cpp:91] Creating Layer drop7
I0922 22:30:14.210080 28521 net.cpp:425] drop7 <- fc7
I0922 22:30:14.210088 28521 net.cpp:386] drop7 -> fc7 (in-place)
I0922 22:30:14.210151 28521 net.cpp:141] Setting up drop7
I0922 22:30:14.210163 28521 net.cpp:148] Top shape: 10 4096 (40960)
I0922 22:30:14.210168 28521 net.cpp:156] Memory required for data: 68601400
I0922 22:30:14.210175 28521 layer_factory.hpp:77] Creating layer fc8
I0922 22:30:14.210186 28521 net.cpp:91] Creating Layer fc8
I0922 22:30:14.210191 28521 net.cpp:425] fc8 <- fc7
I0922 22:30:14.210203 28521 net.cpp:399] fc8 -> fc8
I0922 22:30:14.224267 28521 net.cpp:141] Setting up fc8
I0922 22:30:14.224328 28521 net.cpp:148] Top shape: 10 1000 (10000)
I0922 22:30:14.224335 28521 net.cpp:156] Memory required for data: 68641400
I0922 22:30:14.224352 28521 layer_factory.hpp:77] Creating layer prob
I0922 22:30:14.224376 28521 net.cpp:91] Creating Layer prob
I0922 22:30:14.224385 28521 net.cpp:425] prob <- fc8
I0922 22:30:14.224395 28521 net.cpp:399] prob -> prob
I0922 22:30:14.224951 28521 net.cpp:141] Setting up prob
I0922 22:30:14.224967 28521 net.cpp:148] Top shape: 10 1000 (10000)
I0922 22:30:14.224973 28521 net.cpp:156] Memory required for data: 68681400
I0922 22:30:14.224980 28521 net.cpp:219] prob does not need backward computation.
I0922 22:30:14.224987 28521 net.cpp:219] fc8 does not need backward computation.
I0922 22:30:14.224992 28521 net.cpp:219] drop7 does not need backward computation.
I0922 22:30:14.224997 28521 net.cpp:219] relu7 does not need backward computation.
…
