…
Java HotSpot(TM) 64-Bit Server VM warning: You have loaded library /tmp/cvld8068885729008422158/libopencv_java310.xine1.so which might have disabled stack guard. The VM will try to fix the stack guard now.
It's highly recommended that you fix the library with 'execstack -c <libfile>', or link it with '-z noexecstack'.
WARNING: Logging before InitGoogleLogging() is written to STDERR
I0714 21:44:43.818245  7820 net.cpp:49] Initializing net from parameters: 
name: "GoogleNet"
state {
  phase: TEST
}
layer {
  name: "data"
  type: "Input"
  top: "data"
  input_param {
    shape {
      dim: 10
      dim: 3
      dim: 224
      dim: 224
    }
  }
}
layer {
  name: "conv1/7x7_s2"
  type: "Convolution"
  bottom: "data"
  top: "conv1/7x7_s2"
  param {
    lr_mult: 1
    decay_mult: 1
  }
  param {
    lr_mult: 2
    decay_mult: 0
  }
  convolution_param {
    num_output: 64
    pad: 3
    kernel_size: 7
    stride: 2
    weight_filler {
      type: "xavier"
      std: 0.1
    }
    bias_filler {
      type: "constant"
      value: 0.2
    }
  }
}
layer {
  name: "conv1/relu_7x7"
  type: "ReLU"
  bottom: "conv1/7x7_s2"
  top: "conv1/7x7_s2"
}
layer {
  name: "pool1/3x3_s2"
  type: "Pooling"
  bottom: "conv1/7x7_s2"
  top: "pool1/3x3_s2"
  pooling_param {
    pool: MAX
    kernel_size: 3
    stride: 2
  }
}
layer {
  name: "pool1/norm1"
  type: "LRN"
  bottom: "pool1/3x3_s2"
  top: "pool1/norm1"
  lrn_param {
    local_size: 5
    alpha: 0.0001
    beta: 0.75
  }
}
layer {
  name: "conv2/3x3_reduce"
  type: "Convolution"
  bottom: "pool1/norm1"
  top: "conv2/3x3_reduce"
  param {
    lr_mult: 1
    decay_mult: 1
  }
  param {
    lr_mult: 2
    decay_mult: 0
  }
  convolution_param {
    num_output: 64
    kernel_size: 1
    weight_filler {
      type: "xavier"
      std: 0.1
    }
    bias_filler {
      type: "constant"
      value: 0.2
    }
  }
}
layer {
  name: "conv2/relu_3x3_reduce"
  type: "ReLU"
  bottom: "conv2/3x3_reduce"
  top: "conv2/3x3_reduce"
}
layer {
  name: "conv2/3x3"
  type: "Convolution"
  bottom: "conv2/3x3_reduce"
  top: "conv2/3x3"
  param {
    lr_mult: 1
    decay_mult: 1
  }
  param {
    lr_mult: 2
    decay_mult: 0
  }
  convolution_param {
    num_output: 192
    pad: 1
    kernel_size: 3
    weight_filler {
      type: "xavier"
      std: 0.03
    }
    bias_filler {
      type: "constant"
      value: 0.2
    }
  }
}
layer {
  name: "conv2/relu_3x3"
  type: "ReLU"
  bottom: "conv2/3x3"
  top: "conv2/3x3"
}
layer {
  name: "conv2/norm2"
  type: "LRN"
  bottom: "conv2/3x3"
  top: "conv2/norm2"
  lrn_param {
    local_size: 5
    alpha: 0.0001
    beta: 0.75
  }
}
layer {
  name: "pool2/3x3_s2"
  type: "Pooling"
  bottom: "conv2/norm2"
  top: "pool2/3x3_s2"
  pooling_param {
    pool: MAX
    kernel_size: 3
    stride: 2
  }
}
layer {
  name: "inception_3a/1x1"
  type: "Convolution"
  bottom: "pool2/3x3_s2"
  top: "inception_3a/1x1"
  param {
    lr_mult: 1
    decay_mult: 1
  }
  param {
    lr_mult: 2
    decay_mult: 0
  }
  convolution_param {
    num_output: 64
    kernel_size: 1
    weight_filler {
      type: "xavier"
      std: 0.03
    }
    bias_filler {
      type: "constant"
      value: 0.2
    }
  }
}
layer {
  name: "inception_3a/relu_1x1"
  type: "ReLU"
  bottom: "inception_3a/1x1"
  top: "inception_3a/1x1"
}
layer {
  name: "inception_3a/3x3_reduce"
  type: "Convolution"
  bottom: "pool2/3x3_s2"
  top: "inception_3a/3x3_reduce"
  param {
    lr_mult: 1
    decay_mult: 1
  }
  param {
    lr_mult: 2
    decay_mult: 0
  }
  convolution_param {
    num_output: 96
    kernel_size: 1
    weight_filler {
      type: "xavier"
      std: 0.09
    }
    bias_filler {
      type: "constant"
      value: 0.2
    }
  }
}
layer {
  name: "inception_3a/relu_3x3_reduce"
  type: "ReLU"
  bottom: "inception_3a/3x3_reduce"
  top: "inception_3a/3x3_reduce"
}
layer {
  name: "inception_3a/3x3"
  type: "Convolution"
  bottom: "inception_3a/3x3_reduce"
  top: "inception_3a/3x3"
  param {
    lr_mult: 1
    decay_mult: 1
  }
  param {
    lr_mult: 2
    decay_mult: 0
  }
  convolution_param {
    num_output: 128
    pad: 1
    kernel_size: 3
    weight_filler {
      type: "xavier"
      std: 0.03
    }
    bias_filler {
      type: "constant"
      value: 0.2
    }
  }
}
layer {
  name: "inception_3a/relu_3x3"
  type: "ReLU"
  bottom: "inception_3a/3x3"
  top: "inception_3a/3x3"
}
layer {
  name: "inception_3a/5x5_reduce"
  type: "Convolution"
  bottom: "pool2/3x3_s2"
  top: "inception_3a/5x5_reduce"
  param {
    lr_mult: 1
    decay_mult: 1
  }
  param {
    lr_mult: 2
    decay_mult: 0
  }
  convolution_param {
    num_output: 16
    kernel_size: 1
    weight_filler {
      type: "xavier"
      std: 0.2
    }
    bias_filler {
      type: "constant"
      value: 0.2
    }
  }
}
layer {
  name: "inception_3a/relu_5x5_reduce"
  type: "ReLU"
  bottom: "inception_3a/5x5_reduce"
  top: "inception_3a/5x5_reduce"
}
layer {
  name: "inception_3a/5x5"
  type: "Convolution"
  bottom: "inception_3a/5x5_reduce"
  top: "inception_3a/5x5"
  param {
    lr_mult: 1
    decay_mult: 1
  }
  param {
    lr_mult: 2
    decay_mult: 0
  }
  convolution_param {
    num_output: 32
    pad: 2
    kernel_size: 5
    weight_filler {
      type: "xavier"
      std: 0.03
    }
    bias_filler {
      type: "constant"
      value: 0.2
    }
  }
}
layer {
  name: "inception_3a/relu_5x5"
  type: "ReLU"
  bottom: "inception_3a/5x5"
  top: "inception_3a/5x5"
}
layer {
  name: "inception_3a/pool"
  type: "Pooling"
  bottom: "pool2/3x3_s2"
  top: "inception_3a/pool"
  pooling_param {
    pool: MAX
    kernel_size: 3
    stride: 1
    pad: 1
  }
}
layer {
  name: "inception_3a/pool_proj"
  type: "Convolution"
  bottom: "inception_3a/pool"
  top: "inception_3a/pool_proj"
  param {
    lr_mult: 1
    decay_mult: 1
  }
  param {
    lr_mult: 2
    decay_mult: 0
  }
  convolution_param {
    num_output: 32
    kernel_size: 1
    weight_filler {
      type: "xavier"
      std: 0.1
    }
    bias_filler {
      type: "constant"
      value: 0.2
    }
  }
}
layer {
  name: "inception_3a/relu_pool_proj"
  type: "ReLU"
  bottom: "inception_3a/pool_proj"
  top: "inception_3a/pool_proj"
}
layer {
  name: "inception_3a/output"
  type: "Concat"
  bottom: "inception_3a/1x1"
  bottom: "inception_3a/3x3"
  bottom: "inception_3a/5x5"
  bottom: "inception_3a/pool_proj"
  top: "inception_3a/output"
}
layer {
  name: "inception_3b/1x1"
  type: "Convolution"
  bottom: "inception_3a/output"
  top: "inception_3b/1x1"
  param {
    lr_mult: 1
    decay_mult: 1
  }
  param {
    lr_mult: 2
    decay_mult: 0
  }
  convolution_param {
    num_output: 128
    kernel_size: 1
    weight_filler {
      type: "xavier"
      std: 0.03
    }
    bias_filler {
      type: "constant"
      value: 0.2
    }
  }
}
layer {
  name: "inception_3b/relu_1x1"
  type: "ReLU"
  bottom: "inception_3b/1x1"
  top: "inception_3b/1x1"
}
layer {
  name: "inception_3b/3x3_reduce"
  type: "Convolution"
  bottom: "inception_3a/output"
  top: "inception_3b/3x3_reduce"
  param {
    lr_mult: 1
    decay_mult: 1
  }
  param {
    lr_mult: 2
    decay_mult: 0
  }
  convolution_param {
    num_output: 128
    kernel_size: 1
    weight_filler {
      type: "xavier"
      std: 0.09
    }
    bias_filler {
      type: "constant"
      value: 0.2
    }
  }
}
layer {
  name: "inception_3b/relu_3x3_reduce"
  type: "ReLU"
  bottom: "inception_3b/3x3_reduce"
  top: "inception_3b/3x3_reduce"
}
layer {
  name: "inception_3b/3x3"
  type: "Convolution"
  bottom: "inception_3b/3x3_reduce"
  top: "inception_3b/3x3"
  param {
    lr_mult: 1
    decay_mult: 1
  }
  param {
    lr_mult: 2
    decay_mult: 0
  }
  convolution_param {
    num_output: 192
    pad: 1
    kernel_size: 3
    weight_filler {
      type: "xavier"
      std: 0.03
    }
    bias_filler {
      type: "constant"
      value: 0.2
    }
  }
}
layer {
  name: "inception_3b/relu_3x3"
  type: "ReLU"
  bottom: "inception_3b/3x3"
  top: "inception_3b/3x3"
}
layer {
  name: "inception_3b/5x5_reduce"
  type: "Convolution"
  bottom: "inception_3a/output"
  top: "inception_3b/5x5_reduce"
  param {
    lr_mult: 1
    decay_mult: 1
  }
  param {
    lr_mult: 2
    decay_mult: 0
  }
  convolution_param {
    num_output: 32
    kernel_size: 1
    weight_filler {
      type: "xavier"
      std: 0.2
    }
    bias_filler {
      type: "constant"
      value: 0.2
    }
  }
}
layer {
  name: "inception_3b/relu_5x5_reduce"
  type: "ReLU"
  bottom: "inception_3b/5x5_reduce"
  top: "inception_3b/5x5_reduce"
}
layer {
  name: "inception_3b/5x5"
  type: "Convolution"
  bottom: "inception_3b/5x5_reduce"
  top: "inception_3b/5x5"
  param {
    lr_mult: 1
    decay_mult: 1
  }
  param {
    lr_mult: 2
    decay_mult: 0
  }
  convolution_param {
    num_output: 96
    pad: 2
    kernel_size: 5
    weight_filler {
      type: "xavier"
      std: 0.03
    }
    bias_filler {
      type: "constant"
      value: 0.2
    }
  }
}
layer {
  name: "inception_3b/relu_5x5"
  type: "ReLU"
  bottom: "inception_3b/5x5"
  top: "inception_3b/5x5"
}
layer {
  name: "inception_3b/pool"
  type: "Pooling"
  bottom: "inception_3a/output"
  top: "inception_3b/pool"
  pooling_param {
    pool: MAX
    kernel_size: 3
    stride: 1
    pad: 1
  }
}
layer {
  name: "inception_3b/pool_proj"
  type: "Convolution"
  bottom: "inception_3b/pool"
  top: "inception_3b/pool_proj"
  param {
    lr_mult: 1
    decay_mult: 1
  }
  param {
    lr_mult: 2
    decay_mult: 0
  }
  convolution_param {
    num_output: 64
    kernel_size: 1
    weight_filler {
      type: "xavier"
      std: 0.1
    }
    bias_filler {
      type: "constant"
      value: 0.2
    }
  }
}
layer {
  name: "inception_3b/relu_pool_proj"
  type: "ReLU"
  bottom: "inception_3b/pool_proj"
  top: "inception_3b/pool_proj"
}
layer {
  name: "inception_3b/output"
  type: "Concat"
  bottom: "inception_3b/1x1"
  bottom: "inception_3b/3x3"
  bottom: "inception_3b/5x5"
  bottom: "inception_3b/pool_proj"
  top: "inception_3b/output"
}
layer {
  name: "pool3/3x3_s2"
  type: "Pooling"
  bottom: "inception_3b/output"
  top: "pool3/3x3_s2"
  pooling_param {
    pool: MAX
    kernel_size: 3
    stride: 2
  }
}
layer {
  name: "inception_4a/1x1"
  type: "Convolution"
  bottom: "pool3/3x3_s2"
  top: "inception_4a/1x1"
  param {
    lr_mult: 1
    decay_mult: 1
  }
  param {
    lr_mult: 2
    decay_mult: 0
  }
  convolution_param {
    num_output: 192
    kernel_size: 1
    weight_filler {
      type: "xavier"
      std: 0.03
    }
    bias_filler {
      type: "constant"
      value: 0.2
    }
  }
}
layer {
  name: "inception_4a/relu_1x1"
  type: "ReLU"
  bottom: "inception_4a/1x1"
  top: "inception_4a/1x1"
}
layer {
  name: "inception_4a/3x3_reduce"
  type: "Convolution"
  bottom: "pool3/3x3_s2"
  top: "inception_4a/3x3_reduce"
  param {
    lr_mult: 1
    decay_mult: 1
  }
  param {
    lr_mult: 2
    decay_mult: 0
  }
  convolution_param {
    num_output: 96
    kernel_size: 1
    weight_filler {
      type: "xavier"
      std: 0.09
    }
    bias_filler {
      type: "constant"
      value: 0.2
    }
  }
}
layer {
  name: "inception_4a/relu_3x3_reduce"
  type: "ReLU"
  bottom: "inception_4a/3x3_reduce"
  top: "inception_4a/3x3_reduce"
}
layer {
  name: "inception_4a/3x3"
  type: "Convolution"
  bottom: "inception_4a/3x3_reduce"
  top: "inception_4a/3x3"
  param {
    lr_mult: 1
    decay_mult: 1
  }
  param {
    lr_mult: 2
    decay_mult: 0
  }
  convolution_param {
    num_output: 208
    pad: 1
    kernel_size: 3
    weight_filler {
      type: "xavier"
      std: 0.03
    }
    bias_filler {
      type: "constant"
      value: 0.2
    }
  }
}
layer {
  name: "inception_4a/relu_3x3"
  type: "ReLU"
  bottom: "inception_4a/3x3"
  top: "inception_4a/3x3"
}
layer {
  name: "inception_4a/5x5_reduce"
  type: "Convolution"
  bottom: "pool3/3x3_s2"
  top: "inception_4a/5x5_reduce"
  param {
    lr_mult: 1
    decay_mult: 1
  }
  param {
    lr_mult: 2
    decay_mult: 0
  }
  convolution_param {
    num_output: 16
    kernel_size: 1
    weight_filler {
      type: "xavier"
      std: 0.2
    }
    bias_filler {
      type: "constant"
      value: 0.2
    }
  }
}
layer {
  name: "inception_4a/relu_5x5_reduce"
  type: "ReLU"
  bottom: "inception_4a/5x5_reduce"
  top: "inception_4a/5x5_reduce"
}
layer {
  name: "inception_4a/5x5"
  type: "Convolution"
  bottom: "inception_4a/5x5_reduce"
  top: "inception_4a/5x5"
  param {
    lr_mult: 1
    decay_mult: 1
  }
  param {
    lr_mult: 2
    decay_mult: 0
  }
  convolution_param {
    num_output: 48
    pad: 2
    kernel_size: 5
    weight_filler {
      type: "xavier"
      std: 0.03
    }
    bias_filler {
      type: "constant"
      value: 0.2
    }
  }
}
layer {
  name: "inception_4a/relu_5x5"
  type: "ReLU"
  bottom: "inception_4a/5x5"
  top: "inception_4a/5x5"
}
layer {
  name: "inception_4a/pool"
  type: "Pooling"
  bottom: "pool3/3x3_s2"
  top: "inception_4a/pool"
  pooling_param {
    pool: MAX
    kernel_size: 3
    stride: 1
    pad: 1
  }
}
layer {
  name: "inception_4a/pool_proj"
  type: "Convolution"
  bottom: "inception_4a/pool"
  top: "inception_4a/pool_proj"
  param {
    lr_mult: 1
    decay_mult: 1
  }
  param {
    lr_mult: 2
    decay_mult: 0
  }
  convolution_param {
    num_output: 64
    kernel_size: 1
    weight_filler {
      type: "xavier"
      std: 0.1
    }
    bias_filler {
      type: "constant"
      value: 0.2
    }
  }
}
layer {
  name: "inception_4a/relu_pool_proj"
  type: "ReLU"
  bottom: "inception_4a/pool_proj"
  top: "inception_4a/pool_proj"
}
layer {
  name: "inception_4a/output"
  type: "Concat"
  bottom: "inception_4a/1x1"
  bottom: "inception_4a/3x3"
  bottom: "inception_4a/5x5"
  bottom: "inception_4a/pool_proj"
  top: "inception_4a/output"
}
layer {
  name: "inception_4b/1x1"
  type: "Convolution"
  bottom: "inception_4a/output"
  top: "inception_4b/1x1"
  param {
    lr_mult: 1
    decay_mult: 1
  }
  param {
    lr_mult: 2
    decay_mult: 0
  }
  convolution_param {
    num_output: 160
    kernel_size: 1
    weight_filler {
      type: "xavier"
      std: 0.03
    }
    bias_filler {
      type: "constant"
      value: 0.2
    }
  }
}
layer {
  name: "inception_4b/relu_1x1"
  type: "ReLU"
  bottom: "inception_4b/1x1"
  top: "inception_4b/1x1"
}
layer {
  name: "inception_4b/3x3_reduce"
  type: "Convolution"
  bottom: "inception_4a/output"
  top: "inception_4b/3x3_reduce"
  param {
    lr_mult: 1
    decay_mult: 1
  }
  param {
    lr_mult: 2
    decay_mult: 0
  }
  convolution_param {
    num_output: 112
    kernel_size: 1
    weight_filler {
      type: "xavier"
      std: 0.09
    }
    bias_filler {
      type: "constant"
      value: 0.2
    }
  }
}
layer {
  name: "inception_4b/relu_3x3_reduce"
  type: "ReLU"
  bottom: "inception_4b/3x3_reduce"
  top: "inception_4b/3x3_reduce"
}
layer {
  name: "inception_4b/3x3"
  type: "Convolution"
  bottom: "inception_4b/3x3_reduce"
  top: "inception_4b/3x3"
  param {
    lr_mult: 1
    decay_mult: 1
  }
  param {
    lr_mult: 2
    decay_mult: 0
  }
  convolution_param {
    num_output: 224
    pad: 1
    kernel_size: 3
    weight_filler {
      type: "xavier"
      std: 0.03
    }
    bias_filler {
      type: "constant"
      value: 0.2
    }
  }
}
layer {
  name: "inception_4b/relu_3x3"
  type: "ReLU"
  bottom: "inception_4b/3x3"
  top: "inception_4b/3x3"
}
layer {
  name: "inception_4b/5x5_reduce"
  type: "Convolution"
  bottom: "inception_4a/output"
  top: "inception_4b/5x5_reduce"
  param {
    lr_mult: 1
    decay_mult: 1
  }
  param {
    lr_mult: 2
    decay_mult: 0
  }
  convolution_param {
    num_output: 24
    kernel_size: 1
    weight_filler {
      type: "xavier"
      std: 0.2
    }
    bias_filler {
      type: "constant"
      value: 0.2
    }
  }
}
layer {
  name: "inception_4b/relu_5x5_reduce"
  type: "ReLU"
  bottom: "inception_4b/5x5_reduce"
  top: "inception_4b/5x5_reduce"
}
layer {
  name: "inception_4b/5x5"
  type: "Convolution"
  bottom: "inception_4b/5x5_reduce"
  top: "inception_4b/5x5"
  param {
    lr_mult: 1
    decay_mult: 1
  }
  param {
    lr_mult: 2
    decay_mult: 0
  }
  convolution_param {
    num_output: 64
    pad: 2
    kernel_size: 5
    weight_filler {
      type: "xavier"
      std: 0.03
    }
    bias_filler {
      type: "constant"
      value: 0.2
    }
  }
}
layer {
  name: "inception_4b/relu_5x5"
  type: "ReLU"
  bottom: "inception_4b/5x5"
  top: "inception_4b/5x5"
}
layer {
  name: "inception_4b/pool"
  type: "Pooling"
  bottom: "inception_4a/output"
  top: "inception_4b/pool"
  pooling_param {
    pool: MAX
    kernel_size: 3
    stride: 1
    pad: 1
  }
}
layer {
  name: "inception_4b/pool_proj"
  type: "Convolution"
  bottom: "inception_4b/pool"
  top: "inception_4b/pool_proj"
  param {
    lr_mult: 1
    decay_mult: 1
  }
  param {
    lr_mult: 2
    decay_mult: 0
  }
  convolution_param {
    num_output: 64
    kernel_size: 1
    weight_filler {
      type: "xavier"
      std: 0.1
    }
    bias_filler {
      type: "constant"
      value: 0.2
    }
  }
}
layer {
  name: "inception_4b/relu_pool_proj"
  type: "ReLU"
  bottom: "inception_4b/pool_proj"
  top: "inception_4b/pool_proj"
}
layer {
  name: "inception_4b/output"
  type: "Concat"
  bottom: "inception_4b/1x1"
  bottom: "inception_4b/3x3"
  bottom: "inception_4b/5x5"
  bottom: "inception_4b/pool_proj"
  top: "inception_4b/output"
}
layer {
  name: "inception_4c/1x1"
  type: "Convolution"
  bottom: "inception_4b/output"
  top: "inception_4c/1x1"
  param {
    lr_mult: 1
    decay_mult: 1
  }
  param {
    lr_mult: 2
    decay_mult: 0
  }
  convolution_param {
    num_output: 128
    kernel_size: 1
    weight_filler {
      type: "xavier"
      std: 0.03
    }
    bias_filler {
      type: "constant"
      value: 0.2
    }
  }
}
layer {
  name: "inception_4c/relu_1x1"
  type: "ReLU"
  bottom: "inception_4c/1x1"
  top: "inception_4c/1x1"
}
layer {
  name: "inception_4c/3x3_reduce"
  type: "Convolution"
  bottom: "inception_4b/output"
  top: "inception_4c/3x3_reduce"
  param {
    lr_mult: 1
    decay_mult: 1
  }
  param {
    lr_mult: 2
    decay_mult: 0
  }
  convolution_param {
    num_output: 128
    kernel_size: 1
    weight_filler {
      type: "xavier"
      std: 0.09
    }
    bias_filler {
      type: "constant"
      value: 0.2
    }
  }
}
layer {
  name: "inception_4c/relu_3x3_reduce"
  type: "ReLU"
  bottom: "inception_4c/3x3_reduce"
  top: "inception_4c/3x3_reduce"
}
layer {
  name: "inception_4c/3x3"
  type: "Convolution"
  bottom: "inception_4c/3x3_reduce"
  top: "inception_4c/3x3"
  param {
    lr_mult: 1
    decay_mult: 1
  }
  param {
    lr_mult: 2
    decay_mult: 0
  }
  convolution_param {
    num_output: 256
    pad: 1
    kernel_size: 3
    weight_filler {
      type: "xavier"
      std: 0.03
    }
    bias_filler {
      type: "constant"
      value: 0.2
    }
  }
}
layer {
  name: "inception_4c/relu_3x3"
  type: "ReLU"
  bottom: "inception_4c/3x3"
  top: "inception_4c/3x3"
}
layer {
  name: "inception_4c/5x5_reduce"
  type: "Convolution"
  bottom: "inception_4b/output"
  top: "inception_4c/5x5_reduce"
  param {
    lr_mult: 1
    decay_mult: 1
  }
  param {
    lr_mult: 2
    decay_mult: 0
  }
  convolution_param {
    num_output: 24
    kernel_size: 1
    weight_filler {
      type: "xavier"
      std: 0.2
    }
    bias_filler {
      type: "constant"
      value: 0.2
    }
  }
}
layer {
  name: "inception_4c/relu_5x5_reduce"
  type: "ReLU"
  bottom: "inception_4c/5x5_reduce"
  top: "inception_4c/5x5_reduce"
}
layer {
  name: "inception_4c/5x5"
  type: "Convolution"
  bottom: "inception_4c/5x5_reduce"
  top: "inception_4c/5x5"
  param {
    lr_mult: 1
    decay_mult: 1
  }
  param {
    lr_mult: 2
    decay_mult: 0
  }
  convolution_param {
    num_output: 64
    pad: 2
    kernel_size: 5
    weight_filler {
      type: "xavier"
      std: 0.03
    }
    bias_filler {
      type: "constant"
      value: 0.2
    }
  }
}
layer {
  name: "inception_4c/relu_5x5"
  type: "ReLU"
  bottom: "inception_4c/5x5"
  top: "inception_4c/5x5"
}
layer {
  name: "inception_4c/pool"
  type: "Pooling"
  bottom: "inception_4b/output"
  top: "inception_4c/pool"
  pooling_param {
    pool: MAX
    kernel_size: 3
    stride: 1
    pad: 1
  }
}
layer {
  name: "inception_4c/pool_proj"
  type: "Convolution"
  bottom: "inception_4c/pool"
  top: "inception_4c/pool_proj"
  param {
    lr_mult: 1
    decay_mult: 1
  }
  param {
    lr_mult: 2
    decay_mult: 0
  }
  convolution_param {
    num_output: 64
    kernel_size: 1
    weight_filler {
      type: "xavier"
      std: 0.1
    }
    bias_filler {
      type: "constant"
      value: 0.2
    }
  }
}
layer {
  name: "inception_4c/relu_pool_proj"
  type: "ReLU"
  bottom: "inception_4c/pool_proj"
  top: "inception_4c/pool_proj"
}
layer {
  name: "inception_4c/output"
  type: "Concat"
  bottom: "inception_4c/1x1"
  bottom: "inception_4c/3x3"
  bottom: "inception_4c/5x5"
  bottom: "inception_4c/pool_proj"
  top: "inception_4c/output"
}
layer {
  name: "inception_4d/1x1"
  type: "Convolution"
  bottom: "inception_4c/output"
  top: "inception_4d/1x1"
  param {
    lr_mult: 1
    decay_mult: 1
  }
  param {
    lr_mult: 2
    decay_mult: 0
  }
  convolution_param {
    num_output: 112
    kernel_size: 1
    weight_filler {
      type: "xavier"
      std: 0.03
    }
    bias_filler {
      type: "constant"
      value: 0.2
    }
  }
}
layer {
  name: "inception_4d/relu_1x1"
  type: "ReLU"
  bottom: "inception_4d/1x1"
  top: "inception_4d/1x1"
}
layer {
  name: "inception_4d/3x3_reduce"
  type: "Convolution"
  bottom: "inception_4c/output"
  top: "inception_4d/3x3_reduce"
  param {
    lr_mult: 1
    decay_mult: 1
  }
  param {
    lr_mult: 2
    decay_mult: 0
  }
  convolution_param {
    num_output: 144
    kernel_size: 1
    weight_filler {
      type: "xavier"
      std: 0.09
    }
    bias_filler {
      type: "constant"
      value: 0.2
    }
  }
}
layer {
  name: "inception_4d/relu_3x3_reduce"
  type: "ReLU"
  bottom: "inception_4d/3x3_reduce"
  top: "inception_4d/3x3_reduce"
}
layer {
  name: "inception_4d/3x3"
  type: "Convolution"
  bottom: "inception_4d/3x3_reduce"
  top: "inception_4d/3x3"
  param {
    lr_mult: 1
    decay_mult: 1
  }
  param {
    lr_mult: 2
    decay_mult: 0
  }
  convolution_param {
    num_output: 288
    pad: 1
    kernel_size: 3
    weight_filler {
      type: "xavier"
      std: 0.03
    }
    bias_filler {
      type: "constant"
      value: 0.2
    }
  }
}
layer {
  name: "inception_4d/relu_3x3"
  type: "ReLU"
  bottom: "inception_4d/3x3"
  top: "inception_4d/3x3"
}
layer {
  name: "inception_4d/5x5_reduce"
  type: "Convolution"
  bottom: "inception_4c/output"
  top: "inception_4d/5x5_reduce"
  param {
    lr_mult: 1
    decay_mult: 1
  }
  param {
    lr_mult: 2
    decay_mult: 0
  }
  convolution_param {
    num_output: 32
    kernel_size: 1
    weight_filler {
      type: "xavier"
      std: 0.2
    }
    bias_filler {
      type: "constant"
      value: 0.2
    }
  }
}
layer {
  name: "inception_4d/relu_5x5_reduce"
  type: "ReLU"
  bottom: "inception_4d/5x5_reduce"
  top: "inception_4d/5x5_reduce"
}
layer {
  name: "inception_4d/5x5"
  type: "Convolution"
  bottom: "inception_4d/5x5_reduce"
  top: "inception_4d/5x5"
  param {
    lr_mult: 1
    decay_mult: 1
  }
  param {
    lr_mult: 2
    decay_mult: 0
  }
  convolution_param {
    num_output: 64
    pad: 2
    kernel_size: 5
    weight_filler {
      type: "xavier"
      std: 0.03
    }
    bias_filler {
      type: "constant"
      value: 0.2
    }
  }
}
layer {
  name: "inception_4d/relu_5x5"
  type: "ReLU"
  bottom: "inception_4d/5x5"
  top: "inception_4d/5x5"
}
layer {
  name: "inception_4d/pool"
  type: "Pooling"
  bottom: "inception_4c/output"
  top: "inception_4d/pool"
  pooling_param {
    pool: MAX
    kernel_size: 3
    stride: 1
    pad: 1
  }
}
layer {
  name: "inception_4d/pool_proj"
  type: "Convolution"
  bottom: "inception_4d/pool"
  top: "inception_4d/pool_proj"
  param {
    lr_mult: 1
    decay_mult: 1
  }
  param {
    lr_mult: 2
    decay_mult: 0
  }
  convolution_param {
    num_output: 64
    kernel_size: 1
    weight_filler {
      type: "xavier"
      std: 0.1
    }
    bias_filler {
      type: "constant"
      value: 0.2
    }
  }
}
layer {
  name: "inception_4d/relu_pool_proj"
  type: "ReLU"
  bottom: "inception_4d/pool_proj"
  top: "inception_4d/pool_proj"
}
layer {
  name: "inception_4d/output"
  type: "Concat"
  bottom: "inception_4d/1x1"
  bottom: "inception_4d/3x3"
  bottom: "inception_4d/5x5"
  bottom: "inception_4d/pool_proj"
  top: "inception_4d/output"
}
layer {
  name: "inception_4e/1x1"
  type: "Convolution"
  bottom: "inception_4d/output"
  top: "inception_4e/1x1"
  param {
    lr_mult: 1
    decay_mult: 1
  }
  param {
    lr_mult: 2
    decay_mult: 0
  }
  convolution_param {
    num_output: 256
    kernel_size: 1
    weight_filler {
      type: "xavier"
      std: 0.03
    }
    bias_filler {
      type: "constant"
      value: 0.2
    }
  }
}
layer {
  name: "inception_4e/relu_1x1"
  type: "ReLU"
  bottom: "inception_4e/1x1"
  top: "inception_4e/1x1"
}
layer {
  name: "inception_4e/3x3_reduce"
  type: "Convolution"
  bottom: "inception_4d/output"
  top: "inception_4e/3x3_reduce"
  param {
    lr_mult: 1
    decay_mult: 1
  }
  param {
    lr_mult: 2
    decay_mult: 0
  }
  convolution_param {
    num_output: 160
    kernel_size: 1
    weight_filler {
      type: "xavier"
      std: 0.09
    }
    bias_filler {
      type: "constant"
      value: 0.2
    }
  }
}
layer {
  name: "inception_4e/relu_3x3_reduce"
  type: "ReLU"
  bottom: "inception_4e/3x3_reduce"
  top: "inception_4e/3x3_reduce"
}
layer {
  name: "inception_4e/3x3"
  type: "Convolution"
  bottom: "inception_4e/3x3_reduce"
  top: "inception_4e/3x3"
  param {
    lr_mult: 1
    decay_mult: 1
  }
  param {
    lr_mult: 2
    decay_mult: 0
  }
  convolution_param {
    num_output: 320
    pad: 1
    kernel_size: 3
    weight_filler {
      type: "xavier"
      std: 0.03
    }
    bias_filler {
      type: "constant"
      value: 0.2
    }
  }
}
layer {
  name: "inception_4e/relu_3x3"
  type: "ReLU"
  bottom: "inception_4e/3x3"
  top: "inception_4e/3x3"
}
layer {
  name: "inception_4e/5x5_reduce"
  type: "Convolution"
  bottom: "inception_4d/output"
  top: "inception_4e/5x5_reduce"
  param {
    lr_mult: 1
    decay_mult: 1
  }
  param {
    lr_mult: 2
    decay_mult: 0
  }
  convolution_param {
    num_output: 32
    kernel_size: 1
    weight_filler {
      type: "xavier"
      std: 0.2
    }
    bias_filler {
      type: "constant"
      value: 0.2
    }
  }
}
layer {
  name: "inception_4e/relu_5x5_reduce"
  type: "ReLU"
  bottom: "inception_4e/5x5_reduce"
  top: "inception_4e/5x5_reduce"
}
layer {
  name: "inception_4e/5x5"
  type: "Convolution"
  bottom: "inception_4e/5x5_reduce"
  top: "inception_4e/5x5"
  param {
    lr_mult: 1
    decay_mult: 1
  }
  param {
    lr_mult: 2
    decay_mult: 0
  }
  convolution_param {
    num_output: 128
    pad: 2
    kernel_size: 5
    weight_filler {
      type: "xavier"
      std: 0.03
    }
    bias_filler {
      type: "constant"
      value: 0.2
    }
  }
}
layer {
  name: "inception_4e/relu_5x5"
  type: "ReLU"
  bottom: "inception_4e/5x5"
  top: "inception_4e/5x5"
}
layer {
  name: "inception_4e/pool"
  type: "Pooling"
  bottom: "inception_4d/output"
  top: "inception_4e/pool"
  pooling_param {
    pool: MAX
    kernel_size: 3
    stride: 1
    pad: 1
  }
}
layer {
  name: "inception_4e/pool_proj"
  type: "Convolution"
  bottom: "inception_4e/pool"
  top: "inception_4e/pool_proj"
  param {
    lr_mult: 1
    decay_mult: 1
  }
  param {
    lr_mult: 2
    decay_mult: 0
  }
  convolution_param {
    num_output: 128
    kernel_size: 1
    weight_filler {
      type: "xavier"
      std: 0.1
    }
    bias_filler {
      type: "constant"
      value: 0.2
    }
  }
}
layer {
  name: "inception_4e/relu_pool_proj"
  type: "ReLU"
  bottom: "inception_4e/pool_proj"
  top: "inception_4e/pool_proj"
}
layer {
  name: "inception_4e/output"
  type: "Concat"
  bottom: "inception_4e/1x1"
  bottom: "inception_4e/3x3"
  bottom: "inception_4e/5x5"
  bottom: "inception_4e/pool_proj"
  top: "inception_4e/output"
}
layer {
  name: "pool4/3x3_s2"
  type: "Pooling"
  bottom: "inception_4e/output"
  top: "pool4/3x3_s2"
  pooling_param {
    pool: MAX
    kernel_size: 3
    stride: 2
  }
}
layer {
  name: "inception_5a/1x1"
  type: "Convolution"
  bottom: "pool4/3x3_s2"
  top: "inception_5a/1x1"
  param {
    lr_mult: 1
    decay_mult: 1
  }
  param {
    lr_mult: 2
    decay_mult: 0
  }
  convolution_param {
    num_output: 256
    kernel_size: 1
    weight_filler {
      type: "xavier"
      std: 0.03
    }
    bias_filler {
      type: "constant"
      value: 0.2
    }
  }
}
layer {
  name: "inception_5a/relu_1x1"
  type: "ReLU"
  bottom: "inception_5a/1x1"
  top: "inception_5a/1x1"
}
layer {
  name: "inception_5a/3x3_reduce"
  type: "Convolution"
  bottom: "pool4/3x3_s2"
  top: "inception_5a/3x3_reduce"
  param {
    lr_mult: 1
    decay_mult: 1
  }
  param {
    lr_mult: 2
    decay_mult: 0
  }
  convolution_param {
    num_output: 160
    kernel_size: 1
    weight_filler {
      type: "xavier"
      std: 0.09
    }
    bias_filler {
      type: "constant"
      value: 0.2
    }
  }
}
layer {
  name: "inception_5a/relu_3x3_reduce"
  type: "ReLU"
  bottom: "inception_5a/3x3_reduce"
  top: "inception_5a/3x3_reduce"
}
layer {
  name: "inception_5a/3x3"
  type: "Convolution"
  bottom: "inception_5a/3x3_reduce"
  top: "inception_5a/3x3"
  param {
    lr_mult: 1
    decay_mult: 1
  }
  param {
    lr_mult: 2
    decay_mult: 0
  }
  convolution_param {
    num_output: 320
    pad: 1
    kernel_size: 3
    weight_filler {
      type: "xavier"
      std: 0.03
    }
    bias_filler {
      type: "constant"
      value: 0.2
    }
  }
}
layer {
  name: "inception_5a/relu_3x3"
  type: "ReLU"
  bottom: "inception_5a/3x3"
  top: "inception_5a/3x3"
}
layer {
  name: "inception_5a/5x5_reduce"
  type: "Convolution"
  bottom: "pool4/3x3_s2"
  top: "inception_5a/5x5_reduce"
  param {
    lr_mult: 1
    decay_mult: 1
  }
  param {
    lr_mult: 2
    decay_mult: 0
  }
  convolution_param {
    num_output: 32
    kernel_size: 1
    weight_filler {
      type: "xavier"
      std: 0.2
    }
    bias_filler {
      type: "constant"
      value: 0.2
    }
I0714 21:44:43.819313  7820 layer_factory.hpp:77] Creating layer data
I0714 21:44:43.819345  7820 net.cpp:91] Creating Layer data
I0714 21:44:43.819357  7820 net.cpp:399] data -> data
I0714 21:44:43.828212  7824 net.cpp:49] Initializing net from parameters: 
name: "GoogleNet"
state {
  phase: TEST
}
layer {
  name: "data"
  type: "Input"
  top: "data"
  input_param {
    shape {
      dim: 10
      dim: 3
      dim: 224
      dim: 224
    }
  }
}
layer {
  name: "conv1/7x7_s2"
  type: "Convolution"
  bottom: "data"
  top: "conv1/7x7_s2"
  param {
    lr_mult: 1
    decay_mult: 1
  }
  param {
    lr_mult: 2
    decay_mult: 0
  }
  convolution_param {
    num_output: 64
    pad: 3
    kernel_size: 7
    stride: 2
    weight_filler {
      type: "xavier"
      std: 0.1
    }
    bias_filler {
      type: "constant"
      value: 0.2
    }
  }
}
layer {
  name: "conv1/relu_7x7"
  type: "ReLU"
  bottom: "conv1/7x7_s2"
  top: "conv1/7x7_s2"
}
layer {
  name: "pool1/3x3_s2"
  type: "Pooling"
  bottom: "conv1/7x7_s2"
  top: "pool1/3x3_s2"
  pooling_param {
    pool: MAX
    kernel_size: 3
    stride: 2
  }
}
layer {
  name: "pool1/norm1"
  type: "LRN"
  bottom: "pool1/3x3_s2"
  top: "pool1/norm1"
  lrn_param {
    local_size: 5
    alpha: 0.0001
    beta: 0.75
  }
}
layer {
  name: "conv2/3x3_reduce"
  type: "Convolution"
  bottom: "pool1/norm1"
  top: "conv2/3x3_reduce"
  param {
    lr_mult: 1
    decay_mult: 1
  }
  param {
    lr_mult: 2
    decay_mult: 0
  }
  convolution_param {
    num_output: 64
    kernel_size: 1
    weight_filler {
      type: "xavier"
      std: 0.1
    }
    bias_filler {
      type: "constant"
      value: 0.2
    }
  }
}
layer {
  name: "conv2/relu_3x3_reduce"
  type: "ReLU"
  bottom: "conv2/3x3_reduce"
  top: "conv2/3x3_reduce"
}
layer {
  name: "conv2/3x3"
  type: "Convolution"
  bottom: "conv2/3x3_reduce"
  top: "conv2/3x3"
  param {
    lr_mult: 1
    decay_mult: 1
  }
  param {
    lr_mult: 2
    decay_mult: 0
  }
  convolution_param {
    num_output: 192
    pad: 1
    kernel_size: 3
    weight_filler {
      type: "xavier"
      std: 0.03
    }
    bias_filler {
      type: "constant"
      value: 0.2
    }
  }
}
layer {
  name: "conv2/relu_3x3"
  type: "ReLU"
  bottom: "conv2/3x3"
  top: "conv2/3x3"
}
layer {
  name: "conv2/norm2"
  type: "LRN"
  bottom: "conv2/3x3"
  top: "conv2/norm2"
  lrn_param {
    local_size: 5
    alpha: 0.0001
    beta: 0.75
  }
}
layer {
  name: "pool2/3x3_s2"
  type: "Pooling"
  bottom: "conv2/norm2"
  top: "pool2/3x3_s2"
  pooling_param {
    pool: MAX
    kernel_size: 3
    stride: 2
  }
}
layer {
  name: "inception_3a/1x1"
  type: "Convolution"
  bottom: "pool2/3x3_s2"
  top: "inception_3a/1x1"
  param {
    lr_mult: 1
    decay_mult: 1
  }
  param {
    lr_mult: 2
    decay_mult: 0
  }
  convolution_param {
    num_output: 64
    kernel_size: 1
    weight_filler {
      type: "xavier"
      std: 0.03
    }
    bias_filler {
      type: "constant"
      value: 0.2
    }
  }
}
layer {
  name: "inception_3a/relu_1x1"
  type: "ReLU"
  bottom: "inception_3a/1x1"
  top: "inception_3a/1x1"
}
layer {
  name: "inception_3a/3x3_reduce"
  type: "Convolution"
  bottom: "pool2/3x3_s2"
  top: "inception_3a/3x3_reduce"
  param {
    lr_mult: 1
    decay_mult: 1
  }
  param {
    lr_mult: 2
    decay_mult: 0
  }
  convolution_param {
    num_output: 96
    kernel_size: 1
    weight_filler {
      type: "xavier"
      std: 0.09
    }
    bias_filler {
      type: "constant"
      value: 0.2
    }
  }
}
layer {
  name: "inception_3a/relu_3x3_reduce"
  type: "ReLU"
  bottom: "inception_3a/3x3_reduce"
  top: "inception_3a/3x3_reduce"
}
layer {
  name: "inception_3a/3x3"
  type: "Convolution"
  bottom: "inception_3a/3x3_reduce"
  top: "inception_3a/3x3"
  param {
    lr_mult: 1
    decay_mult: 1
  }
  param {
    lr_mult: 2
    decay_mult: 0
  }
  convolution_param {
    num_output: 128
    pad: 1
    kernel_size: 3
    weight_filler {
      type: "xavier"
      std: 0.03
    }
    bias_filler {
      type: "constant"
      value: 0.2
    }
  }
}
layer {
  name: "inception_3a/relu_3x3"
  type: "ReLU"
  bottom: "inception_3a/3x3"
  top: "inception_3a/3x3"
}
layer {
  name: "inception_3a/5x5_reduce"
  type: "Convolution"
  bottom: "pool2/3x3_s2"
  top: "inception_3a/5x5_reduce"
  param {
    lr_mult: 1
    decay_mult: 1
  }
  param {
    lr_mult: 2
    decay_mult: 0
  }
  convolution_param {
    num_output: 16
    kernel_size: 1
    weight_filler {
      type: "xavier"
      std: 0.2
    }
    bias_filler {
      type: "constant"
      value: 0.2
    }
  }
}
layer {
  name: "inception_3a/relu_5x5_reduce"
  type: "ReLU"
  bottom: "inception_3a/5x5_reduce"
  top: "inception_3a/5x5_reduce"
}
layer {
  name: "inception_3a/5x5"
  type: "Convolution"
  bottom: "inception_3a/5x5_reduce"
  top: "inception_3a/5x5"
  param {
    lr_mult: 1
    decay_mult: 1
  }
  param {
    lr_mult: 2
    decay_mult: 0
  }
  convolution_param {
    num_output: 32
    pad: 2
    kernel_size: 5
    weight_filler {
      type: "xavier"
      std: 0.03
    }
    bias_filler {
      type: "constant"
      value: 0.2
    }
  }
}
layer {
  name: "inception_3a/relu_5x5"
  type: "ReLU"
  bottom: "inception_3a/5x5"
  top: "inception_3a/5x5"
}
layer {
  name: "inception_3a/pool"
  type: "Pooling"
  bottom: "pool2/3x3_s2"
  top: "inception_3a/pool"
  pooling_param {
    pool: MAX
    kernel_size: 3
    stride: 1
    pad: 1
  }
}
layer {
  name: "inception_3a/pool_proj"
  type: "Convolution"
  bottom: "inception_3a/pool"
  top: "inception_3a/pool_proj"
  param {
    lr_mult: 1
    decay_mult: 1
  }
  param {
    lr_mult: 2
    decay_mult: 0
  }
  convolution_param {
    num_output: 32
    kernel_size: 1
    weight_filler {
      type: "xavier"
      std: 0.1
    }
    bias_filler {
      type: "constant"
      value: 0.2
    }
  }
}
layer {
  name: "inception_3a/relu_pool_proj"
  type: "ReLU"
  bottom: "inception_3a/pool_proj"
  top: "inception_3a/pool_proj"
}
layer {
  name: "inception_3a/output"
  type: "Concat"
  bottom: "inception_3a/1x1"
  bottom: "inception_3a/3x3"
  bottom: "inception_3a/5x5"
  bottom: "inception_3a/pool_proj"
  top: "inception_3a/output"
}
layer {
  name: "inception_3b/1x1"
  type: "Convolution"
  bottom: "inception_3a/output"
  top: "inception_3b/1x1"
  param {
    lr_mult: 1
    decay_mult: 1
  }
  param {
    lr_mult: 2
    decay_mult: 0
  }
  convolution_param {
    num_output: 128
    kernel_size: 1
    weight_filler {
      type: "xavier"
      std: 0.03
    }
    bias_filler {
      type: "constant"
      value: 0.2
    }
  }
}
layer {
  name: "inception_3b/relu_1x1"
  type: "ReLU"
  bottom: "inception_3b/1x1"
  top: "inception_3b/1x1"
}
layer {
  name: "inception_3b/3x3_reduce"
  type: "Convolution"
  bottom: "inception_3a/output"
  top: "inception_3b/3x3_reduce"
  param {
    lr_mult: 1
    decay_mult: 1
  }
  param {
    lr_mult: 2
    decay_mult: 0
  }
  convolution_param {
    num_output: 128
    kernel_size: 1
    weight_filler {
      type: "xavier"
      std: 0.09
    }
    bias_filler {
      type: "constant"
      value: 0.2
    }
  }
}
layer {
  name: "inception_3b/relu_3x3_reduce"
  type: "ReLU"
  bottom: "inception_3b/3x3_reduce"
  top: "inception_3b/3x3_reduce"
}
layer {
  name: "inception_3b/3x3"
  type: "Convolution"
  bottom: "inception_3b/3x3_reduce"
  top: "inception_3b/3x3"
  param {
    lr_mult: 1
    decay_mult: 1
  }
  param {
    lr_mult: 2
    decay_mult: 0
  }
  convolution_param {
    num_output: 192
    pad: 1
    kernel_size: 3
    weight_filler {
      type: "xavier"
      std: 0.03
    }
    bias_filler {
      type: "constant"
      value: 0.2
    }
  }
}
layer {
  name: "inception_3b/relu_3x3"
  type: "ReLU"
  bottom: "inception_3b/3x3"
  top: "inception_3b/3x3"
}
layer {
  name: "inception_3b/5x5_reduce"
  type: "Convolution"
  bottom: "inception_3a/output"
  top: "inception_3b/5x5_reduce"
  param {
    lr_mult: 1
    decay_mult: 1
  }
  param {
    lr_mult: 2
    decay_mult: 0
  }
  convolution_param {
    num_output: 32
    kernel_size: 1
    weight_filler {
      type: "xavier"
      std: 0.2
    }
    bias_filler {
      type: "constant"
      value: 0.2
    }
  }
}
layer {
  name: "inception_3b/relu_5x5_reduce"
  type: "ReLU"
  bottom: "inception_3b/5x5_reduce"
  top: "inception_3b/5x5_reduce"
}
layer {
  name: "inception_3b/5x5"
  type: "Convolution"
  bottom: "inception_3b/5x5_reduce"
  top: "inception_3b/5x5"
  param {
    lr_mult: 1
    decay_mult: 1
  }
  param {
    lr_mult: 2
    decay_mult: 0
  }
  convolution_param {
    num_output: 96
    pad: 2
    kernel_size: 5
    weight_filler {
      type: "xavier"
      std: 0.03
    }
    bias_filler {
      type: "constant"
      value: 0.2
    }
  }
}
layer {
  name: "inception_3b/relu_5x5"
  type: "ReLU"
  bottom: "inception_3b/5x5"
  top: "inception_3b/5x5"
}
layer {
  name: "inception_3b/pool"
  type: "Pooling"
  bottom: "inception_3a/output"
  top: "inception_3b/pool"
  pooling_param {
    pool: MAX
    kernel_size: 3
    stride: 1
    pad: 1
  }
}
layer {
  name: "inception_3b/pool_proj"
  type: "Convolution"
  bottom: "inception_3b/pool"
  top: "inception_3b/pool_proj"
  param {
    lr_mult: 1
    decay_mult: 1
  }
  param {
    lr_mult: 2
    decay_mult: 0
  }
  convolution_param {
    num_output: 64
    kernel_size: 1
    weight_filler {
      type: "xavier"
      std: 0.1
    }
    bias_filler {
      type: "constant"
      value: 0.2
    }
  }
}
layer {
  name: "inception_3b/relu_pool_proj"
  type: "ReLU"
  bottom: "inception_3b/pool_proj"
  top: "inception_3b/pool_proj"
}
layer {
  name: "inception_3b/output"
  type: "Concat"
  bottom: "inception_3b/1x1"
  bottom: "inception_3b/3x3"
  bottom: "inception_3b/5x5"
  bottom: "inception_3b/pool_proj"
  top: "inception_3b/output"
}
layer {
  name: "pool3/3x3_s2"
  type: "Pooling"
  bottom: "inception_3b/output"
  top: "pool3/3x3_s2"
  pooling_param {
    pool: MAX
    kernel_size: 3
    stride: 2
  }
}
layer {
  name: "inception_4a/1x1"
  type: "Convolution"
  bottom: "pool3/3x3_s2"
  top: "inception_4a/1x1"
  param {
    lr_mult: 1
    decay_mult: 1
  }
  param {
    lr_mult: 2
    decay_mult: 0
  }
  convolution_param {
    num_output: 192
    kernel_size: 1
    weight_filler {
      type: "xavier"
      std: 0.03
    }
    bias_filler {
      type: "constant"
      value: 0.2
    }
  }
}
layer {
  name: "inception_4a/relu_1x1"
  type: "ReLU"
  bottom: "inception_4a/1x1"
  top: "inception_4a/1x1"
}
layer {
  name: "inception_4a/3x3_reduce"
  type: "Convolution"
  bottom: "pool3/3x3_s2"
  top: "inception_4a/3x3_reduce"
  param {
    lr_mult: 1
    decay_mult: 1
  }
  param {
    lr_mult: 2
    decay_mult: 0
  }
  convolution_param {
    num_output: 96
    kernel_size: 1
    weight_filler {
      type: "xavier"
      std: 0.09
    }
    bias_filler {
      type: "constant"
      value: 0.2
    }
  }
}
layer {
  name: "inception_4a/relu_3x3_reduce"
  type: "ReLU"
  bottom: "inception_4a/3x3_reduce"
  top: "inception_4a/3x3_reduce"
}
layer {
  name: "inception_4a/3x3"
  type: "Convolution"
  bottom: "inception_4a/3x3_reduce"
  top: "inception_4a/3x3"
  param {
    lr_mult: 1
    decay_mult: 1
  }
  param {
    lr_mult: 2
    decay_mult: 0
  }
  convolution_param {
    num_output: 208
    pad: 1
    kernel_size: 3
    weight_filler {
      type: "xavier"
      std: 0.03
    }
    bias_filler {
      type: "constant"
      value: 0.2
    }
  }
}
layer {
  name: "inception_4a/relu_3x3"
  type: "ReLU"
  bottom: "inception_4a/3x3"
  top: "inception_4a/3x3"
}
layer {
  name: "inception_4a/5x5_reduce"
  type: "Convolution"
  bottom: "pool3/3x3_s2"
  top: "inception_4a/5x5_reduce"
  param {
    lr_mult: 1
    decay_mult: 1
  }
  param {
    lr_mult: 2
    decay_mult: 0
  }
  convolution_param {
    num_output: 16
    kernel_size: 1
    weight_filler {
      type: "xavier"
      std: 0.2
    }
    bias_filler {
      type: "constant"
      value: 0.2
    }
  }
}
layer {
  name: "inception_4a/relu_5x5_reduce"
  type: "ReLU"
  bottom: "inception_4a/5x5_reduce"
  top: "inception_4a/5x5_reduce"
}
layer {
  name: "inception_4a/5x5"
  type: "Convolution"
  bottom: "inception_4a/5x5_reduce"
  top: "inception_4a/5x5"
  param {
    lr_mult: 1
    decay_mult: 1
  }
  param {
    lr_mult: 2
    decay_mult: 0
  }
  convolution_param {
    num_output: 48
    pad: 2
    kernel_size: 5
    weight_filler {
      type: "xavier"
      std: 0.03
    }
    bias_filler {
      type: "constant"
      value: 0.2
    }
  }
}
layer {
  name: "inception_4a/relu_5x5"
  type: "ReLU"
  bottom: "inception_4a/5x5"
  top: "inception_4a/5x5"
}
layer {
  name: "inception_4a/pool"
  type: "Pooling"
  bottom: "pool3/3x3_s2"
  top: "inception_4a/pool"
  pooling_param {
    pool: MAX
    kernel_size: 3
    stride: 1
    pad: 1
  }
}
layer {
  name: "inception_4a/pool_proj"
  type: "Convolution"
  bottom: "inception_4a/pool"
  top: "inception_4a/pool_proj"
  param {
    lr_mult: 1
    decay_mult: 1
  }
  param {
    lr_mult: 2
    decay_mult: 0
  }
  convolution_param {
    num_output: 64
    kernel_size: 1
    weight_filler {
      type: "xavier"
      std: 0.1
    }
    bias_filler {
      type: "constant"
      value: 0.2
    }
  }
}
layer {
  name: "inception_4a/relu_pool_proj"
  type: "ReLU"
  bottom: "inception_4a/pool_proj"
  top: "inception_4a/pool_proj"
}
layer {
  name: "inception_4a/output"
  type: "Concat"
  bottom: "inception_4a/1x1"
  bottom: "inception_4a/3x3"
  bottom: "inception_4a/5x5"
  bottom: "inception_4a/pool_proj"
  top: "inception_4a/output"
}
layer {
  name: "inception_4b/1x1"
  type: "Convolution"
  bottom: "inception_4a/output"
  top: "inception_4b/1x1"
  param {
    lr_mult: 1
    decay_mult: 1
  }
  param {
    lr_mult: 2
    decay_mult: 0
  }
  convolution_param {
    num_output: 160
    kernel_size: 1
    weight_filler {
      type: "xavier"
      std: 0.03
    }
    bias_filler {
      type: "constant"
      value: 0.2
    }
  }
}
layer {
  name: "inception_4b/relu_1x1"
  type: "ReLU"
  bottom: "inception_4b/1x1"
  top: "inception_4b/1x1"
}
layer {
  name: "inception_4b/3x3_reduce"
  type: "Convolution"
  bottom: "inception_4a/output"
  top: "inception_4b/3x3_reduce"
  param {
    lr_mult: 1
    decay_mult: 1
  }
  param {
    lr_mult: 2
    decay_mult: 0
  }
  convolution_param {
    num_output: 112
    kernel_size: 1
    weight_filler {
      type: "xavier"
      std: 0.09
    }
    bias_filler {
      type: "constant"
      value: 0.2
    }
  }
}
layer {
  name: "inception_4b/relu_3x3_reduce"
  type: "ReLU"
  bottom: "inception_4b/3x3_reduce"
  top: "inception_4b/3x3_reduce"
}
layer {
  name: "inception_4b/3x3"
  type: "Convolution"
  bottom: "inception_4b/3x3_reduce"
  top: "inception_4b/3x3"
  param {
    lr_mult: 1
    decay_mult: 1
  }
  param {
    lr_mult: 2
    decay_mult: 0
  }
  convolution_param {
    num_output: 224
    pad: 1
    kernel_size: 3
    weight_filler {
      type: "xavier"
      std: 0.03
    }
    bias_filler {
      type: "constant"
      value: 0.2
    }
  }
}
layer {
  name: "inception_4b/relu_3x3"
  type: "ReLU"
  bottom: "inception_4b/3x3"
  top: "inception_4b/3x3"
}
layer {
  name: "inception_4b/5x5_reduce"
  type: "Convolution"
  bottom: "inception_4a/output"
  top: "inception_4b/5x5_reduce"
  param {
    lr_mult: 1
    decay_mult: 1
  }
  param {
    lr_mult: 2
    decay_mult: 0
  }
  convolution_param {
    num_output: 24
    kernel_size: 1
    weight_filler {
      type: "xavier"
      std: 0.2
    }
    bias_filler {
      type: "constant"
      value: 0.2
    }
  }
}
layer {
  name: "inception_4b/relu_5x5_reduce"
  type: "ReLU"
  bottom: "inception_4b/5x5_reduce"
  top: "inception_4b/5x5_reduce"
}
layer {
  name: "inception_4b/5x5"
  type: "Convolution"
  bottom: "inception_4b/5x5_reduce"
  top: "inception_4b/5x5"
  param {
    lr_mult: 1
    decay_mult: 1
  }
  param {
    lr_mult: 2
    decay_mult: 0
  }
  convolution_param {
    num_output: 64
    pad: 2
    kernel_size: 5
    weight_filler {
      type: "xavier"
      std: 0.03
    }
    bias_filler {
      type: "constant"
      value: 0.2
    }
  }
}
layer {
  name: "inception_4b/relu_5x5"
  type: "ReLU"
  bottom: "inception_4b/5x5"
  top: "inception_4b/5x5"
}
layer {
  name: "inception_4b/pool"
  type: "Pooling"
  bottom: "inception_4a/output"
  top: "inception_4b/pool"
  pooling_param {
    pool: MAX
    kernel_size: 3
    stride: 1
    pad: 1
  }
}
layer {
  name: "inception_4b/pool_proj"
  type: "Convolution"
  bottom: "inception_4b/pool"
  top: "inception_4b/pool_proj"
  param {
    lr_mult: 1
    decay_mult: 1
  }
  param {
    lr_mult: 2
    decay_mult: 0
  }
  convolution_param {
    num_output: 64
    kernel_size: 1
    weight_filler {
      type: "xavier"
      std: 0.1
    }
    bias_filler {
      type: "constant"
      value: 0.2
    }
  }
}
layer {
  name: "inception_4b/relu_pool_proj"
  type: "ReLU"
  bottom: "inception_4b/pool_proj"
  top: "inception_4b/pool_proj"
}
layer {
  name: "inception_4b/output"
  type: "Concat"
  bottom: "inception_4b/1x1"
  bottom: "inception_4b/3x3"
  bottom: "inception_4b/5x5"
  bottom: "inception_4b/pool_proj"
  top: "inception_4b/output"
}
layer {
  name: "inception_4c/1x1"
  type: "Convolution"
  bottom: "inception_4b/output"
  top: "inception_4c/1x1"
  param {
    lr_mult: 1
    decay_mult: 1
  }
  param {
    lr_mult: 2
    decay_mult: 0
  }
  convolution_param {
    num_output: 128
    kernel_size: 1
    weight_filler {
      type: "xavier"
      std: 0.03
    }
    bias_filler {
      type: "constant"
      value: 0.2
    }
  }
}
layer {
  name: "inception_4c/relu_1x1"
  type: "ReLU"
  bottom: "inception_4c/1x1"
  top: "inception_4c/1x1"
}
layer {
  name: "inception_4c/3x3_reduce"
  type: "Convolution"
  bottom: "inception_4b/output"
  top: "inception_4c/3x3_reduce"
  param {
    lr_mult: 1
    decay_mult: 1
  }
  param {
    lr_mult: 2
    decay_mult: 0
  }
  convolution_param {
    num_output: 128
    kernel_size: 1
    weight_filler {
      type: "xavier"
      std: 0.09
    }
    bias_filler {
      type: "constant"
      value: 0.2
    }
  }
}
layer {
  name: "inception_4c/relu_3x3_reduce"
  type: "ReLU"
  bottom: "inception_4c/3x3_reduce"
  top: "inception_4c/3x3_reduce"
}
layer {
  name: "inception_4c/3x3"
  type: "Convolution"
  bottom: "inception_4c/3x3_reduce"
  top: "inception_4c/3x3"
  param {
    lr_mult: 1
    decay_mult: 1
  }
  param {
    lr_mult: 2
    decay_mult: 0
  }
  convolution_param {
    num_output: 256
    pad: 1
    kernel_size: 3
    weight_filler {
      type: "xavier"
      std: 0.03
    }
    bias_filler {
      type: "constant"
      value: 0.2
    }
  }
}
layer {
  name: "inception_4c/relu_3x3"
  type: "ReLU"
  bottom: "inception_4c/3x3"
  top: "inception_4c/3x3"
}
layer {
  name: "inception_4c/5x5_reduce"
  type: "Convolution"
  bottom: "inception_4b/output"
  top: "inception_4c/5x5_reduce"
  param {
    lr_mult: 1
    decay_mult: 1
  }
  param {
    lr_mult: 2
    decay_mult: 0
  }
  convolution_param {
    num_output: 24
    kernel_size: 1
    weight_filler {
      type: "xavier"
      std: 0.2
    }
    bias_filler {
      type: "constant"
      value: 0.2
    }
  }
}
layer {
  name: "inception_4c/relu_5x5_reduce"
  type: "ReLU"
  bottom: "inception_4c/5x5_reduce"
  top: "inception_4c/5x5_reduce"
}
layer {
  name: "inception_4c/5x5"
  type: "Convolution"
  bottom: "inception_4c/5x5_reduce"
  top: "inception_4c/5x5"
  param {
    lr_mult: 1
    decay_mult: 1
  }
  param {
    lr_mult: 2
    decay_mult: 0
  }
  convolution_param {
    num_output: 64
    pad: 2
    kernel_size: 5
    weight_filler {
      type: "xavier"
      std: 0.03
    }
    bias_filler {
      type: "constant"
      value: 0.2
    }
  }
}
layer {
  name: "inception_4c/relu_5x5"
  type: "ReLU"
  bottom: "inception_4c/5x5"
  top: "inception_4c/5x5"
}
layer {
  name: "inception_4c/pool"
  type: "Pooling"
  bottom: "inception_4b/output"
  top: "inception_4c/pool"
  pooling_param {
    pool: MAX
    kernel_size: 3
    stride: 1
    pad: 1
  }
}
layer {
  name: "inception_4c/pool_proj"
  type: "Convolution"
  bottom: "inception_4c/pool"
  top: "inception_4c/pool_proj"
  param {
    lr_mult: 1
    decay_mult: 1
  }
  param {
    lr_mult: 2
    decay_mult: 0
  }
  convolution_param {
    num_output: 64
    kernel_size: 1
    weight_filler {
      type: "xavier"
      std: 0.1
    }
    bias_filler {
      type: "constant"
      value: 0.2
    }
  }
}
layer {
  name: "inception_4c/relu_pool_proj"
  type: "ReLU"
  bottom: "inception_4c/pool_proj"
  top: "inception_4c/pool_proj"
}
layer {
  name: "inception_4c/output"
  type: "Concat"
  bottom: "inception_4c/1x1"
  bottom: "inception_4c/3x3"
  bottom: "inception_4c/5x5"
  bottom: "inception_4c/pool_proj"
  top: "inception_4c/output"
}
layer {
  name: "inception_4d/1x1"
  type: "Convolution"
  bottom: "inception_4c/output"
  top: "inception_4d/1x1"
  param {
    lr_mult: 1
    decay_mult: 1
  }
  param {
    lr_mult: 2
    decay_mult: 0
  }
  convolution_param {
    num_output: 112
    kernel_size: 1
    weight_filler {
      type: "xavier"
      std: 0.03
    }
    bias_filler {
      type: "constant"
      value: 0.2
    }
  }
}
layer {
  name: "inception_4d/relu_1x1"
  type: "ReLU"
  bottom: "inception_4d/1x1"
  top: "inception_4d/1x1"
}
layer {
  name: "inception_4d/3x3_reduce"
  type: "Convolution"
  bottom: "inception_4c/output"
  top: "inception_4d/3x3_reduce"
  param {
    lr_mult: 1
    decay_mult: 1
  }
  param {
    lr_mult: 2
    decay_mult: 0
  }
  convolution_param {
    num_output: 144
    kernel_size: 1
    weight_filler {
      type: "xavier"
      std: 0.09
    }
    bias_filler {
      type: "constant"
      value: 0.2
    }
  }
}
layer {
  name: "inception_4d/relu_3x3_reduce"
  type: "ReLU"
  bottom: "inception_4d/3x3_reduce"
  top: "inception_4d/3x3_reduce"
}
layer {
  name: "inception_4d/3x3"
  type: "Convolution"
  bottom: "inception_4d/3x3_reduce"
  top: "inception_4d/3x3"
  param {
    lr_mult: 1
    decay_mult: 1
  }
  param {
    lr_mult: 2
    decay_mult: 0
  }
  convolution_param {
    num_output: 288
    pad: 1
    kernel_size: 3
    weight_filler {
      type: "xavier"
      std: 0.03
    }
    bias_filler {
      type: "constant"
      value: 0.2
    }
  }
}
layer {
  name: "inception_4d/relu_3x3"
  type: "ReLU"
  bottom: "inception_4d/3x3"
  top: "inception_4d/3x3"
}
layer {
  name: "inception_4d/5x5_reduce"
  type: "Convolution"
  bottom: "inception_4c/output"
  top: "inception_4d/5x5_reduce"
  param {
    lr_mult: 1
    decay_mult: 1
  }
  param {
    lr_mult: 2
    decay_mult: 0
  }
  convolution_param {
    num_output: 32
    kernel_size: 1
    weight_filler {
      type: "xavier"
      std: 0.2
    }
    bias_filler {
      type: "constant"
      value: 0.2
    }
  }
}
layer {
  name: "inception_4d/relu_5x5_reduce"
  type: "ReLU"
  bottom: "inception_4d/5x5_reduce"
  top: "inception_4d/5x5_reduce"
}
layer {
  name: "inception_4d/5x5"
  type: "Convolution"
  bottom: "inception_4d/5x5_reduce"
  top: "inception_4d/5x5"
  param {
    lr_mult: 1
    decay_mult: 1
  }
  param {
    lr_mult: 2
    decay_mult: 0
  }
  convolution_param {
    num_output: 64
    pad: 2
    kernel_size: 5
    weight_filler {
      type: "xavier"
      std: 0.03
    }
    bias_filler {
      type: "constant"
      value: 0.2
    }
  }
}
layer {
  name: "inception_4d/relu_5x5"
  type: "ReLU"
  bottom: "inception_4d/5x5"
  top: "inception_4d/5x5"
}
layer {
  name: "inception_4d/pool"
  type: "Pooling"
  bottom: "inception_4c/output"
  top: "inception_4d/pool"
  pooling_param {
    pool: MAX
    kernel_size: 3
    stride: 1
    pad: 1
  }
}
layer {
  name: "inception_4d/pool_proj"
  type: "Convolution"
  bottom: "inception_4d/pool"
  top: "inception_4d/pool_proj"
  param {
    lr_mult: 1
    decay_mult: 1
  }
  param {
    lr_mult: 2
    decay_mult: 0
  }
  convolution_param {
    num_output: 64
    kernel_size: 1
    weight_filler {
      type: "xavier"
      std: 0.1
    }
    bias_filler {
      type: "constant"
      value: 0.2
    }
  }
}
layer {
  name: "inception_4d/relu_pool_proj"
  type: "ReLU"
  bottom: "inception_4d/pool_proj"
  top: "inception_4d/pool_proj"
}
layer {
  name: "inception_4d/output"
  type: "Concat"
  bottom: "inception_4d/1x1"
  bottom: "inception_4d/3x3"
  bottom: "inception_4d/5x5"
  bottom: "inception_4d/pool_proj"
  top: "inception_4d/output"
}
layer {
  name: "inception_4e/1x1"
  type: "Convolution"
  bottom: "inception_4d/output"
  top: "inception_4e/1x1"
  param {
    lr_mult: 1
    decay_mult: 1
  }
  param {
    lr_mult: 2
    decay_mult: 0
  }
  convolution_param {
    num_output: 256
    kernel_size: 1
    weight_filler {
      type: "xavier"
      std: 0.03
    }
    bias_filler {
      type: "constant"
      value: 0.2
    }
  }
}
layer {
  name: "inception_4e/relu_1x1"
  type: "ReLU"
  bottom: "inception_4e/1x1"
  top: "inception_4e/1x1"
}
layer {
  name: "inception_4e/3x3_reduce"
  type: "Convolution"
  bottom: "inception_4d/output"
  top: "inception_4e/3x3_reduce"
  param {
    lr_mult: 1
    decay_mult: 1
  }
  param {
    lr_mult: 2
    decay_mult: 0
  }
  convolution_param {
    num_output: 160
    kernel_size: 1
    weight_filler {
      type: "xavier"
      std: 0.09
    }
    bias_filler {
      type: "constant"
      value: 0.2
    }
  }
}
layer {
  name: "inception_4e/relu_3x3_reduce"
  type: "ReLU"
  bottom: "inception_4e/3x3_reduce"
  top: "inception_4e/3x3_reduce"
}
layer {
  name: "inception_4e/3x3"
  type: "Convolution"
  bottom: "inception_4e/3x3_reduce"
  top: "inception_4e/3x3"
  param {
    lr_mult: 1
    decay_mult: 1
  }
  param {
    lr_mult: 2
    decay_mult: 0
  }
  convolution_param {
    num_output: 320
    pad: 1
    kernel_size: 3
    weight_filler {
      type: "xavier"
      std: 0.03
    }
    bias_filler {
      type: "constant"
      value: 0.2
    }
  }
}
layer {
  name: "inception_4e/relu_3x3"
  type: "ReLU"
  bottom: "inception_4e/3x3"
  top: "inception_4e/3x3"
}
layer {
  name: "inception_4e/5x5_reduce"
  type: "Convolution"
  bottom: "inception_4d/output"
  top: "inception_4e/5x5_reduce"
  param {
    lr_mult: 1
    decay_mult: 1
  }
  param {
    lr_mult: 2
    decay_mult: 0
  }
  convolution_param {
    num_output: 32
    kernel_size: 1
    weight_filler {
      type: "xavier"
      std: 0.2
    }
    bias_filler {
      type: "constant"
      value: 0.2
    }
  }
}
layer {
  name: "inception_4e/relu_5x5_reduce"
  type: "ReLU"
  bottom: "inception_4e/5x5_reduce"
  top: "inception_4e/5x5_reduce"
}
layer {
  name: "inception_4e/5x5"
  type: "Convolution"
  bottom: "inception_4e/5x5_reduce"
  top: "inception_4e/5x5"
  param {
    lr_mult: 1
    decay_mult: 1
  }
  param {
    lr_mult: 2
    decay_mult: 0
  }
  convolution_param {
    num_output: 128
    pad: 2
    kernel_size: 5
    weight_filler {
      type: "xavier"
      std: 0.03
    }
    bias_filler {
      type: "constant"
      value: 0.2
    }
  }
}
layer {
  name: "inception_4e/relu_5x5"
  type: "ReLU"
  bottom: "inception_4e/5x5"
  top: "inception_4e/5x5"
}
layer {
  name: "inception_4e/pool"
  type: "Pooling"
  bottom: "inception_4d/output"
  top: "inception_4e/pool"
  pooling_param {
    pool: MAX
    kernel_size: 3
    stride: 1
    pad: 1
  }
}
layer {
  name: "inception_4e/pool_proj"
  type: "Convolution"
  bottom: "inception_4e/pool"
  top: "inception_4e/pool_proj"
  param {
    lr_mult: 1
    decay_mult: 1
  }
  param {
    lr_mult: 2
    decay_mult: 0
  }
  convolution_param {
    num_output: 128
    kernel_size: 1
    weight_filler {
      type: "xavier"
      std: 0.1
    }
    bias_filler {
      type: "constant"
      value: 0.2
    }
  }
}
layer {
  name: "inception_4e/relu_pool_proj"
  type: "ReLU"
  bottom: "inception_4e/pool_proj"
  top: "inception_4e/pool_proj"
}
layer {
  name: "inception_4e/output"
  type: "Concat"
  bottom: "inception_4e/1x1"
  bottom: "inception_4e/3x3"
  bottom: "inception_4e/5x5"
  bottom: "inception_4e/pool_proj"
  top: "inception_4e/output"
}
layer {
  name: "pool4/3x3_s2"
  type: "Pooling"
  bottom: "inception_4e/output"
  top: "pool4/3x3_s2"
  pooling_param {
    pool: MAX
    kernel_size: 3
    stride: 2
  }
}
layer {
  name: "inception_5a/1x1"
  type: "Convolution"
  bottom: "pool4/3x3_s2"
  top: "inception_5a/1x1"
  param {
    lr_mult: 1
    decay_mult: 1
  }
  param {
    lr_mult: 2
    decay_mult: 0
  }
  convolution_param {
    num_output: 256
    kernel_size: 1
    weight_filler {
      type: "xavier"
      std: 0.03
    }
    bias_filler {
      type: "constant"
      value: 0.2
    }
  }
}
layer {
  name: "inception_5a/relu_1x1"
  type: "ReLU"
  bottom: "inception_5a/1x1"
  top: "inception_5a/1x1"
}
layer {
  name: "inception_5a/3x3_reduce"
  type: "Convolution"
  bottom: "pool4/3x3_s2"
  top: "inception_5a/3x3_reduce"
  param {
    lr_mult: 1
    decay_mult: 1
  }
  param {
    lr_mult: 2
    decay_mult: 0
  }
  convolution_param {
    num_output: 160
    kernel_size: 1
    weight_filler {
      type: "xavier"
      std: 0.09
    }
    bias_filler {
      type: "constant"
      value: 0.2
    }
  }
}
layer {
  name: "inception_5a/relu_3x3_reduce"
  type: "ReLU"
  bottom: "inception_5a/3x3_reduce"
  top: "inception_5a/3x3_reduce"
}
layer {
  name: "inception_5a/3x3"
  type: "Convolution"
  bottom: "inception_5a/3x3_reduce"
  top: "inception_5a/3x3"
  param {
    lr_mult: 1
    decay_mult: 1
  }
  param {
    lr_mult: 2
    decay_mult: 0
  }
  convolution_param {
    num_output: 320
    pad: 1
    kernel_size: 3
    weight_filler {
      type: "xavier"
      std: 0.03
    }
    bias_filler {
      type: "constant"
      value: 0.2
    }
  }
}
layer {
  name: "inception_5a/relu_3x3"
  type: "ReLU"
  bottom: "inception_5a/3x3"
  top: "inception_5a/3x3"
}
layer {
  name: "inception_5a/5x5_reduce"
  type: "Convolution"
  bottom: "pool4/3x3_s2"
  top: "inception_5a/5x5_reduce"
  param {
    lr_mult: 1
    decay_mult: 1
  }
  param {
    lr_mult: 2
    decay_mult: 0
  }
  convolution_param {
    num_output: 32
    kernel_size: 1
    weight_filler {
      type: "xavier"
      std: 0.2
    }
    bias_filler {
      type: "constant"
      value: 0.2
    }
I0714 21:44:43.829094  7824 layer_factory.hpp:77] Creating layer data
I0714 21:44:43.829115  7824 net.cpp:91] Creating Layer data
I0714 21:44:43.829123  7824 net.cpp:399] data -> data
I0714 21:44:44.923887  7820 net.cpp:141] Setting up data
I0714 21:44:44.923980  7820 net.cpp:148] Top shape: 10 3 224 224 (1505280)
I0714 21:44:44.923988  7820 net.cpp:156] Memory required for data: 6021120
I0714 21:44:44.924016  7820 layer_factory.hpp:77] Creating layer conv1/7x7_s2
I0714 21:44:44.924067  7820 net.cpp:91] Creating Layer conv1/7x7_s2
I0714 21:44:44.924077  7820 net.cpp:425] conv1/7x7_s2 <- data
I0714 21:44:44.924094  7820 net.cpp:399] conv1/7x7_s2 -> conv1/7x7_s2
I0714 21:44:44.931426  7824 net.cpp:141] Setting up data
I0714 21:44:44.931470  7824 net.cpp:148] Top shape: 10 3 224 224 (1505280)
I0714 21:44:44.931478  7824 net.cpp:156] Memory required for data: 6021120
I0714 21:44:44.931490  7824 layer_factory.hpp:77] Creating layer conv1/7x7_s2
I0714 21:44:44.931520  7824 net.cpp:91] Creating Layer conv1/7x7_s2
I0714 21:44:44.931529  7824 net.cpp:425] conv1/7x7_s2 <- data
I0714 21:44:44.931540  7824 net.cpp:399] conv1/7x7_s2 -> conv1/7x7_s2
I0714 21:44:45.379312  7820 net.cpp:141] Setting up conv1/7x7_s2
I0714 21:44:45.379374  7820 net.cpp:148] Top shape: 10 64 112 112 (8028160)
I0714 21:44:45.379384  7820 net.cpp:156] Memory required for data: 38133760
I0714 21:44:45.379418  7820 layer_factory.hpp:77] Creating layer conv1/relu_7x7
I0714 21:44:45.379441  7820 net.cpp:91] Creating Layer conv1/relu_7x7
I0714 21:44:45.379449  7820 net.cpp:425] conv1/relu_7x7 <- conv1/7x7_s2
I0714 21:44:45.379459  7820 net.cpp:386] conv1/relu_7x7 -> conv1/7x7_s2 (in-place)
I0714 21:44:45.380256  7820 net.cpp:141] Setting up conv1/relu_7x7
I0714 21:44:45.380275  7820 net.cpp:148] Top shape: 10 64 112 112 (8028160)
I0714 21:44:45.380281  7820 net.cpp:156] Memory required for data: 70246400
I0714 21:44:45.380288  7820 layer_factory.hpp:77] Creating layer pool1/3x3_s2
I0714 21:44:45.380305  7820 net.cpp:91] Creating Layer pool1/3x3_s2
I0714 21:44:45.380311  7820 net.cpp:425] pool1/3x3_s2 <- conv1/7x7_s2
I0714 21:44:45.380319  7820 net.cpp:399] pool1/3x3_s2 -> pool1/3x3_s2
I0714 21:44:45.381425  7820 net.cpp:141] Setting up pool1/3x3_s2
I0714 21:44:45.381443  7820 net.cpp:148] Top shape: 10 64 56 56 (2007040)
I0714 21:44:45.381448  7820 net.cpp:156] Memory required for data: 78274560
I0714 21:44:45.381454  7820 layer_factory.hpp:77] Creating layer pool1/norm1
I0714 21:44:45.381474  7820 net.cpp:91] Creating Layer pool1/norm1
I0714 21:44:45.381481  7820 net.cpp:425] pool1/norm1 <- pool1/3x3_s2
I0714 21:44:45.381489  7820 net.cpp:399] pool1/norm1 -> pool1/norm1
I0714 21:44:45.385403  7820 net.cpp:141] Setting up pool1/norm1
I0714 21:44:45.385427  7820 net.cpp:148] Top shape: 10 64 56 56 (2007040)
I0714 21:44:45.385434  7820 net.cpp:156] Memory required for data: 86302720
I0714 21:44:45.385440  7820 layer_factory.hpp:77] Creating layer conv2/3x3_reduce
I0714 21:44:45.385465  7820 net.cpp:91] Creating Layer conv2/3x3_reduce
I0714 21:44:45.385473  7820 net.cpp:425] conv2/3x3_reduce <- pool1/norm1
I0714 21:44:45.385483  7820 net.cpp:399] conv2/3x3_reduce -> conv2/3x3_reduce
I0714 21:44:45.391829  7824 net.cpp:141] Setting up conv1/7x7_s2
I0714 21:44:45.391875  7824 net.cpp:148] Top shape: 10 64 112 112 (8028160)
I0714 21:44:45.391882  7824 net.cpp:156] Memory required for data: 38133760
I0714 21:44:45.391907  7824 layer_factory.hpp:77] Creating layer conv1/relu_7x7
I0714 21:44:45.391926  7824 net.cpp:91] Creating Layer conv1/relu_7x7
I0714 21:44:45.391933  7824 net.cpp:425] conv1/relu_7x7 <- conv1/7x7_s2
I0714 21:44:45.391942  7824 net.cpp:386] conv1/relu_7x7 -> conv1/7x7_s2 (in-place)
I0714 21:44:45.392736  7824 net.cpp:141] Setting up conv1/relu_7x7
I0714 21:44:45.392755  7824 net.cpp:148] Top shape: 10 64 112 112 (8028160)
I0714 21:44:45.392761  7824 net.cpp:156] Memory required for data: 70246400
I0714 21:44:45.392767  7824 layer_factory.hpp:77] Creating layer pool1/3x3_s2
I0714 21:44:45.392781  7824 net.cpp:91] Creating Layer pool1/3x3_s2
I0714 21:44:45.392786  7824 net.cpp:425] pool1/3x3_s2 <- conv1/7x7_s2
I0714 21:44:45.392796  7824 net.cpp:399] pool1/3x3_s2 -> pool1/3x3_s2
I0714 21:44:45.393195  7824 net.cpp:141] Setting up pool1/3x3_s2
I0714 21:44:45.393209  7824 net.cpp:148] Top shape: 10 64 56 56 (2007040)
I0714 21:44:45.393214  7824 net.cpp:156] Memory required for data: 78274560
I0714 21:44:45.393220  7824 layer_factory.hpp:77] Creating layer pool1/norm1
I0714 21:44:45.393234  7824 net.cpp:91] Creating Layer pool1/norm1
I0714 21:44:45.393240  7824 net.cpp:425] pool1/norm1 <- pool1/3x3_s2
I0714 21:44:45.393249  7824 net.cpp:399] pool1/norm1 -> pool1/norm1
I0714 21:44:45.394562  7824 net.cpp:141] Setting up pool1/norm1
I0714 21:44:45.394572  7820 net.cpp:141] Setting up conv2/3x3_reduce
I0714 21:44:45.394580  7824 net.cpp:148] Top shape: 10 64 56 56 (2007040)
I0714 21:44:45.394598  7820 net.cpp:148] Top shape: 10 64 56 56 (2007040)
I0714 21:44:45.394598  7824 net.cpp:156] Memory required for data: 86302720
I0714 21:44:45.394608  7820 net.cpp:156] Memory required for data: 94330880
I0714 21:44:45.394618  7824 layer_factory.hpp:77] Creating layer conv2/3x3_reduce
I0714 21:44:45.394637  7820 layer_factory.hpp:77] Creating layer conv2/relu_3x3_reduce
I0714 21:44:45.394649  7820 net.cpp:91] Creating Layer conv2/relu_3x3_reduce
I0714 21:44:45.394649  7824 net.cpp:91] Creating Layer conv2/3x3_reduce
I0714 21:44:45.394659  7820 net.cpp:425] conv2/relu_3x3_reduce <- conv2/3x3_reduce
I0714 21:44:45.394665  7824 net.cpp:425] conv2/3x3_reduce <- pool1/norm1
I0714 21:44:45.394673  7820 net.cpp:386] conv2/relu_3x3_reduce -> conv2/3x3_reduce (in-place)
I0714 21:44:45.394676  7824 net.cpp:399] conv2/3x3_reduce -> conv2/3x3_reduce
I0714 21:44:45.395704  7820 net.cpp:141] Setting up conv2/relu_3x3_reduce
I0714 21:44:45.395723  7820 net.cpp:148] Top shape: 10 64 56 56 (2007040)
I0714 21:44:45.395730  7820 net.cpp:156] Memory required for data: 102359040
I0714 21:44:45.395735  7820 layer_factory.hpp:77] Creating layer conv2/3x3
I0714 21:44:45.395758  7820 net.cpp:91] Creating Layer conv2/3x3
I0714 21:44:45.395766  7820 net.cpp:425] conv2/3x3 <- conv2/3x3_reduce
I0714 21:44:45.395776  7820 net.cpp:399] conv2/3x3 -> conv2/3x3
I0714 21:44:45.400609  7824 net.cpp:141] Setting up conv2/3x3_reduce
I0714 21:44:45.400632  7824 net.cpp:148] Top shape: 10 64 56 56 (2007040)
I0714 21:44:45.400638  7824 net.cpp:156] Memory required for data: 94330880
I0714 21:44:45.400652  7824 layer_factory.hpp:77] Creating layer conv2/relu_3x3_reduce
I0714 21:44:45.400666  7824 net.cpp:91] Creating Layer conv2/relu_3x3_reduce
I0714 21:44:45.400673  7824 net.cpp:425] conv2/relu_3x3_reduce <- conv2/3x3_reduce
I0714 21:44:45.400681  7824 net.cpp:386] conv2/relu_3x3_reduce -> conv2/3x3_reduce (in-place)
I0714 21:44:45.401623  7824 net.cpp:141] Setting up conv2/relu_3x3_reduce
I0714 21:44:45.401640  7824 net.cpp:148] Top shape: 10 64 56 56 (2007040)
I0714 21:44:45.401646  7824 net.cpp:156] Memory required for data: 102359040
I0714 21:44:45.401653  7824 layer_factory.hpp:77] Creating layer conv2/3x3
I0714 21:44:45.401674  7824 net.cpp:91] Creating Layer conv2/3x3
I0714 21:44:45.401680  7824 net.cpp:425] conv2/3x3 <- conv2/3x3_reduce
I0714 21:44:45.401691  7824 net.cpp:399] conv2/3x3 -> conv2/3x3
I0714 21:44:45.406976  7820 net.cpp:141] Setting up conv2/3x3
I0714 21:44:45.407013  7820 net.cpp:148] Top shape: 10 192 56 56 (6021120)
I0714 21:44:45.407023  7820 net.cpp:156] Memory required for data: 126443520
I0714 21:44:45.407049  7820 layer_factory.hpp:77] Creating layer conv2/relu_3x3
I0714 21:44:45.407078  7820 net.cpp:91] Creating Layer conv2/relu_3x3
I0714 21:44:45.407089  7820 net.cpp:425] conv2/relu_3x3 <- conv2/3x3
I0714 21:44:45.407104  7820 net.cpp:386] conv2/relu_3x3 -> conv2/3x3 (in-place)
I0714 21:44:45.407766  7820 net.cpp:141] Setting up conv2/relu_3x3
I0714 21:44:45.407790  7820 net.cpp:148] Top shape: 10 192 56 56 (6021120)
I0714 21:44:45.407800  7820 net.cpp:156] Memory required for data: 150528000
I0714 21:44:45.407810  7820 layer_factory.hpp:77] Creating layer conv2/norm2
I0714 21:44:45.407833  7820 net.cpp:91] Creating Layer conv2/norm2
I0714 21:44:45.407843  7820 net.cpp:425] conv2/norm2 <- conv2/3x3
I0714 21:44:45.407860  7820 net.cpp:399] conv2/norm2 -> conv2/norm2
I0714 21:44:45.410406  7820 net.cpp:141] Setting up conv2/norm2
I0714 21:44:45.410436  7820 net.cpp:148] Top shape: 10 192 56 56 (6021120)
I0714 21:44:45.410444  7820 net.cpp:156] Memory required for data: 174612480
I0714 21:44:45.410451  7820 layer_factory.hpp:77] Creating layer pool2/3x3_s2
I0714 21:44:45.410468  7820 net.cpp:91] Creating Layer pool2/3x3_s2
I0714 21:44:45.410475  7820 net.cpp:425] pool2/3x3_s2 <- conv2/norm2
I0714 21:44:45.410486  7820 net.cpp:399] pool2/3x3_s2 -> pool2/3x3_s2
I0714 21:44:45.410727  7820 net.cpp:141] Setting up pool2/3x3_s2
I0714 21:44:45.410758  7820 net.cpp:148] Top shape: 10 192 28 28 (1505280)
I0714 21:44:45.410768  7820 net.cpp:156] Memory required for data: 180633600
I0714 21:44:45.410778  7820 layer_factory.hpp:77] Creating layer pool2/3x3_s2_pool2/3x3_s2_0_split
I0714 21:44:45.410809  7820 net.cpp:91] Creating Layer pool2/3x3_s2_pool2/3x3_s2_0_split
I0714 21:44:45.410820  7820 net.cpp:425] pool2/3x3_s2_pool2/3x3_s2_0_split <- pool2/3x3_s2
I0714 21:44:45.410841  7820 net.cpp:399] pool2/3x3_s2_pool2/3x3_s2_0_split -> pool2/3x3_s2_pool2/3x3_s2_0_split_0
I0714 21:44:45.410863  7820 net.cpp:399] pool2/3x3_s2_pool2/3x3_s2_0_split -> pool2/3x3_s2_pool2/3x3_s2_0_split_1
I0714 21:44:45.410881  7820 net.cpp:399] pool2/3x3_s2_pool2/3x3_s2_0_split -> pool2/3x3_s2_pool2/3x3_s2_0_split_2
I0714 21:44:45.410900  7820 net.cpp:399] pool2/3x3_s2_pool2/3x3_s2_0_split -> pool2/3x3_s2_pool2/3x3_s2_0_split_3
I0714 21:44:45.412351  7824 net.cpp:141] Setting up conv2/3x3
I0714 21:44:45.412375  7824 net.cpp:148] Top shape: 10 192 56 56 (6021120)
I0714 21:44:45.412382  7824 net.cpp:156] Memory required for data: 126443520
I0714 21:44:45.412400  7824 layer_factory.hpp:77] Creating layer conv2/relu_3x3
I0714 21:44:45.412403  7820 net.cpp:141] Setting up pool2/3x3_s2_pool2/3x3_s2_0_split
I0714 21:44:45.412416  7824 net.cpp:91] Creating Layer conv2/relu_3x3
I0714 21:44:45.412420  7820 net.cpp:148] Top shape: 10 192 28 28 (1505280)
I0714 21:44:45.412425  7824 net.cpp:425] conv2/relu_3x3 <- conv2/3x3
I0714 21:44:45.412427  7820 net.cpp:148] Top shape: 10 192 28 28 (1505280)
I0714 21:44:45.412433  7824 net.cpp:386] conv2/relu_3x3 -> conv2/3x3 (in-place)
I0714 21:44:45.412434  7820 net.cpp:148] Top shape: 10 192 28 28 (1505280)
I0714 21:44:45.412448  7820 net.cpp:148] Top shape: 10 192 28 28 (1505280)
I0714 21:44:45.412453  7820 net.cpp:156] Memory required for data: 204718080
I0714 21:44:45.412459  7820 layer_factory.hpp:77] Creating layer inception_3a/1x1
I0714 21:44:45.412482  7820 net.cpp:91] Creating Layer inception_3a/1x1
I0714 21:44:45.412488  7820 net.cpp:425] inception_3a/1x1 <- pool2/3x3_s2_pool2/3x3_s2_0_split_0
I0714 21:44:45.412519  7820 net.cpp:399] inception_3a/1x1 -> inception_3a/1x1
I0714 21:44:45.412878  7824 net.cpp:141] Setting up conv2/relu_3x3
I0714 21:44:45.412894  7824 net.cpp:148] Top shape: 10 192 56 56 (6021120)
I0714 21:44:45.412899  7824 net.cpp:156] Memory required for data: 150528000
I0714 21:44:45.412905  7824 layer_factory.hpp:77] Creating layer conv2/norm2
I0714 21:44:45.412920  7824 net.cpp:91] Creating Layer conv2/norm2
I0714 21:44:45.412930  7824 net.cpp:425] conv2/norm2 <- conv2/3x3
I0714 21:44:45.412938  7824 net.cpp:399] conv2/norm2 -> conv2/norm2
I0714 21:44:45.414533  7824 net.cpp:141] Setting up conv2/norm2
I0714 21:44:45.414568  7824 net.cpp:148] Top shape: 10 192 56 56 (6021120)
I0714 21:44:45.414575  7824 net.cpp:156] Memory required for data: 174612480
I0714 21:44:45.414582  7824 layer_factory.hpp:77] Creating layer pool2/3x3_s2
I0714 21:44:45.414604  7824 net.cpp:91] Creating Layer pool2/3x3_s2
I0714 21:44:45.414614  7824 net.cpp:425] pool2/3x3_s2 <- conv2/norm2
I0714 21:44:45.414625  7824 net.cpp:399] pool2/3x3_s2 -> pool2/3x3_s2
I0714 21:44:45.415076  7824 net.cpp:141] Setting up pool2/3x3_s2
I0714 21:44:45.415091  7824 net.cpp:148] Top shape: 10 192 28 28 (1505280)
I0714 21:44:45.415096  7824 net.cpp:156] Memory required for data: 180633600
I0714 21:44:45.415102  7824 layer_factory.hpp:77] Creating layer pool2/3x3_s2_pool2/3x3_s2_0_split
I0714 21:44:45.415117  7824 net.cpp:91] Creating Layer pool2/3x3_s2_pool2/3x3_s2_0_split
I0714 21:44:45.415124  7824 net.cpp:425] pool2/3x3_s2_pool2/3x3_s2_0_split <- pool2/3x3_s2
I0714 21:44:45.415138  7824 net.cpp:399] pool2/3x3_s2_pool2/3x3_s2_0_split -> pool2/3x3_s2_pool2/3x3_s2_0_split_0
I0714 21:44:45.415158  7824 net.cpp:399] pool2/3x3_s2_pool2/3x3_s2_0_split -> pool2/3x3_s2_pool2/3x3_s2_0_split_1
I0714 21:44:45.415174  7824 net.cpp:399] pool2/3x3_s2_pool2/3x3_s2_0_split -> pool2/3x3_s2_pool2/3x3_s2_0_split_2
I0714 21:44:45.415184  7824 net.cpp:399] pool2/3x3_s2_pool2/3x3_s2_0_split -> pool2/3x3_s2_pool2/3x3_s2_0_split_3
I0714 21:44:45.416821  7824 net.cpp:141] Setting up pool2/3x3_s2_pool2/3x3_s2_0_split
I0714 21:44:45.416836  7824 net.cpp:148] Top shape: 10 192 28 28 (1505280)
I0714 21:44:45.416843  7824 net.cpp:148] Top shape: 10 192 28 28 (1505280)
I0714 21:44:45.416849  7824 net.cpp:148] Top shape: 10 192 28 28 (1505280)
I0714 21:44:45.416856  7824 net.cpp:148] Top shape: 10 192 28 28 (1505280)
I0714 21:44:45.416860  7824 net.cpp:156] Memory required for data: 204718080
I0714 21:44:45.416867  7824 layer_factory.hpp:77] Creating layer inception_3a/1x1
I0714 21:44:45.416887  7824 net.cpp:91] Creating Layer inception_3a/1x1
I0714 21:44:45.416894  7824 net.cpp:425] inception_3a/1x1 <- pool2/3x3_s2_pool2/3x3_s2_0_split_0
I0714 21:44:45.416905  7824 net.cpp:399] inception_3a/1x1 -> inception_3a/1x1
I0714 21:44:45.423151  7820 net.cpp:141] Setting up inception_3a/1x1
I0714 21:44:45.423176  7820 net.cpp:148] Top shape: 10 64 28 28 (501760)
I0714 21:44:45.423182  7820 net.cpp:156] Memory required for data: 206725120
I0714 21:44:45.423195  7820 layer_factory.hpp:77] Creating layer inception_3a/relu_1x1
I0714 21:44:45.423209  7820 net.cpp:91] Creating Layer inception_3a/relu_1x1
I0714 21:44:45.423218  7820 net.cpp:425] inception_3a/relu_1x1 <- inception_3a/1x1
I0714 21:44:45.423226  7820 net.cpp:386] inception_3a/relu_1x1 -> inception_3a/1x1 (in-place)
I0714 21:44:45.423599  7820 net.cpp:141] Setting up inception_3a/relu_1x1
I0714 21:44:45.423614  7820 net.cpp:148] Top shape: 10 64 28 28 (501760)
I0714 21:44:45.423619  7820 net.cpp:156] Memory required for data: 208732160
I0714 21:44:45.423624  7820 layer_factory.hpp:77] Creating layer inception_3a/3x3_reduce
I0714 21:44:45.423645  7820 net.cpp:91] Creating Layer inception_3a/3x3_reduce
I0714 21:44:45.423653  7820 net.cpp:425] inception_3a/3x3_reduce <- pool2/3x3_s2_pool2/3x3_s2_0_split_1
I0714 21:44:45.423663  7820 net.cpp:399] inception_3a/3x3_reduce -> inception_3a/3x3_reduce
I0714 21:44:45.430173  7824 net.cpp:141] Setting up inception_3a/1x1
I0714 21:44:45.430202  7824 net.cpp:148] Top shape: 10 64 28 28 (501760)
I0714 21:44:45.430208  7824 net.cpp:156] Memory required for data: 206725120
I0714 21:44:45.430223  7824 layer_factory.hpp:77] Creating layer inception_3a/relu_1x1
I0714 21:44:45.430235  7824 net.cpp:91] Creating Layer inception_3a/relu_1x1
I0714 21:44:45.430241  7824 net.cpp:425] inception_3a/relu_1x1 <- inception_3a/1x1
I0714 21:44:45.430250  7824 net.cpp:386] inception_3a/relu_1x1 -> inception_3a/1x1 (in-place)
I0714 21:44:45.430579  7824 net.cpp:141] Setting up inception_3a/relu_1x1
I0714 21:44:45.430596  7824 net.cpp:148] Top shape: 10 64 28 28 (501760)
I0714 21:44:45.430603  7824 net.cpp:156] Memory required for data: 208732160
I0714 21:44:45.430608  7824 layer_factory.hpp:77] Creating layer inception_3a/3x3_reduce
I0714 21:44:45.430626  7824 net.cpp:91] Creating Layer inception_3a/3x3_reduce
I0714 21:44:45.430634  7824 net.cpp:425] inception_3a/3x3_reduce <- pool2/3x3_s2_pool2/3x3_s2_0_split_1
I0714 21:44:45.430644  7824 net.cpp:399] inception_3a/3x3_reduce -> inception_3a/3x3_reduce
I0714 21:44:45.435796  7820 net.cpp:141] Setting up inception_3a/3x3_reduce
I0714 21:44:45.435823  7820 net.cpp:148] Top shape: 10 96 28 28 (752640)
I0714 21:44:45.435829  7820 net.cpp:156] Memory required for data: 211742720
I0714 21:44:45.435858  7820 layer_factory.hpp:77] Creating layer inception_3a/relu_3x3_reduce
I0714 21:44:45.435871  7820 net.cpp:91] Creating Layer inception_3a/relu_3x3_reduce
I0714 21:44:45.435879  7820 net.cpp:425] inception_3a/relu_3x3_reduce <- inception_3a/3x3_reduce
I0714 21:44:45.435890  7820 net.cpp:386] inception_3a/relu_3x3_reduce -> inception_3a/3x3_reduce (in-place)
I0714 21:44:45.436167  7820 net.cpp:141] Setting up inception_3a/relu_3x3_reduce
I0714 21:44:45.436180  7820 net.cpp:148] Top shape: 10 96 28 28 (752640)
I0714 21:44:45.436187  7820 net.cpp:156] Memory required for data: 214753280
I0714 21:44:45.436192  7820 layer_factory.hpp:77] Creating layer inception_3a/3x3
I0714 21:44:45.436218  7820 net.cpp:91] Creating Layer inception_3a/3x3
I0714 21:44:45.436225  7820 net.cpp:425] inception_3a/3x3 <- inception_3a/3x3_reduce
I0714 21:44:45.436236  7820 net.cpp:399] inception_3a/3x3 -> inception_3a/3x3
I0714 21:44:45.437319  7824 net.cpp:141] Setting up inception_3a/3x3_reduce
I0714 21:44:45.437341  7824 net.cpp:148] Top shape: 10 96 28 28 (752640)
I0714 21:44:45.437347  7824 net.cpp:156] Memory required for data: 211742720
I0714 21:44:45.437368  7824 layer_factory.hpp:77] Creating layer inception_3a/relu_3x3_reduce
I0714 21:44:45.437379  7824 net.cpp:91] Creating Layer inception_3a/relu_3x3_reduce
I0714 21:44:45.437386  7824 net.cpp:425] inception_3a/relu_3x3_reduce <- inception_3a/3x3_reduce
I0714 21:44:45.437397  7824 net.cpp:386] inception_3a/relu_3x3_reduce -> inception_3a/3x3_reduce (in-place)
I0714 21:44:45.437669  7824 net.cpp:141] Setting up inception_3a/relu_3x3_reduce
I0714 21:44:45.437681  7824 net.cpp:148] Top shape: 10 96 28 28 (752640)
I0714 21:44:45.437687  7824 net.cpp:156] Memory required for data: 214753280
I0714 21:44:45.437692  7824 layer_factory.hpp:77] Creating layer inception_3a/3x3
I0714 21:44:45.437716  7824 net.cpp:91] Creating Layer inception_3a/3x3
I0714 21:44:45.437723  7824 net.cpp:425] inception_3a/3x3 <- inception_3a/3x3_reduce
I0714 21:44:45.437733  7824 net.cpp:399] inception_3a/3x3 -> inception_3a/3x3
I0714 21:44:45.441329  7820 net.cpp:141] Setting up inception_3a/3x3
I0714 21:44:45.441350  7820 net.cpp:148] Top shape: 10 128 28 28 (1003520)
I0714 21:44:45.441356  7820 net.cpp:156] Memory required for data: 218767360
I0714 21:44:45.441367  7820 layer_factory.hpp:77] Creating layer inception_3a/relu_3x3
I0714 21:44:45.441377  7820 net.cpp:91] Creating Layer inception_3a/relu_3x3
I0714 21:44:45.441385  7820 net.cpp:425] inception_3a/relu_3x3 <- inception_3a/3x3
I0714 21:44:45.441401  7820 net.cpp:386] inception_3a/relu_3x3 -> inception_3a/3x3 (in-place)
I0714 21:44:45.442411  7820 net.cpp:141] Setting up inception_3a/relu_3x3
I0714 21:44:45.442428  7820 net.cpp:148] Top shape: 10 128 28 28 (1003520)
I0714 21:44:45.442435  7820 net.cpp:156] Memory required for data: 222781440
I0714 21:44:45.442440  7820 layer_factory.hpp:77] Creating layer inception_3a/5x5_reduce
I0714 21:44:45.442459  7820 net.cpp:91] Creating Layer inception_3a/5x5_reduce
I0714 21:44:45.442468  7820 net.cpp:425] inception_3a/5x5_reduce <- pool2/3x3_s2_pool2/3x3_s2_0_split_2
I0714 21:44:45.442481  7820 net.cpp:399] inception_3a/5x5_reduce -> inception_3a/5x5_reduce
I0714 21:44:45.442495  7824 net.cpp:141] Setting up inception_3a/3x3
I0714 21:44:45.442518  7824 net.cpp:148] Top shape: 10 128 28 28 (1003520)
I0714 21:44:45.442529  7824 net.cpp:156] Memory required for data: 218767360
I0714 21:44:45.442548  7824 layer_factory.hpp:77] Creating layer inception_3a/relu_3x3
I0714 21:44:45.442564  7824 net.cpp:91] Creating Layer inception_3a/relu_3x3
I0714 21:44:45.442576  7824 net.cpp:425] inception_3a/relu_3x3 <- inception_3a/3x3
I0714 21:44:45.442603  7824 net.cpp:386] inception_3a/relu_3x3 -> inception_3a/3x3 (in-place)
I0714 21:44:45.444109  7824 net.cpp:141] Setting up inception_3a/relu_3x3
I0714 21:44:45.444139  7824 net.cpp:148] Top shape: 10 128 28 28 (1003520)
I0714 21:44:45.444151  7824 net.cpp:156] Memory required for data: 222781440
I0714 21:44:45.444164  7824 layer_factory.hpp:77] Creating layer inception_3a/5x5_reduce
I0714 21:44:45.444200  7824 net.cpp:91] Creating Layer inception_3a/5x5_reduce
I0714 21:44:45.444216  7824 net.cpp:425] inception_3a/5x5_reduce <- pool2/3x3_s2_pool2/3x3_s2_0_split_2
I0714 21:44:45.444237  7824 net.cpp:399] inception_3a/5x5_reduce -> inception_3a/5x5_reduce
I0714 21:44:45.447402  7820 net.cpp:141] Setting up inception_3a/5x5_reduce
I0714 21:44:45.447425  7820 net.cpp:148] Top shape: 10 16 28 28 (125440)
I0714 21:44:45.447432  7820 net.cpp:156] Memory required for data: 223283200
I0714 21:44:45.447443  7820 layer_factory.hpp:77] Creating layer inception_3a/relu_5x5_reduce
I0714 21:44:45.447458  7820 net.cpp:91] Creating Layer inception_3a/relu_5x5_reduce
I0714 21:44:45.447465  7820 net.cpp:425] inception_3a/relu_5x5_reduce <- inception_3a/5x5_reduce
I0714 21:44:45.447474  7820 net.cpp:386] inception_3a/relu_5x5_reduce -> inception_3a/5x5_reduce (in-place)
I0714 21:44:45.447751  7820 net.cpp:141] Setting up inception_3a/relu_5x5_reduce
I0714 21:44:45.447763  7820 net.cpp:148] Top shape: 10 16 28 28 (125440)
I0714 21:44:45.447769  7820 net.cpp:156] Memory required for data: 223784960
I0714 21:44:45.447774  7820 layer_factory.hpp:77] Creating layer inception_3a/5x5
I0714 21:44:45.447793  7820 net.cpp:91] Creating Layer inception_3a/5x5
I0714 21:44:45.447800  7820 net.cpp:425] inception_3a/5x5 <- inception_3a/5x5_reduce
I0714 21:44:45.447813  7820 net.cpp:399] inception_3a/5x5 -> inception_3a/5x5
I0714 21:44:45.450647  7824 net.cpp:141] Setting up inception_3a/5x5_reduce
I0714 21:44:45.450670  7824 net.cpp:148] Top shape: 10 16 28 28 (125440)
I0714 21:44:45.450677  7824 net.cpp:156] Memory required for data: 223283200
I0714 21:44:45.450700  7824 layer_factory.hpp:77] Creating layer inception_3a/relu_5x5_reduce
I0714 21:44:45.450717  7824 net.cpp:91] Creating Layer inception_3a/relu_5x5_reduce
I0714 21:44:45.450724  7824 net.cpp:425] inception_3a/relu_5x5_reduce <- inception_3a/5x5_reduce
I0714 21:44:45.450733  7824 net.cpp:386] inception_3a/relu_5x5_reduce -> inception_3a/5x5_reduce (in-place)
I0714 21:44:45.451107  7824 net.cpp:141] Setting up inception_3a/relu_5x5_reduce
I0714 21:44:45.451122  7824 net.cpp:148] Top shape: 10 16 28 28 (125440)
I0714 21:44:45.451128  7824 net.cpp:156] Memory required for data: 223784960
I0714 21:44:45.451135  7824 layer_factory.hpp:77] Creating layer inception_3a/5x5
I0714 21:44:45.451155  7824 net.cpp:91] Creating Layer inception_3a/5x5
I0714 21:44:45.451164  7824 net.cpp:425] inception_3a/5x5 <- inception_3a/5x5_reduce
I0714 21:44:45.451182  7824 net.cpp:399] inception_3a/5x5 -> inception_3a/5x5
I0714 21:44:45.454020  7820 net.cpp:141] Setting up inception_3a/5x5
I0714 21:44:45.454046  7820 net.cpp:148] Top shape: 10 32 28 28 (250880)
I0714 21:44:45.454052  7820 net.cpp:156] Memory required for data: 224788480
I0714 21:44:45.454063  7820 layer_factory.hpp:77] Creating layer inception_3a/relu_5x5
I0714 21:44:45.454073  7820 net.cpp:91] Creating Layer inception_3a/relu_5x5
I0714 21:44:45.454080  7820 net.cpp:425] inception_3a/relu_5x5 <- inception_3a/5x5
I0714 21:44:45.454088  7820 net.cpp:386] inception_3a/relu_5x5 -> inception_3a/5x5 (in-place)
I0714 21:44:45.454427  7820 net.cpp:141] Setting up inception_3a/relu_5x5
I0714 21:44:45.454440  7820 net.cpp:148] Top shape: 10 32 28 28 (250880)
I0714 21:44:45.454447  7820 net.cpp:156] Memory required for data: 225792000
I0714 21:44:45.454452  7820 layer_factory.hpp:77] Creating layer inception_3a/pool
I0714 21:44:45.454463  7820 net.cpp:91] Creating Layer inception_3a/pool
I0714 21:44:45.454473  7820 net.cpp:425] inception_3a/pool <- pool2/3x3_s2_pool2/3x3_s2_0_split_3
I0714 21:44:45.454481  7820 net.cpp:399] inception_3a/pool -> inception_3a/pool
I0714 21:44:45.455024  7820 net.cpp:141] Setting up inception_3a/pool
I0714 21:44:45.455062  7820 net.cpp:148] Top shape: 10 192 28 28 (1505280)
I0714 21:44:45.455070  7820 net.cpp:156] Memory required for data: 231813120
I0714 21:44:45.455077  7820 layer_factory.hpp:77] Creating layer inception_3a/pool_proj
I0714 21:44:45.455104  7820 net.cpp:91] Creating Layer inception_3a/pool_proj
I0714 21:44:45.455114  7820 net.cpp:425] inception_3a/pool_proj <- inception_3a/pool
I0714 21:44:45.455132  7820 net.cpp:399] inception_3a/pool_proj -> inception_3a/pool_proj
I0714 21:44:45.459822  7824 net.cpp:141] Setting up inception_3a/5x5
I0714 21:44:45.459856  7824 net.cpp:148] Top shape: 10 32 28 28 (250880)
I0714 21:44:45.459862  7824 net.cpp:156] Memory required for data: 224788480
I0714 21:44:45.459874  7824 layer_factory.hpp:77] Creating layer inception_3a/relu_5x5
I0714 21:44:45.459885  7824 net.cpp:91] Creating Layer inception_3a/relu_5x5
I0714 21:44:45.459892  7824 net.cpp:425] inception_3a/relu_5x5 <- inception_3a/5x5
I0714 21:44:45.459900  7824 net.cpp:386] inception_3a/relu_5x5 -> inception_3a/5x5 (in-place)
I0714 21:44:45.460192  7824 net.cpp:141] Setting up inception_3a/relu_5x5
I0714 21:44:45.460206  7824 net.cpp:148] Top shape: 10 32 28 28 (250880)
I0714 21:44:45.460212  7824 net.cpp:156] Memory required for data: 225792000
I0714 21:44:45.460218  7824 layer_factory.hpp:77] Creating layer inception_3a/pool
I0714 21:44:45.460230  7824 net.cpp:91] Creating Layer inception_3a/pool
I0714 21:44:45.460237  7824 net.cpp:425] inception_3a/pool <- pool2/3x3_s2_pool2/3x3_s2_0_split_3
I0714 21:44:45.460247  7824 net.cpp:399] inception_3a/pool -> inception_3a/pool
I0714 21:44:45.460397  7824 net.cpp:141] Setting up inception_3a/pool
I0714 21:44:45.460410  7824 net.cpp:148] Top shape: 10 192 28 28 (1505280)
I0714 21:44:45.460415  7824 net.cpp:156] Memory required for data: 231813120
I0714 21:44:45.460422  7824 layer_factory.hpp:77] Creating layer inception_3a/pool_proj
I0714 21:44:45.460439  7824 net.cpp:91] Creating Layer inception_3a/pool_proj
I0714 21:44:45.460446  7824 net.cpp:425] inception_3a/pool_proj <- inception_3a/pool
I0714 21:44:45.460464  7824 net.cpp:399] inception_3a/pool_proj -> inception_3a/pool_proj
I0714 21:44:45.461843  7820 net.cpp:141] Setting up inception_3a/pool_proj
I0714 21:44:45.461868  7820 net.cpp:148] Top shape: 10 32 28 28 (250880)
I0714 21:44:45.461874  7820 net.cpp:156] Memory required for data: 232816640
I0714 21:44:45.461897  7820 layer_factory.hpp:77] Creating layer inception_3a/relu_pool_proj
I0714 21:44:45.461912  7820 net.cpp:91] Creating Layer inception_3a/relu_pool_proj
I0714 21:44:45.461920  7820 net.cpp:425] inception_3a/relu_pool_proj <- inception_3a/pool_proj
I0714 21:44:45.461930  7820 net.cpp:386] inception_3a/relu_pool_proj -> inception_3a/pool_proj (in-place)
I0714 21:44:45.463338  7820 net.cpp:141] Setting up inception_3a/relu_pool_proj
I0714 21:44:45.463358  7820 net.cpp:148] Top shape: 10 32 28 28 (250880)
I0714 21:44:45.463364  7820 net.cpp:156] Memory required for data: 233820160
I0714 21:44:45.463371  7820 layer_factory.hpp:77] Creating layer inception_3a/output
I0714 21:44:45.463397  7820 net.cpp:91] Creating Layer inception_3a/output
I0714 21:44:45.463404  7820 net.cpp:425] inception_3a/output <- inception_3a/1x1
I0714 21:44:45.463413  7820 net.cpp:425] inception_3a/output <- inception_3a/3x3
I0714 21:44:45.463420  7820 net.cpp:425] inception_3a/output <- inception_3a/5x5
I0714 21:44:45.463426  7820 net.cpp:425] inception_3a/output <- inception_3a/pool_proj
I0714 21:44:45.463434  7820 net.cpp:399] inception_3a/output -> inception_3a/output
I0714 21:44:45.463721  7820 net.cpp:141] Setting up inception_3a/output
I0714 21:44:45.463735  7820 net.cpp:148] Top shape: 10 256 28 28 (2007040)
I0714 21:44:45.463744  7820 net.cpp:156] Memory required for data: 241848320
I0714 21:44:45.463750  7820 layer_factory.hpp:77] Creating layer inception_3a/output_inception_3a/output_0_split
I0714 21:44:45.463762  7820 net.cpp:91] Creating Layer inception_3a/output_inception_3a/output_0_split
I0714 21:44:45.463769  7820 net.cpp:425] inception_3a/output_inception_3a/output_0_split <- inception_3a/output
I0714 21:44:45.463778  7820 net.cpp:399] inception_3a/output_inception_3a/output_0_split -> inception_3a/output_inception_3a/output_0_split_0
I0714 21:44:45.463788  7820 net.cpp:399] inception_3a/output_inception_3a/output_0_split -> inception_3a/output_inception_3a/output_0_split_1
I0714 21:44:45.463800  7820 net.cpp:399] inception_3a/output_inception_3a/output_0_split -> inception_3a/output_inception_3a/output_0_split_2
I0714 21:44:45.463815  7820 net.cpp:399] inception_3a/output_inception_3a/output_0_split -> inception_3a/output_inception_3a/output_0_split_3
I0714 21:44:45.464280  7820 net.cpp:141] Setting up inception_3a/output_inception_3a/output_0_split
I0714 21:44:45.464294  7820 net.cpp:148] Top shape: 10 256 28 28 (2007040)
I0714 21:44:45.464301  7820 net.cpp:148] Top shape: 10 256 28 28 (2007040)
I0714 21:44:45.464308  7820 net.cpp:148] Top shape: 10 256 28 28 (2007040)
I0714 21:44:45.464314  7820 net.cpp:148] Top shape: 10 256 28 28 (2007040)
I0714 21:44:45.464319  7820 net.cpp:156] Memory required for data: 273960960
I0714 21:44:45.464325  7820 layer_factory.hpp:77] Creating layer inception_3b/1x1
I0714 21:44:45.464346  7820 net.cpp:91] Creating Layer inception_3b/1x1
I0714 21:44:45.464354  7820 net.cpp:425] inception_3b/1x1 <- inception_3a/output_inception_3a/output_0_split_0
I0714 21:44:45.464365  7820 net.cpp:399] inception_3b/1x1 -> inception_3b/1x1
I0714 21:44:45.464941  7824 net.cpp:141] Setting up inception_3a/pool_proj
I0714 21:44:45.464959  7824 net.cpp:148] Top shape: 10 32 28 28 (250880)
I0714 21:44:45.464965  7824 net.cpp:156] Memory required for data: 232816640
I0714 21:44:45.464985  7824 layer_factory.hpp:77] Creating layer inception_3a/relu_pool_proj
I0714 21:44:45.464998  7824 net.cpp:91] Creating Layer inception_3a/relu_pool_proj
I0714 21:44:45.465005  7824 net.cpp:425] inception_3a/relu_pool_proj <- inception_3a/pool_proj
I0714 21:44:45.465013  7824 net.cpp:386] inception_3a/relu_pool_proj -> inception_3a/pool_proj (in-place)
I0714 21:44:45.465977  7824 net.cpp:141] Setting up inception_3a/relu_pool_proj
I0714 21:44:45.465996  7824 net.cpp:148] Top shape: 10 32 28 28 (250880)
I0714 21:44:45.466002  7824 net.cpp:156] Memory required for data: 233820160
I0714 21:44:45.466008  7824 layer_factory.hpp:77] Creating layer inception_3a/output
I0714 21:44:45.466022  7824 net.cpp:91] Creating Layer inception_3a/output
I0714 21:44:45.466027  7824 net.cpp:425] inception_3a/output <- inception_3a/1x1
I0714 21:44:45.466035  7824 net.cpp:425] inception_3a/output <- inception_3a/3x3
I0714 21:44:45.466042  7824 net.cpp:425] inception_3a/output <- inception_3a/5x5
I0714 21:44:45.466048  7824 net.cpp:425] inception_3a/output <- inception_3a/pool_proj
I0714 21:44:45.466056  7824 net.cpp:399] inception_3a/output -> inception_3a/output
I0714 21:44:45.466138  7824 net.cpp:141] Setting up inception_3a/output
I0714 21:44:45.466152  7824 net.cpp:148] Top shape: 10 256 28 28 (2007040)
I0714 21:44:45.466158  7824 net.cpp:156] Memory required for data: 241848320
I0714 21:44:45.466164  7824 layer_factory.hpp:77] Creating layer inception_3a/output_inception_3a/output_0_split
I0714 21:44:45.466174  7824 net.cpp:91] Creating Layer inception_3a/output_inception_3a/output_0_split
I0714 21:44:45.466181  7824 net.cpp:425] inception_3a/output_inception_3a/output_0_split <- inception_3a/output
I0714 21:44:45.466187  7824 net.cpp:399] inception_3a/output_inception_3a/output_0_split -> inception_3a/output_inception_3a/output_0_split_0
I0714 21:44:45.466198  7824 net.cpp:399] inception_3a/output_inception_3a/output_0_split -> inception_3a/output_inception_3a/output_0_split_1
I0714 21:44:45.466212  7824 net.cpp:399] inception_3a/output_inception_3a/output_0_split -> inception_3a/output_inception_3a/output_0_split_2
I0714 21:44:45.466223  7824 net.cpp:399] inception_3a/output_inception_3a/output_0_split -> inception_3a/output_inception_3a/output_0_split_3
I0714 21:44:45.466563  7824 net.cpp:141] Setting up inception_3a/output_inception_3a/output_0_split
I0714 21:44:45.466578  7824 net.cpp:148] Top shape: 10 256 28 28 (2007040)
I0714 21:44:45.466585  7824 net.cpp:148] Top shape: 10 256 28 28 (2007040)
I0714 21:44:45.466591  7824 net.cpp:148] Top shape: 10 256 28 28 (2007040)
I0714 21:44:45.466598  7824 net.cpp:148] Top shape: 10 256 28 28 (2007040)
I0714 21:44:45.466603  7824 net.cpp:156] Memory required for data: 273960960
I0714 21:44:45.466609  7824 layer_factory.hpp:77] Creating layer inception_3b/1x1
I0714 21:44:45.466629  7824 net.cpp:91] Creating Layer inception_3b/1x1
I0714 21:44:45.466637  7824 net.cpp:425] inception_3b/1x1 <- inception_3a/output_inception_3a/output_0_split_0
I0714 21:44:45.466647  7824 net.cpp:399] inception_3b/1x1 -> inception_3b/1x1
I0714 21:44:45.469426  7820 net.cpp:141] Setting up inception_3b/1x1
I0714 21:44:45.469449  7820 net.cpp:148] Top shape: 10 128 28 28 (1003520)
I0714 21:44:45.469455  7820 net.cpp:156] Memory required for data: 277975040
I0714 21:44:45.469465  7820 layer_factory.hpp:77] Creating layer inception_3b/relu_1x1
I0714 21:44:45.469480  7820 net.cpp:91] Creating Layer inception_3b/relu_1x1
I0714 21:44:45.469487  7820 net.cpp:425] inception_3b/relu_1x1 <- inception_3b/1x1
I0714 21:44:45.469496  7820 net.cpp:386] inception_3b/relu_1x1 -> inception_3b/1x1 (in-place)
I0714 21:44:45.469957  7820 net.cpp:141] Setting up inception_3b/relu_1x1
I0714 21:44:45.469974  7820 net.cpp:148] Top shape: 10 128 28 28 (1003520)
I0714 21:44:45.469980  7820 net.cpp:156] Memory required for data: 281989120
I0714 21:44:45.469985  7820 layer_factory.hpp:77] Creating layer inception_3b/3x3_reduce
I0714 21:44:45.470005  7820 net.cpp:91] Creating Layer inception_3b/3x3_reduce
I0714 21:44:45.470012  7820 net.cpp:425] inception_3b/3x3_reduce <- inception_3a/output_inception_3a/output_0_split_1
I0714 21:44:45.470026  7820 net.cpp:399] inception_3b/3x3_reduce -> inception_3b/3x3_reduce
I0714 21:44:45.472488  7824 net.cpp:141] Setting up inception_3b/1x1
I0714 21:44:45.472512  7824 net.cpp:148] Top shape: 10 128 28 28 (1003520)
I0714 21:44:45.472519  7824 net.cpp:156] Memory required for data: 277975040
I0714 21:44:45.472530  7824 layer_factory.hpp:77] Creating layer inception_3b/relu_1x1
I0714 21:44:45.472545  7824 net.cpp:91] Creating Layer inception_3b/relu_1x1
I0714 21:44:45.472553  7824 net.cpp:425] inception_3b/relu_1x1 <- inception_3b/1x1
I0714 21:44:45.472561  7824 net.cpp:386] inception_3b/relu_1x1 -> inception_3b/1x1 (in-place)
I0714 21:44:45.472964  7824 net.cpp:141] Setting up inception_3b/relu_1x1
I0714 21:44:45.472977  7824 net.cpp:148] Top shape: 10 128 28 28 (1003520)
I0714 21:44:45.472982  7824 net.cpp:156] Memory required for data: 281989120
I0714 21:44:45.472988  7824 layer_factory.hpp:77] Creating layer inception_3b/3x3_reduce
I0714 21:44:45.473006  7824 net.cpp:91] Creating Layer inception_3b/3x3_reduce
I0714 21:44:45.473014  7824 net.cpp:425] inception_3b/3x3_reduce <- inception_3a/output_inception_3a/output_0_split_1
I0714 21:44:45.473027  7824 net.cpp:399] inception_3b/3x3_reduce -> inception_3b/3x3_reduce
I0714 21:44:45.475649  7820 net.cpp:141] Setting up inception_3b/3x3_reduce
I0714 21:44:45.475672  7820 net.cpp:148] Top shape: 10 128 28 28 (1003520)
I0714 21:44:45.475677  7820 net.cpp:156] Memory required for data: 286003200
I0714 21:44:45.475688  7820 layer_factory.hpp:77] Creating layer inception_3b/relu_3x3_reduce
I0714 21:44:45.475703  7820 net.cpp:91] Creating Layer inception_3b/relu_3x3_reduce
I0714 21:44:45.475709  7820 net.cpp:425] inception_3b/relu_3x3_reduce <- inception_3b/3x3_reduce
I0714 21:44:45.475718  7820 net.cpp:386] inception_3b/relu_3x3_reduce -> inception_3b/3x3_reduce (in-place)
I0714 21:44:45.476083  7820 net.cpp:141] Setting up inception_3b/relu_3x3_reduce
I0714 21:44:45.476097  7820 net.cpp:148] Top shape: 10 128 28 28 (1003520)
I0714 21:44:45.476104  7820 net.cpp:156] Memory required for data: 290017280
I0714 21:44:45.476109  7820 layer_factory.hpp:77] Creating layer inception_3b/3x3
I0714 21:44:45.476130  7820 net.cpp:91] Creating Layer inception_3b/3x3
I0714 21:44:45.476137  7820 net.cpp:425] inception_3b/3x3 <- inception_3b/3x3_reduce
I0714 21:44:45.476147  7820 net.cpp:399] inception_3b/3x3 -> inception_3b/3x3
I0714 21:44:45.480394  7824 net.cpp:141] Setting up inception_3b/3x3_reduce
I0714 21:44:45.480420  7824 net.cpp:148] Top shape: 10 128 28 28 (1003520)
I0714 21:44:45.480427  7824 net.cpp:156] Memory required for data: 286003200
I0714 21:44:45.480438  7824 layer_factory.hpp:77] Creating layer inception_3b/relu_3x3_reduce
I0714 21:44:45.480451  7824 net.cpp:91] Creating Layer inception_3b/relu_3x3_reduce
I0714 21:44:45.480458  7824 net.cpp:425] inception_3b/relu_3x3_reduce <- inception_3b/3x3_reduce
I0714 21:44:45.480468  7824 net.cpp:386] inception_3b/relu_3x3_reduce -> inception_3b/3x3_reduce (in-place)
I0714 21:44:45.480751  7824 net.cpp:141] Setting up inception_3b/relu_3x3_reduce
I0714 21:44:45.480764  7824 net.cpp:148] Top shape: 10 128 28 28 (1003520)
I0714 21:44:45.480769  7824 net.cpp:156] Memory required for data: 290017280
I0714 21:44:45.480775  7824 layer_factory.hpp:77] Creating layer inception_3b/3x3
I0714 21:44:45.480797  7824 net.cpp:91] Creating Layer inception_3b/3x3
I0714 21:44:45.480803  7824 net.cpp:425] inception_3b/3x3 <- inception_3b/3x3_reduce
I0714 21:44:45.480813  7824 net.cpp:399] inception_3b/3x3 -> inception_3b/3x3
I0714 21:44:45.487198  7820 net.cpp:141] Setting up inception_3b/3x3
I0714 21:44:45.487222  7820 net.cpp:148] Top shape: 10 192 28 28 (1505280)
I0714 21:44:45.487228  7820 net.cpp:156] Memory required for data: 296038400
I0714 21:44:45.487239  7820 layer_factory.hpp:77] Creating layer inception_3b/relu_3x3
I0714 21:44:45.487259  7820 net.cpp:91] Creating Layer inception_3b/relu_3x3
I0714 21:44:45.487267  7820 net.cpp:425] inception_3b/relu_3x3 <- inception_3b/3x3
I0714 21:44:45.487275  7820 net.cpp:386] inception_3b/relu_3x3 -> inception_3b/3x3 (in-place)
I0714 21:44:45.488332  7820 net.cpp:141] Setting up inception_3b/relu_3x3
I0714 21:44:45.488350  7820 net.cpp:148] Top shape: 10 192 28 28 (1505280)
I0714 21:44:45.488356  7820 net.cpp:156] Memory required for data: 302059520
I0714 21:44:45.488363  7820 layer_factory.hpp:77] Creating layer inception_3b/5x5_reduce
I0714 21:44:45.488384  7820 net.cpp:91] Creating Layer inception_3b/5x5_reduce
I0714 21:44:45.488391  7820 net.cpp:425] inception_3b/5x5_reduce <- inception_3a/output_inception_3a/output_0_split_2
I0714 21:44:45.488402  7820 net.cpp:399] inception_3b/5x5_reduce -> inception_3b/5x5_reduce
I0714 21:44:45.488478  7824 net.cpp:141] Setting up inception_3b/3x3
I0714 21:44:45.488497  7824 net.cpp:148] Top shape: 10 192 28 28 (1505280)
I0714 21:44:45.488503  7824 net.cpp:156] Memory required for data: 296038400
I0714 21:44:45.488514  7824 layer_factory.hpp:77] Creating layer inception_3b/relu_3x3
I0714 21:44:45.488533  7824 net.cpp:91] Creating Layer inception_3b/relu_3x3
I0714 21:44:45.488541  7824 net.cpp:425] inception_3b/relu_3x3 <- inception_3b/3x3
I0714 21:44:45.488549  7824 net.cpp:386] inception_3b/relu_3x3 -> inception_3b/3x3 (in-place)
I0714 21:44:45.489594  7824 net.cpp:141] Setting up inception_3b/relu_3x3
I0714 21:44:45.489614  7824 net.cpp:148] Top shape: 10 192 28 28 (1505280)
I0714 21:44:45.489619  7824 net.cpp:156] Memory required for data: 302059520
I0714 21:44:45.489625  7824 layer_factory.hpp:77] Creating layer inception_3b/5x5_reduce
I0714 21:44:45.489647  7824 net.cpp:91] Creating Layer inception_3b/5x5_reduce
I0714 21:44:45.489655  7824 net.cpp:425] inception_3b/5x5_reduce <- inception_3a/output_inception_3a/output_0_split_2
I0714 21:44:45.489665  7824 net.cpp:399] inception_3b/5x5_reduce -> inception_3b/5x5_reduce
I0714 21:44:45.494500  7820 net.cpp:141] Setting up inception_3b/5x5_reduce
I0714 21:44:45.494521  7820 net.cpp:148] Top shape: 10 32 28 28 (250880)
I0714 21:44:45.494529  7820 net.cpp:156] Memory required for data: 303063040
I0714 21:44:45.494539  7820 layer_factory.hpp:77] Creating layer inception_3b/relu_5x5_reduce
I0714 21:44:45.494557  7820 net.cpp:91] Creating Layer inception_3b/relu_5x5_reduce
I0714 21:44:45.494565  7820 net.cpp:425] inception_3b/relu_5x5_reduce <- inception_3b/5x5_reduce
I0714 21:44:45.494573  7820 net.cpp:386] inception_3b/relu_5x5_reduce -> inception_3b/5x5_reduce (in-place)
I0714 21:44:45.495067  7820 net.cpp:141] Setting up inception_3b/relu_5x5_reduce
I0714 21:44:45.495084  7820 net.cpp:148] Top shape: 10 32 28 28 (250880)
I0714 21:44:45.495090  7820 net.cpp:156] Memory required for data: 304066560
I0714 21:44:45.495095  7820 layer_factory.hpp:77] Creating layer inception_3b/5x5
I0714 21:44:45.495115  7820 net.cpp:91] Creating Layer inception_3b/5x5
I0714 21:44:45.495122  7820 net.cpp:425] inception_3b/5x5 <- inception_3b/5x5_reduce
I0714 21:44:45.495121  7824 net.cpp:141] Setting up inception_3b/5x5_reduce
I0714 21:44:45.495137  7820 net.cpp:399] inception_3b/5x5 -> inception_3b/5x5
I0714 21:44:45.495141  7824 net.cpp:148] Top shape: 10 32 28 28 (250880)
I0714 21:44:45.495147  7824 net.cpp:156] Memory required for data: 303063040
I0714 21:44:45.495158  7824 layer_factory.hpp:77] Creating layer inception_3b/relu_5x5_reduce
I0714 21:44:45.495172  7824 net.cpp:91] Creating Layer inception_3b/relu_5x5_reduce
I0714 21:44:45.495179  7824 net.cpp:425] inception_3b/relu_5x5_reduce <- inception_3b/5x5_reduce
I0714 21:44:45.495188  7824 net.cpp:386] inception_3b/relu_5x5_reduce -> inception_3b/5x5_reduce (in-place)
I0714 21:44:45.495712  7824 net.cpp:141] Setting up inception_3b/relu_5x5_reduce
I0714 21:44:45.495726  7824 net.cpp:148] Top shape: 10 32 28 28 (250880)
I0714 21:44:45.495733  7824 net.cpp:156] Memory required for data: 304066560
I0714 21:44:45.495738  7824 layer_factory.hpp:77] Creating layer inception_3b/5x5
I0714 21:44:45.495757  7824 net.cpp:91] Creating Layer inception_3b/5x5
I0714 21:44:45.495765  7824 net.cpp:425] inception_3b/5x5 <- inception_3b/5x5_reduce
I0714 21:44:45.495779  7824 net.cpp:399] inception_3b/5x5 -> inception_3b/5x5
I0714 21:44:45.503407  7820 net.cpp:141] Setting up inception_3b/5x5
I0714 21:44:45.503427  7820 net.cpp:148] Top shape: 10 96 28 28 (752640)
I0714 21:44:45.503434  7820 net.cpp:156] Memory required for data: 307077120
I0714 21:44:45.503444  7820 layer_factory.hpp:77] Creating layer inception_3b/relu_5x5
I0714 21:44:45.503455  7820 net.cpp:91] Creating Layer inception_3b/relu_5x5
I0714 21:44:45.503463  7820 net.cpp:425] inception_3b/relu_5x5 <- inception_3b/5x5
I0714 21:44:45.503471  7820 net.cpp:386] inception_3b/relu_5x5 -> inception_3b/5x5 (in-place)
I0714 21:44:45.503762  7824 net.cpp:141] Setting up inception_3b/5x5
I0714 21:44:45.503779  7824 net.cpp:148] Top shape: 10 96 28 28 (752640)
I0714 21:44:45.503787  7824 net.cpp:156] Memory required for data: 307077120
I0714 21:44:45.503796  7824 layer_factory.hpp:77] Creating layer inception_3b/relu_5x5
I0714 21:44:45.503806  7824 net.cpp:91] Creating Layer inception_3b/relu_5x5
I0714 21:44:45.503813  7824 net.cpp:425] inception_3b/relu_5x5 <- inception_3b/5x5
I0714 21:44:45.503820  7824 net.cpp:386] inception_3b/relu_5x5 -> inception_3b/5x5 (in-place)
I0714 21:44:45.503837  7820 net.cpp:141] Setting up inception_3b/relu_5x5
I0714 21:44:45.503852  7820 net.cpp:148] Top shape: 10 96 28 28 (752640)
I0714 21:44:45.503857  7820 net.cpp:156] Memory required for data: 310087680
I0714 21:44:45.503864  7820 layer_factory.hpp:77] Creating layer inception_3b/pool
I0714 21:44:45.503878  7820 net.cpp:91] Creating Layer inception_3b/pool
I0714 21:44:45.503885  7820 net.cpp:425] inception_3b/pool <- inception_3a/output_inception_3a/output_0_split_3
I0714 21:44:45.503895  7820 net.cpp:399] inception_3b/pool -> inception_3b/pool
I0714 21:44:45.504155  7820 net.cpp:141] Setting up inception_3b/pool
I0714 21:44:45.504168  7820 net.cpp:148] Top shape: 10 256 28 28 (2007040)
I0714 21:44:45.504174  7820 net.cpp:156] Memory required for data: 318115840
I0714 21:44:45.504179  7820 layer_factory.hpp:77] Creating layer inception_3b/pool_proj
I0714 21:44:45.504197  7820 net.cpp:91] Creating Layer inception_3b/pool_proj
I0714 21:44:45.504204  7820 net.cpp:425] inception_3b/pool_proj <- inception_3b/pool
I0714 21:44:45.504217  7820 net.cpp:399] inception_3b/pool_proj -> inception_3b/pool_proj
I0714 21:44:45.504233  7824 net.cpp:141] Setting up inception_3b/relu_5x5
I0714 21:44:45.504247  7824 net.cpp:148] Top shape: 10 96 28 28 (752640)
I0714 21:44:45.504253  7824 net.cpp:156] Memory required for data: 310087680
I0714 21:44:45.504259  7824 layer_factory.hpp:77] Creating layer inception_3b/pool
I0714 21:44:45.504272  7824 net.cpp:91] Creating Layer inception_3b/pool
I0714 21:44:45.504279  7824 net.cpp:425] inception_3b/pool <- inception_3a/output_inception_3a/output_0_split_3
I0714 21:44:45.504288  7824 net.cpp:399] inception_3b/pool -> inception_3b/pool
I0714 21:44:45.504565  7824 net.cpp:141] Setting up inception_3b/pool
I0714 21:44:45.504578  7824 net.cpp:148] Top shape: 10 256 28 28 (2007040)
I0714 21:44:45.504583  7824 net.cpp:156] Memory required for data: 318115840
I0714 21:44:45.504590  7824 layer_factory.hpp:77] Creating layer inception_3b/pool_proj
I0714 21:44:45.504606  7824 net.cpp:91] Creating Layer inception_3b/pool_proj
I0714 21:44:45.504613  7824 net.cpp:425] inception_3b/pool_proj <- inception_3b/pool
I0714 21:44:45.504627  7824 net.cpp:399] inception_3b/pool_proj -> inception_3b/pool_proj
I0714 21:44:45.508764  7820 net.cpp:141] Setting up inception_3b/pool_proj
I0714 21:44:45.508783  7820 net.cpp:148] Top shape: 10 64 28 28 (501760)
I0714 21:44:45.508790  7820 net.cpp:156] Memory required for data: 320122880
I0714 21:44:45.508800  7820 layer_factory.hpp:77] Creating layer inception_3b/relu_pool_proj
I0714 21:44:45.508815  7820 net.cpp:91] Creating Layer inception_3b/relu_pool_proj
I0714 21:44:45.508821  7820 net.cpp:425] inception_3b/relu_pool_proj <- inception_3b/pool_proj
I0714 21:44:45.508831  7820 net.cpp:386] inception_3b/relu_pool_proj -> inception_3b/pool_proj (in-place)
I0714 21:44:45.509863  7820 net.cpp:141] Setting up inception_3b/relu_pool_proj
I0714 21:44:45.509881  7820 net.cpp:148] Top shape: 10 64 28 28 (501760)
I0714 21:44:45.509886  7820 net.cpp:156] Memory required for data: 322129920
I0714 21:44:45.509892  7820 layer_factory.hpp:77] Creating layer inception_3b/output
I0714 21:44:45.509907  7820 net.cpp:91] Creating Layer inception_3b/output
I0714 21:44:45.509913  7820 net.cpp:425] inception_3b/output <- inception_3b/1x1
I0714 21:44:45.509922  7820 net.cpp:425] inception_3b/output <- inception_3b/3x3
I0714 21:44:45.509928  7820 net.cpp:425] inception_3b/output <- inception_3b/5x5
I0714 21:44:45.509934  7820 net.cpp:425] inception_3b/output <- inception_3b/pool_proj
I0714 21:44:45.509944  7820 net.cpp:399] inception_3b/output -> inception_3b/output
I0714 21:44:45.509970  7824 net.cpp:141] Setting up inception_3b/pool_proj
I0714 21:44:45.509989  7824 net.cpp:148] Top shape: 10 64 28 28 (501760)
I0714 21:44:45.509994  7824 net.cpp:156] Memory required for data: 320122880
I0714 21:44:45.510004  7824 layer_factory.hpp:77] Creating layer inception_3b/relu_pool_proj
I0714 21:44:45.510018  7824 net.cpp:91] Creating Layer inception_3b/relu_pool_proj
I0714 21:44:45.510025  7824 net.cpp:425] inception_3b/relu_pool_proj <- inception_3b/pool_proj
I0714 21:44:45.510035  7820 net.cpp:141] Setting up inception_3b/output
I0714 21:44:45.510035  7824 net.cpp:386] inception_3b/relu_pool_proj -> inception_3b/pool_proj (in-place)
I0714 21:44:45.510051  7820 net.cpp:148] Top shape: 10 480 28 28 (3763200)
I0714 21:44:45.510057  7820 net.cpp:156] Memory required for data: 337182720
I0714 21:44:45.510063  7820 layer_factory.hpp:77] Creating layer pool3/3x3_s2
I0714 21:44:45.510072  7820 net.cpp:91] Creating Layer pool3/3x3_s2
I0714 21:44:45.510078  7820 net.cpp:425] pool3/3x3_s2 <- inception_3b/output
I0714 21:44:45.510089  7820 net.cpp:399] pool3/3x3_s2 -> pool3/3x3_s2
I0714 21:44:45.510937  7820 net.cpp:141] Setting up pool3/3x3_s2
I0714 21:44:45.510952  7820 net.cpp:148] Top shape: 10 480 14 14 (940800)
I0714 21:44:45.510957  7820 net.cpp:156] Memory required for data: 340945920
I0714 21:44:45.510963  7820 layer_factory.hpp:77] Creating layer pool3/3x3_s2_pool3/3x3_s2_0_split
I0714 21:44:45.510977  7820 net.cpp:91] Creating Layer pool3/3x3_s2_pool3/3x3_s2_0_split
I0714 21:44:45.510982  7820 net.cpp:425] pool3/3x3_s2_pool3/3x3_s2_0_split <- pool3/3x3_s2
I0714 21:44:45.510990  7820 net.cpp:399] pool3/3x3_s2_pool3/3x3_s2_0_split -> pool3/3x3_s2_pool3/3x3_s2_0_split_0
I0714 21:44:45.511001  7820 net.cpp:399] pool3/3x3_s2_pool3/3x3_s2_0_split -> pool3/3x3_s2_pool3/3x3_s2_0_split_1
I0714 21:44:45.511010  7820 net.cpp:399] pool3/3x3_s2_pool3/3x3_s2_0_split -> pool3/3x3_s2_pool3/3x3_s2_0_split_2
I0714 21:44:45.511014  7824 net.cpp:141] Setting up inception_3b/relu_pool_proj
I0714 21:44:45.511019  7820 net.cpp:399] pool3/3x3_s2_pool3/3x3_s2_0_split -> pool3/3x3_s2_pool3/3x3_s2_0_split_3
I0714 21:44:45.511034  7824 net.cpp:148] Top shape: 10 64 28 28 (501760)
I0714 21:44:45.511040  7824 net.cpp:156] Memory required for data: 322129920
I0714 21:44:45.511046  7824 layer_factory.hpp:77] Creating layer inception_3b/output
I0714 21:44:45.511060  7824 net.cpp:91] Creating Layer inception_3b/output
I0714 21:44:45.511066  7824 net.cpp:425] inception_3b/output <- inception_3b/1x1
I0714 21:44:45.511075  7824 net.cpp:425] inception_3b/output <- inception_3b/3x3
I0714 21:44:45.511081  7824 net.cpp:425] inception_3b/output <- inception_3b/5x5
I0714 21:44:45.511087  7824 net.cpp:425] inception_3b/output <- inception_3b/pool_proj
I0714 21:44:45.511097  7824 net.cpp:399] inception_3b/output -> inception_3b/output
I0714 21:44:45.511260  7824 net.cpp:141] Setting up inception_3b/output
I0714 21:44:45.511273  7824 net.cpp:148] Top shape: 10 480 28 28 (3763200)
I0714 21:44:45.511279  7824 net.cpp:156] Memory required for data: 337182720
I0714 21:44:45.511284  7824 layer_factory.hpp:77] Creating layer pool3/3x3_s2
I0714 21:44:45.511294  7824 net.cpp:91] Creating Layer pool3/3x3_s2
I0714 21:44:45.511301  7824 net.cpp:425] pool3/3x3_s2 <- inception_3b/output
I0714 21:44:45.511312  7824 net.cpp:399] pool3/3x3_s2 -> pool3/3x3_s2
I0714 21:44:45.511322  7820 net.cpp:141] Setting up pool3/3x3_s2_pool3/3x3_s2_0_split
I0714 21:44:45.511335  7820 net.cpp:148] Top shape: 10 480 14 14 (940800)
I0714 21:44:45.511343  7820 net.cpp:148] Top shape: 10 480 14 14 (940800)
I0714 21:44:45.511348  7820 net.cpp:148] Top shape: 10 480 14 14 (940800)
I0714 21:44:45.511353  7820 net.cpp:148] Top shape: 10 480 14 14 (940800)
I0714 21:44:45.511358  7820 net.cpp:156] Memory required for data: 355998720
I0714 21:44:45.511364  7820 layer_factory.hpp:77] Creating layer inception_4a/1x1
I0714 21:44:45.511382  7820 net.cpp:91] Creating Layer inception_4a/1x1
I0714 21:44:45.511389  7820 net.cpp:425] inception_4a/1x1 <- pool3/3x3_s2_pool3/3x3_s2_0_split_0
I0714 21:44:45.511399  7820 net.cpp:399] inception_4a/1x1 -> inception_4a/1x1
I0714 21:44:45.511490  7824 net.cpp:141] Setting up pool3/3x3_s2
I0714 21:44:45.511504  7824 net.cpp:148] Top shape: 10 480 14 14 (940800)
I0714 21:44:45.511509  7824 net.cpp:156] Memory required for data: 340945920
I0714 21:44:45.511515  7824 layer_factory.hpp:77] Creating layer pool3/3x3_s2_pool3/3x3_s2_0_split
I0714 21:44:45.511528  7824 net.cpp:91] Creating Layer pool3/3x3_s2_pool3/3x3_s2_0_split
I0714 21:44:45.511534  7824 net.cpp:425] pool3/3x3_s2_pool3/3x3_s2_0_split <- pool3/3x3_s2
I0714 21:44:45.511543  7824 net.cpp:399] pool3/3x3_s2_pool3/3x3_s2_0_split -> pool3/3x3_s2_pool3/3x3_s2_0_split_0
I0714 21:44:45.511553  7824 net.cpp:399] pool3/3x3_s2_pool3/3x3_s2_0_split -> pool3/3x3_s2_pool3/3x3_s2_0_split_1
I0714 21:44:45.511561  7824 net.cpp:399] pool3/3x3_s2_pool3/3x3_s2_0_split -> pool3/3x3_s2_pool3/3x3_s2_0_split_2
I0714 21:44:45.511570  7824 net.cpp:399] pool3/3x3_s2_pool3/3x3_s2_0_split -> pool3/3x3_s2_pool3/3x3_s2_0_split_3
I0714 21:44:45.512121  7824 net.cpp:141] Setting up pool3/3x3_s2_pool3/3x3_s2_0_split
I0714 21:44:45.512135  7824 net.cpp:148] Top shape: 10 480 14 14 (940800)
I0714 21:44:45.512142  7824 net.cpp:148] Top shape: 10 480 14 14 (940800)
I0714 21:44:45.512148  7824 net.cpp:148] Top shape: 10 480 14 14 (940800)
I0714 21:44:45.512154  7824 net.cpp:148] Top shape: 10 480 14 14 (940800)
I0714 21:44:45.512158  7824 net.cpp:156] Memory required for data: 355998720
I0714 21:44:45.512164  7824 layer_factory.hpp:77] Creating layer inception_4a/1x1
I0714 21:44:45.512182  7824 net.cpp:91] Creating Layer inception_4a/1x1
I0714 21:44:45.512189  7824 net.cpp:425] inception_4a/1x1 <- pool3/3x3_s2_pool3/3x3_s2_0_split_0
I0714 21:44:45.512199  7824 net.cpp:399] inception_4a/1x1 -> inception_4a/1x1
I0714 21:44:45.517971  7820 net.cpp:141] Setting up inception_4a/1x1
I0714 21:44:45.517992  7820 net.cpp:148] Top shape: 10 192 14 14 (376320)
I0714 21:44:45.517998  7820 net.cpp:156] Memory required for data: 357504000
I0714 21:44:45.518008  7820 layer_factory.hpp:77] Creating layer inception_4a/relu_1x1
I0714 21:44:45.518021  7820 net.cpp:91] Creating Layer inception_4a/relu_1x1
I0714 21:44:45.518028  7820 net.cpp:425] inception_4a/relu_1x1 <- inception_4a/1x1
I0714 21:44:45.518038  7820 net.cpp:386] inception_4a/relu_1x1 -> inception_4a/1x1 (in-place)
I0714 21:44:45.518493  7820 net.cpp:141] Setting up inception_4a/relu_1x1
I0714 21:44:45.518507  7820 net.cpp:148] Top shape: 10 192 14 14 (376320)
I0714 21:44:45.518512  7824 net.cpp:141] Setting up inception_4a/1x1
I0714 21:44:45.518512  7820 net.cpp:156] Memory required for data: 359009280
I0714 21:44:45.518540  7824 net.cpp:148] Top shape: 10 192 14 14 (376320)
I0714 21:44:45.518544  7820 layer_factory.hpp:77] Creating layer inception_4a/3x3_reduce
I0714 21:44:45.518548  7824 net.cpp:156] Memory required for data: 357504000
I0714 21:44:45.518560  7824 layer_factory.hpp:77] Creating layer inception_4a/relu_1x1
I0714 21:44:45.518568  7820 net.cpp:91] Creating Layer inception_4a/3x3_reduce
I0714 21:44:45.518573  7824 net.cpp:91] Creating Layer inception_4a/relu_1x1
I0714 21:44:45.518576  7820 net.cpp:425] inception_4a/3x3_reduce <- pool3/3x3_s2_pool3/3x3_s2_0_split_1
I0714 21:44:45.518581  7824 net.cpp:425] inception_4a/relu_1x1 <- inception_4a/1x1
I0714 21:44:45.518587  7820 net.cpp:399] inception_4a/3x3_reduce -> inception_4a/3x3_reduce
I0714 21:44:45.518591  7824 net.cpp:386] inception_4a/relu_1x1 -> inception_4a/1x1 (in-place)
I0714 21:44:45.519148  7824 net.cpp:141] Setting up inception_4a/relu_1x1
I0714 21:44:45.519163  7824 net.cpp:148] Top shape: 10 192 14 14 (376320)
I0714 21:44:45.519168  7824 net.cpp:156] Memory required for data: 359009280
I0714 21:44:45.519176  7824 layer_factory.hpp:77] Creating layer inception_4a/3x3_reduce
I0714 21:44:45.519196  7824 net.cpp:91] Creating Layer inception_4a/3x3_reduce
I0714 21:44:45.519204  7824 net.cpp:425] inception_4a/3x3_reduce <- pool3/3x3_s2_pool3/3x3_s2_0_split_1
I0714 21:44:45.519215  7824 net.cpp:399] inception_4a/3x3_reduce -> inception_4a/3x3_reduce
I0714 21:44:45.523794  7820 net.cpp:141] Setting up inception_4a/3x3_reduce
I0714 21:44:45.523813  7820 net.cpp:148] Top shape: 10 96 14 14 (188160)
I0714 21:44:45.523820  7820 net.cpp:156] Memory required for data: 359761920
I0714 21:44:45.523845  7820 layer_factory.hpp:77] Creating layer inception_4a/relu_3x3_reduce
I0714 21:44:45.523856  7820 net.cpp:91] Creating Layer inception_4a/relu_3x3_reduce
I0714 21:44:45.523864  7820 net.cpp:425] inception_4a/relu_3x3_reduce <- inception_4a/3x3_reduce
I0714 21:44:45.523871  7820 net.cpp:386] inception_4a/relu_3x3_reduce -> inception_4a/3x3_reduce (in-place)
I0714 21:44:45.524174  7824 net.cpp:141] Setting up inception_4a/3x3_reduce
I0714 21:44:45.524193  7824 net.cpp:148] Top shape: 10 96 14 14 (188160)
I0714 21:44:45.524199  7824 net.cpp:156] Memory required for data: 359761920
I0714 21:44:45.524224  7824 layer_factory.hpp:77] Creating layer inception_4a/relu_3x3_reduce
I0714 21:44:45.524235  7824 net.cpp:91] Creating Layer inception_4a/relu_3x3_reduce
I0714 21:44:45.524241  7824 net.cpp:425] inception_4a/relu_3x3_reduce <- inception_4a/3x3_reduce
I0714 21:44:45.524250  7824 net.cpp:386] inception_4a/relu_3x3_reduce -> inception_4a/3x3_reduce (in-place)
I0714 21:44:45.524255  7820 net.cpp:141] Setting up inception_4a/relu_3x3_reduce
I0714 21:44:45.524269  7820 net.cpp:148] Top shape: 10 96 14 14 (188160)
I0714 21:44:45.524274  7820 net.cpp:156] Memory required for data: 360514560
I0714 21:44:45.524281  7820 layer_factory.hpp:77] Creating layer inception_4a/3x3
I0714 21:44:45.524317  7820 net.cpp:91] Creating Layer inception_4a/3x3
I0714 21:44:45.524325  7820 net.cpp:425] inception_4a/3x3 <- inception_4a/3x3_reduce
I0714 21:44:45.524336  7820 net.cpp:399] inception_4a/3x3 -> inception_4a/3x3
I0714 21:44:45.524760  7824 net.cpp:141] Setting up inception_4a/relu_3x3_reduce
I0714 21:44:45.524783  7824 net.cpp:148] Top shape: 10 96 14 14 (188160)
I0714 21:44:45.524790  7824 net.cpp:156] Memory required for data: 360514560
I0714 21:44:45.524796  7824 layer_factory.hpp:77] Creating layer inception_4a/3x3
I0714 21:44:45.524812  7824 net.cpp:91] Creating Layer inception_4a/3x3
I0714 21:44:45.524819  7824 net.cpp:425] inception_4a/3x3 <- inception_4a/3x3_reduce
I0714 21:44:45.524829  7824 net.cpp:399] inception_4a/3x3 -> inception_4a/3x3
I0714 21:44:45.532821  7820 net.cpp:141] Setting up inception_4a/3x3
I0714 21:44:45.532842  7820 net.cpp:148] Top shape: 10 208 14 14 (407680)
I0714 21:44:45.532848  7820 net.cpp:156] Memory required for data: 362145280
I0714 21:44:45.532860  7820 layer_factory.hpp:77] Creating layer inception_4a/relu_3x3
I0714 21:44:45.532877  7820 net.cpp:91] Creating Layer inception_4a/relu_3x3
I0714 21:44:45.532884  7820 net.cpp:425] inception_4a/relu_3x3 <- inception_4a/3x3
I0714 21:44:45.532893  7820 net.cpp:386] inception_4a/relu_3x3 -> inception_4a/3x3 (in-place)
I0714 21:44:45.534001  7820 net.cpp:141] Setting up inception_4a/relu_3x3
I0714 21:44:45.534018  7820 net.cpp:148] Top shape: 10 208 14 14 (407680)
I0714 21:44:45.534024  7820 net.cpp:156] Memory required for data: 363776000
I0714 21:44:45.534030  7820 layer_factory.hpp:77] Creating layer inception_4a/5x5_reduce
I0714 21:44:45.534051  7820 net.cpp:91] Creating Layer inception_4a/5x5_reduce
I0714 21:44:45.534060  7820 net.cpp:425] inception_4a/5x5_reduce <- pool3/3x3_s2_pool3/3x3_s2_0_split_2
I0714 21:44:45.534070  7820 net.cpp:399] inception_4a/5x5_reduce -> inception_4a/5x5_reduce
I0714 21:44:45.534113  7824 net.cpp:141] Setting up inception_4a/3x3
I0714 21:44:45.534132  7824 net.cpp:148] Top shape: 10 208 14 14 (407680)
I0714 21:44:45.534138  7824 net.cpp:156] Memory required for data: 362145280
I0714 21:44:45.534148  7824 layer_factory.hpp:77] Creating layer inception_4a/relu_3x3
I0714 21:44:45.534162  7824 net.cpp:91] Creating Layer inception_4a/relu_3x3
I0714 21:44:45.534169  7824 net.cpp:425] inception_4a/relu_3x3 <- inception_4a/3x3
I0714 21:44:45.534180  7824 net.cpp:386] inception_4a/relu_3x3 -> inception_4a/3x3 (in-place)
I0714 21:44:45.535276  7824 net.cpp:141] Setting up inception_4a/relu_3x3
I0714 21:44:45.535296  7824 net.cpp:148] Top shape: 10 208 14 14 (407680)
I0714 21:44:45.535302  7824 net.cpp:156] Memory required for data: 363776000
I0714 21:44:45.535308  7824 layer_factory.hpp:77] Creating layer inception_4a/5x5_reduce
I0714 21:44:45.535326  7824 net.cpp:91] Creating Layer inception_4a/5x5_reduce
I0714 21:44:45.535333  7824 net.cpp:425] inception_4a/5x5_reduce <- pool3/3x3_s2_pool3/3x3_s2_0_split_2
I0714 21:44:45.535343  7824 net.cpp:399] inception_4a/5x5_reduce -> inception_4a/5x5_reduce
I0714 21:44:45.540144  7820 net.cpp:141] Setting up inception_4a/5x5_reduce
I0714 21:44:45.540170  7820 net.cpp:148] Top shape: 10 16 14 14 (31360)
I0714 21:44:45.540176  7820 net.cpp:156] Memory required for data: 363901440
I0714 21:44:45.540189  7820 layer_factory.hpp:77] Creating layer inception_4a/relu_5x5_reduce
I0714 21:44:45.540199  7820 net.cpp:91] Creating Layer inception_4a/relu_5x5_reduce
I0714 21:44:45.540206  7820 net.cpp:425] inception_4a/relu_5x5_reduce <- inception_4a/5x5_reduce
I0714 21:44:45.540218  7820 net.cpp:386] inception_4a/relu_5x5_reduce -> inception_4a/5x5_reduce (in-place)
I0714 21:44:45.540730  7820 net.cpp:141] Setting up inception_4a/relu_5x5_reduce
I0714 21:44:45.540746  7820 net.cpp:148] Top shape: 10 16 14 14 (31360)
I0714 21:44:45.540752  7820 net.cpp:156] Memory required for data: 364026880
I0714 21:44:45.540760  7820 layer_factory.hpp:77] Creating layer inception_4a/5x5
I0714 21:44:45.540781  7820 net.cpp:91] Creating Layer inception_4a/5x5
I0714 21:44:45.540788  7820 net.cpp:425] inception_4a/5x5 <- inception_4a/5x5_reduce
I0714 21:44:45.540799  7820 net.cpp:399] inception_4a/5x5 -> inception_4a/5x5
I0714 21:44:45.540834  7824 net.cpp:141] Setting up inception_4a/5x5_reduce
I0714 21:44:45.540853  7824 net.cpp:148] Top shape: 10 16 14 14 (31360)
I0714 21:44:45.540859  7824 net.cpp:156] Memory required for data: 363901440
I0714 21:44:45.540869  7824 layer_factory.hpp:77] Creating layer inception_4a/relu_5x5_reduce
I0714 21:44:45.540879  7824 net.cpp:91] Creating Layer inception_4a/relu_5x5_reduce
I0714 21:44:45.540886  7824 net.cpp:425] inception_4a/relu_5x5_reduce <- inception_4a/5x5_reduce
I0714 21:44:45.540899  7824 net.cpp:386] inception_4a/relu_5x5_reduce -> inception_4a/5x5_reduce (in-place)
I0714 21:44:45.541388  7824 net.cpp:141] Setting up inception_4a/relu_5x5_reduce
I0714 21:44:45.541401  7824 net.cpp:148] Top shape: 10 16 14 14 (31360)
I0714 21:44:45.541406  7824 net.cpp:156] Memory required for data: 364026880
I0714 21:44:45.541412  7824 layer_factory.hpp:77] Creating layer inception_4a/5x5
I0714 21:44:45.541432  7824 net.cpp:91] Creating Layer inception_4a/5x5
I0714 21:44:45.541440  7824 net.cpp:425] inception_4a/5x5 <- inception_4a/5x5_reduce
I0714 21:44:45.541451  7824 net.cpp:399] inception_4a/5x5 -> inception_4a/5x5
I0714 21:44:45.545783  7820 net.cpp:141] Setting up inception_4a/5x5
I0714 21:44:45.545804  7820 net.cpp:148] Top shape: 10 48 14 14 (94080)
I0714 21:44:45.545811  7820 net.cpp:156] Memory required for data: 364403200
I0714 21:44:45.545822  7820 layer_factory.hpp:77] Creating layer inception_4a/relu_5x5
I0714 21:44:45.545832  7820 net.cpp:91] Creating Layer inception_4a/relu_5x5
I0714 21:44:45.545840  7820 net.cpp:425] inception_4a/relu_5x5 <- inception_4a/5x5
I0714 21:44:45.545848  7820 net.cpp:386] inception_4a/relu_5x5 -> inception_4a/5x5 (in-place)
I0714 21:44:45.546277  7824 net.cpp:141] Setting up inception_4a/5x5
I0714 21:44:45.546296  7824 net.cpp:148] Top shape: 10 48 14 14 (94080)
I0714 21:44:45.546303  7824 net.cpp:156] Memory required for data: 364403200
I0714 21:44:45.546303  7820 net.cpp:141] Setting up inception_4a/relu_5x5
I0714 21:44:45.546314  7824 layer_factory.hpp:77] Creating layer inception_4a/relu_5x5
I0714 21:44:45.546319  7820 net.cpp:148] Top shape: 10 48 14 14 (94080)
I0714 21:44:45.546324  7820 net.cpp:156] Memory required for data: 364779520
I0714 21:44:45.546325  7824 net.cpp:91] Creating Layer inception_4a/relu_5x5
I0714 21:44:45.546331  7820 layer_factory.hpp:77] Creating layer inception_4a/pool
I0714 21:44:45.546334  7824 net.cpp:425] inception_4a/relu_5x5 <- inception_4a/5x5
I0714 21:44:45.546349  7820 net.cpp:91] Creating Layer inception_4a/pool
I0714 21:44:45.546353  7824 net.cpp:386] inception_4a/relu_5x5 -> inception_4a/5x5 (in-place)
I0714 21:44:45.546356  7820 net.cpp:425] inception_4a/pool <- pool3/3x3_s2_pool3/3x3_s2_0_split_3
I0714 21:44:45.546370  7820 net.cpp:399] inception_4a/pool -> inception_4a/pool
I0714 21:44:45.546726  7820 net.cpp:141] Setting up inception_4a/pool
I0714 21:44:45.546741  7820 net.cpp:148] Top shape: 10 480 14 14 (940800)
I0714 21:44:45.546746  7820 net.cpp:156] Memory required for data: 368542720
I0714 21:44:45.546751  7820 layer_factory.hpp:77] Creating layer inception_4a/pool_proj
I0714 21:44:45.546769  7820 net.cpp:91] Creating Layer inception_4a/pool_proj
I0714 21:44:45.546777  7820 net.cpp:425] inception_4a/pool_proj <- inception_4a/pool
I0714 21:44:45.546785  7820 net.cpp:399] inception_4a/pool_proj -> inception_4a/pool_proj
I0714 21:44:45.546808  7824 net.cpp:141] Setting up inception_4a/relu_5x5
I0714 21:44:45.546823  7824 net.cpp:148] Top shape: 10 48 14 14 (94080)
I0714 21:44:45.546828  7824 net.cpp:156] Memory required for data: 364779520
I0714 21:44:45.546833  7824 layer_factory.hpp:77] Creating layer inception_4a/pool
I0714 21:44:45.546844  7824 net.cpp:91] Creating Layer inception_4a/pool
I0714 21:44:45.546850  7824 net.cpp:425] inception_4a/pool <- pool3/3x3_s2_pool3/3x3_s2_0_split_3
I0714 21:44:45.546862  7824 net.cpp:399] inception_4a/pool -> inception_4a/pool
I0714 21:44:45.547181  7824 net.cpp:141] Setting up inception_4a/pool
I0714 21:44:45.547194  7824 net.cpp:148] Top shape: 10 480 14 14 (940800)
I0714 21:44:45.547200  7824 net.cpp:156] Memory required for data: 368542720
I0714 21:44:45.547205  7824 layer_factory.hpp:77] Creating layer inception_4a/pool_proj
I0714 21:44:45.547222  7824 net.cpp:91] Creating Layer inception_4a/pool_proj
I0714 21:44:45.547230  7824 net.cpp:425] inception_4a/pool_proj <- inception_4a/pool
I0714 21:44:45.547241  7824 net.cpp:399] inception_4a/pool_proj -> inception_4a/pool_proj
I0714 21:44:45.551522  7820 net.cpp:141] Setting up inception_4a/pool_proj
I0714 21:44:45.551542  7820 net.cpp:148] Top shape: 10 64 14 14 (125440)
I0714 21:44:45.551548  7820 net.cpp:156] Memory required for data: 369044480
I0714 21:44:45.551559  7820 layer_factory.hpp:77] Creating layer inception_4a/relu_pool_proj
I0714 21:44:45.551569  7820 net.cpp:91] Creating Layer inception_4a/relu_pool_proj
I0714 21:44:45.551578  7820 net.cpp:425] inception_4a/relu_pool_proj <- inception_4a/pool_proj
I0714 21:44:45.551589  7820 net.cpp:386] inception_4a/relu_pool_proj -> inception_4a/pool_proj (in-place)
I0714 21:44:45.552621  7820 net.cpp:141] Setting up inception_4a/relu_pool_proj
I0714 21:44:45.552639  7820 net.cpp:148] Top shape: 10 64 14 14 (125440)
I0714 21:44:45.552645  7820 net.cpp:156] Memory required for data: 369546240
I0714 21:44:45.552651  7820 layer_factory.hpp:77] Creating layer inception_4a/output
I0714 21:44:45.552661  7820 net.cpp:91] Creating Layer inception_4a/output
I0714 21:44:45.552671  7820 net.cpp:425] inception_4a/output <- inception_4a/1x1
I0714 21:44:45.552678  7820 net.cpp:425] inception_4a/output <- inception_4a/3x3
I0714 21:44:45.552685  7820 net.cpp:425] inception_4a/output <- inception_4a/5x5
I0714 21:44:45.552692  7820 net.cpp:425] inception_4a/output <- inception_4a/pool_proj
I0714 21:44:45.552693  7824 net.cpp:141] Setting up inception_4a/pool_proj
I0714 21:44:45.552700  7820 net.cpp:399] inception_4a/output -> inception_4a/output
I0714 21:44:45.552714  7824 net.cpp:148] Top shape: 10 64 14 14 (125440)
I0714 21:44:45.552721  7824 net.cpp:156] Memory required for data: 369044480
I0714 21:44:45.552732  7824 layer_factory.hpp:77] Creating layer inception_4a/relu_pool_proj
I0714 21:44:45.552742  7824 net.cpp:91] Creating Layer inception_4a/relu_pool_proj
I0714 21:44:45.552748  7824 net.cpp:425] inception_4a/relu_pool_proj <- inception_4a/pool_proj
I0714 21:44:45.552759  7824 net.cpp:386] inception_4a/relu_pool_proj -> inception_4a/pool_proj (in-place)
I0714 21:44:45.552806  7820 net.cpp:141] Setting up inception_4a/output
I0714 21:44:45.552819  7820 net.cpp:148] Top shape: 10 512 14 14 (1003520)
I0714 21:44:45.552824  7820 net.cpp:156] Memory required for data: 373560320
I0714 21:44:45.552830  7820 layer_factory.hpp:77] Creating layer inception_4a/output_inception_4a/output_0_split
I0714 21:44:45.552842  7820 net.cpp:91] Creating Layer inception_4a/output_inception_4a/output_0_split
I0714 21:44:45.552848  7820 net.cpp:425] inception_4a/output_inception_4a/output_0_split <- inception_4a/output
I0714 21:44:45.552856  7820 net.cpp:399] inception_4a/output_inception_4a/output_0_split -> inception_4a/output_inception_4a/output_0_split_0
I0714 21:44:45.552867  7820 net.cpp:399] inception_4a/output_inception_4a/output_0_split -> inception_4a/output_inception_4a/output_0_split_1
I0714 21:44:45.552877  7820 net.cpp:399] inception_4a/output_inception_4a/output_0_split -> inception_4a/output_inception_4a/output_0_split_2
I0714 21:44:45.552886  7820 net.cpp:399] inception_4a/output_inception_4a/output_0_split -> inception_4a/output_inception_4a/output_0_split_3
I0714 21:44:45.553808  7820 net.cpp:141] Setting up inception_4a/output_inception_4a/output_0_split
I0714 21:44:45.553822  7820 net.cpp:148] Top shape: 10 512 14 14 (1003520)
I0714 21:44:45.553829  7820 net.cpp:148] Top shape: 10 512 14 14 (1003520)
I0714 21:44:45.553828  7824 net.cpp:141] Setting up inception_4a/relu_pool_proj
I0714 21:44:45.553836  7820 net.cpp:148] Top shape: 10 512 14 14 (1003520)
I0714 21:44:45.553843  7820 net.cpp:148] Top shape: 10 512 14 14 (1003520)
I0714 21:44:45.553843  7824 net.cpp:148] Top shape: 10 64 14 14 (125440)
I0714 21:44:45.553849  7820 net.cpp:156] Memory required for data: 389616640
I0714 21:44:45.553851  7824 net.cpp:156] Memory required for data: 369546240
I0714 21:44:45.553856  7820 layer_factory.hpp:77] Creating layer inception_4b/1x1
I0714 21:44:45.553859  7824 layer_factory.hpp:77] Creating layer inception_4a/output
I0714 21:44:45.553872  7824 net.cpp:91] Creating Layer inception_4a/output
I0714 21:44:45.553879  7820 net.cpp:91] Creating Layer inception_4b/1x1
I0714 21:44:45.553879  7824 net.cpp:425] inception_4a/output <- inception_4a/1x1
I0714 21:44:45.553889  7820 net.cpp:425] inception_4b/1x1 <- inception_4a/output_inception_4a/output_0_split_0
I0714 21:44:45.553901  7824 net.cpp:425] inception_4a/output <- inception_4a/3x3
I0714 21:44:45.553910  7824 net.cpp:425] inception_4a/output <- inception_4a/5x5
I0714 21:44:45.553911  7820 net.cpp:399] inception_4b/1x1 -> inception_4b/1x1
I0714 21:44:45.553915  7824 net.cpp:425] inception_4a/output <- inception_4a/pool_proj
I0714 21:44:45.553925  7824 net.cpp:399] inception_4a/output -> inception_4a/output
I0714 21:44:45.554100  7824 net.cpp:141] Setting up inception_4a/output
I0714 21:44:45.554112  7824 net.cpp:148] Top shape: 10 512 14 14 (1003520)
I0714 21:44:45.554117  7824 net.cpp:156] Memory required for data: 373560320
I0714 21:44:45.554123  7824 layer_factory.hpp:77] Creating layer inception_4a/output_inception_4a/output_0_split
I0714 21:44:45.554134  7824 net.cpp:91] Creating Layer inception_4a/output_inception_4a/output_0_split
I0714 21:44:45.554141  7824 net.cpp:425] inception_4a/output_inception_4a/output_0_split <- inception_4a/output
I0714 21:44:45.554149  7824 net.cpp:399] inception_4a/output_inception_4a/output_0_split -> inception_4a/output_inception_4a/output_0_split_0
I0714 21:44:45.554160  7824 net.cpp:399] inception_4a/output_inception_4a/output_0_split -> inception_4a/output_inception_4a/output_0_split_1
I0714 21:44:45.554170  7824 net.cpp:399] inception_4a/output_inception_4a/output_0_split -> inception_4a/output_inception_4a/output_0_split_2
I0714 21:44:45.554180  7824 net.cpp:399] inception_4a/output_inception_4a/output_0_split -> inception_4a/output_inception_4a/output_0_split_3
I0714 21:44:45.554782  7824 net.cpp:141] Setting up inception_4a/output_inception_4a/output_0_split
I0714 21:44:45.554796  7824 net.cpp:148] Top shape: 10 512 14 14 (1003520)
I0714 21:44:45.554803  7824 net.cpp:148] Top shape: 10 512 14 14 (1003520)
I0714 21:44:45.554810  7824 net.cpp:148] Top shape: 10 512 14 14 (1003520)
I0714 21:44:45.554816  7824 net.cpp:148] Top shape: 10 512 14 14 (1003520)
I0714 21:44:45.554821  7824 net.cpp:156] Memory required for data: 389616640
I0714 21:44:45.554826  7824 layer_factory.hpp:77] Creating layer inception_4b/1x1
I0714 21:44:45.554847  7824 net.cpp:91] Creating Layer inception_4b/1x1
I0714 21:44:45.554853  7824 net.cpp:425] inception_4b/1x1 <- inception_4a/output_inception_4a/output_0_split_0
I0714 21:44:45.554863  7824 net.cpp:399] inception_4b/1x1 -> inception_4b/1x1
I0714 21:44:45.559808  7820 net.cpp:141] Setting up inception_4b/1x1
I0714 21:44:45.559830  7820 net.cpp:148] Top shape: 10 160 14 14 (313600)
I0714 21:44:45.559836  7820 net.cpp:156] Memory required for data: 390871040
I0714 21:44:45.559846  7820 layer_factory.hpp:77] Creating layer inception_4b/relu_1x1
I0714 21:44:45.559861  7820 net.cpp:91] Creating Layer inception_4b/relu_1x1
I0714 21:44:45.559869  7820 net.cpp:425] inception_4b/relu_1x1 <- inception_4b/1x1
I0714 21:44:45.559877  7820 net.cpp:386] inception_4b/relu_1x1 -> inception_4b/1x1 (in-place)
I0714 21:44:45.560390  7820 net.cpp:141] Setting up inception_4b/relu_1x1
I0714 21:44:45.560406  7820 net.cpp:148] Top shape: 10 160 14 14 (313600)
I0714 21:44:45.560412  7820 net.cpp:156] Memory required for data: 392125440
I0714 21:44:45.560418  7820 layer_factory.hpp:77] Creating layer inception_4b/3x3_reduce
I0714 21:44:45.560444  7820 net.cpp:91] Creating Layer inception_4b/3x3_reduce
I0714 21:44:45.560452  7820 net.cpp:425] inception_4b/3x3_reduce <- inception_4a/output_inception_4a/output_0_split_1
I0714 21:44:45.560466  7820 net.cpp:399] inception_4b/3x3_reduce -> inception_4b/3x3_reduce
I0714 21:44:45.560511  7824 net.cpp:141] Setting up inception_4b/1x1
I0714 21:44:45.560529  7824 net.cpp:148] Top shape: 10 160 14 14 (313600)
I0714 21:44:45.560534  7824 net.cpp:156] Memory required for data: 390871040
I0714 21:44:45.560544  7824 layer_factory.hpp:77] Creating layer inception_4b/relu_1x1
I0714 21:44:45.560559  7824 net.cpp:91] Creating Layer inception_4b/relu_1x1
I0714 21:44:45.560566  7824 net.cpp:425] inception_4b/relu_1x1 <- inception_4b/1x1
I0714 21:44:45.560578  7824 net.cpp:386] inception_4b/relu_1x1 -> inception_4b/1x1 (in-place)
I0714 21:44:45.561041  7824 net.cpp:141] Setting up inception_4b/relu_1x1
I0714 21:44:45.561055  7824 net.cpp:148] Top shape: 10 160 14 14 (313600)
I0714 21:44:45.561061  7824 net.cpp:156] Memory required for data: 392125440
I0714 21:44:45.561067  7824 layer_factory.hpp:77] Creating layer inception_4b/3x3_reduce
I0714 21:44:45.561085  7824 net.cpp:91] Creating Layer inception_4b/3x3_reduce
I0714 21:44:45.561094  7824 net.cpp:425] inception_4b/3x3_reduce <- inception_4a/output_inception_4a/output_0_split_1
I0714 21:44:45.561105  7824 net.cpp:399] inception_4b/3x3_reduce -> inception_4b/3x3_reduce
I0714 21:44:45.565513  7820 net.cpp:141] Setting up inception_4b/3x3_reduce
I0714 21:44:45.565536  7820 net.cpp:148] Top shape: 10 112 14 14 (219520)
I0714 21:44:45.565543  7820 net.cpp:156] Memory required for data: 393003520
I0714 21:44:45.565553  7820 layer_factory.hpp:77] Creating layer inception_4b/relu_3x3_reduce
I0714 21:44:45.565563  7820 net.cpp:91] Creating Layer inception_4b/relu_3x3_reduce
I0714 21:44:45.565570  7820 net.cpp:425] inception_4b/relu_3x3_reduce <- inception_4b/3x3_reduce
I0714 21:44:45.565579  7820 net.cpp:386] inception_4b/relu_3x3_reduce -> inception_4b/3x3_reduce (in-place)
I0714 21:44:45.565943  7824 net.cpp:141] Setting up inception_4b/3x3_reduce
I0714 21:44:45.565963  7824 net.cpp:148] Top shape: 10 112 14 14 (219520)
I0714 21:44:45.565969  7824 net.cpp:156] Memory required for data: 393003520
I0714 21:44:45.565979  7824 layer_factory.hpp:77] Creating layer inception_4b/relu_3x3_reduce
I0714 21:44:45.565990  7824 net.cpp:91] Creating Layer inception_4b/relu_3x3_reduce
I0714 21:44:45.565990  7820 net.cpp:141] Setting up inception_4b/relu_3x3_reduce
I0714 21:44:45.565999  7824 net.cpp:425] inception_4b/relu_3x3_reduce <- inception_4b/3x3_reduce
I0714 21:44:45.566005  7820 net.cpp:148] Top shape: 10 112 14 14 (219520)
I0714 21:44:45.566009  7824 net.cpp:386] inception_4b/relu_3x3_reduce -> inception_4b/3x3_reduce (in-place)
I0714 21:44:45.566012  7820 net.cpp:156] Memory required for data: 393881600
I0714 21:44:45.566020  7820 layer_factory.hpp:77] Creating layer inception_4b/3x3
I0714 21:44:45.566036  7820 net.cpp:91] Creating Layer inception_4b/3x3
I0714 21:44:45.566043  7820 net.cpp:425] inception_4b/3x3 <- inception_4b/3x3_reduce
I0714 21:44:45.566059  7820 net.cpp:399] inception_4b/3x3 -> inception_4b/3x3
I0714 21:44:45.566473  7824 net.cpp:141] Setting up inception_4b/relu_3x3_reduce
I0714 21:44:45.566488  7824 net.cpp:148] Top shape: 10 112 14 14 (219520)
I0714 21:44:45.566494  7824 net.cpp:156] Memory required for data: 393881600
I0714 21:44:45.566500  7824 layer_factory.hpp:77] Creating layer inception_4b/3x3
I0714 21:44:45.566517  7824 net.cpp:91] Creating Layer inception_4b/3x3
I0714 21:44:45.566524  7824 net.cpp:425] inception_4b/3x3 <- inception_4b/3x3_reduce
I0714 21:44:45.566539  7824 net.cpp:399] inception_4b/3x3 -> inception_4b/3x3
I0714 21:44:45.575989  7820 net.cpp:141] Setting up inception_4b/3x3
I0714 21:44:45.576012  7820 net.cpp:148] Top shape: 10 224 14 14 (439040)
I0714 21:44:45.576020  7820 net.cpp:156] Memory required for data: 395637760
I0714 21:44:45.576031  7820 layer_factory.hpp:77] Creating layer inception_4b/relu_3x3
I0714 21:44:45.576042  7820 net.cpp:91] Creating Layer inception_4b/relu_3x3
I0714 21:44:45.576050  7820 net.cpp:425] inception_4b/relu_3x3 <- inception_4b/3x3
I0714 21:44:45.576058  7820 net.cpp:386] inception_4b/relu_3x3 -> inception_4b/3x3 (in-place)
I0714 21:44:45.577574  7820 net.cpp:141] Setting up inception_4b/relu_3x3
I0714 21:44:45.577591  7820 net.cpp:148] Top shape: 10 224 14 14 (439040)
I0714 21:44:45.577597  7820 net.cpp:156] Memory required for data: 397393920
I0714 21:44:45.577603  7820 layer_factory.hpp:77] Creating layer inception_4b/5x5_reduce
I0714 21:44:45.577635  7820 net.cpp:91] Creating Layer inception_4b/5x5_reduce
I0714 21:44:45.577642  7820 net.cpp:425] inception_4b/5x5_reduce <- inception_4a/output_inception_4a/output_0_split_2
I0714 21:44:45.577653  7820 net.cpp:399] inception_4b/5x5_reduce -> inception_4b/5x5_reduce
I0714 21:44:45.577687  7824 net.cpp:141] Setting up inception_4b/3x3
I0714 21:44:45.577705  7824 net.cpp:148] Top shape: 10 224 14 14 (439040)
I0714 21:44:45.577711  7824 net.cpp:156] Memory required for data: 395637760
I0714 21:44:45.577721  7824 layer_factory.hpp:77] Creating layer inception_4b/relu_3x3
I0714 21:44:45.577734  7824 net.cpp:91] Creating Layer inception_4b/relu_3x3
I0714 21:44:45.577741  7824 net.cpp:425] inception_4b/relu_3x3 <- inception_4b/3x3
I0714 21:44:45.577749  7824 net.cpp:386] inception_4b/relu_3x3 -> inception_4b/3x3 (in-place)
I0714 21:44:45.578896  7824 net.cpp:141] Setting up inception_4b/relu_3x3
I0714 21:44:45.578922  7824 net.cpp:148] Top shape: 10 224 14 14 (439040)
I0714 21:44:45.578929  7824 net.cpp:156] Memory required for data: 397393920
I0714 21:44:45.578935  7824 layer_factory.hpp:77] Creating layer inception_4b/5x5_reduce
I0714 21:44:45.578968  7824 net.cpp:91] Creating Layer inception_4b/5x5_reduce
I0714 21:44:45.578975  7824 net.cpp:425] inception_4b/5x5_reduce <- inception_4a/output_inception_4a/output_0_split_2
I0714 21:44:45.578987  7824 net.cpp:399] inception_4b/5x5_reduce -> inception_4b/5x5_reduce
I0714 21:44:45.584421  7820 net.cpp:141] Setting up inception_4b/5x5_reduce
I0714 21:44:45.584444  7820 net.cpp:148] Top shape: 10 24 14 14 (47040)
I0714 21:44:45.584450  7820 net.cpp:156] Memory required for data: 397582080
I0714 21:44:45.584461  7820 layer_factory.hpp:77] Creating layer inception_4b/relu_5x5_reduce
I0714 21:44:45.584471  7820 net.cpp:91] Creating Layer inception_4b/relu_5x5_reduce
I0714 21:44:45.584478  7820 net.cpp:425] inception_4b/relu_5x5_reduce <- inception_4b/5x5_reduce
I0714 21:44:45.584496  7820 net.cpp:386] inception_4b/relu_5x5_reduce -> inception_4b/5x5_reduce (in-place)
I0714 21:44:45.585018  7820 net.cpp:141] Setting up inception_4b/relu_5x5_reduce
I0714 21:44:45.585037  7820 net.cpp:148] Top shape: 10 24 14 14 (47040)
I0714 21:44:45.585043  7820 net.cpp:156] Memory required for data: 397770240
I0714 21:44:45.585049  7820 layer_factory.hpp:77] Creating layer inception_4b/5x5
I0714 21:44:45.585067  7820 net.cpp:91] Creating Layer inception_4b/5x5
I0714 21:44:45.585075  7820 net.cpp:425] inception_4b/5x5 <- inception_4b/5x5_reduce
I0714 21:44:45.585086  7820 net.cpp:399] inception_4b/5x5 -> inception_4b/5x5
I0714 21:44:45.585505  7824 net.cpp:141] Setting up inception_4b/5x5_reduce
I0714 21:44:45.585535  7824 net.cpp:148] Top shape: 10 24 14 14 (47040)
I0714 21:44:45.585546  7824 net.cpp:156] Memory required for data: 397582080
I0714 21:44:45.585563  7824 layer_factory.hpp:77] Creating layer inception_4b/relu_5x5_reduce
I0714 21:44:45.585580  7824 net.cpp:91] Creating Layer inception_4b/relu_5x5_reduce
I0714 21:44:45.585592  7824 net.cpp:425] inception_4b/relu_5x5_reduce <- inception_4b/5x5_reduce
I0714 21:44:45.585615  7824 net.cpp:386] inception_4b/relu_5x5_reduce -> inception_4b/5x5_reduce (in-place)
I0714 21:44:45.586514  7824 net.cpp:141] Setting up inception_4b/relu_5x5_reduce
I0714 21:44:45.586549  7824 net.cpp:148] Top shape: 10 24 14 14 (47040)
I0714 21:44:45.586560  7824 net.cpp:156] Memory required for data: 397770240
I0714 21:44:45.586570  7824 layer_factory.hpp:77] Creating layer inception_4b/5x5
I0714 21:44:45.586601  7824 net.cpp:91] Creating Layer inception_4b/5x5
I0714 21:44:45.586614  7824 net.cpp:425] inception_4b/5x5 <- inception_4b/5x5_reduce
I0714 21:44:45.586632  7824 net.cpp:399] inception_4b/5x5 -> inception_4b/5x5
I0714 21:44:45.595166  7820 net.cpp:141] Setting up inception_4b/5x5
I0714 21:44:45.595193  7820 net.cpp:148] Top shape: 10 64 14 14 (125440)
I0714 21:44:45.595199  7820 net.cpp:156] Memory required for data: 398272000
I0714 21:44:45.595211  7820 layer_factory.hpp:77] Creating layer inception_4b/relu_5x5
I0714 21:44:45.595221  7820 net.cpp:91] Creating Layer inception_4b/relu_5x5
I0714 21:44:45.595228  7820 net.cpp:425] inception_4b/relu_5x5 <- inception_4b/5x5
I0714 21:44:45.595240  7820 net.cpp:386] inception_4b/relu_5x5 -> inception_4b/5x5 (in-place)
I0714 21:44:45.595624  7820 net.cpp:141] Setting up inception_4b/relu_5x5
I0714 21:44:45.595638  7820 net.cpp:148] Top shape: 10 64 14 14 (125440)
I0714 21:44:45.595643  7820 net.cpp:156] Memory required for data: 398773760
I0714 21:44:45.595650  7820 layer_factory.hpp:77] Creating layer inception_4b/pool
I0714 21:44:45.595664  7820 net.cpp:91] Creating Layer inception_4b/pool
I0714 21:44:45.595671  7820 net.cpp:425] inception_4b/pool <- inception_4a/output_inception_4a/output_0_split_3
I0714 21:44:45.595680  7820 net.cpp:399] inception_4b/pool -> inception_4b/pool
I0714 21:44:45.596307  7820 net.cpp:141] Setting up inception_4b/pool
I0714 21:44:45.596321  7820 net.cpp:148] Top shape: 10 512 14 14 (1003520)
I0714 21:44:45.596328  7820 net.cpp:156] Memory required for data: 402787840
I0714 21:44:45.596333  7820 layer_factory.hpp:77] Creating layer inception_4b/pool_proj
I0714 21:44:45.596352  7820 net.cpp:91] Creating Layer inception_4b/pool_proj
I0714 21:44:45.596360  7820 net.cpp:425] inception_4b/pool_proj <- inception_4b/pool
I0714 21:44:45.596377  7820 net.cpp:399] inception_4b/pool_proj -> inception_4b/pool_proj
I0714 21:44:45.597307  7824 net.cpp:141] Setting up inception_4b/5x5
I0714 21:44:45.597329  7824 net.cpp:148] Top shape: 10 64 14 14 (125440)
I0714 21:44:45.597337  7824 net.cpp:156] Memory required for data: 398272000
I0714 21:44:45.597347  7824 layer_factory.hpp:77] Creating layer inception_4b/relu_5x5
I0714 21:44:45.597360  7824 net.cpp:91] Creating Layer inception_4b/relu_5x5
I0714 21:44:45.597368  7824 net.cpp:425] inception_4b/relu_5x5 <- inception_4b/5x5
I0714 21:44:45.597383  7824 net.cpp:386] inception_4b/relu_5x5 -> inception_4b/5x5 (in-place)
I0714 21:44:45.597916  7824 net.cpp:141] Setting up inception_4b/relu_5x5
I0714 21:44:45.597946  7824 net.cpp:148] Top shape: 10 64 14 14 (125440)
I0714 21:44:45.597959  7824 net.cpp:156] Memory required for data: 398773760
I0714 21:44:45.597970  7824 layer_factory.hpp:77] Creating layer inception_4b/pool
I0714 21:44:45.597990  7824 net.cpp:91] Creating Layer inception_4b/pool
I0714 21:44:45.598001  7824 net.cpp:425] inception_4b/pool <- inception_4a/output_inception_4a/output_0_split_3
I0714 21:44:45.598023  7824 net.cpp:399] inception_4b/pool -> inception_4b/pool
I0714 21:44:45.599189  7824 net.cpp:141] Setting up inception_4b/pool
I0714 21:44:45.599210  7824 net.cpp:148] Top shape: 10 512 14 14 (1003520)
I0714 21:44:45.599216  7824 net.cpp:156] Memory required for data: 402787840
I0714 21:44:45.599222  7824 layer_factory.hpp:77] Creating layer inception_4b/pool_proj
I0714 21:44:45.599243  7824 net.cpp:91] Creating Layer inception_4b/pool_proj
I0714 21:44:45.599252  7824 net.cpp:425] inception_4b/pool_proj <- inception_4b/pool
I0714 21:44:45.599267  7824 net.cpp:399] inception_4b/pool_proj -> inception_4b/pool_proj
I0714 21:44:45.601482  7820 net.cpp:141] Setting up inception_4b/pool_proj
I0714 21:44:45.601507  7820 net.cpp:148] Top shape: 10 64 14 14 (125440)
I0714 21:44:45.601514  7820 net.cpp:156] Memory required for data: 403289600
I0714 21:44:45.601526  7820 layer_factory.hpp:77] Creating layer inception_4b/relu_pool_proj
I0714 21:44:45.601536  7820 net.cpp:91] Creating Layer inception_4b/relu_pool_proj
I0714 21:44:45.601543  7820 net.cpp:425] inception_4b/relu_pool_proj <- inception_4b/pool_proj
I0714 21:44:45.601557  7820 net.cpp:386] inception_4b/relu_pool_proj -> inception_4b/pool_proj (in-place)
I0714 21:44:45.602716  7820 net.cpp:141] Setting up inception_4b/relu_pool_proj
I0714 21:44:45.602746  7820 net.cpp:148] Top shape: 10 64 14 14 (125440)
I0714 21:44:45.602753  7820 net.cpp:156] Memory required for data: 403791360
I0714 21:44:45.602759  7820 layer_factory.hpp:77] Creating layer inception_4b/output
I0714 21:44:45.602771  7820 net.cpp:91] Creating Layer inception_4b/output
I0714 21:44:45.602778  7820 net.cpp:425] inception_4b/output <- inception_4b/1x1
I0714 21:44:45.602792  7820 net.cpp:425] inception_4b/output <- inception_4b/3x3
I0714 21:44:45.602798  7820 net.cpp:425] inception_4b/output <- inception_4b/5x5
I0714 21:44:45.602807  7820 net.cpp:425] inception_4b/output <- inception_4b/pool_proj
I0714 21:44:45.602814  7820 net.cpp:399] inception_4b/output -> inception_4b/output
I0714 21:44:45.603607  7820 net.cpp:141] Setting up inception_4b/output
I0714 21:44:45.603624  7820 net.cpp:148] Top shape: 10 512 14 14 (1003520)
I0714 21:44:45.603631  7820 net.cpp:156] Memory required for data: 407805440
I0714 21:44:45.603636  7820 layer_factory.hpp:77] Creating layer inception_4b/output_inception_4b/output_0_split
I0714 21:44:45.603653  7820 net.cpp:91] Creating Layer inception_4b/output_inception_4b/output_0_split
I0714 21:44:45.603660  7820 net.cpp:425] inception_4b/output_inception_4b/output_0_split <- inception_4b/output
I0714 21:44:45.603669  7820 net.cpp:399] inception_4b/output_inception_4b/output_0_split -> inception_4b/output_inception_4b/output_0_split_0
I0714 21:44:45.603680  7820 net.cpp:399] inception_4b/output_inception_4b/output_0_split -> inception_4b/output_inception_4b/output_0_split_1
I0714 21:44:45.603694  7820 net.cpp:399] inception_4b/output_inception_4b/output_0_split -> inception_4b/output_inception_4b/output_0_split_2
I0714 21:44:45.603704  7820 net.cpp:399] inception_4b/output_inception_4b/output_0_split -> inception_4b/output_inception_4b/output_0_split_3
I0714 21:44:45.604816  7820 net.cpp:141] Setting up inception_4b/output_inception_4b/output_0_split
I0714 21:44:45.604832  7820 net.cpp:148] Top shape: 10 512 14 14 (1003520)
I0714 21:44:45.604840  7820 net.cpp:148] Top shape: 10 512 14 14 (1003520)
I0714 21:44:45.604847  7820 net.cpp:148] Top shape: 10 512 14 14 (1003520)
I0714 21:44:45.604853  7820 net.cpp:148] Top shape: 10 512 14 14 (1003520)
I0714 21:44:45.604857  7820 net.cpp:156] Memory required for data: 423861760
I0714 21:44:45.604863  7820 layer_factory.hpp:77] Creating layer inception_4c/1x1
I0714 21:44:45.604884  7820 net.cpp:91] Creating Layer inception_4c/1x1
I0714 21:44:45.604892  7820 net.cpp:425] inception_4c/1x1 <- inception_4b/output_inception_4b/output_0_split_0
I0714 21:44:45.604905  7820 net.cpp:399] inception_4c/1x1 -> inception_4c/1x1
I0714 21:44:45.606257  7824 net.cpp:141] Setting up inception_4b/pool_proj
I0714 21:44:45.606293  7824 net.cpp:148] Top shape: 10 64 14 14 (125440)
I0714 21:44:45.606300  7824 net.cpp:156] Memory required for data: 403289600
I0714 21:44:45.606312  7824 layer_factory.hpp:77] Creating layer inception_4b/relu_pool_proj
I0714 21:44:45.606323  7824 net.cpp:91] Creating Layer inception_4b/relu_pool_proj
I0714 21:44:45.606329  7824 net.cpp:425] inception_4b/relu_pool_proj <- inception_4b/pool_proj
I0714 21:44:45.606343  7824 net.cpp:386] inception_4b/relu_pool_proj -> inception_4b/pool_proj (in-place)
I0714 21:44:45.607354  7824 net.cpp:141] Setting up inception_4b/relu_pool_proj
I0714 21:44:45.607372  7824 net.cpp:148] Top shape: 10 64 14 14 (125440)
I0714 21:44:45.607378  7824 net.cpp:156] Memory required for data: 403791360
I0714 21:44:45.607384  7824 layer_factory.hpp:77] Creating layer inception_4b/output
…
I0714 21:44:45.745823  7824 net.cpp:386] inception_4e/relu_5x5_reduce -> inception_4e/5x5_reduce (in-place)
I0714 21:44:45.746120  7824 net.cpp:141] Setting up inception_4e/relu_5x5_reduce
I0714 21:44:45.746134  7824 net.cpp:148] Top shape: 10 32 14 14 (62720)
I0714 21:44:45.746140  7824 net.cpp:156] Memory required for data: 506150400
I0714 21:44:45.746145  7824 layer_factory.hpp:77] Creating layer inception_4e/5x5
I0714 21:44:45.746161  7824 net.cpp:91] Creating Layer inception_4e/5x5
I0714 21:44:45.746168  7824 net.cpp:425] inception_4e/5x5 <- inception_4e/5x5_reduce
I0714 21:44:45.746183  7824 net.cpp:399] inception_4e/5x5 -> inception_4e/5x5
I0714 21:44:45.752398  7820 net.cpp:141] Setting up inception_4e/3x3
I0714 21:44:45.752419  7820 net.cpp:148] Top shape: 10 320 14 14 (627200)
I0714 21:44:45.752425  7820 net.cpp:156] Memory required for data: 503139840
I0714 21:44:45.752436  7820 layer_factory.hpp:77] Creating layer inception_4e/relu_3x3
I0714 21:44:45.752450  7820 net.cpp:91] Creating Layer inception_4e/relu_3x3
I0714 21:44:45.752459  7820 net.cpp:425] inception_4e/relu_3x3 <- inception_4e/3x3
I0714 21:44:45.752466  7820 net.cpp:386] inception_4e/relu_3x3 -> inception_4e/3x3 (in-place)
I0714 21:44:45.753418  7824 net.cpp:141] Setting up inception_4e/5x5
I0714 21:44:45.753442  7824 net.cpp:148] Top shape: 10 128 14 14 (250880)
I0714 21:44:45.753448  7824 net.cpp:156] Memory required for data: 507153920
I0714 21:44:45.753458  7824 layer_factory.hpp:77] Creating layer inception_4e/relu_5x5
I0714 21:44:45.753468  7824 net.cpp:91] Creating Layer inception_4e/relu_5x5
I0714 21:44:45.753475  7824 net.cpp:425] inception_4e/relu_5x5 <- inception_4e/5x5
I0714 21:44:45.753484  7824 net.cpp:386] inception_4e/relu_5x5 -> inception_4e/5x5 (in-place)
I0714 21:44:45.753520  7820 net.cpp:141] Setting up inception_4e/relu_3x3
I0714 21:44:45.753535  7820 net.cpp:148] Top shape: 10 320 14 14 (627200)
I0714 21:44:45.753541  7820 net.cpp:156] Memory required for data: 505648640
I0714 21:44:45.753547  7820 layer_factory.hpp:77] Creating layer inception_4e/5x5_reduce
I0714 21:44:45.753566  7820 net.cpp:91] Creating Layer inception_4e/5x5_reduce
I0714 21:44:45.753574  7820 net.cpp:425] inception_4e/5x5_reduce <- inception_4d/output_inception_4d/output_0_split_2
I0714 21:44:45.753588  7820 net.cpp:399] inception_4e/5x5_reduce -> inception_4e/5x5_reduce
I0714 21:44:45.753965  7824 net.cpp:141] Setting up inception_4e/relu_5x5
I0714 21:44:45.753980  7824 net.cpp:148] Top shape: 10 128 14 14 (250880)
I0714 21:44:45.753985  7824 net.cpp:156] Memory required for data: 508157440
I0714 21:44:45.753991  7824 layer_factory.hpp:77] Creating layer inception_4e/pool
I0714 21:44:45.754004  7824 net.cpp:91] Creating Layer inception_4e/pool
I0714 21:44:45.754011  7824 net.cpp:425] inception_4e/pool <- inception_4d/output_inception_4d/output_0_split_3
I0714 21:44:45.754020  7824 net.cpp:399] inception_4e/pool -> inception_4e/pool
I0714 21:44:45.754330  7824 net.cpp:141] Setting up inception_4e/pool
I0714 21:44:45.754343  7824 net.cpp:148] Top shape: 10 528 14 14 (1034880)
I0714 21:44:45.754348  7824 net.cpp:156] Memory required for data: 512296960
I0714 21:44:45.754354  7824 layer_factory.hpp:77] Creating layer inception_4e/pool_proj
I0714 21:44:45.754370  7824 net.cpp:91] Creating Layer inception_4e/pool_proj
I0714 21:44:45.754379  7824 net.cpp:425] inception_4e/pool_proj <- inception_4e/pool
I0714 21:44:45.754391  7824 net.cpp:399] inception_4e/pool_proj -> inception_4e/pool_proj
I0714 21:44:45.758949  7820 net.cpp:141] Setting up inception_4e/5x5_reduce
I0714 21:44:45.758968  7820 net.cpp:148] Top shape: 10 32 14 14 (62720)
I0714 21:44:45.758975  7820 net.cpp:156] Memory required for data: 505899520
I0714 21:44:45.758985  7820 layer_factory.hpp:77] Creating layer inception_4e/relu_5x5_reduce
I0714 21:44:45.758996  7820 net.cpp:91] Creating Layer inception_4e/relu_5x5_reduce
I0714 21:44:45.759003  7820 net.cpp:425] inception_4e/relu_5x5_reduce <- inception_4e/5x5_reduce
I0714 21:44:45.759018  7820 net.cpp:386] inception_4e/relu_5x5_reduce -> inception_4e/5x5_reduce (in-place)
I0714 21:44:45.759512  7820 net.cpp:141] Setting up inception_4e/relu_5x5_reduce
I0714 21:44:45.759528  7820 net.cpp:148] Top shape: 10 32 14 14 (62720)
I0714 21:44:45.759536  7820 net.cpp:156] Memory required for data: 506150400
I0714 21:44:45.759541  7820 layer_factory.hpp:77] Creating layer inception_4e/5x5
I0714 21:44:45.759560  7820 net.cpp:91] Creating Layer inception_4e/5x5
I0714 21:44:45.759567  7820 net.cpp:425] inception_4e/5x5 <- inception_4e/5x5_reduce
I0714 21:44:45.759582  7820 net.cpp:399] inception_4e/5x5 -> inception_4e/5x5
I0714 21:44:45.759640  7824 net.cpp:141] Setting up inception_4e/pool_proj
I0714 21:44:45.759657  7824 net.cpp:148] Top shape: 10 128 14 14 (250880)
I0714 21:44:45.759663  7824 net.cpp:156] Memory required for data: 513300480
I0714 21:44:45.759675  7824 layer_factory.hpp:77] Creating layer inception_4e/relu_pool_proj
I0714 21:44:45.759687  7824 net.cpp:91] Creating Layer inception_4e/relu_pool_proj
I0714 21:44:45.759696  7824 net.cpp:425] inception_4e/relu_pool_proj <- inception_4e/pool_proj
I0714 21:44:45.759703  7824 net.cpp:386] inception_4e/relu_pool_proj -> inception_4e/pool_proj (in-place)
I0714 21:44:45.760800  7824 net.cpp:141] Setting up inception_4e/relu_pool_proj
I0714 21:44:45.760823  7824 net.cpp:148] Top shape: 10 128 14 14 (250880)
I0714 21:44:45.760828  7824 net.cpp:156] Memory required for data: 514304000
I0714 21:44:45.760834  7824 layer_factory.hpp:77] Creating layer inception_4e/output
I0714 21:44:45.760844  7824 net.cpp:91] Creating Layer inception_4e/output
I0714 21:44:45.760851  7824 net.cpp:425] inception_4e/output <- inception_4e/1x1
I0714 21:44:45.760859  7824 net.cpp:425] inception_4e/output <- inception_4e/3x3
I0714 21:44:45.760865  7824 net.cpp:425] inception_4e/output <- inception_4e/5x5
I0714 21:44:45.760871  7824 net.cpp:425] inception_4e/output <- inception_4e/pool_proj
I0714 21:44:45.760882  7824 net.cpp:399] inception_4e/output -> inception_4e/output
I0714 21:44:45.761077  7824 net.cpp:141] Setting up inception_4e/output
I0714 21:44:45.761090  7824 net.cpp:148] Top shape: 10 832 14 14 (1630720)
I0714 21:44:45.761096  7824 net.cpp:156] Memory required for data: 520826880
I0714 21:44:45.761101  7824 layer_factory.hpp:77] Creating layer pool4/3x3_s2
I0714 21:44:45.761111  7824 net.cpp:91] Creating Layer pool4/3x3_s2
I0714 21:44:45.761121  7824 net.cpp:425] pool4/3x3_s2 <- inception_4e/output
I0714 21:44:45.761128  7824 net.cpp:399] pool4/3x3_s2 -> pool4/3x3_s2
I0714 21:44:45.763000  7824 net.cpp:141] Setting up pool4/3x3_s2
I0714 21:44:45.763016  7824 net.cpp:148] Top shape: 10 832 7 7 (407680)
I0714 21:44:45.763021  7824 net.cpp:156] Memory required for data: 522457600
I0714 21:44:45.763027  7824 layer_factory.hpp:77] Creating layer pool4/3x3_s2_pool4/3x3_s2_0_split
I0714 21:44:45.763037  7824 net.cpp:91] Creating Layer pool4/3x3_s2_pool4/3x3_s2_0_split
I0714 21:44:45.763043  7824 net.cpp:425] pool4/3x3_s2_pool4/3x3_s2_0_split <- pool4/3x3_s2
I0714 21:44:45.763054  7824 net.cpp:399] pool4/3x3_s2_pool4/3x3_s2_0_split -> pool4/3x3_s2_pool4/3x3_s2_0_split_0
I0714 21:44:45.763064  7824 net.cpp:399] pool4/3x3_s2_pool4/3x3_s2_0_split -> pool4/3x3_s2_pool4/3x3_s2_0_split_1
I0714 21:44:45.763074  7824 net.cpp:399] pool4/3x3_s2_pool4/3x3_s2_0_split -> pool4/3x3_s2_pool4/3x3_s2_0_split_2
I0714 21:44:45.763083  7824 net.cpp:399] pool4/3x3_s2_pool4/3x3_s2_0_split -> pool4/3x3_s2_pool4/3x3_s2_0_split_3
I0714 21:44:45.763303  7824 net.cpp:141] Setting up pool4/3x3_s2_pool4/3x3_s2_0_split
I0714 21:44:45.763315  7824 net.cpp:148] Top shape: 10 832 7 7 (407680)
I0714 21:44:45.763321  7824 net.cpp:148] Top shape: 10 832 7 7 (407680)
I0714 21:44:45.763329  7824 net.cpp:148] Top shape: 10 832 7 7 (407680)
I0714 21:44:45.763334  7824 net.cpp:148] Top shape: 10 832 7 7 (407680)
I0714 21:44:45.763339  7824 net.cpp:156] Memory required for data: 528980480
I0714 21:44:45.763344  7824 layer_factory.hpp:77] Creating layer inception_5a/1x1
I0714 21:44:45.763362  7824 net.cpp:91] Creating Layer inception_5a/1x1
I0714 21:44:45.763370  7824 net.cpp:425] inception_5a/1x1 <- pool4/3x3_s2_pool4/3x3_s2_0_split_0
I0714 21:44:45.763381  7824 net.cpp:399] inception_5a/1x1 -> inception_5a/1x1
I0714 21:44:45.769407  7820 net.cpp:141] Setting up inception_4e/5x5
I0714 21:44:45.769428  7820 net.cpp:148] Top shape: 10 128 14 14 (250880)
I0714 21:44:45.769433  7820 net.cpp:156] Memory required for data: 507153920
I0714 21:44:45.769444  7820 layer_factory.hpp:77] Creating layer inception_4e/relu_5x5
I0714 21:44:45.769454  7820 net.cpp:91] Creating Layer inception_4e/relu_5x5
I0714 21:44:45.769461  7820 net.cpp:425] inception_4e/relu_5x5 <- inception_4e/5x5
I0714 21:44:45.769471  7820 net.cpp:386] inception_4e/relu_5x5 -> inception_4e/5x5 (in-place)
I0714 21:44:45.769893  7820 net.cpp:141] Setting up inception_4e/relu_5x5
I0714 21:44:45.769907  7820 net.cpp:148] Top shape: 10 128 14 14 (250880)
I0714 21:44:45.769913  7820 net.cpp:156] Memory required for data: 508157440
I0714 21:44:45.769919  7820 layer_factory.hpp:77] Creating layer inception_4e/pool
I0714 21:44:45.769933  7820 net.cpp:91] Creating Layer inception_4e/pool
I0714 21:44:45.769940  7820 net.cpp:425] inception_4e/pool <- inception_4d/output_inception_4d/output_0_split_3
I0714 21:44:45.769949  7820 net.cpp:399] inception_4e/pool -> inception_4e/pool
I0714 21:44:45.770458  7820 net.cpp:141] Setting up inception_4e/pool
I0714 21:44:45.770473  7820 net.cpp:148] Top shape: 10 528 14 14 (1034880)
I0714 21:44:45.770479  7820 net.cpp:156] Memory required for data: 512296960
I0714 21:44:45.770485  7820 layer_factory.hpp:77] Creating layer inception_4e/pool_proj
I0714 21:44:45.770503  7820 net.cpp:91] Creating Layer inception_4e/pool_proj
I0714 21:44:45.770510  7820 net.cpp:425] inception_4e/pool_proj <- inception_4e/pool
I0714 21:44:45.770524  7820 net.cpp:399] inception_4e/pool_proj -> inception_4e/pool_proj
I0714 21:44:45.771430  7824 net.cpp:141] Setting up inception_5a/1x1
I0714 21:44:45.771453  7824 net.cpp:148] Top shape: 10 256 7 7 (125440)
I0714 21:44:45.771459  7824 net.cpp:156] Memory required for data: 529482240
I0714 21:44:45.771471  7824 layer_factory.hpp:77] Creating layer inception_5a/relu_1x1
I0714 21:44:45.771479  7824 net.cpp:91] Creating Layer inception_5a/relu_1x1
I0714 21:44:45.771486  7824 net.cpp:425] inception_5a/relu_1x1 <- inception_5a/1x1
I0714 21:44:45.771495  7824 net.cpp:386] inception_5a/relu_1x1 -> inception_5a/1x1 (in-place)
I0714 21:44:45.771976  7824 net.cpp:141] Setting up inception_5a/relu_1x1
I0714 21:44:45.771992  7824 net.cpp:148] Top shape: 10 256 7 7 (125440)
I0714 21:44:45.771998  7824 net.cpp:156] Memory required for data: 529984000
I0714 21:44:45.772004  7824 layer_factory.hpp:77] Creating layer inception_5a/3x3_reduce
I0714 21:44:45.772022  7824 net.cpp:91] Creating Layer inception_5a/3x3_reduce
I0714 21:44:45.772029  7824 net.cpp:425] inception_5a/3x3_reduce <- pool4/3x3_s2_pool4/3x3_s2_0_split_1
I0714 21:44:45.772044  7824 net.cpp:399] inception_5a/3x3_reduce -> inception_5a/3x3_reduce
I0714 21:44:45.777963  7820 net.cpp:141] Setting up inception_4e/pool_proj
I0714 21:44:45.777987  7820 net.cpp:148] Top shape: 10 128 14 14 (250880)
I0714 21:44:45.777993  7820 net.cpp:156] Memory required for data: 513300480
I0714 21:44:45.778004  7820 layer_factory.hpp:77] Creating layer inception_4e/relu_pool_proj
I0714 21:44:45.778020  7820 net.cpp:91] Creating Layer inception_4e/relu_pool_proj
I0714 21:44:45.778028  7820 net.cpp:425] inception_4e/relu_pool_proj <- inception_4e/pool_proj
I0714 21:44:45.778050  7820 net.cpp:386] inception_4e/relu_pool_proj -> inception_4e/pool_proj (in-place)
I0714 21:44:45.779481  7820 net.cpp:141] Setting up inception_4e/relu_pool_proj
I0714 21:44:45.779500  7820 net.cpp:148] Top shape: 10 128 14 14 (250880)
I0714 21:44:45.779506  7820 net.cpp:156] Memory required for data: 514304000
I0714 21:44:45.779512  7820 layer_factory.hpp:77] Creating layer inception_4e/output
I0714 21:44:45.779523  7820 net.cpp:91] Creating Layer inception_4e/output
I0714 21:44:45.779531  7820 net.cpp:425] inception_4e/output <- inception_4e/1x1
I0714 21:44:45.779538  7820 net.cpp:425] inception_4e/output <- inception_4e/3x3
I0714 21:44:45.779544  7820 net.cpp:425] inception_4e/output <- inception_4e/5x5
I0714 21:44:45.779551  7820 net.cpp:425] inception_4e/output <- inception_4e/pool_proj
I0714 21:44:45.779561  7820 net.cpp:399] inception_4e/output -> inception_4e/output
I0714 21:44:45.779723  7820 net.cpp:141] Setting up inception_4e/output
I0714 21:44:45.779736  7820 net.cpp:148] Top shape: 10 832 14 14 (1630720)
I0714 21:44:45.779742  7820 net.cpp:156] Memory required for data: 520826880
I0714 21:44:45.779747  7820 layer_factory.hpp:77] Creating layer pool4/3x3_s2
I0714 21:44:45.779760  7820 net.cpp:91] Creating Layer pool4/3x3_s2
I0714 21:44:45.779767  7820 net.cpp:425] pool4/3x3_s2 <- inception_4e/output
I0714 21:44:45.779768  7824 net.cpp:141] Setting up inception_5a/3x3_reduce
I0714 21:44:45.779777  7820 net.cpp:399] pool4/3x3_s2 -> pool4/3x3_s2
I0714 21:44:45.779790  7824 net.cpp:148] Top shape: 10 160 7 7 (78400)
I0714 21:44:45.779798  7824 net.cpp:156] Memory required for data: 530297600
I0714 21:44:45.779808  7824 layer_factory.hpp:77] Creating layer inception_5a/relu_3x3_reduce
I0714 21:44:45.779822  7824 net.cpp:91] Creating Layer inception_5a/relu_3x3_reduce
I0714 21:44:45.779829  7824 net.cpp:425] inception_5a/relu_3x3_reduce <- inception_5a/3x3_reduce
I0714 21:44:45.779839  7824 net.cpp:386] inception_5a/relu_3x3_reduce -> inception_5a/3x3_reduce (in-place)
I0714 21:44:45.780158  7820 net.cpp:141] Setting up pool4/3x3_s2
I0714 21:44:45.780171  7820 net.cpp:148] Top shape: 10 832 7 7 (407680)
I0714 21:44:45.780176  7820 net.cpp:156] Memory required for data: 522457600
I0714 21:44:45.780182  7820 layer_factory.hpp:77] Creating layer pool4/3x3_s2_pool4/3x3_s2_0_split
I0714 21:44:45.780192  7820 net.cpp:91] Creating Layer pool4/3x3_s2_pool4/3x3_s2_0_split
I0714 21:44:45.780199  7820 net.cpp:425] pool4/3x3_s2_pool4/3x3_s2_0_split <- pool4/3x3_s2
I0714 21:44:45.780210  7820 net.cpp:399] pool4/3x3_s2_pool4/3x3_s2_0_split -> pool4/3x3_s2_pool4/3x3_s2_0_split_0
I0714 21:44:45.780220  7820 net.cpp:399] pool4/3x3_s2_pool4/3x3_s2_0_split -> pool4/3x3_s2_pool4/3x3_s2_0_split_1
I0714 21:44:45.780230  7820 net.cpp:399] pool4/3x3_s2_pool4/3x3_s2_0_split -> pool4/3x3_s2_pool4/3x3_s2_0_split_2
I0714 21:44:45.780239  7820 net.cpp:399] pool4/3x3_s2_pool4/3x3_s2_0_split -> pool4/3x3_s2_pool4/3x3_s2_0_split_3
I0714 21:44:45.780274  7824 net.cpp:141] Setting up inception_5a/relu_3x3_reduce
I0714 21:44:45.780289  7824 net.cpp:148] Top shape: 10 160 7 7 (78400)
I0714 21:44:45.780295  7824 net.cpp:156] Memory required for data: 530611200
I0714 21:44:45.780302  7824 layer_factory.hpp:77] Creating layer inception_5a/3x3
I0714 21:44:45.780319  7824 net.cpp:91] Creating Layer inception_5a/3x3
I0714 21:44:45.780328  7824 net.cpp:425] inception_5a/3x3 <- inception_5a/3x3_reduce
I0714 21:44:45.780340  7824 net.cpp:399] inception_5a/3x3 -> inception_5a/3x3
I0714 21:44:45.780643  7820 net.cpp:141] Setting up pool4/3x3_s2_pool4/3x3_s2_0_split
I0714 21:44:45.780658  7820 net.cpp:148] Top shape: 10 832 7 7 (407680)
I0714 21:44:45.780664  7820 net.cpp:148] Top shape: 10 832 7 7 (407680)
I0714 21:44:45.780670  7820 net.cpp:148] Top shape: 10 832 7 7 (407680)
I0714 21:44:45.780676  7820 net.cpp:148] Top shape: 10 832 7 7 (407680)
I0714 21:44:45.780681  7820 net.cpp:156] Memory required for data: 528980480
I0714 21:44:45.780688  7820 layer_factory.hpp:77] Creating layer inception_5a/1x1
I0714 21:44:45.780706  7820 net.cpp:91] Creating Layer inception_5a/1x1
I0714 21:44:45.780714  7820 net.cpp:425] inception_5a/1x1 <- pool4/3x3_s2_pool4/3x3_s2_0_split_0
I0714 21:44:45.780725  7820 net.cpp:399] inception_5a/1x1 -> inception_5a/1x1
I0714 21:44:45.792171  7820 net.cpp:141] Setting up inception_5a/1x1
I0714 21:44:45.792199  7820 net.cpp:148] Top shape: 10 256 7 7 (125440)
I0714 21:44:45.792207  7820 net.cpp:156] Memory required for data: 529482240
I0714 21:44:45.792218  7820 layer_factory.hpp:77] Creating layer inception_5a/relu_1x1
I0714 21:44:45.792228  7820 net.cpp:91] Creating Layer inception_5a/relu_1x1
I0714 21:44:45.792235  7820 net.cpp:425] inception_5a/relu_1x1 <- inception_5a/1x1
I0714 21:44:45.792244  7820 net.cpp:386] inception_5a/relu_1x1 -> inception_5a/1x1 (in-place)
I0714 21:44:45.792768  7820 net.cpp:141] Setting up inception_5a/relu_1x1
I0714 21:44:45.792785  7820 net.cpp:148] Top shape: 10 256 7 7 (125440)
I0714 21:44:45.792791  7820 net.cpp:156] Memory required for data: 529984000
I0714 21:44:45.792798  7820 layer_factory.hpp:77] Creating layer inception_5a/3x3_reduce
I0714 21:44:45.792815  7820 net.cpp:91] Creating Layer inception_5a/3x3_reduce
I0714 21:44:45.792824  7820 net.cpp:425] inception_5a/3x3_reduce <- pool4/3x3_s2_pool4/3x3_s2_0_split_1
I0714 21:44:45.792837  7820 net.cpp:399] inception_5a/3x3_reduce -> inception_5a/3x3_reduce
I0714 21:44:45.793455  7824 net.cpp:141] Setting up inception_5a/3x3
I0714 21:44:45.793483  7824 net.cpp:148] Top shape: 10 320 7 7 (156800)
I0714 21:44:45.793489  7824 net.cpp:156] Memory required for data: 531238400
I0714 21:44:45.793501  7824 layer_factory.hpp:77] Creating layer inception_5a/relu_3x3
I0714 21:44:45.793514  7824 net.cpp:91] Creating Layer inception_5a/relu_3x3
I0714 21:44:45.793524  7824 net.cpp:425] inception_5a/relu_3x3 <- inception_5a/3x3
I0714 21:44:45.793534  7824 net.cpp:386] inception_5a/relu_3x3 -> inception_5a/3x3 (in-place)
I0714 21:44:45.794623  7824 net.cpp:141] Setting up inception_5a/relu_3x3
I0714 21:44:45.794641  7824 net.cpp:148] Top shape: 10 320 7 7 (156800)
I0714 21:44:45.794647  7824 net.cpp:156] Memory required for data: 531865600
I0714 21:44:45.794653  7824 layer_factory.hpp:77] Creating layer inception_5a/5x5_reduce
I0714 21:44:45.794672  7824 net.cpp:91] Creating Layer inception_5a/5x5_reduce
I0714 21:44:45.794679  7824 net.cpp:425] inception_5a/5x5_reduce <- pool4/3x3_s2_pool4/3x3_s2_0_split_2
I0714 21:44:45.794704  7824 net.cpp:399] inception_5a/5x5_reduce -> inception_5a/5x5_reduce
I0714 21:44:45.801614  7824 net.cpp:141] Setting up inception_5a/5x5_reduce
I0714 21:44:45.801633  7824 net.cpp:148] Top shape: 10 32 7 7 (15680)
I0714 21:44:45.801640  7824 net.cpp:156] Memory required for data: 531928320
I0714 21:44:45.801651  7824 layer_factory.hpp:77] Creating layer inception_5a/relu_5x5_reduce
I0714 21:44:45.801661  7824 net.cpp:91] Creating Layer inception_5a/relu_5x5_reduce
I0714 21:44:45.801667  7824 net.cpp:425] inception_5a/relu_5x5_reduce <- inception_5a/5x5_reduce
I0714 21:44:45.801678  7824 net.cpp:386] inception_5a/relu_5x5_reduce -> inception_5a/5x5_reduce (in-place)
I0714 21:44:45.802147  7820 net.cpp:141] Setting up inception_5a/3x3_reduce
I0714 21:44:45.802171  7820 net.cpp:148] Top shape: 10 160 7 7 (78400)
I0714 21:44:45.802178  7820 net.cpp:156] Memory required for data: 530297600
I0714 21:44:45.802186  7824 net.cpp:141] Setting up inception_5a/relu_5x5_reduce
I0714 21:44:45.802191  7820 layer_factory.hpp:77] Creating layer inception_5a/relu_3x3_reduce
I0714 21:44:45.802204  7824 net.cpp:148] Top shape: 10 32 7 7 (15680)
I0714 21:44:45.802211  7824 net.cpp:156] Memory required for data: 531991040
I0714 21:44:45.802217  7820 net.cpp:91] Creating Layer inception_5a/relu_3x3_reduce
I0714 21:44:45.802217  7824 layer_factory.hpp:77] Creating layer inception_5a/5x5
I0714 21:44:45.802228  7820 net.cpp:425] inception_5a/relu_3x3_reduce <- inception_5a/3x3_reduce
I0714 21:44:45.802248  7820 net.cpp:386] inception_5a/relu_3x3_reduce -> inception_5a/3x3_reduce (in-place)
I0714 21:44:45.802253  7824 net.cpp:91] Creating Layer inception_5a/5x5
I0714 21:44:45.802263  7824 net.cpp:425] inception_5a/5x5 <- inception_5a/5x5_reduce
I0714 21:44:45.802273  7824 net.cpp:399] inception_5a/5x5 -> inception_5a/5x5
I0714 21:44:45.802731  7820 net.cpp:141] Setting up inception_5a/relu_3x3_reduce
I0714 21:44:45.802747  7820 net.cpp:148] Top shape: 10 160 7 7 (78400)
I0714 21:44:45.802753  7820 net.cpp:156] Memory required for data: 530611200
I0714 21:44:45.802758  7820 layer_factory.hpp:77] Creating layer inception_5a/3x3
I0714 21:44:45.802778  7820 net.cpp:91] Creating Layer inception_5a/3x3
I0714 21:44:45.802786  7820 net.cpp:425] inception_5a/3x3 <- inception_5a/3x3_reduce
I0714 21:44:45.802799  7820 net.cpp:399] inception_5a/3x3 -> inception_5a/3x3
I0714 21:44:45.809964  7824 net.cpp:141] Setting up inception_5a/5x5
I0714 21:44:45.810001  7824 net.cpp:148] Top shape: 10 128 7 7 (62720)
I0714 21:44:45.810009  7824 net.cpp:156] Memory required for data: 532241920
I0714 21:44:45.810021  7824 layer_factory.hpp:77] Creating layer inception_5a/relu_5x5
I0714 21:44:45.810062  7824 net.cpp:91] Creating Layer inception_5a/relu_5x5
I0714 21:44:45.810072  7824 net.cpp:425] inception_5a/relu_5x5 <- inception_5a/5x5
I0714 21:44:45.810082  7824 net.cpp:386] inception_5a/relu_5x5 -> inception_5a/5x5 (in-place)
I0714 21:44:45.810401  7824 net.cpp:141] Setting up inception_5a/relu_5x5
I0714 21:44:45.810415  7824 net.cpp:148] Top shape: 10 128 7 7 (62720)
I0714 21:44:45.810420  7824 net.cpp:156] Memory required for data: 532492800
I0714 21:44:45.810426  7824 layer_factory.hpp:77] Creating layer inception_5a/pool
I0714 21:44:45.810442  7824 net.cpp:91] Creating Layer inception_5a/pool
I0714 21:44:45.810449  7824 net.cpp:425] inception_5a/pool <- pool4/3x3_s2_pool4/3x3_s2_0_split_3
I0714 21:44:45.810459  7824 net.cpp:399] inception_5a/pool -> inception_5a/pool
I0714 21:44:45.810775  7824 net.cpp:141] Setting up inception_5a/pool
I0714 21:44:45.810788  7824 net.cpp:148] Top shape: 10 832 7 7 (407680)
I0714 21:44:45.810793  7824 net.cpp:156] Memory required for data: 534123520
I0714 21:44:45.810799  7824 layer_factory.hpp:77] Creating layer inception_5a/pool_proj
I0714 21:44:45.810820  7824 net.cpp:91] Creating Layer inception_5a/pool_proj
I0714 21:44:45.810830  7824 net.cpp:425] inception_5a/pool_proj <- inception_5a/pool
I0714 21:44:45.810840  7824 net.cpp:399] inception_5a/pool_proj -> inception_5a/pool_proj
I0714 21:44:45.818064  7820 net.cpp:141] Setting up inception_5a/3x3
I0714 21:44:45.818111  7820 net.cpp:148] Top shape: 10 320 7 7 (156800)
I0714 21:44:45.818119  7820 net.cpp:156] Memory required for data: 531238400
I0714 21:44:45.818135  7820 layer_factory.hpp:77] Creating layer inception_5a/relu_3x3
I0714 21:44:45.818156  7820 net.cpp:91] Creating Layer inception_5a/relu_3x3
I0714 21:44:45.818167  7820 net.cpp:425] inception_5a/relu_3x3 <- inception_5a/3x3
I0714 21:44:45.818178  7820 net.cpp:386] inception_5a/relu_3x3 -> inception_5a/3x3 (in-place)
I0714 21:44:45.819852  7820 net.cpp:141] Setting up inception_5a/relu_3x3
I0714 21:44:45.819878  7820 net.cpp:148] Top shape: 10 320 7 7 (156800)
I0714 21:44:45.819885  7820 net.cpp:156] Memory required for data: 531865600
I0714 21:44:45.819891  7820 layer_factory.hpp:77] Creating layer inception_5a/5x5_reduce
I0714 21:44:45.819916  7820 net.cpp:91] Creating Layer inception_5a/5x5_reduce
I0714 21:44:45.819926  7820 net.cpp:425] inception_5a/5x5_reduce <- pool4/3x3_s2_pool4/3x3_s2_0_split_2
I0714 21:44:45.819941  7820 net.cpp:399] inception_5a/5x5_reduce -> inception_5a/5x5_reduce
I0714 21:44:45.821789  7824 net.cpp:141] Setting up inception_5a/pool_proj
I0714 21:44:45.821828  7824 net.cpp:148] Top shape: 10 128 7 7 (62720)
I0714 21:44:45.821835  7824 net.cpp:156] Memory required for data: 534374400
I0714 21:44:45.821848  7824 layer_factory.hpp:77] Creating layer inception_5a/relu_pool_proj
I0714 21:44:45.821861  7824 net.cpp:91] Creating Layer inception_5a/relu_pool_proj
I0714 21:44:45.821871  7824 net.cpp:425] inception_5a/relu_pool_proj <- inception_5a/pool_proj
I0714 21:44:45.821880  7824 net.cpp:386] inception_5a/relu_pool_proj -> inception_5a/pool_proj (in-place)
I0714 21:44:45.823036  7824 net.cpp:141] Setting up inception_5a/relu_pool_proj
I0714 21:44:45.823055  7824 net.cpp:148] Top shape: 10 128 7 7 (62720)
I0714 21:44:45.823061  7824 net.cpp:156] Memory required for data: 534625280
I0714 21:44:45.823067  7824 layer_factory.hpp:77] Creating layer inception_5a/output
I0714 21:44:45.823078  7824 net.cpp:91] Creating Layer inception_5a/output
I0714 21:44:45.823086  7824 net.cpp:425] inception_5a/output <- inception_5a/1x1
I0714 21:44:45.823094  7824 net.cpp:425] inception_5a/output <- inception_5a/3x3
I0714 21:44:45.823101  7824 net.cpp:425] inception_5a/output <- inception_5a/5x5
I0714 21:44:45.823107  7824 net.cpp:425] inception_5a/output <- inception_5a/pool_proj
I0714 21:44:45.823115  7824 net.cpp:399] inception_5a/output -> inception_5a/output
I0714 21:44:45.823254  7824 net.cpp:141] Setting up inception_5a/output
I0714 21:44:45.823267  7824 net.cpp:148] Top shape: 10 832 7 7 (407680)
I0714 21:44:45.823272  7824 net.cpp:156] Memory required for data: 536256000
I0714 21:44:45.823278  7824 layer_factory.hpp:77] Creating layer inception_5a/output_inception_5a/output_0_split
I0714 21:44:45.823288  7824 net.cpp:91] Creating Layer inception_5a/output_inception_5a/output_0_split
I0714 21:44:45.823295  7824 net.cpp:425] inception_5a/output_inception_5a/output_0_split <- inception_5a/output
I0714 21:44:45.823308  7824 net.cpp:399] inception_5a/output_inception_5a/output_0_split -> inception_5a/output_inception_5a/output_0_split_0
I0714 21:44:45.823320  7824 net.cpp:399] inception_5a/output_inception_5a/output_0_split -> inception_5a/output_inception_5a/output_0_split_1
I0714 21:44:45.823330  7824 net.cpp:399] inception_5a/output_inception_5a/output_0_split -> inception_5a/output_inception_5a/output_0_split_2
I0714 21:44:45.823340  7824 net.cpp:399] inception_5a/output_inception_5a/output_0_split -> inception_5a/output_inception_5a/output_0_split_3
I0714 21:44:45.825502  7824 net.cpp:141] Setting up inception_5a/output_inception_5a/output_0_split
I0714 21:44:45.825520  7824 net.cpp:148] Top shape: 10 832 7 7 (407680)
I0714 21:44:45.825528  7824 net.cpp:148] Top shape: 10 832 7 7 (407680)
I0714 21:44:45.825534  7824 net.cpp:148] Top shape: 10 832 7 7 (407680)
I0714 21:44:45.825541  7824 net.cpp:148] Top shape: 10 832 7 7 (407680)
I0714 21:44:45.825546  7824 net.cpp:156] Memory required for data: 542778880
I0714 21:44:45.825551  7824 layer_factory.hpp:77] Creating layer inception_5b/1x1
I0714 21:44:45.825572  7824 net.cpp:91] Creating Layer inception_5b/1x1
I0714 21:44:45.825579  7824 net.cpp:425] inception_5b/1x1 <- inception_5a/output_inception_5a/output_0_split_0
I0714 21:44:45.825593  7824 net.cpp:399] inception_5b/1x1 -> inception_5b/1x1
I0714 21:44:45.827028  7820 net.cpp:141] Setting up inception_5a/5x5_reduce
I0714 21:44:45.827054  7820 net.cpp:148] Top shape: 10 32 7 7 (15680)
I0714 21:44:45.827059  7820 net.cpp:156] Memory required for data: 531928320
I0714 21:44:45.827071  7820 layer_factory.hpp:77] Creating layer inception_5a/relu_5x5_reduce
I0714 21:44:45.827083  7820 net.cpp:91] Creating Layer inception_5a/relu_5x5_reduce
I0714 21:44:45.827090  7820 net.cpp:425] inception_5a/relu_5x5_reduce <- inception_5a/5x5_reduce
I0714 21:44:45.827105  7820 net.cpp:386] inception_5a/relu_5x5_reduce -> inception_5a/5x5_reduce (in-place)
I0714 21:44:45.827679  7820 net.cpp:141] Setting up inception_5a/relu_5x5_reduce
I0714 21:44:45.827697  7820 net.cpp:148] Top shape: 10 32 7 7 (15680)
I0714 21:44:45.827703  7820 net.cpp:156] Memory required for data: 531991040
I0714 21:44:45.827709  7820 layer_factory.hpp:77] Creating layer inception_5a/5x5
I0714 21:44:45.827738  7820 net.cpp:91] Creating Layer inception_5a/5x5
I0714 21:44:45.827745  7820 net.cpp:425] inception_5a/5x5 <- inception_5a/5x5_reduce
I0714 21:44:45.827756  7820 net.cpp:399] inception_5a/5x5 -> inception_5a/5x5
I0714 21:44:45.835393  7820 net.cpp:141] Setting up inception_5a/5x5
I0714 21:44:45.835419  7820 net.cpp:148] Top shape: 10 128 7 7 (62720)
I0714 21:44:45.835428  7820 net.cpp:156] Memory required for data: 532241920
I0714 21:44:45.835440  7820 layer_factory.hpp:77] Creating layer inception_5a/relu_5x5
I0714 21:44:45.835481  7820 net.cpp:91] Creating Layer inception_5a/relu_5x5
I0714 21:44:45.835489  7820 net.cpp:425] inception_5a/relu_5x5 <- inception_5a/5x5
I0714 21:44:45.835499  7820 net.cpp:386] inception_5a/relu_5x5 -> inception_5a/5x5 (in-place)
I0714 21:44:45.836030  7820 net.cpp:141] Setting up inception_5a/relu_5x5
I0714 21:44:45.836046  7820 net.cpp:148] Top shape: 10 128 7 7 (62720)
I0714 21:44:45.836052  7820 net.cpp:156] Memory required for data: 532492800
I0714 21:44:45.836060  7820 layer_factory.hpp:77] Creating layer inception_5a/pool
I0714 21:44:45.836081  7820 net.cpp:91] Creating Layer inception_5a/pool
I0714 21:44:45.836088  7820 net.cpp:425] inception_5a/pool <- pool4/3x3_s2_pool4/3x3_s2_0_split_3
I0714 21:44:45.836098  7820 net.cpp:399] inception_5a/pool -> inception_5a/pool
I0714 21:44:45.836333  7824 net.cpp:141] Setting up inception_5b/1x1
I0714 21:44:45.836360  7824 net.cpp:148] Top shape: 10 384 7 7 (188160)
I0714 21:44:45.836367  7824 net.cpp:156] Memory required for data: 543531520
I0714 21:44:45.836371  7820 net.cpp:141] Setting up inception_5a/pool
I0714 21:44:45.836380  7824 layer_factory.hpp:77] Creating layer inception_5b/relu_1x1
I0714 21:44:45.836386  7820 net.cpp:148] Top shape: 10 832 7 7 (407680)
I0714 21:44:45.836392  7820 net.cpp:156] Memory required for data: 534123520
I0714 21:44:45.836396  7824 net.cpp:91] Creating Layer inception_5b/relu_1x1
I0714 21:44:45.836398  7820 layer_factory.hpp:77] Creating layer inception_5a/pool_proj
I0714 21:44:45.836405  7824 net.cpp:425] inception_5b/relu_1x1 <- inception_5b/1x1
I0714 21:44:45.836416  7824 net.cpp:386] inception_5b/relu_1x1 -> inception_5b/1x1 (in-place)
I0714 21:44:45.836422  7820 net.cpp:91] Creating Layer inception_5a/pool_proj
I0714 21:44:45.836431  7820 net.cpp:425] inception_5a/pool_proj <- inception_5a/pool
I0714 21:44:45.836441  7820 net.cpp:399] inception_5a/pool_proj -> inception_5a/pool_proj
I0714 21:44:45.836922  7824 net.cpp:141] Setting up inception_5b/relu_1x1
I0714 21:44:45.836941  7824 net.cpp:148] Top shape: 10 384 7 7 (188160)
I0714 21:44:45.836946  7824 net.cpp:156] Memory required for data: 544284160
I0714 21:44:45.836952  7824 layer_factory.hpp:77] Creating layer inception_5b/3x3_reduce
I0714 21:44:45.836972  7824 net.cpp:91] Creating Layer inception_5b/3x3_reduce
I0714 21:44:45.836980  7824 net.cpp:425] inception_5b/3x3_reduce <- inception_5a/output_inception_5a/output_0_split_1
I0714 21:44:45.836993  7824 net.cpp:399] inception_5b/3x3_reduce -> inception_5b/3x3_reduce
I0714 21:44:45.845393  7820 net.cpp:141] Setting up inception_5a/pool_proj
I0714 21:44:45.845418  7820 net.cpp:148] Top shape: 10 128 7 7 (62720)
I0714 21:44:45.845424  7820 net.cpp:156] Memory required for data: 534374400
I0714 21:44:45.845437  7820 layer_factory.hpp:77] Creating layer inception_5a/relu_pool_proj
I0714 21:44:45.845446  7820 net.cpp:91] Creating Layer inception_5a/relu_pool_proj
I0714 21:44:45.845453  7820 net.cpp:425] inception_5a/relu_pool_proj <- inception_5a/pool_proj
I0714 21:44:45.845461  7820 net.cpp:386] inception_5a/relu_pool_proj -> inception_5a/pool_proj (in-place)
I0714 21:44:45.846932  7820 net.cpp:141] Setting up inception_5a/relu_pool_proj
I0714 21:44:45.846951  7820 net.cpp:148] Top shape: 10 128 7 7 (62720)
I0714 21:44:45.846957  7820 net.cpp:156] Memory required for data: 534625280
I0714 21:44:45.846963  7820 layer_factory.hpp:77] Creating layer inception_5a/output
I0714 21:44:45.846974  7820 net.cpp:91] Creating Layer inception_5a/output
I0714 21:44:45.846982  7820 net.cpp:425] inception_5a/output <- inception_5a/1x1
I0714 21:44:45.846989  7820 net.cpp:425] inception_5a/output <- inception_5a/3x3
I0714 21:44:45.846995  7820 net.cpp:425] inception_5a/output <- inception_5a/5x5
I0714 21:44:45.847002  7820 net.cpp:425] inception_5a/output <- inception_5a/pool_proj
I0714 21:44:45.847024  7820 net.cpp:399] inception_5a/output -> inception_5a/output
I0714 21:44:45.847187  7820 net.cpp:141] Setting up inception_5a/output
I0714 21:44:45.847199  7820 net.cpp:148] Top shape: 10 832 7 7 (407680)
I0714 21:44:45.847204  7820 net.cpp:156] Memory required for data: 536256000
I0714 21:44:45.847210  7820 layer_factory.hpp:77] Creating layer inception_5a/output_inception_5a/output_0_split
I0714 21:44:45.847221  7820 net.cpp:91] Creating Layer inception_5a/output_inception_5a/output_0_split
I0714 21:44:45.847228  7820 net.cpp:425] inception_5a/output_inception_5a/output_0_split <- inception_5a/output
I0714 21:44:45.847250  7820 net.cpp:399] inception_5a/output_inception_5a/output_0_split -> inception_5a/output_inception_5a/output_0_split_0
I0714 21:44:45.847250  7824 net.cpp:141] Setting up inception_5b/3x3_reduce
I0714 21:44:45.847265  7820 net.cpp:399] inception_5a/output_inception_5a/output_0_split -> inception_5a/output_inception_5a/output_0_split_1
I0714 21:44:45.847275  7824 net.cpp:148] Top shape: 10 192 7 7 (94080)
I0714 21:44:45.847276  7820 net.cpp:399] inception_5a/output_inception_5a/output_0_split -> inception_5a/output_inception_5a/output_0_split_2
I0714 21:44:45.847282  7824 net.cpp:156] Memory required for data: 544660480
I0714 21:44:45.847287  7820 net.cpp:399] inception_5a/output_inception_5a/output_0_split -> inception_5a/output_inception_5a/output_0_split_3
I0714 21:44:45.847295  7824 layer_factory.hpp:77] Creating layer inception_5b/relu_3x3_reduce
I0714 21:44:45.847307  7824 net.cpp:91] Creating Layer inception_5b/relu_3x3_reduce
I0714 21:44:45.847316  7824 net.cpp:425] inception_5b/relu_3x3_reduce <- inception_5b/3x3_reduce
I0714 21:44:45.847332  7824 net.cpp:386] inception_5b/relu_3x3_reduce -> inception_5b/3x3_reduce (in-place)
I0714 21:44:45.847822  7824 net.cpp:141] Setting up inception_5b/relu_3x3_reduce
I0714 21:44:45.847836  7824 net.cpp:148] Top shape: 10 192 7 7 (94080)
I0714 21:44:45.847842  7824 net.cpp:156] Memory required for data: 545036800
I0714 21:44:45.847848  7824 layer_factory.hpp:77] Creating layer inception_5b/3x3
I0714 21:44:45.847852  7820 net.cpp:141] Setting up inception_5a/output_inception_5a/output_0_split
I0714 21:44:45.847867  7820 net.cpp:148] Top shape: 10 832 7 7 (407680)
I0714 21:44:45.847867  7824 net.cpp:91] Creating Layer inception_5b/3x3
I0714 21:44:45.847873  7820 net.cpp:148] Top shape: 10 832 7 7 (407680)
I0714 21:44:45.847875  7824 net.cpp:425] inception_5b/3x3 <- inception_5b/3x3_reduce
I0714 21:44:45.847880  7820 net.cpp:148] Top shape: 10 832 7 7 (407680)
I0714 21:44:45.847887  7820 net.cpp:148] Top shape: 10 832 7 7 (407680)
I0714 21:44:45.847890  7824 net.cpp:399] inception_5b/3x3 -> inception_5b/3x3
I0714 21:44:45.847892  7820 net.cpp:156] Memory required for data: 542778880
I0714 21:44:45.847908  7820 layer_factory.hpp:77] Creating layer inception_5b/1x1
I0714 21:44:45.847929  7820 net.cpp:91] Creating Layer inception_5b/1x1
I0714 21:44:45.847935  7820 net.cpp:425] inception_5b/1x1 <- inception_5a/output_inception_5a/output_0_split_0
I0714 21:44:45.847949  7820 net.cpp:399] inception_5b/1x1 -> inception_5b/1x1
I0714 21:44:45.857417  7820 net.cpp:141] Setting up inception_5b/1x1
I0714 21:44:45.857439  7820 net.cpp:148] Top shape: 10 384 7 7 (188160)
I0714 21:44:45.857445  7820 net.cpp:156] Memory required for data: 543531520
I0714 21:44:45.857456  7820 layer_factory.hpp:77] Creating layer inception_5b/relu_1x1
I0714 21:44:45.857470  7820 net.cpp:91] Creating Layer inception_5b/relu_1x1
I0714 21:44:45.857478  7820 net.cpp:425] inception_5b/relu_1x1 <- inception_5b/1x1
I0714 21:44:45.857487  7820 net.cpp:386] inception_5b/relu_1x1 -> inception_5b/1x1 (in-place)
I0714 21:44:45.857795  7820 net.cpp:141] Setting up inception_5b/relu_1x1
I0714 21:44:45.857808  7820 net.cpp:148] Top shape: 10 384 7 7 (188160)
I0714 21:44:45.857815  7820 net.cpp:156] Memory required for data: 544284160
I0714 21:44:45.857820  7820 layer_factory.hpp:77] Creating layer inception_5b/3x3_reduce
I0714 21:44:45.857839  7820 net.cpp:91] Creating Layer inception_5b/3x3_reduce
I0714 21:44:45.857846  7820 net.cpp:425] inception_5b/3x3_reduce <- inception_5a/output_inception_5a/output_0_split_1
I0714 21:44:45.857859  7820 net.cpp:399] inception_5b/3x3_reduce -> inception_5b/3x3_reduce
I0714 21:44:45.864243  7824 net.cpp:141] Setting up inception_5b/3x3
I0714 21:44:45.864275  7824 net.cpp:148] Top shape: 10 384 7 7 (188160)
I0714 21:44:45.864282  7824 net.cpp:156] Memory required for data: 545789440
I0714 21:44:45.864295  7824 layer_factory.hpp:77] Creating layer inception_5b/relu_3x3
I0714 21:44:45.864310  7824 net.cpp:91] Creating Layer inception_5b/relu_3x3
I0714 21:44:45.864320  7824 net.cpp:425] inception_5b/relu_3x3 <- inception_5b/3x3
I0714 21:44:45.864329  7824 net.cpp:386] inception_5b/relu_3x3 -> inception_5b/3x3 (in-place)
I0714 21:44:45.865751  7824 net.cpp:141] Setting up inception_5b/relu_3x3
I0714 21:44:45.865773  7824 net.cpp:148] Top shape: 10 384 7 7 (188160)
I0714 21:44:45.865779  7824 net.cpp:156] Memory required for data: 546542080
I0714 21:44:45.865785  7824 layer_factory.hpp:77] Creating layer inception_5b/5x5_reduce
I0714 21:44:45.865803  7824 net.cpp:91] Creating Layer inception_5b/5x5_reduce
I0714 21:44:45.865811  7824 net.cpp:425] inception_5b/5x5_reduce <- inception_5a/output_inception_5a/output_0_split_2
I0714 21:44:45.865823  7824 net.cpp:399] inception_5b/5x5_reduce -> inception_5b/5x5_reduce
I0714 21:44:45.866099  7820 net.cpp:141] Setting up inception_5b/3x3_reduce
I0714 21:44:45.866117  7820 net.cpp:148] Top shape: 10 192 7 7 (94080)
I0714 21:44:45.866123  7820 net.cpp:156] Memory required for data: 544660480
I0714 21:44:45.866134  7820 layer_factory.hpp:77] Creating layer inception_5b/relu_3x3_reduce
I0714 21:44:45.866145  7820 net.cpp:91] Creating Layer inception_5b/relu_3x3_reduce
I0714 21:44:45.866152  7820 net.cpp:425] inception_5b/relu_3x3_reduce <- inception_5b/3x3_reduce
I0714 21:44:45.866164  7820 net.cpp:386] inception_5b/relu_3x3_reduce -> inception_5b/3x3_reduce (in-place)
I0714 21:44:45.866667  7820 net.cpp:141] Setting up inception_5b/relu_3x3_reduce
I0714 21:44:45.866693  7820 net.cpp:148] Top shape: 10 192 7 7 (94080)
I0714 21:44:45.866703  7820 net.cpp:156] Memory required for data: 545036800
I0714 21:44:45.866709  7820 layer_factory.hpp:77] Creating layer inception_5b/3x3
I0714 21:44:45.866725  7820 net.cpp:91] Creating Layer inception_5b/3x3
I0714 21:44:45.866732  7820 net.cpp:425] inception_5b/3x3 <- inception_5b/3x3_reduce
I0714 21:44:45.866747  7820 net.cpp:399] inception_5b/3x3 -> inception_5b/3x3
I0714 21:44:45.872259  7824 net.cpp:141] Setting up inception_5b/5x5_reduce
I0714 21:44:45.872282  7824 net.cpp:148] Top shape: 10 48 7 7 (23520)
I0714 21:44:45.872289  7824 net.cpp:156] Memory required for data: 546636160
I0714 21:44:45.872300  7824 layer_factory.hpp:77] Creating layer inception_5b/relu_5x5_reduce
I0714 21:44:45.872313  7824 net.cpp:91] Creating Layer inception_5b/relu_5x5_reduce
I0714 21:44:45.872321  7824 net.cpp:425] inception_5b/relu_5x5_reduce <- inception_5b/5x5_reduce
I0714 21:44:45.872330  7824 net.cpp:386] inception_5b/relu_5x5_reduce -> inception_5b/5x5_reduce (in-place)
I0714 21:44:45.872642  7824 net.cpp:141] Setting up inception_5b/relu_5x5_reduce
I0714 21:44:45.872655  7824 net.cpp:148] Top shape: 10 48 7 7 (23520)
I0714 21:44:45.872660  7824 net.cpp:156] Memory required for data: 546730240
I0714 21:44:45.872666  7824 layer_factory.hpp:77] Creating layer inception_5b/5x5
I0714 21:44:45.872684  7824 net.cpp:91] Creating Layer inception_5b/5x5
I0714 21:44:45.872691  7824 net.cpp:425] inception_5b/5x5 <- inception_5b/5x5_reduce
I0714 21:44:45.872704  7824 net.cpp:399] inception_5b/5x5 -> inception_5b/5x5
I0714 21:44:45.879299  7824 net.cpp:141] Setting up inception_5b/5x5
I0714 21:44:45.879328  7824 net.cpp:148] Top shape: 10 128 7 7 (62720)
I0714 21:44:45.879333  7824 net.cpp:156] Memory required for data: 546981120
I0714 21:44:45.879345  7824 layer_factory.hpp:77] Creating layer inception_5b/relu_5x5
I0714 21:44:45.879356  7824 net.cpp:91] Creating Layer inception_5b/relu_5x5
I0714 21:44:45.879364  7824 net.cpp:425] inception_5b/relu_5x5 <- inception_5b/5x5
I0714 21:44:45.879372  7824 net.cpp:386] inception_5b/relu_5x5 -> inception_5b/5x5 (in-place)
I0714 21:44:45.879935  7824 net.cpp:141] Setting up inception_5b/relu_5x5
I0714 21:44:45.879952  7824 net.cpp:148] Top shape: 10 128 7 7 (62720)
I0714 21:44:45.879958  7824 net.cpp:156] Memory required for data: 547232000
I0714 21:44:45.879964  7824 layer_factory.hpp:77] Creating layer inception_5b/pool
I0714 21:44:45.879978  7824 net.cpp:91] Creating Layer inception_5b/pool
I0714 21:44:45.879987  7824 net.cpp:425] inception_5b/pool <- inception_5a/output_inception_5a/output_0_split_3
I0714 21:44:45.879995  7824 net.cpp:399] inception_5b/pool -> inception_5b/pool
I0714 21:44:45.880091  7820 net.cpp:141] Setting up inception_5b/3x3
I0714 21:44:45.880110  7820 net.cpp:148] Top shape: 10 384 7 7 (188160)
I0714 21:44:45.880117  7820 net.cpp:156] Memory required for data: 545789440
I0714 21:44:45.880127  7820 layer_factory.hpp:77] Creating layer inception_5b/relu_3x3
I0714 21:44:45.880142  7820 net.cpp:91] Creating Layer inception_5b/relu_3x3
I0714 21:44:45.880149  7820 net.cpp:425] inception_5b/relu_3x3 <- inception_5b/3x3
I0714 21:44:45.880161  7820 net.cpp:386] inception_5b/relu_3x3 -> inception_5b/3x3 (in-place)
I0714 21:44:45.880216  7824 net.cpp:141] Setting up inception_5b/pool
I0714 21:44:45.880230  7824 net.cpp:148] Top shape: 10 832 7 7 (407680)
I0714 21:44:45.880236  7824 net.cpp:156] Memory required for data: 548862720
I0714 21:44:45.880241  7824 layer_factory.hpp:77] Creating layer inception_5b/pool_proj
I0714 21:44:45.880259  7824 net.cpp:91] Creating Layer inception_5b/pool_proj
I0714 21:44:45.880267  7824 net.cpp:425] inception_5b/pool_proj <- inception_5b/pool
I0714 21:44:45.880282  7824 net.cpp:399] inception_5b/pool_proj -> inception_5b/pool_proj
I0714 21:44:45.881233  7820 net.cpp:141] Setting up inception_5b/relu_3x3
I0714 21:44:45.881249  7820 net.cpp:148] Top shape: 10 384 7 7 (188160)
I0714 21:44:45.881255  7820 net.cpp:156] Memory required for data: 546542080
I0714 21:44:45.881261  7820 layer_factory.hpp:77] Creating layer inception_5b/5x5_reduce
I0714 21:44:45.881279  7820 net.cpp:91] Creating Layer inception_5b/5x5_reduce
I0714 21:44:45.881286  7820 net.cpp:425] inception_5b/5x5_reduce <- inception_5a/output_inception_5a/output_0_split_2
I0714 21:44:45.881297  7820 net.cpp:399] inception_5b/5x5_reduce -> inception_5b/5x5_reduce
I0714 21:44:45.888453  7824 net.cpp:141] Setting up inception_5b/pool_proj
I0714 21:44:45.888481  7824 net.cpp:148] Top shape: 10 128 7 7 (62720)
I0714 21:44:45.888487  7824 net.cpp:156] Memory required for data: 549113600
I0714 21:44:45.888499  7824 layer_factory.hpp:77] Creating layer inception_5b/relu_pool_proj
I0714 21:44:45.888511  7824 net.cpp:91] Creating Layer inception_5b/relu_pool_proj
I0714 21:44:45.888519  7824 net.cpp:425] inception_5b/relu_pool_proj <- inception_5b/pool_proj
I0714 21:44:45.888532  7824 net.cpp:386] inception_5b/relu_pool_proj -> inception_5b/pool_proj (in-place)
I0714 21:44:45.889487  7820 net.cpp:141] Setting up inception_5b/5x5_reduce
I0714 21:44:45.889508  7820 net.cpp:148] Top shape: 10 48 7 7 (23520)
I0714 21:44:45.889514  7820 net.cpp:156] Memory required for data: 546636160
I0714 21:44:45.889525  7820 layer_factory.hpp:77] Creating layer inception_5b/relu_5x5_reduce
I0714 21:44:45.889539  7820 net.cpp:91] Creating Layer inception_5b/relu_5x5_reduce
I0714 21:44:45.889547  7820 net.cpp:425] inception_5b/relu_5x5_reduce <- inception_5b/5x5_reduce
I0714 21:44:45.889556  7820 net.cpp:386] inception_5b/relu_5x5_reduce -> inception_5b/5x5_reduce (in-place)
I0714 21:44:45.889581  7824 net.cpp:141] Setting up inception_5b/relu_pool_proj
I0714 21:44:45.889598  7824 net.cpp:148] Top shape: 10 128 7 7 (62720)
I0714 21:44:45.889603  7824 net.cpp:156] Memory required for data: 549364480
I0714 21:44:45.889610  7824 layer_factory.hpp:77] Creating layer inception_5b/output
I0714 21:44:45.889621  7824 net.cpp:91] Creating Layer inception_5b/output
I0714 21:44:45.889627  7824 net.cpp:425] inception_5b/output <- inception_5b/1x1
I0714 21:44:45.889636  7824 net.cpp:425] inception_5b/output <- inception_5b/3x3
I0714 21:44:45.889642  7824 net.cpp:425] inception_5b/output <- inception_5b/5x5
I0714 21:44:45.889647  7824 net.cpp:425] inception_5b/output <- inception_5b/pool_proj
I0714 21:44:45.889659  7824 net.cpp:399] inception_5b/output -> inception_5b/output
I0714 21:44:45.889847  7824 net.cpp:141] Setting up inception_5b/output
I0714 21:44:45.889860  7824 net.cpp:148] Top shape: 10 1024 7 7 (501760)
I0714 21:44:45.889865  7824 net.cpp:156] Memory required for data: 551371520
I0714 21:44:45.889871  7824 layer_factory.hpp:77] Creating layer pool5/7x7_s1
I0714 21:44:45.889890  7824 net.cpp:91] Creating Layer pool5/7x7_s1
I0714 21:44:45.889897  7824 net.cpp:425] pool5/7x7_s1 <- inception_5b/output
I0714 21:44:45.889907  7824 net.cpp:399] pool5/7x7_s1 -> pool5/7x7_s1
I0714 21:44:45.889969  7820 net.cpp:141] Setting up inception_5b/relu_5x5_reduce
I0714 21:44:45.889984  7820 net.cpp:148] Top shape: 10 48 7 7 (23520)
I0714 21:44:45.889991  7820 net.cpp:156] Memory required for data: 546730240
I0714 21:44:45.889997  7820 layer_factory.hpp:77] Creating layer inception_5b/5x5
I0714 21:44:45.890014  7820 net.cpp:91] Creating Layer inception_5b/5x5
I0714 21:44:45.890022  7820 net.cpp:425] inception_5b/5x5 <- inception_5b/5x5_reduce
I0714 21:44:45.890035  7820 net.cpp:399] inception_5b/5x5 -> inception_5b/5x5
I0714 21:44:45.890640  7824 net.cpp:141] Setting up pool5/7x7_s1
I0714 21:44:45.890655  7824 net.cpp:148] Top shape: 10 1024 1 1 (10240)
I0714 21:44:45.890661  7824 net.cpp:156] Memory required for data: 551412480
I0714 21:44:45.890666  7824 layer_factory.hpp:77] Creating layer pool5/drop_7x7_s1
I0714 21:44:45.890683  7824 net.cpp:91] Creating Layer pool5/drop_7x7_s1
I0714 21:44:45.890702  7824 net.cpp:425] pool5/drop_7x7_s1 <- pool5/7x7_s1
I0714 21:44:45.890715  7824 net.cpp:386] pool5/drop_7x7_s1 -> pool5/7x7_s1 (in-place)
I0714 21:44:45.890887  7824 net.cpp:141] Setting up pool5/drop_7x7_s1
I0714 21:44:45.890900  7824 net.cpp:148] Top shape: 10 1024 1 1 (10240)
I0714 21:44:45.890907  7824 net.cpp:156] Memory required for data: 551453440
I0714 21:44:45.890913  7824 layer_factory.hpp:77] Creating layer loss3/classifier
I0714 21:44:45.890930  7824 net.cpp:91] Creating Layer loss3/classifier
I0714 21:44:45.890938  7824 net.cpp:425] loss3/classifier <- pool5/7x7_s1
I0714 21:44:45.890950  7824 net.cpp:399] loss3/classifier -> loss3/classifier
I0714 21:44:45.898041  7820 net.cpp:141] Setting up inception_5b/5x5
I0714 21:44:45.898068  7820 net.cpp:148] Top shape: 10 128 7 7 (62720)
I0714 21:44:45.898075  7820 net.cpp:156] Memory required for data: 546981120
I0714 21:44:45.898085  7820 layer_factory.hpp:77] Creating layer inception_5b/relu_5x5
I0714 21:44:45.898097  7820 net.cpp:91] Creating Layer inception_5b/relu_5x5
I0714 21:44:45.898103  7820 net.cpp:425] inception_5b/relu_5x5 <- inception_5b/5x5
I0714 21:44:45.898113  7820 net.cpp:386] inception_5b/relu_5x5 -> inception_5b/5x5 (in-place)
I0714 21:44:45.898417  7820 net.cpp:141] Setting up inception_5b/relu_5x5
I0714 21:44:45.898430  7820 net.cpp:148] Top shape: 10 128 7 7 (62720)
I0714 21:44:45.898437  7820 net.cpp:156] Memory required for data: 547232000
I0714 21:44:45.898442  7820 layer_factory.hpp:77] Creating layer inception_5b/pool
I0714 21:44:45.898457  7820 net.cpp:91] Creating Layer inception_5b/pool
I0714 21:44:45.898463  7820 net.cpp:425] inception_5b/pool <- inception_5a/output_inception_5a/output_0_split_3
I0714 21:44:45.898473  7820 net.cpp:399] inception_5b/pool -> inception_5b/pool
I0714 21:44:45.898629  7820 net.cpp:141] Setting up inception_5b/pool
I0714 21:44:45.898643  7820 net.cpp:148] Top shape: 10 832 7 7 (407680)
I0714 21:44:45.898648  7820 net.cpp:156] Memory required for data: 548862720
I0714 21:44:45.898653  7820 layer_factory.hpp:77] Creating layer inception_5b/pool_proj
I0714 21:44:45.898670  7820 net.cpp:91] Creating Layer inception_5b/pool_proj
I0714 21:44:45.898677  7820 net.cpp:425] inception_5b/pool_proj <- inception_5b/pool
I0714 21:44:45.898702  7820 net.cpp:399] inception_5b/pool_proj -> inception_5b/pool_proj
I0714 21:44:45.904352  7824 net.cpp:141] Setting up loss3/classifier
I0714 21:44:45.904393  7824 net.cpp:148] Top shape: 10 1000 (10000)
I0714 21:44:45.904400  7824 net.cpp:156] Memory required for data: 551493440
I0714 21:44:45.904413  7824 layer_factory.hpp:77] Creating layer prob
I0714 21:44:45.904429  7824 net.cpp:91] Creating Layer prob
I0714 21:44:45.904438  7824 net.cpp:425] prob <- loss3/classifier
I0714 21:44:45.904458  7824 net.cpp:399] prob -> prob
I0714 21:44:45.906435  7820 net.cpp:141] Setting up inception_5b/pool_proj
I0714 21:44:45.906457  7820 net.cpp:148] Top shape: 10 128 7 7 (62720)
I0714 21:44:45.906464  7820 net.cpp:156] Memory required for data: 549113600
I0714 21:44:45.906476  7820 layer_factory.hpp:77] Creating layer inception_5b/relu_pool_proj
I0714 21:44:45.906486  7820 net.cpp:91] Creating Layer inception_5b/relu_pool_proj
I0714 21:44:45.906492  7820 net.cpp:425] inception_5b/relu_pool_proj <- inception_5b/pool_proj
I0714 21:44:45.906505  7820 net.cpp:386] inception_5b/relu_pool_proj -> inception_5b/pool_proj (in-place)
I0714 21:44:45.907342  7824 net.cpp:141] Setting up prob
I0714 21:44:45.907364  7824 net.cpp:148] Top shape: 10 1000 (10000)
I0714 21:44:45.907371  7824 net.cpp:156] Memory required for data: 551533440
I0714 21:44:45.907377  7824 net.cpp:219] prob does not need backward computation.
I0714 21:44:45.907382  7824 net.cpp:219] loss3/classifier does not need backward computation.
I0714 21:44:45.907388  7824 net.cpp:219] pool5/drop_7x7_s1 does not need backward computation.
I0714 21:44:45.907393  7824 net.cpp:219] pool5/7x7_s1 does not need backward computation.
…
