…
W0924 03:20:32.883301 22939 upgrade_proto.cpp:71] Note that future Caffe releases will only support input layers and not input fields.
I0924 03:20:32.883600 22933 net.cpp:49] Initializing net from parameters: 
name: "s2vt:features_to_lstm"
state {
  phase: TEST
}
layer {
  name: "input"
  type: "Input"
  top: "frames_fc7"
  top: "cont_sentence"
  top: "input_sentence"
  top: "stage_indicator"
  input_param {
    shape {
      dim: 1
      dim: 4096
    }
    shape {
      dim: 1
      dim: 1
    }
    shape {
      dim: 1
      dim: 1
    }
    shape {
      dim: 1
      dim: 1
    }
  }
}
layer {
  name: "embed_encoder"
  type: "InnerProduct"
  bottom: "frames_fc7"
  top: "embedded_in_frames"
  param {
    lr_mult: 1
    decay_mult: 1
  }
  param {
    lr_mult: 2
    decay_mult: 0
  }
  inner_product_param {
    num_output: 500
    weight_filler {
      type: "xavier"
    }
    bias_filler {
      type: "constant"
      value: 0.2
    }
  }
}
layer {
  name: "reshape_frames"
  type: "Reshape"
  bottom: "embedded_in_frames"
  top: "embedded_input_frames"
  reshape_param {
    shape {
      dim: 1
      dim: 1
      dim: 500
    }
  }
}
layer {
  name: "reshape_stage_indicator"
  type: "Reshape"
  bottom: "stage_indicator"
  top: "reshaped_stage_indicator"
  reshape_param {
    shape {
      dim: 1
      dim: 1
      dim: 1
    }
  }
}
layer {
  name: "embedding"
  type: "Embed"
  bottom: "input_sentence"
  top: "embedded_input_sentence"
  param {
    lr_mult: 1
  }
  embed_param {
    num_output: 500
    input_dim: 46168
    bias_term: false
    weight_filler {
      type: "uniform"
      min: -0.08
      max: 0.08
    }
  }
}
layer {
  name: "lstm1"
  type: "LSTM"
  bottom: "embedded_input_frames"
  bottom: "cont_sentence"
  top: "lstm1"
  recurrent_param {
    num_output: 1000
    weight_filler {
      type: "uniform"
      min: -0.08
      max: 0.08
    }
    bias_filler {
      type: "constant"
      value: 0
    }
  }
}
layer {
  name: "concat"
  type: "Concat"
  bottom: "lstm1"
  bottom: "embedded_input_sentence"
  bottom: "reshaped_stage_indicator"
  top: "lstm1_video_sequence"
  concat_param {
    concat_dim: 2
  }
}
layer {
  name: "lstm2"
  type: "LSTM"
  bottom: "lstm1_video_sequence"
  bottom: "cont_sentence"
  top: "lstm2"
  recurrent_param {
    num_output: 1000
    weight_filler {
      type: "uniform"
      min: -0.08
      max: 0.08
    }
    bias_filler {
      type: "constant"
      value: 0
    }
  }
}
layer {
  name: "predict"
  type: "InnerProduct"
  bottom: "lstm2"
  top: "predict"
  param {
    lr_mult: 1
    decay_mult: 1
  }
  param {
    lr_mult: 2
    decay_mult: 0
  }
  inner_product_param {
    num_output: 46168
    weight_filler {
      type: "uniform"
      min: -0.08
      max: 0.08
    }
    bias_filler {
      type: "constant"
      value: 0
    }
    axis: 2
  }
}
layer {
  name: "probs"
  type: "Softmax"
  bottom: "predict"
  top: "probs"
  softmax_param {
    axis: 2
  }
}
I0924 03:20:32.883604 22929 net.cpp:49] Initializing net from parameters: 
name: "s2vt:features_to_lstm"
state {
  phase: TEST
}
layer {
  name: "input"
  type: "Input"
  top: "frames_fc7"
  top: "cont_sentence"
  top: "input_sentence"
  top: "stage_indicator"
  input_param {
    shape {
      dim: 1
      dim: 4096
    }
    shape {
      dim: 1
      dim: 1
    }
    shape {
      dim: 1
      dim: 1
    }
    shape {
      dim: 1
      dim: 1
    }
  }
}
layer {
  name: "embed_encoder"
  type: "InnerProduct"
  bottom: "frames_fc7"
  top: "embedded_in_frames"
  param {
    lr_mult: 1
    decay_mult: 1
  }
  param {
    lr_mult: 2
    decay_mult: 0
  }
  inner_product_param {
    num_output: 500
    weight_filler {
      type: "xavier"
    }
    bias_filler {
      type: "constant"
      value: 0.2
    }
  }
}
layer {
  name: "reshape_frames"
  type: "Reshape"
  bottom: "embedded_in_frames"
  top: "embedded_input_frames"
  reshape_param {
    shape {
      dim: 1
      dim: 1
      dim: 500
    }
  }
}
layer {
  name: "reshape_stage_indicator"
  type: "Reshape"
  bottom: "stage_indicator"
  top: "reshaped_stage_indicator"
  reshape_param {
    shape {
      dim: 1
      dim: 1
      dim: 1
    }
  }
}
layer {
  name: "embedding"
  type: "Embed"
  bottom: "input_sentence"
  top: "embedded_input_sentence"
  param {
    lr_mult: 1
  }
  embed_param {
    num_output: 500
    input_dim: 46168
    bias_term: false
    weight_filler {
      type: "uniform"
      min: -0.08
      max: 0.08
    }
  }
}
layer {
  name: "lstm1"
  type: "LSTM"
  bottom: "embedded_input_frames"
  bottom: "cont_sentence"
  top: "lstm1"
  recurrent_param {
    num_output: 1000
    weight_filler {
      type: "uniform"
      min: -0.08
      max: 0.08
    }
    bias_filler {
      type: "constant"
      value: 0
    }
  }
}
layer {
  name: "concat"
  type: "Concat"
  bottom: "lstm1"
  bottom: "embedded_input_sentence"
  bottom: "reshaped_stage_indicator"
  top: "lstm1_video_sequence"
  concat_param {
    concat_dim: 2
  }
}
layer {
  name: "lstm2"
  type: "LSTM"
  bottom: "lstm1_video_sequence"
  bottom: "cont_sentence"
  top: "lstm2"
  recurrent_param {
    num_output: 1000
    weight_filler {
      type: "uniform"
      min: -0.08
      max: 0.08
    }
    bias_filler {
      type: "constant"
      value: 0
    }
  }
}
layer {
  name: "predict"
  type: "InnerProduct"
  bottom: "lstm2"
  top: "predict"
  param {
    lr_mult: 1
    decay_mult: 1
  }
  param {
    lr_mult: 2
    decay_mult: 0
  }
  inner_product_param {
    num_output: 46168
    weight_filler {
      type: "uniform"
      min: -0.08
      max: 0.08
    }
    bias_filler {
      type: "constant"
      value: 0
    }
    axis: 2
  }
}
layer {
  name: "probs"
  type: "Softmax"
  bottom: "predict"
  top: "probs"
  softmax_param {
    axis: 2
  }
}
I0924 03:20:32.883659 22967 net.cpp:49] Initializing net from parameters: 
name: "s2vt:features_to_lstm"
state {
  phase: TEST
}
layer {
  name: "input"
  type: "Input"
  top: "frames_fc7"
  top: "cont_sentence"
  top: "input_sentence"
  top: "stage_indicator"
  input_param {
    shape {
      dim: 1
      dim: 4096
    }
    shape {
      dim: 1
      dim: 1
    }
    shape {
      dim: 1
      dim: 1
    }
    shape {
      dim: 1
      dim: 1
    }
  }
}
layer {
  name: "embed_encoder"
  type: "InnerProduct"
  bottom: "frames_fc7"
  top: "embedded_in_frames"
  param {
    lr_mult: 1
    decay_mult: 1
  }
  param {
    lr_mult: 2
    decay_mult: 0
  }
  inner_product_param {
    num_output: 500
    weight_filler {
      type: "xavier"
    }
    bias_filler {
      type: "constant"
      value: 0.2
    }
  }
}
layer {
  name: "reshape_frames"
  type: "Reshape"
  bottom: "embedded_in_frames"
  top: "embedded_input_frames"
  reshape_param {
    shape {
      dim: 1
      dim: 1
      dim: 500
    }
  }
}
layer {
  name: "reshape_stage_indicator"
  type: "Reshape"
  bottom: "stage_indicator"
  top: "reshaped_stage_indicator"
  reshape_param {
    shape {
      dim: 1
      dim: 1
      dim: 1
    }
  }
}
layer {
  name: "embedding"
  type: "Embed"
  bottom: "input_sentence"
  top: "embedded_input_sentence"
  param {
    lr_mult: 1
  }
  embed_param {
    num_output: 500
    input_dim: 46168
    bias_term: false
    weight_filler {
      type: "uniform"
      min: -0.08
      max: 0.08
    }
  }
}
layer {
  name: "lstm1"
  type: "LSTM"
  bottom: "embedded_input_frames"
  bottom: "cont_sentence"
  top: "lstm1"
  recurrent_param {
    num_output: 1000
    weight_filler {
      type: "uniform"
      min: -0.08
      max: 0.08
    }
    bias_filler {
      type: "constant"
      value: 0
    }
  }
}
layer {
  name: "concat"
  type: "Concat"
  bottom: "lstm1"
  bottom: "embedded_input_sentence"
  bottom: "reshaped_stage_indicator"
  top: "lstm1_video_sequence"
  concat_param {
    concat_dim: 2
  }
}
layer {
  name: "lstm2"
  type: "LSTM"
  bottom: "lstm1_video_sequence"
  bottom: "cont_sentence"
  top: "lstm2"
  recurrent_param {
    num_output: 1000
    weight_filler {
      type: "uniform"
      min: -0.08
      max: 0.08
    }
    bias_filler {
      type: "constant"
      value: 0
    }
  }
}
layer {
  name: "predict"
  type: "InnerProduct"
  bottom: "lstm2"
  top: "predict"
  param {
    lr_mult: 1
    decay_mult: 1
  }
  param {
    lr_mult: 2
    decay_mult: 0
  }
  inner_product_param {
    num_output: 46168
    weight_filler {
      type: "uniform"
      min: -0.08
      max: 0.08
    }
    bias_filler {
      type: "constant"
      value: 0
    }
    axis: 2
  }
}
layer {
  name: "probs"
  type: "Softmax"
  bottom: "predict"
  top: "probs"
  softmax_param {
    axis: 2
  }
}
I0924 03:20:32.883678 22973 net.cpp:49] Initializing net from parameters: 
name: "s2vt:features_to_lstm"
state {
  phase: TEST
}
layer {
  name: "input"
  type: "Input"
  top: "frames_fc7"
  top: "cont_sentence"
  top: "input_sentence"
  top: "stage_indicator"
  input_param {
    shape {
      dim: 1
      dim: 4096
    }
    shape {
      dim: 1
      dim: 1
    }
    shape {
      dim: 1
      dim: 1
    }
    shape {
      dim: 1
      dim: 1
    }
  }
}
layer {
  name: "embed_encoder"
  type: "InnerProduct"
  bottom: "frames_fc7"
  top: "embedded_in_frames"
  param {
    lr_mult: 1
    decay_mult: 1
  }
  param {
    lr_mult: 2
    decay_mult: 0
  }
  inner_product_param {
    num_output: 500
    weight_filler {
      type: "xavier"
    }
    bias_filler {
      type: "constant"
      value: 0.2
    }
  }
}
layer {
  name: "reshape_frames"
  type: "Reshape"
  bottom: "embedded_in_frames"
  top: "embedded_input_frames"
  reshape_param {
    shape {
      dim: 1
      dim: 1
      dim: 500
    }
  }
}
layer {
  name: "reshape_stage_indicator"
  type: "Reshape"
  bottom: "stage_indicator"
  top: "reshaped_stage_indicator"
  reshape_param {
    shape {
      dim: 1
      dim: 1
      dim: 1
    }
  }
}
layer {
  name: "embedding"
  type: "Embed"
  bottom: "input_sentence"
  top: "embedded_input_sentence"
  param {
    lr_mult: 1
  }
  embed_param {
    num_output: 500
    input_dim: 46168
    bias_term: false
    weight_filler {
      type: "uniform"
      min: -0.08
      max: 0.08
    }
  }
}
layer {
  name: "lstm1"
  type: "LSTM"
  bottom: "embedded_input_frames"
  bottom: "cont_sentence"
  top: "lstm1"
  recurrent_param {
    num_output: 1000
    weight_filler {
      type: "uniform"
      min: -0.08
      max: 0.08
    }
    bias_filler {
      type: "constant"
      value: 0
    }
  }
}
layer {
  name: "concat"
  type: "Concat"
  bottom: "lstm1"
  bottom: "embedded_input_sentence"
  bottom: "reshaped_stage_indicator"
  top: "lstm1_video_sequence"
  concat_param {
    concat_dim: 2
  }
}
layer {
  name: "lstm2"
  type: "LSTM"
  bottom: "lstm1_video_sequence"
  bottom: "cont_sentence"
  top: "lstm2"
  recurrent_param {
    num_output: 1000
    weight_filler {
      type: "uniform"
      min: -0.08
      max: 0.08
    }
    bias_filler {
      type: "constant"
      value: 0
    }
  }
}
layer {
  name: "predict"
  type: "InnerProduct"
  bottom: "lstm2"
  top: "predict"
  param {
    lr_mult: 1
    decay_mult: 1
  }
  param {
    lr_mult: 2
    decay_mult: 0
  }
  inner_product_param {
    num_output: 46168
    weight_filler {
      type: "uniform"
      min: -0.08
      max: 0.08
    }
    bias_filler {
      type: "constant"
      value: 0
    }
    axis: 2
  }
}
layer {
  name: "probs"
  type: "Softmax"
  bottom: "predict"
  top: "probs"
  softmax_param {
    axis: 2
  }
}
I0924 03:20:32.883697 22935 net.cpp:49] Initializing net from parameters: 
name: "s2vt:features_to_lstm"
state {
  phase: TEST
}
layer {
  name: "input"
  type: "Input"
  top: "frames_fc7"
  top: "cont_sentence"
  top: "input_sentence"
  top: "stage_indicator"
  input_param {
    shape {
      dim: 1
      dim: 4096
    }
    shape {
      dim: 1
      dim: 1
    }
    shape {
      dim: 1
      dim: 1
    }
    shape {
      dim: 1
      dim: 1
    }
  }
}
layer {
  name: "embed_encoder"
  type: "InnerProduct"
  bottom: "frames_fc7"
  top: "embedded_in_frames"
  param {
    lr_mult: 1
    decay_mult: 1
  }
  param {
    lr_mult: 2
    decay_mult: 0
  }
  inner_product_param {
    num_output: 500
    weight_filler {
      type: "xavier"
    }
    bias_filler {
      type: "constant"
      value: 0.2
    }
  }
}
layer {
  name: "reshape_frames"
  type: "Reshape"
  bottom: "embedded_in_frames"
  top: "embedded_input_frames"
  reshape_param {
    shape {
      dim: 1
      dim: 1
      dim: 500
    }
  }
}
layer {
  name: "reshape_stage_indicator"
  type: "Reshape"
  bottom: "stage_indicator"
  top: "reshaped_stage_indicator"
  reshape_param {
    shape {
      dim: 1
      dim: 1
      dim: 1
    }
  }
}
layer {
  name: "embedding"
  type: "Embed"
  bottom: "input_sentence"
  top: "embedded_input_sentence"
  param {
    lr_mult: 1
  }
  embed_param {
    num_output: 500
    input_dim: 46168
    bias_term: false
    weight_filler {
      type: "uniform"
      min: -0.08
      max: 0.08
    }
  }
}
layer {
  name: "lstm1"
  type: "LSTM"
  bottom: "embedded_input_frames"
  bottom: "cont_sentence"
  top: "lstm1"
  recurrent_param {
    num_output: 1000
    weight_filler {
      type: "uniform"
      min: -0.08
      max: 0.08
    }
    bias_filler {
      type: "constant"
      value: 0
    }
  }
}
layer {
  name: "concat"
  type: "Concat"
  bottom: "lstm1"
  bottom: "embedded_input_sentence"
  bottom: "reshaped_stage_indicator"
  top: "lstm1_video_sequence"
  concat_param {
    concat_dim: 2
  }
}
layer {
  name: "lstm2"
  type: "LSTM"
  bottom: "lstm1_video_sequence"
  bottom: "cont_sentence"
  top: "lstm2"
  recurrent_param {
    num_output: 1000
    weight_filler {
      type: "uniform"
      min: -0.08
      max: 0.08
    }
    bias_filler {
      type: "constant"
      value: 0
    }
  }
}
layer {
  name: "predict"
  type: "InnerProduct"
  bottom: "lstm2"
  top: "predict"
  param {
    lr_mult: 1
    decay_mult: 1
  }
  param {
    lr_mult: 2
    decay_mult: 0
  }
  inner_product_param {
    num_output: 46168
    weight_filler {
      type: "uniform"
      min: -0.08
      max: 0.08
    }
    bias_filler {
      type: "constant"
      value: 0
    }
    axis: 2
  }
}
layer {
  name: "probs"
  type: "Softmax"
  bottom: "predict"
  top: "probs"
  softmax_param {
    axis: 2
  }
}
I0924 03:20:32.883707 22939 net.cpp:49] Initializing net from parameters: 
name: "s2vt:features_to_lstm"
state {
  phase: TEST
}
layer {
  name: "input"
  type: "Input"
  top: "frames_fc7"
  top: "cont_sentence"
  top: "input_sentence"
  top: "stage_indicator"
  input_param {
    shape {
      dim: 1
      dim: 4096
    }
    shape {
      dim: 1
      dim: 1
    }
    shape {
      dim: 1
      dim: 1
    }
    shape {
      dim: 1
      dim: 1
    }
  }
}
layer {
  name: "embed_encoder"
  type: "InnerProduct"
  bottom: "frames_fc7"
  top: "embedded_in_frames"
  param {
    lr_mult: 1
    decay_mult: 1
  }
  param {
    lr_mult: 2
    decay_mult: 0
  }
  inner_product_param {
    num_output: 500
    weight_filler {
      type: "xavier"
    }
    bias_filler {
      type: "constant"
      value: 0.2
    }
  }
}
layer {
  name: "reshape_frames"
  type: "Reshape"
  bottom: "embedded_in_frames"
  top: "embedded_input_frames"
  reshape_param {
    shape {
      dim: 1
      dim: 1
      dim: 500
    }
  }
}
layer {
  name: "reshape_stage_indicator"
  type: "Reshape"
  bottom: "stage_indicator"
  top: "reshaped_stage_indicator"
  reshape_param {
    shape {
      dim: 1
      dim: 1
      dim: 1
    }
  }
}
layer {
  name: "embedding"
  type: "Embed"
  bottom: "input_sentence"
  top: "embedded_input_sentence"
  param {
    lr_mult: 1
  }
  embed_param {
    num_output: 500
    input_dim: 46168
    bias_term: false
    weight_filler {
      type: "uniform"
      min: -0.08
      max: 0.08
    }
  }
}
layer {
  name: "lstm1"
  type: "LSTM"
  bottom: "embedded_input_frames"
  bottom: "cont_sentence"
  top: "lstm1"
  recurrent_param {
    num_output: 1000
    weight_filler {
      type: "uniform"
      min: -0.08
      max: 0.08
    }
    bias_filler {
      type: "constant"
      value: 0
    }
  }
}
layer {
  name: "concat"
  type: "Concat"
  bottom: "lstm1"
  bottom: "embedded_input_sentence"
  bottom: "reshaped_stage_indicator"
  top: "lstm1_video_sequence"
  concat_param {
    concat_dim: 2
  }
}
layer {
  name: "lstm2"
  type: "LSTM"
  bottom: "lstm1_video_sequence"
  bottom: "cont_sentence"
  top: "lstm2"
  recurrent_param {
    num_output: 1000
    weight_filler {
      type: "uniform"
      min: -0.08
      max: 0.08
    }
    bias_filler {
      type: "constant"
      value: 0
    }
  }
}
layer {
  name: "predict"
  type: "InnerProduct"
  bottom: "lstm2"
  top: "predict"
  param {
    lr_mult: 1
    decay_mult: 1
  }
  param {
    lr_mult: 2
    decay_mult: 0
  }
  inner_product_param {
    num_output: 46168
    weight_filler {
      type: "uniform"
      min: -0.08
      max: 0.08
    }
    bias_filler {
      type: "constant"
      value: 0
    }
    axis: 2
  }
}
layer {
  name: "probs"
  type: "Softmax"
  bottom: "predict"
  top: "probs"
  softmax_param {
    axis: 2
  }
}
I0924 03:20:32.883743 22933 layer_factory.hpp:77] Creating layer input
I0924 03:20:32.883744 22929 layer_factory.hpp:77] Creating layer input
I0924 03:20:32.883785 22967 layer_factory.hpp:77] Creating layer input
I0924 03:20:32.883790 22933 net.cpp:91] Creating Layer input
I0924 03:20:32.883790 22929 net.cpp:91] Creating Layer input
I0924 03:20:32.883812 22935 layer_factory.hpp:77] Creating layer input
…
I0924 03:20:32.883965 22973 net.cpp:399] input -> input_sentence
I0924 03:20:32.883982 22973 net.cpp:399] input -> stage_indicator
I0924 03:20:32.883983 22939 net.cpp:399] input -> cont_sentence
I0924 03:20:32.884006 22939 net.cpp:399] input -> input_sentence
I0924 03:20:32.884024 22939 net.cpp:399] input -> stage_indicator
I0924 03:20:32.884311 22941 net.cpp:49] Initializing net from parameters: 
name: "CaffeNet"
state {
  phase: TEST
}
layer {
  name: "data"
  type: "Input"
  top: "data"
  input_param {
    shape {
      dim: 10
      dim: 3
      dim: 227
      dim: 227
    }
  }
}
layer {
  name: "conv1"
  type: "Convolution"
  bottom: "data"
  top: "conv1"
  convolution_param {
    num_output: 96
    kernel_size: 11
    stride: 4
  }
}
layer {
  name: "relu1"
  type: "ReLU"
  bottom: "conv1"
  top: "conv1"
}
layer {
  name: "pool1"
  type: "Pooling"
  bottom: "conv1"
  top: "pool1"
  pooling_param {
    pool: MAX
    kernel_size: 3
    stride: 2
  }
}
layer {
  name: "norm1"
  type: "LRN"
  bottom: "pool1"
  top: "norm1"
  lrn_param {
    local_size: 5
    alpha: 0.0001
    beta: 0.75
  }
}
layer {
  name: "conv2"
  type: "Convolution"
  bottom: "norm1"
  top: "conv2"
  convolution_param {
    num_output: 256
    pad: 2
    kernel_size: 5
    group: 2
  }
}
layer {
  name: "relu2"
  type: "ReLU"
  bottom: "conv2"
  top: "conv2"
}
layer {
  name: "pool2"
  type: "Pooling"
  bottom: "conv2"
  top: "pool2"
  pooling_param {
    pool: MAX
    kernel_size: 3
    stride: 2
  }
}
layer {
  name: "norm2"
  type: "LRN"
  bottom: "pool2"
  top: "norm2"
  lrn_param {
    local_size: 5
    alpha: 0.0001
    beta: 0.75
  }
}
layer {
  name: "conv3"
  type: "Convolution"
  bottom: "norm2"
  top: "conv3"
  convolution_param {
    num_output: 384
    pad: 1
    kernel_size: 3
  }
}
layer {
  name: "relu3"
  type: "ReLU"
  bottom: "conv3"
  top: "conv3"
}
layer {
  name: "conv4"
  type: "Convolution"
  bottom: "conv3"
  top: "conv4"
  convolution_param {
    num_output: 384
    pad: 1
    kernel_size: 3
    group: 2
  }
}
layer {
  name: "relu4"
  type: "ReLU"
  bottom: "conv4"
  top: "conv4"
}
layer {
  name: "conv5"
  type: "Convolution"
  bottom: "conv4"
  top: "conv5"
  convolution_param {
    num_output: 256
    pad: 1
    kernel_size: 3
    group: 2
  }
}
layer {
  name: "relu5"
  type: "ReLU"
  bottom: "conv5"
  top: "conv5"
}
layer {
  name: "pool5"
  type: "Pooling"
  bottom: "conv5"
  top: "pool5"
  pooling_param {
    pool: MAX
    kernel_size: 3
    stride: 2
  }
}
layer {
  name: "fc6"
  type: "InnerProduct"
  bottom: "pool5"
  top: "fc6"
  inner_product_param {
    num_output: 4096
  }
}
layer {
  name: "relu6"
  type: "ReLU"
  bottom: "fc6"
  top: "fc6"
}
layer {
  name: "drop6"
  type: "Dropout"
  bottom: "fc6"
  top: "fc6"
  dropout_param {
    dropout_ratio: 0.5
  }
}
layer {
  name: "fc7"
  type: "InnerProduct"
  bottom: "fc6"
  top: "fc7"
  inner_product_param {
    num_output: 4096
  }
}
layer {
  name: "relu7"
  type: "ReLU"
  bottom: "fc7"
  top: "fc7"
}
layer {
  name: "drop7"
  type: "Dropout"
  bottom: "fc7"
  top: "fc7"
  dropout_param {
    dropout_ratio: 0.5
  }
}
layer {
  name: "fc8"
  type: "InnerProduct"
  bottom: "fc7"
  top: "fc8"
  inner_product_param {
    num_output: 1000
  }
}
layer {
  name: "prob"
  type: "Softmax"
  bottom: "fc8"
  top: "prob"
}
I0924 03:20:32.884454 22941 layer_factory.hpp:77] Creating layer data
I0924 03:20:32.884472 22941 net.cpp:91] Creating Layer data
I0924 03:20:32.884482 22941 net.cpp:399] data -> data
I0924 03:20:32.883267 22947 upgrade_proto.cpp:66] Attempting to upgrade input file specified using deprecated input fields: /home/peifeng/work/run/storm102/data/workers/d323d0c6-0fdb-4724-9552-df381cd8db70/tmp/cvld7198637892031231290/s2vt.words_to_preds.prototxt
I0924 03:20:32.884521 22947 upgrade_proto.cpp:69] Successfully upgraded file specified using deprecated input fields.
W0924 03:20:32.884531 22947 upgrade_proto.cpp:71] Note that future Caffe releases will only support input layers and not input fields.
I0924 03:20:32.884825 22947 net.cpp:49] Initializing net from parameters: 
name: "s2vt:features_to_lstm"
state {
  phase: TEST
}
layer {
  name: "input"
  type: "Input"
  top: "frames_fc7"
  top: "cont_sentence"
  top: "input_sentence"
  top: "stage_indicator"
  input_param {
    shape {
      dim: 1
      dim: 4096
    }
    shape {
      dim: 1
      dim: 1
    }
    shape {
      dim: 1
      dim: 1
    }
    shape {
      dim: 1
      dim: 1
    }
  }
}
layer {
  name: "embed_encoder"
  type: "InnerProduct"
  bottom: "frames_fc7"
  top: "embedded_in_frames"
  param {
    lr_mult: 1
    decay_mult: 1
  }
  param {
    lr_mult: 2
    decay_mult: 0
  }
  inner_product_param {
    num_output: 500
    weight_filler {
      type: "xavier"
    }
    bias_filler {
      type: "constant"
      value: 0.2
    }
  }
}
layer {
  name: "reshape_frames"
  type: "Reshape"
  bottom: "embedded_in_frames"
  top: "embedded_input_frames"
  reshape_param {
    shape {
      dim: 1
      dim: 1
      dim: 500
    }
  }
}
layer {
  name: "reshape_stage_indicator"
  type: "Reshape"
  bottom: "stage_indicator"
  top: "reshaped_stage_indicator"
  reshape_param {
    shape {
      dim: 1
      dim: 1
      dim: 1
    }
  }
}
layer {
  name: "embedding"
  type: "Embed"
  bottom: "input_sentence"
  top: "embedded_input_sentence"
  param {
    lr_mult: 1
  }
  embed_param {
    num_output: 500
    input_dim: 46168
    bias_term: false
    weight_filler {
      type: "uniform"
      min: -0.08
      max: 0.08
    }
  }
}
layer {
  name: "lstm1"
  type: "LSTM"
  bottom: "embedded_input_frames"
  bottom: "cont_sentence"
  top: "lstm1"
  recurrent_param {
    num_output: 1000
    weight_filler {
      type: "uniform"
      min: -0.08
      max: 0.08
    }
    bias_filler {
      type: "constant"
      value: 0
    }
  }
}
layer {
  name: "concat"
  type: "Concat"
  bottom: "lstm1"
  bottom: "embedded_input_sentence"
  bottom: "reshaped_stage_indicator"
  top: "lstm1_video_sequence"
  concat_param {
    concat_dim: 2
  }
}
layer {
  name: "lstm2"
  type: "LSTM"
  bottom: "lstm1_video_sequence"
  bottom: "cont_sentence"
  top: "lstm2"
  recurrent_param {
    num_output: 1000
    weight_filler {
      type: "uniform"
      min: -0.08
      max: 0.08
    }
    bias_filler {
      type: "constant"
      value: 0
    }
  }
}
layer {
  name: "predict"
  type: "InnerProduct"
  bottom: "lstm2"
  top: "predict"
  param {
    lr_mult: 1
    decay_mult: 1
  }
  param {
    lr_mult: 2
    decay_mult: 0
  }
  inner_product_param {
    num_output: 46168
    weight_filler {
      type: "uniform"
      min: -0.08
      max: 0.08
    }
    bias_filler {
      type: "constant"
      value: 0
    }
    axis: 2
  }
}
layer {
  name: "probs"
  type: "Softmax"
  bottom: "predict"
  top: "probs"
  softmax_param {
    axis: 2
  }
}
I0924 03:20:32.884943 22947 layer_factory.hpp:77] Creating layer input
I0924 03:20:32.884960 22947 net.cpp:91] Creating Layer input
I0924 03:20:32.884974 22947 net.cpp:399] input -> frames_fc7
I0924 03:20:32.884991 22947 net.cpp:399] input -> cont_sentence
I0924 03:20:32.885010 22947 net.cpp:399] input -> input_sentence
I0924 03:20:32.885026 22947 net.cpp:399] input -> stage_indicator
I0924 03:20:33.658675 22941 net.cpp:141] Setting up data
I0924 03:20:33.658789 22941 net.cpp:148] Top shape: 10 3 227 227 (1545870)
I0924 03:20:33.658804 22941 net.cpp:156] Memory required for data: 6183480
I0924 03:20:33.658845 22941 layer_factory.hpp:77] Creating layer conv1
I0924 03:20:33.658854 22929 net.cpp:141] Setting up input
I0924 03:20:33.658900 22929 net.cpp:148] Top shape: 1 4096 (4096)
I0924 03:20:33.658910 22929 net.cpp:148] Top shape: 1 1 (1)
I0924 03:20:33.658915 22929 net.cpp:148] Top shape: 1 1 (1)
I0924 03:20:33.658923 22929 net.cpp:148] Top shape: 1 1 (1)
I0924 03:20:33.658924 22941 net.cpp:91] Creating Layer conv1
I0924 03:20:33.658928 22929 net.cpp:156] Memory required for data: 16396
I0924 03:20:33.658951 22941 net.cpp:425] conv1 <- data
I0924 03:20:33.658957 22929 layer_factory.hpp:77] Creating layer cont_sentence_input_1_split
I0924 03:20:33.658977 22941 net.cpp:399] conv1 -> conv1
I0924 03:20:33.658988 22929 net.cpp:91] Creating Layer cont_sentence_input_1_split
I0924 03:20:33.658998 22929 net.cpp:425] cont_sentence_input_1_split <- cont_sentence
I0924 03:20:33.659035 22929 net.cpp:399] cont_sentence_input_1_split -> cont_sentence_input_1_split_0
I0924 03:20:33.659054 22929 net.cpp:399] cont_sentence_input_1_split -> cont_sentence_input_1_split_1
I0924 03:20:33.662150 22939 net.cpp:141] Setting up input
I0924 03:20:33.662204 22939 net.cpp:148] Top shape: 1 4096 (4096)
I0924 03:20:33.662220 22939 net.cpp:148] Top shape: 1 1 (1)
I0924 03:20:33.662231 22939 net.cpp:148] Top shape: 1 1 (1)
I0924 03:20:33.662243 22939 net.cpp:148] Top shape: 1 1 (1)
I0924 03:20:33.662251 22939 net.cpp:156] Memory required for data: 16396
I0924 03:20:33.662264 22939 layer_factory.hpp:77] Creating layer cont_sentence_input_1_split
I0924 03:20:33.662289 22939 net.cpp:91] Creating Layer cont_sentence_input_1_split
I0924 03:20:33.662300 22939 net.cpp:425] cont_sentence_input_1_split <- cont_sentence
I0924 03:20:33.662317 22939 net.cpp:399] cont_sentence_input_1_split -> cont_sentence_input_1_split_0
I0924 03:20:33.662340 22939 net.cpp:399] cont_sentence_input_1_split -> cont_sentence_input_1_split_1
I0924 03:20:33.662417 22929 net.cpp:141] Setting up cont_sentence_input_1_split
I0924 03:20:33.662454 22929 net.cpp:148] Top shape: 1 1 (1)
I0924 03:20:33.662461 22929 net.cpp:148] Top shape: 1 1 (1)
I0924 03:20:33.662466 22929 net.cpp:156] Memory required for data: 16404
I0924 03:20:33.662473 22929 layer_factory.hpp:77] Creating layer embed_encoder
I0924 03:20:33.662588 22929 net.cpp:91] Creating Layer embed_encoder
I0924 03:20:33.662612 22929 net.cpp:425] embed_encoder <- frames_fc7
I0924 03:20:33.662627 22929 net.cpp:399] embed_encoder -> embedded_in_frames
I0924 03:20:33.666952 22933 net.cpp:141] Setting up input
I0924 03:20:33.666997 22933 net.cpp:148] Top shape: 1 4096 (4096)
I0924 03:20:33.667012 22933 net.cpp:148] Top shape: 1 1 (1)
I0924 03:20:33.667024 22933 net.cpp:148] Top shape: 1 1 (1)
I0924 03:20:33.667035 22933 net.cpp:148] Top shape: 1 1 (1)
I0924 03:20:33.667026 22973 net.cpp:141] Setting up input
I0924 03:20:33.667043 22933 net.cpp:156] Memory required for data: 16396
I0924 03:20:33.667079 22933 layer_factory.hpp:77] Creating layer cont_sentence_input_1_split
I0924 03:20:33.667083 22973 net.cpp:148] Top shape: 1 4096 (4096)
I0924 03:20:33.667103 22933 net.cpp:91] Creating Layer cont_sentence_input_1_split
I0924 03:20:33.667104 22973 net.cpp:148] Top shape: 1 1 (1)
I0924 03:20:33.667114 22933 net.cpp:425] cont_sentence_input_1_split <- cont_sentence
I0924 03:20:33.667125 22973 net.cpp:148] Top shape: 1 1 (1)
I0924 03:20:33.667130 22933 net.cpp:399] cont_sentence_input_1_split -> cont_sentence_input_1_split_0
I0924 03:20:33.667142 22973 net.cpp:148] Top shape: 1 1 (1)
I0924 03:20:33.667151 22933 net.cpp:399] cont_sentence_input_1_split -> cont_sentence_input_1_split_1
I0924 03:20:33.667153 22973 net.cpp:156] Memory required for data: 16396
I0924 03:20:33.667168 22973 layer_factory.hpp:77] Creating layer cont_sentence_input_1_split
I0924 03:20:33.667194 22973 net.cpp:91] Creating Layer cont_sentence_input_1_split
I0924 03:20:33.667212 22973 net.cpp:425] cont_sentence_input_1_split <- cont_sentence
I0924 03:20:33.667232 22973 net.cpp:399] cont_sentence_input_1_split -> cont_sentence_input_1_split_0
I0924 03:20:33.667260 22973 net.cpp:399] cont_sentence_input_1_split -> cont_sentence_input_1_split_1
I0924 03:20:33.667299 22947 net.cpp:141] Setting up input
I0924 03:20:33.667342 22947 net.cpp:148] Top shape: 1 4096 (4096)
I0924 03:20:33.667356 22947 net.cpp:148] Top shape: 1 1 (1)
I0924 03:20:33.667364 22947 net.cpp:148] Top shape: 1 1 (1)
I0924 03:20:33.667376 22947 net.cpp:148] Top shape: 1 1 (1)
I0924 03:20:33.667384 22947 net.cpp:156] Memory required for data: 16396
I0924 03:20:33.667397 22947 layer_factory.hpp:77] Creating layer cont_sentence_input_1_split
I0924 03:20:33.667423 22947 net.cpp:91] Creating Layer cont_sentence_input_1_split
I0924 03:20:33.667435 22947 net.cpp:425] cont_sentence_input_1_split <- cont_sentence
I0924 03:20:33.667454 22947 net.cpp:399] cont_sentence_input_1_split -> cont_sentence_input_1_split_0
I0924 03:20:33.667475 22947 net.cpp:399] cont_sentence_input_1_split -> cont_sentence_input_1_split_1
I0924 03:20:33.674582 22973 net.cpp:141] Setting up cont_sentence_input_1_split
I0924 03:20:33.674654 22973 net.cpp:148] Top shape: 1 1 (1)
I0924 03:20:33.674665 22973 net.cpp:148] Top shape: 1 1 (1)
I0924 03:20:33.674672 22973 net.cpp:156] Memory required for data: 16404
I0924 03:20:33.674685 22973 layer_factory.hpp:77] Creating layer embed_encoder
I0924 03:20:33.674718 22973 net.cpp:91] Creating Layer embed_encoder
I0924 03:20:33.674728 22973 net.cpp:425] embed_encoder <- frames_fc7
I0924 03:20:33.674746 22973 net.cpp:399] embed_encoder -> embedded_in_frames
I0924 03:20:33.680168 22939 net.cpp:141] Setting up cont_sentence_input_1_split
I0924 03:20:33.680243 22939 net.cpp:148] Top shape: 1 1 (1)
I0924 03:20:33.680246 22967 net.cpp:141] Setting up input
I0924 03:20:33.680261 22939 net.cpp:148] Top shape: 1 1 (1)
I0924 03:20:33.680270 22967 net.cpp:148] Top shape: 1 4096 (4096)
I0924 03:20:33.680274 22939 net.cpp:156] Memory required for data: 16404
I0924 03:20:33.680287 22967 net.cpp:148] Top shape: 1 1 (1)
I0924 03:20:33.680291 22939 layer_factory.hpp:77] Creating layer embed_encoder
I0924 03:20:33.680300 22967 net.cpp:148] Top shape: 1 1 (1)
I0924 03:20:33.680312 22967 net.cpp:148] Top shape: 1 1 (1)
I0924 03:20:33.680321 22967 net.cpp:156] Memory required for data: 16396
I0924 03:20:33.680332 22967 layer_factory.hpp:77] Creating layer cont_sentence_input_1_split
I0924 03:20:33.680333 22939 net.cpp:91] Creating Layer embed_encoder
I0924 03:20:33.680349 22967 net.cpp:91] Creating Layer cont_sentence_input_1_split
I0924 03:20:33.680351 22939 net.cpp:425] embed_encoder <- frames_fc7
I0924 03:20:33.680341 22935 net.cpp:141] Setting up input
I0924 03:20:33.680361 22967 net.cpp:425] cont_sentence_input_1_split <- cont_sentence
I0924 03:20:33.680382 22947 net.cpp:141] Setting up cont_sentence_input_1_split
I0924 03:20:33.680392 22935 net.cpp:148] Top shape: 1 4096 (4096)
I0924 03:20:33.680378 22939 net.cpp:399] embed_encoder -> embedded_in_frames
I0924 03:20:33.680418 22935 net.cpp:148] Top shape: 1 1 (1)
I0924 03:20:33.680419 22947 net.cpp:148] Top shape: 1 1 (1)
I0924 03:20:33.680424 22967 net.cpp:399] cont_sentence_input_1_split -> cont_sentence_input_1_split_0
I0924 03:20:33.680436 22947 net.cpp:148] Top shape: 1 1 (1)
I0924 03:20:33.680446 22947 net.cpp:156] Memory required for data: 16404
I0924 03:20:33.680430 22935 net.cpp:148] Top shape: 1 1 (1)
I0924 03:20:33.680455 22947 layer_factory.hpp:77] Creating layer embed_encoder
I0924 03:20:33.680465 22935 net.cpp:148] Top shape: 1 1 (1)
I0924 03:20:33.680467 22967 net.cpp:399] cont_sentence_input_1_split -> cont_sentence_input_1_split_1
I0924 03:20:33.680474 22935 net.cpp:156] Memory required for data: 16396
I0924 03:20:33.680480 22947 net.cpp:91] Creating Layer embed_encoder
I0924 03:20:33.680490 22935 layer_factory.hpp:77] Creating layer cont_sentence_input_1_split
I0924 03:20:33.680492 22947 net.cpp:425] embed_encoder <- frames_fc7
I0924 03:20:33.680513 22947 net.cpp:399] embed_encoder -> embedded_in_frames
I0924 03:20:33.680517 22935 net.cpp:91] Creating Layer cont_sentence_input_1_split
I0924 03:20:33.680531 22935 net.cpp:425] cont_sentence_input_1_split <- cont_sentence
I0924 03:20:33.680547 22935 net.cpp:399] cont_sentence_input_1_split -> cont_sentence_input_1_split_0
I0924 03:20:33.680568 22935 net.cpp:399] cont_sentence_input_1_split -> cont_sentence_input_1_split_1
I0924 03:20:33.685988 22933 net.cpp:141] Setting up cont_sentence_input_1_split
I0924 03:20:33.686022 22967 net.cpp:141] Setting up cont_sentence_input_1_split
I0924 03:20:33.686041 22933 net.cpp:148] Top shape: 1 1 (1)
I0924 03:20:33.686046 22967 net.cpp:148] Top shape: 1 1 (1)
I0924 03:20:33.686054 22933 net.cpp:148] Top shape: 1 1 (1)
I0924 03:20:33.686060 22967 net.cpp:148] Top shape: 1 1 (1)
I0924 03:20:33.686063 22933 net.cpp:156] Memory required for data: 16404
I0924 03:20:33.686080 22967 net.cpp:156] Memory required for data: 16404
I0924 03:20:33.686094 22967 layer_factory.hpp:77] Creating layer embed_encoder
I0924 03:20:33.686096 22933 layer_factory.hpp:77] Creating layer embed_encoder
I0924 03:20:33.686125 22933 net.cpp:91] Creating Layer embed_encoder
I0924 03:20:33.686130 22967 net.cpp:91] Creating Layer embed_encoder
I0924 03:20:33.686138 22933 net.cpp:425] embed_encoder <- frames_fc7
I0924 03:20:33.686143 22967 net.cpp:425] embed_encoder <- frames_fc7
I0924 03:20:33.686156 22933 net.cpp:399] embed_encoder -> embedded_in_frames
I0924 03:20:33.686162 22967 net.cpp:399] embed_encoder -> embedded_in_frames
I0924 03:20:33.691660 22935 net.cpp:141] Setting up cont_sentence_input_1_split
I0924 03:20:33.691738 22935 net.cpp:148] Top shape: 1 1 (1)
I0924 03:20:33.691756 22935 net.cpp:148] Top shape: 1 1 (1)
I0924 03:20:33.691763 22935 net.cpp:156] Memory required for data: 16404
I0924 03:20:33.691777 22935 layer_factory.hpp:77] Creating layer embed_encoder
I0924 03:20:33.691839 22935 net.cpp:91] Creating Layer embed_encoder
I0924 03:20:33.691854 22935 net.cpp:425] embed_encoder <- frames_fc7
I0924 03:20:33.691876 22935 net.cpp:399] embed_encoder -> embedded_in_frames
I0924 03:20:33.711343 22929 net.cpp:141] Setting up embed_encoder
I0924 03:20:33.711366 22973 net.cpp:141] Setting up embed_encoder
I0924 03:20:33.711397 22973 net.cpp:148] Top shape: 1 500 (500)
I0924 03:20:33.711397 22929 net.cpp:148] Top shape: 1 500 (500)
I0924 03:20:33.711415 22973 net.cpp:156] Memory required for data: 18404
I0924 03:20:33.711417 22929 net.cpp:156] Memory required for data: 18404
I0924 03:20:33.711446 22929 layer_factory.hpp:77] Creating layer reshape_frames
I0924 03:20:33.711446 22973 layer_factory.hpp:77] Creating layer reshape_frames
I0924 03:20:33.711510 22973 net.cpp:91] Creating Layer reshape_frames
I0924 03:20:33.711515 22929 net.cpp:91] Creating Layer reshape_frames
I0924 03:20:33.711527 22973 net.cpp:425] reshape_frames <- embedded_in_frames
I0924 03:20:33.711529 22929 net.cpp:425] reshape_frames <- embedded_in_frames
I0924 03:20:33.711558 22973 net.cpp:399] reshape_frames -> embedded_input_frames
I0924 03:20:33.711563 22929 net.cpp:399] reshape_frames -> embedded_input_frames
I0924 03:20:33.715811 22929 net.cpp:141] Setting up reshape_frames
I0924 03:20:33.715840 22929 net.cpp:148] Top shape: 1 1 500 (500)
I0924 03:20:33.715847 22929 net.cpp:156] Memory required for data: 20404
I0924 03:20:33.715852 22973 net.cpp:141] Setting up reshape_frames
I0924 03:20:33.715859 22929 layer_factory.hpp:77] Creating layer reshape_stage_indicator
I0924 03:20:33.715881 22973 net.cpp:148] Top shape: 1 1 500 (500)
I0924 03:20:33.715891 22973 net.cpp:156] Memory required for data: 20404
I0924 03:20:33.715899 22973 layer_factory.hpp:77] Creating layer reshape_stage_indicator
I0924 03:20:33.715909 22929 net.cpp:91] Creating Layer reshape_stage_indicator
I0924 03:20:33.715916 22973 net.cpp:91] Creating Layer reshape_stage_indicator
I0924 03:20:33.715925 22929 net.cpp:425] reshape_stage_indicator <- stage_indicator
I0924 03:20:33.715925 22973 net.cpp:425] reshape_stage_indicator <- stage_indicator
I0924 03:20:33.715950 22973 net.cpp:399] reshape_stage_indicator -> reshaped_stage_indicator
I0924 03:20:33.715960 22929 net.cpp:399] reshape_stage_indicator -> reshaped_stage_indicator
I0924 03:20:33.716047 22973 net.cpp:141] Setting up reshape_stage_indicator
I0924 03:20:33.716065 22973 net.cpp:148] Top shape: 1 1 1 (1)
I0924 03:20:33.716073 22973 net.cpp:156] Memory required for data: 20408
I0924 03:20:33.716080 22973 layer_factory.hpp:77] Creating layer embedding
I0924 03:20:33.716097 22973 net.cpp:91] Creating Layer embedding
I0924 03:20:33.716106 22973 net.cpp:425] embedding <- input_sentence
I0924 03:20:33.716120 22973 net.cpp:399] embedding -> embedded_input_sentence
I0924 03:20:33.716192 22939 net.cpp:141] Setting up embed_encoder
I0924 03:20:33.716233 22939 net.cpp:148] Top shape: 1 500 (500)
I0924 03:20:33.716243 22939 net.cpp:156] Memory required for data: 18404
I0924 03:20:33.716269 22939 layer_factory.hpp:77] Creating layer reshape_frames
I0924 03:20:33.716295 22939 net.cpp:91] Creating Layer reshape_frames
I0924 03:20:33.716305 22939 net.cpp:425] reshape_frames <- embedded_in_frames
I0924 03:20:33.716320 22939 net.cpp:399] reshape_frames -> embedded_input_frames
I0924 03:20:33.716670 22939 net.cpp:141] Setting up reshape_frames
I0924 03:20:33.716686 22939 net.cpp:148] Top shape: 1 1 500 (500)
I0924 03:20:33.716693 22939 net.cpp:156] Memory required for data: 20404
I0924 03:20:33.716701 22939 layer_factory.hpp:77] Creating layer reshape_stage_indicator
I0924 03:20:33.716717 22939 net.cpp:91] Creating Layer reshape_stage_indicator
I0924 03:20:33.716724 22939 net.cpp:425] reshape_stage_indicator <- stage_indicator
I0924 03:20:33.716739 22939 net.cpp:399] reshape_stage_indicator -> reshaped_stage_indicator
I0924 03:20:33.758649 22939 net.cpp:141] Setting up reshape_stage_indicator
I0924 03:20:33.758715 22939 net.cpp:148] Top shape: 1 1 1 (1)
I0924 03:20:33.758726 22939 net.cpp:156] Memory required for data: 20408
I0924 03:20:33.758741 22939 layer_factory.hpp:77] Creating layer embedding
I0924 03:20:33.758771 22939 net.cpp:91] Creating Layer embedding
I0924 03:20:33.758783 22939 net.cpp:425] embedding <- input_sentence
I0924 03:20:33.758810 22939 net.cpp:399] embedding -> embedded_input_sentence
I0924 03:20:33.759162 22929 net.cpp:141] Setting up reshape_stage_indicator
I0924 03:20:33.759207 22929 net.cpp:148] Top shape: 1 1 1 (1)
I0924 03:20:33.759212 22929 net.cpp:156] Memory required for data: 20408
I0924 03:20:33.759222 22929 layer_factory.hpp:77] Creating layer embedding
I0924 03:20:33.759243 22929 net.cpp:91] Creating Layer embedding
I0924 03:20:33.759251 22929 net.cpp:425] embedding <- input_sentence
I0924 03:20:33.759265 22929 net.cpp:399] embedding -> embedded_input_sentence
I0924 03:20:33.859146 22967 net.cpp:141] Setting up embed_encoder
I0924 03:20:33.859205 22967 net.cpp:148] Top shape: 1 500 (500)
I0924 03:20:33.859215 22967 net.cpp:156] Memory required for data: 18404
I0924 03:20:33.859247 22967 layer_factory.hpp:77] Creating layer reshape_frames
I0924 03:20:33.859278 22967 net.cpp:91] Creating Layer reshape_frames
I0924 03:20:33.859292 22967 net.cpp:425] reshape_frames <- embedded_in_frames
I0924 03:20:33.859313 22967 net.cpp:399] reshape_frames -> embedded_input_frames
I0924 03:20:33.859380 22967 net.cpp:141] Setting up reshape_frames
I0924 03:20:33.859395 22967 net.cpp:148] Top shape: 1 1 500 (500)
I0924 03:20:33.859402 22967 net.cpp:156] Memory required for data: 20404
I0924 03:20:33.859411 22967 layer_factory.hpp:77] Creating layer reshape_stage_indicator
I0924 03:20:33.859426 22967 net.cpp:91] Creating Layer reshape_stage_indicator
I0924 03:20:33.859436 22967 net.cpp:425] reshape_stage_indicator <- stage_indicator
I0924 03:20:33.859449 22967 net.cpp:399] reshape_stage_indicator -> reshaped_stage_indicator
I0924 03:20:33.859519 22967 net.cpp:141] Setting up reshape_stage_indicator
I0924 03:20:33.859535 22967 net.cpp:148] Top shape: 1 1 1 (1)
I0924 03:20:33.859544 22967 net.cpp:156] Memory required for data: 20408
I0924 03:20:33.859552 22967 layer_factory.hpp:77] Creating layer embedding
I0924 03:20:33.859573 22967 net.cpp:91] Creating Layer embedding
I0924 03:20:33.859582 22967 net.cpp:425] embedding <- input_sentence
I0924 03:20:33.859596 22967 net.cpp:399] embedding -> embedded_input_sentence
I0924 03:20:33.908023 22935 net.cpp:141] Setting up embed_encoder
I0924 03:20:33.908078 22935 net.cpp:148] Top shape: 1 500 (500)
I0924 03:20:33.908088 22935 net.cpp:156] Memory required for data: 18404
I0924 03:20:33.908123 22935 layer_factory.hpp:77] Creating layer reshape_frames
I0924 03:20:33.908154 22935 net.cpp:91] Creating Layer reshape_frames
I0924 03:20:33.908160 22933 net.cpp:141] Setting up embed_encoder
I0924 03:20:33.908218 22947 net.cpp:141] Setting up embed_encoder
I0924 03:20:33.908228 22933 net.cpp:148] Top shape: 1 500 (500)
I0924 03:20:33.908236 22947 net.cpp:148] Top shape: 1 500 (500)
I0924 03:20:33.908255 22947 net.cpp:156] Memory required for data: 18404
I0924 03:20:33.908257 22933 net.cpp:156] Memory required for data: 18404
I0924 03:20:33.908284 22947 layer_factory.hpp:77] Creating layer reshape_frames
I0924 03:20:33.908298 22933 layer_factory.hpp:77] Creating layer reshape_frames
I0924 03:20:33.908308 22947 net.cpp:91] Creating Layer reshape_frames
I0924 03:20:33.908329 22947 net.cpp:425] reshape_frames <- embedded_in_frames
I0924 03:20:33.908336 22933 net.cpp:91] Creating Layer reshape_frames
I0924 03:20:33.908344 22947 net.cpp:399] reshape_frames -> embedded_input_frames
I0924 03:20:33.908363 22933 net.cpp:425] reshape_frames <- embedded_in_frames
I0924 03:20:33.908390 22933 net.cpp:399] reshape_frames -> embedded_input_frames
I0924 03:20:33.908551 22947 net.cpp:141] Setting up reshape_frames
I0924 03:20:33.908565 22947 net.cpp:148] Top shape: 1 1 500 (500)
I0924 03:20:33.908570 22947 net.cpp:156] Memory required for data: 20404
I0924 03:20:33.908576 22947 layer_factory.hpp:77] Creating layer reshape_stage_indicator
I0924 03:20:33.908586 22947 net.cpp:91] Creating Layer reshape_stage_indicator
I0924 03:20:33.908591 22947 net.cpp:425] reshape_stage_indicator <- stage_indicator
I0924 03:20:33.908603 22947 net.cpp:399] reshape_stage_indicator -> reshaped_stage_indicator
I0924 03:20:33.908629 22933 net.cpp:141] Setting up reshape_frames
I0924 03:20:33.908656 22947 net.cpp:141] Setting up reshape_stage_indicator
I0924 03:20:33.908658 22933 net.cpp:148] Top shape: 1 1 500 (500)
I0924 03:20:33.908668 22947 net.cpp:148] Top shape: 1 1 1 (1)
I0924 03:20:33.908674 22947 net.cpp:156] Memory required for data: 20408
I0924 03:20:33.908675 22933 net.cpp:156] Memory required for data: 20404
I0924 03:20:33.908679 22947 layer_factory.hpp:77] Creating layer embedding
I0924 03:20:33.908702 22933 layer_factory.hpp:77] Creating layer reshape_stage_indicator
I0924 03:20:33.908710 22947 net.cpp:91] Creating Layer embedding
I0924 03:20:33.908716 22947 net.cpp:425] embedding <- input_sentence
I0924 03:20:33.908727 22947 net.cpp:399] embedding -> embedded_input_sentence
I0924 03:20:33.908730 22933 net.cpp:91] Creating Layer reshape_stage_indicator
I0924 03:20:33.908748 22933 net.cpp:425] reshape_stage_indicator <- stage_indicator
I0924 03:20:33.908772 22933 net.cpp:399] reshape_stage_indicator -> reshaped_stage_indicator
I0924 03:20:33.908165 22935 net.cpp:425] reshape_frames <- embedded_in_frames
I0924 03:20:33.909816 22935 net.cpp:399] reshape_frames -> embedded_input_frames
I0924 03:20:33.910342 22933 net.cpp:141] Setting up reshape_stage_indicator
I0924 03:20:33.910398 22933 net.cpp:148] Top shape: 1 1 1 (1)
I0924 03:20:33.910416 22933 net.cpp:156] Memory required for data: 20408
I0924 03:20:33.910434 22933 layer_factory.hpp:77] Creating layer embedding
I0924 03:20:33.910465 22933 net.cpp:91] Creating Layer embedding
I0924 03:20:33.910485 22933 net.cpp:425] embedding <- input_sentence
I0924 03:20:33.910513 22933 net.cpp:399] embedding -> embedded_input_sentence
I0924 03:20:33.910590 22935 net.cpp:141] Setting up reshape_frames
I0924 03:20:33.910625 22935 net.cpp:148] Top shape: 1 1 500 (500)
I0924 03:20:33.910634 22935 net.cpp:156] Memory required for data: 20404
I0924 03:20:33.910642 22935 layer_factory.hpp:77] Creating layer reshape_stage_indicator
I0924 03:20:33.910657 22935 net.cpp:91] Creating Layer reshape_stage_indicator
I0924 03:20:33.910667 22935 net.cpp:425] reshape_stage_indicator <- stage_indicator
I0924 03:20:33.910688 22935 net.cpp:399] reshape_stage_indicator -> reshaped_stage_indicator
I0924 03:20:33.979027 22973 net.cpp:141] Setting up embedding
I0924 03:20:33.979027 22935 net.cpp:141] Setting up reshape_stage_indicator
I0924 03:20:33.979104 22973 net.cpp:148] Top shape: 1 1 500 (500)
I0924 03:20:33.979111 22973 net.cpp:156] Memory required for data: 22408
I0924 03:20:33.979116 22935 net.cpp:148] Top shape: 1 1 1 (1)
I0924 03:20:33.979130 22935 net.cpp:156] Memory required for data: 20408
I0924 03:20:33.979133 22973 layer_factory.hpp:77] Creating layer lstm1
I0924 03:20:33.979154 22935 layer_factory.hpp:77] Creating layer embedding
I0924 03:20:33.979169 22973 net.cpp:91] Creating Layer lstm1
I0924 03:20:33.979182 22973 net.cpp:425] lstm1 <- embedded_input_frames
I0924 03:20:33.979185 22935 net.cpp:91] Creating Layer embedding
I0924 03:20:33.979190 22973 net.cpp:425] lstm1 <- cont_sentence_input_1_split_0
I0924 03:20:33.979209 22935 net.cpp:425] embedding <- input_sentence
I0924 03:20:33.979215 22973 net.cpp:399] lstm1 -> lstm1
I0924 03:20:33.979233 22935 net.cpp:399] embedding -> embedded_input_sentence
I0924 03:20:33.979266 22973 recurrent_layer.cpp:20] Initializing recurrent layer: assuming input batch contains 1 timesteps of 1 independent streams.
I0924 03:20:33.979691 22973 net.cpp:49] Initializing net from parameters: 
layer {
  name: "lstm1_"
  type: "Input"
  top: "x"
  top: "cont"
  input_param {
    shape {
      dim: 1
      dim: 1
      dim: 500
    }
    shape {
      dim: 1
      dim: 1
    }
  }
}
layer {
  name: "lstm1_"
  type: "Input"
  top: "c_0"
  top: "h_0"
  input_param {
    shape {
      dim: 1
      dim: 1
      dim: 1000
    }
    shape {
      dim: 1
      dim: 1
      dim: 1000
    }
  }
}
layer {
  name: "lstm1_cont_slice"
  type: "Slice"
  bottom: "cont"
  top: "cont_1"
  slice_param {
    axis: 0
  }
}
layer {
  name: "lstm1_x_transform"
  type: "InnerProduct"
  bottom: "x"
  top: "W_xc_x"
  param {
    name: "W_xc"
  }
  param {
    name: "b_c"
  }
  propagate_down: true
  inner_product_param {
    num_output: 4000
    bias_term: true
    weight_filler {
      type: "uniform"
      min: -0.08
      max: 0.08
    }
    bias_filler {
      type: "constant"
      value: 0
    }
    axis: 2
  }
}
layer {
  name: "lstm1_W_xc_x_slice"
  type: "Slice"
  bottom: "W_xc_x"
  top: "W_xc_x_1"
  slice_param {
    axis: 0
  }
}
layer {
  name: "lstm1_h_conted_0"
  type: "Scale"
  bottom: "h_0"
  bottom: "cont_1"
  top: "h_conted_0"
  scale_param {
    axis: 0
  }
}
layer {
  name: "lstm1_transform_1"
  type: "InnerProduct"
  bottom: "h_conted_0"
  top: "W_hc_h_0"
  param {
    name: "W_hc"
  }
  inner_product_param {
    num_output: 4000
    bias_term: false
    weight_filler {
      type: "uniform"
      min: -0.08
      max: 0.08
    }
    axis: 2
  }
}
layer {
  name: "lstm1_gate_input_1"
  type: "Eltwise"
  bottom: "W_hc_h_0"
  bottom: "W_xc_x_1"
  top: "gate_input_1"
  eltwise_param {
    operation: SUM
  }
}
layer {
  name: "lstm1_unit_1"
  type: "LSTMUnit"
  bottom: "c_0"
  bottom: "gate_input_1"
  bottom: "cont_1"
  top: "c_1"
  top: "h_1"
}
layer {
  name: "lstm1_"
  type: "Split"
  bottom: "c_1"
  top: "c_T"
}
layer {
  name: "lstm1_h_concat"
  type: "Concat"
  bottom: "h_1"
  top: "h"
  concat_param {
    axis: 0
  }
}
layer {
  name: "h_pseudoloss"
  type: "Reduction"
  bottom: "h"
  top: "h_pseudoloss"
  loss_weight: 1
}
I0924 03:20:33.979790 22973 layer_factory.hpp:77] Creating layer lstm1_
I0924 03:20:33.979807 22973 net.cpp:91] Creating Layer lstm1_
I0924 03:20:33.979815 22973 net.cpp:399] lstm1_ -> x
I0924 03:20:33.979830 22973 net.cpp:399] lstm1_ -> cont
I0924 03:20:33.981333 22973 net.cpp:141] Setting up lstm1_
I0924 03:20:33.981354 22973 net.cpp:148] Top shape: 1 1 500 (500)
I0924 03:20:33.981364 22973 net.cpp:148] Top shape: 1 1 (1)
I0924 03:20:33.981371 22973 net.cpp:156] Memory required for data: 2004
I0924 03:20:33.981379 22973 layer_factory.hpp:77] Creating layer lstm1_
I0924 03:20:33.981407 22973 net.cpp:91] Creating Layer lstm1_
I0924 03:20:33.981420 22973 net.cpp:399] lstm1_ -> c_0
I0924 03:20:33.981436 22973 net.cpp:399] lstm1_ -> h_0
I0924 03:20:34.079815 22929 net.cpp:141] Setting up embedding
I0924 03:20:34.079915 22929 net.cpp:148] Top shape: 1 1 500 (500)
I0924 03:20:34.079926 22929 net.cpp:156] Memory required for data: 22408
I0924 03:20:34.079960 22929 layer_factory.hpp:77] Creating layer lstm1
I0924 03:20:34.079995 22929 net.cpp:91] Creating Layer lstm1
I0924 03:20:34.080010 22929 net.cpp:425] lstm1 <- embedded_input_frames
I0924 03:20:34.080024 22929 net.cpp:425] lstm1 <- cont_sentence_input_1_split_0
I0924 03:20:34.080046 22929 net.cpp:399] lstm1 -> lstm1
I0924 03:20:34.080078 22929 recurrent_layer.cpp:20] Initializing recurrent layer: assuming input batch contains 1 timesteps of 1 independent streams.
I0924 03:20:34.080581 22929 net.cpp:49] Initializing net from parameters: 
layer {
  name: "lstm1_"
  type: "Input"
  top: "x"
  top: "cont"
  input_param {
    shape {
      dim: 1
      dim: 1
      dim: 500
    }
    shape {
      dim: 1
      dim: 1
    }
  }
}
layer {
  name: "lstm1_"
  type: "Input"
  top: "c_0"
  top: "h_0"
  input_param {
    shape {
      dim: 1
      dim: 1
      dim: 1000
    }
    shape {
      dim: 1
      dim: 1
      dim: 1000
    }
  }
}
layer {
  name: "lstm1_cont_slice"
  type: "Slice"
  bottom: "cont"
  top: "cont_1"
  slice_param {
    axis: 0
  }
}
layer {
  name: "lstm1_x_transform"
  type: "InnerProduct"
  bottom: "x"
  top: "W_xc_x"
  param {
    name: "W_xc"
  }
  param {
    name: "b_c"
  }
  propagate_down: true
  inner_product_param {
    num_output: 4000
    bias_term: true
    weight_filler {
      type: "uniform"
      min: -0.08
      max: 0.08
    }
    bias_filler {
      type: "constant"
      value: 0
    }
    axis: 2
  }
}
layer {
  name: "lstm1_W_xc_x_slice"
  type: "Slice"
  bottom: "W_xc_x"
  top: "W_xc_x_1"
  slice_param {
    axis: 0
  }
}
layer {
  name: "lstm1_h_conted_0"
  type: "Scale"
  bottom: "h_0"
  bottom: "cont_1"
  top: "h_conted_0"
  scale_param {
    axis: 0
  }
}
layer {
  name: "lstm1_transform_1"
  type: "InnerProduct"
  bottom: "h_conted_0"
  top: "W_hc_h_0"
  param {
    name: "W_hc"
  }
  inner_product_param {
    num_output: 4000
    bias_term: false
    weight_filler {
      type: "uniform"
      min: -0.08
      max: 0.08
    }
    axis: 2
  }
}
layer {
  name: "lstm1_gate_input_1"
  type: "Eltwise"
  bottom: "W_hc_h_0"
  bottom: "W_xc_x_1"
  top: "gate_input_1"
  eltwise_param {
    operation: SUM
  }
}
layer {
  name: "lstm1_unit_1"
  type: "LSTMUnit"
  bottom: "c_0"
  bottom: "gate_input_1"
  bottom: "cont_1"
  top: "c_1"
  top: "h_1"
}
layer {
  name: "lstm1_"
  type: "Split"
  bottom: "c_1"
  top: "c_T"
}
layer {
  name: "lstm1_h_concat"
  type: "Concat"
  bottom: "h_1"
  top: "h"
  concat_param {
    axis: 0
  }
}
layer {
  name: "h_pseudoloss"
  type: "Reduction"
  bottom: "h"
  top: "h_pseudoloss"
  loss_weight: 1
}
I0924 03:20:34.080730 22929 layer_factory.hpp:77] Creating layer lstm1_
I0924 03:20:34.080754 22929 net.cpp:91] Creating Layer lstm1_
I0924 03:20:34.080765 22929 net.cpp:399] lstm1_ -> x
I0924 03:20:34.080783 22929 net.cpp:399] lstm1_ -> cont
I0924 03:20:34.080919 22929 net.cpp:141] Setting up lstm1_
I0924 03:20:34.080937 22929 net.cpp:148] Top shape: 1 1 500 (500)
I0924 03:20:34.080947 22929 net.cpp:148] Top shape: 1 1 (1)
I0924 03:20:34.080955 22929 net.cpp:156] Memory required for data: 2004
I0924 03:20:34.080963 22929 layer_factory.hpp:77] Creating layer lstm1_
I0924 03:20:34.080976 22929 net.cpp:91] Creating Layer lstm1_
I0924 03:20:34.080996 22929 net.cpp:399] lstm1_ -> c_0
I0924 03:20:34.081012 22929 net.cpp:399] lstm1_ -> h_0
I0924 03:20:34.081104 22929 net.cpp:141] Setting up lstm1_
I0924 03:20:34.081118 22929 net.cpp:148] Top shape: 1 1 1000 (1000)
I0924 03:20:34.081127 22929 net.cpp:148] Top shape: 1 1 1000 (1000)
I0924 03:20:34.081135 22929 net.cpp:156] Memory required for data: 10004
I0924 03:20:34.081141 22929 layer_factory.hpp:77] Creating layer lstm1_cont_slice
I0924 03:20:34.081161 22929 net.cpp:91] Creating Layer lstm1_cont_slice
I0924 03:20:34.081169 22929 net.cpp:425] lstm1_cont_slice <- cont
I0924 03:20:34.081184 22929 net.cpp:399] lstm1_cont_slice -> cont_1
I0924 03:20:34.081233 22929 net.cpp:141] Setting up lstm1_cont_slice
I0924 03:20:34.081248 22929 net.cpp:148] Top shape: 1 1 (1)
I0924 03:20:34.081254 22929 net.cpp:156] Memory required for data: 10008
I0924 03:20:34.081262 22929 layer_factory.hpp:77] Creating layer cont_1_lstm1_cont_slice_0_split
I0924 03:20:34.081274 22929 net.cpp:91] Creating Layer cont_1_lstm1_cont_slice_0_split
I0924 03:20:34.081281 22929 net.cpp:425] cont_1_lstm1_cont_slice_0_split <- cont_1
I0924 03:20:34.081298 22929 net.cpp:399] cont_1_lstm1_cont_slice_0_split -> cont_1_lstm1_cont_slice_0_split_0
I0924 03:20:34.081312 22929 net.cpp:399] cont_1_lstm1_cont_slice_0_split -> cont_1_lstm1_cont_slice_0_split_1
I0924 03:20:34.081388 22929 net.cpp:141] Setting up cont_1_lstm1_cont_slice_0_split
I0924 03:20:34.081401 22929 net.cpp:148] Top shape: 1 1 (1)
I0924 03:20:34.081410 22929 net.cpp:148] Top shape: 1 1 (1)
I0924 03:20:34.081418 22929 net.cpp:156] Memory required for data: 10016
I0924 03:20:34.081425 22929 layer_factory.hpp:77] Creating layer lstm1_x_transform
I0924 03:20:34.081441 22929 net.cpp:91] Creating Layer lstm1_x_transform
I0924 03:20:34.081449 22929 net.cpp:425] lstm1_x_transform <- x
I0924 03:20:34.081461 22929 net.cpp:399] lstm1_x_transform -> W_xc_x
I0924 03:20:34.087513 22973 net.cpp:141] Setting up lstm1_
I0924 03:20:34.087568 22973 net.cpp:148] Top shape: 1 1 1000 (1000)
I0924 03:20:34.087579 22973 net.cpp:148] Top shape: 1 1 1000 (1000)
I0924 03:20:34.087587 22973 net.cpp:156] Memory required for data: 10004
I0924 03:20:34.087600 22973 layer_factory.hpp:77] Creating layer lstm1_cont_slice
I0924 03:20:34.087627 22973 net.cpp:91] Creating Layer lstm1_cont_slice
I0924 03:20:34.087637 22973 net.cpp:425] lstm1_cont_slice <- cont
I0924 03:20:34.087658 22973 net.cpp:399] lstm1_cont_slice -> cont_1
I0924 03:20:34.093261 22973 net.cpp:141] Setting up lstm1_cont_slice
I0924 03:20:34.093323 22973 net.cpp:148] Top shape: 1 1 (1)
I0924 03:20:34.093336 22973 net.cpp:156] Memory required for data: 10008
I0924 03:20:34.093351 22973 layer_factory.hpp:77] Creating layer cont_1_lstm1_cont_slice_0_split
I0924 03:20:34.093377 22973 net.cpp:91] Creating Layer cont_1_lstm1_cont_slice_0_split
I0924 03:20:34.093389 22973 net.cpp:425] cont_1_lstm1_cont_slice_0_split <- cont_1
I0924 03:20:34.093392 22939 net.cpp:141] Setting up embedding
I0924 03:20:34.093408 22973 net.cpp:399] cont_1_lstm1_cont_slice_0_split -> cont_1_lstm1_cont_slice_0_split_0
I0924 03:20:34.093439 22939 net.cpp:148] Top shape: 1 1 500 (500)
I0924 03:20:34.093449 22939 net.cpp:156] Memory required for data: 22408
I0924 03:20:34.093452 22973 net.cpp:399] cont_1_lstm1_cont_slice_0_split -> cont_1_lstm1_cont_slice_0_split_1
I0924 03:20:34.093474 22939 layer_factory.hpp:77] Creating layer lstm1
I0924 03:20:34.093499 22939 net.cpp:91] Creating Layer lstm1
I0924 03:20:34.093510 22939 net.cpp:425] lstm1 <- embedded_input_frames
I0924 03:20:34.093523 22939 net.cpp:425] lstm1 <- cont_sentence_input_1_split_0
I0924 03:20:34.093538 22939 net.cpp:399] lstm1 -> lstm1
I0924 03:20:34.093561 22939 recurrent_layer.cpp:20] Initializing recurrent layer: assuming input batch contains 1 timesteps of 1 independent streams.
I0924 03:20:34.093571 22973 net.cpp:141] Setting up cont_1_lstm1_cont_slice_0_split
I0924 03:20:34.093590 22973 net.cpp:148] Top shape: 1 1 (1)
I0924 03:20:34.093601 22973 net.cpp:148] Top shape: 1 1 (1)
I0924 03:20:34.093610 22973 net.cpp:156] Memory required for data: 10016
I0924 03:20:34.093619 22973 layer_factory.hpp:77] Creating layer lstm1_x_transform
I0924 03:20:34.093647 22973 net.cpp:91] Creating Layer lstm1_x_transform
I0924 03:20:34.093657 22973 net.cpp:425] lstm1_x_transform <- x
I0924 03:20:34.093672 22973 net.cpp:399] lstm1_x_transform -> W_xc_x
I0924 03:20:34.093957 22939 net.cpp:49] Initializing net from parameters: 
layer {
  name: "lstm1_"
  type: "Input"
  top: "x"
  top: "cont"
  input_param {
    shape {
      dim: 1
      dim: 1
      dim: 500
    }
    shape {
      dim: 1
      dim: 1
    }
  }
}
layer {
  name: "lstm1_"
  type: "Input"
  top: "c_0"
  top: "h_0"
  input_param {
    shape {
      dim: 1
      dim: 1
      dim: 1000
    }
    shape {
      dim: 1
      dim: 1
      dim: 1000
    }
  }
}
layer {
  name: "lstm1_cont_slice"
  type: "Slice"
  bottom: "cont"
  top: "cont_1"
  slice_param {
    axis: 0
  }
}
layer {
  name: "lstm1_x_transform"
  type: "InnerProduct"
  bottom: "x"
  top: "W_xc_x"
  param {
    name: "W_xc"
  }
  param {
    name: "b_c"
  }
  propagate_down: true
  inner_product_param {
    num_output: 4000
    bias_term: true
    weight_filler {
      type: "uniform"
      min: -0.08
      max: 0.08
    }
    bias_filler {
      type: "constant"
      value: 0
    }
    axis: 2
  }
}
layer {
  name: "lstm1_W_xc_x_slice"
  type: "Slice"
  bottom: "W_xc_x"
  top: "W_xc_x_1"
  slice_param {
    axis: 0
  }
}
layer {
  name: "lstm1_h_conted_0"
  type: "Scale"
  bottom: "h_0"
  bottom: "cont_1"
  top: "h_conted_0"
  scale_param {
    axis: 0
  }
}
layer {
  name: "lstm1_transform_1"
  type: "InnerProduct"
  bottom: "h_conted_0"
  top: "W_hc_h_0"
  param {
    name: "W_hc"
  }
  inner_product_param {
    num_output: 4000
    bias_term: false
    weight_filler {
      type: "uniform"
      min: -0.08
      max: 0.08
    }
    axis: 2
  }
}
layer {
  name: "lstm1_gate_input_1"
  type: "Eltwise"
  bottom: "W_hc_h_0"
  bottom: "W_xc_x_1"
  top: "gate_input_1"
  eltwise_param {
    operation: SUM
  }
}
layer {
  name: "lstm1_unit_1"
  type: "LSTMUnit"
  bottom: "c_0"
  bottom: "gate_input_1"
  bottom: "cont_1"
  top: "c_1"
  top: "h_1"
}
layer {
  name: "lstm1_"
  type: "Split"
  bottom: "c_1"
  top: "c_T"
}
layer {
  name: "lstm1_h_concat"
  type: "Concat"
  bottom: "h_1"
  top: "h"
  concat_param {
    axis: 0
  }
}
layer {
  name: "h_pseudoloss"
  type: "Reduction"
  bottom: "h"
  top: "h_pseudoloss"
  loss_weight: 1
}
I0924 03:20:34.094091 22939 layer_factory.hpp:77] Creating layer lstm1_
I0924 03:20:34.094107 22939 net.cpp:91] Creating Layer lstm1_
I0924 03:20:34.094118 22939 net.cpp:399] lstm1_ -> x
I0924 03:20:34.094135 22939 net.cpp:399] lstm1_ -> cont
I0924 03:20:34.117171 22939 net.cpp:141] Setting up lstm1_
I0924 03:20:34.117233 22939 net.cpp:148] Top shape: 1 1 500 (500)
I0924 03:20:34.117243 22939 net.cpp:148] Top shape: 1 1 (1)
I0924 03:20:34.117247 22939 net.cpp:156] Memory required for data: 2004
I0924 03:20:34.117256 22939 layer_factory.hpp:77] Creating layer lstm1_
I0924 03:20:34.117280 22939 net.cpp:91] Creating Layer lstm1_
I0924 03:20:34.117293 22939 net.cpp:399] lstm1_ -> c_0
I0924 03:20:34.117316 22939 net.cpp:399] lstm1_ -> h_0
I0924 03:20:34.118531 22939 net.cpp:141] Setting up lstm1_
I0924 03:20:34.118551 22939 net.cpp:148] Top shape: 1 1 1000 (1000)
I0924 03:20:34.118557 22939 net.cpp:148] Top shape: 1 1 1000 (1000)
I0924 03:20:34.118562 22939 net.cpp:156] Memory required for data: 10004
I0924 03:20:34.118567 22939 layer_factory.hpp:77] Creating layer lstm1_cont_slice
I0924 03:20:34.118579 22939 net.cpp:91] Creating Layer lstm1_cont_slice
I0924 03:20:34.118588 22939 net.cpp:425] lstm1_cont_slice <- cont
I0924 03:20:34.118620 22939 net.cpp:399] lstm1_cont_slice -> cont_1
I0924 03:20:34.118693 22939 net.cpp:141] Setting up lstm1_cont_slice
I0924 03:20:34.118706 22939 net.cpp:148] Top shape: 1 1 (1)
I0924 03:20:34.118710 22939 net.cpp:156] Memory required for data: 10008
I0924 03:20:34.118717 22939 layer_factory.hpp:77] Creating layer cont_1_lstm1_cont_slice_0_split
I0924 03:20:34.118731 22939 net.cpp:91] Creating Layer cont_1_lstm1_cont_slice_0_split
I0924 03:20:34.118736 22939 net.cpp:425] cont_1_lstm1_cont_slice_0_split <- cont_1
I0924 03:20:34.118743 22939 net.cpp:399] cont_1_lstm1_cont_slice_0_split -> cont_1_lstm1_cont_slice_0_split_0
I0924 03:20:34.118753 22939 net.cpp:399] cont_1_lstm1_cont_slice_0_split -> cont_1_lstm1_cont_slice_0_split_1
I0924 03:20:34.118865 22939 net.cpp:141] Setting up cont_1_lstm1_cont_slice_0_split
I0924 03:20:34.118880 22939 net.cpp:148] Top shape: 1 1 (1)
I0924 03:20:34.118887 22939 net.cpp:148] Top shape: 1 1 (1)
I0924 03:20:34.118891 22939 net.cpp:156] Memory required for data: 10016
I0924 03:20:34.118898 22939 layer_factory.hpp:77] Creating layer lstm1_x_transform
I0924 03:20:34.118914 22939 net.cpp:91] Creating Layer lstm1_x_transform
I0924 03:20:34.118921 22939 net.cpp:425] lstm1_x_transform <- x
I0924 03:20:34.118929 22939 net.cpp:399] lstm1_x_transform -> W_xc_x
I0924 03:20:34.134673 22929 net.cpp:141] Setting up lstm1_x_transform
I0924 03:20:34.134722 22929 net.cpp:148] Top shape: 1 1 4000 (4000)
I0924 03:20:34.134732 22929 net.cpp:156] Memory required for data: 26016
I0924 03:20:34.134768 22929 layer_factory.hpp:77] Creating layer lstm1_W_xc_x_slice
I0924 03:20:34.134793 22929 net.cpp:91] Creating Layer lstm1_W_xc_x_slice
I0924 03:20:34.134799 22929 net.cpp:425] lstm1_W_xc_x_slice <- W_xc_x
I0924 03:20:34.134809 22929 net.cpp:399] lstm1_W_xc_x_slice -> W_xc_x_1
I0924 03:20:34.151278 22929 net.cpp:141] Setting up lstm1_W_xc_x_slice
I0924 03:20:34.151335 22929 net.cpp:148] Top shape: 1 1 4000 (4000)
I0924 03:20:34.151347 22929 net.cpp:156] Memory required for data: 42016
I0924 03:20:34.151361 22929 layer_factory.hpp:77] Creating layer lstm1_h_conted_0
I0924 03:20:34.151360 22967 net.cpp:141] Setting up embedding
I0924 03:20:34.151403 22929 net.cpp:91] Creating Layer lstm1_h_conted_0
I0924 03:20:34.151433 22929 net.cpp:425] lstm1_h_conted_0 <- h_0
I0924 03:20:34.151434 22967 net.cpp:148] Top shape: 1 1 500 (500)
I0924 03:20:34.151450 22967 net.cpp:156] Memory required for data: 22408
I0924 03:20:34.151453 22929 net.cpp:425] lstm1_h_conted_0 <- cont_1_lstm1_cont_slice_0_split_0
I0924 03:20:34.151471 22967 layer_factory.hpp:77] Creating layer lstm1
I0924 03:20:34.151470 22929 net.cpp:399] lstm1_h_conted_0 -> h_conted_0
I0924 03:20:34.151497 22967 net.cpp:91] Creating Layer lstm1
I0924 03:20:34.151501 22973 net.cpp:141] Setting up lstm1_x_transform
I0924 03:20:34.151509 22967 net.cpp:425] lstm1 <- embedded_input_frames
I0924 03:20:34.151528 22973 net.cpp:148] Top shape: 1 1 4000 (4000)
I0924 03:20:34.151532 22967 net.cpp:425] lstm1 <- cont_sentence_input_1_split_0
I0924 03:20:34.151540 22973 net.cpp:156] Memory required for data: 26016
I0924 03:20:34.151545 22967 net.cpp:399] lstm1 -> lstm1
I0924 03:20:34.151563 22967 recurrent_layer.cpp:20] Initializing recurrent layer: assuming input batch contains 1 timesteps of 1 independent streams.
I0924 03:20:34.151567 22973 layer_factory.hpp:77] Creating layer lstm1_W_xc_x_slice
I0924 03:20:34.151588 22973 net.cpp:91] Creating Layer lstm1_W_xc_x_slice
I0924 03:20:34.151600 22973 net.cpp:425] lstm1_W_xc_x_slice <- W_xc_x
I0924 03:20:34.151618 22973 net.cpp:399] lstm1_W_xc_x_slice -> W_xc_x_1
I0924 03:20:34.151731 22929 net.cpp:141] Setting up lstm1_h_conted_0
I0924 03:20:34.151741 22973 net.cpp:141] Setting up lstm1_W_xc_x_slice
I0924 03:20:34.151749 22929 net.cpp:148] Top shape: 1 1 1000 (1000)
I0924 03:20:34.151756 22973 net.cpp:148] Top shape: 1 1 4000 (4000)
I0924 03:20:34.151757 22929 net.cpp:156] Memory required for data: 46016
I0924 03:20:34.151763 22973 net.cpp:156] Memory required for data: 42016
I0924 03:20:34.151765 22929 layer_factory.hpp:77] Creating layer lstm1_transform_1
I0924 03:20:34.151772 22973 layer_factory.hpp:77] Creating layer lstm1_h_conted_0
I0924 03:20:34.151783 22929 net.cpp:91] Creating Layer lstm1_transform_1
I0924 03:20:34.151783 22973 net.cpp:91] Creating Layer lstm1_h_conted_0
I0924 03:20:34.151796 22929 net.cpp:425] lstm1_transform_1 <- h_conted_0
I0924 03:20:34.151800 22973 net.cpp:425] lstm1_h_conted_0 <- h_0
I0924 03:20:34.151809 22973 net.cpp:425] lstm1_h_conted_0 <- cont_1_lstm1_cont_slice_0_split_0
I0924 03:20:34.151826 22973 net.cpp:399] lstm1_h_conted_0 -> h_conted_0
I0924 03:20:34.151829 22929 net.cpp:399] lstm1_transform_1 -> W_hc_h_0
I0924 03:20:34.151860 22967 net.cpp:49] Initializing net from parameters: 
layer {
  name: "lstm1_"
  type: "Input"
  top: "x"
  top: "cont"
  input_param {
    shape {
      dim: 1
      dim: 1
      dim: 500
    }
    shape {
      dim: 1
      dim: 1
    }
  }
}
layer {
  name: "lstm1_"
  type: "Input"
  top: "c_0"
  top: "h_0"
  input_param {
    shape {
      dim: 1
      dim: 1
      dim: 1000
    }
    shape {
      dim: 1
      dim: 1
      dim: 1000
    }
  }
}
layer {
  name: "lstm1_cont_slice"
  type: "Slice"
  bottom: "cont"
  top: "cont_1"
  slice_param {
    axis: 0
  }
}
layer {
  name: "lstm1_x_transform"
  type: "InnerProduct"
  bottom: "x"
  top: "W_xc_x"
  param {
    name: "W_xc"
  }
  param {
    name: "b_c"
  }
  propagate_down: true
  inner_product_param {
    num_output: 4000
    bias_term: true
    weight_filler {
      type: "uniform"
      min: -0.08
      max: 0.08
    }
    bias_filler {
      type: "constant"
      value: 0
    }
    axis: 2
  }
}
layer {
  name: "lstm1_W_xc_x_slice"
  type: "Slice"
  bottom: "W_xc_x"
  top: "W_xc_x_1"
  slice_param {
    axis: 0
  }
}
layer {
  name: "lstm1_h_conted_0"
  type: "Scale"
  bottom: "h_0"
  bottom: "cont_1"
  top: "h_conted_0"
  scale_param {
    axis: 0
  }
}
layer {
  name: "lstm1_transform_1"
  type: "InnerProduct"
  bottom: "h_conted_0"
  top: "W_hc_h_0"
  param {
    name: "W_hc"
  }
  inner_product_param {
    num_output: 4000
    bias_term: false
    weight_filler {
      type: "uniform"
      min: -0.08
      max: 0.08
    }
    axis: 2
  }
}
layer {
  name: "lstm1_gate_input_1"
  type: "Eltwise"
  bottom: "W_hc_h_0"
  bottom: "W_xc_x_1"
  top: "gate_input_1"
  eltwise_param {
    operation: SUM
  }
}
layer {
  name: "lstm1_unit_1"
  type: "LSTMUnit"
  bottom: "c_0"
  bottom: "gate_input_1"
  bottom: "cont_1"
  top: "c_1"
  top: "h_1"
}
layer {
  name: "lstm1_"
  type: "Split"
  bottom: "c_1"
  top: "c_T"
}
layer {
  name: "lstm1_h_concat"
  type: "Concat"
  bottom: "h_1"
  top: "h"
  concat_param {
    axis: 0
  }
}
layer {
  name: "h_pseudoloss"
  type: "Reduction"
  bottom: "h"
  top: "h_pseudoloss"
  loss_weight: 1
}
I0924 03:20:34.151962 22967 layer_factory.hpp:77] Creating layer lstm1_
I0924 03:20:34.151974 22967 net.cpp:91] Creating Layer lstm1_
I0924 03:20:34.151980 22967 net.cpp:399] lstm1_ -> x
I0924 03:20:34.151993 22967 net.cpp:399] lstm1_ -> cont
I0924 03:20:34.173851 22973 net.cpp:141] Setting up lstm1_h_conted_0
I0924 03:20:34.173910 22973 net.cpp:148] Top shape: 1 1 1000 (1000)
I0924 03:20:34.173919 22973 net.cpp:156] Memory required for data: 46016
I0924 03:20:34.173931 22973 layer_factory.hpp:77] Creating layer lstm1_transform_1
I0924 03:20:34.173959 22973 net.cpp:91] Creating Layer lstm1_transform_1
I0924 03:20:34.173969 22973 net.cpp:425] lstm1_transform_1 <- h_conted_0
I0924 03:20:34.173990 22973 net.cpp:399] lstm1_transform_1 -> W_hc_h_0
I0924 03:20:34.179750 22967 net.cpp:141] Setting up lstm1_
I0924 03:20:34.179793 22967 net.cpp:148] Top shape: 1 1 500 (500)
I0924 03:20:34.179801 22967 net.cpp:148] Top shape: 1 1 (1)
I0924 03:20:34.179806 22967 net.cpp:156] Memory required for data: 2004
I0924 03:20:34.179813 22967 layer_factory.hpp:77] Creating layer lstm1_
I0924 03:20:34.179833 22967 net.cpp:91] Creating Layer lstm1_
I0924 03:20:34.179841 22967 net.cpp:399] lstm1_ -> c_0
I0924 03:20:34.179867 22967 net.cpp:399] lstm1_ -> h_0
I0924 03:20:34.179987 22939 net.cpp:141] Setting up lstm1_x_transform
I0924 03:20:34.180007 22939 net.cpp:148] Top shape: 1 1 4000 (4000)
I0924 03:20:34.180016 22939 net.cpp:156] Memory required for data: 26016
I0924 03:20:34.180037 22939 layer_factory.hpp:77] Creating layer lstm1_W_xc_x_slice
I0924 03:20:34.180052 22939 net.cpp:91] Creating Layer lstm1_W_xc_x_slice
I0924 03:20:34.180061 22939 net.cpp:425] lstm1_W_xc_x_slice <- W_xc_x
I0924 03:20:34.180073 22939 net.cpp:399] lstm1_W_xc_x_slice -> W_xc_x_1
I0924 03:20:34.180073 22967 net.cpp:141] Setting up lstm1_
I0924 03:20:34.180100 22967 net.cpp:148] Top shape: 1 1 1000 (1000)
I0924 03:20:34.180111 22967 net.cpp:148] Top shape: 1 1 1000 (1000)
I0924 03:20:34.180116 22967 net.cpp:156] Memory required for data: 10004
I0924 03:20:34.180122 22967 layer_factory.hpp:77] Creating layer lstm1_cont_slice
I0924 03:20:34.180136 22967 net.cpp:91] Creating Layer lstm1_cont_slice
I0924 03:20:34.180142 22939 net.cpp:141] Setting up lstm1_W_xc_x_slice
I0924 03:20:34.180145 22967 net.cpp:425] lstm1_cont_slice <- cont
I0924 03:20:34.180163 22939 net.cpp:148] Top shape: 1 1 4000 (4000)
I0924 03:20:34.180171 22967 net.cpp:399] lstm1_cont_slice -> cont_1
I0924 03:20:34.180171 22939 net.cpp:156] Memory required for data: 42016
I0924 03:20:34.180191 22939 layer_factory.hpp:77] Creating layer lstm1_h_conted_0
I0924 03:20:34.180204 22939 net.cpp:91] Creating Layer lstm1_h_conted_0
I0924 03:20:34.180212 22939 net.cpp:425] lstm1_h_conted_0 <- h_0
I0924 03:20:34.180222 22939 net.cpp:425] lstm1_h_conted_0 <- cont_1_lstm1_cont_slice_0_split_0
I0924 03:20:34.180233 22939 net.cpp:399] lstm1_h_conted_0 -> h_conted_0
I0924 03:20:34.188421 22967 net.cpp:141] Setting up lstm1_cont_slice
I0924 03:20:34.188478 22967 net.cpp:148] Top shape: 1 1 (1)
I0924 03:20:34.188489 22967 net.cpp:156] Memory required for data: 10008
I0924 03:20:34.188504 22967 layer_factory.hpp:77] Creating layer cont_1_lstm1_cont_slice_0_split
I0924 03:20:34.188525 22967 net.cpp:91] Creating Layer cont_1_lstm1_cont_slice_0_split
I0924 03:20:34.188539 22967 net.cpp:425] cont_1_lstm1_cont_slice_0_split <- cont_1
I0924 03:20:34.188561 22967 net.cpp:399] cont_1_lstm1_cont_slice_0_split -> cont_1_lstm1_cont_slice_0_split_0
I0924 03:20:34.188583 22967 net.cpp:399] cont_1_lstm1_cont_slice_0_split -> cont_1_lstm1_cont_slice_0_split_1
I0924 03:20:34.188598 22939 net.cpp:141] Setting up lstm1_h_conted_0
I0924 03:20:34.188618 22939 net.cpp:148] Top shape: 1 1 1000 (1000)
I0924 03:20:34.188627 22939 net.cpp:156] Memory required for data: 46016
I0924 03:20:34.188635 22939 layer_factory.hpp:77] Creating layer lstm1_transform_1
I0924 03:20:34.188653 22939 net.cpp:91] Creating Layer lstm1_transform_1
I0924 03:20:34.188663 22939 net.cpp:425] lstm1_transform_1 <- h_conted_0
I0924 03:20:34.188675 22939 net.cpp:399] lstm1_transform_1 -> W_hc_h_0
I0924 03:20:34.189139 22967 net.cpp:141] Setting up cont_1_lstm1_cont_slice_0_split
I0924 03:20:34.189160 22967 net.cpp:148] Top shape: 1 1 (1)
I0924 03:20:34.189172 22967 net.cpp:148] Top shape: 1 1 (1)
I0924 03:20:34.189203 22967 net.cpp:156] Memory required for data: 10016
I0924 03:20:34.189213 22967 layer_factory.hpp:77] Creating layer lstm1_x_transform
I0924 03:20:34.189239 22967 net.cpp:91] Creating Layer lstm1_x_transform
I0924 03:20:34.189249 22967 net.cpp:425] lstm1_x_transform <- x
I0924 03:20:34.189265 22967 net.cpp:399] lstm1_x_transform -> W_xc_x
I0924 03:20:34.200508 22929 net.cpp:141] Setting up lstm1_transform_1
I0924 03:20:34.200569 22929 net.cpp:148] Top shape: 1 1 4000 (4000)
I0924 03:20:34.200582 22929 net.cpp:156] Memory required for data: 62016
I0924 03:20:34.200618 22929 layer_factory.hpp:77] Creating layer lstm1_gate_input_1
I0924 03:20:34.200671 22929 net.cpp:91] Creating Layer lstm1_gate_input_1
I0924 03:20:34.200688 22929 net.cpp:425] lstm1_gate_input_1 <- W_hc_h_0
I0924 03:20:34.200705 22929 net.cpp:425] lstm1_gate_input_1 <- W_xc_x_1
I0924 03:20:34.200770 22929 net.cpp:399] lstm1_gate_input_1 -> gate_input_1
I0924 03:20:34.205073 22929 net.cpp:141] Setting up lstm1_gate_input_1
I0924 03:20:34.205101 22929 net.cpp:148] Top shape: 1 1 4000 (4000)
I0924 03:20:34.205111 22929 net.cpp:156] Memory required for data: 78016
I0924 03:20:34.205121 22929 layer_factory.hpp:77] Creating layer lstm1_unit_1
I0924 03:20:34.205153 22929 net.cpp:91] Creating Layer lstm1_unit_1
I0924 03:20:34.205165 22929 net.cpp:425] lstm1_unit_1 <- c_0
I0924 03:20:34.205175 22929 net.cpp:425] lstm1_unit_1 <- gate_input_1
I0924 03:20:34.205185 22929 net.cpp:425] lstm1_unit_1 <- cont_1_lstm1_cont_slice_0_split_1
I0924 03:20:34.205202 22929 net.cpp:399] lstm1_unit_1 -> c_1
I0924 03:20:34.205238 22929 net.cpp:399] lstm1_unit_1 -> h_1
I0924 03:20:34.205395 22929 net.cpp:141] Setting up lstm1_unit_1
I0924 03:20:34.205416 22929 net.cpp:148] Top shape: 1 1 1000 (1000)
I0924 03:20:34.205430 22929 net.cpp:148] Top shape: 1 1 1000 (1000)
I0924 03:20:34.205440 22929 net.cpp:156] Memory required for data: 86016
I0924 03:20:34.205449 22929 layer_factory.hpp:77] Creating layer lstm1_
I0924 03:20:34.205464 22929 net.cpp:91] Creating Layer lstm1_
I0924 03:20:34.205476 22929 net.cpp:425] lstm1_ <- c_1
I0924 03:20:34.205489 22929 net.cpp:399] lstm1_ -> c_T
I0924 03:20:34.206337 22929 net.cpp:141] Setting up lstm1_
I0924 03:20:34.206385 22929 net.cpp:148] Top shape: 1 1 1000 (1000)
I0924 03:20:34.206399 22929 net.cpp:156] Memory required for data: 90016
I0924 03:20:34.206409 22929 layer_factory.hpp:77] Creating layer lstm1_h_concat
I0924 03:20:34.206428 22929 net.cpp:91] Creating Layer lstm1_h_concat
I0924 03:20:34.206439 22929 net.cpp:425] lstm1_h_concat <- h_1
I0924 03:20:34.206464 22929 net.cpp:399] lstm1_h_concat -> h
I0924 03:20:34.206634 22929 net.cpp:141] Setting up lstm1_h_concat
I0924 03:20:34.206653 22929 net.cpp:148] Top shape: 1 1 1000 (1000)
I0924 03:20:34.206662 22929 net.cpp:156] Memory required for data: 94016
I0924 03:20:34.206671 22929 layer_factory.hpp:77] Creating layer h_pseudoloss
I0924 03:20:34.206706 22929 net.cpp:91] Creating Layer h_pseudoloss
I0924 03:20:34.206718 22929 net.cpp:425] h_pseudoloss <- h
I0924 03:20:34.206733 22929 net.cpp:399] h_pseudoloss -> h_pseudoloss
I0924 03:20:34.209574 22929 net.cpp:141] Setting up h_pseudoloss
…
I0924 03:20:34.209810 22929 net.cpp:219] lstm1_ does not need backward computation.
I0924 03:20:34.209817 22929 net.cpp:261] This network produces output c_T
I0924 03:20:34.209826 22929 net.cpp:261] This network produces output h_pseudoloss
I0924 03:20:34.209867 22929 net.cpp:274] Network initialization done.
I0924 03:20:34.209971 22929 recurrent_layer.cpp:150] Adding parameter 0: W_xc
I0924 03:20:34.209986 22929 recurrent_layer.cpp:150] Adding parameter 1: b_c
I0924 03:20:34.209996 22929 recurrent_layer.cpp:150] Adding parameter 2: W_hc
I0924 03:20:34.220984 22929 net.cpp:141] Setting up lstm1
I0924 03:20:34.221047 22929 net.cpp:148] Top shape: 1 1 1000 (1000)
I0924 03:20:34.221061 22929 net.cpp:156] Memory required for data: 26408
I0924 03:20:34.221107 22929 layer_factory.hpp:77] Creating layer concat
I0924 03:20:34.221134 22929 net.cpp:91] Creating Layer concat
I0924 03:20:34.221145 22929 net.cpp:425] concat <- lstm1
I0924 03:20:34.221159 22929 net.cpp:425] concat <- embedded_input_sentence
I0924 03:20:34.221169 22929 net.cpp:425] concat <- reshaped_stage_indicator
I0924 03:20:34.221181 22929 net.cpp:399] concat -> lstm1_video_sequence
I0924 03:20:34.221247 22929 net.cpp:141] Setting up concat
I0924 03:20:34.221261 22929 net.cpp:148] Top shape: 1 1 1501 (1501)
I0924 03:20:34.221269 22929 net.cpp:156] Memory required for data: 32412
I0924 03:20:34.221276 22929 layer_factory.hpp:77] Creating layer lstm2
I0924 03:20:34.221328 22929 net.cpp:91] Creating Layer lstm2
I0924 03:20:34.221338 22929 net.cpp:425] lstm2 <- lstm1_video_sequence
I0924 03:20:34.221348 22929 net.cpp:425] lstm2 <- cont_sentence_input_1_split_1
I0924 03:20:34.221360 22929 net.cpp:399] lstm2 -> lstm2
I0924 03:20:34.221377 22929 recurrent_layer.cpp:20] Initializing recurrent layer: assuming input batch contains 1 timesteps of 1 independent streams.
I0924 03:20:34.221833 22929 net.cpp:49] Initializing net from parameters: 
layer {
  name: "lstm2_"
  type: "Input"
  top: "x"
  top: "cont"
  input_param {
    shape {
      dim: 1
      dim: 1
      dim: 1501
    }
    shape {
      dim: 1
      dim: 1
    }
  }
}
layer {
  name: "lstm2_"
  type: "Input"
  top: "c_0"
  top: "h_0"
  input_param {
    shape {
      dim: 1
      dim: 1
      dim: 1000
    }
    shape {
      dim: 1
      dim: 1
      dim: 1000
    }
  }
}
layer {
  name: "lstm2_cont_slice"
  type: "Slice"
  bottom: "cont"
  top: "cont_1"
  slice_param {
    axis: 0
  }
}
layer {
  name: "lstm2_x_transform"
  type: "InnerProduct"
  bottom: "x"
  top: "W_xc_x"
  param {
    name: "W_xc"
  }
  param {
    name: "b_c"
  }
  propagate_down: true
  inner_product_param {
    num_output: 4000
    bias_term: true
    weight_filler {
      type: "uniform"
      min: -0.08
      max: 0.08
    }
    bias_filler {
      type: "constant"
      value: 0
    }
    axis: 2
  }
}
layer {
  name: "lstm2_W_xc_x_slice"
  type: "Slice"
  bottom: "W_xc_x"
  top: "W_xc_x_1"
  slice_param {
    axis: 0
  }
}
layer {
  name: "lstm2_h_conted_0"
  type: "Scale"
  bottom: "h_0"
  bottom: "cont_1"
  top: "h_conted_0"
  scale_param {
    axis: 0
  }
}
layer {
  name: "lstm2_transform_1"
  type: "InnerProduct"
  bottom: "h_conted_0"
  top: "W_hc_h_0"
  param {
    name: "W_hc"
  }
  inner_product_param {
    num_output: 4000
    bias_term: false
    weight_filler {
      type: "uniform"
      min: -0.08
      max: 0.08
    }
    axis: 2
  }
}
layer {
  name: "lstm2_gate_input_1"
  type: "Eltwise"
  bottom: "W_hc_h_0"
  bottom: "W_xc_x_1"
  top: "gate_input_1"
  eltwise_param {
    operation: SUM
  }
}
layer {
  name: "lstm2_unit_1"
  type: "LSTMUnit"
  bottom: "c_0"
  bottom: "gate_input_1"
  bottom: "cont_1"
  top: "c_1"
  top: "h_1"
}
layer {
  name: "lstm2_"
  type: "Split"
  bottom: "c_1"
  top: "c_T"
}
layer {
  name: "lstm2_h_concat"
  type: "Concat"
  bottom: "h_1"
  top: "h"
  concat_param {
    axis: 0
  }
}
layer {
  name: "h_pseudoloss"
  type: "Reduction"
  bottom: "h"
  top: "h_pseudoloss"
  loss_weight: 1
}
I0924 03:20:34.222085 22929 layer_factory.hpp:77] Creating layer lstm2_
I0924 03:20:34.222107 22929 net.cpp:91] Creating Layer lstm2_
I0924 03:20:34.222117 22929 net.cpp:399] lstm2_ -> x
I0924 03:20:34.222136 22929 net.cpp:399] lstm2_ -> cont
I0924 03:20:34.222224 22929 net.cpp:141] Setting up lstm2_
I0924 03:20:34.222239 22929 net.cpp:148] Top shape: 1 1 1501 (1501)
I0924 03:20:34.222249 22929 net.cpp:148] Top shape: 1 1 (1)
I0924 03:20:34.222256 22929 net.cpp:156] Memory required for data: 6008
I0924 03:20:34.222265 22929 layer_factory.hpp:77] Creating layer lstm2_
I0924 03:20:34.222278 22929 net.cpp:91] Creating Layer lstm2_
I0924 03:20:34.222290 22929 net.cpp:399] lstm2_ -> c_0
I0924 03:20:34.222380 22929 net.cpp:399] lstm2_ -> h_0
I0924 03:20:34.222467 22929 net.cpp:141] Setting up lstm2_
I0924 03:20:34.222481 22929 net.cpp:148] Top shape: 1 1 1000 (1000)
I0924 03:20:34.222492 22929 net.cpp:148] Top shape: 1 1 1000 (1000)
I0924 03:20:34.222498 22929 net.cpp:156] Memory required for data: 14008
I0924 03:20:34.222506 22929 layer_factory.hpp:77] Creating layer lstm2_cont_slice
I0924 03:20:34.222558 22929 net.cpp:91] Creating Layer lstm2_cont_slice
I0924 03:20:34.222568 22929 net.cpp:425] lstm2_cont_slice <- cont
I0924 03:20:34.222580 22929 net.cpp:399] lstm2_cont_slice -> cont_1
I0924 03:20:34.246389 22929 net.cpp:141] Setting up lstm2_cont_slice
I0924 03:20:34.246428 22929 net.cpp:148] Top shape: 1 1 (1)
I0924 03:20:34.246435 22929 net.cpp:156] Memory required for data: 14012
I0924 03:20:34.246443 22929 layer_factory.hpp:77] Creating layer cont_1_lstm2_cont_slice_0_split
I0924 03:20:34.246459 22929 net.cpp:91] Creating Layer cont_1_lstm2_cont_slice_0_split
I0924 03:20:34.246466 22929 net.cpp:425] cont_1_lstm2_cont_slice_0_split <- cont_1
I0924 03:20:34.246485 22929 net.cpp:399] cont_1_lstm2_cont_slice_0_split -> cont_1_lstm2_cont_slice_0_split_0
I0924 03:20:34.246484 22973 net.cpp:141] Setting up lstm1_transform_1
I0924 03:20:34.246500 22929 net.cpp:399] cont_1_lstm2_cont_slice_0_split -> cont_1_lstm2_cont_slice_0_split_1
I0924 03:20:34.246521 22973 net.cpp:148] Top shape: 1 1 4000 (4000)
I0924 03:20:34.246528 22973 net.cpp:156] Memory required for data: 62016
I0924 03:20:34.246551 22973 layer_factory.hpp:77] Creating layer lstm1_gate_input_1
I0924 03:20:34.246551 22947 net.cpp:141] Setting up embedding
I0924 03:20:34.246573 22973 net.cpp:91] Creating Layer lstm1_gate_input_1
I0924 03:20:34.246577 22947 net.cpp:148] Top shape: 1 1 500 (500)
I0924 03:20:34.246582 22973 net.cpp:425] lstm1_gate_input_1 <- W_hc_h_0
I0924 03:20:34.246587 22947 net.cpp:156] Memory required for data: 22408
I0924 03:20:34.246592 22973 net.cpp:425] lstm1_gate_input_1 <- W_xc_x_1
I0924 03:20:34.246610 22973 net.cpp:399] lstm1_gate_input_1 -> gate_input_1
I0924 03:20:34.246624 22947 layer_factory.hpp:77] Creating layer lstm1
I0924 03:20:34.246646 22947 net.cpp:91] Creating Layer lstm1
I0924 03:20:34.246659 22947 net.cpp:425] lstm1 <- embedded_input_frames
I0924 03:20:34.246672 22947 net.cpp:425] lstm1 <- cont_sentence_input_1_split_0
I0924 03:20:34.246686 22973 net.cpp:141] Setting up lstm1_gate_input_1
I0924 03:20:34.246688 22947 net.cpp:399] lstm1 -> lstm1
I0924 03:20:34.246696 22973 net.cpp:148] Top shape: 1 1 4000 (4000)
I0924 03:20:34.246701 22973 net.cpp:156] Memory required for data: 78016
I0924 03:20:34.246706 22973 layer_factory.hpp:77] Creating layer lstm1_unit_1
I0924 03:20:34.246709 22947 recurrent_layer.cpp:20] Initializing recurrent layer: assuming input batch contains 1 timesteps of 1 independent streams.
I0924 03:20:34.246716 22973 net.cpp:91] Creating Layer lstm1_unit_1
I0924 03:20:34.246721 22973 net.cpp:425] lstm1_unit_1 <- c_0
I0924 03:20:34.246732 22929 net.cpp:141] Setting up cont_1_lstm2_cont_slice_0_split
I0924 03:20:34.246736 22973 net.cpp:425] lstm1_unit_1 <- gate_input_1
I0924 03:20:34.246747 22929 net.cpp:148] Top shape: 1 1 (1)
I0924 03:20:34.246753 22973 net.cpp:425] lstm1_unit_1 <- cont_1_lstm1_cont_slice_0_split_1
I0924 03:20:34.246754 22929 net.cpp:148] Top shape: 1 1 (1)
I0924 03:20:34.246767 22973 net.cpp:399] lstm1_unit_1 -> c_1
I0924 03:20:34.246775 22929 net.cpp:156] Memory required for data: 14020
I0924 03:20:34.246783 22929 layer_factory.hpp:77] Creating layer lstm2_x_transform
I0924 03:20:34.246784 22973 net.cpp:399] lstm1_unit_1 -> h_1
I0924 03:20:34.246815 22929 net.cpp:91] Creating Layer lstm2_x_transform
I0924 03:20:34.246817 22967 net.cpp:141] Setting up lstm1_x_transform
I0924 03:20:34.246824 22929 net.cpp:425] lstm2_x_transform <- x
I0924 03:20:34.246837 22967 net.cpp:148] Top shape: 1 1 4000 (4000)
I0924 03:20:34.246842 22967 net.cpp:156] Memory required for data: 26016
I0924 03:20:34.246841 22929 net.cpp:399] lstm2_x_transform -> W_xc_x
I0924 03:20:34.246860 22967 layer_factory.hpp:77] Creating layer lstm1_W_xc_x_slice
I0924 03:20:34.246873 22967 net.cpp:91] Creating Layer lstm1_W_xc_x_slice
I0924 03:20:34.246879 22967 net.cpp:425] lstm1_W_xc_x_slice <- W_xc_x
I0924 03:20:34.246887 22967 net.cpp:399] lstm1_W_xc_x_slice -> W_xc_x_1
I0924 03:20:34.246956 22973 net.cpp:141] Setting up lstm1_unit_1
I0924 03:20:34.246968 22973 net.cpp:148] Top shape: 1 1 1000 (1000)
I0924 03:20:34.246974 22973 net.cpp:148] Top shape: 1 1 1000 (1000)
I0924 03:20:34.246978 22973 net.cpp:156] Memory required for data: 86016
I0924 03:20:34.246984 22973 layer_factory.hpp:77] Creating layer lstm1_
I0924 03:20:34.246992 22973 net.cpp:91] Creating Layer lstm1_
I0924 03:20:34.246999 22973 net.cpp:425] lstm1_ <- c_1
I0924 03:20:34.247004 22967 net.cpp:141] Setting up lstm1_W_xc_x_slice
I0924 03:20:34.247005 22973 net.cpp:399] lstm1_ -> c_T
I0924 03:20:34.247018 22967 net.cpp:148] Top shape: 1 1 4000 (4000)
I0924 03:20:34.247025 22967 net.cpp:156] Memory required for data: 42016
I0924 03:20:34.247028 22967 layer_factory.hpp:77] Creating layer lstm1_h_conted_0
I0924 03:20:34.247041 22967 net.cpp:91] Creating Layer lstm1_h_conted_0
I0924 03:20:34.247047 22967 net.cpp:425] lstm1_h_conted_0 <- h_0
I0924 03:20:34.247053 22967 net.cpp:425] lstm1_h_conted_0 <- cont_1_lstm1_cont_slice_0_split_0
I0924 03:20:34.247061 22967 net.cpp:399] lstm1_h_conted_0 -> h_conted_0
I0924 03:20:34.247151 22947 net.cpp:49] Initializing net from parameters: 
layer {
  name: "lstm1_"
  type: "Input"
  top: "x"
  top: "cont"
  input_param {
    shape {
      dim: 1
      dim: 1
      dim: 500
    }
    shape {
      dim: 1
      dim: 1
    }
  }
}
layer {
  name: "lstm1_"
  type: "Input"
  top: "c_0"
  top: "h_0"
  input_param {
    shape {
      dim: 1
      dim: 1
      dim: 1000
    }
    shape {
      dim: 1
      dim: 1
      dim: 1000
    }
  }
}
layer {
  name: "lstm1_cont_slice"
  type: "Slice"
  bottom: "cont"
  top: "cont_1"
  slice_param {
    axis: 0
  }
}
layer {
  name: "lstm1_x_transform"
  type: "InnerProduct"
  bottom: "x"
  top: "W_xc_x"
  param {
    name: "W_xc"
  }
  param {
    name: "b_c"
  }
  propagate_down: true
  inner_product_param {
    num_output: 4000
    bias_term: true
    weight_filler {
      type: "uniform"
      min: -0.08
      max: 0.08
    }
    bias_filler {
      type: "constant"
      value: 0
    }
    axis: 2
  }
}
layer {
  name: "lstm1_W_xc_x_slice"
  type: "Slice"
  bottom: "W_xc_x"
  top: "W_xc_x_1"
  slice_param {
    axis: 0
  }
}
layer {
  name: "lstm1_h_conted_0"
  type: "Scale"
  bottom: "h_0"
  bottom: "cont_1"
  top: "h_conted_0"
  scale_param {
    axis: 0
  }
}
layer {
  name: "lstm1_transform_1"
  type: "InnerProduct"
  bottom: "h_conted_0"
  top: "W_hc_h_0"
  param {
    name: "W_hc"
  }
  inner_product_param {
    num_output: 4000
    bias_term: false
    weight_filler {
      type: "uniform"
      min: -0.08
      max: 0.08
    }
    axis: 2
  }
}
layer {
  name: "lstm1_gate_input_1"
  type: "Eltwise"
  bottom: "W_hc_h_0"
  bottom: "W_xc_x_1"
  top: "gate_input_1"
  eltwise_param {
    operation: SUM
  }
}
layer {
  name: "lstm1_unit_1"
  type: "LSTMUnit"
  bottom: "c_0"
  bottom: "gate_input_1"
  bottom: "cont_1"
  top: "c_1"
  top: "h_1"
}
layer {
  name: "lstm1_"
  type: "Split"
  bottom: "c_1"
  top: "c_T"
}
layer {
  name: "lstm1_h_concat"
  type: "Concat"
  bottom: "h_1"
  top: "h"
  concat_param {
    axis: 0
  }
}
layer {
  name: "h_pseudoloss"
  type: "Reduction"
  bottom: "h"
  top: "h_pseudoloss"
  loss_weight: 1
}
I0924 03:20:34.247297 22947 layer_factory.hpp:77] Creating layer lstm1_
I0924 03:20:34.247314 22947 net.cpp:91] Creating Layer lstm1_
I0924 03:20:34.247325 22947 net.cpp:399] lstm1_ -> x
I0924 03:20:34.247341 22947 net.cpp:399] lstm1_ -> cont
I0924 03:20:34.274843 22939 net.cpp:141] Setting up lstm1_transform_1
I0924 03:20:34.274900 22939 net.cpp:148] Top shape: 1 1 4000 (4000)
I0924 03:20:34.274909 22939 net.cpp:156] Memory required for data: 62016
I0924 03:20:34.274936 22939 layer_factory.hpp:77] Creating layer lstm1_gate_input_1
I0924 03:20:34.274963 22939 net.cpp:91] Creating Layer lstm1_gate_input_1
I0924 03:20:34.274973 22939 net.cpp:425] lstm1_gate_input_1 <- W_hc_h_0
I0924 03:20:34.274983 22939 net.cpp:425] lstm1_gate_input_1 <- W_xc_x_1
I0924 03:20:34.274996 22939 net.cpp:399] lstm1_gate_input_1 -> gate_input_1
I0924 03:20:34.275053 22939 net.cpp:141] Setting up lstm1_gate_input_1
I0924 03:20:34.275065 22939 net.cpp:148] Top shape: 1 1 4000 (4000)
I0924 03:20:34.275073 22939 net.cpp:156] Memory required for data: 78016
I0924 03:20:34.275080 22939 layer_factory.hpp:77] Creating layer lstm1_unit_1
I0924 03:20:34.275094 22939 net.cpp:91] Creating Layer lstm1_unit_1
I0924 03:20:34.275102 22939 net.cpp:425] lstm1_unit_1 <- c_0
I0924 03:20:34.275111 22939 net.cpp:425] lstm1_unit_1 <- gate_input_1
I0924 03:20:34.275121 22939 net.cpp:425] lstm1_unit_1 <- cont_1_lstm1_cont_slice_0_split_1
I0924 03:20:34.275133 22939 net.cpp:399] lstm1_unit_1 -> c_1
I0924 03:20:34.275146 22939 net.cpp:399] lstm1_unit_1 -> h_1
I0924 03:20:34.275244 22939 net.cpp:141] Setting up lstm1_unit_1
I0924 03:20:34.275259 22939 net.cpp:148] Top shape: 1 1 1000 (1000)
I0924 03:20:34.275269 22939 net.cpp:148] Top shape: 1 1 1000 (1000)
I0924 03:20:34.275276 22939 net.cpp:156] Memory required for data: 86016
I0924 03:20:34.275284 22939 layer_factory.hpp:77] Creating layer lstm1_
I0924 03:20:34.275298 22939 net.cpp:91] Creating Layer lstm1_
I0924 03:20:34.275305 22939 net.cpp:425] lstm1_ <- c_1
I0924 03:20:34.275316 22939 net.cpp:399] lstm1_ -> c_T
I0924 03:20:34.275360 22939 net.cpp:141] Setting up lstm1_
I0924 03:20:34.275373 22939 net.cpp:148] Top shape: 1 1 1000 (1000)
I0924 03:20:34.275379 22939 net.cpp:156] Memory required for data: 90016
I0924 03:20:34.275388 22939 layer_factory.hpp:77] Creating layer lstm1_h_concat
I0924 03:20:34.275400 22939 net.cpp:91] Creating Layer lstm1_h_concat
I0924 03:20:34.275408 22939 net.cpp:425] lstm1_h_concat <- h_1
I0924 03:20:34.275423 22939 net.cpp:399] lstm1_h_concat -> h
I0924 03:20:34.275472 22939 net.cpp:141] Setting up lstm1_h_concat
I0924 03:20:34.275485 22939 net.cpp:148] Top shape: 1 1 1000 (1000)
I0924 03:20:34.275491 22939 net.cpp:156] Memory required for data: 94016
I0924 03:20:34.275498 22939 layer_factory.hpp:77] Creating layer h_pseudoloss
I0924 03:20:34.275512 22939 net.cpp:91] Creating Layer h_pseudoloss
I0924 03:20:34.275519 22939 net.cpp:425] h_pseudoloss <- h
I0924 03:20:34.275529 22939 net.cpp:399] h_pseudoloss -> h_pseudoloss
I0924 03:20:34.275648 22939 net.cpp:141] Setting up h_pseudoloss
…
I0924 03:20:34.275813 22939 net.cpp:219] lstm1_ does not need backward computation.
I0924 03:20:34.275820 22939 net.cpp:261] This network produces output c_T
I0924 03:20:34.275826 22939 net.cpp:261] This network produces output h_pseudoloss
I0924 03:20:34.275848 22939 net.cpp:274] Network initialization done.
I0924 03:20:34.275920 22939 recurrent_layer.cpp:150] Adding parameter 0: W_xc
I0924 03:20:34.275929 22939 recurrent_layer.cpp:150] Adding parameter 1: b_c
I0924 03:20:34.275936 22939 recurrent_layer.cpp:150] Adding parameter 2: W_hc
I0924 03:20:34.275950 22973 net.cpp:141] Setting up lstm1_
I0924 03:20:34.275991 22973 net.cpp:148] Top shape: 1 1 1000 (1000)
I0924 03:20:34.275997 22973 net.cpp:156] Memory required for data: 90016
I0924 03:20:34.276006 22973 layer_factory.hpp:77] Creating layer lstm1_h_concat
I0924 03:20:34.276022 22973 net.cpp:91] Creating Layer lstm1_h_concat
I0924 03:20:34.276029 22973 net.cpp:425] lstm1_h_concat <- h_1
I0924 03:20:34.276041 22973 net.cpp:399] lstm1_h_concat -> h
I0924 03:20:34.276051 22947 net.cpp:141] Setting up lstm1_
I0924 03:20:34.276077 22947 net.cpp:148] Top shape: 1 1 500 (500)
I0924 03:20:34.276090 22947 net.cpp:148] Top shape: 1 1 (1)
I0924 03:20:34.276099 22947 net.cpp:156] Memory required for data: 2004
I0924 03:20:34.276109 22947 layer_factory.hpp:77] Creating layer lstm1_
I0924 03:20:34.276129 22947 net.cpp:91] Creating Layer lstm1_
I0924 03:20:34.276149 22947 net.cpp:399] lstm1_ -> c_0
I0924 03:20:34.276170 22947 net.cpp:399] lstm1_ -> h_0
I0924 03:20:34.276264 22947 net.cpp:141] Setting up lstm1_
I0924 03:20:34.276280 22947 net.cpp:148] Top shape: 1 1 1000 (1000)
I0924 03:20:34.276293 22947 net.cpp:148] Top shape: 1 1 1000 (1000)
I0924 03:20:34.276300 22947 net.cpp:156] Memory required for data: 10004
I0924 03:20:34.276309 22947 layer_factory.hpp:77] Creating layer lstm1_cont_slice
I0924 03:20:34.276326 22947 net.cpp:91] Creating Layer lstm1_cont_slice
I0924 03:20:34.276335 22947 net.cpp:425] lstm1_cont_slice <- cont
I0924 03:20:34.276351 22947 net.cpp:399] lstm1_cont_slice -> cont_1
I0924 03:20:34.276365 22973 net.cpp:141] Setting up lstm1_h_concat
I0924 03:20:34.276378 22973 net.cpp:148] Top shape: 1 1 1000 (1000)
I0924 03:20:34.276383 22973 net.cpp:156] Memory required for data: 94016
I0924 03:20:34.276388 22973 layer_factory.hpp:77] Creating layer h_pseudoloss
I0924 03:20:34.276398 22973 net.cpp:91] Creating Layer h_pseudoloss
I0924 03:20:34.276403 22973 net.cpp:425] h_pseudoloss <- h
I0924 03:20:34.276412 22973 net.cpp:399] h_pseudoloss -> h_pseudoloss
I0924 03:20:34.276419 22939 net.cpp:141] Setting up lstm1
I0924 03:20:34.276437 22939 net.cpp:148] Top shape: 1 1 1000 (1000)
I0924 03:20:34.276443 22939 net.cpp:156] Memory required for data: 26408
I0924 03:20:34.276458 22967 net.cpp:141] Setting up lstm1_h_conted_0
I0924 03:20:34.276468 22939 layer_factory.hpp:77] Creating layer concat
I0924 03:20:34.276481 22967 net.cpp:148] Top shape: 1 1 1000 (1000)
I0924 03:20:34.276484 22939 net.cpp:91] Creating Layer concat
I0924 03:20:34.276504 22967 net.cpp:156] Memory required for data: 46016
I0924 03:20:34.276511 22967 layer_factory.hpp:77] Creating layer lstm1_transform_1
I0924 03:20:34.276510 22947 net.cpp:141] Setting up lstm1_cont_slice
I0924 03:20:34.276511 22939 net.cpp:425] concat <- lstm1
I0924 03:20:34.276530 22967 net.cpp:91] Creating Layer lstm1_transform_1
I0924 03:20:34.276535 22947 net.cpp:148] Top shape: 1 1 (1)
I0924 03:20:34.276540 22939 net.cpp:425] concat <- embedded_input_sentence
I0924 03:20:34.276542 22967 net.cpp:425] lstm1_transform_1 <- h_conted_0
I0924 03:20:34.276543 22947 net.cpp:156] Memory required for data: 10008
I0924 03:20:34.276551 22939 net.cpp:425] concat <- reshaped_stage_indicator
I0924 03:20:34.276553 22947 layer_factory.hpp:77] Creating layer cont_1_lstm1_cont_slice_0_split
I0924 03:20:34.276557 22967 net.cpp:399] lstm1_transform_1 -> W_hc_h_0
I0924 03:20:34.276563 22939 net.cpp:399] concat -> lstm1_video_sequence
I0924 03:20:34.276571 22947 net.cpp:91] Creating Layer cont_1_lstm1_cont_slice_0_split
I0924 03:20:34.276582 22947 net.cpp:425] cont_1_lstm1_cont_slice_0_split <- cont_1
I0924 03:20:34.276594 22947 net.cpp:399] cont_1_lstm1_cont_slice_0_split -> cont_1_lstm1_cont_slice_0_split_0
I0924 03:20:34.276607 22947 net.cpp:399] cont_1_lstm1_cont_slice_0_split -> cont_1_lstm1_cont_slice_0_split_1
I0924 03:20:34.276638 22973 net.cpp:141] Setting up h_pseudoloss
I0924 03:20:34.276651 22973 net.cpp:148] Top shape: (1)
I0924 03:20:34.276656 22973 net.cpp:151]     with loss weight 1
I0924 03:20:34.276690 22939 net.cpp:141] Setting up concat
I0924 03:20:34.276710 22973 net.cpp:156] Memory required for data: 94020
I0924 03:20:34.276726 22939 net.cpp:148] Top shape: 1 1 1501 (1501)
I0924 03:20:34.276732 22973 net.cpp:217] h_pseudoloss needs backward computation.
I0924 03:20:34.276737 22939 net.cpp:156] Memory required for data: 32412
I0924 03:20:34.276739 22973 net.cpp:217] lstm1_h_concat needs backward computation.
I0924 03:20:34.276751 22939 layer_factory.hpp:77] Creating layer lstm2
I0924 03:20:34.276756 22973 net.cpp:219] lstm1_ does not need backward computation.
…
I0924 03:20:34.276805 22973 net.cpp:217] lstm1_x_transform needs backward computation.
I0924 03:20:34.276813 22939 net.cpp:399] lstm2 -> lstm2
I0924 03:20:34.276814 22973 net.cpp:219] cont_1_lstm1_cont_slice_0_split does not need backward computation.
I0924 03:20:34.276829 22973 net.cpp:219] lstm1_cont_slice does not need backward computation.
I0924 03:20:34.276826 22947 net.cpp:141] Setting up cont_1_lstm1_cont_slice_0_split
I0924 03:20:34.276832 22939 recurrent_layer.cpp:20] Initializing recurrent layer: assuming input batch contains 1 timesteps of 1 independent streams.
I0924 03:20:34.276844 22947 net.cpp:148] Top shape: 1 1 (1)
I0924 03:20:34.276836 22973 net.cpp:219] lstm1_ does not need backward computation.
I0924 03:20:34.276859 22947 net.cpp:148] Top shape: 1 1 (1)
I0924 03:20:34.276864 22973 net.cpp:219] lstm1_ does not need backward computation.
I0924 03:20:34.276867 22947 net.cpp:156] Memory required for data: 10016
I0924 03:20:34.276870 22973 net.cpp:261] This network produces output c_T
I0924 03:20:34.276880 22947 layer_factory.hpp:77] Creating layer lstm1_x_transform
I0924 03:20:34.276888 22973 net.cpp:261] This network produces output h_pseudoloss
I0924 03:20:34.276899 22947 net.cpp:91] Creating Layer lstm1_x_transform
I0924 03:20:34.276907 22973 net.cpp:274] Network initialization done.
I0924 03:20:34.276908 22947 net.cpp:425] lstm1_x_transform <- x
I0924 03:20:34.276923 22947 net.cpp:399] lstm1_x_transform -> W_xc_x
I0924 03:20:34.276965 22973 recurrent_layer.cpp:150] Adding parameter 0: W_xc
I0924 03:20:34.276973 22973 recurrent_layer.cpp:150] Adding parameter 1: b_c
I0924 03:20:34.276978 22973 recurrent_layer.cpp:150] Adding parameter 2: W_hc
I0924 03:20:34.277202 22939 net.cpp:49] Initializing net from parameters: 
layer {
  name: "lstm2_"
  type: "Input"
  top: "x"
  top: "cont"
  input_param {
    shape {
      dim: 1
      dim: 1
      dim: 1501
    }
    shape {
      dim: 1
      dim: 1
    }
  }
}
layer {
  name: "lstm2_"
  type: "Input"
  top: "c_0"
  top: "h_0"
  input_param {
    shape {
      dim: 1
      dim: 1
      dim: 1000
    }
    shape {
      dim: 1
      dim: 1
      dim: 1000
    }
  }
}
layer {
  name: "lstm2_cont_slice"
  type: "Slice"
  bottom: "cont"
  top: "cont_1"
  slice_param {
    axis: 0
  }
}
layer {
  name: "lstm2_x_transform"
  type: "InnerProduct"
  bottom: "x"
  top: "W_xc_x"
  param {
    name: "W_xc"
  }
  param {
    name: "b_c"
  }
  propagate_down: true
  inner_product_param {
    num_output: 4000
    bias_term: true
    weight_filler {
      type: "uniform"
      min: -0.08
      max: 0.08
    }
    bias_filler {
      type: "constant"
      value: 0
    }
    axis: 2
  }
}
layer {
  name: "lstm2_W_xc_x_slice"
  type: "Slice"
  bottom: "W_xc_x"
  top: "W_xc_x_1"
  slice_param {
    axis: 0
  }
}
layer {
  name: "lstm2_h_conted_0"
  type: "Scale"
  bottom: "h_0"
  bottom: "cont_1"
  top: "h_conted_0"
  scale_param {
    axis: 0
  }
}
layer {
  name: "lstm2_transform_1"
  type: "InnerProduct"
  bottom: "h_conted_0"
  top: "W_hc_h_0"
  param {
    name: "W_hc"
  }
  inner_product_param {
    num_output: 4000
    bias_term: false
    weight_filler {
      type: "uniform"
      min: -0.08
      max: 0.08
    }
    axis: 2
  }
}
layer {
  name: "lstm2_gate_input_1"
  type: "Eltwise"
  bottom: "W_hc_h_0"
  bottom: "W_xc_x_1"
  top: "gate_input_1"
  eltwise_param {
    operation: SUM
  }
}
layer {
  name: "lstm2_unit_1"
  type: "LSTMUnit"
  bottom: "c_0"
  bottom: "gate_input_1"
  bottom: "cont_1"
  top: "c_1"
  top: "h_1"
}
layer {
  name: "lstm2_"
  type: "Split"
  bottom: "c_1"
  top: "c_T"
}
layer {
  name: "lstm2_h_concat"
  type: "Concat"
  bottom: "h_1"
  top: "h"
  concat_param {
    axis: 0
  }
}
layer {
  name: "h_pseudoloss"
  type: "Reduction"
  bottom: "h"
  top: "h_pseudoloss"
  loss_weight: 1
}
I0924 03:20:34.277325 22939 layer_factory.hpp:77] Creating layer lstm2_
I0924 03:20:34.277343 22939 net.cpp:91] Creating Layer lstm2_
I0924 03:20:34.277354 22939 net.cpp:399] lstm2_ -> x
I0924 03:20:34.277372 22939 net.cpp:399] lstm2_ -> cont
I0924 03:20:34.296146 22933 net.cpp:141] Setting up embedding
I0924 03:20:34.296201 22933 net.cpp:148] Top shape: 1 1 500 (500)
I0924 03:20:34.296210 22933 net.cpp:156] Memory required for data: 22408
I0924 03:20:34.296236 22933 layer_factory.hpp:77] Creating layer lstm1
I0924 03:20:34.296263 22933 net.cpp:91] Creating Layer lstm1
I0924 03:20:34.296272 22933 net.cpp:425] lstm1 <- embedded_input_frames
I0924 03:20:34.296283 22933 net.cpp:425] lstm1 <- cont_sentence_input_1_split_0
I0924 03:20:34.296296 22933 net.cpp:399] lstm1 -> lstm1
I0924 03:20:34.296321 22933 recurrent_layer.cpp:20] Initializing recurrent layer: assuming input batch contains 1 timesteps of 1 independent streams.
I0924 03:20:34.296684 22933 net.cpp:49] Initializing net from parameters: 
layer {
  name: "lstm1_"
  type: "Input"
  top: "x"
  top: "cont"
  input_param {
    shape {
      dim: 1
      dim: 1
      dim: 500
    }
    shape {
      dim: 1
      dim: 1
    }
  }
}
layer {
  name: "lstm1_"
  type: "Input"
  top: "c_0"
  top: "h_0"
  input_param {
    shape {
      dim: 1
      dim: 1
      dim: 1000
    }
    shape {
      dim: 1
      dim: 1
      dim: 1000
    }
  }
}
layer {
  name: "lstm1_cont_slice"
  type: "Slice"
  bottom: "cont"
  top: "cont_1"
  slice_param {
    axis: 0
  }
}
layer {
  name: "lstm1_x_transform"
  type: "InnerProduct"
  bottom: "x"
  top: "W_xc_x"
  param {
    name: "W_xc"
  }
  param {
    name: "b_c"
  }
  propagate_down: true
  inner_product_param {
    num_output: 4000
    bias_term: true
    weight_filler {
      type: "uniform"
      min: -0.08
      max: 0.08
    }
    bias_filler {
      type: "constant"
      value: 0
    }
    axis: 2
  }
}
layer {
  name: "lstm1_W_xc_x_slice"
  type: "Slice"
  bottom: "W_xc_x"
  top: "W_xc_x_1"
  slice_param {
    axis: 0
  }
}
layer {
  name: "lstm1_h_conted_0"
  type: "Scale"
  bottom: "h_0"
  bottom: "cont_1"
  top: "h_conted_0"
  scale_param {
    axis: 0
  }
}
layer {
  name: "lstm1_transform_1"
  type: "InnerProduct"
  bottom: "h_conted_0"
  top: "W_hc_h_0"
  param {
    name: "W_hc"
  }
  inner_product_param {
    num_output: 4000
    bias_term: false
    weight_filler {
      type: "uniform"
      min: -0.08
      max: 0.08
    }
    axis: 2
  }
}
layer {
  name: "lstm1_gate_input_1"
  type: "Eltwise"
  bottom: "W_hc_h_0"
  bottom: "W_xc_x_1"
  top: "gate_input_1"
  eltwise_param {
    operation: SUM
  }
}
layer {
  name: "lstm1_unit_1"
  type: "LSTMUnit"
  bottom: "c_0"
  bottom: "gate_input_1"
  bottom: "cont_1"
  top: "c_1"
  top: "h_1"
}
layer {
  name: "lstm1_"
  type: "Split"
  bottom: "c_1"
  top: "c_T"
}
layer {
  name: "lstm1_h_concat"
  type: "Concat"
  bottom: "h_1"
  top: "h"
  concat_param {
    axis: 0
  }
}
layer {
  name: "h_pseudoloss"
  type: "Reduction"
  bottom: "h"
  top: "h_pseudoloss"
  loss_weight: 1
}
I0924 03:20:34.296797 22933 layer_factory.hpp:77] Creating layer lstm1_
I0924 03:20:34.296813 22933 net.cpp:91] Creating Layer lstm1_
I0924 03:20:34.296821 22933 net.cpp:399] lstm1_ -> x
I0924 03:20:34.296839 22933 net.cpp:399] lstm1_ -> cont
I0924 03:20:34.296921 22933 net.cpp:141] Setting up lstm1_
I0924 03:20:34.296932 22933 net.cpp:148] Top shape: 1 1 500 (500)
I0924 03:20:34.296939 22933 net.cpp:148] Top shape: 1 1 (1)
I0924 03:20:34.296947 22933 net.cpp:156] Memory required for data: 2004
I0924 03:20:34.296957 22933 layer_factory.hpp:77] Creating layer lstm1_
I0924 03:20:34.296967 22933 net.cpp:91] Creating Layer lstm1_
I0924 03:20:34.296983 22933 net.cpp:399] lstm1_ -> c_0
I0924 03:20:34.296993 22933 net.cpp:399] lstm1_ -> h_0
I0924 03:20:34.297070 22933 net.cpp:141] Setting up lstm1_
I0924 03:20:34.297083 22933 net.cpp:148] Top shape: 1 1 1000 (1000)
I0924 03:20:34.297096 22933 net.cpp:148] Top shape: 1 1 1000 (1000)
I0924 03:20:34.297102 22933 net.cpp:156] Memory required for data: 10004
I0924 03:20:34.297107 22933 layer_factory.hpp:77] Creating layer lstm1_cont_slice
I0924 03:20:34.297116 22933 net.cpp:91] Creating Layer lstm1_cont_slice
I0924 03:20:34.297122 22933 net.cpp:425] lstm1_cont_slice <- cont
I0924 03:20:34.297129 22933 net.cpp:399] lstm1_cont_slice -> cont_1
I0924 03:20:34.297178 22933 net.cpp:141] Setting up lstm1_cont_slice
I0924 03:20:34.297188 22933 net.cpp:148] Top shape: 1 1 (1)
I0924 03:20:34.297194 22933 net.cpp:156] Memory required for data: 10008
I0924 03:20:34.297197 22933 layer_factory.hpp:77] Creating layer cont_1_lstm1_cont_slice_0_split
I0924 03:20:34.297210 22933 net.cpp:91] Creating Layer cont_1_lstm1_cont_slice_0_split
I0924 03:20:34.297220 22933 net.cpp:425] cont_1_lstm1_cont_slice_0_split <- cont_1
I0924 03:20:34.297230 22933 net.cpp:399] cont_1_lstm1_cont_slice_0_split -> cont_1_lstm1_cont_slice_0_split_0
I0924 03:20:34.297238 22933 net.cpp:399] cont_1_lstm1_cont_slice_0_split -> cont_1_lstm1_cont_slice_0_split_1
I0924 03:20:34.297300 22933 net.cpp:141] Setting up cont_1_lstm1_cont_slice_0_split
I0924 03:20:34.297310 22933 net.cpp:148] Top shape: 1 1 (1)
I0924 03:20:34.297317 22933 net.cpp:148] Top shape: 1 1 (1)
I0924 03:20:34.297320 22933 net.cpp:156] Memory required for data: 10016
I0924 03:20:34.297328 22933 layer_factory.hpp:77] Creating layer lstm1_x_transform
I0924 03:20:34.297343 22933 net.cpp:91] Creating Layer lstm1_x_transform
I0924 03:20:34.297350 22933 net.cpp:425] lstm1_x_transform <- x
I0924 03:20:34.297361 22933 net.cpp:399] lstm1_x_transform -> W_xc_x
I0924 03:20:34.302321 22939 net.cpp:141] Setting up lstm2_
I0924 03:20:34.302386 22939 net.cpp:148] Top shape: 1 1 1501 (1501)
I0924 03:20:34.302412 22939 net.cpp:148] Top shape: 1 1 (1)
I0924 03:20:34.302424 22939 net.cpp:156] Memory required for data: 6008
I0924 03:20:34.302444 22939 layer_factory.hpp:77] Creating layer lstm2_
I0924 03:20:34.302484 22939 net.cpp:91] Creating Layer lstm2_
I0924 03:20:34.302520 22939 net.cpp:399] lstm2_ -> c_0
I0924 03:20:34.302561 22939 net.cpp:399] lstm2_ -> h_0
I0924 03:20:34.302546 22973 net.cpp:141] Setting up lstm1
I0924 03:20:34.302628 22973 net.cpp:148] Top shape: 1 1 1000 (1000)
I0924 03:20:34.302641 22973 net.cpp:156] Memory required for data: 26408
I0924 03:20:34.302681 22973 layer_factory.hpp:77] Creating layer concat
I0924 03:20:34.302709 22973 net.cpp:91] Creating Layer concat
I0924 03:20:34.302724 22973 net.cpp:425] concat <- lstm1
I0924 03:20:34.302738 22973 net.cpp:425] concat <- embedded_input_sentence
I0924 03:20:34.302749 22973 net.cpp:425] concat <- reshaped_stage_indicator
I0924 03:20:34.302763 22973 net.cpp:399] concat -> lstm1_video_sequence
I0924 03:20:34.303778 22973 net.cpp:141] Setting up concat
I0924 03:20:34.303799 22973 net.cpp:148] Top shape: 1 1 1501 (1501)
I0924 03:20:34.303808 22973 net.cpp:156] Memory required for data: 32412
I0924 03:20:34.303817 22973 layer_factory.hpp:77] Creating layer lstm2
I0924 03:20:34.303844 22973 net.cpp:91] Creating Layer lstm2
I0924 03:20:34.303841 22939 net.cpp:141] Setting up lstm2_
I0924 03:20:34.303864 22973 net.cpp:425] lstm2 <- lstm1_video_sequence
I0924 03:20:34.303886 22939 net.cpp:148] Top shape: 1 1 1000 (1000)
I0924 03:20:34.303891 22973 net.cpp:425] lstm2 <- cont_sentence_input_1_split_1
I0924 03:20:34.303899 22939 net.cpp:148] Top shape: 1 1 1000 (1000)
I0924 03:20:34.303910 22973 net.cpp:399] lstm2 -> lstm2
I0924 03:20:34.303910 22939 net.cpp:156] Memory required for data: 14008
I0924 03:20:34.303933 22939 layer_factory.hpp:77] Creating layer lstm2_cont_slice
I0924 03:20:34.303936 22973 recurrent_layer.cpp:20] Initializing recurrent layer: assuming input batch contains 1 timesteps of 1 independent streams.
I0924 03:20:34.303951 22939 net.cpp:91] Creating Layer lstm2_cont_slice
I0924 03:20:34.303961 22939 net.cpp:425] lstm2_cont_slice <- cont
I0924 03:20:34.303978 22939 net.cpp:399] lstm2_cont_slice -> cont_1
I0924 03:20:34.304389 22973 net.cpp:49] Initializing net from parameters: 
layer {
  name: "lstm2_"
  type: "Input"
  top: "x"
  top: "cont"
  input_param {
    shape {
      dim: 1
      dim: 1
      dim: 1501
    }
    shape {
      dim: 1
      dim: 1
    }
  }
}
layer {
  name: "lstm2_"
  type: "Input"
  top: "c_0"
  top: "h_0"
  input_param {
    shape {
      dim: 1
      dim: 1
      dim: 1000
    }
    shape {
      dim: 1
      dim: 1
      dim: 1000
    }
  }
}
layer {
  name: "lstm2_cont_slice"
  type: "Slice"
  bottom: "cont"
  top: "cont_1"
  slice_param {
    axis: 0
  }
}
layer {
  name: "lstm2_x_transform"
  type: "InnerProduct"
  bottom: "x"
  top: "W_xc_x"
  param {
    name: "W_xc"
  }
  param {
    name: "b_c"
  }
  propagate_down: true
  inner_product_param {
    num_output: 4000
    bias_term: true
    weight_filler {
      type: "uniform"
      min: -0.08
      max: 0.08
    }
    bias_filler {
      type: "constant"
      value: 0
    }
    axis: 2
  }
}
layer {
  name: "lstm2_W_xc_x_slice"
  type: "Slice"
  bottom: "W_xc_x"
  top: "W_xc_x_1"
  slice_param {
    axis: 0
  }
}
layer {
  name: "lstm2_h_conted_0"
  type: "Scale"
  bottom: "h_0"
  bottom: "cont_1"
  top: "h_conted_0"
  scale_param {
    axis: 0
  }
}
layer {
  name: "lstm2_transform_1"
  type: "InnerProduct"
  bottom: "h_conted_0"
  top: "W_hc_h_0"
  param {
    name: "W_hc"
  }
  inner_product_param {
    num_output: 4000
    bias_term: false
    weight_filler {
      type: "uniform"
      min: -0.08
      max: 0.08
    }
    axis: 2
  }
}
layer {
  name: "lstm2_gate_input_1"
  type: "Eltwise"
  bottom: "W_hc_h_0"
  bottom: "W_xc_x_1"
  top: "gate_input_1"
  eltwise_param {
    operation: SUM
  }
}
layer {
  name: "lstm2_unit_1"
  type: "LSTMUnit"
  bottom: "c_0"
  bottom: "gate_input_1"
  bottom: "cont_1"
  top: "c_1"
  top: "h_1"
}
layer {
  name: "lstm2_"
  type: "Split"
  bottom: "c_1"
  top: "c_T"
}
layer {
  name: "lstm2_h_concat"
  type: "Concat"
  bottom: "h_1"
  top: "h"
  concat_param {
    axis: 0
  }
}
layer {
  name: "h_pseudoloss"
  type: "Reduction"
  bottom: "h"
  top: "h_pseudoloss"
  loss_weight: 1
}
I0924 03:20:34.304568 22973 layer_factory.hpp:77] Creating layer lstm2_
I0924 03:20:34.304591 22973 net.cpp:91] Creating Layer lstm2_
I0924 03:20:34.304605 22973 net.cpp:399] lstm2_ -> x
I0924 03:20:34.304625 22973 net.cpp:399] lstm2_ -> cont
I0924 03:20:34.314085 22939 net.cpp:141] Setting up lstm2_cont_slice
I0924 03:20:34.314133 22939 net.cpp:148] Top shape: 1 1 (1)
I0924 03:20:34.314141 22939 net.cpp:156] Memory required for data: 14012
I0924 03:20:34.314152 22939 layer_factory.hpp:77] Creating layer cont_1_lstm2_cont_slice_0_split
I0924 03:20:34.314170 22939 net.cpp:91] Creating Layer cont_1_lstm2_cont_slice_0_split
I0924 03:20:34.314180 22939 net.cpp:425] cont_1_lstm2_cont_slice_0_split <- cont_1
I0924 03:20:34.314195 22939 net.cpp:399] cont_1_lstm2_cont_slice_0_split -> cont_1_lstm2_cont_slice_0_split_0
I0924 03:20:34.314213 22939 net.cpp:399] cont_1_lstm2_cont_slice_0_split -> cont_1_lstm2_cont_slice_0_split_1
I0924 03:20:34.314209 22973 net.cpp:141] Setting up lstm2_
I0924 03:20:34.314249 22973 net.cpp:148] Top shape: 1 1 1501 (1501)
I0924 03:20:34.314257 22973 net.cpp:148] Top shape: 1 1 (1)
I0924 03:20:34.314261 22973 net.cpp:156] Memory required for data: 6008
I0924 03:20:34.314270 22973 layer_factory.hpp:77] Creating layer lstm2_
I0924 03:20:34.314293 22973 net.cpp:91] Creating Layer lstm2_
I0924 03:20:34.314309 22973 net.cpp:399] lstm2_ -> c_0
I0924 03:20:34.314321 22939 net.cpp:141] Setting up cont_1_lstm2_cont_slice_0_split
I0924 03:20:34.314327 22973 net.cpp:399] lstm2_ -> h_0
I0924 03:20:34.314334 22939 net.cpp:148] Top shape: 1 1 (1)
I0924 03:20:34.314344 22939 net.cpp:148] Top shape: 1 1 (1)
I0924 03:20:34.314352 22939 net.cpp:156] Memory required for data: 14020
I0924 03:20:34.314359 22939 layer_factory.hpp:77] Creating layer lstm2_x_transform
I0924 03:20:34.314383 22939 net.cpp:91] Creating Layer lstm2_x_transform
I0924 03:20:34.314390 22939 net.cpp:425] lstm2_x_transform <- x
I0924 03:20:34.314404 22939 net.cpp:399] lstm2_x_transform -> W_xc_x
I0924 03:20:34.314412 22935 net.cpp:141] Setting up embedding
I0924 03:20:34.314437 22935 net.cpp:148] Top shape: 1 1 500 (500)
I0924 03:20:34.314442 22935 net.cpp:156] Memory required for data: 22408
I0924 03:20:34.314456 22935 layer_factory.hpp:77] Creating layer lstm1
I0924 03:20:34.314461 22973 net.cpp:141] Setting up lstm2_
I0924 03:20:34.314471 22935 net.cpp:91] Creating Layer lstm1
I0924 03:20:34.314473 22973 net.cpp:148] Top shape: 1 1 1000 (1000)
I0924 03:20:34.314477 22935 net.cpp:425] lstm1 <- embedded_input_frames
I0924 03:20:34.314481 22973 net.cpp:148] Top shape: 1 1 1000 (1000)
I0924 03:20:34.314492 22935 net.cpp:425] lstm1 <- cont_sentence_input_1_split_0
I0924 03:20:34.314492 22973 net.cpp:156] Memory required for data: 14008
I0924 03:20:34.314503 22935 net.cpp:399] lstm1 -> lstm1
I0924 03:20:34.314504 22973 layer_factory.hpp:77] Creating layer lstm2_cont_slice
I0924 03:20:34.314522 22935 recurrent_layer.cpp:20] Initializing recurrent layer: assuming input batch contains 1 timesteps of 1 independent streams.
I0924 03:20:34.314523 22973 net.cpp:91] Creating Layer lstm2_cont_slice
I0924 03:20:34.314534 22973 net.cpp:425] lstm2_cont_slice <- cont
I0924 03:20:34.314543 22973 net.cpp:399] lstm2_cont_slice -> cont_1
I0924 03:20:34.328168 22935 net.cpp:49] Initializing net from parameters: 
layer {
  name: "lstm1_"
  type: "Input"
  top: "x"
  top: "cont"
  input_param {
    shape {
      dim: 1
      dim: 1
      dim: 500
    }
    shape {
      dim: 1
      dim: 1
    }
  }
}
layer {
  name: "lstm1_"
  type: "Input"
  top: "c_0"
  top: "h_0"
  input_param {
    shape {
      dim: 1
      dim: 1
      dim: 1000
    }
    shape {
      dim: 1
      dim: 1
      dim: 1000
    }
  }
}
layer {
  name: "lstm1_cont_slice"
  type: "Slice"
  bottom: "cont"
  top: "cont_1"
  slice_param {
    axis: 0
  }
}
layer {
  name: "lstm1_x_transform"
  type: "InnerProduct"
  bottom: "x"
  top: "W_xc_x"
  param {
    name: "W_xc"
  }
  param {
    name: "b_c"
  }
  propagate_down: true
  inner_product_param {
    num_output: 4000
    bias_term: true
    weight_filler {
      type: "uniform"
      min: -0.08
      max: 0.08
    }
    bias_filler {
      type: "constant"
      value: 0
    }
    axis: 2
  }
}
layer {
  name: "lstm1_W_xc_x_slice"
  type: "Slice"
  bottom: "W_xc_x"
  top: "W_xc_x_1"
  slice_param {
    axis: 0
  }
}
layer {
  name: "lstm1_h_conted_0"
  type: "Scale"
  bottom: "h_0"
  bottom: "cont_1"
  top: "h_conted_0"
  scale_param {
    axis: 0
  }
}
layer {
  name: "lstm1_transform_1"
  type: "InnerProduct"
  bottom: "h_conted_0"
  top: "W_hc_h_0"
  param {
    name: "W_hc"
  }
  inner_product_param {
    num_output: 4000
    bias_term: false
    weight_filler {
      type: "uniform"
      min: -0.08
      max: 0.08
    }
    axis: 2
  }
}
layer {
  name: "lstm1_gate_input_1"
  type: "Eltwise"
  bottom: "W_hc_h_0"
  bottom: "W_xc_x_1"
  top: "gate_input_1"
  eltwise_param {
    operation: SUM
  }
}
layer {
  name: "lstm1_unit_1"
  type: "LSTMUnit"
  bottom: "c_0"
  bottom: "gate_input_1"
  bottom: "cont_1"
  top: "c_1"
  top: "h_1"
}
layer {
  name: "lstm1_"
  type: "Split"
  bottom: "c_1"
  top: "c_T"
}
layer {
  name: "lstm1_h_concat"
  type: "Concat"
  bottom: "h_1"
  top: "h"
  concat_param {
    axis: 0
  }
}
layer {
  name: "h_pseudoloss"
  type: "Reduction"
  bottom: "h"
  top: "h_pseudoloss"
  loss_weight: 1
}
I0924 03:20:34.328239 22973 net.cpp:141] Setting up lstm2_cont_slice
I0924 03:20:34.328272 22973 net.cpp:148] Top shape: 1 1 (1)
I0924 03:20:34.328281 22973 net.cpp:156] Memory required for data: 14012
I0924 03:20:34.328292 22973 layer_factory.hpp:77] Creating layer cont_1_lstm2_cont_slice_0_split
I0924 03:20:34.328317 22973 net.cpp:91] Creating Layer cont_1_lstm2_cont_slice_0_split
I0924 03:20:34.328330 22973 net.cpp:425] cont_1_lstm2_cont_slice_0_split <- cont_1
I0924 03:20:34.328344 22973 net.cpp:399] cont_1_lstm2_cont_slice_0_split -> cont_1_lstm2_cont_slice_0_split_0
I0924 03:20:34.328363 22973 net.cpp:399] cont_1_lstm2_cont_slice_0_split -> cont_1_lstm2_cont_slice_0_split_1
I0924 03:20:34.328408 22935 layer_factory.hpp:77] Creating layer lstm1_
I0924 03:20:34.328434 22935 net.cpp:91] Creating Layer lstm1_
I0924 03:20:34.328446 22935 net.cpp:399] lstm1_ -> x
I0924 03:20:34.328467 22935 net.cpp:399] lstm1_ -> cont
I0924 03:20:34.328560 22973 net.cpp:141] Setting up cont_1_lstm2_cont_slice_0_split
I0924 03:20:34.328577 22973 net.cpp:148] Top shape: 1 1 (1)
I0924 03:20:34.328588 22973 net.cpp:148] Top shape: 1 1 (1)
I0924 03:20:34.328593 22973 net.cpp:156] Memory required for data: 14020
I0924 03:20:34.328601 22973 layer_factory.hpp:77] Creating layer lstm2_x_transform
I0924 03:20:34.328624 22973 net.cpp:91] Creating Layer lstm2_x_transform
I0924 03:20:34.328632 22973 net.cpp:425] lstm2_x_transform <- x
I0924 03:20:34.328626 22947 net.cpp:141] Setting up lstm1_x_transform
I0924 03:20:34.328645 22973 net.cpp:399] lstm2_x_transform -> W_xc_x
I0924 03:20:34.328675 22947 net.cpp:148] Top shape: 1 1 4000 (4000)
I0924 03:20:34.328682 22947 net.cpp:156] Memory required for data: 26016
I0924 03:20:34.328707 22947 layer_factory.hpp:77] Creating layer lstm1_W_xc_x_slice
I0924 03:20:34.328724 22947 net.cpp:91] Creating Layer lstm1_W_xc_x_slice
I0924 03:20:34.328732 22947 net.cpp:425] lstm1_W_xc_x_slice <- W_xc_x
I0924 03:20:34.328745 22947 net.cpp:399] lstm1_W_xc_x_slice -> W_xc_x_1
I0924 03:20:34.328933 22935 net.cpp:141] Setting up lstm1_
I0924 03:20:34.328951 22935 net.cpp:148] Top shape: 1 1 500 (500)
I0924 03:20:34.328963 22935 net.cpp:148] Top shape: 1 1 (1)
I0924 03:20:34.328969 22935 net.cpp:156] Memory required for data: 2004
I0924 03:20:34.328979 22935 layer_factory.hpp:77] Creating layer lstm1_
I0924 03:20:34.328991 22947 net.cpp:141] Setting up lstm1_W_xc_x_slice
I0924 03:20:34.328996 22935 net.cpp:91] Creating Layer lstm1_
I0924 03:20:34.329010 22935 net.cpp:399] lstm1_ -> c_0
I0924 03:20:34.329011 22947 net.cpp:148] Top shape: 1 1 4000 (4000)
I0924 03:20:34.329020 22947 net.cpp:156] Memory required for data: 42016
I0924 03:20:34.329025 22947 layer_factory.hpp:77] Creating layer lstm1_h_conted_0
I0924 03:20:34.329026 22935 net.cpp:399] lstm1_ -> h_0
I0924 03:20:34.329036 22947 net.cpp:91] Creating Layer lstm1_h_conted_0
I0924 03:20:34.329042 22947 net.cpp:425] lstm1_h_conted_0 <- h_0
I0924 03:20:34.329048 22947 net.cpp:425] lstm1_h_conted_0 <- cont_1_lstm1_cont_slice_0_split_0
I0924 03:20:34.329056 22947 net.cpp:399] lstm1_h_conted_0 -> h_conted_0
I0924 03:20:34.344573 22967 net.cpp:141] Setting up lstm1_transform_1
I0924 03:20:34.344624 22967 net.cpp:148] Top shape: 1 1 4000 (4000)
I0924 03:20:34.344631 22967 net.cpp:156] Memory required for data: 62016
I0924 03:20:34.344652 22967 layer_factory.hpp:77] Creating layer lstm1_gate_input_1
I0924 03:20:34.344681 22967 net.cpp:91] Creating Layer lstm1_gate_input_1
I0924 03:20:34.344688 22967 net.cpp:425] lstm1_gate_input_1 <- W_hc_h_0
I0924 03:20:34.344696 22967 net.cpp:425] lstm1_gate_input_1 <- W_xc_x_1
I0924 03:20:34.344704 22967 net.cpp:399] lstm1_gate_input_1 -> gate_input_1
I0924 03:20:34.344744 22935 net.cpp:141] Setting up lstm1_
I0924 03:20:34.344791 22935 net.cpp:148] Top shape: 1 1 1000 (1000)
I0924 03:20:34.344802 22935 net.cpp:148] Top shape: 1 1 1000 (1000)
I0924 03:20:34.344810 22935 net.cpp:156] Memory required for data: 10004
I0924 03:20:34.344820 22935 layer_factory.hpp:77] Creating layer lstm1_cont_slice
I0924 03:20:34.344846 22935 net.cpp:91] Creating Layer lstm1_cont_slice
I0924 03:20:34.344852 22967 net.cpp:141] Setting up lstm1_gate_input_1
I0924 03:20:34.344856 22935 net.cpp:425] lstm1_cont_slice <- cont
I0924 03:20:34.344892 22967 net.cpp:148] Top shape: 1 1 4000 (4000)
I0924 03:20:34.344902 22967 net.cpp:156] Memory required for data: 78016
I0924 03:20:34.344907 22967 layer_factory.hpp:77] Creating layer lstm1_unit_1
I0924 03:20:34.344987 22967 net.cpp:91] Creating Layer lstm1_unit_1
I0924 03:20:34.344991 22935 net.cpp:399] lstm1_cont_slice -> cont_1
I0924 03:20:34.344995 22967 net.cpp:425] lstm1_unit_1 <- c_0
I0924 03:20:34.344995 22929 net.cpp:141] Setting up lstm2_x_transform
I0924 03:20:34.345023 22967 net.cpp:425] lstm1_unit_1 <- gate_input_1
I0924 03:20:34.345031 22967 net.cpp:425] lstm1_unit_1 <- cont_1_lstm1_cont_slice_0_split_1
I0924 03:20:34.345036 22929 net.cpp:148] Top shape: 1 1 4000 (4000)
I0924 03:20:34.345038 22967 net.cpp:399] lstm1_unit_1 -> c_1
I0924 03:20:34.345048 22929 net.cpp:156] Memory required for data: 30020
I0924 03:20:34.345058 22967 net.cpp:399] lstm1_unit_1 -> h_1
I0924 03:20:34.345070 22929 layer_factory.hpp:77] Creating layer lstm2_W_xc_x_slice
I0924 03:20:34.345093 22929 net.cpp:91] Creating Layer lstm2_W_xc_x_slice
I0924 03:20:34.345103 22929 net.cpp:425] lstm2_W_xc_x_slice <- W_xc_x
I0924 03:20:34.345115 22929 net.cpp:399] lstm2_W_xc_x_slice -> W_xc_x_1
I0924 03:20:34.345235 22933 net.cpp:141] Setting up lstm1_x_transform
I0924 03:20:34.345252 22933 net.cpp:148] Top shape: 1 1 4000 (4000)
I0924 03:20:34.345257 22933 net.cpp:156] Memory required for data: 26016
I0924 03:20:34.345269 22933 layer_factory.hpp:77] Creating layer lstm1_W_xc_x_slice
I0924 03:20:34.345278 22933 net.cpp:91] Creating Layer lstm1_W_xc_x_slice
I0924 03:20:34.345284 22933 net.cpp:425] lstm1_W_xc_x_slice <- W_xc_x
I0924 03:20:34.345294 22933 net.cpp:399] lstm1_W_xc_x_slice -> W_xc_x_1
I0924 03:20:34.345301 22935 net.cpp:141] Setting up lstm1_cont_slice
I0924 03:20:34.345326 22935 net.cpp:148] Top shape: 1 1 (1)
I0924 03:20:34.345335 22935 net.cpp:156] Memory required for data: 10008
I0924 03:20:34.345343 22935 layer_factory.hpp:77] Creating layer cont_1_lstm1_cont_slice_0_split
I0924 03:20:34.345356 22935 net.cpp:91] Creating Layer cont_1_lstm1_cont_slice_0_split
I0924 03:20:34.345365 22935 net.cpp:425] cont_1_lstm1_cont_slice_0_split <- cont_1
I0924 03:20:34.345376 22935 net.cpp:399] cont_1_lstm1_cont_slice_0_split -> cont_1_lstm1_cont_slice_0_split_0
I0924 03:20:34.345391 22935 net.cpp:399] cont_1_lstm1_cont_slice_0_split -> cont_1_lstm1_cont_slice_0_split_1
I0924 03:20:34.345393 22929 net.cpp:141] Setting up lstm2_W_xc_x_slice
I0924 03:20:34.345409 22929 net.cpp:148] Top shape: 1 1 4000 (4000)
I0924 03:20:34.345417 22929 net.cpp:156] Memory required for data: 46020
I0924 03:20:34.345425 22929 layer_factory.hpp:77] Creating layer lstm2_h_conted_0
I0924 03:20:34.345446 22929 net.cpp:91] Creating Layer lstm2_h_conted_0
I0924 03:20:34.345455 22929 net.cpp:425] lstm2_h_conted_0 <- h_0
I0924 03:20:34.345464 22929 net.cpp:425] lstm2_h_conted_0 <- cont_1_lstm2_cont_slice_0_split_0
I0924 03:20:34.345465 22933 net.cpp:141] Setting up lstm1_W_xc_x_slice
I0924 03:20:34.345476 22929 net.cpp:399] lstm2_h_conted_0 -> h_conted_0
I0924 03:20:34.345479 22933 net.cpp:148] Top shape: 1 1 4000 (4000)
I0924 03:20:34.345491 22933 net.cpp:156] Memory required for data: 42016
I0924 03:20:34.345497 22933 layer_factory.hpp:77] Creating layer lstm1_h_conted_0
I0924 03:20:34.345510 22933 net.cpp:91] Creating Layer lstm1_h_conted_0
I0924 03:20:34.345517 22933 net.cpp:425] lstm1_h_conted_0 <- h_0
I0924 03:20:34.345525 22933 net.cpp:425] lstm1_h_conted_0 <- cont_1_lstm1_cont_slice_0_split_0
I0924 03:20:34.345531 22933 net.cpp:399] lstm1_h_conted_0 -> h_conted_0
I0924 03:20:34.345626 22947 net.cpp:141] Setting up lstm1_h_conted_0
I0924 03:20:34.345644 22947 net.cpp:148] Top shape: 1 1 1000 (1000)
I0924 03:20:34.345652 22947 net.cpp:156] Memory required for data: 46016
I0924 03:20:34.345657 22947 layer_factory.hpp:77] Creating layer lstm1_transform_1
I0924 03:20:34.345670 22947 net.cpp:91] Creating Layer lstm1_transform_1
I0924 03:20:34.345676 22947 net.cpp:425] lstm1_transform_1 <- h_conted_0
I0924 03:20:34.345685 22947 net.cpp:399] lstm1_transform_1 -> W_hc_h_0
I0924 03:20:34.346287 22967 net.cpp:141] Setting up lstm1_unit_1
I0924 03:20:34.346299 22967 net.cpp:148] Top shape: 1 1 1000 (1000)
I0924 03:20:34.346305 22967 net.cpp:148] Top shape: 1 1 1000 (1000)
I0924 03:20:34.346309 22967 net.cpp:156] Memory required for data: 86016
I0924 03:20:34.346313 22967 layer_factory.hpp:77] Creating layer lstm1_
I0924 03:20:34.346323 22967 net.cpp:91] Creating Layer lstm1_
I0924 03:20:34.346333 22967 net.cpp:425] lstm1_ <- c_1
I0924 03:20:34.346346 22967 net.cpp:399] lstm1_ -> c_T
I0924 03:20:34.354310 22967 net.cpp:141] Setting up lstm1_
I0924 03:20:34.354372 22967 net.cpp:148] Top shape: 1 1 1000 (1000)
I0924 03:20:34.354384 22967 net.cpp:156] Memory required for data: 90016
I0924 03:20:34.354395 22967 layer_factory.hpp:77] Creating layer lstm1_h_concat
I0924 03:20:34.354416 22967 net.cpp:91] Creating Layer lstm1_h_concat
I0924 03:20:34.354429 22967 net.cpp:425] lstm1_h_concat <- h_1
I0924 03:20:34.354478 22967 net.cpp:399] lstm1_h_concat -> h
I0924 03:20:34.354477 22929 net.cpp:141] Setting up lstm2_h_conted_0
I0924 03:20:34.354521 22929 net.cpp:148] Top shape: 1 1 1000 (1000)
I0924 03:20:34.354532 22929 net.cpp:156] Memory required for data: 50020
I0924 03:20:34.354542 22929 layer_factory.hpp:77] Creating layer lstm2_transform_1
I0924 03:20:34.354666 22929 net.cpp:91] Creating Layer lstm2_transform_1
I0924 03:20:34.354681 22933 net.cpp:141] Setting up lstm1_h_conted_0
I0924 03:20:34.354687 22929 net.cpp:425] lstm2_transform_1 <- h_conted_0
I0924 03:20:34.354708 22933 net.cpp:148] Top shape: 1 1 1000 (1000)
I0924 03:20:34.354717 22967 net.cpp:141] Setting up lstm1_h_concat
I0924 03:20:34.354682 22935 net.cpp:141] Setting up cont_1_lstm1_cont_slice_0_split
I0924 03:20:34.354733 22929 net.cpp:399] lstm2_transform_1 -> W_hc_h_0
I0924 03:20:34.354718 22933 net.cpp:156] Memory required for data: 46016
I0924 03:20:34.354735 22967 net.cpp:148] Top shape: 1 1 1000 (1000)
I0924 03:20:34.354756 22933 layer_factory.hpp:77] Creating layer lstm1_transform_1
I0924 03:20:34.354760 22935 net.cpp:148] Top shape: 1 1 (1)
I0924 03:20:34.354781 22935 net.cpp:148] Top shape: 1 1 (1)
I0924 03:20:34.354787 22933 net.cpp:91] Creating Layer lstm1_transform_1
I0924 03:20:34.354792 22935 net.cpp:156] Memory required for data: 10016
I0924 03:20:34.354758 22967 net.cpp:156] Memory required for data: 94016
I0924 03:20:34.354817 22933 net.cpp:425] lstm1_transform_1 <- h_conted_0
I0924 03:20:34.354832 22935 layer_factory.hpp:77] Creating layer lstm1_x_transform
I0924 03:20:34.354835 22967 layer_factory.hpp:77] Creating layer h_pseudoloss
…
I0924 03:20:34.378830 22967 net.cpp:219] lstm1_ does not need backward computation.
I0924 03:20:34.378834 22967 net.cpp:261] This network produces output c_T
I0924 03:20:34.378842 22967 net.cpp:261] This network produces output h_pseudoloss
I0924 03:20:34.378865 22967 net.cpp:274] Network initialization done.
I0924 03:20:34.378931 22967 recurrent_layer.cpp:150] Adding parameter 0: W_xc
I0924 03:20:34.378938 22967 recurrent_layer.cpp:150] Adding parameter 1: b_c
I0924 03:20:34.378943 22967 recurrent_layer.cpp:150] Adding parameter 2: W_hc
I0924 03:20:34.387194 22967 net.cpp:141] Setting up lstm1
I0924 03:20:34.387243 22967 net.cpp:148] Top shape: 1 1 1000 (1000)
I0924 03:20:34.387248 22967 net.cpp:156] Memory required for data: 26408
I0924 03:20:34.387269 22967 layer_factory.hpp:77] Creating layer concat
I0924 03:20:34.387289 22967 net.cpp:91] Creating Layer concat
I0924 03:20:34.387290 22947 net.cpp:141] Setting up lstm1_transform_1
I0924 03:20:34.387295 22967 net.cpp:425] concat <- lstm1
I0924 03:20:34.387316 22947 net.cpp:148] Top shape: 1 1 4000 (4000)
I0924 03:20:34.387321 22967 net.cpp:425] concat <- embedded_input_sentence
I0924 03:20:34.387322 22947 net.cpp:156] Memory required for data: 62016
I0924 03:20:34.387332 22967 net.cpp:425] concat <- reshaped_stage_indicator
I0924 03:20:34.387341 22967 net.cpp:399] concat -> lstm1_video_sequence
I0924 03:20:34.387341 22947 layer_factory.hpp:77] Creating layer lstm1_gate_input_1
I0924 03:20:34.387358 22947 net.cpp:91] Creating Layer lstm1_gate_input_1
I0924 03:20:34.387365 22947 net.cpp:425] lstm1_gate_input_1 <- W_hc_h_0
I0924 03:20:34.387372 22947 net.cpp:425] lstm1_gate_input_1 <- W_xc_x_1
I0924 03:20:34.387379 22947 net.cpp:399] lstm1_gate_input_1 -> gate_input_1
I0924 03:20:34.387420 22939 net.cpp:141] Setting up lstm2_x_transform
I0924 03:20:34.387439 22939 net.cpp:148] Top shape: 1 1 4000 (4000)
I0924 03:20:34.387444 22939 net.cpp:156] Memory required for data: 30020
I0924 03:20:34.387452 22967 net.cpp:141] Setting up concat
I0924 03:20:34.387456 22939 layer_factory.hpp:77] Creating layer lstm2_W_xc_x_slice
I0924 03:20:34.387465 22967 net.cpp:148] Top shape: 1 1 1501 (1501)
I0924 03:20:34.387468 22939 net.cpp:91] Creating Layer lstm2_W_xc_x_slice
I0924 03:20:34.387470 22967 net.cpp:156] Memory required for data: 32412
I0924 03:20:34.387483 22939 net.cpp:425] lstm2_W_xc_x_slice <- W_xc_x
I0924 03:20:34.387485 22967 layer_factory.hpp:77] Creating layer lstm2
I0924 03:20:34.387487 22947 net.cpp:141] Setting up lstm1_gate_input_1
I0924 03:20:34.387496 22939 net.cpp:399] lstm2_W_xc_x_slice -> W_xc_x_1
I0924 03:20:34.387500 22947 net.cpp:148] Top shape: 1 1 4000 (4000)
I0924 03:20:34.387501 22967 net.cpp:91] Creating Layer lstm2
I0924 03:20:34.387504 22947 net.cpp:156] Memory required for data: 78016
I0924 03:20:34.387507 22967 net.cpp:425] lstm2 <- lstm1_video_sequence
I0924 03:20:34.387509 22947 layer_factory.hpp:77] Creating layer lstm1_unit_1
I0924 03:20:34.387514 22967 net.cpp:425] lstm2 <- cont_sentence_input_1_split_1
I0924 03:20:34.387517 22947 net.cpp:91] Creating Layer lstm1_unit_1
…
I0924 03:20:34.387549 22947 net.cpp:399] lstm1_unit_1 -> c_1
I0924 03:20:34.387558 22947 net.cpp:399] lstm1_unit_1 -> h_1
I0924 03:20:34.387876 22967 net.cpp:49] Initializing net from parameters: 
layer {
  name: "lstm2_"
  type: "Input"
  top: "x"
  top: "cont"
  input_param {
    shape {
      dim: 1
      dim: 1
      dim: 1501
    }
    shape {
      dim: 1
      dim: 1
    }
  }
}
layer {
  name: "lstm2_"
  type: "Input"
  top: "c_0"
  top: "h_0"
  input_param {
    shape {
      dim: 1
      dim: 1
      dim: 1000
    }
    shape {
      dim: 1
      dim: 1
      dim: 1000
    }
  }
}
layer {
  name: "lstm2_cont_slice"
  type: "Slice"
  bottom: "cont"
  top: "cont_1"
  slice_param {
    axis: 0
  }
}
layer {
  name: "lstm2_x_transform"
  type: "InnerProduct"
  bottom: "x"
  top: "W_xc_x"
  param {
    name: "W_xc"
  }
  param {
    name: "b_c"
  }
  propagate_down: true
  inner_product_param {
    num_output: 4000
    bias_term: true
    weight_filler {
      type: "uniform"
      min: -0.08
      max: 0.08
    }
    bias_filler {
      type: "constant"
      value: 0
    }
    axis: 2
  }
}
layer {
  name: "lstm2_W_xc_x_slice"
  type: "Slice"
  bottom: "W_xc_x"
  top: "W_xc_x_1"
  slice_param {
    axis: 0
  }
}
layer {
  name: "lstm2_h_conted_0"
  type: "Scale"
  bottom: "h_0"
  bottom: "cont_1"
  top: "h_conted_0"
  scale_param {
    axis: 0
  }
}
layer {
  name: "lstm2_transform_1"
  type: "InnerProduct"
  bottom: "h_conted_0"
  top: "W_hc_h_0"
  param {
    name: "W_hc"
  }
  inner_product_param {
    num_output: 4000
    bias_term: false
    weight_filler {
      type: "uniform"
      min: -0.08
      max: 0.08
    }
    axis: 2
  }
}
layer {
  name: "lstm2_gate_input_1"
  type: "Eltwise"
  bottom: "W_hc_h_0"
  bottom: "W_xc_x_1"
  top: "gate_input_1"
  eltwise_param {
    operation: SUM
  }
}
layer {
  name: "lstm2_unit_1"
  type: "LSTMUnit"
  bottom: "c_0"
  bottom: "gate_input_1"
  bottom: "cont_1"
  top: "c_1"
  top: "h_1"
}
layer {
  name: "lstm2_"
  type: "Split"
  bottom: "c_1"
  top: "c_T"
}
layer {
  name: "lstm2_h_concat"
  type: "Concat"
  bottom: "h_1"
  top: "h"
  concat_param {
    axis: 0
  }
}
layer {
  name: "h_pseudoloss"
  type: "Reduction"
  bottom: "h"
  top: "h_pseudoloss"
  loss_weight: 1
}
I0924 03:20:34.387996 22967 layer_factory.hpp:77] Creating layer lstm2_
I0924 03:20:34.388011 22967 net.cpp:91] Creating Layer lstm2_
I0924 03:20:34.388020 22967 net.cpp:399] lstm2_ -> x
I0924 03:20:34.388036 22967 net.cpp:399] lstm2_ -> cont
I0924 03:20:34.389011 22939 net.cpp:141] Setting up lstm2_W_xc_x_slice
I0924 03:20:34.389029 22939 net.cpp:148] Top shape: 1 1 4000 (4000)
I0924 03:20:34.389034 22939 net.cpp:156] Memory required for data: 46020
I0924 03:20:34.389039 22939 layer_factory.hpp:77] Creating layer lstm2_h_conted_0
I0924 03:20:34.389050 22939 net.cpp:91] Creating Layer lstm2_h_conted_0
I0924 03:20:34.389055 22939 net.cpp:425] lstm2_h_conted_0 <- h_0
I0924 03:20:34.389061 22939 net.cpp:425] lstm2_h_conted_0 <- cont_1_lstm2_cont_slice_0_split_0
I0924 03:20:34.389073 22939 net.cpp:399] lstm2_h_conted_0 -> h_conted_0
I0924 03:20:34.389075 22947 net.cpp:141] Setting up lstm1_unit_1
I0924 03:20:34.389086 22947 net.cpp:148] Top shape: 1 1 1000 (1000)
I0924 03:20:34.389091 22947 net.cpp:148] Top shape: 1 1 1000 (1000)
I0924 03:20:34.389096 22947 net.cpp:156] Memory required for data: 86016
I0924 03:20:34.389101 22947 layer_factory.hpp:77] Creating layer lstm1_
I0924 03:20:34.389111 22947 net.cpp:91] Creating Layer lstm1_
I0924 03:20:34.389116 22947 net.cpp:425] lstm1_ <- c_1
I0924 03:20:34.389123 22947 net.cpp:399] lstm1_ -> c_T
I0924 03:20:34.389292 22947 net.cpp:141] Setting up lstm1_
I0924 03:20:34.389303 22947 net.cpp:148] Top shape: 1 1 1000 (1000)
I0924 03:20:34.389307 22947 net.cpp:156] Memory required for data: 90016
I0924 03:20:34.389312 22947 layer_factory.hpp:77] Creating layer lstm1_h_concat
I0924 03:20:34.389319 22947 net.cpp:91] Creating Layer lstm1_h_concat
I0924 03:20:34.389324 22947 net.cpp:425] lstm1_h_concat <- h_1
I0924 03:20:34.389329 22967 net.cpp:141] Setting up lstm2_
I0924 03:20:34.389334 22947 net.cpp:399] lstm1_h_concat -> h
I0924 03:20:34.389349 22967 net.cpp:148] Top shape: 1 1 1501 (1501)
I0924 03:20:34.389358 22967 net.cpp:148] Top shape: 1 1 (1)
I0924 03:20:34.389363 22967 net.cpp:156] Memory required for data: 6008
I0924 03:20:34.389369 22967 layer_factory.hpp:77] Creating layer lstm2_
I0924 03:20:34.389384 22967 net.cpp:91] Creating Layer lstm2_
I0924 03:20:34.389390 22967 net.cpp:399] lstm2_ -> c_0
I0924 03:20:34.389392 22947 net.cpp:141] Setting up lstm1_h_concat
I0924 03:20:34.389402 22967 net.cpp:399] lstm2_ -> h_0
I0924 03:20:34.389402 22947 net.cpp:148] Top shape: 1 1 1000 (1000)
I0924 03:20:34.389415 22947 net.cpp:156] Memory required for data: 94016
I0924 03:20:34.389420 22947 layer_factory.hpp:77] Creating layer h_pseudoloss
I0924 03:20:34.389428 22947 net.cpp:91] Creating Layer h_pseudoloss
I0924 03:20:34.389433 22947 net.cpp:425] h_pseudoloss <- h
I0924 03:20:34.389441 22947 net.cpp:399] h_pseudoloss -> h_pseudoloss
I0924 03:20:34.389677 22967 net.cpp:141] Setting up lstm2_
I0924 03:20:34.389688 22967 net.cpp:148] Top shape: 1 1 1000 (1000)
I0924 03:20:34.389694 22967 net.cpp:148] Top shape: 1 1 1000 (1000)
I0924 03:20:34.389698 22967 net.cpp:156] Memory required for data: 14008
I0924 03:20:34.389703 22967 layer_factory.hpp:77] Creating layer lstm2_cont_slice
I0924 03:20:34.389713 22967 net.cpp:91] Creating Layer lstm2_cont_slice
I0924 03:20:34.389710 22939 net.cpp:141] Setting up lstm2_h_conted_0
I0924 03:20:34.389720 22967 net.cpp:425] lstm2_cont_slice <- cont
I0924 03:20:34.389731 22939 net.cpp:148] Top shape: 1 1 1000 (1000)
I0924 03:20:34.389735 22967 net.cpp:399] lstm2_cont_slice -> cont_1
I0924 03:20:34.389737 22939 net.cpp:156] Memory required for data: 50020
I0924 03:20:34.389749 22939 layer_factory.hpp:77] Creating layer lstm2_transform_1
I0924 03:20:34.389758 22939 net.cpp:91] Creating Layer lstm2_transform_1
I0924 03:20:34.389765 22939 net.cpp:425] lstm2_transform_1 <- h_conted_0
I0924 03:20:34.389788 22939 net.cpp:399] lstm2_transform_1 -> W_hc_h_0
I0924 03:20:34.390218 22947 net.cpp:141] Setting up h_pseudoloss
I0924 03:20:34.390230 22947 net.cpp:148] Top shape: (1)
I0924 03:20:34.390234 22947 net.cpp:151]     with loss weight 1
I0924 03:20:34.390246 22947 net.cpp:156] Memory required for data: 94020
I0924 03:20:34.390251 22947 net.cpp:217] h_pseudoloss needs backward computation.
I0924 03:20:34.390254 22967 net.cpp:141] Setting up lstm2_cont_slice
I0924 03:20:34.390255 22947 net.cpp:217] lstm1_h_concat needs backward computation.
I0924 03:20:34.390269 22967 net.cpp:148] Top shape: 1 1 (1)
I0924 03:20:34.390269 22947 net.cpp:219] lstm1_ does not need backward computation.
I0924 03:20:34.390274 22967 net.cpp:156] Memory required for data: 14012
I0924 03:20:34.390275 22947 net.cpp:217] lstm1_unit_1 needs backward computation.
I0924 03:20:34.390282 22967 layer_factory.hpp:77] Creating layer cont_1_lstm2_cont_slice_0_split
I0924 03:20:34.390286 22947 net.cpp:217] lstm1_gate_input_1 needs backward computation.
…
I0924 03:20:34.390331 22947 net.cpp:219] lstm1_ does not need backward computation.
I0924 03:20:34.390336 22947 net.cpp:261] This network produces output c_T
I0924 03:20:34.390339 22947 net.cpp:261] This network produces output h_pseudoloss
I0924 03:20:34.390354 22947 net.cpp:274] Network initialization done.
I0924 03:20:34.390394 22947 recurrent_layer.cpp:150] Adding parameter 0: W_xc
I0924 03:20:34.390400 22947 recurrent_layer.cpp:150] Adding parameter 1: b_c
I0924 03:20:34.390405 22947 recurrent_layer.cpp:150] Adding parameter 2: W_hc
I0924 03:20:34.401543 22947 net.cpp:141] Setting up lstm1
I0924 03:20:34.401589 22947 net.cpp:148] Top shape: 1 1 1000 (1000)
I0924 03:20:34.401597 22947 net.cpp:156] Memory required for data: 26408
I0924 03:20:34.401618 22947 layer_factory.hpp:77] Creating layer concat
I0924 03:20:34.401633 22947 net.cpp:91] Creating Layer concat
I0924 03:20:34.401641 22947 net.cpp:425] concat <- lstm1
I0924 03:20:34.401654 22947 net.cpp:425] concat <- embedded_input_sentence
I0924 03:20:34.401666 22947 net.cpp:425] concat <- reshaped_stage_indicator
I0924 03:20:34.401677 22947 net.cpp:399] concat -> lstm1_video_sequence
I0924 03:20:34.401769 22973 net.cpp:141] Setting up lstm2_x_transform
I0924 03:20:34.401809 22973 net.cpp:148] Top shape: 1 1 4000 (4000)
I0924 03:20:34.401809 22947 net.cpp:141] Setting up concat
I0924 03:20:34.401824 22973 net.cpp:156] Memory required for data: 30020
I0924 03:20:34.401834 22947 net.cpp:148] Top shape: 1 1 1501 (1501)
I0924 03:20:34.401839 22947 net.cpp:156] Memory required for data: 32412
I0924 03:20:34.401844 22947 layer_factory.hpp:77] Creating layer lstm2
I0924 03:20:34.401850 22973 layer_factory.hpp:77] Creating layer lstm2_W_xc_x_slice
I0924 03:20:34.401865 22947 net.cpp:91] Creating Layer lstm2
I0924 03:20:34.401871 22973 net.cpp:91] Creating Layer lstm2_W_xc_x_slice
I0924 03:20:34.401876 22947 net.cpp:425] lstm2 <- lstm1_video_sequence
I0924 03:20:34.401882 22973 net.cpp:425] lstm2_W_xc_x_slice <- W_xc_x
I0924 03:20:34.401885 22947 net.cpp:425] lstm2 <- cont_sentence_input_1_split_1
I0924 03:20:34.401895 22973 net.cpp:399] lstm2_W_xc_x_slice -> W_xc_x_1
I0924 03:20:34.401896 22947 net.cpp:399] lstm2 -> lstm2
I0924 03:20:34.401928 22947 recurrent_layer.cpp:20] Initializing recurrent layer: assuming input batch contains 1 timesteps of 1 independent streams.
I0924 03:20:34.401949 22935 net.cpp:141] Setting up lstm1_x_transform
I0924 03:20:34.401971 22935 net.cpp:148] Top shape: 1 1 4000 (4000)
I0924 03:20:34.401980 22935 net.cpp:156] Memory required for data: 26016
I0924 03:20:34.401999 22935 layer_factory.hpp:77] Creating layer lstm1_W_xc_x_slice
I0924 03:20:34.402012 22935 net.cpp:91] Creating Layer lstm1_W_xc_x_slice
I0924 03:20:34.402021 22935 net.cpp:425] lstm1_W_xc_x_slice <- W_xc_x
I0924 03:20:34.402061 22935 net.cpp:399] lstm1_W_xc_x_slice -> W_xc_x_1
I0924 03:20:34.402390 22947 net.cpp:49] Initializing net from parameters: 
layer {
  name: "lstm2_"
  type: "Input"
  top: "x"
  top: "cont"
  input_param {
    shape {
      dim: 1
      dim: 1
      dim: 1501
    }
    shape {
      dim: 1
      dim: 1
    }
  }
}
layer {
  name: "lstm2_"
  type: "Input"
  top: "c_0"
  top: "h_0"
  input_param {
    shape {
      dim: 1
      dim: 1
      dim: 1000
    }
    shape {
      dim: 1
      dim: 1
      dim: 1000
    }
  }
}
layer {
  name: "lstm2_cont_slice"
  type: "Slice"
  bottom: "cont"
  top: "cont_1"
  slice_param {
    axis: 0
  }
}
layer {
  name: "lstm2_x_transform"
  type: "InnerProduct"
  bottom: "x"
  top: "W_xc_x"
  param {
    name: "W_xc"
  }
  param {
    name: "b_c"
  }
  propagate_down: true
  inner_product_param {
    num_output: 4000
    bias_term: true
    weight_filler {
      type: "uniform"
      min: -0.08
      max: 0.08
    }
    bias_filler {
      type: "constant"
      value: 0
    }
    axis: 2
  }
}
layer {
  name: "lstm2_W_xc_x_slice"
  type: "Slice"
  bottom: "W_xc_x"
  top: "W_xc_x_1"
  slice_param {
    axis: 0
  }
}
layer {
  name: "lstm2_h_conted_0"
  type: "Scale"
  bottom: "h_0"
  bottom: "cont_1"
  top: "h_conted_0"
  scale_param {
    axis: 0
  }
}
layer {
  name: "lstm2_transform_1"
  type: "InnerProduct"
  bottom: "h_conted_0"
  top: "W_hc_h_0"
  param {
    name: "W_hc"
  }
  inner_product_param {
    num_output: 4000
    bias_term: false
    weight_filler {
      type: "uniform"
      min: -0.08
      max: 0.08
    }
    axis: 2
  }
}
layer {
  name: "lstm2_gate_input_1"
  type: "Eltwise"
  bottom: "W_hc_h_0"
  bottom: "W_xc_x_1"
  top: "gate_input_1"
  eltwise_param {
    operation: SUM
  }
}
layer {
  name: "lstm2_unit_1"
  type: "LSTMUnit"
  bottom: "c_0"
  bottom: "gate_input_1"
  bottom: "cont_1"
  top: "c_1"
  top: "h_1"
}
layer {
  name: "lstm2_"
  type: "Split"
  bottom: "c_1"
  top: "c_T"
}
layer {
  name: "lstm2_h_concat"
  type: "Concat"
  bottom: "h_1"
  top: "h"
  concat_param {
    axis: 0
  }
}
layer {
  name: "h_pseudoloss"
  type: "Reduction"
  bottom: "h"
  top: "h_pseudoloss"
  loss_weight: 1
}
I0924 03:20:34.402586 22947 layer_factory.hpp:77] Creating layer lstm2_
I0924 03:20:34.402623 22947 net.cpp:91] Creating Layer lstm2_
I0924 03:20:34.402632 22947 net.cpp:399] lstm2_ -> x
I0924 03:20:34.402648 22947 net.cpp:399] lstm2_ -> cont
I0924 03:20:34.403342 22973 net.cpp:141] Setting up lstm2_W_xc_x_slice
I0924 03:20:34.403362 22973 net.cpp:148] Top shape: 1 1 4000 (4000)
I0924 03:20:34.403368 22973 net.cpp:156] Memory required for data: 46020
I0924 03:20:34.403378 22973 layer_factory.hpp:77] Creating layer lstm2_h_conted_0
I0924 03:20:34.403378 22935 net.cpp:141] Setting up lstm1_W_xc_x_slice
I0924 03:20:34.403393 22973 net.cpp:91] Creating Layer lstm2_h_conted_0
I0924 03:20:34.403395 22935 net.cpp:148] Top shape: 1 1 4000 (4000)
I0924 03:20:34.403409 22973 net.cpp:425] lstm2_h_conted_0 <- h_0
I0924 03:20:34.403412 22935 net.cpp:156] Memory required for data: 42016
I0924 03:20:34.403420 22973 net.cpp:425] lstm2_h_conted_0 <- cont_1_lstm2_cont_slice_0_split_0
I0924 03:20:34.403421 22935 layer_factory.hpp:77] Creating layer lstm1_h_conted_0
I0924 03:20:34.403436 22973 net.cpp:399] lstm2_h_conted_0 -> h_conted_0
I0924 03:20:34.403441 22935 net.cpp:91] Creating Layer lstm1_h_conted_0
I0924 03:20:34.403450 22935 net.cpp:425] lstm1_h_conted_0 <- h_0
I0924 03:20:34.403460 22935 net.cpp:425] lstm1_h_conted_0 <- cont_1_lstm1_cont_slice_0_split_0
I0924 03:20:34.403476 22947 net.cpp:141] Setting up lstm2_
I0924 03:20:34.403491 22935 net.cpp:399] lstm1_h_conted_0 -> h_conted_0
I0924 03:20:34.403497 22947 net.cpp:148] Top shape: 1 1 1501 (1501)
I0924 03:20:34.403512 22947 net.cpp:148] Top shape: 1 1 (1)
I0924 03:20:34.403519 22947 net.cpp:156] Memory required for data: 6008
I0924 03:20:34.403528 22947 layer_factory.hpp:77] Creating layer lstm2_
I0924 03:20:34.403544 22947 net.cpp:91] Creating Layer lstm2_
I0924 03:20:34.403559 22947 net.cpp:399] lstm2_ -> c_0
I0924 03:20:34.403576 22947 net.cpp:399] lstm2_ -> h_0
I0924 03:20:34.403666 22935 net.cpp:141] Setting up lstm1_h_conted_0
I0924 03:20:34.403683 22935 net.cpp:148] Top shape: 1 1 1000 (1000)
I0924 03:20:34.403689 22935 net.cpp:156] Memory required for data: 46016
I0924 03:20:34.403697 22935 layer_factory.hpp:77] Creating layer lstm1_transform_1
I0924 03:20:34.403714 22935 net.cpp:91] Creating Layer lstm1_transform_1
I0924 03:20:34.403723 22935 net.cpp:425] lstm1_transform_1 <- h_conted_0
I0924 03:20:34.403741 22935 net.cpp:399] lstm1_transform_1 -> W_hc_h_0
I0924 03:20:34.403841 22973 net.cpp:141] Setting up lstm2_h_conted_0
I0924 03:20:34.403856 22973 net.cpp:148] Top shape: 1 1 1000 (1000)
I0924 03:20:34.403864 22973 net.cpp:156] Memory required for data: 50020
I0924 03:20:34.403873 22973 layer_factory.hpp:77] Creating layer lstm2_transform_1
I0924 03:20:34.403879 22947 net.cpp:141] Setting up lstm2_
I0924 03:20:34.403888 22973 net.cpp:91] Creating Layer lstm2_transform_1
I0924 03:20:34.403897 22947 net.cpp:148] Top shape: 1 1 1000 (1000)
I0924 03:20:34.403898 22973 net.cpp:425] lstm2_transform_1 <- h_conted_0
I0924 03:20:34.403903 22947 net.cpp:148] Top shape: 1 1 1000 (1000)
I0924 03:20:34.403908 22947 net.cpp:156] Memory required for data: 14008
I0924 03:20:34.403913 22947 layer_factory.hpp:77] Creating layer lstm2_cont_slice
I0924 03:20:34.403913 22973 net.cpp:399] lstm2_transform_1 -> W_hc_h_0
I0924 03:20:34.403930 22947 net.cpp:91] Creating Layer lstm2_cont_slice
I0924 03:20:34.403936 22947 net.cpp:425] lstm2_cont_slice <- cont
I0924 03:20:34.403944 22947 net.cpp:399] lstm2_cont_slice -> cont_1
I0924 03:20:34.403949 22929 net.cpp:141] Setting up lstm2_transform_1
I0924 03:20:34.403970 22929 net.cpp:148] Top shape: 1 1 4000 (4000)
I0924 03:20:34.403978 22929 net.cpp:156] Memory required for data: 66020
I0924 03:20:34.403995 22929 layer_factory.hpp:77] Creating layer lstm2_gate_input_1
I0924 03:20:34.404014 22929 net.cpp:91] Creating Layer lstm2_gate_input_1
I0924 03:20:34.404026 22929 net.cpp:425] lstm2_gate_input_1 <- W_hc_h_0
I0924 03:20:34.404037 22929 net.cpp:425] lstm2_gate_input_1 <- W_xc_x_1
I0924 03:20:34.404049 22929 net.cpp:399] lstm2_gate_input_1 -> gate_input_1
I0924 03:20:34.413859 22947 net.cpp:141] Setting up lstm2_cont_slice
I0924 03:20:34.413910 22947 net.cpp:148] Top shape: 1 1 (1)
I0924 03:20:34.413920 22947 net.cpp:156] Memory required for data: 14012
I0924 03:20:34.413933 22947 layer_factory.hpp:77] Creating layer cont_1_lstm2_cont_slice_0_split
I0924 03:20:34.413961 22947 net.cpp:91] Creating Layer cont_1_lstm2_cont_slice_0_split
I0924 03:20:34.413972 22947 net.cpp:425] cont_1_lstm2_cont_slice_0_split <- cont_1
I0924 03:20:34.413987 22947 net.cpp:399] cont_1_lstm2_cont_slice_0_split -> cont_1_lstm2_cont_slice_0_split_0
I0924 03:20:34.414006 22947 net.cpp:399] cont_1_lstm2_cont_slice_0_split -> cont_1_lstm2_cont_slice_0_split_1
I0924 03:20:34.418967 22929 net.cpp:141] Setting up lstm2_gate_input_1
I0924 03:20:34.419008 22929 net.cpp:148] Top shape: 1 1 4000 (4000)
I0924 03:20:34.419018 22929 net.cpp:156] Memory required for data: 82020
I0924 03:20:34.419028 22929 layer_factory.hpp:77] Creating layer lstm2_unit_1
I0924 03:20:34.419090 22929 net.cpp:91] Creating Layer lstm2_unit_1
I0924 03:20:34.419091 22967 net.cpp:141] Setting up cont_1_lstm2_cont_slice_0_split
I0924 03:20:34.419104 22929 net.cpp:425] lstm2_unit_1 <- c_0
I0924 03:20:34.419113 22967 net.cpp:148] Top shape: 1 1 (1)
I0924 03:20:34.419119 22929 net.cpp:425] lstm2_unit_1 <- gate_input_1
I0924 03:20:34.419124 22967 net.cpp:148] Top shape: 1 1 (1)
I0924 03:20:34.419129 22929 net.cpp:425] lstm2_unit_1 <- cont_1_lstm2_cont_slice_0_split_1
I0924 03:20:34.419132 22967 net.cpp:156] Memory required for data: 14020
I0924 03:20:34.419142 22967 layer_factory.hpp:77] Creating layer lstm2_x_transform
I0924 03:20:34.419142 22929 net.cpp:399] lstm2_unit_1 -> c_1
I0924 03:20:34.419176 22967 net.cpp:91] Creating Layer lstm2_x_transform
I0924 03:20:34.419178 22929 net.cpp:399] lstm2_unit_1 -> h_1
I0924 03:20:34.419195 22967 net.cpp:425] lstm2_x_transform <- x
I0924 03:20:34.419214 22967 net.cpp:399] lstm2_x_transform -> W_xc_x
I0924 03:20:34.419426 22947 net.cpp:141] Setting up cont_1_lstm2_cont_slice_0_split
I0924 03:20:34.419447 22947 net.cpp:148] Top shape: 1 1 (1)
I0924 03:20:34.419458 22947 net.cpp:148] Top shape: 1 1 (1)
I0924 03:20:34.419466 22947 net.cpp:156] Memory required for data: 14020
I0924 03:20:34.419474 22947 layer_factory.hpp:77] Creating layer lstm2_x_transform
I0924 03:20:34.419495 22947 net.cpp:91] Creating Layer lstm2_x_transform
I0924 03:20:34.419504 22947 net.cpp:425] lstm2_x_transform <- x
I0924 03:20:34.419518 22947 net.cpp:399] lstm2_x_transform -> W_xc_x
I0924 03:20:34.456015 22933 net.cpp:141] Setting up lstm1_transform_1
I0924 03:20:34.456075 22933 net.cpp:148] Top shape: 1 1 4000 (4000)
I0924 03:20:34.456076 22939 net.cpp:141] Setting up lstm2_transform_1
I0924 03:20:34.456085 22933 net.cpp:156] Memory required for data: 62016
I0924 03:20:34.456106 22939 net.cpp:148] Top shape: 1 1 4000 (4000)
I0924 03:20:34.456113 22939 net.cpp:156] Memory required for data: 66020
I0924 03:20:34.456125 22939 layer_factory.hpp:77] Creating layer lstm2_gate_input_1
I0924 03:20:34.456126 22933 layer_factory.hpp:77] Creating layer lstm1_gate_input_1
I0924 03:20:34.456147 22939 net.cpp:91] Creating Layer lstm2_gate_input_1
I0924 03:20:34.456149 22933 net.cpp:91] Creating Layer lstm1_gate_input_1
I0924 03:20:34.456157 22939 net.cpp:425] lstm2_gate_input_1 <- W_hc_h_0
I0924 03:20:34.456162 22933 net.cpp:425] lstm1_gate_input_1 <- W_hc_h_0
I0924 03:20:34.456171 22939 net.cpp:425] lstm2_gate_input_1 <- W_xc_x_1
I0924 03:20:34.456174 22933 net.cpp:425] lstm1_gate_input_1 <- W_xc_x_1
I0924 03:20:34.456185 22939 net.cpp:399] lstm2_gate_input_1 -> gate_input_1
I0924 03:20:34.456187 22933 net.cpp:399] lstm1_gate_input_1 -> gate_input_1
I0924 03:20:34.456202 22929 net.cpp:141] Setting up lstm2_unit_1
I0924 03:20:34.456243 22929 net.cpp:148] Top shape: 1 1 1000 (1000)
I0924 03:20:34.456250 22929 net.cpp:148] Top shape: 1 1 1000 (1000)
I0924 03:20:34.456255 22929 net.cpp:156] Memory required for data: 90020
I0924 03:20:34.456264 22929 layer_factory.hpp:77] Creating layer lstm2_
I0924 03:20:34.456277 22939 net.cpp:141] Setting up lstm2_gate_input_1
I0924 03:20:34.456279 22929 net.cpp:91] Creating Layer lstm2_
I0924 03:20:34.456292 22939 net.cpp:148] Top shape: 1 1 4000 (4000)
I0924 03:20:34.456298 22939 net.cpp:156] Memory required for data: 82020
I0924 03:20:34.456300 22929 net.cpp:425] lstm2_ <- c_1
I0924 03:20:34.456305 22939 layer_factory.hpp:77] Creating layer lstm2_unit_1
I0924 03:20:34.456313 22939 net.cpp:91] Creating Layer lstm2_unit_1
…
I0924 03:21:40.593503 23236 net.cpp:141] Setting up lstm2_gate_input_1
I0924 03:21:40.593509 23274 net.cpp:425] lstm1_unit_1 <- gate_input_1
I0924 03:21:40.593518 23274 net.cpp:425] lstm1_unit_1 <- cont_1_lstm1_cont_slice_0_split_1
I0924 03:21:40.593519 23236 net.cpp:148] Top shape: 1 1 4000 (4000)
I0924 03:21:40.593528 23236 net.cpp:156] Memory required for data: 82020
I0924 03:21:40.593536 23236 layer_factory.hpp:77] Creating layer lstm2_unit_1
I0924 03:21:40.593547 23236 net.cpp:91] Creating Layer lstm2_unit_1
I0924 03:21:40.593552 23274 net.cpp:399] lstm1_unit_1 -> c_1
I0924 03:21:40.593556 23236 net.cpp:425] lstm2_unit_1 <- c_0
I0924 03:21:40.593566 23236 net.cpp:425] lstm2_unit_1 <- gate_input_1
I0924 03:21:40.593572 23274 net.cpp:399] lstm1_unit_1 -> h_1
I0924 03:21:40.593575 23236 net.cpp:425] lstm2_unit_1 <- cont_1_lstm2_cont_slice_0_split_1
I0924 03:21:40.593587 23236 net.cpp:399] lstm2_unit_1 -> c_1
I0924 03:21:40.593601 23236 net.cpp:399] lstm2_unit_1 -> h_1
I0924 03:21:40.593749 23236 net.cpp:141] Setting up lstm2_unit_1
I0924 03:21:40.593765 23236 net.cpp:148] Top shape: 1 1 1000 (1000)
I0924 03:21:40.593775 23236 net.cpp:148] Top shape: 1 1 1000 (1000)
I0924 03:21:40.593782 23236 net.cpp:156] Memory required for data: 90020
I0924 03:21:40.593791 23236 layer_factory.hpp:77] Creating layer lstm2_
I0924 03:21:40.593818 23236 net.cpp:91] Creating Layer lstm2_
I0924 03:21:40.593827 23236 net.cpp:425] lstm2_ <- c_1
I0924 03:21:40.593839 23236 net.cpp:399] lstm2_ -> c_T
I0924 03:21:40.592510 23254 net.cpp:148] Top shape: 1 1 1000 (1000)
I0924 03:21:40.596833 23254 net.cpp:148] Top shape: 1 1 1000 (1000)
I0924 03:21:40.596850 23254 net.cpp:156] Memory required for data: 14008
I0924 03:21:40.596863 23254 layer_factory.hpp:77] Creating layer lstm2_cont_slice
I0924 03:21:40.596884 23254 net.cpp:91] Creating Layer lstm2_cont_slice
I0924 03:21:40.596894 23254 net.cpp:425] lstm2_cont_slice <- cont
I0924 03:21:40.596911 23254 net.cpp:399] lstm2_cont_slice -> cont_1
I0924 03:21:40.687089 23274 net.cpp:141] Setting up lstm1_unit_1
I0924 03:21:40.687142 23274 net.cpp:148] Top shape: 1 1 1000 (1000)
I0924 03:21:40.687150 23274 net.cpp:148] Top shape: 1 1 1000 (1000)
I0924 03:21:40.687155 23274 net.cpp:156] Memory required for data: 86016
I0924 03:21:40.687165 23274 layer_factory.hpp:77] Creating layer lstm1_
I0924 03:21:40.687180 23274 net.cpp:91] Creating Layer lstm1_
I0924 03:21:40.687187 23274 net.cpp:425] lstm1_ <- c_1
I0924 03:21:40.687199 23274 net.cpp:399] lstm1_ -> c_T
I0924 03:21:40.687249 23274 net.cpp:141] Setting up lstm1_
I0924 03:21:40.687259 23274 net.cpp:148] Top shape: 1 1 1000 (1000)
I0924 03:21:40.687263 23274 net.cpp:156] Memory required for data: 90016
I0924 03:21:40.687268 23274 layer_factory.hpp:77] Creating layer lstm1_h_concat
I0924 03:21:40.687278 23274 net.cpp:91] Creating Layer lstm1_h_concat
I0924 03:21:40.687283 23274 net.cpp:425] lstm1_h_concat <- h_1
I0924 03:21:40.687294 23274 net.cpp:399] lstm1_h_concat -> h
I0924 03:21:40.687330 23274 net.cpp:141] Setting up lstm1_h_concat
I0924 03:21:40.687340 23274 net.cpp:148] Top shape: 1 1 1000 (1000)
I0924 03:21:40.687343 23274 net.cpp:156] Memory required for data: 94016
I0924 03:21:40.687348 23274 layer_factory.hpp:77] Creating layer h_pseudoloss
I0924 03:21:40.687362 23274 net.cpp:91] Creating Layer h_pseudoloss
I0924 03:21:40.687368 23274 net.cpp:425] h_pseudoloss <- h
I0924 03:21:40.687376 23274 net.cpp:399] h_pseudoloss -> h_pseudoloss
I0924 03:21:40.687472 23274 net.cpp:141] Setting up h_pseudoloss
…
I0924 03:21:40.687573 23274 net.cpp:219] lstm1_ does not need backward computation.
I0924 03:21:40.687577 23274 net.cpp:261] This network produces output c_T
I0924 03:21:40.687582 23274 net.cpp:261] This network produces output h_pseudoloss
I0924 03:21:40.687607 23274 net.cpp:274] Network initialization done.
I0924 03:21:40.687655 23274 recurrent_layer.cpp:150] Adding parameter 0: W_xc
I0924 03:21:40.687661 23274 recurrent_layer.cpp:150] Adding parameter 1: b_c
I0924 03:21:40.687666 23274 recurrent_layer.cpp:150] Adding parameter 2: W_hc
I0924 03:21:40.687773 23274 net.cpp:141] Setting up lstm1
I0924 03:21:40.687784 23274 net.cpp:148] Top shape: 1 1 1000 (1000)
I0924 03:21:40.687789 23274 net.cpp:156] Memory required for data: 26408
I0924 03:21:40.687804 23274 layer_factory.hpp:77] Creating layer concat
I0924 03:21:40.687819 23274 net.cpp:91] Creating Layer concat
I0924 03:21:40.687826 23274 net.cpp:425] concat <- lstm1
I0924 03:21:40.687832 23274 net.cpp:425] concat <- embedded_input_sentence
I0924 03:21:40.687839 23274 net.cpp:425] concat <- reshaped_stage_indicator
I0924 03:21:40.687845 23274 net.cpp:399] concat -> lstm1_video_sequence
I0924 03:21:40.687880 23274 net.cpp:141] Setting up concat
I0924 03:21:40.687889 23274 net.cpp:148] Top shape: 1 1 1501 (1501)
I0924 03:21:40.687894 23274 net.cpp:156] Memory required for data: 32412
I0924 03:21:40.687899 23274 layer_factory.hpp:77] Creating layer lstm2
I0924 03:21:40.687913 23274 net.cpp:91] Creating Layer lstm2
I0924 03:21:40.687919 23274 net.cpp:425] lstm2 <- lstm1_video_sequence
I0924 03:21:40.687925 23274 net.cpp:425] lstm2 <- cont_sentence_input_1_split_1
I0924 03:21:40.687933 23274 net.cpp:399] lstm2 -> lstm2
I0924 03:21:40.687944 23274 recurrent_layer.cpp:20] Initializing recurrent layer: assuming input batch contains 1 timesteps of 1 independent streams.
I0924 03:21:40.688249 23274 net.cpp:49] Initializing net from parameters: 
layer {
  name: "lstm2_"
  type: "Input"
  top: "x"
  top: "cont"
  input_param {
    shape {
      dim: 1
      dim: 1
      dim: 1501
    }
    shape {
      dim: 1
      dim: 1
    }
  }
}
layer {
  name: "lstm2_"
  type: "Input"
  top: "c_0"
  top: "h_0"
  input_param {
    shape {
      dim: 1
      dim: 1
      dim: 1000
    }
    shape {
      dim: 1
      dim: 1
      dim: 1000
    }
  }
}
layer {
  name: "lstm2_cont_slice"
  type: "Slice"
  bottom: "cont"
  top: "cont_1"
  slice_param {
    axis: 0
  }
}
layer {
  name: "lstm2_x_transform"
  type: "InnerProduct"
  bottom: "x"
  top: "W_xc_x"
  param {
    name: "W_xc"
  }
  param {
    name: "b_c"
  }
  propagate_down: true
  inner_product_param {
    num_output: 4000
    bias_term: true
    weight_filler {
      type: "uniform"
      min: -0.08
      max: 0.08
    }
    bias_filler {
      type: "constant"
      value: 0
    }
    axis: 2
  }
}
layer {
  name: "lstm2_W_xc_x_slice"
  type: "Slice"
  bottom: "W_xc_x"
  top: "W_xc_x_1"
  slice_param {
    axis: 0
  }
}
layer {
  name: "lstm2_h_conted_0"
  type: "Scale"
  bottom: "h_0"
  bottom: "cont_1"
  top: "h_conted_0"
  scale_param {
    axis: 0
  }
}
layer {
  name: "lstm2_transform_1"
  type: "InnerProduct"
  bottom: "h_conted_0"
  top: "W_hc_h_0"
  param {
    name: "W_hc"
  }
  inner_product_param {
    num_output: 4000
    bias_term: false
    weight_filler {
      type: "uniform"
      min: -0.08
      max: 0.08
    }
    axis: 2
  }
}
layer {
  name: "lstm2_gate_input_1"
  type: "Eltwise"
  bottom: "W_hc_h_0"
  bottom: "W_xc_x_1"
  top: "gate_input_1"
  eltwise_param {
    operation: SUM
  }
}
layer {
  name: "lstm2_unit_1"
  type: "LSTMUnit"
  bottom: "c_0"
  bottom: "gate_input_1"
  bottom: "cont_1"
  top: "c_1"
  top: "h_1"
}
layer {
  name: "lstm2_"
  type: "Split"
  bottom: "c_1"
  top: "c_T"
}
layer {
  name: "lstm2_h_concat"
  type: "Concat"
  bottom: "h_1"
  top: "h"
  concat_param {
    axis: 0
  }
}
layer {
  name: "h_pseudoloss"
  type: "Reduction"
  bottom: "h"
  top: "h_pseudoloss"
  loss_weight: 1
}
I0924 03:21:40.688341 23274 layer_factory.hpp:77] Creating layer lstm2_
I0924 03:21:40.688354 23274 net.cpp:91] Creating Layer lstm2_
I0924 03:21:40.688360 23274 net.cpp:399] lstm2_ -> x
I0924 03:21:40.688371 23274 net.cpp:399] lstm2_ -> cont
I0924 03:21:40.688427 23274 net.cpp:141] Setting up lstm2_
I0924 03:21:40.688437 23274 net.cpp:148] Top shape: 1 1 1501 (1501)
I0924 03:21:40.688443 23274 net.cpp:148] Top shape: 1 1 (1)
I0924 03:21:40.688447 23274 net.cpp:156] Memory required for data: 6008
I0924 03:21:40.688452 23274 layer_factory.hpp:77] Creating layer lstm2_
I0924 03:21:40.688462 23274 net.cpp:91] Creating Layer lstm2_
I0924 03:21:40.688472 23274 net.cpp:399] lstm2_ -> c_0
I0924 03:21:40.688483 23274 net.cpp:399] lstm2_ -> h_0
I0924 03:21:40.688537 23274 net.cpp:141] Setting up lstm2_
I0924 03:21:40.688546 23274 net.cpp:148] Top shape: 1 1 1000 (1000)
I0924 03:21:40.688552 23274 net.cpp:148] Top shape: 1 1 1000 (1000)
I0924 03:21:40.688556 23274 net.cpp:156] Memory required for data: 14008
I0924 03:21:40.688560 23274 layer_factory.hpp:77] Creating layer lstm2_cont_slice
I0924 03:21:40.688575 23274 net.cpp:91] Creating Layer lstm2_cont_slice
I0924 03:21:40.688580 23274 net.cpp:425] lstm2_cont_slice <- cont
I0924 03:21:40.688587 23274 net.cpp:399] lstm2_cont_slice -> cont_1
I0924 03:21:40.688622 23274 net.cpp:141] Setting up lstm2_cont_slice
I0924 03:21:40.688632 23274 net.cpp:148] Top shape: 1 1 (1)
I0924 03:21:40.688635 23274 net.cpp:156] Memory required for data: 14012
I0924 03:21:40.688640 23274 layer_factory.hpp:77] Creating layer cont_1_lstm2_cont_slice_0_split
I0924 03:21:40.688647 23274 net.cpp:91] Creating Layer cont_1_lstm2_cont_slice_0_split
I0924 03:21:40.688652 23274 net.cpp:425] cont_1_lstm2_cont_slice_0_split <- cont_1
I0924 03:21:40.688663 23274 net.cpp:399] cont_1_lstm2_cont_slice_0_split -> cont_1_lstm2_cont_slice_0_split_0
I0924 03:21:40.688673 23274 net.cpp:399] cont_1_lstm2_cont_slice_0_split -> cont_1_lstm2_cont_slice_0_split_1
I0924 03:21:40.688724 23274 net.cpp:141] Setting up cont_1_lstm2_cont_slice_0_split
I0924 03:21:40.688732 23274 net.cpp:148] Top shape: 1 1 (1)
I0924 03:21:40.688738 23274 net.cpp:148] Top shape: 1 1 (1)
I0924 03:21:40.688742 23274 net.cpp:156] Memory required for data: 14020
I0924 03:21:40.688747 23274 layer_factory.hpp:77] Creating layer lstm2_x_transform
I0924 03:21:40.688761 23274 net.cpp:91] Creating Layer lstm2_x_transform
I0924 03:21:40.688766 23274 net.cpp:425] lstm2_x_transform <- x
I0924 03:21:40.688774 23274 net.cpp:399] lstm2_x_transform -> W_xc_x
I0924 03:21:40.701191 23254 net.cpp:141] Setting up lstm2_cont_slice
I0924 03:21:40.701261 23254 net.cpp:148] Top shape: 1 1 (1)
I0924 03:21:40.701278 23246 net.cpp:141] Setting up lstm2_transform_1
I0924 03:21:40.701279 23254 net.cpp:156] Memory required for data: 14012
I0924 03:21:40.701340 23246 net.cpp:148] Top shape: 1 1 4000 (4000)
I0924 03:21:40.701349 23254 layer_factory.hpp:77] Creating layer cont_1_lstm2_cont_slice_0_split
I0924 03:21:40.701359 23246 net.cpp:156] Memory required for data: 66020
I0924 03:21:40.701393 23246 layer_factory.hpp:77] Creating layer lstm2_gate_input_1
I0924 03:21:40.701398 23254 net.cpp:91] Creating Layer cont_1_lstm2_cont_slice_0_split
I0924 03:21:40.701419 23254 net.cpp:425] cont_1_lstm2_cont_slice_0_split <- cont_1
I0924 03:21:40.701434 23246 net.cpp:91] Creating Layer lstm2_gate_input_1
I0924 03:21:40.701443 23254 net.cpp:399] cont_1_lstm2_cont_slice_0_split -> cont_1_lstm2_cont_slice_0_split_0
I0924 03:21:40.701454 23246 net.cpp:425] lstm2_gate_input_1 <- W_hc_h_0
I0924 03:21:40.701473 23246 net.cpp:425] lstm2_gate_input_1 <- W_xc_x_1
I0924 03:21:40.701483 23254 net.cpp:399] cont_1_lstm2_cont_slice_0_split -> cont_1_lstm2_cont_slice_0_split_1
I0924 03:21:40.701496 23246 net.cpp:399] lstm2_gate_input_1 -> gate_input_1
I0924 03:21:40.701683 23254 net.cpp:141] Setting up cont_1_lstm2_cont_slice_0_split
I0924 03:21:40.701711 23254 net.cpp:148] Top shape: 1 1 (1)
I0924 03:21:40.701730 23254 net.cpp:148] Top shape: 1 1 (1)
I0924 03:21:40.701745 23254 net.cpp:156] Memory required for data: 14020
I0924 03:21:40.701761 23254 layer_factory.hpp:77] Creating layer lstm2_x_transform
I0924 03:21:40.701798 23254 net.cpp:91] Creating Layer lstm2_x_transform
I0924 03:21:40.701817 23254 net.cpp:425] lstm2_x_transform <- x
I0924 03:21:40.701843 23254 net.cpp:399] lstm2_x_transform -> W_xc_x
I0924 03:21:40.720501 23246 net.cpp:141] Setting up lstm2_gate_input_1
I0924 03:21:40.720546 23246 net.cpp:148] Top shape: 1 1 4000 (4000)
I0924 03:21:40.720556 23246 net.cpp:156] Memory required for data: 82020
I0924 03:21:40.720567 23246 layer_factory.hpp:77] Creating layer lstm2_unit_1
I0924 03:21:40.720588 23246 net.cpp:91] Creating Layer lstm2_unit_1
I0924 03:21:40.720598 23246 net.cpp:425] lstm2_unit_1 <- c_0
I0924 03:21:40.720612 23246 net.cpp:425] lstm2_unit_1 <- gate_input_1
I0924 03:21:40.720621 23246 net.cpp:425] lstm2_unit_1 <- cont_1_lstm2_cont_slice_0_split_1
I0924 03:21:40.720633 23246 net.cpp:399] lstm2_unit_1 -> c_1
I0924 03:21:40.720650 23246 net.cpp:399] lstm2_unit_1 -> h_1
I0924 03:21:40.720782 23246 net.cpp:141] Setting up lstm2_unit_1
I0924 03:21:40.720795 23246 net.cpp:148] Top shape: 1 1 1000 (1000)
I0924 03:21:40.720804 23246 net.cpp:148] Top shape: 1 1 1000 (1000)
I0924 03:21:40.720811 23246 net.cpp:156] Memory required for data: 90020
I0924 03:21:40.720819 23246 layer_factory.hpp:77] Creating layer lstm2_
I0924 03:21:40.720865 23246 net.cpp:91] Creating Layer lstm2_
I0924 03:21:40.720875 23246 net.cpp:425] lstm2_ <- c_1
I0924 03:21:40.720887 23246 net.cpp:399] lstm2_ -> c_T
I0924 03:21:40.720927 23236 net.cpp:141] Setting up lstm2_
I0924 03:21:40.720942 23246 net.cpp:141] Setting up lstm2_
I0924 03:21:40.720955 23246 net.cpp:148] Top shape: 1 1 1000 (1000)
I0924 03:21:40.720957 23236 net.cpp:148] Top shape: 1 1 1000 (1000)
I0924 03:21:40.720963 23246 net.cpp:156] Memory required for data: 94020
I0924 03:21:40.720971 23246 layer_factory.hpp:77] Creating layer lstm2_h_concat
I0924 03:21:40.720971 23236 net.cpp:156] Memory required for data: 94020
I0924 03:21:40.720986 23246 net.cpp:91] Creating Layer lstm2_h_concat
I0924 03:21:40.720988 23236 layer_factory.hpp:77] Creating layer lstm2_h_concat
I0924 03:21:40.720994 23246 net.cpp:425] lstm2_h_concat <- h_1
I0924 03:21:40.721010 23236 net.cpp:91] Creating Layer lstm2_h_concat
I0924 03:21:40.721034 23236 net.cpp:425] lstm2_h_concat <- h_1
I0924 03:21:40.721071 23236 net.cpp:399] lstm2_h_concat -> h
I0924 03:21:40.721012 23246 net.cpp:399] lstm2_h_concat -> h
I0924 03:21:40.723166 23236 net.cpp:141] Setting up lstm2_h_concat
I0924 03:21:40.723199 23246 net.cpp:141] Setting up lstm2_h_concat
I0924 03:21:40.723219 23236 net.cpp:148] Top shape: 1 1 1000 (1000)
I0924 03:21:40.723219 23246 net.cpp:148] Top shape: 1 1 1000 (1000)
I0924 03:21:40.723229 23236 net.cpp:156] Memory required for data: 98020
I0924 03:21:40.723232 23246 net.cpp:156] Memory required for data: 98020
I0924 03:21:40.723251 23236 layer_factory.hpp:77] Creating layer h_pseudoloss
I0924 03:21:40.723254 23246 layer_factory.hpp:77] Creating layer h_pseudoloss
I0924 03:21:40.723278 23236 net.cpp:91] Creating Layer h_pseudoloss
I0924 03:21:40.723278 23246 net.cpp:91] Creating Layer h_pseudoloss
…
I0924 03:21:40.727586 23246 net.cpp:274] Network initialization done.
I0924 03:21:40.727639 23236 recurrent_layer.cpp:150] Adding parameter 0: W_xc
I0924 03:21:40.727649 23236 recurrent_layer.cpp:150] Adding parameter 1: b_c
I0924 03:21:40.727648 23246 recurrent_layer.cpp:150] Adding parameter 0: W_xc
I0924 03:21:40.727664 23236 recurrent_layer.cpp:150] Adding parameter 2: W_hc
I0924 03:21:40.727670 23246 recurrent_layer.cpp:150] Adding parameter 1: b_c
I0924 03:21:40.727679 23246 recurrent_layer.cpp:150] Adding parameter 2: W_hc
I0924 03:21:40.728157 23246 net.cpp:141] Setting up lstm2
I0924 03:21:40.728174 23246 net.cpp:148] Top shape: 1 1 1000 (1000)
I0924 03:21:40.728181 23246 net.cpp:156] Memory required for data: 36412
I0924 03:21:40.728193 23236 net.cpp:141] Setting up lstm2
I0924 03:21:40.728204 23246 layer_factory.hpp:77] Creating layer predict
I0924 03:21:40.728209 23236 net.cpp:148] Top shape: 1 1 1000 (1000)
I0924 03:21:40.728216 23236 net.cpp:156] Memory required for data: 36412
I0924 03:21:40.728224 23246 net.cpp:91] Creating Layer predict
I0924 03:21:40.728233 23246 net.cpp:425] predict <- lstm2
I0924 03:21:40.728237 23236 layer_factory.hpp:77] Creating layer predict
I0924 03:21:40.728246 23246 net.cpp:399] predict -> predict
I0924 03:21:40.728252 23236 net.cpp:91] Creating Layer predict
I0924 03:21:40.728261 23236 net.cpp:425] predict <- lstm2
I0924 03:21:40.728272 23236 net.cpp:399] predict -> predict
I0924 03:21:40.928139 23280 net.cpp:141] Setting up predict
I0924 03:21:40.928192 23280 net.cpp:148] Top shape: 1 1 46168 (46168)
I0924 03:21:40.928201 23280 net.cpp:156] Memory required for data: 221084
I0924 03:21:40.928222 23280 layer_factory.hpp:77] Creating layer probs
I0924 03:21:40.928246 23280 net.cpp:91] Creating Layer probs
I0924 03:21:40.928257 23280 net.cpp:425] probs <- predict
I0924 03:21:40.928272 23280 net.cpp:399] probs -> probs
I0924 03:21:40.928316 23274 net.cpp:141] Setting up lstm2_x_transform
I0924 03:21:40.928339 23274 net.cpp:148] Top shape: 1 1 4000 (4000)
I0924 03:21:40.928346 23274 net.cpp:156] Memory required for data: 30020
I0924 03:21:40.928366 23274 layer_factory.hpp:77] Creating layer lstm2_W_xc_x_slice
I0924 03:21:40.928395 23274 net.cpp:91] Creating Layer lstm2_W_xc_x_slice
I0924 03:21:40.928406 23274 net.cpp:425] lstm2_W_xc_x_slice <- W_xc_x
I0924 03:21:40.928417 23274 net.cpp:399] lstm2_W_xc_x_slice -> W_xc_x_1
I0924 03:21:40.928477 23274 net.cpp:141] Setting up lstm2_W_xc_x_slice
I0924 03:21:40.928490 23274 net.cpp:148] Top shape: 1 1 4000 (4000)
I0924 03:21:40.928498 23274 net.cpp:156] Memory required for data: 46020
I0924 03:21:40.928505 23274 layer_factory.hpp:77] Creating layer lstm2_h_conted_0
I0924 03:21:40.928525 23274 net.cpp:91] Creating Layer lstm2_h_conted_0
I0924 03:21:40.928534 23274 net.cpp:425] lstm2_h_conted_0 <- h_0
I0924 03:21:40.928544 23274 net.cpp:425] lstm2_h_conted_0 <- cont_1_lstm2_cont_slice_0_split_0
I0924 03:21:40.928555 23274 net.cpp:399] lstm2_h_conted_0 -> h_conted_0
I0924 03:21:40.928707 23274 net.cpp:141] Setting up lstm2_h_conted_0
I0924 03:21:40.928722 23274 net.cpp:148] Top shape: 1 1 1000 (1000)
I0924 03:21:40.928730 23274 net.cpp:156] Memory required for data: 50020
I0924 03:21:40.928736 23274 layer_factory.hpp:77] Creating layer lstm2_transform_1
I0924 03:21:40.930696 23274 net.cpp:91] Creating Layer lstm2_transform_1
I0924 03:21:40.930755 23274 net.cpp:425] lstm2_transform_1 <- h_conted_0
I0924 03:21:40.930791 23274 net.cpp:399] lstm2_transform_1 -> W_hc_h_0
I0924 03:21:40.930830 23254 net.cpp:141] Setting up lstm2_x_transform
I0924 03:21:40.930867 23254 net.cpp:148] Top shape: 1 1 4000 (4000)
I0924 03:21:40.930873 23254 net.cpp:156] Memory required for data: 30020
I0924 03:21:40.930892 23254 layer_factory.hpp:77] Creating layer lstm2_W_xc_x_slice
I0924 03:21:40.930909 23254 net.cpp:91] Creating Layer lstm2_W_xc_x_slice
I0924 03:21:40.930917 23254 net.cpp:425] lstm2_W_xc_x_slice <- W_xc_x
I0924 03:21:40.930925 23254 net.cpp:399] lstm2_W_xc_x_slice -> W_xc_x_1
I0924 03:21:40.944566 23254 net.cpp:141] Setting up lstm2_W_xc_x_slice
I0924 03:21:40.944628 23254 net.cpp:148] Top shape: 1 1 4000 (4000)
I0924 03:21:40.944638 23254 net.cpp:156] Memory required for data: 46020
I0924 03:21:40.944670 23254 layer_factory.hpp:77] Creating layer lstm2_h_conted_0
I0924 03:21:40.944695 23254 net.cpp:91] Creating Layer lstm2_h_conted_0
I0924 03:21:40.944707 23254 net.cpp:425] lstm2_h_conted_0 <- h_0
I0924 03:21:40.944725 23254 net.cpp:425] lstm2_h_conted_0 <- cont_1_lstm2_cont_slice_0_split_0
I0924 03:21:40.944738 23254 net.cpp:399] lstm2_h_conted_0 -> h_conted_0
I0924 03:21:40.944638 23242 net.cpp:141] Setting up predict
I0924 03:21:40.945543 23242 net.cpp:148] Top shape: 1 1 46168 (46168)
I0924 03:21:40.945552 23242 net.cpp:156] Memory required for data: 221084
I0924 03:21:40.945565 23242 layer_factory.hpp:77] Creating layer probs
I0924 03:21:40.945577 23242 net.cpp:91] Creating Layer probs
I0924 03:21:40.945585 23242 net.cpp:425] probs <- predict
I0924 03:21:40.945593 23242 net.cpp:399] probs -> probs
I0924 03:21:40.947399 23254 net.cpp:141] Setting up lstm2_h_conted_0
I0924 03:21:40.947446 23254 net.cpp:148] Top shape: 1 1 1000 (1000)
I0924 03:21:40.947453 23254 net.cpp:156] Memory required for data: 50020
I0924 03:21:40.947461 23254 layer_factory.hpp:77] Creating layer lstm2_transform_1
I0924 03:21:40.947481 23254 net.cpp:91] Creating Layer lstm2_transform_1
I0924 03:21:40.947489 23254 net.cpp:425] lstm2_transform_1 <- h_conted_0
I0924 03:21:40.947500 23254 net.cpp:399] lstm2_transform_1 -> W_hc_h_0
I0924 03:21:40.977102 23274 net.cpp:141] Setting up lstm2_transform_1
I0924 03:21:40.977151 23274 net.cpp:148] Top shape: 1 1 4000 (4000)
I0924 03:21:40.977159 23274 net.cpp:156] Memory required for data: 66020
I0924 03:21:40.977196 23274 layer_factory.hpp:77] Creating layer lstm2_gate_input_1
I0924 03:21:40.977218 23274 net.cpp:91] Creating Layer lstm2_gate_input_1
I0924 03:21:40.977226 23274 net.cpp:425] lstm2_gate_input_1 <- W_hc_h_0
I0924 03:21:40.977234 23274 net.cpp:425] lstm2_gate_input_1 <- W_xc_x_1
I0924 03:21:40.977242 23274 net.cpp:399] lstm2_gate_input_1 -> gate_input_1
I0924 03:21:40.980226 23274 net.cpp:141] Setting up lstm2_gate_input_1
I0924 03:21:40.980273 23274 net.cpp:148] Top shape: 1 1 4000 (4000)
I0924 03:21:40.980279 23274 net.cpp:156] Memory required for data: 82020
I0924 03:21:40.980288 23274 layer_factory.hpp:77] Creating layer lstm2_unit_1
I0924 03:21:40.980303 23274 net.cpp:91] Creating Layer lstm2_unit_1
I0924 03:21:40.980310 23274 net.cpp:425] lstm2_unit_1 <- c_0
I0924 03:21:40.980319 23274 net.cpp:425] lstm2_unit_1 <- gate_input_1
I0924 03:21:40.980325 23274 net.cpp:425] lstm2_unit_1 <- cont_1_lstm2_cont_slice_0_split_1
I0924 03:21:40.980334 23274 net.cpp:399] lstm2_unit_1 -> c_1
I0924 03:21:40.980345 23274 net.cpp:399] lstm2_unit_1 -> h_1
I0924 03:21:40.982311 23274 net.cpp:141] Setting up lstm2_unit_1
I0924 03:21:40.982331 23274 net.cpp:148] Top shape: 1 1 1000 (1000)
I0924 03:21:40.982338 23274 net.cpp:148] Top shape: 1 1 1000 (1000)
I0924 03:21:40.982343 23274 net.cpp:156] Memory required for data: 90020
I0924 03:21:40.982348 23274 layer_factory.hpp:77] Creating layer lstm2_
I0924 03:21:40.982362 23274 net.cpp:91] Creating Layer lstm2_
I0924 03:21:40.982368 23274 net.cpp:425] lstm2_ <- c_1
I0924 03:21:40.982375 23274 net.cpp:399] lstm2_ -> c_T
I0924 03:21:40.982570 23274 net.cpp:141] Setting up lstm2_
I0924 03:21:40.982581 23274 net.cpp:148] Top shape: 1 1 1000 (1000)
I0924 03:21:40.982585 23274 net.cpp:156] Memory required for data: 94020
I0924 03:21:40.982590 23274 layer_factory.hpp:77] Creating layer lstm2_h_concat
I0924 03:21:40.982619 23274 net.cpp:91] Creating Layer lstm2_h_concat
I0924 03:21:40.982630 23274 net.cpp:425] lstm2_h_concat <- h_1
I0924 03:21:40.982650 23274 net.cpp:399] lstm2_h_concat -> h
I0924 03:21:40.985713 23274 net.cpp:141] Setting up lstm2_h_concat
I0924 03:21:40.985739 23274 net.cpp:148] Top shape: 1 1 1000 (1000)
I0924 03:21:40.985747 23274 net.cpp:156] Memory required for data: 98020
I0924 03:21:40.985756 23274 layer_factory.hpp:77] Creating layer h_pseudoloss
I0924 03:21:40.985771 23274 net.cpp:91] Creating Layer h_pseudoloss
I0924 03:21:40.985780 23274 net.cpp:425] h_pseudoloss <- h
I0924 03:21:40.985792 23274 net.cpp:399] h_pseudoloss -> h_pseudoloss
I0924 03:21:40.987871 23274 net.cpp:141] Setting up h_pseudoloss
…
I0924 03:21:40.988025 23274 net.cpp:219] lstm2_ does not need backward computation.
I0924 03:21:40.988031 23274 net.cpp:261] This network produces output c_T
I0924 03:21:40.988039 23274 net.cpp:261] This network produces output h_pseudoloss
I0924 03:21:40.988066 23274 net.cpp:274] Network initialization done.
I0924 03:21:40.988133 23274 recurrent_layer.cpp:150] Adding parameter 0: W_xc
I0924 03:21:40.988142 23274 recurrent_layer.cpp:150] Adding parameter 1: b_c
I0924 03:21:40.988150 23274 recurrent_layer.cpp:150] Adding parameter 2: W_hc
I0924 03:21:40.992151 23274 net.cpp:141] Setting up lstm2
I0924 03:21:40.992187 23274 net.cpp:148] Top shape: 1 1 1000 (1000)
I0924 03:21:40.992187 23254 net.cpp:141] Setting up lstm2_transform_1
I0924 03:21:40.992214 23274 net.cpp:156] Memory required for data: 36412
I0924 03:21:40.992228 23254 net.cpp:148] Top shape: 1 1 4000 (4000)
I0924 03:21:40.992238 23254 net.cpp:156] Memory required for data: 66020
I0924 03:21:40.992244 23274 layer_factory.hpp:77] Creating layer predict
I0924 03:21:40.992254 23254 layer_factory.hpp:77] Creating layer lstm2_gate_input_1
I0924 03:21:40.992269 23274 net.cpp:91] Creating Layer predict
I0924 03:21:40.992274 23254 net.cpp:91] Creating Layer lstm2_gate_input_1
I0924 03:21:40.992280 23274 net.cpp:425] predict <- lstm2
I0924 03:21:40.992282 23254 net.cpp:425] lstm2_gate_input_1 <- W_hc_h_0
I0924 03:21:40.992292 23254 net.cpp:425] lstm2_gate_input_1 <- W_xc_x_1
I0924 03:21:40.992293 23274 net.cpp:399] predict -> predict
I0924 03:21:40.992321 23254 net.cpp:399] lstm2_gate_input_1 -> gate_input_1
I0924 03:21:41.010144 23254 net.cpp:141] Setting up lstm2_gate_input_1
I0924 03:21:41.010195 23254 net.cpp:148] Top shape: 1 1 4000 (4000)
I0924 03:21:41.010201 23254 net.cpp:156] Memory required for data: 82020
I0924 03:21:41.010210 23254 layer_factory.hpp:77] Creating layer lstm2_unit_1
I0924 03:21:41.010227 23254 net.cpp:91] Creating Layer lstm2_unit_1
I0924 03:21:41.010236 23254 net.cpp:425] lstm2_unit_1 <- c_0
I0924 03:21:41.010244 23254 net.cpp:425] lstm2_unit_1 <- gate_input_1
I0924 03:21:41.010251 23254 net.cpp:425] lstm2_unit_1 <- cont_1_lstm2_cont_slice_0_split_1
I0924 03:21:41.010257 23254 net.cpp:399] lstm2_unit_1 -> c_1
I0924 03:21:41.010273 23254 net.cpp:399] lstm2_unit_1 -> h_1
I0924 03:21:41.088968 23254 net.cpp:141] Setting up lstm2_unit_1
I0924 03:21:41.089025 23254 net.cpp:148] Top shape: 1 1 1000 (1000)
I0924 03:21:41.089036 23254 net.cpp:148] Top shape: 1 1 1000 (1000)
I0924 03:21:41.089043 23254 net.cpp:156] Memory required for data: 90020
I0924 03:21:41.089053 23254 layer_factory.hpp:77] Creating layer lstm2_
I0924 03:21:41.089072 23254 net.cpp:91] Creating Layer lstm2_
I0924 03:21:41.089082 23254 net.cpp:425] lstm2_ <- c_1
I0924 03:21:41.089095 23254 net.cpp:399] lstm2_ -> c_T
I0924 03:21:41.089138 23240 net.cpp:141] Setting up predict
I0924 03:21:41.089159 23240 net.cpp:148] Top shape: 1 1 46168 (46168)
I0924 03:21:41.089169 23240 net.cpp:156] Memory required for data: 221084
I0924 03:21:41.089179 23254 net.cpp:141] Setting up lstm2_
I0924 03:21:41.089185 23240 layer_factory.hpp:77] Creating layer probs
I0924 03:21:41.089195 23254 net.cpp:148] Top shape: 1 1 1000 (1000)
I0924 03:21:41.089203 23240 net.cpp:91] Creating Layer probs
I0924 03:21:41.089205 23254 net.cpp:156] Memory required for data: 94020
I0924 03:21:41.089221 23240 net.cpp:425] probs <- predict
I0924 03:21:41.089226 23254 layer_factory.hpp:77] Creating layer lstm2_h_concat
I0924 03:21:41.089236 23240 net.cpp:399] probs -> probs
I0924 03:21:41.089246 23254 net.cpp:91] Creating Layer lstm2_h_concat
I0924 03:21:41.089257 23254 net.cpp:425] lstm2_h_concat <- h_1
I0924 03:21:41.089269 23254 net.cpp:399] lstm2_h_concat -> h
I0924 03:21:41.089325 23254 net.cpp:141] Setting up lstm2_h_concat
I0924 03:21:41.089335 23254 net.cpp:148] Top shape: 1 1 1000 (1000)
I0924 03:21:41.089340 23254 net.cpp:156] Memory required for data: 98020
I0924 03:21:41.089345 23254 layer_factory.hpp:77] Creating layer h_pseudoloss
I0924 03:21:41.089355 23254 net.cpp:91] Creating Layer h_pseudoloss
I0924 03:21:41.089360 23254 net.cpp:425] h_pseudoloss <- h
I0924 03:21:41.089370 23254 net.cpp:399] h_pseudoloss -> h_pseudoloss
I0924 03:21:41.089474 23254 net.cpp:141] Setting up h_pseudoloss
…
I0924 03:21:41.089586 23254 net.cpp:219] lstm2_ does not need backward computation.
I0924 03:21:41.089589 23254 net.cpp:261] This network produces output c_T
I0924 03:21:41.089596 23254 net.cpp:261] This network produces output h_pseudoloss
I0924 03:21:41.089615 23254 net.cpp:274] Network initialization done.
I0924 03:21:41.089665 23254 recurrent_layer.cpp:150] Adding parameter 0: W_xc
I0924 03:21:41.089671 23254 recurrent_layer.cpp:150] Adding parameter 1: b_c
I0924 03:21:41.089676 23254 recurrent_layer.cpp:150] Adding parameter 2: W_hc
I0924 03:21:41.099431 23254 net.cpp:141] Setting up lstm2
I0924 03:21:41.099488 23254 net.cpp:148] Top shape: 1 1 1000 (1000)
I0924 03:21:41.099498 23254 net.cpp:156] Memory required for data: 36412
I0924 03:21:41.099534 23254 layer_factory.hpp:77] Creating layer predict
I0924 03:21:41.099562 23254 net.cpp:91] Creating Layer predict
I0924 03:21:41.099575 23254 net.cpp:425] predict <- lstm2
I0924 03:21:41.099591 23254 net.cpp:399] predict -> predict
I0924 03:21:41.190697 23246 net.cpp:141] Setting up predict
I0924 03:21:41.190748 23246 net.cpp:148] Top shape: 1 1 46168 (46168)
I0924 03:21:41.190755 23246 net.cpp:156] Memory required for data: 221084
I0924 03:21:41.190769 23246 layer_factory.hpp:77] Creating layer probs
I0924 03:21:41.190788 23246 net.cpp:91] Creating Layer probs
I0924 03:21:41.190795 23246 net.cpp:425] probs <- predict
I0924 03:21:41.190805 23246 net.cpp:399] probs -> probs
I0924 03:21:41.286947 23280 net.cpp:141] Setting up probs
I0924 03:21:41.286999 23280 net.cpp:148] Top shape: 1 1 46168 (46168)
I0924 03:21:41.287008 23280 net.cpp:156] Memory required for data: 405756
I0924 03:21:41.287016 23280 net.cpp:219] probs does not need backward computation.
I0924 03:21:41.287024 23280 net.cpp:219] predict does not need backward computation.
I0924 03:21:41.287029 23280 net.cpp:219] lstm2 does not need backward computation.
I0924 03:21:41.287035 23280 net.cpp:219] concat does not need backward computation.
I0924 03:21:41.287041 23280 net.cpp:219] lstm1 does not need backward computation.
I0924 03:21:41.287047 23280 net.cpp:219] embedding does not need backward computation.
I0924 03:21:41.287052 23280 net.cpp:219] reshape_stage_indicator does not need backward computation.
I0924 03:21:41.287058 23280 net.cpp:219] reshape_frames does not need backward computation.
I0924 03:21:41.287062 23280 net.cpp:219] embed_encoder does not need backward computation.
I0924 03:21:41.287068 23280 net.cpp:219] cont_sentence_input_1_split does not need backward computation.
I0924 03:21:41.287073 23280 net.cpp:219] input does not need backward computation.
I0924 03:21:41.287077 23280 net.cpp:261] This network produces output probs
I0924 03:21:41.287094 23280 net.cpp:274] Network initialization done.
I0924 03:21:41.287299 23240 net.cpp:141] Setting up probs
I0924 03:21:41.287318 23240 net.cpp:148] Top shape: 1 1 46168 (46168)
I0924 03:21:41.287323 23240 net.cpp:156] Memory required for data: 405756
I0924 03:21:41.287329 23240 net.cpp:219] probs does not need backward computation.
I0924 03:21:41.287334 23240 net.cpp:219] predict does not need backward computation.
I0924 03:21:41.287339 23240 net.cpp:219] lstm2 does not need backward computation.
I0924 03:21:41.287345 23240 net.cpp:219] concat does not need backward computation.
I0924 03:21:41.287351 23240 net.cpp:219] lstm1 does not need backward computation.
I0924 03:21:41.287358 23240 net.cpp:219] embedding does not need backward computation.
I0924 03:21:41.287363 23240 net.cpp:219] reshape_stage_indicator does not need backward computation.
I0924 03:21:41.287367 23240 net.cpp:219] reshape_frames does not need backward computation.
I0924 03:21:41.287372 23240 net.cpp:219] embed_encoder does not need backward computation.
I0924 03:21:41.287377 23240 net.cpp:219] cont_sentence_input_1_split does not need backward computation.
I0924 03:21:41.287382 23240 net.cpp:219] input does not need backward computation.
I0924 03:21:41.287386 23240 net.cpp:261] This network produces output probs
I0924 03:21:41.287402 23240 net.cpp:274] Network initialization done.
I0924 03:21:41.288802 23246 net.cpp:141] Setting up probs
I0924 03:21:41.288822 23246 net.cpp:148] Top shape: 1 1 46168 (46168)
I0924 03:21:41.288827 23246 net.cpp:156] Memory required for data: 405756
I0924 03:21:41.288833 23246 net.cpp:219] probs does not need backward computation.
I0924 03:21:41.288838 23246 net.cpp:219] predict does not need backward computation.
I0924 03:21:41.288843 23246 net.cpp:219] lstm2 does not need backward computation.
I0924 03:21:41.288849 23246 net.cpp:219] concat does not need backward computation.
I0924 03:21:41.288856 23246 net.cpp:219] lstm1 does not need backward computation.
I0924 03:21:41.288861 23246 net.cpp:219] embedding does not need backward computation.
I0924 03:21:41.288867 23246 net.cpp:219] reshape_stage_indicator does not need backward computation.
I0924 03:21:41.288877 23246 net.cpp:219] reshape_frames does not need backward computation.
I0924 03:21:41.288885 23246 net.cpp:219] embed_encoder does not need backward computation.
I0924 03:21:41.288892 23246 net.cpp:219] cont_sentence_input_1_split does not need backward computation.
I0924 03:21:41.288897 23246 net.cpp:219] input does not need backward computation.
I0924 03:21:41.288902 23246 net.cpp:261] This network produces output probs
I0924 03:21:41.288943 23246 net.cpp:274] Network initialization done.
I0924 03:21:41.289834 23242 net.cpp:141] Setting up probs
I0924 03:21:41.289856 23242 net.cpp:148] Top shape: 1 1 46168 (46168)
I0924 03:21:41.289865 23242 net.cpp:156] Memory required for data: 405756
I0924 03:21:41.289876 23242 net.cpp:219] probs does not need backward computation.
I0924 03:21:41.289887 23242 net.cpp:219] predict does not need backward computation.
I0924 03:21:41.289897 23242 net.cpp:219] lstm2 does not need backward computation.
I0924 03:21:41.289907 23242 net.cpp:219] concat does not need backward computation.
I0924 03:21:41.289921 23242 net.cpp:219] lstm1 does not need backward computation.
I0924 03:21:41.289935 23242 net.cpp:219] embedding does not need backward computation.
I0924 03:21:41.289947 23242 net.cpp:219] reshape_stage_indicator does not need backward computation.
I0924 03:21:41.289959 23242 net.cpp:219] reshape_frames does not need backward computation.
I0924 03:21:41.289973 23242 net.cpp:219] embed_encoder does not need backward computation.
I0924 03:21:41.289985 23242 net.cpp:219] cont_sentence_input_1_split does not need backward computation.
I0924 03:21:41.290000 23242 net.cpp:219] input does not need backward computation.
I0924 03:21:41.290011 23242 net.cpp:261] This network produces output probs
I0924 03:21:41.290040 23242 net.cpp:274] Network initialization done.
I0924 03:21:41.291085 23248 net.cpp:141] Setting up conv1
I0924 03:21:41.291115 23248 net.cpp:148] Top shape: 10 96 55 55 (2904000)
I0924 03:21:41.291124 23248 net.cpp:156] Memory required for data: 17799480
I0924 03:21:41.291155 23248 layer_factory.hpp:77] Creating layer relu1
I0924 03:21:41.291180 23248 net.cpp:91] Creating Layer relu1
I0924 03:21:41.291193 23248 net.cpp:425] relu1 <- conv1
I0924 03:21:41.291208 23248 net.cpp:386] relu1 -> conv1 (in-place)
I0924 03:21:41.291647 23248 net.cpp:141] Setting up relu1
I0924 03:21:41.291668 23248 net.cpp:148] Top shape: 10 96 55 55 (2904000)
I0924 03:21:41.291677 23248 net.cpp:156] Memory required for data: 29415480
I0924 03:21:41.291687 23248 layer_factory.hpp:77] Creating layer pool1
I0924 03:21:41.291713 23248 net.cpp:91] Creating Layer pool1
I0924 03:21:41.291723 23248 net.cpp:425] pool1 <- conv1
I0924 03:21:41.291738 23248 net.cpp:399] pool1 -> pool1
I0924 03:21:41.291872 23248 net.cpp:141] Setting up pool1
I0924 03:21:41.291892 23248 net.cpp:148] Top shape: 10 96 27 27 (699840)
I0924 03:21:41.291901 23248 net.cpp:156] Memory required for data: 32214840
I0924 03:21:41.291911 23248 layer_factory.hpp:77] Creating layer norm1
I0924 03:21:41.291939 23248 net.cpp:91] Creating Layer norm1
I0924 03:21:41.291949 23248 net.cpp:425] norm1 <- pool1
I0924 03:21:41.291963 23248 net.cpp:399] norm1 -> norm1
I0924 03:21:41.292744 23248 net.cpp:141] Setting up norm1
I0924 03:21:41.292794 23248 net.cpp:148] Top shape: 10 96 27 27 (699840)
I0924 03:21:41.292805 23248 net.cpp:156] Memory required for data: 35014200
I0924 03:21:41.292817 23248 layer_factory.hpp:77] Creating layer conv2
I0924 03:21:41.292843 23248 net.cpp:91] Creating Layer conv2
I0924 03:21:41.292855 23248 net.cpp:425] conv2 <- norm1
I0924 03:21:41.292870 23248 net.cpp:399] conv2 -> conv2
I0924 03:21:41.306736 23248 net.cpp:141] Setting up conv2
I0924 03:21:41.306792 23248 net.cpp:148] Top shape: 10 256 27 27 (1866240)
I0924 03:21:41.306798 23248 net.cpp:156] Memory required for data: 42479160
I0924 03:21:41.306821 23248 layer_factory.hpp:77] Creating layer relu2
I0924 03:21:41.306838 23248 net.cpp:91] Creating Layer relu2
I0924 03:21:41.306845 23248 net.cpp:425] relu2 <- conv2
I0924 03:21:41.307270 23236 net.cpp:141] Setting up predict
I0924 03:21:41.307287 23236 net.cpp:148] Top shape: 1 1 46168 (46168)
I0924 03:21:41.307293 23236 net.cpp:156] Memory required for data: 221084
I0924 03:21:41.307304 23236 layer_factory.hpp:77] Creating layer probs
I0924 03:21:41.307314 23236 net.cpp:91] Creating Layer probs
I0924 03:21:41.307322 23236 net.cpp:425] probs <- predict
I0924 03:21:41.307330 23236 net.cpp:399] probs -> probs
I0924 03:21:41.308746 23248 net.cpp:386] relu2 -> conv2 (in-place)
I0924 03:21:41.313441 23236 net.cpp:141] Setting up probs
I0924 03:21:41.313498 23236 net.cpp:148] Top shape: 1 1 46168 (46168)
I0924 03:21:41.313508 23236 net.cpp:156] Memory required for data: 405756
I0924 03:21:41.313521 23236 net.cpp:219] probs does not need backward computation.
I0924 03:21:41.313532 23236 net.cpp:219] predict does not need backward computation.
I0924 03:21:41.313542 23236 net.cpp:219] lstm2 does not need backward computation.
I0924 03:21:41.313551 23236 net.cpp:219] concat does not need backward computation.
I0924 03:21:41.313561 23236 net.cpp:219] lstm1 does not need backward computation.
I0924 03:21:41.313572 23236 net.cpp:219] embedding does not need backward computation.
I0924 03:21:41.313580 23236 net.cpp:219] reshape_stage_indicator does not need backward computation.
I0924 03:21:41.313588 23236 net.cpp:219] reshape_frames does not need backward computation.
I0924 03:21:41.313596 23236 net.cpp:219] embed_encoder does not need backward computation.
I0924 03:21:41.313611 23236 net.cpp:219] cont_sentence_input_1_split does not need backward computation.
I0924 03:21:41.313621 23236 net.cpp:219] input does not need backward computation.
I0924 03:21:41.313628 23236 net.cpp:261] This network produces output probs
I0924 03:21:41.313657 23236 net.cpp:274] Network initialization done.
I0924 03:21:41.321187 23248 net.cpp:141] Setting up relu2
I0924 03:21:41.321239 23248 net.cpp:148] Top shape: 10 256 27 27 (1866240)
I0924 03:21:41.321246 23248 net.cpp:156] Memory required for data: 49944120
I0924 03:21:41.321257 23248 layer_factory.hpp:77] Creating layer pool2
I0924 03:21:41.321307 23248 net.cpp:91] Creating Layer pool2
I0924 03:21:41.321317 23248 net.cpp:425] pool2 <- conv2
I0924 03:21:41.321329 23248 net.cpp:399] pool2 -> pool2
I0924 03:21:41.322553 23248 net.cpp:141] Setting up pool2
I0924 03:21:41.322589 23248 net.cpp:148] Top shape: 10 256 13 13 (432640)
I0924 03:21:41.322607 23248 net.cpp:156] Memory required for data: 51674680
I0924 03:21:41.322615 23248 layer_factory.hpp:77] Creating layer norm2
I0924 03:21:41.324062 23248 net.cpp:91] Creating Layer norm2
I0924 03:21:41.324082 23248 net.cpp:425] norm2 <- pool2
I0924 03:21:41.324097 23248 net.cpp:399] norm2 -> norm2
I0924 03:21:41.339318 23248 net.cpp:141] Setting up norm2
I0924 03:21:41.339375 23248 net.cpp:148] Top shape: 10 256 13 13 (432640)
I0924 03:21:41.339383 23248 net.cpp:156] Memory required for data: 53405240
I0924 03:21:41.339397 23248 layer_factory.hpp:77] Creating layer conv3
I0924 03:21:41.339946 23248 net.cpp:91] Creating Layer conv3
I0924 03:21:41.339962 23248 net.cpp:425] conv3 <- norm2
I0924 03:21:41.339982 23248 net.cpp:399] conv3 -> conv3
I0924 03:21:41.362833 23248 net.cpp:141] Setting up conv3
I0924 03:21:41.362881 23248 net.cpp:148] Top shape: 10 384 13 13 (648960)
I0924 03:21:41.362889 23248 net.cpp:156] Memory required for data: 56001080
I0924 03:21:41.363348 23248 layer_factory.hpp:77] Creating layer relu3
I0924 03:21:41.363402 23248 net.cpp:91] Creating Layer relu3
I0924 03:21:41.363410 23248 net.cpp:425] relu3 <- conv3
I0924 03:21:41.363426 23248 net.cpp:386] relu3 -> conv3 (in-place)
I0924 03:21:41.364984 23248 net.cpp:141] Setting up relu3
I0924 03:21:41.365005 23248 net.cpp:148] Top shape: 10 384 13 13 (648960)
I0924 03:21:41.365015 23248 net.cpp:156] Memory required for data: 58596920
I0924 03:21:41.365023 23248 layer_factory.hpp:77] Creating layer conv4
I0924 03:21:41.365056 23248 net.cpp:91] Creating Layer conv4
I0924 03:21:41.365066 23248 net.cpp:425] conv4 <- conv3
I0924 03:21:41.365085 23248 net.cpp:399] conv4 -> conv4
I0924 03:21:41.386456 23248 net.cpp:141] Setting up conv4
I0924 03:21:41.386528 23248 net.cpp:148] Top shape: 10 384 13 13 (648960)
I0924 03:21:41.386540 23248 net.cpp:156] Memory required for data: 61192760
I0924 03:21:41.386620 23248 layer_factory.hpp:77] Creating layer relu4
I0924 03:21:41.386659 23248 net.cpp:91] Creating Layer relu4
I0924 03:21:41.386672 23248 net.cpp:425] relu4 <- conv4
I0924 03:21:41.387233 23248 net.cpp:386] relu4 -> conv4 (in-place)
I0924 03:21:41.390038 23248 net.cpp:141] Setting up relu4
I0924 03:21:41.390089 23248 net.cpp:148] Top shape: 10 384 13 13 (648960)
I0924 03:21:41.390107 23248 net.cpp:156] Memory required for data: 63788600
I0924 03:21:41.390121 23248 layer_factory.hpp:77] Creating layer conv5
I0924 03:21:41.390163 23248 net.cpp:91] Creating Layer conv5
I0924 03:21:41.390174 23248 net.cpp:425] conv5 <- conv4
I0924 03:21:41.390717 23248 net.cpp:399] conv5 -> conv5
I0924 03:21:41.407878 23248 net.cpp:141] Setting up conv5
I0924 03:21:41.407932 23248 net.cpp:148] Top shape: 10 256 13 13 (432640)
I0924 03:21:41.407944 23248 net.cpp:156] Memory required for data: 65519160
I0924 03:21:41.407984 23248 layer_factory.hpp:77] Creating layer relu5
I0924 03:21:41.408015 23248 net.cpp:91] Creating Layer relu5
I0924 03:21:41.408027 23248 net.cpp:425] relu5 <- conv5
I0924 03:21:41.408048 23248 net.cpp:386] relu5 -> conv5 (in-place)
I0924 03:21:41.408361 23248 net.cpp:141] Setting up relu5
I0924 03:21:41.408375 23248 net.cpp:148] Top shape: 10 256 13 13 (432640)
I0924 03:21:41.408381 23248 net.cpp:156] Memory required for data: 67249720
I0924 03:21:41.408387 23248 layer_factory.hpp:77] Creating layer pool5
I0924 03:21:41.408401 23248 net.cpp:91] Creating Layer pool5
I0924 03:21:41.408406 23248 net.cpp:425] pool5 <- conv5
I0924 03:21:41.408413 23248 net.cpp:399] pool5 -> pool5
I0924 03:21:41.408495 23248 net.cpp:141] Setting up pool5
I0924 03:21:41.408505 23248 net.cpp:148] Top shape: 10 256 6 6 (92160)
I0924 03:21:41.408510 23248 net.cpp:156] Memory required for data: 67618360
I0924 03:21:41.408515 23248 layer_factory.hpp:77] Creating layer fc6
I0924 03:21:41.408540 23248 net.cpp:91] Creating Layer fc6
I0924 03:21:41.408545 23248 net.cpp:425] fc6 <- pool5
I0924 03:21:41.408552 23248 net.cpp:399] fc6 -> fc6
I0924 03:21:41.532624 23274 net.cpp:141] Setting up predict
I0924 03:21:41.532681 23274 net.cpp:148] Top shape: 1 1 46168 (46168)
I0924 03:21:41.532690 23274 net.cpp:156] Memory required for data: 221084
I0924 03:21:41.532706 23274 layer_factory.hpp:77] Creating layer probs
I0924 03:21:41.532723 23274 net.cpp:91] Creating Layer probs
I0924 03:21:41.532732 23274 net.cpp:425] probs <- predict
I0924 03:21:41.532742 23274 net.cpp:399] probs -> probs
I0924 03:21:41.534246 23274 net.cpp:141] Setting up probs
I0924 03:21:41.534303 23274 net.cpp:148] Top shape: 1 1 46168 (46168)
I0924 03:21:41.534313 23274 net.cpp:156] Memory required for data: 405756
I0924 03:21:41.534327 23274 net.cpp:219] probs does not need backward computation.
I0924 03:21:41.534339 23274 net.cpp:219] predict does not need backward computation.
I0924 03:21:41.534348 23274 net.cpp:219] lstm2 does not need backward computation.
I0924 03:21:41.534358 23274 net.cpp:219] concat does not need backward computation.
I0924 03:21:41.534369 23274 net.cpp:219] lstm1 does not need backward computation.
I0924 03:21:41.534380 23274 net.cpp:219] embedding does not need backward computation.
I0924 03:21:41.534389 23274 net.cpp:219] reshape_stage_indicator does not need backward computation.
I0924 03:21:41.534399 23274 net.cpp:219] reshape_frames does not need backward computation.
I0924 03:21:41.534409 23274 net.cpp:219] embed_encoder does not need backward computation.
I0924 03:21:41.534418 23274 net.cpp:219] cont_sentence_input_1_split does not need backward computation.
I0924 03:21:41.534431 23274 net.cpp:219] input does not need backward computation.
I0924 03:21:41.534442 23274 net.cpp:261] This network produces output probs
I0924 03:21:41.534966 23274 net.cpp:274] Network initialization done.
I0924 03:21:41.546659 23248 net.cpp:141] Setting up fc6
I0924 03:21:41.546715 23248 net.cpp:148] Top shape: 10 4096 (40960)
I0924 03:21:41.546721 23248 net.cpp:156] Memory required for data: 67782200
I0924 03:21:41.546737 23248 layer_factory.hpp:77] Creating layer relu6
I0924 03:21:41.546758 23248 net.cpp:91] Creating Layer relu6
I0924 03:21:41.546766 23248 net.cpp:425] relu6 <- fc6
I0924 03:21:41.546775 23248 net.cpp:386] relu6 -> fc6 (in-place)
I0924 03:21:41.552850 23248 net.cpp:141] Setting up relu6
I0924 03:21:41.552911 23248 net.cpp:148] Top shape: 10 4096 (40960)
I0924 03:21:41.552918 23248 net.cpp:156] Memory required for data: 67946040
I0924 03:21:41.552927 23248 layer_factory.hpp:77] Creating layer drop6
I0924 03:21:41.552947 23248 net.cpp:91] Creating Layer drop6
I0924 03:21:41.552953 23248 net.cpp:425] drop6 <- fc6
I0924 03:21:41.552968 23248 net.cpp:386] drop6 -> fc6 (in-place)
I0924 03:21:41.553144 23248 net.cpp:141] Setting up drop6
I0924 03:21:41.553155 23248 net.cpp:148] Top shape: 10 4096 (40960)
I0924 03:21:41.553161 23248 net.cpp:156] Memory required for data: 68109880
I0924 03:21:41.553167 23248 layer_factory.hpp:77] Creating layer fc7
I0924 03:21:41.553647 23248 net.cpp:91] Creating Layer fc7
I0924 03:21:41.553655 23248 net.cpp:425] fc7 <- fc6
I0924 03:21:41.553664 23248 net.cpp:399] fc7 -> fc7
I0924 03:21:41.585571 23254 net.cpp:141] Setting up predict
I0924 03:21:41.585743 23254 net.cpp:148] Top shape: 1 1 46168 (46168)
I0924 03:21:41.585762 23254 net.cpp:156] Memory required for data: 221084
I0924 03:21:41.585814 23254 layer_factory.hpp:77] Creating layer probs
I0924 03:21:41.585885 23254 net.cpp:91] Creating Layer probs
I0924 03:21:41.585909 23254 net.cpp:425] probs <- predict
I0924 03:21:41.585952 23254 net.cpp:399] probs -> probs
I0924 03:21:41.588503 23254 net.cpp:141] Setting up probs
I0924 03:21:41.588613 23254 net.cpp:148] Top shape: 1 1 46168 (46168)
I0924 03:21:41.588623 23254 net.cpp:156] Memory required for data: 405756
I0924 03:21:41.588641 23254 net.cpp:219] probs does not need backward computation.
I0924 03:21:41.588656 23254 net.cpp:219] predict does not need backward computation.
I0924 03:21:41.588667 23254 net.cpp:219] lstm2 does not need backward computation.
I0924 03:21:41.588680 23254 net.cpp:219] concat does not need backward computation.
I0924 03:21:41.588692 23254 net.cpp:219] lstm1 does not need backward computation.
I0924 03:21:41.588704 23254 net.cpp:219] embedding does not need backward computation.
I0924 03:21:41.588713 23254 net.cpp:219] reshape_stage_indicator does not need backward computation.
I0924 03:21:41.588722 23254 net.cpp:219] reshape_frames does not need backward computation.
I0924 03:21:41.588731 23254 net.cpp:219] embed_encoder does not need backward computation.
I0924 03:21:41.588740 23254 net.cpp:219] cont_sentence_input_1_split does not need backward computation.
I0924 03:21:41.588749 23254 net.cpp:219] input does not need backward computation.
I0924 03:21:41.588757 23254 net.cpp:261] This network produces output probs
I0924 03:21:41.588793 23254 net.cpp:274] Network initialization done.
I0924 03:21:41.615893 23248 net.cpp:141] Setting up fc7
I0924 03:21:41.615948 23248 net.cpp:148] Top shape: 10 4096 (40960)
I0924 03:21:41.615955 23248 net.cpp:156] Memory required for data: 68273720
I0924 03:21:41.615975 23248 layer_factory.hpp:77] Creating layer relu7
I0924 03:21:41.615993 23248 net.cpp:91] Creating Layer relu7
I0924 03:21:41.616001 23248 net.cpp:425] relu7 <- fc7
I0924 03:21:41.616009 23248 net.cpp:386] relu7 -> fc7 (in-place)
I0924 03:21:41.617655 23248 net.cpp:141] Setting up relu7
I0924 03:21:41.617708 23248 net.cpp:148] Top shape: 10 4096 (40960)
I0924 03:21:41.617715 23248 net.cpp:156] Memory required for data: 68437560
I0924 03:21:41.617725 23248 layer_factory.hpp:77] Creating layer drop7
I0924 03:21:41.617743 23248 net.cpp:91] Creating Layer drop7
I0924 03:21:41.617750 23248 net.cpp:425] drop7 <- fc7
I0924 03:21:41.617760 23248 net.cpp:386] drop7 -> fc7 (in-place)
I0924 03:21:41.619453 23248 net.cpp:141] Setting up drop7
I0924 03:21:41.619503 23248 net.cpp:148] Top shape: 10 4096 (40960)
I0924 03:21:41.619508 23248 net.cpp:156] Memory required for data: 68601400
I0924 03:21:41.619518 23248 layer_factory.hpp:77] Creating layer fc8
I0924 03:21:41.619534 23248 net.cpp:91] Creating Layer fc8
I0924 03:21:41.620419 23248 net.cpp:425] fc8 <- fc7
I0924 03:21:41.620445 23248 net.cpp:399] fc8 -> fc8
I0924 03:21:41.638304 23248 net.cpp:141] Setting up fc8
I0924 03:21:41.638386 23248 net.cpp:148] Top shape: 10 1000 (10000)
I0924 03:21:41.638397 23248 net.cpp:156] Memory required for data: 68641400
I0924 03:21:41.638428 23248 layer_factory.hpp:77] Creating layer prob
I0924 03:21:41.638458 23248 net.cpp:91] Creating Layer prob
I0924 03:21:41.638470 23248 net.cpp:425] prob <- fc8
I0924 03:21:41.638869 23248 net.cpp:399] prob -> prob
I0924 03:21:41.641513 23248 net.cpp:141] Setting up prob
I0924 03:21:41.641579 23248 net.cpp:148] Top shape: 10 1000 (10000)
I0924 03:21:41.641592 23248 net.cpp:156] Memory required for data: 68681400
I0924 03:21:41.641604 23248 net.cpp:219] prob does not need backward computation.
I0924 03:21:41.641616 23248 net.cpp:219] fc8 does not need backward computation.
I0924 03:21:41.641625 23248 net.cpp:219] drop7 does not need backward computation.
I0924 03:21:41.641633 23248 net.cpp:219] relu7 does not need backward computation.
…
