…
2016-09-13 21:26:32.962 n.t.s.b.CVParticleBolt [INFO] [Timing] RequestID: 0 StreamID: home_peifeng_work_data_frame_1080x1920_png SequenceNr: 116 Entering scale: 1473816392962
2016-09-13 21:26:32.966 n.t.s.b.CVParticleBolt [INFO] [Timing] RequestID: 0 StreamID: home_peifeng_work_data_frame_1080x1920_png SequenceNr: 112 Leaving scale: 1473816392966 Size: 60165
2016-09-13 21:26:32.967 n.t.s.b.CVParticleBolt [INFO] [Timing] RequestID: 0 StreamID: home_peifeng_work_data_frame_1080x1920_png SequenceNr: 114 Entering scale: 1473816392967
2016-09-13 21:26:32.985 STDERR [INFO] I0913 21:26:32.984910 26319 net.cpp:141] Setting up conv1
2016-09-13 21:26:32.986 STDERR [INFO] I0913 21:26:32.984987 26319 net.cpp:148] Top shape: 10 96 55 55 (2904000)
2016-09-13 21:26:32.986 STDERR [INFO] I0913 21:26:32.984998 26319 net.cpp:156] Memory required for data: 17799480
2016-09-13 21:26:32.986 STDERR [INFO] I0913 21:26:32.985051 26319 layer_factory.hpp:77] Creating layer relu1
2016-09-13 21:26:32.987 STDERR [INFO] I0913 21:26:32.985095 26319 net.cpp:91] Creating Layer relu1
2016-09-13 21:26:32.987 STDERR [INFO] I0913 21:26:32.985108 26319 net.cpp:425] relu1 <- conv1
2016-09-13 21:26:32.987 STDERR [INFO] I0913 21:26:32.985123 26319 net.cpp:386] relu1 -> conv1 (in-place)
2016-09-13 21:26:32.987 STDERR [INFO] I0913 21:26:32.985870 26319 net.cpp:141] Setting up relu1
2016-09-13 21:26:32.987 STDERR [INFO] I0913 21:26:32.985898 26319 net.cpp:148] Top shape: 10 96 55 55 (2904000)
2016-09-13 21:26:32.987 STDERR [INFO] I0913 21:26:32.985908 26319 net.cpp:156] Memory required for data: 29415480
2016-09-13 21:26:32.987 STDERR [INFO] I0913 21:26:32.985920 26319 layer_factory.hpp:77] Creating layer pool1
2016-09-13 21:26:32.988 STDERR [INFO] I0913 21:26:32.985957 26319 net.cpp:91] Creating Layer pool1
2016-09-13 21:26:32.988 STDERR [INFO] I0913 21:26:32.985970 26319 net.cpp:425] pool1 <- conv1
2016-09-13 21:26:32.988 STDERR [INFO] I0913 21:26:32.985986 26319 net.cpp:399] pool1 -> pool1
2016-09-13 21:26:32.988 STDERR [INFO] I0913 21:26:32.986131 26319 net.cpp:141] Setting up pool1
2016-09-13 21:26:32.988 STDERR [INFO] I0913 21:26:32.986152 26319 net.cpp:148] Top shape: 10 96 27 27 (699840)
2016-09-13 21:26:32.988 STDERR [INFO] I0913 21:26:32.986162 26319 net.cpp:156] Memory required for data: 32214840
2016-09-13 21:26:32.989 STDERR [INFO] I0913 21:26:32.986173 26319 layer_factory.hpp:77] Creating layer norm1
2016-09-13 21:26:32.989 STDERR [INFO] I0913 21:26:32.986214 26319 net.cpp:91] Creating Layer norm1
2016-09-13 21:26:32.989 STDERR [INFO] I0913 21:26:32.986224 26319 net.cpp:425] norm1 <- pool1
2016-09-13 21:26:32.989 STDERR [INFO] I0913 21:26:32.986239 26319 net.cpp:399] norm1 -> norm1
2016-09-13 21:26:32.989 STDERR [INFO] I0913 21:26:32.986753 26319 net.cpp:141] Setting up norm1
2016-09-13 21:26:32.989 STDERR [INFO] I0913 21:26:32.986778 26319 net.cpp:148] Top shape: 10 96 27 27 (699840)
2016-09-13 21:26:32.989 STDERR [INFO] I0913 21:26:32.986786 26319 net.cpp:156] Memory required for data: 35014200
2016-09-13 21:26:32.989 STDERR [INFO] I0913 21:26:32.986796 26319 layer_factory.hpp:77] Creating layer conv2
2016-09-13 21:26:32.990 STDERR [INFO] I0913 21:26:32.986824 26319 net.cpp:91] Creating Layer conv2
2016-09-13 21:26:32.990 STDERR [INFO] I0913 21:26:32.986835 26319 net.cpp:425] conv2 <- norm1
2016-09-13 21:26:32.990 STDERR [INFO] I0913 21:26:32.986850 26319 net.cpp:399] conv2 -> conv2
2016-09-13 21:26:32.996 STDERR [INFO] I0913 21:26:32.996695 26319 net.cpp:141] Setting up conv2
2016-09-13 21:26:32.997 STDERR [INFO] I0913 21:26:32.996740 26319 net.cpp:148] Top shape: 10 256 27 27 (1866240)
2016-09-13 21:26:32.997 STDERR [INFO] I0913 21:26:32.996748 26319 net.cpp:156] Memory required for data: 42479160
2016-09-13 21:26:32.997 STDERR [INFO] I0913 21:26:32.996767 26319 layer_factory.hpp:77] Creating layer relu2
2016-09-13 21:26:32.997 STDERR [INFO] I0913 21:26:32.996785 26319 net.cpp:91] Creating Layer relu2
2016-09-13 21:26:32.997 STDERR [INFO] I0913 21:26:32.996793 26319 net.cpp:425] relu2 <- conv2
2016-09-13 21:26:32.998 STDERR [INFO] I0913 21:26:32.996801 26319 net.cpp:386] relu2 -> conv2 (in-place)
2016-09-13 21:26:32.998 STDERR [INFO] I0913 21:26:32.997190 26319 net.cpp:141] Setting up relu2
2016-09-13 21:26:32.998 STDERR [INFO] I0913 21:26:32.997205 26319 net.cpp:148] Top shape: 10 256 27 27 (1866240)
2016-09-13 21:26:32.998 STDERR [INFO] I0913 21:26:32.997210 26319 net.cpp:156] Memory required for data: 49944120
2016-09-13 21:26:32.998 STDERR [INFO] I0913 21:26:32.997215 26319 layer_factory.hpp:77] Creating layer pool2
2016-09-13 21:26:32.998 STDERR [INFO] I0913 21:26:32.997226 26319 net.cpp:91] Creating Layer pool2
2016-09-13 21:26:32.998 STDERR [INFO] I0913 21:26:32.997231 26319 net.cpp:425] pool2 <- conv2
2016-09-13 21:26:32.998 STDERR [INFO] I0913 21:26:32.997241 26319 net.cpp:399] pool2 -> pool2
2016-09-13 21:26:32.998 STDERR [INFO] I0913 21:26:32.997294 26319 net.cpp:141] Setting up pool2
2016-09-13 21:26:32.998 STDERR [INFO] I0913 21:26:32.997303 26319 net.cpp:148] Top shape: 10 256 13 13 (432640)
2016-09-13 21:26:32.999 STDERR [INFO] I0913 21:26:32.997308 26319 net.cpp:156] Memory required for data: 51674680
2016-09-13 21:26:32.999 STDERR [INFO] I0913 21:26:32.997315 26319 layer_factory.hpp:77] Creating layer norm2
2016-09-13 21:26:32.999 STDERR [INFO] I0913 21:26:32.997328 26319 net.cpp:91] Creating Layer norm2
2016-09-13 21:26:32.999 STDERR [INFO] I0913 21:26:32.997334 26319 net.cpp:425] norm2 <- pool2
2016-09-13 21:26:32.999 STDERR [INFO] I0913 21:26:32.997341 26319 net.cpp:399] norm2 -> norm2
2016-09-13 21:26:32.999 STDERR [INFO] I0913 21:26:32.997575 26319 net.cpp:141] Setting up norm2
2016-09-13 21:26:32.999 STDERR [INFO] I0913 21:26:32.997586 26319 net.cpp:148] Top shape: 10 256 13 13 (432640)
2016-09-13 21:26:32.999 STDERR [INFO] I0913 21:26:32.997591 26319 net.cpp:156] Memory required for data: 53405240
2016-09-13 21:26:32.999 STDERR [INFO] I0913 21:26:32.997596 26319 layer_factory.hpp:77] Creating layer conv3
2016-09-13 21:26:32.999 STDERR [INFO] I0913 21:26:32.997609 26319 net.cpp:91] Creating Layer conv3
2016-09-13 21:26:33.000 n.t.s.f.RefreshingImageFetcher$ImageReader [INFO] [Timing] RequestID: 0 StreamID: home_peifeng_work_data_frame_1080x1920_png SequenceNr: 128 Entering queue: 1473816393000
2016-09-13 21:26:33.000 STDERR [INFO] I0913 21:26:32.997615 26319 net.cpp:425] conv3 <- norm2
2016-09-13 21:26:33.000 STDERR [INFO] I0913 21:26:32.997623 26319 net.cpp:399] conv3 -> conv3
2016-09-13 21:26:33.000 n.t.s.f.RefreshingImageFetcher$ImageReader [INFO] [Timing] RequestID: 0 StreamID: home_peifeng_work_data_frame_1080x1920_png SequenceNr: 129 Entering queue: 1473816393000
2016-09-13 21:26:33.000 n.t.s.f.RefreshingImageFetcher$ImageReader [INFO] [Timing] RequestID: 0 StreamID: home_peifeng_work_data_frame_1080x1920_png SequenceNr: 130 Entering queue: 1473816393000
2016-09-13 21:26:33.000 n.t.s.f.RefreshingImageFetcher$ImageReader [INFO] [Timing] RequestID: 0 StreamID: home_peifeng_work_data_frame_1080x1920_png SequenceNr: 131 Entering queue: 1473816393000
2016-09-13 21:26:33.001 STDERR [INFO] I0913 21:26:33.001020 26319 net.cpp:141] Setting up conv3
2016-09-13 21:26:33.001 STDERR [INFO] I0913 21:26:33.001042 26319 net.cpp:148] Top shape: 10 384 13 13 (648960)
2016-09-13 21:26:33.001 STDERR [INFO] I0913 21:26:33.001047 26319 net.cpp:156] Memory required for data: 56001080
2016-09-13 21:26:33.001 STDERR [INFO] I0913 21:26:33.001061 26319 layer_factory.hpp:77] Creating layer relu3
2016-09-13 21:26:33.001 STDERR [INFO] I0913 21:26:33.001071 26319 net.cpp:91] Creating Layer relu3
2016-09-13 21:26:33.001 STDERR [INFO] I0913 21:26:33.001077 26319 net.cpp:425] relu3 <- conv3
2016-09-13 21:26:33.001 STDERR [INFO] I0913 21:26:33.001085 26319 net.cpp:386] relu3 -> conv3 (in-place)
2016-09-13 21:26:33.001 STDERR [INFO] I0913 21:26:33.001286 26319 net.cpp:141] Setting up relu3
2016-09-13 21:26:33.002 STDERR [INFO] I0913 21:26:33.001298 26319 net.cpp:148] Top shape: 10 384 13 13 (648960)
2016-09-13 21:26:33.002 STDERR [INFO] I0913 21:26:33.001303 26319 net.cpp:156] Memory required for data: 58596920
2016-09-13 21:26:33.002 STDERR [INFO] I0913 21:26:33.001308 26319 layer_factory.hpp:77] Creating layer conv4
2016-09-13 21:26:33.002 STDERR [INFO] I0913 21:26:33.001320 26319 net.cpp:91] Creating Layer conv4
2016-09-13 21:26:33.002 STDERR [INFO] I0913 21:26:33.001325 26319 net.cpp:425] conv4 <- conv3
2016-09-13 21:26:33.002 STDERR [INFO] I0913 21:26:33.001333 26319 net.cpp:399] conv4 -> conv4
2016-09-13 21:26:33.005 STDERR [INFO] I0913 21:26:33.005106 26319 net.cpp:141] Setting up conv4
2016-09-13 21:26:33.005 STDERR [INFO] I0913 21:26:33.005131 26319 net.cpp:148] Top shape: 10 384 13 13 (648960)
2016-09-13 21:26:33.005 STDERR [INFO] I0913 21:26:33.005137 26319 net.cpp:156] Memory required for data: 61192760
2016-09-13 21:26:33.005 STDERR [INFO] I0913 21:26:33.005149 26319 layer_factory.hpp:77] Creating layer relu4
2016-09-13 21:26:33.005 STDERR [INFO] I0913 21:26:33.005159 26319 net.cpp:91] Creating Layer relu4
2016-09-13 21:26:33.005 STDERR [INFO] I0913 21:26:33.005164 26319 net.cpp:425] relu4 <- conv4
2016-09-13 21:26:33.005 STDERR [INFO] I0913 21:26:33.005173 26319 net.cpp:386] relu4 -> conv4 (in-place)
2016-09-13 21:26:33.006 STDERR [INFO] I0913 21:26:33.005551 26319 net.cpp:141] Setting up relu4
2016-09-13 21:26:33.006 STDERR [INFO] I0913 21:26:33.005564 26319 net.cpp:148] Top shape: 10 384 13 13 (648960)
2016-09-13 21:26:33.006 STDERR [INFO] I0913 21:26:33.005569 26319 net.cpp:156] Memory required for data: 63788600
2016-09-13 21:26:33.006 STDERR [INFO] I0913 21:26:33.005574 26319 layer_factory.hpp:77] Creating layer conv5
2016-09-13 21:26:33.006 STDERR [INFO] I0913 21:26:33.005587 26319 net.cpp:91] Creating Layer conv5
2016-09-13 21:26:33.006 STDERR [INFO] I0913 21:26:33.005594 26319 net.cpp:425] conv5 <- conv4
2016-09-13 21:26:33.006 STDERR [INFO] I0913 21:26:33.005600 26319 net.cpp:399] conv5 -> conv5
2016-09-13 21:26:33.009 STDERR [INFO] I0913 21:26:33.009176 26319 net.cpp:141] Setting up conv5
2016-09-13 21:26:33.009 STDERR [INFO] I0913 21:26:33.009194 26319 net.cpp:148] Top shape: 10 256 13 13 (432640)
2016-09-13 21:26:33.009 STDERR [INFO] I0913 21:26:33.009199 26319 net.cpp:156] Memory required for data: 65519160
2016-09-13 21:26:33.009 STDERR [INFO] I0913 21:26:33.009214 26319 layer_factory.hpp:77] Creating layer relu5
2016-09-13 21:26:33.009 STDERR [INFO] I0913 21:26:33.009230 26319 net.cpp:91] Creating Layer relu5
2016-09-13 21:26:33.009 STDERR [INFO] I0913 21:26:33.009237 26319 net.cpp:425] relu5 <- conv5
2016-09-13 21:26:33.009 STDERR [INFO] I0913 21:26:33.009243 26319 net.cpp:386] relu5 -> conv5 (in-place)
2016-09-13 21:26:33.010 STDERR [INFO] I0913 21:26:33.009647 26319 net.cpp:141] Setting up relu5
2016-09-13 21:26:33.010 STDERR [INFO] I0913 21:26:33.009660 26319 net.cpp:148] Top shape: 10 256 13 13 (432640)
2016-09-13 21:26:33.010 STDERR [INFO] I0913 21:26:33.009665 26319 net.cpp:156] Memory required for data: 67249720
2016-09-13 21:26:33.010 STDERR [INFO] I0913 21:26:33.009670 26319 layer_factory.hpp:77] Creating layer pool5
2016-09-13 21:26:33.010 STDERR [INFO] I0913 21:26:33.009680 26319 net.cpp:91] Creating Layer pool5
2016-09-13 21:26:33.010 STDERR [INFO] I0913 21:26:33.009685 26319 net.cpp:425] pool5 <- conv5
2016-09-13 21:26:33.010 STDERR [INFO] I0913 21:26:33.009696 26319 net.cpp:399] pool5 -> pool5
2016-09-13 21:26:33.010 STDERR [INFO] I0913 21:26:33.009757 26319 net.cpp:141] Setting up pool5
2016-09-13 21:26:33.010 STDERR [INFO] I0913 21:26:33.009768 26319 net.cpp:148] Top shape: 10 256 6 6 (92160)
2016-09-13 21:26:33.010 STDERR [INFO] I0913 21:26:33.009773 26319 net.cpp:156] Memory required for data: 67618360
2016-09-13 21:26:33.011 STDERR [INFO] I0913 21:26:33.009778 26319 layer_factory.hpp:77] Creating layer fc6
2016-09-13 21:26:33.011 STDERR [INFO] I0913 21:26:33.009798 26319 net.cpp:91] Creating Layer fc6
2016-09-13 21:26:33.011 STDERR [INFO] I0913 21:26:33.009804 26319 net.cpp:425] fc6 <- pool5
…
2016-09-13 21:26:33.093 STDERR [INFO] I0913 21:26:33.078099 26309 net.cpp:91] Creating Layer input
2016-09-13 21:26:33.094 STDERR [INFO] I0913 21:26:33.078107 26309 net.cpp:399] input -> frames_fc7
2016-09-13 21:26:33.094 STDERR [INFO] I0913 21:26:33.078127 26309 net.cpp:399] input -> cont_sentence
2016-09-13 21:26:33.094 STDERR [INFO] I0913 21:26:33.078138 26309 net.cpp:399] input -> input_sentence
2016-09-13 21:26:33.094 STDERR [INFO] I0913 21:26:33.078148 26309 net.cpp:399] input -> stage_indicator
2016-09-13 21:26:33.094 STDERR [INFO] I0913 21:26:33.078275 26309 net.cpp:141] Setting up input
2016-09-13 21:26:33.094 STDERR [INFO] I0913 21:26:33.078289 26309 net.cpp:148] Top shape: 1 4096 (4096)
2016-09-13 21:26:33.094 STDERR [INFO] I0913 21:26:33.078294 26309 net.cpp:148] Top shape: 1 1 (1)
2016-09-13 21:26:33.094 STDERR [INFO] I0913 21:26:33.078300 26309 net.cpp:148] Top shape: 1 1 (1)
2016-09-13 21:26:33.094 STDERR [INFO] I0913 21:26:33.078306 26309 net.cpp:148] Top shape: 1 1 (1)
2016-09-13 21:26:33.094 STDERR [INFO] I0913 21:26:33.078311 26309 net.cpp:156] Memory required for data: 16396
2016-09-13 21:26:33.094 STDERR [INFO] I0913 21:26:33.078317 26309 layer_factory.hpp:77] Creating layer cont_sentence_input_1_split
2016-09-13 21:26:33.094 STDERR [INFO] I0913 21:26:33.078337 26309 net.cpp:91] Creating Layer cont_sentence_input_1_split
2016-09-13 21:26:33.094 STDERR [INFO] I0913 21:26:33.078344 26309 net.cpp:425] cont_sentence_input_1_split <- cont_sentence
2016-09-13 21:26:33.095 STDERR [INFO] I0913 21:26:33.078363 26309 net.cpp:399] cont_sentence_input_1_split -> cont_sentence_input_1_split_0
2016-09-13 21:26:33.095 STDERR [INFO] I0913 21:26:33.078373 26309 net.cpp:399] cont_sentence_input_1_split -> cont_sentence_input_1_split_1
2016-09-13 21:26:33.095 STDERR [INFO] I0913 21:26:33.078425 26309 net.cpp:141] Setting up cont_sentence_input_1_split
2016-09-13 21:26:33.095 STDERR [INFO] I0913 21:26:33.078436 26309 net.cpp:148] Top shape: 1 1 (1)
2016-09-13 21:26:33.095 STDERR [INFO] I0913 21:26:33.078443 26309 net.cpp:148] Top shape: 1 1 (1)
2016-09-13 21:26:33.095 STDERR [INFO] I0913 21:26:33.078447 26309 net.cpp:156] Memory required for data: 16404
2016-09-13 21:26:33.095 STDERR [INFO] I0913 21:26:33.078452 26309 layer_factory.hpp:77] Creating layer embed_encoder
2016-09-13 21:26:33.095 STDERR [INFO] I0913 21:26:33.078466 26309 net.cpp:91] Creating Layer embed_encoder
2016-09-13 21:26:33.095 STDERR [INFO] I0913 21:26:33.078471 26309 net.cpp:425] embed_encoder <- frames_fc7
2016-09-13 21:26:33.095 STDERR [INFO] I0913 21:26:33.078481 26309 net.cpp:399] embed_encoder -> embedded_in_frames
2016-09-13 21:26:33.098 STDERR [INFO] I0913 21:26:33.098263 26309 net.cpp:141] Setting up embed_encoder
2016-09-13 21:26:33.098 STDERR [INFO] I0913 21:26:33.098311 26309 net.cpp:148] Top shape: 1 500 (500)
2016-09-13 21:26:33.098 STDERR [INFO] I0913 21:26:33.098318 26309 net.cpp:156] Memory required for data: 18404
2016-09-13 21:26:33.098 STDERR [INFO] I0913 21:26:33.098341 26309 layer_factory.hpp:77] Creating layer reshape_frames
2016-09-13 21:26:33.098 STDERR [INFO] I0913 21:26:33.098376 26309 net.cpp:91] Creating Layer reshape_frames
2016-09-13 21:26:33.098 STDERR [INFO] I0913 21:26:33.098387 26309 net.cpp:425] reshape_frames <- embedded_in_frames
2016-09-13 21:26:33.099 STDERR [INFO] I0913 21:26:33.098398 26309 net.cpp:399] reshape_frames -> embedded_input_frames
2016-09-13 21:26:33.099 STDERR [INFO] I0913 21:26:33.098459 26309 net.cpp:141] Setting up reshape_frames
2016-09-13 21:26:33.099 STDERR [INFO] I0913 21:26:33.098469 26309 net.cpp:148] Top shape: 1 1 500 (500)
2016-09-13 21:26:33.099 STDERR [INFO] I0913 21:26:33.098472 26309 net.cpp:156] Memory required for data: 20404
2016-09-13 21:26:33.099 STDERR [INFO] I0913 21:26:33.098477 26309 layer_factory.hpp:77] Creating layer reshape_stage_indicator
2016-09-13 21:26:33.099 STDERR [INFO] I0913 21:26:33.098490 26309 net.cpp:91] Creating Layer reshape_stage_indicator
2016-09-13 21:26:33.099 STDERR [INFO] I0913 21:26:33.098496 26309 net.cpp:425] reshape_stage_indicator <- stage_indicator
2016-09-13 21:26:33.099 STDERR [INFO] I0913 21:26:33.098506 26309 net.cpp:399] reshape_stage_indicator -> reshaped_stage_indicator
2016-09-13 21:26:33.099 STDERR [INFO] I0913 21:26:33.098547 26309 net.cpp:141] Setting up reshape_stage_indicator
2016-09-13 21:26:33.099 STDERR [INFO] I0913 21:26:33.098557 26309 net.cpp:148] Top shape: 1 1 1 (1)
2016-09-13 21:26:33.099 STDERR [INFO] I0913 21:26:33.098562 26309 net.cpp:156] Memory required for data: 20408
2016-09-13 21:26:33.099 STDERR [INFO] I0913 21:26:33.098567 26309 layer_factory.hpp:77] Creating layer embedding
2016-09-13 21:26:33.100 STDERR [INFO] I0913 21:26:33.098583 26309 net.cpp:91] Creating Layer embedding
2016-09-13 21:26:33.100 STDERR [INFO] I0913 21:26:33.098588 26309 net.cpp:425] embedding <- input_sentence
2016-09-13 21:26:33.100 STDERR [INFO] I0913 21:26:33.098597 26309 net.cpp:399] embedding -> embedded_input_sentence
2016-09-13 21:26:33.118 n.t.s.s.CVParticleSpout [INFO] [Timing] RequestID: 0 StreamID: home_peifeng_work_data_frame_1080x1920_png SequenceNr: 119 Leaving fetcher: 1473816393118 Size: 160423
2016-09-13 21:26:33.138 STDERR [INFO] I0913 21:26:33.138281 26319 net.cpp:141] Setting up fc6
2016-09-13 21:26:33.138 STDERR [INFO] I0913 21:26:33.138336 26319 net.cpp:148] Top shape: 10 4096 (40960)
2016-09-13 21:26:33.138 STDERR [INFO] I0913 21:26:33.138342 26319 net.cpp:156] Memory required for data: 67782200
2016-09-13 21:26:33.139 STDERR [INFO] I0913 21:26:33.138360 26319 layer_factory.hpp:77] Creating layer relu6
2016-09-13 21:26:33.139 STDERR [INFO] I0913 21:26:33.138377 26319 net.cpp:91] Creating Layer relu6
2016-09-13 21:26:33.139 STDERR [INFO] I0913 21:26:33.138384 26319 net.cpp:425] relu6 <- fc6
2016-09-13 21:26:33.139 STDERR [INFO] I0913 21:26:33.138392 26319 net.cpp:386] relu6 -> fc6 (in-place)
2016-09-13 21:26:33.139 STDERR [INFO] I0913 21:26:33.138737 26319 net.cpp:141] Setting up relu6
2016-09-13 21:26:33.139 STDERR [INFO] I0913 21:26:33.138751 26319 net.cpp:148] Top shape: 10 4096 (40960)
2016-09-13 21:26:33.139 STDERR [INFO] I0913 21:26:33.138756 26319 net.cpp:156] Memory required for data: 67946040
2016-09-13 21:26:33.139 STDERR [INFO] I0913 21:26:33.138761 26319 layer_factory.hpp:77] Creating layer drop6
2016-09-13 21:26:33.139 STDERR [INFO] I0913 21:26:33.138775 26319 net.cpp:91] Creating Layer drop6
2016-09-13 21:26:33.139 STDERR [INFO] I0913 21:26:33.138780 26319 net.cpp:425] drop6 <- fc6
2016-09-13 21:26:33.139 STDERR [INFO] I0913 21:26:33.138787 26319 net.cpp:386] drop6 -> fc6 (in-place)
2016-09-13 21:26:33.139 STDERR [INFO] I0913 21:26:33.138845 26319 net.cpp:141] Setting up drop6
2016-09-13 21:26:33.140 STDERR [INFO] I0913 21:26:33.138854 26319 net.cpp:148] Top shape: 10 4096 (40960)
2016-09-13 21:26:33.140 STDERR [INFO] I0913 21:26:33.138859 26319 net.cpp:156] Memory required for data: 68109880
2016-09-13 21:26:33.140 STDERR [INFO] I0913 21:26:33.138864 26319 layer_factory.hpp:77] Creating layer fc7
2016-09-13 21:26:33.140 STDERR [INFO] I0913 21:26:33.138875 26319 net.cpp:91] Creating Layer fc7
2016-09-13 21:26:33.140 STDERR [INFO] I0913 21:26:33.138880 26319 net.cpp:425] fc7 <- fc6
2016-09-13 21:26:33.140 STDERR [INFO] I0913 21:26:33.138891 26319 net.cpp:399] fc7 -> fc7
2016-09-13 21:26:33.193 STDERR [INFO] I0913 21:26:33.193200 26319 net.cpp:141] Setting up fc7
2016-09-13 21:26:33.193 STDERR [INFO] I0913 21:26:33.193269 26319 net.cpp:148] Top shape: 10 4096 (40960)
2016-09-13 21:26:33.193 STDERR [INFO] I0913 21:26:33.193275 26319 net.cpp:156] Memory required for data: 68273720
2016-09-13 21:26:33.193 STDERR [INFO] I0913 21:26:33.193294 26319 layer_factory.hpp:77] Creating layer relu7
2016-09-13 21:26:33.194 STDERR [INFO] I0913 21:26:33.193313 26319 net.cpp:91] Creating Layer relu7
2016-09-13 21:26:33.194 STDERR [INFO] I0913 21:26:33.193320 26319 net.cpp:425] relu7 <- fc7
2016-09-13 21:26:33.194 STDERR [INFO] I0913 21:26:33.193330 26319 net.cpp:386] relu7 -> fc7 (in-place)
2016-09-13 21:26:33.194 STDERR [INFO] I0913 21:26:33.194039 26319 net.cpp:141] Setting up relu7
2016-09-13 21:26:33.194 STDERR [INFO] I0913 21:26:33.194056 26319 net.cpp:148] Top shape: 10 4096 (40960)
2016-09-13 21:26:33.194 STDERR [INFO] I0913 21:26:33.194061 26319 net.cpp:156] Memory required for data: 68437560
2016-09-13 21:26:33.194 STDERR [INFO] I0913 21:26:33.194066 26319 layer_factory.hpp:77] Creating layer drop7
2016-09-13 21:26:33.194 STDERR [INFO] I0913 21:26:33.194092 26319 net.cpp:91] Creating Layer drop7
2016-09-13 21:26:33.195 STDERR [INFO] I0913 21:26:33.194098 26319 net.cpp:425] drop7 <- fc7
2016-09-13 21:26:33.195 STDERR [INFO] I0913 21:26:33.194105 26319 net.cpp:386] drop7 -> fc7 (in-place)
2016-09-13 21:26:33.195 STDERR [INFO] I0913 21:26:33.194149 26319 net.cpp:141] Setting up drop7
2016-09-13 21:26:33.195 STDERR [INFO] I0913 21:26:33.194157 26319 net.cpp:148] Top shape: 10 4096 (40960)
2016-09-13 21:26:33.195 STDERR [INFO] I0913 21:26:33.194162 26319 net.cpp:156] Memory required for data: 68601400
2016-09-13 21:26:33.195 STDERR [INFO] I0913 21:26:33.194167 26319 layer_factory.hpp:77] Creating layer fc8
2016-09-13 21:26:33.195 STDERR [INFO] I0913 21:26:33.194180 26319 net.cpp:91] Creating Layer fc8
2016-09-13 21:26:33.195 STDERR [INFO] I0913 21:26:33.194185 26319 net.cpp:425] fc8 <- fc7
2016-09-13 21:26:33.195 STDERR [INFO] I0913 21:26:33.194192 26319 net.cpp:399] fc8 -> fc8
2016-09-13 21:26:33.206 STDERR [INFO] I0913 21:26:33.205888 26319 net.cpp:141] Setting up fc8
2016-09-13 21:26:33.206 STDERR [INFO] I0913 21:26:33.205938 26319 net.cpp:148] Top shape: 10 1000 (10000)
2016-09-13 21:26:33.206 STDERR [INFO] I0913 21:26:33.205946 26319 net.cpp:156] Memory required for data: 68641400
2016-09-13 21:26:33.206 STDERR [INFO] I0913 21:26:33.205962 26319 layer_factory.hpp:77] Creating layer prob
2016-09-13 21:26:33.206 STDERR [INFO] I0913 21:26:33.205991 26319 net.cpp:91] Creating Layer prob
2016-09-13 21:26:33.206 STDERR [INFO] I0913 21:26:33.205999 26319 net.cpp:425] prob <- fc8
2016-09-13 21:26:33.206 STDERR [INFO] I0913 21:26:33.206009 26319 net.cpp:399] prob -> prob
2016-09-13 21:26:33.206 STDERR [INFO] I0913 21:26:33.206533 26319 net.cpp:141] Setting up prob
2016-09-13 21:26:33.206 STDERR [INFO] I0913 21:26:33.206550 26319 net.cpp:148] Top shape: 10 1000 (10000)
2016-09-13 21:26:33.206 STDERR [INFO] I0913 21:26:33.206557 26319 net.cpp:156] Memory required for data: 68681400
2016-09-13 21:26:33.207 STDERR [INFO] I0913 21:26:33.206562 26319 net.cpp:219] prob does not need backward computation.
2016-09-13 21:26:33.207 STDERR [INFO] I0913 21:26:33.206568 26319 net.cpp:219] fc8 does not need backward computation.
2016-09-13 21:26:33.207 STDERR [INFO] I0913 21:26:33.206571 26319 net.cpp:219] drop7 does not need backward computation.
…
2016-09-13 21:26:33.340 n.t.s.b.CVParticleBolt [INFO] [Timing] RequestID: 0 StreamID: home_peifeng_work_data_frame_1080x1920_png SequenceNr: 121 Entering scale: 1473816393340
2016-09-13 21:26:33.340 STDERR [INFO] I0913 21:26:33.329022 26309 net.cpp:91] Creating Layer lstm1_
2016-09-13 21:26:33.341 STDERR [INFO] I0913 21:26:33.329028 26309 net.cpp:399] lstm1_ -> x
2016-09-13 21:26:33.341 STDERR [INFO] I0913 21:26:33.329041 26309 net.cpp:399] lstm1_ -> cont
2016-09-13 21:26:33.341 STDERR [INFO] I0913 21:26:33.329104 26309 net.cpp:141] Setting up lstm1_
2016-09-13 21:26:33.341 STDERR [INFO] I0913 21:26:33.329114 26309 net.cpp:148] Top shape: 1 1 500 (500)
2016-09-13 21:26:33.341 STDERR [INFO] I0913 21:26:33.329121 26309 net.cpp:148] Top shape: 1 1 (1)
2016-09-13 21:26:33.341 STDERR [INFO] I0913 21:26:33.329125 26309 net.cpp:156] Memory required for data: 2004
2016-09-13 21:26:33.341 STDERR [INFO] I0913 21:26:33.329130 26309 layer_factory.hpp:77] Creating layer lstm1_
2016-09-13 21:26:33.341 STDERR [INFO] I0913 21:26:33.329138 26309 net.cpp:91] Creating Layer lstm1_
2016-09-13 21:26:33.341 STDERR [INFO] I0913 21:26:33.329147 26309 net.cpp:399] lstm1_ -> c_0
2016-09-13 21:26:33.342 STDERR [INFO] I0913 21:26:33.329156 26309 net.cpp:399] lstm1_ -> h_0
2016-09-13 21:26:33.342 STDERR [INFO] I0913 21:26:33.329211 26309 net.cpp:141] Setting up lstm1_
2016-09-13 21:26:33.342 STDERR [INFO] I0913 21:26:33.329223 26309 net.cpp:148] Top shape: 1 1 1000 (1000)
2016-09-13 21:26:33.342 STDERR [INFO] I0913 21:26:33.329229 26309 net.cpp:148] Top shape: 1 1 1000 (1000)
2016-09-13 21:26:33.342 STDERR [INFO] I0913 21:26:33.329234 26309 net.cpp:156] Memory required for data: 10004
2016-09-13 21:26:33.342 STDERR [INFO] I0913 21:26:33.329238 26309 layer_factory.hpp:77] Creating layer lstm1_cont_slice
2016-09-13 21:26:33.342 STDERR [INFO] I0913 21:26:33.329247 26309 net.cpp:91] Creating Layer lstm1_cont_slice
2016-09-13 21:26:33.342 STDERR [INFO] I0913 21:26:33.329252 26309 net.cpp:425] lstm1_cont_slice <- cont
2016-09-13 21:26:33.342 STDERR [INFO] I0913 21:26:33.329259 26309 net.cpp:399] lstm1_cont_slice -> cont_1
2016-09-13 21:26:33.342 STDERR [INFO] I0913 21:26:33.329295 26309 net.cpp:141] Setting up lstm1_cont_slice
2016-09-13 21:26:33.342 STDERR [INFO] I0913 21:26:33.329305 26309 net.cpp:148] Top shape: 1 1 (1)
2016-09-13 21:26:33.342 STDERR [INFO] I0913 21:26:33.329309 26309 net.cpp:156] Memory required for data: 10008
2016-09-13 21:26:33.343 STDERR [INFO] I0913 21:26:33.329314 26309 layer_factory.hpp:77] Creating layer cont_1_lstm1_cont_slice_0_split
2016-09-13 21:26:33.343 STDERR [INFO] I0913 21:26:33.329324 26309 net.cpp:91] Creating Layer cont_1_lstm1_cont_slice_0_split
2016-09-13 21:26:33.343 STDERR [INFO] I0913 21:26:33.329329 26309 net.cpp:425] cont_1_lstm1_cont_slice_0_split <- cont_1
2016-09-13 21:26:33.343 STDERR [INFO] I0913 21:26:33.329335 26309 net.cpp:399] cont_1_lstm1_cont_slice_0_split -> cont_1_lstm1_cont_slice_0_split_0
2016-09-13 21:26:33.343 STDERR [INFO] I0913 21:26:33.329344 26309 net.cpp:399] cont_1_lstm1_cont_slice_0_split -> cont_1_lstm1_cont_slice_0_split_1
2016-09-13 21:26:33.343 STDERR [INFO] I0913 21:26:33.329391 26309 net.cpp:141] Setting up cont_1_lstm1_cont_slice_0_split
2016-09-13 21:26:33.343 STDERR [INFO] I0913 21:26:33.329401 26309 net.cpp:148] Top shape: 1 1 (1)
2016-09-13 21:26:33.343 STDERR [INFO] I0913 21:26:33.329406 26309 net.cpp:148] Top shape: 1 1 (1)
2016-09-13 21:26:33.343 STDERR [INFO] I0913 21:26:33.329411 26309 net.cpp:156] Memory required for data: 10016
2016-09-13 21:26:33.343 STDERR [INFO] I0913 21:26:33.329416 26309 layer_factory.hpp:77] Creating layer lstm1_x_transform
2016-09-13 21:26:33.343 STDERR [INFO] I0913 21:26:33.329424 26309 net.cpp:91] Creating Layer lstm1_x_transform
2016-09-13 21:26:33.343 STDERR [INFO] I0913 21:26:33.329429 26309 net.cpp:425] lstm1_x_transform <- x
2016-09-13 21:26:33.343 STDERR [INFO] I0913 21:26:33.329439 26309 net.cpp:399] lstm1_x_transform -> W_xc_x
2016-09-13 21:26:33.352 STDERR [INFO] I0913 21:26:33.348784 26309 net.cpp:141] Setting up lstm1_x_transform
2016-09-13 21:26:33.352 STDERR [INFO] I0913 21:26:33.348855 26309 net.cpp:148] Top shape: 1 1 4000 (4000)
2016-09-13 21:26:33.352 STDERR [INFO] I0913 21:26:33.348863 26309 net.cpp:156] Memory required for data: 26016
2016-09-13 21:26:33.352 STDERR [INFO] I0913 21:26:33.348896 26309 layer_factory.hpp:77] Creating layer lstm1_W_xc_x_slice
2016-09-13 21:26:33.352 STDERR [INFO] I0913 21:26:33.348920 26309 net.cpp:91] Creating Layer lstm1_W_xc_x_slice
2016-09-13 21:26:33.353 STDERR [INFO] I0913 21:26:33.348929 26309 net.cpp:425] lstm1_W_xc_x_slice <- W_xc_x
2016-09-13 21:26:33.353 STDERR [INFO] I0913 21:26:33.348943 26309 net.cpp:399] lstm1_W_xc_x_slice -> W_xc_x_1
2016-09-13 21:26:33.353 STDERR [INFO] I0913 21:26:33.349009 26309 net.cpp:141] Setting up lstm1_W_xc_x_slice
2016-09-13 21:26:33.353 STDERR [INFO] I0913 21:26:33.349023 26309 net.cpp:148] Top shape: 1 1 4000 (4000)
2016-09-13 21:26:33.353 STDERR [INFO] I0913 21:26:33.349030 26309 net.cpp:156] Memory required for data: 42016
2016-09-13 21:26:33.353 STDERR [INFO] I0913 21:26:33.349037 26309 layer_factory.hpp:77] Creating layer lstm1_h_conted_0
2016-09-13 21:26:33.353 STDERR [INFO] I0913 21:26:33.349052 26309 net.cpp:91] Creating Layer lstm1_h_conted_0
2016-09-13 21:26:33.353 STDERR [INFO] I0913 21:26:33.349061 26309 net.cpp:425] lstm1_h_conted_0 <- h_0
2016-09-13 21:26:33.353 STDERR [INFO] I0913 21:26:33.349071 26309 net.cpp:425] lstm1_h_conted_0 <- cont_1_lstm1_cont_slice_0_split_0
2016-09-13 21:26:33.353 STDERR [INFO] I0913 21:26:33.349081 26309 net.cpp:399] lstm1_h_conted_0 -> h_conted_0
2016-09-13 21:26:33.353 STDERR [INFO] I0913 21:26:33.349222 26309 net.cpp:141] Setting up lstm1_h_conted_0
2016-09-13 21:26:33.354 STDERR [INFO] I0913 21:26:33.349236 26309 net.cpp:148] Top shape: 1 1 1000 (1000)
2016-09-13 21:26:33.354 STDERR [INFO] I0913 21:26:33.349242 26309 net.cpp:156] Memory required for data: 46016
2016-09-13 21:26:33.354 STDERR [INFO] I0913 21:26:33.349249 26309 layer_factory.hpp:77] Creating layer lstm1_transform_1
2016-09-13 21:26:33.354 STDERR [INFO] I0913 21:26:33.349267 26309 net.cpp:91] Creating Layer lstm1_transform_1
2016-09-13 21:26:33.354 STDERR [INFO] I0913 21:26:33.349274 26309 net.cpp:425] lstm1_transform_1 <- h_conted_0
2016-09-13 21:26:33.354 STDERR [INFO] I0913 21:26:33.349287 26309 net.cpp:399] lstm1_transform_1 -> W_hc_h_0
2016-09-13 21:26:33.358 n.t.s.s.CVParticleSpout [INFO] [Timing] RequestID: 0 StreamID: home_peifeng_work_data_frame_1080x1920_png SequenceNr: 122 Leaving fetcher: 1473816393347 Size: 160423
2016-09-13 21:26:33.359 n.t.s.b.CVParticleBolt [INFO] [Timing] RequestID: 0 StreamID: home_peifeng_work_data_frame_1080x1920_png SequenceNr: 122 Entering scale: 1473816393359
2016-09-13 21:26:33.390 STDERR [INFO] I0913 21:26:33.390036 26309 net.cpp:141] Setting up lstm1_transform_1
2016-09-13 21:26:33.390 STDERR [INFO] I0913 21:26:33.390102 26309 net.cpp:148] Top shape: 1 1 4000 (4000)
2016-09-13 21:26:33.390 STDERR [INFO] I0913 21:26:33.390110 26309 net.cpp:156] Memory required for data: 62016
2016-09-13 21:26:33.390 STDERR [INFO] I0913 21:26:33.390135 26309 layer_factory.hpp:77] Creating layer lstm1_gate_input_1
2016-09-13 21:26:33.390 STDERR [INFO] I0913 21:26:33.390158 26309 net.cpp:91] Creating Layer lstm1_gate_input_1
2016-09-13 21:26:33.390 STDERR [INFO] I0913 21:26:33.390167 26309 net.cpp:425] lstm1_gate_input_1 <- W_hc_h_0
2016-09-13 21:26:33.391 STDERR [INFO] I0913 21:26:33.390175 26309 net.cpp:425] lstm1_gate_input_1 <- W_xc_x_1
2016-09-13 21:26:33.391 STDERR [INFO] I0913 21:26:33.390187 26309 net.cpp:399] lstm1_gate_input_1 -> gate_input_1
2016-09-13 21:26:33.392 STDERR [INFO] I0913 21:26:33.390247 26309 net.cpp:141] Setting up lstm1_gate_input_1
2016-09-13 21:26:33.392 STDERR [INFO] I0913 21:26:33.390260 26309 net.cpp:148] Top shape: 1 1 4000 (4000)
2016-09-13 21:26:33.392 STDERR [INFO] I0913 21:26:33.390265 26309 net.cpp:156] Memory required for data: 78016
2016-09-13 21:26:33.392 STDERR [INFO] I0913 21:26:33.390271 26309 layer_factory.hpp:77] Creating layer lstm1_unit_1
2016-09-13 21:26:33.392 STDERR [INFO] I0913 21:26:33.390280 26309 net.cpp:91] Creating Layer lstm1_unit_1
2016-09-13 21:26:33.392 STDERR [INFO] I0913 21:26:33.390285 26309 net.cpp:425] lstm1_unit_1 <- c_0
2016-09-13 21:26:33.392 STDERR [INFO] I0913 21:26:33.390291 26309 net.cpp:425] lstm1_unit_1 <- gate_input_1
2016-09-13 21:26:33.392 STDERR [INFO] I0913 21:26:33.390297 26309 net.cpp:425] lstm1_unit_1 <- cont_1_lstm1_cont_slice_0_split_1
2016-09-13 21:26:33.392 STDERR [INFO] I0913 21:26:33.390305 26309 net.cpp:399] lstm1_unit_1 -> c_1
2016-09-13 21:26:33.393 STDERR [INFO] I0913 21:26:33.390312 26309 net.cpp:399] lstm1_unit_1 -> h_1
2016-09-13 21:26:33.393 STDERR [INFO] I0913 21:26:33.390374 26309 net.cpp:141] Setting up lstm1_unit_1
2016-09-13 21:26:33.393 STDERR [INFO] I0913 21:26:33.390383 26309 net.cpp:148] Top shape: 1 1 1000 (1000)
2016-09-13 21:26:33.393 STDERR [INFO] I0913 21:26:33.390389 26309 net.cpp:148] Top shape: 1 1 1000 (1000)
2016-09-13 21:26:33.393 STDERR [INFO] I0913 21:26:33.390394 26309 net.cpp:156] Memory required for data: 86016
2016-09-13 21:26:33.393 STDERR [INFO] I0913 21:26:33.390399 26309 layer_factory.hpp:77] Creating layer lstm1_
2016-09-13 21:26:33.393 STDERR [INFO] I0913 21:26:33.390408 26309 net.cpp:91] Creating Layer lstm1_
2016-09-13 21:26:33.393 STDERR [INFO] I0913 21:26:33.390413 26309 net.cpp:425] lstm1_ <- c_1
2016-09-13 21:26:33.393 STDERR [INFO] I0913 21:26:33.390419 26309 net.cpp:399] lstm1_ -> c_T
2016-09-13 21:26:33.393 STDERR [INFO] I0913 21:26:33.390450 26309 net.cpp:141] Setting up lstm1_
2016-09-13 21:26:33.394 STDERR [INFO] I0913 21:26:33.390458 26309 net.cpp:148] Top shape: 1 1 1000 (1000)
2016-09-13 21:26:33.394 STDERR [INFO] I0913 21:26:33.390462 26309 net.cpp:156] Memory required for data: 90016
2016-09-13 21:26:33.394 STDERR [INFO] I0913 21:26:33.390467 26309 layer_factory.hpp:77] Creating layer lstm1_h_concat
2016-09-13 21:26:33.394 STDERR [INFO] I0913 21:26:33.390493 26309 net.cpp:91] Creating Layer lstm1_h_concat
2016-09-13 21:26:33.394 STDERR [INFO] I0913 21:26:33.390499 26309 net.cpp:425] lstm1_h_concat <- h_1
2016-09-13 21:26:33.394 STDERR [INFO] I0913 21:26:33.390506 26309 net.cpp:399] lstm1_h_concat -> h
2016-09-13 21:26:33.394 STDERR [INFO] I0913 21:26:33.390542 26309 net.cpp:141] Setting up lstm1_h_concat
2016-09-13 21:26:33.394 STDERR [INFO] I0913 21:26:33.390550 26309 net.cpp:148] Top shape: 1 1 1000 (1000)
2016-09-13 21:26:33.394 STDERR [INFO] I0913 21:26:33.390555 26309 net.cpp:156] Memory required for data: 94016
2016-09-13 21:26:33.394 STDERR [INFO] I0913 21:26:33.390560 26309 layer_factory.hpp:77] Creating layer h_pseudoloss
2016-09-13 21:26:33.394 STDERR [INFO] I0913 21:26:33.390578 26309 net.cpp:91] Creating Layer h_pseudoloss
2016-09-13 21:26:33.394 STDERR [INFO] I0913 21:26:33.390583 26309 net.cpp:425] h_pseudoloss <- h
…
2016-09-13 21:26:33.412 STDERR [INFO] }
2016-09-13 21:26:33.412 STDERR [INFO] I0913 21:26:33.391566 26309 layer_factory.hpp:77] Creating layer lstm2_
2016-09-13 21:26:33.412 STDERR [INFO] I0913 21:26:33.391577 26309 net.cpp:91] Creating Layer lstm2_
2016-09-13 21:26:33.412 STDERR [INFO] I0913 21:26:33.391584 26309 net.cpp:399] lstm2_ -> x
2016-09-13 21:26:33.412 STDERR [INFO] I0913 21:26:33.391594 26309 net.cpp:399] lstm2_ -> cont
2016-09-13 21:26:33.413 STDERR [INFO] I0913 21:26:33.391649 26309 net.cpp:141] Setting up lstm2_
2016-09-13 21:26:33.413 STDERR [INFO] I0913 21:26:33.391659 26309 net.cpp:148] Top shape: 1 1 1501 (1501)
2016-09-13 21:26:33.413 STDERR [INFO] I0913 21:26:33.391665 26309 net.cpp:148] Top shape: 1 1 (1)
2016-09-13 21:26:33.413 STDERR [INFO] I0913 21:26:33.391670 26309 net.cpp:156] Memory required for data: 6008
2016-09-13 21:26:33.413 STDERR [INFO] I0913 21:26:33.391675 26309 layer_factory.hpp:77] Creating layer lstm2_
2016-09-13 21:26:33.413 STDERR [INFO] I0913 21:26:33.391683 26309 net.cpp:91] Creating Layer lstm2_
2016-09-13 21:26:33.413 STDERR [INFO] I0913 21:26:33.391690 26309 net.cpp:399] lstm2_ -> c_0
2016-09-13 21:26:33.413 STDERR [INFO] I0913 21:26:33.391702 26309 net.cpp:399] lstm2_ -> h_0
2016-09-13 21:26:33.414 STDERR [INFO] I0913 21:26:33.391752 26309 net.cpp:141] Setting up lstm2_
2016-09-13 21:26:33.414 STDERR [INFO] I0913 21:26:33.391762 26309 net.cpp:148] Top shape: 1 1 1000 (1000)
2016-09-13 21:26:33.414 STDERR [INFO] I0913 21:26:33.391767 26309 net.cpp:148] Top shape: 1 1 1000 (1000)
2016-09-13 21:26:33.414 STDERR [INFO] I0913 21:26:33.391772 26309 net.cpp:156] Memory required for data: 14008
2016-09-13 21:26:33.414 STDERR [INFO] I0913 21:26:33.391775 26309 layer_factory.hpp:77] Creating layer lstm2_cont_slice
2016-09-13 21:26:33.414 STDERR [INFO] I0913 21:26:33.391789 26309 net.cpp:91] Creating Layer lstm2_cont_slice
2016-09-13 21:26:33.414 STDERR [INFO] I0913 21:26:33.391794 26309 net.cpp:425] lstm2_cont_slice <- cont
2016-09-13 21:26:33.414 STDERR [INFO] I0913 21:26:33.391801 26309 net.cpp:399] lstm2_cont_slice -> cont_1
2016-09-13 21:26:33.415 STDERR [INFO] I0913 21:26:33.391834 26309 net.cpp:141] Setting up lstm2_cont_slice
2016-09-13 21:26:33.415 STDERR [INFO] I0913 21:26:33.391842 26309 net.cpp:148] Top shape: 1 1 (1)
2016-09-13 21:26:33.415 STDERR [INFO] I0913 21:26:33.391846 26309 net.cpp:156] Memory required for data: 14012
2016-09-13 21:26:33.415 STDERR [INFO] I0913 21:26:33.391851 26309 layer_factory.hpp:77] Creating layer cont_1_lstm2_cont_slice_0_split
2016-09-13 21:26:33.415 STDERR [INFO] I0913 21:26:33.391858 26309 net.cpp:91] Creating Layer cont_1_lstm2_cont_slice_0_split
2016-09-13 21:26:33.415 STDERR [INFO] I0913 21:26:33.391863 26309 net.cpp:425] cont_1_lstm2_cont_slice_0_split <- cont_1
2016-09-13 21:26:33.415 STDERR [INFO] I0913 21:26:33.391872 26309 net.cpp:399] cont_1_lstm2_cont_slice_0_split -> cont_1_lstm2_cont_slice_0_split_0
2016-09-13 21:26:33.415 STDERR [INFO] I0913 21:26:33.391881 26309 net.cpp:399] cont_1_lstm2_cont_slice_0_split -> cont_1_lstm2_cont_slice_0_split_1
2016-09-13 21:26:33.415 STDERR [INFO] I0913 21:26:33.391927 26309 net.cpp:141] Setting up cont_1_lstm2_cont_slice_0_split
2016-09-13 21:26:33.415 STDERR [INFO] I0913 21:26:33.391937 26309 net.cpp:148] Top shape: 1 1 (1)
2016-09-13 21:26:33.416 STDERR [INFO] I0913 21:26:33.391942 26309 net.cpp:148] Top shape: 1 1 (1)
2016-09-13 21:26:33.416 STDERR [INFO] I0913 21:26:33.391947 26309 net.cpp:156] Memory required for data: 14020
2016-09-13 21:26:33.416 STDERR [INFO] I0913 21:26:33.391952 26309 layer_factory.hpp:77] Creating layer lstm2_x_transform
2016-09-13 21:26:33.416 STDERR [INFO] I0913 21:26:33.391963 26309 net.cpp:91] Creating Layer lstm2_x_transform
2016-09-13 21:26:33.416 STDERR [INFO] I0913 21:26:33.391968 26309 net.cpp:425] lstm2_x_transform <- x
…
2016-09-13 21:26:33.438 STDERR [INFO] I0913 21:26:33.437712 26319 upgrade_proto.cpp:52] Attempting to upgrade input file specified using deprecated V1LayerParameter: /home/peifeng/work/run/storm102/data/workers/c17af068-7eab-4c25-be5a-969cc7470880/tmp/cvld8056213664080312608/bvlc_reference_caffenet.caffemodel
2016-09-13 21:26:33.438 n.t.s.b.CVParticleBolt [INFO] [Timing] RequestID: 0 StreamID: home_peifeng_work_data_frame_1080x1920_png SequenceNr: 122 Leaving scale: 1473816393438 Size: 60165
2016-09-13 21:26:33.445 n.t.s.s.CVParticleSpout [INFO] [Timing] RequestID: 0 StreamID: home_peifeng_work_data_frame_1080x1920_png SequenceNr: 124 Leaving fetcher: 1473816393445 Size: 160423
2016-09-13 21:26:33.455 STDERR [INFO] I0913 21:26:33.455168 26309 net.cpp:141] Setting up lstm2_x_transform
2016-09-13 21:26:33.455 STDERR [INFO] I0913 21:26:33.455229 26309 net.cpp:148] Top shape: 1 1 4000 (4000)
2016-09-13 21:26:33.455 STDERR [INFO] I0913 21:26:33.455238 26309 net.cpp:156] Memory required for data: 30020
2016-09-13 21:26:33.456 STDERR [INFO] I0913 21:26:33.455270 26309 layer_factory.hpp:77] Creating layer lstm2_W_xc_x_slice
2016-09-13 21:26:33.456 STDERR [INFO] I0913 21:26:33.455297 26309 net.cpp:91] Creating Layer lstm2_W_xc_x_slice
2016-09-13 21:26:33.456 STDERR [INFO] I0913 21:26:33.455309 26309 net.cpp:425] lstm2_W_xc_x_slice <- W_xc_x
2016-09-13 21:26:33.456 STDERR [INFO] I0913 21:26:33.455324 26309 net.cpp:399] lstm2_W_xc_x_slice -> W_xc_x_1
2016-09-13 21:26:33.456 STDERR [INFO] I0913 21:26:33.455399 26309 net.cpp:141] Setting up lstm2_W_xc_x_slice
2016-09-13 21:26:33.456 STDERR [INFO] I0913 21:26:33.455415 26309 net.cpp:148] Top shape: 1 1 4000 (4000)
2016-09-13 21:26:33.456 STDERR [INFO] I0913 21:26:33.455423 26309 net.cpp:156] Memory required for data: 46020
2016-09-13 21:26:33.457 STDERR [INFO] I0913 21:26:33.455431 26309 layer_factory.hpp:77] Creating layer lstm2_h_conted_0
2016-09-13 21:26:33.457 STDERR [INFO] I0913 21:26:33.455451 26309 net.cpp:91] Creating Layer lstm2_h_conted_0
2016-09-13 21:26:33.457 STDERR [INFO] I0913 21:26:33.455459 26309 net.cpp:425] lstm2_h_conted_0 <- h_0
2016-09-13 21:26:33.457 STDERR [INFO] I0913 21:26:33.455469 26309 net.cpp:425] lstm2_h_conted_0 <- cont_1_lstm2_cont_slice_0_split_0
2016-09-13 21:26:33.457 STDERR [INFO] I0913 21:26:33.455481 26309 net.cpp:399] lstm2_h_conted_0 -> h_conted_0
2016-09-13 21:26:33.457 STDERR [INFO] I0913 21:26:33.455623 26309 net.cpp:141] Setting up lstm2_h_conted_0
2016-09-13 21:26:33.457 STDERR [INFO] I0913 21:26:33.455641 26309 net.cpp:148] Top shape: 1 1 1000 (1000)
2016-09-13 21:26:33.457 STDERR [INFO] I0913 21:26:33.455648 26309 net.cpp:156] Memory required for data: 50020
2016-09-13 21:26:33.457 STDERR [INFO] I0913 21:26:33.455667 26309 layer_factory.hpp:77] Creating layer lstm2_transform_1
2016-09-13 21:26:33.458 STDERR [INFO] I0913 21:26:33.455689 26309 net.cpp:91] Creating Layer lstm2_transform_1
2016-09-13 21:26:33.458 STDERR [INFO] I0913 21:26:33.455700 26309 net.cpp:425] lstm2_transform_1 <- h_conted_0
2016-09-13 21:26:33.458 STDERR [INFO] I0913 21:26:33.455713 26309 net.cpp:399] lstm2_transform_1 -> W_hc_h_0
2016-09-13 21:26:33.479 n.t.s.b.CVParticleBolt [INFO] [Timing] RequestID: 0 StreamID: home_peifeng_work_data_frame_1080x1920_png SequenceNr: 123 Leaving scale: 1473816393479 Size: 60165
2016-09-13 21:26:33.480 n.t.s.b.CVParticleBolt [INFO] [Timing] RequestID: 0 StreamID: home_peifeng_work_data_frame_1080x1920_png SequenceNr: 124 Entering scale: 1473816393480
2016-09-13 21:26:33.496 STDERR [INFO] I0913 21:26:33.496039 26309 net.cpp:141] Setting up lstm2_transform_1
2016-09-13 21:26:33.496 STDERR [INFO] I0913 21:26:33.496104 26309 net.cpp:148] Top shape: 1 1 4000 (4000)
2016-09-13 21:26:33.496 STDERR [INFO] I0913 21:26:33.496114 26309 net.cpp:156] Memory required for data: 66020
2016-09-13 21:26:33.496 STDERR [INFO] I0913 21:26:33.496142 26309 layer_factory.hpp:77] Creating layer lstm2_gate_input_1
2016-09-13 21:26:33.497 STDERR [INFO] I0913 21:26:33.496176 26309 net.cpp:91] Creating Layer lstm2_gate_input_1
2016-09-13 21:26:33.497 STDERR [INFO] I0913 21:26:33.496188 26309 net.cpp:425] lstm2_gate_input_1 <- W_hc_h_0
2016-09-13 21:26:33.497 STDERR [INFO] I0913 21:26:33.496201 26309 net.cpp:425] lstm2_gate_input_1 <- W_xc_x_1
2016-09-13 21:26:33.497 STDERR [INFO] I0913 21:26:33.496217 26309 net.cpp:399] lstm2_gate_input_1 -> gate_input_1
2016-09-13 21:26:33.497 STDERR [INFO] I0913 21:26:33.496282 26309 net.cpp:141] Setting up lstm2_gate_input_1
2016-09-13 21:26:33.498 STDERR [INFO] I0913 21:26:33.496299 26309 net.cpp:148] Top shape: 1 1 4000 (4000)
2016-09-13 21:26:33.498 STDERR [INFO] I0913 21:26:33.496306 26309 net.cpp:156] Memory required for data: 82020
2016-09-13 21:26:33.498 n.t.s.s.CVParticleSpout [INFO] [Timing] RequestID: 0 StreamID: home_peifeng_work_data_frame_1080x1920_png SequenceNr: 125 Leaving fetcher: 1473816393498 Size: 160423
2016-09-13 21:26:33.498 STDERR [INFO] I0913 21:26:33.496315 26309 layer_factory.hpp:77] Creating layer lstm2_unit_1
2016-09-13 21:26:33.498 STDERR [INFO] I0913 21:26:33.496332 26309 net.cpp:91] Creating Layer lstm2_unit_1
2016-09-13 21:26:33.498 STDERR [INFO] I0913 21:26:33.496341 26309 net.cpp:425] lstm2_unit_1 <- c_0
2016-09-13 21:26:33.498 STDERR [INFO] I0913 21:26:33.496352 26309 net.cpp:425] lstm2_unit_1 <- gate_input_1
2016-09-13 21:26:33.498 STDERR [INFO] I0913 21:26:33.496361 26309 net.cpp:425] lstm2_unit_1 <- cont_1_lstm2_cont_slice_0_split_1
2016-09-13 21:26:33.498 STDERR [INFO] I0913 21:26:33.496371 26309 net.cpp:399] lstm2_unit_1 -> c_1
2016-09-13 21:26:33.498 STDERR [INFO] I0913 21:26:33.496384 26309 net.cpp:399] lstm2_unit_1 -> h_1
2016-09-13 21:26:33.499 STDERR [INFO] I0913 21:26:33.496495 26309 net.cpp:141] Setting up lstm2_unit_1
2016-09-13 21:26:33.499 STDERR [INFO] I0913 21:26:33.496511 26309 net.cpp:148] Top shape: 1 1 1000 (1000)
2016-09-13 21:26:33.499 STDERR [INFO] I0913 21:26:33.496520 26309 net.cpp:148] Top shape: 1 1 1000 (1000)
2016-09-13 21:26:33.499 STDERR [INFO] I0913 21:26:33.496528 26309 net.cpp:156] Memory required for data: 90020
2016-09-13 21:26:33.499 STDERR [INFO] I0913 21:26:33.496536 26309 layer_factory.hpp:77] Creating layer lstm2_
2016-09-13 21:26:33.499 STDERR [INFO] I0913 21:26:33.496556 26309 net.cpp:91] Creating Layer lstm2_
2016-09-13 21:26:33.499 STDERR [INFO] I0913 21:26:33.496564 26309 net.cpp:425] lstm2_ <- c_1
2016-09-13 21:26:33.500 STDERR [INFO] I0913 21:26:33.496577 26309 net.cpp:399] lstm2_ -> c_T
2016-09-13 21:26:33.500 STDERR [INFO] I0913 21:26:33.496628 26309 net.cpp:141] Setting up lstm2_
2016-09-13 21:26:33.500 STDERR [INFO] I0913 21:26:33.496644 26309 net.cpp:148] Top shape: 1 1 1000 (1000)
2016-09-13 21:26:33.500 STDERR [INFO] I0913 21:26:33.496651 26309 net.cpp:156] Memory required for data: 94020
2016-09-13 21:26:33.500 STDERR [INFO] I0913 21:26:33.496659 26309 layer_factory.hpp:77] Creating layer lstm2_h_concat
2016-09-13 21:26:33.500 STDERR [INFO] I0913 21:26:33.496675 26309 net.cpp:91] Creating Layer lstm2_h_concat
2016-09-13 21:26:33.500 STDERR [INFO] I0913 21:26:33.496685 26309 net.cpp:425] lstm2_h_concat <- h_1
2016-09-13 21:26:33.500 STDERR [INFO] I0913 21:26:33.496701 26309 net.cpp:399] lstm2_h_concat -> h
2016-09-13 21:26:33.500 STDERR [INFO] I0913 21:26:33.496760 26309 net.cpp:141] Setting up lstm2_h_concat
2016-09-13 21:26:33.501 STDERR [INFO] I0913 21:26:33.496778 26309 net.cpp:148] Top shape: 1 1 1000 (1000)
2016-09-13 21:26:33.501 STDERR [INFO] I0913 21:26:33.496786 26309 net.cpp:156] Memory required for data: 98020
2016-09-13 21:26:33.501 STDERR [INFO] I0913 21:26:33.496796 26309 layer_factory.hpp:77] Creating layer h_pseudoloss
2016-09-13 21:26:33.501 STDERR [INFO] I0913 21:26:33.496812 26309 net.cpp:91] Creating Layer h_pseudoloss
2016-09-13 21:26:33.501 STDERR [INFO] I0913 21:26:33.496824 26309 net.cpp:425] h_pseudoloss <- h
…
2016-09-13 21:27:31.560 STDERR [INFO] I0913 21:27:31.538885 26459 net.cpp:91] Creating Layer input
2016-09-13 21:27:31.561 STDERR [INFO] I0913 21:27:31.538893 26459 net.cpp:399] input -> frames_fc7
2016-09-13 21:27:31.561 STDERR [INFO] I0913 21:27:31.538908 26459 net.cpp:399] input -> cont_sentence
2016-09-13 21:27:31.561 STDERR [INFO] I0913 21:27:31.538918 26459 net.cpp:399] input -> input_sentence
2016-09-13 21:27:31.561 STDERR [INFO] I0913 21:27:31.538928 26459 net.cpp:399] input -> stage_indicator
2016-09-13 21:27:31.561 STDERR [INFO] I0913 21:27:31.544517 26459 net.cpp:141] Setting up input
2016-09-13 21:27:31.561 STDERR [INFO] I0913 21:27:31.544548 26459 net.cpp:148] Top shape: 1 4096 (4096)
2016-09-13 21:27:31.561 STDERR [INFO] I0913 21:27:31.544554 26459 net.cpp:148] Top shape: 1 1 (1)
2016-09-13 21:27:31.561 STDERR [INFO] I0913 21:27:31.544559 26459 net.cpp:148] Top shape: 1 1 (1)
2016-09-13 21:27:31.561 STDERR [INFO] I0913 21:27:31.544564 26459 net.cpp:148] Top shape: 1 1 (1)
2016-09-13 21:27:31.561 STDERR [INFO] I0913 21:27:31.544569 26459 net.cpp:156] Memory required for data: 16396
2016-09-13 21:27:31.561 STDERR [INFO] I0913 21:27:31.544574 26459 layer_factory.hpp:77] Creating layer cont_sentence_input_1_split
2016-09-13 21:27:31.562 STDERR [INFO] I0913 21:27:31.544594 26459 net.cpp:91] Creating Layer cont_sentence_input_1_split
2016-09-13 21:27:31.562 STDERR [INFO] I0913 21:27:31.544598 26459 net.cpp:425] cont_sentence_input_1_split <- cont_sentence
2016-09-13 21:27:31.562 STDERR [INFO] I0913 21:27:31.544615 26459 net.cpp:399] cont_sentence_input_1_split -> cont_sentence_input_1_split_0
2016-09-13 21:27:31.562 STDERR [INFO] I0913 21:27:31.544626 26459 net.cpp:399] cont_sentence_input_1_split -> cont_sentence_input_1_split_1
2016-09-13 21:27:31.562 STDERR [INFO] I0913 21:27:31.544703 26459 net.cpp:141] Setting up cont_sentence_input_1_split
2016-09-13 21:27:31.562 STDERR [INFO] I0913 21:27:31.544713 26459 net.cpp:148] Top shape: 1 1 (1)
2016-09-13 21:27:31.562 STDERR [INFO] I0913 21:27:31.544718 26459 net.cpp:148] Top shape: 1 1 (1)
2016-09-13 21:27:31.562 STDERR [INFO] I0913 21:27:31.544723 26459 net.cpp:156] Memory required for data: 16404
2016-09-13 21:27:31.562 STDERR [INFO] I0913 21:27:31.544728 26459 layer_factory.hpp:77] Creating layer embed_encoder
2016-09-13 21:27:31.565 STDERR [INFO] I0913 21:27:31.544744 26459 net.cpp:91] Creating Layer embed_encoder
2016-09-13 21:27:31.565 STDERR [INFO] I0913 21:27:31.544749 26459 net.cpp:425] embed_encoder <- frames_fc7
2016-09-13 21:27:31.565 STDERR [INFO] I0913 21:27:31.544755 26459 net.cpp:399] embed_encoder -> embedded_in_frames
2016-09-13 21:27:31.565 STDERR [INFO] I0913 21:27:31.565155 26469 net.cpp:141] Setting up conv1
2016-09-13 21:27:31.565 STDERR [INFO] I0913 21:27:31.565222 26469 net.cpp:148] Top shape: 10 96 55 55 (2904000)
2016-09-13 21:27:31.565 STDERR [INFO] I0913 21:27:31.565233 26469 net.cpp:156] Memory required for data: 17799480
2016-09-13 21:27:31.566 STDERR [INFO] I0913 21:27:31.565284 26469 layer_factory.hpp:77] Creating layer relu1
2016-09-13 21:27:31.566 STDERR [INFO] I0913 21:27:31.565311 26469 net.cpp:91] Creating Layer relu1
2016-09-13 21:27:31.566 STDERR [INFO] I0913 21:27:31.565325 26469 net.cpp:425] relu1 <- conv1
2016-09-13 21:27:31.566 STDERR [INFO] I0913 21:27:31.565338 26469 net.cpp:386] relu1 -> conv1 (in-place)
2016-09-13 21:27:31.566 STDERR [INFO] I0913 21:27:31.566457 26459 net.cpp:141] Setting up embed_encoder
2016-09-13 21:27:31.566 STDERR [INFO] I0913 21:27:31.566486 26459 net.cpp:148] Top shape: 1 500 (500)
2016-09-13 21:27:31.566 STDERR [INFO] I0913 21:27:31.566491 26459 net.cpp:156] Memory required for data: 18404
2016-09-13 21:27:31.566 STDERR [INFO] I0913 21:27:31.566507 26459 layer_factory.hpp:77] Creating layer reshape_frames
2016-09-13 21:27:31.566 STDERR [INFO] I0913 21:27:31.566529 26459 net.cpp:91] Creating Layer reshape_frames
2016-09-13 21:27:31.566 STDERR [INFO] I0913 21:27:31.566536 26459 net.cpp:425] reshape_frames <- embedded_in_frames
2016-09-13 21:27:31.567 STDERR [INFO] I0913 21:27:31.566545 26459 net.cpp:399] reshape_frames -> embedded_input_frames
2016-09-13 21:27:31.567 STDERR [INFO] I0913 21:27:31.566565 26469 net.cpp:141] Setting up relu1
2016-09-13 21:27:31.567 STDERR [INFO] I0913 21:27:31.566583 26469 net.cpp:148] Top shape: 10 96 55 55 (2904000)
2016-09-13 21:27:31.567 STDERR [INFO] I0913 21:27:31.566589 26469 net.cpp:156] Memory required for data: 29415480
2016-09-13 21:27:31.567 STDERR [INFO] I0913 21:27:31.566596 26459 net.cpp:141] Setting up reshape_frames
2016-09-13 21:27:31.567 STDERR [INFO] I0913 21:27:31.566596 26469 layer_factory.hpp:77] Creating layer pool1
2016-09-13 21:27:31.567 STDERR [INFO] I0913 21:27:31.566609 26459 net.cpp:148] Top shape: 1 1 500 (500)
2016-09-13 21:27:31.567 STDERR [INFO] I0913 21:27:31.566614 26459 net.cpp:156] Memory required for data: 20404
2016-09-13 21:27:31.567 STDERR [INFO] I0913 21:27:31.566618 26459 layer_factory.hpp:77] Creating layer reshape_stage_indicator
2016-09-13 21:27:31.567 STDERR [INFO] I0913 21:27:31.566623 26469 net.cpp:91] Creating Layer pool1
2016-09-13 21:27:31.567 STDERR [INFO] I0913 21:27:31.566627 26459 net.cpp:91] Creating Layer reshape_stage_indicator
2016-09-13 21:27:31.567 STDERR [INFO] I0913 21:27:31.566630 26469 net.cpp:425] pool1 <- conv1
2016-09-13 21:27:31.567 STDERR [INFO] I0913 21:27:31.566633 26459 net.cpp:425] reshape_stage_indicator <- stage_indicator
2016-09-13 21:27:31.567 STDERR [INFO] I0913 21:27:31.566642 26469 net.cpp:399] pool1 -> pool1
2016-09-13 21:27:31.568 STDERR [INFO] I0913 21:27:31.566642 26459 net.cpp:399] reshape_stage_indicator -> reshaped_stage_indicator
2016-09-13 21:27:31.568 STDERR [INFO] I0913 21:27:31.566692 26459 net.cpp:141] Setting up reshape_stage_indicator
2016-09-13 21:27:31.568 STDERR [INFO] I0913 21:27:31.566701 26459 net.cpp:148] Top shape: 1 1 1 (1)
2016-09-13 21:27:31.568 STDERR [INFO] I0913 21:27:31.566705 26459 net.cpp:156] Memory required for data: 20408
2016-09-13 21:27:31.568 STDERR [INFO] I0913 21:27:31.566710 26459 layer_factory.hpp:77] Creating layer embedding
2016-09-13 21:27:31.568 STDERR [INFO] I0913 21:27:31.566720 26459 net.cpp:91] Creating Layer embedding
2016-09-13 21:27:31.568 STDERR [INFO] I0913 21:27:31.566725 26459 net.cpp:425] embedding <- input_sentence
2016-09-13 21:27:31.568 STDERR [INFO] I0913 21:27:31.566731 26459 net.cpp:399] embedding -> embedded_input_sentence
2016-09-13 21:27:31.568 STDERR [INFO] I0913 21:27:31.566761 26469 net.cpp:141] Setting up pool1
2016-09-13 21:27:31.568 STDERR [INFO] I0913 21:27:31.566773 26469 net.cpp:148] Top shape: 10 96 27 27 (699840)
2016-09-13 21:27:31.568 STDERR [INFO] I0913 21:27:31.566779 26469 net.cpp:156] Memory required for data: 32214840
2016-09-13 21:27:31.568 STDERR [INFO] I0913 21:27:31.566793 26469 layer_factory.hpp:77] Creating layer norm1
2016-09-13 21:27:31.569 STDERR [INFO] I0913 21:27:31.566813 26469 net.cpp:91] Creating Layer norm1
2016-09-13 21:27:31.569 STDERR [INFO] I0913 21:27:31.566820 26469 net.cpp:425] norm1 <- pool1
…
2016-09-13 21:27:31.600 n.t.s.f.RefreshingImageFetcher$ImageReader [INFO] [Timing] RequestID: 0 StreamID: home_peifeng_work_data_frame_1080x1920_png SequenceNr: 135 Entering queue: 1473816451600
2016-09-13 21:27:31.602 n.t.s.s.CVParticleSpout [INFO] [Timing] RequestID: 0 StreamID: home_peifeng_work_data_frame_1080x1920_png SequenceNr: 121 Leaving fetcher: 1473816451602 Size: 160423
2016-09-13 21:27:31.603 n.t.s.b.CVParticleBolt [INFO] [Timing] RequestID: 0 StreamID: home_peifeng_work_data_frame_1080x1920_png SequenceNr: 121 Entering scale: 1473816451603
2016-09-13 21:27:31.605 STDERR [INFO] I0913 21:27:31.605192 26469 net.cpp:141] Setting up norm1
2016-09-13 21:27:31.605 STDERR [INFO] I0913 21:27:31.605257 26469 net.cpp:148] Top shape: 10 96 27 27 (699840)
2016-09-13 21:27:31.605 STDERR [INFO] I0913 21:27:31.605264 26469 net.cpp:156] Memory required for data: 35014200
2016-09-13 21:27:31.606 STDERR [INFO] I0913 21:27:31.605275 26469 layer_factory.hpp:77] Creating layer conv2
2016-09-13 21:27:31.606 STDERR [INFO] I0913 21:27:31.605309 26469 net.cpp:91] Creating Layer conv2
2016-09-13 21:27:31.606 STDERR [INFO] I0913 21:27:31.605316 26469 net.cpp:425] conv2 <- norm1
2016-09-13 21:27:31.606 STDERR [INFO] I0913 21:27:31.605330 26469 net.cpp:399] conv2 -> conv2
2016-09-13 21:27:31.609 STDERR [INFO] I0913 21:27:31.609195 26469 net.cpp:141] Setting up conv2
2016-09-13 21:27:31.609 STDERR [INFO] I0913 21:27:31.609218 26469 net.cpp:148] Top shape: 10 256 27 27 (1866240)
2016-09-13 21:27:31.609 STDERR [INFO] I0913 21:27:31.609225 26469 net.cpp:156] Memory required for data: 42479160
2016-09-13 21:27:31.609 STDERR [INFO] I0913 21:27:31.609242 26469 layer_factory.hpp:77] Creating layer relu2
2016-09-13 21:27:31.609 STDERR [INFO] I0913 21:27:31.609258 26469 net.cpp:91] Creating Layer relu2
2016-09-13 21:27:31.609 STDERR [INFO] I0913 21:27:31.609264 26469 net.cpp:425] relu2 <- conv2
2016-09-13 21:27:31.609 STDERR [INFO] I0913 21:27:31.609272 26469 net.cpp:386] relu2 -> conv2 (in-place)
2016-09-13 21:27:31.610 STDERR [INFO] I0913 21:27:31.609710 26469 net.cpp:141] Setting up relu2
2016-09-13 21:27:31.610 STDERR [INFO] I0913 21:27:31.609725 26469 net.cpp:148] Top shape: 10 256 27 27 (1866240)
2016-09-13 21:27:31.610 STDERR [INFO] I0913 21:27:31.609731 26469 net.cpp:156] Memory required for data: 49944120
2016-09-13 21:27:31.610 STDERR [INFO] I0913 21:27:31.609736 26469 layer_factory.hpp:77] Creating layer pool2
2016-09-13 21:27:31.610 STDERR [INFO] I0913 21:27:31.609748 26469 net.cpp:91] Creating Layer pool2
2016-09-13 21:27:31.610 STDERR [INFO] I0913 21:27:31.609755 26469 net.cpp:425] pool2 <- conv2
2016-09-13 21:27:31.610 STDERR [INFO] I0913 21:27:31.609764 26469 net.cpp:399] pool2 -> pool2
2016-09-13 21:27:31.610 STDERR [INFO] I0913 21:27:31.609827 26469 net.cpp:141] Setting up pool2
2016-09-13 21:27:31.610 STDERR [INFO] I0913 21:27:31.609839 26469 net.cpp:148] Top shape: 10 256 13 13 (432640)
2016-09-13 21:27:31.610 STDERR [INFO] I0913 21:27:31.609844 26469 net.cpp:156] Memory required for data: 51674680
2016-09-13 21:27:31.610 STDERR [INFO] I0913 21:27:31.609849 26469 layer_factory.hpp:77] Creating layer norm2
2016-09-13 21:27:31.611 STDERR [INFO] I0913 21:27:31.609865 26469 net.cpp:91] Creating Layer norm2
2016-09-13 21:27:31.611 STDERR [INFO] I0913 21:27:31.609870 26469 net.cpp:425] norm2 <- pool2
2016-09-13 21:27:31.611 STDERR [INFO] I0913 21:27:31.609881 26469 net.cpp:399] norm2 -> norm2
2016-09-13 21:27:31.611 STDERR [INFO] I0913 21:27:31.610162 26469 net.cpp:141] Setting up norm2
2016-09-13 21:27:31.611 STDERR [INFO] I0913 21:27:31.610175 26469 net.cpp:148] Top shape: 10 256 13 13 (432640)
2016-09-13 21:27:31.611 STDERR [INFO] I0913 21:27:31.610180 26469 net.cpp:156] Memory required for data: 53405240
2016-09-13 21:27:31.611 STDERR [INFO] I0913 21:27:31.610185 26469 layer_factory.hpp:77] Creating layer conv3
2016-09-13 21:27:31.611 STDERR [INFO] I0913 21:27:31.610199 26469 net.cpp:91] Creating Layer conv3
2016-09-13 21:27:31.611 STDERR [INFO] I0913 21:27:31.610205 26469 net.cpp:425] conv3 <- norm2
2016-09-13 21:27:31.611 STDERR [INFO] I0913 21:27:31.610216 26469 net.cpp:399] conv3 -> conv3
2016-09-13 21:27:31.614 STDERR [INFO] I0913 21:27:31.614215 26469 net.cpp:141] Setting up conv3
2016-09-13 21:27:31.614 STDERR [INFO] I0913 21:27:31.614243 26469 net.cpp:148] Top shape: 10 384 13 13 (648960)
2016-09-13 21:27:31.614 STDERR [INFO] I0913 21:27:31.614249 26469 net.cpp:156] Memory required for data: 56001080
2016-09-13 21:27:31.614 STDERR [INFO] I0913 21:27:31.614264 26469 layer_factory.hpp:77] Creating layer relu3
2016-09-13 21:27:31.614 STDERR [INFO] I0913 21:27:31.614279 26469 net.cpp:91] Creating Layer relu3
2016-09-13 21:27:31.614 STDERR [INFO] I0913 21:27:31.614285 26469 net.cpp:425] relu3 <- conv3
2016-09-13 21:27:31.614 STDERR [INFO] I0913 21:27:31.614292 26469 net.cpp:386] relu3 -> conv3 (in-place)
2016-09-13 21:27:31.615 STDERR [INFO] I0913 21:27:31.614543 26469 net.cpp:141] Setting up relu3
2016-09-13 21:27:31.615 STDERR [INFO] I0913 21:27:31.614555 26469 net.cpp:148] Top shape: 10 384 13 13 (648960)
2016-09-13 21:27:31.615 STDERR [INFO] I0913 21:27:31.614560 26469 net.cpp:156] Memory required for data: 58596920
2016-09-13 21:27:31.615 STDERR [INFO] I0913 21:27:31.614567 26469 layer_factory.hpp:77] Creating layer conv4
2016-09-13 21:27:31.615 STDERR [INFO] I0913 21:27:31.614581 26469 net.cpp:91] Creating Layer conv4
2016-09-13 21:27:31.615 STDERR [INFO] I0913 21:27:31.614586 26469 net.cpp:425] conv4 <- conv3
2016-09-13 21:27:31.615 STDERR [INFO] I0913 21:27:31.614594 26469 net.cpp:399] conv4 -> conv4
2016-09-13 21:27:31.620 STDERR [INFO] I0913 21:27:31.620651 26469 net.cpp:141] Setting up conv4
2016-09-13 21:27:31.621 STDERR [INFO] I0913 21:27:31.620688 26469 net.cpp:148] Top shape: 10 384 13 13 (648960)
2016-09-13 21:27:31.621 STDERR [INFO] I0913 21:27:31.620695 26469 net.cpp:156] Memory required for data: 61192760
2016-09-13 21:27:31.621 STDERR [INFO] I0913 21:27:31.620709 26469 layer_factory.hpp:77] Creating layer relu4
2016-09-13 21:27:31.621 STDERR [INFO] I0913 21:27:31.620726 26469 net.cpp:91] Creating Layer relu4
2016-09-13 21:27:31.621 STDERR [INFO] I0913 21:27:31.620733 26469 net.cpp:425] relu4 <- conv4
2016-09-13 21:27:31.621 STDERR [INFO] I0913 21:27:31.620743 26469 net.cpp:386] relu4 -> conv4 (in-place)
2016-09-13 21:27:31.621 STDERR [INFO] I0913 21:27:31.621186 26469 net.cpp:141] Setting up relu4
2016-09-13 21:27:31.621 STDERR [INFO] I0913 21:27:31.621201 26469 net.cpp:148] Top shape: 10 384 13 13 (648960)
2016-09-13 21:27:31.622 STDERR [INFO] I0913 21:27:31.621206 26469 net.cpp:156] Memory required for data: 63788600
2016-09-13 21:27:31.622 STDERR [INFO] I0913 21:27:31.621212 26469 layer_factory.hpp:77] Creating layer conv5
2016-09-13 21:27:31.622 STDERR [INFO] I0913 21:27:31.621228 26469 net.cpp:91] Creating Layer conv5
2016-09-13 21:27:31.622 STDERR [INFO] I0913 21:27:31.621234 26469 net.cpp:425] conv5 <- conv4
2016-09-13 21:27:31.622 STDERR [INFO] I0913 21:27:31.621245 26469 net.cpp:399] conv5 -> conv5
2016-09-13 21:27:31.625 STDERR [INFO] I0913 21:27:31.625476 26469 net.cpp:141] Setting up conv5
2016-09-13 21:27:31.625 STDERR [INFO] I0913 21:27:31.625510 26469 net.cpp:148] Top shape: 10 256 13 13 (432640)
2016-09-13 21:27:31.626 STDERR [INFO] I0913 21:27:31.625522 26469 net.cpp:156] Memory required for data: 65519160
2016-09-13 21:27:31.626 STDERR [INFO] I0913 21:27:31.625550 26469 layer_factory.hpp:77] Creating layer relu5
2016-09-13 21:27:31.626 STDERR [INFO] I0913 21:27:31.625569 26469 net.cpp:91] Creating Layer relu5
2016-09-13 21:27:31.626 STDERR [INFO] I0913 21:27:31.625581 26469 net.cpp:425] relu5 <- conv5
2016-09-13 21:27:31.626 STDERR [INFO] I0913 21:27:31.625602 26469 net.cpp:386] relu5 -> conv5 (in-place)
2016-09-13 21:27:31.626 STDERR [INFO] I0913 21:27:31.626279 26469 net.cpp:141] Setting up relu5
2016-09-13 21:27:31.627 STDERR [INFO] I0913 21:27:31.626302 26469 net.cpp:148] Top shape: 10 256 13 13 (432640)
2016-09-13 21:27:31.627 STDERR [INFO] I0913 21:27:31.626313 26469 net.cpp:156] Memory required for data: 67249720
2016-09-13 21:27:31.627 STDERR [INFO] I0913 21:27:31.626324 26469 layer_factory.hpp:77] Creating layer pool5
2016-09-13 21:27:31.627 STDERR [INFO] I0913 21:27:31.626356 26469 net.cpp:91] Creating Layer pool5
2016-09-13 21:27:31.627 STDERR [INFO] I0913 21:27:31.626371 26469 net.cpp:425] pool5 <- conv5
2016-09-13 21:27:31.627 STDERR [INFO] I0913 21:27:31.626387 26469 net.cpp:399] pool5 -> pool5
2016-09-13 21:27:31.627 STDERR [INFO] I0913 21:27:31.626507 26469 net.cpp:141] Setting up pool5
2016-09-13 21:27:31.628 STDERR [INFO] I0913 21:27:31.626528 26469 net.cpp:148] Top shape: 10 256 6 6 (92160)
2016-09-13 21:27:31.628 STDERR [INFO] I0913 21:27:31.626538 26469 net.cpp:156] Memory required for data: 67618360
2016-09-13 21:27:31.628 STDERR [INFO] I0913 21:27:31.626549 26469 layer_factory.hpp:77] Creating layer fc6
2016-09-13 21:27:31.628 STDERR [INFO] I0913 21:27:31.626577 26469 net.cpp:91] Creating Layer fc6
2016-09-13 21:27:31.628 STDERR [INFO] I0913 21:27:31.626590 26469 net.cpp:425] fc6 <- pool5
…
2016-09-13 21:27:31.800 STDERR [INFO] }
2016-09-13 21:27:31.801 STDERR [INFO] I0913 21:27:31.774219 26459 layer_factory.hpp:77] Creating layer lstm1_
2016-09-13 21:27:31.801 STDERR [INFO] I0913 21:27:31.774230 26459 net.cpp:91] Creating Layer lstm1_
2016-09-13 21:27:31.801 STDERR [INFO] I0913 21:27:31.774236 26459 net.cpp:399] lstm1_ -> x
2016-09-13 21:27:31.801 STDERR [INFO] I0913 21:27:31.774247 26459 net.cpp:399] lstm1_ -> cont
2016-09-13 21:27:31.801 STDERR [INFO] I0913 21:27:31.774307 26459 net.cpp:141] Setting up lstm1_
2016-09-13 21:27:31.801 STDERR [INFO] I0913 21:27:31.774329 26459 net.cpp:148] Top shape: 1 1 500 (500)
2016-09-13 21:27:31.801 STDERR [INFO] I0913 21:27:31.774335 26459 net.cpp:148] Top shape: 1 1 (1)
2016-09-13 21:27:31.801 STDERR [INFO] I0913 21:27:31.774339 26459 net.cpp:156] Memory required for data: 2004
2016-09-13 21:27:31.802 STDERR [INFO] I0913 21:27:31.774343 26459 layer_factory.hpp:77] Creating layer lstm1_
2016-09-13 21:27:31.802 STDERR [INFO] I0913 21:27:31.774351 26459 net.cpp:91] Creating Layer lstm1_
2016-09-13 21:27:31.802 STDERR [INFO] I0913 21:27:31.774359 26459 net.cpp:399] lstm1_ -> c_0
2016-09-13 21:27:31.802 STDERR [INFO] I0913 21:27:31.774369 26459 net.cpp:399] lstm1_ -> h_0
2016-09-13 21:27:31.802 STDERR [INFO] I0913 21:27:31.774412 26459 net.cpp:141] Setting up lstm1_
2016-09-13 21:27:31.802 STDERR [INFO] I0913 21:27:31.774421 26459 net.cpp:148] Top shape: 1 1 1000 (1000)
2016-09-13 21:27:31.802 STDERR [INFO] I0913 21:27:31.774426 26459 net.cpp:148] Top shape: 1 1 1000 (1000)
2016-09-13 21:27:31.803 STDERR [INFO] I0913 21:27:31.774430 26459 net.cpp:156] Memory required for data: 10004
2016-09-13 21:27:31.803 STDERR [INFO] I0913 21:27:31.774435 26459 layer_factory.hpp:77] Creating layer lstm1_cont_slice
2016-09-13 21:27:31.803 STDERR [INFO] I0913 21:27:31.774444 26459 net.cpp:91] Creating Layer lstm1_cont_slice
2016-09-13 21:27:31.803 STDERR [INFO] I0913 21:27:31.774448 26459 net.cpp:425] lstm1_cont_slice <- cont
2016-09-13 21:27:31.803 STDERR [INFO] I0913 21:27:31.774456 26459 net.cpp:399] lstm1_cont_slice -> cont_1
2016-09-13 21:27:31.803 STDERR [INFO] I0913 21:27:31.774487 26459 net.cpp:141] Setting up lstm1_cont_slice
2016-09-13 21:27:31.803 STDERR [INFO] I0913 21:27:31.774494 26459 net.cpp:148] Top shape: 1 1 (1)
2016-09-13 21:27:31.804 STDERR [INFO] I0913 21:27:31.774499 26459 net.cpp:156] Memory required for data: 10008
2016-09-13 21:27:31.804 STDERR [INFO] I0913 21:27:31.774503 26459 layer_factory.hpp:77] Creating layer cont_1_lstm1_cont_slice_0_split
2016-09-13 21:27:31.804 STDERR [INFO] I0913 21:27:31.774509 26459 net.cpp:91] Creating Layer cont_1_lstm1_cont_slice_0_split
2016-09-13 21:27:31.804 STDERR [INFO] I0913 21:27:31.774513 26459 net.cpp:425] cont_1_lstm1_cont_slice_0_split <- cont_1
2016-09-13 21:27:31.804 STDERR [INFO] I0913 21:27:31.774521 26459 net.cpp:399] cont_1_lstm1_cont_slice_0_split -> cont_1_lstm1_cont_slice_0_split_0
2016-09-13 21:27:31.804 STDERR [INFO] I0913 21:27:31.774529 26459 net.cpp:399] cont_1_lstm1_cont_slice_0_split -> cont_1_lstm1_cont_slice_0_split_1
2016-09-13 21:27:31.805 STDERR [INFO] I0913 21:27:31.774569 26459 net.cpp:141] Setting up cont_1_lstm1_cont_slice_0_split
2016-09-13 21:27:31.805 STDERR [INFO] I0913 21:27:31.774577 26459 net.cpp:148] Top shape: 1 1 (1)
2016-09-13 21:27:31.805 STDERR [INFO] I0913 21:27:31.774582 26459 net.cpp:148] Top shape: 1 1 (1)
2016-09-13 21:27:31.805 STDERR [INFO] I0913 21:27:31.774586 26459 net.cpp:156] Memory required for data: 10016
2016-09-13 21:27:31.805 STDERR [INFO] I0913 21:27:31.774590 26459 layer_factory.hpp:77] Creating layer lstm1_x_transform
2016-09-13 21:27:31.805 STDERR [INFO] I0913 21:27:31.774601 26459 net.cpp:91] Creating Layer lstm1_x_transform
2016-09-13 21:27:31.805 STDERR [INFO] I0913 21:27:31.774605 26459 net.cpp:425] lstm1_x_transform <- x
2016-09-13 21:27:31.806 STDERR [INFO] I0913 21:27:31.774612 26459 net.cpp:399] lstm1_x_transform -> W_xc_x
2016-09-13 21:27:31.806 STDERR [INFO] I0913 21:27:31.793171 26459 net.cpp:141] Setting up lstm1_x_transform
2016-09-13 21:27:31.806 STDERR [INFO] I0913 21:27:31.793205 26459 net.cpp:148] Top shape: 1 1 4000 (4000)
2016-09-13 21:27:31.806 STDERR [INFO] I0913 21:27:31.793210 26459 net.cpp:156] Memory required for data: 26016
2016-09-13 21:27:31.807 STDERR [INFO] I0913 21:27:31.793227 26459 layer_factory.hpp:77] Creating layer lstm1_W_xc_x_slice
2016-09-13 21:27:31.807 STDERR [INFO] I0913 21:27:31.793243 26459 net.cpp:91] Creating Layer lstm1_W_xc_x_slice
2016-09-13 21:27:31.807 STDERR [INFO] I0913 21:27:31.793251 26459 net.cpp:425] lstm1_W_xc_x_slice <- W_xc_x
2016-09-13 21:27:31.807 STDERR [INFO] I0913 21:27:31.793258 26459 net.cpp:399] lstm1_W_xc_x_slice -> W_xc_x_1
2016-09-13 21:27:31.807 STDERR [INFO] I0913 21:27:31.793297 26459 net.cpp:141] Setting up lstm1_W_xc_x_slice
2016-09-13 21:27:31.807 STDERR [INFO] I0913 21:27:31.793305 26459 net.cpp:148] Top shape: 1 1 4000 (4000)
2016-09-13 21:27:31.808 STDERR [INFO] I0913 21:27:31.793310 26459 net.cpp:156] Memory required for data: 42016
2016-09-13 21:27:31.808 STDERR [INFO] I0913 21:27:31.793314 26459 layer_factory.hpp:77] Creating layer lstm1_h_conted_0
2016-09-13 21:27:31.808 STDERR [INFO] I0913 21:27:31.793323 26459 net.cpp:91] Creating Layer lstm1_h_conted_0
2016-09-13 21:27:31.808 STDERR [INFO] I0913 21:27:31.793329 26459 net.cpp:425] lstm1_h_conted_0 <- h_0
2016-09-13 21:27:31.808 STDERR [INFO] I0913 21:27:31.793334 26459 net.cpp:425] lstm1_h_conted_0 <- cont_1_lstm1_cont_slice_0_split_0
2016-09-13 21:27:31.808 STDERR [INFO] I0913 21:27:31.793344 26459 net.cpp:399] lstm1_h_conted_0 -> h_conted_0
2016-09-13 21:27:31.808 STDERR [INFO] I0913 21:27:31.793476 26459 net.cpp:141] Setting up lstm1_h_conted_0
2016-09-13 21:27:31.809 STDERR [INFO] I0913 21:27:31.793486 26459 net.cpp:148] Top shape: 1 1 1000 (1000)
2016-09-13 21:27:31.809 STDERR [INFO] I0913 21:27:31.793490 26459 net.cpp:156] Memory required for data: 46016
2016-09-13 21:27:31.809 STDERR [INFO] I0913 21:27:31.793495 26459 layer_factory.hpp:77] Creating layer lstm1_transform_1
2016-09-13 21:27:31.809 STDERR [INFO] I0913 21:27:31.793506 26459 net.cpp:91] Creating Layer lstm1_transform_1
2016-09-13 21:27:31.809 STDERR [INFO] I0913 21:27:31.793510 26459 net.cpp:425] lstm1_transform_1 <- h_conted_0
2016-09-13 21:27:31.809 STDERR [INFO] I0913 21:27:31.793520 26459 net.cpp:399] lstm1_transform_1 -> W_hc_h_0
2016-09-13 21:27:31.809 STDERR [INFO] I0913 21:27:31.801085 26469 net.cpp:141] Setting up fc7
2016-09-13 21:27:31.809 STDERR [INFO] I0913 21:27:31.801148 26469 net.cpp:148] Top shape: 10 4096 (40960)
2016-09-13 21:27:31.810 STDERR [INFO] I0913 21:27:31.801162 26469 net.cpp:156] Memory required for data: 68273720
2016-09-13 21:27:31.810 STDERR [INFO] I0913 21:27:31.801190 26469 layer_factory.hpp:77] Creating layer relu7
2016-09-13 21:27:31.810 STDERR [INFO] I0913 21:27:31.801220 26469 net.cpp:91] Creating Layer relu7
2016-09-13 21:27:31.810 STDERR [INFO] I0913 21:27:31.801236 26469 net.cpp:425] relu7 <- fc7
2016-09-13 21:27:31.810 STDERR [INFO] I0913 21:27:31.801259 26469 net.cpp:386] relu7 -> fc7 (in-place)
2016-09-13 21:27:31.810 STDERR [INFO] I0913 21:27:31.802254 26469 net.cpp:141] Setting up relu7
2016-09-13 21:27:31.811 STDERR [INFO] I0913 21:27:31.802278 26469 net.cpp:148] Top shape: 10 4096 (40960)
2016-09-13 21:27:31.811 STDERR [INFO] I0913 21:27:31.802289 26469 net.cpp:156] Memory required for data: 68437560
2016-09-13 21:27:31.811 STDERR [INFO] I0913 21:27:31.802300 26469 layer_factory.hpp:77] Creating layer drop7
2016-09-13 21:27:31.811 STDERR [INFO] I0913 21:27:31.802327 26469 net.cpp:91] Creating Layer drop7
2016-09-13 21:27:31.811 STDERR [INFO] I0913 21:27:31.802341 26469 net.cpp:425] drop7 <- fc7
2016-09-13 21:27:31.811 STDERR [INFO] I0913 21:27:31.802357 26469 net.cpp:386] drop7 -> fc7 (in-place)
2016-09-13 21:27:31.811 STDERR [INFO] I0913 21:27:31.802424 26469 net.cpp:141] Setting up drop7
2016-09-13 21:27:31.812 STDERR [INFO] I0913 21:27:31.802444 26469 net.cpp:148] Top shape: 10 4096 (40960)
2016-09-13 21:27:31.812 STDERR [INFO] I0913 21:27:31.802454 26469 net.cpp:156] Memory required for data: 68601400
2016-09-13 21:27:31.812 STDERR [INFO] I0913 21:27:31.802464 26469 layer_factory.hpp:77] Creating layer fc8
2016-09-13 21:27:31.812 STDERR [INFO] I0913 21:27:31.802491 26469 net.cpp:91] Creating Layer fc8
2016-09-13 21:27:31.812 STDERR [INFO] I0913 21:27:31.802505 26469 net.cpp:425] fc8 <- fc7
2016-09-13 21:27:31.812 STDERR [INFO] I0913 21:27:31.802525 26469 net.cpp:399] fc8 -> fc8
2016-09-13 21:27:31.818 STDERR [INFO] I0913 21:27:31.818658 26469 net.cpp:141] Setting up fc8
2016-09-13 21:27:31.819 STDERR [INFO] I0913 21:27:31.818717 26469 net.cpp:148] Top shape: 10 1000 (10000)
2016-09-13 21:27:31.819 STDERR [INFO] I0913 21:27:31.818729 26469 net.cpp:156] Memory required for data: 68641400
2016-09-13 21:27:31.819 STDERR [INFO] I0913 21:27:31.818753 26469 layer_factory.hpp:77] Creating layer prob
2016-09-13 21:27:31.819 STDERR [INFO] I0913 21:27:31.818789 26469 net.cpp:91] Creating Layer prob
2016-09-13 21:27:31.820 STDERR [INFO] I0913 21:27:31.818804 26469 net.cpp:425] prob <- fc8
2016-09-13 21:27:31.820 STDERR [INFO] I0913 21:27:31.818820 26469 net.cpp:399] prob -> prob
2016-09-13 21:27:31.820 STDERR [INFO] I0913 21:27:31.819506 26469 net.cpp:141] Setting up prob
2016-09-13 21:27:31.820 STDERR [INFO] I0913 21:27:31.819530 26469 net.cpp:148] Top shape: 10 1000 (10000)
2016-09-13 21:27:31.820 STDERR [INFO] I0913 21:27:31.819540 26469 net.cpp:156] Memory required for data: 68681400
2016-09-13 21:27:31.820 STDERR [INFO] I0913 21:27:31.819550 26469 net.cpp:219] prob does not need backward computation.
2016-09-13 21:27:31.821 STDERR [INFO] I0913 21:27:31.819561 26469 net.cpp:219] fc8 does not need backward computation.
2016-09-13 21:27:31.821 STDERR [INFO] I0913 21:27:31.819571 26469 net.cpp:219] drop7 does not need backward computation.
…
2016-09-13 21:27:31.823 STDERR [INFO] I0913 21:27:31.819787 26469 net.cpp:219] conv1 does not need backward computation.
2016-09-13 21:27:31.823 STDERR [INFO] I0913 21:27:31.819798 26469 net.cpp:219] data does not need backward computation.
2016-09-13 21:27:31.823 STDERR [INFO] I0913 21:27:31.819808 26469 net.cpp:261] This network produces output prob
2016-09-13 21:27:31.824 STDERR [INFO] I0913 21:27:31.819850 26469 net.cpp:274] Network initialization done.
2016-09-13 21:27:31.831 STDERR [INFO] I0913 21:27:31.831221 26459 net.cpp:141] Setting up lstm1_transform_1
2016-09-13 21:27:31.831 STDERR [INFO] I0913 21:27:31.831261 26459 net.cpp:148] Top shape: 1 1 4000 (4000)
2016-09-13 21:27:31.832 STDERR [INFO] I0913 21:27:31.831266 26459 net.cpp:156] Memory required for data: 62016
2016-09-13 21:27:31.832 STDERR [INFO] I0913 21:27:31.831284 26459 layer_factory.hpp:77] Creating layer lstm1_gate_input_1
2016-09-13 21:27:31.832 STDERR [INFO] I0913 21:27:31.831305 26459 net.cpp:91] Creating Layer lstm1_gate_input_1
2016-09-13 21:27:31.832 STDERR [INFO] I0913 21:27:31.831310 26459 net.cpp:425] lstm1_gate_input_1 <- W_hc_h_0
2016-09-13 21:27:31.832 STDERR [INFO] I0913 21:27:31.831318 26459 net.cpp:425] lstm1_gate_input_1 <- W_xc_x_1
2016-09-13 21:27:31.832 STDERR [INFO] I0913 21:27:31.831326 26459 net.cpp:399] lstm1_gate_input_1 -> gate_input_1
2016-09-13 21:27:31.832 STDERR [INFO] I0913 21:27:31.831378 26459 net.cpp:141] Setting up lstm1_gate_input_1
2016-09-13 21:27:31.833 STDERR [INFO] I0913 21:27:31.831387 26459 net.cpp:148] Top shape: 1 1 4000 (4000)
2016-09-13 21:27:31.833 STDERR [INFO] I0913 21:27:31.831393 26459 net.cpp:156] Memory required for data: 78016
2016-09-13 21:27:31.833 STDERR [INFO] I0913 21:27:31.831396 26459 layer_factory.hpp:77] Creating layer lstm1_unit_1
2016-09-13 21:27:31.833 STDERR [INFO] I0913 21:27:31.831418 26459 net.cpp:91] Creating Layer lstm1_unit_1
2016-09-13 21:27:31.833 STDERR [INFO] I0913 21:27:31.831423 26459 net.cpp:425] lstm1_unit_1 <- c_0
2016-09-13 21:27:31.833 STDERR [INFO] I0913 21:27:31.831428 26459 net.cpp:425] lstm1_unit_1 <- gate_input_1
2016-09-13 21:27:31.833 STDERR [INFO] I0913 21:27:31.831432 26459 net.cpp:425] lstm1_unit_1 <- cont_1_lstm1_cont_slice_0_split_1
2016-09-13 21:27:31.833 STDERR [INFO] I0913 21:27:31.831440 26459 net.cpp:399] lstm1_unit_1 -> c_1
2016-09-13 21:27:31.833 STDERR [INFO] I0913 21:27:31.831449 26459 net.cpp:399] lstm1_unit_1 -> h_1
2016-09-13 21:27:31.834 STDERR [INFO] I0913 21:27:31.831506 26459 net.cpp:141] Setting up lstm1_unit_1
2016-09-13 21:27:31.834 STDERR [INFO] I0913 21:27:31.831516 26459 net.cpp:148] Top shape: 1 1 1000 (1000)
2016-09-13 21:27:31.834 STDERR [INFO] I0913 21:27:31.831521 26459 net.cpp:148] Top shape: 1 1 1000 (1000)
2016-09-13 21:27:31.834 STDERR [INFO] I0913 21:27:31.831524 26459 net.cpp:156] Memory required for data: 86016
2016-09-13 21:27:31.834 STDERR [INFO] I0913 21:27:31.831528 26459 layer_factory.hpp:77] Creating layer lstm1_
2016-09-13 21:27:31.834 STDERR [INFO] I0913 21:27:31.831537 26459 net.cpp:91] Creating Layer lstm1_
2016-09-13 21:27:31.834 STDERR [INFO] I0913 21:27:31.831540 26459 net.cpp:425] lstm1_ <- c_1
2016-09-13 21:27:31.834 STDERR [INFO] I0913 21:27:31.831547 26459 net.cpp:399] lstm1_ -> c_T
2016-09-13 21:27:31.835 STDERR [INFO] I0913 21:27:31.831576 26459 net.cpp:141] Setting up lstm1_
2016-09-13 21:27:31.835 STDERR [INFO] I0913 21:27:31.831584 26459 net.cpp:148] Top shape: 1 1 1000 (1000)
2016-09-13 21:27:31.835 STDERR [INFO] I0913 21:27:31.831588 26459 net.cpp:156] Memory required for data: 90016
2016-09-13 21:27:31.835 STDERR [INFO] I0913 21:27:31.831593 26459 layer_factory.hpp:77] Creating layer lstm1_h_concat
2016-09-13 21:27:31.835 STDERR [INFO] I0913 21:27:31.831600 26459 net.cpp:91] Creating Layer lstm1_h_concat
2016-09-13 21:27:31.835 STDERR [INFO] I0913 21:27:31.831604 26459 net.cpp:425] lstm1_h_concat <- h_1
2016-09-13 21:27:31.835 STDERR [INFO] I0913 21:27:31.831610 26459 net.cpp:399] lstm1_h_concat -> h
2016-09-13 21:27:31.835 STDERR [INFO] I0913 21:27:31.831643 26459 net.cpp:141] Setting up lstm1_h_concat
2016-09-13 21:27:31.835 STDERR [INFO] I0913 21:27:31.831651 26459 net.cpp:148] Top shape: 1 1 1000 (1000)
2016-09-13 21:27:31.835 STDERR [INFO] I0913 21:27:31.831655 26459 net.cpp:156] Memory required for data: 94016
2016-09-13 21:27:31.835 STDERR [INFO] I0913 21:27:31.831660 26459 layer_factory.hpp:77] Creating layer h_pseudoloss
2016-09-13 21:27:31.835 STDERR [INFO] I0913 21:27:31.831677 26459 net.cpp:91] Creating Layer h_pseudoloss
2016-09-13 21:27:31.836 STDERR [INFO] I0913 21:27:31.831681 26459 net.cpp:425] h_pseudoloss <- h
…
2016-09-13 21:27:31.857 STDERR [INFO] }
2016-09-13 21:27:31.857 STDERR [INFO] I0913 21:27:31.832557 26459 layer_factory.hpp:77] Creating layer lstm2_
2016-09-13 21:27:31.857 STDERR [INFO] I0913 21:27:31.832568 26459 net.cpp:91] Creating Layer lstm2_
2016-09-13 21:27:31.857 STDERR [INFO] I0913 21:27:31.832573 26459 net.cpp:399] lstm2_ -> x
2016-09-13 21:27:31.857 STDERR [INFO] I0913 21:27:31.832583 26459 net.cpp:399] lstm2_ -> cont
2016-09-13 21:27:31.857 STDERR [INFO] I0913 21:27:31.832633 26459 net.cpp:141] Setting up lstm2_
2016-09-13 21:27:31.857 STDERR [INFO] I0913 21:27:31.832641 26459 net.cpp:148] Top shape: 1 1 1501 (1501)
2016-09-13 21:27:31.858 STDERR [INFO] I0913 21:27:31.832646 26459 net.cpp:148] Top shape: 1 1 (1)
2016-09-13 21:27:31.858 STDERR [INFO] I0913 21:27:31.832650 26459 net.cpp:156] Memory required for data: 6008
2016-09-13 21:27:31.858 STDERR [INFO] I0913 21:27:31.832654 26459 layer_factory.hpp:77] Creating layer lstm2_
2016-09-13 21:27:31.858 STDERR [INFO] I0913 21:27:31.832662 26459 net.cpp:91] Creating Layer lstm2_
2016-09-13 21:27:31.858 STDERR [INFO] I0913 21:27:31.832670 26459 net.cpp:399] lstm2_ -> c_0
2016-09-13 21:27:31.858 STDERR [INFO] I0913 21:27:31.832679 26459 net.cpp:399] lstm2_ -> h_0
2016-09-13 21:27:31.858 STDERR [INFO] I0913 21:27:31.832723 26459 net.cpp:141] Setting up lstm2_
2016-09-13 21:27:31.858 STDERR [INFO] I0913 21:27:31.832732 26459 net.cpp:148] Top shape: 1 1 1000 (1000)
2016-09-13 21:27:31.859 STDERR [INFO] I0913 21:27:31.832737 26459 net.cpp:148] Top shape: 1 1 1000 (1000)
2016-09-13 21:27:31.859 STDERR [INFO] I0913 21:27:31.832741 26459 net.cpp:156] Memory required for data: 14008
2016-09-13 21:27:31.859 STDERR [INFO] I0913 21:27:31.832746 26459 layer_factory.hpp:77] Creating layer lstm2_cont_slice
2016-09-13 21:27:31.859 STDERR [INFO] I0913 21:27:31.832753 26459 net.cpp:91] Creating Layer lstm2_cont_slice
2016-09-13 21:27:31.859 STDERR [INFO] I0913 21:27:31.832757 26459 net.cpp:425] lstm2_cont_slice <- cont
2016-09-13 21:27:31.859 STDERR [INFO] I0913 21:27:31.832763 26459 net.cpp:399] lstm2_cont_slice -> cont_1
2016-09-13 21:27:31.859 STDERR [INFO] I0913 21:27:31.832792 26459 net.cpp:141] Setting up lstm2_cont_slice
2016-09-13 21:27:31.860 STDERR [INFO] I0913 21:27:31.832799 26459 net.cpp:148] Top shape: 1 1 (1)
2016-09-13 21:27:31.860 STDERR [INFO] I0913 21:27:31.832804 26459 net.cpp:156] Memory required for data: 14012
2016-09-13 21:27:31.860 STDERR [INFO] I0913 21:27:31.832809 26459 layer_factory.hpp:77] Creating layer cont_1_lstm2_cont_slice_0_split
2016-09-13 21:27:31.860 STDERR [INFO] I0913 21:27:31.832818 26459 net.cpp:91] Creating Layer cont_1_lstm2_cont_slice_0_split
2016-09-13 21:27:31.860 STDERR [INFO] I0913 21:27:31.832821 26459 net.cpp:425] cont_1_lstm2_cont_slice_0_split <- cont_1
2016-09-13 21:27:31.860 STDERR [INFO] I0913 21:27:31.832828 26459 net.cpp:399] cont_1_lstm2_cont_slice_0_split -> cont_1_lstm2_cont_slice_0_split_0
2016-09-13 21:27:31.860 STDERR [INFO] I0913 21:27:31.832836 26459 net.cpp:399] cont_1_lstm2_cont_slice_0_split -> cont_1_lstm2_cont_slice_0_split_1
2016-09-13 21:27:31.861 STDERR [INFO] I0913 21:27:31.832878 26459 net.cpp:141] Setting up cont_1_lstm2_cont_slice_0_split
2016-09-13 21:27:31.861 STDERR [INFO] I0913 21:27:31.832885 26459 net.cpp:148] Top shape: 1 1 (1)
2016-09-13 21:27:31.861 STDERR [INFO] I0913 21:27:31.832891 26459 net.cpp:148] Top shape: 1 1 (1)
2016-09-13 21:27:31.861 STDERR [INFO] I0913 21:27:31.832895 26459 net.cpp:156] Memory required for data: 14020
2016-09-13 21:27:31.861 STDERR [INFO] I0913 21:27:31.832900 26459 layer_factory.hpp:77] Creating layer lstm2_x_transform
2016-09-13 21:27:31.861 n.t.s.b.CVParticleBolt [INFO] [Timing] RequestID: 0 StreamID: home_peifeng_work_data_frame_1080x1920_png SequenceNr: 123 Leaving scale: 1473816451861 Size: 60165
2016-09-13 21:27:31.861 STDERR [INFO] I0913 21:27:31.832909 26459 net.cpp:91] Creating Layer lstm2_x_transform
2016-09-13 21:27:31.861 STDERR [INFO] I0913 21:27:31.832914 26459 net.cpp:425] lstm2_x_transform <- x
2016-09-13 21:27:31.861 STDERR [INFO] I0913 21:27:31.832921 26459 net.cpp:399] lstm2_x_transform -> W_xc_x
2016-09-13 21:27:31.862 n.t.s.b.CVParticleBolt [INFO] [Timing] RequestID: 0 StreamID: home_peifeng_work_data_frame_1080x1920_png SequenceNr: 124 Entering scale: 1473816451862
2016-09-13 21:27:31.894 STDERR [INFO] I0913 21:27:31.894063 26459 net.cpp:141] Setting up lstm2_x_transform
2016-09-13 21:27:31.894 STDERR [INFO] I0913 21:27:31.894105 26459 net.cpp:148] Top shape: 1 1 4000 (4000)
2016-09-13 21:27:31.894 STDERR [INFO] I0913 21:27:31.894111 26459 net.cpp:156] Memory required for data: 30020
2016-09-13 21:27:31.895 STDERR [INFO] I0913 21:27:31.894129 26459 layer_factory.hpp:77] Creating layer lstm2_W_xc_x_slice
2016-09-13 21:27:31.895 STDERR [INFO] I0913 21:27:31.894147 26459 net.cpp:91] Creating Layer lstm2_W_xc_x_slice
2016-09-13 21:27:31.895 STDERR [INFO] I0913 21:27:31.894155 26459 net.cpp:425] lstm2_W_xc_x_slice <- W_xc_x
2016-09-13 21:27:31.895 STDERR [INFO] I0913 21:27:31.894163 26459 net.cpp:399] lstm2_W_xc_x_slice -> W_xc_x_1
2016-09-13 21:27:31.895 STDERR [INFO] I0913 21:27:31.894202 26459 net.cpp:141] Setting up lstm2_W_xc_x_slice
2016-09-13 21:27:31.895 STDERR [INFO] I0913 21:27:31.894212 26459 net.cpp:148] Top shape: 1 1 4000 (4000)
2016-09-13 21:27:31.895 STDERR [INFO] I0913 21:27:31.894215 26459 net.cpp:156] Memory required for data: 46020
2016-09-13 21:27:31.895 STDERR [INFO] I0913 21:27:31.894220 26459 layer_factory.hpp:77] Creating layer lstm2_h_conted_0
2016-09-13 21:27:31.895 STDERR [INFO] I0913 21:27:31.894232 26459 net.cpp:91] Creating Layer lstm2_h_conted_0
2016-09-13 21:27:31.896 STDERR [INFO] I0913 21:27:31.894237 26459 net.cpp:425] lstm2_h_conted_0 <- h_0
2016-09-13 21:27:31.896 STDERR [INFO] I0913 21:27:31.894243 26459 net.cpp:425] lstm2_h_conted_0 <- cont_1_lstm2_cont_slice_0_split_0
2016-09-13 21:27:31.896 STDERR [INFO] I0913 21:27:31.894249 26459 net.cpp:399] lstm2_h_conted_0 -> h_conted_0
2016-09-13 21:27:31.896 STDERR [INFO] I0913 21:27:31.894337 26459 net.cpp:141] Setting up lstm2_h_conted_0
2016-09-13 21:27:31.896 STDERR [INFO] I0913 21:27:31.894346 26459 net.cpp:148] Top shape: 1 1 1000 (1000)
2016-09-13 21:27:31.896 STDERR [INFO] I0913 21:27:31.894351 26459 net.cpp:156] Memory required for data: 50020
2016-09-13 21:27:31.896 STDERR [INFO] I0913 21:27:31.894356 26459 layer_factory.hpp:77] Creating layer lstm2_transform_1
2016-09-13 21:27:31.897 STDERR [INFO] I0913 21:27:31.894366 26459 net.cpp:91] Creating Layer lstm2_transform_1
2016-09-13 21:27:31.897 STDERR [INFO] I0913 21:27:31.894371 26459 net.cpp:425] lstm2_transform_1 <- h_conted_0
2016-09-13 21:27:31.897 STDERR [INFO] I0913 21:27:31.894377 26459 net.cpp:399] lstm2_transform_1 -> W_hc_h_0
2016-09-13 21:27:31.904 n.t.s.s.CVParticleSpout [INFO] [Timing] RequestID: 0 StreamID: home_peifeng_work_data_frame_1080x1920_png SequenceNr: 126 Leaving fetcher: 1473816451903 Size: 160423
2016-09-13 21:27:31.905 n.t.s.b.CVParticleBolt [INFO] [Timing] RequestID: 0 StreamID: home_peifeng_work_data_frame_1080x1920_png SequenceNr: 126 Entering scale: 1473816451905
2016-09-13 21:27:31.933 STDERR [INFO] I0913 21:27:31.933012 26459 net.cpp:141] Setting up lstm2_transform_1
2016-09-13 21:27:31.933 STDERR [INFO] I0913 21:27:31.933051 26459 net.cpp:148] Top shape: 1 1 4000 (4000)
2016-09-13 21:27:31.933 STDERR [INFO] I0913 21:27:31.933059 26459 net.cpp:156] Memory required for data: 66020
2016-09-13 21:27:31.933 STDERR [INFO] I0913 21:27:31.933075 26459 layer_factory.hpp:77] Creating layer lstm2_gate_input_1
2016-09-13 21:27:31.934 STDERR [INFO] I0913 21:27:31.933095 26459 net.cpp:91] Creating Layer lstm2_gate_input_1
2016-09-13 21:27:31.934 STDERR [INFO] I0913 21:27:31.933104 26459 net.cpp:425] lstm2_gate_input_1 <- W_hc_h_0
2016-09-13 21:27:31.934 STDERR [INFO] I0913 21:27:31.933110 26459 net.cpp:425] lstm2_gate_input_1 <- W_xc_x_1
2016-09-13 21:27:31.934 STDERR [INFO] I0913 21:27:31.933117 26459 net.cpp:399] lstm2_gate_input_1 -> gate_input_1
2016-09-13 21:27:31.934 STDERR [INFO] I0913 21:27:31.933163 26459 net.cpp:141] Setting up lstm2_gate_input_1
2016-09-13 21:27:31.934 STDERR [INFO] I0913 21:27:31.933171 26459 net.cpp:148] Top shape: 1 1 4000 (4000)
2016-09-13 21:27:31.934 STDERR [INFO] I0913 21:27:31.933176 26459 net.cpp:156] Memory required for data: 82020
2016-09-13 21:27:31.934 STDERR [INFO] I0913 21:27:31.933181 26459 layer_factory.hpp:77] Creating layer lstm2_unit_1
2016-09-13 21:27:31.934 STDERR [INFO] I0913 21:27:31.933188 26459 net.cpp:91] Creating Layer lstm2_unit_1
2016-09-13 21:27:31.935 STDERR [INFO] I0913 21:27:31.933193 26459 net.cpp:425] lstm2_unit_1 <- c_0
2016-09-13 21:27:31.935 STDERR [INFO] I0913 21:27:31.933198 26459 net.cpp:425] lstm2_unit_1 <- gate_input_1
2016-09-13 21:27:31.935 STDERR [INFO] I0913 21:27:31.933203 26459 net.cpp:425] lstm2_unit_1 <- cont_1_lstm2_cont_slice_0_split_1
2016-09-13 21:27:31.935 STDERR [INFO] I0913 21:27:31.933210 26459 net.cpp:399] lstm2_unit_1 -> c_1
2016-09-13 21:27:31.935 STDERR [INFO] I0913 21:27:31.933219 26459 net.cpp:399] lstm2_unit_1 -> h_1
2016-09-13 21:27:31.935 STDERR [INFO] I0913 21:27:31.933279 26459 net.cpp:141] Setting up lstm2_unit_1
2016-09-13 21:27:31.935 STDERR [INFO] I0913 21:27:31.933289 26459 net.cpp:148] Top shape: 1 1 1000 (1000)
2016-09-13 21:27:31.935 STDERR [INFO] I0913 21:27:31.933293 26459 net.cpp:148] Top shape: 1 1 1000 (1000)
2016-09-13 21:27:31.935 STDERR [INFO] I0913 21:27:31.933298 26459 net.cpp:156] Memory required for data: 90020
2016-09-13 21:27:31.936 STDERR [INFO] I0913 21:27:31.933302 26459 layer_factory.hpp:77] Creating layer lstm2_
2016-09-13 21:27:31.936 STDERR [INFO] I0913 21:27:31.933312 26459 net.cpp:91] Creating Layer lstm2_
2016-09-13 21:27:31.936 STDERR [INFO] I0913 21:27:31.933316 26459 net.cpp:425] lstm2_ <- c_1
2016-09-13 21:27:31.936 STDERR [INFO] I0913 21:27:31.933323 26459 net.cpp:399] lstm2_ -> c_T
2016-09-13 21:27:31.936 STDERR [INFO] I0913 21:27:31.933351 26459 net.cpp:141] Setting up lstm2_
2016-09-13 21:27:31.936 STDERR [INFO] I0913 21:27:31.933358 26459 net.cpp:148] Top shape: 1 1 1000 (1000)
2016-09-13 21:27:31.936 STDERR [INFO] I0913 21:27:31.933362 26459 net.cpp:156] Memory required for data: 94020
2016-09-13 21:27:31.936 STDERR [INFO] I0913 21:27:31.933367 26459 layer_factory.hpp:77] Creating layer lstm2_h_concat
2016-09-13 21:27:31.937 STDERR [INFO] I0913 21:27:31.933375 26459 net.cpp:91] Creating Layer lstm2_h_concat
2016-09-13 21:27:31.937 STDERR [INFO] I0913 21:27:31.933380 26459 net.cpp:425] lstm2_h_concat <- h_1
2016-09-13 21:27:31.937 STDERR [INFO] I0913 21:27:31.933389 26459 net.cpp:399] lstm2_h_concat -> h
2016-09-13 21:27:31.937 STDERR [INFO] I0913 21:27:31.933420 26459 net.cpp:141] Setting up lstm2_h_concat
2016-09-13 21:27:31.937 STDERR [INFO] I0913 21:27:31.933429 26459 net.cpp:148] Top shape: 1 1 1000 (1000)
2016-09-13 21:27:31.937 STDERR [INFO] I0913 21:27:31.933432 26459 net.cpp:156] Memory required for data: 98020
2016-09-13 21:27:31.937 STDERR [INFO] I0913 21:27:31.933436 26459 layer_factory.hpp:77] Creating layer h_pseudoloss
2016-09-13 21:27:31.937 STDERR [INFO] I0913 21:27:31.933445 26459 net.cpp:91] Creating Layer h_pseudoloss
2016-09-13 21:27:31.937 STDERR [INFO] I0913 21:27:31.933449 26459 net.cpp:425] h_pseudoloss <- h
…
