…
Java HotSpot(TM) 64-Bit Server VM warning: You have loaded library /home/peifeng/work/run/storm102/data/workers/c4cb8bfa-b8fd-4920-8da3-79c9a362e026/tmp/cvld2841400994277734997/libopencv_java310.xine1.so which might have disabled stack guard. The VM will try to fix the stack guard now.
It's highly recommended that you fix the library with 'execstack -c <libfile>', or link it with '-z noexecstack'.
WARNING: Logging before InitGoogleLogging() is written to STDERR
I0903 17:44:59.995316 10593 net.cpp:49] Initializing net from parameters: 
name: "GoogleNet"
state {
  phase: TEST
}
layer {
  name: "data"
  type: "Input"
  top: "data"
  input_param {
    shape {
      dim: 10
      dim: 3
      dim: 224
      dim: 224
    }
  }
}
layer {
  name: "conv1/7x7_s2"
  type: "Convolution"
  bottom: "data"
  top: "conv1/7x7_s2"
  param {
    lr_mult: 1
    decay_mult: 1
  }
  param {
    lr_mult: 2
    decay_mult: 0
  }
  convolution_param {
    num_output: 64
    pad: 3
    kernel_size: 7
    stride: 2
    weight_filler {
      type: "xavier"
      std: 0.1
    }
    bias_filler {
      type: "constant"
      value: 0.2
    }
  }
}
layer {
  name: "conv1/relu_7x7"
  type: "ReLU"
  bottom: "conv1/7x7_s2"
  top: "conv1/7x7_s2"
}
layer {
  name: "pool1/3x3_s2"
  type: "Pooling"
  bottom: "conv1/7x7_s2"
  top: "pool1/3x3_s2"
  pooling_param {
    pool: MAX
    kernel_size: 3
    stride: 2
  }
}
layer {
  name: "pool1/norm1"
  type: "LRN"
  bottom: "pool1/3x3_s2"
  top: "pool1/norm1"
  lrn_param {
    local_size: 5
    alpha: 0.0001
    beta: 0.75
  }
}
layer {
  name: "conv2/3x3_reduce"
  type: "Convolution"
  bottom: "pool1/norm1"
  top: "conv2/3x3_reduce"
  param {
    lr_mult: 1
    decay_mult: 1
  }
  param {
    lr_mult: 2
    decay_mult: 0
  }
  convolution_param {
    num_output: 64
    kernel_size: 1
    weight_filler {
      type: "xavier"
      std: 0.1
    }
    bias_filler {
      type: "constant"
      value: 0.2
    }
  }
}
layer {
  name: "conv2/relu_3x3_reduce"
  type: "ReLU"
  bottom: "conv2/3x3_reduce"
  top: "conv2/3x3_reduce"
}
layer {
  name: "conv2/3x3"
  type: "Convolution"
  bottom: "conv2/3x3_reduce"
  top: "conv2/3x3"
  param {
    lr_mult: 1
    decay_mult: 1
  }
  param {
    lr_mult: 2
    decay_mult: 0
  }
  convolution_param {
    num_output: 192
    pad: 1
    kernel_size: 3
    weight_filler {
      type: "xavier"
      std: 0.03
    }
    bias_filler {
      type: "constant"
      value: 0.2
    }
  }
}
layer {
  name: "conv2/relu_3x3"
  type: "ReLU"
  bottom: "conv2/3x3"
  top: "conv2/3x3"
}
layer {
  name: "conv2/norm2"
  type: "LRN"
  bottom: "conv2/3x3"
  top: "conv2/norm2"
  lrn_param {
    local_size: 5
    alpha: 0.0001
    beta: 0.75
  }
}
layer {
  name: "pool2/3x3_s2"
  type: "Pooling"
  bottom: "conv2/norm2"
  top: "pool2/3x3_s2"
  pooling_param {
    pool: MAX
    kernel_size: 3
    stride: 2
  }
}
layer {
  name: "inception_3a/1x1"
  type: "Convolution"
  bottom: "pool2/3x3_s2"
  top: "inception_3a/1x1"
  param {
    lr_mult: 1
    decay_mult: 1
  }
  param {
    lr_mult: 2
    decay_mult: 0
  }
  convolution_param {
    num_output: 64
    kernel_size: 1
    weight_filler {
      type: "xavier"
      std: 0.03
    }
    bias_filler {
      type: "constant"
      value: 0.2
    }
  }
}
layer {
  name: "inception_3a/relu_1x1"
  type: "ReLU"
  bottom: "inception_3a/1x1"
  top: "inception_3a/1x1"
}
layer {
  name: "inception_3a/3x3_reduce"
  type: "Convolution"
  bottom: "pool2/3x3_s2"
  top: "inception_3a/3x3_reduce"
  param {
    lr_mult: 1
    decay_mult: 1
  }
  param {
    lr_mult: 2
    decay_mult: 0
  }
  convolution_param {
    num_output: 96
    kernel_size: 1
    weight_filler {
      type: "xavier"
      std: 0.09
    }
    bias_filler {
      type: "constant"
      value: 0.2
    }
  }
}
layer {
  name: "inception_3a/relu_3x3_reduce"
  type: "ReLU"
  bottom: "inception_3a/3x3_reduce"
  top: "inception_3a/3x3_reduce"
}
layer {
  name: "inception_3a/3x3"
  type: "Convolution"
  bottom: "inception_3a/3x3_reduce"
  top: "inception_3a/3x3"
  param {
    lr_mult: 1
    decay_mult: 1
  }
  param {
    lr_mult: 2
    decay_mult: 0
  }
  convolution_param {
    num_output: 128
    pad: 1
    kernel_size: 3
    weight_filler {
      type: "xavier"
      std: 0.03
    }
    bias_filler {
      type: "constant"
      value: 0.2
    }
  }
}
layer {
  name: "inception_3a/relu_3x3"
  type: "ReLU"
  bottom: "inception_3a/3x3"
  top: "inception_3a/3x3"
}
layer {
  name: "inception_3a/5x5_reduce"
  type: "Convolution"
  bottom: "pool2/3x3_s2"
  top: "inception_3a/5x5_reduce"
  param {
    lr_mult: 1
    decay_mult: 1
  }
  param {
    lr_mult: 2
    decay_mult: 0
  }
  convolution_param {
    num_output: 16
    kernel_size: 1
    weight_filler {
      type: "xavier"
      std: 0.2
    }
    bias_filler {
      type: "constant"
      value: 0.2
    }
  }
}
layer {
  name: "inception_3a/relu_5x5_reduce"
  type: "ReLU"
  bottom: "inception_3a/5x5_reduce"
  top: "inception_3a/5x5_reduce"
}
layer {
  name: "inception_3a/5x5"
  type: "Convolution"
  bottom: "inception_3a/5x5_reduce"
  top: "inception_3a/5x5"
  param {
    lr_mult: 1
    decay_mult: 1
  }
  param {
    lr_mult: 2
    decay_mult: 0
  }
  convolution_param {
    num_output: 32
    pad: 2
    kernel_size: 5
    weight_filler {
      type: "xavier"
      std: 0.03
    }
    bias_filler {
      type: "constant"
      value: 0.2
    }
  }
}
layer {
  name: "inception_3a/relu_5x5"
  type: "ReLU"
  bottom: "inception_3a/5x5"
  top: "inception_3a/5x5"
}
layer {
  name: "inception_3a/pool"
  type: "Pooling"
  bottom: "pool2/3x3_s2"
  top: "inception_3a/pool"
  pooling_param {
    pool: MAX
    kernel_size: 3
    stride: 1
    pad: 1
  }
}
layer {
  name: "inception_3a/pool_proj"
  type: "Convolution"
  bottom: "inception_3a/pool"
  top: "inception_3a/pool_proj"
  param {
    lr_mult: 1
    decay_mult: 1
  }
  param {
    lr_mult: 2
    decay_mult: 0
  }
  convolution_param {
    num_output: 32
    kernel_size: 1
    weight_filler {
      type: "xavier"
      std: 0.1
    }
    bias_filler {
      type: "constant"
      value: 0.2
    }
  }
}
layer {
  name: "inception_3a/relu_pool_proj"
  type: "ReLU"
  bottom: "inception_3a/pool_proj"
  top: "inception_3a/pool_proj"
}
layer {
  name: "inception_3a/output"
  type: "Concat"
  bottom: "inception_3a/1x1"
  bottom: "inception_3a/3x3"
  bottom: "inception_3a/5x5"
  bottom: "inception_3a/pool_proj"
  top: "inception_3a/output"
}
layer {
  name: "inception_3b/1x1"
  type: "Convolution"
  bottom: "inception_3a/output"
  top: "inception_3b/1x1"
  param {
    lr_mult: 1
    decay_mult: 1
  }
  param {
    lr_mult: 2
    decay_mult: 0
  }
  convolution_param {
    num_output: 128
    kernel_size: 1
    weight_filler {
      type: "xavier"
      std: 0.03
    }
    bias_filler {
      type: "constant"
      value: 0.2
    }
  }
}
layer {
  name: "inception_3b/relu_1x1"
  type: "ReLU"
  bottom: "inception_3b/1x1"
  top: "inception_3b/1x1"
}
layer {
  name: "inception_3b/3x3_reduce"
  type: "Convolution"
  bottom: "inception_3a/output"
  top: "inception_3b/3x3_reduce"
  param {
    lr_mult: 1
    decay_mult: 1
  }
  param {
    lr_mult: 2
    decay_mult: 0
  }
  convolution_param {
    num_output: 128
    kernel_size: 1
    weight_filler {
      type: "xavier"
      std: 0.09
    }
    bias_filler {
      type: "constant"
      value: 0.2
    }
  }
}
layer {
  name: "inception_3b/relu_3x3_reduce"
  type: "ReLU"
  bottom: "inception_3b/3x3_reduce"
  top: "inception_3b/3x3_reduce"
}
layer {
  name: "inception_3b/3x3"
  type: "Convolution"
  bottom: "inception_3b/3x3_reduce"
  top: "inception_3b/3x3"
  param {
    lr_mult: 1
    decay_mult: 1
  }
  param {
    lr_mult: 2
    decay_mult: 0
  }
  convolution_param {
    num_output: 192
    pad: 1
    kernel_size: 3
    weight_filler {
      type: "xavier"
      std: 0.03
    }
    bias_filler {
      type: "constant"
      value: 0.2
    }
  }
}
layer {
  name: "inception_3b/relu_3x3"
  type: "ReLU"
  bottom: "inception_3b/3x3"
  top: "inception_3b/3x3"
}
layer {
  name: "inception_3b/5x5_reduce"
  type: "Convolution"
  bottom: "inception_3a/output"
  top: "inception_3b/5x5_reduce"
  param {
    lr_mult: 1
    decay_mult: 1
  }
  param {
    lr_mult: 2
    decay_mult: 0
  }
  convolution_param {
    num_output: 32
    kernel_size: 1
    weight_filler {
      type: "xavier"
      std: 0.2
    }
    bias_filler {
      type: "constant"
      value: 0.2
    }
  }
}
layer {
  name: "inception_3b/relu_5x5_reduce"
  type: "ReLU"
  bottom: "inception_3b/5x5_reduce"
  top: "inception_3b/5x5_reduce"
}
layer {
  name: "inception_3b/5x5"
  type: "Convolution"
  bottom: "inception_3b/5x5_reduce"
  top: "inception_3b/5x5"
  param {
    lr_mult: 1
    decay_mult: 1
  }
  param {
    lr_mult: 2
    decay_mult: 0
  }
  convolution_param {
    num_output: 96
    pad: 2
    kernel_size: 5
    weight_filler {
      type: "xavier"
      std: 0.03
    }
    bias_filler {
      type: "constant"
      value: 0.2
    }
  }
}
layer {
  name: "inception_3b/relu_5x5"
  type: "ReLU"
  bottom: "inception_3b/5x5"
  top: "inception_3b/5x5"
}
layer {
  name: "inception_3b/pool"
  type: "Pooling"
  bottom: "inception_3a/output"
  top: "inception_3b/pool"
  pooling_param {
    pool: MAX
    kernel_size: 3
    stride: 1
    pad: 1
  }
}
layer {
  name: "inception_3b/pool_proj"
  type: "Convolution"
  bottom: "inception_3b/pool"
  top: "inception_3b/pool_proj"
  param {
    lr_mult: 1
    decay_mult: 1
  }
  param {
    lr_mult: 2
    decay_mult: 0
  }
  convolution_param {
    num_output: 64
    kernel_size: 1
    weight_filler {
      type: "xavier"
      std: 0.1
    }
    bias_filler {
      type: "constant"
      value: 0.2
    }
  }
}
layer {
  name: "inception_3b/relu_pool_proj"
  type: "ReLU"
  bottom: "inception_3b/pool_proj"
  top: "inception_3b/pool_proj"
}
layer {
  name: "inception_3b/output"
  type: "Concat"
  bottom: "inception_3b/1x1"
  bottom: "inception_3b/3x3"
  bottom: "inception_3b/5x5"
  bottom: "inception_3b/pool_proj"
  top: "inception_3b/output"
}
layer {
  name: "pool3/3x3_s2"
  type: "Pooling"
  bottom: "inception_3b/output"
  top: "pool3/3x3_s2"
  pooling_param {
    pool: MAX
    kernel_size: 3
    stride: 2
  }
}
layer {
  name: "inception_4a/1x1"
  type: "Convolution"
  bottom: "pool3/3x3_s2"
  top: "inception_4a/1x1"
  param {
    lr_mult: 1
    decay_mult: 1
  }
  param {
    lr_mult: 2
    decay_mult: 0
  }
  convolution_param {
    num_output: 192
    kernel_size: 1
    weight_filler {
      type: "xavier"
      std: 0.03
    }
    bias_filler {
      type: "constant"
      value: 0.2
    }
  }
}
layer {
  name: "inception_4a/relu_1x1"
  type: "ReLU"
  bottom: "inception_4a/1x1"
  top: "inception_4a/1x1"
}
layer {
  name: "inception_4a/3x3_reduce"
  type: "Convolution"
  bottom: "pool3/3x3_s2"
  top: "inception_4a/3x3_reduce"
  param {
    lr_mult: 1
    decay_mult: 1
  }
  param {
    lr_mult: 2
    decay_mult: 0
  }
  convolution_param {
    num_output: 96
    kernel_size: 1
    weight_filler {
      type: "xavier"
      std: 0.09
    }
    bias_filler {
      type: "constant"
      value: 0.2
    }
  }
}
layer {
  name: "inception_4a/relu_3x3_reduce"
  type: "ReLU"
  bottom: "inception_4a/3x3_reduce"
  top: "inception_4a/3x3_reduce"
}
layer {
  name: "inception_4a/3x3"
  type: "Convolution"
  bottom: "inception_4a/3x3_reduce"
  top: "inception_4a/3x3"
  param {
    lr_mult: 1
    decay_mult: 1
  }
  param {
    lr_mult: 2
    decay_mult: 0
  }
  convolution_param {
    num_output: 208
    pad: 1
    kernel_size: 3
    weight_filler {
      type: "xavier"
      std: 0.03
    }
    bias_filler {
      type: "constant"
      value: 0.2
    }
  }
}
layer {
  name: "inception_4a/relu_3x3"
  type: "ReLU"
  bottom: "inception_4a/3x3"
  top: "inception_4a/3x3"
}
layer {
  name: "inception_4a/5x5_reduce"
  type: "Convolution"
  bottom: "pool3/3x3_s2"
  top: "inception_4a/5x5_reduce"
  param {
    lr_mult: 1
    decay_mult: 1
  }
  param {
    lr_mult: 2
    decay_mult: 0
  }
  convolution_param {
    num_output: 16
    kernel_size: 1
    weight_filler {
      type: "xavier"
      std: 0.2
    }
    bias_filler {
      type: "constant"
      value: 0.2
    }
  }
}
layer {
  name: "inception_4a/relu_5x5_reduce"
  type: "ReLU"
  bottom: "inception_4a/5x5_reduce"
  top: "inception_4a/5x5_reduce"
}
layer {
  name: "inception_4a/5x5"
  type: "Convolution"
  bottom: "inception_4a/5x5_reduce"
  top: "inception_4a/5x5"
  param {
    lr_mult: 1
    decay_mult: 1
  }
  param {
    lr_mult: 2
    decay_mult: 0
  }
  convolution_param {
    num_output: 48
    pad: 2
    kernel_size: 5
    weight_filler {
      type: "xavier"
      std: 0.03
    }
    bias_filler {
      type: "constant"
      value: 0.2
    }
  }
}
layer {
  name: "inception_4a/relu_5x5"
  type: "ReLU"
  bottom: "inception_4a/5x5"
  top: "inception_4a/5x5"
}
layer {
  name: "inception_4a/pool"
  type: "Pooling"
  bottom: "pool3/3x3_s2"
  top: "inception_4a/pool"
  pooling_param {
    pool: MAX
    kernel_size: 3
    stride: 1
    pad: 1
  }
}
layer {
  name: "inception_4a/pool_proj"
  type: "Convolution"
  bottom: "inception_4a/pool"
  top: "inception_4a/pool_proj"
  param {
    lr_mult: 1
    decay_mult: 1
  }
  param {
    lr_mult: 2
    decay_mult: 0
  }
  convolution_param {
    num_output: 64
    kernel_size: 1
    weight_filler {
      type: "xavier"
      std: 0.1
    }
    bias_filler {
      type: "constant"
      value: 0.2
    }
  }
}
layer {
  name: "inception_4a/relu_pool_proj"
  type: "ReLU"
  bottom: "inception_4a/pool_proj"
  top: "inception_4a/pool_proj"
}
layer {
  name: "inception_4a/output"
  type: "Concat"
  bottom: "inception_4a/1x1"
  bottom: "inception_4a/3x3"
  bottom: "inception_4a/5x5"
  bottom: "inception_4a/pool_proj"
  top: "inception_4a/output"
}
layer {
  name: "inception_4b/1x1"
  type: "Convolution"
  bottom: "inception_4a/output"
  top: "inception_4b/1x1"
  param {
    lr_mult: 1
    decay_mult: 1
  }
  param {
    lr_mult: 2
    decay_mult: 0
  }
  convolution_param {
    num_output: 160
    kernel_size: 1
    weight_filler {
      type: "xavier"
      std: 0.03
    }
    bias_filler {
      type: "constant"
      value: 0.2
    }
  }
}
layer {
  name: "inception_4b/relu_1x1"
  type: "ReLU"
  bottom: "inception_4b/1x1"
  top: "inception_4b/1x1"
}
layer {
  name: "inception_4b/3x3_reduce"
  type: "Convolution"
  bottom: "inception_4a/output"
  top: "inception_4b/3x3_reduce"
  param {
    lr_mult: 1
    decay_mult: 1
  }
  param {
    lr_mult: 2
    decay_mult: 0
  }
  convolution_param {
    num_output: 112
    kernel_size: 1
    weight_filler {
      type: "xavier"
      std: 0.09
    }
    bias_filler {
      type: "constant"
      value: 0.2
    }
  }
}
layer {
  name: "inception_4b/relu_3x3_reduce"
  type: "ReLU"
  bottom: "inception_4b/3x3_reduce"
  top: "inception_4b/3x3_reduce"
}
layer {
  name: "inception_4b/3x3"
  type: "Convolution"
  bottom: "inception_4b/3x3_reduce"
  top: "inception_4b/3x3"
  param {
    lr_mult: 1
    decay_mult: 1
  }
  param {
    lr_mult: 2
    decay_mult: 0
  }
  convolution_param {
    num_output: 224
    pad: 1
    kernel_size: 3
    weight_filler {
      type: "xavier"
      std: 0.03
    }
    bias_filler {
      type: "constant"
      value: 0.2
    }
  }
}
layer {
  name: "inception_4b/relu_3x3"
  type: "ReLU"
  bottom: "inception_4b/3x3"
  top: "inception_4b/3x3"
}
layer {
  name: "inception_4b/5x5_reduce"
  type: "Convolution"
  bottom: "inception_4a/output"
  top: "inception_4b/5x5_reduce"
  param {
    lr_mult: 1
    decay_mult: 1
  }
  param {
    lr_mult: 2
    decay_mult: 0
  }
  convolution_param {
    num_output: 24
    kernel_size: 1
    weight_filler {
      type: "xavier"
      std: 0.2
    }
    bias_filler {
      type: "constant"
      value: 0.2
    }
  }
}
layer {
  name: "inception_4b/relu_5x5_reduce"
  type: "ReLU"
  bottom: "inception_4b/5x5_reduce"
  top: "inception_4b/5x5_reduce"
}
layer {
  name: "inception_4b/5x5"
  type: "Convolution"
  bottom: "inception_4b/5x5_reduce"
  top: "inception_4b/5x5"
  param {
    lr_mult: 1
    decay_mult: 1
  }
  param {
    lr_mult: 2
    decay_mult: 0
  }
  convolution_param {
    num_output: 64
    pad: 2
    kernel_size: 5
    weight_filler {
      type: "xavier"
      std: 0.03
    }
    bias_filler {
      type: "constant"
      value: 0.2
    }
  }
}
layer {
  name: "inception_4b/relu_5x5"
  type: "ReLU"
  bottom: "inception_4b/5x5"
  top: "inception_4b/5x5"
}
layer {
  name: "inception_4b/pool"
  type: "Pooling"
  bottom: "inception_4a/output"
  top: "inception_4b/pool"
  pooling_param {
    pool: MAX
    kernel_size: 3
    stride: 1
    pad: 1
  }
}
layer {
  name: "inception_4b/pool_proj"
  type: "Convolution"
  bottom: "inception_4b/pool"
  top: "inception_4b/pool_proj"
  param {
    lr_mult: 1
    decay_mult: 1
  }
  param {
    lr_mult: 2
    decay_mult: 0
  }
  convolution_param {
    num_output: 64
    kernel_size: 1
    weight_filler {
      type: "xavier"
      std: 0.1
    }
    bias_filler {
      type: "constant"
      value: 0.2
    }
  }
}
layer {
  name: "inception_4b/relu_pool_proj"
  type: "ReLU"
  bottom: "inception_4b/pool_proj"
  top: "inception_4b/pool_proj"
}
layer {
  name: "inception_4b/output"
  type: "Concat"
  bottom: "inception_4b/1x1"
  bottom: "inception_4b/3x3"
  bottom: "inception_4b/5x5"
  bottom: "inception_4b/pool_proj"
  top: "inception_4b/output"
}
layer {
  name: "inception_4c/1x1"
  type: "Convolution"
  bottom: "inception_4b/output"
  top: "inception_4c/1x1"
  param {
    lr_mult: 1
    decay_mult: 1
  }
  param {
    lr_mult: 2
    decay_mult: 0
  }
  convolution_param {
    num_output: 128
    kernel_size: 1
    weight_filler {
      type: "xavier"
      std: 0.03
    }
    bias_filler {
      type: "constant"
      value: 0.2
    }
  }
}
layer {
  name: "inception_4c/relu_1x1"
  type: "ReLU"
  bottom: "inception_4c/1x1"
  top: "inception_4c/1x1"
}
layer {
  name: "inception_4c/3x3_reduce"
  type: "Convolution"
  bottom: "inception_4b/output"
  top: "inception_4c/3x3_reduce"
  param {
    lr_mult: 1
    decay_mult: 1
  }
  param {
    lr_mult: 2
    decay_mult: 0
  }
  convolution_param {
    num_output: 128
    kernel_size: 1
    weight_filler {
      type: "xavier"
      std: 0.09
    }
    bias_filler {
      type: "constant"
      value: 0.2
    }
  }
}
layer {
  name: "inception_4c/relu_3x3_reduce"
  type: "ReLU"
  bottom: "inception_4c/3x3_reduce"
  top: "inception_4c/3x3_reduce"
}
layer {
  name: "inception_4c/3x3"
  type: "Convolution"
  bottom: "inception_4c/3x3_reduce"
  top: "inception_4c/3x3"
  param {
    lr_mult: 1
    decay_mult: 1
  }
  param {
    lr_mult: 2
    decay_mult: 0
  }
  convolution_param {
    num_output: 256
    pad: 1
    kernel_size: 3
    weight_filler {
      type: "xavier"
      std: 0.03
    }
    bias_filler {
      type: "constant"
      value: 0.2
    }
  }
}
layer {
  name: "inception_4c/relu_3x3"
  type: "ReLU"
  bottom: "inception_4c/3x3"
  top: "inception_4c/3x3"
}
layer {
  name: "inception_4c/5x5_reduce"
  type: "Convolution"
  bottom: "inception_4b/output"
  top: "inception_4c/5x5_reduce"
  param {
    lr_mult: 1
    decay_mult: 1
  }
  param {
    lr_mult: 2
    decay_mult: 0
  }
  convolution_param {
    num_output: 24
    kernel_size: 1
    weight_filler {
      type: "xavier"
      std: 0.2
    }
    bias_filler {
      type: "constant"
      value: 0.2
    }
  }
}
layer {
  name: "inception_4c/relu_5x5_reduce"
  type: "ReLU"
  bottom: "inception_4c/5x5_reduce"
  top: "inception_4c/5x5_reduce"
}
layer {
  name: "inception_4c/5x5"
  type: "Convolution"
  bottom: "inception_4c/5x5_reduce"
  top: "inception_4c/5x5"
  param {
    lr_mult: 1
    decay_mult: 1
  }
  param {
    lr_mult: 2
    decay_mult: 0
  }
  convolution_param {
    num_output: 64
    pad: 2
    kernel_size: 5
    weight_filler {
      type: "xavier"
      std: 0.03
    }
    bias_filler {
      type: "constant"
      value: 0.2
    }
  }
}
layer {
  name: "inception_4c/relu_5x5"
  type: "ReLU"
  bottom: "inception_4c/5x5"
  top: "inception_4c/5x5"
}
layer {
  name: "inception_4c/pool"
  type: "Pooling"
  bottom: "inception_4b/output"
  top: "inception_4c/pool"
  pooling_param {
    pool: MAX
    kernel_size: 3
    stride: 1
    pad: 1
  }
}
layer {
  name: "inception_4c/pool_proj"
  type: "Convolution"
  bottom: "inception_4c/pool"
  top: "inception_4c/pool_proj"
  param {
    lr_mult: 1
    decay_mult: 1
  }
  param {
    lr_mult: 2
    decay_mult: 0
  }
  convolution_param {
    num_output: 64
    kernel_size: 1
    weight_filler {
      type: "xavier"
      std: 0.1
    }
    bias_filler {
      type: "constant"
      value: 0.2
    }
  }
}
layer {
  name: "inception_4c/relu_pool_proj"
  type: "ReLU"
  bottom: "inception_4c/pool_proj"
  top: "inception_4c/pool_proj"
}
layer {
  name: "inception_4c/output"
  type: "Concat"
  bottom: "inception_4c/1x1"
  bottom: "inception_4c/3x3"
  bottom: "inception_4c/5x5"
  bottom: "inception_4c/pool_proj"
  top: "inception_4c/output"
}
layer {
  name: "inception_4d/1x1"
  type: "Convolution"
  bottom: "inception_4c/output"
  top: "inception_4d/1x1"
  param {
    lr_mult: 1
    decay_mult: 1
  }
  param {
    lr_mult: 2
    decay_mult: 0
  }
  convolution_param {
    num_output: 112
    kernel_size: 1
    weight_filler {
      type: "xavier"
      std: 0.03
    }
    bias_filler {
      type: "constant"
      value: 0.2
    }
  }
}
layer {
  name: "inception_4d/relu_1x1"
  type: "ReLU"
  bottom: "inception_4d/1x1"
  top: "inception_4d/1x1"
}
layer {
  name: "inception_4d/3x3_reduce"
  type: "Convolution"
  bottom: "inception_4c/output"
  top: "inception_4d/3x3_reduce"
  param {
    lr_mult: 1
    decay_mult: 1
  }
  param {
    lr_mult: 2
    decay_mult: 0
  }
  convolution_param {
    num_output: 144
    kernel_size: 1
    weight_filler {
      type: "xavier"
      std: 0.09
    }
    bias_filler {
      type: "constant"
      value: 0.2
    }
  }
}
layer {
  name: "inception_4d/relu_3x3_reduce"
  type: "ReLU"
  bottom: "inception_4d/3x3_reduce"
  top: "inception_4d/3x3_reduce"
}
layer {
  name: "inception_4d/3x3"
  type: "Convolution"
  bottom: "inception_4d/3x3_reduce"
  top: "inception_4d/3x3"
  param {
    lr_mult: 1
    decay_mult: 1
  }
  param {
    lr_mult: 2
    decay_mult: 0
  }
  convolution_param {
    num_output: 288
    pad: 1
    kernel_size: 3
    weight_filler {
      type: "xavier"
      std: 0.03
    }
    bias_filler {
      type: "constant"
      value: 0.2
    }
  }
}
layer {
  name: "inception_4d/relu_3x3"
  type: "ReLU"
  bottom: "inception_4d/3x3"
  top: "inception_4d/3x3"
}
layer {
  name: "inception_4d/5x5_reduce"
  type: "Convolution"
  bottom: "inception_4c/output"
  top: "inception_4d/5x5_reduce"
  param {
    lr_mult: 1
    decay_mult: 1
  }
  param {
    lr_mult: 2
    decay_mult: 0
  }
  convolution_param {
    num_output: 32
    kernel_size: 1
    weight_filler {
      type: "xavier"
      std: 0.2
    }
    bias_filler {
      type: "constant"
      value: 0.2
    }
  }
}
layer {
  name: "inception_4d/relu_5x5_reduce"
  type: "ReLU"
  bottom: "inception_4d/5x5_reduce"
  top: "inception_4d/5x5_reduce"
}
layer {
  name: "inception_4d/5x5"
  type: "Convolution"
  bottom: "inception_4d/5x5_reduce"
  top: "inception_4d/5x5"
  param {
    lr_mult: 1
    decay_mult: 1
  }
  param {
    lr_mult: 2
    decay_mult: 0
  }
  convolution_param {
    num_output: 64
    pad: 2
    kernel_size: 5
    weight_filler {
      type: "xavier"
      std: 0.03
    }
    bias_filler {
      type: "constant"
      value: 0.2
    }
  }
}
layer {
  name: "inception_4d/relu_5x5"
  type: "ReLU"
  bottom: "inception_4d/5x5"
  top: "inception_4d/5x5"
}
layer {
  name: "inception_4d/pool"
  type: "Pooling"
  bottom: "inception_4c/output"
  top: "inception_4d/pool"
  pooling_param {
    pool: MAX
    kernel_size: 3
    stride: 1
    pad: 1
  }
}
layer {
  name: "inception_4d/pool_proj"
  type: "Convolution"
  bottom: "inception_4d/pool"
  top: "inception_4d/pool_proj"
  param {
    lr_mult: 1
    decay_mult: 1
  }
  param {
    lr_mult: 2
    decay_mult: 0
  }
  convolution_param {
    num_output: 64
    kernel_size: 1
    weight_filler {
      type: "xavier"
      std: 0.1
    }
    bias_filler {
      type: "constant"
      value: 0.2
    }
  }
}
layer {
  name: "inception_4d/relu_pool_proj"
  type: "ReLU"
  bottom: "inception_4d/pool_proj"
  top: "inception_4d/pool_proj"
}
layer {
  name: "inception_4d/output"
  type: "Concat"
  bottom: "inception_4d/1x1"
  bottom: "inception_4d/3x3"
  bottom: "inception_4d/5x5"
  bottom: "inception_4d/pool_proj"
  top: "inception_4d/output"
}
layer {
  name: "inception_4e/1x1"
  type: "Convolution"
  bottom: "inception_4d/output"
  top: "inception_4e/1x1"
  param {
    lr_mult: 1
    decay_mult: 1
  }
  param {
    lr_mult: 2
    decay_mult: 0
  }
  convolution_param {
    num_output: 256
    kernel_size: 1
    weight_filler {
      type: "xavier"
      std: 0.03
    }
    bias_filler {
      type: "constant"
      value: 0.2
    }
  }
}
layer {
  name: "inception_4e/relu_1x1"
  type: "ReLU"
  bottom: "inception_4e/1x1"
  top: "inception_4e/1x1"
}
layer {
  name: "inception_4e/3x3_reduce"
  type: "Convolution"
  bottom: "inception_4d/output"
  top: "inception_4e/3x3_reduce"
  param {
    lr_mult: 1
    decay_mult: 1
  }
  param {
    lr_mult: 2
    decay_mult: 0
  }
  convolution_param {
    num_output: 160
    kernel_size: 1
    weight_filler {
      type: "xavier"
      std: 0.09
    }
    bias_filler {
      type: "constant"
      value: 0.2
    }
  }
}
layer {
  name: "inception_4e/relu_3x3_reduce"
  type: "ReLU"
  bottom: "inception_4e/3x3_reduce"
  top: "inception_4e/3x3_reduce"
}
layer {
  name: "inception_4e/3x3"
  type: "Convolution"
  bottom: "inception_4e/3x3_reduce"
  top: "inception_4e/3x3"
  param {
    lr_mult: 1
    decay_mult: 1
  }
  param {
    lr_mult: 2
    decay_mult: 0
  }
  convolution_param {
    num_output: 320
    pad: 1
    kernel_size: 3
    weight_filler {
      type: "xavier"
      std: 0.03
    }
    bias_filler {
      type: "constant"
      value: 0.2
    }
  }
}
layer {
  name: "inception_4e/relu_3x3"
  type: "ReLU"
  bottom: "inception_4e/3x3"
  top: "inception_4e/3x3"
}
layer {
  name: "inception_4e/5x5_reduce"
  type: "Convolution"
  bottom: "inception_4d/output"
  top: "inception_4e/5x5_reduce"
  param {
    lr_mult: 1
    decay_mult: 1
  }
  param {
    lr_mult: 2
    decay_mult: 0
  }
  convolution_param {
    num_output: 32
    kernel_size: 1
    weight_filler {
      type: "xavier"
      std: 0.2
    }
    bias_filler {
      type: "constant"
      value: 0.2
    }
  }
}
layer {
  name: "inception_4e/relu_5x5_reduce"
  type: "ReLU"
  bottom: "inception_4e/5x5_reduce"
  top: "inception_4e/5x5_reduce"
}
layer {
  name: "inception_4e/5x5"
  type: "Convolution"
  bottom: "inception_4e/5x5_reduce"
  top: "inception_4e/5x5"
  param {
    lr_mult: 1
    decay_mult: 1
  }
  param {
    lr_mult: 2
    decay_mult: 0
  }
  convolution_param {
    num_output: 128
    pad: 2
    kernel_size: 5
    weight_filler {
      type: "xavier"
      std: 0.03
    }
    bias_filler {
      type: "constant"
      value: 0.2
    }
  }
}
layer {
  name: "inception_4e/relu_5x5"
  type: "ReLU"
  bottom: "inception_4e/5x5"
  top: "inception_4e/5x5"
}
layer {
  name: "inception_4e/pool"
  type: "Pooling"
  bottom: "inception_4d/output"
  top: "inception_4e/pool"
  pooling_param {
    pool: MAX
    kernel_size: 3
    stride: 1
    pad: 1
  }
}
layer {
  name: "inception_4e/pool_proj"
  type: "Convolution"
  bottom: "inception_4e/pool"
  top: "inception_4e/pool_proj"
  param {
    lr_mult: 1
    decay_mult: 1
  }
  param {
    lr_mult: 2
    decay_mult: 0
  }
  convolution_param {
    num_output: 128
    kernel_size: 1
    weight_filler {
      type: "xavier"
      std: 0.1
    }
    bias_filler {
      type: "constant"
      value: 0.2
    }
  }
}
layer {
  name: "inception_4e/relu_pool_proj"
  type: "ReLU"
  bottom: "inception_4e/pool_proj"
  top: "inception_4e/pool_proj"
}
layer {
  name: "inception_4e/output"
  type: "Concat"
  bottom: "inception_4e/1x1"
  bottom: "inception_4e/3x3"
  bottom: "inception_4e/5x5"
  bottom: "inception_4e/pool_proj"
  top: "inception_4e/output"
}
layer {
  name: "pool4/3x3_s2"
  type: "Pooling"
  bottom: "inception_4e/output"
  top: "pool4/3x3_s2"
  pooling_param {
    pool: MAX
    kernel_size: 3
    stride: 2
  }
}
layer {
  name: "inception_5a/1x1"
  type: "Convolution"
  bottom: "pool4/3x3_s2"
  top: "inception_5a/1x1"
  param {
    lr_mult: 1
    decay_mult: 1
  }
  param {
    lr_mult: 2
    decay_mult: 0
  }
  convolution_param {
    num_output: 256
    kernel_size: 1
    weight_filler {
      type: "xavier"
      std: 0.03
    }
    bias_filler {
      type: "constant"
      value: 0.2
    }
  }
}
layer {
  name: "inception_5a/relu_1x1"
  type: "ReLU"
  bottom: "inception_5a/1x1"
  top: "inception_5a/1x1"
}
layer {
  name: "inception_5a/3x3_reduce"
  type: "Convolution"
  bottom: "pool4/3x3_s2"
  top: "inception_5a/3x3_reduce"
  param {
    lr_mult: 1
    decay_mult: 1
  }
  param {
    lr_mult: 2
    decay_mult: 0
  }
  convolution_param {
    num_output: 160
    kernel_size: 1
    weight_filler {
      type: "xavier"
      std: 0.09
    }
    bias_filler {
      type: "constant"
      value: 0.2
    }
  }
}
layer {
  name: "inception_5a/relu_3x3_reduce"
  type: "ReLU"
  bottom: "inception_5a/3x3_reduce"
  top: "inception_5a/3x3_reduce"
}
layer {
  name: "inception_5a/3x3"
  type: "Convolution"
  bottom: "inception_5a/3x3_reduce"
  top: "inception_5a/3x3"
  param {
    lr_mult: 1
    decay_mult: 1
  }
  param {
    lr_mult: 2
    decay_mult: 0
  }
  convolution_param {
    num_output: 320
    pad: 1
    kernel_size: 3
    weight_filler {
      type: "xavier"
      std: 0.03
    }
    bias_filler {
      type: "constant"
      value: 0.2
    }
  }
}
layer {
  name: "inception_5a/relu_3x3"
  type: "ReLU"
  bottom: "inception_5a/3x3"
  top: "inception_5a/3x3"
}
layer {
  name: "inception_5a/5x5_reduce"
  type: "Convolution"
  bottom: "pool4/3x3_s2"
  top: "inception_5a/5x5_reduce"
  param {
    lr_mult: 1
    decay_mult: 1
  }
  param {
    lr_mult: 2
    decay_mult: 0
  }
  convolution_param {
    num_output: 32
    kernel_size: 1
    weight_filler {
      type: "xavier"
      std: 0.2
    }
    bias_filler {
      type: "constant"
      value: 0.2
    }
I0903 17:44:59.996284 10593 layer_factory.hpp:77] Creating layer data
I0903 17:44:59.996317 10593 net.cpp:91] Creating Layer data
I0903 17:44:59.996330 10593 net.cpp:399] data -> data
I0903 17:45:00.001262 10597 net.cpp:49] Initializing net from parameters: 
name: "GoogleNet"
state {
  phase: TEST
}
layer {
  name: "data"
  type: "Input"
  top: "data"
  input_param {
    shape {
      dim: 10
      dim: 3
      dim: 224
      dim: 224
    }
  }
}
layer {
  name: "conv1/7x7_s2"
  type: "Convolution"
  bottom: "data"
  top: "conv1/7x7_s2"
  param {
    lr_mult: 1
    decay_mult: 1
  }
  param {
    lr_mult: 2
    decay_mult: 0
  }
  convolution_param {
    num_output: 64
    pad: 3
    kernel_size: 7
    stride: 2
    weight_filler {
      type: "xavier"
      std: 0.1
    }
    bias_filler {
      type: "constant"
      value: 0.2
    }
  }
}
layer {
  name: "conv1/relu_7x7"
  type: "ReLU"
  bottom: "conv1/7x7_s2"
  top: "conv1/7x7_s2"
}
layer {
  name: "pool1/3x3_s2"
  type: "Pooling"
  bottom: "conv1/7x7_s2"
  top: "pool1/3x3_s2"
  pooling_param {
    pool: MAX
    kernel_size: 3
    stride: 2
  }
}
layer {
  name: "pool1/norm1"
  type: "LRN"
  bottom: "pool1/3x3_s2"
  top: "pool1/norm1"
  lrn_param {
    local_size: 5
    alpha: 0.0001
    beta: 0.75
  }
}
layer {
  name: "conv2/3x3_reduce"
  type: "Convolution"
  bottom: "pool1/norm1"
  top: "conv2/3x3_reduce"
  param {
    lr_mult: 1
    decay_mult: 1
  }
  param {
    lr_mult: 2
    decay_mult: 0
  }
  convolution_param {
    num_output: 64
    kernel_size: 1
    weight_filler {
      type: "xavier"
      std: 0.1
    }
    bias_filler {
      type: "constant"
      value: 0.2
    }
  }
}
layer {
  name: "conv2/relu_3x3_reduce"
  type: "ReLU"
  bottom: "conv2/3x3_reduce"
  top: "conv2/3x3_reduce"
}
layer {
  name: "conv2/3x3"
  type: "Convolution"
  bottom: "conv2/3x3_reduce"
  top: "conv2/3x3"
  param {
    lr_mult: 1
    decay_mult: 1
  }
  param {
    lr_mult: 2
    decay_mult: 0
  }
  convolution_param {
    num_output: 192
    pad: 1
    kernel_size: 3
    weight_filler {
      type: "xavier"
      std: 0.03
    }
    bias_filler {
      type: "constant"
      value: 0.2
    }
  }
}
layer {
  name: "conv2/relu_3x3"
  type: "ReLU"
  bottom: "conv2/3x3"
  top: "conv2/3x3"
}
layer {
  name: "conv2/norm2"
  type: "LRN"
  bottom: "conv2/3x3"
  top: "conv2/norm2"
  lrn_param {
    local_size: 5
    alpha: 0.0001
    beta: 0.75
  }
}
layer {
  name: "pool2/3x3_s2"
  type: "Pooling"
  bottom: "conv2/norm2"
  top: "pool2/3x3_s2"
  pooling_param {
    pool: MAX
    kernel_size: 3
    stride: 2
  }
}
layer {
  name: "inception_3a/1x1"
  type: "Convolution"
  bottom: "pool2/3x3_s2"
  top: "inception_3a/1x1"
  param {
    lr_mult: 1
    decay_mult: 1
  }
  param {
    lr_mult: 2
    decay_mult: 0
  }
  convolution_param {
    num_output: 64
    kernel_size: 1
    weight_filler {
      type: "xavier"
      std: 0.03
    }
    bias_filler {
      type: "constant"
      value: 0.2
    }
  }
}
layer {
  name: "inception_3a/relu_1x1"
  type: "ReLU"
  bottom: "inception_3a/1x1"
  top: "inception_3a/1x1"
}
layer {
  name: "inception_3a/3x3_reduce"
  type: "Convolution"
  bottom: "pool2/3x3_s2"
  top: "inception_3a/3x3_reduce"
  param {
    lr_mult: 1
    decay_mult: 1
  }
  param {
    lr_mult: 2
    decay_mult: 0
  }
  convolution_param {
    num_output: 96
    kernel_size: 1
    weight_filler {
      type: "xavier"
      std: 0.09
    }
    bias_filler {
      type: "constant"
      value: 0.2
    }
  }
}
layer {
  name: "inception_3a/relu_3x3_reduce"
  type: "ReLU"
  bottom: "inception_3a/3x3_reduce"
  top: "inception_3a/3x3_reduce"
}
layer {
  name: "inception_3a/3x3"
  type: "Convolution"
  bottom: "inception_3a/3x3_reduce"
  top: "inception_3a/3x3"
  param {
    lr_mult: 1
    decay_mult: 1
  }
  param {
    lr_mult: 2
    decay_mult: 0
  }
  convolution_param {
    num_output: 128
    pad: 1
    kernel_size: 3
    weight_filler {
      type: "xavier"
      std: 0.03
    }
    bias_filler {
      type: "constant"
      value: 0.2
    }
  }
}
layer {
  name: "inception_3a/relu_3x3"
  type: "ReLU"
  bottom: "inception_3a/3x3"
  top: "inception_3a/3x3"
}
layer {
  name: "inception_3a/5x5_reduce"
  type: "Convolution"
  bottom: "pool2/3x3_s2"
  top: "inception_3a/5x5_reduce"
  param {
    lr_mult: 1
    decay_mult: 1
  }
  param {
    lr_mult: 2
    decay_mult: 0
  }
  convolution_param {
    num_output: 16
    kernel_size: 1
    weight_filler {
      type: "xavier"
      std: 0.2
    }
    bias_filler {
      type: "constant"
      value: 0.2
    }
  }
}
layer {
  name: "inception_3a/relu_5x5_reduce"
  type: "ReLU"
  bottom: "inception_3a/5x5_reduce"
  top: "inception_3a/5x5_reduce"
}
layer {
  name: "inception_3a/5x5"
  type: "Convolution"
  bottom: "inception_3a/5x5_reduce"
  top: "inception_3a/5x5"
  param {
    lr_mult: 1
    decay_mult: 1
  }
  param {
    lr_mult: 2
    decay_mult: 0
  }
  convolution_param {
    num_output: 32
    pad: 2
    kernel_size: 5
    weight_filler {
      type: "xavier"
      std: 0.03
    }
    bias_filler {
      type: "constant"
      value: 0.2
    }
  }
}
layer {
  name: "inception_3a/relu_5x5"
  type: "ReLU"
  bottom: "inception_3a/5x5"
  top: "inception_3a/5x5"
}
layer {
  name: "inception_3a/pool"
  type: "Pooling"
  bottom: "pool2/3x3_s2"
  top: "inception_3a/pool"
  pooling_param {
    pool: MAX
    kernel_size: 3
    stride: 1
    pad: 1
  }
}
layer {
  name: "inception_3a/pool_proj"
  type: "Convolution"
  bottom: "inception_3a/pool"
  top: "inception_3a/pool_proj"
  param {
    lr_mult: 1
    decay_mult: 1
  }
  param {
    lr_mult: 2
    decay_mult: 0
  }
  convolution_param {
    num_output: 32
    kernel_size: 1
    weight_filler {
      type: "xavier"
      std: 0.1
    }
    bias_filler {
      type: "constant"
      value: 0.2
    }
  }
}
layer {
  name: "inception_3a/relu_pool_proj"
  type: "ReLU"
  bottom: "inception_3a/pool_proj"
  top: "inception_3a/pool_proj"
}
layer {
  name: "inception_3a/output"
  type: "Concat"
  bottom: "inception_3a/1x1"
  bottom: "inception_3a/3x3"
  bottom: "inception_3a/5x5"
  bottom: "inception_3a/pool_proj"
  top: "inception_3a/output"
}
layer {
  name: "inception_3b/1x1"
  type: "Convolution"
  bottom: "inception_3a/output"
  top: "inception_3b/1x1"
  param {
    lr_mult: 1
    decay_mult: 1
  }
  param {
    lr_mult: 2
    decay_mult: 0
  }
  convolution_param {
    num_output: 128
    kernel_size: 1
    weight_filler {
      type: "xavier"
      std: 0.03
    }
    bias_filler {
      type: "constant"
      value: 0.2
    }
  }
}
layer {
  name: "inception_3b/relu_1x1"
  type: "ReLU"
  bottom: "inception_3b/1x1"
  top: "inception_3b/1x1"
}
layer {
  name: "inception_3b/3x3_reduce"
  type: "Convolution"
  bottom: "inception_3a/output"
  top: "inception_3b/3x3_reduce"
  param {
    lr_mult: 1
    decay_mult: 1
  }
  param {
    lr_mult: 2
    decay_mult: 0
  }
  convolution_param {
    num_output: 128
    kernel_size: 1
    weight_filler {
      type: "xavier"
      std: 0.09
    }
    bias_filler {
      type: "constant"
      value: 0.2
    }
  }
}
layer {
  name: "inception_3b/relu_3x3_reduce"
  type: "ReLU"
  bottom: "inception_3b/3x3_reduce"
  top: "inception_3b/3x3_reduce"
}
layer {
  name: "inception_3b/3x3"
  type: "Convolution"
  bottom: "inception_3b/3x3_reduce"
  top: "inception_3b/3x3"
  param {
    lr_mult: 1
    decay_mult: 1
  }
  param {
    lr_mult: 2
    decay_mult: 0
  }
  convolution_param {
    num_output: 192
    pad: 1
    kernel_size: 3
    weight_filler {
      type: "xavier"
      std: 0.03
    }
    bias_filler {
      type: "constant"
      value: 0.2
    }
  }
}
layer {
  name: "inception_3b/relu_3x3"
  type: "ReLU"
  bottom: "inception_3b/3x3"
  top: "inception_3b/3x3"
}
layer {
  name: "inception_3b/5x5_reduce"
  type: "Convolution"
  bottom: "inception_3a/output"
  top: "inception_3b/5x5_reduce"
  param {
    lr_mult: 1
    decay_mult: 1
  }
  param {
    lr_mult: 2
    decay_mult: 0
  }
  convolution_param {
    num_output: 32
    kernel_size: 1
    weight_filler {
      type: "xavier"
      std: 0.2
    }
    bias_filler {
      type: "constant"
      value: 0.2
    }
  }
}
layer {
  name: "inception_3b/relu_5x5_reduce"
  type: "ReLU"
  bottom: "inception_3b/5x5_reduce"
  top: "inception_3b/5x5_reduce"
}
layer {
  name: "inception_3b/5x5"
  type: "Convolution"
  bottom: "inception_3b/5x5_reduce"
  top: "inception_3b/5x5"
  param {
    lr_mult: 1
    decay_mult: 1
  }
  param {
    lr_mult: 2
    decay_mult: 0
  }
  convolution_param {
    num_output: 96
    pad: 2
    kernel_size: 5
    weight_filler {
      type: "xavier"
      std: 0.03
    }
    bias_filler {
      type: "constant"
      value: 0.2
    }
  }
}
layer {
  name: "inception_3b/relu_5x5"
  type: "ReLU"
  bottom: "inception_3b/5x5"
  top: "inception_3b/5x5"
}
layer {
  name: "inception_3b/pool"
  type: "Pooling"
  bottom: "inception_3a/output"
  top: "inception_3b/pool"
  pooling_param {
    pool: MAX
    kernel_size: 3
    stride: 1
    pad: 1
  }
}
layer {
  name: "inception_3b/pool_proj"
  type: "Convolution"
  bottom: "inception_3b/pool"
  top: "inception_3b/pool_proj"
  param {
    lr_mult: 1
    decay_mult: 1
  }
  param {
    lr_mult: 2
    decay_mult: 0
  }
  convolution_param {
    num_output: 64
    kernel_size: 1
    weight_filler {
      type: "xavier"
      std: 0.1
    }
    bias_filler {
      type: "constant"
      value: 0.2
    }
  }
}
layer {
  name: "inception_3b/relu_pool_proj"
  type: "ReLU"
  bottom: "inception_3b/pool_proj"
  top: "inception_3b/pool_proj"
}
layer {
  name: "inception_3b/output"
  type: "Concat"
  bottom: "inception_3b/1x1"
  bottom: "inception_3b/3x3"
  bottom: "inception_3b/5x5"
  bottom: "inception_3b/pool_proj"
  top: "inception_3b/output"
}
layer {
  name: "pool3/3x3_s2"
  type: "Pooling"
  bottom: "inception_3b/output"
  top: "pool3/3x3_s2"
  pooling_param {
    pool: MAX
    kernel_size: 3
    stride: 2
  }
}
layer {
  name: "inception_4a/1x1"
  type: "Convolution"
  bottom: "pool3/3x3_s2"
  top: "inception_4a/1x1"
  param {
    lr_mult: 1
    decay_mult: 1
  }
  param {
    lr_mult: 2
    decay_mult: 0
  }
  convolution_param {
    num_output: 192
    kernel_size: 1
    weight_filler {
      type: "xavier"
      std: 0.03
    }
    bias_filler {
      type: "constant"
      value: 0.2
    }
  }
}
layer {
  name: "inception_4a/relu_1x1"
  type: "ReLU"
  bottom: "inception_4a/1x1"
  top: "inception_4a/1x1"
}
layer {
  name: "inception_4a/3x3_reduce"
  type: "Convolution"
  bottom: "pool3/3x3_s2"
  top: "inception_4a/3x3_reduce"
  param {
    lr_mult: 1
    decay_mult: 1
  }
  param {
    lr_mult: 2
    decay_mult: 0
  }
  convolution_param {
    num_output: 96
    kernel_size: 1
    weight_filler {
      type: "xavier"
      std: 0.09
    }
    bias_filler {
      type: "constant"
      value: 0.2
    }
  }
}
layer {
  name: "inception_4a/relu_3x3_reduce"
  type: "ReLU"
  bottom: "inception_4a/3x3_reduce"
  top: "inception_4a/3x3_reduce"
}
layer {
  name: "inception_4a/3x3"
  type: "Convolution"
  bottom: "inception_4a/3x3_reduce"
  top: "inception_4a/3x3"
  param {
    lr_mult: 1
    decay_mult: 1
  }
  param {
    lr_mult: 2
    decay_mult: 0
  }
  convolution_param {
    num_output: 208
    pad: 1
    kernel_size: 3
    weight_filler {
      type: "xavier"
      std: 0.03
    }
    bias_filler {
      type: "constant"
      value: 0.2
    }
  }
}
layer {
  name: "inception_4a/relu_3x3"
  type: "ReLU"
  bottom: "inception_4a/3x3"
  top: "inception_4a/3x3"
}
layer {
  name: "inception_4a/5x5_reduce"
  type: "Convolution"
  bottom: "pool3/3x3_s2"
  top: "inception_4a/5x5_reduce"
  param {
    lr_mult: 1
    decay_mult: 1
  }
  param {
    lr_mult: 2
    decay_mult: 0
  }
  convolution_param {
    num_output: 16
    kernel_size: 1
    weight_filler {
      type: "xavier"
      std: 0.2
    }
    bias_filler {
      type: "constant"
      value: 0.2
    }
  }
}
layer {
  name: "inception_4a/relu_5x5_reduce"
  type: "ReLU"
  bottom: "inception_4a/5x5_reduce"
  top: "inception_4a/5x5_reduce"
}
layer {
  name: "inception_4a/5x5"
  type: "Convolution"
  bottom: "inception_4a/5x5_reduce"
  top: "inception_4a/5x5"
  param {
    lr_mult: 1
    decay_mult: 1
  }
  param {
    lr_mult: 2
    decay_mult: 0
  }
  convolution_param {
    num_output: 48
    pad: 2
    kernel_size: 5
    weight_filler {
      type: "xavier"
      std: 0.03
    }
    bias_filler {
      type: "constant"
      value: 0.2
    }
  }
}
layer {
  name: "inception_4a/relu_5x5"
  type: "ReLU"
  bottom: "inception_4a/5x5"
  top: "inception_4a/5x5"
}
layer {
  name: "inception_4a/pool"
  type: "Pooling"
  bottom: "pool3/3x3_s2"
  top: "inception_4a/pool"
  pooling_param {
    pool: MAX
    kernel_size: 3
    stride: 1
    pad: 1
  }
}
layer {
  name: "inception_4a/pool_proj"
  type: "Convolution"
  bottom: "inception_4a/pool"
  top: "inception_4a/pool_proj"
  param {
    lr_mult: 1
    decay_mult: 1
  }
  param {
    lr_mult: 2
    decay_mult: 0
  }
  convolution_param {
    num_output: 64
    kernel_size: 1
    weight_filler {
      type: "xavier"
      std: 0.1
    }
    bias_filler {
      type: "constant"
      value: 0.2
    }
  }
}
layer {
  name: "inception_4a/relu_pool_proj"
  type: "ReLU"
  bottom: "inception_4a/pool_proj"
  top: "inception_4a/pool_proj"
}
layer {
  name: "inception_4a/output"
  type: "Concat"
  bottom: "inception_4a/1x1"
  bottom: "inception_4a/3x3"
  bottom: "inception_4a/5x5"
  bottom: "inception_4a/pool_proj"
  top: "inception_4a/output"
}
layer {
  name: "inception_4b/1x1"
  type: "Convolution"
  bottom: "inception_4a/output"
  top: "inception_4b/1x1"
  param {
    lr_mult: 1
    decay_mult: 1
  }
  param {
    lr_mult: 2
    decay_mult: 0
  }
  convolution_param {
    num_output: 160
    kernel_size: 1
    weight_filler {
      type: "xavier"
      std: 0.03
    }
    bias_filler {
      type: "constant"
      value: 0.2
    }
  }
}
layer {
  name: "inception_4b/relu_1x1"
  type: "ReLU"
  bottom: "inception_4b/1x1"
  top: "inception_4b/1x1"
}
layer {
  name: "inception_4b/3x3_reduce"
  type: "Convolution"
  bottom: "inception_4a/output"
  top: "inception_4b/3x3_reduce"
  param {
    lr_mult: 1
    decay_mult: 1
  }
  param {
    lr_mult: 2
    decay_mult: 0
  }
  convolution_param {
    num_output: 112
    kernel_size: 1
    weight_filler {
      type: "xavier"
      std: 0.09
    }
    bias_filler {
      type: "constant"
      value: 0.2
    }
  }
}
layer {
  name: "inception_4b/relu_3x3_reduce"
  type: "ReLU"
  bottom: "inception_4b/3x3_reduce"
  top: "inception_4b/3x3_reduce"
}
layer {
  name: "inception_4b/3x3"
  type: "Convolution"
  bottom: "inception_4b/3x3_reduce"
  top: "inception_4b/3x3"
  param {
    lr_mult: 1
    decay_mult: 1
  }
  param {
    lr_mult: 2
    decay_mult: 0
  }
  convolution_param {
    num_output: 224
    pad: 1
    kernel_size: 3
    weight_filler {
      type: "xavier"
      std: 0.03
    }
    bias_filler {
      type: "constant"
      value: 0.2
    }
  }
}
layer {
  name: "inception_4b/relu_3x3"
  type: "ReLU"
  bottom: "inception_4b/3x3"
  top: "inception_4b/3x3"
}
layer {
  name: "inception_4b/5x5_reduce"
  type: "Convolution"
  bottom: "inception_4a/output"
  top: "inception_4b/5x5_reduce"
  param {
    lr_mult: 1
    decay_mult: 1
  }
  param {
    lr_mult: 2
    decay_mult: 0
  }
  convolution_param {
    num_output: 24
    kernel_size: 1
    weight_filler {
      type: "xavier"
      std: 0.2
    }
    bias_filler {
      type: "constant"
      value: 0.2
    }
  }
}
layer {
  name: "inception_4b/relu_5x5_reduce"
  type: "ReLU"
  bottom: "inception_4b/5x5_reduce"
  top: "inception_4b/5x5_reduce"
}
layer {
  name: "inception_4b/5x5"
  type: "Convolution"
  bottom: "inception_4b/5x5_reduce"
  top: "inception_4b/5x5"
  param {
    lr_mult: 1
    decay_mult: 1
  }
  param {
    lr_mult: 2
    decay_mult: 0
  }
  convolution_param {
    num_output: 64
    pad: 2
    kernel_size: 5
    weight_filler {
      type: "xavier"
      std: 0.03
    }
    bias_filler {
      type: "constant"
      value: 0.2
    }
  }
}
layer {
  name: "inception_4b/relu_5x5"
  type: "ReLU"
  bottom: "inception_4b/5x5"
  top: "inception_4b/5x5"
}
layer {
  name: "inception_4b/pool"
  type: "Pooling"
  bottom: "inception_4a/output"
  top: "inception_4b/pool"
  pooling_param {
    pool: MAX
    kernel_size: 3
    stride: 1
    pad: 1
  }
}
layer {
  name: "inception_4b/pool_proj"
  type: "Convolution"
  bottom: "inception_4b/pool"
  top: "inception_4b/pool_proj"
  param {
    lr_mult: 1
    decay_mult: 1
  }
  param {
    lr_mult: 2
    decay_mult: 0
  }
  convolution_param {
    num_output: 64
    kernel_size: 1
    weight_filler {
      type: "xavier"
      std: 0.1
    }
    bias_filler {
      type: "constant"
      value: 0.2
    }
  }
}
layer {
  name: "inception_4b/relu_pool_proj"
  type: "ReLU"
  bottom: "inception_4b/pool_proj"
  top: "inception_4b/pool_proj"
}
layer {
  name: "inception_4b/output"
  type: "Concat"
  bottom: "inception_4b/1x1"
  bottom: "inception_4b/3x3"
  bottom: "inception_4b/5x5"
  bottom: "inception_4b/pool_proj"
  top: "inception_4b/output"
}
layer {
  name: "inception_4c/1x1"
  type: "Convolution"
  bottom: "inception_4b/output"
  top: "inception_4c/1x1"
  param {
    lr_mult: 1
    decay_mult: 1
  }
  param {
    lr_mult: 2
    decay_mult: 0
  }
  convolution_param {
    num_output: 128
    kernel_size: 1
    weight_filler {
      type: "xavier"
      std: 0.03
    }
    bias_filler {
      type: "constant"
      value: 0.2
    }
  }
}
layer {
  name: "inception_4c/relu_1x1"
  type: "ReLU"
  bottom: "inception_4c/1x1"
  top: "inception_4c/1x1"
}
layer {
  name: "inception_4c/3x3_reduce"
  type: "Convolution"
  bottom: "inception_4b/output"
  top: "inception_4c/3x3_reduce"
  param {
    lr_mult: 1
    decay_mult: 1
  }
  param {
    lr_mult: 2
    decay_mult: 0
  }
  convolution_param {
    num_output: 128
    kernel_size: 1
    weight_filler {
      type: "xavier"
      std: 0.09
    }
    bias_filler {
      type: "constant"
      value: 0.2
    }
  }
}
layer {
  name: "inception_4c/relu_3x3_reduce"
  type: "ReLU"
  bottom: "inception_4c/3x3_reduce"
  top: "inception_4c/3x3_reduce"
}
layer {
  name: "inception_4c/3x3"
  type: "Convolution"
  bottom: "inception_4c/3x3_reduce"
  top: "inception_4c/3x3"
  param {
    lr_mult: 1
    decay_mult: 1
  }
  param {
    lr_mult: 2
    decay_mult: 0
  }
  convolution_param {
    num_output: 256
    pad: 1
    kernel_size: 3
    weight_filler {
      type: "xavier"
      std: 0.03
    }
    bias_filler {
      type: "constant"
      value: 0.2
    }
  }
}
layer {
  name: "inception_4c/relu_3x3"
  type: "ReLU"
  bottom: "inception_4c/3x3"
  top: "inception_4c/3x3"
}
layer {
  name: "inception_4c/5x5_reduce"
  type: "Convolution"
  bottom: "inception_4b/output"
  top: "inception_4c/5x5_reduce"
  param {
    lr_mult: 1
    decay_mult: 1
  }
  param {
    lr_mult: 2
    decay_mult: 0
  }
  convolution_param {
    num_output: 24
    kernel_size: 1
    weight_filler {
      type: "xavier"
      std: 0.2
    }
    bias_filler {
      type: "constant"
      value: 0.2
    }
  }
}
layer {
  name: "inception_4c/relu_5x5_reduce"
  type: "ReLU"
  bottom: "inception_4c/5x5_reduce"
  top: "inception_4c/5x5_reduce"
}
layer {
  name: "inception_4c/5x5"
  type: "Convolution"
  bottom: "inception_4c/5x5_reduce"
  top: "inception_4c/5x5"
  param {
    lr_mult: 1
    decay_mult: 1
  }
  param {
    lr_mult: 2
    decay_mult: 0
  }
  convolution_param {
    num_output: 64
    pad: 2
    kernel_size: 5
    weight_filler {
      type: "xavier"
      std: 0.03
    }
    bias_filler {
      type: "constant"
      value: 0.2
    }
  }
}
layer {
  name: "inception_4c/relu_5x5"
  type: "ReLU"
  bottom: "inception_4c/5x5"
  top: "inception_4c/5x5"
}
layer {
  name: "inception_4c/pool"
  type: "Pooling"
  bottom: "inception_4b/output"
  top: "inception_4c/pool"
  pooling_param {
    pool: MAX
    kernel_size: 3
    stride: 1
    pad: 1
  }
}
layer {
  name: "inception_4c/pool_proj"
  type: "Convolution"
  bottom: "inception_4c/pool"
  top: "inception_4c/pool_proj"
  param {
    lr_mult: 1
    decay_mult: 1
  }
  param {
    lr_mult: 2
    decay_mult: 0
  }
  convolution_param {
    num_output: 64
    kernel_size: 1
    weight_filler {
      type: "xavier"
      std: 0.1
    }
    bias_filler {
      type: "constant"
      value: 0.2
    }
  }
}
layer {
  name: "inception_4c/relu_pool_proj"
  type: "ReLU"
  bottom: "inception_4c/pool_proj"
  top: "inception_4c/pool_proj"
}
layer {
  name: "inception_4c/output"
  type: "Concat"
  bottom: "inception_4c/1x1"
  bottom: "inception_4c/3x3"
  bottom: "inception_4c/5x5"
  bottom: "inception_4c/pool_proj"
  top: "inception_4c/output"
}
layer {
  name: "inception_4d/1x1"
  type: "Convolution"
  bottom: "inception_4c/output"
  top: "inception_4d/1x1"
  param {
    lr_mult: 1
    decay_mult: 1
  }
  param {
    lr_mult: 2
    decay_mult: 0
  }
  convolution_param {
    num_output: 112
    kernel_size: 1
    weight_filler {
      type: "xavier"
      std: 0.03
    }
    bias_filler {
      type: "constant"
      value: 0.2
    }
  }
}
layer {
  name: "inception_4d/relu_1x1"
  type: "ReLU"
  bottom: "inception_4d/1x1"
  top: "inception_4d/1x1"
}
layer {
  name: "inception_4d/3x3_reduce"
  type: "Convolution"
  bottom: "inception_4c/output"
  top: "inception_4d/3x3_reduce"
  param {
    lr_mult: 1
    decay_mult: 1
  }
  param {
    lr_mult: 2
    decay_mult: 0
  }
  convolution_param {
    num_output: 144
    kernel_size: 1
    weight_filler {
      type: "xavier"
      std: 0.09
    }
    bias_filler {
      type: "constant"
      value: 0.2
    }
  }
}
layer {
  name: "inception_4d/relu_3x3_reduce"
  type: "ReLU"
  bottom: "inception_4d/3x3_reduce"
  top: "inception_4d/3x3_reduce"
}
layer {
  name: "inception_4d/3x3"
  type: "Convolution"
  bottom: "inception_4d/3x3_reduce"
  top: "inception_4d/3x3"
  param {
    lr_mult: 1
    decay_mult: 1
  }
  param {
    lr_mult: 2
    decay_mult: 0
  }
  convolution_param {
    num_output: 288
    pad: 1
    kernel_size: 3
    weight_filler {
      type: "xavier"
      std: 0.03
    }
    bias_filler {
      type: "constant"
      value: 0.2
    }
  }
}
layer {
  name: "inception_4d/relu_3x3"
  type: "ReLU"
  bottom: "inception_4d/3x3"
  top: "inception_4d/3x3"
}
layer {
  name: "inception_4d/5x5_reduce"
  type: "Convolution"
  bottom: "inception_4c/output"
  top: "inception_4d/5x5_reduce"
  param {
    lr_mult: 1
    decay_mult: 1
  }
  param {
    lr_mult: 2
    decay_mult: 0
  }
  convolution_param {
    num_output: 32
    kernel_size: 1
    weight_filler {
      type: "xavier"
      std: 0.2
    }
    bias_filler {
      type: "constant"
      value: 0.2
    }
  }
}
layer {
  name: "inception_4d/relu_5x5_reduce"
  type: "ReLU"
  bottom: "inception_4d/5x5_reduce"
  top: "inception_4d/5x5_reduce"
}
layer {
  name: "inception_4d/5x5"
  type: "Convolution"
  bottom: "inception_4d/5x5_reduce"
  top: "inception_4d/5x5"
  param {
    lr_mult: 1
    decay_mult: 1
  }
  param {
    lr_mult: 2
    decay_mult: 0
  }
  convolution_param {
    num_output: 64
    pad: 2
    kernel_size: 5
    weight_filler {
      type: "xavier"
      std: 0.03
    }
    bias_filler {
      type: "constant"
      value: 0.2
    }
  }
}
layer {
  name: "inception_4d/relu_5x5"
  type: "ReLU"
  bottom: "inception_4d/5x5"
  top: "inception_4d/5x5"
}
layer {
  name: "inception_4d/pool"
  type: "Pooling"
  bottom: "inception_4c/output"
  top: "inception_4d/pool"
  pooling_param {
    pool: MAX
    kernel_size: 3
    stride: 1
    pad: 1
  }
}
layer {
  name: "inception_4d/pool_proj"
  type: "Convolution"
  bottom: "inception_4d/pool"
  top: "inception_4d/pool_proj"
  param {
    lr_mult: 1
    decay_mult: 1
  }
  param {
    lr_mult: 2
    decay_mult: 0
  }
  convolution_param {
    num_output: 64
    kernel_size: 1
    weight_filler {
      type: "xavier"
      std: 0.1
    }
    bias_filler {
      type: "constant"
      value: 0.2
    }
  }
}
layer {
  name: "inception_4d/relu_pool_proj"
  type: "ReLU"
  bottom: "inception_4d/pool_proj"
  top: "inception_4d/pool_proj"
}
layer {
  name: "inception_4d/output"
  type: "Concat"
  bottom: "inception_4d/1x1"
  bottom: "inception_4d/3x3"
  bottom: "inception_4d/5x5"
  bottom: "inception_4d/pool_proj"
  top: "inception_4d/output"
}
layer {
  name: "inception_4e/1x1"
  type: "Convolution"
  bottom: "inception_4d/output"
  top: "inception_4e/1x1"
  param {
    lr_mult: 1
    decay_mult: 1
  }
  param {
    lr_mult: 2
    decay_mult: 0
  }
  convolution_param {
    num_output: 256
    kernel_size: 1
    weight_filler {
      type: "xavier"
      std: 0.03
    }
    bias_filler {
      type: "constant"
      value: 0.2
    }
  }
}
layer {
  name: "inception_4e/relu_1x1"
  type: "ReLU"
  bottom: "inception_4e/1x1"
  top: "inception_4e/1x1"
}
layer {
  name: "inception_4e/3x3_reduce"
  type: "Convolution"
  bottom: "inception_4d/output"
  top: "inception_4e/3x3_reduce"
  param {
    lr_mult: 1
    decay_mult: 1
  }
  param {
    lr_mult: 2
    decay_mult: 0
  }
  convolution_param {
    num_output: 160
    kernel_size: 1
    weight_filler {
      type: "xavier"
      std: 0.09
    }
    bias_filler {
      type: "constant"
      value: 0.2
    }
  }
}
layer {
  name: "inception_4e/relu_3x3_reduce"
  type: "ReLU"
  bottom: "inception_4e/3x3_reduce"
  top: "inception_4e/3x3_reduce"
}
layer {
  name: "inception_4e/3x3"
  type: "Convolution"
  bottom: "inception_4e/3x3_reduce"
  top: "inception_4e/3x3"
  param {
    lr_mult: 1
    decay_mult: 1
  }
  param {
    lr_mult: 2
    decay_mult: 0
  }
  convolution_param {
    num_output: 320
    pad: 1
    kernel_size: 3
    weight_filler {
      type: "xavier"
      std: 0.03
    }
    bias_filler {
      type: "constant"
      value: 0.2
    }
  }
}
layer {
  name: "inception_4e/relu_3x3"
  type: "ReLU"
  bottom: "inception_4e/3x3"
  top: "inception_4e/3x3"
}
layer {
  name: "inception_4e/5x5_reduce"
  type: "Convolution"
  bottom: "inception_4d/output"
  top: "inception_4e/5x5_reduce"
  param {
    lr_mult: 1
    decay_mult: 1
  }
  param {
    lr_mult: 2
    decay_mult: 0
  }
  convolution_param {
    num_output: 32
    kernel_size: 1
    weight_filler {
      type: "xavier"
      std: 0.2
    }
    bias_filler {
      type: "constant"
      value: 0.2
    }
  }
}
layer {
  name: "inception_4e/relu_5x5_reduce"
  type: "ReLU"
  bottom: "inception_4e/5x5_reduce"
  top: "inception_4e/5x5_reduce"
}
layer {
  name: "inception_4e/5x5"
  type: "Convolution"
  bottom: "inception_4e/5x5_reduce"
  top: "inception_4e/5x5"
  param {
    lr_mult: 1
    decay_mult: 1
  }
  param {
    lr_mult: 2
    decay_mult: 0
  }
  convolution_param {
    num_output: 128
    pad: 2
    kernel_size: 5
    weight_filler {
      type: "xavier"
      std: 0.03
    }
    bias_filler {
      type: "constant"
      value: 0.2
    }
  }
}
layer {
  name: "inception_4e/relu_5x5"
  type: "ReLU"
  bottom: "inception_4e/5x5"
  top: "inception_4e/5x5"
}
layer {
  name: "inception_4e/pool"
  type: "Pooling"
  bottom: "inception_4d/output"
  top: "inception_4e/pool"
  pooling_param {
    pool: MAX
    kernel_size: 3
    stride: 1
    pad: 1
  }
}
layer {
  name: "inception_4e/pool_proj"
  type: "Convolution"
  bottom: "inception_4e/pool"
  top: "inception_4e/pool_proj"
  param {
    lr_mult: 1
    decay_mult: 1
  }
  param {
    lr_mult: 2
    decay_mult: 0
  }
  convolution_param {
    num_output: 128
    kernel_size: 1
    weight_filler {
      type: "xavier"
      std: 0.1
    }
    bias_filler {
      type: "constant"
      value: 0.2
    }
  }
}
layer {
  name: "inception_4e/relu_pool_proj"
  type: "ReLU"
  bottom: "inception_4e/pool_proj"
  top: "inception_4e/pool_proj"
}
layer {
  name: "inception_4e/output"
  type: "Concat"
  bottom: "inception_4e/1x1"
  bottom: "inception_4e/3x3"
  bottom: "inception_4e/5x5"
  bottom: "inception_4e/pool_proj"
  top: "inception_4e/output"
}
layer {
  name: "pool4/3x3_s2"
  type: "Pooling"
  bottom: "inception_4e/output"
  top: "pool4/3x3_s2"
  pooling_param {
    pool: MAX
    kernel_size: 3
    stride: 2
  }
}
layer {
  name: "inception_5a/1x1"
  type: "Convolution"
  bottom: "pool4/3x3_s2"
  top: "inception_5a/1x1"
  param {
    lr_mult: 1
    decay_mult: 1
  }
  param {
    lr_mult: 2
    decay_mult: 0
  }
  convolution_param {
    num_output: 256
    kernel_size: 1
    weight_filler {
      type: "xavier"
      std: 0.03
    }
    bias_filler {
      type: "constant"
      value: 0.2
    }
  }
}
layer {
  name: "inception_5a/relu_1x1"
  type: "ReLU"
  bottom: "inception_5a/1x1"
  top: "inception_5a/1x1"
}
layer {
  name: "inception_5a/3x3_reduce"
  type: "Convolution"
  bottom: "pool4/3x3_s2"
  top: "inception_5a/3x3_reduce"
  param {
    lr_mult: 1
    decay_mult: 1
  }
  param {
    lr_mult: 2
    decay_mult: 0
  }
  convolution_param {
    num_output: 160
    kernel_size: 1
    weight_filler {
      type: "xavier"
      std: 0.09
    }
    bias_filler {
      type: "constant"
      value: 0.2
    }
  }
}
layer {
  name: "inception_5a/relu_3x3_reduce"
  type: "ReLU"
  bottom: "inception_5a/3x3_reduce"
  top: "inception_5a/3x3_reduce"
}
layer {
  name: "inception_5a/3x3"
  type: "Convolution"
  bottom: "inception_5a/3x3_reduce"
  top: "inception_5a/3x3"
  param {
    lr_mult: 1
    decay_mult: 1
  }
  param {
    lr_mult: 2
    decay_mult: 0
  }
  convolution_param {
    num_output: 320
    pad: 1
    kernel_size: 3
    weight_filler {
      type: "xavier"
      std: 0.03
    }
    bias_filler {
      type: "constant"
      value: 0.2
    }
  }
}
layer {
  name: "inception_5a/relu_3x3"
  type: "ReLU"
  bottom: "inception_5a/3x3"
  top: "inception_5a/3x3"
}
layer {
  name: "inception_5a/5x5_reduce"
  type: "Convolution"
  bottom: "pool4/3x3_s2"
  top: "inception_5a/5x5_reduce"
  param {
    lr_mult: 1
    decay_mult: 1
  }
  param {
    lr_mult: 2
    decay_mult: 0
  }
  convolution_param {
    num_output: 32
    kernel_size: 1
    weight_filler {
      type: "xavier"
      std: 0.2
    }
    bias_filler {
      type: "constant"
      value: 0.2
    }
I0903 17:45:00.002142 10597 layer_factory.hpp:77] Creating layer data
I0903 17:45:00.002161 10597 net.cpp:91] Creating Layer data
I0903 17:45:00.002167 10597 net.cpp:399] data -> data
I0903 17:45:01.027854 10593 net.cpp:141] Setting up data
I0903 17:45:01.027927 10593 net.cpp:148] Top shape: 10 3 224 224 (1505280)
I0903 17:45:01.027935 10593 net.cpp:156] Memory required for data: 6021120
I0903 17:45:01.027956 10593 layer_factory.hpp:77] Creating layer conv1/7x7_s2
I0903 17:45:01.027994 10593 net.cpp:91] Creating Layer conv1/7x7_s2
I0903 17:45:01.028003 10593 net.cpp:425] conv1/7x7_s2 <- data
I0903 17:45:01.028018 10593 net.cpp:399] conv1/7x7_s2 -> conv1/7x7_s2
I0903 17:45:01.032207 10597 net.cpp:141] Setting up data
I0903 17:45:01.032256 10597 net.cpp:148] Top shape: 10 3 224 224 (1505280)
I0903 17:45:01.032263 10597 net.cpp:156] Memory required for data: 6021120
I0903 17:45:01.032274 10597 layer_factory.hpp:77] Creating layer conv1/7x7_s2
I0903 17:45:01.032304 10597 net.cpp:91] Creating Layer conv1/7x7_s2
I0903 17:45:01.032310 10597 net.cpp:425] conv1/7x7_s2 <- data
I0903 17:45:01.032321 10597 net.cpp:399] conv1/7x7_s2 -> conv1/7x7_s2
I0903 17:45:01.371565 10593 net.cpp:141] Setting up conv1/7x7_s2
I0903 17:45:01.371613 10593 net.cpp:148] Top shape: 10 64 112 112 (8028160)
I0903 17:45:01.371619 10593 net.cpp:156] Memory required for data: 38133760
I0903 17:45:01.371647 10593 layer_factory.hpp:77] Creating layer conv1/relu_7x7
I0903 17:45:01.371670 10593 net.cpp:91] Creating Layer conv1/relu_7x7
I0903 17:45:01.371677 10593 net.cpp:425] conv1/relu_7x7 <- conv1/7x7_s2
I0903 17:45:01.371685 10593 net.cpp:386] conv1/relu_7x7 -> conv1/7x7_s2 (in-place)
I0903 17:45:01.372475 10593 net.cpp:141] Setting up conv1/relu_7x7
I0903 17:45:01.372491 10593 net.cpp:148] Top shape: 10 64 112 112 (8028160)
I0903 17:45:01.372496 10593 net.cpp:156] Memory required for data: 70246400
I0903 17:45:01.372503 10593 layer_factory.hpp:77] Creating layer pool1/3x3_s2
I0903 17:45:01.372516 10593 net.cpp:91] Creating Layer pool1/3x3_s2
I0903 17:45:01.372521 10593 net.cpp:425] pool1/3x3_s2 <- conv1/7x7_s2
I0903 17:45:01.372534 10593 net.cpp:399] pool1/3x3_s2 -> pool1/3x3_s2
I0903 17:45:01.372530 10597 net.cpp:141] Setting up conv1/7x7_s2
I0903 17:45:01.372571 10597 net.cpp:148] Top shape: 10 64 112 112 (8028160)
I0903 17:45:01.372577 10597 net.cpp:156] Memory required for data: 38133760
I0903 17:45:01.372602 10597 layer_factory.hpp:77] Creating layer conv1/relu_7x7
I0903 17:45:01.372620 10597 net.cpp:91] Creating Layer conv1/relu_7x7
I0903 17:45:01.372627 10597 net.cpp:425] conv1/relu_7x7 <- conv1/7x7_s2
I0903 17:45:01.372637 10597 net.cpp:386] conv1/relu_7x7 -> conv1/7x7_s2 (in-place)
I0903 17:45:01.373101 10593 net.cpp:141] Setting up pool1/3x3_s2
I0903 17:45:01.373116 10593 net.cpp:148] Top shape: 10 64 56 56 (2007040)
I0903 17:45:01.373121 10593 net.cpp:156] Memory required for data: 78274560
I0903 17:45:01.373126 10593 layer_factory.hpp:77] Creating layer pool1/norm1
I0903 17:45:01.373145 10593 net.cpp:91] Creating Layer pool1/norm1
I0903 17:45:01.373152 10593 net.cpp:425] pool1/norm1 <- pool1/3x3_s2
I0903 17:45:01.373163 10593 net.cpp:399] pool1/norm1 -> pool1/norm1
I0903 17:45:01.373193 10597 net.cpp:141] Setting up conv1/relu_7x7
I0903 17:45:01.373208 10597 net.cpp:148] Top shape: 10 64 112 112 (8028160)
I0903 17:45:01.373214 10597 net.cpp:156] Memory required for data: 70246400
I0903 17:45:01.373220 10597 layer_factory.hpp:77] Creating layer pool1/3x3_s2
I0903 17:45:01.373235 10597 net.cpp:91] Creating Layer pool1/3x3_s2
I0903 17:45:01.373241 10597 net.cpp:425] pool1/3x3_s2 <- conv1/7x7_s2
I0903 17:45:01.373248 10597 net.cpp:399] pool1/3x3_s2 -> pool1/3x3_s2
I0903 17:45:01.373492 10597 net.cpp:141] Setting up pool1/3x3_s2
I0903 17:45:01.373507 10597 net.cpp:148] Top shape: 10 64 56 56 (2007040)
I0903 17:45:01.373510 10597 net.cpp:156] Memory required for data: 78274560
I0903 17:45:01.373517 10597 layer_factory.hpp:77] Creating layer pool1/norm1
I0903 17:45:01.373531 10597 net.cpp:91] Creating Layer pool1/norm1
I0903 17:45:01.373536 10597 net.cpp:425] pool1/norm1 <- pool1/3x3_s2
I0903 17:45:01.373544 10597 net.cpp:399] pool1/norm1 -> pool1/norm1
I0903 17:45:01.373855 10593 net.cpp:141] Setting up pool1/norm1
I0903 17:45:01.373870 10593 net.cpp:148] Top shape: 10 64 56 56 (2007040)
I0903 17:45:01.373875 10593 net.cpp:156] Memory required for data: 86302720
I0903 17:45:01.373880 10593 layer_factory.hpp:77] Creating layer conv2/3x3_reduce
I0903 17:45:01.373903 10593 net.cpp:91] Creating Layer conv2/3x3_reduce
I0903 17:45:01.373908 10593 net.cpp:425] conv2/3x3_reduce <- pool1/norm1
I0903 17:45:01.373916 10593 net.cpp:399] conv2/3x3_reduce -> conv2/3x3_reduce
I0903 17:45:01.374128 10597 net.cpp:141] Setting up pool1/norm1
I0903 17:45:01.374142 10597 net.cpp:148] Top shape: 10 64 56 56 (2007040)
I0903 17:45:01.374147 10597 net.cpp:156] Memory required for data: 86302720
I0903 17:45:01.374153 10597 layer_factory.hpp:77] Creating layer conv2/3x3_reduce
I0903 17:45:01.374176 10597 net.cpp:91] Creating Layer conv2/3x3_reduce
I0903 17:45:01.374181 10597 net.cpp:425] conv2/3x3_reduce <- pool1/norm1
I0903 17:45:01.374193 10597 net.cpp:399] conv2/3x3_reduce -> conv2/3x3_reduce
I0903 17:45:01.379259 10593 net.cpp:141] Setting up conv2/3x3_reduce
I0903 17:45:01.379287 10593 net.cpp:148] Top shape: 10 64 56 56 (2007040)
I0903 17:45:01.379292 10593 net.cpp:156] Memory required for data: 94330880
I0903 17:45:01.379307 10593 layer_factory.hpp:77] Creating layer conv2/relu_3x3_reduce
I0903 17:45:01.379317 10593 net.cpp:91] Creating Layer conv2/relu_3x3_reduce
I0903 17:45:01.379323 10593 net.cpp:425] conv2/relu_3x3_reduce <- conv2/3x3_reduce
I0903 17:45:01.379330 10593 net.cpp:386] conv2/relu_3x3_reduce -> conv2/3x3_reduce (in-place)
I0903 17:45:01.380090 10593 net.cpp:141] Setting up conv2/relu_3x3_reduce
I0903 17:45:01.380107 10593 net.cpp:148] Top shape: 10 64 56 56 (2007040)
I0903 17:45:01.380113 10593 net.cpp:156] Memory required for data: 102359040
I0903 17:45:01.380118 10593 layer_factory.hpp:77] Creating layer conv2/3x3
I0903 17:45:01.380141 10593 net.cpp:91] Creating Layer conv2/3x3
I0903 17:45:01.380146 10593 net.cpp:425] conv2/3x3 <- conv2/3x3_reduce
I0903 17:45:01.380158 10593 net.cpp:399] conv2/3x3 -> conv2/3x3
I0903 17:45:01.380156 10597 net.cpp:141] Setting up conv2/3x3_reduce
I0903 17:45:01.380175 10597 net.cpp:148] Top shape: 10 64 56 56 (2007040)
I0903 17:45:01.380182 10597 net.cpp:156] Memory required for data: 94330880
I0903 17:45:01.380194 10597 layer_factory.hpp:77] Creating layer conv2/relu_3x3_reduce
I0903 17:45:01.380204 10597 net.cpp:91] Creating Layer conv2/relu_3x3_reduce
I0903 17:45:01.380209 10597 net.cpp:425] conv2/relu_3x3_reduce <- conv2/3x3_reduce
I0903 17:45:01.380221 10597 net.cpp:386] conv2/relu_3x3_reduce -> conv2/3x3_reduce (in-place)
I0903 17:45:01.380870 10597 net.cpp:141] Setting up conv2/relu_3x3_reduce
I0903 17:45:01.380885 10597 net.cpp:148] Top shape: 10 64 56 56 (2007040)
I0903 17:45:01.380890 10597 net.cpp:156] Memory required for data: 102359040
I0903 17:45:01.380897 10597 layer_factory.hpp:77] Creating layer conv2/3x3
I0903 17:45:01.380913 10597 net.cpp:91] Creating Layer conv2/3x3
I0903 17:45:01.380919 10597 net.cpp:425] conv2/3x3 <- conv2/3x3_reduce
I0903 17:45:01.380933 10597 net.cpp:399] conv2/3x3 -> conv2/3x3
I0903 17:45:01.386127 10593 net.cpp:141] Setting up conv2/3x3
I0903 17:45:01.386152 10593 net.cpp:148] Top shape: 10 192 56 56 (6021120)
I0903 17:45:01.386158 10593 net.cpp:156] Memory required for data: 126443520
I0903 17:45:01.386174 10593 layer_factory.hpp:77] Creating layer conv2/relu_3x3
I0903 17:45:01.386193 10593 net.cpp:91] Creating Layer conv2/relu_3x3
I0903 17:45:01.386198 10593 net.cpp:425] conv2/relu_3x3 <- conv2/3x3
I0903 17:45:01.386206 10593 net.cpp:386] conv2/relu_3x3 -> conv2/3x3 (in-place)
I0903 17:45:01.386767 10593 net.cpp:141] Setting up conv2/relu_3x3
I0903 17:45:01.386785 10593 net.cpp:148] Top shape: 10 192 56 56 (6021120)
I0903 17:45:01.386790 10593 net.cpp:156] Memory required for data: 150528000
I0903 17:45:01.386795 10593 layer_factory.hpp:77] Creating layer conv2/norm2
I0903 17:45:01.386811 10593 net.cpp:91] Creating Layer conv2/norm2
I0903 17:45:01.386817 10593 net.cpp:425] conv2/norm2 <- conv2/3x3
I0903 17:45:01.386826 10593 net.cpp:399] conv2/norm2 -> conv2/norm2
I0903 17:45:01.387217 10597 net.cpp:141] Setting up conv2/3x3
I0903 17:45:01.387240 10597 net.cpp:148] Top shape: 10 192 56 56 (6021120)
I0903 17:45:01.387246 10597 net.cpp:156] Memory required for data: 126443520
I0903 17:45:01.387259 10597 layer_factory.hpp:77] Creating layer conv2/relu_3x3
I0903 17:45:01.387271 10597 net.cpp:91] Creating Layer conv2/relu_3x3
I0903 17:45:01.387276 10597 net.cpp:425] conv2/relu_3x3 <- conv2/3x3
I0903 17:45:01.387287 10597 net.cpp:386] conv2/relu_3x3 -> conv2/3x3 (in-place)
I0903 17:45:01.387708 10593 net.cpp:141] Setting up conv2/norm2
I0903 17:45:01.387724 10593 net.cpp:148] Top shape: 10 192 56 56 (6021120)
I0903 17:45:01.387729 10593 net.cpp:156] Memory required for data: 174612480
I0903 17:45:01.387735 10593 layer_factory.hpp:77] Creating layer pool2/3x3_s2
I0903 17:45:01.387747 10593 net.cpp:91] Creating Layer pool2/3x3_s2
I0903 17:45:01.387753 10593 net.cpp:425] pool2/3x3_s2 <- conv2/norm2
I0903 17:45:01.387763 10593 net.cpp:399] pool2/3x3_s2 -> pool2/3x3_s2
I0903 17:45:01.387779 10597 net.cpp:141] Setting up conv2/relu_3x3
I0903 17:45:01.387794 10597 net.cpp:148] Top shape: 10 192 56 56 (6021120)
I0903 17:45:01.387801 10597 net.cpp:156] Memory required for data: 150528000
I0903 17:45:01.387807 10597 layer_factory.hpp:77] Creating layer conv2/norm2
I0903 17:45:01.387817 10597 net.cpp:91] Creating Layer conv2/norm2
I0903 17:45:01.387822 10597 net.cpp:425] conv2/norm2 <- conv2/3x3
I0903 17:45:01.387830 10597 net.cpp:399] conv2/norm2 -> conv2/norm2
I0903 17:45:01.388263 10593 net.cpp:141] Setting up pool2/3x3_s2
I0903 17:45:01.388276 10593 net.cpp:148] Top shape: 10 192 28 28 (1505280)
I0903 17:45:01.388281 10593 net.cpp:156] Memory required for data: 180633600
I0903 17:45:01.388288 10593 layer_factory.hpp:77] Creating layer pool2/3x3_s2_pool2/3x3_s2_0_split
I0903 17:45:01.388308 10593 net.cpp:91] Creating Layer pool2/3x3_s2_pool2/3x3_s2_0_split
I0903 17:45:01.388312 10593 net.cpp:425] pool2/3x3_s2_pool2/3x3_s2_0_split <- pool2/3x3_s2
I0903 17:45:01.388319 10593 net.cpp:399] pool2/3x3_s2_pool2/3x3_s2_0_split -> pool2/3x3_s2_pool2/3x3_s2_0_split_0
I0903 17:45:01.388334 10593 net.cpp:399] pool2/3x3_s2_pool2/3x3_s2_0_split -> pool2/3x3_s2_pool2/3x3_s2_0_split_1
I0903 17:45:01.388344 10593 net.cpp:399] pool2/3x3_s2_pool2/3x3_s2_0_split -> pool2/3x3_s2_pool2/3x3_s2_0_split_2
I0903 17:45:01.388351 10593 net.cpp:399] pool2/3x3_s2_pool2/3x3_s2_0_split -> pool2/3x3_s2_pool2/3x3_s2_0_split_3
I0903 17:45:01.388566 10597 net.cpp:141] Setting up conv2/norm2
I0903 17:45:01.388581 10597 net.cpp:148] Top shape: 10 192 56 56 (6021120)
I0903 17:45:01.388586 10597 net.cpp:156] Memory required for data: 174612480
I0903 17:45:01.388592 10597 layer_factory.hpp:77] Creating layer pool2/3x3_s2
I0903 17:45:01.388604 10597 net.cpp:91] Creating Layer pool2/3x3_s2
I0903 17:45:01.388609 10597 net.cpp:425] pool2/3x3_s2 <- conv2/norm2
I0903 17:45:01.388617 10597 net.cpp:399] pool2/3x3_s2 -> pool2/3x3_s2
I0903 17:45:01.388703 10593 net.cpp:141] Setting up pool2/3x3_s2_pool2/3x3_s2_0_split
I0903 17:45:01.388716 10593 net.cpp:148] Top shape: 10 192 28 28 (1505280)
I0903 17:45:01.388723 10593 net.cpp:148] Top shape: 10 192 28 28 (1505280)
I0903 17:45:01.388730 10593 net.cpp:148] Top shape: 10 192 28 28 (1505280)
I0903 17:45:01.388734 10593 net.cpp:148] Top shape: 10 192 28 28 (1505280)
I0903 17:45:01.388739 10593 net.cpp:156] Memory required for data: 204718080
I0903 17:45:01.388744 10593 layer_factory.hpp:77] Creating layer inception_3a/1x1
I0903 17:45:01.388761 10593 net.cpp:91] Creating Layer inception_3a/1x1
I0903 17:45:01.388767 10593 net.cpp:425] inception_3a/1x1 <- pool2/3x3_s2_pool2/3x3_s2_0_split_0
I0903 17:45:01.388774 10597 net.cpp:141] Setting up pool2/3x3_s2
I0903 17:45:01.388787 10597 net.cpp:148] Top shape: 10 192 28 28 (1505280)
I0903 17:45:01.388792 10597 net.cpp:156] Memory required for data: 180633600
I0903 17:45:01.388798 10597 layer_factory.hpp:77] Creating layer pool2/3x3_s2_pool2/3x3_s2_0_split
I0903 17:45:01.388798 10593 net.cpp:399] inception_3a/1x1 -> inception_3a/1x1
I0903 17:45:01.388810 10597 net.cpp:91] Creating Layer pool2/3x3_s2_pool2/3x3_s2_0_split
I0903 17:45:01.388815 10597 net.cpp:425] pool2/3x3_s2_pool2/3x3_s2_0_split <- pool2/3x3_s2
I0903 17:45:01.388825 10597 net.cpp:399] pool2/3x3_s2_pool2/3x3_s2_0_split -> pool2/3x3_s2_pool2/3x3_s2_0_split_0
I0903 17:45:01.388835 10597 net.cpp:399] pool2/3x3_s2_pool2/3x3_s2_0_split -> pool2/3x3_s2_pool2/3x3_s2_0_split_1
I0903 17:45:01.388844 10597 net.cpp:399] pool2/3x3_s2_pool2/3x3_s2_0_split -> pool2/3x3_s2_pool2/3x3_s2_0_split_2
I0903 17:45:01.388851 10597 net.cpp:399] pool2/3x3_s2_pool2/3x3_s2_0_split -> pool2/3x3_s2_pool2/3x3_s2_0_split_3
I0903 17:45:01.389360 10597 net.cpp:141] Setting up pool2/3x3_s2_pool2/3x3_s2_0_split
I0903 17:45:01.389374 10597 net.cpp:148] Top shape: 10 192 28 28 (1505280)
I0903 17:45:01.389380 10597 net.cpp:148] Top shape: 10 192 28 28 (1505280)
I0903 17:45:01.389386 10597 net.cpp:148] Top shape: 10 192 28 28 (1505280)
I0903 17:45:01.389391 10597 net.cpp:148] Top shape: 10 192 28 28 (1505280)
I0903 17:45:01.389396 10597 net.cpp:156] Memory required for data: 204718080
I0903 17:45:01.389401 10597 layer_factory.hpp:77] Creating layer inception_3a/1x1
I0903 17:45:01.389420 10597 net.cpp:91] Creating Layer inception_3a/1x1
I0903 17:45:01.389426 10597 net.cpp:425] inception_3a/1x1 <- pool2/3x3_s2_pool2/3x3_s2_0_split_0
I0903 17:45:01.389436 10597 net.cpp:399] inception_3a/1x1 -> inception_3a/1x1
I0903 17:45:01.393617 10593 net.cpp:141] Setting up inception_3a/1x1
I0903 17:45:01.393640 10593 net.cpp:148] Top shape: 10 64 28 28 (501760)
I0903 17:45:01.393646 10593 net.cpp:156] Memory required for data: 206725120
I0903 17:45:01.393657 10593 layer_factory.hpp:77] Creating layer inception_3a/relu_1x1
I0903 17:45:01.393672 10593 net.cpp:91] Creating Layer inception_3a/relu_1x1
I0903 17:45:01.393679 10593 net.cpp:425] inception_3a/relu_1x1 <- inception_3a/1x1
I0903 17:45:01.393689 10593 net.cpp:386] inception_3a/relu_1x1 -> inception_3a/1x1 (in-place)
I0903 17:45:01.394244 10593 net.cpp:141] Setting up inception_3a/relu_1x1
I0903 17:45:01.394259 10593 net.cpp:148] Top shape: 10 64 28 28 (501760)
I0903 17:45:01.394264 10593 net.cpp:156] Memory required for data: 208732160
I0903 17:45:01.394270 10593 layer_factory.hpp:77] Creating layer inception_3a/3x3_reduce
I0903 17:45:01.394289 10593 net.cpp:91] Creating Layer inception_3a/3x3_reduce
I0903 17:45:01.394295 10593 net.cpp:425] inception_3a/3x3_reduce <- pool2/3x3_s2_pool2/3x3_s2_0_split_1
I0903 17:45:01.394309 10593 net.cpp:399] inception_3a/3x3_reduce -> inception_3a/3x3_reduce
I0903 17:45:01.394829 10597 net.cpp:141] Setting up inception_3a/1x1
I0903 17:45:01.394851 10597 net.cpp:148] Top shape: 10 64 28 28 (501760)
I0903 17:45:01.394857 10597 net.cpp:156] Memory required for data: 206725120
I0903 17:45:01.394868 10597 layer_factory.hpp:77] Creating layer inception_3a/relu_1x1
I0903 17:45:01.394877 10597 net.cpp:91] Creating Layer inception_3a/relu_1x1
I0903 17:45:01.394882 10597 net.cpp:425] inception_3a/relu_1x1 <- inception_3a/1x1
I0903 17:45:01.394896 10597 net.cpp:386] inception_3a/relu_1x1 -> inception_3a/1x1 (in-place)
I0903 17:45:01.395531 10597 net.cpp:141] Setting up inception_3a/relu_1x1
I0903 17:45:01.395550 10597 net.cpp:148] Top shape: 10 64 28 28 (501760)
I0903 17:45:01.395555 10597 net.cpp:156] Memory required for data: 208732160
I0903 17:45:01.395560 10597 layer_factory.hpp:77] Creating layer inception_3a/3x3_reduce
I0903 17:45:01.395578 10597 net.cpp:91] Creating Layer inception_3a/3x3_reduce
I0903 17:45:01.395584 10597 net.cpp:425] inception_3a/3x3_reduce <- pool2/3x3_s2_pool2/3x3_s2_0_split_1
I0903 17:45:01.395601 10597 net.cpp:399] inception_3a/3x3_reduce -> inception_3a/3x3_reduce
I0903 17:45:01.401023 10593 net.cpp:141] Setting up inception_3a/3x3_reduce
I0903 17:45:01.401060 10593 net.cpp:148] Top shape: 10 96 28 28 (752640)
I0903 17:45:01.401070 10593 net.cpp:156] Memory required for data: 211742720
I0903 17:45:01.401093 10593 layer_factory.hpp:77] Creating layer inception_3a/relu_3x3_reduce
I0903 17:45:01.401108 10593 net.cpp:91] Creating Layer inception_3a/relu_3x3_reduce
I0903 17:45:01.401114 10593 net.cpp:425] inception_3a/relu_3x3_reduce <- inception_3a/3x3_reduce
I0903 17:45:01.401124 10593 net.cpp:386] inception_3a/relu_3x3_reduce -> inception_3a/3x3_reduce (in-place)
I0903 17:45:01.401532 10593 net.cpp:141] Setting up inception_3a/relu_3x3_reduce
I0903 17:45:01.401547 10593 net.cpp:148] Top shape: 10 96 28 28 (752640)
I0903 17:45:01.401552 10593 net.cpp:156] Memory required for data: 214753280
I0903 17:45:01.401558 10593 layer_factory.hpp:77] Creating layer inception_3a/3x3
I0903 17:45:01.401587 10593 net.cpp:91] Creating Layer inception_3a/3x3
I0903 17:45:01.401592 10593 net.cpp:425] inception_3a/3x3 <- inception_3a/3x3_reduce
I0903 17:45:01.401605 10593 net.cpp:399] inception_3a/3x3 -> inception_3a/3x3
I0903 17:45:01.401762 10597 net.cpp:141] Setting up inception_3a/3x3_reduce
I0903 17:45:01.401779 10597 net.cpp:148] Top shape: 10 96 28 28 (752640)
I0903 17:45:01.401785 10597 net.cpp:156] Memory required for data: 211742720
I0903 17:45:01.401814 10597 layer_factory.hpp:77] Creating layer inception_3a/relu_3x3_reduce
I0903 17:45:01.401825 10597 net.cpp:91] Creating Layer inception_3a/relu_3x3_reduce
I0903 17:45:01.401831 10597 net.cpp:425] inception_3a/relu_3x3_reduce <- inception_3a/3x3_reduce
I0903 17:45:01.401841 10597 net.cpp:386] inception_3a/relu_3x3_reduce -> inception_3a/3x3_reduce (in-place)
I0903 17:45:01.402338 10597 net.cpp:141] Setting up inception_3a/relu_3x3_reduce
I0903 17:45:01.402351 10597 net.cpp:148] Top shape: 10 96 28 28 (752640)
I0903 17:45:01.402356 10597 net.cpp:156] Memory required for data: 214753280
I0903 17:45:01.402362 10597 layer_factory.hpp:77] Creating layer inception_3a/3x3
I0903 17:45:01.402384 10597 net.cpp:91] Creating Layer inception_3a/3x3
I0903 17:45:01.402390 10597 net.cpp:425] inception_3a/3x3 <- inception_3a/3x3_reduce
I0903 17:45:01.402400 10597 net.cpp:399] inception_3a/3x3 -> inception_3a/3x3
I0903 17:45:01.406075 10593 net.cpp:141] Setting up inception_3a/3x3
I0903 17:45:01.406111 10593 net.cpp:148] Top shape: 10 128 28 28 (1003520)
I0903 17:45:01.406117 10593 net.cpp:156] Memory required for data: 218767360
I0903 17:45:01.406131 10593 layer_factory.hpp:77] Creating layer inception_3a/relu_3x3
I0903 17:45:01.406144 10593 net.cpp:91] Creating Layer inception_3a/relu_3x3
I0903 17:45:01.406155 10593 net.cpp:425] inception_3a/relu_3x3 <- inception_3a/3x3
I0903 17:45:01.406163 10593 net.cpp:386] inception_3a/relu_3x3 -> inception_3a/3x3 (in-place)
I0903 17:45:01.406977 10593 net.cpp:141] Setting up inception_3a/relu_3x3
I0903 17:45:01.406996 10593 net.cpp:148] Top shape: 10 128 28 28 (1003520)
I0903 17:45:01.407001 10593 net.cpp:156] Memory required for data: 222781440
I0903 17:45:01.407006 10593 layer_factory.hpp:77] Creating layer inception_3a/5x5_reduce
I0903 17:45:01.407028 10593 net.cpp:91] Creating Layer inception_3a/5x5_reduce
I0903 17:45:01.407035 10593 net.cpp:425] inception_3a/5x5_reduce <- pool2/3x3_s2_pool2/3x3_s2_0_split_2
I0903 17:45:01.407050 10593 net.cpp:399] inception_3a/5x5_reduce -> inception_3a/5x5_reduce
I0903 17:45:01.407439 10597 net.cpp:141] Setting up inception_3a/3x3
I0903 17:45:01.407464 10597 net.cpp:148] Top shape: 10 128 28 28 (1003520)
I0903 17:45:01.407475 10597 net.cpp:156] Memory required for data: 218767360
I0903 17:45:01.407496 10597 layer_factory.hpp:77] Creating layer inception_3a/relu_3x3
I0903 17:45:01.407521 10597 net.cpp:91] Creating Layer inception_3a/relu_3x3
I0903 17:45:01.407536 10597 net.cpp:425] inception_3a/relu_3x3 <- inception_3a/3x3
I0903 17:45:01.407548 10597 net.cpp:386] inception_3a/relu_3x3 -> inception_3a/3x3 (in-place)
I0903 17:45:01.408504 10597 net.cpp:141] Setting up inception_3a/relu_3x3
I0903 17:45:01.408534 10597 net.cpp:148] Top shape: 10 128 28 28 (1003520)
I0903 17:45:01.408543 10597 net.cpp:156] Memory required for data: 222781440
I0903 17:45:01.408553 10597 layer_factory.hpp:77] Creating layer inception_3a/5x5_reduce
I0903 17:45:01.408592 10597 net.cpp:91] Creating Layer inception_3a/5x5_reduce
I0903 17:45:01.408606 10597 net.cpp:425] inception_3a/5x5_reduce <- pool2/3x3_s2_pool2/3x3_s2_0_split_2
I0903 17:45:01.408623 10597 net.cpp:399] inception_3a/5x5_reduce -> inception_3a/5x5_reduce
I0903 17:45:01.411090 10593 net.cpp:141] Setting up inception_3a/5x5_reduce
I0903 17:45:01.411114 10593 net.cpp:148] Top shape: 10 16 28 28 (125440)
I0903 17:45:01.411120 10593 net.cpp:156] Memory required for data: 223283200
I0903 17:45:01.411131 10593 layer_factory.hpp:77] Creating layer inception_3a/relu_5x5_reduce
I0903 17:45:01.411149 10593 net.cpp:91] Creating Layer inception_3a/relu_5x5_reduce
I0903 17:45:01.411155 10593 net.cpp:425] inception_3a/relu_5x5_reduce <- inception_3a/5x5_reduce
I0903 17:45:01.411166 10593 net.cpp:386] inception_3a/relu_5x5_reduce -> inception_3a/5x5_reduce (in-place)
I0903 17:45:01.412062 10593 net.cpp:141] Setting up inception_3a/relu_5x5_reduce
I0903 17:45:01.412092 10593 net.cpp:148] Top shape: 10 16 28 28 (125440)
I0903 17:45:01.412098 10593 net.cpp:156] Memory required for data: 223784960
I0903 17:45:01.412104 10593 layer_factory.hpp:77] Creating layer inception_3a/5x5
I0903 17:45:01.412123 10593 net.cpp:91] Creating Layer inception_3a/5x5
I0903 17:45:01.412130 10593 net.cpp:425] inception_3a/5x5 <- inception_3a/5x5_reduce
I0903 17:45:01.412144 10593 net.cpp:399] inception_3a/5x5 -> inception_3a/5x5
I0903 17:45:01.413056 10597 net.cpp:141] Setting up inception_3a/5x5_reduce
I0903 17:45:01.413077 10597 net.cpp:148] Top shape: 10 16 28 28 (125440)
I0903 17:45:01.413084 10597 net.cpp:156] Memory required for data: 223283200
I0903 17:45:01.413094 10597 layer_factory.hpp:77] Creating layer inception_3a/relu_5x5_reduce
I0903 17:45:01.413103 10597 net.cpp:91] Creating Layer inception_3a/relu_5x5_reduce
I0903 17:45:01.413110 10597 net.cpp:425] inception_3a/relu_5x5_reduce <- inception_3a/5x5_reduce
I0903 17:45:01.413123 10597 net.cpp:386] inception_3a/relu_5x5_reduce -> inception_3a/5x5_reduce (in-place)
I0903 17:45:01.413709 10597 net.cpp:141] Setting up inception_3a/relu_5x5_reduce
I0903 17:45:01.413727 10597 net.cpp:148] Top shape: 10 16 28 28 (125440)
I0903 17:45:01.413733 10597 net.cpp:156] Memory required for data: 223784960
I0903 17:45:01.413738 10597 layer_factory.hpp:77] Creating layer inception_3a/5x5
I0903 17:45:01.413766 10597 net.cpp:91] Creating Layer inception_3a/5x5
I0903 17:45:01.413774 10597 net.cpp:425] inception_3a/5x5 <- inception_3a/5x5_reduce
I0903 17:45:01.413785 10597 net.cpp:399] inception_3a/5x5 -> inception_3a/5x5
I0903 17:45:01.416872 10593 net.cpp:141] Setting up inception_3a/5x5
I0903 17:45:01.416894 10593 net.cpp:148] Top shape: 10 32 28 28 (250880)
I0903 17:45:01.416900 10593 net.cpp:156] Memory required for data: 224788480
I0903 17:45:01.416910 10593 layer_factory.hpp:77] Creating layer inception_3a/relu_5x5
I0903 17:45:01.416925 10593 net.cpp:91] Creating Layer inception_3a/relu_5x5
I0903 17:45:01.416932 10593 net.cpp:425] inception_3a/relu_5x5 <- inception_3a/5x5
I0903 17:45:01.416939 10593 net.cpp:386] inception_3a/relu_5x5 -> inception_3a/5x5 (in-place)
I0903 17:45:01.417253 10593 net.cpp:141] Setting up inception_3a/relu_5x5
I0903 17:45:01.417268 10593 net.cpp:148] Top shape: 10 32 28 28 (250880)
I0903 17:45:01.417273 10593 net.cpp:156] Memory required for data: 225792000
I0903 17:45:01.417278 10593 layer_factory.hpp:77] Creating layer inception_3a/pool
I0903 17:45:01.417290 10593 net.cpp:91] Creating Layer inception_3a/pool
I0903 17:45:01.417295 10593 net.cpp:425] inception_3a/pool <- pool2/3x3_s2_pool2/3x3_s2_0_split_3
I0903 17:45:01.417309 10593 net.cpp:399] inception_3a/pool -> inception_3a/pool
I0903 17:45:01.417688 10593 net.cpp:141] Setting up inception_3a/pool
I0903 17:45:01.417701 10593 net.cpp:148] Top shape: 10 192 28 28 (1505280)
I0903 17:45:01.417706 10593 net.cpp:156] Memory required for data: 231813120
I0903 17:45:01.417711 10593 layer_factory.hpp:77] Creating layer inception_3a/pool_proj
I0903 17:45:01.417729 10593 net.cpp:91] Creating Layer inception_3a/pool_proj
I0903 17:45:01.417737 10593 net.cpp:425] inception_3a/pool_proj <- inception_3a/pool
I0903 17:45:01.417747 10593 net.cpp:399] inception_3a/pool_proj -> inception_3a/pool_proj
I0903 17:45:01.418920 10597 net.cpp:141] Setting up inception_3a/5x5
I0903 17:45:01.418942 10597 net.cpp:148] Top shape: 10 32 28 28 (250880)
I0903 17:45:01.418948 10597 net.cpp:156] Memory required for data: 224788480
I0903 17:45:01.418958 10597 layer_factory.hpp:77] Creating layer inception_3a/relu_5x5
I0903 17:45:01.418967 10597 net.cpp:91] Creating Layer inception_3a/relu_5x5
I0903 17:45:01.418973 10597 net.cpp:425] inception_3a/relu_5x5 <- inception_3a/5x5
I0903 17:45:01.418987 10597 net.cpp:386] inception_3a/relu_5x5 -> inception_3a/5x5 (in-place)
I0903 17:45:01.419420 10597 net.cpp:141] Setting up inception_3a/relu_5x5
I0903 17:45:01.419445 10597 net.cpp:148] Top shape: 10 32 28 28 (250880)
I0903 17:45:01.419450 10597 net.cpp:156] Memory required for data: 225792000
I0903 17:45:01.419456 10597 layer_factory.hpp:77] Creating layer inception_3a/pool
I0903 17:45:01.419468 10597 net.cpp:91] Creating Layer inception_3a/pool
I0903 17:45:01.419474 10597 net.cpp:425] inception_3a/pool <- pool2/3x3_s2_pool2/3x3_s2_0_split_3
I0903 17:45:01.419483 10597 net.cpp:399] inception_3a/pool -> inception_3a/pool
I0903 17:45:01.419924 10597 net.cpp:141] Setting up inception_3a/pool
I0903 17:45:01.419939 10597 net.cpp:148] Top shape: 10 192 28 28 (1505280)
I0903 17:45:01.419944 10597 net.cpp:156] Memory required for data: 231813120
I0903 17:45:01.419948 10597 layer_factory.hpp:77] Creating layer inception_3a/pool_proj
I0903 17:45:01.419963 10597 net.cpp:91] Creating Layer inception_3a/pool_proj
I0903 17:45:01.419970 10597 net.cpp:425] inception_3a/pool_proj <- inception_3a/pool
I0903 17:45:01.419982 10597 net.cpp:399] inception_3a/pool_proj -> inception_3a/pool_proj
I0903 17:45:01.421831 10593 net.cpp:141] Setting up inception_3a/pool_proj
I0903 17:45:01.421852 10593 net.cpp:148] Top shape: 10 32 28 28 (250880)
I0903 17:45:01.421859 10593 net.cpp:156] Memory required for data: 232816640
I0903 17:45:01.421875 10593 layer_factory.hpp:77] Creating layer inception_3a/relu_pool_proj
I0903 17:45:01.421885 10593 net.cpp:91] Creating Layer inception_3a/relu_pool_proj
I0903 17:45:01.421891 10593 net.cpp:425] inception_3a/relu_pool_proj <- inception_3a/pool_proj
I0903 17:45:01.421903 10593 net.cpp:386] inception_3a/relu_pool_proj -> inception_3a/pool_proj (in-place)
I0903 17:45:01.422574 10593 net.cpp:141] Setting up inception_3a/relu_pool_proj
I0903 17:45:01.422591 10593 net.cpp:148] Top shape: 10 32 28 28 (250880)
I0903 17:45:01.422596 10593 net.cpp:156] Memory required for data: 233820160
I0903 17:45:01.422602 10593 layer_factory.hpp:77] Creating layer inception_3a/output
I0903 17:45:01.422629 10593 net.cpp:91] Creating Layer inception_3a/output
I0903 17:45:01.422637 10593 net.cpp:425] inception_3a/output <- inception_3a/1x1
I0903 17:45:01.422644 10593 net.cpp:425] inception_3a/output <- inception_3a/3x3
I0903 17:45:01.422651 10593 net.cpp:425] inception_3a/output <- inception_3a/5x5
I0903 17:45:01.422655 10593 net.cpp:425] inception_3a/output <- inception_3a/pool_proj
I0903 17:45:01.422662 10593 net.cpp:399] inception_3a/output -> inception_3a/output
I0903 17:45:01.422796 10593 net.cpp:141] Setting up inception_3a/output
I0903 17:45:01.422808 10593 net.cpp:148] Top shape: 10 256 28 28 (2007040)
I0903 17:45:01.422813 10593 net.cpp:156] Memory required for data: 241848320
I0903 17:45:01.422818 10593 layer_factory.hpp:77] Creating layer inception_3a/output_inception_3a/output_0_split
I0903 17:45:01.422833 10593 net.cpp:91] Creating Layer inception_3a/output_inception_3a/output_0_split
I0903 17:45:01.422839 10593 net.cpp:425] inception_3a/output_inception_3a/output_0_split <- inception_3a/output
I0903 17:45:01.422847 10593 net.cpp:399] inception_3a/output_inception_3a/output_0_split -> inception_3a/output_inception_3a/output_0_split_0
I0903 17:45:01.422858 10593 net.cpp:399] inception_3a/output_inception_3a/output_0_split -> inception_3a/output_inception_3a/output_0_split_1
I0903 17:45:01.422868 10593 net.cpp:399] inception_3a/output_inception_3a/output_0_split -> inception_3a/output_inception_3a/output_0_split_2
I0903 17:45:01.422876 10593 net.cpp:399] inception_3a/output_inception_3a/output_0_split -> inception_3a/output_inception_3a/output_0_split_3
I0903 17:45:01.423388 10593 net.cpp:141] Setting up inception_3a/output_inception_3a/output_0_split
I0903 17:45:01.423403 10593 net.cpp:148] Top shape: 10 256 28 28 (2007040)
I0903 17:45:01.423408 10593 net.cpp:148] Top shape: 10 256 28 28 (2007040)
I0903 17:45:01.423414 10593 net.cpp:148] Top shape: 10 256 28 28 (2007040)
I0903 17:45:01.423420 10593 net.cpp:148] Top shape: 10 256 28 28 (2007040)
I0903 17:45:01.423424 10593 net.cpp:156] Memory required for data: 273960960
I0903 17:45:01.423429 10593 layer_factory.hpp:77] Creating layer inception_3b/1x1
I0903 17:45:01.423449 10593 net.cpp:91] Creating Layer inception_3b/1x1
I0903 17:45:01.423454 10593 net.cpp:425] inception_3b/1x1 <- inception_3a/output_inception_3a/output_0_split_0
I0903 17:45:01.423466 10593 net.cpp:399] inception_3b/1x1 -> inception_3b/1x1
I0903 17:45:01.424144 10597 net.cpp:141] Setting up inception_3a/pool_proj
I0903 17:45:01.424162 10597 net.cpp:148] Top shape: 10 32 28 28 (250880)
I0903 17:45:01.424168 10597 net.cpp:156] Memory required for data: 232816640
I0903 17:45:01.424188 10597 layer_factory.hpp:77] Creating layer inception_3a/relu_pool_proj
I0903 17:45:01.424197 10597 net.cpp:91] Creating Layer inception_3a/relu_pool_proj
I0903 17:45:01.424203 10597 net.cpp:425] inception_3a/relu_pool_proj <- inception_3a/pool_proj
I0903 17:45:01.424211 10597 net.cpp:386] inception_3a/relu_pool_proj -> inception_3a/pool_proj (in-place)
I0903 17:45:01.424830 10597 net.cpp:141] Setting up inception_3a/relu_pool_proj
I0903 17:45:01.424852 10597 net.cpp:148] Top shape: 10 32 28 28 (250880)
I0903 17:45:01.424857 10597 net.cpp:156] Memory required for data: 233820160
I0903 17:45:01.424863 10597 layer_factory.hpp:77] Creating layer inception_3a/output
I0903 17:45:01.424873 10597 net.cpp:91] Creating Layer inception_3a/output
I0903 17:45:01.424878 10597 net.cpp:425] inception_3a/output <- inception_3a/1x1
I0903 17:45:01.424885 10597 net.cpp:425] inception_3a/output <- inception_3a/3x3
I0903 17:45:01.424891 10597 net.cpp:425] inception_3a/output <- inception_3a/5x5
I0903 17:45:01.424896 10597 net.cpp:425] inception_3a/output <- inception_3a/pool_proj
I0903 17:45:01.424903 10597 net.cpp:399] inception_3a/output -> inception_3a/output
I0903 17:45:01.424984 10597 net.cpp:141] Setting up inception_3a/output
I0903 17:45:01.424995 10597 net.cpp:148] Top shape: 10 256 28 28 (2007040)
I0903 17:45:01.424999 10597 net.cpp:156] Memory required for data: 241848320
I0903 17:45:01.425004 10597 layer_factory.hpp:77] Creating layer inception_3a/output_inception_3a/output_0_split
I0903 17:45:01.425014 10597 net.cpp:91] Creating Layer inception_3a/output_inception_3a/output_0_split
I0903 17:45:01.425019 10597 net.cpp:425] inception_3a/output_inception_3a/output_0_split <- inception_3a/output
I0903 17:45:01.425025 10597 net.cpp:399] inception_3a/output_inception_3a/output_0_split -> inception_3a/output_inception_3a/output_0_split_0
I0903 17:45:01.425038 10597 net.cpp:399] inception_3a/output_inception_3a/output_0_split -> inception_3a/output_inception_3a/output_0_split_1
I0903 17:45:01.425048 10597 net.cpp:399] inception_3a/output_inception_3a/output_0_split -> inception_3a/output_inception_3a/output_0_split_2
I0903 17:45:01.425057 10597 net.cpp:399] inception_3a/output_inception_3a/output_0_split -> inception_3a/output_inception_3a/output_0_split_3
I0903 17:45:01.425456 10597 net.cpp:141] Setting up inception_3a/output_inception_3a/output_0_split
I0903 17:45:01.425467 10597 net.cpp:148] Top shape: 10 256 28 28 (2007040)
I0903 17:45:01.425474 10597 net.cpp:148] Top shape: 10 256 28 28 (2007040)
I0903 17:45:01.425480 10597 net.cpp:148] Top shape: 10 256 28 28 (2007040)
I0903 17:45:01.425485 10597 net.cpp:148] Top shape: 10 256 28 28 (2007040)
I0903 17:45:01.425490 10597 net.cpp:156] Memory required for data: 273960960
I0903 17:45:01.425495 10597 layer_factory.hpp:77] Creating layer inception_3b/1x1
I0903 17:45:01.425510 10597 net.cpp:91] Creating Layer inception_3b/1x1
I0903 17:45:01.425516 10597 net.cpp:425] inception_3b/1x1 <- inception_3a/output_inception_3a/output_0_split_0
I0903 17:45:01.425529 10597 net.cpp:399] inception_3b/1x1 -> inception_3b/1x1
I0903 17:45:01.427323 10593 net.cpp:141] Setting up inception_3b/1x1
I0903 17:45:01.427345 10593 net.cpp:148] Top shape: 10 128 28 28 (1003520)
I0903 17:45:01.427351 10593 net.cpp:156] Memory required for data: 277975040
I0903 17:45:01.427361 10593 layer_factory.hpp:77] Creating layer inception_3b/relu_1x1
I0903 17:45:01.427377 10593 net.cpp:91] Creating Layer inception_3b/relu_1x1
I0903 17:45:01.427384 10593 net.cpp:425] inception_3b/relu_1x1 <- inception_3b/1x1
I0903 17:45:01.427394 10593 net.cpp:386] inception_3b/relu_1x1 -> inception_3b/1x1 (in-place)
I0903 17:45:01.427974 10593 net.cpp:141] Setting up inception_3b/relu_1x1
I0903 17:45:01.427992 10593 net.cpp:148] Top shape: 10 128 28 28 (1003520)
I0903 17:45:01.427999 10593 net.cpp:156] Memory required for data: 281989120
I0903 17:45:01.428004 10593 layer_factory.hpp:77] Creating layer inception_3b/3x3_reduce
I0903 17:45:01.428021 10593 net.cpp:91] Creating Layer inception_3b/3x3_reduce
I0903 17:45:01.428027 10593 net.cpp:425] inception_3b/3x3_reduce <- inception_3a/output_inception_3a/output_0_split_1
I0903 17:45:01.428038 10593 net.cpp:399] inception_3b/3x3_reduce -> inception_3b/3x3_reduce
I0903 17:45:01.429327 10597 net.cpp:141] Setting up inception_3b/1x1
I0903 17:45:01.429349 10597 net.cpp:148] Top shape: 10 128 28 28 (1003520)
I0903 17:45:01.429355 10597 net.cpp:156] Memory required for data: 277975040
I0903 17:45:01.429365 10597 layer_factory.hpp:77] Creating layer inception_3b/relu_1x1
I0903 17:45:01.429374 10597 net.cpp:91] Creating Layer inception_3b/relu_1x1
I0903 17:45:01.429380 10597 net.cpp:425] inception_3b/relu_1x1 <- inception_3b/1x1
I0903 17:45:01.429392 10597 net.cpp:386] inception_3b/relu_1x1 -> inception_3b/1x1 (in-place)
I0903 17:45:01.429970 10597 net.cpp:141] Setting up inception_3b/relu_1x1
I0903 17:45:01.429987 10597 net.cpp:148] Top shape: 10 128 28 28 (1003520)
I0903 17:45:01.429993 10597 net.cpp:156] Memory required for data: 281989120
I0903 17:45:01.429998 10597 layer_factory.hpp:77] Creating layer inception_3b/3x3_reduce
I0903 17:45:01.430019 10597 net.cpp:91] Creating Layer inception_3b/3x3_reduce
I0903 17:45:01.430025 10597 net.cpp:425] inception_3b/3x3_reduce <- inception_3a/output_inception_3a/output_0_split_1
I0903 17:45:01.430037 10597 net.cpp:399] inception_3b/3x3_reduce -> inception_3b/3x3_reduce
I0903 17:45:01.432059 10593 net.cpp:141] Setting up inception_3b/3x3_reduce
I0903 17:45:01.432088 10593 net.cpp:148] Top shape: 10 128 28 28 (1003520)
I0903 17:45:01.432095 10593 net.cpp:156] Memory required for data: 286003200
I0903 17:45:01.432104 10593 layer_factory.hpp:77] Creating layer inception_3b/relu_3x3_reduce
I0903 17:45:01.432122 10593 net.cpp:91] Creating Layer inception_3b/relu_3x3_reduce
I0903 17:45:01.432134 10593 net.cpp:425] inception_3b/relu_3x3_reduce <- inception_3b/3x3_reduce
I0903 17:45:01.432148 10593 net.cpp:386] inception_3b/relu_3x3_reduce -> inception_3b/3x3_reduce (in-place)
I0903 17:45:01.432543 10593 net.cpp:141] Setting up inception_3b/relu_3x3_reduce
I0903 17:45:01.432556 10593 net.cpp:148] Top shape: 10 128 28 28 (1003520)
I0903 17:45:01.432562 10593 net.cpp:156] Memory required for data: 290017280
I0903 17:45:01.432567 10593 layer_factory.hpp:77] Creating layer inception_3b/3x3
I0903 17:45:01.432590 10593 net.cpp:91] Creating Layer inception_3b/3x3
I0903 17:45:01.432597 10593 net.cpp:425] inception_3b/3x3 <- inception_3b/3x3_reduce
I0903 17:45:01.432608 10593 net.cpp:399] inception_3b/3x3 -> inception_3b/3x3
I0903 17:45:01.435356 10597 net.cpp:141] Setting up inception_3b/3x3_reduce
I0903 17:45:01.435380 10597 net.cpp:148] Top shape: 10 128 28 28 (1003520)
I0903 17:45:01.435386 10597 net.cpp:156] Memory required for data: 286003200
I0903 17:45:01.435396 10597 layer_factory.hpp:77] Creating layer inception_3b/relu_3x3_reduce
I0903 17:45:01.435406 10597 net.cpp:91] Creating Layer inception_3b/relu_3x3_reduce
I0903 17:45:01.435412 10597 net.cpp:425] inception_3b/relu_3x3_reduce <- inception_3b/3x3_reduce
I0903 17:45:01.435420 10597 net.cpp:386] inception_3b/relu_3x3_reduce -> inception_3b/3x3_reduce (in-place)
I0903 17:45:01.435689 10597 net.cpp:141] Setting up inception_3b/relu_3x3_reduce
I0903 17:45:01.435703 10597 net.cpp:148] Top shape: 10 128 28 28 (1003520)
I0903 17:45:01.435708 10597 net.cpp:156] Memory required for data: 290017280
I0903 17:45:01.435712 10597 layer_factory.hpp:77] Creating layer inception_3b/3x3
I0903 17:45:01.435729 10597 net.cpp:91] Creating Layer inception_3b/3x3
I0903 17:45:01.435734 10597 net.cpp:425] inception_3b/3x3 <- inception_3b/3x3_reduce
I0903 17:45:01.435748 10597 net.cpp:399] inception_3b/3x3 -> inception_3b/3x3
I0903 17:45:01.438885 10593 net.cpp:141] Setting up inception_3b/3x3
I0903 17:45:01.438908 10593 net.cpp:148] Top shape: 10 192 28 28 (1505280)
I0903 17:45:01.438915 10593 net.cpp:156] Memory required for data: 296038400
I0903 17:45:01.438925 10593 layer_factory.hpp:77] Creating layer inception_3b/relu_3x3
I0903 17:45:01.438943 10593 net.cpp:91] Creating Layer inception_3b/relu_3x3
I0903 17:45:01.438949 10593 net.cpp:425] inception_3b/relu_3x3 <- inception_3b/3x3
I0903 17:45:01.438957 10593 net.cpp:386] inception_3b/relu_3x3 -> inception_3b/3x3 (in-place)
I0903 17:45:01.439589 10593 net.cpp:141] Setting up inception_3b/relu_3x3
I0903 17:45:01.439606 10593 net.cpp:148] Top shape: 10 192 28 28 (1505280)
I0903 17:45:01.439612 10593 net.cpp:156] Memory required for data: 302059520
I0903 17:45:01.439618 10593 layer_factory.hpp:77] Creating layer inception_3b/5x5_reduce
I0903 17:45:01.439638 10593 net.cpp:91] Creating Layer inception_3b/5x5_reduce
I0903 17:45:01.439649 10593 net.cpp:425] inception_3b/5x5_reduce <- inception_3a/output_inception_3a/output_0_split_2
I0903 17:45:01.439671 10593 net.cpp:399] inception_3b/5x5_reduce -> inception_3b/5x5_reduce
I0903 17:45:01.442088 10597 net.cpp:141] Setting up inception_3b/3x3
I0903 17:45:01.442111 10597 net.cpp:148] Top shape: 10 192 28 28 (1505280)
I0903 17:45:01.442117 10597 net.cpp:156] Memory required for data: 296038400
I0903 17:45:01.442128 10597 layer_factory.hpp:77] Creating layer inception_3b/relu_3x3
I0903 17:45:01.442148 10597 net.cpp:91] Creating Layer inception_3b/relu_3x3
I0903 17:45:01.442158 10597 net.cpp:425] inception_3b/relu_3x3 <- inception_3b/3x3
I0903 17:45:01.442167 10597 net.cpp:386] inception_3b/relu_3x3 -> inception_3b/3x3 (in-place)
I0903 17:45:01.442785 10597 net.cpp:141] Setting up inception_3b/relu_3x3
I0903 17:45:01.442802 10597 net.cpp:148] Top shape: 10 192 28 28 (1505280)
I0903 17:45:01.442808 10597 net.cpp:156] Memory required for data: 302059520
I0903 17:45:01.442813 10597 layer_factory.hpp:77] Creating layer inception_3b/5x5_reduce
I0903 17:45:01.442831 10597 net.cpp:91] Creating Layer inception_3b/5x5_reduce
I0903 17:45:01.442837 10597 net.cpp:425] inception_3b/5x5_reduce <- inception_3a/output_inception_3a/output_0_split_2
I0903 17:45:01.442852 10597 net.cpp:399] inception_3b/5x5_reduce -> inception_3b/5x5_reduce
I0903 17:45:01.443987 10593 net.cpp:141] Setting up inception_3b/5x5_reduce
I0903 17:45:01.444011 10593 net.cpp:148] Top shape: 10 32 28 28 (250880)
I0903 17:45:01.444017 10593 net.cpp:156] Memory required for data: 303063040
I0903 17:45:01.444028 10593 layer_factory.hpp:77] Creating layer inception_3b/relu_5x5_reduce
I0903 17:45:01.444039 10593 net.cpp:91] Creating Layer inception_3b/relu_5x5_reduce
I0903 17:45:01.444049 10593 net.cpp:425] inception_3b/relu_5x5_reduce <- inception_3b/5x5_reduce
I0903 17:45:01.444057 10593 net.cpp:386] inception_3b/relu_5x5_reduce -> inception_3b/5x5_reduce (in-place)
I0903 17:45:01.444680 10593 net.cpp:141] Setting up inception_3b/relu_5x5_reduce
I0903 17:45:01.444699 10593 net.cpp:148] Top shape: 10 32 28 28 (250880)
I0903 17:45:01.444703 10593 net.cpp:156] Memory required for data: 304066560
I0903 17:45:01.444710 10593 layer_factory.hpp:77] Creating layer inception_3b/5x5
I0903 17:45:01.444730 10593 net.cpp:91] Creating Layer inception_3b/5x5
I0903 17:45:01.444736 10593 net.cpp:425] inception_3b/5x5 <- inception_3b/5x5_reduce
I0903 17:45:01.444751 10593 net.cpp:399] inception_3b/5x5 -> inception_3b/5x5
I0903 17:45:01.447501 10597 net.cpp:141] Setting up inception_3b/5x5_reduce
I0903 17:45:01.447527 10597 net.cpp:148] Top shape: 10 32 28 28 (250880)
I0903 17:45:01.447533 10597 net.cpp:156] Memory required for data: 303063040
I0903 17:45:01.447545 10597 layer_factory.hpp:77] Creating layer inception_3b/relu_5x5_reduce
I0903 17:45:01.447559 10597 net.cpp:91] Creating Layer inception_3b/relu_5x5_reduce
I0903 17:45:01.447566 10597 net.cpp:425] inception_3b/relu_5x5_reduce <- inception_3b/5x5_reduce
I0903 17:45:01.447576 10597 net.cpp:386] inception_3b/relu_5x5_reduce -> inception_3b/5x5_reduce (in-place)
I0903 17:45:01.448204 10597 net.cpp:141] Setting up inception_3b/relu_5x5_reduce
I0903 17:45:01.448221 10597 net.cpp:148] Top shape: 10 32 28 28 (250880)
I0903 17:45:01.448227 10597 net.cpp:156] Memory required for data: 304066560
I0903 17:45:01.448232 10597 layer_factory.hpp:77] Creating layer inception_3b/5x5
I0903 17:45:01.448254 10597 net.cpp:91] Creating Layer inception_3b/5x5
I0903 17:45:01.448261 10597 net.cpp:425] inception_3b/5x5 <- inception_3b/5x5_reduce
I0903 17:45:01.448271 10597 net.cpp:399] inception_3b/5x5 -> inception_3b/5x5
I0903 17:45:01.451040 10593 net.cpp:141] Setting up inception_3b/5x5
I0903 17:45:01.451067 10593 net.cpp:148] Top shape: 10 96 28 28 (752640)
I0903 17:45:01.451073 10593 net.cpp:156] Memory required for data: 307077120
I0903 17:45:01.451086 10593 layer_factory.hpp:77] Creating layer inception_3b/relu_5x5
I0903 17:45:01.451097 10593 net.cpp:91] Creating Layer inception_3b/relu_5x5
I0903 17:45:01.451104 10593 net.cpp:425] inception_3b/relu_5x5 <- inception_3b/5x5
I0903 17:45:01.451115 10593 net.cpp:386] inception_3b/relu_5x5 -> inception_3b/5x5 (in-place)
I0903 17:45:01.451552 10593 net.cpp:141] Setting up inception_3b/relu_5x5
I0903 17:45:01.451566 10593 net.cpp:148] Top shape: 10 96 28 28 (752640)
I0903 17:45:01.451571 10593 net.cpp:156] Memory required for data: 310087680
I0903 17:45:01.451577 10593 layer_factory.hpp:77] Creating layer inception_3b/pool
I0903 17:45:01.451594 10593 net.cpp:91] Creating Layer inception_3b/pool
I0903 17:45:01.451601 10593 net.cpp:425] inception_3b/pool <- inception_3a/output_inception_3a/output_0_split_3
I0903 17:45:01.451611 10593 net.cpp:399] inception_3b/pool -> inception_3b/pool
I0903 17:45:01.451990 10593 net.cpp:141] Setting up inception_3b/pool
I0903 17:45:01.452015 10593 net.cpp:148] Top shape: 10 256 28 28 (2007040)
I0903 17:45:01.452023 10593 net.cpp:156] Memory required for data: 318115840
I0903 17:45:01.452028 10593 layer_factory.hpp:77] Creating layer inception_3b/pool_proj
I0903 17:45:01.452049 10593 net.cpp:91] Creating Layer inception_3b/pool_proj
I0903 17:45:01.452054 10593 net.cpp:425] inception_3b/pool_proj <- inception_3b/pool
I0903 17:45:01.452066 10593 net.cpp:399] inception_3b/pool_proj -> inception_3b/pool_proj
I0903 17:45:01.453728 10597 net.cpp:141] Setting up inception_3b/5x5
I0903 17:45:01.453749 10597 net.cpp:148] Top shape: 10 96 28 28 (752640)
I0903 17:45:01.453755 10597 net.cpp:156] Memory required for data: 307077120
I0903 17:45:01.453766 10597 layer_factory.hpp:77] Creating layer inception_3b/relu_5x5
I0903 17:45:01.453775 10597 net.cpp:91] Creating Layer inception_3b/relu_5x5
I0903 17:45:01.453781 10597 net.cpp:425] inception_3b/relu_5x5 <- inception_3b/5x5
I0903 17:45:01.453796 10597 net.cpp:386] inception_3b/relu_5x5 -> inception_3b/5x5 (in-place)
I0903 17:45:01.454255 10597 net.cpp:141] Setting up inception_3b/relu_5x5
I0903 17:45:01.454269 10597 net.cpp:148] Top shape: 10 96 28 28 (752640)
I0903 17:45:01.454274 10597 net.cpp:156] Memory required for data: 310087680
I0903 17:45:01.454280 10597 layer_factory.hpp:77] Creating layer inception_3b/pool
I0903 17:45:01.454291 10597 net.cpp:91] Creating Layer inception_3b/pool
I0903 17:45:01.454298 10597 net.cpp:425] inception_3b/pool <- inception_3a/output_inception_3a/output_0_split_3
I0903 17:45:01.454305 10597 net.cpp:399] inception_3b/pool -> inception_3b/pool
I0903 17:45:01.454881 10597 net.cpp:141] Setting up inception_3b/pool
I0903 17:45:01.454900 10597 net.cpp:148] Top shape: 10 256 28 28 (2007040)
I0903 17:45:01.454905 10597 net.cpp:156] Memory required for data: 318115840
I0903 17:45:01.454910 10597 layer_factory.hpp:77] Creating layer inception_3b/pool_proj
I0903 17:45:01.454931 10597 net.cpp:91] Creating Layer inception_3b/pool_proj
I0903 17:45:01.454937 10597 net.cpp:425] inception_3b/pool_proj <- inception_3b/pool
I0903 17:45:01.454946 10597 net.cpp:399] inception_3b/pool_proj -> inception_3b/pool_proj
I0903 17:45:01.456271 10593 net.cpp:141] Setting up inception_3b/pool_proj
I0903 17:45:01.456293 10593 net.cpp:148] Top shape: 10 64 28 28 (501760)
I0903 17:45:01.456300 10593 net.cpp:156] Memory required for data: 320122880
I0903 17:45:01.456310 10593 layer_factory.hpp:77] Creating layer inception_3b/relu_pool_proj
I0903 17:45:01.456320 10593 net.cpp:91] Creating Layer inception_3b/relu_pool_proj
I0903 17:45:01.456326 10593 net.cpp:425] inception_3b/relu_pool_proj <- inception_3b/pool_proj
I0903 17:45:01.456333 10593 net.cpp:386] inception_3b/relu_pool_proj -> inception_3b/pool_proj (in-place)
I0903 17:45:01.456966 10593 net.cpp:141] Setting up inception_3b/relu_pool_proj
I0903 17:45:01.456984 10593 net.cpp:148] Top shape: 10 64 28 28 (501760)
I0903 17:45:01.456990 10593 net.cpp:156] Memory required for data: 322129920
I0903 17:45:01.456995 10593 layer_factory.hpp:77] Creating layer inception_3b/output
I0903 17:45:01.457005 10593 net.cpp:91] Creating Layer inception_3b/output
I0903 17:45:01.457011 10593 net.cpp:425] inception_3b/output <- inception_3b/1x1
I0903 17:45:01.457018 10593 net.cpp:425] inception_3b/output <- inception_3b/3x3
I0903 17:45:01.457026 10593 net.cpp:425] inception_3b/output <- inception_3b/5x5
I0903 17:45:01.457031 10593 net.cpp:425] inception_3b/output <- inception_3b/pool_proj
I0903 17:45:01.457042 10593 net.cpp:399] inception_3b/output -> inception_3b/output
I0903 17:45:01.457389 10593 net.cpp:141] Setting up inception_3b/output
I0903 17:45:01.457401 10593 net.cpp:148] Top shape: 10 480 28 28 (3763200)
I0903 17:45:01.457406 10593 net.cpp:156] Memory required for data: 337182720
I0903 17:45:01.457412 10593 layer_factory.hpp:77] Creating layer pool3/3x3_s2
I0903 17:45:01.457422 10593 net.cpp:91] Creating Layer pool3/3x3_s2
I0903 17:45:01.457427 10593 net.cpp:425] pool3/3x3_s2 <- inception_3b/output
I0903 17:45:01.457439 10593 net.cpp:399] pool3/3x3_s2 -> pool3/3x3_s2
I0903 17:45:01.457995 10593 net.cpp:141] Setting up pool3/3x3_s2
I0903 17:45:01.458011 10593 net.cpp:148] Top shape: 10 480 14 14 (940800)
I0903 17:45:01.458016 10593 net.cpp:156] Memory required for data: 340945920
I0903 17:45:01.458022 10593 layer_factory.hpp:77] Creating layer pool3/3x3_s2_pool3/3x3_s2_0_split
I0903 17:45:01.458037 10593 net.cpp:91] Creating Layer pool3/3x3_s2_pool3/3x3_s2_0_split
I0903 17:45:01.458044 10593 net.cpp:425] pool3/3x3_s2_pool3/3x3_s2_0_split <- pool3/3x3_s2
I0903 17:45:01.458050 10593 net.cpp:399] pool3/3x3_s2_pool3/3x3_s2_0_split -> pool3/3x3_s2_pool3/3x3_s2_0_split_0
I0903 17:45:01.458060 10593 net.cpp:399] pool3/3x3_s2_pool3/3x3_s2_0_split -> pool3/3x3_s2_pool3/3x3_s2_0_split_1
I0903 17:45:01.458071 10593 net.cpp:399] pool3/3x3_s2_pool3/3x3_s2_0_split -> pool3/3x3_s2_pool3/3x3_s2_0_split_2
I0903 17:45:01.458079 10593 net.cpp:399] pool3/3x3_s2_pool3/3x3_s2_0_split -> pool3/3x3_s2_pool3/3x3_s2_0_split_3
I0903 17:45:01.458516 10593 net.cpp:141] Setting up pool3/3x3_s2_pool3/3x3_s2_0_split
I0903 17:45:01.458529 10593 net.cpp:148] Top shape: 10 480 14 14 (940800)
I0903 17:45:01.458535 10593 net.cpp:148] Top shape: 10 480 14 14 (940800)
I0903 17:45:01.458541 10593 net.cpp:148] Top shape: 10 480 14 14 (940800)
I0903 17:45:01.458547 10593 net.cpp:148] Top shape: 10 480 14 14 (940800)
I0903 17:45:01.458551 10593 net.cpp:156] Memory required for data: 355998720
I0903 17:45:01.458557 10593 layer_factory.hpp:77] Creating layer inception_4a/1x1
I0903 17:45:01.458575 10593 net.cpp:91] Creating Layer inception_4a/1x1
I0903 17:45:01.458582 10593 net.cpp:425] inception_4a/1x1 <- pool3/3x3_s2_pool3/3x3_s2_0_split_0
I0903 17:45:01.458591 10593 net.cpp:399] inception_4a/1x1 -> inception_4a/1x1
I0903 17:45:01.459297 10597 net.cpp:141] Setting up inception_3b/pool_proj
I0903 17:45:01.459314 10597 net.cpp:148] Top shape: 10 64 28 28 (501760)
I0903 17:45:01.459319 10597 net.cpp:156] Memory required for data: 320122880
I0903 17:45:01.459329 10597 layer_factory.hpp:77] Creating layer inception_3b/relu_pool_proj
I0903 17:45:01.459338 10597 net.cpp:91] Creating Layer inception_3b/relu_pool_proj
I0903 17:45:01.459347 10597 net.cpp:425] inception_3b/relu_pool_proj <- inception_3b/pool_proj
I0903 17:45:01.459355 10597 net.cpp:386] inception_3b/relu_pool_proj -> inception_3b/pool_proj (in-place)
I0903 17:45:01.459933 10597 net.cpp:141] Setting up inception_3b/relu_pool_proj
I0903 17:45:01.459951 10597 net.cpp:148] Top shape: 10 64 28 28 (501760)
I0903 17:45:01.459957 10597 net.cpp:156] Memory required for data: 322129920
I0903 17:45:01.459962 10597 layer_factory.hpp:77] Creating layer inception_3b/output
I0903 17:45:01.459975 10597 net.cpp:91] Creating Layer inception_3b/output
I0903 17:45:01.459981 10597 net.cpp:425] inception_3b/output <- inception_3b/1x1
I0903 17:45:01.459988 10597 net.cpp:425] inception_3b/output <- inception_3b/3x3
I0903 17:45:01.459995 10597 net.cpp:425] inception_3b/output <- inception_3b/5x5
I0903 17:45:01.460000 10597 net.cpp:425] inception_3b/output <- inception_3b/pool_proj
I0903 17:45:01.460006 10597 net.cpp:399] inception_3b/output -> inception_3b/output
I0903 17:45:01.460103 10597 net.cpp:141] Setting up inception_3b/output
I0903 17:45:01.460117 10597 net.cpp:148] Top shape: 10 480 28 28 (3763200)
I0903 17:45:01.460122 10597 net.cpp:156] Memory required for data: 337182720
I0903 17:45:01.460127 10597 layer_factory.hpp:77] Creating layer pool3/3x3_s2
I0903 17:45:01.460136 10597 net.cpp:91] Creating Layer pool3/3x3_s2
I0903 17:45:01.460142 10597 net.cpp:425] pool3/3x3_s2 <- inception_3b/output
I0903 17:45:01.460150 10597 net.cpp:399] pool3/3x3_s2 -> pool3/3x3_s2
I0903 17:45:01.460255 10597 net.cpp:141] Setting up pool3/3x3_s2
I0903 17:45:01.460268 10597 net.cpp:148] Top shape: 10 480 14 14 (940800)
I0903 17:45:01.460273 10597 net.cpp:156] Memory required for data: 340945920
I0903 17:45:01.460278 10597 layer_factory.hpp:77] Creating layer pool3/3x3_s2_pool3/3x3_s2_0_split
I0903 17:45:01.460288 10597 net.cpp:91] Creating Layer pool3/3x3_s2_pool3/3x3_s2_0_split
I0903 17:45:01.460292 10597 net.cpp:425] pool3/3x3_s2_pool3/3x3_s2_0_split <- pool3/3x3_s2
I0903 17:45:01.460299 10597 net.cpp:399] pool3/3x3_s2_pool3/3x3_s2_0_split -> pool3/3x3_s2_pool3/3x3_s2_0_split_0
I0903 17:45:01.460324 10597 net.cpp:399] pool3/3x3_s2_pool3/3x3_s2_0_split -> pool3/3x3_s2_pool3/3x3_s2_0_split_1
I0903 17:45:01.460335 10597 net.cpp:399] pool3/3x3_s2_pool3/3x3_s2_0_split -> pool3/3x3_s2_pool3/3x3_s2_0_split_2
I0903 17:45:01.460342 10597 net.cpp:399] pool3/3x3_s2_pool3/3x3_s2_0_split -> pool3/3x3_s2_pool3/3x3_s2_0_split_3
I0903 17:45:01.460499 10597 net.cpp:141] Setting up pool3/3x3_s2_pool3/3x3_s2_0_split
I0903 17:45:01.460510 10597 net.cpp:148] Top shape: 10 480 14 14 (940800)
I0903 17:45:01.460516 10597 net.cpp:148] Top shape: 10 480 14 14 (940800)
I0903 17:45:01.460521 10597 net.cpp:148] Top shape: 10 480 14 14 (940800)
I0903 17:45:01.460527 10597 net.cpp:148] Top shape: 10 480 14 14 (940800)
I0903 17:45:01.460531 10597 net.cpp:156] Memory required for data: 355998720
I0903 17:45:01.460537 10597 layer_factory.hpp:77] Creating layer inception_4a/1x1
I0903 17:45:01.460549 10597 net.cpp:91] Creating Layer inception_4a/1x1
I0903 17:45:01.460556 10597 net.cpp:425] inception_4a/1x1 <- pool3/3x3_s2_pool3/3x3_s2_0_split_0
I0903 17:45:01.460574 10597 net.cpp:399] inception_4a/1x1 -> inception_4a/1x1
I0903 17:45:01.463857 10593 net.cpp:141] Setting up inception_4a/1x1
I0903 17:45:01.463881 10593 net.cpp:148] Top shape: 10 192 14 14 (376320)
I0903 17:45:01.463887 10593 net.cpp:156] Memory required for data: 357504000
I0903 17:45:01.463898 10593 layer_factory.hpp:77] Creating layer inception_4a/relu_1x1
I0903 17:45:01.463909 10593 net.cpp:91] Creating Layer inception_4a/relu_1x1
I0903 17:45:01.463917 10593 net.cpp:425] inception_4a/relu_1x1 <- inception_4a/1x1
I0903 17:45:01.463924 10593 net.cpp:386] inception_4a/relu_1x1 -> inception_4a/1x1 (in-place)
I0903 17:45:01.464776 10593 net.cpp:141] Setting up inception_4a/relu_1x1
I0903 17:45:01.464793 10593 net.cpp:148] Top shape: 10 192 14 14 (376320)
I0903 17:45:01.464799 10593 net.cpp:156] Memory required for data: 359009280
I0903 17:45:01.464804 10593 layer_factory.hpp:77] Creating layer inception_4a/3x3_reduce
I0903 17:45:01.464824 10593 net.cpp:91] Creating Layer inception_4a/3x3_reduce
I0903 17:45:01.464831 10593 net.cpp:425] inception_4a/3x3_reduce <- pool3/3x3_s2_pool3/3x3_s2_0_split_1
I0903 17:45:01.464844 10593 net.cpp:399] inception_4a/3x3_reduce -> inception_4a/3x3_reduce
I0903 17:45:01.465461 10597 net.cpp:141] Setting up inception_4a/1x1
I0903 17:45:01.465481 10597 net.cpp:148] Top shape: 10 192 14 14 (376320)
I0903 17:45:01.465487 10597 net.cpp:156] Memory required for data: 357504000
I0903 17:45:01.465497 10597 layer_factory.hpp:77] Creating layer inception_4a/relu_1x1
I0903 17:45:01.465509 10597 net.cpp:91] Creating Layer inception_4a/relu_1x1
I0903 17:45:01.465517 10597 net.cpp:425] inception_4a/relu_1x1 <- inception_4a/1x1
I0903 17:45:01.465523 10597 net.cpp:386] inception_4a/relu_1x1 -> inception_4a/1x1 (in-place)
I0903 17:45:01.466171 10597 net.cpp:141] Setting up inception_4a/relu_1x1
I0903 17:45:01.466187 10597 net.cpp:148] Top shape: 10 192 14 14 (376320)
I0903 17:45:01.466193 10597 net.cpp:156] Memory required for data: 359009280
I0903 17:45:01.466198 10597 layer_factory.hpp:77] Creating layer inception_4a/3x3_reduce
I0903 17:45:01.466214 10597 net.cpp:91] Creating Layer inception_4a/3x3_reduce
I0903 17:45:01.466222 10597 net.cpp:425] inception_4a/3x3_reduce <- pool3/3x3_s2_pool3/3x3_s2_0_split_1
I0903 17:45:01.466234 10597 net.cpp:399] inception_4a/3x3_reduce -> inception_4a/3x3_reduce
I0903 17:45:01.469372 10593 net.cpp:141] Setting up inception_4a/3x3_reduce
I0903 17:45:01.469396 10593 net.cpp:148] Top shape: 10 96 14 14 (188160)
I0903 17:45:01.469403 10593 net.cpp:156] Memory required for data: 359761920
I0903 17:45:01.469421 10593 layer_factory.hpp:77] Creating layer inception_4a/relu_3x3_reduce
I0903 17:45:01.469436 10593 net.cpp:91] Creating Layer inception_4a/relu_3x3_reduce
I0903 17:45:01.469444 10593 net.cpp:425] inception_4a/relu_3x3_reduce <- inception_4a/3x3_reduce
I0903 17:45:01.469451 10593 net.cpp:386] inception_4a/relu_3x3_reduce -> inception_4a/3x3_reduce (in-place)
I0903 17:45:01.469768 10597 net.cpp:141] Setting up inception_4a/3x3_reduce
I0903 17:45:01.469784 10597 net.cpp:148] Top shape: 10 96 14 14 (188160)
I0903 17:45:01.469789 10597 net.cpp:156] Memory required for data: 359761920
I0903 17:45:01.469811 10597 layer_factory.hpp:77] Creating layer inception_4a/relu_3x3_reduce
I0903 17:45:01.469821 10597 net.cpp:91] Creating Layer inception_4a/relu_3x3_reduce
I0903 17:45:01.469827 10597 net.cpp:425] inception_4a/relu_3x3_reduce <- inception_4a/3x3_reduce
I0903 17:45:01.469835 10597 net.cpp:386] inception_4a/relu_3x3_reduce -> inception_4a/3x3_reduce (in-place)
I0903 17:45:01.469848 10593 net.cpp:141] Setting up inception_4a/relu_3x3_reduce
I0903 17:45:01.469869 10593 net.cpp:148] Top shape: 10 96 14 14 (188160)
I0903 17:45:01.469877 10593 net.cpp:156] Memory required for data: 360514560
I0903 17:45:01.469882 10593 layer_factory.hpp:77] Creating layer inception_4a/3x3
I0903 17:45:01.469902 10593 net.cpp:91] Creating Layer inception_4a/3x3
I0903 17:45:01.469908 10593 net.cpp:425] inception_4a/3x3 <- inception_4a/3x3_reduce
I0903 17:45:01.469920 10593 net.cpp:399] inception_4a/3x3 -> inception_4a/3x3
I0903 17:45:01.470326 10597 net.cpp:141] Setting up inception_4a/relu_3x3_reduce
I0903 17:45:01.470340 10597 net.cpp:148] Top shape: 10 96 14 14 (188160)
I0903 17:45:01.470345 10597 net.cpp:156] Memory required for data: 360514560
I0903 17:45:01.470351 10597 layer_factory.hpp:77] Creating layer inception_4a/3x3
I0903 17:45:01.470367 10597 net.cpp:91] Creating Layer inception_4a/3x3
I0903 17:45:01.470374 10597 net.cpp:425] inception_4a/3x3 <- inception_4a/3x3_reduce
I0903 17:45:01.470387 10597 net.cpp:399] inception_4a/3x3 -> inception_4a/3x3
I0903 17:45:01.476618 10593 net.cpp:141] Setting up inception_4a/3x3
I0903 17:45:01.476644 10593 net.cpp:148] Top shape: 10 208 14 14 (407680)
I0903 17:45:01.476650 10593 net.cpp:156] Memory required for data: 362145280
I0903 17:45:01.476662 10593 layer_factory.hpp:77] Creating layer inception_4a/relu_3x3
I0903 17:45:01.476673 10593 net.cpp:91] Creating Layer inception_4a/relu_3x3
I0903 17:45:01.476680 10593 net.cpp:425] inception_4a/relu_3x3 <- inception_4a/3x3
I0903 17:45:01.476694 10593 net.cpp:386] inception_4a/relu_3x3 -> inception_4a/3x3 (in-place)
I0903 17:45:01.477536 10593 net.cpp:141] Setting up inception_4a/relu_3x3
I0903 17:45:01.477556 10593 net.cpp:148] Top shape: 10 208 14 14 (407680)
I0903 17:45:01.477562 10593 net.cpp:156] Memory required for data: 363776000
I0903 17:45:01.477568 10593 layer_factory.hpp:77] Creating layer inception_4a/5x5_reduce
I0903 17:45:01.477589 10593 net.cpp:91] Creating Layer inception_4a/5x5_reduce
I0903 17:45:01.477597 10593 net.cpp:425] inception_4a/5x5_reduce <- pool3/3x3_s2_pool3/3x3_s2_0_split_2
I0903 17:45:01.477614 10593 net.cpp:399] inception_4a/5x5_reduce -> inception_4a/5x5_reduce
I0903 17:45:01.477694 10597 net.cpp:141] Setting up inception_4a/3x3
I0903 17:45:01.477716 10597 net.cpp:148] Top shape: 10 208 14 14 (407680)
I0903 17:45:01.477722 10597 net.cpp:156] Memory required for data: 362145280
I0903 17:45:01.477733 10597 layer_factory.hpp:77] Creating layer inception_4a/relu_3x3
I0903 17:45:01.477746 10597 net.cpp:91] Creating Layer inception_4a/relu_3x3
I0903 17:45:01.477752 10597 net.cpp:425] inception_4a/relu_3x3 <- inception_4a/3x3
I0903 17:45:01.477759 10597 net.cpp:386] inception_4a/relu_3x3 -> inception_4a/3x3 (in-place)
I0903 17:45:01.478458 10597 net.cpp:141] Setting up inception_4a/relu_3x3
I0903 17:45:01.478477 10597 net.cpp:148] Top shape: 10 208 14 14 (407680)
I0903 17:45:01.478483 10597 net.cpp:156] Memory required for data: 363776000
I0903 17:45:01.478489 10597 layer_factory.hpp:77] Creating layer inception_4a/5x5_reduce
I0903 17:45:01.478507 10597 net.cpp:91] Creating Layer inception_4a/5x5_reduce
I0903 17:45:01.478513 10597 net.cpp:425] inception_4a/5x5_reduce <- pool3/3x3_s2_pool3/3x3_s2_0_split_2
I0903 17:45:01.478526 10597 net.cpp:399] inception_4a/5x5_reduce -> inception_4a/5x5_reduce
I0903 17:45:01.481745 10593 net.cpp:141] Setting up inception_4a/5x5_reduce
I0903 17:45:01.481767 10593 net.cpp:148] Top shape: 10 16 14 14 (31360)
I0903 17:45:01.481775 10593 net.cpp:156] Memory required for data: 363901440
I0903 17:45:01.481784 10593 layer_factory.hpp:77] Creating layer inception_4a/relu_5x5_reduce
I0903 17:45:01.481794 10593 net.cpp:91] Creating Layer inception_4a/relu_5x5_reduce
I0903 17:45:01.481801 10593 net.cpp:425] inception_4a/relu_5x5_reduce <- inception_4a/5x5_reduce
I0903 17:45:01.481808 10593 net.cpp:386] inception_4a/relu_5x5_reduce -> inception_4a/5x5_reduce (in-place)
I0903 17:45:01.482573 10593 net.cpp:141] Setting up inception_4a/relu_5x5_reduce
I0903 17:45:01.482590 10593 net.cpp:148] Top shape: 10 16 14 14 (31360)
I0903 17:45:01.482595 10593 net.cpp:156] Memory required for data: 364026880
I0903 17:45:01.482601 10593 layer_factory.hpp:77] Creating layer inception_4a/5x5
I0903 17:45:01.482620 10593 net.cpp:91] Creating Layer inception_4a/5x5
I0903 17:45:01.482628 10593 net.cpp:425] inception_4a/5x5 <- inception_4a/5x5_reduce
I0903 17:45:01.482640 10593 net.cpp:399] inception_4a/5x5 -> inception_4a/5x5
I0903 17:45:01.482672 10597 net.cpp:141] Setting up inception_4a/5x5_reduce
I0903 17:45:01.482693 10597 net.cpp:148] Top shape: 10 16 14 14 (31360)
I0903 17:45:01.482698 10597 net.cpp:156] Memory required for data: 363901440
I0903 17:45:01.482708 10597 layer_factory.hpp:77] Creating layer inception_4a/relu_5x5_reduce
I0903 17:45:01.482718 10597 net.cpp:91] Creating Layer inception_4a/relu_5x5_reduce
I0903 17:45:01.482724 10597 net.cpp:425] inception_4a/relu_5x5_reduce <- inception_4a/5x5_reduce
I0903 17:45:01.482735 10597 net.cpp:386] inception_4a/relu_5x5_reduce -> inception_4a/5x5_reduce (in-place)
I0903 17:45:01.483360 10597 net.cpp:141] Setting up inception_4a/relu_5x5_reduce
I0903 17:45:01.483378 10597 net.cpp:148] Top shape: 10 16 14 14 (31360)
I0903 17:45:01.483384 10597 net.cpp:156] Memory required for data: 364026880
I0903 17:45:01.483391 10597 layer_factory.hpp:77] Creating layer inception_4a/5x5
I0903 17:45:01.483407 10597 net.cpp:91] Creating Layer inception_4a/5x5
I0903 17:45:01.483412 10597 net.cpp:425] inception_4a/5x5 <- inception_4a/5x5_reduce
I0903 17:45:01.483425 10597 net.cpp:399] inception_4a/5x5 -> inception_4a/5x5
I0903 17:45:01.486990 10593 net.cpp:141] Setting up inception_4a/5x5
I0903 17:45:01.487042 10593 net.cpp:148] Top shape: 10 48 14 14 (94080)
I0903 17:45:01.487051 10593 net.cpp:156] Memory required for data: 364403200
I0903 17:45:01.487066 10593 layer_factory.hpp:77] Creating layer inception_4a/relu_5x5
I0903 17:45:01.487081 10593 net.cpp:91] Creating Layer inception_4a/relu_5x5
I0903 17:45:01.487089 10593 net.cpp:425] inception_4a/relu_5x5 <- inception_4a/5x5
I0903 17:45:01.487104 10593 net.cpp:386] inception_4a/relu_5x5 -> inception_4a/5x5 (in-place)
I0903 17:45:01.487399 10597 net.cpp:141] Setting up inception_4a/5x5
I0903 17:45:01.487416 10597 net.cpp:148] Top shape: 10 48 14 14 (94080)
I0903 17:45:01.487422 10597 net.cpp:156] Memory required for data: 364403200
I0903 17:45:01.487432 10597 layer_factory.hpp:77] Creating layer inception_4a/relu_5x5
I0903 17:45:01.487442 10597 net.cpp:91] Creating Layer inception_4a/relu_5x5
I0903 17:45:01.487448 10597 net.cpp:425] inception_4a/relu_5x5 <- inception_4a/5x5
I0903 17:45:01.487460 10597 net.cpp:386] inception_4a/relu_5x5 -> inception_4a/5x5 (in-place)
I0903 17:45:01.487537 10593 net.cpp:141] Setting up inception_4a/relu_5x5
I0903 17:45:01.487551 10593 net.cpp:148] Top shape: 10 48 14 14 (94080)
I0903 17:45:01.487556 10593 net.cpp:156] Memory required for data: 364779520
I0903 17:45:01.487562 10593 layer_factory.hpp:77] Creating layer inception_4a/pool
I0903 17:45:01.487581 10593 net.cpp:91] Creating Layer inception_4a/pool
I0903 17:45:01.487588 10593 net.cpp:425] inception_4a/pool <- pool3/3x3_s2_pool3/3x3_s2_0_split_3
I0903 17:45:01.487597 10593 net.cpp:399] inception_4a/pool -> inception_4a/pool
I0903 17:45:01.487843 10593 net.cpp:141] Setting up inception_4a/pool
I0903 17:45:01.487856 10593 net.cpp:148] Top shape: 10 480 14 14 (940800)
I0903 17:45:01.487861 10593 net.cpp:156] Memory required for data: 368542720
I0903 17:45:01.487866 10593 layer_factory.hpp:77] Creating layer inception_4a/pool_proj
I0903 17:45:01.487890 10593 net.cpp:91] Creating Layer inception_4a/pool_proj
I0903 17:45:01.487895 10593 net.cpp:425] inception_4a/pool_proj <- inception_4a/pool
I0903 17:45:01.487920 10597 net.cpp:141] Setting up inception_4a/relu_5x5
I0903 17:45:01.487924 10593 net.cpp:399] inception_4a/pool_proj -> inception_4a/pool_proj
I0903 17:45:01.487941 10597 net.cpp:148] Top shape: 10 48 14 14 (94080)
I0903 17:45:01.487946 10597 net.cpp:156] Memory required for data: 364779520
I0903 17:45:01.487951 10597 layer_factory.hpp:77] Creating layer inception_4a/pool
I0903 17:45:01.487962 10597 net.cpp:91] Creating Layer inception_4a/pool
I0903 17:45:01.487968 10597 net.cpp:425] inception_4a/pool <- pool3/3x3_s2_pool3/3x3_s2_0_split_3
I0903 17:45:01.487977 10597 net.cpp:399] inception_4a/pool -> inception_4a/pool
I0903 17:45:01.488328 10597 net.cpp:141] Setting up inception_4a/pool
I0903 17:45:01.488345 10597 net.cpp:148] Top shape: 10 480 14 14 (940800)
I0903 17:45:01.488350 10597 net.cpp:156] Memory required for data: 368542720
I0903 17:45:01.488355 10597 layer_factory.hpp:77] Creating layer inception_4a/pool_proj
I0903 17:45:01.488368 10597 net.cpp:91] Creating Layer inception_4a/pool_proj
I0903 17:45:01.488374 10597 net.cpp:425] inception_4a/pool_proj <- inception_4a/pool
I0903 17:45:01.488390 10597 net.cpp:399] inception_4a/pool_proj -> inception_4a/pool_proj
I0903 17:45:01.491916 10593 net.cpp:141] Setting up inception_4a/pool_proj
I0903 17:45:01.491943 10593 net.cpp:148] Top shape: 10 64 14 14 (125440)
I0903 17:45:01.491950 10593 net.cpp:156] Memory required for data: 369044480
I0903 17:45:01.491961 10593 layer_factory.hpp:77] Creating layer inception_4a/relu_pool_proj
I0903 17:45:01.491977 10593 net.cpp:91] Creating Layer inception_4a/relu_pool_proj
I0903 17:45:01.491986 10593 net.cpp:425] inception_4a/relu_pool_proj <- inception_4a/pool_proj
I0903 17:45:01.491994 10593 net.cpp:386] inception_4a/relu_pool_proj -> inception_4a/pool_proj (in-place)
I0903 17:45:01.492691 10593 net.cpp:141] Setting up inception_4a/relu_pool_proj
I0903 17:45:01.492708 10593 net.cpp:148] Top shape: 10 64 14 14 (125440)
I0903 17:45:01.492713 10593 net.cpp:156] Memory required for data: 369546240
I0903 17:45:01.492719 10593 layer_factory.hpp:77] Creating layer inception_4a/output
I0903 17:45:01.492734 10593 net.cpp:91] Creating Layer inception_4a/output
I0903 17:45:01.492741 10593 net.cpp:425] inception_4a/output <- inception_4a/1x1
I0903 17:45:01.492749 10593 net.cpp:425] inception_4a/output <- inception_4a/3x3
I0903 17:45:01.492755 10593 net.cpp:425] inception_4a/output <- inception_4a/5x5
I0903 17:45:01.492761 10593 net.cpp:425] inception_4a/output <- inception_4a/pool_proj
I0903 17:45:01.492769 10593 net.cpp:399] inception_4a/output -> inception_4a/output
I0903 17:45:01.492768 10597 net.cpp:141] Setting up inception_4a/pool_proj
I0903 17:45:01.492792 10597 net.cpp:148] Top shape: 10 64 14 14 (125440)
I0903 17:45:01.492801 10597 net.cpp:156] Memory required for data: 369044480
I0903 17:45:01.492818 10597 layer_factory.hpp:77] Creating layer inception_4a/relu_pool_proj
I0903 17:45:01.492833 10597 net.cpp:91] Creating Layer inception_4a/relu_pool_proj
I0903 17:45:01.492843 10597 net.cpp:425] inception_4a/relu_pool_proj <- inception_4a/pool_proj
I0903 17:45:01.492856 10597 net.cpp:386] inception_4a/relu_pool_proj -> inception_4a/pool_proj (in-place)
I0903 17:45:01.492868 10593 net.cpp:141] Setting up inception_4a/output
I0903 17:45:01.492880 10593 net.cpp:148] Top shape: 10 512 14 14 (1003520)
I0903 17:45:01.492884 10593 net.cpp:156] Memory required for data: 373560320
I0903 17:45:01.492890 10593 layer_factory.hpp:77] Creating layer inception_4a/output_inception_4a/output_0_split
I0903 17:45:01.492905 10593 net.cpp:91] Creating Layer inception_4a/output_inception_4a/output_0_split
I0903 17:45:01.492911 10593 net.cpp:425] inception_4a/output_inception_4a/output_0_split <- inception_4a/output
I0903 17:45:01.492921 10593 net.cpp:399] inception_4a/output_inception_4a/output_0_split -> inception_4a/output_inception_4a/output_0_split_0
I0903 17:45:01.492931 10593 net.cpp:399] inception_4a/output_inception_4a/output_0_split -> inception_4a/output_inception_4a/output_0_split_1
I0903 17:45:01.492940 10593 net.cpp:399] inception_4a/output_inception_4a/output_0_split -> inception_4a/output_inception_4a/output_0_split_2
I0903 17:45:01.492949 10593 net.cpp:399] inception_4a/output_inception_4a/output_0_split -> inception_4a/output_inception_4a/output_0_split_3
I0903 17:45:01.493538 10593 net.cpp:141] Setting up inception_4a/output_inception_4a/output_0_split
I0903 17:45:01.493551 10593 net.cpp:148] Top shape: 10 512 14 14 (1003520)
I0903 17:45:01.493558 10593 net.cpp:148] Top shape: 10 512 14 14 (1003520)
I0903 17:45:01.493564 10593 net.cpp:148] Top shape: 10 512 14 14 (1003520)
I0903 17:45:01.493571 10593 net.cpp:148] Top shape: 10 512 14 14 (1003520)
I0903 17:45:01.493567 10597 net.cpp:141] Setting up inception_4a/relu_pool_proj
I0903 17:45:01.493576 10593 net.cpp:156] Memory required for data: 389616640
I0903 17:45:01.493592 10593 layer_factory.hpp:77] Creating layer inception_4b/1x1
I0903 17:45:01.493593 10597 net.cpp:148] Top shape: 10 64 14 14 (125440)
I0903 17:45:01.493604 10597 net.cpp:156] Memory required for data: 369546240
I0903 17:45:01.493614 10593 net.cpp:91] Creating Layer inception_4b/1x1
I0903 17:45:01.493615 10597 layer_factory.hpp:77] Creating layer inception_4a/output
I0903 17:45:01.493621 10593 net.cpp:425] inception_4b/1x1 <- inception_4a/output_inception_4a/output_0_split_0
I0903 17:45:01.493630 10597 net.cpp:91] Creating Layer inception_4a/output
I0903 17:45:01.493634 10593 net.cpp:399] inception_4b/1x1 -> inception_4b/1x1
I0903 17:45:01.493646 10597 net.cpp:425] inception_4a/output <- inception_4a/1x1
I0903 17:45:01.493659 10597 net.cpp:425] inception_4a/output <- inception_4a/3x3
I0903 17:45:01.493669 10597 net.cpp:425] inception_4a/output <- inception_4a/5x5
I0903 17:45:01.493680 10597 net.cpp:425] inception_4a/output <- inception_4a/pool_proj
I0903 17:45:01.493690 10597 net.cpp:399] inception_4a/output -> inception_4a/output
I0903 17:45:01.493891 10597 net.cpp:141] Setting up inception_4a/output
I0903 17:45:01.493911 10597 net.cpp:148] Top shape: 10 512 14 14 (1003520)
I0903 17:45:01.493921 10597 net.cpp:156] Memory required for data: 373560320
I0903 17:45:01.493930 10597 layer_factory.hpp:77] Creating layer inception_4a/output_inception_4a/output_0_split
I0903 17:45:01.493944 10597 net.cpp:91] Creating Layer inception_4a/output_inception_4a/output_0_split
I0903 17:45:01.493954 10597 net.cpp:425] inception_4a/output_inception_4a/output_0_split <- inception_4a/output
I0903 17:45:01.493974 10597 net.cpp:399] inception_4a/output_inception_4a/output_0_split -> inception_4a/output_inception_4a/output_0_split_0
I0903 17:45:01.493993 10597 net.cpp:399] inception_4a/output_inception_4a/output_0_split -> inception_4a/output_inception_4a/output_0_split_1
I0903 17:45:01.494011 10597 net.cpp:399] inception_4a/output_inception_4a/output_0_split -> inception_4a/output_inception_4a/output_0_split_2
I0903 17:45:01.494029 10597 net.cpp:399] inception_4a/output_inception_4a/output_0_split -> inception_4a/output_inception_4a/output_0_split_3
I0903 17:45:01.494520 10597 net.cpp:141] Setting up inception_4a/output_inception_4a/output_0_split
I0903 17:45:01.494540 10597 net.cpp:148] Top shape: 10 512 14 14 (1003520)
I0903 17:45:01.494554 10597 net.cpp:148] Top shape: 10 512 14 14 (1003520)
I0903 17:45:01.494565 10597 net.cpp:148] Top shape: 10 512 14 14 (1003520)
I0903 17:45:01.494576 10597 net.cpp:148] Top shape: 10 512 14 14 (1003520)
I0903 17:45:01.494585 10597 net.cpp:156] Memory required for data: 389616640
I0903 17:45:01.494595 10597 layer_factory.hpp:77] Creating layer inception_4b/1x1
I0903 17:45:01.494618 10597 net.cpp:91] Creating Layer inception_4b/1x1
I0903 17:45:01.494632 10597 net.cpp:425] inception_4b/1x1 <- inception_4a/output_inception_4a/output_0_split_0
I0903 17:45:01.494655 10597 net.cpp:399] inception_4b/1x1 -> inception_4b/1x1
I0903 17:45:01.497947 10593 net.cpp:141] Setting up inception_4b/1x1
I0903 17:45:01.497964 10593 net.cpp:148] Top shape: 10 160 14 14 (313600)
I0903 17:45:01.497973 10593 net.cpp:156] Memory required for data: 390871040
I0903 17:45:01.497983 10593 layer_factory.hpp:77] Creating layer inception_4b/relu_1x1
I0903 17:45:01.497993 10593 net.cpp:91] Creating Layer inception_4b/relu_1x1
I0903 17:45:01.497999 10593 net.cpp:425] inception_4b/relu_1x1 <- inception_4b/1x1
I0903 17:45:01.498008 10593 net.cpp:386] inception_4b/relu_1x1 -> inception_4b/1x1 (in-place)
I0903 17:45:01.498750 10593 net.cpp:141] Setting up inception_4b/relu_1x1
I0903 17:45:01.498767 10593 net.cpp:148] Top shape: 10 160 14 14 (313600)
I0903 17:45:01.498774 10593 net.cpp:156] Memory required for data: 392125440
I0903 17:45:01.498778 10593 layer_factory.hpp:77] Creating layer inception_4b/3x3_reduce
I0903 17:45:01.498797 10593 net.cpp:91] Creating Layer inception_4b/3x3_reduce
I0903 17:45:01.498805 10593 net.cpp:425] inception_4b/3x3_reduce <- inception_4a/output_inception_4a/output_0_split_1
I0903 17:45:01.498814 10593 net.cpp:399] inception_4b/3x3_reduce -> inception_4b/3x3_reduce
I0903 17:45:01.498864 10597 net.cpp:141] Setting up inception_4b/1x1
I0903 17:45:01.498883 10597 net.cpp:148] Top shape: 10 160 14 14 (313600)
I0903 17:45:01.498888 10597 net.cpp:156] Memory required for data: 390871040
I0903 17:45:01.498898 10597 layer_factory.hpp:77] Creating layer inception_4b/relu_1x1
I0903 17:45:01.498911 10597 net.cpp:91] Creating Layer inception_4b/relu_1x1
I0903 17:45:01.498919 10597 net.cpp:425] inception_4b/relu_1x1 <- inception_4b/1x1
I0903 17:45:01.498926 10597 net.cpp:386] inception_4b/relu_1x1 -> inception_4b/1x1 (in-place)
I0903 17:45:01.499609 10597 net.cpp:141] Setting up inception_4b/relu_1x1
I0903 17:45:01.499626 10597 net.cpp:148] Top shape: 10 160 14 14 (313600)
I0903 17:45:01.499632 10597 net.cpp:156] Memory required for data: 392125440
I0903 17:45:01.499639 10597 layer_factory.hpp:77] Creating layer inception_4b/3x3_reduce
I0903 17:45:01.499655 10597 net.cpp:91] Creating Layer inception_4b/3x3_reduce
I0903 17:45:01.499660 10597 net.cpp:425] inception_4b/3x3_reduce <- inception_4a/output_inception_4a/output_0_split_1
I0903 17:45:01.499671 10597 net.cpp:399] inception_4b/3x3_reduce -> inception_4b/3x3_reduce
I0903 17:45:01.503263 10593 net.cpp:141] Setting up inception_4b/3x3_reduce
I0903 17:45:01.503285 10593 net.cpp:148] Top shape: 10 112 14 14 (219520)
I0903 17:45:01.503291 10593 net.cpp:156] Memory required for data: 393003520
I0903 17:45:01.503303 10593 layer_factory.hpp:77] Creating layer inception_4b/relu_3x3_reduce
I0903 17:45:01.503315 10593 net.cpp:91] Creating Layer inception_4b/relu_3x3_reduce
I0903 17:45:01.503322 10593 net.cpp:425] inception_4b/relu_3x3_reduce <- inception_4b/3x3_reduce
I0903 17:45:01.503322 10597 net.cpp:141] Setting up inception_4b/3x3_reduce
I0903 17:45:01.503330 10593 net.cpp:386] inception_4b/relu_3x3_reduce -> inception_4b/3x3_reduce (in-place)
I0903 17:45:01.503340 10597 net.cpp:148] Top shape: 10 112 14 14 (219520)
I0903 17:45:01.503346 10597 net.cpp:156] Memory required for data: 393003520
I0903 17:45:01.503356 10597 layer_factory.hpp:77] Creating layer inception_4b/relu_3x3_reduce
I0903 17:45:01.503371 10597 net.cpp:91] Creating Layer inception_4b/relu_3x3_reduce
I0903 17:45:01.503377 10597 net.cpp:425] inception_4b/relu_3x3_reduce <- inception_4b/3x3_reduce
I0903 17:45:01.503384 10597 net.cpp:386] inception_4b/relu_3x3_reduce -> inception_4b/3x3_reduce (in-place)
I0903 17:45:01.503772 10593 net.cpp:141] Setting up inception_4b/relu_3x3_reduce
I0903 17:45:01.503785 10593 net.cpp:148] Top shape: 10 112 14 14 (219520)
I0903 17:45:01.503790 10593 net.cpp:156] Memory required for data: 393881600
I0903 17:45:01.503796 10593 layer_factory.hpp:77] Creating layer inception_4b/3x3
I0903 17:45:01.503818 10593 net.cpp:91] Creating Layer inception_4b/3x3
I0903 17:45:01.503824 10593 net.cpp:425] inception_4b/3x3 <- inception_4b/3x3_reduce
I0903 17:45:01.503834 10593 net.cpp:399] inception_4b/3x3 -> inception_4b/3x3
I0903 17:45:01.503867 10597 net.cpp:141] Setting up inception_4b/relu_3x3_reduce
I0903 17:45:01.503881 10597 net.cpp:148] Top shape: 10 112 14 14 (219520)
I0903 17:45:01.503886 10597 net.cpp:156] Memory required for data: 393881600
I0903 17:45:01.503892 10597 layer_factory.hpp:77] Creating layer inception_4b/3x3
I0903 17:45:01.503911 10597 net.cpp:91] Creating Layer inception_4b/3x3
I0903 17:45:01.503917 10597 net.cpp:425] inception_4b/3x3 <- inception_4b/3x3_reduce
I0903 17:45:01.503929 10597 net.cpp:399] inception_4b/3x3 -> inception_4b/3x3
I0903 17:45:01.511164 10593 net.cpp:141] Setting up inception_4b/3x3
I0903 17:45:01.511191 10593 net.cpp:148] Top shape: 10 224 14 14 (439040)
I0903 17:45:01.511198 10593 net.cpp:156] Memory required for data: 395637760
I0903 17:45:01.511209 10593 layer_factory.hpp:77] Creating layer inception_4b/relu_3x3
I0903 17:45:01.511220 10593 net.cpp:91] Creating Layer inception_4b/relu_3x3
I0903 17:45:01.511227 10593 net.cpp:425] inception_4b/relu_3x3 <- inception_4b/3x3
I0903 17:45:01.511239 10593 net.cpp:386] inception_4b/relu_3x3 -> inception_4b/3x3 (in-place)
I0903 17:45:01.511833 10593 net.cpp:141] Setting up inception_4b/relu_3x3
I0903 17:45:01.511852 10593 net.cpp:148] Top shape: 10 224 14 14 (439040)
I0903 17:45:01.511857 10593 net.cpp:156] Memory required for data: 397393920
I0903 17:45:01.511862 10593 layer_factory.hpp:77] Creating layer inception_4b/5x5_reduce
I0903 17:45:01.511896 10593 net.cpp:91] Creating Layer inception_4b/5x5_reduce
I0903 17:45:01.511904 10593 net.cpp:425] inception_4b/5x5_reduce <- inception_4a/output_inception_4a/output_0_split_2
I0903 17:45:01.511916 10593 net.cpp:399] inception_4b/5x5_reduce -> inception_4b/5x5_reduce
I0903 17:45:01.512478 10597 net.cpp:141] Setting up inception_4b/3x3
I0903 17:45:01.512502 10597 net.cpp:148] Top shape: 10 224 14 14 (439040)
I0903 17:45:01.512507 10597 net.cpp:156] Memory required for data: 395637760
I0903 17:45:01.512518 10597 layer_factory.hpp:77] Creating layer inception_4b/relu_3x3
I0903 17:45:01.512528 10597 net.cpp:91] Creating Layer inception_4b/relu_3x3
I0903 17:45:01.512536 10597 net.cpp:425] inception_4b/relu_3x3 <- inception_4b/3x3
I0903 17:45:01.512547 10597 net.cpp:386] inception_4b/relu_3x3 -> inception_4b/3x3 (in-place)
I0903 17:45:01.513173 10597 net.cpp:141] Setting up inception_4b/relu_3x3
I0903 17:45:01.513190 10597 net.cpp:148] Top shape: 10 224 14 14 (439040)
I0903 17:45:01.513196 10597 net.cpp:156] Memory required for data: 397393920
I0903 17:45:01.513202 10597 layer_factory.hpp:77] Creating layer inception_4b/5x5_reduce
I0903 17:45:01.513231 10597 net.cpp:91] Creating Layer inception_4b/5x5_reduce
I0903 17:45:01.513238 10597 net.cpp:425] inception_4b/5x5_reduce <- inception_4a/output_inception_4a/output_0_split_2
I0903 17:45:01.513252 10597 net.cpp:399] inception_4b/5x5_reduce -> inception_4b/5x5_reduce
I0903 17:45:01.517038 10597 net.cpp:141] Setting up inception_4b/5x5_reduce
I0903 17:45:01.517058 10597 net.cpp:148] Top shape: 10 24 14 14 (47040)
I0903 17:45:01.517063 10597 net.cpp:156] Memory required for data: 397582080
I0903 17:45:01.517074 10597 layer_factory.hpp:77] Creating layer inception_4b/relu_5x5_reduce
I0903 17:45:01.517084 10597 net.cpp:91] Creating Layer inception_4b/relu_5x5_reduce
I0903 17:45:01.517091 10597 net.cpp:425] inception_4b/relu_5x5_reduce <- inception_4b/5x5_reduce
I0903 17:45:01.517103 10597 net.cpp:386] inception_4b/relu_5x5_reduce -> inception_4b/5x5_reduce (in-place)
I0903 17:45:01.517690 10593 net.cpp:141] Setting up inception_4b/5x5_reduce
I0903 17:45:01.517714 10593 net.cpp:148] Top shape: 10 24 14 14 (47040)
I0903 17:45:01.517719 10593 net.cpp:156] Memory required for data: 397582080
I0903 17:45:01.517722 10597 net.cpp:141] Setting up inception_4b/relu_5x5_reduce
I0903 17:45:01.517731 10593 layer_factory.hpp:77] Creating layer inception_4b/relu_5x5_reduce
I0903 17:45:01.517740 10597 net.cpp:148] Top shape: 10 24 14 14 (47040)
I0903 17:45:01.517743 10593 net.cpp:91] Creating Layer inception_4b/relu_5x5_reduce
I0903 17:45:01.517746 10597 net.cpp:156] Memory required for data: 397770240
I0903 17:45:01.517750 10593 net.cpp:425] inception_4b/relu_5x5_reduce <- inception_4b/5x5_reduce
I0903 17:45:01.517753 10597 layer_factory.hpp:77] Creating layer inception_4b/5x5
I0903 17:45:01.517762 10593 net.cpp:386] inception_4b/relu_5x5_reduce -> inception_4b/5x5_reduce (in-place)
I0903 17:45:01.517776 10597 net.cpp:91] Creating Layer inception_4b/5x5
I0903 17:45:01.517782 10597 net.cpp:425] inception_4b/5x5 <- inception_4b/5x5_reduce
I0903 17:45:01.517792 10597 net.cpp:399] inception_4b/5x5 -> inception_4b/5x5
I0903 17:45:01.518471 10593 net.cpp:141] Setting up inception_4b/relu_5x5_reduce
I0903 17:45:01.518487 10593 net.cpp:148] Top shape: 10 24 14 14 (47040)
I0903 17:45:01.518492 10593 net.cpp:156] Memory required for data: 397770240
I0903 17:45:01.518497 10593 layer_factory.hpp:77] Creating layer inception_4b/5x5
I0903 17:45:01.518515 10593 net.cpp:91] Creating Layer inception_4b/5x5
I0903 17:45:01.518522 10593 net.cpp:425] inception_4b/5x5 <- inception_4b/5x5_reduce
I0903 17:45:01.518535 10593 net.cpp:399] inception_4b/5x5 -> inception_4b/5x5
I0903 17:45:01.524032 10597 net.cpp:141] Setting up inception_4b/5x5
I0903 17:45:01.524057 10597 net.cpp:148] Top shape: 10 64 14 14 (125440)
I0903 17:45:01.524063 10597 net.cpp:156] Memory required for data: 398272000
I0903 17:45:01.524080 10597 layer_factory.hpp:77] Creating layer inception_4b/relu_5x5
I0903 17:45:01.524091 10597 net.cpp:91] Creating Layer inception_4b/relu_5x5
I0903 17:45:01.524097 10597 net.cpp:425] inception_4b/relu_5x5 <- inception_4b/5x5
I0903 17:45:01.524106 10597 net.cpp:386] inception_4b/relu_5x5 -> inception_4b/5x5 (in-place)
I0903 17:45:01.524538 10593 net.cpp:141] Setting up inception_4b/5x5
I0903 17:45:01.524555 10593 net.cpp:148] Top shape: 10 64 14 14 (125440)
I0903 17:45:01.524562 10593 net.cpp:156] Memory required for data: 398272000
I0903 17:45:01.524564 10597 net.cpp:141] Setting up inception_4b/relu_5x5
I0903 17:45:01.524574 10593 layer_factory.hpp:77] Creating layer inception_4b/relu_5x5
I0903 17:45:01.524579 10597 net.cpp:148] Top shape: 10 64 14 14 (125440)
I0903 17:45:01.524583 10597 net.cpp:156] Memory required for data: 398773760
I0903 17:45:01.524588 10593 net.cpp:91] Creating Layer inception_4b/relu_5x5
I0903 17:45:01.524590 10597 layer_factory.hpp:77] Creating layer inception_4b/pool
I0903 17:45:01.524600 10593 net.cpp:425] inception_4b/relu_5x5 <- inception_4b/5x5
I0903 17:45:01.524619 10597 net.cpp:91] Creating Layer inception_4b/pool
I0903 17:45:01.524621 10593 net.cpp:386] inception_4b/relu_5x5 -> inception_4b/5x5 (in-place)
I0903 17:45:01.524631 10597 net.cpp:425] inception_4b/pool <- inception_4a/output_inception_4a/output_0_split_3
I0903 17:45:01.524647 10597 net.cpp:399] inception_4b/pool -> inception_4b/pool
I0903 17:45:01.524983 10597 net.cpp:141] Setting up inception_4b/pool
I0903 17:45:01.524996 10597 net.cpp:148] Top shape: 10 512 14 14 (1003520)
I0903 17:45:01.525001 10597 net.cpp:156] Memory required for data: 402787840
I0903 17:45:01.525005 10597 layer_factory.hpp:77] Creating layer inception_4b/pool_proj
I0903 17:45:01.525022 10597 net.cpp:91] Creating Layer inception_4b/pool_proj
I0903 17:45:01.525027 10597 net.cpp:425] inception_4b/pool_proj <- inception_4b/pool
I0903 17:45:01.525043 10597 net.cpp:399] inception_4b/pool_proj -> inception_4b/pool_proj
I0903 17:45:01.525059 10593 net.cpp:141] Setting up inception_4b/relu_5x5
I0903 17:45:01.525074 10593 net.cpp:148] Top shape: 10 64 14 14 (125440)
I0903 17:45:01.525079 10593 net.cpp:156] Memory required for data: 398773760
I0903 17:45:01.525085 10593 layer_factory.hpp:77] Creating layer inception_4b/pool
I0903 17:45:01.525096 10593 net.cpp:91] Creating Layer inception_4b/pool
I0903 17:45:01.525104 10593 net.cpp:425] inception_4b/pool <- inception_4a/output_inception_4a/output_0_split_3
I0903 17:45:01.525115 10593 net.cpp:399] inception_4b/pool -> inception_4b/pool
I0903 17:45:01.525452 10593 net.cpp:141] Setting up inception_4b/pool
I0903 17:45:01.525465 10593 net.cpp:148] Top shape: 10 512 14 14 (1003520)
I0903 17:45:01.525470 10593 net.cpp:156] Memory required for data: 402787840
I0903 17:45:01.525475 10593 layer_factory.hpp:77] Creating layer inception_4b/pool_proj
I0903 17:45:01.525493 10593 net.cpp:91] Creating Layer inception_4b/pool_proj
I0903 17:45:01.525501 10593 net.cpp:425] inception_4b/pool_proj <- inception_4b/pool
I0903 17:45:01.525511 10593 net.cpp:399] inception_4b/pool_proj -> inception_4b/pool_proj
I0903 17:45:01.529948 10597 net.cpp:141] Setting up inception_4b/pool_proj
I0903 17:45:01.529968 10597 net.cpp:148] Top shape: 10 64 14 14 (125440)
I0903 17:45:01.529974 10597 net.cpp:156] Memory required for data: 403289600
I0903 17:45:01.529984 10597 layer_factory.hpp:77] Creating layer inception_4b/relu_pool_proj
I0903 17:45:01.529994 10597 net.cpp:91] Creating Layer inception_4b/relu_pool_proj
I0903 17:45:01.530000 10597 net.cpp:425] inception_4b/relu_pool_proj <- inception_4b/pool_proj
I0903 17:45:01.530011 10597 net.cpp:386] inception_4b/relu_pool_proj -> inception_4b/pool_proj (in-place)
I0903 17:45:01.530663 10597 net.cpp:141] Setting up inception_4b/relu_pool_proj
I0903 17:45:01.530679 10597 net.cpp:148] Top shape: 10 64 14 14 (125440)
I0903 17:45:01.530684 10597 net.cpp:156] Memory required for data: 403791360
I0903 17:45:01.530690 10597 layer_factory.hpp:77] Creating layer inception_4b/output
I0903 17:45:01.530699 10597 net.cpp:91] Creating Layer inception_4b/output
I0903 17:45:01.530705 10597 net.cpp:425] inception_4b/output <- inception_4b/1x1
I0903 17:45:01.530712 10597 net.cpp:425] inception_4b/output <- inception_4b/3x3
I0903 17:45:01.530721 10597 net.cpp:425] inception_4b/output <- inception_4b/5x5
I0903 17:45:01.530727 10597 net.cpp:425] inception_4b/output <- inception_4b/pool_proj
I0903 17:45:01.530735 10597 net.cpp:399] inception_4b/output -> inception_4b/output
I0903 17:45:01.530877 10597 net.cpp:141] Setting up inception_4b/output
I0903 17:45:01.530890 10597 net.cpp:148] Top shape: 10 512 14 14 (1003520)
I0903 17:45:01.530894 10597 net.cpp:156] Memory required for data: 407805440
I0903 17:45:01.530900 10597 layer_factory.hpp:77] Creating layer inception_4b/output_inception_4b/output_0_split
I0903 17:45:01.530911 10597 net.cpp:91] Creating Layer inception_4b/output_inception_4b/output_0_split
I0903 17:45:01.530917 10597 net.cpp:425] inception_4b/output_inception_4b/output_0_split <- inception_4b/output
I0903 17:45:01.530925 10597 net.cpp:399] inception_4b/output_inception_4b/output_0_split -> inception_4b/output_inception_4b/output_0_split_0
I0903 17:45:01.530921 10593 net.cpp:141] Setting up inception_4b/pool_proj
I0903 17:45:01.530936 10597 net.cpp:399] inception_4b/output_inception_4b/output_0_split -> inception_4b/output_inception_4b/output_0_split_1
I0903 17:45:01.530961 10593 net.cpp:148] Top shape: 10 64 14 14 (125440)
I0903 17:45:01.530964 10597 net.cpp:399] inception_4b/output_inception_4b/output_0_split -> inception_4b/output_inception_4b/output_0_split_2
I0903 17:45:01.530967 10593 net.cpp:156] Memory required for data: 403289600
I0903 17:45:01.530975 10597 net.cpp:399] inception_4b/output_inception_4b/output_0_split -> inception_4b/output_inception_4b/output_0_split_3
I0903 17:45:01.530984 10593 layer_factory.hpp:77] Creating layer inception_4b/relu_pool_proj
I0903 17:45:01.530999 10593 net.cpp:91] Creating Layer inception_4b/relu_pool_proj
I0903 17:45:01.531008 10593 net.cpp:425] inception_4b/relu_pool_proj <- inception_4b/pool_proj
I0903 17:45:01.531018 10593 net.cpp:386] inception_4b/relu_pool_proj -> inception_4b/pool_proj (in-place)
I0903 17:45:01.531667 10597 net.cpp:141] Setting up inception_4b/output_inception_4b/output_0_split
I0903 17:45:01.531682 10597 net.cpp:148] Top shape: 10 512 14 14 (1003520)
I0903 17:45:01.531687 10597 net.cpp:148] Top shape: 10 512 14 14 (1003520)
I0903 17:45:01.531692 10597 net.cpp:148] Top shape: 10 512 14 14 (1003520)
I0903 17:45:01.531698 10597 net.cpp:148] Top shape: 10 512 14 14 (1003520)
I0903 17:45:01.531702 10597 net.cpp:156] Memory required for data: 423861760
I0903 17:45:01.531708 10597 layer_factory.hpp:77] Creating layer inception_4c/1x1
I0903 17:45:01.531710 10593 net.cpp:141] Setting up inception_4b/relu_pool_proj
I0903 17:45:01.531728 10593 net.cpp:148] Top shape: 10 64 14 14 (125440)
I0903 17:45:01.531728 10597 net.cpp:91] Creating Layer inception_4c/1x1
I0903 17:45:01.531738 10593 net.cpp:156] Memory required for data: 403791360
I0903 17:45:01.531746 10597 net.cpp:425] inception_4c/1x1 <- inception_4b/output_inception_4b/output_0_split_0
I0903 17:45:01.531755 10593 layer_factory.hpp:77] Creating layer inception_4b/output
…
I0903 17:45:01.633760 10597 net.cpp:141] Setting up inception_4e/relu_5x5_reduce
I0903 17:45:01.633779 10597 net.cpp:148] Top shape: 10 32 14 14 (62720)
I0903 17:45:01.633785 10597 net.cpp:156] Memory required for data: 506150400
I0903 17:45:01.633790 10597 layer_factory.hpp:77] Creating layer inception_4e/5x5
I0903 17:45:01.634253 10597 net.cpp:91] Creating Layer inception_4e/5x5
I0903 17:45:01.634265 10597 net.cpp:425] inception_4e/5x5 <- inception_4e/5x5_reduce
I0903 17:45:01.634276 10597 net.cpp:399] inception_4e/5x5 -> inception_4e/5x5
I0903 17:45:01.638612 10593 net.cpp:141] Setting up inception_4e/5x5
I0903 17:45:01.638633 10593 net.cpp:148] Top shape: 10 128 14 14 (250880)
I0903 17:45:01.638638 10593 net.cpp:156] Memory required for data: 507153920
I0903 17:45:01.638648 10593 layer_factory.hpp:77] Creating layer inception_4e/relu_5x5
I0903 17:45:01.638659 10593 net.cpp:91] Creating Layer inception_4e/relu_5x5
I0903 17:45:01.638666 10593 net.cpp:425] inception_4e/relu_5x5 <- inception_4e/5x5
I0903 17:45:01.638674 10593 net.cpp:386] inception_4e/relu_5x5 -> inception_4e/5x5 (in-place)
I0903 17:45:01.639071 10593 net.cpp:141] Setting up inception_4e/relu_5x5
I0903 17:45:01.639086 10593 net.cpp:148] Top shape: 10 128 14 14 (250880)
I0903 17:45:01.639091 10593 net.cpp:156] Memory required for data: 508157440
I0903 17:45:01.639096 10593 layer_factory.hpp:77] Creating layer inception_4e/pool
I0903 17:45:01.639111 10593 net.cpp:91] Creating Layer inception_4e/pool
I0903 17:45:01.639118 10593 net.cpp:425] inception_4e/pool <- inception_4d/output_inception_4d/output_0_split_3
I0903 17:45:01.639127 10593 net.cpp:399] inception_4e/pool -> inception_4e/pool
I0903 17:45:01.639477 10593 net.cpp:141] Setting up inception_4e/pool
I0903 17:45:01.639492 10593 net.cpp:148] Top shape: 10 528 14 14 (1034880)
I0903 17:45:01.639497 10593 net.cpp:156] Memory required for data: 512296960
I0903 17:45:01.639504 10593 layer_factory.hpp:77] Creating layer inception_4e/pool_proj
I0903 17:45:01.639521 10593 net.cpp:91] Creating Layer inception_4e/pool_proj
I0903 17:45:01.639528 10593 net.cpp:425] inception_4e/pool_proj <- inception_4e/pool
I0903 17:45:01.639540 10593 net.cpp:399] inception_4e/pool_proj -> inception_4e/pool_proj
I0903 17:45:01.640242 10597 net.cpp:141] Setting up inception_4e/5x5
I0903 17:45:01.640262 10597 net.cpp:148] Top shape: 10 128 14 14 (250880)
I0903 17:45:01.640269 10597 net.cpp:156] Memory required for data: 507153920
I0903 17:45:01.640278 10597 layer_factory.hpp:77] Creating layer inception_4e/relu_5x5
I0903 17:45:01.640290 10597 net.cpp:91] Creating Layer inception_4e/relu_5x5
I0903 17:45:01.640295 10597 net.cpp:425] inception_4e/relu_5x5 <- inception_4e/5x5
I0903 17:45:01.640306 10597 net.cpp:386] inception_4e/relu_5x5 -> inception_4e/5x5 (in-place)
I0903 17:45:01.640702 10597 net.cpp:141] Setting up inception_4e/relu_5x5
I0903 17:45:01.640717 10597 net.cpp:148] Top shape: 10 128 14 14 (250880)
I0903 17:45:01.640723 10597 net.cpp:156] Memory required for data: 508157440
I0903 17:45:01.640728 10597 layer_factory.hpp:77] Creating layer inception_4e/pool
I0903 17:45:01.640743 10597 net.cpp:91] Creating Layer inception_4e/pool
I0903 17:45:01.640749 10597 net.cpp:425] inception_4e/pool <- inception_4d/output_inception_4d/output_0_split_3
I0903 17:45:01.640758 10597 net.cpp:399] inception_4e/pool -> inception_4e/pool
I0903 17:45:01.640897 10597 net.cpp:141] Setting up inception_4e/pool
I0903 17:45:01.640908 10597 net.cpp:148] Top shape: 10 528 14 14 (1034880)
I0903 17:45:01.640913 10597 net.cpp:156] Memory required for data: 512296960
I0903 17:45:01.640918 10597 layer_factory.hpp:77] Creating layer inception_4e/pool_proj
I0903 17:45:01.640938 10597 net.cpp:91] Creating Layer inception_4e/pool_proj
I0903 17:45:01.640944 10597 net.cpp:425] inception_4e/pool_proj <- inception_4e/pool
I0903 17:45:01.640954 10597 net.cpp:399] inception_4e/pool_proj -> inception_4e/pool_proj
I0903 17:45:01.644187 10593 net.cpp:141] Setting up inception_4e/pool_proj
I0903 17:45:01.644207 10593 net.cpp:148] Top shape: 10 128 14 14 (250880)
I0903 17:45:01.644212 10593 net.cpp:156] Memory required for data: 513300480
I0903 17:45:01.644222 10593 layer_factory.hpp:77] Creating layer inception_4e/relu_pool_proj
I0903 17:45:01.644232 10593 net.cpp:91] Creating Layer inception_4e/relu_pool_proj
I0903 17:45:01.644239 10593 net.cpp:425] inception_4e/relu_pool_proj <- inception_4e/pool_proj
I0903 17:45:01.644250 10593 net.cpp:386] inception_4e/relu_pool_proj -> inception_4e/pool_proj (in-place)
I0903 17:45:01.644906 10593 net.cpp:141] Setting up inception_4e/relu_pool_proj
I0903 17:45:01.644923 10593 net.cpp:148] Top shape: 10 128 14 14 (250880)
I0903 17:45:01.644928 10593 net.cpp:156] Memory required for data: 514304000
I0903 17:45:01.644934 10593 layer_factory.hpp:77] Creating layer inception_4e/output
I0903 17:45:01.644945 10593 net.cpp:91] Creating Layer inception_4e/output
I0903 17:45:01.644951 10593 net.cpp:425] inception_4e/output <- inception_4e/1x1
I0903 17:45:01.644959 10593 net.cpp:425] inception_4e/output <- inception_4e/3x3
I0903 17:45:01.644965 10593 net.cpp:425] inception_4e/output <- inception_4e/5x5
I0903 17:45:01.644971 10593 net.cpp:425] inception_4e/output <- inception_4e/pool_proj
I0903 17:45:01.644981 10593 net.cpp:399] inception_4e/output -> inception_4e/output
I0903 17:45:01.645112 10593 net.cpp:141] Setting up inception_4e/output
I0903 17:45:01.645123 10593 net.cpp:148] Top shape: 10 832 14 14 (1630720)
I0903 17:45:01.645128 10593 net.cpp:156] Memory required for data: 520826880
I0903 17:45:01.645134 10593 layer_factory.hpp:77] Creating layer pool4/3x3_s2
I0903 17:45:01.645145 10593 net.cpp:91] Creating Layer pool4/3x3_s2
I0903 17:45:01.645151 10593 net.cpp:425] pool4/3x3_s2 <- inception_4e/output
I0903 17:45:01.645153 10597 net.cpp:141] Setting up inception_4e/pool_proj
I0903 17:45:01.645159 10593 net.cpp:399] pool4/3x3_s2 -> pool4/3x3_s2
I0903 17:45:01.645174 10597 net.cpp:148] Top shape: 10 128 14 14 (250880)
I0903 17:45:01.645179 10597 net.cpp:156] Memory required for data: 513300480
I0903 17:45:01.645190 10597 layer_factory.hpp:77] Creating layer inception_4e/relu_pool_proj
I0903 17:45:01.645200 10597 net.cpp:91] Creating Layer inception_4e/relu_pool_proj
I0903 17:45:01.645206 10597 net.cpp:425] inception_4e/relu_pool_proj <- inception_4e/pool_proj
I0903 17:45:01.645218 10597 net.cpp:386] inception_4e/relu_pool_proj -> inception_4e/pool_proj (in-place)
I0903 17:45:01.645644 10593 net.cpp:141] Setting up pool4/3x3_s2
I0903 17:45:01.645656 10593 net.cpp:148] Top shape: 10 832 7 7 (407680)
I0903 17:45:01.645661 10593 net.cpp:156] Memory required for data: 522457600
I0903 17:45:01.645666 10593 layer_factory.hpp:77] Creating layer pool4/3x3_s2_pool4/3x3_s2_0_split
I0903 17:45:01.645676 10593 net.cpp:91] Creating Layer pool4/3x3_s2_pool4/3x3_s2_0_split
I0903 17:45:01.645685 10593 net.cpp:425] pool4/3x3_s2_pool4/3x3_s2_0_split <- pool4/3x3_s2
I0903 17:45:01.645692 10593 net.cpp:399] pool4/3x3_s2_pool4/3x3_s2_0_split -> pool4/3x3_s2_pool4/3x3_s2_0_split_0
I0903 17:45:01.645701 10593 net.cpp:399] pool4/3x3_s2_pool4/3x3_s2_0_split -> pool4/3x3_s2_pool4/3x3_s2_0_split_1
I0903 17:45:01.645709 10593 net.cpp:399] pool4/3x3_s2_pool4/3x3_s2_0_split -> pool4/3x3_s2_pool4/3x3_s2_0_split_2
I0903 17:45:01.645719 10593 net.cpp:399] pool4/3x3_s2_pool4/3x3_s2_0_split -> pool4/3x3_s2_pool4/3x3_s2_0_split_3
I0903 17:45:01.645840 10597 net.cpp:141] Setting up inception_4e/relu_pool_proj
I0903 17:45:01.645855 10597 net.cpp:148] Top shape: 10 128 14 14 (250880)
I0903 17:45:01.645861 10597 net.cpp:156] Memory required for data: 514304000
I0903 17:45:01.645866 10597 layer_factory.hpp:77] Creating layer inception_4e/output
I0903 17:45:01.645876 10597 net.cpp:91] Creating Layer inception_4e/output
I0903 17:45:01.645884 10597 net.cpp:425] inception_4e/output <- inception_4e/1x1
I0903 17:45:01.645890 10597 net.cpp:425] inception_4e/output <- inception_4e/3x3
I0903 17:45:01.645896 10597 net.cpp:425] inception_4e/output <- inception_4e/5x5
I0903 17:45:01.645902 10597 net.cpp:425] inception_4e/output <- inception_4e/pool_proj
I0903 17:45:01.645913 10597 net.cpp:399] inception_4e/output -> inception_4e/output
I0903 17:45:01.646023 10593 net.cpp:141] Setting up pool4/3x3_s2_pool4/3x3_s2_0_split
I0903 17:45:01.646036 10593 net.cpp:148] Top shape: 10 832 7 7 (407680)
I0903 17:45:01.646044 10593 net.cpp:148] Top shape: 10 832 7 7 (407680)
I0903 17:45:01.646049 10593 net.cpp:148] Top shape: 10 832 7 7 (407680)
I0903 17:45:01.646054 10593 net.cpp:148] Top shape: 10 832 7 7 (407680)
I0903 17:45:01.646059 10593 net.cpp:156] Memory required for data: 528980480
I0903 17:45:01.646065 10593 layer_factory.hpp:77] Creating layer inception_5a/1x1
I0903 17:45:01.646060 10597 net.cpp:141] Setting up inception_4e/output
I0903 17:45:01.646088 10593 net.cpp:91] Creating Layer inception_5a/1x1
I0903 17:45:01.646091 10597 net.cpp:148] Top shape: 10 832 14 14 (1630720)
I0903 17:45:01.646096 10593 net.cpp:425] inception_5a/1x1 <- pool4/3x3_s2_pool4/3x3_s2_0_split_0
I0903 17:45:01.646102 10597 net.cpp:156] Memory required for data: 520826880
I0903 17:45:01.646106 10593 net.cpp:399] inception_5a/1x1 -> inception_5a/1x1
I0903 17:45:01.646112 10597 layer_factory.hpp:77] Creating layer pool4/3x3_s2
I0903 17:45:01.646134 10597 net.cpp:91] Creating Layer pool4/3x3_s2
I0903 17:45:01.646147 10597 net.cpp:425] pool4/3x3_s2 <- inception_4e/output
I0903 17:45:01.646162 10597 net.cpp:399] pool4/3x3_s2 -> pool4/3x3_s2
I0903 17:45:01.646531 10597 net.cpp:141] Setting up pool4/3x3_s2
I0903 17:45:01.646553 10597 net.cpp:148] Top shape: 10 832 7 7 (407680)
I0903 17:45:01.646562 10597 net.cpp:156] Memory required for data: 522457600
I0903 17:45:01.646572 10597 layer_factory.hpp:77] Creating layer pool4/3x3_s2_pool4/3x3_s2_0_split
I0903 17:45:01.646595 10597 net.cpp:91] Creating Layer pool4/3x3_s2_pool4/3x3_s2_0_split
I0903 17:45:01.646607 10597 net.cpp:425] pool4/3x3_s2_pool4/3x3_s2_0_split <- pool4/3x3_s2
I0903 17:45:01.646621 10597 net.cpp:399] pool4/3x3_s2_pool4/3x3_s2_0_split -> pool4/3x3_s2_pool4/3x3_s2_0_split_0
I0903 17:45:01.646639 10597 net.cpp:399] pool4/3x3_s2_pool4/3x3_s2_0_split -> pool4/3x3_s2_pool4/3x3_s2_0_split_1
I0903 17:45:01.646657 10597 net.cpp:399] pool4/3x3_s2_pool4/3x3_s2_0_split -> pool4/3x3_s2_pool4/3x3_s2_0_split_2
I0903 17:45:01.646679 10597 net.cpp:399] pool4/3x3_s2_pool4/3x3_s2_0_split -> pool4/3x3_s2_pool4/3x3_s2_0_split_3
I0903 17:45:01.648438 10597 net.cpp:141] Setting up pool4/3x3_s2_pool4/3x3_s2_0_split
I0903 17:45:01.648468 10597 net.cpp:148] Top shape: 10 832 7 7 (407680)
I0903 17:45:01.648483 10597 net.cpp:148] Top shape: 10 832 7 7 (407680)
I0903 17:45:01.648496 10597 net.cpp:148] Top shape: 10 832 7 7 (407680)
I0903 17:45:01.648507 10597 net.cpp:148] Top shape: 10 832 7 7 (407680)
I0903 17:45:01.648516 10597 net.cpp:156] Memory required for data: 528980480
I0903 17:45:01.648527 10597 layer_factory.hpp:77] Creating layer inception_5a/1x1
I0903 17:45:01.648558 10597 net.cpp:91] Creating Layer inception_5a/1x1
I0903 17:45:01.648572 10597 net.cpp:425] inception_5a/1x1 <- pool4/3x3_s2_pool4/3x3_s2_0_split_0
I0903 17:45:01.648591 10597 net.cpp:399] inception_5a/1x1 -> inception_5a/1x1
I0903 17:45:01.654132 10593 net.cpp:141] Setting up inception_5a/1x1
I0903 17:45:01.654167 10593 net.cpp:148] Top shape: 10 256 7 7 (125440)
I0903 17:45:01.654178 10593 net.cpp:156] Memory required for data: 529482240
I0903 17:45:01.654199 10593 layer_factory.hpp:77] Creating layer inception_5a/relu_1x1
I0903 17:45:01.654220 10593 net.cpp:91] Creating Layer inception_5a/relu_1x1
I0903 17:45:01.654235 10593 net.cpp:425] inception_5a/relu_1x1 <- inception_5a/1x1
I0903 17:45:01.654249 10593 net.cpp:386] inception_5a/relu_1x1 -> inception_5a/1x1 (in-place)
I0903 17:45:01.655019 10593 net.cpp:141] Setting up inception_5a/relu_1x1
I0903 17:45:01.655045 10593 net.cpp:148] Top shape: 10 256 7 7 (125440)
I0903 17:45:01.655055 10593 net.cpp:156] Memory required for data: 529984000
I0903 17:45:01.655064 10593 layer_factory.hpp:77] Creating layer inception_5a/3x3_reduce
I0903 17:45:01.655092 10593 net.cpp:91] Creating Layer inception_5a/3x3_reduce
I0903 17:45:01.655102 10593 net.cpp:425] inception_5a/3x3_reduce <- pool4/3x3_s2_pool4/3x3_s2_0_split_1
I0903 17:45:01.655125 10593 net.cpp:399] inception_5a/3x3_reduce -> inception_5a/3x3_reduce
I0903 17:45:01.658856 10597 net.cpp:141] Setting up inception_5a/1x1
I0903 17:45:01.658912 10597 net.cpp:148] Top shape: 10 256 7 7 (125440)
I0903 17:45:01.658923 10597 net.cpp:156] Memory required for data: 529482240
I0903 17:45:01.658948 10597 layer_factory.hpp:77] Creating layer inception_5a/relu_1x1
I0903 17:45:01.658977 10597 net.cpp:91] Creating Layer inception_5a/relu_1x1
I0903 17:45:01.658995 10597 net.cpp:425] inception_5a/relu_1x1 <- inception_5a/1x1
I0903 17:45:01.659013 10597 net.cpp:386] inception_5a/relu_1x1 -> inception_5a/1x1 (in-place)
I0903 17:45:01.660043 10597 net.cpp:141] Setting up inception_5a/relu_1x1
I0903 17:45:01.660068 10597 net.cpp:148] Top shape: 10 256 7 7 (125440)
I0903 17:45:01.660096 10597 net.cpp:156] Memory required for data: 529984000
I0903 17:45:01.660106 10597 layer_factory.hpp:77] Creating layer inception_5a/3x3_reduce
I0903 17:45:01.660143 10597 net.cpp:91] Creating Layer inception_5a/3x3_reduce
I0903 17:45:01.660157 10597 net.cpp:425] inception_5a/3x3_reduce <- pool4/3x3_s2_pool4/3x3_s2_0_split_1
I0903 17:45:01.660176 10597 net.cpp:399] inception_5a/3x3_reduce -> inception_5a/3x3_reduce
I0903 17:45:01.663812 10593 net.cpp:141] Setting up inception_5a/3x3_reduce
I0903 17:45:01.663843 10593 net.cpp:148] Top shape: 10 160 7 7 (78400)
I0903 17:45:01.663849 10593 net.cpp:156] Memory required for data: 530297600
I0903 17:45:01.663862 10593 layer_factory.hpp:77] Creating layer inception_5a/relu_3x3_reduce
I0903 17:45:01.663879 10593 net.cpp:91] Creating Layer inception_5a/relu_3x3_reduce
I0903 17:45:01.663889 10593 net.cpp:425] inception_5a/relu_3x3_reduce <- inception_5a/3x3_reduce
I0903 17:45:01.663899 10593 net.cpp:386] inception_5a/relu_3x3_reduce -> inception_5a/3x3_reduce (in-place)
I0903 17:45:01.664214 10593 net.cpp:141] Setting up inception_5a/relu_3x3_reduce
I0903 17:45:01.664228 10593 net.cpp:148] Top shape: 10 160 7 7 (78400)
I0903 17:45:01.664233 10593 net.cpp:156] Memory required for data: 530611200
I0903 17:45:01.664239 10593 layer_factory.hpp:77] Creating layer inception_5a/3x3
I0903 17:45:01.664260 10593 net.cpp:91] Creating Layer inception_5a/3x3
I0903 17:45:01.664268 10593 net.cpp:425] inception_5a/3x3 <- inception_5a/3x3_reduce
I0903 17:45:01.664279 10593 net.cpp:399] inception_5a/3x3 -> inception_5a/3x3
I0903 17:45:01.669077 10597 net.cpp:141] Setting up inception_5a/3x3_reduce
I0903 17:45:01.669107 10597 net.cpp:148] Top shape: 10 160 7 7 (78400)
I0903 17:45:01.669118 10597 net.cpp:156] Memory required for data: 530297600
I0903 17:45:01.669139 10597 layer_factory.hpp:77] Creating layer inception_5a/relu_3x3_reduce
I0903 17:45:01.669157 10597 net.cpp:91] Creating Layer inception_5a/relu_3x3_reduce
I0903 17:45:01.669170 10597 net.cpp:425] inception_5a/relu_3x3_reduce <- inception_5a/3x3_reduce
I0903 17:45:01.669189 10597 net.cpp:386] inception_5a/relu_3x3_reduce -> inception_5a/3x3_reduce (in-place)
I0903 17:45:01.669626 10597 net.cpp:141] Setting up inception_5a/relu_3x3_reduce
I0903 17:45:01.669651 10597 net.cpp:148] Top shape: 10 160 7 7 (78400)
I0903 17:45:01.669659 10597 net.cpp:156] Memory required for data: 530611200
I0903 17:45:01.669669 10597 layer_factory.hpp:77] Creating layer inception_5a/3x3
I0903 17:45:01.669695 10597 net.cpp:91] Creating Layer inception_5a/3x3
I0903 17:45:01.669706 10597 net.cpp:425] inception_5a/3x3 <- inception_5a/3x3_reduce
I0903 17:45:01.669728 10597 net.cpp:399] inception_5a/3x3 -> inception_5a/3x3
I0903 17:45:01.674991 10593 net.cpp:141] Setting up inception_5a/3x3
I0903 17:45:01.675016 10593 net.cpp:148] Top shape: 10 320 7 7 (156800)
I0903 17:45:01.675022 10593 net.cpp:156] Memory required for data: 531238400
I0903 17:45:01.675038 10593 layer_factory.hpp:77] Creating layer inception_5a/relu_3x3
I0903 17:45:01.675050 10593 net.cpp:91] Creating Layer inception_5a/relu_3x3
I0903 17:45:01.675057 10593 net.cpp:425] inception_5a/relu_3x3 <- inception_5a/3x3
I0903 17:45:01.675065 10593 net.cpp:386] inception_5a/relu_3x3 -> inception_5a/3x3 (in-place)
I0903 17:45:01.675575 10593 net.cpp:141] Setting up inception_5a/relu_3x3
I0903 17:45:01.675596 10593 net.cpp:148] Top shape: 10 320 7 7 (156800)
I0903 17:45:01.675601 10593 net.cpp:156] Memory required for data: 531865600
I0903 17:45:01.675607 10593 layer_factory.hpp:77] Creating layer inception_5a/5x5_reduce
I0903 17:45:01.675627 10593 net.cpp:91] Creating Layer inception_5a/5x5_reduce
I0903 17:45:01.675635 10593 net.cpp:425] inception_5a/5x5_reduce <- pool4/3x3_s2_pool4/3x3_s2_0_split_2
I0903 17:45:01.675645 10593 net.cpp:399] inception_5a/5x5_reduce -> inception_5a/5x5_reduce
I0903 17:45:01.678072 10593 net.cpp:141] Setting up inception_5a/5x5_reduce
I0903 17:45:01.678093 10593 net.cpp:148] Top shape: 10 32 7 7 (15680)
I0903 17:45:01.678099 10593 net.cpp:156] Memory required for data: 531928320
I0903 17:45:01.678110 10593 layer_factory.hpp:77] Creating layer inception_5a/relu_5x5_reduce
I0903 17:45:01.678124 10593 net.cpp:91] Creating Layer inception_5a/relu_5x5_reduce
I0903 17:45:01.678131 10593 net.cpp:425] inception_5a/relu_5x5_reduce <- inception_5a/5x5_reduce
I0903 17:45:01.678139 10593 net.cpp:386] inception_5a/relu_5x5_reduce -> inception_5a/5x5_reduce (in-place)
I0903 17:45:01.678757 10593 net.cpp:141] Setting up inception_5a/relu_5x5_reduce
I0903 17:45:01.678772 10593 net.cpp:148] Top shape: 10 32 7 7 (15680)
I0903 17:45:01.678777 10593 net.cpp:156] Memory required for data: 531991040
I0903 17:45:01.678783 10593 layer_factory.hpp:77] Creating layer inception_5a/5x5
I0903 17:45:01.678804 10593 net.cpp:91] Creating Layer inception_5a/5x5
I0903 17:45:01.678812 10593 net.cpp:425] inception_5a/5x5 <- inception_5a/5x5_reduce
I0903 17:45:01.678822 10593 net.cpp:399] inception_5a/5x5 -> inception_5a/5x5
I0903 17:45:01.682538 10597 net.cpp:141] Setting up inception_5a/3x3
I0903 17:45:01.682570 10597 net.cpp:148] Top shape: 10 320 7 7 (156800)
I0903 17:45:01.682582 10597 net.cpp:156] Memory required for data: 531238400
I0903 17:45:01.682603 10597 layer_factory.hpp:77] Creating layer inception_5a/relu_3x3
I0903 17:45:01.682629 10597 net.cpp:91] Creating Layer inception_5a/relu_3x3
I0903 17:45:01.682646 10597 net.cpp:425] inception_5a/relu_3x3 <- inception_5a/3x3
I0903 17:45:01.682662 10597 net.cpp:386] inception_5a/relu_3x3 -> inception_5a/3x3 (in-place)
I0903 17:45:01.683547 10597 net.cpp:141] Setting up inception_5a/relu_3x3
I0903 17:45:01.683570 10597 net.cpp:148] Top shape: 10 320 7 7 (156800)
I0903 17:45:01.683580 10597 net.cpp:156] Memory required for data: 531865600
I0903 17:45:01.683590 10597 layer_factory.hpp:77] Creating layer inception_5a/5x5_reduce
I0903 17:45:01.683626 10597 net.cpp:91] Creating Layer inception_5a/5x5_reduce
I0903 17:45:01.683642 10597 net.cpp:425] inception_5a/5x5_reduce <- pool4/3x3_s2_pool4/3x3_s2_0_split_2
I0903 17:45:01.683665 10597 net.cpp:399] inception_5a/5x5_reduce -> inception_5a/5x5_reduce
I0903 17:45:01.686189 10593 net.cpp:141] Setting up inception_5a/5x5
I0903 17:45:01.686211 10593 net.cpp:148] Top shape: 10 128 7 7 (62720)
I0903 17:45:01.686218 10593 net.cpp:156] Memory required for data: 532241920
I0903 17:45:01.686229 10593 layer_factory.hpp:77] Creating layer inception_5a/relu_5x5
I0903 17:45:01.686269 10593 net.cpp:91] Creating Layer inception_5a/relu_5x5
I0903 17:45:01.686278 10593 net.cpp:425] inception_5a/relu_5x5 <- inception_5a/5x5
I0903 17:45:01.686286 10593 net.cpp:386] inception_5a/relu_5x5 -> inception_5a/5x5 (in-place)
I0903 17:45:01.686599 10593 net.cpp:141] Setting up inception_5a/relu_5x5
I0903 17:45:01.686614 10593 net.cpp:148] Top shape: 10 128 7 7 (62720)
I0903 17:45:01.686619 10593 net.cpp:156] Memory required for data: 532492800
I0903 17:45:01.686625 10593 layer_factory.hpp:77] Creating layer inception_5a/pool
I0903 17:45:01.686650 10593 net.cpp:91] Creating Layer inception_5a/pool
I0903 17:45:01.686660 10593 net.cpp:425] inception_5a/pool <- pool4/3x3_s2_pool4/3x3_s2_0_split_3
I0903 17:45:01.686671 10593 net.cpp:399] inception_5a/pool -> inception_5a/pool
I0903 17:45:01.686905 10593 net.cpp:141] Setting up inception_5a/pool
I0903 17:45:01.686918 10593 net.cpp:148] Top shape: 10 832 7 7 (407680)
I0903 17:45:01.686923 10593 net.cpp:156] Memory required for data: 534123520
I0903 17:45:01.686928 10593 layer_factory.hpp:77] Creating layer inception_5a/pool_proj
I0903 17:45:01.686950 10593 net.cpp:91] Creating Layer inception_5a/pool_proj
I0903 17:45:01.686956 10593 net.cpp:425] inception_5a/pool_proj <- inception_5a/pool
I0903 17:45:01.686966 10593 net.cpp:399] inception_5a/pool_proj -> inception_5a/pool_proj
I0903 17:45:01.689383 10597 net.cpp:141] Setting up inception_5a/5x5_reduce
I0903 17:45:01.689409 10597 net.cpp:148] Top shape: 10 32 7 7 (15680)
I0903 17:45:01.689419 10597 net.cpp:156] Memory required for data: 531928320
I0903 17:45:01.689438 10597 layer_factory.hpp:77] Creating layer inception_5a/relu_5x5_reduce
I0903 17:45:01.689455 10597 net.cpp:91] Creating Layer inception_5a/relu_5x5_reduce
I0903 17:45:01.689468 10597 net.cpp:425] inception_5a/relu_5x5_reduce <- inception_5a/5x5_reduce
I0903 17:45:01.689484 10597 net.cpp:386] inception_5a/relu_5x5_reduce -> inception_5a/5x5_reduce (in-place)
I0903 17:45:01.690279 10597 net.cpp:141] Setting up inception_5a/relu_5x5_reduce
I0903 17:45:01.690300 10597 net.cpp:148] Top shape: 10 32 7 7 (15680)
I0903 17:45:01.690310 10597 net.cpp:156] Memory required for data: 531991040
I0903 17:45:01.690321 10597 layer_factory.hpp:77] Creating layer inception_5a/5x5
I0903 17:45:01.690351 10597 net.cpp:91] Creating Layer inception_5a/5x5
I0903 17:45:01.690366 10597 net.cpp:425] inception_5a/5x5 <- inception_5a/5x5_reduce
I0903 17:45:01.690392 10597 net.cpp:399] inception_5a/5x5 -> inception_5a/5x5
I0903 17:45:01.692440 10593 net.cpp:141] Setting up inception_5a/pool_proj
I0903 17:45:01.692461 10593 net.cpp:148] Top shape: 10 128 7 7 (62720)
I0903 17:45:01.692466 10593 net.cpp:156] Memory required for data: 534374400
I0903 17:45:01.692477 10593 layer_factory.hpp:77] Creating layer inception_5a/relu_pool_proj
I0903 17:45:01.692487 10593 net.cpp:91] Creating Layer inception_5a/relu_pool_proj
I0903 17:45:01.692493 10593 net.cpp:425] inception_5a/relu_pool_proj <- inception_5a/pool_proj
I0903 17:45:01.692505 10593 net.cpp:386] inception_5a/relu_pool_proj -> inception_5a/pool_proj (in-place)
I0903 17:45:01.693007 10593 net.cpp:141] Setting up inception_5a/relu_pool_proj
I0903 17:45:01.693025 10593 net.cpp:148] Top shape: 10 128 7 7 (62720)
I0903 17:45:01.693032 10593 net.cpp:156] Memory required for data: 534625280
I0903 17:45:01.693037 10593 layer_factory.hpp:77] Creating layer inception_5a/output
I0903 17:45:01.693047 10593 net.cpp:91] Creating Layer inception_5a/output
I0903 17:45:01.693053 10593 net.cpp:425] inception_5a/output <- inception_5a/1x1
I0903 17:45:01.693063 10593 net.cpp:425] inception_5a/output <- inception_5a/3x3
I0903 17:45:01.693068 10593 net.cpp:425] inception_5a/output <- inception_5a/5x5
I0903 17:45:01.693074 10593 net.cpp:425] inception_5a/output <- inception_5a/pool_proj
I0903 17:45:01.693084 10593 net.cpp:399] inception_5a/output -> inception_5a/output
I0903 17:45:01.693238 10593 net.cpp:141] Setting up inception_5a/output
I0903 17:45:01.693251 10593 net.cpp:148] Top shape: 10 832 7 7 (407680)
I0903 17:45:01.693256 10593 net.cpp:156] Memory required for data: 536256000
I0903 17:45:01.693262 10593 layer_factory.hpp:77] Creating layer inception_5a/output_inception_5a/output_0_split
I0903 17:45:01.693279 10593 net.cpp:91] Creating Layer inception_5a/output_inception_5a/output_0_split
I0903 17:45:01.693284 10593 net.cpp:425] inception_5a/output_inception_5a/output_0_split <- inception_5a/output
I0903 17:45:01.693292 10593 net.cpp:399] inception_5a/output_inception_5a/output_0_split -> inception_5a/output_inception_5a/output_0_split_0
I0903 17:45:01.693302 10593 net.cpp:399] inception_5a/output_inception_5a/output_0_split -> inception_5a/output_inception_5a/output_0_split_1
I0903 17:45:01.693315 10593 net.cpp:399] inception_5a/output_inception_5a/output_0_split -> inception_5a/output_inception_5a/output_0_split_2
I0903 17:45:01.693323 10593 net.cpp:399] inception_5a/output_inception_5a/output_0_split -> inception_5a/output_inception_5a/output_0_split_3
I0903 17:45:01.694238 10593 net.cpp:141] Setting up inception_5a/output_inception_5a/output_0_split
I0903 17:45:01.694252 10593 net.cpp:148] Top shape: 10 832 7 7 (407680)
I0903 17:45:01.694257 10593 net.cpp:148] Top shape: 10 832 7 7 (407680)
I0903 17:45:01.694268 10593 net.cpp:148] Top shape: 10 832 7 7 (407680)
I0903 17:45:01.694279 10593 net.cpp:148] Top shape: 10 832 7 7 (407680)
I0903 17:45:01.694288 10593 net.cpp:156] Memory required for data: 542778880
I0903 17:45:01.694298 10593 layer_factory.hpp:77] Creating layer inception_5b/1x1
I0903 17:45:01.694319 10593 net.cpp:91] Creating Layer inception_5b/1x1
I0903 17:45:01.694326 10593 net.cpp:425] inception_5b/1x1 <- inception_5a/output_inception_5a/output_0_split_0
I0903 17:45:01.694335 10593 net.cpp:399] inception_5b/1x1 -> inception_5b/1x1
I0903 17:45:01.697726 10597 net.cpp:141] Setting up inception_5a/5x5
I0903 17:45:01.697772 10597 net.cpp:148] Top shape: 10 128 7 7 (62720)
I0903 17:45:01.697782 10597 net.cpp:156] Memory required for data: 532241920
I0903 17:45:01.697804 10597 layer_factory.hpp:77] Creating layer inception_5a/relu_5x5
I0903 17:45:01.697868 10597 net.cpp:91] Creating Layer inception_5a/relu_5x5
I0903 17:45:01.697887 10597 net.cpp:425] inception_5a/relu_5x5 <- inception_5a/5x5
I0903 17:45:01.697904 10597 net.cpp:386] inception_5a/relu_5x5 -> inception_5a/5x5 (in-place)
I0903 17:45:01.698520 10597 net.cpp:141] Setting up inception_5a/relu_5x5
I0903 17:45:01.698541 10597 net.cpp:148] Top shape: 10 128 7 7 (62720)
I0903 17:45:01.698552 10597 net.cpp:156] Memory required for data: 532492800
I0903 17:45:01.698565 10597 layer_factory.hpp:77] Creating layer inception_5a/pool
I0903 17:45:01.698586 10597 net.cpp:91] Creating Layer inception_5a/pool
I0903 17:45:01.698601 10597 net.cpp:425] inception_5a/pool <- pool4/3x3_s2_pool4/3x3_s2_0_split_3
I0903 17:45:01.698640 10597 net.cpp:399] inception_5a/pool -> inception_5a/pool
I0903 17:45:01.698928 10597 net.cpp:141] Setting up inception_5a/pool
I0903 17:45:01.698951 10597 net.cpp:148] Top shape: 10 832 7 7 (407680)
I0903 17:45:01.698959 10597 net.cpp:156] Memory required for data: 534123520
I0903 17:45:01.698972 10597 layer_factory.hpp:77] Creating layer inception_5a/pool_proj
I0903 17:45:01.699015 10597 net.cpp:91] Creating Layer inception_5a/pool_proj
I0903 17:45:01.699033 10597 net.cpp:425] inception_5a/pool_proj <- inception_5a/pool
I0903 17:45:01.699059 10597 net.cpp:399] inception_5a/pool_proj -> inception_5a/pool_proj
I0903 17:45:01.704926 10597 net.cpp:141] Setting up inception_5a/pool_proj
I0903 17:45:01.704946 10593 net.cpp:141] Setting up inception_5b/1x1
I0903 17:45:01.704964 10597 net.cpp:148] Top shape: 10 128 7 7 (62720)
I0903 17:45:01.704969 10593 net.cpp:148] Top shape: 10 384 7 7 (188160)
I0903 17:45:01.704974 10597 net.cpp:156] Memory required for data: 534374400
I0903 17:45:01.704979 10593 net.cpp:156] Memory required for data: 543531520
I0903 17:45:01.704996 10597 layer_factory.hpp:77] Creating layer inception_5a/relu_pool_proj
I0903 17:45:01.704998 10593 layer_factory.hpp:77] Creating layer inception_5b/relu_1x1
I0903 17:45:01.705018 10597 net.cpp:91] Creating Layer inception_5a/relu_pool_proj
I0903 17:45:01.705023 10593 net.cpp:91] Creating Layer inception_5b/relu_1x1
I0903 17:45:01.705034 10597 net.cpp:425] inception_5a/relu_pool_proj <- inception_5a/pool_proj
I0903 17:45:01.705037 10593 net.cpp:425] inception_5b/relu_1x1 <- inception_5b/1x1
I0903 17:45:01.705050 10597 net.cpp:386] inception_5a/relu_pool_proj -> inception_5a/pool_proj (in-place)
I0903 17:45:01.705051 10593 net.cpp:386] inception_5b/relu_1x1 -> inception_5b/1x1 (in-place)
I0903 17:45:01.705790 10593 net.cpp:141] Setting up inception_5b/relu_1x1
I0903 17:45:01.705811 10593 net.cpp:148] Top shape: 10 384 7 7 (188160)
I0903 17:45:01.705819 10593 net.cpp:156] Memory required for data: 544284160
I0903 17:45:01.705828 10593 layer_factory.hpp:77] Creating layer inception_5b/3x3_reduce
I0903 17:45:01.705858 10593 net.cpp:91] Creating Layer inception_5b/3x3_reduce
I0903 17:45:01.705870 10593 net.cpp:425] inception_5b/3x3_reduce <- inception_5a/output_inception_5a/output_0_split_1
I0903 17:45:01.705881 10597 net.cpp:141] Setting up inception_5a/relu_pool_proj
I0903 17:45:01.705888 10593 net.cpp:399] inception_5b/3x3_reduce -> inception_5b/3x3_reduce
I0903 17:45:01.705909 10597 net.cpp:148] Top shape: 10 128 7 7 (62720)
I0903 17:45:01.705924 10597 net.cpp:156] Memory required for data: 534625280
I0903 17:45:01.705935 10597 layer_factory.hpp:77] Creating layer inception_5a/output
I0903 17:45:01.705955 10597 net.cpp:91] Creating Layer inception_5a/output
I0903 17:45:01.705970 10597 net.cpp:425] inception_5a/output <- inception_5a/1x1
I0903 17:45:01.705984 10597 net.cpp:425] inception_5a/output <- inception_5a/3x3
I0903 17:45:01.705997 10597 net.cpp:425] inception_5a/output <- inception_5a/5x5
I0903 17:45:01.706012 10597 net.cpp:425] inception_5a/output <- inception_5a/pool_proj
I0903 17:45:01.706027 10597 net.cpp:399] inception_5a/output -> inception_5a/output
I0903 17:45:01.706287 10597 net.cpp:141] Setting up inception_5a/output
I0903 17:45:01.706308 10597 net.cpp:148] Top shape: 10 832 7 7 (407680)
I0903 17:45:01.706320 10597 net.cpp:156] Memory required for data: 536256000
I0903 17:45:01.706331 10597 layer_factory.hpp:77] Creating layer inception_5a/output_inception_5a/output_0_split
I0903 17:45:01.706348 10597 net.cpp:91] Creating Layer inception_5a/output_inception_5a/output_0_split
I0903 17:45:01.706360 10597 net.cpp:425] inception_5a/output_inception_5a/output_0_split <- inception_5a/output
I0903 17:45:01.706377 10597 net.cpp:399] inception_5a/output_inception_5a/output_0_split -> inception_5a/output_inception_5a/output_0_split_0
I0903 17:45:01.706396 10597 net.cpp:399] inception_5a/output_inception_5a/output_0_split -> inception_5a/output_inception_5a/output_0_split_1
I0903 17:45:01.706423 10597 net.cpp:399] inception_5a/output_inception_5a/output_0_split -> inception_5a/output_inception_5a/output_0_split_2
I0903 17:45:01.706444 10597 net.cpp:399] inception_5a/output_inception_5a/output_0_split -> inception_5a/output_inception_5a/output_0_split_3
I0903 17:45:01.708044 10597 net.cpp:141] Setting up inception_5a/output_inception_5a/output_0_split
I0903 17:45:01.708065 10597 net.cpp:148] Top shape: 10 832 7 7 (407680)
I0903 17:45:01.708088 10597 net.cpp:148] Top shape: 10 832 7 7 (407680)
I0903 17:45:01.708102 10597 net.cpp:148] Top shape: 10 832 7 7 (407680)
I0903 17:45:01.708114 10597 net.cpp:148] Top shape: 10 832 7 7 (407680)
I0903 17:45:01.708123 10597 net.cpp:156] Memory required for data: 542778880
I0903 17:45:01.708134 10597 layer_factory.hpp:77] Creating layer inception_5b/1x1
I0903 17:45:01.708163 10597 net.cpp:91] Creating Layer inception_5b/1x1
I0903 17:45:01.708178 10597 net.cpp:425] inception_5b/1x1 <- inception_5a/output_inception_5a/output_0_split_0
I0903 17:45:01.708201 10597 net.cpp:399] inception_5b/1x1 -> inception_5b/1x1
I0903 17:45:01.713222 10593 net.cpp:141] Setting up inception_5b/3x3_reduce
I0903 17:45:01.713248 10593 net.cpp:148] Top shape: 10 192 7 7 (94080)
I0903 17:45:01.713258 10593 net.cpp:156] Memory required for data: 544660480
I0903 17:45:01.713274 10593 layer_factory.hpp:77] Creating layer inception_5b/relu_3x3_reduce
I0903 17:45:01.713294 10593 net.cpp:91] Creating Layer inception_5b/relu_3x3_reduce
I0903 17:45:01.713305 10593 net.cpp:425] inception_5b/relu_3x3_reduce <- inception_5b/3x3_reduce
I0903 17:45:01.713318 10593 net.cpp:386] inception_5b/relu_3x3_reduce -> inception_5b/3x3_reduce (in-place)
I0903 17:45:01.713858 10593 net.cpp:141] Setting up inception_5b/relu_3x3_reduce
I0903 17:45:01.713881 10593 net.cpp:148] Top shape: 10 192 7 7 (94080)
I0903 17:45:01.713891 10593 net.cpp:156] Memory required for data: 545036800
I0903 17:45:01.713898 10593 layer_factory.hpp:77] Creating layer inception_5b/3x3
I0903 17:45:01.713925 10593 net.cpp:91] Creating Layer inception_5b/3x3
I0903 17:45:01.713937 10593 net.cpp:425] inception_5b/3x3 <- inception_5b/3x3_reduce
I0903 17:45:01.713956 10593 net.cpp:399] inception_5b/3x3 -> inception_5b/3x3
I0903 17:45:01.718209 10597 net.cpp:141] Setting up inception_5b/1x1
I0903 17:45:01.718238 10597 net.cpp:148] Top shape: 10 384 7 7 (188160)
I0903 17:45:01.718250 10597 net.cpp:156] Memory required for data: 543531520
I0903 17:45:01.718271 10597 layer_factory.hpp:77] Creating layer inception_5b/relu_1x1
I0903 17:45:01.718289 10597 net.cpp:91] Creating Layer inception_5b/relu_1x1
I0903 17:45:01.718304 10597 net.cpp:425] inception_5b/relu_1x1 <- inception_5b/1x1
I0903 17:45:01.718319 10597 net.cpp:386] inception_5b/relu_1x1 -> inception_5b/1x1 (in-place)
I0903 17:45:01.719005 10597 net.cpp:141] Setting up inception_5b/relu_1x1
I0903 17:45:01.719028 10597 net.cpp:148] Top shape: 10 384 7 7 (188160)
I0903 17:45:01.719038 10597 net.cpp:156] Memory required for data: 544284160
I0903 17:45:01.719049 10597 layer_factory.hpp:77] Creating layer inception_5b/3x3_reduce
I0903 17:45:01.719080 10597 net.cpp:91] Creating Layer inception_5b/3x3_reduce
I0903 17:45:01.719096 10597 net.cpp:425] inception_5b/3x3_reduce <- inception_5a/output_inception_5a/output_0_split_1
I0903 17:45:01.719116 10597 net.cpp:399] inception_5b/3x3_reduce -> inception_5b/3x3_reduce
I0903 17:45:01.724148 10597 net.cpp:141] Setting up inception_5b/3x3_reduce
I0903 17:45:01.724175 10597 net.cpp:148] Top shape: 10 192 7 7 (94080)
I0903 17:45:01.724186 10597 net.cpp:156] Memory required for data: 544660480
I0903 17:45:01.724205 10597 layer_factory.hpp:77] Creating layer inception_5b/relu_3x3_reduce
I0903 17:45:01.724223 10597 net.cpp:91] Creating Layer inception_5b/relu_3x3_reduce
I0903 17:45:01.724236 10597 net.cpp:425] inception_5b/relu_3x3_reduce <- inception_5b/3x3_reduce
I0903 17:45:01.724251 10597 net.cpp:386] inception_5b/relu_3x3_reduce -> inception_5b/3x3_reduce (in-place)
I0903 17:45:01.724764 10597 net.cpp:141] Setting up inception_5b/relu_3x3_reduce
I0903 17:45:01.724788 10597 net.cpp:148] Top shape: 10 192 7 7 (94080)
I0903 17:45:01.724799 10597 net.cpp:156] Memory required for data: 545036800
I0903 17:45:01.724809 10597 layer_factory.hpp:77] Creating layer inception_5b/3x3
I0903 17:45:01.724839 10597 net.cpp:91] Creating Layer inception_5b/3x3
I0903 17:45:01.724853 10597 net.cpp:425] inception_5b/3x3 <- inception_5b/3x3_reduce
I0903 17:45:01.724879 10597 net.cpp:399] inception_5b/3x3 -> inception_5b/3x3
I0903 17:45:01.730056 10593 net.cpp:141] Setting up inception_5b/3x3
I0903 17:45:01.730085 10593 net.cpp:148] Top shape: 10 384 7 7 (188160)
I0903 17:45:01.730094 10593 net.cpp:156] Memory required for data: 545789440
I0903 17:45:01.730113 10593 layer_factory.hpp:77] Creating layer inception_5b/relu_3x3
I0903 17:45:01.730131 10593 net.cpp:91] Creating Layer inception_5b/relu_3x3
I0903 17:45:01.730144 10593 net.cpp:425] inception_5b/relu_3x3 <- inception_5b/3x3
I0903 17:45:01.730156 10593 net.cpp:386] inception_5b/relu_3x3 -> inception_5b/3x3 (in-place)
I0903 17:45:01.730834 10593 net.cpp:141] Setting up inception_5b/relu_3x3
I0903 17:45:01.730859 10593 net.cpp:148] Top shape: 10 384 7 7 (188160)
I0903 17:45:01.730867 10593 net.cpp:156] Memory required for data: 546542080
I0903 17:45:01.730877 10593 layer_factory.hpp:77] Creating layer inception_5b/5x5_reduce
I0903 17:45:01.730901 10593 net.cpp:91] Creating Layer inception_5b/5x5_reduce
I0903 17:45:01.730913 10593 net.cpp:425] inception_5b/5x5_reduce <- inception_5a/output_inception_5a/output_0_split_2
I0903 17:45:01.730934 10593 net.cpp:399] inception_5b/5x5_reduce -> inception_5b/5x5_reduce
I0903 17:45:01.734562 10593 net.cpp:141] Setting up inception_5b/5x5_reduce
I0903 17:45:01.734588 10593 net.cpp:148] Top shape: 10 48 7 7 (23520)
I0903 17:45:01.734594 10593 net.cpp:156] Memory required for data: 546636160
I0903 17:45:01.734606 10593 layer_factory.hpp:77] Creating layer inception_5b/relu_5x5_reduce
I0903 17:45:01.734622 10593 net.cpp:91] Creating Layer inception_5b/relu_5x5_reduce
I0903 17:45:01.734629 10593 net.cpp:425] inception_5b/relu_5x5_reduce <- inception_5b/5x5_reduce
I0903 17:45:01.734638 10593 net.cpp:386] inception_5b/relu_5x5_reduce -> inception_5b/5x5_reduce (in-place)
I0903 17:45:01.735239 10593 net.cpp:141] Setting up inception_5b/relu_5x5_reduce
I0903 17:45:01.735254 10593 net.cpp:148] Top shape: 10 48 7 7 (23520)
I0903 17:45:01.735260 10593 net.cpp:156] Memory required for data: 546730240
I0903 17:45:01.735265 10593 layer_factory.hpp:77] Creating layer inception_5b/5x5
I0903 17:45:01.735285 10593 net.cpp:91] Creating Layer inception_5b/5x5
I0903 17:45:01.735292 10593 net.cpp:425] inception_5b/5x5 <- inception_5b/5x5_reduce
I0903 17:45:01.735304 10593 net.cpp:399] inception_5b/5x5 -> inception_5b/5x5
I0903 17:45:01.736747 10597 net.cpp:141] Setting up inception_5b/3x3
I0903 17:45:01.736776 10597 net.cpp:148] Top shape: 10 384 7 7 (188160)
I0903 17:45:01.736786 10597 net.cpp:156] Memory required for data: 545789440
I0903 17:45:01.736809 10597 layer_factory.hpp:77] Creating layer inception_5b/relu_3x3
I0903 17:45:01.736834 10597 net.cpp:91] Creating Layer inception_5b/relu_3x3
I0903 17:45:01.736850 10597 net.cpp:425] inception_5b/relu_3x3 <- inception_5b/3x3
I0903 17:45:01.736867 10597 net.cpp:386] inception_5b/relu_3x3 -> inception_5b/3x3 (in-place)
I0903 17:45:01.737563 10597 net.cpp:141] Setting up inception_5b/relu_3x3
I0903 17:45:01.737586 10597 net.cpp:148] Top shape: 10 384 7 7 (188160)
I0903 17:45:01.737596 10597 net.cpp:156] Memory required for data: 546542080
I0903 17:45:01.737607 10597 layer_factory.hpp:77] Creating layer inception_5b/5x5_reduce
I0903 17:45:01.737640 10597 net.cpp:91] Creating Layer inception_5b/5x5_reduce
I0903 17:45:01.737655 10597 net.cpp:425] inception_5b/5x5_reduce <- inception_5a/output_inception_5a/output_0_split_2
I0903 17:45:01.737676 10597 net.cpp:399] inception_5b/5x5_reduce -> inception_5b/5x5_reduce
I0903 17:45:01.745535 10593 net.cpp:141] Setting up inception_5b/5x5
I0903 17:45:01.745587 10593 net.cpp:148] Top shape: 10 128 7 7 (62720)
I0903 17:45:01.745597 10593 net.cpp:156] Memory required for data: 546981120
I0903 17:45:01.745621 10593 layer_factory.hpp:77] Creating layer inception_5b/relu_5x5
I0903 17:45:01.745645 10593 net.cpp:91] Creating Layer inception_5b/relu_5x5
I0903 17:45:01.745658 10593 net.cpp:425] inception_5b/relu_5x5 <- inception_5b/5x5
I0903 17:45:01.746212 10593 net.cpp:386] inception_5b/relu_5x5 -> inception_5b/5x5 (in-place)
I0903 17:45:01.746742 10597 net.cpp:141] Setting up inception_5b/5x5_reduce
I0903 17:45:01.746772 10597 net.cpp:148] Top shape: 10 48 7 7 (23520)
I0903 17:45:01.746783 10597 net.cpp:156] Memory required for data: 546636160
I0903 17:45:01.746790 10593 net.cpp:141] Setting up inception_5b/relu_5x5
I0903 17:45:01.746806 10597 layer_factory.hpp:77] Creating layer inception_5b/relu_5x5_reduce
I0903 17:45:01.746812 10593 net.cpp:148] Top shape: 10 128 7 7 (62720)
I0903 17:45:01.746821 10593 net.cpp:156] Memory required for data: 547232000
I0903 17:45:01.746825 10597 net.cpp:91] Creating Layer inception_5b/relu_5x5_reduce
I0903 17:45:01.746831 10593 layer_factory.hpp:77] Creating layer inception_5b/pool
I0903 17:45:01.746845 10597 net.cpp:425] inception_5b/relu_5x5_reduce <- inception_5b/5x5_reduce
I0903 17:45:01.746848 10593 net.cpp:91] Creating Layer inception_5b/pool
I0903 17:45:01.746860 10593 net.cpp:425] inception_5b/pool <- inception_5a/output_inception_5a/output_0_split_3
I0903 17:45:01.746865 10597 net.cpp:386] inception_5b/relu_5x5_reduce -> inception_5b/5x5_reduce (in-place)
I0903 17:45:01.746875 10593 net.cpp:399] inception_5b/pool -> inception_5b/pool
I0903 17:45:01.747835 10593 net.cpp:141] Setting up inception_5b/pool
I0903 17:45:01.747869 10593 net.cpp:148] Top shape: 10 832 7 7 (407680)
I0903 17:45:01.747869 10597 net.cpp:141] Setting up inception_5b/relu_5x5_reduce
I0903 17:45:01.747879 10593 net.cpp:156] Memory required for data: 548862720
I0903 17:45:01.747889 10593 layer_factory.hpp:77] Creating layer inception_5b/pool_proj
I0903 17:45:01.747892 10597 net.cpp:148] Top shape: 10 48 7 7 (23520)
I0903 17:45:01.747905 10597 net.cpp:156] Memory required for data: 546730240
I0903 17:45:01.747916 10597 layer_factory.hpp:77] Creating layer inception_5b/5x5
I0903 17:45:01.747931 10593 net.cpp:91] Creating Layer inception_5b/pool_proj
I0903 17:45:01.747946 10593 net.cpp:425] inception_5b/pool_proj <- inception_5b/pool
I0903 17:45:01.747946 10597 net.cpp:91] Creating Layer inception_5b/5x5
I0903 17:45:01.747963 10597 net.cpp:425] inception_5b/5x5 <- inception_5b/5x5_reduce
I0903 17:45:01.747964 10593 net.cpp:399] inception_5b/pool_proj -> inception_5b/pool_proj
I0903 17:45:01.748095 10597 net.cpp:399] inception_5b/5x5 -> inception_5b/5x5
I0903 17:45:01.756050 10597 net.cpp:141] Setting up inception_5b/5x5
I0903 17:45:01.756093 10597 net.cpp:148] Top shape: 10 128 7 7 (62720)
I0903 17:45:01.756104 10597 net.cpp:156] Memory required for data: 546981120
I0903 17:45:01.756108 10593 net.cpp:141] Setting up inception_5b/pool_proj
I0903 17:45:01.756124 10597 layer_factory.hpp:77] Creating layer inception_5b/relu_5x5
I0903 17:45:01.756131 10593 net.cpp:148] Top shape: 10 128 7 7 (62720)
I0903 17:45:01.756141 10593 net.cpp:156] Memory required for data: 549113600
I0903 17:45:01.756147 10597 net.cpp:91] Creating Layer inception_5b/relu_5x5
I0903 17:45:01.756160 10593 layer_factory.hpp:77] Creating layer inception_5b/relu_pool_proj
I0903 17:45:01.756161 10597 net.cpp:425] inception_5b/relu_5x5 <- inception_5b/5x5
I0903 17:45:01.756186 10593 net.cpp:91] Creating Layer inception_5b/relu_pool_proj
I0903 17:45:01.756187 10597 net.cpp:386] inception_5b/relu_5x5 -> inception_5b/5x5 (in-place)
I0903 17:45:01.756204 10593 net.cpp:425] inception_5b/relu_pool_proj <- inception_5b/pool_proj
I0903 17:45:01.756218 10593 net.cpp:386] inception_5b/relu_pool_proj -> inception_5b/pool_proj (in-place)
I0903 17:45:01.756784 10597 net.cpp:141] Setting up inception_5b/relu_5x5
I0903 17:45:01.756808 10597 net.cpp:148] Top shape: 10 128 7 7 (62720)
I0903 17:45:01.756820 10597 net.cpp:156] Memory required for data: 547232000
I0903 17:45:01.756831 10597 layer_factory.hpp:77] Creating layer inception_5b/pool
I0903 17:45:01.756855 10597 net.cpp:91] Creating Layer inception_5b/pool
I0903 17:45:01.756870 10597 net.cpp:425] inception_5b/pool <- inception_5a/output_inception_5a/output_0_split_3
I0903 17:45:01.756891 10597 net.cpp:399] inception_5b/pool -> inception_5b/pool
I0903 17:45:01.756989 10593 net.cpp:141] Setting up inception_5b/relu_pool_proj
I0903 17:45:01.757010 10593 net.cpp:148] Top shape: 10 128 7 7 (62720)
I0903 17:45:01.757019 10593 net.cpp:156] Memory required for data: 549364480
I0903 17:45:01.757028 10593 layer_factory.hpp:77] Creating layer inception_5b/output
I0903 17:45:01.757050 10593 net.cpp:91] Creating Layer inception_5b/output
I0903 17:45:01.757060 10593 net.cpp:425] inception_5b/output <- inception_5b/1x1
I0903 17:45:01.757071 10593 net.cpp:425] inception_5b/output <- inception_5b/3x3
I0903 17:45:01.757081 10593 net.cpp:425] inception_5b/output <- inception_5b/5x5
I0903 17:45:01.757091 10593 net.cpp:425] inception_5b/output <- inception_5b/pool_proj
I0903 17:45:01.757103 10593 net.cpp:399] inception_5b/output -> inception_5b/output
I0903 17:45:01.757129 10597 net.cpp:141] Setting up inception_5b/pool
I0903 17:45:01.757151 10597 net.cpp:148] Top shape: 10 832 7 7 (407680)
I0903 17:45:01.757161 10597 net.cpp:156] Memory required for data: 548862720
I0903 17:45:01.757171 10597 layer_factory.hpp:77] Creating layer inception_5b/pool_proj
I0903 17:45:01.757210 10597 net.cpp:91] Creating Layer inception_5b/pool_proj
I0903 17:45:01.757225 10597 net.cpp:425] inception_5b/pool_proj <- inception_5b/pool
I0903 17:45:01.757232 10593 net.cpp:141] Setting up inception_5b/output
I0903 17:45:01.757246 10597 net.cpp:399] inception_5b/pool_proj -> inception_5b/pool_proj
I0903 17:45:01.757251 10593 net.cpp:148] Top shape: 10 1024 7 7 (501760)
I0903 17:45:01.757259 10593 net.cpp:156] Memory required for data: 551371520
I0903 17:45:01.757269 10593 layer_factory.hpp:77] Creating layer pool5/7x7_s1
I0903 17:45:01.757283 10593 net.cpp:91] Creating Layer pool5/7x7_s1
I0903 17:45:01.757293 10593 net.cpp:425] pool5/7x7_s1 <- inception_5b/output
I0903 17:45:01.757313 10593 net.cpp:399] pool5/7x7_s1 -> pool5/7x7_s1
I0903 17:45:01.758213 10593 net.cpp:141] Setting up pool5/7x7_s1
I0903 17:45:01.758232 10593 net.cpp:148] Top shape: 10 1024 1 1 (10240)
I0903 17:45:01.758241 10593 net.cpp:156] Memory required for data: 551412480
I0903 17:45:01.758249 10593 layer_factory.hpp:77] Creating layer pool5/drop_7x7_s1
I0903 17:45:01.758273 10593 net.cpp:91] Creating Layer pool5/drop_7x7_s1
I0903 17:45:01.758282 10593 net.cpp:425] pool5/drop_7x7_s1 <- pool5/7x7_s1
I0903 17:45:01.758298 10593 net.cpp:386] pool5/drop_7x7_s1 -> pool5/7x7_s1 (in-place)
I0903 17:45:01.758478 10593 net.cpp:141] Setting up pool5/drop_7x7_s1
I0903 17:45:01.758496 10593 net.cpp:148] Top shape: 10 1024 1 1 (10240)
I0903 17:45:01.758502 10593 net.cpp:156] Memory required for data: 551453440
I0903 17:45:01.758512 10593 layer_factory.hpp:77] Creating layer loss3/classifier
I0903 17:45:01.758543 10593 net.cpp:91] Creating Layer loss3/classifier
I0903 17:45:01.758554 10593 net.cpp:425] loss3/classifier <- pool5/7x7_s1
I0903 17:45:01.758569 10593 net.cpp:399] loss3/classifier -> loss3/classifier
I0903 17:45:01.765539 10597 net.cpp:141] Setting up inception_5b/pool_proj
I0903 17:45:01.765576 10597 net.cpp:148] Top shape: 10 128 7 7 (62720)
I0903 17:45:01.765588 10597 net.cpp:156] Memory required for data: 549113600
I0903 17:45:01.765609 10597 layer_factory.hpp:77] Creating layer inception_5b/relu_pool_proj
I0903 17:45:01.765628 10597 net.cpp:91] Creating Layer inception_5b/relu_pool_proj
I0903 17:45:01.765642 10597 net.cpp:425] inception_5b/relu_pool_proj <- inception_5b/pool_proj
I0903 17:45:01.765657 10597 net.cpp:386] inception_5b/relu_pool_proj -> inception_5b/pool_proj (in-place)
I0903 17:45:01.766386 10597 net.cpp:141] Setting up inception_5b/relu_pool_proj
I0903 17:45:01.766409 10597 net.cpp:148] Top shape: 10 128 7 7 (62720)
I0903 17:45:01.766420 10597 net.cpp:156] Memory required for data: 549364480
I0903 17:45:01.766430 10597 layer_factory.hpp:77] Creating layer inception_5b/output
I0903 17:45:01.766448 10597 net.cpp:91] Creating Layer inception_5b/output
I0903 17:45:01.766461 10597 net.cpp:425] inception_5b/output <- inception_5b/1x1
I0903 17:45:01.766475 10597 net.cpp:425] inception_5b/output <- inception_5b/3x3
I0903 17:45:01.766489 10597 net.cpp:425] inception_5b/output <- inception_5b/5x5
I0903 17:45:01.766501 10597 net.cpp:425] inception_5b/output <- inception_5b/pool_proj
I0903 17:45:01.766516 10597 net.cpp:399] inception_5b/output -> inception_5b/output
I0903 17:45:01.766660 10597 net.cpp:141] Setting up inception_5b/output
I0903 17:45:01.766680 10597 net.cpp:148] Top shape: 10 1024 7 7 (501760)
I0903 17:45:01.766690 10597 net.cpp:156] Memory required for data: 551371520
I0903 17:45:01.766701 10597 layer_factory.hpp:77] Creating layer pool5/7x7_s1
I0903 17:45:01.766719 10597 net.cpp:91] Creating Layer pool5/7x7_s1
I0903 17:45:01.766732 10597 net.cpp:425] pool5/7x7_s1 <- inception_5b/output
I0903 17:45:01.767349 10597 net.cpp:399] pool5/7x7_s1 -> pool5/7x7_s1
I0903 17:45:01.767796 10597 net.cpp:141] Setting up pool5/7x7_s1
I0903 17:45:01.767817 10597 net.cpp:148] Top shape: 10 1024 1 1 (10240)
I0903 17:45:01.767828 10597 net.cpp:156] Memory required for data: 551412480
I0903 17:45:01.767838 10597 layer_factory.hpp:77] Creating layer pool5/drop_7x7_s1
I0903 17:45:01.767860 10597 net.cpp:91] Creating Layer pool5/drop_7x7_s1
I0903 17:45:01.767873 10597 net.cpp:425] pool5/drop_7x7_s1 <- pool5/7x7_s1
I0903 17:45:01.767886 10597 net.cpp:386] pool5/drop_7x7_s1 -> pool5/7x7_s1 (in-place)
I0903 17:45:01.768013 10597 net.cpp:141] Setting up pool5/drop_7x7_s1
I0903 17:45:01.768036 10597 net.cpp:148] Top shape: 10 1024 1 1 (10240)
I0903 17:45:01.768048 10597 net.cpp:156] Memory required for data: 551453440
I0903 17:45:01.768057 10597 layer_factory.hpp:77] Creating layer loss3/classifier
I0903 17:45:01.768090 10597 net.cpp:91] Creating Layer loss3/classifier
I0903 17:45:01.768103 10597 net.cpp:425] loss3/classifier <- pool5/7x7_s1
I0903 17:45:01.768127 10597 net.cpp:399] loss3/classifier -> loss3/classifier
I0903 17:45:01.772876 10593 net.cpp:141] Setting up loss3/classifier
I0903 17:45:01.772909 10593 net.cpp:148] Top shape: 10 1000 (10000)
I0903 17:45:01.772915 10593 net.cpp:156] Memory required for data: 551493440
I0903 17:45:01.772928 10593 layer_factory.hpp:77] Creating layer prob
I0903 17:45:01.772945 10593 net.cpp:91] Creating Layer prob
I0903 17:45:01.772955 10593 net.cpp:425] prob <- loss3/classifier
I0903 17:45:01.772964 10593 net.cpp:399] prob -> prob
I0903 17:45:01.774215 10593 net.cpp:141] Setting up prob
I0903 17:45:01.774235 10593 net.cpp:148] Top shape: 10 1000 (10000)
I0903 17:45:01.774240 10593 net.cpp:156] Memory required for data: 551533440
I0903 17:45:01.774247 10593 net.cpp:219] prob does not need backward computation.
I0903 17:45:01.774252 10593 net.cpp:219] loss3/classifier does not need backward computation.
I0903 17:45:01.774258 10593 net.cpp:219] pool5/drop_7x7_s1 does not need backward computation.
I0903 17:45:01.774263 10593 net.cpp:219] pool5/7x7_s1 does not need backward computation.
…
