…
W0924 03:53:41.471940 11455 upgrade_proto.cpp:71] Note that future Caffe releases will only support input layers and not input fields.
I0924 03:53:41.471943 11459 upgrade_proto.cpp:69] Successfully upgraded file specified using deprecated input fields.
W0924 03:53:41.471953 11459 upgrade_proto.cpp:71] Note that future Caffe releases will only support input layers and not input fields.
I0924 03:53:41.471951 11481 net.cpp:49] Initializing net from parameters: 
name: "CaffeNet"
state {
  phase: TEST
}
layer {
  name: "data"
  type: "Input"
  top: "data"
  input_param {
    shape {
      dim: 10
      dim: 3
      dim: 227
      dim: 227
    }
  }
}
layer {
  name: "conv1"
  type: "Convolution"
  bottom: "data"
  top: "conv1"
  convolution_param {
    num_output: 96
    kernel_size: 11
    stride: 4
  }
}
layer {
  name: "relu1"
  type: "ReLU"
  bottom: "conv1"
  top: "conv1"
}
layer {
  name: "pool1"
  type: "Pooling"
  bottom: "conv1"
  top: "pool1"
  pooling_param {
    pool: MAX
    kernel_size: 3
    stride: 2
  }
}
layer {
  name: "norm1"
  type: "LRN"
  bottom: "pool1"
  top: "norm1"
  lrn_param {
    local_size: 5
    alpha: 0.0001
    beta: 0.75
  }
}
layer {
  name: "conv2"
  type: "Convolution"
  bottom: "norm1"
  top: "conv2"
  convolution_param {
    num_output: 256
    pad: 2
    kernel_size: 5
    group: 2
  }
}
layer {
  name: "relu2"
  type: "ReLU"
  bottom: "conv2"
  top: "conv2"
}
layer {
  name: "pool2"
  type: "Pooling"
  bottom: "conv2"
  top: "pool2"
  pooling_param {
    pool: MAX
    kernel_size: 3
    stride: 2
  }
}
layer {
  name: "norm2"
  type: "LRN"
  bottom: "pool2"
  top: "norm2"
  lrn_param {
    local_size: 5
    alpha: 0.0001
    beta: 0.75
  }
}
layer {
  name: "conv3"
  type: "Convolution"
  bottom: "norm2"
  top: "conv3"
  convolution_param {
    num_output: 384
    pad: 1
    kernel_size: 3
  }
}
layer {
  name: "relu3"
  type: "ReLU"
  bottom: "conv3"
  top: "conv3"
}
layer {
  name: "conv4"
  type: "Convolution"
  bottom: "conv3"
  top: "conv4"
  convolution_param {
    num_output: 384
    pad: 1
    kernel_size: 3
    group: 2
  }
}
layer {
  name: "relu4"
  type: "ReLU"
  bottom: "conv4"
  top: "conv4"
}
layer {
  name: "conv5"
  type: "Convolution"
  bottom: "conv4"
  top: "conv5"
  convolution_param {
    num_output: 256
    pad: 1
    kernel_size: 3
    group: 2
  }
}
layer {
  name: "relu5"
  type: "ReLU"
  bottom: "conv5"
  top: "conv5"
}
layer {
  name: "pool5"
  type: "Pooling"
  bottom: "conv5"
  top: "pool5"
  pooling_param {
    pool: MAX
    kernel_size: 3
    stride: 2
  }
}
layer {
  name: "fc6"
  type: "InnerProduct"
  bottom: "pool5"
  top: "fc6"
  inner_product_param {
    num_output: 4096
  }
}
layer {
  name: "relu6"
  type: "ReLU"
  bottom: "fc6"
  top: "fc6"
}
layer {
  name: "drop6"
  type: "Dropout"
  bottom: "fc6"
  top: "fc6"
  dropout_param {
    dropout_ratio: 0.5
  }
}
layer {
  name: "fc7"
  type: "InnerProduct"
  bottom: "fc6"
  top: "fc7"
  inner_product_param {
    num_output: 4096
  }
}
layer {
  name: "relu7"
  type: "ReLU"
  bottom: "fc7"
  top: "fc7"
}
layer {
  name: "drop7"
  type: "Dropout"
  bottom: "fc7"
  top: "fc7"
  dropout_param {
    dropout_ratio: 0.5
  }
}
layer {
  name: "fc8"
  type: "InnerProduct"
  bottom: "fc7"
  top: "fc8"
  inner_product_param {
    num_output: 1000
  }
}
layer {
  name: "prob"
  type: "Softmax"
  bottom: "fc8"
  top: "prob"
}
I0924 03:53:41.471967 11461 net.cpp:49] Initializing net from parameters: 
name: "s2vt:features_to_lstm"
state {
  phase: TEST
}
layer {
  name: "input"
  type: "Input"
  top: "frames_fc7"
  top: "cont_sentence"
  top: "input_sentence"
  top: "stage_indicator"
  input_param {
    shape {
      dim: 1
      dim: 4096
    }
    shape {
      dim: 1
      dim: 1
    }
    shape {
      dim: 1
      dim: 1
    }
    shape {
      dim: 1
      dim: 1
    }
  }
}
layer {
  name: "embed_encoder"
  type: "InnerProduct"
  bottom: "frames_fc7"
  top: "embedded_in_frames"
  param {
    lr_mult: 1
    decay_mult: 1
  }
  param {
    lr_mult: 2
    decay_mult: 0
  }
  inner_product_param {
    num_output: 500
    weight_filler {
      type: "xavier"
    }
    bias_filler {
      type: "constant"
      value: 0.2
    }
  }
}
layer {
  name: "reshape_frames"
  type: "Reshape"
  bottom: "embedded_in_frames"
  top: "embedded_input_frames"
  reshape_param {
    shape {
      dim: 1
      dim: 1
      dim: 500
    }
  }
}
layer {
  name: "reshape_stage_indicator"
  type: "Reshape"
  bottom: "stage_indicator"
  top: "reshaped_stage_indicator"
  reshape_param {
    shape {
      dim: 1
      dim: 1
      dim: 1
    }
  }
}
layer {
  name: "embedding"
  type: "Embed"
  bottom: "input_sentence"
  top: "embedded_input_sentence"
  param {
    lr_mult: 1
  }
  embed_param {
    num_output: 500
    input_dim: 46168
    bias_term: false
    weight_filler {
      type: "uniform"
      min: -0.08
      max: 0.08
    }
  }
}
layer {
  name: "lstm1"
  type: "LSTM"
  bottom: "embedded_input_frames"
  bottom: "cont_sentence"
  top: "lstm1"
  recurrent_param {
    num_output: 1000
    weight_filler {
      type: "uniform"
      min: -0.08
      max: 0.08
    }
    bias_filler {
      type: "constant"
      value: 0
    }
  }
}
layer {
  name: "concat"
  type: "Concat"
  bottom: "lstm1"
  bottom: "embedded_input_sentence"
  bottom: "reshaped_stage_indicator"
  top: "lstm1_video_sequence"
  concat_param {
    concat_dim: 2
  }
}
layer {
  name: "lstm2"
  type: "LSTM"
  bottom: "lstm1_video_sequence"
  bottom: "cont_sentence"
  top: "lstm2"
  recurrent_param {
    num_output: 1000
    weight_filler {
      type: "uniform"
      min: -0.08
      max: 0.08
    }
    bias_filler {
      type: "constant"
      value: 0
    }
  }
}
layer {
  name: "predict"
  type: "InnerProduct"
  bottom: "lstm2"
  top: "predict"
  param {
    lr_mult: 1
    decay_mult: 1
  }
  param {
    lr_mult: 2
    decay_mult: 0
  }
  inner_product_param {
    num_output: 46168
    weight_filler {
      type: "uniform"
      min: -0.08
      max: 0.08
    }
    bias_filler {
      type: "constant"
      value: 0
    }
    axis: 2
  }
}
layer {
  name: "probs"
  type: "Softmax"
  bottom: "predict"
  top: "probs"
  softmax_param {
    axis: 2
  }
}
I0924 03:53:41.471990 11473 net.cpp:49] Initializing net from parameters: 
name: "s2vt:features_to_lstm"
state {
  phase: TEST
}
layer {
  name: "input"
  type: "Input"
  top: "frames_fc7"
  top: "cont_sentence"
  top: "input_sentence"
  top: "stage_indicator"
  input_param {
    shape {
      dim: 1
      dim: 4096
    }
    shape {
      dim: 1
      dim: 1
    }
    shape {
      dim: 1
      dim: 1
    }
    shape {
      dim: 1
      dim: 1
    }
  }
}
layer {
  name: "embed_encoder"
  type: "InnerProduct"
  bottom: "frames_fc7"
  top: "embedded_in_frames"
  param {
    lr_mult: 1
    decay_mult: 1
  }
  param {
    lr_mult: 2
    decay_mult: 0
  }
  inner_product_param {
    num_output: 500
    weight_filler {
      type: "xavier"
    }
    bias_filler {
      type: "constant"
      value: 0.2
    }
  }
}
layer {
  name: "reshape_frames"
  type: "Reshape"
  bottom: "embedded_in_frames"
  top: "embedded_input_frames"
  reshape_param {
    shape {
      dim: 1
      dim: 1
      dim: 500
    }
  }
}
layer {
  name: "reshape_stage_indicator"
  type: "Reshape"
  bottom: "stage_indicator"
  top: "reshaped_stage_indicator"
  reshape_param {
    shape {
      dim: 1
      dim: 1
      dim: 1
    }
  }
}
layer {
  name: "embedding"
  type: "Embed"
  bottom: "input_sentence"
  top: "embedded_input_sentence"
  param {
    lr_mult: 1
  }
  embed_param {
    num_output: 500
    input_dim: 46168
    bias_term: false
    weight_filler {
      type: "uniform"
      min: -0.08
      max: 0.08
    }
  }
}
layer {
  name: "lstm1"
  type: "LSTM"
  bottom: "embedded_input_frames"
  bottom: "cont_sentence"
  top: "lstm1"
  recurrent_param {
    num_output: 1000
    weight_filler {
      type: "uniform"
      min: -0.08
      max: 0.08
    }
    bias_filler {
      type: "constant"
      value: 0
    }
  }
}
layer {
  name: "concat"
  type: "Concat"
  bottom: "lstm1"
  bottom: "embedded_input_sentence"
  bottom: "reshaped_stage_indicator"
  top: "lstm1_video_sequence"
  concat_param {
    concat_dim: 2
  }
}
layer {
  name: "lstm2"
  type: "LSTM"
  bottom: "lstm1_video_sequence"
  bottom: "cont_sentence"
  top: "lstm2"
  recurrent_param {
    num_output: 1000
    weight_filler {
      type: "uniform"
      min: -0.08
      max: 0.08
    }
    bias_filler {
      type: "constant"
      value: 0
    }
  }
}
layer {
  name: "predict"
  type: "InnerProduct"
  bottom: "lstm2"
  top: "predict"
  param {
    lr_mult: 1
    decay_mult: 1
  }
  param {
    lr_mult: 2
    decay_mult: 0
  }
  inner_product_param {
    num_output: 46168
    weight_filler {
      type: "uniform"
      min: -0.08
      max: 0.08
    }
    bias_filler {
      type: "constant"
      value: 0
    }
    axis: 2
  }
}
layer {
  name: "probs"
  type: "Softmax"
  bottom: "predict"
  top: "probs"
  softmax_param {
    axis: 2
  }
}
I0924 03:53:41.472137 11481 layer_factory.hpp:77] Creating layer data
I0924 03:53:41.472157 11473 layer_factory.hpp:77] Creating layer input
I0924 03:53:41.472158 11461 layer_factory.hpp:77] Creating layer input
I0924 03:53:41.472180 11481 net.cpp:91] Creating Layer data
I0924 03:53:41.472190 11473 net.cpp:91] Creating Layer input
I0924 03:53:41.472196 11461 net.cpp:91] Creating Layer input
I0924 03:53:41.472206 11473 net.cpp:399] input -> frames_fc7
I0924 03:53:41.472199 11481 net.cpp:399] data -> data
I0924 03:53:41.472220 11461 net.cpp:399] input -> frames_fc7
I0924 03:53:41.472266 11461 net.cpp:399] input -> cont_sentence
I0924 03:53:41.472270 11455 net.cpp:49] Initializing net from parameters: 
name: "s2vt:features_to_lstm"
state {
  phase: TEST
}
layer {
  name: "input"
  type: "Input"
  top: "frames_fc7"
  top: "cont_sentence"
  top: "input_sentence"
  top: "stage_indicator"
  input_param {
    shape {
      dim: 1
      dim: 4096
    }
    shape {
      dim: 1
      dim: 1
    }
    shape {
      dim: 1
      dim: 1
    }
    shape {
      dim: 1
      dim: 1
    }
  }
}
layer {
  name: "embed_encoder"
  type: "InnerProduct"
  bottom: "frames_fc7"
  top: "embedded_in_frames"
  param {
    lr_mult: 1
    decay_mult: 1
  }
  param {
    lr_mult: 2
    decay_mult: 0
  }
  inner_product_param {
    num_output: 500
    weight_filler {
      type: "xavier"
    }
    bias_filler {
      type: "constant"
      value: 0.2
    }
  }
}
layer {
  name: "reshape_frames"
  type: "Reshape"
  bottom: "embedded_in_frames"
  top: "embedded_input_frames"
  reshape_param {
    shape {
      dim: 1
      dim: 1
      dim: 500
    }
  }
}
layer {
  name: "reshape_stage_indicator"
  type: "Reshape"
  bottom: "stage_indicator"
  top: "reshaped_stage_indicator"
  reshape_param {
    shape {
      dim: 1
      dim: 1
      dim: 1
    }
  }
}
layer {
  name: "embedding"
  type: "Embed"
  bottom: "input_sentence"
  top: "embedded_input_sentence"
  param {
    lr_mult: 1
  }
  embed_param {
    num_output: 500
    input_dim: 46168
    bias_term: false
    weight_filler {
      type: "uniform"
      min: -0.08
      max: 0.08
    }
  }
}
layer {
  name: "lstm1"
  type: "LSTM"
  bottom: "embedded_input_frames"
  bottom: "cont_sentence"
  top: "lstm1"
  recurrent_param {
    num_output: 1000
    weight_filler {
      type: "uniform"
      min: -0.08
      max: 0.08
    }
    bias_filler {
      type: "constant"
      value: 0
    }
  }
}
layer {
  name: "concat"
  type: "Concat"
  bottom: "lstm1"
  bottom: "embedded_input_sentence"
  bottom: "reshaped_stage_indicator"
  top: "lstm1_video_sequence"
  concat_param {
    concat_dim: 2
  }
}
layer {
  name: "lstm2"
  type: "LSTM"
  bottom: "lstm1_video_sequence"
  bottom: "cont_sentence"
  top: "lstm2"
  recurrent_param {
    num_output: 1000
    weight_filler {
      type: "uniform"
      min: -0.08
      max: 0.08
    }
    bias_filler {
      type: "constant"
      value: 0
    }
  }
}
layer {
  name: "predict"
  type: "InnerProduct"
  bottom: "lstm2"
  top: "predict"
  param {
    lr_mult: 1
    decay_mult: 1
  }
  param {
    lr_mult: 2
    decay_mult: 0
  }
  inner_product_param {
    num_output: 46168
    weight_filler {
      type: "uniform"
      min: -0.08
      max: 0.08
    }
    bias_filler {
      type: "constant"
      value: 0
    }
    axis: 2
  }
}
layer {
  name: "probs"
  type: "Softmax"
  bottom: "predict"
  top: "probs"
  softmax_param {
    axis: 2
  }
}
I0924 03:53:41.472291 11461 net.cpp:399] input -> input_sentence
I0924 03:53:41.472291 11473 net.cpp:399] input -> cont_sentence
I0924 03:53:41.472321 11461 net.cpp:399] input -> stage_indicator
I0924 03:53:41.472343 11473 net.cpp:399] input -> input_sentence
I0924 03:53:41.472339 11459 net.cpp:49] Initializing net from parameters: 
name: "s2vt:features_to_lstm"
state {
  phase: TEST
}
layer {
  name: "input"
  type: "Input"
  top: "frames_fc7"
  top: "cont_sentence"
  top: "input_sentence"
  top: "stage_indicator"
  input_param {
    shape {
      dim: 1
      dim: 4096
    }
    shape {
      dim: 1
      dim: 1
    }
    shape {
      dim: 1
      dim: 1
    }
    shape {
      dim: 1
      dim: 1
    }
  }
}
layer {
  name: "embed_encoder"
  type: "InnerProduct"
  bottom: "frames_fc7"
  top: "embedded_in_frames"
  param {
    lr_mult: 1
    decay_mult: 1
  }
  param {
    lr_mult: 2
    decay_mult: 0
  }
  inner_product_param {
    num_output: 500
    weight_filler {
      type: "xavier"
    }
    bias_filler {
      type: "constant"
      value: 0.2
    }
  }
}
layer {
  name: "reshape_frames"
  type: "Reshape"
  bottom: "embedded_in_frames"
  top: "embedded_input_frames"
  reshape_param {
    shape {
      dim: 1
      dim: 1
      dim: 500
    }
  }
}
layer {
  name: "reshape_stage_indicator"
  type: "Reshape"
  bottom: "stage_indicator"
  top: "reshaped_stage_indicator"
  reshape_param {
    shape {
      dim: 1
      dim: 1
      dim: 1
    }
  }
}
layer {
  name: "embedding"
  type: "Embed"
  bottom: "input_sentence"
  top: "embedded_input_sentence"
  param {
    lr_mult: 1
  }
  embed_param {
    num_output: 500
    input_dim: 46168
    bias_term: false
    weight_filler {
      type: "uniform"
      min: -0.08
      max: 0.08
    }
  }
}
layer {
  name: "lstm1"
  type: "LSTM"
  bottom: "embedded_input_frames"
  bottom: "cont_sentence"
  top: "lstm1"
  recurrent_param {
    num_output: 1000
    weight_filler {
      type: "uniform"
      min: -0.08
      max: 0.08
    }
    bias_filler {
      type: "constant"
      value: 0
    }
  }
}
layer {
  name: "concat"
  type: "Concat"
  bottom: "lstm1"
  bottom: "embedded_input_sentence"
  bottom: "reshaped_stage_indicator"
  top: "lstm1_video_sequence"
  concat_param {
    concat_dim: 2
  }
}
layer {
  name: "lstm2"
  type: "LSTM"
  bottom: "lstm1_video_sequence"
  bottom: "cont_sentence"
  top: "lstm2"
  recurrent_param {
    num_output: 1000
    weight_filler {
      type: "uniform"
      min: -0.08
      max: 0.08
    }
    bias_filler {
      type: "constant"
      value: 0
    }
  }
}
layer {
  name: "predict"
  type: "InnerProduct"
  bottom: "lstm2"
  top: "predict"
  param {
    lr_mult: 1
    decay_mult: 1
  }
  param {
    lr_mult: 2
    decay_mult: 0
  }
  inner_product_param {
    num_output: 46168
    weight_filler {
      type: "uniform"
      min: -0.08
      max: 0.08
    }
    bias_filler {
      type: "constant"
      value: 0
    }
    axis: 2
  }
}
layer {
  name: "probs"
  type: "Softmax"
  bottom: "predict"
  top: "probs"
  softmax_param {
    axis: 2
  }
}
I0924 03:53:41.472369 11473 net.cpp:399] input -> stage_indicator
I0924 03:53:41.472390 11455 layer_factory.hpp:77] Creating layer input
I0924 03:53:41.472405 11455 net.cpp:91] Creating Layer input
I0924 03:53:41.472412 11455 net.cpp:399] input -> frames_fc7
I0924 03:53:41.472424 11455 net.cpp:399] input -> cont_sentence
I0924 03:53:41.472435 11455 net.cpp:399] input -> input_sentence
…
W0924 03:53:41.472630 11505 upgrade_proto.cpp:71] Note that future Caffe releases will only support input layers and not input fields.
I0924 03:53:41.472692 11465 net.cpp:49] Initializing net from parameters: 
name: "s2vt:features_to_lstm"
state {
  phase: TEST
}
layer {
  name: "input"
  type: "Input"
  top: "frames_fc7"
  top: "cont_sentence"
  top: "input_sentence"
  top: "stage_indicator"
  input_param {
    shape {
      dim: 1
      dim: 4096
    }
    shape {
      dim: 1
      dim: 1
    }
    shape {
      dim: 1
      dim: 1
    }
    shape {
      dim: 1
      dim: 1
    }
  }
}
layer {
  name: "embed_encoder"
  type: "InnerProduct"
  bottom: "frames_fc7"
  top: "embedded_in_frames"
  param {
    lr_mult: 1
    decay_mult: 1
  }
  param {
    lr_mult: 2
    decay_mult: 0
  }
  inner_product_param {
    num_output: 500
    weight_filler {
      type: "xavier"
    }
    bias_filler {
      type: "constant"
      value: 0.2
    }
  }
}
layer {
  name: "reshape_frames"
  type: "Reshape"
  bottom: "embedded_in_frames"
  top: "embedded_input_frames"
  reshape_param {
    shape {
      dim: 1
      dim: 1
      dim: 500
    }
  }
}
layer {
  name: "reshape_stage_indicator"
  type: "Reshape"
  bottom: "stage_indicator"
  top: "reshaped_stage_indicator"
  reshape_param {
    shape {
      dim: 1
      dim: 1
      dim: 1
    }
  }
}
layer {
  name: "embedding"
  type: "Embed"
  bottom: "input_sentence"
  top: "embedded_input_sentence"
  param {
    lr_mult: 1
  }
  embed_param {
    num_output: 500
    input_dim: 46168
    bias_term: false
    weight_filler {
      type: "uniform"
      min: -0.08
      max: 0.08
    }
  }
}
layer {
  name: "lstm1"
  type: "LSTM"
  bottom: "embedded_input_frames"
  bottom: "cont_sentence"
  top: "lstm1"
  recurrent_param {
    num_output: 1000
    weight_filler {
      type: "uniform"
      min: -0.08
      max: 0.08
    }
    bias_filler {
      type: "constant"
      value: 0
    }
  }
}
layer {
  name: "concat"
  type: "Concat"
  bottom: "lstm1"
  bottom: "embedded_input_sentence"
  bottom: "reshaped_stage_indicator"
  top: "lstm1_video_sequence"
  concat_param {
    concat_dim: 2
  }
}
layer {
  name: "lstm2"
  type: "LSTM"
  bottom: "lstm1_video_sequence"
  bottom: "cont_sentence"
  top: "lstm2"
  recurrent_param {
    num_output: 1000
    weight_filler {
      type: "uniform"
      min: -0.08
      max: 0.08
    }
    bias_filler {
      type: "constant"
      value: 0
    }
  }
}
layer {
  name: "predict"
  type: "InnerProduct"
  bottom: "lstm2"
  top: "predict"
  param {
    lr_mult: 1
    decay_mult: 1
  }
  param {
    lr_mult: 2
    decay_mult: 0
  }
  inner_product_param {
    num_output: 46168
    weight_filler {
      type: "uniform"
      min: -0.08
      max: 0.08
    }
    bias_filler {
      type: "constant"
      value: 0
    }
    axis: 2
  }
}
layer {
  name: "probs"
  type: "Softmax"
  bottom: "predict"
  top: "probs"
  softmax_param {
    axis: 2
  }
}
I0924 03:53:41.472766 11465 layer_factory.hpp:77] Creating layer input
I0924 03:53:41.472777 11465 net.cpp:91] Creating Layer input
I0924 03:53:41.472784 11465 net.cpp:399] input -> frames_fc7
I0924 03:53:41.472796 11465 net.cpp:399] input -> cont_sentence
I0924 03:53:41.472798 11479 upgrade_proto.cpp:66] Attempting to upgrade input file specified using deprecated input fields: /home/peifeng/work/run/storm102/data/workers/0a2c4f77-a85c-49e7-99a6-b537cbf26965/tmp/cvld8306865616296286289/s2vt.words_to_preds.prototxt
I0924 03:53:41.472807 11465 net.cpp:399] input -> input_sentence
I0924 03:53:41.472831 11479 upgrade_proto.cpp:69] Successfully upgraded file specified using deprecated input fields.
I0924 03:53:41.472836 11465 net.cpp:399] input -> stage_indicator
W0924 03:53:41.472847 11479 upgrade_proto.cpp:71] Note that future Caffe releases will only support input layers and not input fields.
I0924 03:53:41.473011 11505 net.cpp:49] Initializing net from parameters: 
name: "s2vt:features_to_lstm"
state {
  phase: TEST
}
layer {
  name: "input"
  type: "Input"
  top: "frames_fc7"
  top: "cont_sentence"
  top: "input_sentence"
  top: "stage_indicator"
  input_param {
    shape {
      dim: 1
      dim: 4096
    }
    shape {
      dim: 1
      dim: 1
    }
    shape {
      dim: 1
      dim: 1
    }
    shape {
      dim: 1
      dim: 1
    }
  }
}
layer {
  name: "embed_encoder"
  type: "InnerProduct"
  bottom: "frames_fc7"
  top: "embedded_in_frames"
  param {
    lr_mult: 1
    decay_mult: 1
  }
  param {
    lr_mult: 2
    decay_mult: 0
  }
  inner_product_param {
    num_output: 500
    weight_filler {
      type: "xavier"
    }
    bias_filler {
      type: "constant"
      value: 0.2
    }
  }
}
layer {
  name: "reshape_frames"
  type: "Reshape"
  bottom: "embedded_in_frames"
  top: "embedded_input_frames"
  reshape_param {
    shape {
      dim: 1
      dim: 1
      dim: 500
    }
  }
}
layer {
  name: "reshape_stage_indicator"
  type: "Reshape"
  bottom: "stage_indicator"
  top: "reshaped_stage_indicator"
  reshape_param {
    shape {
      dim: 1
      dim: 1
      dim: 1
    }
  }
}
layer {
  name: "embedding"
  type: "Embed"
  bottom: "input_sentence"
  top: "embedded_input_sentence"
  param {
    lr_mult: 1
  }
  embed_param {
    num_output: 500
    input_dim: 46168
    bias_term: false
    weight_filler {
      type: "uniform"
      min: -0.08
      max: 0.08
    }
  }
}
layer {
  name: "lstm1"
  type: "LSTM"
  bottom: "embedded_input_frames"
  bottom: "cont_sentence"
  top: "lstm1"
  recurrent_param {
    num_output: 1000
    weight_filler {
      type: "uniform"
      min: -0.08
      max: 0.08
    }
    bias_filler {
      type: "constant"
      value: 0
    }
  }
}
layer {
  name: "concat"
  type: "Concat"
  bottom: "lstm1"
  bottom: "embedded_input_sentence"
  bottom: "reshaped_stage_indicator"
  top: "lstm1_video_sequence"
  concat_param {
    concat_dim: 2
  }
}
layer {
  name: "lstm2"
  type: "LSTM"
  bottom: "lstm1_video_sequence"
  bottom: "cont_sentence"
  top: "lstm2"
  recurrent_param {
    num_output: 1000
    weight_filler {
      type: "uniform"
      min: -0.08
      max: 0.08
    }
    bias_filler {
      type: "constant"
      value: 0
    }
  }
}
layer {
  name: "predict"
  type: "InnerProduct"
  bottom: "lstm2"
  top: "predict"
  param {
    lr_mult: 1
    decay_mult: 1
  }
  param {
    lr_mult: 2
    decay_mult: 0
  }
  inner_product_param {
    num_output: 46168
    weight_filler {
      type: "uniform"
      min: -0.08
      max: 0.08
    }
    bias_filler {
      type: "constant"
      value: 0
    }
    axis: 2
  }
}
layer {
  name: "probs"
  type: "Softmax"
  bottom: "predict"
  top: "probs"
  softmax_param {
    axis: 2
  }
}
I0924 03:53:41.473175 11505 layer_factory.hpp:77] Creating layer input
I0924 03:53:41.473196 11505 net.cpp:91] Creating Layer input
I0924 03:53:41.473196 11479 net.cpp:49] Initializing net from parameters: 
name: "s2vt:features_to_lstm"
state {
  phase: TEST
}
layer {
  name: "input"
  type: "Input"
  top: "frames_fc7"
  top: "cont_sentence"
  top: "input_sentence"
  top: "stage_indicator"
  input_param {
    shape {
      dim: 1
      dim: 4096
    }
    shape {
      dim: 1
      dim: 1
    }
    shape {
      dim: 1
      dim: 1
    }
    shape {
      dim: 1
      dim: 1
    }
  }
}
layer {
  name: "embed_encoder"
  type: "InnerProduct"
  bottom: "frames_fc7"
  top: "embedded_in_frames"
  param {
    lr_mult: 1
    decay_mult: 1
  }
  param {
    lr_mult: 2
    decay_mult: 0
  }
  inner_product_param {
    num_output: 500
    weight_filler {
      type: "xavier"
    }
    bias_filler {
      type: "constant"
      value: 0.2
    }
  }
}
layer {
  name: "reshape_frames"
  type: "Reshape"
  bottom: "embedded_in_frames"
  top: "embedded_input_frames"
  reshape_param {
    shape {
      dim: 1
      dim: 1
      dim: 500
    }
  }
}
layer {
  name: "reshape_stage_indicator"
  type: "Reshape"
  bottom: "stage_indicator"
  top: "reshaped_stage_indicator"
  reshape_param {
    shape {
      dim: 1
      dim: 1
      dim: 1
    }
  }
}
layer {
  name: "embedding"
  type: "Embed"
  bottom: "input_sentence"
  top: "embedded_input_sentence"
  param {
    lr_mult: 1
  }
  embed_param {
    num_output: 500
    input_dim: 46168
    bias_term: false
    weight_filler {
      type: "uniform"
      min: -0.08
      max: 0.08
    }
  }
}
layer {
  name: "lstm1"
  type: "LSTM"
  bottom: "embedded_input_frames"
  bottom: "cont_sentence"
  top: "lstm1"
  recurrent_param {
    num_output: 1000
    weight_filler {
      type: "uniform"
      min: -0.08
      max: 0.08
    }
    bias_filler {
      type: "constant"
      value: 0
    }
  }
}
layer {
  name: "concat"
  type: "Concat"
  bottom: "lstm1"
  bottom: "embedded_input_sentence"
  bottom: "reshaped_stage_indicator"
  top: "lstm1_video_sequence"
  concat_param {
    concat_dim: 2
  }
}
layer {
  name: "lstm2"
  type: "LSTM"
  bottom: "lstm1_video_sequence"
  bottom: "cont_sentence"
  top: "lstm2"
  recurrent_param {
    num_output: 1000
    weight_filler {
      type: "uniform"
      min: -0.08
      max: 0.08
    }
    bias_filler {
      type: "constant"
      value: 0
    }
  }
}
layer {
  name: "predict"
  type: "InnerProduct"
  bottom: "lstm2"
  top: "predict"
  param {
    lr_mult: 1
    decay_mult: 1
  }
  param {
    lr_mult: 2
    decay_mult: 0
  }
  inner_product_param {
    num_output: 46168
    weight_filler {
      type: "uniform"
      min: -0.08
      max: 0.08
    }
    bias_filler {
      type: "constant"
      value: 0
    }
    axis: 2
  }
}
layer {
  name: "probs"
  type: "Softmax"
  bottom: "predict"
  top: "probs"
  softmax_param {
    axis: 2
  }
}
I0924 03:53:41.473208 11505 net.cpp:399] input -> frames_fc7
I0924 03:53:41.473228 11505 net.cpp:399] input -> cont_sentence
I0924 03:53:41.473247 11505 net.cpp:399] input -> input_sentence
I0924 03:53:41.473264 11505 net.cpp:399] input -> stage_indicator
I0924 03:53:41.473325 11479 layer_factory.hpp:77] Creating layer input
I0924 03:53:41.473345 11479 net.cpp:91] Creating Layer input
…
W0924 03:53:41.474261 11509 upgrade_proto.cpp:71] Note that future Caffe releases will only support input layers and not input fields.
I0924 03:53:41.474568 11509 net.cpp:49] Initializing net from parameters: 
name: "s2vt:features_to_lstm"
state {
  phase: TEST
}
layer {
  name: "input"
  type: "Input"
  top: "frames_fc7"
  top: "cont_sentence"
  top: "input_sentence"
  top: "stage_indicator"
  input_param {
    shape {
      dim: 1
      dim: 4096
    }
    shape {
      dim: 1
      dim: 1
    }
    shape {
      dim: 1
      dim: 1
    }
    shape {
      dim: 1
      dim: 1
    }
  }
}
layer {
  name: "embed_encoder"
  type: "InnerProduct"
  bottom: "frames_fc7"
  top: "embedded_in_frames"
  param {
    lr_mult: 1
    decay_mult: 1
  }
  param {
    lr_mult: 2
    decay_mult: 0
  }
  inner_product_param {
    num_output: 500
    weight_filler {
      type: "xavier"
    }
    bias_filler {
      type: "constant"
      value: 0.2
    }
  }
}
layer {
  name: "reshape_frames"
  type: "Reshape"
  bottom: "embedded_in_frames"
  top: "embedded_input_frames"
  reshape_param {
    shape {
      dim: 1
      dim: 1
      dim: 500
    }
  }
}
layer {
  name: "reshape_stage_indicator"
  type: "Reshape"
  bottom: "stage_indicator"
  top: "reshaped_stage_indicator"
  reshape_param {
    shape {
      dim: 1
      dim: 1
      dim: 1
    }
  }
}
layer {
  name: "embedding"
  type: "Embed"
  bottom: "input_sentence"
  top: "embedded_input_sentence"
  param {
    lr_mult: 1
  }
  embed_param {
    num_output: 500
    input_dim: 46168
    bias_term: false
    weight_filler {
      type: "uniform"
      min: -0.08
      max: 0.08
    }
  }
}
layer {
  name: "lstm1"
  type: "LSTM"
  bottom: "embedded_input_frames"
  bottom: "cont_sentence"
  top: "lstm1"
  recurrent_param {
    num_output: 1000
    weight_filler {
      type: "uniform"
      min: -0.08
      max: 0.08
    }
    bias_filler {
      type: "constant"
      value: 0
    }
  }
}
layer {
  name: "concat"
  type: "Concat"
  bottom: "lstm1"
  bottom: "embedded_input_sentence"
  bottom: "reshaped_stage_indicator"
  top: "lstm1_video_sequence"
  concat_param {
    concat_dim: 2
  }
}
layer {
  name: "lstm2"
  type: "LSTM"
  bottom: "lstm1_video_sequence"
  bottom: "cont_sentence"
  top: "lstm2"
  recurrent_param {
    num_output: 1000
    weight_filler {
      type: "uniform"
      min: -0.08
      max: 0.08
    }
    bias_filler {
      type: "constant"
      value: 0
    }
  }
}
layer {
  name: "predict"
  type: "InnerProduct"
  bottom: "lstm2"
  top: "predict"
  param {
    lr_mult: 1
    decay_mult: 1
  }
  param {
    lr_mult: 2
    decay_mult: 0
  }
  inner_product_param {
    num_output: 46168
    weight_filler {
      type: "uniform"
      min: -0.08
      max: 0.08
    }
    bias_filler {
      type: "constant"
      value: 0
    }
    axis: 2
  }
}
layer {
  name: "probs"
  type: "Softmax"
  bottom: "predict"
  top: "probs"
  softmax_param {
    axis: 2
  }
}
I0924 03:53:41.474702 11509 layer_factory.hpp:77] Creating layer input
I0924 03:53:41.474722 11509 net.cpp:91] Creating Layer input
I0924 03:53:41.474735 11509 net.cpp:399] input -> frames_fc7
I0924 03:53:41.474751 11509 net.cpp:399] input -> cont_sentence
I0924 03:53:41.474772 11509 net.cpp:399] input -> input_sentence
I0924 03:53:41.474786 11509 net.cpp:399] input -> stage_indicator
I0924 03:53:41.475042 11497 upgrade_proto.cpp:66] Attempting to upgrade input file specified using deprecated input fields: /home/peifeng/work/run/storm102/data/workers/0a2c4f77-a85c-49e7-99a6-b537cbf26965/tmp/cvld8306865616296286289/s2vt.words_to_preds.prototxt
I0924 03:53:41.475062 11497 upgrade_proto.cpp:69] Successfully upgraded file specified using deprecated input fields.
W0924 03:53:41.475067 11497 upgrade_proto.cpp:71] Note that future Caffe releases will only support input layers and not input fields.
I0924 03:53:41.475280 11497 net.cpp:49] Initializing net from parameters: 
name: "s2vt:features_to_lstm"
state {
  phase: TEST
}
layer {
  name: "input"
  type: "Input"
  top: "frames_fc7"
  top: "cont_sentence"
  top: "input_sentence"
  top: "stage_indicator"
  input_param {
    shape {
      dim: 1
      dim: 4096
    }
    shape {
      dim: 1
      dim: 1
    }
    shape {
      dim: 1
      dim: 1
    }
    shape {
      dim: 1
      dim: 1
    }
  }
}
layer {
  name: "embed_encoder"
  type: "InnerProduct"
  bottom: "frames_fc7"
  top: "embedded_in_frames"
  param {
    lr_mult: 1
    decay_mult: 1
  }
  param {
    lr_mult: 2
    decay_mult: 0
  }
  inner_product_param {
    num_output: 500
    weight_filler {
      type: "xavier"
    }
    bias_filler {
      type: "constant"
      value: 0.2
    }
  }
}
layer {
  name: "reshape_frames"
  type: "Reshape"
  bottom: "embedded_in_frames"
  top: "embedded_input_frames"
  reshape_param {
    shape {
      dim: 1
      dim: 1
      dim: 500
    }
  }
}
layer {
  name: "reshape_stage_indicator"
  type: "Reshape"
  bottom: "stage_indicator"
  top: "reshaped_stage_indicator"
  reshape_param {
    shape {
      dim: 1
      dim: 1
      dim: 1
    }
  }
}
layer {
  name: "embedding"
  type: "Embed"
  bottom: "input_sentence"
  top: "embedded_input_sentence"
  param {
    lr_mult: 1
  }
  embed_param {
    num_output: 500
    input_dim: 46168
    bias_term: false
    weight_filler {
      type: "uniform"
      min: -0.08
      max: 0.08
    }
  }
}
layer {
  name: "lstm1"
  type: "LSTM"
  bottom: "embedded_input_frames"
  bottom: "cont_sentence"
  top: "lstm1"
  recurrent_param {
    num_output: 1000
    weight_filler {
      type: "uniform"
      min: -0.08
      max: 0.08
    }
    bias_filler {
      type: "constant"
      value: 0
    }
  }
}
layer {
  name: "concat"
  type: "Concat"
  bottom: "lstm1"
  bottom: "embedded_input_sentence"
  bottom: "reshaped_stage_indicator"
  top: "lstm1_video_sequence"
  concat_param {
    concat_dim: 2
  }
}
layer {
  name: "lstm2"
  type: "LSTM"
  bottom: "lstm1_video_sequence"
  bottom: "cont_sentence"
  top: "lstm2"
  recurrent_param {
    num_output: 1000
    weight_filler {
      type: "uniform"
      min: -0.08
      max: 0.08
    }
    bias_filler {
      type: "constant"
      value: 0
    }
  }
}
layer {
  name: "predict"
  type: "InnerProduct"
  bottom: "lstm2"
  top: "predict"
  param {
    lr_mult: 1
    decay_mult: 1
  }
  param {
    lr_mult: 2
    decay_mult: 0
  }
  inner_product_param {
    num_output: 46168
    weight_filler {
      type: "uniform"
      min: -0.08
      max: 0.08
    }
    bias_filler {
      type: "constant"
      value: 0
    }
    axis: 2
  }
}
layer {
  name: "probs"
  type: "Softmax"
  bottom: "predict"
  top: "probs"
  softmax_param {
    axis: 2
  }
}
I0924 03:53:41.475364 11497 layer_factory.hpp:77] Creating layer input
I0924 03:53:41.475376 11497 net.cpp:91] Creating Layer input
I0924 03:53:41.475383 11497 net.cpp:399] input -> frames_fc7
I0924 03:53:41.475396 11497 net.cpp:399] input -> cont_sentence
I0924 03:53:41.475407 11497 net.cpp:399] input -> input_sentence
I0924 03:53:41.475417 11497 net.cpp:399] input -> stage_indicator
I0924 03:53:42.532299 11481 net.cpp:141] Setting up data
I0924 03:53:42.532436 11481 net.cpp:148] Top shape: 10 3 227 227 (1545870)
I0924 03:53:42.532445 11481 net.cpp:156] Memory required for data: 6183480
I0924 03:53:42.532474 11481 layer_factory.hpp:77] Creating layer conv1
I0924 03:53:42.532513 11481 net.cpp:91] Creating Layer conv1
I0924 03:53:42.532523 11481 net.cpp:425] conv1 <- data
I0924 03:53:42.532538 11481 net.cpp:399] conv1 -> conv1
I0924 03:53:42.532763 11461 net.cpp:141] Setting up input
I0924 03:53:42.532783 11461 net.cpp:148] Top shape: 1 4096 (4096)
I0924 03:53:42.532790 11461 net.cpp:148] Top shape: 1 1 (1)
I0924 03:53:42.532796 11461 net.cpp:148] Top shape: 1 1 (1)
I0924 03:53:42.532802 11461 net.cpp:148] Top shape: 1 1 (1)
I0924 03:53:42.532810 11461 net.cpp:156] Memory required for data: 16396
I0924 03:53:42.532822 11461 layer_factory.hpp:77] Creating layer cont_sentence_input_1_split
I0924 03:53:42.532848 11461 net.cpp:91] Creating Layer cont_sentence_input_1_split
I0924 03:53:42.532863 11461 net.cpp:425] cont_sentence_input_1_split <- cont_sentence
I0924 03:53:42.532888 11461 net.cpp:399] cont_sentence_input_1_split -> cont_sentence_input_1_split_0
I0924 03:53:42.532901 11461 net.cpp:399] cont_sentence_input_1_split -> cont_sentence_input_1_split_1
I0924 03:53:42.532959 11479 net.cpp:141] Setting up input
I0924 03:53:42.532995 11479 net.cpp:148] Top shape: 1 4096 (4096)
I0924 03:53:42.533005 11479 net.cpp:148] Top shape: 1 1 (1)
I0924 03:53:42.533011 11479 net.cpp:148] Top shape: 1 1 (1)
I0924 03:53:42.533016 11479 net.cpp:148] Top shape: 1 1 (1)
I0924 03:53:42.533021 11479 net.cpp:156] Memory required for data: 16396
I0924 03:53:42.533030 11479 layer_factory.hpp:77] Creating layer cont_sentence_input_1_split
I0924 03:53:42.533051 11479 net.cpp:91] Creating Layer cont_sentence_input_1_split
I0924 03:53:42.533059 11479 net.cpp:425] cont_sentence_input_1_split <- cont_sentence
I0924 03:53:42.533069 11479 net.cpp:399] cont_sentence_input_1_split -> cont_sentence_input_1_split_0
I0924 03:53:42.533083 11479 net.cpp:399] cont_sentence_input_1_split -> cont_sentence_input_1_split_1
I0924 03:53:42.533175 11455 net.cpp:141] Setting up input
I0924 03:53:42.533196 11455 net.cpp:148] Top shape: 1 4096 (4096)
I0924 03:53:42.533207 11455 net.cpp:148] Top shape: 1 1 (1)
I0924 03:53:42.533216 11455 net.cpp:148] Top shape: 1 1 (1)
I0924 03:53:42.533228 11455 net.cpp:148] Top shape: 1 1 (1)
I0924 03:53:42.533238 11455 net.cpp:156] Memory required for data: 16396
I0924 03:53:42.533251 11455 layer_factory.hpp:77] Creating layer cont_sentence_input_1_split
I0924 03:53:42.533272 11455 net.cpp:91] Creating Layer cont_sentence_input_1_split
I0924 03:53:42.533282 11455 net.cpp:425] cont_sentence_input_1_split <- cont_sentence
I0924 03:53:42.533300 11455 net.cpp:399] cont_sentence_input_1_split -> cont_sentence_input_1_split_0
I0924 03:53:42.533321 11455 net.cpp:399] cont_sentence_input_1_split -> cont_sentence_input_1_split_1
I0924 03:53:42.533468 11461 net.cpp:141] Setting up cont_sentence_input_1_split
I0924 03:53:42.533485 11461 net.cpp:148] Top shape: 1 1 (1)
I0924 03:53:42.533495 11461 net.cpp:148] Top shape: 1 1 (1)
I0924 03:53:42.533501 11461 net.cpp:156] Memory required for data: 16404
I0924 03:53:42.533509 11461 layer_factory.hpp:77] Creating layer embed_encoder
I0924 03:53:42.533540 11461 net.cpp:91] Creating Layer embed_encoder
I0924 03:53:42.533550 11461 net.cpp:425] embed_encoder <- frames_fc7
I0924 03:53:42.533560 11461 net.cpp:399] embed_encoder -> embedded_in_frames
I0924 03:53:42.539300 11497 net.cpp:141] Setting up input
I0924 03:53:42.539351 11497 net.cpp:148] Top shape: 1 4096 (4096)
I0924 03:53:42.539363 11497 net.cpp:148] Top shape: 1 1 (1)
I0924 03:53:42.539373 11497 net.cpp:148] Top shape: 1 1 (1)
I0924 03:53:42.539382 11497 net.cpp:148] Top shape: 1 1 (1)
I0924 03:53:42.539389 11497 net.cpp:156] Memory required for data: 16396
I0924 03:53:42.539402 11497 layer_factory.hpp:77] Creating layer cont_sentence_input_1_split
I0924 03:53:42.539433 11497 net.cpp:91] Creating Layer cont_sentence_input_1_split
I0924 03:53:42.539443 11497 net.cpp:425] cont_sentence_input_1_split <- cont_sentence
I0924 03:53:42.539443 11459 net.cpp:141] Setting up input
I0924 03:53:42.539460 11497 net.cpp:399] cont_sentence_input_1_split -> cont_sentence_input_1_split_0
I0924 03:53:42.539464 11459 net.cpp:148] Top shape: 1 4096 (4096)
I0924 03:53:42.539476 11459 net.cpp:148] Top shape: 1 1 (1)
I0924 03:53:42.539480 11497 net.cpp:399] cont_sentence_input_1_split -> cont_sentence_input_1_split_1
I0924 03:53:42.539485 11459 net.cpp:148] Top shape: 1 1 (1)
I0924 03:53:42.539494 11459 net.cpp:148] Top shape: 1 1 (1)
I0924 03:53:42.539501 11459 net.cpp:156] Memory required for data: 16396
I0924 03:53:42.539510 11459 layer_factory.hpp:77] Creating layer cont_sentence_input_1_split
I0924 03:53:42.539535 11459 net.cpp:91] Creating Layer cont_sentence_input_1_split
I0924 03:53:42.539544 11459 net.cpp:425] cont_sentence_input_1_split <- cont_sentence
I0924 03:53:42.539556 11459 net.cpp:399] cont_sentence_input_1_split -> cont_sentence_input_1_split_0
I0924 03:53:42.539558 11497 net.cpp:141] Setting up cont_sentence_input_1_split
I0924 03:53:42.539573 11497 net.cpp:148] Top shape: 1 1 (1)
I0924 03:53:42.539583 11497 net.cpp:148] Top shape: 1 1 (1)
I0924 03:53:42.539590 11497 net.cpp:156] Memory required for data: 16404
I0924 03:53:42.539594 11459 net.cpp:399] cont_sentence_input_1_split -> cont_sentence_input_1_split_1
I0924 03:53:42.539597 11497 layer_factory.hpp:77] Creating layer embed_encoder
I0924 03:53:42.539620 11497 net.cpp:91] Creating Layer embed_encoder
I0924 03:53:42.539628 11497 net.cpp:425] embed_encoder <- frames_fc7
I0924 03:53:42.539645 11497 net.cpp:399] embed_encoder -> embedded_in_frames
I0924 03:53:42.539667 11459 net.cpp:141] Setting up cont_sentence_input_1_split
I0924 03:53:42.539681 11459 net.cpp:148] Top shape: 1 1 (1)
I0924 03:53:42.539690 11459 net.cpp:148] Top shape: 1 1 (1)
I0924 03:53:42.539697 11459 net.cpp:156] Memory required for data: 16404
I0924 03:53:42.539705 11459 layer_factory.hpp:77] Creating layer embed_encoder
I0924 03:53:42.539729 11459 net.cpp:91] Creating Layer embed_encoder
I0924 03:53:42.539738 11459 net.cpp:425] embed_encoder <- frames_fc7
I0924 03:53:42.539749 11459 net.cpp:399] embed_encoder -> embedded_in_frames
I0924 03:53:42.544919 11509 net.cpp:141] Setting up input
I0924 03:53:42.544962 11509 net.cpp:148] Top shape: 1 4096 (4096)
I0924 03:53:42.544970 11509 net.cpp:148] Top shape: 1 1 (1)
I0924 03:53:42.544976 11509 net.cpp:148] Top shape: 1 1 (1)
I0924 03:53:42.544982 11509 net.cpp:148] Top shape: 1 1 (1)
I0924 03:53:42.544987 11509 net.cpp:156] Memory required for data: 16396
I0924 03:53:42.544996 11455 net.cpp:141] Setting up cont_sentence_input_1_split
I0924 03:53:42.544997 11509 layer_factory.hpp:77] Creating layer cont_sentence_input_1_split
I0924 03:53:42.545042 11455 net.cpp:148] Top shape: 1 1 (1)
I0924 03:53:42.545044 11505 net.cpp:141] Setting up input
I0924 03:53:42.545053 11455 net.cpp:148] Top shape: 1 1 (1)
I0924 03:53:42.545058 11509 net.cpp:91] Creating Layer cont_sentence_input_1_split
I0924 03:53:42.545060 11455 net.cpp:156] Memory required for data: 16404
I0924 03:53:42.545064 11505 net.cpp:148] Top shape: 1 4096 (4096)
I0924 03:53:42.545069 11509 net.cpp:425] cont_sentence_input_1_split <- cont_sentence
I0924 03:53:42.545070 11455 layer_factory.hpp:77] Creating layer embed_encoder
I0924 03:53:42.545075 11505 net.cpp:148] Top shape: 1 1 (1)
I0924 03:53:42.545083 11509 net.cpp:399] cont_sentence_input_1_split -> cont_sentence_input_1_split_0
I0924 03:53:42.545085 11505 net.cpp:148] Top shape: 1 1 (1)
I0924 03:53:42.545094 11455 net.cpp:91] Creating Layer embed_encoder
I0924 03:53:42.545099 11509 net.cpp:399] cont_sentence_input_1_split -> cont_sentence_input_1_split_1
I0924 03:53:42.545095 11505 net.cpp:148] Top shape: 1 1 (1)
I0924 03:53:42.545115 11455 net.cpp:425] embed_encoder <- frames_fc7
I0924 03:53:42.545119 11505 net.cpp:156] Memory required for data: 16396
I0924 03:53:42.545130 11505 layer_factory.hpp:77] Creating layer cont_sentence_input_1_split
I0924 03:53:42.545130 11455 net.cpp:399] embed_encoder -> embedded_in_frames
I0924 03:53:42.545151 11505 net.cpp:91] Creating Layer cont_sentence_input_1_split
I0924 03:53:42.545159 11505 net.cpp:425] cont_sentence_input_1_split <- cont_sentence
I0924 03:53:42.545174 11509 net.cpp:141] Setting up cont_sentence_input_1_split
I0924 03:53:42.545183 11505 net.cpp:399] cont_sentence_input_1_split -> cont_sentence_input_1_split_0
I0924 03:53:42.545189 11509 net.cpp:148] Top shape: 1 1 (1)
I0924 03:53:42.545197 11509 net.cpp:148] Top shape: 1 1 (1)
I0924 03:53:42.545199 11505 net.cpp:399] cont_sentence_input_1_split -> cont_sentence_input_1_split_1
I0924 03:53:42.545202 11509 net.cpp:156] Memory required for data: 16404
I0924 03:53:42.545227 11509 layer_factory.hpp:77] Creating layer embed_encoder
I0924 03:53:42.545224 11479 net.cpp:141] Setting up cont_sentence_input_1_split
I0924 03:53:42.545243 11509 net.cpp:91] Creating Layer embed_encoder
I0924 03:53:42.545245 11479 net.cpp:148] Top shape: 1 1 (1)
I0924 03:53:42.545248 11509 net.cpp:425] embed_encoder <- frames_fc7
I0924 03:53:42.545265 11479 net.cpp:148] Top shape: 1 1 (1)
I0924 03:53:42.545272 11479 net.cpp:156] Memory required for data: 16404
I0924 03:53:42.545275 11509 net.cpp:399] embed_encoder -> embedded_in_frames
I0924 03:53:42.545280 11479 layer_factory.hpp:77] Creating layer embed_encoder
I0924 03:53:42.545303 11479 net.cpp:91] Creating Layer embed_encoder
I0924 03:53:42.545320 11479 net.cpp:425] embed_encoder <- frames_fc7
I0924 03:53:42.545303 11505 net.cpp:141] Setting up cont_sentence_input_1_split
I0924 03:53:42.545333 11479 net.cpp:399] embed_encoder -> embedded_in_frames
I0924 03:53:42.545341 11505 net.cpp:148] Top shape: 1 1 (1)
I0924 03:53:42.545366 11505 net.cpp:148] Top shape: 1 1 (1)
I0924 03:53:42.545372 11505 net.cpp:156] Memory required for data: 16404
I0924 03:53:42.545380 11505 layer_factory.hpp:77] Creating layer embed_encoder
I0924 03:53:42.545395 11505 net.cpp:91] Creating Layer embed_encoder
I0924 03:53:42.545403 11505 net.cpp:425] embed_encoder <- frames_fc7
I0924 03:53:42.545428 11505 net.cpp:399] embed_encoder -> embedded_in_frames
I0924 03:53:42.565320 11497 net.cpp:141] Setting up embed_encoder
I0924 03:53:42.565367 11497 net.cpp:148] Top shape: 1 500 (500)
I0924 03:53:42.565374 11497 net.cpp:156] Memory required for data: 18404
I0924 03:53:42.565438 11497 layer_factory.hpp:77] Creating layer reshape_frames
I0924 03:53:42.565470 11497 net.cpp:91] Creating Layer reshape_frames
I0924 03:53:42.565479 11497 net.cpp:425] reshape_frames <- embedded_in_frames
I0924 03:53:42.565498 11497 net.cpp:399] reshape_frames -> embedded_input_frames
I0924 03:53:42.565557 11497 net.cpp:141] Setting up reshape_frames
I0924 03:53:42.565579 11497 net.cpp:148] Top shape: 1 1 500 (500)
I0924 03:53:42.565585 11497 net.cpp:156] Memory required for data: 20404
I0924 03:53:42.565590 11497 layer_factory.hpp:77] Creating layer reshape_stage_indicator
I0924 03:53:42.565600 11497 net.cpp:91] Creating Layer reshape_stage_indicator
I0924 03:53:42.565605 11497 net.cpp:425] reshape_stage_indicator <- stage_indicator
I0924 03:53:42.565613 11497 net.cpp:399] reshape_stage_indicator -> reshaped_stage_indicator
I0924 03:53:42.565665 11497 net.cpp:141] Setting up reshape_stage_indicator
I0924 03:53:42.565677 11497 net.cpp:148] Top shape: 1 1 1 (1)
I0924 03:53:42.565681 11497 net.cpp:156] Memory required for data: 20408
I0924 03:53:42.565686 11497 layer_factory.hpp:77] Creating layer embedding
I0924 03:53:42.565701 11497 net.cpp:91] Creating Layer embedding
I0924 03:53:42.565706 11497 net.cpp:425] embedding <- input_sentence
I0924 03:53:42.565714 11497 net.cpp:399] embedding -> embedded_input_sentence
I0924 03:53:42.607637 11465 net.cpp:141] Setting up input
I0924 03:53:42.607702 11465 net.cpp:148] Top shape: 1 4096 (4096)
I0924 03:53:42.607700 11473 net.cpp:141] Setting up input
I0924 03:53:42.607734 11465 net.cpp:148] Top shape: 1 1 (1)
I0924 03:53:42.607756 11465 net.cpp:148] Top shape: 1 1 (1)
I0924 03:53:42.607758 11473 net.cpp:148] Top shape: 1 4096 (4096)
I0924 03:53:42.607764 11465 net.cpp:148] Top shape: 1 1 (1)
I0924 03:53:42.607769 11473 net.cpp:148] Top shape: 1 1 (1)
I0924 03:53:42.607784 11473 net.cpp:148] Top shape: 1 1 (1)
I0924 03:53:42.607769 11465 net.cpp:156] Memory required for data: 16396
I0924 03:53:42.607795 11473 net.cpp:148] Top shape: 1 1 (1)
I0924 03:53:42.607812 11465 layer_factory.hpp:77] Creating layer cont_sentence_input_1_split
I0924 03:53:42.607832 11473 net.cpp:156] Memory required for data: 16396
I0924 03:53:42.607852 11473 layer_factory.hpp:77] Creating layer cont_sentence_input_1_split
I0924 03:53:42.607854 11465 net.cpp:91] Creating Layer cont_sentence_input_1_split
I0924 03:53:42.607863 11465 net.cpp:425] cont_sentence_input_1_split <- cont_sentence
I0924 03:53:42.607873 11473 net.cpp:91] Creating Layer cont_sentence_input_1_split
I0924 03:53:42.607877 11465 net.cpp:399] cont_sentence_input_1_split -> cont_sentence_input_1_split_0
I0924 03:53:42.607882 11473 net.cpp:425] cont_sentence_input_1_split <- cont_sentence
I0924 03:53:42.607893 11473 net.cpp:399] cont_sentence_input_1_split -> cont_sentence_input_1_split_0
I0924 03:53:42.607894 11465 net.cpp:399] cont_sentence_input_1_split -> cont_sentence_input_1_split_1
I0924 03:53:42.607913 11473 net.cpp:399] cont_sentence_input_1_split -> cont_sentence_input_1_split_1
I0924 03:53:42.607981 11465 net.cpp:141] Setting up cont_sentence_input_1_split
I0924 03:53:42.607993 11465 net.cpp:148] Top shape: 1 1 (1)
I0924 03:53:42.608000 11465 net.cpp:148] Top shape: 1 1 (1)
I0924 03:53:42.608005 11465 net.cpp:156] Memory required for data: 16404
I0924 03:53:42.608009 11465 layer_factory.hpp:77] Creating layer embed_encoder
I0924 03:53:42.608027 11465 net.cpp:91] Creating Layer embed_encoder
I0924 03:53:42.608033 11465 net.cpp:425] embed_encoder <- frames_fc7
I0924 03:53:42.608043 11465 net.cpp:399] embed_encoder -> embedded_in_frames
I0924 03:53:42.623175 11459 net.cpp:141] Setting up embed_encoder
I0924 03:53:42.623766 11459 net.cpp:148] Top shape: 1 500 (500)
I0924 03:53:42.623781 11459 net.cpp:156] Memory required for data: 18404
I0924 03:53:42.623809 11459 layer_factory.hpp:77] Creating layer reshape_frames
I0924 03:53:42.623850 11459 net.cpp:91] Creating Layer reshape_frames
I0924 03:53:42.623862 11459 net.cpp:425] reshape_frames <- embedded_in_frames
I0924 03:53:42.623875 11459 net.cpp:399] reshape_frames -> embedded_input_frames
I0924 03:53:42.623936 11459 net.cpp:141] Setting up reshape_frames
I0924 03:53:42.623950 11459 net.cpp:148] Top shape: 1 1 500 (500)
I0924 03:53:42.623957 11459 net.cpp:156] Memory required for data: 20404
I0924 03:53:42.623968 11459 layer_factory.hpp:77] Creating layer reshape_stage_indicator
I0924 03:53:42.623986 11459 net.cpp:91] Creating Layer reshape_stage_indicator
I0924 03:53:42.623991 11459 net.cpp:425] reshape_stage_indicator <- stage_indicator
I0924 03:53:42.624016 11459 net.cpp:399] reshape_stage_indicator -> reshaped_stage_indicator
I0924 03:53:42.624140 11473 net.cpp:141] Setting up cont_sentence_input_1_split
I0924 03:53:42.624178 11473 net.cpp:148] Top shape: 1 1 (1)
I0924 03:53:42.624186 11473 net.cpp:148] Top shape: 1 1 (1)
I0924 03:53:42.624191 11473 net.cpp:156] Memory required for data: 16404
I0924 03:53:42.624199 11473 layer_factory.hpp:77] Creating layer embed_encoder
I0924 03:53:42.624222 11473 net.cpp:91] Creating Layer embed_encoder
I0924 03:53:42.624231 11473 net.cpp:425] embed_encoder <- frames_fc7
I0924 03:53:42.624250 11473 net.cpp:399] embed_encoder -> embedded_in_frames
I0924 03:53:42.625123 11459 net.cpp:141] Setting up reshape_stage_indicator
I0924 03:53:42.625140 11459 net.cpp:148] Top shape: 1 1 1 (1)
I0924 03:53:42.625146 11459 net.cpp:156] Memory required for data: 20408
I0924 03:53:42.625151 11459 layer_factory.hpp:77] Creating layer embedding
I0924 03:53:42.625164 11459 net.cpp:91] Creating Layer embedding
I0924 03:53:42.625169 11459 net.cpp:425] embedding <- input_sentence
I0924 03:53:42.625195 11459 net.cpp:399] embedding -> embedded_input_sentence
I0924 03:53:42.625362 11461 net.cpp:141] Setting up embed_encoder
I0924 03:53:42.625385 11461 net.cpp:148] Top shape: 1 500 (500)
I0924 03:53:42.625393 11461 net.cpp:156] Memory required for data: 18404
I0924 03:53:42.625423 11509 net.cpp:141] Setting up embed_encoder
I0924 03:53:42.625447 11509 net.cpp:148] Top shape: 1 500 (500)
I0924 03:53:42.625452 11455 net.cpp:141] Setting up embed_encoder
I0924 03:53:42.625416 11461 layer_factory.hpp:77] Creating layer reshape_frames
I0924 03:53:42.625480 11455 net.cpp:148] Top shape: 1 500 (500)
I0924 03:53:42.625519 11461 net.cpp:91] Creating Layer reshape_frames
I0924 03:53:42.625533 11461 net.cpp:425] reshape_frames <- embedded_in_frames
I0924 03:53:42.625545 11455 net.cpp:156] Memory required for data: 18404
I0924 03:53:42.625548 11461 net.cpp:399] reshape_frames -> embedded_input_frames
I0924 03:53:42.625569 11455 layer_factory.hpp:77] Creating layer reshape_frames
I0924 03:53:42.625586 11455 net.cpp:91] Creating Layer reshape_frames
I0924 03:53:42.625596 11455 net.cpp:425] reshape_frames <- embedded_in_frames
I0924 03:53:42.625612 11455 net.cpp:399] reshape_frames -> embedded_input_frames
I0924 03:53:42.625458 11509 net.cpp:156] Memory required for data: 18404
I0924 03:53:42.633882 11509 layer_factory.hpp:77] Creating layer reshape_frames
I0924 03:53:42.633925 11509 net.cpp:91] Creating Layer reshape_frames
I0924 03:53:42.633939 11509 net.cpp:425] reshape_frames <- embedded_in_frames
I0924 03:53:42.633956 11509 net.cpp:399] reshape_frames -> embedded_input_frames
I0924 03:53:42.680054 11461 net.cpp:141] Setting up reshape_frames
I0924 03:53:42.680109 11461 net.cpp:148] Top shape: 1 1 500 (500)
I0924 03:53:42.680115 11461 net.cpp:156] Memory required for data: 20404
I0924 03:53:42.680124 11461 layer_factory.hpp:77] Creating layer reshape_stage_indicator
I0924 03:53:42.680150 11461 net.cpp:91] Creating Layer reshape_stage_indicator
I0924 03:53:42.680157 11461 net.cpp:425] reshape_stage_indicator <- stage_indicator
I0924 03:53:42.680171 11461 net.cpp:399] reshape_stage_indicator -> reshaped_stage_indicator
I0924 03:53:42.680173 11455 net.cpp:141] Setting up reshape_frames
I0924 03:53:42.680199 11509 net.cpp:141] Setting up reshape_frames
I0924 03:53:42.680235 11455 net.cpp:148] Top shape: 1 1 500 (500)
I0924 03:53:42.680239 11509 net.cpp:148] Top shape: 1 1 500 (500)
I0924 03:53:42.680243 11455 net.cpp:156] Memory required for data: 20404
I0924 03:53:42.680246 11509 net.cpp:156] Memory required for data: 20404
I0924 03:53:42.680253 11461 net.cpp:141] Setting up reshape_stage_indicator
I0924 03:53:42.680253 11509 layer_factory.hpp:77] Creating layer reshape_stage_indicator
I0924 03:53:42.680270 11461 net.cpp:148] Top shape: 1 1 1 (1)
I0924 03:53:42.680253 11455 layer_factory.hpp:77] Creating layer reshape_stage_indicator
I0924 03:53:42.680279 11461 net.cpp:156] Memory required for data: 20408
I0924 03:53:42.680284 11461 layer_factory.hpp:77] Creating layer embedding
I0924 03:53:42.680296 11455 net.cpp:91] Creating Layer reshape_stage_indicator
I0924 03:53:42.680306 11461 net.cpp:91] Creating Layer embedding
I0924 03:53:42.680313 11455 net.cpp:425] reshape_stage_indicator <- stage_indicator
I0924 03:53:42.680299 11509 net.cpp:91] Creating Layer reshape_stage_indicator
I0924 03:53:42.680317 11461 net.cpp:425] embedding <- input_sentence
I0924 03:53:42.680330 11509 net.cpp:425] reshape_stage_indicator <- stage_indicator
I0924 03:53:42.680341 11455 net.cpp:399] reshape_stage_indicator -> reshaped_stage_indicator
I0924 03:53:42.680346 11461 net.cpp:399] embedding -> embedded_input_sentence
I0924 03:53:42.680353 11509 net.cpp:399] reshape_stage_indicator -> reshaped_stage_indicator
I0924 03:53:42.680949 11455 net.cpp:141] Setting up reshape_stage_indicator
I0924 03:53:42.680968 11455 net.cpp:148] Top shape: 1 1 1 (1)
I0924 03:53:42.680976 11455 net.cpp:156] Memory required for data: 20408
I0924 03:53:42.680985 11455 layer_factory.hpp:77] Creating layer embedding
I0924 03:53:42.681002 11455 net.cpp:91] Creating Layer embedding
I0924 03:53:42.681011 11455 net.cpp:425] embedding <- input_sentence
I0924 03:53:42.681025 11455 net.cpp:399] embedding -> embedded_input_sentence
I0924 03:53:42.720757 11509 net.cpp:141] Setting up reshape_stage_indicator
I0924 03:53:42.720821 11509 net.cpp:148] Top shape: 1 1 1 (1)
I0924 03:53:42.720832 11509 net.cpp:156] Memory required for data: 20408
I0924 03:53:42.720844 11509 layer_factory.hpp:77] Creating layer embedding
I0924 03:53:42.720876 11509 net.cpp:91] Creating Layer embedding
I0924 03:53:42.720890 11509 net.cpp:425] embedding <- input_sentence
I0924 03:53:42.720909 11509 net.cpp:399] embedding -> embedded_input_sentence
I0924 03:53:42.769925 11479 net.cpp:141] Setting up embed_encoder
I0924 03:53:42.769989 11479 net.cpp:148] Top shape: 1 500 (500)
I0924 03:53:42.770001 11479 net.cpp:156] Memory required for data: 18404
I0924 03:53:42.770035 11479 layer_factory.hpp:77] Creating layer reshape_frames
I0924 03:53:42.770067 11479 net.cpp:91] Creating Layer reshape_frames
I0924 03:53:42.770081 11479 net.cpp:425] reshape_frames <- embedded_in_frames
I0924 03:53:42.770098 11479 net.cpp:399] reshape_frames -> embedded_input_frames
I0924 03:53:42.770102 11465 net.cpp:141] Setting up embed_encoder
I0924 03:53:42.770148 11465 net.cpp:148] Top shape: 1 500 (500)
I0924 03:53:42.770156 11465 net.cpp:156] Memory required for data: 18404
I0924 03:53:42.770184 11479 net.cpp:141] Setting up reshape_frames
I0924 03:53:42.770185 11465 layer_factory.hpp:77] Creating layer reshape_frames
I0924 03:53:42.770215 11479 net.cpp:148] Top shape: 1 1 500 (500)
I0924 03:53:42.770223 11479 net.cpp:156] Memory required for data: 20404
I0924 03:53:42.770232 11479 layer_factory.hpp:77] Creating layer reshape_stage_indicator
I0924 03:53:42.770237 11465 net.cpp:91] Creating Layer reshape_frames
I0924 03:53:42.770248 11479 net.cpp:91] Creating Layer reshape_stage_indicator
I0924 03:53:42.770249 11465 net.cpp:425] reshape_frames <- embedded_in_frames
I0924 03:53:42.770267 11479 net.cpp:425] reshape_stage_indicator <- stage_indicator
I0924 03:53:42.770282 11465 net.cpp:399] reshape_frames -> embedded_input_frames
I0924 03:53:42.770284 11479 net.cpp:399] reshape_stage_indicator -> reshaped_stage_indicator
I0924 03:53:42.770357 11479 net.cpp:141] Setting up reshape_stage_indicator
I0924 03:53:42.770375 11479 net.cpp:148] Top shape: 1 1 1 (1)
I0924 03:53:42.770382 11479 net.cpp:156] Memory required for data: 20408
I0924 03:53:42.770391 11479 layer_factory.hpp:77] Creating layer embedding
I0924 03:53:42.770416 11479 net.cpp:91] Creating Layer embedding
I0924 03:53:42.770427 11479 net.cpp:425] embedding <- input_sentence
I0924 03:53:42.770442 11479 net.cpp:399] embedding -> embedded_input_sentence
I0924 03:53:42.811739 11505 net.cpp:141] Setting up embed_encoder
I0924 03:53:42.811803 11505 net.cpp:148] Top shape: 1 500 (500)
I0924 03:53:42.811810 11505 net.cpp:156] Memory required for data: 18404
I0924 03:53:42.811835 11505 layer_factory.hpp:77] Creating layer reshape_frames
I0924 03:53:42.811872 11505 net.cpp:91] Creating Layer reshape_frames
I0924 03:53:42.811882 11505 net.cpp:425] reshape_frames <- embedded_in_frames
I0924 03:53:42.811893 11505 net.cpp:399] reshape_frames -> embedded_input_frames
I0924 03:53:42.814157 11497 net.cpp:141] Setting up embedding
I0924 03:53:42.814182 11497 net.cpp:148] Top shape: 1 1 500 (500)
I0924 03:53:42.814190 11497 net.cpp:156] Memory required for data: 22408
I0924 03:53:42.814196 11465 net.cpp:141] Setting up reshape_frames
I0924 03:53:42.814208 11497 layer_factory.hpp:77] Creating layer lstm1
I0924 03:53:42.814213 11465 net.cpp:148] Top shape: 1 1 500 (500)
I0924 03:53:42.814219 11465 net.cpp:156] Memory required for data: 20404
I0924 03:53:42.814227 11465 layer_factory.hpp:77] Creating layer reshape_stage_indicator
I0924 03:53:42.814244 11465 net.cpp:91] Creating Layer reshape_stage_indicator
I0924 03:53:42.814245 11497 net.cpp:91] Creating Layer lstm1
I0924 03:53:42.814261 11465 net.cpp:425] reshape_stage_indicator <- stage_indicator
I0924 03:53:42.814265 11497 net.cpp:425] lstm1 <- embedded_input_frames
I0924 03:53:42.814276 11497 net.cpp:425] lstm1 <- cont_sentence_input_1_split_0
I0924 03:53:42.814276 11465 net.cpp:399] reshape_stage_indicator -> reshaped_stage_indicator
I0924 03:53:42.814299 11497 net.cpp:399] lstm1 -> lstm1
I0924 03:53:42.814329 11497 recurrent_layer.cpp:20] Initializing recurrent layer: assuming input batch contains 1 timesteps of 1 independent streams.
I0924 03:53:42.851306 11497 net.cpp:49] Initializing net from parameters: 
layer {
  name: "lstm1_"
  type: "Input"
  top: "x"
  top: "cont"
  input_param {
    shape {
      dim: 1
      dim: 1
      dim: 500
    }
    shape {
      dim: 1
      dim: 1
    }
  }
}
layer {
  name: "lstm1_"
  type: "Input"
  top: "c_0"
  top: "h_0"
  input_param {
    shape {
      dim: 1
      dim: 1
      dim: 1000
    }
    shape {
      dim: 1
      dim: 1
      dim: 1000
    }
  }
}
layer {
  name: "lstm1_cont_slice"
  type: "Slice"
  bottom: "cont"
  top: "cont_1"
  slice_param {
    axis: 0
  }
}
layer {
  name: "lstm1_x_transform"
  type: "InnerProduct"
  bottom: "x"
  top: "W_xc_x"
  param {
    name: "W_xc"
  }
  param {
    name: "b_c"
  }
  propagate_down: true
  inner_product_param {
    num_output: 4000
    bias_term: true
    weight_filler {
      type: "uniform"
      min: -0.08
      max: 0.08
    }
    bias_filler {
      type: "constant"
      value: 0
    }
    axis: 2
  }
}
layer {
  name: "lstm1_W_xc_x_slice"
  type: "Slice"
  bottom: "W_xc_x"
  top: "W_xc_x_1"
  slice_param {
    axis: 0
  }
}
layer {
  name: "lstm1_h_conted_0"
  type: "Scale"
  bottom: "h_0"
  bottom: "cont_1"
  top: "h_conted_0"
  scale_param {
    axis: 0
  }
}
layer {
  name: "lstm1_transform_1"
  type: "InnerProduct"
  bottom: "h_conted_0"
  top: "W_hc_h_0"
  param {
    name: "W_hc"
  }
  inner_product_param {
    num_output: 4000
    bias_term: false
    weight_filler {
      type: "uniform"
      min: -0.08
      max: 0.08
    }
    axis: 2
  }
}
layer {
  name: "lstm1_gate_input_1"
  type: "Eltwise"
  bottom: "W_hc_h_0"
  bottom: "W_xc_x_1"
  top: "gate_input_1"
  eltwise_param {
    operation: SUM
  }
}
layer {
  name: "lstm1_unit_1"
  type: "LSTMUnit"
  bottom: "c_0"
  bottom: "gate_input_1"
  bottom: "cont_1"
  top: "c_1"
  top: "h_1"
}
layer {
  name: "lstm1_"
  type: "Split"
  bottom: "c_1"
  top: "c_T"
}
layer {
  name: "lstm1_h_concat"
  type: "Concat"
  bottom: "h_1"
  top: "h"
  concat_param {
    axis: 0
  }
}
layer {
  name: "h_pseudoloss"
  type: "Reduction"
  bottom: "h"
  top: "h_pseudoloss"
  loss_weight: 1
}
I0924 03:53:42.851485 11497 layer_factory.hpp:77] Creating layer lstm1_
I0924 03:53:42.851505 11497 net.cpp:91] Creating Layer lstm1_
I0924 03:53:42.851513 11497 net.cpp:399] lstm1_ -> x
I0924 03:53:42.851534 11497 net.cpp:399] lstm1_ -> cont
I0924 03:53:42.854562 11505 net.cpp:141] Setting up reshape_frames
I0924 03:53:42.854584 11505 net.cpp:148] Top shape: 1 1 500 (500)
I0924 03:53:42.854590 11505 net.cpp:156] Memory required for data: 20404
I0924 03:53:42.854614 11505 layer_factory.hpp:77] Creating layer reshape_stage_indicator
I0924 03:53:42.854653 11505 net.cpp:91] Creating Layer reshape_stage_indicator
I0924 03:53:42.854661 11505 net.cpp:425] reshape_stage_indicator <- stage_indicator
I0924 03:53:42.854674 11505 net.cpp:399] reshape_stage_indicator -> reshaped_stage_indicator
I0924 03:53:42.854706 11473 net.cpp:141] Setting up embed_encoder
I0924 03:53:42.854748 11473 net.cpp:148] Top shape: 1 500 (500)
I0924 03:53:42.854758 11473 net.cpp:156] Memory required for data: 18404
I0924 03:53:42.854759 11505 net.cpp:141] Setting up reshape_stage_indicator
I0924 03:53:42.854778 11505 net.cpp:148] Top shape: 1 1 1 (1)
I0924 03:53:42.854784 11505 net.cpp:156] Memory required for data: 20408
I0924 03:53:42.854789 11473 layer_factory.hpp:77] Creating layer reshape_frames
I0924 03:53:42.854794 11505 layer_factory.hpp:77] Creating layer embedding
I0924 03:53:42.854811 11505 net.cpp:91] Creating Layer embedding
I0924 03:53:42.854817 11473 net.cpp:91] Creating Layer reshape_frames
I0924 03:53:42.854820 11505 net.cpp:425] embedding <- input_sentence
I0924 03:53:42.854830 11473 net.cpp:425] reshape_frames <- embedded_in_frames
I0924 03:53:42.854848 11473 net.cpp:399] reshape_frames -> embedded_input_frames
I0924 03:53:42.854851 11505 net.cpp:399] embedding -> embedded_input_sentence
I0924 03:53:42.857569 11473 net.cpp:141] Setting up reshape_frames
I0924 03:53:42.857617 11473 net.cpp:148] Top shape: 1 1 500 (500)
I0924 03:53:42.857625 11473 net.cpp:156] Memory required for data: 20404
I0924 03:53:42.857635 11473 layer_factory.hpp:77] Creating layer reshape_stage_indicator
I0924 03:53:42.857662 11473 net.cpp:91] Creating Layer reshape_stage_indicator
I0924 03:53:42.857672 11473 net.cpp:425] reshape_stage_indicator <- stage_indicator
I0924 03:53:42.857694 11473 net.cpp:399] reshape_stage_indicator -> reshaped_stage_indicator
I0924 03:53:42.861723 11465 net.cpp:141] Setting up reshape_stage_indicator
I0924 03:53:42.861740 11497 net.cpp:141] Setting up lstm1_
I0924 03:53:42.861778 11465 net.cpp:148] Top shape: 1 1 1 (1)
I0924 03:53:42.861783 11497 net.cpp:148] Top shape: 1 1 500 (500)
I0924 03:53:42.861783 11465 net.cpp:156] Memory required for data: 20408
I0924 03:53:42.861796 11497 net.cpp:148] Top shape: 1 1 (1)
I0924 03:53:42.861800 11497 net.cpp:156] Memory required for data: 2004
I0924 03:53:42.861802 11465 layer_factory.hpp:77] Creating layer embedding
I0924 03:53:42.861809 11497 layer_factory.hpp:77] Creating layer lstm1_
I0924 03:53:42.861825 11465 net.cpp:91] Creating Layer embedding
I0924 03:53:42.861829 11497 net.cpp:91] Creating Layer lstm1_
I0924 03:53:42.861834 11465 net.cpp:425] embedding <- input_sentence
I0924 03:53:42.861837 11497 net.cpp:399] lstm1_ -> c_0
I0924 03:53:42.861845 11465 net.cpp:399] embedding -> embedded_input_sentence
I0924 03:53:42.861871 11497 net.cpp:399] lstm1_ -> h_0
I0924 03:53:42.861918 11473 net.cpp:141] Setting up reshape_stage_indicator
I0924 03:53:42.861950 11497 net.cpp:141] Setting up lstm1_
I0924 03:53:42.861958 11473 net.cpp:148] Top shape: 1 1 1 (1)
I0924 03:53:42.861963 11497 net.cpp:148] Top shape: 1 1 1000 (1000)
I0924 03:53:42.861968 11473 net.cpp:156] Memory required for data: 20408
I0924 03:53:42.861970 11497 net.cpp:148] Top shape: 1 1 1000 (1000)
I0924 03:53:42.861984 11473 layer_factory.hpp:77] Creating layer embedding
I0924 03:53:42.861986 11497 net.cpp:156] Memory required for data: 10004
I0924 03:53:42.862001 11497 layer_factory.hpp:77] Creating layer lstm1_cont_slice
I0924 03:53:42.862011 11473 net.cpp:91] Creating Layer embedding
I0924 03:53:42.862017 11497 net.cpp:91] Creating Layer lstm1_cont_slice
I0924 03:53:42.862023 11497 net.cpp:425] lstm1_cont_slice <- cont
I0924 03:53:42.862022 11473 net.cpp:425] embedding <- input_sentence
I0924 03:53:42.862052 11473 net.cpp:399] embedding -> embedded_input_sentence
I0924 03:53:42.862066 11497 net.cpp:399] lstm1_cont_slice -> cont_1
I0924 03:53:42.959059 11497 net.cpp:141] Setting up lstm1_cont_slice
I0924 03:53:42.959110 11497 net.cpp:148] Top shape: 1 1 (1)
I0924 03:53:42.959117 11497 net.cpp:156] Memory required for data: 10008
I0924 03:53:42.959126 11497 layer_factory.hpp:77] Creating layer cont_1_lstm1_cont_slice_0_split
I0924 03:53:42.959146 11497 net.cpp:91] Creating Layer cont_1_lstm1_cont_slice_0_split
I0924 03:53:42.959153 11497 net.cpp:425] cont_1_lstm1_cont_slice_0_split <- cont_1
I0924 03:53:42.959177 11497 net.cpp:399] cont_1_lstm1_cont_slice_0_split -> cont_1_lstm1_cont_slice_0_split_0
I0924 03:53:42.959192 11497 net.cpp:399] cont_1_lstm1_cont_slice_0_split -> cont_1_lstm1_cont_slice_0_split_1
I0924 03:53:42.959220 11461 net.cpp:141] Setting up embedding
I0924 03:53:42.959259 11461 net.cpp:148] Top shape: 1 1 500 (500)
I0924 03:53:42.959264 11461 net.cpp:156] Memory required for data: 22408
I0924 03:53:42.959282 11461 layer_factory.hpp:77] Creating layer lstm1
I0924 03:53:42.959282 11497 net.cpp:141] Setting up cont_1_lstm1_cont_slice_0_split
I0924 03:53:42.959295 11497 net.cpp:148] Top shape: 1 1 (1)
I0924 03:53:42.959300 11497 net.cpp:148] Top shape: 1 1 (1)
I0924 03:53:42.959306 11497 net.cpp:156] Memory required for data: 10016
I0924 03:53:42.959306 11461 net.cpp:91] Creating Layer lstm1
I0924 03:53:42.959311 11497 layer_factory.hpp:77] Creating layer lstm1_x_transform
I0924 03:53:42.959316 11461 net.cpp:425] lstm1 <- embedded_input_frames
I0924 03:53:42.959326 11461 net.cpp:425] lstm1 <- cont_sentence_input_1_split_0
I0924 03:53:42.959334 11497 net.cpp:91] Creating Layer lstm1_x_transform
I0924 03:53:42.959337 11461 net.cpp:399] lstm1 -> lstm1
I0924 03:53:42.959341 11497 net.cpp:425] lstm1_x_transform <- x
I0924 03:53:42.959350 11497 net.cpp:399] lstm1_x_transform -> W_xc_x
I0924 03:53:42.959355 11461 recurrent_layer.cpp:20] Initializing recurrent layer: assuming input batch contains 1 timesteps of 1 independent streams.
I0924 03:53:43.006908 11461 net.cpp:49] Initializing net from parameters: 
layer {
  name: "lstm1_"
  type: "Input"
  top: "x"
  top: "cont"
  input_param {
    shape {
      dim: 1
      dim: 1
      dim: 500
    }
    shape {
      dim: 1
      dim: 1
    }
  }
}
layer {
  name: "lstm1_"
  type: "Input"
  top: "c_0"
  top: "h_0"
  input_param {
    shape {
      dim: 1
      dim: 1
      dim: 1000
    }
    shape {
      dim: 1
      dim: 1
      dim: 1000
    }
  }
}
layer {
  name: "lstm1_cont_slice"
  type: "Slice"
  bottom: "cont"
  top: "cont_1"
  slice_param {
    axis: 0
  }
}
layer {
  name: "lstm1_x_transform"
  type: "InnerProduct"
  bottom: "x"
  top: "W_xc_x"
  param {
    name: "W_xc"
  }
  param {
    name: "b_c"
  }
  propagate_down: true
  inner_product_param {
    num_output: 4000
    bias_term: true
    weight_filler {
      type: "uniform"
      min: -0.08
      max: 0.08
    }
    bias_filler {
      type: "constant"
      value: 0
    }
    axis: 2
  }
}
layer {
  name: "lstm1_W_xc_x_slice"
  type: "Slice"
  bottom: "W_xc_x"
  top: "W_xc_x_1"
  slice_param {
    axis: 0
  }
}
layer {
  name: "lstm1_h_conted_0"
  type: "Scale"
  bottom: "h_0"
  bottom: "cont_1"
  top: "h_conted_0"
  scale_param {
    axis: 0
  }
}
layer {
  name: "lstm1_transform_1"
  type: "InnerProduct"
  bottom: "h_conted_0"
  top: "W_hc_h_0"
  param {
    name: "W_hc"
  }
  inner_product_param {
    num_output: 4000
    bias_term: false
    weight_filler {
      type: "uniform"
      min: -0.08
      max: 0.08
    }
    axis: 2
  }
}
layer {
  name: "lstm1_gate_input_1"
  type: "Eltwise"
  bottom: "W_hc_h_0"
  bottom: "W_xc_x_1"
  top: "gate_input_1"
  eltwise_param {
    operation: SUM
  }
}
layer {
  name: "lstm1_unit_1"
  type: "LSTMUnit"
  bottom: "c_0"
  bottom: "gate_input_1"
  bottom: "cont_1"
  top: "c_1"
  top: "h_1"
}
layer {
  name: "lstm1_"
  type: "Split"
  bottom: "c_1"
  top: "c_T"
}
layer {
  name: "lstm1_h_concat"
  type: "Concat"
  bottom: "h_1"
  top: "h"
  concat_param {
    axis: 0
  }
}
layer {
  name: "h_pseudoloss"
  type: "Reduction"
  bottom: "h"
  top: "h_pseudoloss"
  loss_weight: 1
}
I0924 03:53:43.018729 11461 layer_factory.hpp:77] Creating layer lstm1_
I0924 03:53:43.018781 11461 net.cpp:91] Creating Layer lstm1_
I0924 03:53:43.018792 11461 net.cpp:399] lstm1_ -> x
I0924 03:53:43.018795 11459 net.cpp:141] Setting up embedding
I0924 03:53:43.018820 11459 net.cpp:148] Top shape: 1 1 500 (500)
I0924 03:53:43.018820 11461 net.cpp:399] lstm1_ -> cont
I0924 03:53:43.018827 11459 net.cpp:156] Memory required for data: 22408
I0924 03:53:43.018844 11459 layer_factory.hpp:77] Creating layer lstm1
I0924 03:53:43.018858 11459 net.cpp:91] Creating Layer lstm1
I0924 03:53:43.018867 11459 net.cpp:425] lstm1 <- embedded_input_frames
I0924 03:53:43.018874 11459 net.cpp:425] lstm1 <- cont_sentence_input_1_split_0
I0924 03:53:43.018893 11459 net.cpp:399] lstm1 -> lstm1
I0924 03:53:43.018910 11459 recurrent_layer.cpp:20] Initializing recurrent layer: assuming input batch contains 1 timesteps of 1 independent streams.
I0924 03:53:43.018905 11455 net.cpp:141] Setting up embedding
I0924 03:53:43.018930 11455 net.cpp:148] Top shape: 1 1 500 (500)
I0924 03:53:43.018942 11455 net.cpp:156] Memory required for data: 22408
I0924 03:53:43.018966 11455 layer_factory.hpp:77] Creating layer lstm1
I0924 03:53:43.018993 11455 net.cpp:91] Creating Layer lstm1
I0924 03:53:43.019006 11455 net.cpp:425] lstm1 <- embedded_input_frames
I0924 03:53:43.019021 11455 net.cpp:425] lstm1 <- cont_sentence_input_1_split_0
I0924 03:53:43.019018 11479 net.cpp:141] Setting up embedding
I0924 03:53:43.019062 11455 net.cpp:399] lstm1 -> lstm1
I0924 03:53:43.019081 11479 net.cpp:148] Top shape: 1 1 500 (500)
I0924 03:53:43.019088 11479 net.cpp:156] Memory required for data: 22408
I0924 03:53:43.019085 11455 recurrent_layer.cpp:20] Initializing recurrent layer: assuming input batch contains 1 timesteps of 1 independent streams.
I0924 03:53:43.019114 11479 layer_factory.hpp:77] Creating layer lstm1
I0924 03:53:43.019134 11479 net.cpp:91] Creating Layer lstm1
I0924 03:53:43.019141 11479 net.cpp:425] lstm1 <- embedded_input_frames
I0924 03:53:43.019150 11479 net.cpp:425] lstm1 <- cont_sentence_input_1_split_0
I0924 03:53:43.019162 11479 net.cpp:399] lstm1 -> lstm1
I0924 03:53:43.019181 11479 recurrent_layer.cpp:20] Initializing recurrent layer: assuming input batch contains 1 timesteps of 1 independent streams.
I0924 03:53:43.019255 11459 net.cpp:49] Initializing net from parameters: 
layer {
  name: "lstm1_"
  type: "Input"
  top: "x"
  top: "cont"
  input_param {
    shape {
      dim: 1
      dim: 1
      dim: 500
    }
    shape {
      dim: 1
      dim: 1
    }
  }
}
layer {
  name: "lstm1_"
  type: "Input"
  top: "c_0"
  top: "h_0"
  input_param {
    shape {
      dim: 1
      dim: 1
      dim: 1000
    }
    shape {
      dim: 1
      dim: 1
      dim: 1000
    }
  }
}
layer {
  name: "lstm1_cont_slice"
  type: "Slice"
  bottom: "cont"
  top: "cont_1"
  slice_param {
    axis: 0
  }
}
layer {
  name: "lstm1_x_transform"
  type: "InnerProduct"
  bottom: "x"
  top: "W_xc_x"
  param {
    name: "W_xc"
  }
  param {
    name: "b_c"
  }
  propagate_down: true
  inner_product_param {
    num_output: 4000
    bias_term: true
    weight_filler {
      type: "uniform"
      min: -0.08
      max: 0.08
    }
    bias_filler {
      type: "constant"
      value: 0
    }
    axis: 2
  }
}
layer {
  name: "lstm1_W_xc_x_slice"
  type: "Slice"
  bottom: "W_xc_x"
  top: "W_xc_x_1"
  slice_param {
    axis: 0
  }
}
layer {
  name: "lstm1_h_conted_0"
  type: "Scale"
  bottom: "h_0"
  bottom: "cont_1"
  top: "h_conted_0"
  scale_param {
    axis: 0
  }
}
layer {
  name: "lstm1_transform_1"
  type: "InnerProduct"
  bottom: "h_conted_0"
  top: "W_hc_h_0"
  param {
    name: "W_hc"
  }
  inner_product_param {
    num_output: 4000
    bias_term: false
    weight_filler {
      type: "uniform"
      min: -0.08
      max: 0.08
    }
    axis: 2
  }
}
layer {
  name: "lstm1_gate_input_1"
  type: "Eltwise"
  bottom: "W_hc_h_0"
  bottom: "W_xc_x_1"
  top: "gate_input_1"
  eltwise_param {
    operation: SUM
  }
}
layer {
  name: "lstm1_unit_1"
  type: "LSTMUnit"
  bottom: "c_0"
  bottom: "gate_input_1"
  bottom: "cont_1"
  top: "c_1"
  top: "h_1"
}
layer {
  name: "lstm1_"
  type: "Split"
  bottom: "c_1"
  top: "c_T"
}
layer {
  name: "lstm1_h_concat"
  type: "Concat"
  bottom: "h_1"
  top: "h"
  concat_param {
    axis: 0
  }
}
layer {
  name: "h_pseudoloss"
  type: "Reduction"
  bottom: "h"
  top: "h_pseudoloss"
  loss_weight: 1
}
I0924 03:53:43.019351 11459 layer_factory.hpp:77] Creating layer lstm1_
I0924 03:53:43.019362 11459 net.cpp:91] Creating Layer lstm1_
I0924 03:53:43.019368 11459 net.cpp:399] lstm1_ -> x
I0924 03:53:43.019379 11459 net.cpp:399] lstm1_ -> cont
I0924 03:53:43.019471 11479 net.cpp:49] Initializing net from parameters: 
layer {
  name: "lstm1_"
  type: "Input"
  top: "x"
  top: "cont"
  input_param {
    shape {
      dim: 1
      dim: 1
      dim: 500
    }
    shape {
      dim: 1
      dim: 1
    }
  }
}
layer {
  name: "lstm1_"
  type: "Input"
  top: "c_0"
  top: "h_0"
  input_param {
    shape {
      dim: 1
      dim: 1
      dim: 1000
    }
    shape {
      dim: 1
      dim: 1
      dim: 1000
    }
  }
}
layer {
  name: "lstm1_cont_slice"
  type: "Slice"
  bottom: "cont"
  top: "cont_1"
  slice_param {
    axis: 0
  }
}
layer {
  name: "lstm1_x_transform"
  type: "InnerProduct"
  bottom: "x"
  top: "W_xc_x"
  param {
    name: "W_xc"
  }
  param {
    name: "b_c"
  }
  propagate_down: true
  inner_product_param {
    num_output: 4000
    bias_term: true
    weight_filler {
      type: "uniform"
      min: -0.08
      max: 0.08
    }
    bias_filler {
      type: "constant"
      value: 0
    }
    axis: 2
  }
}
layer {
  name: "lstm1_W_xc_x_slice"
  type: "Slice"
  bottom: "W_xc_x"
  top: "W_xc_x_1"
  slice_param {
    axis: 0
  }
}
layer {
  name: "lstm1_h_conted_0"
  type: "Scale"
  bottom: "h_0"
  bottom: "cont_1"
  top: "h_conted_0"
  scale_param {
    axis: 0
  }
}
layer {
  name: "lstm1_transform_1"
  type: "InnerProduct"
  bottom: "h_conted_0"
  top: "W_hc_h_0"
  param {
    name: "W_hc"
  }
  inner_product_param {
    num_output: 4000
    bias_term: false
    weight_filler {
      type: "uniform"
      min: -0.08
      max: 0.08
    }
    axis: 2
  }
}
layer {
  name: "lstm1_gate_input_1"
  type: "Eltwise"
  bottom: "W_hc_h_0"
  bottom: "W_xc_x_1"
  top: "gate_input_1"
  eltwise_param {
    operation: SUM
  }
}
layer {
  name: "lstm1_unit_1"
  type: "LSTMUnit"
  bottom: "c_0"
  bottom: "gate_input_1"
  bottom: "cont_1"
  top: "c_1"
  top: "h_1"
}
layer {
  name: "lstm1_"
  type: "Split"
  bottom: "c_1"
  top: "c_T"
}
layer {
  name: "lstm1_h_concat"
  type: "Concat"
  bottom: "h_1"
  top: "h"
  concat_param {
    axis: 0
  }
}
layer {
  name: "h_pseudoloss"
  type: "Reduction"
  bottom: "h"
  top: "h_pseudoloss"
  loss_weight: 1
}
I0924 03:53:43.019503 11455 net.cpp:49] Initializing net from parameters: 
layer {
  name: "lstm1_"
  type: "Input"
  top: "x"
  top: "cont"
  input_param {
    shape {
      dim: 1
      dim: 1
      dim: 500
    }
    shape {
      dim: 1
      dim: 1
    }
  }
}
layer {
  name: "lstm1_"
  type: "Input"
  top: "c_0"
  top: "h_0"
  input_param {
    shape {
      dim: 1
      dim: 1
      dim: 1000
    }
    shape {
      dim: 1
      dim: 1
      dim: 1000
    }
  }
}
layer {
  name: "lstm1_cont_slice"
  type: "Slice"
  bottom: "cont"
  top: "cont_1"
  slice_param {
    axis: 0
  }
}
layer {
  name: "lstm1_x_transform"
  type: "InnerProduct"
  bottom: "x"
  top: "W_xc_x"
  param {
    name: "W_xc"
  }
  param {
    name: "b_c"
  }
  propagate_down: true
  inner_product_param {
    num_output: 4000
    bias_term: true
    weight_filler {
      type: "uniform"
      min: -0.08
      max: 0.08
    }
    bias_filler {
      type: "constant"
      value: 0
    }
    axis: 2
  }
}
layer {
  name: "lstm1_W_xc_x_slice"
  type: "Slice"
  bottom: "W_xc_x"
  top: "W_xc_x_1"
  slice_param {
    axis: 0
  }
}
layer {
  name: "lstm1_h_conted_0"
  type: "Scale"
  bottom: "h_0"
  bottom: "cont_1"
  top: "h_conted_0"
  scale_param {
    axis: 0
  }
}
layer {
  name: "lstm1_transform_1"
  type: "InnerProduct"
  bottom: "h_conted_0"
  top: "W_hc_h_0"
  param {
    name: "W_hc"
  }
  inner_product_param {
    num_output: 4000
    bias_term: false
    weight_filler {
      type: "uniform"
      min: -0.08
      max: 0.08
    }
    axis: 2
  }
}
layer {
  name: "lstm1_gate_input_1"
  type: "Eltwise"
  bottom: "W_hc_h_0"
  bottom: "W_xc_x_1"
  top: "gate_input_1"
  eltwise_param {
    operation: SUM
  }
}
layer {
  name: "lstm1_unit_1"
  type: "LSTMUnit"
  bottom: "c_0"
  bottom: "gate_input_1"
  bottom: "cont_1"
  top: "c_1"
  top: "h_1"
}
layer {
  name: "lstm1_"
  type: "Split"
  bottom: "c_1"
  top: "c_T"
}
layer {
  name: "lstm1_h_concat"
  type: "Concat"
  bottom: "h_1"
  top: "h"
  concat_param {
    axis: 0
  }
}
layer {
  name: "h_pseudoloss"
  type: "Reduction"
  bottom: "h"
  top: "h_pseudoloss"
  loss_weight: 1
}
I0924 03:53:43.019567 11479 layer_factory.hpp:77] Creating layer lstm1_
I0924 03:53:43.019582 11479 net.cpp:91] Creating Layer lstm1_
I0924 03:53:43.019587 11479 net.cpp:399] lstm1_ -> x
I0924 03:53:43.019599 11479 net.cpp:399] lstm1_ -> cont
I0924 03:53:43.019639 11455 layer_factory.hpp:77] Creating layer lstm1_
I0924 03:53:43.019657 11455 net.cpp:91] Creating Layer lstm1_
I0924 03:53:43.019666 11455 net.cpp:399] lstm1_ -> x
I0924 03:53:43.019681 11455 net.cpp:399] lstm1_ -> cont
I0924 03:53:43.023115 11461 net.cpp:141] Setting up lstm1_
I0924 03:53:43.023155 11461 net.cpp:148] Top shape: 1 1 500 (500)
I0924 03:53:43.023164 11461 net.cpp:148] Top shape: 1 1 (1)
I0924 03:53:43.023169 11461 net.cpp:156] Memory required for data: 2004
I0924 03:53:43.023176 11461 layer_factory.hpp:77] Creating layer lstm1_
I0924 03:53:43.023198 11461 net.cpp:91] Creating Layer lstm1_
I0924 03:53:43.023212 11461 net.cpp:399] lstm1_ -> c_0
I0924 03:53:43.023247 11461 net.cpp:399] lstm1_ -> h_0
I0924 03:53:43.031005 11479 net.cpp:141] Setting up lstm1_
I0924 03:53:43.031064 11479 net.cpp:148] Top shape: 1 1 500 (500)
I0924 03:53:43.031080 11479 net.cpp:148] Top shape: 1 1 (1)
I0924 03:53:43.031088 11479 net.cpp:156] Memory required for data: 2004
I0924 03:53:43.031103 11479 layer_factory.hpp:77] Creating layer lstm1_
I0924 03:53:43.031160 11479 net.cpp:91] Creating Layer lstm1_
I0924 03:53:43.031180 11479 net.cpp:399] lstm1_ -> c_0
I0924 03:53:43.031209 11479 net.cpp:399] lstm1_ -> h_0
I0924 03:53:43.031322 11479 net.cpp:141] Setting up lstm1_
I0924 03:53:43.031340 11479 net.cpp:148] Top shape: 1 1 1000 (1000)
I0924 03:53:43.031352 11479 net.cpp:148] Top shape: 1 1 1000 (1000)
I0924 03:53:43.031360 11479 net.cpp:156] Memory required for data: 10004
I0924 03:53:43.031369 11479 layer_factory.hpp:77] Creating layer lstm1_cont_slice
I0924 03:53:43.031386 11479 net.cpp:91] Creating Layer lstm1_cont_slice
I0924 03:53:43.031397 11479 net.cpp:425] lstm1_cont_slice <- cont
I0924 03:53:43.031411 11479 net.cpp:399] lstm1_cont_slice -> cont_1
I0924 03:53:43.031476 11479 net.cpp:141] Setting up lstm1_cont_slice
I0924 03:53:43.031492 11479 net.cpp:148] Top shape: 1 1 (1)
I0924 03:53:43.031502 11479 net.cpp:156] Memory required for data: 10008
I0924 03:53:43.031510 11479 layer_factory.hpp:77] Creating layer cont_1_lstm1_cont_slice_0_split
I0924 03:53:43.031527 11479 net.cpp:91] Creating Layer cont_1_lstm1_cont_slice_0_split
I0924 03:53:43.031538 11479 net.cpp:425] cont_1_lstm1_cont_slice_0_split <- cont_1
I0924 03:53:43.031550 11479 net.cpp:399] cont_1_lstm1_cont_slice_0_split -> cont_1_lstm1_cont_slice_0_split_0
I0924 03:53:43.031566 11479 net.cpp:399] cont_1_lstm1_cont_slice_0_split -> cont_1_lstm1_cont_slice_0_split_1
I0924 03:53:43.031648 11479 net.cpp:141] Setting up cont_1_lstm1_cont_slice_0_split
I0924 03:53:43.031666 11479 net.cpp:148] Top shape: 1 1 (1)
I0924 03:53:43.031677 11479 net.cpp:148] Top shape: 1 1 (1)
I0924 03:53:43.031687 11479 net.cpp:156] Memory required for data: 10016
I0924 03:53:43.031695 11479 layer_factory.hpp:77] Creating layer lstm1_x_transform
I0924 03:53:43.031721 11479 net.cpp:91] Creating Layer lstm1_x_transform
I0924 03:53:43.031731 11479 net.cpp:425] lstm1_x_transform <- x
I0924 03:53:43.031747 11479 net.cpp:399] lstm1_x_transform -> W_xc_x
I0924 03:53:43.038744 11455 net.cpp:141] Setting up lstm1_
I0924 03:53:43.038767 11459 net.cpp:141] Setting up lstm1_
I0924 03:53:43.038807 11459 net.cpp:148] Top shape: 1 1 500 (500)
I0924 03:53:43.038807 11455 net.cpp:148] Top shape: 1 1 500 (500)
I0924 03:53:43.038820 11459 net.cpp:148] Top shape: 1 1 (1)
I0924 03:53:43.038825 11455 net.cpp:148] Top shape: 1 1 (1)
I0924 03:53:43.038828 11459 net.cpp:156] Memory required for data: 2004
I0924 03:53:43.038835 11455 net.cpp:156] Memory required for data: 2004
I0924 03:53:43.038842 11459 layer_factory.hpp:77] Creating layer lstm1_
I0924 03:53:43.038844 11455 layer_factory.hpp:77] Creating layer lstm1_
I0924 03:53:43.038857 11461 net.cpp:141] Setting up lstm1_
I0924 03:53:43.038871 11459 net.cpp:91] Creating Layer lstm1_
I0924 03:53:43.038872 11455 net.cpp:91] Creating Layer lstm1_
I0924 03:53:43.038878 11461 net.cpp:148] Top shape: 1 1 1000 (1000)
I0924 03:53:43.038889 11459 net.cpp:399] lstm1_ -> c_0
I0924 03:53:43.038893 11455 net.cpp:399] lstm1_ -> c_0
I0924 03:53:43.038890 11461 net.cpp:148] Top shape: 1 1 1000 (1000)
I0924 03:53:43.038920 11461 net.cpp:156] Memory required for data: 10004
I0924 03:53:43.038925 11455 net.cpp:399] lstm1_ -> h_0
I0924 03:53:43.038929 11461 layer_factory.hpp:77] Creating layer lstm1_cont_slice
I0924 03:53:43.038925 11459 net.cpp:399] lstm1_ -> h_0
I0924 03:53:43.038949 11461 net.cpp:91] Creating Layer lstm1_cont_slice
I0924 03:53:43.038959 11461 net.cpp:425] lstm1_cont_slice <- cont
I0924 03:53:43.038972 11461 net.cpp:399] lstm1_cont_slice -> cont_1
I0924 03:53:43.039115 11461 net.cpp:141] Setting up lstm1_cont_slice
I0924 03:53:43.039131 11461 net.cpp:148] Top shape: 1 1 (1)
I0924 03:53:43.039139 11461 net.cpp:156] Memory required for data: 10008
I0924 03:53:43.039149 11461 layer_factory.hpp:77] Creating layer cont_1_lstm1_cont_slice_0_split
I0924 03:53:43.039165 11461 net.cpp:91] Creating Layer cont_1_lstm1_cont_slice_0_split
I0924 03:53:43.039173 11461 net.cpp:425] cont_1_lstm1_cont_slice_0_split <- cont_1
I0924 03:53:43.039186 11461 net.cpp:399] cont_1_lstm1_cont_slice_0_split -> cont_1_lstm1_cont_slice_0_split_0
I0924 03:53:43.039198 11461 net.cpp:399] cont_1_lstm1_cont_slice_0_split -> cont_1_lstm1_cont_slice_0_split_1
I0924 03:53:43.039227 11509 net.cpp:141] Setting up embedding
I0924 03:53:43.039240 11455 net.cpp:141] Setting up lstm1_
I0924 03:53:43.039244 11509 net.cpp:148] Top shape: 1 1 500 (500)
I0924 03:53:43.039269 11509 net.cpp:156] Memory required for data: 22408
I0924 03:53:43.039278 11459 net.cpp:141] Setting up lstm1_
I0924 03:53:43.039270 11455 net.cpp:148] Top shape: 1 1 1000 (1000)
I0924 03:53:43.039299 11459 net.cpp:148] Top shape: 1 1 1000 (1000)
I0924 03:53:43.039304 11455 net.cpp:148] Top shape: 1 1 1000 (1000)
I0924 03:53:43.039315 11455 net.cpp:156] Memory required for data: 10004
I0924 03:53:43.039322 11459 net.cpp:148] Top shape: 1 1 1000 (1000)
I0924 03:53:43.039299 11509 layer_factory.hpp:77] Creating layer lstm1
I0924 03:53:43.039333 11455 layer_factory.hpp:77] Creating layer lstm1_cont_slice
I0924 03:53:43.039330 11459 net.cpp:156] Memory required for data: 10004
I0924 03:53:43.039347 11459 layer_factory.hpp:77] Creating layer lstm1_cont_slice
I0924 03:53:43.039355 11455 net.cpp:91] Creating Layer lstm1_cont_slice
I0924 03:53:43.039360 11509 net.cpp:91] Creating Layer lstm1
I0924 03:53:43.039366 11455 net.cpp:425] lstm1_cont_slice <- cont
I0924 03:53:43.039361 11459 net.cpp:91] Creating Layer lstm1_cont_slice
I0924 03:53:43.039376 11509 net.cpp:425] lstm1 <- embedded_input_frames
I0924 03:53:43.039381 11455 net.cpp:399] lstm1_cont_slice -> cont_1
I0924 03:53:43.039377 11459 net.cpp:425] lstm1_cont_slice <- cont
I0924 03:53:43.039394 11509 net.cpp:425] lstm1 <- cont_sentence_input_1_split_0
I0924 03:53:43.039407 11459 net.cpp:399] lstm1_cont_slice -> cont_1
I0924 03:53:43.039412 11509 net.cpp:399] lstm1 -> lstm1
I0924 03:53:43.039434 11509 recurrent_layer.cpp:20] Initializing recurrent layer: assuming input batch contains 1 timesteps of 1 independent streams.
I0924 03:53:43.039461 11455 net.cpp:141] Setting up lstm1_cont_slice
I0924 03:53:43.039479 11455 net.cpp:148] Top shape: 1 1 (1)
I0924 03:53:43.039487 11455 net.cpp:156] Memory required for data: 10008
I0924 03:53:43.039496 11455 layer_factory.hpp:77] Creating layer cont_1_lstm1_cont_slice_0_split
I0924 03:53:43.039510 11455 net.cpp:91] Creating Layer cont_1_lstm1_cont_slice_0_split
I0924 03:53:43.039518 11455 net.cpp:425] cont_1_lstm1_cont_slice_0_split <- cont_1
I0924 03:53:43.039535 11455 net.cpp:399] cont_1_lstm1_cont_slice_0_split -> cont_1_lstm1_cont_slice_0_split_0
I0924 03:53:43.039535 11461 net.cpp:141] Setting up cont_1_lstm1_cont_slice_0_split
I0924 03:53:43.039579 11455 net.cpp:399] cont_1_lstm1_cont_slice_0_split -> cont_1_lstm1_cont_slice_0_split_1
I0924 03:53:43.039568 11459 net.cpp:141] Setting up lstm1_cont_slice
I0924 03:53:43.039597 11461 net.cpp:148] Top shape: 1 1 (1)
I0924 03:53:43.039600 11459 net.cpp:148] Top shape: 1 1 (1)
I0924 03:53:43.039615 11461 net.cpp:148] Top shape: 1 1 (1)
I0924 03:53:43.039621 11459 net.cpp:156] Memory required for data: 10008
I0924 03:53:43.039624 11461 net.cpp:156] Memory required for data: 10016
I0924 03:53:43.039630 11459 layer_factory.hpp:77] Creating layer cont_1_lstm1_cont_slice_0_split
I0924 03:53:43.039636 11461 layer_factory.hpp:77] Creating layer lstm1_x_transform
I0924 03:53:43.039646 11459 net.cpp:91] Creating Layer cont_1_lstm1_cont_slice_0_split
I0924 03:53:43.039655 11459 net.cpp:425] cont_1_lstm1_cont_slice_0_split <- cont_1
I0924 03:53:43.039664 11461 net.cpp:91] Creating Layer lstm1_x_transform
I0924 03:53:43.039666 11459 net.cpp:399] cont_1_lstm1_cont_slice_0_split -> cont_1_lstm1_cont_slice_0_split_0
I0924 03:53:43.039676 11461 net.cpp:425] lstm1_x_transform <- x
I0924 03:53:43.039681 11455 net.cpp:141] Setting up cont_1_lstm1_cont_slice_0_split
I0924 03:53:43.039685 11459 net.cpp:399] cont_1_lstm1_cont_slice_0_split -> cont_1_lstm1_cont_slice_0_split_1
I0924 03:53:43.039706 11455 net.cpp:148] Top shape: 1 1 (1)
I0924 03:53:43.039710 11461 net.cpp:399] lstm1_x_transform -> W_xc_x
I0924 03:53:43.039718 11455 net.cpp:148] Top shape: 1 1 (1)
I0924 03:53:43.039726 11455 net.cpp:156] Memory required for data: 10016
I0924 03:53:43.039733 11455 layer_factory.hpp:77] Creating layer lstm1_x_transform
I0924 03:53:43.039758 11455 net.cpp:91] Creating Layer lstm1_x_transform
I0924 03:53:43.039768 11455 net.cpp:425] lstm1_x_transform <- x
I0924 03:53:43.039779 11459 net.cpp:141] Setting up cont_1_lstm1_cont_slice_0_split
I0924 03:53:43.039784 11455 net.cpp:399] lstm1_x_transform -> W_xc_x
I0924 03:53:43.039794 11459 net.cpp:148] Top shape: 1 1 (1)
I0924 03:53:43.039804 11459 net.cpp:148] Top shape: 1 1 (1)
I0924 03:53:43.039810 11459 net.cpp:156] Memory required for data: 10016
I0924 03:53:43.039819 11459 layer_factory.hpp:77] Creating layer lstm1_x_transform
I0924 03:53:43.039835 11459 net.cpp:91] Creating Layer lstm1_x_transform
I0924 03:53:43.039844 11459 net.cpp:425] lstm1_x_transform <- x
I0924 03:53:43.039857 11459 net.cpp:399] lstm1_x_transform -> W_xc_x
I0924 03:53:43.039888 11509 net.cpp:49] Initializing net from parameters: 
layer {
  name: "lstm1_"
  type: "Input"
  top: "x"
  top: "cont"
  input_param {
    shape {
      dim: 1
      dim: 1
      dim: 500
    }
    shape {
      dim: 1
      dim: 1
    }
  }
}
layer {
  name: "lstm1_"
  type: "Input"
  top: "c_0"
  top: "h_0"
  input_param {
    shape {
      dim: 1
      dim: 1
      dim: 1000
    }
    shape {
      dim: 1
      dim: 1
      dim: 1000
    }
  }
}
layer {
  name: "lstm1_cont_slice"
  type: "Slice"
  bottom: "cont"
  top: "cont_1"
  slice_param {
    axis: 0
  }
}
layer {
  name: "lstm1_x_transform"
  type: "InnerProduct"
  bottom: "x"
  top: "W_xc_x"
  param {
    name: "W_xc"
  }
  param {
    name: "b_c"
  }
  propagate_down: true
  inner_product_param {
    num_output: 4000
    bias_term: true
    weight_filler {
      type: "uniform"
      min: -0.08
      max: 0.08
    }
    bias_filler {
      type: "constant"
      value: 0
    }
    axis: 2
  }
}
layer {
  name: "lstm1_W_xc_x_slice"
  type: "Slice"
  bottom: "W_xc_x"
  top: "W_xc_x_1"
  slice_param {
    axis: 0
  }
}
layer {
  name: "lstm1_h_conted_0"
  type: "Scale"
  bottom: "h_0"
  bottom: "cont_1"
  top: "h_conted_0"
  scale_param {
    axis: 0
  }
}
layer {
  name: "lstm1_transform_1"
  type: "InnerProduct"
  bottom: "h_conted_0"
  top: "W_hc_h_0"
  param {
    name: "W_hc"
  }
  inner_product_param {
    num_output: 4000
    bias_term: false
    weight_filler {
      type: "uniform"
      min: -0.08
      max: 0.08
    }
    axis: 2
  }
}
layer {
  name: "lstm1_gate_input_1"
  type: "Eltwise"
  bottom: "W_hc_h_0"
  bottom: "W_xc_x_1"
  top: "gate_input_1"
  eltwise_param {
    operation: SUM
  }
}
layer {
  name: "lstm1_unit_1"
  type: "LSTMUnit"
  bottom: "c_0"
  bottom: "gate_input_1"
  bottom: "cont_1"
  top: "c_1"
  top: "h_1"
}
layer {
  name: "lstm1_"
  type: "Split"
  bottom: "c_1"
  top: "c_T"
}
layer {
  name: "lstm1_h_concat"
  type: "Concat"
  bottom: "h_1"
  top: "h"
  concat_param {
    axis: 0
  }
}
layer {
  name: "h_pseudoloss"
  type: "Reduction"
  bottom: "h"
  top: "h_pseudoloss"
  loss_weight: 1
}
I0924 03:53:43.055677 11509 layer_factory.hpp:77] Creating layer lstm1_
I0924 03:53:43.055721 11509 net.cpp:91] Creating Layer lstm1_
I0924 03:53:43.055729 11509 net.cpp:399] lstm1_ -> x
I0924 03:53:43.055752 11509 net.cpp:399] lstm1_ -> cont
I0924 03:53:43.073695 11509 net.cpp:141] Setting up lstm1_
I0924 03:53:43.073739 11509 net.cpp:148] Top shape: 1 1 500 (500)
I0924 03:53:43.073747 11509 net.cpp:148] Top shape: 1 1 (1)
I0924 03:53:43.073752 11509 net.cpp:156] Memory required for data: 2004
I0924 03:53:43.073765 11509 layer_factory.hpp:77] Creating layer lstm1_
I0924 03:53:43.073830 11509 net.cpp:91] Creating Layer lstm1_
I0924 03:53:43.073858 11509 net.cpp:399] lstm1_ -> c_0
I0924 03:53:43.073882 11509 net.cpp:399] lstm1_ -> h_0
I0924 03:53:43.073950 11497 net.cpp:141] Setting up lstm1_x_transform
I0924 03:53:43.073981 11497 net.cpp:148] Top shape: 1 1 4000 (4000)
I0924 03:53:43.073992 11497 net.cpp:156] Memory required for data: 26016
I0924 03:53:43.074021 11497 layer_factory.hpp:77] Creating layer lstm1_W_xc_x_slice
I0924 03:53:43.074044 11497 net.cpp:91] Creating Layer lstm1_W_xc_x_slice
I0924 03:53:43.074057 11497 net.cpp:425] lstm1_W_xc_x_slice <- W_xc_x
I0924 03:53:43.074074 11497 net.cpp:399] lstm1_W_xc_x_slice -> W_xc_x_1
I0924 03:53:43.074096 11509 net.cpp:141] Setting up lstm1_
I0924 03:53:43.074111 11509 net.cpp:148] Top shape: 1 1 1000 (1000)
I0924 03:53:43.074118 11509 net.cpp:148] Top shape: 1 1 1000 (1000)
I0924 03:53:43.074122 11509 net.cpp:156] Memory required for data: 10004
I0924 03:53:43.074128 11509 layer_factory.hpp:77] Creating layer lstm1_cont_slice
I0924 03:53:43.074158 11509 net.cpp:91] Creating Layer lstm1_cont_slice
I0924 03:53:43.074168 11509 net.cpp:425] lstm1_cont_slice <- cont
I0924 03:53:43.074177 11509 net.cpp:399] lstm1_cont_slice -> cont_1
I0924 03:53:43.074247 11479 net.cpp:141] Setting up lstm1_x_transform
I0924 03:53:43.074297 11479 net.cpp:148] Top shape: 1 1 4000 (4000)
I0924 03:53:43.074301 11509 net.cpp:141] Setting up lstm1_cont_slice
I0924 03:53:43.074308 11479 net.cpp:156] Memory required for data: 26016
I0924 03:53:43.074316 11509 net.cpp:148] Top shape: 1 1 (1)
I0924 03:53:43.074321 11509 net.cpp:156] Memory required for data: 10008
I0924 03:53:43.074327 11509 layer_factory.hpp:77] Creating layer cont_1_lstm1_cont_slice_0_split
I0924 03:53:43.074337 11509 net.cpp:91] Creating Layer cont_1_lstm1_cont_slice_0_split
I0924 03:53:43.074342 11509 net.cpp:425] cont_1_lstm1_cont_slice_0_split <- cont_1
I0924 03:53:43.074363 11497 net.cpp:141] Setting up lstm1_W_xc_x_slice
I0924 03:53:43.074339 11479 layer_factory.hpp:77] Creating layer lstm1_W_xc_x_slice
I0924 03:53:43.074390 11509 net.cpp:399] cont_1_lstm1_cont_slice_0_split -> cont_1_lstm1_cont_slice_0_split_0
I0924 03:53:43.074409 11479 net.cpp:91] Creating Layer lstm1_W_xc_x_slice
I0924 03:53:43.074424 11509 net.cpp:399] cont_1_lstm1_cont_slice_0_split -> cont_1_lstm1_cont_slice_0_split_1
I0924 03:53:43.074393 11497 net.cpp:148] Top shape: 1 1 4000 (4000)
I0924 03:53:43.074434 11479 net.cpp:425] lstm1_W_xc_x_slice <- W_xc_x
I0924 03:53:43.074450 11497 net.cpp:156] Memory required for data: 42016
I0924 03:53:43.074463 11497 layer_factory.hpp:77] Creating layer lstm1_h_conted_0
I0924 03:53:43.074468 11479 net.cpp:399] lstm1_W_xc_x_slice -> W_xc_x_1
I0924 03:53:43.074501 11497 net.cpp:91] Creating Layer lstm1_h_conted_0
I0924 03:53:43.074517 11497 net.cpp:425] lstm1_h_conted_0 <- h_0
I0924 03:53:43.074533 11497 net.cpp:425] lstm1_h_conted_0 <- cont_1_lstm1_cont_slice_0_split_0
I0924 03:53:43.074553 11497 net.cpp:399] lstm1_h_conted_0 -> h_conted_0
I0924 03:53:43.078709 11479 net.cpp:141] Setting up lstm1_W_xc_x_slice
I0924 03:53:43.078758 11479 net.cpp:148] Top shape: 1 1 4000 (4000)
I0924 03:53:43.078768 11479 net.cpp:156] Memory required for data: 42016
I0924 03:53:43.078779 11479 layer_factory.hpp:77] Creating layer lstm1_h_conted_0
I0924 03:53:43.078804 11479 net.cpp:91] Creating Layer lstm1_h_conted_0
I0924 03:53:43.078814 11479 net.cpp:425] lstm1_h_conted_0 <- h_0
I0924 03:53:43.078829 11479 net.cpp:425] lstm1_h_conted_0 <- cont_1_lstm1_cont_slice_0_split_0
I0924 03:53:43.078850 11479 net.cpp:399] lstm1_h_conted_0 -> h_conted_0
I0924 03:53:43.078928 11497 net.cpp:141] Setting up lstm1_h_conted_0
I0924 03:53:43.078918 11509 net.cpp:141] Setting up cont_1_lstm1_cont_slice_0_split
I0924 03:53:43.078966 11497 net.cpp:148] Top shape: 1 1 1000 (1000)
I0924 03:53:43.078966 11509 net.cpp:148] Top shape: 1 1 (1)
I0924 03:53:43.078979 11497 net.cpp:156] Memory required for data: 46016
I0924 03:53:43.078985 11509 net.cpp:148] Top shape: 1 1 (1)
I0924 03:53:43.078992 11497 layer_factory.hpp:77] Creating layer lstm1_transform_1
I0924 03:53:43.078994 11509 net.cpp:156] Memory required for data: 10016
I0924 03:53:43.079007 11509 layer_factory.hpp:77] Creating layer lstm1_x_transform
I0924 03:53:43.079022 11497 net.cpp:91] Creating Layer lstm1_transform_1
I0924 03:53:43.079035 11497 net.cpp:425] lstm1_transform_1 <- h_conted_0
I0924 03:53:43.079041 11509 net.cpp:91] Creating Layer lstm1_x_transform
I0924 03:53:43.079049 11509 net.cpp:425] lstm1_x_transform <- x
I0924 03:53:43.079052 11497 net.cpp:399] lstm1_transform_1 -> W_hc_h_0
I0924 03:53:43.079077 11509 net.cpp:399] lstm1_x_transform -> W_xc_x
I0924 03:53:43.087174 11455 net.cpp:141] Setting up lstm1_x_transform
I0924 03:53:43.087226 11455 net.cpp:148] Top shape: 1 1 4000 (4000)
I0924 03:53:43.087236 11455 net.cpp:156] Memory required for data: 26016
I0924 03:53:43.087267 11455 layer_factory.hpp:77] Creating layer lstm1_W_xc_x_slice
I0924 03:53:43.087290 11455 net.cpp:91] Creating Layer lstm1_W_xc_x_slice
I0924 03:53:43.087299 11455 net.cpp:425] lstm1_W_xc_x_slice <- W_xc_x
I0924 03:53:43.087312 11455 net.cpp:399] lstm1_W_xc_x_slice -> W_xc_x_1
I0924 03:53:43.087371 11455 net.cpp:141] Setting up lstm1_W_xc_x_slice
I0924 03:53:43.087385 11455 net.cpp:148] Top shape: 1 1 4000 (4000)
I0924 03:53:43.087393 11455 net.cpp:156] Memory required for data: 42016
I0924 03:53:43.087399 11455 layer_factory.hpp:77] Creating layer lstm1_h_conted_0
I0924 03:53:43.087417 11455 net.cpp:91] Creating Layer lstm1_h_conted_0
I0924 03:53:43.087427 11455 net.cpp:425] lstm1_h_conted_0 <- h_0
I0924 03:53:43.087437 11455 net.cpp:425] lstm1_h_conted_0 <- cont_1_lstm1_cont_slice_0_split_0
I0924 03:53:43.087450 11455 net.cpp:399] lstm1_h_conted_0 -> h_conted_0
I0924 03:53:43.087589 11455 net.cpp:141] Setting up lstm1_h_conted_0
I0924 03:53:43.087604 11455 net.cpp:148] Top shape: 1 1 1000 (1000)
I0924 03:53:43.087611 11455 net.cpp:156] Memory required for data: 46016
I0924 03:53:43.087620 11455 layer_factory.hpp:77] Creating layer lstm1_transform_1
I0924 03:53:43.087636 11455 net.cpp:91] Creating Layer lstm1_transform_1
I0924 03:53:43.087644 11455 net.cpp:425] lstm1_transform_1 <- h_conted_0
I0924 03:53:43.087657 11455 net.cpp:399] lstm1_transform_1 -> W_hc_h_0
I0924 03:53:43.107336 11465 net.cpp:141] Setting up embedding
I0924 03:53:43.107398 11465 net.cpp:148] Top shape: 1 1 500 (500)
I0924 03:53:43.107410 11465 net.cpp:156] Memory required for data: 22408
I0924 03:53:43.107439 11465 layer_factory.hpp:77] Creating layer lstm1
I0924 03:53:43.107444 11479 net.cpp:141] Setting up lstm1_h_conted_0
I0924 03:53:43.107470 11465 net.cpp:91] Creating Layer lstm1
I0924 03:53:43.107486 11465 net.cpp:425] lstm1 <- embedded_input_frames
I0924 03:53:43.107486 11479 net.cpp:148] Top shape: 1 1 1000 (1000)
I0924 03:53:43.107511 11465 net.cpp:425] lstm1 <- cont_sentence_input_1_split_0
I0924 03:53:43.107516 11479 net.cpp:156] Memory required for data: 46016
I0924 03:53:43.107528 11479 layer_factory.hpp:77] Creating layer lstm1_transform_1
I0924 03:53:43.107530 11465 net.cpp:399] lstm1 -> lstm1
I0924 03:53:43.107558 11479 net.cpp:91] Creating Layer lstm1_transform_1
I0924 03:53:43.107558 11465 recurrent_layer.cpp:20] Initializing recurrent layer: assuming input batch contains 1 timesteps of 1 independent streams.
I0924 03:53:43.107573 11479 net.cpp:425] lstm1_transform_1 <- h_conted_0
I0924 03:53:43.107597 11479 net.cpp:399] lstm1_transform_1 -> W_hc_h_0
I0924 03:53:43.108044 11465 net.cpp:49] Initializing net from parameters: 
layer {
  name: "lstm1_"
  type: "Input"
  top: "x"
  top: "cont"
  input_param {
    shape {
      dim: 1
      dim: 1
      dim: 500
    }
    shape {
      dim: 1
      dim: 1
    }
  }
}
layer {
  name: "lstm1_"
  type: "Input"
  top: "c_0"
  top: "h_0"
  input_param {
    shape {
      dim: 1
      dim: 1
      dim: 1000
    }
    shape {
      dim: 1
      dim: 1
      dim: 1000
    }
  }
}
layer {
  name: "lstm1_cont_slice"
  type: "Slice"
  bottom: "cont"
  top: "cont_1"
  slice_param {
    axis: 0
  }
}
layer {
  name: "lstm1_x_transform"
  type: "InnerProduct"
  bottom: "x"
  top: "W_xc_x"
  param {
    name: "W_xc"
  }
  param {
    name: "b_c"
  }
  propagate_down: true
  inner_product_param {
    num_output: 4000
    bias_term: true
    weight_filler {
      type: "uniform"
      min: -0.08
      max: 0.08
    }
    bias_filler {
      type: "constant"
      value: 0
    }
    axis: 2
  }
}
layer {
  name: "lstm1_W_xc_x_slice"
  type: "Slice"
  bottom: "W_xc_x"
  top: "W_xc_x_1"
  slice_param {
    axis: 0
  }
}
layer {
  name: "lstm1_h_conted_0"
  type: "Scale"
  bottom: "h_0"
  bottom: "cont_1"
  top: "h_conted_0"
  scale_param {
    axis: 0
  }
}
layer {
  name: "lstm1_transform_1"
  type: "InnerProduct"
  bottom: "h_conted_0"
  top: "W_hc_h_0"
  param {
    name: "W_hc"
  }
  inner_product_param {
    num_output: 4000
    bias_term: false
    weight_filler {
      type: "uniform"
      min: -0.08
      max: 0.08
    }
    axis: 2
  }
}
layer {
  name: "lstm1_gate_input_1"
  type: "Eltwise"
  bottom: "W_hc_h_0"
  bottom: "W_xc_x_1"
  top: "gate_input_1"
  eltwise_param {
    operation: SUM
  }
}
layer {
  name: "lstm1_unit_1"
  type: "LSTMUnit"
  bottom: "c_0"
  bottom: "gate_input_1"
  bottom: "cont_1"
  top: "c_1"
  top: "h_1"
}
layer {
  name: "lstm1_"
  type: "Split"
  bottom: "c_1"
  top: "c_T"
}
layer {
  name: "lstm1_h_concat"
  type: "Concat"
  bottom: "h_1"
  top: "h"
  concat_param {
    axis: 0
  }
}
layer {
  name: "h_pseudoloss"
  type: "Reduction"
  bottom: "h"
  top: "h_pseudoloss"
  loss_weight: 1
}
I0924 03:53:43.108196 11465 layer_factory.hpp:77] Creating layer lstm1_
I0924 03:53:43.108220 11465 net.cpp:91] Creating Layer lstm1_
I0924 03:53:43.108233 11465 net.cpp:399] lstm1_ -> x
I0924 03:53:43.108253 11465 net.cpp:399] lstm1_ -> cont
I0924 03:53:43.119897 11465 net.cpp:141] Setting up lstm1_
I0924 03:53:43.119956 11465 net.cpp:148] Top shape: 1 1 500 (500)
I0924 03:53:43.119972 11465 net.cpp:148] Top shape: 1 1 (1)
I0924 03:53:43.119981 11465 net.cpp:156] Memory required for data: 2004
I0924 03:53:43.119995 11465 layer_factory.hpp:77] Creating layer lstm1_
I0924 03:53:43.120033 11465 net.cpp:91] Creating Layer lstm1_
I0924 03:53:43.120050 11465 net.cpp:399] lstm1_ -> c_0
I0924 03:53:43.120084 11465 net.cpp:399] lstm1_ -> h_0
I0924 03:53:43.120090 11461 net.cpp:141] Setting up lstm1_x_transform
I0924 03:53:43.120121 11461 net.cpp:148] Top shape: 1 1 4000 (4000)
I0924 03:53:43.120127 11461 net.cpp:156] Memory required for data: 26016
I0924 03:53:43.120144 11461 layer_factory.hpp:77] Creating layer lstm1_W_xc_x_slice
I0924 03:53:43.120157 11461 net.cpp:91] Creating Layer lstm1_W_xc_x_slice
I0924 03:53:43.120172 11461 net.cpp:425] lstm1_W_xc_x_slice <- W_xc_x
I0924 03:53:43.120213 11461 net.cpp:399] lstm1_W_xc_x_slice -> W_xc_x_1
I0924 03:53:43.125675 11465 net.cpp:141] Setting up lstm1_
I0924 03:53:43.125735 11465 net.cpp:148] Top shape: 1 1 1000 (1000)
I0924 03:53:43.125748 11465 net.cpp:148] Top shape: 1 1 1000 (1000)
I0924 03:53:43.125754 11465 net.cpp:156] Memory required for data: 10004
I0924 03:53:43.125779 11465 layer_factory.hpp:77] Creating layer lstm1_cont_slice
I0924 03:53:43.125804 11465 net.cpp:91] Creating Layer lstm1_cont_slice
I0924 03:53:43.125813 11465 net.cpp:425] lstm1_cont_slice <- cont
I0924 03:53:43.125846 11465 net.cpp:399] lstm1_cont_slice -> cont_1
I0924 03:53:43.125924 11465 net.cpp:141] Setting up lstm1_cont_slice
I0924 03:53:43.125955 11465 net.cpp:148] Top shape: 1 1 (1)
I0924 03:53:43.125963 11465 net.cpp:156] Memory required for data: 10008
I0924 03:53:43.125972 11465 layer_factory.hpp:77] Creating layer cont_1_lstm1_cont_slice_0_split
I0924 03:53:43.125983 11465 net.cpp:91] Creating Layer cont_1_lstm1_cont_slice_0_split
I0924 03:53:43.125990 11465 net.cpp:425] cont_1_lstm1_cont_slice_0_split <- cont_1
I0924 03:53:43.126015 11465 net.cpp:399] cont_1_lstm1_cont_slice_0_split -> cont_1_lstm1_cont_slice_0_split_0
I0924 03:53:43.126029 11465 net.cpp:399] cont_1_lstm1_cont_slice_0_split -> cont_1_lstm1_cont_slice_0_split_1
I0924 03:53:43.126206 11461 net.cpp:141] Setting up lstm1_W_xc_x_slice
I0924 03:53:43.126229 11461 net.cpp:148] Top shape: 1 1 4000 (4000)
I0924 03:53:43.126236 11461 net.cpp:156] Memory required for data: 42016
I0924 03:53:43.126245 11461 layer_factory.hpp:77] Creating layer lstm1_h_conted_0
I0924 03:53:43.126260 11461 net.cpp:91] Creating Layer lstm1_h_conted_0
I0924 03:53:43.126271 11461 net.cpp:425] lstm1_h_conted_0 <- h_0
I0924 03:53:43.126281 11461 net.cpp:425] lstm1_h_conted_0 <- cont_1_lstm1_cont_slice_0_split_0
I0924 03:53:43.126292 11461 net.cpp:399] lstm1_h_conted_0 -> h_conted_0
I0924 03:53:43.126433 11461 net.cpp:141] Setting up lstm1_h_conted_0
I0924 03:53:43.126447 11461 net.cpp:148] Top shape: 1 1 1000 (1000)
I0924 03:53:43.126454 11461 net.cpp:156] Memory required for data: 46016
I0924 03:53:43.126462 11461 layer_factory.hpp:77] Creating layer lstm1_transform_1
I0924 03:53:43.126480 11461 net.cpp:91] Creating Layer lstm1_transform_1
I0924 03:53:43.126487 11461 net.cpp:425] lstm1_transform_1 <- h_conted_0
I0924 03:53:43.126505 11461 net.cpp:399] lstm1_transform_1 -> W_hc_h_0
I0924 03:53:43.135254 11459 net.cpp:141] Setting up lstm1_x_transform
I0924 03:53:43.135279 11465 net.cpp:141] Setting up cont_1_lstm1_cont_slice_0_split
I0924 03:53:43.135313 11465 net.cpp:148] Top shape: 1 1 (1)
I0924 03:53:43.135314 11459 net.cpp:148] Top shape: 1 1 4000 (4000)
I0924 03:53:43.135321 11465 net.cpp:148] Top shape: 1 1 (1)
I0924 03:53:43.135326 11465 net.cpp:156] Memory required for data: 10016
I0924 03:53:43.135326 11459 net.cpp:156] Memory required for data: 26016
I0924 03:53:43.135344 11465 layer_factory.hpp:77] Creating layer lstm1_x_transform
I0924 03:53:43.135368 11459 layer_factory.hpp:77] Creating layer lstm1_W_xc_x_slice
I0924 03:53:43.135387 11459 net.cpp:91] Creating Layer lstm1_W_xc_x_slice
I0924 03:53:43.135399 11459 net.cpp:425] lstm1_W_xc_x_slice <- W_xc_x
I0924 03:53:43.135401 11465 net.cpp:91] Creating Layer lstm1_x_transform
I0924 03:53:43.135409 11497 net.cpp:141] Setting up lstm1_transform_1
I0924 03:53:43.135422 11459 net.cpp:399] lstm1_W_xc_x_slice -> W_xc_x_1
I0924 03:53:43.135419 11465 net.cpp:425] lstm1_x_transform <- x
I0924 03:53:43.135447 11465 net.cpp:399] lstm1_x_transform -> W_xc_x
I0924 03:53:43.135457 11497 net.cpp:148] Top shape: 1 1 4000 (4000)
I0924 03:53:43.135475 11497 net.cpp:156] Memory required for data: 62016
I0924 03:53:43.135504 11497 layer_factory.hpp:77] Creating layer lstm1_gate_input_1
I0924 03:53:43.135536 11497 net.cpp:91] Creating Layer lstm1_gate_input_1
I0924 03:53:43.135553 11497 net.cpp:425] lstm1_gate_input_1 <- W_hc_h_0
I0924 03:53:43.135571 11497 net.cpp:425] lstm1_gate_input_1 <- W_xc_x_1
I0924 03:53:43.135596 11497 net.cpp:399] lstm1_gate_input_1 -> gate_input_1
I0924 03:53:43.135633 11459 net.cpp:141] Setting up lstm1_W_xc_x_slice
I0924 03:53:43.135651 11459 net.cpp:148] Top shape: 1 1 4000 (4000)
I0924 03:53:43.135660 11459 net.cpp:156] Memory required for data: 42016
I0924 03:53:43.135668 11459 layer_factory.hpp:77] Creating layer lstm1_h_conted_0
I0924 03:53:43.135685 11459 net.cpp:91] Creating Layer lstm1_h_conted_0
I0924 03:53:43.135694 11459 net.cpp:425] lstm1_h_conted_0 <- h_0
I0924 03:53:43.135705 11459 net.cpp:425] lstm1_h_conted_0 <- cont_1_lstm1_cont_slice_0_split_0
I0924 03:53:43.135720 11459 net.cpp:399] lstm1_h_conted_0 -> h_conted_0
I0924 03:53:43.139750 11497 net.cpp:141] Setting up lstm1_gate_input_1
I0924 03:53:43.139796 11497 net.cpp:148] Top shape: 1 1 4000 (4000)
I0924 03:53:43.139804 11497 net.cpp:156] Memory required for data: 78016
I0924 03:53:43.139816 11497 layer_factory.hpp:77] Creating layer lstm1_unit_1
I0924 03:53:43.139840 11497 net.cpp:91] Creating Layer lstm1_unit_1
I0924 03:53:43.139850 11497 net.cpp:425] lstm1_unit_1 <- c_0
I0924 03:53:43.139865 11497 net.cpp:425] lstm1_unit_1 <- gate_input_1
I0924 03:53:43.139874 11497 net.cpp:425] lstm1_unit_1 <- cont_1_lstm1_cont_slice_0_split_1
I0924 03:53:43.139885 11497 net.cpp:399] lstm1_unit_1 -> c_1
I0924 03:53:43.139906 11497 net.cpp:399] lstm1_unit_1 -> h_1
I0924 03:53:43.139919 11509 net.cpp:141] Setting up lstm1_x_transform
I0924 03:53:43.139942 11509 net.cpp:148] Top shape: 1 1 4000 (4000)
I0924 03:53:43.139951 11509 net.cpp:156] Memory required for data: 26016
I0924 03:53:43.139996 11509 layer_factory.hpp:77] Creating layer lstm1_W_xc_x_slice
I0924 03:53:43.140013 11509 net.cpp:91] Creating Layer lstm1_W_xc_x_slice
I0924 03:53:43.140020 11509 net.cpp:425] lstm1_W_xc_x_slice <- W_xc_x
I0924 03:53:43.140029 11509 net.cpp:399] lstm1_W_xc_x_slice -> W_xc_x_1
I0924 03:53:43.140092 11497 net.cpp:141] Setting up lstm1_unit_1
I0924 03:53:43.140108 11497 net.cpp:148] Top shape: 1 1 1000 (1000)
I0924 03:53:43.140117 11497 net.cpp:148] Top shape: 1 1 1000 (1000)
I0924 03:53:43.140125 11497 net.cpp:156] Memory required for data: 86016
I0924 03:53:43.140133 11497 layer_factory.hpp:77] Creating layer lstm1_
I0924 03:53:43.140132 11509 net.cpp:141] Setting up lstm1_W_xc_x_slice
I0924 03:53:43.140149 11497 net.cpp:91] Creating Layer lstm1_
I0924 03:53:43.140151 11509 net.cpp:148] Top shape: 1 1 4000 (4000)
I0924 03:53:43.140161 11497 net.cpp:425] lstm1_ <- c_1
I0924 03:53:43.140162 11509 net.cpp:156] Memory required for data: 42016
I0924 03:53:43.140174 11509 layer_factory.hpp:77] Creating layer lstm1_h_conted_0
I0924 03:53:43.140174 11497 net.cpp:399] lstm1_ -> c_T
I0924 03:53:43.140182 11459 net.cpp:141] Setting up lstm1_h_conted_0
I0924 03:53:43.140188 11509 net.cpp:91] Creating Layer lstm1_h_conted_0
I0924 03:53:43.140208 11509 net.cpp:425] lstm1_h_conted_0 <- h_0
I0924 03:53:43.140209 11459 net.cpp:148] Top shape: 1 1 1000 (1000)
I0924 03:53:43.140214 11509 net.cpp:425] lstm1_h_conted_0 <- cont_1_lstm1_cont_slice_0_split_0
I0924 03:53:43.140225 11459 net.cpp:156] Memory required for data: 46016
I0924 03:53:43.140228 11497 net.cpp:141] Setting up lstm1_
I0924 03:53:43.140236 11459 layer_factory.hpp:77] Creating layer lstm1_transform_1
I0924 03:53:43.140231 11509 net.cpp:399] lstm1_h_conted_0 -> h_conted_0
I0924 03:53:43.140244 11497 net.cpp:148] Top shape: 1 1 1000 (1000)
I0924 03:53:43.140261 11459 net.cpp:91] Creating Layer lstm1_transform_1
I0924 03:53:43.140275 11497 net.cpp:156] Memory required for data: 90016
I0924 03:53:43.140285 11497 layer_factory.hpp:77] Creating layer lstm1_h_concat
I0924 03:53:43.140285 11459 net.cpp:425] lstm1_transform_1 <- h_conted_0
I0924 03:53:43.140302 11459 net.cpp:399] lstm1_transform_1 -> W_hc_h_0
I0924 03:53:43.140305 11497 net.cpp:91] Creating Layer lstm1_h_concat
I0924 03:53:43.140326 11497 net.cpp:425] lstm1_h_concat <- h_1
I0924 03:53:43.140338 11497 net.cpp:399] lstm1_h_concat -> h
I0924 03:53:43.140370 11509 net.cpp:141] Setting up lstm1_h_conted_0
I0924 03:53:43.140382 11509 net.cpp:148] Top shape: 1 1 1000 (1000)
I0924 03:53:43.140386 11509 net.cpp:156] Memory required for data: 46016
I0924 03:53:43.140393 11509 layer_factory.hpp:77] Creating layer lstm1_transform_1
I0924 03:53:43.140435 11509 net.cpp:91] Creating Layer lstm1_transform_1
I0924 03:53:43.140445 11509 net.cpp:425] lstm1_transform_1 <- h_conted_0
I0924 03:53:43.140455 11509 net.cpp:399] lstm1_transform_1 -> W_hc_h_0
I0924 03:53:43.140455 11497 net.cpp:141] Setting up lstm1_h_concat
I0924 03:53:43.140471 11497 net.cpp:148] Top shape: 1 1 1000 (1000)
I0924 03:53:43.140478 11497 net.cpp:156] Memory required for data: 94016
I0924 03:53:43.140486 11497 layer_factory.hpp:77] Creating layer h_pseudoloss
I0924 03:53:43.140506 11497 net.cpp:91] Creating Layer h_pseudoloss
I0924 03:53:43.140513 11497 net.cpp:425] h_pseudoloss <- h
I0924 03:53:43.140544 11497 net.cpp:399] h_pseudoloss -> h_pseudoloss
I0924 03:53:43.150647 11455 net.cpp:141] Setting up lstm1_transform_1
I0924 03:53:43.150701 11455 net.cpp:148] Top shape: 1 1 4000 (4000)
I0924 03:53:43.150709 11455 net.cpp:156] Memory required for data: 62016
I0924 03:53:43.150734 11455 layer_factory.hpp:77] Creating layer lstm1_gate_input_1
I0924 03:53:43.150760 11455 net.cpp:91] Creating Layer lstm1_gate_input_1
I0924 03:53:43.150768 11455 net.cpp:425] lstm1_gate_input_1 <- W_hc_h_0
I0924 03:53:43.150777 11455 net.cpp:425] lstm1_gate_input_1 <- W_xc_x_1
I0924 03:53:43.150785 11455 net.cpp:399] lstm1_gate_input_1 -> gate_input_1
I0924 03:53:43.170783 11455 net.cpp:141] Setting up lstm1_gate_input_1
I0924 03:53:43.170825 11479 net.cpp:141] Setting up lstm1_transform_1
I0924 03:53:43.170840 11455 net.cpp:148] Top shape: 1 1 4000 (4000)
I0924 03:53:43.170850 11455 net.cpp:156] Memory required for data: 78016
I0924 03:53:43.170851 11479 net.cpp:148] Top shape: 1 1 4000 (4000)
I0924 03:53:43.170863 11479 net.cpp:156] Memory required for data: 62016
I0924 03:53:43.170863 11455 layer_factory.hpp:77] Creating layer lstm1_unit_1
I0924 03:53:43.170876 11461 net.cpp:141] Setting up lstm1_transform_1
I0924 03:53:43.170889 11455 net.cpp:91] Creating Layer lstm1_unit_1
I0924 03:53:43.170892 11461 net.cpp:148] Top shape: 1 1 4000 (4000)
I0924 03:53:43.170900 11455 net.cpp:425] lstm1_unit_1 <- c_0
I0924 03:53:43.170908 11461 net.cpp:156] Memory required for data: 62016
I0924 03:53:43.170912 11455 net.cpp:425] lstm1_unit_1 <- gate_input_1
I0924 03:53:43.170923 11455 net.cpp:425] lstm1_unit_1 <- cont_1_lstm1_cont_slice_0_split_1
I0924 03:53:43.170928 11461 layer_factory.hpp:77] Creating layer lstm1_gate_input_1
I0924 03:53:43.170936 11455 net.cpp:399] lstm1_unit_1 -> c_1
…
I0924 03:53:43.171087 11497 net.cpp:217] lstm1_unit_1 needs backward computation.
I0924 03:53:43.171097 11497 net.cpp:217] lstm1_gate_input_1 needs backward computation.
I0924 03:53:43.171108 11497 net.cpp:217] lstm1_transform_1 needs backward computation.
I0924 03:53:43.171121 11497 net.cpp:219] lstm1_h_conted_0 does not need backward computation.
I0924 03:53:43.171133 11497 net.cpp:217] lstm1_W_xc_x_slice needs backward computation.
I0924 03:53:43.171133 11461 net.cpp:141] Setting up lstm1_gate_input_1
I0924 03:53:43.171147 11497 net.cpp:217] lstm1_x_transform needs backward computation.
I0924 03:53:43.171154 11461 net.cpp:148] Top shape: 1 1 4000 (4000)
I0924 03:53:43.171156 11497 net.cpp:219] cont_1_lstm1_cont_slice_0_split does not need backward computation.
I0924 03:53:43.171162 11461 net.cpp:156] Memory required for data: 78016
I0924 03:53:43.171165 11497 net.cpp:219] lstm1_cont_slice does not need backward computation.
I0924 03:53:43.171171 11461 layer_factory.hpp:77] Creating layer lstm1_unit_1
I0924 03:53:43.171175 11497 net.cpp:219] lstm1_ does not need backward computation.
I0924 03:53:43.171185 11461 net.cpp:91] Creating Layer lstm1_unit_1
I0924 03:53:43.171190 11497 net.cpp:219] lstm1_ does not need backward computation.
I0924 03:53:43.171175 11455 net.cpp:141] Setting up lstm1_unit_1
I0924 03:53:43.170892 11479 layer_factory.hpp:77] Creating layer lstm1_gate_input_1
I0924 03:53:43.171197 11461 net.cpp:425] lstm1_unit_1 <- c_0
I0924 03:53:43.171206 11455 net.cpp:148] Top shape: 1 1 1000 (1000)
I0924 03:53:43.171213 11461 net.cpp:425] lstm1_unit_1 <- gate_input_1
I0924 03:53:43.171217 11455 net.cpp:148] Top shape: 1 1 1000 (1000)
I0924 03:53:43.171218 11479 net.cpp:91] Creating Layer lstm1_gate_input_1
I0924 03:53:43.171224 11455 net.cpp:156] Memory required for data: 86016
I0924 03:53:43.171229 11479 net.cpp:425] lstm1_gate_input_1 <- W_hc_h_0
I0924 03:53:43.171224 11461 net.cpp:425] lstm1_unit_1 <- cont_1_lstm1_cont_slice_0_split_1
I0924 03:53:43.171239 11455 layer_factory.hpp:77] Creating layer lstm1_
I0924 03:53:43.171241 11479 net.cpp:425] lstm1_gate_input_1 <- W_xc_x_1
I0924 03:53:43.171252 11461 net.cpp:399] lstm1_unit_1 -> c_1
I0924 03:53:43.171255 11479 net.cpp:399] lstm1_gate_input_1 -> gate_input_1
I0924 03:53:43.171257 11455 net.cpp:91] Creating Layer lstm1_
I0924 03:53:43.171265 11455 net.cpp:425] lstm1_ <- c_1
I0924 03:53:43.171268 11461 net.cpp:399] lstm1_unit_1 -> h_1
I0924 03:53:43.171197 11497 net.cpp:261] This network produces output c_T
I0924 03:53:43.171277 11455 net.cpp:399] lstm1_ -> c_T
I0924 03:53:43.171300 11497 net.cpp:261] This network produces output h_pseudoloss
I0924 03:53:43.171339 11479 net.cpp:141] Setting up lstm1_gate_input_1
I0924 03:53:43.171339 11497 net.cpp:274] Network initialization done.
I0924 03:53:43.171362 11479 net.cpp:148] Top shape: 1 1 4000 (4000)
I0924 03:53:43.171371 11479 net.cpp:156] Memory required for data: 78016
I0924 03:53:43.171378 11479 layer_factory.hpp:77] Creating layer lstm1_unit_1
I0924 03:53:43.171392 11479 net.cpp:91] Creating Layer lstm1_unit_1
I0924 03:53:43.171401 11479 net.cpp:425] lstm1_unit_1 <- c_0
I0924 03:53:43.171411 11479 net.cpp:425] lstm1_unit_1 <- gate_input_1
I0924 03:53:43.171421 11479 net.cpp:425] lstm1_unit_1 <- cont_1_lstm1_cont_slice_0_split_1
I0924 03:53:43.171435 11479 net.cpp:399] lstm1_unit_1 -> c_1
I0924 03:53:43.171443 11497 recurrent_layer.cpp:150] Adding parameter 0: W_xc
I0924 03:53:43.171452 11479 net.cpp:399] lstm1_unit_1 -> h_1
I0924 03:53:43.171454 11497 recurrent_layer.cpp:150] Adding parameter 1: b_c
I0924 03:53:43.171463 11497 recurrent_layer.cpp:150] Adding parameter 2: W_hc
I0924 03:53:43.172372 11455 net.cpp:141] Setting up lstm1_
I0924 03:53:43.172390 11455 net.cpp:148] Top shape: 1 1 1000 (1000)
I0924 03:53:43.172399 11455 net.cpp:156] Memory required for data: 90016
I0924 03:53:43.172407 11455 layer_factory.hpp:77] Creating layer lstm1_h_concat
I0924 03:53:43.172423 11455 net.cpp:91] Creating Layer lstm1_h_concat
I0924 03:53:43.172433 11455 net.cpp:425] lstm1_h_concat <- h_1
I0924 03:53:43.172452 11455 net.cpp:399] lstm1_h_concat -> h
I0924 03:53:43.172510 11455 net.cpp:141] Setting up lstm1_h_concat
I0924 03:53:43.172525 11455 net.cpp:148] Top shape: 1 1 1000 (1000)
I0924 03:53:43.172533 11455 net.cpp:156] Memory required for data: 94016
I0924 03:53:43.172543 11455 layer_factory.hpp:77] Creating layer h_pseudoloss
I0924 03:53:43.172557 11455 net.cpp:91] Creating Layer h_pseudoloss
I0924 03:53:43.172567 11455 net.cpp:425] h_pseudoloss <- h
I0924 03:53:43.172579 11455 net.cpp:399] h_pseudoloss -> h_pseudoloss
I0924 03:53:43.172579 11497 net.cpp:141] Setting up lstm1
I0924 03:53:43.172616 11497 net.cpp:148] Top shape: 1 1 1000 (1000)
I0924 03:53:43.172626 11497 net.cpp:156] Memory required for data: 26408
I0924 03:53:43.172649 11497 layer_factory.hpp:77] Creating layer concat
I0924 03:53:43.172678 11497 net.cpp:91] Creating Layer concat
I0924 03:53:43.172690 11497 net.cpp:425] concat <- lstm1
I0924 03:53:43.172701 11497 net.cpp:425] concat <- embedded_input_sentence
I0924 03:53:43.172708 11455 net.cpp:141] Setting up h_pseudoloss
…
I0924 03:53:43.172788 11455 net.cpp:217] lstm1_gate_input_1 needs backward computation.
I0924 03:53:43.172798 11455 net.cpp:217] lstm1_transform_1 needs backward computation.
I0924 03:53:43.172808 11455 net.cpp:219] lstm1_h_conted_0 does not need backward computation.
I0924 03:53:43.172817 11497 net.cpp:141] Setting up concat
I0924 03:53:43.172818 11455 net.cpp:217] lstm1_W_xc_x_slice needs backward computation.
I0924 03:53:43.172837 11455 net.cpp:217] lstm1_x_transform needs backward computation.
I0924 03:53:43.172854 11455 net.cpp:219] cont_1_lstm1_cont_slice_0_split does not need backward computation.
I0924 03:53:43.172837 11497 net.cpp:148] Top shape: 1 1 1501 (1501)
I0924 03:53:43.172865 11455 net.cpp:219] lstm1_cont_slice does not need backward computation.
I0924 03:53:43.172871 11497 net.cpp:156] Memory required for data: 32412
I0924 03:53:43.172880 11497 layer_factory.hpp:77] Creating layer lstm2
I0924 03:53:43.172878 11455 net.cpp:219] lstm1_ does not need backward computation.
I0924 03:53:43.172896 11455 net.cpp:219] lstm1_ does not need backward computation.
I0924 03:53:43.172904 11455 net.cpp:261] This network produces output c_T
I0924 03:53:43.172899 11497 net.cpp:91] Creating Layer lstm2
I0924 03:53:43.172926 11497 net.cpp:425] lstm2 <- lstm1_video_sequence
I0924 03:53:43.172938 11497 net.cpp:425] lstm2 <- cont_sentence_input_1_split_1
I0924 03:53:43.172951 11497 net.cpp:399] lstm2 -> lstm2
I0924 03:53:43.172914 11455 net.cpp:261] This network produces output h_pseudoloss
I0924 03:53:43.172984 11497 recurrent_layer.cpp:20] Initializing recurrent layer: assuming input batch contains 1 timesteps of 1 independent streams.
I0924 03:53:43.172989 11455 net.cpp:274] Network initialization done.
I0924 03:53:43.173045 11455 recurrent_layer.cpp:150] Adding parameter 0: W_xc
I0924 03:53:43.173056 11455 recurrent_layer.cpp:150] Adding parameter 1: b_c
I0924 03:53:43.173065 11455 recurrent_layer.cpp:150] Adding parameter 2: W_hc
I0924 03:53:43.173177 11479 net.cpp:141] Setting up lstm1_unit_1
I0924 03:53:43.173194 11479 net.cpp:148] Top shape: 1 1 1000 (1000)
I0924 03:53:43.173205 11479 net.cpp:148] Top shape: 1 1 1000 (1000)
I0924 03:53:43.173213 11479 net.cpp:156] Memory required for data: 86016
I0924 03:53:43.173220 11479 layer_factory.hpp:77] Creating layer lstm1_
I0924 03:53:43.173233 11479 net.cpp:91] Creating Layer lstm1_
I0924 03:53:43.173243 11479 net.cpp:425] lstm1_ <- c_1
I0924 03:53:43.173255 11479 net.cpp:399] lstm1_ -> c_T
I0924 03:53:43.173310 11479 net.cpp:141] Setting up lstm1_
I0924 03:53:43.173327 11479 net.cpp:148] Top shape: 1 1 1000 (1000)
I0924 03:53:43.173336 11479 net.cpp:156] Memory required for data: 90016
I0924 03:53:43.173343 11479 layer_factory.hpp:77] Creating layer lstm1_h_concat
I0924 03:53:43.173357 11479 net.cpp:91] Creating Layer lstm1_h_concat
I0924 03:53:43.173365 11479 net.cpp:425] lstm1_h_concat <- h_1
I0924 03:53:43.173378 11479 net.cpp:399] lstm1_h_concat -> h
I0924 03:53:43.173437 11479 net.cpp:141] Setting up lstm1_h_concat
I0924 03:53:43.173454 11479 net.cpp:148] Top shape: 1 1 1000 (1000)
I0924 03:53:43.173461 11479 net.cpp:156] Memory required for data: 94016
I0924 03:53:43.173470 11479 layer_factory.hpp:77] Creating layer h_pseudoloss
I0924 03:53:43.173483 11479 net.cpp:91] Creating Layer h_pseudoloss
I0924 03:53:43.173491 11479 net.cpp:425] h_pseudoloss <- h
I0924 03:53:43.173504 11479 net.cpp:399] h_pseudoloss -> h_pseudoloss
I0924 03:53:43.173542 11497 net.cpp:49] Initializing net from parameters: 
layer {
  name: "lstm2_"
  type: "Input"
  top: "x"
  top: "cont"
  input_param {
    shape {
      dim: 1
      dim: 1
      dim: 1501
    }
    shape {
      dim: 1
      dim: 1
    }
  }
}
layer {
  name: "lstm2_"
  type: "Input"
  top: "c_0"
  top: "h_0"
  input_param {
    shape {
      dim: 1
      dim: 1
      dim: 1000
    }
    shape {
      dim: 1
      dim: 1
      dim: 1000
    }
  }
}
layer {
  name: "lstm2_cont_slice"
  type: "Slice"
  bottom: "cont"
  top: "cont_1"
  slice_param {
    axis: 0
  }
}
layer {
  name: "lstm2_x_transform"
  type: "InnerProduct"
  bottom: "x"
  top: "W_xc_x"
  param {
    name: "W_xc"
  }
  param {
    name: "b_c"
  }
  propagate_down: true
  inner_product_param {
    num_output: 4000
    bias_term: true
    weight_filler {
      type: "uniform"
      min: -0.08
      max: 0.08
    }
    bias_filler {
      type: "constant"
      value: 0
    }
    axis: 2
  }
}
layer {
  name: "lstm2_W_xc_x_slice"
  type: "Slice"
  bottom: "W_xc_x"
  top: "W_xc_x_1"
  slice_param {
    axis: 0
  }
}
layer {
  name: "lstm2_h_conted_0"
  type: "Scale"
  bottom: "h_0"
  bottom: "cont_1"
  top: "h_conted_0"
  scale_param {
    axis: 0
  }
}
layer {
  name: "lstm2_transform_1"
  type: "InnerProduct"
  bottom: "h_conted_0"
  top: "W_hc_h_0"
  param {
    name: "W_hc"
  }
  inner_product_param {
    num_output: 4000
    bias_term: false
    weight_filler {
      type: "uniform"
      min: -0.08
      max: 0.08
    }
    axis: 2
  }
}
layer {
  name: "lstm2_gate_input_1"
  type: "Eltwise"
  bottom: "W_hc_h_0"
  bottom: "W_xc_x_1"
  top: "gate_input_1"
  eltwise_param {
    operation: SUM
  }
}
layer {
  name: "lstm2_unit_1"
  type: "LSTMUnit"
  bottom: "c_0"
  bottom: "gate_input_1"
  bottom: "cont_1"
  top: "c_1"
  top: "h_1"
}
layer {
  name: "lstm2_"
  type: "Split"
  bottom: "c_1"
  top: "c_T"
}
layer {
  name: "lstm2_h_concat"
  type: "Concat"
  bottom: "h_1"
  top: "h"
  concat_param {
    axis: 0
  }
}
layer {
  name: "h_pseudoloss"
  type: "Reduction"
  bottom: "h"
  top: "h_pseudoloss"
  loss_weight: 1
}
I0924 03:53:43.173629 11479 net.cpp:141] Setting up h_pseudoloss
I0924 03:53:43.173647 11479 net.cpp:148] Top shape: (1)
I0924 03:53:43.173655 11479 net.cpp:151]     with loss weight 1
I0924 03:53:43.173668 11479 net.cpp:156] Memory required for data: 94020
I0924 03:53:43.173678 11479 net.cpp:217] h_pseudoloss needs backward computation.
I0924 03:53:43.173687 11479 net.cpp:217] lstm1_h_concat needs backward computation.
…
I0924 03:53:43.174046 11479 recurrent_layer.cpp:150] Adding parameter 2: W_hc
I0924 03:53:43.174314 11497 net.cpp:141] Setting up lstm2_
I0924 03:53:43.174340 11505 net.cpp:49] Initializing net from parameters: 
layer {
  name: "lstm1_"
  type: "Input"
  top: "x"
  top: "cont"
  input_param {
    shape {
      dim: 1
      dim: 1
      dim: 500
    }
    shape {
      dim: 1
      dim: 1
    }
  }
}
layer {
  name: "lstm1_"
  type: "Input"
  top: "c_0"
  top: "h_0"
  input_param {
    shape {
      dim: 1
      dim: 1
      dim: 1000
    }
    shape {
      dim: 1
      dim: 1
      dim: 1000
    }
  }
}
layer {
  name: "lstm1_cont_slice"
  type: "Slice"
  bottom: "cont"
  top: "cont_1"
  slice_param {
    axis: 0
  }
}
layer {
  name: "lstm1_x_transform"
  type: "InnerProduct"
  bottom: "x"
  top: "W_xc_x"
  param {
    name: "W_xc"
  }
  param {
    name: "b_c"
  }
  propagate_down: true
  inner_product_param {
    num_output: 4000
    bias_term: true
    weight_filler {
      type: "uniform"
      min: -0.08
      max: 0.08
    }
    bias_filler {
      type: "constant"
      value: 0
    }
    axis: 2
  }
}
layer {
  name: "lstm1_W_xc_x_slice"
  type: "Slice"
  bottom: "W_xc_x"
  top: "W_xc_x_1"
  slice_param {
    axis: 0
  }
}
layer {
  name: "lstm1_h_conted_0"
  type: "Scale"
  bottom: "h_0"
  bottom: "cont_1"
  top: "h_conted_0"
  scale_param {
    axis: 0
  }
}
layer {
  name: "lstm1_transform_1"
  type: "InnerProduct"
  bottom: "h_conted_0"
  top: "W_hc_h_0"
  param {
    name: "W_hc"
  }
  inner_product_param {
    num_output: 4000
    bias_term: false
    weight_filler {
      type: "uniform"
      min: -0.08
      max: 0.08
    }
    axis: 2
  }
}
layer {
  name: "lstm1_gate_input_1"
  type: "Eltwise"
  bottom: "W_hc_h_0"
  bottom: "W_xc_x_1"
  top: "gate_input_1"
  eltwise_param {
    operation: SUM
  }
}
layer {
  name: "lstm1_unit_1"
  type: "LSTMUnit"
  bottom: "c_0"
  bottom: "gate_input_1"
  bottom: "cont_1"
  top: "c_1"
  top: "h_1"
}
layer {
  name: "lstm1_"
  type: "Split"
  bottom: "c_1"
  top: "c_T"
}
layer {
  name: "lstm1_h_concat"
  type: "Concat"
  bottom: "h_1"
  top: "h"
  concat_param {
    axis: 0
  }
}
layer {
  name: "h_pseudoloss"
  type: "Reduction"
  bottom: "h"
  top: "h_pseudoloss"
  loss_weight: 1
}
I0924 03:53:43.174345 11497 net.cpp:148] Top shape: 1 1 1501 (1501)
I0924 03:53:43.174374 11497 net.cpp:148] Top shape: 1 1 (1)
I0924 03:53:43.174383 11497 net.cpp:156] Memory required for data: 6008
I0924 03:53:43.174407 11497 layer_factory.hpp:77] Creating layer lstm2_
I0924 03:53:43.174425 11497 net.cpp:91] Creating Layer lstm2_
I0924 03:53:43.174438 11497 net.cpp:399] lstm2_ -> c_0
I0924 03:53:43.174470 11505 layer_factory.hpp:77] Creating layer lstm1_
I0924 03:53:43.174474 11497 net.cpp:399] lstm2_ -> h_0
I0924 03:53:43.174486 11505 net.cpp:91] Creating Layer lstm1_
I0924 03:53:43.174497 11505 net.cpp:399] lstm1_ -> x
I0924 03:53:43.174515 11505 net.cpp:399] lstm1_ -> cont
I0924 03:53:43.174688 11497 net.cpp:141] Setting up lstm2_
I0924 03:53:43.174717 11497 net.cpp:148] Top shape: 1 1 1000 (1000)
I0924 03:53:43.174759 11497 net.cpp:148] Top shape: 1 1 1000 (1000)
I0924 03:53:43.174773 11497 net.cpp:156] Memory required for data: 14008
I0924 03:53:43.174800 11465 net.cpp:141] Setting up lstm1_x_transform
I0924 03:53:43.174805 11497 layer_factory.hpp:77] Creating layer lstm2_cont_slice
I0924 03:53:43.174829 11465 net.cpp:148] Top shape: 1 1 4000 (4000)
I0924 03:53:43.174836 11465 net.cpp:156] Memory required for data: 26016
I0924 03:53:43.174844 11497 net.cpp:91] Creating Layer lstm2_cont_slice
I0924 03:53:43.174854 11465 layer_factory.hpp:77] Creating layer lstm1_W_xc_x_slice
I0924 03:53:43.174891 11497 net.cpp:425] lstm2_cont_slice <- cont
I0924 03:53:43.174896 11465 net.cpp:91] Creating Layer lstm1_W_xc_x_slice
I0924 03:53:43.174907 11465 net.cpp:425] lstm1_W_xc_x_slice <- W_xc_x
I0924 03:53:43.174923 11465 net.cpp:399] lstm1_W_xc_x_slice -> W_xc_x_1
I0924 03:53:43.174958 11497 net.cpp:399] lstm2_cont_slice -> cont_1
I0924 03:53:43.174978 11465 net.cpp:141] Setting up lstm1_W_xc_x_slice
I0924 03:53:43.174993 11465 net.cpp:148] Top shape: 1 1 4000 (4000)
I0924 03:53:43.174999 11465 net.cpp:156] Memory required for data: 42016
I0924 03:53:43.175009 11465 layer_factory.hpp:77] Creating layer lstm1_h_conted_0
I0924 03:53:43.175022 11465 net.cpp:91] Creating Layer lstm1_h_conted_0
I0924 03:53:43.175030 11465 net.cpp:425] lstm1_h_conted_0 <- h_0
I0924 03:53:43.175040 11465 net.cpp:425] lstm1_h_conted_0 <- cont_1_lstm1_cont_slice_0_split_0
I0924 03:53:43.175055 11465 net.cpp:399] lstm1_h_conted_0 -> h_conted_0
I0924 03:53:43.175057 11497 net.cpp:141] Setting up lstm2_cont_slice
I0924 03:53:43.175073 11497 net.cpp:148] Top shape: 1 1 (1)
I0924 03:53:43.175081 11497 net.cpp:156] Memory required for data: 14012
I0924 03:53:43.175089 11497 layer_factory.hpp:77] Creating layer cont_1_lstm2_cont_slice_0_split
I0924 03:53:43.175179 11465 net.cpp:141] Setting up lstm1_h_conted_0
I0924 03:53:43.175184 11497 net.cpp:91] Creating Layer cont_1_lstm2_cont_slice_0_split
I0924 03:53:43.175192 11497 net.cpp:425] cont_1_lstm2_cont_slice_0_split <- cont_1
I0924 03:53:43.175194 11465 net.cpp:148] Top shape: 1 1 1000 (1000)
I0924 03:53:43.175211 11465 net.cpp:156] Memory required for data: 46016
I0924 03:53:43.175220 11465 layer_factory.hpp:77] Creating layer lstm1_transform_1
I0924 03:53:43.175211 11497 net.cpp:399] cont_1_lstm2_cont_slice_0_split -> cont_1_lstm2_cont_slice_0_split_0
I0924 03:53:43.175237 11465 net.cpp:91] Creating Layer lstm1_transform_1
I0924 03:53:43.175237 11497 net.cpp:399] cont_1_lstm2_cont_slice_0_split -> cont_1_lstm2_cont_slice_0_split_1
I0924 03:53:43.175251 11465 net.cpp:425] lstm1_transform_1 <- h_conted_0
I0924 03:53:43.175264 11465 net.cpp:399] lstm1_transform_1 -> W_hc_h_0
I0924 03:53:43.175396 11455 net.cpp:141] Setting up lstm1
I0924 03:53:43.175412 11455 net.cpp:148] Top shape: 1 1 1000 (1000)
I0924 03:53:43.175420 11455 net.cpp:156] Memory required for data: 26408
I0924 03:53:43.175441 11455 layer_factory.hpp:77] Creating layer concat
I0924 03:53:43.175457 11455 net.cpp:91] Creating Layer concat
I0924 03:53:43.175467 11455 net.cpp:425] concat <- lstm1
I0924 03:53:43.175477 11455 net.cpp:425] concat <- embedded_input_sentence
I0924 03:53:43.175487 11455 net.cpp:425] concat <- reshaped_stage_indicator
I0924 03:53:43.175498 11455 net.cpp:399] concat -> lstm1_video_sequence
I0924 03:53:43.183018 11497 net.cpp:141] Setting up cont_1_lstm2_cont_slice_0_split
I0924 03:53:43.183084 11497 net.cpp:148] Top shape: 1 1 (1)
I0924 03:53:43.183099 11497 net.cpp:148] Top shape: 1 1 (1)
I0924 03:53:43.183106 11497 net.cpp:156] Memory required for data: 14020
I0924 03:53:43.183130 11497 layer_factory.hpp:77] Creating layer lstm2_x_transform
I0924 03:53:43.191681 11497 net.cpp:91] Creating Layer lstm2_x_transform
I0924 03:53:43.191725 11497 net.cpp:425] lstm2_x_transform <- x
I0924 03:53:43.191758 11497 net.cpp:399] lstm2_x_transform -> W_xc_x
I0924 03:53:43.197602 11455 net.cpp:141] Setting up concat
I0924 03:53:43.197646 11455 net.cpp:148] Top shape: 1 1 1501 (1501)
I0924 03:53:43.197654 11455 net.cpp:156] Memory required for data: 32412
I0924 03:53:43.197662 11455 layer_factory.hpp:77] Creating layer lstm2
I0924 03:53:43.197688 11455 net.cpp:91] Creating Layer lstm2
I0924 03:53:43.197696 11455 net.cpp:425] lstm2 <- lstm1_video_sequence
I0924 03:53:43.197706 11455 net.cpp:425] lstm2 <- cont_sentence_input_1_split_1
I0924 03:53:43.197716 11455 net.cpp:399] lstm2 -> lstm2
I0924 03:53:43.197737 11455 recurrent_layer.cpp:20] Initializing recurrent layer: assuming input batch contains 1 timesteps of 1 independent streams.
I0924 03:53:43.197967 11479 net.cpp:141] Setting up lstm1
I0924 03:53:43.198012 11459 net.cpp:141] Setting up lstm1_transform_1
I0924 03:53:43.198034 11455 net.cpp:49] Initializing net from parameters: 
layer {
  name: "lstm2_"
  type: "Input"
  top: "x"
  top: "cont"
  input_param {
    shape {
      dim: 1
      dim: 1
      dim: 1501
    }
    shape {
      dim: 1
      dim: 1
    }
  }
}
layer {
  name: "lstm2_"
  type: "Input"
  top: "c_0"
  top: "h_0"
  input_param {
    shape {
      dim: 1
      dim: 1
      dim: 1000
    }
    shape {
      dim: 1
      dim: 1
      dim: 1000
    }
  }
}
layer {
  name: "lstm2_cont_slice"
  type: "Slice"
  bottom: "cont"
  top: "cont_1"
  slice_param {
    axis: 0
  }
}
layer {
  name: "lstm2_x_transform"
  type: "InnerProduct"
  bottom: "x"
  top: "W_xc_x"
  param {
    name: "W_xc"
  }
  param {
    name: "b_c"
  }
  propagate_down: true
  inner_product_param {
    num_output: 4000
    bias_term: true
    weight_filler {
      type: "uniform"
      min: -0.08
      max: 0.08
    }
    bias_filler {
      type: "constant"
      value: 0
    }
    axis: 2
  }
}
layer {
  name: "lstm2_W_xc_x_slice"
  type: "Slice"
  bottom: "W_xc_x"
  top: "W_xc_x_1"
  slice_param {
    axis: 0
  }
}
layer {
  name: "lstm2_h_conted_0"
  type: "Scale"
  bottom: "h_0"
  bottom: "cont_1"
  top: "h_conted_0"
  scale_param {
    axis: 0
  }
}
layer {
  name: "lstm2_transform_1"
  type: "InnerProduct"
  bottom: "h_conted_0"
  top: "W_hc_h_0"
  param {
    name: "W_hc"
  }
  inner_product_param {
    num_output: 4000
    bias_term: false
    weight_filler {
      type: "uniform"
      min: -0.08
      max: 0.08
    }
    axis: 2
  }
}
layer {
  name: "lstm2_gate_input_1"
  type: "Eltwise"
  bottom: "W_hc_h_0"
  bottom: "W_xc_x_1"
  top: "gate_input_1"
  eltwise_param {
    operation: SUM
  }
}
layer {
  name: "lstm2_unit_1"
  type: "LSTMUnit"
  bottom: "c_0"
  bottom: "gate_input_1"
  bottom: "cont_1"
  top: "c_1"
  top: "h_1"
}
layer {
  name: "lstm2_"
  type: "Split"
  bottom: "c_1"
  top: "c_T"
}
layer {
  name: "lstm2_h_concat"
  type: "Concat"
  bottom: "h_1"
  top: "h"
  concat_param {
    axis: 0
  }
}
layer {
  name: "h_pseudoloss"
  type: "Reduction"
  bottom: "h"
  top: "h_pseudoloss"
  loss_weight: 1
}
I0924 03:53:43.198040 11459 net.cpp:148] Top shape: 1 1 4000 (4000)
I0924 03:53:43.198057 11459 net.cpp:156] Memory required for data: 62016
I0924 03:53:43.198071 11459 layer_factory.hpp:77] Creating layer lstm1_gate_input_1
I0924 03:53:43.198084 11459 net.cpp:91] Creating Layer lstm1_gate_input_1
I0924 03:53:43.198091 11459 net.cpp:425] lstm1_gate_input_1 <- W_hc_h_0
I0924 03:53:43.198098 11459 net.cpp:425] lstm1_gate_input_1 <- W_xc_x_1
I0924 03:53:43.198106 11459 net.cpp:399] lstm1_gate_input_1 -> gate_input_1
I0924 03:53:43.198120 11461 net.cpp:141] Setting up lstm1_unit_1
I0924 03:53:43.198137 11455 layer_factory.hpp:77] Creating layer lstm2_
I0924 03:53:43.198145 11461 net.cpp:148] Top shape: 1 1 1000 (1000)
I0924 03:53:43.198151 11455 net.cpp:91] Creating Layer lstm2_
I0924 03:53:43.198158 11455 net.cpp:399] lstm2_ -> x
I0924 03:53:43.198163 11461 net.cpp:148] Top shape: 1 1 1000 (1000)
I0924 03:53:43.198166 11459 net.cpp:141] Setting up lstm1_gate_input_1
I0924 03:53:43.198171 11455 net.cpp:399] lstm2_ -> cont
I0924 03:53:43.198174 11461 net.cpp:156] Memory required for data: 86016
I0924 03:53:43.198179 11459 net.cpp:148] Top shape: 1 1 4000 (4000)
I0924 03:53:43.198197 11459 net.cpp:156] Memory required for data: 78016
I0924 03:53:43.198014 11479 net.cpp:148] Top shape: 1 1 1000 (1000)
I0924 03:53:43.198211 11459 layer_factory.hpp:77] Creating layer lstm1_unit_1
I0924 03:53:43.198225 11479 net.cpp:156] Memory required for data: 26408
I0924 03:53:43.198228 11505 net.cpp:141] Setting up lstm1_
I0924 03:53:43.198235 11459 net.cpp:91] Creating Layer lstm1_unit_1
I0924 03:53:43.198251 11505 net.cpp:148] Top shape: 1 1 500 (500)
I0924 03:53:43.198252 11459 net.cpp:425] lstm1_unit_1 <- c_0
I0924 03:53:43.198261 11505 net.cpp:148] Top shape: 1 1 (1)
I0924 03:53:43.198261 11459 net.cpp:425] lstm1_unit_1 <- gate_input_1
I0924 03:53:43.198266 11505 net.cpp:156] Memory required for data: 2004
I0924 03:53:43.198268 11459 net.cpp:425] lstm1_unit_1 <- cont_1_lstm1_cont_slice_0_split_1
I0924 03:53:43.198194 11461 layer_factory.hpp:77] Creating layer lstm1_
I0924 03:53:43.198277 11459 net.cpp:399] lstm1_unit_1 -> c_1
I0924 03:53:43.198281 11505 layer_factory.hpp:77] Creating layer lstm1_
I0924 03:53:43.198305 11459 net.cpp:399] lstm1_unit_1 -> h_1
I0924 03:53:43.198305 11461 net.cpp:91] Creating Layer lstm1_
I0924 03:53:43.198320 11505 net.cpp:91] Creating Layer lstm1_
I0924 03:53:43.198323 11461 net.cpp:425] lstm1_ <- c_1
I0924 03:53:43.198331 11505 net.cpp:399] lstm1_ -> c_0
I0924 03:53:43.198334 11455 net.cpp:141] Setting up lstm2_
I0924 03:53:43.198343 11461 net.cpp:399] lstm1_ -> c_T
I0924 03:53:43.198348 11455 net.cpp:148] Top shape: 1 1 1501 (1501)
I0924 03:53:43.198348 11505 net.cpp:399] lstm1_ -> h_0
I0924 03:53:43.198360 11455 net.cpp:148] Top shape: 1 1 (1)
I0924 03:53:43.198365 11455 net.cpp:156] Memory required for data: 6008
I0924 03:53:43.198371 11455 layer_factory.hpp:77] Creating layer lstm2_
I0924 03:53:43.198261 11479 layer_factory.hpp:77] Creating layer concat
I0924 03:53:43.198381 11455 net.cpp:91] Creating Layer lstm2_
I0924 03:53:43.198393 11479 net.cpp:91] Creating Layer concat
I0924 03:53:43.198407 11479 net.cpp:425] concat <- lstm1
I0924 03:53:43.198411 11455 net.cpp:399] lstm2_ -> c_0
I0924 03:53:43.198421 11479 net.cpp:425] concat <- embedded_input_sentence
I0924 03:53:43.198426 11455 net.cpp:399] lstm2_ -> h_0
I0924 03:53:43.198434 11479 net.cpp:425] concat <- reshaped_stage_indicator
I0924 03:53:43.198449 11479 net.cpp:399] concat -> lstm1_video_sequence
I0924 03:53:43.214920 11461 net.cpp:141] Setting up lstm1_
I0924 03:53:43.214972 11461 net.cpp:148] Top shape: 1 1 1000 (1000)
I0924 03:53:43.214980 11461 net.cpp:156] Memory required for data: 90016
I0924 03:53:43.214989 11461 layer_factory.hpp:77] Creating layer lstm1_h_concat
I0924 03:53:43.215010 11461 net.cpp:91] Creating Layer lstm1_h_concat
I0924 03:53:43.215019 11461 net.cpp:425] lstm1_h_concat <- h_1
I0924 03:53:43.215030 11461 net.cpp:399] lstm1_h_concat -> h
I0924 03:53:43.215042 11479 net.cpp:141] Setting up concat
I0924 03:53:43.215061 11479 net.cpp:148] Top shape: 1 1 1501 (1501)
I0924 03:53:43.215067 11479 net.cpp:156] Memory required for data: 32412
I0924 03:53:43.215073 11479 layer_factory.hpp:77] Creating layer lstm2
I0924 03:53:43.215090 11479 net.cpp:91] Creating Layer lstm2
I0924 03:53:43.215096 11479 net.cpp:425] lstm2 <- lstm1_video_sequence
I0924 03:53:43.215103 11479 net.cpp:425] lstm2 <- cont_sentence_input_1_split_1
I0924 03:53:43.215116 11479 net.cpp:399] lstm2 -> lstm2
I0924 03:53:43.215131 11479 recurrent_layer.cpp:20] Initializing recurrent layer: assuming input batch contains 1 timesteps of 1 independent streams.
I0924 03:53:43.215142 11509 net.cpp:141] Setting up lstm1_transform_1
I0924 03:53:43.215169 11455 net.cpp:141] Setting up lstm2_
I0924 03:53:43.215181 11509 net.cpp:148] Top shape: 1 1 4000 (4000)
I0924 03:53:43.215188 11509 net.cpp:156] Memory required for data: 62016
I0924 03:53:43.215189 11455 net.cpp:148] Top shape: 1 1 1000 (1000)
I0924 03:53:43.215198 11455 net.cpp:148] Top shape: 1 1 1000 (1000)
I0924 03:53:43.215201 11455 net.cpp:156] Memory required for data: 14008
I0924 03:53:43.215209 11455 layer_factory.hpp:77] Creating layer lstm2_cont_slice
I0924 03:53:43.215209 11509 layer_factory.hpp:77] Creating layer lstm1_gate_input_1
I0924 03:53:43.215209 11461 net.cpp:141] Setting up lstm1_h_concat
I0924 03:53:43.215226 11455 net.cpp:91] Creating Layer lstm2_cont_slice
I0924 03:53:43.215229 11509 net.cpp:91] Creating Layer lstm1_gate_input_1
I0924 03:53:43.215232 11461 net.cpp:148] Top shape: 1 1 1000 (1000)
I0924 03:53:43.215237 11509 net.cpp:425] lstm1_gate_input_1 <- W_hc_h_0
I0924 03:53:43.215242 11461 net.cpp:156] Memory required for data: 94016
I0924 03:53:43.215245 11509 net.cpp:425] lstm1_gate_input_1 <- W_xc_x_1
I0924 03:53:43.215234 11455 net.cpp:425] lstm2_cont_slice <- cont
I0924 03:53:43.215251 11461 layer_factory.hpp:77] Creating layer h_pseudoloss
I0924 03:53:43.215270 11509 net.cpp:399] lstm1_gate_input_1 -> gate_input_1
I0924 03:53:43.215268 11505 net.cpp:141] Setting up lstm1_
I0924 03:53:43.215271 11455 net.cpp:399] lstm2_cont_slice -> cont_1
I0924 03:53:43.215291 11505 net.cpp:148] Top shape: 1 1 1000 (1000)
I0924 03:53:43.215284 11461 net.cpp:91] Creating Layer h_pseudoloss
I0924 03:53:43.215299 11505 net.cpp:148] Top shape: 1 1 1000 (1000)
I0924 03:53:43.215301 11461 net.cpp:425] h_pseudoloss <- h
I0924 03:53:43.215304 11505 net.cpp:156] Memory required for data: 10004
I0924 03:53:43.215311 11461 net.cpp:399] h_pseudoloss -> h_pseudoloss
I0924 03:53:43.215315 11459 net.cpp:141] Setting up lstm1_unit_1
I0924 03:53:43.215312 11505 layer_factory.hpp:77] Creating layer lstm1_cont_slice
I0924 03:53:43.215334 11459 net.cpp:148] Top shape: 1 1 1000 (1000)
I0924 03:53:43.215342 11459 net.cpp:148] Top shape: 1 1 1000 (1000)
I0924 03:53:43.215339 11505 net.cpp:91] Creating Layer lstm1_cont_slice
I0924 03:53:43.215347 11459 net.cpp:156] Memory required for data: 86016
I0924 03:53:43.215350 11505 net.cpp:425] lstm1_cont_slice <- cont
I0924 03:53:43.215353 11459 layer_factory.hpp:77] Creating layer lstm1_
I0924 03:53:43.215358 11505 net.cpp:399] lstm1_cont_slice -> cont_1
I0924 03:53:43.215363 11459 net.cpp:91] Creating Layer lstm1_
I0924 03:53:43.215368 11459 net.cpp:425] lstm1_ <- c_1
I0924 03:53:43.215375 11459 net.cpp:399] lstm1_ -> c_T
I0924 03:53:43.215421 11479 net.cpp:49] Initializing net from parameters: 
layer {
  name: "lstm2_"
  type: "Input"
  top: "x"
  top: "cont"
  input_param {
    shape {
      dim: 1
      dim: 1
      dim: 1501
    }
    shape {
      dim: 1
      dim: 1
    }
  }
}
layer {
  name: "lstm2_"
  type: "Input"
  top: "c_0"
  top: "h_0"
  input_param {
    shape {
      dim: 1
      dim: 1
      dim: 1000
    }
    shape {
      dim: 1
      dim: 1
      dim: 1000
    }
  }
}
layer {
  name: "lstm2_cont_slice"
  type: "Slice"
  bottom: "cont"
  top: "cont_1"
  slice_param {
    axis: 0
  }
}
layer {
  name: "lstm2_x_transform"
  type: "InnerProduct"
  bottom: "x"
  top: "W_xc_x"
  param {
    name: "W_xc"
  }
  param {
    name: "b_c"
  }
  propagate_down: true
  inner_product_param {
    num_output: 4000
    bias_term: true
    weight_filler {
      type: "uniform"
      min: -0.08
      max: 0.08
    }
    bias_filler {
      type: "constant"
      value: 0
    }
    axis: 2
  }
}
layer {
  name: "lstm2_W_xc_x_slice"
  type: "Slice"
  bottom: "W_xc_x"
  top: "W_xc_x_1"
  slice_param {
    axis: 0
  }
}
layer {
  name: "lstm2_h_conted_0"
  type: "Scale"
  bottom: "h_0"
  bottom: "cont_1"
  top: "h_conted_0"
  scale_param {
    axis: 0
  }
}
layer {
  name: "lstm2_transform_1"
  type: "InnerProduct"
  bottom: "h_conted_0"
  top: "W_hc_h_0"
  param {
    name: "W_hc"
  }
  inner_product_param {
    num_output: 4000
    bias_term: false
    weight_filler {
      type: "uniform"
      min: -0.08
      max: 0.08
    }
    axis: 2
  }
}
layer {
  name: "lstm2_gate_input_1"
  type: "Eltwise"
  bottom: "W_hc_h_0"
  bottom: "W_xc_x_1"
  top: "gate_input_1"
  eltwise_param {
    operation: SUM
  }
}
layer {
  name: "lstm2_unit_1"
  type: "LSTMUnit"
  bottom: "c_0"
  bottom: "gate_input_1"
  bottom: "cont_1"
  top: "c_1"
  top: "h_1"
}
layer {
  name: "lstm2_"
  type: "Split"
  bottom: "c_1"
  top: "c_T"
}
layer {
  name: "lstm2_h_concat"
  type: "Concat"
  bottom: "h_1"
  top: "h"
  concat_param {
    axis: 0
  }
}
layer {
  name: "h_pseudoloss"
  type: "Reduction"
  bottom: "h"
  top: "h_pseudoloss"
  loss_weight: 1
}
I0924 03:53:43.215517 11479 layer_factory.hpp:77] Creating layer lstm2_
I0924 03:53:43.215529 11479 net.cpp:91] Creating Layer lstm2_
I0924 03:53:43.215536 11479 net.cpp:399] lstm2_ -> x
I0924 03:53:43.215544 11509 net.cpp:141] Setting up lstm1_gate_input_1
I0924 03:53:43.215548 11479 net.cpp:399] lstm2_ -> cont
I0924 03:53:43.215579 11509 net.cpp:148] Top shape: 1 1 4000 (4000)
I0924 03:53:43.215586 11509 net.cpp:156] Memory required for data: 78016
I0924 03:53:43.215586 11455 net.cpp:141] Setting up lstm2_cont_slice
I0924 03:53:43.215591 11509 layer_factory.hpp:77] Creating layer lstm1_unit_1
I0924 03:53:43.215605 11455 net.cpp:148] Top shape: 1 1 (1)
I0924 03:53:43.215610 11509 net.cpp:91] Creating Layer lstm1_unit_1
I0924 03:53:43.215610 11455 net.cpp:156] Memory required for data: 14012
I0924 03:53:43.215618 11509 net.cpp:425] lstm1_unit_1 <- c_0
I0924 03:53:43.215622 11455 layer_factory.hpp:77] Creating layer cont_1_lstm2_cont_slice_0_split
I0924 03:53:43.215626 11509 net.cpp:425] lstm1_unit_1 <- gate_input_1
I0924 03:53:43.215631 11509 net.cpp:425] lstm1_unit_1 <- cont_1_lstm1_cont_slice_0_split_1
I0924 03:53:43.215634 11455 net.cpp:91] Creating Layer cont_1_lstm2_cont_slice_0_split
I0924 03:53:43.215638 11509 net.cpp:399] lstm1_unit_1 -> c_1
I0924 03:53:43.215639 11455 net.cpp:425] cont_1_lstm2_cont_slice_0_split <- cont_1
I0924 03:53:43.215647 11455 net.cpp:399] cont_1_lstm2_cont_slice_0_split -> cont_1_lstm2_cont_slice_0_split_0
I0924 03:53:43.215648 11509 net.cpp:399] lstm1_unit_1 -> h_1
I0924 03:53:43.215656 11455 net.cpp:399] cont_1_lstm2_cont_slice_0_split -> cont_1_lstm2_cont_slice_0_split_1
I0924 03:53:43.215750 11455 net.cpp:141] Setting up cont_1_lstm2_cont_slice_0_split
I0924 03:53:43.215761 11455 net.cpp:148] Top shape: 1 1 (1)
I0924 03:53:43.215767 11455 net.cpp:148] Top shape: 1 1 (1)
I0924 03:53:43.215772 11455 net.cpp:156] Memory required for data: 14020
I0924 03:53:43.215777 11455 layer_factory.hpp:77] Creating layer lstm2_x_transform
I0924 03:53:43.215777 11505 net.cpp:141] Setting up lstm1_cont_slice
I0924 03:53:43.215788 11505 net.cpp:148] Top shape: 1 1 (1)
I0924 03:53:43.215792 11455 net.cpp:91] Creating Layer lstm2_x_transform
I0924 03:53:43.215793 11505 net.cpp:156] Memory required for data: 10008
I0924 03:53:43.215801 11455 net.cpp:425] lstm2_x_transform <- x
I0924 03:53:43.215806 11505 layer_factory.hpp:77] Creating layer cont_1_lstm1_cont_slice_0_split
I0924 03:53:43.215816 11455 net.cpp:399] lstm2_x_transform -> W_xc_x
I0924 03:53:43.215819 11505 net.cpp:91] Creating Layer cont_1_lstm1_cont_slice_0_split
I0924 03:53:43.215826 11505 net.cpp:425] cont_1_lstm1_cont_slice_0_split <- cont_1
I0924 03:53:43.215836 11505 net.cpp:399] cont_1_lstm1_cont_slice_0_split -> cont_1_lstm1_cont_slice_0_split_0
I0924 03:53:43.215845 11505 net.cpp:399] cont_1_lstm1_cont_slice_0_split -> cont_1_lstm1_cont_slice_0_split_1
I0924 03:53:43.215862 11509 net.cpp:141] Setting up lstm1_unit_1
I0924 03:53:43.215874 11509 net.cpp:148] Top shape: 1 1 1000 (1000)
I0924 03:53:43.215880 11509 net.cpp:148] Top shape: 1 1 1000 (1000)
I0924 03:53:43.215884 11509 net.cpp:156] Memory required for data: 86016
I0924 03:53:43.215890 11509 layer_factory.hpp:77] Creating layer lstm1_
I0924 03:53:43.215898 11509 net.cpp:91] Creating Layer lstm1_
I0924 03:53:43.215903 11509 net.cpp:425] lstm1_ <- c_1
I0924 03:53:43.215910 11509 net.cpp:399] lstm1_ -> c_T
I0924 03:53:43.215941 11461 net.cpp:141] Setting up h_pseudoloss
I0924 03:53:43.215955 11461 net.cpp:148] Top shape: (1)
I0924 03:53:43.215960 11461 net.cpp:151]     with loss weight 1
I0924 03:53:43.215971 11461 net.cpp:156] Memory required for data: 94020
I0924 03:53:43.215976 11461 net.cpp:217] h_pseudoloss needs backward computation.
I0924 03:53:43.215981 11461 net.cpp:217] lstm1_h_concat needs backward computation.
I0924 03:53:43.215988 11461 net.cpp:219] lstm1_ does not need backward computation.
I0924 03:53:43.215998 11461 net.cpp:217] lstm1_unit_1 needs backward computation.
I0924 03:53:43.216009 11461 net.cpp:217] lstm1_gate_input_1 needs backward computation.
I0924 03:53:43.216007 11459 net.cpp:141] Setting up lstm1_
I0924 03:53:43.216022 11461 net.cpp:217] lstm1_transform_1 needs backward computation.
I0924 03:53:43.216037 11459 net.cpp:148] Top shape: 1 1 1000 (1000)
I0924 03:53:43.216040 11461 net.cpp:219] lstm1_h_conted_0 does not need backward computation.
I0924 03:53:43.216044 11459 net.cpp:156] Memory required for data: 90016
I0924 03:53:43.216048 11461 net.cpp:217] lstm1_W_xc_x_slice needs backward computation.
I0924 03:53:43.216051 11459 layer_factory.hpp:77] Creating layer lstm1_h_concat
I0924 03:53:43.216054 11461 net.cpp:217] lstm1_x_transform needs backward computation.
…
I0924 03:53:43.216084 11461 net.cpp:261] This network produces output c_T
I0924 03:53:43.216087 11459 net.cpp:399] lstm1_h_concat -> h
I0924 03:53:43.216089 11461 net.cpp:261] This network produces output h_pseudoloss
I0924 03:53:43.216114 11461 net.cpp:274] Network initialization done.
I0924 03:53:43.216166 11461 recurrent_layer.cpp:150] Adding parameter 0: W_xc
I0924 03:53:43.216172 11461 recurrent_layer.cpp:150] Adding parameter 1: b_c
I0924 03:53:43.216176 11461 recurrent_layer.cpp:150] Adding parameter 2: W_hc
I0924 03:53:43.219213 11505 net.cpp:141] Setting up cont_1_lstm1_cont_slice_0_split
I0924 03:53:43.219260 11505 net.cpp:148] Top shape: 1 1 (1)
I0924 03:53:43.219271 11505 net.cpp:148] Top shape: 1 1 (1)
I0924 03:53:43.219280 11505 net.cpp:156] Memory required for data: 10016
I0924 03:53:43.219293 11505 layer_factory.hpp:77] Creating layer lstm1_x_transform
I0924 03:53:43.219329 11505 net.cpp:91] Creating Layer lstm1_x_transform
I0924 03:53:43.219341 11505 net.cpp:425] lstm1_x_transform <- x
I0924 03:53:43.219362 11505 net.cpp:399] lstm1_x_transform -> W_xc_x
I0924 03:53:43.224755 11509 net.cpp:141] Setting up lstm1_
I0924 03:53:43.224812 11509 net.cpp:148] Top shape: 1 1 1000 (1000)
I0924 03:53:43.224823 11509 net.cpp:156] Memory required for data: 90016
I0924 03:53:43.224836 11509 layer_factory.hpp:77] Creating layer lstm1_h_concat
I0924 03:53:43.226668 11509 net.cpp:91] Creating Layer lstm1_h_concat
I0924 03:53:43.226707 11509 net.cpp:425] lstm1_h_concat <- h_1
I0924 03:53:43.226734 11509 net.cpp:399] lstm1_h_concat -> h
I0924 03:53:43.242794 11459 net.cpp:141] Setting up lstm1_h_concat
I0924 03:53:43.242846 11459 net.cpp:148] Top shape: 1 1 1000 (1000)
I0924 03:53:43.242858 11459 net.cpp:156] Memory required for data: 94016
I0924 03:53:43.242872 11459 layer_factory.hpp:77] Creating layer h_pseudoloss
I0924 03:53:43.242897 11459 net.cpp:91] Creating Layer h_pseudoloss
I0924 03:53:43.242908 11459 net.cpp:425] h_pseudoloss <- h
I0924 03:53:43.242928 11459 net.cpp:399] h_pseudoloss -> h_pseudoloss
I0924 03:53:43.243079 11479 net.cpp:141] Setting up lstm2_
I0924 03:53:43.243111 11479 net.cpp:148] Top shape: 1 1 1501 (1501)
I0924 03:53:43.243134 11479 net.cpp:148] Top shape: 1 1 (1)
I0924 03:53:43.243147 11479 net.cpp:156] Memory required for data: 6008
…
I0924 03:53:43.482873 11459 net.cpp:274] Network initialization done.
I0924 03:53:43.482867 11455 net.cpp:217] lstm2_x_transform needs backward computation.
I0924 03:53:43.482877 11509 net.cpp:141] Setting up lstm2_unit_1
I0924 03:53:43.482898 11455 net.cpp:219] cont_1_lstm2_cont_slice_0_split does not need backward computation.
I0924 03:53:43.482904 11509 net.cpp:148] Top shape: 1 1 1000 (1000)
I0924 03:53:43.482913 11455 net.cpp:219] lstm2_cont_slice does not need backward computation.
I0924 03:53:43.482916 11509 net.cpp:148] Top shape: 1 1 1000 (1000)
I0924 03:53:43.482923 11509 net.cpp:156] Memory required for data: 90020
I0924 03:53:43.482924 11455 net.cpp:219] lstm2_ does not need backward computation.
I0924 03:53:43.482933 11509 layer_factory.hpp:77] Creating layer lstm2_
I0924 03:53:43.482934 11455 net.cpp:219] lstm2_ does not need backward computation.
I0924 03:53:43.482940 11459 recurrent_layer.cpp:150] Adding parameter 0: W_xc
I0924 03:53:43.482949 11509 net.cpp:91] Creating Layer lstm2_
I0924 03:53:43.482942 11455 net.cpp:261] This network produces output c_T
I0924 03:53:43.482957 11459 recurrent_layer.cpp:150] Adding parameter 1: b_c
I0924 03:53:43.482964 11455 net.cpp:261] This network produces output h_pseudoloss
I0924 03:53:43.482959 11509 net.cpp:425] lstm2_ <- c_1
I0924 03:53:43.482971 11459 recurrent_layer.cpp:150] Adding parameter 2: W_hc
I0924 03:53:43.482980 11509 net.cpp:399] lstm2_ -> c_T
I0924 03:53:43.482998 11455 net.cpp:274] Network initialization done.
I0924 03:53:43.483009 11479 net.cpp:141] Setting up lstm2_unit_1
I0924 03:53:43.483026 11479 net.cpp:148] Top shape: 1 1 1000 (1000)
I0924 03:53:43.483036 11479 net.cpp:148] Top shape: 1 1 1000 (1000)
I0924 03:53:43.483042 11479 net.cpp:156] Memory required for data: 90020
I0924 03:53:43.483050 11479 layer_factory.hpp:77] Creating layer lstm2_
I0924 03:53:43.483055 11509 net.cpp:141] Setting up lstm2_
I0924 03:53:43.483067 11479 net.cpp:91] Creating Layer lstm2_
I0924 03:53:43.483068 11455 recurrent_layer.cpp:150] Adding parameter 0: W_xc
I0924 03:53:43.483075 11479 net.cpp:425] lstm2_ <- c_1
I0924 03:53:43.483072 11509 net.cpp:148] Top shape: 1 1 1000 (1000)
I0924 03:53:43.483089 11479 net.cpp:399] lstm2_ -> c_T
I0924 03:53:43.483090 11455 recurrent_layer.cpp:150] Adding parameter 1: b_c
I0924 03:53:43.483093 11509 net.cpp:156] Memory required for data: 94020
I0924 03:53:43.483109 11455 recurrent_layer.cpp:150] Adding parameter 2: W_hc
I0924 03:53:43.483114 11509 layer_factory.hpp:77] Creating layer lstm2_h_concat
I0924 03:53:43.483129 11509 net.cpp:91] Creating Layer lstm2_h_concat
I0924 03:53:43.483135 11509 net.cpp:425] lstm2_h_concat <- h_1
I0924 03:53:43.483151 11509 net.cpp:399] lstm2_h_concat -> h
I0924 03:53:43.483243 11479 net.cpp:141] Setting up lstm2_
I0924 03:53:43.483258 11479 net.cpp:148] Top shape: 1 1 1000 (1000)
I0924 03:53:43.483265 11479 net.cpp:156] Memory required for data: 94020
I0924 03:53:43.483273 11479 layer_factory.hpp:77] Creating layer lstm2_h_concat
I0924 03:53:43.483286 11479 net.cpp:91] Creating Layer lstm2_h_concat
I0924 03:53:43.483294 11479 net.cpp:425] lstm2_h_concat <- h_1
I0924 03:53:43.483309 11479 net.cpp:399] lstm2_h_concat -> h
I0924 03:53:43.483307 11459 net.cpp:141] Setting up lstm2
I0924 03:53:43.483381 11459 net.cpp:148] Top shape: 1 1 1000 (1000)
I0924 03:53:43.483389 11459 net.cpp:156] Memory required for data: 36412
I0924 03:53:43.483394 11479 net.cpp:141] Setting up lstm2_h_concat
I0924 03:53:43.483409 11479 net.cpp:148] Top shape: 1 1 1000 (1000)
I0924 03:53:43.483414 11459 layer_factory.hpp:77] Creating layer predict
I0924 03:53:43.483417 11479 net.cpp:156] Memory required for data: 98020
I0924 03:53:43.483440 11479 layer_factory.hpp:77] Creating layer h_pseudoloss
I0924 03:53:43.483441 11459 net.cpp:91] Creating Layer predict
I0924 03:53:43.483453 11459 net.cpp:425] predict <- lstm2
I0924 03:53:43.483453 11479 net.cpp:91] Creating Layer h_pseudoloss
I0924 03:53:43.483470 11459 net.cpp:399] predict -> predict
I0924 03:53:43.483474 11479 net.cpp:425] h_pseudoloss <- h
I0924 03:53:43.483486 11479 net.cpp:399] h_pseudoloss -> h_pseudoloss
I0924 03:53:43.483511 11509 net.cpp:141] Setting up lstm2_h_concat
I0924 03:53:43.483527 11509 net.cpp:148] Top shape: 1 1 1000 (1000)
I0924 03:53:43.483535 11509 net.cpp:156] Memory required for data: 98020
I0924 03:53:43.483542 11509 layer_factory.hpp:77] Creating layer h_pseudoloss
I0924 03:53:43.483554 11509 net.cpp:91] Creating Layer h_pseudoloss
I0924 03:53:43.483561 11509 net.cpp:425] h_pseudoloss <- h
I0924 03:53:43.483563 11497 net.cpp:141] Setting up lstm2
I0924 03:53:43.483573 11509 net.cpp:399] h_pseudoloss -> h_pseudoloss
I0924 03:53:43.483584 11497 net.cpp:148] Top shape: 1 1 1000 (1000)
I0924 03:53:43.483593 11497 net.cpp:156] Memory required for data: 36412
I0924 03:53:43.483616 11497 layer_factory.hpp:77] Creating layer predict
I0924 03:53:43.483639 11497 net.cpp:91] Creating Layer predict
I0924 03:53:43.483649 11497 net.cpp:425] predict <- lstm2
I0924 03:53:43.483664 11497 net.cpp:399] predict -> predict
I0924 03:53:43.483700 11509 net.cpp:141] Setting up h_pseudoloss
…
I0924 03:53:43.483845 11509 net.cpp:219] lstm2_ does not need backward computation.
I0924 03:53:43.483851 11509 net.cpp:261] This network produces output c_T
I0924 03:53:43.483860 11509 net.cpp:261] This network produces output h_pseudoloss
I0924 03:53:43.483881 11509 net.cpp:274] Network initialization done.
I0924 03:53:43.483937 11509 recurrent_layer.cpp:150] Adding parameter 0: W_xc
I0924 03:53:43.483947 11509 recurrent_layer.cpp:150] Adding parameter 1: b_c
I0924 03:53:43.483953 11509 recurrent_layer.cpp:150] Adding parameter 2: W_hc
I0924 03:53:43.653736 11455 net.cpp:141] Setting up lstm2
I0924 03:53:43.653805 11455 net.cpp:148] Top shape: 1 1 1000 (1000)
I0924 03:53:43.653815 11455 net.cpp:156] Memory required for data: 36412
I0924 03:53:43.653859 11455 layer_factory.hpp:77] Creating layer predict
I0924 03:53:43.653960 11455 net.cpp:91] Creating Layer predict
I0924 03:53:43.653976 11455 net.cpp:425] predict <- lstm2
I0924 03:53:43.653995 11455 net.cpp:399] predict -> predict
I0924 03:53:43.741729 11505 net.cpp:141] Setting up lstm2_x_transform
I0924 03:53:43.741804 11505 net.cpp:148] Top shape: 1 1 4000 (4000)
I0924 03:53:43.741814 11505 net.cpp:156] Memory required for data: 30020
I0924 03:53:43.741849 11505 layer_factory.hpp:77] Creating layer lstm2_W_xc_x_slice
I0924 03:53:43.741878 11505 net.cpp:91] Creating Layer lstm2_W_xc_x_slice
I0924 03:53:43.741888 11505 net.cpp:425] lstm2_W_xc_x_slice <- W_xc_x
I0924 03:53:43.741901 11505 net.cpp:399] lstm2_W_xc_x_slice -> W_xc_x_1
I0924 03:53:43.741966 11505 net.cpp:141] Setting up lstm2_W_xc_x_slice
I0924 03:53:43.741981 11505 net.cpp:148] Top shape: 1 1 4000 (4000)
I0924 03:53:43.741987 11505 net.cpp:156] Memory required for data: 46020
I0924 03:53:43.741996 11505 layer_factory.hpp:77] Creating layer lstm2_h_conted_0
I0924 03:53:43.742028 11505 net.cpp:91] Creating Layer lstm2_h_conted_0
I0924 03:53:43.742038 11505 net.cpp:425] lstm2_h_conted_0 <- h_0
I0924 03:53:43.742046 11505 net.cpp:425] lstm2_h_conted_0 <- cont_1_lstm2_cont_slice_0_split_0
I0924 03:53:43.742060 11505 net.cpp:399] lstm2_h_conted_0 -> h_conted_0
I0924 03:53:43.742207 11505 net.cpp:141] Setting up lstm2_h_conted_0
I0924 03:53:43.742220 11505 net.cpp:148] Top shape: 1 1 1000 (1000)
I0924 03:53:43.742228 11505 net.cpp:156] Memory required for data: 50020
I0924 03:53:43.742236 11505 layer_factory.hpp:77] Creating layer lstm2_transform_1
I0924 03:53:43.742255 11505 net.cpp:91] Creating Layer lstm2_transform_1
I0924 03:53:43.742264 11505 net.cpp:425] lstm2_transform_1 <- h_conted_0
I0924 03:53:43.742276 11505 net.cpp:399] lstm2_transform_1 -> W_hc_h_0
I0924 03:53:43.752471 11479 net.cpp:141] Setting up h_pseudoloss
I0924 03:53:43.752580 11479 net.cpp:148] Top shape: (1)
I0924 03:53:43.752593 11479 net.cpp:151]     with loss weight 1
I0924 03:53:43.752622 11479 net.cpp:156] Memory required for data: 98024
I0924 03:53:43.752634 11509 net.cpp:141] Setting up lstm2
I0924 03:53:43.752671 11479 net.cpp:217] h_pseudoloss needs backward computation.
I0924 03:53:43.752691 11479 net.cpp:217] lstm2_h_concat needs backward computation.
I0924 03:53:43.752691 11509 net.cpp:148] Top shape: 1 1 1000 (1000)
I0924 03:53:43.752703 11479 net.cpp:219] lstm2_ does not need backward computation.
I0924 03:53:43.752704 11509 net.cpp:156] Memory required for data: 36412
I0924 03:53:43.752724 11479 net.cpp:217] lstm2_unit_1 needs backward computation.
I0924 03:53:43.752768 11479 net.cpp:217] lstm2_gate_input_1 needs backward computation.
I0924 03:53:43.752789 11509 layer_factory.hpp:77] Creating layer predict
…
I0924 03:53:43.752876 11479 net.cpp:219] lstm2_cont_slice does not need backward computation.
I0924 03:53:43.752884 11509 net.cpp:399] predict -> predict
I0924 03:53:43.752887 11479 net.cpp:219] lstm2_ does not need backward computation.
I0924 03:53:43.752898 11479 net.cpp:219] lstm2_ does not need backward computation.
I0924 03:53:43.752905 11479 net.cpp:261] This network produces output c_T
I0924 03:53:43.752915 11479 net.cpp:261] This network produces output h_pseudoloss
I0924 03:53:43.752938 11479 net.cpp:274] Network initialization done.
I0924 03:53:43.752956 11461 net.cpp:141] Setting up lstm2_transform_1
I0924 03:53:43.752987 11461 net.cpp:148] Top shape: 1 1 4000 (4000)
I0924 03:53:43.752995 11461 net.cpp:156] Memory required for data: 66020
I0924 03:53:43.753023 11461 layer_factory.hpp:77] Creating layer lstm2_gate_input_1
I0924 03:53:43.753058 11461 net.cpp:91] Creating Layer lstm2_gate_input_1
I0924 03:53:43.753068 11461 net.cpp:425] lstm2_gate_input_1 <- W_hc_h_0
I0924 03:53:43.753074 11479 recurrent_layer.cpp:150] Adding parameter 0: W_xc
I0924 03:53:43.753080 11461 net.cpp:425] lstm2_gate_input_1 <- W_xc_x_1
I0924 03:53:43.753090 11479 recurrent_layer.cpp:150] Adding parameter 1: b_c
I0924 03:53:43.753095 11461 net.cpp:399] lstm2_gate_input_1 -> gate_input_1
I0924 03:53:43.753101 11479 recurrent_layer.cpp:150] Adding parameter 2: W_hc
I0924 03:53:43.753379 11461 net.cpp:141] Setting up lstm2_gate_input_1
I0924 03:53:43.753397 11461 net.cpp:148] Top shape: 1 1 4000 (4000)
I0924 03:53:43.753404 11461 net.cpp:156] Memory required for data: 82020
I0924 03:53:43.753412 11461 layer_factory.hpp:77] Creating layer lstm2_unit_1
I0924 03:53:43.753430 11461 net.cpp:91] Creating Layer lstm2_unit_1
I0924 03:53:43.753440 11461 net.cpp:425] lstm2_unit_1 <- c_0
I0924 03:53:43.753451 11461 net.cpp:425] lstm2_unit_1 <- gate_input_1
I0924 03:53:43.753459 11461 net.cpp:425] lstm2_unit_1 <- cont_1_lstm2_cont_slice_0_split_1
I0924 03:53:43.753470 11461 net.cpp:399] lstm2_unit_1 -> c_1
I0924 03:53:43.753486 11461 net.cpp:399] lstm2_unit_1 -> h_1
I0924 03:53:43.753618 11479 net.cpp:141] Setting up lstm2
I0924 03:53:43.753669 11479 net.cpp:148] Top shape: 1 1 1000 (1000)
I0924 03:53:43.753679 11479 net.cpp:156] Memory required for data: 36412
I0924 03:53:43.753773 11479 layer_factory.hpp:77] Creating layer predict
I0924 03:53:43.753800 11479 net.cpp:91] Creating Layer predict
I0924 03:53:43.753813 11479 net.cpp:425] predict <- lstm2
I0924 03:53:43.753829 11479 net.cpp:399] predict -> predict
I0924 03:53:43.846168 11465 net.cpp:141] Setting up lstm2_x_transform
I0924 03:53:43.846235 11465 net.cpp:148] Top shape: 1 1 4000 (4000)
I0924 03:53:43.846245 11465 net.cpp:156] Memory required for data: 30020
I0924 03:53:43.846295 11465 layer_factory.hpp:77] Creating layer lstm2_W_xc_x_slice
I0924 03:53:43.846320 11465 net.cpp:91] Creating Layer lstm2_W_xc_x_slice
I0924 03:53:43.846331 11465 net.cpp:425] lstm2_W_xc_x_slice <- W_xc_x
I0924 03:53:43.846346 11465 net.cpp:399] lstm2_W_xc_x_slice -> W_xc_x_1
I0924 03:53:43.846372 11505 net.cpp:141] Setting up lstm2_transform_1
I0924 03:53:43.846398 11505 net.cpp:148] Top shape: 1 1 4000 (4000)
I0924 03:53:43.846408 11505 net.cpp:156] Memory required for data: 66020
I0924 03:53:43.846426 11505 layer_factory.hpp:77] Creating layer lstm2_gate_input_1
I0924 03:53:43.846457 11505 net.cpp:91] Creating Layer lstm2_gate_input_1
I0924 03:53:43.846468 11505 net.cpp:425] lstm2_gate_input_1 <- W_hc_h_0
I0924 03:53:43.846479 11505 net.cpp:425] lstm2_gate_input_1 <- W_xc_x_1
I0924 03:53:43.846498 11505 net.cpp:399] lstm2_gate_input_1 -> gate_input_1
I0924 03:53:43.846520 11473 net.cpp:141] Setting up lstm2_x_transform
I0924 03:53:43.846565 11473 net.cpp:148] Top shape: 1 1 4000 (4000)
I0924 03:53:43.846573 11473 net.cpp:156] Memory required for data: 30020
I0924 03:53:43.846616 11473 layer_factory.hpp:77] Creating layer lstm2_W_xc_x_slice
I0924 03:53:43.846642 11473 net.cpp:91] Creating Layer lstm2_W_xc_x_slice
I0924 03:53:43.853788 11473 net.cpp:425] lstm2_W_xc_x_slice <- W_xc_x
I0924 03:53:43.853902 11473 net.cpp:399] lstm2_W_xc_x_slice -> W_xc_x_1
I0924 03:53:43.931630 11465 net.cpp:141] Setting up lstm2_W_xc_x_slice
I0924 03:53:43.931687 11465 net.cpp:148] Top shape: 1 1 4000 (4000)
I0924 03:53:43.931696 11465 net.cpp:156] Memory required for data: 46020
I0924 03:53:43.931730 11465 layer_factory.hpp:77] Creating layer lstm2_h_conted_0
I0924 03:53:43.931754 11465 net.cpp:91] Creating Layer lstm2_h_conted_0
I0924 03:53:43.931763 11465 net.cpp:425] lstm2_h_conted_0 <- h_0
I0924 03:53:43.931777 11465 net.cpp:425] lstm2_h_conted_0 <- cont_1_lstm2_cont_slice_0_split_0
I0924 03:53:43.931804 11465 net.cpp:399] lstm2_h_conted_0 -> h_conted_0
I0924 03:53:43.932005 11465 net.cpp:141] Setting up lstm2_h_conted_0
I0924 03:53:43.932020 11465 net.cpp:148] Top shape: 1 1 1000 (1000)
I0924 03:53:43.932027 11465 net.cpp:156] Memory required for data: 50020
I0924 03:53:43.932034 11465 layer_factory.hpp:77] Creating layer lstm2_transform_1
I0924 03:53:43.932073 11465 net.cpp:91] Creating Layer lstm2_transform_1
I0924 03:53:43.932081 11465 net.cpp:425] lstm2_transform_1 <- h_conted_0
I0924 03:53:43.932095 11465 net.cpp:399] lstm2_transform_1 -> W_hc_h_0
I0924 03:53:43.942011 11505 net.cpp:141] Setting up lstm2_gate_input_1
I0924 03:53:43.942073 11505 net.cpp:148] Top shape: 1 1 4000 (4000)
I0924 03:53:43.942083 11505 net.cpp:156] Memory required for data: 82020
I0924 03:53:43.942096 11505 layer_factory.hpp:77] Creating layer lstm2_unit_1
I0924 03:53:43.942131 11505 net.cpp:91] Creating Layer lstm2_unit_1
I0924 03:53:43.942144 11505 net.cpp:425] lstm2_unit_1 <- c_0
I0924 03:53:43.942160 11505 net.cpp:425] lstm2_unit_1 <- gate_input_1
I0924 03:53:43.942170 11505 net.cpp:425] lstm2_unit_1 <- cont_1_lstm2_cont_slice_0_split_1
I0924 03:53:43.942183 11505 net.cpp:399] lstm2_unit_1 -> c_1
I0924 03:53:43.942205 11505 net.cpp:399] lstm2_unit_1 -> h_1
I0924 03:53:43.942231 11473 net.cpp:141] Setting up lstm2_W_xc_x_slice
I0924 03:53:43.942292 11473 net.cpp:148] Top shape: 1 1 4000 (4000)
I0924 03:53:43.942309 11473 net.cpp:156] Memory required for data: 46020
I0924 03:53:43.942329 11473 layer_factory.hpp:77] Creating layer lstm2_h_conted_0
I0924 03:53:43.942353 11505 net.cpp:141] Setting up lstm2_unit_1
I0924 03:53:43.942368 11473 net.cpp:91] Creating Layer lstm2_h_conted_0
I0924 03:53:43.942407 11473 net.cpp:425] lstm2_h_conted_0 <- h_0
I0924 03:53:43.942432 11473 net.cpp:425] lstm2_h_conted_0 <- cont_1_lstm2_cont_slice_0_split_0
I0924 03:53:43.942458 11473 net.cpp:399] lstm2_h_conted_0 -> h_conted_0
I0924 03:53:43.942857 11473 net.cpp:141] Setting up lstm2_h_conted_0
I0924 03:53:43.942889 11473 net.cpp:148] Top shape: 1 1 1000 (1000)
I0924 03:53:43.942905 11473 net.cpp:156] Memory required for data: 50020
I0924 03:53:43.942921 11473 layer_factory.hpp:77] Creating layer lstm2_transform_1
I0924 03:53:43.942951 11473 net.cpp:91] Creating Layer lstm2_transform_1
I0924 03:53:43.942970 11473 net.cpp:425] lstm2_transform_1 <- h_conted_0
I0924 03:53:43.943002 11473 net.cpp:399] lstm2_transform_1 -> W_hc_h_0
I0924 03:53:43.942369 11505 net.cpp:148] Top shape: 1 1 1000 (1000)
I0924 03:53:43.954701 11505 net.cpp:148] Top shape: 1 1 1000 (1000)
I0924 03:53:43.954712 11505 net.cpp:156] Memory required for data: 90020
I0924 03:53:43.954725 11505 layer_factory.hpp:77] Creating layer lstm2_
I0924 03:53:43.954748 11505 net.cpp:91] Creating Layer lstm2_
I0924 03:53:43.954761 11505 net.cpp:425] lstm2_ <- c_1
I0924 03:53:43.954787 11505 net.cpp:399] lstm2_ -> c_T
I0924 03:53:43.956847 11461 net.cpp:141] Setting up lstm2_unit_1
I0924 03:53:43.956871 11505 net.cpp:141] Setting up lstm2_
I0924 03:53:43.956923 11505 net.cpp:148] Top shape: 1 1 1000 (1000)
I0924 03:53:43.956926 11461 net.cpp:148] Top shape: 1 1 1000 (1000)
I0924 03:53:43.956933 11505 net.cpp:156] Memory required for data: 94020
I0924 03:53:43.956959 11505 layer_factory.hpp:77] Creating layer lstm2_h_concat
I0924 03:53:43.956960 11461 net.cpp:148] Top shape: 1 1 1000 (1000)
I0924 03:53:43.956977 11461 net.cpp:156] Memory required for data: 90020
I0924 03:53:43.956984 11505 net.cpp:91] Creating Layer lstm2_h_concat
I0924 03:53:43.956993 11505 net.cpp:425] lstm2_h_concat <- h_1
I0924 03:53:43.956996 11461 layer_factory.hpp:77] Creating layer lstm2_
I0924 03:53:43.957007 11505 net.cpp:399] lstm2_h_concat -> h
I0924 03:53:43.957047 11461 net.cpp:91] Creating Layer lstm2_
I0924 03:53:43.957070 11461 net.cpp:425] lstm2_ <- c_1
I0924 03:53:43.957098 11461 net.cpp:399] lstm2_ -> c_T
I0924 03:53:43.957192 11505 net.cpp:141] Setting up lstm2_h_concat
I0924 03:53:43.957209 11505 net.cpp:148] Top shape: 1 1 1000 (1000)
I0924 03:53:43.957217 11505 net.cpp:156] Memory required for data: 98020
I0924 03:53:43.957226 11505 layer_factory.hpp:77] Creating layer h_pseudoloss
I0924 03:53:43.957242 11505 net.cpp:91] Creating Layer h_pseudoloss
I0924 03:53:43.957240 11459 net.cpp:141] Setting up predict
I0924 03:53:43.957252 11505 net.cpp:425] h_pseudoloss <- h
I0924 03:53:43.957265 11505 net.cpp:399] h_pseudoloss -> h_pseudoloss
I0924 03:53:43.957291 11459 net.cpp:148] Top shape: 1 1 46168 (46168)
I0924 03:53:43.957304 11459 net.cpp:156] Memory required for data: 221084
I0924 03:53:43.957327 11459 layer_factory.hpp:77] Creating layer probs
I0924 03:53:43.957348 11459 net.cpp:91] Creating Layer probs
I0924 03:53:43.957362 11459 net.cpp:425] probs <- predict
I0924 03:53:43.957378 11459 net.cpp:399] probs -> probs
I0924 03:53:43.957413 11505 net.cpp:141] Setting up h_pseudoloss
…
I0924 03:53:43.957595 11505 net.cpp:219] lstm2_ does not need backward computation.
I0924 03:53:43.957602 11505 net.cpp:261] This network produces output c_T
I0924 03:53:43.957609 11505 net.cpp:261] This network produces output h_pseudoloss
I0924 03:53:43.957633 11505 net.cpp:274] Network initialization done.
I0924 03:53:43.957713 11505 recurrent_layer.cpp:150] Adding parameter 0: W_xc
I0924 03:53:43.957725 11505 recurrent_layer.cpp:150] Adding parameter 1: b_c
I0924 03:53:43.957732 11505 recurrent_layer.cpp:150] Adding parameter 2: W_hc
I0924 03:53:43.957901 11505 net.cpp:141] Setting up lstm2
I0924 03:53:43.957921 11505 net.cpp:148] Top shape: 1 1 1000 (1000)
I0924 03:53:43.957928 11505 net.cpp:156] Memory required for data: 36412
I0924 03:53:43.957954 11505 layer_factory.hpp:77] Creating layer predict
I0924 03:53:43.957974 11505 net.cpp:91] Creating Layer predict
I0924 03:53:43.957986 11505 net.cpp:425] predict <- lstm2
I0924 03:53:43.958000 11505 net.cpp:399] predict -> predict
I0924 03:53:44.041950 11461 net.cpp:141] Setting up lstm2_
I0924 03:53:44.042017 11461 net.cpp:148] Top shape: 1 1 1000 (1000)
I0924 03:53:44.042026 11461 net.cpp:156] Memory required for data: 94020
I0924 03:53:44.042038 11461 layer_factory.hpp:77] Creating layer lstm2_h_concat
I0924 03:53:44.042063 11461 net.cpp:91] Creating Layer lstm2_h_concat
I0924 03:53:44.042074 11461 net.cpp:425] lstm2_h_concat <- h_1
I0924 03:53:44.046682 11461 net.cpp:399] lstm2_h_concat -> h
I0924 03:53:44.046739 11473 net.cpp:141] Setting up lstm2_transform_1
I0924 03:53:44.046721 11465 net.cpp:141] Setting up lstm2_transform_1
I0924 03:53:44.046764 11473 net.cpp:148] Top shape: 1 1 4000 (4000)
I0924 03:53:44.046802 11473 net.cpp:156] Memory required for data: 66020
I0924 03:53:44.046818 11473 layer_factory.hpp:77] Creating layer lstm2_gate_input_1
I0924 03:53:44.046826 11465 net.cpp:148] Top shape: 1 1 4000 (4000)
I0924 03:53:44.046838 11473 net.cpp:91] Creating Layer lstm2_gate_input_1
I0924 03:53:44.046845 11465 net.cpp:156] Memory required for data: 66020
I0924 03:53:44.046850 11473 net.cpp:425] lstm2_gate_input_1 <- W_hc_h_0
I0924 03:53:44.046876 11473 net.cpp:425] lstm2_gate_input_1 <- W_xc_x_1
I0924 03:53:44.046890 11465 layer_factory.hpp:77] Creating layer lstm2_gate_input_1
I0924 03:53:44.046890 11473 net.cpp:399] lstm2_gate_input_1 -> gate_input_1
I0924 03:53:44.046929 11461 net.cpp:141] Setting up lstm2_h_concat
I0924 03:53:44.046946 11465 net.cpp:91] Creating Layer lstm2_gate_input_1
I0924 03:53:44.046946 11461 net.cpp:148] Top shape: 1 1 1000 (1000)
I0924 03:53:44.046977 11461 net.cpp:156] Memory required for data: 98020
I0924 03:53:44.046977 11465 net.cpp:425] lstm2_gate_input_1 <- W_hc_h_0
I0924 03:53:44.046983 11461 layer_factory.hpp:77] Creating layer h_pseudoloss
I0924 03:53:44.047005 11465 net.cpp:425] lstm2_gate_input_1 <- W_xc_x_1
I0924 03:53:44.047011 11461 net.cpp:91] Creating Layer h_pseudoloss
I0924 03:53:44.047024 11461 net.cpp:425] h_pseudoloss <- h
I0924 03:53:44.047035 11461 net.cpp:399] h_pseudoloss -> h_pseudoloss
I0924 03:53:44.047034 11465 net.cpp:399] lstm2_gate_input_1 -> gate_input_1
I0924 03:53:44.047071 11473 net.cpp:141] Setting up lstm2_gate_input_1
I0924 03:53:44.047088 11473 net.cpp:148] Top shape: 1 1 4000 (4000)
I0924 03:53:44.047096 11473 net.cpp:156] Memory required for data: 82020
I0924 03:53:44.047106 11473 layer_factory.hpp:77] Creating layer lstm2_unit_1
I0924 03:53:44.047121 11473 net.cpp:91] Creating Layer lstm2_unit_1
I0924 03:53:44.047128 11473 net.cpp:425] lstm2_unit_1 <- c_0
I0924 03:53:44.047138 11473 net.cpp:425] lstm2_unit_1 <- gate_input_1
I0924 03:53:44.047147 11473 net.cpp:425] lstm2_unit_1 <- cont_1_lstm2_cont_slice_0_split_1
…
I0924 03:53:44.047312 11461 net.cpp:217] lstm2_h_concat needs backward computation.
I0924 03:53:44.047317 11461 net.cpp:219] lstm2_ does not need backward computation.
I0924 03:53:44.047322 11461 net.cpp:217] lstm2_unit_1 needs backward computation.
I0924 03:53:44.047327 11461 net.cpp:217] lstm2_gate_input_1 needs backward computation.
I0924 03:53:44.047335 11461 net.cpp:217] lstm2_transform_1 needs backward computation.
I0924 03:53:44.047333 11497 net.cpp:141] Setting up predict
I0924 03:53:44.047350 11461 net.cpp:219] lstm2_h_conted_0 does not need backward computation.
I0924 03:53:44.047368 11497 net.cpp:148] Top shape: 1 1 46168 (46168)
I0924 03:53:44.047374 11497 net.cpp:156] Memory required for data: 221084
I0924 03:53:44.047380 11461 net.cpp:217] lstm2_W_xc_x_slice needs backward computation.
I0924 03:53:44.047389 11497 layer_factory.hpp:77] Creating layer probs
I0924 03:53:44.047392 11461 net.cpp:217] lstm2_x_transform needs backward computation.
I0924 03:53:44.047402 11497 net.cpp:91] Creating Layer probs
I0924 03:53:44.047404 11461 net.cpp:219] cont_1_lstm2_cont_slice_0_split does not need backward computation.
I0924 03:53:44.047412 11497 net.cpp:425] probs <- predict
I0924 03:53:44.047415 11461 net.cpp:219] lstm2_cont_slice does not need backward computation.
I0924 03:53:44.047422 11497 net.cpp:399] probs -> probs
I0924 03:53:44.047425 11461 net.cpp:219] lstm2_ does not need backward computation.
I0924 03:53:44.047435 11461 net.cpp:219] lstm2_ does not need backward computation.
I0924 03:53:44.047442 11461 net.cpp:261] This network produces output c_T
I0924 03:53:44.047451 11461 net.cpp:261] This network produces output h_pseudoloss
I0924 03:53:44.047467 11461 net.cpp:274] Network initialization done.
I0924 03:53:44.047536 11461 recurrent_layer.cpp:150] Adding parameter 0: W_xc
I0924 03:53:44.047546 11461 recurrent_layer.cpp:150] Adding parameter 1: b_c
I0924 03:53:44.047555 11461 recurrent_layer.cpp:150] Adding parameter 2: W_hc
I0924 03:53:44.047556 11465 net.cpp:141] Setting up lstm2_gate_input_1
I0924 03:53:44.047585 11465 net.cpp:148] Top shape: 1 1 4000 (4000)
I0924 03:53:44.047600 11465 net.cpp:156] Memory required for data: 82020
I0924 03:53:44.047603 11473 net.cpp:141] Setting up lstm2_unit_1
I0924 03:53:44.047616 11465 layer_factory.hpp:77] Creating layer lstm2_unit_1
I0924 03:53:44.047622 11473 net.cpp:148] Top shape: 1 1 1000 (1000)
I0924 03:53:44.047634 11473 net.cpp:148] Top shape: 1 1 1000 (1000)
I0924 03:53:44.047642 11473 net.cpp:156] Memory required for data: 90020
I0924 03:53:44.047646 11465 net.cpp:91] Creating Layer lstm2_unit_1
I0924 03:53:44.047652 11473 layer_factory.hpp:77] Creating layer lstm2_
I0924 03:53:44.047670 11465 net.cpp:425] lstm2_unit_1 <- c_0
I0924 03:53:44.047683 11473 net.cpp:91] Creating Layer lstm2_
I0924 03:53:44.047691 11465 net.cpp:425] lstm2_unit_1 <- gate_input_1
I0924 03:53:44.047693 11473 net.cpp:425] lstm2_ <- c_1
I0924 03:53:44.047713 11465 net.cpp:425] lstm2_unit_1 <- cont_1_lstm2_cont_slice_0_split_1
I0924 03:53:44.047722 11473 net.cpp:399] lstm2_ -> c_T
I0924 03:53:44.047737 11465 net.cpp:399] lstm2_unit_1 -> c_1
I0924 03:53:44.047765 11465 net.cpp:399] lstm2_unit_1 -> h_1
I0924 03:53:44.047791 11473 net.cpp:141] Setting up lstm2_
I0924 03:53:44.047807 11473 net.cpp:148] Top shape: 1 1 1000 (1000)
I0924 03:53:44.047816 11473 net.cpp:156] Memory required for data: 94020
I0924 03:53:44.047824 11473 layer_factory.hpp:77] Creating layer lstm2_h_concat
I0924 03:53:44.047838 11473 net.cpp:91] Creating Layer lstm2_h_concat
I0924 03:53:44.047847 11461 net.cpp:141] Setting up lstm2
I0924 03:53:44.047850 11473 net.cpp:425] lstm2_h_concat <- h_1
I0924 03:53:44.047870 11461 net.cpp:148] Top shape: 1 1 1000 (1000)
I0924 03:53:44.047871 11473 net.cpp:399] lstm2_h_concat -> h
I0924 03:53:44.047883 11461 net.cpp:156] Memory required for data: 36412
I0924 03:53:44.047914 11461 layer_factory.hpp:77] Creating layer predict
I0924 03:53:44.047930 11461 net.cpp:91] Creating Layer predict
I0924 03:53:44.047940 11461 net.cpp:425] predict <- lstm2
I0924 03:53:44.047955 11461 net.cpp:399] predict -> predict
I0924 03:53:44.047998 11473 net.cpp:141] Setting up lstm2_h_concat
I0924 03:53:44.048012 11473 net.cpp:148] Top shape: 1 1 1000 (1000)
I0924 03:53:44.048017 11473 net.cpp:156] Memory required for data: 98020
I0924 03:53:44.048022 11473 layer_factory.hpp:77] Creating layer h_pseudoloss
I0924 03:53:44.048033 11473 net.cpp:91] Creating Layer h_pseudoloss
I0924 03:53:44.048039 11473 net.cpp:425] h_pseudoloss <- h
I0924 03:53:44.048046 11473 net.cpp:399] h_pseudoloss -> h_pseudoloss
I0924 03:53:44.048182 11465 net.cpp:141] Setting up lstm2_unit_1
I0924 03:53:44.048214 11465 net.cpp:148] Top shape: 1 1 1000 (1000)
I0924 03:53:44.048235 11465 net.cpp:148] Top shape: 1 1 1000 (1000)
I0924 03:53:44.048249 11465 net.cpp:156] Memory required for data: 90020
I0924 03:53:44.048264 11465 layer_factory.hpp:77] Creating layer lstm2_
I0924 03:53:44.048286 11465 net.cpp:91] Creating Layer lstm2_
I0924 03:53:44.048302 11465 net.cpp:425] lstm2_ <- c_1
I0924 03:53:44.048323 11465 net.cpp:399] lstm2_ -> c_T
I0924 03:53:44.142844 11473 net.cpp:141] Setting up h_pseudoloss
I0924 03:53:44.142915 11473 net.cpp:148] Top shape: (1)
…
I0924 03:53:44.236232 11465 net.cpp:219] lstm2_ does not need backward computation.
I0924 03:53:44.236344 11465 net.cpp:261] This network produces output c_T
I0924 03:53:44.236464 11465 net.cpp:261] This network produces output h_pseudoloss
I0924 03:53:44.238922 11465 net.cpp:274] Network initialization done.
I0924 03:53:44.253412 11465 recurrent_layer.cpp:150] Adding parameter 0: W_xc
I0924 03:53:44.253454 11465 recurrent_layer.cpp:150] Adding parameter 1: b_c
I0924 03:53:44.253463 11465 recurrent_layer.cpp:150] Adding parameter 2: W_hc
I0924 03:53:44.306320 11465 net.cpp:141] Setting up lstm2
I0924 03:53:44.306396 11465 net.cpp:148] Top shape: 1 1 1000 (1000)
I0924 03:53:44.306406 11465 net.cpp:156] Memory required for data: 36412
I0924 03:53:44.306458 11465 layer_factory.hpp:77] Creating layer predict
I0924 03:53:44.306490 11465 net.cpp:91] Creating Layer predict
I0924 03:53:44.306504 11465 net.cpp:425] predict <- lstm2
I0924 03:53:44.306519 11465 net.cpp:399] predict -> predict
I0924 03:53:44.394654 11479 net.cpp:141] Setting up predict
I0924 03:53:44.394711 11479 net.cpp:148] Top shape: 1 1 46168 (46168)
I0924 03:53:44.394721 11479 net.cpp:156] Memory required for data: 221084
I0924 03:53:44.394742 11479 layer_factory.hpp:77] Creating layer probs
I0924 03:53:44.394767 11479 net.cpp:91] Creating Layer probs
I0924 03:53:44.394778 11479 net.cpp:425] probs <- predict
I0924 03:53:44.394791 11479 net.cpp:399] probs -> probs
I0924 03:53:44.401271 11509 net.cpp:141] Setting up predict
I0924 03:53:44.401325 11509 net.cpp:148] Top shape: 1 1 46168 (46168)
I0924 03:53:44.401335 11509 net.cpp:156] Memory required for data: 221084
I0924 03:53:44.401357 11509 layer_factory.hpp:77] Creating layer probs
I0924 03:53:44.401384 11509 net.cpp:91] Creating Layer probs
I0924 03:53:44.401396 11509 net.cpp:425] probs <- predict
I0924 03:53:44.401410 11509 net.cpp:399] probs -> probs
I0924 03:53:44.419796 11505 net.cpp:141] Setting up predict
I0924 03:53:44.419844 11505 net.cpp:148] Top shape: 1 1 46168 (46168)
I0924 03:53:44.419852 11505 net.cpp:156] Memory required for data: 221084
I0924 03:53:44.419867 11505 layer_factory.hpp:77] Creating layer probs
I0924 03:53:44.419884 11505 net.cpp:91] Creating Layer probs
I0924 03:53:44.419893 11505 net.cpp:425] probs <- predict
I0924 03:53:44.419903 11505 net.cpp:399] probs -> probs
I0924 03:53:44.518532 11461 net.cpp:141] Setting up predict
I0924 03:53:44.518610 11461 net.cpp:148] Top shape: 1 1 46168 (46168)
I0924 03:53:44.518625 11461 net.cpp:156] Memory required for data: 221084
I0924 03:53:44.518649 11461 layer_factory.hpp:77] Creating layer probs
I0924 03:53:44.518674 11461 net.cpp:91] Creating Layer probs
I0924 03:53:44.518687 11461 net.cpp:425] probs <- predict
I0924 03:53:44.518708 11461 net.cpp:399] probs -> probs
I0924 03:53:44.622323 11473 net.cpp:141] Setting up predict
I0924 03:53:44.622383 11473 net.cpp:148] Top shape: 1 1 46168 (46168)
I0924 03:53:44.622392 11473 net.cpp:156] Memory required for data: 221084
I0924 03:53:44.622416 11473 layer_factory.hpp:77] Creating layer probs
I0924 03:53:44.622439 11473 net.cpp:91] Creating Layer probs
I0924 03:53:44.622450 11473 net.cpp:425] probs <- predict
I0924 03:53:44.622465 11473 net.cpp:399] probs -> probs
I0924 03:53:44.627037 11459 net.cpp:141] Setting up probs
I0924 03:53:44.627085 11459 net.cpp:148] Top shape: 1 1 46168 (46168)
I0924 03:53:44.627094 11459 net.cpp:156] Memory required for data: 405756
I0924 03:53:44.627106 11459 net.cpp:219] probs does not need backward computation.
I0924 03:53:44.627117 11459 net.cpp:219] predict does not need backward computation.
I0924 03:53:44.627127 11459 net.cpp:219] lstm2 does not need backward computation.
I0924 03:53:44.627137 11459 net.cpp:219] concat does not need backward computation.
I0924 03:53:44.627148 11459 net.cpp:219] lstm1 does not need backward computation.
I0924 03:53:44.627157 11459 net.cpp:219] embedding does not need backward computation.
I0924 03:53:44.627166 11459 net.cpp:219] reshape_stage_indicator does not need backward computation.
I0924 03:53:44.627176 11459 net.cpp:219] reshape_frames does not need backward computation.
I0924 03:53:44.627182 11459 net.cpp:219] embed_encoder does not need backward computation.
I0924 03:53:44.627190 11459 net.cpp:219] cont_sentence_input_1_split does not need backward computation.
I0924 03:53:44.627200 11459 net.cpp:219] input does not need backward computation.
I0924 03:53:44.627207 11459 net.cpp:261] This network produces output probs
I0924 03:53:44.627238 11459 net.cpp:274] Network initialization done.
I0924 03:53:44.640698 11473 net.cpp:141] Setting up probs
I0924 03:53:44.640738 11473 net.cpp:148] Top shape: 1 1 46168 (46168)
I0924 03:53:44.640745 11473 net.cpp:156] Memory required for data: 405756
I0924 03:53:44.640753 11473 net.cpp:219] probs does not need backward computation.
I0924 03:53:44.640758 11473 net.cpp:219] predict does not need backward computation.
I0924 03:53:44.640763 11473 net.cpp:219] lstm2 does not need backward computation.
I0924 03:53:44.640772 11473 net.cpp:219] concat does not need backward computation.
I0924 03:53:44.640779 11473 net.cpp:219] lstm1 does not need backward computation.
I0924 03:53:44.640784 11473 net.cpp:219] embedding does not need backward computation.
I0924 03:53:44.640790 11473 net.cpp:219] reshape_stage_indicator does not need backward computation.
I0924 03:53:44.640795 11473 net.cpp:219] reshape_frames does not need backward computation.
I0924 03:53:44.640800 11473 net.cpp:219] embed_encoder does not need backward computation.
I0924 03:53:44.640807 11473 net.cpp:219] cont_sentence_input_1_split does not need backward computation.
I0924 03:53:44.640815 11473 net.cpp:219] input does not need backward computation.
I0924 03:53:44.640818 11473 net.cpp:261] This network produces output probs
I0924 03:53:44.640836 11473 net.cpp:274] Network initialization done.
I0924 03:53:44.641017 11505 net.cpp:141] Setting up probs
I0924 03:53:44.641053 11505 net.cpp:148] Top shape: 1 1 46168 (46168)
I0924 03:53:44.641058 11505 net.cpp:156] Memory required for data: 405756
I0924 03:53:44.641067 11505 net.cpp:219] probs does not need backward computation.
I0924 03:53:44.641073 11505 net.cpp:219] predict does not need backward computation.
I0924 03:53:44.641079 11505 net.cpp:219] lstm2 does not need backward computation.
I0924 03:53:44.641085 11505 net.cpp:219] concat does not need backward computation.
I0924 03:53:44.641091 11505 net.cpp:219] lstm1 does not need backward computation.
I0924 03:53:44.641098 11505 net.cpp:219] embedding does not need backward computation.
I0924 03:53:44.641103 11505 net.cpp:219] reshape_stage_indicator does not need backward computation.
I0924 03:53:44.641106 11505 net.cpp:219] reshape_frames does not need backward computation.
I0924 03:53:44.641111 11505 net.cpp:219] embed_encoder does not need backward computation.
I0924 03:53:44.641116 11505 net.cpp:219] cont_sentence_input_1_split does not need backward computation.
I0924 03:53:44.641122 11505 net.cpp:219] input does not need backward computation.
I0924 03:53:44.641125 11505 net.cpp:261] This network produces output probs
I0924 03:53:44.641443 11505 net.cpp:274] Network initialization done.
I0924 03:53:44.641559 11509 net.cpp:141] Setting up probs
I0924 03:53:44.641580 11509 net.cpp:148] Top shape: 1 1 46168 (46168)
I0924 03:53:44.641589 11509 net.cpp:156] Memory required for data: 405756
I0924 03:53:44.641595 11509 net.cpp:219] probs does not need backward computation.
I0924 03:53:44.641602 11509 net.cpp:219] predict does not need backward computation.
I0924 03:53:44.641607 11509 net.cpp:219] lstm2 does not need backward computation.
I0924 03:53:44.641613 11509 net.cpp:219] concat does not need backward computation.
I0924 03:53:44.641618 11509 net.cpp:219] lstm1 does not need backward computation.
I0924 03:53:44.641624 11509 net.cpp:219] embedding does not need backward computation.
I0924 03:53:44.641629 11509 net.cpp:219] reshape_stage_indicator does not need backward computation.
I0924 03:53:44.641635 11509 net.cpp:219] reshape_frames does not need backward computation.
I0924 03:53:44.641645 11509 net.cpp:219] embed_encoder does not need backward computation.
I0924 03:53:44.641654 11509 net.cpp:219] cont_sentence_input_1_split does not need backward computation.
I0924 03:53:44.641664 11509 net.cpp:219] input does not need backward computation.
I0924 03:53:44.641669 11509 net.cpp:261] This network produces output probs
I0924 03:53:44.641686 11509 net.cpp:274] Network initialization done.
I0924 03:53:44.643812 11455 net.cpp:141] Setting up probs
I0924 03:53:44.643832 11461 net.cpp:141] Setting up probs
I0924 03:53:44.643831 11497 net.cpp:141] Setting up probs
I0924 03:53:44.643854 11461 net.cpp:148] Top shape: 1 1 46168 (46168)
I0924 03:53:44.643862 11461 net.cpp:156] Memory required for data: 405756
I0924 03:53:44.643862 11455 net.cpp:148] Top shape: 1 1 46168 (46168)
I0924 03:53:44.643868 11461 net.cpp:219] probs does not need backward computation.
I0924 03:53:44.643874 11455 net.cpp:156] Memory required for data: 405756
I0924 03:53:44.643873 11479 net.cpp:141] Setting up probs
I0924 03:53:44.643892 11455 net.cpp:219] probs does not need backward computation.
I0924 03:53:44.643867 11497 net.cpp:148] Top shape: 1 1 46168 (46168)
I0924 03:53:44.643908 11455 net.cpp:219] predict does not need backward computation.
I0924 03:53:44.643882 11461 net.cpp:219] predict does not need backward computation.
I0924 03:53:44.643903 11479 net.cpp:148] Top shape: 1 1 46168 (46168)
I0924 03:53:44.643920 11497 net.cpp:156] Memory required for data: 405756
I0924 03:53:44.643931 11479 net.cpp:156] Memory required for data: 405756
I0924 03:53:44.643925 11461 net.cpp:219] lstm2 does not need backward computation.
I0924 03:53:44.643949 11479 net.cpp:219] probs does not need backward computation.
I0924 03:53:44.643923 11455 net.cpp:219] lstm2 does not need backward computation.
…
I0924 03:53:44.644352 11497 net.cpp:219] reshape_frames does not need backward computation.
I0924 03:53:44.644367 11497 net.cpp:219] embed_encoder does not need backward computation.
I0924 03:53:44.644378 11479 net.cpp:274] Network initialization done.
I0924 03:53:44.644379 11497 net.cpp:219] cont_sentence_input_1_split does not need backward computation.
I0924 03:53:44.644417 11497 net.cpp:219] input does not need backward computation.
I0924 03:53:44.644429 11497 net.cpp:261] This network produces output probs
I0924 03:53:44.644913 11497 net.cpp:274] Network initialization done.
I0924 03:53:44.645731 11481 net.cpp:141] Setting up conv1
I0924 03:53:44.646028 11481 net.cpp:148] Top shape: 10 96 55 55 (2904000)
I0924 03:53:44.646039 11481 net.cpp:156] Memory required for data: 17799480
I0924 03:53:44.646070 11481 layer_factory.hpp:77] Creating layer relu1
I0924 03:53:44.646095 11481 net.cpp:91] Creating Layer relu1
I0924 03:53:44.646106 11481 net.cpp:425] relu1 <- conv1
I0924 03:53:44.646119 11481 net.cpp:386] relu1 -> conv1 (in-place)
I0924 03:53:44.646540 11481 net.cpp:141] Setting up relu1
I0924 03:53:44.646559 11481 net.cpp:148] Top shape: 10 96 55 55 (2904000)
I0924 03:53:44.646569 11481 net.cpp:156] Memory required for data: 29415480
I0924 03:53:44.646577 11481 layer_factory.hpp:77] Creating layer pool1
I0924 03:53:44.646612 11481 net.cpp:91] Creating Layer pool1
I0924 03:53:44.646625 11481 net.cpp:425] pool1 <- conv1
I0924 03:53:44.646641 11481 net.cpp:399] pool1 -> pool1
I0924 03:53:44.646781 11481 net.cpp:141] Setting up pool1
I0924 03:53:44.646800 11481 net.cpp:148] Top shape: 10 96 27 27 (699840)
I0924 03:53:44.646809 11481 net.cpp:156] Memory required for data: 32214840
I0924 03:53:44.646822 11481 layer_factory.hpp:77] Creating layer norm1
I0924 03:53:44.646852 11481 net.cpp:91] Creating Layer norm1
I0924 03:53:44.646860 11481 net.cpp:425] norm1 <- pool1
I0924 03:53:44.646873 11481 net.cpp:399] norm1 -> norm1
I0924 03:53:44.647714 11481 net.cpp:141] Setting up norm1
I0924 03:53:44.647753 11481 net.cpp:148] Top shape: 10 96 27 27 (699840)
I0924 03:53:44.647768 11481 net.cpp:156] Memory required for data: 35014200
I0924 03:53:44.647786 11481 layer_factory.hpp:77] Creating layer conv2
I0924 03:53:44.647821 11481 net.cpp:91] Creating Layer conv2
I0924 03:53:44.647840 11481 net.cpp:425] conv2 <- norm1
I0924 03:53:44.647863 11481 net.cpp:399] conv2 -> conv2
I0924 03:53:44.680871 11481 net.cpp:141] Setting up conv2
I0924 03:53:44.680934 11481 net.cpp:148] Top shape: 10 256 27 27 (1866240)
I0924 03:53:44.680946 11481 net.cpp:156] Memory required for data: 42479160
I0924 03:53:44.680979 11481 layer_factory.hpp:77] Creating layer relu2
I0924 03:53:44.681004 11481 net.cpp:91] Creating Layer relu2
I0924 03:53:44.681015 11481 net.cpp:425] relu2 <- conv2
I0924 03:53:44.681812 11481 net.cpp:386] relu2 -> conv2 (in-place)
I0924 03:53:44.684005 11481 net.cpp:141] Setting up relu2
I0924 03:53:44.684062 11481 net.cpp:148] Top shape: 10 256 27 27 (1866240)
I0924 03:53:44.684073 11481 net.cpp:156] Memory required for data: 49944120
I0924 03:53:44.684085 11481 layer_factory.hpp:77] Creating layer pool2
I0924 03:53:44.684486 11481 net.cpp:91] Creating Layer pool2
I0924 03:53:44.684505 11481 net.cpp:425] pool2 <- conv2
I0924 03:53:44.684527 11481 net.cpp:399] pool2 -> pool2
I0924 03:53:44.685282 11481 net.cpp:141] Setting up pool2
I0924 03:53:44.685310 11481 net.cpp:148] Top shape: 10 256 13 13 (432640)
I0924 03:53:44.685319 11481 net.cpp:156] Memory required for data: 51674680
I0924 03:53:44.685333 11481 layer_factory.hpp:77] Creating layer norm2
I0924 03:53:44.685360 11481 net.cpp:91] Creating Layer norm2
I0924 03:53:44.685370 11481 net.cpp:425] norm2 <- pool2
I0924 03:53:44.685382 11481 net.cpp:399] norm2 -> norm2
I0924 03:53:44.686971 11481 net.cpp:141] Setting up norm2
I0924 03:53:44.687532 11481 net.cpp:148] Top shape: 10 256 13 13 (432640)
I0924 03:53:44.687551 11481 net.cpp:156] Memory required for data: 53405240
I0924 03:53:44.687564 11481 layer_factory.hpp:77] Creating layer conv3
I0924 03:53:44.687605 11481 net.cpp:91] Creating Layer conv3
I0924 03:53:44.687619 11481 net.cpp:425] conv3 <- norm2
I0924 03:53:44.687636 11481 net.cpp:399] conv3 -> conv3
I0924 03:53:44.711554 11481 net.cpp:141] Setting up conv3
I0924 03:53:44.711617 11481 net.cpp:148] Top shape: 10 384 13 13 (648960)
I0924 03:53:44.711627 11481 net.cpp:156] Memory required for data: 56001080
I0924 03:53:44.711663 11481 layer_factory.hpp:77] Creating layer relu3
I0924 03:53:44.711694 11481 net.cpp:91] Creating Layer relu3
I0924 03:53:44.711705 11481 net.cpp:425] relu3 <- conv3
I0924 03:53:44.712066 11481 net.cpp:386] relu3 -> conv3 (in-place)
I0924 03:53:44.714462 11481 net.cpp:141] Setting up relu3
I0924 03:53:44.714561 11481 net.cpp:148] Top shape: 10 384 13 13 (648960)
I0924 03:53:44.714581 11481 net.cpp:156] Memory required for data: 58596920
I0924 03:53:44.714618 11481 layer_factory.hpp:77] Creating layer conv4
I0924 03:53:44.715411 11481 net.cpp:91] Creating Layer conv4
I0924 03:53:44.715452 11481 net.cpp:425] conv4 <- conv3
I0924 03:53:44.715493 11481 net.cpp:399] conv4 -> conv4
I0924 03:53:44.733976 11481 net.cpp:141] Setting up conv4
I0924 03:53:44.734064 11481 net.cpp:148] Top shape: 10 384 13 13 (648960)
I0924 03:53:44.734078 11481 net.cpp:156] Memory required for data: 61192760
I0924 03:53:44.734107 11481 layer_factory.hpp:77] Creating layer relu4
I0924 03:53:44.734158 11481 net.cpp:91] Creating Layer relu4
I0924 03:53:44.734174 11481 net.cpp:425] relu4 <- conv4
I0924 03:53:44.734194 11481 net.cpp:386] relu4 -> conv4 (in-place)
I0924 03:53:44.735404 11481 net.cpp:141] Setting up relu4
I0924 03:53:44.735472 11481 net.cpp:148] Top shape: 10 384 13 13 (648960)
I0924 03:53:44.735486 11481 net.cpp:156] Memory required for data: 63788600
I0924 03:53:44.735501 11481 layer_factory.hpp:77] Creating layer conv5
I0924 03:53:44.735549 11481 net.cpp:91] Creating Layer conv5
I0924 03:53:44.735565 11481 net.cpp:425] conv5 <- conv4
I0924 03:53:44.735594 11481 net.cpp:399] conv5 -> conv5
I0924 03:53:44.744491 11481 net.cpp:141] Setting up conv5
I0924 03:53:44.744571 11481 net.cpp:148] Top shape: 10 256 13 13 (432640)
I0924 03:53:44.744585 11481 net.cpp:156] Memory required for data: 65519160
I0924 03:53:44.744632 11481 layer_factory.hpp:77] Creating layer relu5
I0924 03:53:44.744695 11481 net.cpp:91] Creating Layer relu5
I0924 03:53:44.744714 11481 net.cpp:425] relu5 <- conv5
I0924 03:53:44.744734 11481 net.cpp:386] relu5 -> conv5 (in-place)
I0924 03:53:44.746322 11481 net.cpp:141] Setting up relu5
I0924 03:53:44.746400 11481 net.cpp:148] Top shape: 10 256 13 13 (432640)
I0924 03:53:44.746412 11481 net.cpp:156] Memory required for data: 67249720
I0924 03:53:44.746431 11481 layer_factory.hpp:77] Creating layer pool5
I0924 03:53:44.746476 11481 net.cpp:91] Creating Layer pool5
I0924 03:53:44.746495 11481 net.cpp:425] pool5 <- conv5
I0924 03:53:44.746516 11481 net.cpp:399] pool5 -> pool5
I0924 03:53:44.746784 11481 net.cpp:141] Setting up pool5
I0924 03:53:44.746809 11481 net.cpp:148] Top shape: 10 256 6 6 (92160)
I0924 03:53:44.746819 11481 net.cpp:156] Memory required for data: 67618360
I0924 03:53:44.746827 11481 layer_factory.hpp:77] Creating layer fc6
I0924 03:53:44.746860 11481 net.cpp:91] Creating Layer fc6
I0924 03:53:44.746870 11481 net.cpp:425] fc6 <- pool5
I0924 03:53:44.746886 11481 net.cpp:399] fc6 -> fc6
I0924 03:53:44.823591 11465 net.cpp:141] Setting up predict
I0924 03:53:44.823655 11465 net.cpp:148] Top shape: 1 1 46168 (46168)
I0924 03:53:44.823662 11465 net.cpp:156] Memory required for data: 221084
I0924 03:53:44.823679 11465 layer_factory.hpp:77] Creating layer probs
I0924 03:53:44.823705 11465 net.cpp:91] Creating Layer probs
I0924 03:53:44.823719 11465 net.cpp:425] probs <- predict
I0924 03:53:44.823734 11465 net.cpp:399] probs -> probs
I0924 03:53:44.825474 11465 net.cpp:141] Setting up probs
I0924 03:53:44.825568 11465 net.cpp:148] Top shape: 1 1 46168 (46168)
I0924 03:53:44.825579 11465 net.cpp:156] Memory required for data: 405756
I0924 03:53:44.825598 11465 net.cpp:219] probs does not need backward computation.
I0924 03:53:44.825614 11465 net.cpp:219] predict does not need backward computation.
I0924 03:53:44.825625 11465 net.cpp:219] lstm2 does not need backward computation.
I0924 03:53:44.825639 11465 net.cpp:219] concat does not need backward computation.
I0924 03:53:44.825652 11465 net.cpp:219] lstm1 does not need backward computation.
I0924 03:53:44.825670 11465 net.cpp:219] embedding does not need backward computation.
I0924 03:53:44.825681 11465 net.cpp:219] reshape_stage_indicator does not need backward computation.
I0924 03:53:44.825691 11465 net.cpp:219] reshape_frames does not need backward computation.
I0924 03:53:44.825705 11465 net.cpp:219] embed_encoder does not need backward computation.
I0924 03:53:44.825716 11465 net.cpp:219] cont_sentence_input_1_split does not need backward computation.
I0924 03:53:44.825729 11465 net.cpp:219] input does not need backward computation.
I0924 03:53:44.825737 11465 net.cpp:261] This network produces output probs
I0924 03:53:44.825772 11465 net.cpp:274] Network initialization done.
I0924 03:53:44.878727 11481 net.cpp:141] Setting up fc6
I0924 03:53:44.878795 11481 net.cpp:148] Top shape: 10 4096 (40960)
I0924 03:53:44.878805 11481 net.cpp:156] Memory required for data: 67782200
I0924 03:53:44.878831 11481 layer_factory.hpp:77] Creating layer relu6
I0924 03:53:44.878857 11481 net.cpp:91] Creating Layer relu6
I0924 03:53:44.878867 11481 net.cpp:425] relu6 <- fc6
I0924 03:53:44.878885 11481 net.cpp:386] relu6 -> fc6 (in-place)
I0924 03:53:44.881489 11481 net.cpp:141] Setting up relu6
I0924 03:53:44.881569 11481 net.cpp:148] Top shape: 10 4096 (40960)
I0924 03:53:44.881582 11481 net.cpp:156] Memory required for data: 67946040
I0924 03:53:44.881599 11481 layer_factory.hpp:77] Creating layer drop6
I0924 03:53:44.881646 11481 net.cpp:91] Creating Layer drop6
I0924 03:53:44.881660 11481 net.cpp:425] drop6 <- fc6
I0924 03:53:44.883553 11481 net.cpp:386] drop6 -> fc6 (in-place)
I0924 03:53:44.883796 11481 net.cpp:141] Setting up drop6
I0924 03:53:44.883818 11481 net.cpp:148] Top shape: 10 4096 (40960)
I0924 03:53:44.883826 11481 net.cpp:156] Memory required for data: 68109880
I0924 03:53:44.883836 11481 layer_factory.hpp:77] Creating layer fc7
I0924 03:53:44.883858 11481 net.cpp:91] Creating Layer fc7
I0924 03:53:44.883864 11481 net.cpp:425] fc7 <- fc6
I0924 03:53:44.883877 11481 net.cpp:399] fc7 -> fc7
I0924 03:53:44.940057 11481 net.cpp:141] Setting up fc7
I0924 03:53:44.940125 11481 net.cpp:148] Top shape: 10 4096 (40960)
I0924 03:53:44.940136 11481 net.cpp:156] Memory required for data: 68273720
I0924 03:53:44.940165 11481 layer_factory.hpp:77] Creating layer relu7
I0924 03:53:44.940604 11481 net.cpp:91] Creating Layer relu7
I0924 03:53:44.940628 11481 net.cpp:425] relu7 <- fc7
I0924 03:53:44.940645 11481 net.cpp:386] relu7 -> fc7 (in-place)
I0924 03:53:44.943279 11481 net.cpp:141] Setting up relu7
I0924 03:53:44.943339 11481 net.cpp:148] Top shape: 10 4096 (40960)
I0924 03:53:44.943348 11481 net.cpp:156] Memory required for data: 68437560
I0924 03:53:44.943361 11481 layer_factory.hpp:77] Creating layer drop7
I0924 03:53:44.944429 11481 net.cpp:91] Creating Layer drop7
I0924 03:53:44.944460 11481 net.cpp:425] drop7 <- fc7
I0924 03:53:44.944478 11481 net.cpp:386] drop7 -> fc7 (in-place)
I0924 03:53:44.944646 11481 net.cpp:141] Setting up drop7
I0924 03:53:44.944665 11481 net.cpp:148] Top shape: 10 4096 (40960)
I0924 03:53:44.944674 11481 net.cpp:156] Memory required for data: 68601400
I0924 03:53:44.944682 11481 layer_factory.hpp:77] Creating layer fc8
I0924 03:53:44.944700 11481 net.cpp:91] Creating Layer fc8
I0924 03:53:44.944707 11481 net.cpp:425] fc8 <- fc7
I0924 03:53:44.945408 11481 net.cpp:399] fc8 -> fc8
I0924 03:53:44.965427 11481 net.cpp:141] Setting up fc8
I0924 03:53:44.965502 11481 net.cpp:148] Top shape: 10 1000 (10000)
I0924 03:53:44.965513 11481 net.cpp:156] Memory required for data: 68641400
I0924 03:53:44.965538 11481 layer_factory.hpp:77] Creating layer prob
I0924 03:53:44.965565 11481 net.cpp:91] Creating Layer prob
I0924 03:53:44.965576 11481 net.cpp:425] prob <- fc8
I0924 03:53:44.965592 11481 net.cpp:399] prob -> prob
I0924 03:53:44.974642 11481 net.cpp:141] Setting up prob
I0924 03:53:44.974715 11481 net.cpp:148] Top shape: 10 1000 (10000)
I0924 03:53:44.974727 11481 net.cpp:156] Memory required for data: 68681400
I0924 03:53:44.974741 11481 net.cpp:219] prob does not need backward computation.
I0924 03:53:44.974755 11481 net.cpp:219] fc8 does not need backward computation.
I0924 03:53:44.974763 11481 net.cpp:219] drop7 does not need backward computation.
I0924 03:53:44.974773 11481 net.cpp:219] relu7 does not need backward computation.
…
