…
Java HotSpot(TM) 64-Bit Server VM warning: You have loaded library /tmp/cvld8040941466256898472/libopencv_java310.xine1.so which might have disabled stack guard. The VM will try to fix the stack guard now.
It's highly recommended that you fix the library with 'execstack -c <libfile>', or link it with '-z noexecstack'.
WARNING: Logging before InitGoogleLogging() is written to STDERR
I0714 20:30:52.081157 29565 net.cpp:49] Initializing net from parameters: 
name: "GoogleNet"
state {
  phase: TEST
}
layer {
  name: "data"
  type: "Input"
  top: "data"
  input_param {
    shape {
      dim: 10
      dim: 3
      dim: 224
      dim: 224
    }
  }
}
layer {
  name: "conv1/7x7_s2"
  type: "Convolution"
  bottom: "data"
  top: "conv1/7x7_s2"
  param {
    lr_mult: 1
    decay_mult: 1
  }
  param {
    lr_mult: 2
    decay_mult: 0
  }
  convolution_param {
    num_output: 64
    pad: 3
    kernel_size: 7
    stride: 2
    weight_filler {
      type: "xavier"
      std: 0.1
    }
    bias_filler {
      type: "constant"
      value: 0.2
    }
  }
}
layer {
  name: "conv1/relu_7x7"
  type: "ReLU"
  bottom: "conv1/7x7_s2"
  top: "conv1/7x7_s2"
}
layer {
  name: "pool1/3x3_s2"
  type: "Pooling"
  bottom: "conv1/7x7_s2"
  top: "pool1/3x3_s2"
  pooling_param {
    pool: MAX
    kernel_size: 3
    stride: 2
  }
}
layer {
  name: "pool1/norm1"
  type: "LRN"
  bottom: "pool1/3x3_s2"
  top: "pool1/norm1"
  lrn_param {
    local_size: 5
    alpha: 0.0001
    beta: 0.75
  }
}
layer {
  name: "conv2/3x3_reduce"
  type: "Convolution"
  bottom: "pool1/norm1"
  top: "conv2/3x3_reduce"
  param {
    lr_mult: 1
    decay_mult: 1
  }
  param {
    lr_mult: 2
    decay_mult: 0
  }
  convolution_param {
    num_output: 64
    kernel_size: 1
    weight_filler {
      type: "xavier"
      std: 0.1
    }
    bias_filler {
      type: "constant"
      value: 0.2
    }
  }
}
layer {
  name: "conv2/relu_3x3_reduce"
  type: "ReLU"
  bottom: "conv2/3x3_reduce"
  top: "conv2/3x3_reduce"
}
layer {
  name: "conv2/3x3"
  type: "Convolution"
  bottom: "conv2/3x3_reduce"
  top: "conv2/3x3"
  param {
    lr_mult: 1
    decay_mult: 1
  }
  param {
    lr_mult: 2
    decay_mult: 0
  }
  convolution_param {
    num_output: 192
    pad: 1
    kernel_size: 3
    weight_filler {
      type: "xavier"
      std: 0.03
    }
    bias_filler {
      type: "constant"
      value: 0.2
    }
  }
}
layer {
  name: "conv2/relu_3x3"
  type: "ReLU"
  bottom: "conv2/3x3"
  top: "conv2/3x3"
}
layer {
  name: "conv2/norm2"
  type: "LRN"
  bottom: "conv2/3x3"
  top: "conv2/norm2"
  lrn_param {
    local_size: 5
    alpha: 0.0001
    beta: 0.75
  }
}
layer {
  name: "pool2/3x3_s2"
  type: "Pooling"
  bottom: "conv2/norm2"
  top: "pool2/3x3_s2"
  pooling_param {
    pool: MAX
    kernel_size: 3
    stride: 2
  }
}
layer {
  name: "inception_3a/1x1"
  type: "Convolution"
  bottom: "pool2/3x3_s2"
  top: "inception_3a/1x1"
  param {
    lr_mult: 1
    decay_mult: 1
  }
  param {
    lr_mult: 2
    decay_mult: 0
  }
  convolution_param {
    num_output: 64
    kernel_size: 1
    weight_filler {
      type: "xavier"
      std: 0.03
    }
    bias_filler {
      type: "constant"
      value: 0.2
    }
  }
}
layer {
  name: "inception_3a/relu_1x1"
  type: "ReLU"
  bottom: "inception_3a/1x1"
  top: "inception_3a/1x1"
}
layer {
  name: "inception_3a/3x3_reduce"
  type: "Convolution"
  bottom: "pool2/3x3_s2"
  top: "inception_3a/3x3_reduce"
  param {
    lr_mult: 1
    decay_mult: 1
  }
  param {
    lr_mult: 2
    decay_mult: 0
  }
  convolution_param {
    num_output: 96
    kernel_size: 1
    weight_filler {
      type: "xavier"
      std: 0.09
    }
    bias_filler {
      type: "constant"
      value: 0.2
    }
  }
}
layer {
  name: "inception_3a/relu_3x3_reduce"
  type: "ReLU"
  bottom: "inception_3a/3x3_reduce"
  top: "inception_3a/3x3_reduce"
}
layer {
  name: "inception_3a/3x3"
  type: "Convolution"
  bottom: "inception_3a/3x3_reduce"
  top: "inception_3a/3x3"
  param {
    lr_mult: 1
    decay_mult: 1
  }
  param {
    lr_mult: 2
    decay_mult: 0
  }
  convolution_param {
    num_output: 128
    pad: 1
    kernel_size: 3
    weight_filler {
      type: "xavier"
      std: 0.03
    }
    bias_filler {
      type: "constant"
      value: 0.2
    }
  }
}
layer {
  name: "inception_3a/relu_3x3"
  type: "ReLU"
  bottom: "inception_3a/3x3"
  top: "inception_3a/3x3"
}
layer {
  name: "inception_3a/5x5_reduce"
  type: "Convolution"
  bottom: "pool2/3x3_s2"
  top: "inception_3a/5x5_reduce"
  param {
    lr_mult: 1
    decay_mult: 1
  }
  param {
    lr_mult: 2
    decay_mult: 0
  }
  convolution_param {
    num_output: 16
    kernel_size: 1
    weight_filler {
      type: "xavier"
      std: 0.2
    }
    bias_filler {
      type: "constant"
      value: 0.2
    }
  }
}
layer {
  name: "inception_3a/relu_5x5_reduce"
  type: "ReLU"
  bottom: "inception_3a/5x5_reduce"
  top: "inception_3a/5x5_reduce"
}
layer {
  name: "inception_3a/5x5"
  type: "Convolution"
  bottom: "inception_3a/5x5_reduce"
  top: "inception_3a/5x5"
  param {
    lr_mult: 1
    decay_mult: 1
  }
  param {
    lr_mult: 2
    decay_mult: 0
  }
  convolution_param {
    num_output: 32
    pad: 2
    kernel_size: 5
    weight_filler {
      type: "xavier"
      std: 0.03
    }
    bias_filler {
      type: "constant"
      value: 0.2
    }
  }
}
layer {
  name: "inception_3a/relu_5x5"
  type: "ReLU"
  bottom: "inception_3a/5x5"
  top: "inception_3a/5x5"
}
layer {
  name: "inception_3a/pool"
  type: "Pooling"
  bottom: "pool2/3x3_s2"
  top: "inception_3a/pool"
  pooling_param {
    pool: MAX
    kernel_size: 3
    stride: 1
    pad: 1
  }
}
layer {
  name: "inception_3a/pool_proj"
  type: "Convolution"
  bottom: "inception_3a/pool"
  top: "inception_3a/pool_proj"
  param {
    lr_mult: 1
    decay_mult: 1
  }
  param {
    lr_mult: 2
    decay_mult: 0
  }
  convolution_param {
    num_output: 32
    kernel_size: 1
    weight_filler {
      type: "xavier"
      std: 0.1
    }
    bias_filler {
      type: "constant"
      value: 0.2
    }
  }
}
layer {
  name: "inception_3a/relu_pool_proj"
  type: "ReLU"
  bottom: "inception_3a/pool_proj"
  top: "inception_3a/pool_proj"
}
layer {
  name: "inception_3a/output"
  type: "Concat"
  bottom: "inception_3a/1x1"
  bottom: "inception_3a/3x3"
  bottom: "inception_3a/5x5"
  bottom: "inception_3a/pool_proj"
  top: "inception_3a/output"
}
layer {
  name: "inception_3b/1x1"
  type: "Convolution"
  bottom: "inception_3a/output"
  top: "inception_3b/1x1"
  param {
    lr_mult: 1
    decay_mult: 1
  }
  param {
    lr_mult: 2
    decay_mult: 0
  }
  convolution_param {
    num_output: 128
    kernel_size: 1
    weight_filler {
      type: "xavier"
      std: 0.03
    }
    bias_filler {
      type: "constant"
      value: 0.2
    }
  }
}
layer {
  name: "inception_3b/relu_1x1"
  type: "ReLU"
  bottom: "inception_3b/1x1"
  top: "inception_3b/1x1"
}
layer {
  name: "inception_3b/3x3_reduce"
  type: "Convolution"
  bottom: "inception_3a/output"
  top: "inception_3b/3x3_reduce"
  param {
    lr_mult: 1
    decay_mult: 1
  }
  param {
    lr_mult: 2
    decay_mult: 0
  }
  convolution_param {
    num_output: 128
    kernel_size: 1
    weight_filler {
      type: "xavier"
      std: 0.09
    }
    bias_filler {
      type: "constant"
      value: 0.2
    }
  }
}
layer {
  name: "inception_3b/relu_3x3_reduce"
  type: "ReLU"
  bottom: "inception_3b/3x3_reduce"
  top: "inception_3b/3x3_reduce"
}
layer {
  name: "inception_3b/3x3"
  type: "Convolution"
  bottom: "inception_3b/3x3_reduce"
  top: "inception_3b/3x3"
  param {
    lr_mult: 1
    decay_mult: 1
  }
  param {
    lr_mult: 2
    decay_mult: 0
  }
  convolution_param {
    num_output: 192
    pad: 1
    kernel_size: 3
    weight_filler {
      type: "xavier"
      std: 0.03
    }
    bias_filler {
      type: "constant"
      value: 0.2
    }
  }
}
layer {
  name: "inception_3b/relu_3x3"
  type: "ReLU"
  bottom: "inception_3b/3x3"
  top: "inception_3b/3x3"
}
layer {
  name: "inception_3b/5x5_reduce"
  type: "Convolution"
  bottom: "inception_3a/output"
  top: "inception_3b/5x5_reduce"
  param {
    lr_mult: 1
    decay_mult: 1
  }
  param {
    lr_mult: 2
    decay_mult: 0
  }
  convolution_param {
    num_output: 32
    kernel_size: 1
    weight_filler {
      type: "xavier"
      std: 0.2
    }
    bias_filler {
      type: "constant"
      value: 0.2
    }
  }
}
layer {
  name: "inception_3b/relu_5x5_reduce"
  type: "ReLU"
  bottom: "inception_3b/5x5_reduce"
  top: "inception_3b/5x5_reduce"
}
layer {
  name: "inception_3b/5x5"
  type: "Convolution"
  bottom: "inception_3b/5x5_reduce"
  top: "inception_3b/5x5"
  param {
    lr_mult: 1
    decay_mult: 1
  }
  param {
    lr_mult: 2
    decay_mult: 0
  }
  convolution_param {
    num_output: 96
    pad: 2
    kernel_size: 5
    weight_filler {
      type: "xavier"
      std: 0.03
    }
    bias_filler {
      type: "constant"
      value: 0.2
    }
  }
}
layer {
  name: "inception_3b/relu_5x5"
  type: "ReLU"
  bottom: "inception_3b/5x5"
  top: "inception_3b/5x5"
}
layer {
  name: "inception_3b/pool"
  type: "Pooling"
  bottom: "inception_3a/output"
  top: "inception_3b/pool"
  pooling_param {
    pool: MAX
    kernel_size: 3
    stride: 1
    pad: 1
  }
}
layer {
  name: "inception_3b/pool_proj"
  type: "Convolution"
  bottom: "inception_3b/pool"
  top: "inception_3b/pool_proj"
  param {
    lr_mult: 1
    decay_mult: 1
  }
  param {
    lr_mult: 2
    decay_mult: 0
  }
  convolution_param {
    num_output: 64
    kernel_size: 1
    weight_filler {
      type: "xavier"
      std: 0.1
    }
    bias_filler {
      type: "constant"
      value: 0.2
    }
  }
}
layer {
  name: "inception_3b/relu_pool_proj"
  type: "ReLU"
  bottom: "inception_3b/pool_proj"
  top: "inception_3b/pool_proj"
}
layer {
  name: "inception_3b/output"
  type: "Concat"
  bottom: "inception_3b/1x1"
  bottom: "inception_3b/3x3"
  bottom: "inception_3b/5x5"
  bottom: "inception_3b/pool_proj"
  top: "inception_3b/output"
}
layer {
  name: "pool3/3x3_s2"
  type: "Pooling"
  bottom: "inception_3b/output"
  top: "pool3/3x3_s2"
  pooling_param {
    pool: MAX
    kernel_size: 3
    stride: 2
  }
}
layer {
  name: "inception_4a/1x1"
  type: "Convolution"
  bottom: "pool3/3x3_s2"
  top: "inception_4a/1x1"
  param {
    lr_mult: 1
    decay_mult: 1
  }
  param {
    lr_mult: 2
    decay_mult: 0
  }
  convolution_param {
    num_output: 192
    kernel_size: 1
    weight_filler {
      type: "xavier"
      std: 0.03
    }
    bias_filler {
      type: "constant"
      value: 0.2
    }
  }
}
layer {
  name: "inception_4a/relu_1x1"
  type: "ReLU"
  bottom: "inception_4a/1x1"
  top: "inception_4a/1x1"
}
layer {
  name: "inception_4a/3x3_reduce"
  type: "Convolution"
  bottom: "pool3/3x3_s2"
  top: "inception_4a/3x3_reduce"
  param {
    lr_mult: 1
    decay_mult: 1
  }
  param {
    lr_mult: 2
    decay_mult: 0
  }
  convolution_param {
    num_output: 96
    kernel_size: 1
    weight_filler {
      type: "xavier"
      std: 0.09
    }
    bias_filler {
      type: "constant"
      value: 0.2
    }
  }
}
layer {
  name: "inception_4a/relu_3x3_reduce"
  type: "ReLU"
  bottom: "inception_4a/3x3_reduce"
  top: "inception_4a/3x3_reduce"
}
layer {
  name: "inception_4a/3x3"
  type: "Convolution"
  bottom: "inception_4a/3x3_reduce"
  top: "inception_4a/3x3"
  param {
    lr_mult: 1
    decay_mult: 1
  }
  param {
    lr_mult: 2
    decay_mult: 0
  }
  convolution_param {
    num_output: 208
    pad: 1
    kernel_size: 3
    weight_filler {
      type: "xavier"
      std: 0.03
    }
    bias_filler {
      type: "constant"
      value: 0.2
    }
  }
}
layer {
  name: "inception_4a/relu_3x3"
  type: "ReLU"
  bottom: "inception_4a/3x3"
  top: "inception_4a/3x3"
}
layer {
  name: "inception_4a/5x5_reduce"
  type: "Convolution"
  bottom: "pool3/3x3_s2"
  top: "inception_4a/5x5_reduce"
  param {
    lr_mult: 1
    decay_mult: 1
  }
  param {
    lr_mult: 2
    decay_mult: 0
  }
  convolution_param {
    num_output: 16
    kernel_size: 1
    weight_filler {
      type: "xavier"
      std: 0.2
    }
    bias_filler {
      type: "constant"
      value: 0.2
    }
  }
}
layer {
  name: "inception_4a/relu_5x5_reduce"
  type: "ReLU"
  bottom: "inception_4a/5x5_reduce"
  top: "inception_4a/5x5_reduce"
}
layer {
  name: "inception_4a/5x5"
  type: "Convolution"
  bottom: "inception_4a/5x5_reduce"
  top: "inception_4a/5x5"
  param {
    lr_mult: 1
    decay_mult: 1
  }
  param {
    lr_mult: 2
    decay_mult: 0
  }
  convolution_param {
    num_output: 48
    pad: 2
    kernel_size: 5
    weight_filler {
      type: "xavier"
      std: 0.03
    }
    bias_filler {
      type: "constant"
      value: 0.2
    }
  }
}
layer {
  name: "inception_4a/relu_5x5"
  type: "ReLU"
  bottom: "inception_4a/5x5"
  top: "inception_4a/5x5"
}
layer {
  name: "inception_4a/pool"
  type: "Pooling"
  bottom: "pool3/3x3_s2"
  top: "inception_4a/pool"
  pooling_param {
    pool: MAX
    kernel_size: 3
    stride: 1
    pad: 1
  }
}
layer {
  name: "inception_4a/pool_proj"
  type: "Convolution"
  bottom: "inception_4a/pool"
  top: "inception_4a/pool_proj"
  param {
    lr_mult: 1
    decay_mult: 1
  }
  param {
    lr_mult: 2
    decay_mult: 0
  }
  convolution_param {
    num_output: 64
    kernel_size: 1
    weight_filler {
      type: "xavier"
      std: 0.1
    }
    bias_filler {
      type: "constant"
      value: 0.2
    }
  }
}
layer {
  name: "inception_4a/relu_pool_proj"
  type: "ReLU"
  bottom: "inception_4a/pool_proj"
  top: "inception_4a/pool_proj"
}
layer {
  name: "inception_4a/output"
  type: "Concat"
  bottom: "inception_4a/1x1"
  bottom: "inception_4a/3x3"
  bottom: "inception_4a/5x5"
  bottom: "inception_4a/pool_proj"
  top: "inception_4a/output"
}
layer {
  name: "inception_4b/1x1"
  type: "Convolution"
  bottom: "inception_4a/output"
  top: "inception_4b/1x1"
  param {
    lr_mult: 1
    decay_mult: 1
  }
  param {
    lr_mult: 2
    decay_mult: 0
  }
  convolution_param {
    num_output: 160
    kernel_size: 1
    weight_filler {
      type: "xavier"
      std: 0.03
    }
    bias_filler {
      type: "constant"
      value: 0.2
    }
  }
}
layer {
  name: "inception_4b/relu_1x1"
  type: "ReLU"
  bottom: "inception_4b/1x1"
  top: "inception_4b/1x1"
}
layer {
  name: "inception_4b/3x3_reduce"
  type: "Convolution"
  bottom: "inception_4a/output"
  top: "inception_4b/3x3_reduce"
  param {
    lr_mult: 1
    decay_mult: 1
  }
  param {
    lr_mult: 2
    decay_mult: 0
  }
  convolution_param {
    num_output: 112
    kernel_size: 1
    weight_filler {
      type: "xavier"
      std: 0.09
    }
    bias_filler {
      type: "constant"
      value: 0.2
    }
  }
}
layer {
  name: "inception_4b/relu_3x3_reduce"
  type: "ReLU"
  bottom: "inception_4b/3x3_reduce"
  top: "inception_4b/3x3_reduce"
}
layer {
  name: "inception_4b/3x3"
  type: "Convolution"
  bottom: "inception_4b/3x3_reduce"
  top: "inception_4b/3x3"
  param {
    lr_mult: 1
    decay_mult: 1
  }
  param {
    lr_mult: 2
    decay_mult: 0
  }
  convolution_param {
    num_output: 224
    pad: 1
    kernel_size: 3
    weight_filler {
      type: "xavier"
      std: 0.03
    }
    bias_filler {
      type: "constant"
      value: 0.2
    }
  }
}
layer {
  name: "inception_4b/relu_3x3"
  type: "ReLU"
  bottom: "inception_4b/3x3"
  top: "inception_4b/3x3"
}
layer {
  name: "inception_4b/5x5_reduce"
  type: "Convolution"
  bottom: "inception_4a/output"
  top: "inception_4b/5x5_reduce"
  param {
    lr_mult: 1
    decay_mult: 1
  }
  param {
    lr_mult: 2
    decay_mult: 0
  }
  convolution_param {
    num_output: 24
    kernel_size: 1
    weight_filler {
      type: "xavier"
      std: 0.2
    }
    bias_filler {
      type: "constant"
      value: 0.2
    }
  }
}
layer {
  name: "inception_4b/relu_5x5_reduce"
  type: "ReLU"
  bottom: "inception_4b/5x5_reduce"
  top: "inception_4b/5x5_reduce"
}
layer {
  name: "inception_4b/5x5"
  type: "Convolution"
  bottom: "inception_4b/5x5_reduce"
  top: "inception_4b/5x5"
  param {
    lr_mult: 1
    decay_mult: 1
  }
  param {
    lr_mult: 2
    decay_mult: 0
  }
  convolution_param {
    num_output: 64
    pad: 2
    kernel_size: 5
    weight_filler {
      type: "xavier"
      std: 0.03
    }
    bias_filler {
      type: "constant"
      value: 0.2
    }
  }
}
layer {
  name: "inception_4b/relu_5x5"
  type: "ReLU"
  bottom: "inception_4b/5x5"
  top: "inception_4b/5x5"
}
layer {
  name: "inception_4b/pool"
  type: "Pooling"
  bottom: "inception_4a/output"
  top: "inception_4b/pool"
  pooling_param {
    pool: MAX
    kernel_size: 3
    stride: 1
    pad: 1
  }
}
layer {
  name: "inception_4b/pool_proj"
  type: "Convolution"
  bottom: "inception_4b/pool"
  top: "inception_4b/pool_proj"
  param {
    lr_mult: 1
    decay_mult: 1
  }
  param {
    lr_mult: 2
    decay_mult: 0
  }
  convolution_param {
    num_output: 64
    kernel_size: 1
    weight_filler {
      type: "xavier"
      std: 0.1
    }
    bias_filler {
      type: "constant"
      value: 0.2
    }
  }
}
layer {
  name: "inception_4b/relu_pool_proj"
  type: "ReLU"
  bottom: "inception_4b/pool_proj"
  top: "inception_4b/pool_proj"
}
layer {
  name: "inception_4b/output"
  type: "Concat"
  bottom: "inception_4b/1x1"
  bottom: "inception_4b/3x3"
  bottom: "inception_4b/5x5"
  bottom: "inception_4b/pool_proj"
  top: "inception_4b/output"
}
layer {
  name: "inception_4c/1x1"
  type: "Convolution"
  bottom: "inception_4b/output"
  top: "inception_4c/1x1"
  param {
    lr_mult: 1
    decay_mult: 1
  }
  param {
    lr_mult: 2
    decay_mult: 0
  }
  convolution_param {
    num_output: 128
    kernel_size: 1
    weight_filler {
      type: "xavier"
      std: 0.03
    }
    bias_filler {
      type: "constant"
      value: 0.2
    }
  }
}
layer {
  name: "inception_4c/relu_1x1"
  type: "ReLU"
  bottom: "inception_4c/1x1"
  top: "inception_4c/1x1"
}
layer {
  name: "inception_4c/3x3_reduce"
  type: "Convolution"
  bottom: "inception_4b/output"
  top: "inception_4c/3x3_reduce"
  param {
    lr_mult: 1
    decay_mult: 1
  }
  param {
    lr_mult: 2
    decay_mult: 0
  }
  convolution_param {
    num_output: 128
    kernel_size: 1
    weight_filler {
      type: "xavier"
      std: 0.09
    }
    bias_filler {
      type: "constant"
      value: 0.2
    }
  }
}
layer {
  name: "inception_4c/relu_3x3_reduce"
  type: "ReLU"
  bottom: "inception_4c/3x3_reduce"
  top: "inception_4c/3x3_reduce"
}
layer {
  name: "inception_4c/3x3"
  type: "Convolution"
  bottom: "inception_4c/3x3_reduce"
  top: "inception_4c/3x3"
  param {
    lr_mult: 1
    decay_mult: 1
  }
  param {
    lr_mult: 2
    decay_mult: 0
  }
  convolution_param {
    num_output: 256
    pad: 1
    kernel_size: 3
    weight_filler {
      type: "xavier"
      std: 0.03
    }
    bias_filler {
      type: "constant"
      value: 0.2
    }
  }
}
layer {
  name: "inception_4c/relu_3x3"
  type: "ReLU"
  bottom: "inception_4c/3x3"
  top: "inception_4c/3x3"
}
layer {
  name: "inception_4c/5x5_reduce"
  type: "Convolution"
  bottom: "inception_4b/output"
  top: "inception_4c/5x5_reduce"
  param {
    lr_mult: 1
    decay_mult: 1
  }
  param {
    lr_mult: 2
    decay_mult: 0
  }
  convolution_param {
    num_output: 24
    kernel_size: 1
    weight_filler {
      type: "xavier"
      std: 0.2
    }
    bias_filler {
      type: "constant"
      value: 0.2
    }
  }
}
layer {
  name: "inception_4c/relu_5x5_reduce"
  type: "ReLU"
  bottom: "inception_4c/5x5_reduce"
  top: "inception_4c/5x5_reduce"
}
layer {
  name: "inception_4c/5x5"
  type: "Convolution"
  bottom: "inception_4c/5x5_reduce"
  top: "inception_4c/5x5"
  param {
    lr_mult: 1
    decay_mult: 1
  }
  param {
    lr_mult: 2
    decay_mult: 0
  }
  convolution_param {
    num_output: 64
    pad: 2
    kernel_size: 5
    weight_filler {
      type: "xavier"
      std: 0.03
    }
    bias_filler {
      type: "constant"
      value: 0.2
    }
  }
}
layer {
  name: "inception_4c/relu_5x5"
  type: "ReLU"
  bottom: "inception_4c/5x5"
  top: "inception_4c/5x5"
}
layer {
  name: "inception_4c/pool"
  type: "Pooling"
  bottom: "inception_4b/output"
  top: "inception_4c/pool"
  pooling_param {
    pool: MAX
    kernel_size: 3
    stride: 1
    pad: 1
  }
}
layer {
  name: "inception_4c/pool_proj"
  type: "Convolution"
  bottom: "inception_4c/pool"
  top: "inception_4c/pool_proj"
  param {
    lr_mult: 1
    decay_mult: 1
  }
  param {
    lr_mult: 2
    decay_mult: 0
  }
  convolution_param {
    num_output: 64
    kernel_size: 1
    weight_filler {
      type: "xavier"
      std: 0.1
    }
    bias_filler {
      type: "constant"
      value: 0.2
    }
  }
}
layer {
  name: "inception_4c/relu_pool_proj"
  type: "ReLU"
  bottom: "inception_4c/pool_proj"
  top: "inception_4c/pool_proj"
}
layer {
  name: "inception_4c/output"
  type: "Concat"
  bottom: "inception_4c/1x1"
  bottom: "inception_4c/3x3"
  bottom: "inception_4c/5x5"
  bottom: "inception_4c/pool_proj"
  top: "inception_4c/output"
}
layer {
  name: "inception_4d/1x1"
  type: "Convolution"
  bottom: "inception_4c/output"
  top: "inception_4d/1x1"
  param {
    lr_mult: 1
    decay_mult: 1
  }
  param {
    lr_mult: 2
    decay_mult: 0
  }
  convolution_param {
    num_output: 112
    kernel_size: 1
    weight_filler {
      type: "xavier"
      std: 0.03
    }
    bias_filler {
      type: "constant"
      value: 0.2
    }
  }
}
layer {
  name: "inception_4d/relu_1x1"
  type: "ReLU"
  bottom: "inception_4d/1x1"
  top: "inception_4d/1x1"
}
layer {
  name: "inception_4d/3x3_reduce"
  type: "Convolution"
  bottom: "inception_4c/output"
  top: "inception_4d/3x3_reduce"
  param {
    lr_mult: 1
    decay_mult: 1
  }
  param {
    lr_mult: 2
    decay_mult: 0
  }
  convolution_param {
    num_output: 144
    kernel_size: 1
    weight_filler {
      type: "xavier"
      std: 0.09
    }
    bias_filler {
      type: "constant"
      value: 0.2
    }
  }
}
layer {
  name: "inception_4d/relu_3x3_reduce"
  type: "ReLU"
  bottom: "inception_4d/3x3_reduce"
  top: "inception_4d/3x3_reduce"
}
layer {
  name: "inception_4d/3x3"
  type: "Convolution"
  bottom: "inception_4d/3x3_reduce"
  top: "inception_4d/3x3"
  param {
    lr_mult: 1
    decay_mult: 1
  }
  param {
    lr_mult: 2
    decay_mult: 0
  }
  convolution_param {
    num_output: 288
    pad: 1
    kernel_size: 3
    weight_filler {
      type: "xavier"
      std: 0.03
    }
    bias_filler {
      type: "constant"
      value: 0.2
    }
  }
}
layer {
  name: "inception_4d/relu_3x3"
  type: "ReLU"
  bottom: "inception_4d/3x3"
  top: "inception_4d/3x3"
}
layer {
  name: "inception_4d/5x5_reduce"
  type: "Convolution"
  bottom: "inception_4c/output"
  top: "inception_4d/5x5_reduce"
  param {
    lr_mult: 1
    decay_mult: 1
  }
  param {
    lr_mult: 2
    decay_mult: 0
  }
  convolution_param {
    num_output: 32
    kernel_size: 1
    weight_filler {
      type: "xavier"
      std: 0.2
    }
    bias_filler {
      type: "constant"
      value: 0.2
    }
  }
}
layer {
  name: "inception_4d/relu_5x5_reduce"
  type: "ReLU"
  bottom: "inception_4d/5x5_reduce"
  top: "inception_4d/5x5_reduce"
}
layer {
  name: "inception_4d/5x5"
  type: "Convolution"
  bottom: "inception_4d/5x5_reduce"
  top: "inception_4d/5x5"
  param {
    lr_mult: 1
    decay_mult: 1
  }
  param {
    lr_mult: 2
    decay_mult: 0
  }
  convolution_param {
    num_output: 64
    pad: 2
    kernel_size: 5
    weight_filler {
      type: "xavier"
      std: 0.03
    }
    bias_filler {
      type: "constant"
      value: 0.2
    }
  }
}
layer {
  name: "inception_4d/relu_5x5"
  type: "ReLU"
  bottom: "inception_4d/5x5"
  top: "inception_4d/5x5"
}
layer {
  name: "inception_4d/pool"
  type: "Pooling"
  bottom: "inception_4c/output"
  top: "inception_4d/pool"
  pooling_param {
    pool: MAX
    kernel_size: 3
    stride: 1
    pad: 1
  }
}
layer {
  name: "inception_4d/pool_proj"
  type: "Convolution"
  bottom: "inception_4d/pool"
  top: "inception_4d/pool_proj"
  param {
    lr_mult: 1
    decay_mult: 1
  }
  param {
    lr_mult: 2
    decay_mult: 0
  }
  convolution_param {
    num_output: 64
    kernel_size: 1
    weight_filler {
      type: "xavier"
      std: 0.1
    }
    bias_filler {
      type: "constant"
      value: 0.2
    }
  }
}
layer {
  name: "inception_4d/relu_pool_proj"
  type: "ReLU"
  bottom: "inception_4d/pool_proj"
  top: "inception_4d/pool_proj"
}
layer {
  name: "inception_4d/output"
  type: "Concat"
  bottom: "inception_4d/1x1"
  bottom: "inception_4d/3x3"
  bottom: "inception_4d/5x5"
  bottom: "inception_4d/pool_proj"
  top: "inception_4d/output"
}
layer {
  name: "inception_4e/1x1"
  type: "Convolution"
  bottom: "inception_4d/output"
  top: "inception_4e/1x1"
  param {
    lr_mult: 1
    decay_mult: 1
  }
  param {
    lr_mult: 2
    decay_mult: 0
  }
  convolution_param {
    num_output: 256
    kernel_size: 1
    weight_filler {
      type: "xavier"
      std: 0.03
    }
    bias_filler {
      type: "constant"
      value: 0.2
    }
  }
}
layer {
  name: "inception_4e/relu_1x1"
  type: "ReLU"
  bottom: "inception_4e/1x1"
  top: "inception_4e/1x1"
}
layer {
  name: "inception_4e/3x3_reduce"
  type: "Convolution"
  bottom: "inception_4d/output"
  top: "inception_4e/3x3_reduce"
  param {
    lr_mult: 1
    decay_mult: 1
  }
  param {
    lr_mult: 2
    decay_mult: 0
  }
  convolution_param {
    num_output: 160
    kernel_size: 1
    weight_filler {
      type: "xavier"
      std: 0.09
    }
    bias_filler {
      type: "constant"
      value: 0.2
    }
  }
}
layer {
  name: "inception_4e/relu_3x3_reduce"
  type: "ReLU"
  bottom: "inception_4e/3x3_reduce"
  top: "inception_4e/3x3_reduce"
}
layer {
  name: "inception_4e/3x3"
  type: "Convolution"
  bottom: "inception_4e/3x3_reduce"
  top: "inception_4e/3x3"
  param {
    lr_mult: 1
    decay_mult: 1
  }
  param {
    lr_mult: 2
    decay_mult: 0
  }
  convolution_param {
    num_output: 320
    pad: 1
    kernel_size: 3
    weight_filler {
      type: "xavier"
      std: 0.03
    }
    bias_filler {
      type: "constant"
      value: 0.2
    }
  }
}
layer {
  name: "inception_4e/relu_3x3"
  type: "ReLU"
  bottom: "inception_4e/3x3"
  top: "inception_4e/3x3"
}
layer {
  name: "inception_4e/5x5_reduce"
  type: "Convolution"
  bottom: "inception_4d/output"
  top: "inception_4e/5x5_reduce"
  param {
    lr_mult: 1
    decay_mult: 1
  }
  param {
    lr_mult: 2
    decay_mult: 0
  }
  convolution_param {
    num_output: 32
    kernel_size: 1
    weight_filler {
      type: "xavier"
      std: 0.2
    }
    bias_filler {
      type: "constant"
      value: 0.2
    }
  }
}
layer {
  name: "inception_4e/relu_5x5_reduce"
  type: "ReLU"
  bottom: "inception_4e/5x5_reduce"
  top: "inception_4e/5x5_reduce"
}
layer {
  name: "inception_4e/5x5"
  type: "Convolution"
  bottom: "inception_4e/5x5_reduce"
  top: "inception_4e/5x5"
  param {
    lr_mult: 1
    decay_mult: 1
  }
  param {
    lr_mult: 2
    decay_mult: 0
  }
  convolution_param {
    num_output: 128
    pad: 2
    kernel_size: 5
    weight_filler {
      type: "xavier"
      std: 0.03
    }
    bias_filler {
      type: "constant"
      value: 0.2
    }
  }
}
layer {
  name: "inception_4e/relu_5x5"
  type: "ReLU"
  bottom: "inception_4e/5x5"
  top: "inception_4e/5x5"
}
layer {
  name: "inception_4e/pool"
  type: "Pooling"
  bottom: "inception_4d/output"
  top: "inception_4e/pool"
  pooling_param {
    pool: MAX
    kernel_size: 3
    stride: 1
    pad: 1
  }
}
layer {
  name: "inception_4e/pool_proj"
  type: "Convolution"
  bottom: "inception_4e/pool"
  top: "inception_4e/pool_proj"
  param {
    lr_mult: 1
    decay_mult: 1
  }
  param {
    lr_mult: 2
    decay_mult: 0
  }
  convolution_param {
    num_output: 128
    kernel_size: 1
    weight_filler {
      type: "xavier"
      std: 0.1
    }
    bias_filler {
      type: "constant"
      value: 0.2
    }
  }
}
layer {
  name: "inception_4e/relu_pool_proj"
  type: "ReLU"
  bottom: "inception_4e/pool_proj"
  top: "inception_4e/pool_proj"
}
layer {
  name: "inception_4e/output"
  type: "Concat"
  bottom: "inception_4e/1x1"
  bottom: "inception_4e/3x3"
  bottom: "inception_4e/5x5"
  bottom: "inception_4e/pool_proj"
  top: "inception_4e/output"
}
layer {
  name: "pool4/3x3_s2"
  type: "Pooling"
  bottom: "inception_4e/output"
  top: "pool4/3x3_s2"
  pooling_param {
    pool: MAX
    kernel_size: 3
    stride: 2
  }
}
layer {
  name: "inception_5a/1x1"
  type: "Convolution"
  bottom: "pool4/3x3_s2"
  top: "inception_5a/1x1"
  param {
    lr_mult: 1
    decay_mult: 1
  }
  param {
    lr_mult: 2
    decay_mult: 0
  }
  convolution_param {
    num_output: 256
    kernel_size: 1
    weight_filler {
      type: "xavier"
      std: 0.03
    }
    bias_filler {
      type: "constant"
      value: 0.2
    }
  }
}
layer {
  name: "inception_5a/relu_1x1"
  type: "ReLU"
  bottom: "inception_5a/1x1"
  top: "inception_5a/1x1"
}
layer {
  name: "inception_5a/3x3_reduce"
  type: "Convolution"
  bottom: "pool4/3x3_s2"
  top: "inception_5a/3x3_reduce"
  param {
    lr_mult: 1
    decay_mult: 1
  }
  param {
    lr_mult: 2
    decay_mult: 0
  }
  convolution_param {
    num_output: 160
    kernel_size: 1
    weight_filler {
      type: "xavier"
      std: 0.09
    }
    bias_filler {
      type: "constant"
      value: 0.2
    }
  }
}
layer {
  name: "inception_5a/relu_3x3_reduce"
  type: "ReLU"
  bottom: "inception_5a/3x3_reduce"
  top: "inception_5a/3x3_reduce"
}
layer {
  name: "inception_5a/3x3"
  type: "Convolution"
  bottom: "inception_5a/3x3_reduce"
  top: "inception_5a/3x3"
  param {
    lr_mult: 1
    decay_mult: 1
  }
  param {
    lr_mult: 2
    decay_mult: 0
  }
  convolution_param {
    num_output: 320
    pad: 1
    kernel_size: 3
    weight_filler {
      type: "xavier"
      std: 0.03
    }
    bias_filler {
      type: "constant"
      value: 0.2
    }
  }
}
layer {
  name: "inception_5a/relu_3x3"
  type: "ReLU"
  bottom: "inception_5a/3x3"
  top: "inception_5a/3x3"
}
layer {
  name: "inception_5a/5x5_reduce"
  type: "Convolution"
  bottom: "pool4/3x3_s2"
  top: "inception_5a/5x5_reduce"
  param {
    lr_mult: 1
    decay_mult: 1
  }
  param {
    lr_mult: 2
    decay_mult: 0
  }
  convolution_param {
    num_output: 32
    kernel_size: 1
    weight_filler {
      type: "xavier"
      std: 0.2
    }
    bias_filler {
      type: "constant"
      value: 0.2
    }
I0714 20:30:52.082167 29565 layer_factory.hpp:77] Creating layer data
I0714 20:30:52.082195 29565 net.cpp:91] Creating Layer data
I0714 20:30:52.082206 29565 net.cpp:399] data -> data
I0714 20:30:52.087707 29561 net.cpp:49] Initializing net from parameters: 
name: "GoogleNet"
state {
  phase: TEST
}
layer {
  name: "data"
  type: "Input"
  top: "data"
  input_param {
    shape {
      dim: 10
      dim: 3
      dim: 224
      dim: 224
    }
  }
}
layer {
  name: "conv1/7x7_s2"
  type: "Convolution"
  bottom: "data"
  top: "conv1/7x7_s2"
  param {
    lr_mult: 1
    decay_mult: 1
  }
  param {
    lr_mult: 2
    decay_mult: 0
  }
  convolution_param {
    num_output: 64
    pad: 3
    kernel_size: 7
    stride: 2
    weight_filler {
      type: "xavier"
      std: 0.1
    }
    bias_filler {
      type: "constant"
      value: 0.2
    }
  }
}
layer {
  name: "conv1/relu_7x7"
  type: "ReLU"
  bottom: "conv1/7x7_s2"
  top: "conv1/7x7_s2"
}
layer {
  name: "pool1/3x3_s2"
  type: "Pooling"
  bottom: "conv1/7x7_s2"
  top: "pool1/3x3_s2"
  pooling_param {
    pool: MAX
    kernel_size: 3
    stride: 2
  }
}
layer {
  name: "pool1/norm1"
  type: "LRN"
  bottom: "pool1/3x3_s2"
  top: "pool1/norm1"
  lrn_param {
    local_size: 5
    alpha: 0.0001
    beta: 0.75
  }
}
layer {
  name: "conv2/3x3_reduce"
  type: "Convolution"
  bottom: "pool1/norm1"
  top: "conv2/3x3_reduce"
  param {
    lr_mult: 1
    decay_mult: 1
  }
  param {
    lr_mult: 2
    decay_mult: 0
  }
  convolution_param {
    num_output: 64
    kernel_size: 1
    weight_filler {
      type: "xavier"
      std: 0.1
    }
    bias_filler {
      type: "constant"
      value: 0.2
    }
  }
}
layer {
  name: "conv2/relu_3x3_reduce"
  type: "ReLU"
  bottom: "conv2/3x3_reduce"
  top: "conv2/3x3_reduce"
}
layer {
  name: "conv2/3x3"
  type: "Convolution"
  bottom: "conv2/3x3_reduce"
  top: "conv2/3x3"
  param {
    lr_mult: 1
    decay_mult: 1
  }
  param {
    lr_mult: 2
    decay_mult: 0
  }
  convolution_param {
    num_output: 192
    pad: 1
    kernel_size: 3
    weight_filler {
      type: "xavier"
      std: 0.03
    }
    bias_filler {
      type: "constant"
      value: 0.2
    }
  }
}
layer {
  name: "conv2/relu_3x3"
  type: "ReLU"
  bottom: "conv2/3x3"
  top: "conv2/3x3"
}
layer {
  name: "conv2/norm2"
  type: "LRN"
  bottom: "conv2/3x3"
  top: "conv2/norm2"
  lrn_param {
    local_size: 5
    alpha: 0.0001
    beta: 0.75
  }
}
layer {
  name: "pool2/3x3_s2"
  type: "Pooling"
  bottom: "conv2/norm2"
  top: "pool2/3x3_s2"
  pooling_param {
    pool: MAX
    kernel_size: 3
    stride: 2
  }
}
layer {
  name: "inception_3a/1x1"
  type: "Convolution"
  bottom: "pool2/3x3_s2"
  top: "inception_3a/1x1"
  param {
    lr_mult: 1
    decay_mult: 1
  }
  param {
    lr_mult: 2
    decay_mult: 0
  }
  convolution_param {
    num_output: 64
    kernel_size: 1
    weight_filler {
      type: "xavier"
      std: 0.03
    }
    bias_filler {
      type: "constant"
      value: 0.2
    }
  }
}
layer {
  name: "inception_3a/relu_1x1"
  type: "ReLU"
  bottom: "inception_3a/1x1"
  top: "inception_3a/1x1"
}
layer {
  name: "inception_3a/3x3_reduce"
  type: "Convolution"
  bottom: "pool2/3x3_s2"
  top: "inception_3a/3x3_reduce"
  param {
    lr_mult: 1
    decay_mult: 1
  }
  param {
    lr_mult: 2
    decay_mult: 0
  }
  convolution_param {
    num_output: 96
    kernel_size: 1
    weight_filler {
      type: "xavier"
      std: 0.09
    }
    bias_filler {
      type: "constant"
      value: 0.2
    }
  }
}
layer {
  name: "inception_3a/relu_3x3_reduce"
  type: "ReLU"
  bottom: "inception_3a/3x3_reduce"
  top: "inception_3a/3x3_reduce"
}
layer {
  name: "inception_3a/3x3"
  type: "Convolution"
  bottom: "inception_3a/3x3_reduce"
  top: "inception_3a/3x3"
  param {
    lr_mult: 1
    decay_mult: 1
  }
  param {
    lr_mult: 2
    decay_mult: 0
  }
  convolution_param {
    num_output: 128
    pad: 1
    kernel_size: 3
    weight_filler {
      type: "xavier"
      std: 0.03
    }
    bias_filler {
      type: "constant"
      value: 0.2
    }
  }
}
layer {
  name: "inception_3a/relu_3x3"
  type: "ReLU"
  bottom: "inception_3a/3x3"
  top: "inception_3a/3x3"
}
layer {
  name: "inception_3a/5x5_reduce"
  type: "Convolution"
  bottom: "pool2/3x3_s2"
  top: "inception_3a/5x5_reduce"
  param {
    lr_mult: 1
    decay_mult: 1
  }
  param {
    lr_mult: 2
    decay_mult: 0
  }
  convolution_param {
    num_output: 16
    kernel_size: 1
    weight_filler {
      type: "xavier"
      std: 0.2
    }
    bias_filler {
      type: "constant"
      value: 0.2
    }
  }
}
layer {
  name: "inception_3a/relu_5x5_reduce"
  type: "ReLU"
  bottom: "inception_3a/5x5_reduce"
  top: "inception_3a/5x5_reduce"
}
layer {
  name: "inception_3a/5x5"
  type: "Convolution"
  bottom: "inception_3a/5x5_reduce"
  top: "inception_3a/5x5"
  param {
    lr_mult: 1
    decay_mult: 1
  }
  param {
    lr_mult: 2
    decay_mult: 0
  }
  convolution_param {
    num_output: 32
    pad: 2
    kernel_size: 5
    weight_filler {
      type: "xavier"
      std: 0.03
    }
    bias_filler {
      type: "constant"
      value: 0.2
    }
  }
}
layer {
  name: "inception_3a/relu_5x5"
  type: "ReLU"
  bottom: "inception_3a/5x5"
  top: "inception_3a/5x5"
}
layer {
  name: "inception_3a/pool"
  type: "Pooling"
  bottom: "pool2/3x3_s2"
  top: "inception_3a/pool"
  pooling_param {
    pool: MAX
    kernel_size: 3
    stride: 1
    pad: 1
  }
}
layer {
  name: "inception_3a/pool_proj"
  type: "Convolution"
  bottom: "inception_3a/pool"
  top: "inception_3a/pool_proj"
  param {
    lr_mult: 1
    decay_mult: 1
  }
  param {
    lr_mult: 2
    decay_mult: 0
  }
  convolution_param {
    num_output: 32
    kernel_size: 1
    weight_filler {
      type: "xavier"
      std: 0.1
    }
    bias_filler {
      type: "constant"
      value: 0.2
    }
  }
}
layer {
  name: "inception_3a/relu_pool_proj"
  type: "ReLU"
  bottom: "inception_3a/pool_proj"
  top: "inception_3a/pool_proj"
}
layer {
  name: "inception_3a/output"
  type: "Concat"
  bottom: "inception_3a/1x1"
  bottom: "inception_3a/3x3"
  bottom: "inception_3a/5x5"
  bottom: "inception_3a/pool_proj"
  top: "inception_3a/output"
}
layer {
  name: "inception_3b/1x1"
  type: "Convolution"
  bottom: "inception_3a/output"
  top: "inception_3b/1x1"
  param {
    lr_mult: 1
    decay_mult: 1
  }
  param {
    lr_mult: 2
    decay_mult: 0
  }
  convolution_param {
    num_output: 128
    kernel_size: 1
    weight_filler {
      type: "xavier"
      std: 0.03
    }
    bias_filler {
      type: "constant"
      value: 0.2
    }
  }
}
layer {
  name: "inception_3b/relu_1x1"
  type: "ReLU"
  bottom: "inception_3b/1x1"
  top: "inception_3b/1x1"
}
layer {
  name: "inception_3b/3x3_reduce"
  type: "Convolution"
  bottom: "inception_3a/output"
  top: "inception_3b/3x3_reduce"
  param {
    lr_mult: 1
    decay_mult: 1
  }
  param {
    lr_mult: 2
    decay_mult: 0
  }
  convolution_param {
    num_output: 128
    kernel_size: 1
    weight_filler {
      type: "xavier"
      std: 0.09
    }
    bias_filler {
      type: "constant"
      value: 0.2
    }
  }
}
layer {
  name: "inception_3b/relu_3x3_reduce"
  type: "ReLU"
  bottom: "inception_3b/3x3_reduce"
  top: "inception_3b/3x3_reduce"
}
layer {
  name: "inception_3b/3x3"
  type: "Convolution"
  bottom: "inception_3b/3x3_reduce"
  top: "inception_3b/3x3"
  param {
    lr_mult: 1
    decay_mult: 1
  }
  param {
    lr_mult: 2
    decay_mult: 0
  }
  convolution_param {
    num_output: 192
    pad: 1
    kernel_size: 3
    weight_filler {
      type: "xavier"
      std: 0.03
    }
    bias_filler {
      type: "constant"
      value: 0.2
    }
  }
}
layer {
  name: "inception_3b/relu_3x3"
  type: "ReLU"
  bottom: "inception_3b/3x3"
  top: "inception_3b/3x3"
}
layer {
  name: "inception_3b/5x5_reduce"
  type: "Convolution"
  bottom: "inception_3a/output"
  top: "inception_3b/5x5_reduce"
  param {
    lr_mult: 1
    decay_mult: 1
  }
  param {
    lr_mult: 2
    decay_mult: 0
  }
  convolution_param {
    num_output: 32
    kernel_size: 1
    weight_filler {
      type: "xavier"
      std: 0.2
    }
    bias_filler {
      type: "constant"
      value: 0.2
    }
  }
}
layer {
  name: "inception_3b/relu_5x5_reduce"
  type: "ReLU"
  bottom: "inception_3b/5x5_reduce"
  top: "inception_3b/5x5_reduce"
}
layer {
  name: "inception_3b/5x5"
  type: "Convolution"
  bottom: "inception_3b/5x5_reduce"
  top: "inception_3b/5x5"
  param {
    lr_mult: 1
    decay_mult: 1
  }
  param {
    lr_mult: 2
    decay_mult: 0
  }
  convolution_param {
    num_output: 96
    pad: 2
    kernel_size: 5
    weight_filler {
      type: "xavier"
      std: 0.03
    }
    bias_filler {
      type: "constant"
      value: 0.2
    }
  }
}
layer {
  name: "inception_3b/relu_5x5"
  type: "ReLU"
  bottom: "inception_3b/5x5"
  top: "inception_3b/5x5"
}
layer {
  name: "inception_3b/pool"
  type: "Pooling"
  bottom: "inception_3a/output"
  top: "inception_3b/pool"
  pooling_param {
    pool: MAX
    kernel_size: 3
    stride: 1
    pad: 1
  }
}
layer {
  name: "inception_3b/pool_proj"
  type: "Convolution"
  bottom: "inception_3b/pool"
  top: "inception_3b/pool_proj"
  param {
    lr_mult: 1
    decay_mult: 1
  }
  param {
    lr_mult: 2
    decay_mult: 0
  }
  convolution_param {
    num_output: 64
    kernel_size: 1
    weight_filler {
      type: "xavier"
      std: 0.1
    }
    bias_filler {
      type: "constant"
      value: 0.2
    }
  }
}
layer {
  name: "inception_3b/relu_pool_proj"
  type: "ReLU"
  bottom: "inception_3b/pool_proj"
  top: "inception_3b/pool_proj"
}
layer {
  name: "inception_3b/output"
  type: "Concat"
  bottom: "inception_3b/1x1"
  bottom: "inception_3b/3x3"
  bottom: "inception_3b/5x5"
  bottom: "inception_3b/pool_proj"
  top: "inception_3b/output"
}
layer {
  name: "pool3/3x3_s2"
  type: "Pooling"
  bottom: "inception_3b/output"
  top: "pool3/3x3_s2"
  pooling_param {
    pool: MAX
    kernel_size: 3
    stride: 2
  }
}
layer {
  name: "inception_4a/1x1"
  type: "Convolution"
  bottom: "pool3/3x3_s2"
  top: "inception_4a/1x1"
  param {
    lr_mult: 1
    decay_mult: 1
  }
  param {
    lr_mult: 2
    decay_mult: 0
  }
  convolution_param {
    num_output: 192
    kernel_size: 1
    weight_filler {
      type: "xavier"
      std: 0.03
    }
    bias_filler {
      type: "constant"
      value: 0.2
    }
  }
}
layer {
  name: "inception_4a/relu_1x1"
  type: "ReLU"
  bottom: "inception_4a/1x1"
  top: "inception_4a/1x1"
}
layer {
  name: "inception_4a/3x3_reduce"
  type: "Convolution"
  bottom: "pool3/3x3_s2"
  top: "inception_4a/3x3_reduce"
  param {
    lr_mult: 1
    decay_mult: 1
  }
  param {
    lr_mult: 2
    decay_mult: 0
  }
  convolution_param {
    num_output: 96
    kernel_size: 1
    weight_filler {
      type: "xavier"
      std: 0.09
    }
    bias_filler {
      type: "constant"
      value: 0.2
    }
  }
}
layer {
  name: "inception_4a/relu_3x3_reduce"
  type: "ReLU"
  bottom: "inception_4a/3x3_reduce"
  top: "inception_4a/3x3_reduce"
}
layer {
  name: "inception_4a/3x3"
  type: "Convolution"
  bottom: "inception_4a/3x3_reduce"
  top: "inception_4a/3x3"
  param {
    lr_mult: 1
    decay_mult: 1
  }
  param {
    lr_mult: 2
    decay_mult: 0
  }
  convolution_param {
    num_output: 208
    pad: 1
    kernel_size: 3
    weight_filler {
      type: "xavier"
      std: 0.03
    }
    bias_filler {
      type: "constant"
      value: 0.2
    }
  }
}
layer {
  name: "inception_4a/relu_3x3"
  type: "ReLU"
  bottom: "inception_4a/3x3"
  top: "inception_4a/3x3"
}
layer {
  name: "inception_4a/5x5_reduce"
  type: "Convolution"
  bottom: "pool3/3x3_s2"
  top: "inception_4a/5x5_reduce"
  param {
    lr_mult: 1
    decay_mult: 1
  }
  param {
    lr_mult: 2
    decay_mult: 0
  }
  convolution_param {
    num_output: 16
    kernel_size: 1
    weight_filler {
      type: "xavier"
      std: 0.2
    }
    bias_filler {
      type: "constant"
      value: 0.2
    }
  }
}
layer {
  name: "inception_4a/relu_5x5_reduce"
  type: "ReLU"
  bottom: "inception_4a/5x5_reduce"
  top: "inception_4a/5x5_reduce"
}
layer {
  name: "inception_4a/5x5"
  type: "Convolution"
  bottom: "inception_4a/5x5_reduce"
  top: "inception_4a/5x5"
  param {
    lr_mult: 1
    decay_mult: 1
  }
  param {
    lr_mult: 2
    decay_mult: 0
  }
  convolution_param {
    num_output: 48
    pad: 2
    kernel_size: 5
    weight_filler {
      type: "xavier"
      std: 0.03
    }
    bias_filler {
      type: "constant"
      value: 0.2
    }
  }
}
layer {
  name: "inception_4a/relu_5x5"
  type: "ReLU"
  bottom: "inception_4a/5x5"
  top: "inception_4a/5x5"
}
layer {
  name: "inception_4a/pool"
  type: "Pooling"
  bottom: "pool3/3x3_s2"
  top: "inception_4a/pool"
  pooling_param {
    pool: MAX
    kernel_size: 3
    stride: 1
    pad: 1
  }
}
layer {
  name: "inception_4a/pool_proj"
  type: "Convolution"
  bottom: "inception_4a/pool"
  top: "inception_4a/pool_proj"
  param {
    lr_mult: 1
    decay_mult: 1
  }
  param {
    lr_mult: 2
    decay_mult: 0
  }
  convolution_param {
    num_output: 64
    kernel_size: 1
    weight_filler {
      type: "xavier"
      std: 0.1
    }
    bias_filler {
      type: "constant"
      value: 0.2
    }
  }
}
layer {
  name: "inception_4a/relu_pool_proj"
  type: "ReLU"
  bottom: "inception_4a/pool_proj"
  top: "inception_4a/pool_proj"
}
layer {
  name: "inception_4a/output"
  type: "Concat"
  bottom: "inception_4a/1x1"
  bottom: "inception_4a/3x3"
  bottom: "inception_4a/5x5"
  bottom: "inception_4a/pool_proj"
  top: "inception_4a/output"
}
layer {
  name: "inception_4b/1x1"
  type: "Convolution"
  bottom: "inception_4a/output"
  top: "inception_4b/1x1"
  param {
    lr_mult: 1
    decay_mult: 1
  }
  param {
    lr_mult: 2
    decay_mult: 0
  }
  convolution_param {
    num_output: 160
    kernel_size: 1
    weight_filler {
      type: "xavier"
      std: 0.03
    }
    bias_filler {
      type: "constant"
      value: 0.2
    }
  }
}
layer {
  name: "inception_4b/relu_1x1"
  type: "ReLU"
  bottom: "inception_4b/1x1"
  top: "inception_4b/1x1"
}
layer {
  name: "inception_4b/3x3_reduce"
  type: "Convolution"
  bottom: "inception_4a/output"
  top: "inception_4b/3x3_reduce"
  param {
    lr_mult: 1
    decay_mult: 1
  }
  param {
    lr_mult: 2
    decay_mult: 0
  }
  convolution_param {
    num_output: 112
    kernel_size: 1
    weight_filler {
      type: "xavier"
      std: 0.09
    }
    bias_filler {
      type: "constant"
      value: 0.2
    }
  }
}
layer {
  name: "inception_4b/relu_3x3_reduce"
  type: "ReLU"
  bottom: "inception_4b/3x3_reduce"
  top: "inception_4b/3x3_reduce"
}
layer {
  name: "inception_4b/3x3"
  type: "Convolution"
  bottom: "inception_4b/3x3_reduce"
  top: "inception_4b/3x3"
  param {
    lr_mult: 1
    decay_mult: 1
  }
  param {
    lr_mult: 2
    decay_mult: 0
  }
  convolution_param {
    num_output: 224
    pad: 1
    kernel_size: 3
    weight_filler {
      type: "xavier"
      std: 0.03
    }
    bias_filler {
      type: "constant"
      value: 0.2
    }
  }
}
layer {
  name: "inception_4b/relu_3x3"
  type: "ReLU"
  bottom: "inception_4b/3x3"
  top: "inception_4b/3x3"
}
layer {
  name: "inception_4b/5x5_reduce"
  type: "Convolution"
  bottom: "inception_4a/output"
  top: "inception_4b/5x5_reduce"
  param {
    lr_mult: 1
    decay_mult: 1
  }
  param {
    lr_mult: 2
    decay_mult: 0
  }
  convolution_param {
    num_output: 24
    kernel_size: 1
    weight_filler {
      type: "xavier"
      std: 0.2
    }
    bias_filler {
      type: "constant"
      value: 0.2
    }
  }
}
layer {
  name: "inception_4b/relu_5x5_reduce"
  type: "ReLU"
  bottom: "inception_4b/5x5_reduce"
  top: "inception_4b/5x5_reduce"
}
layer {
  name: "inception_4b/5x5"
  type: "Convolution"
  bottom: "inception_4b/5x5_reduce"
  top: "inception_4b/5x5"
  param {
    lr_mult: 1
    decay_mult: 1
  }
  param {
    lr_mult: 2
    decay_mult: 0
  }
  convolution_param {
    num_output: 64
    pad: 2
    kernel_size: 5
    weight_filler {
      type: "xavier"
      std: 0.03
    }
    bias_filler {
      type: "constant"
      value: 0.2
    }
  }
}
layer {
  name: "inception_4b/relu_5x5"
  type: "ReLU"
  bottom: "inception_4b/5x5"
  top: "inception_4b/5x5"
}
layer {
  name: "inception_4b/pool"
  type: "Pooling"
  bottom: "inception_4a/output"
  top: "inception_4b/pool"
  pooling_param {
    pool: MAX
    kernel_size: 3
    stride: 1
    pad: 1
  }
}
layer {
  name: "inception_4b/pool_proj"
  type: "Convolution"
  bottom: "inception_4b/pool"
  top: "inception_4b/pool_proj"
  param {
    lr_mult: 1
    decay_mult: 1
  }
  param {
    lr_mult: 2
    decay_mult: 0
  }
  convolution_param {
    num_output: 64
    kernel_size: 1
    weight_filler {
      type: "xavier"
      std: 0.1
    }
    bias_filler {
      type: "constant"
      value: 0.2
    }
  }
}
layer {
  name: "inception_4b/relu_pool_proj"
  type: "ReLU"
  bottom: "inception_4b/pool_proj"
  top: "inception_4b/pool_proj"
}
layer {
  name: "inception_4b/output"
  type: "Concat"
  bottom: "inception_4b/1x1"
  bottom: "inception_4b/3x3"
  bottom: "inception_4b/5x5"
  bottom: "inception_4b/pool_proj"
  top: "inception_4b/output"
}
layer {
  name: "inception_4c/1x1"
  type: "Convolution"
  bottom: "inception_4b/output"
  top: "inception_4c/1x1"
  param {
    lr_mult: 1
    decay_mult: 1
  }
  param {
    lr_mult: 2
    decay_mult: 0
  }
  convolution_param {
    num_output: 128
    kernel_size: 1
    weight_filler {
      type: "xavier"
      std: 0.03
    }
    bias_filler {
      type: "constant"
      value: 0.2
    }
  }
}
layer {
  name: "inception_4c/relu_1x1"
  type: "ReLU"
  bottom: "inception_4c/1x1"
  top: "inception_4c/1x1"
}
layer {
  name: "inception_4c/3x3_reduce"
  type: "Convolution"
  bottom: "inception_4b/output"
  top: "inception_4c/3x3_reduce"
  param {
    lr_mult: 1
    decay_mult: 1
  }
  param {
    lr_mult: 2
    decay_mult: 0
  }
  convolution_param {
    num_output: 128
    kernel_size: 1
    weight_filler {
      type: "xavier"
      std: 0.09
    }
    bias_filler {
      type: "constant"
      value: 0.2
    }
  }
}
layer {
  name: "inception_4c/relu_3x3_reduce"
  type: "ReLU"
  bottom: "inception_4c/3x3_reduce"
  top: "inception_4c/3x3_reduce"
}
layer {
  name: "inception_4c/3x3"
  type: "Convolution"
  bottom: "inception_4c/3x3_reduce"
  top: "inception_4c/3x3"
  param {
    lr_mult: 1
    decay_mult: 1
  }
  param {
    lr_mult: 2
    decay_mult: 0
  }
  convolution_param {
    num_output: 256
    pad: 1
    kernel_size: 3
    weight_filler {
      type: "xavier"
      std: 0.03
    }
    bias_filler {
      type: "constant"
      value: 0.2
    }
  }
}
layer {
  name: "inception_4c/relu_3x3"
  type: "ReLU"
  bottom: "inception_4c/3x3"
  top: "inception_4c/3x3"
}
layer {
  name: "inception_4c/5x5_reduce"
  type: "Convolution"
  bottom: "inception_4b/output"
  top: "inception_4c/5x5_reduce"
  param {
    lr_mult: 1
    decay_mult: 1
  }
  param {
    lr_mult: 2
    decay_mult: 0
  }
  convolution_param {
    num_output: 24
    kernel_size: 1
    weight_filler {
      type: "xavier"
      std: 0.2
    }
    bias_filler {
      type: "constant"
      value: 0.2
    }
  }
}
layer {
  name: "inception_4c/relu_5x5_reduce"
  type: "ReLU"
  bottom: "inception_4c/5x5_reduce"
  top: "inception_4c/5x5_reduce"
}
layer {
  name: "inception_4c/5x5"
  type: "Convolution"
  bottom: "inception_4c/5x5_reduce"
  top: "inception_4c/5x5"
  param {
    lr_mult: 1
    decay_mult: 1
  }
  param {
    lr_mult: 2
    decay_mult: 0
  }
  convolution_param {
    num_output: 64
    pad: 2
    kernel_size: 5
    weight_filler {
      type: "xavier"
      std: 0.03
    }
    bias_filler {
      type: "constant"
      value: 0.2
    }
  }
}
layer {
  name: "inception_4c/relu_5x5"
  type: "ReLU"
  bottom: "inception_4c/5x5"
  top: "inception_4c/5x5"
}
layer {
  name: "inception_4c/pool"
  type: "Pooling"
  bottom: "inception_4b/output"
  top: "inception_4c/pool"
  pooling_param {
    pool: MAX
    kernel_size: 3
    stride: 1
    pad: 1
  }
}
layer {
  name: "inception_4c/pool_proj"
  type: "Convolution"
  bottom: "inception_4c/pool"
  top: "inception_4c/pool_proj"
  param {
    lr_mult: 1
    decay_mult: 1
  }
  param {
    lr_mult: 2
    decay_mult: 0
  }
  convolution_param {
    num_output: 64
    kernel_size: 1
    weight_filler {
      type: "xavier"
      std: 0.1
    }
    bias_filler {
      type: "constant"
      value: 0.2
    }
  }
}
layer {
  name: "inception_4c/relu_pool_proj"
  type: "ReLU"
  bottom: "inception_4c/pool_proj"
  top: "inception_4c/pool_proj"
}
layer {
  name: "inception_4c/output"
  type: "Concat"
  bottom: "inception_4c/1x1"
  bottom: "inception_4c/3x3"
  bottom: "inception_4c/5x5"
  bottom: "inception_4c/pool_proj"
  top: "inception_4c/output"
}
layer {
  name: "inception_4d/1x1"
  type: "Convolution"
  bottom: "inception_4c/output"
  top: "inception_4d/1x1"
  param {
    lr_mult: 1
    decay_mult: 1
  }
  param {
    lr_mult: 2
    decay_mult: 0
  }
  convolution_param {
    num_output: 112
    kernel_size: 1
    weight_filler {
      type: "xavier"
      std: 0.03
    }
    bias_filler {
      type: "constant"
      value: 0.2
    }
  }
}
layer {
  name: "inception_4d/relu_1x1"
  type: "ReLU"
  bottom: "inception_4d/1x1"
  top: "inception_4d/1x1"
}
layer {
  name: "inception_4d/3x3_reduce"
  type: "Convolution"
  bottom: "inception_4c/output"
  top: "inception_4d/3x3_reduce"
  param {
    lr_mult: 1
    decay_mult: 1
  }
  param {
    lr_mult: 2
    decay_mult: 0
  }
  convolution_param {
    num_output: 144
    kernel_size: 1
    weight_filler {
      type: "xavier"
      std: 0.09
    }
    bias_filler {
      type: "constant"
      value: 0.2
    }
  }
}
layer {
  name: "inception_4d/relu_3x3_reduce"
  type: "ReLU"
  bottom: "inception_4d/3x3_reduce"
  top: "inception_4d/3x3_reduce"
}
layer {
  name: "inception_4d/3x3"
  type: "Convolution"
  bottom: "inception_4d/3x3_reduce"
  top: "inception_4d/3x3"
  param {
    lr_mult: 1
    decay_mult: 1
  }
  param {
    lr_mult: 2
    decay_mult: 0
  }
  convolution_param {
    num_output: 288
    pad: 1
    kernel_size: 3
    weight_filler {
      type: "xavier"
      std: 0.03
    }
    bias_filler {
      type: "constant"
      value: 0.2
    }
  }
}
layer {
  name: "inception_4d/relu_3x3"
  type: "ReLU"
  bottom: "inception_4d/3x3"
  top: "inception_4d/3x3"
}
layer {
  name: "inception_4d/5x5_reduce"
  type: "Convolution"
  bottom: "inception_4c/output"
  top: "inception_4d/5x5_reduce"
  param {
    lr_mult: 1
    decay_mult: 1
  }
  param {
    lr_mult: 2
    decay_mult: 0
  }
  convolution_param {
    num_output: 32
    kernel_size: 1
    weight_filler {
      type: "xavier"
      std: 0.2
    }
    bias_filler {
      type: "constant"
      value: 0.2
    }
  }
}
layer {
  name: "inception_4d/relu_5x5_reduce"
  type: "ReLU"
  bottom: "inception_4d/5x5_reduce"
  top: "inception_4d/5x5_reduce"
}
layer {
  name: "inception_4d/5x5"
  type: "Convolution"
  bottom: "inception_4d/5x5_reduce"
  top: "inception_4d/5x5"
  param {
    lr_mult: 1
    decay_mult: 1
  }
  param {
    lr_mult: 2
    decay_mult: 0
  }
  convolution_param {
    num_output: 64
    pad: 2
    kernel_size: 5
    weight_filler {
      type: "xavier"
      std: 0.03
    }
    bias_filler {
      type: "constant"
      value: 0.2
    }
  }
}
layer {
  name: "inception_4d/relu_5x5"
  type: "ReLU"
  bottom: "inception_4d/5x5"
  top: "inception_4d/5x5"
}
layer {
  name: "inception_4d/pool"
  type: "Pooling"
  bottom: "inception_4c/output"
  top: "inception_4d/pool"
  pooling_param {
    pool: MAX
    kernel_size: 3
    stride: 1
    pad: 1
  }
}
layer {
  name: "inception_4d/pool_proj"
  type: "Convolution"
  bottom: "inception_4d/pool"
  top: "inception_4d/pool_proj"
  param {
    lr_mult: 1
    decay_mult: 1
  }
  param {
    lr_mult: 2
    decay_mult: 0
  }
  convolution_param {
    num_output: 64
    kernel_size: 1
    weight_filler {
      type: "xavier"
      std: 0.1
    }
    bias_filler {
      type: "constant"
      value: 0.2
    }
  }
}
layer {
  name: "inception_4d/relu_pool_proj"
  type: "ReLU"
  bottom: "inception_4d/pool_proj"
  top: "inception_4d/pool_proj"
}
layer {
  name: "inception_4d/output"
  type: "Concat"
  bottom: "inception_4d/1x1"
  bottom: "inception_4d/3x3"
  bottom: "inception_4d/5x5"
  bottom: "inception_4d/pool_proj"
  top: "inception_4d/output"
}
layer {
  name: "inception_4e/1x1"
  type: "Convolution"
  bottom: "inception_4d/output"
  top: "inception_4e/1x1"
  param {
    lr_mult: 1
    decay_mult: 1
  }
  param {
    lr_mult: 2
    decay_mult: 0
  }
  convolution_param {
    num_output: 256
    kernel_size: 1
    weight_filler {
      type: "xavier"
      std: 0.03
    }
    bias_filler {
      type: "constant"
      value: 0.2
    }
  }
}
layer {
  name: "inception_4e/relu_1x1"
  type: "ReLU"
  bottom: "inception_4e/1x1"
  top: "inception_4e/1x1"
}
layer {
  name: "inception_4e/3x3_reduce"
  type: "Convolution"
  bottom: "inception_4d/output"
  top: "inception_4e/3x3_reduce"
  param {
    lr_mult: 1
    decay_mult: 1
  }
  param {
    lr_mult: 2
    decay_mult: 0
  }
  convolution_param {
    num_output: 160
    kernel_size: 1
    weight_filler {
      type: "xavier"
      std: 0.09
    }
    bias_filler {
      type: "constant"
      value: 0.2
    }
  }
}
layer {
  name: "inception_4e/relu_3x3_reduce"
  type: "ReLU"
  bottom: "inception_4e/3x3_reduce"
  top: "inception_4e/3x3_reduce"
}
layer {
  name: "inception_4e/3x3"
  type: "Convolution"
  bottom: "inception_4e/3x3_reduce"
  top: "inception_4e/3x3"
  param {
    lr_mult: 1
    decay_mult: 1
  }
  param {
    lr_mult: 2
    decay_mult: 0
  }
  convolution_param {
    num_output: 320
    pad: 1
    kernel_size: 3
    weight_filler {
      type: "xavier"
      std: 0.03
    }
    bias_filler {
      type: "constant"
      value: 0.2
    }
  }
}
layer {
  name: "inception_4e/relu_3x3"
  type: "ReLU"
  bottom: "inception_4e/3x3"
  top: "inception_4e/3x3"
}
layer {
  name: "inception_4e/5x5_reduce"
  type: "Convolution"
  bottom: "inception_4d/output"
  top: "inception_4e/5x5_reduce"
  param {
    lr_mult: 1
    decay_mult: 1
  }
  param {
    lr_mult: 2
    decay_mult: 0
  }
  convolution_param {
    num_output: 32
    kernel_size: 1
    weight_filler {
      type: "xavier"
      std: 0.2
    }
    bias_filler {
      type: "constant"
      value: 0.2
    }
  }
}
layer {
  name: "inception_4e/relu_5x5_reduce"
  type: "ReLU"
  bottom: "inception_4e/5x5_reduce"
  top: "inception_4e/5x5_reduce"
}
layer {
  name: "inception_4e/5x5"
  type: "Convolution"
  bottom: "inception_4e/5x5_reduce"
  top: "inception_4e/5x5"
  param {
    lr_mult: 1
    decay_mult: 1
  }
  param {
    lr_mult: 2
    decay_mult: 0
  }
  convolution_param {
    num_output: 128
    pad: 2
    kernel_size: 5
    weight_filler {
      type: "xavier"
      std: 0.03
    }
    bias_filler {
      type: "constant"
      value: 0.2
    }
  }
}
layer {
  name: "inception_4e/relu_5x5"
  type: "ReLU"
  bottom: "inception_4e/5x5"
  top: "inception_4e/5x5"
}
layer {
  name: "inception_4e/pool"
  type: "Pooling"
  bottom: "inception_4d/output"
  top: "inception_4e/pool"
  pooling_param {
    pool: MAX
    kernel_size: 3
    stride: 1
    pad: 1
  }
}
layer {
  name: "inception_4e/pool_proj"
  type: "Convolution"
  bottom: "inception_4e/pool"
  top: "inception_4e/pool_proj"
  param {
    lr_mult: 1
    decay_mult: 1
  }
  param {
    lr_mult: 2
    decay_mult: 0
  }
  convolution_param {
    num_output: 128
    kernel_size: 1
    weight_filler {
      type: "xavier"
      std: 0.1
    }
    bias_filler {
      type: "constant"
      value: 0.2
    }
  }
}
layer {
  name: "inception_4e/relu_pool_proj"
  type: "ReLU"
  bottom: "inception_4e/pool_proj"
  top: "inception_4e/pool_proj"
}
layer {
  name: "inception_4e/output"
  type: "Concat"
  bottom: "inception_4e/1x1"
  bottom: "inception_4e/3x3"
  bottom: "inception_4e/5x5"
  bottom: "inception_4e/pool_proj"
  top: "inception_4e/output"
}
layer {
  name: "pool4/3x3_s2"
  type: "Pooling"
  bottom: "inception_4e/output"
  top: "pool4/3x3_s2"
  pooling_param {
    pool: MAX
    kernel_size: 3
    stride: 2
  }
}
layer {
  name: "inception_5a/1x1"
  type: "Convolution"
  bottom: "pool4/3x3_s2"
  top: "inception_5a/1x1"
  param {
    lr_mult: 1
    decay_mult: 1
  }
  param {
    lr_mult: 2
    decay_mult: 0
  }
  convolution_param {
    num_output: 256
    kernel_size: 1
    weight_filler {
      type: "xavier"
      std: 0.03
    }
    bias_filler {
      type: "constant"
      value: 0.2
    }
  }
}
layer {
  name: "inception_5a/relu_1x1"
  type: "ReLU"
  bottom: "inception_5a/1x1"
  top: "inception_5a/1x1"
}
layer {
  name: "inception_5a/3x3_reduce"
  type: "Convolution"
  bottom: "pool4/3x3_s2"
  top: "inception_5a/3x3_reduce"
  param {
    lr_mult: 1
    decay_mult: 1
  }
  param {
    lr_mult: 2
    decay_mult: 0
  }
  convolution_param {
    num_output: 160
    kernel_size: 1
    weight_filler {
      type: "xavier"
      std: 0.09
    }
    bias_filler {
      type: "constant"
      value: 0.2
    }
  }
}
layer {
  name: "inception_5a/relu_3x3_reduce"
  type: "ReLU"
  bottom: "inception_5a/3x3_reduce"
  top: "inception_5a/3x3_reduce"
}
layer {
  name: "inception_5a/3x3"
  type: "Convolution"
  bottom: "inception_5a/3x3_reduce"
  top: "inception_5a/3x3"
  param {
    lr_mult: 1
    decay_mult: 1
  }
  param {
    lr_mult: 2
    decay_mult: 0
  }
  convolution_param {
    num_output: 320
    pad: 1
    kernel_size: 3
    weight_filler {
      type: "xavier"
      std: 0.03
    }
    bias_filler {
      type: "constant"
      value: 0.2
    }
  }
}
layer {
  name: "inception_5a/relu_3x3"
  type: "ReLU"
  bottom: "inception_5a/3x3"
  top: "inception_5a/3x3"
}
layer {
  name: "inception_5a/5x5_reduce"
  type: "Convolution"
  bottom: "pool4/3x3_s2"
  top: "inception_5a/5x5_reduce"
  param {
    lr_mult: 1
    decay_mult: 1
  }
  param {
    lr_mult: 2
    decay_mult: 0
  }
  convolution_param {
    num_output: 32
    kernel_size: 1
    weight_filler {
      type: "xavier"
      std: 0.2
    }
    bias_filler {
      type: "constant"
      value: 0.2
    }
I0714 20:30:52.088641 29561 layer_factory.hpp:77] Creating layer data
I0714 20:30:52.088660 29561 net.cpp:91] Creating Layer data
I0714 20:30:52.088666 29561 net.cpp:399] data -> data
I0714 20:30:53.143919 29565 net.cpp:141] Setting up data
I0714 20:30:53.143996 29565 net.cpp:148] Top shape: 10 3 224 224 (1505280)
I0714 20:30:53.144004 29565 net.cpp:156] Memory required for data: 6021120
I0714 20:30:53.144026 29565 layer_factory.hpp:77] Creating layer conv1/7x7_s2
I0714 20:30:53.144064 29565 net.cpp:91] Creating Layer conv1/7x7_s2
I0714 20:30:53.144073 29565 net.cpp:425] conv1/7x7_s2 <- data
I0714 20:30:53.144088 29565 net.cpp:399] conv1/7x7_s2 -> conv1/7x7_s2
I0714 20:30:53.156668 29561 net.cpp:141] Setting up data
I0714 20:30:53.156718 29561 net.cpp:148] Top shape: 10 3 224 224 (1505280)
I0714 20:30:53.156725 29561 net.cpp:156] Memory required for data: 6021120
I0714 20:30:53.156736 29561 layer_factory.hpp:77] Creating layer conv1/7x7_s2
I0714 20:30:53.156769 29561 net.cpp:91] Creating Layer conv1/7x7_s2
I0714 20:30:53.156775 29561 net.cpp:425] conv1/7x7_s2 <- data
I0714 20:30:53.156787 29561 net.cpp:399] conv1/7x7_s2 -> conv1/7x7_s2
I0714 20:30:53.584102 29561 net.cpp:141] Setting up conv1/7x7_s2
I0714 20:30:53.584172 29561 net.cpp:148] Top shape: 10 64 112 112 (8028160)
I0714 20:30:53.584179 29561 net.cpp:156] Memory required for data: 38133760
I0714 20:30:53.584208 29561 layer_factory.hpp:77] Creating layer conv1/relu_7x7
I0714 20:30:53.584226 29561 net.cpp:91] Creating Layer conv1/relu_7x7
I0714 20:30:53.584233 29561 net.cpp:425] conv1/relu_7x7 <- conv1/7x7_s2
I0714 20:30:53.584242 29561 net.cpp:386] conv1/relu_7x7 -> conv1/7x7_s2 (in-place)
I0714 20:30:53.585698 29561 net.cpp:141] Setting up conv1/relu_7x7
I0714 20:30:53.585716 29561 net.cpp:148] Top shape: 10 64 112 112 (8028160)
I0714 20:30:53.585722 29561 net.cpp:156] Memory required for data: 70246400
I0714 20:30:53.585728 29561 layer_factory.hpp:77] Creating layer pool1/3x3_s2
I0714 20:30:53.585742 29561 net.cpp:91] Creating Layer pool1/3x3_s2
I0714 20:30:53.585747 29561 net.cpp:425] pool1/3x3_s2 <- conv1/7x7_s2
I0714 20:30:53.585757 29561 net.cpp:399] pool1/3x3_s2 -> pool1/3x3_s2
I0714 20:30:53.585742 29565 net.cpp:141] Setting up conv1/7x7_s2
I0714 20:30:53.585788 29565 net.cpp:148] Top shape: 10 64 112 112 (8028160)
I0714 20:30:53.585795 29565 net.cpp:156] Memory required for data: 38133760
I0714 20:30:53.585819 29565 layer_factory.hpp:77] Creating layer conv1/relu_7x7
I0714 20:30:53.585835 29565 net.cpp:91] Creating Layer conv1/relu_7x7
I0714 20:30:53.585842 29565 net.cpp:425] conv1/relu_7x7 <- conv1/7x7_s2
I0714 20:30:53.585851 29565 net.cpp:386] conv1/relu_7x7 -> conv1/7x7_s2 (in-place)
I0714 20:30:53.586586 29561 net.cpp:141] Setting up pool1/3x3_s2
I0714 20:30:53.586601 29561 net.cpp:148] Top shape: 10 64 56 56 (2007040)
I0714 20:30:53.586607 29561 net.cpp:156] Memory required for data: 78274560
I0714 20:30:53.586612 29561 layer_factory.hpp:77] Creating layer pool1/norm1
I0714 20:30:53.586630 29561 net.cpp:91] Creating Layer pool1/norm1
I0714 20:30:53.586635 29561 net.cpp:425] pool1/norm1 <- pool1/3x3_s2
I0714 20:30:53.586643 29561 net.cpp:399] pool1/norm1 -> pool1/norm1
I0714 20:30:53.586699 29565 net.cpp:141] Setting up conv1/relu_7x7
I0714 20:30:53.586716 29565 net.cpp:148] Top shape: 10 64 112 112 (8028160)
I0714 20:30:53.586721 29565 net.cpp:156] Memory required for data: 70246400
I0714 20:30:53.586727 29565 layer_factory.hpp:77] Creating layer pool1/3x3_s2
I0714 20:30:53.586740 29565 net.cpp:91] Creating Layer pool1/3x3_s2
I0714 20:30:53.586745 29565 net.cpp:425] pool1/3x3_s2 <- conv1/7x7_s2
I0714 20:30:53.586755 29565 net.cpp:399] pool1/3x3_s2 -> pool1/3x3_s2
I0714 20:30:53.587517 29565 net.cpp:141] Setting up pool1/3x3_s2
I0714 20:30:53.587533 29565 net.cpp:148] Top shape: 10 64 56 56 (2007040)
I0714 20:30:53.587538 29565 net.cpp:156] Memory required for data: 78274560
I0714 20:30:53.587544 29565 layer_factory.hpp:77] Creating layer pool1/norm1
I0714 20:30:53.587558 29565 net.cpp:91] Creating Layer pool1/norm1
I0714 20:30:53.587563 29565 net.cpp:425] pool1/norm1 <- pool1/3x3_s2
I0714 20:30:53.587571 29565 net.cpp:399] pool1/norm1 -> pool1/norm1
I0714 20:30:53.588416 29561 net.cpp:141] Setting up pool1/norm1
I0714 20:30:53.588435 29561 net.cpp:148] Top shape: 10 64 56 56 (2007040)
I0714 20:30:53.588441 29561 net.cpp:156] Memory required for data: 86302720
I0714 20:30:53.588448 29561 layer_factory.hpp:77] Creating layer conv2/3x3_reduce
I0714 20:30:53.588470 29561 net.cpp:91] Creating Layer conv2/3x3_reduce
I0714 20:30:53.588476 29561 net.cpp:425] conv2/3x3_reduce <- pool1/norm1
I0714 20:30:53.588490 29561 net.cpp:399] conv2/3x3_reduce -> conv2/3x3_reduce
I0714 20:30:53.588611 29565 net.cpp:141] Setting up pool1/norm1
I0714 20:30:53.588626 29565 net.cpp:148] Top shape: 10 64 56 56 (2007040)
I0714 20:30:53.588631 29565 net.cpp:156] Memory required for data: 86302720
I0714 20:30:53.588637 29565 layer_factory.hpp:77] Creating layer conv2/3x3_reduce
I0714 20:30:53.588657 29565 net.cpp:91] Creating Layer conv2/3x3_reduce
I0714 20:30:53.588663 29565 net.cpp:425] conv2/3x3_reduce <- pool1/norm1
I0714 20:30:53.588686 29565 net.cpp:399] conv2/3x3_reduce -> conv2/3x3_reduce
I0714 20:30:53.595680 29561 net.cpp:141] Setting up conv2/3x3_reduce
I0714 20:30:53.595701 29561 net.cpp:148] Top shape: 10 64 56 56 (2007040)
I0714 20:30:53.595707 29561 net.cpp:156] Memory required for data: 94330880
I0714 20:30:53.595721 29561 layer_factory.hpp:77] Creating layer conv2/relu_3x3_reduce
I0714 20:30:53.595733 29561 net.cpp:91] Creating Layer conv2/relu_3x3_reduce
I0714 20:30:53.595739 29561 net.cpp:425] conv2/relu_3x3_reduce <- conv2/3x3_reduce
I0714 20:30:53.595747 29561 net.cpp:386] conv2/relu_3x3_reduce -> conv2/3x3_reduce (in-place)
I0714 20:30:53.596750 29561 net.cpp:141] Setting up conv2/relu_3x3_reduce
I0714 20:30:53.596766 29561 net.cpp:148] Top shape: 10 64 56 56 (2007040)
I0714 20:30:53.596771 29561 net.cpp:156] Memory required for data: 102359040
I0714 20:30:53.596777 29561 layer_factory.hpp:77] Creating layer conv2/3x3
I0714 20:30:53.596784 29565 net.cpp:141] Setting up conv2/3x3_reduce
I0714 20:30:53.596796 29561 net.cpp:91] Creating Layer conv2/3x3
I0714 20:30:53.596801 29565 net.cpp:148] Top shape: 10 64 56 56 (2007040)
I0714 20:30:53.596802 29561 net.cpp:425] conv2/3x3 <- conv2/3x3_reduce
I0714 20:30:53.596812 29565 net.cpp:156] Memory required for data: 94330880
I0714 20:30:53.596832 29561 net.cpp:399] conv2/3x3 -> conv2/3x3
I0714 20:30:53.596837 29565 layer_factory.hpp:77] Creating layer conv2/relu_3x3_reduce
I0714 20:30:53.596853 29565 net.cpp:91] Creating Layer conv2/relu_3x3_reduce
I0714 20:30:53.596858 29565 net.cpp:425] conv2/relu_3x3_reduce <- conv2/3x3_reduce
I0714 20:30:53.596865 29565 net.cpp:386] conv2/relu_3x3_reduce -> conv2/3x3_reduce (in-place)
I0714 20:30:53.597852 29565 net.cpp:141] Setting up conv2/relu_3x3_reduce
I0714 20:30:53.597872 29565 net.cpp:148] Top shape: 10 64 56 56 (2007040)
I0714 20:30:53.597877 29565 net.cpp:156] Memory required for data: 102359040
I0714 20:30:53.597882 29565 layer_factory.hpp:77] Creating layer conv2/3x3
I0714 20:30:53.597900 29565 net.cpp:91] Creating Layer conv2/3x3
I0714 20:30:53.597908 29565 net.cpp:425] conv2/3x3 <- conv2/3x3_reduce
I0714 20:30:53.597920 29565 net.cpp:399] conv2/3x3 -> conv2/3x3
I0714 20:30:53.606603 29561 net.cpp:141] Setting up conv2/3x3
I0714 20:30:53.606626 29561 net.cpp:148] Top shape: 10 192 56 56 (6021120)
I0714 20:30:53.606632 29561 net.cpp:156] Memory required for data: 126443520
I0714 20:30:53.606647 29561 layer_factory.hpp:77] Creating layer conv2/relu_3x3
I0714 20:30:53.606658 29561 net.cpp:91] Creating Layer conv2/relu_3x3
I0714 20:30:53.606664 29561 net.cpp:425] conv2/relu_3x3 <- conv2/3x3
I0714 20:30:53.606676 29561 net.cpp:386] conv2/relu_3x3 -> conv2/3x3 (in-place)
I0714 20:30:53.607106 29561 net.cpp:141] Setting up conv2/relu_3x3
I0714 20:30:53.607122 29561 net.cpp:148] Top shape: 10 192 56 56 (6021120)
I0714 20:30:53.607128 29561 net.cpp:156] Memory required for data: 150528000
I0714 20:30:53.607133 29561 layer_factory.hpp:77] Creating layer conv2/norm2
I0714 20:30:53.607144 29561 net.cpp:91] Creating Layer conv2/norm2
I0714 20:30:53.607149 29561 net.cpp:425] conv2/norm2 <- conv2/3x3
I0714 20:30:53.607161 29561 net.cpp:399] conv2/norm2 -> conv2/norm2
I0714 20:30:53.607784 29565 net.cpp:141] Setting up conv2/3x3
I0714 20:30:53.607807 29565 net.cpp:148] Top shape: 10 192 56 56 (6021120)
I0714 20:30:53.607813 29565 net.cpp:156] Memory required for data: 126443520
I0714 20:30:53.607828 29565 layer_factory.hpp:77] Creating layer conv2/relu_3x3
I0714 20:30:53.607842 29565 net.cpp:91] Creating Layer conv2/relu_3x3
I0714 20:30:53.607847 29565 net.cpp:425] conv2/relu_3x3 <- conv2/3x3
I0714 20:30:53.607859 29565 net.cpp:386] conv2/relu_3x3 -> conv2/3x3 (in-place)
I0714 20:30:53.608139 29565 net.cpp:141] Setting up conv2/relu_3x3
I0714 20:30:53.608155 29565 net.cpp:148] Top shape: 10 192 56 56 (6021120)
I0714 20:30:53.608160 29565 net.cpp:156] Memory required for data: 150528000
I0714 20:30:53.608165 29565 layer_factory.hpp:77] Creating layer conv2/norm2
I0714 20:30:53.608175 29565 net.cpp:91] Creating Layer conv2/norm2
I0714 20:30:53.608180 29565 net.cpp:425] conv2/norm2 <- conv2/3x3
I0714 20:30:53.608192 29565 net.cpp:399] conv2/norm2 -> conv2/norm2
I0714 20:30:53.609127 29561 net.cpp:141] Setting up conv2/norm2
I0714 20:30:53.609145 29561 net.cpp:148] Top shape: 10 192 56 56 (6021120)
I0714 20:30:53.609150 29561 net.cpp:156] Memory required for data: 174612480
I0714 20:30:53.609156 29561 layer_factory.hpp:77] Creating layer pool2/3x3_s2
I0714 20:30:53.609169 29561 net.cpp:91] Creating Layer pool2/3x3_s2
I0714 20:30:53.609175 29561 net.cpp:425] pool2/3x3_s2 <- conv2/norm2
I0714 20:30:53.609184 29561 net.cpp:399] pool2/3x3_s2 -> pool2/3x3_s2
I0714 20:30:53.609366 29561 net.cpp:141] Setting up pool2/3x3_s2
I0714 20:30:53.609378 29561 net.cpp:148] Top shape: 10 192 28 28 (1505280)
I0714 20:30:53.609383 29561 net.cpp:156] Memory required for data: 180633600
I0714 20:30:53.609388 29561 layer_factory.hpp:77] Creating layer pool2/3x3_s2_pool2/3x3_s2_0_split
I0714 20:30:53.609407 29561 net.cpp:91] Creating Layer pool2/3x3_s2_pool2/3x3_s2_0_split
I0714 20:30:53.609413 29561 net.cpp:425] pool2/3x3_s2_pool2/3x3_s2_0_split <- pool2/3x3_s2
I0714 20:30:53.609421 29561 net.cpp:399] pool2/3x3_s2_pool2/3x3_s2_0_split -> pool2/3x3_s2_pool2/3x3_s2_0_split_0
I0714 20:30:53.609418 29565 net.cpp:141] Setting up conv2/norm2
I0714 20:30:53.609432 29561 net.cpp:399] pool2/3x3_s2_pool2/3x3_s2_0_split -> pool2/3x3_s2_pool2/3x3_s2_0_split_1
I0714 20:30:53.609436 29565 net.cpp:148] Top shape: 10 192 56 56 (6021120)
I0714 20:30:53.609442 29561 net.cpp:399] pool2/3x3_s2_pool2/3x3_s2_0_split -> pool2/3x3_s2_pool2/3x3_s2_0_split_2
I0714 20:30:53.609442 29565 net.cpp:156] Memory required for data: 174612480
I0714 20:30:53.609455 29561 net.cpp:399] pool2/3x3_s2_pool2/3x3_s2_0_split -> pool2/3x3_s2_pool2/3x3_s2_0_split_3
I0714 20:30:53.609460 29565 layer_factory.hpp:77] Creating layer pool2/3x3_s2
I0714 20:30:53.609475 29565 net.cpp:91] Creating Layer pool2/3x3_s2
I0714 20:30:53.609482 29565 net.cpp:425] pool2/3x3_s2 <- conv2/norm2
I0714 20:30:53.609489 29565 net.cpp:399] pool2/3x3_s2 -> pool2/3x3_s2
I0714 20:30:53.609752 29561 net.cpp:141] Setting up pool2/3x3_s2_pool2/3x3_s2_0_split
I0714 20:30:53.609766 29561 net.cpp:148] Top shape: 10 192 28 28 (1505280)
I0714 20:30:53.609772 29561 net.cpp:148] Top shape: 10 192 28 28 (1505280)
I0714 20:30:53.609778 29561 net.cpp:148] Top shape: 10 192 28 28 (1505280)
I0714 20:30:53.609779 29565 net.cpp:141] Setting up pool2/3x3_s2
I0714 20:30:53.609784 29561 net.cpp:148] Top shape: 10 192 28 28 (1505280)
I0714 20:30:53.609797 29565 net.cpp:148] Top shape: 10 192 28 28 (1505280)
I0714 20:30:53.609799 29561 net.cpp:156] Memory required for data: 204718080
I0714 20:30:53.609802 29565 net.cpp:156] Memory required for data: 180633600
I0714 20:30:53.609807 29561 layer_factory.hpp:77] Creating layer inception_3a/1x1
I0714 20:30:53.609809 29565 layer_factory.hpp:77] Creating layer pool2/3x3_s2_pool2/3x3_s2_0_split
I0714 20:30:53.609823 29565 net.cpp:91] Creating Layer pool2/3x3_s2_pool2/3x3_s2_0_split
I0714 20:30:53.609829 29565 net.cpp:425] pool2/3x3_s2_pool2/3x3_s2_0_split <- pool2/3x3_s2
I0714 20:30:53.609829 29561 net.cpp:91] Creating Layer inception_3a/1x1
I0714 20:30:53.609841 29565 net.cpp:399] pool2/3x3_s2_pool2/3x3_s2_0_split -> pool2/3x3_s2_pool2/3x3_s2_0_split_0
I0714 20:30:53.609845 29561 net.cpp:425] inception_3a/1x1 <- pool2/3x3_s2_pool2/3x3_s2_0_split_0
I0714 20:30:53.609853 29565 net.cpp:399] pool2/3x3_s2_pool2/3x3_s2_0_split -> pool2/3x3_s2_pool2/3x3_s2_0_split_1
I0714 20:30:53.609863 29565 net.cpp:399] pool2/3x3_s2_pool2/3x3_s2_0_split -> pool2/3x3_s2_pool2/3x3_s2_0_split_2
I0714 20:30:53.609871 29565 net.cpp:399] pool2/3x3_s2_pool2/3x3_s2_0_split -> pool2/3x3_s2_pool2/3x3_s2_0_split_3
I0714 20:30:53.609874 29561 net.cpp:399] inception_3a/1x1 -> inception_3a/1x1
I0714 20:30:53.610569 29565 net.cpp:141] Setting up pool2/3x3_s2_pool2/3x3_s2_0_split
I0714 20:30:53.610582 29565 net.cpp:148] Top shape: 10 192 28 28 (1505280)
I0714 20:30:53.610589 29565 net.cpp:148] Top shape: 10 192 28 28 (1505280)
I0714 20:30:53.610595 29565 net.cpp:148] Top shape: 10 192 28 28 (1505280)
I0714 20:30:53.610600 29565 net.cpp:148] Top shape: 10 192 28 28 (1505280)
I0714 20:30:53.610605 29565 net.cpp:156] Memory required for data: 204718080
I0714 20:30:53.610610 29565 layer_factory.hpp:77] Creating layer inception_3a/1x1
I0714 20:30:53.610635 29565 net.cpp:91] Creating Layer inception_3a/1x1
I0714 20:30:53.610641 29565 net.cpp:425] inception_3a/1x1 <- pool2/3x3_s2_pool2/3x3_s2_0_split_0
I0714 20:30:53.610651 29565 net.cpp:399] inception_3a/1x1 -> inception_3a/1x1
I0714 20:30:53.619020 29561 net.cpp:141] Setting up inception_3a/1x1
I0714 20:30:53.619058 29561 net.cpp:148] Top shape: 10 64 28 28 (501760)
I0714 20:30:53.619065 29561 net.cpp:156] Memory required for data: 206725120
I0714 20:30:53.619081 29561 layer_factory.hpp:77] Creating layer inception_3a/relu_1x1
I0714 20:30:53.619096 29561 net.cpp:91] Creating Layer inception_3a/relu_1x1
I0714 20:30:53.619102 29561 net.cpp:425] inception_3a/relu_1x1 <- inception_3a/1x1
I0714 20:30:53.619135 29561 net.cpp:386] inception_3a/relu_1x1 -> inception_3a/1x1 (in-place)
I0714 20:30:53.619635 29561 net.cpp:141] Setting up inception_3a/relu_1x1
I0714 20:30:53.619655 29561 net.cpp:148] Top shape: 10 64 28 28 (501760)
I0714 20:30:53.619660 29561 net.cpp:156] Memory required for data: 208732160
I0714 20:30:53.619666 29561 layer_factory.hpp:77] Creating layer inception_3a/3x3_reduce
I0714 20:30:53.619688 29561 net.cpp:91] Creating Layer inception_3a/3x3_reduce
I0714 20:30:53.619693 29561 net.cpp:425] inception_3a/3x3_reduce <- pool2/3x3_s2_pool2/3x3_s2_0_split_1
I0714 20:30:53.619704 29561 net.cpp:399] inception_3a/3x3_reduce -> inception_3a/3x3_reduce
I0714 20:30:53.621693 29565 net.cpp:141] Setting up inception_3a/1x1
I0714 20:30:53.621721 29565 net.cpp:148] Top shape: 10 64 28 28 (501760)
I0714 20:30:53.621726 29565 net.cpp:156] Memory required for data: 206725120
I0714 20:30:53.621739 29565 layer_factory.hpp:77] Creating layer inception_3a/relu_1x1
I0714 20:30:53.621750 29565 net.cpp:91] Creating Layer inception_3a/relu_1x1
I0714 20:30:53.621757 29565 net.cpp:425] inception_3a/relu_1x1 <- inception_3a/1x1
I0714 20:30:53.621779 29565 net.cpp:386] inception_3a/relu_1x1 -> inception_3a/1x1 (in-place)
I0714 20:30:53.622648 29565 net.cpp:141] Setting up inception_3a/relu_1x1
I0714 20:30:53.622664 29565 net.cpp:148] Top shape: 10 64 28 28 (501760)
I0714 20:30:53.622670 29565 net.cpp:156] Memory required for data: 208732160
I0714 20:30:53.622675 29565 layer_factory.hpp:77] Creating layer inception_3a/3x3_reduce
I0714 20:30:53.622707 29565 net.cpp:91] Creating Layer inception_3a/3x3_reduce
I0714 20:30:53.622715 29565 net.cpp:425] inception_3a/3x3_reduce <- pool2/3x3_s2_pool2/3x3_s2_0_split_1
I0714 20:30:53.622726 29565 net.cpp:399] inception_3a/3x3_reduce -> inception_3a/3x3_reduce
I0714 20:30:53.629261 29561 net.cpp:141] Setting up inception_3a/3x3_reduce
I0714 20:30:53.629282 29561 net.cpp:148] Top shape: 10 96 28 28 (752640)
I0714 20:30:53.629290 29561 net.cpp:156] Memory required for data: 211742720
I0714 20:30:53.629307 29561 layer_factory.hpp:77] Creating layer inception_3a/relu_3x3_reduce
I0714 20:30:53.629317 29561 net.cpp:91] Creating Layer inception_3a/relu_3x3_reduce
I0714 20:30:53.629323 29561 net.cpp:425] inception_3a/relu_3x3_reduce <- inception_3a/3x3_reduce
I0714 20:30:53.629329 29561 net.cpp:386] inception_3a/relu_3x3_reduce -> inception_3a/3x3_reduce (in-place)
I0714 20:30:53.629614 29561 net.cpp:141] Setting up inception_3a/relu_3x3_reduce
I0714 20:30:53.629626 29561 net.cpp:148] Top shape: 10 96 28 28 (752640)
I0714 20:30:53.629631 29561 net.cpp:156] Memory required for data: 214753280
I0714 20:30:53.629637 29561 layer_factory.hpp:77] Creating layer inception_3a/3x3
I0714 20:30:53.629657 29561 net.cpp:91] Creating Layer inception_3a/3x3
I0714 20:30:53.629662 29561 net.cpp:425] inception_3a/3x3 <- inception_3a/3x3_reduce
I0714 20:30:53.629676 29561 net.cpp:399] inception_3a/3x3 -> inception_3a/3x3
I0714 20:30:53.630918 29565 net.cpp:141] Setting up inception_3a/3x3_reduce
I0714 20:30:53.630942 29565 net.cpp:148] Top shape: 10 96 28 28 (752640)
I0714 20:30:53.630949 29565 net.cpp:156] Memory required for data: 211742720
I0714 20:30:53.630965 29565 layer_factory.hpp:77] Creating layer inception_3a/relu_3x3_reduce
I0714 20:30:53.630975 29565 net.cpp:91] Creating Layer inception_3a/relu_3x3_reduce
I0714 20:30:53.630981 29565 net.cpp:425] inception_3a/relu_3x3_reduce <- inception_3a/3x3_reduce
I0714 20:30:53.630990 29565 net.cpp:386] inception_3a/relu_3x3_reduce -> inception_3a/3x3_reduce (in-place)
I0714 20:30:53.631273 29565 net.cpp:141] Setting up inception_3a/relu_3x3_reduce
I0714 20:30:53.631284 29565 net.cpp:148] Top shape: 10 96 28 28 (752640)
I0714 20:30:53.631289 29565 net.cpp:156] Memory required for data: 214753280
I0714 20:30:53.631295 29565 layer_factory.hpp:77] Creating layer inception_3a/3x3
I0714 20:30:53.631319 29565 net.cpp:91] Creating Layer inception_3a/3x3
I0714 20:30:53.631325 29565 net.cpp:425] inception_3a/3x3 <- inception_3a/3x3_reduce
I0714 20:30:53.631335 29565 net.cpp:399] inception_3a/3x3 -> inception_3a/3x3
I0714 20:30:53.635082 29561 net.cpp:141] Setting up inception_3a/3x3
I0714 20:30:53.635102 29561 net.cpp:148] Top shape: 10 128 28 28 (1003520)
I0714 20:30:53.635108 29561 net.cpp:156] Memory required for data: 218767360
I0714 20:30:53.635118 29561 layer_factory.hpp:77] Creating layer inception_3a/relu_3x3
I0714 20:30:53.635128 29561 net.cpp:91] Creating Layer inception_3a/relu_3x3
I0714 20:30:53.635134 29561 net.cpp:425] inception_3a/relu_3x3 <- inception_3a/3x3
I0714 20:30:53.635145 29561 net.cpp:386] inception_3a/relu_3x3 -> inception_3a/3x3 (in-place)
I0714 20:30:53.636168 29561 net.cpp:141] Setting up inception_3a/relu_3x3
I0714 20:30:53.636185 29561 net.cpp:148] Top shape: 10 128 28 28 (1003520)
I0714 20:30:53.636190 29561 net.cpp:156] Memory required for data: 222781440
I0714 20:30:53.636196 29561 layer_factory.hpp:77] Creating layer inception_3a/5x5_reduce
I0714 20:30:53.636212 29561 net.cpp:91] Creating Layer inception_3a/5x5_reduce
I0714 20:30:53.636219 29561 net.cpp:425] inception_3a/5x5_reduce <- pool2/3x3_s2_pool2/3x3_s2_0_split_2
I0714 20:30:53.636237 29561 net.cpp:399] inception_3a/5x5_reduce -> inception_3a/5x5_reduce
I0714 20:30:53.636245 29565 net.cpp:141] Setting up inception_3a/3x3
I0714 20:30:53.636262 29565 net.cpp:148] Top shape: 10 128 28 28 (1003520)
I0714 20:30:53.636267 29565 net.cpp:156] Memory required for data: 218767360
I0714 20:30:53.636277 29565 layer_factory.hpp:77] Creating layer inception_3a/relu_3x3
I0714 20:30:53.636286 29565 net.cpp:91] Creating Layer inception_3a/relu_3x3
I0714 20:30:53.636296 29565 net.cpp:425] inception_3a/relu_3x3 <- inception_3a/3x3
I0714 20:30:53.636303 29565 net.cpp:386] inception_3a/relu_3x3 -> inception_3a/3x3 (in-place)
I0714 20:30:53.637300 29565 net.cpp:141] Setting up inception_3a/relu_3x3
I0714 20:30:53.637317 29565 net.cpp:148] Top shape: 10 128 28 28 (1003520)
I0714 20:30:53.637323 29565 net.cpp:156] Memory required for data: 222781440
I0714 20:30:53.637329 29565 layer_factory.hpp:77] Creating layer inception_3a/5x5_reduce
I0714 20:30:53.637346 29565 net.cpp:91] Creating Layer inception_3a/5x5_reduce
I0714 20:30:53.637353 29565 net.cpp:425] inception_3a/5x5_reduce <- pool2/3x3_s2_pool2/3x3_s2_0_split_2
I0714 20:30:53.637367 29565 net.cpp:399] inception_3a/5x5_reduce -> inception_3a/5x5_reduce
I0714 20:30:53.642177 29561 net.cpp:141] Setting up inception_3a/5x5_reduce
I0714 20:30:53.642199 29561 net.cpp:148] Top shape: 10 16 28 28 (125440)
I0714 20:30:53.642205 29561 net.cpp:156] Memory required for data: 223283200
I0714 20:30:53.642216 29561 layer_factory.hpp:77] Creating layer inception_3a/relu_5x5_reduce
I0714 20:30:53.642227 29561 net.cpp:91] Creating Layer inception_3a/relu_5x5_reduce
I0714 20:30:53.642233 29561 net.cpp:425] inception_3a/relu_5x5_reduce <- inception_3a/5x5_reduce
I0714 20:30:53.642241 29561 net.cpp:386] inception_3a/relu_5x5_reduce -> inception_3a/5x5_reduce (in-place)
I0714 20:30:53.642735 29561 net.cpp:141] Setting up inception_3a/relu_5x5_reduce
I0714 20:30:53.642750 29561 net.cpp:148] Top shape: 10 16 28 28 (125440)
I0714 20:30:53.642755 29561 net.cpp:156] Memory required for data: 223784960
I0714 20:30:53.642761 29561 layer_factory.hpp:77] Creating layer inception_3a/5x5
I0714 20:30:53.642779 29561 net.cpp:91] Creating Layer inception_3a/5x5
I0714 20:30:53.642786 29561 net.cpp:425] inception_3a/5x5 <- inception_3a/5x5_reduce
I0714 20:30:53.642796 29561 net.cpp:399] inception_3a/5x5 -> inception_3a/5x5
I0714 20:30:53.642845 29565 net.cpp:141] Setting up inception_3a/5x5_reduce
I0714 20:30:53.642866 29565 net.cpp:148] Top shape: 10 16 28 28 (125440)
I0714 20:30:53.642873 29565 net.cpp:156] Memory required for data: 223283200
I0714 20:30:53.642884 29565 layer_factory.hpp:77] Creating layer inception_3a/relu_5x5_reduce
I0714 20:30:53.642896 29565 net.cpp:91] Creating Layer inception_3a/relu_5x5_reduce
I0714 20:30:53.642904 29565 net.cpp:425] inception_3a/relu_5x5_reduce <- inception_3a/5x5_reduce
I0714 20:30:53.642911 29565 net.cpp:386] inception_3a/relu_5x5_reduce -> inception_3a/5x5_reduce (in-place)
I0714 20:30:53.643381 29565 net.cpp:141] Setting up inception_3a/relu_5x5_reduce
I0714 20:30:53.643395 29565 net.cpp:148] Top shape: 10 16 28 28 (125440)
I0714 20:30:53.643400 29565 net.cpp:156] Memory required for data: 223784960
I0714 20:30:53.643406 29565 layer_factory.hpp:77] Creating layer inception_3a/5x5
I0714 20:30:53.643424 29565 net.cpp:91] Creating Layer inception_3a/5x5
I0714 20:30:53.643431 29565 net.cpp:425] inception_3a/5x5 <- inception_3a/5x5_reduce
I0714 20:30:53.643441 29565 net.cpp:399] inception_3a/5x5 -> inception_3a/5x5
I0714 20:30:53.649454 29561 net.cpp:141] Setting up inception_3a/5x5
I0714 20:30:53.649480 29561 net.cpp:148] Top shape: 10 32 28 28 (250880)
I0714 20:30:53.649487 29561 net.cpp:156] Memory required for data: 224788480
I0714 20:30:53.649498 29561 layer_factory.hpp:77] Creating layer inception_3a/relu_5x5
I0714 20:30:53.649513 29561 net.cpp:91] Creating Layer inception_3a/relu_5x5
I0714 20:30:53.649519 29561 net.cpp:425] inception_3a/relu_5x5 <- inception_3a/5x5
I0714 20:30:53.649528 29561 net.cpp:386] inception_3a/relu_5x5 -> inception_3a/5x5 (in-place)
I0714 20:30:53.649956 29561 net.cpp:141] Setting up inception_3a/relu_5x5
I0714 20:30:53.649972 29561 net.cpp:148] Top shape: 10 32 28 28 (250880)
I0714 20:30:53.649977 29561 net.cpp:156] Memory required for data: 225792000
I0714 20:30:53.649983 29561 layer_factory.hpp:77] Creating layer inception_3a/pool
I0714 20:30:53.649996 29561 net.cpp:91] Creating Layer inception_3a/pool
I0714 20:30:53.650002 29561 net.cpp:425] inception_3a/pool <- pool2/3x3_s2_pool2/3x3_s2_0_split_3
I0714 20:30:53.650014 29561 net.cpp:399] inception_3a/pool -> inception_3a/pool
I0714 20:30:53.650583 29565 net.cpp:141] Setting up inception_3a/5x5
I0714 20:30:53.650604 29565 net.cpp:148] Top shape: 10 32 28 28 (250880)
I0714 20:30:53.650611 29565 net.cpp:156] Memory required for data: 224788480
I0714 20:30:53.650616 29561 net.cpp:141] Setting up inception_3a/pool
I0714 20:30:53.650624 29565 layer_factory.hpp:77] Creating layer inception_3a/relu_5x5
I0714 20:30:53.650629 29561 net.cpp:148] Top shape: 10 192 28 28 (1505280)
I0714 20:30:53.650635 29561 net.cpp:156] Memory required for data: 231813120
I0714 20:30:53.650640 29565 net.cpp:91] Creating Layer inception_3a/relu_5x5
I0714 20:30:53.650641 29561 layer_factory.hpp:77] Creating layer inception_3a/pool_proj
I0714 20:30:53.650646 29565 net.cpp:425] inception_3a/relu_5x5 <- inception_3a/5x5
I0714 20:30:53.650656 29565 net.cpp:386] inception_3a/relu_5x5 -> inception_3a/5x5 (in-place)
I0714 20:30:53.650661 29561 net.cpp:91] Creating Layer inception_3a/pool_proj
I0714 20:30:53.650668 29561 net.cpp:425] inception_3a/pool_proj <- inception_3a/pool
I0714 20:30:53.650681 29561 net.cpp:399] inception_3a/pool_proj -> inception_3a/pool_proj
I0714 20:30:53.651162 29565 net.cpp:141] Setting up inception_3a/relu_5x5
I0714 20:30:53.651177 29565 net.cpp:148] Top shape: 10 32 28 28 (250880)
I0714 20:30:53.651182 29565 net.cpp:156] Memory required for data: 225792000
I0714 20:30:53.651187 29565 layer_factory.hpp:77] Creating layer inception_3a/pool
I0714 20:30:53.651198 29565 net.cpp:91] Creating Layer inception_3a/pool
I0714 20:30:53.651204 29565 net.cpp:425] inception_3a/pool <- pool2/3x3_s2_pool2/3x3_s2_0_split_3
I0714 20:30:53.651217 29565 net.cpp:399] inception_3a/pool -> inception_3a/pool
I0714 20:30:53.651499 29565 net.cpp:141] Setting up inception_3a/pool
I0714 20:30:53.651510 29565 net.cpp:148] Top shape: 10 192 28 28 (1505280)
I0714 20:30:53.651515 29565 net.cpp:156] Memory required for data: 231813120
I0714 20:30:53.651520 29565 layer_factory.hpp:77] Creating layer inception_3a/pool_proj
I0714 20:30:53.651540 29565 net.cpp:91] Creating Layer inception_3a/pool_proj
I0714 20:30:53.651547 29565 net.cpp:425] inception_3a/pool_proj <- inception_3a/pool
I0714 20:30:53.651559 29565 net.cpp:399] inception_3a/pool_proj -> inception_3a/pool_proj
I0714 20:30:53.656076 29561 net.cpp:141] Setting up inception_3a/pool_proj
I0714 20:30:53.656101 29561 net.cpp:148] Top shape: 10 32 28 28 (250880)
I0714 20:30:53.656107 29561 net.cpp:156] Memory required for data: 232816640
I0714 20:30:53.656122 29561 layer_factory.hpp:77] Creating layer inception_3a/relu_pool_proj
I0714 20:30:53.656132 29561 net.cpp:91] Creating Layer inception_3a/relu_pool_proj
I0714 20:30:53.656138 29561 net.cpp:425] inception_3a/relu_pool_proj <- inception_3a/pool_proj
I0714 20:30:53.656150 29561 net.cpp:386] inception_3a/relu_pool_proj -> inception_3a/pool_proj (in-place)
I0714 20:30:53.657275 29561 net.cpp:141] Setting up inception_3a/relu_pool_proj
I0714 20:30:53.657292 29561 net.cpp:148] Top shape: 10 32 28 28 (250880)
I0714 20:30:53.657299 29561 net.cpp:156] Memory required for data: 233820160
I0714 20:30:53.657304 29561 layer_factory.hpp:77] Creating layer inception_3a/output
I0714 20:30:53.657323 29561 net.cpp:91] Creating Layer inception_3a/output
I0714 20:30:53.657330 29561 net.cpp:425] inception_3a/output <- inception_3a/1x1
I0714 20:30:53.657336 29561 net.cpp:425] inception_3a/output <- inception_3a/3x3
I0714 20:30:53.657342 29561 net.cpp:425] inception_3a/output <- inception_3a/5x5
I0714 20:30:53.657348 29561 net.cpp:425] inception_3a/output <- inception_3a/pool_proj
I0714 20:30:53.657361 29561 net.cpp:399] inception_3a/output -> inception_3a/output
I0714 20:30:53.657371 29565 net.cpp:141] Setting up inception_3a/pool_proj
I0714 20:30:53.657390 29565 net.cpp:148] Top shape: 10 32 28 28 (250880)
I0714 20:30:53.657397 29565 net.cpp:156] Memory required for data: 232816640
I0714 20:30:53.657410 29565 layer_factory.hpp:77] Creating layer inception_3a/relu_pool_proj
I0714 20:30:53.657420 29565 net.cpp:91] Creating Layer inception_3a/relu_pool_proj
I0714 20:30:53.657426 29565 net.cpp:425] inception_3a/relu_pool_proj <- inception_3a/pool_proj
I0714 20:30:53.657439 29565 net.cpp:386] inception_3a/relu_pool_proj -> inception_3a/pool_proj (in-place)
I0714 20:30:53.657451 29561 net.cpp:141] Setting up inception_3a/output
I0714 20:30:53.657464 29561 net.cpp:148] Top shape: 10 256 28 28 (2007040)
I0714 20:30:53.657469 29561 net.cpp:156] Memory required for data: 241848320
I0714 20:30:53.657474 29561 layer_factory.hpp:77] Creating layer inception_3a/output_inception_3a/output_0_split
I0714 20:30:53.657488 29561 net.cpp:91] Creating Layer inception_3a/output_inception_3a/output_0_split
I0714 20:30:53.657495 29561 net.cpp:425] inception_3a/output_inception_3a/output_0_split <- inception_3a/output
I0714 20:30:53.657501 29561 net.cpp:399] inception_3a/output_inception_3a/output_0_split -> inception_3a/output_inception_3a/output_0_split_0
I0714 20:30:53.657511 29561 net.cpp:399] inception_3a/output_inception_3a/output_0_split -> inception_3a/output_inception_3a/output_0_split_1
I0714 20:30:53.657521 29561 net.cpp:399] inception_3a/output_inception_3a/output_0_split -> inception_3a/output_inception_3a/output_0_split_2
I0714 20:30:53.657532 29561 net.cpp:399] inception_3a/output_inception_3a/output_0_split -> inception_3a/output_inception_3a/output_0_split_3
I0714 20:30:53.658404 29561 net.cpp:141] Setting up inception_3a/output_inception_3a/output_0_split
I0714 20:30:53.658418 29561 net.cpp:148] Top shape: 10 256 28 28 (2007040)
I0714 20:30:53.658426 29561 net.cpp:148] Top shape: 10 256 28 28 (2007040)
I0714 20:30:53.658423 29565 net.cpp:141] Setting up inception_3a/relu_pool_proj
I0714 20:30:53.658432 29561 net.cpp:148] Top shape: 10 256 28 28 (2007040)
I0714 20:30:53.658439 29565 net.cpp:148] Top shape: 10 32 28 28 (250880)
I0714 20:30:53.658440 29561 net.cpp:148] Top shape: 10 256 28 28 (2007040)
I0714 20:30:53.658449 29565 net.cpp:156] Memory required for data: 233820160
I0714 20:30:53.658458 29561 net.cpp:156] Memory required for data: 273960960
I0714 20:30:53.658466 29565 layer_factory.hpp:77] Creating layer inception_3a/output
I0714 20:30:53.658470 29561 layer_factory.hpp:77] Creating layer inception_3b/1x1
I0714 20:30:53.658478 29565 net.cpp:91] Creating Layer inception_3a/output
I0714 20:30:53.658485 29565 net.cpp:425] inception_3a/output <- inception_3a/1x1
I0714 20:30:53.658490 29561 net.cpp:91] Creating Layer inception_3b/1x1
I0714 20:30:53.658493 29565 net.cpp:425] inception_3a/output <- inception_3a/3x3
I0714 20:30:53.658498 29561 net.cpp:425] inception_3b/1x1 <- inception_3a/output_inception_3a/output_0_split_0
I0714 20:30:53.658500 29565 net.cpp:425] inception_3a/output <- inception_3a/5x5
I0714 20:30:53.658506 29565 net.cpp:425] inception_3a/output <- inception_3a/pool_proj
I0714 20:30:53.658509 29561 net.cpp:399] inception_3b/1x1 -> inception_3b/1x1
I0714 20:30:53.658519 29565 net.cpp:399] inception_3a/output -> inception_3a/output
I0714 20:30:53.658674 29565 net.cpp:141] Setting up inception_3a/output
I0714 20:30:53.658695 29565 net.cpp:148] Top shape: 10 256 28 28 (2007040)
I0714 20:30:53.658701 29565 net.cpp:156] Memory required for data: 241848320
I0714 20:30:53.658706 29565 layer_factory.hpp:77] Creating layer inception_3a/output_inception_3a/output_0_split
I0714 20:30:53.658721 29565 net.cpp:91] Creating Layer inception_3a/output_inception_3a/output_0_split
I0714 20:30:53.658727 29565 net.cpp:425] inception_3a/output_inception_3a/output_0_split <- inception_3a/output
I0714 20:30:53.658735 29565 net.cpp:399] inception_3a/output_inception_3a/output_0_split -> inception_3a/output_inception_3a/output_0_split_0
I0714 20:30:53.658746 29565 net.cpp:399] inception_3a/output_inception_3a/output_0_split -> inception_3a/output_inception_3a/output_0_split_1
I0714 20:30:53.658761 29565 net.cpp:399] inception_3a/output_inception_3a/output_0_split -> inception_3a/output_inception_3a/output_0_split_2
I0714 20:30:53.658771 29565 net.cpp:399] inception_3a/output_inception_3a/output_0_split -> inception_3a/output_inception_3a/output_0_split_3
I0714 20:30:53.659245 29565 net.cpp:141] Setting up inception_3a/output_inception_3a/output_0_split
I0714 20:30:53.659258 29565 net.cpp:148] Top shape: 10 256 28 28 (2007040)
I0714 20:30:53.659265 29565 net.cpp:148] Top shape: 10 256 28 28 (2007040)
I0714 20:30:53.659271 29565 net.cpp:148] Top shape: 10 256 28 28 (2007040)
I0714 20:30:53.659276 29565 net.cpp:148] Top shape: 10 256 28 28 (2007040)
I0714 20:30:53.659281 29565 net.cpp:156] Memory required for data: 273960960
I0714 20:30:53.659286 29565 layer_factory.hpp:77] Creating layer inception_3b/1x1
I0714 20:30:53.659304 29565 net.cpp:91] Creating Layer inception_3b/1x1
I0714 20:30:53.659310 29565 net.cpp:425] inception_3b/1x1 <- inception_3a/output_inception_3a/output_0_split_0
I0714 20:30:53.659320 29565 net.cpp:399] inception_3b/1x1 -> inception_3b/1x1
I0714 20:30:53.663774 29561 net.cpp:141] Setting up inception_3b/1x1
I0714 20:30:53.663794 29561 net.cpp:148] Top shape: 10 128 28 28 (1003520)
I0714 20:30:53.663800 29561 net.cpp:156] Memory required for data: 277975040
I0714 20:30:53.663810 29561 layer_factory.hpp:77] Creating layer inception_3b/relu_1x1
I0714 20:30:53.663821 29561 net.cpp:91] Creating Layer inception_3b/relu_1x1
I0714 20:30:53.663828 29561 net.cpp:425] inception_3b/relu_1x1 <- inception_3b/1x1
I0714 20:30:53.663836 29561 net.cpp:386] inception_3b/relu_1x1 -> inception_3b/1x1 (in-place)
I0714 20:30:53.664343 29561 net.cpp:141] Setting up inception_3b/relu_1x1
I0714 20:30:53.664360 29561 net.cpp:148] Top shape: 10 128 28 28 (1003520)
I0714 20:30:53.664364 29561 net.cpp:156] Memory required for data: 281989120
I0714 20:30:53.664371 29561 layer_factory.hpp:77] Creating layer inception_3b/3x3_reduce
I0714 20:30:53.664391 29561 net.cpp:91] Creating Layer inception_3b/3x3_reduce
I0714 20:30:53.664397 29561 net.cpp:425] inception_3b/3x3_reduce <- inception_3a/output_inception_3a/output_0_split_1
I0714 20:30:53.664407 29561 net.cpp:399] inception_3b/3x3_reduce -> inception_3b/3x3_reduce
I0714 20:30:53.664443 29565 net.cpp:141] Setting up inception_3b/1x1
I0714 20:30:53.664460 29565 net.cpp:148] Top shape: 10 128 28 28 (1003520)
I0714 20:30:53.664465 29565 net.cpp:156] Memory required for data: 277975040
I0714 20:30:53.664476 29565 layer_factory.hpp:77] Creating layer inception_3b/relu_1x1
I0714 20:30:53.664489 29565 net.cpp:91] Creating Layer inception_3b/relu_1x1
I0714 20:30:53.664495 29565 net.cpp:425] inception_3b/relu_1x1 <- inception_3b/1x1
I0714 20:30:53.664504 29565 net.cpp:386] inception_3b/relu_1x1 -> inception_3b/1x1 (in-place)
I0714 20:30:53.664991 29565 net.cpp:141] Setting up inception_3b/relu_1x1
I0714 20:30:53.665004 29565 net.cpp:148] Top shape: 10 128 28 28 (1003520)
I0714 20:30:53.665009 29565 net.cpp:156] Memory required for data: 281989120
I0714 20:30:53.665017 29565 layer_factory.hpp:77] Creating layer inception_3b/3x3_reduce
I0714 20:30:53.665038 29565 net.cpp:91] Creating Layer inception_3b/3x3_reduce
I0714 20:30:53.665045 29565 net.cpp:425] inception_3b/3x3_reduce <- inception_3a/output_inception_3a/output_0_split_1
I0714 20:30:53.665055 29565 net.cpp:399] inception_3b/3x3_reduce -> inception_3b/3x3_reduce
I0714 20:30:53.669219 29561 net.cpp:141] Setting up inception_3b/3x3_reduce
I0714 20:30:53.669239 29561 net.cpp:148] Top shape: 10 128 28 28 (1003520)
I0714 20:30:53.669245 29561 net.cpp:156] Memory required for data: 286003200
I0714 20:30:53.669255 29561 layer_factory.hpp:77] Creating layer inception_3b/relu_3x3_reduce
I0714 20:30:53.669265 29561 net.cpp:91] Creating Layer inception_3b/relu_3x3_reduce
I0714 20:30:53.669271 29561 net.cpp:425] inception_3b/relu_3x3_reduce <- inception_3b/3x3_reduce
I0714 20:30:53.669283 29561 net.cpp:386] inception_3b/relu_3x3_reduce -> inception_3b/3x3_reduce (in-place)
I0714 20:30:53.669607 29565 net.cpp:141] Setting up inception_3b/3x3_reduce
I0714 20:30:53.669625 29565 net.cpp:148] Top shape: 10 128 28 28 (1003520)
I0714 20:30:53.669630 29565 net.cpp:156] Memory required for data: 286003200
I0714 20:30:53.669641 29565 layer_factory.hpp:77] Creating layer inception_3b/relu_3x3_reduce
I0714 20:30:53.669651 29565 net.cpp:91] Creating Layer inception_3b/relu_3x3_reduce
I0714 20:30:53.669656 29565 net.cpp:425] inception_3b/relu_3x3_reduce <- inception_3b/3x3_reduce
I0714 20:30:53.669669 29565 net.cpp:386] inception_3b/relu_3x3_reduce -> inception_3b/3x3_reduce (in-place)
I0714 20:30:53.669682 29561 net.cpp:141] Setting up inception_3b/relu_3x3_reduce
I0714 20:30:53.669698 29561 net.cpp:148] Top shape: 10 128 28 28 (1003520)
I0714 20:30:53.669703 29561 net.cpp:156] Memory required for data: 290017280
I0714 20:30:53.669708 29561 layer_factory.hpp:77] Creating layer inception_3b/3x3
I0714 20:30:53.669737 29561 net.cpp:91] Creating Layer inception_3b/3x3
I0714 20:30:53.669744 29561 net.cpp:425] inception_3b/3x3 <- inception_3b/3x3_reduce
I0714 20:30:53.669754 29561 net.cpp:399] inception_3b/3x3 -> inception_3b/3x3
I0714 20:30:53.670162 29565 net.cpp:141] Setting up inception_3b/relu_3x3_reduce
I0714 20:30:53.670178 29565 net.cpp:148] Top shape: 10 128 28 28 (1003520)
I0714 20:30:53.670183 29565 net.cpp:156] Memory required for data: 290017280
I0714 20:30:53.670189 29565 layer_factory.hpp:77] Creating layer inception_3b/3x3
I0714 20:30:53.670208 29565 net.cpp:91] Creating Layer inception_3b/3x3
I0714 20:30:53.670215 29565 net.cpp:425] inception_3b/3x3 <- inception_3b/3x3_reduce
I0714 20:30:53.670225 29565 net.cpp:399] inception_3b/3x3 -> inception_3b/3x3
I0714 20:30:53.678369 29561 net.cpp:141] Setting up inception_3b/3x3
I0714 20:30:53.678390 29561 net.cpp:148] Top shape: 10 192 28 28 (1505280)
I0714 20:30:53.678396 29561 net.cpp:156] Memory required for data: 296038400
I0714 20:30:53.678406 29561 layer_factory.hpp:77] Creating layer inception_3b/relu_3x3
I0714 20:30:53.678423 29561 net.cpp:91] Creating Layer inception_3b/relu_3x3
I0714 20:30:53.678431 29561 net.cpp:425] inception_3b/relu_3x3 <- inception_3b/3x3
I0714 20:30:53.678438 29561 net.cpp:386] inception_3b/relu_3x3 -> inception_3b/3x3 (in-place)
I0714 20:30:53.679574 29561 net.cpp:141] Setting up inception_3b/relu_3x3
I0714 20:30:53.679594 29561 net.cpp:148] Top shape: 10 192 28 28 (1505280)
I0714 20:30:53.679600 29561 net.cpp:156] Memory required for data: 302059520
I0714 20:30:53.679605 29561 layer_factory.hpp:77] Creating layer inception_3b/5x5_reduce
I0714 20:30:53.679626 29561 net.cpp:91] Creating Layer inception_3b/5x5_reduce
I0714 20:30:53.679633 29561 net.cpp:425] inception_3b/5x5_reduce <- inception_3a/output_inception_3a/output_0_split_2
I0714 20:30:53.679644 29561 net.cpp:399] inception_3b/5x5_reduce -> inception_3b/5x5_reduce
I0714 20:30:53.679700 29565 net.cpp:141] Setting up inception_3b/3x3
I0714 20:30:53.679718 29565 net.cpp:148] Top shape: 10 192 28 28 (1505280)
I0714 20:30:53.679723 29565 net.cpp:156] Memory required for data: 296038400
I0714 20:30:53.679733 29565 layer_factory.hpp:77] Creating layer inception_3b/relu_3x3
I0714 20:30:53.679750 29565 net.cpp:91] Creating Layer inception_3b/relu_3x3
I0714 20:30:53.679757 29565 net.cpp:425] inception_3b/relu_3x3 <- inception_3b/3x3
I0714 20:30:53.679765 29565 net.cpp:386] inception_3b/relu_3x3 -> inception_3b/3x3 (in-place)
I0714 20:30:53.680781 29565 net.cpp:141] Setting up inception_3b/relu_3x3
I0714 20:30:53.680802 29565 net.cpp:148] Top shape: 10 192 28 28 (1505280)
I0714 20:30:53.680809 29565 net.cpp:156] Memory required for data: 302059520
I0714 20:30:53.680814 29565 layer_factory.hpp:77] Creating layer inception_3b/5x5_reduce
I0714 20:30:53.680833 29565 net.cpp:91] Creating Layer inception_3b/5x5_reduce
I0714 20:30:53.680840 29565 net.cpp:425] inception_3b/5x5_reduce <- inception_3a/output_inception_3a/output_0_split_2
I0714 20:30:53.680850 29565 net.cpp:399] inception_3b/5x5_reduce -> inception_3b/5x5_reduce
I0714 20:30:53.685510 29561 net.cpp:141] Setting up inception_3b/5x5_reduce
I0714 20:30:53.685533 29561 net.cpp:148] Top shape: 10 32 28 28 (250880)
I0714 20:30:53.685540 29561 net.cpp:156] Memory required for data: 303063040
I0714 20:30:53.685550 29561 layer_factory.hpp:77] Creating layer inception_3b/relu_5x5_reduce
I0714 20:30:53.685560 29561 net.cpp:91] Creating Layer inception_3b/relu_5x5_reduce
I0714 20:30:53.685567 29561 net.cpp:425] inception_3b/relu_5x5_reduce <- inception_3b/5x5_reduce
I0714 20:30:53.685575 29561 net.cpp:386] inception_3b/relu_5x5_reduce -> inception_3b/5x5_reduce (in-place)
I0714 20:30:53.686063 29561 net.cpp:141] Setting up inception_3b/relu_5x5_reduce
I0714 20:30:53.686079 29561 net.cpp:148] Top shape: 10 32 28 28 (250880)
I0714 20:30:53.686084 29561 net.cpp:156] Memory required for data: 304066560
I0714 20:30:53.686089 29561 layer_factory.hpp:77] Creating layer inception_3b/5x5
I0714 20:30:53.686106 29561 net.cpp:91] Creating Layer inception_3b/5x5
I0714 20:30:53.686112 29561 net.cpp:425] inception_3b/5x5 <- inception_3b/5x5_reduce
I0714 20:30:53.686126 29561 net.cpp:399] inception_3b/5x5 -> inception_3b/5x5
I0714 20:30:53.686166 29565 net.cpp:141] Setting up inception_3b/5x5_reduce
I0714 20:30:53.686184 29565 net.cpp:148] Top shape: 10 32 28 28 (250880)
I0714 20:30:53.686190 29565 net.cpp:156] Memory required for data: 303063040
I0714 20:30:53.686200 29565 layer_factory.hpp:77] Creating layer inception_3b/relu_5x5_reduce
I0714 20:30:53.686210 29565 net.cpp:91] Creating Layer inception_3b/relu_5x5_reduce
I0714 20:30:53.686218 29565 net.cpp:425] inception_3b/relu_5x5_reduce <- inception_3b/5x5_reduce
I0714 20:30:53.686225 29565 net.cpp:386] inception_3b/relu_5x5_reduce -> inception_3b/5x5_reduce (in-place)
I0714 20:30:53.686738 29565 net.cpp:141] Setting up inception_3b/relu_5x5_reduce
I0714 20:30:53.686753 29565 net.cpp:148] Top shape: 10 32 28 28 (250880)
I0714 20:30:53.686758 29565 net.cpp:156] Memory required for data: 304066560
I0714 20:30:53.686764 29565 layer_factory.hpp:77] Creating layer inception_3b/5x5
I0714 20:30:53.686780 29565 net.cpp:91] Creating Layer inception_3b/5x5
I0714 20:30:53.686787 29565 net.cpp:425] inception_3b/5x5 <- inception_3b/5x5_reduce
I0714 20:30:53.686801 29565 net.cpp:399] inception_3b/5x5 -> inception_3b/5x5
I0714 20:30:53.694336 29561 net.cpp:141] Setting up inception_3b/5x5
I0714 20:30:53.694357 29561 net.cpp:148] Top shape: 10 96 28 28 (752640)
I0714 20:30:53.694362 29561 net.cpp:156] Memory required for data: 307077120
I0714 20:30:53.694372 29561 layer_factory.hpp:77] Creating layer inception_3b/relu_5x5
I0714 20:30:53.694386 29561 net.cpp:91] Creating Layer inception_3b/relu_5x5
I0714 20:30:53.694393 29561 net.cpp:425] inception_3b/relu_5x5 <- inception_3b/5x5
I0714 20:30:53.694402 29561 net.cpp:386] inception_3b/relu_5x5 -> inception_3b/5x5 (in-place)
I0714 20:30:53.694763 29565 net.cpp:141] Setting up inception_3b/5x5
I0714 20:30:53.694780 29565 net.cpp:148] Top shape: 10 96 28 28 (752640)
I0714 20:30:53.694787 29565 net.cpp:156] Memory required for data: 307077120
I0714 20:30:53.694797 29565 layer_factory.hpp:77] Creating layer inception_3b/relu_5x5
I0714 20:30:53.694811 29565 net.cpp:91] Creating Layer inception_3b/relu_5x5
I0714 20:30:53.694818 29565 net.cpp:425] inception_3b/relu_5x5 <- inception_3b/5x5
I0714 20:30:53.694826 29565 net.cpp:386] inception_3b/relu_5x5 -> inception_3b/5x5 (in-place)
I0714 20:30:53.694972 29561 net.cpp:141] Setting up inception_3b/relu_5x5
I0714 20:30:53.694988 29561 net.cpp:148] Top shape: 10 96 28 28 (752640)
I0714 20:30:53.694993 29561 net.cpp:156] Memory required for data: 310087680
I0714 20:30:53.694998 29561 layer_factory.hpp:77] Creating layer inception_3b/pool
I0714 20:30:53.695008 29561 net.cpp:91] Creating Layer inception_3b/pool
I0714 20:30:53.695014 29561 net.cpp:425] inception_3b/pool <- inception_3a/output_inception_3a/output_0_split_3
I0714 20:30:53.695030 29561 net.cpp:399] inception_3b/pool -> inception_3b/pool
I0714 20:30:53.695222 29561 net.cpp:141] Setting up inception_3b/pool
I0714 20:30:53.695235 29561 net.cpp:148] Top shape: 10 256 28 28 (2007040)
I0714 20:30:53.695240 29561 net.cpp:156] Memory required for data: 318115840
I0714 20:30:53.695245 29561 layer_factory.hpp:77] Creating layer inception_3b/pool_proj
I0714 20:30:53.695264 29565 net.cpp:141] Setting up inception_3b/relu_5x5
I0714 20:30:53.695271 29561 net.cpp:91] Creating Layer inception_3b/pool_proj
I0714 20:30:53.695278 29565 net.cpp:148] Top shape: 10 96 28 28 (752640)
I0714 20:30:53.695287 29565 net.cpp:156] Memory required for data: 310087680
I0714 20:30:53.695279 29561 net.cpp:425] inception_3b/pool_proj <- inception_3b/pool
I0714 20:30:53.695296 29565 layer_factory.hpp:77] Creating layer inception_3b/pool
I0714 20:30:53.695312 29561 net.cpp:399] inception_3b/pool_proj -> inception_3b/pool_proj
I0714 20:30:53.695317 29565 net.cpp:91] Creating Layer inception_3b/pool
I0714 20:30:53.695323 29565 net.cpp:425] inception_3b/pool <- inception_3a/output_inception_3a/output_0_split_3
I0714 20:30:53.695338 29565 net.cpp:399] inception_3b/pool -> inception_3b/pool
I0714 20:30:53.695639 29565 net.cpp:141] Setting up inception_3b/pool
I0714 20:30:53.695652 29565 net.cpp:148] Top shape: 10 256 28 28 (2007040)
I0714 20:30:53.695657 29565 net.cpp:156] Memory required for data: 318115840
I0714 20:30:53.695662 29565 layer_factory.hpp:77] Creating layer inception_3b/pool_proj
I0714 20:30:53.695682 29565 net.cpp:91] Creating Layer inception_3b/pool_proj
I0714 20:30:53.695688 29565 net.cpp:425] inception_3b/pool_proj <- inception_3b/pool
I0714 20:30:53.695703 29565 net.cpp:399] inception_3b/pool_proj -> inception_3b/pool_proj
I0714 20:30:53.699872 29561 net.cpp:141] Setting up inception_3b/pool_proj
I0714 20:30:53.699892 29561 net.cpp:148] Top shape: 10 64 28 28 (501760)
I0714 20:30:53.699900 29561 net.cpp:156] Memory required for data: 320122880
I0714 20:30:53.699911 29561 layer_factory.hpp:77] Creating layer inception_3b/relu_pool_proj
I0714 20:30:53.699920 29561 net.cpp:91] Creating Layer inception_3b/relu_pool_proj
I0714 20:30:53.699926 29561 net.cpp:425] inception_3b/relu_pool_proj <- inception_3b/pool_proj
I0714 20:30:53.699934 29561 net.cpp:386] inception_3b/relu_pool_proj -> inception_3b/pool_proj (in-place)
I0714 20:30:53.700971 29561 net.cpp:141] Setting up inception_3b/relu_pool_proj
I0714 20:30:53.700990 29561 net.cpp:148] Top shape: 10 64 28 28 (501760)
I0714 20:30:53.700996 29561 net.cpp:156] Memory required for data: 322129920
I0714 20:30:53.701001 29561 layer_factory.hpp:77] Creating layer inception_3b/output
I0714 20:30:53.701011 29561 net.cpp:91] Creating Layer inception_3b/output
I0714 20:30:53.701017 29561 net.cpp:425] inception_3b/output <- inception_3b/1x1
I0714 20:30:53.701025 29561 net.cpp:425] inception_3b/output <- inception_3b/3x3
I0714 20:30:53.701030 29561 net.cpp:425] inception_3b/output <- inception_3b/5x5
I0714 20:30:53.701035 29561 net.cpp:425] inception_3b/output <- inception_3b/pool_proj
I0714 20:30:53.701043 29561 net.cpp:399] inception_3b/output -> inception_3b/output
I0714 20:30:53.701077 29565 net.cpp:141] Setting up inception_3b/pool_proj
I0714 20:30:53.701102 29565 net.cpp:148] Top shape: 10 64 28 28 (501760)
I0714 20:30:53.701107 29565 net.cpp:156] Memory required for data: 320122880
I0714 20:30:53.701118 29565 layer_factory.hpp:77] Creating layer inception_3b/relu_pool_proj
I0714 20:30:53.701130 29565 net.cpp:91] Creating Layer inception_3b/relu_pool_proj
I0714 20:30:53.701135 29561 net.cpp:141] Setting up inception_3b/output
I0714 20:30:53.701141 29565 net.cpp:425] inception_3b/relu_pool_proj <- inception_3b/pool_proj
I0714 20:30:53.701148 29561 net.cpp:148] Top shape: 10 480 28 28 (3763200)
I0714 20:30:53.701153 29561 net.cpp:156] Memory required for data: 337182720
I0714 20:30:53.701156 29565 net.cpp:386] inception_3b/relu_pool_proj -> inception_3b/pool_proj (in-place)
I0714 20:30:53.701159 29561 layer_factory.hpp:77] Creating layer pool3/3x3_s2
I0714 20:30:53.701169 29561 net.cpp:91] Creating Layer pool3/3x3_s2
I0714 20:30:53.701174 29561 net.cpp:425] pool3/3x3_s2 <- inception_3b/output
I0714 20:30:53.701185 29561 net.cpp:399] pool3/3x3_s2 -> pool3/3x3_s2
I0714 20:30:53.702041 29561 net.cpp:141] Setting up pool3/3x3_s2
I0714 20:30:53.702054 29561 net.cpp:148] Top shape: 10 480 14 14 (940800)
I0714 20:30:53.702059 29561 net.cpp:156] Memory required for data: 340945920
I0714 20:30:53.702064 29561 layer_factory.hpp:77] Creating layer pool3/3x3_s2_pool3/3x3_s2_0_split
I0714 20:30:53.702072 29561 net.cpp:91] Creating Layer pool3/3x3_s2_pool3/3x3_s2_0_split
I0714 20:30:53.702078 29561 net.cpp:425] pool3/3x3_s2_pool3/3x3_s2_0_split <- pool3/3x3_s2
I0714 20:30:53.702090 29561 net.cpp:399] pool3/3x3_s2_pool3/3x3_s2_0_split -> pool3/3x3_s2_pool3/3x3_s2_0_split_0
I0714 20:30:53.702100 29561 net.cpp:399] pool3/3x3_s2_pool3/3x3_s2_0_split -> pool3/3x3_s2_pool3/3x3_s2_0_split_1
I0714 20:30:53.702108 29561 net.cpp:399] pool3/3x3_s2_pool3/3x3_s2_0_split -> pool3/3x3_s2_pool3/3x3_s2_0_split_2
I0714 20:30:53.702116 29561 net.cpp:399] pool3/3x3_s2_pool3/3x3_s2_0_split -> pool3/3x3_s2_pool3/3x3_s2_0_split_3
I0714 20:30:53.702121 29565 net.cpp:141] Setting up inception_3b/relu_pool_proj
I0714 20:30:53.702138 29565 net.cpp:148] Top shape: 10 64 28 28 (501760)
I0714 20:30:53.702144 29565 net.cpp:156] Memory required for data: 322129920
I0714 20:30:53.702150 29565 layer_factory.hpp:77] Creating layer inception_3b/output
I0714 20:30:53.702160 29565 net.cpp:91] Creating Layer inception_3b/output
I0714 20:30:53.702167 29565 net.cpp:425] inception_3b/output <- inception_3b/1x1
I0714 20:30:53.702173 29565 net.cpp:425] inception_3b/output <- inception_3b/3x3
I0714 20:30:53.702179 29565 net.cpp:425] inception_3b/output <- inception_3b/5x5
I0714 20:30:53.702185 29565 net.cpp:425] inception_3b/output <- inception_3b/pool_proj
I0714 20:30:53.702193 29565 net.cpp:399] inception_3b/output -> inception_3b/output
I0714 20:30:53.702368 29565 net.cpp:141] Setting up inception_3b/output
I0714 20:30:53.702380 29565 net.cpp:148] Top shape: 10 480 28 28 (3763200)
I0714 20:30:53.702385 29565 net.cpp:156] Memory required for data: 337182720
I0714 20:30:53.702389 29561 net.cpp:141] Setting up pool3/3x3_s2_pool3/3x3_s2_0_split
I0714 20:30:53.702391 29565 layer_factory.hpp:77] Creating layer pool3/3x3_s2
I0714 20:30:53.702404 29561 net.cpp:148] Top shape: 10 480 14 14 (940800)
I0714 20:30:53.702412 29561 net.cpp:148] Top shape: 10 480 14 14 (940800)
I0714 20:30:53.702412 29565 net.cpp:91] Creating Layer pool3/3x3_s2
I0714 20:30:53.702419 29561 net.cpp:148] Top shape: 10 480 14 14 (940800)
I0714 20:30:53.702420 29565 net.cpp:425] pool3/3x3_s2 <- inception_3b/output
I0714 20:30:53.702430 29561 net.cpp:148] Top shape: 10 480 14 14 (940800)
I0714 20:30:53.702435 29561 net.cpp:156] Memory required for data: 355998720
I0714 20:30:53.702440 29561 layer_factory.hpp:77] Creating layer inception_4a/1x1
I0714 20:30:53.702441 29565 net.cpp:399] pool3/3x3_s2 -> pool3/3x3_s2
I0714 20:30:53.702455 29561 net.cpp:91] Creating Layer inception_4a/1x1
I0714 20:30:53.702461 29561 net.cpp:425] inception_4a/1x1 <- pool3/3x3_s2_pool3/3x3_s2_0_split_0
I0714 20:30:53.702476 29561 net.cpp:399] inception_4a/1x1 -> inception_4a/1x1
I0714 20:30:53.702709 29565 net.cpp:141] Setting up pool3/3x3_s2
I0714 20:30:53.702723 29565 net.cpp:148] Top shape: 10 480 14 14 (940800)
I0714 20:30:53.702728 29565 net.cpp:156] Memory required for data: 340945920
I0714 20:30:53.702734 29565 layer_factory.hpp:77] Creating layer pool3/3x3_s2_pool3/3x3_s2_0_split
I0714 20:30:53.702744 29565 net.cpp:91] Creating Layer pool3/3x3_s2_pool3/3x3_s2_0_split
I0714 20:30:53.702749 29565 net.cpp:425] pool3/3x3_s2_pool3/3x3_s2_0_split <- pool3/3x3_s2
I0714 20:30:53.702761 29565 net.cpp:399] pool3/3x3_s2_pool3/3x3_s2_0_split -> pool3/3x3_s2_pool3/3x3_s2_0_split_0
I0714 20:30:53.702771 29565 net.cpp:399] pool3/3x3_s2_pool3/3x3_s2_0_split -> pool3/3x3_s2_pool3/3x3_s2_0_split_1
I0714 20:30:53.702780 29565 net.cpp:399] pool3/3x3_s2_pool3/3x3_s2_0_split -> pool3/3x3_s2_pool3/3x3_s2_0_split_2
I0714 20:30:53.702788 29565 net.cpp:399] pool3/3x3_s2_pool3/3x3_s2_0_split -> pool3/3x3_s2_pool3/3x3_s2_0_split_3
I0714 20:30:53.703325 29565 net.cpp:141] Setting up pool3/3x3_s2_pool3/3x3_s2_0_split
I0714 20:30:53.703337 29565 net.cpp:148] Top shape: 10 480 14 14 (940800)
I0714 20:30:53.703343 29565 net.cpp:148] Top shape: 10 480 14 14 (940800)
I0714 20:30:53.703349 29565 net.cpp:148] Top shape: 10 480 14 14 (940800)
I0714 20:30:53.703356 29565 net.cpp:148] Top shape: 10 480 14 14 (940800)
I0714 20:30:53.703359 29565 net.cpp:156] Memory required for data: 355998720
I0714 20:30:53.703366 29565 layer_factory.hpp:77] Creating layer inception_4a/1x1
I0714 20:30:53.703378 29565 net.cpp:91] Creating Layer inception_4a/1x1
I0714 20:30:53.703384 29565 net.cpp:425] inception_4a/1x1 <- pool3/3x3_s2_pool3/3x3_s2_0_split_0
I0714 20:30:53.703398 29565 net.cpp:399] inception_4a/1x1 -> inception_4a/1x1
I0714 20:30:53.709102 29561 net.cpp:141] Setting up inception_4a/1x1
I0714 20:30:53.709122 29561 net.cpp:148] Top shape: 10 192 14 14 (376320)
I0714 20:30:53.709127 29561 net.cpp:156] Memory required for data: 357504000
I0714 20:30:53.709137 29561 layer_factory.hpp:77] Creating layer inception_4a/relu_1x1
I0714 20:30:53.709148 29561 net.cpp:91] Creating Layer inception_4a/relu_1x1
I0714 20:30:53.709156 29561 net.cpp:425] inception_4a/relu_1x1 <- inception_4a/1x1
I0714 20:30:53.709167 29561 net.cpp:386] inception_4a/relu_1x1 -> inception_4a/1x1 (in-place)
I0714 20:30:53.709578 29565 net.cpp:141] Setting up inception_4a/1x1
I0714 20:30:53.709594 29565 net.cpp:148] Top shape: 10 192 14 14 (376320)
I0714 20:30:53.709599 29565 net.cpp:156] Memory required for data: 357504000
I0714 20:30:53.709610 29565 layer_factory.hpp:77] Creating layer inception_4a/relu_1x1
I0714 20:30:53.709616 29561 net.cpp:141] Setting up inception_4a/relu_1x1
I0714 20:30:53.709622 29565 net.cpp:91] Creating Layer inception_4a/relu_1x1
I0714 20:30:53.709631 29565 net.cpp:425] inception_4a/relu_1x1 <- inception_4a/1x1
I0714 20:30:53.709631 29561 net.cpp:148] Top shape: 10 192 14 14 (376320)
I0714 20:30:53.709647 29561 net.cpp:156] Memory required for data: 359009280
I0714 20:30:53.709648 29565 net.cpp:386] inception_4a/relu_1x1 -> inception_4a/1x1 (in-place)
I0714 20:30:53.709653 29561 layer_factory.hpp:77] Creating layer inception_4a/3x3_reduce
I0714 20:30:53.709672 29561 net.cpp:91] Creating Layer inception_4a/3x3_reduce
I0714 20:30:53.709679 29561 net.cpp:425] inception_4a/3x3_reduce <- pool3/3x3_s2_pool3/3x3_s2_0_split_1
I0714 20:30:53.709689 29561 net.cpp:399] inception_4a/3x3_reduce -> inception_4a/3x3_reduce
I0714 20:30:53.710121 29565 net.cpp:141] Setting up inception_4a/relu_1x1
I0714 20:30:53.710137 29565 net.cpp:148] Top shape: 10 192 14 14 (376320)
I0714 20:30:53.710142 29565 net.cpp:156] Memory required for data: 359009280
I0714 20:30:53.710149 29565 layer_factory.hpp:77] Creating layer inception_4a/3x3_reduce
I0714 20:30:53.710167 29565 net.cpp:91] Creating Layer inception_4a/3x3_reduce
I0714 20:30:53.710175 29565 net.cpp:425] inception_4a/3x3_reduce <- pool3/3x3_s2_pool3/3x3_s2_0_split_1
I0714 20:30:53.710185 29565 net.cpp:399] inception_4a/3x3_reduce -> inception_4a/3x3_reduce
I0714 20:30:53.714704 29561 net.cpp:141] Setting up inception_4a/3x3_reduce
I0714 20:30:53.714725 29561 net.cpp:148] Top shape: 10 96 14 14 (188160)
I0714 20:30:53.714730 29561 net.cpp:156] Memory required for data: 359761920
I0714 20:30:53.714750 29561 layer_factory.hpp:77] Creating layer inception_4a/relu_3x3_reduce
I0714 20:30:53.714763 29561 net.cpp:91] Creating Layer inception_4a/relu_3x3_reduce
I0714 20:30:53.714771 29561 net.cpp:425] inception_4a/relu_3x3_reduce <- inception_4a/3x3_reduce
I0714 20:30:53.714778 29561 net.cpp:386] inception_4a/relu_3x3_reduce -> inception_4a/3x3_reduce (in-place)
I0714 20:30:53.715140 29565 net.cpp:141] Setting up inception_4a/3x3_reduce
I0714 20:30:53.715157 29565 net.cpp:148] Top shape: 10 96 14 14 (188160)
I0714 20:30:53.715163 29565 net.cpp:156] Memory required for data: 359761920
I0714 20:30:53.715178 29561 net.cpp:141] Setting up inception_4a/relu_3x3_reduce
I0714 20:30:53.715183 29565 layer_factory.hpp:77] Creating layer inception_4a/relu_3x3_reduce
I0714 20:30:53.715196 29561 net.cpp:148] Top shape: 10 96 14 14 (188160)
I0714 20:30:53.715203 29561 net.cpp:156] Memory required for data: 360514560
I0714 20:30:53.715209 29561 layer_factory.hpp:77] Creating layer inception_4a/3x3
I0714 20:30:53.715210 29565 net.cpp:91] Creating Layer inception_4a/relu_3x3_reduce
I0714 20:30:53.715219 29565 net.cpp:425] inception_4a/relu_3x3_reduce <- inception_4a/3x3_reduce
I0714 20:30:53.715227 29561 net.cpp:91] Creating Layer inception_4a/3x3
I0714 20:30:53.715227 29565 net.cpp:386] inception_4a/relu_3x3_reduce -> inception_4a/3x3_reduce (in-place)
I0714 20:30:53.715237 29561 net.cpp:425] inception_4a/3x3 <- inception_4a/3x3_reduce
I0714 20:30:53.715260 29561 net.cpp:399] inception_4a/3x3 -> inception_4a/3x3
I0714 20:30:53.715749 29565 net.cpp:141] Setting up inception_4a/relu_3x3_reduce
I0714 20:30:53.715764 29565 net.cpp:148] Top shape: 10 96 14 14 (188160)
I0714 20:30:53.715769 29565 net.cpp:156] Memory required for data: 360514560
I0714 20:30:53.715773 29565 layer_factory.hpp:77] Creating layer inception_4a/3x3
I0714 20:30:53.715801 29565 net.cpp:91] Creating Layer inception_4a/3x3
I0714 20:30:53.715808 29565 net.cpp:425] inception_4a/3x3 <- inception_4a/3x3_reduce
I0714 20:30:53.715819 29565 net.cpp:399] inception_4a/3x3 -> inception_4a/3x3
I0714 20:30:53.723662 29561 net.cpp:141] Setting up inception_4a/3x3
I0714 20:30:53.723685 29561 net.cpp:148] Top shape: 10 208 14 14 (407680)
I0714 20:30:53.723691 29561 net.cpp:156] Memory required for data: 362145280
I0714 20:30:53.723701 29561 layer_factory.hpp:77] Creating layer inception_4a/relu_3x3
I0714 20:30:53.723711 29561 net.cpp:91] Creating Layer inception_4a/relu_3x3
I0714 20:30:53.723717 29561 net.cpp:425] inception_4a/relu_3x3 <- inception_4a/3x3
I0714 20:30:53.723726 29561 net.cpp:386] inception_4a/relu_3x3 -> inception_4a/3x3 (in-place)
I0714 20:30:53.724824 29561 net.cpp:141] Setting up inception_4a/relu_3x3
I0714 20:30:53.724840 29561 net.cpp:148] Top shape: 10 208 14 14 (407680)
I0714 20:30:53.724845 29561 net.cpp:156] Memory required for data: 363776000
I0714 20:30:53.724851 29561 layer_factory.hpp:77] Creating layer inception_4a/5x5_reduce
I0714 20:30:53.724870 29561 net.cpp:91] Creating Layer inception_4a/5x5_reduce
I0714 20:30:53.724877 29561 net.cpp:425] inception_4a/5x5_reduce <- pool3/3x3_s2_pool3/3x3_s2_0_split_2
I0714 20:30:53.724890 29561 net.cpp:399] inception_4a/5x5_reduce -> inception_4a/5x5_reduce
I0714 20:30:53.724933 29565 net.cpp:141] Setting up inception_4a/3x3
I0714 20:30:53.724953 29565 net.cpp:148] Top shape: 10 208 14 14 (407680)
I0714 20:30:53.724958 29565 net.cpp:156] Memory required for data: 362145280
I0714 20:30:53.724969 29565 layer_factory.hpp:77] Creating layer inception_4a/relu_3x3
I0714 20:30:53.724979 29565 net.cpp:91] Creating Layer inception_4a/relu_3x3
I0714 20:30:53.724985 29565 net.cpp:425] inception_4a/relu_3x3 <- inception_4a/3x3
I0714 20:30:53.724993 29565 net.cpp:386] inception_4a/relu_3x3 -> inception_4a/3x3 (in-place)
I0714 20:30:53.726040 29565 net.cpp:141] Setting up inception_4a/relu_3x3
I0714 20:30:53.726058 29565 net.cpp:148] Top shape: 10 208 14 14 (407680)
I0714 20:30:53.726063 29565 net.cpp:156] Memory required for data: 363776000
I0714 20:30:53.726069 29565 layer_factory.hpp:77] Creating layer inception_4a/5x5_reduce
I0714 20:30:53.726089 29565 net.cpp:91] Creating Layer inception_4a/5x5_reduce
I0714 20:30:53.726095 29565 net.cpp:425] inception_4a/5x5_reduce <- pool3/3x3_s2_pool3/3x3_s2_0_split_2
I0714 20:30:53.726106 29565 net.cpp:399] inception_4a/5x5_reduce -> inception_4a/5x5_reduce
I0714 20:30:53.730815 29561 net.cpp:141] Setting up inception_4a/5x5_reduce
I0714 20:30:53.730836 29561 net.cpp:148] Top shape: 10 16 14 14 (31360)
I0714 20:30:53.730841 29561 net.cpp:156] Memory required for data: 363901440
I0714 20:30:53.730851 29561 layer_factory.hpp:77] Creating layer inception_4a/relu_5x5_reduce
I0714 20:30:53.730861 29561 net.cpp:91] Creating Layer inception_4a/relu_5x5_reduce
I0714 20:30:53.730867 29561 net.cpp:425] inception_4a/relu_5x5_reduce <- inception_4a/5x5_reduce
I0714 20:30:53.730880 29561 net.cpp:386] inception_4a/relu_5x5_reduce -> inception_4a/5x5_reduce (in-place)
I0714 20:30:53.731381 29561 net.cpp:141] Setting up inception_4a/relu_5x5_reduce
I0714 20:30:53.731396 29561 net.cpp:148] Top shape: 10 16 14 14 (31360)
I0714 20:30:53.731402 29561 net.cpp:156] Memory required for data: 364026880
I0714 20:30:53.731407 29561 layer_factory.hpp:77] Creating layer inception_4a/5x5
I0714 20:30:53.731425 29561 net.cpp:91] Creating Layer inception_4a/5x5
I0714 20:30:53.731431 29561 net.cpp:425] inception_4a/5x5 <- inception_4a/5x5_reduce
I0714 20:30:53.731444 29561 net.cpp:399] inception_4a/5x5 -> inception_4a/5x5
I0714 20:30:53.731503 29565 net.cpp:141] Setting up inception_4a/5x5_reduce
I0714 20:30:53.731520 29565 net.cpp:148] Top shape: 10 16 14 14 (31360)
I0714 20:30:53.731525 29565 net.cpp:156] Memory required for data: 363901440
I0714 20:30:53.731535 29565 layer_factory.hpp:77] Creating layer inception_4a/relu_5x5_reduce
I0714 20:30:53.731545 29565 net.cpp:91] Creating Layer inception_4a/relu_5x5_reduce
I0714 20:30:53.731552 29565 net.cpp:425] inception_4a/relu_5x5_reduce <- inception_4a/5x5_reduce
I0714 20:30:53.731560 29565 net.cpp:386] inception_4a/relu_5x5_reduce -> inception_4a/5x5_reduce (in-place)
I0714 20:30:53.732053 29565 net.cpp:141] Setting up inception_4a/relu_5x5_reduce
I0714 20:30:53.732070 29565 net.cpp:148] Top shape: 10 16 14 14 (31360)
I0714 20:30:53.732075 29565 net.cpp:156] Memory required for data: 364026880
I0714 20:30:53.732081 29565 layer_factory.hpp:77] Creating layer inception_4a/5x5
I0714 20:30:53.732100 29565 net.cpp:91] Creating Layer inception_4a/5x5
I0714 20:30:53.732106 29565 net.cpp:425] inception_4a/5x5 <- inception_4a/5x5_reduce
I0714 20:30:53.732120 29565 net.cpp:399] inception_4a/5x5 -> inception_4a/5x5
I0714 20:30:53.736104 29561 net.cpp:141] Setting up inception_4a/5x5
I0714 20:30:53.736124 29561 net.cpp:148] Top shape: 10 48 14 14 (94080)
I0714 20:30:53.736129 29561 net.cpp:156] Memory required for data: 364403200
I0714 20:30:53.736140 29561 layer_factory.hpp:77] Creating layer inception_4a/relu_5x5
I0714 20:30:53.736155 29561 net.cpp:91] Creating Layer inception_4a/relu_5x5
I0714 20:30:53.736161 29561 net.cpp:425] inception_4a/relu_5x5 <- inception_4a/5x5
I0714 20:30:53.736171 29561 net.cpp:386] inception_4a/relu_5x5 -> inception_4a/5x5 (in-place)
I0714 20:30:53.736467 29561 net.cpp:141] Setting up inception_4a/relu_5x5
I0714 20:30:53.736480 29561 net.cpp:148] Top shape: 10 48 14 14 (94080)
I0714 20:30:53.736485 29561 net.cpp:156] Memory required for data: 364779520
I0714 20:30:53.736490 29561 layer_factory.hpp:77] Creating layer inception_4a/pool
I0714 20:30:53.736500 29561 net.cpp:91] Creating Layer inception_4a/pool
I0714 20:30:53.736507 29561 net.cpp:425] inception_4a/pool <- pool3/3x3_s2_pool3/3x3_s2_0_split_3
I0714 20:30:53.736520 29561 net.cpp:399] inception_4a/pool -> inception_4a/pool
I0714 20:30:53.736968 29561 net.cpp:141] Setting up inception_4a/pool
I0714 20:30:53.736982 29561 net.cpp:148] Top shape: 10 480 14 14 (940800)
I0714 20:30:53.736987 29561 net.cpp:156] Memory required for data: 368542720
I0714 20:30:53.736992 29561 layer_factory.hpp:77] Creating layer inception_4a/pool_proj
I0714 20:30:53.737010 29561 net.cpp:91] Creating Layer inception_4a/pool_proj
I0714 20:30:53.737017 29561 net.cpp:425] inception_4a/pool_proj <- inception_4a/pool
I0714 20:30:53.737028 29561 net.cpp:399] inception_4a/pool_proj -> inception_4a/pool_proj
I0714 20:30:53.737931 29565 net.cpp:141] Setting up inception_4a/5x5
I0714 20:30:53.737951 29565 net.cpp:148] Top shape: 10 48 14 14 (94080)
I0714 20:30:53.737957 29565 net.cpp:156] Memory required for data: 364403200
I0714 20:30:53.737967 29565 layer_factory.hpp:77] Creating layer inception_4a/relu_5x5
I0714 20:30:53.737979 29565 net.cpp:91] Creating Layer inception_4a/relu_5x5
I0714 20:30:53.737987 29565 net.cpp:425] inception_4a/relu_5x5 <- inception_4a/5x5
I0714 20:30:53.737995 29565 net.cpp:386] inception_4a/relu_5x5 -> inception_4a/5x5 (in-place)
I0714 20:30:53.738348 29565 net.cpp:141] Setting up inception_4a/relu_5x5
I0714 20:30:53.738363 29565 net.cpp:148] Top shape: 10 48 14 14 (94080)
I0714 20:30:53.738368 29565 net.cpp:156] Memory required for data: 364779520
I0714 20:30:53.738373 29565 layer_factory.hpp:77] Creating layer inception_4a/pool
I0714 20:30:53.738382 29565 net.cpp:91] Creating Layer inception_4a/pool
I0714 20:30:53.738389 29565 net.cpp:425] inception_4a/pool <- pool3/3x3_s2_pool3/3x3_s2_0_split_3
I0714 20:30:53.738400 29565 net.cpp:399] inception_4a/pool -> inception_4a/pool
I0714 20:30:53.738538 29565 net.cpp:141] Setting up inception_4a/pool
I0714 20:30:53.738549 29565 net.cpp:148] Top shape: 10 480 14 14 (940800)
I0714 20:30:53.738554 29565 net.cpp:156] Memory required for data: 368542720
I0714 20:30:53.738559 29565 layer_factory.hpp:77] Creating layer inception_4a/pool_proj
I0714 20:30:53.738577 29565 net.cpp:91] Creating Layer inception_4a/pool_proj
I0714 20:30:53.738584 29565 net.cpp:425] inception_4a/pool_proj <- inception_4a/pool
I0714 20:30:53.738595 29565 net.cpp:399] inception_4a/pool_proj -> inception_4a/pool_proj
I0714 20:30:53.742431 29561 net.cpp:141] Setting up inception_4a/pool_proj
I0714 20:30:53.742451 29561 net.cpp:148] Top shape: 10 64 14 14 (125440)
I0714 20:30:53.742457 29561 net.cpp:156] Memory required for data: 369044480
I0714 20:30:53.742467 29561 layer_factory.hpp:77] Creating layer inception_4a/relu_pool_proj
I0714 20:30:53.742477 29561 net.cpp:91] Creating Layer inception_4a/relu_pool_proj
I0714 20:30:53.742483 29561 net.cpp:425] inception_4a/relu_pool_proj <- inception_4a/pool_proj
I0714 20:30:53.742496 29561 net.cpp:386] inception_4a/relu_pool_proj -> inception_4a/pool_proj (in-place)
I0714 20:30:53.744055 29561 net.cpp:141] Setting up inception_4a/relu_pool_proj
I0714 20:30:53.744072 29561 net.cpp:148] Top shape: 10 64 14 14 (125440)
I0714 20:30:53.744077 29561 net.cpp:156] Memory required for data: 369546240
I0714 20:30:53.744083 29561 layer_factory.hpp:77] Creating layer inception_4a/output
I0714 20:30:53.744093 29561 net.cpp:91] Creating Layer inception_4a/output
I0714 20:30:53.744099 29561 net.cpp:425] inception_4a/output <- inception_4a/1x1
I0714 20:30:53.744107 29561 net.cpp:425] inception_4a/output <- inception_4a/3x3
I0714 20:30:53.744113 29561 net.cpp:425] inception_4a/output <- inception_4a/5x5
I0714 20:30:53.744118 29561 net.cpp:425] inception_4a/output <- inception_4a/pool_proj
I0714 20:30:53.744130 29561 net.cpp:399] inception_4a/output -> inception_4a/output
I0714 20:30:53.744215 29565 net.cpp:141] Setting up inception_4a/pool_proj
I0714 20:30:53.744232 29565 net.cpp:148] Top shape: 10 64 14 14 (125440)
I0714 20:30:53.744237 29565 net.cpp:156] Memory required for data: 369044480
I0714 20:30:53.744247 29565 layer_factory.hpp:77] Creating layer inception_4a/relu_pool_proj
I0714 20:30:53.744258 29565 net.cpp:91] Creating Layer inception_4a/relu_pool_proj
I0714 20:30:53.744259 29561 net.cpp:141] Setting up inception_4a/output
I0714 20:30:53.744264 29565 net.cpp:425] inception_4a/relu_pool_proj <- inception_4a/pool_proj
I0714 20:30:53.744277 29561 net.cpp:148] Top shape: 10 512 14 14 (1003520)
I0714 20:30:53.744283 29561 net.cpp:156] Memory required for data: 373560320
I0714 20:30:53.744289 29561 layer_factory.hpp:77] Creating layer inception_4a/output_inception_4a/output_0_split
I0714 20:30:53.744289 29565 net.cpp:386] inception_4a/relu_pool_proj -> inception_4a/pool_proj (in-place)
I0714 20:30:53.744305 29561 net.cpp:91] Creating Layer inception_4a/output_inception_4a/output_0_split
I0714 20:30:53.744313 29561 net.cpp:425] inception_4a/output_inception_4a/output_0_split <- inception_4a/output
I0714 20:30:53.744320 29561 net.cpp:399] inception_4a/output_inception_4a/output_0_split -> inception_4a/output_inception_4a/output_0_split_0
I0714 20:30:53.744330 29561 net.cpp:399] inception_4a/output_inception_4a/output_0_split -> inception_4a/output_inception_4a/output_0_split_1
I0714 20:30:53.744339 29561 net.cpp:399] inception_4a/output_inception_4a/output_0_split -> inception_4a/output_inception_4a/output_0_split_2
I0714 20:30:53.744351 29561 net.cpp:399] inception_4a/output_inception_4a/output_0_split -> inception_4a/output_inception_4a/output_0_split_3
I0714 20:30:53.745301 29561 net.cpp:141] Setting up inception_4a/output_inception_4a/output_0_split
I0714 20:30:53.745316 29561 net.cpp:148] Top shape: 10 512 14 14 (1003520)
I0714 20:30:53.745317 29565 net.cpp:141] Setting up inception_4a/relu_pool_proj
I0714 20:30:53.745324 29561 net.cpp:148] Top shape: 10 512 14 14 (1003520)
I0714 20:30:53.745337 29565 net.cpp:148] Top shape: 10 64 14 14 (125440)
I0714 20:30:53.745340 29561 net.cpp:148] Top shape: 10 512 14 14 (1003520)
I0714 20:30:53.745342 29565 net.cpp:156] Memory required for data: 369546240
I0714 20:30:53.745353 29561 net.cpp:148] Top shape: 10 512 14 14 (1003520)
I0714 20:30:53.745362 29565 layer_factory.hpp:77] Creating layer inception_4a/output
I0714 20:30:53.745364 29561 net.cpp:156] Memory required for data: 389616640
I0714 20:30:53.745371 29561 layer_factory.hpp:77] Creating layer inception_4b/1x1
I0714 20:30:53.745373 29565 net.cpp:91] Creating Layer inception_4a/output
I0714 20:30:53.745380 29565 net.cpp:425] inception_4a/output <- inception_4a/1x1
I0714 20:30:53.745388 29565 net.cpp:425] inception_4a/output <- inception_4a/3x3
I0714 20:30:53.745393 29561 net.cpp:91] Creating Layer inception_4b/1x1
I0714 20:30:53.745393 29565 net.cpp:425] inception_4a/output <- inception_4a/5x5
I0714 20:30:53.745404 29561 net.cpp:425] inception_4b/1x1 <- inception_4a/output_inception_4a/output_0_split_0
I0714 20:30:53.745412 29565 net.cpp:425] inception_4a/output <- inception_4a/pool_proj
I0714 20:30:53.745424 29561 net.cpp:399] inception_4b/1x1 -> inception_4b/1x1
I0714 20:30:53.745426 29565 net.cpp:399] inception_4a/output -> inception_4a/output
I0714 20:30:53.745599 29565 net.cpp:141] Setting up inception_4a/output
I0714 20:30:53.745610 29565 net.cpp:148] Top shape: 10 512 14 14 (1003520)
I0714 20:30:53.745615 29565 net.cpp:156] Memory required for data: 373560320
I0714 20:30:53.745621 29565 layer_factory.hpp:77] Creating layer inception_4a/output_inception_4a/output_0_split
I0714 20:30:53.745630 29565 net.cpp:91] Creating Layer inception_4a/output_inception_4a/output_0_split
I0714 20:30:53.745636 29565 net.cpp:425] inception_4a/output_inception_4a/output_0_split <- inception_4a/output
I0714 20:30:53.745648 29565 net.cpp:399] inception_4a/output_inception_4a/output_0_split -> inception_4a/output_inception_4a/output_0_split_0
I0714 20:30:53.745659 29565 net.cpp:399] inception_4a/output_inception_4a/output_0_split -> inception_4a/output_inception_4a/output_0_split_1
I0714 20:30:53.745668 29565 net.cpp:399] inception_4a/output_inception_4a/output_0_split -> inception_4a/output_inception_4a/output_0_split_2
I0714 20:30:53.745677 29565 net.cpp:399] inception_4a/output_inception_4a/output_0_split -> inception_4a/output_inception_4a/output_0_split_3
I0714 20:30:53.746220 29565 net.cpp:141] Setting up inception_4a/output_inception_4a/output_0_split
I0714 20:30:53.746235 29565 net.cpp:148] Top shape: 10 512 14 14 (1003520)
I0714 20:30:53.746242 29565 net.cpp:148] Top shape: 10 512 14 14 (1003520)
I0714 20:30:53.746248 29565 net.cpp:148] Top shape: 10 512 14 14 (1003520)
I0714 20:30:53.746253 29565 net.cpp:148] Top shape: 10 512 14 14 (1003520)
I0714 20:30:53.746258 29565 net.cpp:156] Memory required for data: 389616640
I0714 20:30:53.746263 29565 layer_factory.hpp:77] Creating layer inception_4b/1x1
I0714 20:30:53.746278 29565 net.cpp:91] Creating Layer inception_4b/1x1
I0714 20:30:53.746284 29565 net.cpp:425] inception_4b/1x1 <- inception_4a/output_inception_4a/output_0_split_0
I0714 20:30:53.746296 29565 net.cpp:399] inception_4b/1x1 -> inception_4b/1x1
I0714 20:30:53.751176 29561 net.cpp:141] Setting up inception_4b/1x1
I0714 20:30:53.751199 29561 net.cpp:148] Top shape: 10 160 14 14 (313600)
I0714 20:30:53.751204 29561 net.cpp:156] Memory required for data: 390871040
I0714 20:30:53.751214 29561 layer_factory.hpp:77] Creating layer inception_4b/relu_1x1
I0714 20:30:53.751224 29561 net.cpp:91] Creating Layer inception_4b/relu_1x1
I0714 20:30:53.751230 29561 net.cpp:425] inception_4b/relu_1x1 <- inception_4b/1x1
I0714 20:30:53.751238 29561 net.cpp:386] inception_4b/relu_1x1 -> inception_4b/1x1 (in-place)
I0714 20:30:53.751689 29561 net.cpp:141] Setting up inception_4b/relu_1x1
I0714 20:30:53.751705 29561 net.cpp:148] Top shape: 10 160 14 14 (313600)
I0714 20:30:53.751710 29561 net.cpp:156] Memory required for data: 392125440
I0714 20:30:53.751716 29561 layer_factory.hpp:77] Creating layer inception_4b/3x3_reduce
I0714 20:30:53.751734 29561 net.cpp:91] Creating Layer inception_4b/3x3_reduce
I0714 20:30:53.751739 29561 net.cpp:425] inception_4b/3x3_reduce <- inception_4a/output_inception_4a/output_0_split_1
I0714 20:30:53.751754 29561 net.cpp:399] inception_4b/3x3_reduce -> inception_4b/3x3_reduce
I0714 20:30:53.751797 29565 net.cpp:141] Setting up inception_4b/1x1
I0714 20:30:53.751816 29565 net.cpp:148] Top shape: 10 160 14 14 (313600)
I0714 20:30:53.751822 29565 net.cpp:156] Memory required for data: 390871040
I0714 20:30:53.751832 29565 layer_factory.hpp:77] Creating layer inception_4b/relu_1x1
I0714 20:30:53.751842 29565 net.cpp:91] Creating Layer inception_4b/relu_1x1
I0714 20:30:53.751848 29565 net.cpp:425] inception_4b/relu_1x1 <- inception_4b/1x1
I0714 20:30:53.751857 29565 net.cpp:386] inception_4b/relu_1x1 -> inception_4b/1x1 (in-place)
I0714 20:30:53.752369 29565 net.cpp:141] Setting up inception_4b/relu_1x1
I0714 20:30:53.752388 29565 net.cpp:148] Top shape: 10 160 14 14 (313600)
I0714 20:30:53.752393 29565 net.cpp:156] Memory required for data: 392125440
I0714 20:30:53.752398 29565 layer_factory.hpp:77] Creating layer inception_4b/3x3_reduce
I0714 20:30:53.752416 29565 net.cpp:91] Creating Layer inception_4b/3x3_reduce
I0714 20:30:53.752423 29565 net.cpp:425] inception_4b/3x3_reduce <- inception_4a/output_inception_4a/output_0_split_1
I0714 20:30:53.752436 29565 net.cpp:399] inception_4b/3x3_reduce -> inception_4b/3x3_reduce
I0714 20:30:53.756705 29561 net.cpp:141] Setting up inception_4b/3x3_reduce
I0714 20:30:53.756726 29561 net.cpp:148] Top shape: 10 112 14 14 (219520)
I0714 20:30:53.756732 29561 net.cpp:156] Memory required for data: 393003520
I0714 20:30:53.756742 29561 layer_factory.hpp:77] Creating layer inception_4b/relu_3x3_reduce
I0714 20:30:53.756755 29561 net.cpp:91] Creating Layer inception_4b/relu_3x3_reduce
I0714 20:30:53.756762 29561 net.cpp:425] inception_4b/relu_3x3_reduce <- inception_4b/3x3_reduce
I0714 20:30:53.756770 29561 net.cpp:386] inception_4b/relu_3x3_reduce -> inception_4b/3x3_reduce (in-place)
I0714 20:30:53.757131 29565 net.cpp:141] Setting up inception_4b/3x3_reduce
I0714 20:30:53.757148 29565 net.cpp:148] Top shape: 10 112 14 14 (219520)
I0714 20:30:53.757153 29565 net.cpp:156] Memory required for data: 393003520
I0714 20:30:53.757164 29565 layer_factory.hpp:77] Creating layer inception_4b/relu_3x3_reduce
I0714 20:30:53.757182 29565 net.cpp:91] Creating Layer inception_4b/relu_3x3_reduce
I0714 20:30:53.757189 29565 net.cpp:425] inception_4b/relu_3x3_reduce <- inception_4b/3x3_reduce
I0714 20:30:53.757191 29561 net.cpp:141] Setting up inception_4b/relu_3x3_reduce
I0714 20:30:53.757199 29565 net.cpp:386] inception_4b/relu_3x3_reduce -> inception_4b/3x3_reduce (in-place)
I0714 20:30:53.757206 29561 net.cpp:148] Top shape: 10 112 14 14 (219520)
I0714 20:30:53.757212 29561 net.cpp:156] Memory required for data: 393881600
I0714 20:30:53.757217 29561 layer_factory.hpp:77] Creating layer inception_4b/3x3
I0714 20:30:53.757236 29561 net.cpp:91] Creating Layer inception_4b/3x3
I0714 20:30:53.757243 29561 net.cpp:425] inception_4b/3x3 <- inception_4b/3x3_reduce
I0714 20:30:53.757256 29561 net.cpp:399] inception_4b/3x3 -> inception_4b/3x3
I0714 20:30:53.757728 29565 net.cpp:141] Setting up inception_4b/relu_3x3_reduce
I0714 20:30:53.757742 29565 net.cpp:148] Top shape: 10 112 14 14 (219520)
I0714 20:30:53.757747 29565 net.cpp:156] Memory required for data: 393881600
I0714 20:30:53.757753 29565 layer_factory.hpp:77] Creating layer inception_4b/3x3
I0714 20:30:53.757772 29565 net.cpp:91] Creating Layer inception_4b/3x3
I0714 20:30:53.757779 29565 net.cpp:425] inception_4b/3x3 <- inception_4b/3x3_reduce
I0714 20:30:53.757791 29565 net.cpp:399] inception_4b/3x3 -> inception_4b/3x3
I0714 20:30:53.766661 29561 net.cpp:141] Setting up inception_4b/3x3
I0714 20:30:53.766682 29561 net.cpp:148] Top shape: 10 224 14 14 (439040)
I0714 20:30:53.766697 29561 net.cpp:156] Memory required for data: 395637760
I0714 20:30:53.766708 29561 layer_factory.hpp:77] Creating layer inception_4b/relu_3x3
I0714 20:30:53.766723 29561 net.cpp:91] Creating Layer inception_4b/relu_3x3
I0714 20:30:53.766731 29561 net.cpp:425] inception_4b/relu_3x3 <- inception_4b/3x3
I0714 20:30:53.766738 29561 net.cpp:386] inception_4b/relu_3x3 -> inception_4b/3x3 (in-place)
I0714 20:30:53.768296 29561 net.cpp:141] Setting up inception_4b/relu_3x3
I0714 20:30:53.768312 29561 net.cpp:148] Top shape: 10 224 14 14 (439040)
I0714 20:30:53.768318 29561 net.cpp:156] Memory required for data: 397393920
I0714 20:30:53.768323 29561 layer_factory.hpp:77] Creating layer inception_4b/5x5_reduce
I0714 20:30:53.768352 29561 net.cpp:91] Creating Layer inception_4b/5x5_reduce
I0714 20:30:53.768359 29561 net.cpp:425] inception_4b/5x5_reduce <- inception_4a/output_inception_4a/output_0_split_2
I0714 20:30:53.768375 29561 net.cpp:399] inception_4b/5x5_reduce -> inception_4b/5x5_reduce
I0714 20:30:53.768422 29565 net.cpp:141] Setting up inception_4b/3x3
I0714 20:30:53.768445 29565 net.cpp:148] Top shape: 10 224 14 14 (439040)
I0714 20:30:53.768451 29565 net.cpp:156] Memory required for data: 395637760
I0714 20:30:53.768462 29565 layer_factory.hpp:77] Creating layer inception_4b/relu_3x3
I0714 20:30:53.768472 29565 net.cpp:91] Creating Layer inception_4b/relu_3x3
I0714 20:30:53.768479 29565 net.cpp:425] inception_4b/relu_3x3 <- inception_4b/3x3
I0714 20:30:53.768487 29565 net.cpp:386] inception_4b/relu_3x3 -> inception_4b/3x3 (in-place)
I0714 20:30:53.769525 29565 net.cpp:141] Setting up inception_4b/relu_3x3
I0714 20:30:53.769543 29565 net.cpp:148] Top shape: 10 224 14 14 (439040)
I0714 20:30:53.769549 29565 net.cpp:156] Memory required for data: 397393920
I0714 20:30:53.769554 29565 layer_factory.hpp:77] Creating layer inception_4b/5x5_reduce
I0714 20:30:53.769583 29565 net.cpp:91] Creating Layer inception_4b/5x5_reduce
I0714 20:30:53.769590 29565 net.cpp:425] inception_4b/5x5_reduce <- inception_4a/output_inception_4a/output_0_split_2
I0714 20:30:53.769603 29565 net.cpp:399] inception_4b/5x5_reduce -> inception_4b/5x5_reduce
I0714 20:30:53.774473 29561 net.cpp:141] Setting up inception_4b/5x5_reduce
I0714 20:30:53.774494 29561 net.cpp:148] Top shape: 10 24 14 14 (47040)
I0714 20:30:53.774500 29561 net.cpp:156] Memory required for data: 397582080
I0714 20:30:53.774510 29561 layer_factory.hpp:77] Creating layer inception_4b/relu_5x5_reduce
I0714 20:30:53.774523 29561 net.cpp:91] Creating Layer inception_4b/relu_5x5_reduce
I0714 20:30:53.774530 29561 net.cpp:425] inception_4b/relu_5x5_reduce <- inception_4b/5x5_reduce
I0714 20:30:53.774538 29561 net.cpp:386] inception_4b/relu_5x5_reduce -> inception_4b/5x5_reduce (in-place)
I0714 20:30:53.775063 29561 net.cpp:141] Setting up inception_4b/relu_5x5_reduce
I0714 20:30:53.775079 29561 net.cpp:148] Top shape: 10 24 14 14 (47040)
I0714 20:30:53.775084 29561 net.cpp:156] Memory required for data: 397770240
I0714 20:30:53.775090 29561 layer_factory.hpp:77] Creating layer inception_4b/5x5
I0714 20:30:53.775126 29561 net.cpp:91] Creating Layer inception_4b/5x5
I0714 20:30:53.775135 29561 net.cpp:425] inception_4b/5x5 <- inception_4b/5x5_reduce
I0714 20:30:53.775146 29561 net.cpp:399] inception_4b/5x5 -> inception_4b/5x5
I0714 20:30:53.775197 29565 net.cpp:141] Setting up inception_4b/5x5_reduce
I0714 20:30:53.775214 29565 net.cpp:148] Top shape: 10 24 14 14 (47040)
I0714 20:30:53.775220 29565 net.cpp:156] Memory required for data: 397582080
I0714 20:30:53.775231 29565 layer_factory.hpp:77] Creating layer inception_4b/relu_5x5_reduce
I0714 20:30:53.775241 29565 net.cpp:91] Creating Layer inception_4b/relu_5x5_reduce
I0714 20:30:53.775249 29565 net.cpp:425] inception_4b/relu_5x5_reduce <- inception_4b/5x5_reduce
I0714 20:30:53.775259 29565 net.cpp:386] inception_4b/relu_5x5_reduce -> inception_4b/5x5_reduce (in-place)
I0714 20:30:53.775737 29565 net.cpp:141] Setting up inception_4b/relu_5x5_reduce
I0714 20:30:53.775754 29565 net.cpp:148] Top shape: 10 24 14 14 (47040)
I0714 20:30:53.775759 29565 net.cpp:156] Memory required for data: 397770240
I0714 20:30:53.775765 29565 layer_factory.hpp:77] Creating layer inception_4b/5x5
I0714 20:30:53.775786 29565 net.cpp:91] Creating Layer inception_4b/5x5
I0714 20:30:53.775794 29565 net.cpp:425] inception_4b/5x5 <- inception_4b/5x5_reduce
I0714 20:30:53.775804 29565 net.cpp:399] inception_4b/5x5 -> inception_4b/5x5
I0714 20:30:53.784528 29561 net.cpp:141] Setting up inception_4b/5x5
I0714 20:30:53.784549 29561 net.cpp:148] Top shape: 10 64 14 14 (125440)
I0714 20:30:53.784555 29561 net.cpp:156] Memory required for data: 398272000
I0714 20:30:53.784565 29561 layer_factory.hpp:77] Creating layer inception_4b/relu_5x5
I0714 20:30:53.784575 29561 net.cpp:91] Creating Layer inception_4b/relu_5x5
I0714 20:30:53.784582 29561 net.cpp:425] inception_4b/relu_5x5 <- inception_4b/5x5
I0714 20:30:53.784590 29561 net.cpp:386] inception_4b/relu_5x5 -> inception_4b/5x5 (in-place)
I0714 20:30:53.784937 29565 net.cpp:141] Setting up inception_4b/5x5
I0714 20:30:53.784958 29565 net.cpp:148] Top shape: 10 64 14 14 (125440)
I0714 20:30:53.784963 29565 net.cpp:156] Memory required for data: 398272000
I0714 20:30:53.784973 29565 layer_factory.hpp:77] Creating layer inception_4b/relu_5x5
I0714 20:30:53.784984 29565 net.cpp:91] Creating Layer inception_4b/relu_5x5
I0714 20:30:53.784991 29565 net.cpp:425] inception_4b/relu_5x5 <- inception_4b/5x5
I0714 20:30:53.784998 29565 net.cpp:386] inception_4b/relu_5x5 -> inception_4b/5x5 (in-place)
I0714 20:30:53.785010 29561 net.cpp:141] Setting up inception_4b/relu_5x5
I0714 20:30:53.785025 29561 net.cpp:148] Top shape: 10 64 14 14 (125440)
I0714 20:30:53.785030 29561 net.cpp:156] Memory required for data: 398773760
I0714 20:30:53.785035 29561 layer_factory.hpp:77] Creating layer inception_4b/pool
I0714 20:30:53.785048 29561 net.cpp:91] Creating Layer inception_4b/pool
I0714 20:30:53.785054 29561 net.cpp:425] inception_4b/pool <- inception_4a/output_inception_4a/output_0_split_3
I0714 20:30:53.785063 29561 net.cpp:399] inception_4b/pool -> inception_4b/pool
I0714 20:30:53.785322 29561 net.cpp:141] Setting up inception_4b/pool
I0714 20:30:53.785334 29561 net.cpp:148] Top shape: 10 512 14 14 (1003520)
I0714 20:30:53.785339 29561 net.cpp:156] Memory required for data: 402787840
I0714 20:30:53.785344 29561 layer_factory.hpp:77] Creating layer inception_4b/pool_proj
I0714 20:30:53.785362 29561 net.cpp:91] Creating Layer inception_4b/pool_proj
I0714 20:30:53.785367 29561 net.cpp:425] inception_4b/pool_proj <- inception_4b/pool
I0714 20:30:53.785380 29561 net.cpp:399] inception_4b/pool_proj -> inception_4b/pool_proj
I0714 20:30:53.785408 29565 net.cpp:141] Setting up inception_4b/relu_5x5
I0714 20:30:53.785421 29565 net.cpp:148] Top shape: 10 64 14 14 (125440)
I0714 20:30:53.785426 29565 net.cpp:156] Memory required for data: 398773760
I0714 20:30:53.785432 29565 layer_factory.hpp:77] Creating layer inception_4b/pool
I0714 20:30:53.785445 29565 net.cpp:91] Creating Layer inception_4b/pool
I0714 20:30:53.785451 29565 net.cpp:425] inception_4b/pool <- inception_4a/output_inception_4a/output_0_split_3
I0714 20:30:53.785460 29565 net.cpp:399] inception_4b/pool -> inception_4b/pool
I0714 20:30:53.785786 29565 net.cpp:141] Setting up inception_4b/pool
I0714 20:30:53.785799 29565 net.cpp:148] Top shape: 10 512 14 14 (1003520)
I0714 20:30:53.785804 29565 net.cpp:156] Memory required for data: 402787840
I0714 20:30:53.785809 29565 layer_factory.hpp:77] Creating layer inception_4b/pool_proj
I0714 20:30:53.785828 29565 net.cpp:91] Creating Layer inception_4b/pool_proj
I0714 20:30:53.785835 29565 net.cpp:425] inception_4b/pool_proj <- inception_4b/pool
I0714 20:30:53.785847 29565 net.cpp:399] inception_4b/pool_proj -> inception_4b/pool_proj
I0714 20:30:53.790120 29561 net.cpp:141] Setting up inception_4b/pool_proj
I0714 20:30:53.790139 29561 net.cpp:148] Top shape: 10 64 14 14 (125440)
I0714 20:30:53.790145 29561 net.cpp:156] Memory required for data: 403289600
I0714 20:30:53.790154 29561 layer_factory.hpp:77] Creating layer inception_4b/relu_pool_proj
I0714 20:30:53.790169 29561 net.cpp:91] Creating Layer inception_4b/relu_pool_proj
I0714 20:30:53.790175 29561 net.cpp:425] inception_4b/relu_pool_proj <- inception_4b/pool_proj
I0714 20:30:53.790184 29561 net.cpp:386] inception_4b/relu_pool_proj -> inception_4b/pool_proj (in-place)
I0714 20:30:53.791270 29561 net.cpp:141] Setting up inception_4b/relu_pool_proj
I0714 20:30:53.791286 29561 net.cpp:148] Top shape: 10 64 14 14 (125440)
I0714 20:30:53.791292 29561 net.cpp:156] Memory required for data: 403791360
I0714 20:30:53.791297 29561 layer_factory.hpp:77] Creating layer inception_4b/output
I0714 20:30:53.791311 29561 net.cpp:91] Creating Layer inception_4b/output
I0714 20:30:53.791316 29561 net.cpp:425] inception_4b/output <- inception_4b/1x1
I0714 20:30:53.791323 29561 net.cpp:425] inception_4b/output <- inception_4b/3x3
I0714 20:30:53.791329 29561 net.cpp:425] inception_4b/output <- inception_4b/5x5
I0714 20:30:53.791335 29561 net.cpp:425] inception_4b/output <- inception_4b/pool_proj
I0714 20:30:53.791342 29561 net.cpp:399] inception_4b/output -> inception_4b/output
I0714 20:30:53.791388 29565 net.cpp:141] Setting up inception_4b/pool_proj
I0714 20:30:53.791404 29565 net.cpp:148] Top shape: 10 64 14 14 (125440)
I0714 20:30:53.791409 29565 net.cpp:156] Memory required for data: 403289600
I0714 20:30:53.791419 29565 layer_factory.hpp:77] Creating layer inception_4b/relu_pool_proj
I0714 20:30:53.791429 29565 net.cpp:91] Creating Layer inception_4b/relu_pool_proj
I0714 20:30:53.791435 29565 net.cpp:425] inception_4b/relu_pool_proj <- inception_4b/pool_proj
I0714 20:30:53.791438 29561 net.cpp:141] Setting up inception_4b/output
I0714 20:30:53.791446 29565 net.cpp:386] inception_4b/relu_pool_proj -> inception_4b/pool_proj (in-place)
I0714 20:30:53.791453 29561 net.cpp:148] Top shape: 10 512 14 14 (1003520)
I0714 20:30:53.791458 29561 net.cpp:156] Memory required for data: 407805440
I0714 20:30:53.791463 29561 layer_factory.hpp:77] Creating layer inception_4b/output_inception_4b/output_0_split
I0714 20:30:53.791472 29561 net.cpp:91] Creating Layer inception_4b/output_inception_4b/output_0_split
I0714 20:30:53.791478 29561 net.cpp:425] inception_4b/output_inception_4b/output_0_split <- inception_4b/output
I0714 20:30:53.791486 29561 net.cpp:399] inception_4b/output_inception_4b/output_0_split -> inception_4b/output_inception_4b/output_0_split_0
I0714 20:30:53.791496 29561 net.cpp:399] inception_4b/output_inception_4b/output_0_split -> inception_4b/output_inception_4b/output_0_split_1
I0714 20:30:53.791504 29561 net.cpp:399] inception_4b/output_inception_4b/output_0_split -> inception_4b/output_inception_4b/output_0_split_2
I0714 20:30:53.791517 29561 net.cpp:399] inception_4b/output_inception_4b/output_0_split -> inception_4b/output_inception_4b/output_0_split_3
I0714 20:30:53.792454 29565 net.cpp:141] Setting up inception_4b/relu_pool_proj
I0714 20:30:53.792469 29565 net.cpp:148] Top shape: 10 64 14 14 (125440)
I0714 20:30:53.792474 29565 net.cpp:156] Memory required for data: 403791360
I0714 20:30:53.792474 29561 net.cpp:141] Setting up inception_4b/output_inception_4b/output_0_split
I0714 20:30:53.792484 29565 layer_factory.hpp:77] Creating layer inception_4b/output
I0714 20:30:53.792497 29561 net.cpp:148] Top shape: 10 512 14 14 (1003520)
I0714 20:30:53.792505 29561 net.cpp:148] Top shape: 10 512 14 14 (1003520)
I0714 20:30:53.792505 29565 net.cpp:91] Creating Layer inception_4b/output
I0714 20:30:53.792511 29561 net.cpp:148] Top shape: 10 512 14 14 (1003520)
I0714 20:30:53.792513 29565 net.cpp:425] inception_4b/output <- inception_4b/1x1
I0714 20:30:53.792518 29561 net.cpp:148] Top shape: 10 512 14 14 (1003520)
I0714 20:30:53.792522 29565 net.cpp:425] inception_4b/output <- inception_4b/3x3
I0714 20:30:53.792523 29561 net.cpp:156] Memory required for data: 423861760
I0714 20:30:53.792531 29565 net.cpp:425] inception_4b/output <- inception_4b/5x5
I0714 20:30:53.792537 29561 layer_factory.hpp:77] Creating layer inception_4c/1x1
…
I0714 20:30:53.917889 29565 net.cpp:141] Setting up inception_4e/relu_5x5_reduce
I0714 20:30:53.917902 29565 net.cpp:148] Top shape: 10 32 14 14 (62720)
I0714 20:30:53.917907 29565 net.cpp:156] Memory required for data: 506150400
I0714 20:30:53.917913 29565 layer_factory.hpp:77] Creating layer inception_4e/5x5
I0714 20:30:53.917932 29565 net.cpp:91] Creating Layer inception_4e/5x5
I0714 20:30:53.917942 29565 net.cpp:425] inception_4e/5x5 <- inception_4e/5x5_reduce
I0714 20:30:53.917951 29565 net.cpp:399] inception_4e/5x5 -> inception_4e/5x5
I0714 20:30:53.922798 29561 net.cpp:141] Setting up inception_4e/5x5
I0714 20:30:53.922826 29561 net.cpp:148] Top shape: 10 128 14 14 (250880)
I0714 20:30:53.922832 29561 net.cpp:156] Memory required for data: 507153920
I0714 20:30:53.922845 29561 layer_factory.hpp:77] Creating layer inception_4e/relu_5x5
I0714 20:30:53.922855 29561 net.cpp:91] Creating Layer inception_4e/relu_5x5
I0714 20:30:53.922863 29561 net.cpp:425] inception_4e/relu_5x5 <- inception_4e/5x5
I0714 20:30:53.922873 29561 net.cpp:386] inception_4e/relu_5x5 -> inception_4e/5x5 (in-place)
I0714 20:30:53.923187 29561 net.cpp:141] Setting up inception_4e/relu_5x5
I0714 20:30:53.923200 29561 net.cpp:148] Top shape: 10 128 14 14 (250880)
I0714 20:30:53.923205 29561 net.cpp:156] Memory required for data: 508157440
I0714 20:30:53.923210 29561 layer_factory.hpp:77] Creating layer inception_4e/pool
I0714 20:30:53.923225 29561 net.cpp:91] Creating Layer inception_4e/pool
I0714 20:30:53.923233 29561 net.cpp:425] inception_4e/pool <- inception_4d/output_inception_4d/output_0_split_3
I0714 20:30:53.923241 29561 net.cpp:399] inception_4e/pool -> inception_4e/pool
I0714 20:30:53.923470 29561 net.cpp:141] Setting up inception_4e/pool
I0714 20:30:53.923483 29561 net.cpp:148] Top shape: 10 528 14 14 (1034880)
I0714 20:30:53.923488 29561 net.cpp:156] Memory required for data: 512296960
I0714 20:30:53.923493 29561 layer_factory.hpp:77] Creating layer inception_4e/pool_proj
I0714 20:30:53.923511 29561 net.cpp:91] Creating Layer inception_4e/pool_proj
I0714 20:30:53.923518 29561 net.cpp:425] inception_4e/pool_proj <- inception_4e/pool
I0714 20:30:53.923530 29561 net.cpp:399] inception_4e/pool_proj -> inception_4e/pool_proj
I0714 20:30:53.926290 29565 net.cpp:141] Setting up inception_4e/5x5
I0714 20:30:53.926311 29565 net.cpp:148] Top shape: 10 128 14 14 (250880)
I0714 20:30:53.926316 29565 net.cpp:156] Memory required for data: 507153920
I0714 20:30:53.926328 29565 layer_factory.hpp:77] Creating layer inception_4e/relu_5x5
I0714 20:30:53.926343 29565 net.cpp:91] Creating Layer inception_4e/relu_5x5
I0714 20:30:53.926350 29565 net.cpp:425] inception_4e/relu_5x5 <- inception_4e/5x5
I0714 20:30:53.926359 29565 net.cpp:386] inception_4e/relu_5x5 -> inception_4e/5x5 (in-place)
I0714 20:30:53.926797 29565 net.cpp:141] Setting up inception_4e/relu_5x5
I0714 20:30:53.926813 29565 net.cpp:148] Top shape: 10 128 14 14 (250880)
I0714 20:30:53.926820 29565 net.cpp:156] Memory required for data: 508157440
I0714 20:30:53.926826 29565 layer_factory.hpp:77] Creating layer inception_4e/pool
I0714 20:30:53.926834 29565 net.cpp:91] Creating Layer inception_4e/pool
I0714 20:30:53.926841 29565 net.cpp:425] inception_4e/pool <- inception_4d/output_inception_4d/output_0_split_3
I0714 20:30:53.926853 29565 net.cpp:399] inception_4e/pool -> inception_4e/pool
I0714 20:30:53.927606 29565 net.cpp:141] Setting up inception_4e/pool
I0714 20:30:53.927620 29565 net.cpp:148] Top shape: 10 528 14 14 (1034880)
I0714 20:30:53.927625 29565 net.cpp:156] Memory required for data: 512296960
I0714 20:30:53.927630 29565 layer_factory.hpp:77] Creating layer inception_4e/pool_proj
I0714 20:30:53.927647 29565 net.cpp:91] Creating Layer inception_4e/pool_proj
I0714 20:30:53.927654 29565 net.cpp:425] inception_4e/pool_proj <- inception_4e/pool
I0714 20:30:53.927667 29565 net.cpp:399] inception_4e/pool_proj -> inception_4e/pool_proj
I0714 20:30:53.929639 29561 net.cpp:141] Setting up inception_4e/pool_proj
I0714 20:30:53.929658 29561 net.cpp:148] Top shape: 10 128 14 14 (250880)
I0714 20:30:53.929664 29561 net.cpp:156] Memory required for data: 513300480
I0714 20:30:53.929674 29561 layer_factory.hpp:77] Creating layer inception_4e/relu_pool_proj
I0714 20:30:53.929684 29561 net.cpp:91] Creating Layer inception_4e/relu_pool_proj
I0714 20:30:53.929692 29561 net.cpp:425] inception_4e/relu_pool_proj <- inception_4e/pool_proj
I0714 20:30:53.929699 29561 net.cpp:386] inception_4e/relu_pool_proj -> inception_4e/pool_proj (in-place)
I0714 20:30:53.930673 29561 net.cpp:141] Setting up inception_4e/relu_pool_proj
I0714 20:30:53.930701 29561 net.cpp:148] Top shape: 10 128 14 14 (250880)
I0714 20:30:53.930709 29561 net.cpp:156] Memory required for data: 514304000
I0714 20:30:53.930716 29561 layer_factory.hpp:77] Creating layer inception_4e/output
I0714 20:30:53.930726 29561 net.cpp:91] Creating Layer inception_4e/output
I0714 20:30:53.930732 29561 net.cpp:425] inception_4e/output <- inception_4e/1x1
I0714 20:30:53.930739 29561 net.cpp:425] inception_4e/output <- inception_4e/3x3
I0714 20:30:53.930745 29561 net.cpp:425] inception_4e/output <- inception_4e/5x5
I0714 20:30:53.930752 29561 net.cpp:425] inception_4e/output <- inception_4e/pool_proj
I0714 20:30:53.930763 29561 net.cpp:399] inception_4e/output -> inception_4e/output
I0714 20:30:53.931434 29561 net.cpp:141] Setting up inception_4e/output
I0714 20:30:53.931449 29561 net.cpp:148] Top shape: 10 832 14 14 (1630720)
I0714 20:30:53.931454 29561 net.cpp:156] Memory required for data: 520826880
I0714 20:30:53.931459 29561 layer_factory.hpp:77] Creating layer pool4/3x3_s2
I0714 20:30:53.931469 29561 net.cpp:91] Creating Layer pool4/3x3_s2
I0714 20:30:53.931475 29561 net.cpp:425] pool4/3x3_s2 <- inception_4e/output
I0714 20:30:53.931488 29561 net.cpp:399] pool4/3x3_s2 -> pool4/3x3_s2
I0714 20:30:53.931680 29561 net.cpp:141] Setting up pool4/3x3_s2
I0714 20:30:53.931692 29561 net.cpp:148] Top shape: 10 832 7 7 (407680)
I0714 20:30:53.931697 29561 net.cpp:156] Memory required for data: 522457600
I0714 20:30:53.931702 29561 layer_factory.hpp:77] Creating layer pool4/3x3_s2_pool4/3x3_s2_0_split
I0714 20:30:53.931712 29561 net.cpp:91] Creating Layer pool4/3x3_s2_pool4/3x3_s2_0_split
I0714 20:30:53.931718 29561 net.cpp:425] pool4/3x3_s2_pool4/3x3_s2_0_split <- pool4/3x3_s2
I0714 20:30:53.931741 29561 net.cpp:399] pool4/3x3_s2_pool4/3x3_s2_0_split -> pool4/3x3_s2_pool4/3x3_s2_0_split_0
I0714 20:30:53.931753 29561 net.cpp:399] pool4/3x3_s2_pool4/3x3_s2_0_split -> pool4/3x3_s2_pool4/3x3_s2_0_split_1
I0714 20:30:53.931762 29561 net.cpp:399] pool4/3x3_s2_pool4/3x3_s2_0_split -> pool4/3x3_s2_pool4/3x3_s2_0_split_2
I0714 20:30:53.931771 29561 net.cpp:399] pool4/3x3_s2_pool4/3x3_s2_0_split -> pool4/3x3_s2_pool4/3x3_s2_0_split_3
I0714 20:30:53.932693 29561 net.cpp:141] Setting up pool4/3x3_s2_pool4/3x3_s2_0_split
I0714 20:30:53.932708 29561 net.cpp:148] Top shape: 10 832 7 7 (407680)
I0714 20:30:53.932713 29561 net.cpp:148] Top shape: 10 832 7 7 (407680)
I0714 20:30:53.932719 29561 net.cpp:148] Top shape: 10 832 7 7 (407680)
I0714 20:30:53.932725 29561 net.cpp:148] Top shape: 10 832 7 7 (407680)
I0714 20:30:53.932729 29561 net.cpp:156] Memory required for data: 528980480
I0714 20:30:53.932734 29561 layer_factory.hpp:77] Creating layer inception_5a/1x1
I0714 20:30:53.932749 29561 net.cpp:91] Creating Layer inception_5a/1x1
I0714 20:30:53.932754 29561 net.cpp:425] inception_5a/1x1 <- pool4/3x3_s2_pool4/3x3_s2_0_split_0
I0714 20:30:53.932770 29561 net.cpp:399] inception_5a/1x1 -> inception_5a/1x1
I0714 20:30:53.935529 29565 net.cpp:141] Setting up inception_4e/pool_proj
I0714 20:30:53.935552 29565 net.cpp:148] Top shape: 10 128 14 14 (250880)
I0714 20:30:53.935557 29565 net.cpp:156] Memory required for data: 513300480
I0714 20:30:53.935569 29565 layer_factory.hpp:77] Creating layer inception_4e/relu_pool_proj
I0714 20:30:53.935577 29565 net.cpp:91] Creating Layer inception_4e/relu_pool_proj
I0714 20:30:53.935585 29565 net.cpp:425] inception_4e/relu_pool_proj <- inception_4e/pool_proj
I0714 20:30:53.935592 29565 net.cpp:386] inception_4e/relu_pool_proj -> inception_4e/pool_proj (in-place)
I0714 20:30:53.936455 29565 net.cpp:141] Setting up inception_4e/relu_pool_proj
I0714 20:30:53.936472 29565 net.cpp:148] Top shape: 10 128 14 14 (250880)
I0714 20:30:53.936477 29565 net.cpp:156] Memory required for data: 514304000
I0714 20:30:53.936483 29565 layer_factory.hpp:77] Creating layer inception_4e/output
I0714 20:30:53.936493 29565 net.cpp:91] Creating Layer inception_4e/output
I0714 20:30:53.936499 29565 net.cpp:425] inception_4e/output <- inception_4e/1x1
I0714 20:30:53.936506 29565 net.cpp:425] inception_4e/output <- inception_4e/3x3
I0714 20:30:53.936513 29565 net.cpp:425] inception_4e/output <- inception_4e/5x5
I0714 20:30:53.936518 29565 net.cpp:425] inception_4e/output <- inception_4e/pool_proj
I0714 20:30:53.936525 29565 net.cpp:399] inception_4e/output -> inception_4e/output
I0714 20:30:53.936615 29565 net.cpp:141] Setting up inception_4e/output
I0714 20:30:53.936627 29565 net.cpp:148] Top shape: 10 832 14 14 (1630720)
I0714 20:30:53.936632 29565 net.cpp:156] Memory required for data: 520826880
I0714 20:30:53.936637 29565 layer_factory.hpp:77] Creating layer pool4/3x3_s2
I0714 20:30:53.936646 29565 net.cpp:91] Creating Layer pool4/3x3_s2
I0714 20:30:53.936652 29565 net.cpp:425] pool4/3x3_s2 <- inception_4e/output
I0714 20:30:53.936664 29565 net.cpp:399] pool4/3x3_s2 -> pool4/3x3_s2
I0714 20:30:53.936800 29565 net.cpp:141] Setting up pool4/3x3_s2
I0714 20:30:53.936811 29565 net.cpp:148] Top shape: 10 832 7 7 (407680)
I0714 20:30:53.936815 29565 net.cpp:156] Memory required for data: 522457600
I0714 20:30:53.936820 29565 layer_factory.hpp:77] Creating layer pool4/3x3_s2_pool4/3x3_s2_0_split
I0714 20:30:53.936830 29565 net.cpp:91] Creating Layer pool4/3x3_s2_pool4/3x3_s2_0_split
I0714 20:30:53.936836 29565 net.cpp:425] pool4/3x3_s2_pool4/3x3_s2_0_split <- pool4/3x3_s2
I0714 20:30:53.936846 29565 net.cpp:399] pool4/3x3_s2_pool4/3x3_s2_0_split -> pool4/3x3_s2_pool4/3x3_s2_0_split_0
I0714 20:30:53.936856 29565 net.cpp:399] pool4/3x3_s2_pool4/3x3_s2_0_split -> pool4/3x3_s2_pool4/3x3_s2_0_split_1
I0714 20:30:53.936866 29565 net.cpp:399] pool4/3x3_s2_pool4/3x3_s2_0_split -> pool4/3x3_s2_pool4/3x3_s2_0_split_2
I0714 20:30:53.936874 29565 net.cpp:399] pool4/3x3_s2_pool4/3x3_s2_0_split -> pool4/3x3_s2_pool4/3x3_s2_0_split_3
I0714 20:30:53.937105 29565 net.cpp:141] Setting up pool4/3x3_s2_pool4/3x3_s2_0_split
I0714 20:30:53.937117 29565 net.cpp:148] Top shape: 10 832 7 7 (407680)
I0714 20:30:53.937124 29565 net.cpp:148] Top shape: 10 832 7 7 (407680)
I0714 20:30:53.937129 29565 net.cpp:148] Top shape: 10 832 7 7 (407680)
I0714 20:30:53.937134 29565 net.cpp:148] Top shape: 10 832 7 7 (407680)
I0714 20:30:53.937139 29565 net.cpp:156] Memory required for data: 528980480
I0714 20:30:53.937144 29565 layer_factory.hpp:77] Creating layer inception_5a/1x1
I0714 20:30:53.937157 29565 net.cpp:91] Creating Layer inception_5a/1x1
I0714 20:30:53.937163 29565 net.cpp:425] inception_5a/1x1 <- pool4/3x3_s2_pool4/3x3_s2_0_split_0
I0714 20:30:53.937176 29565 net.cpp:399] inception_5a/1x1 -> inception_5a/1x1
I0714 20:30:53.941462 29561 net.cpp:141] Setting up inception_5a/1x1
I0714 20:30:53.941483 29561 net.cpp:148] Top shape: 10 256 7 7 (125440)
I0714 20:30:53.941488 29561 net.cpp:156] Memory required for data: 529482240
I0714 20:30:53.941498 29561 layer_factory.hpp:77] Creating layer inception_5a/relu_1x1
I0714 20:30:53.941512 29561 net.cpp:91] Creating Layer inception_5a/relu_1x1
I0714 20:30:53.941519 29561 net.cpp:425] inception_5a/relu_1x1 <- inception_5a/1x1
I0714 20:30:53.941530 29561 net.cpp:386] inception_5a/relu_1x1 -> inception_5a/1x1 (in-place)
I0714 20:30:53.941831 29561 net.cpp:141] Setting up inception_5a/relu_1x1
I0714 20:30:53.941843 29561 net.cpp:148] Top shape: 10 256 7 7 (125440)
I0714 20:30:53.941848 29561 net.cpp:156] Memory required for data: 529984000
I0714 20:30:53.941854 29561 layer_factory.hpp:77] Creating layer inception_5a/3x3_reduce
I0714 20:30:53.941872 29561 net.cpp:91] Creating Layer inception_5a/3x3_reduce
I0714 20:30:53.941879 29561 net.cpp:425] inception_5a/3x3_reduce <- pool4/3x3_s2_pool4/3x3_s2_0_split_1
I0714 20:30:53.941891 29561 net.cpp:399] inception_5a/3x3_reduce -> inception_5a/3x3_reduce
I0714 20:30:53.948035 29565 net.cpp:141] Setting up inception_5a/1x1
I0714 20:30:53.948055 29565 net.cpp:148] Top shape: 10 256 7 7 (125440)
I0714 20:30:53.948060 29565 net.cpp:156] Memory required for data: 529482240
I0714 20:30:53.948072 29565 layer_factory.hpp:77] Creating layer inception_5a/relu_1x1
I0714 20:30:53.948086 29565 net.cpp:91] Creating Layer inception_5a/relu_1x1
I0714 20:30:53.948093 29565 net.cpp:425] inception_5a/relu_1x1 <- inception_5a/1x1
I0714 20:30:53.948102 29565 net.cpp:386] inception_5a/relu_1x1 -> inception_5a/1x1 (in-place)
I0714 20:30:53.948526 29561 net.cpp:141] Setting up inception_5a/3x3_reduce
I0714 20:30:53.948541 29565 net.cpp:141] Setting up inception_5a/relu_1x1
I0714 20:30:53.948545 29561 net.cpp:148] Top shape: 10 160 7 7 (78400)
I0714 20:30:53.948557 29565 net.cpp:148] Top shape: 10 256 7 7 (125440)
I0714 20:30:53.948559 29561 net.cpp:156] Memory required for data: 530297600
I0714 20:30:53.948565 29565 net.cpp:156] Memory required for data: 529984000
I0714 20:30:53.948571 29565 layer_factory.hpp:77] Creating layer inception_5a/3x3_reduce
I0714 20:30:53.948576 29561 layer_factory.hpp:77] Creating layer inception_5a/relu_3x3_reduce
I0714 20:30:53.948586 29561 net.cpp:91] Creating Layer inception_5a/relu_3x3_reduce
I0714 20:30:53.948590 29565 net.cpp:91] Creating Layer inception_5a/3x3_reduce
I0714 20:30:53.948593 29561 net.cpp:425] inception_5a/relu_3x3_reduce <- inception_5a/3x3_reduce
I0714 20:30:53.948598 29565 net.cpp:425] inception_5a/3x3_reduce <- pool4/3x3_s2_pool4/3x3_s2_0_split_1
I0714 20:30:53.948601 29561 net.cpp:386] inception_5a/relu_3x3_reduce -> inception_5a/3x3_reduce (in-place)
I0714 20:30:53.948611 29565 net.cpp:399] inception_5a/3x3_reduce -> inception_5a/3x3_reduce
I0714 20:30:53.949074 29561 net.cpp:141] Setting up inception_5a/relu_3x3_reduce
I0714 20:30:53.949087 29561 net.cpp:148] Top shape: 10 160 7 7 (78400)
I0714 20:30:53.949092 29561 net.cpp:156] Memory required for data: 530611200
I0714 20:30:53.949098 29561 layer_factory.hpp:77] Creating layer inception_5a/3x3
I0714 20:30:53.949115 29561 net.cpp:91] Creating Layer inception_5a/3x3
I0714 20:30:53.949121 29561 net.cpp:425] inception_5a/3x3 <- inception_5a/3x3_reduce
I0714 20:30:53.949134 29561 net.cpp:399] inception_5a/3x3 -> inception_5a/3x3
I0714 20:30:53.956464 29565 net.cpp:141] Setting up inception_5a/3x3_reduce
I0714 20:30:53.956485 29565 net.cpp:148] Top shape: 10 160 7 7 (78400)
I0714 20:30:53.956491 29565 net.cpp:156] Memory required for data: 530297600
I0714 20:30:53.956502 29565 layer_factory.hpp:77] Creating layer inception_5a/relu_3x3_reduce
I0714 20:30:53.956514 29565 net.cpp:91] Creating Layer inception_5a/relu_3x3_reduce
I0714 20:30:53.956522 29565 net.cpp:425] inception_5a/relu_3x3_reduce <- inception_5a/3x3_reduce
I0714 20:30:53.956531 29565 net.cpp:386] inception_5a/relu_3x3_reduce -> inception_5a/3x3_reduce (in-place)
I0714 20:30:53.956840 29565 net.cpp:141] Setting up inception_5a/relu_3x3_reduce
I0714 20:30:53.956852 29565 net.cpp:148] Top shape: 10 160 7 7 (78400)
I0714 20:30:53.956857 29565 net.cpp:156] Memory required for data: 530611200
I0714 20:30:53.956863 29565 layer_factory.hpp:77] Creating layer inception_5a/3x3
I0714 20:30:53.956881 29565 net.cpp:91] Creating Layer inception_5a/3x3
I0714 20:30:53.956887 29565 net.cpp:425] inception_5a/3x3 <- inception_5a/3x3_reduce
I0714 20:30:53.956898 29565 net.cpp:399] inception_5a/3x3 -> inception_5a/3x3
I0714 20:30:53.963518 29561 net.cpp:141] Setting up inception_5a/3x3
I0714 20:30:53.963541 29561 net.cpp:148] Top shape: 10 320 7 7 (156800)
I0714 20:30:53.963546 29561 net.cpp:156] Memory required for data: 531238400
I0714 20:30:53.963557 29561 layer_factory.hpp:77] Creating layer inception_5a/relu_3x3
I0714 20:30:53.963577 29561 net.cpp:91] Creating Layer inception_5a/relu_3x3
I0714 20:30:53.963584 29561 net.cpp:425] inception_5a/relu_3x3 <- inception_5a/3x3
I0714 20:30:53.963593 29561 net.cpp:386] inception_5a/relu_3x3 -> inception_5a/3x3 (in-place)
I0714 20:30:53.964548 29561 net.cpp:141] Setting up inception_5a/relu_3x3
I0714 20:30:53.964566 29561 net.cpp:148] Top shape: 10 320 7 7 (156800)
I0714 20:30:53.964571 29561 net.cpp:156] Memory required for data: 531865600
I0714 20:30:53.964577 29561 layer_factory.hpp:77] Creating layer inception_5a/5x5_reduce
I0714 20:30:53.964601 29561 net.cpp:91] Creating Layer inception_5a/5x5_reduce
I0714 20:30:53.964607 29561 net.cpp:425] inception_5a/5x5_reduce <- pool4/3x3_s2_pool4/3x3_s2_0_split_2
I0714 20:30:53.964617 29561 net.cpp:399] inception_5a/5x5_reduce -> inception_5a/5x5_reduce
I0714 20:30:53.968984 29565 net.cpp:141] Setting up inception_5a/3x3
I0714 20:30:53.969004 29565 net.cpp:148] Top shape: 10 320 7 7 (156800)
I0714 20:30:53.969010 29565 net.cpp:156] Memory required for data: 531238400
I0714 20:30:53.969022 29565 layer_factory.hpp:77] Creating layer inception_5a/relu_3x3
I0714 20:30:53.969033 29565 net.cpp:91] Creating Layer inception_5a/relu_3x3
I0714 20:30:53.969038 29565 net.cpp:425] inception_5a/relu_3x3 <- inception_5a/3x3
I0714 20:30:53.969053 29565 net.cpp:386] inception_5a/relu_3x3 -> inception_5a/3x3 (in-place)
I0714 20:30:53.970089 29565 net.cpp:141] Setting up inception_5a/relu_3x3
I0714 20:30:53.970106 29565 net.cpp:148] Top shape: 10 320 7 7 (156800)
I0714 20:30:53.970111 29565 net.cpp:156] Memory required for data: 531865600
I0714 20:30:53.970118 29565 layer_factory.hpp:77] Creating layer inception_5a/5x5_reduce
I0714 20:30:53.970136 29565 net.cpp:91] Creating Layer inception_5a/5x5_reduce
I0714 20:30:53.970144 29565 net.cpp:425] inception_5a/5x5_reduce <- pool4/3x3_s2_pool4/3x3_s2_0_split_2
I0714 20:30:53.970156 29565 net.cpp:399] inception_5a/5x5_reduce -> inception_5a/5x5_reduce
I0714 20:30:53.971403 29561 net.cpp:141] Setting up inception_5a/5x5_reduce
I0714 20:30:53.971422 29561 net.cpp:148] Top shape: 10 32 7 7 (15680)
I0714 20:30:53.971428 29561 net.cpp:156] Memory required for data: 531928320
I0714 20:30:53.971438 29561 layer_factory.hpp:77] Creating layer inception_5a/relu_5x5_reduce
I0714 20:30:53.971447 29561 net.cpp:91] Creating Layer inception_5a/relu_5x5_reduce
I0714 20:30:53.971454 29561 net.cpp:425] inception_5a/relu_5x5_reduce <- inception_5a/5x5_reduce
I0714 20:30:53.971467 29561 net.cpp:386] inception_5a/relu_5x5_reduce -> inception_5a/5x5_reduce (in-place)
I0714 20:30:53.971891 29561 net.cpp:141] Setting up inception_5a/relu_5x5_reduce
I0714 20:30:53.971910 29561 net.cpp:148] Top shape: 10 32 7 7 (15680)
I0714 20:30:53.971915 29561 net.cpp:156] Memory required for data: 531991040
I0714 20:30:53.971921 29561 layer_factory.hpp:77] Creating layer inception_5a/5x5
I0714 20:30:53.971940 29561 net.cpp:91] Creating Layer inception_5a/5x5
I0714 20:30:53.971946 29561 net.cpp:425] inception_5a/5x5 <- inception_5a/5x5_reduce
I0714 20:30:53.971956 29561 net.cpp:399] inception_5a/5x5 -> inception_5a/5x5
I0714 20:30:53.974746 29565 net.cpp:141] Setting up inception_5a/5x5_reduce
I0714 20:30:53.974766 29565 net.cpp:148] Top shape: 10 32 7 7 (15680)
I0714 20:30:53.974772 29565 net.cpp:156] Memory required for data: 531928320
I0714 20:30:53.974782 29565 layer_factory.hpp:77] Creating layer inception_5a/relu_5x5_reduce
I0714 20:30:53.974792 29565 net.cpp:91] Creating Layer inception_5a/relu_5x5_reduce
I0714 20:30:53.974799 29565 net.cpp:425] inception_5a/relu_5x5_reduce <- inception_5a/5x5_reduce
I0714 20:30:53.974812 29565 net.cpp:386] inception_5a/relu_5x5_reduce -> inception_5a/5x5_reduce (in-place)
I0714 20:30:53.975116 29565 net.cpp:141] Setting up inception_5a/relu_5x5_reduce
I0714 20:30:53.975128 29565 net.cpp:148] Top shape: 10 32 7 7 (15680)
I0714 20:30:53.975133 29565 net.cpp:156] Memory required for data: 531991040
I0714 20:30:53.975138 29565 layer_factory.hpp:77] Creating layer inception_5a/5x5
I0714 20:30:53.975154 29565 net.cpp:91] Creating Layer inception_5a/5x5
I0714 20:30:53.975160 29565 net.cpp:425] inception_5a/5x5 <- inception_5a/5x5_reduce
I0714 20:30:53.975174 29565 net.cpp:399] inception_5a/5x5 -> inception_5a/5x5
I0714 20:30:53.979125 29561 net.cpp:141] Setting up inception_5a/5x5
I0714 20:30:53.979143 29561 net.cpp:148] Top shape: 10 128 7 7 (62720)
I0714 20:30:53.979148 29561 net.cpp:156] Memory required for data: 532241920
I0714 20:30:53.979158 29561 layer_factory.hpp:77] Creating layer inception_5a/relu_5x5
I0714 20:30:53.979197 29561 net.cpp:91] Creating Layer inception_5a/relu_5x5
I0714 20:30:53.979204 29561 net.cpp:425] inception_5a/relu_5x5 <- inception_5a/5x5
I0714 20:30:53.979212 29561 net.cpp:386] inception_5a/relu_5x5 -> inception_5a/5x5 (in-place)
I0714 20:30:53.979614 29561 net.cpp:141] Setting up inception_5a/relu_5x5
I0714 20:30:53.979632 29561 net.cpp:148] Top shape: 10 128 7 7 (62720)
I0714 20:30:53.979638 29561 net.cpp:156] Memory required for data: 532492800
I0714 20:30:53.979645 29561 layer_factory.hpp:77] Creating layer inception_5a/pool
I0714 20:30:53.979655 29561 net.cpp:91] Creating Layer inception_5a/pool
I0714 20:30:53.979661 29561 net.cpp:425] inception_5a/pool <- pool4/3x3_s2_pool4/3x3_s2_0_split_3
I0714 20:30:53.979670 29561 net.cpp:399] inception_5a/pool -> inception_5a/pool
I0714 20:30:53.980782 29561 net.cpp:141] Setting up inception_5a/pool
I0714 20:30:53.980799 29561 net.cpp:148] Top shape: 10 832 7 7 (407680)
I0714 20:30:53.980804 29561 net.cpp:156] Memory required for data: 534123520
I0714 20:30:53.980809 29561 layer_factory.hpp:77] Creating layer inception_5a/pool_proj
I0714 20:30:53.980826 29561 net.cpp:91] Creating Layer inception_5a/pool_proj
I0714 20:30:53.980834 29561 net.cpp:425] inception_5a/pool_proj <- inception_5a/pool
I0714 20:30:53.980844 29561 net.cpp:399] inception_5a/pool_proj -> inception_5a/pool_proj
I0714 20:30:53.982031 29565 net.cpp:141] Setting up inception_5a/5x5
I0714 20:30:53.982050 29565 net.cpp:148] Top shape: 10 128 7 7 (62720)
I0714 20:30:53.982055 29565 net.cpp:156] Memory required for data: 532241920
I0714 20:30:53.982066 29565 layer_factory.hpp:77] Creating layer inception_5a/relu_5x5
I0714 20:30:53.982106 29565 net.cpp:91] Creating Layer inception_5a/relu_5x5
I0714 20:30:53.982113 29565 net.cpp:425] inception_5a/relu_5x5 <- inception_5a/5x5
I0714 20:30:53.982125 29565 net.cpp:386] inception_5a/relu_5x5 -> inception_5a/5x5 (in-place)
I0714 20:30:53.982482 29565 net.cpp:141] Setting up inception_5a/relu_5x5
I0714 20:30:53.982498 29565 net.cpp:148] Top shape: 10 128 7 7 (62720)
I0714 20:30:53.982503 29565 net.cpp:156] Memory required for data: 532492800
I0714 20:30:53.982511 29565 layer_factory.hpp:77] Creating layer inception_5a/pool
I0714 20:30:53.982523 29565 net.cpp:91] Creating Layer inception_5a/pool
I0714 20:30:53.982529 29565 net.cpp:425] inception_5a/pool <- pool4/3x3_s2_pool4/3x3_s2_0_split_3
I0714 20:30:53.982538 29565 net.cpp:399] inception_5a/pool -> inception_5a/pool
I0714 20:30:53.984442 29565 net.cpp:141] Setting up inception_5a/pool
I0714 20:30:53.984458 29565 net.cpp:148] Top shape: 10 832 7 7 (407680)
I0714 20:30:53.984463 29565 net.cpp:156] Memory required for data: 534123520
I0714 20:30:53.984468 29565 layer_factory.hpp:77] Creating layer inception_5a/pool_proj
I0714 20:30:53.984485 29565 net.cpp:91] Creating Layer inception_5a/pool_proj
I0714 20:30:53.984493 29565 net.cpp:425] inception_5a/pool_proj <- inception_5a/pool
I0714 20:30:53.984508 29565 net.cpp:399] inception_5a/pool_proj -> inception_5a/pool_proj
I0714 20:30:53.990324 29561 net.cpp:141] Setting up inception_5a/pool_proj
I0714 20:30:53.990345 29561 net.cpp:148] Top shape: 10 128 7 7 (62720)
I0714 20:30:53.990350 29561 net.cpp:156] Memory required for data: 534374400
I0714 20:30:53.990360 29561 layer_factory.hpp:77] Creating layer inception_5a/relu_pool_proj
I0714 20:30:53.990370 29561 net.cpp:91] Creating Layer inception_5a/relu_pool_proj
I0714 20:30:53.990377 29561 net.cpp:425] inception_5a/relu_pool_proj <- inception_5a/pool_proj
I0714 20:30:53.990388 29561 net.cpp:386] inception_5a/relu_pool_proj -> inception_5a/pool_proj (in-place)
I0714 20:30:53.991726 29561 net.cpp:141] Setting up inception_5a/relu_pool_proj
I0714 20:30:53.991745 29561 net.cpp:148] Top shape: 10 128 7 7 (62720)
I0714 20:30:53.991750 29561 net.cpp:156] Memory required for data: 534625280
I0714 20:30:53.991756 29561 layer_factory.hpp:77] Creating layer inception_5a/output
I0714 20:30:53.991766 29561 net.cpp:91] Creating Layer inception_5a/output
I0714 20:30:53.991772 29561 net.cpp:425] inception_5a/output <- inception_5a/1x1
I0714 20:30:53.991780 29561 net.cpp:425] inception_5a/output <- inception_5a/3x3
I0714 20:30:53.991797 29561 net.cpp:425] inception_5a/output <- inception_5a/5x5
I0714 20:30:53.991803 29561 net.cpp:425] inception_5a/output <- inception_5a/pool_proj
I0714 20:30:53.991811 29561 net.cpp:399] inception_5a/output -> inception_5a/output
I0714 20:30:53.991813 29565 net.cpp:141] Setting up inception_5a/pool_proj
I0714 20:30:53.991830 29565 net.cpp:148] Top shape: 10 128 7 7 (62720)
I0714 20:30:53.991835 29565 net.cpp:156] Memory required for data: 534374400
I0714 20:30:53.991845 29565 layer_factory.hpp:77] Creating layer inception_5a/relu_pool_proj
I0714 20:30:53.991859 29565 net.cpp:91] Creating Layer inception_5a/relu_pool_proj
I0714 20:30:53.991866 29565 net.cpp:425] inception_5a/relu_pool_proj <- inception_5a/pool_proj
I0714 20:30:53.991874 29565 net.cpp:386] inception_5a/relu_pool_proj -> inception_5a/pool_proj (in-place)
I0714 20:30:53.991909 29561 net.cpp:141] Setting up inception_5a/output
I0714 20:30:53.991920 29561 net.cpp:148] Top shape: 10 832 7 7 (407680)
I0714 20:30:53.991925 29561 net.cpp:156] Memory required for data: 536256000
I0714 20:30:53.991931 29561 layer_factory.hpp:77] Creating layer inception_5a/output_inception_5a/output_0_split
I0714 20:30:53.991943 29561 net.cpp:91] Creating Layer inception_5a/output_inception_5a/output_0_split
I0714 20:30:53.991950 29561 net.cpp:425] inception_5a/output_inception_5a/output_0_split <- inception_5a/output
I0714 20:30:53.991957 29561 net.cpp:399] inception_5a/output_inception_5a/output_0_split -> inception_5a/output_inception_5a/output_0_split_0
I0714 20:30:53.991967 29561 net.cpp:399] inception_5a/output_inception_5a/output_0_split -> inception_5a/output_inception_5a/output_0_split_1
I0714 20:30:53.991977 29561 net.cpp:399] inception_5a/output_inception_5a/output_0_split -> inception_5a/output_inception_5a/output_0_split_2
I0714 20:30:53.991986 29561 net.cpp:399] inception_5a/output_inception_5a/output_0_split -> inception_5a/output_inception_5a/output_0_split_3
I0714 20:30:53.992895 29565 net.cpp:141] Setting up inception_5a/relu_pool_proj
I0714 20:30:53.992913 29565 net.cpp:148] Top shape: 10 128 7 7 (62720)
I0714 20:30:53.992920 29565 net.cpp:156] Memory required for data: 534625280
I0714 20:30:53.992919 29561 net.cpp:141] Setting up inception_5a/output_inception_5a/output_0_split
I0714 20:30:53.992928 29565 layer_factory.hpp:77] Creating layer inception_5a/output
I0714 20:30:53.992933 29561 net.cpp:148] Top shape: 10 832 7 7 (407680)
I0714 20:30:53.992938 29565 net.cpp:91] Creating Layer inception_5a/output
I0714 20:30:53.992940 29561 net.cpp:148] Top shape: 10 832 7 7 (407680)
I0714 20:30:53.992945 29565 net.cpp:425] inception_5a/output <- inception_5a/1x1
I0714 20:30:53.992946 29561 net.cpp:148] Top shape: 10 832 7 7 (407680)
I0714 20:30:53.992954 29561 net.cpp:148] Top shape: 10 832 7 7 (407680)
I0714 20:30:53.992954 29565 net.cpp:425] inception_5a/output <- inception_5a/3x3
I0714 20:30:53.992962 29561 net.cpp:156] Memory required for data: 542778880
I0714 20:30:53.992967 29565 net.cpp:425] inception_5a/output <- inception_5a/5x5
I0714 20:30:53.992969 29561 layer_factory.hpp:77] Creating layer inception_5b/1x1
I0714 20:30:53.992979 29565 net.cpp:425] inception_5a/output <- inception_5a/pool_proj
I0714 20:30:53.992990 29565 net.cpp:399] inception_5a/output -> inception_5a/output
I0714 20:30:53.992996 29561 net.cpp:91] Creating Layer inception_5b/1x1
I0714 20:30:53.993005 29561 net.cpp:425] inception_5b/1x1 <- inception_5a/output_inception_5a/output_0_split_0
I0714 20:30:53.993015 29561 net.cpp:399] inception_5b/1x1 -> inception_5b/1x1
I0714 20:30:53.993114 29565 net.cpp:141] Setting up inception_5a/output
I0714 20:30:53.993126 29565 net.cpp:148] Top shape: 10 832 7 7 (407680)
I0714 20:30:53.993131 29565 net.cpp:156] Memory required for data: 536256000
I0714 20:30:53.993137 29565 layer_factory.hpp:77] Creating layer inception_5a/output_inception_5a/output_0_split
I0714 20:30:53.993145 29565 net.cpp:91] Creating Layer inception_5a/output_inception_5a/output_0_split
I0714 20:30:53.993151 29565 net.cpp:425] inception_5a/output_inception_5a/output_0_split <- inception_5a/output
I0714 20:30:53.993161 29565 net.cpp:399] inception_5a/output_inception_5a/output_0_split -> inception_5a/output_inception_5a/output_0_split_0
I0714 20:30:53.993172 29565 net.cpp:399] inception_5a/output_inception_5a/output_0_split -> inception_5a/output_inception_5a/output_0_split_1
I0714 20:30:53.993181 29565 net.cpp:399] inception_5a/output_inception_5a/output_0_split -> inception_5a/output_inception_5a/output_0_split_2
I0714 20:30:53.993191 29565 net.cpp:399] inception_5a/output_inception_5a/output_0_split -> inception_5a/output_inception_5a/output_0_split_3
I0714 20:30:53.993609 29565 net.cpp:141] Setting up inception_5a/output_inception_5a/output_0_split
I0714 20:30:53.993621 29565 net.cpp:148] Top shape: 10 832 7 7 (407680)
I0714 20:30:53.993628 29565 net.cpp:148] Top shape: 10 832 7 7 (407680)
I0714 20:30:53.993633 29565 net.cpp:148] Top shape: 10 832 7 7 (407680)
I0714 20:30:53.993639 29565 net.cpp:148] Top shape: 10 832 7 7 (407680)
I0714 20:30:53.993643 29565 net.cpp:156] Memory required for data: 542778880
I0714 20:30:53.993649 29565 layer_factory.hpp:77] Creating layer inception_5b/1x1
I0714 20:30:53.993667 29565 net.cpp:91] Creating Layer inception_5b/1x1
I0714 20:30:53.993674 29565 net.cpp:425] inception_5b/1x1 <- inception_5a/output_inception_5a/output_0_split_0
I0714 20:30:53.993686 29565 net.cpp:399] inception_5b/1x1 -> inception_5b/1x1
I0714 20:30:54.001605 29561 net.cpp:141] Setting up inception_5b/1x1
I0714 20:30:54.001626 29561 net.cpp:148] Top shape: 10 384 7 7 (188160)
I0714 20:30:54.001631 29561 net.cpp:156] Memory required for data: 543531520
I0714 20:30:54.001641 29561 layer_factory.hpp:77] Creating layer inception_5b/relu_1x1
I0714 20:30:54.001652 29561 net.cpp:91] Creating Layer inception_5b/relu_1x1
I0714 20:30:54.001658 29561 net.cpp:425] inception_5b/relu_1x1 <- inception_5b/1x1
I0714 20:30:54.001667 29561 net.cpp:386] inception_5b/relu_1x1 -> inception_5b/1x1 (in-place)
I0714 20:30:54.001978 29561 net.cpp:141] Setting up inception_5b/relu_1x1
I0714 20:30:54.001991 29561 net.cpp:148] Top shape: 10 384 7 7 (188160)
I0714 20:30:54.001996 29561 net.cpp:156] Memory required for data: 544284160
I0714 20:30:54.002002 29561 layer_factory.hpp:77] Creating layer inception_5b/3x3_reduce
I0714 20:30:54.002018 29561 net.cpp:91] Creating Layer inception_5b/3x3_reduce
I0714 20:30:54.002024 29561 net.cpp:425] inception_5b/3x3_reduce <- inception_5a/output_inception_5a/output_0_split_1
I0714 20:30:54.002038 29561 net.cpp:399] inception_5b/3x3_reduce -> inception_5b/3x3_reduce
I0714 20:30:54.006413 29565 net.cpp:141] Setting up inception_5b/1x1
I0714 20:30:54.006439 29565 net.cpp:148] Top shape: 10 384 7 7 (188160)
I0714 20:30:54.006445 29565 net.cpp:156] Memory required for data: 543531520
I0714 20:30:54.006458 29565 layer_factory.hpp:77] Creating layer inception_5b/relu_1x1
I0714 20:30:54.006469 29565 net.cpp:91] Creating Layer inception_5b/relu_1x1
I0714 20:30:54.006476 29565 net.cpp:425] inception_5b/relu_1x1 <- inception_5b/1x1
I0714 20:30:54.006485 29565 net.cpp:386] inception_5b/relu_1x1 -> inception_5b/1x1 (in-place)
I0714 20:30:54.006827 29565 net.cpp:141] Setting up inception_5b/relu_1x1
I0714 20:30:54.006841 29565 net.cpp:148] Top shape: 10 384 7 7 (188160)
I0714 20:30:54.006846 29565 net.cpp:156] Memory required for data: 544284160
I0714 20:30:54.006851 29565 layer_factory.hpp:77] Creating layer inception_5b/3x3_reduce
I0714 20:30:54.006868 29565 net.cpp:91] Creating Layer inception_5b/3x3_reduce
I0714 20:30:54.006875 29565 net.cpp:425] inception_5b/3x3_reduce <- inception_5a/output_inception_5a/output_0_split_1
I0714 20:30:54.006889 29565 net.cpp:399] inception_5b/3x3_reduce -> inception_5b/3x3_reduce
I0714 20:30:54.011565 29561 net.cpp:141] Setting up inception_5b/3x3_reduce
I0714 20:30:54.011592 29561 net.cpp:148] Top shape: 10 192 7 7 (94080)
I0714 20:30:54.011598 29561 net.cpp:156] Memory required for data: 544660480
I0714 20:30:54.011610 29561 layer_factory.hpp:77] Creating layer inception_5b/relu_3x3_reduce
I0714 20:30:54.011625 29561 net.cpp:91] Creating Layer inception_5b/relu_3x3_reduce
I0714 20:30:54.011632 29561 net.cpp:425] inception_5b/relu_3x3_reduce <- inception_5b/3x3_reduce
I0714 20:30:54.011641 29561 net.cpp:386] inception_5b/relu_3x3_reduce -> inception_5b/3x3_reduce (in-place)
I0714 20:30:54.011966 29561 net.cpp:141] Setting up inception_5b/relu_3x3_reduce
I0714 20:30:54.011979 29561 net.cpp:148] Top shape: 10 192 7 7 (94080)
I0714 20:30:54.011984 29561 net.cpp:156] Memory required for data: 545036800
I0714 20:30:54.011991 29561 layer_factory.hpp:77] Creating layer inception_5b/3x3
I0714 20:30:54.012012 29561 net.cpp:91] Creating Layer inception_5b/3x3
I0714 20:30:54.012017 29561 net.cpp:425] inception_5b/3x3 <- inception_5b/3x3_reduce
I0714 20:30:54.012027 29561 net.cpp:399] inception_5b/3x3 -> inception_5b/3x3
I0714 20:30:54.017954 29565 net.cpp:141] Setting up inception_5b/3x3_reduce
I0714 20:30:54.017982 29565 net.cpp:148] Top shape: 10 192 7 7 (94080)
I0714 20:30:54.017988 29565 net.cpp:156] Memory required for data: 544660480
I0714 20:30:54.018000 29565 layer_factory.hpp:77] Creating layer inception_5b/relu_3x3_reduce
I0714 20:30:54.018013 29565 net.cpp:91] Creating Layer inception_5b/relu_3x3_reduce
I0714 20:30:54.018019 29565 net.cpp:425] inception_5b/relu_3x3_reduce <- inception_5b/3x3_reduce
I0714 20:30:54.018031 29565 net.cpp:386] inception_5b/relu_3x3_reduce -> inception_5b/3x3_reduce (in-place)
I0714 20:30:54.018345 29565 net.cpp:141] Setting up inception_5b/relu_3x3_reduce
I0714 20:30:54.018358 29565 net.cpp:148] Top shape: 10 192 7 7 (94080)
I0714 20:30:54.018363 29565 net.cpp:156] Memory required for data: 545036800
I0714 20:30:54.018369 29565 layer_factory.hpp:77] Creating layer inception_5b/3x3
I0714 20:30:54.018390 29565 net.cpp:91] Creating Layer inception_5b/3x3
I0714 20:30:54.018398 29565 net.cpp:425] inception_5b/3x3 <- inception_5b/3x3_reduce
I0714 20:30:54.018407 29565 net.cpp:399] inception_5b/3x3 -> inception_5b/3x3
I0714 20:30:54.025674 29561 net.cpp:141] Setting up inception_5b/3x3
I0714 20:30:54.025699 29561 net.cpp:148] Top shape: 10 384 7 7 (188160)
I0714 20:30:54.025705 29561 net.cpp:156] Memory required for data: 545789440
I0714 20:30:54.025717 29561 layer_factory.hpp:77] Creating layer inception_5b/relu_3x3
I0714 20:30:54.025727 29561 net.cpp:91] Creating Layer inception_5b/relu_3x3
I0714 20:30:54.025735 29561 net.cpp:425] inception_5b/relu_3x3 <- inception_5b/3x3
I0714 20:30:54.025748 29561 net.cpp:386] inception_5b/relu_3x3 -> inception_5b/3x3 (in-place)
I0714 20:30:54.026617 29561 net.cpp:141] Setting up inception_5b/relu_3x3
I0714 20:30:54.026633 29561 net.cpp:148] Top shape: 10 384 7 7 (188160)
I0714 20:30:54.026638 29561 net.cpp:156] Memory required for data: 546542080
I0714 20:30:54.026644 29561 layer_factory.hpp:77] Creating layer inception_5b/5x5_reduce
I0714 20:30:54.026664 29561 net.cpp:91] Creating Layer inception_5b/5x5_reduce
I0714 20:30:54.026671 29561 net.cpp:425] inception_5b/5x5_reduce <- inception_5a/output_inception_5a/output_0_split_2
I0714 20:30:54.026684 29561 net.cpp:399] inception_5b/5x5_reduce -> inception_5b/5x5_reduce
I0714 20:30:54.031363 29565 net.cpp:141] Setting up inception_5b/3x3
I0714 20:30:54.031386 29565 net.cpp:148] Top shape: 10 384 7 7 (188160)
I0714 20:30:54.031393 29565 net.cpp:156] Memory required for data: 545789440
I0714 20:30:54.031402 29565 layer_factory.hpp:77] Creating layer inception_5b/relu_3x3
I0714 20:30:54.031412 29565 net.cpp:91] Creating Layer inception_5b/relu_3x3
I0714 20:30:54.031420 29565 net.cpp:425] inception_5b/relu_3x3 <- inception_5b/3x3
I0714 20:30:54.031429 29565 net.cpp:386] inception_5b/relu_3x3 -> inception_5b/3x3 (in-place)
I0714 20:30:54.032498 29565 net.cpp:141] Setting up inception_5b/relu_3x3
I0714 20:30:54.032516 29565 net.cpp:148] Top shape: 10 384 7 7 (188160)
I0714 20:30:54.032521 29565 net.cpp:156] Memory required for data: 546542080
I0714 20:30:54.032527 29565 layer_factory.hpp:77] Creating layer inception_5b/5x5_reduce
I0714 20:30:54.032546 29565 net.cpp:91] Creating Layer inception_5b/5x5_reduce
I0714 20:30:54.032552 29565 net.cpp:425] inception_5b/5x5_reduce <- inception_5a/output_inception_5a/output_0_split_2
I0714 20:30:54.032565 29565 net.cpp:399] inception_5b/5x5_reduce -> inception_5b/5x5_reduce
I0714 20:30:54.032631 29561 net.cpp:141] Setting up inception_5b/5x5_reduce
I0714 20:30:54.032649 29561 net.cpp:148] Top shape: 10 48 7 7 (23520)
I0714 20:30:54.032654 29561 net.cpp:156] Memory required for data: 546636160
I0714 20:30:54.032663 29561 layer_factory.hpp:77] Creating layer inception_5b/relu_5x5_reduce
I0714 20:30:54.032673 29561 net.cpp:91] Creating Layer inception_5b/relu_5x5_reduce
I0714 20:30:54.032680 29561 net.cpp:425] inception_5b/relu_5x5_reduce <- inception_5b/5x5_reduce
I0714 20:30:54.032687 29561 net.cpp:386] inception_5b/relu_5x5_reduce -> inception_5b/5x5_reduce (in-place)
I0714 20:30:54.033186 29561 net.cpp:141] Setting up inception_5b/relu_5x5_reduce
I0714 20:30:54.033200 29561 net.cpp:148] Top shape: 10 48 7 7 (23520)
I0714 20:30:54.033205 29561 net.cpp:156] Memory required for data: 546730240
I0714 20:30:54.033210 29561 layer_factory.hpp:77] Creating layer inception_5b/5x5
I0714 20:30:54.033227 29561 net.cpp:91] Creating Layer inception_5b/5x5
I0714 20:30:54.033234 29561 net.cpp:425] inception_5b/5x5 <- inception_5b/5x5_reduce
I0714 20:30:54.033248 29561 net.cpp:399] inception_5b/5x5 -> inception_5b/5x5
I0714 20:30:54.038370 29565 net.cpp:141] Setting up inception_5b/5x5_reduce
I0714 20:30:54.038390 29565 net.cpp:148] Top shape: 10 48 7 7 (23520)
I0714 20:30:54.038398 29565 net.cpp:156] Memory required for data: 546636160
I0714 20:30:54.038408 29565 layer_factory.hpp:77] Creating layer inception_5b/relu_5x5_reduce
I0714 20:30:54.038417 29565 net.cpp:91] Creating Layer inception_5b/relu_5x5_reduce
I0714 20:30:54.038424 29565 net.cpp:425] inception_5b/relu_5x5_reduce <- inception_5b/5x5_reduce
I0714 20:30:54.038432 29565 net.cpp:386] inception_5b/relu_5x5_reduce -> inception_5b/5x5_reduce (in-place)
I0714 20:30:54.038800 29565 net.cpp:141] Setting up inception_5b/relu_5x5_reduce
I0714 20:30:54.038815 29565 net.cpp:148] Top shape: 10 48 7 7 (23520)
I0714 20:30:54.038820 29565 net.cpp:156] Memory required for data: 546730240
I0714 20:30:54.038825 29565 layer_factory.hpp:77] Creating layer inception_5b/5x5
I0714 20:30:54.038844 29565 net.cpp:91] Creating Layer inception_5b/5x5
I0714 20:30:54.038851 29565 net.cpp:425] inception_5b/5x5 <- inception_5b/5x5_reduce
I0714 20:30:54.038861 29565 net.cpp:399] inception_5b/5x5 -> inception_5b/5x5
I0714 20:30:54.040242 29561 net.cpp:141] Setting up inception_5b/5x5
I0714 20:30:54.040261 29561 net.cpp:148] Top shape: 10 128 7 7 (62720)
I0714 20:30:54.040267 29561 net.cpp:156] Memory required for data: 546981120
I0714 20:30:54.040277 29561 layer_factory.hpp:77] Creating layer inception_5b/relu_5x5
I0714 20:30:54.040292 29561 net.cpp:91] Creating Layer inception_5b/relu_5x5
I0714 20:30:54.040298 29561 net.cpp:425] inception_5b/relu_5x5 <- inception_5b/5x5
I0714 20:30:54.040310 29561 net.cpp:386] inception_5b/relu_5x5 -> inception_5b/5x5 (in-place)
I0714 20:30:54.040619 29561 net.cpp:141] Setting up inception_5b/relu_5x5
I0714 20:30:54.040632 29561 net.cpp:148] Top shape: 10 128 7 7 (62720)
I0714 20:30:54.040637 29561 net.cpp:156] Memory required for data: 547232000
I0714 20:30:54.040642 29561 layer_factory.hpp:77] Creating layer inception_5b/pool
I0714 20:30:54.040657 29561 net.cpp:91] Creating Layer inception_5b/pool
I0714 20:30:54.040664 29561 net.cpp:425] inception_5b/pool <- inception_5a/output_inception_5a/output_0_split_3
I0714 20:30:54.040673 29561 net.cpp:399] inception_5b/pool -> inception_5b/pool
I0714 20:30:54.040834 29561 net.cpp:141] Setting up inception_5b/pool
I0714 20:30:54.040845 29561 net.cpp:148] Top shape: 10 832 7 7 (407680)
I0714 20:30:54.040850 29561 net.cpp:156] Memory required for data: 548862720
I0714 20:30:54.040856 29561 layer_factory.hpp:77] Creating layer inception_5b/pool_proj
I0714 20:30:54.040874 29561 net.cpp:91] Creating Layer inception_5b/pool_proj
I0714 20:30:54.040880 29561 net.cpp:425] inception_5b/pool_proj <- inception_5b/pool
I0714 20:30:54.040892 29561 net.cpp:399] inception_5b/pool_proj -> inception_5b/pool_proj
I0714 20:30:54.047333 29565 net.cpp:141] Setting up inception_5b/5x5
I0714 20:30:54.047353 29565 net.cpp:148] Top shape: 10 128 7 7 (62720)
I0714 20:30:54.047359 29565 net.cpp:156] Memory required for data: 546981120
I0714 20:30:54.047369 29565 layer_factory.hpp:77] Creating layer inception_5b/relu_5x5
I0714 20:30:54.047382 29565 net.cpp:91] Creating Layer inception_5b/relu_5x5
I0714 20:30:54.047389 29565 net.cpp:425] inception_5b/relu_5x5 <- inception_5b/5x5
I0714 20:30:54.047399 29565 net.cpp:386] inception_5b/relu_5x5 -> inception_5b/5x5 (in-place)
I0714 20:30:54.047886 29565 net.cpp:141] Setting up inception_5b/relu_5x5
I0714 20:30:54.047901 29565 net.cpp:148] Top shape: 10 128 7 7 (62720)
I0714 20:30:54.047906 29565 net.cpp:156] Memory required for data: 547232000
I0714 20:30:54.047912 29565 layer_factory.hpp:77] Creating layer inception_5b/pool
I0714 20:30:54.047922 29565 net.cpp:91] Creating Layer inception_5b/pool
I0714 20:30:54.047929 29565 net.cpp:425] inception_5b/pool <- inception_5a/output_inception_5a/output_0_split_3
I0714 20:30:54.047941 29565 net.cpp:399] inception_5b/pool -> inception_5b/pool
I0714 20:30:54.048147 29561 net.cpp:141] Setting up inception_5b/pool_proj
I0714 20:30:54.048163 29561 net.cpp:148] Top shape: 10 128 7 7 (62720)
I0714 20:30:54.048169 29561 net.cpp:156] Memory required for data: 549113600
I0714 20:30:54.048179 29561 layer_factory.hpp:77] Creating layer inception_5b/relu_pool_proj
I0714 20:30:54.048182 29565 net.cpp:141] Setting up inception_5b/pool
I0714 20:30:54.048192 29561 net.cpp:91] Creating Layer inception_5b/relu_pool_proj
I0714 20:30:54.048195 29565 net.cpp:148] Top shape: 10 832 7 7 (407680)
I0714 20:30:54.048198 29561 net.cpp:425] inception_5b/relu_pool_proj <- inception_5b/pool_proj
I0714 20:30:54.048200 29565 net.cpp:156] Memory required for data: 548862720
I0714 20:30:54.048207 29565 layer_factory.hpp:77] Creating layer inception_5b/pool_proj
I0714 20:30:54.048207 29561 net.cpp:386] inception_5b/relu_pool_proj -> inception_5b/pool_proj (in-place)
I0714 20:30:54.048223 29565 net.cpp:91] Creating Layer inception_5b/pool_proj
I0714 20:30:54.048230 29565 net.cpp:425] inception_5b/pool_proj <- inception_5b/pool
I0714 20:30:54.048243 29565 net.cpp:399] inception_5b/pool_proj -> inception_5b/pool_proj
I0714 20:30:54.049278 29561 net.cpp:141] Setting up inception_5b/relu_pool_proj
I0714 20:30:54.049295 29561 net.cpp:148] Top shape: 10 128 7 7 (62720)
I0714 20:30:54.049300 29561 net.cpp:156] Memory required for data: 549364480
I0714 20:30:54.049306 29561 layer_factory.hpp:77] Creating layer inception_5b/output
I0714 20:30:54.049319 29561 net.cpp:91] Creating Layer inception_5b/output
I0714 20:30:54.049325 29561 net.cpp:425] inception_5b/output <- inception_5b/1x1
I0714 20:30:54.049332 29561 net.cpp:425] inception_5b/output <- inception_5b/3x3
I0714 20:30:54.049338 29561 net.cpp:425] inception_5b/output <- inception_5b/5x5
I0714 20:30:54.049345 29561 net.cpp:425] inception_5b/output <- inception_5b/pool_proj
I0714 20:30:54.049352 29561 net.cpp:399] inception_5b/output -> inception_5b/output
I0714 20:30:54.049536 29561 net.cpp:141] Setting up inception_5b/output
I0714 20:30:54.049551 29561 net.cpp:148] Top shape: 10 1024 7 7 (501760)
I0714 20:30:54.049556 29561 net.cpp:156] Memory required for data: 551371520
I0714 20:30:54.049561 29561 layer_factory.hpp:77] Creating layer pool5/7x7_s1
I0714 20:30:54.049571 29561 net.cpp:91] Creating Layer pool5/7x7_s1
I0714 20:30:54.049576 29561 net.cpp:425] pool5/7x7_s1 <- inception_5b/output
I0714 20:30:54.049584 29561 net.cpp:399] pool5/7x7_s1 -> pool5/7x7_s1
I0714 20:30:54.050834 29561 net.cpp:141] Setting up pool5/7x7_s1
I0714 20:30:54.050851 29561 net.cpp:148] Top shape: 10 1024 1 1 (10240)
I0714 20:30:54.050856 29561 net.cpp:156] Memory required for data: 551412480
I0714 20:30:54.050863 29561 layer_factory.hpp:77] Creating layer pool5/drop_7x7_s1
I0714 20:30:54.050876 29561 net.cpp:91] Creating Layer pool5/drop_7x7_s1
I0714 20:30:54.050882 29561 net.cpp:425] pool5/drop_7x7_s1 <- pool5/7x7_s1
I0714 20:30:54.050892 29561 net.cpp:386] pool5/drop_7x7_s1 -> pool5/7x7_s1 (in-place)
I0714 20:30:54.051513 29561 net.cpp:141] Setting up pool5/drop_7x7_s1
I0714 20:30:54.051527 29561 net.cpp:148] Top shape: 10 1024 1 1 (10240)
I0714 20:30:54.051532 29561 net.cpp:156] Memory required for data: 551453440
I0714 20:30:54.051537 29561 layer_factory.hpp:77] Creating layer loss3/classifier
I0714 20:30:54.051558 29561 net.cpp:91] Creating Layer loss3/classifier
I0714 20:30:54.051564 29561 net.cpp:425] loss3/classifier <- pool5/7x7_s1
I0714 20:30:54.051573 29561 net.cpp:399] loss3/classifier -> loss3/classifier
I0714 20:30:54.057678 29565 net.cpp:141] Setting up inception_5b/pool_proj
I0714 20:30:54.057703 29565 net.cpp:148] Top shape: 10 128 7 7 (62720)
I0714 20:30:54.057709 29565 net.cpp:156] Memory required for data: 549113600
I0714 20:30:54.057719 29565 layer_factory.hpp:77] Creating layer inception_5b/relu_pool_proj
I0714 20:30:54.057730 29565 net.cpp:91] Creating Layer inception_5b/relu_pool_proj
I0714 20:30:54.057737 29565 net.cpp:425] inception_5b/relu_pool_proj <- inception_5b/pool_proj
I0714 20:30:54.057749 29565 net.cpp:386] inception_5b/relu_pool_proj -> inception_5b/pool_proj (in-place)
I0714 20:30:54.058615 29565 net.cpp:141] Setting up inception_5b/relu_pool_proj
I0714 20:30:54.058632 29565 net.cpp:148] Top shape: 10 128 7 7 (62720)
I0714 20:30:54.058639 29565 net.cpp:156] Memory required for data: 549364480
I0714 20:30:54.058645 29565 layer_factory.hpp:77] Creating layer inception_5b/output
I0714 20:30:54.058655 29565 net.cpp:91] Creating Layer inception_5b/output
I0714 20:30:54.058660 29565 net.cpp:425] inception_5b/output <- inception_5b/1x1
I0714 20:30:54.058668 29565 net.cpp:425] inception_5b/output <- inception_5b/3x3
I0714 20:30:54.058675 29565 net.cpp:425] inception_5b/output <- inception_5b/5x5
I0714 20:30:54.058681 29565 net.cpp:425] inception_5b/output <- inception_5b/pool_proj
I0714 20:30:54.058701 29565 net.cpp:399] inception_5b/output -> inception_5b/output
I0714 20:30:54.058799 29565 net.cpp:141] Setting up inception_5b/output
I0714 20:30:54.058811 29565 net.cpp:148] Top shape: 10 1024 7 7 (501760)
I0714 20:30:54.058816 29565 net.cpp:156] Memory required for data: 551371520
I0714 20:30:54.058821 29565 layer_factory.hpp:77] Creating layer pool5/7x7_s1
I0714 20:30:54.058832 29565 net.cpp:91] Creating Layer pool5/7x7_s1
I0714 20:30:54.058838 29565 net.cpp:425] pool5/7x7_s1 <- inception_5b/output
I0714 20:30:54.058850 29565 net.cpp:399] pool5/7x7_s1 -> pool5/7x7_s1
I0714 20:30:54.059231 29565 net.cpp:141] Setting up pool5/7x7_s1
I0714 20:30:54.059243 29565 net.cpp:148] Top shape: 10 1024 1 1 (10240)
I0714 20:30:54.059248 29565 net.cpp:156] Memory required for data: 551412480
I0714 20:30:54.059253 29565 layer_factory.hpp:77] Creating layer pool5/drop_7x7_s1
I0714 20:30:54.059267 29565 net.cpp:91] Creating Layer pool5/drop_7x7_s1
I0714 20:30:54.059273 29565 net.cpp:425] pool5/drop_7x7_s1 <- pool5/7x7_s1
I0714 20:30:54.059279 29565 net.cpp:386] pool5/drop_7x7_s1 -> pool5/7x7_s1 (in-place)
I0714 20:30:54.059365 29565 net.cpp:141] Setting up pool5/drop_7x7_s1
I0714 20:30:54.059376 29565 net.cpp:148] Top shape: 10 1024 1 1 (10240)
I0714 20:30:54.059381 29565 net.cpp:156] Memory required for data: 551453440
I0714 20:30:54.059386 29565 layer_factory.hpp:77] Creating layer loss3/classifier
I0714 20:30:54.059401 29565 net.cpp:91] Creating Layer loss3/classifier
I0714 20:30:54.059407 29565 net.cpp:425] loss3/classifier <- pool5/7x7_s1
I0714 20:30:54.059418 29565 net.cpp:399] loss3/classifier -> loss3/classifier
I0714 20:30:54.064013 29561 net.cpp:141] Setting up loss3/classifier
I0714 20:30:54.064039 29561 net.cpp:148] Top shape: 10 1000 (10000)
I0714 20:30:54.064044 29561 net.cpp:156] Memory required for data: 551493440
I0714 20:30:54.064055 29561 layer_factory.hpp:77] Creating layer prob
I0714 20:30:54.064067 29561 net.cpp:91] Creating Layer prob
I0714 20:30:54.064074 29561 net.cpp:425] prob <- loss3/classifier
I0714 20:30:54.064082 29561 net.cpp:399] prob -> prob
I0714 20:30:54.065357 29561 net.cpp:141] Setting up prob
I0714 20:30:54.065377 29561 net.cpp:148] Top shape: 10 1000 (10000)
I0714 20:30:54.065383 29561 net.cpp:156] Memory required for data: 551533440
I0714 20:30:54.065389 29561 net.cpp:219] prob does not need backward computation.
I0714 20:30:54.065395 29561 net.cpp:219] loss3/classifier does not need backward computation.
I0714 20:30:54.065402 29561 net.cpp:219] pool5/drop_7x7_s1 does not need backward computation.
I0714 20:30:54.065405 29561 net.cpp:219] pool5/7x7_s1 does not need backward computation.
…
