…
Java HotSpot(TM) 64-Bit Server VM warning: You have loaded library /home/peifeng/work/run/storm102/data/workers/c4653ded-6bb9-4e18-b97d-ca79a1b0efbc/tmp/cvld2208849663631797273/libopencv_java310.xine1.so which might have disabled stack guard. The VM will try to fix the stack guard now.
It's highly recommended that you fix the library with 'execstack -c <libfile>', or link it with '-z noexecstack'.
WARNING: Logging before InitGoogleLogging() is written to STDERR
I0915 11:53:31.581315 28506 net.cpp:49] Initializing net from parameters: 
name: "GoogleNet"
state {
  phase: TEST
}
layer {
  name: "data"
  type: "Input"
  top: "data"
  input_param {
    shape {
      dim: 10
      dim: 3
      dim: 224
      dim: 224
    }
  }
}
layer {
  name: "conv1/7x7_s2"
  type: "Convolution"
  bottom: "data"
  top: "conv1/7x7_s2"
  param {
    lr_mult: 1
    decay_mult: 1
  }
  param {
    lr_mult: 2
    decay_mult: 0
  }
  convolution_param {
    num_output: 64
    pad: 3
    kernel_size: 7
    stride: 2
    weight_filler {
      type: "xavier"
      std: 0.1
    }
    bias_filler {
      type: "constant"
      value: 0.2
    }
  }
}
layer {
  name: "conv1/relu_7x7"
  type: "ReLU"
  bottom: "conv1/7x7_s2"
  top: "conv1/7x7_s2"
}
layer {
  name: "pool1/3x3_s2"
  type: "Pooling"
  bottom: "conv1/7x7_s2"
  top: "pool1/3x3_s2"
  pooling_param {
    pool: MAX
    kernel_size: 3
    stride: 2
  }
}
layer {
  name: "pool1/norm1"
  type: "LRN"
  bottom: "pool1/3x3_s2"
  top: "pool1/norm1"
  lrn_param {
    local_size: 5
    alpha: 0.0001
    beta: 0.75
  }
}
layer {
  name: "conv2/3x3_reduce"
  type: "Convolution"
  bottom: "pool1/norm1"
  top: "conv2/3x3_reduce"
  param {
    lr_mult: 1
    decay_mult: 1
  }
  param {
    lr_mult: 2
    decay_mult: 0
  }
  convolution_param {
    num_output: 64
    kernel_size: 1
    weight_filler {
      type: "xavier"
      std: 0.1
    }
    bias_filler {
      type: "constant"
      value: 0.2
    }
  }
}
layer {
  name: "conv2/relu_3x3_reduce"
  type: "ReLU"
  bottom: "conv2/3x3_reduce"
  top: "conv2/3x3_reduce"
}
layer {
  name: "conv2/3x3"
  type: "Convolution"
  bottom: "conv2/3x3_reduce"
  top: "conv2/3x3"
  param {
    lr_mult: 1
    decay_mult: 1
  }
  param {
    lr_mult: 2
    decay_mult: 0
  }
  convolution_param {
    num_output: 192
    pad: 1
    kernel_size: 3
    weight_filler {
      type: "xavier"
      std: 0.03
    }
    bias_filler {
      type: "constant"
      value: 0.2
    }
  }
}
layer {
  name: "conv2/relu_3x3"
  type: "ReLU"
  bottom: "conv2/3x3"
  top: "conv2/3x3"
}
layer {
  name: "conv2/norm2"
  type: "LRN"
  bottom: "conv2/3x3"
  top: "conv2/norm2"
  lrn_param {
    local_size: 5
    alpha: 0.0001
    beta: 0.75
  }
}
layer {
  name: "pool2/3x3_s2"
  type: "Pooling"
  bottom: "conv2/norm2"
  top: "pool2/3x3_s2"
  pooling_param {
    pool: MAX
    kernel_size: 3
    stride: 2
  }
}
layer {
  name: "inception_3a/1x1"
  type: "Convolution"
  bottom: "pool2/3x3_s2"
  top: "inception_3a/1x1"
  param {
    lr_mult: 1
    decay_mult: 1
  }
  param {
    lr_mult: 2
    decay_mult: 0
  }
  convolution_param {
    num_output: 64
    kernel_size: 1
    weight_filler {
      type: "xavier"
      std: 0.03
    }
    bias_filler {
      type: "constant"
      value: 0.2
    }
  }
}
layer {
  name: "inception_3a/relu_1x1"
  type: "ReLU"
  bottom: "inception_3a/1x1"
  top: "inception_3a/1x1"
}
layer {
  name: "inception_3a/3x3_reduce"
  type: "Convolution"
  bottom: "pool2/3x3_s2"
  top: "inception_3a/3x3_reduce"
  param {
    lr_mult: 1
    decay_mult: 1
  }
  param {
    lr_mult: 2
    decay_mult: 0
  }
  convolution_param {
    num_output: 96
    kernel_size: 1
    weight_filler {
      type: "xavier"
      std: 0.09
    }
    bias_filler {
      type: "constant"
      value: 0.2
    }
  }
}
layer {
  name: "inception_3a/relu_3x3_reduce"
  type: "ReLU"
  bottom: "inception_3a/3x3_reduce"
  top: "inception_3a/3x3_reduce"
}
layer {
  name: "inception_3a/3x3"
  type: "Convolution"
  bottom: "inception_3a/3x3_reduce"
  top: "inception_3a/3x3"
  param {
    lr_mult: 1
    decay_mult: 1
  }
  param {
    lr_mult: 2
    decay_mult: 0
  }
  convolution_param {
    num_output: 128
    pad: 1
    kernel_size: 3
    weight_filler {
      type: "xavier"
      std: 0.03
    }
    bias_filler {
      type: "constant"
      value: 0.2
    }
  }
}
layer {
  name: "inception_3a/relu_3x3"
  type: "ReLU"
  bottom: "inception_3a/3x3"
  top: "inception_3a/3x3"
}
layer {
  name: "inception_3a/5x5_reduce"
  type: "Convolution"
  bottom: "pool2/3x3_s2"
  top: "inception_3a/5x5_reduce"
  param {
    lr_mult: 1
    decay_mult: 1
  }
  param {
    lr_mult: 2
    decay_mult: 0
  }
  convolution_param {
    num_output: 16
    kernel_size: 1
    weight_filler {
      type: "xavier"
      std: 0.2
    }
    bias_filler {
      type: "constant"
      value: 0.2
    }
  }
}
layer {
  name: "inception_3a/relu_5x5_reduce"
  type: "ReLU"
  bottom: "inception_3a/5x5_reduce"
  top: "inception_3a/5x5_reduce"
}
layer {
  name: "inception_3a/5x5"
  type: "Convolution"
  bottom: "inception_3a/5x5_reduce"
  top: "inception_3a/5x5"
  param {
    lr_mult: 1
    decay_mult: 1
  }
  param {
    lr_mult: 2
    decay_mult: 0
  }
  convolution_param {
    num_output: 32
    pad: 2
    kernel_size: 5
    weight_filler {
      type: "xavier"
      std: 0.03
    }
    bias_filler {
      type: "constant"
      value: 0.2
    }
  }
}
layer {
  name: "inception_3a/relu_5x5"
  type: "ReLU"
  bottom: "inception_3a/5x5"
  top: "inception_3a/5x5"
}
layer {
  name: "inception_3a/pool"
  type: "Pooling"
  bottom: "pool2/3x3_s2"
  top: "inception_3a/pool"
  pooling_param {
    pool: MAX
    kernel_size: 3
    stride: 1
    pad: 1
  }
}
layer {
  name: "inception_3a/pool_proj"
  type: "Convolution"
  bottom: "inception_3a/pool"
  top: "inception_3a/pool_proj"
  param {
    lr_mult: 1
    decay_mult: 1
  }
  param {
    lr_mult: 2
    decay_mult: 0
  }
  convolution_param {
    num_output: 32
    kernel_size: 1
    weight_filler {
      type: "xavier"
      std: 0.1
    }
    bias_filler {
      type: "constant"
      value: 0.2
    }
  }
}
layer {
  name: "inception_3a/relu_pool_proj"
  type: "ReLU"
  bottom: "inception_3a/pool_proj"
  top: "inception_3a/pool_proj"
}
layer {
  name: "inception_3a/output"
  type: "Concat"
  bottom: "inception_3a/1x1"
  bottom: "inception_3a/3x3"
  bottom: "inception_3a/5x5"
  bottom: "inception_3a/pool_proj"
  top: "inception_3a/output"
}
layer {
  name: "inception_3b/1x1"
  type: "Convolution"
  bottom: "inception_3a/output"
  top: "inception_3b/1x1"
  param {
    lr_mult: 1
    decay_mult: 1
  }
  param {
    lr_mult: 2
    decay_mult: 0
  }
  convolution_param {
    num_output: 128
    kernel_size: 1
    weight_filler {
      type: "xavier"
      std: 0.03
    }
    bias_filler {
      type: "constant"
      value: 0.2
    }
  }
}
layer {
  name: "inception_3b/relu_1x1"
  type: "ReLU"
  bottom: "inception_3b/1x1"
  top: "inception_3b/1x1"
}
layer {
  name: "inception_3b/3x3_reduce"
  type: "Convolution"
  bottom: "inception_3a/output"
  top: "inception_3b/3x3_reduce"
  param {
    lr_mult: 1
    decay_mult: 1
  }
  param {
    lr_mult: 2
    decay_mult: 0
  }
  convolution_param {
    num_output: 128
    kernel_size: 1
    weight_filler {
      type: "xavier"
      std: 0.09
    }
    bias_filler {
      type: "constant"
      value: 0.2
    }
  }
}
layer {
  name: "inception_3b/relu_3x3_reduce"
  type: "ReLU"
  bottom: "inception_3b/3x3_reduce"
  top: "inception_3b/3x3_reduce"
}
layer {
  name: "inception_3b/3x3"
  type: "Convolution"
  bottom: "inception_3b/3x3_reduce"
  top: "inception_3b/3x3"
  param {
    lr_mult: 1
    decay_mult: 1
  }
  param {
    lr_mult: 2
    decay_mult: 0
  }
  convolution_param {
    num_output: 192
    pad: 1
    kernel_size: 3
    weight_filler {
      type: "xavier"
      std: 0.03
    }
    bias_filler {
      type: "constant"
      value: 0.2
    }
  }
}
layer {
  name: "inception_3b/relu_3x3"
  type: "ReLU"
  bottom: "inception_3b/3x3"
  top: "inception_3b/3x3"
}
layer {
  name: "inception_3b/5x5_reduce"
  type: "Convolution"
  bottom: "inception_3a/output"
  top: "inception_3b/5x5_reduce"
  param {
    lr_mult: 1
    decay_mult: 1
  }
  param {
    lr_mult: 2
    decay_mult: 0
  }
  convolution_param {
    num_output: 32
    kernel_size: 1
    weight_filler {
      type: "xavier"
      std: 0.2
    }
    bias_filler {
      type: "constant"
      value: 0.2
    }
  }
}
layer {
  name: "inception_3b/relu_5x5_reduce"
  type: "ReLU"
  bottom: "inception_3b/5x5_reduce"
  top: "inception_3b/5x5_reduce"
}
layer {
  name: "inception_3b/5x5"
  type: "Convolution"
  bottom: "inception_3b/5x5_reduce"
  top: "inception_3b/5x5"
  param {
    lr_mult: 1
    decay_mult: 1
  }
  param {
    lr_mult: 2
    decay_mult: 0
  }
  convolution_param {
    num_output: 96
    pad: 2
    kernel_size: 5
    weight_filler {
      type: "xavier"
      std: 0.03
    }
    bias_filler {
      type: "constant"
      value: 0.2
    }
  }
}
layer {
  name: "inception_3b/relu_5x5"
  type: "ReLU"
  bottom: "inception_3b/5x5"
  top: "inception_3b/5x5"
}
layer {
  name: "inception_3b/pool"
  type: "Pooling"
  bottom: "inception_3a/output"
  top: "inception_3b/pool"
  pooling_param {
    pool: MAX
    kernel_size: 3
    stride: 1
    pad: 1
  }
}
layer {
  name: "inception_3b/pool_proj"
  type: "Convolution"
  bottom: "inception_3b/pool"
  top: "inception_3b/pool_proj"
  param {
    lr_mult: 1
    decay_mult: 1
  }
  param {
    lr_mult: 2
    decay_mult: 0
  }
  convolution_param {
    num_output: 64
    kernel_size: 1
    weight_filler {
      type: "xavier"
      std: 0.1
    }
    bias_filler {
      type: "constant"
      value: 0.2
    }
  }
}
layer {
  name: "inception_3b/relu_pool_proj"
  type: "ReLU"
  bottom: "inception_3b/pool_proj"
  top: "inception_3b/pool_proj"
}
layer {
  name: "inception_3b/output"
  type: "Concat"
  bottom: "inception_3b/1x1"
  bottom: "inception_3b/3x3"
  bottom: "inception_3b/5x5"
  bottom: "inception_3b/pool_proj"
  top: "inception_3b/output"
}
layer {
  name: "pool3/3x3_s2"
  type: "Pooling"
  bottom: "inception_3b/output"
  top: "pool3/3x3_s2"
  pooling_param {
    pool: MAX
    kernel_size: 3
    stride: 2
  }
}
layer {
  name: "inception_4a/1x1"
  type: "Convolution"
  bottom: "pool3/3x3_s2"
  top: "inception_4a/1x1"
  param {
    lr_mult: 1
    decay_mult: 1
  }
  param {
    lr_mult: 2
    decay_mult: 0
  }
  convolution_param {
    num_output: 192
    kernel_size: 1
    weight_filler {
      type: "xavier"
      std: 0.03
    }
    bias_filler {
      type: "constant"
      value: 0.2
    }
  }
}
layer {
  name: "inception_4a/relu_1x1"
  type: "ReLU"
  bottom: "inception_4a/1x1"
  top: "inception_4a/1x1"
}
layer {
  name: "inception_4a/3x3_reduce"
  type: "Convolution"
  bottom: "pool3/3x3_s2"
  top: "inception_4a/3x3_reduce"
  param {
    lr_mult: 1
    decay_mult: 1
  }
  param {
    lr_mult: 2
    decay_mult: 0
  }
  convolution_param {
    num_output: 96
    kernel_size: 1
    weight_filler {
      type: "xavier"
      std: 0.09
    }
    bias_filler {
      type: "constant"
      value: 0.2
    }
  }
}
layer {
  name: "inception_4a/relu_3x3_reduce"
  type: "ReLU"
  bottom: "inception_4a/3x3_reduce"
  top: "inception_4a/3x3_reduce"
}
layer {
  name: "inception_4a/3x3"
  type: "Convolution"
  bottom: "inception_4a/3x3_reduce"
  top: "inception_4a/3x3"
  param {
    lr_mult: 1
    decay_mult: 1
  }
  param {
    lr_mult: 2
    decay_mult: 0
  }
  convolution_param {
    num_output: 208
    pad: 1
    kernel_size: 3
    weight_filler {
      type: "xavier"
      std: 0.03
    }
    bias_filler {
      type: "constant"
      value: 0.2
    }
  }
}
layer {
  name: "inception_4a/relu_3x3"
  type: "ReLU"
  bottom: "inception_4a/3x3"
  top: "inception_4a/3x3"
}
layer {
  name: "inception_4a/5x5_reduce"
  type: "Convolution"
  bottom: "pool3/3x3_s2"
  top: "inception_4a/5x5_reduce"
  param {
    lr_mult: 1
    decay_mult: 1
  }
  param {
    lr_mult: 2
    decay_mult: 0
  }
  convolution_param {
    num_output: 16
    kernel_size: 1
    weight_filler {
      type: "xavier"
      std: 0.2
    }
    bias_filler {
      type: "constant"
      value: 0.2
    }
  }
}
layer {
  name: "inception_4a/relu_5x5_reduce"
  type: "ReLU"
  bottom: "inception_4a/5x5_reduce"
  top: "inception_4a/5x5_reduce"
}
layer {
  name: "inception_4a/5x5"
  type: "Convolution"
  bottom: "inception_4a/5x5_reduce"
  top: "inception_4a/5x5"
  param {
    lr_mult: 1
    decay_mult: 1
  }
  param {
    lr_mult: 2
    decay_mult: 0
  }
  convolution_param {
    num_output: 48
    pad: 2
    kernel_size: 5
    weight_filler {
      type: "xavier"
      std: 0.03
    }
    bias_filler {
      type: "constant"
      value: 0.2
    }
  }
}
layer {
  name: "inception_4a/relu_5x5"
  type: "ReLU"
  bottom: "inception_4a/5x5"
  top: "inception_4a/5x5"
}
layer {
  name: "inception_4a/pool"
  type: "Pooling"
  bottom: "pool3/3x3_s2"
  top: "inception_4a/pool"
  pooling_param {
    pool: MAX
    kernel_size: 3
    stride: 1
    pad: 1
  }
}
layer {
  name: "inception_4a/pool_proj"
  type: "Convolution"
  bottom: "inception_4a/pool"
  top: "inception_4a/pool_proj"
  param {
    lr_mult: 1
    decay_mult: 1
  }
  param {
    lr_mult: 2
    decay_mult: 0
  }
  convolution_param {
    num_output: 64
    kernel_size: 1
    weight_filler {
      type: "xavier"
      std: 0.1
    }
    bias_filler {
      type: "constant"
      value: 0.2
    }
  }
}
layer {
  name: "inception_4a/relu_pool_proj"
  type: "ReLU"
  bottom: "inception_4a/pool_proj"
  top: "inception_4a/pool_proj"
}
layer {
  name: "inception_4a/output"
  type: "Concat"
  bottom: "inception_4a/1x1"
  bottom: "inception_4a/3x3"
  bottom: "inception_4a/5x5"
  bottom: "inception_4a/pool_proj"
  top: "inception_4a/output"
}
layer {
  name: "inception_4b/1x1"
  type: "Convolution"
  bottom: "inception_4a/output"
  top: "inception_4b/1x1"
  param {
    lr_mult: 1
    decay_mult: 1
  }
  param {
    lr_mult: 2
    decay_mult: 0
  }
  convolution_param {
    num_output: 160
    kernel_size: 1
    weight_filler {
      type: "xavier"
      std: 0.03
    }
    bias_filler {
      type: "constant"
      value: 0.2
    }
  }
}
layer {
  name: "inception_4b/relu_1x1"
  type: "ReLU"
  bottom: "inception_4b/1x1"
  top: "inception_4b/1x1"
}
layer {
  name: "inception_4b/3x3_reduce"
  type: "Convolution"
  bottom: "inception_4a/output"
  top: "inception_4b/3x3_reduce"
  param {
    lr_mult: 1
    decay_mult: 1
  }
  param {
    lr_mult: 2
    decay_mult: 0
  }
  convolution_param {
    num_output: 112
    kernel_size: 1
    weight_filler {
      type: "xavier"
      std: 0.09
    }
    bias_filler {
      type: "constant"
      value: 0.2
    }
  }
}
layer {
  name: "inception_4b/relu_3x3_reduce"
  type: "ReLU"
  bottom: "inception_4b/3x3_reduce"
  top: "inception_4b/3x3_reduce"
}
layer {
  name: "inception_4b/3x3"
  type: "Convolution"
  bottom: "inception_4b/3x3_reduce"
  top: "inception_4b/3x3"
  param {
    lr_mult: 1
    decay_mult: 1
  }
  param {
    lr_mult: 2
    decay_mult: 0
  }
  convolution_param {
    num_output: 224
    pad: 1
    kernel_size: 3
    weight_filler {
      type: "xavier"
      std: 0.03
    }
    bias_filler {
      type: "constant"
      value: 0.2
    }
  }
}
layer {
  name: "inception_4b/relu_3x3"
  type: "ReLU"
  bottom: "inception_4b/3x3"
  top: "inception_4b/3x3"
}
layer {
  name: "inception_4b/5x5_reduce"
  type: "Convolution"
  bottom: "inception_4a/output"
  top: "inception_4b/5x5_reduce"
  param {
    lr_mult: 1
    decay_mult: 1
  }
  param {
    lr_mult: 2
    decay_mult: 0
  }
  convolution_param {
    num_output: 24
    kernel_size: 1
    weight_filler {
      type: "xavier"
      std: 0.2
    }
    bias_filler {
      type: "constant"
      value: 0.2
    }
  }
}
layer {
  name: "inception_4b/relu_5x5_reduce"
  type: "ReLU"
  bottom: "inception_4b/5x5_reduce"
  top: "inception_4b/5x5_reduce"
}
layer {
  name: "inception_4b/5x5"
  type: "Convolution"
  bottom: "inception_4b/5x5_reduce"
  top: "inception_4b/5x5"
  param {
    lr_mult: 1
    decay_mult: 1
  }
  param {
    lr_mult: 2
    decay_mult: 0
  }
  convolution_param {
    num_output: 64
    pad: 2
    kernel_size: 5
    weight_filler {
      type: "xavier"
      std: 0.03
    }
    bias_filler {
      type: "constant"
      value: 0.2
    }
  }
}
layer {
  name: "inception_4b/relu_5x5"
  type: "ReLU"
  bottom: "inception_4b/5x5"
  top: "inception_4b/5x5"
}
layer {
  name: "inception_4b/pool"
  type: "Pooling"
  bottom: "inception_4a/output"
  top: "inception_4b/pool"
  pooling_param {
    pool: MAX
    kernel_size: 3
    stride: 1
    pad: 1
  }
}
layer {
  name: "inception_4b/pool_proj"
  type: "Convolution"
  bottom: "inception_4b/pool"
  top: "inception_4b/pool_proj"
  param {
    lr_mult: 1
    decay_mult: 1
  }
  param {
    lr_mult: 2
    decay_mult: 0
  }
  convolution_param {
    num_output: 64
    kernel_size: 1
    weight_filler {
      type: "xavier"
      std: 0.1
    }
    bias_filler {
      type: "constant"
      value: 0.2
    }
  }
}
layer {
  name: "inception_4b/relu_pool_proj"
  type: "ReLU"
  bottom: "inception_4b/pool_proj"
  top: "inception_4b/pool_proj"
}
layer {
  name: "inception_4b/output"
  type: "Concat"
  bottom: "inception_4b/1x1"
  bottom: "inception_4b/3x3"
  bottom: "inception_4b/5x5"
  bottom: "inception_4b/pool_proj"
  top: "inception_4b/output"
}
layer {
  name: "inception_4c/1x1"
  type: "Convolution"
  bottom: "inception_4b/output"
  top: "inception_4c/1x1"
  param {
    lr_mult: 1
    decay_mult: 1
  }
  param {
    lr_mult: 2
    decay_mult: 0
  }
  convolution_param {
    num_output: 128
    kernel_size: 1
    weight_filler {
      type: "xavier"
      std: 0.03
    }
    bias_filler {
      type: "constant"
      value: 0.2
    }
  }
}
layer {
  name: "inception_4c/relu_1x1"
  type: "ReLU"
  bottom: "inception_4c/1x1"
  top: "inception_4c/1x1"
}
layer {
  name: "inception_4c/3x3_reduce"
  type: "Convolution"
  bottom: "inception_4b/output"
  top: "inception_4c/3x3_reduce"
  param {
    lr_mult: 1
    decay_mult: 1
  }
  param {
    lr_mult: 2
    decay_mult: 0
  }
  convolution_param {
    num_output: 128
    kernel_size: 1
    weight_filler {
      type: "xavier"
      std: 0.09
    }
    bias_filler {
      type: "constant"
      value: 0.2
    }
  }
}
layer {
  name: "inception_4c/relu_3x3_reduce"
  type: "ReLU"
  bottom: "inception_4c/3x3_reduce"
  top: "inception_4c/3x3_reduce"
}
layer {
  name: "inception_4c/3x3"
  type: "Convolution"
  bottom: "inception_4c/3x3_reduce"
  top: "inception_4c/3x3"
  param {
    lr_mult: 1
    decay_mult: 1
  }
  param {
    lr_mult: 2
    decay_mult: 0
  }
  convolution_param {
    num_output: 256
    pad: 1
    kernel_size: 3
    weight_filler {
      type: "xavier"
      std: 0.03
    }
    bias_filler {
      type: "constant"
      value: 0.2
    }
  }
}
layer {
  name: "inception_4c/relu_3x3"
  type: "ReLU"
  bottom: "inception_4c/3x3"
  top: "inception_4c/3x3"
}
layer {
  name: "inception_4c/5x5_reduce"
  type: "Convolution"
  bottom: "inception_4b/output"
  top: "inception_4c/5x5_reduce"
  param {
    lr_mult: 1
    decay_mult: 1
  }
  param {
    lr_mult: 2
    decay_mult: 0
  }
  convolution_param {
    num_output: 24
    kernel_size: 1
    weight_filler {
      type: "xavier"
      std: 0.2
    }
    bias_filler {
      type: "constant"
      value: 0.2
    }
  }
}
layer {
  name: "inception_4c/relu_5x5_reduce"
  type: "ReLU"
  bottom: "inception_4c/5x5_reduce"
  top: "inception_4c/5x5_reduce"
}
layer {
  name: "inception_4c/5x5"
  type: "Convolution"
  bottom: "inception_4c/5x5_reduce"
  top: "inception_4c/5x5"
  param {
    lr_mult: 1
    decay_mult: 1
  }
  param {
    lr_mult: 2
    decay_mult: 0
  }
  convolution_param {
    num_output: 64
    pad: 2
    kernel_size: 5
    weight_filler {
      type: "xavier"
      std: 0.03
    }
    bias_filler {
      type: "constant"
      value: 0.2
    }
  }
}
layer {
  name: "inception_4c/relu_5x5"
  type: "ReLU"
  bottom: "inception_4c/5x5"
  top: "inception_4c/5x5"
}
layer {
  name: "inception_4c/pool"
  type: "Pooling"
  bottom: "inception_4b/output"
  top: "inception_4c/pool"
  pooling_param {
    pool: MAX
    kernel_size: 3
    stride: 1
    pad: 1
  }
}
layer {
  name: "inception_4c/pool_proj"
  type: "Convolution"
  bottom: "inception_4c/pool"
  top: "inception_4c/pool_proj"
  param {
    lr_mult: 1
    decay_mult: 1
  }
  param {
    lr_mult: 2
    decay_mult: 0
  }
  convolution_param {
    num_output: 64
    kernel_size: 1
    weight_filler {
      type: "xavier"
      std: 0.1
    }
    bias_filler {
      type: "constant"
      value: 0.2
    }
  }
}
layer {
  name: "inception_4c/relu_pool_proj"
  type: "ReLU"
  bottom: "inception_4c/pool_proj"
  top: "inception_4c/pool_proj"
}
layer {
  name: "inception_4c/output"
  type: "Concat"
  bottom: "inception_4c/1x1"
  bottom: "inception_4c/3x3"
  bottom: "inception_4c/5x5"
  bottom: "inception_4c/pool_proj"
  top: "inception_4c/output"
}
layer {
  name: "inception_4d/1x1"
  type: "Convolution"
  bottom: "inception_4c/output"
  top: "inception_4d/1x1"
  param {
    lr_mult: 1
    decay_mult: 1
  }
  param {
    lr_mult: 2
    decay_mult: 0
  }
  convolution_param {
    num_output: 112
    kernel_size: 1
    weight_filler {
      type: "xavier"
      std: 0.03
    }
    bias_filler {
      type: "constant"
      value: 0.2
    }
  }
}
layer {
  name: "inception_4d/relu_1x1"
  type: "ReLU"
  bottom: "inception_4d/1x1"
  top: "inception_4d/1x1"
}
layer {
  name: "inception_4d/3x3_reduce"
  type: "Convolution"
  bottom: "inception_4c/output"
  top: "inception_4d/3x3_reduce"
  param {
    lr_mult: 1
    decay_mult: 1
  }
  param {
    lr_mult: 2
    decay_mult: 0
  }
  convolution_param {
    num_output: 144
    kernel_size: 1
    weight_filler {
      type: "xavier"
      std: 0.09
    }
    bias_filler {
      type: "constant"
      value: 0.2
    }
  }
}
layer {
  name: "inception_4d/relu_3x3_reduce"
  type: "ReLU"
  bottom: "inception_4d/3x3_reduce"
  top: "inception_4d/3x3_reduce"
}
layer {
  name: "inception_4d/3x3"
  type: "Convolution"
  bottom: "inception_4d/3x3_reduce"
  top: "inception_4d/3x3"
  param {
    lr_mult: 1
    decay_mult: 1
  }
  param {
    lr_mult: 2
    decay_mult: 0
  }
  convolution_param {
    num_output: 288
    pad: 1
    kernel_size: 3
    weight_filler {
      type: "xavier"
      std: 0.03
    }
    bias_filler {
      type: "constant"
      value: 0.2
    }
  }
}
layer {
  name: "inception_4d/relu_3x3"
  type: "ReLU"
  bottom: "inception_4d/3x3"
  top: "inception_4d/3x3"
}
layer {
  name: "inception_4d/5x5_reduce"
  type: "Convolution"
  bottom: "inception_4c/output"
  top: "inception_4d/5x5_reduce"
  param {
    lr_mult: 1
    decay_mult: 1
  }
  param {
    lr_mult: 2
    decay_mult: 0
  }
  convolution_param {
    num_output: 32
    kernel_size: 1
    weight_filler {
      type: "xavier"
      std: 0.2
    }
    bias_filler {
      type: "constant"
      value: 0.2
    }
  }
}
layer {
  name: "inception_4d/relu_5x5_reduce"
  type: "ReLU"
  bottom: "inception_4d/5x5_reduce"
  top: "inception_4d/5x5_reduce"
}
layer {
  name: "inception_4d/5x5"
  type: "Convolution"
  bottom: "inception_4d/5x5_reduce"
  top: "inception_4d/5x5"
  param {
    lr_mult: 1
    decay_mult: 1
  }
  param {
    lr_mult: 2
    decay_mult: 0
  }
  convolution_param {
    num_output: 64
    pad: 2
    kernel_size: 5
    weight_filler {
      type: "xavier"
      std: 0.03
    }
    bias_filler {
      type: "constant"
      value: 0.2
    }
  }
}
layer {
  name: "inception_4d/relu_5x5"
  type: "ReLU"
  bottom: "inception_4d/5x5"
  top: "inception_4d/5x5"
}
layer {
  name: "inception_4d/pool"
  type: "Pooling"
  bottom: "inception_4c/output"
  top: "inception_4d/pool"
  pooling_param {
    pool: MAX
    kernel_size: 3
    stride: 1
    pad: 1
  }
}
layer {
  name: "inception_4d/pool_proj"
  type: "Convolution"
  bottom: "inception_4d/pool"
  top: "inception_4d/pool_proj"
  param {
    lr_mult: 1
    decay_mult: 1
  }
  param {
    lr_mult: 2
    decay_mult: 0
  }
  convolution_param {
    num_output: 64
    kernel_size: 1
    weight_filler {
      type: "xavier"
      std: 0.1
    }
    bias_filler {
      type: "constant"
      value: 0.2
    }
  }
}
layer {
  name: "inception_4d/relu_pool_proj"
  type: "ReLU"
  bottom: "inception_4d/pool_proj"
  top: "inception_4d/pool_proj"
}
layer {
  name: "inception_4d/output"
  type: "Concat"
  bottom: "inception_4d/1x1"
  bottom: "inception_4d/3x3"
  bottom: "inception_4d/5x5"
  bottom: "inception_4d/pool_proj"
  top: "inception_4d/output"
}
layer {
  name: "inception_4e/1x1"
  type: "Convolution"
  bottom: "inception_4d/output"
  top: "inception_4e/1x1"
  param {
    lr_mult: 1
    decay_mult: 1
  }
  param {
    lr_mult: 2
    decay_mult: 0
  }
  convolution_param {
    num_output: 256
    kernel_size: 1
    weight_filler {
      type: "xavier"
      std: 0.03
    }
    bias_filler {
      type: "constant"
      value: 0.2
    }
  }
}
layer {
  name: "inception_4e/relu_1x1"
  type: "ReLU"
  bottom: "inception_4e/1x1"
  top: "inception_4e/1x1"
}
layer {
  name: "inception_4e/3x3_reduce"
  type: "Convolution"
  bottom: "inception_4d/output"
  top: "inception_4e/3x3_reduce"
  param {
    lr_mult: 1
    decay_mult: 1
  }
  param {
    lr_mult: 2
    decay_mult: 0
  }
  convolution_param {
    num_output: 160
    kernel_size: 1
    weight_filler {
      type: "xavier"
      std: 0.09
    }
    bias_filler {
      type: "constant"
      value: 0.2
    }
  }
}
layer {
  name: "inception_4e/relu_3x3_reduce"
  type: "ReLU"
  bottom: "inception_4e/3x3_reduce"
  top: "inception_4e/3x3_reduce"
}
layer {
  name: "inception_4e/3x3"
  type: "Convolution"
  bottom: "inception_4e/3x3_reduce"
  top: "inception_4e/3x3"
  param {
    lr_mult: 1
    decay_mult: 1
  }
  param {
    lr_mult: 2
    decay_mult: 0
  }
  convolution_param {
    num_output: 320
    pad: 1
    kernel_size: 3
    weight_filler {
      type: "xavier"
      std: 0.03
    }
    bias_filler {
      type: "constant"
      value: 0.2
    }
  }
}
layer {
  name: "inception_4e/relu_3x3"
  type: "ReLU"
  bottom: "inception_4e/3x3"
  top: "inception_4e/3x3"
}
layer {
  name: "inception_4e/5x5_reduce"
  type: "Convolution"
  bottom: "inception_4d/output"
  top: "inception_4e/5x5_reduce"
  param {
    lr_mult: 1
    decay_mult: 1
  }
  param {
    lr_mult: 2
    decay_mult: 0
  }
  convolution_param {
    num_output: 32
    kernel_size: 1
    weight_filler {
      type: "xavier"
      std: 0.2
    }
    bias_filler {
      type: "constant"
      value: 0.2
    }
  }
}
layer {
  name: "inception_4e/relu_5x5_reduce"
  type: "ReLU"
  bottom: "inception_4e/5x5_reduce"
  top: "inception_4e/5x5_reduce"
}
layer {
  name: "inception_4e/5x5"
  type: "Convolution"
  bottom: "inception_4e/5x5_reduce"
  top: "inception_4e/5x5"
  param {
    lr_mult: 1
    decay_mult: 1
  }
  param {
    lr_mult: 2
    decay_mult: 0
  }
  convolution_param {
    num_output: 128
    pad: 2
    kernel_size: 5
    weight_filler {
      type: "xavier"
      std: 0.03
    }
    bias_filler {
      type: "constant"
      value: 0.2
    }
  }
}
layer {
  name: "inception_4e/relu_5x5"
  type: "ReLU"
  bottom: "inception_4e/5x5"
  top: "inception_4e/5x5"
}
layer {
  name: "inception_4e/pool"
  type: "Pooling"
  bottom: "inception_4d/output"
  top: "inception_4e/pool"
  pooling_param {
    pool: MAX
    kernel_size: 3
    stride: 1
    pad: 1
  }
}
layer {
  name: "inception_4e/pool_proj"
  type: "Convolution"
  bottom: "inception_4e/pool"
  top: "inception_4e/pool_proj"
  param {
    lr_mult: 1
    decay_mult: 1
  }
  param {
    lr_mult: 2
    decay_mult: 0
  }
  convolution_param {
    num_output: 128
    kernel_size: 1
    weight_filler {
      type: "xavier"
      std: 0.1
    }
    bias_filler {
      type: "constant"
      value: 0.2
    }
  }
}
layer {
  name: "inception_4e/relu_pool_proj"
  type: "ReLU"
  bottom: "inception_4e/pool_proj"
  top: "inception_4e/pool_proj"
}
layer {
  name: "inception_4e/output"
  type: "Concat"
  bottom: "inception_4e/1x1"
  bottom: "inception_4e/3x3"
  bottom: "inception_4e/5x5"
  bottom: "inception_4e/pool_proj"
  top: "inception_4e/output"
}
layer {
  name: "pool4/3x3_s2"
  type: "Pooling"
  bottom: "inception_4e/output"
  top: "pool4/3x3_s2"
  pooling_param {
    pool: MAX
    kernel_size: 3
    stride: 2
  }
}
layer {
  name: "inception_5a/1x1"
  type: "Convolution"
  bottom: "pool4/3x3_s2"
  top: "inception_5a/1x1"
  param {
    lr_mult: 1
    decay_mult: 1
  }
  param {
    lr_mult: 2
    decay_mult: 0
  }
  convolution_param {
    num_output: 256
    kernel_size: 1
    weight_filler {
      type: "xavier"
      std: 0.03
    }
    bias_filler {
      type: "constant"
      value: 0.2
    }
  }
}
layer {
  name: "inception_5a/relu_1x1"
  type: "ReLU"
  bottom: "inception_5a/1x1"
  top: "inception_5a/1x1"
}
layer {
  name: "inception_5a/3x3_reduce"
  type: "Convolution"
  bottom: "pool4/3x3_s2"
  top: "inception_5a/3x3_reduce"
  param {
    lr_mult: 1
    decay_mult: 1
  }
  param {
    lr_mult: 2
    decay_mult: 0
  }
  convolution_param {
    num_output: 160
    kernel_size: 1
    weight_filler {
      type: "xavier"
      std: 0.09
    }
    bias_filler {
      type: "constant"
      value: 0.2
    }
  }
}
layer {
  name: "inception_5a/relu_3x3_reduce"
  type: "ReLU"
  bottom: "inception_5a/3x3_reduce"
  top: "inception_5a/3x3_reduce"
}
layer {
  name: "inception_5a/3x3"
  type: "Convolution"
  bottom: "inception_5a/3x3_reduce"
  top: "inception_5a/3x3"
  param {
    lr_mult: 1
    decay_mult: 1
  }
  param {
    lr_mult: 2
    decay_mult: 0
  }
  convolution_param {
    num_output: 320
    pad: 1
    kernel_size: 3
    weight_filler {
      type: "xavier"
      std: 0.03
    }
    bias_filler {
      type: "constant"
      value: 0.2
    }
  }
}
layer {
  name: "inception_5a/relu_3x3"
  type: "ReLU"
  bottom: "inception_5a/3x3"
  top: "inception_5a/3x3"
}
layer {
  name: "inception_5a/5x5_reduce"
  type: "Convolution"
  bottom: "pool4/3x3_s2"
  top: "inception_5a/5x5_reduce"
  param {
    lr_mult: 1
    decay_mult: 1
  }
  param {
    lr_mult: 2
    decay_mult: 0
  }
  convolution_param {
    num_output: 32
    kernel_size: 1
    weight_filler {
      type: "xavier"
      std: 0.2
    }
    bias_filler {
      type: "constant"
      value: 0.2
    }
I0915 11:53:31.582157 28506 layer_factory.hpp:77] Creating layer data
I0915 11:53:31.582180 28506 net.cpp:91] Creating Layer data
I0915 11:53:31.582188 28506 net.cpp:399] data -> data
I0915 11:53:32.085206 28506 net.cpp:141] Setting up data
I0915 11:53:32.085278 28506 net.cpp:148] Top shape: 10 3 224 224 (1505280)
I0915 11:53:32.085284 28506 net.cpp:156] Memory required for data: 6021120
I0915 11:53:32.085304 28506 layer_factory.hpp:77] Creating layer conv1/7x7_s2
I0915 11:53:32.085336 28506 net.cpp:91] Creating Layer conv1/7x7_s2
I0915 11:53:32.085345 28506 net.cpp:425] conv1/7x7_s2 <- data
I0915 11:53:32.085357 28506 net.cpp:399] conv1/7x7_s2 -> conv1/7x7_s2
I0915 11:53:32.254497 28506 net.cpp:141] Setting up conv1/7x7_s2
I0915 11:53:32.254554 28506 net.cpp:148] Top shape: 10 64 112 112 (8028160)
I0915 11:53:32.254560 28506 net.cpp:156] Memory required for data: 38133760
I0915 11:53:32.254583 28506 layer_factory.hpp:77] Creating layer conv1/relu_7x7
I0915 11:53:32.254600 28506 net.cpp:91] Creating Layer conv1/relu_7x7
I0915 11:53:32.254606 28506 net.cpp:425] conv1/relu_7x7 <- conv1/7x7_s2
I0915 11:53:32.254616 28506 net.cpp:386] conv1/relu_7x7 -> conv1/7x7_s2 (in-place)
I0915 11:53:32.255012 28506 net.cpp:141] Setting up conv1/relu_7x7
I0915 11:53:32.255024 28506 net.cpp:148] Top shape: 10 64 112 112 (8028160)
I0915 11:53:32.255029 28506 net.cpp:156] Memory required for data: 70246400
I0915 11:53:32.255033 28506 layer_factory.hpp:77] Creating layer pool1/3x3_s2
I0915 11:53:32.255048 28506 net.cpp:91] Creating Layer pool1/3x3_s2
I0915 11:53:32.255053 28506 net.cpp:425] pool1/3x3_s2 <- conv1/7x7_s2
I0915 11:53:32.255060 28506 net.cpp:399] pool1/3x3_s2 -> pool1/3x3_s2
I0915 11:53:32.255134 28506 net.cpp:141] Setting up pool1/3x3_s2
I0915 11:53:32.255143 28506 net.cpp:148] Top shape: 10 64 56 56 (2007040)
I0915 11:53:32.255147 28506 net.cpp:156] Memory required for data: 78274560
I0915 11:53:32.255152 28506 layer_factory.hpp:77] Creating layer pool1/norm1
I0915 11:53:32.255169 28506 net.cpp:91] Creating Layer pool1/norm1
I0915 11:53:32.255174 28506 net.cpp:425] pool1/norm1 <- pool1/3x3_s2
I0915 11:53:32.255180 28506 net.cpp:399] pool1/norm1 -> pool1/norm1
I0915 11:53:32.255445 28506 net.cpp:141] Setting up pool1/norm1
I0915 11:53:32.255456 28506 net.cpp:148] Top shape: 10 64 56 56 (2007040)
I0915 11:53:32.255461 28506 net.cpp:156] Memory required for data: 86302720
I0915 11:53:32.255465 28506 layer_factory.hpp:77] Creating layer conv2/3x3_reduce
I0915 11:53:32.255484 28506 net.cpp:91] Creating Layer conv2/3x3_reduce
I0915 11:53:32.255489 28506 net.cpp:425] conv2/3x3_reduce <- pool1/norm1
I0915 11:53:32.255496 28506 net.cpp:399] conv2/3x3_reduce -> conv2/3x3_reduce
I0915 11:53:32.257560 28506 net.cpp:141] Setting up conv2/3x3_reduce
I0915 11:53:32.257577 28506 net.cpp:148] Top shape: 10 64 56 56 (2007040)
I0915 11:53:32.257582 28506 net.cpp:156] Memory required for data: 94330880
I0915 11:53:32.257593 28506 layer_factory.hpp:77] Creating layer conv2/relu_3x3_reduce
I0915 11:53:32.257601 28506 net.cpp:91] Creating Layer conv2/relu_3x3_reduce
I0915 11:53:32.257606 28506 net.cpp:425] conv2/relu_3x3_reduce <- conv2/3x3_reduce
I0915 11:53:32.257616 28506 net.cpp:386] conv2/relu_3x3_reduce -> conv2/3x3_reduce (in-place)
I0915 11:53:32.258002 28506 net.cpp:141] Setting up conv2/relu_3x3_reduce
I0915 11:53:32.258015 28506 net.cpp:148] Top shape: 10 64 56 56 (2007040)
I0915 11:53:32.258019 28506 net.cpp:156] Memory required for data: 102359040
I0915 11:53:32.258024 28506 layer_factory.hpp:77] Creating layer conv2/3x3
I0915 11:53:32.258038 28506 net.cpp:91] Creating Layer conv2/3x3
I0915 11:53:32.258044 28506 net.cpp:425] conv2/3x3 <- conv2/3x3_reduce
I0915 11:53:32.258054 28506 net.cpp:399] conv2/3x3 -> conv2/3x3
I0915 11:53:32.261078 28506 net.cpp:141] Setting up conv2/3x3
I0915 11:53:32.261111 28506 net.cpp:148] Top shape: 10 192 56 56 (6021120)
I0915 11:53:32.261116 28506 net.cpp:156] Memory required for data: 126443520
I0915 11:53:32.261127 28506 layer_factory.hpp:77] Creating layer conv2/relu_3x3
I0915 11:53:32.261137 28506 net.cpp:91] Creating Layer conv2/relu_3x3
I0915 11:53:32.261140 28506 net.cpp:425] conv2/relu_3x3 <- conv2/3x3
I0915 11:53:32.261147 28506 net.cpp:386] conv2/relu_3x3 -> conv2/3x3 (in-place)
I0915 11:53:32.261386 28506 net.cpp:141] Setting up conv2/relu_3x3
I0915 11:53:32.261397 28506 net.cpp:148] Top shape: 10 192 56 56 (6021120)
I0915 11:53:32.261401 28506 net.cpp:156] Memory required for data: 150528000
I0915 11:53:32.261406 28506 layer_factory.hpp:77] Creating layer conv2/norm2
I0915 11:53:32.261416 28506 net.cpp:91] Creating Layer conv2/norm2
I0915 11:53:32.261420 28506 net.cpp:425] conv2/norm2 <- conv2/3x3
I0915 11:53:32.261427 28506 net.cpp:399] conv2/norm2 -> conv2/norm2
I0915 11:53:32.261849 28506 net.cpp:141] Setting up conv2/norm2
I0915 11:53:32.261862 28506 net.cpp:148] Top shape: 10 192 56 56 (6021120)
I0915 11:53:32.261865 28506 net.cpp:156] Memory required for data: 174612480
I0915 11:53:32.261870 28506 layer_factory.hpp:77] Creating layer pool2/3x3_s2
I0915 11:53:32.261878 28506 net.cpp:91] Creating Layer pool2/3x3_s2
I0915 11:53:32.261883 28506 net.cpp:425] pool2/3x3_s2 <- conv2/norm2
I0915 11:53:32.261893 28506 net.cpp:399] pool2/3x3_s2 -> pool2/3x3_s2
I0915 11:53:32.261939 28506 net.cpp:141] Setting up pool2/3x3_s2
I0915 11:53:32.261946 28506 net.cpp:148] Top shape: 10 192 28 28 (1505280)
I0915 11:53:32.261950 28506 net.cpp:156] Memory required for data: 180633600
I0915 11:53:32.261955 28506 layer_factory.hpp:77] Creating layer pool2/3x3_s2_pool2/3x3_s2_0_split
I0915 11:53:32.261971 28506 net.cpp:91] Creating Layer pool2/3x3_s2_pool2/3x3_s2_0_split
I0915 11:53:32.261976 28506 net.cpp:425] pool2/3x3_s2_pool2/3x3_s2_0_split <- pool2/3x3_s2
I0915 11:53:32.261982 28506 net.cpp:399] pool2/3x3_s2_pool2/3x3_s2_0_split -> pool2/3x3_s2_pool2/3x3_s2_0_split_0
I0915 11:53:32.261993 28506 net.cpp:399] pool2/3x3_s2_pool2/3x3_s2_0_split -> pool2/3x3_s2_pool2/3x3_s2_0_split_1
I0915 11:53:32.262001 28506 net.cpp:399] pool2/3x3_s2_pool2/3x3_s2_0_split -> pool2/3x3_s2_pool2/3x3_s2_0_split_2
I0915 11:53:32.262008 28506 net.cpp:399] pool2/3x3_s2_pool2/3x3_s2_0_split -> pool2/3x3_s2_pool2/3x3_s2_0_split_3
I0915 11:53:32.262074 28506 net.cpp:141] Setting up pool2/3x3_s2_pool2/3x3_s2_0_split
I0915 11:53:32.262084 28506 net.cpp:148] Top shape: 10 192 28 28 (1505280)
I0915 11:53:32.262089 28506 net.cpp:148] Top shape: 10 192 28 28 (1505280)
I0915 11:53:32.262095 28506 net.cpp:148] Top shape: 10 192 28 28 (1505280)
I0915 11:53:32.262100 28506 net.cpp:148] Top shape: 10 192 28 28 (1505280)
I0915 11:53:32.262104 28506 net.cpp:156] Memory required for data: 204718080
I0915 11:53:32.262107 28506 layer_factory.hpp:77] Creating layer inception_3a/1x1
I0915 11:53:32.262121 28506 net.cpp:91] Creating Layer inception_3a/1x1
I0915 11:53:32.262126 28506 net.cpp:425] inception_3a/1x1 <- pool2/3x3_s2_pool2/3x3_s2_0_split_0
I0915 11:53:32.262151 28506 net.cpp:399] inception_3a/1x1 -> inception_3a/1x1
I0915 11:53:32.264102 28506 net.cpp:141] Setting up inception_3a/1x1
I0915 11:53:32.264119 28506 net.cpp:148] Top shape: 10 64 28 28 (501760)
I0915 11:53:32.264125 28506 net.cpp:156] Memory required for data: 206725120
I0915 11:53:32.264133 28506 layer_factory.hpp:77] Creating layer inception_3a/relu_1x1
I0915 11:53:32.264144 28506 net.cpp:91] Creating Layer inception_3a/relu_1x1
I0915 11:53:32.264149 28506 net.cpp:425] inception_3a/relu_1x1 <- inception_3a/1x1
I0915 11:53:32.264156 28506 net.cpp:386] inception_3a/relu_1x1 -> inception_3a/1x1 (in-place)
I0915 11:53:32.264530 28506 net.cpp:141] Setting up inception_3a/relu_1x1
I0915 11:53:32.264542 28506 net.cpp:148] Top shape: 10 64 28 28 (501760)
I0915 11:53:32.264547 28506 net.cpp:156] Memory required for data: 208732160
I0915 11:53:32.264551 28506 layer_factory.hpp:77] Creating layer inception_3a/3x3_reduce
I0915 11:53:32.264566 28506 net.cpp:91] Creating Layer inception_3a/3x3_reduce
I0915 11:53:32.264571 28506 net.cpp:425] inception_3a/3x3_reduce <- pool2/3x3_s2_pool2/3x3_s2_0_split_1
I0915 11:53:32.264583 28506 net.cpp:399] inception_3a/3x3_reduce -> inception_3a/3x3_reduce
I0915 11:53:32.266839 28506 net.cpp:141] Setting up inception_3a/3x3_reduce
I0915 11:53:32.266855 28506 net.cpp:148] Top shape: 10 96 28 28 (752640)
I0915 11:53:32.266858 28506 net.cpp:156] Memory required for data: 211742720
I0915 11:53:32.266882 28506 layer_factory.hpp:77] Creating layer inception_3a/relu_3x3_reduce
I0915 11:53:32.266891 28506 net.cpp:91] Creating Layer inception_3a/relu_3x3_reduce
I0915 11:53:32.266896 28506 net.cpp:425] inception_3a/relu_3x3_reduce <- inception_3a/3x3_reduce
I0915 11:53:32.266904 28506 net.cpp:386] inception_3a/relu_3x3_reduce -> inception_3a/3x3_reduce (in-place)
I0915 11:53:32.267127 28506 net.cpp:141] Setting up inception_3a/relu_3x3_reduce
I0915 11:53:32.267139 28506 net.cpp:148] Top shape: 10 96 28 28 (752640)
I0915 11:53:32.267144 28506 net.cpp:156] Memory required for data: 214753280
I0915 11:53:32.267149 28506 layer_factory.hpp:77] Creating layer inception_3a/3x3
I0915 11:53:32.267164 28506 net.cpp:91] Creating Layer inception_3a/3x3
I0915 11:53:32.267169 28506 net.cpp:425] inception_3a/3x3 <- inception_3a/3x3_reduce
I0915 11:53:32.267181 28506 net.cpp:399] inception_3a/3x3 -> inception_3a/3x3
I0915 11:53:32.269309 28506 net.cpp:141] Setting up inception_3a/3x3
I0915 11:53:32.269325 28506 net.cpp:148] Top shape: 10 128 28 28 (1003520)
I0915 11:53:32.269328 28506 net.cpp:156] Memory required for data: 218767360
I0915 11:53:32.269350 28506 layer_factory.hpp:77] Creating layer inception_3a/relu_3x3
I0915 11:53:32.269361 28506 net.cpp:91] Creating Layer inception_3a/relu_3x3
I0915 11:53:32.269366 28506 net.cpp:425] inception_3a/relu_3x3 <- inception_3a/3x3
I0915 11:53:32.269373 28506 net.cpp:386] inception_3a/relu_3x3 -> inception_3a/3x3 (in-place)
I0915 11:53:32.269737 28506 net.cpp:141] Setting up inception_3a/relu_3x3
I0915 11:53:32.269748 28506 net.cpp:148] Top shape: 10 128 28 28 (1003520)
I0915 11:53:32.269752 28506 net.cpp:156] Memory required for data: 222781440
I0915 11:53:32.269757 28506 layer_factory.hpp:77] Creating layer inception_3a/5x5_reduce
I0915 11:53:32.269773 28506 net.cpp:91] Creating Layer inception_3a/5x5_reduce
I0915 11:53:32.269778 28506 net.cpp:425] inception_3a/5x5_reduce <- pool2/3x3_s2_pool2/3x3_s2_0_split_2
I0915 11:53:32.269786 28506 net.cpp:399] inception_3a/5x5_reduce -> inception_3a/5x5_reduce
I0915 11:53:32.270930 28506 net.cpp:141] Setting up inception_3a/5x5_reduce
I0915 11:53:32.270944 28506 net.cpp:148] Top shape: 10 16 28 28 (125440)
I0915 11:53:32.270948 28506 net.cpp:156] Memory required for data: 223283200
I0915 11:53:32.270969 28506 layer_factory.hpp:77] Creating layer inception_3a/relu_5x5_reduce
I0915 11:53:32.270980 28506 net.cpp:91] Creating Layer inception_3a/relu_5x5_reduce
I0915 11:53:32.270985 28506 net.cpp:425] inception_3a/relu_5x5_reduce <- inception_3a/5x5_reduce
I0915 11:53:32.270994 28506 net.cpp:386] inception_3a/relu_5x5_reduce -> inception_3a/5x5_reduce (in-place)
I0915 11:53:32.271356 28506 net.cpp:141] Setting up inception_3a/relu_5x5_reduce
I0915 11:53:32.271368 28506 net.cpp:148] Top shape: 10 16 28 28 (125440)
I0915 11:53:32.271373 28506 net.cpp:156] Memory required for data: 223784960
I0915 11:53:32.271376 28506 layer_factory.hpp:77] Creating layer inception_3a/5x5
I0915 11:53:32.271392 28506 net.cpp:91] Creating Layer inception_3a/5x5
I0915 11:53:32.271399 28506 net.cpp:425] inception_3a/5x5 <- inception_3a/5x5_reduce
I0915 11:53:32.271410 28506 net.cpp:399] inception_3a/5x5 -> inception_3a/5x5
I0915 11:53:32.273315 28506 net.cpp:141] Setting up inception_3a/5x5
I0915 11:53:32.273332 28506 net.cpp:148] Top shape: 10 32 28 28 (250880)
I0915 11:53:32.273339 28506 net.cpp:156] Memory required for data: 224788480
I0915 11:53:32.273356 28506 layer_factory.hpp:77] Creating layer inception_3a/relu_5x5
I0915 11:53:32.273373 28506 net.cpp:91] Creating Layer inception_3a/relu_5x5
I0915 11:53:32.273381 28506 net.cpp:425] inception_3a/relu_5x5 <- inception_3a/5x5
I0915 11:53:32.273388 28506 net.cpp:386] inception_3a/relu_5x5 -> inception_3a/5x5 (in-place)
I0915 11:53:32.273612 28506 net.cpp:141] Setting up inception_3a/relu_5x5
I0915 11:53:32.273622 28506 net.cpp:148] Top shape: 10 32 28 28 (250880)
I0915 11:53:32.273627 28506 net.cpp:156] Memory required for data: 225792000
I0915 11:53:32.273630 28506 layer_factory.hpp:77] Creating layer inception_3a/pool
I0915 11:53:32.273641 28506 net.cpp:91] Creating Layer inception_3a/pool
I0915 11:53:32.273646 28506 net.cpp:425] inception_3a/pool <- pool2/3x3_s2_pool2/3x3_s2_0_split_3
I0915 11:53:32.273655 28506 net.cpp:399] inception_3a/pool -> inception_3a/pool
I0915 11:53:32.273707 28506 net.cpp:141] Setting up inception_3a/pool
I0915 11:53:32.273715 28506 net.cpp:148] Top shape: 10 192 28 28 (1505280)
I0915 11:53:32.273720 28506 net.cpp:156] Memory required for data: 231813120
I0915 11:53:32.273723 28506 layer_factory.hpp:77] Creating layer inception_3a/pool_proj
I0915 11:53:32.273736 28506 net.cpp:91] Creating Layer inception_3a/pool_proj
I0915 11:53:32.273741 28506 net.cpp:425] inception_3a/pool_proj <- inception_3a/pool
I0915 11:53:32.273751 28506 net.cpp:399] inception_3a/pool_proj -> inception_3a/pool_proj
I0915 11:53:32.275113 28506 net.cpp:141] Setting up inception_3a/pool_proj
I0915 11:53:32.275128 28506 net.cpp:148] Top shape: 10 32 28 28 (250880)
I0915 11:53:32.275132 28506 net.cpp:156] Memory required for data: 232816640
I0915 11:53:32.275156 28506 layer_factory.hpp:77] Creating layer inception_3a/relu_pool_proj
I0915 11:53:32.275168 28506 net.cpp:91] Creating Layer inception_3a/relu_pool_proj
I0915 11:53:32.275173 28506 net.cpp:425] inception_3a/relu_pool_proj <- inception_3a/pool_proj
I0915 11:53:32.275180 28506 net.cpp:386] inception_3a/relu_pool_proj -> inception_3a/pool_proj (in-place)
I0915 11:53:32.275547 28506 net.cpp:141] Setting up inception_3a/relu_pool_proj
I0915 11:53:32.275558 28506 net.cpp:148] Top shape: 10 32 28 28 (250880)
I0915 11:53:32.275563 28506 net.cpp:156] Memory required for data: 233820160
I0915 11:53:32.275568 28506 layer_factory.hpp:77] Creating layer inception_3a/output
I0915 11:53:32.275588 28506 net.cpp:91] Creating Layer inception_3a/output
I0915 11:53:32.275593 28506 net.cpp:425] inception_3a/output <- inception_3a/1x1
I0915 11:53:32.275599 28506 net.cpp:425] inception_3a/output <- inception_3a/3x3
I0915 11:53:32.275602 28506 net.cpp:425] inception_3a/output <- inception_3a/5x5
I0915 11:53:32.275607 28506 net.cpp:425] inception_3a/output <- inception_3a/pool_proj
I0915 11:53:32.275614 28506 net.cpp:399] inception_3a/output -> inception_3a/output
I0915 11:53:32.275650 28506 net.cpp:141] Setting up inception_3a/output
I0915 11:53:32.275660 28506 net.cpp:148] Top shape: 10 256 28 28 (2007040)
I0915 11:53:32.275662 28506 net.cpp:156] Memory required for data: 241848320
I0915 11:53:32.275667 28506 layer_factory.hpp:77] Creating layer inception_3a/output_inception_3a/output_0_split
I0915 11:53:32.275673 28506 net.cpp:91] Creating Layer inception_3a/output_inception_3a/output_0_split
I0915 11:53:32.275677 28506 net.cpp:425] inception_3a/output_inception_3a/output_0_split <- inception_3a/output
I0915 11:53:32.275687 28506 net.cpp:399] inception_3a/output_inception_3a/output_0_split -> inception_3a/output_inception_3a/output_0_split_0
I0915 11:53:32.275696 28506 net.cpp:399] inception_3a/output_inception_3a/output_0_split -> inception_3a/output_inception_3a/output_0_split_1
I0915 11:53:32.275702 28506 net.cpp:399] inception_3a/output_inception_3a/output_0_split -> inception_3a/output_inception_3a/output_0_split_2
I0915 11:53:32.275709 28506 net.cpp:399] inception_3a/output_inception_3a/output_0_split -> inception_3a/output_inception_3a/output_0_split_3
I0915 11:53:32.275782 28506 net.cpp:141] Setting up inception_3a/output_inception_3a/output_0_split
I0915 11:53:32.275789 28506 net.cpp:148] Top shape: 10 256 28 28 (2007040)
I0915 11:53:32.275795 28506 net.cpp:148] Top shape: 10 256 28 28 (2007040)
I0915 11:53:32.275799 28506 net.cpp:148] Top shape: 10 256 28 28 (2007040)
I0915 11:53:32.275804 28506 net.cpp:148] Top shape: 10 256 28 28 (2007040)
I0915 11:53:32.275807 28506 net.cpp:156] Memory required for data: 273960960
I0915 11:53:32.275811 28506 layer_factory.hpp:77] Creating layer inception_3b/1x1
I0915 11:53:32.275827 28506 net.cpp:91] Creating Layer inception_3b/1x1
I0915 11:53:32.275832 28506 net.cpp:425] inception_3b/1x1 <- inception_3a/output_inception_3a/output_0_split_0
I0915 11:53:32.275840 28506 net.cpp:399] inception_3b/1x1 -> inception_3b/1x1
I0915 11:53:32.277245 28506 net.cpp:141] Setting up inception_3b/1x1
I0915 11:53:32.277257 28506 net.cpp:148] Top shape: 10 128 28 28 (1003520)
I0915 11:53:32.277261 28506 net.cpp:156] Memory required for data: 277975040
I0915 11:53:32.277269 28506 layer_factory.hpp:77] Creating layer inception_3b/relu_1x1
I0915 11:53:32.277281 28506 net.cpp:91] Creating Layer inception_3b/relu_1x1
I0915 11:53:32.277285 28506 net.cpp:425] inception_3b/relu_1x1 <- inception_3b/1x1
I0915 11:53:32.277294 28506 net.cpp:386] inception_3b/relu_1x1 -> inception_3b/1x1 (in-place)
I0915 11:53:32.277688 28506 net.cpp:141] Setting up inception_3b/relu_1x1
I0915 11:53:32.277703 28506 net.cpp:148] Top shape: 10 128 28 28 (1003520)
I0915 11:53:32.277707 28506 net.cpp:156] Memory required for data: 281989120
I0915 11:53:32.277712 28506 layer_factory.hpp:77] Creating layer inception_3b/3x3_reduce
I0915 11:53:32.277725 28506 net.cpp:91] Creating Layer inception_3b/3x3_reduce
I0915 11:53:32.277731 28506 net.cpp:425] inception_3b/3x3_reduce <- inception_3a/output_inception_3a/output_0_split_1
I0915 11:53:32.277742 28506 net.cpp:399] inception_3b/3x3_reduce -> inception_3b/3x3_reduce
I0915 11:53:32.279263 28506 net.cpp:141] Setting up inception_3b/3x3_reduce
I0915 11:53:32.279278 28506 net.cpp:148] Top shape: 10 128 28 28 (1003520)
I0915 11:53:32.279281 28506 net.cpp:156] Memory required for data: 286003200
I0915 11:53:32.279302 28506 layer_factory.hpp:77] Creating layer inception_3b/relu_3x3_reduce
I0915 11:53:32.279312 28506 net.cpp:91] Creating Layer inception_3b/relu_3x3_reduce
I0915 11:53:32.279319 28506 net.cpp:425] inception_3b/relu_3x3_reduce <- inception_3b/3x3_reduce
I0915 11:53:32.279325 28506 net.cpp:386] inception_3b/relu_3x3_reduce -> inception_3b/3x3_reduce (in-place)
I0915 11:53:32.279541 28506 net.cpp:141] Setting up inception_3b/relu_3x3_reduce
I0915 11:53:32.279551 28506 net.cpp:148] Top shape: 10 128 28 28 (1003520)
I0915 11:53:32.279554 28506 net.cpp:156] Memory required for data: 290017280
I0915 11:53:32.279559 28506 layer_factory.hpp:77] Creating layer inception_3b/3x3
I0915 11:53:32.279572 28506 net.cpp:91] Creating Layer inception_3b/3x3
I0915 11:53:32.279577 28506 net.cpp:425] inception_3b/3x3 <- inception_3b/3x3_reduce
I0915 11:53:32.279587 28506 net.cpp:399] inception_3b/3x3 -> inception_3b/3x3
I0915 11:53:32.283058 28506 net.cpp:141] Setting up inception_3b/3x3
I0915 11:53:32.283074 28506 net.cpp:148] Top shape: 10 192 28 28 (1505280)
I0915 11:53:32.283078 28506 net.cpp:156] Memory required for data: 296038400
I0915 11:53:32.283100 28506 layer_factory.hpp:77] Creating layer inception_3b/relu_3x3
I0915 11:53:32.283114 28506 net.cpp:91] Creating Layer inception_3b/relu_3x3
I0915 11:53:32.283119 28506 net.cpp:425] inception_3b/relu_3x3 <- inception_3b/3x3
I0915 11:53:32.283128 28506 net.cpp:386] inception_3b/relu_3x3 -> inception_3b/3x3 (in-place)
I0915 11:53:32.283495 28506 net.cpp:141] Setting up inception_3b/relu_3x3
I0915 11:53:32.283506 28506 net.cpp:148] Top shape: 10 192 28 28 (1505280)
I0915 11:53:32.283511 28506 net.cpp:156] Memory required for data: 302059520
I0915 11:53:32.283515 28506 layer_factory.hpp:77] Creating layer inception_3b/5x5_reduce
I0915 11:53:32.283529 28506 net.cpp:91] Creating Layer inception_3b/5x5_reduce
I0915 11:53:32.283534 28506 net.cpp:425] inception_3b/5x5_reduce <- inception_3a/output_inception_3a/output_0_split_2
I0915 11:53:32.283541 28506 net.cpp:399] inception_3b/5x5_reduce -> inception_3b/5x5_reduce
I0915 11:53:32.284736 28506 net.cpp:141] Setting up inception_3b/5x5_reduce
I0915 11:53:32.284752 28506 net.cpp:148] Top shape: 10 32 28 28 (250880)
I0915 11:53:32.284756 28506 net.cpp:156] Memory required for data: 303063040
I0915 11:53:32.284777 28506 layer_factory.hpp:77] Creating layer inception_3b/relu_5x5_reduce
I0915 11:53:32.284785 28506 net.cpp:91] Creating Layer inception_3b/relu_5x5_reduce
I0915 11:53:32.284790 28506 net.cpp:425] inception_3b/relu_5x5_reduce <- inception_3b/5x5_reduce
I0915 11:53:32.284799 28506 net.cpp:386] inception_3b/relu_5x5_reduce -> inception_3b/5x5_reduce (in-place)
I0915 11:53:32.285198 28506 net.cpp:141] Setting up inception_3b/relu_5x5_reduce
I0915 11:53:32.285210 28506 net.cpp:148] Top shape: 10 32 28 28 (250880)
I0915 11:53:32.285215 28506 net.cpp:156] Memory required for data: 304066560
I0915 11:53:32.285220 28506 layer_factory.hpp:77] Creating layer inception_3b/5x5
I0915 11:53:32.285234 28506 net.cpp:91] Creating Layer inception_3b/5x5
I0915 11:53:32.285239 28506 net.cpp:425] inception_3b/5x5 <- inception_3b/5x5_reduce
I0915 11:53:32.285253 28506 net.cpp:399] inception_3b/5x5 -> inception_3b/5x5
I0915 11:53:32.287820 28506 net.cpp:141] Setting up inception_3b/5x5
I0915 11:53:32.287849 28506 net.cpp:148] Top shape: 10 96 28 28 (752640)
I0915 11:53:32.287854 28506 net.cpp:156] Memory required for data: 307077120
I0915 11:53:32.287863 28506 layer_factory.hpp:77] Creating layer inception_3b/relu_5x5
I0915 11:53:32.287874 28506 net.cpp:91] Creating Layer inception_3b/relu_5x5
I0915 11:53:32.287880 28506 net.cpp:425] inception_3b/relu_5x5 <- inception_3b/5x5
I0915 11:53:32.287889 28506 net.cpp:386] inception_3b/relu_5x5 -> inception_3b/5x5 (in-place)
I0915 11:53:32.288120 28506 net.cpp:141] Setting up inception_3b/relu_5x5
I0915 11:53:32.288130 28506 net.cpp:148] Top shape: 10 96 28 28 (752640)
I0915 11:53:32.288135 28506 net.cpp:156] Memory required for data: 310087680
I0915 11:53:32.288139 28506 layer_factory.hpp:77] Creating layer inception_3b/pool
I0915 11:53:32.288151 28506 net.cpp:91] Creating Layer inception_3b/pool
I0915 11:53:32.288156 28506 net.cpp:425] inception_3b/pool <- inception_3a/output_inception_3a/output_0_split_3
I0915 11:53:32.288163 28506 net.cpp:399] inception_3b/pool -> inception_3b/pool
I0915 11:53:32.288224 28506 net.cpp:141] Setting up inception_3b/pool
I0915 11:53:32.288233 28506 net.cpp:148] Top shape: 10 256 28 28 (2007040)
I0915 11:53:32.288236 28506 net.cpp:156] Memory required for data: 318115840
I0915 11:53:32.288241 28506 layer_factory.hpp:77] Creating layer inception_3b/pool_proj
I0915 11:53:32.288254 28506 net.cpp:91] Creating Layer inception_3b/pool_proj
I0915 11:53:32.288259 28506 net.cpp:425] inception_3b/pool_proj <- inception_3b/pool
I0915 11:53:32.288266 28506 net.cpp:399] inception_3b/pool_proj -> inception_3b/pool_proj
I0915 11:53:32.289744 28506 net.cpp:141] Setting up inception_3b/pool_proj
I0915 11:53:32.289772 28506 net.cpp:148] Top shape: 10 64 28 28 (501760)
I0915 11:53:32.289777 28506 net.cpp:156] Memory required for data: 320122880
I0915 11:53:32.289786 28506 layer_factory.hpp:77] Creating layer inception_3b/relu_pool_proj
I0915 11:53:32.289796 28506 net.cpp:91] Creating Layer inception_3b/relu_pool_proj
I0915 11:53:32.289803 28506 net.cpp:425] inception_3b/relu_pool_proj <- inception_3b/pool_proj
I0915 11:53:32.289808 28506 net.cpp:386] inception_3b/relu_pool_proj -> inception_3b/pool_proj (in-place)
I0915 11:53:32.290192 28506 net.cpp:141] Setting up inception_3b/relu_pool_proj
I0915 11:53:32.290205 28506 net.cpp:148] Top shape: 10 64 28 28 (501760)
I0915 11:53:32.290208 28506 net.cpp:156] Memory required for data: 322129920
I0915 11:53:32.290213 28506 layer_factory.hpp:77] Creating layer inception_3b/output
I0915 11:53:32.290223 28506 net.cpp:91] Creating Layer inception_3b/output
I0915 11:53:32.290228 28506 net.cpp:425] inception_3b/output <- inception_3b/1x1
I0915 11:53:32.290235 28506 net.cpp:425] inception_3b/output <- inception_3b/3x3
I0915 11:53:32.290240 28506 net.cpp:425] inception_3b/output <- inception_3b/5x5
I0915 11:53:32.290243 28506 net.cpp:425] inception_3b/output <- inception_3b/pool_proj
I0915 11:53:32.290249 28506 net.cpp:399] inception_3b/output -> inception_3b/output
I0915 11:53:32.290289 28506 net.cpp:141] Setting up inception_3b/output
I0915 11:53:32.290298 28506 net.cpp:148] Top shape: 10 480 28 28 (3763200)
I0915 11:53:32.290302 28506 net.cpp:156] Memory required for data: 337182720
I0915 11:53:32.290307 28506 layer_factory.hpp:77] Creating layer pool3/3x3_s2
I0915 11:53:32.290314 28506 net.cpp:91] Creating Layer pool3/3x3_s2
I0915 11:53:32.290318 28506 net.cpp:425] pool3/3x3_s2 <- inception_3b/output
I0915 11:53:32.290326 28506 net.cpp:399] pool3/3x3_s2 -> pool3/3x3_s2
I0915 11:53:32.290383 28506 net.cpp:141] Setting up pool3/3x3_s2
I0915 11:53:32.290392 28506 net.cpp:148] Top shape: 10 480 14 14 (940800)
I0915 11:53:32.290396 28506 net.cpp:156] Memory required for data: 340945920
I0915 11:53:32.290400 28506 layer_factory.hpp:77] Creating layer pool3/3x3_s2_pool3/3x3_s2_0_split
I0915 11:53:32.290407 28506 net.cpp:91] Creating Layer pool3/3x3_s2_pool3/3x3_s2_0_split
I0915 11:53:32.290412 28506 net.cpp:425] pool3/3x3_s2_pool3/3x3_s2_0_split <- pool3/3x3_s2
I0915 11:53:32.290421 28506 net.cpp:399] pool3/3x3_s2_pool3/3x3_s2_0_split -> pool3/3x3_s2_pool3/3x3_s2_0_split_0
I0915 11:53:32.290429 28506 net.cpp:399] pool3/3x3_s2_pool3/3x3_s2_0_split -> pool3/3x3_s2_pool3/3x3_s2_0_split_1
I0915 11:53:32.290436 28506 net.cpp:399] pool3/3x3_s2_pool3/3x3_s2_0_split -> pool3/3x3_s2_pool3/3x3_s2_0_split_2
I0915 11:53:32.290443 28506 net.cpp:399] pool3/3x3_s2_pool3/3x3_s2_0_split -> pool3/3x3_s2_pool3/3x3_s2_0_split_3
I0915 11:53:32.290518 28506 net.cpp:141] Setting up pool3/3x3_s2_pool3/3x3_s2_0_split
I0915 11:53:32.290527 28506 net.cpp:148] Top shape: 10 480 14 14 (940800)
I0915 11:53:32.290532 28506 net.cpp:148] Top shape: 10 480 14 14 (940800)
I0915 11:53:32.290537 28506 net.cpp:148] Top shape: 10 480 14 14 (940800)
I0915 11:53:32.290542 28506 net.cpp:148] Top shape: 10 480 14 14 (940800)
I0915 11:53:32.290546 28506 net.cpp:156] Memory required for data: 355998720
I0915 11:53:32.290550 28506 layer_factory.hpp:77] Creating layer inception_4a/1x1
I0915 11:53:32.290565 28506 net.cpp:91] Creating Layer inception_4a/1x1
I0915 11:53:32.290570 28506 net.cpp:425] inception_4a/1x1 <- pool3/3x3_s2_pool3/3x3_s2_0_split_0
I0915 11:53:32.290578 28506 net.cpp:399] inception_4a/1x1 -> inception_4a/1x1
I0915 11:53:32.292661 28506 net.cpp:141] Setting up inception_4a/1x1
I0915 11:53:32.292678 28506 net.cpp:148] Top shape: 10 192 14 14 (376320)
I0915 11:53:32.292682 28506 net.cpp:156] Memory required for data: 357504000
I0915 11:53:32.292703 28506 layer_factory.hpp:77] Creating layer inception_4a/relu_1x1
I0915 11:53:32.292711 28506 net.cpp:91] Creating Layer inception_4a/relu_1x1
I0915 11:53:32.292716 28506 net.cpp:425] inception_4a/relu_1x1 <- inception_4a/1x1
I0915 11:53:32.292722 28506 net.cpp:386] inception_4a/relu_1x1 -> inception_4a/1x1 (in-place)
I0915 11:53:32.293099 28506 net.cpp:141] Setting up inception_4a/relu_1x1
I0915 11:53:32.293110 28506 net.cpp:148] Top shape: 10 192 14 14 (376320)
I0915 11:53:32.293114 28506 net.cpp:156] Memory required for data: 359009280
I0915 11:53:32.293119 28506 layer_factory.hpp:77] Creating layer inception_4a/3x3_reduce
I0915 11:53:32.293133 28506 net.cpp:91] Creating Layer inception_4a/3x3_reduce
I0915 11:53:32.293138 28506 net.cpp:425] inception_4a/3x3_reduce <- pool3/3x3_s2_pool3/3x3_s2_0_split_1
I0915 11:53:32.293148 28506 net.cpp:399] inception_4a/3x3_reduce -> inception_4a/3x3_reduce
I0915 11:53:32.295645 28506 net.cpp:141] Setting up inception_4a/3x3_reduce
I0915 11:53:32.295691 28506 net.cpp:148] Top shape: 10 96 14 14 (188160)
I0915 11:53:32.295701 28506 net.cpp:156] Memory required for data: 359761920
I0915 11:53:32.295734 28506 layer_factory.hpp:77] Creating layer inception_4a/relu_3x3_reduce
I0915 11:53:32.295753 28506 net.cpp:91] Creating Layer inception_4a/relu_3x3_reduce
I0915 11:53:32.295768 28506 net.cpp:425] inception_4a/relu_3x3_reduce <- inception_4a/3x3_reduce
I0915 11:53:32.295781 28506 net.cpp:386] inception_4a/relu_3x3_reduce -> inception_4a/3x3_reduce (in-place)
I0915 11:53:32.296113 28506 net.cpp:141] Setting up inception_4a/relu_3x3_reduce
I0915 11:53:32.296130 28506 net.cpp:148] Top shape: 10 96 14 14 (188160)
I0915 11:53:32.296138 28506 net.cpp:156] Memory required for data: 360514560
I0915 11:53:32.296144 28506 layer_factory.hpp:77] Creating layer inception_4a/3x3
I0915 11:53:32.296171 28506 net.cpp:91] Creating Layer inception_4a/3x3
I0915 11:53:32.296180 28506 net.cpp:425] inception_4a/3x3 <- inception_4a/3x3_reduce
I0915 11:53:32.296192 28506 net.cpp:399] inception_4a/3x3 -> inception_4a/3x3
I0915 11:53:32.299710 28506 net.cpp:141] Setting up inception_4a/3x3
I0915 11:53:32.299728 28506 net.cpp:148] Top shape: 10 208 14 14 (407680)
I0915 11:53:32.299733 28506 net.cpp:156] Memory required for data: 362145280
I0915 11:53:32.299742 28506 layer_factory.hpp:77] Creating layer inception_4a/relu_3x3
I0915 11:53:32.299754 28506 net.cpp:91] Creating Layer inception_4a/relu_3x3
I0915 11:53:32.299760 28506 net.cpp:425] inception_4a/relu_3x3 <- inception_4a/3x3
I0915 11:53:32.299767 28506 net.cpp:386] inception_4a/relu_3x3 -> inception_4a/3x3 (in-place)
I0915 11:53:32.300180 28506 net.cpp:141] Setting up inception_4a/relu_3x3
I0915 11:53:32.300194 28506 net.cpp:148] Top shape: 10 208 14 14 (407680)
I0915 11:53:32.300199 28506 net.cpp:156] Memory required for data: 363776000
I0915 11:53:32.300204 28506 layer_factory.hpp:77] Creating layer inception_4a/5x5_reduce
I0915 11:53:32.300220 28506 net.cpp:91] Creating Layer inception_4a/5x5_reduce
I0915 11:53:32.300226 28506 net.cpp:425] inception_4a/5x5_reduce <- pool3/3x3_s2_pool3/3x3_s2_0_split_2
I0915 11:53:32.300235 28506 net.cpp:399] inception_4a/5x5_reduce -> inception_4a/5x5_reduce
I0915 11:53:32.301512 28506 net.cpp:141] Setting up inception_4a/5x5_reduce
I0915 11:53:32.301528 28506 net.cpp:148] Top shape: 10 16 14 14 (31360)
I0915 11:53:32.301533 28506 net.cpp:156] Memory required for data: 363901440
I0915 11:53:32.301542 28506 layer_factory.hpp:77] Creating layer inception_4a/relu_5x5_reduce
I0915 11:53:32.301550 28506 net.cpp:91] Creating Layer inception_4a/relu_5x5_reduce
I0915 11:53:32.301555 28506 net.cpp:425] inception_4a/relu_5x5_reduce <- inception_4a/5x5_reduce
I0915 11:53:32.301564 28506 net.cpp:386] inception_4a/relu_5x5_reduce -> inception_4a/5x5_reduce (in-place)
I0915 11:53:32.301950 28506 net.cpp:141] Setting up inception_4a/relu_5x5_reduce
I0915 11:53:32.301962 28506 net.cpp:148] Top shape: 10 16 14 14 (31360)
I0915 11:53:32.301967 28506 net.cpp:156] Memory required for data: 364026880
I0915 11:53:32.301971 28506 layer_factory.hpp:77] Creating layer inception_4a/5x5
I0915 11:53:32.301985 28506 net.cpp:91] Creating Layer inception_4a/5x5
I0915 11:53:32.301990 28506 net.cpp:425] inception_4a/5x5 <- inception_4a/5x5_reduce
I0915 11:53:32.302002 28506 net.cpp:399] inception_4a/5x5 -> inception_4a/5x5
I0915 11:53:32.303536 28506 net.cpp:141] Setting up inception_4a/5x5
I0915 11:53:32.303553 28506 net.cpp:148] Top shape: 10 48 14 14 (94080)
I0915 11:53:32.303558 28506 net.cpp:156] Memory required for data: 364403200
I0915 11:53:32.303566 28506 layer_factory.hpp:77] Creating layer inception_4a/relu_5x5
I0915 11:53:32.303575 28506 net.cpp:91] Creating Layer inception_4a/relu_5x5
I0915 11:53:32.303580 28506 net.cpp:425] inception_4a/relu_5x5 <- inception_4a/5x5
I0915 11:53:32.303588 28506 net.cpp:386] inception_4a/relu_5x5 -> inception_4a/5x5 (in-place)
I0915 11:53:32.303812 28506 net.cpp:141] Setting up inception_4a/relu_5x5
I0915 11:53:32.303822 28506 net.cpp:148] Top shape: 10 48 14 14 (94080)
I0915 11:53:32.303827 28506 net.cpp:156] Memory required for data: 364779520
I0915 11:53:32.303830 28506 layer_factory.hpp:77] Creating layer inception_4a/pool
I0915 11:53:32.303843 28506 net.cpp:91] Creating Layer inception_4a/pool
I0915 11:53:32.303848 28506 net.cpp:425] inception_4a/pool <- pool3/3x3_s2_pool3/3x3_s2_0_split_3
I0915 11:53:32.303855 28506 net.cpp:399] inception_4a/pool -> inception_4a/pool
I0915 11:53:32.303915 28506 net.cpp:141] Setting up inception_4a/pool
I0915 11:53:32.303925 28506 net.cpp:148] Top shape: 10 480 14 14 (940800)
I0915 11:53:32.303928 28506 net.cpp:156] Memory required for data: 368542720
I0915 11:53:32.303932 28506 layer_factory.hpp:77] Creating layer inception_4a/pool_proj
I0915 11:53:32.303946 28506 net.cpp:91] Creating Layer inception_4a/pool_proj
I0915 11:53:32.303951 28506 net.cpp:425] inception_4a/pool_proj <- inception_4a/pool
I0915 11:53:32.303961 28506 net.cpp:399] inception_4a/pool_proj -> inception_4a/pool_proj
I0915 11:53:32.305555 28506 net.cpp:141] Setting up inception_4a/pool_proj
I0915 11:53:32.305572 28506 net.cpp:148] Top shape: 10 64 14 14 (125440)
I0915 11:53:32.305577 28506 net.cpp:156] Memory required for data: 369044480
I0915 11:53:32.305585 28506 layer_factory.hpp:77] Creating layer inception_4a/relu_pool_proj
I0915 11:53:32.305593 28506 net.cpp:91] Creating Layer inception_4a/relu_pool_proj
I0915 11:53:32.305598 28506 net.cpp:425] inception_4a/relu_pool_proj <- inception_4a/pool_proj
I0915 11:53:32.305609 28506 net.cpp:386] inception_4a/relu_pool_proj -> inception_4a/pool_proj (in-place)
I0915 11:53:32.305994 28506 net.cpp:141] Setting up inception_4a/relu_pool_proj
I0915 11:53:32.306005 28506 net.cpp:148] Top shape: 10 64 14 14 (125440)
I0915 11:53:32.306010 28506 net.cpp:156] Memory required for data: 369546240
I0915 11:53:32.306015 28506 layer_factory.hpp:77] Creating layer inception_4a/output
I0915 11:53:32.306022 28506 net.cpp:91] Creating Layer inception_4a/output
I0915 11:53:32.306027 28506 net.cpp:425] inception_4a/output <- inception_4a/1x1
I0915 11:53:32.306033 28506 net.cpp:425] inception_4a/output <- inception_4a/3x3
I0915 11:53:32.306038 28506 net.cpp:425] inception_4a/output <- inception_4a/5x5
I0915 11:53:32.306043 28506 net.cpp:425] inception_4a/output <- inception_4a/pool_proj
I0915 11:53:32.306053 28506 net.cpp:399] inception_4a/output -> inception_4a/output
I0915 11:53:32.306095 28506 net.cpp:141] Setting up inception_4a/output
I0915 11:53:32.306104 28506 net.cpp:148] Top shape: 10 512 14 14 (1003520)
I0915 11:53:32.306108 28506 net.cpp:156] Memory required for data: 373560320
I0915 11:53:32.306113 28506 layer_factory.hpp:77] Creating layer inception_4a/output_inception_4a/output_0_split
I0915 11:53:32.306120 28506 net.cpp:91] Creating Layer inception_4a/output_inception_4a/output_0_split
I0915 11:53:32.306125 28506 net.cpp:425] inception_4a/output_inception_4a/output_0_split <- inception_4a/output
I0915 11:53:32.306131 28506 net.cpp:399] inception_4a/output_inception_4a/output_0_split -> inception_4a/output_inception_4a/output_0_split_0
I0915 11:53:32.306146 28506 net.cpp:399] inception_4a/output_inception_4a/output_0_split -> inception_4a/output_inception_4a/output_0_split_1
I0915 11:53:32.306154 28506 net.cpp:399] inception_4a/output_inception_4a/output_0_split -> inception_4a/output_inception_4a/output_0_split_2
I0915 11:53:32.306162 28506 net.cpp:399] inception_4a/output_inception_4a/output_0_split -> inception_4a/output_inception_4a/output_0_split_3
I0915 11:53:32.306242 28506 net.cpp:141] Setting up inception_4a/output_inception_4a/output_0_split
I0915 11:53:32.306252 28506 net.cpp:148] Top shape: 10 512 14 14 (1003520)
I0915 11:53:32.306257 28506 net.cpp:148] Top shape: 10 512 14 14 (1003520)
I0915 11:53:32.306262 28506 net.cpp:148] Top shape: 10 512 14 14 (1003520)
I0915 11:53:32.306267 28506 net.cpp:148] Top shape: 10 512 14 14 (1003520)
I0915 11:53:32.306269 28506 net.cpp:156] Memory required for data: 389616640
I0915 11:53:32.306274 28506 layer_factory.hpp:77] Creating layer inception_4b/1x1
I0915 11:53:32.306289 28506 net.cpp:91] Creating Layer inception_4b/1x1
I0915 11:53:32.306294 28506 net.cpp:425] inception_4b/1x1 <- inception_4a/output_inception_4a/output_0_split_0
I0915 11:53:32.306303 28506 net.cpp:399] inception_4b/1x1 -> inception_4b/1x1
I0915 11:53:32.308095 28506 net.cpp:141] Setting up inception_4b/1x1
I0915 11:53:32.308111 28506 net.cpp:148] Top shape: 10 160 14 14 (313600)
I0915 11:53:32.308116 28506 net.cpp:156] Memory required for data: 390871040
I0915 11:53:32.308125 28506 layer_factory.hpp:77] Creating layer inception_4b/relu_1x1
I0915 11:53:32.308136 28506 net.cpp:91] Creating Layer inception_4b/relu_1x1
I0915 11:53:32.308142 28506 net.cpp:425] inception_4b/relu_1x1 <- inception_4b/1x1
I0915 11:53:32.308151 28506 net.cpp:386] inception_4b/relu_1x1 -> inception_4b/1x1 (in-place)
I0915 11:53:32.308534 28506 net.cpp:141] Setting up inception_4b/relu_1x1
I0915 11:53:32.308547 28506 net.cpp:148] Top shape: 10 160 14 14 (313600)
I0915 11:53:32.308552 28506 net.cpp:156] Memory required for data: 392125440
I0915 11:53:32.308557 28506 layer_factory.hpp:77] Creating layer inception_4b/3x3_reduce
I0915 11:53:32.308569 28506 net.cpp:91] Creating Layer inception_4b/3x3_reduce
I0915 11:53:32.308575 28506 net.cpp:425] inception_4b/3x3_reduce <- inception_4a/output_inception_4a/output_0_split_1
I0915 11:53:32.308586 28506 net.cpp:399] inception_4b/3x3_reduce -> inception_4b/3x3_reduce
I0915 11:53:32.310380 28506 net.cpp:141] Setting up inception_4b/3x3_reduce
I0915 11:53:32.310396 28506 net.cpp:148] Top shape: 10 112 14 14 (219520)
I0915 11:53:32.310401 28506 net.cpp:156] Memory required for data: 393003520
I0915 11:53:32.310410 28506 layer_factory.hpp:77] Creating layer inception_4b/relu_3x3_reduce
I0915 11:53:32.310420 28506 net.cpp:91] Creating Layer inception_4b/relu_3x3_reduce
I0915 11:53:32.310425 28506 net.cpp:425] inception_4b/relu_3x3_reduce <- inception_4b/3x3_reduce
I0915 11:53:32.310431 28506 net.cpp:386] inception_4b/relu_3x3_reduce -> inception_4b/3x3_reduce (in-place)
I0915 11:53:32.310657 28506 net.cpp:141] Setting up inception_4b/relu_3x3_reduce
I0915 11:53:32.310667 28506 net.cpp:148] Top shape: 10 112 14 14 (219520)
I0915 11:53:32.310672 28506 net.cpp:156] Memory required for data: 393881600
I0915 11:53:32.310675 28506 layer_factory.hpp:77] Creating layer inception_4b/3x3
I0915 11:53:32.310694 28506 net.cpp:91] Creating Layer inception_4b/3x3
I0915 11:53:32.310700 28506 net.cpp:425] inception_4b/3x3 <- inception_4b/3x3_reduce
I0915 11:53:32.310708 28506 net.cpp:399] inception_4b/3x3 -> inception_4b/3x3
I0915 11:53:32.314728 28506 net.cpp:141] Setting up inception_4b/3x3
I0915 11:53:32.314745 28506 net.cpp:148] Top shape: 10 224 14 14 (439040)
I0915 11:53:32.314750 28506 net.cpp:156] Memory required for data: 395637760
I0915 11:53:32.314759 28506 layer_factory.hpp:77] Creating layer inception_4b/relu_3x3
I0915 11:53:32.314767 28506 net.cpp:91] Creating Layer inception_4b/relu_3x3
I0915 11:53:32.314772 28506 net.cpp:425] inception_4b/relu_3x3 <- inception_4b/3x3
I0915 11:53:32.314781 28506 net.cpp:386] inception_4b/relu_3x3 -> inception_4b/3x3 (in-place)
I0915 11:53:32.315188 28506 net.cpp:141] Setting up inception_4b/relu_3x3
I0915 11:53:32.315201 28506 net.cpp:148] Top shape: 10 224 14 14 (439040)
I0915 11:53:32.315206 28506 net.cpp:156] Memory required for data: 397393920
I0915 11:53:32.315209 28506 layer_factory.hpp:77] Creating layer inception_4b/5x5_reduce
I0915 11:53:32.315235 28506 net.cpp:91] Creating Layer inception_4b/5x5_reduce
I0915 11:53:32.315242 28506 net.cpp:425] inception_4b/5x5_reduce <- inception_4a/output_inception_4a/output_0_split_2
I0915 11:53:32.315253 28506 net.cpp:399] inception_4b/5x5_reduce -> inception_4b/5x5_reduce
I0915 11:53:32.316591 28506 net.cpp:141] Setting up inception_4b/5x5_reduce
I0915 11:53:32.316607 28506 net.cpp:148] Top shape: 10 24 14 14 (47040)
I0915 11:53:32.316612 28506 net.cpp:156] Memory required for data: 397582080
I0915 11:53:32.316622 28506 layer_factory.hpp:77] Creating layer inception_4b/relu_5x5_reduce
I0915 11:53:32.316629 28506 net.cpp:91] Creating Layer inception_4b/relu_5x5_reduce
I0915 11:53:32.316634 28506 net.cpp:425] inception_4b/relu_5x5_reduce <- inception_4b/5x5_reduce
I0915 11:53:32.316642 28506 net.cpp:386] inception_4b/relu_5x5_reduce -> inception_4b/5x5_reduce (in-place)
I0915 11:53:32.317039 28506 net.cpp:141] Setting up inception_4b/relu_5x5_reduce
I0915 11:53:32.317051 28506 net.cpp:148] Top shape: 10 24 14 14 (47040)
I0915 11:53:32.317056 28506 net.cpp:156] Memory required for data: 397770240
I0915 11:53:32.317060 28506 layer_factory.hpp:77] Creating layer inception_4b/5x5
I0915 11:53:32.317075 28506 net.cpp:91] Creating Layer inception_4b/5x5
I0915 11:53:32.317081 28506 net.cpp:425] inception_4b/5x5 <- inception_4b/5x5_reduce
I0915 11:53:32.317091 28506 net.cpp:399] inception_4b/5x5 -> inception_4b/5x5
I0915 11:53:32.319479 28506 net.cpp:141] Setting up inception_4b/5x5
I0915 11:53:32.319509 28506 net.cpp:148] Top shape: 10 64 14 14 (125440)
I0915 11:53:32.319514 28506 net.cpp:156] Memory required for data: 398272000
I0915 11:53:32.319522 28506 layer_factory.hpp:77] Creating layer inception_4b/relu_5x5
I0915 11:53:32.319532 28506 net.cpp:91] Creating Layer inception_4b/relu_5x5
I0915 11:53:32.319538 28506 net.cpp:425] inception_4b/relu_5x5 <- inception_4b/5x5
I0915 11:53:32.319545 28506 net.cpp:386] inception_4b/relu_5x5 -> inception_4b/5x5 (in-place)
I0915 11:53:32.319785 28506 net.cpp:141] Setting up inception_4b/relu_5x5
I0915 11:53:32.319797 28506 net.cpp:148] Top shape: 10 64 14 14 (125440)
I0915 11:53:32.319800 28506 net.cpp:156] Memory required for data: 398773760
I0915 11:53:32.319805 28506 layer_factory.hpp:77] Creating layer inception_4b/pool
I0915 11:53:32.319816 28506 net.cpp:91] Creating Layer inception_4b/pool
I0915 11:53:32.319823 28506 net.cpp:425] inception_4b/pool <- inception_4a/output_inception_4a/output_0_split_3
I0915 11:53:32.319831 28506 net.cpp:399] inception_4b/pool -> inception_4b/pool
I0915 11:53:32.319895 28506 net.cpp:141] Setting up inception_4b/pool
I0915 11:53:32.319903 28506 net.cpp:148] Top shape: 10 512 14 14 (1003520)
I0915 11:53:32.319907 28506 net.cpp:156] Memory required for data: 402787840
I0915 11:53:32.319911 28506 layer_factory.hpp:77] Creating layer inception_4b/pool_proj
I0915 11:53:32.319924 28506 net.cpp:91] Creating Layer inception_4b/pool_proj
I0915 11:53:32.319931 28506 net.cpp:425] inception_4b/pool_proj <- inception_4b/pool
I0915 11:53:32.319941 28506 net.cpp:399] inception_4b/pool_proj -> inception_4b/pool_proj
I0915 11:53:32.321527 28506 net.cpp:141] Setting up inception_4b/pool_proj
I0915 11:53:32.321542 28506 net.cpp:148] Top shape: 10 64 14 14 (125440)
I0915 11:53:32.321547 28506 net.cpp:156] Memory required for data: 403289600
I0915 11:53:32.321554 28506 layer_factory.hpp:77] Creating layer inception_4b/relu_pool_proj
I0915 11:53:32.321563 28506 net.cpp:91] Creating Layer inception_4b/relu_pool_proj
I0915 11:53:32.321568 28506 net.cpp:425] inception_4b/relu_pool_proj <- inception_4b/pool_proj
I0915 11:53:32.321578 28506 net.cpp:386] inception_4b/relu_pool_proj -> inception_4b/pool_proj (in-place)
I0915 11:53:32.321959 28506 net.cpp:141] Setting up inception_4b/relu_pool_proj
I0915 11:53:32.321970 28506 net.cpp:148] Top shape: 10 64 14 14 (125440)
I0915 11:53:32.321974 28506 net.cpp:156] Memory required for data: 403791360
I0915 11:53:32.321979 28506 layer_factory.hpp:77] Creating layer inception_4b/output
I0915 11:53:32.321986 28506 net.cpp:91] Creating Layer inception_4b/output
I0915 11:53:32.321991 28506 net.cpp:425] inception_4b/output <- inception_4b/1x1
I0915 11:53:32.321996 28506 net.cpp:425] inception_4b/output <- inception_4b/3x3
I0915 11:53:32.322001 28506 net.cpp:425] inception_4b/output <- inception_4b/5x5
I0915 11:53:32.322005 28506 net.cpp:425] inception_4b/output <- inception_4b/pool_proj
I0915 11:53:32.322016 28506 net.cpp:399] inception_4b/output -> inception_4b/output
I0915 11:53:32.322054 28506 net.cpp:141] Setting up inception_4b/output
I0915 11:53:32.322063 28506 net.cpp:148] Top shape: 10 512 14 14 (1003520)
I0915 11:53:32.322067 28506 net.cpp:156] Memory required for data: 407805440
I0915 11:53:32.322072 28506 layer_factory.hpp:77] Creating layer inception_4b/output_inception_4b/output_0_split
I0915 11:53:32.322077 28506 net.cpp:91] Creating Layer inception_4b/output_inception_4b/output_0_split
I0915 11:53:32.322082 28506 net.cpp:425] inception_4b/output_inception_4b/output_0_split <- inception_4b/output
I0915 11:53:32.322088 28506 net.cpp:399] inception_4b/output_inception_4b/output_0_split -> inception_4b/output_inception_4b/output_0_split_0
I0915 11:53:32.322098 28506 net.cpp:399] inception_4b/output_inception_4b/output_0_split -> inception_4b/output_inception_4b/output_0_split_1
I0915 11:53:32.322106 28506 net.cpp:399] inception_4b/output_inception_4b/output_0_split -> inception_4b/output_inception_4b/output_0_split_2
I0915 11:53:32.322114 28506 net.cpp:399] inception_4b/output_inception_4b/output_0_split -> inception_4b/output_inception_4b/output_0_split_3
I0915 11:53:32.322196 28506 net.cpp:141] Setting up inception_4b/output_inception_4b/output_0_split
I0915 11:53:32.322203 28506 net.cpp:148] Top shape: 10 512 14 14 (1003520)
I0915 11:53:32.322208 28506 net.cpp:148] Top shape: 10 512 14 14 (1003520)
I0915 11:53:32.322213 28506 net.cpp:148] Top shape: 10 512 14 14 (1003520)
I0915 11:53:32.322218 28506 net.cpp:148] Top shape: 10 512 14 14 (1003520)
I0915 11:53:32.322221 28506 net.cpp:156] Memory required for data: 423861760
I0915 11:53:32.322226 28506 layer_factory.hpp:77] Creating layer inception_4c/1x1
I0915 11:53:32.322242 28506 net.cpp:91] Creating Layer inception_4c/1x1
I0915 11:53:32.322247 28506 net.cpp:425] inception_4c/1x1 <- inception_4b/output_inception_4b/output_0_split_0
I0915 11:53:32.322254 28506 net.cpp:399] inception_4c/1x1 -> inception_4c/1x1
I0915 11:53:32.323896 28506 net.cpp:141] Setting up inception_4c/1x1
I0915 11:53:32.323912 28506 net.cpp:148] Top shape: 10 128 14 14 (250880)
I0915 11:53:32.323916 28506 net.cpp:156] Memory required for data: 424865280
I0915 11:53:32.323925 28506 layer_factory.hpp:77] Creating layer inception_4c/relu_1x1
I0915 11:53:32.323932 28506 net.cpp:91] Creating Layer inception_4c/relu_1x1
I0915 11:53:32.323937 28506 net.cpp:425] inception_4c/relu_1x1 <- inception_4c/1x1
I0915 11:53:32.323943 28506 net.cpp:386] inception_4c/relu_1x1 -> inception_4c/1x1 (in-place)
I0915 11:53:32.324352 28506 net.cpp:141] Setting up inception_4c/relu_1x1
I0915 11:53:32.324364 28506 net.cpp:148] Top shape: 10 128 14 14 (250880)
I0915 11:53:32.324368 28506 net.cpp:156] Memory required for data: 425868800
I0915 11:53:32.324373 28506 layer_factory.hpp:77] Creating layer inception_4c/3x3_reduce
I0915 11:53:32.324403 28506 net.cpp:91] Creating Layer inception_4c/3x3_reduce
I0915 11:53:32.324409 28506 net.cpp:425] inception_4c/3x3_reduce <- inception_4b/output_inception_4b/output_0_split_1
I0915 11:53:32.324419 28506 net.cpp:399] inception_4c/3x3_reduce -> inception_4c/3x3_reduce
I0915 11:53:32.326238 28506 net.cpp:141] Setting up inception_4c/3x3_reduce
I0915 11:53:32.326254 28506 net.cpp:148] Top shape: 10 128 14 14 (250880)
I0915 11:53:32.326259 28506 net.cpp:156] Memory required for data: 426872320
I0915 11:53:32.326267 28506 layer_factory.hpp:77] Creating layer inception_4c/relu_3x3_reduce
I0915 11:53:32.326278 28506 net.cpp:91] Creating Layer inception_4c/relu_3x3_reduce
I0915 11:53:32.326283 28506 net.cpp:425] inception_4c/relu_3x3_reduce <- inception_4c/3x3_reduce
I0915 11:53:32.326290 28506 net.cpp:386] inception_4c/relu_3x3_reduce -> inception_4c/3x3_reduce (in-place)
I0915 11:53:32.326506 28506 net.cpp:141] Setting up inception_4c/relu_3x3_reduce
I0915 11:53:32.326516 28506 net.cpp:148] Top shape: 10 128 14 14 (250880)
I0915 11:53:32.326520 28506 net.cpp:156] Memory required for data: 427875840
I0915 11:53:32.326524 28506 layer_factory.hpp:77] Creating layer inception_4c/3x3
I0915 11:53:32.326539 28506 net.cpp:91] Creating Layer inception_4c/3x3
I0915 11:53:32.326544 28506 net.cpp:425] inception_4c/3x3 <- inception_4c/3x3_reduce
I0915 11:53:32.326553 28506 net.cpp:399] inception_4c/3x3 -> inception_4c/3x3
I0915 11:53:32.330677 28506 net.cpp:141] Setting up inception_4c/3x3
I0915 11:53:32.330694 28506 net.cpp:148] Top shape: 10 256 14 14 (501760)
I0915 11:53:32.330698 28506 net.cpp:156] Memory required for data: 429882880
I0915 11:53:32.330708 28506 layer_factory.hpp:77] Creating layer inception_4c/relu_3x3
I0915 11:53:32.330718 28506 net.cpp:91] Creating Layer inception_4c/relu_3x3
I0915 11:53:32.330723 28506 net.cpp:425] inception_4c/relu_3x3 <- inception_4c/3x3
I0915 11:53:32.330729 28506 net.cpp:386] inception_4c/relu_3x3 -> inception_4c/3x3 (in-place)
I0915 11:53:32.331163 28506 net.cpp:141] Setting up inception_4c/relu_3x3
I0915 11:53:32.331176 28506 net.cpp:148] Top shape: 10 256 14 14 (501760)
I0915 11:53:32.331181 28506 net.cpp:156] Memory required for data: 431889920
I0915 11:53:32.331184 28506 layer_factory.hpp:77] Creating layer inception_4c/5x5_reduce
I0915 11:53:32.331198 28506 net.cpp:91] Creating Layer inception_4c/5x5_reduce
I0915 11:53:32.331204 28506 net.cpp:425] inception_4c/5x5_reduce <- inception_4b/output_inception_4b/output_0_split_2
I0915 11:53:32.331215 28506 net.cpp:399] inception_4c/5x5_reduce -> inception_4c/5x5_reduce
I0915 11:53:32.332562 28506 net.cpp:141] Setting up inception_4c/5x5_reduce
I0915 11:53:32.332579 28506 net.cpp:148] Top shape: 10 24 14 14 (47040)
I0915 11:53:32.332584 28506 net.cpp:156] Memory required for data: 432078080
I0915 11:53:32.332592 28506 layer_factory.hpp:77] Creating layer inception_4c/relu_5x5_reduce
I0915 11:53:32.332602 28506 net.cpp:91] Creating Layer inception_4c/relu_5x5_reduce
I0915 11:53:32.332607 28506 net.cpp:425] inception_4c/relu_5x5_reduce <- inception_4c/5x5_reduce
I0915 11:53:32.332617 28506 net.cpp:386] inception_4c/relu_5x5_reduce -> inception_4c/5x5_reduce (in-place)
I0915 11:53:32.333020 28506 net.cpp:141] Setting up inception_4c/relu_5x5_reduce
I0915 11:53:32.333032 28506 net.cpp:148] Top shape: 10 24 14 14 (47040)
I0915 11:53:32.333037 28506 net.cpp:156] Memory required for data: 432266240
I0915 11:53:32.333041 28506 layer_factory.hpp:77] Creating layer inception_4c/5x5
I0915 11:53:32.333060 28506 net.cpp:91] Creating Layer inception_4c/5x5
I0915 11:53:32.333065 28506 net.cpp:425] inception_4c/5x5 <- inception_4c/5x5_reduce
I0915 11:53:32.333076 28506 net.cpp:399] inception_4c/5x5 -> inception_4c/5x5
I0915 11:53:32.334971 28506 net.cpp:141] Setting up inception_4c/5x5
I0915 11:53:32.335000 28506 net.cpp:148] Top shape: 10 64 14 14 (125440)
I0915 11:53:32.335005 28506 net.cpp:156] Memory required for data: 432768000
I0915 11:53:32.335013 28506 layer_factory.hpp:77] Creating layer inception_4c/relu_5x5
I0915 11:53:32.335021 28506 net.cpp:91] Creating Layer inception_4c/relu_5x5
I0915 11:53:32.335027 28506 net.cpp:425] inception_4c/relu_5x5 <- inception_4c/5x5
I0915 11:53:32.335036 28506 net.cpp:386] inception_4c/relu_5x5 -> inception_4c/5x5 (in-place)
I0915 11:53:32.335264 28506 net.cpp:141] Setting up inception_4c/relu_5x5
I0915 11:53:32.335275 28506 net.cpp:148] Top shape: 10 64 14 14 (125440)
I0915 11:53:32.335279 28506 net.cpp:156] Memory required for data: 433269760
I0915 11:53:32.335283 28506 layer_factory.hpp:77] Creating layer inception_4c/pool
I0915 11:53:32.335295 28506 net.cpp:91] Creating Layer inception_4c/pool
I0915 11:53:32.335301 28506 net.cpp:425] inception_4c/pool <- inception_4b/output_inception_4b/output_0_split_3
I0915 11:53:32.335309 28506 net.cpp:399] inception_4c/pool -> inception_4c/pool
I0915 11:53:32.335372 28506 net.cpp:141] Setting up inception_4c/pool
I0915 11:53:32.335381 28506 net.cpp:148] Top shape: 10 512 14 14 (1003520)
I0915 11:53:32.335386 28506 net.cpp:156] Memory required for data: 437283840
I0915 11:53:32.335389 28506 layer_factory.hpp:77] Creating layer inception_4c/pool_proj
I0915 11:53:32.335402 28506 net.cpp:91] Creating Layer inception_4c/pool_proj
I0915 11:53:32.335407 28506 net.cpp:425] inception_4c/pool_proj <- inception_4c/pool
I0915 11:53:32.335418 28506 net.cpp:399] inception_4c/pool_proj -> inception_4c/pool_proj
I0915 11:53:32.337760 28506 net.cpp:141] Setting up inception_4c/pool_proj
I0915 11:53:32.337777 28506 net.cpp:148] Top shape: 10 64 14 14 (125440)
I0915 11:53:32.337795 28506 net.cpp:156] Memory required for data: 437785600
I0915 11:53:32.337823 28506 layer_factory.hpp:77] Creating layer inception_4c/relu_pool_proj
I0915 11:53:32.337832 28506 net.cpp:91] Creating Layer inception_4c/relu_pool_proj
I0915 11:53:32.337837 28506 net.cpp:425] inception_4c/relu_pool_proj <- inception_4c/pool_proj
I0915 11:53:32.337844 28506 net.cpp:386] inception_4c/relu_pool_proj -> inception_4c/pool_proj (in-place)
I0915 11:53:32.338244 28506 net.cpp:141] Setting up inception_4c/relu_pool_proj
I0915 11:53:32.338256 28506 net.cpp:148] Top shape: 10 64 14 14 (125440)
I0915 11:53:32.338260 28506 net.cpp:156] Memory required for data: 438287360
I0915 11:53:32.338265 28506 layer_factory.hpp:77] Creating layer inception_4c/output
I0915 11:53:32.338274 28506 net.cpp:91] Creating Layer inception_4c/output
I0915 11:53:32.338279 28506 net.cpp:425] inception_4c/output <- inception_4c/1x1
I0915 11:53:32.338284 28506 net.cpp:425] inception_4c/output <- inception_4c/3x3
I0915 11:53:32.338289 28506 net.cpp:425] inception_4c/output <- inception_4c/5x5
I0915 11:53:32.338294 28506 net.cpp:425] inception_4c/output <- inception_4c/pool_proj
I0915 11:53:32.338304 28506 net.cpp:399] inception_4c/output -> inception_4c/output
I0915 11:53:32.338343 28506 net.cpp:141] Setting up inception_4c/output
I0915 11:53:32.338356 28506 net.cpp:148] Top shape: 10 512 14 14 (1003520)
I0915 11:53:32.338359 28506 net.cpp:156] Memory required for data: 442301440
I0915 11:53:32.338363 28506 layer_factory.hpp:77] Creating layer inception_4c/output_inception_4c/output_0_split
I0915 11:53:32.338371 28506 net.cpp:91] Creating Layer inception_4c/output_inception_4c/output_0_split
I0915 11:53:32.338376 28506 net.cpp:425] inception_4c/output_inception_4c/output_0_split <- inception_4c/output
I0915 11:53:32.338382 28506 net.cpp:399] inception_4c/output_inception_4c/output_0_split -> inception_4c/output_inception_4c/output_0_split_0
I0915 11:53:32.338389 28506 net.cpp:399] inception_4c/output_inception_4c/output_0_split -> inception_4c/output_inception_4c/output_0_split_1
I0915 11:53:32.338400 28506 net.cpp:399] inception_4c/output_inception_4c/output_0_split -> inception_4c/output_inception_4c/output_0_split_2
I0915 11:53:32.338408 28506 net.cpp:399] inception_4c/output_inception_4c/output_0_split -> inception_4c/output_inception_4c/output_0_split_3
I0915 11:53:32.338497 28506 net.cpp:141] Setting up inception_4c/output_inception_4c/output_0_split
I0915 11:53:32.338506 28506 net.cpp:148] Top shape: 10 512 14 14 (1003520)
I0915 11:53:32.338511 28506 net.cpp:148] Top shape: 10 512 14 14 (1003520)
I0915 11:53:32.338516 28506 net.cpp:148] Top shape: 10 512 14 14 (1003520)
I0915 11:53:32.338521 28506 net.cpp:148] Top shape: 10 512 14 14 (1003520)
I0915 11:53:32.338524 28506 net.cpp:156] Memory required for data: 458357760
I0915 11:53:32.338528 28506 layer_factory.hpp:77] Creating layer inception_4d/1x1
I0915 11:53:32.338547 28506 net.cpp:91] Creating Layer inception_4d/1x1
I0915 11:53:32.338557 28506 net.cpp:425] inception_4d/1x1 <- inception_4c/output_inception_4c/output_0_split_0
I0915 11:53:32.338573 28506 net.cpp:399] inception_4d/1x1 -> inception_4d/1x1
I0915 11:53:32.340520 28506 net.cpp:141] Setting up inception_4d/1x1
I0915 11:53:32.340538 28506 net.cpp:148] Top shape: 10 112 14 14 (219520)
I0915 11:53:32.340543 28506 net.cpp:156] Memory required for data: 459235840
I0915 11:53:32.340553 28506 layer_factory.hpp:77] Creating layer inception_4d/relu_1x1
I0915 11:53:32.340564 28506 net.cpp:91] Creating Layer inception_4d/relu_1x1
I0915 11:53:32.340570 28506 net.cpp:425] inception_4d/relu_1x1 <- inception_4d/1x1
I0915 11:53:32.340577 28506 net.cpp:386] inception_4d/relu_1x1 -> inception_4d/1x1 (in-place)
I0915 11:53:32.340976 28506 net.cpp:141] Setting up inception_4d/relu_1x1
I0915 11:53:32.340989 28506 net.cpp:148] Top shape: 10 112 14 14 (219520)
I0915 11:53:32.340993 28506 net.cpp:156] Memory required for data: 460113920
I0915 11:53:32.340998 28506 layer_factory.hpp:77] Creating layer inception_4d/3x3_reduce
I0915 11:53:32.341014 28506 net.cpp:91] Creating Layer inception_4d/3x3_reduce
I0915 11:53:32.341020 28506 net.cpp:425] inception_4d/3x3_reduce <- inception_4c/output_inception_4c/output_0_split_1
I0915 11:53:32.341029 28506 net.cpp:399] inception_4d/3x3_reduce -> inception_4d/3x3_reduce
I0915 11:53:32.343022 28506 net.cpp:141] Setting up inception_4d/3x3_reduce
I0915 11:53:32.343039 28506 net.cpp:148] Top shape: 10 144 14 14 (282240)
I0915 11:53:32.343044 28506 net.cpp:156] Memory required for data: 461242880
I0915 11:53:32.343051 28506 layer_factory.hpp:77] Creating layer inception_4d/relu_3x3_reduce
I0915 11:53:32.343065 28506 net.cpp:91] Creating Layer inception_4d/relu_3x3_reduce
I0915 11:53:32.343070 28506 net.cpp:425] inception_4d/relu_3x3_reduce <- inception_4d/3x3_reduce
I0915 11:53:32.343077 28506 net.cpp:386] inception_4d/relu_3x3_reduce -> inception_4d/3x3_reduce (in-place)
I0915 11:53:32.343313 28506 net.cpp:141] Setting up inception_4d/relu_3x3_reduce
I0915 11:53:32.343324 28506 net.cpp:148] Top shape: 10 144 14 14 (282240)
I0915 11:53:32.343328 28506 net.cpp:156] Memory required for data: 462371840
I0915 11:53:32.343333 28506 layer_factory.hpp:77] Creating layer inception_4d/3x3
I0915 11:53:32.343349 28506 net.cpp:91] Creating Layer inception_4d/3x3
I0915 11:53:32.343354 28506 net.cpp:425] inception_4d/3x3 <- inception_4d/3x3_reduce
I0915 11:53:32.343363 28506 net.cpp:399] inception_4d/3x3 -> inception_4d/3x3
I0915 11:53:32.348503 28506 net.cpp:141] Setting up inception_4d/3x3
I0915 11:53:32.348525 28506 net.cpp:148] Top shape: 10 288 14 14 (564480)
I0915 11:53:32.348529 28506 net.cpp:156] Memory required for data: 464629760
I0915 11:53:32.348538 28506 layer_factory.hpp:77] Creating layer inception_4d/relu_3x3
I0915 11:53:32.348546 28506 net.cpp:91] Creating Layer inception_4d/relu_3x3
I0915 11:53:32.348552 28506 net.cpp:425] inception_4d/relu_3x3 <- inception_4d/3x3
I0915 11:53:32.348563 28506 net.cpp:386] inception_4d/relu_3x3 -> inception_4d/3x3 (in-place)
I0915 11:53:32.348970 28506 net.cpp:141] Setting up inception_4d/relu_3x3
I0915 11:53:32.348983 28506 net.cpp:148] Top shape: 10 288 14 14 (564480)
I0915 11:53:32.348987 28506 net.cpp:156] Memory required for data: 466887680
I0915 11:53:32.348991 28506 layer_factory.hpp:77] Creating layer inception_4d/5x5_reduce
I0915 11:53:32.349009 28506 net.cpp:91] Creating Layer inception_4d/5x5_reduce
I0915 11:53:32.349014 28506 net.cpp:425] inception_4d/5x5_reduce <- inception_4c/output_inception_4c/output_0_split_2
I0915 11:53:32.349025 28506 net.cpp:399] inception_4d/5x5_reduce -> inception_4d/5x5_reduce
I0915 11:53:32.350450 28506 net.cpp:141] Setting up inception_4d/5x5_reduce
I0915 11:53:32.350466 28506 net.cpp:148] Top shape: 10 32 14 14 (62720)
I0915 11:53:32.350471 28506 net.cpp:156] Memory required for data: 467138560
I0915 11:53:32.350478 28506 layer_factory.hpp:77] Creating layer inception_4d/relu_5x5_reduce
I0915 11:53:32.350491 28506 net.cpp:91] Creating Layer inception_4d/relu_5x5_reduce
I0915 11:53:32.350497 28506 net.cpp:425] inception_4d/relu_5x5_reduce <- inception_4d/5x5_reduce
I0915 11:53:32.350503 28506 net.cpp:386] inception_4d/relu_5x5_reduce -> inception_4d/5x5_reduce (in-place)
I0915 11:53:32.350903 28506 net.cpp:141] Setting up inception_4d/relu_5x5_reduce
I0915 11:53:32.350915 28506 net.cpp:148] Top shape: 10 32 14 14 (62720)
I0915 11:53:32.350920 28506 net.cpp:156] Memory required for data: 467389440
I0915 11:53:32.350924 28506 layer_factory.hpp:77] Creating layer inception_4d/5x5
I0915 11:53:32.350941 28506 net.cpp:91] Creating Layer inception_4d/5x5
I0915 11:53:32.350946 28506 net.cpp:425] inception_4d/5x5 <- inception_4d/5x5_reduce
I0915 11:53:32.350955 28506 net.cpp:399] inception_4d/5x5 -> inception_4d/5x5
I0915 11:53:32.353410 28506 net.cpp:141] Setting up inception_4d/5x5
I0915 11:53:32.353430 28506 net.cpp:148] Top shape: 10 64 14 14 (125440)
I0915 11:53:32.353435 28506 net.cpp:156] Memory required for data: 467891200
I0915 11:53:32.353444 28506 layer_factory.hpp:77] Creating layer inception_4d/relu_5x5
I0915 11:53:32.353453 28506 net.cpp:91] Creating Layer inception_4d/relu_5x5
I0915 11:53:32.353459 28506 net.cpp:425] inception_4d/relu_5x5 <- inception_4d/5x5
I0915 11:53:32.353469 28506 net.cpp:386] inception_4d/relu_5x5 -> inception_4d/5x5 (in-place)
I0915 11:53:32.353713 28506 net.cpp:141] Setting up inception_4d/relu_5x5
I0915 11:53:32.353724 28506 net.cpp:148] Top shape: 10 64 14 14 (125440)
I0915 11:53:32.353729 28506 net.cpp:156] Memory required for data: 468392960
I0915 11:53:32.353734 28506 layer_factory.hpp:77] Creating layer inception_4d/pool
I0915 11:53:32.353745 28506 net.cpp:91] Creating Layer inception_4d/pool
I0915 11:53:32.353751 28506 net.cpp:425] inception_4d/pool <- inception_4c/output_inception_4c/output_0_split_3
I0915 11:53:32.353759 28506 net.cpp:399] inception_4d/pool -> inception_4d/pool
I0915 11:53:32.353828 28506 net.cpp:141] Setting up inception_4d/pool
I0915 11:53:32.353837 28506 net.cpp:148] Top shape: 10 512 14 14 (1003520)
I0915 11:53:32.353842 28506 net.cpp:156] Memory required for data: 472407040
I0915 11:53:32.353847 28506 layer_factory.hpp:77] Creating layer inception_4d/pool_proj
I0915 11:53:32.353859 28506 net.cpp:91] Creating Layer inception_4d/pool_proj
I0915 11:53:32.353865 28506 net.cpp:425] inception_4d/pool_proj <- inception_4d/pool
I0915 11:53:32.353876 28506 net.cpp:399] inception_4d/pool_proj -> inception_4d/pool_proj
I0915 11:53:32.355599 28506 net.cpp:141] Setting up inception_4d/pool_proj
I0915 11:53:32.355618 28506 net.cpp:148] Top shape: 10 64 14 14 (125440)
I0915 11:53:32.355623 28506 net.cpp:156] Memory required for data: 472908800
I0915 11:53:32.355630 28506 layer_factory.hpp:77] Creating layer inception_4d/relu_pool_proj
I0915 11:53:32.355644 28506 net.cpp:91] Creating Layer inception_4d/relu_pool_proj
I0915 11:53:32.355654 28506 net.cpp:425] inception_4d/relu_pool_proj <- inception_4d/pool_proj
I0915 11:53:32.355665 28506 net.cpp:386] inception_4d/relu_pool_proj -> inception_4d/pool_proj (in-place)
I0915 11:53:32.356086 28506 net.cpp:141] Setting up inception_4d/relu_pool_proj
I0915 11:53:32.356098 28506 net.cpp:148] Top shape: 10 64 14 14 (125440)
I0915 11:53:32.356108 28506 net.cpp:156] Memory required for data: 473410560
I0915 11:53:32.356113 28506 layer_factory.hpp:77] Creating layer inception_4d/output
I0915 11:53:32.356122 28506 net.cpp:91] Creating Layer inception_4d/output
I0915 11:53:32.356127 28506 net.cpp:425] inception_4d/output <- inception_4d/1x1
I0915 11:53:32.356132 28506 net.cpp:425] inception_4d/output <- inception_4d/3x3
I0915 11:53:32.356137 28506 net.cpp:425] inception_4d/output <- inception_4d/5x5
I0915 11:53:32.356142 28506 net.cpp:425] inception_4d/output <- inception_4d/pool_proj
I0915 11:53:32.356148 28506 net.cpp:399] inception_4d/output -> inception_4d/output
I0915 11:53:32.356197 28506 net.cpp:141] Setting up inception_4d/output
I0915 11:53:32.356206 28506 net.cpp:148] Top shape: 10 528 14 14 (1034880)
I0915 11:53:32.356211 28506 net.cpp:156] Memory required for data: 477550080
I0915 11:53:32.356215 28506 layer_factory.hpp:77] Creating layer inception_4d/output_inception_4d/output_0_split
I0915 11:53:32.356223 28506 net.cpp:91] Creating Layer inception_4d/output_inception_4d/output_0_split
I0915 11:53:32.356227 28506 net.cpp:425] inception_4d/output_inception_4d/output_0_split <- inception_4d/output
I0915 11:53:32.356236 28506 net.cpp:399] inception_4d/output_inception_4d/output_0_split -> inception_4d/output_inception_4d/output_0_split_0
I0915 11:53:32.356245 28506 net.cpp:399] inception_4d/output_inception_4d/output_0_split -> inception_4d/output_inception_4d/output_0_split_1
I0915 11:53:32.356252 28506 net.cpp:399] inception_4d/output_inception_4d/output_0_split -> inception_4d/output_inception_4d/output_0_split_2
I0915 11:53:32.356261 28506 net.cpp:399] inception_4d/output_inception_4d/output_0_split -> inception_4d/output_inception_4d/output_0_split_3
I0915 11:53:32.356355 28506 net.cpp:141] Setting up inception_4d/output_inception_4d/output_0_split
I0915 11:53:32.356364 28506 net.cpp:148] Top shape: 10 528 14 14 (1034880)
I0915 11:53:32.356370 28506 net.cpp:148] Top shape: 10 528 14 14 (1034880)
I0915 11:53:32.356375 28506 net.cpp:148] Top shape: 10 528 14 14 (1034880)
I0915 11:53:32.356380 28506 net.cpp:148] Top shape: 10 528 14 14 (1034880)
I0915 11:53:32.356384 28506 net.cpp:156] Memory required for data: 494108160
I0915 11:53:32.356389 28506 layer_factory.hpp:77] Creating layer inception_4e/1x1
I0915 11:53:32.356402 28506 net.cpp:91] Creating Layer inception_4e/1x1
I0915 11:53:32.356408 28506 net.cpp:425] inception_4e/1x1 <- inception_4d/output_inception_4d/output_0_split_0
I0915 11:53:32.356416 28506 net.cpp:399] inception_4e/1x1 -> inception_4e/1x1
I0915 11:53:32.359706 28506 net.cpp:141] Setting up inception_4e/1x1
I0915 11:53:32.359730 28506 net.cpp:148] Top shape: 10 256 14 14 (501760)
I0915 11:53:32.359735 28506 net.cpp:156] Memory required for data: 496115200
I0915 11:53:32.359743 28506 layer_factory.hpp:77] Creating layer inception_4e/relu_1x1
I0915 11:53:32.359755 28506 net.cpp:91] Creating Layer inception_4e/relu_1x1
I0915 11:53:32.359771 28506 net.cpp:425] inception_4e/relu_1x1 <- inception_4e/1x1
I0915 11:53:32.359781 28506 net.cpp:386] inception_4e/relu_1x1 -> inception_4e/1x1 (in-place)
I0915 11:53:32.360198 28506 net.cpp:141] Setting up inception_4e/relu_1x1
I0915 11:53:32.360210 28506 net.cpp:148] Top shape: 10 256 14 14 (501760)
I0915 11:53:32.360214 28506 net.cpp:156] Memory required for data: 498122240
I0915 11:53:32.360219 28506 layer_factory.hpp:77] Creating layer inception_4e/3x3_reduce
I0915 11:53:32.360234 28506 net.cpp:91] Creating Layer inception_4e/3x3_reduce
I0915 11:53:32.360239 28506 net.cpp:425] inception_4e/3x3_reduce <- inception_4d/output_inception_4d/output_0_split_1
I0915 11:53:32.360251 28506 net.cpp:399] inception_4e/3x3_reduce -> inception_4e/3x3_reduce
I0915 11:53:32.362376 28506 net.cpp:141] Setting up inception_4e/3x3_reduce
I0915 11:53:32.362395 28506 net.cpp:148] Top shape: 10 160 14 14 (313600)
I0915 11:53:32.362399 28506 net.cpp:156] Memory required for data: 499376640
I0915 11:53:32.362408 28506 layer_factory.hpp:77] Creating layer inception_4e/relu_3x3_reduce
I0915 11:53:32.362416 28506 net.cpp:91] Creating Layer inception_4e/relu_3x3_reduce
I0915 11:53:32.362422 28506 net.cpp:425] inception_4e/relu_3x3_reduce <- inception_4e/3x3_reduce
I0915 11:53:32.362428 28506 net.cpp:386] inception_4e/relu_3x3_reduce -> inception_4e/3x3_reduce (in-place)
I0915 11:53:32.362706 28506 net.cpp:141] Setting up inception_4e/relu_3x3_reduce
I0915 11:53:32.362718 28506 net.cpp:148] Top shape: 10 160 14 14 (313600)
I0915 11:53:32.362723 28506 net.cpp:156] Memory required for data: 500631040
I0915 11:53:32.362727 28506 layer_factory.hpp:77] Creating layer inception_4e/3x3
I0915 11:53:32.362741 28506 net.cpp:91] Creating Layer inception_4e/3x3
I0915 11:53:32.362747 28506 net.cpp:425] inception_4e/3x3 <- inception_4e/3x3_reduce
I0915 11:53:32.362758 28506 net.cpp:399] inception_4e/3x3 -> inception_4e/3x3
I0915 11:53:32.368826 28506 net.cpp:141] Setting up inception_4e/3x3
I0915 11:53:32.368858 28506 net.cpp:148] Top shape: 10 320 14 14 (627200)
I0915 11:53:32.368865 28506 net.cpp:156] Memory required for data: 503139840
I0915 11:53:32.368875 28506 layer_factory.hpp:77] Creating layer inception_4e/relu_3x3
I0915 11:53:32.368885 28506 net.cpp:91] Creating Layer inception_4e/relu_3x3
I0915 11:53:32.368891 28506 net.cpp:425] inception_4e/relu_3x3 <- inception_4e/3x3
I0915 11:53:32.368902 28506 net.cpp:386] inception_4e/relu_3x3 -> inception_4e/3x3 (in-place)
I0915 11:53:32.369343 28506 net.cpp:141] Setting up inception_4e/relu_3x3
I0915 11:53:32.369356 28506 net.cpp:148] Top shape: 10 320 14 14 (627200)
I0915 11:53:32.369360 28506 net.cpp:156] Memory required for data: 505648640
I0915 11:53:32.369365 28506 layer_factory.hpp:77] Creating layer inception_4e/5x5_reduce
I0915 11:53:32.369382 28506 net.cpp:91] Creating Layer inception_4e/5x5_reduce
I0915 11:53:32.369390 28506 net.cpp:425] inception_4e/5x5_reduce <- inception_4d/output_inception_4d/output_0_split_2
I0915 11:53:32.369401 28506 net.cpp:399] inception_4e/5x5_reduce -> inception_4e/5x5_reduce
I0915 11:53:32.370857 28506 net.cpp:141] Setting up inception_4e/5x5_reduce
I0915 11:53:32.370872 28506 net.cpp:148] Top shape: 10 32 14 14 (62720)
I0915 11:53:32.370880 28506 net.cpp:156] Memory required for data: 505899520
I0915 11:53:32.370888 28506 layer_factory.hpp:77] Creating layer inception_4e/relu_5x5_reduce
I0915 11:53:32.370896 28506 net.cpp:91] Creating Layer inception_4e/relu_5x5_reduce
I0915 11:53:32.370901 28506 net.cpp:425] inception_4e/relu_5x5_reduce <- inception_4e/5x5_reduce
I0915 11:53:32.370908 28506 net.cpp:386] inception_4e/relu_5x5_reduce -> inception_4e/5x5_reduce (in-place)
I0915 11:53:32.371330 28506 net.cpp:141] Setting up inception_4e/relu_5x5_reduce
I0915 11:53:32.371345 28506 net.cpp:148] Top shape: 10 32 14 14 (62720)
I0915 11:53:32.371350 28506 net.cpp:156] Memory required for data: 506150400
I0915 11:53:32.371354 28506 layer_factory.hpp:77] Creating layer inception_4e/5x5
I0915 11:53:32.371369 28506 net.cpp:91] Creating Layer inception_4e/5x5
I0915 11:53:32.371376 28506 net.cpp:425] inception_4e/5x5 <- inception_4e/5x5_reduce
I0915 11:53:32.371383 28506 net.cpp:399] inception_4e/5x5 -> inception_4e/5x5
I0915 11:53:32.375665 28506 net.cpp:141] Setting up inception_4e/5x5
I0915 11:53:32.375707 28506 net.cpp:148] Top shape: 10 128 14 14 (250880)
I0915 11:53:32.375716 28506 net.cpp:156] Memory required for data: 507153920
I0915 11:53:32.375735 28506 layer_factory.hpp:77] Creating layer inception_4e/relu_5x5
I0915 11:53:32.375751 28506 net.cpp:91] Creating Layer inception_4e/relu_5x5
I0915 11:53:32.375761 28506 net.cpp:425] inception_4e/relu_5x5 <- inception_4e/5x5
I0915 11:53:32.375779 28506 net.cpp:386] inception_4e/relu_5x5 -> inception_4e/5x5 (in-place)
I0915 11:53:32.376183 28506 net.cpp:141] Setting up inception_4e/relu_5x5
I0915 11:53:32.376204 28506 net.cpp:148] Top shape: 10 128 14 14 (250880)
I0915 11:53:32.376212 28506 net.cpp:156] Memory required for data: 508157440
I0915 11:53:32.376221 28506 layer_factory.hpp:77] Creating layer inception_4e/pool
I0915 11:53:32.376236 28506 net.cpp:91] Creating Layer inception_4e/pool
I0915 11:53:32.376246 28506 net.cpp:425] inception_4e/pool <- inception_4d/output_inception_4d/output_0_split_3
I0915 11:53:32.376258 28506 net.cpp:399] inception_4e/pool -> inception_4e/pool
I0915 11:53:32.376377 28506 net.cpp:141] Setting up inception_4e/pool
I0915 11:53:32.376394 28506 net.cpp:148] Top shape: 10 528 14 14 (1034880)
I0915 11:53:32.376401 28506 net.cpp:156] Memory required for data: 512296960
I0915 11:53:32.376410 28506 layer_factory.hpp:77] Creating layer inception_4e/pool_proj
I0915 11:53:32.376435 28506 net.cpp:91] Creating Layer inception_4e/pool_proj
I0915 11:53:32.376444 28506 net.cpp:425] inception_4e/pool_proj <- inception_4e/pool
I0915 11:53:32.376464 28506 net.cpp:399] inception_4e/pool_proj -> inception_4e/pool_proj
I0915 11:53:32.379577 28506 net.cpp:141] Setting up inception_4e/pool_proj
I0915 11:53:32.379601 28506 net.cpp:148] Top shape: 10 128 14 14 (250880)
I0915 11:53:32.379609 28506 net.cpp:156] Memory required for data: 513300480
I0915 11:53:32.379626 28506 layer_factory.hpp:77] Creating layer inception_4e/relu_pool_proj
I0915 11:53:32.379638 28506 net.cpp:91] Creating Layer inception_4e/relu_pool_proj
I0915 11:53:32.379648 28506 net.cpp:425] inception_4e/relu_pool_proj <- inception_4e/pool_proj
I0915 11:53:32.379663 28506 net.cpp:386] inception_4e/relu_pool_proj -> inception_4e/pool_proj (in-place)
I0915 11:53:32.380271 28506 net.cpp:141] Setting up inception_4e/relu_pool_proj
I0915 11:53:32.380290 28506 net.cpp:148] Top shape: 10 128 14 14 (250880)
I0915 11:53:32.380300 28506 net.cpp:156] Memory required for data: 514304000
I0915 11:53:32.380307 28506 layer_factory.hpp:77] Creating layer inception_4e/output
I0915 11:53:32.380321 28506 net.cpp:91] Creating Layer inception_4e/output
I0915 11:53:32.380333 28506 net.cpp:425] inception_4e/output <- inception_4e/1x1
I0915 11:53:32.380343 28506 net.cpp:425] inception_4e/output <- inception_4e/3x3
I0915 11:53:32.380353 28506 net.cpp:425] inception_4e/output <- inception_4e/5x5
I0915 11:53:32.380362 28506 net.cpp:425] inception_4e/output <- inception_4e/pool_proj
I0915 11:53:32.380373 28506 net.cpp:399] inception_4e/output -> inception_4e/output
I0915 11:53:32.380439 28506 net.cpp:141] Setting up inception_4e/output
I0915 11:53:32.380453 28506 net.cpp:148] Top shape: 10 832 14 14 (1630720)
I0915 11:53:32.380461 28506 net.cpp:156] Memory required for data: 520826880
I0915 11:53:32.380468 28506 layer_factory.hpp:77] Creating layer pool4/3x3_s2
I0915 11:53:32.380486 28506 net.cpp:91] Creating Layer pool4/3x3_s2
I0915 11:53:32.380496 28506 net.cpp:425] pool4/3x3_s2 <- inception_4e/output
I0915 11:53:32.380511 28506 net.cpp:399] pool4/3x3_s2 -> pool4/3x3_s2
I0915 11:53:32.380605 28506 net.cpp:141] Setting up pool4/3x3_s2
I0915 11:53:32.380620 28506 net.cpp:148] Top shape: 10 832 7 7 (407680)
I0915 11:53:32.380627 28506 net.cpp:156] Memory required for data: 522457600
I0915 11:53:32.380635 28506 layer_factory.hpp:77] Creating layer pool4/3x3_s2_pool4/3x3_s2_0_split
I0915 11:53:32.380651 28506 net.cpp:91] Creating Layer pool4/3x3_s2_pool4/3x3_s2_0_split
I0915 11:53:32.380659 28506 net.cpp:425] pool4/3x3_s2_pool4/3x3_s2_0_split <- pool4/3x3_s2
I0915 11:53:32.380671 28506 net.cpp:399] pool4/3x3_s2_pool4/3x3_s2_0_split -> pool4/3x3_s2_pool4/3x3_s2_0_split_0
I0915 11:53:32.380684 28506 net.cpp:399] pool4/3x3_s2_pool4/3x3_s2_0_split -> pool4/3x3_s2_pool4/3x3_s2_0_split_1
I0915 11:53:32.380697 28506 net.cpp:399] pool4/3x3_s2_pool4/3x3_s2_0_split -> pool4/3x3_s2_pool4/3x3_s2_0_split_2
I0915 11:53:32.380710 28506 net.cpp:399] pool4/3x3_s2_pool4/3x3_s2_0_split -> pool4/3x3_s2_pool4/3x3_s2_0_split_3
I0915 11:53:32.380867 28506 net.cpp:141] Setting up pool4/3x3_s2_pool4/3x3_s2_0_split
I0915 11:53:32.380880 28506 net.cpp:148] Top shape: 10 832 7 7 (407680)
I0915 11:53:32.380890 28506 net.cpp:148] Top shape: 10 832 7 7 (407680)
I0915 11:53:32.380899 28506 net.cpp:148] Top shape: 10 832 7 7 (407680)
I0915 11:53:32.380908 28506 net.cpp:148] Top shape: 10 832 7 7 (407680)
I0915 11:53:32.380915 28506 net.cpp:156] Memory required for data: 528980480
I0915 11:53:32.380923 28506 layer_factory.hpp:77] Creating layer inception_5a/1x1
I0915 11:53:32.380945 28506 net.cpp:91] Creating Layer inception_5a/1x1
I0915 11:53:32.380955 28506 net.cpp:425] inception_5a/1x1 <- pool4/3x3_s2_pool4/3x3_s2_0_split_0
I0915 11:53:32.380971 28506 net.cpp:399] inception_5a/1x1 -> inception_5a/1x1
I0915 11:53:32.385607 28506 net.cpp:141] Setting up inception_5a/1x1
I0915 11:53:32.385643 28506 net.cpp:148] Top shape: 10 256 7 7 (125440)
I0915 11:53:32.385653 28506 net.cpp:156] Memory required for data: 529482240
I0915 11:53:32.385669 28506 layer_factory.hpp:77] Creating layer inception_5a/relu_1x1
I0915 11:53:32.385685 28506 net.cpp:91] Creating Layer inception_5a/relu_1x1
I0915 11:53:32.385695 28506 net.cpp:425] inception_5a/relu_1x1 <- inception_5a/1x1
I0915 11:53:32.385712 28506 net.cpp:386] inception_5a/relu_1x1 -> inception_5a/1x1 (in-place)
I0915 11:53:32.386198 28506 net.cpp:141] Setting up inception_5a/relu_1x1
I0915 11:53:32.386211 28506 net.cpp:148] Top shape: 10 256 7 7 (125440)
I0915 11:53:32.386216 28506 net.cpp:156] Memory required for data: 529984000
I0915 11:53:32.386221 28506 layer_factory.hpp:77] Creating layer inception_5a/3x3_reduce
I0915 11:53:32.386239 28506 net.cpp:91] Creating Layer inception_5a/3x3_reduce
I0915 11:53:32.386245 28506 net.cpp:425] inception_5a/3x3_reduce <- pool4/3x3_s2_pool4/3x3_s2_0_split_1
I0915 11:53:32.386257 28506 net.cpp:399] inception_5a/3x3_reduce -> inception_5a/3x3_reduce
I0915 11:53:32.389637 28506 net.cpp:141] Setting up inception_5a/3x3_reduce
I0915 11:53:32.389664 28506 net.cpp:148] Top shape: 10 160 7 7 (78400)
I0915 11:53:32.389669 28506 net.cpp:156] Memory required for data: 530297600
I0915 11:53:32.389679 28506 layer_factory.hpp:77] Creating layer inception_5a/relu_3x3_reduce
I0915 11:53:32.389693 28506 net.cpp:91] Creating Layer inception_5a/relu_3x3_reduce
I0915 11:53:32.389700 28506 net.cpp:425] inception_5a/relu_3x3_reduce <- inception_5a/3x3_reduce
I0915 11:53:32.389708 28506 net.cpp:386] inception_5a/relu_3x3_reduce -> inception_5a/3x3_reduce (in-place)
I0915 11:53:32.389953 28506 net.cpp:141] Setting up inception_5a/relu_3x3_reduce
I0915 11:53:32.389964 28506 net.cpp:148] Top shape: 10 160 7 7 (78400)
I0915 11:53:32.389968 28506 net.cpp:156] Memory required for data: 530611200
I0915 11:53:32.389972 28506 layer_factory.hpp:77] Creating layer inception_5a/3x3
I0915 11:53:32.389989 28506 net.cpp:91] Creating Layer inception_5a/3x3
I0915 11:53:32.389996 28506 net.cpp:425] inception_5a/3x3 <- inception_5a/3x3_reduce
I0915 11:53:32.390004 28506 net.cpp:399] inception_5a/3x3 -> inception_5a/3x3
I0915 11:53:32.396602 28506 net.cpp:141] Setting up inception_5a/3x3
I0915 11:53:32.396641 28506 net.cpp:148] Top shape: 10 320 7 7 (156800)
I0915 11:53:32.396647 28506 net.cpp:156] Memory required for data: 531238400
I0915 11:53:32.396662 28506 layer_factory.hpp:77] Creating layer inception_5a/relu_3x3
I0915 11:53:32.396677 28506 net.cpp:91] Creating Layer inception_5a/relu_3x3
I0915 11:53:32.396683 28506 net.cpp:425] inception_5a/relu_3x3 <- inception_5a/3x3
I0915 11:53:32.396692 28506 net.cpp:386] inception_5a/relu_3x3 -> inception_5a/3x3 (in-place)
I0915 11:53:32.397133 28506 net.cpp:141] Setting up inception_5a/relu_3x3
I0915 11:53:32.397150 28506 net.cpp:148] Top shape: 10 320 7 7 (156800)
I0915 11:53:32.397153 28506 net.cpp:156] Memory required for data: 531865600
I0915 11:53:32.397158 28506 layer_factory.hpp:77] Creating layer inception_5a/5x5_reduce
I0915 11:53:32.397176 28506 net.cpp:91] Creating Layer inception_5a/5x5_reduce
I0915 11:53:32.397182 28506 net.cpp:425] inception_5a/5x5_reduce <- pool4/3x3_s2_pool4/3x3_s2_0_split_2
I0915 11:53:32.397192 28506 net.cpp:399] inception_5a/5x5_reduce -> inception_5a/5x5_reduce
I0915 11:53:32.399377 28506 net.cpp:141] Setting up inception_5a/5x5_reduce
I0915 11:53:32.399411 28506 net.cpp:148] Top shape: 10 32 7 7 (15680)
I0915 11:53:32.399422 28506 net.cpp:156] Memory required for data: 531928320
I0915 11:53:32.399440 28506 layer_factory.hpp:77] Creating layer inception_5a/relu_5x5_reduce
I0915 11:53:32.399458 28506 net.cpp:91] Creating Layer inception_5a/relu_5x5_reduce
I0915 11:53:32.399471 28506 net.cpp:425] inception_5a/relu_5x5_reduce <- inception_5a/5x5_reduce
I0915 11:53:32.399483 28506 net.cpp:386] inception_5a/relu_5x5_reduce -> inception_5a/5x5_reduce (in-place)
I0915 11:53:32.400830 28506 net.cpp:141] Setting up inception_5a/relu_5x5_reduce
I0915 11:53:32.400861 28506 net.cpp:148] Top shape: 10 32 7 7 (15680)
I0915 11:53:32.400871 28506 net.cpp:156] Memory required for data: 531991040
I0915 11:53:32.400882 28506 layer_factory.hpp:77] Creating layer inception_5a/5x5
I0915 11:53:32.400910 28506 net.cpp:91] Creating Layer inception_5a/5x5
I0915 11:53:32.400923 28506 net.cpp:425] inception_5a/5x5 <- inception_5a/5x5_reduce
I0915 11:53:32.400939 28506 net.cpp:399] inception_5a/5x5 -> inception_5a/5x5
I0915 11:53:32.404548 28506 net.cpp:141] Setting up inception_5a/5x5
I0915 11:53:32.404579 28506 net.cpp:148] Top shape: 10 128 7 7 (62720)
I0915 11:53:32.404588 28506 net.cpp:156] Memory required for data: 532241920
I0915 11:53:32.404604 28506 layer_factory.hpp:77] Creating layer inception_5a/relu_5x5
I0915 11:53:32.404649 28506 net.cpp:91] Creating Layer inception_5a/relu_5x5
I0915 11:53:32.404661 28506 net.cpp:425] inception_5a/relu_5x5 <- inception_5a/5x5
I0915 11:53:32.404675 28506 net.cpp:386] inception_5a/relu_5x5 -> inception_5a/5x5 (in-place)
I0915 11:53:32.405050 28506 net.cpp:141] Setting up inception_5a/relu_5x5
I0915 11:53:32.405066 28506 net.cpp:148] Top shape: 10 128 7 7 (62720)
I0915 11:53:32.405074 28506 net.cpp:156] Memory required for data: 532492800
I0915 11:53:32.405084 28506 layer_factory.hpp:77] Creating layer inception_5a/pool
I0915 11:53:32.405102 28506 net.cpp:91] Creating Layer inception_5a/pool
I0915 11:53:32.405112 28506 net.cpp:425] inception_5a/pool <- pool4/3x3_s2_pool4/3x3_s2_0_split_3
I0915 11:53:32.405125 28506 net.cpp:399] inception_5a/pool -> inception_5a/pool
I0915 11:53:32.405237 28506 net.cpp:141] Setting up inception_5a/pool
I0915 11:53:32.405252 28506 net.cpp:148] Top shape: 10 832 7 7 (407680)
I0915 11:53:32.405261 28506 net.cpp:156] Memory required for data: 534123520
I0915 11:53:32.405268 28506 layer_factory.hpp:77] Creating layer inception_5a/pool_proj
I0915 11:53:32.405292 28506 net.cpp:91] Creating Layer inception_5a/pool_proj
I0915 11:53:32.405302 28506 net.cpp:425] inception_5a/pool_proj <- inception_5a/pool
I0915 11:53:32.405319 28506 net.cpp:399] inception_5a/pool_proj -> inception_5a/pool_proj
I0915 11:53:32.409379 28506 net.cpp:141] Setting up inception_5a/pool_proj
I0915 11:53:32.409410 28506 net.cpp:148] Top shape: 10 128 7 7 (62720)
I0915 11:53:32.409416 28506 net.cpp:156] Memory required for data: 534374400
I0915 11:53:32.409425 28506 layer_factory.hpp:77] Creating layer inception_5a/relu_pool_proj
I0915 11:53:32.409441 28506 net.cpp:91] Creating Layer inception_5a/relu_pool_proj
I0915 11:53:32.409448 28506 net.cpp:425] inception_5a/relu_pool_proj <- inception_5a/pool_proj
I0915 11:53:32.409459 28506 net.cpp:386] inception_5a/relu_pool_proj -> inception_5a/pool_proj (in-place)
I0915 11:53:32.409970 28506 net.cpp:141] Setting up inception_5a/relu_pool_proj
I0915 11:53:32.409989 28506 net.cpp:148] Top shape: 10 128 7 7 (62720)
I0915 11:53:32.409998 28506 net.cpp:156] Memory required for data: 534625280
I0915 11:53:32.410008 28506 layer_factory.hpp:77] Creating layer inception_5a/output
I0915 11:53:32.410022 28506 net.cpp:91] Creating Layer inception_5a/output
I0915 11:53:32.410032 28506 net.cpp:425] inception_5a/output <- inception_5a/1x1
I0915 11:53:32.410042 28506 net.cpp:425] inception_5a/output <- inception_5a/3x3
I0915 11:53:32.410046 28506 net.cpp:425] inception_5a/output <- inception_5a/5x5
I0915 11:53:32.410051 28506 net.cpp:425] inception_5a/output <- inception_5a/pool_proj
I0915 11:53:32.410061 28506 net.cpp:399] inception_5a/output -> inception_5a/output
I0915 11:53:32.410132 28506 net.cpp:141] Setting up inception_5a/output
I0915 11:53:32.410151 28506 net.cpp:148] Top shape: 10 832 7 7 (407680)
I0915 11:53:32.410156 28506 net.cpp:156] Memory required for data: 536256000
I0915 11:53:32.410161 28506 layer_factory.hpp:77] Creating layer inception_5a/output_inception_5a/output_0_split
I0915 11:53:32.410174 28506 net.cpp:91] Creating Layer inception_5a/output_inception_5a/output_0_split
I0915 11:53:32.410179 28506 net.cpp:425] inception_5a/output_inception_5a/output_0_split <- inception_5a/output
I0915 11:53:32.410187 28506 net.cpp:399] inception_5a/output_inception_5a/output_0_split -> inception_5a/output_inception_5a/output_0_split_0
I0915 11:53:32.410197 28506 net.cpp:399] inception_5a/output_inception_5a/output_0_split -> inception_5a/output_inception_5a/output_0_split_1
I0915 11:53:32.410205 28506 net.cpp:399] inception_5a/output_inception_5a/output_0_split -> inception_5a/output_inception_5a/output_0_split_2
I0915 11:53:32.410213 28506 net.cpp:399] inception_5a/output_inception_5a/output_0_split -> inception_5a/output_inception_5a/output_0_split_3
I0915 11:53:32.410320 28506 net.cpp:141] Setting up inception_5a/output_inception_5a/output_0_split
I0915 11:53:32.410329 28506 net.cpp:148] Top shape: 10 832 7 7 (407680)
I0915 11:53:32.410336 28506 net.cpp:148] Top shape: 10 832 7 7 (407680)
I0915 11:53:32.410339 28506 net.cpp:148] Top shape: 10 832 7 7 (407680)
I0915 11:53:32.410344 28506 net.cpp:148] Top shape: 10 832 7 7 (407680)
I0915 11:53:32.410348 28506 net.cpp:156] Memory required for data: 542778880
I0915 11:53:32.410352 28506 layer_factory.hpp:77] Creating layer inception_5b/1x1
I0915 11:53:32.410369 28506 net.cpp:91] Creating Layer inception_5b/1x1
I0915 11:53:32.410374 28506 net.cpp:425] inception_5b/1x1 <- inception_5a/output_inception_5a/output_0_split_0
I0915 11:53:32.410385 28506 net.cpp:399] inception_5b/1x1 -> inception_5b/1x1
I0915 11:53:32.415153 28506 net.cpp:141] Setting up inception_5b/1x1
I0915 11:53:32.415187 28506 net.cpp:148] Top shape: 10 384 7 7 (188160)
I0915 11:53:32.415194 28506 net.cpp:156] Memory required for data: 543531520
I0915 11:53:32.415204 28506 layer_factory.hpp:77] Creating layer inception_5b/relu_1x1
I0915 11:53:32.415215 28506 net.cpp:91] Creating Layer inception_5b/relu_1x1
I0915 11:53:32.415221 28506 net.cpp:425] inception_5b/relu_1x1 <- inception_5b/1x1
I0915 11:53:32.415233 28506 net.cpp:386] inception_5b/relu_1x1 -> inception_5b/1x1 (in-place)
I0915 11:53:32.415647 28506 net.cpp:141] Setting up inception_5b/relu_1x1
I0915 11:53:32.415660 28506 net.cpp:148] Top shape: 10 384 7 7 (188160)
I0915 11:53:32.415664 28506 net.cpp:156] Memory required for data: 544284160
I0915 11:53:32.415669 28506 layer_factory.hpp:77] Creating layer inception_5b/3x3_reduce
I0915 11:53:32.415686 28506 net.cpp:91] Creating Layer inception_5b/3x3_reduce
I0915 11:53:32.415693 28506 net.cpp:425] inception_5b/3x3_reduce <- inception_5a/output_inception_5a/output_0_split_1
I0915 11:53:32.415704 28506 net.cpp:399] inception_5b/3x3_reduce -> inception_5b/3x3_reduce
I0915 11:53:32.419183 28506 net.cpp:141] Setting up inception_5b/3x3_reduce
I0915 11:53:32.419209 28506 net.cpp:148] Top shape: 10 192 7 7 (94080)
I0915 11:53:32.419214 28506 net.cpp:156] Memory required for data: 544660480
I0915 11:53:32.419224 28506 layer_factory.hpp:77] Creating layer inception_5b/relu_3x3_reduce
I0915 11:53:32.419234 28506 net.cpp:91] Creating Layer inception_5b/relu_3x3_reduce
I0915 11:53:32.419239 28506 net.cpp:425] inception_5b/relu_3x3_reduce <- inception_5b/3x3_reduce
I0915 11:53:32.419250 28506 net.cpp:386] inception_5b/relu_3x3_reduce -> inception_5b/3x3_reduce (in-place)
I0915 11:53:32.419497 28506 net.cpp:141] Setting up inception_5b/relu_3x3_reduce
I0915 11:53:32.419509 28506 net.cpp:148] Top shape: 10 192 7 7 (94080)
I0915 11:53:32.419513 28506 net.cpp:156] Memory required for data: 545036800
I0915 11:53:32.419518 28506 layer_factory.hpp:77] Creating layer inception_5b/3x3
I0915 11:53:32.419534 28506 net.cpp:91] Creating Layer inception_5b/3x3
I0915 11:53:32.419540 28506 net.cpp:425] inception_5b/3x3 <- inception_5b/3x3_reduce
I0915 11:53:32.419548 28506 net.cpp:399] inception_5b/3x3 -> inception_5b/3x3
I0915 11:53:32.427642 28506 net.cpp:141] Setting up inception_5b/3x3
I0915 11:53:32.427680 28506 net.cpp:148] Top shape: 10 384 7 7 (188160)
I0915 11:53:32.427686 28506 net.cpp:156] Memory required for data: 545789440
I0915 11:53:32.427696 28506 layer_factory.hpp:77] Creating layer inception_5b/relu_3x3
I0915 11:53:32.427708 28506 net.cpp:91] Creating Layer inception_5b/relu_3x3
I0915 11:53:32.427716 28506 net.cpp:425] inception_5b/relu_3x3 <- inception_5b/3x3
I0915 11:53:32.427727 28506 net.cpp:386] inception_5b/relu_3x3 -> inception_5b/3x3 (in-place)
I0915 11:53:32.428169 28506 net.cpp:141] Setting up inception_5b/relu_3x3
I0915 11:53:32.428181 28506 net.cpp:148] Top shape: 10 384 7 7 (188160)
I0915 11:53:32.428185 28506 net.cpp:156] Memory required for data: 546542080
I0915 11:53:32.428190 28506 layer_factory.hpp:77] Creating layer inception_5b/5x5_reduce
I0915 11:53:32.428206 28506 net.cpp:91] Creating Layer inception_5b/5x5_reduce
I0915 11:53:32.428212 28506 net.cpp:425] inception_5b/5x5_reduce <- inception_5a/output_inception_5a/output_0_split_2
I0915 11:53:32.428225 28506 net.cpp:399] inception_5b/5x5_reduce -> inception_5b/5x5_reduce
I0915 11:53:32.429961 28506 net.cpp:141] Setting up inception_5b/5x5_reduce
I0915 11:53:32.429981 28506 net.cpp:148] Top shape: 10 48 7 7 (23520)
I0915 11:53:32.429986 28506 net.cpp:156] Memory required for data: 546636160
I0915 11:53:32.429996 28506 layer_factory.hpp:77] Creating layer inception_5b/relu_5x5_reduce
I0915 11:53:32.430003 28506 net.cpp:91] Creating Layer inception_5b/relu_5x5_reduce
I0915 11:53:32.430009 28506 net.cpp:425] inception_5b/relu_5x5_reduce <- inception_5b/5x5_reduce
I0915 11:53:32.430019 28506 net.cpp:386] inception_5b/relu_5x5_reduce -> inception_5b/5x5_reduce (in-place)
I0915 11:53:32.430434 28506 net.cpp:141] Setting up inception_5b/relu_5x5_reduce
I0915 11:53:32.430446 28506 net.cpp:148] Top shape: 10 48 7 7 (23520)
I0915 11:53:32.430450 28506 net.cpp:156] Memory required for data: 546730240
I0915 11:53:32.430456 28506 layer_factory.hpp:77] Creating layer inception_5b/5x5
I0915 11:53:32.430470 28506 net.cpp:91] Creating Layer inception_5b/5x5
I0915 11:53:32.430476 28506 net.cpp:425] inception_5b/5x5 <- inception_5b/5x5_reduce
I0915 11:53:32.430488 28506 net.cpp:399] inception_5b/5x5 -> inception_5b/5x5
I0915 11:53:32.433712 28506 net.cpp:141] Setting up inception_5b/5x5
I0915 11:53:32.433746 28506 net.cpp:148] Top shape: 10 128 7 7 (62720)
I0915 11:53:32.433753 28506 net.cpp:156] Memory required for data: 546981120
I0915 11:53:32.433763 28506 layer_factory.hpp:77] Creating layer inception_5b/relu_5x5
I0915 11:53:32.433773 28506 net.cpp:91] Creating Layer inception_5b/relu_5x5
I0915 11:53:32.433780 28506 net.cpp:425] inception_5b/relu_5x5 <- inception_5b/5x5
I0915 11:53:32.433789 28506 net.cpp:386] inception_5b/relu_5x5 -> inception_5b/5x5 (in-place)
I0915 11:53:32.434046 28506 net.cpp:141] Setting up inception_5b/relu_5x5
I0915 11:53:32.434056 28506 net.cpp:148] Top shape: 10 128 7 7 (62720)
I0915 11:53:32.434062 28506 net.cpp:156] Memory required for data: 547232000
I0915 11:53:32.434065 28506 layer_factory.hpp:77] Creating layer inception_5b/pool
I0915 11:53:32.434077 28506 net.cpp:91] Creating Layer inception_5b/pool
I0915 11:53:32.434083 28506 net.cpp:425] inception_5b/pool <- inception_5a/output_inception_5a/output_0_split_3
I0915 11:53:32.434090 28506 net.cpp:399] inception_5b/pool -> inception_5b/pool
I0915 11:53:32.434172 28506 net.cpp:141] Setting up inception_5b/pool
I0915 11:53:32.434181 28506 net.cpp:148] Top shape: 10 832 7 7 (407680)
I0915 11:53:32.434185 28506 net.cpp:156] Memory required for data: 548862720
I0915 11:53:32.434190 28506 layer_factory.hpp:77] Creating layer inception_5b/pool_proj
I0915 11:53:32.434207 28506 net.cpp:91] Creating Layer inception_5b/pool_proj
I0915 11:53:32.434212 28506 net.cpp:425] inception_5b/pool_proj <- inception_5b/pool
I0915 11:53:32.434222 28506 net.cpp:399] inception_5b/pool_proj -> inception_5b/pool_proj
I0915 11:53:32.437496 28506 net.cpp:141] Setting up inception_5b/pool_proj
I0915 11:53:32.437525 28506 net.cpp:148] Top shape: 10 128 7 7 (62720)
I0915 11:53:32.437531 28506 net.cpp:156] Memory required for data: 549113600
I0915 11:53:32.437541 28506 layer_factory.hpp:77] Creating layer inception_5b/relu_pool_proj
I0915 11:53:32.437553 28506 net.cpp:91] Creating Layer inception_5b/relu_pool_proj
I0915 11:53:32.437561 28506 net.cpp:425] inception_5b/relu_pool_proj <- inception_5b/pool_proj
I0915 11:53:32.437568 28506 net.cpp:386] inception_5b/relu_pool_proj -> inception_5b/pool_proj (in-place)
I0915 11:53:32.438001 28506 net.cpp:141] Setting up inception_5b/relu_pool_proj
I0915 11:53:32.438017 28506 net.cpp:148] Top shape: 10 128 7 7 (62720)
I0915 11:53:32.438021 28506 net.cpp:156] Memory required for data: 549364480
I0915 11:53:32.438026 28506 layer_factory.hpp:77] Creating layer inception_5b/output
I0915 11:53:32.438037 28506 net.cpp:91] Creating Layer inception_5b/output
I0915 11:53:32.438043 28506 net.cpp:425] inception_5b/output <- inception_5b/1x1
I0915 11:53:32.438050 28506 net.cpp:425] inception_5b/output <- inception_5b/3x3
I0915 11:53:32.438055 28506 net.cpp:425] inception_5b/output <- inception_5b/5x5
I0915 11:53:32.438060 28506 net.cpp:425] inception_5b/output <- inception_5b/pool_proj
I0915 11:53:32.438066 28506 net.cpp:399] inception_5b/output -> inception_5b/output
I0915 11:53:32.438124 28506 net.cpp:141] Setting up inception_5b/output
I0915 11:53:32.438134 28506 net.cpp:148] Top shape: 10 1024 7 7 (501760)
I0915 11:53:32.438138 28506 net.cpp:156] Memory required for data: 551371520
I0915 11:53:32.438143 28506 layer_factory.hpp:77] Creating layer pool5/7x7_s1
I0915 11:53:32.438151 28506 net.cpp:91] Creating Layer pool5/7x7_s1
I0915 11:53:32.438156 28506 net.cpp:425] pool5/7x7_s1 <- inception_5b/output
I0915 11:53:32.438165 28506 net.cpp:399] pool5/7x7_s1 -> pool5/7x7_s1
I0915 11:53:32.438474 28506 net.cpp:141] Setting up pool5/7x7_s1
I0915 11:53:32.438488 28506 net.cpp:148] Top shape: 10 1024 1 1 (10240)
I0915 11:53:32.438493 28506 net.cpp:156] Memory required for data: 551412480
I0915 11:53:32.438496 28506 layer_factory.hpp:77] Creating layer pool5/drop_7x7_s1
I0915 11:53:32.438510 28506 net.cpp:91] Creating Layer pool5/drop_7x7_s1
I0915 11:53:32.438515 28506 net.cpp:425] pool5/drop_7x7_s1 <- pool5/7x7_s1
I0915 11:53:32.438521 28506 net.cpp:386] pool5/drop_7x7_s1 -> pool5/7x7_s1 (in-place)
I0915 11:53:32.438572 28506 net.cpp:141] Setting up pool5/drop_7x7_s1
I0915 11:53:32.438581 28506 net.cpp:148] Top shape: 10 1024 1 1 (10240)
I0915 11:53:32.438585 28506 net.cpp:156] Memory required for data: 551453440
I0915 11:53:32.438590 28506 layer_factory.hpp:77] Creating layer loss3/classifier
I0915 11:53:32.438607 28506 net.cpp:91] Creating Layer loss3/classifier
I0915 11:53:32.438612 28506 net.cpp:425] loss3/classifier <- pool5/7x7_s1
I0915 11:53:32.438619 28506 net.cpp:399] loss3/classifier -> loss3/classifier
I0915 11:53:32.448742 28506 net.cpp:141] Setting up loss3/classifier
I0915 11:53:32.448786 28506 net.cpp:148] Top shape: 10 1000 (10000)
I0915 11:53:32.448791 28506 net.cpp:156] Memory required for data: 551493440
I0915 11:53:32.448801 28506 layer_factory.hpp:77] Creating layer prob
I0915 11:53:32.448818 28506 net.cpp:91] Creating Layer prob
I0915 11:53:32.448827 28506 net.cpp:425] prob <- loss3/classifier
I0915 11:53:32.448834 28506 net.cpp:399] prob -> prob
I0915 11:53:32.449597 28506 net.cpp:141] Setting up prob
I0915 11:53:32.449615 28506 net.cpp:148] Top shape: 10 1000 (10000)
I0915 11:53:32.449620 28506 net.cpp:156] Memory required for data: 551533440
I0915 11:53:32.449625 28506 net.cpp:219] prob does not need backward computation.
I0915 11:53:32.449630 28506 net.cpp:219] loss3/classifier does not need backward computation.
I0915 11:53:32.449635 28506 net.cpp:219] pool5/drop_7x7_s1 does not need backward computation.
I0915 11:53:32.449638 28506 net.cpp:219] pool5/7x7_s1 does not need backward computation.
…
