…
Java HotSpot(TM) 64-Bit Server VM warning: You have loaded library /home/peifeng/work/run/storm102/data/workers/f667a83c-b940-4900-bf79-a174b0eaa2f0/tmp/cvld1429223862313624746/libopencv_java310.xine1.so which might have disabled stack guard. The VM will try to fix the stack guard now.
It's highly recommended that you fix the library with 'execstack -c <libfile>', or link it with '-z noexecstack'.
WARNING: Logging before InitGoogleLogging() is written to STDERR
I0924 00:44:15.631505 26054 net.cpp:49] Initializing net from parameters: 
name: "GoogleNet"
state {
  phase: TEST
}
layer {
  name: "data"
  type: "Input"
  top: "data"
  input_param {
    shape {
      dim: 10
      dim: 3
      dim: 224
      dim: 224
    }
  }
}
layer {
  name: "conv1/7x7_s2"
  type: "Convolution"
  bottom: "data"
  top: "conv1/7x7_s2"
  param {
    lr_mult: 1
    decay_mult: 1
  }
  param {
    lr_mult: 2
    decay_mult: 0
  }
  convolution_param {
    num_output: 64
    pad: 3
    kernel_size: 7
    stride: 2
    weight_filler {
      type: "xavier"
      std: 0.1
    }
    bias_filler {
      type: "constant"
      value: 0.2
    }
  }
}
layer {
  name: "conv1/relu_7x7"
  type: "ReLU"
  bottom: "conv1/7x7_s2"
  top: "conv1/7x7_s2"
}
layer {
  name: "pool1/3x3_s2"
  type: "Pooling"
  bottom: "conv1/7x7_s2"
  top: "pool1/3x3_s2"
  pooling_param {
    pool: MAX
    kernel_size: 3
    stride: 2
  }
}
layer {
  name: "pool1/norm1"
  type: "LRN"
  bottom: "pool1/3x3_s2"
  top: "pool1/norm1"
  lrn_param {
    local_size: 5
    alpha: 0.0001
    beta: 0.75
  }
}
layer {
  name: "conv2/3x3_reduce"
  type: "Convolution"
  bottom: "pool1/norm1"
  top: "conv2/3x3_reduce"
  param {
    lr_mult: 1
    decay_mult: 1
  }
  param {
    lr_mult: 2
    decay_mult: 0
  }
  convolution_param {
    num_output: 64
    kernel_size: 1
    weight_filler {
      type: "xavier"
      std: 0.1
    }
    bias_filler {
      type: "constant"
      value: 0.2
    }
  }
}
layer {
  name: "conv2/relu_3x3_reduce"
  type: "ReLU"
  bottom: "conv2/3x3_reduce"
  top: "conv2/3x3_reduce"
}
layer {
  name: "conv2/3x3"
  type: "Convolution"
  bottom: "conv2/3x3_reduce"
  top: "conv2/3x3"
  param {
    lr_mult: 1
    decay_mult: 1
  }
  param {
    lr_mult: 2
    decay_mult: 0
  }
  convolution_param {
    num_output: 192
    pad: 1
    kernel_size: 3
    weight_filler {
      type: "xavier"
      std: 0.03
    }
    bias_filler {
      type: "constant"
      value: 0.2
    }
  }
}
layer {
  name: "conv2/relu_3x3"
  type: "ReLU"
  bottom: "conv2/3x3"
  top: "conv2/3x3"
}
layer {
  name: "conv2/norm2"
  type: "LRN"
  bottom: "conv2/3x3"
  top: "conv2/norm2"
  lrn_param {
    local_size: 5
    alpha: 0.0001
    beta: 0.75
  }
}
layer {
  name: "pool2/3x3_s2"
  type: "Pooling"
  bottom: "conv2/norm2"
  top: "pool2/3x3_s2"
  pooling_param {
    pool: MAX
    kernel_size: 3
    stride: 2
  }
}
layer {
  name: "inception_3a/1x1"
  type: "Convolution"
  bottom: "pool2/3x3_s2"
  top: "inception_3a/1x1"
  param {
    lr_mult: 1
    decay_mult: 1
  }
  param {
    lr_mult: 2
    decay_mult: 0
  }
  convolution_param {
    num_output: 64
    kernel_size: 1
    weight_filler {
      type: "xavier"
      std: 0.03
    }
    bias_filler {
      type: "constant"
      value: 0.2
    }
  }
}
layer {
  name: "inception_3a/relu_1x1"
  type: "ReLU"
  bottom: "inception_3a/1x1"
  top: "inception_3a/1x1"
}
layer {
  name: "inception_3a/3x3_reduce"
  type: "Convolution"
  bottom: "pool2/3x3_s2"
  top: "inception_3a/3x3_reduce"
  param {
    lr_mult: 1
    decay_mult: 1
  }
  param {
    lr_mult: 2
    decay_mult: 0
  }
  convolution_param {
    num_output: 96
    kernel_size: 1
    weight_filler {
      type: "xavier"
      std: 0.09
    }
    bias_filler {
      type: "constant"
      value: 0.2
    }
  }
}
layer {
  name: "inception_3a/relu_3x3_reduce"
  type: "ReLU"
  bottom: "inception_3a/3x3_reduce"
  top: "inception_3a/3x3_reduce"
}
layer {
  name: "inception_3a/3x3"
  type: "Convolution"
  bottom: "inception_3a/3x3_reduce"
  top: "inception_3a/3x3"
  param {
    lr_mult: 1
    decay_mult: 1
  }
  param {
    lr_mult: 2
    decay_mult: 0
  }
  convolution_param {
    num_output: 128
    pad: 1
    kernel_size: 3
    weight_filler {
      type: "xavier"
      std: 0.03
    }
    bias_filler {
      type: "constant"
      value: 0.2
    }
  }
}
layer {
  name: "inception_3a/relu_3x3"
  type: "ReLU"
  bottom: "inception_3a/3x3"
  top: "inception_3a/3x3"
}
layer {
  name: "inception_3a/5x5_reduce"
  type: "Convolution"
  bottom: "pool2/3x3_s2"
  top: "inception_3a/5x5_reduce"
  param {
    lr_mult: 1
    decay_mult: 1
  }
  param {
    lr_mult: 2
    decay_mult: 0
  }
  convolution_param {
    num_output: 16
    kernel_size: 1
    weight_filler {
      type: "xavier"
      std: 0.2
    }
    bias_filler {
      type: "constant"
      value: 0.2
    }
  }
}
layer {
  name: "inception_3a/relu_5x5_reduce"
  type: "ReLU"
  bottom: "inception_3a/5x5_reduce"
  top: "inception_3a/5x5_reduce"
}
layer {
  name: "inception_3a/5x5"
  type: "Convolution"
  bottom: "inception_3a/5x5_reduce"
  top: "inception_3a/5x5"
  param {
    lr_mult: 1
    decay_mult: 1
  }
  param {
    lr_mult: 2
    decay_mult: 0
  }
  convolution_param {
    num_output: 32
    pad: 2
    kernel_size: 5
    weight_filler {
      type: "xavier"
      std: 0.03
    }
    bias_filler {
      type: "constant"
      value: 0.2
    }
  }
}
layer {
  name: "inception_3a/relu_5x5"
  type: "ReLU"
  bottom: "inception_3a/5x5"
  top: "inception_3a/5x5"
}
layer {
  name: "inception_3a/pool"
  type: "Pooling"
  bottom: "pool2/3x3_s2"
  top: "inception_3a/pool"
  pooling_param {
    pool: MAX
    kernel_size: 3
    stride: 1
    pad: 1
  }
}
layer {
  name: "inception_3a/pool_proj"
  type: "Convolution"
  bottom: "inception_3a/pool"
  top: "inception_3a/pool_proj"
  param {
    lr_mult: 1
    decay_mult: 1
  }
  param {
    lr_mult: 2
    decay_mult: 0
  }
  convolution_param {
    num_output: 32
    kernel_size: 1
    weight_filler {
      type: "xavier"
      std: 0.1
    }
    bias_filler {
      type: "constant"
      value: 0.2
    }
  }
}
layer {
  name: "inception_3a/relu_pool_proj"
  type: "ReLU"
  bottom: "inception_3a/pool_proj"
  top: "inception_3a/pool_proj"
}
layer {
  name: "inception_3a/output"
  type: "Concat"
  bottom: "inception_3a/1x1"
  bottom: "inception_3a/3x3"
  bottom: "inception_3a/5x5"
  bottom: "inception_3a/pool_proj"
  top: "inception_3a/output"
}
layer {
  name: "inception_3b/1x1"
  type: "Convolution"
  bottom: "inception_3a/output"
  top: "inception_3b/1x1"
  param {
    lr_mult: 1
    decay_mult: 1
  }
  param {
    lr_mult: 2
    decay_mult: 0
  }
  convolution_param {
    num_output: 128
    kernel_size: 1
    weight_filler {
      type: "xavier"
      std: 0.03
    }
    bias_filler {
      type: "constant"
      value: 0.2
    }
  }
}
layer {
  name: "inception_3b/relu_1x1"
  type: "ReLU"
  bottom: "inception_3b/1x1"
  top: "inception_3b/1x1"
}
layer {
  name: "inception_3b/3x3_reduce"
  type: "Convolution"
  bottom: "inception_3a/output"
  top: "inception_3b/3x3_reduce"
  param {
    lr_mult: 1
    decay_mult: 1
  }
  param {
    lr_mult: 2
    decay_mult: 0
  }
  convolution_param {
    num_output: 128
    kernel_size: 1
    weight_filler {
      type: "xavier"
      std: 0.09
    }
    bias_filler {
      type: "constant"
      value: 0.2
    }
  }
}
layer {
  name: "inception_3b/relu_3x3_reduce"
  type: "ReLU"
  bottom: "inception_3b/3x3_reduce"
  top: "inception_3b/3x3_reduce"
}
layer {
  name: "inception_3b/3x3"
  type: "Convolution"
  bottom: "inception_3b/3x3_reduce"
  top: "inception_3b/3x3"
  param {
    lr_mult: 1
    decay_mult: 1
  }
  param {
    lr_mult: 2
    decay_mult: 0
  }
  convolution_param {
    num_output: 192
    pad: 1
    kernel_size: 3
    weight_filler {
      type: "xavier"
      std: 0.03
    }
    bias_filler {
      type: "constant"
      value: 0.2
    }
  }
}
layer {
  name: "inception_3b/relu_3x3"
  type: "ReLU"
  bottom: "inception_3b/3x3"
  top: "inception_3b/3x3"
}
layer {
  name: "inception_3b/5x5_reduce"
  type: "Convolution"
  bottom: "inception_3a/output"
  top: "inception_3b/5x5_reduce"
  param {
    lr_mult: 1
    decay_mult: 1
  }
  param {
    lr_mult: 2
    decay_mult: 0
  }
  convolution_param {
    num_output: 32
    kernel_size: 1
    weight_filler {
      type: "xavier"
      std: 0.2
    }
    bias_filler {
      type: "constant"
      value: 0.2
    }
  }
}
layer {
  name: "inception_3b/relu_5x5_reduce"
  type: "ReLU"
  bottom: "inception_3b/5x5_reduce"
  top: "inception_3b/5x5_reduce"
}
layer {
  name: "inception_3b/5x5"
  type: "Convolution"
  bottom: "inception_3b/5x5_reduce"
  top: "inception_3b/5x5"
  param {
    lr_mult: 1
    decay_mult: 1
  }
  param {
    lr_mult: 2
    decay_mult: 0
  }
  convolution_param {
    num_output: 96
    pad: 2
    kernel_size: 5
    weight_filler {
      type: "xavier"
      std: 0.03
    }
    bias_filler {
      type: "constant"
      value: 0.2
    }
  }
}
layer {
  name: "inception_3b/relu_5x5"
  type: "ReLU"
  bottom: "inception_3b/5x5"
  top: "inception_3b/5x5"
}
layer {
  name: "inception_3b/pool"
  type: "Pooling"
  bottom: "inception_3a/output"
  top: "inception_3b/pool"
  pooling_param {
    pool: MAX
    kernel_size: 3
    stride: 1
    pad: 1
  }
}
layer {
  name: "inception_3b/pool_proj"
  type: "Convolution"
  bottom: "inception_3b/pool"
  top: "inception_3b/pool_proj"
  param {
    lr_mult: 1
    decay_mult: 1
  }
  param {
    lr_mult: 2
    decay_mult: 0
  }
  convolution_param {
    num_output: 64
    kernel_size: 1
    weight_filler {
      type: "xavier"
      std: 0.1
    }
    bias_filler {
      type: "constant"
      value: 0.2
    }
  }
}
layer {
  name: "inception_3b/relu_pool_proj"
  type: "ReLU"
  bottom: "inception_3b/pool_proj"
  top: "inception_3b/pool_proj"
}
layer {
  name: "inception_3b/output"
  type: "Concat"
  bottom: "inception_3b/1x1"
  bottom: "inception_3b/3x3"
  bottom: "inception_3b/5x5"
  bottom: "inception_3b/pool_proj"
  top: "inception_3b/output"
}
layer {
  name: "pool3/3x3_s2"
  type: "Pooling"
  bottom: "inception_3b/output"
  top: "pool3/3x3_s2"
  pooling_param {
    pool: MAX
    kernel_size: 3
    stride: 2
  }
}
layer {
  name: "inception_4a/1x1"
  type: "Convolution"
  bottom: "pool3/3x3_s2"
  top: "inception_4a/1x1"
  param {
    lr_mult: 1
    decay_mult: 1
  }
  param {
    lr_mult: 2
    decay_mult: 0
  }
  convolution_param {
    num_output: 192
    kernel_size: 1
    weight_filler {
      type: "xavier"
      std: 0.03
    }
    bias_filler {
      type: "constant"
      value: 0.2
    }
  }
}
layer {
  name: "inception_4a/relu_1x1"
  type: "ReLU"
  bottom: "inception_4a/1x1"
  top: "inception_4a/1x1"
}
layer {
  name: "inception_4a/3x3_reduce"
  type: "Convolution"
  bottom: "pool3/3x3_s2"
  top: "inception_4a/3x3_reduce"
  param {
    lr_mult: 1
    decay_mult: 1
  }
  param {
    lr_mult: 2
    decay_mult: 0
  }
  convolution_param {
    num_output: 96
    kernel_size: 1
    weight_filler {
      type: "xavier"
      std: 0.09
    }
    bias_filler {
      type: "constant"
      value: 0.2
    }
  }
}
layer {
  name: "inception_4a/relu_3x3_reduce"
  type: "ReLU"
  bottom: "inception_4a/3x3_reduce"
  top: "inception_4a/3x3_reduce"
}
layer {
  name: "inception_4a/3x3"
  type: "Convolution"
  bottom: "inception_4a/3x3_reduce"
  top: "inception_4a/3x3"
  param {
    lr_mult: 1
    decay_mult: 1
  }
  param {
    lr_mult: 2
    decay_mult: 0
  }
  convolution_param {
    num_output: 208
    pad: 1
    kernel_size: 3
    weight_filler {
      type: "xavier"
      std: 0.03
    }
    bias_filler {
      type: "constant"
      value: 0.2
    }
  }
}
layer {
  name: "inception_4a/relu_3x3"
  type: "ReLU"
  bottom: "inception_4a/3x3"
  top: "inception_4a/3x3"
}
layer {
  name: "inception_4a/5x5_reduce"
  type: "Convolution"
  bottom: "pool3/3x3_s2"
  top: "inception_4a/5x5_reduce"
  param {
    lr_mult: 1
    decay_mult: 1
  }
  param {
    lr_mult: 2
    decay_mult: 0
  }
  convolution_param {
    num_output: 16
    kernel_size: 1
    weight_filler {
      type: "xavier"
      std: 0.2
    }
    bias_filler {
      type: "constant"
      value: 0.2
    }
  }
}
layer {
  name: "inception_4a/relu_5x5_reduce"
  type: "ReLU"
  bottom: "inception_4a/5x5_reduce"
  top: "inception_4a/5x5_reduce"
}
layer {
  name: "inception_4a/5x5"
  type: "Convolution"
  bottom: "inception_4a/5x5_reduce"
  top: "inception_4a/5x5"
  param {
    lr_mult: 1
    decay_mult: 1
  }
  param {
    lr_mult: 2
    decay_mult: 0
  }
  convolution_param {
    num_output: 48
    pad: 2
    kernel_size: 5
    weight_filler {
      type: "xavier"
      std: 0.03
    }
    bias_filler {
      type: "constant"
      value: 0.2
    }
  }
}
layer {
  name: "inception_4a/relu_5x5"
  type: "ReLU"
  bottom: "inception_4a/5x5"
  top: "inception_4a/5x5"
}
layer {
  name: "inception_4a/pool"
  type: "Pooling"
  bottom: "pool3/3x3_s2"
  top: "inception_4a/pool"
  pooling_param {
    pool: MAX
    kernel_size: 3
    stride: 1
    pad: 1
  }
}
layer {
  name: "inception_4a/pool_proj"
  type: "Convolution"
  bottom: "inception_4a/pool"
  top: "inception_4a/pool_proj"
  param {
    lr_mult: 1
    decay_mult: 1
  }
  param {
    lr_mult: 2
    decay_mult: 0
  }
  convolution_param {
    num_output: 64
    kernel_size: 1
    weight_filler {
      type: "xavier"
      std: 0.1
    }
    bias_filler {
      type: "constant"
      value: 0.2
    }
  }
}
layer {
  name: "inception_4a/relu_pool_proj"
  type: "ReLU"
  bottom: "inception_4a/pool_proj"
  top: "inception_4a/pool_proj"
}
layer {
  name: "inception_4a/output"
  type: "Concat"
  bottom: "inception_4a/1x1"
  bottom: "inception_4a/3x3"
  bottom: "inception_4a/5x5"
  bottom: "inception_4a/pool_proj"
  top: "inception_4a/output"
}
layer {
  name: "inception_4b/1x1"
  type: "Convolution"
  bottom: "inception_4a/output"
  top: "inception_4b/1x1"
  param {
    lr_mult: 1
    decay_mult: 1
  }
  param {
    lr_mult: 2
    decay_mult: 0
  }
  convolution_param {
    num_output: 160
    kernel_size: 1
    weight_filler {
      type: "xavier"
      std: 0.03
    }
    bias_filler {
      type: "constant"
      value: 0.2
    }
  }
}
layer {
  name: "inception_4b/relu_1x1"
  type: "ReLU"
  bottom: "inception_4b/1x1"
  top: "inception_4b/1x1"
}
layer {
  name: "inception_4b/3x3_reduce"
  type: "Convolution"
  bottom: "inception_4a/output"
  top: "inception_4b/3x3_reduce"
  param {
    lr_mult: 1
    decay_mult: 1
  }
  param {
    lr_mult: 2
    decay_mult: 0
  }
  convolution_param {
    num_output: 112
    kernel_size: 1
    weight_filler {
      type: "xavier"
      std: 0.09
    }
    bias_filler {
      type: "constant"
      value: 0.2
    }
  }
}
layer {
  name: "inception_4b/relu_3x3_reduce"
  type: "ReLU"
  bottom: "inception_4b/3x3_reduce"
  top: "inception_4b/3x3_reduce"
}
layer {
  name: "inception_4b/3x3"
  type: "Convolution"
  bottom: "inception_4b/3x3_reduce"
  top: "inception_4b/3x3"
  param {
    lr_mult: 1
    decay_mult: 1
  }
  param {
    lr_mult: 2
    decay_mult: 0
  }
  convolution_param {
    num_output: 224
    pad: 1
    kernel_size: 3
    weight_filler {
      type: "xavier"
      std: 0.03
    }
    bias_filler {
      type: "constant"
      value: 0.2
    }
  }
}
layer {
  name: "inception_4b/relu_3x3"
  type: "ReLU"
  bottom: "inception_4b/3x3"
  top: "inception_4b/3x3"
}
layer {
  name: "inception_4b/5x5_reduce"
  type: "Convolution"
  bottom: "inception_4a/output"
  top: "inception_4b/5x5_reduce"
  param {
    lr_mult: 1
    decay_mult: 1
  }
  param {
    lr_mult: 2
    decay_mult: 0
  }
  convolution_param {
    num_output: 24
    kernel_size: 1
    weight_filler {
      type: "xavier"
      std: 0.2
    }
    bias_filler {
      type: "constant"
      value: 0.2
    }
  }
}
layer {
  name: "inception_4b/relu_5x5_reduce"
  type: "ReLU"
  bottom: "inception_4b/5x5_reduce"
  top: "inception_4b/5x5_reduce"
}
layer {
  name: "inception_4b/5x5"
  type: "Convolution"
  bottom: "inception_4b/5x5_reduce"
  top: "inception_4b/5x5"
  param {
    lr_mult: 1
    decay_mult: 1
  }
  param {
    lr_mult: 2
    decay_mult: 0
  }
  convolution_param {
    num_output: 64
    pad: 2
    kernel_size: 5
    weight_filler {
      type: "xavier"
      std: 0.03
    }
    bias_filler {
      type: "constant"
      value: 0.2
    }
  }
}
layer {
  name: "inception_4b/relu_5x5"
  type: "ReLU"
  bottom: "inception_4b/5x5"
  top: "inception_4b/5x5"
}
layer {
  name: "inception_4b/pool"
  type: "Pooling"
  bottom: "inception_4a/output"
  top: "inception_4b/pool"
  pooling_param {
    pool: MAX
    kernel_size: 3
    stride: 1
    pad: 1
  }
}
layer {
  name: "inception_4b/pool_proj"
  type: "Convolution"
  bottom: "inception_4b/pool"
  top: "inception_4b/pool_proj"
  param {
    lr_mult: 1
    decay_mult: 1
  }
  param {
    lr_mult: 2
    decay_mult: 0
  }
  convolution_param {
    num_output: 64
    kernel_size: 1
    weight_filler {
      type: "xavier"
      std: 0.1
    }
    bias_filler {
      type: "constant"
      value: 0.2
    }
  }
}
layer {
  name: "inception_4b/relu_pool_proj"
  type: "ReLU"
  bottom: "inception_4b/pool_proj"
  top: "inception_4b/pool_proj"
}
layer {
  name: "inception_4b/output"
  type: "Concat"
  bottom: "inception_4b/1x1"
  bottom: "inception_4b/3x3"
  bottom: "inception_4b/5x5"
  bottom: "inception_4b/pool_proj"
  top: "inception_4b/output"
}
layer {
  name: "inception_4c/1x1"
  type: "Convolution"
  bottom: "inception_4b/output"
  top: "inception_4c/1x1"
  param {
    lr_mult: 1
    decay_mult: 1
  }
  param {
    lr_mult: 2
    decay_mult: 0
  }
  convolution_param {
    num_output: 128
    kernel_size: 1
    weight_filler {
      type: "xavier"
      std: 0.03
    }
    bias_filler {
      type: "constant"
      value: 0.2
    }
  }
}
layer {
  name: "inception_4c/relu_1x1"
  type: "ReLU"
  bottom: "inception_4c/1x1"
  top: "inception_4c/1x1"
}
layer {
  name: "inception_4c/3x3_reduce"
  type: "Convolution"
  bottom: "inception_4b/output"
  top: "inception_4c/3x3_reduce"
  param {
    lr_mult: 1
    decay_mult: 1
  }
  param {
    lr_mult: 2
    decay_mult: 0
  }
  convolution_param {
    num_output: 128
    kernel_size: 1
    weight_filler {
      type: "xavier"
      std: 0.09
    }
    bias_filler {
      type: "constant"
      value: 0.2
    }
  }
}
layer {
  name: "inception_4c/relu_3x3_reduce"
  type: "ReLU"
  bottom: "inception_4c/3x3_reduce"
  top: "inception_4c/3x3_reduce"
}
layer {
  name: "inception_4c/3x3"
  type: "Convolution"
  bottom: "inception_4c/3x3_reduce"
  top: "inception_4c/3x3"
  param {
    lr_mult: 1
    decay_mult: 1
  }
  param {
    lr_mult: 2
    decay_mult: 0
  }
  convolution_param {
    num_output: 256
    pad: 1
    kernel_size: 3
    weight_filler {
      type: "xavier"
      std: 0.03
    }
    bias_filler {
      type: "constant"
      value: 0.2
    }
  }
}
layer {
  name: "inception_4c/relu_3x3"
  type: "ReLU"
  bottom: "inception_4c/3x3"
  top: "inception_4c/3x3"
}
layer {
  name: "inception_4c/5x5_reduce"
  type: "Convolution"
  bottom: "inception_4b/output"
  top: "inception_4c/5x5_reduce"
  param {
    lr_mult: 1
    decay_mult: 1
  }
  param {
    lr_mult: 2
    decay_mult: 0
  }
  convolution_param {
    num_output: 24
    kernel_size: 1
    weight_filler {
      type: "xavier"
      std: 0.2
    }
    bias_filler {
      type: "constant"
      value: 0.2
    }
  }
}
layer {
  name: "inception_4c/relu_5x5_reduce"
  type: "ReLU"
  bottom: "inception_4c/5x5_reduce"
  top: "inception_4c/5x5_reduce"
}
layer {
  name: "inception_4c/5x5"
  type: "Convolution"
  bottom: "inception_4c/5x5_reduce"
  top: "inception_4c/5x5"
  param {
    lr_mult: 1
    decay_mult: 1
  }
  param {
    lr_mult: 2
    decay_mult: 0
  }
  convolution_param {
    num_output: 64
    pad: 2
    kernel_size: 5
    weight_filler {
      type: "xavier"
      std: 0.03
    }
    bias_filler {
      type: "constant"
      value: 0.2
    }
  }
}
layer {
  name: "inception_4c/relu_5x5"
  type: "ReLU"
  bottom: "inception_4c/5x5"
  top: "inception_4c/5x5"
}
layer {
  name: "inception_4c/pool"
  type: "Pooling"
  bottom: "inception_4b/output"
  top: "inception_4c/pool"
  pooling_param {
    pool: MAX
    kernel_size: 3
    stride: 1
    pad: 1
  }
}
layer {
  name: "inception_4c/pool_proj"
  type: "Convolution"
  bottom: "inception_4c/pool"
  top: "inception_4c/pool_proj"
  param {
    lr_mult: 1
    decay_mult: 1
  }
  param {
    lr_mult: 2
    decay_mult: 0
  }
  convolution_param {
    num_output: 64
    kernel_size: 1
    weight_filler {
      type: "xavier"
      std: 0.1
    }
    bias_filler {
      type: "constant"
      value: 0.2
    }
  }
}
layer {
  name: "inception_4c/relu_pool_proj"
  type: "ReLU"
  bottom: "inception_4c/pool_proj"
  top: "inception_4c/pool_proj"
}
layer {
  name: "inception_4c/output"
  type: "Concat"
  bottom: "inception_4c/1x1"
  bottom: "inception_4c/3x3"
  bottom: "inception_4c/5x5"
  bottom: "inception_4c/pool_proj"
  top: "inception_4c/output"
}
layer {
  name: "inception_4d/1x1"
  type: "Convolution"
  bottom: "inception_4c/output"
  top: "inception_4d/1x1"
  param {
    lr_mult: 1
    decay_mult: 1
  }
  param {
    lr_mult: 2
    decay_mult: 0
  }
  convolution_param {
    num_output: 112
    kernel_size: 1
    weight_filler {
      type: "xavier"
      std: 0.03
    }
    bias_filler {
      type: "constant"
      value: 0.2
    }
  }
}
layer {
  name: "inception_4d/relu_1x1"
  type: "ReLU"
  bottom: "inception_4d/1x1"
  top: "inception_4d/1x1"
}
layer {
  name: "inception_4d/3x3_reduce"
  type: "Convolution"
  bottom: "inception_4c/output"
  top: "inception_4d/3x3_reduce"
  param {
    lr_mult: 1
    decay_mult: 1
  }
  param {
    lr_mult: 2
    decay_mult: 0
  }
  convolution_param {
    num_output: 144
    kernel_size: 1
    weight_filler {
      type: "xavier"
      std: 0.09
    }
    bias_filler {
      type: "constant"
      value: 0.2
    }
  }
}
layer {
  name: "inception_4d/relu_3x3_reduce"
  type: "ReLU"
  bottom: "inception_4d/3x3_reduce"
  top: "inception_4d/3x3_reduce"
}
layer {
  name: "inception_4d/3x3"
  type: "Convolution"
  bottom: "inception_4d/3x3_reduce"
  top: "inception_4d/3x3"
  param {
    lr_mult: 1
    decay_mult: 1
  }
  param {
    lr_mult: 2
    decay_mult: 0
  }
  convolution_param {
    num_output: 288
    pad: 1
    kernel_size: 3
    weight_filler {
      type: "xavier"
      std: 0.03
    }
    bias_filler {
      type: "constant"
      value: 0.2
    }
  }
}
layer {
  name: "inception_4d/relu_3x3"
  type: "ReLU"
  bottom: "inception_4d/3x3"
  top: "inception_4d/3x3"
}
layer {
  name: "inception_4d/5x5_reduce"
  type: "Convolution"
  bottom: "inception_4c/output"
  top: "inception_4d/5x5_reduce"
  param {
    lr_mult: 1
    decay_mult: 1
  }
  param {
    lr_mult: 2
    decay_mult: 0
  }
  convolution_param {
    num_output: 32
    kernel_size: 1
    weight_filler {
      type: "xavier"
      std: 0.2
    }
    bias_filler {
      type: "constant"
      value: 0.2
    }
  }
}
layer {
  name: "inception_4d/relu_5x5_reduce"
  type: "ReLU"
  bottom: "inception_4d/5x5_reduce"
  top: "inception_4d/5x5_reduce"
}
layer {
  name: "inception_4d/5x5"
  type: "Convolution"
  bottom: "inception_4d/5x5_reduce"
  top: "inception_4d/5x5"
  param {
    lr_mult: 1
    decay_mult: 1
  }
  param {
    lr_mult: 2
    decay_mult: 0
  }
  convolution_param {
    num_output: 64
    pad: 2
    kernel_size: 5
    weight_filler {
      type: "xavier"
      std: 0.03
    }
    bias_filler {
      type: "constant"
      value: 0.2
    }
  }
}
layer {
  name: "inception_4d/relu_5x5"
  type: "ReLU"
  bottom: "inception_4d/5x5"
  top: "inception_4d/5x5"
}
layer {
  name: "inception_4d/pool"
  type: "Pooling"
  bottom: "inception_4c/output"
  top: "inception_4d/pool"
  pooling_param {
    pool: MAX
    kernel_size: 3
    stride: 1
    pad: 1
  }
}
layer {
  name: "inception_4d/pool_proj"
  type: "Convolution"
  bottom: "inception_4d/pool"
  top: "inception_4d/pool_proj"
  param {
    lr_mult: 1
    decay_mult: 1
  }
  param {
    lr_mult: 2
    decay_mult: 0
  }
  convolution_param {
    num_output: 64
    kernel_size: 1
    weight_filler {
      type: "xavier"
      std: 0.1
    }
    bias_filler {
      type: "constant"
      value: 0.2
    }
  }
}
layer {
  name: "inception_4d/relu_pool_proj"
  type: "ReLU"
  bottom: "inception_4d/pool_proj"
  top: "inception_4d/pool_proj"
}
layer {
  name: "inception_4d/output"
  type: "Concat"
  bottom: "inception_4d/1x1"
  bottom: "inception_4d/3x3"
  bottom: "inception_4d/5x5"
  bottom: "inception_4d/pool_proj"
  top: "inception_4d/output"
}
layer {
  name: "inception_4e/1x1"
  type: "Convolution"
  bottom: "inception_4d/output"
  top: "inception_4e/1x1"
  param {
    lr_mult: 1
    decay_mult: 1
  }
  param {
    lr_mult: 2
    decay_mult: 0
  }
  convolution_param {
    num_output: 256
    kernel_size: 1
    weight_filler {
      type: "xavier"
      std: 0.03
    }
    bias_filler {
      type: "constant"
      value: 0.2
    }
  }
}
layer {
  name: "inception_4e/relu_1x1"
  type: "ReLU"
  bottom: "inception_4e/1x1"
  top: "inception_4e/1x1"
}
layer {
  name: "inception_4e/3x3_reduce"
  type: "Convolution"
  bottom: "inception_4d/output"
  top: "inception_4e/3x3_reduce"
  param {
    lr_mult: 1
    decay_mult: 1
  }
  param {
    lr_mult: 2
    decay_mult: 0
  }
  convolution_param {
    num_output: 160
    kernel_size: 1
    weight_filler {
      type: "xavier"
      std: 0.09
    }
    bias_filler {
      type: "constant"
      value: 0.2
    }
  }
}
layer {
  name: "inception_4e/relu_3x3_reduce"
  type: "ReLU"
  bottom: "inception_4e/3x3_reduce"
  top: "inception_4e/3x3_reduce"
}
layer {
  name: "inception_4e/3x3"
  type: "Convolution"
  bottom: "inception_4e/3x3_reduce"
  top: "inception_4e/3x3"
  param {
    lr_mult: 1
    decay_mult: 1
  }
  param {
    lr_mult: 2
    decay_mult: 0
  }
  convolution_param {
    num_output: 320
    pad: 1
    kernel_size: 3
    weight_filler {
      type: "xavier"
      std: 0.03
    }
    bias_filler {
      type: "constant"
      value: 0.2
    }
  }
}
layer {
  name: "inception_4e/relu_3x3"
  type: "ReLU"
  bottom: "inception_4e/3x3"
  top: "inception_4e/3x3"
}
layer {
  name: "inception_4e/5x5_reduce"
  type: "Convolution"
  bottom: "inception_4d/output"
  top: "inception_4e/5x5_reduce"
  param {
    lr_mult: 1
    decay_mult: 1
  }
  param {
    lr_mult: 2
    decay_mult: 0
  }
  convolution_param {
    num_output: 32
    kernel_size: 1
    weight_filler {
      type: "xavier"
      std: 0.2
    }
    bias_filler {
      type: "constant"
      value: 0.2
    }
  }
}
layer {
  name: "inception_4e/relu_5x5_reduce"
  type: "ReLU"
  bottom: "inception_4e/5x5_reduce"
  top: "inception_4e/5x5_reduce"
}
layer {
  name: "inception_4e/5x5"
  type: "Convolution"
  bottom: "inception_4e/5x5_reduce"
  top: "inception_4e/5x5"
  param {
    lr_mult: 1
    decay_mult: 1
  }
  param {
    lr_mult: 2
    decay_mult: 0
  }
  convolution_param {
    num_output: 128
    pad: 2
    kernel_size: 5
    weight_filler {
      type: "xavier"
      std: 0.03
    }
    bias_filler {
      type: "constant"
      value: 0.2
    }
  }
}
layer {
  name: "inception_4e/relu_5x5"
  type: "ReLU"
  bottom: "inception_4e/5x5"
  top: "inception_4e/5x5"
}
layer {
  name: "inception_4e/pool"
  type: "Pooling"
  bottom: "inception_4d/output"
  top: "inception_4e/pool"
  pooling_param {
    pool: MAX
    kernel_size: 3
    stride: 1
    pad: 1
  }
}
layer {
  name: "inception_4e/pool_proj"
  type: "Convolution"
  bottom: "inception_4e/pool"
  top: "inception_4e/pool_proj"
  param {
    lr_mult: 1
    decay_mult: 1
  }
  param {
    lr_mult: 2
    decay_mult: 0
  }
  convolution_param {
    num_output: 128
    kernel_size: 1
    weight_filler {
      type: "xavier"
      std: 0.1
    }
    bias_filler {
      type: "constant"
      value: 0.2
    }
  }
}
layer {
  name: "inception_4e/relu_pool_proj"
  type: "ReLU"
  bottom: "inception_4e/pool_proj"
  top: "inception_4e/pool_proj"
}
layer {
  name: "inception_4e/output"
  type: "Concat"
  bottom: "inception_4e/1x1"
  bottom: "inception_4e/3x3"
  bottom: "inception_4e/5x5"
  bottom: "inception_4e/pool_proj"
  top: "inception_4e/output"
}
layer {
  name: "pool4/3x3_s2"
  type: "Pooling"
  bottom: "inception_4e/output"
  top: "pool4/3x3_s2"
  pooling_param {
    pool: MAX
    kernel_size: 3
    stride: 2
  }
}
layer {
  name: "inception_5a/1x1"
  type: "Convolution"
  bottom: "pool4/3x3_s2"
  top: "inception_5a/1x1"
  param {
    lr_mult: 1
    decay_mult: 1
  }
  param {
    lr_mult: 2
    decay_mult: 0
  }
  convolution_param {
    num_output: 256
    kernel_size: 1
    weight_filler {
      type: "xavier"
      std: 0.03
    }
    bias_filler {
      type: "constant"
      value: 0.2
    }
  }
}
layer {
  name: "inception_5a/relu_1x1"
  type: "ReLU"
  bottom: "inception_5a/1x1"
  top: "inception_5a/1x1"
}
layer {
  name: "inception_5a/3x3_reduce"
  type: "Convolution"
  bottom: "pool4/3x3_s2"
  top: "inception_5a/3x3_reduce"
  param {
    lr_mult: 1
    decay_mult: 1
  }
  param {
    lr_mult: 2
    decay_mult: 0
  }
  convolution_param {
    num_output: 160
    kernel_size: 1
    weight_filler {
      type: "xavier"
      std: 0.09
    }
    bias_filler {
      type: "constant"
      value: 0.2
    }
  }
}
layer {
  name: "inception_5a/relu_3x3_reduce"
  type: "ReLU"
  bottom: "inception_5a/3x3_reduce"
  top: "inception_5a/3x3_reduce"
}
layer {
  name: "inception_5a/3x3"
  type: "Convolution"
  bottom: "inception_5a/3x3_reduce"
  top: "inception_5a/3x3"
  param {
    lr_mult: 1
    decay_mult: 1
  }
  param {
    lr_mult: 2
    decay_mult: 0
  }
  convolution_param {
    num_output: 320
    pad: 1
    kernel_size: 3
    weight_filler {
      type: "xavier"
      std: 0.03
    }
    bias_filler {
      type: "constant"
      value: 0.2
    }
  }
}
layer {
  name: "inception_5a/relu_3x3"
  type: "ReLU"
  bottom: "inception_5a/3x3"
  top: "inception_5a/3x3"
}
layer {
  name: "inception_5a/5x5_reduce"
  type: "Convolution"
  bottom: "pool4/3x3_s2"
  top: "inception_5a/5x5_reduce"
  param {
    lr_mult: 1
    decay_mult: 1
  }
  param {
    lr_mult: 2
    decay_mult: 0
  }
  convolution_param {
    num_output: 32
    kernel_size: 1
    weight_filler {
      type: "xavier"
      std: 0.2
    }
    bias_filler {
      type: "constant"
      value: 0.2
    }
I0924 00:44:15.632372 26054 layer_factory.hpp:77] Creating layer data
I0924 00:44:15.632401 26054 net.cpp:91] Creating Layer data
I0924 00:44:15.632412 26054 net.cpp:399] data -> data
I0924 00:44:16.122720 26054 net.cpp:141] Setting up data
I0924 00:44:16.122797 26054 net.cpp:148] Top shape: 10 3 224 224 (1505280)
I0924 00:44:16.122805 26054 net.cpp:156] Memory required for data: 6021120
I0924 00:44:16.122828 26054 layer_factory.hpp:77] Creating layer conv1/7x7_s2
I0924 00:44:16.122874 26054 net.cpp:91] Creating Layer conv1/7x7_s2
I0924 00:44:16.122884 26054 net.cpp:425] conv1/7x7_s2 <- data
I0924 00:44:16.122900 26054 net.cpp:399] conv1/7x7_s2 -> conv1/7x7_s2
I0924 00:44:16.293473 26054 net.cpp:141] Setting up conv1/7x7_s2
I0924 00:44:16.293537 26054 net.cpp:148] Top shape: 10 64 112 112 (8028160)
I0924 00:44:16.293545 26054 net.cpp:156] Memory required for data: 38133760
I0924 00:44:16.293578 26054 layer_factory.hpp:77] Creating layer conv1/relu_7x7
I0924 00:44:16.293612 26054 net.cpp:91] Creating Layer conv1/relu_7x7
I0924 00:44:16.293620 26054 net.cpp:425] conv1/relu_7x7 <- conv1/7x7_s2
I0924 00:44:16.293628 26054 net.cpp:386] conv1/relu_7x7 -> conv1/7x7_s2 (in-place)
I0924 00:44:16.294023 26054 net.cpp:141] Setting up conv1/relu_7x7
I0924 00:44:16.294039 26054 net.cpp:148] Top shape: 10 64 112 112 (8028160)
I0924 00:44:16.294044 26054 net.cpp:156] Memory required for data: 70246400
I0924 00:44:16.294049 26054 layer_factory.hpp:77] Creating layer pool1/3x3_s2
I0924 00:44:16.294062 26054 net.cpp:91] Creating Layer pool1/3x3_s2
I0924 00:44:16.294067 26054 net.cpp:425] pool1/3x3_s2 <- conv1/7x7_s2
I0924 00:44:16.294075 26054 net.cpp:399] pool1/3x3_s2 -> pool1/3x3_s2
I0924 00:44:16.294159 26054 net.cpp:141] Setting up pool1/3x3_s2
I0924 00:44:16.294169 26054 net.cpp:148] Top shape: 10 64 56 56 (2007040)
I0924 00:44:16.294174 26054 net.cpp:156] Memory required for data: 78274560
I0924 00:44:16.294178 26054 layer_factory.hpp:77] Creating layer pool1/norm1
I0924 00:44:16.294200 26054 net.cpp:91] Creating Layer pool1/norm1
I0924 00:44:16.294206 26054 net.cpp:425] pool1/norm1 <- pool1/3x3_s2
I0924 00:44:16.294215 26054 net.cpp:399] pool1/norm1 -> pool1/norm1
I0924 00:44:16.294478 26054 net.cpp:141] Setting up pool1/norm1
I0924 00:44:16.294492 26054 net.cpp:148] Top shape: 10 64 56 56 (2007040)
I0924 00:44:16.294495 26054 net.cpp:156] Memory required for data: 86302720
I0924 00:44:16.294500 26054 layer_factory.hpp:77] Creating layer conv2/3x3_reduce
I0924 00:44:16.294524 26054 net.cpp:91] Creating Layer conv2/3x3_reduce
I0924 00:44:16.294529 26054 net.cpp:425] conv2/3x3_reduce <- pool1/norm1
I0924 00:44:16.294541 26054 net.cpp:399] conv2/3x3_reduce -> conv2/3x3_reduce
I0924 00:44:16.296723 26054 net.cpp:141] Setting up conv2/3x3_reduce
I0924 00:44:16.296748 26054 net.cpp:148] Top shape: 10 64 56 56 (2007040)
I0924 00:44:16.296754 26054 net.cpp:156] Memory required for data: 94330880
I0924 00:44:16.296772 26054 layer_factory.hpp:77] Creating layer conv2/relu_3x3_reduce
I0924 00:44:16.296783 26054 net.cpp:91] Creating Layer conv2/relu_3x3_reduce
I0924 00:44:16.296789 26054 net.cpp:425] conv2/relu_3x3_reduce <- conv2/3x3_reduce
I0924 00:44:16.296799 26054 net.cpp:386] conv2/relu_3x3_reduce -> conv2/3x3_reduce (in-place)
I0924 00:44:16.297186 26054 net.cpp:141] Setting up conv2/relu_3x3_reduce
I0924 00:44:16.297199 26054 net.cpp:148] Top shape: 10 64 56 56 (2007040)
I0924 00:44:16.297204 26054 net.cpp:156] Memory required for data: 102359040
I0924 00:44:16.297209 26054 layer_factory.hpp:77] Creating layer conv2/3x3
I0924 00:44:16.297225 26054 net.cpp:91] Creating Layer conv2/3x3
I0924 00:44:16.297230 26054 net.cpp:425] conv2/3x3 <- conv2/3x3_reduce
I0924 00:44:16.297241 26054 net.cpp:399] conv2/3x3 -> conv2/3x3
I0924 00:44:16.300206 26054 net.cpp:141] Setting up conv2/3x3
I0924 00:44:16.300225 26054 net.cpp:148] Top shape: 10 192 56 56 (6021120)
I0924 00:44:16.300230 26054 net.cpp:156] Memory required for data: 126443520
I0924 00:44:16.300246 26054 layer_factory.hpp:77] Creating layer conv2/relu_3x3
I0924 00:44:16.300256 26054 net.cpp:91] Creating Layer conv2/relu_3x3
I0924 00:44:16.300262 26054 net.cpp:425] conv2/relu_3x3 <- conv2/3x3
I0924 00:44:16.300269 26054 net.cpp:386] conv2/relu_3x3 -> conv2/3x3 (in-place)
I0924 00:44:16.300496 26054 net.cpp:141] Setting up conv2/relu_3x3
I0924 00:44:16.300510 26054 net.cpp:148] Top shape: 10 192 56 56 (6021120)
I0924 00:44:16.300515 26054 net.cpp:156] Memory required for data: 150528000
I0924 00:44:16.300520 26054 layer_factory.hpp:77] Creating layer conv2/norm2
I0924 00:44:16.300534 26054 net.cpp:91] Creating Layer conv2/norm2
I0924 00:44:16.300539 26054 net.cpp:425] conv2/norm2 <- conv2/3x3
I0924 00:44:16.300545 26054 net.cpp:399] conv2/norm2 -> conv2/norm2
I0924 00:44:16.300964 26054 net.cpp:141] Setting up conv2/norm2
I0924 00:44:16.300977 26054 net.cpp:148] Top shape: 10 192 56 56 (6021120)
I0924 00:44:16.300982 26054 net.cpp:156] Memory required for data: 174612480
I0924 00:44:16.300987 26054 layer_factory.hpp:77] Creating layer pool2/3x3_s2
I0924 00:44:16.300999 26054 net.cpp:91] Creating Layer pool2/3x3_s2
I0924 00:44:16.301004 26054 net.cpp:425] pool2/3x3_s2 <- conv2/norm2
I0924 00:44:16.301010 26054 net.cpp:399] pool2/3x3_s2 -> pool2/3x3_s2
I0924 00:44:16.301062 26054 net.cpp:141] Setting up pool2/3x3_s2
I0924 00:44:16.301071 26054 net.cpp:148] Top shape: 10 192 28 28 (1505280)
I0924 00:44:16.301075 26054 net.cpp:156] Memory required for data: 180633600
I0924 00:44:16.301080 26054 layer_factory.hpp:77] Creating layer pool2/3x3_s2_pool2/3x3_s2_0_split
I0924 00:44:16.301096 26054 net.cpp:91] Creating Layer pool2/3x3_s2_pool2/3x3_s2_0_split
I0924 00:44:16.301101 26054 net.cpp:425] pool2/3x3_s2_pool2/3x3_s2_0_split <- pool2/3x3_s2
I0924 00:44:16.301107 26054 net.cpp:399] pool2/3x3_s2_pool2/3x3_s2_0_split -> pool2/3x3_s2_pool2/3x3_s2_0_split_0
I0924 00:44:16.301126 26054 net.cpp:399] pool2/3x3_s2_pool2/3x3_s2_0_split -> pool2/3x3_s2_pool2/3x3_s2_0_split_1
I0924 00:44:16.301141 26054 net.cpp:399] pool2/3x3_s2_pool2/3x3_s2_0_split -> pool2/3x3_s2_pool2/3x3_s2_0_split_2
I0924 00:44:16.301149 26054 net.cpp:399] pool2/3x3_s2_pool2/3x3_s2_0_split -> pool2/3x3_s2_pool2/3x3_s2_0_split_3
I0924 00:44:16.301224 26054 net.cpp:141] Setting up pool2/3x3_s2_pool2/3x3_s2_0_split
I0924 00:44:16.301234 26054 net.cpp:148] Top shape: 10 192 28 28 (1505280)
I0924 00:44:16.301239 26054 net.cpp:148] Top shape: 10 192 28 28 (1505280)
I0924 00:44:16.301245 26054 net.cpp:148] Top shape: 10 192 28 28 (1505280)
I0924 00:44:16.301250 26054 net.cpp:148] Top shape: 10 192 28 28 (1505280)
I0924 00:44:16.301254 26054 net.cpp:156] Memory required for data: 204718080
I0924 00:44:16.301259 26054 layer_factory.hpp:77] Creating layer inception_3a/1x1
I0924 00:44:16.301275 26054 net.cpp:91] Creating Layer inception_3a/1x1
I0924 00:44:16.301280 26054 net.cpp:425] inception_3a/1x1 <- pool2/3x3_s2_pool2/3x3_s2_0_split_0
I0924 00:44:16.301304 26054 net.cpp:399] inception_3a/1x1 -> inception_3a/1x1
I0924 00:44:16.303182 26054 net.cpp:141] Setting up inception_3a/1x1
I0924 00:44:16.303196 26054 net.cpp:148] Top shape: 10 64 28 28 (501760)
I0924 00:44:16.303201 26054 net.cpp:156] Memory required for data: 206725120
I0924 00:44:16.303210 26054 layer_factory.hpp:77] Creating layer inception_3a/relu_1x1
I0924 00:44:16.303218 26054 net.cpp:91] Creating Layer inception_3a/relu_1x1
I0924 00:44:16.303236 26054 net.cpp:425] inception_3a/relu_1x1 <- inception_3a/1x1
I0924 00:44:16.303243 26054 net.cpp:386] inception_3a/relu_1x1 -> inception_3a/1x1 (in-place)
I0924 00:44:16.303643 26054 net.cpp:141] Setting up inception_3a/relu_1x1
I0924 00:44:16.303655 26054 net.cpp:148] Top shape: 10 64 28 28 (501760)
I0924 00:44:16.303660 26054 net.cpp:156] Memory required for data: 208732160
I0924 00:44:16.303665 26054 layer_factory.hpp:77] Creating layer inception_3a/3x3_reduce
I0924 00:44:16.303679 26054 net.cpp:91] Creating Layer inception_3a/3x3_reduce
I0924 00:44:16.303685 26054 net.cpp:425] inception_3a/3x3_reduce <- pool2/3x3_s2_pool2/3x3_s2_0_split_1
I0924 00:44:16.303695 26054 net.cpp:399] inception_3a/3x3_reduce -> inception_3a/3x3_reduce
I0924 00:44:16.305933 26054 net.cpp:141] Setting up inception_3a/3x3_reduce
I0924 00:44:16.305953 26054 net.cpp:148] Top shape: 10 96 28 28 (752640)
I0924 00:44:16.305958 26054 net.cpp:156] Memory required for data: 211742720
I0924 00:44:16.305969 26054 layer_factory.hpp:77] Creating layer inception_3a/relu_3x3_reduce
I0924 00:44:16.305979 26054 net.cpp:91] Creating Layer inception_3a/relu_3x3_reduce
I0924 00:44:16.305984 26054 net.cpp:425] inception_3a/relu_3x3_reduce <- inception_3a/3x3_reduce
I0924 00:44:16.305991 26054 net.cpp:386] inception_3a/relu_3x3_reduce -> inception_3a/3x3_reduce (in-place)
I0924 00:44:16.306215 26054 net.cpp:141] Setting up inception_3a/relu_3x3_reduce
I0924 00:44:16.306226 26054 net.cpp:148] Top shape: 10 96 28 28 (752640)
I0924 00:44:16.306231 26054 net.cpp:156] Memory required for data: 214753280
I0924 00:44:16.306234 26054 layer_factory.hpp:77] Creating layer inception_3a/3x3
I0924 00:44:16.306252 26054 net.cpp:91] Creating Layer inception_3a/3x3
I0924 00:44:16.306258 26054 net.cpp:425] inception_3a/3x3 <- inception_3a/3x3_reduce
I0924 00:44:16.306267 26054 net.cpp:399] inception_3a/3x3 -> inception_3a/3x3
I0924 00:44:16.308390 26054 net.cpp:141] Setting up inception_3a/3x3
I0924 00:44:16.308408 26054 net.cpp:148] Top shape: 10 128 28 28 (1003520)
I0924 00:44:16.308413 26054 net.cpp:156] Memory required for data: 218767360
I0924 00:44:16.308420 26054 layer_factory.hpp:77] Creating layer inception_3a/relu_3x3
I0924 00:44:16.308430 26054 net.cpp:91] Creating Layer inception_3a/relu_3x3
I0924 00:44:16.308437 26054 net.cpp:425] inception_3a/relu_3x3 <- inception_3a/3x3
I0924 00:44:16.308444 26054 net.cpp:386] inception_3a/relu_3x3 -> inception_3a/3x3 (in-place)
I0924 00:44:16.308837 26054 net.cpp:141] Setting up inception_3a/relu_3x3
I0924 00:44:16.308851 26054 net.cpp:148] Top shape: 10 128 28 28 (1003520)
I0924 00:44:16.308858 26054 net.cpp:156] Memory required for data: 222781440
I0924 00:44:16.308863 26054 layer_factory.hpp:77] Creating layer inception_3a/5x5_reduce
I0924 00:44:16.308876 26054 net.cpp:91] Creating Layer inception_3a/5x5_reduce
I0924 00:44:16.308881 26054 net.cpp:425] inception_3a/5x5_reduce <- pool2/3x3_s2_pool2/3x3_s2_0_split_2
I0924 00:44:16.308892 26054 net.cpp:399] inception_3a/5x5_reduce -> inception_3a/5x5_reduce
I0924 00:44:16.310106 26054 net.cpp:141] Setting up inception_3a/5x5_reduce
I0924 00:44:16.310122 26054 net.cpp:148] Top shape: 10 16 28 28 (125440)
I0924 00:44:16.310127 26054 net.cpp:156] Memory required for data: 223283200
I0924 00:44:16.310137 26054 layer_factory.hpp:77] Creating layer inception_3a/relu_5x5_reduce
I0924 00:44:16.310144 26054 net.cpp:91] Creating Layer inception_3a/relu_5x5_reduce
I0924 00:44:16.310149 26054 net.cpp:425] inception_3a/relu_5x5_reduce <- inception_3a/5x5_reduce
I0924 00:44:16.310158 26054 net.cpp:386] inception_3a/relu_5x5_reduce -> inception_3a/5x5_reduce (in-place)
I0924 00:44:16.310518 26054 net.cpp:141] Setting up inception_3a/relu_5x5_reduce
I0924 00:44:16.310531 26054 net.cpp:148] Top shape: 10 16 28 28 (125440)
I0924 00:44:16.310535 26054 net.cpp:156] Memory required for data: 223784960
I0924 00:44:16.310540 26054 layer_factory.hpp:77] Creating layer inception_3a/5x5
I0924 00:44:16.310554 26054 net.cpp:91] Creating Layer inception_3a/5x5
I0924 00:44:16.310559 26054 net.cpp:425] inception_3a/5x5 <- inception_3a/5x5_reduce
I0924 00:44:16.310571 26054 net.cpp:399] inception_3a/5x5 -> inception_3a/5x5
I0924 00:44:16.312362 26054 net.cpp:141] Setting up inception_3a/5x5
I0924 00:44:16.312381 26054 net.cpp:148] Top shape: 10 32 28 28 (250880)
I0924 00:44:16.312386 26054 net.cpp:156] Memory required for data: 224788480
I0924 00:44:16.312397 26054 layer_factory.hpp:77] Creating layer inception_3a/relu_5x5
I0924 00:44:16.312405 26054 net.cpp:91] Creating Layer inception_3a/relu_5x5
I0924 00:44:16.312410 26054 net.cpp:425] inception_3a/relu_5x5 <- inception_3a/5x5
I0924 00:44:16.312417 26054 net.cpp:386] inception_3a/relu_5x5 -> inception_3a/5x5 (in-place)
I0924 00:44:16.312644 26054 net.cpp:141] Setting up inception_3a/relu_5x5
I0924 00:44:16.312654 26054 net.cpp:148] Top shape: 10 32 28 28 (250880)
I0924 00:44:16.312659 26054 net.cpp:156] Memory required for data: 225792000
I0924 00:44:16.312664 26054 layer_factory.hpp:77] Creating layer inception_3a/pool
I0924 00:44:16.312671 26054 net.cpp:91] Creating Layer inception_3a/pool
I0924 00:44:16.312676 26054 net.cpp:425] inception_3a/pool <- pool2/3x3_s2_pool2/3x3_s2_0_split_3
I0924 00:44:16.312686 26054 net.cpp:399] inception_3a/pool -> inception_3a/pool
I0924 00:44:16.312738 26054 net.cpp:141] Setting up inception_3a/pool
I0924 00:44:16.312747 26054 net.cpp:148] Top shape: 10 192 28 28 (1505280)
I0924 00:44:16.312752 26054 net.cpp:156] Memory required for data: 231813120
I0924 00:44:16.312755 26054 layer_factory.hpp:77] Creating layer inception_3a/pool_proj
I0924 00:44:16.312772 26054 net.cpp:91] Creating Layer inception_3a/pool_proj
I0924 00:44:16.312777 26054 net.cpp:425] inception_3a/pool_proj <- inception_3a/pool
I0924 00:44:16.312784 26054 net.cpp:399] inception_3a/pool_proj -> inception_3a/pool_proj
I0924 00:44:16.314155 26054 net.cpp:141] Setting up inception_3a/pool_proj
I0924 00:44:16.314173 26054 net.cpp:148] Top shape: 10 32 28 28 (250880)
I0924 00:44:16.314178 26054 net.cpp:156] Memory required for data: 232816640
I0924 00:44:16.314194 26054 layer_factory.hpp:77] Creating layer inception_3a/relu_pool_proj
I0924 00:44:16.314205 26054 net.cpp:91] Creating Layer inception_3a/relu_pool_proj
I0924 00:44:16.314211 26054 net.cpp:425] inception_3a/relu_pool_proj <- inception_3a/pool_proj
I0924 00:44:16.314218 26054 net.cpp:386] inception_3a/relu_pool_proj -> inception_3a/pool_proj (in-place)
I0924 00:44:16.314625 26054 net.cpp:141] Setting up inception_3a/relu_pool_proj
I0924 00:44:16.314638 26054 net.cpp:148] Top shape: 10 32 28 28 (250880)
I0924 00:44:16.314642 26054 net.cpp:156] Memory required for data: 233820160
I0924 00:44:16.314647 26054 layer_factory.hpp:77] Creating layer inception_3a/output
I0924 00:44:16.314663 26054 net.cpp:91] Creating Layer inception_3a/output
I0924 00:44:16.314668 26054 net.cpp:425] inception_3a/output <- inception_3a/1x1
I0924 00:44:16.314674 26054 net.cpp:425] inception_3a/output <- inception_3a/3x3
I0924 00:44:16.314679 26054 net.cpp:425] inception_3a/output <- inception_3a/5x5
I0924 00:44:16.314684 26054 net.cpp:425] inception_3a/output <- inception_3a/pool_proj
I0924 00:44:16.314693 26054 net.cpp:399] inception_3a/output -> inception_3a/output
I0924 00:44:16.314733 26054 net.cpp:141] Setting up inception_3a/output
I0924 00:44:16.314740 26054 net.cpp:148] Top shape: 10 256 28 28 (2007040)
I0924 00:44:16.314744 26054 net.cpp:156] Memory required for data: 241848320
I0924 00:44:16.314749 26054 layer_factory.hpp:77] Creating layer inception_3a/output_inception_3a/output_0_split
I0924 00:44:16.314760 26054 net.cpp:91] Creating Layer inception_3a/output_inception_3a/output_0_split
I0924 00:44:16.314765 26054 net.cpp:425] inception_3a/output_inception_3a/output_0_split <- inception_3a/output
I0924 00:44:16.314772 26054 net.cpp:399] inception_3a/output_inception_3a/output_0_split -> inception_3a/output_inception_3a/output_0_split_0
I0924 00:44:16.314782 26054 net.cpp:399] inception_3a/output_inception_3a/output_0_split -> inception_3a/output_inception_3a/output_0_split_1
I0924 00:44:16.314790 26054 net.cpp:399] inception_3a/output_inception_3a/output_0_split -> inception_3a/output_inception_3a/output_0_split_2
I0924 00:44:16.314798 26054 net.cpp:399] inception_3a/output_inception_3a/output_0_split -> inception_3a/output_inception_3a/output_0_split_3
I0924 00:44:16.314872 26054 net.cpp:141] Setting up inception_3a/output_inception_3a/output_0_split
I0924 00:44:16.314882 26054 net.cpp:148] Top shape: 10 256 28 28 (2007040)
I0924 00:44:16.314888 26054 net.cpp:148] Top shape: 10 256 28 28 (2007040)
I0924 00:44:16.314905 26054 net.cpp:148] Top shape: 10 256 28 28 (2007040)
I0924 00:44:16.314910 26054 net.cpp:148] Top shape: 10 256 28 28 (2007040)
I0924 00:44:16.314914 26054 net.cpp:156] Memory required for data: 273960960
I0924 00:44:16.314918 26054 layer_factory.hpp:77] Creating layer inception_3b/1x1
I0924 00:44:16.314931 26054 net.cpp:91] Creating Layer inception_3b/1x1
I0924 00:44:16.314936 26054 net.cpp:425] inception_3b/1x1 <- inception_3a/output_inception_3a/output_0_split_0
I0924 00:44:16.314947 26054 net.cpp:399] inception_3b/1x1 -> inception_3b/1x1
I0924 00:44:16.316354 26054 net.cpp:141] Setting up inception_3b/1x1
I0924 00:44:16.316368 26054 net.cpp:148] Top shape: 10 128 28 28 (1003520)
I0924 00:44:16.316373 26054 net.cpp:156] Memory required for data: 277975040
I0924 00:44:16.316381 26054 layer_factory.hpp:77] Creating layer inception_3b/relu_1x1
I0924 00:44:16.316395 26054 net.cpp:91] Creating Layer inception_3b/relu_1x1
I0924 00:44:16.316401 26054 net.cpp:425] inception_3b/relu_1x1 <- inception_3b/1x1
I0924 00:44:16.316407 26054 net.cpp:386] inception_3b/relu_1x1 -> inception_3b/1x1 (in-place)
I0924 00:44:16.316786 26054 net.cpp:141] Setting up inception_3b/relu_1x1
I0924 00:44:16.316797 26054 net.cpp:148] Top shape: 10 128 28 28 (1003520)
I0924 00:44:16.316802 26054 net.cpp:156] Memory required for data: 281989120
I0924 00:44:16.316807 26054 layer_factory.hpp:77] Creating layer inception_3b/3x3_reduce
I0924 00:44:16.316823 26054 net.cpp:91] Creating Layer inception_3b/3x3_reduce
I0924 00:44:16.316828 26054 net.cpp:425] inception_3b/3x3_reduce <- inception_3a/output_inception_3a/output_0_split_1
I0924 00:44:16.316836 26054 net.cpp:399] inception_3b/3x3_reduce -> inception_3b/3x3_reduce
I0924 00:44:16.318383 26054 net.cpp:141] Setting up inception_3b/3x3_reduce
I0924 00:44:16.318403 26054 net.cpp:148] Top shape: 10 128 28 28 (1003520)
I0924 00:44:16.318411 26054 net.cpp:156] Memory required for data: 286003200
I0924 00:44:16.318420 26054 layer_factory.hpp:77] Creating layer inception_3b/relu_3x3_reduce
I0924 00:44:16.318433 26054 net.cpp:91] Creating Layer inception_3b/relu_3x3_reduce
I0924 00:44:16.318439 26054 net.cpp:425] inception_3b/relu_3x3_reduce <- inception_3b/3x3_reduce
I0924 00:44:16.318445 26054 net.cpp:386] inception_3b/relu_3x3_reduce -> inception_3b/3x3_reduce (in-place)
I0924 00:44:16.318677 26054 net.cpp:141] Setting up inception_3b/relu_3x3_reduce
I0924 00:44:16.318689 26054 net.cpp:148] Top shape: 10 128 28 28 (1003520)
I0924 00:44:16.318694 26054 net.cpp:156] Memory required for data: 290017280
I0924 00:44:16.318699 26054 layer_factory.hpp:77] Creating layer inception_3b/3x3
I0924 00:44:16.318714 26054 net.cpp:91] Creating Layer inception_3b/3x3
I0924 00:44:16.318720 26054 net.cpp:425] inception_3b/3x3 <- inception_3b/3x3_reduce
I0924 00:44:16.318728 26054 net.cpp:399] inception_3b/3x3 -> inception_3b/3x3
I0924 00:44:16.322374 26054 net.cpp:141] Setting up inception_3b/3x3
I0924 00:44:16.322393 26054 net.cpp:148] Top shape: 10 192 28 28 (1505280)
I0924 00:44:16.322398 26054 net.cpp:156] Memory required for data: 296038400
I0924 00:44:16.322407 26054 layer_factory.hpp:77] Creating layer inception_3b/relu_3x3
I0924 00:44:16.322420 26054 net.cpp:91] Creating Layer inception_3b/relu_3x3
I0924 00:44:16.322427 26054 net.cpp:425] inception_3b/relu_3x3 <- inception_3b/3x3
I0924 00:44:16.322437 26054 net.cpp:386] inception_3b/relu_3x3 -> inception_3b/3x3 (in-place)
I0924 00:44:16.322846 26054 net.cpp:141] Setting up inception_3b/relu_3x3
I0924 00:44:16.322860 26054 net.cpp:148] Top shape: 10 192 28 28 (1505280)
I0924 00:44:16.322865 26054 net.cpp:156] Memory required for data: 302059520
I0924 00:44:16.322870 26054 layer_factory.hpp:77] Creating layer inception_3b/5x5_reduce
I0924 00:44:16.322883 26054 net.cpp:91] Creating Layer inception_3b/5x5_reduce
I0924 00:44:16.322890 26054 net.cpp:425] inception_3b/5x5_reduce <- inception_3a/output_inception_3a/output_0_split_2
I0924 00:44:16.322898 26054 net.cpp:399] inception_3b/5x5_reduce -> inception_3b/5x5_reduce
I0924 00:44:16.324139 26054 net.cpp:141] Setting up inception_3b/5x5_reduce
I0924 00:44:16.324158 26054 net.cpp:148] Top shape: 10 32 28 28 (250880)
I0924 00:44:16.324163 26054 net.cpp:156] Memory required for data: 303063040
I0924 00:44:16.324172 26054 layer_factory.hpp:77] Creating layer inception_3b/relu_5x5_reduce
I0924 00:44:16.324183 26054 net.cpp:91] Creating Layer inception_3b/relu_5x5_reduce
I0924 00:44:16.324189 26054 net.cpp:425] inception_3b/relu_5x5_reduce <- inception_3b/5x5_reduce
I0924 00:44:16.324196 26054 net.cpp:386] inception_3b/relu_5x5_reduce -> inception_3b/5x5_reduce (in-place)
I0924 00:44:16.324555 26054 net.cpp:141] Setting up inception_3b/relu_5x5_reduce
I0924 00:44:16.324568 26054 net.cpp:148] Top shape: 10 32 28 28 (250880)
I0924 00:44:16.324573 26054 net.cpp:156] Memory required for data: 304066560
I0924 00:44:16.324578 26054 layer_factory.hpp:77] Creating layer inception_3b/5x5
I0924 00:44:16.324591 26054 net.cpp:91] Creating Layer inception_3b/5x5
I0924 00:44:16.324599 26054 net.cpp:425] inception_3b/5x5 <- inception_3b/5x5_reduce
I0924 00:44:16.324607 26054 net.cpp:399] inception_3b/5x5 -> inception_3b/5x5
I0924 00:44:16.327198 26054 net.cpp:141] Setting up inception_3b/5x5
I0924 00:44:16.327216 26054 net.cpp:148] Top shape: 10 96 28 28 (752640)
I0924 00:44:16.327222 26054 net.cpp:156] Memory required for data: 307077120
I0924 00:44:16.327230 26054 layer_factory.hpp:77] Creating layer inception_3b/relu_5x5
I0924 00:44:16.327241 26054 net.cpp:91] Creating Layer inception_3b/relu_5x5
I0924 00:44:16.327249 26054 net.cpp:425] inception_3b/relu_5x5 <- inception_3b/5x5
I0924 00:44:16.327255 26054 net.cpp:386] inception_3b/relu_5x5 -> inception_3b/5x5 (in-place)
I0924 00:44:16.327486 26054 net.cpp:141] Setting up inception_3b/relu_5x5
I0924 00:44:16.327497 26054 net.cpp:148] Top shape: 10 96 28 28 (752640)
I0924 00:44:16.327502 26054 net.cpp:156] Memory required for data: 310087680
I0924 00:44:16.327507 26054 layer_factory.hpp:77] Creating layer inception_3b/pool
I0924 00:44:16.327517 26054 net.cpp:91] Creating Layer inception_3b/pool
I0924 00:44:16.327522 26054 net.cpp:425] inception_3b/pool <- inception_3a/output_inception_3a/output_0_split_3
I0924 00:44:16.327531 26054 net.cpp:399] inception_3b/pool -> inception_3b/pool
I0924 00:44:16.327586 26054 net.cpp:141] Setting up inception_3b/pool
I0924 00:44:16.327594 26054 net.cpp:148] Top shape: 10 256 28 28 (2007040)
I0924 00:44:16.327599 26054 net.cpp:156] Memory required for data: 318115840
I0924 00:44:16.327603 26054 layer_factory.hpp:77] Creating layer inception_3b/pool_proj
I0924 00:44:16.327616 26054 net.cpp:91] Creating Layer inception_3b/pool_proj
I0924 00:44:16.327621 26054 net.cpp:425] inception_3b/pool_proj <- inception_3b/pool
I0924 00:44:16.327646 26054 net.cpp:399] inception_3b/pool_proj -> inception_3b/pool_proj
I0924 00:44:16.329114 26054 net.cpp:141] Setting up inception_3b/pool_proj
I0924 00:44:16.329131 26054 net.cpp:148] Top shape: 10 64 28 28 (501760)
I0924 00:44:16.329136 26054 net.cpp:156] Memory required for data: 320122880
I0924 00:44:16.329144 26054 layer_factory.hpp:77] Creating layer inception_3b/relu_pool_proj
I0924 00:44:16.329152 26054 net.cpp:91] Creating Layer inception_3b/relu_pool_proj
I0924 00:44:16.329157 26054 net.cpp:425] inception_3b/relu_pool_proj <- inception_3b/pool_proj
I0924 00:44:16.329167 26054 net.cpp:386] inception_3b/relu_pool_proj -> inception_3b/pool_proj (in-place)
I0924 00:44:16.329583 26054 net.cpp:141] Setting up inception_3b/relu_pool_proj
I0924 00:44:16.329596 26054 net.cpp:148] Top shape: 10 64 28 28 (501760)
I0924 00:44:16.329601 26054 net.cpp:156] Memory required for data: 322129920
I0924 00:44:16.329605 26054 layer_factory.hpp:77] Creating layer inception_3b/output
I0924 00:44:16.329612 26054 net.cpp:91] Creating Layer inception_3b/output
I0924 00:44:16.329617 26054 net.cpp:425] inception_3b/output <- inception_3b/1x1
I0924 00:44:16.329623 26054 net.cpp:425] inception_3b/output <- inception_3b/3x3
I0924 00:44:16.329628 26054 net.cpp:425] inception_3b/output <- inception_3b/5x5
I0924 00:44:16.329633 26054 net.cpp:425] inception_3b/output <- inception_3b/pool_proj
I0924 00:44:16.329643 26054 net.cpp:399] inception_3b/output -> inception_3b/output
I0924 00:44:16.329679 26054 net.cpp:141] Setting up inception_3b/output
I0924 00:44:16.329686 26054 net.cpp:148] Top shape: 10 480 28 28 (3763200)
I0924 00:44:16.329690 26054 net.cpp:156] Memory required for data: 337182720
I0924 00:44:16.329694 26054 layer_factory.hpp:77] Creating layer pool3/3x3_s2
I0924 00:44:16.329706 26054 net.cpp:91] Creating Layer pool3/3x3_s2
I0924 00:44:16.329711 26054 net.cpp:425] pool3/3x3_s2 <- inception_3b/output
I0924 00:44:16.329717 26054 net.cpp:399] pool3/3x3_s2 -> pool3/3x3_s2
I0924 00:44:16.329772 26054 net.cpp:141] Setting up pool3/3x3_s2
I0924 00:44:16.329784 26054 net.cpp:148] Top shape: 10 480 14 14 (940800)
I0924 00:44:16.329788 26054 net.cpp:156] Memory required for data: 340945920
I0924 00:44:16.329793 26054 layer_factory.hpp:77] Creating layer pool3/3x3_s2_pool3/3x3_s2_0_split
I0924 00:44:16.329800 26054 net.cpp:91] Creating Layer pool3/3x3_s2_pool3/3x3_s2_0_split
I0924 00:44:16.329805 26054 net.cpp:425] pool3/3x3_s2_pool3/3x3_s2_0_split <- pool3/3x3_s2
I0924 00:44:16.329812 26054 net.cpp:399] pool3/3x3_s2_pool3/3x3_s2_0_split -> pool3/3x3_s2_pool3/3x3_s2_0_split_0
I0924 00:44:16.329818 26054 net.cpp:399] pool3/3x3_s2_pool3/3x3_s2_0_split -> pool3/3x3_s2_pool3/3x3_s2_0_split_1
I0924 00:44:16.329829 26054 net.cpp:399] pool3/3x3_s2_pool3/3x3_s2_0_split -> pool3/3x3_s2_pool3/3x3_s2_0_split_2
I0924 00:44:16.329838 26054 net.cpp:399] pool3/3x3_s2_pool3/3x3_s2_0_split -> pool3/3x3_s2_pool3/3x3_s2_0_split_3
I0924 00:44:16.329910 26054 net.cpp:141] Setting up pool3/3x3_s2_pool3/3x3_s2_0_split
I0924 00:44:16.329918 26054 net.cpp:148] Top shape: 10 480 14 14 (940800)
I0924 00:44:16.329924 26054 net.cpp:148] Top shape: 10 480 14 14 (940800)
I0924 00:44:16.329929 26054 net.cpp:148] Top shape: 10 480 14 14 (940800)
I0924 00:44:16.329934 26054 net.cpp:148] Top shape: 10 480 14 14 (940800)
I0924 00:44:16.329938 26054 net.cpp:156] Memory required for data: 355998720
I0924 00:44:16.329942 26054 layer_factory.hpp:77] Creating layer inception_4a/1x1
I0924 00:44:16.329957 26054 net.cpp:91] Creating Layer inception_4a/1x1
I0924 00:44:16.329962 26054 net.cpp:425] inception_4a/1x1 <- pool3/3x3_s2_pool3/3x3_s2_0_split_0
I0924 00:44:16.329972 26054 net.cpp:399] inception_4a/1x1 -> inception_4a/1x1
I0924 00:44:16.332129 26054 net.cpp:141] Setting up inception_4a/1x1
I0924 00:44:16.332142 26054 net.cpp:148] Top shape: 10 192 14 14 (376320)
I0924 00:44:16.332147 26054 net.cpp:156] Memory required for data: 357504000
I0924 00:44:16.332155 26054 layer_factory.hpp:77] Creating layer inception_4a/relu_1x1
I0924 00:44:16.332166 26054 net.cpp:91] Creating Layer inception_4a/relu_1x1
I0924 00:44:16.332172 26054 net.cpp:425] inception_4a/relu_1x1 <- inception_4a/1x1
I0924 00:44:16.332180 26054 net.cpp:386] inception_4a/relu_1x1 -> inception_4a/1x1 (in-place)
I0924 00:44:16.332579 26054 net.cpp:141] Setting up inception_4a/relu_1x1
I0924 00:44:16.332592 26054 net.cpp:148] Top shape: 10 192 14 14 (376320)
I0924 00:44:16.332597 26054 net.cpp:156] Memory required for data: 359009280
I0924 00:44:16.332602 26054 layer_factory.hpp:77] Creating layer inception_4a/3x3_reduce
I0924 00:44:16.332619 26054 net.cpp:91] Creating Layer inception_4a/3x3_reduce
I0924 00:44:16.332625 26054 net.cpp:425] inception_4a/3x3_reduce <- pool3/3x3_s2_pool3/3x3_s2_0_split_1
I0924 00:44:16.332634 26054 net.cpp:399] inception_4a/3x3_reduce -> inception_4a/3x3_reduce
I0924 00:44:16.334348 26054 net.cpp:141] Setting up inception_4a/3x3_reduce
I0924 00:44:16.334362 26054 net.cpp:148] Top shape: 10 96 14 14 (188160)
I0924 00:44:16.334367 26054 net.cpp:156] Memory required for data: 359761920
I0924 00:44:16.334383 26054 layer_factory.hpp:77] Creating layer inception_4a/relu_3x3_reduce
I0924 00:44:16.334394 26054 net.cpp:91] Creating Layer inception_4a/relu_3x3_reduce
I0924 00:44:16.334400 26054 net.cpp:425] inception_4a/relu_3x3_reduce <- inception_4a/3x3_reduce
I0924 00:44:16.334408 26054 net.cpp:386] inception_4a/relu_3x3_reduce -> inception_4a/3x3_reduce (in-place)
I0924 00:44:16.334656 26054 net.cpp:141] Setting up inception_4a/relu_3x3_reduce
I0924 00:44:16.334671 26054 net.cpp:148] Top shape: 10 96 14 14 (188160)
I0924 00:44:16.334676 26054 net.cpp:156] Memory required for data: 360514560
I0924 00:44:16.334681 26054 layer_factory.hpp:77] Creating layer inception_4a/3x3
I0924 00:44:16.334698 26054 net.cpp:91] Creating Layer inception_4a/3x3
I0924 00:44:16.334704 26054 net.cpp:425] inception_4a/3x3 <- inception_4a/3x3_reduce
I0924 00:44:16.334712 26054 net.cpp:399] inception_4a/3x3 -> inception_4a/3x3
I0924 00:44:16.338127 26054 net.cpp:141] Setting up inception_4a/3x3
I0924 00:44:16.338143 26054 net.cpp:148] Top shape: 10 208 14 14 (407680)
I0924 00:44:16.338148 26054 net.cpp:156] Memory required for data: 362145280
I0924 00:44:16.338157 26054 layer_factory.hpp:77] Creating layer inception_4a/relu_3x3
I0924 00:44:16.338166 26054 net.cpp:91] Creating Layer inception_4a/relu_3x3
I0924 00:44:16.338171 26054 net.cpp:425] inception_4a/relu_3x3 <- inception_4a/3x3
I0924 00:44:16.338178 26054 net.cpp:386] inception_4a/relu_3x3 -> inception_4a/3x3 (in-place)
I0924 00:44:16.338564 26054 net.cpp:141] Setting up inception_4a/relu_3x3
I0924 00:44:16.338577 26054 net.cpp:148] Top shape: 10 208 14 14 (407680)
I0924 00:44:16.338582 26054 net.cpp:156] Memory required for data: 363776000
I0924 00:44:16.338587 26054 layer_factory.hpp:77] Creating layer inception_4a/5x5_reduce
I0924 00:44:16.338613 26054 net.cpp:91] Creating Layer inception_4a/5x5_reduce
I0924 00:44:16.338620 26054 net.cpp:425] inception_4a/5x5_reduce <- pool3/3x3_s2_pool3/3x3_s2_0_split_2
I0924 00:44:16.338631 26054 net.cpp:399] inception_4a/5x5_reduce -> inception_4a/5x5_reduce
I0924 00:44:16.339891 26054 net.cpp:141] Setting up inception_4a/5x5_reduce
I0924 00:44:16.339905 26054 net.cpp:148] Top shape: 10 16 14 14 (31360)
I0924 00:44:16.339912 26054 net.cpp:156] Memory required for data: 363901440
I0924 00:44:16.339921 26054 layer_factory.hpp:77] Creating layer inception_4a/relu_5x5_reduce
I0924 00:44:16.339929 26054 net.cpp:91] Creating Layer inception_4a/relu_5x5_reduce
I0924 00:44:16.339934 26054 net.cpp:425] inception_4a/relu_5x5_reduce <- inception_4a/5x5_reduce
I0924 00:44:16.339941 26054 net.cpp:386] inception_4a/relu_5x5_reduce -> inception_4a/5x5_reduce (in-place)
I0924 00:44:16.340328 26054 net.cpp:141] Setting up inception_4a/relu_5x5_reduce
I0924 00:44:16.340342 26054 net.cpp:148] Top shape: 10 16 14 14 (31360)
I0924 00:44:16.340349 26054 net.cpp:156] Memory required for data: 364026880
I0924 00:44:16.340354 26054 layer_factory.hpp:77] Creating layer inception_4a/5x5
I0924 00:44:16.340366 26054 net.cpp:91] Creating Layer inception_4a/5x5
I0924 00:44:16.340373 26054 net.cpp:425] inception_4a/5x5 <- inception_4a/5x5_reduce
I0924 00:44:16.340384 26054 net.cpp:399] inception_4a/5x5 -> inception_4a/5x5
I0924 00:44:16.341861 26054 net.cpp:141] Setting up inception_4a/5x5
I0924 00:44:16.341876 26054 net.cpp:148] Top shape: 10 48 14 14 (94080)
I0924 00:44:16.341881 26054 net.cpp:156] Memory required for data: 364403200
I0924 00:44:16.341889 26054 layer_factory.hpp:77] Creating layer inception_4a/relu_5x5
I0924 00:44:16.341900 26054 net.cpp:91] Creating Layer inception_4a/relu_5x5
I0924 00:44:16.341907 26054 net.cpp:425] inception_4a/relu_5x5 <- inception_4a/5x5
I0924 00:44:16.341914 26054 net.cpp:386] inception_4a/relu_5x5 -> inception_4a/5x5 (in-place)
I0924 00:44:16.342134 26054 net.cpp:141] Setting up inception_4a/relu_5x5
I0924 00:44:16.342145 26054 net.cpp:148] Top shape: 10 48 14 14 (94080)
I0924 00:44:16.342150 26054 net.cpp:156] Memory required for data: 364779520
I0924 00:44:16.342155 26054 layer_factory.hpp:77] Creating layer inception_4a/pool
I0924 00:44:16.342167 26054 net.cpp:91] Creating Layer inception_4a/pool
I0924 00:44:16.342177 26054 net.cpp:425] inception_4a/pool <- pool3/3x3_s2_pool3/3x3_s2_0_split_3
I0924 00:44:16.342192 26054 net.cpp:399] inception_4a/pool -> inception_4a/pool
I0924 00:44:16.342252 26054 net.cpp:141] Setting up inception_4a/pool
I0924 00:44:16.342262 26054 net.cpp:148] Top shape: 10 480 14 14 (940800)
I0924 00:44:16.342267 26054 net.cpp:156] Memory required for data: 368542720
I0924 00:44:16.342272 26054 layer_factory.hpp:77] Creating layer inception_4a/pool_proj
I0924 00:44:16.342288 26054 net.cpp:91] Creating Layer inception_4a/pool_proj
I0924 00:44:16.342293 26054 net.cpp:425] inception_4a/pool_proj <- inception_4a/pool
I0924 00:44:16.342301 26054 net.cpp:399] inception_4a/pool_proj -> inception_4a/pool_proj
I0924 00:44:16.343883 26054 net.cpp:141] Setting up inception_4a/pool_proj
I0924 00:44:16.343899 26054 net.cpp:148] Top shape: 10 64 14 14 (125440)
I0924 00:44:16.343904 26054 net.cpp:156] Memory required for data: 369044480
I0924 00:44:16.343914 26054 layer_factory.hpp:77] Creating layer inception_4a/relu_pool_proj
I0924 00:44:16.343921 26054 net.cpp:91] Creating Layer inception_4a/relu_pool_proj
I0924 00:44:16.343927 26054 net.cpp:425] inception_4a/relu_pool_proj <- inception_4a/pool_proj
I0924 00:44:16.343937 26054 net.cpp:386] inception_4a/relu_pool_proj -> inception_4a/pool_proj (in-place)
I0924 00:44:16.344317 26054 net.cpp:141] Setting up inception_4a/relu_pool_proj
I0924 00:44:16.344334 26054 net.cpp:148] Top shape: 10 64 14 14 (125440)
I0924 00:44:16.344342 26054 net.cpp:156] Memory required for data: 369546240
I0924 00:44:16.344348 26054 layer_factory.hpp:77] Creating layer inception_4a/output
I0924 00:44:16.344357 26054 net.cpp:91] Creating Layer inception_4a/output
I0924 00:44:16.344362 26054 net.cpp:425] inception_4a/output <- inception_4a/1x1
I0924 00:44:16.344368 26054 net.cpp:425] inception_4a/output <- inception_4a/3x3
I0924 00:44:16.344373 26054 net.cpp:425] inception_4a/output <- inception_4a/5x5
I0924 00:44:16.344379 26054 net.cpp:425] inception_4a/output <- inception_4a/pool_proj
I0924 00:44:16.344389 26054 net.cpp:399] inception_4a/output -> inception_4a/output
I0924 00:44:16.344430 26054 net.cpp:141] Setting up inception_4a/output
I0924 00:44:16.344439 26054 net.cpp:148] Top shape: 10 512 14 14 (1003520)
I0924 00:44:16.344444 26054 net.cpp:156] Memory required for data: 373560320
I0924 00:44:16.344449 26054 layer_factory.hpp:77] Creating layer inception_4a/output_inception_4a/output_0_split
I0924 00:44:16.344460 26054 net.cpp:91] Creating Layer inception_4a/output_inception_4a/output_0_split
I0924 00:44:16.344466 26054 net.cpp:425] inception_4a/output_inception_4a/output_0_split <- inception_4a/output
I0924 00:44:16.344473 26054 net.cpp:399] inception_4a/output_inception_4a/output_0_split -> inception_4a/output_inception_4a/output_0_split_0
I0924 00:44:16.344481 26054 net.cpp:399] inception_4a/output_inception_4a/output_0_split -> inception_4a/output_inception_4a/output_0_split_1
I0924 00:44:16.344492 26054 net.cpp:399] inception_4a/output_inception_4a/output_0_split -> inception_4a/output_inception_4a/output_0_split_2
I0924 00:44:16.344501 26054 net.cpp:399] inception_4a/output_inception_4a/output_0_split -> inception_4a/output_inception_4a/output_0_split_3
I0924 00:44:16.344583 26054 net.cpp:141] Setting up inception_4a/output_inception_4a/output_0_split
I0924 00:44:16.344593 26054 net.cpp:148] Top shape: 10 512 14 14 (1003520)
I0924 00:44:16.344599 26054 net.cpp:148] Top shape: 10 512 14 14 (1003520)
I0924 00:44:16.344604 26054 net.cpp:148] Top shape: 10 512 14 14 (1003520)
I0924 00:44:16.344609 26054 net.cpp:148] Top shape: 10 512 14 14 (1003520)
I0924 00:44:16.344612 26054 net.cpp:156] Memory required for data: 389616640
I0924 00:44:16.344617 26054 layer_factory.hpp:77] Creating layer inception_4b/1x1
I0924 00:44:16.344630 26054 net.cpp:91] Creating Layer inception_4b/1x1
I0924 00:44:16.344636 26054 net.cpp:425] inception_4b/1x1 <- inception_4a/output_inception_4a/output_0_split_0
I0924 00:44:16.344647 26054 net.cpp:399] inception_4b/1x1 -> inception_4b/1x1
I0924 00:44:16.346463 26054 net.cpp:141] Setting up inception_4b/1x1
I0924 00:44:16.346483 26054 net.cpp:148] Top shape: 10 160 14 14 (313600)
I0924 00:44:16.346493 26054 net.cpp:156] Memory required for data: 390871040
I0924 00:44:16.346508 26054 layer_factory.hpp:77] Creating layer inception_4b/relu_1x1
I0924 00:44:16.346515 26054 net.cpp:91] Creating Layer inception_4b/relu_1x1
I0924 00:44:16.346521 26054 net.cpp:425] inception_4b/relu_1x1 <- inception_4b/1x1
I0924 00:44:16.346530 26054 net.cpp:386] inception_4b/relu_1x1 -> inception_4b/1x1 (in-place)
I0924 00:44:16.346925 26054 net.cpp:141] Setting up inception_4b/relu_1x1
I0924 00:44:16.346940 26054 net.cpp:148] Top shape: 10 160 14 14 (313600)
I0924 00:44:16.346946 26054 net.cpp:156] Memory required for data: 392125440
I0924 00:44:16.346951 26054 layer_factory.hpp:77] Creating layer inception_4b/3x3_reduce
I0924 00:44:16.346966 26054 net.cpp:91] Creating Layer inception_4b/3x3_reduce
I0924 00:44:16.346971 26054 net.cpp:425] inception_4b/3x3_reduce <- inception_4a/output_inception_4a/output_0_split_1
I0924 00:44:16.346981 26054 net.cpp:399] inception_4b/3x3_reduce -> inception_4b/3x3_reduce
I0924 00:44:16.348801 26054 net.cpp:141] Setting up inception_4b/3x3_reduce
I0924 00:44:16.348819 26054 net.cpp:148] Top shape: 10 112 14 14 (219520)
I0924 00:44:16.348824 26054 net.cpp:156] Memory required for data: 393003520
I0924 00:44:16.348832 26054 layer_factory.hpp:77] Creating layer inception_4b/relu_3x3_reduce
I0924 00:44:16.348844 26054 net.cpp:91] Creating Layer inception_4b/relu_3x3_reduce
I0924 00:44:16.348850 26054 net.cpp:425] inception_4b/relu_3x3_reduce <- inception_4b/3x3_reduce
I0924 00:44:16.348857 26054 net.cpp:386] inception_4b/relu_3x3_reduce -> inception_4b/3x3_reduce (in-place)
I0924 00:44:16.349081 26054 net.cpp:141] Setting up inception_4b/relu_3x3_reduce
I0924 00:44:16.349093 26054 net.cpp:148] Top shape: 10 112 14 14 (219520)
I0924 00:44:16.349097 26054 net.cpp:156] Memory required for data: 393881600
I0924 00:44:16.349102 26054 layer_factory.hpp:77] Creating layer inception_4b/3x3
I0924 00:44:16.349117 26054 net.cpp:91] Creating Layer inception_4b/3x3
I0924 00:44:16.349123 26054 net.cpp:425] inception_4b/3x3 <- inception_4b/3x3_reduce
I0924 00:44:16.349134 26054 net.cpp:399] inception_4b/3x3 -> inception_4b/3x3
I0924 00:44:16.352993 26054 net.cpp:141] Setting up inception_4b/3x3
I0924 00:44:16.353011 26054 net.cpp:148] Top shape: 10 224 14 14 (439040)
I0924 00:44:16.353018 26054 net.cpp:156] Memory required for data: 395637760
I0924 00:44:16.353026 26054 layer_factory.hpp:77] Creating layer inception_4b/relu_3x3
I0924 00:44:16.353037 26054 net.cpp:91] Creating Layer inception_4b/relu_3x3
I0924 00:44:16.353044 26054 net.cpp:425] inception_4b/relu_3x3 <- inception_4b/3x3
I0924 00:44:16.353050 26054 net.cpp:386] inception_4b/relu_3x3 -> inception_4b/3x3 (in-place)
I0924 00:44:16.353449 26054 net.cpp:141] Setting up inception_4b/relu_3x3
I0924 00:44:16.353462 26054 net.cpp:148] Top shape: 10 224 14 14 (439040)
I0924 00:44:16.353467 26054 net.cpp:156] Memory required for data: 397393920
I0924 00:44:16.353472 26054 layer_factory.hpp:77] Creating layer inception_4b/5x5_reduce
I0924 00:44:16.353497 26054 net.cpp:91] Creating Layer inception_4b/5x5_reduce
I0924 00:44:16.353505 26054 net.cpp:425] inception_4b/5x5_reduce <- inception_4a/output_inception_4a/output_0_split_2
I0924 00:44:16.353514 26054 net.cpp:399] inception_4b/5x5_reduce -> inception_4b/5x5_reduce
I0924 00:44:16.354852 26054 net.cpp:141] Setting up inception_4b/5x5_reduce
I0924 00:44:16.354871 26054 net.cpp:148] Top shape: 10 24 14 14 (47040)
I0924 00:44:16.354878 26054 net.cpp:156] Memory required for data: 397582080
I0924 00:44:16.354887 26054 layer_factory.hpp:77] Creating layer inception_4b/relu_5x5_reduce
I0924 00:44:16.354898 26054 net.cpp:91] Creating Layer inception_4b/relu_5x5_reduce
I0924 00:44:16.354904 26054 net.cpp:425] inception_4b/relu_5x5_reduce <- inception_4b/5x5_reduce
I0924 00:44:16.354912 26054 net.cpp:386] inception_4b/relu_5x5_reduce -> inception_4b/5x5_reduce (in-place)
I0924 00:44:16.355306 26054 net.cpp:141] Setting up inception_4b/relu_5x5_reduce
I0924 00:44:16.355319 26054 net.cpp:148] Top shape: 10 24 14 14 (47040)
I0924 00:44:16.355324 26054 net.cpp:156] Memory required for data: 397770240
I0924 00:44:16.355329 26054 layer_factory.hpp:77] Creating layer inception_4b/5x5
I0924 00:44:16.355343 26054 net.cpp:91] Creating Layer inception_4b/5x5
I0924 00:44:16.355350 26054 net.cpp:425] inception_4b/5x5 <- inception_4b/5x5_reduce
I0924 00:44:16.355360 26054 net.cpp:399] inception_4b/5x5 -> inception_4b/5x5
I0924 00:44:16.357631 26054 net.cpp:141] Setting up inception_4b/5x5
I0924 00:44:16.357648 26054 net.cpp:148] Top shape: 10 64 14 14 (125440)
I0924 00:44:16.357653 26054 net.cpp:156] Memory required for data: 398272000
I0924 00:44:16.357661 26054 layer_factory.hpp:77] Creating layer inception_4b/relu_5x5
I0924 00:44:16.357671 26054 net.cpp:91] Creating Layer inception_4b/relu_5x5
I0924 00:44:16.357676 26054 net.cpp:425] inception_4b/relu_5x5 <- inception_4b/5x5
I0924 00:44:16.357686 26054 net.cpp:386] inception_4b/relu_5x5 -> inception_4b/5x5 (in-place)
I0924 00:44:16.357909 26054 net.cpp:141] Setting up inception_4b/relu_5x5
I0924 00:44:16.357921 26054 net.cpp:148] Top shape: 10 64 14 14 (125440)
I0924 00:44:16.357925 26054 net.cpp:156] Memory required for data: 398773760
I0924 00:44:16.357930 26054 layer_factory.hpp:77] Creating layer inception_4b/pool
I0924 00:44:16.357940 26054 net.cpp:91] Creating Layer inception_4b/pool
I0924 00:44:16.357946 26054 net.cpp:425] inception_4b/pool <- inception_4a/output_inception_4a/output_0_split_3
I0924 00:44:16.357954 26054 net.cpp:399] inception_4b/pool -> inception_4b/pool
I0924 00:44:16.358017 26054 net.cpp:141] Setting up inception_4b/pool
I0924 00:44:16.358026 26054 net.cpp:148] Top shape: 10 512 14 14 (1003520)
I0924 00:44:16.358031 26054 net.cpp:156] Memory required for data: 402787840
I0924 00:44:16.358036 26054 layer_factory.hpp:77] Creating layer inception_4b/pool_proj
I0924 00:44:16.358050 26054 net.cpp:91] Creating Layer inception_4b/pool_proj
I0924 00:44:16.358057 26054 net.cpp:425] inception_4b/pool_proj <- inception_4b/pool
I0924 00:44:16.358067 26054 net.cpp:399] inception_4b/pool_proj -> inception_4b/pool_proj
I0924 00:44:16.359705 26054 net.cpp:141] Setting up inception_4b/pool_proj
I0924 00:44:16.359724 26054 net.cpp:148] Top shape: 10 64 14 14 (125440)
I0924 00:44:16.359729 26054 net.cpp:156] Memory required for data: 403289600
I0924 00:44:16.359737 26054 layer_factory.hpp:77] Creating layer inception_4b/relu_pool_proj
I0924 00:44:16.359745 26054 net.cpp:91] Creating Layer inception_4b/relu_pool_proj
I0924 00:44:16.359751 26054 net.cpp:425] inception_4b/relu_pool_proj <- inception_4b/pool_proj
I0924 00:44:16.359761 26054 net.cpp:386] inception_4b/relu_pool_proj -> inception_4b/pool_proj (in-place)
I0924 00:44:16.360148 26054 net.cpp:141] Setting up inception_4b/relu_pool_proj
I0924 00:44:16.360162 26054 net.cpp:148] Top shape: 10 64 14 14 (125440)
I0924 00:44:16.360165 26054 net.cpp:156] Memory required for data: 403791360
I0924 00:44:16.360170 26054 layer_factory.hpp:77] Creating layer inception_4b/output
I0924 00:44:16.360178 26054 net.cpp:91] Creating Layer inception_4b/output
I0924 00:44:16.360184 26054 net.cpp:425] inception_4b/output <- inception_4b/1x1
I0924 00:44:16.360190 26054 net.cpp:425] inception_4b/output <- inception_4b/3x3
I0924 00:44:16.360195 26054 net.cpp:425] inception_4b/output <- inception_4b/5x5
I0924 00:44:16.360200 26054 net.cpp:425] inception_4b/output <- inception_4b/pool_proj
I0924 00:44:16.360210 26054 net.cpp:399] inception_4b/output -> inception_4b/output
I0924 00:44:16.360250 26054 net.cpp:141] Setting up inception_4b/output
I0924 00:44:16.360262 26054 net.cpp:148] Top shape: 10 512 14 14 (1003520)
I0924 00:44:16.360267 26054 net.cpp:156] Memory required for data: 407805440
I0924 00:44:16.360271 26054 layer_factory.hpp:77] Creating layer inception_4b/output_inception_4b/output_0_split
I0924 00:44:16.360280 26054 net.cpp:91] Creating Layer inception_4b/output_inception_4b/output_0_split
I0924 00:44:16.360283 26054 net.cpp:425] inception_4b/output_inception_4b/output_0_split <- inception_4b/output
I0924 00:44:16.360291 26054 net.cpp:399] inception_4b/output_inception_4b/output_0_split -> inception_4b/output_inception_4b/output_0_split_0
I0924 00:44:16.360299 26054 net.cpp:399] inception_4b/output_inception_4b/output_0_split -> inception_4b/output_inception_4b/output_0_split_1
I0924 00:44:16.360311 26054 net.cpp:399] inception_4b/output_inception_4b/output_0_split -> inception_4b/output_inception_4b/output_0_split_2
I0924 00:44:16.360319 26054 net.cpp:399] inception_4b/output_inception_4b/output_0_split -> inception_4b/output_inception_4b/output_0_split_3
I0924 00:44:16.360404 26054 net.cpp:141] Setting up inception_4b/output_inception_4b/output_0_split
I0924 00:44:16.360412 26054 net.cpp:148] Top shape: 10 512 14 14 (1003520)
I0924 00:44:16.360419 26054 net.cpp:148] Top shape: 10 512 14 14 (1003520)
I0924 00:44:16.360424 26054 net.cpp:148] Top shape: 10 512 14 14 (1003520)
I0924 00:44:16.360430 26054 net.cpp:148] Top shape: 10 512 14 14 (1003520)
I0924 00:44:16.360433 26054 net.cpp:156] Memory required for data: 423861760
I0924 00:44:16.360438 26054 layer_factory.hpp:77] Creating layer inception_4c/1x1
I0924 00:44:16.360453 26054 net.cpp:91] Creating Layer inception_4c/1x1
I0924 00:44:16.360460 26054 net.cpp:425] inception_4c/1x1 <- inception_4b/output_inception_4b/output_0_split_0
I0924 00:44:16.360469 26054 net.cpp:399] inception_4c/1x1 -> inception_4c/1x1
I0924 00:44:16.362164 26054 net.cpp:141] Setting up inception_4c/1x1
I0924 00:44:16.362179 26054 net.cpp:148] Top shape: 10 128 14 14 (250880)
I0924 00:44:16.362182 26054 net.cpp:156] Memory required for data: 424865280
I0924 00:44:16.362191 26054 layer_factory.hpp:77] Creating layer inception_4c/relu_1x1
I0924 00:44:16.362200 26054 net.cpp:91] Creating Layer inception_4c/relu_1x1
I0924 00:44:16.362205 26054 net.cpp:425] inception_4c/relu_1x1 <- inception_4c/1x1
I0924 00:44:16.362215 26054 net.cpp:386] inception_4c/relu_1x1 -> inception_4c/1x1 (in-place)
I0924 00:44:16.362608 26054 net.cpp:141] Setting up inception_4c/relu_1x1
I0924 00:44:16.362622 26054 net.cpp:148] Top shape: 10 128 14 14 (250880)
I0924 00:44:16.362627 26054 net.cpp:156] Memory required for data: 425868800
I0924 00:44:16.362632 26054 layer_factory.hpp:77] Creating layer inception_4c/3x3_reduce
I0924 00:44:16.362645 26054 net.cpp:91] Creating Layer inception_4c/3x3_reduce
I0924 00:44:16.362653 26054 net.cpp:425] inception_4c/3x3_reduce <- inception_4b/output_inception_4b/output_0_split_1
I0924 00:44:16.362673 26054 net.cpp:399] inception_4c/3x3_reduce -> inception_4c/3x3_reduce
I0924 00:44:16.364570 26054 net.cpp:141] Setting up inception_4c/3x3_reduce
I0924 00:44:16.364588 26054 net.cpp:148] Top shape: 10 128 14 14 (250880)
I0924 00:44:16.364594 26054 net.cpp:156] Memory required for data: 426872320
I0924 00:44:16.364603 26054 layer_factory.hpp:77] Creating layer inception_4c/relu_3x3_reduce
I0924 00:44:16.364611 26054 net.cpp:91] Creating Layer inception_4c/relu_3x3_reduce
I0924 00:44:16.364617 26054 net.cpp:425] inception_4c/relu_3x3_reduce <- inception_4c/3x3_reduce
I0924 00:44:16.364626 26054 net.cpp:386] inception_4c/relu_3x3_reduce -> inception_4c/3x3_reduce (in-place)
I0924 00:44:16.364864 26054 net.cpp:141] Setting up inception_4c/relu_3x3_reduce
I0924 00:44:16.364876 26054 net.cpp:148] Top shape: 10 128 14 14 (250880)
I0924 00:44:16.364881 26054 net.cpp:156] Memory required for data: 427875840
I0924 00:44:16.364886 26054 layer_factory.hpp:77] Creating layer inception_4c/3x3
I0924 00:44:16.364902 26054 net.cpp:91] Creating Layer inception_4c/3x3
I0924 00:44:16.364907 26054 net.cpp:425] inception_4c/3x3 <- inception_4c/3x3_reduce
I0924 00:44:16.364917 26054 net.cpp:399] inception_4c/3x3 -> inception_4c/3x3
I0924 00:44:16.369180 26054 net.cpp:141] Setting up inception_4c/3x3
I0924 00:44:16.369199 26054 net.cpp:148] Top shape: 10 256 14 14 (501760)
I0924 00:44:16.369204 26054 net.cpp:156] Memory required for data: 429882880
I0924 00:44:16.369212 26054 layer_factory.hpp:77] Creating layer inception_4c/relu_3x3
I0924 00:44:16.369225 26054 net.cpp:91] Creating Layer inception_4c/relu_3x3
I0924 00:44:16.369230 26054 net.cpp:425] inception_4c/relu_3x3 <- inception_4c/3x3
I0924 00:44:16.369240 26054 net.cpp:386] inception_4c/relu_3x3 -> inception_4c/3x3 (in-place)
I0924 00:44:16.369639 26054 net.cpp:141] Setting up inception_4c/relu_3x3
I0924 00:44:16.369652 26054 net.cpp:148] Top shape: 10 256 14 14 (501760)
I0924 00:44:16.369657 26054 net.cpp:156] Memory required for data: 431889920
I0924 00:44:16.369662 26054 layer_factory.hpp:77] Creating layer inception_4c/5x5_reduce
I0924 00:44:16.369678 26054 net.cpp:91] Creating Layer inception_4c/5x5_reduce
I0924 00:44:16.369683 26054 net.cpp:425] inception_4c/5x5_reduce <- inception_4b/output_inception_4b/output_0_split_2
I0924 00:44:16.369693 26054 net.cpp:399] inception_4c/5x5_reduce -> inception_4c/5x5_reduce
I0924 00:44:16.371055 26054 net.cpp:141] Setting up inception_4c/5x5_reduce
I0924 00:44:16.371073 26054 net.cpp:148] Top shape: 10 24 14 14 (47040)
I0924 00:44:16.371078 26054 net.cpp:156] Memory required for data: 432078080
I0924 00:44:16.371085 26054 layer_factory.hpp:77] Creating layer inception_4c/relu_5x5_reduce
I0924 00:44:16.371098 26054 net.cpp:91] Creating Layer inception_4c/relu_5x5_reduce
I0924 00:44:16.371104 26054 net.cpp:425] inception_4c/relu_5x5_reduce <- inception_4c/5x5_reduce
I0924 00:44:16.371110 26054 net.cpp:386] inception_4c/relu_5x5_reduce -> inception_4c/5x5_reduce (in-place)
I0924 00:44:16.371518 26054 net.cpp:141] Setting up inception_4c/relu_5x5_reduce
I0924 00:44:16.371531 26054 net.cpp:148] Top shape: 10 24 14 14 (47040)
I0924 00:44:16.371536 26054 net.cpp:156] Memory required for data: 432266240
I0924 00:44:16.371541 26054 layer_factory.hpp:77] Creating layer inception_4c/5x5
I0924 00:44:16.371558 26054 net.cpp:91] Creating Layer inception_4c/5x5
I0924 00:44:16.371564 26054 net.cpp:425] inception_4c/5x5 <- inception_4c/5x5_reduce
I0924 00:44:16.371573 26054 net.cpp:399] inception_4c/5x5 -> inception_4c/5x5
I0924 00:44:16.373433 26054 net.cpp:141] Setting up inception_4c/5x5
I0924 00:44:16.373453 26054 net.cpp:148] Top shape: 10 64 14 14 (125440)
I0924 00:44:16.373462 26054 net.cpp:156] Memory required for data: 432768000
I0924 00:44:16.373474 26054 layer_factory.hpp:77] Creating layer inception_4c/relu_5x5
I0924 00:44:16.373483 26054 net.cpp:91] Creating Layer inception_4c/relu_5x5
I0924 00:44:16.373489 26054 net.cpp:425] inception_4c/relu_5x5 <- inception_4c/5x5
I0924 00:44:16.373502 26054 net.cpp:386] inception_4c/relu_5x5 -> inception_4c/5x5 (in-place)
I0924 00:44:16.373730 26054 net.cpp:141] Setting up inception_4c/relu_5x5
I0924 00:44:16.373741 26054 net.cpp:148] Top shape: 10 64 14 14 (125440)
I0924 00:44:16.373746 26054 net.cpp:156] Memory required for data: 433269760
I0924 00:44:16.373751 26054 layer_factory.hpp:77] Creating layer inception_4c/pool
I0924 00:44:16.373762 26054 net.cpp:91] Creating Layer inception_4c/pool
I0924 00:44:16.373769 26054 net.cpp:425] inception_4c/pool <- inception_4b/output_inception_4b/output_0_split_3
I0924 00:44:16.373775 26054 net.cpp:399] inception_4c/pool -> inception_4c/pool
I0924 00:44:16.373843 26054 net.cpp:141] Setting up inception_4c/pool
I0924 00:44:16.373853 26054 net.cpp:148] Top shape: 10 512 14 14 (1003520)
I0924 00:44:16.373858 26054 net.cpp:156] Memory required for data: 437283840
I0924 00:44:16.373862 26054 layer_factory.hpp:77] Creating layer inception_4c/pool_proj
I0924 00:44:16.373877 26054 net.cpp:91] Creating Layer inception_4c/pool_proj
I0924 00:44:16.373883 26054 net.cpp:425] inception_4c/pool_proj <- inception_4c/pool
I0924 00:44:16.373890 26054 net.cpp:399] inception_4c/pool_proj -> inception_4c/pool_proj
I0924 00:44:16.376225 26054 net.cpp:141] Setting up inception_4c/pool_proj
I0924 00:44:16.376243 26054 net.cpp:148] Top shape: 10 64 14 14 (125440)
I0924 00:44:16.376250 26054 net.cpp:156] Memory required for data: 437785600
I0924 00:44:16.376273 26054 layer_factory.hpp:77] Creating layer inception_4c/relu_pool_proj
I0924 00:44:16.376286 26054 net.cpp:91] Creating Layer inception_4c/relu_pool_proj
I0924 00:44:16.376291 26054 net.cpp:425] inception_4c/relu_pool_proj <- inception_4c/pool_proj
I0924 00:44:16.376298 26054 net.cpp:386] inception_4c/relu_pool_proj -> inception_4c/pool_proj (in-place)
I0924 00:44:16.376713 26054 net.cpp:141] Setting up inception_4c/relu_pool_proj
I0924 00:44:16.376726 26054 net.cpp:148] Top shape: 10 64 14 14 (125440)
I0924 00:44:16.376730 26054 net.cpp:156] Memory required for data: 438287360
I0924 00:44:16.376735 26054 layer_factory.hpp:77] Creating layer inception_4c/output
I0924 00:44:16.376744 26054 net.cpp:91] Creating Layer inception_4c/output
I0924 00:44:16.376749 26054 net.cpp:425] inception_4c/output <- inception_4c/1x1
I0924 00:44:16.376754 26054 net.cpp:425] inception_4c/output <- inception_4c/3x3
I0924 00:44:16.376760 26054 net.cpp:425] inception_4c/output <- inception_4c/5x5
I0924 00:44:16.376765 26054 net.cpp:425] inception_4c/output <- inception_4c/pool_proj
I0924 00:44:16.376773 26054 net.cpp:399] inception_4c/output -> inception_4c/output
I0924 00:44:16.376813 26054 net.cpp:141] Setting up inception_4c/output
I0924 00:44:16.376821 26054 net.cpp:148] Top shape: 10 512 14 14 (1003520)
I0924 00:44:16.376827 26054 net.cpp:156] Memory required for data: 442301440
I0924 00:44:16.376830 26054 layer_factory.hpp:77] Creating layer inception_4c/output_inception_4c/output_0_split
I0924 00:44:16.376842 26054 net.cpp:91] Creating Layer inception_4c/output_inception_4c/output_0_split
I0924 00:44:16.376847 26054 net.cpp:425] inception_4c/output_inception_4c/output_0_split <- inception_4c/output
I0924 00:44:16.376853 26054 net.cpp:399] inception_4c/output_inception_4c/output_0_split -> inception_4c/output_inception_4c/output_0_split_0
I0924 00:44:16.376863 26054 net.cpp:399] inception_4c/output_inception_4c/output_0_split -> inception_4c/output_inception_4c/output_0_split_1
I0924 00:44:16.376873 26054 net.cpp:399] inception_4c/output_inception_4c/output_0_split -> inception_4c/output_inception_4c/output_0_split_2
I0924 00:44:16.376879 26054 net.cpp:399] inception_4c/output_inception_4c/output_0_split -> inception_4c/output_inception_4c/output_0_split_3
I0924 00:44:16.376965 26054 net.cpp:141] Setting up inception_4c/output_inception_4c/output_0_split
I0924 00:44:16.376973 26054 net.cpp:148] Top shape: 10 512 14 14 (1003520)
I0924 00:44:16.376979 26054 net.cpp:148] Top shape: 10 512 14 14 (1003520)
I0924 00:44:16.376984 26054 net.cpp:148] Top shape: 10 512 14 14 (1003520)
I0924 00:44:16.376989 26054 net.cpp:148] Top shape: 10 512 14 14 (1003520)
I0924 00:44:16.376992 26054 net.cpp:156] Memory required for data: 458357760
I0924 00:44:16.376997 26054 layer_factory.hpp:77] Creating layer inception_4d/1x1
I0924 00:44:16.377010 26054 net.cpp:91] Creating Layer inception_4d/1x1
I0924 00:44:16.377015 26054 net.cpp:425] inception_4d/1x1 <- inception_4c/output_inception_4c/output_0_split_0
I0924 00:44:16.377027 26054 net.cpp:399] inception_4d/1x1 -> inception_4d/1x1
I0924 00:44:16.378698 26054 net.cpp:141] Setting up inception_4d/1x1
I0924 00:44:16.378712 26054 net.cpp:148] Top shape: 10 112 14 14 (219520)
I0924 00:44:16.378717 26054 net.cpp:156] Memory required for data: 459235840
I0924 00:44:16.378726 26054 layer_factory.hpp:77] Creating layer inception_4d/relu_1x1
I0924 00:44:16.378737 26054 net.cpp:91] Creating Layer inception_4d/relu_1x1
I0924 00:44:16.378743 26054 net.cpp:425] inception_4d/relu_1x1 <- inception_4d/1x1
I0924 00:44:16.378751 26054 net.cpp:386] inception_4d/relu_1x1 -> inception_4d/1x1 (in-place)
I0924 00:44:16.379160 26054 net.cpp:141] Setting up inception_4d/relu_1x1
I0924 00:44:16.379173 26054 net.cpp:148] Top shape: 10 112 14 14 (219520)
I0924 00:44:16.379178 26054 net.cpp:156] Memory required for data: 460113920
I0924 00:44:16.379184 26054 layer_factory.hpp:77] Creating layer inception_4d/3x3_reduce
I0924 00:44:16.379199 26054 net.cpp:91] Creating Layer inception_4d/3x3_reduce
I0924 00:44:16.379205 26054 net.cpp:425] inception_4d/3x3_reduce <- inception_4c/output_inception_4c/output_0_split_1
I0924 00:44:16.379215 26054 net.cpp:399] inception_4d/3x3_reduce -> inception_4d/3x3_reduce
I0924 00:44:16.381227 26054 net.cpp:141] Setting up inception_4d/3x3_reduce
I0924 00:44:16.381244 26054 net.cpp:148] Top shape: 10 144 14 14 (282240)
I0924 00:44:16.381249 26054 net.cpp:156] Memory required for data: 461242880
I0924 00:44:16.381258 26054 layer_factory.hpp:77] Creating layer inception_4d/relu_3x3_reduce
I0924 00:44:16.381269 26054 net.cpp:91] Creating Layer inception_4d/relu_3x3_reduce
I0924 00:44:16.381276 26054 net.cpp:425] inception_4d/relu_3x3_reduce <- inception_4d/3x3_reduce
I0924 00:44:16.381285 26054 net.cpp:386] inception_4d/relu_3x3_reduce -> inception_4d/3x3_reduce (in-place)
I0924 00:44:16.381525 26054 net.cpp:141] Setting up inception_4d/relu_3x3_reduce
I0924 00:44:16.381536 26054 net.cpp:148] Top shape: 10 144 14 14 (282240)
I0924 00:44:16.381541 26054 net.cpp:156] Memory required for data: 462371840
I0924 00:44:16.381546 26054 layer_factory.hpp:77] Creating layer inception_4d/3x3
I0924 00:44:16.381559 26054 net.cpp:91] Creating Layer inception_4d/3x3
I0924 00:44:16.381566 26054 net.cpp:425] inception_4d/3x3 <- inception_4d/3x3_reduce
I0924 00:44:16.381575 26054 net.cpp:399] inception_4d/3x3 -> inception_4d/3x3
I0924 00:44:16.386658 26054 net.cpp:141] Setting up inception_4d/3x3
I0924 00:44:16.386675 26054 net.cpp:148] Top shape: 10 288 14 14 (564480)
I0924 00:44:16.386680 26054 net.cpp:156] Memory required for data: 464629760
I0924 00:44:16.386689 26054 layer_factory.hpp:77] Creating layer inception_4d/relu_3x3
I0924 00:44:16.386701 26054 net.cpp:91] Creating Layer inception_4d/relu_3x3
I0924 00:44:16.386708 26054 net.cpp:425] inception_4d/relu_3x3 <- inception_4d/3x3
I0924 00:44:16.386714 26054 net.cpp:386] inception_4d/relu_3x3 -> inception_4d/3x3 (in-place)
I0924 00:44:16.387120 26054 net.cpp:141] Setting up inception_4d/relu_3x3
I0924 00:44:16.387131 26054 net.cpp:148] Top shape: 10 288 14 14 (564480)
I0924 00:44:16.387135 26054 net.cpp:156] Memory required for data: 466887680
I0924 00:44:16.387140 26054 layer_factory.hpp:77] Creating layer inception_4d/5x5_reduce
I0924 00:44:16.387158 26054 net.cpp:91] Creating Layer inception_4d/5x5_reduce
I0924 00:44:16.387164 26054 net.cpp:425] inception_4d/5x5_reduce <- inception_4c/output_inception_4c/output_0_split_2
I0924 00:44:16.387172 26054 net.cpp:399] inception_4d/5x5_reduce -> inception_4d/5x5_reduce
I0924 00:44:16.388617 26054 net.cpp:141] Setting up inception_4d/5x5_reduce
I0924 00:44:16.388635 26054 net.cpp:148] Top shape: 10 32 14 14 (62720)
I0924 00:44:16.388640 26054 net.cpp:156] Memory required for data: 467138560
I0924 00:44:16.388649 26054 layer_factory.hpp:77] Creating layer inception_4d/relu_5x5_reduce
I0924 00:44:16.388661 26054 net.cpp:91] Creating Layer inception_4d/relu_5x5_reduce
I0924 00:44:16.388667 26054 net.cpp:425] inception_4d/relu_5x5_reduce <- inception_4d/5x5_reduce
I0924 00:44:16.388674 26054 net.cpp:386] inception_4d/relu_5x5_reduce -> inception_4d/5x5_reduce (in-place)
I0924 00:44:16.389070 26054 net.cpp:141] Setting up inception_4d/relu_5x5_reduce
I0924 00:44:16.389082 26054 net.cpp:148] Top shape: 10 32 14 14 (62720)
I0924 00:44:16.389087 26054 net.cpp:156] Memory required for data: 467389440
I0924 00:44:16.389092 26054 layer_factory.hpp:77] Creating layer inception_4d/5x5
I0924 00:44:16.389107 26054 net.cpp:91] Creating Layer inception_4d/5x5
I0924 00:44:16.389116 26054 net.cpp:425] inception_4d/5x5 <- inception_4d/5x5_reduce
I0924 00:44:16.389124 26054 net.cpp:399] inception_4d/5x5 -> inception_4d/5x5
I0924 00:44:16.390957 26054 net.cpp:141] Setting up inception_4d/5x5
I0924 00:44:16.390975 26054 net.cpp:148] Top shape: 10 64 14 14 (125440)
I0924 00:44:16.390980 26054 net.cpp:156] Memory required for data: 467891200
I0924 00:44:16.390988 26054 layer_factory.hpp:77] Creating layer inception_4d/relu_5x5
I0924 00:44:16.390996 26054 net.cpp:91] Creating Layer inception_4d/relu_5x5
I0924 00:44:16.391002 26054 net.cpp:425] inception_4d/relu_5x5 <- inception_4d/5x5
I0924 00:44:16.391012 26054 net.cpp:386] inception_4d/relu_5x5 -> inception_4d/5x5 (in-place)
I0924 00:44:16.391252 26054 net.cpp:141] Setting up inception_4d/relu_5x5
I0924 00:44:16.391263 26054 net.cpp:148] Top shape: 10 64 14 14 (125440)
I0924 00:44:16.391268 26054 net.cpp:156] Memory required for data: 468392960
I0924 00:44:16.391273 26054 layer_factory.hpp:77] Creating layer inception_4d/pool
I0924 00:44:16.391281 26054 net.cpp:91] Creating Layer inception_4d/pool
I0924 00:44:16.391286 26054 net.cpp:425] inception_4d/pool <- inception_4c/output_inception_4c/output_0_split_3
I0924 00:44:16.391294 26054 net.cpp:399] inception_4d/pool -> inception_4d/pool
I0924 00:44:16.391358 26054 net.cpp:141] Setting up inception_4d/pool
I0924 00:44:16.391367 26054 net.cpp:148] Top shape: 10 512 14 14 (1003520)
I0924 00:44:16.391371 26054 net.cpp:156] Memory required for data: 472407040
I0924 00:44:16.391376 26054 layer_factory.hpp:77] Creating layer inception_4d/pool_proj
I0924 00:44:16.391389 26054 net.cpp:91] Creating Layer inception_4d/pool_proj
I0924 00:44:16.391396 26054 net.cpp:425] inception_4d/pool_proj <- inception_4d/pool
I0924 00:44:16.391405 26054 net.cpp:399] inception_4d/pool_proj -> inception_4d/pool_proj
I0924 00:44:16.393115 26054 net.cpp:141] Setting up inception_4d/pool_proj
I0924 00:44:16.393136 26054 net.cpp:148] Top shape: 10 64 14 14 (125440)
I0924 00:44:16.393141 26054 net.cpp:156] Memory required for data: 472908800
I0924 00:44:16.393149 26054 layer_factory.hpp:77] Creating layer inception_4d/relu_pool_proj
I0924 00:44:16.393157 26054 net.cpp:91] Creating Layer inception_4d/relu_pool_proj
I0924 00:44:16.393163 26054 net.cpp:425] inception_4d/relu_pool_proj <- inception_4d/pool_proj
I0924 00:44:16.393170 26054 net.cpp:386] inception_4d/relu_pool_proj -> inception_4d/pool_proj (in-place)
I0924 00:44:16.393576 26054 net.cpp:141] Setting up inception_4d/relu_pool_proj
I0924 00:44:16.393591 26054 net.cpp:148] Top shape: 10 64 14 14 (125440)
I0924 00:44:16.393596 26054 net.cpp:156] Memory required for data: 473410560
I0924 00:44:16.393601 26054 layer_factory.hpp:77] Creating layer inception_4d/output
I0924 00:44:16.393609 26054 net.cpp:91] Creating Layer inception_4d/output
I0924 00:44:16.393613 26054 net.cpp:425] inception_4d/output <- inception_4d/1x1
I0924 00:44:16.393620 26054 net.cpp:425] inception_4d/output <- inception_4d/3x3
I0924 00:44:16.393625 26054 net.cpp:425] inception_4d/output <- inception_4d/5x5
I0924 00:44:16.393630 26054 net.cpp:425] inception_4d/output <- inception_4d/pool_proj
I0924 00:44:16.393636 26054 net.cpp:399] inception_4d/output -> inception_4d/output
I0924 00:44:16.393682 26054 net.cpp:141] Setting up inception_4d/output
I0924 00:44:16.393690 26054 net.cpp:148] Top shape: 10 528 14 14 (1034880)
I0924 00:44:16.393694 26054 net.cpp:156] Memory required for data: 477550080
I0924 00:44:16.393699 26054 layer_factory.hpp:77] Creating layer inception_4d/output_inception_4d/output_0_split
I0924 00:44:16.393707 26054 net.cpp:91] Creating Layer inception_4d/output_inception_4d/output_0_split
I0924 00:44:16.393713 26054 net.cpp:425] inception_4d/output_inception_4d/output_0_split <- inception_4d/output
I0924 00:44:16.393720 26054 net.cpp:399] inception_4d/output_inception_4d/output_0_split -> inception_4d/output_inception_4d/output_0_split_0
I0924 00:44:16.393728 26054 net.cpp:399] inception_4d/output_inception_4d/output_0_split -> inception_4d/output_inception_4d/output_0_split_1
I0924 00:44:16.393736 26054 net.cpp:399] inception_4d/output_inception_4d/output_0_split -> inception_4d/output_inception_4d/output_0_split_2
I0924 00:44:16.393743 26054 net.cpp:399] inception_4d/output_inception_4d/output_0_split -> inception_4d/output_inception_4d/output_0_split_3
I0924 00:44:16.393836 26054 net.cpp:141] Setting up inception_4d/output_inception_4d/output_0_split
I0924 00:44:16.393846 26054 net.cpp:148] Top shape: 10 528 14 14 (1034880)
I0924 00:44:16.393851 26054 net.cpp:148] Top shape: 10 528 14 14 (1034880)
I0924 00:44:16.393857 26054 net.cpp:148] Top shape: 10 528 14 14 (1034880)
I0924 00:44:16.393862 26054 net.cpp:148] Top shape: 10 528 14 14 (1034880)
I0924 00:44:16.393865 26054 net.cpp:156] Memory required for data: 494108160
I0924 00:44:16.393869 26054 layer_factory.hpp:77] Creating layer inception_4e/1x1
I0924 00:44:16.393898 26054 net.cpp:91] Creating Layer inception_4e/1x1
I0924 00:44:16.393903 26054 net.cpp:425] inception_4e/1x1 <- inception_4d/output_inception_4d/output_0_split_0
I0924 00:44:16.393914 26054 net.cpp:399] inception_4e/1x1 -> inception_4e/1x1
I0924 00:44:16.397053 26054 net.cpp:141] Setting up inception_4e/1x1
I0924 00:44:16.397069 26054 net.cpp:148] Top shape: 10 256 14 14 (501760)
I0924 00:44:16.397074 26054 net.cpp:156] Memory required for data: 496115200
I0924 00:44:16.397083 26054 layer_factory.hpp:77] Creating layer inception_4e/relu_1x1
I0924 00:44:16.397094 26054 net.cpp:91] Creating Layer inception_4e/relu_1x1
I0924 00:44:16.397099 26054 net.cpp:425] inception_4e/relu_1x1 <- inception_4e/1x1
I0924 00:44:16.397106 26054 net.cpp:386] inception_4e/relu_1x1 -> inception_4e/1x1 (in-place)
I0924 00:44:16.397538 26054 net.cpp:141] Setting up inception_4e/relu_1x1
I0924 00:44:16.397550 26054 net.cpp:148] Top shape: 10 256 14 14 (501760)
I0924 00:44:16.397555 26054 net.cpp:156] Memory required for data: 498122240
I0924 00:44:16.397560 26054 layer_factory.hpp:77] Creating layer inception_4e/3x3_reduce
I0924 00:44:16.397577 26054 net.cpp:91] Creating Layer inception_4e/3x3_reduce
I0924 00:44:16.397583 26054 net.cpp:425] inception_4e/3x3_reduce <- inception_4d/output_inception_4d/output_0_split_1
I0924 00:44:16.397590 26054 net.cpp:399] inception_4e/3x3_reduce -> inception_4e/3x3_reduce
I0924 00:44:16.399716 26054 net.cpp:141] Setting up inception_4e/3x3_reduce
I0924 00:44:16.399732 26054 net.cpp:148] Top shape: 10 160 14 14 (313600)
I0924 00:44:16.399737 26054 net.cpp:156] Memory required for data: 499376640
I0924 00:44:16.399746 26054 layer_factory.hpp:77] Creating layer inception_4e/relu_3x3_reduce
I0924 00:44:16.399757 26054 net.cpp:91] Creating Layer inception_4e/relu_3x3_reduce
I0924 00:44:16.399763 26054 net.cpp:425] inception_4e/relu_3x3_reduce <- inception_4e/3x3_reduce
I0924 00:44:16.399770 26054 net.cpp:386] inception_4e/relu_3x3_reduce -> inception_4e/3x3_reduce (in-place)
I0924 00:44:16.399996 26054 net.cpp:141] Setting up inception_4e/relu_3x3_reduce
I0924 00:44:16.400010 26054 net.cpp:148] Top shape: 10 160 14 14 (313600)
I0924 00:44:16.400015 26054 net.cpp:156] Memory required for data: 500631040
I0924 00:44:16.400019 26054 layer_factory.hpp:77] Creating layer inception_4e/3x3
I0924 00:44:16.400034 26054 net.cpp:91] Creating Layer inception_4e/3x3
I0924 00:44:16.400039 26054 net.cpp:425] inception_4e/3x3 <- inception_4e/3x3_reduce
I0924 00:44:16.400048 26054 net.cpp:399] inception_4e/3x3 -> inception_4e/3x3
I0924 00:44:16.406491 26054 net.cpp:141] Setting up inception_4e/3x3
I0924 00:44:16.406525 26054 net.cpp:148] Top shape: 10 320 14 14 (627200)
I0924 00:44:16.406532 26054 net.cpp:156] Memory required for data: 503139840
I0924 00:44:16.406543 26054 layer_factory.hpp:77] Creating layer inception_4e/relu_3x3
I0924 00:44:16.406560 26054 net.cpp:91] Creating Layer inception_4e/relu_3x3
I0924 00:44:16.406569 26054 net.cpp:425] inception_4e/relu_3x3 <- inception_4e/3x3
I0924 00:44:16.406577 26054 net.cpp:386] inception_4e/relu_3x3 -> inception_4e/3x3 (in-place)
I0924 00:44:16.407009 26054 net.cpp:141] Setting up inception_4e/relu_3x3
I0924 00:44:16.407026 26054 net.cpp:148] Top shape: 10 320 14 14 (627200)
I0924 00:44:16.407030 26054 net.cpp:156] Memory required for data: 505648640
I0924 00:44:16.407035 26054 layer_factory.hpp:77] Creating layer inception_4e/5x5_reduce
I0924 00:44:16.407053 26054 net.cpp:91] Creating Layer inception_4e/5x5_reduce
I0924 00:44:16.407059 26054 net.cpp:425] inception_4e/5x5_reduce <- inception_4d/output_inception_4d/output_0_split_2
I0924 00:44:16.407068 26054 net.cpp:399] inception_4e/5x5_reduce -> inception_4e/5x5_reduce
I0924 00:44:16.408500 26054 net.cpp:141] Setting up inception_4e/5x5_reduce
I0924 00:44:16.408517 26054 net.cpp:148] Top shape: 10 32 14 14 (62720)
I0924 00:44:16.408522 26054 net.cpp:156] Memory required for data: 505899520
I0924 00:44:16.408531 26054 layer_factory.hpp:77] Creating layer inception_4e/relu_5x5_reduce
I0924 00:44:16.408543 26054 net.cpp:91] Creating Layer inception_4e/relu_5x5_reduce
I0924 00:44:16.408550 26054 net.cpp:425] inception_4e/relu_5x5_reduce <- inception_4e/5x5_reduce
I0924 00:44:16.408557 26054 net.cpp:386] inception_4e/relu_5x5_reduce -> inception_4e/5x5_reduce (in-place)
I0924 00:44:16.408960 26054 net.cpp:141] Setting up inception_4e/relu_5x5_reduce
I0924 00:44:16.408973 26054 net.cpp:148] Top shape: 10 32 14 14 (62720)
I0924 00:44:16.408978 26054 net.cpp:156] Memory required for data: 506150400
I0924 00:44:16.408983 26054 layer_factory.hpp:77] Creating layer inception_4e/5x5
I0924 00:44:16.409003 26054 net.cpp:91] Creating Layer inception_4e/5x5
I0924 00:44:16.409008 26054 net.cpp:425] inception_4e/5x5 <- inception_4e/5x5_reduce
I0924 00:44:16.409018 26054 net.cpp:399] inception_4e/5x5 -> inception_4e/5x5
I0924 00:44:16.411849 26054 net.cpp:141] Setting up inception_4e/5x5
I0924 00:44:16.411866 26054 net.cpp:148] Top shape: 10 128 14 14 (250880)
I0924 00:44:16.411871 26054 net.cpp:156] Memory required for data: 507153920
I0924 00:44:16.411880 26054 layer_factory.hpp:77] Creating layer inception_4e/relu_5x5
I0924 00:44:16.411891 26054 net.cpp:91] Creating Layer inception_4e/relu_5x5
I0924 00:44:16.411898 26054 net.cpp:425] inception_4e/relu_5x5 <- inception_4e/5x5
I0924 00:44:16.411906 26054 net.cpp:386] inception_4e/relu_5x5 -> inception_4e/5x5 (in-place)
I0924 00:44:16.412142 26054 net.cpp:141] Setting up inception_4e/relu_5x5
I0924 00:44:16.412153 26054 net.cpp:148] Top shape: 10 128 14 14 (250880)
I0924 00:44:16.412158 26054 net.cpp:156] Memory required for data: 508157440
I0924 00:44:16.412163 26054 layer_factory.hpp:77] Creating layer inception_4e/pool
I0924 00:44:16.412173 26054 net.cpp:91] Creating Layer inception_4e/pool
I0924 00:44:16.412179 26054 net.cpp:425] inception_4e/pool <- inception_4d/output_inception_4d/output_0_split_3
I0924 00:44:16.412186 26054 net.cpp:399] inception_4e/pool -> inception_4e/pool
I0924 00:44:16.412259 26054 net.cpp:141] Setting up inception_4e/pool
I0924 00:44:16.412269 26054 net.cpp:148] Top shape: 10 528 14 14 (1034880)
I0924 00:44:16.412273 26054 net.cpp:156] Memory required for data: 512296960
I0924 00:44:16.412278 26054 layer_factory.hpp:77] Creating layer inception_4e/pool_proj
I0924 00:44:16.412292 26054 net.cpp:91] Creating Layer inception_4e/pool_proj
I0924 00:44:16.412300 26054 net.cpp:425] inception_4e/pool_proj <- inception_4e/pool
I0924 00:44:16.412308 26054 net.cpp:399] inception_4e/pool_proj -> inception_4e/pool_proj
I0924 00:44:16.414238 26054 net.cpp:141] Setting up inception_4e/pool_proj
I0924 00:44:16.414255 26054 net.cpp:148] Top shape: 10 128 14 14 (250880)
I0924 00:44:16.414260 26054 net.cpp:156] Memory required for data: 513300480
I0924 00:44:16.414269 26054 layer_factory.hpp:77] Creating layer inception_4e/relu_pool_proj
I0924 00:44:16.414280 26054 net.cpp:91] Creating Layer inception_4e/relu_pool_proj
I0924 00:44:16.414288 26054 net.cpp:425] inception_4e/relu_pool_proj <- inception_4e/pool_proj
I0924 00:44:16.414294 26054 net.cpp:386] inception_4e/relu_pool_proj -> inception_4e/pool_proj (in-place)
I0924 00:44:16.414713 26054 net.cpp:141] Setting up inception_4e/relu_pool_proj
I0924 00:44:16.414726 26054 net.cpp:148] Top shape: 10 128 14 14 (250880)
I0924 00:44:16.414731 26054 net.cpp:156] Memory required for data: 514304000
I0924 00:44:16.414736 26054 layer_factory.hpp:77] Creating layer inception_4e/output
I0924 00:44:16.414748 26054 net.cpp:91] Creating Layer inception_4e/output
I0924 00:44:16.414754 26054 net.cpp:425] inception_4e/output <- inception_4e/1x1
I0924 00:44:16.414760 26054 net.cpp:425] inception_4e/output <- inception_4e/3x3
I0924 00:44:16.414767 26054 net.cpp:425] inception_4e/output <- inception_4e/5x5
I0924 00:44:16.414772 26054 net.cpp:425] inception_4e/output <- inception_4e/pool_proj
I0924 00:44:16.414778 26054 net.cpp:399] inception_4e/output -> inception_4e/output
I0924 00:44:16.414827 26054 net.cpp:141] Setting up inception_4e/output
I0924 00:44:16.414836 26054 net.cpp:148] Top shape: 10 832 14 14 (1630720)
I0924 00:44:16.414840 26054 net.cpp:156] Memory required for data: 520826880
I0924 00:44:16.414845 26054 layer_factory.hpp:77] Creating layer pool4/3x3_s2
I0924 00:44:16.414854 26054 net.cpp:91] Creating Layer pool4/3x3_s2
I0924 00:44:16.414858 26054 net.cpp:425] pool4/3x3_s2 <- inception_4e/output
I0924 00:44:16.414868 26054 net.cpp:399] pool4/3x3_s2 -> pool4/3x3_s2
I0924 00:44:16.414930 26054 net.cpp:141] Setting up pool4/3x3_s2
I0924 00:44:16.414939 26054 net.cpp:148] Top shape: 10 832 7 7 (407680)
I0924 00:44:16.414944 26054 net.cpp:156] Memory required for data: 522457600
I0924 00:44:16.414948 26054 layer_factory.hpp:77] Creating layer pool4/3x3_s2_pool4/3x3_s2_0_split
I0924 00:44:16.414963 26054 net.cpp:91] Creating Layer pool4/3x3_s2_pool4/3x3_s2_0_split
I0924 00:44:16.414968 26054 net.cpp:425] pool4/3x3_s2_pool4/3x3_s2_0_split <- pool4/3x3_s2
I0924 00:44:16.414974 26054 net.cpp:399] pool4/3x3_s2_pool4/3x3_s2_0_split -> pool4/3x3_s2_pool4/3x3_s2_0_split_0
I0924 00:44:16.414984 26054 net.cpp:399] pool4/3x3_s2_pool4/3x3_s2_0_split -> pool4/3x3_s2_pool4/3x3_s2_0_split_1
I0924 00:44:16.414993 26054 net.cpp:399] pool4/3x3_s2_pool4/3x3_s2_0_split -> pool4/3x3_s2_pool4/3x3_s2_0_split_2
I0924 00:44:16.415000 26054 net.cpp:399] pool4/3x3_s2_pool4/3x3_s2_0_split -> pool4/3x3_s2_pool4/3x3_s2_0_split_3
I0924 00:44:16.415093 26054 net.cpp:141] Setting up pool4/3x3_s2_pool4/3x3_s2_0_split
I0924 00:44:16.415102 26054 net.cpp:148] Top shape: 10 832 7 7 (407680)
I0924 00:44:16.415108 26054 net.cpp:148] Top shape: 10 832 7 7 (407680)
I0924 00:44:16.415113 26054 net.cpp:148] Top shape: 10 832 7 7 (407680)
I0924 00:44:16.415118 26054 net.cpp:148] Top shape: 10 832 7 7 (407680)
I0924 00:44:16.415122 26054 net.cpp:156] Memory required for data: 528980480
I0924 00:44:16.415128 26054 layer_factory.hpp:77] Creating layer inception_5a/1x1
I0924 00:44:16.415143 26054 net.cpp:91] Creating Layer inception_5a/1x1
I0924 00:44:16.415149 26054 net.cpp:425] inception_5a/1x1 <- pool4/3x3_s2_pool4/3x3_s2_0_split_0
I0924 00:44:16.415160 26054 net.cpp:399] inception_5a/1x1 -> inception_5a/1x1
I0924 00:44:16.418648 26054 net.cpp:141] Setting up inception_5a/1x1
I0924 00:44:16.418666 26054 net.cpp:148] Top shape: 10 256 7 7 (125440)
I0924 00:44:16.418673 26054 net.cpp:156] Memory required for data: 529482240
I0924 00:44:16.418681 26054 layer_factory.hpp:77] Creating layer inception_5a/relu_1x1
I0924 00:44:16.418689 26054 net.cpp:91] Creating Layer inception_5a/relu_1x1
I0924 00:44:16.418695 26054 net.cpp:425] inception_5a/relu_1x1 <- inception_5a/1x1
I0924 00:44:16.418702 26054 net.cpp:386] inception_5a/relu_1x1 -> inception_5a/1x1 (in-place)
I0924 00:44:16.419107 26054 net.cpp:141] Setting up inception_5a/relu_1x1
I0924 00:44:16.419123 26054 net.cpp:148] Top shape: 10 256 7 7 (125440)
I0924 00:44:16.419128 26054 net.cpp:156] Memory required for data: 529984000
I0924 00:44:16.419133 26054 layer_factory.hpp:77] Creating layer inception_5a/3x3_reduce
I0924 00:44:16.419147 26054 net.cpp:91] Creating Layer inception_5a/3x3_reduce
I0924 00:44:16.419152 26054 net.cpp:425] inception_5a/3x3_reduce <- pool4/3x3_s2_pool4/3x3_s2_0_split_1
I0924 00:44:16.419163 26054 net.cpp:399] inception_5a/3x3_reduce -> inception_5a/3x3_reduce
I0924 00:44:16.422250 26054 net.cpp:141] Setting up inception_5a/3x3_reduce
I0924 00:44:16.422267 26054 net.cpp:148] Top shape: 10 160 7 7 (78400)
I0924 00:44:16.422272 26054 net.cpp:156] Memory required for data: 530297600
I0924 00:44:16.422281 26054 layer_factory.hpp:77] Creating layer inception_5a/relu_3x3_reduce
I0924 00:44:16.422293 26054 net.cpp:91] Creating Layer inception_5a/relu_3x3_reduce
I0924 00:44:16.422299 26054 net.cpp:425] inception_5a/relu_3x3_reduce <- inception_5a/3x3_reduce
I0924 00:44:16.422307 26054 net.cpp:386] inception_5a/relu_3x3_reduce -> inception_5a/3x3_reduce (in-place)
I0924 00:44:16.422544 26054 net.cpp:141] Setting up inception_5a/relu_3x3_reduce
I0924 00:44:16.422564 26054 net.cpp:148] Top shape: 10 160 7 7 (78400)
I0924 00:44:16.422569 26054 net.cpp:156] Memory required for data: 530611200
I0924 00:44:16.422574 26054 layer_factory.hpp:77] Creating layer inception_5a/3x3
I0924 00:44:16.422588 26054 net.cpp:91] Creating Layer inception_5a/3x3
I0924 00:44:16.422600 26054 net.cpp:425] inception_5a/3x3 <- inception_5a/3x3_reduce
I0924 00:44:16.422610 26054 net.cpp:399] inception_5a/3x3 -> inception_5a/3x3
I0924 00:44:16.428782 26054 net.cpp:141] Setting up inception_5a/3x3
I0924 00:44:16.428800 26054 net.cpp:148] Top shape: 10 320 7 7 (156800)
I0924 00:44:16.428807 26054 net.cpp:156] Memory required for data: 531238400
I0924 00:44:16.428815 26054 layer_factory.hpp:77] Creating layer inception_5a/relu_3x3
I0924 00:44:16.428828 26054 net.cpp:91] Creating Layer inception_5a/relu_3x3
I0924 00:44:16.428833 26054 net.cpp:425] inception_5a/relu_3x3 <- inception_5a/3x3
I0924 00:44:16.428841 26054 net.cpp:386] inception_5a/relu_3x3 -> inception_5a/3x3 (in-place)
I0924 00:44:16.429265 26054 net.cpp:141] Setting up inception_5a/relu_3x3
I0924 00:44:16.429277 26054 net.cpp:148] Top shape: 10 320 7 7 (156800)
I0924 00:44:16.429282 26054 net.cpp:156] Memory required for data: 531865600
I0924 00:44:16.429287 26054 layer_factory.hpp:77] Creating layer inception_5a/5x5_reduce
I0924 00:44:16.429303 26054 net.cpp:91] Creating Layer inception_5a/5x5_reduce
I0924 00:44:16.429311 26054 net.cpp:425] inception_5a/5x5_reduce <- pool4/3x3_s2_pool4/3x3_s2_0_split_2
I0924 00:44:16.429321 26054 net.cpp:399] inception_5a/5x5_reduce -> inception_5a/5x5_reduce
I0924 00:44:16.430867 26054 net.cpp:141] Setting up inception_5a/5x5_reduce
I0924 00:44:16.430887 26054 net.cpp:148] Top shape: 10 32 7 7 (15680)
I0924 00:44:16.430892 26054 net.cpp:156] Memory required for data: 531928320
I0924 00:44:16.430902 26054 layer_factory.hpp:77] Creating layer inception_5a/relu_5x5_reduce
I0924 00:44:16.430908 26054 net.cpp:91] Creating Layer inception_5a/relu_5x5_reduce
I0924 00:44:16.430915 26054 net.cpp:425] inception_5a/relu_5x5_reduce <- inception_5a/5x5_reduce
I0924 00:44:16.430922 26054 net.cpp:386] inception_5a/relu_5x5_reduce -> inception_5a/5x5_reduce (in-place)
I0924 00:44:16.431329 26054 net.cpp:141] Setting up inception_5a/relu_5x5_reduce
I0924 00:44:16.431344 26054 net.cpp:148] Top shape: 10 32 7 7 (15680)
I0924 00:44:16.431349 26054 net.cpp:156] Memory required for data: 531991040
I0924 00:44:16.431354 26054 layer_factory.hpp:77] Creating layer inception_5a/5x5
I0924 00:44:16.431368 26054 net.cpp:91] Creating Layer inception_5a/5x5
I0924 00:44:16.431375 26054 net.cpp:425] inception_5a/5x5 <- inception_5a/5x5_reduce
I0924 00:44:16.431383 26054 net.cpp:399] inception_5a/5x5 -> inception_5a/5x5
I0924 00:44:16.433601 26054 net.cpp:141] Setting up inception_5a/5x5
I0924 00:44:16.433619 26054 net.cpp:148] Top shape: 10 128 7 7 (62720)
I0924 00:44:16.433624 26054 net.cpp:156] Memory required for data: 532241920
I0924 00:44:16.433632 26054 layer_factory.hpp:77] Creating layer inception_5a/relu_5x5
I0924 00:44:16.433665 26054 net.cpp:91] Creating Layer inception_5a/relu_5x5
I0924 00:44:16.433671 26054 net.cpp:425] inception_5a/relu_5x5 <- inception_5a/5x5
I0924 00:44:16.433678 26054 net.cpp:386] inception_5a/relu_5x5 -> inception_5a/5x5 (in-place)
I0924 00:44:16.433917 26054 net.cpp:141] Setting up inception_5a/relu_5x5
I0924 00:44:16.433929 26054 net.cpp:148] Top shape: 10 128 7 7 (62720)
I0924 00:44:16.433933 26054 net.cpp:156] Memory required for data: 532492800
I0924 00:44:16.433939 26054 layer_factory.hpp:77] Creating layer inception_5a/pool
I0924 00:44:16.433948 26054 net.cpp:91] Creating Layer inception_5a/pool
I0924 00:44:16.433954 26054 net.cpp:425] inception_5a/pool <- pool4/3x3_s2_pool4/3x3_s2_0_split_3
I0924 00:44:16.433964 26054 net.cpp:399] inception_5a/pool -> inception_5a/pool
I0924 00:44:16.434036 26054 net.cpp:141] Setting up inception_5a/pool
I0924 00:44:16.434046 26054 net.cpp:148] Top shape: 10 832 7 7 (407680)
I0924 00:44:16.434049 26054 net.cpp:156] Memory required for data: 534123520
I0924 00:44:16.434053 26054 layer_factory.hpp:77] Creating layer inception_5a/pool_proj
I0924 00:44:16.434070 26054 net.cpp:91] Creating Layer inception_5a/pool_proj
I0924 00:44:16.434077 26054 net.cpp:425] inception_5a/pool_proj <- inception_5a/pool
I0924 00:44:16.434084 26054 net.cpp:399] inception_5a/pool_proj -> inception_5a/pool_proj
I0924 00:44:16.436992 26054 net.cpp:141] Setting up inception_5a/pool_proj
I0924 00:44:16.437010 26054 net.cpp:148] Top shape: 10 128 7 7 (62720)
I0924 00:44:16.437016 26054 net.cpp:156] Memory required for data: 534374400
I0924 00:44:16.437023 26054 layer_factory.hpp:77] Creating layer inception_5a/relu_pool_proj
I0924 00:44:16.437034 26054 net.cpp:91] Creating Layer inception_5a/relu_pool_proj
I0924 00:44:16.437041 26054 net.cpp:425] inception_5a/relu_pool_proj <- inception_5a/pool_proj
I0924 00:44:16.437047 26054 net.cpp:386] inception_5a/relu_pool_proj -> inception_5a/pool_proj (in-place)
I0924 00:44:16.437459 26054 net.cpp:141] Setting up inception_5a/relu_pool_proj
I0924 00:44:16.437472 26054 net.cpp:148] Top shape: 10 128 7 7 (62720)
I0924 00:44:16.437477 26054 net.cpp:156] Memory required for data: 534625280
I0924 00:44:16.437482 26054 layer_factory.hpp:77] Creating layer inception_5a/output
I0924 00:44:16.437494 26054 net.cpp:91] Creating Layer inception_5a/output
I0924 00:44:16.437500 26054 net.cpp:425] inception_5a/output <- inception_5a/1x1
I0924 00:44:16.437506 26054 net.cpp:425] inception_5a/output <- inception_5a/3x3
I0924 00:44:16.437511 26054 net.cpp:425] inception_5a/output <- inception_5a/5x5
I0924 00:44:16.437516 26054 net.cpp:425] inception_5a/output <- inception_5a/pool_proj
I0924 00:44:16.437523 26054 net.cpp:399] inception_5a/output -> inception_5a/output
I0924 00:44:16.437577 26054 net.cpp:141] Setting up inception_5a/output
I0924 00:44:16.437587 26054 net.cpp:148] Top shape: 10 832 7 7 (407680)
I0924 00:44:16.437590 26054 net.cpp:156] Memory required for data: 536256000
I0924 00:44:16.437595 26054 layer_factory.hpp:77] Creating layer inception_5a/output_inception_5a/output_0_split
I0924 00:44:16.437604 26054 net.cpp:91] Creating Layer inception_5a/output_inception_5a/output_0_split
I0924 00:44:16.437609 26054 net.cpp:425] inception_5a/output_inception_5a/output_0_split <- inception_5a/output
I0924 00:44:16.437618 26054 net.cpp:399] inception_5a/output_inception_5a/output_0_split -> inception_5a/output_inception_5a/output_0_split_0
I0924 00:44:16.437628 26054 net.cpp:399] inception_5a/output_inception_5a/output_0_split -> inception_5a/output_inception_5a/output_0_split_1
I0924 00:44:16.437635 26054 net.cpp:399] inception_5a/output_inception_5a/output_0_split -> inception_5a/output_inception_5a/output_0_split_2
I0924 00:44:16.437644 26054 net.cpp:399] inception_5a/output_inception_5a/output_0_split -> inception_5a/output_inception_5a/output_0_split_3
I0924 00:44:16.437747 26054 net.cpp:141] Setting up inception_5a/output_inception_5a/output_0_split
I0924 00:44:16.437758 26054 net.cpp:148] Top shape: 10 832 7 7 (407680)
I0924 00:44:16.437764 26054 net.cpp:148] Top shape: 10 832 7 7 (407680)
I0924 00:44:16.437769 26054 net.cpp:148] Top shape: 10 832 7 7 (407680)
I0924 00:44:16.437775 26054 net.cpp:148] Top shape: 10 832 7 7 (407680)
I0924 00:44:16.437779 26054 net.cpp:156] Memory required for data: 542778880
I0924 00:44:16.437783 26054 layer_factory.hpp:77] Creating layer inception_5b/1x1
I0924 00:44:16.437798 26054 net.cpp:91] Creating Layer inception_5b/1x1
I0924 00:44:16.437804 26054 net.cpp:425] inception_5b/1x1 <- inception_5a/output_inception_5a/output_0_split_0
I0924 00:44:16.437813 26054 net.cpp:399] inception_5b/1x1 -> inception_5b/1x1
I0924 00:44:16.442203 26054 net.cpp:141] Setting up inception_5b/1x1
I0924 00:44:16.442225 26054 net.cpp:148] Top shape: 10 384 7 7 (188160)
I0924 00:44:16.442230 26054 net.cpp:156] Memory required for data: 543531520
I0924 00:44:16.442239 26054 layer_factory.hpp:77] Creating layer inception_5b/relu_1x1
I0924 00:44:16.442247 26054 net.cpp:91] Creating Layer inception_5b/relu_1x1
I0924 00:44:16.442253 26054 net.cpp:425] inception_5b/relu_1x1 <- inception_5b/1x1
I0924 00:44:16.442260 26054 net.cpp:386] inception_5b/relu_1x1 -> inception_5b/1x1 (in-place)
I0924 00:44:16.442687 26054 net.cpp:141] Setting up inception_5b/relu_1x1
I0924 00:44:16.442701 26054 net.cpp:148] Top shape: 10 384 7 7 (188160)
I0924 00:44:16.442706 26054 net.cpp:156] Memory required for data: 544284160
I0924 00:44:16.442711 26054 layer_factory.hpp:77] Creating layer inception_5b/3x3_reduce
I0924 00:44:16.442726 26054 net.cpp:91] Creating Layer inception_5b/3x3_reduce
I0924 00:44:16.442733 26054 net.cpp:425] inception_5b/3x3_reduce <- inception_5a/output_inception_5a/output_0_split_1
I0924 00:44:16.442741 26054 net.cpp:399] inception_5b/3x3_reduce -> inception_5b/3x3_reduce
I0924 00:44:16.446102 26054 net.cpp:141] Setting up inception_5b/3x3_reduce
I0924 00:44:16.446126 26054 net.cpp:148] Top shape: 10 192 7 7 (94080)
I0924 00:44:16.446131 26054 net.cpp:156] Memory required for data: 544660480
I0924 00:44:16.446141 26054 layer_factory.hpp:77] Creating layer inception_5b/relu_3x3_reduce
I0924 00:44:16.446151 26054 net.cpp:91] Creating Layer inception_5b/relu_3x3_reduce
I0924 00:44:16.446157 26054 net.cpp:425] inception_5b/relu_3x3_reduce <- inception_5b/3x3_reduce
I0924 00:44:16.446167 26054 net.cpp:386] inception_5b/relu_3x3_reduce -> inception_5b/3x3_reduce (in-place)
I0924 00:44:16.446409 26054 net.cpp:141] Setting up inception_5b/relu_3x3_reduce
I0924 00:44:16.446420 26054 net.cpp:148] Top shape: 10 192 7 7 (94080)
I0924 00:44:16.446424 26054 net.cpp:156] Memory required for data: 545036800
I0924 00:44:16.446429 26054 layer_factory.hpp:77] Creating layer inception_5b/3x3
I0924 00:44:16.446445 26054 net.cpp:91] Creating Layer inception_5b/3x3
I0924 00:44:16.446451 26054 net.cpp:425] inception_5b/3x3 <- inception_5b/3x3_reduce
I0924 00:44:16.446461 26054 net.cpp:399] inception_5b/3x3 -> inception_5b/3x3
I0924 00:44:16.454155 26054 net.cpp:141] Setting up inception_5b/3x3
I0924 00:44:16.454175 26054 net.cpp:148] Top shape: 10 384 7 7 (188160)
I0924 00:44:16.454180 26054 net.cpp:156] Memory required for data: 545789440
I0924 00:44:16.454190 26054 layer_factory.hpp:77] Creating layer inception_5b/relu_3x3
I0924 00:44:16.454200 26054 net.cpp:91] Creating Layer inception_5b/relu_3x3
I0924 00:44:16.454206 26054 net.cpp:425] inception_5b/relu_3x3 <- inception_5b/3x3
I0924 00:44:16.454213 26054 net.cpp:386] inception_5b/relu_3x3 -> inception_5b/3x3 (in-place)
I0924 00:44:16.454638 26054 net.cpp:141] Setting up inception_5b/relu_3x3
I0924 00:44:16.454651 26054 net.cpp:148] Top shape: 10 384 7 7 (188160)
I0924 00:44:16.454656 26054 net.cpp:156] Memory required for data: 546542080
I0924 00:44:16.454661 26054 layer_factory.hpp:77] Creating layer inception_5b/5x5_reduce
I0924 00:44:16.454675 26054 net.cpp:91] Creating Layer inception_5b/5x5_reduce
I0924 00:44:16.454681 26054 net.cpp:425] inception_5b/5x5_reduce <- inception_5a/output_inception_5a/output_0_split_2
I0924 00:44:16.454694 26054 net.cpp:399] inception_5b/5x5_reduce -> inception_5b/5x5_reduce
I0924 00:44:16.456368 26054 net.cpp:141] Setting up inception_5b/5x5_reduce
I0924 00:44:16.456385 26054 net.cpp:148] Top shape: 10 48 7 7 (23520)
I0924 00:44:16.456390 26054 net.cpp:156] Memory required for data: 546636160
I0924 00:44:16.456399 26054 layer_factory.hpp:77] Creating layer inception_5b/relu_5x5_reduce
I0924 00:44:16.456413 26054 net.cpp:91] Creating Layer inception_5b/relu_5x5_reduce
I0924 00:44:16.456418 26054 net.cpp:425] inception_5b/relu_5x5_reduce <- inception_5b/5x5_reduce
I0924 00:44:16.456425 26054 net.cpp:386] inception_5b/relu_5x5_reduce -> inception_5b/5x5_reduce (in-place)
I0924 00:44:16.456832 26054 net.cpp:141] Setting up inception_5b/relu_5x5_reduce
I0924 00:44:16.456845 26054 net.cpp:148] Top shape: 10 48 7 7 (23520)
I0924 00:44:16.456850 26054 net.cpp:156] Memory required for data: 546730240
I0924 00:44:16.456856 26054 layer_factory.hpp:77] Creating layer inception_5b/5x5
I0924 00:44:16.456869 26054 net.cpp:91] Creating Layer inception_5b/5x5
I0924 00:44:16.456876 26054 net.cpp:425] inception_5b/5x5 <- inception_5b/5x5_reduce
I0924 00:44:16.456887 26054 net.cpp:399] inception_5b/5x5 -> inception_5b/5x5
I0924 00:44:16.459769 26054 net.cpp:141] Setting up inception_5b/5x5
I0924 00:44:16.459786 26054 net.cpp:148] Top shape: 10 128 7 7 (62720)
I0924 00:44:16.459791 26054 net.cpp:156] Memory required for data: 546981120
I0924 00:44:16.459800 26054 layer_factory.hpp:77] Creating layer inception_5b/relu_5x5
I0924 00:44:16.459811 26054 net.cpp:91] Creating Layer inception_5b/relu_5x5
I0924 00:44:16.459818 26054 net.cpp:425] inception_5b/relu_5x5 <- inception_5b/5x5
I0924 00:44:16.459825 26054 net.cpp:386] inception_5b/relu_5x5 -> inception_5b/5x5 (in-place)
I0924 00:44:16.460067 26054 net.cpp:141] Setting up inception_5b/relu_5x5
I0924 00:44:16.460079 26054 net.cpp:148] Top shape: 10 128 7 7 (62720)
I0924 00:44:16.460084 26054 net.cpp:156] Memory required for data: 547232000
I0924 00:44:16.460089 26054 layer_factory.hpp:77] Creating layer inception_5b/pool
I0924 00:44:16.460101 26054 net.cpp:91] Creating Layer inception_5b/pool
I0924 00:44:16.460106 26054 net.cpp:425] inception_5b/pool <- inception_5a/output_inception_5a/output_0_split_3
I0924 00:44:16.460114 26054 net.cpp:399] inception_5b/pool -> inception_5b/pool
I0924 00:44:16.460194 26054 net.cpp:141] Setting up inception_5b/pool
I0924 00:44:16.460204 26054 net.cpp:148] Top shape: 10 832 7 7 (407680)
I0924 00:44:16.460208 26054 net.cpp:156] Memory required for data: 548862720
I0924 00:44:16.460213 26054 layer_factory.hpp:77] Creating layer inception_5b/pool_proj
I0924 00:44:16.460228 26054 net.cpp:91] Creating Layer inception_5b/pool_proj
I0924 00:44:16.460234 26054 net.cpp:425] inception_5b/pool_proj <- inception_5b/pool
I0924 00:44:16.460244 26054 net.cpp:399] inception_5b/pool_proj -> inception_5b/pool_proj
I0924 00:44:16.463191 26054 net.cpp:141] Setting up inception_5b/pool_proj
I0924 00:44:16.463208 26054 net.cpp:148] Top shape: 10 128 7 7 (62720)
I0924 00:44:16.463213 26054 net.cpp:156] Memory required for data: 549113600
I0924 00:44:16.463222 26054 layer_factory.hpp:77] Creating layer inception_5b/relu_pool_proj
I0924 00:44:16.463235 26054 net.cpp:91] Creating Layer inception_5b/relu_pool_proj
I0924 00:44:16.463241 26054 net.cpp:425] inception_5b/relu_pool_proj <- inception_5b/pool_proj
I0924 00:44:16.463250 26054 net.cpp:386] inception_5b/relu_pool_proj -> inception_5b/pool_proj (in-place)
I0924 00:44:16.463665 26054 net.cpp:141] Setting up inception_5b/relu_pool_proj
I0924 00:44:16.463681 26054 net.cpp:148] Top shape: 10 128 7 7 (62720)
I0924 00:44:16.463686 26054 net.cpp:156] Memory required for data: 549364480
I0924 00:44:16.463691 26054 layer_factory.hpp:77] Creating layer inception_5b/output
I0924 00:44:16.463704 26054 net.cpp:91] Creating Layer inception_5b/output
I0924 00:44:16.463711 26054 net.cpp:425] inception_5b/output <- inception_5b/1x1
I0924 00:44:16.463716 26054 net.cpp:425] inception_5b/output <- inception_5b/3x3
I0924 00:44:16.463722 26054 net.cpp:425] inception_5b/output <- inception_5b/5x5
I0924 00:44:16.463727 26054 net.cpp:425] inception_5b/output <- inception_5b/pool_proj
I0924 00:44:16.463737 26054 net.cpp:399] inception_5b/output -> inception_5b/output
I0924 00:44:16.463786 26054 net.cpp:141] Setting up inception_5b/output
I0924 00:44:16.463795 26054 net.cpp:148] Top shape: 10 1024 7 7 (501760)
I0924 00:44:16.463800 26054 net.cpp:156] Memory required for data: 551371520
I0924 00:44:16.463804 26054 layer_factory.hpp:77] Creating layer pool5/7x7_s1
I0924 00:44:16.463816 26054 net.cpp:91] Creating Layer pool5/7x7_s1
I0924 00:44:16.463822 26054 net.cpp:425] pool5/7x7_s1 <- inception_5b/output
I0924 00:44:16.463829 26054 net.cpp:399] pool5/7x7_s1 -> pool5/7x7_s1
I0924 00:44:16.464133 26054 net.cpp:141] Setting up pool5/7x7_s1
I0924 00:44:16.464145 26054 net.cpp:148] Top shape: 10 1024 1 1 (10240)
I0924 00:44:16.464149 26054 net.cpp:156] Memory required for data: 551412480
I0924 00:44:16.464154 26054 layer_factory.hpp:77] Creating layer pool5/drop_7x7_s1
I0924 00:44:16.464171 26054 net.cpp:91] Creating Layer pool5/drop_7x7_s1
I0924 00:44:16.464176 26054 net.cpp:425] pool5/drop_7x7_s1 <- pool5/7x7_s1
I0924 00:44:16.464185 26054 net.cpp:386] pool5/drop_7x7_s1 -> pool5/7x7_s1 (in-place)
I0924 00:44:16.464236 26054 net.cpp:141] Setting up pool5/drop_7x7_s1
I0924 00:44:16.464246 26054 net.cpp:148] Top shape: 10 1024 1 1 (10240)
I0924 00:44:16.464251 26054 net.cpp:156] Memory required for data: 551453440
I0924 00:44:16.464254 26054 layer_factory.hpp:77] Creating layer loss3/classifier
I0924 00:44:16.464277 26054 net.cpp:91] Creating Layer loss3/classifier
I0924 00:44:16.464282 26054 net.cpp:425] loss3/classifier <- pool5/7x7_s1
I0924 00:44:16.464293 26054 net.cpp:399] loss3/classifier -> loss3/classifier
I0924 00:44:16.473815 26054 net.cpp:141] Setting up loss3/classifier
I0924 00:44:16.473835 26054 net.cpp:148] Top shape: 10 1000 (10000)
I0924 00:44:16.473840 26054 net.cpp:156] Memory required for data: 551493440
I0924 00:44:16.473850 26054 layer_factory.hpp:77] Creating layer prob
I0924 00:44:16.473860 26054 net.cpp:91] Creating Layer prob
I0924 00:44:16.473865 26054 net.cpp:425] prob <- loss3/classifier
I0924 00:44:16.473873 26054 net.cpp:399] prob -> prob
I0924 00:44:16.474416 26054 net.cpp:141] Setting up prob
I0924 00:44:16.474433 26054 net.cpp:148] Top shape: 10 1000 (10000)
I0924 00:44:16.474442 26054 net.cpp:156] Memory required for data: 551533440
I0924 00:44:16.474447 26054 net.cpp:219] prob does not need backward computation.
I0924 00:44:16.474452 26054 net.cpp:219] loss3/classifier does not need backward computation.
I0924 00:44:16.474457 26054 net.cpp:219] pool5/drop_7x7_s1 does not need backward computation.
I0924 00:44:16.474460 26054 net.cpp:219] pool5/7x7_s1 does not need backward computation.
…
