…
Java HotSpot(TM) 64-Bit Server VM warning: You have loaded library /tmp/cvld8278178737377722131/libopencv_java310.xine1.so which might have disabled stack guard. The VM will try to fix the stack guard now.
It's highly recommended that you fix the library with 'execstack -c <libfile>', or link it with '-z noexecstack'.
WARNING: Logging before InitGoogleLogging() is written to STDERR
I0720 12:24:13.624059 15186 net.cpp:49] Initializing net from parameters: 
name: "CaffeNet"
state {
  phase: TEST
}
layer {
  name: "data"
  type: "Input"
  top: "data"
  input_param {
    shape {
      dim: 10
      dim: 3
      dim: 227
      dim: 227
    }
  }
}
layer {
  name: "conv1"
  type: "Convolution"
  bottom: "data"
  top: "conv1"
  convolution_param {
    num_output: 96
    kernel_size: 11
    stride: 4
  }
}
layer {
  name: "relu1"
  type: "ReLU"
  bottom: "conv1"
  top: "conv1"
}
layer {
  name: "pool1"
  type: "Pooling"
  bottom: "conv1"
  top: "pool1"
  pooling_param {
    pool: MAX
    kernel_size: 3
    stride: 2
  }
}
layer {
  name: "norm1"
  type: "LRN"
  bottom: "pool1"
  top: "norm1"
  lrn_param {
    local_size: 5
    alpha: 0.0001
    beta: 0.75
  }
}
layer {
  name: "conv2"
  type: "Convolution"
  bottom: "norm1"
  top: "conv2"
  convolution_param {
    num_output: 256
    pad: 2
    kernel_size: 5
    group: 2
  }
}
layer {
  name: "relu2"
  type: "ReLU"
  bottom: "conv2"
  top: "conv2"
}
layer {
  name: "pool2"
  type: "Pooling"
  bottom: "conv2"
  top: "pool2"
  pooling_param {
    pool: MAX
    kernel_size: 3
    stride: 2
  }
}
layer {
  name: "norm2"
  type: "LRN"
  bottom: "pool2"
  top: "norm2"
  lrn_param {
    local_size: 5
    alpha: 0.0001
    beta: 0.75
  }
}
layer {
  name: "conv3"
  type: "Convolution"
  bottom: "norm2"
  top: "conv3"
  convolution_param {
    num_output: 384
    pad: 1
    kernel_size: 3
  }
}
layer {
  name: "relu3"
  type: "ReLU"
  bottom: "conv3"
  top: "conv3"
}
layer {
  name: "conv4"
  type: "Convolution"
  bottom: "conv3"
  top: "conv4"
  convolution_param {
    num_output: 384
    pad: 1
    kernel_size: 3
    group: 2
  }
}
layer {
  name: "relu4"
  type: "ReLU"
  bottom: "conv4"
  top: "conv4"
}
layer {
  name: "conv5"
  type: "Convolution"
  bottom: "conv4"
  top: "conv5"
  convolution_param {
    num_output: 256
    pad: 1
    kernel_size: 3
    group: 2
  }
}
layer {
  name: "relu5"
  type: "ReLU"
  bottom: "conv5"
  top: "conv5"
}
layer {
  name: "pool5"
  type: "Pooling"
  bottom: "conv5"
  top: "pool5"
  pooling_param {
    pool: MAX
    kernel_size: 3
    stride: 2
  }
}
layer {
  name: "fc6"
  type: "InnerProduct"
  bottom: "pool5"
  top: "fc6"
  inner_product_param {
    num_output: 4096
  }
}
layer {
  name: "relu6"
  type: "ReLU"
  bottom: "fc6"
  top: "fc6"
}
layer {
  name: "drop6"
  type: "Dropout"
  bottom: "fc6"
  top: "fc6"
  dropout_param {
    dropout_ratio: 0.5
  }
}
layer {
  name: "fc7"
  type: "InnerProduct"
  bottom: "fc6"
  top: "fc7"
  inner_product_param {
    num_output: 4096
  }
}
layer {
  name: "relu7"
  type: "ReLU"
  bottom: "fc7"
  top: "fc7"
}
layer {
  name: "drop7"
  type: "Dropout"
  bottom: "fc7"
  top: "fc7"
  dropout_param {
    dropout_ratio: 0.5
  }
}
layer {
  name: "fc8"
  type: "InnerProduct"
  bottom: "fc7"
  top: "fc8"
  inner_product_param {
    num_output: 1000
  }
}
layer {
  name: "prob"
  type: "Softmax"
  bottom: "fc8"
  top: "prob"
}
I0720 12:24:13.624249 15186 layer_factory.hpp:77] Creating layer data
I0720 12:24:13.624274 15186 net.cpp:91] Creating Layer data
I0720 12:24:13.624284 15186 net.cpp:399] data -> data
I0720 12:24:13.629806 15172 net.cpp:49] Initializing net from parameters: 
name: "CaffeNet"
state {
  phase: TEST
}
layer {
  name: "data"
  type: "Input"
  top: "data"
  input_param {
    shape {
      dim: 10
      dim: 3
      dim: 227
      dim: 227
    }
  }
}
layer {
  name: "conv1"
  type: "Convolution"
  bottom: "data"
  top: "conv1"
  convolution_param {
    num_output: 96
    kernel_size: 11
    stride: 4
  }
}
layer {
  name: "relu1"
  type: "ReLU"
  bottom: "conv1"
  top: "conv1"
}
layer {
  name: "pool1"
  type: "Pooling"
  bottom: "conv1"
  top: "pool1"
  pooling_param {
    pool: MAX
    kernel_size: 3
    stride: 2
  }
}
layer {
  name: "norm1"
  type: "LRN"
  bottom: "pool1"
  top: "norm1"
  lrn_param {
    local_size: 5
    alpha: 0.0001
    beta: 0.75
  }
}
layer {
  name: "conv2"
  type: "Convolution"
  bottom: "norm1"
  top: "conv2"
  convolution_param {
    num_output: 256
    pad: 2
    kernel_size: 5
    group: 2
  }
}
layer {
  name: "relu2"
  type: "ReLU"
  bottom: "conv2"
  top: "conv2"
}
layer {
  name: "pool2"
  type: "Pooling"
  bottom: "conv2"
  top: "pool2"
  pooling_param {
    pool: MAX
    kernel_size: 3
    stride: 2
  }
}
layer {
  name: "norm2"
  type: "LRN"
  bottom: "pool2"
  top: "norm2"
  lrn_param {
    local_size: 5
    alpha: 0.0001
    beta: 0.75
  }
}
layer {
  name: "conv3"
  type: "Convolution"
  bottom: "norm2"
  top: "conv3"
  convolution_param {
    num_output: 384
    pad: 1
    kernel_size: 3
  }
}
layer {
  name: "relu3"
  type: "ReLU"
  bottom: "conv3"
  top: "conv3"
}
layer {
  name: "conv4"
  type: "Convolution"
  bottom: "conv3"
  top: "conv4"
  convolution_param {
    num_output: 384
    pad: 1
    kernel_size: 3
    group: 2
  }
}
layer {
  name: "relu4"
  type: "ReLU"
  bottom: "conv4"
  top: "conv4"
}
layer {
  name: "conv5"
  type: "Convolution"
  bottom: "conv4"
  top: "conv5"
  convolution_param {
    num_output: 256
    pad: 1
    kernel_size: 3
    group: 2
  }
}
layer {
  name: "relu5"
  type: "ReLU"
  bottom: "conv5"
  top: "conv5"
}
layer {
  name: "pool5"
  type: "Pooling"
  bottom: "conv5"
  top: "pool5"
  pooling_param {
    pool: MAX
    kernel_size: 3
    stride: 2
  }
}
layer {
  name: "fc6"
  type: "InnerProduct"
  bottom: "pool5"
  top: "fc6"
  inner_product_param {
    num_output: 4096
  }
}
layer {
  name: "relu6"
  type: "ReLU"
  bottom: "fc6"
  top: "fc6"
}
layer {
  name: "drop6"
  type: "Dropout"
  bottom: "fc6"
  top: "fc6"
  dropout_param {
    dropout_ratio: 0.5
  }
}
layer {
  name: "fc7"
  type: "InnerProduct"
  bottom: "fc6"
  top: "fc7"
  inner_product_param {
    num_output: 4096
  }
}
layer {
  name: "relu7"
  type: "ReLU"
  bottom: "fc7"
  top: "fc7"
}
layer {
  name: "drop7"
  type: "Dropout"
  bottom: "fc7"
  top: "fc7"
  dropout_param {
    dropout_ratio: 0.5
  }
}
layer {
  name: "fc8"
  type: "InnerProduct"
  bottom: "fc7"
  top: "fc8"
  inner_product_param {
    num_output: 1000
  }
}
layer {
  name: "prob"
  type: "Softmax"
  bottom: "fc8"
  top: "prob"
}
I0720 12:24:13.629923 15172 layer_factory.hpp:77] Creating layer data
I0720 12:24:13.629938 15172 net.cpp:91] Creating Layer data
I0720 12:24:13.629946 15172 net.cpp:399] data -> data
I0720 12:24:13.943306 15174 upgrade_proto.cpp:66] Attempting to upgrade input file specified using deprecated input fields: /tmp/cvld8278178737377722131/s2vt.words_to_preds.prototxt
I0720 12:24:13.943352 15174 upgrade_proto.cpp:69] Successfully upgraded file specified using deprecated input fields.
W0720 12:24:13.943361 15174 upgrade_proto.cpp:71] Note that future Caffe releases will only support input layers and not input fields.
I0720 12:24:13.943604 15174 net.cpp:49] Initializing net from parameters: 
name: "s2vt:features_to_lstm"
state {
  phase: TEST
}
layer {
  name: "input"
  type: "Input"
  top: "frames_fc7"
  top: "cont_sentence"
  top: "input_sentence"
  top: "stage_indicator"
  input_param {
    shape {
      dim: 1
      dim: 4096
    }
    shape {
      dim: 1
      dim: 1
    }
    shape {
      dim: 1
      dim: 1
    }
    shape {
      dim: 1
      dim: 1
    }
  }
}
layer {
  name: "embed_encoder"
  type: "InnerProduct"
  bottom: "frames_fc7"
  top: "embedded_in_frames"
  param {
    lr_mult: 1
    decay_mult: 1
  }
  param {
    lr_mult: 2
    decay_mult: 0
  }
  inner_product_param {
    num_output: 500
    weight_filler {
      type: "xavier"
    }
    bias_filler {
      type: "constant"
      value: 0.2
    }
  }
}
layer {
  name: "reshape_frames"
  type: "Reshape"
  bottom: "embedded_in_frames"
  top: "embedded_input_frames"
  reshape_param {
    shape {
      dim: 1
      dim: 1
      dim: 500
    }
  }
}
layer {
  name: "reshape_stage_indicator"
  type: "Reshape"
  bottom: "stage_indicator"
  top: "reshaped_stage_indicator"
  reshape_param {
    shape {
      dim: 1
      dim: 1
      dim: 1
    }
  }
}
layer {
  name: "embedding"
  type: "Embed"
  bottom: "input_sentence"
  top: "embedded_input_sentence"
  param {
    lr_mult: 1
  }
  embed_param {
    num_output: 500
    input_dim: 46168
    bias_term: false
    weight_filler {
      type: "uniform"
      min: -0.08
      max: 0.08
    }
  }
}
layer {
  name: "lstm1"
  type: "LSTM"
  bottom: "embedded_input_frames"
  bottom: "cont_sentence"
  top: "lstm1"
  recurrent_param {
    num_output: 1000
    weight_filler {
      type: "uniform"
      min: -0.08
      max: 0.08
    }
    bias_filler {
      type: "constant"
      value: 0
    }
  }
}
layer {
  name: "concat"
  type: "Concat"
  bottom: "lstm1"
  bottom: "embedded_input_sentence"
  bottom: "reshaped_stage_indicator"
  top: "lstm1_video_sequence"
  concat_param {
    concat_dim: 2
  }
}
layer {
  name: "lstm2"
  type: "LSTM"
  bottom: "lstm1_video_sequence"
  bottom: "cont_sentence"
  top: "lstm2"
  recurrent_param {
    num_output: 1000
    weight_filler {
      type: "uniform"
      min: -0.08
      max: 0.08
    }
    bias_filler {
      type: "constant"
      value: 0
    }
  }
}
layer {
  name: "predict"
  type: "InnerProduct"
  bottom: "lstm2"
  top: "predict"
  param {
    lr_mult: 1
    decay_mult: 1
  }
  param {
    lr_mult: 2
    decay_mult: 0
  }
  inner_product_param {
    num_output: 46168
    weight_filler {
      type: "uniform"
      min: -0.08
      max: 0.08
    }
    bias_filler {
      type: "constant"
      value: 0
    }
    axis: 2
  }
}
layer {
  name: "probs"
  type: "Softmax"
  bottom: "predict"
  top: "probs"
  softmax_param {
    axis: 2
  }
}
I0720 12:24:13.943730 15174 layer_factory.hpp:77] Creating layer input
I0720 12:24:13.943747 15174 net.cpp:91] Creating Layer input
I0720 12:24:13.943754 15174 net.cpp:399] input -> frames_fc7
I0720 12:24:13.943771 15174 net.cpp:399] input -> cont_sentence
I0720 12:24:13.943784 15174 net.cpp:399] input -> input_sentence
I0720 12:24:13.943795 15174 net.cpp:399] input -> stage_indicator
I0720 12:24:13.943903 15178 upgrade_proto.cpp:66] Attempting to upgrade input file specified using deprecated input fields: /tmp/cvld8278178737377722131/s2vt.words_to_preds.prototxt
I0720 12:24:13.943922 15178 upgrade_proto.cpp:69] Successfully upgraded file specified using deprecated input fields.
W0720 12:24:13.943928 15178 upgrade_proto.cpp:71] Note that future Caffe releases will only support input layers and not input fields.
I0720 12:24:13.944162 15178 net.cpp:49] Initializing net from parameters: 
name: "s2vt:features_to_lstm"
state {
  phase: TEST
}
layer {
  name: "input"
  type: "Input"
  top: "frames_fc7"
  top: "cont_sentence"
  top: "input_sentence"
  top: "stage_indicator"
  input_param {
    shape {
      dim: 1
      dim: 4096
    }
    shape {
      dim: 1
      dim: 1
    }
    shape {
      dim: 1
      dim: 1
    }
    shape {
      dim: 1
      dim: 1
    }
  }
}
layer {
  name: "embed_encoder"
  type: "InnerProduct"
  bottom: "frames_fc7"
  top: "embedded_in_frames"
  param {
    lr_mult: 1
    decay_mult: 1
  }
  param {
    lr_mult: 2
    decay_mult: 0
  }
  inner_product_param {
    num_output: 500
    weight_filler {
      type: "xavier"
    }
    bias_filler {
      type: "constant"
      value: 0.2
    }
  }
}
layer {
  name: "reshape_frames"
  type: "Reshape"
  bottom: "embedded_in_frames"
  top: "embedded_input_frames"
  reshape_param {
    shape {
      dim: 1
      dim: 1
      dim: 500
    }
  }
}
layer {
  name: "reshape_stage_indicator"
  type: "Reshape"
  bottom: "stage_indicator"
  top: "reshaped_stage_indicator"
  reshape_param {
    shape {
      dim: 1
      dim: 1
      dim: 1
    }
  }
}
layer {
  name: "embedding"
  type: "Embed"
  bottom: "input_sentence"
  top: "embedded_input_sentence"
  param {
    lr_mult: 1
  }
  embed_param {
    num_output: 500
    input_dim: 46168
    bias_term: false
    weight_filler {
      type: "uniform"
      min: -0.08
      max: 0.08
    }
  }
}
layer {
  name: "lstm1"
  type: "LSTM"
  bottom: "embedded_input_frames"
  bottom: "cont_sentence"
  top: "lstm1"
  recurrent_param {
    num_output: 1000
    weight_filler {
      type: "uniform"
      min: -0.08
      max: 0.08
    }
    bias_filler {
      type: "constant"
      value: 0
    }
  }
}
layer {
  name: "concat"
  type: "Concat"
  bottom: "lstm1"
  bottom: "embedded_input_sentence"
  bottom: "reshaped_stage_indicator"
  top: "lstm1_video_sequence"
  concat_param {
    concat_dim: 2
  }
}
layer {
  name: "lstm2"
  type: "LSTM"
  bottom: "lstm1_video_sequence"
  bottom: "cont_sentence"
  top: "lstm2"
  recurrent_param {
    num_output: 1000
    weight_filler {
      type: "uniform"
      min: -0.08
      max: 0.08
    }
    bias_filler {
      type: "constant"
      value: 0
    }
  }
}
layer {
  name: "predict"
  type: "InnerProduct"
  bottom: "lstm2"
  top: "predict"
  param {
    lr_mult: 1
    decay_mult: 1
  }
  param {
    lr_mult: 2
    decay_mult: 0
  }
  inner_product_param {
    num_output: 46168
    weight_filler {
      type: "uniform"
      min: -0.08
      max: 0.08
    }
    bias_filler {
      type: "constant"
      value: 0
    }
    axis: 2
  }
}
layer {
  name: "probs"
  type: "Softmax"
  bottom: "predict"
  top: "probs"
  softmax_param {
    axis: 2
  }
}
I0720 12:24:13.944272 15178 layer_factory.hpp:77] Creating layer input
I0720 12:24:13.944284 15178 net.cpp:91] Creating Layer input
I0720 12:24:13.944293 15178 net.cpp:399] input -> frames_fc7
I0720 12:24:13.944303 15178 net.cpp:399] input -> cont_sentence
I0720 12:24:13.944314 15178 net.cpp:399] input -> input_sentence
I0720 12:24:13.944322 15178 net.cpp:399] input -> stage_indicator
I0720 12:24:14.524003 15186 net.cpp:141] Setting up data
I0720 12:24:14.524070 15186 net.cpp:148] Top shape: 10 3 227 227 (1545870)
I0720 12:24:14.524075 15186 net.cpp:156] Memory required for data: 6183480
I0720 12:24:14.524096 15186 layer_factory.hpp:77] Creating layer conv1
I0720 12:24:14.524125 15186 net.cpp:91] Creating Layer conv1
I0720 12:24:14.524134 15186 net.cpp:425] conv1 <- data
I0720 12:24:14.524147 15186 net.cpp:399] conv1 -> conv1
I0720 12:24:14.524181 15178 net.cpp:141] Setting up input
I0720 12:24:14.524202 15178 net.cpp:148] Top shape: 1 4096 (4096)
I0720 12:24:14.524209 15178 net.cpp:148] Top shape: 1 1 (1)
I0720 12:24:14.524216 15178 net.cpp:148] Top shape: 1 1 (1)
I0720 12:24:14.524222 15178 net.cpp:148] Top shape: 1 1 (1)
I0720 12:24:14.524225 15178 net.cpp:156] Memory required for data: 16396
I0720 12:24:14.524231 15178 layer_factory.hpp:77] Creating layer cont_sentence_input_1_split
I0720 12:24:14.524248 15178 net.cpp:91] Creating Layer cont_sentence_input_1_split
I0720 12:24:14.524255 15178 net.cpp:425] cont_sentence_input_1_split <- cont_sentence
I0720 12:24:14.524283 15178 net.cpp:399] cont_sentence_input_1_split -> cont_sentence_input_1_split_0
I0720 12:24:14.524296 15178 net.cpp:399] cont_sentence_input_1_split -> cont_sentence_input_1_split_1
I0720 12:24:14.529351 15178 net.cpp:141] Setting up cont_sentence_input_1_split
I0720 12:24:14.529372 15178 net.cpp:148] Top shape: 1 1 (1)
I0720 12:24:14.529381 15178 net.cpp:148] Top shape: 1 1 (1)
I0720 12:24:14.529384 15178 net.cpp:156] Memory required for data: 16404
I0720 12:24:14.529391 15178 layer_factory.hpp:77] Creating layer embed_encoder
I0720 12:24:14.529412 15178 net.cpp:91] Creating Layer embed_encoder
I0720 12:24:14.529417 15178 net.cpp:425] embed_encoder <- frames_fc7
I0720 12:24:14.529434 15178 net.cpp:399] embed_encoder -> embedded_in_frames
I0720 12:24:14.579831 15178 net.cpp:141] Setting up embed_encoder
I0720 12:24:14.579869 15178 net.cpp:148] Top shape: 1 500 (500)
I0720 12:24:14.579874 15178 net.cpp:156] Memory required for data: 18404
I0720 12:24:14.579898 15178 layer_factory.hpp:77] Creating layer reshape_frames
I0720 12:24:14.579923 15178 net.cpp:91] Creating Layer reshape_frames
I0720 12:24:14.579931 15178 net.cpp:425] reshape_frames <- embedded_in_frames
I0720 12:24:14.579941 15178 net.cpp:399] reshape_frames -> embedded_input_frames
I0720 12:24:14.581200 15172 net.cpp:141] Setting up data
I0720 12:24:14.581266 15172 net.cpp:148] Top shape: 10 3 227 227 (1545870)
I0720 12:24:14.581274 15172 net.cpp:156] Memory required for data: 6183480
I0720 12:24:14.581282 15172 layer_factory.hpp:77] Creating layer conv1
I0720 12:24:14.581307 15172 net.cpp:91] Creating Layer conv1
I0720 12:24:14.581313 15172 net.cpp:425] conv1 <- data
I0720 12:24:14.581322 15172 net.cpp:399] conv1 -> conv1
I0720 12:24:14.581393 15178 net.cpp:141] Setting up reshape_frames
I0720 12:24:14.581410 15178 net.cpp:148] Top shape: 1 1 500 (500)
I0720 12:24:14.581415 15178 net.cpp:156] Memory required for data: 20404
I0720 12:24:14.581421 15178 layer_factory.hpp:77] Creating layer reshape_stage_indicator
I0720 12:24:14.581432 15178 net.cpp:91] Creating Layer reshape_stage_indicator
I0720 12:24:14.581437 15178 net.cpp:425] reshape_stage_indicator <- stage_indicator
I0720 12:24:14.581445 15178 net.cpp:399] reshape_stage_indicator -> reshaped_stage_indicator
I0720 12:24:14.587045 15178 net.cpp:141] Setting up reshape_stage_indicator
I0720 12:24:14.587069 15178 net.cpp:148] Top shape: 1 1 1 (1)
I0720 12:24:14.587074 15178 net.cpp:156] Memory required for data: 20408
I0720 12:24:14.587080 15178 layer_factory.hpp:77] Creating layer embedding
I0720 12:24:14.587091 15178 net.cpp:91] Creating Layer embedding
I0720 12:24:14.587096 15178 net.cpp:425] embedding <- input_sentence
I0720 12:24:14.587107 15178 net.cpp:399] embedding -> embedded_input_sentence
I0720 12:24:14.596966 15174 net.cpp:141] Setting up input
I0720 12:24:14.596987 15174 net.cpp:148] Top shape: 1 4096 (4096)
I0720 12:24:14.596994 15174 net.cpp:148] Top shape: 1 1 (1)
I0720 12:24:14.597000 15174 net.cpp:148] Top shape: 1 1 (1)
I0720 12:24:14.597005 15174 net.cpp:148] Top shape: 1 1 (1)
I0720 12:24:14.597010 15174 net.cpp:156] Memory required for data: 16396
I0720 12:24:14.597017 15174 layer_factory.hpp:77] Creating layer cont_sentence_input_1_split
I0720 12:24:14.597028 15174 net.cpp:91] Creating Layer cont_sentence_input_1_split
I0720 12:24:14.597033 15174 net.cpp:425] cont_sentence_input_1_split <- cont_sentence
I0720 12:24:14.597043 15174 net.cpp:399] cont_sentence_input_1_split -> cont_sentence_input_1_split_0
I0720 12:24:14.597054 15174 net.cpp:399] cont_sentence_input_1_split -> cont_sentence_input_1_split_1
I0720 12:24:14.645265 15174 net.cpp:141] Setting up cont_sentence_input_1_split
I0720 12:24:14.645316 15174 net.cpp:148] Top shape: 1 1 (1)
I0720 12:24:14.645324 15174 net.cpp:148] Top shape: 1 1 (1)
I0720 12:24:14.645331 15174 net.cpp:156] Memory required for data: 16404
I0720 12:24:14.645341 15174 layer_factory.hpp:77] Creating layer embed_encoder
I0720 12:24:14.645364 15174 net.cpp:91] Creating Layer embed_encoder
I0720 12:24:14.645372 15174 net.cpp:425] embed_encoder <- frames_fc7
I0720 12:24:14.645383 15174 net.cpp:399] embed_encoder -> embedded_in_frames
I0720 12:24:14.703861 15174 net.cpp:141] Setting up embed_encoder
I0720 12:24:14.703905 15174 net.cpp:148] Top shape: 1 500 (500)
I0720 12:24:14.703912 15174 net.cpp:156] Memory required for data: 18404
I0720 12:24:14.703933 15174 layer_factory.hpp:77] Creating layer reshape_frames
I0720 12:24:14.703950 15174 net.cpp:91] Creating Layer reshape_frames
I0720 12:24:14.703959 15174 net.cpp:425] reshape_frames <- embedded_in_frames
I0720 12:24:14.703970 15174 net.cpp:399] reshape_frames -> embedded_input_frames
I0720 12:24:14.718349 15174 net.cpp:141] Setting up reshape_frames
I0720 12:24:14.718382 15174 net.cpp:148] Top shape: 1 1 500 (500)
I0720 12:24:14.718389 15174 net.cpp:156] Memory required for data: 20404
I0720 12:24:14.718395 15174 layer_factory.hpp:77] Creating layer reshape_stage_indicator
I0720 12:24:14.718413 15174 net.cpp:91] Creating Layer reshape_stage_indicator
I0720 12:24:14.718420 15174 net.cpp:425] reshape_stage_indicator <- stage_indicator
I0720 12:24:14.718432 15174 net.cpp:399] reshape_stage_indicator -> reshaped_stage_indicator
I0720 12:24:14.723995 15174 net.cpp:141] Setting up reshape_stage_indicator
I0720 12:24:14.724020 15174 net.cpp:148] Top shape: 1 1 1 (1)
I0720 12:24:14.724026 15174 net.cpp:156] Memory required for data: 20408
I0720 12:24:14.724032 15174 layer_factory.hpp:77] Creating layer embedding
I0720 12:24:14.724047 15174 net.cpp:91] Creating Layer embedding
I0720 12:24:14.724053 15174 net.cpp:425] embedding <- input_sentence
I0720 12:24:14.724067 15174 net.cpp:399] embedding -> embedded_input_sentence
I0720 12:24:14.819051 15178 net.cpp:141] Setting up embedding
I0720 12:24:14.819099 15178 net.cpp:148] Top shape: 1 1 500 (500)
I0720 12:24:14.819105 15178 net.cpp:156] Memory required for data: 22408
I0720 12:24:14.819121 15178 layer_factory.hpp:77] Creating layer lstm1
I0720 12:24:14.819141 15178 net.cpp:91] Creating Layer lstm1
I0720 12:24:14.819149 15178 net.cpp:425] lstm1 <- embedded_input_frames
I0720 12:24:14.819157 15178 net.cpp:425] lstm1 <- cont_sentence_input_1_split_0
I0720 12:24:14.819167 15178 net.cpp:399] lstm1 -> lstm1
I0720 12:24:14.819190 15178 recurrent_layer.cpp:20] Initializing recurrent layer: assuming input batch contains 1 timesteps of 1 independent streams.
I0720 12:24:14.819564 15178 net.cpp:49] Initializing net from parameters: 
layer {
  name: "lstm1_"
  type: "Input"
  top: "x"
  top: "cont"
  input_param {
    shape {
      dim: 1
      dim: 1
      dim: 500
    }
    shape {
      dim: 1
      dim: 1
    }
  }
}
layer {
  name: "lstm1_"
  type: "Input"
  top: "c_0"
  top: "h_0"
  input_param {
    shape {
      dim: 1
      dim: 1
      dim: 1000
    }
    shape {
      dim: 1
      dim: 1
      dim: 1000
    }
  }
}
layer {
  name: "lstm1_cont_slice"
  type: "Slice"
  bottom: "cont"
  top: "cont_1"
  slice_param {
    axis: 0
  }
}
layer {
  name: "lstm1_x_transform"
  type: "InnerProduct"
  bottom: "x"
  top: "W_xc_x"
  param {
    name: "W_xc"
  }
  param {
    name: "b_c"
  }
  propagate_down: true
  inner_product_param {
    num_output: 4000
    bias_term: true
    weight_filler {
      type: "uniform"
      min: -0.08
      max: 0.08
    }
    bias_filler {
      type: "constant"
      value: 0
    }
    axis: 2
  }
}
layer {
  name: "lstm1_W_xc_x_slice"
  type: "Slice"
  bottom: "W_xc_x"
  top: "W_xc_x_1"
  slice_param {
    axis: 0
  }
}
layer {
  name: "lstm1_h_conted_0"
  type: "Scale"
  bottom: "h_0"
  bottom: "cont_1"
  top: "h_conted_0"
  scale_param {
    axis: 0
  }
}
layer {
  name: "lstm1_transform_1"
  type: "InnerProduct"
  bottom: "h_conted_0"
  top: "W_hc_h_0"
  param {
    name: "W_hc"
  }
  inner_product_param {
    num_output: 4000
    bias_term: false
    weight_filler {
      type: "uniform"
      min: -0.08
      max: 0.08
    }
    axis: 2
  }
}
layer {
  name: "lstm1_gate_input_1"
  type: "Eltwise"
  bottom: "W_hc_h_0"
  bottom: "W_xc_x_1"
  top: "gate_input_1"
  eltwise_param {
    operation: SUM
  }
}
layer {
  name: "lstm1_unit_1"
  type: "LSTMUnit"
  bottom: "c_0"
  bottom: "gate_input_1"
  bottom: "cont_1"
  top: "c_1"
  top: "h_1"
}
layer {
  name: "lstm1_"
  type: "Split"
  bottom: "c_1"
  top: "c_T"
}
layer {
  name: "lstm1_h_concat"
  type: "Concat"
  bottom: "h_1"
  top: "h"
  concat_param {
    axis: 0
  }
}
layer {
  name: "h_pseudoloss"
  type: "Reduction"
  bottom: "h"
  top: "h_pseudoloss"
  loss_weight: 1
}
I0720 12:24:14.819665 15178 layer_factory.hpp:77] Creating layer lstm1_
I0720 12:24:14.819677 15178 net.cpp:91] Creating Layer lstm1_
I0720 12:24:14.819684 15178 net.cpp:399] lstm1_ -> x
I0720 12:24:14.819695 15178 net.cpp:399] lstm1_ -> cont
I0720 12:24:14.825217 15178 net.cpp:141] Setting up lstm1_
I0720 12:24:14.825237 15178 net.cpp:148] Top shape: 1 1 500 (500)
I0720 12:24:14.825244 15178 net.cpp:148] Top shape: 1 1 (1)
I0720 12:24:14.825248 15178 net.cpp:156] Memory required for data: 2004
I0720 12:24:14.825254 15178 layer_factory.hpp:77] Creating layer lstm1_
I0720 12:24:14.825268 15178 net.cpp:91] Creating Layer lstm1_
I0720 12:24:14.825276 15178 net.cpp:399] lstm1_ -> c_0
I0720 12:24:14.825287 15178 net.cpp:399] lstm1_ -> h_0
I0720 12:24:14.839184 15178 net.cpp:141] Setting up lstm1_
I0720 12:24:14.839220 15178 net.cpp:148] Top shape: 1 1 1000 (1000)
I0720 12:24:14.839226 15178 net.cpp:148] Top shape: 1 1 1000 (1000)
I0720 12:24:14.839231 15178 net.cpp:156] Memory required for data: 10004
I0720 12:24:14.839238 15178 layer_factory.hpp:77] Creating layer lstm1_cont_slice
I0720 12:24:14.839253 15178 net.cpp:91] Creating Layer lstm1_cont_slice
I0720 12:24:14.839259 15178 net.cpp:425] lstm1_cont_slice <- cont
I0720 12:24:14.839270 15178 net.cpp:399] lstm1_cont_slice -> cont_1
I0720 12:24:14.840253 15178 net.cpp:141] Setting up lstm1_cont_slice
I0720 12:24:14.840276 15178 net.cpp:148] Top shape: 1 1 (1)
I0720 12:24:14.840281 15178 net.cpp:156] Memory required for data: 10008
I0720 12:24:14.840286 15178 layer_factory.hpp:77] Creating layer cont_1_lstm1_cont_slice_0_split
I0720 12:24:14.840298 15178 net.cpp:91] Creating Layer cont_1_lstm1_cont_slice_0_split
I0720 12:24:14.840304 15178 net.cpp:425] cont_1_lstm1_cont_slice_0_split <- cont_1
I0720 12:24:14.840312 15178 net.cpp:399] cont_1_lstm1_cont_slice_0_split -> cont_1_lstm1_cont_slice_0_split_0
I0720 12:24:14.840320 15178 net.cpp:399] cont_1_lstm1_cont_slice_0_split -> cont_1_lstm1_cont_slice_0_split_1
I0720 12:24:14.855279 15178 net.cpp:141] Setting up cont_1_lstm1_cont_slice_0_split
I0720 12:24:14.855314 15178 net.cpp:148] Top shape: 1 1 (1)
I0720 12:24:14.855322 15178 net.cpp:148] Top shape: 1 1 (1)
I0720 12:24:14.855326 15178 net.cpp:156] Memory required for data: 10016
I0720 12:24:14.855334 15178 layer_factory.hpp:77] Creating layer lstm1_x_transform
I0720 12:24:14.855356 15178 net.cpp:91] Creating Layer lstm1_x_transform
I0720 12:24:14.855362 15178 net.cpp:425] lstm1_x_transform <- x
I0720 12:24:14.855373 15178 net.cpp:399] lstm1_x_transform -> W_xc_x
I0720 12:24:14.924113 15178 net.cpp:141] Setting up lstm1_x_transform
I0720 12:24:14.924159 15178 net.cpp:148] Top shape: 1 1 4000 (4000)
I0720 12:24:14.924165 15178 net.cpp:156] Memory required for data: 26016
I0720 12:24:14.924190 15178 layer_factory.hpp:77] Creating layer lstm1_W_xc_x_slice
I0720 12:24:14.924216 15178 net.cpp:91] Creating Layer lstm1_W_xc_x_slice
I0720 12:24:14.924222 15178 net.cpp:425] lstm1_W_xc_x_slice <- W_xc_x
I0720 12:24:14.924232 15178 net.cpp:399] lstm1_W_xc_x_slice -> W_xc_x_1
I0720 12:24:14.941987 15178 net.cpp:141] Setting up lstm1_W_xc_x_slice
I0720 12:24:14.942015 15178 net.cpp:148] Top shape: 1 1 4000 (4000)
I0720 12:24:14.942020 15178 net.cpp:156] Memory required for data: 42016
I0720 12:24:14.942026 15178 layer_factory.hpp:77] Creating layer lstm1_h_conted_0
I0720 12:24:14.942050 15178 net.cpp:91] Creating Layer lstm1_h_conted_0
I0720 12:24:14.942056 15178 net.cpp:425] lstm1_h_conted_0 <- h_0
I0720 12:24:14.942064 15178 net.cpp:425] lstm1_h_conted_0 <- cont_1_lstm1_cont_slice_0_split_0
I0720 12:24:14.942070 15178 net.cpp:399] lstm1_h_conted_0 -> h_conted_0
I0720 12:24:14.955070 15178 net.cpp:141] Setting up lstm1_h_conted_0
I0720 12:24:14.955096 15178 net.cpp:148] Top shape: 1 1 1000 (1000)
I0720 12:24:14.955101 15178 net.cpp:156] Memory required for data: 46016
I0720 12:24:14.955106 15178 layer_factory.hpp:77] Creating layer lstm1_transform_1
I0720 12:24:14.955126 15178 net.cpp:91] Creating Layer lstm1_transform_1
I0720 12:24:14.955132 15178 net.cpp:425] lstm1_transform_1 <- h_conted_0
I0720 12:24:14.955142 15178 net.cpp:399] lstm1_transform_1 -> W_hc_h_0
I0720 12:24:14.976130 15174 net.cpp:141] Setting up embedding
I0720 12:24:14.976178 15174 net.cpp:148] Top shape: 1 1 500 (500)
I0720 12:24:14.976184 15174 net.cpp:156] Memory required for data: 22408
I0720 12:24:14.976207 15174 layer_factory.hpp:77] Creating layer lstm1
I0720 12:24:14.976240 15174 net.cpp:91] Creating Layer lstm1
I0720 12:24:14.976248 15174 net.cpp:425] lstm1 <- embedded_input_frames
I0720 12:24:14.976254 15174 net.cpp:425] lstm1 <- cont_sentence_input_1_split_0
I0720 12:24:14.976264 15174 net.cpp:399] lstm1 -> lstm1
I0720 12:24:14.976277 15174 recurrent_layer.cpp:20] Initializing recurrent layer: assuming input batch contains 1 timesteps of 1 independent streams.
I0720 12:24:14.976588 15174 net.cpp:49] Initializing net from parameters: 
layer {
  name: "lstm1_"
  type: "Input"
  top: "x"
  top: "cont"
  input_param {
    shape {
      dim: 1
      dim: 1
      dim: 500
    }
    shape {
      dim: 1
      dim: 1
    }
  }
}
layer {
  name: "lstm1_"
  type: "Input"
  top: "c_0"
  top: "h_0"
  input_param {
    shape {
      dim: 1
      dim: 1
      dim: 1000
    }
    shape {
      dim: 1
      dim: 1
      dim: 1000
    }
  }
}
layer {
  name: "lstm1_cont_slice"
  type: "Slice"
  bottom: "cont"
  top: "cont_1"
  slice_param {
    axis: 0
  }
}
layer {
  name: "lstm1_x_transform"
  type: "InnerProduct"
  bottom: "x"
  top: "W_xc_x"
  param {
    name: "W_xc"
  }
  param {
    name: "b_c"
  }
  propagate_down: true
  inner_product_param {
    num_output: 4000
    bias_term: true
    weight_filler {
      type: "uniform"
      min: -0.08
      max: 0.08
    }
    bias_filler {
      type: "constant"
      value: 0
    }
    axis: 2
  }
}
layer {
  name: "lstm1_W_xc_x_slice"
  type: "Slice"
  bottom: "W_xc_x"
  top: "W_xc_x_1"
  slice_param {
    axis: 0
  }
}
layer {
  name: "lstm1_h_conted_0"
  type: "Scale"
  bottom: "h_0"
  bottom: "cont_1"
  top: "h_conted_0"
  scale_param {
    axis: 0
  }
}
layer {
  name: "lstm1_transform_1"
  type: "InnerProduct"
  bottom: "h_conted_0"
  top: "W_hc_h_0"
  param {
    name: "W_hc"
  }
  inner_product_param {
    num_output: 4000
    bias_term: false
    weight_filler {
      type: "uniform"
      min: -0.08
      max: 0.08
    }
    axis: 2
  }
}
layer {
  name: "lstm1_gate_input_1"
  type: "Eltwise"
  bottom: "W_hc_h_0"
  bottom: "W_xc_x_1"
  top: "gate_input_1"
  eltwise_param {
    operation: SUM
  }
}
layer {
  name: "lstm1_unit_1"
  type: "LSTMUnit"
  bottom: "c_0"
  bottom: "gate_input_1"
  bottom: "cont_1"
  top: "c_1"
  top: "h_1"
}
layer {
  name: "lstm1_"
  type: "Split"
  bottom: "c_1"
  top: "c_T"
}
layer {
  name: "lstm1_h_concat"
  type: "Concat"
  bottom: "h_1"
  top: "h"
  concat_param {
    axis: 0
  }
}
layer {
  name: "h_pseudoloss"
  type: "Reduction"
  bottom: "h"
  top: "h_pseudoloss"
  loss_weight: 1
}
I0720 12:24:14.976671 15174 layer_factory.hpp:77] Creating layer lstm1_
I0720 12:24:14.976683 15174 net.cpp:91] Creating Layer lstm1_
I0720 12:24:14.976691 15174 net.cpp:399] lstm1_ -> x
I0720 12:24:14.976701 15174 net.cpp:399] lstm1_ -> cont
I0720 12:24:15.002482 15174 net.cpp:141] Setting up lstm1_
I0720 12:24:15.002526 15174 net.cpp:148] Top shape: 1 1 500 (500)
I0720 12:24:15.002535 15174 net.cpp:148] Top shape: 1 1 (1)
I0720 12:24:15.002540 15174 net.cpp:156] Memory required for data: 2004
I0720 12:24:15.002550 15174 layer_factory.hpp:77] Creating layer lstm1_
I0720 12:24:15.002573 15174 net.cpp:91] Creating Layer lstm1_
I0720 12:24:15.002580 15174 net.cpp:399] lstm1_ -> c_0
I0720 12:24:15.002598 15174 net.cpp:399] lstm1_ -> h_0
I0720 12:24:15.003271 15174 net.cpp:141] Setting up lstm1_
I0720 12:24:15.003283 15174 net.cpp:148] Top shape: 1 1 1000 (1000)
I0720 12:24:15.003289 15174 net.cpp:148] Top shape: 1 1 1000 (1000)
I0720 12:24:15.003293 15174 net.cpp:156] Memory required for data: 10004
I0720 12:24:15.003298 15174 layer_factory.hpp:77] Creating layer lstm1_cont_slice
I0720 12:24:15.003314 15174 net.cpp:91] Creating Layer lstm1_cont_slice
I0720 12:24:15.003319 15174 net.cpp:425] lstm1_cont_slice <- cont
I0720 12:24:15.003327 15174 net.cpp:399] lstm1_cont_slice -> cont_1
I0720 12:24:15.005035 15174 net.cpp:141] Setting up lstm1_cont_slice
I0720 12:24:15.005054 15174 net.cpp:148] Top shape: 1 1 (1)
I0720 12:24:15.005060 15174 net.cpp:156] Memory required for data: 10008
I0720 12:24:15.005065 15174 layer_factory.hpp:77] Creating layer cont_1_lstm1_cont_slice_0_split
I0720 12:24:15.005079 15174 net.cpp:91] Creating Layer cont_1_lstm1_cont_slice_0_split
I0720 12:24:15.005085 15174 net.cpp:425] cont_1_lstm1_cont_slice_0_split <- cont_1
I0720 12:24:15.005092 15174 net.cpp:399] cont_1_lstm1_cont_slice_0_split -> cont_1_lstm1_cont_slice_0_split_0
I0720 12:24:15.005101 15174 net.cpp:399] cont_1_lstm1_cont_slice_0_split -> cont_1_lstm1_cont_slice_0_split_1
I0720 12:24:15.021809 15174 net.cpp:141] Setting up cont_1_lstm1_cont_slice_0_split
I0720 12:24:15.021853 15174 net.cpp:148] Top shape: 1 1 (1)
I0720 12:24:15.021862 15174 net.cpp:148] Top shape: 1 1 (1)
I0720 12:24:15.021865 15174 net.cpp:156] Memory required for data: 10016
I0720 12:24:15.021873 15174 layer_factory.hpp:77] Creating layer lstm1_x_transform
I0720 12:24:15.021899 15174 net.cpp:91] Creating Layer lstm1_x_transform
I0720 12:24:15.021906 15174 net.cpp:425] lstm1_x_transform <- x
I0720 12:24:15.021917 15174 net.cpp:399] lstm1_x_transform -> W_xc_x
I0720 12:24:15.031931 15178 net.cpp:141] Setting up lstm1_transform_1
I0720 12:24:15.031966 15178 net.cpp:148] Top shape: 1 1 4000 (4000)
I0720 12:24:15.031972 15178 net.cpp:156] Memory required for data: 62016
I0720 12:24:15.031987 15178 layer_factory.hpp:77] Creating layer lstm1_gate_input_1
I0720 12:24:15.032016 15178 net.cpp:91] Creating Layer lstm1_gate_input_1
I0720 12:24:15.032024 15178 net.cpp:425] lstm1_gate_input_1 <- W_hc_h_0
I0720 12:24:15.032032 15178 net.cpp:425] lstm1_gate_input_1 <- W_xc_x_1
I0720 12:24:15.032040 15178 net.cpp:399] lstm1_gate_input_1 -> gate_input_1
I0720 12:24:15.036619 15178 net.cpp:141] Setting up lstm1_gate_input_1
I0720 12:24:15.036651 15178 net.cpp:148] Top shape: 1 1 4000 (4000)
I0720 12:24:15.036658 15178 net.cpp:156] Memory required for data: 78016
I0720 12:24:15.036665 15178 layer_factory.hpp:77] Creating layer lstm1_unit_1
I0720 12:24:15.036689 15178 net.cpp:91] Creating Layer lstm1_unit_1
I0720 12:24:15.036696 15178 net.cpp:425] lstm1_unit_1 <- c_0
I0720 12:24:15.036705 15178 net.cpp:425] lstm1_unit_1 <- gate_input_1
I0720 12:24:15.036710 15178 net.cpp:425] lstm1_unit_1 <- cont_1_lstm1_cont_slice_0_split_1
I0720 12:24:15.036717 15178 net.cpp:399] lstm1_unit_1 -> c_1
I0720 12:24:15.036730 15178 net.cpp:399] lstm1_unit_1 -> h_1
I0720 12:24:15.047855 15178 net.cpp:141] Setting up lstm1_unit_1
I0720 12:24:15.047896 15178 net.cpp:148] Top shape: 1 1 1000 (1000)
I0720 12:24:15.047904 15178 net.cpp:148] Top shape: 1 1 1000 (1000)
I0720 12:24:15.047907 15178 net.cpp:156] Memory required for data: 86016
I0720 12:24:15.047916 15178 layer_factory.hpp:77] Creating layer lstm1_
I0720 12:24:15.047933 15178 net.cpp:91] Creating Layer lstm1_
I0720 12:24:15.047940 15178 net.cpp:425] lstm1_ <- c_1
I0720 12:24:15.047950 15178 net.cpp:399] lstm1_ -> c_T
I0720 12:24:15.049810 15178 net.cpp:141] Setting up lstm1_
I0720 12:24:15.049825 15178 net.cpp:148] Top shape: 1 1 1000 (1000)
I0720 12:24:15.049829 15178 net.cpp:156] Memory required for data: 90016
I0720 12:24:15.049834 15178 layer_factory.hpp:77] Creating layer lstm1_h_concat
I0720 12:24:15.049845 15178 net.cpp:91] Creating Layer lstm1_h_concat
I0720 12:24:15.049850 15178 net.cpp:425] lstm1_h_concat <- h_1
I0720 12:24:15.049862 15178 net.cpp:399] lstm1_h_concat -> h
I0720 12:24:15.050030 15178 net.cpp:141] Setting up lstm1_h_concat
I0720 12:24:15.050041 15178 net.cpp:148] Top shape: 1 1 1000 (1000)
I0720 12:24:15.050045 15178 net.cpp:156] Memory required for data: 94016
I0720 12:24:15.050050 15178 layer_factory.hpp:77] Creating layer h_pseudoloss
I0720 12:24:15.050065 15178 net.cpp:91] Creating Layer h_pseudoloss
I0720 12:24:15.050070 15178 net.cpp:425] h_pseudoloss <- h
I0720 12:24:15.050076 15178 net.cpp:399] h_pseudoloss -> h_pseudoloss
I0720 12:24:15.054203 15178 net.cpp:141] Setting up h_pseudoloss
…
I0720 12:24:15.054363 15178 net.cpp:219] lstm1_ does not need backward computation.
I0720 12:24:15.054368 15178 net.cpp:261] This network produces output c_T
I0720 12:24:15.054373 15178 net.cpp:261] This network produces output h_pseudoloss
I0720 12:24:15.054390 15178 net.cpp:274] Network initialization done.
I0720 12:24:15.054450 15178 recurrent_layer.cpp:150] Adding parameter 0: W_xc
I0720 12:24:15.054457 15178 recurrent_layer.cpp:150] Adding parameter 1: b_c
I0720 12:24:15.054462 15178 recurrent_layer.cpp:150] Adding parameter 2: W_hc
I0720 12:24:15.061658 15178 net.cpp:141] Setting up lstm1
I0720 12:24:15.061683 15178 net.cpp:148] Top shape: 1 1 1000 (1000)
I0720 12:24:15.061689 15178 net.cpp:156] Memory required for data: 26408
I0720 12:24:15.061705 15178 layer_factory.hpp:77] Creating layer concat
I0720 12:24:15.061715 15178 net.cpp:91] Creating Layer concat
I0720 12:24:15.061722 15178 net.cpp:425] concat <- lstm1
I0720 12:24:15.061728 15178 net.cpp:425] concat <- embedded_input_sentence
I0720 12:24:15.061733 15178 net.cpp:425] concat <- reshaped_stage_indicator
I0720 12:24:15.061740 15178 net.cpp:399] concat -> lstm1_video_sequence
I0720 12:24:15.065376 15178 net.cpp:141] Setting up concat
I0720 12:24:15.065394 15178 net.cpp:148] Top shape: 1 1 1501 (1501)
I0720 12:24:15.065399 15178 net.cpp:156] Memory required for data: 32412
I0720 12:24:15.065405 15178 layer_factory.hpp:77] Creating layer lstm2
I0720 12:24:15.065421 15178 net.cpp:91] Creating Layer lstm2
I0720 12:24:15.065428 15178 net.cpp:425] lstm2 <- lstm1_video_sequence
I0720 12:24:15.065434 15178 net.cpp:425] lstm2 <- cont_sentence_input_1_split_1
I0720 12:24:15.065441 15178 net.cpp:399] lstm2 -> lstm2
I0720 12:24:15.065453 15178 recurrent_layer.cpp:20] Initializing recurrent layer: assuming input batch contains 1 timesteps of 1 independent streams.
I0720 12:24:15.065683 15178 net.cpp:49] Initializing net from parameters: 
layer {
  name: "lstm2_"
  type: "Input"
  top: "x"
  top: "cont"
  input_param {
    shape {
      dim: 1
      dim: 1
      dim: 1501
    }
    shape {
      dim: 1
      dim: 1
    }
  }
}
layer {
  name: "lstm2_"
  type: "Input"
  top: "c_0"
  top: "h_0"
  input_param {
    shape {
      dim: 1
      dim: 1
      dim: 1000
    }
    shape {
      dim: 1
      dim: 1
      dim: 1000
    }
  }
}
layer {
  name: "lstm2_cont_slice"
  type: "Slice"
  bottom: "cont"
  top: "cont_1"
  slice_param {
    axis: 0
  }
}
layer {
  name: "lstm2_x_transform"
  type: "InnerProduct"
  bottom: "x"
  top: "W_xc_x"
  param {
    name: "W_xc"
  }
  param {
    name: "b_c"
  }
  propagate_down: true
  inner_product_param {
    num_output: 4000
    bias_term: true
    weight_filler {
      type: "uniform"
      min: -0.08
      max: 0.08
    }
    bias_filler {
      type: "constant"
      value: 0
    }
    axis: 2
  }
}
layer {
  name: "lstm2_W_xc_x_slice"
  type: "Slice"
  bottom: "W_xc_x"
  top: "W_xc_x_1"
  slice_param {
    axis: 0
  }
}
layer {
  name: "lstm2_h_conted_0"
  type: "Scale"
  bottom: "h_0"
  bottom: "cont_1"
  top: "h_conted_0"
  scale_param {
    axis: 0
  }
}
layer {
  name: "lstm2_transform_1"
  type: "InnerProduct"
  bottom: "h_conted_0"
  top: "W_hc_h_0"
  param {
    name: "W_hc"
  }
  inner_product_param {
    num_output: 4000
    bias_term: false
    weight_filler {
      type: "uniform"
      min: -0.08
      max: 0.08
    }
    axis: 2
  }
}
layer {
  name: "lstm2_gate_input_1"
  type: "Eltwise"
  bottom: "W_hc_h_0"
  bottom: "W_xc_x_1"
  top: "gate_input_1"
  eltwise_param {
    operation: SUM
  }
}
layer {
  name: "lstm2_unit_1"
  type: "LSTMUnit"
  bottom: "c_0"
  bottom: "gate_input_1"
  bottom: "cont_1"
  top: "c_1"
  top: "h_1"
}
layer {
  name: "lstm2_"
  type: "Split"
  bottom: "c_1"
  top: "c_T"
}
layer {
  name: "lstm2_h_concat"
  type: "Concat"
  bottom: "h_1"
  top: "h"
  concat_param {
    axis: 0
  }
}
layer {
  name: "h_pseudoloss"
  type: "Reduction"
  bottom: "h"
  top: "h_pseudoloss"
  loss_weight: 1
}
I0720 12:24:15.065773 15178 layer_factory.hpp:77] Creating layer lstm2_
I0720 12:24:15.065785 15178 net.cpp:91] Creating Layer lstm2_
I0720 12:24:15.065791 15178 net.cpp:399] lstm2_ -> x
I0720 12:24:15.065803 15178 net.cpp:399] lstm2_ -> cont
I0720 12:24:15.065963 15186 net.cpp:141] Setting up conv1
I0720 12:24:15.065985 15186 net.cpp:148] Top shape: 10 96 55 55 (2904000)
I0720 12:24:15.065991 15186 net.cpp:156] Memory required for data: 17799480
I0720 12:24:15.066007 15186 layer_factory.hpp:77] Creating layer relu1
I0720 12:24:15.066018 15186 net.cpp:91] Creating Layer relu1
I0720 12:24:15.066025 15186 net.cpp:425] relu1 <- conv1
I0720 12:24:15.066031 15186 net.cpp:386] relu1 -> conv1 (in-place)
I0720 12:24:15.069365 15178 net.cpp:141] Setting up lstm2_
I0720 12:24:15.069382 15178 net.cpp:148] Top shape: 1 1 1501 (1501)
I0720 12:24:15.069389 15178 net.cpp:148] Top shape: 1 1 (1)
I0720 12:24:15.069393 15178 net.cpp:156] Memory required for data: 6008
I0720 12:24:15.069396 15186 net.cpp:141] Setting up relu1
I0720 12:24:15.069399 15178 layer_factory.hpp:77] Creating layer lstm2_
I0720 12:24:15.069413 15186 net.cpp:148] Top shape: 10 96 55 55 (2904000)
I0720 12:24:15.069418 15186 net.cpp:156] Memory required for data: 29415480
I0720 12:24:15.069418 15178 net.cpp:91] Creating Layer lstm2_
I0720 12:24:15.069424 15186 layer_factory.hpp:77] Creating layer pool1
I0720 12:24:15.069432 15178 net.cpp:399] lstm2_ -> c_0
I0720 12:24:15.069438 15186 net.cpp:91] Creating Layer pool1
I0720 12:24:15.069444 15186 net.cpp:425] pool1 <- conv1
I0720 12:24:15.069444 15178 net.cpp:399] lstm2_ -> h_0
I0720 12:24:15.069442 15174 net.cpp:141] Setting up lstm1_x_transform
I0720 12:24:15.069453 15186 net.cpp:399] pool1 -> pool1
I0720 12:24:15.069461 15174 net.cpp:148] Top shape: 1 1 4000 (4000)
I0720 12:24:15.069466 15174 net.cpp:156] Memory required for data: 26016
I0720 12:24:15.069483 15174 layer_factory.hpp:77] Creating layer lstm1_W_xc_x_slice
I0720 12:24:15.069492 15174 net.cpp:91] Creating Layer lstm1_W_xc_x_slice
I0720 12:24:15.069499 15174 net.cpp:425] lstm1_W_xc_x_slice <- W_xc_x
I0720 12:24:15.069506 15174 net.cpp:399] lstm1_W_xc_x_slice -> W_xc_x_1
I0720 12:24:15.069759 15178 net.cpp:141] Setting up lstm2_
I0720 12:24:15.069772 15178 net.cpp:148] Top shape: 1 1 1000 (1000)
I0720 12:24:15.069777 15178 net.cpp:148] Top shape: 1 1 1000 (1000)
I0720 12:24:15.069782 15178 net.cpp:156] Memory required for data: 14008
I0720 12:24:15.069787 15178 layer_factory.hpp:77] Creating layer lstm2_cont_slice
I0720 12:24:15.069794 15178 net.cpp:91] Creating Layer lstm2_cont_slice
I0720 12:24:15.069797 15174 net.cpp:141] Setting up lstm1_W_xc_x_slice
I0720 12:24:15.069799 15178 net.cpp:425] lstm2_cont_slice <- cont
I0720 12:24:15.069810 15174 net.cpp:148] Top shape: 1 1 4000 (4000)
I0720 12:24:15.069814 15174 net.cpp:156] Memory required for data: 42016
I0720 12:24:15.069815 15178 net.cpp:399] lstm2_cont_slice -> cont_1
I0720 12:24:15.069819 15174 layer_factory.hpp:77] Creating layer lstm1_h_conted_0
I0720 12:24:15.069831 15174 net.cpp:91] Creating Layer lstm1_h_conted_0
I0720 12:24:15.069836 15174 net.cpp:425] lstm1_h_conted_0 <- h_0
I0720 12:24:15.069842 15174 net.cpp:425] lstm1_h_conted_0 <- cont_1_lstm1_cont_slice_0_split_0
I0720 12:24:15.069841 15186 net.cpp:141] Setting up pool1
I0720 12:24:15.069849 15174 net.cpp:399] lstm1_h_conted_0 -> h_conted_0
I0720 12:24:15.069854 15186 net.cpp:148] Top shape: 10 96 27 27 (699840)
I0720 12:24:15.069859 15186 net.cpp:156] Memory required for data: 32214840
I0720 12:24:15.069864 15186 layer_factory.hpp:77] Creating layer norm1
I0720 12:24:15.069878 15186 net.cpp:91] Creating Layer norm1
I0720 12:24:15.069881 15178 net.cpp:141] Setting up lstm2_cont_slice
I0720 12:24:15.069885 15186 net.cpp:425] norm1 <- pool1
I0720 12:24:15.069895 15178 net.cpp:148] Top shape: 1 1 (1)
I0720 12:24:15.069897 15186 net.cpp:399] norm1 -> norm1
I0720 12:24:15.069898 15178 net.cpp:156] Memory required for data: 14012
I0720 12:24:15.069911 15178 layer_factory.hpp:77] Creating layer cont_1_lstm2_cont_slice_0_split
I0720 12:24:15.069921 15178 net.cpp:91] Creating Layer cont_1_lstm2_cont_slice_0_split
I0720 12:24:15.069926 15178 net.cpp:425] cont_1_lstm2_cont_slice_0_split <- cont_1
I0720 12:24:15.069932 15178 net.cpp:399] cont_1_lstm2_cont_slice_0_split -> cont_1_lstm2_cont_slice_0_split_0
I0720 12:24:15.069939 15178 net.cpp:399] cont_1_lstm2_cont_slice_0_split -> cont_1_lstm2_cont_slice_0_split_1
I0720 12:24:15.070801 15178 net.cpp:141] Setting up cont_1_lstm2_cont_slice_0_split
I0720 12:24:15.070813 15178 net.cpp:148] Top shape: 1 1 (1)
I0720 12:24:15.070819 15178 net.cpp:148] Top shape: 1 1 (1)
I0720 12:24:15.070823 15178 net.cpp:156] Memory required for data: 14020
I0720 12:24:15.070828 15178 layer_factory.hpp:77] Creating layer lstm2_x_transform
I0720 12:24:15.070827 15174 net.cpp:141] Setting up lstm1_h_conted_0
I0720 12:24:15.070843 15174 net.cpp:148] Top shape: 1 1 1000 (1000)
I0720 12:24:15.070844 15178 net.cpp:91] Creating Layer lstm2_x_transform
I0720 12:24:15.070849 15174 net.cpp:156] Memory required for data: 46016
I0720 12:24:15.070852 15178 net.cpp:425] lstm2_x_transform <- x
I0720 12:24:15.070854 15174 layer_factory.hpp:77] Creating layer lstm1_transform_1
I0720 12:24:15.070859 15178 net.cpp:399] lstm2_x_transform -> W_xc_x
I0720 12:24:15.070864 15174 net.cpp:91] Creating Layer lstm1_transform_1
I0720 12:24:15.070869 15174 net.cpp:425] lstm1_transform_1 <- h_conted_0
I0720 12:24:15.070883 15174 net.cpp:399] lstm1_transform_1 -> W_hc_h_0
I0720 12:24:15.071856 15186 net.cpp:141] Setting up norm1
I0720 12:24:15.071869 15186 net.cpp:148] Top shape: 10 96 27 27 (699840)
I0720 12:24:15.071874 15186 net.cpp:156] Memory required for data: 35014200
I0720 12:24:15.071880 15186 layer_factory.hpp:77] Creating layer conv2
I0720 12:24:15.071893 15186 net.cpp:91] Creating Layer conv2
I0720 12:24:15.071898 15186 net.cpp:425] conv2 <- norm1
I0720 12:24:15.071907 15186 net.cpp:399] conv2 -> conv2
I0720 12:24:15.097559 15172 net.cpp:141] Setting up conv1
I0720 12:24:15.097627 15172 net.cpp:148] Top shape: 10 96 55 55 (2904000)
I0720 12:24:15.097635 15172 net.cpp:156] Memory required for data: 17799480
I0720 12:24:15.097661 15172 layer_factory.hpp:77] Creating layer relu1
I0720 12:24:15.097684 15172 net.cpp:91] Creating Layer relu1
I0720 12:24:15.097692 15172 net.cpp:425] relu1 <- conv1
I0720 12:24:15.097702 15172 net.cpp:386] relu1 -> conv1 (in-place)
I0720 12:24:15.098482 15172 net.cpp:141] Setting up relu1
I0720 12:24:15.098498 15172 net.cpp:148] Top shape: 10 96 55 55 (2904000)
I0720 12:24:15.098503 15172 net.cpp:156] Memory required for data: 29415480
I0720 12:24:15.098508 15172 layer_factory.hpp:77] Creating layer pool1
I0720 12:24:15.098523 15172 net.cpp:91] Creating Layer pool1
I0720 12:24:15.098528 15172 net.cpp:425] pool1 <- conv1
I0720 12:24:15.098536 15172 net.cpp:399] pool1 -> pool1
I0720 12:24:15.098942 15172 net.cpp:141] Setting up pool1
I0720 12:24:15.098953 15172 net.cpp:148] Top shape: 10 96 27 27 (699840)
I0720 12:24:15.098958 15172 net.cpp:156] Memory required for data: 32214840
I0720 12:24:15.098965 15172 layer_factory.hpp:77] Creating layer norm1
I0720 12:24:15.098980 15172 net.cpp:91] Creating Layer norm1
I0720 12:24:15.098985 15172 net.cpp:425] norm1 <- pool1
I0720 12:24:15.098992 15172 net.cpp:399] norm1 -> norm1
I0720 12:24:15.100656 15172 net.cpp:141] Setting up norm1
I0720 12:24:15.100674 15172 net.cpp:148] Top shape: 10 96 27 27 (699840)
I0720 12:24:15.100679 15172 net.cpp:156] Memory required for data: 35014200
I0720 12:24:15.100687 15172 layer_factory.hpp:77] Creating layer conv2
I0720 12:24:15.100705 15172 net.cpp:91] Creating Layer conv2
I0720 12:24:15.100711 15172 net.cpp:425] conv2 <- norm1
I0720 12:24:15.100719 15172 net.cpp:399] conv2 -> conv2
I0720 12:24:15.104323 15186 net.cpp:141] Setting up conv2
I0720 12:24:15.104367 15186 net.cpp:148] Top shape: 10 256 27 27 (1866240)
I0720 12:24:15.104374 15186 net.cpp:156] Memory required for data: 42479160
I0720 12:24:15.104395 15186 layer_factory.hpp:77] Creating layer relu2
I0720 12:24:15.104410 15186 net.cpp:91] Creating Layer relu2
I0720 12:24:15.104416 15186 net.cpp:425] relu2 <- conv2
I0720 12:24:15.104424 15186 net.cpp:386] relu2 -> conv2 (in-place)
I0720 12:24:15.105521 15186 net.cpp:141] Setting up relu2
I0720 12:24:15.105546 15186 net.cpp:148] Top shape: 10 256 27 27 (1866240)
I0720 12:24:15.105556 15186 net.cpp:156] Memory required for data: 49944120
I0720 12:24:15.105567 15186 layer_factory.hpp:77] Creating layer pool2
I0720 12:24:15.105583 15186 net.cpp:91] Creating Layer pool2
I0720 12:24:15.105593 15186 net.cpp:425] pool2 <- conv2
I0720 12:24:15.105607 15186 net.cpp:399] pool2 -> pool2
I0720 12:24:15.106035 15186 net.cpp:141] Setting up pool2
I0720 12:24:15.106060 15186 net.cpp:148] Top shape: 10 256 13 13 (432640)
I0720 12:24:15.106067 15186 net.cpp:156] Memory required for data: 51674680
I0720 12:24:15.106076 15186 layer_factory.hpp:77] Creating layer norm2
I0720 12:24:15.106101 15186 net.cpp:91] Creating Layer norm2
I0720 12:24:15.106112 15186 net.cpp:425] norm2 <- pool2
I0720 12:24:15.106128 15186 net.cpp:399] norm2 -> norm2
I0720 12:24:15.107206 15186 net.cpp:141] Setting up norm2
I0720 12:24:15.107229 15186 net.cpp:148] Top shape: 10 256 13 13 (432640)
I0720 12:24:15.107239 15186 net.cpp:156] Memory required for data: 53405240
I0720 12:24:15.107246 15186 layer_factory.hpp:77] Creating layer conv3
I0720 12:24:15.107275 15186 net.cpp:91] Creating Layer conv3
I0720 12:24:15.107285 15186 net.cpp:425] conv3 <- norm2
I0720 12:24:15.107296 15186 net.cpp:399] conv3 -> conv3
I0720 12:24:15.112103 15172 net.cpp:141] Setting up conv2
I0720 12:24:15.112152 15172 net.cpp:148] Top shape: 10 256 27 27 (1866240)
I0720 12:24:15.112159 15172 net.cpp:156] Memory required for data: 42479160
I0720 12:24:15.112179 15172 layer_factory.hpp:77] Creating layer relu2
I0720 12:24:15.112195 15172 net.cpp:91] Creating Layer relu2
I0720 12:24:15.112200 15172 net.cpp:425] relu2 <- conv2
I0720 12:24:15.112208 15172 net.cpp:386] relu2 -> conv2 (in-place)
I0720 12:24:15.113540 15172 net.cpp:141] Setting up relu2
I0720 12:24:15.113561 15172 net.cpp:148] Top shape: 10 256 27 27 (1866240)
I0720 12:24:15.113566 15172 net.cpp:156] Memory required for data: 49944120
I0720 12:24:15.113572 15172 layer_factory.hpp:77] Creating layer pool2
I0720 12:24:15.113590 15172 net.cpp:91] Creating Layer pool2
I0720 12:24:15.113595 15172 net.cpp:425] pool2 <- conv2
I0720 12:24:15.113606 15172 net.cpp:399] pool2 -> pool2
I0720 12:24:15.114440 15172 net.cpp:141] Setting up pool2
I0720 12:24:15.114455 15172 net.cpp:148] Top shape: 10 256 13 13 (432640)
I0720 12:24:15.114460 15172 net.cpp:156] Memory required for data: 51674680
I0720 12:24:15.114465 15172 layer_factory.hpp:77] Creating layer norm2
I0720 12:24:15.114478 15172 net.cpp:91] Creating Layer norm2
I0720 12:24:15.114483 15172 net.cpp:425] norm2 <- pool2
I0720 12:24:15.114502 15172 net.cpp:399] norm2 -> norm2
I0720 12:24:15.115701 15172 net.cpp:141] Setting up norm2
I0720 12:24:15.115715 15172 net.cpp:148] Top shape: 10 256 13 13 (432640)
I0720 12:24:15.115720 15172 net.cpp:156] Memory required for data: 53405240
I0720 12:24:15.115725 15172 layer_factory.hpp:77] Creating layer conv3
I0720 12:24:15.115744 15172 net.cpp:91] Creating Layer conv3
I0720 12:24:15.115751 15172 net.cpp:425] conv3 <- norm2
I0720 12:24:15.115757 15172 net.cpp:399] conv3 -> conv3
I0720 12:24:15.116575 15186 net.cpp:141] Setting up conv3
I0720 12:24:15.116622 15186 net.cpp:148] Top shape: 10 384 13 13 (648960)
I0720 12:24:15.116628 15186 net.cpp:156] Memory required for data: 56001080
I0720 12:24:15.116646 15186 layer_factory.hpp:77] Creating layer relu3
I0720 12:24:15.116658 15186 net.cpp:91] Creating Layer relu3
I0720 12:24:15.116664 15186 net.cpp:425] relu3 <- conv3
I0720 12:24:15.116672 15186 net.cpp:386] relu3 -> conv3 (in-place)
I0720 12:24:15.117915 15186 net.cpp:141] Setting up relu3
I0720 12:24:15.117931 15186 net.cpp:148] Top shape: 10 384 13 13 (648960)
I0720 12:24:15.117936 15186 net.cpp:156] Memory required for data: 58596920
I0720 12:24:15.117941 15186 layer_factory.hpp:77] Creating layer conv4
I0720 12:24:15.117959 15186 net.cpp:91] Creating Layer conv4
I0720 12:24:15.117964 15186 net.cpp:425] conv4 <- conv3
I0720 12:24:15.117972 15186 net.cpp:399] conv4 -> conv4
I0720 12:24:15.123668 15174 net.cpp:141] Setting up lstm1_transform_1
I0720 12:24:15.123695 15174 net.cpp:148] Top shape: 1 1 4000 (4000)
I0720 12:24:15.123702 15174 net.cpp:156] Memory required for data: 62016
I0720 12:24:15.123714 15174 layer_factory.hpp:77] Creating layer lstm1_gate_input_1
I0720 12:24:15.123729 15174 net.cpp:91] Creating Layer lstm1_gate_input_1
I0720 12:24:15.123735 15174 net.cpp:425] lstm1_gate_input_1 <- W_hc_h_0
I0720 12:24:15.123742 15174 net.cpp:425] lstm1_gate_input_1 <- W_xc_x_1
I0720 12:24:15.123749 15174 net.cpp:399] lstm1_gate_input_1 -> gate_input_1
I0720 12:24:15.124114 15174 net.cpp:141] Setting up lstm1_gate_input_1
I0720 12:24:15.124125 15174 net.cpp:148] Top shape: 1 1 4000 (4000)
I0720 12:24:15.124130 15174 net.cpp:156] Memory required for data: 78016
I0720 12:24:15.124133 15174 layer_factory.hpp:77] Creating layer lstm1_unit_1
I0720 12:24:15.124145 15174 net.cpp:91] Creating Layer lstm1_unit_1
I0720 12:24:15.124150 15174 net.cpp:425] lstm1_unit_1 <- c_0
I0720 12:24:15.124155 15174 net.cpp:425] lstm1_unit_1 <- gate_input_1
I0720 12:24:15.124161 15174 net.cpp:425] lstm1_unit_1 <- cont_1_lstm1_cont_slice_0_split_1
I0720 12:24:15.124167 15174 net.cpp:399] lstm1_unit_1 -> c_1
I0720 12:24:15.124176 15174 net.cpp:399] lstm1_unit_1 -> h_1
I0720 12:24:15.125565 15174 net.cpp:141] Setting up lstm1_unit_1
I0720 12:24:15.125578 15174 net.cpp:148] Top shape: 1 1 1000 (1000)
I0720 12:24:15.125584 15174 net.cpp:148] Top shape: 1 1 1000 (1000)
I0720 12:24:15.125588 15174 net.cpp:156] Memory required for data: 86016
I0720 12:24:15.125593 15174 layer_factory.hpp:77] Creating layer lstm1_
I0720 12:24:15.125603 15174 net.cpp:91] Creating Layer lstm1_
I0720 12:24:15.125608 15174 net.cpp:425] lstm1_ <- c_1
I0720 12:24:15.125617 15174 net.cpp:399] lstm1_ -> c_T
I0720 12:24:15.125716 15174 net.cpp:141] Setting up lstm1_
I0720 12:24:15.125726 15174 net.cpp:148] Top shape: 1 1 1000 (1000)
I0720 12:24:15.125731 15174 net.cpp:156] Memory required for data: 90016
I0720 12:24:15.125735 15174 layer_factory.hpp:77] Creating layer lstm1_h_concat
I0720 12:24:15.125744 15174 net.cpp:91] Creating Layer lstm1_h_concat
I0720 12:24:15.125748 15174 net.cpp:425] lstm1_h_concat <- h_1
I0720 12:24:15.125757 15174 net.cpp:399] lstm1_h_concat -> h
I0720 12:24:15.126077 15174 net.cpp:141] Setting up lstm1_h_concat
I0720 12:24:15.126087 15174 net.cpp:148] Top shape: 1 1 1000 (1000)
I0720 12:24:15.126091 15174 net.cpp:156] Memory required for data: 94016
I0720 12:24:15.126096 15174 layer_factory.hpp:77] Creating layer h_pseudoloss
I0720 12:24:15.126104 15174 net.cpp:91] Creating Layer h_pseudoloss
I0720 12:24:15.126109 15174 net.cpp:425] h_pseudoloss <- h
I0720 12:24:15.126116 15174 net.cpp:399] h_pseudoloss -> h_pseudoloss
I0720 12:24:15.127153 15174 net.cpp:141] Setting up h_pseudoloss
…
I0720 12:24:15.127236 15174 net.cpp:219] cont_1_lstm1_cont_slice_0_split does not need backward computation.
I0720 12:24:15.127241 15174 net.cpp:219] lstm1_cont_slice does not need backward computation.
I0720 12:24:15.127246 15174 net.cpp:219] lstm1_ does not need backward computation.
I0720 12:24:15.127250 15174 net.cpp:219] lstm1_ does not need backward computation.
I0720 12:24:15.127254 15174 net.cpp:261] This network produces output c_T
I0720 12:24:15.127259 15174 net.cpp:261] This network produces output h_pseudoloss
I0720 12:24:15.127274 15174 net.cpp:274] Network initialization done.
I0720 12:24:15.127271 15172 net.cpp:141] Setting up conv3
I0720 12:24:15.127320 15172 net.cpp:148] Top shape: 10 384 13 13 (648960)
I0720 12:24:15.127328 15174 recurrent_layer.cpp:150] Adding parameter 0: W_xc
I0720 12:24:15.127329 15172 net.cpp:156] Memory required for data: 56001080
I0720 12:24:15.127336 15174 recurrent_layer.cpp:150] Adding parameter 1: b_c
I0720 12:24:15.127341 15174 recurrent_layer.cpp:150] Adding parameter 2: W_hc
I0720 12:24:15.127362 15172 layer_factory.hpp:77] Creating layer relu3
I0720 12:24:15.127391 15172 net.cpp:91] Creating Layer relu3
I0720 12:24:15.127403 15172 net.cpp:425] relu3 <- conv3
I0720 12:24:15.127418 15172 net.cpp:386] relu3 -> conv3 (in-place)
I0720 12:24:15.128971 15174 net.cpp:141] Setting up lstm1
I0720 12:24:15.128985 15174 net.cpp:148] Top shape: 1 1 1000 (1000)
I0720 12:24:15.128990 15174 net.cpp:156] Memory required for data: 26408
I0720 12:24:15.129004 15174 layer_factory.hpp:77] Creating layer concat
I0720 12:24:15.129012 15174 net.cpp:91] Creating Layer concat
I0720 12:24:15.129019 15174 net.cpp:425] concat <- lstm1
I0720 12:24:15.129025 15174 net.cpp:425] concat <- embedded_input_sentence
I0720 12:24:15.129030 15174 net.cpp:425] concat <- reshaped_stage_indicator
I0720 12:24:15.129036 15174 net.cpp:399] concat -> lstm1_video_sequence
I0720 12:24:15.129163 15174 net.cpp:141] Setting up concat
I0720 12:24:15.129159 15172 net.cpp:141] Setting up relu3
I0720 12:24:15.129176 15174 net.cpp:148] Top shape: 1 1 1501 (1501)
I0720 12:24:15.129195 15174 net.cpp:156] Memory required for data: 32412
I0720 12:24:15.129202 15174 layer_factory.hpp:77] Creating layer lstm2
I0720 12:24:15.129199 15172 net.cpp:148] Top shape: 10 384 13 13 (648960)
I0720 12:24:15.129226 15172 net.cpp:156] Memory required for data: 58596920
I0720 12:24:15.129238 15172 layer_factory.hpp:77] Creating layer conv4
I0720 12:24:15.129243 15186 net.cpp:141] Setting up conv4
I0720 12:24:15.129245 15174 net.cpp:91] Creating Layer lstm2
I0720 12:24:15.129262 15172 net.cpp:91] Creating Layer conv4
I0720 12:24:15.129267 15186 net.cpp:148] Top shape: 10 384 13 13 (648960)
I0720 12:24:15.129268 15174 net.cpp:425] lstm2 <- lstm1_video_sequence
I0720 12:24:15.129273 15172 net.cpp:425] conv4 <- conv3
I0720 12:24:15.129281 15174 net.cpp:425] lstm2 <- cont_sentence_input_1_split_1
I0720 12:24:15.129276 15186 net.cpp:156] Memory required for data: 61192760
I0720 12:24:15.129290 15174 net.cpp:399] lstm2 -> lstm2
I0720 12:24:15.129297 15186 layer_factory.hpp:77] Creating layer relu4
I0720 12:24:15.129299 15172 net.cpp:399] conv4 -> conv4
I0720 12:24:15.129310 15186 net.cpp:91] Creating Layer relu4
I0720 12:24:15.129302 15174 recurrent_layer.cpp:20] Initializing recurrent layer: assuming input batch contains 1 timesteps of 1 independent streams.
I0720 12:24:15.129317 15186 net.cpp:425] relu4 <- conv4
I0720 12:24:15.129324 15186 net.cpp:386] relu4 -> conv4 (in-place)
I0720 12:24:15.129542 15174 net.cpp:49] Initializing net from parameters: 
layer {
  name: "lstm2_"
  type: "Input"
  top: "x"
  top: "cont"
  input_param {
    shape {
      dim: 1
      dim: 1
      dim: 1501
    }
    shape {
      dim: 1
      dim: 1
    }
  }
}
layer {
  name: "lstm2_"
  type: "Input"
  top: "c_0"
  top: "h_0"
  input_param {
    shape {
      dim: 1
      dim: 1
      dim: 1000
    }
    shape {
      dim: 1
      dim: 1
      dim: 1000
    }
  }
}
layer {
  name: "lstm2_cont_slice"
  type: "Slice"
  bottom: "cont"
  top: "cont_1"
  slice_param {
    axis: 0
  }
}
layer {
  name: "lstm2_x_transform"
  type: "InnerProduct"
  bottom: "x"
  top: "W_xc_x"
  param {
    name: "W_xc"
  }
  param {
    name: "b_c"
  }
  propagate_down: true
  inner_product_param {
    num_output: 4000
    bias_term: true
    weight_filler {
      type: "uniform"
      min: -0.08
      max: 0.08
    }
    bias_filler {
      type: "constant"
      value: 0
    }
    axis: 2
  }
}
layer {
  name: "lstm2_W_xc_x_slice"
  type: "Slice"
  bottom: "W_xc_x"
  top: "W_xc_x_1"
  slice_param {
    axis: 0
  }
}
layer {
  name: "lstm2_h_conted_0"
  type: "Scale"
  bottom: "h_0"
  bottom: "cont_1"
  top: "h_conted_0"
  scale_param {
    axis: 0
  }
}
layer {
  name: "lstm2_transform_1"
  type: "InnerProduct"
  bottom: "h_conted_0"
  top: "W_hc_h_0"
  param {
    name: "W_hc"
  }
  inner_product_param {
    num_output: 4000
    bias_term: false
    weight_filler {
      type: "uniform"
      min: -0.08
      max: 0.08
    }
    axis: 2
  }
}
layer {
  name: "lstm2_gate_input_1"
  type: "Eltwise"
  bottom: "W_hc_h_0"
  bottom: "W_xc_x_1"
  top: "gate_input_1"
  eltwise_param {
    operation: SUM
  }
}
layer {
  name: "lstm2_unit_1"
  type: "LSTMUnit"
  bottom: "c_0"
  bottom: "gate_input_1"
  bottom: "cont_1"
  top: "c_1"
  top: "h_1"
}
layer {
  name: "lstm2_"
  type: "Split"
  bottom: "c_1"
  top: "c_T"
}
layer {
  name: "lstm2_h_concat"
  type: "Concat"
  bottom: "h_1"
  top: "h"
  concat_param {
    axis: 0
  }
}
layer {
  name: "h_pseudoloss"
  type: "Reduction"
  bottom: "h"
  top: "h_pseudoloss"
  loss_weight: 1
}
I0720 12:24:15.129626 15174 layer_factory.hpp:77] Creating layer lstm2_
I0720 12:24:15.129637 15174 net.cpp:91] Creating Layer lstm2_
I0720 12:24:15.129642 15174 net.cpp:399] lstm2_ -> x
I0720 12:24:15.129653 15174 net.cpp:399] lstm2_ -> cont
I0720 12:24:15.130326 15174 net.cpp:141] Setting up lstm2_
I0720 12:24:15.130338 15174 net.cpp:148] Top shape: 1 1 1501 (1501)
I0720 12:24:15.130344 15174 net.cpp:148] Top shape: 1 1 (1)
I0720 12:24:15.130348 15174 net.cpp:156] Memory required for data: 6008
I0720 12:24:15.130353 15174 layer_factory.hpp:77] Creating layer lstm2_
I0720 12:24:15.130362 15174 net.cpp:91] Creating Layer lstm2_
I0720 12:24:15.130368 15174 net.cpp:399] lstm2_ -> c_0
I0720 12:24:15.130381 15174 net.cpp:399] lstm2_ -> h_0
I0720 12:24:15.130480 15186 net.cpp:141] Setting up relu4
I0720 12:24:15.130492 15186 net.cpp:148] Top shape: 10 384 13 13 (648960)
I0720 12:24:15.130497 15186 net.cpp:156] Memory required for data: 63788600
I0720 12:24:15.130507 15186 layer_factory.hpp:77] Creating layer conv5
I0720 12:24:15.130524 15186 net.cpp:91] Creating Layer conv5
I0720 12:24:15.130530 15186 net.cpp:425] conv5 <- conv4
I0720 12:24:15.130537 15186 net.cpp:399] conv5 -> conv5
I0720 12:24:15.130708 15174 net.cpp:141] Setting up lstm2_
I0720 12:24:15.130720 15174 net.cpp:148] Top shape: 1 1 1000 (1000)
I0720 12:24:15.130727 15174 net.cpp:148] Top shape: 1 1 1000 (1000)
I0720 12:24:15.130730 15174 net.cpp:156] Memory required for data: 14008
I0720 12:24:15.130735 15174 layer_factory.hpp:77] Creating layer lstm2_cont_slice
I0720 12:24:15.130743 15174 net.cpp:91] Creating Layer lstm2_cont_slice
I0720 12:24:15.130748 15174 net.cpp:425] lstm2_cont_slice <- cont
I0720 12:24:15.130755 15174 net.cpp:399] lstm2_cont_slice -> cont_1
I0720 12:24:15.130944 15174 net.cpp:141] Setting up lstm2_cont_slice
I0720 12:24:15.130955 15174 net.cpp:148] Top shape: 1 1 (1)
I0720 12:24:15.130960 15174 net.cpp:156] Memory required for data: 14012
I0720 12:24:15.130965 15174 layer_factory.hpp:77] Creating layer cont_1_lstm2_cont_slice_0_split
I0720 12:24:15.130971 15174 net.cpp:91] Creating Layer cont_1_lstm2_cont_slice_0_split
I0720 12:24:15.130976 15174 net.cpp:425] cont_1_lstm2_cont_slice_0_split <- cont_1
I0720 12:24:15.130985 15174 net.cpp:399] cont_1_lstm2_cont_slice_0_split -> cont_1_lstm2_cont_slice_0_split_0
I0720 12:24:15.130993 15174 net.cpp:399] cont_1_lstm2_cont_slice_0_split -> cont_1_lstm2_cont_slice_0_split_1
I0720 12:24:15.131150 15178 net.cpp:141] Setting up lstm2_x_transform
I0720 12:24:15.131165 15178 net.cpp:148] Top shape: 1 1 4000 (4000)
I0720 12:24:15.131170 15178 net.cpp:156] Memory required for data: 30020
I0720 12:24:15.131183 15178 layer_factory.hpp:77] Creating layer lstm2_W_xc_x_slice
I0720 12:24:15.131191 15178 net.cpp:91] Creating Layer lstm2_W_xc_x_slice
I0720 12:24:15.131197 15178 net.cpp:425] lstm2_W_xc_x_slice <- W_xc_x
I0720 12:24:15.131204 15178 net.cpp:399] lstm2_W_xc_x_slice -> W_xc_x_1
I0720 12:24:15.131306 15174 net.cpp:141] Setting up cont_1_lstm2_cont_slice_0_split
I0720 12:24:15.131317 15174 net.cpp:148] Top shape: 1 1 (1)
I0720 12:24:15.131322 15174 net.cpp:148] Top shape: 1 1 (1)
I0720 12:24:15.131326 15174 net.cpp:156] Memory required for data: 14020
I0720 12:24:15.131331 15174 layer_factory.hpp:77] Creating layer lstm2_x_transform
I0720 12:24:15.131341 15174 net.cpp:91] Creating Layer lstm2_x_transform
I0720 12:24:15.131346 15174 net.cpp:425] lstm2_x_transform <- x
I0720 12:24:15.131356 15174 net.cpp:399] lstm2_x_transform -> W_xc_x
I0720 12:24:15.131358 15178 net.cpp:141] Setting up lstm2_W_xc_x_slice
I0720 12:24:15.131371 15178 net.cpp:148] Top shape: 1 1 4000 (4000)
I0720 12:24:15.131374 15178 net.cpp:156] Memory required for data: 46020
I0720 12:24:15.131379 15178 layer_factory.hpp:77] Creating layer lstm2_h_conted_0
I0720 12:24:15.131387 15178 net.cpp:91] Creating Layer lstm2_h_conted_0
I0720 12:24:15.131393 15178 net.cpp:425] lstm2_h_conted_0 <- h_0
I0720 12:24:15.131399 15178 net.cpp:425] lstm2_h_conted_0 <- cont_1_lstm2_cont_slice_0_split_0
I0720 12:24:15.131408 15178 net.cpp:399] lstm2_h_conted_0 -> h_conted_0
I0720 12:24:15.145783 15178 net.cpp:141] Setting up lstm2_h_conted_0
I0720 12:24:15.145829 15178 net.cpp:148] Top shape: 1 1 1000 (1000)
I0720 12:24:15.145835 15178 net.cpp:156] Memory required for data: 50020
I0720 12:24:15.145844 15178 layer_factory.hpp:77] Creating layer lstm2_transform_1
I0720 12:24:15.145898 15178 net.cpp:91] Creating Layer lstm2_transform_1
I0720 12:24:15.145905 15178 net.cpp:425] lstm2_transform_1 <- h_conted_0
I0720 12:24:15.145917 15178 net.cpp:399] lstm2_transform_1 -> W_hc_h_0
I0720 12:24:15.163007 15172 net.cpp:141] Setting up conv4
I0720 12:24:15.163066 15172 net.cpp:148] Top shape: 10 384 13 13 (648960)
I0720 12:24:15.163074 15172 net.cpp:156] Memory required for data: 61192760
I0720 12:24:15.163090 15172 layer_factory.hpp:77] Creating layer relu4
I0720 12:24:15.163111 15172 net.cpp:91] Creating Layer relu4
I0720 12:24:15.163120 15172 net.cpp:425] relu4 <- conv4
I0720 12:24:15.163130 15172 net.cpp:386] relu4 -> conv4 (in-place)
I0720 12:24:15.164039 15186 net.cpp:141] Setting up conv5
I0720 12:24:15.164077 15186 net.cpp:148] Top shape: 10 256 13 13 (432640)
I0720 12:24:15.164083 15186 net.cpp:156] Memory required for data: 65519160
I0720 12:24:15.164103 15186 layer_factory.hpp:77] Creating layer relu5
I0720 12:24:15.164113 15172 net.cpp:141] Setting up relu4
I0720 12:24:15.164118 15186 net.cpp:91] Creating Layer relu5
I0720 12:24:15.164131 15172 net.cpp:148] Top shape: 10 384 13 13 (648960)
I0720 12:24:15.164135 15186 net.cpp:425] relu5 <- conv5
I0720 12:24:15.164137 15172 net.cpp:156] Memory required for data: 63788600
I0720 12:24:15.164144 15172 layer_factory.hpp:77] Creating layer conv5
I0720 12:24:15.164151 15186 net.cpp:386] relu5 -> conv5 (in-place)
I0720 12:24:15.164163 15172 net.cpp:91] Creating Layer conv5
I0720 12:24:15.164170 15172 net.cpp:425] conv5 <- conv4
I0720 12:24:15.164180 15172 net.cpp:399] conv5 -> conv5
I0720 12:24:15.165114 15186 net.cpp:141] Setting up relu5
I0720 12:24:15.165133 15186 net.cpp:148] Top shape: 10 256 13 13 (432640)
I0720 12:24:15.165138 15186 net.cpp:156] Memory required for data: 67249720
I0720 12:24:15.165143 15186 layer_factory.hpp:77] Creating layer pool5
I0720 12:24:15.165158 15186 net.cpp:91] Creating Layer pool5
I0720 12:24:15.165163 15186 net.cpp:425] pool5 <- conv5
I0720 12:24:15.165170 15186 net.cpp:399] pool5 -> pool5
I0720 12:24:15.165395 15186 net.cpp:141] Setting up pool5
I0720 12:24:15.165406 15186 net.cpp:148] Top shape: 10 256 6 6 (92160)
I0720 12:24:15.165411 15186 net.cpp:156] Memory required for data: 67618360
I0720 12:24:15.165416 15186 layer_factory.hpp:77] Creating layer fc6
I0720 12:24:15.165451 15186 net.cpp:91] Creating Layer fc6
I0720 12:24:15.165455 15186 net.cpp:425] fc6 <- pool5
I0720 12:24:15.165462 15186 net.cpp:399] fc6 -> fc6
I0720 12:24:15.235836 15178 net.cpp:141] Setting up lstm2_transform_1
I0720 12:24:15.235882 15178 net.cpp:148] Top shape: 1 1 4000 (4000)
I0720 12:24:15.235888 15178 net.cpp:156] Memory required for data: 66020
I0720 12:24:15.235908 15178 layer_factory.hpp:77] Creating layer lstm2_gate_input_1
I0720 12:24:15.235925 15178 net.cpp:91] Creating Layer lstm2_gate_input_1
I0720 12:24:15.235931 15178 net.cpp:425] lstm2_gate_input_1 <- W_hc_h_0
I0720 12:24:15.235940 15178 net.cpp:425] lstm2_gate_input_1 <- W_xc_x_1
I0720 12:24:15.235949 15178 net.cpp:399] lstm2_gate_input_1 -> gate_input_1
I0720 12:24:15.236152 15178 net.cpp:141] Setting up lstm2_gate_input_1
I0720 12:24:15.236165 15178 net.cpp:148] Top shape: 1 1 4000 (4000)
I0720 12:24:15.236168 15178 net.cpp:156] Memory required for data: 82020
I0720 12:24:15.236174 15178 layer_factory.hpp:77] Creating layer lstm2_unit_1
I0720 12:24:15.236178 15174 net.cpp:141] Setting up lstm2_x_transform
I0720 12:24:15.236183 15178 net.cpp:91] Creating Layer lstm2_unit_1
I0720 12:24:15.236199 15178 net.cpp:425] lstm2_unit_1 <- c_0
I0720 12:24:15.236199 15174 net.cpp:148] Top shape: 1 1 4000 (4000)
I0720 12:24:15.236209 15178 net.cpp:425] lstm2_unit_1 <- gate_input_1
I0720 12:24:15.236212 15174 net.cpp:156] Memory required for data: 30020
I0720 12:24:15.236215 15178 net.cpp:425] lstm2_unit_1 <- cont_1_lstm2_cont_slice_0_split_1
I0720 12:24:15.236223 15178 net.cpp:399] lstm2_unit_1 -> c_1
I0720 12:24:15.236227 15174 layer_factory.hpp:77] Creating layer lstm2_W_xc_x_slice
I0720 12:24:15.236232 15178 net.cpp:399] lstm2_unit_1 -> h_1
I0720 12:24:15.236240 15174 net.cpp:91] Creating Layer lstm2_W_xc_x_slice
I0720 12:24:15.236248 15174 net.cpp:425] lstm2_W_xc_x_slice <- W_xc_x
I0720 12:24:15.236255 15174 net.cpp:399] lstm2_W_xc_x_slice -> W_xc_x_1
I0720 12:24:15.236449 15174 net.cpp:141] Setting up lstm2_W_xc_x_slice
I0720 12:24:15.236462 15174 net.cpp:148] Top shape: 1 1 4000 (4000)
I0720 12:24:15.236466 15174 net.cpp:156] Memory required for data: 46020
I0720 12:24:15.236471 15174 layer_factory.hpp:77] Creating layer lstm2_h_conted_0
I0720 12:24:15.236481 15174 net.cpp:91] Creating Layer lstm2_h_conted_0
I0720 12:24:15.236487 15174 net.cpp:425] lstm2_h_conted_0 <- h_0
I0720 12:24:15.236493 15174 net.cpp:425] lstm2_h_conted_0 <- cont_1_lstm2_cont_slice_0_split_0
I0720 12:24:15.236500 15174 net.cpp:399] lstm2_h_conted_0 -> h_conted_0
I0720 12:24:15.236614 15178 net.cpp:141] Setting up lstm2_unit_1
I0720 12:24:15.236625 15178 net.cpp:148] Top shape: 1 1 1000 (1000)
I0720 12:24:15.236631 15178 net.cpp:148] Top shape: 1 1 1000 (1000)
I0720 12:24:15.236636 15178 net.cpp:156] Memory required for data: 90020
I0720 12:24:15.236640 15178 layer_factory.hpp:77] Creating layer lstm2_
I0720 12:24:15.236649 15178 net.cpp:91] Creating Layer lstm2_
I0720 12:24:15.236654 15178 net.cpp:425] lstm2_ <- c_1
I0720 12:24:15.236660 15178 net.cpp:399] lstm2_ -> c_T
I0720 12:24:15.237792 15178 net.cpp:141] Setting up lstm2_
I0720 12:24:15.237807 15178 net.cpp:148] Top shape: 1 1 1000 (1000)
I0720 12:24:15.237812 15178 net.cpp:156] Memory required for data: 94020
I0720 12:24:15.237817 15178 layer_factory.hpp:77] Creating layer lstm2_h_concat
I0720 12:24:15.237828 15178 net.cpp:91] Creating Layer lstm2_h_concat
I0720 12:24:15.237833 15178 net.cpp:425] lstm2_h_concat <- h_1
I0720 12:24:15.237841 15178 net.cpp:399] lstm2_h_concat -> h
I0720 12:24:15.237959 15178 net.cpp:141] Setting up lstm2_h_concat
I0720 12:24:15.237969 15178 net.cpp:148] Top shape: 1 1 1000 (1000)
I0720 12:24:15.237973 15178 net.cpp:156] Memory required for data: 98020
I0720 12:24:15.237978 15178 layer_factory.hpp:77] Creating layer h_pseudoloss
I0720 12:24:15.237987 15178 net.cpp:91] Creating Layer h_pseudoloss
I0720 12:24:15.237993 15178 net.cpp:425] h_pseudoloss <- h
I0720 12:24:15.237999 15178 net.cpp:399] h_pseudoloss -> h_pseudoloss
I0720 12:24:15.238008 15174 net.cpp:141] Setting up lstm2_h_conted_0
I0720 12:24:15.238020 15174 net.cpp:148] Top shape: 1 1 1000 (1000)
I0720 12:24:15.238024 15174 net.cpp:156] Memory required for data: 50020
I0720 12:24:15.238029 15174 layer_factory.hpp:77] Creating layer lstm2_transform_1
I0720 12:24:15.238045 15174 net.cpp:91] Creating Layer lstm2_transform_1
I0720 12:24:15.238050 15174 net.cpp:425] lstm2_transform_1 <- h_conted_0
I0720 12:24:15.238059 15174 net.cpp:399] lstm2_transform_1 -> W_hc_h_0
I0720 12:24:15.249263 15178 net.cpp:141] Setting up h_pseudoloss
…
I0720 12:24:15.249431 15178 net.cpp:219] lstm2_ does not need backward computation.
I0720 12:24:15.249434 15178 net.cpp:261] This network produces output c_T
I0720 12:24:15.249441 15178 net.cpp:261] This network produces output h_pseudoloss
I0720 12:24:15.249460 15178 net.cpp:274] Network initialization done.
I0720 12:24:15.249523 15178 recurrent_layer.cpp:150] Adding parameter 0: W_xc
I0720 12:24:15.249531 15178 recurrent_layer.cpp:150] Adding parameter 1: b_c
I0720 12:24:15.249536 15178 recurrent_layer.cpp:150] Adding parameter 2: W_hc
I0720 12:24:15.251106 15178 net.cpp:141] Setting up lstm2
I0720 12:24:15.251150 15178 net.cpp:148] Top shape: 1 1 1000 (1000)
I0720 12:24:15.251157 15178 net.cpp:156] Memory required for data: 36412
I0720 12:24:15.251176 15178 layer_factory.hpp:77] Creating layer predict
I0720 12:24:15.251194 15178 net.cpp:91] Creating Layer predict
I0720 12:24:15.251200 15178 net.cpp:425] predict <- lstm2
I0720 12:24:15.251210 15178 net.cpp:399] predict -> predict
I0720 12:24:15.331327 15174 net.cpp:141] Setting up lstm2_transform_1
I0720 12:24:15.331387 15174 net.cpp:148] Top shape: 1 1 4000 (4000)
I0720 12:24:15.331394 15174 net.cpp:156] Memory required for data: 66020
I0720 12:24:15.331419 15174 layer_factory.hpp:77] Creating layer lstm2_gate_input_1
I0720 12:24:15.331442 15174 net.cpp:91] Creating Layer lstm2_gate_input_1
I0720 12:24:15.331450 15174 net.cpp:425] lstm2_gate_input_1 <- W_hc_h_0
I0720 12:24:15.331459 15174 net.cpp:425] lstm2_gate_input_1 <- W_xc_x_1
I0720 12:24:15.331468 15174 net.cpp:399] lstm2_gate_input_1 -> gate_input_1
I0720 12:24:15.335202 15174 net.cpp:141] Setting up lstm2_gate_input_1
I0720 12:24:15.335227 15174 net.cpp:148] Top shape: 1 1 4000 (4000)
I0720 12:24:15.335233 15174 net.cpp:156] Memory required for data: 82020
I0720 12:24:15.335239 15174 layer_factory.hpp:77] Creating layer lstm2_unit_1
I0720 12:24:15.335252 15174 net.cpp:91] Creating Layer lstm2_unit_1
I0720 12:24:15.335256 15174 net.cpp:425] lstm2_unit_1 <- c_0
I0720 12:24:15.335264 15174 net.cpp:425] lstm2_unit_1 <- gate_input_1
I0720 12:24:15.335270 15174 net.cpp:425] lstm2_unit_1 <- cont_1_lstm2_cont_slice_0_split_1
I0720 12:24:15.335280 15174 net.cpp:399] lstm2_unit_1 -> c_1
I0720 12:24:15.335291 15174 net.cpp:399] lstm2_unit_1 -> h_1
I0720 12:24:15.335561 15172 net.cpp:141] Setting up conv5
I0720 12:24:15.335577 15172 net.cpp:148] Top shape: 10 256 13 13 (432640)
I0720 12:24:15.335583 15172 net.cpp:156] Memory required for data: 65519160
I0720 12:24:15.335582 15174 net.cpp:141] Setting up lstm2_unit_1
I0720 12:24:15.335598 15174 net.cpp:148] Top shape: 1 1 1000 (1000)
I0720 12:24:15.335605 15174 net.cpp:148] Top shape: 1 1 1000 (1000)
I0720 12:24:15.335609 15174 net.cpp:156] Memory required for data: 90020
I0720 12:24:15.335614 15174 layer_factory.hpp:77] Creating layer lstm2_
I0720 12:24:15.335621 15172 layer_factory.hpp:77] Creating layer relu5
I0720 12:24:15.335618 15186 net.cpp:141] Setting up fc6
I0720 12:24:15.335624 15174 net.cpp:91] Creating Layer lstm2_
I0720 12:24:15.335638 15172 net.cpp:91] Creating Layer relu5
I0720 12:24:15.335645 15186 net.cpp:148] Top shape: 10 4096 (40960)
I0720 12:24:15.335647 15174 net.cpp:425] lstm2_ <- c_1
I0720 12:24:15.335650 15172 net.cpp:425] relu5 <- conv5
I0720 12:24:15.335651 15186 net.cpp:156] Memory required for data: 67782200
I0720 12:24:15.335656 15174 net.cpp:399] lstm2_ -> c_T
I0720 12:24:15.335659 15172 net.cpp:386] relu5 -> conv5 (in-place)
I0720 12:24:15.335664 15186 layer_factory.hpp:77] Creating layer relu6
I0720 12:24:15.335677 15186 net.cpp:91] Creating Layer relu6
I0720 12:24:15.335683 15186 net.cpp:425] relu6 <- fc6
I0720 12:24:15.335691 15186 net.cpp:386] relu6 -> fc6 (in-place)
I0720 12:24:15.335721 15174 net.cpp:141] Setting up lstm2_
I0720 12:24:15.335731 15174 net.cpp:148] Top shape: 1 1 1000 (1000)
I0720 12:24:15.335736 15174 net.cpp:156] Memory required for data: 94020
I0720 12:24:15.335741 15174 layer_factory.hpp:77] Creating layer lstm2_h_concat
I0720 12:24:15.335752 15174 net.cpp:91] Creating Layer lstm2_h_concat
I0720 12:24:15.335757 15174 net.cpp:425] lstm2_h_concat <- h_1
I0720 12:24:15.335763 15174 net.cpp:399] lstm2_h_concat -> h
I0720 12:24:15.336099 15186 net.cpp:141] Setting up relu6
I0720 12:24:15.336112 15186 net.cpp:148] Top shape: 10 4096 (40960)
I0720 12:24:15.336117 15186 net.cpp:156] Memory required for data: 67946040
I0720 12:24:15.336122 15186 layer_factory.hpp:77] Creating layer drop6
I0720 12:24:15.336242 15186 net.cpp:91] Creating Layer drop6
I0720 12:24:15.336297 15186 net.cpp:425] drop6 <- fc6
I0720 12:24:15.336311 15186 net.cpp:386] drop6 -> fc6 (in-place)
I0720 12:24:15.337363 15186 net.cpp:141] Setting up drop6
I0720 12:24:15.337384 15186 net.cpp:148] Top shape: 10 4096 (40960)
I0720 12:24:15.337389 15186 net.cpp:156] Memory required for data: 68109880
I0720 12:24:15.337402 15186 layer_factory.hpp:77] Creating layer fc7
I0720 12:24:15.337402 15174 net.cpp:141] Setting up lstm2_h_concat
I0720 12:24:15.337417 15174 net.cpp:148] Top shape: 1 1 1000 (1000)
I0720 12:24:15.337421 15186 net.cpp:91] Creating Layer fc7
I0720 12:24:15.337422 15174 net.cpp:156] Memory required for data: 98020
I0720 12:24:15.337430 15186 net.cpp:425] fc7 <- fc6
I0720 12:24:15.337441 15174 layer_factory.hpp:77] Creating layer h_pseudoloss
I0720 12:24:15.337463 15174 net.cpp:91] Creating Layer h_pseudoloss
I0720 12:24:15.337468 15174 net.cpp:425] h_pseudoloss <- h
I0720 12:24:15.337473 15186 net.cpp:399] fc7 -> fc7
I0720 12:24:15.337479 15174 net.cpp:399] h_pseudoloss -> h_pseudoloss
I0720 12:24:15.370050 15172 net.cpp:141] Setting up relu5
I0720 12:24:15.370113 15172 net.cpp:148] Top shape: 10 256 13 13 (432640)
I0720 12:24:15.370116 15174 net.cpp:141] Setting up h_pseudoloss
I0720 12:24:15.370121 15172 net.cpp:156] Memory required for data: 67249720
I0720 12:24:15.370139 15174 net.cpp:148] Top shape: (1)
I0720 12:24:15.370146 15172 layer_factory.hpp:77] Creating layer pool5
I0720 12:24:15.370146 15174 net.cpp:151]     with loss weight 1
I0720 12:24:15.370168 15172 net.cpp:91] Creating Layer pool5
…
I0720 12:24:15.370254 15174 net.cpp:219] lstm2_ does not need backward computation.
I0720 12:24:15.370256 15174 net.cpp:261] This network produces output c_T
I0720 12:24:15.370261 15174 net.cpp:261] This network produces output h_pseudoloss
I0720 12:24:15.370276 15174 net.cpp:274] Network initialization done.
I0720 12:24:15.370345 15174 recurrent_layer.cpp:150] Adding parameter 0: W_xc
I0720 12:24:15.370352 15174 recurrent_layer.cpp:150] Adding parameter 1: b_c
I0720 12:24:15.370357 15174 recurrent_layer.cpp:150] Adding parameter 2: W_hc
I0720 12:24:15.370357 15172 net.cpp:141] Setting up pool5
I0720 12:24:15.370371 15172 net.cpp:148] Top shape: 10 256 6 6 (92160)
I0720 12:24:15.370376 15172 net.cpp:156] Memory required for data: 67618360
I0720 12:24:15.370381 15172 layer_factory.hpp:77] Creating layer fc6
I0720 12:24:15.370395 15172 net.cpp:91] Creating Layer fc6
I0720 12:24:15.370400 15172 net.cpp:425] fc6 <- pool5
I0720 12:24:15.370407 15172 net.cpp:399] fc6 -> fc6
I0720 12:24:15.436908 15174 net.cpp:141] Setting up lstm2
I0720 12:24:15.436966 15174 net.cpp:148] Top shape: 1 1 1000 (1000)
I0720 12:24:15.436974 15174 net.cpp:156] Memory required for data: 36412
I0720 12:24:15.437000 15174 layer_factory.hpp:77] Creating layer predict
I0720 12:24:15.437022 15174 net.cpp:91] Creating Layer predict
I0720 12:24:15.437031 15174 net.cpp:425] predict <- lstm2
I0720 12:24:15.437042 15174 net.cpp:399] predict -> predict
I0720 12:24:15.437072 15186 net.cpp:141] Setting up fc7
I0720 12:24:15.437108 15186 net.cpp:148] Top shape: 10 4096 (40960)
I0720 12:24:15.437114 15186 net.cpp:156] Memory required for data: 68273720
I0720 12:24:15.437127 15186 layer_factory.hpp:77] Creating layer relu7
I0720 12:24:15.437145 15186 net.cpp:91] Creating Layer relu7
I0720 12:24:15.437152 15186 net.cpp:425] relu7 <- fc7
I0720 12:24:15.437161 15186 net.cpp:386] relu7 -> fc7 (in-place)
I0720 12:24:15.510967 15186 net.cpp:141] Setting up relu7
I0720 12:24:15.511010 15186 net.cpp:148] Top shape: 10 4096 (40960)
I0720 12:24:15.511018 15186 net.cpp:156] Memory required for data: 68437560
I0720 12:24:15.511025 15186 layer_factory.hpp:77] Creating layer drop7
I0720 12:24:15.511042 15186 net.cpp:91] Creating Layer drop7
I0720 12:24:15.511049 15186 net.cpp:425] drop7 <- fc7
I0720 12:24:15.511061 15186 net.cpp:386] drop7 -> fc7 (in-place)
I0720 12:24:15.517287 15186 net.cpp:141] Setting up drop7
I0720 12:24:15.517307 15186 net.cpp:148] Top shape: 10 4096 (40960)
I0720 12:24:15.517313 15186 net.cpp:156] Memory required for data: 68601400
I0720 12:24:15.517318 15186 layer_factory.hpp:77] Creating layer fc8
I0720 12:24:15.517335 15186 net.cpp:91] Creating Layer fc8
I0720 12:24:15.517341 15186 net.cpp:425] fc8 <- fc7
I0720 12:24:15.517351 15186 net.cpp:399] fc8 -> fc8
I0720 12:24:15.530707 15172 net.cpp:141] Setting up fc6
I0720 12:24:15.530771 15172 net.cpp:148] Top shape: 10 4096 (40960)
I0720 12:24:15.530777 15172 net.cpp:156] Memory required for data: 67782200
I0720 12:24:15.530797 15172 layer_factory.hpp:77] Creating layer relu6
I0720 12:24:15.530817 15172 net.cpp:91] Creating Layer relu6
I0720 12:24:15.530824 15172 net.cpp:425] relu6 <- fc6
I0720 12:24:15.530834 15172 net.cpp:386] relu6 -> fc6 (in-place)
I0720 12:24:15.531215 15172 net.cpp:141] Setting up relu6
I0720 12:24:15.531226 15172 net.cpp:148] Top shape: 10 4096 (40960)
I0720 12:24:15.531231 15172 net.cpp:156] Memory required for data: 67946040
I0720 12:24:15.531236 15172 layer_factory.hpp:77] Creating layer drop6
I0720 12:24:15.531260 15172 net.cpp:91] Creating Layer drop6
I0720 12:24:15.531265 15172 net.cpp:425] drop6 <- fc6
I0720 12:24:15.531271 15172 net.cpp:386] drop6 -> fc6 (in-place)
I0720 12:24:15.531339 15172 net.cpp:141] Setting up drop6
I0720 12:24:15.531350 15172 net.cpp:148] Top shape: 10 4096 (40960)
I0720 12:24:15.531355 15172 net.cpp:156] Memory required for data: 68109880
I0720 12:24:15.531360 15172 layer_factory.hpp:77] Creating layer fc7
I0720 12:24:15.531371 15172 net.cpp:91] Creating Layer fc7
I0720 12:24:15.531376 15172 net.cpp:425] fc7 <- fc6
I0720 12:24:15.531383 15172 net.cpp:399] fc7 -> fc7
I0720 12:24:15.563336 15186 net.cpp:141] Setting up fc8
I0720 12:24:15.563381 15186 net.cpp:148] Top shape: 10 1000 (10000)
I0720 12:24:15.563387 15186 net.cpp:156] Memory required for data: 68641400
I0720 12:24:15.563401 15186 layer_factory.hpp:77] Creating layer prob
I0720 12:24:15.563416 15186 net.cpp:91] Creating Layer prob
I0720 12:24:15.563423 15186 net.cpp:425] prob <- fc8
I0720 12:24:15.563433 15186 net.cpp:399] prob -> prob
I0720 12:24:15.563940 15186 net.cpp:141] Setting up prob
I0720 12:24:15.563951 15186 net.cpp:148] Top shape: 10 1000 (10000)
I0720 12:24:15.563956 15186 net.cpp:156] Memory required for data: 68681400
I0720 12:24:15.563961 15186 net.cpp:219] prob does not need backward computation.
I0720 12:24:15.563966 15186 net.cpp:219] fc8 does not need backward computation.
I0720 12:24:15.563971 15186 net.cpp:219] drop7 does not need backward computation.
I0720 12:24:15.563974 15186 net.cpp:219] relu7 does not need backward computation.
…
I0720 12:24:15.564043 15186 net.cpp:219] norm1 does not need backward computation.
I0720 12:24:15.564048 15186 net.cpp:219] pool1 does not need backward computation.
I0720 12:24:15.564051 15186 net.cpp:219] relu1 does not need backward computation.
I0720 12:24:15.564055 15186 net.cpp:219] conv1 does not need backward computation.
I0720 12:24:15.564059 15186 net.cpp:219] data does not need backward computation.
I0720 12:24:15.564064 15186 net.cpp:261] This network produces output prob
I0720 12:24:15.564081 15186 net.cpp:274] Network initialization done.
I0720 12:24:15.580077 15172 net.cpp:141] Setting up fc7
I0720 12:24:15.580138 15172 net.cpp:148] Top shape: 10 4096 (40960)
I0720 12:24:15.580145 15172 net.cpp:156] Memory required for data: 68273720
I0720 12:24:15.580162 15172 layer_factory.hpp:77] Creating layer relu7
I0720 12:24:15.580179 15172 net.cpp:91] Creating Layer relu7
I0720 12:24:15.580186 15172 net.cpp:425] relu7 <- fc7
I0720 12:24:15.580196 15172 net.cpp:386] relu7 -> fc7 (in-place)
I0720 12:24:15.581854 15172 net.cpp:141] Setting up relu7
I0720 12:24:15.581872 15172 net.cpp:148] Top shape: 10 4096 (40960)
I0720 12:24:15.581877 15172 net.cpp:156] Memory required for data: 68437560
I0720 12:24:15.581883 15172 layer_factory.hpp:77] Creating layer drop7
I0720 12:24:15.581897 15172 net.cpp:91] Creating Layer drop7
I0720 12:24:15.581902 15172 net.cpp:425] drop7 <- fc7
I0720 12:24:15.581908 15172 net.cpp:386] drop7 -> fc7 (in-place)
I0720 12:24:15.582424 15172 net.cpp:141] Setting up drop7
I0720 12:24:15.582444 15172 net.cpp:148] Top shape: 10 4096 (40960)
I0720 12:24:15.582453 15172 net.cpp:156] Memory required for data: 68601400
I0720 12:24:15.582463 15172 layer_factory.hpp:77] Creating layer fc8
I0720 12:24:15.582489 15172 net.cpp:91] Creating Layer fc8
I0720 12:24:15.582499 15172 net.cpp:425] fc8 <- fc7
I0720 12:24:15.582514 15172 net.cpp:399] fc8 -> fc8
I0720 12:24:15.596868 15172 net.cpp:141] Setting up fc8
I0720 12:24:15.596941 15172 net.cpp:148] Top shape: 10 1000 (10000)
I0720 12:24:15.596947 15172 net.cpp:156] Memory required for data: 68641400
I0720 12:24:15.596963 15172 layer_factory.hpp:77] Creating layer prob
I0720 12:24:15.596982 15172 net.cpp:91] Creating Layer prob
I0720 12:24:15.596989 15172 net.cpp:425] prob <- fc8
I0720 12:24:15.596999 15172 net.cpp:399] prob -> prob
I0720 12:24:15.598023 15172 net.cpp:141] Setting up prob
I0720 12:24:15.598049 15172 net.cpp:148] Top shape: 10 1000 (10000)
I0720 12:24:15.598059 15172 net.cpp:156] Memory required for data: 68681400
I0720 12:24:15.598069 15172 net.cpp:219] prob does not need backward computation.
I0720 12:24:15.598079 15172 net.cpp:219] fc8 does not need backward computation.
I0720 12:24:15.598088 15172 net.cpp:219] drop7 does not need backward computation.
I0720 12:24:15.598095 15172 net.cpp:219] relu7 does not need backward computation.
…
