…
2016-07-20 12:24:14.415 n.t.s.b.CVParticleBolt [INFO] [Timing] RequestID: 0 StreamID: home/peifeng/work/data/frame.320x240.jpg SequenceNr: 100 Leaving scale: 1469031854415 Size: 3530
2016-07-20 12:24:14.415 n.t.s.b.CVParticleBolt [INFO] [Timing] RequestID: 0 StreamID: home/peifeng/work/data/frame.320x240.jpg SequenceNr: 101 Entering scale: 1469031854415
2016-07-20 12:24:14.420 n.t.s.b.CVParticleBolt [INFO] [Timing] RequestID: 0 StreamID: home/peifeng/work/data/frame.320x240.jpg SequenceNr: 101 Leaving scale: 1469031854420 Size: 3530
2016-07-20 12:24:14.524 STDERR [INFO] I0720 12:24:14.524003 15186 net.cpp:141] Setting up data
2016-07-20 12:24:14.524 STDERR [INFO] I0720 12:24:14.524070 15186 net.cpp:148] Top shape: 10 3 227 227 (1545870)
2016-07-20 12:24:14.524 STDERR [INFO] I0720 12:24:14.524075 15186 net.cpp:156] Memory required for data: 6183480
2016-07-20 12:24:14.524 STDERR [INFO] I0720 12:24:14.524096 15186 layer_factory.hpp:77] Creating layer conv1
2016-07-20 12:24:14.524 STDERR [INFO] I0720 12:24:14.524125 15186 net.cpp:91] Creating Layer conv1
2016-07-20 12:24:14.524 STDERR [INFO] I0720 12:24:14.524134 15186 net.cpp:425] conv1 <- data
2016-07-20 12:24:14.524 STDERR [INFO] I0720 12:24:14.524147 15186 net.cpp:399] conv1 -> conv1
2016-07-20 12:24:14.525 STDERR [INFO] I0720 12:24:14.524181 15178 net.cpp:141] Setting up input
2016-07-20 12:24:14.525 STDERR [INFO] I0720 12:24:14.524202 15178 net.cpp:148] Top shape: 1 4096 (4096)
2016-07-20 12:24:14.525 STDERR [INFO] I0720 12:24:14.524209 15178 net.cpp:148] Top shape: 1 1 (1)
2016-07-20 12:24:14.525 STDERR [INFO] I0720 12:24:14.524216 15178 net.cpp:148] Top shape: 1 1 (1)
2016-07-20 12:24:14.525 STDERR [INFO] I0720 12:24:14.524222 15178 net.cpp:148] Top shape: 1 1 (1)
2016-07-20 12:24:14.525 STDERR [INFO] I0720 12:24:14.524225 15178 net.cpp:156] Memory required for data: 16396
2016-07-20 12:24:14.525 STDERR [INFO] I0720 12:24:14.524231 15178 layer_factory.hpp:77] Creating layer cont_sentence_input_1_split
2016-07-20 12:24:14.526 STDERR [INFO] I0720 12:24:14.524248 15178 net.cpp:91] Creating Layer cont_sentence_input_1_split
2016-07-20 12:24:14.526 STDERR [INFO] I0720 12:24:14.524255 15178 net.cpp:425] cont_sentence_input_1_split <- cont_sentence
2016-07-20 12:24:14.526 STDERR [INFO] I0720 12:24:14.524283 15178 net.cpp:399] cont_sentence_input_1_split -> cont_sentence_input_1_split_0
2016-07-20 12:24:14.526 STDERR [INFO] I0720 12:24:14.524296 15178 net.cpp:399] cont_sentence_input_1_split -> cont_sentence_input_1_split_1
2016-07-20 12:24:14.529 STDERR [INFO] I0720 12:24:14.529351 15178 net.cpp:141] Setting up cont_sentence_input_1_split
2016-07-20 12:24:14.529 STDERR [INFO] I0720 12:24:14.529372 15178 net.cpp:148] Top shape: 1 1 (1)
2016-07-20 12:24:14.529 STDERR [INFO] I0720 12:24:14.529381 15178 net.cpp:148] Top shape: 1 1 (1)
2016-07-20 12:24:14.529 STDERR [INFO] I0720 12:24:14.529384 15178 net.cpp:156] Memory required for data: 16404
2016-07-20 12:24:14.529 STDERR [INFO] I0720 12:24:14.529391 15178 layer_factory.hpp:77] Creating layer embed_encoder
2016-07-20 12:24:14.529 STDERR [INFO] I0720 12:24:14.529412 15178 net.cpp:91] Creating Layer embed_encoder
2016-07-20 12:24:14.529 STDERR [INFO] I0720 12:24:14.529417 15178 net.cpp:425] embed_encoder <- frames_fc7
2016-07-20 12:24:14.530 STDERR [INFO] I0720 12:24:14.529434 15178 net.cpp:399] embed_encoder -> embedded_in_frames
2016-07-20 12:24:14.579 STDERR [INFO] I0720 12:24:14.579831 15178 net.cpp:141] Setting up embed_encoder
2016-07-20 12:24:14.580 STDERR [INFO] I0720 12:24:14.579869 15178 net.cpp:148] Top shape: 1 500 (500)
2016-07-20 12:24:14.580 STDERR [INFO] I0720 12:24:14.579874 15178 net.cpp:156] Memory required for data: 18404
2016-07-20 12:24:14.580 STDERR [INFO] I0720 12:24:14.579898 15178 layer_factory.hpp:77] Creating layer reshape_frames
2016-07-20 12:24:14.580 STDERR [INFO] I0720 12:24:14.579923 15178 net.cpp:91] Creating Layer reshape_frames
2016-07-20 12:24:14.580 STDERR [INFO] I0720 12:24:14.579931 15178 net.cpp:425] reshape_frames <- embedded_in_frames
2016-07-20 12:24:14.580 STDERR [INFO] I0720 12:24:14.579941 15178 net.cpp:399] reshape_frames -> embedded_input_frames
2016-07-20 12:24:14.581 STDERR [INFO] I0720 12:24:14.581200 15172 net.cpp:141] Setting up data
2016-07-20 12:24:14.581 STDERR [INFO] I0720 12:24:14.581266 15172 net.cpp:148] Top shape: 10 3 227 227 (1545870)
2016-07-20 12:24:14.581 STDERR [INFO] I0720 12:24:14.581274 15172 net.cpp:156] Memory required for data: 6183480
2016-07-20 12:24:14.581 STDERR [INFO] I0720 12:24:14.581282 15172 layer_factory.hpp:77] Creating layer conv1
2016-07-20 12:24:14.582 STDERR [INFO] I0720 12:24:14.581307 15172 net.cpp:91] Creating Layer conv1
2016-07-20 12:24:14.582 STDERR [INFO] I0720 12:24:14.581313 15172 net.cpp:425] conv1 <- data
2016-07-20 12:24:14.582 STDERR [INFO] I0720 12:24:14.581322 15172 net.cpp:399] conv1 -> conv1
2016-07-20 12:24:14.582 STDERR [INFO] I0720 12:24:14.581393 15178 net.cpp:141] Setting up reshape_frames
2016-07-20 12:24:14.582 STDERR [INFO] I0720 12:24:14.581410 15178 net.cpp:148] Top shape: 1 1 500 (500)
2016-07-20 12:24:14.582 STDERR [INFO] I0720 12:24:14.581415 15178 net.cpp:156] Memory required for data: 20404
2016-07-20 12:24:14.582 STDERR [INFO] I0720 12:24:14.581421 15178 layer_factory.hpp:77] Creating layer reshape_stage_indicator
2016-07-20 12:24:14.582 STDERR [INFO] I0720 12:24:14.581432 15178 net.cpp:91] Creating Layer reshape_stage_indicator
2016-07-20 12:24:14.582 STDERR [INFO] I0720 12:24:14.581437 15178 net.cpp:425] reshape_stage_indicator <- stage_indicator
2016-07-20 12:24:14.582 STDERR [INFO] I0720 12:24:14.581445 15178 net.cpp:399] reshape_stage_indicator -> reshaped_stage_indicator
2016-07-20 12:24:14.587 STDERR [INFO] I0720 12:24:14.587045 15178 net.cpp:141] Setting up reshape_stage_indicator
2016-07-20 12:24:14.587 STDERR [INFO] I0720 12:24:14.587069 15178 net.cpp:148] Top shape: 1 1 1 (1)
2016-07-20 12:24:14.587 STDERR [INFO] I0720 12:24:14.587074 15178 net.cpp:156] Memory required for data: 20408
2016-07-20 12:24:14.587 STDERR [INFO] I0720 12:24:14.587080 15178 layer_factory.hpp:77] Creating layer embedding
2016-07-20 12:24:14.587 STDERR [INFO] I0720 12:24:14.587091 15178 net.cpp:91] Creating Layer embedding
2016-07-20 12:24:14.587 STDERR [INFO] I0720 12:24:14.587096 15178 net.cpp:425] embedding <- input_sentence
2016-07-20 12:24:14.587 STDERR [INFO] I0720 12:24:14.587107 15178 net.cpp:399] embedding -> embedded_input_sentence
2016-07-20 12:24:14.597 STDERR [INFO] I0720 12:24:14.596966 15174 net.cpp:141] Setting up input
2016-07-20 12:24:14.597 STDERR [INFO] I0720 12:24:14.596987 15174 net.cpp:148] Top shape: 1 4096 (4096)
2016-07-20 12:24:14.597 STDERR [INFO] I0720 12:24:14.596994 15174 net.cpp:148] Top shape: 1 1 (1)
2016-07-20 12:24:14.597 STDERR [INFO] I0720 12:24:14.597000 15174 net.cpp:148] Top shape: 1 1 (1)
2016-07-20 12:24:14.597 STDERR [INFO] I0720 12:24:14.597005 15174 net.cpp:148] Top shape: 1 1 (1)
2016-07-20 12:24:14.597 STDERR [INFO] I0720 12:24:14.597010 15174 net.cpp:156] Memory required for data: 16396
2016-07-20 12:24:14.597 STDERR [INFO] I0720 12:24:14.597017 15174 layer_factory.hpp:77] Creating layer cont_sentence_input_1_split
2016-07-20 12:24:14.597 STDERR [INFO] I0720 12:24:14.597028 15174 net.cpp:91] Creating Layer cont_sentence_input_1_split
2016-07-20 12:24:14.597 STDERR [INFO] I0720 12:24:14.597033 15174 net.cpp:425] cont_sentence_input_1_split <- cont_sentence
…
2016-07-20 12:24:14.635 n.t.s.b.CVParticleBolt [INFO] [Timing] RequestID: 0 StreamID: home/peifeng/work/data/frame.320x240.jpg SequenceNr: 103 Leaving scale: 1469031854635 Size: 3530
2016-07-20 12:24:14.635 n.t.s.b.CVParticleBolt [INFO] [Timing] RequestID: 0 StreamID: home/peifeng/work/data/frame.320x240.jpg SequenceNr: 104 Entering scale: 1469031854635
2016-07-20 12:24:14.640 n.t.s.b.CVParticleBolt [INFO] [Timing] RequestID: 0 StreamID: home/peifeng/work/data/frame.320x240.jpg SequenceNr: 104 Leaving scale: 1469031854640 Size: 3530
2016-07-20 12:24:14.645 STDERR [INFO] I0720 12:24:14.645265 15174 net.cpp:141] Setting up cont_sentence_input_1_split
2016-07-20 12:24:14.645 STDERR [INFO] I0720 12:24:14.645316 15174 net.cpp:148] Top shape: 1 1 (1)
2016-07-20 12:24:14.645 STDERR [INFO] I0720 12:24:14.645324 15174 net.cpp:148] Top shape: 1 1 (1)
2016-07-20 12:24:14.645 STDERR [INFO] I0720 12:24:14.645331 15174 net.cpp:156] Memory required for data: 16404
2016-07-20 12:24:14.646 STDERR [INFO] I0720 12:24:14.645341 15174 layer_factory.hpp:77] Creating layer embed_encoder
2016-07-20 12:24:14.646 STDERR [INFO] I0720 12:24:14.645364 15174 net.cpp:91] Creating Layer embed_encoder
2016-07-20 12:24:14.646 STDERR [INFO] I0720 12:24:14.645372 15174 net.cpp:425] embed_encoder <- frames_fc7
2016-07-20 12:24:14.646 STDERR [INFO] I0720 12:24:14.645383 15174 net.cpp:399] embed_encoder -> embedded_in_frames
2016-07-20 12:24:14.704 STDERR [INFO] I0720 12:24:14.703861 15174 net.cpp:141] Setting up embed_encoder
2016-07-20 12:24:14.704 STDERR [INFO] I0720 12:24:14.703905 15174 net.cpp:148] Top shape: 1 500 (500)
2016-07-20 12:24:14.704 STDERR [INFO] I0720 12:24:14.703912 15174 net.cpp:156] Memory required for data: 18404
2016-07-20 12:24:14.704 STDERR [INFO] I0720 12:24:14.703933 15174 layer_factory.hpp:77] Creating layer reshape_frames
2016-07-20 12:24:14.704 STDERR [INFO] I0720 12:24:14.703950 15174 net.cpp:91] Creating Layer reshape_frames
2016-07-20 12:24:14.704 STDERR [INFO] I0720 12:24:14.703959 15174 net.cpp:425] reshape_frames <- embedded_in_frames
2016-07-20 12:24:14.704 STDERR [INFO] I0720 12:24:14.703970 15174 net.cpp:399] reshape_frames -> embedded_input_frames
2016-07-20 12:24:14.718 STDERR [INFO] I0720 12:24:14.718349 15174 net.cpp:141] Setting up reshape_frames
2016-07-20 12:24:14.718 STDERR [INFO] I0720 12:24:14.718382 15174 net.cpp:148] Top shape: 1 1 500 (500)
2016-07-20 12:24:14.718 STDERR [INFO] I0720 12:24:14.718389 15174 net.cpp:156] Memory required for data: 20404
2016-07-20 12:24:14.718 STDERR [INFO] I0720 12:24:14.718395 15174 layer_factory.hpp:77] Creating layer reshape_stage_indicator
2016-07-20 12:24:14.719 STDERR [INFO] I0720 12:24:14.718413 15174 net.cpp:91] Creating Layer reshape_stage_indicator
2016-07-20 12:24:14.719 STDERR [INFO] I0720 12:24:14.718420 15174 net.cpp:425] reshape_stage_indicator <- stage_indicator
2016-07-20 12:24:14.719 STDERR [INFO] I0720 12:24:14.718432 15174 net.cpp:399] reshape_stage_indicator -> reshaped_stage_indicator
2016-07-20 12:24:14.724 STDERR [INFO] I0720 12:24:14.723995 15174 net.cpp:141] Setting up reshape_stage_indicator
2016-07-20 12:24:14.724 STDERR [INFO] I0720 12:24:14.724020 15174 net.cpp:148] Top shape: 1 1 1 (1)
2016-07-20 12:24:14.724 STDERR [INFO] I0720 12:24:14.724026 15174 net.cpp:156] Memory required for data: 20408
2016-07-20 12:24:14.724 STDERR [INFO] I0720 12:24:14.724032 15174 layer_factory.hpp:77] Creating layer embedding
2016-07-20 12:24:14.724 STDERR [INFO] I0720 12:24:14.724047 15174 net.cpp:91] Creating Layer embedding
2016-07-20 12:24:14.724 STDERR [INFO] I0720 12:24:14.724053 15174 net.cpp:425] embedding <- input_sentence
…
2016-07-20 12:24:14.830 STDERR [INFO] }
2016-07-20 12:24:14.830 STDERR [INFO] I0720 12:24:14.819665 15178 layer_factory.hpp:77] Creating layer lstm1_
2016-07-20 12:24:14.830 STDERR [INFO] I0720 12:24:14.819677 15178 net.cpp:91] Creating Layer lstm1_
2016-07-20 12:24:14.830 STDERR [INFO] I0720 12:24:14.819684 15178 net.cpp:399] lstm1_ -> x
2016-07-20 12:24:14.830 STDERR [INFO] I0720 12:24:14.819695 15178 net.cpp:399] lstm1_ -> cont
2016-07-20 12:24:14.831 STDERR [INFO] I0720 12:24:14.825217 15178 net.cpp:141] Setting up lstm1_
2016-07-20 12:24:14.831 STDERR [INFO] I0720 12:24:14.825237 15178 net.cpp:148] Top shape: 1 1 500 (500)
2016-07-20 12:24:14.831 STDERR [INFO] I0720 12:24:14.825244 15178 net.cpp:148] Top shape: 1 1 (1)
2016-07-20 12:24:14.831 STDERR [INFO] I0720 12:24:14.825248 15178 net.cpp:156] Memory required for data: 2004
2016-07-20 12:24:14.831 STDERR [INFO] I0720 12:24:14.825254 15178 layer_factory.hpp:77] Creating layer lstm1_
2016-07-20 12:24:14.831 STDERR [INFO] I0720 12:24:14.825268 15178 net.cpp:91] Creating Layer lstm1_
2016-07-20 12:24:14.831 STDERR [INFO] I0720 12:24:14.825276 15178 net.cpp:399] lstm1_ -> c_0
2016-07-20 12:24:14.831 STDERR [INFO] I0720 12:24:14.825287 15178 net.cpp:399] lstm1_ -> h_0
2016-07-20 12:24:14.839 STDERR [INFO] I0720 12:24:14.839184 15178 net.cpp:141] Setting up lstm1_
2016-07-20 12:24:14.839 STDERR [INFO] I0720 12:24:14.839220 15178 net.cpp:148] Top shape: 1 1 1000 (1000)
2016-07-20 12:24:14.839 STDERR [INFO] I0720 12:24:14.839226 15178 net.cpp:148] Top shape: 1 1 1000 (1000)
2016-07-20 12:24:14.839 STDERR [INFO] I0720 12:24:14.839231 15178 net.cpp:156] Memory required for data: 10004
2016-07-20 12:24:14.839 STDERR [INFO] I0720 12:24:14.839238 15178 layer_factory.hpp:77] Creating layer lstm1_cont_slice
2016-07-20 12:24:14.839 STDERR [INFO] I0720 12:24:14.839253 15178 net.cpp:91] Creating Layer lstm1_cont_slice
2016-07-20 12:24:14.839 STDERR [INFO] I0720 12:24:14.839259 15178 net.cpp:425] lstm1_cont_slice <- cont
2016-07-20 12:24:14.840 STDERR [INFO] I0720 12:24:14.839270 15178 net.cpp:399] lstm1_cont_slice -> cont_1
2016-07-20 12:24:14.840 STDERR [INFO] I0720 12:24:14.840253 15178 net.cpp:141] Setting up lstm1_cont_slice
2016-07-20 12:24:14.840 STDERR [INFO] I0720 12:24:14.840276 15178 net.cpp:148] Top shape: 1 1 (1)
2016-07-20 12:24:14.840 STDERR [INFO] I0720 12:24:14.840281 15178 net.cpp:156] Memory required for data: 10008
2016-07-20 12:24:14.840 STDERR [INFO] I0720 12:24:14.840286 15178 layer_factory.hpp:77] Creating layer cont_1_lstm1_cont_slice_0_split
2016-07-20 12:24:14.840 STDERR [INFO] I0720 12:24:14.840298 15178 net.cpp:91] Creating Layer cont_1_lstm1_cont_slice_0_split
2016-07-20 12:24:14.840 STDERR [INFO] I0720 12:24:14.840304 15178 net.cpp:425] cont_1_lstm1_cont_slice_0_split <- cont_1
2016-07-20 12:24:14.840 STDERR [INFO] I0720 12:24:14.840312 15178 net.cpp:399] cont_1_lstm1_cont_slice_0_split -> cont_1_lstm1_cont_slice_0_split_0
2016-07-20 12:24:14.840 STDERR [INFO] I0720 12:24:14.840320 15178 net.cpp:399] cont_1_lstm1_cont_slice_0_split -> cont_1_lstm1_cont_slice_0_split_1
2016-07-20 12:24:14.855 STDERR [INFO] I0720 12:24:14.855279 15178 net.cpp:141] Setting up cont_1_lstm1_cont_slice_0_split
2016-07-20 12:24:14.855 STDERR [INFO] I0720 12:24:14.855314 15178 net.cpp:148] Top shape: 1 1 (1)
2016-07-20 12:24:14.855 STDERR [INFO] I0720 12:24:14.855322 15178 net.cpp:148] Top shape: 1 1 (1)
2016-07-20 12:24:14.855 STDERR [INFO] I0720 12:24:14.855326 15178 net.cpp:156] Memory required for data: 10016
2016-07-20 12:24:14.855 STDERR [INFO] I0720 12:24:14.855334 15178 layer_factory.hpp:77] Creating layer lstm1_x_transform
2016-07-20 12:24:14.855 STDERR [INFO] I0720 12:24:14.855356 15178 net.cpp:91] Creating Layer lstm1_x_transform
2016-07-20 12:24:14.856 STDERR [INFO] I0720 12:24:14.855362 15178 net.cpp:425] lstm1_x_transform <- x
2016-07-20 12:24:14.856 STDERR [INFO] I0720 12:24:14.855373 15178 net.cpp:399] lstm1_x_transform -> W_xc_x
2016-07-20 12:24:14.924 STDERR [INFO] I0720 12:24:14.924113 15178 net.cpp:141] Setting up lstm1_x_transform
2016-07-20 12:24:14.925 STDERR [INFO] I0720 12:24:14.924159 15178 net.cpp:148] Top shape: 1 1 4000 (4000)
2016-07-20 12:24:14.925 STDERR [INFO] I0720 12:24:14.924165 15178 net.cpp:156] Memory required for data: 26016
2016-07-20 12:24:14.925 STDERR [INFO] I0720 12:24:14.924190 15178 layer_factory.hpp:77] Creating layer lstm1_W_xc_x_slice
2016-07-20 12:24:14.925 STDERR [INFO] I0720 12:24:14.924216 15178 net.cpp:91] Creating Layer lstm1_W_xc_x_slice
2016-07-20 12:24:14.925 STDERR [INFO] I0720 12:24:14.924222 15178 net.cpp:425] lstm1_W_xc_x_slice <- W_xc_x
2016-07-20 12:24:14.925 STDERR [INFO] I0720 12:24:14.924232 15178 net.cpp:399] lstm1_W_xc_x_slice -> W_xc_x_1
2016-07-20 12:24:14.942 STDERR [INFO] I0720 12:24:14.941987 15178 net.cpp:141] Setting up lstm1_W_xc_x_slice
2016-07-20 12:24:14.942 STDERR [INFO] I0720 12:24:14.942015 15178 net.cpp:148] Top shape: 1 1 4000 (4000)
2016-07-20 12:24:14.942 STDERR [INFO] I0720 12:24:14.942020 15178 net.cpp:156] Memory required for data: 42016
2016-07-20 12:24:14.942 STDERR [INFO] I0720 12:24:14.942026 15178 layer_factory.hpp:77] Creating layer lstm1_h_conted_0
2016-07-20 12:24:14.942 STDERR [INFO] I0720 12:24:14.942050 15178 net.cpp:91] Creating Layer lstm1_h_conted_0
2016-07-20 12:24:14.942 STDERR [INFO] I0720 12:24:14.942056 15178 net.cpp:425] lstm1_h_conted_0 <- h_0
2016-07-20 12:24:14.942 STDERR [INFO] I0720 12:24:14.942064 15178 net.cpp:425] lstm1_h_conted_0 <- cont_1_lstm1_cont_slice_0_split_0
2016-07-20 12:24:14.942 STDERR [INFO] I0720 12:24:14.942070 15178 net.cpp:399] lstm1_h_conted_0 -> h_conted_0
2016-07-20 12:24:14.955 STDERR [INFO] I0720 12:24:14.955070 15178 net.cpp:141] Setting up lstm1_h_conted_0
2016-07-20 12:24:14.955 STDERR [INFO] I0720 12:24:14.955096 15178 net.cpp:148] Top shape: 1 1 1000 (1000)
2016-07-20 12:24:14.955 STDERR [INFO] I0720 12:24:14.955101 15178 net.cpp:156] Memory required for data: 46016
2016-07-20 12:24:14.955 STDERR [INFO] I0720 12:24:14.955106 15178 layer_factory.hpp:77] Creating layer lstm1_transform_1
2016-07-20 12:24:14.955 STDERR [INFO] I0720 12:24:14.955126 15178 net.cpp:91] Creating Layer lstm1_transform_1
2016-07-20 12:24:14.955 STDERR [INFO] I0720 12:24:14.955132 15178 net.cpp:425] lstm1_transform_1 <- h_conted_0
2016-07-20 12:24:14.955 STDERR [INFO] I0720 12:24:14.955142 15178 net.cpp:399] lstm1_transform_1 -> W_hc_h_0
2016-07-20 12:24:14.976 STDERR [INFO] I0720 12:24:14.976130 15174 net.cpp:141] Setting up embedding
2016-07-20 12:24:14.976 STDERR [INFO] I0720 12:24:14.976178 15174 net.cpp:148] Top shape: 1 1 500 (500)
2016-07-20 12:24:14.976 STDERR [INFO] I0720 12:24:14.976184 15174 net.cpp:156] Memory required for data: 22408
2016-07-20 12:24:14.976 STDERR [INFO] I0720 12:24:14.976207 15174 layer_factory.hpp:77] Creating layer lstm1
2016-07-20 12:24:14.976 STDERR [INFO] I0720 12:24:14.976240 15174 net.cpp:91] Creating Layer lstm1
2016-07-20 12:24:14.976 STDERR [INFO] I0720 12:24:14.976248 15174 net.cpp:425] lstm1 <- embedded_input_frames
…
2016-07-20 12:24:15.000 n.t.s.f.RefreshingImageFetcher$ImageReader [INFO] [Timing] RequestID: 0 StreamID: home/peifeng/work/data/frame.320x240.jpg SequenceNr: 108 Entering queue: 1469031855000
2016-07-20 12:24:15.000 n.t.s.f.RefreshingImageFetcher$ImageReader [INFO] [Timing] RequestID: 0 StreamID: home/peifeng/work/data/frame.320x240.jpg SequenceNr: 109 Entering queue: 1469031855000
2016-07-20 12:24:15.000 n.t.s.f.RefreshingImageFetcher$ImageReader [INFO] [Timing] RequestID: 0 StreamID: home/peifeng/work/data/frame.320x240.jpg SequenceNr: 110 Entering queue: 1469031855000
2016-07-20 12:24:15.002 STDERR [INFO] I0720 12:24:15.002482 15174 net.cpp:141] Setting up lstm1_
2016-07-20 12:24:15.003 STDERR [INFO] I0720 12:24:15.002526 15174 net.cpp:148] Top shape: 1 1 500 (500)
2016-07-20 12:24:15.003 STDERR [INFO] I0720 12:24:15.002535 15174 net.cpp:148] Top shape: 1 1 (1)
2016-07-20 12:24:15.003 STDERR [INFO] I0720 12:24:15.002540 15174 net.cpp:156] Memory required for data: 2004
2016-07-20 12:24:15.003 STDERR [INFO] I0720 12:24:15.002550 15174 layer_factory.hpp:77] Creating layer lstm1_
2016-07-20 12:24:15.003 STDERR [INFO] I0720 12:24:15.002573 15174 net.cpp:91] Creating Layer lstm1_
2016-07-20 12:24:15.003 STDERR [INFO] I0720 12:24:15.002580 15174 net.cpp:399] lstm1_ -> c_0
2016-07-20 12:24:15.003 STDERR [INFO] I0720 12:24:15.002598 15174 net.cpp:399] lstm1_ -> h_0
2016-07-20 12:24:15.003 STDERR [INFO] I0720 12:24:15.003271 15174 net.cpp:141] Setting up lstm1_
2016-07-20 12:24:15.003 STDERR [INFO] I0720 12:24:15.003283 15174 net.cpp:148] Top shape: 1 1 1000 (1000)
2016-07-20 12:24:15.003 STDERR [INFO] I0720 12:24:15.003289 15174 net.cpp:148] Top shape: 1 1 1000 (1000)
2016-07-20 12:24:15.003 STDERR [INFO] I0720 12:24:15.003293 15174 net.cpp:156] Memory required for data: 10004
2016-07-20 12:24:15.003 STDERR [INFO] I0720 12:24:15.003298 15174 layer_factory.hpp:77] Creating layer lstm1_cont_slice
2016-07-20 12:24:15.004 STDERR [INFO] I0720 12:24:15.003314 15174 net.cpp:91] Creating Layer lstm1_cont_slice
2016-07-20 12:24:15.004 STDERR [INFO] I0720 12:24:15.003319 15174 net.cpp:425] lstm1_cont_slice <- cont
2016-07-20 12:24:15.004 STDERR [INFO] I0720 12:24:15.003327 15174 net.cpp:399] lstm1_cont_slice -> cont_1
2016-07-20 12:24:15.005 STDERR [INFO] I0720 12:24:15.005035 15174 net.cpp:141] Setting up lstm1_cont_slice
2016-07-20 12:24:15.005 STDERR [INFO] I0720 12:24:15.005054 15174 net.cpp:148] Top shape: 1 1 (1)
2016-07-20 12:24:15.005 STDERR [INFO] I0720 12:24:15.005060 15174 net.cpp:156] Memory required for data: 10008
2016-07-20 12:24:15.005 STDERR [INFO] I0720 12:24:15.005065 15174 layer_factory.hpp:77] Creating layer cont_1_lstm1_cont_slice_0_split
2016-07-20 12:24:15.005 STDERR [INFO] I0720 12:24:15.005079 15174 net.cpp:91] Creating Layer cont_1_lstm1_cont_slice_0_split
2016-07-20 12:24:15.005 STDERR [INFO] I0720 12:24:15.005085 15174 net.cpp:425] cont_1_lstm1_cont_slice_0_split <- cont_1
2016-07-20 12:24:15.005 STDERR [INFO] I0720 12:24:15.005092 15174 net.cpp:399] cont_1_lstm1_cont_slice_0_split -> cont_1_lstm1_cont_slice_0_split_0
2016-07-20 12:24:15.005 STDERR [INFO] I0720 12:24:15.005101 15174 net.cpp:399] cont_1_lstm1_cont_slice_0_split -> cont_1_lstm1_cont_slice_0_split_1
2016-07-20 12:24:15.006 n.t.s.s.CVParticleSpout [INFO] [Timing] RequestID: 0 StreamID: home/peifeng/work/data/frame.320x240.jpg SequenceNr: 108 Leaving fetcher: 1469031855006 Size: 8702
2016-07-20 12:24:15.006 n.t.s.b.CVParticleBolt [INFO] [Timing] RequestID: 0 StreamID: home/peifeng/work/data/frame.320x240.jpg SequenceNr: 108 Entering scale: 1469031855006
2016-07-20 12:24:15.021 STDERR [INFO] I0720 12:24:15.021809 15174 net.cpp:141] Setting up cont_1_lstm1_cont_slice_0_split
2016-07-20 12:24:15.022 STDERR [INFO] I0720 12:24:15.021853 15174 net.cpp:148] Top shape: 1 1 (1)
2016-07-20 12:24:15.022 STDERR [INFO] I0720 12:24:15.021862 15174 net.cpp:148] Top shape: 1 1 (1)
2016-07-20 12:24:15.022 STDERR [INFO] I0720 12:24:15.021865 15174 net.cpp:156] Memory required for data: 10016
2016-07-20 12:24:15.022 STDERR [INFO] I0720 12:24:15.021873 15174 layer_factory.hpp:77] Creating layer lstm1_x_transform
2016-07-20 12:24:15.022 STDERR [INFO] I0720 12:24:15.021899 15174 net.cpp:91] Creating Layer lstm1_x_transform
2016-07-20 12:24:15.022 STDERR [INFO] I0720 12:24:15.021906 15174 net.cpp:425] lstm1_x_transform <- x
2016-07-20 12:24:15.022 STDERR [INFO] I0720 12:24:15.021917 15174 net.cpp:399] lstm1_x_transform -> W_xc_x
2016-07-20 12:24:15.028 n.t.s.s.CVParticleSpout [INFO] [Timing] RequestID: 0 StreamID: home/peifeng/work/data/frame.320x240.jpg SequenceNr: 109 Leaving fetcher: 1469031855028 Size: 8702
2016-07-20 12:24:15.031 n.t.s.b.CVParticleBolt [INFO] [Timing] RequestID: 0 StreamID: home/peifeng/work/data/frame.320x240.jpg SequenceNr: 108 Leaving scale: 1469031855031 Size: 3530
2016-07-20 12:24:15.031 n.t.s.s.CVParticleSpout [INFO] [Timing] RequestID: 0 StreamID: home/peifeng/work/data/frame.320x240.jpg SequenceNr: 110 Leaving fetcher: 1469031855031 Size: 8702
2016-07-20 12:24:15.031 n.t.s.b.CVParticleBolt [INFO] [Timing] RequestID: 0 StreamID: home/peifeng/work/data/frame.320x240.jpg SequenceNr: 109 Entering scale: 1469031855031
2016-07-20 12:24:15.032 STDERR [INFO] I0720 12:24:15.031931 15178 net.cpp:141] Setting up lstm1_transform_1
2016-07-20 12:24:15.032 STDERR [INFO] I0720 12:24:15.031966 15178 net.cpp:148] Top shape: 1 1 4000 (4000)
2016-07-20 12:24:15.032 STDERR [INFO] I0720 12:24:15.031972 15178 net.cpp:156] Memory required for data: 62016
2016-07-20 12:24:15.032 STDERR [INFO] I0720 12:24:15.031987 15178 layer_factory.hpp:77] Creating layer lstm1_gate_input_1
2016-07-20 12:24:15.032 STDERR [INFO] I0720 12:24:15.032016 15178 net.cpp:91] Creating Layer lstm1_gate_input_1
2016-07-20 12:24:15.032 STDERR [INFO] I0720 12:24:15.032024 15178 net.cpp:425] lstm1_gate_input_1 <- W_hc_h_0
2016-07-20 12:24:15.032 STDERR [INFO] I0720 12:24:15.032032 15178 net.cpp:425] lstm1_gate_input_1 <- W_xc_x_1
2016-07-20 12:24:15.032 STDERR [INFO] I0720 12:24:15.032040 15178 net.cpp:399] lstm1_gate_input_1 -> gate_input_1
2016-07-20 12:24:15.035 n.t.s.b.CVParticleBolt [INFO] [Timing] RequestID: 0 StreamID: home/peifeng/work/data/frame.320x240.jpg SequenceNr: 109 Leaving scale: 1469031855035 Size: 3530
2016-07-20 12:24:15.036 n.t.s.b.CVParticleBolt [INFO] [Timing] RequestID: 0 StreamID: home/peifeng/work/data/frame.320x240.jpg SequenceNr: 110 Entering scale: 1469031855036
2016-07-20 12:24:15.036 STDERR [INFO] I0720 12:24:15.036619 15178 net.cpp:141] Setting up lstm1_gate_input_1
2016-07-20 12:24:15.037 STDERR [INFO] I0720 12:24:15.036651 15178 net.cpp:148] Top shape: 1 1 4000 (4000)
2016-07-20 12:24:15.037 STDERR [INFO] I0720 12:24:15.036658 15178 net.cpp:156] Memory required for data: 78016
2016-07-20 12:24:15.037 STDERR [INFO] I0720 12:24:15.036665 15178 layer_factory.hpp:77] Creating layer lstm1_unit_1
2016-07-20 12:24:15.037 STDERR [INFO] I0720 12:24:15.036689 15178 net.cpp:91] Creating Layer lstm1_unit_1
2016-07-20 12:24:15.037 STDERR [INFO] I0720 12:24:15.036696 15178 net.cpp:425] lstm1_unit_1 <- c_0
2016-07-20 12:24:15.037 STDERR [INFO] I0720 12:24:15.036705 15178 net.cpp:425] lstm1_unit_1 <- gate_input_1
2016-07-20 12:24:15.037 STDERR [INFO] I0720 12:24:15.036710 15178 net.cpp:425] lstm1_unit_1 <- cont_1_lstm1_cont_slice_0_split_1
2016-07-20 12:24:15.037 STDERR [INFO] I0720 12:24:15.036717 15178 net.cpp:399] lstm1_unit_1 -> c_1
2016-07-20 12:24:15.037 STDERR [INFO] I0720 12:24:15.036730 15178 net.cpp:399] lstm1_unit_1 -> h_1
2016-07-20 12:24:15.040 n.t.s.b.CVParticleBolt [INFO] [Timing] RequestID: 0 StreamID: home/peifeng/work/data/frame.320x240.jpg SequenceNr: 110 Leaving scale: 1469031855040 Size: 3530
2016-07-20 12:24:15.047 STDERR [INFO] I0720 12:24:15.047855 15178 net.cpp:141] Setting up lstm1_unit_1
2016-07-20 12:24:15.048 STDERR [INFO] I0720 12:24:15.047896 15178 net.cpp:148] Top shape: 1 1 1000 (1000)
2016-07-20 12:24:15.048 STDERR [INFO] I0720 12:24:15.047904 15178 net.cpp:148] Top shape: 1 1 1000 (1000)
2016-07-20 12:24:15.048 STDERR [INFO] I0720 12:24:15.047907 15178 net.cpp:156] Memory required for data: 86016
2016-07-20 12:24:15.048 STDERR [INFO] I0720 12:24:15.047916 15178 layer_factory.hpp:77] Creating layer lstm1_
2016-07-20 12:24:15.048 STDERR [INFO] I0720 12:24:15.047933 15178 net.cpp:91] Creating Layer lstm1_
2016-07-20 12:24:15.048 STDERR [INFO] I0720 12:24:15.047940 15178 net.cpp:425] lstm1_ <- c_1
2016-07-20 12:24:15.048 STDERR [INFO] I0720 12:24:15.047950 15178 net.cpp:399] lstm1_ -> c_T
2016-07-20 12:24:15.049 STDERR [INFO] I0720 12:24:15.049810 15178 net.cpp:141] Setting up lstm1_
2016-07-20 12:24:15.050 STDERR [INFO] I0720 12:24:15.049825 15178 net.cpp:148] Top shape: 1 1 1000 (1000)
2016-07-20 12:24:15.050 STDERR [INFO] I0720 12:24:15.049829 15178 net.cpp:156] Memory required for data: 90016
2016-07-20 12:24:15.050 STDERR [INFO] I0720 12:24:15.049834 15178 layer_factory.hpp:77] Creating layer lstm1_h_concat
2016-07-20 12:24:15.050 STDERR [INFO] I0720 12:24:15.049845 15178 net.cpp:91] Creating Layer lstm1_h_concat
2016-07-20 12:24:15.050 STDERR [INFO] I0720 12:24:15.049850 15178 net.cpp:425] lstm1_h_concat <- h_1
2016-07-20 12:24:15.050 STDERR [INFO] I0720 12:24:15.049862 15178 net.cpp:399] lstm1_h_concat -> h
2016-07-20 12:24:15.050 STDERR [INFO] I0720 12:24:15.050030 15178 net.cpp:141] Setting up lstm1_h_concat
2016-07-20 12:24:15.050 STDERR [INFO] I0720 12:24:15.050041 15178 net.cpp:148] Top shape: 1 1 1000 (1000)
2016-07-20 12:24:15.050 STDERR [INFO] I0720 12:24:15.050045 15178 net.cpp:156] Memory required for data: 94016
2016-07-20 12:24:15.050 STDERR [INFO] I0720 12:24:15.050050 15178 layer_factory.hpp:77] Creating layer h_pseudoloss
2016-07-20 12:24:15.050 STDERR [INFO] I0720 12:24:15.050065 15178 net.cpp:91] Creating Layer h_pseudoloss
2016-07-20 12:24:15.050 STDERR [INFO] I0720 12:24:15.050070 15178 net.cpp:425] h_pseudoloss <- h
…
2016-07-20 12:24:15.074 STDERR [INFO] }
2016-07-20 12:24:15.074 STDERR [INFO] I0720 12:24:15.065773 15178 layer_factory.hpp:77] Creating layer lstm2_
2016-07-20 12:24:15.074 STDERR [INFO] I0720 12:24:15.065785 15178 net.cpp:91] Creating Layer lstm2_
2016-07-20 12:24:15.074 STDERR [INFO] I0720 12:24:15.065791 15178 net.cpp:399] lstm2_ -> x
2016-07-20 12:24:15.074 STDERR [INFO] I0720 12:24:15.065803 15178 net.cpp:399] lstm2_ -> cont
2016-07-20 12:24:15.074 STDERR [INFO] I0720 12:24:15.065963 15186 net.cpp:141] Setting up conv1
2016-07-20 12:24:15.074 STDERR [INFO] I0720 12:24:15.065985 15186 net.cpp:148] Top shape: 10 96 55 55 (2904000)
2016-07-20 12:24:15.074 STDERR [INFO] I0720 12:24:15.065991 15186 net.cpp:156] Memory required for data: 17799480
2016-07-20 12:24:15.075 STDERR [INFO] I0720 12:24:15.066007 15186 layer_factory.hpp:77] Creating layer relu1
2016-07-20 12:24:15.075 STDERR [INFO] I0720 12:24:15.066018 15186 net.cpp:91] Creating Layer relu1
2016-07-20 12:24:15.075 STDERR [INFO] I0720 12:24:15.066025 15186 net.cpp:425] relu1 <- conv1
2016-07-20 12:24:15.075 STDERR [INFO] I0720 12:24:15.066031 15186 net.cpp:386] relu1 -> conv1 (in-place)
2016-07-20 12:24:15.075 STDERR [INFO] I0720 12:24:15.069365 15178 net.cpp:141] Setting up lstm2_
2016-07-20 12:24:15.075 STDERR [INFO] I0720 12:24:15.069382 15178 net.cpp:148] Top shape: 1 1 1501 (1501)
2016-07-20 12:24:15.075 STDERR [INFO] I0720 12:24:15.069389 15178 net.cpp:148] Top shape: 1 1 (1)
2016-07-20 12:24:15.075 STDERR [INFO] I0720 12:24:15.069393 15178 net.cpp:156] Memory required for data: 6008
2016-07-20 12:24:15.075 STDERR [INFO] I0720 12:24:15.069396 15186 net.cpp:141] Setting up relu1
2016-07-20 12:24:15.076 STDERR [INFO] I0720 12:24:15.069399 15178 layer_factory.hpp:77] Creating layer lstm2_
2016-07-20 12:24:15.076 STDERR [INFO] I0720 12:24:15.069413 15186 net.cpp:148] Top shape: 10 96 55 55 (2904000)
2016-07-20 12:24:15.076 STDERR [INFO] I0720 12:24:15.069418 15186 net.cpp:156] Memory required for data: 29415480
2016-07-20 12:24:15.076 STDERR [INFO] I0720 12:24:15.069418 15178 net.cpp:91] Creating Layer lstm2_
2016-07-20 12:24:15.076 STDERR [INFO] I0720 12:24:15.069424 15186 layer_factory.hpp:77] Creating layer pool1
2016-07-20 12:24:15.076 STDERR [INFO] I0720 12:24:15.069432 15178 net.cpp:399] lstm2_ -> c_0
2016-07-20 12:24:15.076 STDERR [INFO] I0720 12:24:15.069438 15186 net.cpp:91] Creating Layer pool1
2016-07-20 12:24:15.076 STDERR [INFO] I0720 12:24:15.069444 15186 net.cpp:425] pool1 <- conv1
2016-07-20 12:24:15.076 STDERR [INFO] I0720 12:24:15.069444 15178 net.cpp:399] lstm2_ -> h_0
2016-07-20 12:24:15.076 STDERR [INFO] I0720 12:24:15.069442 15174 net.cpp:141] Setting up lstm1_x_transform
2016-07-20 12:24:15.076 STDERR [INFO] I0720 12:24:15.069453 15186 net.cpp:399] pool1 -> pool1
2016-07-20 12:24:15.076 STDERR [INFO] I0720 12:24:15.069461 15174 net.cpp:148] Top shape: 1 1 4000 (4000)
2016-07-20 12:24:15.076 STDERR [INFO] I0720 12:24:15.069466 15174 net.cpp:156] Memory required for data: 26016
2016-07-20 12:24:15.076 STDERR [INFO] I0720 12:24:15.069483 15174 layer_factory.hpp:77] Creating layer lstm1_W_xc_x_slice
2016-07-20 12:24:15.076 STDERR [INFO] I0720 12:24:15.069492 15174 net.cpp:91] Creating Layer lstm1_W_xc_x_slice
2016-07-20 12:24:15.076 STDERR [INFO] I0720 12:24:15.069499 15174 net.cpp:425] lstm1_W_xc_x_slice <- W_xc_x
2016-07-20 12:24:15.076 STDERR [INFO] I0720 12:24:15.069506 15174 net.cpp:399] lstm1_W_xc_x_slice -> W_xc_x_1
2016-07-20 12:24:15.076 STDERR [INFO] I0720 12:24:15.069759 15178 net.cpp:141] Setting up lstm2_
2016-07-20 12:24:15.077 STDERR [INFO] I0720 12:24:15.069772 15178 net.cpp:148] Top shape: 1 1 1000 (1000)
2016-07-20 12:24:15.077 STDERR [INFO] I0720 12:24:15.069777 15178 net.cpp:148] Top shape: 1 1 1000 (1000)
2016-07-20 12:24:15.077 STDERR [INFO] I0720 12:24:15.069782 15178 net.cpp:156] Memory required for data: 14008
2016-07-20 12:24:15.077 STDERR [INFO] I0720 12:24:15.069787 15178 layer_factory.hpp:77] Creating layer lstm2_cont_slice
2016-07-20 12:24:15.077 STDERR [INFO] I0720 12:24:15.069794 15178 net.cpp:91] Creating Layer lstm2_cont_slice
2016-07-20 12:24:15.077 STDERR [INFO] I0720 12:24:15.069797 15174 net.cpp:141] Setting up lstm1_W_xc_x_slice
2016-07-20 12:24:15.077 STDERR [INFO] I0720 12:24:15.069799 15178 net.cpp:425] lstm2_cont_slice <- cont
2016-07-20 12:24:15.077 STDERR [INFO] I0720 12:24:15.069810 15174 net.cpp:148] Top shape: 1 1 4000 (4000)
2016-07-20 12:24:15.077 STDERR [INFO] I0720 12:24:15.069814 15174 net.cpp:156] Memory required for data: 42016
2016-07-20 12:24:15.077 STDERR [INFO] I0720 12:24:15.069815 15178 net.cpp:399] lstm2_cont_slice -> cont_1
2016-07-20 12:24:15.077 STDERR [INFO] I0720 12:24:15.069819 15174 layer_factory.hpp:77] Creating layer lstm1_h_conted_0
2016-07-20 12:24:15.077 STDERR [INFO] I0720 12:24:15.069831 15174 net.cpp:91] Creating Layer lstm1_h_conted_0
2016-07-20 12:24:15.077 STDERR [INFO] I0720 12:24:15.069836 15174 net.cpp:425] lstm1_h_conted_0 <- h_0
2016-07-20 12:24:15.077 STDERR [INFO] I0720 12:24:15.069842 15174 net.cpp:425] lstm1_h_conted_0 <- cont_1_lstm1_cont_slice_0_split_0
2016-07-20 12:24:15.077 STDERR [INFO] I0720 12:24:15.069841 15186 net.cpp:141] Setting up pool1
2016-07-20 12:24:15.077 STDERR [INFO] I0720 12:24:15.069849 15174 net.cpp:399] lstm1_h_conted_0 -> h_conted_0
2016-07-20 12:24:15.077 STDERR [INFO] I0720 12:24:15.069854 15186 net.cpp:148] Top shape: 10 96 27 27 (699840)
2016-07-20 12:24:15.078 STDERR [INFO] I0720 12:24:15.069859 15186 net.cpp:156] Memory required for data: 32214840
2016-07-20 12:24:15.078 STDERR [INFO] I0720 12:24:15.069864 15186 layer_factory.hpp:77] Creating layer norm1
2016-07-20 12:24:15.078 STDERR [INFO] I0720 12:24:15.069878 15186 net.cpp:91] Creating Layer norm1
2016-07-20 12:24:15.078 STDERR [INFO] I0720 12:24:15.069881 15178 net.cpp:141] Setting up lstm2_cont_slice
2016-07-20 12:24:15.078 STDERR [INFO] I0720 12:24:15.069885 15186 net.cpp:425] norm1 <- pool1
2016-07-20 12:24:15.078 STDERR [INFO] I0720 12:24:15.069895 15178 net.cpp:148] Top shape: 1 1 (1)
2016-07-20 12:24:15.078 STDERR [INFO] I0720 12:24:15.069897 15186 net.cpp:399] norm1 -> norm1
2016-07-20 12:24:15.078 STDERR [INFO] I0720 12:24:15.069898 15178 net.cpp:156] Memory required for data: 14012
2016-07-20 12:24:15.078 STDERR [INFO] I0720 12:24:15.069911 15178 layer_factory.hpp:77] Creating layer cont_1_lstm2_cont_slice_0_split
2016-07-20 12:24:15.078 STDERR [INFO] I0720 12:24:15.069921 15178 net.cpp:91] Creating Layer cont_1_lstm2_cont_slice_0_split
2016-07-20 12:24:15.078 STDERR [INFO] I0720 12:24:15.069926 15178 net.cpp:425] cont_1_lstm2_cont_slice_0_split <- cont_1
2016-07-20 12:24:15.078 STDERR [INFO] I0720 12:24:15.069932 15178 net.cpp:399] cont_1_lstm2_cont_slice_0_split -> cont_1_lstm2_cont_slice_0_split_0
2016-07-20 12:24:15.078 STDERR [INFO] I0720 12:24:15.069939 15178 net.cpp:399] cont_1_lstm2_cont_slice_0_split -> cont_1_lstm2_cont_slice_0_split_1
2016-07-20 12:24:15.078 STDERR [INFO] I0720 12:24:15.070801 15178 net.cpp:141] Setting up cont_1_lstm2_cont_slice_0_split
2016-07-20 12:24:15.078 STDERR [INFO] I0720 12:24:15.070813 15178 net.cpp:148] Top shape: 1 1 (1)
2016-07-20 12:24:15.078 STDERR [INFO] I0720 12:24:15.070819 15178 net.cpp:148] Top shape: 1 1 (1)
2016-07-20 12:24:15.078 STDERR [INFO] I0720 12:24:15.070823 15178 net.cpp:156] Memory required for data: 14020
2016-07-20 12:24:15.079 STDERR [INFO] I0720 12:24:15.070828 15178 layer_factory.hpp:77] Creating layer lstm2_x_transform
2016-07-20 12:24:15.079 STDERR [INFO] I0720 12:24:15.070827 15174 net.cpp:141] Setting up lstm1_h_conted_0
2016-07-20 12:24:15.079 STDERR [INFO] I0720 12:24:15.070843 15174 net.cpp:148] Top shape: 1 1 1000 (1000)
2016-07-20 12:24:15.079 STDERR [INFO] I0720 12:24:15.070844 15178 net.cpp:91] Creating Layer lstm2_x_transform
2016-07-20 12:24:15.079 STDERR [INFO] I0720 12:24:15.070849 15174 net.cpp:156] Memory required for data: 46016
2016-07-20 12:24:15.079 STDERR [INFO] I0720 12:24:15.070852 15178 net.cpp:425] lstm2_x_transform <- x
2016-07-20 12:24:15.079 STDERR [INFO] I0720 12:24:15.070854 15174 layer_factory.hpp:77] Creating layer lstm1_transform_1
2016-07-20 12:24:15.079 STDERR [INFO] I0720 12:24:15.070859 15178 net.cpp:399] lstm2_x_transform -> W_xc_x
2016-07-20 12:24:15.079 STDERR [INFO] I0720 12:24:15.070864 15174 net.cpp:91] Creating Layer lstm1_transform_1
2016-07-20 12:24:15.079 STDERR [INFO] I0720 12:24:15.070869 15174 net.cpp:425] lstm1_transform_1 <- h_conted_0
2016-07-20 12:24:15.079 STDERR [INFO] I0720 12:24:15.070883 15174 net.cpp:399] lstm1_transform_1 -> W_hc_h_0
2016-07-20 12:24:15.079 STDERR [INFO] I0720 12:24:15.071856 15186 net.cpp:141] Setting up norm1
2016-07-20 12:24:15.079 STDERR [INFO] I0720 12:24:15.071869 15186 net.cpp:148] Top shape: 10 96 27 27 (699840)
2016-07-20 12:24:15.079 STDERR [INFO] I0720 12:24:15.071874 15186 net.cpp:156] Memory required for data: 35014200
2016-07-20 12:24:15.079 STDERR [INFO] I0720 12:24:15.071880 15186 layer_factory.hpp:77] Creating layer conv2
2016-07-20 12:24:15.079 STDERR [INFO] I0720 12:24:15.071893 15186 net.cpp:91] Creating Layer conv2
2016-07-20 12:24:15.079 STDERR [INFO] I0720 12:24:15.071898 15186 net.cpp:425] conv2 <- norm1
2016-07-20 12:24:15.079 STDERR [INFO] I0720 12:24:15.071907 15186 net.cpp:399] conv2 -> conv2
2016-07-20 12:24:15.097 STDERR [INFO] I0720 12:24:15.097559 15172 net.cpp:141] Setting up conv1
2016-07-20 12:24:15.098 STDERR [INFO] I0720 12:24:15.097627 15172 net.cpp:148] Top shape: 10 96 55 55 (2904000)
2016-07-20 12:24:15.098 STDERR [INFO] I0720 12:24:15.097635 15172 net.cpp:156] Memory required for data: 17799480
2016-07-20 12:24:15.098 STDERR [INFO] I0720 12:24:15.097661 15172 layer_factory.hpp:77] Creating layer relu1
2016-07-20 12:24:15.098 STDERR [INFO] I0720 12:24:15.097684 15172 net.cpp:91] Creating Layer relu1
2016-07-20 12:24:15.098 STDERR [INFO] I0720 12:24:15.097692 15172 net.cpp:425] relu1 <- conv1
2016-07-20 12:24:15.099 STDERR [INFO] I0720 12:24:15.097702 15172 net.cpp:386] relu1 -> conv1 (in-place)
2016-07-20 12:24:15.099 STDERR [INFO] I0720 12:24:15.098482 15172 net.cpp:141] Setting up relu1
2016-07-20 12:24:15.099 STDERR [INFO] I0720 12:24:15.098498 15172 net.cpp:148] Top shape: 10 96 55 55 (2904000)
2016-07-20 12:24:15.099 STDERR [INFO] I0720 12:24:15.098503 15172 net.cpp:156] Memory required for data: 29415480
2016-07-20 12:24:15.099 STDERR [INFO] I0720 12:24:15.098508 15172 layer_factory.hpp:77] Creating layer pool1
2016-07-20 12:24:15.099 STDERR [INFO] I0720 12:24:15.098523 15172 net.cpp:91] Creating Layer pool1
2016-07-20 12:24:15.099 STDERR [INFO] I0720 12:24:15.098528 15172 net.cpp:425] pool1 <- conv1
2016-07-20 12:24:15.099 STDERR [INFO] I0720 12:24:15.098536 15172 net.cpp:399] pool1 -> pool1
2016-07-20 12:24:15.099 STDERR [INFO] I0720 12:24:15.098942 15172 net.cpp:141] Setting up pool1
2016-07-20 12:24:15.099 STDERR [INFO] I0720 12:24:15.098953 15172 net.cpp:148] Top shape: 10 96 27 27 (699840)
2016-07-20 12:24:15.099 STDERR [INFO] I0720 12:24:15.098958 15172 net.cpp:156] Memory required for data: 32214840
2016-07-20 12:24:15.099 STDERR [INFO] I0720 12:24:15.098965 15172 layer_factory.hpp:77] Creating layer norm1
2016-07-20 12:24:15.099 STDERR [INFO] I0720 12:24:15.098980 15172 net.cpp:91] Creating Layer norm1
2016-07-20 12:24:15.099 STDERR [INFO] I0720 12:24:15.098985 15172 net.cpp:425] norm1 <- pool1
2016-07-20 12:24:15.099 STDERR [INFO] I0720 12:24:15.098992 15172 net.cpp:399] norm1 -> norm1
2016-07-20 12:24:15.100 STDERR [INFO] I0720 12:24:15.100656 15172 net.cpp:141] Setting up norm1
2016-07-20 12:24:15.101 STDERR [INFO] I0720 12:24:15.100674 15172 net.cpp:148] Top shape: 10 96 27 27 (699840)
2016-07-20 12:24:15.101 STDERR [INFO] I0720 12:24:15.100679 15172 net.cpp:156] Memory required for data: 35014200
2016-07-20 12:24:15.101 STDERR [INFO] I0720 12:24:15.100687 15172 layer_factory.hpp:77] Creating layer conv2
2016-07-20 12:24:15.101 STDERR [INFO] I0720 12:24:15.100705 15172 net.cpp:91] Creating Layer conv2
2016-07-20 12:24:15.101 STDERR [INFO] I0720 12:24:15.100711 15172 net.cpp:425] conv2 <- norm1
2016-07-20 12:24:15.101 STDERR [INFO] I0720 12:24:15.100719 15172 net.cpp:399] conv2 -> conv2
2016-07-20 12:24:15.104 STDERR [INFO] I0720 12:24:15.104323 15186 net.cpp:141] Setting up conv2
2016-07-20 12:24:15.104 STDERR [INFO] I0720 12:24:15.104367 15186 net.cpp:148] Top shape: 10 256 27 27 (1866240)
2016-07-20 12:24:15.104 STDERR [INFO] I0720 12:24:15.104374 15186 net.cpp:156] Memory required for data: 42479160
2016-07-20 12:24:15.104 STDERR [INFO] I0720 12:24:15.104395 15186 layer_factory.hpp:77] Creating layer relu2
2016-07-20 12:24:15.104 STDERR [INFO] I0720 12:24:15.104410 15186 net.cpp:91] Creating Layer relu2
2016-07-20 12:24:15.105 STDERR [INFO] I0720 12:24:15.104416 15186 net.cpp:425] relu2 <- conv2
2016-07-20 12:24:15.105 STDERR [INFO] I0720 12:24:15.104424 15186 net.cpp:386] relu2 -> conv2 (in-place)
2016-07-20 12:24:15.105 STDERR [INFO] I0720 12:24:15.105521 15186 net.cpp:141] Setting up relu2
2016-07-20 12:24:15.105 STDERR [INFO] I0720 12:24:15.105546 15186 net.cpp:148] Top shape: 10 256 27 27 (1866240)
2016-07-20 12:24:15.105 STDERR [INFO] I0720 12:24:15.105556 15186 net.cpp:156] Memory required for data: 49944120
2016-07-20 12:24:15.105 STDERR [INFO] I0720 12:24:15.105567 15186 layer_factory.hpp:77] Creating layer pool2
2016-07-20 12:24:15.105 STDERR [INFO] I0720 12:24:15.105583 15186 net.cpp:91] Creating Layer pool2
2016-07-20 12:24:15.105 STDERR [INFO] I0720 12:24:15.105593 15186 net.cpp:425] pool2 <- conv2
2016-07-20 12:24:15.105 STDERR [INFO] I0720 12:24:15.105607 15186 net.cpp:399] pool2 -> pool2
2016-07-20 12:24:15.106 STDERR [INFO] I0720 12:24:15.106035 15186 net.cpp:141] Setting up pool2
2016-07-20 12:24:15.106 STDERR [INFO] I0720 12:24:15.106060 15186 net.cpp:148] Top shape: 10 256 13 13 (432640)
2016-07-20 12:24:15.106 STDERR [INFO] I0720 12:24:15.106067 15186 net.cpp:156] Memory required for data: 51674680
2016-07-20 12:24:15.106 STDERR [INFO] I0720 12:24:15.106076 15186 layer_factory.hpp:77] Creating layer norm2
2016-07-20 12:24:15.106 STDERR [INFO] I0720 12:24:15.106101 15186 net.cpp:91] Creating Layer norm2
2016-07-20 12:24:15.106 STDERR [INFO] I0720 12:24:15.106112 15186 net.cpp:425] norm2 <- pool2
2016-07-20 12:24:15.106 STDERR [INFO] I0720 12:24:15.106128 15186 net.cpp:399] norm2 -> norm2
2016-07-20 12:24:15.107 STDERR [INFO] I0720 12:24:15.107206 15186 net.cpp:141] Setting up norm2
2016-07-20 12:24:15.107 STDERR [INFO] I0720 12:24:15.107229 15186 net.cpp:148] Top shape: 10 256 13 13 (432640)
2016-07-20 12:24:15.107 STDERR [INFO] I0720 12:24:15.107239 15186 net.cpp:156] Memory required for data: 53405240
2016-07-20 12:24:15.107 STDERR [INFO] I0720 12:24:15.107246 15186 layer_factory.hpp:77] Creating layer conv3
2016-07-20 12:24:15.107 STDERR [INFO] I0720 12:24:15.107275 15186 net.cpp:91] Creating Layer conv3
2016-07-20 12:24:15.107 STDERR [INFO] I0720 12:24:15.107285 15186 net.cpp:425] conv3 <- norm2
2016-07-20 12:24:15.107 STDERR [INFO] I0720 12:24:15.107296 15186 net.cpp:399] conv3 -> conv3
2016-07-20 12:24:15.112 STDERR [INFO] I0720 12:24:15.112103 15172 net.cpp:141] Setting up conv2
2016-07-20 12:24:15.112 STDERR [INFO] I0720 12:24:15.112152 15172 net.cpp:148] Top shape: 10 256 27 27 (1866240)
2016-07-20 12:24:15.112 STDERR [INFO] I0720 12:24:15.112159 15172 net.cpp:156] Memory required for data: 42479160
2016-07-20 12:24:15.112 STDERR [INFO] I0720 12:24:15.112179 15172 layer_factory.hpp:77] Creating layer relu2
2016-07-20 12:24:15.112 STDERR [INFO] I0720 12:24:15.112195 15172 net.cpp:91] Creating Layer relu2
2016-07-20 12:24:15.112 STDERR [INFO] I0720 12:24:15.112200 15172 net.cpp:425] relu2 <- conv2
2016-07-20 12:24:15.112 STDERR [INFO] I0720 12:24:15.112208 15172 net.cpp:386] relu2 -> conv2 (in-place)
2016-07-20 12:24:15.113 STDERR [INFO] I0720 12:24:15.113540 15172 net.cpp:141] Setting up relu2
2016-07-20 12:24:15.113 STDERR [INFO] I0720 12:24:15.113561 15172 net.cpp:148] Top shape: 10 256 27 27 (1866240)
2016-07-20 12:24:15.113 STDERR [INFO] I0720 12:24:15.113566 15172 net.cpp:156] Memory required for data: 49944120
2016-07-20 12:24:15.113 STDERR [INFO] I0720 12:24:15.113572 15172 layer_factory.hpp:77] Creating layer pool2
2016-07-20 12:24:15.114 STDERR [INFO] I0720 12:24:15.113590 15172 net.cpp:91] Creating Layer pool2
2016-07-20 12:24:15.114 STDERR [INFO] I0720 12:24:15.113595 15172 net.cpp:425] pool2 <- conv2
2016-07-20 12:24:15.114 STDERR [INFO] I0720 12:24:15.113606 15172 net.cpp:399] pool2 -> pool2
2016-07-20 12:24:15.114 STDERR [INFO] I0720 12:24:15.114440 15172 net.cpp:141] Setting up pool2
2016-07-20 12:24:15.114 STDERR [INFO] I0720 12:24:15.114455 15172 net.cpp:148] Top shape: 10 256 13 13 (432640)
2016-07-20 12:24:15.114 STDERR [INFO] I0720 12:24:15.114460 15172 net.cpp:156] Memory required for data: 51674680
2016-07-20 12:24:15.114 STDERR [INFO] I0720 12:24:15.114465 15172 layer_factory.hpp:77] Creating layer norm2
2016-07-20 12:24:15.114 STDERR [INFO] I0720 12:24:15.114478 15172 net.cpp:91] Creating Layer norm2
2016-07-20 12:24:15.114 STDERR [INFO] I0720 12:24:15.114483 15172 net.cpp:425] norm2 <- pool2
2016-07-20 12:24:15.114 STDERR [INFO] I0720 12:24:15.114502 15172 net.cpp:399] norm2 -> norm2
2016-07-20 12:24:15.115 STDERR [INFO] I0720 12:24:15.115701 15172 net.cpp:141] Setting up norm2
2016-07-20 12:24:15.115 STDERR [INFO] I0720 12:24:15.115715 15172 net.cpp:148] Top shape: 10 256 13 13 (432640)
2016-07-20 12:24:15.115 STDERR [INFO] I0720 12:24:15.115720 15172 net.cpp:156] Memory required for data: 53405240
2016-07-20 12:24:15.116 STDERR [INFO] I0720 12:24:15.115725 15172 layer_factory.hpp:77] Creating layer conv3
2016-07-20 12:24:15.116 STDERR [INFO] I0720 12:24:15.115744 15172 net.cpp:91] Creating Layer conv3
2016-07-20 12:24:15.116 STDERR [INFO] I0720 12:24:15.115751 15172 net.cpp:425] conv3 <- norm2
2016-07-20 12:24:15.116 STDERR [INFO] I0720 12:24:15.115757 15172 net.cpp:399] conv3 -> conv3
2016-07-20 12:24:15.116 STDERR [INFO] I0720 12:24:15.116575 15186 net.cpp:141] Setting up conv3
2016-07-20 12:24:15.116 STDERR [INFO] I0720 12:24:15.116622 15186 net.cpp:148] Top shape: 10 384 13 13 (648960)
2016-07-20 12:24:15.116 STDERR [INFO] I0720 12:24:15.116628 15186 net.cpp:156] Memory required for data: 56001080
2016-07-20 12:24:15.116 STDERR [INFO] I0720 12:24:15.116646 15186 layer_factory.hpp:77] Creating layer relu3
2016-07-20 12:24:15.117 STDERR [INFO] I0720 12:24:15.116658 15186 net.cpp:91] Creating Layer relu3
2016-07-20 12:24:15.117 STDERR [INFO] I0720 12:24:15.116664 15186 net.cpp:425] relu3 <- conv3
2016-07-20 12:24:15.117 STDERR [INFO] I0720 12:24:15.116672 15186 net.cpp:386] relu3 -> conv3 (in-place)
2016-07-20 12:24:15.117 STDERR [INFO] I0720 12:24:15.117915 15186 net.cpp:141] Setting up relu3
2016-07-20 12:24:15.118 STDERR [INFO] I0720 12:24:15.117931 15186 net.cpp:148] Top shape: 10 384 13 13 (648960)
2016-07-20 12:24:15.118 STDERR [INFO] I0720 12:24:15.117936 15186 net.cpp:156] Memory required for data: 58596920
2016-07-20 12:24:15.118 STDERR [INFO] I0720 12:24:15.117941 15186 layer_factory.hpp:77] Creating layer conv4
2016-07-20 12:24:15.118 STDERR [INFO] I0720 12:24:15.117959 15186 net.cpp:91] Creating Layer conv4
2016-07-20 12:24:15.118 STDERR [INFO] I0720 12:24:15.117964 15186 net.cpp:425] conv4 <- conv3
2016-07-20 12:24:15.118 STDERR [INFO] I0720 12:24:15.117972 15186 net.cpp:399] conv4 -> conv4
2016-07-20 12:24:15.123 STDERR [INFO] I0720 12:24:15.123668 15174 net.cpp:141] Setting up lstm1_transform_1
2016-07-20 12:24:15.123 STDERR [INFO] I0720 12:24:15.123695 15174 net.cpp:148] Top shape: 1 1 4000 (4000)
2016-07-20 12:24:15.124 STDERR [INFO] I0720 12:24:15.123702 15174 net.cpp:156] Memory required for data: 62016
2016-07-20 12:24:15.124 STDERR [INFO] I0720 12:24:15.123714 15174 layer_factory.hpp:77] Creating layer lstm1_gate_input_1
2016-07-20 12:24:15.124 STDERR [INFO] I0720 12:24:15.123729 15174 net.cpp:91] Creating Layer lstm1_gate_input_1
2016-07-20 12:24:15.124 STDERR [INFO] I0720 12:24:15.123735 15174 net.cpp:425] lstm1_gate_input_1 <- W_hc_h_0
2016-07-20 12:24:15.124 STDERR [INFO] I0720 12:24:15.123742 15174 net.cpp:425] lstm1_gate_input_1 <- W_xc_x_1
2016-07-20 12:24:15.124 STDERR [INFO] I0720 12:24:15.123749 15174 net.cpp:399] lstm1_gate_input_1 -> gate_input_1
2016-07-20 12:24:15.124 STDERR [INFO] I0720 12:24:15.124114 15174 net.cpp:141] Setting up lstm1_gate_input_1
2016-07-20 12:24:15.124 STDERR [INFO] I0720 12:24:15.124125 15174 net.cpp:148] Top shape: 1 1 4000 (4000)
2016-07-20 12:24:15.124 STDERR [INFO] I0720 12:24:15.124130 15174 net.cpp:156] Memory required for data: 78016
2016-07-20 12:24:15.124 STDERR [INFO] I0720 12:24:15.124133 15174 layer_factory.hpp:77] Creating layer lstm1_unit_1
2016-07-20 12:24:15.124 STDERR [INFO] I0720 12:24:15.124145 15174 net.cpp:91] Creating Layer lstm1_unit_1
2016-07-20 12:24:15.124 STDERR [INFO] I0720 12:24:15.124150 15174 net.cpp:425] lstm1_unit_1 <- c_0
2016-07-20 12:24:15.124 STDERR [INFO] I0720 12:24:15.124155 15174 net.cpp:425] lstm1_unit_1 <- gate_input_1
2016-07-20 12:24:15.124 STDERR [INFO] I0720 12:24:15.124161 15174 net.cpp:425] lstm1_unit_1 <- cont_1_lstm1_cont_slice_0_split_1
2016-07-20 12:24:15.124 STDERR [INFO] I0720 12:24:15.124167 15174 net.cpp:399] lstm1_unit_1 -> c_1
2016-07-20 12:24:15.124 STDERR [INFO] I0720 12:24:15.124176 15174 net.cpp:399] lstm1_unit_1 -> h_1
2016-07-20 12:24:15.125 STDERR [INFO] I0720 12:24:15.125565 15174 net.cpp:141] Setting up lstm1_unit_1
2016-07-20 12:24:15.125 STDERR [INFO] I0720 12:24:15.125578 15174 net.cpp:148] Top shape: 1 1 1000 (1000)
2016-07-20 12:24:15.125 STDERR [INFO] I0720 12:24:15.125584 15174 net.cpp:148] Top shape: 1 1 1000 (1000)
2016-07-20 12:24:15.125 STDERR [INFO] I0720 12:24:15.125588 15174 net.cpp:156] Memory required for data: 86016
2016-07-20 12:24:15.125 STDERR [INFO] I0720 12:24:15.125593 15174 layer_factory.hpp:77] Creating layer lstm1_
2016-07-20 12:24:15.125 STDERR [INFO] I0720 12:24:15.125603 15174 net.cpp:91] Creating Layer lstm1_
2016-07-20 12:24:15.126 STDERR [INFO] I0720 12:24:15.125608 15174 net.cpp:425] lstm1_ <- c_1
2016-07-20 12:24:15.126 STDERR [INFO] I0720 12:24:15.125617 15174 net.cpp:399] lstm1_ -> c_T
2016-07-20 12:24:15.126 STDERR [INFO] I0720 12:24:15.125716 15174 net.cpp:141] Setting up lstm1_
2016-07-20 12:24:15.126 STDERR [INFO] I0720 12:24:15.125726 15174 net.cpp:148] Top shape: 1 1 1000 (1000)
2016-07-20 12:24:15.126 STDERR [INFO] I0720 12:24:15.125731 15174 net.cpp:156] Memory required for data: 90016
2016-07-20 12:24:15.126 STDERR [INFO] I0720 12:24:15.125735 15174 layer_factory.hpp:77] Creating layer lstm1_h_concat
2016-07-20 12:24:15.126 STDERR [INFO] I0720 12:24:15.125744 15174 net.cpp:91] Creating Layer lstm1_h_concat
2016-07-20 12:24:15.126 STDERR [INFO] I0720 12:24:15.125748 15174 net.cpp:425] lstm1_h_concat <- h_1
2016-07-20 12:24:15.126 STDERR [INFO] I0720 12:24:15.125757 15174 net.cpp:399] lstm1_h_concat -> h
2016-07-20 12:24:15.126 STDERR [INFO] I0720 12:24:15.126077 15174 net.cpp:141] Setting up lstm1_h_concat
2016-07-20 12:24:15.126 STDERR [INFO] I0720 12:24:15.126087 15174 net.cpp:148] Top shape: 1 1 1000 (1000)
2016-07-20 12:24:15.126 STDERR [INFO] I0720 12:24:15.126091 15174 net.cpp:156] Memory required for data: 94016
2016-07-20 12:24:15.126 STDERR [INFO] I0720 12:24:15.126096 15174 layer_factory.hpp:77] Creating layer h_pseudoloss
2016-07-20 12:24:15.126 STDERR [INFO] I0720 12:24:15.126104 15174 net.cpp:91] Creating Layer h_pseudoloss
2016-07-20 12:24:15.126 STDERR [INFO] I0720 12:24:15.126109 15174 net.cpp:425] h_pseudoloss <- h
…
2016-07-20 12:24:15.128 STDERR [INFO] I0720 12:24:15.127250 15174 net.cpp:219] lstm1_ does not need backward computation.
2016-07-20 12:24:15.128 STDERR [INFO] I0720 12:24:15.127254 15174 net.cpp:261] This network produces output c_T
2016-07-20 12:24:15.128 STDERR [INFO] I0720 12:24:15.127259 15174 net.cpp:261] This network produces output h_pseudoloss
2016-07-20 12:24:15.128 STDERR [INFO] I0720 12:24:15.127274 15174 net.cpp:274] Network initialization done.
2016-07-20 12:24:15.128 STDERR [INFO] I0720 12:24:15.127271 15172 net.cpp:141] Setting up conv3
2016-07-20 12:24:15.128 STDERR [INFO] I0720 12:24:15.127320 15172 net.cpp:148] Top shape: 10 384 13 13 (648960)
2016-07-20 12:24:15.128 STDERR [INFO] I0720 12:24:15.127328 15174 recurrent_layer.cpp:150] Adding parameter 0: W_xc
2016-07-20 12:24:15.128 STDERR [INFO] I0720 12:24:15.127329 15172 net.cpp:156] Memory required for data: 56001080
2016-07-20 12:24:15.128 STDERR [INFO] I0720 12:24:15.127336 15174 recurrent_layer.cpp:150] Adding parameter 1: b_c
2016-07-20 12:24:15.128 STDERR [INFO] I0720 12:24:15.127341 15174 recurrent_layer.cpp:150] Adding parameter 2: W_hc
2016-07-20 12:24:15.128 STDERR [INFO] I0720 12:24:15.127362 15172 layer_factory.hpp:77] Creating layer relu3
2016-07-20 12:24:15.128 STDERR [INFO] I0720 12:24:15.127391 15172 net.cpp:91] Creating Layer relu3
2016-07-20 12:24:15.128 STDERR [INFO] I0720 12:24:15.127403 15172 net.cpp:425] relu3 <- conv3
2016-07-20 12:24:15.128 STDERR [INFO] I0720 12:24:15.127418 15172 net.cpp:386] relu3 -> conv3 (in-place)
2016-07-20 12:24:15.129 STDERR [INFO] I0720 12:24:15.128971 15174 net.cpp:141] Setting up lstm1
2016-07-20 12:24:15.129 STDERR [INFO] I0720 12:24:15.128985 15174 net.cpp:148] Top shape: 1 1 1000 (1000)
2016-07-20 12:24:15.129 STDERR [INFO] I0720 12:24:15.128990 15174 net.cpp:156] Memory required for data: 26408
2016-07-20 12:24:15.129 STDERR [INFO] I0720 12:24:15.129004 15174 layer_factory.hpp:77] Creating layer concat
2016-07-20 12:24:15.129 STDERR [INFO] I0720 12:24:15.129012 15174 net.cpp:91] Creating Layer concat
2016-07-20 12:24:15.129 STDERR [INFO] I0720 12:24:15.129019 15174 net.cpp:425] concat <- lstm1
2016-07-20 12:24:15.129 STDERR [INFO] I0720 12:24:15.129025 15174 net.cpp:425] concat <- embedded_input_sentence
2016-07-20 12:24:15.129 STDERR [INFO] I0720 12:24:15.129030 15174 net.cpp:425] concat <- reshaped_stage_indicator
2016-07-20 12:24:15.129 STDERR [INFO] I0720 12:24:15.129036 15174 net.cpp:399] concat -> lstm1_video_sequence
2016-07-20 12:24:15.129 STDERR [INFO] I0720 12:24:15.129163 15174 net.cpp:141] Setting up concat
2016-07-20 12:24:15.129 STDERR [INFO] I0720 12:24:15.129159 15172 net.cpp:141] Setting up relu3
2016-07-20 12:24:15.129 STDERR [INFO] I0720 12:24:15.129176 15174 net.cpp:148] Top shape: 1 1 1501 (1501)
2016-07-20 12:24:15.129 STDERR [INFO] I0720 12:24:15.129195 15174 net.cpp:156] Memory required for data: 32412
2016-07-20 12:24:15.129 STDERR [INFO] I0720 12:24:15.129202 15174 layer_factory.hpp:77] Creating layer lstm2
2016-07-20 12:24:15.129 STDERR [INFO] I0720 12:24:15.129199 15172 net.cpp:148] Top shape: 10 384 13 13 (648960)
2016-07-20 12:24:15.129 STDERR [INFO] I0720 12:24:15.129226 15172 net.cpp:156] Memory required for data: 58596920
2016-07-20 12:24:15.129 STDERR [INFO] I0720 12:24:15.129238 15172 layer_factory.hpp:77] Creating layer conv4
2016-07-20 12:24:15.130 STDERR [INFO] I0720 12:24:15.129243 15186 net.cpp:141] Setting up conv4
2016-07-20 12:24:15.130 STDERR [INFO] I0720 12:24:15.129245 15174 net.cpp:91] Creating Layer lstm2
2016-07-20 12:24:15.130 STDERR [INFO] I0720 12:24:15.129262 15172 net.cpp:91] Creating Layer conv4
2016-07-20 12:24:15.130 STDERR [INFO] I0720 12:24:15.129267 15186 net.cpp:148] Top shape: 10 384 13 13 (648960)
2016-07-20 12:24:15.130 STDERR [INFO] I0720 12:24:15.129268 15174 net.cpp:425] lstm2 <- lstm1_video_sequence
2016-07-20 12:24:15.130 STDERR [INFO] I0720 12:24:15.129273 15172 net.cpp:425] conv4 <- conv3
2016-07-20 12:24:15.130 STDERR [INFO] I0720 12:24:15.129281 15174 net.cpp:425] lstm2 <- cont_sentence_input_1_split_1
2016-07-20 12:24:15.130 STDERR [INFO] I0720 12:24:15.129276 15186 net.cpp:156] Memory required for data: 61192760
…
2016-07-20 12:24:15.139 STDERR [INFO] }
2016-07-20 12:24:15.139 STDERR [INFO] I0720 12:24:15.129626 15174 layer_factory.hpp:77] Creating layer lstm2_
2016-07-20 12:24:15.139 STDERR [INFO] I0720 12:24:15.129637 15174 net.cpp:91] Creating Layer lstm2_
2016-07-20 12:24:15.139 STDERR [INFO] I0720 12:24:15.129642 15174 net.cpp:399] lstm2_ -> x
2016-07-20 12:24:15.139 STDERR [INFO] I0720 12:24:15.129653 15174 net.cpp:399] lstm2_ -> cont
2016-07-20 12:24:15.139 STDERR [INFO] I0720 12:24:15.130326 15174 net.cpp:141] Setting up lstm2_
2016-07-20 12:24:15.139 STDERR [INFO] I0720 12:24:15.130338 15174 net.cpp:148] Top shape: 1 1 1501 (1501)
2016-07-20 12:24:15.140 STDERR [INFO] I0720 12:24:15.130344 15174 net.cpp:148] Top shape: 1 1 (1)
2016-07-20 12:24:15.140 STDERR [INFO] I0720 12:24:15.130348 15174 net.cpp:156] Memory required for data: 6008
2016-07-20 12:24:15.140 STDERR [INFO] I0720 12:24:15.130353 15174 layer_factory.hpp:77] Creating layer lstm2_
2016-07-20 12:24:15.140 STDERR [INFO] I0720 12:24:15.130362 15174 net.cpp:91] Creating Layer lstm2_
2016-07-20 12:24:15.140 STDERR [INFO] I0720 12:24:15.130368 15174 net.cpp:399] lstm2_ -> c_0
2016-07-20 12:24:15.140 STDERR [INFO] I0720 12:24:15.130381 15174 net.cpp:399] lstm2_ -> h_0
2016-07-20 12:24:15.140 STDERR [INFO] I0720 12:24:15.130480 15186 net.cpp:141] Setting up relu4
2016-07-20 12:24:15.140 STDERR [INFO] I0720 12:24:15.130492 15186 net.cpp:148] Top shape: 10 384 13 13 (648960)
2016-07-20 12:24:15.140 STDERR [INFO] I0720 12:24:15.130497 15186 net.cpp:156] Memory required for data: 63788600
2016-07-20 12:24:15.140 STDERR [INFO] I0720 12:24:15.130507 15186 layer_factory.hpp:77] Creating layer conv5
2016-07-20 12:24:15.140 STDERR [INFO] I0720 12:24:15.130524 15186 net.cpp:91] Creating Layer conv5
2016-07-20 12:24:15.140 STDERR [INFO] I0720 12:24:15.130530 15186 net.cpp:425] conv5 <- conv4
2016-07-20 12:24:15.140 STDERR [INFO] I0720 12:24:15.130537 15186 net.cpp:399] conv5 -> conv5
2016-07-20 12:24:15.140 STDERR [INFO] I0720 12:24:15.130708 15174 net.cpp:141] Setting up lstm2_
2016-07-20 12:24:15.140 STDERR [INFO] I0720 12:24:15.130720 15174 net.cpp:148] Top shape: 1 1 1000 (1000)
2016-07-20 12:24:15.140 STDERR [INFO] I0720 12:24:15.130727 15174 net.cpp:148] Top shape: 1 1 1000 (1000)
2016-07-20 12:24:15.140 STDERR [INFO] I0720 12:24:15.130730 15174 net.cpp:156] Memory required for data: 14008
2016-07-20 12:24:15.140 STDERR [INFO] I0720 12:24:15.130735 15174 layer_factory.hpp:77] Creating layer lstm2_cont_slice
2016-07-20 12:24:15.140 STDERR [INFO] I0720 12:24:15.130743 15174 net.cpp:91] Creating Layer lstm2_cont_slice
2016-07-20 12:24:15.141 STDERR [INFO] I0720 12:24:15.130748 15174 net.cpp:425] lstm2_cont_slice <- cont
2016-07-20 12:24:15.141 STDERR [INFO] I0720 12:24:15.130755 15174 net.cpp:399] lstm2_cont_slice -> cont_1
2016-07-20 12:24:15.141 STDERR [INFO] I0720 12:24:15.130944 15174 net.cpp:141] Setting up lstm2_cont_slice
2016-07-20 12:24:15.141 STDERR [INFO] I0720 12:24:15.130955 15174 net.cpp:148] Top shape: 1 1 (1)
2016-07-20 12:24:15.141 STDERR [INFO] I0720 12:24:15.130960 15174 net.cpp:156] Memory required for data: 14012
2016-07-20 12:24:15.141 STDERR [INFO] I0720 12:24:15.130965 15174 layer_factory.hpp:77] Creating layer cont_1_lstm2_cont_slice_0_split
2016-07-20 12:24:15.141 STDERR [INFO] I0720 12:24:15.130971 15174 net.cpp:91] Creating Layer cont_1_lstm2_cont_slice_0_split
2016-07-20 12:24:15.141 STDERR [INFO] I0720 12:24:15.130976 15174 net.cpp:425] cont_1_lstm2_cont_slice_0_split <- cont_1
2016-07-20 12:24:15.141 STDERR [INFO] I0720 12:24:15.130985 15174 net.cpp:399] cont_1_lstm2_cont_slice_0_split -> cont_1_lstm2_cont_slice_0_split_0
2016-07-20 12:24:15.141 STDERR [INFO] I0720 12:24:15.130993 15174 net.cpp:399] cont_1_lstm2_cont_slice_0_split -> cont_1_lstm2_cont_slice_0_split_1
2016-07-20 12:24:15.141 STDERR [INFO] I0720 12:24:15.131150 15178 net.cpp:141] Setting up lstm2_x_transform
2016-07-20 12:24:15.141 STDERR [INFO] I0720 12:24:15.131165 15178 net.cpp:148] Top shape: 1 1 4000 (4000)
2016-07-20 12:24:15.141 STDERR [INFO] I0720 12:24:15.131170 15178 net.cpp:156] Memory required for data: 30020
2016-07-20 12:24:15.141 STDERR [INFO] I0720 12:24:15.131183 15178 layer_factory.hpp:77] Creating layer lstm2_W_xc_x_slice
2016-07-20 12:24:15.141 STDERR [INFO] I0720 12:24:15.131191 15178 net.cpp:91] Creating Layer lstm2_W_xc_x_slice
2016-07-20 12:24:15.141 STDERR [INFO] I0720 12:24:15.131197 15178 net.cpp:425] lstm2_W_xc_x_slice <- W_xc_x
2016-07-20 12:24:15.141 STDERR [INFO] I0720 12:24:15.131204 15178 net.cpp:399] lstm2_W_xc_x_slice -> W_xc_x_1
2016-07-20 12:24:15.142 STDERR [INFO] I0720 12:24:15.131306 15174 net.cpp:141] Setting up cont_1_lstm2_cont_slice_0_split
2016-07-20 12:24:15.142 STDERR [INFO] I0720 12:24:15.131317 15174 net.cpp:148] Top shape: 1 1 (1)
2016-07-20 12:24:15.142 STDERR [INFO] I0720 12:24:15.131322 15174 net.cpp:148] Top shape: 1 1 (1)
2016-07-20 12:24:15.142 STDERR [INFO] I0720 12:24:15.131326 15174 net.cpp:156] Memory required for data: 14020
2016-07-20 12:24:15.142 STDERR [INFO] I0720 12:24:15.131331 15174 layer_factory.hpp:77] Creating layer lstm2_x_transform
2016-07-20 12:24:15.142 STDERR [INFO] I0720 12:24:15.131341 15174 net.cpp:91] Creating Layer lstm2_x_transform
2016-07-20 12:24:15.142 STDERR [INFO] I0720 12:24:15.131346 15174 net.cpp:425] lstm2_x_transform <- x
2016-07-20 12:24:15.142 STDERR [INFO] I0720 12:24:15.131356 15174 net.cpp:399] lstm2_x_transform -> W_xc_x
2016-07-20 12:24:15.142 STDERR [INFO] I0720 12:24:15.131358 15178 net.cpp:141] Setting up lstm2_W_xc_x_slice
2016-07-20 12:24:15.142 STDERR [INFO] I0720 12:24:15.131371 15178 net.cpp:148] Top shape: 1 1 4000 (4000)
2016-07-20 12:24:15.142 STDERR [INFO] I0720 12:24:15.131374 15178 net.cpp:156] Memory required for data: 46020
2016-07-20 12:24:15.142 STDERR [INFO] I0720 12:24:15.131379 15178 layer_factory.hpp:77] Creating layer lstm2_h_conted_0
2016-07-20 12:24:15.142 STDERR [INFO] I0720 12:24:15.131387 15178 net.cpp:91] Creating Layer lstm2_h_conted_0
2016-07-20 12:24:15.142 STDERR [INFO] I0720 12:24:15.131393 15178 net.cpp:425] lstm2_h_conted_0 <- h_0
2016-07-20 12:24:15.142 STDERR [INFO] I0720 12:24:15.131399 15178 net.cpp:425] lstm2_h_conted_0 <- cont_1_lstm2_cont_slice_0_split_0
2016-07-20 12:24:15.142 STDERR [INFO] I0720 12:24:15.131408 15178 net.cpp:399] lstm2_h_conted_0 -> h_conted_0
2016-07-20 12:24:15.145 STDERR [INFO] I0720 12:24:15.145783 15178 net.cpp:141] Setting up lstm2_h_conted_0
2016-07-20 12:24:15.146 STDERR [INFO] I0720 12:24:15.145829 15178 net.cpp:148] Top shape: 1 1 1000 (1000)
2016-07-20 12:24:15.146 STDERR [INFO] I0720 12:24:15.145835 15178 net.cpp:156] Memory required for data: 50020
2016-07-20 12:24:15.146 STDERR [INFO] I0720 12:24:15.145844 15178 layer_factory.hpp:77] Creating layer lstm2_transform_1
2016-07-20 12:24:15.146 STDERR [INFO] I0720 12:24:15.145898 15178 net.cpp:91] Creating Layer lstm2_transform_1
2016-07-20 12:24:15.146 STDERR [INFO] I0720 12:24:15.145905 15178 net.cpp:425] lstm2_transform_1 <- h_conted_0
2016-07-20 12:24:15.146 STDERR [INFO] I0720 12:24:15.145917 15178 net.cpp:399] lstm2_transform_1 -> W_hc_h_0
2016-07-20 12:24:15.163 STDERR [INFO] I0720 12:24:15.163007 15172 net.cpp:141] Setting up conv4
2016-07-20 12:24:15.163 STDERR [INFO] I0720 12:24:15.163066 15172 net.cpp:148] Top shape: 10 384 13 13 (648960)
2016-07-20 12:24:15.163 STDERR [INFO] I0720 12:24:15.163074 15172 net.cpp:156] Memory required for data: 61192760
2016-07-20 12:24:15.163 STDERR [INFO] I0720 12:24:15.163090 15172 layer_factory.hpp:77] Creating layer relu4
2016-07-20 12:24:15.163 STDERR [INFO] I0720 12:24:15.163111 15172 net.cpp:91] Creating Layer relu4
2016-07-20 12:24:15.163 STDERR [INFO] I0720 12:24:15.163120 15172 net.cpp:425] relu4 <- conv4
2016-07-20 12:24:15.164 STDERR [INFO] I0720 12:24:15.163130 15172 net.cpp:386] relu4 -> conv4 (in-place)
2016-07-20 12:24:15.164 STDERR [INFO] I0720 12:24:15.164039 15186 net.cpp:141] Setting up conv5
2016-07-20 12:24:15.164 STDERR [INFO] I0720 12:24:15.164077 15186 net.cpp:148] Top shape: 10 256 13 13 (432640)
2016-07-20 12:24:15.164 STDERR [INFO] I0720 12:24:15.164083 15186 net.cpp:156] Memory required for data: 65519160
2016-07-20 12:24:15.164 STDERR [INFO] I0720 12:24:15.164103 15186 layer_factory.hpp:77] Creating layer relu5
2016-07-20 12:24:15.164 STDERR [INFO] I0720 12:24:15.164113 15172 net.cpp:141] Setting up relu4
2016-07-20 12:24:15.164 STDERR [INFO] I0720 12:24:15.164118 15186 net.cpp:91] Creating Layer relu5
2016-07-20 12:24:15.164 STDERR [INFO] I0720 12:24:15.164131 15172 net.cpp:148] Top shape: 10 384 13 13 (648960)
2016-07-20 12:24:15.164 STDERR [INFO] I0720 12:24:15.164135 15186 net.cpp:425] relu5 <- conv5
2016-07-20 12:24:15.164 STDERR [INFO] I0720 12:24:15.164137 15172 net.cpp:156] Memory required for data: 63788600
2016-07-20 12:24:15.164 STDERR [INFO] I0720 12:24:15.164144 15172 layer_factory.hpp:77] Creating layer conv5
2016-07-20 12:24:15.164 STDERR [INFO] I0720 12:24:15.164151 15186 net.cpp:386] relu5 -> conv5 (in-place)
2016-07-20 12:24:15.164 STDERR [INFO] I0720 12:24:15.164163 15172 net.cpp:91] Creating Layer conv5
2016-07-20 12:24:15.164 STDERR [INFO] I0720 12:24:15.164170 15172 net.cpp:425] conv5 <- conv4
2016-07-20 12:24:15.164 STDERR [INFO] I0720 12:24:15.164180 15172 net.cpp:399] conv5 -> conv5
2016-07-20 12:24:15.165 STDERR [INFO] I0720 12:24:15.165114 15186 net.cpp:141] Setting up relu5
2016-07-20 12:24:15.165 STDERR [INFO] I0720 12:24:15.165133 15186 net.cpp:148] Top shape: 10 256 13 13 (432640)
2016-07-20 12:24:15.165 STDERR [INFO] I0720 12:24:15.165138 15186 net.cpp:156] Memory required for data: 67249720
2016-07-20 12:24:15.165 STDERR [INFO] I0720 12:24:15.165143 15186 layer_factory.hpp:77] Creating layer pool5
2016-07-20 12:24:15.165 STDERR [INFO] I0720 12:24:15.165158 15186 net.cpp:91] Creating Layer pool5
2016-07-20 12:24:15.165 STDERR [INFO] I0720 12:24:15.165163 15186 net.cpp:425] pool5 <- conv5
2016-07-20 12:24:15.165 STDERR [INFO] I0720 12:24:15.165170 15186 net.cpp:399] pool5 -> pool5
2016-07-20 12:24:15.165 STDERR [INFO] I0720 12:24:15.165395 15186 net.cpp:141] Setting up pool5
2016-07-20 12:24:15.165 STDERR [INFO] I0720 12:24:15.165406 15186 net.cpp:148] Top shape: 10 256 6 6 (92160)
2016-07-20 12:24:15.166 STDERR [INFO] I0720 12:24:15.165411 15186 net.cpp:156] Memory required for data: 67618360
2016-07-20 12:24:15.166 STDERR [INFO] I0720 12:24:15.165416 15186 layer_factory.hpp:77] Creating layer fc6
2016-07-20 12:24:15.166 STDERR [INFO] I0720 12:24:15.165451 15186 net.cpp:91] Creating Layer fc6
2016-07-20 12:24:15.166 STDERR [INFO] I0720 12:24:15.165455 15186 net.cpp:425] fc6 <- pool5
…
2016-07-20 12:24:15.213 n.t.s.b.CVParticleBolt [INFO] [Timing] RequestID: 0 StreamID: home/peifeng/work/data/frame.320x240.jpg SequenceNr: 112 Leaving scale: 1469031855213 Size: 3530
2016-07-20 12:24:15.213 n.t.s.b.CVParticleBolt [INFO] [Timing] RequestID: 0 StreamID: home/peifeng/work/data/frame.320x240.jpg SequenceNr: 113 Entering scale: 1469031855213
2016-07-20 12:24:15.217 n.t.s.b.CVParticleBolt [INFO] [Timing] RequestID: 0 StreamID: home/peifeng/work/data/frame.320x240.jpg SequenceNr: 113 Leaving scale: 1469031855217 Size: 3530
2016-07-20 12:24:15.236 STDERR [INFO] I0720 12:24:15.235836 15178 net.cpp:141] Setting up lstm2_transform_1
2016-07-20 12:24:15.236 STDERR [INFO] I0720 12:24:15.235882 15178 net.cpp:148] Top shape: 1 1 4000 (4000)
2016-07-20 12:24:15.236 STDERR [INFO] I0720 12:24:15.235888 15178 net.cpp:156] Memory required for data: 66020
2016-07-20 12:24:15.236 STDERR [INFO] I0720 12:24:15.235908 15178 layer_factory.hpp:77] Creating layer lstm2_gate_input_1
2016-07-20 12:24:15.236 STDERR [INFO] I0720 12:24:15.235925 15178 net.cpp:91] Creating Layer lstm2_gate_input_1
2016-07-20 12:24:15.236 STDERR [INFO] I0720 12:24:15.235931 15178 net.cpp:425] lstm2_gate_input_1 <- W_hc_h_0
2016-07-20 12:24:15.236 STDERR [INFO] I0720 12:24:15.235940 15178 net.cpp:425] lstm2_gate_input_1 <- W_xc_x_1
2016-07-20 12:24:15.236 STDERR [INFO] I0720 12:24:15.235949 15178 net.cpp:399] lstm2_gate_input_1 -> gate_input_1
2016-07-20 12:24:15.236 STDERR [INFO] I0720 12:24:15.236152 15178 net.cpp:141] Setting up lstm2_gate_input_1
2016-07-20 12:24:15.236 STDERR [INFO] I0720 12:24:15.236165 15178 net.cpp:148] Top shape: 1 1 4000 (4000)
2016-07-20 12:24:15.236 STDERR [INFO] I0720 12:24:15.236168 15178 net.cpp:156] Memory required for data: 82020
2016-07-20 12:24:15.236 STDERR [INFO] I0720 12:24:15.236174 15178 layer_factory.hpp:77] Creating layer lstm2_unit_1
2016-07-20 12:24:15.237 STDERR [INFO] I0720 12:24:15.236178 15174 net.cpp:141] Setting up lstm2_x_transform
2016-07-20 12:24:15.237 STDERR [INFO] I0720 12:24:15.236183 15178 net.cpp:91] Creating Layer lstm2_unit_1
2016-07-20 12:24:15.237 STDERR [INFO] I0720 12:24:15.236199 15178 net.cpp:425] lstm2_unit_1 <- c_0
2016-07-20 12:24:15.237 STDERR [INFO] I0720 12:24:15.236199 15174 net.cpp:148] Top shape: 1 1 4000 (4000)
2016-07-20 12:24:15.237 STDERR [INFO] I0720 12:24:15.236209 15178 net.cpp:425] lstm2_unit_1 <- gate_input_1
2016-07-20 12:24:15.237 STDERR [INFO] I0720 12:24:15.236212 15174 net.cpp:156] Memory required for data: 30020
2016-07-20 12:24:15.237 STDERR [INFO] I0720 12:24:15.236215 15178 net.cpp:425] lstm2_unit_1 <- cont_1_lstm2_cont_slice_0_split_1
2016-07-20 12:24:15.237 STDERR [INFO] I0720 12:24:15.236223 15178 net.cpp:399] lstm2_unit_1 -> c_1
2016-07-20 12:24:15.237 STDERR [INFO] I0720 12:24:15.236227 15174 layer_factory.hpp:77] Creating layer lstm2_W_xc_x_slice
2016-07-20 12:24:15.237 STDERR [INFO] I0720 12:24:15.236232 15178 net.cpp:399] lstm2_unit_1 -> h_1
2016-07-20 12:24:15.237 STDERR [INFO] I0720 12:24:15.236240 15174 net.cpp:91] Creating Layer lstm2_W_xc_x_slice
2016-07-20 12:24:15.237 STDERR [INFO] I0720 12:24:15.236248 15174 net.cpp:425] lstm2_W_xc_x_slice <- W_xc_x
2016-07-20 12:24:15.237 STDERR [INFO] I0720 12:24:15.236255 15174 net.cpp:399] lstm2_W_xc_x_slice -> W_xc_x_1
2016-07-20 12:24:15.237 STDERR [INFO] I0720 12:24:15.236449 15174 net.cpp:141] Setting up lstm2_W_xc_x_slice
2016-07-20 12:24:15.237 STDERR [INFO] I0720 12:24:15.236462 15174 net.cpp:148] Top shape: 1 1 4000 (4000)
2016-07-20 12:24:15.237 STDERR [INFO] I0720 12:24:15.236466 15174 net.cpp:156] Memory required for data: 46020
2016-07-20 12:24:15.237 STDERR [INFO] I0720 12:24:15.236471 15174 layer_factory.hpp:77] Creating layer lstm2_h_conted_0
2016-07-20 12:24:15.237 STDERR [INFO] I0720 12:24:15.236481 15174 net.cpp:91] Creating Layer lstm2_h_conted_0
2016-07-20 12:24:15.237 STDERR [INFO] I0720 12:24:15.236487 15174 net.cpp:425] lstm2_h_conted_0 <- h_0
2016-07-20 12:24:15.237 STDERR [INFO] I0720 12:24:15.236493 15174 net.cpp:425] lstm2_h_conted_0 <- cont_1_lstm2_cont_slice_0_split_0
2016-07-20 12:24:15.237 STDERR [INFO] I0720 12:24:15.236500 15174 net.cpp:399] lstm2_h_conted_0 -> h_conted_0
2016-07-20 12:24:15.238 STDERR [INFO] I0720 12:24:15.236614 15178 net.cpp:141] Setting up lstm2_unit_1
2016-07-20 12:24:15.238 STDERR [INFO] I0720 12:24:15.236625 15178 net.cpp:148] Top shape: 1 1 1000 (1000)
2016-07-20 12:24:15.238 STDERR [INFO] I0720 12:24:15.236631 15178 net.cpp:148] Top shape: 1 1 1000 (1000)
2016-07-20 12:24:15.238 STDERR [INFO] I0720 12:24:15.236636 15178 net.cpp:156] Memory required for data: 90020
2016-07-20 12:24:15.238 STDERR [INFO] I0720 12:24:15.236640 15178 layer_factory.hpp:77] Creating layer lstm2_
2016-07-20 12:24:15.238 STDERR [INFO] I0720 12:24:15.236649 15178 net.cpp:91] Creating Layer lstm2_
2016-07-20 12:24:15.238 STDERR [INFO] I0720 12:24:15.236654 15178 net.cpp:425] lstm2_ <- c_1
2016-07-20 12:24:15.238 STDERR [INFO] I0720 12:24:15.236660 15178 net.cpp:399] lstm2_ -> c_T
2016-07-20 12:24:15.238 STDERR [INFO] I0720 12:24:15.237792 15178 net.cpp:141] Setting up lstm2_
2016-07-20 12:24:15.238 STDERR [INFO] I0720 12:24:15.237807 15178 net.cpp:148] Top shape: 1 1 1000 (1000)
2016-07-20 12:24:15.238 STDERR [INFO] I0720 12:24:15.237812 15178 net.cpp:156] Memory required for data: 94020
2016-07-20 12:24:15.238 STDERR [INFO] I0720 12:24:15.237817 15178 layer_factory.hpp:77] Creating layer lstm2_h_concat
2016-07-20 12:24:15.239 STDERR [INFO] I0720 12:24:15.237828 15178 net.cpp:91] Creating Layer lstm2_h_concat
2016-07-20 12:24:15.239 STDERR [INFO] I0720 12:24:15.237833 15178 net.cpp:425] lstm2_h_concat <- h_1
2016-07-20 12:24:15.239 STDERR [INFO] I0720 12:24:15.237841 15178 net.cpp:399] lstm2_h_concat -> h
2016-07-20 12:24:15.239 STDERR [INFO] I0720 12:24:15.237959 15178 net.cpp:141] Setting up lstm2_h_concat
2016-07-20 12:24:15.239 STDERR [INFO] I0720 12:24:15.237969 15178 net.cpp:148] Top shape: 1 1 1000 (1000)
2016-07-20 12:24:15.239 STDERR [INFO] I0720 12:24:15.237973 15178 net.cpp:156] Memory required for data: 98020
2016-07-20 12:24:15.239 STDERR [INFO] I0720 12:24:15.237978 15178 layer_factory.hpp:77] Creating layer h_pseudoloss
2016-07-20 12:24:15.239 STDERR [INFO] I0720 12:24:15.237987 15178 net.cpp:91] Creating Layer h_pseudoloss
2016-07-20 12:24:15.239 STDERR [INFO] I0720 12:24:15.237993 15178 net.cpp:425] h_pseudoloss <- h
2016-07-20 12:24:15.239 STDERR [INFO] I0720 12:24:15.237999 15178 net.cpp:399] h_pseudoloss -> h_pseudoloss
2016-07-20 12:24:15.239 STDERR [INFO] I0720 12:24:15.238008 15174 net.cpp:141] Setting up lstm2_h_conted_0
2016-07-20 12:24:15.239 STDERR [INFO] I0720 12:24:15.238020 15174 net.cpp:148] Top shape: 1 1 1000 (1000)
2016-07-20 12:24:15.239 STDERR [INFO] I0720 12:24:15.238024 15174 net.cpp:156] Memory required for data: 50020
2016-07-20 12:24:15.239 STDERR [INFO] I0720 12:24:15.238029 15174 layer_factory.hpp:77] Creating layer lstm2_transform_1
2016-07-20 12:24:15.240 STDERR [INFO] I0720 12:24:15.238045 15174 net.cpp:91] Creating Layer lstm2_transform_1
2016-07-20 12:24:15.240 STDERR [INFO] I0720 12:24:15.238050 15174 net.cpp:425] lstm2_transform_1 <- h_conted_0
…
2016-07-20 12:24:15.251 STDERR [INFO] I0720 12:24:15.249460 15178 net.cpp:274] Network initialization done.
2016-07-20 12:24:15.251 STDERR [INFO] I0720 12:24:15.249523 15178 recurrent_layer.cpp:150] Adding parameter 0: W_xc
2016-07-20 12:24:15.251 STDERR [INFO] I0720 12:24:15.249531 15178 recurrent_layer.cpp:150] Adding parameter 1: b_c
2016-07-20 12:24:15.251 STDERR [INFO] I0720 12:24:15.249536 15178 recurrent_layer.cpp:150] Adding parameter 2: W_hc
2016-07-20 12:24:15.251 STDERR [INFO] I0720 12:24:15.251106 15178 net.cpp:141] Setting up lstm2
2016-07-20 12:24:15.251 STDERR [INFO] I0720 12:24:15.251150 15178 net.cpp:148] Top shape: 1 1 1000 (1000)
2016-07-20 12:24:15.251 STDERR [INFO] I0720 12:24:15.251157 15178 net.cpp:156] Memory required for data: 36412
2016-07-20 12:24:15.251 STDERR [INFO] I0720 12:24:15.251176 15178 layer_factory.hpp:77] Creating layer predict
2016-07-20 12:24:15.251 STDERR [INFO] I0720 12:24:15.251194 15178 net.cpp:91] Creating Layer predict
2016-07-20 12:24:15.251 STDERR [INFO] I0720 12:24:15.251200 15178 net.cpp:425] predict <- lstm2
2016-07-20 12:24:15.251 STDERR [INFO] I0720 12:24:15.251210 15178 net.cpp:399] predict -> predict
2016-07-20 12:24:15.331 STDERR [INFO] I0720 12:24:15.331327 15174 net.cpp:141] Setting up lstm2_transform_1
2016-07-20 12:24:15.332 STDERR [INFO] I0720 12:24:15.331387 15174 net.cpp:148] Top shape: 1 1 4000 (4000)
2016-07-20 12:24:15.332 STDERR [INFO] I0720 12:24:15.331394 15174 net.cpp:156] Memory required for data: 66020
2016-07-20 12:24:15.332 STDERR [INFO] I0720 12:24:15.331419 15174 layer_factory.hpp:77] Creating layer lstm2_gate_input_1
2016-07-20 12:24:15.332 STDERR [INFO] I0720 12:24:15.331442 15174 net.cpp:91] Creating Layer lstm2_gate_input_1
2016-07-20 12:24:15.332 STDERR [INFO] I0720 12:24:15.331450 15174 net.cpp:425] lstm2_gate_input_1 <- W_hc_h_0
2016-07-20 12:24:15.332 STDERR [INFO] I0720 12:24:15.331459 15174 net.cpp:425] lstm2_gate_input_1 <- W_xc_x_1
2016-07-20 12:24:15.332 STDERR [INFO] I0720 12:24:15.331468 15174 net.cpp:399] lstm2_gate_input_1 -> gate_input_1
2016-07-20 12:24:15.335 STDERR [INFO] I0720 12:24:15.335202 15174 net.cpp:141] Setting up lstm2_gate_input_1
2016-07-20 12:24:15.335 STDERR [INFO] I0720 12:24:15.335227 15174 net.cpp:148] Top shape: 1 1 4000 (4000)
2016-07-20 12:24:15.335 STDERR [INFO] I0720 12:24:15.335233 15174 net.cpp:156] Memory required for data: 82020
2016-07-20 12:24:15.335 STDERR [INFO] I0720 12:24:15.335239 15174 layer_factory.hpp:77] Creating layer lstm2_unit_1
2016-07-20 12:24:15.335 STDERR [INFO] I0720 12:24:15.335252 15174 net.cpp:91] Creating Layer lstm2_unit_1
2016-07-20 12:24:15.335 STDERR [INFO] I0720 12:24:15.335256 15174 net.cpp:425] lstm2_unit_1 <- c_0
2016-07-20 12:24:15.335 STDERR [INFO] I0720 12:24:15.335264 15174 net.cpp:425] lstm2_unit_1 <- gate_input_1
2016-07-20 12:24:15.335 STDERR [INFO] I0720 12:24:15.335270 15174 net.cpp:425] lstm2_unit_1 <- cont_1_lstm2_cont_slice_0_split_1
2016-07-20 12:24:15.336 STDERR [INFO] I0720 12:24:15.335280 15174 net.cpp:399] lstm2_unit_1 -> c_1
2016-07-20 12:24:15.336 STDERR [INFO] I0720 12:24:15.335291 15174 net.cpp:399] lstm2_unit_1 -> h_1
2016-07-20 12:24:15.336 STDERR [INFO] I0720 12:24:15.335561 15172 net.cpp:141] Setting up conv5
2016-07-20 12:24:15.336 STDERR [INFO] I0720 12:24:15.335577 15172 net.cpp:148] Top shape: 10 256 13 13 (432640)
2016-07-20 12:24:15.336 STDERR [INFO] I0720 12:24:15.335583 15172 net.cpp:156] Memory required for data: 65519160
2016-07-20 12:24:15.336 STDERR [INFO] I0720 12:24:15.335582 15174 net.cpp:141] Setting up lstm2_unit_1
2016-07-20 12:24:15.336 STDERR [INFO] I0720 12:24:15.335598 15174 net.cpp:148] Top shape: 1 1 1000 (1000)
2016-07-20 12:24:15.336 STDERR [INFO] I0720 12:24:15.335605 15174 net.cpp:148] Top shape: 1 1 1000 (1000)
2016-07-20 12:24:15.336 STDERR [INFO] I0720 12:24:15.335609 15174 net.cpp:156] Memory required for data: 90020
2016-07-20 12:24:15.336 STDERR [INFO] I0720 12:24:15.335614 15174 layer_factory.hpp:77] Creating layer lstm2_
2016-07-20 12:24:15.336 STDERR [INFO] I0720 12:24:15.335621 15172 layer_factory.hpp:77] Creating layer relu5
2016-07-20 12:24:15.337 STDERR [INFO] I0720 12:24:15.335618 15186 net.cpp:141] Setting up fc6
2016-07-20 12:24:15.337 STDERR [INFO] I0720 12:24:15.335624 15174 net.cpp:91] Creating Layer lstm2_
2016-07-20 12:24:15.337 STDERR [INFO] I0720 12:24:15.335638 15172 net.cpp:91] Creating Layer relu5
2016-07-20 12:24:15.337 STDERR [INFO] I0720 12:24:15.335645 15186 net.cpp:148] Top shape: 10 4096 (40960)
2016-07-20 12:24:15.337 STDERR [INFO] I0720 12:24:15.335647 15174 net.cpp:425] lstm2_ <- c_1
2016-07-20 12:24:15.337 STDERR [INFO] I0720 12:24:15.335650 15172 net.cpp:425] relu5 <- conv5
2016-07-20 12:24:15.337 STDERR [INFO] I0720 12:24:15.335651 15186 net.cpp:156] Memory required for data: 67782200
2016-07-20 12:24:15.337 STDERR [INFO] I0720 12:24:15.335656 15174 net.cpp:399] lstm2_ -> c_T
2016-07-20 12:24:15.337 STDERR [INFO] I0720 12:24:15.335659 15172 net.cpp:386] relu5 -> conv5 (in-place)
2016-07-20 12:24:15.337 STDERR [INFO] I0720 12:24:15.335664 15186 layer_factory.hpp:77] Creating layer relu6
2016-07-20 12:24:15.337 STDERR [INFO] I0720 12:24:15.335677 15186 net.cpp:91] Creating Layer relu6
2016-07-20 12:24:15.338 STDERR [INFO] I0720 12:24:15.335683 15186 net.cpp:425] relu6 <- fc6
2016-07-20 12:24:15.338 STDERR [INFO] I0720 12:24:15.335691 15186 net.cpp:386] relu6 -> fc6 (in-place)
2016-07-20 12:24:15.338 STDERR [INFO] I0720 12:24:15.335721 15174 net.cpp:141] Setting up lstm2_
2016-07-20 12:24:15.338 STDERR [INFO] I0720 12:24:15.335731 15174 net.cpp:148] Top shape: 1 1 1000 (1000)
2016-07-20 12:24:15.338 STDERR [INFO] I0720 12:24:15.335736 15174 net.cpp:156] Memory required for data: 94020
2016-07-20 12:24:15.338 STDERR [INFO] I0720 12:24:15.335741 15174 layer_factory.hpp:77] Creating layer lstm2_h_concat
2016-07-20 12:24:15.338 STDERR [INFO] I0720 12:24:15.335752 15174 net.cpp:91] Creating Layer lstm2_h_concat
2016-07-20 12:24:15.338 STDERR [INFO] I0720 12:24:15.335757 15174 net.cpp:425] lstm2_h_concat <- h_1
2016-07-20 12:24:15.338 STDERR [INFO] I0720 12:24:15.335763 15174 net.cpp:399] lstm2_h_concat -> h
2016-07-20 12:24:15.338 STDERR [INFO] I0720 12:24:15.336099 15186 net.cpp:141] Setting up relu6
2016-07-20 12:24:15.338 STDERR [INFO] I0720 12:24:15.336112 15186 net.cpp:148] Top shape: 10 4096 (40960)
2016-07-20 12:24:15.339 STDERR [INFO] I0720 12:24:15.336117 15186 net.cpp:156] Memory required for data: 67946040
2016-07-20 12:24:15.339 STDERR [INFO] I0720 12:24:15.336122 15186 layer_factory.hpp:77] Creating layer drop6
2016-07-20 12:24:15.339 STDERR [INFO] I0720 12:24:15.336242 15186 net.cpp:91] Creating Layer drop6
2016-07-20 12:24:15.339 STDERR [INFO] I0720 12:24:15.336297 15186 net.cpp:425] drop6 <- fc6
2016-07-20 12:24:15.339 STDERR [INFO] I0720 12:24:15.336311 15186 net.cpp:386] drop6 -> fc6 (in-place)
2016-07-20 12:24:15.339 STDERR [INFO] I0720 12:24:15.337363 15186 net.cpp:141] Setting up drop6
2016-07-20 12:24:15.339 STDERR [INFO] I0720 12:24:15.337384 15186 net.cpp:148] Top shape: 10 4096 (40960)
2016-07-20 12:24:15.339 STDERR [INFO] I0720 12:24:15.337389 15186 net.cpp:156] Memory required for data: 68109880
2016-07-20 12:24:15.339 STDERR [INFO] I0720 12:24:15.337402 15186 layer_factory.hpp:77] Creating layer fc7
2016-07-20 12:24:15.339 STDERR [INFO] I0720 12:24:15.337402 15174 net.cpp:141] Setting up lstm2_h_concat
2016-07-20 12:24:15.339 STDERR [INFO] I0720 12:24:15.337417 15174 net.cpp:148] Top shape: 1 1 1000 (1000)
2016-07-20 12:24:15.339 STDERR [INFO] I0720 12:24:15.337421 15186 net.cpp:91] Creating Layer fc7
2016-07-20 12:24:15.340 STDERR [INFO] I0720 12:24:15.337422 15174 net.cpp:156] Memory required for data: 98020
2016-07-20 12:24:15.340 STDERR [INFO] I0720 12:24:15.337430 15186 net.cpp:425] fc7 <- fc6
2016-07-20 12:24:15.340 STDERR [INFO] I0720 12:24:15.337441 15174 layer_factory.hpp:77] Creating layer h_pseudoloss
2016-07-20 12:24:15.340 STDERR [INFO] I0720 12:24:15.337463 15174 net.cpp:91] Creating Layer h_pseudoloss
2016-07-20 12:24:15.340 STDERR [INFO] I0720 12:24:15.337468 15174 net.cpp:425] h_pseudoloss <- h
2016-07-20 12:24:15.340 STDERR [INFO] I0720 12:24:15.337473 15186 net.cpp:399] fc7 -> fc7
2016-07-20 12:24:15.340 STDERR [INFO] I0720 12:24:15.337479 15174 net.cpp:399] h_pseudoloss -> h_pseudoloss
2016-07-20 12:24:15.370 STDERR [INFO] I0720 12:24:15.370050 15172 net.cpp:141] Setting up relu5
2016-07-20 12:24:15.370 STDERR [INFO] I0720 12:24:15.370113 15172 net.cpp:148] Top shape: 10 256 13 13 (432640)
2016-07-20 12:24:15.370 STDERR [INFO] I0720 12:24:15.370116 15174 net.cpp:141] Setting up h_pseudoloss
2016-07-20 12:24:15.370 STDERR [INFO] I0720 12:24:15.370121 15172 net.cpp:156] Memory required for data: 67249720
2016-07-20 12:24:15.370 STDERR [INFO] I0720 12:24:15.370139 15174 net.cpp:148] Top shape: (1)
2016-07-20 12:24:15.371 STDERR [INFO] I0720 12:24:15.370146 15172 layer_factory.hpp:77] Creating layer pool5
…
2016-07-20 12:24:15.414 n.t.s.b.CVParticleBolt [INFO] [Timing] RequestID: 0 StreamID: home/peifeng/work/data/frame.320x240.jpg SequenceNr: 115 Leaving scale: 1469031855414 Size: 3530
2016-07-20 12:24:15.414 n.t.s.b.CVParticleBolt [INFO] [Timing] RequestID: 0 StreamID: home/peifeng/work/data/frame.320x240.jpg SequenceNr: 116 Entering scale: 1469031855414
2016-07-20 12:24:15.419 n.t.s.b.CVParticleBolt [INFO] [Timing] RequestID: 0 StreamID: home/peifeng/work/data/frame.320x240.jpg SequenceNr: 116 Leaving scale: 1469031855419 Size: 3530
2016-07-20 12:24:15.437 STDERR [INFO] I0720 12:24:15.436908 15174 net.cpp:141] Setting up lstm2
2016-07-20 12:24:15.437 STDERR [INFO] I0720 12:24:15.436966 15174 net.cpp:148] Top shape: 1 1 1000 (1000)
2016-07-20 12:24:15.437 STDERR [INFO] I0720 12:24:15.436974 15174 net.cpp:156] Memory required for data: 36412
2016-07-20 12:24:15.437 STDERR [INFO] I0720 12:24:15.437000 15174 layer_factory.hpp:77] Creating layer predict
2016-07-20 12:24:15.437 STDERR [INFO] I0720 12:24:15.437022 15174 net.cpp:91] Creating Layer predict
2016-07-20 12:24:15.437 STDERR [INFO] I0720 12:24:15.437031 15174 net.cpp:425] predict <- lstm2
2016-07-20 12:24:15.437 STDERR [INFO] I0720 12:24:15.437042 15174 net.cpp:399] predict -> predict
2016-07-20 12:24:15.437 STDERR [INFO] I0720 12:24:15.437072 15186 net.cpp:141] Setting up fc7
2016-07-20 12:24:15.437 STDERR [INFO] I0720 12:24:15.437108 15186 net.cpp:148] Top shape: 10 4096 (40960)
2016-07-20 12:24:15.437 STDERR [INFO] I0720 12:24:15.437114 15186 net.cpp:156] Memory required for data: 68273720
2016-07-20 12:24:15.438 STDERR [INFO] I0720 12:24:15.437127 15186 layer_factory.hpp:77] Creating layer relu7
2016-07-20 12:24:15.438 STDERR [INFO] I0720 12:24:15.437145 15186 net.cpp:91] Creating Layer relu7
2016-07-20 12:24:15.438 STDERR [INFO] I0720 12:24:15.437152 15186 net.cpp:425] relu7 <- fc7
2016-07-20 12:24:15.438 STDERR [INFO] I0720 12:24:15.437161 15186 net.cpp:386] relu7 -> fc7 (in-place)
2016-07-20 12:24:15.511 STDERR [INFO] I0720 12:24:15.510967 15186 net.cpp:141] Setting up relu7
2016-07-20 12:24:15.511 STDERR [INFO] I0720 12:24:15.511010 15186 net.cpp:148] Top shape: 10 4096 (40960)
2016-07-20 12:24:15.511 STDERR [INFO] I0720 12:24:15.511018 15186 net.cpp:156] Memory required for data: 68437560
2016-07-20 12:24:15.511 STDERR [INFO] I0720 12:24:15.511025 15186 layer_factory.hpp:77] Creating layer drop7
2016-07-20 12:24:15.511 STDERR [INFO] I0720 12:24:15.511042 15186 net.cpp:91] Creating Layer drop7
2016-07-20 12:24:15.511 STDERR [INFO] I0720 12:24:15.511049 15186 net.cpp:425] drop7 <- fc7
2016-07-20 12:24:15.511 STDERR [INFO] I0720 12:24:15.511061 15186 net.cpp:386] drop7 -> fc7 (in-place)
2016-07-20 12:24:15.517 STDERR [INFO] I0720 12:24:15.517287 15186 net.cpp:141] Setting up drop7
2016-07-20 12:24:15.517 STDERR [INFO] I0720 12:24:15.517307 15186 net.cpp:148] Top shape: 10 4096 (40960)
2016-07-20 12:24:15.517 STDERR [INFO] I0720 12:24:15.517313 15186 net.cpp:156] Memory required for data: 68601400
2016-07-20 12:24:15.517 STDERR [INFO] I0720 12:24:15.517318 15186 layer_factory.hpp:77] Creating layer fc8
2016-07-20 12:24:15.517 STDERR [INFO] I0720 12:24:15.517335 15186 net.cpp:91] Creating Layer fc8
2016-07-20 12:24:15.517 STDERR [INFO] I0720 12:24:15.517341 15186 net.cpp:425] fc8 <- fc7
2016-07-20 12:24:15.517 STDERR [INFO] I0720 12:24:15.517351 15186 net.cpp:399] fc8 -> fc8
2016-07-20 12:24:15.530 STDERR [INFO] I0720 12:24:15.530707 15172 net.cpp:141] Setting up fc6
2016-07-20 12:24:15.531 STDERR [INFO] I0720 12:24:15.530771 15172 net.cpp:148] Top shape: 10 4096 (40960)
2016-07-20 12:24:15.531 STDERR [INFO] I0720 12:24:15.530777 15172 net.cpp:156] Memory required for data: 67782200
2016-07-20 12:24:15.531 STDERR [INFO] I0720 12:24:15.530797 15172 layer_factory.hpp:77] Creating layer relu6
2016-07-20 12:24:15.531 STDERR [INFO] I0720 12:24:15.530817 15172 net.cpp:91] Creating Layer relu6
2016-07-20 12:24:15.531 STDERR [INFO] I0720 12:24:15.530824 15172 net.cpp:425] relu6 <- fc6
2016-07-20 12:24:15.531 STDERR [INFO] I0720 12:24:15.530834 15172 net.cpp:386] relu6 -> fc6 (in-place)
2016-07-20 12:24:15.531 STDERR [INFO] I0720 12:24:15.531215 15172 net.cpp:141] Setting up relu6
2016-07-20 12:24:15.531 STDERR [INFO] I0720 12:24:15.531226 15172 net.cpp:148] Top shape: 10 4096 (40960)
2016-07-20 12:24:15.531 STDERR [INFO] I0720 12:24:15.531231 15172 net.cpp:156] Memory required for data: 67946040
2016-07-20 12:24:15.531 STDERR [INFO] I0720 12:24:15.531236 15172 layer_factory.hpp:77] Creating layer drop6
2016-07-20 12:24:15.531 STDERR [INFO] I0720 12:24:15.531260 15172 net.cpp:91] Creating Layer drop6
2016-07-20 12:24:15.531 STDERR [INFO] I0720 12:24:15.531265 15172 net.cpp:425] drop6 <- fc6
2016-07-20 12:24:15.531 STDERR [INFO] I0720 12:24:15.531271 15172 net.cpp:386] drop6 -> fc6 (in-place)
2016-07-20 12:24:15.531 STDERR [INFO] I0720 12:24:15.531339 15172 net.cpp:141] Setting up drop6
2016-07-20 12:24:15.531 STDERR [INFO] I0720 12:24:15.531350 15172 net.cpp:148] Top shape: 10 4096 (40960)
2016-07-20 12:24:15.532 STDERR [INFO] I0720 12:24:15.531355 15172 net.cpp:156] Memory required for data: 68109880
2016-07-20 12:24:15.532 STDERR [INFO] I0720 12:24:15.531360 15172 layer_factory.hpp:77] Creating layer fc7
2016-07-20 12:24:15.532 STDERR [INFO] I0720 12:24:15.531371 15172 net.cpp:91] Creating Layer fc7
2016-07-20 12:24:15.532 STDERR [INFO] I0720 12:24:15.531376 15172 net.cpp:425] fc7 <- fc6
2016-07-20 12:24:15.532 STDERR [INFO] I0720 12:24:15.531383 15172 net.cpp:399] fc7 -> fc7
2016-07-20 12:24:15.563 STDERR [INFO] I0720 12:24:15.563336 15186 net.cpp:141] Setting up fc8
2016-07-20 12:24:15.563 STDERR [INFO] I0720 12:24:15.563381 15186 net.cpp:148] Top shape: 10 1000 (10000)
2016-07-20 12:24:15.563 STDERR [INFO] I0720 12:24:15.563387 15186 net.cpp:156] Memory required for data: 68641400
2016-07-20 12:24:15.563 STDERR [INFO] I0720 12:24:15.563401 15186 layer_factory.hpp:77] Creating layer prob
2016-07-20 12:24:15.563 STDERR [INFO] I0720 12:24:15.563416 15186 net.cpp:91] Creating Layer prob
2016-07-20 12:24:15.563 STDERR [INFO] I0720 12:24:15.563423 15186 net.cpp:425] prob <- fc8
2016-07-20 12:24:15.564 STDERR [INFO] I0720 12:24:15.563433 15186 net.cpp:399] prob -> prob
2016-07-20 12:24:15.564 STDERR [INFO] I0720 12:24:15.563940 15186 net.cpp:141] Setting up prob
2016-07-20 12:24:15.564 STDERR [INFO] I0720 12:24:15.563951 15186 net.cpp:148] Top shape: 10 1000 (10000)
2016-07-20 12:24:15.564 STDERR [INFO] I0720 12:24:15.563956 15186 net.cpp:156] Memory required for data: 68681400
2016-07-20 12:24:15.564 STDERR [INFO] I0720 12:24:15.563961 15186 net.cpp:219] prob does not need backward computation.
2016-07-20 12:24:15.564 STDERR [INFO] I0720 12:24:15.563966 15186 net.cpp:219] fc8 does not need backward computation.
2016-07-20 12:24:15.564 STDERR [INFO] I0720 12:24:15.563971 15186 net.cpp:219] drop7 does not need backward computation.
…
2016-07-20 12:24:15.565 STDERR [INFO] I0720 12:24:15.564055 15186 net.cpp:219] conv1 does not need backward computation.
2016-07-20 12:24:15.565 STDERR [INFO] I0720 12:24:15.564059 15186 net.cpp:219] data does not need backward computation.
2016-07-20 12:24:15.565 STDERR [INFO] I0720 12:24:15.564064 15186 net.cpp:261] This network produces output prob
2016-07-20 12:24:15.565 STDERR [INFO] I0720 12:24:15.564081 15186 net.cpp:274] Network initialization done.
2016-07-20 12:24:15.580 STDERR [INFO] I0720 12:24:15.580077 15172 net.cpp:141] Setting up fc7
2016-07-20 12:24:15.580 STDERR [INFO] I0720 12:24:15.580138 15172 net.cpp:148] Top shape: 10 4096 (40960)
2016-07-20 12:24:15.580 STDERR [INFO] I0720 12:24:15.580145 15172 net.cpp:156] Memory required for data: 68273720
2016-07-20 12:24:15.580 STDERR [INFO] I0720 12:24:15.580162 15172 layer_factory.hpp:77] Creating layer relu7
2016-07-20 12:24:15.580 STDERR [INFO] I0720 12:24:15.580179 15172 net.cpp:91] Creating Layer relu7
2016-07-20 12:24:15.580 STDERR [INFO] I0720 12:24:15.580186 15172 net.cpp:425] relu7 <- fc7
2016-07-20 12:24:15.580 STDERR [INFO] I0720 12:24:15.580196 15172 net.cpp:386] relu7 -> fc7 (in-place)
2016-07-20 12:24:15.581 STDERR [INFO] I0720 12:24:15.581854 15172 net.cpp:141] Setting up relu7
2016-07-20 12:24:15.582 STDERR [INFO] I0720 12:24:15.581872 15172 net.cpp:148] Top shape: 10 4096 (40960)
2016-07-20 12:24:15.582 STDERR [INFO] I0720 12:24:15.581877 15172 net.cpp:156] Memory required for data: 68437560
2016-07-20 12:24:15.582 STDERR [INFO] I0720 12:24:15.581883 15172 layer_factory.hpp:77] Creating layer drop7
2016-07-20 12:24:15.582 STDERR [INFO] I0720 12:24:15.581897 15172 net.cpp:91] Creating Layer drop7
2016-07-20 12:24:15.582 STDERR [INFO] I0720 12:24:15.581902 15172 net.cpp:425] drop7 <- fc7
2016-07-20 12:24:15.582 STDERR [INFO] I0720 12:24:15.581908 15172 net.cpp:386] drop7 -> fc7 (in-place)
2016-07-20 12:24:15.582 STDERR [INFO] I0720 12:24:15.582424 15172 net.cpp:141] Setting up drop7
2016-07-20 12:24:15.583 STDERR [INFO] I0720 12:24:15.582444 15172 net.cpp:148] Top shape: 10 4096 (40960)
2016-07-20 12:24:15.583 STDERR [INFO] I0720 12:24:15.582453 15172 net.cpp:156] Memory required for data: 68601400
2016-07-20 12:24:15.583 STDERR [INFO] I0720 12:24:15.582463 15172 layer_factory.hpp:77] Creating layer fc8
2016-07-20 12:24:15.583 STDERR [INFO] I0720 12:24:15.582489 15172 net.cpp:91] Creating Layer fc8
2016-07-20 12:24:15.583 STDERR [INFO] I0720 12:24:15.582499 15172 net.cpp:425] fc8 <- fc7
2016-07-20 12:24:15.583 STDERR [INFO] I0720 12:24:15.582514 15172 net.cpp:399] fc8 -> fc8
2016-07-20 12:24:15.597 STDERR [INFO] I0720 12:24:15.596868 15172 net.cpp:141] Setting up fc8
2016-07-20 12:24:15.597 STDERR [INFO] I0720 12:24:15.596941 15172 net.cpp:148] Top shape: 10 1000 (10000)
2016-07-20 12:24:15.597 STDERR [INFO] I0720 12:24:15.596947 15172 net.cpp:156] Memory required for data: 68641400
2016-07-20 12:24:15.597 STDERR [INFO] I0720 12:24:15.596963 15172 layer_factory.hpp:77] Creating layer prob
2016-07-20 12:24:15.597 STDERR [INFO] I0720 12:24:15.596982 15172 net.cpp:91] Creating Layer prob
2016-07-20 12:24:15.597 STDERR [INFO] I0720 12:24:15.596989 15172 net.cpp:425] prob <- fc8
2016-07-20 12:24:15.597 STDERR [INFO] I0720 12:24:15.596999 15172 net.cpp:399] prob -> prob
2016-07-20 12:24:15.598 STDERR [INFO] I0720 12:24:15.598023 15172 net.cpp:141] Setting up prob
2016-07-20 12:24:15.598 STDERR [INFO] I0720 12:24:15.598049 15172 net.cpp:148] Top shape: 10 1000 (10000)
2016-07-20 12:24:15.598 STDERR [INFO] I0720 12:24:15.598059 15172 net.cpp:156] Memory required for data: 68681400
2016-07-20 12:24:15.598 STDERR [INFO] I0720 12:24:15.598069 15172 net.cpp:219] prob does not need backward computation.
2016-07-20 12:24:15.598 STDERR [INFO] I0720 12:24:15.598079 15172 net.cpp:219] fc8 does not need backward computation.
2016-07-20 12:24:15.598 STDERR [INFO] I0720 12:24:15.598088 15172 net.cpp:219] drop7 does not need backward computation.
…
