…
2016-08-02 06:45:12.169 STDERR [INFO] I0802 06:45:12.146430 20849 net.cpp:91] Creating Layer input
2016-08-02 06:45:12.169 STDERR [INFO] I0802 06:45:12.146440 20849 net.cpp:399] input -> frames_fc7
2016-08-02 06:45:12.169 STDERR [INFO] I0802 06:45:12.146461 20849 net.cpp:399] input -> cont_sentence
2016-08-02 06:45:12.170 STDERR [INFO] I0802 06:45:12.146472 20849 net.cpp:399] input -> input_sentence
2016-08-02 06:45:12.170 STDERR [INFO] I0802 06:45:12.146482 20849 net.cpp:399] input -> stage_indicator
2016-08-02 06:45:12.170 STDERR [INFO] I0802 06:45:12.151319 20849 net.cpp:141] Setting up input
2016-08-02 06:45:12.170 STDERR [INFO] I0802 06:45:12.151340 20849 net.cpp:148] Top shape: 1 4096 (4096)
2016-08-02 06:45:12.170 STDERR [INFO] I0802 06:45:12.151348 20849 net.cpp:148] Top shape: 1 1 (1)
2016-08-02 06:45:12.170 STDERR [INFO] I0802 06:45:12.151355 20849 net.cpp:148] Top shape: 1 1 (1)
2016-08-02 06:45:12.170 STDERR [INFO] I0802 06:45:12.151360 20849 net.cpp:148] Top shape: 1 1 (1)
2016-08-02 06:45:12.170 STDERR [INFO] I0802 06:45:12.151365 20849 net.cpp:156] Memory required for data: 16396
2016-08-02 06:45:12.170 STDERR [INFO] I0802 06:45:12.151371 20849 layer_factory.hpp:77] Creating layer cont_sentence_input_1_split
2016-08-02 06:45:12.170 STDERR [INFO] I0802 06:45:12.151389 20849 net.cpp:91] Creating Layer cont_sentence_input_1_split
2016-08-02 06:45:12.170 STDERR [INFO] I0802 06:45:12.151396 20849 net.cpp:425] cont_sentence_input_1_split <- cont_sentence
2016-08-02 06:45:12.171 STDERR [INFO] I0802 06:45:12.151419 20849 net.cpp:399] cont_sentence_input_1_split -> cont_sentence_input_1_split_0
2016-08-02 06:45:12.171 STDERR [INFO] I0802 06:45:12.151432 20849 net.cpp:399] cont_sentence_input_1_split -> cont_sentence_input_1_split_1
2016-08-02 06:45:12.171 STDERR [INFO] I0802 06:45:12.151485 20849 net.cpp:141] Setting up cont_sentence_input_1_split
2016-08-02 06:45:12.171 STDERR [INFO] I0802 06:45:12.151495 20849 net.cpp:148] Top shape: 1 1 (1)
2016-08-02 06:45:12.171 STDERR [INFO] I0802 06:45:12.151501 20849 net.cpp:148] Top shape: 1 1 (1)
2016-08-02 06:45:12.171 STDERR [INFO] I0802 06:45:12.151506 20849 net.cpp:156] Memory required for data: 16404
2016-08-02 06:45:12.171 STDERR [INFO] I0802 06:45:12.151511 20849 layer_factory.hpp:77] Creating layer embed_encoder
2016-08-02 06:45:12.171 STDERR [INFO] I0802 06:45:12.151528 20849 net.cpp:91] Creating Layer embed_encoder
2016-08-02 06:45:12.171 STDERR [INFO] I0802 06:45:12.151535 20849 net.cpp:425] embed_encoder <- frames_fc7
2016-08-02 06:45:12.171 STDERR [INFO] I0802 06:45:12.151545 20849 net.cpp:399] embed_encoder -> embedded_in_frames
2016-08-02 06:45:12.187 STDERR [INFO] I0802 06:45:12.187507 20849 net.cpp:141] Setting up embed_encoder
2016-08-02 06:45:12.188 STDERR [INFO] I0802 06:45:12.187561 20849 net.cpp:148] Top shape: 1 500 (500)
2016-08-02 06:45:12.188 STDERR [INFO] I0802 06:45:12.187567 20849 net.cpp:156] Memory required for data: 18404
2016-08-02 06:45:12.188 STDERR [INFO] I0802 06:45:12.187599 20849 layer_factory.hpp:77] Creating layer reshape_frames
2016-08-02 06:45:12.188 STDERR [INFO] I0802 06:45:12.187633 20849 net.cpp:91] Creating Layer reshape_frames
2016-08-02 06:45:12.188 STDERR [INFO] I0802 06:45:12.187644 20849 net.cpp:425] reshape_frames <- embedded_in_frames
2016-08-02 06:45:12.188 STDERR [INFO] I0802 06:45:12.187656 20849 net.cpp:399] reshape_frames -> embedded_input_frames
2016-08-02 06:45:12.188 STDERR [INFO] I0802 06:45:12.187850 20849 net.cpp:141] Setting up reshape_frames
2016-08-02 06:45:12.188 STDERR [INFO] I0802 06:45:12.187862 20849 net.cpp:148] Top shape: 1 1 500 (500)
2016-08-02 06:45:12.188 STDERR [INFO] I0802 06:45:12.187866 20849 net.cpp:156] Memory required for data: 20404
2016-08-02 06:45:12.188 STDERR [INFO] I0802 06:45:12.187871 20849 layer_factory.hpp:77] Creating layer reshape_stage_indicator
2016-08-02 06:45:12.189 STDERR [INFO] I0802 06:45:12.187883 20849 net.cpp:91] Creating Layer reshape_stage_indicator
2016-08-02 06:45:12.189 STDERR [INFO] I0802 06:45:12.187888 20849 net.cpp:425] reshape_stage_indicator <- stage_indicator
2016-08-02 06:45:12.189 STDERR [INFO] I0802 06:45:12.187901 20849 net.cpp:399] reshape_stage_indicator -> reshaped_stage_indicator
2016-08-02 06:45:12.189 STDERR [INFO] I0802 06:45:12.187990 20849 net.cpp:141] Setting up reshape_stage_indicator
2016-08-02 06:45:12.189 STDERR [INFO] I0802 06:45:12.188002 20849 net.cpp:148] Top shape: 1 1 1 (1)
2016-08-02 06:45:12.189 STDERR [INFO] I0802 06:45:12.188016 20849 net.cpp:156] Memory required for data: 20408
2016-08-02 06:45:12.190 STDERR [INFO] I0802 06:45:12.188022 20849 layer_factory.hpp:77] Creating layer embedding
2016-08-02 06:45:12.190 STDERR [INFO] I0802 06:45:12.188035 20849 net.cpp:91] Creating Layer embedding
2016-08-02 06:45:12.190 STDERR [INFO] I0802 06:45:12.188040 20849 net.cpp:425] embedding <- input_sentence
…
2016-08-02 06:45:12.404 n.t.s.s.CVParticleSpout [INFO] [Timing] RequestID: 0 StreamID: home_peifeng_work_data_frame_320x240_jpg SequenceNr: 128 Leaving fetcher: 1470134712404 Size: 8702
2016-08-02 06:45:12.407 n.t.s.b.CVParticleBolt [INFO] [Timing] RequestID: 0 StreamID: home_peifeng_work_data_frame_320x240_jpg SequenceNr: 129 Entering scale: 1470134712407
2016-08-02 06:45:12.407 n.t.s.s.CVParticleSpout [INFO] [Timing] RequestID: 0 StreamID: home_peifeng_work_data_frame_320x240_jpg SequenceNr: 129 Leaving fetcher: 1470134712407 Size: 8702
2016-08-02 06:45:12.409 STDERR [INFO] I0802 06:45:12.409068 20859 net.cpp:141] Setting up conv1
2016-08-02 06:45:12.409 STDERR [INFO] I0802 06:45:12.409124 20859 net.cpp:148] Top shape: 10 96 55 55 (2904000)
2016-08-02 06:45:12.409 STDERR [INFO] I0802 06:45:12.409134 20859 net.cpp:156] Memory required for data: 17799480
2016-08-02 06:45:12.409 STDERR [INFO] I0802 06:45:12.409169 20859 layer_factory.hpp:77] Creating layer relu1
2016-08-02 06:45:12.410 STDERR [INFO] I0802 06:45:12.409198 20859 net.cpp:91] Creating Layer relu1
2016-08-02 06:45:12.410 STDERR [INFO] I0802 06:45:12.409210 20859 net.cpp:425] relu1 <- conv1
2016-08-02 06:45:12.410 STDERR [INFO] I0802 06:45:12.409222 20859 net.cpp:386] relu1 -> conv1 (in-place)
2016-08-02 06:45:12.410 STDERR [INFO] I0802 06:45:12.409876 20859 net.cpp:141] Setting up relu1
2016-08-02 06:45:12.410 STDERR [INFO] I0802 06:45:12.409898 20859 net.cpp:148] Top shape: 10 96 55 55 (2904000)
2016-08-02 06:45:12.410 n.t.s.s.CVParticleSpout [INFO] [Timing] RequestID: 0 StreamID: home_peifeng_work_data_frame_320x240_jpg SequenceNr: 130 Leaving fetcher: 1470134712410 Size: 8702
2016-08-02 06:45:12.410 STDERR [INFO] I0802 06:45:12.409909 20859 net.cpp:156] Memory required for data: 29415480
2016-08-02 06:45:12.410 STDERR [INFO] I0802 06:45:12.409919 20859 layer_factory.hpp:77] Creating layer pool1
2016-08-02 06:45:12.411 STDERR [INFO] I0802 06:45:12.409940 20859 net.cpp:91] Creating Layer pool1
2016-08-02 06:45:12.411 STDERR [INFO] I0802 06:45:12.409952 20859 net.cpp:425] pool1 <- conv1
2016-08-02 06:45:12.411 STDERR [INFO] I0802 06:45:12.409968 20859 net.cpp:399] pool1 -> pool1
2016-08-02 06:45:12.411 n.t.s.b.CVParticleBolt [INFO] [Timing] RequestID: 0 StreamID: home_peifeng_work_data_frame_320x240_jpg SequenceNr: 128 Leaving scale: 1470134712411 Size: 3530
2016-08-02 06:45:12.411 STDERR [INFO] I0802 06:45:12.410079 20859 net.cpp:141] Setting up pool1
2016-08-02 06:45:12.411 n.t.s.b.CVParticleBolt [INFO] [Timing] RequestID: 0 StreamID: home_peifeng_work_data_frame_320x240_jpg SequenceNr: 130 Entering scale: 1470134712411
2016-08-02 06:45:12.411 STDERR [INFO] I0802 06:45:12.410099 20859 net.cpp:148] Top shape: 10 96 27 27 (699840)
2016-08-02 06:45:12.411 STDERR [INFO] I0802 06:45:12.410109 20859 net.cpp:156] Memory required for data: 32214840
2016-08-02 06:45:12.411 STDERR [INFO] I0802 06:45:12.410120 20859 layer_factory.hpp:77] Creating layer norm1
2016-08-02 06:45:12.412 STDERR [INFO] I0802 06:45:12.410147 20859 net.cpp:91] Creating Layer norm1
2016-08-02 06:45:12.412 STDERR [INFO] I0802 06:45:12.410161 20859 net.cpp:425] norm1 <- pool1
2016-08-02 06:45:12.412 STDERR [INFO] I0802 06:45:12.410174 20859 net.cpp:399] norm1 -> norm1
2016-08-02 06:45:12.412 STDERR [INFO] I0802 06:45:12.410917 20859 net.cpp:141] Setting up norm1
2016-08-02 06:45:12.412 STDERR [INFO] I0802 06:45:12.410938 20859 net.cpp:148] Top shape: 10 96 27 27 (699840)
2016-08-02 06:45:12.412 STDERR [INFO] I0802 06:45:12.410948 20859 net.cpp:156] Memory required for data: 35014200
2016-08-02 06:45:12.412 STDERR [INFO] I0802 06:45:12.410959 20859 layer_factory.hpp:77] Creating layer conv2
2016-08-02 06:45:12.412 STDERR [INFO] I0802 06:45:12.410985 20859 net.cpp:91] Creating Layer conv2
2016-08-02 06:45:12.413 STDERR [INFO] I0802 06:45:12.410998 20859 net.cpp:425] conv2 <- norm1
2016-08-02 06:45:12.413 STDERR [INFO] I0802 06:45:12.411015 20859 net.cpp:399] conv2 -> conv2
2016-08-02 06:45:12.413 n.t.s.b.CVParticleBolt [INFO] [Timing] RequestID: 0 StreamID: home_peifeng_work_data_frame_320x240_jpg SequenceNr: 129 Leaving scale: 1470134712413 Size: 3530
2016-08-02 06:45:12.413 n.t.s.s.CVParticleSpout [INFO] [Timing] RequestID: 0 StreamID: home_peifeng_work_data_frame_320x240_jpg SequenceNr: 131 Leaving fetcher: 1470134712413 Size: 8702
2016-08-02 06:45:12.413 n.t.s.b.CVParticleBolt [INFO] [Timing] RequestID: 0 StreamID: home_peifeng_work_data_frame_320x240_jpg SequenceNr: 131 Entering scale: 1470134712413
2016-08-02 06:45:12.413 STDERR [INFO] I0802 06:45:12.412699 20849 net.cpp:141] Setting up embedding
2016-08-02 06:45:12.413 STDERR [INFO] I0802 06:45:12.412721 20849 net.cpp:148] Top shape: 1 1 500 (500)
2016-08-02 06:45:12.413 STDERR [INFO] I0802 06:45:12.412727 20849 net.cpp:156] Memory required for data: 22408
2016-08-02 06:45:12.413 STDERR [INFO] I0802 06:45:12.412742 20849 layer_factory.hpp:77] Creating layer lstm1
2016-08-02 06:45:12.414 STDERR [INFO] I0802 06:45:12.412757 20849 net.cpp:91] Creating Layer lstm1
2016-08-02 06:45:12.414 STDERR [INFO] I0802 06:45:12.412765 20849 net.cpp:425] lstm1 <- embedded_input_frames
…
2016-08-02 06:45:12.430 STDERR [INFO] }
2016-08-02 06:45:12.430 STDERR [INFO] I0802 06:45:12.413274 20849 layer_factory.hpp:77] Creating layer lstm1_
2016-08-02 06:45:12.430 STDERR [INFO] I0802 06:45:12.413286 20849 net.cpp:91] Creating Layer lstm1_
2016-08-02 06:45:12.431 STDERR [INFO] I0802 06:45:12.413293 20849 net.cpp:399] lstm1_ -> x
2016-08-02 06:45:12.431 STDERR [INFO] I0802 06:45:12.413307 20849 net.cpp:399] lstm1_ -> cont
2016-08-02 06:45:12.431 STDERR [INFO] I0802 06:45:12.413899 20849 net.cpp:141] Setting up lstm1_
2016-08-02 06:45:12.431 STDERR [INFO] I0802 06:45:12.413920 20849 net.cpp:148] Top shape: 1 1 500 (500)
2016-08-02 06:45:12.431 STDERR [INFO] I0802 06:45:12.413928 20849 net.cpp:148] Top shape: 1 1 (1)
2016-08-02 06:45:12.432 STDERR [INFO] I0802 06:45:12.413933 20849 net.cpp:156] Memory required for data: 2004
2016-08-02 06:45:12.432 STDERR [INFO] I0802 06:45:12.413938 20849 layer_factory.hpp:77] Creating layer lstm1_
2016-08-02 06:45:12.432 STDERR [INFO] I0802 06:45:12.413950 20849 net.cpp:91] Creating Layer lstm1_
2016-08-02 06:45:12.432 STDERR [INFO] I0802 06:45:12.413961 20849 net.cpp:399] lstm1_ -> c_0
2016-08-02 06:45:12.432 STDERR [INFO] I0802 06:45:12.413975 20849 net.cpp:399] lstm1_ -> h_0
2016-08-02 06:45:12.432 STDERR [INFO] I0802 06:45:12.414052 20849 net.cpp:141] Setting up lstm1_
2016-08-02 06:45:12.432 STDERR [INFO] I0802 06:45:12.414063 20849 net.cpp:148] Top shape: 1 1 1000 (1000)
2016-08-02 06:45:12.433 STDERR [INFO] I0802 06:45:12.414069 20849 net.cpp:148] Top shape: 1 1 1000 (1000)
2016-08-02 06:45:12.433 STDERR [INFO] I0802 06:45:12.414073 20849 net.cpp:156] Memory required for data: 10004
2016-08-02 06:45:12.433 STDERR [INFO] I0802 06:45:12.414078 20849 layer_factory.hpp:77] Creating layer lstm1_cont_slice
2016-08-02 06:45:12.433 STDERR [INFO] I0802 06:45:12.414090 20849 net.cpp:91] Creating Layer lstm1_cont_slice
2016-08-02 06:45:12.433 STDERR [INFO] I0802 06:45:12.414096 20849 net.cpp:425] lstm1_cont_slice <- cont
2016-08-02 06:45:12.433 STDERR [INFO] I0802 06:45:12.414103 20849 net.cpp:399] lstm1_cont_slice -> cont_1
2016-08-02 06:45:12.433 STDERR [INFO] I0802 06:45:12.414163 20849 net.cpp:141] Setting up lstm1_cont_slice
2016-08-02 06:45:12.433 STDERR [INFO] I0802 06:45:12.414175 20849 net.cpp:148] Top shape: 1 1 (1)
2016-08-02 06:45:12.434 STDERR [INFO] I0802 06:45:12.414180 20849 net.cpp:156] Memory required for data: 10008
2016-08-02 06:45:12.434 STDERR [INFO] I0802 06:45:12.414186 20849 layer_factory.hpp:77] Creating layer cont_1_lstm1_cont_slice_0_split
2016-08-02 06:45:12.434 STDERR [INFO] I0802 06:45:12.414193 20849 net.cpp:91] Creating Layer cont_1_lstm1_cont_slice_0_split
2016-08-02 06:45:12.434 STDERR [INFO] I0802 06:45:12.414198 20849 net.cpp:425] cont_1_lstm1_cont_slice_0_split <- cont_1
2016-08-02 06:45:12.434 STDERR [INFO] I0802 06:45:12.414208 20849 net.cpp:399] cont_1_lstm1_cont_slice_0_split -> cont_1_lstm1_cont_slice_0_split_0
2016-08-02 06:45:12.434 STDERR [INFO] I0802 06:45:12.414217 20849 net.cpp:399] cont_1_lstm1_cont_slice_0_split -> cont_1_lstm1_cont_slice_0_split_1
2016-08-02 06:45:12.434 STDERR [INFO] I0802 06:45:12.414433 20849 net.cpp:141] Setting up cont_1_lstm1_cont_slice_0_split
2016-08-02 06:45:12.434 STDERR [INFO] I0802 06:45:12.414444 20849 net.cpp:148] Top shape: 1 1 (1)
2016-08-02 06:45:12.435 STDERR [INFO] I0802 06:45:12.414450 20849 net.cpp:148] Top shape: 1 1 (1)
2016-08-02 06:45:12.435 STDERR [INFO] I0802 06:45:12.414454 20849 net.cpp:156] Memory required for data: 10016
2016-08-02 06:45:12.435 STDERR [INFO] I0802 06:45:12.414459 20849 layer_factory.hpp:77] Creating layer lstm1_x_transform
2016-08-02 06:45:12.435 STDERR [INFO] I0802 06:45:12.414470 20849 net.cpp:91] Creating Layer lstm1_x_transform
2016-08-02 06:45:12.435 STDERR [INFO] I0802 06:45:12.414476 20849 net.cpp:425] lstm1_x_transform <- x
2016-08-02 06:45:12.435 STDERR [INFO] I0802 06:45:12.414484 20849 net.cpp:399] lstm1_x_transform -> W_xc_x
2016-08-02 06:45:12.435 STDERR [INFO] I0802 06:45:12.421262 20859 net.cpp:141] Setting up conv2
2016-08-02 06:45:12.435 STDERR [INFO] I0802 06:45:12.421326 20859 net.cpp:148] Top shape: 10 256 27 27 (1866240)
2016-08-02 06:45:12.436 STDERR [INFO] I0802 06:45:12.421342 20859 net.cpp:156] Memory required for data: 42479160
2016-08-02 06:45:12.436 STDERR [INFO] I0802 06:45:12.421382 20859 layer_factory.hpp:77] Creating layer relu2
2016-08-02 06:45:12.436 STDERR [INFO] I0802 06:45:12.421411 20859 net.cpp:91] Creating Layer relu2
2016-08-02 06:45:12.436 STDERR [INFO] I0802 06:45:12.421427 20859 net.cpp:425] relu2 <- conv2
2016-08-02 06:45:12.436 STDERR [INFO] I0802 06:45:12.421445 20859 net.cpp:386] relu2 -> conv2 (in-place)
2016-08-02 06:45:12.436 STDERR [INFO] I0802 06:45:12.422178 20859 net.cpp:141] Setting up relu2
2016-08-02 06:45:12.436 STDERR [INFO] I0802 06:45:12.422197 20859 net.cpp:148] Top shape: 10 256 27 27 (1866240)
2016-08-02 06:45:12.436 STDERR [INFO] I0802 06:45:12.422207 20859 net.cpp:156] Memory required for data: 49944120
2016-08-02 06:45:12.437 STDERR [INFO] I0802 06:45:12.422217 20859 layer_factory.hpp:77] Creating layer pool2
2016-08-02 06:45:12.437 STDERR [INFO] I0802 06:45:12.422236 20859 net.cpp:91] Creating Layer pool2
2016-08-02 06:45:12.437 STDERR [INFO] I0802 06:45:12.422247 20859 net.cpp:425] pool2 <- conv2
2016-08-02 06:45:12.437 STDERR [INFO] I0802 06:45:12.422269 20859 net.cpp:399] pool2 -> pool2
2016-08-02 06:45:12.437 STDERR [INFO] I0802 06:45:12.422369 20859 net.cpp:141] Setting up pool2
2016-08-02 06:45:12.437 STDERR [INFO] I0802 06:45:12.422385 20859 net.cpp:148] Top shape: 10 256 13 13 (432640)
2016-08-02 06:45:12.437 STDERR [INFO] I0802 06:45:12.422396 20859 net.cpp:156] Memory required for data: 51674680
2016-08-02 06:45:12.437 STDERR [INFO] I0802 06:45:12.422405 20859 layer_factory.hpp:77] Creating layer norm2
2016-08-02 06:45:12.437 STDERR [INFO] I0802 06:45:12.422433 20859 net.cpp:91] Creating Layer norm2
2016-08-02 06:45:12.437 STDERR [INFO] I0802 06:45:12.422446 20859 net.cpp:425] norm2 <- pool2
2016-08-02 06:45:12.437 STDERR [INFO] I0802 06:45:12.422464 20859 net.cpp:399] norm2 -> norm2
2016-08-02 06:45:12.437 STDERR [INFO] I0802 06:45:12.422927 20859 net.cpp:141] Setting up norm2
2016-08-02 06:45:12.437 STDERR [INFO] I0802 06:45:12.422946 20859 net.cpp:148] Top shape: 10 256 13 13 (432640)
2016-08-02 06:45:12.438 STDERR [INFO] I0802 06:45:12.422956 20859 net.cpp:156] Memory required for data: 53405240
2016-08-02 06:45:12.438 STDERR [INFO] I0802 06:45:12.422966 20859 layer_factory.hpp:77] Creating layer conv3
2016-08-02 06:45:12.438 STDERR [INFO] I0802 06:45:12.422997 20859 net.cpp:91] Creating Layer conv3
2016-08-02 06:45:12.438 STDERR [INFO] I0802 06:45:12.423012 20859 net.cpp:425] conv3 <- norm2
2016-08-02 06:45:12.438 STDERR [INFO] I0802 06:45:12.423030 20859 net.cpp:399] conv3 -> conv3
2016-08-02 06:45:12.438 STDERR [INFO] I0802 06:45:12.428740 20859 net.cpp:141] Setting up conv3
2016-08-02 06:45:12.438 STDERR [INFO] I0802 06:45:12.428767 20859 net.cpp:148] Top shape: 10 384 13 13 (648960)
2016-08-02 06:45:12.438 STDERR [INFO] I0802 06:45:12.428778 20859 net.cpp:156] Memory required for data: 56001080
2016-08-02 06:45:12.438 STDERR [INFO] I0802 06:45:12.428807 20859 layer_factory.hpp:77] Creating layer relu3
2016-08-02 06:45:12.438 STDERR [INFO] I0802 06:45:12.428828 20859 net.cpp:91] Creating Layer relu3
2016-08-02 06:45:12.438 STDERR [INFO] I0802 06:45:12.428838 20859 net.cpp:425] relu3 <- conv3
2016-08-02 06:45:12.438 STDERR [INFO] I0802 06:45:12.428853 20859 net.cpp:386] relu3 -> conv3 (in-place)
2016-08-02 06:45:12.439 STDERR [INFO] I0802 06:45:12.429545 20859 net.cpp:141] Setting up relu3
2016-08-02 06:45:12.439 STDERR [INFO] I0802 06:45:12.429570 20859 net.cpp:148] Top shape: 10 384 13 13 (648960)
2016-08-02 06:45:12.439 STDERR [INFO] I0802 06:45:12.429581 20859 net.cpp:156] Memory required for data: 58596920
2016-08-02 06:45:12.439 STDERR [INFO] I0802 06:45:12.429590 20859 layer_factory.hpp:77] Creating layer conv4
2016-08-02 06:45:12.439 STDERR [INFO] I0802 06:45:12.429611 20859 net.cpp:91] Creating Layer conv4
2016-08-02 06:45:12.439 STDERR [INFO] I0802 06:45:12.429623 20859 net.cpp:425] conv4 <- conv3
2016-08-02 06:45:12.439 STDERR [INFO] I0802 06:45:12.429646 20859 net.cpp:399] conv4 -> conv4
2016-08-02 06:45:12.439 STDERR [INFO] I0802 06:45:12.436208 20849 net.cpp:141] Setting up lstm1_x_transform
2016-08-02 06:45:12.439 STDERR [INFO] I0802 06:45:12.436229 20849 net.cpp:148] Top shape: 1 1 4000 (4000)
2016-08-02 06:45:12.439 STDERR [INFO] I0802 06:45:12.436234 20849 net.cpp:156] Memory required for data: 26016
2016-08-02 06:45:12.439 STDERR [INFO] I0802 06:45:12.436249 20849 layer_factory.hpp:77] Creating layer lstm1_W_xc_x_slice
2016-08-02 06:45:12.439 STDERR [INFO] I0802 06:45:12.436262 20849 net.cpp:91] Creating Layer lstm1_W_xc_x_slice
2016-08-02 06:45:12.440 STDERR [INFO] I0802 06:45:12.436269 20849 net.cpp:425] lstm1_W_xc_x_slice <- W_xc_x
2016-08-02 06:45:12.440 STDERR [INFO] I0802 06:45:12.436270 20859 net.cpp:141] Setting up conv4
2016-08-02 06:45:12.440 STDERR [INFO] I0802 06:45:12.436277 20849 net.cpp:399] lstm1_W_xc_x_slice -> W_xc_x_1
2016-08-02 06:45:12.440 STDERR [INFO] I0802 06:45:12.436300 20859 net.cpp:148] Top shape: 10 384 13 13 (648960)
2016-08-02 06:45:12.440 STDERR [INFO] I0802 06:45:12.436312 20859 net.cpp:156] Memory required for data: 61192760
2016-08-02 06:45:12.440 STDERR [INFO] I0802 06:45:12.436331 20859 layer_factory.hpp:77] Creating layer relu4
2016-08-02 06:45:12.440 STDERR [INFO] I0802 06:45:12.436333 20849 net.cpp:141] Setting up lstm1_W_xc_x_slice
2016-08-02 06:45:12.440 STDERR [INFO] I0802 06:45:12.436352 20849 net.cpp:148] Top shape: 1 1 4000 (4000)
2016-08-02 06:45:12.441 STDERR [INFO] I0802 06:45:12.436357 20849 net.cpp:156] Memory required for data: 42016
2016-08-02 06:45:12.441 STDERR [INFO] I0802 06:45:12.436362 20849 layer_factory.hpp:77] Creating layer lstm1_h_conted_0
2016-08-02 06:45:12.441 STDERR [INFO] I0802 06:45:12.436362 20859 net.cpp:91] Creating Layer relu4
2016-08-02 06:45:12.441 STDERR [INFO] I0802 06:45:12.436378 20849 net.cpp:91] Creating Layer lstm1_h_conted_0
2016-08-02 06:45:12.441 STDERR [INFO] I0802 06:45:12.436378 20859 net.cpp:425] relu4 <- conv4
2016-08-02 06:45:12.441 STDERR [INFO] I0802 06:45:12.436383 20849 net.cpp:425] lstm1_h_conted_0 <- h_0
2016-08-02 06:45:12.441 STDERR [INFO] I0802 06:45:12.436389 20849 net.cpp:425] lstm1_h_conted_0 <- cont_1_lstm1_cont_slice_0_split_0
2016-08-02 06:45:12.441 STDERR [INFO] I0802 06:45:12.436396 20849 net.cpp:399] lstm1_h_conted_0 -> h_conted_0
2016-08-02 06:45:12.441 STDERR [INFO] I0802 06:45:12.436396 20859 net.cpp:386] relu4 -> conv4 (in-place)
2016-08-02 06:45:12.441 STDERR [INFO] I0802 06:45:12.436543 20849 net.cpp:141] Setting up lstm1_h_conted_0
2016-08-02 06:45:12.442 STDERR [INFO] I0802 06:45:12.436554 20849 net.cpp:148] Top shape: 1 1 1000 (1000)
2016-08-02 06:45:12.442 STDERR [INFO] I0802 06:45:12.436559 20849 net.cpp:156] Memory required for data: 46016
2016-08-02 06:45:12.442 STDERR [INFO] I0802 06:45:12.436564 20849 layer_factory.hpp:77] Creating layer lstm1_transform_1
2016-08-02 06:45:12.442 STDERR [INFO] I0802 06:45:12.436581 20849 net.cpp:91] Creating Layer lstm1_transform_1
2016-08-02 06:45:12.442 STDERR [INFO] I0802 06:45:12.436588 20849 net.cpp:425] lstm1_transform_1 <- h_conted_0
2016-08-02 06:45:12.442 STDERR [INFO] I0802 06:45:12.436596 20849 net.cpp:399] lstm1_transform_1 -> W_hc_h_0
2016-08-02 06:45:12.445 STDERR [INFO] I0802 06:45:12.445097 20859 net.cpp:141] Setting up relu4
2016-08-02 06:45:12.445 STDERR [INFO] I0802 06:45:12.445153 20859 net.cpp:148] Top shape: 10 384 13 13 (648960)
2016-08-02 06:45:12.445 STDERR [INFO] I0802 06:45:12.445164 20859 net.cpp:156] Memory required for data: 63788600
2016-08-02 06:45:12.445 STDERR [INFO] I0802 06:45:12.445181 20859 layer_factory.hpp:77] Creating layer conv5
2016-08-02 06:45:12.445 STDERR [INFO] I0802 06:45:12.445225 20859 net.cpp:91] Creating Layer conv5
2016-08-02 06:45:12.446 STDERR [INFO] I0802 06:45:12.445240 20859 net.cpp:425] conv5 <- conv4
2016-08-02 06:45:12.446 STDERR [INFO] I0802 06:45:12.445261 20859 net.cpp:399] conv5 -> conv5
2016-08-02 06:45:12.450 STDERR [INFO] I0802 06:45:12.450254 20859 net.cpp:141] Setting up conv5
2016-08-02 06:45:12.450 STDERR [INFO] I0802 06:45:12.450304 20859 net.cpp:148] Top shape: 10 256 13 13 (432640)
2016-08-02 06:45:12.450 STDERR [INFO] I0802 06:45:12.450315 20859 net.cpp:156] Memory required for data: 65519160
2016-08-02 06:45:12.450 STDERR [INFO] I0802 06:45:12.450356 20859 layer_factory.hpp:77] Creating layer relu5
2016-08-02 06:45:12.451 STDERR [INFO] I0802 06:45:12.450384 20859 net.cpp:91] Creating Layer relu5
2016-08-02 06:45:12.451 STDERR [INFO] I0802 06:45:12.450397 20859 net.cpp:425] relu5 <- conv5
2016-08-02 06:45:12.451 STDERR [INFO] I0802 06:45:12.450417 20859 net.cpp:386] relu5 -> conv5 (in-place)
2016-08-02 06:45:12.451 STDERR [INFO] I0802 06:45:12.451113 20859 net.cpp:141] Setting up relu5
2016-08-02 06:45:12.451 STDERR [INFO] I0802 06:45:12.451133 20859 net.cpp:148] Top shape: 10 256 13 13 (432640)
2016-08-02 06:45:12.451 STDERR [INFO] I0802 06:45:12.451141 20859 net.cpp:156] Memory required for data: 67249720
2016-08-02 06:45:12.452 STDERR [INFO] I0802 06:45:12.451150 20859 layer_factory.hpp:77] Creating layer pool5
2016-08-02 06:45:12.452 STDERR [INFO] I0802 06:45:12.451169 20859 net.cpp:91] Creating Layer pool5
2016-08-02 06:45:12.452 STDERR [INFO] I0802 06:45:12.451182 20859 net.cpp:425] pool5 <- conv5
2016-08-02 06:45:12.452 STDERR [INFO] I0802 06:45:12.451196 20859 net.cpp:399] pool5 -> pool5
2016-08-02 06:45:12.452 STDERR [INFO] I0802 06:45:12.451303 20859 net.cpp:141] Setting up pool5
2016-08-02 06:45:12.452 STDERR [INFO] I0802 06:45:12.451321 20859 net.cpp:148] Top shape: 10 256 6 6 (92160)
2016-08-02 06:45:12.452 STDERR [INFO] I0802 06:45:12.451331 20859 net.cpp:156] Memory required for data: 67618360
2016-08-02 06:45:12.453 STDERR [INFO] I0802 06:45:12.451340 20859 layer_factory.hpp:77] Creating layer fc6
2016-08-02 06:45:12.453 STDERR [INFO] I0802 06:45:12.451364 20859 net.cpp:91] Creating Layer fc6
2016-08-02 06:45:12.453 STDERR [INFO] I0802 06:45:12.451375 20859 net.cpp:425] fc6 <- pool5
2016-08-02 06:45:12.453 STDERR [INFO] I0802 06:45:12.451396 20859 net.cpp:399] fc6 -> fc6
2016-08-02 06:45:12.526 STDERR [INFO] I0802 06:45:12.526127 20849 net.cpp:141] Setting up lstm1_transform_1
2016-08-02 06:45:12.526 STDERR [INFO] I0802 06:45:12.526192 20849 net.cpp:148] Top shape: 1 1 4000 (4000)
2016-08-02 06:45:12.526 STDERR [INFO] I0802 06:45:12.526198 20849 net.cpp:156] Memory required for data: 62016
2016-08-02 06:45:12.526 STDERR [INFO] I0802 06:45:12.526227 20849 layer_factory.hpp:77] Creating layer lstm1_gate_input_1
2016-08-02 06:45:12.527 STDERR [INFO] I0802 06:45:12.526254 20849 net.cpp:91] Creating Layer lstm1_gate_input_1
2016-08-02 06:45:12.527 STDERR [INFO] I0802 06:45:12.526262 20849 net.cpp:425] lstm1_gate_input_1 <- W_hc_h_0
2016-08-02 06:45:12.527 STDERR [INFO] I0802 06:45:12.526271 20849 net.cpp:425] lstm1_gate_input_1 <- W_xc_x_1
2016-08-02 06:45:12.527 STDERR [INFO] I0802 06:45:12.526280 20849 net.cpp:399] lstm1_gate_input_1 -> gate_input_1
2016-08-02 06:45:12.527 STDERR [INFO] I0802 06:45:12.526352 20849 net.cpp:141] Setting up lstm1_gate_input_1
2016-08-02 06:45:12.527 STDERR [INFO] I0802 06:45:12.526362 20849 net.cpp:148] Top shape: 1 1 4000 (4000)
2016-08-02 06:45:12.527 STDERR [INFO] I0802 06:45:12.526367 20849 net.cpp:156] Memory required for data: 78016
2016-08-02 06:45:12.527 STDERR [INFO] I0802 06:45:12.526372 20849 layer_factory.hpp:77] Creating layer lstm1_unit_1
2016-08-02 06:45:12.527 STDERR [INFO] I0802 06:45:12.526382 20849 net.cpp:91] Creating Layer lstm1_unit_1
2016-08-02 06:45:12.527 STDERR [INFO] I0802 06:45:12.526387 20849 net.cpp:425] lstm1_unit_1 <- c_0
2016-08-02 06:45:12.527 STDERR [INFO] I0802 06:45:12.526394 20849 net.cpp:425] lstm1_unit_1 <- gate_input_1
2016-08-02 06:45:12.528 STDERR [INFO] I0802 06:45:12.526401 20849 net.cpp:425] lstm1_unit_1 <- cont_1_lstm1_cont_slice_0_split_1
2016-08-02 06:45:12.528 STDERR [INFO] I0802 06:45:12.526408 20849 net.cpp:399] lstm1_unit_1 -> c_1
2016-08-02 06:45:12.528 STDERR [INFO] I0802 06:45:12.526417 20849 net.cpp:399] lstm1_unit_1 -> h_1
2016-08-02 06:45:12.528 STDERR [INFO] I0802 06:45:12.526481 20849 net.cpp:141] Setting up lstm1_unit_1
2016-08-02 06:45:12.528 STDERR [INFO] I0802 06:45:12.526490 20849 net.cpp:148] Top shape: 1 1 1000 (1000)
2016-08-02 06:45:12.528 STDERR [INFO] I0802 06:45:12.526496 20849 net.cpp:148] Top shape: 1 1 1000 (1000)
2016-08-02 06:45:12.528 STDERR [INFO] I0802 06:45:12.526501 20849 net.cpp:156] Memory required for data: 86016
2016-08-02 06:45:12.528 STDERR [INFO] I0802 06:45:12.526506 20849 layer_factory.hpp:77] Creating layer lstm1_
2016-08-02 06:45:12.528 STDERR [INFO] I0802 06:45:12.526517 20849 net.cpp:91] Creating Layer lstm1_
2016-08-02 06:45:12.528 STDERR [INFO] I0802 06:45:12.526522 20849 net.cpp:425] lstm1_ <- c_1
2016-08-02 06:45:12.528 STDERR [INFO] I0802 06:45:12.526530 20849 net.cpp:399] lstm1_ -> c_T
2016-08-02 06:45:12.528 STDERR [INFO] I0802 06:45:12.526561 20849 net.cpp:141] Setting up lstm1_
2016-08-02 06:45:12.528 STDERR [INFO] I0802 06:45:12.526569 20849 net.cpp:148] Top shape: 1 1 1000 (1000)
2016-08-02 06:45:12.529 STDERR [INFO] I0802 06:45:12.526574 20849 net.cpp:156] Memory required for data: 90016
2016-08-02 06:45:12.529 STDERR [INFO] I0802 06:45:12.526579 20849 layer_factory.hpp:77] Creating layer lstm1_h_concat
2016-08-02 06:45:12.529 STDERR [INFO] I0802 06:45:12.526598 20849 net.cpp:91] Creating Layer lstm1_h_concat
2016-08-02 06:45:12.529 STDERR [INFO] I0802 06:45:12.526604 20849 net.cpp:425] lstm1_h_concat <- h_1
2016-08-02 06:45:12.529 STDERR [INFO] I0802 06:45:12.526614 20849 net.cpp:399] lstm1_h_concat -> h
2016-08-02 06:45:12.529 STDERR [INFO] I0802 06:45:12.526650 20849 net.cpp:141] Setting up lstm1_h_concat
2016-08-02 06:45:12.529 STDERR [INFO] I0802 06:45:12.526659 20849 net.cpp:148] Top shape: 1 1 1000 (1000)
2016-08-02 06:45:12.529 STDERR [INFO] I0802 06:45:12.526664 20849 net.cpp:156] Memory required for data: 94016
2016-08-02 06:45:12.529 STDERR [INFO] I0802 06:45:12.526669 20849 layer_factory.hpp:77] Creating layer h_pseudoloss
2016-08-02 06:45:12.529 STDERR [INFO] I0802 06:45:12.526684 20849 net.cpp:91] Creating Layer h_pseudoloss
2016-08-02 06:45:12.529 STDERR [INFO] I0802 06:45:12.526690 20849 net.cpp:425] h_pseudoloss <- h
…
2016-08-02 06:45:12.543 STDERR [INFO] }
2016-08-02 06:45:12.543 STDERR [INFO] I0802 06:45:12.527672 20849 layer_factory.hpp:77] Creating layer lstm2_
2016-08-02 06:45:12.543 STDERR [INFO] I0802 06:45:12.527683 20849 net.cpp:91] Creating Layer lstm2_
2016-08-02 06:45:12.544 STDERR [INFO] I0802 06:45:12.527689 20849 net.cpp:399] lstm2_ -> x
2016-08-02 06:45:12.544 STDERR [INFO] I0802 06:45:12.527699 20849 net.cpp:399] lstm2_ -> cont
2016-08-02 06:45:12.544 STDERR [INFO] I0802 06:45:12.527755 20849 net.cpp:141] Setting up lstm2_
2016-08-02 06:45:12.544 STDERR [INFO] I0802 06:45:12.527766 20849 net.cpp:148] Top shape: 1 1 1501 (1501)
2016-08-02 06:45:12.544 STDERR [INFO] I0802 06:45:12.527772 20849 net.cpp:148] Top shape: 1 1 (1)
2016-08-02 06:45:12.544 STDERR [INFO] I0802 06:45:12.527776 20849 net.cpp:156] Memory required for data: 6008
2016-08-02 06:45:12.544 STDERR [INFO] I0802 06:45:12.527781 20849 layer_factory.hpp:77] Creating layer lstm2_
2016-08-02 06:45:12.545 STDERR [INFO] I0802 06:45:12.527791 20849 net.cpp:91] Creating Layer lstm2_
2016-08-02 06:45:12.545 STDERR [INFO] I0802 06:45:12.527799 20849 net.cpp:399] lstm2_ -> c_0
2016-08-02 06:45:12.545 STDERR [INFO] I0802 06:45:12.527809 20849 net.cpp:399] lstm2_ -> h_0
2016-08-02 06:45:12.545 STDERR [INFO] I0802 06:45:12.527858 20849 net.cpp:141] Setting up lstm2_
2016-08-02 06:45:12.545 STDERR [INFO] I0802 06:45:12.527868 20849 net.cpp:148] Top shape: 1 1 1000 (1000)
2016-08-02 06:45:12.545 STDERR [INFO] I0802 06:45:12.527873 20849 net.cpp:148] Top shape: 1 1 1000 (1000)
2016-08-02 06:45:12.545 STDERR [INFO] I0802 06:45:12.527878 20849 net.cpp:156] Memory required for data: 14008
2016-08-02 06:45:12.545 STDERR [INFO] I0802 06:45:12.527882 20849 layer_factory.hpp:77] Creating layer lstm2_cont_slice
2016-08-02 06:45:12.545 STDERR [INFO] I0802 06:45:12.527890 20849 net.cpp:91] Creating Layer lstm2_cont_slice
2016-08-02 06:45:12.545 STDERR [INFO] I0802 06:45:12.527895 20849 net.cpp:425] lstm2_cont_slice <- cont
2016-08-02 06:45:12.545 STDERR [INFO] I0802 06:45:12.527902 20849 net.cpp:399] lstm2_cont_slice -> cont_1
2016-08-02 06:45:12.545 STDERR [INFO] I0802 06:45:12.527936 20849 net.cpp:141] Setting up lstm2_cont_slice
2016-08-02 06:45:12.545 STDERR [INFO] I0802 06:45:12.527947 20849 net.cpp:148] Top shape: 1 1 (1)
2016-08-02 06:45:12.546 STDERR [INFO] I0802 06:45:12.527952 20849 net.cpp:156] Memory required for data: 14012
2016-08-02 06:45:12.546 STDERR [INFO] I0802 06:45:12.527956 20849 layer_factory.hpp:77] Creating layer cont_1_lstm2_cont_slice_0_split
2016-08-02 06:45:12.546 STDERR [INFO] I0802 06:45:12.527966 20849 net.cpp:91] Creating Layer cont_1_lstm2_cont_slice_0_split
2016-08-02 06:45:12.546 STDERR [INFO] I0802 06:45:12.527971 20849 net.cpp:425] cont_1_lstm2_cont_slice_0_split <- cont_1
2016-08-02 06:45:12.546 STDERR [INFO] I0802 06:45:12.527978 20849 net.cpp:399] cont_1_lstm2_cont_slice_0_split -> cont_1_lstm2_cont_slice_0_split_0
2016-08-02 06:45:12.546 STDERR [INFO] I0802 06:45:12.527987 20849 net.cpp:399] cont_1_lstm2_cont_slice_0_split -> cont_1_lstm2_cont_slice_0_split_1
2016-08-02 06:45:12.546 STDERR [INFO] I0802 06:45:12.528048 20849 net.cpp:141] Setting up cont_1_lstm2_cont_slice_0_split
2016-08-02 06:45:12.546 STDERR [INFO] I0802 06:45:12.528059 20849 net.cpp:148] Top shape: 1 1 (1)
2016-08-02 06:45:12.546 STDERR [INFO] I0802 06:45:12.528064 20849 net.cpp:148] Top shape: 1 1 (1)
2016-08-02 06:45:12.546 STDERR [INFO] I0802 06:45:12.528069 20849 net.cpp:156] Memory required for data: 14020
2016-08-02 06:45:12.546 STDERR [INFO] I0802 06:45:12.528074 20849 layer_factory.hpp:77] Creating layer lstm2_x_transform
2016-08-02 06:45:12.546 STDERR [INFO] I0802 06:45:12.528084 20849 net.cpp:91] Creating Layer lstm2_x_transform
2016-08-02 06:45:12.546 STDERR [INFO] I0802 06:45:12.528090 20849 net.cpp:425] lstm2_x_transform <- x
2016-08-02 06:45:12.546 STDERR [INFO] I0802 06:45:12.528101 20849 net.cpp:399] lstm2_x_transform -> W_xc_x
2016-08-02 06:45:12.589 STDERR [INFO] I0802 06:45:12.589224 20859 net.cpp:141] Setting up fc6
2016-08-02 06:45:12.589 STDERR [INFO] I0802 06:45:12.589288 20859 net.cpp:148] Top shape: 10 4096 (40960)
2016-08-02 06:45:12.589 STDERR [INFO] I0802 06:45:12.589296 20859 net.cpp:156] Memory required for data: 67782200
2016-08-02 06:45:12.590 STDERR [INFO] I0802 06:45:12.589315 20859 layer_factory.hpp:77] Creating layer relu6
2016-08-02 06:45:12.590 STDERR [INFO] I0802 06:45:12.589336 20859 net.cpp:91] Creating Layer relu6
2016-08-02 06:45:12.590 STDERR [INFO] I0802 06:45:12.589345 20859 net.cpp:425] relu6 <- fc6
2016-08-02 06:45:12.590 STDERR [INFO] I0802 06:45:12.589355 20859 net.cpp:386] relu6 -> fc6 (in-place)
2016-08-02 06:45:12.590 STDERR [INFO] I0802 06:45:12.589766 20859 net.cpp:141] Setting up relu6
2016-08-02 06:45:12.590 STDERR [INFO] I0802 06:45:12.589781 20859 net.cpp:148] Top shape: 10 4096 (40960)
2016-08-02 06:45:12.590 STDERR [INFO] I0802 06:45:12.589787 20859 net.cpp:156] Memory required for data: 67946040
2016-08-02 06:45:12.590 STDERR [INFO] I0802 06:45:12.589792 20859 layer_factory.hpp:77] Creating layer drop6
2016-08-02 06:45:12.590 STDERR [INFO] I0802 06:45:12.589807 20859 net.cpp:91] Creating Layer drop6
2016-08-02 06:45:12.590 STDERR [INFO] I0802 06:45:12.589812 20859 net.cpp:425] drop6 <- fc6
2016-08-02 06:45:12.591 STDERR [INFO] I0802 06:45:12.589823 20859 net.cpp:386] drop6 -> fc6 (in-place)
2016-08-02 06:45:12.591 STDERR [INFO] I0802 06:45:12.589879 20859 net.cpp:141] Setting up drop6
2016-08-02 06:45:12.591 STDERR [INFO] I0802 06:45:12.589890 20859 net.cpp:148] Top shape: 10 4096 (40960)
2016-08-02 06:45:12.591 STDERR [INFO] I0802 06:45:12.589896 20859 net.cpp:156] Memory required for data: 68109880
2016-08-02 06:45:12.591 STDERR [INFO] I0802 06:45:12.589902 20859 layer_factory.hpp:77] Creating layer fc7
2016-08-02 06:45:12.591 STDERR [INFO] I0802 06:45:12.589920 20859 net.cpp:91] Creating Layer fc7
2016-08-02 06:45:12.591 STDERR [INFO] I0802 06:45:12.589926 20859 net.cpp:425] fc7 <- fc6
…
2016-08-02 06:45:12.619 n.t.s.b.CVParticleBolt [INFO] [Timing] RequestID: 0 StreamID: home_peifeng_work_data_frame_320x240_jpg SequenceNr: 133 Entering scale: 1470134712619
2016-08-02 06:45:12.622 n.t.s.s.CVParticleSpout [INFO] [Timing] RequestID: 0 StreamID: home_peifeng_work_data_frame_320x240_jpg SequenceNr: 134 Leaving fetcher: 1470134712622 Size: 8702
2016-08-02 06:45:12.622 n.t.s.b.CVParticleBolt [INFO] [Timing] RequestID: 0 StreamID: home_peifeng_work_data_frame_320x240_jpg SequenceNr: 134 Entering scale: 1470134712622
2016-08-02 06:45:12.622 STDERR [INFO] I0802 06:45:12.622267 20849 net.cpp:141] Setting up lstm2_x_transform
2016-08-02 06:45:12.622 STDERR [INFO] I0802 06:45:12.622328 20849 net.cpp:148] Top shape: 1 1 4000 (4000)
2016-08-02 06:45:12.622 STDERR [INFO] I0802 06:45:12.622335 20849 net.cpp:156] Memory required for data: 30020
2016-08-02 06:45:12.623 STDERR [INFO] I0802 06:45:12.622360 20849 layer_factory.hpp:77] Creating layer lstm2_W_xc_x_slice
2016-08-02 06:45:12.623 STDERR [INFO] I0802 06:45:12.622380 20849 net.cpp:91] Creating Layer lstm2_W_xc_x_slice
2016-08-02 06:45:12.623 STDERR [INFO] I0802 06:45:12.622388 20849 net.cpp:425] lstm2_W_xc_x_slice <- W_xc_x
2016-08-02 06:45:12.623 STDERR [INFO] I0802 06:45:12.622400 20849 net.cpp:399] lstm2_W_xc_x_slice -> W_xc_x_1
2016-08-02 06:45:12.623 n.t.s.b.CVParticleBolt [INFO] [Timing] RequestID: 0 StreamID: home_peifeng_work_data_frame_320x240_jpg SequenceNr: 132 Leaving scale: 1470134712623 Size: 3530
2016-08-02 06:45:12.623 STDERR [INFO] I0802 06:45:12.622454 20849 net.cpp:141] Setting up lstm2_W_xc_x_slice
2016-08-02 06:45:12.623 STDERR [INFO] I0802 06:45:12.622467 20849 net.cpp:148] Top shape: 1 1 4000 (4000)
2016-08-02 06:45:12.623 STDERR [INFO] I0802 06:45:12.622473 20849 net.cpp:156] Memory required for data: 46020
2016-08-02 06:45:12.623 STDERR [INFO] I0802 06:45:12.622478 20849 layer_factory.hpp:77] Creating layer lstm2_h_conted_0
2016-08-02 06:45:12.623 STDERR [INFO] I0802 06:45:12.622489 20849 net.cpp:91] Creating Layer lstm2_h_conted_0
2016-08-02 06:45:12.623 STDERR [INFO] I0802 06:45:12.622496 20849 net.cpp:425] lstm2_h_conted_0 <- h_0
2016-08-02 06:45:12.624 STDERR [INFO] I0802 06:45:12.622503 20849 net.cpp:425] lstm2_h_conted_0 <- cont_1_lstm2_cont_slice_0_split_0
2016-08-02 06:45:12.624 STDERR [INFO] I0802 06:45:12.622512 20849 net.cpp:399] lstm2_h_conted_0 -> h_conted_0
2016-08-02 06:45:12.624 n.t.s.b.CVParticleBolt [INFO] [Timing] RequestID: 0 StreamID: home_peifeng_work_data_frame_320x240_jpg SequenceNr: 133 Leaving scale: 1470134712624 Size: 3530
2016-08-02 06:45:12.624 STDERR [INFO] I0802 06:45:12.622617 20849 net.cpp:141] Setting up lstm2_h_conted_0
2016-08-02 06:45:12.624 STDERR [INFO] I0802 06:45:12.622629 20849 net.cpp:148] Top shape: 1 1 1000 (1000)
2016-08-02 06:45:12.624 STDERR [INFO] I0802 06:45:12.622634 20849 net.cpp:156] Memory required for data: 50020
2016-08-02 06:45:12.624 STDERR [INFO] I0802 06:45:12.622639 20849 layer_factory.hpp:77] Creating layer lstm2_transform_1
2016-08-02 06:45:12.624 n.t.s.s.CVParticleSpout [INFO] [Timing] RequestID: 0 StreamID: home_peifeng_work_data_frame_320x240_jpg SequenceNr: 135 Leaving fetcher: 1470134712624 Size: 8702
2016-08-02 06:45:12.624 n.t.s.b.CVParticleBolt [INFO] [Timing] RequestID: 0 StreamID: home_peifeng_work_data_frame_320x240_jpg SequenceNr: 135 Entering scale: 1470134712624
2016-08-02 06:45:12.624 STDERR [INFO] I0802 06:45:12.622655 20849 net.cpp:91] Creating Layer lstm2_transform_1
2016-08-02 06:45:12.624 STDERR [INFO] I0802 06:45:12.622661 20849 net.cpp:425] lstm2_transform_1 <- h_conted_0
2016-08-02 06:45:12.624 STDERR [INFO] I0802 06:45:12.622671 20849 net.cpp:399] lstm2_transform_1 -> W_hc_h_0
2016-08-02 06:45:12.626 n.t.s.b.CVParticleBolt [INFO] [Timing] RequestID: 0 StreamID: home_peifeng_work_data_frame_320x240_jpg SequenceNr: 134 Leaving scale: 1470134712626 Size: 3530
2016-08-02 06:45:12.629 n.t.s.b.CVParticleBolt [INFO] [Timing] RequestID: 0 StreamID: home_peifeng_work_data_frame_320x240_jpg SequenceNr: 135 Leaving scale: 1470134712629 Size: 3530
2016-08-02 06:45:12.641 STDERR [INFO] I0802 06:45:12.641213 20859 net.cpp:141] Setting up fc7
2016-08-02 06:45:12.641 STDERR [INFO] I0802 06:45:12.641269 20859 net.cpp:148] Top shape: 10 4096 (40960)
2016-08-02 06:45:12.642 STDERR [INFO] I0802 06:45:12.641276 20859 net.cpp:156] Memory required for data: 68273720
2016-08-02 06:45:12.642 STDERR [INFO] I0802 06:45:12.641293 20859 layer_factory.hpp:77] Creating layer relu7
2016-08-02 06:45:12.642 STDERR [INFO] I0802 06:45:12.641310 20859 net.cpp:91] Creating Layer relu7
2016-08-02 06:45:12.642 STDERR [INFO] I0802 06:45:12.641319 20859 net.cpp:425] relu7 <- fc7
2016-08-02 06:45:12.642 STDERR [INFO] I0802 06:45:12.641332 20859 net.cpp:386] relu7 -> fc7 (in-place)
2016-08-02 06:45:12.642 STDERR [INFO] I0802 06:45:12.642196 20859 net.cpp:141] Setting up relu7
2016-08-02 06:45:12.642 STDERR [INFO] I0802 06:45:12.642211 20859 net.cpp:148] Top shape: 10 4096 (40960)
2016-08-02 06:45:12.642 STDERR [INFO] I0802 06:45:12.642217 20859 net.cpp:156] Memory required for data: 68437560
2016-08-02 06:45:12.642 STDERR [INFO] I0802 06:45:12.642223 20859 layer_factory.hpp:77] Creating layer drop7
2016-08-02 06:45:12.642 STDERR [INFO] I0802 06:45:12.642235 20859 net.cpp:91] Creating Layer drop7
2016-08-02 06:45:12.642 STDERR [INFO] I0802 06:45:12.642241 20859 net.cpp:425] drop7 <- fc7
2016-08-02 06:45:12.643 STDERR [INFO] I0802 06:45:12.642256 20859 net.cpp:386] drop7 -> fc7 (in-place)
2016-08-02 06:45:12.643 STDERR [INFO] I0802 06:45:12.642312 20859 net.cpp:141] Setting up drop7
2016-08-02 06:45:12.643 STDERR [INFO] I0802 06:45:12.642323 20859 net.cpp:148] Top shape: 10 4096 (40960)
2016-08-02 06:45:12.643 STDERR [INFO] I0802 06:45:12.642328 20859 net.cpp:156] Memory required for data: 68601400
2016-08-02 06:45:12.643 STDERR [INFO] I0802 06:45:12.642333 20859 layer_factory.hpp:77] Creating layer fc8
2016-08-02 06:45:12.643 STDERR [INFO] I0802 06:45:12.642345 20859 net.cpp:91] Creating Layer fc8
2016-08-02 06:45:12.643 STDERR [INFO] I0802 06:45:12.642360 20859 net.cpp:425] fc8 <- fc7
2016-08-02 06:45:12.643 STDERR [INFO] I0802 06:45:12.642369 20859 net.cpp:399] fc8 -> fc8
2016-08-02 06:45:12.655 STDERR [INFO] I0802 06:45:12.655045 20859 net.cpp:141] Setting up fc8
2016-08-02 06:45:12.655 STDERR [INFO] I0802 06:45:12.655104 20859 net.cpp:148] Top shape: 10 1000 (10000)
2016-08-02 06:45:12.655 STDERR [INFO] I0802 06:45:12.655120 20859 net.cpp:156] Memory required for data: 68641400
2016-08-02 06:45:12.655 STDERR [INFO] I0802 06:45:12.655136 20859 layer_factory.hpp:77] Creating layer prob
2016-08-02 06:45:12.655 STDERR [INFO] I0802 06:45:12.655158 20859 net.cpp:91] Creating Layer prob
2016-08-02 06:45:12.656 STDERR [INFO] I0802 06:45:12.655165 20859 net.cpp:425] prob <- fc8
2016-08-02 06:45:12.656 STDERR [INFO] I0802 06:45:12.655176 20859 net.cpp:399] prob -> prob
2016-08-02 06:45:12.656 STDERR [INFO] I0802 06:45:12.655656 20859 net.cpp:141] Setting up prob
2016-08-02 06:45:12.656 STDERR [INFO] I0802 06:45:12.655670 20859 net.cpp:148] Top shape: 10 1000 (10000)
2016-08-02 06:45:12.656 STDERR [INFO] I0802 06:45:12.655675 20859 net.cpp:156] Memory required for data: 68681400
2016-08-02 06:45:12.656 STDERR [INFO] I0802 06:45:12.655681 20859 net.cpp:219] prob does not need backward computation.
2016-08-02 06:45:12.656 STDERR [INFO] I0802 06:45:12.655689 20859 net.cpp:219] fc8 does not need backward computation.
2016-08-02 06:45:12.656 STDERR [INFO] I0802 06:45:12.655694 20859 net.cpp:219] drop7 does not need backward computation.
…
2016-08-02 06:45:12.658 STDERR [INFO] I0802 06:45:12.655803 20859 net.cpp:219] conv1 does not need backward computation.
2016-08-02 06:45:12.658 STDERR [INFO] I0802 06:45:12.655809 20859 net.cpp:219] data does not need backward computation.
2016-08-02 06:45:12.658 STDERR [INFO] I0802 06:45:12.655813 20859 net.cpp:261] This network produces output prob
2016-08-02 06:45:12.658 STDERR [INFO] I0802 06:45:12.655841 20859 net.cpp:274] Network initialization done.
2016-08-02 06:45:12.668 STDERR [INFO] I0802 06:45:12.668107 20849 net.cpp:141] Setting up lstm2_transform_1
2016-08-02 06:45:12.668 STDERR [INFO] I0802 06:45:12.668157 20849 net.cpp:148] Top shape: 1 1 4000 (4000)
2016-08-02 06:45:12.668 STDERR [INFO] I0802 06:45:12.668164 20849 net.cpp:156] Memory required for data: 66020
2016-08-02 06:45:12.668 STDERR [INFO] I0802 06:45:12.668185 20849 layer_factory.hpp:77] Creating layer lstm2_gate_input_1
2016-08-02 06:45:12.668 STDERR [INFO] I0802 06:45:12.668205 20849 net.cpp:91] Creating Layer lstm2_gate_input_1
2016-08-02 06:45:12.669 STDERR [INFO] I0802 06:45:12.668213 20849 net.cpp:425] lstm2_gate_input_1 <- W_hc_h_0
2016-08-02 06:45:12.669 STDERR [INFO] I0802 06:45:12.668222 20849 net.cpp:425] lstm2_gate_input_1 <- W_xc_x_1
2016-08-02 06:45:12.669 STDERR [INFO] I0802 06:45:12.668232 20849 net.cpp:399] lstm2_gate_input_1 -> gate_input_1
2016-08-02 06:45:12.669 STDERR [INFO] I0802 06:45:12.668303 20849 net.cpp:141] Setting up lstm2_gate_input_1
2016-08-02 06:45:12.669 STDERR [INFO] I0802 06:45:12.668314 20849 net.cpp:148] Top shape: 1 1 4000 (4000)
2016-08-02 06:45:12.669 STDERR [INFO] I0802 06:45:12.668319 20849 net.cpp:156] Memory required for data: 82020
2016-08-02 06:45:12.669 STDERR [INFO] I0802 06:45:12.668324 20849 layer_factory.hpp:77] Creating layer lstm2_unit_1
2016-08-02 06:45:12.669 STDERR [INFO] I0802 06:45:12.668339 20849 net.cpp:91] Creating Layer lstm2_unit_1
2016-08-02 06:45:12.669 STDERR [INFO] I0802 06:45:12.668344 20849 net.cpp:425] lstm2_unit_1 <- c_0
2016-08-02 06:45:12.670 STDERR [INFO] I0802 06:45:12.668351 20849 net.cpp:425] lstm2_unit_1 <- gate_input_1
2016-08-02 06:45:12.670 STDERR [INFO] I0802 06:45:12.668357 20849 net.cpp:425] lstm2_unit_1 <- cont_1_lstm2_cont_slice_0_split_1
2016-08-02 06:45:12.670 STDERR [INFO] I0802 06:45:12.668365 20849 net.cpp:399] lstm2_unit_1 -> c_1
2016-08-02 06:45:12.670 STDERR [INFO] I0802 06:45:12.668376 20849 net.cpp:399] lstm2_unit_1 -> h_1
2016-08-02 06:45:12.670 STDERR [INFO] I0802 06:45:12.668447 20849 net.cpp:141] Setting up lstm2_unit_1
2016-08-02 06:45:12.670 STDERR [INFO] I0802 06:45:12.668457 20849 net.cpp:148] Top shape: 1 1 1000 (1000)
2016-08-02 06:45:12.670 STDERR [INFO] I0802 06:45:12.668464 20849 net.cpp:148] Top shape: 1 1 1000 (1000)
2016-08-02 06:45:12.670 STDERR [INFO] I0802 06:45:12.668470 20849 net.cpp:156] Memory required for data: 90020
2016-08-02 06:45:12.670 STDERR [INFO] I0802 06:45:12.668475 20849 layer_factory.hpp:77] Creating layer lstm2_
2016-08-02 06:45:12.670 STDERR [INFO] I0802 06:45:12.668486 20849 net.cpp:91] Creating Layer lstm2_
2016-08-02 06:45:12.670 STDERR [INFO] I0802 06:45:12.668491 20849 net.cpp:425] lstm2_ <- c_1
2016-08-02 06:45:12.670 STDERR [INFO] I0802 06:45:12.668500 20849 net.cpp:399] lstm2_ -> c_T
2016-08-02 06:45:12.671 STDERR [INFO] I0802 06:45:12.668535 20849 net.cpp:141] Setting up lstm2_
2016-08-02 06:45:12.671 STDERR [INFO] I0802 06:45:12.668545 20849 net.cpp:148] Top shape: 1 1 1000 (1000)
2016-08-02 06:45:12.671 STDERR [INFO] I0802 06:45:12.668551 20849 net.cpp:156] Memory required for data: 94020
2016-08-02 06:45:12.671 STDERR [INFO] I0802 06:45:12.668556 20849 layer_factory.hpp:77] Creating layer lstm2_h_concat
2016-08-02 06:45:12.671 STDERR [INFO] I0802 06:45:12.668571 20849 net.cpp:91] Creating Layer lstm2_h_concat
2016-08-02 06:45:12.671 STDERR [INFO] I0802 06:45:12.668577 20849 net.cpp:425] lstm2_h_concat <- h_1
2016-08-02 06:45:12.671 STDERR [INFO] I0802 06:45:12.668586 20849 net.cpp:399] lstm2_h_concat -> h
2016-08-02 06:45:12.671 STDERR [INFO] I0802 06:45:12.668627 20849 net.cpp:141] Setting up lstm2_h_concat
2016-08-02 06:45:12.671 STDERR [INFO] I0802 06:45:12.668637 20849 net.cpp:148] Top shape: 1 1 1000 (1000)
2016-08-02 06:45:12.671 STDERR [INFO] I0802 06:45:12.668642 20849 net.cpp:156] Memory required for data: 98020
2016-08-02 06:45:12.671 STDERR [INFO] I0802 06:45:12.668648 20849 layer_factory.hpp:77] Creating layer h_pseudoloss
2016-08-02 06:45:12.671 STDERR [INFO] I0802 06:45:12.668658 20849 net.cpp:91] Creating Layer h_pseudoloss
2016-08-02 06:45:12.672 STDERR [INFO] I0802 06:45:12.668663 20849 net.cpp:425] h_pseudoloss <- h
…
