…
Java HotSpot(TM) 64-Bit Server VM warning: You have loaded library /tmp/cvld5594412463528019353/libopencv_java310.xine1.so which might have disabled stack guard. The VM will try to fix the stack guard now.
It's highly recommended that you fix the library with 'execstack -c <libfile>', or link it with '-z noexecstack'.
WARNING: Logging before InitGoogleLogging() is written to STDERR
I0802 20:39:40.885982 30183 net.cpp:49] Initializing net from parameters: 
name: "CaffeNet"
state {
  phase: TEST
}
layer {
  name: "data"
  type: "Input"
  top: "data"
  input_param {
    shape {
      dim: 10
      dim: 3
      dim: 227
      dim: 227
    }
  }
}
layer {
  name: "conv1"
  type: "Convolution"
  bottom: "data"
  top: "conv1"
  convolution_param {
    num_output: 96
    kernel_size: 11
    stride: 4
  }
}
layer {
  name: "relu1"
  type: "ReLU"
  bottom: "conv1"
  top: "conv1"
}
layer {
  name: "pool1"
  type: "Pooling"
  bottom: "conv1"
  top: "pool1"
  pooling_param {
    pool: MAX
    kernel_size: 3
    stride: 2
  }
}
layer {
  name: "norm1"
  type: "LRN"
  bottom: "pool1"
  top: "norm1"
  lrn_param {
    local_size: 5
    alpha: 0.0001
    beta: 0.75
  }
}
layer {
  name: "conv2"
  type: "Convolution"
  bottom: "norm1"
  top: "conv2"
  convolution_param {
    num_output: 256
    pad: 2
    kernel_size: 5
    group: 2
  }
}
layer {
  name: "relu2"
  type: "ReLU"
  bottom: "conv2"
  top: "conv2"
}
layer {
  name: "pool2"
  type: "Pooling"
  bottom: "conv2"
  top: "pool2"
  pooling_param {
    pool: MAX
    kernel_size: 3
    stride: 2
  }
}
layer {
  name: "norm2"
  type: "LRN"
  bottom: "pool2"
  top: "norm2"
  lrn_param {
    local_size: 5
    alpha: 0.0001
    beta: 0.75
  }
}
layer {
  name: "conv3"
  type: "Convolution"
  bottom: "norm2"
  top: "conv3"
  convolution_param {
    num_output: 384
    pad: 1
    kernel_size: 3
  }
}
layer {
  name: "relu3"
  type: "ReLU"
  bottom: "conv3"
  top: "conv3"
}
layer {
  name: "conv4"
  type: "Convolution"
  bottom: "conv3"
  top: "conv4"
  convolution_param {
    num_output: 384
    pad: 1
    kernel_size: 3
    group: 2
  }
}
layer {
  name: "relu4"
  type: "ReLU"
  bottom: "conv4"
  top: "conv4"
}
layer {
  name: "conv5"
  type: "Convolution"
  bottom: "conv4"
  top: "conv5"
  convolution_param {
    num_output: 256
    pad: 1
    kernel_size: 3
    group: 2
  }
}
layer {
  name: "relu5"
  type: "ReLU"
  bottom: "conv5"
  top: "conv5"
}
layer {
  name: "pool5"
  type: "Pooling"
  bottom: "conv5"
  top: "pool5"
  pooling_param {
    pool: MAX
    kernel_size: 3
    stride: 2
  }
}
layer {
  name: "fc6"
  type: "InnerProduct"
  bottom: "pool5"
  top: "fc6"
  inner_product_param {
    num_output: 4096
  }
}
layer {
  name: "relu6"
  type: "ReLU"
  bottom: "fc6"
  top: "fc6"
}
layer {
  name: "drop6"
  type: "Dropout"
  bottom: "fc6"
  top: "fc6"
  dropout_param {
    dropout_ratio: 0.5
  }
}
layer {
  name: "fc7"
  type: "InnerProduct"
  bottom: "fc6"
  top: "fc7"
  inner_product_param {
    num_output: 4096
  }
}
layer {
  name: "relu7"
  type: "ReLU"
  bottom: "fc7"
  top: "fc7"
}
layer {
  name: "drop7"
  type: "Dropout"
  bottom: "fc7"
  top: "fc7"
  dropout_param {
    dropout_ratio: 0.5
  }
}
layer {
  name: "fc8"
  type: "InnerProduct"
  bottom: "fc7"
  top: "fc8"
  inner_product_param {
    num_output: 1000
  }
}
layer {
  name: "prob"
  type: "Softmax"
  bottom: "fc8"
  top: "prob"
}
I0802 20:39:40.886315 30183 layer_factory.hpp:77] Creating layer data
I0802 20:39:40.886361 30183 net.cpp:91] Creating Layer data
I0802 20:39:40.886380 30183 net.cpp:399] data -> data
I0802 20:39:41.042577 30173 upgrade_proto.cpp:66] Attempting to upgrade input file specified using deprecated input fields: /tmp/cvld5594412463528019353/s2vt.words_to_preds.prototxt
I0802 20:39:41.042640 30173 upgrade_proto.cpp:69] Successfully upgraded file specified using deprecated input fields.
W0802 20:39:41.042649 30173 upgrade_proto.cpp:71] Note that future Caffe releases will only support input layers and not input fields.
I0802 20:39:41.042955 30173 net.cpp:49] Initializing net from parameters: 
name: "s2vt:features_to_lstm"
state {
  phase: TEST
}
layer {
  name: "input"
  type: "Input"
  top: "frames_fc7"
  top: "cont_sentence"
  top: "input_sentence"
  top: "stage_indicator"
  input_param {
    shape {
      dim: 1
      dim: 4096
    }
    shape {
      dim: 1
      dim: 1
    }
    shape {
      dim: 1
      dim: 1
    }
    shape {
      dim: 1
      dim: 1
    }
  }
}
layer {
  name: "embed_encoder"
  type: "InnerProduct"
  bottom: "frames_fc7"
  top: "embedded_in_frames"
  param {
    lr_mult: 1
    decay_mult: 1
  }
  param {
    lr_mult: 2
    decay_mult: 0
  }
  inner_product_param {
    num_output: 500
    weight_filler {
      type: "xavier"
    }
    bias_filler {
      type: "constant"
      value: 0.2
    }
  }
}
layer {
  name: "reshape_frames"
  type: "Reshape"
  bottom: "embedded_in_frames"
  top: "embedded_input_frames"
  reshape_param {
    shape {
      dim: 1
      dim: 1
      dim: 500
    }
  }
}
layer {
  name: "reshape_stage_indicator"
  type: "Reshape"
  bottom: "stage_indicator"
  top: "reshaped_stage_indicator"
  reshape_param {
    shape {
      dim: 1
      dim: 1
      dim: 1
    }
  }
}
layer {
  name: "embedding"
  type: "Embed"
  bottom: "input_sentence"
  top: "embedded_input_sentence"
  param {
    lr_mult: 1
  }
  embed_param {
    num_output: 500
    input_dim: 46168
    bias_term: false
    weight_filler {
      type: "uniform"
      min: -0.08
      max: 0.08
    }
  }
}
layer {
  name: "lstm1"
  type: "LSTM"
  bottom: "embedded_input_frames"
  bottom: "cont_sentence"
  top: "lstm1"
  recurrent_param {
    num_output: 1000
    weight_filler {
      type: "uniform"
      min: -0.08
      max: 0.08
    }
    bias_filler {
      type: "constant"
      value: 0
    }
  }
}
layer {
  name: "concat"
  type: "Concat"
  bottom: "lstm1"
  bottom: "embedded_input_sentence"
  bottom: "reshaped_stage_indicator"
  top: "lstm1_video_sequence"
  concat_param {
    concat_dim: 2
  }
}
layer {
  name: "lstm2"
  type: "LSTM"
  bottom: "lstm1_video_sequence"
  bottom: "cont_sentence"
  top: "lstm2"
  recurrent_param {
    num_output: 1000
    weight_filler {
      type: "uniform"
      min: -0.08
      max: 0.08
    }
    bias_filler {
      type: "constant"
      value: 0
    }
  }
}
layer {
  name: "predict"
  type: "InnerProduct"
  bottom: "lstm2"
  top: "predict"
  param {
    lr_mult: 1
    decay_mult: 1
  }
  param {
    lr_mult: 2
    decay_mult: 0
  }
  inner_product_param {
    num_output: 46168
    weight_filler {
      type: "uniform"
      min: -0.08
      max: 0.08
    }
    bias_filler {
      type: "constant"
      value: 0
    }
    axis: 2
  }
}
layer {
  name: "probs"
  type: "Softmax"
  bottom: "predict"
  top: "probs"
  softmax_param {
    axis: 2
  }
}
I0802 20:39:41.043095 30173 layer_factory.hpp:77] Creating layer input
I0802 20:39:41.043113 30173 net.cpp:91] Creating Layer input
I0802 20:39:41.043123 30173 net.cpp:399] input -> frames_fc7
I0802 20:39:41.043144 30173 net.cpp:399] input -> cont_sentence
I0802 20:39:41.043159 30173 net.cpp:399] input -> input_sentence
I0802 20:39:41.043171 30173 net.cpp:399] input -> stage_indicator
I0802 20:39:41.483371 30183 net.cpp:141] Setting up data
I0802 20:39:41.483453 30183 net.cpp:148] Top shape: 10 3 227 227 (1545870)
I0802 20:39:41.483463 30183 net.cpp:156] Memory required for data: 6183480
I0802 20:39:41.483464 30173 net.cpp:141] Setting up input
I0802 20:39:41.483487 30173 net.cpp:148] Top shape: 1 4096 (4096)
I0802 20:39:41.483489 30183 layer_factory.hpp:77] Creating layer conv1
I0802 20:39:41.483505 30173 net.cpp:148] Top shape: 1 1 (1)
I0802 20:39:41.483512 30173 net.cpp:148] Top shape: 1 1 (1)
I0802 20:39:41.483518 30173 net.cpp:148] Top shape: 1 1 (1)
I0802 20:39:41.483523 30173 net.cpp:156] Memory required for data: 16396
I0802 20:39:41.483530 30173 layer_factory.hpp:77] Creating layer cont_sentence_input_1_split
I0802 20:39:41.483536 30183 net.cpp:91] Creating Layer conv1
I0802 20:39:41.483547 30183 net.cpp:425] conv1 <- data
I0802 20:39:41.483556 30173 net.cpp:91] Creating Layer cont_sentence_input_1_split
I0802 20:39:41.483561 30173 net.cpp:425] cont_sentence_input_1_split <- cont_sentence
I0802 20:39:41.483563 30183 net.cpp:399] conv1 -> conv1
I0802 20:39:41.483585 30173 net.cpp:399] cont_sentence_input_1_split -> cont_sentence_input_1_split_0
I0802 20:39:41.483599 30173 net.cpp:399] cont_sentence_input_1_split -> cont_sentence_input_1_split_1
I0802 20:39:41.483724 30173 net.cpp:141] Setting up cont_sentence_input_1_split
I0802 20:39:41.483737 30173 net.cpp:148] Top shape: 1 1 (1)
I0802 20:39:41.483744 30173 net.cpp:148] Top shape: 1 1 (1)
I0802 20:39:41.483749 30173 net.cpp:156] Memory required for data: 16404
I0802 20:39:41.483754 30173 layer_factory.hpp:77] Creating layer embed_encoder
I0802 20:39:41.483777 30173 net.cpp:91] Creating Layer embed_encoder
I0802 20:39:41.483783 30173 net.cpp:425] embed_encoder <- frames_fc7
I0802 20:39:41.483794 30173 net.cpp:399] embed_encoder -> embedded_in_frames
I0802 20:39:41.512527 30173 net.cpp:141] Setting up embed_encoder
I0802 20:39:41.512583 30173 net.cpp:148] Top shape: 1 500 (500)
I0802 20:39:41.512591 30173 net.cpp:156] Memory required for data: 18404
I0802 20:39:41.512622 30173 layer_factory.hpp:77] Creating layer reshape_frames
I0802 20:39:41.512655 30173 net.cpp:91] Creating Layer reshape_frames
I0802 20:39:41.512665 30173 net.cpp:425] reshape_frames <- embedded_in_frames
I0802 20:39:41.512676 30173 net.cpp:399] reshape_frames -> embedded_input_frames
I0802 20:39:41.518741 30173 net.cpp:141] Setting up reshape_frames
I0802 20:39:41.518764 30173 net.cpp:148] Top shape: 1 1 500 (500)
I0802 20:39:41.518770 30173 net.cpp:156] Memory required for data: 20404
I0802 20:39:41.518777 30173 layer_factory.hpp:77] Creating layer reshape_stage_indicator
I0802 20:39:41.518791 30173 net.cpp:91] Creating Layer reshape_stage_indicator
I0802 20:39:41.518798 30173 net.cpp:425] reshape_stage_indicator <- stage_indicator
I0802 20:39:41.518808 30173 net.cpp:399] reshape_stage_indicator -> reshaped_stage_indicator
I0802 20:39:41.518870 30173 net.cpp:141] Setting up reshape_stage_indicator
I0802 20:39:41.518883 30173 net.cpp:148] Top shape: 1 1 1 (1)
I0802 20:39:41.518887 30173 net.cpp:156] Memory required for data: 20408
I0802 20:39:41.518893 30173 layer_factory.hpp:77] Creating layer embedding
I0802 20:39:41.518906 30173 net.cpp:91] Creating Layer embedding
I0802 20:39:41.518913 30173 net.cpp:425] embedding <- input_sentence
I0802 20:39:41.518921 30173 net.cpp:399] embedding -> embedded_input_sentence
I0802 20:39:41.765885 30183 net.cpp:141] Setting up conv1
I0802 20:39:41.765938 30183 net.cpp:148] Top shape: 10 96 55 55 (2904000)
I0802 20:39:41.765945 30183 net.cpp:156] Memory required for data: 17799480
I0802 20:39:41.765972 30183 layer_factory.hpp:77] Creating layer relu1
I0802 20:39:41.765993 30183 net.cpp:91] Creating Layer relu1
I0802 20:39:41.766001 30183 net.cpp:425] relu1 <- conv1
I0802 20:39:41.766010 30183 net.cpp:386] relu1 -> conv1 (in-place)
I0802 20:39:41.766414 30183 net.cpp:141] Setting up relu1
I0802 20:39:41.766429 30183 net.cpp:148] Top shape: 10 96 55 55 (2904000)
I0802 20:39:41.766435 30183 net.cpp:156] Memory required for data: 29415480
I0802 20:39:41.766441 30183 layer_factory.hpp:77] Creating layer pool1
I0802 20:39:41.766455 30183 net.cpp:91] Creating Layer pool1
I0802 20:39:41.766461 30183 net.cpp:425] pool1 <- conv1
I0802 20:39:41.766471 30183 net.cpp:399] pool1 -> pool1
I0802 20:39:41.766551 30183 net.cpp:141] Setting up pool1
I0802 20:39:41.766563 30183 net.cpp:148] Top shape: 10 96 27 27 (699840)
I0802 20:39:41.766569 30183 net.cpp:156] Memory required for data: 32214840
I0802 20:39:41.766574 30183 layer_factory.hpp:77] Creating layer norm1
I0802 20:39:41.766593 30183 net.cpp:91] Creating Layer norm1
I0802 20:39:41.766600 30183 net.cpp:425] norm1 <- pool1
I0802 20:39:41.766607 30183 net.cpp:399] norm1 -> norm1
I0802 20:39:41.767066 30183 net.cpp:141] Setting up norm1
I0802 20:39:41.767081 30183 net.cpp:148] Top shape: 10 96 27 27 (699840)
I0802 20:39:41.767086 30183 net.cpp:156] Memory required for data: 35014200
I0802 20:39:41.767093 30183 layer_factory.hpp:77] Creating layer conv2
I0802 20:39:41.767109 30183 net.cpp:91] Creating Layer conv2
I0802 20:39:41.767115 30183 net.cpp:425] conv2 <- norm1
I0802 20:39:41.767124 30183 net.cpp:399] conv2 -> conv2
I0802 20:39:41.768165 30173 net.cpp:141] Setting up embedding
I0802 20:39:41.768188 30173 net.cpp:148] Top shape: 1 1 500 (500)
I0802 20:39:41.768194 30173 net.cpp:156] Memory required for data: 22408
I0802 20:39:41.768208 30173 layer_factory.hpp:77] Creating layer lstm1
I0802 20:39:41.768232 30173 net.cpp:91] Creating Layer lstm1
I0802 20:39:41.768240 30173 net.cpp:425] lstm1 <- embedded_input_frames
I0802 20:39:41.768249 30173 net.cpp:425] lstm1 <- cont_sentence_input_1_split_0
I0802 20:39:41.768259 30173 net.cpp:399] lstm1 -> lstm1
I0802 20:39:41.768278 30173 recurrent_layer.cpp:20] Initializing recurrent layer: assuming input batch contains 1 timesteps of 1 independent streams.
I0802 20:39:41.768669 30173 net.cpp:49] Initializing net from parameters: 
layer {
  name: "lstm1_"
  type: "Input"
  top: "x"
  top: "cont"
  input_param {
    shape {
      dim: 1
      dim: 1
      dim: 500
    }
    shape {
      dim: 1
      dim: 1
    }
  }
}
layer {
  name: "lstm1_"
  type: "Input"
  top: "c_0"
  top: "h_0"
  input_param {
    shape {
      dim: 1
      dim: 1
      dim: 1000
    }
    shape {
      dim: 1
      dim: 1
      dim: 1000
    }
  }
}
layer {
  name: "lstm1_cont_slice"
  type: "Slice"
  bottom: "cont"
  top: "cont_1"
  slice_param {
    axis: 0
  }
}
layer {
  name: "lstm1_x_transform"
  type: "InnerProduct"
  bottom: "x"
  top: "W_xc_x"
  param {
    name: "W_xc"
  }
  param {
    name: "b_c"
  }
  propagate_down: true
  inner_product_param {
    num_output: 4000
    bias_term: true
    weight_filler {
      type: "uniform"
      min: -0.08
      max: 0.08
    }
    bias_filler {
      type: "constant"
      value: 0
    }
    axis: 2
  }
}
layer {
  name: "lstm1_W_xc_x_slice"
  type: "Slice"
  bottom: "W_xc_x"
  top: "W_xc_x_1"
  slice_param {
    axis: 0
  }
}
layer {
  name: "lstm1_h_conted_0"
  type: "Scale"
  bottom: "h_0"
  bottom: "cont_1"
  top: "h_conted_0"
  scale_param {
    axis: 0
  }
}
layer {
  name: "lstm1_transform_1"
  type: "InnerProduct"
  bottom: "h_conted_0"
  top: "W_hc_h_0"
  param {
    name: "W_hc"
  }
  inner_product_param {
    num_output: 4000
    bias_term: false
    weight_filler {
      type: "uniform"
      min: -0.08
      max: 0.08
    }
    axis: 2
  }
}
layer {
  name: "lstm1_gate_input_1"
  type: "Eltwise"
  bottom: "W_hc_h_0"
  bottom: "W_xc_x_1"
  top: "gate_input_1"
  eltwise_param {
    operation: SUM
  }
}
layer {
  name: "lstm1_unit_1"
  type: "LSTMUnit"
  bottom: "c_0"
  bottom: "gate_input_1"
  bottom: "cont_1"
  top: "c_1"
  top: "h_1"
}
layer {
  name: "lstm1_"
  type: "Split"
  bottom: "c_1"
  top: "c_T"
}
layer {
  name: "lstm1_h_concat"
  type: "Concat"
  bottom: "h_1"
  top: "h"
  concat_param {
    axis: 0
  }
}
layer {
  name: "h_pseudoloss"
  type: "Reduction"
  bottom: "h"
  top: "h_pseudoloss"
  loss_weight: 1
}
I0802 20:39:41.768771 30173 layer_factory.hpp:77] Creating layer lstm1_
I0802 20:39:41.768784 30173 net.cpp:91] Creating Layer lstm1_
I0802 20:39:41.768790 30173 net.cpp:399] lstm1_ -> x
I0802 20:39:41.768803 30173 net.cpp:399] lstm1_ -> cont
I0802 20:39:41.769017 30173 net.cpp:141] Setting up lstm1_
I0802 20:39:41.769032 30173 net.cpp:148] Top shape: 1 1 500 (500)
I0802 20:39:41.769038 30173 net.cpp:148] Top shape: 1 1 (1)
I0802 20:39:41.769043 30173 net.cpp:156] Memory required for data: 2004
I0802 20:39:41.769049 30173 layer_factory.hpp:77] Creating layer lstm1_
I0802 20:39:41.769063 30173 net.cpp:91] Creating Layer lstm1_
I0802 20:39:41.769070 30173 net.cpp:399] lstm1_ -> c_0
I0802 20:39:41.769081 30173 net.cpp:399] lstm1_ -> h_0
I0802 20:39:41.769333 30173 net.cpp:141] Setting up lstm1_
I0802 20:39:41.769346 30173 net.cpp:148] Top shape: 1 1 1000 (1000)
I0802 20:39:41.769353 30173 net.cpp:148] Top shape: 1 1 1000 (1000)
I0802 20:39:41.769357 30173 net.cpp:156] Memory required for data: 10004
I0802 20:39:41.769363 30173 layer_factory.hpp:77] Creating layer lstm1_cont_slice
I0802 20:39:41.769373 30173 net.cpp:91] Creating Layer lstm1_cont_slice
I0802 20:39:41.769378 30173 net.cpp:425] lstm1_cont_slice <- cont
I0802 20:39:41.769393 30173 net.cpp:399] lstm1_cont_slice -> cont_1
I0802 20:39:41.769464 30173 net.cpp:141] Setting up lstm1_cont_slice
I0802 20:39:41.769475 30173 net.cpp:148] Top shape: 1 1 (1)
I0802 20:39:41.769480 30173 net.cpp:156] Memory required for data: 10008
I0802 20:39:41.769486 30173 layer_factory.hpp:77] Creating layer cont_1_lstm1_cont_slice_0_split
I0802 20:39:41.769495 30173 net.cpp:91] Creating Layer cont_1_lstm1_cont_slice_0_split
I0802 20:39:41.769500 30173 net.cpp:425] cont_1_lstm1_cont_slice_0_split <- cont_1
I0802 20:39:41.769507 30173 net.cpp:399] cont_1_lstm1_cont_slice_0_split -> cont_1_lstm1_cont_slice_0_split_0
I0802 20:39:41.769516 30173 net.cpp:399] cont_1_lstm1_cont_slice_0_split -> cont_1_lstm1_cont_slice_0_split_1
I0802 20:39:41.769898 30173 net.cpp:141] Setting up cont_1_lstm1_cont_slice_0_split
I0802 20:39:41.769911 30173 net.cpp:148] Top shape: 1 1 (1)
I0802 20:39:41.769917 30173 net.cpp:148] Top shape: 1 1 (1)
I0802 20:39:41.769922 30173 net.cpp:156] Memory required for data: 10016
I0802 20:39:41.769927 30173 layer_factory.hpp:77] Creating layer lstm1_x_transform
I0802 20:39:41.769942 30173 net.cpp:91] Creating Layer lstm1_x_transform
I0802 20:39:41.769948 30173 net.cpp:425] lstm1_x_transform <- x
I0802 20:39:41.769955 30173 net.cpp:399] lstm1_x_transform -> W_xc_x
I0802 20:39:41.774823 30183 net.cpp:141] Setting up conv2
I0802 20:39:41.774848 30183 net.cpp:148] Top shape: 10 256 27 27 (1866240)
I0802 20:39:41.774854 30183 net.cpp:156] Memory required for data: 42479160
I0802 20:39:41.774870 30183 layer_factory.hpp:77] Creating layer relu2
I0802 20:39:41.774883 30183 net.cpp:91] Creating Layer relu2
I0802 20:39:41.774888 30183 net.cpp:425] relu2 <- conv2
I0802 20:39:41.774899 30183 net.cpp:386] relu2 -> conv2 (in-place)
I0802 20:39:41.775332 30183 net.cpp:141] Setting up relu2
I0802 20:39:41.775347 30183 net.cpp:148] Top shape: 10 256 27 27 (1866240)
I0802 20:39:41.775353 30183 net.cpp:156] Memory required for data: 49944120
I0802 20:39:41.775359 30183 layer_factory.hpp:77] Creating layer pool2
I0802 20:39:41.775372 30183 net.cpp:91] Creating Layer pool2
I0802 20:39:41.775378 30183 net.cpp:425] pool2 <- conv2
I0802 20:39:41.775387 30183 net.cpp:399] pool2 -> pool2
I0802 20:39:41.775450 30183 net.cpp:141] Setting up pool2
I0802 20:39:41.775461 30183 net.cpp:148] Top shape: 10 256 13 13 (432640)
I0802 20:39:41.775466 30183 net.cpp:156] Memory required for data: 51674680
I0802 20:39:41.775471 30183 layer_factory.hpp:77] Creating layer norm2
I0802 20:39:41.775490 30183 net.cpp:91] Creating Layer norm2
I0802 20:39:41.775496 30183 net.cpp:425] norm2 <- pool2
I0802 20:39:41.775503 30183 net.cpp:399] norm2 -> norm2
I0802 20:39:41.775784 30183 net.cpp:141] Setting up norm2
I0802 20:39:41.775799 30183 net.cpp:148] Top shape: 10 256 13 13 (432640)
I0802 20:39:41.775805 30183 net.cpp:156] Memory required for data: 53405240
I0802 20:39:41.775811 30183 layer_factory.hpp:77] Creating layer conv3
I0802 20:39:41.775825 30183 net.cpp:91] Creating Layer conv3
I0802 20:39:41.775830 30183 net.cpp:425] conv3 <- norm2
I0802 20:39:41.775843 30183 net.cpp:399] conv3 -> conv3
I0802 20:39:41.779711 30183 net.cpp:141] Setting up conv3
I0802 20:39:41.779729 30183 net.cpp:148] Top shape: 10 384 13 13 (648960)
I0802 20:39:41.779736 30183 net.cpp:156] Memory required for data: 56001080
I0802 20:39:41.779749 30183 layer_factory.hpp:77] Creating layer relu3
I0802 20:39:41.779759 30183 net.cpp:91] Creating Layer relu3
I0802 20:39:41.779765 30183 net.cpp:425] relu3 <- conv3
I0802 20:39:41.779777 30183 net.cpp:386] relu3 -> conv3 (in-place)
I0802 20:39:41.780205 30183 net.cpp:141] Setting up relu3
I0802 20:39:41.780221 30183 net.cpp:148] Top shape: 10 384 13 13 (648960)
I0802 20:39:41.780226 30183 net.cpp:156] Memory required for data: 58596920
I0802 20:39:41.780232 30183 layer_factory.hpp:77] Creating layer conv4
I0802 20:39:41.780248 30183 net.cpp:91] Creating Layer conv4
I0802 20:39:41.780254 30183 net.cpp:425] conv4 <- conv3
I0802 20:39:41.780263 30183 net.cpp:399] conv4 -> conv4
I0802 20:39:41.784422 30183 net.cpp:141] Setting up conv4
I0802 20:39:41.784440 30183 net.cpp:148] Top shape: 10 384 13 13 (648960)
I0802 20:39:41.784446 30183 net.cpp:156] Memory required for data: 61192760
I0802 20:39:41.784457 30183 layer_factory.hpp:77] Creating layer relu4
I0802 20:39:41.784466 30183 net.cpp:91] Creating Layer relu4
I0802 20:39:41.784472 30183 net.cpp:425] relu4 <- conv4
I0802 20:39:41.784484 30183 net.cpp:386] relu4 -> conv4 (in-place)
I0802 20:39:41.784911 30183 net.cpp:141] Setting up relu4
I0802 20:39:41.784925 30183 net.cpp:148] Top shape: 10 384 13 13 (648960)
I0802 20:39:41.784931 30183 net.cpp:156] Memory required for data: 63788600
I0802 20:39:41.784937 30183 layer_factory.hpp:77] Creating layer conv5
I0802 20:39:41.784955 30183 net.cpp:91] Creating Layer conv5
I0802 20:39:41.784960 30183 net.cpp:425] conv5 <- conv4
I0802 20:39:41.784970 30183 net.cpp:399] conv5 -> conv5
I0802 20:39:41.788842 30183 net.cpp:141] Setting up conv5
I0802 20:39:41.788859 30183 net.cpp:148] Top shape: 10 256 13 13 (432640)
I0802 20:39:41.788866 30183 net.cpp:156] Memory required for data: 65519160
I0802 20:39:41.788884 30183 layer_factory.hpp:77] Creating layer relu5
I0802 20:39:41.788895 30183 net.cpp:91] Creating Layer relu5
I0802 20:39:41.788900 30183 net.cpp:425] relu5 <- conv5
I0802 20:39:41.788913 30183 net.cpp:386] relu5 -> conv5 (in-place)
I0802 20:39:41.789345 30183 net.cpp:141] Setting up relu5
I0802 20:39:41.789360 30183 net.cpp:148] Top shape: 10 256 13 13 (432640)
I0802 20:39:41.789366 30183 net.cpp:156] Memory required for data: 67249720
I0802 20:39:41.789371 30183 layer_factory.hpp:77] Creating layer pool5
I0802 20:39:41.789386 30183 net.cpp:91] Creating Layer pool5
I0802 20:39:41.789392 30183 net.cpp:425] pool5 <- conv5
I0802 20:39:41.789402 30183 net.cpp:399] pool5 -> pool5
I0802 20:39:41.789470 30183 net.cpp:141] Setting up pool5
I0802 20:39:41.789481 30183 net.cpp:148] Top shape: 10 256 6 6 (92160)
I0802 20:39:41.789486 30183 net.cpp:156] Memory required for data: 67618360
I0802 20:39:41.789491 30183 layer_factory.hpp:77] Creating layer fc6
I0802 20:39:41.789507 30183 net.cpp:91] Creating Layer fc6
I0802 20:39:41.789513 30183 net.cpp:425] fc6 <- pool5
I0802 20:39:41.789521 30183 net.cpp:399] fc6 -> fc6
I0802 20:39:41.860241 30173 net.cpp:141] Setting up lstm1_x_transform
I0802 20:39:41.860299 30173 net.cpp:148] Top shape: 1 1 4000 (4000)
I0802 20:39:41.860306 30173 net.cpp:156] Memory required for data: 26016
I0802 20:39:41.860333 30173 layer_factory.hpp:77] Creating layer lstm1_W_xc_x_slice
I0802 20:39:41.860352 30173 net.cpp:91] Creating Layer lstm1_W_xc_x_slice
I0802 20:39:41.860360 30173 net.cpp:425] lstm1_W_xc_x_slice <- W_xc_x
I0802 20:39:41.860373 30173 net.cpp:399] lstm1_W_xc_x_slice -> W_xc_x_1
I0802 20:39:41.860426 30173 net.cpp:141] Setting up lstm1_W_xc_x_slice
I0802 20:39:41.860437 30173 net.cpp:148] Top shape: 1 1 4000 (4000)
I0802 20:39:41.860442 30173 net.cpp:156] Memory required for data: 42016
I0802 20:39:41.860447 30173 layer_factory.hpp:77] Creating layer lstm1_h_conted_0
I0802 20:39:41.860460 30173 net.cpp:91] Creating Layer lstm1_h_conted_0
I0802 20:39:41.860466 30173 net.cpp:425] lstm1_h_conted_0 <- h_0
I0802 20:39:41.860472 30173 net.cpp:425] lstm1_h_conted_0 <- cont_1_lstm1_cont_slice_0_split_0
I0802 20:39:41.860484 30173 net.cpp:399] lstm1_h_conted_0 -> h_conted_0
I0802 20:39:41.860584 30173 net.cpp:141] Setting up lstm1_h_conted_0
I0802 20:39:41.860594 30173 net.cpp:148] Top shape: 1 1 1000 (1000)
I0802 20:39:41.860599 30173 net.cpp:156] Memory required for data: 46016
I0802 20:39:41.860605 30173 layer_factory.hpp:77] Creating layer lstm1_transform_1
I0802 20:39:41.860620 30173 net.cpp:91] Creating Layer lstm1_transform_1
I0802 20:39:41.860625 30173 net.cpp:425] lstm1_transform_1 <- h_conted_0
I0802 20:39:41.860636 30173 net.cpp:399] lstm1_transform_1 -> W_hc_h_0
I0802 20:39:41.900648 30183 net.cpp:141] Setting up fc6
I0802 20:39:41.900707 30183 net.cpp:148] Top shape: 10 4096 (40960)
I0802 20:39:41.900713 30183 net.cpp:156] Memory required for data: 67782200
I0802 20:39:41.900729 30183 layer_factory.hpp:77] Creating layer relu6
I0802 20:39:41.900748 30183 net.cpp:91] Creating Layer relu6
I0802 20:39:41.900758 30183 net.cpp:425] relu6 <- fc6
I0802 20:39:41.900770 30183 net.cpp:386] relu6 -> fc6 (in-place)
I0802 20:39:41.901139 30183 net.cpp:141] Setting up relu6
I0802 20:39:41.901151 30183 net.cpp:148] Top shape: 10 4096 (40960)
I0802 20:39:41.901157 30183 net.cpp:156] Memory required for data: 67946040
I0802 20:39:41.901163 30183 layer_factory.hpp:77] Creating layer drop6
I0802 20:39:41.901192 30183 net.cpp:91] Creating Layer drop6
I0802 20:39:41.901198 30183 net.cpp:425] drop6 <- fc6
I0802 20:39:41.901206 30183 net.cpp:386] drop6 -> fc6 (in-place)
I0802 20:39:41.901263 30183 net.cpp:141] Setting up drop6
I0802 20:39:41.901274 30183 net.cpp:148] Top shape: 10 4096 (40960)
I0802 20:39:41.901279 30183 net.cpp:156] Memory required for data: 68109880
I0802 20:39:41.901285 30183 layer_factory.hpp:77] Creating layer fc7
I0802 20:39:41.901295 30183 net.cpp:91] Creating Layer fc7
I0802 20:39:41.901301 30183 net.cpp:425] fc7 <- fc6
I0802 20:39:41.901314 30183 net.cpp:399] fc7 -> fc7
I0802 20:39:41.933148 30173 net.cpp:141] Setting up lstm1_transform_1
I0802 20:39:41.933210 30173 net.cpp:148] Top shape: 1 1 4000 (4000)
I0802 20:39:41.933218 30173 net.cpp:156] Memory required for data: 62016
I0802 20:39:41.933245 30173 layer_factory.hpp:77] Creating layer lstm1_gate_input_1
I0802 20:39:41.933280 30173 net.cpp:91] Creating Layer lstm1_gate_input_1
I0802 20:39:41.933290 30173 net.cpp:425] lstm1_gate_input_1 <- W_hc_h_0
I0802 20:39:41.933298 30173 net.cpp:425] lstm1_gate_input_1 <- W_xc_x_1
I0802 20:39:41.933310 30173 net.cpp:399] lstm1_gate_input_1 -> gate_input_1
I0802 20:39:41.933390 30173 net.cpp:141] Setting up lstm1_gate_input_1
I0802 20:39:41.933401 30173 net.cpp:148] Top shape: 1 1 4000 (4000)
I0802 20:39:41.933406 30173 net.cpp:156] Memory required for data: 78016
I0802 20:39:41.933413 30173 layer_factory.hpp:77] Creating layer lstm1_unit_1
I0802 20:39:41.933423 30173 net.cpp:91] Creating Layer lstm1_unit_1
I0802 20:39:41.933429 30173 net.cpp:425] lstm1_unit_1 <- c_0
I0802 20:39:41.933434 30173 net.cpp:425] lstm1_unit_1 <- gate_input_1
I0802 20:39:41.933440 30173 net.cpp:425] lstm1_unit_1 <- cont_1_lstm1_cont_slice_0_split_1
I0802 20:39:41.933449 30173 net.cpp:399] lstm1_unit_1 -> c_1
I0802 20:39:41.933460 30173 net.cpp:399] lstm1_unit_1 -> h_1
I0802 20:39:41.933534 30173 net.cpp:141] Setting up lstm1_unit_1
I0802 20:39:41.933545 30173 net.cpp:148] Top shape: 1 1 1000 (1000)
I0802 20:39:41.933552 30173 net.cpp:148] Top shape: 1 1 1000 (1000)
I0802 20:39:41.933557 30173 net.cpp:156] Memory required for data: 86016
I0802 20:39:41.933562 30173 layer_factory.hpp:77] Creating layer lstm1_
I0802 20:39:41.933571 30173 net.cpp:91] Creating Layer lstm1_
I0802 20:39:41.933576 30173 net.cpp:425] lstm1_ <- c_1
I0802 20:39:41.933584 30173 net.cpp:399] lstm1_ -> c_T
I0802 20:39:41.933621 30173 net.cpp:141] Setting up lstm1_
I0802 20:39:41.933631 30173 net.cpp:148] Top shape: 1 1 1000 (1000)
I0802 20:39:41.933636 30173 net.cpp:156] Memory required for data: 90016
I0802 20:39:41.933642 30173 layer_factory.hpp:77] Creating layer lstm1_h_concat
I0802 20:39:41.933653 30173 net.cpp:91] Creating Layer lstm1_h_concat
I0802 20:39:41.933658 30173 net.cpp:425] lstm1_h_concat <- h_1
I0802 20:39:41.933666 30173 net.cpp:399] lstm1_h_concat -> h
I0802 20:39:41.933704 30173 net.cpp:141] Setting up lstm1_h_concat
I0802 20:39:41.933714 30173 net.cpp:148] Top shape: 1 1 1000 (1000)
I0802 20:39:41.933718 30173 net.cpp:156] Memory required for data: 94016
I0802 20:39:41.933724 30173 layer_factory.hpp:77] Creating layer h_pseudoloss
I0802 20:39:41.933743 30173 net.cpp:91] Creating Layer h_pseudoloss
I0802 20:39:41.933748 30173 net.cpp:425] h_pseudoloss <- h
I0802 20:39:41.933756 30173 net.cpp:399] h_pseudoloss -> h_pseudoloss
I0802 20:39:41.933854 30173 net.cpp:141] Setting up h_pseudoloss
…
I0802 20:39:41.933987 30173 net.cpp:219] lstm1_ does not need backward computation.
I0802 20:39:41.933992 30173 net.cpp:261] This network produces output c_T
I0802 20:39:41.933997 30173 net.cpp:261] This network produces output h_pseudoloss
I0802 20:39:41.934018 30173 net.cpp:274] Network initialization done.
I0802 20:39:41.934085 30173 recurrent_layer.cpp:150] Adding parameter 0: W_xc
I0802 20:39:41.934092 30173 recurrent_layer.cpp:150] Adding parameter 1: b_c
I0802 20:39:41.934098 30173 recurrent_layer.cpp:150] Adding parameter 2: W_hc
I0802 20:39:41.934222 30173 net.cpp:141] Setting up lstm1
I0802 20:39:41.934237 30173 net.cpp:148] Top shape: 1 1 1000 (1000)
I0802 20:39:41.934242 30173 net.cpp:156] Memory required for data: 26408
I0802 20:39:41.934257 30173 layer_factory.hpp:77] Creating layer concat
I0802 20:39:41.934267 30173 net.cpp:91] Creating Layer concat
I0802 20:39:41.934273 30173 net.cpp:425] concat <- lstm1
I0802 20:39:41.934280 30173 net.cpp:425] concat <- embedded_input_sentence
I0802 20:39:41.934288 30173 net.cpp:425] concat <- reshaped_stage_indicator
I0802 20:39:41.934294 30173 net.cpp:399] concat -> lstm1_video_sequence
I0802 20:39:41.934332 30173 net.cpp:141] Setting up concat
I0802 20:39:41.934342 30173 net.cpp:148] Top shape: 1 1 1501 (1501)
I0802 20:39:41.934347 30173 net.cpp:156] Memory required for data: 32412
I0802 20:39:41.934353 30173 layer_factory.hpp:77] Creating layer lstm2
I0802 20:39:41.934367 30173 net.cpp:91] Creating Layer lstm2
I0802 20:39:41.934372 30173 net.cpp:425] lstm2 <- lstm1_video_sequence
I0802 20:39:41.934381 30173 net.cpp:425] lstm2 <- cont_sentence_input_1_split_1
I0802 20:39:41.934388 30173 net.cpp:399] lstm2 -> lstm2
I0802 20:39:41.934401 30173 recurrent_layer.cpp:20] Initializing recurrent layer: assuming input batch contains 1 timesteps of 1 independent streams.
I0802 20:39:41.934679 30173 net.cpp:49] Initializing net from parameters: 
layer {
  name: "lstm2_"
  type: "Input"
  top: "x"
  top: "cont"
  input_param {
    shape {
      dim: 1
      dim: 1
      dim: 1501
    }
    shape {
      dim: 1
      dim: 1
    }
  }
}
layer {
  name: "lstm2_"
  type: "Input"
  top: "c_0"
  top: "h_0"
  input_param {
    shape {
      dim: 1
      dim: 1
      dim: 1000
    }
    shape {
      dim: 1
      dim: 1
      dim: 1000
    }
  }
}
layer {
  name: "lstm2_cont_slice"
  type: "Slice"
  bottom: "cont"
  top: "cont_1"
  slice_param {
    axis: 0
  }
}
layer {
  name: "lstm2_x_transform"
  type: "InnerProduct"
  bottom: "x"
  top: "W_xc_x"
  param {
    name: "W_xc"
  }
  param {
    name: "b_c"
  }
  propagate_down: true
  inner_product_param {
    num_output: 4000
    bias_term: true
    weight_filler {
      type: "uniform"
      min: -0.08
      max: 0.08
    }
    bias_filler {
      type: "constant"
      value: 0
    }
    axis: 2
  }
}
layer {
  name: "lstm2_W_xc_x_slice"
  type: "Slice"
  bottom: "W_xc_x"
  top: "W_xc_x_1"
  slice_param {
    axis: 0
  }
}
layer {
  name: "lstm2_h_conted_0"
  type: "Scale"
  bottom: "h_0"
  bottom: "cont_1"
  top: "h_conted_0"
  scale_param {
    axis: 0
  }
}
layer {
  name: "lstm2_transform_1"
  type: "InnerProduct"
  bottom: "h_conted_0"
  top: "W_hc_h_0"
  param {
    name: "W_hc"
  }
  inner_product_param {
    num_output: 4000
    bias_term: false
    weight_filler {
      type: "uniform"
      min: -0.08
      max: 0.08
    }
    axis: 2
  }
}
layer {
  name: "lstm2_gate_input_1"
  type: "Eltwise"
  bottom: "W_hc_h_0"
  bottom: "W_xc_x_1"
  top: "gate_input_1"
  eltwise_param {
    operation: SUM
  }
}
layer {
  name: "lstm2_unit_1"
  type: "LSTMUnit"
  bottom: "c_0"
  bottom: "gate_input_1"
  bottom: "cont_1"
  top: "c_1"
  top: "h_1"
}
layer {
  name: "lstm2_"
  type: "Split"
  bottom: "c_1"
  top: "c_T"
}
layer {
  name: "lstm2_h_concat"
  type: "Concat"
  bottom: "h_1"
  top: "h"
  concat_param {
    axis: 0
  }
}
layer {
  name: "h_pseudoloss"
  type: "Reduction"
  bottom: "h"
  top: "h_pseudoloss"
  loss_weight: 1
}
I0802 20:39:41.934775 30173 layer_factory.hpp:77] Creating layer lstm2_
I0802 20:39:41.934788 30173 net.cpp:91] Creating Layer lstm2_
I0802 20:39:41.934795 30173 net.cpp:399] lstm2_ -> x
I0802 20:39:41.934808 30173 net.cpp:399] lstm2_ -> cont
I0802 20:39:41.934869 30173 net.cpp:141] Setting up lstm2_
I0802 20:39:41.934880 30173 net.cpp:148] Top shape: 1 1 1501 (1501)
I0802 20:39:41.934886 30173 net.cpp:148] Top shape: 1 1 (1)
I0802 20:39:41.934890 30173 net.cpp:156] Memory required for data: 6008
I0802 20:39:41.934896 30173 layer_factory.hpp:77] Creating layer lstm2_
I0802 20:39:41.934906 30173 net.cpp:91] Creating Layer lstm2_
I0802 20:39:41.934912 30173 net.cpp:399] lstm2_ -> c_0
I0802 20:39:41.934926 30173 net.cpp:399] lstm2_ -> h_0
I0802 20:39:41.934981 30173 net.cpp:141] Setting up lstm2_
I0802 20:39:41.934993 30173 net.cpp:148] Top shape: 1 1 1000 (1000)
I0802 20:39:41.934998 30173 net.cpp:148] Top shape: 1 1 1000 (1000)
I0802 20:39:41.935003 30173 net.cpp:156] Memory required for data: 14008
I0802 20:39:41.935009 30173 layer_factory.hpp:77] Creating layer lstm2_cont_slice
I0802 20:39:41.935024 30173 net.cpp:91] Creating Layer lstm2_cont_slice
I0802 20:39:41.935029 30173 net.cpp:425] lstm2_cont_slice <- cont
I0802 20:39:41.935037 30173 net.cpp:399] lstm2_cont_slice -> cont_1
I0802 20:39:41.935073 30173 net.cpp:141] Setting up lstm2_cont_slice
I0802 20:39:41.935083 30173 net.cpp:148] Top shape: 1 1 (1)
I0802 20:39:41.935088 30173 net.cpp:156] Memory required for data: 14012
I0802 20:39:41.935093 30173 layer_factory.hpp:77] Creating layer cont_1_lstm2_cont_slice_0_split
I0802 20:39:41.935101 30173 net.cpp:91] Creating Layer cont_1_lstm2_cont_slice_0_split
I0802 20:39:41.935106 30173 net.cpp:425] cont_1_lstm2_cont_slice_0_split <- cont_1
I0802 20:39:41.935117 30173 net.cpp:399] cont_1_lstm2_cont_slice_0_split -> cont_1_lstm2_cont_slice_0_split_0
I0802 20:39:41.935125 30173 net.cpp:399] cont_1_lstm2_cont_slice_0_split -> cont_1_lstm2_cont_slice_0_split_1
I0802 20:39:41.935176 30173 net.cpp:141] Setting up cont_1_lstm2_cont_slice_0_split
I0802 20:39:41.935186 30173 net.cpp:148] Top shape: 1 1 (1)
I0802 20:39:41.935194 30173 net.cpp:148] Top shape: 1 1 (1)
I0802 20:39:41.935197 30173 net.cpp:156] Memory required for data: 14020
I0802 20:39:41.935204 30173 layer_factory.hpp:77] Creating layer lstm2_x_transform
I0802 20:39:41.935217 30173 net.cpp:91] Creating Layer lstm2_x_transform
I0802 20:39:41.935222 30173 net.cpp:425] lstm2_x_transform <- x
I0802 20:39:41.935231 30173 net.cpp:399] lstm2_x_transform -> W_xc_x
I0802 20:39:41.951673 30183 net.cpp:141] Setting up fc7
I0802 20:39:41.951719 30183 net.cpp:148] Top shape: 10 4096 (40960)
I0802 20:39:41.951726 30183 net.cpp:156] Memory required for data: 68273720
I0802 20:39:41.951742 30183 layer_factory.hpp:77] Creating layer relu7
I0802 20:39:41.951759 30183 net.cpp:91] Creating Layer relu7
I0802 20:39:41.951771 30183 net.cpp:425] relu7 <- fc7
I0802 20:39:41.951781 30183 net.cpp:386] relu7 -> fc7 (in-place)
I0802 20:39:41.952440 30183 net.cpp:141] Setting up relu7
I0802 20:39:41.952455 30183 net.cpp:148] Top shape: 10 4096 (40960)
I0802 20:39:41.952461 30183 net.cpp:156] Memory required for data: 68437560
I0802 20:39:41.952466 30183 layer_factory.hpp:77] Creating layer drop7
I0802 20:39:41.952481 30183 net.cpp:91] Creating Layer drop7
I0802 20:39:41.952486 30183 net.cpp:425] drop7 <- fc7
I0802 20:39:41.952494 30183 net.cpp:386] drop7 -> fc7 (in-place)
I0802 20:39:41.952536 30183 net.cpp:141] Setting up drop7
I0802 20:39:41.952546 30183 net.cpp:148] Top shape: 10 4096 (40960)
I0802 20:39:41.952551 30183 net.cpp:156] Memory required for data: 68601400
I0802 20:39:41.952556 30183 layer_factory.hpp:77] Creating layer fc8
I0802 20:39:41.952574 30183 net.cpp:91] Creating Layer fc8
I0802 20:39:41.952580 30183 net.cpp:425] fc8 <- fc7
I0802 20:39:41.952591 30183 net.cpp:399] fc8 -> fc8
I0802 20:39:41.964936 30183 net.cpp:141] Setting up fc8
I0802 20:39:41.964985 30183 net.cpp:148] Top shape: 10 1000 (10000)
I0802 20:39:41.964992 30183 net.cpp:156] Memory required for data: 68641400
I0802 20:39:41.965008 30183 layer_factory.hpp:77] Creating layer prob
I0802 20:39:41.965028 30183 net.cpp:91] Creating Layer prob
I0802 20:39:41.965036 30183 net.cpp:425] prob <- fc8
I0802 20:39:41.965055 30183 net.cpp:399] prob -> prob
I0802 20:39:41.965507 30183 net.cpp:141] Setting up prob
I0802 20:39:41.965522 30183 net.cpp:148] Top shape: 10 1000 (10000)
I0802 20:39:41.965528 30183 net.cpp:156] Memory required for data: 68681400
I0802 20:39:41.965533 30183 net.cpp:219] prob does not need backward computation.
I0802 20:39:41.965539 30183 net.cpp:219] fc8 does not need backward computation.
I0802 20:39:41.965545 30183 net.cpp:219] drop7 does not need backward computation.
I0802 20:39:41.965550 30183 net.cpp:219] relu7 does not need backward computation.
…
I0802 20:39:41.965634 30183 net.cpp:219] norm1 does not need backward computation.
I0802 20:39:41.965641 30183 net.cpp:219] pool1 does not need backward computation.
I0802 20:39:41.965646 30183 net.cpp:219] relu1 does not need backward computation.
I0802 20:39:41.965651 30183 net.cpp:219] conv1 does not need backward computation.
I0802 20:39:41.965656 30183 net.cpp:219] data does not need backward computation.
I0802 20:39:41.965661 30183 net.cpp:261] This network produces output prob
I0802 20:39:41.965682 30183 net.cpp:274] Network initialization done.
I0802 20:39:41.999889 30173 net.cpp:141] Setting up lstm2_x_transform
I0802 20:39:41.999945 30173 net.cpp:148] Top shape: 1 1 4000 (4000)
I0802 20:39:41.999953 30173 net.cpp:156] Memory required for data: 30020
I0802 20:39:41.999979 30173 layer_factory.hpp:77] Creating layer lstm2_W_xc_x_slice
I0802 20:39:41.999996 30173 net.cpp:91] Creating Layer lstm2_W_xc_x_slice
I0802 20:39:42.000005 30173 net.cpp:425] lstm2_W_xc_x_slice <- W_xc_x
I0802 20:39:42.000018 30173 net.cpp:399] lstm2_W_xc_x_slice -> W_xc_x_1
I0802 20:39:42.000069 30173 net.cpp:141] Setting up lstm2_W_xc_x_slice
I0802 20:39:42.000080 30173 net.cpp:148] Top shape: 1 1 4000 (4000)
I0802 20:39:42.000085 30173 net.cpp:156] Memory required for data: 46020
I0802 20:39:42.000092 30173 layer_factory.hpp:77] Creating layer lstm2_h_conted_0
I0802 20:39:42.000102 30173 net.cpp:91] Creating Layer lstm2_h_conted_0
I0802 20:39:42.000115 30173 net.cpp:425] lstm2_h_conted_0 <- h_0
I0802 20:39:42.000123 30173 net.cpp:425] lstm2_h_conted_0 <- cont_1_lstm2_cont_slice_0_split_0
I0802 20:39:42.000134 30173 net.cpp:399] lstm2_h_conted_0 -> h_conted_0
I0802 20:39:42.000241 30173 net.cpp:141] Setting up lstm2_h_conted_0
I0802 20:39:42.000252 30173 net.cpp:148] Top shape: 1 1 1000 (1000)
I0802 20:39:42.000257 30173 net.cpp:156] Memory required for data: 50020
I0802 20:39:42.000262 30173 layer_factory.hpp:77] Creating layer lstm2_transform_1
I0802 20:39:42.000275 30173 net.cpp:91] Creating Layer lstm2_transform_1
I0802 20:39:42.000282 30173 net.cpp:425] lstm2_transform_1 <- h_conted_0
I0802 20:39:42.000293 30173 net.cpp:399] lstm2_transform_1 -> W_hc_h_0
I0802 20:39:42.047046 30173 net.cpp:141] Setting up lstm2_transform_1
I0802 20:39:42.047106 30173 net.cpp:148] Top shape: 1 1 4000 (4000)
I0802 20:39:42.047114 30173 net.cpp:156] Memory required for data: 66020
I0802 20:39:42.047139 30173 layer_factory.hpp:77] Creating layer lstm2_gate_input_1
I0802 20:39:42.047164 30173 net.cpp:91] Creating Layer lstm2_gate_input_1
I0802 20:39:42.047173 30173 net.cpp:425] lstm2_gate_input_1 <- W_hc_h_0
I0802 20:39:42.047183 30173 net.cpp:425] lstm2_gate_input_1 <- W_xc_x_1
I0802 20:39:42.047191 30173 net.cpp:399] lstm2_gate_input_1 -> gate_input_1
I0802 20:39:42.047246 30173 net.cpp:141] Setting up lstm2_gate_input_1
I0802 20:39:42.047258 30173 net.cpp:148] Top shape: 1 1 4000 (4000)
I0802 20:39:42.047262 30173 net.cpp:156] Memory required for data: 82020
I0802 20:39:42.047268 30173 layer_factory.hpp:77] Creating layer lstm2_unit_1
I0802 20:39:42.047278 30173 net.cpp:91] Creating Layer lstm2_unit_1
I0802 20:39:42.047283 30173 net.cpp:425] lstm2_unit_1 <- c_0
I0802 20:39:42.047291 30173 net.cpp:425] lstm2_unit_1 <- gate_input_1
I0802 20:39:42.047297 30173 net.cpp:425] lstm2_unit_1 <- cont_1_lstm2_cont_slice_0_split_1
I0802 20:39:42.047307 30173 net.cpp:399] lstm2_unit_1 -> c_1
I0802 20:39:42.047317 30173 net.cpp:399] lstm2_unit_1 -> h_1
I0802 20:39:42.047386 30173 net.cpp:141] Setting up lstm2_unit_1
I0802 20:39:42.047397 30173 net.cpp:148] Top shape: 1 1 1000 (1000)
I0802 20:39:42.047404 30173 net.cpp:148] Top shape: 1 1 1000 (1000)
I0802 20:39:42.047408 30173 net.cpp:156] Memory required for data: 90020
I0802 20:39:42.047415 30173 layer_factory.hpp:77] Creating layer lstm2_
I0802 20:39:42.047423 30173 net.cpp:91] Creating Layer lstm2_
I0802 20:39:42.047428 30173 net.cpp:425] lstm2_ <- c_1
I0802 20:39:42.047436 30173 net.cpp:399] lstm2_ -> c_T
I0802 20:39:42.047477 30173 net.cpp:141] Setting up lstm2_
I0802 20:39:42.047487 30173 net.cpp:148] Top shape: 1 1 1000 (1000)
I0802 20:39:42.047492 30173 net.cpp:156] Memory required for data: 94020
I0802 20:39:42.047497 30173 layer_factory.hpp:77] Creating layer lstm2_h_concat
I0802 20:39:42.047508 30173 net.cpp:91] Creating Layer lstm2_h_concat
I0802 20:39:42.047513 30173 net.cpp:425] lstm2_h_concat <- h_1
I0802 20:39:42.047521 30173 net.cpp:399] lstm2_h_concat -> h
I0802 20:39:42.047559 30173 net.cpp:141] Setting up lstm2_h_concat
I0802 20:39:42.047569 30173 net.cpp:148] Top shape: 1 1 1000 (1000)
I0802 20:39:42.047574 30173 net.cpp:156] Memory required for data: 98020
I0802 20:39:42.047580 30173 layer_factory.hpp:77] Creating layer h_pseudoloss
I0802 20:39:42.047592 30173 net.cpp:91] Creating Layer h_pseudoloss
I0802 20:39:42.047598 30173 net.cpp:425] h_pseudoloss <- h
I0802 20:39:42.047606 30173 net.cpp:399] h_pseudoloss -> h_pseudoloss
I0802 20:39:42.047705 30173 net.cpp:141] Setting up h_pseudoloss
…
