…
I0925 23:10:57.865862 25013 upgrade_proto.cpp:66] Attempting to upgrade input file specified using deprecated input fields: /home/peifeng/work/run/storm102/data/workers/08ddbeeb-47af-4723-8bd4-562c1e9dcc72/tmp/cvld8836388626282432626/s2vt.words_to_preds.prototxt
I0925 23:10:57.865901 25013 upgrade_proto.cpp:69] Successfully upgraded file specified using deprecated input fields.
W0925 23:10:57.865917 25013 upgrade_proto.cpp:71] Note that future Caffe releases will only support input layers and not input fields.
I0925 23:10:57.865909 25035 net.cpp:49] Initializing net from parameters: 
name: "CaffeNet"
state {
  phase: TEST
}
layer {
  name: "data"
  type: "Input"
  top: "data"
  input_param {
    shape {
      dim: 10
      dim: 3
      dim: 227
      dim: 227
    }
  }
}
layer {
  name: "conv1"
  type: "Convolution"
  bottom: "data"
  top: "conv1"
  convolution_param {
    num_output: 96
    kernel_size: 11
    stride: 4
  }
}
layer {
  name: "relu1"
  type: "ReLU"
  bottom: "conv1"
  top: "conv1"
}
layer {
  name: "pool1"
  type: "Pooling"
  bottom: "conv1"
  top: "pool1"
  pooling_param {
    pool: MAX
    kernel_size: 3
    stride: 2
  }
}
layer {
  name: "norm1"
  type: "LRN"
  bottom: "pool1"
  top: "norm1"
  lrn_param {
    local_size: 5
    alpha: 0.0001
    beta: 0.75
  }
}
layer {
  name: "conv2"
  type: "Convolution"
  bottom: "norm1"
  top: "conv2"
  convolution_param {
    num_output: 256
    pad: 2
    kernel_size: 5
    group: 2
  }
}
layer {
  name: "relu2"
  type: "ReLU"
  bottom: "conv2"
  top: "conv2"
}
layer {
  name: "pool2"
  type: "Pooling"
  bottom: "conv2"
  top: "pool2"
  pooling_param {
    pool: MAX
    kernel_size: 3
    stride: 2
  }
}
layer {
  name: "norm2"
  type: "LRN"
  bottom: "pool2"
  top: "norm2"
  lrn_param {
    local_size: 5
    alpha: 0.0001
    beta: 0.75
  }
}
layer {
  name: "conv3"
  type: "Convolution"
  bottom: "norm2"
  top: "conv3"
  convolution_param {
    num_output: 384
    pad: 1
    kernel_size: 3
  }
}
layer {
  name: "relu3"
  type: "ReLU"
  bottom: "conv3"
  top: "conv3"
}
layer {
  name: "conv4"
  type: "Convolution"
  bottom: "conv3"
  top: "conv4"
  convolution_param {
    num_output: 384
    pad: 1
    kernel_size: 3
    group: 2
  }
}
layer {
  name: "relu4"
  type: "ReLU"
  bottom: "conv4"
  top: "conv4"
}
layer {
  name: "conv5"
  type: "Convolution"
  bottom: "conv4"
  top: "conv5"
  convolution_param {
    num_output: 256
    pad: 1
    kernel_size: 3
    group: 2
  }
}
layer {
  name: "relu5"
  type: "ReLU"
  bottom: "conv5"
  top: "conv5"
}
layer {
  name: "pool5"
  type: "Pooling"
  bottom: "conv5"
  top: "pool5"
  pooling_param {
    pool: MAX
    kernel_size: 3
    stride: 2
  }
}
layer {
  name: "fc6"
  type: "InnerProduct"
  bottom: "pool5"
  top: "fc6"
  inner_product_param {
    num_output: 4096
  }
}
layer {
  name: "relu6"
  type: "ReLU"
  bottom: "fc6"
  top: "fc6"
}
layer {
  name: "drop6"
  type: "Dropout"
  bottom: "fc6"
  top: "fc6"
  dropout_param {
    dropout_ratio: 0.5
  }
}
layer {
  name: "fc7"
  type: "InnerProduct"
  bottom: "fc6"
  top: "fc7"
  inner_product_param {
    num_output: 4096
  }
}
layer {
  name: "relu7"
  type: "ReLU"
  bottom: "fc7"
  top: "fc7"
}
layer {
  name: "drop7"
  type: "Dropout"
  bottom: "fc7"
  top: "fc7"
  dropout_param {
    dropout_ratio: 0.5
  }
}
layer {
  name: "fc8"
  type: "InnerProduct"
  bottom: "fc7"
  top: "fc8"
  inner_product_param {
    num_output: 1000
  }
}
layer {
  name: "prob"
  type: "Softmax"
  bottom: "fc8"
  top: "prob"
}
I0925 23:10:57.865968 25033 net.cpp:49] Initializing net from parameters: 
name: "s2vt:features_to_lstm"
state {
  phase: TEST
}
layer {
  name: "input"
  type: "Input"
  top: "frames_fc7"
  top: "cont_sentence"
  top: "input_sentence"
  top: "stage_indicator"
  input_param {
    shape {
      dim: 1
      dim: 4096
    }
    shape {
      dim: 1
      dim: 1
    }
    shape {
      dim: 1
      dim: 1
    }
    shape {
      dim: 1
      dim: 1
    }
  }
}
layer {
  name: "embed_encoder"
  type: "InnerProduct"
  bottom: "frames_fc7"
  top: "embedded_in_frames"
  param {
    lr_mult: 1
    decay_mult: 1
  }
  param {
    lr_mult: 2
    decay_mult: 0
  }
  inner_product_param {
    num_output: 500
    weight_filler {
      type: "xavier"
    }
    bias_filler {
      type: "constant"
      value: 0.2
    }
  }
}
layer {
  name: "reshape_frames"
  type: "Reshape"
  bottom: "embedded_in_frames"
  top: "embedded_input_frames"
  reshape_param {
    shape {
      dim: 1
      dim: 1
      dim: 500
    }
  }
}
layer {
  name: "reshape_stage_indicator"
  type: "Reshape"
  bottom: "stage_indicator"
  top: "reshaped_stage_indicator"
  reshape_param {
    shape {
      dim: 1
      dim: 1
      dim: 1
    }
  }
}
layer {
  name: "embedding"
  type: "Embed"
  bottom: "input_sentence"
  top: "embedded_input_sentence"
  param {
    lr_mult: 1
  }
  embed_param {
    num_output: 500
    input_dim: 46168
    bias_term: false
    weight_filler {
      type: "uniform"
      min: -0.08
      max: 0.08
    }
  }
}
layer {
  name: "lstm1"
  type: "LSTM"
  bottom: "embedded_input_frames"
  bottom: "cont_sentence"
  top: "lstm1"
  recurrent_param {
    num_output: 1000
    weight_filler {
      type: "uniform"
      min: -0.08
      max: 0.08
    }
    bias_filler {
      type: "constant"
      value: 0
    }
  }
}
layer {
  name: "concat"
  type: "Concat"
  bottom: "lstm1"
  bottom: "embedded_input_sentence"
  bottom: "reshaped_stage_indicator"
  top: "lstm1_video_sequence"
  concat_param {
    concat_dim: 2
  }
}
layer {
  name: "lstm2"
  type: "LSTM"
  bottom: "lstm1_video_sequence"
  bottom: "cont_sentence"
  top: "lstm2"
  recurrent_param {
    num_output: 1000
    weight_filler {
      type: "uniform"
      min: -0.08
      max: 0.08
    }
    bias_filler {
      type: "constant"
      value: 0
    }
  }
}
layer {
  name: "predict"
  type: "InnerProduct"
  bottom: "lstm2"
  top: "predict"
  param {
    lr_mult: 1
    decay_mult: 1
  }
  param {
    lr_mult: 2
    decay_mult: 0
  }
  inner_product_param {
    num_output: 46168
    weight_filler {
      type: "uniform"
      min: -0.08
      max: 0.08
    }
    bias_filler {
      type: "constant"
      value: 0
    }
    axis: 2
  }
}
layer {
  name: "probs"
  type: "Softmax"
  bottom: "predict"
  top: "probs"
  softmax_param {
    axis: 2
  }
}
I0925 23:10:57.865969 25063 net.cpp:49] Initializing net from parameters: 
name: "s2vt:features_to_lstm"
state {
  phase: TEST
}
layer {
  name: "input"
  type: "Input"
  top: "frames_fc7"
  top: "cont_sentence"
  top: "input_sentence"
  top: "stage_indicator"
  input_param {
    shape {
      dim: 1
      dim: 4096
    }
    shape {
      dim: 1
      dim: 1
    }
    shape {
      dim: 1
      dim: 1
    }
    shape {
      dim: 1
      dim: 1
    }
  }
}
layer {
  name: "embed_encoder"
  type: "InnerProduct"
  bottom: "frames_fc7"
  top: "embedded_in_frames"
  param {
    lr_mult: 1
    decay_mult: 1
  }
  param {
    lr_mult: 2
    decay_mult: 0
  }
  inner_product_param {
    num_output: 500
    weight_filler {
      type: "xavier"
    }
    bias_filler {
      type: "constant"
      value: 0.2
    }
  }
}
layer {
  name: "reshape_frames"
  type: "Reshape"
  bottom: "embedded_in_frames"
  top: "embedded_input_frames"
  reshape_param {
    shape {
      dim: 1
      dim: 1
      dim: 500
    }
  }
}
layer {
  name: "reshape_stage_indicator"
  type: "Reshape"
  bottom: "stage_indicator"
  top: "reshaped_stage_indicator"
  reshape_param {
    shape {
      dim: 1
      dim: 1
      dim: 1
    }
  }
}
layer {
  name: "embedding"
  type: "Embed"
  bottom: "input_sentence"
  top: "embedded_input_sentence"
  param {
    lr_mult: 1
  }
  embed_param {
    num_output: 500
    input_dim: 46168
    bias_term: false
    weight_filler {
      type: "uniform"
      min: -0.08
      max: 0.08
    }
  }
}
layer {
  name: "lstm1"
  type: "LSTM"
  bottom: "embedded_input_frames"
  bottom: "cont_sentence"
  top: "lstm1"
  recurrent_param {
    num_output: 1000
    weight_filler {
      type: "uniform"
      min: -0.08
      max: 0.08
    }
    bias_filler {
      type: "constant"
      value: 0
    }
  }
}
layer {
  name: "concat"
  type: "Concat"
  bottom: "lstm1"
  bottom: "embedded_input_sentence"
  bottom: "reshaped_stage_indicator"
  top: "lstm1_video_sequence"
  concat_param {
    concat_dim: 2
  }
}
layer {
  name: "lstm2"
  type: "LSTM"
  bottom: "lstm1_video_sequence"
  bottom: "cont_sentence"
  top: "lstm2"
  recurrent_param {
    num_output: 1000
    weight_filler {
      type: "uniform"
      min: -0.08
      max: 0.08
    }
    bias_filler {
      type: "constant"
      value: 0
    }
  }
}
layer {
  name: "predict"
  type: "InnerProduct"
  bottom: "lstm2"
  top: "predict"
  param {
    lr_mult: 1
    decay_mult: 1
  }
  param {
    lr_mult: 2
    decay_mult: 0
  }
  inner_product_param {
    num_output: 46168
    weight_filler {
      type: "uniform"
      min: -0.08
      max: 0.08
    }
    bias_filler {
      type: "constant"
      value: 0
    }
    axis: 2
  }
}
layer {
  name: "probs"
  type: "Softmax"
  bottom: "predict"
  top: "probs"
  softmax_param {
    axis: 2
  }
}
I0925 23:10:57.865969 25059 net.cpp:49] Initializing net from parameters: 
name: "s2vt:features_to_lstm"
state {
  phase: TEST
}
layer {
  name: "input"
  type: "Input"
  top: "frames_fc7"
  top: "cont_sentence"
  top: "input_sentence"
  top: "stage_indicator"
  input_param {
    shape {
      dim: 1
      dim: 4096
    }
    shape {
      dim: 1
      dim: 1
    }
    shape {
      dim: 1
      dim: 1
    }
    shape {
      dim: 1
      dim: 1
    }
  }
}
layer {
  name: "embed_encoder"
  type: "InnerProduct"
  bottom: "frames_fc7"
  top: "embedded_in_frames"
  param {
    lr_mult: 1
    decay_mult: 1
  }
  param {
    lr_mult: 2
    decay_mult: 0
  }
  inner_product_param {
    num_output: 500
    weight_filler {
      type: "xavier"
    }
    bias_filler {
      type: "constant"
      value: 0.2
    }
  }
}
layer {
  name: "reshape_frames"
  type: "Reshape"
  bottom: "embedded_in_frames"
  top: "embedded_input_frames"
  reshape_param {
    shape {
      dim: 1
      dim: 1
      dim: 500
    }
  }
}
layer {
  name: "reshape_stage_indicator"
  type: "Reshape"
  bottom: "stage_indicator"
  top: "reshaped_stage_indicator"
  reshape_param {
    shape {
      dim: 1
      dim: 1
      dim: 1
    }
  }
}
layer {
  name: "embedding"
  type: "Embed"
  bottom: "input_sentence"
  top: "embedded_input_sentence"
  param {
    lr_mult: 1
  }
  embed_param {
    num_output: 500
    input_dim: 46168
    bias_term: false
    weight_filler {
      type: "uniform"
      min: -0.08
      max: 0.08
    }
  }
}
layer {
  name: "lstm1"
  type: "LSTM"
  bottom: "embedded_input_frames"
  bottom: "cont_sentence"
  top: "lstm1"
  recurrent_param {
    num_output: 1000
    weight_filler {
      type: "uniform"
      min: -0.08
      max: 0.08
    }
    bias_filler {
      type: "constant"
      value: 0
    }
  }
}
layer {
  name: "concat"
  type: "Concat"
  bottom: "lstm1"
  bottom: "embedded_input_sentence"
  bottom: "reshaped_stage_indicator"
  top: "lstm1_video_sequence"
  concat_param {
    concat_dim: 2
  }
}
layer {
  name: "lstm2"
  type: "LSTM"
  bottom: "lstm1_video_sequence"
  bottom: "cont_sentence"
  top: "lstm2"
  recurrent_param {
    num_output: 1000
    weight_filler {
      type: "uniform"
      min: -0.08
      max: 0.08
    }
    bias_filler {
      type: "constant"
      value: 0
    }
  }
}
layer {
  name: "predict"
  type: "InnerProduct"
  bottom: "lstm2"
  top: "predict"
  param {
    lr_mult: 1
    decay_mult: 1
  }
  param {
    lr_mult: 2
    decay_mult: 0
  }
  inner_product_param {
    num_output: 46168
    weight_filler {
      type: "uniform"
      min: -0.08
      max: 0.08
    }
    bias_filler {
      type: "constant"
      value: 0
    }
    axis: 2
  }
}
layer {
  name: "probs"
  type: "Softmax"
  bottom: "predict"
  top: "probs"
  softmax_param {
    axis: 2
  }
}
I0925 23:10:57.865968 25027 net.cpp:49] Initializing net from parameters: 
name: "s2vt:features_to_lstm"
state {
  phase: TEST
}
layer {
  name: "input"
  type: "Input"
  top: "frames_fc7"
  top: "cont_sentence"
  top: "input_sentence"
  top: "stage_indicator"
  input_param {
    shape {
      dim: 1
      dim: 4096
    }
    shape {
      dim: 1
      dim: 1
    }
    shape {
      dim: 1
      dim: 1
    }
    shape {
      dim: 1
      dim: 1
    }
  }
}
layer {
  name: "embed_encoder"
  type: "InnerProduct"
  bottom: "frames_fc7"
  top: "embedded_in_frames"
  param {
    lr_mult: 1
    decay_mult: 1
  }
  param {
    lr_mult: 2
    decay_mult: 0
  }
  inner_product_param {
    num_output: 500
    weight_filler {
      type: "xavier"
    }
    bias_filler {
      type: "constant"
      value: 0.2
    }
  }
}
layer {
  name: "reshape_frames"
  type: "Reshape"
  bottom: "embedded_in_frames"
  top: "embedded_input_frames"
  reshape_param {
    shape {
      dim: 1
      dim: 1
      dim: 500
    }
  }
}
layer {
  name: "reshape_stage_indicator"
  type: "Reshape"
  bottom: "stage_indicator"
  top: "reshaped_stage_indicator"
  reshape_param {
    shape {
      dim: 1
      dim: 1
      dim: 1
    }
  }
}
layer {
  name: "embedding"
  type: "Embed"
  bottom: "input_sentence"
  top: "embedded_input_sentence"
  param {
    lr_mult: 1
  }
  embed_param {
    num_output: 500
    input_dim: 46168
    bias_term: false
    weight_filler {
      type: "uniform"
      min: -0.08
      max: 0.08
    }
  }
}
layer {
  name: "lstm1"
  type: "LSTM"
  bottom: "embedded_input_frames"
  bottom: "cont_sentence"
  top: "lstm1"
  recurrent_param {
    num_output: 1000
    weight_filler {
      type: "uniform"
      min: -0.08
      max: 0.08
    }
    bias_filler {
      type: "constant"
      value: 0
    }
  }
}
layer {
  name: "concat"
  type: "Concat"
  bottom: "lstm1"
  bottom: "embedded_input_sentence"
  bottom: "reshaped_stage_indicator"
  top: "lstm1_video_sequence"
  concat_param {
    concat_dim: 2
  }
}
layer {
  name: "lstm2"
  type: "LSTM"
  bottom: "lstm1_video_sequence"
  bottom: "cont_sentence"
  top: "lstm2"
  recurrent_param {
    num_output: 1000
    weight_filler {
      type: "uniform"
      min: -0.08
      max: 0.08
    }
    bias_filler {
      type: "constant"
      value: 0
    }
  }
}
layer {
  name: "predict"
  type: "InnerProduct"
  bottom: "lstm2"
  top: "predict"
  param {
    lr_mult: 1
    decay_mult: 1
  }
  param {
    lr_mult: 2
    decay_mult: 0
  }
  inner_product_param {
    num_output: 46168
    weight_filler {
      type: "uniform"
      min: -0.08
      max: 0.08
    }
    bias_filler {
      type: "constant"
      value: 0
    }
    axis: 2
  }
}
layer {
  name: "probs"
  type: "Softmax"
  bottom: "predict"
  top: "probs"
  softmax_param {
    axis: 2
  }
}
I0925 23:10:57.866003 25015 net.cpp:49] Initializing net from parameters: 
name: "s2vt:features_to_lstm"
state {
  phase: TEST
}
layer {
  name: "input"
  type: "Input"
  top: "frames_fc7"
  top: "cont_sentence"
  top: "input_sentence"
  top: "stage_indicator"
  input_param {
    shape {
      dim: 1
      dim: 4096
    }
    shape {
      dim: 1
      dim: 1
    }
    shape {
      dim: 1
      dim: 1
    }
    shape {
      dim: 1
      dim: 1
    }
  }
}
layer {
  name: "embed_encoder"
  type: "InnerProduct"
  bottom: "frames_fc7"
  top: "embedded_in_frames"
  param {
    lr_mult: 1
    decay_mult: 1
  }
  param {
    lr_mult: 2
    decay_mult: 0
  }
  inner_product_param {
    num_output: 500
    weight_filler {
      type: "xavier"
    }
    bias_filler {
      type: "constant"
      value: 0.2
    }
  }
}
layer {
  name: "reshape_frames"
  type: "Reshape"
  bottom: "embedded_in_frames"
  top: "embedded_input_frames"
  reshape_param {
    shape {
      dim: 1
      dim: 1
      dim: 500
    }
  }
}
layer {
  name: "reshape_stage_indicator"
  type: "Reshape"
  bottom: "stage_indicator"
  top: "reshaped_stage_indicator"
  reshape_param {
    shape {
      dim: 1
      dim: 1
      dim: 1
    }
  }
}
layer {
  name: "embedding"
  type: "Embed"
  bottom: "input_sentence"
  top: "embedded_input_sentence"
  param {
    lr_mult: 1
  }
  embed_param {
    num_output: 500
    input_dim: 46168
    bias_term: false
    weight_filler {
      type: "uniform"
      min: -0.08
      max: 0.08
    }
  }
}
layer {
  name: "lstm1"
  type: "LSTM"
  bottom: "embedded_input_frames"
  bottom: "cont_sentence"
  top: "lstm1"
  recurrent_param {
    num_output: 1000
    weight_filler {
      type: "uniform"
      min: -0.08
      max: 0.08
    }
    bias_filler {
      type: "constant"
      value: 0
    }
  }
}
layer {
  name: "concat"
  type: "Concat"
  bottom: "lstm1"
  bottom: "embedded_input_sentence"
  bottom: "reshaped_stage_indicator"
  top: "lstm1_video_sequence"
  concat_param {
    concat_dim: 2
  }
}
layer {
  name: "lstm2"
  type: "LSTM"
  bottom: "lstm1_video_sequence"
  bottom: "cont_sentence"
  top: "lstm2"
  recurrent_param {
    num_output: 1000
    weight_filler {
      type: "uniform"
      min: -0.08
      max: 0.08
    }
    bias_filler {
      type: "constant"
      value: 0
    }
  }
}
layer {
  name: "predict"
  type: "InnerProduct"
  bottom: "lstm2"
  top: "predict"
  param {
    lr_mult: 1
    decay_mult: 1
  }
  param {
    lr_mult: 2
    decay_mult: 0
  }
  inner_product_param {
    num_output: 46168
    weight_filler {
      type: "uniform"
      min: -0.08
      max: 0.08
    }
    bias_filler {
      type: "constant"
      value: 0
    }
    axis: 2
  }
}
layer {
  name: "probs"
  type: "Softmax"
  bottom: "predict"
  top: "probs"
  softmax_param {
    axis: 2
  }
}
I0925 23:10:57.866003 25051 net.cpp:49] Initializing net from parameters: 
name: "s2vt:features_to_lstm"
state {
  phase: TEST
}
layer {
  name: "input"
  type: "Input"
  top: "frames_fc7"
  top: "cont_sentence"
  top: "input_sentence"
  top: "stage_indicator"
  input_param {
    shape {
      dim: 1
      dim: 4096
    }
    shape {
      dim: 1
      dim: 1
    }
    shape {
      dim: 1
      dim: 1
    }
    shape {
      dim: 1
      dim: 1
    }
  }
}
layer {
  name: "embed_encoder"
  type: "InnerProduct"
  bottom: "frames_fc7"
  top: "embedded_in_frames"
  param {
    lr_mult: 1
    decay_mult: 1
  }
  param {
    lr_mult: 2
    decay_mult: 0
  }
  inner_product_param {
    num_output: 500
    weight_filler {
      type: "xavier"
    }
    bias_filler {
      type: "constant"
      value: 0.2
    }
  }
}
layer {
  name: "reshape_frames"
  type: "Reshape"
  bottom: "embedded_in_frames"
  top: "embedded_input_frames"
  reshape_param {
    shape {
      dim: 1
      dim: 1
      dim: 500
    }
  }
}
layer {
  name: "reshape_stage_indicator"
  type: "Reshape"
  bottom: "stage_indicator"
  top: "reshaped_stage_indicator"
  reshape_param {
    shape {
      dim: 1
      dim: 1
      dim: 1
    }
  }
}
layer {
  name: "embedding"
  type: "Embed"
  bottom: "input_sentence"
  top: "embedded_input_sentence"
  param {
    lr_mult: 1
  }
  embed_param {
    num_output: 500
    input_dim: 46168
    bias_term: false
    weight_filler {
      type: "uniform"
      min: -0.08
      max: 0.08
    }
  }
}
layer {
  name: "lstm1"
  type: "LSTM"
  bottom: "embedded_input_frames"
  bottom: "cont_sentence"
  top: "lstm1"
  recurrent_param {
    num_output: 1000
    weight_filler {
      type: "uniform"
      min: -0.08
      max: 0.08
    }
    bias_filler {
      type: "constant"
      value: 0
    }
  }
}
layer {
  name: "concat"
  type: "Concat"
  bottom: "lstm1"
  bottom: "embedded_input_sentence"
  bottom: "reshaped_stage_indicator"
  top: "lstm1_video_sequence"
  concat_param {
    concat_dim: 2
  }
}
layer {
  name: "lstm2"
  type: "LSTM"
  bottom: "lstm1_video_sequence"
  bottom: "cont_sentence"
  top: "lstm2"
  recurrent_param {
    num_output: 1000
    weight_filler {
      type: "uniform"
      min: -0.08
      max: 0.08
    }
    bias_filler {
      type: "constant"
      value: 0
    }
  }
}
layer {
  name: "predict"
  type: "InnerProduct"
  bottom: "lstm2"
  top: "predict"
  param {
    lr_mult: 1
    decay_mult: 1
  }
  param {
    lr_mult: 2
    decay_mult: 0
  }
  inner_product_param {
    num_output: 46168
    weight_filler {
      type: "uniform"
      min: -0.08
      max: 0.08
    }
    bias_filler {
      type: "constant"
      value: 0
    }
    axis: 2
  }
}
layer {
  name: "probs"
  type: "Softmax"
  bottom: "predict"
  top: "probs"
  softmax_param {
    axis: 2
  }
}
I0925 23:10:57.866003 25009 net.cpp:49] Initializing net from parameters: 
name: "s2vt:features_to_lstm"
state {
  phase: TEST
}
layer {
  name: "input"
  type: "Input"
  top: "frames_fc7"
  top: "cont_sentence"
  top: "input_sentence"
  top: "stage_indicator"
  input_param {
    shape {
      dim: 1
      dim: 4096
    }
    shape {
      dim: 1
      dim: 1
    }
    shape {
      dim: 1
      dim: 1
    }
    shape {
      dim: 1
      dim: 1
    }
  }
}
layer {
  name: "embed_encoder"
  type: "InnerProduct"
  bottom: "frames_fc7"
  top: "embedded_in_frames"
  param {
    lr_mult: 1
    decay_mult: 1
  }
  param {
    lr_mult: 2
    decay_mult: 0
  }
  inner_product_param {
    num_output: 500
    weight_filler {
      type: "xavier"
    }
    bias_filler {
      type: "constant"
      value: 0.2
    }
  }
}
layer {
  name: "reshape_frames"
  type: "Reshape"
  bottom: "embedded_in_frames"
  top: "embedded_input_frames"
  reshape_param {
    shape {
      dim: 1
      dim: 1
      dim: 500
    }
  }
}
layer {
  name: "reshape_stage_indicator"
  type: "Reshape"
  bottom: "stage_indicator"
  top: "reshaped_stage_indicator"
  reshape_param {
    shape {
      dim: 1
      dim: 1
      dim: 1
    }
  }
}
layer {
  name: "embedding"
  type: "Embed"
  bottom: "input_sentence"
  top: "embedded_input_sentence"
  param {
    lr_mult: 1
  }
  embed_param {
    num_output: 500
    input_dim: 46168
    bias_term: false
    weight_filler {
      type: "uniform"
      min: -0.08
      max: 0.08
    }
  }
}
layer {
  name: "lstm1"
  type: "LSTM"
  bottom: "embedded_input_frames"
  bottom: "cont_sentence"
  top: "lstm1"
  recurrent_param {
    num_output: 1000
    weight_filler {
      type: "uniform"
      min: -0.08
      max: 0.08
    }
    bias_filler {
      type: "constant"
      value: 0
    }
  }
}
layer {
  name: "concat"
  type: "Concat"
  bottom: "lstm1"
  bottom: "embedded_input_sentence"
  bottom: "reshaped_stage_indicator"
  top: "lstm1_video_sequence"
  concat_param {
    concat_dim: 2
  }
}
layer {
  name: "lstm2"
  type: "LSTM"
  bottom: "lstm1_video_sequence"
  bottom: "cont_sentence"
  top: "lstm2"
  recurrent_param {
    num_output: 1000
    weight_filler {
      type: "uniform"
      min: -0.08
      max: 0.08
    }
    bias_filler {
      type: "constant"
      value: 0
    }
  }
}
layer {
  name: "predict"
  type: "InnerProduct"
  bottom: "lstm2"
  top: "predict"
  param {
    lr_mult: 1
    decay_mult: 1
  }
  param {
    lr_mult: 2
    decay_mult: 0
  }
  inner_product_param {
    num_output: 46168
    weight_filler {
      type: "uniform"
      min: -0.08
      max: 0.08
    }
    bias_filler {
      type: "constant"
      value: 0
    }
    axis: 2
  }
}
layer {
  name: "probs"
  type: "Softmax"
  bottom: "predict"
  top: "probs"
  softmax_param {
    axis: 2
  }
}
I0925 23:10:57.866003 25019 net.cpp:49] Initializing net from parameters: 
name: "s2vt:features_to_lstm"
state {
  phase: TEST
}
layer {
  name: "input"
  type: "Input"
  top: "frames_fc7"
  top: "cont_sentence"
  top: "input_sentence"
  top: "stage_indicator"
  input_param {
    shape {
      dim: 1
      dim: 4096
    }
    shape {
      dim: 1
      dim: 1
    }
    shape {
      dim: 1
      dim: 1
    }
    shape {
      dim: 1
      dim: 1
    }
  }
}
layer {
  name: "embed_encoder"
  type: "InnerProduct"
  bottom: "frames_fc7"
  top: "embedded_in_frames"
  param {
    lr_mult: 1
    decay_mult: 1
  }
  param {
    lr_mult: 2
    decay_mult: 0
  }
  inner_product_param {
    num_output: 500
    weight_filler {
      type: "xavier"
    }
    bias_filler {
      type: "constant"
      value: 0.2
    }
  }
}
layer {
  name: "reshape_frames"
  type: "Reshape"
  bottom: "embedded_in_frames"
  top: "embedded_input_frames"
  reshape_param {
    shape {
      dim: 1
      dim: 1
      dim: 500
    }
  }
}
layer {
  name: "reshape_stage_indicator"
  type: "Reshape"
  bottom: "stage_indicator"
  top: "reshaped_stage_indicator"
  reshape_param {
    shape {
      dim: 1
      dim: 1
      dim: 1
    }
  }
}
layer {
  name: "embedding"
  type: "Embed"
  bottom: "input_sentence"
  top: "embedded_input_sentence"
  param {
    lr_mult: 1
  }
  embed_param {
    num_output: 500
    input_dim: 46168
    bias_term: false
    weight_filler {
      type: "uniform"
      min: -0.08
      max: 0.08
    }
  }
}
layer {
  name: "lstm1"
  type: "LSTM"
  bottom: "embedded_input_frames"
  bottom: "cont_sentence"
  top: "lstm1"
  recurrent_param {
    num_output: 1000
    weight_filler {
      type: "uniform"
      min: -0.08
      max: 0.08
    }
    bias_filler {
      type: "constant"
      value: 0
    }
  }
}
layer {
  name: "concat"
  type: "Concat"
  bottom: "lstm1"
  bottom: "embedded_input_sentence"
  bottom: "reshaped_stage_indicator"
  top: "lstm1_video_sequence"
  concat_param {
    concat_dim: 2
  }
}
layer {
  name: "lstm2"
  type: "LSTM"
  bottom: "lstm1_video_sequence"
  bottom: "cont_sentence"
  top: "lstm2"
  recurrent_param {
    num_output: 1000
    weight_filler {
      type: "uniform"
      min: -0.08
      max: 0.08
    }
    bias_filler {
      type: "constant"
      value: 0
    }
  }
}
layer {
  name: "predict"
  type: "InnerProduct"
  bottom: "lstm2"
  top: "predict"
  param {
    lr_mult: 1
    decay_mult: 1
  }
  param {
    lr_mult: 2
    decay_mult: 0
  }
  inner_product_param {
    num_output: 46168
    weight_filler {
      type: "uniform"
      min: -0.08
      max: 0.08
    }
    bias_filler {
      type: "constant"
      value: 0
    }
    axis: 2
  }
}
layer {
  name: "probs"
  type: "Softmax"
  bottom: "predict"
  top: "probs"
  softmax_param {
    axis: 2
  }
}
I0925 23:10:57.866042 25035 layer_factory.hpp:77] Creating layer data
I0925 23:10:57.866075 25035 net.cpp:91] Creating Layer data
I0925 23:10:57.866089 25035 net.cpp:399] data -> data
I0925 23:10:57.866101 25059 layer_factory.hpp:77] Creating layer input
I0925 23:10:57.866111 25027 layer_factory.hpp:77] Creating layer input
I0925 23:10:57.866117 25051 layer_factory.hpp:77] Creating layer input
…
I0925 23:10:57.866255 25063 net.cpp:399] input -> input_sentence
I0925 23:10:57.866267 25063 net.cpp:399] input -> stage_indicator
I0925 23:10:57.866430 25013 net.cpp:49] Initializing net from parameters: 
name: "s2vt:features_to_lstm"
state {
  phase: TEST
}
layer {
  name: "input"
  type: "Input"
  top: "frames_fc7"
  top: "cont_sentence"
  top: "input_sentence"
  top: "stage_indicator"
  input_param {
    shape {
      dim: 1
      dim: 4096
    }
    shape {
      dim: 1
      dim: 1
    }
    shape {
      dim: 1
      dim: 1
    }
    shape {
      dim: 1
      dim: 1
    }
  }
}
layer {
  name: "embed_encoder"
  type: "InnerProduct"
  bottom: "frames_fc7"
  top: "embedded_in_frames"
  param {
    lr_mult: 1
    decay_mult: 1
  }
  param {
    lr_mult: 2
    decay_mult: 0
  }
  inner_product_param {
    num_output: 500
    weight_filler {
      type: "xavier"
    }
    bias_filler {
      type: "constant"
      value: 0.2
    }
  }
}
layer {
  name: "reshape_frames"
  type: "Reshape"
  bottom: "embedded_in_frames"
  top: "embedded_input_frames"
  reshape_param {
    shape {
      dim: 1
      dim: 1
      dim: 500
    }
  }
}
layer {
  name: "reshape_stage_indicator"
  type: "Reshape"
  bottom: "stage_indicator"
  top: "reshaped_stage_indicator"
  reshape_param {
    shape {
      dim: 1
      dim: 1
      dim: 1
    }
  }
}
layer {
  name: "embedding"
  type: "Embed"
  bottom: "input_sentence"
  top: "embedded_input_sentence"
  param {
    lr_mult: 1
  }
  embed_param {
    num_output: 500
    input_dim: 46168
    bias_term: false
    weight_filler {
      type: "uniform"
      min: -0.08
      max: 0.08
    }
  }
}
layer {
  name: "lstm1"
  type: "LSTM"
  bottom: "embedded_input_frames"
  bottom: "cont_sentence"
  top: "lstm1"
  recurrent_param {
    num_output: 1000
    weight_filler {
      type: "uniform"
      min: -0.08
      max: 0.08
    }
    bias_filler {
      type: "constant"
      value: 0
    }
  }
}
layer {
  name: "concat"
  type: "Concat"
  bottom: "lstm1"
  bottom: "embedded_input_sentence"
  bottom: "reshaped_stage_indicator"
  top: "lstm1_video_sequence"
  concat_param {
    concat_dim: 2
  }
}
layer {
  name: "lstm2"
  type: "LSTM"
  bottom: "lstm1_video_sequence"
  bottom: "cont_sentence"
  top: "lstm2"
  recurrent_param {
    num_output: 1000
    weight_filler {
      type: "uniform"
      min: -0.08
      max: 0.08
    }
    bias_filler {
      type: "constant"
      value: 0
    }
  }
}
layer {
  name: "predict"
  type: "InnerProduct"
  bottom: "lstm2"
  top: "predict"
  param {
    lr_mult: 1
    decay_mult: 1
  }
  param {
    lr_mult: 2
    decay_mult: 0
  }
  inner_product_param {
    num_output: 46168
    weight_filler {
      type: "uniform"
      min: -0.08
      max: 0.08
    }
    bias_filler {
      type: "constant"
      value: 0
    }
    axis: 2
  }
}
layer {
  name: "probs"
  type: "Softmax"
  bottom: "predict"
  top: "probs"
  softmax_param {
    axis: 2
  }
}
I0925 23:10:57.866622 25013 layer_factory.hpp:77] Creating layer input
I0925 23:10:57.866658 25013 net.cpp:91] Creating Layer input
I0925 23:10:57.866683 25013 net.cpp:399] input -> frames_fc7
I0925 23:10:57.866717 25013 net.cpp:399] input -> cont_sentence
I0925 23:10:57.866752 25013 net.cpp:399] input -> input_sentence
I0925 23:10:57.866786 25013 net.cpp:399] input -> stage_indicator
I0925 23:10:58.765951 25035 net.cpp:141] Setting up data
I0925 23:10:58.766101 25035 net.cpp:148] Top shape: 10 3 227 227 (1545870)
I0925 23:10:58.766113 25035 net.cpp:156] Memory required for data: 6183480
I0925 23:10:58.766149 25035 layer_factory.hpp:77] Creating layer conv1
I0925 23:10:58.766206 25035 net.cpp:91] Creating Layer conv1
I0925 23:10:58.766223 25035 net.cpp:425] conv1 <- data
I0925 23:10:58.766244 25035 net.cpp:399] conv1 -> conv1
I0925 23:10:58.766386 25059 net.cpp:141] Setting up input
I0925 23:10:58.766428 25059 net.cpp:148] Top shape: 1 4096 (4096)
I0925 23:10:58.766436 25059 net.cpp:148] Top shape: 1 1 (1)
I0925 23:10:58.766443 25059 net.cpp:148] Top shape: 1 1 (1)
I0925 23:10:58.766448 25059 net.cpp:148] Top shape: 1 1 (1)
I0925 23:10:58.766455 25059 net.cpp:156] Memory required for data: 16396
I0925 23:10:58.766469 25059 layer_factory.hpp:77] Creating layer cont_sentence_input_1_split
I0925 23:10:58.766495 25059 net.cpp:91] Creating Layer cont_sentence_input_1_split
I0925 23:10:58.766502 25059 net.cpp:425] cont_sentence_input_1_split <- cont_sentence
I0925 23:10:58.766511 25015 net.cpp:141] Setting up input
I0925 23:10:58.766533 25059 net.cpp:399] cont_sentence_input_1_split -> cont_sentence_input_1_split_0
I0925 23:10:58.766535 25015 net.cpp:148] Top shape: 1 4096 (4096)
I0925 23:10:58.766547 25015 net.cpp:148] Top shape: 1 1 (1)
I0925 23:10:58.766548 25059 net.cpp:399] cont_sentence_input_1_split -> cont_sentence_input_1_split_1
I0925 23:10:58.766572 25015 net.cpp:148] Top shape: 1 1 (1)
I0925 23:10:58.766563 25033 net.cpp:141] Setting up input
I0925 23:10:58.766583 25015 net.cpp:148] Top shape: 1 1 (1)
I0925 23:10:58.766613 25015 net.cpp:156] Memory required for data: 16396
I0925 23:10:58.766616 25033 net.cpp:148] Top shape: 1 4096 (4096)
I0925 23:10:58.766623 25015 layer_factory.hpp:77] Creating layer cont_sentence_input_1_split
I0925 23:10:58.766631 25033 net.cpp:148] Top shape: 1 1 (1)
I0925 23:10:58.766643 25033 net.cpp:148] Top shape: 1 1 (1)
I0925 23:10:58.766641 25015 net.cpp:91] Creating Layer cont_sentence_input_1_split
I0925 23:10:58.766652 25033 net.cpp:148] Top shape: 1 1 (1)
I0925 23:10:58.766655 25015 net.cpp:425] cont_sentence_input_1_split <- cont_sentence
I0925 23:10:58.766660 25033 net.cpp:156] Memory required for data: 16396
I0925 23:10:58.766669 25033 layer_factory.hpp:77] Creating layer cont_sentence_input_1_split
I0925 23:10:58.766671 25015 net.cpp:399] cont_sentence_input_1_split -> cont_sentence_input_1_split_0
I0925 23:10:58.766688 25033 net.cpp:91] Creating Layer cont_sentence_input_1_split
I0925 23:10:58.766690 25015 net.cpp:399] cont_sentence_input_1_split -> cont_sentence_input_1_split_1
I0925 23:10:58.766703 25033 net.cpp:425] cont_sentence_input_1_split <- cont_sentence
I0925 23:10:58.766737 25033 net.cpp:399] cont_sentence_input_1_split -> cont_sentence_input_1_split_0
I0925 23:10:58.766757 25033 net.cpp:399] cont_sentence_input_1_split -> cont_sentence_input_1_split_1
I0925 23:10:58.766865 25009 net.cpp:141] Setting up input
I0925 23:10:58.766886 25009 net.cpp:148] Top shape: 1 4096 (4096)
I0925 23:10:58.766898 25009 net.cpp:148] Top shape: 1 1 (1)
I0925 23:10:58.766909 25009 net.cpp:148] Top shape: 1 1 (1)
I0925 23:10:58.766918 25009 net.cpp:148] Top shape: 1 1 (1)
I0925 23:10:58.766926 25009 net.cpp:156] Memory required for data: 16396
I0925 23:10:58.766933 25009 layer_factory.hpp:77] Creating layer cont_sentence_input_1_split
I0925 23:10:58.766947 25059 net.cpp:141] Setting up cont_sentence_input_1_split
I0925 23:10:58.766948 25009 net.cpp:91] Creating Layer cont_sentence_input_1_split
I0925 23:10:58.766968 25059 net.cpp:148] Top shape: 1 1 (1)
I0925 23:10:58.766975 25027 net.cpp:141] Setting up input
I0925 23:10:58.766971 25009 net.cpp:425] cont_sentence_input_1_split <- cont_sentence
I0925 23:10:58.766993 25027 net.cpp:148] Top shape: 1 4096 (4096)
I0925 23:10:58.766985 25059 net.cpp:148] Top shape: 1 1 (1)
I0925 23:10:58.767006 25009 net.cpp:399] cont_sentence_input_1_split -> cont_sentence_input_1_split_0
I0925 23:10:58.767007 25027 net.cpp:148] Top shape: 1 1 (1)
I0925 23:10:58.767007 25059 net.cpp:156] Memory required for data: 16404
I0925 23:10:58.767029 25009 net.cpp:399] cont_sentence_input_1_split -> cont_sentence_input_1_split_1
I0925 23:10:58.767031 25027 net.cpp:148] Top shape: 1 1 (1)
I0925 23:10:58.767032 25059 layer_factory.hpp:77] Creating layer embed_encoder
I0925 23:10:58.767045 25027 net.cpp:148] Top shape: 1 1 (1)
I0925 23:10:58.767053 25027 net.cpp:156] Memory required for data: 16396
I0925 23:10:58.767067 25027 layer_factory.hpp:77] Creating layer cont_sentence_input_1_split
I0925 23:10:58.767071 25059 net.cpp:91] Creating Layer embed_encoder
I0925 23:10:58.767081 25059 net.cpp:425] embed_encoder <- frames_fc7
I0925 23:10:58.767082 25027 net.cpp:91] Creating Layer cont_sentence_input_1_split
I0925 23:10:58.767091 25027 net.cpp:425] cont_sentence_input_1_split <- cont_sentence
I0925 23:10:58.767097 25059 net.cpp:399] embed_encoder -> embedded_in_frames
I0925 23:10:58.767103 25027 net.cpp:399] cont_sentence_input_1_split -> cont_sentence_input_1_split_0
I0925 23:10:58.767119 25027 net.cpp:399] cont_sentence_input_1_split -> cont_sentence_input_1_split_1
I0925 23:10:58.767123 25009 net.cpp:141] Setting up cont_sentence_input_1_split
I0925 23:10:58.767138 25009 net.cpp:148] Top shape: 1 1 (1)
I0925 23:10:58.767148 25009 net.cpp:148] Top shape: 1 1 (1)
I0925 23:10:58.767155 25009 net.cpp:156] Memory required for data: 16404
I0925 23:10:58.767163 25009 layer_factory.hpp:77] Creating layer embed_encoder
I0925 23:10:58.767180 25009 net.cpp:91] Creating Layer embed_encoder
I0925 23:10:58.767189 25009 net.cpp:425] embed_encoder <- frames_fc7
I0925 23:10:58.767189 25027 net.cpp:141] Setting up cont_sentence_input_1_split
I0925 23:10:58.767208 25009 net.cpp:399] embed_encoder -> embedded_in_frames
I0925 23:10:58.767218 25027 net.cpp:148] Top shape: 1 1 (1)
I0925 23:10:58.767231 25027 net.cpp:148] Top shape: 1 1 (1)
I0925 23:10:58.767241 25027 net.cpp:156] Memory required for data: 16404
I0925 23:10:58.767249 25027 layer_factory.hpp:77] Creating layer embed_encoder
I0925 23:10:58.767266 25027 net.cpp:91] Creating Layer embed_encoder
I0925 23:10:58.767271 25027 net.cpp:425] embed_encoder <- frames_fc7
I0925 23:10:58.767279 25027 net.cpp:399] embed_encoder -> embedded_in_frames
I0925 23:10:58.767388 25051 net.cpp:141] Setting up input
I0925 23:10:58.767412 25051 net.cpp:148] Top shape: 1 4096 (4096)
I0925 23:10:58.767424 25051 net.cpp:148] Top shape: 1 1 (1)
I0925 23:10:58.767436 25051 net.cpp:148] Top shape: 1 1 (1)
I0925 23:10:58.767444 25051 net.cpp:148] Top shape: 1 1 (1)
I0925 23:10:58.767452 25051 net.cpp:156] Memory required for data: 16396
I0925 23:10:58.767460 25051 layer_factory.hpp:77] Creating layer cont_sentence_input_1_split
I0925 23:10:58.767475 25051 net.cpp:91] Creating Layer cont_sentence_input_1_split
I0925 23:10:58.767484 25051 net.cpp:425] cont_sentence_input_1_split <- cont_sentence
I0925 23:10:58.767499 25051 net.cpp:399] cont_sentence_input_1_split -> cont_sentence_input_1_split_0
I0925 23:10:58.767516 25051 net.cpp:399] cont_sentence_input_1_split -> cont_sentence_input_1_split_1
I0925 23:10:58.767714 25015 net.cpp:141] Setting up cont_sentence_input_1_split
I0925 23:10:58.767730 25015 net.cpp:148] Top shape: 1 1 (1)
I0925 23:10:58.767740 25015 net.cpp:148] Top shape: 1 1 (1)
I0925 23:10:58.767747 25015 net.cpp:156] Memory required for data: 16404
I0925 23:10:58.767755 25015 layer_factory.hpp:77] Creating layer embed_encoder
I0925 23:10:58.767773 25015 net.cpp:91] Creating Layer embed_encoder
I0925 23:10:58.767781 25015 net.cpp:425] embed_encoder <- frames_fc7
I0925 23:10:58.767797 25015 net.cpp:399] embed_encoder -> embedded_in_frames
I0925 23:10:58.773455 25051 net.cpp:141] Setting up cont_sentence_input_1_split
I0925 23:10:58.773506 25051 net.cpp:148] Top shape: 1 1 (1)
I0925 23:10:58.773514 25051 net.cpp:148] Top shape: 1 1 (1)
I0925 23:10:58.773510 25019 net.cpp:141] Setting up input
I0925 23:10:58.773519 25051 net.cpp:156] Memory required for data: 16404
I0925 23:10:58.773540 25051 layer_factory.hpp:77] Creating layer embed_encoder
I0925 23:10:58.773540 25019 net.cpp:148] Top shape: 1 4096 (4096)
I0925 23:10:58.773555 25019 net.cpp:148] Top shape: 1 1 (1)
I0925 23:10:58.773563 25051 net.cpp:91] Creating Layer embed_encoder
I0925 23:10:58.773567 25019 net.cpp:148] Top shape: 1 1 (1)
I0925 23:10:58.773571 25051 net.cpp:425] embed_encoder <- frames_fc7
I0925 23:10:58.773581 25019 net.cpp:148] Top shape: 1 1 (1)
I0925 23:10:58.773587 25051 net.cpp:399] embed_encoder -> embedded_in_frames
I0925 23:10:58.773591 25019 net.cpp:156] Memory required for data: 16396
I0925 23:10:58.773602 25019 layer_factory.hpp:77] Creating layer cont_sentence_input_1_split
I0925 23:10:58.773672 25019 net.cpp:91] Creating Layer cont_sentence_input_1_split
I0925 23:10:58.773685 25019 net.cpp:425] cont_sentence_input_1_split <- cont_sentence
I0925 23:10:58.773700 25019 net.cpp:399] cont_sentence_input_1_split -> cont_sentence_input_1_split_0
I0925 23:10:58.773721 25019 net.cpp:399] cont_sentence_input_1_split -> cont_sentence_input_1_split_1
I0925 23:10:58.778506 25033 net.cpp:141] Setting up cont_sentence_input_1_split
I0925 23:10:58.778563 25033 net.cpp:148] Top shape: 1 1 (1)
I0925 23:10:58.778574 25033 net.cpp:148] Top shape: 1 1 (1)
I0925 23:10:58.778581 25033 net.cpp:156] Memory required for data: 16404
I0925 23:10:58.778594 25033 layer_factory.hpp:77] Creating layer embed_encoder
I0925 23:10:58.778645 25033 net.cpp:91] Creating Layer embed_encoder
I0925 23:10:58.778658 25033 net.cpp:425] embed_encoder <- frames_fc7
I0925 23:10:58.778676 25033 net.cpp:399] embed_encoder -> embedded_in_frames
I0925 23:10:58.785575 25063 net.cpp:141] Setting up input
I0925 23:10:58.785635 25063 net.cpp:148] Top shape: 1 4096 (4096)
I0925 23:10:58.785650 25063 net.cpp:148] Top shape: 1 1 (1)
I0925 23:10:58.785663 25063 net.cpp:148] Top shape: 1 1 (1)
I0925 23:10:58.785676 25063 net.cpp:148] Top shape: 1 1 (1)
I0925 23:10:58.785684 25063 net.cpp:156] Memory required for data: 16396
I0925 23:10:58.785698 25063 layer_factory.hpp:77] Creating layer cont_sentence_input_1_split
I0925 23:10:58.785730 25063 net.cpp:91] Creating Layer cont_sentence_input_1_split
I0925 23:10:58.785742 25063 net.cpp:425] cont_sentence_input_1_split <- cont_sentence
I0925 23:10:58.785761 25063 net.cpp:399] cont_sentence_input_1_split -> cont_sentence_input_1_split_0
I0925 23:10:58.785785 25063 net.cpp:399] cont_sentence_input_1_split -> cont_sentence_input_1_split_1
I0925 23:10:58.785908 25013 net.cpp:141] Setting up input
I0925 23:10:58.785928 25013 net.cpp:148] Top shape: 1 4096 (4096)
I0925 23:10:58.785938 25013 net.cpp:148] Top shape: 1 1 (1)
I0925 23:10:58.785948 25013 net.cpp:148] Top shape: 1 1 (1)
I0925 23:10:58.785956 25013 net.cpp:148] Top shape: 1 1 (1)
I0925 23:10:58.785964 25013 net.cpp:156] Memory required for data: 16396
I0925 23:10:58.785971 25013 layer_factory.hpp:77] Creating layer cont_sentence_input_1_split
I0925 23:10:58.785986 25013 net.cpp:91] Creating Layer cont_sentence_input_1_split
I0925 23:10:58.785995 25013 net.cpp:425] cont_sentence_input_1_split <- cont_sentence
I0925 23:10:58.786005 25013 net.cpp:399] cont_sentence_input_1_split -> cont_sentence_input_1_split_0
I0925 23:10:58.786022 25013 net.cpp:399] cont_sentence_input_1_split -> cont_sentence_input_1_split_1
I0925 23:10:58.800012 25063 net.cpp:141] Setting up cont_sentence_input_1_split
I0925 23:10:58.800072 25063 net.cpp:148] Top shape: 1 1 (1)
I0925 23:10:58.800086 25063 net.cpp:148] Top shape: 1 1 (1)
I0925 23:10:58.800094 25063 net.cpp:156] Memory required for data: 16404
I0925 23:10:58.800107 25063 layer_factory.hpp:77] Creating layer embed_encoder
I0925 23:10:58.800143 25063 net.cpp:91] Creating Layer embed_encoder
I0925 23:10:58.800155 25063 net.cpp:425] embed_encoder <- frames_fc7
I0925 23:10:58.800174 25063 net.cpp:399] embed_encoder -> embedded_in_frames
I0925 23:10:58.806721 25013 net.cpp:141] Setting up cont_sentence_input_1_split
I0925 23:10:58.806774 25013 net.cpp:148] Top shape: 1 1 (1)
I0925 23:10:58.806787 25013 net.cpp:148] Top shape: 1 1 (1)
I0925 23:10:58.806794 25013 net.cpp:156] Memory required for data: 16404
I0925 23:10:58.806807 25013 layer_factory.hpp:77] Creating layer embed_encoder
I0925 23:10:58.806891 25013 net.cpp:91] Creating Layer embed_encoder
I0925 23:10:58.806905 25013 net.cpp:425] embed_encoder <- frames_fc7
I0925 23:10:58.806922 25013 net.cpp:399] embed_encoder -> embedded_in_frames
I0925 23:10:58.808112 25027 net.cpp:141] Setting up embed_encoder
I0925 23:10:58.808149 25027 net.cpp:148] Top shape: 1 500 (500)
I0925 23:10:58.808161 25027 net.cpp:156] Memory required for data: 18404
I0925 23:10:58.808197 25027 layer_factory.hpp:77] Creating layer reshape_frames
I0925 23:10:58.808233 25027 net.cpp:91] Creating Layer reshape_frames
I0925 23:10:58.808244 25027 net.cpp:425] reshape_frames <- embedded_in_frames
I0925 23:10:58.808259 25027 net.cpp:399] reshape_frames -> embedded_input_frames
I0925 23:10:58.808328 25027 net.cpp:141] Setting up reshape_frames
I0925 23:10:58.808346 25027 net.cpp:148] Top shape: 1 1 500 (500)
I0925 23:10:58.808353 25027 net.cpp:156] Memory required for data: 20404
I0925 23:10:58.808362 25027 layer_factory.hpp:77] Creating layer reshape_stage_indicator
I0925 23:10:58.808408 25027 net.cpp:91] Creating Layer reshape_stage_indicator
I0925 23:10:58.808423 25027 net.cpp:425] reshape_stage_indicator <- stage_indicator
I0925 23:10:58.808437 25027 net.cpp:399] reshape_stage_indicator -> reshaped_stage_indicator
I0925 23:10:58.810192 25019 net.cpp:141] Setting up cont_sentence_input_1_split
I0925 23:10:58.810231 25019 net.cpp:148] Top shape: 1 1 (1)
I0925 23:10:58.810242 25019 net.cpp:148] Top shape: 1 1 (1)
I0925 23:10:58.810250 25019 net.cpp:156] Memory required for data: 16404
I0925 23:10:58.810258 25019 layer_factory.hpp:77] Creating layer embed_encoder
I0925 23:10:58.810282 25019 net.cpp:91] Creating Layer embed_encoder
I0925 23:10:58.810292 25019 net.cpp:425] embed_encoder <- frames_fc7
I0925 23:10:58.810307 25019 net.cpp:399] embed_encoder -> embedded_in_frames
I0925 23:10:58.830629 25059 net.cpp:141] Setting up embed_encoder
I0925 23:10:58.830679 25059 net.cpp:148] Top shape: 1 500 (500)
I0925 23:10:58.830685 25059 net.cpp:156] Memory required for data: 18404
I0925 23:10:58.830706 25059 layer_factory.hpp:77] Creating layer reshape_frames
I0925 23:10:58.830727 25059 net.cpp:91] Creating Layer reshape_frames
I0925 23:10:58.830735 25059 net.cpp:425] reshape_frames <- embedded_in_frames
I0925 23:10:58.830746 25059 net.cpp:399] reshape_frames -> embedded_input_frames
I0925 23:10:58.830835 25027 net.cpp:141] Setting up reshape_stage_indicator
I0925 23:10:58.830853 25027 net.cpp:148] Top shape: 1 1 1 (1)
I0925 23:10:58.830859 25027 net.cpp:156] Memory required for data: 20408
I0925 23:10:58.830864 25027 layer_factory.hpp:77] Creating layer embedding
I0925 23:10:58.830885 25027 net.cpp:91] Creating Layer embedding
I0925 23:10:58.830891 25027 net.cpp:425] embedding <- input_sentence
I0925 23:10:58.830901 25027 net.cpp:399] embedding -> embedded_input_sentence
I0925 23:10:58.831377 25009 net.cpp:141] Setting up embed_encoder
I0925 23:10:58.831398 25009 net.cpp:148] Top shape: 1 500 (500)
I0925 23:10:58.831406 25009 net.cpp:156] Memory required for data: 18404
I0925 23:10:58.831426 25009 layer_factory.hpp:77] Creating layer reshape_frames
I0925 23:10:58.831437 25009 net.cpp:91] Creating Layer reshape_frames
I0925 23:10:58.831444 25009 net.cpp:425] reshape_frames <- embedded_in_frames
I0925 23:10:58.831455 25009 net.cpp:399] reshape_frames -> embedded_input_frames
I0925 23:10:58.831512 25009 net.cpp:141] Setting up reshape_frames
I0925 23:10:58.831521 25009 net.cpp:148] Top shape: 1 1 500 (500)
I0925 23:10:58.831526 25009 net.cpp:156] Memory required for data: 20404
I0925 23:10:58.831531 25009 layer_factory.hpp:77] Creating layer reshape_stage_indicator
I0925 23:10:58.831542 25009 net.cpp:91] Creating Layer reshape_stage_indicator
I0925 23:10:58.831547 25009 net.cpp:425] reshape_stage_indicator <- stage_indicator
I0925 23:10:58.831555 25009 net.cpp:399] reshape_stage_indicator -> reshaped_stage_indicator
I0925 23:10:58.831600 25009 net.cpp:141] Setting up reshape_stage_indicator
I0925 23:10:58.831609 25009 net.cpp:148] Top shape: 1 1 1 (1)
I0925 23:10:58.831614 25009 net.cpp:156] Memory required for data: 20408
I0925 23:10:58.831619 25009 layer_factory.hpp:77] Creating layer embedding
I0925 23:10:58.831629 25009 net.cpp:91] Creating Layer embedding
I0925 23:10:58.831634 25009 net.cpp:425] embedding <- input_sentence
I0925 23:10:58.831642 25009 net.cpp:399] embedding -> embedded_input_sentence
I0925 23:10:58.831730 25015 net.cpp:141] Setting up embed_encoder
I0925 23:10:58.831773 25015 net.cpp:148] Top shape: 1 500 (500)
I0925 23:10:58.831780 25015 net.cpp:156] Memory required for data: 18404
I0925 23:10:58.831810 25015 layer_factory.hpp:77] Creating layer reshape_frames
I0925 23:10:58.831835 25015 net.cpp:91] Creating Layer reshape_frames
I0925 23:10:58.831845 25015 net.cpp:425] reshape_frames <- embedded_in_frames
I0925 23:10:58.831862 25015 net.cpp:399] reshape_frames -> embedded_input_frames
I0925 23:10:58.831923 25015 net.cpp:141] Setting up reshape_frames
I0925 23:10:58.831935 25015 net.cpp:148] Top shape: 1 1 500 (500)
I0925 23:10:58.831944 25015 net.cpp:156] Memory required for data: 20404
I0925 23:10:58.831953 25015 layer_factory.hpp:77] Creating layer reshape_stage_indicator
I0925 23:10:58.831975 25015 net.cpp:91] Creating Layer reshape_stage_indicator
I0925 23:10:58.831986 25015 net.cpp:425] reshape_stage_indicator <- stage_indicator
I0925 23:10:58.832002 25015 net.cpp:399] reshape_stage_indicator -> reshaped_stage_indicator
I0925 23:10:58.832049 25015 net.cpp:141] Setting up reshape_stage_indicator
I0925 23:10:58.832064 25015 net.cpp:148] Top shape: 1 1 1 (1)
I0925 23:10:58.832074 25015 net.cpp:156] Memory required for data: 20408
I0925 23:10:58.832082 25015 layer_factory.hpp:77] Creating layer embedding
I0925 23:10:58.832104 25015 net.cpp:91] Creating Layer embedding
I0925 23:10:58.832113 25015 net.cpp:425] embedding <- input_sentence
I0925 23:10:58.832125 25015 net.cpp:399] embedding -> embedded_input_sentence
I0925 23:10:58.884110 25059 net.cpp:141] Setting up reshape_frames
I0925 23:10:58.884744 25059 net.cpp:148] Top shape: 1 1 500 (500)
I0925 23:10:58.884907 25059 net.cpp:156] Memory required for data: 20404
I0925 23:10:58.884927 25059 layer_factory.hpp:77] Creating layer reshape_stage_indicator
I0925 23:10:58.884963 25059 net.cpp:91] Creating Layer reshape_stage_indicator
I0925 23:10:58.884974 25059 net.cpp:425] reshape_stage_indicator <- stage_indicator
I0925 23:10:58.884992 25059 net.cpp:399] reshape_stage_indicator -> reshaped_stage_indicator
I0925 23:10:58.938753 25033 net.cpp:141] Setting up embed_encoder
I0925 23:10:58.938819 25033 net.cpp:148] Top shape: 1 500 (500)
I0925 23:10:58.938827 25033 net.cpp:156] Memory required for data: 18404
I0925 23:10:58.938856 25033 layer_factory.hpp:77] Creating layer reshape_frames
I0925 23:10:58.938885 25033 net.cpp:91] Creating Layer reshape_frames
I0925 23:10:58.938899 25033 net.cpp:425] reshape_frames <- embedded_in_frames
I0925 23:10:58.938913 25033 net.cpp:399] reshape_frames -> embedded_input_frames
I0925 23:10:58.939391 25063 net.cpp:141] Setting up embed_encoder
I0925 23:10:58.939411 25063 net.cpp:148] Top shape: 1 500 (500)
I0925 23:10:58.939417 25063 net.cpp:156] Memory required for data: 18404
I0925 23:10:58.939435 25063 layer_factory.hpp:77] Creating layer reshape_frames
I0925 23:10:58.939481 25063 net.cpp:91] Creating Layer reshape_frames
I0925 23:10:58.939491 25063 net.cpp:425] reshape_frames <- embedded_in_frames
I0925 23:10:58.939502 25063 net.cpp:399] reshape_frames -> embedded_input_frames
I0925 23:10:58.980406 25059 net.cpp:141] Setting up reshape_stage_indicator
I0925 23:10:58.980463 25059 net.cpp:148] Top shape: 1 1 1 (1)
I0925 23:10:58.980474 25059 net.cpp:156] Memory required for data: 20408
I0925 23:10:58.980486 25059 layer_factory.hpp:77] Creating layer embedding
I0925 23:10:58.980515 25059 net.cpp:91] Creating Layer embedding
I0925 23:10:58.980515 25051 net.cpp:141] Setting up embed_encoder
I0925 23:10:58.980528 25059 net.cpp:425] embedding <- input_sentence
I0925 23:10:58.980536 25051 net.cpp:148] Top shape: 1 500 (500)
I0925 23:10:58.980545 25051 net.cpp:156] Memory required for data: 18404
I0925 23:10:58.980552 25059 net.cpp:399] embedding -> embedded_input_sentence
I0925 23:10:58.980571 25051 layer_factory.hpp:77] Creating layer reshape_frames
I0925 23:10:58.980590 25051 net.cpp:91] Creating Layer reshape_frames
I0925 23:10:58.980599 25051 net.cpp:425] reshape_frames <- embedded_in_frames
I0925 23:10:58.980613 25051 net.cpp:399] reshape_frames -> embedded_input_frames
I0925 23:10:59.034298 25033 net.cpp:141] Setting up reshape_frames
I0925 23:10:59.034385 25033 net.cpp:148] Top shape: 1 1 500 (500)
I0925 23:10:59.034406 25033 net.cpp:156] Memory required for data: 20404
I0925 23:10:59.034425 25033 layer_factory.hpp:77] Creating layer reshape_stage_indicator
I0925 23:10:59.034466 25033 net.cpp:91] Creating Layer reshape_stage_indicator
I0925 23:10:59.034487 25033 net.cpp:425] reshape_stage_indicator <- stage_indicator
I0925 23:10:59.034523 25033 net.cpp:399] reshape_stage_indicator -> reshaped_stage_indicator
I0925 23:10:59.038094 25063 net.cpp:141] Setting up reshape_frames
I0925 23:10:59.038156 25063 net.cpp:148] Top shape: 1 1 500 (500)
I0925 23:10:59.038163 25063 net.cpp:156] Memory required for data: 20404
I0925 23:10:59.038174 25063 layer_factory.hpp:77] Creating layer reshape_stage_indicator
I0925 23:10:59.038200 25063 net.cpp:91] Creating Layer reshape_stage_indicator
I0925 23:10:59.038210 25063 net.cpp:425] reshape_stage_indicator <- stage_indicator
I0925 23:10:59.038233 25063 net.cpp:399] reshape_stage_indicator -> reshaped_stage_indicator
I0925 23:10:59.038302 25063 net.cpp:141] Setting up reshape_stage_indicator
I0925 23:10:59.038313 25063 net.cpp:148] Top shape: 1 1 1 (1)
I0925 23:10:59.038318 25063 net.cpp:156] Memory required for data: 20408
I0925 23:10:59.038323 25063 layer_factory.hpp:77] Creating layer embedding
I0925 23:10:59.038338 25063 net.cpp:91] Creating Layer embedding
I0925 23:10:59.038344 25063 net.cpp:425] embedding <- input_sentence
I0925 23:10:59.038353 25033 net.cpp:141] Setting up reshape_stage_indicator
I0925 23:10:59.038353 25063 net.cpp:399] embedding -> embedded_input_sentence
I0925 23:10:59.038395 25033 net.cpp:148] Top shape: 1 1 1 (1)
I0925 23:10:59.038403 25033 net.cpp:156] Memory required for data: 20408
I0925 23:10:59.038408 25033 layer_factory.hpp:77] Creating layer embedding
I0925 23:10:59.038420 25033 net.cpp:91] Creating Layer embedding
I0925 23:10:59.038426 25033 net.cpp:425] embedding <- input_sentence
I0925 23:10:59.038440 25033 net.cpp:399] embedding -> embedded_input_sentence
I0925 23:10:59.038480 25051 net.cpp:141] Setting up reshape_frames
I0925 23:10:59.038498 25051 net.cpp:148] Top shape: 1 1 500 (500)
I0925 23:10:59.038507 25051 net.cpp:156] Memory required for data: 20404
I0925 23:10:59.038516 25051 layer_factory.hpp:77] Creating layer reshape_stage_indicator
I0925 23:10:59.038539 25051 net.cpp:91] Creating Layer reshape_stage_indicator
I0925 23:10:59.038548 25051 net.cpp:425] reshape_stage_indicator <- stage_indicator
I0925 23:10:59.038558 25051 net.cpp:399] reshape_stage_indicator -> reshaped_stage_indicator
I0925 23:10:59.038631 25051 net.cpp:141] Setting up reshape_stage_indicator
I0925 23:10:59.038646 25051 net.cpp:148] Top shape: 1 1 1 (1)
I0925 23:10:59.038653 25051 net.cpp:156] Memory required for data: 20408
I0925 23:10:59.038661 25051 layer_factory.hpp:77] Creating layer embedding
I0925 23:10:59.038673 25051 net.cpp:91] Creating Layer embedding
I0925 23:10:59.038681 25051 net.cpp:425] embedding <- input_sentence
I0925 23:10:59.038697 25051 net.cpp:399] embedding -> embedded_input_sentence
I0925 23:10:59.038774 25019 net.cpp:141] Setting up embed_encoder
I0925 23:10:59.038806 25019 net.cpp:148] Top shape: 1 500 (500)
I0925 23:10:59.038822 25019 net.cpp:156] Memory required for data: 18404
I0925 23:10:59.038859 25019 layer_factory.hpp:77] Creating layer reshape_frames
I0925 23:10:59.038895 25019 net.cpp:91] Creating Layer reshape_frames
I0925 23:10:59.038914 25019 net.cpp:425] reshape_frames <- embedded_in_frames
I0925 23:10:59.038939 25019 net.cpp:399] reshape_frames -> embedded_input_frames
I0925 23:10:59.082213 25019 net.cpp:141] Setting up reshape_frames
I0925 23:10:59.082263 25019 net.cpp:148] Top shape: 1 1 500 (500)
I0925 23:10:59.082275 25019 net.cpp:156] Memory required for data: 20404
I0925 23:10:59.082286 25019 layer_factory.hpp:77] Creating layer reshape_stage_indicator
I0925 23:10:59.082312 25019 net.cpp:91] Creating Layer reshape_stage_indicator
I0925 23:10:59.082322 25019 net.cpp:425] reshape_stage_indicator <- stage_indicator
I0925 23:10:59.082346 25019 net.cpp:399] reshape_stage_indicator -> reshaped_stage_indicator
I0925 23:10:59.126441 25015 net.cpp:141] Setting up embedding
I0925 23:10:59.126515 25015 net.cpp:148] Top shape: 1 1 500 (500)
I0925 23:10:59.126525 25015 net.cpp:156] Memory required for data: 22408
I0925 23:10:59.126556 25015 layer_factory.hpp:77] Creating layer lstm1
I0925 23:10:59.126606 25015 net.cpp:91] Creating Layer lstm1
I0925 23:10:59.126621 25015 net.cpp:425] lstm1 <- embedded_input_frames
I0925 23:10:59.126636 25015 net.cpp:425] lstm1 <- cont_sentence_input_1_split_0
I0925 23:10:59.126657 25015 net.cpp:399] lstm1 -> lstm1
I0925 23:10:59.126718 25015 recurrent_layer.cpp:20] Initializing recurrent layer: assuming input batch contains 1 timesteps of 1 independent streams.
I0925 23:10:59.127446 25015 net.cpp:49] Initializing net from parameters: 
layer {
  name: "lstm1_"
  type: "Input"
  top: "x"
  top: "cont"
  input_param {
    shape {
      dim: 1
      dim: 1
      dim: 500
    }
    shape {
      dim: 1
      dim: 1
    }
  }
}
layer {
  name: "lstm1_"
  type: "Input"
  top: "c_0"
  top: "h_0"
  input_param {
    shape {
      dim: 1
      dim: 1
      dim: 1000
    }
    shape {
      dim: 1
      dim: 1
      dim: 1000
    }
  }
}
layer {
  name: "lstm1_cont_slice"
  type: "Slice"
  bottom: "cont"
  top: "cont_1"
  slice_param {
    axis: 0
  }
}
layer {
  name: "lstm1_x_transform"
  type: "InnerProduct"
  bottom: "x"
  top: "W_xc_x"
  param {
    name: "W_xc"
  }
  param {
    name: "b_c"
  }
  propagate_down: true
  inner_product_param {
    num_output: 4000
    bias_term: true
    weight_filler {
      type: "uniform"
      min: -0.08
      max: 0.08
    }
    bias_filler {
      type: "constant"
      value: 0
    }
    axis: 2
  }
}
layer {
  name: "lstm1_W_xc_x_slice"
  type: "Slice"
  bottom: "W_xc_x"
  top: "W_xc_x_1"
  slice_param {
    axis: 0
  }
}
layer {
  name: "lstm1_h_conted_0"
  type: "Scale"
  bottom: "h_0"
  bottom: "cont_1"
  top: "h_conted_0"
  scale_param {
    axis: 0
  }
}
layer {
  name: "lstm1_transform_1"
  type: "InnerProduct"
  bottom: "h_conted_0"
  top: "W_hc_h_0"
  param {
    name: "W_hc"
  }
  inner_product_param {
    num_output: 4000
    bias_term: false
    weight_filler {
      type: "uniform"
      min: -0.08
      max: 0.08
    }
    axis: 2
  }
}
layer {
  name: "lstm1_gate_input_1"
  type: "Eltwise"
  bottom: "W_hc_h_0"
  bottom: "W_xc_x_1"
  top: "gate_input_1"
  eltwise_param {
    operation: SUM
  }
}
layer {
  name: "lstm1_unit_1"
  type: "LSTMUnit"
  bottom: "c_0"
  bottom: "gate_input_1"
  bottom: "cont_1"
  top: "c_1"
  top: "h_1"
}
layer {
  name: "lstm1_"
  type: "Split"
  bottom: "c_1"
  top: "c_T"
}
layer {
  name: "lstm1_h_concat"
  type: "Concat"
  bottom: "h_1"
  top: "h"
  concat_param {
    axis: 0
  }
}
layer {
  name: "h_pseudoloss"
  type: "Reduction"
  bottom: "h"
  top: "h_pseudoloss"
  loss_weight: 1
}
I0925 23:10:59.127665 25015 layer_factory.hpp:77] Creating layer lstm1_
I0925 23:10:59.127722 25015 net.cpp:91] Creating Layer lstm1_
I0925 23:10:59.127739 25015 net.cpp:399] lstm1_ -> x
I0925 23:10:59.127769 25015 net.cpp:399] lstm1_ -> cont
I0925 23:10:59.192040 25019 net.cpp:141] Setting up reshape_stage_indicator
I0925 23:10:59.192097 25019 net.cpp:148] Top shape: 1 1 1 (1)
I0925 23:10:59.192111 25019 net.cpp:156] Memory required for data: 20408
I0925 23:10:59.192126 25019 layer_factory.hpp:77] Creating layer embedding
I0925 23:10:59.192164 25015 net.cpp:141] Setting up lstm1_
I0925 23:10:59.192194 25019 net.cpp:91] Creating Layer embedding
I0925 23:10:59.192209 25019 net.cpp:425] embedding <- input_sentence
I0925 23:10:59.192209 25015 net.cpp:148] Top shape: 1 1 500 (500)
I0925 23:10:59.192248 25019 net.cpp:399] embedding -> embedded_input_sentence
I0925 23:10:59.192250 25015 net.cpp:148] Top shape: 1 1 (1)
I0925 23:10:59.192271 25015 net.cpp:156] Memory required for data: 2004
I0925 23:10:59.192278 25009 net.cpp:141] Setting up embedding
I0925 23:10:59.192284 25015 layer_factory.hpp:77] Creating layer lstm1_
I0925 23:10:59.192308 25009 net.cpp:148] Top shape: 1 1 500 (500)
I0925 23:10:59.192317 25009 net.cpp:156] Memory required for data: 22408
I0925 23:10:59.192343 25027 net.cpp:141] Setting up embedding
I0925 23:10:59.192343 25015 net.cpp:91] Creating Layer lstm1_
I0925 23:10:59.192384 25013 net.cpp:141] Setting up embed_encoder
I0925 23:10:59.192343 25009 layer_factory.hpp:77] Creating layer lstm1
I0925 23:10:59.192366 25027 net.cpp:148] Top shape: 1 1 500 (500)
I0925 23:10:59.192399 25015 net.cpp:399] lstm1_ -> c_0
I0925 23:10:59.192427 25009 net.cpp:91] Creating Layer lstm1
I0925 23:10:59.192427 25027 net.cpp:156] Memory required for data: 22408
I0925 23:10:59.192412 25013 net.cpp:148] Top shape: 1 500 (500)
I0925 23:10:59.192440 25009 net.cpp:425] lstm1 <- embedded_input_frames
I0925 23:10:59.192446 25013 net.cpp:156] Memory required for data: 18404
I0925 23:10:59.192451 25027 layer_factory.hpp:77] Creating layer lstm1
I0925 23:10:59.192457 25015 net.cpp:399] lstm1_ -> h_0
I0925 23:10:59.192451 25009 net.cpp:425] lstm1 <- cont_sentence_input_1_split_0
I0925 23:10:59.192471 25013 layer_factory.hpp:77] Creating layer reshape_frames
…
I0925 23:10:59.192595 25027 recurrent_layer.cpp:20] Initializing recurrent layer: assuming input batch contains 1 timesteps of 1 independent streams.
I0925 23:10:59.193074 25009 net.cpp:49] Initializing net from parameters: 
layer {
  name: "lstm1_"
  type: "Input"
  top: "x"
  top: "cont"
  input_param {
    shape {
      dim: 1
      dim: 1
      dim: 500
    }
    shape {
      dim: 1
      dim: 1
    }
  }
}
layer {
  name: "lstm1_"
  type: "Input"
  top: "c_0"
  top: "h_0"
  input_param {
    shape {
      dim: 1
      dim: 1
      dim: 1000
    }
    shape {
      dim: 1
      dim: 1
      dim: 1000
    }
  }
}
layer {
  name: "lstm1_cont_slice"
  type: "Slice"
  bottom: "cont"
  top: "cont_1"
  slice_param {
    axis: 0
  }
}
layer {
  name: "lstm1_x_transform"
  type: "InnerProduct"
  bottom: "x"
  top: "W_xc_x"
  param {
    name: "W_xc"
  }
  param {
    name: "b_c"
  }
  propagate_down: true
  inner_product_param {
    num_output: 4000
    bias_term: true
    weight_filler {
      type: "uniform"
      min: -0.08
      max: 0.08
    }
    bias_filler {
      type: "constant"
      value: 0
    }
    axis: 2
  }
}
layer {
  name: "lstm1_W_xc_x_slice"
  type: "Slice"
  bottom: "W_xc_x"
  top: "W_xc_x_1"
  slice_param {
    axis: 0
  }
}
layer {
  name: "lstm1_h_conted_0"
  type: "Scale"
  bottom: "h_0"
  bottom: "cont_1"
  top: "h_conted_0"
  scale_param {
    axis: 0
  }
}
layer {
  name: "lstm1_transform_1"
  type: "InnerProduct"
  bottom: "h_conted_0"
  top: "W_hc_h_0"
  param {
    name: "W_hc"
  }
  inner_product_param {
    num_output: 4000
    bias_term: false
    weight_filler {
      type: "uniform"
      min: -0.08
      max: 0.08
    }
    axis: 2
  }
}
layer {
  name: "lstm1_gate_input_1"
  type: "Eltwise"
  bottom: "W_hc_h_0"
  bottom: "W_xc_x_1"
  top: "gate_input_1"
  eltwise_param {
    operation: SUM
  }
}
layer {
  name: "lstm1_unit_1"
  type: "LSTMUnit"
  bottom: "c_0"
  bottom: "gate_input_1"
  bottom: "cont_1"
  top: "c_1"
  top: "h_1"
}
layer {
  name: "lstm1_"
  type: "Split"
  bottom: "c_1"
  top: "c_T"
}
layer {
  name: "lstm1_h_concat"
  type: "Concat"
  bottom: "h_1"
  top: "h"
  concat_param {
    axis: 0
  }
}
layer {
  name: "h_pseudoloss"
  type: "Reduction"
  bottom: "h"
  top: "h_pseudoloss"
  loss_weight: 1
}
I0925 23:10:59.193074 25027 net.cpp:49] Initializing net from parameters: 
layer {
  name: "lstm1_"
  type: "Input"
  top: "x"
  top: "cont"
  input_param {
    shape {
      dim: 1
      dim: 1
      dim: 500
    }
    shape {
      dim: 1
      dim: 1
    }
  }
}
layer {
  name: "lstm1_"
  type: "Input"
  top: "c_0"
  top: "h_0"
  input_param {
    shape {
      dim: 1
      dim: 1
      dim: 1000
    }
    shape {
      dim: 1
      dim: 1
      dim: 1000
    }
  }
}
layer {
  name: "lstm1_cont_slice"
  type: "Slice"
  bottom: "cont"
  top: "cont_1"
  slice_param {
    axis: 0
  }
}
layer {
  name: "lstm1_x_transform"
  type: "InnerProduct"
  bottom: "x"
  top: "W_xc_x"
  param {
    name: "W_xc"
  }
  param {
    name: "b_c"
  }
  propagate_down: true
  inner_product_param {
    num_output: 4000
    bias_term: true
    weight_filler {
      type: "uniform"
      min: -0.08
      max: 0.08
    }
    bias_filler {
      type: "constant"
      value: 0
    }
    axis: 2
  }
}
layer {
  name: "lstm1_W_xc_x_slice"
  type: "Slice"
  bottom: "W_xc_x"
  top: "W_xc_x_1"
  slice_param {
    axis: 0
  }
}
layer {
  name: "lstm1_h_conted_0"
  type: "Scale"
  bottom: "h_0"
  bottom: "cont_1"
  top: "h_conted_0"
  scale_param {
    axis: 0
  }
}
layer {
  name: "lstm1_transform_1"
  type: "InnerProduct"
  bottom: "h_conted_0"
  top: "W_hc_h_0"
  param {
    name: "W_hc"
  }
  inner_product_param {
    num_output: 4000
    bias_term: false
    weight_filler {
      type: "uniform"
      min: -0.08
      max: 0.08
    }
    axis: 2
  }
}
layer {
  name: "lstm1_gate_input_1"
  type: "Eltwise"
  bottom: "W_hc_h_0"
  bottom: "W_xc_x_1"
  top: "gate_input_1"
  eltwise_param {
    operation: SUM
  }
}
layer {
  name: "lstm1_unit_1"
  type: "LSTMUnit"
  bottom: "c_0"
  bottom: "gate_input_1"
  bottom: "cont_1"
  top: "c_1"
  top: "h_1"
}
layer {
  name: "lstm1_"
  type: "Split"
  bottom: "c_1"
  top: "c_T"
}
layer {
  name: "lstm1_h_concat"
  type: "Concat"
  bottom: "h_1"
  top: "h"
  concat_param {
    axis: 0
  }
}
layer {
  name: "h_pseudoloss"
  type: "Reduction"
  bottom: "h"
  top: "h_pseudoloss"
  loss_weight: 1
}
I0925 23:10:59.193217 25027 layer_factory.hpp:77] Creating layer lstm1_
I0925 23:10:59.193217 25009 layer_factory.hpp:77] Creating layer lstm1_
I0925 23:10:59.193248 25027 net.cpp:91] Creating Layer lstm1_
I0925 23:10:59.193251 25009 net.cpp:91] Creating Layer lstm1_
I0925 23:10:59.193259 25027 net.cpp:399] lstm1_ -> x
I0925 23:10:59.193262 25009 net.cpp:399] lstm1_ -> x
I0925 23:10:59.193276 25027 net.cpp:399] lstm1_ -> cont
I0925 23:10:59.193279 25009 net.cpp:399] lstm1_ -> cont
I0925 23:10:59.246907 25015 net.cpp:141] Setting up lstm1_
I0925 23:10:59.246990 25015 net.cpp:148] Top shape: 1 1 1000 (1000)
I0925 23:10:59.247007 25015 net.cpp:148] Top shape: 1 1 1000 (1000)
I0925 23:10:59.247016 25015 net.cpp:156] Memory required for data: 10004
I0925 23:10:59.247032 25015 layer_factory.hpp:77] Creating layer lstm1_cont_slice
I0925 23:10:59.247066 25015 net.cpp:91] Creating Layer lstm1_cont_slice
I0925 23:10:59.247078 25015 net.cpp:425] lstm1_cont_slice <- cont
I0925 23:10:59.247098 25015 net.cpp:399] lstm1_cont_slice -> cont_1
I0925 23:10:59.247180 25015 net.cpp:141] Setting up lstm1_cont_slice
I0925 23:10:59.247197 25015 net.cpp:148] Top shape: 1 1 (1)
I0925 23:10:59.247206 25015 net.cpp:156] Memory required for data: 10008
I0925 23:10:59.247215 25015 layer_factory.hpp:77] Creating layer cont_1_lstm1_cont_slice_0_split
I0925 23:10:59.247231 25015 net.cpp:91] Creating Layer cont_1_lstm1_cont_slice_0_split
I0925 23:10:59.247241 25015 net.cpp:425] cont_1_lstm1_cont_slice_0_split <- cont_1
I0925 23:10:59.247257 25015 net.cpp:399] cont_1_lstm1_cont_slice_0_split -> cont_1_lstm1_cont_slice_0_split_0
I0925 23:10:59.247274 25015 net.cpp:399] cont_1_lstm1_cont_slice_0_split -> cont_1_lstm1_cont_slice_0_split_1
I0925 23:10:59.247364 25015 net.cpp:141] Setting up cont_1_lstm1_cont_slice_0_split
I0925 23:10:59.247380 25015 net.cpp:148] Top shape: 1 1 (1)
I0925 23:10:59.247392 25015 net.cpp:148] Top shape: 1 1 (1)
I0925 23:10:59.247400 25015 net.cpp:156] Memory required for data: 10016
I0925 23:10:59.247411 25015 layer_factory.hpp:77] Creating layer lstm1_x_transform
I0925 23:10:59.247436 25015 net.cpp:91] Creating Layer lstm1_x_transform
I0925 23:10:59.247444 25015 net.cpp:425] lstm1_x_transform <- x
I0925 23:10:59.247464 25015 net.cpp:399] lstm1_x_transform -> W_xc_x
I0925 23:10:59.259479 25059 net.cpp:141] Setting up embedding
I0925 23:10:59.259533 25059 net.cpp:148] Top shape: 1 1 500 (500)
I0925 23:10:59.259542 25059 net.cpp:156] Memory required for data: 22408
I0925 23:10:59.259539 25013 net.cpp:141] Setting up reshape_frames
I0925 23:10:59.259562 25013 net.cpp:148] Top shape: 1 1 500 (500)
I0925 23:10:59.259568 25059 layer_factory.hpp:77] Creating layer lstm1
I0925 23:10:59.259570 25013 net.cpp:156] Memory required for data: 20404
I0925 23:10:59.259580 25013 layer_factory.hpp:77] Creating layer reshape_stage_indicator
I0925 23:10:59.259595 25059 net.cpp:91] Creating Layer lstm1
I0925 23:10:59.259603 25013 net.cpp:91] Creating Layer reshape_stage_indicator
I0925 23:10:59.259608 25059 net.cpp:425] lstm1 <- embedded_input_frames
I0925 23:10:59.259613 25013 net.cpp:425] reshape_stage_indicator <- stage_indicator
I0925 23:10:59.259621 25059 net.cpp:425] lstm1 <- cont_sentence_input_1_split_0
I0925 23:10:59.259631 25013 net.cpp:399] reshape_stage_indicator -> reshaped_stage_indicator
I0925 23:10:59.259635 25059 net.cpp:399] lstm1 -> lstm1
I0925 23:10:59.259656 25059 recurrent_layer.cpp:20] Initializing recurrent layer: assuming input batch contains 1 timesteps of 1 independent streams.
I0925 23:10:59.259692 25013 net.cpp:141] Setting up reshape_stage_indicator
I0925 23:10:59.259707 25013 net.cpp:148] Top shape: 1 1 1 (1)
I0925 23:10:59.259714 25013 net.cpp:156] Memory required for data: 20408
I0925 23:10:59.259723 25013 layer_factory.hpp:77] Creating layer embedding
I0925 23:10:59.259739 25013 net.cpp:91] Creating Layer embedding
I0925 23:10:59.259747 25013 net.cpp:425] embedding <- input_sentence
I0925 23:10:59.259763 25013 net.cpp:399] embedding -> embedded_input_sentence
I0925 23:10:59.260061 25059 net.cpp:49] Initializing net from parameters: 
layer {
  name: "lstm1_"
  type: "Input"
  top: "x"
  top: "cont"
  input_param {
    shape {
      dim: 1
      dim: 1
      dim: 500
    }
    shape {
      dim: 1
      dim: 1
    }
  }
}
layer {
  name: "lstm1_"
  type: "Input"
  top: "c_0"
  top: "h_0"
  input_param {
    shape {
      dim: 1
      dim: 1
      dim: 1000
    }
    shape {
      dim: 1
      dim: 1
      dim: 1000
    }
  }
}
layer {
  name: "lstm1_cont_slice"
  type: "Slice"
  bottom: "cont"
  top: "cont_1"
  slice_param {
    axis: 0
  }
}
layer {
  name: "lstm1_x_transform"
  type: "InnerProduct"
  bottom: "x"
  top: "W_xc_x"
  param {
    name: "W_xc"
  }
  param {
    name: "b_c"
  }
  propagate_down: true
  inner_product_param {
    num_output: 4000
    bias_term: true
    weight_filler {
      type: "uniform"
      min: -0.08
      max: 0.08
    }
    bias_filler {
      type: "constant"
      value: 0
    }
    axis: 2
  }
}
layer {
  name: "lstm1_W_xc_x_slice"
  type: "Slice"
  bottom: "W_xc_x"
  top: "W_xc_x_1"
  slice_param {
    axis: 0
  }
}
layer {
  name: "lstm1_h_conted_0"
  type: "Scale"
  bottom: "h_0"
  bottom: "cont_1"
  top: "h_conted_0"
  scale_param {
    axis: 0
  }
}
layer {
  name: "lstm1_transform_1"
  type: "InnerProduct"
  bottom: "h_conted_0"
  top: "W_hc_h_0"
  param {
    name: "W_hc"
  }
  inner_product_param {
    num_output: 4000
    bias_term: false
    weight_filler {
      type: "uniform"
      min: -0.08
      max: 0.08
    }
    axis: 2
  }
}
layer {
  name: "lstm1_gate_input_1"
  type: "Eltwise"
  bottom: "W_hc_h_0"
  bottom: "W_xc_x_1"
  top: "gate_input_1"
  eltwise_param {
    operation: SUM
  }
}
layer {
  name: "lstm1_unit_1"
  type: "LSTMUnit"
  bottom: "c_0"
  bottom: "gate_input_1"
  bottom: "cont_1"
  top: "c_1"
  top: "h_1"
}
layer {
  name: "lstm1_"
  type: "Split"
  bottom: "c_1"
  top: "c_T"
}
layer {
  name: "lstm1_h_concat"
  type: "Concat"
  bottom: "h_1"
  top: "h"
  concat_param {
    axis: 0
  }
}
layer {
  name: "h_pseudoloss"
  type: "Reduction"
  bottom: "h"
  top: "h_pseudoloss"
  loss_weight: 1
}
I0925 23:10:59.260190 25059 layer_factory.hpp:77] Creating layer lstm1_
I0925 23:10:59.260205 25059 net.cpp:91] Creating Layer lstm1_
I0925 23:10:59.260215 25059 net.cpp:399] lstm1_ -> x
I0925 23:10:59.260231 25059 net.cpp:399] lstm1_ -> cont
I0925 23:10:59.308946 25009 net.cpp:141] Setting up lstm1_
I0925 23:10:59.309043 25009 net.cpp:148] Top shape: 1 1 500 (500)
I0925 23:10:59.309070 25009 net.cpp:148] Top shape: 1 1 (1)
I0925 23:10:59.309084 25009 net.cpp:156] Memory required for data: 2004
I0925 23:10:59.309106 25009 layer_factory.hpp:77] Creating layer lstm1_
I0925 23:10:59.309108 25027 net.cpp:141] Setting up lstm1_
I0925 23:10:59.309144 25027 net.cpp:148] Top shape: 1 1 500 (500)
I0925 23:10:59.309150 25009 net.cpp:91] Creating Layer lstm1_
I0925 23:10:59.309160 25027 net.cpp:148] Top shape: 1 1 (1)
I0925 23:10:59.309171 25027 net.cpp:156] Memory required for data: 2004
I0925 23:10:59.309187 25027 layer_factory.hpp:77] Creating layer lstm1_
I0925 23:10:59.309186 25009 net.cpp:399] lstm1_ -> c_0
I0925 23:10:59.309236 25027 net.cpp:91] Creating Layer lstm1_
I0925 23:10:59.309262 25027 net.cpp:399] lstm1_ -> c_0
I0925 23:10:59.309262 25009 net.cpp:399] lstm1_ -> h_0
I0925 23:10:59.309290 25027 net.cpp:399] lstm1_ -> h_0
I0925 23:10:59.309384 25033 net.cpp:141] Setting up embedding
I0925 23:10:59.309414 25033 net.cpp:148] Top shape: 1 1 500 (500)
I0925 23:10:59.309424 25033 net.cpp:156] Memory required for data: 22408
I0925 23:10:59.309437 25059 net.cpp:141] Setting up lstm1_
I0925 23:10:59.309450 25033 layer_factory.hpp:77] Creating layer lstm1
I0925 23:10:59.309458 25059 net.cpp:148] Top shape: 1 1 500 (500)
I0925 23:10:59.309469 25059 net.cpp:148] Top shape: 1 1 (1)
I0925 23:10:59.309476 25059 net.cpp:156] Memory required for data: 2004
I0925 23:10:59.309475 25033 net.cpp:91] Creating Layer lstm1
I0925 23:10:59.309504 25059 layer_factory.hpp:77] Creating layer lstm1_
I0925 23:10:59.309515 25033 net.cpp:425] lstm1 <- embedded_input_frames
I0925 23:10:59.309527 25059 net.cpp:91] Creating Layer lstm1_
I0925 23:10:59.309531 25033 net.cpp:425] lstm1 <- cont_sentence_input_1_split_0
I0925 23:10:59.309540 25059 net.cpp:399] lstm1_ -> c_0
I0925 23:10:59.309554 25033 net.cpp:399] lstm1 -> lstm1
I0925 23:10:59.309559 25059 net.cpp:399] lstm1_ -> h_0
I0925 23:10:59.309578 25033 recurrent_layer.cpp:20] Initializing recurrent layer: assuming input batch contains 1 timesteps of 1 independent streams.
I0925 23:10:59.314914 25027 net.cpp:141] Setting up lstm1_
I0925 23:10:59.314924 25033 net.cpp:49] Initializing net from parameters: 
layer {
  name: "lstm1_"
  type: "Input"
  top: "x"
  top: "cont"
  input_param {
    shape {
      dim: 1
      dim: 1
      dim: 500
    }
    shape {
      dim: 1
      dim: 1
    }
  }
}
layer {
  name: "lstm1_"
  type: "Input"
  top: "c_0"
  top: "h_0"
  input_param {
    shape {
      dim: 1
      dim: 1
      dim: 1000
    }
    shape {
      dim: 1
      dim: 1
      dim: 1000
    }
  }
}
layer {
  name: "lstm1_cont_slice"
  type: "Slice"
  bottom: "cont"
  top: "cont_1"
  slice_param {
    axis: 0
  }
}
layer {
  name: "lstm1_x_transform"
  type: "InnerProduct"
  bottom: "x"
  top: "W_xc_x"
  param {
    name: "W_xc"
  }
  param {
    name: "b_c"
  }
  propagate_down: true
  inner_product_param {
    num_output: 4000
    bias_term: true
    weight_filler {
      type: "uniform"
      min: -0.08
      max: 0.08
    }
    bias_filler {
      type: "constant"
      value: 0
    }
    axis: 2
  }
}
layer {
  name: "lstm1_W_xc_x_slice"
  type: "Slice"
  bottom: "W_xc_x"
  top: "W_xc_x_1"
  slice_param {
    axis: 0
  }
}
layer {
  name: "lstm1_h_conted_0"
  type: "Scale"
  bottom: "h_0"
  bottom: "cont_1"
  top: "h_conted_0"
  scale_param {
    axis: 0
  }
}
layer {
  name: "lstm1_transform_1"
  type: "InnerProduct"
  bottom: "h_conted_0"
  top: "W_hc_h_0"
  param {
    name: "W_hc"
  }
  inner_product_param {
    num_output: 4000
    bias_term: false
    weight_filler {
      type: "uniform"
      min: -0.08
      max: 0.08
    }
    axis: 2
  }
}
layer {
  name: "lstm1_gate_input_1"
  type: "Eltwise"
  bottom: "W_hc_h_0"
  bottom: "W_xc_x_1"
  top: "gate_input_1"
  eltwise_param {
    operation: SUM
  }
}
layer {
  name: "lstm1_unit_1"
  type: "LSTMUnit"
  bottom: "c_0"
  bottom: "gate_input_1"
  bottom: "cont_1"
  top: "c_1"
  top: "h_1"
}
layer {
  name: "lstm1_"
  type: "Split"
  bottom: "c_1"
  top: "c_T"
}
layer {
  name: "lstm1_h_concat"
  type: "Concat"
  bottom: "h_1"
  top: "h"
  concat_param {
    axis: 0
  }
}
layer {
  name: "h_pseudoloss"
  type: "Reduction"
  bottom: "h"
  top: "h_pseudoloss"
  loss_weight: 1
}
I0925 23:10:59.314959 25027 net.cpp:148] Top shape: 1 1 1000 (1000)
I0925 23:10:59.314966 25027 net.cpp:148] Top shape: 1 1 1000 (1000)
I0925 23:10:59.314970 25027 net.cpp:156] Memory required for data: 10004
I0925 23:10:59.314977 25027 layer_factory.hpp:77] Creating layer lstm1_cont_slice
I0925 23:10:59.314986 25009 net.cpp:141] Setting up lstm1_
I0925 23:10:59.314993 25027 net.cpp:91] Creating Layer lstm1_cont_slice
I0925 23:10:59.315009 25009 net.cpp:148] Top shape: 1 1 1000 (1000)
I0925 23:10:59.315009 25027 net.cpp:425] lstm1_cont_slice <- cont
I0925 23:10:59.315019 25009 net.cpp:148] Top shape: 1 1 1000 (1000)
I0925 23:10:59.315024 25009 net.cpp:156] Memory required for data: 10004
I0925 23:10:59.315028 25027 net.cpp:399] lstm1_cont_slice -> cont_1
I0925 23:10:59.315029 25009 layer_factory.hpp:77] Creating layer lstm1_cont_slice
I0925 23:10:59.315044 25033 layer_factory.hpp:77] Creating layer lstm1_
I0925 23:10:59.315049 25009 net.cpp:91] Creating Layer lstm1_cont_slice
I0925 23:10:59.315057 25009 net.cpp:425] lstm1_cont_slice <- cont
I0925 23:10:59.315058 25033 net.cpp:91] Creating Layer lstm1_
I0925 23:10:59.315064 25009 net.cpp:399] lstm1_cont_slice -> cont_1
I0925 23:10:59.315065 25033 net.cpp:399] lstm1_ -> x
I0925 23:10:59.315091 25033 net.cpp:399] lstm1_ -> cont
I0925 23:10:59.315094 25027 net.cpp:141] Setting up lstm1_cont_slice
I0925 23:10:59.315104 25027 net.cpp:148] Top shape: 1 1 (1)
I0925 23:10:59.315109 25027 net.cpp:156] Memory required for data: 10008
I0925 23:10:59.315114 25027 layer_factory.hpp:77] Creating layer cont_1_lstm1_cont_slice_0_split
I0925 23:10:59.315124 25027 net.cpp:91] Creating Layer cont_1_lstm1_cont_slice_0_split
I0925 23:10:59.315127 25009 net.cpp:141] Setting up lstm1_cont_slice
I0925 23:10:59.315129 25027 net.cpp:425] cont_1_lstm1_cont_slice_0_split <- cont_1
I0925 23:10:59.315140 25009 net.cpp:148] Top shape: 1 1 (1)
I0925 23:10:59.315145 25027 net.cpp:399] cont_1_lstm1_cont_slice_0_split -> cont_1_lstm1_cont_slice_0_split_0
I0925 23:10:59.315145 25009 net.cpp:156] Memory required for data: 10008
I0925 23:10:59.315163 25009 layer_factory.hpp:77] Creating layer cont_1_lstm1_cont_slice_0_split
I0925 23:10:59.315163 25027 net.cpp:399] cont_1_lstm1_cont_slice_0_split -> cont_1_lstm1_cont_slice_0_split_1
I0925 23:10:59.315176 25009 net.cpp:91] Creating Layer cont_1_lstm1_cont_slice_0_split
I0925 23:10:59.315181 25009 net.cpp:425] cont_1_lstm1_cont_slice_0_split <- cont_1
I0925 23:10:59.315191 25009 net.cpp:399] cont_1_lstm1_cont_slice_0_split -> cont_1_lstm1_cont_slice_0_split_0
I0925 23:10:59.315201 25009 net.cpp:399] cont_1_lstm1_cont_slice_0_split -> cont_1_lstm1_cont_slice_0_split_1
I0925 23:10:59.315215 25015 net.cpp:141] Setting up lstm1_x_transform
I0925 23:10:59.315254 25015 net.cpp:148] Top shape: 1 1 4000 (4000)
I0925 23:10:59.315263 25015 net.cpp:156] Memory required for data: 26016
I0925 23:10:59.315287 25015 layer_factory.hpp:77] Creating layer lstm1_W_xc_x_slice
I0925 23:10:59.315306 25015 net.cpp:91] Creating Layer lstm1_W_xc_x_slice
I0925 23:10:59.315306 25059 net.cpp:141] Setting up lstm1_
I0925 23:10:59.315315 25015 net.cpp:425] lstm1_W_xc_x_slice <- W_xc_x
I0925 23:10:59.315326 25015 net.cpp:399] lstm1_W_xc_x_slice -> W_xc_x_1
I0925 23:10:59.315326 25059 net.cpp:148] Top shape: 1 1 1000 (1000)
I0925 23:10:59.315337 25059 net.cpp:148] Top shape: 1 1 1000 (1000)
I0925 23:10:59.315345 25059 net.cpp:156] Memory required for data: 10004
I0925 23:10:59.315352 25059 layer_factory.hpp:77] Creating layer lstm1_cont_slice
I0925 23:10:59.315366 25059 net.cpp:91] Creating Layer lstm1_cont_slice
I0925 23:10:59.315382 25059 net.cpp:425] lstm1_cont_slice <- cont
I0925 23:10:59.315393 25059 net.cpp:399] lstm1_cont_slice -> cont_1
I0925 23:10:59.315402 25033 net.cpp:141] Setting up lstm1_
I0925 23:10:59.315412 25033 net.cpp:148] Top shape: 1 1 500 (500)
I0925 23:10:59.315419 25033 net.cpp:148] Top shape: 1 1 (1)
I0925 23:10:59.315423 25033 net.cpp:156] Memory required for data: 2004
I0925 23:10:59.315428 25033 layer_factory.hpp:77] Creating layer lstm1_
I0925 23:10:59.315438 25033 net.cpp:91] Creating Layer lstm1_
I0925 23:10:59.315448 25033 net.cpp:399] lstm1_ -> c_0
I0925 23:10:59.315459 25033 net.cpp:399] lstm1_ -> h_0
I0925 23:10:59.315759 25027 net.cpp:141] Setting up cont_1_lstm1_cont_slice_0_split
I0925 23:10:59.315770 25027 net.cpp:148] Top shape: 1 1 (1)
I0925 23:10:59.315775 25027 net.cpp:148] Top shape: 1 1 (1)
I0925 23:10:59.315780 25027 net.cpp:156] Memory required for data: 10016
I0925 23:10:59.315786 25027 layer_factory.hpp:77] Creating layer lstm1_x_transform
I0925 23:10:59.315801 25027 net.cpp:91] Creating Layer lstm1_x_transform
I0925 23:10:59.315806 25027 net.cpp:425] lstm1_x_transform <- x
I0925 23:10:59.315817 25027 net.cpp:399] lstm1_x_transform -> W_xc_x
I0925 23:10:59.315836 25015 net.cpp:141] Setting up lstm1_W_xc_x_slice
I0925 23:10:59.315855 25015 net.cpp:148] Top shape: 1 1 4000 (4000)
I0925 23:10:59.315860 25015 net.cpp:156] Memory required for data: 42016
I0925 23:10:59.315865 25015 layer_factory.hpp:77] Creating layer lstm1_h_conted_0
I0925 23:10:59.315888 25015 net.cpp:91] Creating Layer lstm1_h_conted_0
I0925 23:10:59.315894 25015 net.cpp:425] lstm1_h_conted_0 <- h_0
I0925 23:10:59.315901 25015 net.cpp:425] lstm1_h_conted_0 <- cont_1_lstm1_cont_slice_0_split_0
I0925 23:10:59.315913 25015 net.cpp:399] lstm1_h_conted_0 -> h_conted_0
I0925 23:10:59.315917 25059 net.cpp:141] Setting up lstm1_cont_slice
I0925 23:10:59.315932 25059 net.cpp:148] Top shape: 1 1 (1)
I0925 23:10:59.315939 25059 net.cpp:156] Memory required for data: 10008
I0925 23:10:59.315946 25059 layer_factory.hpp:77] Creating layer cont_1_lstm1_cont_slice_0_split
I0925 23:10:59.315961 25059 net.cpp:91] Creating Layer cont_1_lstm1_cont_slice_0_split
I0925 23:10:59.315969 25059 net.cpp:425] cont_1_lstm1_cont_slice_0_split <- cont_1
I0925 23:10:59.315984 25059 net.cpp:399] cont_1_lstm1_cont_slice_0_split -> cont_1_lstm1_cont_slice_0_split_0
I0925 23:10:59.315996 25059 net.cpp:399] cont_1_lstm1_cont_slice_0_split -> cont_1_lstm1_cont_slice_0_split_1
I0925 23:10:59.320228 25033 net.cpp:141] Setting up lstm1_
I0925 23:10:59.320291 25033 net.cpp:148] Top shape: 1 1 1000 (1000)
I0925 23:10:59.320302 25033 net.cpp:148] Top shape: 1 1 1000 (1000)
I0925 23:10:59.320309 25033 net.cpp:156] Memory required for data: 10004
I0925 23:10:59.320322 25033 layer_factory.hpp:77] Creating layer lstm1_cont_slice
I0925 23:10:59.320345 25033 net.cpp:91] Creating Layer lstm1_cont_slice
I0925 23:10:59.320355 25033 net.cpp:425] lstm1_cont_slice <- cont
I0925 23:10:59.320369 25033 net.cpp:399] lstm1_cont_slice -> cont_1
I0925 23:10:59.320380 25015 net.cpp:141] Setting up lstm1_h_conted_0
I0925 23:10:59.320422 25009 net.cpp:141] Setting up cont_1_lstm1_cont_slice_0_split
I0925 23:10:59.320463 25009 net.cpp:148] Top shape: 1 1 (1)
I0925 23:10:59.320472 25009 net.cpp:148] Top shape: 1 1 (1)
I0925 23:10:59.320475 25009 net.cpp:156] Memory required for data: 10016
I0925 23:10:59.320482 25009 layer_factory.hpp:77] Creating layer lstm1_x_transform
I0925 23:10:59.320432 25015 net.cpp:148] Top shape: 1 1 1000 (1000)
I0925 23:10:59.320495 25015 net.cpp:156] Memory required for data: 46016
I0925 23:10:59.320509 25015 layer_factory.hpp:77] Creating layer lstm1_transform_1
I0925 23:10:59.320509 25009 net.cpp:91] Creating Layer lstm1_x_transform
I0925 23:10:59.320530 25009 net.cpp:425] lstm1_x_transform <- x
I0925 23:10:59.320540 25009 net.cpp:399] lstm1_x_transform -> W_xc_x
I0925 23:10:59.320539 25015 net.cpp:91] Creating Layer lstm1_transform_1
I0925 23:10:59.320552 25015 net.cpp:425] lstm1_transform_1 <- h_conted_0
I0925 23:10:59.320570 25015 net.cpp:399] lstm1_transform_1 -> W_hc_h_0
I0925 23:10:59.322556 25059 net.cpp:141] Setting up cont_1_lstm1_cont_slice_0_split
I0925 23:10:59.322577 25059 net.cpp:148] Top shape: 1 1 (1)
I0925 23:10:59.322587 25059 net.cpp:148] Top shape: 1 1 (1)
I0925 23:10:59.322609 25059 net.cpp:156] Memory required for data: 10016
I0925 23:10:59.322620 25059 layer_factory.hpp:77] Creating layer lstm1_x_transform
I0925 23:10:59.322641 25059 net.cpp:91] Creating Layer lstm1_x_transform
I0925 23:10:59.322650 25059 net.cpp:425] lstm1_x_transform <- x
I0925 23:10:59.322665 25059 net.cpp:399] lstm1_x_transform -> W_xc_x
I0925 23:10:59.329263 25033 net.cpp:141] Setting up lstm1_cont_slice
I0925 23:10:59.329308 25033 net.cpp:148] Top shape: 1 1 (1)
I0925 23:10:59.329318 25033 net.cpp:156] Memory required for data: 10008
I0925 23:10:59.329329 25033 layer_factory.hpp:77] Creating layer cont_1_lstm1_cont_slice_0_split
I0925 23:10:59.329357 25033 net.cpp:91] Creating Layer cont_1_lstm1_cont_slice_0_split
I0925 23:10:59.329367 25033 net.cpp:425] cont_1_lstm1_cont_slice_0_split <- cont_1
I0925 23:10:59.329382 25033 net.cpp:399] cont_1_lstm1_cont_slice_0_split -> cont_1_lstm1_cont_slice_0_split_0
I0925 23:10:59.329403 25033 net.cpp:399] cont_1_lstm1_cont_slice_0_split -> cont_1_lstm1_cont_slice_0_split_1
I0925 23:10:59.351600 25063 net.cpp:141] Setting up embedding
I0925 23:10:59.351661 25063 net.cpp:148] Top shape: 1 1 500 (500)
I0925 23:10:59.351673 25063 net.cpp:156] Memory required for data: 22408
I0925 23:10:59.351708 25063 layer_factory.hpp:77] Creating layer lstm1
I0925 23:10:59.351737 25063 net.cpp:91] Creating Layer lstm1
I0925 23:10:59.351755 25063 net.cpp:425] lstm1 <- embedded_input_frames
I0925 23:10:59.351770 25063 net.cpp:425] lstm1 <- cont_sentence_input_1_split_0
I0925 23:10:59.351788 25063 net.cpp:399] lstm1 -> lstm1
I0925 23:10:59.351814 25063 recurrent_layer.cpp:20] Initializing recurrent layer: assuming input batch contains 1 timesteps of 1 independent streams.
I0925 23:10:59.351838 25027 net.cpp:141] Setting up lstm1_x_transform
I0925 23:10:59.351881 25027 net.cpp:148] Top shape: 1 1 4000 (4000)
I0925 23:10:59.351889 25027 net.cpp:156] Memory required for data: 26016
I0925 23:10:59.351915 25027 layer_factory.hpp:77] Creating layer lstm1_W_xc_x_slice
I0925 23:10:59.351935 25027 net.cpp:91] Creating Layer lstm1_W_xc_x_slice
I0925 23:10:59.351944 25027 net.cpp:425] lstm1_W_xc_x_slice <- W_xc_x
I0925 23:10:59.351963 25027 net.cpp:399] lstm1_W_xc_x_slice -> W_xc_x_1
I0925 23:10:59.352021 25027 net.cpp:141] Setting up lstm1_W_xc_x_slice
I0925 23:10:59.352035 25027 net.cpp:148] Top shape: 1 1 4000 (4000)
I0925 23:10:59.352043 25027 net.cpp:156] Memory required for data: 42016
I0925 23:10:59.352051 25027 layer_factory.hpp:77] Creating layer lstm1_h_conted_0
I0925 23:10:59.352068 25027 net.cpp:91] Creating Layer lstm1_h_conted_0
I0925 23:10:59.352077 25027 net.cpp:425] lstm1_h_conted_0 <- h_0
I0925 23:10:59.352087 25027 net.cpp:425] lstm1_h_conted_0 <- cont_1_lstm1_cont_slice_0_split_0
I0925 23:10:59.352102 25027 net.cpp:399] lstm1_h_conted_0 -> h_conted_0
I0925 23:10:59.352241 25027 net.cpp:141] Setting up lstm1_h_conted_0
I0925 23:10:59.352257 25027 net.cpp:148] Top shape: 1 1 1000 (1000)
I0925 23:10:59.352252 25063 net.cpp:49] Initializing net from parameters: 
layer {
  name: "lstm1_"
  type: "Input"
  top: "x"
  top: "cont"
  input_param {
    shape {
      dim: 1
      dim: 1
      dim: 500
    }
    shape {
      dim: 1
      dim: 1
    }
  }
}
layer {
  name: "lstm1_"
  type: "Input"
  top: "c_0"
  top: "h_0"
  input_param {
    shape {
      dim: 1
      dim: 1
      dim: 1000
    }
    shape {
      dim: 1
      dim: 1
      dim: 1000
    }
  }
}
layer {
  name: "lstm1_cont_slice"
  type: "Slice"
  bottom: "cont"
  top: "cont_1"
  slice_param {
    axis: 0
  }
}
layer {
  name: "lstm1_x_transform"
  type: "InnerProduct"
  bottom: "x"
  top: "W_xc_x"
  param {
    name: "W_xc"
  }
  param {
    name: "b_c"
  }
  propagate_down: true
  inner_product_param {
    num_output: 4000
    bias_term: true
    weight_filler {
      type: "uniform"
      min: -0.08
      max: 0.08
    }
    bias_filler {
      type: "constant"
      value: 0
    }
    axis: 2
  }
}
layer {
  name: "lstm1_W_xc_x_slice"
  type: "Slice"
  bottom: "W_xc_x"
  top: "W_xc_x_1"
  slice_param {
    axis: 0
  }
}
layer {
  name: "lstm1_h_conted_0"
  type: "Scale"
  bottom: "h_0"
  bottom: "cont_1"
  top: "h_conted_0"
  scale_param {
    axis: 0
  }
}
layer {
  name: "lstm1_transform_1"
  type: "InnerProduct"
  bottom: "h_conted_0"
  top: "W_hc_h_0"
  param {
    name: "W_hc"
  }
  inner_product_param {
    num_output: 4000
    bias_term: false
    weight_filler {
      type: "uniform"
      min: -0.08
      max: 0.08
    }
    axis: 2
  }
}
layer {
  name: "lstm1_gate_input_1"
  type: "Eltwise"
  bottom: "W_hc_h_0"
  bottom: "W_xc_x_1"
  top: "gate_input_1"
  eltwise_param {
    operation: SUM
  }
}
layer {
  name: "lstm1_unit_1"
  type: "LSTMUnit"
  bottom: "c_0"
  bottom: "gate_input_1"
  bottom: "cont_1"
  top: "c_1"
  top: "h_1"
}
layer {
  name: "lstm1_"
  type: "Split"
  bottom: "c_1"
  top: "c_T"
}
layer {
  name: "lstm1_h_concat"
  type: "Concat"
  bottom: "h_1"
  top: "h"
  concat_param {
    axis: 0
  }
}
layer {
  name: "h_pseudoloss"
  type: "Reduction"
  bottom: "h"
  top: "h_pseudoloss"
  loss_weight: 1
}
I0925 23:10:59.352264 25027 net.cpp:156] Memory required for data: 46016
I0925 23:10:59.352274 25027 layer_factory.hpp:77] Creating layer lstm1_transform_1
I0925 23:10:59.352290 25027 net.cpp:91] Creating Layer lstm1_transform_1
I0925 23:10:59.352298 25027 net.cpp:425] lstm1_transform_1 <- h_conted_0
I0925 23:10:59.352315 25027 net.cpp:399] lstm1_transform_1 -> W_hc_h_0
I0925 23:10:59.352393 25063 layer_factory.hpp:77] Creating layer lstm1_
I0925 23:10:59.352413 25063 net.cpp:91] Creating Layer lstm1_
I0925 23:10:59.352423 25063 net.cpp:399] lstm1_ -> x
I0925 23:10:59.352442 25063 net.cpp:399] lstm1_ -> cont
I0925 23:10:59.371327 25033 net.cpp:141] Setting up cont_1_lstm1_cont_slice_0_split
I0925 23:10:59.371392 25033 net.cpp:148] Top shape: 1 1 (1)
I0925 23:10:59.371405 25033 net.cpp:148] Top shape: 1 1 (1)
I0925 23:10:59.371413 25033 net.cpp:156] Memory required for data: 10016
I0925 23:10:59.371425 25033 layer_factory.hpp:77] Creating layer lstm1_x_transform
I0925 23:10:59.371457 25033 net.cpp:91] Creating Layer lstm1_x_transform
I0925 23:10:59.371469 25033 net.cpp:425] lstm1_x_transform <- x
I0925 23:10:59.371489 25033 net.cpp:399] lstm1_x_transform -> W_xc_x
I0925 23:10:59.371556 25063 net.cpp:141] Setting up lstm1_
I0925 23:10:59.371598 25063 net.cpp:148] Top shape: 1 1 500 (500)
I0925 23:10:59.371605 25063 net.cpp:148] Top shape: 1 1 (1)
I0925 23:10:59.371610 25063 net.cpp:156] Memory required for data: 2004
I0925 23:10:59.371619 25063 layer_factory.hpp:77] Creating layer lstm1_
I0925 23:10:59.371641 25063 net.cpp:91] Creating Layer lstm1_
I0925 23:10:59.371668 25063 net.cpp:399] lstm1_ -> c_0
I0925 23:10:59.371688 25063 net.cpp:399] lstm1_ -> h_0
I0925 23:10:59.376543 25059 net.cpp:141] Setting up lstm1_x_transform
I0925 23:10:59.376590 25059 net.cpp:148] Top shape: 1 1 4000 (4000)
I0925 23:10:59.376600 25059 net.cpp:156] Memory required for data: 26016
I0925 23:10:59.376628 25059 layer_factory.hpp:77] Creating layer lstm1_W_xc_x_slice
I0925 23:10:59.376651 25059 net.cpp:91] Creating Layer lstm1_W_xc_x_slice
I0925 23:10:59.376659 25059 net.cpp:425] lstm1_W_xc_x_slice <- W_xc_x
I0925 23:10:59.376672 25059 net.cpp:399] lstm1_W_xc_x_slice -> W_xc_x_1
I0925 23:10:59.381227 25063 net.cpp:141] Setting up lstm1_
I0925 23:10:59.381292 25063 net.cpp:148] Top shape: 1 1 1000 (1000)
I0925 23:10:59.381305 25063 net.cpp:148] Top shape: 1 1 1000 (1000)
I0925 23:10:59.381312 25063 net.cpp:156] Memory required for data: 10004
I0925 23:10:59.381325 25063 layer_factory.hpp:77] Creating layer lstm1_cont_slice
I0925 23:10:59.381333 25059 net.cpp:141] Setting up lstm1_W_xc_x_slice
I0925 23:10:59.381362 25063 net.cpp:91] Creating Layer lstm1_cont_slice
I0925 23:10:59.381422 25009 net.cpp:141] Setting up lstm1_x_transform
I0925 23:10:59.381431 25063 net.cpp:425] lstm1_cont_slice <- cont
I0925 23:10:59.381453 25009 net.cpp:148] Top shape: 1 1 4000 (4000)
I0925 23:10:59.381463 25009 net.cpp:156] Memory required for data: 26016
I0925 23:10:59.381466 25063 net.cpp:399] lstm1_cont_slice -> cont_1
I0925 23:10:59.381490 25009 layer_factory.hpp:77] Creating layer lstm1_W_xc_x_slice
I0925 23:10:59.381505 25009 net.cpp:91] Creating Layer lstm1_W_xc_x_slice
I0925 23:10:59.381515 25009 net.cpp:425] lstm1_W_xc_x_slice <- W_xc_x
I0925 23:10:59.381527 25009 net.cpp:399] lstm1_W_xc_x_slice -> W_xc_x_1
I0925 23:10:59.381381 25059 net.cpp:148] Top shape: 1 1 4000 (4000)
I0925 23:10:59.396982 25059 net.cpp:156] Memory required for data: 42016
I0925 23:10:59.396996 25059 layer_factory.hpp:77] Creating layer lstm1_h_conted_0
I0925 23:10:59.397019 25059 net.cpp:91] Creating Layer lstm1_h_conted_0
I0925 23:10:59.397029 25059 net.cpp:425] lstm1_h_conted_0 <- h_0
I0925 23:10:59.397043 25059 net.cpp:425] lstm1_h_conted_0 <- cont_1_lstm1_cont_slice_0_split_0
I0925 23:10:59.397056 25059 net.cpp:399] lstm1_h_conted_0 -> h_conted_0
I0925 23:10:59.398686 25063 net.cpp:141] Setting up lstm1_cont_slice
I0925 23:10:59.398730 25009 net.cpp:141] Setting up lstm1_W_xc_x_slice
I0925 23:10:59.398733 25063 net.cpp:148] Top shape: 1 1 (1)
I0925 23:10:59.398756 25009 net.cpp:148] Top shape: 1 1 4000 (4000)
I0925 23:10:59.398759 25063 net.cpp:156] Memory required for data: 10008
I0925 23:10:59.398762 25009 net.cpp:156] Memory required for data: 42016
I0925 23:10:59.398773 25063 layer_factory.hpp:77] Creating layer cont_1_lstm1_cont_slice_0_split
I0925 23:10:59.398773 25015 net.cpp:141] Setting up lstm1_transform_1
I0925 23:10:59.398792 25015 net.cpp:148] Top shape: 1 1 4000 (4000)
I0925 23:10:59.398794 25063 net.cpp:91] Creating Layer cont_1_lstm1_cont_slice_0_split
I0925 23:10:59.398798 25015 net.cpp:156] Memory required for data: 62016
I0925 23:10:59.398813 25063 net.cpp:425] cont_1_lstm1_cont_slice_0_split <- cont_1
I0925 23:10:59.398772 25009 layer_factory.hpp:77] Creating layer lstm1_h_conted_0
I0925 23:10:59.398830 25015 layer_factory.hpp:77] Creating layer lstm1_gate_input_1
I0925 23:10:59.398836 25063 net.cpp:399] cont_1_lstm1_cont_slice_0_split -> cont_1_lstm1_cont_slice_0_split_0
I0925 23:10:59.398852 25015 net.cpp:91] Creating Layer lstm1_gate_input_1
I0925 23:10:59.398859 25015 net.cpp:425] lstm1_gate_input_1 <- W_hc_h_0
I0925 23:10:59.398854 25009 net.cpp:91] Creating Layer lstm1_h_conted_0
I0925 23:10:59.398867 25015 net.cpp:425] lstm1_gate_input_1 <- W_xc_x_1
I0925 23:10:59.398860 25063 net.cpp:399] cont_1_lstm1_cont_slice_0_split -> cont_1_lstm1_cont_slice_0_split_1
I0925 23:10:59.398880 25015 net.cpp:399] lstm1_gate_input_1 -> gate_input_1
I0925 23:10:59.398880 25009 net.cpp:425] lstm1_h_conted_0 <- h_0
I0925 23:10:59.398913 25009 net.cpp:425] lstm1_h_conted_0 <- cont_1_lstm1_cont_slice_0_split_0
I0925 23:10:59.398928 25009 net.cpp:399] lstm1_h_conted_0 -> h_conted_0
I0925 23:10:59.399046 25015 net.cpp:141] Setting up lstm1_gate_input_1
I0925 23:10:59.399058 25015 net.cpp:148] Top shape: 1 1 4000 (4000)
I0925 23:10:59.399063 25015 net.cpp:156] Memory required for data: 78016
I0925 23:10:59.399068 25015 layer_factory.hpp:77] Creating layer lstm1_unit_1
I0925 23:10:59.399092 25015 net.cpp:91] Creating Layer lstm1_unit_1
I0925 23:10:59.399098 25015 net.cpp:425] lstm1_unit_1 <- c_0
I0925 23:10:59.399104 25015 net.cpp:425] lstm1_unit_1 <- gate_input_1
I0925 23:10:59.399111 25015 net.cpp:425] lstm1_unit_1 <- cont_1_lstm1_cont_slice_0_split_1
I0925 23:10:59.399116 25015 net.cpp:399] lstm1_unit_1 -> c_1
I0925 23:10:59.399127 25015 net.cpp:399] lstm1_unit_1 -> h_1
I0925 23:10:59.399224 25015 net.cpp:141] Setting up lstm1_unit_1
I0925 23:10:59.399235 25015 net.cpp:148] Top shape: 1 1 1000 (1000)
I0925 23:10:59.399241 25015 net.cpp:148] Top shape: 1 1 1000 (1000)
I0925 23:10:59.399245 25015 net.cpp:156] Memory required for data: 86016
I0925 23:10:59.399250 25015 layer_factory.hpp:77] Creating layer lstm1_
I0925 23:10:59.399258 25015 net.cpp:91] Creating Layer lstm1_
I0925 23:10:59.399262 25015 net.cpp:425] lstm1_ <- c_1
I0925 23:10:59.399272 25015 net.cpp:399] lstm1_ -> c_T
I0925 23:10:59.399319 25015 net.cpp:141] Setting up lstm1_
I0925 23:10:59.399336 25015 net.cpp:148] Top shape: 1 1 1000 (1000)
I0925 23:10:59.399345 25015 net.cpp:156] Memory required for data: 90016
I0925 23:10:59.399351 25015 layer_factory.hpp:77] Creating layer lstm1_h_concat
I0925 23:10:59.399363 25015 net.cpp:91] Creating Layer lstm1_h_concat
I0925 23:10:59.399369 25015 net.cpp:425] lstm1_h_concat <- h_1
I0925 23:10:59.399377 25015 net.cpp:399] lstm1_h_concat -> h
I0925 23:10:59.399492 25059 net.cpp:141] Setting up lstm1_h_conted_0
I0925 23:10:59.399513 25059 net.cpp:148] Top shape: 1 1 1000 (1000)
I0925 23:10:59.399521 25059 net.cpp:156] Memory required for data: 46016
I0925 23:10:59.399529 25059 layer_factory.hpp:77] Creating layer lstm1_transform_1
I0925 23:10:59.399549 25059 net.cpp:91] Creating Layer lstm1_transform_1
I0925 23:10:59.399556 25059 net.cpp:425] lstm1_transform_1 <- h_conted_0
I0925 23:10:59.399567 25009 net.cpp:141] Setting up lstm1_h_conted_0
I0925 23:10:59.399570 25059 net.cpp:399] lstm1_transform_1 -> W_hc_h_0
I0925 23:10:59.399595 25009 net.cpp:148] Top shape: 1 1 1000 (1000)
I0925 23:10:59.399601 25009 net.cpp:156] Memory required for data: 46016
I0925 23:10:59.399608 25015 net.cpp:141] Setting up lstm1_h_concat
I0925 23:10:59.399613 25009 layer_factory.hpp:77] Creating layer lstm1_transform_1
I0925 23:10:59.399621 25015 net.cpp:148] Top shape: 1 1 1000 (1000)
I0925 23:10:59.399626 25015 net.cpp:156] Memory required for data: 94016
I0925 23:10:59.399631 25015 layer_factory.hpp:77] Creating layer h_pseudoloss
I0925 23:10:59.399631 25009 net.cpp:91] Creating Layer lstm1_transform_1
I0925 23:10:59.399643 25009 net.cpp:425] lstm1_transform_1 <- h_conted_0
I0925 23:10:59.399651 25015 net.cpp:91] Creating Layer h_pseudoloss
I0925 23:10:59.399657 25015 net.cpp:425] h_pseudoloss <- h
I0925 23:10:59.399663 25015 net.cpp:399] h_pseudoloss -> h_pseudoloss
I0925 23:10:59.399775 25063 net.cpp:141] Setting up cont_1_lstm1_cont_slice_0_split
I0925 23:10:59.399796 25063 net.cpp:148] Top shape: 1 1 (1)
I0925 23:10:59.399808 25063 net.cpp:148] Top shape: 1 1 (1)
I0925 23:10:59.399818 25063 net.cpp:156] Memory required for data: 10016
I0925 23:10:59.399828 25063 layer_factory.hpp:77] Creating layer lstm1_x_transform
I0925 23:10:59.399855 25063 net.cpp:91] Creating Layer lstm1_x_transform
I0925 23:10:59.399868 25063 net.cpp:425] lstm1_x_transform <- x
I0925 23:10:59.399886 25063 net.cpp:399] lstm1_x_transform -> W_xc_x
I0925 23:10:59.399984 25033 net.cpp:141] Setting up lstm1_x_transform
I0925 23:10:59.400023 25033 net.cpp:148] Top shape: 1 1 4000 (4000)
I0925 23:10:59.400041 25033 net.cpp:156] Memory required for data: 26016
I0925 23:10:59.400070 25009 net.cpp:399] lstm1_transform_1 -> W_hc_h_0
I0925 23:10:59.400075 25033 layer_factory.hpp:77] Creating layer lstm1_W_xc_x_slice
I0925 23:10:59.400097 25033 net.cpp:91] Creating Layer lstm1_W_xc_x_slice
I0925 23:10:59.400112 25033 net.cpp:425] lstm1_W_xc_x_slice <- W_xc_x
I0925 23:10:59.400130 25033 net.cpp:399] lstm1_W_xc_x_slice -> W_xc_x_1
…
I0925 23:10:59.411737 25015 net.cpp:219] lstm1_ does not need backward computation.
I0925 23:10:59.411741 25015 net.cpp:261] This network produces output c_T
I0925 23:10:59.411748 25015 net.cpp:261] This network produces output h_pseudoloss
I0925 23:10:59.411767 25015 net.cpp:274] Network initialization done.
I0925 23:10:59.411854 25015 recurrent_layer.cpp:150] Adding parameter 0: W_xc
I0925 23:10:59.411864 25015 recurrent_layer.cpp:150] Adding parameter 1: b_c
I0925 23:10:59.411869 25015 recurrent_layer.cpp:150] Adding parameter 2: W_hc
I0925 23:10:59.426481 25033 net.cpp:141] Setting up lstm1_W_xc_x_slice
I0925 23:10:59.426533 25033 net.cpp:148] Top shape: 1 1 4000 (4000)
I0925 23:10:59.426544 25033 net.cpp:156] Memory required for data: 42016
I0925 23:10:59.426558 25033 layer_factory.hpp:77] Creating layer lstm1_h_conted_0
I0925 23:10:59.426584 25033 net.cpp:91] Creating Layer lstm1_h_conted_0
I0925 23:10:59.426617 25033 net.cpp:425] lstm1_h_conted_0 <- h_0
I0925 23:10:59.426635 25033 net.cpp:425] lstm1_h_conted_0 <- cont_1_lstm1_cont_slice_0_split_0
I0925 23:10:59.426651 25033 net.cpp:399] lstm1_h_conted_0 -> h_conted_0
I0925 23:10:59.426820 25033 net.cpp:141] Setting up lstm1_h_conted_0
I0925 23:10:59.426836 25033 net.cpp:148] Top shape: 1 1 1000 (1000)
I0925 23:10:59.426843 25033 net.cpp:156] Memory required for data: 46016
I0925 23:10:59.426851 25033 layer_factory.hpp:77] Creating layer lstm1_transform_1
I0925 23:10:59.426872 25033 net.cpp:91] Creating Layer lstm1_transform_1
I0925 23:10:59.426879 25033 net.cpp:425] lstm1_transform_1 <- h_conted_0
I0925 23:10:59.426893 25033 net.cpp:399] lstm1_transform_1 -> W_hc_h_0
I0925 23:10:59.438546 25027 net.cpp:141] Setting up lstm1_transform_1
I0925 23:10:59.438621 25027 net.cpp:148] Top shape: 1 1 4000 (4000)
I0925 23:10:59.438633 25027 net.cpp:156] Memory required for data: 62016
I0925 23:10:59.438663 25027 layer_factory.hpp:77] Creating layer lstm1_gate_input_1
I0925 23:10:59.438696 25027 net.cpp:91] Creating Layer lstm1_gate_input_1
I0925 23:10:59.438709 25027 net.cpp:425] lstm1_gate_input_1 <- W_hc_h_0
I0925 23:10:59.438721 25027 net.cpp:425] lstm1_gate_input_1 <- W_xc_x_1
I0925 23:10:59.438736 25027 net.cpp:399] lstm1_gate_input_1 -> gate_input_1
I0925 23:10:59.439048 25015 net.cpp:141] Setting up lstm1
I0925 23:10:59.439090 25015 net.cpp:148] Top shape: 1 1 1000 (1000)
I0925 23:10:59.439098 25015 net.cpp:156] Memory required for data: 26408
I0925 23:10:59.439131 25015 layer_factory.hpp:77] Creating layer concat
I0925 23:10:59.439152 25015 net.cpp:91] Creating Layer concat
I0925 23:10:59.439163 25015 net.cpp:425] concat <- lstm1
I0925 23:10:59.439177 25015 net.cpp:425] concat <- embedded_input_sentence
I0925 23:10:59.439185 25015 net.cpp:425] concat <- reshaped_stage_indicator
I0925 23:10:59.439198 25015 net.cpp:399] concat -> lstm1_video_sequence
I0925 23:10:59.439251 25015 net.cpp:141] Setting up concat
I0925 23:10:59.439266 25015 net.cpp:148] Top shape: 1 1 1501 (1501)
I0925 23:10:59.439273 25015 net.cpp:156] Memory required for data: 32412
I0925 23:10:59.439281 25015 layer_factory.hpp:77] Creating layer lstm2
I0925 23:10:59.439302 25015 net.cpp:91] Creating Layer lstm2
I0925 23:10:59.439311 25015 net.cpp:425] lstm2 <- lstm1_video_sequence
I0925 23:10:59.439322 25015 net.cpp:425] lstm2 <- cont_sentence_input_1_split_1
I0925 23:10:59.439335 25015 net.cpp:399] lstm2 -> lstm2
I0925 23:10:59.439352 25015 recurrent_layer.cpp:20] Initializing recurrent layer: assuming input batch contains 1 timesteps of 1 independent streams.
I0925 23:10:59.439790 25015 net.cpp:49] Initializing net from parameters: 
layer {
  name: "lstm2_"
  type: "Input"
  top: "x"
  top: "cont"
  input_param {
    shape {
      dim: 1
      dim: 1
      dim: 1501
    }
    shape {
      dim: 1
      dim: 1
    }
  }
}
layer {
  name: "lstm2_"
  type: "Input"
  top: "c_0"
  top: "h_0"
  input_param {
    shape {
      dim: 1
      dim: 1
      dim: 1000
    }
    shape {
      dim: 1
      dim: 1
      dim: 1000
    }
  }
}
layer {
  name: "lstm2_cont_slice"
  type: "Slice"
  bottom: "cont"
  top: "cont_1"
  slice_param {
    axis: 0
  }
}
layer {
  name: "lstm2_x_transform"
  type: "InnerProduct"
  bottom: "x"
  top: "W_xc_x"
  param {
    name: "W_xc"
  }
  param {
    name: "b_c"
  }
  propagate_down: true
  inner_product_param {
    num_output: 4000
    bias_term: true
    weight_filler {
      type: "uniform"
      min: -0.08
      max: 0.08
    }
    bias_filler {
      type: "constant"
      value: 0
    }
    axis: 2
  }
}
layer {
  name: "lstm2_W_xc_x_slice"
  type: "Slice"
  bottom: "W_xc_x"
  top: "W_xc_x_1"
  slice_param {
    axis: 0
  }
}
layer {
  name: "lstm2_h_conted_0"
  type: "Scale"
  bottom: "h_0"
  bottom: "cont_1"
  top: "h_conted_0"
  scale_param {
    axis: 0
  }
}
layer {
  name: "lstm2_transform_1"
  type: "InnerProduct"
  bottom: "h_conted_0"
  top: "W_hc_h_0"
  param {
    name: "W_hc"
  }
  inner_product_param {
    num_output: 4000
    bias_term: false
    weight_filler {
      type: "uniform"
      min: -0.08
      max: 0.08
    }
    axis: 2
  }
}
layer {
  name: "lstm2_gate_input_1"
  type: "Eltwise"
  bottom: "W_hc_h_0"
  bottom: "W_xc_x_1"
  top: "gate_input_1"
  eltwise_param {
    operation: SUM
  }
}
layer {
  name: "lstm2_unit_1"
  type: "LSTMUnit"
  bottom: "c_0"
  bottom: "gate_input_1"
  bottom: "cont_1"
  top: "c_1"
  top: "h_1"
}
layer {
  name: "lstm2_"
  type: "Split"
  bottom: "c_1"
  top: "c_T"
}
layer {
  name: "lstm2_h_concat"
  type: "Concat"
  bottom: "h_1"
  top: "h"
  concat_param {
    axis: 0
  }
}
layer {
  name: "h_pseudoloss"
  type: "Reduction"
  bottom: "h"
  top: "h_pseudoloss"
  loss_weight: 1
}
I0925 23:10:59.439940 25015 layer_factory.hpp:77] Creating layer lstm2_
I0925 23:10:59.439963 25015 net.cpp:91] Creating Layer lstm2_
I0925 23:10:59.439975 25015 net.cpp:399] lstm2_ -> x
I0925 23:10:59.439990 25015 net.cpp:399] lstm2_ -> cont
I0925 23:10:59.440115 25051 net.cpp:141] Setting up embedding
I0925 23:10:59.440141 25051 net.cpp:148] Top shape: 1 1 500 (500)
I0925 23:10:59.440150 25051 net.cpp:156] Memory required for data: 22408
I0925 23:10:59.440171 25051 layer_factory.hpp:77] Creating layer lstm1
I0925 23:10:59.440222 25051 net.cpp:91] Creating Layer lstm1
I0925 23:10:59.440237 25051 net.cpp:425] lstm1 <- embedded_input_frames
I0925 23:10:59.440249 25051 net.cpp:425] lstm1 <- cont_sentence_input_1_split_0
I0925 23:10:59.440265 25051 net.cpp:399] lstm1 -> lstm1
I0925 23:10:59.440285 25051 recurrent_layer.cpp:20] Initializing recurrent layer: assuming input batch contains 1 timesteps of 1 independent streams.
I0925 23:10:59.440680 25051 net.cpp:49] Initializing net from parameters: 
layer {
  name: "lstm1_"
  type: "Input"
  top: "x"
  top: "cont"
  input_param {
    shape {
      dim: 1
      dim: 1
      dim: 500
    }
    shape {
      dim: 1
      dim: 1
    }
  }
}
layer {
  name: "lstm1_"
  type: "Input"
  top: "c_0"
  top: "h_0"
  input_param {
    shape {
      dim: 1
      dim: 1
      dim: 1000
    }
    shape {
      dim: 1
      dim: 1
      dim: 1000
    }
  }
}
layer {
  name: "lstm1_cont_slice"
  type: "Slice"
  bottom: "cont"
  top: "cont_1"
  slice_param {
    axis: 0
  }
}
layer {
  name: "lstm1_x_transform"
  type: "InnerProduct"
  bottom: "x"
  top: "W_xc_x"
  param {
    name: "W_xc"
  }
  param {
    name: "b_c"
  }
  propagate_down: true
  inner_product_param {
    num_output: 4000
    bias_term: true
    weight_filler {
      type: "uniform"
      min: -0.08
      max: 0.08
    }
    bias_filler {
      type: "constant"
      value: 0
    }
    axis: 2
  }
}
layer {
  name: "lstm1_W_xc_x_slice"
  type: "Slice"
  bottom: "W_xc_x"
  top: "W_xc_x_1"
  slice_param {
    axis: 0
  }
}
layer {
  name: "lstm1_h_conted_0"
  type: "Scale"
  bottom: "h_0"
  bottom: "cont_1"
  top: "h_conted_0"
  scale_param {
    axis: 0
  }
}
layer {
  name: "lstm1_transform_1"
  type: "InnerProduct"
  bottom: "h_conted_0"
  top: "W_hc_h_0"
  param {
    name: "W_hc"
  }
  inner_product_param {
    num_output: 4000
    bias_term: false
    weight_filler {
      type: "uniform"
      min: -0.08
      max: 0.08
    }
    axis: 2
  }
}
layer {
  name: "lstm1_gate_input_1"
  type: "Eltwise"
  bottom: "W_hc_h_0"
  bottom: "W_xc_x_1"
  top: "gate_input_1"
  eltwise_param {
    operation: SUM
  }
}
layer {
  name: "lstm1_unit_1"
  type: "LSTMUnit"
  bottom: "c_0"
  bottom: "gate_input_1"
  bottom: "cont_1"
  top: "c_1"
  top: "h_1"
}
layer {
  name: "lstm1_"
  type: "Split"
  bottom: "c_1"
  top: "c_T"
}
layer {
  name: "lstm1_h_concat"
  type: "Concat"
  bottom: "h_1"
  top: "h"
  concat_param {
    axis: 0
  }
}
layer {
  name: "h_pseudoloss"
  type: "Reduction"
  bottom: "h"
  top: "h_pseudoloss"
  loss_weight: 1
}
I0925 23:10:59.440774 25051 layer_factory.hpp:77] Creating layer lstm1_
I0925 23:10:59.440788 25051 net.cpp:91] Creating Layer lstm1_
I0925 23:10:59.440793 25051 net.cpp:399] lstm1_ -> x
I0925 23:10:59.440806 25051 net.cpp:399] lstm1_ -> cont
I0925 23:10:59.442384 25015 net.cpp:141] Setting up lstm2_
I0925 23:10:59.442421 25015 net.cpp:148] Top shape: 1 1 1501 (1501)
I0925 23:10:59.442432 25015 net.cpp:148] Top shape: 1 1 (1)
I0925 23:10:59.442440 25015 net.cpp:156] Memory required for data: 6008
I0925 23:10:59.442451 25015 layer_factory.hpp:77] Creating layer lstm2_
I0925 23:10:59.442481 25015 net.cpp:91] Creating Layer lstm2_
I0925 23:10:59.442493 25015 net.cpp:399] lstm2_ -> c_0
I0925 23:10:59.442515 25015 net.cpp:399] lstm2_ -> h_0
I0925 23:10:59.442615 25015 net.cpp:141] Setting up lstm2_
I0925 23:10:59.442632 25015 net.cpp:148] Top shape: 1 1 1000 (1000)
I0925 23:10:59.442642 25015 net.cpp:148] Top shape: 1 1 1000 (1000)
I0925 23:10:59.442648 25015 net.cpp:156] Memory required for data: 14008
I0925 23:10:59.442656 25015 layer_factory.hpp:77] Creating layer lstm2_cont_slice
I0925 23:10:59.442670 25015 net.cpp:91] Creating Layer lstm2_cont_slice
I0925 23:10:59.442679 25015 net.cpp:425] lstm2_cont_slice <- cont
I0925 23:10:59.442698 25015 net.cpp:399] lstm2_cont_slice -> cont_1
I0925 23:10:59.442674 25027 net.cpp:141] Setting up lstm1_gate_input_1
I0925 23:10:59.442749 25027 net.cpp:148] Top shape: 1 1 4000 (4000)
I0925 23:10:59.442757 25027 net.cpp:156] Memory required for data: 78016
I0925 23:10:59.442764 25015 net.cpp:141] Setting up lstm2_cont_slice
I0925 23:10:59.442800 25015 net.cpp:148] Top shape: 1 1 (1)
I0925 23:10:59.442807 25015 net.cpp:156] Memory required for data: 14012
I0925 23:10:59.442816 25015 layer_factory.hpp:77] Creating layer cont_1_lstm2_cont_slice_0_split
I0925 23:10:59.442767 25027 layer_factory.hpp:77] Creating layer lstm1_unit_1
I0925 23:10:59.442827 25015 net.cpp:91] Creating Layer cont_1_lstm2_cont_slice_0_split
I0925 23:10:59.442836 25015 net.cpp:425] cont_1_lstm2_cont_slice_0_split <- cont_1
I0925 23:10:59.442838 25027 net.cpp:91] Creating Layer lstm1_unit_1
I0925 23:10:59.442848 25015 net.cpp:399] cont_1_lstm2_cont_slice_0_split -> cont_1_lstm2_cont_slice_0_split_0
I0925 23:10:59.442867 25015 net.cpp:399] cont_1_lstm2_cont_slice_0_split -> cont_1_lstm2_cont_slice_0_split_1
I0925 23:10:59.442849 25027 net.cpp:425] lstm1_unit_1 <- c_0
I0925 23:10:59.443058 25027 net.cpp:425] lstm1_unit_1 <- gate_input_1
I0925 23:10:59.443071 25027 net.cpp:425] lstm1_unit_1 <- cont_1_lstm1_cont_slice_0_split_1
I0925 23:10:59.443089 25027 net.cpp:399] lstm1_unit_1 -> c_1
I0925 23:10:59.443104 25027 net.cpp:399] lstm1_unit_1 -> h_1
I0925 23:10:59.450042 25051 net.cpp:141] Setting up lstm1_
I0925 23:10:59.450096 25051 net.cpp:148] Top shape: 1 1 500 (500)
I0925 23:10:59.450105 25051 net.cpp:148] Top shape: 1 1 (1)
I0925 23:10:59.450110 25051 net.cpp:156] Memory required for data: 2004
I0925 23:10:59.450120 25051 layer_factory.hpp:77] Creating layer lstm1_
I0925 23:10:59.450153 25051 net.cpp:91] Creating Layer lstm1_
I0925 23:10:59.450163 25051 net.cpp:399] lstm1_ -> c_0
I0925 23:10:59.450177 25059 net.cpp:141] Setting up lstm1_transform_1
I0925 23:10:59.450218 25059 net.cpp:148] Top shape: 1 1 4000 (4000)
I0925 23:10:59.450224 25059 net.cpp:156] Memory required for data: 62016
I0925 23:10:59.450222 25015 net.cpp:141] Setting up cont_1_lstm2_cont_slice_0_split
I0925 23:10:59.450242 25015 net.cpp:148] Top shape: 1 1 (1)
I0925 23:10:59.450243 25059 layer_factory.hpp:77] Creating layer lstm1_gate_input_1
I0925 23:10:59.450258 25015 net.cpp:148] Top shape: 1 1 (1)
I0925 23:10:59.450266 25015 net.cpp:156] Memory required for data: 14020
I0925 23:10:59.450268 25051 net.cpp:399] lstm1_ -> h_0
I0925 23:10:59.450273 25059 net.cpp:91] Creating Layer lstm1_gate_input_1
I0925 23:10:59.450290 25027 net.cpp:141] Setting up lstm1_unit_1
I0925 23:10:59.450299 25059 net.cpp:425] lstm1_gate_input_1 <- W_hc_h_0
I0925 23:10:59.450275 25015 layer_factory.hpp:77] Creating layer lstm2_x_transform
I0925 23:10:59.450309 25059 net.cpp:425] lstm1_gate_input_1 <- W_xc_x_1
I0925 23:10:59.450317 25027 net.cpp:148] Top shape: 1 1 1000 (1000)
I0925 23:10:59.450335 25015 net.cpp:91] Creating Layer lstm2_x_transform
I0925 23:10:59.450335 25059 net.cpp:399] lstm1_gate_input_1 -> gate_input_1
I0925 23:10:59.450347 25015 net.cpp:425] lstm2_x_transform <- x
I0925 23:10:59.450350 25027 net.cpp:148] Top shape: 1 1 1000 (1000)
I0925 23:10:59.450356 25027 net.cpp:156] Memory required for data: 86016
I0925 23:10:59.450364 25015 net.cpp:399] lstm2_x_transform -> W_xc_x
I0925 23:10:59.450366 25027 layer_factory.hpp:77] Creating layer lstm1_
I0925 23:10:59.450389 25027 net.cpp:91] Creating Layer lstm1_
I0925 23:10:59.450394 25051 net.cpp:141] Setting up lstm1_
I0925 23:10:59.450399 25027 net.cpp:425] lstm1_ <- c_1
I0925 23:10:59.450415 25051 net.cpp:148] Top shape: 1 1 1000 (1000)
I0925 23:10:59.450424 25027 net.cpp:399] lstm1_ -> c_T
I0925 23:10:59.450428 25051 net.cpp:148] Top shape: 1 1 1000 (1000)
I0925 23:10:59.450435 25051 net.cpp:156] Memory required for data: 10004
I0925 23:10:59.450443 25051 layer_factory.hpp:77] Creating layer lstm1_cont_slice
I0925 23:10:59.450460 25051 net.cpp:91] Creating Layer lstm1_cont_slice
I0925 23:10:59.450467 25051 net.cpp:425] lstm1_cont_slice <- cont
I0925 23:10:59.450480 25051 net.cpp:399] lstm1_cont_slice -> cont_1
I0925 23:10:59.450492 25059 net.cpp:141] Setting up lstm1_gate_input_1
I0925 23:10:59.450503 25059 net.cpp:148] Top shape: 1 1 4000 (4000)
I0925 23:10:59.450507 25059 net.cpp:156] Memory required for data: 78016
I0925 23:10:59.450512 25059 layer_factory.hpp:77] Creating layer lstm1_unit_1
I0925 23:10:59.450523 25059 net.cpp:91] Creating Layer lstm1_unit_1
I0925 23:10:59.450530 25059 net.cpp:425] lstm1_unit_1 <- c_0
I0925 23:10:59.450536 25059 net.cpp:425] lstm1_unit_1 <- gate_input_1
I0925 23:10:59.450541 25059 net.cpp:425] lstm1_unit_1 <- cont_1_lstm1_cont_slice_0_split_1
I0925 23:10:59.450543 25051 net.cpp:141] Setting up lstm1_cont_slice
I0925 23:10:59.450547 25059 net.cpp:399] lstm1_unit_1 -> c_1
I0925 23:10:59.450562 25051 net.cpp:148] Top shape: 1 1 (1)
I0925 23:10:59.450567 25059 net.cpp:399] lstm1_unit_1 -> h_1
I0925 23:10:59.450569 25051 net.cpp:156] Memory required for data: 10008
I0925 23:10:59.450577 25051 layer_factory.hpp:77] Creating layer cont_1_lstm1_cont_slice_0_split
I0925 23:10:59.450587 25051 net.cpp:91] Creating Layer cont_1_lstm1_cont_slice_0_split
I0925 23:10:59.450608 25051 net.cpp:425] cont_1_lstm1_cont_slice_0_split <- cont_1
I0925 23:10:59.450649 25051 net.cpp:399] cont_1_lstm1_cont_slice_0_split -> cont_1_lstm1_cont_slice_0_split_0
I0925 23:10:59.450664 25051 net.cpp:399] cont_1_lstm1_cont_slice_0_split -> cont_1_lstm1_cont_slice_0_split_1
I0925 23:10:59.465270 25027 net.cpp:141] Setting up lstm1_
I0925 23:10:59.465327 25027 net.cpp:148] Top shape: 1 1 1000 (1000)
I0925 23:10:59.465338 25027 net.cpp:156] Memory required for data: 90016
I0925 23:10:59.465351 25027 layer_factory.hpp:77] Creating layer lstm1_h_concat
I0925 23:10:59.465375 25027 net.cpp:91] Creating Layer lstm1_h_concat
I0925 23:10:59.465389 25027 net.cpp:425] lstm1_h_concat <- h_1
I0925 23:10:59.465409 25027 net.cpp:399] lstm1_h_concat -> h
I0925 23:10:59.465687 25063 net.cpp:141] Setting up lstm1_x_transform
I0925 23:10:59.465744 25063 net.cpp:148] Top shape: 1 1 4000 (4000)
I0925 23:10:59.465746 25009 net.cpp:141] Setting up lstm1_transform_1
I0925 23:10:59.465764 25063 net.cpp:156] Memory required for data: 26016
I0925 23:10:59.465771 25009 net.cpp:148] Top shape: 1 1 4000 (4000)
I0925 23:10:59.465783 25009 net.cpp:156] Memory required for data: 62016
I0925 23:10:59.465795 25027 net.cpp:141] Setting up lstm1_h_concat
I0925 23:10:59.465803 25009 layer_factory.hpp:77] Creating layer lstm1_gate_input_1
I0925 23:10:59.465806 25063 layer_factory.hpp:77] Creating layer lstm1_W_xc_x_slice
I0925 23:10:59.465813 25027 net.cpp:148] Top shape: 1 1 1000 (1000)
I0925 23:10:59.465834 25009 net.cpp:91] Creating Layer lstm1_gate_input_1
I0925 23:10:59.465859 25027 net.cpp:156] Memory required for data: 94016
I0925 23:10:59.465859 25063 net.cpp:91] Creating Layer lstm1_W_xc_x_slice
I0925 23:10:59.465869 25009 net.cpp:425] lstm1_gate_input_1 <- W_hc_h_0
I0925 23:10:59.465872 25027 layer_factory.hpp:77] Creating layer h_pseudoloss
I0925 23:10:59.465884 25063 net.cpp:425] lstm1_W_xc_x_slice <- W_xc_x
I0925 23:10:59.465891 25009 net.cpp:425] lstm1_gate_input_1 <- W_xc_x_1
I0925 23:10:59.465909 25009 net.cpp:399] lstm1_gate_input_1 -> gate_input_1
I0925 23:10:59.465910 25063 net.cpp:399] lstm1_W_xc_x_slice -> W_xc_x_1
I0925 23:10:59.465903 25027 net.cpp:91] Creating Layer h_pseudoloss
I0925 23:10:59.465932 25027 net.cpp:425] h_pseudoloss <- h
I0925 23:10:59.465946 25027 net.cpp:399] h_pseudoloss -> h_pseudoloss
I0925 23:10:59.465903 25059 net.cpp:141] Setting up lstm1_unit_1
I0925 23:10:59.465979 25059 net.cpp:148] Top shape: 1 1 1000 (1000)
I0925 23:10:59.465991 25059 net.cpp:148] Top shape: 1 1 1000 (1000)
I0925 23:10:59.465997 25059 net.cpp:156] Memory required for data: 86016
I0925 23:10:59.466006 25059 layer_factory.hpp:77] Creating layer lstm1_
I0925 23:10:59.466019 25059 net.cpp:91] Creating Layer lstm1_
I0925 23:10:59.466027 25059 net.cpp:425] lstm1_ <- c_1
I0925 23:10:59.466038 25059 net.cpp:399] lstm1_ -> c_T
I0925 23:10:59.466049 25063 net.cpp:141] Setting up lstm1_W_xc_x_slice
I0925 23:10:59.466078 25063 net.cpp:148] Top shape: 1 1 4000 (4000)
I0925 23:10:59.466091 25063 net.cpp:156] Memory required for data: 42016
I0925 23:10:59.466107 25063 layer_factory.hpp:77] Creating layer lstm1_h_conted_0
I0925 23:10:59.466110 25009 net.cpp:141] Setting up lstm1_gate_input_1
I0925 23:10:59.466130 25009 net.cpp:148] Top shape: 1 1 4000 (4000)
I0925 23:10:59.466140 25009 net.cpp:156] Memory required for data: 78016
I0925 23:10:59.466140 25063 net.cpp:91] Creating Layer lstm1_h_conted_0
I0925 23:10:59.466150 25009 layer_factory.hpp:77] Creating layer lstm1_unit_1
I0925 23:10:59.466159 25063 net.cpp:425] lstm1_h_conted_0 <- h_0
I0925 23:10:59.466167 25009 net.cpp:91] Creating Layer lstm1_unit_1
I0925 23:10:59.466179 25009 net.cpp:425] lstm1_unit_1 <- c_0
I0925 23:10:59.466183 25051 net.cpp:141] Setting up cont_1_lstm1_cont_slice_0_split
I0925 23:10:59.466177 25063 net.cpp:425] lstm1_h_conted_0 <- cont_1_lstm1_cont_slice_0_split_0
I0925 23:10:59.466204 25009 net.cpp:425] lstm1_unit_1 <- gate_input_1
I0925 23:10:59.466202 25051 net.cpp:148] Top shape: 1 1 (1)
I0925 23:10:59.466241 25063 net.cpp:399] lstm1_h_conted_0 -> h_conted_0
I0925 23:10:59.466254 25051 net.cpp:148] Top shape: 1 1 (1)
I0925 23:10:59.466264 25051 net.cpp:156] Memory required for data: 10016
I0925 23:10:59.466246 25009 net.cpp:425] lstm1_unit_1 <- cont_1_lstm1_cont_slice_0_split_1
I0925 23:10:59.466274 25051 layer_factory.hpp:77] Creating layer lstm1_x_transform
I0925 23:10:59.466285 25009 net.cpp:399] lstm1_unit_1 -> c_1
I0925 23:10:59.466296 25051 net.cpp:91] Creating Layer lstm1_x_transform
I0925 23:10:59.466305 25051 net.cpp:425] lstm1_x_transform <- x
I0925 23:10:59.466305 25009 net.cpp:399] lstm1_unit_1 -> h_1
I0925 23:10:59.466321 25051 net.cpp:399] lstm1_x_transform -> W_xc_x
I0925 23:10:59.466382 25059 net.cpp:141] Setting up lstm1_
I0925 23:10:59.466397 25059 net.cpp:148] Top shape: 1 1 1000 (1000)
I0925 23:10:59.466403 25059 net.cpp:156] Memory required for data: 90016
I0925 23:10:59.466410 25059 layer_factory.hpp:77] Creating layer lstm1_h_concat
I0925 23:10:59.466425 25059 net.cpp:91] Creating Layer lstm1_h_concat
I0925 23:10:59.466434 25059 net.cpp:425] lstm1_h_concat <- h_1
I0925 23:10:59.466445 25059 net.cpp:399] lstm1_h_concat -> h
I0925 23:10:59.466491 25027 net.cpp:141] Setting up h_pseudoloss
…
I0925 23:10:59.466689 25027 net.cpp:219] lstm1_ does not need backward computation.
I0925 23:10:59.466696 25027 net.cpp:261] This network produces output c_T
I0925 23:10:59.466703 25027 net.cpp:261] This network produces output h_pseudoloss
I0925 23:10:59.466730 25027 net.cpp:274] Network initialization done.
I0925 23:10:59.466800 25027 recurrent_layer.cpp:150] Adding parameter 0: W_xc
I0925 23:10:59.466811 25027 recurrent_layer.cpp:150] Adding parameter 1: b_c
I0925 23:10:59.466820 25027 recurrent_layer.cpp:150] Adding parameter 2: W_hc
I0925 23:10:59.471987 25059 net.cpp:141] Setting up lstm1_h_concat
I0925 23:10:59.472028 25059 net.cpp:148] Top shape: 1 1 1000 (1000)
I0925 23:10:59.472035 25059 net.cpp:156] Memory required for data: 94016
I0925 23:10:59.472045 25059 layer_factory.hpp:77] Creating layer h_pseudoloss
I0925 23:10:59.472064 25059 net.cpp:91] Creating Layer h_pseudoloss
I0925 23:10:59.472072 25059 net.cpp:425] h_pseudoloss <- h
I0925 23:10:59.472090 25059 net.cpp:399] h_pseudoloss -> h_pseudoloss
I0925 23:10:59.472270 25019 net.cpp:141] Setting up embedding
I0925 23:10:59.472290 25019 net.cpp:148] Top shape: 1 1 500 (500)
I0925 23:10:59.472299 25019 net.cpp:156] Memory required for data: 22408
I0925 23:10:59.472319 25019 layer_factory.hpp:77] Creating layer lstm1
I0925 23:10:59.472339 25019 net.cpp:91] Creating Layer lstm1
I0925 23:10:59.472348 25019 net.cpp:425] lstm1 <- embedded_input_frames
I0925 23:10:59.472360 25019 net.cpp:425] lstm1 <- cont_sentence_input_1_split_0
I0925 23:10:59.472374 25019 net.cpp:399] lstm1 -> lstm1
I0925 23:10:59.472374 25009 net.cpp:141] Setting up lstm1_unit_1
I0925 23:10:59.472394 25019 recurrent_layer.cpp:20] Initializing recurrent layer: assuming input batch contains 1 timesteps of 1 independent streams.
I0925 23:10:59.472400 25009 net.cpp:148] Top shape: 1 1 1000 (1000)
I0925 23:10:59.472415 25009 net.cpp:148] Top shape: 1 1 1000 (1000)
I0925 23:10:59.472424 25009 net.cpp:156] Memory required for data: 86016
I0925 23:10:59.472446 25009 layer_factory.hpp:77] Creating layer lstm1_
I0925 23:10:59.472470 25009 net.cpp:91] Creating Layer lstm1_
I0925 23:10:59.472482 25009 net.cpp:425] lstm1_ <- c_1
I0925 23:10:59.472497 25009 net.cpp:399] lstm1_ -> c_T
I0925 23:10:59.472501 25063 net.cpp:141] Setting up lstm1_h_conted_0
I0925 23:10:59.472539 25063 net.cpp:148] Top shape: 1 1 1000 (1000)
I0925 23:10:59.472548 25063 net.cpp:156] Memory required for data: 46016
I0925 23:10:59.472558 25063 layer_factory.hpp:77] Creating layer lstm1_transform_1
I0925 23:10:59.472581 25063 net.cpp:91] Creating Layer lstm1_transform_1
I0925 23:10:59.472590 25063 net.cpp:425] lstm1_transform_1 <- h_conted_0
I0925 23:10:59.472606 25063 net.cpp:399] lstm1_transform_1 -> W_hc_h_0
I0925 23:10:59.472641 25059 net.cpp:141] Setting up h_pseudoloss
…
I0925 23:10:59.472856 25059 net.cpp:261] This network produces output h_pseudoloss
I0925 23:10:59.474689 25059 net.cpp:274] Network initialization done.
I0925 23:10:59.474738 25019 net.cpp:49] Initializing net from parameters: 
layer {
  name: "lstm1_"
  type: "Input"
  top: "x"
  top: "cont"
  input_param {
    shape {
      dim: 1
      dim: 1
      dim: 500
    }
    shape {
      dim: 1
      dim: 1
    }
  }
}
layer {
  name: "lstm1_"
  type: "Input"
  top: "c_0"
  top: "h_0"
  input_param {
    shape {
      dim: 1
      dim: 1
      dim: 1000
    }
    shape {
      dim: 1
      dim: 1
      dim: 1000
    }
  }
}
layer {
  name: "lstm1_cont_slice"
  type: "Slice"
  bottom: "cont"
  top: "cont_1"
  slice_param {
    axis: 0
  }
}
layer {
  name: "lstm1_x_transform"
  type: "InnerProduct"
  bottom: "x"
  top: "W_xc_x"
  param {
    name: "W_xc"
  }
  param {
    name: "b_c"
  }
  propagate_down: true
  inner_product_param {
    num_output: 4000
    bias_term: true
    weight_filler {
      type: "uniform"
      min: -0.08
      max: 0.08
    }
    bias_filler {
      type: "constant"
      value: 0
    }
    axis: 2
  }
}
layer {
  name: "lstm1_W_xc_x_slice"
  type: "Slice"
  bottom: "W_xc_x"
  top: "W_xc_x_1"
  slice_param {
    axis: 0
  }
}
layer {
  name: "lstm1_h_conted_0"
  type: "Scale"
  bottom: "h_0"
  bottom: "cont_1"
  top: "h_conted_0"
  scale_param {
    axis: 0
  }
}
layer {
  name: "lstm1_transform_1"
  type: "InnerProduct"
  bottom: "h_conted_0"
  top: "W_hc_h_0"
  param {
    name: "W_hc"
  }
  inner_product_param {
    num_output: 4000
    bias_term: false
    weight_filler {
      type: "uniform"
      min: -0.08
      max: 0.08
    }
    axis: 2
  }
}
layer {
  name: "lstm1_gate_input_1"
  type: "Eltwise"
  bottom: "W_hc_h_0"
  bottom: "W_xc_x_1"
  top: "gate_input_1"
  eltwise_param {
    operation: SUM
  }
}
layer {
  name: "lstm1_unit_1"
  type: "LSTMUnit"
  bottom: "c_0"
  bottom: "gate_input_1"
  bottom: "cont_1"
  top: "c_1"
  top: "h_1"
}
layer {
  name: "lstm1_"
  type: "Split"
  bottom: "c_1"
  top: "c_T"
}
layer {
  name: "lstm1_h_concat"
  type: "Concat"
  bottom: "h_1"
  top: "h"
  concat_param {
    axis: 0
  }
}
layer {
  name: "h_pseudoloss"
  type: "Reduction"
  bottom: "h"
  top: "h_pseudoloss"
  loss_weight: 1
}
I0925 23:10:59.474773 25059 recurrent_layer.cpp:150] Adding parameter 0: W_xc
I0925 23:10:59.474788 25059 recurrent_layer.cpp:150] Adding parameter 1: b_c
I0925 23:10:59.474797 25059 recurrent_layer.cpp:150] Adding parameter 2: W_hc
I0925 23:10:59.474881 25019 layer_factory.hpp:77] Creating layer lstm1_
I0925 23:10:59.474900 25019 net.cpp:91] Creating Layer lstm1_
I0925 23:10:59.474910 25019 net.cpp:399] lstm1_ -> x
I0925 23:10:59.474928 25019 net.cpp:399] lstm1_ -> cont
I0925 23:10:59.492115 25027 net.cpp:141] Setting up lstm1
I0925 23:10:59.492146 25009 net.cpp:141] Setting up lstm1_
I0925 23:10:59.492173 25009 net.cpp:148] Top shape: 1 1 1000 (1000)
I0925 23:10:59.492174 25027 net.cpp:148] Top shape: 1 1 1000 (1000)
I0925 23:10:59.492180 25009 net.cpp:156] Memory required for data: 90016
I0925 23:10:59.492185 25027 net.cpp:156] Memory required for data: 26408
I0925 23:10:59.492189 25009 layer_factory.hpp:77] Creating layer lstm1_h_concat
I0925 23:10:59.492208 25009 net.cpp:91] Creating Layer lstm1_h_concat
I0925 23:10:59.492218 25009 net.cpp:425] lstm1_h_concat <- h_1
I0925 23:10:59.492218 25027 layer_factory.hpp:77] Creating layer concat
I0925 23:10:59.492238 25027 net.cpp:91] Creating Layer concat
I0925 23:10:59.492239 25009 net.cpp:399] lstm1_h_concat -> h
I0925 23:10:59.492259 25027 net.cpp:425] concat <- lstm1
I0925 23:10:59.492272 25027 net.cpp:425] concat <- embedded_input_sentence
I0925 23:10:59.492283 25027 net.cpp:425] concat <- reshaped_stage_indicator
I0925 23:10:59.492295 25027 net.cpp:399] concat -> lstm1_video_sequence
I0925 23:10:59.492329 25033 net.cpp:141] Setting up lstm1_transform_1
I0925 23:10:59.492348 25033 net.cpp:148] Top shape: 1 1 4000 (4000)
I0925 23:10:59.492354 25033 net.cpp:156] Memory required for data: 62016
I0925 23:10:59.492359 25027 net.cpp:141] Setting up concat
I0925 23:10:59.492367 25033 layer_factory.hpp:77] Creating layer lstm1_gate_input_1
I0925 23:10:59.492375 25027 net.cpp:148] Top shape: 1 1 1501 (1501)
I0925 23:10:59.492383 25033 net.cpp:91] Creating Layer lstm1_gate_input_1
I0925 23:10:59.492384 25027 net.cpp:156] Memory required for data: 32412
I0925 23:10:59.492400 25033 net.cpp:425] lstm1_gate_input_1 <- W_hc_h_0
I0925 23:10:59.492406 25027 layer_factory.hpp:77] Creating layer lstm2
I0925 23:10:59.492413 25033 net.cpp:425] lstm1_gate_input_1 <- W_xc_x_1
I0925 23:10:59.492426 25033 net.cpp:399] lstm1_gate_input_1 -> gate_input_1
I0925 23:10:59.492430 25009 net.cpp:141] Setting up lstm1_h_concat
I0925 23:10:59.492432 25027 net.cpp:91] Creating Layer lstm2
I0925 23:10:59.492451 25009 net.cpp:148] Top shape: 1 1 1000 (1000)
I0925 23:10:59.492455 25027 net.cpp:425] lstm2 <- lstm1_video_sequence
I0925 23:10:59.492460 25009 net.cpp:156] Memory required for data: 94016
I0925 23:10:59.492465 25027 net.cpp:425] lstm2 <- cont_sentence_input_1_split_1
I0925 23:10:59.492470 25009 layer_factory.hpp:77] Creating layer h_pseudoloss
I0925 23:10:59.492480 25027 net.cpp:399] lstm2 -> lstm2
I0925 23:10:59.492485 25033 net.cpp:141] Setting up lstm1_gate_input_1
I0925 23:10:59.492485 25009 net.cpp:91] Creating Layer h_pseudoloss
I0925 23:10:59.492499 25027 recurrent_layer.cpp:20] Initializing recurrent layer: assuming input batch contains 1 timesteps of 1 independent streams.
I0925 23:10:59.492504 25033 net.cpp:148] Top shape: 1 1 4000 (4000)
I0925 23:10:59.492518 25033 net.cpp:156] Memory required for data: 78016
I0925 23:10:59.492527 25033 layer_factory.hpp:77] Creating layer lstm1_unit_1
I0925 23:10:59.492544 25033 net.cpp:91] Creating Layer lstm1_unit_1
I0925 23:10:59.492553 25033 net.cpp:425] lstm1_unit_1 <- c_0
I0925 23:10:59.492564 25033 net.cpp:425] lstm1_unit_1 <- gate_input_1
I0925 23:10:59.492507 25009 net.cpp:425] h_pseudoloss <- h
I0925 23:10:59.492574 25033 net.cpp:425] lstm1_unit_1 <- cont_1_lstm1_cont_slice_0_split_1
I0925 23:10:59.492599 25033 net.cpp:399] lstm1_unit_1 -> c_1
I0925 23:10:59.492599 25009 net.cpp:399] h_pseudoloss -> h_pseudoloss
I0925 23:10:59.492619 25033 net.cpp:399] lstm1_unit_1 -> h_1
I0925 23:10:59.492660 25019 net.cpp:141] Setting up lstm1_
I0925 23:10:59.492681 25019 net.cpp:148] Top shape: 1 1 500 (500)
I0925 23:10:59.492691 25019 net.cpp:148] Top shape: 1 1 (1)
I0925 23:10:59.492698 25019 net.cpp:156] Memory required for data: 2004
I0925 23:10:59.492698 25059 net.cpp:141] Setting up lstm1
I0925 23:10:59.492707 25019 layer_factory.hpp:77] Creating layer lstm1_
I0925 23:10:59.492720 25059 net.cpp:148] Top shape: 1 1 1000 (1000)
I0925 23:10:59.492725 25019 net.cpp:91] Creating Layer lstm1_
I0925 23:10:59.492728 25059 net.cpp:156] Memory required for data: 26408
I0925 23:10:59.492744 25019 net.cpp:399] lstm1_ -> c_0
I0925 23:10:59.492750 25059 layer_factory.hpp:77] Creating layer concat
I0925 23:10:59.492763 25019 net.cpp:399] lstm1_ -> h_0
I0925 23:10:59.492764 25059 net.cpp:91] Creating Layer concat
I0925 23:10:59.492786 25059 net.cpp:425] concat <- lstm1
I0925 23:10:59.492797 25059 net.cpp:425] concat <- embedded_input_sentence
I0925 23:10:59.492806 25059 net.cpp:425] concat <- reshaped_stage_indicator
I0925 23:10:59.492818 25059 net.cpp:399] concat -> lstm1_video_sequence
I0925 23:10:59.492959 25027 net.cpp:49] Initializing net from parameters: 
layer {
  name: "lstm2_"
  type: "Input"
  top: "x"
  top: "cont"
  input_param {
    shape {
      dim: 1
      dim: 1
      dim: 1501
    }
    shape {
      dim: 1
      dim: 1
    }
  }
}
layer {
  name: "lstm2_"
  type: "Input"
  top: "c_0"
  top: "h_0"
  input_param {
    shape {
      dim: 1
      dim: 1
      dim: 1000
    }
    shape {
      dim: 1
      dim: 1
      dim: 1000
    }
  }
}
layer {
  name: "lstm2_cont_slice"
  type: "Slice"
  bottom: "cont"
  top: "cont_1"
  slice_param {
    axis: 0
  }
}
layer {
  name: "lstm2_x_transform"
  type: "InnerProduct"
  bottom: "x"
  top: "W_xc_x"
  param {
    name: "W_xc"
  }
  param {
    name: "b_c"
  }
  propagate_down: true
  inner_product_param {
    num_output: 4000
    bias_term: true
    weight_filler {
      type: "uniform"
      min: -0.08
      max: 0.08
    }
    bias_filler {
      type: "constant"
      value: 0
    }
    axis: 2
  }
}
layer {
  name: "lstm2_W_xc_x_slice"
  type: "Slice"
  bottom: "W_xc_x"
  top: "W_xc_x_1"
  slice_param {
    axis: 0
  }
}
layer {
  name: "lstm2_h_conted_0"
  type: "Scale"
  bottom: "h_0"
  bottom: "cont_1"
  top: "h_conted_0"
  scale_param {
    axis: 0
  }
}
layer {
  name: "lstm2_transform_1"
  type: "InnerProduct"
  bottom: "h_conted_0"
  top: "W_hc_h_0"
  param {
    name: "W_hc"
  }
  inner_product_param {
    num_output: 4000
    bias_term: false
    weight_filler {
      type: "uniform"
      min: -0.08
      max: 0.08
    }
    axis: 2
  }
}
layer {
  name: "lstm2_gate_input_1"
  type: "Eltwise"
  bottom: "W_hc_h_0"
  bottom: "W_xc_x_1"
  top: "gate_input_1"
  eltwise_param {
    operation: SUM
  }
}
layer {
  name: "lstm2_unit_1"
  type: "LSTMUnit"
  bottom: "c_0"
  bottom: "gate_input_1"
  bottom: "cont_1"
  top: "c_1"
  top: "h_1"
}
layer {
  name: "lstm2_"
  type: "Split"
  bottom: "c_1"
  top: "c_T"
}
layer {
  name: "lstm2_h_concat"
  type: "Concat"
  bottom: "h_1"
  top: "h"
  concat_param {
    axis: 0
  }
}
layer {
  name: "h_pseudoloss"
  type: "Reduction"
  bottom: "h"
  top: "h_pseudoloss"
  loss_weight: 1
}
I0925 23:10:59.492964 25019 net.cpp:141] Setting up lstm1_
I0925 23:10:59.492990 25019 net.cpp:148] Top shape: 1 1 1000 (1000)
I0925 23:10:59.493000 25019 net.cpp:148] Top shape: 1 1 1000 (1000)
I0925 23:10:59.493007 25019 net.cpp:156] Memory required for data: 10004
I0925 23:10:59.493016 25019 layer_factory.hpp:77] Creating layer lstm1_cont_slice
I0925 23:10:59.493028 25019 net.cpp:91] Creating Layer lstm1_cont_slice
I0925 23:10:59.493036 25019 net.cpp:425] lstm1_cont_slice <- cont
I0925 23:10:59.493051 25019 net.cpp:399] lstm1_cont_slice -> cont_1
I0925 23:10:59.493062 25033 net.cpp:141] Setting up lstm1_unit_1
I0925 23:10:59.493080 25033 net.cpp:148] Top shape: 1 1 1000 (1000)
I0925 23:10:59.493091 25033 net.cpp:148] Top shape: 1 1 1000 (1000)
I0925 23:10:59.493099 25033 net.cpp:156] Memory required for data: 86016
I0925 23:10:59.493104 25059 net.cpp:141] Setting up concat
I0925 23:10:59.493108 25033 layer_factory.hpp:77] Creating layer lstm1_
I0925 23:10:59.493119 25059 net.cpp:148] Top shape: 1 1 1501 (1501)
I0925 23:10:59.493120 25033 net.cpp:91] Creating Layer lstm1_
I0925 23:10:59.493126 25059 net.cpp:156] Memory required for data: 32412
I0925 23:10:59.493129 25033 net.cpp:425] lstm1_ <- c_1
I0925 23:10:59.493139 25033 net.cpp:399] lstm1_ -> c_T
I0925 23:10:59.493142 25059 layer_factory.hpp:77] Creating layer lstm2
I0925 23:10:59.493122 25027 layer_factory.hpp:77] Creating layer lstm2_
I0925 23:10:59.493165 25027 net.cpp:91] Creating Layer lstm2_
I0925 23:10:59.493161 25059 net.cpp:91] Creating Layer lstm2
I0925 23:10:59.493190 25027 net.cpp:399] lstm2_ -> x
I0925 23:10:59.493191 25059 net.cpp:425] lstm2 <- lstm1_video_sequence
I0925 23:10:59.493211 25059 net.cpp:425] lstm2 <- cont_sentence_input_1_split_1
I0925 23:10:59.493211 25027 net.cpp:399] lstm2_ -> cont
I0925 23:10:59.493227 25059 net.cpp:399] lstm2 -> lstm2
I0925 23:10:59.493242 25051 net.cpp:141] Setting up lstm1_x_transform
I0925 23:10:59.493250 25059 recurrent_layer.cpp:20] Initializing recurrent layer: assuming input batch contains 1 timesteps of 1 independent streams.
I0925 23:10:59.493257 25051 net.cpp:148] Top shape: 1 1 4000 (4000)
I0925 23:10:59.493263 25051 net.cpp:156] Memory required for data: 26016
I0925 23:10:59.493280 25051 layer_factory.hpp:77] Creating layer lstm1_W_xc_x_slice
I0925 23:10:59.493294 25051 net.cpp:91] Creating Layer lstm1_W_xc_x_slice
I0925 23:10:59.493304 25051 net.cpp:425] lstm1_W_xc_x_slice <- W_xc_x
I0925 23:10:59.493316 25051 net.cpp:399] lstm1_W_xc_x_slice -> W_xc_x_1
I0925 23:10:59.493316 25027 net.cpp:141] Setting up lstm2_
I0925 23:10:59.493336 25027 net.cpp:148] Top shape: 1 1 1501 (1501)
I0925 23:10:59.493350 25027 net.cpp:148] Top shape: 1 1 (1)
I0925 23:10:59.493358 25027 net.cpp:156] Memory required for data: 6008
I0925 23:10:59.493367 25027 layer_factory.hpp:77] Creating layer lstm2_
I0925 23:10:59.493377 25051 net.cpp:141] Setting up lstm1_W_xc_x_slice
I0925 23:10:59.493382 25027 net.cpp:91] Creating Layer lstm2_
I0925 23:10:59.493394 25051 net.cpp:148] Top shape: 1 1 4000 (4000)
I0925 23:10:59.493402 25051 net.cpp:156] Memory required for data: 42016
I0925 23:10:59.493402 25027 net.cpp:399] lstm2_ -> c_0
I0925 23:10:59.493422 25051 layer_factory.hpp:77] Creating layer lstm1_h_conted_0
I0925 23:10:59.493437 25051 net.cpp:91] Creating Layer lstm1_h_conted_0
I0925 23:10:59.493440 25027 net.cpp:399] lstm2_ -> h_0
I0925 23:10:59.493446 25051 net.cpp:425] lstm1_h_conted_0 <- h_0
I0925 23:10:59.493456 25051 net.cpp:425] lstm1_h_conted_0 <- cont_1_lstm1_cont_slice_0_split_0
I0925 23:10:59.493469 25051 net.cpp:399] lstm1_h_conted_0 -> h_conted_0
I0925 23:10:59.493191 25033 net.cpp:141] Setting up lstm1_
I0925 23:10:59.493508 25033 net.cpp:148] Top shape: 1 1 1000 (1000)
I0925 23:10:59.493516 25033 net.cpp:156] Memory required for data: 90016
I0925 23:10:59.493525 25033 layer_factory.hpp:77] Creating layer lstm1_h_concat
I0925 23:10:59.493541 25033 net.cpp:91] Creating Layer lstm1_h_concat
I0925 23:10:59.493551 25033 net.cpp:425] lstm1_h_concat <- h_1
I0925 23:10:59.493549 25019 net.cpp:141] Setting up lstm1_cont_slice
I0925 23:10:59.493569 25033 net.cpp:399] lstm1_h_concat -> h
I0925 23:10:59.493577 25019 net.cpp:148] Top shape: 1 1 (1)
I0925 23:10:59.493584 25019 net.cpp:156] Memory required for data: 10008
I0925 23:10:59.493587 25059 net.cpp:49] Initializing net from parameters: 
layer {
  name: "lstm2_"
  type: "Input"
  top: "x"
  top: "cont"
  input_param {
    shape {
      dim: 1
      dim: 1
      dim: 1501
    }
    shape {
      dim: 1
      dim: 1
    }
  }
}
layer {
  name: "lstm2_"
  type: "Input"
  top: "c_0"
  top: "h_0"
  input_param {
    shape {
      dim: 1
      dim: 1
      dim: 1000
    }
    shape {
      dim: 1
      dim: 1
      dim: 1000
    }
  }
}
layer {
  name: "lstm2_cont_slice"
  type: "Slice"
  bottom: "cont"
  top: "cont_1"
  slice_param {
    axis: 0
  }
}
layer {
  name: "lstm2_x_transform"
  type: "InnerProduct"
  bottom: "x"
  top: "W_xc_x"
  param {
    name: "W_xc"
  }
  param {
    name: "b_c"
  }
  propagate_down: true
  inner_product_param {
    num_output: 4000
    bias_term: true
    weight_filler {
      type: "uniform"
      min: -0.08
      max: 0.08
    }
    bias_filler {
      type: "constant"
      value: 0
    }
    axis: 2
  }
}
layer {
  name: "lstm2_W_xc_x_slice"
  type: "Slice"
  bottom: "W_xc_x"
  top: "W_xc_x_1"
  slice_param {
    axis: 0
  }
}
layer {
  name: "lstm2_h_conted_0"
  type: "Scale"
  bottom: "h_0"
  bottom: "cont_1"
  top: "h_conted_0"
  scale_param {
    axis: 0
  }
}
layer {
  name: "lstm2_transform_1"
  type: "InnerProduct"
  bottom: "h_conted_0"
  top: "W_hc_h_0"
  param {
    name: "W_hc"
  }
  inner_product_param {
    num_output: 4000
    bias_term: false
    weight_filler {
      type: "uniform"
      min: -0.08
      max: 0.08
    }
    axis: 2
  }
}
layer {
  name: "lstm2_gate_input_1"
  type: "Eltwise"
  bottom: "W_hc_h_0"
  bottom: "W_xc_x_1"
  top: "gate_input_1"
  eltwise_param {
    operation: SUM
  }
}
layer {
  name: "lstm2_unit_1"
  type: "LSTMUnit"
  bottom: "c_0"
  bottom: "gate_input_1"
  bottom: "cont_1"
  top: "c_1"
  top: "h_1"
}
layer {
  name: "lstm2_"
  type: "Split"
  bottom: "c_1"
  top: "c_T"
}
layer {
  name: "lstm2_h_concat"
  type: "Concat"
  bottom: "h_1"
  top: "h"
  concat_param {
    axis: 0
  }
}
layer {
  name: "h_pseudoloss"
  type: "Reduction"
  bottom: "h"
  top: "h_pseudoloss"
  loss_weight: 1
}
I0925 23:10:59.493592 25019 layer_factory.hpp:77] Creating layer cont_1_lstm1_cont_slice_0_split
I0925 23:10:59.493619 25019 net.cpp:91] Creating Layer cont_1_lstm1_cont_slice_0_split
I0925 23:10:59.493628 25019 net.cpp:425] cont_1_lstm1_cont_slice_0_split <- cont_1
I0925 23:10:59.493638 25019 net.cpp:399] cont_1_lstm1_cont_slice_0_split -> cont_1_lstm1_cont_slice_0_split_0
I0925 23:10:59.493655 25019 net.cpp:399] cont_1_lstm1_cont_slice_0_split -> cont_1_lstm1_cont_slice_0_split_1
I0925 23:10:59.493680 25059 layer_factory.hpp:77] Creating layer lstm2_
I0925 23:10:59.493691 25059 net.cpp:91] Creating Layer lstm2_
I0925 23:10:59.493697 25059 net.cpp:399] lstm2_ -> x
I0925 23:10:59.493708 25059 net.cpp:399] lstm2_ -> cont
I0925 23:10:59.494160 25027 net.cpp:141] Setting up lstm2_
I0925 23:10:59.494180 25027 net.cpp:148] Top shape: 1 1 1000 (1000)
I0925 23:10:59.494191 25033 net.cpp:141] Setting up lstm1_h_concat
I0925 23:10:59.494199 25027 net.cpp:148] Top shape: 1 1 1000 (1000)
I0925 23:10:59.494205 25033 net.cpp:148] Top shape: 1 1 1000 (1000)
I0925 23:10:59.494210 25033 net.cpp:156] Memory required for data: 94016
I0925 23:10:59.494210 25027 net.cpp:156] Memory required for data: 14008
I0925 23:10:59.494215 25033 layer_factory.hpp:77] Creating layer h_pseudoloss
I0925 23:10:59.494220 25027 layer_factory.hpp:77] Creating layer lstm2_cont_slice
I0925 23:10:59.494226 25033 net.cpp:91] Creating Layer h_pseudoloss
I0925 23:10:59.494235 25033 net.cpp:425] h_pseudoloss <- h
…
I0925 23:10:59.494781 25009 net.cpp:217] lstm1_gate_input_1 needs backward computation.
I0925 23:10:59.494796 25009 net.cpp:217] lstm1_transform_1 needs backward computation.
I0925 23:10:59.494807 25009 net.cpp:219] lstm1_h_conted_0 does not need backward computation.
I0925 23:10:59.494817 25009 net.cpp:217] lstm1_W_xc_x_slice needs backward computation.
I0925 23:10:59.494825 25009 net.cpp:217] lstm1_x_transform needs backward computation.
I0925 23:10:59.494827 25033 net.cpp:141] Setting up lstm1
I0925 23:10:59.494834 25009 net.cpp:219] cont_1_lstm1_cont_slice_0_split does not need backward computation.
I0925 23:10:59.494839 25033 net.cpp:148] Top shape: 1 1 1000 (1000)
I0925 23:10:59.494843 25009 net.cpp:219] lstm1_cont_slice does not need backward computation.
I0925 23:10:59.494848 25033 net.cpp:156] Memory required for data: 26408
I0925 23:10:59.494855 25009 net.cpp:219] lstm1_ does not need backward computation.
I0925 23:10:59.494868 25009 net.cpp:219] lstm1_ does not need backward computation.
I0925 23:10:59.494868 25033 layer_factory.hpp:77] Creating layer concat
I0925 23:10:59.494882 25009 net.cpp:261] This network produces output c_T
I0925 23:10:59.494901 25033 net.cpp:91] Creating Layer concat
I0925 23:10:59.494905 25009 net.cpp:261] This network produces output h_pseudoloss
I0925 23:10:59.494912 25033 net.cpp:425] concat <- lstm1
I0925 23:10:59.494923 25033 net.cpp:425] concat <- embedded_input_sentence
I0925 23:10:59.494942 25033 net.cpp:425] concat <- reshaped_stage_indicator
I0925 23:10:59.494956 25033 net.cpp:399] concat -> lstm1_video_sequence
I0925 23:10:59.494925 25009 net.cpp:274] Network initialization done.
I0925 23:10:59.495028 25009 recurrent_layer.cpp:150] Adding parameter 0: W_xc
I0925 23:10:59.495039 25009 recurrent_layer.cpp:150] Adding parameter 1: b_c
I0925 23:10:59.495048 25009 recurrent_layer.cpp:150] Adding parameter 2: W_hc
I0925 23:10:59.495095 25027 net.cpp:141] Setting up lstm2_cont_slice
I0925 23:10:59.495113 25027 net.cpp:148] Top shape: 1 1 (1)
I0925 23:10:59.495123 25027 net.cpp:156] Memory required for data: 14012
I0925 23:10:59.495133 25027 layer_factory.hpp:77] Creating layer cont_1_lstm2_cont_slice_0_split
I0925 23:10:59.495147 25027 net.cpp:91] Creating Layer cont_1_lstm2_cont_slice_0_split
I0925 23:10:59.495157 25027 net.cpp:425] cont_1_lstm2_cont_slice_0_split <- cont_1
I0925 23:10:59.495167 25033 net.cpp:141] Setting up concat
I0925 23:10:59.495180 25033 net.cpp:148] Top shape: 1 1 1501 (1501)
I0925 23:10:59.495177 25027 net.cpp:399] cont_1_lstm2_cont_slice_0_split -> cont_1_lstm2_cont_slice_0_split_0
I0925 23:10:59.495210 25059 net.cpp:141] Setting up lstm2_
I0925 23:10:59.495214 25027 net.cpp:399] cont_1_lstm2_cont_slice_0_split -> cont_1_lstm2_cont_slice_0_split_1
I0925 23:10:59.495228 25059 net.cpp:148] Top shape: 1 1 1000 (1000)
I0925 23:10:59.495237 25059 net.cpp:148] Top shape: 1 1 1000 (1000)
I0925 23:10:59.495244 25059 net.cpp:156] Memory required for data: 14008
I0925 23:10:59.495252 25059 layer_factory.hpp:77] Creating layer lstm2_cont_slice
I0925 23:10:59.495265 25059 net.cpp:91] Creating Layer lstm2_cont_slice
I0925 23:10:59.495273 25059 net.cpp:425] lstm2_cont_slice <- cont
I0925 23:10:59.495308 25059 net.cpp:399] lstm2_cont_slice -> cont_1
I0925 23:10:59.495192 25033 net.cpp:156] Memory required for data: 32412
I0925 23:10:59.500784 25033 layer_factory.hpp:77] Creating layer lstm2
I0925 23:10:59.500808 25027 net.cpp:141] Setting up cont_1_lstm2_cont_slice_0_split
I0925 23:10:59.500835 25027 net.cpp:148] Top shape: 1 1 (1)
I0925 23:10:59.500840 25033 net.cpp:91] Creating Layer lstm2
I0925 23:10:59.500849 25027 net.cpp:148] Top shape: 1 1 (1)
I0925 23:10:59.500854 25033 net.cpp:425] lstm2 <- lstm1_video_sequence
I0925 23:10:59.500859 25027 net.cpp:156] Memory required for data: 14020
I0925 23:10:59.500869 25033 net.cpp:425] lstm2 <- cont_sentence_input_1_split_1
I0925 23:10:59.500869 25027 layer_factory.hpp:77] Creating layer lstm2_x_transform
I0925 23:10:59.500886 25033 net.cpp:399] lstm2 -> lstm2
I0925 23:10:59.500900 25027 net.cpp:91] Creating Layer lstm2_x_transform
I0925 23:10:59.500910 25027 net.cpp:425] lstm2_x_transform <- x
I0925 23:10:59.500910 25033 recurrent_layer.cpp:20] Initializing recurrent layer: assuming input batch contains 1 timesteps of 1 independent streams.
I0925 23:10:59.500936 25027 net.cpp:399] lstm2_x_transform -> W_xc_x
I0925 23:10:59.501358 25033 net.cpp:49] Initializing net from parameters: 
layer {
  name: "lstm2_"
  type: "Input"
  top: "x"
  top: "cont"
  input_param {
    shape {
      dim: 1
      dim: 1
      dim: 1501
    }
    shape {
      dim: 1
      dim: 1
    }
  }
}
layer {
  name: "lstm2_"
  type: "Input"
  top: "c_0"
  top: "h_0"
  input_param {
    shape {
      dim: 1
      dim: 1
      dim: 1000
    }
    shape {
      dim: 1
      dim: 1
      dim: 1000
    }
  }
}
layer {
  name: "lstm2_cont_slice"
  type: "Slice"
  bottom: "cont"
  top: "cont_1"
  slice_param {
    axis: 0
  }
}
layer {
  name: "lstm2_x_transform"
  type: "InnerProduct"
  bottom: "x"
  top: "W_xc_x"
  param {
    name: "W_xc"
  }
  param {
    name: "b_c"
  }
  propagate_down: true
  inner_product_param {
    num_output: 4000
    bias_term: true
    weight_filler {
      type: "uniform"
      min: -0.08
      max: 0.08
    }
    bias_filler {
      type: "constant"
      value: 0
    }
    axis: 2
  }
}
layer {
  name: "lstm2_W_xc_x_slice"
  type: "Slice"
  bottom: "W_xc_x"
  top: "W_xc_x_1"
  slice_param {
    axis: 0
  }
}
layer {
  name: "lstm2_h_conted_0"
  type: "Scale"
  bottom: "h_0"
  bottom: "cont_1"
  top: "h_conted_0"
  scale_param {
    axis: 0
  }
}
layer {
  name: "lstm2_transform_1"
  type: "InnerProduct"
  bottom: "h_conted_0"
  top: "W_hc_h_0"
  param {
    name: "W_hc"
  }
  inner_product_param {
    num_output: 4000
    bias_term: false
    weight_filler {
      type: "uniform"
      min: -0.08
      max: 0.08
    }
    axis: 2
  }
}
layer {
  name: "lstm2_gate_input_1"
  type: "Eltwise"
  bottom: "W_hc_h_0"
  bottom: "W_xc_x_1"
  top: "gate_input_1"
  eltwise_param {
    operation: SUM
  }
}
layer {
  name: "lstm2_unit_1"
  type: "LSTMUnit"
  bottom: "c_0"
  bottom: "gate_input_1"
  bottom: "cont_1"
  top: "c_1"
  top: "h_1"
}
layer {
  name: "lstm2_"
  type: "Split"
  bottom: "c_1"
  top: "c_T"
}
layer {
  name: "lstm2_h_concat"
  type: "Concat"
  bottom: "h_1"
  top: "h"
  concat_param {
    axis: 0
  }
}
layer {
  name: "h_pseudoloss"
  type: "Reduction"
  bottom: "h"
  top: "h_pseudoloss"
  loss_weight: 1
}
I0925 23:10:59.501499 25033 layer_factory.hpp:77] Creating layer lstm2_
I0925 23:10:59.501518 25033 net.cpp:91] Creating Layer lstm2_
I0925 23:10:59.501528 25033 net.cpp:399] lstm2_ -> x
I0925 23:10:59.501548 25033 net.cpp:399] lstm2_ -> cont
I0925 23:10:59.513556 25009 net.cpp:141] Setting up lstm1
I0925 23:10:59.513605 25059 net.cpp:141] Setting up lstm2_cont_slice
I0925 23:10:59.513622 25009 net.cpp:148] Top shape: 1 1 1000 (1000)
I0925 23:10:59.513627 25059 net.cpp:148] Top shape: 1 1 (1)
I0925 23:10:59.513631 25059 net.cpp:156] Memory required for data: 14012
I0925 23:10:59.513631 25009 net.cpp:156] Memory required for data: 26408
I0925 23:10:59.513640 25059 layer_factory.hpp:77] Creating layer cont_1_lstm2_cont_slice_0_split
I0925 23:10:59.513660 25059 net.cpp:91] Creating Layer cont_1_lstm2_cont_slice_0_split
I0925 23:10:59.513667 25059 net.cpp:425] cont_1_lstm2_cont_slice_0_split <- cont_1
I0925 23:10:59.513669 25009 layer_factory.hpp:77] Creating layer concat
I0925 23:10:59.513677 25059 net.cpp:399] cont_1_lstm2_cont_slice_0_split -> cont_1_lstm2_cont_slice_0_split_0
I0925 23:10:59.513689 25009 net.cpp:91] Creating Layer concat
I0925 23:10:59.513698 25059 net.cpp:399] cont_1_lstm2_cont_slice_0_split -> cont_1_lstm2_cont_slice_0_split_1
I0925 23:10:59.513698 25009 net.cpp:425] concat <- lstm1
I0925 23:10:59.513700 25051 net.cpp:141] Setting up lstm1_h_conted_0
I0925 23:10:59.513711 25009 net.cpp:425] concat <- embedded_input_sentence
I0925 23:10:59.513718 25051 net.cpp:148] Top shape: 1 1 1000 (1000)
I0925 23:10:59.513721 25009 net.cpp:425] concat <- reshaped_stage_indicator
I0925 23:10:59.513725 25051 net.cpp:156] Memory required for data: 46016
I0925 23:10:59.513751 25051 layer_factory.hpp:77] Creating layer lstm1_transform_1
I0925 23:10:59.513751 25009 net.cpp:399] concat -> lstm1_video_sequence
I0925 23:10:59.513767 25051 net.cpp:91] Creating Layer lstm1_transform_1
I0925 23:10:59.513774 25051 net.cpp:425] lstm1_transform_1 <- h_conted_0
I0925 23:10:59.513784 25051 net.cpp:399] lstm1_transform_1 -> W_hc_h_0
I0925 23:10:59.513784 25033 net.cpp:141] Setting up lstm2_
I0925 23:10:59.513804 25033 net.cpp:148] Top shape: 1 1 1501 (1501)
I0925 23:10:59.513814 25033 net.cpp:148] Top shape: 1 1 (1)
I0925 23:10:59.513821 25033 net.cpp:156] Memory required for data: 6008
I0925 23:10:59.513830 25033 layer_factory.hpp:77] Creating layer lstm2_
I0925 23:10:59.513850 25033 net.cpp:91] Creating Layer lstm2_
I0925 23:10:59.513851 25059 net.cpp:141] Setting up cont_1_lstm2_cont_slice_0_split
I0925 23:10:59.513861 25033 net.cpp:399] lstm2_ -> c_0
I0925 23:10:59.513864 25059 net.cpp:148] Top shape: 1 1 (1)
I0925 23:10:59.513883 25059 net.cpp:148] Top shape: 1 1 (1)
I0925 23:10:59.513888 25059 net.cpp:156] Memory required for data: 14020
I0925 23:10:59.513890 25033 net.cpp:399] lstm2_ -> h_0
I0925 23:10:59.513893 25059 layer_factory.hpp:77] Creating layer lstm2_x_transform
I0925 23:10:59.513909 25059 net.cpp:91] Creating Layer lstm2_x_transform
I0925 23:10:59.513916 25059 net.cpp:425] lstm2_x_transform <- x
I0925 23:10:59.513926 25059 net.cpp:399] lstm2_x_transform -> W_xc_x
I0925 23:10:59.513948 25009 net.cpp:141] Setting up concat
I0925 23:10:59.513967 25009 net.cpp:148] Top shape: 1 1 1501 (1501)
I0925 23:10:59.513974 25009 net.cpp:156] Memory required for data: 32412
I0925 23:10:59.513983 25009 layer_factory.hpp:77] Creating layer lstm2
I0925 23:10:59.514008 25009 net.cpp:91] Creating Layer lstm2
I0925 23:10:59.514017 25009 net.cpp:425] lstm2 <- lstm1_video_sequence
I0925 23:10:59.514029 25009 net.cpp:425] lstm2 <- cont_sentence_input_1_split_1
I0925 23:10:59.514037 25009 net.cpp:399] lstm2 -> lstm2
I0925 23:10:59.514050 25009 recurrent_layer.cpp:20] Initializing recurrent layer: assuming input batch contains 1 timesteps of 1 independent streams.
I0925 23:10:59.514343 25009 net.cpp:49] Initializing net from parameters: 
layer {
  name: "lstm2_"
  type: "Input"
  top: "x"
  top: "cont"
  input_param {
    shape {
      dim: 1
      dim: 1
      dim: 1501
    }
    shape {
      dim: 1
      dim: 1
    }
  }
}
layer {
  name: "lstm2_"
…
I0925 23:11:00.028595 25027 net.cpp:217] h_pseudoloss needs backward computation.
I0925 23:11:00.028595 25033 net.cpp:156] Memory required for data: 82020
I0925 23:11:00.028622 25027 net.cpp:217] lstm2_h_concat needs backward computation.
I0925 23:11:00.028626 25033 layer_factory.hpp:77] Creating layer lstm2_unit_1
I0925 23:11:00.028632 25027 net.cpp:219] lstm2_ does not need backward computation.
…
I0925 23:11:00.028724 25027 net.cpp:219] lstm2_cont_slice does not need backward computation.
I0925 23:11:00.028734 25027 net.cpp:219] lstm2_ does not need backward computation.
I0925 23:11:00.028739 25033 net.cpp:399] lstm2_unit_1 -> h_1
I0925 23:11:00.028741 25027 net.cpp:219] lstm2_ does not need backward computation.
I0925 23:11:00.028748 25027 net.cpp:261] This network produces output c_T
I0925 23:11:00.028758 25027 net.cpp:261] This network produces output h_pseudoloss
I0925 23:11:00.028779 25027 net.cpp:274] Network initialization done.
I0925 23:11:00.028813 25063 net.cpp:141] Setting up lstm2_transform_1
I0925 23:11:00.028832 25063 net.cpp:148] Top shape: 1 1 4000 (4000)
I0925 23:11:00.028839 25063 net.cpp:156] Memory required for data: 66020
I0925 23:11:00.028857 25063 layer_factory.hpp:77] Creating layer lstm2_gate_input_1
I0925 23:11:00.028863 25027 recurrent_layer.cpp:150] Adding parameter 0: W_xc
I0925 23:11:00.028873 25027 recurrent_layer.cpp:150] Adding parameter 1: b_c
I0925 23:11:00.028878 25063 net.cpp:91] Creating Layer lstm2_gate_input_1
I0925 23:11:00.028882 25027 recurrent_layer.cpp:150] Adding parameter 2: W_hc
I0925 23:11:00.028888 25063 net.cpp:425] lstm2_gate_input_1 <- W_hc_h_0
I0925 23:11:00.028899 25063 net.cpp:425] lstm2_gate_input_1 <- W_xc_x_1
I0925 23:11:00.028910 25063 net.cpp:399] lstm2_gate_input_1 -> gate_input_1
I0925 23:11:00.028980 25051 net.cpp:141] Setting up lstm2_x_transform
I0925 23:11:00.029022 25051 net.cpp:148] Top shape: 1 1 4000 (4000)
I0925 23:11:00.029032 25051 net.cpp:156] Memory required for data: 30020
I0925 23:11:00.029059 25051 layer_factory.hpp:77] Creating layer lstm2_W_xc_x_slice
I0925 23:11:00.029085 25051 net.cpp:91] Creating Layer lstm2_W_xc_x_slice
I0925 23:11:00.029095 25051 net.cpp:425] lstm2_W_xc_x_slice <- W_xc_x
I0925 23:11:00.029109 25051 net.cpp:399] lstm2_W_xc_x_slice -> W_xc_x_1
I0925 23:11:00.029356 25033 net.cpp:141] Setting up lstm2_unit_1
I0925 23:11:00.029372 25033 net.cpp:148] Top shape: 1 1 1000 (1000)
I0925 23:11:00.029383 25033 net.cpp:148] Top shape: 1 1 1000 (1000)
I0925 23:11:00.029391 25033 net.cpp:156] Memory required for data: 90020
I0925 23:11:00.029398 25033 layer_factory.hpp:77] Creating layer lstm2_
I0925 23:11:00.029412 25033 net.cpp:91] Creating Layer lstm2_
I0925 23:11:00.029420 25033 net.cpp:425] lstm2_ <- c_1
I0925 23:11:00.029433 25033 net.cpp:399] lstm2_ -> c_T
I0925 23:11:00.029505 25033 net.cpp:141] Setting up lstm2_
I0925 23:11:00.029520 25033 net.cpp:148] Top shape: 1 1 1000 (1000)
I0925 23:11:00.029528 25033 net.cpp:156] Memory required for data: 94020
I0925 23:11:00.029536 25033 layer_factory.hpp:77] Creating layer lstm2_h_concat
I0925 23:11:00.029546 25027 net.cpp:141] Setting up lstm2
I0925 23:11:00.029551 25033 net.cpp:91] Creating Layer lstm2_h_concat
I0925 23:11:00.029559 25033 net.cpp:425] lstm2_h_concat <- h_1
I0925 23:11:00.029562 25027 net.cpp:148] Top shape: 1 1 1000 (1000)
I0925 23:11:00.029572 25027 net.cpp:156] Memory required for data: 36412
I0925 23:11:00.029572 25033 net.cpp:399] lstm2_h_concat -> h
I0925 23:11:00.029606 25027 layer_factory.hpp:77] Creating layer predict
I0925 23:11:00.029626 25027 net.cpp:91] Creating Layer predict
I0925 23:11:00.029638 25027 net.cpp:425] predict <- lstm2
I0925 23:11:00.029646 25063 net.cpp:141] Setting up lstm2_gate_input_1
I0925 23:11:00.029650 25027 net.cpp:399] predict -> predict
I0925 23:11:00.029661 25063 net.cpp:148] Top shape: 1 1 4000 (4000)
I0925 23:11:00.029670 25063 net.cpp:156] Memory required for data: 82020
I0925 23:11:00.029677 25063 layer_factory.hpp:77] Creating layer lstm2_unit_1
I0925 23:11:00.029692 25063 net.cpp:91] Creating Layer lstm2_unit_1
I0925 23:11:00.029700 25063 net.cpp:425] lstm2_unit_1 <- c_0
I0925 23:11:00.029709 25063 net.cpp:425] lstm2_unit_1 <- gate_input_1
I0925 23:11:00.029718 25063 net.cpp:425] lstm2_unit_1 <- cont_1_lstm2_cont_slice_0_split_1
I0925 23:11:00.029728 25063 net.cpp:399] lstm2_unit_1 -> c_1
I0925 23:11:00.029742 25063 net.cpp:399] lstm2_unit_1 -> h_1
I0925 23:11:00.029755 25013 net.cpp:141] Setting up lstm2_x_transform
I0925 23:11:00.029780 25013 net.cpp:148] Top shape: 1 1 4000 (4000)
I0925 23:11:00.029791 25013 net.cpp:156] Memory required for data: 30020
I0925 23:11:00.029814 25013 layer_factory.hpp:77] Creating layer lstm2_W_xc_x_slice
I0925 23:11:00.029819 25051 net.cpp:141] Setting up lstm2_W_xc_x_slice
I0925 23:11:00.029836 25051 net.cpp:148] Top shape: 1 1 4000 (4000)
I0925 23:11:00.029840 25013 net.cpp:91] Creating Layer lstm2_W_xc_x_slice
I0925 23:11:00.029844 25051 net.cpp:156] Memory required for data: 46020
I0925 23:11:00.029855 25051 layer_factory.hpp:77] Creating layer lstm2_h_conted_0
I0925 23:11:00.029855 25013 net.cpp:425] lstm2_W_xc_x_slice <- W_xc_x
I0925 23:11:00.029875 25013 net.cpp:399] lstm2_W_xc_x_slice -> W_xc_x_1
I0925 23:11:00.029883 25033 net.cpp:141] Setting up lstm2_h_concat
I0925 23:11:00.029876 25051 net.cpp:91] Creating Layer lstm2_h_conted_0
I0925 23:11:00.029898 25033 net.cpp:148] Top shape: 1 1 1000 (1000)
I0925 23:11:00.029902 25051 net.cpp:425] lstm2_h_conted_0 <- h_0
I0925 23:11:00.029907 25033 net.cpp:156] Memory required for data: 98020
I0925 23:11:00.029914 25051 net.cpp:425] lstm2_h_conted_0 <- cont_1_lstm2_cont_slice_0_split_0
I0925 23:11:00.029917 25033 layer_factory.hpp:77] Creating layer h_pseudoloss
I0925 23:11:00.029927 25051 net.cpp:399] lstm2_h_conted_0 -> h_conted_0
I0925 23:11:00.029932 25033 net.cpp:91] Creating Layer h_pseudoloss
I0925 23:11:00.029940 25033 net.cpp:425] h_pseudoloss <- h
I0925 23:11:00.029952 25033 net.cpp:399] h_pseudoloss -> h_pseudoloss
I0925 23:11:00.029990 25019 net.cpp:141] Setting up lstm2_x_transform
I0925 23:11:00.030009 25019 net.cpp:148] Top shape: 1 1 4000 (4000)
I0925 23:11:00.030019 25019 net.cpp:156] Memory required for data: 30020
I0925 23:11:00.030040 25019 layer_factory.hpp:77] Creating layer lstm2_W_xc_x_slice
I0925 23:11:00.030056 25019 net.cpp:91] Creating Layer lstm2_W_xc_x_slice
I0925 23:11:00.030071 25019 net.cpp:425] lstm2_W_xc_x_slice <- W_xc_x
I0925 23:11:00.030087 25033 net.cpp:141] Setting up h_pseudoloss
I0925 23:11:00.030092 25019 net.cpp:399] lstm2_W_xc_x_slice -> W_xc_x_1
I0925 23:11:00.030104 25033 net.cpp:148] Top shape: (1)
I0925 23:11:00.030112 25033 net.cpp:151]     with loss weight 1
I0925 23:11:00.030125 25033 net.cpp:156] Memory required for data: 98024
I0925 23:11:00.030134 25033 net.cpp:217] h_pseudoloss needs backward computation.
I0925 23:11:00.030141 25033 net.cpp:217] lstm2_h_concat needs backward computation.
I0925 23:11:00.030149 25033 net.cpp:219] lstm2_ does not need backward computation.
I0925 23:11:00.030156 25033 net.cpp:217] lstm2_unit_1 needs backward computation.
I0925 23:11:00.030165 25033 net.cpp:217] lstm2_gate_input_1 needs backward computation.
I0925 23:11:00.030164 25019 net.cpp:141] Setting up lstm2_W_xc_x_slice
I0925 23:11:00.030190 25033 net.cpp:217] lstm2_transform_1 needs backward computation.
I0925 23:11:00.030205 25033 net.cpp:219] lstm2_h_conted_0 does not need backward computation.
I0925 23:11:00.030205 25019 net.cpp:148] Top shape: 1 1 4000 (4000)
I0925 23:11:00.030216 25033 net.cpp:217] lstm2_W_xc_x_slice needs backward computation.
I0925 23:11:00.030216 25019 net.cpp:156] Memory required for data: 46020
I0925 23:11:00.030231 25033 net.cpp:217] lstm2_x_transform needs backward computation.
I0925 23:11:00.030238 25019 layer_factory.hpp:77] Creating layer lstm2_h_conted_0
I0925 23:11:00.030241 25033 net.cpp:219] cont_1_lstm2_cont_slice_0_split does not need backward computation.
…
I0925 23:11:00.030302 25019 net.cpp:425] lstm2_h_conted_0 <- cont_1_lstm2_cont_slice_0_split_0
I0925 23:11:00.030308 25033 net.cpp:261] This network produces output h_pseudoloss
I0925 23:11:00.030323 25019 net.cpp:399] lstm2_h_conted_0 -> h_conted_0
I0925 23:11:00.030333 25033 net.cpp:274] Network initialization done.
I0925 23:11:00.030405 25033 recurrent_layer.cpp:150] Adding parameter 0: W_xc
I0925 23:11:00.030413 25033 recurrent_layer.cpp:150] Adding parameter 1: b_c
I0925 23:11:00.030421 25033 recurrent_layer.cpp:150] Adding parameter 2: W_hc
I0925 23:11:00.030540 25063 net.cpp:141] Setting up lstm2_unit_1
I0925 23:11:00.030556 25063 net.cpp:148] Top shape: 1 1 1000 (1000)
I0925 23:11:00.030566 25063 net.cpp:148] Top shape: 1 1 1000 (1000)
I0925 23:11:00.030573 25063 net.cpp:156] Memory required for data: 90020
I0925 23:11:00.030581 25063 layer_factory.hpp:77] Creating layer lstm2_
I0925 23:11:00.030593 25063 net.cpp:91] Creating Layer lstm2_
I0925 23:11:00.030617 25063 net.cpp:425] lstm2_ <- c_1
I0925 23:11:00.030629 25063 net.cpp:399] lstm2_ -> c_T
I0925 23:11:00.122066 25063 net.cpp:141] Setting up lstm2_
I0925 23:11:00.122130 25063 net.cpp:148] Top shape: 1 1 1000 (1000)
I0925 23:11:00.122140 25063 net.cpp:156] Memory required for data: 94020
I0925 23:11:00.122153 25063 layer_factory.hpp:77] Creating layer lstm2_h_concat
I0925 23:11:00.122195 25063 net.cpp:91] Creating Layer lstm2_h_concat
I0925 23:11:00.122206 25063 net.cpp:425] lstm2_h_concat <- h_1
I0925 23:11:00.122225 25063 net.cpp:399] lstm2_h_concat -> h
I0925 23:11:00.122325 25063 net.cpp:141] Setting up lstm2_h_concat
I0925 23:11:00.122340 25063 net.cpp:148] Top shape: 1 1 1000 (1000)
I0925 23:11:00.122347 25063 net.cpp:156] Memory required for data: 98020
I0925 23:11:00.122355 25063 layer_factory.hpp:77] Creating layer h_pseudoloss
I0925 23:11:00.122371 25063 net.cpp:91] Creating Layer h_pseudoloss
I0925 23:11:00.122380 25063 net.cpp:425] h_pseudoloss <- h
I0925 23:11:00.122397 25063 net.cpp:399] h_pseudoloss -> h_pseudoloss
I0925 23:11:00.122542 25013 net.cpp:141] Setting up lstm2_W_xc_x_slice
I0925 23:11:00.122562 25013 net.cpp:148] Top shape: 1 1 4000 (4000)
I0925 23:11:00.122568 25013 net.cpp:156] Memory required for data: 46020
I0925 23:11:00.122575 25013 layer_factory.hpp:77] Creating layer lstm2_h_conted_0
I0925 23:11:00.122587 25013 net.cpp:91] Creating Layer lstm2_h_conted_0
I0925 23:11:00.122593 25013 net.cpp:425] lstm2_h_conted_0 <- h_0
I0925 23:11:00.122611 25013 net.cpp:425] lstm2_h_conted_0 <- cont_1_lstm2_cont_slice_0_split_0
I0925 23:11:00.122627 25013 net.cpp:399] lstm2_h_conted_0 -> h_conted_0
I0925 23:11:00.122721 25033 net.cpp:141] Setting up lstm2
I0925 23:11:00.122740 25033 net.cpp:148] Top shape: 1 1 1000 (1000)
I0925 23:11:00.122746 25033 net.cpp:156] Memory required for data: 36412
I0925 23:11:00.122766 25033 layer_factory.hpp:77] Creating layer predict
I0925 23:11:00.122781 25033 net.cpp:91] Creating Layer predict
I0925 23:11:00.122787 25033 net.cpp:425] predict <- lstm2
I0925 23:11:00.122797 25033 net.cpp:399] predict -> predict
I0925 23:11:00.122802 25015 net.cpp:141] Setting up predict
I0925 23:11:00.122822 25015 net.cpp:148] Top shape: 1 1 46168 (46168)
I0925 23:11:00.122826 25015 net.cpp:156] Memory required for data: 221084
I0925 23:11:00.122838 25015 layer_factory.hpp:77] Creating layer probs
I0925 23:11:00.122850 25015 net.cpp:91] Creating Layer probs
I0925 23:11:00.122856 25015 net.cpp:425] probs <- predict
I0925 23:11:00.122864 25015 net.cpp:399] probs -> probs
I0925 23:11:00.122879 25051 net.cpp:141] Setting up lstm2_h_conted_0
I0925 23:11:00.122920 25051 net.cpp:148] Top shape: 1 1 1000 (1000)
I0925 23:11:00.122926 25051 net.cpp:156] Memory required for data: 50020
I0925 23:11:00.122934 25051 layer_factory.hpp:77] Creating layer lstm2_transform_1
I0925 23:11:00.122957 25051 net.cpp:91] Creating Layer lstm2_transform_1
I0925 23:11:00.122964 25051 net.cpp:425] lstm2_transform_1 <- h_conted_0
I0925 23:11:00.122977 25051 net.cpp:399] lstm2_transform_1 -> W_hc_h_0
I0925 23:11:00.122990 25013 net.cpp:141] Setting up lstm2_h_conted_0
I0925 23:11:00.123003 25013 net.cpp:148] Top shape: 1 1 1000 (1000)
I0925 23:11:00.123008 25013 net.cpp:156] Memory required for data: 50020
I0925 23:11:00.123013 25013 layer_factory.hpp:77] Creating layer lstm2_transform_1
I0925 23:11:00.123030 25013 net.cpp:91] Creating Layer lstm2_transform_1
I0925 23:11:00.123035 25013 net.cpp:425] lstm2_transform_1 <- h_conted_0
I0925 23:11:00.123044 25013 net.cpp:399] lstm2_transform_1 -> W_hc_h_0
I0925 23:11:00.204845 25063 net.cpp:141] Setting up h_pseudoloss
I0925 23:11:00.204900 25019 net.cpp:141] Setting up lstm2_h_conted_0
I0925 23:11:00.204907 25063 net.cpp:148] Top shape: (1)
I0925 23:11:00.204937 25019 net.cpp:148] Top shape: 1 1 1000 (1000)
I0925 23:11:00.204948 25019 net.cpp:156] Memory required for data: 50020
I0925 23:11:00.204939 25063 net.cpp:151]     with loss weight 1
I0925 23:11:00.204960 25019 layer_factory.hpp:77] Creating layer lstm2_transform_1
I0925 23:11:00.204967 25063 net.cpp:156] Memory required for data: 98024
I0925 23:11:00.204977 25063 net.cpp:217] h_pseudoloss needs backward computation.
I0925 23:11:00.204985 25063 net.cpp:217] lstm2_h_concat needs backward computation.
…
I0925 23:11:00.205093 25063 net.cpp:219] lstm2_ does not need backward computation.
I0925 23:11:00.205099 25063 net.cpp:261] This network produces output c_T
I0925 23:11:00.205108 25063 net.cpp:261] This network produces output h_pseudoloss
I0925 23:11:00.205137 25063 net.cpp:274] Network initialization done.
I0925 23:11:00.205217 25063 recurrent_layer.cpp:150] Adding parameter 0: W_xc
I0925 23:11:00.205230 25063 recurrent_layer.cpp:150] Adding parameter 1: b_c
I0925 23:11:00.205238 25063 recurrent_layer.cpp:150] Adding parameter 2: W_hc
I0925 23:11:00.234791 25063 net.cpp:141] Setting up lstm2
I0925 23:11:00.234858 25063 net.cpp:148] Top shape: 1 1 1000 (1000)
I0925 23:11:00.234869 25063 net.cpp:156] Memory required for data: 36412
I0925 23:11:00.234904 25063 layer_factory.hpp:77] Creating layer predict
I0925 23:11:00.234935 25063 net.cpp:91] Creating Layer predict
I0925 23:11:00.234948 25063 net.cpp:425] predict <- lstm2
I0925 23:11:00.234966 25063 net.cpp:399] predict -> predict
I0925 23:11:00.317661 25013 net.cpp:141] Setting up lstm2_transform_1
I0925 23:11:00.317718 25013 net.cpp:148] Top shape: 1 1 4000 (4000)
I0925 23:11:00.317724 25013 net.cpp:156] Memory required for data: 66020
I0925 23:11:00.317713 25051 net.cpp:141] Setting up lstm2_transform_1
I0925 23:11:00.317751 25013 layer_factory.hpp:77] Creating layer lstm2_gate_input_1
I0925 23:11:00.317759 25019 net.cpp:141] Setting up lstm2_transform_1
I0925 23:11:00.317754 25051 net.cpp:148] Top shape: 1 1 4000 (4000)
I0925 23:11:00.317787 25019 net.cpp:148] Top shape: 1 1 4000 (4000)
I0925 23:11:00.317790 25051 net.cpp:156] Memory required for data: 66020
I0925 23:11:00.317796 25019 net.cpp:156] Memory required for data: 66020
I0925 23:11:00.317797 25013 net.cpp:91] Creating Layer lstm2_gate_input_1
I0925 23:11:00.317812 25013 net.cpp:425] lstm2_gate_input_1 <- W_hc_h_0
I0925 23:11:00.317818 25019 layer_factory.hpp:77] Creating layer lstm2_gate_input_1
I0925 23:11:00.317823 25013 net.cpp:425] lstm2_gate_input_1 <- W_xc_x_1
I0925 23:11:00.317837 25013 net.cpp:399] lstm2_gate_input_1 -> gate_input_1
I0925 23:11:00.317845 25019 net.cpp:91] Creating Layer lstm2_gate_input_1
I0925 23:11:00.317857 25019 net.cpp:425] lstm2_gate_input_1 <- W_hc_h_0
I0925 23:11:00.317867 25019 net.cpp:425] lstm2_gate_input_1 <- W_xc_x_1
I0925 23:11:00.317881 25019 net.cpp:399] lstm2_gate_input_1 -> gate_input_1
I0925 23:11:00.318130 25051 layer_factory.hpp:77] Creating layer lstm2_gate_input_1
I0925 23:11:00.318150 25051 net.cpp:91] Creating Layer lstm2_gate_input_1
I0925 23:11:00.318146 25013 net.cpp:141] Setting up lstm2_gate_input_1
I0925 23:11:00.318162 25051 net.cpp:425] lstm2_gate_input_1 <- W_hc_h_0
I0925 23:11:00.318176 25013 net.cpp:148] Top shape: 1 1 4000 (4000)
I0925 23:11:00.318181 25051 net.cpp:425] lstm2_gate_input_1 <- W_xc_x_1
I0925 23:11:00.318182 25013 net.cpp:156] Memory required for data: 82020
I0925 23:11:00.318189 25013 layer_factory.hpp:77] Creating layer lstm2_unit_1
I0925 23:11:00.318195 25051 net.cpp:399] lstm2_gate_input_1 -> gate_input_1
I0925 23:11:00.318204 25013 net.cpp:91] Creating Layer lstm2_unit_1
I0925 23:11:00.318207 25019 net.cpp:141] Setting up lstm2_gate_input_1
I0925 23:11:00.318214 25013 net.cpp:425] lstm2_unit_1 <- c_0
I0925 23:11:00.318222 25019 net.cpp:148] Top shape: 1 1 4000 (4000)
I0925 23:11:00.318228 25019 net.cpp:156] Memory required for data: 82020
I0925 23:11:00.318228 25013 net.cpp:425] lstm2_unit_1 <- gate_input_1
I0925 23:11:00.318233 25019 layer_factory.hpp:77] Creating layer lstm2_unit_1
I0925 23:11:00.318239 25013 net.cpp:425] lstm2_unit_1 <- cont_1_lstm2_cont_slice_0_split_1
I0925 23:11:00.318246 25019 net.cpp:91] Creating Layer lstm2_unit_1
I0925 23:11:00.318250 25013 net.cpp:399] lstm2_unit_1 -> c_1
I0925 23:11:00.318253 25019 net.cpp:425] lstm2_unit_1 <- c_0
I0925 23:11:00.318259 25019 net.cpp:425] lstm2_unit_1 <- gate_input_1
I0925 23:11:00.318261 25013 net.cpp:399] lstm2_unit_1 -> h_1
I0925 23:11:00.318265 25019 net.cpp:425] lstm2_unit_1 <- cont_1_lstm2_cont_slice_0_split_1
I0925 23:11:00.318274 25019 net.cpp:399] lstm2_unit_1 -> c_1
I0925 23:11:00.318282 25019 net.cpp:399] lstm2_unit_1 -> h_1
I0925 23:11:00.318403 25019 net.cpp:141] Setting up lstm2_unit_1
I0925 23:11:00.318415 25019 net.cpp:148] Top shape: 1 1 1000 (1000)
I0925 23:11:00.318420 25019 net.cpp:148] Top shape: 1 1 1000 (1000)
I0925 23:11:00.318425 25019 net.cpp:156] Memory required for data: 90020
I0925 23:11:00.318430 25019 layer_factory.hpp:77] Creating layer lstm2_
I0925 23:11:00.318433 25051 net.cpp:141] Setting up lstm2_gate_input_1
I0925 23:11:00.318439 25019 net.cpp:91] Creating Layer lstm2_
I0925 23:11:00.318444 25019 net.cpp:425] lstm2_ <- c_1
I0925 23:11:00.318449 25051 net.cpp:148] Top shape: 1 1 4000 (4000)
I0925 23:11:00.318455 25019 net.cpp:399] lstm2_ -> c_T
I0925 23:11:00.318459 25051 net.cpp:156] Memory required for data: 82020
I0925 23:11:00.318467 25051 layer_factory.hpp:77] Creating layer lstm2_unit_1
I0925 23:11:00.318472 25059 net.cpp:141] Setting up predict
I0925 23:11:00.318485 25051 net.cpp:91] Creating Layer lstm2_unit_1
I0925 23:11:00.318490 25059 net.cpp:148] Top shape: 1 1 46168 (46168)
I0925 23:11:00.318495 25051 net.cpp:425] lstm2_unit_1 <- c_0
I0925 23:11:00.318498 25019 net.cpp:141] Setting up lstm2_
I0925 23:11:00.318496 25059 net.cpp:156] Memory required for data: 221084
I0925 23:11:00.318511 25051 net.cpp:425] lstm2_unit_1 <- gate_input_1
I0925 23:11:00.318507 25019 net.cpp:148] Top shape: 1 1 1000 (1000)
I0925 23:11:00.318522 25051 net.cpp:425] lstm2_unit_1 <- cont_1_lstm2_cont_slice_0_split_1
I0925 23:11:00.318524 25019 net.cpp:156] Memory required for data: 94020
I0925 23:11:00.318531 25059 layer_factory.hpp:77] Creating layer probs
I0925 23:11:00.318542 25019 layer_factory.hpp:77] Creating layer lstm2_h_concat
I0925 23:11:00.318539 25051 net.cpp:399] lstm2_unit_1 -> c_1
I0925 23:11:00.318555 25019 net.cpp:91] Creating Layer lstm2_h_concat
I0925 23:11:00.318560 25019 net.cpp:425] lstm2_h_concat <- h_1
I0925 23:11:00.318560 25059 net.cpp:91] Creating Layer probs
I0925 23:11:00.318568 25019 net.cpp:399] lstm2_h_concat -> h
I0925 23:11:00.318562 25051 net.cpp:399] lstm2_unit_1 -> h_1
I0925 23:11:00.318575 25059 net.cpp:425] probs <- predict
I0925 23:11:00.318588 25059 net.cpp:399] probs -> probs
I0925 23:11:00.318713 25019 net.cpp:141] Setting up lstm2_h_concat
I0925 23:11:00.318724 25019 net.cpp:148] Top shape: 1 1 1000 (1000)
I0925 23:11:00.318728 25019 net.cpp:156] Memory required for data: 98020
I0925 23:11:00.318733 25019 layer_factory.hpp:77] Creating layer h_pseudoloss
I0925 23:11:00.318744 25019 net.cpp:91] Creating Layer h_pseudoloss
I0925 23:11:00.318749 25019 net.cpp:425] h_pseudoloss <- h
I0925 23:11:00.318756 25019 net.cpp:399] h_pseudoloss -> h_pseudoloss
I0925 23:11:00.318820 25013 net.cpp:141] Setting up lstm2_unit_1
I0925 23:11:00.318833 25013 net.cpp:148] Top shape: 1 1 1000 (1000)
I0925 23:11:00.318840 25013 net.cpp:148] Top shape: 1 1 1000 (1000)
I0925 23:11:00.318845 25013 net.cpp:156] Memory required for data: 90020
I0925 23:11:00.318850 25013 layer_factory.hpp:77] Creating layer lstm2_
I0925 23:11:00.318858 25013 net.cpp:91] Creating Layer lstm2_
I0925 23:11:00.318862 25013 net.cpp:425] lstm2_ <- c_1
I0925 23:11:00.318869 25051 net.cpp:141] Setting up lstm2_unit_1
I0925 23:11:00.318873 25013 net.cpp:399] lstm2_ -> c_T
I0925 23:11:00.318886 25051 net.cpp:148] Top shape: 1 1 1000 (1000)
I0925 23:11:00.318893 25051 net.cpp:148] Top shape: 1 1 1000 (1000)
I0925 23:11:00.318898 25051 net.cpp:156] Memory required for data: 90020
I0925 23:11:00.318903 25051 layer_factory.hpp:77] Creating layer lstm2_
I0925 23:11:00.318912 25051 net.cpp:91] Creating Layer lstm2_
I0925 23:11:00.318917 25051 net.cpp:425] lstm2_ <- c_1
I0925 23:11:00.318927 25051 net.cpp:399] lstm2_ -> c_T
I0925 23:11:00.318940 25013 net.cpp:141] Setting up lstm2_
I0925 23:11:00.318950 25013 net.cpp:148] Top shape: 1 1 1000 (1000)
I0925 23:11:00.318955 25013 net.cpp:156] Memory required for data: 94020
I0925 23:11:00.318959 25013 layer_factory.hpp:77] Creating layer lstm2_h_concat
I0925 23:11:00.318969 25013 net.cpp:91] Creating Layer lstm2_h_concat
I0925 23:11:00.318974 25013 net.cpp:425] lstm2_h_concat <- h_1
I0925 23:11:00.318979 25051 net.cpp:141] Setting up lstm2_
I0925 23:11:00.318981 25013 net.cpp:399] lstm2_h_concat -> h
I0925 23:11:00.318991 25051 net.cpp:148] Top shape: 1 1 1000 (1000)
I0925 23:11:00.319007 25051 net.cpp:156] Memory required for data: 94020
I0925 23:11:00.319013 25051 layer_factory.hpp:77] Creating layer lstm2_h_concat
I0925 23:11:00.319021 25051 net.cpp:91] Creating Layer lstm2_h_concat
I0925 23:11:00.319026 25051 net.cpp:425] lstm2_h_concat <- h_1
I0925 23:11:00.319033 25051 net.cpp:399] lstm2_h_concat -> h
I0925 23:11:00.319097 25013 net.cpp:141] Setting up lstm2_h_concat
I0925 23:11:00.319108 25013 net.cpp:148] Top shape: 1 1 1000 (1000)
I0925 23:11:00.319113 25013 net.cpp:156] Memory required for data: 98020
I0925 23:11:00.319118 25013 layer_factory.hpp:77] Creating layer h_pseudoloss
I0925 23:11:00.319128 25013 net.cpp:91] Creating Layer h_pseudoloss
I0925 23:11:00.319133 25013 net.cpp:425] h_pseudoloss <- h
I0925 23:11:00.319139 25013 net.cpp:399] h_pseudoloss -> h_pseudoloss
I0925 23:11:00.319142 25019 net.cpp:141] Setting up h_pseudoloss
I0925 23:11:00.319154 25019 net.cpp:148] Top shape: (1)
I0925 23:11:00.319159 25019 net.cpp:151]     with loss weight 1
I0925 23:11:00.319181 25019 net.cpp:156] Memory required for data: 98024
I0925 23:11:00.319186 25019 net.cpp:217] h_pseudoloss needs backward computation.
I0925 23:11:00.319191 25019 net.cpp:217] lstm2_h_concat needs backward computation.
I0925 23:11:00.319192 25051 net.cpp:141] Setting up lstm2_h_concat
I0925 23:11:00.319196 25019 net.cpp:219] lstm2_ does not need backward computation.
I0925 23:11:00.319207 25051 net.cpp:148] Top shape: 1 1 1000 (1000)
I0925 23:11:00.319208 25019 net.cpp:217] lstm2_unit_1 needs backward computation.
I0925 23:11:00.319212 25051 net.cpp:156] Memory required for data: 98020
I0925 23:11:00.319216 25019 net.cpp:217] lstm2_gate_input_1 needs backward computation.
I0925 23:11:00.319217 25051 layer_factory.hpp:77] Creating layer h_pseudoloss
I0925 23:11:00.319221 25019 net.cpp:217] lstm2_transform_1 needs backward computation.
…
I0925 23:11:00.319648 25019 net.cpp:399] predict -> predict
I0925 23:11:00.319650 25051 net.cpp:261] This network produces output c_T
I0925 23:11:00.319655 25051 net.cpp:261] This network produces output h_pseudoloss
I0925 23:11:00.319669 25051 net.cpp:274] Network initialization done.
I0925 23:11:00.319710 25051 recurrent_layer.cpp:150] Adding parameter 0: W_xc
I0925 23:11:00.319716 25051 recurrent_layer.cpp:150] Adding parameter 1: b_c
I0925 23:11:00.319721 25051 recurrent_layer.cpp:150] Adding parameter 2: W_hc
I0925 23:11:00.411238 25013 net.cpp:141] Setting up lstm2
I0925 23:11:00.411299 25013 net.cpp:148] Top shape: 1 1 1000 (1000)
I0925 23:11:00.411305 25013 net.cpp:156] Memory required for data: 36412
I0925 23:11:00.411332 25013 layer_factory.hpp:77] Creating layer predict
I0925 23:11:00.411360 25013 net.cpp:91] Creating Layer predict
I0925 23:11:00.411370 25013 net.cpp:425] predict <- lstm2
I0925 23:11:00.411381 25013 net.cpp:399] predict -> predict
I0925 23:11:00.490983 25051 net.cpp:141] Setting up lstm2
I0925 23:11:00.491039 25051 net.cpp:148] Top shape: 1 1 1000 (1000)
I0925 23:11:00.491050 25051 net.cpp:156] Memory required for data: 36412
I0925 23:11:00.491081 25051 layer_factory.hpp:77] Creating layer predict
I0925 23:11:00.491108 25051 net.cpp:91] Creating Layer predict
I0925 23:11:00.491119 25051 net.cpp:425] predict <- lstm2
I0925 23:11:00.491134 25051 net.cpp:399] predict -> predict
I0925 23:11:00.596779 25009 net.cpp:141] Setting up predict
I0925 23:11:00.596838 25009 net.cpp:148] Top shape: 1 1 46168 (46168)
I0925 23:11:00.596848 25009 net.cpp:156] Memory required for data: 221084
I0925 23:11:00.596871 25009 layer_factory.hpp:77] Creating layer probs
I0925 23:11:00.596895 25009 net.cpp:91] Creating Layer probs
I0925 23:11:00.596907 25009 net.cpp:425] probs <- predict
I0925 23:11:00.596922 25009 net.cpp:399] probs -> probs
I0925 23:11:00.606328 25027 net.cpp:141] Setting up predict
I0925 23:11:00.606401 25027 net.cpp:148] Top shape: 1 1 46168 (46168)
I0925 23:11:00.606413 25027 net.cpp:156] Memory required for data: 221084
I0925 23:11:00.606451 25027 layer_factory.hpp:77] Creating layer probs
I0925 23:11:00.606478 25027 net.cpp:91] Creating Layer probs
I0925 23:11:00.606503 25027 net.cpp:425] probs <- predict
I0925 23:11:00.606523 25027 net.cpp:399] probs -> probs
I0925 23:11:00.612265 25033 net.cpp:141] Setting up predict
I0925 23:11:00.612747 25033 net.cpp:148] Top shape: 1 1 46168 (46168)
I0925 23:11:00.612898 25033 net.cpp:156] Memory required for data: 221084
I0925 23:11:00.613044 25033 layer_factory.hpp:77] Creating layer probs
I0925 23:11:00.613224 25033 net.cpp:91] Creating Layer probs
I0925 23:11:00.613356 25033 net.cpp:425] probs <- predict
I0925 23:11:00.613497 25033 net.cpp:399] probs -> probs
I0925 23:11:00.694500 25063 net.cpp:141] Setting up predict
I0925 23:11:00.694550 25063 net.cpp:148] Top shape: 1 1 46168 (46168)
I0925 23:11:00.694557 25063 net.cpp:156] Memory required for data: 221084
I0925 23:11:00.694573 25063 layer_factory.hpp:77] Creating layer probs
I0925 23:11:00.694592 25063 net.cpp:91] Creating Layer probs
I0925 23:11:00.694614 25063 net.cpp:425] probs <- predict
I0925 23:11:00.694627 25063 net.cpp:399] probs -> probs
I0925 23:11:00.847515 25027 net.cpp:141] Setting up probs
I0925 23:11:00.847587 25027 net.cpp:148] Top shape: 1 1 46168 (46168)
I0925 23:11:00.847599 25027 net.cpp:156] Memory required for data: 405756
I0925 23:11:00.847610 25027 net.cpp:219] probs does not need backward computation.
I0925 23:11:00.847621 25027 net.cpp:219] predict does not need backward computation.
I0925 23:11:00.847630 25027 net.cpp:219] lstm2 does not need backward computation.
I0925 23:11:00.847638 25027 net.cpp:219] concat does not need backward computation.
I0925 23:11:00.847648 25027 net.cpp:219] lstm1 does not need backward computation.
I0925 23:11:00.847657 25027 net.cpp:219] embedding does not need backward computation.
I0925 23:11:00.847666 25027 net.cpp:219] reshape_stage_indicator does not need backward computation.
I0925 23:11:00.847674 25027 net.cpp:219] reshape_frames does not need backward computation.
I0925 23:11:00.847682 25027 net.cpp:219] embed_encoder does not need backward computation.
I0925 23:11:00.847692 25027 net.cpp:219] cont_sentence_input_1_split does not need backward computation.
I0925 23:11:00.847702 25027 net.cpp:219] input does not need backward computation.
I0925 23:11:00.847709 25027 net.cpp:261] This network produces output probs
I0925 23:11:00.847748 25027 net.cpp:274] Network initialization done.
I0925 23:11:00.849614 25009 net.cpp:141] Setting up probs
I0925 23:11:00.849684 25009 net.cpp:148] Top shape: 1 1 46168 (46168)
I0925 23:11:00.849692 25009 net.cpp:156] Memory required for data: 405756
I0925 23:11:00.849704 25009 net.cpp:219] probs does not need backward computation.
I0925 23:11:00.849714 25009 net.cpp:219] predict does not need backward computation.
I0925 23:11:00.849722 25009 net.cpp:219] lstm2 does not need backward computation.
I0925 23:11:00.849732 25009 net.cpp:219] concat does not need backward computation.
I0925 23:11:00.849741 25009 net.cpp:219] lstm1 does not need backward computation.
I0925 23:11:00.849750 25009 net.cpp:219] embedding does not need backward computation.
I0925 23:11:00.849758 25009 net.cpp:219] reshape_stage_indicator does not need backward computation.
I0925 23:11:00.849766 25009 net.cpp:219] reshape_frames does not need backward computation.
I0925 23:11:00.849774 25009 net.cpp:219] embed_encoder does not need backward computation.
I0925 23:11:00.849782 25009 net.cpp:219] cont_sentence_input_1_split does not need backward computation.
I0925 23:11:00.849791 25009 net.cpp:219] input does not need backward computation.
I0925 23:11:00.849797 25009 net.cpp:261] This network produces output probs
I0925 23:11:00.849835 25009 net.cpp:274] Network initialization done.
I0925 23:11:00.850440 25063 net.cpp:141] Setting up probs
I0925 23:11:00.850481 25063 net.cpp:148] Top shape: 1 1 46168 (46168)
I0925 23:11:00.850489 25063 net.cpp:156] Memory required for data: 405756
I0925 23:11:00.850500 25063 net.cpp:219] probs does not need backward computation.
I0925 23:11:00.850509 25063 net.cpp:219] predict does not need backward computation.
I0925 23:11:00.850517 25063 net.cpp:219] lstm2 does not need backward computation.
I0925 23:11:00.850527 25063 net.cpp:219] concat does not need backward computation.
I0925 23:11:00.850535 25063 net.cpp:219] lstm1 does not need backward computation.
I0925 23:11:00.850544 25063 net.cpp:219] embedding does not need backward computation.
I0925 23:11:00.850553 25063 net.cpp:219] reshape_stage_indicator does not need backward computation.
I0925 23:11:00.850560 25063 net.cpp:219] reshape_frames does not need backward computation.
I0925 23:11:00.850569 25063 net.cpp:219] embed_encoder does not need backward computation.
I0925 23:11:00.850576 25063 net.cpp:219] cont_sentence_input_1_split does not need backward computation.
I0925 23:11:00.850589 25063 net.cpp:219] input does not need backward computation.
I0925 23:11:00.850607 25063 net.cpp:261] This network produces output probs
I0925 23:11:00.850637 25063 net.cpp:274] Network initialization done.
I0925 23:11:00.855716 25033 net.cpp:141] Setting up probs
I0925 23:11:00.855770 25033 net.cpp:148] Top shape: 1 1 46168 (46168)
I0925 23:11:00.855777 25033 net.cpp:156] Memory required for data: 405756
I0925 23:11:00.855787 25033 net.cpp:219] probs does not need backward computation.
I0925 23:11:00.855794 25033 net.cpp:219] predict does not need backward computation.
I0925 23:11:00.855799 25033 net.cpp:219] lstm2 does not need backward computation.
I0925 23:11:00.855805 25033 net.cpp:219] concat does not need backward computation.
I0925 23:11:00.855811 25033 net.cpp:219] lstm1 does not need backward computation.
I0925 23:11:00.855818 25033 net.cpp:219] embedding does not need backward computation.
I0925 23:11:00.855823 25033 net.cpp:219] reshape_stage_indicator does not need backward computation.
I0925 23:11:00.855828 25033 net.cpp:219] reshape_frames does not need backward computation.
I0925 23:11:00.855832 25033 net.cpp:219] embed_encoder does not need backward computation.
I0925 23:11:00.855837 25033 net.cpp:219] cont_sentence_input_1_split does not need backward computation.
I0925 23:11:00.855844 25033 net.cpp:219] input does not need backward computation.
I0925 23:11:00.855847 25033 net.cpp:261] This network produces output probs
I0925 23:11:00.855865 25033 net.cpp:274] Network initialization done.
I0925 23:11:00.856258 25059 net.cpp:141] Setting up probs
I0925 23:11:00.856282 25059 net.cpp:148] Top shape: 1 1 46168 (46168)
I0925 23:11:00.856293 25059 net.cpp:156] Memory required for data: 405756
I0925 23:11:00.856303 25059 net.cpp:219] probs does not need backward computation.
I0925 23:11:00.856314 25059 net.cpp:219] predict does not need backward computation.
I0925 23:11:00.856324 25059 net.cpp:219] lstm2 does not need backward computation.
I0925 23:11:00.856335 25059 net.cpp:219] concat does not need backward computation.
I0925 23:11:00.856348 25059 net.cpp:219] lstm1 does not need backward computation.
I0925 23:11:00.856359 25059 net.cpp:219] embedding does not need backward computation.
I0925 23:11:00.856369 25059 net.cpp:219] reshape_stage_indicator does not need backward computation.
I0925 23:11:00.856379 25059 net.cpp:219] reshape_frames does not need backward computation.
I0925 23:11:00.856389 25059 net.cpp:219] embed_encoder does not need backward computation.
I0925 23:11:00.856400 25059 net.cpp:219] cont_sentence_input_1_split does not need backward computation.
I0925 23:11:00.856410 25059 net.cpp:219] input does not need backward computation.
I0925 23:11:00.856418 25059 net.cpp:261] This network produces output probs
I0925 23:11:00.856555 25059 net.cpp:274] Network initialization done.
I0925 23:11:00.857844 25035 net.cpp:141] Setting up conv1
I0925 23:11:00.857903 25035 net.cpp:148] Top shape: 10 96 55 55 (2904000)
I0925 23:11:00.857914 25035 net.cpp:156] Memory required for data: 17799480
I0925 23:11:00.857949 25035 layer_factory.hpp:77] Creating layer relu1
I0925 23:11:00.857977 25035 net.cpp:91] Creating Layer relu1
I0925 23:11:00.857988 25035 net.cpp:425] relu1 <- conv1
I0925 23:11:00.858001 25035 net.cpp:386] relu1 -> conv1 (in-place)
I0925 23:11:00.858409 25035 net.cpp:141] Setting up relu1
I0925 23:11:00.858428 25035 net.cpp:148] Top shape: 10 96 55 55 (2904000)
I0925 23:11:00.858436 25035 net.cpp:156] Memory required for data: 29415480
I0925 23:11:00.858444 25035 layer_factory.hpp:77] Creating layer pool1
I0925 23:11:00.858464 25035 net.cpp:91] Creating Layer pool1
I0925 23:11:00.858472 25035 net.cpp:425] pool1 <- conv1
I0925 23:11:00.858485 25035 net.cpp:399] pool1 -> pool1
I0925 23:11:00.858628 25035 net.cpp:141] Setting up pool1
I0925 23:11:00.858644 25035 net.cpp:148] Top shape: 10 96 27 27 (699840)
I0925 23:11:00.858652 25035 net.cpp:156] Memory required for data: 32214840
I0925 23:11:00.858660 25035 layer_factory.hpp:77] Creating layer norm1
I0925 23:11:00.858687 25035 net.cpp:91] Creating Layer norm1
I0925 23:11:00.858695 25035 net.cpp:425] norm1 <- pool1
I0925 23:11:00.858707 25035 net.cpp:399] norm1 -> norm1
I0925 23:11:00.859385 25035 net.cpp:141] Setting up norm1
I0925 23:11:00.859403 25035 net.cpp:148] Top shape: 10 96 27 27 (699840)
I0925 23:11:00.859411 25035 net.cpp:156] Memory required for data: 35014200
I0925 23:11:00.859421 25035 layer_factory.hpp:77] Creating layer conv2
I0925 23:11:00.859447 25035 net.cpp:91] Creating Layer conv2
I0925 23:11:00.859455 25035 net.cpp:425] conv2 <- norm1
I0925 23:11:00.859468 25035 net.cpp:399] conv2 -> conv2
I0925 23:11:00.861743 25015 net.cpp:141] Setting up probs
I0925 23:11:00.861794 25015 net.cpp:148] Top shape: 1 1 46168 (46168)
I0925 23:11:00.861809 25015 net.cpp:156] Memory required for data: 405756
I0925 23:11:00.861824 25015 net.cpp:219] probs does not need backward computation.
I0925 23:11:00.861840 25015 net.cpp:219] predict does not need backward computation.
I0925 23:11:00.861851 25015 net.cpp:219] lstm2 does not need backward computation.
I0925 23:11:00.861861 25015 net.cpp:219] concat does not need backward computation.
I0925 23:11:00.861872 25015 net.cpp:219] lstm1 does not need backward computation.
I0925 23:11:00.861883 25015 net.cpp:219] embedding does not need backward computation.
I0925 23:11:00.861892 25015 net.cpp:219] reshape_stage_indicator does not need backward computation.
I0925 23:11:00.861902 25015 net.cpp:219] reshape_frames does not need backward computation.
I0925 23:11:00.861914 25015 net.cpp:219] embed_encoder does not need backward computation.
I0925 23:11:00.861927 25015 net.cpp:219] cont_sentence_input_1_split does not need backward computation.
I0925 23:11:00.862256 25015 net.cpp:219] input does not need backward computation.
I0925 23:11:00.862270 25015 net.cpp:261] This network produces output probs
I0925 23:11:00.862304 25015 net.cpp:274] Network initialization done.
I0925 23:11:00.887953 25019 net.cpp:141] Setting up predict
I0925 23:11:00.888012 25019 net.cpp:148] Top shape: 1 1 46168 (46168)
I0925 23:11:00.888022 25019 net.cpp:156] Memory required for data: 221084
I0925 23:11:00.888046 25019 layer_factory.hpp:77] Creating layer probs
I0925 23:11:00.888072 25019 net.cpp:91] Creating Layer probs
I0925 23:11:00.888085 25019 net.cpp:425] probs <- predict
I0925 23:11:00.888104 25019 net.cpp:399] probs -> probs
I0925 23:11:00.889072 25035 net.cpp:141] Setting up conv2
I0925 23:11:00.889075 25019 net.cpp:141] Setting up probs
I0925 23:11:00.889102 25035 net.cpp:148] Top shape: 10 256 27 27 (1866240)
I0925 23:11:00.889111 25035 net.cpp:156] Memory required for data: 42479160
I0925 23:11:00.889111 25019 net.cpp:148] Top shape: 1 1 46168 (46168)
I0925 23:11:00.889122 25019 net.cpp:156] Memory required for data: 405756
I0925 23:11:00.889128 25035 layer_factory.hpp:77] Creating layer relu2
I0925 23:11:00.889133 25019 net.cpp:219] probs does not need backward computation.
I0925 23:11:00.889140 25035 net.cpp:91] Creating Layer relu2
I0925 23:11:00.889143 25019 net.cpp:219] predict does not need backward computation.
I0925 23:11:00.889147 25035 net.cpp:425] relu2 <- conv2
…
I0925 23:11:00.889207 25019 net.cpp:219] reshape_frames does not need backward computation.
I0925 23:11:00.889217 25019 net.cpp:219] embed_encoder does not need backward computation.
I0925 23:11:00.889226 25019 net.cpp:219] cont_sentence_input_1_split does not need backward computation.
I0925 23:11:00.889237 25019 net.cpp:219] input does not need backward computation.
I0925 23:11:00.889245 25019 net.cpp:261] This network produces output probs
I0925 23:11:00.889279 25019 net.cpp:274] Network initialization done.
I0925 23:11:00.892205 25035 net.cpp:141] Setting up relu2
I0925 23:11:00.892240 25035 net.cpp:148] Top shape: 10 256 27 27 (1866240)
I0925 23:11:00.892251 25035 net.cpp:156] Memory required for data: 49944120
I0925 23:11:00.892262 25035 layer_factory.hpp:77] Creating layer pool2
I0925 23:11:00.892287 25035 net.cpp:91] Creating Layer pool2
I0925 23:11:00.892297 25035 net.cpp:425] pool2 <- conv2
I0925 23:11:00.892357 25035 net.cpp:399] pool2 -> pool2
I0925 23:11:00.893744 25013 net.cpp:141] Setting up predict
I0925 23:11:00.893770 25013 net.cpp:148] Top shape: 1 1 46168 (46168)
I0925 23:11:00.893776 25013 net.cpp:156] Memory required for data: 221084
I0925 23:11:00.893790 25013 layer_factory.hpp:77] Creating layer probs
I0925 23:11:00.893803 25013 net.cpp:91] Creating Layer probs
I0925 23:11:00.893810 25013 net.cpp:425] probs <- predict
I0925 23:11:00.893818 25013 net.cpp:399] probs -> probs
I0925 23:11:00.894724 25035 net.cpp:141] Setting up pool2
I0925 23:11:00.894788 25035 net.cpp:148] Top shape: 10 256 13 13 (432640)
I0925 23:11:00.894800 25035 net.cpp:156] Memory required for data: 51674680
I0925 23:11:00.894907 25035 layer_factory.hpp:77] Creating layer norm2
I0925 23:11:00.894907 25013 net.cpp:141] Setting up probs
I0925 23:11:00.894951 25013 net.cpp:148] Top shape: 1 1 46168 (46168)
I0925 23:11:00.894959 25013 net.cpp:156] Memory required for data: 405756
I0925 23:11:00.894968 25013 net.cpp:219] probs does not need backward computation.
I0925 23:11:00.894980 25013 net.cpp:219] predict does not need backward computation.
I0925 23:11:00.894989 25013 net.cpp:219] lstm2 does not need backward computation.
I0925 23:11:00.894999 25013 net.cpp:219] concat does not need backward computation.
I0925 23:11:00.895009 25013 net.cpp:219] lstm1 does not need backward computation.
I0925 23:11:00.895017 25013 net.cpp:219] embedding does not need backward computation.
I0925 23:11:00.895026 25013 net.cpp:219] reshape_stage_indicator does not need backward computation.
I0925 23:11:00.895035 25013 net.cpp:219] reshape_frames does not need backward computation.
I0925 23:11:00.899205 25013 net.cpp:219] embed_encoder does not need backward computation.
I0925 23:11:00.899214 25035 net.cpp:91] Creating Layer norm2
I0925 23:11:00.899243 25013 net.cpp:219] cont_sentence_input_1_split does not need backward computation.
I0925 23:11:00.899250 25035 net.cpp:425] norm2 <- pool2
I0925 23:11:00.899255 25013 net.cpp:219] input does not need backward computation.
I0925 23:11:00.899262 25013 net.cpp:261] This network produces output probs
I0925 23:11:00.899273 25035 net.cpp:399] norm2 -> norm2
I0925 23:11:00.899289 25013 net.cpp:274] Network initialization done.
I0925 23:11:00.903544 25035 net.cpp:141] Setting up norm2
I0925 23:11:00.903609 25035 net.cpp:148] Top shape: 10 256 13 13 (432640)
I0925 23:11:00.903621 25035 net.cpp:156] Memory required for data: 53405240
I0925 23:11:00.903635 25035 layer_factory.hpp:77] Creating layer conv3
I0925 23:11:00.903667 25035 net.cpp:91] Creating Layer conv3
I0925 23:11:00.903678 25035 net.cpp:425] conv3 <- norm2
I0925 23:11:00.904096 25035 net.cpp:399] conv3 -> conv3
I0925 23:11:00.927356 25035 net.cpp:141] Setting up conv3
I0925 23:11:00.927420 25035 net.cpp:148] Top shape: 10 384 13 13 (648960)
I0925 23:11:00.927430 25035 net.cpp:156] Memory required for data: 56001080
I0925 23:11:00.927476 25035 layer_factory.hpp:77] Creating layer relu3
I0925 23:11:00.927511 25035 net.cpp:91] Creating Layer relu3
I0925 23:11:00.927525 25035 net.cpp:425] relu3 <- conv3
I0925 23:11:00.927541 25035 net.cpp:386] relu3 -> conv3 (in-place)
I0925 23:11:00.929656 25035 net.cpp:141] Setting up relu3
I0925 23:11:00.929716 25035 net.cpp:148] Top shape: 10 384 13 13 (648960)
I0925 23:11:00.929728 25035 net.cpp:156] Memory required for data: 58596920
I0925 23:11:00.929741 25035 layer_factory.hpp:77] Creating layer conv4
I0925 23:11:00.929780 25035 net.cpp:91] Creating Layer conv4
I0925 23:11:00.929792 25035 net.cpp:425] conv4 <- conv3
I0925 23:11:00.929810 25035 net.cpp:399] conv4 -> conv4
I0925 23:11:00.978652 25035 net.cpp:141] Setting up conv4
I0925 23:11:00.978720 25035 net.cpp:148] Top shape: 10 384 13 13 (648960)
I0925 23:11:00.978731 25035 net.cpp:156] Memory required for data: 61192760
I0925 23:11:00.978757 25035 layer_factory.hpp:77] Creating layer relu4
I0925 23:11:00.978788 25035 net.cpp:91] Creating Layer relu4
I0925 23:11:00.978802 25035 net.cpp:425] relu4 <- conv4
I0925 23:11:00.978816 25035 net.cpp:386] relu4 -> conv4 (in-place)
I0925 23:11:00.979888 25035 net.cpp:141] Setting up relu4
I0925 23:11:00.979930 25035 net.cpp:148] Top shape: 10 384 13 13 (648960)
I0925 23:11:00.979939 25035 net.cpp:156] Memory required for data: 63788600
I0925 23:11:00.979959 25035 layer_factory.hpp:77] Creating layer conv5
I0925 23:11:00.979995 25035 net.cpp:91] Creating Layer conv5
I0925 23:11:00.980005 25035 net.cpp:425] conv5 <- conv4
I0925 23:11:00.980026 25035 net.cpp:399] conv5 -> conv5
I0925 23:11:00.985236 25051 net.cpp:141] Setting up predict
I0925 23:11:00.985301 25051 net.cpp:148] Top shape: 1 1 46168 (46168)
I0925 23:11:00.985311 25051 net.cpp:156] Memory required for data: 221084
I0925 23:11:00.985335 25051 layer_factory.hpp:77] Creating layer probs
I0925 23:11:00.985364 25051 net.cpp:91] Creating Layer probs
I0925 23:11:00.985376 25051 net.cpp:425] probs <- predict
I0925 23:11:00.985393 25051 net.cpp:399] probs -> probs
I0925 23:11:00.987720 25051 net.cpp:141] Setting up probs
I0925 23:11:00.987782 25051 net.cpp:148] Top shape: 1 1 46168 (46168)
I0925 23:11:00.987790 25051 net.cpp:156] Memory required for data: 405756
I0925 23:11:00.987804 25051 net.cpp:219] probs does not need backward computation.
I0925 23:11:00.987817 25051 net.cpp:219] predict does not need backward computation.
I0925 23:11:00.987826 25051 net.cpp:219] lstm2 does not need backward computation.
I0925 23:11:00.987836 25051 net.cpp:219] concat does not need backward computation.
I0925 23:11:00.987848 25051 net.cpp:219] lstm1 does not need backward computation.
I0925 23:11:00.987857 25051 net.cpp:219] embedding does not need backward computation.
I0925 23:11:00.987865 25051 net.cpp:219] reshape_stage_indicator does not need backward computation.
I0925 23:11:00.987874 25051 net.cpp:219] reshape_frames does not need backward computation.
I0925 23:11:00.987882 25051 net.cpp:219] embed_encoder does not need backward computation.
I0925 23:11:00.987891 25051 net.cpp:219] cont_sentence_input_1_split does not need backward computation.
I0925 23:11:00.987901 25051 net.cpp:219] input does not need backward computation.
I0925 23:11:00.987908 25051 net.cpp:261] This network produces output probs
I0925 23:11:00.987941 25051 net.cpp:274] Network initialization done.
I0925 23:11:00.999724 25035 net.cpp:141] Setting up conv5
I0925 23:11:00.999801 25035 net.cpp:148] Top shape: 10 256 13 13 (432640)
I0925 23:11:00.999815 25035 net.cpp:156] Memory required for data: 65519160
I0925 23:11:00.999855 25035 layer_factory.hpp:77] Creating layer relu5
I0925 23:11:00.999897 25035 net.cpp:91] Creating Layer relu5
I0925 23:11:00.999912 25035 net.cpp:425] relu5 <- conv5
I0925 23:11:00.999932 25035 net.cpp:386] relu5 -> conv5 (in-place)
I0925 23:11:01.006408 25035 net.cpp:141] Setting up relu5
I0925 23:11:01.006475 25035 net.cpp:148] Top shape: 10 256 13 13 (432640)
I0925 23:11:01.006489 25035 net.cpp:156] Memory required for data: 67249720
I0925 23:11:01.006505 25035 layer_factory.hpp:77] Creating layer pool5
I0925 23:11:01.007401 25035 net.cpp:91] Creating Layer pool5
I0925 23:11:01.007448 25035 net.cpp:425] pool5 <- conv5
I0925 23:11:01.007473 25035 net.cpp:399] pool5 -> pool5
I0925 23:11:01.007921 25035 net.cpp:141] Setting up pool5
I0925 23:11:01.007987 25035 net.cpp:148] Top shape: 10 256 6 6 (92160)
I0925 23:11:01.007999 25035 net.cpp:156] Memory required for data: 67618360
I0925 23:11:01.008015 25035 layer_factory.hpp:77] Creating layer fc6
I0925 23:11:01.008054 25035 net.cpp:91] Creating Layer fc6
I0925 23:11:01.008066 25035 net.cpp:425] fc6 <- pool5
I0925 23:11:01.008816 25035 net.cpp:399] fc6 -> fc6
I0925 23:11:01.161700 25035 net.cpp:141] Setting up fc6
I0925 23:11:01.161773 25035 net.cpp:148] Top shape: 10 4096 (40960)
I0925 23:11:01.161780 25035 net.cpp:156] Memory required for data: 67782200
I0925 23:11:01.161804 25035 layer_factory.hpp:77] Creating layer relu6
I0925 23:11:01.161828 25035 net.cpp:91] Creating Layer relu6
I0925 23:11:01.161837 25035 net.cpp:425] relu6 <- fc6
I0925 23:11:01.161849 25035 net.cpp:386] relu6 -> fc6 (in-place)
I0925 23:11:01.164963 25035 net.cpp:141] Setting up relu6
I0925 23:11:01.165029 25035 net.cpp:148] Top shape: 10 4096 (40960)
I0925 23:11:01.165036 25035 net.cpp:156] Memory required for data: 67946040
I0925 23:11:01.165048 25035 layer_factory.hpp:77] Creating layer drop6
I0925 23:11:01.165073 25035 net.cpp:91] Creating Layer drop6
I0925 23:11:01.165081 25035 net.cpp:425] drop6 <- fc6
I0925 23:11:01.165520 25035 net.cpp:386] drop6 -> fc6 (in-place)
I0925 23:11:01.165731 25035 net.cpp:141] Setting up drop6
I0925 23:11:01.165748 25035 net.cpp:148] Top shape: 10 4096 (40960)
I0925 23:11:01.165753 25035 net.cpp:156] Memory required for data: 68109880
I0925 23:11:01.165760 25035 layer_factory.hpp:77] Creating layer fc7
I0925 23:11:01.166852 25035 net.cpp:91] Creating Layer fc7
I0925 23:11:01.166887 25035 net.cpp:425] fc7 <- fc6
I0925 23:11:01.166903 25035 net.cpp:399] fc7 -> fc7
I0925 23:11:01.223439 25035 net.cpp:141] Setting up fc7
I0925 23:11:01.223497 25035 net.cpp:148] Top shape: 10 4096 (40960)
I0925 23:11:01.223507 25035 net.cpp:156] Memory required for data: 68273720
I0925 23:11:01.223531 25035 layer_factory.hpp:77] Creating layer relu7
I0925 23:11:01.223554 25035 net.cpp:91] Creating Layer relu7
I0925 23:11:01.223565 25035 net.cpp:425] relu7 <- fc7
I0925 23:11:01.223579 25035 net.cpp:386] relu7 -> fc7 (in-place)
I0925 23:11:01.227624 25035 net.cpp:141] Setting up relu7
I0925 23:11:01.227671 25035 net.cpp:148] Top shape: 10 4096 (40960)
I0925 23:11:01.227684 25035 net.cpp:156] Memory required for data: 68437560
I0925 23:11:01.227697 25035 layer_factory.hpp:77] Creating layer drop7
I0925 23:11:01.227728 25035 net.cpp:91] Creating Layer drop7
I0925 23:11:01.227740 25035 net.cpp:425] drop7 <- fc7
I0925 23:11:01.227753 25035 net.cpp:386] drop7 -> fc7 (in-place)
I0925 23:11:01.228981 25035 net.cpp:141] Setting up drop7
I0925 23:11:01.229002 25035 net.cpp:148] Top shape: 10 4096 (40960)
I0925 23:11:01.229010 25035 net.cpp:156] Memory required for data: 68601400
I0925 23:11:01.229018 25035 layer_factory.hpp:77] Creating layer fc8
I0925 23:11:01.229035 25035 net.cpp:91] Creating Layer fc8
I0925 23:11:01.229043 25035 net.cpp:425] fc8 <- fc7
I0925 23:11:01.229059 25035 net.cpp:399] fc8 -> fc8
I0925 23:11:01.244756 25035 net.cpp:141] Setting up fc8
I0925 23:11:01.244807 25035 net.cpp:148] Top shape: 10 1000 (10000)
I0925 23:11:01.244814 25035 net.cpp:156] Memory required for data: 68641400
I0925 23:11:01.244832 25035 layer_factory.hpp:77] Creating layer prob
I0925 23:11:01.244855 25035 net.cpp:91] Creating Layer prob
I0925 23:11:01.244868 25035 net.cpp:425] prob <- fc8
I0925 23:11:01.246569 25035 net.cpp:399] prob -> prob
I0925 23:11:01.249862 25035 net.cpp:141] Setting up prob
I0925 23:11:01.249907 25035 net.cpp:148] Top shape: 10 1000 (10000)
I0925 23:11:01.249912 25035 net.cpp:156] Memory required for data: 68681400
I0925 23:11:01.249923 25035 net.cpp:219] prob does not need backward computation.
I0925 23:11:01.249935 25035 net.cpp:219] fc8 does not need backward computation.
I0925 23:11:01.249941 25035 net.cpp:219] drop7 does not need backward computation.
I0925 23:11:01.249946 25035 net.cpp:219] relu7 does not need backward computation.
…
