…
Java HotSpot(TM) 64-Bit Server VM warning: You have loaded library /tmp/cvld3719170067850430311/libopencv_java310.xine1.so which might have disabled stack guard. The VM will try to fix the stack guard now.
It's highly recommended that you fix the library with 'execstack -c <libfile>', or link it with '-z noexecstack'.
WARNING: Logging before InitGoogleLogging() is written to STDERR
I0803 21:15:46.656570 10552 net.cpp:49] Initializing net from parameters: 
name: "CaffeNet"
state {
  phase: TEST
}
layer {
  name: "data"
  type: "Input"
  top: "data"
  input_param {
    shape {
      dim: 10
      dim: 3
      dim: 227
      dim: 227
    }
  }
}
layer {
  name: "conv1"
  type: "Convolution"
  bottom: "data"
  top: "conv1"
  convolution_param {
    num_output: 96
    kernel_size: 11
    stride: 4
  }
}
layer {
  name: "relu1"
  type: "ReLU"
  bottom: "conv1"
  top: "conv1"
}
layer {
  name: "pool1"
  type: "Pooling"
  bottom: "conv1"
  top: "pool1"
  pooling_param {
    pool: MAX
    kernel_size: 3
    stride: 2
  }
}
layer {
  name: "norm1"
  type: "LRN"
  bottom: "pool1"
  top: "norm1"
  lrn_param {
    local_size: 5
    alpha: 0.0001
    beta: 0.75
  }
}
layer {
  name: "conv2"
  type: "Convolution"
  bottom: "norm1"
  top: "conv2"
  convolution_param {
    num_output: 256
    pad: 2
    kernel_size: 5
    group: 2
  }
}
layer {
  name: "relu2"
  type: "ReLU"
  bottom: "conv2"
  top: "conv2"
}
layer {
  name: "pool2"
  type: "Pooling"
  bottom: "conv2"
  top: "pool2"
  pooling_param {
    pool: MAX
    kernel_size: 3
    stride: 2
  }
}
layer {
  name: "norm2"
  type: "LRN"
  bottom: "pool2"
  top: "norm2"
  lrn_param {
    local_size: 5
    alpha: 0.0001
    beta: 0.75
  }
}
layer {
  name: "conv3"
  type: "Convolution"
  bottom: "norm2"
  top: "conv3"
  convolution_param {
    num_output: 384
    pad: 1
    kernel_size: 3
  }
}
layer {
  name: "relu3"
  type: "ReLU"
  bottom: "conv3"
  top: "conv3"
}
layer {
  name: "conv4"
  type: "Convolution"
  bottom: "conv3"
  top: "conv4"
  convolution_param {
    num_output: 384
    pad: 1
    kernel_size: 3
    group: 2
  }
}
layer {
  name: "relu4"
  type: "ReLU"
  bottom: "conv4"
  top: "conv4"
}
layer {
  name: "conv5"
  type: "Convolution"
  bottom: "conv4"
  top: "conv5"
  convolution_param {
    num_output: 256
    pad: 1
    kernel_size: 3
    group: 2
  }
}
layer {
  name: "relu5"
  type: "ReLU"
  bottom: "conv5"
  top: "conv5"
}
layer {
  name: "pool5"
  type: "Pooling"
  bottom: "conv5"
  top: "pool5"
  pooling_param {
    pool: MAX
    kernel_size: 3
    stride: 2
  }
}
layer {
  name: "fc6"
  type: "InnerProduct"
  bottom: "pool5"
  top: "fc6"
  inner_product_param {
    num_output: 4096
  }
}
layer {
  name: "relu6"
  type: "ReLU"
  bottom: "fc6"
  top: "fc6"
}
layer {
  name: "drop6"
  type: "Dropout"
  bottom: "fc6"
  top: "fc6"
  dropout_param {
    dropout_ratio: 0.5
  }
}
layer {
  name: "fc7"
  type: "InnerProduct"
  bottom: "fc6"
  top: "fc7"
  inner_product_param {
    num_output: 4096
  }
}
layer {
  name: "relu7"
  type: "ReLU"
  bottom: "fc7"
  top: "fc7"
}
layer {
  name: "drop7"
  type: "Dropout"
  bottom: "fc7"
  top: "fc7"
  dropout_param {
    dropout_ratio: 0.5
  }
}
layer {
  name: "fc8"
  type: "InnerProduct"
  bottom: "fc7"
  top: "fc8"
  inner_product_param {
    num_output: 1000
  }
}
layer {
  name: "prob"
  type: "Softmax"
  bottom: "fc8"
  top: "prob"
}
I0803 21:15:46.656785 10552 layer_factory.hpp:77] Creating layer data
I0803 21:15:46.656811 10552 net.cpp:91] Creating Layer data
I0803 21:15:46.656821 10552 net.cpp:399] data -> data
I0803 21:15:47.149644 10542 upgrade_proto.cpp:66] Attempting to upgrade input file specified using deprecated input fields: /tmp/cvld3719170067850430311/s2vt.words_to_preds.prototxt
I0803 21:15:47.149704 10542 upgrade_proto.cpp:69] Successfully upgraded file specified using deprecated input fields.
W0803 21:15:47.149714 10542 upgrade_proto.cpp:71] Note that future Caffe releases will only support input layers and not input fields.
I0803 21:15:47.150099 10542 net.cpp:49] Initializing net from parameters: 
name: "s2vt:features_to_lstm"
state {
  phase: TEST
}
layer {
  name: "input"
  type: "Input"
  top: "frames_fc7"
  top: "cont_sentence"
  top: "input_sentence"
  top: "stage_indicator"
  input_param {
    shape {
      dim: 1
      dim: 4096
    }
    shape {
      dim: 1
      dim: 1
    }
    shape {
      dim: 1
      dim: 1
    }
    shape {
      dim: 1
      dim: 1
    }
  }
}
layer {
  name: "embed_encoder"
  type: "InnerProduct"
  bottom: "frames_fc7"
  top: "embedded_in_frames"
  param {
    lr_mult: 1
    decay_mult: 1
  }
  param {
    lr_mult: 2
    decay_mult: 0
  }
  inner_product_param {
    num_output: 500
    weight_filler {
      type: "xavier"
    }
    bias_filler {
      type: "constant"
      value: 0.2
    }
  }
}
layer {
  name: "reshape_frames"
  type: "Reshape"
  bottom: "embedded_in_frames"
  top: "embedded_input_frames"
  reshape_param {
    shape {
      dim: 1
      dim: 1
      dim: 500
    }
  }
}
layer {
  name: "reshape_stage_indicator"
  type: "Reshape"
  bottom: "stage_indicator"
  top: "reshaped_stage_indicator"
  reshape_param {
    shape {
      dim: 1
      dim: 1
      dim: 1
    }
  }
}
layer {
  name: "embedding"
  type: "Embed"
  bottom: "input_sentence"
  top: "embedded_input_sentence"
  param {
    lr_mult: 1
  }
  embed_param {
    num_output: 500
    input_dim: 46168
    bias_term: false
    weight_filler {
      type: "uniform"
      min: -0.08
      max: 0.08
    }
  }
}
layer {
  name: "lstm1"
  type: "LSTM"
  bottom: "embedded_input_frames"
  bottom: "cont_sentence"
  top: "lstm1"
  recurrent_param {
    num_output: 1000
    weight_filler {
      type: "uniform"
      min: -0.08
      max: 0.08
    }
    bias_filler {
      type: "constant"
      value: 0
    }
  }
}
layer {
  name: "concat"
  type: "Concat"
  bottom: "lstm1"
  bottom: "embedded_input_sentence"
  bottom: "reshaped_stage_indicator"
  top: "lstm1_video_sequence"
  concat_param {
    concat_dim: 2
  }
}
layer {
  name: "lstm2"
  type: "LSTM"
  bottom: "lstm1_video_sequence"
  bottom: "cont_sentence"
  top: "lstm2"
  recurrent_param {
    num_output: 1000
    weight_filler {
      type: "uniform"
      min: -0.08
      max: 0.08
    }
    bias_filler {
      type: "constant"
      value: 0
    }
  }
}
layer {
  name: "predict"
  type: "InnerProduct"
  bottom: "lstm2"
  top: "predict"
  param {
    lr_mult: 1
    decay_mult: 1
  }
  param {
    lr_mult: 2
    decay_mult: 0
  }
  inner_product_param {
    num_output: 46168
    weight_filler {
      type: "uniform"
      min: -0.08
      max: 0.08
    }
    bias_filler {
      type: "constant"
      value: 0
    }
    axis: 2
  }
}
layer {
  name: "probs"
  type: "Softmax"
  bottom: "predict"
  top: "probs"
  softmax_param {
    axis: 2
  }
}
I0803 21:15:47.150293 10542 layer_factory.hpp:77] Creating layer input
I0803 21:15:47.150310 10542 net.cpp:91] Creating Layer input
I0803 21:15:47.150317 10542 net.cpp:399] input -> frames_fc7
I0803 21:15:47.150333 10542 net.cpp:399] input -> cont_sentence
I0803 21:15:47.150347 10542 net.cpp:399] input -> input_sentence
I0803 21:15:47.150357 10542 net.cpp:399] input -> stage_indicator
I0803 21:15:47.168088 10552 net.cpp:141] Setting up data
I0803 21:15:47.168148 10552 net.cpp:148] Top shape: 10 3 227 227 (1545870)
I0803 21:15:47.168156 10552 net.cpp:156] Memory required for data: 6183480
I0803 21:15:47.168161 10542 net.cpp:141] Setting up input
I0803 21:15:47.168180 10552 layer_factory.hpp:77] Creating layer conv1
I0803 21:15:47.168182 10542 net.cpp:148] Top shape: 1 4096 (4096)
I0803 21:15:47.168190 10542 net.cpp:148] Top shape: 1 1 (1)
I0803 21:15:47.168196 10542 net.cpp:148] Top shape: 1 1 (1)
I0803 21:15:47.168202 10542 net.cpp:148] Top shape: 1 1 (1)
I0803 21:15:47.168205 10542 net.cpp:156] Memory required for data: 16396
I0803 21:15:47.168207 10552 net.cpp:91] Creating Layer conv1
I0803 21:15:47.168211 10542 layer_factory.hpp:77] Creating layer cont_sentence_input_1_split
I0803 21:15:47.168216 10552 net.cpp:425] conv1 <- data
I0803 21:15:47.168228 10552 net.cpp:399] conv1 -> conv1
I0803 21:15:47.168231 10542 net.cpp:91] Creating Layer cont_sentence_input_1_split
I0803 21:15:47.168236 10542 net.cpp:425] cont_sentence_input_1_split <- cont_sentence
I0803 21:15:47.168256 10542 net.cpp:399] cont_sentence_input_1_split -> cont_sentence_input_1_split_0
I0803 21:15:47.168267 10542 net.cpp:399] cont_sentence_input_1_split -> cont_sentence_input_1_split_1
I0803 21:15:47.168331 10542 net.cpp:141] Setting up cont_sentence_input_1_split
I0803 21:15:47.168342 10542 net.cpp:148] Top shape: 1 1 (1)
I0803 21:15:47.168349 10542 net.cpp:148] Top shape: 1 1 (1)
I0803 21:15:47.168352 10542 net.cpp:156] Memory required for data: 16404
I0803 21:15:47.168356 10542 layer_factory.hpp:77] Creating layer embed_encoder
I0803 21:15:47.168375 10542 net.cpp:91] Creating Layer embed_encoder
I0803 21:15:47.168380 10542 net.cpp:425] embed_encoder <- frames_fc7
I0803 21:15:47.168388 10542 net.cpp:399] embed_encoder -> embedded_in_frames
I0803 21:15:47.192227 10542 net.cpp:141] Setting up embed_encoder
I0803 21:15:47.192281 10542 net.cpp:148] Top shape: 1 500 (500)
I0803 21:15:47.192286 10542 net.cpp:156] Memory required for data: 18404
I0803 21:15:47.192312 10542 layer_factory.hpp:77] Creating layer reshape_frames
I0803 21:15:47.192345 10542 net.cpp:91] Creating Layer reshape_frames
I0803 21:15:47.192353 10542 net.cpp:425] reshape_frames <- embedded_in_frames
I0803 21:15:47.192364 10542 net.cpp:399] reshape_frames -> embedded_input_frames
I0803 21:15:47.192561 10542 net.cpp:141] Setting up reshape_frames
I0803 21:15:47.192572 10542 net.cpp:148] Top shape: 1 1 500 (500)
I0803 21:15:47.192576 10542 net.cpp:156] Memory required for data: 20404
I0803 21:15:47.192580 10542 layer_factory.hpp:77] Creating layer reshape_stage_indicator
I0803 21:15:47.192591 10542 net.cpp:91] Creating Layer reshape_stage_indicator
I0803 21:15:47.192596 10542 net.cpp:425] reshape_stage_indicator <- stage_indicator
I0803 21:15:47.192605 10542 net.cpp:399] reshape_stage_indicator -> reshaped_stage_indicator
I0803 21:15:47.194248 10542 net.cpp:141] Setting up reshape_stage_indicator
I0803 21:15:47.194269 10542 net.cpp:148] Top shape: 1 1 1 (1)
I0803 21:15:47.194274 10542 net.cpp:156] Memory required for data: 20408
I0803 21:15:47.194279 10542 layer_factory.hpp:77] Creating layer embedding
I0803 21:15:47.194291 10542 net.cpp:91] Creating Layer embedding
I0803 21:15:47.194298 10542 net.cpp:425] embedding <- input_sentence
I0803 21:15:47.194304 10542 net.cpp:399] embedding -> embedded_input_sentence
I0803 21:15:47.411738 10542 net.cpp:141] Setting up embedding
I0803 21:15:47.411782 10542 net.cpp:148] Top shape: 1 1 500 (500)
I0803 21:15:47.411789 10542 net.cpp:156] Memory required for data: 22408
I0803 21:15:47.411805 10542 layer_factory.hpp:77] Creating layer lstm1
I0803 21:15:47.411823 10542 net.cpp:91] Creating Layer lstm1
I0803 21:15:47.411829 10542 net.cpp:425] lstm1 <- embedded_input_frames
I0803 21:15:47.411837 10542 net.cpp:425] lstm1 <- cont_sentence_input_1_split_0
I0803 21:15:47.411847 10542 net.cpp:399] lstm1 -> lstm1
I0803 21:15:47.411878 10542 recurrent_layer.cpp:20] Initializing recurrent layer: assuming input batch contains 1 timesteps of 1 independent streams.
I0803 21:15:47.412292 10542 net.cpp:49] Initializing net from parameters: 
layer {
  name: "lstm1_"
  type: "Input"
  top: "x"
  top: "cont"
  input_param {
    shape {
      dim: 1
      dim: 1
      dim: 500
    }
    shape {
      dim: 1
      dim: 1
    }
  }
}
layer {
  name: "lstm1_"
  type: "Input"
  top: "c_0"
  top: "h_0"
  input_param {
    shape {
      dim: 1
      dim: 1
      dim: 1000
    }
    shape {
      dim: 1
      dim: 1
      dim: 1000
    }
  }
}
layer {
  name: "lstm1_cont_slice"
  type: "Slice"
  bottom: "cont"
  top: "cont_1"
  slice_param {
    axis: 0
  }
}
layer {
  name: "lstm1_x_transform"
  type: "InnerProduct"
  bottom: "x"
  top: "W_xc_x"
  param {
    name: "W_xc"
  }
  param {
    name: "b_c"
  }
  propagate_down: true
  inner_product_param {
    num_output: 4000
    bias_term: true
    weight_filler {
      type: "uniform"
      min: -0.08
      max: 0.08
    }
    bias_filler {
      type: "constant"
      value: 0
    }
    axis: 2
  }
}
layer {
  name: "lstm1_W_xc_x_slice"
  type: "Slice"
  bottom: "W_xc_x"
  top: "W_xc_x_1"
  slice_param {
    axis: 0
  }
}
layer {
  name: "lstm1_h_conted_0"
  type: "Scale"
  bottom: "h_0"
  bottom: "cont_1"
  top: "h_conted_0"
  scale_param {
    axis: 0
  }
}
layer {
  name: "lstm1_transform_1"
  type: "InnerProduct"
  bottom: "h_conted_0"
  top: "W_hc_h_0"
  param {
    name: "W_hc"
  }
  inner_product_param {
    num_output: 4000
    bias_term: false
    weight_filler {
      type: "uniform"
      min: -0.08
      max: 0.08
    }
    axis: 2
  }
}
layer {
  name: "lstm1_gate_input_1"
  type: "Eltwise"
  bottom: "W_hc_h_0"
  bottom: "W_xc_x_1"
  top: "gate_input_1"
  eltwise_param {
    operation: SUM
  }
}
layer {
  name: "lstm1_unit_1"
  type: "LSTMUnit"
  bottom: "c_0"
  bottom: "gate_input_1"
  bottom: "cont_1"
  top: "c_1"
  top: "h_1"
}
layer {
  name: "lstm1_"
  type: "Split"
  bottom: "c_1"
  top: "c_T"
}
layer {
  name: "lstm1_h_concat"
  type: "Concat"
  bottom: "h_1"
  top: "h"
  concat_param {
    axis: 0
  }
}
layer {
  name: "h_pseudoloss"
  type: "Reduction"
  bottom: "h"
  top: "h_pseudoloss"
  loss_weight: 1
}
I0803 21:15:47.412384 10542 layer_factory.hpp:77] Creating layer lstm1_
I0803 21:15:47.412398 10542 net.cpp:91] Creating Layer lstm1_
I0803 21:15:47.412405 10542 net.cpp:399] lstm1_ -> x
I0803 21:15:47.412416 10542 net.cpp:399] lstm1_ -> cont
I0803 21:15:47.415302 10542 net.cpp:141] Setting up lstm1_
I0803 21:15:47.415319 10542 net.cpp:148] Top shape: 1 1 500 (500)
I0803 21:15:47.415326 10542 net.cpp:148] Top shape: 1 1 (1)
I0803 21:15:47.415331 10542 net.cpp:156] Memory required for data: 2004
I0803 21:15:47.415336 10542 layer_factory.hpp:77] Creating layer lstm1_
I0803 21:15:47.415346 10542 net.cpp:91] Creating Layer lstm1_
I0803 21:15:47.415359 10542 net.cpp:399] lstm1_ -> c_0
I0803 21:15:47.415370 10542 net.cpp:399] lstm1_ -> h_0
I0803 21:15:47.415416 10542 net.cpp:141] Setting up lstm1_
I0803 21:15:47.415426 10542 net.cpp:148] Top shape: 1 1 1000 (1000)
I0803 21:15:47.415431 10542 net.cpp:148] Top shape: 1 1 1000 (1000)
I0803 21:15:47.415436 10542 net.cpp:156] Memory required for data: 10004
I0803 21:15:47.415439 10542 layer_factory.hpp:77] Creating layer lstm1_cont_slice
I0803 21:15:47.415451 10542 net.cpp:91] Creating Layer lstm1_cont_slice
I0803 21:15:47.415455 10542 net.cpp:425] lstm1_cont_slice <- cont
I0803 21:15:47.415462 10542 net.cpp:399] lstm1_cont_slice -> cont_1
I0803 21:15:47.415495 10542 net.cpp:141] Setting up lstm1_cont_slice
I0803 21:15:47.415503 10542 net.cpp:148] Top shape: 1 1 (1)
I0803 21:15:47.415508 10542 net.cpp:156] Memory required for data: 10008
I0803 21:15:47.415513 10542 layer_factory.hpp:77] Creating layer cont_1_lstm1_cont_slice_0_split
I0803 21:15:47.415518 10542 net.cpp:91] Creating Layer cont_1_lstm1_cont_slice_0_split
I0803 21:15:47.415524 10542 net.cpp:425] cont_1_lstm1_cont_slice_0_split <- cont_1
I0803 21:15:47.415531 10542 net.cpp:399] cont_1_lstm1_cont_slice_0_split -> cont_1_lstm1_cont_slice_0_split_0
I0803 21:15:47.415540 10542 net.cpp:399] cont_1_lstm1_cont_slice_0_split -> cont_1_lstm1_cont_slice_0_split_1
I0803 21:15:47.415586 10542 net.cpp:141] Setting up cont_1_lstm1_cont_slice_0_split
I0803 21:15:47.415596 10542 net.cpp:148] Top shape: 1 1 (1)
I0803 21:15:47.415601 10542 net.cpp:148] Top shape: 1 1 (1)
I0803 21:15:47.415604 10542 net.cpp:156] Memory required for data: 10016
I0803 21:15:47.415609 10542 layer_factory.hpp:77] Creating layer lstm1_x_transform
I0803 21:15:47.415621 10542 net.cpp:91] Creating Layer lstm1_x_transform
I0803 21:15:47.415627 10542 net.cpp:425] lstm1_x_transform <- x
I0803 21:15:47.415634 10542 net.cpp:399] lstm1_x_transform -> W_xc_x
I0803 21:15:47.424016 10552 net.cpp:141] Setting up conv1
I0803 21:15:47.424063 10552 net.cpp:148] Top shape: 10 96 55 55 (2904000)
I0803 21:15:47.424069 10552 net.cpp:156] Memory required for data: 17799480
I0803 21:15:47.424093 10552 layer_factory.hpp:77] Creating layer relu1
I0803 21:15:47.424113 10552 net.cpp:91] Creating Layer relu1
I0803 21:15:47.424120 10552 net.cpp:425] relu1 <- conv1
I0803 21:15:47.424129 10552 net.cpp:386] relu1 -> conv1 (in-place)
I0803 21:15:47.424537 10552 net.cpp:141] Setting up relu1
I0803 21:15:47.424551 10552 net.cpp:148] Top shape: 10 96 55 55 (2904000)
I0803 21:15:47.424554 10552 net.cpp:156] Memory required for data: 29415480
I0803 21:15:47.424559 10552 layer_factory.hpp:77] Creating layer pool1
I0803 21:15:47.424577 10552 net.cpp:91] Creating Layer pool1
I0803 21:15:47.424633 10552 net.cpp:425] pool1 <- conv1
I0803 21:15:47.424677 10552 net.cpp:399] pool1 -> pool1
I0803 21:15:47.424819 10552 net.cpp:141] Setting up pool1
I0803 21:15:47.424835 10552 net.cpp:148] Top shape: 10 96 27 27 (699840)
I0803 21:15:47.424840 10552 net.cpp:156] Memory required for data: 32214840
I0803 21:15:47.424846 10552 layer_factory.hpp:77] Creating layer norm1
I0803 21:15:47.424867 10552 net.cpp:91] Creating Layer norm1
I0803 21:15:47.424873 10552 net.cpp:425] norm1 <- pool1
I0803 21:15:47.424880 10552 net.cpp:399] norm1 -> norm1
I0803 21:15:47.425493 10552 net.cpp:141] Setting up norm1
I0803 21:15:47.425510 10552 net.cpp:148] Top shape: 10 96 27 27 (699840)
I0803 21:15:47.425515 10552 net.cpp:156] Memory required for data: 35014200
I0803 21:15:47.425521 10552 layer_factory.hpp:77] Creating layer conv2
I0803 21:15:47.425534 10552 net.cpp:91] Creating Layer conv2
I0803 21:15:47.425539 10552 net.cpp:425] conv2 <- norm1
I0803 21:15:47.425550 10552 net.cpp:399] conv2 -> conv2
I0803 21:15:47.428711 10552 net.cpp:141] Setting up conv2
I0803 21:15:47.428726 10552 net.cpp:148] Top shape: 10 256 27 27 (1866240)
I0803 21:15:47.428731 10552 net.cpp:156] Memory required for data: 42479160
I0803 21:15:47.428745 10552 layer_factory.hpp:77] Creating layer relu2
I0803 21:15:47.428777 10552 net.cpp:91] Creating Layer relu2
I0803 21:15:47.428783 10552 net.cpp:425] relu2 <- conv2
I0803 21:15:47.428791 10552 net.cpp:386] relu2 -> conv2 (in-place)
I0803 21:15:47.429175 10552 net.cpp:141] Setting up relu2
I0803 21:15:47.429189 10552 net.cpp:148] Top shape: 10 256 27 27 (1866240)
I0803 21:15:47.429195 10552 net.cpp:156] Memory required for data: 49944120
I0803 21:15:47.429200 10552 layer_factory.hpp:77] Creating layer pool2
I0803 21:15:47.429211 10552 net.cpp:91] Creating Layer pool2
I0803 21:15:47.429216 10552 net.cpp:425] pool2 <- conv2
I0803 21:15:47.429224 10552 net.cpp:399] pool2 -> pool2
I0803 21:15:47.429289 10552 net.cpp:141] Setting up pool2
I0803 21:15:47.429299 10552 net.cpp:148] Top shape: 10 256 13 13 (432640)
I0803 21:15:47.429304 10552 net.cpp:156] Memory required for data: 51674680
I0803 21:15:47.429318 10552 layer_factory.hpp:77] Creating layer norm2
I0803 21:15:47.429332 10552 net.cpp:91] Creating Layer norm2
I0803 21:15:47.429337 10552 net.cpp:425] norm2 <- pool2
I0803 21:15:47.429344 10552 net.cpp:399] norm2 -> norm2
I0803 21:15:47.429596 10552 net.cpp:141] Setting up norm2
I0803 21:15:47.429608 10552 net.cpp:148] Top shape: 10 256 13 13 (432640)
I0803 21:15:47.429615 10552 net.cpp:156] Memory required for data: 53405240
I0803 21:15:47.429623 10552 layer_factory.hpp:77] Creating layer conv3
I0803 21:15:47.429639 10552 net.cpp:91] Creating Layer conv3
I0803 21:15:47.429648 10552 net.cpp:425] conv3 <- norm2
I0803 21:15:47.429661 10552 net.cpp:399] conv3 -> conv3
I0803 21:15:47.433212 10552 net.cpp:141] Setting up conv3
I0803 21:15:47.433233 10552 net.cpp:148] Top shape: 10 384 13 13 (648960)
I0803 21:15:47.433244 10552 net.cpp:156] Memory required for data: 56001080
I0803 21:15:47.433259 10552 layer_factory.hpp:77] Creating layer relu3
I0803 21:15:47.433267 10552 net.cpp:91] Creating Layer relu3
I0803 21:15:47.433272 10552 net.cpp:425] relu3 <- conv3
I0803 21:15:47.433285 10552 net.cpp:386] relu3 -> conv3 (in-place)
I0803 21:15:47.433660 10552 net.cpp:141] Setting up relu3
I0803 21:15:47.433673 10552 net.cpp:148] Top shape: 10 384 13 13 (648960)
I0803 21:15:47.433677 10552 net.cpp:156] Memory required for data: 58596920
I0803 21:15:47.433682 10552 layer_factory.hpp:77] Creating layer conv4
I0803 21:15:47.433696 10552 net.cpp:91] Creating Layer conv4
I0803 21:15:47.433701 10552 net.cpp:425] conv4 <- conv3
I0803 21:15:47.433711 10552 net.cpp:399] conv4 -> conv4
I0803 21:15:47.437564 10552 net.cpp:141] Setting up conv4
I0803 21:15:47.437584 10552 net.cpp:148] Top shape: 10 384 13 13 (648960)
I0803 21:15:47.437589 10552 net.cpp:156] Memory required for data: 61192760
I0803 21:15:47.437614 10552 layer_factory.hpp:77] Creating layer relu4
I0803 21:15:47.437624 10552 net.cpp:91] Creating Layer relu4
I0803 21:15:47.437629 10552 net.cpp:425] relu4 <- conv4
I0803 21:15:47.437639 10552 net.cpp:386] relu4 -> conv4 (in-place)
I0803 21:15:47.438035 10552 net.cpp:141] Setting up relu4
I0803 21:15:47.438048 10552 net.cpp:148] Top shape: 10 384 13 13 (648960)
I0803 21:15:47.438053 10552 net.cpp:156] Memory required for data: 63788600
I0803 21:15:47.438057 10552 layer_factory.hpp:77] Creating layer conv5
I0803 21:15:47.438071 10552 net.cpp:91] Creating Layer conv5
I0803 21:15:47.438076 10552 net.cpp:425] conv5 <- conv4
I0803 21:15:47.438086 10552 net.cpp:399] conv5 -> conv5
I0803 21:15:47.439373 10542 net.cpp:141] Setting up lstm1_x_transform
I0803 21:15:47.439393 10542 net.cpp:148] Top shape: 1 1 4000 (4000)
I0803 21:15:47.439399 10542 net.cpp:156] Memory required for data: 26016
I0803 21:15:47.439411 10542 layer_factory.hpp:77] Creating layer lstm1_W_xc_x_slice
I0803 21:15:47.439424 10542 net.cpp:91] Creating Layer lstm1_W_xc_x_slice
I0803 21:15:47.439430 10542 net.cpp:425] lstm1_W_xc_x_slice <- W_xc_x
I0803 21:15:47.439438 10542 net.cpp:399] lstm1_W_xc_x_slice -> W_xc_x_1
I0803 21:15:47.439479 10542 net.cpp:141] Setting up lstm1_W_xc_x_slice
I0803 21:15:47.439489 10542 net.cpp:148] Top shape: 1 1 4000 (4000)
I0803 21:15:47.439493 10542 net.cpp:156] Memory required for data: 42016
I0803 21:15:47.439498 10542 layer_factory.hpp:77] Creating layer lstm1_h_conted_0
I0803 21:15:47.439510 10542 net.cpp:91] Creating Layer lstm1_h_conted_0
I0803 21:15:47.439515 10542 net.cpp:425] lstm1_h_conted_0 <- h_0
I0803 21:15:47.439522 10542 net.cpp:425] lstm1_h_conted_0 <- cont_1_lstm1_cont_slice_0_split_0
I0803 21:15:47.439528 10542 net.cpp:399] lstm1_h_conted_0 -> h_conted_0
I0803 21:15:47.439841 10542 net.cpp:141] Setting up lstm1_h_conted_0
I0803 21:15:47.439851 10542 net.cpp:148] Top shape: 1 1 1000 (1000)
I0803 21:15:47.439857 10542 net.cpp:156] Memory required for data: 46016
I0803 21:15:47.439860 10542 layer_factory.hpp:77] Creating layer lstm1_transform_1
I0803 21:15:47.439882 10542 net.cpp:91] Creating Layer lstm1_transform_1
I0803 21:15:47.439888 10542 net.cpp:425] lstm1_transform_1 <- h_conted_0
I0803 21:15:47.439895 10542 net.cpp:399] lstm1_transform_1 -> W_hc_h_0
I0803 21:15:47.449141 10552 net.cpp:141] Setting up conv5
I0803 21:15:47.449180 10552 net.cpp:148] Top shape: 10 256 13 13 (432640)
I0803 21:15:47.449187 10552 net.cpp:156] Memory required for data: 65519160
I0803 21:15:47.449205 10552 layer_factory.hpp:77] Creating layer relu5
I0803 21:15:47.449259 10552 net.cpp:91] Creating Layer relu5
I0803 21:15:47.449268 10552 net.cpp:425] relu5 <- conv5
I0803 21:15:47.449276 10552 net.cpp:386] relu5 -> conv5 (in-place)
I0803 21:15:47.449672 10552 net.cpp:141] Setting up relu5
I0803 21:15:47.449686 10552 net.cpp:148] Top shape: 10 256 13 13 (432640)
I0803 21:15:47.449690 10552 net.cpp:156] Memory required for data: 67249720
I0803 21:15:47.449695 10552 layer_factory.hpp:77] Creating layer pool5
I0803 21:15:47.449710 10552 net.cpp:91] Creating Layer pool5
I0803 21:15:47.449717 10552 net.cpp:425] pool5 <- conv5
I0803 21:15:47.449723 10552 net.cpp:399] pool5 -> pool5
I0803 21:15:47.449787 10552 net.cpp:141] Setting up pool5
I0803 21:15:47.449796 10552 net.cpp:148] Top shape: 10 256 6 6 (92160)
I0803 21:15:47.449800 10552 net.cpp:156] Memory required for data: 67618360
I0803 21:15:47.449805 10552 layer_factory.hpp:77] Creating layer fc6
I0803 21:15:47.449827 10552 net.cpp:91] Creating Layer fc6
I0803 21:15:47.449833 10552 net.cpp:425] fc6 <- pool5
I0803 21:15:47.449843 10552 net.cpp:399] fc6 -> fc6
I0803 21:15:47.513402 10542 net.cpp:141] Setting up lstm1_transform_1
I0803 21:15:47.513443 10542 net.cpp:148] Top shape: 1 1 4000 (4000)
I0803 21:15:47.513449 10542 net.cpp:156] Memory required for data: 62016
I0803 21:15:47.513468 10542 layer_factory.hpp:77] Creating layer lstm1_gate_input_1
I0803 21:15:47.513489 10542 net.cpp:91] Creating Layer lstm1_gate_input_1
I0803 21:15:47.513496 10542 net.cpp:425] lstm1_gate_input_1 <- W_hc_h_0
I0803 21:15:47.513504 10542 net.cpp:425] lstm1_gate_input_1 <- W_xc_x_1
I0803 21:15:47.513511 10542 net.cpp:399] lstm1_gate_input_1 -> gate_input_1
I0803 21:15:47.513567 10542 net.cpp:141] Setting up lstm1_gate_input_1
I0803 21:15:47.513576 10542 net.cpp:148] Top shape: 1 1 4000 (4000)
I0803 21:15:47.513581 10542 net.cpp:156] Memory required for data: 78016
I0803 21:15:47.513586 10542 layer_factory.hpp:77] Creating layer lstm1_unit_1
I0803 21:15:47.513597 10542 net.cpp:91] Creating Layer lstm1_unit_1
I0803 21:15:47.513602 10542 net.cpp:425] lstm1_unit_1 <- c_0
I0803 21:15:47.513607 10542 net.cpp:425] lstm1_unit_1 <- gate_input_1
I0803 21:15:47.513612 10542 net.cpp:425] lstm1_unit_1 <- cont_1_lstm1_cont_slice_0_split_1
I0803 21:15:47.513618 10542 net.cpp:399] lstm1_unit_1 -> c_1
I0803 21:15:47.513627 10542 net.cpp:399] lstm1_unit_1 -> h_1
I0803 21:15:47.513702 10542 net.cpp:141] Setting up lstm1_unit_1
I0803 21:15:47.513711 10542 net.cpp:148] Top shape: 1 1 1000 (1000)
I0803 21:15:47.513717 10542 net.cpp:148] Top shape: 1 1 1000 (1000)
I0803 21:15:47.513720 10542 net.cpp:156] Memory required for data: 86016
I0803 21:15:47.513725 10542 layer_factory.hpp:77] Creating layer lstm1_
I0803 21:15:47.513732 10542 net.cpp:91] Creating Layer lstm1_
I0803 21:15:47.513737 10542 net.cpp:425] lstm1_ <- c_1
I0803 21:15:47.513743 10542 net.cpp:399] lstm1_ -> c_T
I0803 21:15:47.513773 10542 net.cpp:141] Setting up lstm1_
I0803 21:15:47.513782 10542 net.cpp:148] Top shape: 1 1 1000 (1000)
I0803 21:15:47.513785 10542 net.cpp:156] Memory required for data: 90016
I0803 21:15:47.513789 10542 layer_factory.hpp:77] Creating layer lstm1_h_concat
I0803 21:15:47.513798 10542 net.cpp:91] Creating Layer lstm1_h_concat
I0803 21:15:47.513803 10542 net.cpp:425] lstm1_h_concat <- h_1
I0803 21:15:47.513808 10542 net.cpp:399] lstm1_h_concat -> h
I0803 21:15:47.513851 10542 net.cpp:141] Setting up lstm1_h_concat
I0803 21:15:47.513859 10542 net.cpp:148] Top shape: 1 1 1000 (1000)
I0803 21:15:47.513864 10542 net.cpp:156] Memory required for data: 94016
I0803 21:15:47.513867 10542 layer_factory.hpp:77] Creating layer h_pseudoloss
I0803 21:15:47.513881 10542 net.cpp:91] Creating Layer h_pseudoloss
I0803 21:15:47.513885 10542 net.cpp:425] h_pseudoloss <- h
I0803 21:15:47.513891 10542 net.cpp:399] h_pseudoloss -> h_pseudoloss
I0803 21:15:47.513978 10542 net.cpp:141] Setting up h_pseudoloss
…
I0803 21:15:47.514087 10542 net.cpp:219] lstm1_ does not need backward computation.
I0803 21:15:47.514091 10542 net.cpp:261] This network produces output c_T
I0803 21:15:47.514094 10542 net.cpp:261] This network produces output h_pseudoloss
I0803 21:15:47.514109 10542 net.cpp:274] Network initialization done.
I0803 21:15:47.514163 10542 recurrent_layer.cpp:150] Adding parameter 0: W_xc
I0803 21:15:47.514168 10542 recurrent_layer.cpp:150] Adding parameter 1: b_c
I0803 21:15:47.514173 10542 recurrent_layer.cpp:150] Adding parameter 2: W_hc
I0803 21:15:47.514273 10542 net.cpp:141] Setting up lstm1
I0803 21:15:47.514284 10542 net.cpp:148] Top shape: 1 1 1000 (1000)
I0803 21:15:47.514288 10542 net.cpp:156] Memory required for data: 26408
I0803 21:15:47.514302 10542 layer_factory.hpp:77] Creating layer concat
I0803 21:15:47.514309 10542 net.cpp:91] Creating Layer concat
I0803 21:15:47.514314 10542 net.cpp:425] concat <- lstm1
I0803 21:15:47.514320 10542 net.cpp:425] concat <- embedded_input_sentence
I0803 21:15:47.514325 10542 net.cpp:425] concat <- reshaped_stage_indicator
I0803 21:15:47.514331 10542 net.cpp:399] concat -> lstm1_video_sequence
I0803 21:15:47.514363 10542 net.cpp:141] Setting up concat
I0803 21:15:47.514370 10542 net.cpp:148] Top shape: 1 1 1501 (1501)
I0803 21:15:47.514374 10542 net.cpp:156] Memory required for data: 32412
I0803 21:15:47.514379 10542 layer_factory.hpp:77] Creating layer lstm2
I0803 21:15:47.514389 10542 net.cpp:91] Creating Layer lstm2
I0803 21:15:47.514394 10542 net.cpp:425] lstm2 <- lstm1_video_sequence
I0803 21:15:47.514400 10542 net.cpp:425] lstm2 <- cont_sentence_input_1_split_1
I0803 21:15:47.514405 10542 net.cpp:399] lstm2 -> lstm2
I0803 21:15:47.514415 10542 recurrent_layer.cpp:20] Initializing recurrent layer: assuming input batch contains 1 timesteps of 1 independent streams.
I0803 21:15:47.514667 10542 net.cpp:49] Initializing net from parameters: 
layer {
  name: "lstm2_"
  type: "Input"
  top: "x"
  top: "cont"
  input_param {
    shape {
      dim: 1
      dim: 1
      dim: 1501
    }
    shape {
      dim: 1
      dim: 1
    }
  }
}
layer {
  name: "lstm2_"
  type: "Input"
  top: "c_0"
  top: "h_0"
  input_param {
    shape {
      dim: 1
      dim: 1
      dim: 1000
    }
    shape {
      dim: 1
      dim: 1
      dim: 1000
    }
  }
}
layer {
  name: "lstm2_cont_slice"
  type: "Slice"
  bottom: "cont"
  top: "cont_1"
  slice_param {
    axis: 0
  }
}
layer {
  name: "lstm2_x_transform"
  type: "InnerProduct"
  bottom: "x"
  top: "W_xc_x"
  param {
    name: "W_xc"
  }
  param {
    name: "b_c"
  }
  propagate_down: true
  inner_product_param {
    num_output: 4000
    bias_term: true
    weight_filler {
      type: "uniform"
      min: -0.08
      max: 0.08
    }
    bias_filler {
      type: "constant"
      value: 0
    }
    axis: 2
  }
}
layer {
  name: "lstm2_W_xc_x_slice"
  type: "Slice"
  bottom: "W_xc_x"
  top: "W_xc_x_1"
  slice_param {
    axis: 0
  }
}
layer {
  name: "lstm2_h_conted_0"
  type: "Scale"
  bottom: "h_0"
  bottom: "cont_1"
  top: "h_conted_0"
  scale_param {
    axis: 0
  }
}
layer {
  name: "lstm2_transform_1"
  type: "InnerProduct"
  bottom: "h_conted_0"
  top: "W_hc_h_0"
  param {
    name: "W_hc"
  }
  inner_product_param {
    num_output: 4000
    bias_term: false
    weight_filler {
      type: "uniform"
      min: -0.08
      max: 0.08
    }
    axis: 2
  }
}
layer {
  name: "lstm2_gate_input_1"
  type: "Eltwise"
  bottom: "W_hc_h_0"
  bottom: "W_xc_x_1"
  top: "gate_input_1"
  eltwise_param {
    operation: SUM
  }
}
layer {
  name: "lstm2_unit_1"
  type: "LSTMUnit"
  bottom: "c_0"
  bottom: "gate_input_1"
  bottom: "cont_1"
  top: "c_1"
  top: "h_1"
}
layer {
  name: "lstm2_"
  type: "Split"
  bottom: "c_1"
  top: "c_T"
}
layer {
  name: "lstm2_h_concat"
  type: "Concat"
  bottom: "h_1"
  top: "h"
  concat_param {
    axis: 0
  }
}
layer {
  name: "h_pseudoloss"
  type: "Reduction"
  bottom: "h"
  top: "h_pseudoloss"
  loss_weight: 1
}
I0803 21:15:47.514763 10542 layer_factory.hpp:77] Creating layer lstm2_
I0803 21:15:47.514777 10542 net.cpp:91] Creating Layer lstm2_
I0803 21:15:47.514783 10542 net.cpp:399] lstm2_ -> x
I0803 21:15:47.514794 10542 net.cpp:399] lstm2_ -> cont
I0803 21:15:47.514847 10542 net.cpp:141] Setting up lstm2_
I0803 21:15:47.514856 10542 net.cpp:148] Top shape: 1 1 1501 (1501)
I0803 21:15:47.514863 10542 net.cpp:148] Top shape: 1 1 (1)
I0803 21:15:47.514866 10542 net.cpp:156] Memory required for data: 6008
I0803 21:15:47.514870 10542 layer_factory.hpp:77] Creating layer lstm2_
I0803 21:15:47.514879 10542 net.cpp:91] Creating Layer lstm2_
I0803 21:15:47.514888 10542 net.cpp:399] lstm2_ -> c_0
I0803 21:15:47.514897 10542 net.cpp:399] lstm2_ -> h_0
I0803 21:15:47.514943 10542 net.cpp:141] Setting up lstm2_
I0803 21:15:47.514952 10542 net.cpp:148] Top shape: 1 1 1000 (1000)
I0803 21:15:47.514958 10542 net.cpp:148] Top shape: 1 1 1000 (1000)
I0803 21:15:47.514962 10542 net.cpp:156] Memory required for data: 14008
I0803 21:15:47.514966 10542 layer_factory.hpp:77] Creating layer lstm2_cont_slice
I0803 21:15:47.514974 10542 net.cpp:91] Creating Layer lstm2_cont_slice
I0803 21:15:47.514978 10542 net.cpp:425] lstm2_cont_slice <- cont
I0803 21:15:47.514986 10542 net.cpp:399] lstm2_cont_slice -> cont_1
I0803 21:15:47.515015 10542 net.cpp:141] Setting up lstm2_cont_slice
I0803 21:15:47.515024 10542 net.cpp:148] Top shape: 1 1 (1)
I0803 21:15:47.515028 10542 net.cpp:156] Memory required for data: 14012
I0803 21:15:47.515033 10542 layer_factory.hpp:77] Creating layer cont_1_lstm2_cont_slice_0_split
I0803 21:15:47.515043 10542 net.cpp:91] Creating Layer cont_1_lstm2_cont_slice_0_split
I0803 21:15:47.515048 10542 net.cpp:425] cont_1_lstm2_cont_slice_0_split <- cont_1
I0803 21:15:47.515053 10542 net.cpp:399] cont_1_lstm2_cont_slice_0_split -> cont_1_lstm2_cont_slice_0_split_0
I0803 21:15:47.515061 10542 net.cpp:399] cont_1_lstm2_cont_slice_0_split -> cont_1_lstm2_cont_slice_0_split_1
I0803 21:15:47.515107 10542 net.cpp:141] Setting up cont_1_lstm2_cont_slice_0_split
I0803 21:15:47.515115 10542 net.cpp:148] Top shape: 1 1 (1)
I0803 21:15:47.515121 10542 net.cpp:148] Top shape: 1 1 (1)
I0803 21:15:47.515125 10542 net.cpp:156] Memory required for data: 14020
I0803 21:15:47.515130 10542 layer_factory.hpp:77] Creating layer lstm2_x_transform
I0803 21:15:47.515141 10542 net.cpp:91] Creating Layer lstm2_x_transform
I0803 21:15:47.515146 10542 net.cpp:425] lstm2_x_transform <- x
I0803 21:15:47.515152 10542 net.cpp:399] lstm2_x_transform -> W_xc_x
I0803 21:15:47.551944 10552 net.cpp:141] Setting up fc6
I0803 21:15:47.552019 10552 net.cpp:148] Top shape: 10 4096 (40960)
I0803 21:15:47.552026 10552 net.cpp:156] Memory required for data: 67782200
I0803 21:15:47.552043 10552 layer_factory.hpp:77] Creating layer relu6
I0803 21:15:47.552062 10552 net.cpp:91] Creating Layer relu6
I0803 21:15:47.552069 10552 net.cpp:425] relu6 <- fc6
I0803 21:15:47.552079 10552 net.cpp:386] relu6 -> fc6 (in-place)
I0803 21:15:47.552433 10552 net.cpp:141] Setting up relu6
I0803 21:15:47.552445 10552 net.cpp:148] Top shape: 10 4096 (40960)
I0803 21:15:47.552450 10552 net.cpp:156] Memory required for data: 67946040
I0803 21:15:47.552455 10552 layer_factory.hpp:77] Creating layer drop6
I0803 21:15:47.552471 10552 net.cpp:91] Creating Layer drop6
I0803 21:15:47.552477 10552 net.cpp:425] drop6 <- fc6
I0803 21:15:47.552485 10552 net.cpp:386] drop6 -> fc6 (in-place)
I0803 21:15:47.552534 10552 net.cpp:141] Setting up drop6
I0803 21:15:47.552543 10552 net.cpp:148] Top shape: 10 4096 (40960)
I0803 21:15:47.552547 10552 net.cpp:156] Memory required for data: 68109880
I0803 21:15:47.552552 10552 layer_factory.hpp:77] Creating layer fc7
I0803 21:15:47.552567 10552 net.cpp:91] Creating Layer fc7
I0803 21:15:47.552572 10552 net.cpp:425] fc7 <- fc6
I0803 21:15:47.552578 10552 net.cpp:399] fc7 -> fc7
I0803 21:15:47.581320 10542 net.cpp:141] Setting up lstm2_x_transform
I0803 21:15:47.581367 10542 net.cpp:148] Top shape: 1 1 4000 (4000)
I0803 21:15:47.581372 10542 net.cpp:156] Memory required for data: 30020
I0803 21:15:47.581392 10542 layer_factory.hpp:77] Creating layer lstm2_W_xc_x_slice
I0803 21:15:47.581410 10542 net.cpp:91] Creating Layer lstm2_W_xc_x_slice
I0803 21:15:47.581418 10542 net.cpp:425] lstm2_W_xc_x_slice <- W_xc_x
I0803 21:15:47.581426 10542 net.cpp:399] lstm2_W_xc_x_slice -> W_xc_x_1
I0803 21:15:47.581470 10542 net.cpp:141] Setting up lstm2_W_xc_x_slice
I0803 21:15:47.581478 10542 net.cpp:148] Top shape: 1 1 4000 (4000)
I0803 21:15:47.581482 10542 net.cpp:156] Memory required for data: 46020
I0803 21:15:47.581487 10542 layer_factory.hpp:77] Creating layer lstm2_h_conted_0
I0803 21:15:47.581499 10542 net.cpp:91] Creating Layer lstm2_h_conted_0
I0803 21:15:47.581504 10542 net.cpp:425] lstm2_h_conted_0 <- h_0
I0803 21:15:47.581511 10542 net.cpp:425] lstm2_h_conted_0 <- cont_1_lstm2_cont_slice_0_split_0
I0803 21:15:47.581516 10542 net.cpp:399] lstm2_h_conted_0 -> h_conted_0
I0803 21:15:47.581606 10542 net.cpp:141] Setting up lstm2_h_conted_0
I0803 21:15:47.581615 10542 net.cpp:148] Top shape: 1 1 1000 (1000)
I0803 21:15:47.581619 10542 net.cpp:156] Memory required for data: 50020
I0803 21:15:47.581624 10542 layer_factory.hpp:77] Creating layer lstm2_transform_1
I0803 21:15:47.581637 10542 net.cpp:91] Creating Layer lstm2_transform_1
I0803 21:15:47.581642 10542 net.cpp:425] lstm2_transform_1 <- h_conted_0
I0803 21:15:47.581650 10542 net.cpp:399] lstm2_transform_1 -> W_hc_h_0
I0803 21:15:47.597506 10552 net.cpp:141] Setting up fc7
I0803 21:15:47.597576 10552 net.cpp:148] Top shape: 10 4096 (40960)
I0803 21:15:47.597589 10552 net.cpp:156] Memory required for data: 68273720
I0803 21:15:47.597604 10552 layer_factory.hpp:77] Creating layer relu7
I0803 21:15:47.597623 10552 net.cpp:91] Creating Layer relu7
I0803 21:15:47.597630 10552 net.cpp:425] relu7 <- fc7
I0803 21:15:47.597640 10552 net.cpp:386] relu7 -> fc7 (in-place)
I0803 21:15:47.598290 10552 net.cpp:141] Setting up relu7
I0803 21:15:47.598304 10552 net.cpp:148] Top shape: 10 4096 (40960)
I0803 21:15:47.598309 10552 net.cpp:156] Memory required for data: 68437560
I0803 21:15:47.598314 10552 layer_factory.hpp:77] Creating layer drop7
I0803 21:15:47.598335 10552 net.cpp:91] Creating Layer drop7
I0803 21:15:47.598340 10552 net.cpp:425] drop7 <- fc7
I0803 21:15:47.598347 10552 net.cpp:386] drop7 -> fc7 (in-place)
I0803 21:15:47.598392 10552 net.cpp:141] Setting up drop7
I0803 21:15:47.598402 10552 net.cpp:148] Top shape: 10 4096 (40960)
I0803 21:15:47.598405 10552 net.cpp:156] Memory required for data: 68601400
I0803 21:15:47.598410 10552 layer_factory.hpp:77] Creating layer fc8
I0803 21:15:47.598423 10552 net.cpp:91] Creating Layer fc8
I0803 21:15:47.598426 10552 net.cpp:425] fc8 <- fc7
I0803 21:15:47.598433 10552 net.cpp:399] fc8 -> fc8
I0803 21:15:47.611904 10552 net.cpp:141] Setting up fc8
I0803 21:15:47.611961 10552 net.cpp:148] Top shape: 10 1000 (10000)
I0803 21:15:47.611971 10552 net.cpp:156] Memory required for data: 68641400
I0803 21:15:47.611990 10552 layer_factory.hpp:77] Creating layer prob
I0803 21:15:47.612017 10552 net.cpp:91] Creating Layer prob
I0803 21:15:47.612025 10552 net.cpp:425] prob <- fc8
I0803 21:15:47.612038 10552 net.cpp:399] prob -> prob
I0803 21:15:47.612570 10552 net.cpp:141] Setting up prob
I0803 21:15:47.612581 10552 net.cpp:148] Top shape: 10 1000 (10000)
I0803 21:15:47.612586 10552 net.cpp:156] Memory required for data: 68681400
I0803 21:15:47.612592 10552 net.cpp:219] prob does not need backward computation.
I0803 21:15:47.612598 10552 net.cpp:219] fc8 does not need backward computation.
I0803 21:15:47.612604 10552 net.cpp:219] drop7 does not need backward computation.
I0803 21:15:47.612609 10552 net.cpp:219] relu7 does not need backward computation.
…
I0803 21:15:47.612686 10552 net.cpp:219] norm1 does not need backward computation.
I0803 21:15:47.612691 10552 net.cpp:219] pool1 does not need backward computation.
I0803 21:15:47.612696 10552 net.cpp:219] relu1 does not need backward computation.
I0803 21:15:47.612700 10552 net.cpp:219] conv1 does not need backward computation.
I0803 21:15:47.612705 10552 net.cpp:219] data does not need backward computation.
I0803 21:15:47.612709 10552 net.cpp:261] This network produces output prob
I0803 21:15:47.612728 10552 net.cpp:274] Network initialization done.
I0803 21:15:47.619869 10542 net.cpp:141] Setting up lstm2_transform_1
I0803 21:15:47.619913 10542 net.cpp:148] Top shape: 1 1 4000 (4000)
I0803 21:15:47.619920 10542 net.cpp:156] Memory required for data: 66020
I0803 21:15:47.619940 10542 layer_factory.hpp:77] Creating layer lstm2_gate_input_1
I0803 21:15:47.619966 10542 net.cpp:91] Creating Layer lstm2_gate_input_1
I0803 21:15:47.619972 10542 net.cpp:425] lstm2_gate_input_1 <- W_hc_h_0
I0803 21:15:47.619979 10542 net.cpp:425] lstm2_gate_input_1 <- W_xc_x_1
I0803 21:15:47.619989 10542 net.cpp:399] lstm2_gate_input_1 -> gate_input_1
I0803 21:15:47.620038 10542 net.cpp:141] Setting up lstm2_gate_input_1
I0803 21:15:47.620048 10542 net.cpp:148] Top shape: 1 1 4000 (4000)
I0803 21:15:47.620051 10542 net.cpp:156] Memory required for data: 82020
I0803 21:15:47.620056 10542 layer_factory.hpp:77] Creating layer lstm2_unit_1
I0803 21:15:47.620066 10542 net.cpp:91] Creating Layer lstm2_unit_1
I0803 21:15:47.620071 10542 net.cpp:425] lstm2_unit_1 <- c_0
I0803 21:15:47.620077 10542 net.cpp:425] lstm2_unit_1 <- gate_input_1
I0803 21:15:47.620082 10542 net.cpp:425] lstm2_unit_1 <- cont_1_lstm2_cont_slice_0_split_1
I0803 21:15:47.620090 10542 net.cpp:399] lstm2_unit_1 -> c_1
I0803 21:15:47.620097 10542 net.cpp:399] lstm2_unit_1 -> h_1
I0803 21:15:47.620163 10542 net.cpp:141] Setting up lstm2_unit_1
I0803 21:15:47.620172 10542 net.cpp:148] Top shape: 1 1 1000 (1000)
I0803 21:15:47.620178 10542 net.cpp:148] Top shape: 1 1 1000 (1000)
I0803 21:15:47.620182 10542 net.cpp:156] Memory required for data: 90020
I0803 21:15:47.620187 10542 layer_factory.hpp:77] Creating layer lstm2_
I0803 21:15:47.620194 10542 net.cpp:91] Creating Layer lstm2_
I0803 21:15:47.620198 10542 net.cpp:425] lstm2_ <- c_1
I0803 21:15:47.620208 10542 net.cpp:399] lstm2_ -> c_T
I0803 21:15:47.620236 10542 net.cpp:141] Setting up lstm2_
I0803 21:15:47.620246 10542 net.cpp:148] Top shape: 1 1 1000 (1000)
I0803 21:15:47.620251 10542 net.cpp:156] Memory required for data: 94020
I0803 21:15:47.620255 10542 layer_factory.hpp:77] Creating layer lstm2_h_concat
I0803 21:15:47.620265 10542 net.cpp:91] Creating Layer lstm2_h_concat
I0803 21:15:47.620270 10542 net.cpp:425] lstm2_h_concat <- h_1
I0803 21:15:47.620275 10542 net.cpp:399] lstm2_h_concat -> h
I0803 21:15:47.620311 10542 net.cpp:141] Setting up lstm2_h_concat
I0803 21:15:47.620319 10542 net.cpp:148] Top shape: 1 1 1000 (1000)
I0803 21:15:47.620324 10542 net.cpp:156] Memory required for data: 98020
I0803 21:15:47.620328 10542 layer_factory.hpp:77] Creating layer h_pseudoloss
I0803 21:15:47.620338 10542 net.cpp:91] Creating Layer h_pseudoloss
I0803 21:15:47.620343 10542 net.cpp:425] h_pseudoloss <- h
I0803 21:15:47.620349 10542 net.cpp:399] h_pseudoloss -> h_pseudoloss
I0803 21:15:47.620440 10542 net.cpp:141] Setting up h_pseudoloss
…
Java HotSpot(TM) 64-Bit Server VM warning: You have loaded library /tmp/cvld8685409518704790810/libopencv_java310.xine1.so which might have disabled stack guard. The VM will try to fix the stack guard now.
It's highly recommended that you fix the library with 'execstack -c <libfile>', or link it with '-z noexecstack'.
WARNING: Logging before InitGoogleLogging() is written to STDERR
I0803 21:16:03.321465 10698 net.cpp:49] Initializing net from parameters: 
name: "CaffeNet"
state {
  phase: TEST
}
layer {
  name: "data"
  type: "Input"
  top: "data"
  input_param {
    shape {
      dim: 10
      dim: 3
      dim: 227
      dim: 227
    }
  }
}
layer {
  name: "conv1"
  type: "Convolution"
  bottom: "data"
  top: "conv1"
  convolution_param {
    num_output: 96
    kernel_size: 11
    stride: 4
  }
}
layer {
  name: "relu1"
  type: "ReLU"
  bottom: "conv1"
  top: "conv1"
}
layer {
  name: "pool1"
  type: "Pooling"
  bottom: "conv1"
  top: "pool1"
  pooling_param {
    pool: MAX
    kernel_size: 3
    stride: 2
  }
}
layer {
  name: "norm1"
  type: "LRN"
  bottom: "pool1"
  top: "norm1"
  lrn_param {
    local_size: 5
    alpha: 0.0001
    beta: 0.75
  }
}
layer {
  name: "conv2"
  type: "Convolution"
  bottom: "norm1"
  top: "conv2"
  convolution_param {
    num_output: 256
    pad: 2
    kernel_size: 5
    group: 2
  }
}
layer {
  name: "relu2"
  type: "ReLU"
  bottom: "conv2"
  top: "conv2"
}
layer {
  name: "pool2"
  type: "Pooling"
  bottom: "conv2"
  top: "pool2"
  pooling_param {
    pool: MAX
    kernel_size: 3
    stride: 2
  }
}
layer {
  name: "norm2"
  type: "LRN"
  bottom: "pool2"
  top: "norm2"
  lrn_param {
    local_size: 5
    alpha: 0.0001
    beta: 0.75
  }
}
layer {
  name: "conv3"
  type: "Convolution"
  bottom: "norm2"
  top: "conv3"
  convolution_param {
    num_output: 384
    pad: 1
    kernel_size: 3
  }
}
layer {
  name: "relu3"
  type: "ReLU"
  bottom: "conv3"
  top: "conv3"
}
layer {
  name: "conv4"
  type: "Convolution"
  bottom: "conv3"
  top: "conv4"
  convolution_param {
    num_output: 384
    pad: 1
    kernel_size: 3
    group: 2
  }
}
layer {
  name: "relu4"
  type: "ReLU"
  bottom: "conv4"
  top: "conv4"
}
layer {
  name: "conv5"
  type: "Convolution"
  bottom: "conv4"
  top: "conv5"
  convolution_param {
    num_output: 256
    pad: 1
    kernel_size: 3
    group: 2
  }
}
layer {
  name: "relu5"
  type: "ReLU"
  bottom: "conv5"
  top: "conv5"
}
layer {
  name: "pool5"
  type: "Pooling"
  bottom: "conv5"
  top: "pool5"
  pooling_param {
    pool: MAX
    kernel_size: 3
    stride: 2
  }
}
layer {
  name: "fc6"
  type: "InnerProduct"
  bottom: "pool5"
  top: "fc6"
  inner_product_param {
    num_output: 4096
  }
}
layer {
  name: "relu6"
  type: "ReLU"
  bottom: "fc6"
  top: "fc6"
}
layer {
  name: "drop6"
  type: "Dropout"
  bottom: "fc6"
  top: "fc6"
  dropout_param {
    dropout_ratio: 0.5
  }
}
layer {
  name: "fc7"
  type: "InnerProduct"
  bottom: "fc6"
  top: "fc7"
  inner_product_param {
    num_output: 4096
  }
}
layer {
  name: "relu7"
  type: "ReLU"
  bottom: "fc7"
  top: "fc7"
}
layer {
  name: "drop7"
  type: "Dropout"
  bottom: "fc7"
  top: "fc7"
  dropout_param {
    dropout_ratio: 0.5
  }
}
layer {
  name: "fc8"
  type: "InnerProduct"
  bottom: "fc7"
  top: "fc8"
  inner_product_param {
    num_output: 1000
  }
}
layer {
  name: "prob"
  type: "Softmax"
  bottom: "fc8"
  top: "prob"
}
I0803 21:16:03.321687 10698 layer_factory.hpp:77] Creating layer data
I0803 21:16:03.321715 10698 net.cpp:91] Creating Layer data
I0803 21:16:03.321727 10698 net.cpp:399] data -> data
I0803 21:16:03.794754 10698 net.cpp:141] Setting up data
I0803 21:16:03.794909 10698 net.cpp:148] Top shape: 10 3 227 227 (1545870)
I0803 21:16:03.794921 10698 net.cpp:156] Memory required for data: 6183480
I0803 21:16:03.794948 10698 layer_factory.hpp:77] Creating layer conv1
I0803 21:16:03.794997 10698 net.cpp:91] Creating Layer conv1
I0803 21:16:03.795014 10698 net.cpp:425] conv1 <- data
I0803 21:16:03.795037 10698 net.cpp:399] conv1 -> conv1
I0803 21:16:03.920176 10688 upgrade_proto.cpp:66] Attempting to upgrade input file specified using deprecated input fields: /tmp/cvld8685409518704790810/s2vt.words_to_preds.prototxt
I0803 21:16:03.920240 10688 upgrade_proto.cpp:69] Successfully upgraded file specified using deprecated input fields.
W0803 21:16:03.920254 10688 upgrade_proto.cpp:71] Note that future Caffe releases will only support input layers and not input fields.
I0803 21:16:03.920680 10688 net.cpp:49] Initializing net from parameters: 
name: "s2vt:features_to_lstm"
state {
  phase: TEST
}
layer {
  name: "input"
  type: "Input"
  top: "frames_fc7"
  top: "cont_sentence"
  top: "input_sentence"
  top: "stage_indicator"
  input_param {
    shape {
      dim: 1
      dim: 4096
    }
    shape {
      dim: 1
      dim: 1
    }
    shape {
      dim: 1
      dim: 1
    }
    shape {
      dim: 1
      dim: 1
    }
  }
}
layer {
  name: "embed_encoder"
  type: "InnerProduct"
  bottom: "frames_fc7"
  top: "embedded_in_frames"
  param {
    lr_mult: 1
    decay_mult: 1
  }
  param {
    lr_mult: 2
    decay_mult: 0
  }
  inner_product_param {
    num_output: 500
    weight_filler {
      type: "xavier"
    }
    bias_filler {
      type: "constant"
      value: 0.2
    }
  }
}
layer {
  name: "reshape_frames"
  type: "Reshape"
  bottom: "embedded_in_frames"
  top: "embedded_input_frames"
  reshape_param {
    shape {
      dim: 1
      dim: 1
      dim: 500
    }
  }
}
layer {
  name: "reshape_stage_indicator"
  type: "Reshape"
  bottom: "stage_indicator"
  top: "reshaped_stage_indicator"
  reshape_param {
    shape {
      dim: 1
      dim: 1
      dim: 1
    }
  }
}
layer {
  name: "embedding"
  type: "Embed"
  bottom: "input_sentence"
  top: "embedded_input_sentence"
  param {
    lr_mult: 1
  }
  embed_param {
    num_output: 500
    input_dim: 46168
    bias_term: false
    weight_filler {
      type: "uniform"
      min: -0.08
      max: 0.08
    }
  }
}
layer {
  name: "lstm1"
  type: "LSTM"
  bottom: "embedded_input_frames"
  bottom: "cont_sentence"
  top: "lstm1"
  recurrent_param {
    num_output: 1000
    weight_filler {
      type: "uniform"
      min: -0.08
      max: 0.08
    }
    bias_filler {
      type: "constant"
      value: 0
    }
  }
}
layer {
  name: "concat"
  type: "Concat"
  bottom: "lstm1"
  bottom: "embedded_input_sentence"
  bottom: "reshaped_stage_indicator"
  top: "lstm1_video_sequence"
  concat_param {
    concat_dim: 2
  }
}
layer {
  name: "lstm2"
  type: "LSTM"
  bottom: "lstm1_video_sequence"
  bottom: "cont_sentence"
  top: "lstm2"
  recurrent_param {
    num_output: 1000
    weight_filler {
      type: "uniform"
      min: -0.08
      max: 0.08
    }
    bias_filler {
      type: "constant"
      value: 0
    }
  }
}
layer {
  name: "predict"
  type: "InnerProduct"
  bottom: "lstm2"
  top: "predict"
  param {
    lr_mult: 1
    decay_mult: 1
  }
  param {
    lr_mult: 2
    decay_mult: 0
  }
  inner_product_param {
    num_output: 46168
    weight_filler {
      type: "uniform"
      min: -0.08
      max: 0.08
    }
    bias_filler {
      type: "constant"
      value: 0
    }
    axis: 2
  }
}
layer {
  name: "probs"
  type: "Softmax"
  bottom: "predict"
  top: "probs"
  softmax_param {
    axis: 2
  }
}
I0803 21:16:03.920837 10688 layer_factory.hpp:77] Creating layer input
I0803 21:16:03.920862 10688 net.cpp:91] Creating Layer input
I0803 21:16:03.920878 10688 net.cpp:399] input -> frames_fc7
I0803 21:16:03.920908 10688 net.cpp:399] input -> cont_sentence
I0803 21:16:03.920931 10688 net.cpp:399] input -> input_sentence
I0803 21:16:03.920951 10688 net.cpp:399] input -> stage_indicator
I0803 21:16:03.921277 10688 net.cpp:141] Setting up input
I0803 21:16:03.921299 10688 net.cpp:148] Top shape: 1 4096 (4096)
I0803 21:16:03.921314 10688 net.cpp:148] Top shape: 1 1 (1)
I0803 21:16:03.921326 10688 net.cpp:148] Top shape: 1 1 (1)
I0803 21:16:03.921339 10688 net.cpp:148] Top shape: 1 1 (1)
I0803 21:16:03.921346 10688 net.cpp:156] Memory required for data: 16396
I0803 21:16:03.921357 10688 layer_factory.hpp:77] Creating layer cont_sentence_input_1_split
I0803 21:16:03.921385 10688 net.cpp:91] Creating Layer cont_sentence_input_1_split
I0803 21:16:03.921393 10688 net.cpp:425] cont_sentence_input_1_split <- cont_sentence
I0803 21:16:03.921421 10688 net.cpp:399] cont_sentence_input_1_split -> cont_sentence_input_1_split_0
I0803 21:16:03.921437 10688 net.cpp:399] cont_sentence_input_1_split -> cont_sentence_input_1_split_1
I0803 21:16:03.923580 10688 net.cpp:141] Setting up cont_sentence_input_1_split
I0803 21:16:03.923602 10688 net.cpp:148] Top shape: 1 1 (1)
I0803 21:16:03.923616 10688 net.cpp:148] Top shape: 1 1 (1)
I0803 21:16:03.923625 10688 net.cpp:156] Memory required for data: 16404
I0803 21:16:03.923635 10688 layer_factory.hpp:77] Creating layer embed_encoder
I0803 21:16:03.923661 10688 net.cpp:91] Creating Layer embed_encoder
I0803 21:16:03.923673 10688 net.cpp:425] embed_encoder <- frames_fc7
I0803 21:16:03.923692 10688 net.cpp:399] embed_encoder -> embedded_in_frames
I0803 21:16:03.954430 10688 net.cpp:141] Setting up embed_encoder
I0803 21:16:03.954488 10688 net.cpp:148] Top shape: 1 500 (500)
I0803 21:16:03.954498 10688 net.cpp:156] Memory required for data: 18404
I0803 21:16:03.954540 10688 layer_factory.hpp:77] Creating layer reshape_frames
I0803 21:16:03.954578 10688 net.cpp:91] Creating Layer reshape_frames
I0803 21:16:03.954591 10688 net.cpp:425] reshape_frames <- embedded_in_frames
I0803 21:16:03.954609 10688 net.cpp:399] reshape_frames -> embedded_input_frames
I0803 21:16:03.958416 10688 net.cpp:141] Setting up reshape_frames
I0803 21:16:03.958438 10688 net.cpp:148] Top shape: 1 1 500 (500)
I0803 21:16:03.958447 10688 net.cpp:156] Memory required for data: 20404
I0803 21:16:03.958456 10688 layer_factory.hpp:77] Creating layer reshape_stage_indicator
I0803 21:16:03.958474 10688 net.cpp:91] Creating Layer reshape_stage_indicator
I0803 21:16:03.958484 10688 net.cpp:425] reshape_stage_indicator <- stage_indicator
I0803 21:16:03.958499 10688 net.cpp:399] reshape_stage_indicator -> reshaped_stage_indicator
I0803 21:16:03.961635 10688 net.cpp:141] Setting up reshape_stage_indicator
I0803 21:16:03.961658 10688 net.cpp:148] Top shape: 1 1 1 (1)
I0803 21:16:03.961668 10688 net.cpp:156] Memory required for data: 20408
I0803 21:16:03.961676 10688 layer_factory.hpp:77] Creating layer embedding
I0803 21:16:03.961695 10688 net.cpp:91] Creating Layer embedding
I0803 21:16:03.961706 10688 net.cpp:425] embedding <- input_sentence
I0803 21:16:03.961722 10688 net.cpp:399] embedding -> embedded_input_sentence
I0803 21:16:04.061460 10698 net.cpp:141] Setting up conv1
I0803 21:16:04.061514 10698 net.cpp:148] Top shape: 10 96 55 55 (2904000)
I0803 21:16:04.061522 10698 net.cpp:156] Memory required for data: 17799480
I0803 21:16:04.061544 10698 layer_factory.hpp:77] Creating layer relu1
I0803 21:16:04.061573 10698 net.cpp:91] Creating Layer relu1
I0803 21:16:04.061581 10698 net.cpp:425] relu1 <- conv1
I0803 21:16:04.061591 10698 net.cpp:386] relu1 -> conv1 (in-place)
I0803 21:16:04.062018 10698 net.cpp:141] Setting up relu1
I0803 21:16:04.062032 10698 net.cpp:148] Top shape: 10 96 55 55 (2904000)
I0803 21:16:04.062038 10698 net.cpp:156] Memory required for data: 29415480
I0803 21:16:04.062044 10698 layer_factory.hpp:77] Creating layer pool1
I0803 21:16:04.062060 10698 net.cpp:91] Creating Layer pool1
I0803 21:16:04.062067 10698 net.cpp:425] pool1 <- conv1
I0803 21:16:04.062075 10698 net.cpp:399] pool1 -> pool1
I0803 21:16:04.062153 10698 net.cpp:141] Setting up pool1
I0803 21:16:04.062165 10698 net.cpp:148] Top shape: 10 96 27 27 (699840)
I0803 21:16:04.062170 10698 net.cpp:156] Memory required for data: 32214840
I0803 21:16:04.062175 10698 layer_factory.hpp:77] Creating layer norm1
I0803 21:16:04.062196 10698 net.cpp:91] Creating Layer norm1
I0803 21:16:04.062206 10698 net.cpp:425] norm1 <- pool1
I0803 21:16:04.062227 10698 net.cpp:399] norm1 -> norm1
I0803 21:16:04.062707 10698 net.cpp:141] Setting up norm1
I0803 21:16:04.062722 10698 net.cpp:148] Top shape: 10 96 27 27 (699840)
I0803 21:16:04.062727 10698 net.cpp:156] Memory required for data: 35014200
I0803 21:16:04.062734 10698 layer_factory.hpp:77] Creating layer conv2
I0803 21:16:04.062754 10698 net.cpp:91] Creating Layer conv2
I0803 21:16:04.062770 10698 net.cpp:425] conv2 <- norm1
I0803 21:16:04.062778 10698 net.cpp:399] conv2 -> conv2
I0803 21:16:04.066311 10698 net.cpp:141] Setting up conv2
I0803 21:16:04.066336 10698 net.cpp:148] Top shape: 10 256 27 27 (1866240)
I0803 21:16:04.066342 10698 net.cpp:156] Memory required for data: 42479160
I0803 21:16:04.066356 10698 layer_factory.hpp:77] Creating layer relu2
I0803 21:16:04.066366 10698 net.cpp:91] Creating Layer relu2
I0803 21:16:04.066372 10698 net.cpp:425] relu2 <- conv2
I0803 21:16:04.066380 10698 net.cpp:386] relu2 -> conv2 (in-place)
I0803 21:16:04.066833 10698 net.cpp:141] Setting up relu2
I0803 21:16:04.066848 10698 net.cpp:148] Top shape: 10 256 27 27 (1866240)
I0803 21:16:04.066854 10698 net.cpp:156] Memory required for data: 49944120
I0803 21:16:04.066859 10698 layer_factory.hpp:77] Creating layer pool2
I0803 21:16:04.066870 10698 net.cpp:91] Creating Layer pool2
I0803 21:16:04.066875 10698 net.cpp:425] pool2 <- conv2
I0803 21:16:04.066887 10698 net.cpp:399] pool2 -> pool2
I0803 21:16:04.066951 10698 net.cpp:141] Setting up pool2
I0803 21:16:04.066962 10698 net.cpp:148] Top shape: 10 256 13 13 (432640)
I0803 21:16:04.066965 10698 net.cpp:156] Memory required for data: 51674680
I0803 21:16:04.066972 10698 layer_factory.hpp:77] Creating layer norm2
I0803 21:16:04.066987 10698 net.cpp:91] Creating Layer norm2
I0803 21:16:04.066992 10698 net.cpp:425] norm2 <- pool2
I0803 21:16:04.067003 10698 net.cpp:399] norm2 -> norm2
I0803 21:16:04.067293 10698 net.cpp:141] Setting up norm2
I0803 21:16:04.067307 10698 net.cpp:148] Top shape: 10 256 13 13 (432640)
I0803 21:16:04.067312 10698 net.cpp:156] Memory required for data: 53405240
I0803 21:16:04.067317 10698 layer_factory.hpp:77] Creating layer conv3
I0803 21:16:04.067333 10698 net.cpp:91] Creating Layer conv3
I0803 21:16:04.067339 10698 net.cpp:425] conv3 <- norm2
I0803 21:16:04.067349 10698 net.cpp:399] conv3 -> conv3
I0803 21:16:04.071439 10698 net.cpp:141] Setting up conv3
I0803 21:16:04.071460 10698 net.cpp:148] Top shape: 10 384 13 13 (648960)
I0803 21:16:04.071467 10698 net.cpp:156] Memory required for data: 56001080
I0803 21:16:04.071481 10698 layer_factory.hpp:77] Creating layer relu3
I0803 21:16:04.071496 10698 net.cpp:91] Creating Layer relu3
I0803 21:16:04.071502 10698 net.cpp:425] relu3 <- conv3
I0803 21:16:04.071511 10698 net.cpp:386] relu3 -> conv3 (in-place)
I0803 21:16:04.071944 10698 net.cpp:141] Setting up relu3
I0803 21:16:04.071961 10698 net.cpp:148] Top shape: 10 384 13 13 (648960)
I0803 21:16:04.071966 10698 net.cpp:156] Memory required for data: 58596920
I0803 21:16:04.071972 10698 layer_factory.hpp:77] Creating layer conv4
I0803 21:16:04.071991 10698 net.cpp:91] Creating Layer conv4
I0803 21:16:04.071997 10698 net.cpp:425] conv4 <- conv3
I0803 21:16:04.072006 10698 net.cpp:399] conv4 -> conv4
I0803 21:16:04.076364 10698 net.cpp:141] Setting up conv4
I0803 21:16:04.076386 10698 net.cpp:148] Top shape: 10 384 13 13 (648960)
I0803 21:16:04.076392 10698 net.cpp:156] Memory required for data: 61192760
I0803 21:16:04.076403 10698 layer_factory.hpp:77] Creating layer relu4
I0803 21:16:04.076418 10698 net.cpp:91] Creating Layer relu4
I0803 21:16:04.076426 10698 net.cpp:425] relu4 <- conv4
I0803 21:16:04.076433 10698 net.cpp:386] relu4 -> conv4 (in-place)
I0803 21:16:04.076858 10698 net.cpp:141] Setting up relu4
I0803 21:16:04.076871 10698 net.cpp:148] Top shape: 10 384 13 13 (648960)
I0803 21:16:04.076877 10698 net.cpp:156] Memory required for data: 63788600
I0803 21:16:04.076882 10698 layer_factory.hpp:77] Creating layer conv5
I0803 21:16:04.076902 10698 net.cpp:91] Creating Layer conv5
I0803 21:16:04.076908 10698 net.cpp:425] conv5 <- conv4
I0803 21:16:04.076917 10698 net.cpp:399] conv5 -> conv5
I0803 21:16:04.081004 10698 net.cpp:141] Setting up conv5
I0803 21:16:04.081024 10698 net.cpp:148] Top shape: 10 256 13 13 (432640)
I0803 21:16:04.081030 10698 net.cpp:156] Memory required for data: 65519160
I0803 21:16:04.081050 10698 layer_factory.hpp:77] Creating layer relu5
I0803 21:16:04.081060 10698 net.cpp:91] Creating Layer relu5
I0803 21:16:04.081066 10698 net.cpp:425] relu5 <- conv5
I0803 21:16:04.081074 10698 net.cpp:386] relu5 -> conv5 (in-place)
I0803 21:16:04.081528 10698 net.cpp:141] Setting up relu5
I0803 21:16:04.081543 10698 net.cpp:148] Top shape: 10 256 13 13 (432640)
I0803 21:16:04.081552 10698 net.cpp:156] Memory required for data: 67249720
I0803 21:16:04.081558 10698 layer_factory.hpp:77] Creating layer pool5
I0803 21:16:04.081569 10698 net.cpp:91] Creating Layer pool5
I0803 21:16:04.081574 10698 net.cpp:425] pool5 <- conv5
I0803 21:16:04.081583 10698 net.cpp:399] pool5 -> pool5
I0803 21:16:04.081655 10698 net.cpp:141] Setting up pool5
I0803 21:16:04.081671 10698 net.cpp:148] Top shape: 10 256 6 6 (92160)
I0803 21:16:04.081681 10698 net.cpp:156] Memory required for data: 67618360
I0803 21:16:04.081691 10698 layer_factory.hpp:77] Creating layer fc6
I0803 21:16:04.081713 10698 net.cpp:91] Creating Layer fc6
I0803 21:16:04.081720 10698 net.cpp:425] fc6 <- pool5
I0803 21:16:04.081728 10698 net.cpp:399] fc6 -> fc6
I0803 21:16:04.201184 10698 net.cpp:141] Setting up fc6
I0803 21:16:04.201270 10698 net.cpp:148] Top shape: 10 4096 (40960)
I0803 21:16:04.201280 10698 net.cpp:156] Memory required for data: 67782200
I0803 21:16:04.201320 10698 layer_factory.hpp:77] Creating layer relu6
I0803 21:16:04.201342 10698 net.cpp:91] Creating Layer relu6
I0803 21:16:04.201350 10698 net.cpp:425] relu6 <- fc6
I0803 21:16:04.201360 10698 net.cpp:386] relu6 -> fc6 (in-place)
I0803 21:16:04.202555 10698 net.cpp:141] Setting up relu6
I0803 21:16:04.202574 10698 net.cpp:148] Top shape: 10 4096 (40960)
I0803 21:16:04.202579 10698 net.cpp:156] Memory required for data: 67946040
I0803 21:16:04.202585 10698 layer_factory.hpp:77] Creating layer drop6
I0803 21:16:04.202610 10698 net.cpp:91] Creating Layer drop6
I0803 21:16:04.202616 10698 net.cpp:425] drop6 <- fc6
I0803 21:16:04.202627 10698 net.cpp:386] drop6 -> fc6 (in-place)
I0803 21:16:04.202702 10698 net.cpp:141] Setting up drop6
I0803 21:16:04.202713 10698 net.cpp:148] Top shape: 10 4096 (40960)
I0803 21:16:04.202718 10698 net.cpp:156] Memory required for data: 68109880
I0803 21:16:04.202724 10698 layer_factory.hpp:77] Creating layer fc7
I0803 21:16:04.202744 10698 net.cpp:91] Creating Layer fc7
I0803 21:16:04.202750 10698 net.cpp:425] fc7 <- fc6
I0803 21:16:04.202759 10698 net.cpp:399] fc7 -> fc7
I0803 21:16:04.231956 10688 net.cpp:141] Setting up embedding
I0803 21:16:04.232007 10688 net.cpp:148] Top shape: 1 1 500 (500)
I0803 21:16:04.232012 10688 net.cpp:156] Memory required for data: 22408
I0803 21:16:04.232033 10688 layer_factory.hpp:77] Creating layer lstm1
I0803 21:16:04.232131 10688 net.cpp:91] Creating Layer lstm1
I0803 21:16:04.232167 10688 net.cpp:425] lstm1 <- embedded_input_frames
I0803 21:16:04.232180 10688 net.cpp:425] lstm1 <- cont_sentence_input_1_split_0
I0803 21:16:04.232190 10688 net.cpp:399] lstm1 -> lstm1
I0803 21:16:04.232234 10688 recurrent_layer.cpp:20] Initializing recurrent layer: assuming input batch contains 1 timesteps of 1 independent streams.
I0803 21:16:04.232627 10688 net.cpp:49] Initializing net from parameters: 
layer {
  name: "lstm1_"
  type: "Input"
  top: "x"
  top: "cont"
  input_param {
    shape {
      dim: 1
      dim: 1
      dim: 500
    }
    shape {
      dim: 1
      dim: 1
    }
  }
}
layer {
  name: "lstm1_"
  type: "Input"
  top: "c_0"
  top: "h_0"
  input_param {
    shape {
      dim: 1
      dim: 1
      dim: 1000
    }
    shape {
      dim: 1
      dim: 1
      dim: 1000
    }
  }
}
layer {
  name: "lstm1_cont_slice"
  type: "Slice"
  bottom: "cont"
  top: "cont_1"
  slice_param {
    axis: 0
  }
}
layer {
  name: "lstm1_x_transform"
  type: "InnerProduct"
  bottom: "x"
  top: "W_xc_x"
  param {
    name: "W_xc"
  }
  param {
    name: "b_c"
  }
  propagate_down: true
  inner_product_param {
    num_output: 4000
    bias_term: true
    weight_filler {
      type: "uniform"
      min: -0.08
      max: 0.08
    }
    bias_filler {
      type: "constant"
      value: 0
    }
    axis: 2
  }
}
layer {
  name: "lstm1_W_xc_x_slice"
  type: "Slice"
  bottom: "W_xc_x"
  top: "W_xc_x_1"
  slice_param {
    axis: 0
  }
}
layer {
  name: "lstm1_h_conted_0"
  type: "Scale"
  bottom: "h_0"
  bottom: "cont_1"
  top: "h_conted_0"
  scale_param {
    axis: 0
  }
}
layer {
  name: "lstm1_transform_1"
  type: "InnerProduct"
  bottom: "h_conted_0"
  top: "W_hc_h_0"
  param {
    name: "W_hc"
  }
  inner_product_param {
    num_output: 4000
    bias_term: false
    weight_filler {
      type: "uniform"
      min: -0.08
      max: 0.08
    }
    axis: 2
  }
}
layer {
  name: "lstm1_gate_input_1"
  type: "Eltwise"
  bottom: "W_hc_h_0"
  bottom: "W_xc_x_1"
  top: "gate_input_1"
  eltwise_param {
    operation: SUM
  }
}
layer {
  name: "lstm1_unit_1"
  type: "LSTMUnit"
  bottom: "c_0"
  bottom: "gate_input_1"
  bottom: "cont_1"
  top: "c_1"
  top: "h_1"
}
layer {
  name: "lstm1_"
  type: "Split"
  bottom: "c_1"
  top: "c_T"
}
layer {
  name: "lstm1_h_concat"
  type: "Concat"
  bottom: "h_1"
  top: "h"
  concat_param {
    axis: 0
  }
}
layer {
  name: "h_pseudoloss"
  type: "Reduction"
  bottom: "h"
  top: "h_pseudoloss"
  loss_weight: 1
}
I0803 21:16:04.232723 10688 layer_factory.hpp:77] Creating layer lstm1_
I0803 21:16:04.232738 10688 net.cpp:91] Creating Layer lstm1_
I0803 21:16:04.232744 10688 net.cpp:399] lstm1_ -> x
I0803 21:16:04.232756 10688 net.cpp:399] lstm1_ -> cont
I0803 21:16:04.232873 10688 net.cpp:141] Setting up lstm1_
I0803 21:16:04.232888 10688 net.cpp:148] Top shape: 1 1 500 (500)
I0803 21:16:04.232895 10688 net.cpp:148] Top shape: 1 1 (1)
I0803 21:16:04.232899 10688 net.cpp:156] Memory required for data: 2004
I0803 21:16:04.232904 10688 layer_factory.hpp:77] Creating layer lstm1_
I0803 21:16:04.232913 10688 net.cpp:91] Creating Layer lstm1_
I0803 21:16:04.232919 10688 net.cpp:399] lstm1_ -> c_0
I0803 21:16:04.232928 10688 net.cpp:399] lstm1_ -> h_0
I0803 21:16:04.232985 10688 net.cpp:141] Setting up lstm1_
I0803 21:16:04.232995 10688 net.cpp:148] Top shape: 1 1 1000 (1000)
I0803 21:16:04.233000 10688 net.cpp:148] Top shape: 1 1 1000 (1000)
I0803 21:16:04.233005 10688 net.cpp:156] Memory required for data: 10004
I0803 21:16:04.233009 10688 layer_factory.hpp:77] Creating layer lstm1_cont_slice
I0803 21:16:04.233017 10688 net.cpp:91] Creating Layer lstm1_cont_slice
I0803 21:16:04.233022 10688 net.cpp:425] lstm1_cont_slice <- cont
I0803 21:16:04.233031 10688 net.cpp:399] lstm1_cont_slice -> cont_1
I0803 21:16:04.233072 10688 net.cpp:141] Setting up lstm1_cont_slice
I0803 21:16:04.233081 10688 net.cpp:148] Top shape: 1 1 (1)
I0803 21:16:04.233085 10688 net.cpp:156] Memory required for data: 10008
I0803 21:16:04.233089 10688 layer_factory.hpp:77] Creating layer cont_1_lstm1_cont_slice_0_split
I0803 21:16:04.233098 10688 net.cpp:91] Creating Layer cont_1_lstm1_cont_slice_0_split
I0803 21:16:04.233103 10688 net.cpp:425] cont_1_lstm1_cont_slice_0_split <- cont_1
I0803 21:16:04.233108 10688 net.cpp:399] cont_1_lstm1_cont_slice_0_split -> cont_1_lstm1_cont_slice_0_split_0
I0803 21:16:04.233119 10688 net.cpp:399] cont_1_lstm1_cont_slice_0_split -> cont_1_lstm1_cont_slice_0_split_1
I0803 21:16:04.233166 10688 net.cpp:141] Setting up cont_1_lstm1_cont_slice_0_split
I0803 21:16:04.233175 10688 net.cpp:148] Top shape: 1 1 (1)
I0803 21:16:04.233180 10688 net.cpp:148] Top shape: 1 1 (1)
I0803 21:16:04.233184 10688 net.cpp:156] Memory required for data: 10016
I0803 21:16:04.233189 10688 layer_factory.hpp:77] Creating layer lstm1_x_transform
I0803 21:16:04.233201 10688 net.cpp:91] Creating Layer lstm1_x_transform
I0803 21:16:04.233206 10688 net.cpp:425] lstm1_x_transform <- x
I0803 21:16:04.233214 10688 net.cpp:399] lstm1_x_transform -> W_xc_x
I0803 21:16:04.249991 10698 net.cpp:141] Setting up fc7
I0803 21:16:04.250044 10698 net.cpp:148] Top shape: 10 4096 (40960)
I0803 21:16:04.250051 10698 net.cpp:156] Memory required for data: 68273720
I0803 21:16:04.250066 10698 layer_factory.hpp:77] Creating layer relu7
I0803 21:16:04.250083 10698 net.cpp:91] Creating Layer relu7
I0803 21:16:04.250090 10698 net.cpp:425] relu7 <- fc7
I0803 21:16:04.250100 10698 net.cpp:386] relu7 -> fc7 (in-place)
I0803 21:16:04.250756 10698 net.cpp:141] Setting up relu7
I0803 21:16:04.250772 10698 net.cpp:148] Top shape: 10 4096 (40960)
I0803 21:16:04.250777 10698 net.cpp:156] Memory required for data: 68437560
I0803 21:16:04.250783 10698 layer_factory.hpp:77] Creating layer drop7
I0803 21:16:04.250793 10698 net.cpp:91] Creating Layer drop7
I0803 21:16:04.250798 10698 net.cpp:425] drop7 <- fc7
I0803 21:16:04.250805 10698 net.cpp:386] drop7 -> fc7 (in-place)
I0803 21:16:04.250847 10698 net.cpp:141] Setting up drop7
I0803 21:16:04.250856 10698 net.cpp:148] Top shape: 10 4096 (40960)
I0803 21:16:04.250860 10698 net.cpp:156] Memory required for data: 68601400
I0803 21:16:04.250865 10698 layer_factory.hpp:77] Creating layer fc8
I0803 21:16:04.250877 10698 net.cpp:91] Creating Layer fc8
I0803 21:16:04.250882 10698 net.cpp:425] fc8 <- fc7
I0803 21:16:04.250890 10698 net.cpp:399] fc8 -> fc8
I0803 21:16:04.258472 10688 net.cpp:141] Setting up lstm1_x_transform
I0803 21:16:04.258530 10688 net.cpp:148] Top shape: 1 1 4000 (4000)
I0803 21:16:04.258536 10688 net.cpp:156] Memory required for data: 26016
I0803 21:16:04.258561 10688 layer_factory.hpp:77] Creating layer lstm1_W_xc_x_slice
I0803 21:16:04.258579 10688 net.cpp:91] Creating Layer lstm1_W_xc_x_slice
I0803 21:16:04.258586 10688 net.cpp:425] lstm1_W_xc_x_slice <- W_xc_x
I0803 21:16:04.258599 10688 net.cpp:399] lstm1_W_xc_x_slice -> W_xc_x_1
I0803 21:16:04.258646 10688 net.cpp:141] Setting up lstm1_W_xc_x_slice
I0803 21:16:04.258656 10688 net.cpp:148] Top shape: 1 1 4000 (4000)
I0803 21:16:04.258661 10688 net.cpp:156] Memory required for data: 42016
I0803 21:16:04.258664 10688 layer_factory.hpp:77] Creating layer lstm1_h_conted_0
I0803 21:16:04.258676 10688 net.cpp:91] Creating Layer lstm1_h_conted_0
I0803 21:16:04.258682 10688 net.cpp:425] lstm1_h_conted_0 <- h_0
I0803 21:16:04.258687 10688 net.cpp:425] lstm1_h_conted_0 <- cont_1_lstm1_cont_slice_0_split_0
I0803 21:16:04.258694 10688 net.cpp:399] lstm1_h_conted_0 -> h_conted_0
I0803 21:16:04.258796 10688 net.cpp:141] Setting up lstm1_h_conted_0
I0803 21:16:04.258807 10688 net.cpp:148] Top shape: 1 1 1000 (1000)
I0803 21:16:04.258811 10688 net.cpp:156] Memory required for data: 46016
I0803 21:16:04.258816 10688 layer_factory.hpp:77] Creating layer lstm1_transform_1
I0803 21:16:04.258829 10688 net.cpp:91] Creating Layer lstm1_transform_1
I0803 21:16:04.258834 10688 net.cpp:425] lstm1_transform_1 <- h_conted_0
I0803 21:16:04.258846 10688 net.cpp:399] lstm1_transform_1 -> W_hc_h_0
I0803 21:16:04.266484 10698 net.cpp:141] Setting up fc8
I0803 21:16:04.266556 10698 net.cpp:148] Top shape: 10 1000 (10000)
I0803 21:16:04.266562 10698 net.cpp:156] Memory required for data: 68641400
I0803 21:16:04.266579 10698 layer_factory.hpp:77] Creating layer prob
I0803 21:16:04.266603 10698 net.cpp:91] Creating Layer prob
I0803 21:16:04.266611 10698 net.cpp:425] prob <- fc8
I0803 21:16:04.266623 10698 net.cpp:399] prob -> prob
I0803 21:16:04.267043 10698 net.cpp:141] Setting up prob
I0803 21:16:04.267058 10698 net.cpp:148] Top shape: 10 1000 (10000)
I0803 21:16:04.267063 10698 net.cpp:156] Memory required for data: 68681400
I0803 21:16:04.267068 10698 net.cpp:219] prob does not need backward computation.
I0803 21:16:04.267074 10698 net.cpp:219] fc8 does not need backward computation.
I0803 21:16:04.267078 10698 net.cpp:219] drop7 does not need backward computation.
I0803 21:16:04.267083 10698 net.cpp:219] relu7 does not need backward computation.
…
I0803 21:16:04.299311 10688 net.cpp:219] lstm1_ does not need backward computation.
I0803 21:16:04.299315 10688 net.cpp:261] This network produces output c_T
I0803 21:16:04.299319 10688 net.cpp:261] This network produces output h_pseudoloss
I0803 21:16:04.299336 10688 net.cpp:274] Network initialization done.
I0803 21:16:04.299391 10688 recurrent_layer.cpp:150] Adding parameter 0: W_xc
I0803 21:16:04.299397 10688 recurrent_layer.cpp:150] Adding parameter 1: b_c
I0803 21:16:04.299401 10688 recurrent_layer.cpp:150] Adding parameter 2: W_hc
I0803 21:16:04.299509 10688 net.cpp:141] Setting up lstm1
I0803 21:16:04.299520 10688 net.cpp:148] Top shape: 1 1 1000 (1000)
I0803 21:16:04.299525 10688 net.cpp:156] Memory required for data: 26408
I0803 21:16:04.299537 10688 layer_factory.hpp:77] Creating layer concat
I0803 21:16:04.299546 10688 net.cpp:91] Creating Layer concat
I0803 21:16:04.299552 10688 net.cpp:425] concat <- lstm1
I0803 21:16:04.299559 10688 net.cpp:425] concat <- embedded_input_sentence
I0803 21:16:04.299564 10688 net.cpp:425] concat <- reshaped_stage_indicator
I0803 21:16:04.299571 10688 net.cpp:399] concat -> lstm1_video_sequence
I0803 21:16:04.299604 10688 net.cpp:141] Setting up concat
I0803 21:16:04.299613 10688 net.cpp:148] Top shape: 1 1 1501 (1501)
I0803 21:16:04.299618 10688 net.cpp:156] Memory required for data: 32412
I0803 21:16:04.299623 10688 layer_factory.hpp:77] Creating layer lstm2
I0803 21:16:04.299635 10688 net.cpp:91] Creating Layer lstm2
I0803 21:16:04.299640 10688 net.cpp:425] lstm2 <- lstm1_video_sequence
I0803 21:16:04.299646 10688 net.cpp:425] lstm2 <- cont_sentence_input_1_split_1
I0803 21:16:04.299654 10688 net.cpp:399] lstm2 -> lstm2
I0803 21:16:04.299665 10688 recurrent_layer.cpp:20] Initializing recurrent layer: assuming input batch contains 1 timesteps of 1 independent streams.
I0803 21:16:04.299919 10688 net.cpp:49] Initializing net from parameters: 
layer {
  name: "lstm2_"
  type: "Input"
  top: "x"
  top: "cont"
  input_param {
    shape {
      dim: 1
      dim: 1
      dim: 1501
    }
    shape {
      dim: 1
      dim: 1
    }
  }
}
layer {
  name: "lstm2_"
  type: "Input"
  top: "c_0"
  top: "h_0"
  input_param {
    shape {
      dim: 1
      dim: 1
      dim: 1000
    }
    shape {
      dim: 1
      dim: 1
      dim: 1000
    }
  }
}
layer {
  name: "lstm2_cont_slice"
  type: "Slice"
  bottom: "cont"
  top: "cont_1"
  slice_param {
    axis: 0
  }
}
layer {
  name: "lstm2_x_transform"
  type: "InnerProduct"
  bottom: "x"
  top: "W_xc_x"
  param {
    name: "W_xc"
  }
  param {
    name: "b_c"
  }
  propagate_down: true
  inner_product_param {
    num_output: 4000
    bias_term: true
    weight_filler {
      type: "uniform"
      min: -0.08
      max: 0.08
    }
    bias_filler {
      type: "constant"
      value: 0
    }
    axis: 2
  }
}
layer {
  name: "lstm2_W_xc_x_slice"
  type: "Slice"
  bottom: "W_xc_x"
  top: "W_xc_x_1"
  slice_param {
    axis: 0
  }
}
layer {
  name: "lstm2_h_conted_0"
  type: "Scale"
  bottom: "h_0"
  bottom: "cont_1"
  top: "h_conted_0"
  scale_param {
    axis: 0
  }
}
layer {
  name: "lstm2_transform_1"
  type: "InnerProduct"
  bottom: "h_conted_0"
  top: "W_hc_h_0"
  param {
    name: "W_hc"
  }
  inner_product_param {
    num_output: 4000
    bias_term: false
    weight_filler {
      type: "uniform"
      min: -0.08
      max: 0.08
    }
    axis: 2
  }
}
layer {
  name: "lstm2_gate_input_1"
  type: "Eltwise"
  bottom: "W_hc_h_0"
  bottom: "W_xc_x_1"
  top: "gate_input_1"
  eltwise_param {
    operation: SUM
  }
}
layer {
  name: "lstm2_unit_1"
  type: "LSTMUnit"
  bottom: "c_0"
  bottom: "gate_input_1"
  bottom: "cont_1"
  top: "c_1"
  top: "h_1"
}
layer {
  name: "lstm2_"
  type: "Split"
  bottom: "c_1"
  top: "c_T"
}
layer {
  name: "lstm2_h_concat"
  type: "Concat"
  bottom: "h_1"
  top: "h"
  concat_param {
    axis: 0
  }
}
layer {
  name: "h_pseudoloss"
  type: "Reduction"
  bottom: "h"
  top: "h_pseudoloss"
  loss_weight: 1
}
I0803 21:16:04.300007 10688 layer_factory.hpp:77] Creating layer lstm2_
I0803 21:16:04.300019 10688 net.cpp:91] Creating Layer lstm2_
I0803 21:16:04.300025 10688 net.cpp:399] lstm2_ -> x
I0803 21:16:04.300036 10688 net.cpp:399] lstm2_ -> cont
I0803 21:16:04.300091 10688 net.cpp:141] Setting up lstm2_
I0803 21:16:04.300099 10688 net.cpp:148] Top shape: 1 1 1501 (1501)
I0803 21:16:04.300106 10688 net.cpp:148] Top shape: 1 1 (1)
I0803 21:16:04.300109 10688 net.cpp:156] Memory required for data: 6008
I0803 21:16:04.300114 10688 layer_factory.hpp:77] Creating layer lstm2_
I0803 21:16:04.300122 10688 net.cpp:91] Creating Layer lstm2_
I0803 21:16:04.300128 10688 net.cpp:399] lstm2_ -> c_0
I0803 21:16:04.300137 10688 net.cpp:399] lstm2_ -> h_0
I0803 21:16:04.300186 10688 net.cpp:141] Setting up lstm2_
I0803 21:16:04.300196 10688 net.cpp:148] Top shape: 1 1 1000 (1000)
I0803 21:16:04.300201 10688 net.cpp:148] Top shape: 1 1 1000 (1000)
I0803 21:16:04.300205 10688 net.cpp:156] Memory required for data: 14008
I0803 21:16:04.300209 10688 layer_factory.hpp:77] Creating layer lstm2_cont_slice
I0803 21:16:04.300218 10688 net.cpp:91] Creating Layer lstm2_cont_slice
I0803 21:16:04.300222 10688 net.cpp:425] lstm2_cont_slice <- cont
I0803 21:16:04.300231 10688 net.cpp:399] lstm2_cont_slice -> cont_1
I0803 21:16:04.300264 10688 net.cpp:141] Setting up lstm2_cont_slice
I0803 21:16:04.300273 10688 net.cpp:148] Top shape: 1 1 (1)
I0803 21:16:04.300277 10688 net.cpp:156] Memory required for data: 14012
I0803 21:16:04.300282 10688 layer_factory.hpp:77] Creating layer cont_1_lstm2_cont_slice_0_split
I0803 21:16:04.300288 10688 net.cpp:91] Creating Layer cont_1_lstm2_cont_slice_0_split
I0803 21:16:04.300293 10688 net.cpp:425] cont_1_lstm2_cont_slice_0_split <- cont_1
I0803 21:16:04.300299 10688 net.cpp:399] cont_1_lstm2_cont_slice_0_split -> cont_1_lstm2_cont_slice_0_split_0
I0803 21:16:04.300310 10688 net.cpp:399] cont_1_lstm2_cont_slice_0_split -> cont_1_lstm2_cont_slice_0_split_1
I0803 21:16:04.300369 10688 net.cpp:141] Setting up cont_1_lstm2_cont_slice_0_split
I0803 21:16:04.300380 10688 net.cpp:148] Top shape: 1 1 (1)
I0803 21:16:04.300386 10688 net.cpp:148] Top shape: 1 1 (1)
I0803 21:16:04.300390 10688 net.cpp:156] Memory required for data: 14020
I0803 21:16:04.300395 10688 layer_factory.hpp:77] Creating layer lstm2_x_transform
I0803 21:16:04.300407 10688 net.cpp:91] Creating Layer lstm2_x_transform
I0803 21:16:04.300412 10688 net.cpp:425] lstm2_x_transform <- x
I0803 21:16:04.300420 10688 net.cpp:399] lstm2_x_transform -> W_xc_x
I0803 21:16:04.356663 10688 net.cpp:141] Setting up lstm2_x_transform
I0803 21:16:04.356737 10688 net.cpp:148] Top shape: 1 1 4000 (4000)
I0803 21:16:04.356745 10688 net.cpp:156] Memory required for data: 30020
I0803 21:16:04.356770 10688 layer_factory.hpp:77] Creating layer lstm2_W_xc_x_slice
I0803 21:16:04.356792 10688 net.cpp:91] Creating Layer lstm2_W_xc_x_slice
I0803 21:16:04.356801 10688 net.cpp:425] lstm2_W_xc_x_slice <- W_xc_x
I0803 21:16:04.356811 10688 net.cpp:399] lstm2_W_xc_x_slice -> W_xc_x_1
I0803 21:16:04.356858 10688 net.cpp:141] Setting up lstm2_W_xc_x_slice
I0803 21:16:04.356868 10688 net.cpp:148] Top shape: 1 1 4000 (4000)
I0803 21:16:04.356873 10688 net.cpp:156] Memory required for data: 46020
I0803 21:16:04.356878 10688 layer_factory.hpp:77] Creating layer lstm2_h_conted_0
I0803 21:16:04.356889 10688 net.cpp:91] Creating Layer lstm2_h_conted_0
I0803 21:16:04.356894 10688 net.cpp:425] lstm2_h_conted_0 <- h_0
I0803 21:16:04.356901 10688 net.cpp:425] lstm2_h_conted_0 <- cont_1_lstm2_cont_slice_0_split_0
I0803 21:16:04.356911 10688 net.cpp:399] lstm2_h_conted_0 -> h_conted_0
I0803 21:16:04.357005 10688 net.cpp:141] Setting up lstm2_h_conted_0
I0803 21:16:04.357017 10688 net.cpp:148] Top shape: 1 1 1000 (1000)
I0803 21:16:04.357020 10688 net.cpp:156] Memory required for data: 50020
I0803 21:16:04.357025 10688 layer_factory.hpp:77] Creating layer lstm2_transform_1
I0803 21:16:04.357040 10688 net.cpp:91] Creating Layer lstm2_transform_1
I0803 21:16:04.357045 10688 net.cpp:425] lstm2_transform_1 <- h_conted_0
I0803 21:16:04.357053 10688 net.cpp:399] lstm2_transform_1 -> W_hc_h_0
I0803 21:16:04.394327 10688 net.cpp:141] Setting up lstm2_transform_1
I0803 21:16:04.394397 10688 net.cpp:148] Top shape: 1 1 4000 (4000)
I0803 21:16:04.394403 10688 net.cpp:156] Memory required for data: 66020
I0803 21:16:04.394428 10688 layer_factory.hpp:77] Creating layer lstm2_gate_input_1
I0803 21:16:04.394454 10688 net.cpp:91] Creating Layer lstm2_gate_input_1
I0803 21:16:04.394461 10688 net.cpp:425] lstm2_gate_input_1 <- W_hc_h_0
I0803 21:16:04.394470 10688 net.cpp:425] lstm2_gate_input_1 <- W_xc_x_1
I0803 21:16:04.394480 10688 net.cpp:399] lstm2_gate_input_1 -> gate_input_1
I0803 21:16:04.394531 10688 net.cpp:141] Setting up lstm2_gate_input_1
I0803 21:16:04.394541 10688 net.cpp:148] Top shape: 1 1 4000 (4000)
I0803 21:16:04.394544 10688 net.cpp:156] Memory required for data: 82020
I0803 21:16:04.394549 10688 layer_factory.hpp:77] Creating layer lstm2_unit_1
I0803 21:16:04.394561 10688 net.cpp:91] Creating Layer lstm2_unit_1
I0803 21:16:04.394567 10688 net.cpp:425] lstm2_unit_1 <- c_0
I0803 21:16:04.394572 10688 net.cpp:425] lstm2_unit_1 <- gate_input_1
I0803 21:16:04.394578 10688 net.cpp:425] lstm2_unit_1 <- cont_1_lstm2_cont_slice_0_split_1
I0803 21:16:04.394587 10688 net.cpp:399] lstm2_unit_1 -> c_1
I0803 21:16:04.394598 10688 net.cpp:399] lstm2_unit_1 -> h_1
I0803 21:16:04.394667 10688 net.cpp:141] Setting up lstm2_unit_1
I0803 21:16:04.394677 10688 net.cpp:148] Top shape: 1 1 1000 (1000)
I0803 21:16:04.394683 10688 net.cpp:148] Top shape: 1 1 1000 (1000)
I0803 21:16:04.394687 10688 net.cpp:156] Memory required for data: 90020
I0803 21:16:04.394692 10688 layer_factory.hpp:77] Creating layer lstm2_
I0803 21:16:04.394701 10688 net.cpp:91] Creating Layer lstm2_
I0803 21:16:04.394706 10688 net.cpp:425] lstm2_ <- c_1
I0803 21:16:04.394714 10688 net.cpp:399] lstm2_ -> c_T
I0803 21:16:04.394747 10688 net.cpp:141] Setting up lstm2_
I0803 21:16:04.394754 10688 net.cpp:148] Top shape: 1 1 1000 (1000)
I0803 21:16:04.394759 10688 net.cpp:156] Memory required for data: 94020
I0803 21:16:04.394763 10688 layer_factory.hpp:77] Creating layer lstm2_h_concat
I0803 21:16:04.394773 10688 net.cpp:91] Creating Layer lstm2_h_concat
I0803 21:16:04.394778 10688 net.cpp:425] lstm2_h_concat <- h_1
I0803 21:16:04.394785 10688 net.cpp:399] lstm2_h_concat -> h
I0803 21:16:04.394821 10688 net.cpp:141] Setting up lstm2_h_concat
I0803 21:16:04.394829 10688 net.cpp:148] Top shape: 1 1 1000 (1000)
I0803 21:16:04.394834 10688 net.cpp:156] Memory required for data: 98020
I0803 21:16:04.394839 10688 layer_factory.hpp:77] Creating layer h_pseudoloss
I0803 21:16:04.394848 10688 net.cpp:91] Creating Layer h_pseudoloss
I0803 21:16:04.394853 10688 net.cpp:425] h_pseudoloss <- h
I0803 21:16:04.394860 10688 net.cpp:399] h_pseudoloss -> h_pseudoloss
I0803 21:16:04.394945 10688 net.cpp:141] Setting up h_pseudoloss
…
I0803 21:16:44.216783 10970 upgrade_proto.cpp:66] Attempting to upgrade input file specified using deprecated input fields: /tmp/cvld5637622572897720687/s2vt.words_to_preds.prototxt
I0803 21:16:44.216895 10970 upgrade_proto.cpp:69] Successfully upgraded file specified using deprecated input fields.
W0803 21:16:44.216907 10970 upgrade_proto.cpp:71] Note that future Caffe releases will only support input layers and not input fields.
I0803 21:16:44.216925 10980 net.cpp:49] Initializing net from parameters: 
name: "CaffeNet"
state {
  phase: TEST
}
layer {
  name: "data"
  type: "Input"
  top: "data"
  input_param {
    shape {
      dim: 10
      dim: 3
      dim: 227
      dim: 227
    }
  }
}
layer {
  name: "conv1"
  type: "Convolution"
  bottom: "data"
  top: "conv1"
  convolution_param {
    num_output: 96
    kernel_size: 11
    stride: 4
  }
}
layer {
  name: "relu1"
  type: "ReLU"
  bottom: "conv1"
  top: "conv1"
}
layer {
  name: "pool1"
  type: "Pooling"
  bottom: "conv1"
  top: "pool1"
  pooling_param {
    pool: MAX
    kernel_size: 3
    stride: 2
  }
}
layer {
  name: "norm1"
  type: "LRN"
  bottom: "pool1"
  top: "norm1"
  lrn_param {
    local_size: 5
    alpha: 0.0001
    beta: 0.75
  }
}
layer {
  name: "conv2"
  type: "Convolution"
  bottom: "norm1"
  top: "conv2"
  convolution_param {
    num_output: 256
    pad: 2
    kernel_size: 5
    group: 2
  }
}
layer {
  name: "relu2"
  type: "ReLU"
  bottom: "conv2"
  top: "conv2"
}
layer {
  name: "pool2"
  type: "Pooling"
  bottom: "conv2"
  top: "pool2"
  pooling_param {
    pool: MAX
    kernel_size: 3
    stride: 2
  }
}
layer {
  name: "norm2"
  type: "LRN"
  bottom: "pool2"
  top: "norm2"
  lrn_param {
    local_size: 5
    alpha: 0.0001
    beta: 0.75
  }
}
layer {
  name: "conv3"
  type: "Convolution"
  bottom: "norm2"
  top: "conv3"
  convolution_param {
    num_output: 384
    pad: 1
    kernel_size: 3
  }
}
layer {
  name: "relu3"
  type: "ReLU"
  bottom: "conv3"
  top: "conv3"
}
layer {
  name: "conv4"
  type: "Convolution"
  bottom: "conv3"
  top: "conv4"
  convolution_param {
    num_output: 384
    pad: 1
    kernel_size: 3
    group: 2
  }
}
layer {
  name: "relu4"
  type: "ReLU"
  bottom: "conv4"
  top: "conv4"
}
layer {
  name: "conv5"
  type: "Convolution"
  bottom: "conv4"
  top: "conv5"
  convolution_param {
    num_output: 256
    pad: 1
    kernel_size: 3
    group: 2
  }
}
layer {
  name: "relu5"
  type: "ReLU"
  bottom: "conv5"
  top: "conv5"
}
layer {
  name: "pool5"
  type: "Pooling"
  bottom: "conv5"
  top: "pool5"
  pooling_param {
    pool: MAX
    kernel_size: 3
    stride: 2
  }
}
layer {
  name: "fc6"
  type: "InnerProduct"
  bottom: "pool5"
  top: "fc6"
  inner_product_param {
    num_output: 4096
  }
}
layer {
  name: "relu6"
  type: "ReLU"
  bottom: "fc6"
  top: "fc6"
}
layer {
  name: "drop6"
  type: "Dropout"
  bottom: "fc6"
  top: "fc6"
  dropout_param {
    dropout_ratio: 0.5
  }
}
layer {
  name: "fc7"
  type: "InnerProduct"
  bottom: "fc6"
  top: "fc7"
  inner_product_param {
    num_output: 4096
  }
}
layer {
  name: "relu7"
  type: "ReLU"
  bottom: "fc7"
  top: "fc7"
}
layer {
  name: "drop7"
  type: "Dropout"
  bottom: "fc7"
  top: "fc7"
  dropout_param {
    dropout_ratio: 0.5
  }
}
layer {
  name: "fc8"
  type: "InnerProduct"
  bottom: "fc7"
  top: "fc8"
  inner_product_param {
    num_output: 1000
  }
}
layer {
  name: "prob"
  type: "Softmax"
  bottom: "fc8"
  top: "prob"
}
I0803 21:16:44.217034 10980 layer_factory.hpp:77] Creating layer data
I0803 21:16:44.217059 10980 net.cpp:91] Creating Layer data
I0803 21:16:44.217069 10980 net.cpp:399] data -> data
I0803 21:16:44.217212 10970 net.cpp:49] Initializing net from parameters: 
name: "s2vt:features_to_lstm"
state {
  phase: TEST
}
layer {
  name: "input"
  type: "Input"
  top: "frames_fc7"
  top: "cont_sentence"
  top: "input_sentence"
  top: "stage_indicator"
  input_param {
    shape {
      dim: 1
      dim: 4096
    }
    shape {
      dim: 1
      dim: 1
    }
    shape {
      dim: 1
      dim: 1
    }
    shape {
      dim: 1
      dim: 1
    }
  }
}
layer {
  name: "embed_encoder"
  type: "InnerProduct"
  bottom: "frames_fc7"
  top: "embedded_in_frames"
  param {
    lr_mult: 1
    decay_mult: 1
  }
  param {
    lr_mult: 2
    decay_mult: 0
  }
  inner_product_param {
    num_output: 500
    weight_filler {
      type: "xavier"
    }
    bias_filler {
      type: "constant"
      value: 0.2
    }
  }
}
layer {
  name: "reshape_frames"
  type: "Reshape"
  bottom: "embedded_in_frames"
  top: "embedded_input_frames"
  reshape_param {
    shape {
      dim: 1
      dim: 1
      dim: 500
    }
  }
}
layer {
  name: "reshape_stage_indicator"
  type: "Reshape"
  bottom: "stage_indicator"
  top: "reshaped_stage_indicator"
  reshape_param {
    shape {
      dim: 1
      dim: 1
      dim: 1
    }
  }
}
layer {
  name: "embedding"
  type: "Embed"
  bottom: "input_sentence"
  top: "embedded_input_sentence"
  param {
    lr_mult: 1
  }
  embed_param {
    num_output: 500
    input_dim: 46168
    bias_term: false
    weight_filler {
      type: "uniform"
      min: -0.08
      max: 0.08
    }
  }
}
layer {
  name: "lstm1"
  type: "LSTM"
  bottom: "embedded_input_frames"
  bottom: "cont_sentence"
  top: "lstm1"
  recurrent_param {
    num_output: 1000
    weight_filler {
      type: "uniform"
      min: -0.08
      max: 0.08
    }
    bias_filler {
      type: "constant"
      value: 0
    }
  }
}
layer {
  name: "concat"
  type: "Concat"
  bottom: "lstm1"
  bottom: "embedded_input_sentence"
  bottom: "reshaped_stage_indicator"
  top: "lstm1_video_sequence"
  concat_param {
    concat_dim: 2
  }
}
layer {
  name: "lstm2"
  type: "LSTM"
  bottom: "lstm1_video_sequence"
  bottom: "cont_sentence"
  top: "lstm2"
  recurrent_param {
    num_output: 1000
    weight_filler {
      type: "uniform"
      min: -0.08
      max: 0.08
    }
    bias_filler {
      type: "constant"
      value: 0
    }
  }
}
layer {
  name: "predict"
  type: "InnerProduct"
  bottom: "lstm2"
  top: "predict"
  param {
    lr_mult: 1
    decay_mult: 1
  }
  param {
    lr_mult: 2
    decay_mult: 0
  }
  inner_product_param {
    num_output: 46168
    weight_filler {
      type: "uniform"
      min: -0.08
      max: 0.08
    }
    bias_filler {
      type: "constant"
      value: 0
    }
    axis: 2
  }
}
layer {
  name: "probs"
  type: "Softmax"
  bottom: "predict"
  top: "probs"
  softmax_param {
    axis: 2
  }
}
I0803 21:16:44.217367 10970 layer_factory.hpp:77] Creating layer input
I0803 21:16:44.217386 10970 net.cpp:91] Creating Layer input
I0803 21:16:44.217398 10970 net.cpp:399] input -> frames_fc7
I0803 21:16:44.217416 10970 net.cpp:399] input -> cont_sentence
I0803 21:16:44.217433 10970 net.cpp:399] input -> input_sentence
I0803 21:16:44.217450 10970 net.cpp:399] input -> stage_indicator
I0803 21:16:44.734879 10980 net.cpp:141] Setting up data
I0803 21:16:44.734941 10980 net.cpp:148] Top shape: 10 3 227 227 (1545870)
I0803 21:16:44.734947 10980 net.cpp:156] Memory required for data: 6183480
I0803 21:16:44.734954 10970 net.cpp:141] Setting up input
I0803 21:16:44.734966 10980 layer_factory.hpp:77] Creating layer conv1
I0803 21:16:44.734977 10970 net.cpp:148] Top shape: 1 4096 (4096)
I0803 21:16:44.734987 10970 net.cpp:148] Top shape: 1 1 (1)
I0803 21:16:44.734990 10980 net.cpp:91] Creating Layer conv1
I0803 21:16:44.734997 10970 net.cpp:148] Top shape: 1 1 (1)
I0803 21:16:44.734999 10980 net.cpp:425] conv1 <- data
I0803 21:16:44.735005 10970 net.cpp:148] Top shape: 1 1 (1)
I0803 21:16:44.735011 10970 net.cpp:156] Memory required for data: 16396
I0803 21:16:44.735013 10980 net.cpp:399] conv1 -> conv1
I0803 21:16:44.735020 10970 layer_factory.hpp:77] Creating layer cont_sentence_input_1_split
I0803 21:16:44.735044 10970 net.cpp:91] Creating Layer cont_sentence_input_1_split
I0803 21:16:44.735051 10970 net.cpp:425] cont_sentence_input_1_split <- cont_sentence
I0803 21:16:44.735077 10970 net.cpp:399] cont_sentence_input_1_split -> cont_sentence_input_1_split_0
I0803 21:16:44.735093 10970 net.cpp:399] cont_sentence_input_1_split -> cont_sentence_input_1_split_1
I0803 21:16:44.735266 10970 net.cpp:141] Setting up cont_sentence_input_1_split
I0803 21:16:44.735280 10970 net.cpp:148] Top shape: 1 1 (1)
I0803 21:16:44.735290 10970 net.cpp:148] Top shape: 1 1 (1)
I0803 21:16:44.735296 10970 net.cpp:156] Memory required for data: 16404
I0803 21:16:44.735302 10970 layer_factory.hpp:77] Creating layer embed_encoder
I0803 21:16:44.735326 10970 net.cpp:91] Creating Layer embed_encoder
I0803 21:16:44.735332 10970 net.cpp:425] embed_encoder <- frames_fc7
I0803 21:16:44.735347 10970 net.cpp:399] embed_encoder -> embedded_in_frames
I0803 21:16:44.771229 10970 net.cpp:141] Setting up embed_encoder
I0803 21:16:44.771270 10970 net.cpp:148] Top shape: 1 500 (500)
I0803 21:16:44.771289 10970 net.cpp:156] Memory required for data: 18404
I0803 21:16:44.771322 10970 layer_factory.hpp:77] Creating layer reshape_frames
I0803 21:16:44.771348 10970 net.cpp:91] Creating Layer reshape_frames
I0803 21:16:44.771358 10970 net.cpp:425] reshape_frames <- embedded_in_frames
I0803 21:16:44.771371 10970 net.cpp:399] reshape_frames -> embedded_input_frames
I0803 21:16:44.771437 10970 net.cpp:141] Setting up reshape_frames
I0803 21:16:44.771450 10970 net.cpp:148] Top shape: 1 1 500 (500)
I0803 21:16:44.771456 10970 net.cpp:156] Memory required for data: 20404
I0803 21:16:44.771464 10970 layer_factory.hpp:77] Creating layer reshape_stage_indicator
I0803 21:16:44.771477 10970 net.cpp:91] Creating Layer reshape_stage_indicator
I0803 21:16:44.771484 10970 net.cpp:425] reshape_stage_indicator <- stage_indicator
I0803 21:16:44.771497 10970 net.cpp:399] reshape_stage_indicator -> reshaped_stage_indicator
I0803 21:16:44.771544 10970 net.cpp:141] Setting up reshape_stage_indicator
I0803 21:16:44.771559 10970 net.cpp:148] Top shape: 1 1 1 (1)
I0803 21:16:44.771564 10970 net.cpp:156] Memory required for data: 20408
I0803 21:16:44.771571 10970 layer_factory.hpp:77] Creating layer embedding
I0803 21:16:44.771585 10970 net.cpp:91] Creating Layer embedding
I0803 21:16:44.771592 10970 net.cpp:425] embedding <- input_sentence
I0803 21:16:44.771605 10970 net.cpp:399] embedding -> embedded_input_sentence
I0803 21:16:44.988934 10980 net.cpp:141] Setting up conv1
I0803 21:16:44.988993 10980 net.cpp:148] Top shape: 10 96 55 55 (2904000)
I0803 21:16:44.989001 10980 net.cpp:156] Memory required for data: 17799480
I0803 21:16:44.989019 10980 layer_factory.hpp:77] Creating layer relu1
I0803 21:16:44.989038 10980 net.cpp:91] Creating Layer relu1
I0803 21:16:44.989045 10980 net.cpp:425] relu1 <- conv1
I0803 21:16:44.989053 10980 net.cpp:386] relu1 -> conv1 (in-place)
I0803 21:16:44.989451 10980 net.cpp:141] Setting up relu1
I0803 21:16:44.989464 10980 net.cpp:148] Top shape: 10 96 55 55 (2904000)
I0803 21:16:44.989469 10980 net.cpp:156] Memory required for data: 29415480
I0803 21:16:44.989473 10980 layer_factory.hpp:77] Creating layer pool1
I0803 21:16:44.989488 10980 net.cpp:91] Creating Layer pool1
I0803 21:16:44.989495 10980 net.cpp:425] pool1 <- conv1
I0803 21:16:44.989501 10980 net.cpp:399] pool1 -> pool1
I0803 21:16:44.989570 10980 net.cpp:141] Setting up pool1
I0803 21:16:44.989580 10980 net.cpp:148] Top shape: 10 96 27 27 (699840)
I0803 21:16:44.989584 10980 net.cpp:156] Memory required for data: 32214840
I0803 21:16:44.989589 10980 layer_factory.hpp:77] Creating layer norm1
I0803 21:16:44.989606 10980 net.cpp:91] Creating Layer norm1
I0803 21:16:44.989611 10980 net.cpp:425] norm1 <- pool1
I0803 21:16:44.989619 10980 net.cpp:399] norm1 -> norm1
I0803 21:16:44.990039 10980 net.cpp:141] Setting up norm1
I0803 21:16:44.990054 10980 net.cpp:148] Top shape: 10 96 27 27 (699840)
I0803 21:16:44.990059 10980 net.cpp:156] Memory required for data: 35014200
I0803 21:16:44.990064 10980 layer_factory.hpp:77] Creating layer conv2
I0803 21:16:44.990077 10980 net.cpp:91] Creating Layer conv2
I0803 21:16:44.990082 10980 net.cpp:425] conv2 <- norm1
I0803 21:16:44.990092 10980 net.cpp:399] conv2 -> conv2
I0803 21:16:44.991328 10970 net.cpp:141] Setting up embedding
I0803 21:16:44.991348 10970 net.cpp:148] Top shape: 1 1 500 (500)
I0803 21:16:44.991353 10970 net.cpp:156] Memory required for data: 22408
I0803 21:16:44.991364 10970 layer_factory.hpp:77] Creating layer lstm1
I0803 21:16:44.991375 10970 net.cpp:91] Creating Layer lstm1
I0803 21:16:44.991384 10970 net.cpp:425] lstm1 <- embedded_input_frames
I0803 21:16:44.991389 10970 net.cpp:425] lstm1 <- cont_sentence_input_1_split_0
I0803 21:16:44.991397 10970 net.cpp:399] lstm1 -> lstm1
I0803 21:16:44.991418 10970 recurrent_layer.cpp:20] Initializing recurrent layer: assuming input batch contains 1 timesteps of 1 independent streams.
I0803 21:16:44.991724 10970 net.cpp:49] Initializing net from parameters: 
layer {
  name: "lstm1_"
  type: "Input"
  top: "x"
  top: "cont"
  input_param {
    shape {
      dim: 1
      dim: 1
      dim: 500
    }
    shape {
      dim: 1
      dim: 1
    }
  }
}
layer {
  name: "lstm1_"
  type: "Input"
  top: "c_0"
  top: "h_0"
  input_param {
    shape {
      dim: 1
      dim: 1
      dim: 1000
    }
    shape {
      dim: 1
      dim: 1
      dim: 1000
    }
  }
}
layer {
  name: "lstm1_cont_slice"
  type: "Slice"
  bottom: "cont"
  top: "cont_1"
  slice_param {
    axis: 0
  }
}
layer {
  name: "lstm1_x_transform"
  type: "InnerProduct"
  bottom: "x"
  top: "W_xc_x"
  param {
    name: "W_xc"
  }
  param {
    name: "b_c"
  }
  propagate_down: true
  inner_product_param {
    num_output: 4000
    bias_term: true
    weight_filler {
      type: "uniform"
      min: -0.08
      max: 0.08
    }
    bias_filler {
      type: "constant"
      value: 0
    }
    axis: 2
  }
}
layer {
  name: "lstm1_W_xc_x_slice"
  type: "Slice"
  bottom: "W_xc_x"
  top: "W_xc_x_1"
  slice_param {
    axis: 0
  }
}
layer {
  name: "lstm1_h_conted_0"
  type: "Scale"
  bottom: "h_0"
  bottom: "cont_1"
  top: "h_conted_0"
  scale_param {
    axis: 0
  }
}
layer {
  name: "lstm1_transform_1"
  type: "InnerProduct"
  bottom: "h_conted_0"
  top: "W_hc_h_0"
  param {
    name: "W_hc"
  }
  inner_product_param {
    num_output: 4000
    bias_term: false
    weight_filler {
      type: "uniform"
      min: -0.08
      max: 0.08
    }
    axis: 2
  }
}
layer {
  name: "lstm1_gate_input_1"
  type: "Eltwise"
  bottom: "W_hc_h_0"
  bottom: "W_xc_x_1"
  top: "gate_input_1"
  eltwise_param {
    operation: SUM
  }
}
layer {
  name: "lstm1_unit_1"
  type: "LSTMUnit"
  bottom: "c_0"
  bottom: "gate_input_1"
  bottom: "cont_1"
  top: "c_1"
  top: "h_1"
}
layer {
  name: "lstm1_"
  type: "Split"
  bottom: "c_1"
  top: "c_T"
}
layer {
  name: "lstm1_h_concat"
  type: "Concat"
  bottom: "h_1"
  top: "h"
  concat_param {
    axis: 0
  }
}
layer {
  name: "h_pseudoloss"
  type: "Reduction"
  bottom: "h"
  top: "h_pseudoloss"
  loss_weight: 1
}
I0803 21:16:44.991808 10970 layer_factory.hpp:77] Creating layer lstm1_
I0803 21:16:44.991822 10970 net.cpp:91] Creating Layer lstm1_
I0803 21:16:44.991827 10970 net.cpp:399] lstm1_ -> x
I0803 21:16:44.991838 10970 net.cpp:399] lstm1_ -> cont
I0803 21:16:44.991936 10970 net.cpp:141] Setting up lstm1_
I0803 21:16:44.991948 10970 net.cpp:148] Top shape: 1 1 500 (500)
I0803 21:16:44.991955 10970 net.cpp:148] Top shape: 1 1 (1)
I0803 21:16:44.991958 10970 net.cpp:156] Memory required for data: 2004
I0803 21:16:44.991963 10970 layer_factory.hpp:77] Creating layer lstm1_
I0803 21:16:44.991979 10970 net.cpp:91] Creating Layer lstm1_
I0803 21:16:44.991986 10970 net.cpp:399] lstm1_ -> c_0
I0803 21:16:44.991996 10970 net.cpp:399] lstm1_ -> h_0
I0803 21:16:44.992218 10970 net.cpp:141] Setting up lstm1_
I0803 21:16:44.992228 10970 net.cpp:148] Top shape: 1 1 1000 (1000)
I0803 21:16:44.992233 10970 net.cpp:148] Top shape: 1 1 1000 (1000)
I0803 21:16:44.992238 10970 net.cpp:156] Memory required for data: 10004
I0803 21:16:44.992243 10970 layer_factory.hpp:77] Creating layer lstm1_cont_slice
I0803 21:16:44.992250 10970 net.cpp:91] Creating Layer lstm1_cont_slice
I0803 21:16:44.992254 10970 net.cpp:425] lstm1_cont_slice <- cont
I0803 21:16:44.992266 10970 net.cpp:399] lstm1_cont_slice -> cont_1
I0803 21:16:44.992511 10970 net.cpp:141] Setting up lstm1_cont_slice
I0803 21:16:44.992527 10970 net.cpp:148] Top shape: 1 1 (1)
I0803 21:16:44.992530 10970 net.cpp:156] Memory required for data: 10008
I0803 21:16:44.992535 10970 layer_factory.hpp:77] Creating layer cont_1_lstm1_cont_slice_0_split
I0803 21:16:44.992542 10970 net.cpp:91] Creating Layer cont_1_lstm1_cont_slice_0_split
I0803 21:16:44.992547 10970 net.cpp:425] cont_1_lstm1_cont_slice_0_split <- cont_1
I0803 21:16:44.992553 10970 net.cpp:399] cont_1_lstm1_cont_slice_0_split -> cont_1_lstm1_cont_slice_0_split_0
I0803 21:16:44.992560 10970 net.cpp:399] cont_1_lstm1_cont_slice_0_split -> cont_1_lstm1_cont_slice_0_split_1
I0803 21:16:44.992666 10970 net.cpp:141] Setting up cont_1_lstm1_cont_slice_0_split
I0803 21:16:44.992676 10970 net.cpp:148] Top shape: 1 1 (1)
I0803 21:16:44.992681 10970 net.cpp:148] Top shape: 1 1 (1)
I0803 21:16:44.992684 10970 net.cpp:156] Memory required for data: 10016
I0803 21:16:44.992689 10970 layer_factory.hpp:77] Creating layer lstm1_x_transform
I0803 21:16:44.992702 10970 net.cpp:91] Creating Layer lstm1_x_transform
I0803 21:16:44.992707 10970 net.cpp:425] lstm1_x_transform <- x
I0803 21:16:44.992713 10970 net.cpp:399] lstm1_x_transform -> W_xc_x
I0803 21:16:44.997279 10980 net.cpp:141] Setting up conv2
I0803 21:16:44.997303 10980 net.cpp:148] Top shape: 10 256 27 27 (1866240)
I0803 21:16:44.997308 10980 net.cpp:156] Memory required for data: 42479160
I0803 21:16:44.997323 10980 layer_factory.hpp:77] Creating layer relu2
I0803 21:16:44.997334 10980 net.cpp:91] Creating Layer relu2
I0803 21:16:44.997339 10980 net.cpp:425] relu2 <- conv2
I0803 21:16:44.997346 10980 net.cpp:386] relu2 -> conv2 (in-place)
I0803 21:16:44.997736 10980 net.cpp:141] Setting up relu2
I0803 21:16:44.997751 10980 net.cpp:148] Top shape: 10 256 27 27 (1866240)
I0803 21:16:44.997756 10980 net.cpp:156] Memory required for data: 49944120
I0803 21:16:44.997761 10980 layer_factory.hpp:77] Creating layer pool2
I0803 21:16:44.997769 10980 net.cpp:91] Creating Layer pool2
I0803 21:16:44.997774 10980 net.cpp:425] pool2 <- conv2
I0803 21:16:44.997781 10980 net.cpp:399] pool2 -> pool2
I0803 21:16:44.997838 10980 net.cpp:141] Setting up pool2
I0803 21:16:44.997848 10980 net.cpp:148] Top shape: 10 256 13 13 (432640)
I0803 21:16:44.997853 10980 net.cpp:156] Memory required for data: 51674680
I0803 21:16:44.997856 10980 layer_factory.hpp:77] Creating layer norm2
I0803 21:16:44.997869 10980 net.cpp:91] Creating Layer norm2
I0803 21:16:44.997874 10980 net.cpp:425] norm2 <- pool2
I0803 21:16:44.997882 10980 net.cpp:399] norm2 -> norm2
I0803 21:16:44.998134 10980 net.cpp:141] Setting up norm2
I0803 21:16:44.998147 10980 net.cpp:148] Top shape: 10 256 13 13 (432640)
I0803 21:16:44.998150 10980 net.cpp:156] Memory required for data: 53405240
I0803 21:16:44.998155 10980 layer_factory.hpp:77] Creating layer conv3
I0803 21:16:44.998169 10980 net.cpp:91] Creating Layer conv3
I0803 21:16:44.998174 10980 net.cpp:425] conv3 <- norm2
I0803 21:16:44.998181 10980 net.cpp:399] conv3 -> conv3
I0803 21:16:45.001780 10980 net.cpp:141] Setting up conv3
I0803 21:16:45.001801 10980 net.cpp:148] Top shape: 10 384 13 13 (648960)
I0803 21:16:45.001806 10980 net.cpp:156] Memory required for data: 56001080
I0803 21:16:45.001818 10980 layer_factory.hpp:77] Creating layer relu3
I0803 21:16:45.001832 10980 net.cpp:91] Creating Layer relu3
I0803 21:16:45.001837 10980 net.cpp:425] relu3 <- conv3
I0803 21:16:45.001844 10980 net.cpp:386] relu3 -> conv3 (in-place)
I0803 21:16:45.002228 10980 net.cpp:141] Setting up relu3
I0803 21:16:45.002240 10980 net.cpp:148] Top shape: 10 384 13 13 (648960)
I0803 21:16:45.002245 10980 net.cpp:156] Memory required for data: 58596920
I0803 21:16:45.002250 10980 layer_factory.hpp:77] Creating layer conv4
I0803 21:16:45.002264 10980 net.cpp:91] Creating Layer conv4
I0803 21:16:45.002269 10980 net.cpp:425] conv4 <- conv3
I0803 21:16:45.002279 10980 net.cpp:399] conv4 -> conv4
I0803 21:16:45.006546 10980 net.cpp:141] Setting up conv4
I0803 21:16:45.006572 10980 net.cpp:148] Top shape: 10 384 13 13 (648960)
I0803 21:16:45.006577 10980 net.cpp:156] Memory required for data: 61192760
I0803 21:16:45.006589 10980 layer_factory.hpp:77] Creating layer relu4
I0803 21:16:45.006604 10980 net.cpp:91] Creating Layer relu4
I0803 21:16:45.006610 10980 net.cpp:425] relu4 <- conv4
I0803 21:16:45.006618 10980 net.cpp:386] relu4 -> conv4 (in-place)
I0803 21:16:45.007007 10980 net.cpp:141] Setting up relu4
I0803 21:16:45.007020 10980 net.cpp:148] Top shape: 10 384 13 13 (648960)
I0803 21:16:45.007025 10980 net.cpp:156] Memory required for data: 63788600
I0803 21:16:45.007030 10980 layer_factory.hpp:77] Creating layer conv5
I0803 21:16:45.007046 10980 net.cpp:91] Creating Layer conv5
I0803 21:16:45.007051 10980 net.cpp:425] conv5 <- conv4
I0803 21:16:45.007061 10980 net.cpp:399] conv5 -> conv5
I0803 21:16:45.010754 10980 net.cpp:141] Setting up conv5
I0803 21:16:45.010776 10980 net.cpp:148] Top shape: 10 256 13 13 (432640)
I0803 21:16:45.010781 10980 net.cpp:156] Memory required for data: 65519160
I0803 21:16:45.010795 10980 layer_factory.hpp:77] Creating layer relu5
I0803 21:16:45.010804 10980 net.cpp:91] Creating Layer relu5
I0803 21:16:45.010812 10980 net.cpp:425] relu5 <- conv5
I0803 21:16:45.010819 10980 net.cpp:386] relu5 -> conv5 (in-place)
I0803 21:16:45.011210 10980 net.cpp:141] Setting up relu5
I0803 21:16:45.011222 10980 net.cpp:148] Top shape: 10 256 13 13 (432640)
I0803 21:16:45.011227 10980 net.cpp:156] Memory required for data: 67249720
I0803 21:16:45.011232 10980 layer_factory.hpp:77] Creating layer pool5
I0803 21:16:45.011245 10980 net.cpp:91] Creating Layer pool5
I0803 21:16:45.011250 10980 net.cpp:425] pool5 <- conv5
I0803 21:16:45.011256 10980 net.cpp:399] pool5 -> pool5
I0803 21:16:45.011318 10980 net.cpp:141] Setting up pool5
I0803 21:16:45.011328 10980 net.cpp:148] Top shape: 10 256 6 6 (92160)
I0803 21:16:45.011332 10980 net.cpp:156] Memory required for data: 67618360
I0803 21:16:45.011337 10980 layer_factory.hpp:77] Creating layer fc6
I0803 21:16:45.011348 10980 net.cpp:91] Creating Layer fc6
I0803 21:16:45.011353 10980 net.cpp:425] fc6 <- pool5
I0803 21:16:45.011363 10980 net.cpp:399] fc6 -> fc6
I0803 21:16:45.073657 10970 net.cpp:141] Setting up lstm1_x_transform
I0803 21:16:45.073704 10970 net.cpp:148] Top shape: 1 1 4000 (4000)
I0803 21:16:45.073710 10970 net.cpp:156] Memory required for data: 26016
I0803 21:16:45.073730 10970 layer_factory.hpp:77] Creating layer lstm1_W_xc_x_slice
I0803 21:16:45.073745 10970 net.cpp:91] Creating Layer lstm1_W_xc_x_slice
I0803 21:16:45.073751 10970 net.cpp:425] lstm1_W_xc_x_slice <- W_xc_x
I0803 21:16:45.073762 10970 net.cpp:399] lstm1_W_xc_x_slice -> W_xc_x_1
I0803 21:16:45.073806 10970 net.cpp:141] Setting up lstm1_W_xc_x_slice
I0803 21:16:45.073815 10970 net.cpp:148] Top shape: 1 1 4000 (4000)
I0803 21:16:45.073819 10970 net.cpp:156] Memory required for data: 42016
I0803 21:16:45.073823 10970 layer_factory.hpp:77] Creating layer lstm1_h_conted_0
I0803 21:16:45.073832 10970 net.cpp:91] Creating Layer lstm1_h_conted_0
I0803 21:16:45.073837 10970 net.cpp:425] lstm1_h_conted_0 <- h_0
I0803 21:16:45.073843 10970 net.cpp:425] lstm1_h_conted_0 <- cont_1_lstm1_cont_slice_0_split_0
I0803 21:16:45.073853 10970 net.cpp:399] lstm1_h_conted_0 -> h_conted_0
I0803 21:16:45.073940 10970 net.cpp:141] Setting up lstm1_h_conted_0
I0803 21:16:45.073950 10970 net.cpp:148] Top shape: 1 1 1000 (1000)
I0803 21:16:45.073954 10970 net.cpp:156] Memory required for data: 46016
I0803 21:16:45.073958 10970 layer_factory.hpp:77] Creating layer lstm1_transform_1
I0803 21:16:45.073971 10970 net.cpp:91] Creating Layer lstm1_transform_1
I0803 21:16:45.073974 10970 net.cpp:425] lstm1_transform_1 <- h_conted_0
I0803 21:16:45.073984 10970 net.cpp:399] lstm1_transform_1 -> W_hc_h_0
I0803 21:16:45.110916 10980 net.cpp:141] Setting up fc6
I0803 21:16:45.110970 10980 net.cpp:148] Top shape: 10 4096 (40960)
I0803 21:16:45.110976 10980 net.cpp:156] Memory required for data: 67782200
I0803 21:16:45.110990 10980 layer_factory.hpp:77] Creating layer relu6
I0803 21:16:45.111006 10980 net.cpp:91] Creating Layer relu6
I0803 21:16:45.111011 10980 net.cpp:425] relu6 <- fc6
I0803 21:16:45.111019 10980 net.cpp:386] relu6 -> fc6 (in-place)
I0803 21:16:45.111328 10980 net.cpp:141] Setting up relu6
I0803 21:16:45.111340 10980 net.cpp:148] Top shape: 10 4096 (40960)
I0803 21:16:45.111344 10980 net.cpp:156] Memory required for data: 67946040
I0803 21:16:45.111349 10980 layer_factory.hpp:77] Creating layer drop6
I0803 21:16:45.111361 10980 net.cpp:91] Creating Layer drop6
I0803 21:16:45.111366 10980 net.cpp:425] drop6 <- fc6
I0803 21:16:45.111374 10980 net.cpp:386] drop6 -> fc6 (in-place)
I0803 21:16:45.111418 10980 net.cpp:141] Setting up drop6
I0803 21:16:45.111426 10980 net.cpp:148] Top shape: 10 4096 (40960)
I0803 21:16:45.111430 10980 net.cpp:156] Memory required for data: 68109880
I0803 21:16:45.111435 10980 layer_factory.hpp:77] Creating layer fc7
I0803 21:16:45.111448 10980 net.cpp:91] Creating Layer fc7
I0803 21:16:45.111452 10980 net.cpp:425] fc7 <- fc6
I0803 21:16:45.111459 10980 net.cpp:399] fc7 -> fc7
I0803 21:16:45.139583 10970 net.cpp:141] Setting up lstm1_transform_1
I0803 21:16:45.139632 10970 net.cpp:148] Top shape: 1 1 4000 (4000)
I0803 21:16:45.139638 10970 net.cpp:156] Memory required for data: 62016
I0803 21:16:45.139659 10970 layer_factory.hpp:77] Creating layer lstm1_gate_input_1
I0803 21:16:45.139678 10970 net.cpp:91] Creating Layer lstm1_gate_input_1
I0803 21:16:45.139683 10970 net.cpp:425] lstm1_gate_input_1 <- W_hc_h_0
I0803 21:16:45.139691 10970 net.cpp:425] lstm1_gate_input_1 <- W_xc_x_1
I0803 21:16:45.139701 10970 net.cpp:399] lstm1_gate_input_1 -> gate_input_1
I0803 21:16:45.139765 10970 net.cpp:141] Setting up lstm1_gate_input_1
I0803 21:16:45.139775 10970 net.cpp:148] Top shape: 1 1 4000 (4000)
I0803 21:16:45.139780 10970 net.cpp:156] Memory required for data: 78016
I0803 21:16:45.139783 10970 layer_factory.hpp:77] Creating layer lstm1_unit_1
I0803 21:16:45.139792 10970 net.cpp:91] Creating Layer lstm1_unit_1
I0803 21:16:45.139796 10970 net.cpp:425] lstm1_unit_1 <- c_0
I0803 21:16:45.139802 10970 net.cpp:425] lstm1_unit_1 <- gate_input_1
I0803 21:16:45.139807 10970 net.cpp:425] lstm1_unit_1 <- cont_1_lstm1_cont_slice_0_split_1
I0803 21:16:45.139813 10970 net.cpp:399] lstm1_unit_1 -> c_1
I0803 21:16:45.139824 10970 net.cpp:399] lstm1_unit_1 -> h_1
I0803 21:16:45.139885 10970 net.cpp:141] Setting up lstm1_unit_1
I0803 21:16:45.139894 10970 net.cpp:148] Top shape: 1 1 1000 (1000)
I0803 21:16:45.139900 10970 net.cpp:148] Top shape: 1 1 1000 (1000)
I0803 21:16:45.139904 10970 net.cpp:156] Memory required for data: 86016
I0803 21:16:45.139909 10970 layer_factory.hpp:77] Creating layer lstm1_
I0803 21:16:45.139916 10970 net.cpp:91] Creating Layer lstm1_
I0803 21:16:45.139920 10970 net.cpp:425] lstm1_ <- c_1
I0803 21:16:45.139926 10970 net.cpp:399] lstm1_ -> c_T
I0803 21:16:45.139955 10970 net.cpp:141] Setting up lstm1_
I0803 21:16:45.139963 10970 net.cpp:148] Top shape: 1 1 1000 (1000)
I0803 21:16:45.139968 10970 net.cpp:156] Memory required for data: 90016
I0803 21:16:45.139972 10970 layer_factory.hpp:77] Creating layer lstm1_h_concat
I0803 21:16:45.139983 10970 net.cpp:91] Creating Layer lstm1_h_concat
I0803 21:16:45.139988 10970 net.cpp:425] lstm1_h_concat <- h_1
I0803 21:16:45.139996 10970 net.cpp:399] lstm1_h_concat -> h
I0803 21:16:45.140036 10970 net.cpp:141] Setting up lstm1_h_concat
I0803 21:16:45.140045 10970 net.cpp:148] Top shape: 1 1 1000 (1000)
I0803 21:16:45.140049 10970 net.cpp:156] Memory required for data: 94016
I0803 21:16:45.140053 10970 layer_factory.hpp:77] Creating layer h_pseudoloss
I0803 21:16:45.140069 10970 net.cpp:91] Creating Layer h_pseudoloss
I0803 21:16:45.140074 10970 net.cpp:425] h_pseudoloss <- h
I0803 21:16:45.140079 10970 net.cpp:399] h_pseudoloss -> h_pseudoloss
I0803 21:16:45.140167 10970 net.cpp:141] Setting up h_pseudoloss
…
I0803 21:16:45.140275 10970 net.cpp:219] lstm1_ does not need backward computation.
I0803 21:16:45.140278 10970 net.cpp:261] This network produces output c_T
I0803 21:16:45.140282 10970 net.cpp:261] This network produces output h_pseudoloss
I0803 21:16:45.140301 10970 net.cpp:274] Network initialization done.
I0803 21:16:45.140355 10970 recurrent_layer.cpp:150] Adding parameter 0: W_xc
I0803 21:16:45.140362 10970 recurrent_layer.cpp:150] Adding parameter 1: b_c
I0803 21:16:45.140365 10970 recurrent_layer.cpp:150] Adding parameter 2: W_hc
I0803 21:16:45.140477 10970 net.cpp:141] Setting up lstm1
I0803 21:16:45.140491 10970 net.cpp:148] Top shape: 1 1 1000 (1000)
I0803 21:16:45.140494 10970 net.cpp:156] Memory required for data: 26408
I0803 21:16:45.140507 10970 layer_factory.hpp:77] Creating layer concat
I0803 21:16:45.140516 10970 net.cpp:91] Creating Layer concat
I0803 21:16:45.140522 10970 net.cpp:425] concat <- lstm1
I0803 21:16:45.140527 10970 net.cpp:425] concat <- embedded_input_sentence
I0803 21:16:45.140532 10970 net.cpp:425] concat <- reshaped_stage_indicator
I0803 21:16:45.140539 10970 net.cpp:399] concat -> lstm1_video_sequence
I0803 21:16:45.140573 10970 net.cpp:141] Setting up concat
I0803 21:16:45.140580 10970 net.cpp:148] Top shape: 1 1 1501 (1501)
I0803 21:16:45.140585 10970 net.cpp:156] Memory required for data: 32412
I0803 21:16:45.140589 10970 layer_factory.hpp:77] Creating layer lstm2
I0803 21:16:45.140600 10970 net.cpp:91] Creating Layer lstm2
I0803 21:16:45.140605 10970 net.cpp:425] lstm2 <- lstm1_video_sequence
I0803 21:16:45.140611 10970 net.cpp:425] lstm2 <- cont_sentence_input_1_split_1
I0803 21:16:45.140617 10970 net.cpp:399] lstm2 -> lstm2
I0803 21:16:45.140626 10970 recurrent_layer.cpp:20] Initializing recurrent layer: assuming input batch contains 1 timesteps of 1 independent streams.
I0803 21:16:45.140852 10970 net.cpp:49] Initializing net from parameters: 
layer {
  name: "lstm2_"
  type: "Input"
  top: "x"
  top: "cont"
  input_param {
    shape {
      dim: 1
      dim: 1
      dim: 1501
    }
    shape {
      dim: 1
      dim: 1
    }
  }
}
layer {
  name: "lstm2_"
  type: "Input"
  top: "c_0"
  top: "h_0"
  input_param {
    shape {
      dim: 1
      dim: 1
      dim: 1000
    }
    shape {
      dim: 1
      dim: 1
      dim: 1000
    }
  }
}
layer {
  name: "lstm2_cont_slice"
  type: "Slice"
  bottom: "cont"
  top: "cont_1"
  slice_param {
    axis: 0
  }
}
layer {
  name: "lstm2_x_transform"
  type: "InnerProduct"
  bottom: "x"
  top: "W_xc_x"
  param {
    name: "W_xc"
  }
  param {
    name: "b_c"
  }
  propagate_down: true
  inner_product_param {
    num_output: 4000
    bias_term: true
    weight_filler {
      type: "uniform"
      min: -0.08
      max: 0.08
    }
    bias_filler {
      type: "constant"
      value: 0
    }
    axis: 2
  }
}
layer {
  name: "lstm2_W_xc_x_slice"
  type: "Slice"
  bottom: "W_xc_x"
  top: "W_xc_x_1"
  slice_param {
    axis: 0
  }
}
layer {
  name: "lstm2_h_conted_0"
  type: "Scale"
  bottom: "h_0"
  bottom: "cont_1"
  top: "h_conted_0"
  scale_param {
    axis: 0
  }
}
layer {
  name: "lstm2_transform_1"
  type: "InnerProduct"
  bottom: "h_conted_0"
  top: "W_hc_h_0"
  param {
    name: "W_hc"
  }
  inner_product_param {
    num_output: 4000
    bias_term: false
    weight_filler {
      type: "uniform"
      min: -0.08
      max: 0.08
    }
    axis: 2
  }
}
layer {
  name: "lstm2_gate_input_1"
  type: "Eltwise"
  bottom: "W_hc_h_0"
  bottom: "W_xc_x_1"
  top: "gate_input_1"
  eltwise_param {
    operation: SUM
  }
}
layer {
  name: "lstm2_unit_1"
  type: "LSTMUnit"
  bottom: "c_0"
  bottom: "gate_input_1"
  bottom: "cont_1"
  top: "c_1"
  top: "h_1"
}
layer {
  name: "lstm2_"
  type: "Split"
  bottom: "c_1"
  top: "c_T"
}
layer {
  name: "lstm2_h_concat"
  type: "Concat"
  bottom: "h_1"
  top: "h"
  concat_param {
    axis: 0
  }
}
layer {
  name: "h_pseudoloss"
  type: "Reduction"
  bottom: "h"
  top: "h_pseudoloss"
  loss_weight: 1
}
I0803 21:16:45.140934 10970 layer_factory.hpp:77] Creating layer lstm2_
I0803 21:16:45.140945 10970 net.cpp:91] Creating Layer lstm2_
I0803 21:16:45.140951 10970 net.cpp:399] lstm2_ -> x
I0803 21:16:45.140961 10970 net.cpp:399] lstm2_ -> cont
I0803 21:16:45.141014 10970 net.cpp:141] Setting up lstm2_
I0803 21:16:45.141023 10970 net.cpp:148] Top shape: 1 1 1501 (1501)
I0803 21:16:45.141029 10970 net.cpp:148] Top shape: 1 1 (1)
I0803 21:16:45.141033 10970 net.cpp:156] Memory required for data: 6008
I0803 21:16:45.141037 10970 layer_factory.hpp:77] Creating layer lstm2_
I0803 21:16:45.141046 10970 net.cpp:91] Creating Layer lstm2_
I0803 21:16:45.141052 10970 net.cpp:399] lstm2_ -> c_0
I0803 21:16:45.141062 10970 net.cpp:399] lstm2_ -> h_0
I0803 21:16:45.141108 10970 net.cpp:141] Setting up lstm2_
I0803 21:16:45.141118 10970 net.cpp:148] Top shape: 1 1 1000 (1000)
I0803 21:16:45.141124 10970 net.cpp:148] Top shape: 1 1 1000 (1000)
I0803 21:16:45.141126 10970 net.cpp:156] Memory required for data: 14008
I0803 21:16:45.141130 10970 layer_factory.hpp:77] Creating layer lstm2_cont_slice
I0803 21:16:45.141144 10970 net.cpp:91] Creating Layer lstm2_cont_slice
I0803 21:16:45.141149 10970 net.cpp:425] lstm2_cont_slice <- cont
I0803 21:16:45.141155 10970 net.cpp:399] lstm2_cont_slice -> cont_1
I0803 21:16:45.141185 10970 net.cpp:141] Setting up lstm2_cont_slice
I0803 21:16:45.141193 10970 net.cpp:148] Top shape: 1 1 (1)
I0803 21:16:45.141197 10970 net.cpp:156] Memory required for data: 14012
I0803 21:16:45.141201 10970 layer_factory.hpp:77] Creating layer cont_1_lstm2_cont_slice_0_split
I0803 21:16:45.141207 10970 net.cpp:91] Creating Layer cont_1_lstm2_cont_slice_0_split
I0803 21:16:45.141211 10970 net.cpp:425] cont_1_lstm2_cont_slice_0_split <- cont_1
I0803 21:16:45.141221 10970 net.cpp:399] cont_1_lstm2_cont_slice_0_split -> cont_1_lstm2_cont_slice_0_split_0
I0803 21:16:45.141228 10970 net.cpp:399] cont_1_lstm2_cont_slice_0_split -> cont_1_lstm2_cont_slice_0_split_1
I0803 21:16:45.141305 10970 net.cpp:141] Setting up cont_1_lstm2_cont_slice_0_split
I0803 21:16:45.141317 10970 net.cpp:148] Top shape: 1 1 (1)
I0803 21:16:45.141322 10970 net.cpp:148] Top shape: 1 1 (1)
I0803 21:16:45.141326 10970 net.cpp:156] Memory required for data: 14020
I0803 21:16:45.141331 10970 layer_factory.hpp:77] Creating layer lstm2_x_transform
I0803 21:16:45.141343 10970 net.cpp:91] Creating Layer lstm2_x_transform
I0803 21:16:45.141348 10970 net.cpp:425] lstm2_x_transform <- x
I0803 21:16:45.141355 10970 net.cpp:399] lstm2_x_transform -> W_xc_x
I0803 21:16:45.157696 10980 net.cpp:141] Setting up fc7
I0803 21:16:45.157735 10980 net.cpp:148] Top shape: 10 4096 (40960)
I0803 21:16:45.157742 10980 net.cpp:156] Memory required for data: 68273720
I0803 21:16:45.157754 10980 layer_factory.hpp:77] Creating layer relu7
I0803 21:16:45.157769 10980 net.cpp:91] Creating Layer relu7
I0803 21:16:45.157775 10980 net.cpp:425] relu7 <- fc7
I0803 21:16:45.157783 10980 net.cpp:386] relu7 -> fc7 (in-place)
I0803 21:16:45.158404 10980 net.cpp:141] Setting up relu7
I0803 21:16:45.158419 10980 net.cpp:148] Top shape: 10 4096 (40960)
I0803 21:16:45.158424 10980 net.cpp:156] Memory required for data: 68437560
I0803 21:16:45.158430 10980 layer_factory.hpp:77] Creating layer drop7
I0803 21:16:45.158439 10980 net.cpp:91] Creating Layer drop7
I0803 21:16:45.158444 10980 net.cpp:425] drop7 <- fc7
I0803 21:16:45.158450 10980 net.cpp:386] drop7 -> fc7 (in-place)
I0803 21:16:45.158494 10980 net.cpp:141] Setting up drop7
I0803 21:16:45.158504 10980 net.cpp:148] Top shape: 10 4096 (40960)
I0803 21:16:45.158507 10980 net.cpp:156] Memory required for data: 68601400
I0803 21:16:45.158512 10980 layer_factory.hpp:77] Creating layer fc8
I0803 21:16:45.158521 10980 net.cpp:91] Creating Layer fc8
I0803 21:16:45.158525 10980 net.cpp:425] fc8 <- fc7
I0803 21:16:45.158535 10980 net.cpp:399] fc8 -> fc8
I0803 21:16:45.170308 10980 net.cpp:141] Setting up fc8
I0803 21:16:45.170348 10980 net.cpp:148] Top shape: 10 1000 (10000)
I0803 21:16:45.170353 10980 net.cpp:156] Memory required for data: 68641400
I0803 21:16:45.170367 10980 layer_factory.hpp:77] Creating layer prob
I0803 21:16:45.170387 10980 net.cpp:91] Creating Layer prob
I0803 21:16:45.170393 10980 net.cpp:425] prob <- fc8
I0803 21:16:45.170402 10980 net.cpp:399] prob -> prob
I0803 21:16:45.170812 10980 net.cpp:141] Setting up prob
I0803 21:16:45.170826 10980 net.cpp:148] Top shape: 10 1000 (10000)
I0803 21:16:45.170831 10980 net.cpp:156] Memory required for data: 68681400
I0803 21:16:45.170836 10980 net.cpp:219] prob does not need backward computation.
I0803 21:16:45.170841 10980 net.cpp:219] fc8 does not need backward computation.
I0803 21:16:45.170846 10980 net.cpp:219] drop7 does not need backward computation.
I0803 21:16:45.170850 10980 net.cpp:219] relu7 does not need backward computation.
…
I0803 21:16:45.170915 10980 net.cpp:219] norm1 does not need backward computation.
I0803 21:16:45.170919 10980 net.cpp:219] pool1 does not need backward computation.
I0803 21:16:45.170923 10980 net.cpp:219] relu1 does not need backward computation.
I0803 21:16:45.170928 10980 net.cpp:219] conv1 does not need backward computation.
I0803 21:16:45.170931 10980 net.cpp:219] data does not need backward computation.
I0803 21:16:45.170934 10980 net.cpp:261] This network produces output prob
I0803 21:16:45.170953 10980 net.cpp:274] Network initialization done.
I0803 21:16:45.202601 10970 net.cpp:141] Setting up lstm2_x_transform
I0803 21:16:45.202641 10970 net.cpp:148] Top shape: 1 1 4000 (4000)
I0803 21:16:45.202647 10970 net.cpp:156] Memory required for data: 30020
I0803 21:16:45.202666 10970 layer_factory.hpp:77] Creating layer lstm2_W_xc_x_slice
I0803 21:16:45.202679 10970 net.cpp:91] Creating Layer lstm2_W_xc_x_slice
I0803 21:16:45.202685 10970 net.cpp:425] lstm2_W_xc_x_slice <- W_xc_x
I0803 21:16:45.202697 10970 net.cpp:399] lstm2_W_xc_x_slice -> W_xc_x_1
I0803 21:16:45.202739 10970 net.cpp:141] Setting up lstm2_W_xc_x_slice
I0803 21:16:45.202749 10970 net.cpp:148] Top shape: 1 1 4000 (4000)
I0803 21:16:45.202752 10970 net.cpp:156] Memory required for data: 46020
I0803 21:16:45.202757 10970 layer_factory.hpp:77] Creating layer lstm2_h_conted_0
I0803 21:16:45.202766 10970 net.cpp:91] Creating Layer lstm2_h_conted_0
I0803 21:16:45.202771 10970 net.cpp:425] lstm2_h_conted_0 <- h_0
I0803 21:16:45.202776 10970 net.cpp:425] lstm2_h_conted_0 <- cont_1_lstm2_cont_slice_0_split_0
I0803 21:16:45.202786 10970 net.cpp:399] lstm2_h_conted_0 -> h_conted_0
I0803 21:16:45.202877 10970 net.cpp:141] Setting up lstm2_h_conted_0
I0803 21:16:45.202885 10970 net.cpp:148] Top shape: 1 1 1000 (1000)
I0803 21:16:45.202889 10970 net.cpp:156] Memory required for data: 50020
I0803 21:16:45.202894 10970 layer_factory.hpp:77] Creating layer lstm2_transform_1
I0803 21:16:45.202905 10970 net.cpp:91] Creating Layer lstm2_transform_1
I0803 21:16:45.202909 10970 net.cpp:425] lstm2_transform_1 <- h_conted_0
I0803 21:16:45.202919 10970 net.cpp:399] lstm2_transform_1 -> W_hc_h_0
I0803 21:16:45.241209 10970 net.cpp:141] Setting up lstm2_transform_1
I0803 21:16:45.241258 10970 net.cpp:148] Top shape: 1 1 4000 (4000)
I0803 21:16:45.241264 10970 net.cpp:156] Memory required for data: 66020
I0803 21:16:45.241282 10970 layer_factory.hpp:77] Creating layer lstm2_gate_input_1
I0803 21:16:45.241298 10970 net.cpp:91] Creating Layer lstm2_gate_input_1
I0803 21:16:45.241305 10970 net.cpp:425] lstm2_gate_input_1 <- W_hc_h_0
I0803 21:16:45.241312 10970 net.cpp:425] lstm2_gate_input_1 <- W_xc_x_1
I0803 21:16:45.241322 10970 net.cpp:399] lstm2_gate_input_1 -> gate_input_1
I0803 21:16:45.241369 10970 net.cpp:141] Setting up lstm2_gate_input_1
I0803 21:16:45.241379 10970 net.cpp:148] Top shape: 1 1 4000 (4000)
I0803 21:16:45.241382 10970 net.cpp:156] Memory required for data: 82020
I0803 21:16:45.241386 10970 layer_factory.hpp:77] Creating layer lstm2_unit_1
I0803 21:16:45.241394 10970 net.cpp:91] Creating Layer lstm2_unit_1
I0803 21:16:45.241399 10970 net.cpp:425] lstm2_unit_1 <- c_0
I0803 21:16:45.241405 10970 net.cpp:425] lstm2_unit_1 <- gate_input_1
I0803 21:16:45.241410 10970 net.cpp:425] lstm2_unit_1 <- cont_1_lstm2_cont_slice_0_split_1
I0803 21:16:45.241417 10970 net.cpp:399] lstm2_unit_1 -> c_1
I0803 21:16:45.241426 10970 net.cpp:399] lstm2_unit_1 -> h_1
I0803 21:16:45.241488 10970 net.cpp:141] Setting up lstm2_unit_1
I0803 21:16:45.241497 10970 net.cpp:148] Top shape: 1 1 1000 (1000)
I0803 21:16:45.241503 10970 net.cpp:148] Top shape: 1 1 1000 (1000)
I0803 21:16:45.241508 10970 net.cpp:156] Memory required for data: 90020
I0803 21:16:45.241513 10970 layer_factory.hpp:77] Creating layer lstm2_
I0803 21:16:45.241519 10970 net.cpp:91] Creating Layer lstm2_
I0803 21:16:45.241524 10970 net.cpp:425] lstm2_ <- c_1
I0803 21:16:45.241530 10970 net.cpp:399] lstm2_ -> c_T
I0803 21:16:45.241562 10970 net.cpp:141] Setting up lstm2_
I0803 21:16:45.241571 10970 net.cpp:148] Top shape: 1 1 1000 (1000)
I0803 21:16:45.241575 10970 net.cpp:156] Memory required for data: 94020
I0803 21:16:45.241580 10970 layer_factory.hpp:77] Creating layer lstm2_h_concat
I0803 21:16:45.241588 10970 net.cpp:91] Creating Layer lstm2_h_concat
I0803 21:16:45.241592 10970 net.cpp:425] lstm2_h_concat <- h_1
I0803 21:16:45.241600 10970 net.cpp:399] lstm2_h_concat -> h
I0803 21:16:45.241631 10970 net.cpp:141] Setting up lstm2_h_concat
I0803 21:16:45.241638 10970 net.cpp:148] Top shape: 1 1 1000 (1000)
I0803 21:16:45.241642 10970 net.cpp:156] Memory required for data: 98020
I0803 21:16:45.241647 10970 layer_factory.hpp:77] Creating layer h_pseudoloss
I0803 21:16:45.241657 10970 net.cpp:91] Creating Layer h_pseudoloss
I0803 21:16:45.241662 10970 net.cpp:425] h_pseudoloss <- h
I0803 21:16:45.241668 10970 net.cpp:399] h_pseudoloss -> h_pseudoloss
I0803 21:16:45.241751 10970 net.cpp:141] Setting up h_pseudoloss
…
Java HotSpot(TM) 64-Bit Server VM warning: You have loaded library /tmp/cvld5698412900921754623/libopencv_java310.xine1.so which might have disabled stack guard. The VM will try to fix the stack guard now.
It's highly recommended that you fix the library with 'execstack -c <libfile>', or link it with '-z noexecstack'.
WARNING: Logging before InitGoogleLogging() is written to STDERR
I0803 21:17:05.594691 11190 net.cpp:49] Initializing net from parameters: 
name: "CaffeNet"
state {
  phase: TEST
}
layer {
  name: "data"
  type: "Input"
  top: "data"
  input_param {
    shape {
      dim: 10
      dim: 3
      dim: 227
      dim: 227
    }
  }
}
layer {
  name: "conv1"
  type: "Convolution"
  bottom: "data"
  top: "conv1"
  convolution_param {
    num_output: 96
    kernel_size: 11
    stride: 4
  }
}
layer {
  name: "relu1"
  type: "ReLU"
  bottom: "conv1"
  top: "conv1"
}
layer {
  name: "pool1"
  type: "Pooling"
  bottom: "conv1"
  top: "pool1"
  pooling_param {
    pool: MAX
    kernel_size: 3
    stride: 2
  }
}
layer {
  name: "norm1"
  type: "LRN"
  bottom: "pool1"
  top: "norm1"
  lrn_param {
    local_size: 5
    alpha: 0.0001
    beta: 0.75
  }
}
layer {
  name: "conv2"
  type: "Convolution"
  bottom: "norm1"
  top: "conv2"
  convolution_param {
    num_output: 256
    pad: 2
    kernel_size: 5
    group: 2
  }
}
layer {
  name: "relu2"
  type: "ReLU"
  bottom: "conv2"
  top: "conv2"
}
layer {
  name: "pool2"
  type: "Pooling"
  bottom: "conv2"
  top: "pool2"
  pooling_param {
    pool: MAX
    kernel_size: 3
    stride: 2
  }
}
layer {
  name: "norm2"
  type: "LRN"
  bottom: "pool2"
  top: "norm2"
  lrn_param {
    local_size: 5
    alpha: 0.0001
    beta: 0.75
  }
}
layer {
  name: "conv3"
  type: "Convolution"
  bottom: "norm2"
  top: "conv3"
  convolution_param {
    num_output: 384
    pad: 1
    kernel_size: 3
  }
}
layer {
  name: "relu3"
  type: "ReLU"
  bottom: "conv3"
  top: "conv3"
}
layer {
  name: "conv4"
  type: "Convolution"
  bottom: "conv3"
  top: "conv4"
  convolution_param {
    num_output: 384
    pad: 1
    kernel_size: 3
    group: 2
  }
}
layer {
  name: "relu4"
  type: "ReLU"
  bottom: "conv4"
  top: "conv4"
}
layer {
  name: "conv5"
  type: "Convolution"
  bottom: "conv4"
  top: "conv5"
  convolution_param {
    num_output: 256
    pad: 1
    kernel_size: 3
    group: 2
  }
}
layer {
  name: "relu5"
  type: "ReLU"
  bottom: "conv5"
  top: "conv5"
}
layer {
  name: "pool5"
  type: "Pooling"
  bottom: "conv5"
  top: "pool5"
  pooling_param {
    pool: MAX
    kernel_size: 3
    stride: 2
  }
}
layer {
  name: "fc6"
  type: "InnerProduct"
  bottom: "pool5"
  top: "fc6"
  inner_product_param {
    num_output: 4096
  }
}
layer {
  name: "relu6"
  type: "ReLU"
  bottom: "fc6"
  top: "fc6"
}
layer {
  name: "drop6"
  type: "Dropout"
  bottom: "fc6"
  top: "fc6"
  dropout_param {
    dropout_ratio: 0.5
  }
}
layer {
  name: "fc7"
  type: "InnerProduct"
  bottom: "fc6"
  top: "fc7"
  inner_product_param {
    num_output: 4096
  }
}
layer {
  name: "relu7"
  type: "ReLU"
  bottom: "fc7"
  top: "fc7"
}
layer {
  name: "drop7"
  type: "Dropout"
  bottom: "fc7"
  top: "fc7"
  dropout_param {
    dropout_ratio: 0.5
  }
}
layer {
  name: "fc8"
  type: "InnerProduct"
  bottom: "fc7"
  top: "fc8"
  inner_product_param {
    num_output: 1000
  }
}
layer {
  name: "prob"
  type: "Softmax"
  bottom: "fc8"
  top: "prob"
}
I0803 21:17:05.594893 11190 layer_factory.hpp:77] Creating layer data
I0803 21:17:05.594919 11190 net.cpp:91] Creating Layer data
I0803 21:17:05.594929 11190 net.cpp:399] data -> data
I0803 21:17:06.065913 11190 net.cpp:141] Setting up data
I0803 21:17:06.066001 11190 net.cpp:148] Top shape: 10 3 227 227 (1545870)
I0803 21:17:06.066009 11190 net.cpp:156] Memory required for data: 6183480
I0803 21:17:06.066025 11190 layer_factory.hpp:77] Creating layer conv1
I0803 21:17:06.066054 11190 net.cpp:91] Creating Layer conv1
I0803 21:17:06.066064 11190 net.cpp:425] conv1 <- data
I0803 21:17:06.066077 11190 net.cpp:399] conv1 -> conv1
I0803 21:17:06.089982 11180 upgrade_proto.cpp:66] Attempting to upgrade input file specified using deprecated input fields: /tmp/cvld5698412900921754623/s2vt.words_to_preds.prototxt
I0803 21:17:06.090039 11180 upgrade_proto.cpp:69] Successfully upgraded file specified using deprecated input fields.
W0803 21:17:06.090051 11180 upgrade_proto.cpp:71] Note that future Caffe releases will only support input layers and not input fields.
I0803 21:17:06.090461 11180 net.cpp:49] Initializing net from parameters: 
name: "s2vt:features_to_lstm"
state {
  phase: TEST
}
layer {
  name: "input"
  type: "Input"
  top: "frames_fc7"
  top: "cont_sentence"
  top: "input_sentence"
  top: "stage_indicator"
  input_param {
    shape {
      dim: 1
      dim: 4096
    }
    shape {
      dim: 1
      dim: 1
    }
    shape {
      dim: 1
      dim: 1
    }
    shape {
      dim: 1
      dim: 1
    }
  }
}
layer {
  name: "embed_encoder"
  type: "InnerProduct"
  bottom: "frames_fc7"
  top: "embedded_in_frames"
  param {
    lr_mult: 1
    decay_mult: 1
  }
  param {
    lr_mult: 2
    decay_mult: 0
  }
  inner_product_param {
    num_output: 500
    weight_filler {
      type: "xavier"
    }
    bias_filler {
      type: "constant"
      value: 0.2
    }
  }
}
layer {
  name: "reshape_frames"
  type: "Reshape"
  bottom: "embedded_in_frames"
  top: "embedded_input_frames"
  reshape_param {
    shape {
      dim: 1
      dim: 1
      dim: 500
    }
  }
}
layer {
  name: "reshape_stage_indicator"
  type: "Reshape"
  bottom: "stage_indicator"
  top: "reshaped_stage_indicator"
  reshape_param {
    shape {
      dim: 1
      dim: 1
      dim: 1
    }
  }
}
layer {
  name: "embedding"
  type: "Embed"
  bottom: "input_sentence"
  top: "embedded_input_sentence"
  param {
    lr_mult: 1
  }
  embed_param {
    num_output: 500
    input_dim: 46168
    bias_term: false
    weight_filler {
      type: "uniform"
      min: -0.08
      max: 0.08
    }
  }
}
layer {
  name: "lstm1"
  type: "LSTM"
  bottom: "embedded_input_frames"
  bottom: "cont_sentence"
  top: "lstm1"
  recurrent_param {
    num_output: 1000
    weight_filler {
      type: "uniform"
      min: -0.08
      max: 0.08
    }
    bias_filler {
      type: "constant"
      value: 0
    }
  }
}
layer {
  name: "concat"
  type: "Concat"
  bottom: "lstm1"
  bottom: "embedded_input_sentence"
  bottom: "reshaped_stage_indicator"
  top: "lstm1_video_sequence"
  concat_param {
    concat_dim: 2
  }
}
layer {
  name: "lstm2"
  type: "LSTM"
  bottom: "lstm1_video_sequence"
  bottom: "cont_sentence"
  top: "lstm2"
  recurrent_param {
    num_output: 1000
    weight_filler {
      type: "uniform"
      min: -0.08
      max: 0.08
    }
    bias_filler {
      type: "constant"
      value: 0
    }
  }
}
layer {
  name: "predict"
  type: "InnerProduct"
  bottom: "lstm2"
  top: "predict"
  param {
    lr_mult: 1
    decay_mult: 1
  }
  param {
    lr_mult: 2
    decay_mult: 0
  }
  inner_product_param {
    num_output: 46168
    weight_filler {
      type: "uniform"
      min: -0.08
      max: 0.08
    }
    bias_filler {
      type: "constant"
      value: 0
    }
    axis: 2
  }
}
layer {
  name: "probs"
  type: "Softmax"
  bottom: "predict"
  top: "probs"
  softmax_param {
    axis: 2
  }
}
I0803 21:17:06.090605 11180 layer_factory.hpp:77] Creating layer input
I0803 21:17:06.090628 11180 net.cpp:91] Creating Layer input
I0803 21:17:06.090641 11180 net.cpp:399] input -> frames_fc7
I0803 21:17:06.090670 11180 net.cpp:399] input -> cont_sentence
I0803 21:17:06.090692 11180 net.cpp:399] input -> input_sentence
I0803 21:17:06.090713 11180 net.cpp:399] input -> stage_indicator
I0803 21:17:06.091495 11180 net.cpp:141] Setting up input
I0803 21:17:06.091516 11180 net.cpp:148] Top shape: 1 4096 (4096)
I0803 21:17:06.091531 11180 net.cpp:148] Top shape: 1 1 (1)
I0803 21:17:06.091542 11180 net.cpp:148] Top shape: 1 1 (1)
I0803 21:17:06.091554 11180 net.cpp:148] Top shape: 1 1 (1)
I0803 21:17:06.091563 11180 net.cpp:156] Memory required for data: 16396
I0803 21:17:06.091572 11180 layer_factory.hpp:77] Creating layer cont_sentence_input_1_split
I0803 21:17:06.091598 11180 net.cpp:91] Creating Layer cont_sentence_input_1_split
I0803 21:17:06.091611 11180 net.cpp:425] cont_sentence_input_1_split <- cont_sentence
I0803 21:17:06.091645 11180 net.cpp:399] cont_sentence_input_1_split -> cont_sentence_input_1_split_0
I0803 21:17:06.091665 11180 net.cpp:399] cont_sentence_input_1_split -> cont_sentence_input_1_split_1
I0803 21:17:06.093312 11180 net.cpp:141] Setting up cont_sentence_input_1_split
I0803 21:17:06.093334 11180 net.cpp:148] Top shape: 1 1 (1)
I0803 21:17:06.093348 11180 net.cpp:148] Top shape: 1 1 (1)
I0803 21:17:06.093356 11180 net.cpp:156] Memory required for data: 16404
I0803 21:17:06.093365 11180 layer_factory.hpp:77] Creating layer embed_encoder
I0803 21:17:06.093391 11180 net.cpp:91] Creating Layer embed_encoder
I0803 21:17:06.093405 11180 net.cpp:425] embed_encoder <- frames_fc7
I0803 21:17:06.093423 11180 net.cpp:399] embed_encoder -> embedded_in_frames
I0803 21:17:06.126830 11180 net.cpp:141] Setting up embed_encoder
I0803 21:17:06.126873 11180 net.cpp:148] Top shape: 1 500 (500)
I0803 21:17:06.126883 11180 net.cpp:156] Memory required for data: 18404
I0803 21:17:06.126919 11180 layer_factory.hpp:77] Creating layer reshape_frames
I0803 21:17:06.126950 11180 net.cpp:91] Creating Layer reshape_frames
I0803 21:17:06.126960 11180 net.cpp:425] reshape_frames <- embedded_in_frames
I0803 21:17:06.126976 11180 net.cpp:399] reshape_frames -> embedded_input_frames
I0803 21:17:06.128394 11180 net.cpp:141] Setting up reshape_frames
I0803 21:17:06.128417 11180 net.cpp:148] Top shape: 1 1 500 (500)
I0803 21:17:06.128425 11180 net.cpp:156] Memory required for data: 20404
I0803 21:17:06.128435 11180 layer_factory.hpp:77] Creating layer reshape_stage_indicator
I0803 21:17:06.128453 11180 net.cpp:91] Creating Layer reshape_stage_indicator
I0803 21:17:06.128464 11180 net.cpp:425] reshape_stage_indicator <- stage_indicator
I0803 21:17:06.128479 11180 net.cpp:399] reshape_stage_indicator -> reshaped_stage_indicator
I0803 21:17:06.128881 11180 net.cpp:141] Setting up reshape_stage_indicator
I0803 21:17:06.128901 11180 net.cpp:148] Top shape: 1 1 1 (1)
I0803 21:17:06.128911 11180 net.cpp:156] Memory required for data: 20408
I0803 21:17:06.128921 11180 layer_factory.hpp:77] Creating layer embedding
I0803 21:17:06.128939 11180 net.cpp:91] Creating Layer embedding
I0803 21:17:06.128950 11180 net.cpp:425] embedding <- input_sentence
I0803 21:17:06.128968 11180 net.cpp:399] embedding -> embedded_input_sentence
I0803 21:17:06.317117 11190 net.cpp:141] Setting up conv1
I0803 21:17:06.317186 11190 net.cpp:148] Top shape: 10 96 55 55 (2904000)
I0803 21:17:06.317194 11190 net.cpp:156] Memory required for data: 17799480
I0803 21:17:06.317217 11190 layer_factory.hpp:77] Creating layer relu1
I0803 21:17:06.317255 11190 net.cpp:91] Creating Layer relu1
I0803 21:17:06.317263 11190 net.cpp:425] relu1 <- conv1
I0803 21:17:06.317271 11190 net.cpp:386] relu1 -> conv1 (in-place)
I0803 21:17:06.317679 11190 net.cpp:141] Setting up relu1
I0803 21:17:06.317692 11190 net.cpp:148] Top shape: 10 96 55 55 (2904000)
I0803 21:17:06.317698 11190 net.cpp:156] Memory required for data: 29415480
I0803 21:17:06.317703 11190 layer_factory.hpp:77] Creating layer pool1
I0803 21:17:06.317716 11190 net.cpp:91] Creating Layer pool1
I0803 21:17:06.317723 11190 net.cpp:425] pool1 <- conv1
I0803 21:17:06.317729 11190 net.cpp:399] pool1 -> pool1
I0803 21:17:06.317811 11190 net.cpp:141] Setting up pool1
I0803 21:17:06.317821 11190 net.cpp:148] Top shape: 10 96 27 27 (699840)
I0803 21:17:06.317826 11190 net.cpp:156] Memory required for data: 32214840
I0803 21:17:06.317829 11190 layer_factory.hpp:77] Creating layer norm1
I0803 21:17:06.317850 11190 net.cpp:91] Creating Layer norm1
I0803 21:17:06.317855 11190 net.cpp:425] norm1 <- pool1
I0803 21:17:06.317862 11190 net.cpp:399] norm1 -> norm1
I0803 21:17:06.318301 11190 net.cpp:141] Setting up norm1
I0803 21:17:06.318315 11190 net.cpp:148] Top shape: 10 96 27 27 (699840)
I0803 21:17:06.318320 11190 net.cpp:156] Memory required for data: 35014200
I0803 21:17:06.318325 11190 layer_factory.hpp:77] Creating layer conv2
I0803 21:17:06.318351 11190 net.cpp:91] Creating Layer conv2
I0803 21:17:06.318356 11190 net.cpp:425] conv2 <- norm1
I0803 21:17:06.318366 11190 net.cpp:399] conv2 -> conv2
I0803 21:17:06.321460 11190 net.cpp:141] Setting up conv2
I0803 21:17:06.321491 11190 net.cpp:148] Top shape: 10 256 27 27 (1866240)
I0803 21:17:06.321497 11190 net.cpp:156] Memory required for data: 42479160
I0803 21:17:06.321509 11190 layer_factory.hpp:77] Creating layer relu2
I0803 21:17:06.321517 11190 net.cpp:91] Creating Layer relu2
I0803 21:17:06.321522 11190 net.cpp:425] relu2 <- conv2
I0803 21:17:06.321533 11190 net.cpp:386] relu2 -> conv2 (in-place)
I0803 21:17:06.321929 11190 net.cpp:141] Setting up relu2
I0803 21:17:06.321943 11190 net.cpp:148] Top shape: 10 256 27 27 (1866240)
I0803 21:17:06.321948 11190 net.cpp:156] Memory required for data: 49944120
I0803 21:17:06.321952 11190 layer_factory.hpp:77] Creating layer pool2
I0803 21:17:06.321960 11190 net.cpp:91] Creating Layer pool2
I0803 21:17:06.321964 11190 net.cpp:425] pool2 <- conv2
I0803 21:17:06.321974 11190 net.cpp:399] pool2 -> pool2
I0803 21:17:06.322029 11190 net.cpp:141] Setting up pool2
I0803 21:17:06.322038 11190 net.cpp:148] Top shape: 10 256 13 13 (432640)
I0803 21:17:06.322042 11190 net.cpp:156] Memory required for data: 51674680
I0803 21:17:06.322046 11190 layer_factory.hpp:77] Creating layer norm2
I0803 21:17:06.322060 11190 net.cpp:91] Creating Layer norm2
I0803 21:17:06.322067 11190 net.cpp:425] norm2 <- pool2
I0803 21:17:06.322072 11190 net.cpp:399] norm2 -> norm2
I0803 21:17:06.322324 11190 net.cpp:141] Setting up norm2
I0803 21:17:06.322335 11190 net.cpp:148] Top shape: 10 256 13 13 (432640)
I0803 21:17:06.322340 11190 net.cpp:156] Memory required for data: 53405240
I0803 21:17:06.322345 11190 layer_factory.hpp:77] Creating layer conv3
I0803 21:17:06.322357 11190 net.cpp:91] Creating Layer conv3
I0803 21:17:06.322362 11190 net.cpp:425] conv3 <- norm2
I0803 21:17:06.322371 11190 net.cpp:399] conv3 -> conv3
I0803 21:17:06.326045 11190 net.cpp:141] Setting up conv3
I0803 21:17:06.326078 11190 net.cpp:148] Top shape: 10 384 13 13 (648960)
I0803 21:17:06.326084 11190 net.cpp:156] Memory required for data: 56001080
I0803 21:17:06.326102 11190 layer_factory.hpp:77] Creating layer relu3
I0803 21:17:06.326112 11190 net.cpp:91] Creating Layer relu3
I0803 21:17:06.326117 11190 net.cpp:425] relu3 <- conv3
I0803 21:17:06.326125 11190 net.cpp:386] relu3 -> conv3 (in-place)
I0803 21:17:06.326508 11190 net.cpp:141] Setting up relu3
I0803 21:17:06.326520 11190 net.cpp:148] Top shape: 10 384 13 13 (648960)
I0803 21:17:06.326525 11190 net.cpp:156] Memory required for data: 58596920
I0803 21:17:06.326530 11190 layer_factory.hpp:77] Creating layer conv4
I0803 21:17:06.326542 11190 net.cpp:91] Creating Layer conv4
I0803 21:17:06.326547 11190 net.cpp:425] conv4 <- conv3
I0803 21:17:06.326555 11190 net.cpp:399] conv4 -> conv4
I0803 21:17:06.330391 11190 net.cpp:141] Setting up conv4
I0803 21:17:06.330417 11190 net.cpp:148] Top shape: 10 384 13 13 (648960)
I0803 21:17:06.330423 11190 net.cpp:156] Memory required for data: 61192760
I0803 21:17:06.330432 11190 layer_factory.hpp:77] Creating layer relu4
I0803 21:17:06.330441 11190 net.cpp:91] Creating Layer relu4
I0803 21:17:06.330447 11190 net.cpp:425] relu4 <- conv4
I0803 21:17:06.330456 11190 net.cpp:386] relu4 -> conv4 (in-place)
I0803 21:17:06.330838 11190 net.cpp:141] Setting up relu4
I0803 21:17:06.330855 11190 net.cpp:148] Top shape: 10 384 13 13 (648960)
I0803 21:17:06.330860 11190 net.cpp:156] Memory required for data: 63788600
I0803 21:17:06.330865 11190 layer_factory.hpp:77] Creating layer conv5
I0803 21:17:06.330878 11190 net.cpp:91] Creating Layer conv5
I0803 21:17:06.330884 11190 net.cpp:425] conv5 <- conv4
I0803 21:17:06.330891 11190 net.cpp:399] conv5 -> conv5
I0803 21:17:06.334552 11190 net.cpp:141] Setting up conv5
I0803 21:17:06.334583 11190 net.cpp:148] Top shape: 10 256 13 13 (432640)
I0803 21:17:06.334589 11190 net.cpp:156] Memory required for data: 65519160
I0803 21:17:06.334605 11190 layer_factory.hpp:77] Creating layer relu5
I0803 21:17:06.334614 11190 net.cpp:91] Creating Layer relu5
I0803 21:17:06.334619 11190 net.cpp:425] relu5 <- conv5
I0803 21:17:06.334626 11190 net.cpp:386] relu5 -> conv5 (in-place)
I0803 21:17:06.335023 11190 net.cpp:141] Setting up relu5
I0803 21:17:06.335038 11190 net.cpp:148] Top shape: 10 256 13 13 (432640)
I0803 21:17:06.335042 11190 net.cpp:156] Memory required for data: 67249720
I0803 21:17:06.335047 11190 layer_factory.hpp:77] Creating layer pool5
I0803 21:17:06.335058 11190 net.cpp:91] Creating Layer pool5
I0803 21:17:06.335063 11190 net.cpp:425] pool5 <- conv5
I0803 21:17:06.335070 11190 net.cpp:399] pool5 -> pool5
I0803 21:17:06.335131 11190 net.cpp:141] Setting up pool5
I0803 21:17:06.335141 11190 net.cpp:148] Top shape: 10 256 6 6 (92160)
I0803 21:17:06.335145 11190 net.cpp:156] Memory required for data: 67618360
I0803 21:17:06.335150 11190 layer_factory.hpp:77] Creating layer fc6
I0803 21:17:06.335168 11190 net.cpp:91] Creating Layer fc6
I0803 21:17:06.335175 11190 net.cpp:425] fc6 <- pool5
I0803 21:17:06.335181 11190 net.cpp:399] fc6 -> fc6
I0803 21:17:06.397471 11180 net.cpp:141] Setting up embedding
I0803 21:17:06.397562 11180 net.cpp:148] Top shape: 1 1 500 (500)
I0803 21:17:06.397569 11180 net.cpp:156] Memory required for data: 22408
I0803 21:17:06.397595 11180 layer_factory.hpp:77] Creating layer lstm1
I0803 21:17:06.397739 11180 net.cpp:91] Creating Layer lstm1
I0803 21:17:06.397790 11180 net.cpp:425] lstm1 <- embedded_input_frames
I0803 21:17:06.397807 11180 net.cpp:425] lstm1 <- cont_sentence_input_1_split_0
I0803 21:17:06.397831 11180 net.cpp:399] lstm1 -> lstm1
I0803 21:17:06.397893 11180 recurrent_layer.cpp:20] Initializing recurrent layer: assuming input batch contains 1 timesteps of 1 independent streams.
I0803 21:17:06.398533 11180 net.cpp:49] Initializing net from parameters: 
layer {
  name: "lstm1_"
  type: "Input"
  top: "x"
  top: "cont"
  input_param {
    shape {
      dim: 1
      dim: 1
      dim: 500
    }
    shape {
      dim: 1
      dim: 1
    }
  }
}
layer {
  name: "lstm1_"
  type: "Input"
  top: "c_0"
  top: "h_0"
  input_param {
    shape {
      dim: 1
      dim: 1
      dim: 1000
    }
    shape {
      dim: 1
      dim: 1
      dim: 1000
    }
  }
}
layer {
  name: "lstm1_cont_slice"
  type: "Slice"
  bottom: "cont"
  top: "cont_1"
  slice_param {
    axis: 0
  }
}
layer {
  name: "lstm1_x_transform"
  type: "InnerProduct"
  bottom: "x"
  top: "W_xc_x"
  param {
    name: "W_xc"
  }
  param {
    name: "b_c"
  }
  propagate_down: true
  inner_product_param {
    num_output: 4000
    bias_term: true
    weight_filler {
      type: "uniform"
      min: -0.08
      max: 0.08
    }
    bias_filler {
      type: "constant"
      value: 0
    }
    axis: 2
  }
}
layer {
  name: "lstm1_W_xc_x_slice"
  type: "Slice"
  bottom: "W_xc_x"
  top: "W_xc_x_1"
  slice_param {
    axis: 0
  }
}
layer {
  name: "lstm1_h_conted_0"
  type: "Scale"
  bottom: "h_0"
  bottom: "cont_1"
  top: "h_conted_0"
  scale_param {
    axis: 0
  }
}
layer {
  name: "lstm1_transform_1"
  type: "InnerProduct"
  bottom: "h_conted_0"
  top: "W_hc_h_0"
  param {
    name: "W_hc"
  }
  inner_product_param {
    num_output: 4000
    bias_term: false
    weight_filler {
      type: "uniform"
      min: -0.08
      max: 0.08
    }
    axis: 2
  }
}
layer {
  name: "lstm1_gate_input_1"
  type: "Eltwise"
  bottom: "W_hc_h_0"
  bottom: "W_xc_x_1"
  top: "gate_input_1"
  eltwise_param {
    operation: SUM
  }
}
layer {
  name: "lstm1_unit_1"
  type: "LSTMUnit"
  bottom: "c_0"
  bottom: "gate_input_1"
  bottom: "cont_1"
  top: "c_1"
  top: "h_1"
}
layer {
  name: "lstm1_"
  type: "Split"
  bottom: "c_1"
  top: "c_T"
}
layer {
  name: "lstm1_h_concat"
  type: "Concat"
  bottom: "h_1"
  top: "h"
  concat_param {
    axis: 0
  }
}
layer {
  name: "h_pseudoloss"
  type: "Reduction"
  bottom: "h"
  top: "h_pseudoloss"
  loss_weight: 1
}
I0803 21:17:06.398700 11180 layer_factory.hpp:77] Creating layer lstm1_
I0803 21:17:06.398725 11180 net.cpp:91] Creating Layer lstm1_
I0803 21:17:06.398736 11180 net.cpp:399] lstm1_ -> x
I0803 21:17:06.398758 11180 net.cpp:399] lstm1_ -> cont
I0803 21:17:06.398958 11180 net.cpp:141] Setting up lstm1_
I0803 21:17:06.398979 11180 net.cpp:148] Top shape: 1 1 500 (500)
I0803 21:17:06.398991 11180 net.cpp:148] Top shape: 1 1 (1)
I0803 21:17:06.398999 11180 net.cpp:156] Memory required for data: 2004
I0803 21:17:06.399009 11180 layer_factory.hpp:77] Creating layer lstm1_
I0803 21:17:06.399031 11180 net.cpp:91] Creating Layer lstm1_
I0803 21:17:06.399044 11180 net.cpp:399] lstm1_ -> c_0
I0803 21:17:06.399062 11180 net.cpp:399] lstm1_ -> h_0
I0803 21:17:06.399168 11180 net.cpp:141] Setting up lstm1_
I0803 21:17:06.399186 11180 net.cpp:148] Top shape: 1 1 1000 (1000)
I0803 21:17:06.399197 11180 net.cpp:148] Top shape: 1 1 1000 (1000)
I0803 21:17:06.399205 11180 net.cpp:156] Memory required for data: 10004
I0803 21:17:06.399214 11180 layer_factory.hpp:77] Creating layer lstm1_cont_slice
I0803 21:17:06.399229 11180 net.cpp:91] Creating Layer lstm1_cont_slice
I0803 21:17:06.399238 11180 net.cpp:425] lstm1_cont_slice <- cont
I0803 21:17:06.399256 11180 net.cpp:399] lstm1_cont_slice -> cont_1
I0803 21:17:06.399327 11180 net.cpp:141] Setting up lstm1_cont_slice
I0803 21:17:06.399344 11180 net.cpp:148] Top shape: 1 1 (1)
I0803 21:17:06.399353 11180 net.cpp:156] Memory required for data: 10008
I0803 21:17:06.399360 11180 layer_factory.hpp:77] Creating layer cont_1_lstm1_cont_slice_0_split
I0803 21:17:06.399374 11180 net.cpp:91] Creating Layer cont_1_lstm1_cont_slice_0_split
I0803 21:17:06.399382 11180 net.cpp:425] cont_1_lstm1_cont_slice_0_split <- cont_1
I0803 21:17:06.399394 11180 net.cpp:399] cont_1_lstm1_cont_slice_0_split -> cont_1_lstm1_cont_slice_0_split_0
I0803 21:17:06.399410 11180 net.cpp:399] cont_1_lstm1_cont_slice_0_split -> cont_1_lstm1_cont_slice_0_split_1
I0803 21:17:06.399507 11180 net.cpp:141] Setting up cont_1_lstm1_cont_slice_0_split
I0803 21:17:06.399523 11180 net.cpp:148] Top shape: 1 1 (1)
I0803 21:17:06.399534 11180 net.cpp:148] Top shape: 1 1 (1)
I0803 21:17:06.399543 11180 net.cpp:156] Memory required for data: 10016
I0803 21:17:06.399550 11180 layer_factory.hpp:77] Creating layer lstm1_x_transform
I0803 21:17:06.399572 11180 net.cpp:91] Creating Layer lstm1_x_transform
I0803 21:17:06.399582 11180 net.cpp:425] lstm1_x_transform <- x
I0803 21:17:06.399597 11180 net.cpp:399] lstm1_x_transform -> W_xc_x
I0803 21:17:06.429050 11180 net.cpp:141] Setting up lstm1_x_transform
I0803 21:17:06.429088 11180 net.cpp:148] Top shape: 1 1 4000 (4000)
I0803 21:17:06.429096 11180 net.cpp:156] Memory required for data: 26016
I0803 21:17:06.429129 11180 layer_factory.hpp:77] Creating layer lstm1_W_xc_x_slice
I0803 21:17:06.429143 11180 net.cpp:91] Creating Layer lstm1_W_xc_x_slice
I0803 21:17:06.429150 11180 net.cpp:425] lstm1_W_xc_x_slice <- W_xc_x
I0803 21:17:06.429163 11180 net.cpp:399] lstm1_W_xc_x_slice -> W_xc_x_1
I0803 21:17:06.429214 11180 net.cpp:141] Setting up lstm1_W_xc_x_slice
I0803 21:17:06.429226 11180 net.cpp:148] Top shape: 1 1 4000 (4000)
I0803 21:17:06.429231 11180 net.cpp:156] Memory required for data: 42016
I0803 21:17:06.429246 11180 layer_factory.hpp:77] Creating layer lstm1_h_conted_0
I0803 21:17:06.429260 11180 net.cpp:91] Creating Layer lstm1_h_conted_0
I0803 21:17:06.429266 11180 net.cpp:425] lstm1_h_conted_0 <- h_0
I0803 21:17:06.429275 11180 net.cpp:425] lstm1_h_conted_0 <- cont_1_lstm1_cont_slice_0_split_0
I0803 21:17:06.429299 11180 net.cpp:399] lstm1_h_conted_0 -> h_conted_0
I0803 21:17:06.429384 11180 net.cpp:141] Setting up lstm1_h_conted_0
I0803 21:17:06.429394 11180 net.cpp:148] Top shape: 1 1 1000 (1000)
I0803 21:17:06.429399 11180 net.cpp:156] Memory required for data: 46016
I0803 21:17:06.429404 11180 layer_factory.hpp:77] Creating layer lstm1_transform_1
I0803 21:17:06.429411 11180 net.cpp:91] Creating Layer lstm1_transform_1
I0803 21:17:06.429416 11180 net.cpp:425] lstm1_transform_1 <- h_conted_0
I0803 21:17:06.429426 11180 net.cpp:399] lstm1_transform_1 -> W_hc_h_0
I0803 21:17:06.439369 11190 net.cpp:141] Setting up fc6
I0803 21:17:06.439434 11190 net.cpp:148] Top shape: 10 4096 (40960)
I0803 21:17:06.439440 11190 net.cpp:156] Memory required for data: 67782200
I0803 21:17:06.439456 11190 layer_factory.hpp:77] Creating layer relu6
I0803 21:17:06.439476 11190 net.cpp:91] Creating Layer relu6
I0803 21:17:06.439482 11190 net.cpp:425] relu6 <- fc6
I0803 21:17:06.439494 11190 net.cpp:386] relu6 -> fc6 (in-place)
I0803 21:17:06.439822 11190 net.cpp:141] Setting up relu6
I0803 21:17:06.439832 11190 net.cpp:148] Top shape: 10 4096 (40960)
I0803 21:17:06.439837 11190 net.cpp:156] Memory required for data: 67946040
I0803 21:17:06.439841 11190 layer_factory.hpp:77] Creating layer drop6
I0803 21:17:06.439865 11190 net.cpp:91] Creating Layer drop6
I0803 21:17:06.439870 11190 net.cpp:425] drop6 <- fc6
I0803 21:17:06.439877 11190 net.cpp:386] drop6 -> fc6 (in-place)
I0803 21:17:06.439924 11190 net.cpp:141] Setting up drop6
I0803 21:17:06.439932 11190 net.cpp:148] Top shape: 10 4096 (40960)
I0803 21:17:06.439936 11190 net.cpp:156] Memory required for data: 68109880
I0803 21:17:06.439940 11190 layer_factory.hpp:77] Creating layer fc7
I0803 21:17:06.439954 11190 net.cpp:91] Creating Layer fc7
I0803 21:17:06.439960 11190 net.cpp:425] fc7 <- fc6
I0803 21:17:06.439967 11190 net.cpp:399] fc7 -> fc7
I0803 21:17:06.477939 11180 net.cpp:141] Setting up lstm1_transform_1
I0803 21:17:06.477978 11180 net.cpp:148] Top shape: 1 1 4000 (4000)
I0803 21:17:06.477984 11180 net.cpp:156] Memory required for data: 62016
I0803 21:17:06.478003 11180 layer_factory.hpp:77] Creating layer lstm1_gate_input_1
I0803 21:17:06.478019 11180 net.cpp:91] Creating Layer lstm1_gate_input_1
I0803 21:17:06.478027 11180 net.cpp:425] lstm1_gate_input_1 <- W_hc_h_0
I0803 21:17:06.478035 11180 net.cpp:425] lstm1_gate_input_1 <- W_xc_x_1
I0803 21:17:06.478046 11180 net.cpp:399] lstm1_gate_input_1 -> gate_input_1
I0803 21:17:06.478106 11180 net.cpp:141] Setting up lstm1_gate_input_1
I0803 21:17:06.478116 11180 net.cpp:148] Top shape: 1 1 4000 (4000)
I0803 21:17:06.478121 11180 net.cpp:156] Memory required for data: 78016
I0803 21:17:06.478127 11180 layer_factory.hpp:77] Creating layer lstm1_unit_1
I0803 21:17:06.478135 11180 net.cpp:91] Creating Layer lstm1_unit_1
I0803 21:17:06.478142 11180 net.cpp:425] lstm1_unit_1 <- c_0
I0803 21:17:06.478147 11180 net.cpp:425] lstm1_unit_1 <- gate_input_1
I0803 21:17:06.478153 11180 net.cpp:425] lstm1_unit_1 <- cont_1_lstm1_cont_slice_0_split_1
I0803 21:17:06.478163 11180 net.cpp:399] lstm1_unit_1 -> c_1
I0803 21:17:06.478173 11180 net.cpp:399] lstm1_unit_1 -> h_1
I0803 21:17:06.478242 11180 net.cpp:141] Setting up lstm1_unit_1
I0803 21:17:06.478252 11180 net.cpp:148] Top shape: 1 1 1000 (1000)
I0803 21:17:06.478258 11180 net.cpp:148] Top shape: 1 1 1000 (1000)
I0803 21:17:06.478263 11180 net.cpp:156] Memory required for data: 86016
I0803 21:17:06.478268 11180 layer_factory.hpp:77] Creating layer lstm1_
I0803 21:17:06.478276 11180 net.cpp:91] Creating Layer lstm1_
I0803 21:17:06.478282 11180 net.cpp:425] lstm1_ <- c_1
I0803 21:17:06.478289 11180 net.cpp:399] lstm1_ -> c_T
I0803 21:17:06.478325 11180 net.cpp:141] Setting up lstm1_
I0803 21:17:06.478335 11180 net.cpp:148] Top shape: 1 1 1000 (1000)
I0803 21:17:06.478340 11180 net.cpp:156] Memory required for data: 90016
I0803 21:17:06.478345 11180 layer_factory.hpp:77] Creating layer lstm1_h_concat
I0803 21:17:06.478354 11180 net.cpp:91] Creating Layer lstm1_h_concat
I0803 21:17:06.478360 11180 net.cpp:425] lstm1_h_concat <- h_1
I0803 21:17:06.478368 11180 net.cpp:399] lstm1_h_concat -> h
I0803 21:17:06.478404 11180 net.cpp:141] Setting up lstm1_h_concat
I0803 21:17:06.478415 11180 net.cpp:148] Top shape: 1 1 1000 (1000)
I0803 21:17:06.478418 11180 net.cpp:156] Memory required for data: 94016
I0803 21:17:06.478423 11180 layer_factory.hpp:77] Creating layer h_pseudoloss
I0803 21:17:06.478444 11180 net.cpp:91] Creating Layer h_pseudoloss
I0803 21:17:06.478451 11180 net.cpp:425] h_pseudoloss <- h
I0803 21:17:06.478457 11180 net.cpp:399] h_pseudoloss -> h_pseudoloss
I0803 21:17:06.478560 11180 net.cpp:141] Setting up h_pseudoloss
…
