…
Java HotSpot(TM) 64-Bit Server VM warning: You have loaded library /tmp/cvld1036097277010869544/libopencv_java310.xine1.so which might have disabled stack guard. The VM will try to fix the stack guard now.
It's highly recommended that you fix the library with 'execstack -c <libfile>', or link it with '-z noexecstack'.
WARNING: Logging before InitGoogleLogging() is written to STDERR
I0720 11:50:07.811002  7830 net.cpp:49] Initializing net from parameters: 
name: "CaffeNet"
state {
  phase: TEST
}
layer {
  name: "data"
  type: "Input"
  top: "data"
  input_param {
    shape {
      dim: 10
      dim: 3
      dim: 227
      dim: 227
    }
  }
}
layer {
  name: "conv1"
  type: "Convolution"
  bottom: "data"
  top: "conv1"
  convolution_param {
    num_output: 96
    kernel_size: 11
    stride: 4
  }
}
layer {
  name: "relu1"
  type: "ReLU"
  bottom: "conv1"
  top: "conv1"
}
layer {
  name: "pool1"
  type: "Pooling"
  bottom: "conv1"
  top: "pool1"
  pooling_param {
    pool: MAX
    kernel_size: 3
    stride: 2
  }
}
layer {
  name: "norm1"
  type: "LRN"
  bottom: "pool1"
  top: "norm1"
  lrn_param {
    local_size: 5
    alpha: 0.0001
    beta: 0.75
  }
}
layer {
  name: "conv2"
  type: "Convolution"
  bottom: "norm1"
  top: "conv2"
  convolution_param {
    num_output: 256
    pad: 2
    kernel_size: 5
    group: 2
  }
}
layer {
  name: "relu2"
  type: "ReLU"
  bottom: "conv2"
  top: "conv2"
}
layer {
  name: "pool2"
  type: "Pooling"
  bottom: "conv2"
  top: "pool2"
  pooling_param {
    pool: MAX
    kernel_size: 3
    stride: 2
  }
}
layer {
  name: "norm2"
  type: "LRN"
  bottom: "pool2"
  top: "norm2"
  lrn_param {
    local_size: 5
    alpha: 0.0001
    beta: 0.75
  }
}
layer {
  name: "conv3"
  type: "Convolution"
  bottom: "norm2"
  top: "conv3"
  convolution_param {
    num_output: 384
    pad: 1
    kernel_size: 3
  }
}
layer {
  name: "relu3"
  type: "ReLU"
  bottom: "conv3"
  top: "conv3"
}
layer {
  name: "conv4"
  type: "Convolution"
  bottom: "conv3"
  top: "conv4"
  convolution_param {
    num_output: 384
    pad: 1
    kernel_size: 3
    group: 2
  }
}
layer {
  name: "relu4"
  type: "ReLU"
  bottom: "conv4"
  top: "conv4"
}
layer {
  name: "conv5"
  type: "Convolution"
  bottom: "conv4"
  top: "conv5"
  convolution_param {
    num_output: 256
    pad: 1
    kernel_size: 3
    group: 2
  }
}
layer {
  name: "relu5"
  type: "ReLU"
  bottom: "conv5"
  top: "conv5"
}
layer {
  name: "pool5"
  type: "Pooling"
  bottom: "conv5"
  top: "pool5"
  pooling_param {
    pool: MAX
    kernel_size: 3
    stride: 2
  }
}
layer {
  name: "fc6"
  type: "InnerProduct"
  bottom: "pool5"
  top: "fc6"
  inner_product_param {
    num_output: 4096
  }
}
layer {
  name: "relu6"
  type: "ReLU"
  bottom: "fc6"
  top: "fc6"
}
layer {
  name: "drop6"
  type: "Dropout"
  bottom: "fc6"
  top: "fc6"
  dropout_param {
    dropout_ratio: 0.5
  }
}
layer {
  name: "fc7"
  type: "InnerProduct"
  bottom: "fc6"
  top: "fc7"
  inner_product_param {
    num_output: 4096
  }
}
layer {
  name: "relu7"
  type: "ReLU"
  bottom: "fc7"
  top: "fc7"
}
layer {
  name: "drop7"
  type: "Dropout"
  bottom: "fc7"
  top: "fc7"
  dropout_param {
    dropout_ratio: 0.5
  }
}
layer {
  name: "fc8"
  type: "InnerProduct"
  bottom: "fc7"
  top: "fc8"
  inner_product_param {
    num_output: 1000
  }
}
layer {
  name: "prob"
  type: "Softmax"
  bottom: "fc8"
  top: "prob"
}
I0720 11:50:07.811184  7830 layer_factory.hpp:77] Creating layer data
I0720 11:50:07.811208  7830 net.cpp:91] Creating Layer data
I0720 11:50:07.811218  7830 net.cpp:399] data -> data
I0720 11:50:07.816493  7818 net.cpp:49] Initializing net from parameters: 
name: "CaffeNet"
state {
  phase: TEST
}
layer {
  name: "data"
  type: "Input"
  top: "data"
  input_param {
    shape {
      dim: 10
      dim: 3
      dim: 227
      dim: 227
    }
  }
}
layer {
  name: "conv1"
  type: "Convolution"
  bottom: "data"
  top: "conv1"
  convolution_param {
    num_output: 96
    kernel_size: 11
    stride: 4
  }
}
layer {
  name: "relu1"
  type: "ReLU"
  bottom: "conv1"
  top: "conv1"
}
layer {
  name: "pool1"
  type: "Pooling"
  bottom: "conv1"
  top: "pool1"
  pooling_param {
    pool: MAX
    kernel_size: 3
    stride: 2
  }
}
layer {
  name: "norm1"
  type: "LRN"
  bottom: "pool1"
  top: "norm1"
  lrn_param {
    local_size: 5
    alpha: 0.0001
    beta: 0.75
  }
}
layer {
  name: "conv2"
  type: "Convolution"
  bottom: "norm1"
  top: "conv2"
  convolution_param {
    num_output: 256
    pad: 2
    kernel_size: 5
    group: 2
  }
}
layer {
  name: "relu2"
  type: "ReLU"
  bottom: "conv2"
  top: "conv2"
}
layer {
  name: "pool2"
  type: "Pooling"
  bottom: "conv2"
  top: "pool2"
  pooling_param {
    pool: MAX
    kernel_size: 3
    stride: 2
  }
}
layer {
  name: "norm2"
  type: "LRN"
  bottom: "pool2"
  top: "norm2"
  lrn_param {
    local_size: 5
    alpha: 0.0001
    beta: 0.75
  }
}
layer {
  name: "conv3"
  type: "Convolution"
  bottom: "norm2"
  top: "conv3"
  convolution_param {
    num_output: 384
    pad: 1
    kernel_size: 3
  }
}
layer {
  name: "relu3"
  type: "ReLU"
  bottom: "conv3"
  top: "conv3"
}
layer {
  name: "conv4"
  type: "Convolution"
  bottom: "conv3"
  top: "conv4"
  convolution_param {
    num_output: 384
    pad: 1
    kernel_size: 3
    group: 2
  }
}
layer {
  name: "relu4"
  type: "ReLU"
  bottom: "conv4"
  top: "conv4"
}
layer {
  name: "conv5"
  type: "Convolution"
  bottom: "conv4"
  top: "conv5"
  convolution_param {
    num_output: 256
    pad: 1
    kernel_size: 3
    group: 2
  }
}
layer {
  name: "relu5"
  type: "ReLU"
  bottom: "conv5"
  top: "conv5"
}
layer {
  name: "pool5"
  type: "Pooling"
  bottom: "conv5"
  top: "pool5"
  pooling_param {
    pool: MAX
    kernel_size: 3
    stride: 2
  }
}
layer {
  name: "fc6"
  type: "InnerProduct"
  bottom: "pool5"
  top: "fc6"
  inner_product_param {
    num_output: 4096
  }
}
layer {
  name: "relu6"
  type: "ReLU"
  bottom: "fc6"
  top: "fc6"
}
layer {
  name: "drop6"
  type: "Dropout"
  bottom: "fc6"
  top: "fc6"
  dropout_param {
    dropout_ratio: 0.5
  }
}
layer {
  name: "fc7"
  type: "InnerProduct"
  bottom: "fc6"
  top: "fc7"
  inner_product_param {
    num_output: 4096
  }
}
layer {
  name: "relu7"
  type: "ReLU"
  bottom: "fc7"
  top: "fc7"
}
layer {
  name: "drop7"
  type: "Dropout"
  bottom: "fc7"
  top: "fc7"
  dropout_param {
    dropout_ratio: 0.5
  }
}
layer {
  name: "fc8"
  type: "InnerProduct"
  bottom: "fc7"
  top: "fc8"
  inner_product_param {
    num_output: 1000
  }
}
layer {
  name: "prob"
  type: "Softmax"
  bottom: "fc8"
  top: "prob"
}
I0720 11:50:07.816592  7818 layer_factory.hpp:77] Creating layer data
I0720 11:50:07.816606  7818 net.cpp:91] Creating Layer data
I0720 11:50:07.816613  7818 net.cpp:399] data -> data
I0720 11:50:07.993273  7824 upgrade_proto.cpp:66] Attempting to upgrade input file specified using deprecated input fields: /tmp/cvld1036097277010869544/s2vt.words_to_preds.prototxt
I0720 11:50:07.993362  7824 upgrade_proto.cpp:69] Successfully upgraded file specified using deprecated input fields.
W0720 11:50:07.993379  7824 upgrade_proto.cpp:71] Note that future Caffe releases will only support input layers and not input fields.
I0720 11:50:07.993783  7824 net.cpp:49] Initializing net from parameters: 
name: "s2vt:features_to_lstm"
state {
  phase: TEST
}
layer {
  name: "input"
  type: "Input"
  top: "frames_fc7"
  top: "cont_sentence"
  top: "input_sentence"
  top: "stage_indicator"
  input_param {
    shape {
      dim: 1
      dim: 4096
    }
    shape {
      dim: 1
      dim: 1
    }
    shape {
      dim: 1
      dim: 1
    }
    shape {
      dim: 1
      dim: 1
    }
  }
}
layer {
  name: "embed_encoder"
  type: "InnerProduct"
  bottom: "frames_fc7"
  top: "embedded_in_frames"
  param {
    lr_mult: 1
    decay_mult: 1
  }
  param {
    lr_mult: 2
    decay_mult: 0
  }
  inner_product_param {
    num_output: 500
    weight_filler {
      type: "xavier"
    }
    bias_filler {
      type: "constant"
      value: 0.2
    }
  }
}
layer {
  name: "reshape_frames"
  type: "Reshape"
  bottom: "embedded_in_frames"
  top: "embedded_input_frames"
  reshape_param {
    shape {
      dim: 1
      dim: 1
      dim: 500
    }
  }
}
layer {
  name: "reshape_stage_indicator"
  type: "Reshape"
  bottom: "stage_indicator"
  top: "reshaped_stage_indicator"
  reshape_param {
    shape {
      dim: 1
      dim: 1
      dim: 1
    }
  }
}
layer {
  name: "embedding"
  type: "Embed"
  bottom: "input_sentence"
  top: "embedded_input_sentence"
  param {
    lr_mult: 1
  }
  embed_param {
    num_output: 500
    input_dim: 46168
    bias_term: false
    weight_filler {
      type: "uniform"
      min: -0.08
      max: 0.08
    }
  }
}
layer {
  name: "lstm1"
  type: "LSTM"
  bottom: "embedded_input_frames"
  bottom: "cont_sentence"
  top: "lstm1"
  recurrent_param {
    num_output: 1000
    weight_filler {
      type: "uniform"
      min: -0.08
      max: 0.08
    }
    bias_filler {
      type: "constant"
      value: 0
    }
  }
}
layer {
  name: "concat"
  type: "Concat"
  bottom: "lstm1"
  bottom: "embedded_input_sentence"
  bottom: "reshaped_stage_indicator"
  top: "lstm1_video_sequence"
  concat_param {
    concat_dim: 2
  }
}
layer {
  name: "lstm2"
  type: "LSTM"
  bottom: "lstm1_video_sequence"
  bottom: "cont_sentence"
  top: "lstm2"
  recurrent_param {
    num_output: 1000
    weight_filler {
      type: "uniform"
      min: -0.08
      max: 0.08
    }
    bias_filler {
      type: "constant"
      value: 0
    }
  }
}
layer {
  name: "predict"
  type: "InnerProduct"
  bottom: "lstm2"
  top: "predict"
  param {
    lr_mult: 1
    decay_mult: 1
  }
  param {
    lr_mult: 2
    decay_mult: 0
  }
  inner_product_param {
    num_output: 46168
    weight_filler {
      type: "uniform"
      min: -0.08
      max: 0.08
    }
    bias_filler {
      type: "constant"
      value: 0
    }
    axis: 2
  }
}
layer {
  name: "probs"
  type: "Softmax"
  bottom: "predict"
  top: "probs"
  softmax_param {
    axis: 2
  }
}
I0720 11:50:07.993927  7824 layer_factory.hpp:77] Creating layer input
I0720 11:50:07.993944  7824 net.cpp:91] Creating Layer input
I0720 11:50:07.993953  7824 net.cpp:399] input -> frames_fc7
I0720 11:50:07.993973  7824 net.cpp:399] input -> cont_sentence
I0720 11:50:07.993986  7824 net.cpp:399] input -> input_sentence
I0720 11:50:07.993998  7824 net.cpp:399] input -> stage_indicator
I0720 11:50:08.000519  7820 upgrade_proto.cpp:66] Attempting to upgrade input file specified using deprecated input fields: /tmp/cvld1036097277010869544/s2vt.words_to_preds.prototxt
I0720 11:50:08.000555  7820 upgrade_proto.cpp:69] Successfully upgraded file specified using deprecated input fields.
W0720 11:50:08.000561  7820 upgrade_proto.cpp:71] Note that future Caffe releases will only support input layers and not input fields.
I0720 11:50:08.000821  7820 net.cpp:49] Initializing net from parameters: 
name: "s2vt:features_to_lstm"
state {
  phase: TEST
}
layer {
  name: "input"
  type: "Input"
  top: "frames_fc7"
  top: "cont_sentence"
  top: "input_sentence"
  top: "stage_indicator"
  input_param {
    shape {
      dim: 1
      dim: 4096
    }
    shape {
      dim: 1
      dim: 1
    }
    shape {
      dim: 1
      dim: 1
    }
    shape {
      dim: 1
      dim: 1
    }
  }
}
layer {
  name: "embed_encoder"
  type: "InnerProduct"
  bottom: "frames_fc7"
  top: "embedded_in_frames"
  param {
    lr_mult: 1
    decay_mult: 1
  }
  param {
    lr_mult: 2
    decay_mult: 0
  }
  inner_product_param {
    num_output: 500
    weight_filler {
      type: "xavier"
    }
    bias_filler {
      type: "constant"
      value: 0.2
    }
  }
}
layer {
  name: "reshape_frames"
  type: "Reshape"
  bottom: "embedded_in_frames"
  top: "embedded_input_frames"
  reshape_param {
    shape {
      dim: 1
      dim: 1
      dim: 500
    }
  }
}
layer {
  name: "reshape_stage_indicator"
  type: "Reshape"
  bottom: "stage_indicator"
  top: "reshaped_stage_indicator"
  reshape_param {
    shape {
      dim: 1
      dim: 1
      dim: 1
    }
  }
}
layer {
  name: "embedding"
  type: "Embed"
  bottom: "input_sentence"
  top: "embedded_input_sentence"
  param {
    lr_mult: 1
  }
  embed_param {
    num_output: 500
    input_dim: 46168
    bias_term: false
    weight_filler {
      type: "uniform"
      min: -0.08
      max: 0.08
    }
  }
}
layer {
  name: "lstm1"
  type: "LSTM"
  bottom: "embedded_input_frames"
  bottom: "cont_sentence"
  top: "lstm1"
  recurrent_param {
    num_output: 1000
    weight_filler {
      type: "uniform"
      min: -0.08
      max: 0.08
    }
    bias_filler {
      type: "constant"
      value: 0
    }
  }
}
layer {
  name: "concat"
  type: "Concat"
  bottom: "lstm1"
  bottom: "embedded_input_sentence"
  bottom: "reshaped_stage_indicator"
  top: "lstm1_video_sequence"
  concat_param {
    concat_dim: 2
  }
}
layer {
  name: "lstm2"
  type: "LSTM"
  bottom: "lstm1_video_sequence"
  bottom: "cont_sentence"
  top: "lstm2"
  recurrent_param {
    num_output: 1000
    weight_filler {
      type: "uniform"
      min: -0.08
      max: 0.08
    }
    bias_filler {
      type: "constant"
      value: 0
    }
  }
}
layer {
  name: "predict"
  type: "InnerProduct"
  bottom: "lstm2"
  top: "predict"
  param {
    lr_mult: 1
    decay_mult: 1
  }
  param {
    lr_mult: 2
    decay_mult: 0
  }
  inner_product_param {
    num_output: 46168
    weight_filler {
      type: "uniform"
      min: -0.08
      max: 0.08
    }
    bias_filler {
      type: "constant"
      value: 0
    }
    axis: 2
  }
}
layer {
  name: "probs"
  type: "Softmax"
  bottom: "predict"
  top: "probs"
  softmax_param {
    axis: 2
  }
}
I0720 11:50:08.000934  7820 layer_factory.hpp:77] Creating layer input
I0720 11:50:08.000951  7820 net.cpp:91] Creating Layer input
I0720 11:50:08.000958  7820 net.cpp:399] input -> frames_fc7
I0720 11:50:08.000974  7820 net.cpp:399] input -> cont_sentence
I0720 11:50:08.000984  7820 net.cpp:399] input -> input_sentence
I0720 11:50:08.000993  7820 net.cpp:399] input -> stage_indicator
I0720 11:50:08.699434  7830 net.cpp:141] Setting up data
I0720 11:50:08.699517  7830 net.cpp:148] Top shape: 10 3 227 227 (1545870)
I0720 11:50:08.699523  7830 net.cpp:156] Memory required for data: 6183480
I0720 11:50:08.699543  7830 layer_factory.hpp:77] Creating layer conv1
I0720 11:50:08.699569  7830 net.cpp:91] Creating Layer conv1
I0720 11:50:08.699579  7830 net.cpp:425] conv1 <- data
I0720 11:50:08.699590  7830 net.cpp:399] conv1 -> conv1
I0720 11:50:08.699887  7824 net.cpp:141] Setting up input
I0720 11:50:08.699945  7824 net.cpp:148] Top shape: 1 4096 (4096)
I0720 11:50:08.699961  7824 net.cpp:148] Top shape: 1 1 (1)
I0720 11:50:08.699972  7824 net.cpp:148] Top shape: 1 1 (1)
I0720 11:50:08.699985  7824 net.cpp:148] Top shape: 1 1 (1)
I0720 11:50:08.699992  7824 net.cpp:156] Memory required for data: 16396
I0720 11:50:08.700016  7824 layer_factory.hpp:77] Creating layer cont_sentence_input_1_split
I0720 11:50:08.700064  7824 net.cpp:91] Creating Layer cont_sentence_input_1_split
I0720 11:50:08.700078  7824 net.cpp:425] cont_sentence_input_1_split <- cont_sentence
I0720 11:50:08.700129  7824 net.cpp:399] cont_sentence_input_1_split -> cont_sentence_input_1_split_0
I0720 11:50:08.700155  7824 net.cpp:399] cont_sentence_input_1_split -> cont_sentence_input_1_split_1
I0720 11:50:08.704954  7824 net.cpp:141] Setting up cont_sentence_input_1_split
I0720 11:50:08.704991  7824 net.cpp:148] Top shape: 1 1 (1)
I0720 11:50:08.705005  7824 net.cpp:148] Top shape: 1 1 (1)
I0720 11:50:08.705014  7824 net.cpp:156] Memory required for data: 16404
I0720 11:50:08.705025  7824 layer_factory.hpp:77] Creating layer embed_encoder
I0720 11:50:08.705067  7824 net.cpp:91] Creating Layer embed_encoder
I0720 11:50:08.705080  7824 net.cpp:425] embed_encoder <- frames_fc7
I0720 11:50:08.705099  7824 net.cpp:399] embed_encoder -> embedded_in_frames
I0720 11:50:08.732699  7818 net.cpp:141] Setting up data
I0720 11:50:08.732765  7818 net.cpp:148] Top shape: 10 3 227 227 (1545870)
I0720 11:50:08.732775  7818 net.cpp:156] Memory required for data: 6183480
I0720 11:50:08.732790  7818 layer_factory.hpp:77] Creating layer conv1
I0720 11:50:08.732825  7818 net.cpp:91] Creating Layer conv1
I0720 11:50:08.732834  7818 net.cpp:425] conv1 <- data
I0720 11:50:08.732851  7818 net.cpp:399] conv1 -> conv1
I0720 11:50:08.737424  7820 net.cpp:141] Setting up input
I0720 11:50:08.737452  7820 net.cpp:148] Top shape: 1 4096 (4096)
I0720 11:50:08.737458  7820 net.cpp:148] Top shape: 1 1 (1)
I0720 11:50:08.737464  7820 net.cpp:148] Top shape: 1 1 (1)
I0720 11:50:08.737470  7820 net.cpp:148] Top shape: 1 1 (1)
I0720 11:50:08.737474  7820 net.cpp:156] Memory required for data: 16396
I0720 11:50:08.737480  7820 layer_factory.hpp:77] Creating layer cont_sentence_input_1_split
I0720 11:50:08.737493  7820 net.cpp:91] Creating Layer cont_sentence_input_1_split
I0720 11:50:08.737498  7820 net.cpp:425] cont_sentence_input_1_split <- cont_sentence
I0720 11:50:08.737517  7820 net.cpp:399] cont_sentence_input_1_split -> cont_sentence_input_1_split_0
I0720 11:50:08.737530  7820 net.cpp:399] cont_sentence_input_1_split -> cont_sentence_input_1_split_1
I0720 11:50:08.742914  7820 net.cpp:141] Setting up cont_sentence_input_1_split
I0720 11:50:08.742933  7820 net.cpp:148] Top shape: 1 1 (1)
I0720 11:50:08.742940  7820 net.cpp:148] Top shape: 1 1 (1)
I0720 11:50:08.742945  7820 net.cpp:156] Memory required for data: 16404
I0720 11:50:08.742951  7820 layer_factory.hpp:77] Creating layer embed_encoder
I0720 11:50:08.742974  7820 net.cpp:91] Creating Layer embed_encoder
I0720 11:50:08.742981  7820 net.cpp:425] embed_encoder <- frames_fc7
I0720 11:50:08.742990  7820 net.cpp:399] embed_encoder -> embedded_in_frames
I0720 11:50:08.772796  7824 net.cpp:141] Setting up embed_encoder
I0720 11:50:08.772831  7824 net.cpp:148] Top shape: 1 500 (500)
I0720 11:50:08.772840  7824 net.cpp:156] Memory required for data: 18404
I0720 11:50:08.772873  7824 layer_factory.hpp:77] Creating layer reshape_frames
I0720 11:50:08.772909  7824 net.cpp:91] Creating Layer reshape_frames
I0720 11:50:08.772919  7824 net.cpp:425] reshape_frames <- embedded_in_frames
I0720 11:50:08.772935  7824 net.cpp:399] reshape_frames -> embedded_input_frames
I0720 11:50:08.775037  7824 net.cpp:141] Setting up reshape_frames
I0720 11:50:08.775063  7824 net.cpp:148] Top shape: 1 1 500 (500)
I0720 11:50:08.775071  7824 net.cpp:156] Memory required for data: 20404
I0720 11:50:08.775079  7824 layer_factory.hpp:77] Creating layer reshape_stage_indicator
I0720 11:50:08.775096  7824 net.cpp:91] Creating Layer reshape_stage_indicator
I0720 11:50:08.775107  7824 net.cpp:425] reshape_stage_indicator <- stage_indicator
I0720 11:50:08.775141  7824 net.cpp:399] reshape_stage_indicator -> reshaped_stage_indicator
I0720 11:50:08.792295  7824 net.cpp:141] Setting up reshape_stage_indicator
I0720 11:50:08.792322  7824 net.cpp:148] Top shape: 1 1 1 (1)
I0720 11:50:08.792330  7824 net.cpp:156] Memory required for data: 20408
I0720 11:50:08.792338  7824 layer_factory.hpp:77] Creating layer embedding
I0720 11:50:08.792363  7824 net.cpp:91] Creating Layer embedding
I0720 11:50:08.792372  7824 net.cpp:425] embedding <- input_sentence
I0720 11:50:08.792388  7824 net.cpp:399] embedding -> embedded_input_sentence
I0720 11:50:08.888836  7820 net.cpp:141] Setting up embed_encoder
I0720 11:50:08.888877  7820 net.cpp:148] Top shape: 1 500 (500)
I0720 11:50:08.888883  7820 net.cpp:156] Memory required for data: 18404
I0720 11:50:08.888906  7820 layer_factory.hpp:77] Creating layer reshape_frames
I0720 11:50:08.888924  7820 net.cpp:91] Creating Layer reshape_frames
I0720 11:50:08.888931  7820 net.cpp:425] reshape_frames <- embedded_in_frames
I0720 11:50:08.888942  7820 net.cpp:399] reshape_frames -> embedded_input_frames
I0720 11:50:08.895401  7820 net.cpp:141] Setting up reshape_frames
I0720 11:50:08.895421  7820 net.cpp:148] Top shape: 1 1 500 (500)
I0720 11:50:08.895427  7820 net.cpp:156] Memory required for data: 20404
I0720 11:50:08.895433  7820 layer_factory.hpp:77] Creating layer reshape_stage_indicator
I0720 11:50:08.895447  7820 net.cpp:91] Creating Layer reshape_stage_indicator
I0720 11:50:08.895452  7820 net.cpp:425] reshape_stage_indicator <- stage_indicator
I0720 11:50:08.895464  7820 net.cpp:399] reshape_stage_indicator -> reshaped_stage_indicator
I0720 11:50:08.902453  7820 net.cpp:141] Setting up reshape_stage_indicator
I0720 11:50:08.902474  7820 net.cpp:148] Top shape: 1 1 1 (1)
I0720 11:50:08.902480  7820 net.cpp:156] Memory required for data: 20408
I0720 11:50:08.902487  7820 layer_factory.hpp:77] Creating layer embedding
I0720 11:50:08.902504  7820 net.cpp:91] Creating Layer embedding
I0720 11:50:08.902511  7820 net.cpp:425] embedding <- input_sentence
I0720 11:50:08.902520  7820 net.cpp:399] embedding -> embedded_input_sentence
I0720 11:50:09.131999  7824 net.cpp:141] Setting up embedding
I0720 11:50:09.132056  7824 net.cpp:148] Top shape: 1 1 500 (500)
I0720 11:50:09.132063  7824 net.cpp:156] Memory required for data: 22408
I0720 11:50:09.132086  7824 layer_factory.hpp:77] Creating layer lstm1
I0720 11:50:09.132112  7824 net.cpp:91] Creating Layer lstm1
I0720 11:50:09.132122  7824 net.cpp:425] lstm1 <- embedded_input_frames
I0720 11:50:09.132131  7824 net.cpp:425] lstm1 <- cont_sentence_input_1_split_0
I0720 11:50:09.132141  7824 net.cpp:399] lstm1 -> lstm1
I0720 11:50:09.132191  7824 recurrent_layer.cpp:20] Initializing recurrent layer: assuming input batch contains 1 timesteps of 1 independent streams.
I0720 11:50:09.132923  7824 net.cpp:49] Initializing net from parameters: 
layer {
  name: "lstm1_"
  type: "Input"
  top: "x"
  top: "cont"
  input_param {
    shape {
      dim: 1
      dim: 1
      dim: 500
    }
    shape {
      dim: 1
      dim: 1
    }
  }
}
layer {
  name: "lstm1_"
  type: "Input"
  top: "c_0"
  top: "h_0"
  input_param {
    shape {
      dim: 1
      dim: 1
      dim: 1000
    }
    shape {
      dim: 1
      dim: 1
      dim: 1000
    }
  }
}
layer {
  name: "lstm1_cont_slice"
  type: "Slice"
  bottom: "cont"
  top: "cont_1"
  slice_param {
    axis: 0
  }
}
layer {
  name: "lstm1_x_transform"
  type: "InnerProduct"
  bottom: "x"
  top: "W_xc_x"
  param {
    name: "W_xc"
  }
  param {
    name: "b_c"
  }
  propagate_down: true
  inner_product_param {
    num_output: 4000
    bias_term: true
    weight_filler {
      type: "uniform"
      min: -0.08
      max: 0.08
    }
    bias_filler {
      type: "constant"
      value: 0
    }
    axis: 2
  }
}
layer {
  name: "lstm1_W_xc_x_slice"
  type: "Slice"
  bottom: "W_xc_x"
  top: "W_xc_x_1"
  slice_param {
    axis: 0
  }
}
layer {
  name: "lstm1_h_conted_0"
  type: "Scale"
  bottom: "h_0"
  bottom: "cont_1"
  top: "h_conted_0"
  scale_param {
    axis: 0
  }
}
layer {
  name: "lstm1_transform_1"
  type: "InnerProduct"
  bottom: "h_conted_0"
  top: "W_hc_h_0"
  param {
    name: "W_hc"
  }
  inner_product_param {
    num_output: 4000
    bias_term: false
    weight_filler {
      type: "uniform"
      min: -0.08
      max: 0.08
    }
    axis: 2
  }
}
layer {
  name: "lstm1_gate_input_1"
  type: "Eltwise"
  bottom: "W_hc_h_0"
  bottom: "W_xc_x_1"
  top: "gate_input_1"
  eltwise_param {
    operation: SUM
  }
}
layer {
  name: "lstm1_unit_1"
  type: "LSTMUnit"
  bottom: "c_0"
  bottom: "gate_input_1"
  bottom: "cont_1"
  top: "c_1"
  top: "h_1"
}
layer {
  name: "lstm1_"
  type: "Split"
  bottom: "c_1"
  top: "c_T"
}
layer {
  name: "lstm1_h_concat"
  type: "Concat"
  bottom: "h_1"
  top: "h"
  concat_param {
    axis: 0
  }
}
layer {
  name: "h_pseudoloss"
  type: "Reduction"
  bottom: "h"
  top: "h_pseudoloss"
  loss_weight: 1
}
I0720 11:50:09.133030  7824 layer_factory.hpp:77] Creating layer lstm1_
I0720 11:50:09.133045  7824 net.cpp:91] Creating Layer lstm1_
I0720 11:50:09.133052  7824 net.cpp:399] lstm1_ -> x
I0720 11:50:09.133066  7824 net.cpp:399] lstm1_ -> cont
I0720 11:50:09.138676  7820 net.cpp:141] Setting up embedding
I0720 11:50:09.138723  7820 net.cpp:148] Top shape: 1 1 500 (500)
I0720 11:50:09.138730  7820 net.cpp:156] Memory required for data: 22408
I0720 11:50:09.138746  7820 layer_factory.hpp:77] Creating layer lstm1
I0720 11:50:09.138763  7820 net.cpp:91] Creating Layer lstm1
I0720 11:50:09.138770  7820 net.cpp:425] lstm1 <- embedded_input_frames
I0720 11:50:09.138778  7820 net.cpp:425] lstm1 <- cont_sentence_input_1_split_0
I0720 11:50:09.138789  7820 net.cpp:399] lstm1 -> lstm1
I0720 11:50:09.138805  7820 recurrent_layer.cpp:20] Initializing recurrent layer: assuming input batch contains 1 timesteps of 1 independent streams.
I0720 11:50:09.139081  7820 net.cpp:49] Initializing net from parameters: 
layer {
  name: "lstm1_"
  type: "Input"
  top: "x"
  top: "cont"
  input_param {
    shape {
      dim: 1
      dim: 1
      dim: 500
    }
    shape {
      dim: 1
      dim: 1
    }
  }
}
layer {
  name: "lstm1_"
  type: "Input"
  top: "c_0"
  top: "h_0"
  input_param {
    shape {
      dim: 1
      dim: 1
      dim: 1000
    }
    shape {
      dim: 1
      dim: 1
      dim: 1000
    }
  }
}
layer {
  name: "lstm1_cont_slice"
  type: "Slice"
  bottom: "cont"
  top: "cont_1"
  slice_param {
    axis: 0
  }
}
layer {
  name: "lstm1_x_transform"
  type: "InnerProduct"
  bottom: "x"
  top: "W_xc_x"
  param {
    name: "W_xc"
  }
  param {
    name: "b_c"
  }
  propagate_down: true
  inner_product_param {
    num_output: 4000
    bias_term: true
    weight_filler {
      type: "uniform"
      min: -0.08
      max: 0.08
    }
    bias_filler {
      type: "constant"
      value: 0
    }
    axis: 2
  }
}
layer {
  name: "lstm1_W_xc_x_slice"
  type: "Slice"
  bottom: "W_xc_x"
  top: "W_xc_x_1"
  slice_param {
    axis: 0
  }
}
layer {
  name: "lstm1_h_conted_0"
  type: "Scale"
  bottom: "h_0"
  bottom: "cont_1"
  top: "h_conted_0"
  scale_param {
    axis: 0
  }
}
layer {
  name: "lstm1_transform_1"
  type: "InnerProduct"
  bottom: "h_conted_0"
  top: "W_hc_h_0"
  param {
    name: "W_hc"
  }
  inner_product_param {
    num_output: 4000
    bias_term: false
    weight_filler {
      type: "uniform"
      min: -0.08
      max: 0.08
    }
    axis: 2
  }
}
layer {
  name: "lstm1_gate_input_1"
  type: "Eltwise"
  bottom: "W_hc_h_0"
  bottom: "W_xc_x_1"
  top: "gate_input_1"
  eltwise_param {
    operation: SUM
  }
}
layer {
  name: "lstm1_unit_1"
  type: "LSTMUnit"
  bottom: "c_0"
  bottom: "gate_input_1"
  bottom: "cont_1"
  top: "c_1"
  top: "h_1"
}
layer {
  name: "lstm1_"
  type: "Split"
  bottom: "c_1"
  top: "c_T"
}
layer {
  name: "lstm1_h_concat"
  type: "Concat"
  bottom: "h_1"
  top: "h"
  concat_param {
    axis: 0
  }
}
layer {
  name: "h_pseudoloss"
  type: "Reduction"
  bottom: "h"
  top: "h_pseudoloss"
  loss_weight: 1
}
I0720 11:50:09.139168  7820 layer_factory.hpp:77] Creating layer lstm1_
I0720 11:50:09.139179  7820 net.cpp:91] Creating Layer lstm1_
I0720 11:50:09.139185  7820 net.cpp:399] lstm1_ -> x
I0720 11:50:09.139196  7820 net.cpp:399] lstm1_ -> cont
I0720 11:50:09.156024  7824 net.cpp:141] Setting up lstm1_
I0720 11:50:09.156046  7824 net.cpp:148] Top shape: 1 1 500 (500)
I0720 11:50:09.156054  7824 net.cpp:148] Top shape: 1 1 (1)
I0720 11:50:09.156059  7824 net.cpp:156] Memory required for data: 2004
I0720 11:50:09.156066  7824 layer_factory.hpp:77] Creating layer lstm1_
I0720 11:50:09.156085  7824 net.cpp:91] Creating Layer lstm1_
I0720 11:50:09.156095  7824 net.cpp:399] lstm1_ -> c_0
I0720 11:50:09.156108  7824 net.cpp:399] lstm1_ -> h_0
I0720 11:50:09.157502  7820 net.cpp:141] Setting up lstm1_
I0720 11:50:09.157537  7820 net.cpp:148] Top shape: 1 1 500 (500)
I0720 11:50:09.157552  7820 net.cpp:148] Top shape: 1 1 (1)
I0720 11:50:09.157557  7820 net.cpp:156] Memory required for data: 2004
I0720 11:50:09.157564  7820 layer_factory.hpp:77] Creating layer lstm1_
I0720 11:50:09.157583  7820 net.cpp:91] Creating Layer lstm1_
I0720 11:50:09.157591  7820 net.cpp:399] lstm1_ -> c_0
I0720 11:50:09.157606  7820 net.cpp:399] lstm1_ -> h_0
I0720 11:50:09.181064  7824 net.cpp:141] Setting up lstm1_
I0720 11:50:09.181087  7824 net.cpp:148] Top shape: 1 1 1000 (1000)
I0720 11:50:09.181093  7824 net.cpp:148] Top shape: 1 1 1000 (1000)
I0720 11:50:09.181098  7824 net.cpp:156] Memory required for data: 10004
I0720 11:50:09.181104  7824 layer_factory.hpp:77] Creating layer lstm1_cont_slice
I0720 11:50:09.181119  7824 net.cpp:91] Creating Layer lstm1_cont_slice
I0720 11:50:09.181126  7824 net.cpp:425] lstm1_cont_slice <- cont
I0720 11:50:09.181138  7824 net.cpp:399] lstm1_cont_slice -> cont_1
I0720 11:50:09.181146  7820 net.cpp:141] Setting up lstm1_
I0720 11:50:09.181187  7820 net.cpp:148] Top shape: 1 1 1000 (1000)
I0720 11:50:09.181195  7820 net.cpp:148] Top shape: 1 1 1000 (1000)
I0720 11:50:09.181201  7820 net.cpp:156] Memory required for data: 10004
I0720 11:50:09.181210  7820 layer_factory.hpp:77] Creating layer lstm1_cont_slice
I0720 11:50:09.181232  7820 net.cpp:91] Creating Layer lstm1_cont_slice
I0720 11:50:09.181238  7820 net.cpp:425] lstm1_cont_slice <- cont
I0720 11:50:09.181248  7820 net.cpp:399] lstm1_cont_slice -> cont_1
I0720 11:50:09.186671  7824 net.cpp:141] Setting up lstm1_cont_slice
I0720 11:50:09.186707  7824 net.cpp:148] Top shape: 1 1 (1)
I0720 11:50:09.186713  7824 net.cpp:156] Memory required for data: 10008
I0720 11:50:09.186736  7824 layer_factory.hpp:77] Creating layer cont_1_lstm1_cont_slice_0_split
I0720 11:50:09.186755  7824 net.cpp:91] Creating Layer cont_1_lstm1_cont_slice_0_split
I0720 11:50:09.186765  7824 net.cpp:425] cont_1_lstm1_cont_slice_0_split <- cont_1
I0720 11:50:09.186780  7824 net.cpp:399] cont_1_lstm1_cont_slice_0_split -> cont_1_lstm1_cont_slice_0_split_0
I0720 11:50:09.186799  7824 net.cpp:399] cont_1_lstm1_cont_slice_0_split -> cont_1_lstm1_cont_slice_0_split_1
I0720 11:50:09.186861  7820 net.cpp:141] Setting up lstm1_cont_slice
I0720 11:50:09.186884  7820 net.cpp:148] Top shape: 1 1 (1)
I0720 11:50:09.186890  7820 net.cpp:156] Memory required for data: 10008
I0720 11:50:09.186897  7820 layer_factory.hpp:77] Creating layer cont_1_lstm1_cont_slice_0_split
I0720 11:50:09.186916  7820 net.cpp:91] Creating Layer cont_1_lstm1_cont_slice_0_split
I0720 11:50:09.186923  7820 net.cpp:425] cont_1_lstm1_cont_slice_0_split <- cont_1
I0720 11:50:09.186933  7820 net.cpp:399] cont_1_lstm1_cont_slice_0_split -> cont_1_lstm1_cont_slice_0_split_0
I0720 11:50:09.186944  7820 net.cpp:399] cont_1_lstm1_cont_slice_0_split -> cont_1_lstm1_cont_slice_0_split_1
I0720 11:50:09.191114  7820 net.cpp:141] Setting up cont_1_lstm1_cont_slice_0_split
I0720 11:50:09.191134  7820 net.cpp:148] Top shape: 1 1 (1)
I0720 11:50:09.191143  7820 net.cpp:148] Top shape: 1 1 (1)
I0720 11:50:09.191148  7820 net.cpp:156] Memory required for data: 10016
I0720 11:50:09.191154  7820 layer_factory.hpp:77] Creating layer lstm1_x_transform
I0720 11:50:09.191174  7820 net.cpp:91] Creating Layer lstm1_x_transform
I0720 11:50:09.191179  7820 net.cpp:425] lstm1_x_transform <- x
I0720 11:50:09.191190  7820 net.cpp:399] lstm1_x_transform -> W_xc_x
I0720 11:50:09.191515  7824 net.cpp:141] Setting up cont_1_lstm1_cont_slice_0_split
I0720 11:50:09.191548  7824 net.cpp:148] Top shape: 1 1 (1)
I0720 11:50:09.191555  7824 net.cpp:148] Top shape: 1 1 (1)
I0720 11:50:09.191560  7824 net.cpp:156] Memory required for data: 10016
I0720 11:50:09.191566  7824 layer_factory.hpp:77] Creating layer lstm1_x_transform
I0720 11:50:09.191582  7824 net.cpp:91] Creating Layer lstm1_x_transform
I0720 11:50:09.191588  7824 net.cpp:425] lstm1_x_transform <- x
I0720 11:50:09.191597  7824 net.cpp:399] lstm1_x_transform -> W_xc_x
I0720 11:50:09.208462  7830 net.cpp:141] Setting up conv1
I0720 11:50:09.208503  7830 net.cpp:148] Top shape: 10 96 55 55 (2904000)
I0720 11:50:09.208508  7830 net.cpp:156] Memory required for data: 17799480
I0720 11:50:09.208528  7830 layer_factory.hpp:77] Creating layer relu1
I0720 11:50:09.208544  7830 net.cpp:91] Creating Layer relu1
I0720 11:50:09.208549  7830 net.cpp:425] relu1 <- conv1
I0720 11:50:09.208555  7830 net.cpp:386] relu1 -> conv1 (in-place)
I0720 11:50:09.209275  7830 net.cpp:141] Setting up relu1
I0720 11:50:09.209287  7830 net.cpp:148] Top shape: 10 96 55 55 (2904000)
I0720 11:50:09.209292  7830 net.cpp:156] Memory required for data: 29415480
I0720 11:50:09.209297  7830 layer_factory.hpp:77] Creating layer pool1
I0720 11:50:09.209308  7830 net.cpp:91] Creating Layer pool1
I0720 11:50:09.209313  7830 net.cpp:425] pool1 <- conv1
I0720 11:50:09.209337  7830 net.cpp:399] pool1 -> pool1
I0720 11:50:09.221850  7830 net.cpp:141] Setting up pool1
I0720 11:50:09.221870  7830 net.cpp:148] Top shape: 10 96 27 27 (699840)
I0720 11:50:09.221876  7830 net.cpp:156] Memory required for data: 32214840
I0720 11:50:09.221881  7830 layer_factory.hpp:77] Creating layer norm1
I0720 11:50:09.221904  7830 net.cpp:91] Creating Layer norm1
I0720 11:50:09.221910  7830 net.cpp:425] norm1 <- pool1
I0720 11:50:09.221917  7830 net.cpp:399] norm1 -> norm1
I0720 11:50:09.231585  7824 net.cpp:141] Setting up lstm1_x_transform
I0720 11:50:09.231653  7824 net.cpp:148] Top shape: 1 1 4000 (4000)
I0720 11:50:09.231662  7824 net.cpp:156] Memory required for data: 26016
I0720 11:50:09.231690  7824 layer_factory.hpp:77] Creating layer lstm1_W_xc_x_slice
I0720 11:50:09.231789  7824 net.cpp:91] Creating Layer lstm1_W_xc_x_slice
I0720 11:50:09.231799  7824 net.cpp:425] lstm1_W_xc_x_slice <- W_xc_x
I0720 11:50:09.231815  7824 net.cpp:399] lstm1_W_xc_x_slice -> W_xc_x_1
I0720 11:50:09.235133  7824 net.cpp:141] Setting up lstm1_W_xc_x_slice
I0720 11:50:09.235151  7824 net.cpp:148] Top shape: 1 1 4000 (4000)
I0720 11:50:09.235157  7824 net.cpp:156] Memory required for data: 42016
I0720 11:50:09.235163  7824 layer_factory.hpp:77] Creating layer lstm1_h_conted_0
I0720 11:50:09.235203  7824 net.cpp:91] Creating Layer lstm1_h_conted_0
I0720 11:50:09.235211  7824 net.cpp:425] lstm1_h_conted_0 <- h_0
I0720 11:50:09.235204  7830 net.cpp:141] Setting up norm1
I0720 11:50:09.235224  7824 net.cpp:425] lstm1_h_conted_0 <- cont_1_lstm1_cont_slice_0_split_0
I0720 11:50:09.235242  7830 net.cpp:148] Top shape: 10 96 27 27 (699840)
I0720 11:50:09.235249  7830 net.cpp:156] Memory required for data: 35014200
I0720 11:50:09.235249  7824 net.cpp:399] lstm1_h_conted_0 -> h_conted_0
I0720 11:50:09.235261  7830 layer_factory.hpp:77] Creating layer conv2
I0720 11:50:09.235276  7820 net.cpp:141] Setting up lstm1_x_transform
I0720 11:50:09.235281  7830 net.cpp:91] Creating Layer conv2
I0720 11:50:09.235298  7820 net.cpp:148] Top shape: 1 1 4000 (4000)
I0720 11:50:09.235301  7830 net.cpp:425] conv2 <- norm1
I0720 11:50:09.235306  7820 net.cpp:156] Memory required for data: 26016
I0720 11:50:09.235314  7830 net.cpp:399] conv2 -> conv2
I0720 11:50:09.235326  7820 layer_factory.hpp:77] Creating layer lstm1_W_xc_x_slice
I0720 11:50:09.235337  7820 net.cpp:91] Creating Layer lstm1_W_xc_x_slice
I0720 11:50:09.235343  7820 net.cpp:425] lstm1_W_xc_x_slice <- W_xc_x
I0720 11:50:09.235364  7820 net.cpp:399] lstm1_W_xc_x_slice -> W_xc_x_1
I0720 11:50:09.236114  7820 net.cpp:141] Setting up lstm1_W_xc_x_slice
I0720 11:50:09.236130  7820 net.cpp:148] Top shape: 1 1 4000 (4000)
I0720 11:50:09.236135  7820 net.cpp:156] Memory required for data: 42016
I0720 11:50:09.236141  7820 layer_factory.hpp:77] Creating layer lstm1_h_conted_0
I0720 11:50:09.236156  7820 net.cpp:91] Creating Layer lstm1_h_conted_0
I0720 11:50:09.236162  7820 net.cpp:425] lstm1_h_conted_0 <- h_0
I0720 11:50:09.236168  7820 net.cpp:425] lstm1_h_conted_0 <- cont_1_lstm1_cont_slice_0_split_0
I0720 11:50:09.236176  7820 net.cpp:399] lstm1_h_conted_0 -> h_conted_0
I0720 11:50:09.240962  7824 net.cpp:141] Setting up lstm1_h_conted_0
I0720 11:50:09.240978  7824 net.cpp:148] Top shape: 1 1 1000 (1000)
I0720 11:50:09.240985  7824 net.cpp:156] Memory required for data: 46016
I0720 11:50:09.240993  7824 layer_factory.hpp:77] Creating layer lstm1_transform_1
I0720 11:50:09.241032  7824 net.cpp:91] Creating Layer lstm1_transform_1
I0720 11:50:09.241040  7824 net.cpp:425] lstm1_transform_1 <- h_conted_0
I0720 11:50:09.241051  7824 net.cpp:399] lstm1_transform_1 -> W_hc_h_0
I0720 11:50:09.241284  7820 net.cpp:141] Setting up lstm1_h_conted_0
I0720 11:50:09.241303  7820 net.cpp:148] Top shape: 1 1 1000 (1000)
I0720 11:50:09.241309  7820 net.cpp:156] Memory required for data: 46016
I0720 11:50:09.241314  7820 layer_factory.hpp:77] Creating layer lstm1_transform_1
I0720 11:50:09.241328  7820 net.cpp:91] Creating Layer lstm1_transform_1
I0720 11:50:09.241333  7820 net.cpp:425] lstm1_transform_1 <- h_conted_0
I0720 11:50:09.241344  7820 net.cpp:399] lstm1_transform_1 -> W_hc_h_0
I0720 11:50:09.271915  7818 net.cpp:141] Setting up conv1
I0720 11:50:09.271962  7818 net.cpp:148] Top shape: 10 96 55 55 (2904000)
I0720 11:50:09.271970  7818 net.cpp:156] Memory required for data: 17799480
I0720 11:50:09.271993  7818 layer_factory.hpp:77] Creating layer relu1
I0720 11:50:09.272011  7818 net.cpp:91] Creating Layer relu1
I0720 11:50:09.272017  7818 net.cpp:425] relu1 <- conv1
I0720 11:50:09.272027  7818 net.cpp:386] relu1 -> conv1 (in-place)
I0720 11:50:09.272740  7818 net.cpp:141] Setting up relu1
I0720 11:50:09.272753  7818 net.cpp:148] Top shape: 10 96 55 55 (2904000)
I0720 11:50:09.272758  7818 net.cpp:156] Memory required for data: 29415480
I0720 11:50:09.272763  7818 layer_factory.hpp:77] Creating layer pool1
I0720 11:50:09.272775  7818 net.cpp:91] Creating Layer pool1
I0720 11:50:09.272780  7818 net.cpp:425] pool1 <- conv1
I0720 11:50:09.272788  7818 net.cpp:399] pool1 -> pool1
I0720 11:50:09.273129  7818 net.cpp:141] Setting up pool1
I0720 11:50:09.273141  7818 net.cpp:148] Top shape: 10 96 27 27 (699840)
I0720 11:50:09.273146  7818 net.cpp:156] Memory required for data: 32214840
I0720 11:50:09.273152  7818 layer_factory.hpp:77] Creating layer norm1
I0720 11:50:09.273166  7818 net.cpp:91] Creating Layer norm1
I0720 11:50:09.273171  7818 net.cpp:425] norm1 <- pool1
I0720 11:50:09.273178  7818 net.cpp:399] norm1 -> norm1
I0720 11:50:09.274528  7818 net.cpp:141] Setting up norm1
I0720 11:50:09.274541  7818 net.cpp:148] Top shape: 10 96 27 27 (699840)
I0720 11:50:09.274546  7818 net.cpp:156] Memory required for data: 35014200
I0720 11:50:09.274551  7818 layer_factory.hpp:77] Creating layer conv2
I0720 11:50:09.274570  7818 net.cpp:91] Creating Layer conv2
I0720 11:50:09.274575  7818 net.cpp:425] conv2 <- norm1
I0720 11:50:09.274583  7818 net.cpp:399] conv2 -> conv2
I0720 11:50:09.277776  7830 net.cpp:141] Setting up conv2
I0720 11:50:09.277797  7830 net.cpp:148] Top shape: 10 256 27 27 (1866240)
I0720 11:50:09.277803  7830 net.cpp:156] Memory required for data: 42479160
I0720 11:50:09.277819  7830 layer_factory.hpp:77] Creating layer relu2
I0720 11:50:09.277830  7830 net.cpp:91] Creating Layer relu2
I0720 11:50:09.277837  7830 net.cpp:425] relu2 <- conv2
I0720 11:50:09.277851  7830 net.cpp:386] relu2 -> conv2 (in-place)
I0720 11:50:09.278620  7830 net.cpp:141] Setting up relu2
I0720 11:50:09.278633  7830 net.cpp:148] Top shape: 10 256 27 27 (1866240)
I0720 11:50:09.278638  7830 net.cpp:156] Memory required for data: 49944120
I0720 11:50:09.278643  7830 layer_factory.hpp:77] Creating layer pool2
I0720 11:50:09.278659  7830 net.cpp:91] Creating Layer pool2
I0720 11:50:09.278666  7830 net.cpp:425] pool2 <- conv2
I0720 11:50:09.278672  7830 net.cpp:399] pool2 -> pool2
I0720 11:50:09.279101  7830 net.cpp:141] Setting up pool2
I0720 11:50:09.279114  7830 net.cpp:148] Top shape: 10 256 13 13 (432640)
I0720 11:50:09.279119  7830 net.cpp:156] Memory required for data: 51674680
I0720 11:50:09.279124  7830 layer_factory.hpp:77] Creating layer norm2
I0720 11:50:09.279141  7830 net.cpp:91] Creating Layer norm2
I0720 11:50:09.279147  7830 net.cpp:425] norm2 <- pool2
I0720 11:50:09.279156  7830 net.cpp:399] norm2 -> norm2
I0720 11:50:09.279562  7830 net.cpp:141] Setting up norm2
I0720 11:50:09.279577  7830 net.cpp:148] Top shape: 10 256 13 13 (432640)
I0720 11:50:09.279582  7830 net.cpp:156] Memory required for data: 53405240
I0720 11:50:09.279587  7830 layer_factory.hpp:77] Creating layer conv3
I0720 11:50:09.279598  7830 net.cpp:91] Creating Layer conv3
I0720 11:50:09.279603  7830 net.cpp:425] conv3 <- norm2
I0720 11:50:09.279614  7830 net.cpp:399] conv3 -> conv3
I0720 11:50:09.284242  7818 net.cpp:141] Setting up conv2
I0720 11:50:09.284265  7818 net.cpp:148] Top shape: 10 256 27 27 (1866240)
I0720 11:50:09.284270  7818 net.cpp:156] Memory required for data: 42479160
I0720 11:50:09.284283  7818 layer_factory.hpp:77] Creating layer relu2
I0720 11:50:09.284301  7818 net.cpp:91] Creating Layer relu2
I0720 11:50:09.284307  7818 net.cpp:425] relu2 <- conv2
I0720 11:50:09.284313  7818 net.cpp:386] relu2 -> conv2 (in-place)
I0720 11:50:09.285177  7818 net.cpp:141] Setting up relu2
I0720 11:50:09.285192  7818 net.cpp:148] Top shape: 10 256 27 27 (1866240)
I0720 11:50:09.285197  7818 net.cpp:156] Memory required for data: 49944120
I0720 11:50:09.285205  7818 layer_factory.hpp:77] Creating layer pool2
I0720 11:50:09.285218  7818 net.cpp:91] Creating Layer pool2
I0720 11:50:09.285223  7818 net.cpp:425] pool2 <- conv2
I0720 11:50:09.285233  7818 net.cpp:399] pool2 -> pool2
I0720 11:50:09.285886  7818 net.cpp:141] Setting up pool2
I0720 11:50:09.285902  7818 net.cpp:148] Top shape: 10 256 13 13 (432640)
I0720 11:50:09.285907  7818 net.cpp:156] Memory required for data: 51674680
I0720 11:50:09.285913  7818 layer_factory.hpp:77] Creating layer norm2
I0720 11:50:09.285928  7818 net.cpp:91] Creating Layer norm2
I0720 11:50:09.285934  7818 net.cpp:425] norm2 <- pool2
I0720 11:50:09.285943  7818 net.cpp:399] norm2 -> norm2
I0720 11:50:09.287027  7818 net.cpp:141] Setting up norm2
I0720 11:50:09.287041  7818 net.cpp:148] Top shape: 10 256 13 13 (432640)
I0720 11:50:09.287046  7818 net.cpp:156] Memory required for data: 53405240
I0720 11:50:09.287051  7818 layer_factory.hpp:77] Creating layer conv3
I0720 11:50:09.287065  7818 net.cpp:91] Creating Layer conv3
I0720 11:50:09.287070  7818 net.cpp:425] conv3 <- norm2
I0720 11:50:09.287081  7818 net.cpp:399] conv3 -> conv3
I0720 11:50:09.287724  7830 net.cpp:141] Setting up conv3
I0720 11:50:09.287739  7830 net.cpp:148] Top shape: 10 384 13 13 (648960)
I0720 11:50:09.287744  7830 net.cpp:156] Memory required for data: 56001080
I0720 11:50:09.287756  7830 layer_factory.hpp:77] Creating layer relu3
I0720 11:50:09.289252  7830 net.cpp:91] Creating Layer relu3
I0720 11:50:09.289261  7830 net.cpp:425] relu3 <- conv3
I0720 11:50:09.289269  7830 net.cpp:386] relu3 -> conv3 (in-place)
I0720 11:50:09.291061  7830 net.cpp:141] Setting up relu3
I0720 11:50:09.291077  7830 net.cpp:148] Top shape: 10 384 13 13 (648960)
I0720 11:50:09.291082  7830 net.cpp:156] Memory required for data: 58596920
I0720 11:50:09.291090  7830 layer_factory.hpp:77] Creating layer conv4
I0720 11:50:09.291108  7830 net.cpp:91] Creating Layer conv4
I0720 11:50:09.291115  7830 net.cpp:425] conv4 <- conv3
I0720 11:50:09.291121  7830 net.cpp:399] conv4 -> conv4
I0720 11:50:09.296633  7818 net.cpp:141] Setting up conv3
I0720 11:50:09.296654  7818 net.cpp:148] Top shape: 10 384 13 13 (648960)
I0720 11:50:09.296660  7818 net.cpp:156] Memory required for data: 56001080
I0720 11:50:09.296675  7818 layer_factory.hpp:77] Creating layer relu3
I0720 11:50:09.296687  7818 net.cpp:91] Creating Layer relu3
I0720 11:50:09.296692  7818 net.cpp:425] relu3 <- conv3
I0720 11:50:09.296702  7818 net.cpp:386] relu3 -> conv3 (in-place)
I0720 11:50:09.297719  7818 net.cpp:141] Setting up relu3
I0720 11:50:09.297731  7818 net.cpp:148] Top shape: 10 384 13 13 (648960)
I0720 11:50:09.297736  7818 net.cpp:156] Memory required for data: 58596920
I0720 11:50:09.297741  7818 layer_factory.hpp:77] Creating layer conv4
I0720 11:50:09.297760  7818 net.cpp:91] Creating Layer conv4
I0720 11:50:09.297765  7818 net.cpp:425] conv4 <- conv3
I0720 11:50:09.297775  7818 net.cpp:399] conv4 -> conv4
I0720 11:50:09.298568  7820 net.cpp:141] Setting up lstm1_transform_1
I0720 11:50:09.298584  7820 net.cpp:148] Top shape: 1 1 4000 (4000)
I0720 11:50:09.298589  7820 net.cpp:156] Memory required for data: 62016
I0720 11:50:09.298600  7820 layer_factory.hpp:77] Creating layer lstm1_gate_input_1
I0720 11:50:09.298614  7820 net.cpp:91] Creating Layer lstm1_gate_input_1
I0720 11:50:09.298619  7820 net.cpp:425] lstm1_gate_input_1 <- W_hc_h_0
I0720 11:50:09.298626  7820 net.cpp:425] lstm1_gate_input_1 <- W_xc_x_1
I0720 11:50:09.298634  7820 net.cpp:399] lstm1_gate_input_1 -> gate_input_1
I0720 11:50:09.298745  7820 net.cpp:141] Setting up lstm1_gate_input_1
I0720 11:50:09.298758  7820 net.cpp:148] Top shape: 1 1 4000 (4000)
I0720 11:50:09.298763  7820 net.cpp:156] Memory required for data: 78016
I0720 11:50:09.298768  7820 layer_factory.hpp:77] Creating layer lstm1_unit_1
I0720 11:50:09.298780  7820 net.cpp:91] Creating Layer lstm1_unit_1
I0720 11:50:09.298785  7820 net.cpp:425] lstm1_unit_1 <- c_0
I0720 11:50:09.298792  7820 net.cpp:425] lstm1_unit_1 <- gate_input_1
I0720 11:50:09.298799  7820 net.cpp:425] lstm1_unit_1 <- cont_1_lstm1_cont_slice_0_split_1
I0720 11:50:09.298804  7820 net.cpp:399] lstm1_unit_1 -> c_1
I0720 11:50:09.298815  7820 net.cpp:399] lstm1_unit_1 -> h_1
I0720 11:50:09.301281  7820 net.cpp:141] Setting up lstm1_unit_1
I0720 11:50:09.301300  7820 net.cpp:148] Top shape: 1 1 1000 (1000)
I0720 11:50:09.301307  7820 net.cpp:148] Top shape: 1 1 1000 (1000)
I0720 11:50:09.301311  7820 net.cpp:156] Memory required for data: 86016
I0720 11:50:09.301316  7820 layer_factory.hpp:77] Creating layer lstm1_
I0720 11:50:09.301329  7820 net.cpp:91] Creating Layer lstm1_
I0720 11:50:09.301334  7820 net.cpp:425] lstm1_ <- c_1
I0720 11:50:09.301342  7820 net.cpp:399] lstm1_ -> c_T
I0720 11:50:09.301422  7830 net.cpp:141] Setting up conv4
I0720 11:50:09.301431  7820 net.cpp:141] Setting up lstm1_
I0720 11:50:09.301439  7830 net.cpp:148] Top shape: 10 384 13 13 (648960)
I0720 11:50:09.301443  7820 net.cpp:148] Top shape: 1 1 1000 (1000)
I0720 11:50:09.301445  7830 net.cpp:156] Memory required for data: 61192760
I0720 11:50:09.301448  7820 net.cpp:156] Memory required for data: 90016
I0720 11:50:09.301453  7820 layer_factory.hpp:77] Creating layer lstm1_h_concat
I0720 11:50:09.301455  7830 layer_factory.hpp:77] Creating layer relu4
I0720 11:50:09.301462  7820 net.cpp:91] Creating Layer lstm1_h_concat
I0720 11:50:09.301466  7830 net.cpp:91] Creating Layer relu4
I0720 11:50:09.301467  7820 net.cpp:425] lstm1_h_concat <- h_1
I0720 11:50:09.301472  7830 net.cpp:425] relu4 <- conv4
I0720 11:50:09.301478  7820 net.cpp:399] lstm1_h_concat -> h
I0720 11:50:09.301481  7830 net.cpp:386] relu4 -> conv4 (in-place)
I0720 11:50:09.302162  7820 net.cpp:141] Setting up lstm1_h_concat
I0720 11:50:09.302175  7820 net.cpp:148] Top shape: 1 1 1000 (1000)
I0720 11:50:09.302178  7820 net.cpp:156] Memory required for data: 94016
I0720 11:50:09.302183  7820 layer_factory.hpp:77] Creating layer h_pseudoloss
I0720 11:50:09.302198  7820 net.cpp:91] Creating Layer h_pseudoloss
I0720 11:50:09.302203  7820 net.cpp:425] h_pseudoloss <- h
I0720 11:50:09.302209  7820 net.cpp:399] h_pseudoloss -> h_pseudoloss
I0720 11:50:09.303133  7824 net.cpp:141] Setting up lstm1_transform_1
I0720 11:50:09.303179  7824 net.cpp:148] Top shape: 1 1 4000 (4000)
I0720 11:50:09.303186  7824 net.cpp:156] Memory required for data: 62016
I0720 11:50:09.303206  7824 layer_factory.hpp:77] Creating layer lstm1_gate_input_1
I0720 11:50:09.303215  7830 net.cpp:141] Setting up relu4
I0720 11:50:09.303227  7820 net.cpp:141] Setting up h_pseudoloss
I0720 11:50:09.303238  7830 net.cpp:148] Top shape: 10 384 13 13 (648960)
I0720 11:50:09.303231  7824 net.cpp:91] Creating Layer lstm1_gate_input_1
I0720 11:50:09.303246  7830 net.cpp:156] Memory required for data: 63788600
I0720 11:50:09.303246  7820 net.cpp:148] Top shape: (1)
I0720 11:50:09.303252  7830 layer_factory.hpp:77] Creating layer conv5
I0720 11:50:09.303252  7824 net.cpp:425] lstm1_gate_input_1 <- W_hc_h_0
I0720 11:50:09.303263  7830 net.cpp:91] Creating Layer conv5
…
I0720 11:50:09.303407  7820 net.cpp:219] lstm1_ does not need backward computation.
I0720 11:50:09.303411  7820 net.cpp:219] lstm1_ does not need backward computation.
I0720 11:50:09.303414  7820 net.cpp:261] This network produces output c_T
I0720 11:50:09.303419  7820 net.cpp:261] This network produces output h_pseudoloss
I0720 11:50:09.303442  7820 net.cpp:274] Network initialization done.
I0720 11:50:09.303498  7820 recurrent_layer.cpp:150] Adding parameter 0: W_xc
I0720 11:50:09.303496  7824 net.cpp:141] Setting up lstm1_gate_input_1
I0720 11:50:09.303508  7820 recurrent_layer.cpp:150] Adding parameter 1: b_c
I0720 11:50:09.303521  7824 net.cpp:148] Top shape: 1 1 4000 (4000)
I0720 11:50:09.303525  7820 recurrent_layer.cpp:150] Adding parameter 2: W_hc
I0720 11:50:09.303529  7824 net.cpp:156] Memory required for data: 78016
I0720 11:50:09.303534  7824 layer_factory.hpp:77] Creating layer lstm1_unit_1
I0720 11:50:09.303550  7824 net.cpp:91] Creating Layer lstm1_unit_1
I0720 11:50:09.303555  7824 net.cpp:425] lstm1_unit_1 <- c_0
I0720 11:50:09.303562  7824 net.cpp:425] lstm1_unit_1 <- gate_input_1
I0720 11:50:09.303570  7824 net.cpp:425] lstm1_unit_1 <- cont_1_lstm1_cont_slice_0_split_1
I0720 11:50:09.303576  7824 net.cpp:399] lstm1_unit_1 -> c_1
I0720 11:50:09.303586  7824 net.cpp:399] lstm1_unit_1 -> h_1
I0720 11:50:09.304055  7820 net.cpp:141] Setting up lstm1
I0720 11:50:09.304081  7820 net.cpp:148] Top shape: 1 1 1000 (1000)
I0720 11:50:09.304086  7820 net.cpp:156] Memory required for data: 26408
I0720 11:50:09.304101  7820 layer_factory.hpp:77] Creating layer concat
I0720 11:50:09.304111  7820 net.cpp:91] Creating Layer concat
I0720 11:50:09.304116  7820 net.cpp:425] concat <- lstm1
I0720 11:50:09.304123  7820 net.cpp:425] concat <- embedded_input_sentence
I0720 11:50:09.304128  7820 net.cpp:425] concat <- reshaped_stage_indicator
I0720 11:50:09.304134  7820 net.cpp:399] concat -> lstm1_video_sequence
I0720 11:50:09.304713  7824 net.cpp:141] Setting up lstm1_unit_1
I0720 11:50:09.304726  7824 net.cpp:148] Top shape: 1 1 1000 (1000)
I0720 11:50:09.304734  7824 net.cpp:148] Top shape: 1 1 1000 (1000)
I0720 11:50:09.304739  7824 net.cpp:156] Memory required for data: 86016
I0720 11:50:09.304744  7824 layer_factory.hpp:77] Creating layer lstm1_
I0720 11:50:09.304754  7824 net.cpp:91] Creating Layer lstm1_
I0720 11:50:09.304759  7824 net.cpp:425] lstm1_ <- c_1
I0720 11:50:09.304767  7824 net.cpp:399] lstm1_ -> c_T
I0720 11:50:09.304885  7820 net.cpp:141] Setting up concat
I0720 11:50:09.304898  7820 net.cpp:148] Top shape: 1 1 1501 (1501)
I0720 11:50:09.304901  7820 net.cpp:156] Memory required for data: 32412
I0720 11:50:09.304906  7820 layer_factory.hpp:77] Creating layer lstm2
I0720 11:50:09.304920  7820 net.cpp:91] Creating Layer lstm2
I0720 11:50:09.304926  7820 net.cpp:425] lstm2 <- lstm1_video_sequence
I0720 11:50:09.304932  7820 net.cpp:425] lstm2 <- cont_sentence_input_1_split_1
I0720 11:50:09.304939  7820 net.cpp:399] lstm2 -> lstm2
I0720 11:50:09.304950  7820 recurrent_layer.cpp:20] Initializing recurrent layer: assuming input batch contains 1 timesteps of 1 independent streams.
I0720 11:50:09.304972  7824 net.cpp:141] Setting up lstm1_
I0720 11:50:09.304986  7824 net.cpp:148] Top shape: 1 1 1000 (1000)
I0720 11:50:09.304992  7824 net.cpp:156] Memory required for data: 90016
I0720 11:50:09.304998  7824 layer_factory.hpp:77] Creating layer lstm1_h_concat
I0720 11:50:09.305009  7824 net.cpp:91] Creating Layer lstm1_h_concat
I0720 11:50:09.305014  7824 net.cpp:425] lstm1_h_concat <- h_1
I0720 11:50:09.305025  7824 net.cpp:399] lstm1_h_concat -> h
I0720 11:50:09.305203  7820 net.cpp:49] Initializing net from parameters: 
layer {
  name: "lstm2_"
  type: "Input"
  top: "x"
  top: "cont"
  input_param {
    shape {
      dim: 1
      dim: 1
      dim: 1501
    }
    shape {
      dim: 1
      dim: 1
    }
  }
}
layer {
  name: "lstm2_"
  type: "Input"
  top: "c_0"
  top: "h_0"
  input_param {
    shape {
      dim: 1
      dim: 1
      dim: 1000
    }
    shape {
      dim: 1
      dim: 1
      dim: 1000
    }
  }
}
layer {
  name: "lstm2_cont_slice"
  type: "Slice"
  bottom: "cont"
  top: "cont_1"
  slice_param {
    axis: 0
  }
}
layer {
  name: "lstm2_x_transform"
  type: "InnerProduct"
  bottom: "x"
  top: "W_xc_x"
  param {
    name: "W_xc"
  }
  param {
    name: "b_c"
  }
  propagate_down: true
  inner_product_param {
    num_output: 4000
    bias_term: true
    weight_filler {
      type: "uniform"
      min: -0.08
      max: 0.08
    }
    bias_filler {
      type: "constant"
      value: 0
    }
    axis: 2
  }
}
layer {
  name: "lstm2_W_xc_x_slice"
  type: "Slice"
  bottom: "W_xc_x"
  top: "W_xc_x_1"
  slice_param {
    axis: 0
  }
}
layer {
  name: "lstm2_h_conted_0"
  type: "Scale"
  bottom: "h_0"
  bottom: "cont_1"
  top: "h_conted_0"
  scale_param {
    axis: 0
  }
}
layer {
  name: "lstm2_transform_1"
  type: "InnerProduct"
  bottom: "h_conted_0"
  top: "W_hc_h_0"
  param {
    name: "W_hc"
  }
  inner_product_param {
    num_output: 4000
    bias_term: false
    weight_filler {
      type: "uniform"
      min: -0.08
      max: 0.08
    }
    axis: 2
  }
}
layer {
  name: "lstm2_gate_input_1"
  type: "Eltwise"
  bottom: "W_hc_h_0"
  bottom: "W_xc_x_1"
  top: "gate_input_1"
  eltwise_param {
    operation: SUM
  }
}
layer {
  name: "lstm2_unit_1"
  type: "LSTMUnit"
  bottom: "c_0"
  bottom: "gate_input_1"
  bottom: "cont_1"
  top: "c_1"
  top: "h_1"
}
layer {
  name: "lstm2_"
  type: "Split"
  bottom: "c_1"
  top: "c_T"
}
layer {
  name: "lstm2_h_concat"
  type: "Concat"
  bottom: "h_1"
  top: "h"
  concat_param {
    axis: 0
  }
}
layer {
  name: "h_pseudoloss"
  type: "Reduction"
  bottom: "h"
  top: "h_pseudoloss"
  loss_weight: 1
}
I0720 11:50:09.305289  7820 layer_factory.hpp:77] Creating layer lstm2_
I0720 11:50:09.305300  7820 net.cpp:91] Creating Layer lstm2_
I0720 11:50:09.305307  7820 net.cpp:399] lstm2_ -> x
I0720 11:50:09.305317  7820 net.cpp:399] lstm2_ -> cont
I0720 11:50:09.305764  7824 net.cpp:141] Setting up lstm1_h_concat
I0720 11:50:09.305778  7824 net.cpp:148] Top shape: 1 1 1000 (1000)
I0720 11:50:09.305783  7824 net.cpp:156] Memory required for data: 94016
I0720 11:50:09.305788  7824 layer_factory.hpp:77] Creating layer h_pseudoloss
I0720 11:50:09.305801  7824 net.cpp:91] Creating Layer h_pseudoloss
I0720 11:50:09.305807  7824 net.cpp:425] h_pseudoloss <- h
I0720 11:50:09.305814  7824 net.cpp:399] h_pseudoloss -> h_pseudoloss
I0720 11:50:09.306041  7820 net.cpp:141] Setting up lstm2_
I0720 11:50:09.306054  7820 net.cpp:148] Top shape: 1 1 1501 (1501)
I0720 11:50:09.306061  7820 net.cpp:148] Top shape: 1 1 (1)
I0720 11:50:09.306066  7820 net.cpp:156] Memory required for data: 6008
I0720 11:50:09.306071  7820 layer_factory.hpp:77] Creating layer lstm2_
I0720 11:50:09.306079  7820 net.cpp:91] Creating Layer lstm2_
I0720 11:50:09.306105  7820 net.cpp:399] lstm2_ -> c_0
I0720 11:50:09.306119  7820 net.cpp:399] lstm2_ -> h_0
I0720 11:50:09.308156  7824 net.cpp:141] Setting up h_pseudoloss
I0720 11:50:09.308171  7824 net.cpp:148] Top shape: (1)
I0720 11:50:09.308176  7824 net.cpp:151]     with loss weight 1
I0720 11:50:09.308195  7824 net.cpp:156] Memory required for data: 94020
I0720 11:50:09.308195  7820 net.cpp:141] Setting up lstm2_
I0720 11:50:09.308202  7824 net.cpp:217] h_pseudoloss needs backward computation.
I0720 11:50:09.308213  7820 net.cpp:148] Top shape: 1 1 1000 (1000)
I0720 11:50:09.308218  7824 net.cpp:217] lstm1_h_concat needs backward computation.
I0720 11:50:09.308223  7820 net.cpp:148] Top shape: 1 1 1000 (1000)
I0720 11:50:09.308224  7824 net.cpp:219] lstm1_ does not need backward computation.
I0720 11:50:09.308228  7820 net.cpp:156] Memory required for data: 14008
I0720 11:50:09.308230  7824 net.cpp:217] lstm1_unit_1 needs backward computation.
I0720 11:50:09.308234  7820 layer_factory.hpp:77] Creating layer lstm2_cont_slice
I0720 11:50:09.308238  7824 net.cpp:217] lstm1_gate_input_1 needs backward computation.
…
I0720 11:50:09.308276  7824 net.cpp:219] cont_1_lstm1_cont_slice_0_split does not need backward computation.
I0720 11:50:09.308282  7824 net.cpp:219] lstm1_cont_slice does not need backward computation.
I0720 11:50:09.308289  7824 net.cpp:219] lstm1_ does not need backward computation.
I0720 11:50:09.308293  7824 net.cpp:219] lstm1_ does not need backward computation.
I0720 11:50:09.308297  7824 net.cpp:261] This network produces output c_T
I0720 11:50:09.308302  7824 net.cpp:261] This network produces output h_pseudoloss
I0720 11:50:09.308318  7824 net.cpp:274] Network initialization done.
I0720 11:50:09.308341  7820 net.cpp:141] Setting up lstm2_cont_slice
I0720 11:50:09.308352  7820 net.cpp:148] Top shape: 1 1 (1)
I0720 11:50:09.308357  7820 net.cpp:156] Memory required for data: 14012
I0720 11:50:09.308362  7820 layer_factory.hpp:77] Creating layer cont_1_lstm2_cont_slice_0_split
I0720 11:50:09.308368  7820 net.cpp:91] Creating Layer cont_1_lstm2_cont_slice_0_split
I0720 11:50:09.308373  7820 net.cpp:425] cont_1_lstm2_cont_slice_0_split <- cont_1
I0720 11:50:09.308372  7824 recurrent_layer.cpp:150] Adding parameter 0: W_xc
I0720 11:50:09.308387  7820 net.cpp:399] cont_1_lstm2_cont_slice_0_split -> cont_1_lstm2_cont_slice_0_split_0
I0720 11:50:09.308389  7824 recurrent_layer.cpp:150] Adding parameter 1: b_c
I0720 11:50:09.308396  7824 recurrent_layer.cpp:150] Adding parameter 2: W_hc
I0720 11:50:09.308399  7820 net.cpp:399] cont_1_lstm2_cont_slice_0_split -> cont_1_lstm2_cont_slice_0_split_1
I0720 11:50:09.308991  7820 net.cpp:141] Setting up cont_1_lstm2_cont_slice_0_split
I0720 11:50:09.309002  7820 net.cpp:148] Top shape: 1 1 (1)
I0720 11:50:09.309008  7820 net.cpp:148] Top shape: 1 1 (1)
I0720 11:50:09.309012  7820 net.cpp:156] Memory required for data: 14020
I0720 11:50:09.309017  7820 layer_factory.hpp:77] Creating layer lstm2_x_transform
I0720 11:50:09.309028  7820 net.cpp:91] Creating Layer lstm2_x_transform
I0720 11:50:09.309033  7820 net.cpp:425] lstm2_x_transform <- x
I0720 11:50:09.309047  7820 net.cpp:399] lstm2_x_transform -> W_xc_x
I0720 11:50:09.309130  7818 net.cpp:141] Setting up conv4
I0720 11:50:09.309149  7824 net.cpp:141] Setting up lstm1
I0720 11:50:09.309154  7818 net.cpp:148] Top shape: 10 384 13 13 (648960)
I0720 11:50:09.309167  7824 net.cpp:148] Top shape: 1 1 1000 (1000)
I0720 11:50:09.309170  7818 net.cpp:156] Memory required for data: 61192760
I0720 11:50:09.309173  7824 net.cpp:156] Memory required for data: 26408
I0720 11:50:09.309183  7818 layer_factory.hpp:77] Creating layer relu4
I0720 11:50:09.309193  7824 layer_factory.hpp:77] Creating layer concat
I0720 11:50:09.309216  7818 net.cpp:91] Creating Layer relu4
I0720 11:50:09.309221  7824 net.cpp:91] Creating Layer concat
I0720 11:50:09.309224  7818 net.cpp:425] relu4 <- conv4
I0720 11:50:09.309231  7824 net.cpp:425] concat <- lstm1
I0720 11:50:09.309232  7818 net.cpp:386] relu4 -> conv4 (in-place)
I0720 11:50:09.319185  7824 net.cpp:425] concat <- embedded_input_sentence
I0720 11:50:09.319195  7824 net.cpp:425] concat <- reshaped_stage_indicator
I0720 11:50:09.319203  7824 net.cpp:399] concat -> lstm1_video_sequence
I0720 11:50:09.321892  7824 net.cpp:141] Setting up concat
I0720 11:50:09.321907  7824 net.cpp:148] Top shape: 1 1 1501 (1501)
I0720 11:50:09.321912  7824 net.cpp:156] Memory required for data: 32412
I0720 11:50:09.321918  7824 layer_factory.hpp:77] Creating layer lstm2
I0720 11:50:09.321931  7824 net.cpp:91] Creating Layer lstm2
I0720 11:50:09.321938  7824 net.cpp:425] lstm2 <- lstm1_video_sequence
I0720 11:50:09.321944  7824 net.cpp:425] lstm2 <- cont_sentence_input_1_split_1
I0720 11:50:09.321952  7824 net.cpp:399] lstm2 -> lstm2
I0720 11:50:09.321965  7824 recurrent_layer.cpp:20] Initializing recurrent layer: assuming input batch contains 1 timesteps of 1 independent streams.
I0720 11:50:09.322258  7824 net.cpp:49] Initializing net from parameters: 
layer {
  name: "lstm2_"
  type: "Input"
  top: "x"
  top: "cont"
  input_param {
    shape {
      dim: 1
      dim: 1
      dim: 1501
    }
    shape {
      dim: 1
      dim: 1
    }
  }
}
layer {
  name: "lstm2_"
  type: "Input"
  top: "c_0"
  top: "h_0"
  input_param {
    shape {
      dim: 1
      dim: 1
      dim: 1000
    }
    shape {
      dim: 1
      dim: 1
      dim: 1000
    }
  }
}
layer {
  name: "lstm2_cont_slice"
  type: "Slice"
  bottom: "cont"
  top: "cont_1"
  slice_param {
    axis: 0
  }
}
layer {
  name: "lstm2_x_transform"
  type: "InnerProduct"
  bottom: "x"
  top: "W_xc_x"
  param {
    name: "W_xc"
  }
  param {
    name: "b_c"
  }
  propagate_down: true
  inner_product_param {
    num_output: 4000
    bias_term: true
    weight_filler {
      type: "uniform"
      min: -0.08
      max: 0.08
    }
    bias_filler {
      type: "constant"
      value: 0
    }
    axis: 2
  }
}
layer {
  name: "lstm2_W_xc_x_slice"
  type: "Slice"
  bottom: "W_xc_x"
  top: "W_xc_x_1"
  slice_param {
    axis: 0
  }
}
layer {
  name: "lstm2_h_conted_0"
  type: "Scale"
  bottom: "h_0"
  bottom: "cont_1"
  top: "h_conted_0"
  scale_param {
    axis: 0
  }
}
layer {
  name: "lstm2_transform_1"
  type: "InnerProduct"
  bottom: "h_conted_0"
  top: "W_hc_h_0"
  param {
    name: "W_hc"
  }
  inner_product_param {
    num_output: 4000
    bias_term: false
    weight_filler {
      type: "uniform"
      min: -0.08
      max: 0.08
    }
    axis: 2
  }
}
layer {
  name: "lstm2_gate_input_1"
  type: "Eltwise"
  bottom: "W_hc_h_0"
  bottom: "W_xc_x_1"
  top: "gate_input_1"
  eltwise_param {
    operation: SUM
  }
}
layer {
  name: "lstm2_unit_1"
  type: "LSTMUnit"
  bottom: "c_0"
  bottom: "gate_input_1"
  bottom: "cont_1"
  top: "c_1"
  top: "h_1"
}
layer {
  name: "lstm2_"
  type: "Split"
  bottom: "c_1"
  top: "c_T"
}
layer {
  name: "lstm2_h_concat"
  type: "Concat"
  bottom: "h_1"
  top: "h"
  concat_param {
    axis: 0
  }
}
layer {
  name: "h_pseudoloss"
  type: "Reduction"
  bottom: "h"
  top: "h_pseudoloss"
  loss_weight: 1
}
I0720 11:50:09.322357  7824 layer_factory.hpp:77] Creating layer lstm2_
I0720 11:50:09.322371  7824 net.cpp:91] Creating Layer lstm2_
I0720 11:50:09.322378  7824 net.cpp:399] lstm2_ -> x
I0720 11:50:09.322391  7824 net.cpp:399] lstm2_ -> cont
I0720 11:50:09.322969  7824 net.cpp:141] Setting up lstm2_
I0720 11:50:09.322983  7824 net.cpp:148] Top shape: 1 1 1501 (1501)
I0720 11:50:09.322991  7824 net.cpp:148] Top shape: 1 1 (1)
I0720 11:50:09.322996  7824 net.cpp:156] Memory required for data: 6008
I0720 11:50:09.323002  7824 layer_factory.hpp:77] Creating layer lstm2_
I0720 11:50:09.322999  7818 net.cpp:141] Setting up relu4
I0720 11:50:09.323017  7824 net.cpp:91] Creating Layer lstm2_
I0720 11:50:09.323038  7824 net.cpp:399] lstm2_ -> c_0
I0720 11:50:09.323038  7818 net.cpp:148] Top shape: 10 384 13 13 (648960)
I0720 11:50:09.323055  7818 net.cpp:156] Memory required for data: 63788600
I0720 11:50:09.323055  7824 net.cpp:399] lstm2_ -> h_0
I0720 11:50:09.323065  7818 layer_factory.hpp:77] Creating layer conv5
I0720 11:50:09.323086  7818 net.cpp:91] Creating Layer conv5
I0720 11:50:09.323092  7818 net.cpp:425] conv5 <- conv4
I0720 11:50:09.323107  7818 net.cpp:399] conv5 -> conv5
I0720 11:50:09.323477  7824 net.cpp:141] Setting up lstm2_
I0720 11:50:09.323490  7824 net.cpp:148] Top shape: 1 1 1000 (1000)
I0720 11:50:09.323498  7824 net.cpp:148] Top shape: 1 1 1000 (1000)
I0720 11:50:09.323503  7824 net.cpp:156] Memory required for data: 14008
I0720 11:50:09.323508  7824 layer_factory.hpp:77] Creating layer lstm2_cont_slice
I0720 11:50:09.323525  7824 net.cpp:91] Creating Layer lstm2_cont_slice
I0720 11:50:09.323531  7824 net.cpp:425] lstm2_cont_slice <- cont
I0720 11:50:09.323539  7824 net.cpp:399] lstm2_cont_slice -> cont_1
I0720 11:50:09.324482  7824 net.cpp:141] Setting up lstm2_cont_slice
I0720 11:50:09.324496  7824 net.cpp:148] Top shape: 1 1 (1)
I0720 11:50:09.324501  7824 net.cpp:156] Memory required for data: 14012
I0720 11:50:09.324506  7824 layer_factory.hpp:77] Creating layer cont_1_lstm2_cont_slice_0_split
I0720 11:50:09.324517  7824 net.cpp:91] Creating Layer cont_1_lstm2_cont_slice_0_split
I0720 11:50:09.324523  7824 net.cpp:425] cont_1_lstm2_cont_slice_0_split <- cont_1
I0720 11:50:09.324532  7824 net.cpp:399] cont_1_lstm2_cont_slice_0_split -> cont_1_lstm2_cont_slice_0_split_0
I0720 11:50:09.324540  7824 net.cpp:399] cont_1_lstm2_cont_slice_0_split -> cont_1_lstm2_cont_slice_0_split_1
I0720 11:50:09.324800  7824 net.cpp:141] Setting up cont_1_lstm2_cont_slice_0_split
I0720 11:50:09.324812  7824 net.cpp:148] Top shape: 1 1 (1)
I0720 11:50:09.324820  7824 net.cpp:148] Top shape: 1 1 (1)
I0720 11:50:09.324825  7824 net.cpp:156] Memory required for data: 14020
I0720 11:50:09.324829  7824 layer_factory.hpp:77] Creating layer lstm2_x_transform
I0720 11:50:09.324872  7824 net.cpp:91] Creating Layer lstm2_x_transform
I0720 11:50:09.324879  7824 net.cpp:425] lstm2_x_transform <- x
I0720 11:50:09.324889  7824 net.cpp:399] lstm2_x_transform -> W_xc_x
I0720 11:50:09.348786  7830 net.cpp:141] Setting up conv5
I0720 11:50:09.348830  7830 net.cpp:148] Top shape: 10 256 13 13 (432640)
I0720 11:50:09.348836  7830 net.cpp:156] Memory required for data: 65519160
I0720 11:50:09.348855  7830 layer_factory.hpp:77] Creating layer relu5
I0720 11:50:09.348871  7830 net.cpp:91] Creating Layer relu5
I0720 11:50:09.348878  7830 net.cpp:425] relu5 <- conv5
I0720 11:50:09.348886  7830 net.cpp:386] relu5 -> conv5 (in-place)
I0720 11:50:09.349757  7830 net.cpp:141] Setting up relu5
I0720 11:50:09.349771  7830 net.cpp:148] Top shape: 10 256 13 13 (432640)
I0720 11:50:09.349776  7830 net.cpp:156] Memory required for data: 67249720
I0720 11:50:09.349781  7830 layer_factory.hpp:77] Creating layer pool5
I0720 11:50:09.349792  7830 net.cpp:91] Creating Layer pool5
I0720 11:50:09.349797  7830 net.cpp:425] pool5 <- conv5
I0720 11:50:09.349807  7830 net.cpp:399] pool5 -> pool5
I0720 11:50:09.350178  7830 net.cpp:141] Setting up pool5
I0720 11:50:09.350190  7830 net.cpp:148] Top shape: 10 256 6 6 (92160)
I0720 11:50:09.350195  7830 net.cpp:156] Memory required for data: 67618360
I0720 11:50:09.350200  7830 layer_factory.hpp:77] Creating layer fc6
I0720 11:50:09.350216  7830 net.cpp:91] Creating Layer fc6
I0720 11:50:09.350221  7830 net.cpp:425] fc6 <- pool5
I0720 11:50:09.350232  7830 net.cpp:399] fc6 -> fc6
I0720 11:50:09.423921  7820 net.cpp:141] Setting up lstm2_x_transform
I0720 11:50:09.423966  7820 net.cpp:148] Top shape: 1 1 4000 (4000)
I0720 11:50:09.423972  7820 net.cpp:156] Memory required for data: 30020
I0720 11:50:09.423993  7820 layer_factory.hpp:77] Creating layer lstm2_W_xc_x_slice
I0720 11:50:09.424012  7820 net.cpp:91] Creating Layer lstm2_W_xc_x_slice
I0720 11:50:09.424020  7820 net.cpp:425] lstm2_W_xc_x_slice <- W_xc_x
I0720 11:50:09.424029  7820 net.cpp:399] lstm2_W_xc_x_slice -> W_xc_x_1
I0720 11:50:09.424247  7820 net.cpp:141] Setting up lstm2_W_xc_x_slice
I0720 11:50:09.424258  7820 net.cpp:148] Top shape: 1 1 4000 (4000)
I0720 11:50:09.424263  7820 net.cpp:156] Memory required for data: 46020
I0720 11:50:09.424268  7820 layer_factory.hpp:77] Creating layer lstm2_h_conted_0
I0720 11:50:09.424278  7820 net.cpp:91] Creating Layer lstm2_h_conted_0
I0720 11:50:09.424284  7820 net.cpp:425] lstm2_h_conted_0 <- h_0
I0720 11:50:09.424290  7820 net.cpp:425] lstm2_h_conted_0 <- cont_1_lstm2_cont_slice_0_split_0
I0720 11:50:09.424299  7820 net.cpp:399] lstm2_h_conted_0 -> h_conted_0
I0720 11:50:09.424311  7824 net.cpp:141] Setting up lstm2_x_transform
I0720 11:50:09.424358  7824 net.cpp:148] Top shape: 1 1 4000 (4000)
I0720 11:50:09.424365  7824 net.cpp:156] Memory required for data: 30020
I0720 11:50:09.424389  7824 layer_factory.hpp:77] Creating layer lstm2_W_xc_x_slice
I0720 11:50:09.424407  7824 net.cpp:91] Creating Layer lstm2_W_xc_x_slice
I0720 11:50:09.424414  7824 net.cpp:425] lstm2_W_xc_x_slice <- W_xc_x
I0720 11:50:09.424425  7824 net.cpp:399] lstm2_W_xc_x_slice -> W_xc_x_1
I0720 11:50:09.424609  7824 net.cpp:141] Setting up lstm2_W_xc_x_slice
I0720 11:50:09.424624  7824 net.cpp:148] Top shape: 1 1 4000 (4000)
I0720 11:50:09.424630  7824 net.cpp:156] Memory required for data: 46020
I0720 11:50:09.424638  7824 layer_factory.hpp:77] Creating layer lstm2_h_conted_0
I0720 11:50:09.424649  7824 net.cpp:91] Creating Layer lstm2_h_conted_0
I0720 11:50:09.424656  7824 net.cpp:425] lstm2_h_conted_0 <- h_0
I0720 11:50:09.424664  7824 net.cpp:425] lstm2_h_conted_0 <- cont_1_lstm2_cont_slice_0_split_0
I0720 11:50:09.424667  7820 net.cpp:141] Setting up lstm2_h_conted_0
I0720 11:50:09.424680  7824 net.cpp:399] lstm2_h_conted_0 -> h_conted_0
I0720 11:50:09.424680  7820 net.cpp:148] Top shape: 1 1 1000 (1000)
I0720 11:50:09.424696  7820 net.cpp:156] Memory required for data: 50020
I0720 11:50:09.424702  7820 layer_factory.hpp:77] Creating layer lstm2_transform_1
I0720 11:50:09.424715  7820 net.cpp:91] Creating Layer lstm2_transform_1
I0720 11:50:09.424721  7820 net.cpp:425] lstm2_transform_1 <- h_conted_0
I0720 11:50:09.424731  7820 net.cpp:399] lstm2_transform_1 -> W_hc_h_0
I0720 11:50:09.435261  7824 net.cpp:141] Setting up lstm2_h_conted_0
I0720 11:50:09.435257  7818 net.cpp:141] Setting up conv5
I0720 11:50:09.435281  7824 net.cpp:148] Top shape: 1 1 1000 (1000)
I0720 11:50:09.435304  7824 net.cpp:156] Memory required for data: 50020
I0720 11:50:09.435309  7818 net.cpp:148] Top shape: 10 256 13 13 (432640)
I0720 11:50:09.435313  7824 layer_factory.hpp:77] Creating layer lstm2_transform_1
I0720 11:50:09.435317  7818 net.cpp:156] Memory required for data: 65519160
I0720 11:50:09.435330  7824 net.cpp:91] Creating Layer lstm2_transform_1
I0720 11:50:09.435338  7824 net.cpp:425] lstm2_transform_1 <- h_conted_0
I0720 11:50:09.435343  7818 layer_factory.hpp:77] Creating layer relu5
I0720 11:50:09.435351  7824 net.cpp:399] lstm2_transform_1 -> W_hc_h_0
I0720 11:50:09.435361  7818 net.cpp:91] Creating Layer relu5
I0720 11:50:09.435369  7818 net.cpp:425] relu5 <- conv5
I0720 11:50:09.435379  7818 net.cpp:386] relu5 -> conv5 (in-place)
I0720 11:50:09.444962  7818 net.cpp:141] Setting up relu5
I0720 11:50:09.445005  7818 net.cpp:148] Top shape: 10 256 13 13 (432640)
I0720 11:50:09.445011  7818 net.cpp:156] Memory required for data: 67249720
I0720 11:50:09.445020  7818 layer_factory.hpp:77] Creating layer pool5
I0720 11:50:09.445037  7818 net.cpp:91] Creating Layer pool5
I0720 11:50:09.445044  7818 net.cpp:425] pool5 <- conv5
I0720 11:50:09.445058  7818 net.cpp:399] pool5 -> pool5
I0720 11:50:09.448128  7818 net.cpp:141] Setting up pool5
I0720 11:50:09.448175  7818 net.cpp:148] Top shape: 10 256 6 6 (92160)
I0720 11:50:09.448181  7818 net.cpp:156] Memory required for data: 67618360
I0720 11:50:09.448197  7818 layer_factory.hpp:77] Creating layer fc6
I0720 11:50:09.448220  7818 net.cpp:91] Creating Layer fc6
I0720 11:50:09.448225  7818 net.cpp:425] fc6 <- pool5
I0720 11:50:09.448240  7818 net.cpp:399] fc6 -> fc6
I0720 11:50:09.516448  7824 net.cpp:141] Setting up lstm2_transform_1
I0720 11:50:09.516506  7824 net.cpp:148] Top shape: 1 1 4000 (4000)
I0720 11:50:09.516513  7824 net.cpp:156] Memory required for data: 66020
I0720 11:50:09.516538  7824 layer_factory.hpp:77] Creating layer lstm2_gate_input_1
I0720 11:50:09.516561  7824 net.cpp:91] Creating Layer lstm2_gate_input_1
I0720 11:50:09.516568  7824 net.cpp:425] lstm2_gate_input_1 <- W_hc_h_0
I0720 11:50:09.516578  7824 net.cpp:425] lstm2_gate_input_1 <- W_xc_x_1
I0720 11:50:09.516593  7824 net.cpp:399] lstm2_gate_input_1 -> gate_input_1
I0720 11:50:09.519326  7820 net.cpp:141] Setting up lstm2_transform_1
I0720 11:50:09.519367  7820 net.cpp:148] Top shape: 1 1 4000 (4000)
I0720 11:50:09.519373  7820 net.cpp:156] Memory required for data: 66020
I0720 11:50:09.519390  7820 layer_factory.hpp:77] Creating layer lstm2_gate_input_1
I0720 11:50:09.519408  7820 net.cpp:91] Creating Layer lstm2_gate_input_1
I0720 11:50:09.519417  7820 net.cpp:425] lstm2_gate_input_1 <- W_hc_h_0
I0720 11:50:09.519413  7824 net.cpp:141] Setting up lstm2_gate_input_1
I0720 11:50:09.519425  7820 net.cpp:425] lstm2_gate_input_1 <- W_xc_x_1
I0720 11:50:09.519435  7824 net.cpp:148] Top shape: 1 1 4000 (4000)
I0720 11:50:09.519438  7820 net.cpp:399] lstm2_gate_input_1 -> gate_input_1
I0720 11:50:09.519443  7824 net.cpp:156] Memory required for data: 82020
I0720 11:50:09.519449  7824 layer_factory.hpp:77] Creating layer lstm2_unit_1
I0720 11:50:09.519460  7824 net.cpp:91] Creating Layer lstm2_unit_1
I0720 11:50:09.519466  7824 net.cpp:425] lstm2_unit_1 <- c_0
I0720 11:50:09.519474  7824 net.cpp:425] lstm2_unit_1 <- gate_input_1
I0720 11:50:09.519480  7824 net.cpp:425] lstm2_unit_1 <- cont_1_lstm2_cont_slice_0_split_1
I0720 11:50:09.519492  7824 net.cpp:399] lstm2_unit_1 -> c_1
I0720 11:50:09.519505  7824 net.cpp:399] lstm2_unit_1 -> h_1
I0720 11:50:09.519610  7820 net.cpp:141] Setting up lstm2_gate_input_1
I0720 11:50:09.519623  7820 net.cpp:148] Top shape: 1 1 4000 (4000)
I0720 11:50:09.519628  7820 net.cpp:156] Memory required for data: 82020
I0720 11:50:09.519632  7820 layer_factory.hpp:77] Creating layer lstm2_unit_1
I0720 11:50:09.519644  7820 net.cpp:91] Creating Layer lstm2_unit_1
I0720 11:50:09.519649  7820 net.cpp:425] lstm2_unit_1 <- c_0
I0720 11:50:09.519655  7820 net.cpp:425] lstm2_unit_1 <- gate_input_1
I0720 11:50:09.519661  7820 net.cpp:425] lstm2_unit_1 <- cont_1_lstm2_cont_slice_0_split_1
I0720 11:50:09.519668  7820 net.cpp:399] lstm2_unit_1 -> c_1
I0720 11:50:09.519680  7820 net.cpp:399] lstm2_unit_1 -> h_1
I0720 11:50:09.519702  7830 net.cpp:141] Setting up fc6
I0720 11:50:09.519721  7830 net.cpp:148] Top shape: 10 4096 (40960)
I0720 11:50:09.519726  7830 net.cpp:156] Memory required for data: 67782200
I0720 11:50:09.519737  7830 layer_factory.hpp:77] Creating layer relu6
I0720 11:50:09.519752  7830 net.cpp:91] Creating Layer relu6
I0720 11:50:09.519758  7830 net.cpp:425] relu6 <- fc6
I0720 11:50:09.519765  7830 net.cpp:386] relu6 -> fc6 (in-place)
I0720 11:50:09.519917  7824 net.cpp:141] Setting up lstm2_unit_1
I0720 11:50:09.519930  7824 net.cpp:148] Top shape: 1 1 1000 (1000)
I0720 11:50:09.519937  7824 net.cpp:148] Top shape: 1 1 1000 (1000)
I0720 11:50:09.519942  7824 net.cpp:156] Memory required for data: 90020
I0720 11:50:09.519948  7824 layer_factory.hpp:77] Creating layer lstm2_
I0720 11:50:09.519959  7824 net.cpp:91] Creating Layer lstm2_
I0720 11:50:09.519964  7824 net.cpp:425] lstm2_ <- c_1
I0720 11:50:09.519973  7824 net.cpp:399] lstm2_ -> c_T
I0720 11:50:09.520210  7824 net.cpp:141] Setting up lstm2_
I0720 11:50:09.520222  7824 net.cpp:148] Top shape: 1 1 1000 (1000)
I0720 11:50:09.520228  7824 net.cpp:156] Memory required for data: 94020
I0720 11:50:09.520228  7820 net.cpp:141] Setting up lstm2_unit_1
I0720 11:50:09.520234  7824 layer_factory.hpp:77] Creating layer lstm2_h_concat
I0720 11:50:09.520246  7820 net.cpp:148] Top shape: 1 1 1000 (1000)
I0720 11:50:09.520253  7820 net.cpp:148] Top shape: 1 1 1000 (1000)
I0720 11:50:09.520256  7824 net.cpp:91] Creating Layer lstm2_h_concat
I0720 11:50:09.520258  7820 net.cpp:156] Memory required for data: 90020
I0720 11:50:09.520267  7824 net.cpp:425] lstm2_h_concat <- h_1
I0720 11:50:09.520275  7820 layer_factory.hpp:77] Creating layer lstm2_
I0720 11:50:09.520282  7824 net.cpp:399] lstm2_h_concat -> h
I0720 11:50:09.520285  7820 net.cpp:91] Creating Layer lstm2_
I0720 11:50:09.520290  7820 net.cpp:425] lstm2_ <- c_1
I0720 11:50:09.520300  7820 net.cpp:399] lstm2_ -> c_T
I0720 11:50:09.520334  7830 net.cpp:141] Setting up relu6
I0720 11:50:13.534750  7830 net.cpp:148] Top shape: 10 4096 (40960)
I0720 11:50:13.534788  7830 net.cpp:156] Memory required for data: 67946040
I0720 11:50:13.534819  7830 layer_factory.hpp:77] Creating layer drop6
I0720 11:50:13.534878  7830 net.cpp:91] Creating Layer drop6
I0720 11:50:13.534899  7830 net.cpp:425] drop6 <- fc6
I0720 11:50:09.520395  7824 net.cpp:141] Setting up lstm2_h_concat
I0720 11:50:13.534955  7824 net.cpp:148] Top shape: 1 1 1000 (1000)
I0720 11:50:13.534972  7824 net.cpp:156] Memory required for data: 98020
I0720 11:50:13.534989  7824 layer_factory.hpp:77] Creating layer h_pseudoloss
I0720 11:50:13.535017  7824 net.cpp:91] Creating Layer h_pseudoloss
I0720 11:50:13.535034  7824 net.cpp:425] h_pseudoloss <- h
I0720 11:50:09.555997  7818 net.cpp:141] Setting up fc6
I0720 11:50:13.535084  7818 net.cpp:148] Top shape: 10 4096 (40960)
I0720 11:50:13.535099  7818 net.cpp:156] Memory required for data: 67782200
I0720 11:50:13.535125  7818 layer_factory.hpp:77] Creating layer relu6
I0720 11:50:13.535282  7820 net.cpp:141] Setting up lstm2_
I0720 11:50:13.535305  7820 net.cpp:148] Top shape: 1 1 1000 (1000)
I0720 11:50:13.535313  7820 net.cpp:156] Memory required for data: 94020
I0720 11:50:13.535322  7820 layer_factory.hpp:77] Creating layer lstm2_h_concat
I0720 11:50:13.535338  7820 net.cpp:91] Creating Layer lstm2_h_concat
I0720 11:50:13.535347  7820 net.cpp:425] lstm2_h_concat <- h_1
I0720 11:50:13.536960  7830 net.cpp:386] drop6 -> fc6 (in-place)
I0720 11:50:13.537060  7824 net.cpp:399] h_pseudoloss -> h_pseudoloss
I0720 11:50:13.537291  7830 net.cpp:141] Setting up drop6
I0720 11:50:13.537328  7830 net.cpp:148] Top shape: 10 4096 (40960)
I0720 11:50:13.537346  7830 net.cpp:156] Memory required for data: 68109880
I0720 11:50:13.537369  7830 layer_factory.hpp:77] Creating layer fc7
I0720 11:50:13.537405  7830 net.cpp:91] Creating Layer fc7
I0720 11:50:13.537423  7830 net.cpp:425] fc7 <- fc6
I0720 11:50:13.537489  7830 net.cpp:399] fc7 -> fc7
I0720 11:50:13.537611  7818 net.cpp:91] Creating Layer relu6
I0720 11:50:13.537642  7818 net.cpp:425] relu6 <- fc6
…
I0720 11:50:13.581997  7820 net.cpp:219] lstm2_ does not need backward computation.
I0720 11:50:13.582010  7820 net.cpp:261] This network produces output c_T
I0720 11:50:13.582027  7820 net.cpp:261] This network produces output h_pseudoloss
I0720 11:50:13.582077  7820 net.cpp:274] Network initialization done.
I0720 11:50:13.582208  7820 recurrent_layer.cpp:150] Adding parameter 0: W_xc
I0720 11:50:13.582232  7820 recurrent_layer.cpp:150] Adding parameter 1: b_c
I0720 11:50:13.582249  7820 recurrent_layer.cpp:150] Adding parameter 2: W_hc
I0720 11:50:13.668550  7818 net.cpp:141] Setting up drop6
I0720 11:50:13.668598  7818 net.cpp:148] Top shape: 10 4096 (40960)
I0720 11:50:13.668606  7818 net.cpp:156] Memory required for data: 68109880
I0720 11:50:13.668614  7818 layer_factory.hpp:77] Creating layer fc7
I0720 11:50:13.668639  7818 net.cpp:91] Creating Layer fc7
I0720 11:50:13.668648  7818 net.cpp:425] fc7 <- fc6
I0720 11:50:13.668663  7818 net.cpp:399] fc7 -> fc7
I0720 11:50:13.673318  7820 net.cpp:141] Setting up lstm2
I0720 11:50:13.673353  7820 net.cpp:148] Top shape: 1 1 1000 (1000)
I0720 11:50:13.673364  7820 net.cpp:156] Memory required for data: 36412
I0720 11:50:13.673400  7820 layer_factory.hpp:77] Creating layer predict
I0720 11:50:13.673418  7820 net.cpp:91] Creating Layer predict
I0720 11:50:13.673424  7820 net.cpp:425] predict <- lstm2
I0720 11:50:13.673434  7820 net.cpp:399] predict -> predict
I0720 11:50:13.802156  7830 net.cpp:141] Setting up fc7
I0720 11:50:13.802204  7830 net.cpp:148] Top shape: 10 4096 (40960)
I0720 11:50:13.802211  7830 net.cpp:156] Memory required for data: 68273720
I0720 11:50:13.802229  7830 layer_factory.hpp:77] Creating layer relu7
I0720 11:50:13.802250  7830 net.cpp:91] Creating Layer relu7
I0720 11:50:13.802258  7830 net.cpp:425] relu7 <- fc7
I0720 11:50:13.802268  7830 net.cpp:386] relu7 -> fc7 (in-place)
I0720 11:50:13.808336  7818 net.cpp:141] Setting up fc7
I0720 11:50:13.808362  7818 net.cpp:148] Top shape: 10 4096 (40960)
I0720 11:50:13.808368  7818 net.cpp:156] Memory required for data: 68273720
I0720 11:50:13.808382  7818 layer_factory.hpp:77] Creating layer relu7
I0720 11:50:13.808401  7818 net.cpp:91] Creating Layer relu7
I0720 11:50:13.808409  7818 net.cpp:425] relu7 <- fc7
I0720 11:50:13.808418  7830 net.cpp:141] Setting up relu7
I0720 11:50:13.808423  7818 net.cpp:386] relu7 -> fc7 (in-place)
I0720 11:50:13.808440  7830 net.cpp:148] Top shape: 10 4096 (40960)
I0720 11:50:13.808447  7830 net.cpp:156] Memory required for data: 68437560
I0720 11:50:13.808454  7830 layer_factory.hpp:77] Creating layer drop7
I0720 11:50:13.808471  7830 net.cpp:91] Creating Layer drop7
I0720 11:50:13.808483  7830 net.cpp:425] drop7 <- fc7
I0720 11:50:13.808495  7830 net.cpp:386] drop7 -> fc7 (in-place)
I0720 11:50:13.809468  7830 net.cpp:141] Setting up drop7
I0720 11:50:13.809484  7830 net.cpp:148] Top shape: 10 4096 (40960)
I0720 11:50:13.809490  7830 net.cpp:156] Memory required for data: 68601400
I0720 11:50:13.809496  7830 layer_factory.hpp:77] Creating layer fc8
I0720 11:50:13.809509  7830 net.cpp:91] Creating Layer fc8
I0720 11:50:13.809514  7830 net.cpp:425] fc8 <- fc7
I0720 11:50:13.809527  7830 net.cpp:399] fc8 -> fc8
I0720 11:50:13.809593  7818 net.cpp:141] Setting up relu7
I0720 11:50:13.809608  7818 net.cpp:148] Top shape: 10 4096 (40960)
I0720 11:50:13.809614  7818 net.cpp:156] Memory required for data: 68437560
I0720 11:50:13.809620  7818 layer_factory.hpp:77] Creating layer drop7
I0720 11:50:13.809634  7818 net.cpp:91] Creating Layer drop7
I0720 11:50:13.809641  7818 net.cpp:425] drop7 <- fc7
I0720 11:50:13.809649  7818 net.cpp:386] drop7 -> fc7 (in-place)
I0720 11:50:13.825500  7818 net.cpp:141] Setting up drop7
I0720 11:50:13.825559  7818 net.cpp:148] Top shape: 10 4096 (40960)
I0720 11:50:13.825573  7818 net.cpp:156] Memory required for data: 68601400
I0720 11:50:13.825588  7818 layer_factory.hpp:77] Creating layer fc8
I0720 11:50:13.825629  7818 net.cpp:91] Creating Layer fc8
I0720 11:50:13.825644  7818 net.cpp:425] fc8 <- fc7
I0720 11:50:13.825661  7818 net.cpp:399] fc8 -> fc8
I0720 11:50:13.841153  7830 net.cpp:141] Setting up fc8
I0720 11:50:13.841207  7830 net.cpp:148] Top shape: 10 1000 (10000)
I0720 11:50:13.841217  7830 net.cpp:156] Memory required for data: 68641400
I0720 11:50:13.841240  7830 layer_factory.hpp:77] Creating layer prob
I0720 11:50:13.841272  7830 net.cpp:91] Creating Layer prob
I0720 11:50:13.841286  7830 net.cpp:425] prob <- fc8
I0720 11:50:13.841305  7830 net.cpp:399] prob -> prob
I0720 11:50:13.842286  7830 net.cpp:141] Setting up prob
I0720 11:50:13.842316  7830 net.cpp:148] Top shape: 10 1000 (10000)
I0720 11:50:13.842329  7830 net.cpp:156] Memory required for data: 68681400
I0720 11:50:13.842341  7830 net.cpp:219] prob does not need backward computation.
I0720 11:50:13.842353  7830 net.cpp:219] fc8 does not need backward computation.
I0720 11:50:13.842363  7830 net.cpp:219] drop7 does not need backward computation.
I0720 11:50:13.842373  7830 net.cpp:219] relu7 does not need backward computation.
…
