…
Java HotSpot(TM) 64-Bit Server VM warning: You have loaded library /tmp/cvld7999421226489228957/libopencv_java310.xine1.so which might have disabled stack guard. The VM will try to fix the stack guard now.
It's highly recommended that you fix the library with 'execstack -c <libfile>', or link it with '-z noexecstack'.
WARNING: Logging before InitGoogleLogging() is written to STDERR
I0714 23:26:51.814906 32432 net.cpp:49] Initializing net from parameters: 
name: "GoogleNet"
state {
  phase: TEST
}
layer {
  name: "data"
  type: "Input"
  top: "data"
  input_param {
    shape {
      dim: 10
      dim: 3
      dim: 224
      dim: 224
    }
  }
}
layer {
  name: "conv1/7x7_s2"
  type: "Convolution"
  bottom: "data"
  top: "conv1/7x7_s2"
  param {
    lr_mult: 1
    decay_mult: 1
  }
  param {
    lr_mult: 2
    decay_mult: 0
  }
  convolution_param {
    num_output: 64
    pad: 3
    kernel_size: 7
    stride: 2
    weight_filler {
      type: "xavier"
      std: 0.1
    }
    bias_filler {
      type: "constant"
      value: 0.2
    }
  }
}
layer {
  name: "conv1/relu_7x7"
  type: "ReLU"
  bottom: "conv1/7x7_s2"
  top: "conv1/7x7_s2"
}
layer {
  name: "pool1/3x3_s2"
  type: "Pooling"
  bottom: "conv1/7x7_s2"
  top: "pool1/3x3_s2"
  pooling_param {
    pool: MAX
    kernel_size: 3
    stride: 2
  }
}
layer {
  name: "pool1/norm1"
  type: "LRN"
  bottom: "pool1/3x3_s2"
  top: "pool1/norm1"
  lrn_param {
    local_size: 5
    alpha: 0.0001
    beta: 0.75
  }
}
layer {
  name: "conv2/3x3_reduce"
  type: "Convolution"
  bottom: "pool1/norm1"
  top: "conv2/3x3_reduce"
  param {
    lr_mult: 1
    decay_mult: 1
  }
  param {
    lr_mult: 2
    decay_mult: 0
  }
  convolution_param {
    num_output: 64
    kernel_size: 1
    weight_filler {
      type: "xavier"
      std: 0.1
    }
    bias_filler {
      type: "constant"
      value: 0.2
    }
  }
}
layer {
  name: "conv2/relu_3x3_reduce"
  type: "ReLU"
  bottom: "conv2/3x3_reduce"
  top: "conv2/3x3_reduce"
}
layer {
  name: "conv2/3x3"
  type: "Convolution"
  bottom: "conv2/3x3_reduce"
  top: "conv2/3x3"
  param {
    lr_mult: 1
    decay_mult: 1
  }
  param {
    lr_mult: 2
    decay_mult: 0
  }
  convolution_param {
    num_output: 192
    pad: 1
    kernel_size: 3
    weight_filler {
      type: "xavier"
      std: 0.03
    }
    bias_filler {
      type: "constant"
      value: 0.2
    }
  }
}
layer {
  name: "conv2/relu_3x3"
  type: "ReLU"
  bottom: "conv2/3x3"
  top: "conv2/3x3"
}
layer {
  name: "conv2/norm2"
  type: "LRN"
  bottom: "conv2/3x3"
  top: "conv2/norm2"
  lrn_param {
    local_size: 5
    alpha: 0.0001
    beta: 0.75
  }
}
layer {
  name: "pool2/3x3_s2"
  type: "Pooling"
  bottom: "conv2/norm2"
  top: "pool2/3x3_s2"
  pooling_param {
    pool: MAX
    kernel_size: 3
    stride: 2
  }
}
layer {
  name: "inception_3a/1x1"
  type: "Convolution"
  bottom: "pool2/3x3_s2"
  top: "inception_3a/1x1"
  param {
    lr_mult: 1
    decay_mult: 1
  }
  param {
    lr_mult: 2
    decay_mult: 0
  }
  convolution_param {
    num_output: 64
    kernel_size: 1
    weight_filler {
      type: "xavier"
      std: 0.03
    }
    bias_filler {
      type: "constant"
      value: 0.2
    }
  }
}
layer {
  name: "inception_3a/relu_1x1"
  type: "ReLU"
  bottom: "inception_3a/1x1"
  top: "inception_3a/1x1"
}
layer {
  name: "inception_3a/3x3_reduce"
  type: "Convolution"
  bottom: "pool2/3x3_s2"
  top: "inception_3a/3x3_reduce"
  param {
    lr_mult: 1
    decay_mult: 1
  }
  param {
    lr_mult: 2
    decay_mult: 0
  }
  convolution_param {
    num_output: 96
    kernel_size: 1
    weight_filler {
      type: "xavier"
      std: 0.09
    }
    bias_filler {
      type: "constant"
      value: 0.2
    }
  }
}
layer {
  name: "inception_3a/relu_3x3_reduce"
  type: "ReLU"
  bottom: "inception_3a/3x3_reduce"
  top: "inception_3a/3x3_reduce"
}
layer {
  name: "inception_3a/3x3"
  type: "Convolution"
  bottom: "inception_3a/3x3_reduce"
  top: "inception_3a/3x3"
  param {
    lr_mult: 1
    decay_mult: 1
  }
  param {
    lr_mult: 2
    decay_mult: 0
  }
  convolution_param {
    num_output: 128
    pad: 1
    kernel_size: 3
    weight_filler {
      type: "xavier"
      std: 0.03
    }
    bias_filler {
      type: "constant"
      value: 0.2
    }
  }
}
layer {
  name: "inception_3a/relu_3x3"
  type: "ReLU"
  bottom: "inception_3a/3x3"
  top: "inception_3a/3x3"
}
layer {
  name: "inception_3a/5x5_reduce"
  type: "Convolution"
  bottom: "pool2/3x3_s2"
  top: "inception_3a/5x5_reduce"
  param {
    lr_mult: 1
    decay_mult: 1
  }
  param {
    lr_mult: 2
    decay_mult: 0
  }
  convolution_param {
    num_output: 16
    kernel_size: 1
    weight_filler {
      type: "xavier"
      std: 0.2
    }
    bias_filler {
      type: "constant"
      value: 0.2
    }
  }
}
layer {
  name: "inception_3a/relu_5x5_reduce"
  type: "ReLU"
  bottom: "inception_3a/5x5_reduce"
  top: "inception_3a/5x5_reduce"
}
layer {
  name: "inception_3a/5x5"
  type: "Convolution"
  bottom: "inception_3a/5x5_reduce"
  top: "inception_3a/5x5"
  param {
    lr_mult: 1
    decay_mult: 1
  }
  param {
    lr_mult: 2
    decay_mult: 0
  }
  convolution_param {
    num_output: 32
    pad: 2
    kernel_size: 5
    weight_filler {
      type: "xavier"
      std: 0.03
    }
    bias_filler {
      type: "constant"
      value: 0.2
    }
  }
}
layer {
  name: "inception_3a/relu_5x5"
  type: "ReLU"
  bottom: "inception_3a/5x5"
  top: "inception_3a/5x5"
}
layer {
  name: "inception_3a/pool"
  type: "Pooling"
  bottom: "pool2/3x3_s2"
  top: "inception_3a/pool"
  pooling_param {
    pool: MAX
    kernel_size: 3
    stride: 1
    pad: 1
  }
}
layer {
  name: "inception_3a/pool_proj"
  type: "Convolution"
  bottom: "inception_3a/pool"
  top: "inception_3a/pool_proj"
  param {
    lr_mult: 1
    decay_mult: 1
  }
  param {
    lr_mult: 2
    decay_mult: 0
  }
  convolution_param {
    num_output: 32
    kernel_size: 1
    weight_filler {
      type: "xavier"
      std: 0.1
    }
    bias_filler {
      type: "constant"
      value: 0.2
    }
  }
}
layer {
  name: "inception_3a/relu_pool_proj"
  type: "ReLU"
  bottom: "inception_3a/pool_proj"
  top: "inception_3a/pool_proj"
}
layer {
  name: "inception_3a/output"
  type: "Concat"
  bottom: "inception_3a/1x1"
  bottom: "inception_3a/3x3"
  bottom: "inception_3a/5x5"
  bottom: "inception_3a/pool_proj"
  top: "inception_3a/output"
}
layer {
  name: "inception_3b/1x1"
  type: "Convolution"
  bottom: "inception_3a/output"
  top: "inception_3b/1x1"
  param {
    lr_mult: 1
    decay_mult: 1
  }
  param {
    lr_mult: 2
    decay_mult: 0
  }
  convolution_param {
    num_output: 128
    kernel_size: 1
    weight_filler {
      type: "xavier"
      std: 0.03
    }
    bias_filler {
      type: "constant"
      value: 0.2
    }
  }
}
layer {
  name: "inception_3b/relu_1x1"
  type: "ReLU"
  bottom: "inception_3b/1x1"
  top: "inception_3b/1x1"
}
layer {
  name: "inception_3b/3x3_reduce"
  type: "Convolution"
  bottom: "inception_3a/output"
  top: "inception_3b/3x3_reduce"
  param {
    lr_mult: 1
    decay_mult: 1
  }
  param {
    lr_mult: 2
    decay_mult: 0
  }
  convolution_param {
    num_output: 128
    kernel_size: 1
    weight_filler {
      type: "xavier"
      std: 0.09
    }
    bias_filler {
      type: "constant"
      value: 0.2
    }
  }
}
layer {
  name: "inception_3b/relu_3x3_reduce"
  type: "ReLU"
  bottom: "inception_3b/3x3_reduce"
  top: "inception_3b/3x3_reduce"
}
layer {
  name: "inception_3b/3x3"
  type: "Convolution"
  bottom: "inception_3b/3x3_reduce"
  top: "inception_3b/3x3"
  param {
    lr_mult: 1
    decay_mult: 1
  }
  param {
    lr_mult: 2
    decay_mult: 0
  }
  convolution_param {
    num_output: 192
    pad: 1
    kernel_size: 3
    weight_filler {
      type: "xavier"
      std: 0.03
    }
    bias_filler {
      type: "constant"
      value: 0.2
    }
  }
}
layer {
  name: "inception_3b/relu_3x3"
  type: "ReLU"
  bottom: "inception_3b/3x3"
  top: "inception_3b/3x3"
}
layer {
  name: "inception_3b/5x5_reduce"
  type: "Convolution"
  bottom: "inception_3a/output"
  top: "inception_3b/5x5_reduce"
  param {
    lr_mult: 1
    decay_mult: 1
  }
  param {
    lr_mult: 2
    decay_mult: 0
  }
  convolution_param {
    num_output: 32
    kernel_size: 1
    weight_filler {
      type: "xavier"
      std: 0.2
    }
    bias_filler {
      type: "constant"
      value: 0.2
    }
  }
}
layer {
  name: "inception_3b/relu_5x5_reduce"
  type: "ReLU"
  bottom: "inception_3b/5x5_reduce"
  top: "inception_3b/5x5_reduce"
}
layer {
  name: "inception_3b/5x5"
  type: "Convolution"
  bottom: "inception_3b/5x5_reduce"
  top: "inception_3b/5x5"
  param {
    lr_mult: 1
    decay_mult: 1
  }
  param {
    lr_mult: 2
    decay_mult: 0
  }
  convolution_param {
    num_output: 96
    pad: 2
    kernel_size: 5
    weight_filler {
      type: "xavier"
      std: 0.03
    }
    bias_filler {
      type: "constant"
      value: 0.2
    }
  }
}
layer {
  name: "inception_3b/relu_5x5"
  type: "ReLU"
  bottom: "inception_3b/5x5"
  top: "inception_3b/5x5"
}
layer {
  name: "inception_3b/pool"
  type: "Pooling"
  bottom: "inception_3a/output"
  top: "inception_3b/pool"
  pooling_param {
    pool: MAX
    kernel_size: 3
    stride: 1
    pad: 1
  }
}
layer {
  name: "inception_3b/pool_proj"
  type: "Convolution"
  bottom: "inception_3b/pool"
  top: "inception_3b/pool_proj"
  param {
    lr_mult: 1
    decay_mult: 1
  }
  param {
    lr_mult: 2
    decay_mult: 0
  }
  convolution_param {
    num_output: 64
    kernel_size: 1
    weight_filler {
      type: "xavier"
      std: 0.1
    }
    bias_filler {
      type: "constant"
      value: 0.2
    }
  }
}
layer {
  name: "inception_3b/relu_pool_proj"
  type: "ReLU"
  bottom: "inception_3b/pool_proj"
  top: "inception_3b/pool_proj"
}
layer {
  name: "inception_3b/output"
  type: "Concat"
  bottom: "inception_3b/1x1"
  bottom: "inception_3b/3x3"
  bottom: "inception_3b/5x5"
  bottom: "inception_3b/pool_proj"
  top: "inception_3b/output"
}
layer {
  name: "pool3/3x3_s2"
  type: "Pooling"
  bottom: "inception_3b/output"
  top: "pool3/3x3_s2"
  pooling_param {
    pool: MAX
    kernel_size: 3
    stride: 2
  }
}
layer {
  name: "inception_4a/1x1"
  type: "Convolution"
  bottom: "pool3/3x3_s2"
  top: "inception_4a/1x1"
  param {
    lr_mult: 1
    decay_mult: 1
  }
  param {
    lr_mult: 2
    decay_mult: 0
  }
  convolution_param {
    num_output: 192
    kernel_size: 1
    weight_filler {
      type: "xavier"
      std: 0.03
    }
    bias_filler {
      type: "constant"
      value: 0.2
    }
  }
}
layer {
  name: "inception_4a/relu_1x1"
  type: "ReLU"
  bottom: "inception_4a/1x1"
  top: "inception_4a/1x1"
}
layer {
  name: "inception_4a/3x3_reduce"
  type: "Convolution"
  bottom: "pool3/3x3_s2"
  top: "inception_4a/3x3_reduce"
  param {
    lr_mult: 1
    decay_mult: 1
  }
  param {
    lr_mult: 2
    decay_mult: 0
  }
  convolution_param {
    num_output: 96
    kernel_size: 1
    weight_filler {
      type: "xavier"
      std: 0.09
    }
    bias_filler {
      type: "constant"
      value: 0.2
    }
  }
}
layer {
  name: "inception_4a/relu_3x3_reduce"
  type: "ReLU"
  bottom: "inception_4a/3x3_reduce"
  top: "inception_4a/3x3_reduce"
}
layer {
  name: "inception_4a/3x3"
  type: "Convolution"
  bottom: "inception_4a/3x3_reduce"
  top: "inception_4a/3x3"
  param {
    lr_mult: 1
    decay_mult: 1
  }
  param {
    lr_mult: 2
    decay_mult: 0
  }
  convolution_param {
    num_output: 208
    pad: 1
    kernel_size: 3
    weight_filler {
      type: "xavier"
      std: 0.03
    }
    bias_filler {
      type: "constant"
      value: 0.2
    }
  }
}
layer {
  name: "inception_4a/relu_3x3"
  type: "ReLU"
  bottom: "inception_4a/3x3"
  top: "inception_4a/3x3"
}
layer {
  name: "inception_4a/5x5_reduce"
  type: "Convolution"
  bottom: "pool3/3x3_s2"
  top: "inception_4a/5x5_reduce"
  param {
    lr_mult: 1
    decay_mult: 1
  }
  param {
    lr_mult: 2
    decay_mult: 0
  }
  convolution_param {
    num_output: 16
    kernel_size: 1
    weight_filler {
      type: "xavier"
      std: 0.2
    }
    bias_filler {
      type: "constant"
      value: 0.2
    }
  }
}
layer {
  name: "inception_4a/relu_5x5_reduce"
  type: "ReLU"
  bottom: "inception_4a/5x5_reduce"
  top: "inception_4a/5x5_reduce"
}
layer {
  name: "inception_4a/5x5"
  type: "Convolution"
  bottom: "inception_4a/5x5_reduce"
  top: "inception_4a/5x5"
  param {
    lr_mult: 1
    decay_mult: 1
  }
  param {
    lr_mult: 2
    decay_mult: 0
  }
  convolution_param {
    num_output: 48
    pad: 2
    kernel_size: 5
    weight_filler {
      type: "xavier"
      std: 0.03
    }
    bias_filler {
      type: "constant"
      value: 0.2
    }
  }
}
layer {
  name: "inception_4a/relu_5x5"
  type: "ReLU"
  bottom: "inception_4a/5x5"
  top: "inception_4a/5x5"
}
layer {
  name: "inception_4a/pool"
  type: "Pooling"
  bottom: "pool3/3x3_s2"
  top: "inception_4a/pool"
  pooling_param {
    pool: MAX
    kernel_size: 3
    stride: 1
    pad: 1
  }
}
layer {
  name: "inception_4a/pool_proj"
  type: "Convolution"
  bottom: "inception_4a/pool"
  top: "inception_4a/pool_proj"
  param {
    lr_mult: 1
    decay_mult: 1
  }
  param {
    lr_mult: 2
    decay_mult: 0
  }
  convolution_param {
    num_output: 64
    kernel_size: 1
    weight_filler {
      type: "xavier"
      std: 0.1
    }
    bias_filler {
      type: "constant"
      value: 0.2
    }
  }
}
layer {
  name: "inception_4a/relu_pool_proj"
  type: "ReLU"
  bottom: "inception_4a/pool_proj"
  top: "inception_4a/pool_proj"
}
layer {
  name: "inception_4a/output"
  type: "Concat"
  bottom: "inception_4a/1x1"
  bottom: "inception_4a/3x3"
  bottom: "inception_4a/5x5"
  bottom: "inception_4a/pool_proj"
  top: "inception_4a/output"
}
layer {
  name: "inception_4b/1x1"
  type: "Convolution"
  bottom: "inception_4a/output"
  top: "inception_4b/1x1"
  param {
    lr_mult: 1
    decay_mult: 1
  }
  param {
    lr_mult: 2
    decay_mult: 0
  }
  convolution_param {
    num_output: 160
    kernel_size: 1
    weight_filler {
      type: "xavier"
      std: 0.03
    }
    bias_filler {
      type: "constant"
      value: 0.2
    }
  }
}
layer {
  name: "inception_4b/relu_1x1"
  type: "ReLU"
  bottom: "inception_4b/1x1"
  top: "inception_4b/1x1"
}
layer {
  name: "inception_4b/3x3_reduce"
  type: "Convolution"
  bottom: "inception_4a/output"
  top: "inception_4b/3x3_reduce"
  param {
    lr_mult: 1
    decay_mult: 1
  }
  param {
    lr_mult: 2
    decay_mult: 0
  }
  convolution_param {
    num_output: 112
    kernel_size: 1
    weight_filler {
      type: "xavier"
      std: 0.09
    }
    bias_filler {
      type: "constant"
      value: 0.2
    }
  }
}
layer {
  name: "inception_4b/relu_3x3_reduce"
  type: "ReLU"
  bottom: "inception_4b/3x3_reduce"
  top: "inception_4b/3x3_reduce"
}
layer {
  name: "inception_4b/3x3"
  type: "Convolution"
  bottom: "inception_4b/3x3_reduce"
  top: "inception_4b/3x3"
  param {
    lr_mult: 1
    decay_mult: 1
  }
  param {
    lr_mult: 2
    decay_mult: 0
  }
  convolution_param {
    num_output: 224
    pad: 1
    kernel_size: 3
    weight_filler {
      type: "xavier"
      std: 0.03
    }
    bias_filler {
      type: "constant"
      value: 0.2
    }
  }
}
layer {
  name: "inception_4b/relu_3x3"
  type: "ReLU"
  bottom: "inception_4b/3x3"
  top: "inception_4b/3x3"
}
layer {
  name: "inception_4b/5x5_reduce"
  type: "Convolution"
  bottom: "inception_4a/output"
  top: "inception_4b/5x5_reduce"
  param {
    lr_mult: 1
    decay_mult: 1
  }
  param {
    lr_mult: 2
    decay_mult: 0
  }
  convolution_param {
    num_output: 24
    kernel_size: 1
    weight_filler {
      type: "xavier"
      std: 0.2
    }
    bias_filler {
      type: "constant"
      value: 0.2
    }
  }
}
layer {
  name: "inception_4b/relu_5x5_reduce"
  type: "ReLU"
  bottom: "inception_4b/5x5_reduce"
  top: "inception_4b/5x5_reduce"
}
layer {
  name: "inception_4b/5x5"
  type: "Convolution"
  bottom: "inception_4b/5x5_reduce"
  top: "inception_4b/5x5"
  param {
    lr_mult: 1
    decay_mult: 1
  }
  param {
    lr_mult: 2
    decay_mult: 0
  }
  convolution_param {
    num_output: 64
    pad: 2
    kernel_size: 5
    weight_filler {
      type: "xavier"
      std: 0.03
    }
    bias_filler {
      type: "constant"
      value: 0.2
    }
  }
}
layer {
  name: "inception_4b/relu_5x5"
  type: "ReLU"
  bottom: "inception_4b/5x5"
  top: "inception_4b/5x5"
}
layer {
  name: "inception_4b/pool"
  type: "Pooling"
  bottom: "inception_4a/output"
  top: "inception_4b/pool"
  pooling_param {
    pool: MAX
    kernel_size: 3
    stride: 1
    pad: 1
  }
}
layer {
  name: "inception_4b/pool_proj"
  type: "Convolution"
  bottom: "inception_4b/pool"
  top: "inception_4b/pool_proj"
  param {
    lr_mult: 1
    decay_mult: 1
  }
  param {
    lr_mult: 2
    decay_mult: 0
  }
  convolution_param {
    num_output: 64
    kernel_size: 1
    weight_filler {
      type: "xavier"
      std: 0.1
    }
    bias_filler {
      type: "constant"
      value: 0.2
    }
  }
}
layer {
  name: "inception_4b/relu_pool_proj"
  type: "ReLU"
  bottom: "inception_4b/pool_proj"
  top: "inception_4b/pool_proj"
}
layer {
  name: "inception_4b/output"
  type: "Concat"
  bottom: "inception_4b/1x1"
  bottom: "inception_4b/3x3"
  bottom: "inception_4b/5x5"
  bottom: "inception_4b/pool_proj"
  top: "inception_4b/output"
}
layer {
  name: "inception_4c/1x1"
  type: "Convolution"
  bottom: "inception_4b/output"
  top: "inception_4c/1x1"
  param {
    lr_mult: 1
    decay_mult: 1
  }
  param {
    lr_mult: 2
    decay_mult: 0
  }
  convolution_param {
    num_output: 128
    kernel_size: 1
    weight_filler {
      type: "xavier"
      std: 0.03
    }
    bias_filler {
      type: "constant"
      value: 0.2
    }
  }
}
layer {
  name: "inception_4c/relu_1x1"
  type: "ReLU"
  bottom: "inception_4c/1x1"
  top: "inception_4c/1x1"
}
layer {
  name: "inception_4c/3x3_reduce"
  type: "Convolution"
  bottom: "inception_4b/output"
  top: "inception_4c/3x3_reduce"
  param {
    lr_mult: 1
    decay_mult: 1
  }
  param {
    lr_mult: 2
    decay_mult: 0
  }
  convolution_param {
    num_output: 128
    kernel_size: 1
    weight_filler {
      type: "xavier"
      std: 0.09
    }
    bias_filler {
      type: "constant"
      value: 0.2
    }
  }
}
layer {
  name: "inception_4c/relu_3x3_reduce"
  type: "ReLU"
  bottom: "inception_4c/3x3_reduce"
  top: "inception_4c/3x3_reduce"
}
layer {
  name: "inception_4c/3x3"
  type: "Convolution"
  bottom: "inception_4c/3x3_reduce"
  top: "inception_4c/3x3"
  param {
    lr_mult: 1
    decay_mult: 1
  }
  param {
    lr_mult: 2
    decay_mult: 0
  }
  convolution_param {
    num_output: 256
    pad: 1
    kernel_size: 3
    weight_filler {
      type: "xavier"
      std: 0.03
    }
    bias_filler {
      type: "constant"
      value: 0.2
    }
  }
}
layer {
  name: "inception_4c/relu_3x3"
  type: "ReLU"
  bottom: "inception_4c/3x3"
  top: "inception_4c/3x3"
}
layer {
  name: "inception_4c/5x5_reduce"
  type: "Convolution"
  bottom: "inception_4b/output"
  top: "inception_4c/5x5_reduce"
  param {
    lr_mult: 1
    decay_mult: 1
  }
  param {
    lr_mult: 2
    decay_mult: 0
  }
  convolution_param {
    num_output: 24
    kernel_size: 1
    weight_filler {
      type: "xavier"
      std: 0.2
    }
    bias_filler {
      type: "constant"
      value: 0.2
    }
  }
}
layer {
  name: "inception_4c/relu_5x5_reduce"
  type: "ReLU"
  bottom: "inception_4c/5x5_reduce"
  top: "inception_4c/5x5_reduce"
}
layer {
  name: "inception_4c/5x5"
  type: "Convolution"
  bottom: "inception_4c/5x5_reduce"
  top: "inception_4c/5x5"
  param {
    lr_mult: 1
    decay_mult: 1
  }
  param {
    lr_mult: 2
    decay_mult: 0
  }
  convolution_param {
    num_output: 64
    pad: 2
    kernel_size: 5
    weight_filler {
      type: "xavier"
      std: 0.03
    }
    bias_filler {
      type: "constant"
      value: 0.2
    }
  }
}
layer {
  name: "inception_4c/relu_5x5"
  type: "ReLU"
  bottom: "inception_4c/5x5"
  top: "inception_4c/5x5"
}
layer {
  name: "inception_4c/pool"
  type: "Pooling"
  bottom: "inception_4b/output"
  top: "inception_4c/pool"
  pooling_param {
    pool: MAX
    kernel_size: 3
    stride: 1
    pad: 1
  }
}
layer {
  name: "inception_4c/pool_proj"
  type: "Convolution"
  bottom: "inception_4c/pool"
  top: "inception_4c/pool_proj"
  param {
    lr_mult: 1
    decay_mult: 1
  }
  param {
    lr_mult: 2
    decay_mult: 0
  }
  convolution_param {
    num_output: 64
    kernel_size: 1
    weight_filler {
      type: "xavier"
      std: 0.1
    }
    bias_filler {
      type: "constant"
      value: 0.2
    }
  }
}
layer {
  name: "inception_4c/relu_pool_proj"
  type: "ReLU"
  bottom: "inception_4c/pool_proj"
  top: "inception_4c/pool_proj"
}
layer {
  name: "inception_4c/output"
  type: "Concat"
  bottom: "inception_4c/1x1"
  bottom: "inception_4c/3x3"
  bottom: "inception_4c/5x5"
  bottom: "inception_4c/pool_proj"
  top: "inception_4c/output"
}
layer {
  name: "inception_4d/1x1"
  type: "Convolution"
  bottom: "inception_4c/output"
  top: "inception_4d/1x1"
  param {
    lr_mult: 1
    decay_mult: 1
  }
  param {
    lr_mult: 2
    decay_mult: 0
  }
  convolution_param {
    num_output: 112
    kernel_size: 1
    weight_filler {
      type: "xavier"
      std: 0.03
    }
    bias_filler {
      type: "constant"
      value: 0.2
    }
  }
}
layer {
  name: "inception_4d/relu_1x1"
  type: "ReLU"
  bottom: "inception_4d/1x1"
  top: "inception_4d/1x1"
}
layer {
  name: "inception_4d/3x3_reduce"
  type: "Convolution"
  bottom: "inception_4c/output"
  top: "inception_4d/3x3_reduce"
  param {
    lr_mult: 1
    decay_mult: 1
  }
  param {
    lr_mult: 2
    decay_mult: 0
  }
  convolution_param {
    num_output: 144
    kernel_size: 1
    weight_filler {
      type: "xavier"
      std: 0.09
    }
    bias_filler {
      type: "constant"
      value: 0.2
    }
  }
}
layer {
  name: "inception_4d/relu_3x3_reduce"
  type: "ReLU"
  bottom: "inception_4d/3x3_reduce"
  top: "inception_4d/3x3_reduce"
}
layer {
  name: "inception_4d/3x3"
  type: "Convolution"
  bottom: "inception_4d/3x3_reduce"
  top: "inception_4d/3x3"
  param {
    lr_mult: 1
    decay_mult: 1
  }
  param {
    lr_mult: 2
    decay_mult: 0
  }
  convolution_param {
    num_output: 288
    pad: 1
    kernel_size: 3
    weight_filler {
      type: "xavier"
      std: 0.03
    }
    bias_filler {
      type: "constant"
      value: 0.2
    }
  }
}
layer {
  name: "inception_4d/relu_3x3"
  type: "ReLU"
  bottom: "inception_4d/3x3"
  top: "inception_4d/3x3"
}
layer {
  name: "inception_4d/5x5_reduce"
  type: "Convolution"
  bottom: "inception_4c/output"
  top: "inception_4d/5x5_reduce"
  param {
    lr_mult: 1
    decay_mult: 1
  }
  param {
    lr_mult: 2
    decay_mult: 0
  }
  convolution_param {
    num_output: 32
    kernel_size: 1
    weight_filler {
      type: "xavier"
      std: 0.2
    }
    bias_filler {
      type: "constant"
      value: 0.2
    }
  }
}
layer {
  name: "inception_4d/relu_5x5_reduce"
  type: "ReLU"
  bottom: "inception_4d/5x5_reduce"
  top: "inception_4d/5x5_reduce"
}
layer {
  name: "inception_4d/5x5"
  type: "Convolution"
  bottom: "inception_4d/5x5_reduce"
  top: "inception_4d/5x5"
  param {
    lr_mult: 1
    decay_mult: 1
  }
  param {
    lr_mult: 2
    decay_mult: 0
  }
  convolution_param {
    num_output: 64
    pad: 2
    kernel_size: 5
    weight_filler {
      type: "xavier"
      std: 0.03
    }
    bias_filler {
      type: "constant"
      value: 0.2
    }
  }
}
layer {
  name: "inception_4d/relu_5x5"
  type: "ReLU"
  bottom: "inception_4d/5x5"
  top: "inception_4d/5x5"
}
layer {
  name: "inception_4d/pool"
  type: "Pooling"
  bottom: "inception_4c/output"
  top: "inception_4d/pool"
  pooling_param {
    pool: MAX
    kernel_size: 3
    stride: 1
    pad: 1
  }
}
layer {
  name: "inception_4d/pool_proj"
  type: "Convolution"
  bottom: "inception_4d/pool"
  top: "inception_4d/pool_proj"
  param {
    lr_mult: 1
    decay_mult: 1
  }
  param {
    lr_mult: 2
    decay_mult: 0
  }
  convolution_param {
    num_output: 64
    kernel_size: 1
    weight_filler {
      type: "xavier"
      std: 0.1
    }
    bias_filler {
      type: "constant"
      value: 0.2
    }
  }
}
layer {
  name: "inception_4d/relu_pool_proj"
  type: "ReLU"
  bottom: "inception_4d/pool_proj"
  top: "inception_4d/pool_proj"
}
layer {
  name: "inception_4d/output"
  type: "Concat"
  bottom: "inception_4d/1x1"
  bottom: "inception_4d/3x3"
  bottom: "inception_4d/5x5"
  bottom: "inception_4d/pool_proj"
  top: "inception_4d/output"
}
layer {
  name: "inception_4e/1x1"
  type: "Convolution"
  bottom: "inception_4d/output"
  top: "inception_4e/1x1"
  param {
    lr_mult: 1
    decay_mult: 1
  }
  param {
    lr_mult: 2
    decay_mult: 0
  }
  convolution_param {
    num_output: 256
    kernel_size: 1
    weight_filler {
      type: "xavier"
      std: 0.03
    }
    bias_filler {
      type: "constant"
      value: 0.2
    }
  }
}
layer {
  name: "inception_4e/relu_1x1"
  type: "ReLU"
  bottom: "inception_4e/1x1"
  top: "inception_4e/1x1"
}
layer {
  name: "inception_4e/3x3_reduce"
  type: "Convolution"
  bottom: "inception_4d/output"
  top: "inception_4e/3x3_reduce"
  param {
    lr_mult: 1
    decay_mult: 1
  }
  param {
    lr_mult: 2
    decay_mult: 0
  }
  convolution_param {
    num_output: 160
    kernel_size: 1
    weight_filler {
      type: "xavier"
      std: 0.09
    }
    bias_filler {
      type: "constant"
      value: 0.2
    }
  }
}
layer {
  name: "inception_4e/relu_3x3_reduce"
  type: "ReLU"
  bottom: "inception_4e/3x3_reduce"
  top: "inception_4e/3x3_reduce"
}
layer {
  name: "inception_4e/3x3"
  type: "Convolution"
  bottom: "inception_4e/3x3_reduce"
  top: "inception_4e/3x3"
  param {
    lr_mult: 1
    decay_mult: 1
  }
  param {
    lr_mult: 2
    decay_mult: 0
  }
  convolution_param {
    num_output: 320
    pad: 1
    kernel_size: 3
    weight_filler {
      type: "xavier"
      std: 0.03
    }
    bias_filler {
      type: "constant"
      value: 0.2
    }
  }
}
layer {
  name: "inception_4e/relu_3x3"
  type: "ReLU"
  bottom: "inception_4e/3x3"
  top: "inception_4e/3x3"
}
layer {
  name: "inception_4e/5x5_reduce"
  type: "Convolution"
  bottom: "inception_4d/output"
  top: "inception_4e/5x5_reduce"
  param {
    lr_mult: 1
    decay_mult: 1
  }
  param {
    lr_mult: 2
    decay_mult: 0
  }
  convolution_param {
    num_output: 32
    kernel_size: 1
    weight_filler {
      type: "xavier"
      std: 0.2
    }
    bias_filler {
      type: "constant"
      value: 0.2
    }
  }
}
layer {
  name: "inception_4e/relu_5x5_reduce"
  type: "ReLU"
  bottom: "inception_4e/5x5_reduce"
  top: "inception_4e/5x5_reduce"
}
layer {
  name: "inception_4e/5x5"
  type: "Convolution"
  bottom: "inception_4e/5x5_reduce"
  top: "inception_4e/5x5"
  param {
    lr_mult: 1
    decay_mult: 1
  }
  param {
    lr_mult: 2
    decay_mult: 0
  }
  convolution_param {
    num_output: 128
    pad: 2
    kernel_size: 5
    weight_filler {
      type: "xavier"
      std: 0.03
    }
    bias_filler {
      type: "constant"
      value: 0.2
    }
  }
}
layer {
  name: "inception_4e/relu_5x5"
  type: "ReLU"
  bottom: "inception_4e/5x5"
  top: "inception_4e/5x5"
}
layer {
  name: "inception_4e/pool"
  type: "Pooling"
  bottom: "inception_4d/output"
  top: "inception_4e/pool"
  pooling_param {
    pool: MAX
    kernel_size: 3
    stride: 1
    pad: 1
  }
}
layer {
  name: "inception_4e/pool_proj"
  type: "Convolution"
  bottom: "inception_4e/pool"
  top: "inception_4e/pool_proj"
  param {
    lr_mult: 1
    decay_mult: 1
  }
  param {
    lr_mult: 2
    decay_mult: 0
  }
  convolution_param {
    num_output: 128
    kernel_size: 1
    weight_filler {
      type: "xavier"
      std: 0.1
    }
    bias_filler {
      type: "constant"
      value: 0.2
    }
  }
}
layer {
  name: "inception_4e/relu_pool_proj"
  type: "ReLU"
  bottom: "inception_4e/pool_proj"
  top: "inception_4e/pool_proj"
}
layer {
  name: "inception_4e/output"
  type: "Concat"
  bottom: "inception_4e/1x1"
  bottom: "inception_4e/3x3"
  bottom: "inception_4e/5x5"
  bottom: "inception_4e/pool_proj"
  top: "inception_4e/output"
}
layer {
  name: "pool4/3x3_s2"
  type: "Pooling"
  bottom: "inception_4e/output"
  top: "pool4/3x3_s2"
  pooling_param {
    pool: MAX
    kernel_size: 3
    stride: 2
  }
}
layer {
  name: "inception_5a/1x1"
  type: "Convolution"
  bottom: "pool4/3x3_s2"
  top: "inception_5a/1x1"
  param {
    lr_mult: 1
    decay_mult: 1
  }
  param {
    lr_mult: 2
    decay_mult: 0
  }
  convolution_param {
    num_output: 256
    kernel_size: 1
    weight_filler {
      type: "xavier"
      std: 0.03
    }
    bias_filler {
      type: "constant"
      value: 0.2
    }
  }
}
layer {
  name: "inception_5a/relu_1x1"
  type: "ReLU"
  bottom: "inception_5a/1x1"
  top: "inception_5a/1x1"
}
layer {
  name: "inception_5a/3x3_reduce"
  type: "Convolution"
  bottom: "pool4/3x3_s2"
  top: "inception_5a/3x3_reduce"
  param {
    lr_mult: 1
    decay_mult: 1
  }
  param {
    lr_mult: 2
    decay_mult: 0
  }
  convolution_param {
    num_output: 160
    kernel_size: 1
    weight_filler {
      type: "xavier"
      std: 0.09
    }
    bias_filler {
      type: "constant"
      value: 0.2
    }
  }
}
layer {
  name: "inception_5a/relu_3x3_reduce"
  type: "ReLU"
  bottom: "inception_5a/3x3_reduce"
  top: "inception_5a/3x3_reduce"
}
layer {
  name: "inception_5a/3x3"
  type: "Convolution"
  bottom: "inception_5a/3x3_reduce"
  top: "inception_5a/3x3"
  param {
    lr_mult: 1
    decay_mult: 1
  }
  param {
    lr_mult: 2
    decay_mult: 0
  }
  convolution_param {
    num_output: 320
    pad: 1
    kernel_size: 3
    weight_filler {
      type: "xavier"
      std: 0.03
    }
    bias_filler {
      type: "constant"
      value: 0.2
    }
  }
}
layer {
  name: "inception_5a/relu_3x3"
  type: "ReLU"
  bottom: "inception_5a/3x3"
  top: "inception_5a/3x3"
}
layer {
  name: "inception_5a/5x5_reduce"
  type: "Convolution"
  bottom: "pool4/3x3_s2"
  top: "inception_5a/5x5_reduce"
  param {
    lr_mult: 1
    decay_mult: 1
  }
  param {
    lr_mult: 2
    decay_mult: 0
  }
  convolution_param {
    num_output: 32
    kernel_size: 1
    weight_filler {
      type: "xavier"
      std: 0.2
    }
    bias_filler {
      type: "constant"
      value: 0.2
    }
I0714 23:26:51.815722 32432 layer_factory.hpp:77] Creating layer data
I0714 23:26:51.815745 32432 net.cpp:91] Creating Layer data
I0714 23:26:51.815755 32432 net.cpp:399] data -> data
I0714 23:26:51.816509 32428 net.cpp:49] Initializing net from parameters: 
name: "GoogleNet"
state {
  phase: TEST
}
layer {
  name: "data"
  type: "Input"
  top: "data"
  input_param {
    shape {
      dim: 10
      dim: 3
      dim: 224
      dim: 224
    }
  }
}
layer {
  name: "conv1/7x7_s2"
  type: "Convolution"
  bottom: "data"
  top: "conv1/7x7_s2"
  param {
    lr_mult: 1
    decay_mult: 1
  }
  param {
    lr_mult: 2
    decay_mult: 0
  }
  convolution_param {
    num_output: 64
    pad: 3
    kernel_size: 7
    stride: 2
    weight_filler {
      type: "xavier"
      std: 0.1
    }
    bias_filler {
      type: "constant"
      value: 0.2
    }
  }
}
layer {
  name: "conv1/relu_7x7"
  type: "ReLU"
  bottom: "conv1/7x7_s2"
  top: "conv1/7x7_s2"
}
layer {
  name: "pool1/3x3_s2"
  type: "Pooling"
  bottom: "conv1/7x7_s2"
  top: "pool1/3x3_s2"
  pooling_param {
    pool: MAX
    kernel_size: 3
    stride: 2
  }
}
layer {
  name: "pool1/norm1"
  type: "LRN"
  bottom: "pool1/3x3_s2"
  top: "pool1/norm1"
  lrn_param {
    local_size: 5
    alpha: 0.0001
    beta: 0.75
  }
}
layer {
  name: "conv2/3x3_reduce"
  type: "Convolution"
  bottom: "pool1/norm1"
  top: "conv2/3x3_reduce"
  param {
    lr_mult: 1
    decay_mult: 1
  }
  param {
    lr_mult: 2
    decay_mult: 0
  }
  convolution_param {
    num_output: 64
    kernel_size: 1
    weight_filler {
      type: "xavier"
      std: 0.1
    }
    bias_filler {
      type: "constant"
      value: 0.2
    }
  }
}
layer {
  name: "conv2/relu_3x3_reduce"
  type: "ReLU"
  bottom: "conv2/3x3_reduce"
  top: "conv2/3x3_reduce"
}
layer {
  name: "conv2/3x3"
  type: "Convolution"
  bottom: "conv2/3x3_reduce"
  top: "conv2/3x3"
  param {
    lr_mult: 1
    decay_mult: 1
  }
  param {
    lr_mult: 2
    decay_mult: 0
  }
  convolution_param {
    num_output: 192
    pad: 1
    kernel_size: 3
    weight_filler {
      type: "xavier"
      std: 0.03
    }
    bias_filler {
      type: "constant"
      value: 0.2
    }
  }
}
layer {
  name: "conv2/relu_3x3"
  type: "ReLU"
  bottom: "conv2/3x3"
  top: "conv2/3x3"
}
layer {
  name: "conv2/norm2"
  type: "LRN"
  bottom: "conv2/3x3"
  top: "conv2/norm2"
  lrn_param {
    local_size: 5
    alpha: 0.0001
    beta: 0.75
  }
}
layer {
  name: "pool2/3x3_s2"
  type: "Pooling"
  bottom: "conv2/norm2"
  top: "pool2/3x3_s2"
  pooling_param {
    pool: MAX
    kernel_size: 3
    stride: 2
  }
}
layer {
  name: "inception_3a/1x1"
  type: "Convolution"
  bottom: "pool2/3x3_s2"
  top: "inception_3a/1x1"
  param {
    lr_mult: 1
    decay_mult: 1
  }
  param {
    lr_mult: 2
    decay_mult: 0
  }
  convolution_param {
    num_output: 64
    kernel_size: 1
    weight_filler {
      type: "xavier"
      std: 0.03
    }
    bias_filler {
      type: "constant"
      value: 0.2
    }
  }
}
layer {
  name: "inception_3a/relu_1x1"
  type: "ReLU"
  bottom: "inception_3a/1x1"
  top: "inception_3a/1x1"
}
layer {
  name: "inception_3a/3x3_reduce"
  type: "Convolution"
  bottom: "pool2/3x3_s2"
  top: "inception_3a/3x3_reduce"
  param {
    lr_mult: 1
    decay_mult: 1
  }
  param {
    lr_mult: 2
    decay_mult: 0
  }
  convolution_param {
    num_output: 96
    kernel_size: 1
    weight_filler {
      type: "xavier"
      std: 0.09
    }
    bias_filler {
      type: "constant"
      value: 0.2
    }
  }
}
layer {
  name: "inception_3a/relu_3x3_reduce"
  type: "ReLU"
  bottom: "inception_3a/3x3_reduce"
  top: "inception_3a/3x3_reduce"
}
layer {
  name: "inception_3a/3x3"
  type: "Convolution"
  bottom: "inception_3a/3x3_reduce"
  top: "inception_3a/3x3"
  param {
    lr_mult: 1
    decay_mult: 1
  }
  param {
    lr_mult: 2
    decay_mult: 0
  }
  convolution_param {
    num_output: 128
    pad: 1
    kernel_size: 3
    weight_filler {
      type: "xavier"
      std: 0.03
    }
    bias_filler {
      type: "constant"
      value: 0.2
    }
  }
}
layer {
  name: "inception_3a/relu_3x3"
  type: "ReLU"
  bottom: "inception_3a/3x3"
  top: "inception_3a/3x3"
}
layer {
  name: "inception_3a/5x5_reduce"
  type: "Convolution"
  bottom: "pool2/3x3_s2"
  top: "inception_3a/5x5_reduce"
  param {
    lr_mult: 1
    decay_mult: 1
  }
  param {
    lr_mult: 2
    decay_mult: 0
  }
  convolution_param {
    num_output: 16
    kernel_size: 1
    weight_filler {
      type: "xavier"
      std: 0.2
    }
    bias_filler {
      type: "constant"
      value: 0.2
    }
  }
}
layer {
  name: "inception_3a/relu_5x5_reduce"
  type: "ReLU"
  bottom: "inception_3a/5x5_reduce"
  top: "inception_3a/5x5_reduce"
}
layer {
  name: "inception_3a/5x5"
  type: "Convolution"
  bottom: "inception_3a/5x5_reduce"
  top: "inception_3a/5x5"
  param {
    lr_mult: 1
    decay_mult: 1
  }
  param {
    lr_mult: 2
    decay_mult: 0
  }
  convolution_param {
    num_output: 32
    pad: 2
    kernel_size: 5
    weight_filler {
      type: "xavier"
      std: 0.03
    }
    bias_filler {
      type: "constant"
      value: 0.2
    }
  }
}
layer {
  name: "inception_3a/relu_5x5"
  type: "ReLU"
  bottom: "inception_3a/5x5"
  top: "inception_3a/5x5"
}
layer {
  name: "inception_3a/pool"
  type: "Pooling"
  bottom: "pool2/3x3_s2"
  top: "inception_3a/pool"
  pooling_param {
    pool: MAX
    kernel_size: 3
    stride: 1
    pad: 1
  }
}
layer {
  name: "inception_3a/pool_proj"
  type: "Convolution"
  bottom: "inception_3a/pool"
  top: "inception_3a/pool_proj"
  param {
    lr_mult: 1
    decay_mult: 1
  }
  param {
    lr_mult: 2
    decay_mult: 0
  }
  convolution_param {
    num_output: 32
    kernel_size: 1
    weight_filler {
      type: "xavier"
      std: 0.1
    }
    bias_filler {
      type: "constant"
      value: 0.2
    }
  }
}
layer {
  name: "inception_3a/relu_pool_proj"
  type: "ReLU"
  bottom: "inception_3a/pool_proj"
  top: "inception_3a/pool_proj"
}
layer {
  name: "inception_3a/output"
  type: "Concat"
  bottom: "inception_3a/1x1"
  bottom: "inception_3a/3x3"
  bottom: "inception_3a/5x5"
  bottom: "inception_3a/pool_proj"
  top: "inception_3a/output"
}
layer {
  name: "inception_3b/1x1"
  type: "Convolution"
  bottom: "inception_3a/output"
  top: "inception_3b/1x1"
  param {
    lr_mult: 1
    decay_mult: 1
  }
  param {
    lr_mult: 2
    decay_mult: 0
  }
  convolution_param {
    num_output: 128
    kernel_size: 1
    weight_filler {
      type: "xavier"
      std: 0.03
    }
    bias_filler {
      type: "constant"
      value: 0.2
    }
  }
}
layer {
  name: "inception_3b/relu_1x1"
  type: "ReLU"
  bottom: "inception_3b/1x1"
  top: "inception_3b/1x1"
}
layer {
  name: "inception_3b/3x3_reduce"
  type: "Convolution"
  bottom: "inception_3a/output"
  top: "inception_3b/3x3_reduce"
  param {
    lr_mult: 1
    decay_mult: 1
  }
  param {
    lr_mult: 2
    decay_mult: 0
  }
  convolution_param {
    num_output: 128
    kernel_size: 1
    weight_filler {
      type: "xavier"
      std: 0.09
    }
    bias_filler {
      type: "constant"
      value: 0.2
    }
  }
}
layer {
  name: "inception_3b/relu_3x3_reduce"
  type: "ReLU"
  bottom: "inception_3b/3x3_reduce"
  top: "inception_3b/3x3_reduce"
}
layer {
  name: "inception_3b/3x3"
  type: "Convolution"
  bottom: "inception_3b/3x3_reduce"
  top: "inception_3b/3x3"
  param {
    lr_mult: 1
    decay_mult: 1
  }
  param {
    lr_mult: 2
    decay_mult: 0
  }
  convolution_param {
    num_output: 192
    pad: 1
    kernel_size: 3
    weight_filler {
      type: "xavier"
      std: 0.03
    }
    bias_filler {
      type: "constant"
      value: 0.2
    }
  }
}
layer {
  name: "inception_3b/relu_3x3"
  type: "ReLU"
  bottom: "inception_3b/3x3"
  top: "inception_3b/3x3"
}
layer {
  name: "inception_3b/5x5_reduce"
  type: "Convolution"
  bottom: "inception_3a/output"
  top: "inception_3b/5x5_reduce"
  param {
    lr_mult: 1
    decay_mult: 1
  }
  param {
    lr_mult: 2
    decay_mult: 0
  }
  convolution_param {
    num_output: 32
    kernel_size: 1
    weight_filler {
      type: "xavier"
      std: 0.2
    }
    bias_filler {
      type: "constant"
      value: 0.2
    }
  }
}
layer {
  name: "inception_3b/relu_5x5_reduce"
  type: "ReLU"
  bottom: "inception_3b/5x5_reduce"
  top: "inception_3b/5x5_reduce"
}
layer {
  name: "inception_3b/5x5"
  type: "Convolution"
  bottom: "inception_3b/5x5_reduce"
  top: "inception_3b/5x5"
  param {
    lr_mult: 1
    decay_mult: 1
  }
  param {
    lr_mult: 2
    decay_mult: 0
  }
  convolution_param {
    num_output: 96
    pad: 2
    kernel_size: 5
    weight_filler {
      type: "xavier"
      std: 0.03
    }
    bias_filler {
      type: "constant"
      value: 0.2
    }
  }
}
layer {
  name: "inception_3b/relu_5x5"
  type: "ReLU"
  bottom: "inception_3b/5x5"
  top: "inception_3b/5x5"
}
layer {
  name: "inception_3b/pool"
  type: "Pooling"
  bottom: "inception_3a/output"
  top: "inception_3b/pool"
  pooling_param {
    pool: MAX
    kernel_size: 3
    stride: 1
    pad: 1
  }
}
layer {
  name: "inception_3b/pool_proj"
  type: "Convolution"
  bottom: "inception_3b/pool"
  top: "inception_3b/pool_proj"
  param {
    lr_mult: 1
    decay_mult: 1
  }
  param {
    lr_mult: 2
    decay_mult: 0
  }
  convolution_param {
    num_output: 64
    kernel_size: 1
    weight_filler {
      type: "xavier"
      std: 0.1
    }
    bias_filler {
      type: "constant"
      value: 0.2
    }
  }
}
layer {
  name: "inception_3b/relu_pool_proj"
  type: "ReLU"
  bottom: "inception_3b/pool_proj"
  top: "inception_3b/pool_proj"
}
layer {
  name: "inception_3b/output"
  type: "Concat"
  bottom: "inception_3b/1x1"
  bottom: "inception_3b/3x3"
  bottom: "inception_3b/5x5"
  bottom: "inception_3b/pool_proj"
  top: "inception_3b/output"
}
layer {
  name: "pool3/3x3_s2"
  type: "Pooling"
  bottom: "inception_3b/output"
  top: "pool3/3x3_s2"
  pooling_param {
    pool: MAX
    kernel_size: 3
    stride: 2
  }
}
layer {
  name: "inception_4a/1x1"
  type: "Convolution"
  bottom: "pool3/3x3_s2"
  top: "inception_4a/1x1"
  param {
    lr_mult: 1
    decay_mult: 1
  }
  param {
    lr_mult: 2
    decay_mult: 0
  }
  convolution_param {
    num_output: 192
    kernel_size: 1
    weight_filler {
      type: "xavier"
      std: 0.03
    }
    bias_filler {
      type: "constant"
      value: 0.2
    }
  }
}
layer {
  name: "inception_4a/relu_1x1"
  type: "ReLU"
  bottom: "inception_4a/1x1"
  top: "inception_4a/1x1"
}
layer {
  name: "inception_4a/3x3_reduce"
  type: "Convolution"
  bottom: "pool3/3x3_s2"
  top: "inception_4a/3x3_reduce"
  param {
    lr_mult: 1
    decay_mult: 1
  }
  param {
    lr_mult: 2
    decay_mult: 0
  }
  convolution_param {
    num_output: 96
    kernel_size: 1
    weight_filler {
      type: "xavier"
      std: 0.09
    }
    bias_filler {
      type: "constant"
      value: 0.2
    }
  }
}
layer {
  name: "inception_4a/relu_3x3_reduce"
  type: "ReLU"
  bottom: "inception_4a/3x3_reduce"
  top: "inception_4a/3x3_reduce"
}
layer {
  name: "inception_4a/3x3"
  type: "Convolution"
  bottom: "inception_4a/3x3_reduce"
  top: "inception_4a/3x3"
  param {
    lr_mult: 1
    decay_mult: 1
  }
  param {
    lr_mult: 2
    decay_mult: 0
  }
  convolution_param {
    num_output: 208
    pad: 1
    kernel_size: 3
    weight_filler {
      type: "xavier"
      std: 0.03
    }
    bias_filler {
      type: "constant"
      value: 0.2
    }
  }
}
layer {
  name: "inception_4a/relu_3x3"
  type: "ReLU"
  bottom: "inception_4a/3x3"
  top: "inception_4a/3x3"
}
layer {
  name: "inception_4a/5x5_reduce"
  type: "Convolution"
  bottom: "pool3/3x3_s2"
  top: "inception_4a/5x5_reduce"
  param {
    lr_mult: 1
    decay_mult: 1
  }
  param {
    lr_mult: 2
    decay_mult: 0
  }
  convolution_param {
    num_output: 16
    kernel_size: 1
    weight_filler {
      type: "xavier"
      std: 0.2
    }
    bias_filler {
      type: "constant"
      value: 0.2
    }
  }
}
layer {
  name: "inception_4a/relu_5x5_reduce"
  type: "ReLU"
  bottom: "inception_4a/5x5_reduce"
  top: "inception_4a/5x5_reduce"
}
layer {
  name: "inception_4a/5x5"
  type: "Convolution"
  bottom: "inception_4a/5x5_reduce"
  top: "inception_4a/5x5"
  param {
    lr_mult: 1
    decay_mult: 1
  }
  param {
    lr_mult: 2
    decay_mult: 0
  }
  convolution_param {
    num_output: 48
    pad: 2
    kernel_size: 5
    weight_filler {
      type: "xavier"
      std: 0.03
    }
    bias_filler {
      type: "constant"
      value: 0.2
    }
  }
}
layer {
  name: "inception_4a/relu_5x5"
  type: "ReLU"
  bottom: "inception_4a/5x5"
  top: "inception_4a/5x5"
}
layer {
  name: "inception_4a/pool"
  type: "Pooling"
  bottom: "pool3/3x3_s2"
  top: "inception_4a/pool"
  pooling_param {
    pool: MAX
    kernel_size: 3
    stride: 1
    pad: 1
  }
}
layer {
  name: "inception_4a/pool_proj"
  type: "Convolution"
  bottom: "inception_4a/pool"
  top: "inception_4a/pool_proj"
  param {
    lr_mult: 1
    decay_mult: 1
  }
  param {
    lr_mult: 2
    decay_mult: 0
  }
  convolution_param {
    num_output: 64
    kernel_size: 1
    weight_filler {
      type: "xavier"
      std: 0.1
    }
    bias_filler {
      type: "constant"
      value: 0.2
    }
  }
}
layer {
  name: "inception_4a/relu_pool_proj"
  type: "ReLU"
  bottom: "inception_4a/pool_proj"
  top: "inception_4a/pool_proj"
}
layer {
  name: "inception_4a/output"
  type: "Concat"
  bottom: "inception_4a/1x1"
  bottom: "inception_4a/3x3"
  bottom: "inception_4a/5x5"
  bottom: "inception_4a/pool_proj"
  top: "inception_4a/output"
}
layer {
  name: "inception_4b/1x1"
  type: "Convolution"
  bottom: "inception_4a/output"
  top: "inception_4b/1x1"
  param {
    lr_mult: 1
    decay_mult: 1
  }
  param {
    lr_mult: 2
    decay_mult: 0
  }
  convolution_param {
    num_output: 160
    kernel_size: 1
    weight_filler {
      type: "xavier"
      std: 0.03
    }
    bias_filler {
      type: "constant"
      value: 0.2
    }
  }
}
layer {
  name: "inception_4b/relu_1x1"
  type: "ReLU"
  bottom: "inception_4b/1x1"
  top: "inception_4b/1x1"
}
layer {
  name: "inception_4b/3x3_reduce"
  type: "Convolution"
  bottom: "inception_4a/output"
  top: "inception_4b/3x3_reduce"
  param {
    lr_mult: 1
    decay_mult: 1
  }
  param {
    lr_mult: 2
    decay_mult: 0
  }
  convolution_param {
    num_output: 112
    kernel_size: 1
    weight_filler {
      type: "xavier"
      std: 0.09
    }
    bias_filler {
      type: "constant"
      value: 0.2
    }
  }
}
layer {
  name: "inception_4b/relu_3x3_reduce"
  type: "ReLU"
  bottom: "inception_4b/3x3_reduce"
  top: "inception_4b/3x3_reduce"
}
layer {
  name: "inception_4b/3x3"
  type: "Convolution"
  bottom: "inception_4b/3x3_reduce"
  top: "inception_4b/3x3"
  param {
    lr_mult: 1
    decay_mult: 1
  }
  param {
    lr_mult: 2
    decay_mult: 0
  }
  convolution_param {
    num_output: 224
    pad: 1
    kernel_size: 3
    weight_filler {
      type: "xavier"
      std: 0.03
    }
    bias_filler {
      type: "constant"
      value: 0.2
    }
  }
}
layer {
  name: "inception_4b/relu_3x3"
  type: "ReLU"
  bottom: "inception_4b/3x3"
  top: "inception_4b/3x3"
}
layer {
  name: "inception_4b/5x5_reduce"
  type: "Convolution"
  bottom: "inception_4a/output"
  top: "inception_4b/5x5_reduce"
  param {
    lr_mult: 1
    decay_mult: 1
  }
  param {
    lr_mult: 2
    decay_mult: 0
  }
  convolution_param {
    num_output: 24
    kernel_size: 1
    weight_filler {
      type: "xavier"
      std: 0.2
    }
    bias_filler {
      type: "constant"
      value: 0.2
    }
  }
}
layer {
  name: "inception_4b/relu_5x5_reduce"
  type: "ReLU"
  bottom: "inception_4b/5x5_reduce"
  top: "inception_4b/5x5_reduce"
}
layer {
  name: "inception_4b/5x5"
  type: "Convolution"
  bottom: "inception_4b/5x5_reduce"
  top: "inception_4b/5x5"
  param {
    lr_mult: 1
    decay_mult: 1
  }
  param {
    lr_mult: 2
    decay_mult: 0
  }
  convolution_param {
    num_output: 64
    pad: 2
    kernel_size: 5
    weight_filler {
      type: "xavier"
      std: 0.03
    }
    bias_filler {
      type: "constant"
      value: 0.2
    }
  }
}
layer {
  name: "inception_4b/relu_5x5"
  type: "ReLU"
  bottom: "inception_4b/5x5"
  top: "inception_4b/5x5"
}
layer {
  name: "inception_4b/pool"
  type: "Pooling"
  bottom: "inception_4a/output"
  top: "inception_4b/pool"
  pooling_param {
    pool: MAX
    kernel_size: 3
    stride: 1
    pad: 1
  }
}
layer {
  name: "inception_4b/pool_proj"
  type: "Convolution"
  bottom: "inception_4b/pool"
  top: "inception_4b/pool_proj"
  param {
    lr_mult: 1
    decay_mult: 1
  }
  param {
    lr_mult: 2
    decay_mult: 0
  }
  convolution_param {
    num_output: 64
    kernel_size: 1
    weight_filler {
      type: "xavier"
      std: 0.1
    }
    bias_filler {
      type: "constant"
      value: 0.2
    }
  }
}
layer {
  name: "inception_4b/relu_pool_proj"
  type: "ReLU"
  bottom: "inception_4b/pool_proj"
  top: "inception_4b/pool_proj"
}
layer {
  name: "inception_4b/output"
  type: "Concat"
  bottom: "inception_4b/1x1"
  bottom: "inception_4b/3x3"
  bottom: "inception_4b/5x5"
  bottom: "inception_4b/pool_proj"
  top: "inception_4b/output"
}
layer {
  name: "inception_4c/1x1"
  type: "Convolution"
  bottom: "inception_4b/output"
  top: "inception_4c/1x1"
  param {
    lr_mult: 1
    decay_mult: 1
  }
  param {
    lr_mult: 2
    decay_mult: 0
  }
  convolution_param {
    num_output: 128
    kernel_size: 1
    weight_filler {
      type: "xavier"
      std: 0.03
    }
    bias_filler {
      type: "constant"
      value: 0.2
    }
  }
}
layer {
  name: "inception_4c/relu_1x1"
  type: "ReLU"
  bottom: "inception_4c/1x1"
  top: "inception_4c/1x1"
}
layer {
  name: "inception_4c/3x3_reduce"
  type: "Convolution"
  bottom: "inception_4b/output"
  top: "inception_4c/3x3_reduce"
  param {
    lr_mult: 1
    decay_mult: 1
  }
  param {
    lr_mult: 2
    decay_mult: 0
  }
  convolution_param {
    num_output: 128
    kernel_size: 1
    weight_filler {
      type: "xavier"
      std: 0.09
    }
    bias_filler {
      type: "constant"
      value: 0.2
    }
  }
}
layer {
  name: "inception_4c/relu_3x3_reduce"
  type: "ReLU"
  bottom: "inception_4c/3x3_reduce"
  top: "inception_4c/3x3_reduce"
}
layer {
  name: "inception_4c/3x3"
  type: "Convolution"
  bottom: "inception_4c/3x3_reduce"
  top: "inception_4c/3x3"
  param {
    lr_mult: 1
    decay_mult: 1
  }
  param {
    lr_mult: 2
    decay_mult: 0
  }
  convolution_param {
    num_output: 256
    pad: 1
    kernel_size: 3
    weight_filler {
      type: "xavier"
      std: 0.03
    }
    bias_filler {
      type: "constant"
      value: 0.2
    }
  }
}
layer {
  name: "inception_4c/relu_3x3"
  type: "ReLU"
  bottom: "inception_4c/3x3"
  top: "inception_4c/3x3"
}
layer {
  name: "inception_4c/5x5_reduce"
  type: "Convolution"
  bottom: "inception_4b/output"
  top: "inception_4c/5x5_reduce"
  param {
    lr_mult: 1
    decay_mult: 1
  }
  param {
    lr_mult: 2
    decay_mult: 0
  }
  convolution_param {
    num_output: 24
    kernel_size: 1
    weight_filler {
      type: "xavier"
      std: 0.2
    }
    bias_filler {
      type: "constant"
      value: 0.2
    }
  }
}
layer {
  name: "inception_4c/relu_5x5_reduce"
  type: "ReLU"
  bottom: "inception_4c/5x5_reduce"
  top: "inception_4c/5x5_reduce"
}
layer {
  name: "inception_4c/5x5"
  type: "Convolution"
  bottom: "inception_4c/5x5_reduce"
  top: "inception_4c/5x5"
  param {
    lr_mult: 1
    decay_mult: 1
  }
  param {
    lr_mult: 2
    decay_mult: 0
  }
  convolution_param {
    num_output: 64
    pad: 2
    kernel_size: 5
    weight_filler {
      type: "xavier"
      std: 0.03
    }
    bias_filler {
      type: "constant"
      value: 0.2
    }
  }
}
layer {
  name: "inception_4c/relu_5x5"
  type: "ReLU"
  bottom: "inception_4c/5x5"
  top: "inception_4c/5x5"
}
layer {
  name: "inception_4c/pool"
  type: "Pooling"
  bottom: "inception_4b/output"
  top: "inception_4c/pool"
  pooling_param {
    pool: MAX
    kernel_size: 3
    stride: 1
    pad: 1
  }
}
layer {
  name: "inception_4c/pool_proj"
  type: "Convolution"
  bottom: "inception_4c/pool"
  top: "inception_4c/pool_proj"
  param {
    lr_mult: 1
    decay_mult: 1
  }
  param {
    lr_mult: 2
    decay_mult: 0
  }
  convolution_param {
    num_output: 64
    kernel_size: 1
    weight_filler {
      type: "xavier"
      std: 0.1
    }
    bias_filler {
      type: "constant"
      value: 0.2
    }
  }
}
layer {
  name: "inception_4c/relu_pool_proj"
  type: "ReLU"
  bottom: "inception_4c/pool_proj"
  top: "inception_4c/pool_proj"
}
layer {
  name: "inception_4c/output"
  type: "Concat"
  bottom: "inception_4c/1x1"
  bottom: "inception_4c/3x3"
  bottom: "inception_4c/5x5"
  bottom: "inception_4c/pool_proj"
  top: "inception_4c/output"
}
layer {
  name: "inception_4d/1x1"
  type: "Convolution"
  bottom: "inception_4c/output"
  top: "inception_4d/1x1"
  param {
    lr_mult: 1
    decay_mult: 1
  }
  param {
    lr_mult: 2
    decay_mult: 0
  }
  convolution_param {
    num_output: 112
    kernel_size: 1
    weight_filler {
      type: "xavier"
      std: 0.03
    }
    bias_filler {
      type: "constant"
      value: 0.2
    }
  }
}
layer {
  name: "inception_4d/relu_1x1"
  type: "ReLU"
  bottom: "inception_4d/1x1"
  top: "inception_4d/1x1"
}
layer {
  name: "inception_4d/3x3_reduce"
  type: "Convolution"
  bottom: "inception_4c/output"
  top: "inception_4d/3x3_reduce"
  param {
    lr_mult: 1
    decay_mult: 1
  }
  param {
    lr_mult: 2
    decay_mult: 0
  }
  convolution_param {
    num_output: 144
    kernel_size: 1
    weight_filler {
      type: "xavier"
      std: 0.09
    }
    bias_filler {
      type: "constant"
      value: 0.2
    }
  }
}
layer {
  name: "inception_4d/relu_3x3_reduce"
  type: "ReLU"
  bottom: "inception_4d/3x3_reduce"
  top: "inception_4d/3x3_reduce"
}
layer {
  name: "inception_4d/3x3"
  type: "Convolution"
  bottom: "inception_4d/3x3_reduce"
  top: "inception_4d/3x3"
  param {
    lr_mult: 1
    decay_mult: 1
  }
  param {
    lr_mult: 2
    decay_mult: 0
  }
  convolution_param {
    num_output: 288
    pad: 1
    kernel_size: 3
    weight_filler {
      type: "xavier"
      std: 0.03
    }
    bias_filler {
      type: "constant"
      value: 0.2
    }
  }
}
layer {
  name: "inception_4d/relu_3x3"
  type: "ReLU"
  bottom: "inception_4d/3x3"
  top: "inception_4d/3x3"
}
layer {
  name: "inception_4d/5x5_reduce"
  type: "Convolution"
  bottom: "inception_4c/output"
  top: "inception_4d/5x5_reduce"
  param {
    lr_mult: 1
    decay_mult: 1
  }
  param {
    lr_mult: 2
    decay_mult: 0
  }
  convolution_param {
    num_output: 32
    kernel_size: 1
    weight_filler {
      type: "xavier"
      std: 0.2
    }
    bias_filler {
      type: "constant"
      value: 0.2
    }
  }
}
layer {
  name: "inception_4d/relu_5x5_reduce"
  type: "ReLU"
  bottom: "inception_4d/5x5_reduce"
  top: "inception_4d/5x5_reduce"
}
layer {
  name: "inception_4d/5x5"
  type: "Convolution"
  bottom: "inception_4d/5x5_reduce"
  top: "inception_4d/5x5"
  param {
    lr_mult: 1
    decay_mult: 1
  }
  param {
    lr_mult: 2
    decay_mult: 0
  }
  convolution_param {
    num_output: 64
    pad: 2
    kernel_size: 5
    weight_filler {
      type: "xavier"
      std: 0.03
    }
    bias_filler {
      type: "constant"
      value: 0.2
    }
  }
}
layer {
  name: "inception_4d/relu_5x5"
  type: "ReLU"
  bottom: "inception_4d/5x5"
  top: "inception_4d/5x5"
}
layer {
  name: "inception_4d/pool"
  type: "Pooling"
  bottom: "inception_4c/output"
  top: "inception_4d/pool"
  pooling_param {
    pool: MAX
    kernel_size: 3
    stride: 1
    pad: 1
  }
}
layer {
  name: "inception_4d/pool_proj"
  type: "Convolution"
  bottom: "inception_4d/pool"
  top: "inception_4d/pool_proj"
  param {
    lr_mult: 1
    decay_mult: 1
  }
  param {
    lr_mult: 2
    decay_mult: 0
  }
  convolution_param {
    num_output: 64
    kernel_size: 1
    weight_filler {
      type: "xavier"
      std: 0.1
    }
    bias_filler {
      type: "constant"
      value: 0.2
    }
  }
}
layer {
  name: "inception_4d/relu_pool_proj"
  type: "ReLU"
  bottom: "inception_4d/pool_proj"
  top: "inception_4d/pool_proj"
}
layer {
  name: "inception_4d/output"
  type: "Concat"
  bottom: "inception_4d/1x1"
  bottom: "inception_4d/3x3"
  bottom: "inception_4d/5x5"
  bottom: "inception_4d/pool_proj"
  top: "inception_4d/output"
}
layer {
  name: "inception_4e/1x1"
  type: "Convolution"
  bottom: "inception_4d/output"
  top: "inception_4e/1x1"
  param {
    lr_mult: 1
    decay_mult: 1
  }
  param {
    lr_mult: 2
    decay_mult: 0
  }
  convolution_param {
    num_output: 256
    kernel_size: 1
    weight_filler {
      type: "xavier"
      std: 0.03
    }
    bias_filler {
      type: "constant"
      value: 0.2
    }
  }
}
layer {
  name: "inception_4e/relu_1x1"
  type: "ReLU"
  bottom: "inception_4e/1x1"
  top: "inception_4e/1x1"
}
layer {
  name: "inception_4e/3x3_reduce"
  type: "Convolution"
  bottom: "inception_4d/output"
  top: "inception_4e/3x3_reduce"
  param {
    lr_mult: 1
    decay_mult: 1
  }
  param {
    lr_mult: 2
    decay_mult: 0
  }
  convolution_param {
    num_output: 160
    kernel_size: 1
    weight_filler {
      type: "xavier"
      std: 0.09
    }
    bias_filler {
      type: "constant"
      value: 0.2
    }
  }
}
layer {
  name: "inception_4e/relu_3x3_reduce"
  type: "ReLU"
  bottom: "inception_4e/3x3_reduce"
  top: "inception_4e/3x3_reduce"
}
layer {
  name: "inception_4e/3x3"
  type: "Convolution"
  bottom: "inception_4e/3x3_reduce"
  top: "inception_4e/3x3"
  param {
    lr_mult: 1
    decay_mult: 1
  }
  param {
    lr_mult: 2
    decay_mult: 0
  }
  convolution_param {
    num_output: 320
    pad: 1
    kernel_size: 3
    weight_filler {
      type: "xavier"
      std: 0.03
    }
    bias_filler {
      type: "constant"
      value: 0.2
    }
  }
}
layer {
  name: "inception_4e/relu_3x3"
  type: "ReLU"
  bottom: "inception_4e/3x3"
  top: "inception_4e/3x3"
}
layer {
  name: "inception_4e/5x5_reduce"
  type: "Convolution"
  bottom: "inception_4d/output"
  top: "inception_4e/5x5_reduce"
  param {
    lr_mult: 1
    decay_mult: 1
  }
  param {
    lr_mult: 2
    decay_mult: 0
  }
  convolution_param {
    num_output: 32
    kernel_size: 1
    weight_filler {
      type: "xavier"
      std: 0.2
    }
    bias_filler {
      type: "constant"
      value: 0.2
    }
  }
}
layer {
  name: "inception_4e/relu_5x5_reduce"
  type: "ReLU"
  bottom: "inception_4e/5x5_reduce"
  top: "inception_4e/5x5_reduce"
}
layer {
  name: "inception_4e/5x5"
  type: "Convolution"
  bottom: "inception_4e/5x5_reduce"
  top: "inception_4e/5x5"
  param {
    lr_mult: 1
    decay_mult: 1
  }
  param {
    lr_mult: 2
    decay_mult: 0
  }
  convolution_param {
    num_output: 128
    pad: 2
    kernel_size: 5
    weight_filler {
      type: "xavier"
      std: 0.03
    }
    bias_filler {
      type: "constant"
      value: 0.2
    }
  }
}
layer {
  name: "inception_4e/relu_5x5"
  type: "ReLU"
  bottom: "inception_4e/5x5"
  top: "inception_4e/5x5"
}
layer {
  name: "inception_4e/pool"
  type: "Pooling"
  bottom: "inception_4d/output"
  top: "inception_4e/pool"
  pooling_param {
    pool: MAX
    kernel_size: 3
    stride: 1
    pad: 1
  }
}
layer {
  name: "inception_4e/pool_proj"
  type: "Convolution"
  bottom: "inception_4e/pool"
  top: "inception_4e/pool_proj"
  param {
    lr_mult: 1
    decay_mult: 1
  }
  param {
    lr_mult: 2
    decay_mult: 0
  }
  convolution_param {
    num_output: 128
    kernel_size: 1
    weight_filler {
      type: "xavier"
      std: 0.1
    }
    bias_filler {
      type: "constant"
      value: 0.2
    }
  }
}
layer {
  name: "inception_4e/relu_pool_proj"
  type: "ReLU"
  bottom: "inception_4e/pool_proj"
  top: "inception_4e/pool_proj"
}
layer {
  name: "inception_4e/output"
  type: "Concat"
  bottom: "inception_4e/1x1"
  bottom: "inception_4e/3x3"
  bottom: "inception_4e/5x5"
  bottom: "inception_4e/pool_proj"
  top: "inception_4e/output"
}
layer {
  name: "pool4/3x3_s2"
  type: "Pooling"
  bottom: "inception_4e/output"
  top: "pool4/3x3_s2"
  pooling_param {
    pool: MAX
    kernel_size: 3
    stride: 2
  }
}
layer {
  name: "inception_5a/1x1"
  type: "Convolution"
  bottom: "pool4/3x3_s2"
  top: "inception_5a/1x1"
  param {
    lr_mult: 1
    decay_mult: 1
  }
  param {
    lr_mult: 2
    decay_mult: 0
  }
  convolution_param {
    num_output: 256
    kernel_size: 1
    weight_filler {
      type: "xavier"
      std: 0.03
    }
    bias_filler {
      type: "constant"
      value: 0.2
    }
  }
}
layer {
  name: "inception_5a/relu_1x1"
  type: "ReLU"
  bottom: "inception_5a/1x1"
  top: "inception_5a/1x1"
}
layer {
  name: "inception_5a/3x3_reduce"
  type: "Convolution"
  bottom: "pool4/3x3_s2"
  top: "inception_5a/3x3_reduce"
  param {
    lr_mult: 1
    decay_mult: 1
  }
  param {
    lr_mult: 2
    decay_mult: 0
  }
  convolution_param {
    num_output: 160
    kernel_size: 1
    weight_filler {
      type: "xavier"
      std: 0.09
    }
    bias_filler {
      type: "constant"
      value: 0.2
    }
  }
}
layer {
  name: "inception_5a/relu_3x3_reduce"
  type: "ReLU"
  bottom: "inception_5a/3x3_reduce"
  top: "inception_5a/3x3_reduce"
}
layer {
  name: "inception_5a/3x3"
  type: "Convolution"
  bottom: "inception_5a/3x3_reduce"
  top: "inception_5a/3x3"
  param {
    lr_mult: 1
    decay_mult: 1
  }
  param {
    lr_mult: 2
    decay_mult: 0
  }
  convolution_param {
    num_output: 320
    pad: 1
    kernel_size: 3
    weight_filler {
      type: "xavier"
      std: 0.03
    }
    bias_filler {
      type: "constant"
      value: 0.2
    }
  }
}
layer {
  name: "inception_5a/relu_3x3"
  type: "ReLU"
  bottom: "inception_5a/3x3"
  top: "inception_5a/3x3"
}
layer {
  name: "inception_5a/5x5_reduce"
  type: "Convolution"
  bottom: "pool4/3x3_s2"
  top: "inception_5a/5x5_reduce"
  param {
    lr_mult: 1
    decay_mult: 1
  }
  param {
    lr_mult: 2
    decay_mult: 0
  }
  convolution_param {
    num_output: 32
    kernel_size: 1
    weight_filler {
      type: "xavier"
      std: 0.2
    }
    bias_filler {
      type: "constant"
      value: 0.2
    }
I0714 23:26:51.817214 32428 layer_factory.hpp:77] Creating layer data
I0714 23:26:51.817229 32428 net.cpp:91] Creating Layer data
I0714 23:26:51.817234 32428 net.cpp:399] data -> data
I0714 23:26:52.353427 32432 net.cpp:141] Setting up data
I0714 23:26:52.353471 32428 net.cpp:141] Setting up data
I0714 23:26:52.353488 32432 net.cpp:148] Top shape: 10 3 224 224 (1505280)
I0714 23:26:52.353492 32428 net.cpp:148] Top shape: 10 3 224 224 (1505280)
I0714 23:26:52.353497 32432 net.cpp:156] Memory required for data: 6021120
I0714 23:26:52.353497 32428 net.cpp:156] Memory required for data: 6021120
I0714 23:26:52.353514 32432 layer_factory.hpp:77] Creating layer conv1/7x7_s2
I0714 23:26:52.353514 32428 layer_factory.hpp:77] Creating layer conv1/7x7_s2
I0714 23:26:52.353552 32432 net.cpp:91] Creating Layer conv1/7x7_s2
I0714 23:26:52.353554 32428 net.cpp:91] Creating Layer conv1/7x7_s2
I0714 23:26:52.353565 32432 net.cpp:425] conv1/7x7_s2 <- data
I0714 23:26:52.353567 32428 net.cpp:425] conv1/7x7_s2 <- data
I0714 23:26:52.353579 32432 net.cpp:399] conv1/7x7_s2 -> conv1/7x7_s2
I0714 23:26:52.353586 32428 net.cpp:399] conv1/7x7_s2 -> conv1/7x7_s2
I0714 23:26:52.574224 32428 net.cpp:141] Setting up conv1/7x7_s2
I0714 23:26:52.574270 32428 net.cpp:148] Top shape: 10 64 112 112 (8028160)
I0714 23:26:52.574277 32428 net.cpp:156] Memory required for data: 38133760
I0714 23:26:52.574223 32432 net.cpp:141] Setting up conv1/7x7_s2
I0714 23:26:52.574301 32428 layer_factory.hpp:77] Creating layer conv1/relu_7x7
I0714 23:26:52.574303 32432 net.cpp:148] Top shape: 10 64 112 112 (8028160)
I0714 23:26:52.574311 32432 net.cpp:156] Memory required for data: 38133760
I0714 23:26:52.574316 32428 net.cpp:91] Creating Layer conv1/relu_7x7
I0714 23:26:52.574322 32428 net.cpp:425] conv1/relu_7x7 <- conv1/7x7_s2
I0714 23:26:52.574326 32432 layer_factory.hpp:77] Creating layer conv1/relu_7x7
I0714 23:26:52.574333 32428 net.cpp:386] conv1/relu_7x7 -> conv1/7x7_s2 (in-place)
I0714 23:26:52.574337 32432 net.cpp:91] Creating Layer conv1/relu_7x7
I0714 23:26:52.574342 32432 net.cpp:425] conv1/relu_7x7 <- conv1/7x7_s2
I0714 23:26:52.574349 32432 net.cpp:386] conv1/relu_7x7 -> conv1/7x7_s2 (in-place)
I0714 23:26:52.575376 32432 net.cpp:141] Setting up conv1/relu_7x7
I0714 23:26:52.575376 32428 net.cpp:141] Setting up conv1/relu_7x7
I0714 23:26:52.575397 32432 net.cpp:148] Top shape: 10 64 112 112 (8028160)
I0714 23:26:52.575402 32428 net.cpp:148] Top shape: 10 64 112 112 (8028160)
I0714 23:26:52.575403 32432 net.cpp:156] Memory required for data: 70246400
I0714 23:26:52.575412 32428 net.cpp:156] Memory required for data: 70246400
I0714 23:26:52.575417 32428 layer_factory.hpp:77] Creating layer pool1/3x3_s2
I0714 23:26:52.575417 32432 layer_factory.hpp:77] Creating layer pool1/3x3_s2
I0714 23:26:52.575429 32428 net.cpp:91] Creating Layer pool1/3x3_s2
I0714 23:26:52.575429 32432 net.cpp:91] Creating Layer pool1/3x3_s2
I0714 23:26:52.575436 32428 net.cpp:425] pool1/3x3_s2 <- conv1/7x7_s2
I0714 23:26:52.575440 32432 net.cpp:425] pool1/3x3_s2 <- conv1/7x7_s2
I0714 23:26:52.575448 32428 net.cpp:399] pool1/3x3_s2 -> pool1/3x3_s2
I0714 23:26:52.575449 32432 net.cpp:399] pool1/3x3_s2 -> pool1/3x3_s2
I0714 23:26:52.575562 32428 net.cpp:141] Setting up pool1/3x3_s2
I0714 23:26:52.575572 32428 net.cpp:148] Top shape: 10 64 56 56 (2007040)
I0714 23:26:52.575577 32428 net.cpp:156] Memory required for data: 78274560
I0714 23:26:52.575582 32428 layer_factory.hpp:77] Creating layer pool1/norm1
I0714 23:26:52.575580 32432 net.cpp:141] Setting up pool1/3x3_s2
I0714 23:26:52.575598 32432 net.cpp:148] Top shape: 10 64 56 56 (2007040)
I0714 23:26:52.575603 32432 net.cpp:156] Memory required for data: 78274560
I0714 23:26:52.575603 32428 net.cpp:91] Creating Layer pool1/norm1
I0714 23:26:52.575608 32432 layer_factory.hpp:77] Creating layer pool1/norm1
I0714 23:26:52.575608 32428 net.cpp:425] pool1/norm1 <- pool1/3x3_s2
I0714 23:26:52.575621 32432 net.cpp:91] Creating Layer pool1/norm1
I0714 23:26:52.575623 32428 net.cpp:399] pool1/norm1 -> pool1/norm1
I0714 23:26:52.575628 32432 net.cpp:425] pool1/norm1 <- pool1/3x3_s2
I0714 23:26:52.575636 32432 net.cpp:399] pool1/norm1 -> pool1/norm1
I0714 23:26:52.576634 32432 net.cpp:141] Setting up pool1/norm1
I0714 23:26:52.576649 32432 net.cpp:148] Top shape: 10 64 56 56 (2007040)
I0714 23:26:52.576653 32432 net.cpp:156] Memory required for data: 86302720
I0714 23:26:52.576659 32432 layer_factory.hpp:77] Creating layer conv2/3x3_reduce
I0714 23:26:52.576678 32432 net.cpp:91] Creating Layer conv2/3x3_reduce
I0714 23:26:52.576683 32432 net.cpp:425] conv2/3x3_reduce <- pool1/norm1
I0714 23:26:52.576683 32428 net.cpp:141] Setting up pool1/norm1
I0714 23:26:52.576690 32432 net.cpp:399] conv2/3x3_reduce -> conv2/3x3_reduce
I0714 23:26:52.576696 32428 net.cpp:148] Top shape: 10 64 56 56 (2007040)
I0714 23:26:52.576701 32428 net.cpp:156] Memory required for data: 86302720
I0714 23:26:52.576706 32428 layer_factory.hpp:77] Creating layer conv2/3x3_reduce
I0714 23:26:52.576721 32428 net.cpp:91] Creating Layer conv2/3x3_reduce
I0714 23:26:52.576726 32428 net.cpp:425] conv2/3x3_reduce <- pool1/norm1
I0714 23:26:52.576736 32428 net.cpp:399] conv2/3x3_reduce -> conv2/3x3_reduce
I0714 23:26:52.581704 32432 net.cpp:141] Setting up conv2/3x3_reduce
I0714 23:26:52.581723 32432 net.cpp:148] Top shape: 10 64 56 56 (2007040)
I0714 23:26:52.581728 32432 net.cpp:156] Memory required for data: 94330880
I0714 23:26:52.581740 32432 layer_factory.hpp:77] Creating layer conv2/relu_3x3_reduce
I0714 23:26:52.581749 32432 net.cpp:91] Creating Layer conv2/relu_3x3_reduce
I0714 23:26:52.581754 32432 net.cpp:425] conv2/relu_3x3_reduce <- conv2/3x3_reduce
I0714 23:26:52.581761 32432 net.cpp:386] conv2/relu_3x3_reduce -> conv2/3x3_reduce (in-place)
I0714 23:26:52.582412 32428 net.cpp:141] Setting up conv2/3x3_reduce
I0714 23:26:52.582428 32428 net.cpp:148] Top shape: 10 64 56 56 (2007040)
I0714 23:26:52.582434 32428 net.cpp:156] Memory required for data: 94330880
I0714 23:26:52.582445 32428 layer_factory.hpp:77] Creating layer conv2/relu_3x3_reduce
I0714 23:26:52.582456 32428 net.cpp:91] Creating Layer conv2/relu_3x3_reduce
I0714 23:26:52.582461 32428 net.cpp:425] conv2/relu_3x3_reduce <- conv2/3x3_reduce
I0714 23:26:52.582468 32428 net.cpp:386] conv2/relu_3x3_reduce -> conv2/3x3_reduce (in-place)
I0714 23:26:52.582475 32432 net.cpp:141] Setting up conv2/relu_3x3_reduce
I0714 23:26:52.582489 32432 net.cpp:148] Top shape: 10 64 56 56 (2007040)
I0714 23:26:52.582494 32432 net.cpp:156] Memory required for data: 102359040
I0714 23:26:52.582499 32432 layer_factory.hpp:77] Creating layer conv2/3x3
I0714 23:26:52.582512 32432 net.cpp:91] Creating Layer conv2/3x3
I0714 23:26:52.582517 32432 net.cpp:425] conv2/3x3 <- conv2/3x3_reduce
I0714 23:26:52.582525 32432 net.cpp:399] conv2/3x3 -> conv2/3x3
I0714 23:26:52.583878 32428 net.cpp:141] Setting up conv2/relu_3x3_reduce
I0714 23:26:52.583892 32428 net.cpp:148] Top shape: 10 64 56 56 (2007040)
I0714 23:26:52.583897 32428 net.cpp:156] Memory required for data: 102359040
I0714 23:26:52.583901 32428 layer_factory.hpp:77] Creating layer conv2/3x3
I0714 23:26:52.583916 32428 net.cpp:91] Creating Layer conv2/3x3
I0714 23:26:52.583921 32428 net.cpp:425] conv2/3x3 <- conv2/3x3_reduce
I0714 23:26:52.583931 32428 net.cpp:399] conv2/3x3 -> conv2/3x3
I0714 23:26:52.588660 32432 net.cpp:141] Setting up conv2/3x3
I0714 23:26:52.588676 32432 net.cpp:148] Top shape: 10 192 56 56 (6021120)
I0714 23:26:52.588681 32432 net.cpp:156] Memory required for data: 126443520
I0714 23:26:52.588693 32432 layer_factory.hpp:77] Creating layer conv2/relu_3x3
I0714 23:26:52.588703 32432 net.cpp:91] Creating Layer conv2/relu_3x3
I0714 23:26:52.588708 32432 net.cpp:425] conv2/relu_3x3 <- conv2/3x3
I0714 23:26:52.588716 32432 net.cpp:386] conv2/relu_3x3 -> conv2/3x3 (in-place)
I0714 23:26:52.589071 32428 net.cpp:141] Setting up conv2/3x3
I0714 23:26:52.589085 32428 net.cpp:148] Top shape: 10 192 56 56 (6021120)
I0714 23:26:52.589090 32428 net.cpp:156] Memory required for data: 126443520
I0714 23:26:52.589093 32432 net.cpp:141] Setting up conv2/relu_3x3
I0714 23:26:52.589102 32428 layer_factory.hpp:77] Creating layer conv2/relu_3x3
I0714 23:26:52.589105 32432 net.cpp:148] Top shape: 10 192 56 56 (6021120)
I0714 23:26:52.589110 32432 net.cpp:156] Memory required for data: 150528000
I0714 23:26:52.589113 32428 net.cpp:91] Creating Layer conv2/relu_3x3
I0714 23:26:52.589117 32432 layer_factory.hpp:77] Creating layer conv2/norm2
I0714 23:26:52.589119 32428 net.cpp:425] conv2/relu_3x3 <- conv2/3x3
I0714 23:26:52.589126 32432 net.cpp:91] Creating Layer conv2/norm2
I0714 23:26:52.589126 32428 net.cpp:386] conv2/relu_3x3 -> conv2/3x3 (in-place)
I0714 23:26:52.589135 32432 net.cpp:425] conv2/norm2 <- conv2/3x3
I0714 23:26:52.589143 32432 net.cpp:399] conv2/norm2 -> conv2/norm2
I0714 23:26:52.590145 32428 net.cpp:141] Setting up conv2/relu_3x3
I0714 23:26:52.590162 32428 net.cpp:148] Top shape: 10 192 56 56 (6021120)
I0714 23:26:52.590165 32428 net.cpp:156] Memory required for data: 150528000
I0714 23:26:52.590170 32428 layer_factory.hpp:77] Creating layer conv2/norm2
I0714 23:26:52.590188 32428 net.cpp:91] Creating Layer conv2/norm2
I0714 23:26:52.590188 32432 net.cpp:141] Setting up conv2/norm2
I0714 23:26:52.590193 32428 net.cpp:425] conv2/norm2 <- conv2/3x3
I0714 23:26:52.590205 32432 net.cpp:148] Top shape: 10 192 56 56 (6021120)
I0714 23:26:52.590209 32428 net.cpp:399] conv2/norm2 -> conv2/norm2
I0714 23:26:52.590210 32432 net.cpp:156] Memory required for data: 174612480
I0714 23:26:52.590222 32432 layer_factory.hpp:77] Creating layer pool2/3x3_s2
I0714 23:26:52.590231 32432 net.cpp:91] Creating Layer pool2/3x3_s2
I0714 23:26:52.590236 32432 net.cpp:425] pool2/3x3_s2 <- conv2/norm2
I0714 23:26:52.590247 32432 net.cpp:399] pool2/3x3_s2 -> pool2/3x3_s2
I0714 23:26:52.590925 32432 net.cpp:141] Setting up pool2/3x3_s2
I0714 23:26:52.590939 32432 net.cpp:148] Top shape: 10 192 28 28 (1505280)
I0714 23:26:52.590942 32432 net.cpp:156] Memory required for data: 180633600
I0714 23:26:52.590947 32432 layer_factory.hpp:77] Creating layer pool2/3x3_s2_pool2/3x3_s2_0_split
I0714 23:26:52.590963 32432 net.cpp:91] Creating Layer pool2/3x3_s2_pool2/3x3_s2_0_split
I0714 23:26:52.590968 32432 net.cpp:425] pool2/3x3_s2_pool2/3x3_s2_0_split <- pool2/3x3_s2
I0714 23:26:52.590975 32432 net.cpp:399] pool2/3x3_s2_pool2/3x3_s2_0_split -> pool2/3x3_s2_pool2/3x3_s2_0_split_0
I0714 23:26:52.590986 32432 net.cpp:399] pool2/3x3_s2_pool2/3x3_s2_0_split -> pool2/3x3_s2_pool2/3x3_s2_0_split_1
I0714 23:26:52.590993 32432 net.cpp:399] pool2/3x3_s2_pool2/3x3_s2_0_split -> pool2/3x3_s2_pool2/3x3_s2_0_split_2
I0714 23:26:52.591001 32432 net.cpp:399] pool2/3x3_s2_pool2/3x3_s2_0_split -> pool2/3x3_s2_pool2/3x3_s2_0_split_3
I0714 23:26:52.591091 32428 net.cpp:141] Setting up conv2/norm2
I0714 23:26:52.591104 32428 net.cpp:148] Top shape: 10 192 56 56 (6021120)
I0714 23:26:52.591109 32428 net.cpp:156] Memory required for data: 174612480
I0714 23:26:52.591114 32428 layer_factory.hpp:77] Creating layer pool2/3x3_s2
I0714 23:26:52.591122 32428 net.cpp:91] Creating Layer pool2/3x3_s2
I0714 23:26:52.591127 32428 net.cpp:425] pool2/3x3_s2 <- conv2/norm2
I0714 23:26:52.591135 32432 net.cpp:141] Setting up pool2/3x3_s2_pool2/3x3_s2_0_split
I0714 23:26:52.591136 32428 net.cpp:399] pool2/3x3_s2 -> pool2/3x3_s2
I0714 23:26:52.591147 32432 net.cpp:148] Top shape: 10 192 28 28 (1505280)
I0714 23:26:52.591155 32432 net.cpp:148] Top shape: 10 192 28 28 (1505280)
I0714 23:26:52.591159 32432 net.cpp:148] Top shape: 10 192 28 28 (1505280)
I0714 23:26:52.591164 32432 net.cpp:148] Top shape: 10 192 28 28 (1505280)
I0714 23:26:52.591168 32432 net.cpp:156] Memory required for data: 204718080
I0714 23:26:52.591173 32432 layer_factory.hpp:77] Creating layer inception_3a/1x1
I0714 23:26:52.591186 32432 net.cpp:91] Creating Layer inception_3a/1x1
I0714 23:26:52.591192 32432 net.cpp:425] inception_3a/1x1 <- pool2/3x3_s2_pool2/3x3_s2_0_split_0
I0714 23:26:52.591197 32428 net.cpp:141] Setting up pool2/3x3_s2
I0714 23:26:52.591207 32428 net.cpp:148] Top shape: 10 192 28 28 (1505280)
I0714 23:26:52.591212 32428 net.cpp:156] Memory required for data: 180633600
I0714 23:26:52.591213 32432 net.cpp:399] inception_3a/1x1 -> inception_3a/1x1
I0714 23:26:52.591217 32428 layer_factory.hpp:77] Creating layer pool2/3x3_s2_pool2/3x3_s2_0_split
I0714 23:26:52.591224 32428 net.cpp:91] Creating Layer pool2/3x3_s2_pool2/3x3_s2_0_split
I0714 23:26:52.591228 32428 net.cpp:425] pool2/3x3_s2_pool2/3x3_s2_0_split <- pool2/3x3_s2
I0714 23:26:52.591235 32428 net.cpp:399] pool2/3x3_s2_pool2/3x3_s2_0_split -> pool2/3x3_s2_pool2/3x3_s2_0_split_0
I0714 23:26:52.591246 32428 net.cpp:399] pool2/3x3_s2_pool2/3x3_s2_0_split -> pool2/3x3_s2_pool2/3x3_s2_0_split_1
I0714 23:26:52.591254 32428 net.cpp:399] pool2/3x3_s2_pool2/3x3_s2_0_split -> pool2/3x3_s2_pool2/3x3_s2_0_split_2
I0714 23:26:52.591261 32428 net.cpp:399] pool2/3x3_s2_pool2/3x3_s2_0_split -> pool2/3x3_s2_pool2/3x3_s2_0_split_3
I0714 23:26:52.591490 32428 net.cpp:141] Setting up pool2/3x3_s2_pool2/3x3_s2_0_split
I0714 23:26:52.591501 32428 net.cpp:148] Top shape: 10 192 28 28 (1505280)
I0714 23:26:52.591506 32428 net.cpp:148] Top shape: 10 192 28 28 (1505280)
I0714 23:26:52.591512 32428 net.cpp:148] Top shape: 10 192 28 28 (1505280)
I0714 23:26:52.591517 32428 net.cpp:148] Top shape: 10 192 28 28 (1505280)
I0714 23:26:52.591521 32428 net.cpp:156] Memory required for data: 204718080
I0714 23:26:52.591526 32428 layer_factory.hpp:77] Creating layer inception_3a/1x1
I0714 23:26:52.591541 32428 net.cpp:91] Creating Layer inception_3a/1x1
I0714 23:26:52.591547 32428 net.cpp:425] inception_3a/1x1 <- pool2/3x3_s2_pool2/3x3_s2_0_split_0
I0714 23:26:52.591554 32428 net.cpp:399] inception_3a/1x1 -> inception_3a/1x1
I0714 23:26:52.596834 32432 net.cpp:141] Setting up inception_3a/1x1
I0714 23:26:52.596853 32432 net.cpp:148] Top shape: 10 64 28 28 (501760)
I0714 23:26:52.596858 32432 net.cpp:156] Memory required for data: 206725120
I0714 23:26:52.596868 32432 layer_factory.hpp:77] Creating layer inception_3a/relu_1x1
I0714 23:26:52.596879 32432 net.cpp:91] Creating Layer inception_3a/relu_1x1
I0714 23:26:52.596884 32432 net.cpp:425] inception_3a/relu_1x1 <- inception_3a/1x1
I0714 23:26:52.596895 32432 net.cpp:386] inception_3a/relu_1x1 -> inception_3a/1x1 (in-place)
I0714 23:26:52.598011 32432 net.cpp:141] Setting up inception_3a/relu_1x1
I0714 23:26:52.598026 32432 net.cpp:148] Top shape: 10 64 28 28 (501760)
I0714 23:26:52.598031 32432 net.cpp:156] Memory required for data: 208732160
I0714 23:26:52.598036 32432 layer_factory.hpp:77] Creating layer inception_3a/3x3_reduce
I0714 23:26:52.598052 32432 net.cpp:91] Creating Layer inception_3a/3x3_reduce
I0714 23:26:52.598057 32432 net.cpp:425] inception_3a/3x3_reduce <- pool2/3x3_s2_pool2/3x3_s2_0_split_1
I0714 23:26:52.598054 32428 net.cpp:141] Setting up inception_3a/1x1
I0714 23:26:52.598073 32432 net.cpp:399] inception_3a/3x3_reduce -> inception_3a/3x3_reduce
I0714 23:26:52.598075 32428 net.cpp:148] Top shape: 10 64 28 28 (501760)
I0714 23:26:52.598080 32428 net.cpp:156] Memory required for data: 206725120
I0714 23:26:52.598090 32428 layer_factory.hpp:77] Creating layer inception_3a/relu_1x1
I0714 23:26:52.598098 32428 net.cpp:91] Creating Layer inception_3a/relu_1x1
I0714 23:26:52.598104 32428 net.cpp:425] inception_3a/relu_1x1 <- inception_3a/1x1
I0714 23:26:52.598114 32428 net.cpp:386] inception_3a/relu_1x1 -> inception_3a/1x1 (in-place)
I0714 23:26:52.599551 32428 net.cpp:141] Setting up inception_3a/relu_1x1
I0714 23:26:52.599566 32428 net.cpp:148] Top shape: 10 64 28 28 (501760)
I0714 23:26:52.599584 32428 net.cpp:156] Memory required for data: 208732160
I0714 23:26:52.599589 32428 layer_factory.hpp:77] Creating layer inception_3a/3x3_reduce
I0714 23:26:52.599604 32428 net.cpp:91] Creating Layer inception_3a/3x3_reduce
I0714 23:26:52.599609 32428 net.cpp:425] inception_3a/3x3_reduce <- pool2/3x3_s2_pool2/3x3_s2_0_split_1
I0714 23:26:52.599618 32428 net.cpp:399] inception_3a/3x3_reduce -> inception_3a/3x3_reduce
I0714 23:26:52.603375 32432 net.cpp:141] Setting up inception_3a/3x3_reduce
I0714 23:26:52.603396 32432 net.cpp:148] Top shape: 10 96 28 28 (752640)
I0714 23:26:52.603402 32432 net.cpp:156] Memory required for data: 211742720
I0714 23:26:52.603415 32432 layer_factory.hpp:77] Creating layer inception_3a/relu_3x3_reduce
I0714 23:26:52.603425 32432 net.cpp:91] Creating Layer inception_3a/relu_3x3_reduce
I0714 23:26:52.603430 32432 net.cpp:425] inception_3a/relu_3x3_reduce <- inception_3a/3x3_reduce
I0714 23:26:52.603446 32432 net.cpp:386] inception_3a/relu_3x3_reduce -> inception_3a/3x3_reduce (in-place)
I0714 23:26:52.605285 32428 net.cpp:141] Setting up inception_3a/3x3_reduce
I0714 23:26:52.605307 32428 net.cpp:148] Top shape: 10 96 28 28 (752640)
I0714 23:26:52.605312 32428 net.cpp:156] Memory required for data: 211742720
I0714 23:26:52.605317 32432 net.cpp:141] Setting up inception_3a/relu_3x3_reduce
I0714 23:26:52.605329 32428 layer_factory.hpp:77] Creating layer inception_3a/relu_3x3_reduce
I0714 23:26:52.605334 32432 net.cpp:148] Top shape: 10 96 28 28 (752640)
I0714 23:26:52.605339 32432 net.cpp:156] Memory required for data: 214753280
I0714 23:26:52.605340 32428 net.cpp:91] Creating Layer inception_3a/relu_3x3_reduce
I0714 23:26:52.605348 32432 layer_factory.hpp:77] Creating layer inception_3a/3x3
I0714 23:26:52.605351 32428 net.cpp:425] inception_3a/relu_3x3_reduce <- inception_3a/3x3_reduce
I0714 23:26:52.605361 32428 net.cpp:386] inception_3a/relu_3x3_reduce -> inception_3a/3x3_reduce (in-place)
I0714 23:26:52.605371 32432 net.cpp:91] Creating Layer inception_3a/3x3
I0714 23:26:52.605382 32432 net.cpp:425] inception_3a/3x3 <- inception_3a/3x3_reduce
I0714 23:26:52.605391 32432 net.cpp:399] inception_3a/3x3 -> inception_3a/3x3
I0714 23:26:52.606947 32428 net.cpp:141] Setting up inception_3a/relu_3x3_reduce
I0714 23:26:52.606963 32428 net.cpp:148] Top shape: 10 96 28 28 (752640)
I0714 23:26:52.606968 32428 net.cpp:156] Memory required for data: 214753280
I0714 23:26:52.606973 32428 layer_factory.hpp:77] Creating layer inception_3a/3x3
I0714 23:26:52.606993 32428 net.cpp:91] Creating Layer inception_3a/3x3
I0714 23:26:52.606999 32428 net.cpp:425] inception_3a/3x3 <- inception_3a/3x3_reduce
I0714 23:26:52.607008 32428 net.cpp:399] inception_3a/3x3 -> inception_3a/3x3
I0714 23:26:52.612473 32432 net.cpp:141] Setting up inception_3a/3x3
I0714 23:26:52.612498 32432 net.cpp:148] Top shape: 10 128 28 28 (1003520)
I0714 23:26:52.612503 32432 net.cpp:156] Memory required for data: 218767360
I0714 23:26:52.612514 32432 layer_factory.hpp:77] Creating layer inception_3a/relu_3x3
I0714 23:26:52.612526 32432 net.cpp:91] Creating Layer inception_3a/relu_3x3
I0714 23:26:52.612534 32432 net.cpp:425] inception_3a/relu_3x3 <- inception_3a/3x3
I0714 23:26:52.612541 32432 net.cpp:386] inception_3a/relu_3x3 -> inception_3a/3x3 (in-place)
I0714 23:26:52.612787 32428 net.cpp:141] Setting up inception_3a/3x3
I0714 23:26:52.612802 32428 net.cpp:148] Top shape: 10 128 28 28 (1003520)
I0714 23:26:52.612807 32428 net.cpp:156] Memory required for data: 218767360
I0714 23:26:52.612818 32428 layer_factory.hpp:77] Creating layer inception_3a/relu_3x3
I0714 23:26:52.612828 32428 net.cpp:91] Creating Layer inception_3a/relu_3x3
I0714 23:26:52.612833 32428 net.cpp:425] inception_3a/relu_3x3 <- inception_3a/3x3
I0714 23:26:52.612840 32428 net.cpp:386] inception_3a/relu_3x3 -> inception_3a/3x3 (in-place)
I0714 23:26:52.613472 32432 net.cpp:141] Setting up inception_3a/relu_3x3
I0714 23:26:52.613487 32432 net.cpp:148] Top shape: 10 128 28 28 (1003520)
I0714 23:26:52.613492 32432 net.cpp:156] Memory required for data: 222781440
I0714 23:26:52.613497 32432 layer_factory.hpp:77] Creating layer inception_3a/5x5_reduce
I0714 23:26:52.613513 32432 net.cpp:91] Creating Layer inception_3a/5x5_reduce
I0714 23:26:52.613519 32432 net.cpp:425] inception_3a/5x5_reduce <- pool2/3x3_s2_pool2/3x3_s2_0_split_2
I0714 23:26:52.613528 32432 net.cpp:399] inception_3a/5x5_reduce -> inception_3a/5x5_reduce
I0714 23:26:52.613854 32428 net.cpp:141] Setting up inception_3a/relu_3x3
I0714 23:26:52.613870 32428 net.cpp:148] Top shape: 10 128 28 28 (1003520)
I0714 23:26:52.613875 32428 net.cpp:156] Memory required for data: 222781440
I0714 23:26:52.613888 32428 layer_factory.hpp:77] Creating layer inception_3a/5x5_reduce
I0714 23:26:52.613903 32428 net.cpp:91] Creating Layer inception_3a/5x5_reduce
I0714 23:26:52.613909 32428 net.cpp:425] inception_3a/5x5_reduce <- pool2/3x3_s2_pool2/3x3_s2_0_split_2
I0714 23:26:52.613920 32428 net.cpp:399] inception_3a/5x5_reduce -> inception_3a/5x5_reduce
I0714 23:26:52.617154 32432 net.cpp:141] Setting up inception_3a/5x5_reduce
I0714 23:26:52.617172 32432 net.cpp:148] Top shape: 10 16 28 28 (125440)
I0714 23:26:52.617177 32432 net.cpp:156] Memory required for data: 223283200
I0714 23:26:52.617185 32432 layer_factory.hpp:77] Creating layer inception_3a/relu_5x5_reduce
I0714 23:26:52.617195 32432 net.cpp:91] Creating Layer inception_3a/relu_5x5_reduce
I0714 23:26:52.617202 32432 net.cpp:425] inception_3a/relu_5x5_reduce <- inception_3a/5x5_reduce
I0714 23:26:52.617208 32432 net.cpp:386] inception_3a/relu_5x5_reduce -> inception_3a/5x5_reduce (in-place)
I0714 23:26:52.618299 32432 net.cpp:141] Setting up inception_3a/relu_5x5_reduce
I0714 23:26:52.618317 32432 net.cpp:148] Top shape: 10 16 28 28 (125440)
I0714 23:26:52.618322 32432 net.cpp:156] Memory required for data: 223784960
I0714 23:26:52.618327 32432 layer_factory.hpp:77] Creating layer inception_3a/5x5
I0714 23:26:52.618343 32432 net.cpp:91] Creating Layer inception_3a/5x5
I0714 23:26:52.618350 32432 net.cpp:425] inception_3a/5x5 <- inception_3a/5x5_reduce
I0714 23:26:52.618358 32432 net.cpp:399] inception_3a/5x5 -> inception_3a/5x5
I0714 23:26:52.618360 32428 net.cpp:141] Setting up inception_3a/5x5_reduce
I0714 23:26:52.618376 32428 net.cpp:148] Top shape: 10 16 28 28 (125440)
I0714 23:26:52.618381 32428 net.cpp:156] Memory required for data: 223283200
I0714 23:26:52.618391 32428 layer_factory.hpp:77] Creating layer inception_3a/relu_5x5_reduce
I0714 23:26:52.618401 32428 net.cpp:91] Creating Layer inception_3a/relu_5x5_reduce
I0714 23:26:52.618405 32428 net.cpp:425] inception_3a/relu_5x5_reduce <- inception_3a/5x5_reduce
I0714 23:26:52.618415 32428 net.cpp:386] inception_3a/relu_5x5_reduce -> inception_3a/5x5_reduce (in-place)
I0714 23:26:52.618829 32428 net.cpp:141] Setting up inception_3a/relu_5x5_reduce
I0714 23:26:52.618842 32428 net.cpp:148] Top shape: 10 16 28 28 (125440)
I0714 23:26:52.618847 32428 net.cpp:156] Memory required for data: 223784960
I0714 23:26:52.618851 32428 layer_factory.hpp:77] Creating layer inception_3a/5x5
I0714 23:26:52.618866 32428 net.cpp:91] Creating Layer inception_3a/5x5
I0714 23:26:52.618871 32428 net.cpp:425] inception_3a/5x5 <- inception_3a/5x5_reduce
I0714 23:26:52.618882 32428 net.cpp:399] inception_3a/5x5 -> inception_3a/5x5
I0714 23:26:52.623194 32432 net.cpp:141] Setting up inception_3a/5x5
I0714 23:26:52.623211 32432 net.cpp:148] Top shape: 10 32 28 28 (250880)
I0714 23:26:52.623216 32432 net.cpp:156] Memory required for data: 224788480
I0714 23:26:52.623225 32432 layer_factory.hpp:77] Creating layer inception_3a/relu_5x5
I0714 23:26:52.623236 32432 net.cpp:91] Creating Layer inception_3a/relu_5x5
I0714 23:26:52.623242 32432 net.cpp:425] inception_3a/relu_5x5 <- inception_3a/5x5
I0714 23:26:52.623250 32432 net.cpp:386] inception_3a/relu_5x5 -> inception_3a/5x5 (in-place)
I0714 23:26:52.624691 32432 net.cpp:141] Setting up inception_3a/relu_5x5
I0714 23:26:52.624704 32432 net.cpp:148] Top shape: 10 32 28 28 (250880)
I0714 23:26:52.624709 32432 net.cpp:156] Memory required for data: 225792000
I0714 23:26:52.624714 32432 layer_factory.hpp:77] Creating layer inception_3a/pool
I0714 23:26:52.624728 32432 net.cpp:91] Creating Layer inception_3a/pool
I0714 23:26:52.624733 32432 net.cpp:425] inception_3a/pool <- pool2/3x3_s2_pool2/3x3_s2_0_split_3
I0714 23:26:52.624743 32432 net.cpp:399] inception_3a/pool -> inception_3a/pool
I0714 23:26:52.625458 32428 net.cpp:141] Setting up inception_3a/5x5
I0714 23:26:52.625475 32428 net.cpp:148] Top shape: 10 32 28 28 (250880)
I0714 23:26:52.625480 32428 net.cpp:156] Memory required for data: 224788480
I0714 23:26:52.625481 32432 net.cpp:141] Setting up inception_3a/pool
I0714 23:26:52.625489 32428 layer_factory.hpp:77] Creating layer inception_3a/relu_5x5
I0714 23:26:52.625494 32432 net.cpp:148] Top shape: 10 192 28 28 (1505280)
I0714 23:26:52.625497 32432 net.cpp:156] Memory required for data: 231813120
I0714 23:26:52.625500 32428 net.cpp:91] Creating Layer inception_3a/relu_5x5
I0714 23:26:52.625502 32432 layer_factory.hpp:77] Creating layer inception_3a/pool_proj
I0714 23:26:52.625506 32428 net.cpp:425] inception_3a/relu_5x5 <- inception_3a/5x5
I0714 23:26:52.625514 32428 net.cpp:386] inception_3a/relu_5x5 -> inception_3a/5x5 (in-place)
I0714 23:26:52.625517 32432 net.cpp:91] Creating Layer inception_3a/pool_proj
I0714 23:26:52.625522 32432 net.cpp:425] inception_3a/pool_proj <- inception_3a/pool
I0714 23:26:52.625535 32432 net.cpp:399] inception_3a/pool_proj -> inception_3a/pool_proj
I0714 23:26:52.625988 32428 net.cpp:141] Setting up inception_3a/relu_5x5
I0714 23:26:52.626000 32428 net.cpp:148] Top shape: 10 32 28 28 (250880)
I0714 23:26:52.626005 32428 net.cpp:156] Memory required for data: 225792000
I0714 23:26:52.626009 32428 layer_factory.hpp:77] Creating layer inception_3a/pool
I0714 23:26:52.626019 32428 net.cpp:91] Creating Layer inception_3a/pool
I0714 23:26:52.626024 32428 net.cpp:425] inception_3a/pool <- pool2/3x3_s2_pool2/3x3_s2_0_split_3
I0714 23:26:52.626032 32428 net.cpp:399] inception_3a/pool -> inception_3a/pool
I0714 23:26:52.626704 32428 net.cpp:141] Setting up inception_3a/pool
I0714 23:26:52.626718 32428 net.cpp:148] Top shape: 10 192 28 28 (1505280)
I0714 23:26:52.626723 32428 net.cpp:156] Memory required for data: 231813120
I0714 23:26:52.626727 32428 layer_factory.hpp:77] Creating layer inception_3a/pool_proj
I0714 23:26:52.626744 32428 net.cpp:91] Creating Layer inception_3a/pool_proj
I0714 23:26:52.626749 32428 net.cpp:425] inception_3a/pool_proj <- inception_3a/pool
I0714 23:26:52.626759 32428 net.cpp:399] inception_3a/pool_proj -> inception_3a/pool_proj
I0714 23:26:52.629952 32432 net.cpp:141] Setting up inception_3a/pool_proj
I0714 23:26:52.629968 32432 net.cpp:148] Top shape: 10 32 28 28 (250880)
I0714 23:26:52.629973 32432 net.cpp:156] Memory required for data: 232816640
I0714 23:26:52.629989 32432 layer_factory.hpp:77] Creating layer inception_3a/relu_pool_proj
I0714 23:26:52.629998 32432 net.cpp:91] Creating Layer inception_3a/relu_pool_proj
I0714 23:26:52.630004 32432 net.cpp:425] inception_3a/relu_pool_proj <- inception_3a/pool_proj
I0714 23:26:52.630013 32432 net.cpp:386] inception_3a/relu_pool_proj -> inception_3a/pool_proj (in-place)
I0714 23:26:52.630336 32428 net.cpp:141] Setting up inception_3a/pool_proj
I0714 23:26:52.630352 32428 net.cpp:148] Top shape: 10 32 28 28 (250880)
I0714 23:26:52.630357 32428 net.cpp:156] Memory required for data: 232816640
I0714 23:26:52.630372 32428 layer_factory.hpp:77] Creating layer inception_3a/relu_pool_proj
I0714 23:26:52.630380 32428 net.cpp:91] Creating Layer inception_3a/relu_pool_proj
I0714 23:26:52.630385 32428 net.cpp:425] inception_3a/relu_pool_proj <- inception_3a/pool_proj
I0714 23:26:52.630393 32428 net.cpp:386] inception_3a/relu_pool_proj -> inception_3a/pool_proj (in-place)
I0714 23:26:52.630417 32432 net.cpp:141] Setting up inception_3a/relu_pool_proj
I0714 23:26:52.630429 32432 net.cpp:148] Top shape: 10 32 28 28 (250880)
I0714 23:26:52.630434 32432 net.cpp:156] Memory required for data: 233820160
I0714 23:26:52.630439 32432 layer_factory.hpp:77] Creating layer inception_3a/output
I0714 23:26:52.630455 32432 net.cpp:91] Creating Layer inception_3a/output
I0714 23:26:52.630460 32432 net.cpp:425] inception_3a/output <- inception_3a/1x1
I0714 23:26:52.630467 32432 net.cpp:425] inception_3a/output <- inception_3a/3x3
I0714 23:26:52.630472 32432 net.cpp:425] inception_3a/output <- inception_3a/5x5
I0714 23:26:52.630477 32432 net.cpp:425] inception_3a/output <- inception_3a/pool_proj
I0714 23:26:52.630488 32432 net.cpp:399] inception_3a/output -> inception_3a/output
I0714 23:26:52.631086 32432 net.cpp:141] Setting up inception_3a/output
I0714 23:26:52.631098 32432 net.cpp:148] Top shape: 10 256 28 28 (2007040)
I0714 23:26:52.631101 32432 net.cpp:156] Memory required for data: 241848320
I0714 23:26:52.631106 32432 layer_factory.hpp:77] Creating layer inception_3a/output_inception_3a/output_0_split
I0714 23:26:52.631115 32432 net.cpp:91] Creating Layer inception_3a/output_inception_3a/output_0_split
I0714 23:26:52.631119 32432 net.cpp:425] inception_3a/output_inception_3a/output_0_split <- inception_3a/output
I0714 23:26:52.631126 32432 net.cpp:399] inception_3a/output_inception_3a/output_0_split -> inception_3a/output_inception_3a/output_0_split_0
I0714 23:26:52.631139 32432 net.cpp:399] inception_3a/output_inception_3a/output_0_split -> inception_3a/output_inception_3a/output_0_split_1
I0714 23:26:52.631147 32432 net.cpp:399] inception_3a/output_inception_3a/output_0_split -> inception_3a/output_inception_3a/output_0_split_2
I0714 23:26:52.631155 32432 net.cpp:399] inception_3a/output_inception_3a/output_0_split -> inception_3a/output_inception_3a/output_0_split_3
I0714 23:26:52.631170 32428 net.cpp:141] Setting up inception_3a/relu_pool_proj
I0714 23:26:52.631186 32428 net.cpp:148] Top shape: 10 32 28 28 (250880)
I0714 23:26:52.631191 32428 net.cpp:156] Memory required for data: 233820160
I0714 23:26:52.631196 32428 layer_factory.hpp:77] Creating layer inception_3a/output
I0714 23:26:52.631204 32428 net.cpp:91] Creating Layer inception_3a/output
I0714 23:26:52.631209 32428 net.cpp:425] inception_3a/output <- inception_3a/1x1
I0714 23:26:52.631216 32428 net.cpp:425] inception_3a/output <- inception_3a/3x3
I0714 23:26:52.631220 32428 net.cpp:425] inception_3a/output <- inception_3a/5x5
I0714 23:26:52.631225 32428 net.cpp:425] inception_3a/output <- inception_3a/pool_proj
I0714 23:26:52.631232 32428 net.cpp:399] inception_3a/output -> inception_3a/output
I0714 23:26:52.631258 32432 net.cpp:141] Setting up inception_3a/output_inception_3a/output_0_split
I0714 23:26:52.631269 32432 net.cpp:148] Top shape: 10 256 28 28 (2007040)
I0714 23:26:52.631274 32432 net.cpp:148] Top shape: 10 256 28 28 (2007040)
I0714 23:26:52.631280 32432 net.cpp:148] Top shape: 10 256 28 28 (2007040)
I0714 23:26:52.631285 32432 net.cpp:148] Top shape: 10 256 28 28 (2007040)
I0714 23:26:52.631289 32432 net.cpp:156] Memory required for data: 273960960
I0714 23:26:52.631294 32432 layer_factory.hpp:77] Creating layer inception_3b/1x1
I0714 23:26:52.631294 32428 net.cpp:141] Setting up inception_3a/output
I0714 23:26:52.631309 32428 net.cpp:148] Top shape: 10 256 28 28 (2007040)
I0714 23:26:52.631310 32432 net.cpp:91] Creating Layer inception_3b/1x1
I0714 23:26:52.631314 32428 net.cpp:156] Memory required for data: 241848320
I0714 23:26:52.631315 32432 net.cpp:425] inception_3b/1x1 <- inception_3a/output_inception_3a/output_0_split_0
I0714 23:26:52.631319 32428 layer_factory.hpp:77] Creating layer inception_3a/output_inception_3a/output_0_split
I0714 23:26:52.631325 32432 net.cpp:399] inception_3b/1x1 -> inception_3b/1x1
I0714 23:26:52.631326 32428 net.cpp:91] Creating Layer inception_3a/output_inception_3a/output_0_split
I0714 23:26:52.631335 32428 net.cpp:425] inception_3a/output_inception_3a/output_0_split <- inception_3a/output
I0714 23:26:52.631341 32428 net.cpp:399] inception_3a/output_inception_3a/output_0_split -> inception_3a/output_inception_3a/output_0_split_0
I0714 23:26:52.631350 32428 net.cpp:399] inception_3a/output_inception_3a/output_0_split -> inception_3a/output_inception_3a/output_0_split_1
I0714 23:26:52.631357 32428 net.cpp:399] inception_3a/output_inception_3a/output_0_split -> inception_3a/output_inception_3a/output_0_split_2
I0714 23:26:52.631366 32428 net.cpp:399] inception_3a/output_inception_3a/output_0_split -> inception_3a/output_inception_3a/output_0_split_3
I0714 23:26:52.631630 32428 net.cpp:141] Setting up inception_3a/output_inception_3a/output_0_split
I0714 23:26:52.631640 32428 net.cpp:148] Top shape: 10 256 28 28 (2007040)
I0714 23:26:52.631646 32428 net.cpp:148] Top shape: 10 256 28 28 (2007040)
I0714 23:26:52.631651 32428 net.cpp:148] Top shape: 10 256 28 28 (2007040)
I0714 23:26:52.631656 32428 net.cpp:148] Top shape: 10 256 28 28 (2007040)
I0714 23:26:52.631660 32428 net.cpp:156] Memory required for data: 273960960
I0714 23:26:52.631665 32428 layer_factory.hpp:77] Creating layer inception_3b/1x1
I0714 23:26:52.631680 32428 net.cpp:91] Creating Layer inception_3b/1x1
I0714 23:26:52.631685 32428 net.cpp:425] inception_3b/1x1 <- inception_3a/output_inception_3a/output_0_split_0
I0714 23:26:52.631696 32428 net.cpp:399] inception_3b/1x1 -> inception_3b/1x1
I0714 23:26:52.634196 32432 net.cpp:141] Setting up inception_3b/1x1
I0714 23:26:52.634212 32432 net.cpp:148] Top shape: 10 128 28 28 (1003520)
I0714 23:26:52.634217 32432 net.cpp:156] Memory required for data: 277975040
I0714 23:26:52.634227 32432 layer_factory.hpp:77] Creating layer inception_3b/relu_1x1
I0714 23:26:52.634238 32432 net.cpp:91] Creating Layer inception_3b/relu_1x1
I0714 23:26:52.634244 32432 net.cpp:425] inception_3b/relu_1x1 <- inception_3b/1x1
I0714 23:26:52.634251 32432 net.cpp:386] inception_3b/relu_1x1 -> inception_3b/1x1 (in-place)
I0714 23:26:52.635169 32432 net.cpp:141] Setting up inception_3b/relu_1x1
I0714 23:26:52.635181 32432 net.cpp:148] Top shape: 10 128 28 28 (1003520)
I0714 23:26:52.635186 32432 net.cpp:156] Memory required for data: 281989120
I0714 23:26:52.635190 32432 layer_factory.hpp:77] Creating layer inception_3b/3x3_reduce
I0714 23:26:52.635206 32432 net.cpp:91] Creating Layer inception_3b/3x3_reduce
I0714 23:26:52.635211 32432 net.cpp:425] inception_3b/3x3_reduce <- inception_3a/output_inception_3a/output_0_split_1
I0714 23:26:52.635222 32432 net.cpp:399] inception_3b/3x3_reduce -> inception_3b/3x3_reduce
I0714 23:26:52.636281 32428 net.cpp:141] Setting up inception_3b/1x1
I0714 23:26:52.636299 32428 net.cpp:148] Top shape: 10 128 28 28 (1003520)
I0714 23:26:52.636303 32428 net.cpp:156] Memory required for data: 277975040
I0714 23:26:52.636312 32428 layer_factory.hpp:77] Creating layer inception_3b/relu_1x1
I0714 23:26:52.636323 32428 net.cpp:91] Creating Layer inception_3b/relu_1x1
I0714 23:26:52.636329 32428 net.cpp:425] inception_3b/relu_1x1 <- inception_3b/1x1
I0714 23:26:52.636335 32428 net.cpp:386] inception_3b/relu_1x1 -> inception_3b/1x1 (in-place)
I0714 23:26:52.637357 32428 net.cpp:141] Setting up inception_3b/relu_1x1
I0714 23:26:52.637372 32428 net.cpp:148] Top shape: 10 128 28 28 (1003520)
I0714 23:26:52.637375 32428 net.cpp:156] Memory required for data: 281989120
I0714 23:26:52.637380 32428 layer_factory.hpp:77] Creating layer inception_3b/3x3_reduce
I0714 23:26:52.637394 32428 net.cpp:91] Creating Layer inception_3b/3x3_reduce
I0714 23:26:52.637399 32428 net.cpp:425] inception_3b/3x3_reduce <- inception_3a/output_inception_3a/output_0_split_1
I0714 23:26:52.637410 32428 net.cpp:399] inception_3b/3x3_reduce -> inception_3b/3x3_reduce
I0714 23:26:52.641239 32432 net.cpp:141] Setting up inception_3b/3x3_reduce
I0714 23:26:52.641258 32432 net.cpp:148] Top shape: 10 128 28 28 (1003520)
I0714 23:26:52.641263 32432 net.cpp:156] Memory required for data: 286003200
I0714 23:26:52.641273 32432 layer_factory.hpp:77] Creating layer inception_3b/relu_3x3_reduce
I0714 23:26:52.641284 32432 net.cpp:91] Creating Layer inception_3b/relu_3x3_reduce
I0714 23:26:52.641290 32432 net.cpp:425] inception_3b/relu_3x3_reduce <- inception_3b/3x3_reduce
I0714 23:26:52.641297 32432 net.cpp:386] inception_3b/relu_3x3_reduce -> inception_3b/3x3_reduce (in-place)
I0714 23:26:52.641963 32428 net.cpp:141] Setting up inception_3b/3x3_reduce
I0714 23:26:52.641978 32428 net.cpp:148] Top shape: 10 128 28 28 (1003520)
I0714 23:26:52.641983 32428 net.cpp:156] Memory required for data: 286003200
I0714 23:26:52.641991 32428 layer_factory.hpp:77] Creating layer inception_3b/relu_3x3_reduce
I0714 23:26:52.642001 32428 net.cpp:91] Creating Layer inception_3b/relu_3x3_reduce
I0714 23:26:52.642007 32428 net.cpp:425] inception_3b/relu_3x3_reduce <- inception_3b/3x3_reduce
I0714 23:26:52.642014 32428 net.cpp:386] inception_3b/relu_3x3_reduce -> inception_3b/3x3_reduce (in-place)
I0714 23:26:52.642243 32432 net.cpp:141] Setting up inception_3b/relu_3x3_reduce
I0714 23:26:52.642256 32432 net.cpp:148] Top shape: 10 128 28 28 (1003520)
I0714 23:26:52.642261 32432 net.cpp:156] Memory required for data: 290017280
I0714 23:26:52.642266 32432 layer_factory.hpp:77] Creating layer inception_3b/3x3
I0714 23:26:52.642284 32432 net.cpp:91] Creating Layer inception_3b/3x3
I0714 23:26:52.642290 32432 net.cpp:425] inception_3b/3x3 <- inception_3b/3x3_reduce
I0714 23:26:52.642299 32432 net.cpp:399] inception_3b/3x3 -> inception_3b/3x3
I0714 23:26:52.642319 32428 net.cpp:141] Setting up inception_3b/relu_3x3_reduce
I0714 23:26:52.642331 32428 net.cpp:148] Top shape: 10 128 28 28 (1003520)
I0714 23:26:52.642336 32428 net.cpp:156] Memory required for data: 290017280
I0714 23:26:52.642340 32428 layer_factory.hpp:77] Creating layer inception_3b/3x3
I0714 23:26:52.642355 32428 net.cpp:91] Creating Layer inception_3b/3x3
I0714 23:26:52.642360 32428 net.cpp:425] inception_3b/3x3 <- inception_3b/3x3_reduce
I0714 23:26:52.642370 32428 net.cpp:399] inception_3b/3x3 -> inception_3b/3x3
I0714 23:26:52.648507 32432 net.cpp:141] Setting up inception_3b/3x3
I0714 23:26:52.648525 32432 net.cpp:148] Top shape: 10 192 28 28 (1505280)
I0714 23:26:52.648531 32432 net.cpp:156] Memory required for data: 296038400
I0714 23:26:52.648540 32432 layer_factory.hpp:77] Creating layer inception_3b/relu_3x3
I0714 23:26:52.648556 32432 net.cpp:91] Creating Layer inception_3b/relu_3x3
I0714 23:26:52.648564 32432 net.cpp:425] inception_3b/relu_3x3 <- inception_3b/3x3
I0714 23:26:52.648571 32432 net.cpp:386] inception_3b/relu_3x3 -> inception_3b/3x3 (in-place)
I0714 23:26:52.649806 32432 net.cpp:141] Setting up inception_3b/relu_3x3
I0714 23:26:52.649821 32432 net.cpp:148] Top shape: 10 192 28 28 (1505280)
I0714 23:26:52.649826 32432 net.cpp:156] Memory required for data: 302059520
I0714 23:26:52.649830 32432 layer_factory.hpp:77] Creating layer inception_3b/5x5_reduce
I0714 23:26:52.649844 32432 net.cpp:91] Creating Layer inception_3b/5x5_reduce
I0714 23:26:52.649850 32432 net.cpp:425] inception_3b/5x5_reduce <- inception_3a/output_inception_3a/output_0_split_2
I0714 23:26:52.649863 32432 net.cpp:399] inception_3b/5x5_reduce -> inception_3b/5x5_reduce
I0714 23:26:52.649988 32428 net.cpp:141] Setting up inception_3b/3x3
I0714 23:26:52.650003 32428 net.cpp:148] Top shape: 10 192 28 28 (1505280)
I0714 23:26:52.650008 32428 net.cpp:156] Memory required for data: 296038400
I0714 23:26:52.650017 32428 layer_factory.hpp:77] Creating layer inception_3b/relu_3x3
I0714 23:26:52.650032 32428 net.cpp:91] Creating Layer inception_3b/relu_3x3
I0714 23:26:52.650038 32428 net.cpp:425] inception_3b/relu_3x3 <- inception_3b/3x3
I0714 23:26:52.650044 32428 net.cpp:386] inception_3b/relu_3x3 -> inception_3b/3x3 (in-place)
I0714 23:26:52.650957 32428 net.cpp:141] Setting up inception_3b/relu_3x3
I0714 23:26:52.650972 32428 net.cpp:148] Top shape: 10 192 28 28 (1505280)
I0714 23:26:52.650977 32428 net.cpp:156] Memory required for data: 302059520
I0714 23:26:52.650982 32428 layer_factory.hpp:77] Creating layer inception_3b/5x5_reduce
I0714 23:26:52.650996 32428 net.cpp:91] Creating Layer inception_3b/5x5_reduce
I0714 23:26:52.651002 32428 net.cpp:425] inception_3b/5x5_reduce <- inception_3a/output_inception_3a/output_0_split_2
I0714 23:26:52.651013 32428 net.cpp:399] inception_3b/5x5_reduce -> inception_3b/5x5_reduce
I0714 23:26:52.654208 32432 net.cpp:141] Setting up inception_3b/5x5_reduce
I0714 23:26:52.654224 32432 net.cpp:148] Top shape: 10 32 28 28 (250880)
I0714 23:26:52.654228 32432 net.cpp:156] Memory required for data: 303063040
I0714 23:26:52.654237 32432 layer_factory.hpp:77] Creating layer inception_3b/relu_5x5_reduce
I0714 23:26:52.654248 32432 net.cpp:91] Creating Layer inception_3b/relu_5x5_reduce
I0714 23:26:52.654253 32432 net.cpp:425] inception_3b/relu_5x5_reduce <- inception_3b/5x5_reduce
I0714 23:26:52.654260 32432 net.cpp:386] inception_3b/relu_5x5_reduce -> inception_3b/5x5_reduce (in-place)
I0714 23:26:52.655272 32432 net.cpp:141] Setting up inception_3b/relu_5x5_reduce
I0714 23:26:52.655287 32432 net.cpp:148] Top shape: 10 32 28 28 (250880)
I0714 23:26:52.655292 32432 net.cpp:156] Memory required for data: 304066560
I0714 23:26:52.655297 32432 layer_factory.hpp:77] Creating layer inception_3b/5x5
I0714 23:26:52.655310 32432 net.cpp:91] Creating Layer inception_3b/5x5
I0714 23:26:52.655316 32432 net.cpp:425] inception_3b/5x5 <- inception_3b/5x5_reduce
I0714 23:26:52.655328 32432 net.cpp:399] inception_3b/5x5 -> inception_3b/5x5
I0714 23:26:52.655534 32428 net.cpp:141] Setting up inception_3b/5x5_reduce
I0714 23:26:52.655550 32428 net.cpp:148] Top shape: 10 32 28 28 (250880)
I0714 23:26:52.655555 32428 net.cpp:156] Memory required for data: 303063040
I0714 23:26:52.655563 32428 layer_factory.hpp:77] Creating layer inception_3b/relu_5x5_reduce
I0714 23:26:52.655571 32428 net.cpp:91] Creating Layer inception_3b/relu_5x5_reduce
I0714 23:26:52.655576 32428 net.cpp:425] inception_3b/relu_5x5_reduce <- inception_3b/5x5_reduce
I0714 23:26:52.655583 32428 net.cpp:386] inception_3b/relu_5x5_reduce -> inception_3b/5x5_reduce (in-place)
I0714 23:26:52.656836 32428 net.cpp:141] Setting up inception_3b/relu_5x5_reduce
I0714 23:26:52.656852 32428 net.cpp:148] Top shape: 10 32 28 28 (250880)
I0714 23:26:52.656857 32428 net.cpp:156] Memory required for data: 304066560
I0714 23:26:52.656862 32428 layer_factory.hpp:77] Creating layer inception_3b/5x5
I0714 23:26:52.656875 32428 net.cpp:91] Creating Layer inception_3b/5x5
I0714 23:26:52.656882 32428 net.cpp:425] inception_3b/5x5 <- inception_3b/5x5_reduce
I0714 23:26:52.656893 32428 net.cpp:399] inception_3b/5x5 -> inception_3b/5x5
I0714 23:26:52.661312 32432 net.cpp:141] Setting up inception_3b/5x5
I0714 23:26:52.661329 32432 net.cpp:148] Top shape: 10 96 28 28 (752640)
I0714 23:26:52.661335 32432 net.cpp:156] Memory required for data: 307077120
I0714 23:26:52.661344 32432 layer_factory.hpp:77] Creating layer inception_3b/relu_5x5
I0714 23:26:52.661352 32432 net.cpp:91] Creating Layer inception_3b/relu_5x5
I0714 23:26:52.661357 32432 net.cpp:425] inception_3b/relu_5x5 <- inception_3b/5x5
I0714 23:26:52.661365 32432 net.cpp:386] inception_3b/relu_5x5 -> inception_3b/5x5 (in-place)
I0714 23:26:52.662031 32428 net.cpp:141] Setting up inception_3b/5x5
I0714 23:26:52.662047 32428 net.cpp:148] Top shape: 10 96 28 28 (752640)
I0714 23:26:52.662052 32428 net.cpp:156] Memory required for data: 307077120
I0714 23:26:52.662061 32428 layer_factory.hpp:77] Creating layer inception_3b/relu_5x5
I0714 23:26:52.662071 32428 net.cpp:91] Creating Layer inception_3b/relu_5x5
I0714 23:26:52.662077 32428 net.cpp:425] inception_3b/relu_5x5 <- inception_3b/5x5
I0714 23:26:52.662086 32428 net.cpp:386] inception_3b/relu_5x5 -> inception_3b/5x5 (in-place)
I0714 23:26:52.662319 32432 net.cpp:141] Setting up inception_3b/relu_5x5
I0714 23:26:52.662333 32432 net.cpp:148] Top shape: 10 96 28 28 (752640)
I0714 23:26:52.662338 32432 net.cpp:156] Memory required for data: 310087680
I0714 23:26:52.662343 32432 layer_factory.hpp:77] Creating layer inception_3b/pool
I0714 23:26:52.662350 32432 net.cpp:91] Creating Layer inception_3b/pool
I0714 23:26:52.662356 32432 net.cpp:425] inception_3b/pool <- inception_3a/output_inception_3a/output_0_split_3
I0714 23:26:52.662366 32432 net.cpp:399] inception_3b/pool -> inception_3b/pool
I0714 23:26:52.662403 32428 net.cpp:141] Setting up inception_3b/relu_5x5
I0714 23:26:52.662415 32428 net.cpp:148] Top shape: 10 96 28 28 (752640)
I0714 23:26:52.662420 32428 net.cpp:156] Memory required for data: 310087680
I0714 23:26:52.662425 32428 layer_factory.hpp:77] Creating layer inception_3b/pool
I0714 23:26:52.662434 32428 net.cpp:91] Creating Layer inception_3b/pool
I0714 23:26:52.662441 32428 net.cpp:425] inception_3b/pool <- inception_3a/output_inception_3a/output_0_split_3
I0714 23:26:52.662447 32428 net.cpp:399] inception_3b/pool -> inception_3b/pool
I0714 23:26:52.662454 32432 net.cpp:141] Setting up inception_3b/pool
I0714 23:26:52.662466 32432 net.cpp:148] Top shape: 10 256 28 28 (2007040)
I0714 23:26:52.662469 32432 net.cpp:156] Memory required for data: 318115840
I0714 23:26:52.662474 32432 layer_factory.hpp:77] Creating layer inception_3b/pool_proj
I0714 23:26:52.662492 32432 net.cpp:91] Creating Layer inception_3b/pool_proj
I0714 23:26:52.662497 32432 net.cpp:425] inception_3b/pool_proj <- inception_3b/pool
I0714 23:26:52.662506 32432 net.cpp:399] inception_3b/pool_proj -> inception_3b/pool_proj
I0714 23:26:52.662515 32428 net.cpp:141] Setting up inception_3b/pool
I0714 23:26:52.662524 32428 net.cpp:148] Top shape: 10 256 28 28 (2007040)
I0714 23:26:52.662528 32428 net.cpp:156] Memory required for data: 318115840
I0714 23:26:52.662533 32428 layer_factory.hpp:77] Creating layer inception_3b/pool_proj
I0714 23:26:52.662546 32428 net.cpp:91] Creating Layer inception_3b/pool_proj
I0714 23:26:52.662551 32428 net.cpp:425] inception_3b/pool_proj <- inception_3b/pool
I0714 23:26:52.662559 32428 net.cpp:399] inception_3b/pool_proj -> inception_3b/pool_proj
I0714 23:26:52.666903 32428 net.cpp:141] Setting up inception_3b/pool_proj
I0714 23:26:52.666919 32428 net.cpp:148] Top shape: 10 64 28 28 (501760)
I0714 23:26:52.666924 32428 net.cpp:156] Memory required for data: 320122880
I0714 23:26:52.666934 32428 layer_factory.hpp:77] Creating layer inception_3b/relu_pool_proj
I0714 23:26:52.666942 32428 net.cpp:91] Creating Layer inception_3b/relu_pool_proj
I0714 23:26:52.666947 32428 net.cpp:425] inception_3b/relu_pool_proj <- inception_3b/pool_proj
I0714 23:26:52.666957 32428 net.cpp:386] inception_3b/relu_pool_proj -> inception_3b/pool_proj (in-place)
I0714 23:26:52.667335 32432 net.cpp:141] Setting up inception_3b/pool_proj
I0714 23:26:52.667348 32432 net.cpp:148] Top shape: 10 64 28 28 (501760)
I0714 23:26:52.667353 32432 net.cpp:156] Memory required for data: 320122880
I0714 23:26:52.667362 32432 layer_factory.hpp:77] Creating layer inception_3b/relu_pool_proj
I0714 23:26:52.667371 32432 net.cpp:91] Creating Layer inception_3b/relu_pool_proj
I0714 23:26:52.667376 32432 net.cpp:425] inception_3b/relu_pool_proj <- inception_3b/pool_proj
I0714 23:26:52.667387 32432 net.cpp:386] inception_3b/relu_pool_proj -> inception_3b/pool_proj (in-place)
I0714 23:26:52.668220 32432 net.cpp:141] Setting up inception_3b/relu_pool_proj
I0714 23:26:52.668234 32432 net.cpp:148] Top shape: 10 64 28 28 (501760)
I0714 23:26:52.668238 32432 net.cpp:156] Memory required for data: 322129920
I0714 23:26:52.668243 32432 layer_factory.hpp:77] Creating layer inception_3b/output
I0714 23:26:52.668252 32432 net.cpp:91] Creating Layer inception_3b/output
I0714 23:26:52.668257 32432 net.cpp:425] inception_3b/output <- inception_3b/1x1
I0714 23:26:52.668257 32428 net.cpp:141] Setting up inception_3b/relu_pool_proj
I0714 23:26:52.668264 32432 net.cpp:425] inception_3b/output <- inception_3b/3x3
I0714 23:26:52.668280 32432 net.cpp:425] inception_3b/output <- inception_3b/5x5
I0714 23:26:52.668282 32428 net.cpp:148] Top shape: 10 64 28 28 (501760)
I0714 23:26:52.668287 32432 net.cpp:425] inception_3b/output <- inception_3b/pool_proj
I0714 23:26:52.668295 32428 net.cpp:156] Memory required for data: 322129920
I0714 23:26:52.668303 32432 net.cpp:399] inception_3b/output -> inception_3b/output
I0714 23:26:52.668305 32428 layer_factory.hpp:77] Creating layer inception_3b/output
I0714 23:26:52.668324 32428 net.cpp:91] Creating Layer inception_3b/output
I0714 23:26:52.668335 32428 net.cpp:425] inception_3b/output <- inception_3b/1x1
I0714 23:26:52.668347 32428 net.cpp:425] inception_3b/output <- inception_3b/3x3
I0714 23:26:52.668350 32432 net.cpp:141] Setting up inception_3b/output
I0714 23:26:52.668357 32428 net.cpp:425] inception_3b/output <- inception_3b/5x5
I0714 23:26:52.668359 32432 net.cpp:148] Top shape: 10 480 28 28 (3763200)
I0714 23:26:52.668372 32432 net.cpp:156] Memory required for data: 337182720
I0714 23:26:52.668372 32428 net.cpp:425] inception_3b/output <- inception_3b/pool_proj
I0714 23:26:52.668380 32432 layer_factory.hpp:77] Creating layer pool3/3x3_s2
I0714 23:26:52.668388 32432 net.cpp:91] Creating Layer pool3/3x3_s2
I0714 23:26:52.668387 32428 net.cpp:399] inception_3b/output -> inception_3b/output
I0714 23:26:52.668393 32432 net.cpp:425] pool3/3x3_s2 <- inception_3b/output
I0714 23:26:52.668401 32432 net.cpp:399] pool3/3x3_s2 -> pool3/3x3_s2
I0714 23:26:52.668463 32428 net.cpp:141] Setting up inception_3b/output
I0714 23:26:52.668480 32428 net.cpp:148] Top shape: 10 480 28 28 (3763200)
I0714 23:26:52.668489 32428 net.cpp:156] Memory required for data: 337182720
I0714 23:26:52.668498 32428 layer_factory.hpp:77] Creating layer pool3/3x3_s2
I0714 23:26:52.668511 32428 net.cpp:91] Creating Layer pool3/3x3_s2
I0714 23:26:52.668517 32432 net.cpp:141] Setting up pool3/3x3_s2
I0714 23:26:52.668520 32428 net.cpp:425] pool3/3x3_s2 <- inception_3b/output
I0714 23:26:52.668531 32432 net.cpp:148] Top shape: 10 480 14 14 (940800)
I0714 23:26:52.668536 32432 net.cpp:156] Memory required for data: 340945920
I0714 23:26:52.668539 32428 net.cpp:399] pool3/3x3_s2 -> pool3/3x3_s2
I0714 23:26:52.668541 32432 layer_factory.hpp:77] Creating layer pool3/3x3_s2_pool3/3x3_s2_0_split
I0714 23:26:52.668558 32432 net.cpp:91] Creating Layer pool3/3x3_s2_pool3/3x3_s2_0_split
I0714 23:26:52.668563 32432 net.cpp:425] pool3/3x3_s2_pool3/3x3_s2_0_split <- pool3/3x3_s2
I0714 23:26:52.668572 32432 net.cpp:399] pool3/3x3_s2_pool3/3x3_s2_0_split -> pool3/3x3_s2_pool3/3x3_s2_0_split_0
I0714 23:26:52.668581 32432 net.cpp:399] pool3/3x3_s2_pool3/3x3_s2_0_split -> pool3/3x3_s2_pool3/3x3_s2_0_split_1
I0714 23:26:52.668588 32432 net.cpp:399] pool3/3x3_s2_pool3/3x3_s2_0_split -> pool3/3x3_s2_pool3/3x3_s2_0_split_2
I0714 23:26:52.668596 32432 net.cpp:399] pool3/3x3_s2_pool3/3x3_s2_0_split -> pool3/3x3_s2_pool3/3x3_s2_0_split_3
I0714 23:26:52.668712 32432 net.cpp:141] Setting up pool3/3x3_s2_pool3/3x3_s2_0_split
I0714 23:26:52.668725 32432 net.cpp:148] Top shape: 10 480 14 14 (940800)
I0714 23:26:52.668731 32432 net.cpp:148] Top shape: 10 480 14 14 (940800)
I0714 23:26:52.668736 32432 net.cpp:148] Top shape: 10 480 14 14 (940800)
I0714 23:26:52.668741 32432 net.cpp:148] Top shape: 10 480 14 14 (940800)
I0714 23:26:52.668745 32432 net.cpp:156] Memory required for data: 355998720
I0714 23:26:52.668751 32432 layer_factory.hpp:77] Creating layer inception_4a/1x1
I0714 23:26:52.668764 32432 net.cpp:91] Creating Layer inception_4a/1x1
I0714 23:26:52.668764 32428 net.cpp:141] Setting up pool3/3x3_s2
I0714 23:26:52.668771 32432 net.cpp:425] inception_4a/1x1 <- pool3/3x3_s2_pool3/3x3_s2_0_split_0
I0714 23:26:52.668790 32428 net.cpp:148] Top shape: 10 480 14 14 (940800)
I0714 23:26:52.668792 32432 net.cpp:399] inception_4a/1x1 -> inception_4a/1x1
I0714 23:26:52.668803 32428 net.cpp:156] Memory required for data: 340945920
I0714 23:26:52.668813 32428 layer_factory.hpp:77] Creating layer pool3/3x3_s2_pool3/3x3_s2_0_split
I0714 23:26:52.668826 32428 net.cpp:91] Creating Layer pool3/3x3_s2_pool3/3x3_s2_0_split
I0714 23:26:52.668835 32428 net.cpp:425] pool3/3x3_s2_pool3/3x3_s2_0_split <- pool3/3x3_s2
I0714 23:26:52.668853 32428 net.cpp:399] pool3/3x3_s2_pool3/3x3_s2_0_split -> pool3/3x3_s2_pool3/3x3_s2_0_split_0
I0714 23:26:52.668869 32428 net.cpp:399] pool3/3x3_s2_pool3/3x3_s2_0_split -> pool3/3x3_s2_pool3/3x3_s2_0_split_1
I0714 23:26:52.668885 32428 net.cpp:399] pool3/3x3_s2_pool3/3x3_s2_0_split -> pool3/3x3_s2_pool3/3x3_s2_0_split_2
I0714 23:26:52.668902 32428 net.cpp:399] pool3/3x3_s2_pool3/3x3_s2_0_split -> pool3/3x3_s2_pool3/3x3_s2_0_split_3
I0714 23:26:52.669159 32428 net.cpp:141] Setting up pool3/3x3_s2_pool3/3x3_s2_0_split
I0714 23:26:52.669178 32428 net.cpp:148] Top shape: 10 480 14 14 (940800)
I0714 23:26:52.669189 32428 net.cpp:148] Top shape: 10 480 14 14 (940800)
I0714 23:26:52.669200 32428 net.cpp:148] Top shape: 10 480 14 14 (940800)
I0714 23:26:52.669210 32428 net.cpp:148] Top shape: 10 480 14 14 (940800)
I0714 23:26:52.669219 32428 net.cpp:156] Memory required for data: 355998720
I0714 23:26:52.669227 32428 layer_factory.hpp:77] Creating layer inception_4a/1x1
I0714 23:26:52.669250 32428 net.cpp:91] Creating Layer inception_4a/1x1
I0714 23:26:52.669260 32428 net.cpp:425] inception_4a/1x1 <- pool3/3x3_s2_pool3/3x3_s2_0_split_0
I0714 23:26:52.669276 32428 net.cpp:399] inception_4a/1x1 -> inception_4a/1x1
I0714 23:26:52.674098 32432 net.cpp:141] Setting up inception_4a/1x1
I0714 23:26:52.674118 32432 net.cpp:148] Top shape: 10 192 14 14 (376320)
I0714 23:26:52.674123 32432 net.cpp:156] Memory required for data: 357504000
I0714 23:26:52.674132 32432 layer_factory.hpp:77] Creating layer inception_4a/relu_1x1
I0714 23:26:52.674144 32432 net.cpp:91] Creating Layer inception_4a/relu_1x1
I0714 23:26:52.674150 32432 net.cpp:425] inception_4a/relu_1x1 <- inception_4a/1x1
I0714 23:26:52.674159 32432 net.cpp:386] inception_4a/relu_1x1 -> inception_4a/1x1 (in-place)
I0714 23:26:52.675242 32432 net.cpp:141] Setting up inception_4a/relu_1x1
I0714 23:26:52.675257 32432 net.cpp:148] Top shape: 10 192 14 14 (376320)
I0714 23:26:52.675262 32432 net.cpp:156] Memory required for data: 359009280
I0714 23:26:52.675267 32432 layer_factory.hpp:77] Creating layer inception_4a/3x3_reduce
I0714 23:26:52.675285 32432 net.cpp:91] Creating Layer inception_4a/3x3_reduce
I0714 23:26:52.675292 32432 net.cpp:425] inception_4a/3x3_reduce <- pool3/3x3_s2_pool3/3x3_s2_0_split_1
I0714 23:26:52.675300 32432 net.cpp:399] inception_4a/3x3_reduce -> inception_4a/3x3_reduce
I0714 23:26:52.678969 32428 net.cpp:141] Setting up inception_4a/1x1
I0714 23:26:52.678993 32428 net.cpp:148] Top shape: 10 192 14 14 (376320)
I0714 23:26:52.679003 32428 net.cpp:156] Memory required for data: 357504000
I0714 23:26:52.679018 32428 layer_factory.hpp:77] Creating layer inception_4a/relu_1x1
I0714 23:26:52.679018 32432 net.cpp:141] Setting up inception_4a/3x3_reduce
I0714 23:26:52.679031 32428 net.cpp:91] Creating Layer inception_4a/relu_1x1
I0714 23:26:52.679033 32432 net.cpp:148] Top shape: 10 96 14 14 (188160)
I0714 23:26:52.679045 32432 net.cpp:156] Memory required for data: 359761920
I0714 23:26:52.679044 32428 net.cpp:425] inception_4a/relu_1x1 <- inception_4a/1x1
I0714 23:26:52.679069 32432 layer_factory.hpp:77] Creating layer inception_4a/relu_3x3_reduce
I0714 23:26:52.679070 32428 net.cpp:386] inception_4a/relu_1x1 -> inception_4a/1x1 (in-place)
I0714 23:26:52.679077 32432 net.cpp:91] Creating Layer inception_4a/relu_3x3_reduce
I0714 23:26:52.679083 32432 net.cpp:425] inception_4a/relu_3x3_reduce <- inception_4a/3x3_reduce
I0714 23:26:52.679093 32432 net.cpp:386] inception_4a/relu_3x3_reduce -> inception_4a/3x3_reduce (in-place)
I0714 23:26:52.680207 32432 net.cpp:141] Setting up inception_4a/relu_3x3_reduce
I0714 23:26:52.680212 32428 net.cpp:141] Setting up inception_4a/relu_1x1
I0714 23:26:52.680220 32432 net.cpp:148] Top shape: 10 96 14 14 (188160)
I0714 23:26:52.680225 32432 net.cpp:156] Memory required for data: 360514560
I0714 23:26:52.680225 32428 net.cpp:148] Top shape: 10 192 14 14 (376320)
I0714 23:26:52.680234 32432 layer_factory.hpp:77] Creating layer inception_4a/3x3
I0714 23:26:52.680238 32428 net.cpp:156] Memory required for data: 359009280
I0714 23:26:52.680244 32428 layer_factory.hpp:77] Creating layer inception_4a/3x3_reduce
I0714 23:26:52.680250 32432 net.cpp:91] Creating Layer inception_4a/3x3
I0714 23:26:52.680256 32432 net.cpp:425] inception_4a/3x3 <- inception_4a/3x3_reduce
I0714 23:26:52.680261 32428 net.cpp:91] Creating Layer inception_4a/3x3_reduce
I0714 23:26:52.680268 32432 net.cpp:399] inception_4a/3x3 -> inception_4a/3x3
I0714 23:26:52.680269 32428 net.cpp:425] inception_4a/3x3_reduce <- pool3/3x3_s2_pool3/3x3_s2_0_split_1
I0714 23:26:52.680284 32428 net.cpp:399] inception_4a/3x3_reduce -> inception_4a/3x3_reduce
I0714 23:26:52.685279 32428 net.cpp:141] Setting up inception_4a/3x3_reduce
I0714 23:26:52.685297 32428 net.cpp:148] Top shape: 10 96 14 14 (188160)
I0714 23:26:52.685302 32428 net.cpp:156] Memory required for data: 359761920
I0714 23:26:52.685322 32428 layer_factory.hpp:77] Creating layer inception_4a/relu_3x3_reduce
I0714 23:26:52.685330 32428 net.cpp:91] Creating Layer inception_4a/relu_3x3_reduce
I0714 23:26:52.685336 32428 net.cpp:425] inception_4a/relu_3x3_reduce <- inception_4a/3x3_reduce
I0714 23:26:52.685343 32428 net.cpp:386] inception_4a/relu_3x3_reduce -> inception_4a/3x3_reduce (in-place)
I0714 23:26:52.686517 32428 net.cpp:141] Setting up inception_4a/relu_3x3_reduce
I0714 23:26:52.686532 32428 net.cpp:148] Top shape: 10 96 14 14 (188160)
I0714 23:26:52.686537 32428 net.cpp:156] Memory required for data: 360514560
I0714 23:26:52.686542 32428 layer_factory.hpp:77] Creating layer inception_4a/3x3
I0714 23:26:52.686544 32432 net.cpp:141] Setting up inception_4a/3x3
I0714 23:26:52.686556 32428 net.cpp:91] Creating Layer inception_4a/3x3
I0714 23:26:52.686558 32432 net.cpp:148] Top shape: 10 208 14 14 (407680)
I0714 23:26:52.686563 32428 net.cpp:425] inception_4a/3x3 <- inception_4a/3x3_reduce
I0714 23:26:52.686563 32432 net.cpp:156] Memory required for data: 362145280
I0714 23:26:52.686573 32432 layer_factory.hpp:77] Creating layer inception_4a/relu_3x3
I0714 23:26:52.686573 32428 net.cpp:399] inception_4a/3x3 -> inception_4a/3x3
I0714 23:26:52.686581 32432 net.cpp:91] Creating Layer inception_4a/relu_3x3
I0714 23:26:52.686588 32432 net.cpp:425] inception_4a/relu_3x3 <- inception_4a/3x3
I0714 23:26:52.686597 32432 net.cpp:386] inception_4a/relu_3x3 -> inception_4a/3x3 (in-place)
I0714 23:26:52.688143 32432 net.cpp:141] Setting up inception_4a/relu_3x3
I0714 23:26:52.688161 32432 net.cpp:148] Top shape: 10 208 14 14 (407680)
I0714 23:26:52.688166 32432 net.cpp:156] Memory required for data: 363776000
I0714 23:26:52.688171 32432 layer_factory.hpp:77] Creating layer inception_4a/5x5_reduce
I0714 23:26:52.688189 32432 net.cpp:91] Creating Layer inception_4a/5x5_reduce
I0714 23:26:52.688195 32432 net.cpp:425] inception_4a/5x5_reduce <- pool3/3x3_s2_pool3/3x3_s2_0_split_2
I0714 23:26:52.688205 32432 net.cpp:399] inception_4a/5x5_reduce -> inception_4a/5x5_reduce
I0714 23:26:52.691519 32432 net.cpp:141] Setting up inception_4a/5x5_reduce
I0714 23:26:52.691535 32432 net.cpp:148] Top shape: 10 16 14 14 (31360)
I0714 23:26:52.691541 32432 net.cpp:156] Memory required for data: 363901440
I0714 23:26:52.691550 32432 layer_factory.hpp:77] Creating layer inception_4a/relu_5x5_reduce
I0714 23:26:52.691561 32432 net.cpp:91] Creating Layer inception_4a/relu_5x5_reduce
I0714 23:26:52.691567 32432 net.cpp:425] inception_4a/relu_5x5_reduce <- inception_4a/5x5_reduce
I0714 23:26:52.691576 32432 net.cpp:386] inception_4a/relu_5x5_reduce -> inception_4a/5x5_reduce (in-place)
I0714 23:26:52.692983 32432 net.cpp:141] Setting up inception_4a/relu_5x5_reduce
I0714 23:26:52.692996 32432 net.cpp:148] Top shape: 10 16 14 14 (31360)
I0714 23:26:52.693001 32432 net.cpp:156] Memory required for data: 364026880
I0714 23:26:52.693006 32432 layer_factory.hpp:77] Creating layer inception_4a/5x5
I0714 23:26:52.693027 32432 net.cpp:91] Creating Layer inception_4a/5x5
I0714 23:26:52.693034 32432 net.cpp:425] inception_4a/5x5 <- inception_4a/5x5_reduce
I0714 23:26:52.693045 32432 net.cpp:399] inception_4a/5x5 -> inception_4a/5x5
I0714 23:26:52.693375 32428 net.cpp:141] Setting up inception_4a/3x3
I0714 23:26:52.693392 32428 net.cpp:148] Top shape: 10 208 14 14 (407680)
I0714 23:26:52.693397 32428 net.cpp:156] Memory required for data: 362145280
I0714 23:26:52.693406 32428 layer_factory.hpp:77] Creating layer inception_4a/relu_3x3
I0714 23:26:52.693414 32428 net.cpp:91] Creating Layer inception_4a/relu_3x3
I0714 23:26:52.693419 32428 net.cpp:425] inception_4a/relu_3x3 <- inception_4a/3x3
I0714 23:26:52.693426 32428 net.cpp:386] inception_4a/relu_3x3 -> inception_4a/3x3 (in-place)
I0714 23:26:52.694772 32428 net.cpp:141] Setting up inception_4a/relu_3x3
I0714 23:26:52.694787 32428 net.cpp:148] Top shape: 10 208 14 14 (407680)
I0714 23:26:52.694792 32428 net.cpp:156] Memory required for data: 363776000
I0714 23:26:52.694797 32428 layer_factory.hpp:77] Creating layer inception_4a/5x5_reduce
I0714 23:26:52.694811 32428 net.cpp:91] Creating Layer inception_4a/5x5_reduce
I0714 23:26:52.694818 32428 net.cpp:425] inception_4a/5x5_reduce <- pool3/3x3_s2_pool3/3x3_s2_0_split_2
I0714 23:26:52.694828 32428 net.cpp:399] inception_4a/5x5_reduce -> inception_4a/5x5_reduce
I0714 23:26:52.699018 32432 net.cpp:141] Setting up inception_4a/5x5
I0714 23:26:52.699034 32432 net.cpp:148] Top shape: 10 48 14 14 (94080)
I0714 23:26:52.699041 32432 net.cpp:156] Memory required for data: 364403200
I0714 23:26:52.699050 32432 layer_factory.hpp:77] Creating layer inception_4a/relu_5x5
I0714 23:26:52.699059 32432 net.cpp:91] Creating Layer inception_4a/relu_5x5
I0714 23:26:52.699065 32432 net.cpp:425] inception_4a/relu_5x5 <- inception_4a/5x5
I0714 23:26:52.699072 32432 net.cpp:386] inception_4a/relu_5x5 -> inception_4a/5x5 (in-place)
I0714 23:26:52.699440 32428 net.cpp:141] Setting up inception_4a/5x5_reduce
I0714 23:26:52.699456 32428 net.cpp:148] Top shape: 10 16 14 14 (31360)
I0714 23:26:52.699461 32428 net.cpp:156] Memory required for data: 363901440
I0714 23:26:52.699470 32428 layer_factory.hpp:77] Creating layer inception_4a/relu_5x5_reduce
I0714 23:26:52.699481 32428 net.cpp:91] Creating Layer inception_4a/relu_5x5_reduce
I0714 23:26:52.699486 32428 net.cpp:425] inception_4a/relu_5x5_reduce <- inception_4a/5x5_reduce
I0714 23:26:52.699494 32428 net.cpp:386] inception_4a/relu_5x5_reduce -> inception_4a/5x5_reduce (in-place)
I0714 23:26:52.700675 32432 net.cpp:141] Setting up inception_4a/relu_5x5
I0714 23:26:52.700688 32432 net.cpp:148] Top shape: 10 48 14 14 (94080)
I0714 23:26:52.700693 32432 net.cpp:156] Memory required for data: 364779520
I0714 23:26:52.700698 32432 layer_factory.hpp:77] Creating layer inception_4a/pool
I0714 23:26:52.700706 32432 net.cpp:91] Creating Layer inception_4a/pool
I0714 23:26:52.700712 32432 net.cpp:425] inception_4a/pool <- pool3/3x3_s2_pool3/3x3_s2_0_split_3
I0714 23:26:52.700723 32432 net.cpp:399] inception_4a/pool -> inception_4a/pool
I0714 23:26:52.700795 32428 net.cpp:141] Setting up inception_4a/relu_5x5_reduce
I0714 23:26:52.700809 32428 net.cpp:148] Top shape: 10 16 14 14 (31360)
I0714 23:26:52.700814 32428 net.cpp:156] Memory required for data: 364026880
I0714 23:26:52.700815 32432 net.cpp:141] Setting up inception_4a/pool
I0714 23:26:52.700819 32428 layer_factory.hpp:77] Creating layer inception_4a/5x5
I0714 23:26:52.700826 32432 net.cpp:148] Top shape: 10 480 14 14 (940800)
I0714 23:26:52.700830 32432 net.cpp:156] Memory required for data: 368542720
I0714 23:26:52.700834 32428 net.cpp:91] Creating Layer inception_4a/5x5
I0714 23:26:52.700835 32432 layer_factory.hpp:77] Creating layer inception_4a/pool_proj
I0714 23:26:52.700844 32428 net.cpp:425] inception_4a/5x5 <- inception_4a/5x5_reduce
I0714 23:26:52.700855 32428 net.cpp:399] inception_4a/5x5 -> inception_4a/5x5
I0714 23:26:52.700860 32432 net.cpp:91] Creating Layer inception_4a/pool_proj
I0714 23:26:52.700865 32432 net.cpp:425] inception_4a/pool_proj <- inception_4a/pool
I0714 23:26:52.700875 32432 net.cpp:399] inception_4a/pool_proj -> inception_4a/pool_proj
I0714 23:26:52.704998 32428 net.cpp:141] Setting up inception_4a/5x5
I0714 23:26:52.705015 32428 net.cpp:148] Top shape: 10 48 14 14 (94080)
I0714 23:26:52.705020 32428 net.cpp:156] Memory required for data: 364403200
I0714 23:26:52.705016 32432 net.cpp:141] Setting up inception_4a/pool_proj
I0714 23:26:52.705031 32428 layer_factory.hpp:77] Creating layer inception_4a/relu_5x5
I0714 23:26:52.705036 32432 net.cpp:148] Top shape: 10 64 14 14 (125440)
I0714 23:26:52.705041 32432 net.cpp:156] Memory required for data: 369044480
I0714 23:26:52.705042 32428 net.cpp:91] Creating Layer inception_4a/relu_5x5
I0714 23:26:52.705054 32432 layer_factory.hpp:77] Creating layer inception_4a/relu_pool_proj
I0714 23:26:52.705055 32428 net.cpp:425] inception_4a/relu_5x5 <- inception_4a/5x5
I0714 23:26:52.705066 32432 net.cpp:91] Creating Layer inception_4a/relu_pool_proj
I0714 23:26:52.705068 32428 net.cpp:386] inception_4a/relu_5x5 -> inception_4a/5x5 (in-place)
I0714 23:26:52.705073 32432 net.cpp:425] inception_4a/relu_pool_proj <- inception_4a/pool_proj
I0714 23:26:52.705080 32432 net.cpp:386] inception_4a/relu_pool_proj -> inception_4a/pool_proj (in-place)
I0714 23:26:52.706084 32432 net.cpp:141] Setting up inception_4a/relu_pool_proj
I0714 23:26:52.706099 32432 net.cpp:148] Top shape: 10 64 14 14 (125440)
I0714 23:26:52.706104 32432 net.cpp:156] Memory required for data: 369546240
I0714 23:26:52.706104 32428 net.cpp:141] Setting up inception_4a/relu_5x5
I0714 23:26:52.706109 32432 layer_factory.hpp:77] Creating layer inception_4a/output
I0714 23:26:52.706120 32428 net.cpp:148] Top shape: 10 48 14 14 (94080)
I0714 23:26:52.706122 32432 net.cpp:91] Creating Layer inception_4a/output
I0714 23:26:52.706125 32428 net.cpp:156] Memory required for data: 364779520
I0714 23:26:52.706128 32432 net.cpp:425] inception_4a/output <- inception_4a/1x1
I0714 23:26:52.706130 32428 layer_factory.hpp:77] Creating layer inception_4a/pool
I0714 23:26:52.706135 32432 net.cpp:425] inception_4a/output <- inception_4a/3x3
I0714 23:26:52.706141 32432 net.cpp:425] inception_4a/output <- inception_4a/5x5
I0714 23:26:52.706141 32428 net.cpp:91] Creating Layer inception_4a/pool
I0714 23:26:52.706146 32432 net.cpp:425] inception_4a/output <- inception_4a/pool_proj
I0714 23:26:52.706148 32428 net.cpp:425] inception_4a/pool <- pool3/3x3_s2_pool3/3x3_s2_0_split_3
I0714 23:26:52.706156 32432 net.cpp:399] inception_4a/output -> inception_4a/output
I0714 23:26:52.706158 32428 net.cpp:399] inception_4a/pool -> inception_4a/pool
I0714 23:26:52.706205 32432 net.cpp:141] Setting up inception_4a/output
I0714 23:26:52.706215 32432 net.cpp:148] Top shape: 10 512 14 14 (1003520)
I0714 23:26:52.706220 32432 net.cpp:156] Memory required for data: 373560320
I0714 23:26:52.706225 32432 layer_factory.hpp:77] Creating layer inception_4a/output_inception_4a/output_0_split
I0714 23:26:52.706236 32432 net.cpp:91] Creating Layer inception_4a/output_inception_4a/output_0_split
I0714 23:26:52.706241 32432 net.cpp:425] inception_4a/output_inception_4a/output_0_split <- inception_4a/output
I0714 23:26:52.706248 32432 net.cpp:399] inception_4a/output_inception_4a/output_0_split -> inception_4a/output_inception_4a/output_0_split_0
I0714 23:26:52.706257 32432 net.cpp:399] inception_4a/output_inception_4a/output_0_split -> inception_4a/output_inception_4a/output_0_split_1
I0714 23:26:52.706267 32432 net.cpp:399] inception_4a/output_inception_4a/output_0_split -> inception_4a/output_inception_4a/output_0_split_2
I0714 23:26:52.706266 32428 net.cpp:141] Setting up inception_4a/pool
I0714 23:26:52.706276 32432 net.cpp:399] inception_4a/output_inception_4a/output_0_split -> inception_4a/output_inception_4a/output_0_split_3
I0714 23:26:52.706279 32428 net.cpp:148] Top shape: 10 480 14 14 (940800)
I0714 23:26:52.706284 32428 net.cpp:156] Memory required for data: 368542720
I0714 23:26:52.706287 32428 layer_factory.hpp:77] Creating layer inception_4a/pool_proj
I0714 23:26:52.706301 32428 net.cpp:91] Creating Layer inception_4a/pool_proj
I0714 23:26:52.706307 32428 net.cpp:425] inception_4a/pool_proj <- inception_4a/pool
I0714 23:26:52.706318 32428 net.cpp:399] inception_4a/pool_proj -> inception_4a/pool_proj
I0714 23:26:52.706387 32432 net.cpp:141] Setting up inception_4a/output_inception_4a/output_0_split
I0714 23:26:52.706396 32432 net.cpp:148] Top shape: 10 512 14 14 (1003520)
I0714 23:26:52.706403 32432 net.cpp:148] Top shape: 10 512 14 14 (1003520)
I0714 23:26:52.706408 32432 net.cpp:148] Top shape: 10 512 14 14 (1003520)
I0714 23:26:52.706413 32432 net.cpp:148] Top shape: 10 512 14 14 (1003520)
I0714 23:26:52.706416 32432 net.cpp:156] Memory required for data: 389616640
I0714 23:26:52.706420 32432 layer_factory.hpp:77] Creating layer inception_4b/1x1
I0714 23:26:52.706434 32432 net.cpp:91] Creating Layer inception_4b/1x1
I0714 23:26:52.706439 32432 net.cpp:425] inception_4b/1x1 <- inception_4a/output_inception_4a/output_0_split_0
I0714 23:26:52.706449 32432 net.cpp:399] inception_4b/1x1 -> inception_4b/1x1
I0714 23:26:52.710929 32428 net.cpp:141] Setting up inception_4a/pool_proj
I0714 23:26:52.710948 32428 net.cpp:148] Top shape: 10 64 14 14 (125440)
I0714 23:26:52.710953 32428 net.cpp:156] Memory required for data: 369044480
I0714 23:26:52.710963 32428 layer_factory.hpp:77] Creating layer inception_4a/relu_pool_proj
I0714 23:26:52.710974 32428 net.cpp:91] Creating Layer inception_4a/relu_pool_proj
I0714 23:26:52.710980 32428 net.cpp:425] inception_4a/relu_pool_proj <- inception_4a/pool_proj
I0714 23:26:52.710988 32428 net.cpp:386] inception_4a/relu_pool_proj -> inception_4a/pool_proj (in-place)
I0714 23:26:52.711810 32432 net.cpp:141] Setting up inception_4b/1x1
I0714 23:26:52.711827 32432 net.cpp:148] Top shape: 10 160 14 14 (313600)
I0714 23:26:52.711832 32432 net.cpp:156] Memory required for data: 390871040
I0714 23:26:52.711840 32432 layer_factory.hpp:77] Creating layer inception_4b/relu_1x1
I0714 23:26:52.711855 32432 net.cpp:91] Creating Layer inception_4b/relu_1x1
I0714 23:26:52.711861 32432 net.cpp:425] inception_4b/relu_1x1 <- inception_4b/1x1
I0714 23:26:52.711870 32432 net.cpp:386] inception_4b/relu_1x1 -> inception_4b/1x1 (in-place)
I0714 23:26:52.711872 32428 net.cpp:141] Setting up inception_4a/relu_pool_proj
I0714 23:26:52.711885 32428 net.cpp:148] Top shape: 10 64 14 14 (125440)
I0714 23:26:52.711890 32428 net.cpp:156] Memory required for data: 369546240
I0714 23:26:52.711894 32428 layer_factory.hpp:77] Creating layer inception_4a/output
I0714 23:26:52.711902 32428 net.cpp:91] Creating Layer inception_4a/output
I0714 23:26:52.711907 32428 net.cpp:425] inception_4a/output <- inception_4a/1x1
I0714 23:26:52.711915 32428 net.cpp:425] inception_4a/output <- inception_4a/3x3
I0714 23:26:52.711920 32428 net.cpp:425] inception_4a/output <- inception_4a/5x5
I0714 23:26:52.711925 32428 net.cpp:425] inception_4a/output <- inception_4a/pool_proj
I0714 23:26:52.711930 32428 net.cpp:399] inception_4a/output -> inception_4a/output
I0714 23:26:52.712081 32428 net.cpp:141] Setting up inception_4a/output
I0714 23:26:52.712091 32428 net.cpp:148] Top shape: 10 512 14 14 (1003520)
I0714 23:26:52.712095 32428 net.cpp:156] Memory required for data: 373560320
I0714 23:26:52.712100 32428 layer_factory.hpp:77] Creating layer inception_4a/output_inception_4a/output_0_split
I0714 23:26:52.712110 32428 net.cpp:91] Creating Layer inception_4a/output_inception_4a/output_0_split
I0714 23:26:52.712116 32428 net.cpp:425] inception_4a/output_inception_4a/output_0_split <- inception_4a/output
I0714 23:26:52.712122 32428 net.cpp:399] inception_4a/output_inception_4a/output_0_split -> inception_4a/output_inception_4a/output_0_split_0
I0714 23:26:52.712131 32428 net.cpp:399] inception_4a/output_inception_4a/output_0_split -> inception_4a/output_inception_4a/output_0_split_1
I0714 23:26:52.712138 32428 net.cpp:399] inception_4a/output_inception_4a/output_0_split -> inception_4a/output_inception_4a/output_0_split_2
I0714 23:26:52.712146 32428 net.cpp:399] inception_4a/output_inception_4a/output_0_split -> inception_4a/output_inception_4a/output_0_split_3
I0714 23:26:52.712261 32428 net.cpp:141] Setting up inception_4a/output_inception_4a/output_0_split
I0714 23:26:52.712271 32428 net.cpp:148] Top shape: 10 512 14 14 (1003520)
I0714 23:26:52.712277 32428 net.cpp:148] Top shape: 10 512 14 14 (1003520)
I0714 23:26:52.712276 32432 net.cpp:141] Setting up inception_4b/relu_1x1
I0714 23:26:52.712283 32428 net.cpp:148] Top shape: 10 512 14 14 (1003520)
I0714 23:26:52.712288 32432 net.cpp:148] Top shape: 10 160 14 14 (313600)
I0714 23:26:52.712290 32428 net.cpp:148] Top shape: 10 512 14 14 (1003520)
I0714 23:26:52.712297 32432 net.cpp:156] Memory required for data: 392125440
I0714 23:26:52.712301 32428 net.cpp:156] Memory required for data: 389616640
I0714 23:26:52.712302 32432 layer_factory.hpp:77] Creating layer inception_4b/3x3_reduce
I0714 23:26:52.712306 32428 layer_factory.hpp:77] Creating layer inception_4b/1x1
I0714 23:26:52.712318 32432 net.cpp:91] Creating Layer inception_4b/3x3_reduce
I0714 23:26:52.712319 32428 net.cpp:91] Creating Layer inception_4b/1x1
I0714 23:26:52.712324 32432 net.cpp:425] inception_4b/3x3_reduce <- inception_4a/output_inception_4a/output_0_split_1
I0714 23:26:52.712326 32428 net.cpp:425] inception_4b/1x1 <- inception_4a/output_inception_4a/output_0_split_0
I0714 23:26:52.712337 32428 net.cpp:399] inception_4b/1x1 -> inception_4b/1x1
I0714 23:26:52.712337 32432 net.cpp:399] inception_4b/3x3_reduce -> inception_4b/3x3_reduce
I0714 23:26:52.717485 32432 net.cpp:141] Setting up inception_4b/3x3_reduce
I0714 23:26:52.717504 32432 net.cpp:148] Top shape: 10 112 14 14 (219520)
I0714 23:26:52.717504 32428 net.cpp:141] Setting up inception_4b/1x1
I0714 23:26:52.717509 32432 net.cpp:156] Memory required for data: 393003520
I0714 23:26:52.717521 32428 net.cpp:148] Top shape: 10 160 14 14 (313600)
I0714 23:26:52.717525 32432 layer_factory.hpp:77] Creating layer inception_4b/relu_3x3_reduce
I0714 23:26:52.717526 32428 net.cpp:156] Memory required for data: 390871040
I0714 23:26:52.717537 32432 net.cpp:91] Creating Layer inception_4b/relu_3x3_reduce
I0714 23:26:52.717542 32428 layer_factory.hpp:77] Creating layer inception_4b/relu_1x1
I0714 23:26:52.717545 32432 net.cpp:425] inception_4b/relu_3x3_reduce <- inception_4b/3x3_reduce
I0714 23:26:52.717556 32428 net.cpp:91] Creating Layer inception_4b/relu_1x1
I0714 23:26:52.717559 32432 net.cpp:386] inception_4b/relu_3x3_reduce -> inception_4b/3x3_reduce (in-place)
I0714 23:26:52.717562 32428 net.cpp:425] inception_4b/relu_1x1 <- inception_4b/1x1
I0714 23:26:52.717569 32428 net.cpp:386] inception_4b/relu_1x1 -> inception_4b/1x1 (in-place)
I0714 23:26:52.718603 32432 net.cpp:141] Setting up inception_4b/relu_3x3_reduce
I0714 23:26:52.718617 32432 net.cpp:148] Top shape: 10 112 14 14 (219520)
I0714 23:26:52.718621 32432 net.cpp:156] Memory required for data: 393881600
I0714 23:26:52.718626 32432 layer_factory.hpp:77] Creating layer inception_4b/3x3
I0714 23:26:52.718624 32428 net.cpp:141] Setting up inception_4b/relu_1x1
I0714 23:26:52.718638 32428 net.cpp:148] Top shape: 10 160 14 14 (313600)
I0714 23:26:52.718642 32428 net.cpp:156] Memory required for data: 392125440
I0714 23:26:52.718643 32432 net.cpp:91] Creating Layer inception_4b/3x3
I0714 23:26:52.718647 32428 layer_factory.hpp:77] Creating layer inception_4b/3x3_reduce
I0714 23:26:52.718650 32432 net.cpp:425] inception_4b/3x3 <- inception_4b/3x3_reduce
I0714 23:26:52.718659 32432 net.cpp:399] inception_4b/3x3 -> inception_4b/3x3
I0714 23:26:52.718663 32428 net.cpp:91] Creating Layer inception_4b/3x3_reduce
I0714 23:26:52.718669 32428 net.cpp:425] inception_4b/3x3_reduce <- inception_4a/output_inception_4a/output_0_split_1
I0714 23:26:52.718678 32428 net.cpp:399] inception_4b/3x3_reduce -> inception_4b/3x3_reduce
I0714 23:26:52.723743 32428 net.cpp:141] Setting up inception_4b/3x3_reduce
I0714 23:26:52.723760 32428 net.cpp:148] Top shape: 10 112 14 14 (219520)
I0714 23:26:52.723765 32428 net.cpp:156] Memory required for data: 393003520
I0714 23:26:52.723774 32428 layer_factory.hpp:77] Creating layer inception_4b/relu_3x3_reduce
I0714 23:26:52.723784 32428 net.cpp:91] Creating Layer inception_4b/relu_3x3_reduce
I0714 23:26:52.723790 32428 net.cpp:425] inception_4b/relu_3x3_reduce <- inception_4b/3x3_reduce
I0714 23:26:52.723798 32428 net.cpp:386] inception_4b/relu_3x3_reduce -> inception_4b/3x3_reduce (in-place)
I0714 23:26:52.724802 32428 net.cpp:141] Setting up inception_4b/relu_3x3_reduce
I0714 23:26:52.724815 32428 net.cpp:148] Top shape: 10 112 14 14 (219520)
I0714 23:26:52.724820 32428 net.cpp:156] Memory required for data: 393881600
I0714 23:26:52.724824 32428 layer_factory.hpp:77] Creating layer inception_4b/3x3
I0714 23:26:52.724840 32428 net.cpp:91] Creating Layer inception_4b/3x3
I0714 23:26:52.724846 32428 net.cpp:425] inception_4b/3x3 <- inception_4b/3x3_reduce
I0714 23:26:52.724854 32428 net.cpp:399] inception_4b/3x3 -> inception_4b/3x3
I0714 23:26:52.725917 32432 net.cpp:141] Setting up inception_4b/3x3
I0714 23:26:52.725934 32432 net.cpp:148] Top shape: 10 224 14 14 (439040)
I0714 23:26:52.725939 32432 net.cpp:156] Memory required for data: 395637760
I0714 23:26:52.725947 32432 layer_factory.hpp:77] Creating layer inception_4b/relu_3x3
I0714 23:26:52.726372 32432 net.cpp:91] Creating Layer inception_4b/relu_3x3
I0714 23:26:52.726382 32432 net.cpp:425] inception_4b/relu_3x3 <- inception_4b/3x3
I0714 23:26:52.726389 32432 net.cpp:386] inception_4b/relu_3x3 -> inception_4b/3x3 (in-place)
I0714 23:26:52.727201 32432 net.cpp:141] Setting up inception_4b/relu_3x3
I0714 23:26:52.727216 32432 net.cpp:148] Top shape: 10 224 14 14 (439040)
I0714 23:26:52.727221 32432 net.cpp:156] Memory required for data: 397393920
I0714 23:26:52.727226 32432 layer_factory.hpp:77] Creating layer inception_4b/5x5_reduce
I0714 23:26:52.727252 32432 net.cpp:91] Creating Layer inception_4b/5x5_reduce
I0714 23:26:52.727257 32432 net.cpp:425] inception_4b/5x5_reduce <- inception_4a/output_inception_4a/output_0_split_2
I0714 23:26:52.727267 32432 net.cpp:399] inception_4b/5x5_reduce -> inception_4b/5x5_reduce
I0714 23:26:52.731586 32432 net.cpp:141] Setting up inception_4b/5x5_reduce
I0714 23:26:52.731603 32432 net.cpp:148] Top shape: 10 24 14 14 (47040)
I0714 23:26:52.731608 32432 net.cpp:156] Memory required for data: 397582080
I0714 23:26:52.731618 32432 layer_factory.hpp:77] Creating layer inception_4b/relu_5x5_reduce
I0714 23:26:52.731631 32432 net.cpp:91] Creating Layer inception_4b/relu_5x5_reduce
I0714 23:26:52.731637 32432 net.cpp:425] inception_4b/relu_5x5_reduce <- inception_4b/5x5_reduce
I0714 23:26:52.731643 32432 net.cpp:386] inception_4b/relu_5x5_reduce -> inception_4b/5x5_reduce (in-place)
I0714 23:26:52.732417 32428 net.cpp:141] Setting up inception_4b/3x3
I0714 23:26:52.732434 32428 net.cpp:148] Top shape: 10 224 14 14 (439040)
I0714 23:26:52.732439 32428 net.cpp:156] Memory required for data: 395637760
I0714 23:26:52.732448 32428 layer_factory.hpp:77] Creating layer inception_4b/relu_3x3
I0714 23:26:52.732456 32428 net.cpp:91] Creating Layer inception_4b/relu_3x3
I0714 23:26:52.732462 32428 net.cpp:425] inception_4b/relu_3x3 <- inception_4b/3x3
I0714 23:26:52.732471 32428 net.cpp:386] inception_4b/relu_3x3 -> inception_4b/3x3 (in-place)
I0714 23:26:52.732769 32432 net.cpp:141] Setting up inception_4b/relu_5x5_reduce
I0714 23:26:52.732782 32432 net.cpp:148] Top shape: 10 24 14 14 (47040)
I0714 23:26:52.732786 32432 net.cpp:156] Memory required for data: 397770240
I0714 23:26:52.732791 32432 layer_factory.hpp:77] Creating layer inception_4b/5x5
I0714 23:26:52.732791 32428 net.cpp:141] Setting up inception_4b/relu_3x3
I0714 23:26:52.732803 32428 net.cpp:148] Top shape: 10 224 14 14 (439040)
I0714 23:26:52.732808 32428 net.cpp:156] Memory required for data: 397393920
I0714 23:26:52.732813 32428 layer_factory.hpp:77] Creating layer inception_4b/5x5_reduce
I0714 23:26:52.732813 32432 net.cpp:91] Creating Layer inception_4b/5x5
I0714 23:26:52.732820 32432 net.cpp:425] inception_4b/5x5 <- inception_4b/5x5_reduce
I0714 23:26:52.732830 32432 net.cpp:399] inception_4b/5x5 -> inception_4b/5x5
I0714 23:26:52.732837 32428 net.cpp:91] Creating Layer inception_4b/5x5_reduce
I0714 23:26:52.732843 32428 net.cpp:425] inception_4b/5x5_reduce <- inception_4a/output_inception_4a/output_0_split_2
I0714 23:26:52.732854 32428 net.cpp:399] inception_4b/5x5_reduce -> inception_4b/5x5_reduce
I0714 23:26:52.737403 32432 net.cpp:141] Setting up inception_4b/5x5
I0714 23:26:52.737419 32432 net.cpp:148] Top shape: 10 64 14 14 (125440)
I0714 23:26:52.737424 32432 net.cpp:156] Memory required for data: 398272000
I0714 23:26:52.737433 32432 layer_factory.hpp:77] Creating layer inception_4b/relu_5x5
I0714 23:26:52.737442 32432 net.cpp:91] Creating Layer inception_4b/relu_5x5
I0714 23:26:52.737447 32432 net.cpp:425] inception_4b/relu_5x5 <- inception_4b/5x5
I0714 23:26:52.737455 32432 net.cpp:386] inception_4b/relu_5x5 -> inception_4b/5x5 (in-place)
I0714 23:26:52.737828 32428 net.cpp:141] Setting up inception_4b/5x5_reduce
I0714 23:26:52.737843 32428 net.cpp:148] Top shape: 10 24 14 14 (47040)
I0714 23:26:52.737848 32428 net.cpp:156] Memory required for data: 397582080
I0714 23:26:52.737857 32428 layer_factory.hpp:77] Creating layer inception_4b/relu_5x5_reduce
I0714 23:26:52.737869 32428 net.cpp:91] Creating Layer inception_4b/relu_5x5_reduce
I0714 23:26:52.737874 32428 net.cpp:425] inception_4b/relu_5x5_reduce <- inception_4b/5x5_reduce
I0714 23:26:52.737884 32428 net.cpp:386] inception_4b/relu_5x5_reduce -> inception_4b/5x5_reduce (in-place)
I0714 23:26:52.737895 32432 net.cpp:141] Setting up inception_4b/relu_5x5
I0714 23:26:52.737908 32432 net.cpp:148] Top shape: 10 64 14 14 (125440)
I0714 23:26:52.737913 32432 net.cpp:156] Memory required for data: 398773760
I0714 23:26:52.737918 32432 layer_factory.hpp:77] Creating layer inception_4b/pool
I0714 23:26:52.737927 32432 net.cpp:91] Creating Layer inception_4b/pool
I0714 23:26:52.737932 32432 net.cpp:425] inception_4b/pool <- inception_4a/output_inception_4a/output_0_split_3
I0714 23:26:52.737941 32432 net.cpp:399] inception_4b/pool -> inception_4b/pool
I0714 23:26:52.738622 32432 net.cpp:141] Setting up inception_4b/pool
I0714 23:26:52.738636 32432 net.cpp:148] Top shape: 10 512 14 14 (1003520)
I0714 23:26:52.738639 32432 net.cpp:156] Memory required for data: 402787840
I0714 23:26:52.738644 32432 layer_factory.hpp:77] Creating layer inception_4b/pool_proj
I0714 23:26:52.738661 32432 net.cpp:91] Creating Layer inception_4b/pool_proj
I0714 23:26:52.738665 32432 net.cpp:425] inception_4b/pool_proj <- inception_4b/pool
I0714 23:26:52.738677 32432 net.cpp:399] inception_4b/pool_proj -> inception_4b/pool_proj
I0714 23:26:52.739969 32428 net.cpp:141] Setting up inception_4b/relu_5x5_reduce
I0714 23:26:52.739984 32428 net.cpp:148] Top shape: 10 24 14 14 (47040)
I0714 23:26:52.739989 32428 net.cpp:156] Memory required for data: 397770240
I0714 23:26:52.739995 32428 layer_factory.hpp:77] Creating layer inception_4b/5x5
I0714 23:26:52.740010 32428 net.cpp:91] Creating Layer inception_4b/5x5
I0714 23:26:52.740015 32428 net.cpp:425] inception_4b/5x5 <- inception_4b/5x5_reduce
I0714 23:26:52.740027 32428 net.cpp:399] inception_4b/5x5 -> inception_4b/5x5
I0714 23:26:52.743542 32432 net.cpp:141] Setting up inception_4b/pool_proj
I0714 23:26:52.743561 32432 net.cpp:148] Top shape: 10 64 14 14 (125440)
I0714 23:26:52.743567 32432 net.cpp:156] Memory required for data: 403289600
I0714 23:26:52.743577 32432 layer_factory.hpp:77] Creating layer inception_4b/relu_pool_proj
I0714 23:26:52.743584 32432 net.cpp:91] Creating Layer inception_4b/relu_pool_proj
I0714 23:26:52.743590 32432 net.cpp:425] inception_4b/relu_pool_proj <- inception_4b/pool_proj
I0714 23:26:52.743599 32432 net.cpp:386] inception_4b/relu_pool_proj -> inception_4b/pool_proj (in-place)
I0714 23:26:52.744606 32432 net.cpp:141] Setting up inception_4b/relu_pool_proj
I0714 23:26:52.744619 32432 net.cpp:148] Top shape: 10 64 14 14 (125440)
I0714 23:26:52.744624 32432 net.cpp:156] Memory required for data: 403791360
I0714 23:26:52.744629 32432 layer_factory.hpp:77] Creating layer inception_4b/output
I0714 23:26:52.744637 32432 net.cpp:91] Creating Layer inception_4b/output
I0714 23:26:52.744643 32432 net.cpp:425] inception_4b/output <- inception_4b/1x1
I0714 23:26:52.744649 32432 net.cpp:425] inception_4b/output <- inception_4b/3x3
I0714 23:26:52.744655 32432 net.cpp:425] inception_4b/output <- inception_4b/5x5
I0714 23:26:52.744660 32432 net.cpp:425] inception_4b/output <- inception_4b/pool_proj
I0714 23:26:52.744669 32432 net.cpp:399] inception_4b/output -> inception_4b/output
I0714 23:26:52.744730 32432 net.cpp:141] Setting up inception_4b/output
I0714 23:26:52.744740 32432 net.cpp:148] Top shape: 10 512 14 14 (1003520)
I0714 23:26:52.744745 32432 net.cpp:156] Memory required for data: 407805440
I0714 23:26:52.744750 32432 layer_factory.hpp:77] Creating layer inception_4b/output_inception_4b/output_0_split
I0714 23:26:52.744761 32432 net.cpp:91] Creating Layer inception_4b/output_inception_4b/output_0_split
I0714 23:26:52.744766 32432 net.cpp:425] inception_4b/output_inception_4b/output_0_split <- inception_4b/output
I0714 23:26:52.744773 32432 net.cpp:399] inception_4b/output_inception_4b/output_0_split -> inception_4b/output_inception_4b/output_0_split_0
I0714 23:26:52.744784 32432 net.cpp:399] inception_4b/output_inception_4b/output_0_split -> inception_4b/output_inception_4b/output_0_split_1
I0714 23:26:52.744792 32432 net.cpp:399] inception_4b/output_inception_4b/output_0_split -> inception_4b/output_inception_4b/output_0_split_2
I0714 23:26:52.744801 32432 net.cpp:399] inception_4b/output_inception_4b/output_0_split -> inception_4b/output_inception_4b/output_0_split_3
I0714 23:26:52.744823 32428 net.cpp:141] Setting up inception_4b/5x5
I0714 23:26:52.744837 32428 net.cpp:148] Top shape: 10 64 14 14 (125440)
I0714 23:26:52.744843 32428 net.cpp:156] Memory required for data: 398272000
I0714 23:26:52.744850 32428 layer_factory.hpp:77] Creating layer inception_4b/relu_5x5
I0714 23:26:52.744863 32428 net.cpp:91] Creating Layer inception_4b/relu_5x5
I0714 23:26:52.744868 32428 net.cpp:425] inception_4b/relu_5x5 <- inception_4b/5x5
I0714 23:26:52.744874 32428 net.cpp:386] inception_4b/relu_5x5 -> inception_4b/5x5 (in-place)
I0714 23:26:52.745091 32432 net.cpp:141] Setting up inception_4b/output_inception_4b/output_0_split
I0714 23:26:52.745102 32432 net.cpp:148] Top shape: 10 512 14 14 (1003520)
I0714 23:26:52.745108 32432 net.cpp:148] Top shape: 10 512 14 14 (1003520)
I0714 23:26:52.745113 32432 net.cpp:148] Top shape: 10 512 14 14 (1003520)
I0714 23:26:52.745118 32432 net.cpp:148] Top shape: 10 512 14 14 (1003520)
I0714 23:26:52.745122 32432 net.cpp:156] Memory required for data: 423861760
I0714 23:26:52.745126 32432 layer_factory.hpp:77] Creating layer inception_4c/1x1
I0714 23:26:52.745141 32432 net.cpp:91] Creating Layer inception_4c/1x1
I0714 23:26:52.745146 32432 net.cpp:425] inception_4c/1x1 <- inception_4b/output_inception_4b/output_0_split_0
I0714 23:26:52.745157 32432 net.cpp:399] inception_4c/1x1 -> inception_4c/1x1
I0714 23:26:52.745394 32428 net.cpp:141] Setting up inception_4b/relu_5x5
I0714 23:26:52.745406 32428 net.cpp:148] Top shape: 10 64 14 14 (125440)
I0714 23:26:52.745410 32428 net.cpp:156] Memory required for data: 398773760
I0714 23:26:52.745415 32428 layer_factory.hpp:77] Creating layer inception_4b/pool
I0714 23:26:52.745426 32428 net.cpp:91] Creating Layer inception_4b/pool
I0714 23:26:52.745432 32428 net.cpp:425] inception_4b/pool <- inception_4a/output_inception_4a/output_0_split_3
I0714 23:26:52.745442 32428 net.cpp:399] inception_4b/pool -> inception_4b/pool
I0714 23:26:52.745517 32428 net.cpp:141] Setting up inception_4b/pool
I0714 23:26:52.745527 32428 net.cpp:148] Top shape: 10 512 14 14 (1003520)
I0714 23:26:52.745530 32428 net.cpp:156] Memory required for data: 402787840
I0714 23:26:52.745535 32428 layer_factory.hpp:77] Creating layer inception_4b/pool_proj
I0714 23:26:52.745548 32428 net.cpp:91] Creating Layer inception_4b/pool_proj
I0714 23:26:52.745553 32428 net.cpp:425] inception_4b/pool_proj <- inception_4b/pool
I0714 23:26:52.745564 32428 net.cpp:399] inception_4b/pool_proj -> inception_4b/pool_proj
I0714 23:26:52.749972 32432 net.cpp:141] Setting up inception_4c/1x1
I0714 23:26:52.749989 32432 net.cpp:148] Top shape: 10 128 14 14 (250880)
I0714 23:26:52.749994 32432 net.cpp:156] Memory required for data: 424865280
I0714 23:26:52.750002 32432 layer_factory.hpp:77] Creating layer inception_4c/relu_1x1
I0714 23:26:52.750015 32432 net.cpp:91] Creating Layer inception_4c/relu_1x1
I0714 23:26:52.750020 32432 net.cpp:425] inception_4c/relu_1x1 <- inception_4c/1x1
I0714 23:26:52.750026 32432 net.cpp:386] inception_4c/relu_1x1 -> inception_4c/1x1 (in-place)
I0714 23:26:52.750816 32428 net.cpp:141] Setting up inception_4b/pool_proj
I0714 23:26:52.750833 32428 net.cpp:148] Top shape: 10 64 14 14 (125440)
I0714 23:26:52.750838 32428 net.cpp:156] Memory required for data: 403289600
I0714 23:26:52.750847 32428 layer_factory.hpp:77] Creating layer inception_4b/relu_pool_proj
I0714 23:26:52.750855 32428 net.cpp:91] Creating Layer inception_4b/relu_pool_proj
…
I0714 23:26:52.865242 32432 layer_factory.hpp:77] Creating layer inception_4e/5x5
I0714 23:26:52.865253 32428 net.cpp:91] Creating Layer inception_4e/5x5
I0714 23:26:52.865260 32428 net.cpp:425] inception_4e/5x5 <- inception_4e/5x5_reduce
I0714 23:26:52.865265 32432 net.cpp:91] Creating Layer inception_4e/5x5
I0714 23:26:52.865269 32428 net.cpp:399] inception_4e/5x5 -> inception_4e/5x5
I0714 23:26:52.865281 32432 net.cpp:425] inception_4e/5x5 <- inception_4e/5x5_reduce
I0714 23:26:52.865298 32432 net.cpp:399] inception_4e/5x5 -> inception_4e/5x5
I0714 23:26:52.872910 32428 net.cpp:141] Setting up inception_4e/5x5
I0714 23:26:52.872926 32428 net.cpp:148] Top shape: 10 128 14 14 (250880)
I0714 23:26:52.872934 32428 net.cpp:156] Memory required for data: 507153920
I0714 23:26:52.872943 32428 layer_factory.hpp:77] Creating layer inception_4e/relu_5x5
I0714 23:26:52.872951 32428 net.cpp:91] Creating Layer inception_4e/relu_5x5
I0714 23:26:52.872948 32432 net.cpp:141] Setting up inception_4e/5x5
I0714 23:26:52.872961 32428 net.cpp:425] inception_4e/relu_5x5 <- inception_4e/5x5
I0714 23:26:52.872972 32432 net.cpp:148] Top shape: 10 128 14 14 (250880)
I0714 23:26:52.872975 32428 net.cpp:386] inception_4e/relu_5x5 -> inception_4e/5x5 (in-place)
I0714 23:26:52.872978 32432 net.cpp:156] Memory required for data: 507153920
I0714 23:26:52.872987 32432 layer_factory.hpp:77] Creating layer inception_4e/relu_5x5
I0714 23:26:52.872997 32432 net.cpp:91] Creating Layer inception_4e/relu_5x5
I0714 23:26:52.873002 32432 net.cpp:425] inception_4e/relu_5x5 <- inception_4e/5x5
I0714 23:26:52.873013 32432 net.cpp:386] inception_4e/relu_5x5 -> inception_4e/5x5 (in-place)
I0714 23:26:52.874090 32432 net.cpp:141] Setting up inception_4e/relu_5x5
I0714 23:26:52.874091 32428 net.cpp:141] Setting up inception_4e/relu_5x5
I0714 23:26:52.874105 32432 net.cpp:148] Top shape: 10 128 14 14 (250880)
I0714 23:26:52.874110 32432 net.cpp:156] Memory required for data: 508157440
I0714 23:26:52.874125 32428 net.cpp:148] Top shape: 10 128 14 14 (250880)
I0714 23:26:52.874128 32432 layer_factory.hpp:77] Creating layer inception_4e/pool
I0714 23:26:52.874131 32428 net.cpp:156] Memory required for data: 508157440
I0714 23:26:52.874137 32428 layer_factory.hpp:77] Creating layer inception_4e/pool
I0714 23:26:52.874138 32432 net.cpp:91] Creating Layer inception_4e/pool
I0714 23:26:52.874150 32428 net.cpp:91] Creating Layer inception_4e/pool
I0714 23:26:52.874150 32432 net.cpp:425] inception_4e/pool <- inception_4d/output_inception_4d/output_0_split_3
I0714 23:26:52.874157 32428 net.cpp:425] inception_4e/pool <- inception_4d/output_inception_4d/output_0_split_3
I0714 23:26:52.874164 32432 net.cpp:399] inception_4e/pool -> inception_4e/pool
I0714 23:26:52.874166 32428 net.cpp:399] inception_4e/pool -> inception_4e/pool
I0714 23:26:52.874325 32432 net.cpp:141] Setting up inception_4e/pool
I0714 23:26:52.874336 32432 net.cpp:148] Top shape: 10 528 14 14 (1034880)
I0714 23:26:52.874341 32432 net.cpp:156] Memory required for data: 512296960
I0714 23:26:52.874346 32432 layer_factory.hpp:77] Creating layer inception_4e/pool_proj
I0714 23:26:52.874361 32432 net.cpp:91] Creating Layer inception_4e/pool_proj
I0714 23:26:52.874371 32428 net.cpp:141] Setting up inception_4e/pool
I0714 23:26:52.874374 32432 net.cpp:425] inception_4e/pool_proj <- inception_4e/pool
I0714 23:26:52.874383 32428 net.cpp:148] Top shape: 10 528 14 14 (1034880)
I0714 23:26:52.874388 32428 net.cpp:156] Memory required for data: 512296960
I0714 23:26:52.874388 32432 net.cpp:399] inception_4e/pool_proj -> inception_4e/pool_proj
I0714 23:26:52.874395 32428 layer_factory.hpp:77] Creating layer inception_4e/pool_proj
I0714 23:26:52.874411 32428 net.cpp:91] Creating Layer inception_4e/pool_proj
I0714 23:26:52.874416 32428 net.cpp:425] inception_4e/pool_proj <- inception_4e/pool
I0714 23:26:52.874430 32428 net.cpp:399] inception_4e/pool_proj -> inception_4e/pool_proj
I0714 23:26:52.880839 32432 net.cpp:141] Setting up inception_4e/pool_proj
I0714 23:26:52.880872 32432 net.cpp:148] Top shape: 10 128 14 14 (250880)
I0714 23:26:52.880877 32432 net.cpp:156] Memory required for data: 513300480
I0714 23:26:52.880887 32432 layer_factory.hpp:77] Creating layer inception_4e/relu_pool_proj
I0714 23:26:52.880894 32432 net.cpp:91] Creating Layer inception_4e/relu_pool_proj
I0714 23:26:52.880900 32432 net.cpp:425] inception_4e/relu_pool_proj <- inception_4e/pool_proj
I0714 23:26:52.880908 32432 net.cpp:386] inception_4e/relu_pool_proj -> inception_4e/pool_proj (in-place)
I0714 23:26:52.881131 32428 net.cpp:141] Setting up inception_4e/pool_proj
I0714 23:26:52.881145 32428 net.cpp:148] Top shape: 10 128 14 14 (250880)
I0714 23:26:52.881150 32428 net.cpp:156] Memory required for data: 513300480
I0714 23:26:52.881158 32428 layer_factory.hpp:77] Creating layer inception_4e/relu_pool_proj
I0714 23:26:52.881167 32428 net.cpp:91] Creating Layer inception_4e/relu_pool_proj
I0714 23:26:52.881172 32428 net.cpp:425] inception_4e/relu_pool_proj <- inception_4e/pool_proj
I0714 23:26:52.881181 32428 net.cpp:386] inception_4e/relu_pool_proj -> inception_4e/pool_proj (in-place)
I0714 23:26:52.881922 32432 net.cpp:141] Setting up inception_4e/relu_pool_proj
I0714 23:26:52.881933 32432 net.cpp:148] Top shape: 10 128 14 14 (250880)
I0714 23:26:52.881938 32432 net.cpp:156] Memory required for data: 514304000
I0714 23:26:52.881943 32432 layer_factory.hpp:77] Creating layer inception_4e/output
I0714 23:26:52.881952 32432 net.cpp:91] Creating Layer inception_4e/output
I0714 23:26:52.881956 32432 net.cpp:425] inception_4e/output <- inception_4e/1x1
I0714 23:26:52.881963 32432 net.cpp:425] inception_4e/output <- inception_4e/3x3
I0714 23:26:52.881968 32432 net.cpp:425] inception_4e/output <- inception_4e/5x5
I0714 23:26:52.881973 32432 net.cpp:425] inception_4e/output <- inception_4e/pool_proj
I0714 23:26:52.881981 32432 net.cpp:399] inception_4e/output -> inception_4e/output
I0714 23:26:52.882055 32432 net.cpp:141] Setting up inception_4e/output
I0714 23:26:52.882066 32432 net.cpp:148] Top shape: 10 832 14 14 (1630720)
I0714 23:26:52.882071 32432 net.cpp:156] Memory required for data: 520826880
I0714 23:26:52.882076 32432 layer_factory.hpp:77] Creating layer pool4/3x3_s2
I0714 23:26:52.882084 32428 net.cpp:141] Setting up inception_4e/relu_pool_proj
I0714 23:26:52.882087 32432 net.cpp:91] Creating Layer pool4/3x3_s2
I0714 23:26:52.882099 32428 net.cpp:148] Top shape: 10 128 14 14 (250880)
I0714 23:26:52.882100 32432 net.cpp:425] pool4/3x3_s2 <- inception_4e/output
I0714 23:26:52.882105 32428 net.cpp:156] Memory required for data: 514304000
I0714 23:26:52.882110 32428 layer_factory.hpp:77] Creating layer inception_4e/output
I0714 23:26:52.882109 32432 net.cpp:399] pool4/3x3_s2 -> pool4/3x3_s2
I0714 23:26:52.882118 32428 net.cpp:91] Creating Layer inception_4e/output
I0714 23:26:52.882123 32428 net.cpp:425] inception_4e/output <- inception_4e/1x1
I0714 23:26:52.882130 32428 net.cpp:425] inception_4e/output <- inception_4e/3x3
I0714 23:26:52.882149 32428 net.cpp:425] inception_4e/output <- inception_4e/5x5
I0714 23:26:52.882155 32428 net.cpp:425] inception_4e/output <- inception_4e/pool_proj
I0714 23:26:52.882163 32428 net.cpp:399] inception_4e/output -> inception_4e/output
I0714 23:26:52.882207 32432 net.cpp:141] Setting up pool4/3x3_s2
I0714 23:26:52.882217 32432 net.cpp:148] Top shape: 10 832 7 7 (407680)
I0714 23:26:52.882221 32432 net.cpp:156] Memory required for data: 522457600
I0714 23:26:52.882226 32432 layer_factory.hpp:77] Creating layer pool4/3x3_s2_pool4/3x3_s2_0_split
I0714 23:26:52.882236 32432 net.cpp:91] Creating Layer pool4/3x3_s2_pool4/3x3_s2_0_split
I0714 23:26:52.882241 32432 net.cpp:425] pool4/3x3_s2_pool4/3x3_s2_0_split <- pool4/3x3_s2
I0714 23:26:52.882248 32432 net.cpp:399] pool4/3x3_s2_pool4/3x3_s2_0_split -> pool4/3x3_s2_pool4/3x3_s2_0_split_0
I0714 23:26:52.882252 32428 net.cpp:141] Setting up inception_4e/output
I0714 23:26:52.882256 32432 net.cpp:399] pool4/3x3_s2_pool4/3x3_s2_0_split -> pool4/3x3_s2_pool4/3x3_s2_0_split_1
I0714 23:26:52.882267 32428 net.cpp:148] Top shape: 10 832 14 14 (1630720)
I0714 23:26:52.882272 32432 net.cpp:399] pool4/3x3_s2_pool4/3x3_s2_0_split -> pool4/3x3_s2_pool4/3x3_s2_0_split_2
I0714 23:26:52.882272 32428 net.cpp:156] Memory required for data: 520826880
I0714 23:26:52.882282 32432 net.cpp:399] pool4/3x3_s2_pool4/3x3_s2_0_split -> pool4/3x3_s2_pool4/3x3_s2_0_split_3
I0714 23:26:52.882282 32428 layer_factory.hpp:77] Creating layer pool4/3x3_s2
I0714 23:26:52.882302 32428 net.cpp:91] Creating Layer pool4/3x3_s2
I0714 23:26:52.882308 32428 net.cpp:425] pool4/3x3_s2 <- inception_4e/output
I0714 23:26:52.882318 32428 net.cpp:399] pool4/3x3_s2 -> pool4/3x3_s2
I0714 23:26:52.882475 32428 net.cpp:141] Setting up pool4/3x3_s2
I0714 23:26:52.882485 32428 net.cpp:148] Top shape: 10 832 7 7 (407680)
I0714 23:26:52.882489 32428 net.cpp:156] Memory required for data: 522457600
I0714 23:26:52.882494 32428 layer_factory.hpp:77] Creating layer pool4/3x3_s2_pool4/3x3_s2_0_split
I0714 23:26:52.882504 32428 net.cpp:91] Creating Layer pool4/3x3_s2_pool4/3x3_s2_0_split
I0714 23:26:52.882509 32428 net.cpp:425] pool4/3x3_s2_pool4/3x3_s2_0_split <- pool4/3x3_s2
I0714 23:26:52.882516 32428 net.cpp:399] pool4/3x3_s2_pool4/3x3_s2_0_split -> pool4/3x3_s2_pool4/3x3_s2_0_split_0
I0714 23:26:52.882524 32428 net.cpp:399] pool4/3x3_s2_pool4/3x3_s2_0_split -> pool4/3x3_s2_pool4/3x3_s2_0_split_1
I0714 23:26:52.882532 32428 net.cpp:399] pool4/3x3_s2_pool4/3x3_s2_0_split -> pool4/3x3_s2_pool4/3x3_s2_0_split_2
I0714 23:26:52.882539 32428 net.cpp:399] pool4/3x3_s2_pool4/3x3_s2_0_split -> pool4/3x3_s2_pool4/3x3_s2_0_split_3
I0714 23:26:52.882544 32432 net.cpp:141] Setting up pool4/3x3_s2_pool4/3x3_s2_0_split
I0714 23:26:52.882555 32432 net.cpp:148] Top shape: 10 832 7 7 (407680)
I0714 23:26:52.882560 32432 net.cpp:148] Top shape: 10 832 7 7 (407680)
I0714 23:26:52.882565 32432 net.cpp:148] Top shape: 10 832 7 7 (407680)
I0714 23:26:52.882570 32432 net.cpp:148] Top shape: 10 832 7 7 (407680)
I0714 23:26:52.882575 32432 net.cpp:156] Memory required for data: 528980480
I0714 23:26:52.882580 32432 layer_factory.hpp:77] Creating layer inception_5a/1x1
I0714 23:26:52.882594 32432 net.cpp:91] Creating Layer inception_5a/1x1
I0714 23:26:52.882599 32432 net.cpp:425] inception_5a/1x1 <- pool4/3x3_s2_pool4/3x3_s2_0_split_0
I0714 23:26:52.882611 32432 net.cpp:399] inception_5a/1x1 -> inception_5a/1x1
I0714 23:26:52.882697 32428 net.cpp:141] Setting up pool4/3x3_s2_pool4/3x3_s2_0_split
I0714 23:26:52.882709 32428 net.cpp:148] Top shape: 10 832 7 7 (407680)
I0714 23:26:52.882714 32428 net.cpp:148] Top shape: 10 832 7 7 (407680)
I0714 23:26:52.882719 32428 net.cpp:148] Top shape: 10 832 7 7 (407680)
I0714 23:26:52.882725 32428 net.cpp:148] Top shape: 10 832 7 7 (407680)
I0714 23:26:52.882728 32428 net.cpp:156] Memory required for data: 528980480
I0714 23:26:52.882733 32428 layer_factory.hpp:77] Creating layer inception_5a/1x1
I0714 23:26:52.882748 32428 net.cpp:91] Creating Layer inception_5a/1x1
I0714 23:26:52.882755 32428 net.cpp:425] inception_5a/1x1 <- pool4/3x3_s2_pool4/3x3_s2_0_split_0
I0714 23:26:52.882764 32428 net.cpp:399] inception_5a/1x1 -> inception_5a/1x1
I0714 23:26:52.888566 32432 net.cpp:141] Setting up inception_5a/1x1
I0714 23:26:52.888591 32432 net.cpp:148] Top shape: 10 256 7 7 (125440)
I0714 23:26:52.888598 32432 net.cpp:156] Memory required for data: 529482240
I0714 23:26:52.888608 32432 layer_factory.hpp:77] Creating layer inception_5a/relu_1x1
I0714 23:26:52.888618 32432 net.cpp:91] Creating Layer inception_5a/relu_1x1
I0714 23:26:52.888625 32432 net.cpp:425] inception_5a/relu_1x1 <- inception_5a/1x1
I0714 23:26:52.888633 32432 net.cpp:386] inception_5a/relu_1x1 -> inception_5a/1x1 (in-place)
I0714 23:26:52.889713 32432 net.cpp:141] Setting up inception_5a/relu_1x1
I0714 23:26:52.889726 32432 net.cpp:148] Top shape: 10 256 7 7 (125440)
I0714 23:26:52.889731 32432 net.cpp:156] Memory required for data: 529984000
I0714 23:26:52.889736 32432 layer_factory.hpp:77] Creating layer inception_5a/3x3_reduce
I0714 23:26:52.889752 32432 net.cpp:91] Creating Layer inception_5a/3x3_reduce
I0714 23:26:52.889758 32432 net.cpp:425] inception_5a/3x3_reduce <- pool4/3x3_s2_pool4/3x3_s2_0_split_1
I0714 23:26:52.889770 32432 net.cpp:399] inception_5a/3x3_reduce -> inception_5a/3x3_reduce
I0714 23:26:52.892252 32428 net.cpp:141] Setting up inception_5a/1x1
I0714 23:26:52.892272 32428 net.cpp:148] Top shape: 10 256 7 7 (125440)
I0714 23:26:52.892277 32428 net.cpp:156] Memory required for data: 529482240
I0714 23:26:52.892287 32428 layer_factory.hpp:77] Creating layer inception_5a/relu_1x1
I0714 23:26:52.892302 32428 net.cpp:91] Creating Layer inception_5a/relu_1x1
I0714 23:26:52.892308 32428 net.cpp:425] inception_5a/relu_1x1 <- inception_5a/1x1
I0714 23:26:52.892316 32428 net.cpp:386] inception_5a/relu_1x1 -> inception_5a/1x1 (in-place)
I0714 23:26:52.892593 32428 net.cpp:141] Setting up inception_5a/relu_1x1
I0714 23:26:52.892604 32428 net.cpp:148] Top shape: 10 256 7 7 (125440)
I0714 23:26:52.892609 32428 net.cpp:156] Memory required for data: 529984000
I0714 23:26:52.892614 32428 layer_factory.hpp:77] Creating layer inception_5a/3x3_reduce
I0714 23:26:52.892632 32428 net.cpp:91] Creating Layer inception_5a/3x3_reduce
I0714 23:26:52.892637 32428 net.cpp:425] inception_5a/3x3_reduce <- pool4/3x3_s2_pool4/3x3_s2_0_split_1
I0714 23:26:52.892647 32428 net.cpp:399] inception_5a/3x3_reduce -> inception_5a/3x3_reduce
I0714 23:26:52.898362 32432 net.cpp:141] Setting up inception_5a/3x3_reduce
I0714 23:26:52.898385 32432 net.cpp:148] Top shape: 10 160 7 7 (78400)
I0714 23:26:52.898391 32432 net.cpp:156] Memory required for data: 530297600
I0714 23:26:52.898401 32432 layer_factory.hpp:77] Creating layer inception_5a/relu_3x3_reduce
I0714 23:26:52.898409 32432 net.cpp:91] Creating Layer inception_5a/relu_3x3_reduce
I0714 23:26:52.898416 32432 net.cpp:425] inception_5a/relu_3x3_reduce <- inception_5a/3x3_reduce
I0714 23:26:52.898422 32432 net.cpp:386] inception_5a/relu_3x3_reduce -> inception_5a/3x3_reduce (in-place)
I0714 23:26:52.899447 32428 net.cpp:141] Setting up inception_5a/3x3_reduce
I0714 23:26:52.899464 32428 net.cpp:148] Top shape: 10 160 7 7 (78400)
I0714 23:26:52.899471 32428 net.cpp:156] Memory required for data: 530297600
I0714 23:26:52.899479 32428 layer_factory.hpp:77] Creating layer inception_5a/relu_3x3_reduce
I0714 23:26:52.899487 32428 net.cpp:91] Creating Layer inception_5a/relu_3x3_reduce
I0714 23:26:52.899493 32428 net.cpp:425] inception_5a/relu_3x3_reduce <- inception_5a/3x3_reduce
I0714 23:26:52.899500 32428 net.cpp:386] inception_5a/relu_3x3_reduce -> inception_5a/3x3_reduce (in-place)
I0714 23:26:52.899700 32432 net.cpp:141] Setting up inception_5a/relu_3x3_reduce
I0714 23:26:52.899715 32432 net.cpp:148] Top shape: 10 160 7 7 (78400)
I0714 23:26:52.899720 32432 net.cpp:156] Memory required for data: 530611200
I0714 23:26:52.899725 32432 layer_factory.hpp:77] Creating layer inception_5a/3x3
I0714 23:26:52.899741 32432 net.cpp:91] Creating Layer inception_5a/3x3
I0714 23:26:52.899749 32432 net.cpp:425] inception_5a/3x3 <- inception_5a/3x3_reduce
I0714 23:26:52.899757 32432 net.cpp:399] inception_5a/3x3 -> inception_5a/3x3
I0714 23:26:52.900050 32428 net.cpp:141] Setting up inception_5a/relu_3x3_reduce
I0714 23:26:52.900063 32428 net.cpp:148] Top shape: 10 160 7 7 (78400)
I0714 23:26:52.900066 32428 net.cpp:156] Memory required for data: 530611200
I0714 23:26:52.900071 32428 layer_factory.hpp:77] Creating layer inception_5a/3x3
I0714 23:26:52.900085 32428 net.cpp:91] Creating Layer inception_5a/3x3
I0714 23:26:52.900091 32428 net.cpp:425] inception_5a/3x3 <- inception_5a/3x3_reduce
I0714 23:26:52.900104 32428 net.cpp:399] inception_5a/3x3 -> inception_5a/3x3
I0714 23:26:52.910588 32432 net.cpp:141] Setting up inception_5a/3x3
I0714 23:26:52.910610 32432 net.cpp:148] Top shape: 10 320 7 7 (156800)
I0714 23:26:52.910615 32432 net.cpp:156] Memory required for data: 531238400
I0714 23:26:52.910626 32432 layer_factory.hpp:77] Creating layer inception_5a/relu_3x3
I0714 23:26:52.910642 32432 net.cpp:91] Creating Layer inception_5a/relu_3x3
I0714 23:26:52.910650 32432 net.cpp:425] inception_5a/relu_3x3 <- inception_5a/3x3
I0714 23:26:52.910657 32432 net.cpp:386] inception_5a/relu_3x3 -> inception_5a/3x3 (in-place)
I0714 23:26:52.911525 32428 net.cpp:141] Setting up inception_5a/3x3
I0714 23:26:52.911542 32428 net.cpp:148] Top shape: 10 320 7 7 (156800)
I0714 23:26:52.911547 32428 net.cpp:156] Memory required for data: 531238400
I0714 23:26:52.911559 32428 layer_factory.hpp:77] Creating layer inception_5a/relu_3x3
I0714 23:26:52.911568 32428 net.cpp:91] Creating Layer inception_5a/relu_3x3
I0714 23:26:52.911574 32428 net.cpp:425] inception_5a/relu_3x3 <- inception_5a/3x3
I0714 23:26:52.911581 32428 net.cpp:386] inception_5a/relu_3x3 -> inception_5a/3x3 (in-place)
I0714 23:26:52.912328 32432 net.cpp:141] Setting up inception_5a/relu_3x3
I0714 23:26:52.912341 32432 net.cpp:148] Top shape: 10 320 7 7 (156800)
I0714 23:26:52.912346 32432 net.cpp:156] Memory required for data: 531865600
I0714 23:26:52.912351 32432 layer_factory.hpp:77] Creating layer inception_5a/5x5_reduce
I0714 23:26:52.912369 32432 net.cpp:91] Creating Layer inception_5a/5x5_reduce
I0714 23:26:52.912374 32432 net.cpp:425] inception_5a/5x5_reduce <- pool4/3x3_s2_pool4/3x3_s2_0_split_2
I0714 23:26:52.912386 32432 net.cpp:399] inception_5a/5x5_reduce -> inception_5a/5x5_reduce
I0714 23:26:52.912778 32428 net.cpp:141] Setting up inception_5a/relu_3x3
I0714 23:26:52.912797 32428 net.cpp:148] Top shape: 10 320 7 7 (156800)
I0714 23:26:52.912802 32428 net.cpp:156] Memory required for data: 531865600
I0714 23:26:52.912807 32428 layer_factory.hpp:77] Creating layer inception_5a/5x5_reduce
I0714 23:26:52.912837 32428 net.cpp:91] Creating Layer inception_5a/5x5_reduce
I0714 23:26:52.912847 32428 net.cpp:425] inception_5a/5x5_reduce <- pool4/3x3_s2_pool4/3x3_s2_0_split_2
I0714 23:26:52.912858 32428 net.cpp:399] inception_5a/5x5_reduce -> inception_5a/5x5_reduce
I0714 23:26:52.916841 32432 net.cpp:141] Setting up inception_5a/5x5_reduce
I0714 23:26:52.916860 32432 net.cpp:148] Top shape: 10 32 7 7 (15680)
I0714 23:26:52.916865 32432 net.cpp:156] Memory required for data: 531928320
I0714 23:26:52.916874 32432 layer_factory.hpp:77] Creating layer inception_5a/relu_5x5_reduce
I0714 23:26:52.916883 32432 net.cpp:91] Creating Layer inception_5a/relu_5x5_reduce
I0714 23:26:52.916889 32432 net.cpp:425] inception_5a/relu_5x5_reduce <- inception_5a/5x5_reduce
I0714 23:26:52.916903 32432 net.cpp:386] inception_5a/relu_5x5_reduce -> inception_5a/5x5_reduce (in-place)
I0714 23:26:52.918064 32432 net.cpp:141] Setting up inception_5a/relu_5x5_reduce
I0714 23:26:52.918078 32432 net.cpp:148] Top shape: 10 32 7 7 (15680)
I0714 23:26:52.918083 32432 net.cpp:156] Memory required for data: 531991040
I0714 23:26:52.918088 32432 layer_factory.hpp:77] Creating layer inception_5a/5x5
I0714 23:26:52.918109 32432 net.cpp:91] Creating Layer inception_5a/5x5
I0714 23:26:52.918117 32432 net.cpp:425] inception_5a/5x5 <- inception_5a/5x5_reduce
I0714 23:26:52.918125 32432 net.cpp:399] inception_5a/5x5 -> inception_5a/5x5
I0714 23:26:52.918550 32428 net.cpp:141] Setting up inception_5a/5x5_reduce
I0714 23:26:52.918567 32428 net.cpp:148] Top shape: 10 32 7 7 (15680)
I0714 23:26:52.918572 32428 net.cpp:156] Memory required for data: 531928320
I0714 23:26:52.918581 32428 layer_factory.hpp:77] Creating layer inception_5a/relu_5x5_reduce
I0714 23:26:52.918593 32428 net.cpp:91] Creating Layer inception_5a/relu_5x5_reduce
I0714 23:26:52.918599 32428 net.cpp:425] inception_5a/relu_5x5_reduce <- inception_5a/5x5_reduce
I0714 23:26:52.918606 32428 net.cpp:386] inception_5a/relu_5x5_reduce -> inception_5a/5x5_reduce (in-place)
I0714 23:26:52.919033 32428 net.cpp:141] Setting up inception_5a/relu_5x5_reduce
I0714 23:26:52.919046 32428 net.cpp:148] Top shape: 10 32 7 7 (15680)
I0714 23:26:52.919051 32428 net.cpp:156] Memory required for data: 531991040
I0714 23:26:52.919056 32428 layer_factory.hpp:77] Creating layer inception_5a/5x5
I0714 23:26:52.919072 32428 net.cpp:91] Creating Layer inception_5a/5x5
I0714 23:26:52.919078 32428 net.cpp:425] inception_5a/5x5 <- inception_5a/5x5_reduce
I0714 23:26:52.919088 32428 net.cpp:399] inception_5a/5x5 -> inception_5a/5x5
I0714 23:26:52.924159 32432 net.cpp:141] Setting up inception_5a/5x5
I0714 23:26:52.924175 32432 net.cpp:148] Top shape: 10 128 7 7 (62720)
I0714 23:26:52.924180 32432 net.cpp:156] Memory required for data: 532241920
I0714 23:26:52.924190 32432 layer_factory.hpp:77] Creating layer inception_5a/relu_5x5
I0714 23:26:52.924221 32432 net.cpp:91] Creating Layer inception_5a/relu_5x5
I0714 23:26:52.924227 32432 net.cpp:425] inception_5a/relu_5x5 <- inception_5a/5x5
I0714 23:26:52.924234 32432 net.cpp:386] inception_5a/relu_5x5 -> inception_5a/5x5 (in-place)
I0714 23:26:52.925078 32428 net.cpp:141] Setting up inception_5a/5x5
I0714 23:26:52.925097 32428 net.cpp:148] Top shape: 10 128 7 7 (62720)
I0714 23:26:52.925103 32428 net.cpp:156] Memory required for data: 532241920
I0714 23:26:52.925112 32428 layer_factory.hpp:77] Creating layer inception_5a/relu_5x5
I0714 23:26:52.925143 32428 net.cpp:91] Creating Layer inception_5a/relu_5x5
I0714 23:26:52.925149 32428 net.cpp:425] inception_5a/relu_5x5 <- inception_5a/5x5
I0714 23:26:52.925158 32428 net.cpp:386] inception_5a/relu_5x5 -> inception_5a/5x5 (in-place)
I0714 23:26:52.925194 32432 net.cpp:141] Setting up inception_5a/relu_5x5
I0714 23:26:52.925207 32432 net.cpp:148] Top shape: 10 128 7 7 (62720)
I0714 23:26:52.925211 32432 net.cpp:156] Memory required for data: 532492800
I0714 23:26:52.925217 32432 layer_factory.hpp:77] Creating layer inception_5a/pool
I0714 23:26:52.925230 32432 net.cpp:91] Creating Layer inception_5a/pool
I0714 23:26:52.925236 32432 net.cpp:425] inception_5a/pool <- pool4/3x3_s2_pool4/3x3_s2_0_split_3
I0714 23:26:52.925245 32432 net.cpp:399] inception_5a/pool -> inception_5a/pool
I0714 23:26:52.925449 32432 net.cpp:141] Setting up inception_5a/pool
I0714 23:26:52.925464 32432 net.cpp:148] Top shape: 10 832 7 7 (407680)
I0714 23:26:52.925472 32432 net.cpp:156] Memory required for data: 534123520
I0714 23:26:52.925480 32432 layer_factory.hpp:77] Creating layer inception_5a/pool_proj
I0714 23:26:52.925495 32432 net.cpp:91] Creating Layer inception_5a/pool_proj
I0714 23:26:52.925501 32432 net.cpp:425] inception_5a/pool_proj <- inception_5a/pool
I0714 23:26:52.925509 32432 net.cpp:399] inception_5a/pool_proj -> inception_5a/pool_proj
I0714 23:26:52.925915 32428 net.cpp:141] Setting up inception_5a/relu_5x5
I0714 23:26:52.925928 32428 net.cpp:148] Top shape: 10 128 7 7 (62720)
I0714 23:26:52.925932 32428 net.cpp:156] Memory required for data: 532492800
I0714 23:26:52.925938 32428 layer_factory.hpp:77] Creating layer inception_5a/pool
I0714 23:26:52.925946 32428 net.cpp:91] Creating Layer inception_5a/pool
I0714 23:26:52.925952 32428 net.cpp:425] inception_5a/pool <- pool4/3x3_s2_pool4/3x3_s2_0_split_3
I0714 23:26:52.925966 32428 net.cpp:399] inception_5a/pool -> inception_5a/pool
I0714 23:26:52.926064 32428 net.cpp:141] Setting up inception_5a/pool
I0714 23:26:52.926074 32428 net.cpp:148] Top shape: 10 832 7 7 (407680)
I0714 23:26:52.926079 32428 net.cpp:156] Memory required for data: 534123520
I0714 23:26:52.926082 32428 layer_factory.hpp:77] Creating layer inception_5a/pool_proj
I0714 23:26:52.926100 32428 net.cpp:91] Creating Layer inception_5a/pool_proj
I0714 23:26:52.926105 32428 net.cpp:425] inception_5a/pool_proj <- inception_5a/pool
I0714 23:26:52.926115 32428 net.cpp:399] inception_5a/pool_proj -> inception_5a/pool_proj
I0714 23:26:52.932183 32432 net.cpp:141] Setting up inception_5a/pool_proj
I0714 23:26:52.932204 32432 net.cpp:148] Top shape: 10 128 7 7 (62720)
I0714 23:26:52.932209 32432 net.cpp:156] Memory required for data: 534374400
I0714 23:26:52.932219 32432 layer_factory.hpp:77] Creating layer inception_5a/relu_pool_proj
I0714 23:26:52.932227 32432 net.cpp:91] Creating Layer inception_5a/relu_pool_proj
I0714 23:26:52.932234 32432 net.cpp:425] inception_5a/relu_pool_proj <- inception_5a/pool_proj
I0714 23:26:52.932240 32432 net.cpp:386] inception_5a/relu_pool_proj -> inception_5a/pool_proj (in-place)
I0714 23:26:52.932610 32428 net.cpp:141] Setting up inception_5a/pool_proj
I0714 23:26:52.932626 32428 net.cpp:148] Top shape: 10 128 7 7 (62720)
I0714 23:26:52.932631 32428 net.cpp:156] Memory required for data: 534374400
I0714 23:26:52.932641 32428 layer_factory.hpp:77] Creating layer inception_5a/relu_pool_proj
I0714 23:26:52.932649 32428 net.cpp:91] Creating Layer inception_5a/relu_pool_proj
I0714 23:26:52.932654 32428 net.cpp:425] inception_5a/relu_pool_proj <- inception_5a/pool_proj
I0714 23:26:52.932667 32428 net.cpp:386] inception_5a/relu_pool_proj -> inception_5a/pool_proj (in-place)
I0714 23:26:52.932690 32432 net.cpp:141] Setting up inception_5a/relu_pool_proj
I0714 23:26:52.932703 32432 net.cpp:148] Top shape: 10 128 7 7 (62720)
I0714 23:26:52.932708 32432 net.cpp:156] Memory required for data: 534625280
I0714 23:26:52.932713 32432 layer_factory.hpp:77] Creating layer inception_5a/output
I0714 23:26:52.932720 32432 net.cpp:91] Creating Layer inception_5a/output
I0714 23:26:52.932725 32432 net.cpp:425] inception_5a/output <- inception_5a/1x1
I0714 23:26:52.932731 32432 net.cpp:425] inception_5a/output <- inception_5a/3x3
I0714 23:26:52.932737 32432 net.cpp:425] inception_5a/output <- inception_5a/5x5
I0714 23:26:52.932742 32432 net.cpp:425] inception_5a/output <- inception_5a/pool_proj
I0714 23:26:52.932752 32432 net.cpp:399] inception_5a/output -> inception_5a/output
I0714 23:26:52.933393 32432 net.cpp:141] Setting up inception_5a/output
I0714 23:26:52.933405 32432 net.cpp:148] Top shape: 10 832 7 7 (407680)
I0714 23:26:52.933410 32432 net.cpp:156] Memory required for data: 536256000
I0714 23:26:52.933414 32432 layer_factory.hpp:77] Creating layer inception_5a/output_inception_5a/output_0_split
I0714 23:26:52.933428 32432 net.cpp:91] Creating Layer inception_5a/output_inception_5a/output_0_split
I0714 23:26:52.933434 32432 net.cpp:425] inception_5a/output_inception_5a/output_0_split <- inception_5a/output
I0714 23:26:52.933440 32432 net.cpp:399] inception_5a/output_inception_5a/output_0_split -> inception_5a/output_inception_5a/output_0_split_0
I0714 23:26:52.933451 32432 net.cpp:399] inception_5a/output_inception_5a/output_0_split -> inception_5a/output_inception_5a/output_0_split_1
I0714 23:26:52.933459 32432 net.cpp:399] inception_5a/output_inception_5a/output_0_split -> inception_5a/output_inception_5a/output_0_split_2
I0714 23:26:52.933467 32432 net.cpp:399] inception_5a/output_inception_5a/output_0_split -> inception_5a/output_inception_5a/output_0_split_3
I0714 23:26:52.933681 32432 net.cpp:141] Setting up inception_5a/output_inception_5a/output_0_split
I0714 23:26:52.933691 32432 net.cpp:148] Top shape: 10 832 7 7 (407680)
I0714 23:26:52.933693 32428 net.cpp:141] Setting up inception_5a/relu_pool_proj
I0714 23:26:52.933697 32432 net.cpp:148] Top shape: 10 832 7 7 (407680)
I0714 23:26:52.933709 32428 net.cpp:148] Top shape: 10 128 7 7 (62720)
I0714 23:26:52.933712 32432 net.cpp:148] Top shape: 10 832 7 7 (407680)
I0714 23:26:52.933714 32428 net.cpp:156] Memory required for data: 534625280
I0714 23:26:52.933717 32432 net.cpp:148] Top shape: 10 832 7 7 (407680)
I0714 23:26:52.933719 32428 layer_factory.hpp:77] Creating layer inception_5a/output
I0714 23:26:52.933722 32432 net.cpp:156] Memory required for data: 542778880
I0714 23:26:52.933727 32432 layer_factory.hpp:77] Creating layer inception_5b/1x1
I0714 23:26:52.933727 32428 net.cpp:91] Creating Layer inception_5a/output
I0714 23:26:52.933733 32428 net.cpp:425] inception_5a/output <- inception_5a/1x1
I0714 23:26:52.933740 32428 net.cpp:425] inception_5a/output <- inception_5a/3x3
I0714 23:26:52.933740 32432 net.cpp:91] Creating Layer inception_5b/1x1
I0714 23:26:52.933745 32428 net.cpp:425] inception_5a/output <- inception_5a/5x5
I0714 23:26:52.933746 32432 net.cpp:425] inception_5b/1x1 <- inception_5a/output_inception_5a/output_0_split_0
I0714 23:26:52.933751 32428 net.cpp:425] inception_5a/output <- inception_5a/pool_proj
I0714 23:26:52.933763 32432 net.cpp:399] inception_5b/1x1 -> inception_5b/1x1
I0714 23:26:52.933768 32428 net.cpp:399] inception_5a/output -> inception_5a/output
I0714 23:26:52.933917 32428 net.cpp:141] Setting up inception_5a/output
I0714 23:26:52.933931 32428 net.cpp:148] Top shape: 10 832 7 7 (407680)
I0714 23:26:52.933936 32428 net.cpp:156] Memory required for data: 536256000
I0714 23:26:52.933941 32428 layer_factory.hpp:77] Creating layer inception_5a/output_inception_5a/output_0_split
I0714 23:26:52.933948 32428 net.cpp:91] Creating Layer inception_5a/output_inception_5a/output_0_split
I0714 23:26:52.933954 32428 net.cpp:425] inception_5a/output_inception_5a/output_0_split <- inception_5a/output
I0714 23:26:52.933960 32428 net.cpp:399] inception_5a/output_inception_5a/output_0_split -> inception_5a/output_inception_5a/output_0_split_0
I0714 23:26:52.933969 32428 net.cpp:399] inception_5a/output_inception_5a/output_0_split -> inception_5a/output_inception_5a/output_0_split_1
I0714 23:26:52.933977 32428 net.cpp:399] inception_5a/output_inception_5a/output_0_split -> inception_5a/output_inception_5a/output_0_split_2
I0714 23:26:52.933990 32428 net.cpp:399] inception_5a/output_inception_5a/output_0_split -> inception_5a/output_inception_5a/output_0_split_3
I0714 23:26:52.935470 32428 net.cpp:141] Setting up inception_5a/output_inception_5a/output_0_split
I0714 23:26:52.935484 32428 net.cpp:148] Top shape: 10 832 7 7 (407680)
I0714 23:26:52.935490 32428 net.cpp:148] Top shape: 10 832 7 7 (407680)
I0714 23:26:52.935495 32428 net.cpp:148] Top shape: 10 832 7 7 (407680)
I0714 23:26:52.935500 32428 net.cpp:148] Top shape: 10 832 7 7 (407680)
I0714 23:26:52.935504 32428 net.cpp:156] Memory required for data: 542778880
I0714 23:26:52.935509 32428 layer_factory.hpp:77] Creating layer inception_5b/1x1
I0714 23:26:52.935524 32428 net.cpp:91] Creating Layer inception_5b/1x1
I0714 23:26:52.935530 32428 net.cpp:425] inception_5b/1x1 <- inception_5a/output_inception_5a/output_0_split_0
I0714 23:26:52.935544 32428 net.cpp:399] inception_5b/1x1 -> inception_5b/1x1
I0714 23:26:52.941745 32432 net.cpp:141] Setting up inception_5b/1x1
I0714 23:26:52.941763 32432 net.cpp:148] Top shape: 10 384 7 7 (188160)
I0714 23:26:52.941769 32432 net.cpp:156] Memory required for data: 543531520
I0714 23:26:52.941778 32432 layer_factory.hpp:77] Creating layer inception_5b/relu_1x1
I0714 23:26:52.941787 32432 net.cpp:91] Creating Layer inception_5b/relu_1x1
I0714 23:26:52.941793 32432 net.cpp:425] inception_5b/relu_1x1 <- inception_5b/1x1
I0714 23:26:52.941802 32432 net.cpp:386] inception_5b/relu_1x1 -> inception_5b/1x1 (in-place)
I0714 23:26:52.942931 32432 net.cpp:141] Setting up inception_5b/relu_1x1
I0714 23:26:52.942945 32432 net.cpp:148] Top shape: 10 384 7 7 (188160)
I0714 23:26:52.942950 32432 net.cpp:156] Memory required for data: 544284160
I0714 23:26:52.942955 32432 layer_factory.hpp:77] Creating layer inception_5b/3x3_reduce
I0714 23:26:52.942970 32432 net.cpp:91] Creating Layer inception_5b/3x3_reduce
I0714 23:26:52.942978 32432 net.cpp:425] inception_5b/3x3_reduce <- inception_5a/output_inception_5a/output_0_split_1
I0714 23:26:52.942987 32432 net.cpp:399] inception_5b/3x3_reduce -> inception_5b/3x3_reduce
I0714 23:26:52.943461 32428 net.cpp:141] Setting up inception_5b/1x1
I0714 23:26:52.943477 32428 net.cpp:148] Top shape: 10 384 7 7 (188160)
I0714 23:26:52.943482 32428 net.cpp:156] Memory required for data: 543531520
I0714 23:26:52.943492 32428 layer_factory.hpp:77] Creating layer inception_5b/relu_1x1
I0714 23:26:52.943503 32428 net.cpp:91] Creating Layer inception_5b/relu_1x1
I0714 23:26:52.943509 32428 net.cpp:425] inception_5b/relu_1x1 <- inception_5b/1x1
I0714 23:26:52.943516 32428 net.cpp:386] inception_5b/relu_1x1 -> inception_5b/1x1 (in-place)
I0714 23:26:52.944968 32428 net.cpp:141] Setting up inception_5b/relu_1x1
I0714 23:26:52.944983 32428 net.cpp:148] Top shape: 10 384 7 7 (188160)
I0714 23:26:52.944988 32428 net.cpp:156] Memory required for data: 544284160
I0714 23:26:52.944993 32428 layer_factory.hpp:77] Creating layer inception_5b/3x3_reduce
I0714 23:26:52.945008 32428 net.cpp:91] Creating Layer inception_5b/3x3_reduce
I0714 23:26:52.945013 32428 net.cpp:425] inception_5b/3x3_reduce <- inception_5a/output_inception_5a/output_0_split_1
I0714 23:26:52.945024 32428 net.cpp:399] inception_5b/3x3_reduce -> inception_5b/3x3_reduce
I0714 23:26:52.950626 32432 net.cpp:141] Setting up inception_5b/3x3_reduce
I0714 23:26:52.950644 32432 net.cpp:148] Top shape: 10 192 7 7 (94080)
I0714 23:26:52.950649 32432 net.cpp:156] Memory required for data: 544660480
I0714 23:26:52.950659 32432 layer_factory.hpp:77] Creating layer inception_5b/relu_3x3_reduce
I0714 23:26:52.950666 32432 net.cpp:91] Creating Layer inception_5b/relu_3x3_reduce
I0714 23:26:52.950672 32432 net.cpp:425] inception_5b/relu_3x3_reduce <- inception_5b/3x3_reduce
I0714 23:26:52.950681 32432 net.cpp:386] inception_5b/relu_3x3_reduce -> inception_5b/3x3_reduce (in-place)
I0714 23:26:52.951889 32428 net.cpp:141] Setting up inception_5b/3x3_reduce
I0714 23:26:52.951894 32432 net.cpp:141] Setting up inception_5b/relu_3x3_reduce
I0714 23:26:52.951906 32428 net.cpp:148] Top shape: 10 192 7 7 (94080)
I0714 23:26:52.951911 32432 net.cpp:148] Top shape: 10 192 7 7 (94080)
I0714 23:26:52.951912 32428 net.cpp:156] Memory required for data: 544660480
I0714 23:26:52.951916 32432 net.cpp:156] Memory required for data: 545036800
I0714 23:26:52.951921 32432 layer_factory.hpp:77] Creating layer inception_5b/3x3
I0714 23:26:52.951922 32428 layer_factory.hpp:77] Creating layer inception_5b/relu_3x3_reduce
I0714 23:26:52.951936 32428 net.cpp:91] Creating Layer inception_5b/relu_3x3_reduce
I0714 23:26:52.951937 32432 net.cpp:91] Creating Layer inception_5b/3x3
I0714 23:26:52.951941 32428 net.cpp:425] inception_5b/relu_3x3_reduce <- inception_5b/3x3_reduce
I0714 23:26:52.951943 32432 net.cpp:425] inception_5b/3x3 <- inception_5b/3x3_reduce
I0714 23:26:52.951948 32428 net.cpp:386] inception_5b/relu_3x3_reduce -> inception_5b/3x3_reduce (in-place)
I0714 23:26:52.951956 32432 net.cpp:399] inception_5b/3x3 -> inception_5b/3x3
I0714 23:26:52.954331 32428 net.cpp:141] Setting up inception_5b/relu_3x3_reduce
I0714 23:26:52.954346 32428 net.cpp:148] Top shape: 10 192 7 7 (94080)
I0714 23:26:52.954350 32428 net.cpp:156] Memory required for data: 545036800
I0714 23:26:52.954356 32428 layer_factory.hpp:77] Creating layer inception_5b/3x3
I0714 23:26:52.954371 32428 net.cpp:91] Creating Layer inception_5b/3x3
I0714 23:26:52.954377 32428 net.cpp:425] inception_5b/3x3 <- inception_5b/3x3_reduce
I0714 23:26:52.954388 32428 net.cpp:399] inception_5b/3x3 -> inception_5b/3x3
I0714 23:26:52.961422 32432 net.cpp:141] Setting up inception_5b/3x3
I0714 23:26:52.961442 32432 net.cpp:148] Top shape: 10 384 7 7 (188160)
I0714 23:26:52.961447 32432 net.cpp:156] Memory required for data: 545789440
I0714 23:26:52.961457 32432 layer_factory.hpp:77] Creating layer inception_5b/relu_3x3
I0714 23:26:52.961477 32432 net.cpp:91] Creating Layer inception_5b/relu_3x3
I0714 23:26:52.961483 32432 net.cpp:425] inception_5b/relu_3x3 <- inception_5b/3x3
I0714 23:26:52.961491 32432 net.cpp:386] inception_5b/relu_3x3 -> inception_5b/3x3 (in-place)
I0714 23:26:52.962668 32432 net.cpp:141] Setting up inception_5b/relu_3x3
I0714 23:26:52.962682 32432 net.cpp:148] Top shape: 10 384 7 7 (188160)
I0714 23:26:52.962694 32432 net.cpp:156] Memory required for data: 546542080
I0714 23:26:52.962699 32432 layer_factory.hpp:77] Creating layer inception_5b/5x5_reduce
I0714 23:26:52.962718 32432 net.cpp:91] Creating Layer inception_5b/5x5_reduce
I0714 23:26:52.962723 32432 net.cpp:425] inception_5b/5x5_reduce <- inception_5a/output_inception_5a/output_0_split_2
I0714 23:26:52.962734 32432 net.cpp:399] inception_5b/5x5_reduce -> inception_5b/5x5_reduce
I0714 23:26:52.965366 32428 net.cpp:141] Setting up inception_5b/3x3
I0714 23:26:52.965382 32428 net.cpp:148] Top shape: 10 384 7 7 (188160)
I0714 23:26:52.965387 32428 net.cpp:156] Memory required for data: 545789440
I0714 23:26:52.965396 32428 layer_factory.hpp:77] Creating layer inception_5b/relu_3x3
I0714 23:26:52.965405 32428 net.cpp:91] Creating Layer inception_5b/relu_3x3
I0714 23:26:52.965411 32428 net.cpp:425] inception_5b/relu_3x3 <- inception_5b/3x3
I0714 23:26:52.965421 32428 net.cpp:386] inception_5b/relu_3x3 -> inception_5b/3x3 (in-place)
I0714 23:26:52.966553 32428 net.cpp:141] Setting up inception_5b/relu_3x3
I0714 23:26:52.966567 32428 net.cpp:148] Top shape: 10 384 7 7 (188160)
I0714 23:26:52.966572 32428 net.cpp:156] Memory required for data: 546542080
I0714 23:26:52.966576 32428 layer_factory.hpp:77] Creating layer inception_5b/5x5_reduce
I0714 23:26:52.966593 32428 net.cpp:91] Creating Layer inception_5b/5x5_reduce
I0714 23:26:52.966600 32428 net.cpp:425] inception_5b/5x5_reduce <- inception_5a/output_inception_5a/output_0_split_2
I0714 23:26:52.966609 32428 net.cpp:399] inception_5b/5x5_reduce -> inception_5b/5x5_reduce
I0714 23:26:52.969321 32432 net.cpp:141] Setting up inception_5b/5x5_reduce
I0714 23:26:52.969337 32432 net.cpp:148] Top shape: 10 48 7 7 (23520)
I0714 23:26:52.969343 32432 net.cpp:156] Memory required for data: 546636160
I0714 23:26:52.969352 32432 layer_factory.hpp:77] Creating layer inception_5b/relu_5x5_reduce
I0714 23:26:52.969364 32432 net.cpp:91] Creating Layer inception_5b/relu_5x5_reduce
I0714 23:26:52.969370 32432 net.cpp:425] inception_5b/relu_5x5_reduce <- inception_5b/5x5_reduce
I0714 23:26:52.969377 32432 net.cpp:386] inception_5b/relu_5x5_reduce -> inception_5b/5x5_reduce (in-place)
I0714 23:26:52.970549 32432 net.cpp:141] Setting up inception_5b/relu_5x5_reduce
I0714 23:26:52.970564 32432 net.cpp:148] Top shape: 10 48 7 7 (23520)
I0714 23:26:52.970568 32432 net.cpp:156] Memory required for data: 546730240
I0714 23:26:52.970573 32432 layer_factory.hpp:77] Creating layer inception_5b/5x5
I0714 23:26:52.970592 32432 net.cpp:91] Creating Layer inception_5b/5x5
I0714 23:26:52.970597 32432 net.cpp:425] inception_5b/5x5 <- inception_5b/5x5_reduce
I0714 23:26:52.970607 32432 net.cpp:399] inception_5b/5x5 -> inception_5b/5x5
I0714 23:26:52.971814 32428 net.cpp:141] Setting up inception_5b/5x5_reduce
I0714 23:26:52.971832 32428 net.cpp:148] Top shape: 10 48 7 7 (23520)
I0714 23:26:52.971837 32428 net.cpp:156] Memory required for data: 546636160
I0714 23:26:52.971845 32428 layer_factory.hpp:77] Creating layer inception_5b/relu_5x5_reduce
I0714 23:26:52.971856 32428 net.cpp:91] Creating Layer inception_5b/relu_5x5_reduce
I0714 23:26:52.971863 32428 net.cpp:425] inception_5b/relu_5x5_reduce <- inception_5b/5x5_reduce
I0714 23:26:52.971869 32428 net.cpp:386] inception_5b/relu_5x5_reduce -> inception_5b/5x5_reduce (in-place)
I0714 23:26:52.972142 32428 net.cpp:141] Setting up inception_5b/relu_5x5_reduce
I0714 23:26:52.972153 32428 net.cpp:148] Top shape: 10 48 7 7 (23520)
I0714 23:26:52.972158 32428 net.cpp:156] Memory required for data: 546730240
I0714 23:26:52.972163 32428 layer_factory.hpp:77] Creating layer inception_5b/5x5
I0714 23:26:52.972182 32428 net.cpp:91] Creating Layer inception_5b/5x5
I0714 23:26:52.972187 32428 net.cpp:425] inception_5b/5x5 <- inception_5b/5x5_reduce
I0714 23:26:52.972198 32428 net.cpp:399] inception_5b/5x5 -> inception_5b/5x5
I0714 23:26:52.978082 32432 net.cpp:141] Setting up inception_5b/5x5
I0714 23:26:52.978098 32432 net.cpp:148] Top shape: 10 128 7 7 (62720)
I0714 23:26:52.978103 32432 net.cpp:156] Memory required for data: 546981120
I0714 23:26:52.978112 32432 layer_factory.hpp:77] Creating layer inception_5b/relu_5x5
I0714 23:26:52.978127 32432 net.cpp:91] Creating Layer inception_5b/relu_5x5
I0714 23:26:52.978132 32432 net.cpp:425] inception_5b/relu_5x5 <- inception_5b/5x5
I0714 23:26:52.978139 32432 net.cpp:386] inception_5b/relu_5x5 -> inception_5b/5x5 (in-place)
I0714 23:26:52.978896 32428 net.cpp:141] Setting up inception_5b/5x5
I0714 23:26:52.978914 32428 net.cpp:148] Top shape: 10 128 7 7 (62720)
I0714 23:26:52.978919 32428 net.cpp:156] Memory required for data: 546981120
I0714 23:26:52.978927 32428 layer_factory.hpp:77] Creating layer inception_5b/relu_5x5
I0714 23:26:52.978938 32428 net.cpp:91] Creating Layer inception_5b/relu_5x5
I0714 23:26:52.978945 32428 net.cpp:425] inception_5b/relu_5x5 <- inception_5b/5x5
I0714 23:26:52.978953 32428 net.cpp:386] inception_5b/relu_5x5 -> inception_5b/5x5 (in-place)
I0714 23:26:52.979192 32432 net.cpp:141] Setting up inception_5b/relu_5x5
I0714 23:26:52.979204 32432 net.cpp:148] Top shape: 10 128 7 7 (62720)
I0714 23:26:52.979208 32432 net.cpp:156] Memory required for data: 547232000
I0714 23:26:52.979213 32432 layer_factory.hpp:77] Creating layer inception_5b/pool
I0714 23:26:52.979226 32432 net.cpp:91] Creating Layer inception_5b/pool
I0714 23:26:52.979233 32432 net.cpp:425] inception_5b/pool <- inception_5a/output_inception_5a/output_0_split_3
I0714 23:26:52.979239 32432 net.cpp:399] inception_5b/pool -> inception_5b/pool
I0714 23:26:52.979338 32432 net.cpp:141] Setting up inception_5b/pool
I0714 23:26:52.979348 32432 net.cpp:148] Top shape: 10 832 7 7 (407680)
I0714 23:26:52.979353 32432 net.cpp:156] Memory required for data: 548862720
I0714 23:26:52.979357 32432 layer_factory.hpp:77] Creating layer inception_5b/pool_proj
I0714 23:26:52.979364 32428 net.cpp:141] Setting up inception_5b/relu_5x5
I0714 23:26:52.979372 32432 net.cpp:91] Creating Layer inception_5b/pool_proj
I0714 23:26:52.979377 32428 net.cpp:148] Top shape: 10 128 7 7 (62720)
I0714 23:26:52.979378 32432 net.cpp:425] inception_5b/pool_proj <- inception_5b/pool
I0714 23:26:52.979382 32428 net.cpp:156] Memory required for data: 547232000
I0714 23:26:52.979387 32428 layer_factory.hpp:77] Creating layer inception_5b/pool
I0714 23:26:52.979389 32432 net.cpp:399] inception_5b/pool_proj -> inception_5b/pool_proj
I0714 23:26:52.979398 32428 net.cpp:91] Creating Layer inception_5b/pool
I0714 23:26:52.979403 32428 net.cpp:425] inception_5b/pool <- inception_5a/output_inception_5a/output_0_split_3
I0714 23:26:52.979411 32428 net.cpp:399] inception_5b/pool -> inception_5b/pool
I0714 23:26:52.979576 32428 net.cpp:141] Setting up inception_5b/pool
I0714 23:26:52.979586 32428 net.cpp:148] Top shape: 10 832 7 7 (407680)
I0714 23:26:52.979591 32428 net.cpp:156] Memory required for data: 548862720
I0714 23:26:52.979596 32428 layer_factory.hpp:77] Creating layer inception_5b/pool_proj
I0714 23:26:52.979610 32428 net.cpp:91] Creating Layer inception_5b/pool_proj
I0714 23:26:52.979615 32428 net.cpp:425] inception_5b/pool_proj <- inception_5b/pool
I0714 23:26:52.979626 32428 net.cpp:399] inception_5b/pool_proj -> inception_5b/pool_proj
I0714 23:26:52.985002 32432 net.cpp:141] Setting up inception_5b/pool_proj
I0714 23:26:52.985018 32432 net.cpp:148] Top shape: 10 128 7 7 (62720)
I0714 23:26:52.985024 32432 net.cpp:156] Memory required for data: 549113600
I0714 23:26:52.985033 32432 layer_factory.hpp:77] Creating layer inception_5b/relu_pool_proj
I0714 23:26:52.985041 32432 net.cpp:91] Creating Layer inception_5b/relu_pool_proj
I0714 23:26:52.985047 32432 net.cpp:425] inception_5b/relu_pool_proj <- inception_5b/pool_proj
I0714 23:26:52.985064 32432 net.cpp:386] inception_5b/relu_pool_proj -> inception_5b/pool_proj (in-place)
I0714 23:26:52.985568 32428 net.cpp:141] Setting up inception_5b/pool_proj
I0714 23:26:52.985571 32432 net.cpp:141] Setting up inception_5b/relu_pool_proj
I0714 23:26:52.985584 32428 net.cpp:148] Top shape: 10 128 7 7 (62720)
I0714 23:26:52.985590 32428 net.cpp:156] Memory required for data: 549113600
I0714 23:26:52.985590 32432 net.cpp:148] Top shape: 10 128 7 7 (62720)
I0714 23:26:52.985596 32432 net.cpp:156] Memory required for data: 549364480
I0714 23:26:52.985599 32428 layer_factory.hpp:77] Creating layer inception_5b/relu_pool_proj
I0714 23:26:52.985601 32432 layer_factory.hpp:77] Creating layer inception_5b/output
I0714 23:26:52.985610 32432 net.cpp:91] Creating Layer inception_5b/output
I0714 23:26:52.985611 32428 net.cpp:91] Creating Layer inception_5b/relu_pool_proj
I0714 23:26:52.985615 32432 net.cpp:425] inception_5b/output <- inception_5b/1x1
I0714 23:26:52.985618 32428 net.cpp:425] inception_5b/relu_pool_proj <- inception_5b/pool_proj
I0714 23:26:52.985621 32432 net.cpp:425] inception_5b/output <- inception_5b/3x3
I0714 23:26:52.985625 32428 net.cpp:386] inception_5b/relu_pool_proj -> inception_5b/pool_proj (in-place)
I0714 23:26:52.985627 32432 net.cpp:425] inception_5b/output <- inception_5b/5x5
I0714 23:26:52.985632 32432 net.cpp:425] inception_5b/output <- inception_5b/pool_proj
I0714 23:26:52.985638 32432 net.cpp:399] inception_5b/output -> inception_5b/output
I0714 23:26:52.986263 32432 net.cpp:141] Setting up inception_5b/output
I0714 23:26:52.986274 32432 net.cpp:148] Top shape: 10 1024 7 7 (501760)
I0714 23:26:52.986279 32432 net.cpp:156] Memory required for data: 551371520
I0714 23:26:52.986284 32432 layer_factory.hpp:77] Creating layer pool5/7x7_s1
I0714 23:26:52.986295 32432 net.cpp:91] Creating Layer pool5/7x7_s1
I0714 23:26:52.986300 32432 net.cpp:425] pool5/7x7_s1 <- inception_5b/output
I0714 23:26:52.986307 32432 net.cpp:399] pool5/7x7_s1 -> pool5/7x7_s1
I0714 23:26:52.986760 32428 net.cpp:141] Setting up inception_5b/relu_pool_proj
I0714 23:26:52.986775 32428 net.cpp:148] Top shape: 10 128 7 7 (62720)
I0714 23:26:52.986780 32428 net.cpp:156] Memory required for data: 549364480
I0714 23:26:52.986785 32428 layer_factory.hpp:77] Creating layer inception_5b/output
I0714 23:26:52.986799 32428 net.cpp:91] Creating Layer inception_5b/output
I0714 23:26:52.986804 32428 net.cpp:425] inception_5b/output <- inception_5b/1x1
I0714 23:26:52.986810 32428 net.cpp:425] inception_5b/output <- inception_5b/3x3
I0714 23:26:52.986815 32428 net.cpp:425] inception_5b/output <- inception_5b/5x5
I0714 23:26:52.986821 32428 net.cpp:425] inception_5b/output <- inception_5b/pool_proj
I0714 23:26:52.986821 32432 net.cpp:141] Setting up pool5/7x7_s1
I0714 23:26:52.986827 32428 net.cpp:399] inception_5b/output -> inception_5b/output
I0714 23:26:52.986835 32432 net.cpp:148] Top shape: 10 1024 1 1 (10240)
I0714 23:26:52.986838 32432 net.cpp:156] Memory required for data: 551412480
I0714 23:26:52.986843 32432 layer_factory.hpp:77] Creating layer pool5/drop_7x7_s1
I0714 23:26:52.986856 32432 net.cpp:91] Creating Layer pool5/drop_7x7_s1
I0714 23:26:52.986862 32432 net.cpp:425] pool5/drop_7x7_s1 <- pool5/7x7_s1
I0714 23:26:52.986868 32432 net.cpp:386] pool5/drop_7x7_s1 -> pool5/7x7_s1 (in-place)
I0714 23:26:52.986871 32428 net.cpp:141] Setting up inception_5b/output
I0714 23:26:52.986881 32428 net.cpp:148] Top shape: 10 1024 7 7 (501760)
I0714 23:26:52.986884 32428 net.cpp:156] Memory required for data: 551371520
I0714 23:26:52.986889 32428 layer_factory.hpp:77] Creating layer pool5/7x7_s1
I0714 23:26:52.986901 32428 net.cpp:91] Creating Layer pool5/7x7_s1
I0714 23:26:52.986906 32428 net.cpp:425] pool5/7x7_s1 <- inception_5b/output
I0714 23:26:52.986912 32428 net.cpp:399] pool5/7x7_s1 -> pool5/7x7_s1
I0714 23:26:52.986914 32432 net.cpp:141] Setting up pool5/drop_7x7_s1
I0714 23:26:52.986923 32432 net.cpp:148] Top shape: 10 1024 1 1 (10240)
I0714 23:26:52.986927 32432 net.cpp:156] Memory required for data: 551453440
I0714 23:26:52.986932 32432 layer_factory.hpp:77] Creating layer loss3/classifier
I0714 23:26:52.986949 32432 net.cpp:91] Creating Layer loss3/classifier
I0714 23:26:52.986954 32432 net.cpp:425] loss3/classifier <- pool5/7x7_s1
I0714 23:26:52.986961 32432 net.cpp:399] loss3/classifier -> loss3/classifier
I0714 23:26:52.990087 32428 net.cpp:141] Setting up pool5/7x7_s1
I0714 23:26:52.990106 32428 net.cpp:148] Top shape: 10 1024 1 1 (10240)
I0714 23:26:52.990111 32428 net.cpp:156] Memory required for data: 551412480
I0714 23:26:52.990116 32428 layer_factory.hpp:77] Creating layer pool5/drop_7x7_s1
I0714 23:26:52.990125 32428 net.cpp:91] Creating Layer pool5/drop_7x7_s1
I0714 23:26:52.990130 32428 net.cpp:425] pool5/drop_7x7_s1 <- pool5/7x7_s1
I0714 23:26:52.990137 32428 net.cpp:386] pool5/drop_7x7_s1 -> pool5/7x7_s1 (in-place)
I0714 23:26:52.990175 32428 net.cpp:141] Setting up pool5/drop_7x7_s1
I0714 23:26:52.990183 32428 net.cpp:148] Top shape: 10 1024 1 1 (10240)
I0714 23:26:52.990187 32428 net.cpp:156] Memory required for data: 551453440
I0714 23:26:52.990191 32428 layer_factory.hpp:77] Creating layer loss3/classifier
I0714 23:26:52.990203 32428 net.cpp:91] Creating Layer loss3/classifier
I0714 23:26:52.990208 32428 net.cpp:425] loss3/classifier <- pool5/7x7_s1
I0714 23:26:52.990216 32428 net.cpp:399] loss3/classifier -> loss3/classifier
I0714 23:26:52.997622 32432 net.cpp:141] Setting up loss3/classifier
I0714 23:26:52.997645 32432 net.cpp:148] Top shape: 10 1000 (10000)
I0714 23:26:52.997650 32432 net.cpp:156] Memory required for data: 551493440
I0714 23:26:52.997659 32432 layer_factory.hpp:77] Creating layer prob
I0714 23:26:52.997670 32432 net.cpp:91] Creating Layer prob
I0714 23:26:52.997676 32432 net.cpp:425] prob <- loss3/classifier
I0714 23:26:52.997685 32432 net.cpp:399] prob -> prob
I0714 23:26:52.998113 32432 net.cpp:141] Setting up prob
I0714 23:26:52.998128 32432 net.cpp:148] Top shape: 10 1000 (10000)
I0714 23:26:52.998133 32432 net.cpp:156] Memory required for data: 551533440
I0714 23:26:52.998138 32432 net.cpp:219] prob does not need backward computation.
I0714 23:26:52.998142 32432 net.cpp:219] loss3/classifier does not need backward computation.
I0714 23:26:52.998147 32432 net.cpp:219] pool5/drop_7x7_s1 does not need backward computation.
I0714 23:26:52.998152 32432 net.cpp:219] pool5/7x7_s1 does not need backward computation.
…
