…
Java HotSpot(TM) 64-Bit Server VM warning: You have loaded library /tmp/cvld932332451911630781/libopencv_java310.xine1.so which might have disabled stack guard. The VM will try to fix the stack guard now.
It's highly recommended that you fix the library with 'execstack -c <libfile>', or link it with '-z noexecstack'.
WARNING: Logging before InitGoogleLogging() is written to STDERR
I0722 16:02:59.114720 19776 net.cpp:49] Initializing net from parameters: 
name: "CaffeNet"
state {
  phase: TEST
}
layer {
  name: "data"
  type: "Input"
  top: "data"
  input_param {
    shape {
      dim: 10
      dim: 3
      dim: 227
      dim: 227
    }
  }
}
layer {
  name: "conv1"
  type: "Convolution"
  bottom: "data"
  top: "conv1"
  convolution_param {
    num_output: 96
    kernel_size: 11
    stride: 4
  }
}
layer {
  name: "relu1"
  type: "ReLU"
  bottom: "conv1"
  top: "conv1"
}
layer {
  name: "pool1"
  type: "Pooling"
  bottom: "conv1"
  top: "pool1"
  pooling_param {
    pool: MAX
    kernel_size: 3
    stride: 2
  }
}
layer {
  name: "norm1"
  type: "LRN"
  bottom: "pool1"
  top: "norm1"
  lrn_param {
    local_size: 5
    alpha: 0.0001
    beta: 0.75
  }
}
layer {
  name: "conv2"
  type: "Convolution"
  bottom: "norm1"
  top: "conv2"
  convolution_param {
    num_output: 256
    pad: 2
    kernel_size: 5
    group: 2
  }
}
layer {
  name: "relu2"
  type: "ReLU"
  bottom: "conv2"
  top: "conv2"
}
layer {
  name: "pool2"
  type: "Pooling"
  bottom: "conv2"
  top: "pool2"
  pooling_param {
    pool: MAX
    kernel_size: 3
    stride: 2
  }
}
layer {
  name: "norm2"
  type: "LRN"
  bottom: "pool2"
  top: "norm2"
  lrn_param {
    local_size: 5
    alpha: 0.0001
    beta: 0.75
  }
}
layer {
  name: "conv3"
  type: "Convolution"
  bottom: "norm2"
  top: "conv3"
  convolution_param {
    num_output: 384
    pad: 1
    kernel_size: 3
  }
}
layer {
  name: "relu3"
  type: "ReLU"
  bottom: "conv3"
  top: "conv3"
}
layer {
  name: "conv4"
  type: "Convolution"
  bottom: "conv3"
  top: "conv4"
  convolution_param {
    num_output: 384
    pad: 1
    kernel_size: 3
    group: 2
  }
}
layer {
  name: "relu4"
  type: "ReLU"
  bottom: "conv4"
  top: "conv4"
}
layer {
  name: "conv5"
  type: "Convolution"
  bottom: "conv4"
  top: "conv5"
  convolution_param {
    num_output: 256
    pad: 1
    kernel_size: 3
    group: 2
  }
}
layer {
  name: "relu5"
  type: "ReLU"
  bottom: "conv5"
  top: "conv5"
}
layer {
  name: "pool5"
  type: "Pooling"
  bottom: "conv5"
  top: "pool5"
  pooling_param {
    pool: MAX
    kernel_size: 3
    stride: 2
  }
}
layer {
  name: "fc6"
  type: "InnerProduct"
  bottom: "pool5"
  top: "fc6"
  inner_product_param {
    num_output: 4096
  }
}
layer {
  name: "relu6"
  type: "ReLU"
  bottom: "fc6"
  top: "fc6"
}
layer {
  name: "drop6"
  type: "Dropout"
  bottom: "fc6"
  top: "fc6"
  dropout_param {
    dropout_ratio: 0.5
  }
}
layer {
  name: "fc7"
  type: "InnerProduct"
  bottom: "fc6"
  top: "fc7"
  inner_product_param {
    num_output: 4096
  }
}
layer {
  name: "relu7"
  type: "ReLU"
  bottom: "fc7"
  top: "fc7"
}
layer {
  name: "drop7"
  type: "Dropout"
  bottom: "fc7"
  top: "fc7"
  dropout_param {
    dropout_ratio: 0.5
  }
}
layer {
  name: "fc8"
  type: "InnerProduct"
  bottom: "fc7"
  top: "fc8"
  inner_product_param {
    num_output: 1000
  }
}
layer {
  name: "prob"
  type: "Softmax"
  bottom: "fc8"
  top: "prob"
}
I0722 16:02:59.114922 19776 layer_factory.hpp:77] Creating layer data
I0722 16:02:59.114945 19776 net.cpp:91] Creating Layer data
I0722 16:02:59.114955 19776 net.cpp:399] data -> data
I0722 16:02:59.126706 19770 net.cpp:49] Initializing net from parameters: 
name: "CaffeNet"
state {
  phase: TEST
}
layer {
  name: "data"
  type: "Input"
  top: "data"
  input_param {
    shape {
      dim: 10
      dim: 3
      dim: 227
      dim: 227
    }
  }
}
layer {
  name: "conv1"
  type: "Convolution"
  bottom: "data"
  top: "conv1"
  convolution_param {
    num_output: 96
    kernel_size: 11
    stride: 4
  }
}
layer {
  name: "relu1"
  type: "ReLU"
  bottom: "conv1"
  top: "conv1"
}
layer {
  name: "pool1"
  type: "Pooling"
  bottom: "conv1"
  top: "pool1"
  pooling_param {
    pool: MAX
    kernel_size: 3
    stride: 2
  }
}
layer {
  name: "norm1"
  type: "LRN"
  bottom: "pool1"
  top: "norm1"
  lrn_param {
    local_size: 5
    alpha: 0.0001
    beta: 0.75
  }
}
layer {
  name: "conv2"
  type: "Convolution"
  bottom: "norm1"
  top: "conv2"
  convolution_param {
    num_output: 256
    pad: 2
    kernel_size: 5
    group: 2
  }
}
layer {
  name: "relu2"
  type: "ReLU"
  bottom: "conv2"
  top: "conv2"
}
layer {
  name: "pool2"
  type: "Pooling"
  bottom: "conv2"
  top: "pool2"
  pooling_param {
    pool: MAX
    kernel_size: 3
    stride: 2
  }
}
layer {
  name: "norm2"
  type: "LRN"
  bottom: "pool2"
  top: "norm2"
  lrn_param {
    local_size: 5
    alpha: 0.0001
    beta: 0.75
  }
}
layer {
  name: "conv3"
  type: "Convolution"
  bottom: "norm2"
  top: "conv3"
  convolution_param {
    num_output: 384
    pad: 1
    kernel_size: 3
  }
}
layer {
  name: "relu3"
  type: "ReLU"
  bottom: "conv3"
  top: "conv3"
}
layer {
  name: "conv4"
  type: "Convolution"
  bottom: "conv3"
  top: "conv4"
  convolution_param {
    num_output: 384
    pad: 1
    kernel_size: 3
    group: 2
  }
}
layer {
  name: "relu4"
  type: "ReLU"
  bottom: "conv4"
  top: "conv4"
}
layer {
  name: "conv5"
  type: "Convolution"
  bottom: "conv4"
  top: "conv5"
  convolution_param {
    num_output: 256
    pad: 1
    kernel_size: 3
    group: 2
  }
}
layer {
  name: "relu5"
  type: "ReLU"
  bottom: "conv5"
  top: "conv5"
}
layer {
  name: "pool5"
  type: "Pooling"
  bottom: "conv5"
  top: "pool5"
  pooling_param {
    pool: MAX
    kernel_size: 3
    stride: 2
  }
}
layer {
  name: "fc6"
  type: "InnerProduct"
  bottom: "pool5"
  top: "fc6"
  inner_product_param {
    num_output: 4096
  }
}
layer {
  name: "relu6"
  type: "ReLU"
  bottom: "fc6"
  top: "fc6"
}
layer {
  name: "drop6"
  type: "Dropout"
  bottom: "fc6"
  top: "fc6"
  dropout_param {
    dropout_ratio: 0.5
  }
}
layer {
  name: "fc7"
  type: "InnerProduct"
  bottom: "fc6"
  top: "fc7"
  inner_product_param {
    num_output: 4096
  }
}
layer {
  name: "relu7"
  type: "ReLU"
  bottom: "fc7"
  top: "fc7"
}
layer {
  name: "drop7"
  type: "Dropout"
  bottom: "fc7"
  top: "fc7"
  dropout_param {
    dropout_ratio: 0.5
  }
}
layer {
  name: "fc8"
  type: "InnerProduct"
  bottom: "fc7"
  top: "fc8"
  inner_product_param {
    num_output: 1000
  }
}
layer {
  name: "prob"
  type: "Softmax"
  bottom: "fc8"
  top: "prob"
}
I0722 16:02:59.126833 19770 layer_factory.hpp:77] Creating layer data
I0722 16:02:59.126848 19770 net.cpp:91] Creating Layer data
I0722 16:02:59.126857 19770 net.cpp:399] data -> data
I0722 16:02:59.323865 19762 upgrade_proto.cpp:66] Attempting to upgrade input file specified using deprecated input fields: /tmp/cvld932332451911630781/s2vt.words_to_preds.prototxt
I0722 16:02:59.323926 19762 upgrade_proto.cpp:69] Successfully upgraded file specified using deprecated input fields.
W0722 16:02:59.323935 19762 upgrade_proto.cpp:71] Note that future Caffe releases will only support input layers and not input fields.
I0722 16:02:59.324174 19762 net.cpp:49] Initializing net from parameters: 
name: "s2vt:features_to_lstm"
state {
  phase: TEST
}
layer {
  name: "input"
  type: "Input"
  top: "frames_fc7"
  top: "cont_sentence"
  top: "input_sentence"
  top: "stage_indicator"
  input_param {
    shape {
      dim: 1
      dim: 4096
    }
    shape {
      dim: 1
      dim: 1
    }
    shape {
      dim: 1
      dim: 1
    }
    shape {
      dim: 1
      dim: 1
    }
  }
}
layer {
  name: "embed_encoder"
  type: "InnerProduct"
  bottom: "frames_fc7"
  top: "embedded_in_frames"
  param {
    lr_mult: 1
    decay_mult: 1
  }
  param {
    lr_mult: 2
    decay_mult: 0
  }
  inner_product_param {
    num_output: 500
    weight_filler {
      type: "xavier"
    }
    bias_filler {
      type: "constant"
      value: 0.2
    }
  }
}
layer {
  name: "reshape_frames"
  type: "Reshape"
  bottom: "embedded_in_frames"
  top: "embedded_input_frames"
  reshape_param {
    shape {
      dim: 1
      dim: 1
      dim: 500
    }
  }
}
layer {
  name: "reshape_stage_indicator"
  type: "Reshape"
  bottom: "stage_indicator"
  top: "reshaped_stage_indicator"
  reshape_param {
    shape {
      dim: 1
      dim: 1
      dim: 1
    }
  }
}
layer {
  name: "embedding"
  type: "Embed"
  bottom: "input_sentence"
  top: "embedded_input_sentence"
  param {
    lr_mult: 1
  }
  embed_param {
    num_output: 500
    input_dim: 46168
    bias_term: false
    weight_filler {
      type: "uniform"
      min: -0.08
      max: 0.08
    }
  }
}
layer {
  name: "lstm1"
  type: "LSTM"
  bottom: "embedded_input_frames"
  bottom: "cont_sentence"
  top: "lstm1"
  recurrent_param {
    num_output: 1000
    weight_filler {
      type: "uniform"
      min: -0.08
      max: 0.08
    }
    bias_filler {
      type: "constant"
      value: 0
    }
  }
}
layer {
  name: "concat"
  type: "Concat"
  bottom: "lstm1"
  bottom: "embedded_input_sentence"
  bottom: "reshaped_stage_indicator"
  top: "lstm1_video_sequence"
  concat_param {
    concat_dim: 2
  }
}
layer {
  name: "lstm2"
  type: "LSTM"
  bottom: "lstm1_video_sequence"
  bottom: "cont_sentence"
  top: "lstm2"
  recurrent_param {
    num_output: 1000
    weight_filler {
      type: "uniform"
      min: -0.08
      max: 0.08
    }
    bias_filler {
      type: "constant"
      value: 0
    }
  }
}
layer {
  name: "predict"
  type: "InnerProduct"
  bottom: "lstm2"
  top: "predict"
  param {
    lr_mult: 1
    decay_mult: 1
  }
  param {
    lr_mult: 2
    decay_mult: 0
  }
  inner_product_param {
    num_output: 46168
    weight_filler {
      type: "uniform"
      min: -0.08
      max: 0.08
    }
    bias_filler {
      type: "constant"
      value: 0
    }
    axis: 2
  }
}
layer {
  name: "probs"
  type: "Softmax"
  bottom: "predict"
  top: "probs"
  softmax_param {
    axis: 2
  }
}
I0722 16:02:59.324290 19762 layer_factory.hpp:77] Creating layer input
I0722 16:02:59.324306 19762 net.cpp:91] Creating Layer input
I0722 16:02:59.324313 19762 net.cpp:399] input -> frames_fc7
I0722 16:02:59.324328 19762 net.cpp:399] input -> cont_sentence
I0722 16:02:59.324339 19762 net.cpp:399] input -> input_sentence
I0722 16:02:59.324349 19762 net.cpp:399] input -> stage_indicator
I0722 16:02:59.331421 19758 upgrade_proto.cpp:66] Attempting to upgrade input file specified using deprecated input fields: /tmp/cvld932332451911630781/s2vt.words_to_preds.prototxt
I0722 16:02:59.331442 19758 upgrade_proto.cpp:69] Successfully upgraded file specified using deprecated input fields.
W0722 16:02:59.331446 19758 upgrade_proto.cpp:71] Note that future Caffe releases will only support input layers and not input fields.
I0722 16:02:59.331643 19758 net.cpp:49] Initializing net from parameters: 
name: "s2vt:features_to_lstm"
state {
  phase: TEST
}
layer {
  name: "input"
  type: "Input"
  top: "frames_fc7"
  top: "cont_sentence"
  top: "input_sentence"
  top: "stage_indicator"
  input_param {
    shape {
      dim: 1
      dim: 4096
    }
    shape {
      dim: 1
      dim: 1
    }
    shape {
      dim: 1
      dim: 1
    }
    shape {
      dim: 1
      dim: 1
    }
  }
}
layer {
  name: "embed_encoder"
  type: "InnerProduct"
  bottom: "frames_fc7"
  top: "embedded_in_frames"
  param {
    lr_mult: 1
    decay_mult: 1
  }
  param {
    lr_mult: 2
    decay_mult: 0
  }
  inner_product_param {
    num_output: 500
    weight_filler {
      type: "xavier"
    }
    bias_filler {
      type: "constant"
      value: 0.2
    }
  }
}
layer {
  name: "reshape_frames"
  type: "Reshape"
  bottom: "embedded_in_frames"
  top: "embedded_input_frames"
  reshape_param {
    shape {
      dim: 1
      dim: 1
      dim: 500
    }
  }
}
layer {
  name: "reshape_stage_indicator"
  type: "Reshape"
  bottom: "stage_indicator"
  top: "reshaped_stage_indicator"
  reshape_param {
    shape {
      dim: 1
      dim: 1
      dim: 1
    }
  }
}
layer {
  name: "embedding"
  type: "Embed"
  bottom: "input_sentence"
  top: "embedded_input_sentence"
  param {
    lr_mult: 1
  }
  embed_param {
    num_output: 500
    input_dim: 46168
    bias_term: false
    weight_filler {
      type: "uniform"
      min: -0.08
      max: 0.08
    }
  }
}
layer {
  name: "lstm1"
  type: "LSTM"
  bottom: "embedded_input_frames"
  bottom: "cont_sentence"
  top: "lstm1"
  recurrent_param {
    num_output: 1000
    weight_filler {
      type: "uniform"
      min: -0.08
      max: 0.08
    }
    bias_filler {
      type: "constant"
      value: 0
    }
  }
}
layer {
  name: "concat"
  type: "Concat"
  bottom: "lstm1"
  bottom: "embedded_input_sentence"
  bottom: "reshaped_stage_indicator"
  top: "lstm1_video_sequence"
  concat_param {
    concat_dim: 2
  }
}
layer {
  name: "lstm2"
  type: "LSTM"
  bottom: "lstm1_video_sequence"
  bottom: "cont_sentence"
  top: "lstm2"
  recurrent_param {
    num_output: 1000
    weight_filler {
      type: "uniform"
      min: -0.08
      max: 0.08
    }
    bias_filler {
      type: "constant"
      value: 0
    }
  }
}
layer {
  name: "predict"
  type: "InnerProduct"
  bottom: "lstm2"
  top: "predict"
  param {
    lr_mult: 1
    decay_mult: 1
  }
  param {
    lr_mult: 2
    decay_mult: 0
  }
  inner_product_param {
    num_output: 46168
    weight_filler {
      type: "uniform"
      min: -0.08
      max: 0.08
    }
    bias_filler {
      type: "constant"
      value: 0
    }
    axis: 2
  }
}
layer {
  name: "probs"
  type: "Softmax"
  bottom: "predict"
  top: "probs"
  softmax_param {
    axis: 2
  }
}
I0722 16:02:59.331723 19758 layer_factory.hpp:77] Creating layer input
I0722 16:02:59.331735 19758 net.cpp:91] Creating Layer input
I0722 16:02:59.331743 19758 net.cpp:399] input -> frames_fc7
I0722 16:02:59.331754 19758 net.cpp:399] input -> cont_sentence
I0722 16:02:59.331765 19758 net.cpp:399] input -> input_sentence
I0722 16:02:59.331774 19758 net.cpp:399] input -> stage_indicator
I0722 16:03:00.056083 19776 net.cpp:141] Setting up data
I0722 16:03:00.056181 19776 net.cpp:148] Top shape: 10 3 227 227 (1545870)
I0722 16:03:00.056188 19776 net.cpp:156] Memory required for data: 6183480
I0722 16:03:00.056212 19776 layer_factory.hpp:77] Creating layer conv1
I0722 16:03:00.056246 19776 net.cpp:91] Creating Layer conv1
I0722 16:03:00.056254 19776 net.cpp:425] conv1 <- data
I0722 16:03:00.056269 19776 net.cpp:399] conv1 -> conv1
I0722 16:03:00.056674 19758 net.cpp:141] Setting up input
I0722 16:03:00.056710 19758 net.cpp:148] Top shape: 1 4096 (4096)
I0722 16:03:00.056716 19758 net.cpp:148] Top shape: 1 1 (1)
I0722 16:03:00.056722 19758 net.cpp:148] Top shape: 1 1 (1)
I0722 16:03:00.056727 19758 net.cpp:148] Top shape: 1 1 (1)
I0722 16:03:00.056731 19758 net.cpp:156] Memory required for data: 16396
I0722 16:03:00.056740 19758 layer_factory.hpp:77] Creating layer cont_sentence_input_1_split
I0722 16:03:00.056766 19758 net.cpp:91] Creating Layer cont_sentence_input_1_split
I0722 16:03:00.056772 19758 net.cpp:425] cont_sentence_input_1_split <- cont_sentence
I0722 16:03:00.056804 19758 net.cpp:399] cont_sentence_input_1_split -> cont_sentence_input_1_split_0
I0722 16:03:00.056818 19758 net.cpp:399] cont_sentence_input_1_split -> cont_sentence_input_1_split_1
I0722 16:03:00.057021 19758 net.cpp:141] Setting up cont_sentence_input_1_split
I0722 16:03:00.057032 19758 net.cpp:148] Top shape: 1 1 (1)
I0722 16:03:00.057039 19758 net.cpp:148] Top shape: 1 1 (1)
I0722 16:03:00.057042 19758 net.cpp:156] Memory required for data: 16404
I0722 16:03:00.057047 19758 layer_factory.hpp:77] Creating layer embed_encoder
I0722 16:03:00.057068 19758 net.cpp:91] Creating Layer embed_encoder
I0722 16:03:00.057073 19758 net.cpp:425] embed_encoder <- frames_fc7
I0722 16:03:00.057081 19758 net.cpp:399] embed_encoder -> embedded_in_frames
I0722 16:03:00.065353 19770 net.cpp:141] Setting up data
I0722 16:03:00.065388 19770 net.cpp:148] Top shape: 10 3 227 227 (1545870)
I0722 16:03:00.065394 19770 net.cpp:156] Memory required for data: 6183480
I0722 16:03:00.065403 19770 layer_factory.hpp:77] Creating layer conv1
I0722 16:03:00.065424 19770 net.cpp:91] Creating Layer conv1
I0722 16:03:00.065429 19770 net.cpp:425] conv1 <- data
I0722 16:03:00.065438 19770 net.cpp:399] conv1 -> conv1
I0722 16:03:00.066244 19762 net.cpp:141] Setting up input
I0722 16:03:00.066262 19762 net.cpp:148] Top shape: 1 4096 (4096)
I0722 16:03:00.066268 19762 net.cpp:148] Top shape: 1 1 (1)
I0722 16:03:00.066273 19762 net.cpp:148] Top shape: 1 1 (1)
I0722 16:03:00.066278 19762 net.cpp:148] Top shape: 1 1 (1)
I0722 16:03:00.066282 19762 net.cpp:156] Memory required for data: 16396
I0722 16:03:00.066288 19762 layer_factory.hpp:77] Creating layer cont_sentence_input_1_split
I0722 16:03:00.066299 19762 net.cpp:91] Creating Layer cont_sentence_input_1_split
I0722 16:03:00.066304 19762 net.cpp:425] cont_sentence_input_1_split <- cont_sentence
I0722 16:03:00.066313 19762 net.cpp:399] cont_sentence_input_1_split -> cont_sentence_input_1_split_0
I0722 16:03:00.066324 19762 net.cpp:399] cont_sentence_input_1_split -> cont_sentence_input_1_split_1
I0722 16:03:00.066442 19762 net.cpp:141] Setting up cont_sentence_input_1_split
I0722 16:03:00.066452 19762 net.cpp:148] Top shape: 1 1 (1)
I0722 16:03:00.066458 19762 net.cpp:148] Top shape: 1 1 (1)
I0722 16:03:00.066462 19762 net.cpp:156] Memory required for data: 16404
I0722 16:03:00.066468 19762 layer_factory.hpp:77] Creating layer embed_encoder
I0722 16:03:00.066480 19762 net.cpp:91] Creating Layer embed_encoder
I0722 16:03:00.066485 19762 net.cpp:425] embed_encoder <- frames_fc7
I0722 16:03:00.066494 19762 net.cpp:399] embed_encoder -> embedded_in_frames
I0722 16:03:00.104218 19758 net.cpp:141] Setting up embed_encoder
I0722 16:03:00.104259 19758 net.cpp:148] Top shape: 1 500 (500)
I0722 16:03:00.104264 19758 net.cpp:156] Memory required for data: 18404
I0722 16:03:00.104291 19758 layer_factory.hpp:77] Creating layer reshape_frames
I0722 16:03:00.104318 19758 net.cpp:91] Creating Layer reshape_frames
I0722 16:03:00.104326 19758 net.cpp:425] reshape_frames <- embedded_in_frames
I0722 16:03:00.104336 19758 net.cpp:399] reshape_frames -> embedded_input_frames
I0722 16:03:00.106523 19758 net.cpp:141] Setting up reshape_frames
I0722 16:03:00.106542 19758 net.cpp:148] Top shape: 1 1 500 (500)
I0722 16:03:00.106547 19758 net.cpp:156] Memory required for data: 20404
I0722 16:03:00.106552 19758 layer_factory.hpp:77] Creating layer reshape_stage_indicator
I0722 16:03:00.106572 19758 net.cpp:91] Creating Layer reshape_stage_indicator
I0722 16:03:00.106578 19758 net.cpp:425] reshape_stage_indicator <- stage_indicator
I0722 16:03:00.106590 19758 net.cpp:399] reshape_stage_indicator -> reshaped_stage_indicator
I0722 16:03:00.110438 19758 net.cpp:141] Setting up reshape_stage_indicator
I0722 16:03:00.110457 19758 net.cpp:148] Top shape: 1 1 1 (1)
I0722 16:03:00.110463 19758 net.cpp:156] Memory required for data: 20408
I0722 16:03:00.110468 19758 layer_factory.hpp:77] Creating layer embedding
I0722 16:03:00.110467 19762 net.cpp:141] Setting up embed_encoder
I0722 16:03:00.110488 19758 net.cpp:91] Creating Layer embedding
I0722 16:03:00.110488 19762 net.cpp:148] Top shape: 1 500 (500)
I0722 16:03:00.110496 19758 net.cpp:425] embedding <- input_sentence
I0722 16:03:00.110501 19762 net.cpp:156] Memory required for data: 18404
I0722 16:03:00.110509 19758 net.cpp:399] embedding -> embedded_input_sentence
I0722 16:03:00.110515 19762 layer_factory.hpp:77] Creating layer reshape_frames
I0722 16:03:00.110525 19762 net.cpp:91] Creating Layer reshape_frames
I0722 16:03:00.110532 19762 net.cpp:425] reshape_frames <- embedded_in_frames
I0722 16:03:00.110540 19762 net.cpp:399] reshape_frames -> embedded_input_frames
I0722 16:03:00.118826 19762 net.cpp:141] Setting up reshape_frames
I0722 16:03:00.118854 19762 net.cpp:148] Top shape: 1 1 500 (500)
I0722 16:03:00.118859 19762 net.cpp:156] Memory required for data: 20404
I0722 16:03:00.118863 19762 layer_factory.hpp:77] Creating layer reshape_stage_indicator
I0722 16:03:00.118875 19762 net.cpp:91] Creating Layer reshape_stage_indicator
I0722 16:03:00.118881 19762 net.cpp:425] reshape_stage_indicator <- stage_indicator
I0722 16:03:00.118890 19762 net.cpp:399] reshape_stage_indicator -> reshaped_stage_indicator
I0722 16:03:00.157696 19762 net.cpp:141] Setting up reshape_stage_indicator
I0722 16:03:00.157742 19762 net.cpp:148] Top shape: 1 1 1 (1)
I0722 16:03:00.157748 19762 net.cpp:156] Memory required for data: 20408
I0722 16:03:00.157757 19762 layer_factory.hpp:77] Creating layer embedding
I0722 16:03:00.157776 19762 net.cpp:91] Creating Layer embedding
I0722 16:03:00.157783 19762 net.cpp:425] embedding <- input_sentence
I0722 16:03:00.157798 19762 net.cpp:399] embedding -> embedded_input_sentence
I0722 16:03:00.339154 19758 net.cpp:141] Setting up embedding
I0722 16:03:00.339201 19758 net.cpp:148] Top shape: 1 1 500 (500)
I0722 16:03:00.339206 19758 net.cpp:156] Memory required for data: 22408
I0722 16:03:00.339229 19758 layer_factory.hpp:77] Creating layer lstm1
I0722 16:03:00.339247 19758 net.cpp:91] Creating Layer lstm1
I0722 16:03:00.339256 19758 net.cpp:425] lstm1 <- embedded_input_frames
I0722 16:03:00.339262 19758 net.cpp:425] lstm1 <- cont_sentence_input_1_split_0
I0722 16:03:00.339273 19758 net.cpp:399] lstm1 -> lstm1
I0722 16:03:00.339310 19758 recurrent_layer.cpp:20] Initializing recurrent layer: assuming input batch contains 1 timesteps of 1 independent streams.
I0722 16:03:00.339655 19758 net.cpp:49] Initializing net from parameters: 
layer {
  name: "lstm1_"
  type: "Input"
  top: "x"
  top: "cont"
  input_param {
    shape {
      dim: 1
      dim: 1
      dim: 500
    }
    shape {
      dim: 1
      dim: 1
    }
  }
}
layer {
  name: "lstm1_"
  type: "Input"
  top: "c_0"
  top: "h_0"
  input_param {
    shape {
      dim: 1
      dim: 1
      dim: 1000
    }
    shape {
      dim: 1
      dim: 1
      dim: 1000
    }
  }
}
layer {
  name: "lstm1_cont_slice"
  type: "Slice"
  bottom: "cont"
  top: "cont_1"
  slice_param {
    axis: 0
  }
}
layer {
  name: "lstm1_x_transform"
  type: "InnerProduct"
  bottom: "x"
  top: "W_xc_x"
  param {
    name: "W_xc"
  }
  param {
    name: "b_c"
  }
  propagate_down: true
  inner_product_param {
    num_output: 4000
    bias_term: true
    weight_filler {
      type: "uniform"
      min: -0.08
      max: 0.08
    }
    bias_filler {
      type: "constant"
      value: 0
    }
    axis: 2
  }
}
layer {
  name: "lstm1_W_xc_x_slice"
  type: "Slice"
  bottom: "W_xc_x"
  top: "W_xc_x_1"
  slice_param {
    axis: 0
  }
}
layer {
  name: "lstm1_h_conted_0"
  type: "Scale"
  bottom: "h_0"
  bottom: "cont_1"
  top: "h_conted_0"
  scale_param {
    axis: 0
  }
}
layer {
  name: "lstm1_transform_1"
  type: "InnerProduct"
  bottom: "h_conted_0"
  top: "W_hc_h_0"
  param {
    name: "W_hc"
  }
  inner_product_param {
    num_output: 4000
    bias_term: false
    weight_filler {
      type: "uniform"
      min: -0.08
      max: 0.08
    }
    axis: 2
  }
}
layer {
  name: "lstm1_gate_input_1"
  type: "Eltwise"
  bottom: "W_hc_h_0"
  bottom: "W_xc_x_1"
  top: "gate_input_1"
  eltwise_param {
    operation: SUM
  }
}
layer {
  name: "lstm1_unit_1"
  type: "LSTMUnit"
  bottom: "c_0"
  bottom: "gate_input_1"
  bottom: "cont_1"
  top: "c_1"
  top: "h_1"
}
layer {
  name: "lstm1_"
  type: "Split"
  bottom: "c_1"
  top: "c_T"
}
layer {
  name: "lstm1_h_concat"
  type: "Concat"
  bottom: "h_1"
  top: "h"
  concat_param {
    axis: 0
  }
}
layer {
  name: "h_pseudoloss"
  type: "Reduction"
  bottom: "h"
  top: "h_pseudoloss"
  loss_weight: 1
}
I0722 16:03:00.339743 19758 layer_factory.hpp:77] Creating layer lstm1_
I0722 16:03:00.339756 19758 net.cpp:91] Creating Layer lstm1_
I0722 16:03:00.339762 19758 net.cpp:399] lstm1_ -> x
I0722 16:03:00.339773 19758 net.cpp:399] lstm1_ -> cont
I0722 16:03:00.342473 19758 net.cpp:141] Setting up lstm1_
I0722 16:03:00.342495 19758 net.cpp:148] Top shape: 1 1 500 (500)
I0722 16:03:00.342507 19758 net.cpp:148] Top shape: 1 1 (1)
I0722 16:03:00.342514 19758 net.cpp:156] Memory required for data: 2004
I0722 16:03:00.342525 19758 layer_factory.hpp:77] Creating layer lstm1_
I0722 16:03:00.342540 19758 net.cpp:91] Creating Layer lstm1_
I0722 16:03:00.342572 19758 net.cpp:399] lstm1_ -> c_0
I0722 16:03:00.342595 19758 net.cpp:399] lstm1_ -> h_0
I0722 16:03:00.347590 19758 net.cpp:141] Setting up lstm1_
I0722 16:03:00.347607 19758 net.cpp:148] Top shape: 1 1 1000 (1000)
I0722 16:03:00.347615 19758 net.cpp:148] Top shape: 1 1 1000 (1000)
I0722 16:03:00.347618 19758 net.cpp:156] Memory required for data: 10004
I0722 16:03:00.347623 19758 layer_factory.hpp:77] Creating layer lstm1_cont_slice
I0722 16:03:00.347635 19758 net.cpp:91] Creating Layer lstm1_cont_slice
I0722 16:03:00.347640 19758 net.cpp:425] lstm1_cont_slice <- cont
I0722 16:03:00.347650 19758 net.cpp:399] lstm1_cont_slice -> cont_1
I0722 16:03:00.348414 19758 net.cpp:141] Setting up lstm1_cont_slice
I0722 16:03:00.348433 19758 net.cpp:148] Top shape: 1 1 (1)
I0722 16:03:00.348441 19758 net.cpp:156] Memory required for data: 10008
I0722 16:03:00.348450 19758 layer_factory.hpp:77] Creating layer cont_1_lstm1_cont_slice_0_split
I0722 16:03:00.348464 19758 net.cpp:91] Creating Layer cont_1_lstm1_cont_slice_0_split
I0722 16:03:00.348469 19758 net.cpp:425] cont_1_lstm1_cont_slice_0_split <- cont_1
I0722 16:03:00.348475 19758 net.cpp:399] cont_1_lstm1_cont_slice_0_split -> cont_1_lstm1_cont_slice_0_split_0
I0722 16:03:00.348484 19758 net.cpp:399] cont_1_lstm1_cont_slice_0_split -> cont_1_lstm1_cont_slice_0_split_1
I0722 16:03:00.349335 19758 net.cpp:141] Setting up cont_1_lstm1_cont_slice_0_split
I0722 16:03:00.349349 19758 net.cpp:148] Top shape: 1 1 (1)
I0722 16:03:00.349354 19758 net.cpp:148] Top shape: 1 1 (1)
I0722 16:03:00.349359 19758 net.cpp:156] Memory required for data: 10016
I0722 16:03:00.349362 19758 layer_factory.hpp:77] Creating layer lstm1_x_transform
I0722 16:03:00.349380 19758 net.cpp:91] Creating Layer lstm1_x_transform
I0722 16:03:00.349385 19758 net.cpp:425] lstm1_x_transform <- x
I0722 16:03:00.349393 19758 net.cpp:399] lstm1_x_transform -> W_xc_x
I0722 16:03:00.389719 19758 net.cpp:141] Setting up lstm1_x_transform
I0722 16:03:00.389768 19758 net.cpp:148] Top shape: 1 1 4000 (4000)
I0722 16:03:00.389775 19758 net.cpp:156] Memory required for data: 26016
I0722 16:03:00.389798 19758 layer_factory.hpp:77] Creating layer lstm1_W_xc_x_slice
I0722 16:03:00.389818 19758 net.cpp:91] Creating Layer lstm1_W_xc_x_slice
I0722 16:03:00.389825 19758 net.cpp:425] lstm1_W_xc_x_slice <- W_xc_x
I0722 16:03:00.389835 19758 net.cpp:399] lstm1_W_xc_x_slice -> W_xc_x_1
I0722 16:03:00.391578 19762 net.cpp:141] Setting up embedding
I0722 16:03:00.391619 19762 net.cpp:148] Top shape: 1 1 500 (500)
I0722 16:03:00.391625 19762 net.cpp:156] Memory required for data: 22408
I0722 16:03:00.391641 19762 layer_factory.hpp:77] Creating layer lstm1
I0722 16:03:00.391661 19762 net.cpp:91] Creating Layer lstm1
I0722 16:03:00.391669 19762 net.cpp:425] lstm1 <- embedded_input_frames
I0722 16:03:00.391676 19762 net.cpp:425] lstm1 <- cont_sentence_input_1_split_0
I0722 16:03:00.391687 19762 net.cpp:399] lstm1 -> lstm1
I0722 16:03:00.391702 19762 recurrent_layer.cpp:20] Initializing recurrent layer: assuming input batch contains 1 timesteps of 1 independent streams.
I0722 16:03:00.391778 19758 net.cpp:141] Setting up lstm1_W_xc_x_slice
I0722 16:03:00.391793 19758 net.cpp:148] Top shape: 1 1 4000 (4000)
I0722 16:03:00.391798 19758 net.cpp:156] Memory required for data: 42016
I0722 16:03:00.391803 19758 layer_factory.hpp:77] Creating layer lstm1_h_conted_0
I0722 16:03:00.391815 19758 net.cpp:91] Creating Layer lstm1_h_conted_0
I0722 16:03:00.391821 19758 net.cpp:425] lstm1_h_conted_0 <- h_0
I0722 16:03:00.391829 19758 net.cpp:425] lstm1_h_conted_0 <- cont_1_lstm1_cont_slice_0_split_0
I0722 16:03:00.391835 19758 net.cpp:399] lstm1_h_conted_0 -> h_conted_0
I0722 16:03:00.391971 19762 net.cpp:49] Initializing net from parameters: 
layer {
  name: "lstm1_"
  type: "Input"
  top: "x"
  top: "cont"
  input_param {
    shape {
      dim: 1
      dim: 1
      dim: 500
    }
    shape {
      dim: 1
      dim: 1
    }
  }
}
layer {
  name: "lstm1_"
  type: "Input"
  top: "c_0"
  top: "h_0"
  input_param {
    shape {
      dim: 1
      dim: 1
      dim: 1000
    }
    shape {
      dim: 1
      dim: 1
      dim: 1000
    }
  }
}
layer {
  name: "lstm1_cont_slice"
  type: "Slice"
  bottom: "cont"
  top: "cont_1"
  slice_param {
    axis: 0
  }
}
layer {
  name: "lstm1_x_transform"
  type: "InnerProduct"
  bottom: "x"
  top: "W_xc_x"
  param {
    name: "W_xc"
  }
  param {
    name: "b_c"
  }
  propagate_down: true
  inner_product_param {
    num_output: 4000
    bias_term: true
    weight_filler {
      type: "uniform"
      min: -0.08
      max: 0.08
    }
    bias_filler {
      type: "constant"
      value: 0
    }
    axis: 2
  }
}
layer {
  name: "lstm1_W_xc_x_slice"
  type: "Slice"
  bottom: "W_xc_x"
  top: "W_xc_x_1"
  slice_param {
    axis: 0
  }
}
layer {
  name: "lstm1_h_conted_0"
  type: "Scale"
  bottom: "h_0"
  bottom: "cont_1"
  top: "h_conted_0"
  scale_param {
    axis: 0
  }
}
layer {
  name: "lstm1_transform_1"
  type: "InnerProduct"
  bottom: "h_conted_0"
  top: "W_hc_h_0"
  param {
    name: "W_hc"
  }
  inner_product_param {
    num_output: 4000
    bias_term: false
    weight_filler {
      type: "uniform"
      min: -0.08
      max: 0.08
    }
    axis: 2
  }
}
layer {
  name: "lstm1_gate_input_1"
  type: "Eltwise"
  bottom: "W_hc_h_0"
  bottom: "W_xc_x_1"
  top: "gate_input_1"
  eltwise_param {
    operation: SUM
  }
}
layer {
  name: "lstm1_unit_1"
  type: "LSTMUnit"
  bottom: "c_0"
  bottom: "gate_input_1"
  bottom: "cont_1"
  top: "c_1"
  top: "h_1"
}
layer {
  name: "lstm1_"
  type: "Split"
  bottom: "c_1"
  top: "c_T"
}
layer {
  name: "lstm1_h_concat"
  type: "Concat"
  bottom: "h_1"
  top: "h"
  concat_param {
    axis: 0
  }
}
layer {
  name: "h_pseudoloss"
  type: "Reduction"
  bottom: "h"
  top: "h_pseudoloss"
  loss_weight: 1
}
I0722 16:03:00.392060 19762 layer_factory.hpp:77] Creating layer lstm1_
I0722 16:03:00.392072 19762 net.cpp:91] Creating Layer lstm1_
I0722 16:03:00.392078 19762 net.cpp:399] lstm1_ -> x
I0722 16:03:00.392089 19762 net.cpp:399] lstm1_ -> cont
I0722 16:03:00.402298 19762 net.cpp:141] Setting up lstm1_
I0722 16:03:00.402315 19762 net.cpp:148] Top shape: 1 1 500 (500)
I0722 16:03:00.402321 19762 net.cpp:148] Top shape: 1 1 (1)
I0722 16:03:00.402325 19762 net.cpp:156] Memory required for data: 2004
I0722 16:03:00.402331 19762 layer_factory.hpp:77] Creating layer lstm1_
I0722 16:03:00.402341 19762 net.cpp:91] Creating Layer lstm1_
I0722 16:03:00.402351 19762 net.cpp:399] lstm1_ -> c_0
I0722 16:03:00.402364 19762 net.cpp:399] lstm1_ -> h_0
I0722 16:03:00.404958 19758 net.cpp:141] Setting up lstm1_h_conted_0
I0722 16:03:00.405004 19758 net.cpp:148] Top shape: 1 1 1000 (1000)
I0722 16:03:00.405014 19758 net.cpp:156] Memory required for data: 46016
I0722 16:03:00.405025 19758 layer_factory.hpp:77] Creating layer lstm1_transform_1
I0722 16:03:00.405050 19758 net.cpp:91] Creating Layer lstm1_transform_1
I0722 16:03:00.405061 19758 net.cpp:425] lstm1_transform_1 <- h_conted_0
I0722 16:03:00.405081 19758 net.cpp:399] lstm1_transform_1 -> W_hc_h_0
I0722 16:03:00.424813 19762 net.cpp:141] Setting up lstm1_
I0722 16:03:00.424846 19762 net.cpp:148] Top shape: 1 1 1000 (1000)
I0722 16:03:00.424854 19762 net.cpp:148] Top shape: 1 1 1000 (1000)
I0722 16:03:00.424856 19762 net.cpp:156] Memory required for data: 10004
I0722 16:03:00.424861 19762 layer_factory.hpp:77] Creating layer lstm1_cont_slice
I0722 16:03:00.424871 19762 net.cpp:91] Creating Layer lstm1_cont_slice
I0722 16:03:00.424875 19762 net.cpp:425] lstm1_cont_slice <- cont
I0722 16:03:00.424899 19762 net.cpp:399] lstm1_cont_slice -> cont_1
I0722 16:03:00.431422 19762 net.cpp:141] Setting up lstm1_cont_slice
I0722 16:03:00.431453 19762 net.cpp:148] Top shape: 1 1 (1)
I0722 16:03:00.431459 19762 net.cpp:156] Memory required for data: 10008
I0722 16:03:00.431464 19762 layer_factory.hpp:77] Creating layer cont_1_lstm1_cont_slice_0_split
I0722 16:03:00.431473 19762 net.cpp:91] Creating Layer cont_1_lstm1_cont_slice_0_split
I0722 16:03:00.431478 19762 net.cpp:425] cont_1_lstm1_cont_slice_0_split <- cont_1
I0722 16:03:00.431488 19762 net.cpp:399] cont_1_lstm1_cont_slice_0_split -> cont_1_lstm1_cont_slice_0_split_0
I0722 16:03:00.431499 19762 net.cpp:399] cont_1_lstm1_cont_slice_0_split -> cont_1_lstm1_cont_slice_0_split_1
I0722 16:03:00.455188 19762 net.cpp:141] Setting up cont_1_lstm1_cont_slice_0_split
I0722 16:03:00.455209 19762 net.cpp:148] Top shape: 1 1 (1)
I0722 16:03:00.455214 19762 net.cpp:148] Top shape: 1 1 (1)
I0722 16:03:00.455219 19762 net.cpp:156] Memory required for data: 10016
I0722 16:03:00.455224 19762 layer_factory.hpp:77] Creating layer lstm1_x_transform
I0722 16:03:00.455240 19762 net.cpp:91] Creating Layer lstm1_x_transform
I0722 16:03:00.455245 19762 net.cpp:425] lstm1_x_transform <- x
I0722 16:03:00.455252 19762 net.cpp:399] lstm1_x_transform -> W_xc_x
I0722 16:03:00.487710 19758 net.cpp:141] Setting up lstm1_transform_1
I0722 16:03:00.487753 19758 net.cpp:148] Top shape: 1 1 4000 (4000)
I0722 16:03:00.487759 19758 net.cpp:156] Memory required for data: 62016
I0722 16:03:00.487779 19758 layer_factory.hpp:77] Creating layer lstm1_gate_input_1
I0722 16:03:00.487799 19758 net.cpp:91] Creating Layer lstm1_gate_input_1
I0722 16:03:00.487805 19758 net.cpp:425] lstm1_gate_input_1 <- W_hc_h_0
I0722 16:03:00.487813 19758 net.cpp:425] lstm1_gate_input_1 <- W_xc_x_1
I0722 16:03:00.487821 19758 net.cpp:399] lstm1_gate_input_1 -> gate_input_1
I0722 16:03:00.490303 19758 net.cpp:141] Setting up lstm1_gate_input_1
I0722 16:03:00.490322 19758 net.cpp:148] Top shape: 1 1 4000 (4000)
I0722 16:03:00.490327 19758 net.cpp:156] Memory required for data: 78016
I0722 16:03:00.490332 19758 layer_factory.hpp:77] Creating layer lstm1_unit_1
I0722 16:03:00.490357 19758 net.cpp:91] Creating Layer lstm1_unit_1
I0722 16:03:00.490362 19758 net.cpp:425] lstm1_unit_1 <- c_0
I0722 16:03:00.490370 19758 net.cpp:425] lstm1_unit_1 <- gate_input_1
I0722 16:03:00.490375 19758 net.cpp:425] lstm1_unit_1 <- cont_1_lstm1_cont_slice_0_split_1
I0722 16:03:00.490381 19758 net.cpp:399] lstm1_unit_1 -> c_1
I0722 16:03:00.490391 19758 net.cpp:399] lstm1_unit_1 -> h_1
I0722 16:03:00.512065 19758 net.cpp:141] Setting up lstm1_unit_1
I0722 16:03:00.512094 19758 net.cpp:148] Top shape: 1 1 1000 (1000)
I0722 16:03:00.512101 19758 net.cpp:148] Top shape: 1 1 1000 (1000)
I0722 16:03:00.512106 19758 net.cpp:156] Memory required for data: 86016
I0722 16:03:00.512111 19758 layer_factory.hpp:77] Creating layer lstm1_
I0722 16:03:00.512126 19758 net.cpp:91] Creating Layer lstm1_
I0722 16:03:00.512131 19758 net.cpp:425] lstm1_ <- c_1
I0722 16:03:00.512140 19758 net.cpp:399] lstm1_ -> c_T
I0722 16:03:00.515132 19758 net.cpp:141] Setting up lstm1_
I0722 16:03:00.515154 19758 net.cpp:148] Top shape: 1 1 1000 (1000)
I0722 16:03:00.515161 19758 net.cpp:156] Memory required for data: 90016
I0722 16:03:00.515166 19758 layer_factory.hpp:77] Creating layer lstm1_h_concat
I0722 16:03:00.515183 19758 net.cpp:91] Creating Layer lstm1_h_concat
I0722 16:03:00.515189 19758 net.cpp:425] lstm1_h_concat <- h_1
I0722 16:03:00.515200 19758 net.cpp:399] lstm1_h_concat -> h
I0722 16:03:00.538118 19758 net.cpp:141] Setting up lstm1_h_concat
I0722 16:03:00.538138 19758 net.cpp:148] Top shape: 1 1 1000 (1000)
I0722 16:03:00.538144 19758 net.cpp:156] Memory required for data: 94016
I0722 16:03:00.538149 19758 layer_factory.hpp:77] Creating layer h_pseudoloss
I0722 16:03:00.538164 19758 net.cpp:91] Creating Layer h_pseudoloss
I0722 16:03:00.538169 19758 net.cpp:425] h_pseudoloss <- h
I0722 16:03:00.538177 19758 net.cpp:399] h_pseudoloss -> h_pseudoloss
I0722 16:03:00.538182 19762 net.cpp:141] Setting up lstm1_x_transform
I0722 16:03:00.538199 19762 net.cpp:148] Top shape: 1 1 4000 (4000)
I0722 16:03:00.538204 19762 net.cpp:156] Memory required for data: 26016
I0722 16:03:00.538218 19762 layer_factory.hpp:77] Creating layer lstm1_W_xc_x_slice
I0722 16:03:00.538233 19762 net.cpp:91] Creating Layer lstm1_W_xc_x_slice
I0722 16:03:00.538239 19762 net.cpp:425] lstm1_W_xc_x_slice <- W_xc_x
I0722 16:03:00.538246 19762 net.cpp:399] lstm1_W_xc_x_slice -> W_xc_x_1
I0722 16:03:00.542735 19762 net.cpp:141] Setting up lstm1_W_xc_x_slice
I0722 16:03:00.542754 19762 net.cpp:148] Top shape: 1 1 4000 (4000)
I0722 16:03:00.542759 19762 net.cpp:156] Memory required for data: 42016
I0722 16:03:00.542764 19762 layer_factory.hpp:77] Creating layer lstm1_h_conted_0
I0722 16:03:00.542776 19762 net.cpp:91] Creating Layer lstm1_h_conted_0
I0722 16:03:00.542781 19762 net.cpp:425] lstm1_h_conted_0 <- h_0
I0722 16:03:00.542788 19762 net.cpp:425] lstm1_h_conted_0 <- cont_1_lstm1_cont_slice_0_split_0
…
I0722 16:03:00.552652 19758 net.cpp:219] lstm1_ does not need backward computation.
I0722 16:03:00.552656 19758 net.cpp:261] This network produces output c_T
I0722 16:03:00.552660 19758 net.cpp:261] This network produces output h_pseudoloss
I0722 16:03:00.552678 19758 net.cpp:274] Network initialization done.
I0722 16:03:00.552733 19758 recurrent_layer.cpp:150] Adding parameter 0: W_xc
I0722 16:03:00.552739 19758 recurrent_layer.cpp:150] Adding parameter 1: b_c
I0722 16:03:00.552744 19758 recurrent_layer.cpp:150] Adding parameter 2: W_hc
I0722 16:03:00.553160 19762 net.cpp:141] Setting up lstm1_h_conted_0
I0722 16:03:00.553176 19762 net.cpp:148] Top shape: 1 1 1000 (1000)
I0722 16:03:00.553181 19762 net.cpp:156] Memory required for data: 46016
I0722 16:03:00.553186 19762 layer_factory.hpp:77] Creating layer lstm1_transform_1
I0722 16:03:00.553200 19762 net.cpp:91] Creating Layer lstm1_transform_1
I0722 16:03:00.553205 19762 net.cpp:425] lstm1_transform_1 <- h_conted_0
I0722 16:03:00.553215 19762 net.cpp:399] lstm1_transform_1 -> W_hc_h_0
I0722 16:03:00.562177 19758 net.cpp:141] Setting up lstm1
I0722 16:03:00.562216 19758 net.cpp:148] Top shape: 1 1 1000 (1000)
I0722 16:03:00.562221 19758 net.cpp:156] Memory required for data: 26408
I0722 16:03:00.562242 19758 layer_factory.hpp:77] Creating layer concat
I0722 16:03:00.562257 19758 net.cpp:91] Creating Layer concat
I0722 16:03:00.562263 19758 net.cpp:425] concat <- lstm1
I0722 16:03:00.562271 19758 net.cpp:425] concat <- embedded_input_sentence
I0722 16:03:00.562278 19758 net.cpp:425] concat <- reshaped_stage_indicator
I0722 16:03:00.562284 19758 net.cpp:399] concat -> lstm1_video_sequence
I0722 16:03:00.563364 19758 net.cpp:141] Setting up concat
I0722 16:03:00.563379 19758 net.cpp:148] Top shape: 1 1 1501 (1501)
I0722 16:03:00.563383 19758 net.cpp:156] Memory required for data: 32412
I0722 16:03:00.563390 19758 layer_factory.hpp:77] Creating layer lstm2
I0722 16:03:00.563403 19758 net.cpp:91] Creating Layer lstm2
I0722 16:03:00.563411 19758 net.cpp:425] lstm2 <- lstm1_video_sequence
I0722 16:03:00.563422 19758 net.cpp:425] lstm2 <- cont_sentence_input_1_split_1
I0722 16:03:00.563433 19758 net.cpp:399] lstm2 -> lstm2
I0722 16:03:00.563446 19758 recurrent_layer.cpp:20] Initializing recurrent layer: assuming input batch contains 1 timesteps of 1 independent streams.
I0722 16:03:00.563719 19758 net.cpp:49] Initializing net from parameters: 
layer {
  name: "lstm2_"
  type: "Input"
  top: "x"
  top: "cont"
  input_param {
    shape {
      dim: 1
      dim: 1
      dim: 1501
    }
    shape {
      dim: 1
      dim: 1
    }
  }
}
layer {
  name: "lstm2_"
  type: "Input"
  top: "c_0"
  top: "h_0"
  input_param {
    shape {
      dim: 1
      dim: 1
      dim: 1000
    }
    shape {
      dim: 1
      dim: 1
      dim: 1000
    }
  }
}
layer {
  name: "lstm2_cont_slice"
  type: "Slice"
  bottom: "cont"
  top: "cont_1"
  slice_param {
    axis: 0
  }
}
layer {
  name: "lstm2_x_transform"
  type: "InnerProduct"
  bottom: "x"
  top: "W_xc_x"
  param {
    name: "W_xc"
  }
  param {
    name: "b_c"
  }
  propagate_down: true
  inner_product_param {
    num_output: 4000
    bias_term: true
    weight_filler {
      type: "uniform"
      min: -0.08
      max: 0.08
    }
    bias_filler {
      type: "constant"
      value: 0
    }
    axis: 2
  }
}
layer {
  name: "lstm2_W_xc_x_slice"
  type: "Slice"
  bottom: "W_xc_x"
  top: "W_xc_x_1"
  slice_param {
    axis: 0
  }
}
layer {
  name: "lstm2_h_conted_0"
  type: "Scale"
  bottom: "h_0"
  bottom: "cont_1"
  top: "h_conted_0"
  scale_param {
    axis: 0
  }
}
layer {
  name: "lstm2_transform_1"
  type: "InnerProduct"
  bottom: "h_conted_0"
  top: "W_hc_h_0"
  param {
    name: "W_hc"
  }
  inner_product_param {
    num_output: 4000
    bias_term: false
    weight_filler {
      type: "uniform"
      min: -0.08
      max: 0.08
    }
    axis: 2
  }
}
layer {
  name: "lstm2_gate_input_1"
  type: "Eltwise"
  bottom: "W_hc_h_0"
  bottom: "W_xc_x_1"
  top: "gate_input_1"
  eltwise_param {
    operation: SUM
  }
}
layer {
  name: "lstm2_unit_1"
  type: "LSTMUnit"
  bottom: "c_0"
  bottom: "gate_input_1"
  bottom: "cont_1"
  top: "c_1"
  top: "h_1"
}
layer {
  name: "lstm2_"
  type: "Split"
  bottom: "c_1"
  top: "c_T"
}
layer {
  name: "lstm2_h_concat"
  type: "Concat"
  bottom: "h_1"
  top: "h"
  concat_param {
    axis: 0
  }
}
layer {
  name: "h_pseudoloss"
  type: "Reduction"
  bottom: "h"
  top: "h_pseudoloss"
  loss_weight: 1
}
I0722 16:03:00.563807 19758 layer_factory.hpp:77] Creating layer lstm2_
I0722 16:03:00.563819 19758 net.cpp:91] Creating Layer lstm2_
I0722 16:03:00.563825 19758 net.cpp:399] lstm2_ -> x
I0722 16:03:00.563837 19758 net.cpp:399] lstm2_ -> cont
I0722 16:03:00.565054 19776 net.cpp:141] Setting up conv1
I0722 16:03:00.565098 19776 net.cpp:148] Top shape: 10 96 55 55 (2904000)
I0722 16:03:00.565104 19776 net.cpp:156] Memory required for data: 17799480
I0722 16:03:00.565114 19758 net.cpp:141] Setting up lstm2_
I0722 16:03:00.565125 19776 layer_factory.hpp:77] Creating layer relu1
I0722 16:03:00.565143 19758 net.cpp:148] Top shape: 1 1 1501 (1501)
I0722 16:03:00.565151 19758 net.cpp:148] Top shape: 1 1 (1)
I0722 16:03:00.565155 19758 net.cpp:156] Memory required for data: 6008
I0722 16:03:00.565158 19776 net.cpp:91] Creating Layer relu1
I0722 16:03:00.565161 19758 layer_factory.hpp:77] Creating layer lstm2_
I0722 16:03:00.565166 19776 net.cpp:425] relu1 <- conv1
I0722 16:03:00.565176 19776 net.cpp:386] relu1 -> conv1 (in-place)
I0722 16:03:00.565178 19758 net.cpp:91] Creating Layer lstm2_
I0722 16:03:00.565189 19758 net.cpp:399] lstm2_ -> c_0
I0722 16:03:00.565202 19758 net.cpp:399] lstm2_ -> h_0
I0722 16:03:00.566539 19758 net.cpp:141] Setting up lstm2_
I0722 16:03:00.566547 19770 net.cpp:141] Setting up conv1
I0722 16:03:00.566556 19758 net.cpp:148] Top shape: 1 1 1000 (1000)
I0722 16:03:00.566570 19770 net.cpp:148] Top shape: 10 96 55 55 (2904000)
I0722 16:03:00.566572 19758 net.cpp:148] Top shape: 1 1 1000 (1000)
I0722 16:03:00.566577 19770 net.cpp:156] Memory required for data: 17799480
I0722 16:03:00.566576 19776 net.cpp:141] Setting up relu1
I0722 16:03:00.566578 19758 net.cpp:156] Memory required for data: 14008
I0722 16:03:00.566593 19758 layer_factory.hpp:77] Creating layer lstm2_cont_slice
I0722 16:03:00.566594 19776 net.cpp:148] Top shape: 10 96 55 55 (2904000)
I0722 16:03:00.566596 19770 layer_factory.hpp:77] Creating layer relu1
I0722 16:03:00.566601 19776 net.cpp:156] Memory required for data: 29415480
I0722 16:03:00.566606 19758 net.cpp:91] Creating Layer lstm2_cont_slice
I0722 16:03:00.566607 19776 layer_factory.hpp:77] Creating layer pool1
I0722 16:03:00.566607 19770 net.cpp:91] Creating Layer relu1
I0722 16:03:00.566612 19758 net.cpp:425] lstm2_cont_slice <- cont
I0722 16:03:00.566622 19770 net.cpp:425] relu1 <- conv1
I0722 16:03:00.566627 19776 net.cpp:91] Creating Layer pool1
I0722 16:03:00.566629 19770 net.cpp:386] relu1 -> conv1 (in-place)
I0722 16:03:00.566632 19758 net.cpp:399] lstm2_cont_slice -> cont_1
I0722 16:03:00.566633 19776 net.cpp:425] pool1 <- conv1
I0722 16:03:00.566653 19776 net.cpp:399] pool1 -> pool1
I0722 16:03:00.567284 19758 net.cpp:141] Setting up lstm2_cont_slice
I0722 16:03:00.567297 19758 net.cpp:148] Top shape: 1 1 (1)
I0722 16:03:00.567301 19758 net.cpp:156] Memory required for data: 14012
I0722 16:03:00.567306 19758 layer_factory.hpp:77] Creating layer cont_1_lstm2_cont_slice_0_split
I0722 16:03:00.567319 19758 net.cpp:91] Creating Layer cont_1_lstm2_cont_slice_0_split
I0722 16:03:00.567324 19758 net.cpp:425] cont_1_lstm2_cont_slice_0_split <- cont_1
I0722 16:03:00.567332 19758 net.cpp:399] cont_1_lstm2_cont_slice_0_split -> cont_1_lstm2_cont_slice_0_split_0
I0722 16:03:00.567339 19758 net.cpp:399] cont_1_lstm2_cont_slice_0_split -> cont_1_lstm2_cont_slice_0_split_1
I0722 16:03:00.567404 19776 net.cpp:141] Setting up pool1
I0722 16:03:00.567416 19776 net.cpp:148] Top shape: 10 96 27 27 (699840)
I0722 16:03:00.567421 19776 net.cpp:156] Memory required for data: 32214840
I0722 16:03:00.567426 19776 layer_factory.hpp:77] Creating layer norm1
I0722 16:03:00.567445 19776 net.cpp:91] Creating Layer norm1
I0722 16:03:00.567450 19776 net.cpp:425] norm1 <- pool1
I0722 16:03:00.567456 19776 net.cpp:399] norm1 -> norm1
I0722 16:03:00.567471 19770 net.cpp:141] Setting up relu1
I0722 16:03:00.567484 19770 net.cpp:148] Top shape: 10 96 55 55 (2904000)
I0722 16:03:00.567489 19770 net.cpp:156] Memory required for data: 29415480
I0722 16:03:00.567494 19770 layer_factory.hpp:77] Creating layer pool1
I0722 16:03:00.567499 19758 net.cpp:141] Setting up cont_1_lstm2_cont_slice_0_split
I0722 16:03:00.567504 19770 net.cpp:91] Creating Layer pool1
I0722 16:03:00.567510 19770 net.cpp:425] pool1 <- conv1
I0722 16:03:00.567512 19758 net.cpp:148] Top shape: 1 1 (1)
I0722 16:03:00.567523 19770 net.cpp:399] pool1 -> pool1
I0722 16:03:00.567528 19758 net.cpp:148] Top shape: 1 1 (1)
I0722 16:03:00.567533 19758 net.cpp:156] Memory required for data: 14020
I0722 16:03:00.567536 19758 layer_factory.hpp:77] Creating layer lstm2_x_transform
I0722 16:03:00.567553 19758 net.cpp:91] Creating Layer lstm2_x_transform
I0722 16:03:00.567558 19758 net.cpp:425] lstm2_x_transform <- x
I0722 16:03:00.567564 19758 net.cpp:399] lstm2_x_transform -> W_xc_x
I0722 16:03:00.568255 19770 net.cpp:141] Setting up pool1
I0722 16:03:00.568269 19770 net.cpp:148] Top shape: 10 96 27 27 (699840)
I0722 16:03:00.568272 19770 net.cpp:156] Memory required for data: 32214840
I0722 16:03:00.568277 19770 layer_factory.hpp:77] Creating layer norm1
I0722 16:03:00.568287 19770 net.cpp:91] Creating Layer norm1
I0722 16:03:00.568292 19770 net.cpp:425] norm1 <- pool1
I0722 16:03:00.568298 19770 net.cpp:399] norm1 -> norm1
I0722 16:03:00.584272 19770 net.cpp:141] Setting up norm1
I0722 16:03:00.584296 19770 net.cpp:148] Top shape: 10 96 27 27 (699840)
I0722 16:03:00.584302 19770 net.cpp:156] Memory required for data: 35014200
I0722 16:03:00.584307 19770 layer_factory.hpp:77] Creating layer conv2
I0722 16:03:00.584324 19770 net.cpp:91] Creating Layer conv2
I0722 16:03:00.584329 19770 net.cpp:425] conv2 <- norm1
I0722 16:03:00.584337 19770 net.cpp:399] conv2 -> conv2
I0722 16:03:00.584444 19776 net.cpp:141] Setting up norm1
I0722 16:03:00.584462 19776 net.cpp:148] Top shape: 10 96 27 27 (699840)
I0722 16:03:00.584471 19776 net.cpp:156] Memory required for data: 35014200
I0722 16:03:00.584481 19776 layer_factory.hpp:77] Creating layer conv2
I0722 16:03:00.584496 19776 net.cpp:91] Creating Layer conv2
I0722 16:03:00.584501 19776 net.cpp:425] conv2 <- norm1
I0722 16:03:00.584508 19776 net.cpp:399] conv2 -> conv2
I0722 16:03:00.593364 19770 net.cpp:141] Setting up conv2
I0722 16:03:00.593415 19770 net.cpp:148] Top shape: 10 256 27 27 (1866240)
I0722 16:03:00.593420 19770 net.cpp:156] Memory required for data: 42479160
I0722 16:03:00.593446 19770 layer_factory.hpp:77] Creating layer relu2
I0722 16:03:00.593462 19770 net.cpp:91] Creating Layer relu2
I0722 16:03:00.593469 19770 net.cpp:425] relu2 <- conv2
I0722 16:03:00.593477 19770 net.cpp:386] relu2 -> conv2 (in-place)
I0722 16:03:00.594395 19762 net.cpp:141] Setting up lstm1_transform_1
I0722 16:03:00.594434 19762 net.cpp:148] Top shape: 1 1 4000 (4000)
I0722 16:03:00.594439 19762 net.cpp:156] Memory required for data: 62016
I0722 16:03:00.594456 19762 layer_factory.hpp:77] Creating layer lstm1_gate_input_1
I0722 16:03:00.594460 19776 net.cpp:141] Setting up conv2
I0722 16:03:00.594477 19776 net.cpp:148] Top shape: 10 256 27 27 (1866240)
I0722 16:03:00.594477 19762 net.cpp:91] Creating Layer lstm1_gate_input_1
I0722 16:03:00.594485 19776 net.cpp:156] Memory required for data: 42479160
I0722 16:03:00.594486 19762 net.cpp:425] lstm1_gate_input_1 <- W_hc_h_0
I0722 16:03:00.594485 19770 net.cpp:141] Setting up relu2
I0722 16:03:00.594497 19762 net.cpp:425] lstm1_gate_input_1 <- W_xc_x_1
I0722 16:03:00.594499 19776 layer_factory.hpp:77] Creating layer relu2
I0722 16:03:00.594501 19770 net.cpp:148] Top shape: 10 256 27 27 (1866240)
I0722 16:03:00.594506 19762 net.cpp:399] lstm1_gate_input_1 -> gate_input_1
I0722 16:03:00.594509 19776 net.cpp:91] Creating Layer relu2
I0722 16:03:00.594516 19776 net.cpp:425] relu2 <- conv2
I0722 16:03:00.594507 19770 net.cpp:156] Memory required for data: 49944120
I0722 16:03:00.594522 19770 layer_factory.hpp:77] Creating layer pool2
I0722 16:03:00.594527 19776 net.cpp:386] relu2 -> conv2 (in-place)
I0722 16:03:00.594533 19770 net.cpp:91] Creating Layer pool2
I0722 16:03:00.594542 19770 net.cpp:425] pool2 <- conv2
I0722 16:03:00.594548 19770 net.cpp:399] pool2 -> pool2
I0722 16:03:00.595262 19762 net.cpp:141] Setting up lstm1_gate_input_1
I0722 16:03:00.595275 19762 net.cpp:148] Top shape: 1 1 4000 (4000)
I0722 16:03:00.595279 19762 net.cpp:156] Memory required for data: 78016
I0722 16:03:00.595283 19762 layer_factory.hpp:77] Creating layer lstm1_unit_1
I0722 16:03:00.595293 19762 net.cpp:91] Creating Layer lstm1_unit_1
I0722 16:03:00.595296 19762 net.cpp:425] lstm1_unit_1 <- c_0
I0722 16:03:00.595302 19762 net.cpp:425] lstm1_unit_1 <- gate_input_1
I0722 16:03:00.595310 19762 net.cpp:425] lstm1_unit_1 <- cont_1_lstm1_cont_slice_0_split_1
I0722 16:03:00.595316 19762 net.cpp:399] lstm1_unit_1 -> c_1
I0722 16:03:00.595325 19762 net.cpp:399] lstm1_unit_1 -> h_1
I0722 16:03:00.595382 19770 net.cpp:141] Setting up pool2
I0722 16:03:00.595394 19770 net.cpp:148] Top shape: 10 256 13 13 (432640)
I0722 16:03:00.595398 19770 net.cpp:156] Memory required for data: 51674680
I0722 16:03:00.595403 19770 layer_factory.hpp:77] Creating layer norm2
I0722 16:03:00.595417 19770 net.cpp:91] Creating Layer norm2
I0722 16:03:00.595422 19770 net.cpp:425] norm2 <- pool2
I0722 16:03:00.595429 19770 net.cpp:399] norm2 -> norm2
I0722 16:03:00.595466 19776 net.cpp:141] Setting up relu2
I0722 16:03:00.595479 19776 net.cpp:148] Top shape: 10 256 27 27 (1866240)
I0722 16:03:00.595484 19776 net.cpp:156] Memory required for data: 49944120
I0722 16:03:00.595489 19776 layer_factory.hpp:77] Creating layer pool2
I0722 16:03:00.595501 19776 net.cpp:91] Creating Layer pool2
I0722 16:03:00.595506 19776 net.cpp:425] pool2 <- conv2
I0722 16:03:00.595512 19776 net.cpp:399] pool2 -> pool2
I0722 16:03:00.595767 19762 net.cpp:141] Setting up lstm1_unit_1
I0722 16:03:00.595779 19762 net.cpp:148] Top shape: 1 1 1000 (1000)
I0722 16:03:00.595784 19762 net.cpp:148] Top shape: 1 1 1000 (1000)
I0722 16:03:00.595789 19762 net.cpp:156] Memory required for data: 86016
I0722 16:03:00.595793 19762 layer_factory.hpp:77] Creating layer lstm1_
I0722 16:03:00.595801 19776 net.cpp:141] Setting up pool2
I0722 16:03:00.595804 19762 net.cpp:91] Creating Layer lstm1_
I0722 16:03:00.595815 19776 net.cpp:148] Top shape: 10 256 13 13 (432640)
I0722 16:03:00.595818 19762 net.cpp:425] lstm1_ <- c_1
I0722 16:03:00.595820 19776 net.cpp:156] Memory required for data: 51674680
I0722 16:03:00.595827 19762 net.cpp:399] lstm1_ -> c_T
I0722 16:03:00.595827 19776 layer_factory.hpp:77] Creating layer norm2
I0722 16:03:00.595851 19776 net.cpp:91] Creating Layer norm2
I0722 16:03:00.595856 19776 net.cpp:425] norm2 <- pool2
I0722 16:03:00.595865 19776 net.cpp:399] norm2 -> norm2
I0722 16:03:00.595892 19762 net.cpp:141] Setting up lstm1_
I0722 16:03:00.595902 19762 net.cpp:148] Top shape: 1 1 1000 (1000)
I0722 16:03:00.595906 19762 net.cpp:156] Memory required for data: 90016
I0722 16:03:00.595911 19762 layer_factory.hpp:77] Creating layer lstm1_h_concat
I0722 16:03:00.595923 19762 net.cpp:91] Creating Layer lstm1_h_concat
I0722 16:03:00.595928 19762 net.cpp:425] lstm1_h_concat <- h_1
I0722 16:03:00.595937 19762 net.cpp:399] lstm1_h_concat -> h
I0722 16:03:00.596153 19762 net.cpp:141] Setting up lstm1_h_concat
I0722 16:03:00.596163 19762 net.cpp:148] Top shape: 1 1 1000 (1000)
I0722 16:03:00.596166 19762 net.cpp:156] Memory required for data: 94016
I0722 16:03:00.596171 19762 layer_factory.hpp:77] Creating layer h_pseudoloss
I0722 16:03:00.596180 19762 net.cpp:91] Creating Layer h_pseudoloss
I0722 16:03:00.596184 19762 net.cpp:425] h_pseudoloss <- h
I0722 16:03:00.596190 19762 net.cpp:399] h_pseudoloss -> h_pseudoloss
I0722 16:03:00.596209 19770 net.cpp:141] Setting up norm2
I0722 16:03:00.596220 19770 net.cpp:148] Top shape: 10 256 13 13 (432640)
I0722 16:03:00.596225 19770 net.cpp:156] Memory required for data: 53405240
I0722 16:03:00.596230 19770 layer_factory.hpp:77] Creating layer conv3
I0722 16:03:00.596247 19770 net.cpp:91] Creating Layer conv3
I0722 16:03:00.596253 19770 net.cpp:425] conv3 <- norm2
I0722 16:03:00.596259 19770 net.cpp:399] conv3 -> conv3
I0722 16:03:00.596549 19762 net.cpp:141] Setting up h_pseudoloss
I0722 16:03:00.596561 19762 net.cpp:148] Top shape: (1)
I0722 16:03:00.596572 19776 net.cpp:141] Setting up norm2
I0722 16:03:00.596565 19762 net.cpp:151]     with loss weight 1
I0722 16:03:00.596590 19776 net.cpp:148] Top shape: 10 256 13 13 (432640)
I0722 16:03:00.596597 19776 net.cpp:156] Memory required for data: 53405240
I0722 16:03:00.596590 19762 net.cpp:156] Memory required for data: 94020
I0722 16:03:00.596606 19776 layer_factory.hpp:77] Creating layer conv3
I0722 16:03:00.596613 19762 net.cpp:217] h_pseudoloss needs backward computation.
I0722 16:03:00.596626 19762 net.cpp:217] lstm1_h_concat needs backward computation.
…
I0722 16:03:00.596696 19762 net.cpp:219] lstm1_ does not need backward computation.
I0722 16:03:00.596699 19762 net.cpp:261] This network produces output c_T
I0722 16:03:00.596704 19762 net.cpp:261] This network produces output h_pseudoloss
I0722 16:03:00.596719 19762 net.cpp:274] Network initialization done.
I0722 16:03:00.596765 19762 recurrent_layer.cpp:150] Adding parameter 0: W_xc
I0722 16:03:00.596771 19762 recurrent_layer.cpp:150] Adding parameter 1: b_c
I0722 16:03:00.596776 19762 recurrent_layer.cpp:150] Adding parameter 2: W_hc
I0722 16:03:00.600003 19762 net.cpp:141] Setting up lstm1
I0722 16:03:00.600023 19762 net.cpp:148] Top shape: 1 1 1000 (1000)
I0722 16:03:00.600033 19762 net.cpp:156] Memory required for data: 26408
I0722 16:03:00.600057 19762 layer_factory.hpp:77] Creating layer concat
I0722 16:03:00.600071 19762 net.cpp:91] Creating Layer concat
I0722 16:03:00.600081 19762 net.cpp:425] concat <- lstm1
I0722 16:03:00.600092 19762 net.cpp:425] concat <- embedded_input_sentence
I0722 16:03:00.600102 19762 net.cpp:425] concat <- reshaped_stage_indicator
I0722 16:03:00.600116 19762 net.cpp:399] concat -> lstm1_video_sequence
I0722 16:03:00.603147 19762 net.cpp:141] Setting up concat
I0722 16:03:00.603175 19762 net.cpp:148] Top shape: 1 1 1501 (1501)
I0722 16:03:00.603186 19762 net.cpp:156] Memory required for data: 32412
I0722 16:03:00.603195 19762 layer_factory.hpp:77] Creating layer lstm2
I0722 16:03:00.603215 19762 net.cpp:91] Creating Layer lstm2
I0722 16:03:00.603224 19762 net.cpp:425] lstm2 <- lstm1_video_sequence
I0722 16:03:00.603235 19762 net.cpp:425] lstm2 <- cont_sentence_input_1_split_1
I0722 16:03:00.603248 19762 net.cpp:399] lstm2 -> lstm2
I0722 16:03:00.603266 19762 recurrent_layer.cpp:20] Initializing recurrent layer: assuming input batch contains 1 timesteps of 1 independent streams.
I0722 16:03:00.603652 19762 net.cpp:49] Initializing net from parameters: 
layer {
  name: "lstm2_"
  type: "Input"
  top: "x"
  top: "cont"
  input_param {
    shape {
      dim: 1
      dim: 1
      dim: 1501
    }
    shape {
      dim: 1
      dim: 1
    }
  }
}
layer {
  name: "lstm2_"
  type: "Input"
  top: "c_0"
  top: "h_0"
  input_param {
    shape {
      dim: 1
      dim: 1
      dim: 1000
    }
    shape {
      dim: 1
      dim: 1
      dim: 1000
    }
  }
}
layer {
  name: "lstm2_cont_slice"
  type: "Slice"
  bottom: "cont"
  top: "cont_1"
  slice_param {
    axis: 0
  }
}
layer {
  name: "lstm2_x_transform"
  type: "InnerProduct"
  bottom: "x"
  top: "W_xc_x"
  param {
    name: "W_xc"
  }
  param {
    name: "b_c"
  }
  propagate_down: true
  inner_product_param {
    num_output: 4000
    bias_term: true
    weight_filler {
      type: "uniform"
      min: -0.08
      max: 0.08
    }
    bias_filler {
      type: "constant"
      value: 0
    }
    axis: 2
  }
}
layer {
  name: "lstm2_W_xc_x_slice"
  type: "Slice"
  bottom: "W_xc_x"
  top: "W_xc_x_1"
  slice_param {
    axis: 0
  }
}
layer {
  name: "lstm2_h_conted_0"
  type: "Scale"
  bottom: "h_0"
  bottom: "cont_1"
  top: "h_conted_0"
  scale_param {
    axis: 0
  }
}
layer {
  name: "lstm2_transform_1"
  type: "InnerProduct"
  bottom: "h_conted_0"
  top: "W_hc_h_0"
  param {
    name: "W_hc"
  }
  inner_product_param {
    num_output: 4000
    bias_term: false
    weight_filler {
      type: "uniform"
      min: -0.08
      max: 0.08
    }
    axis: 2
  }
}
layer {
  name: "lstm2_gate_input_1"
  type: "Eltwise"
  bottom: "W_hc_h_0"
  bottom: "W_xc_x_1"
  top: "gate_input_1"
  eltwise_param {
    operation: SUM
  }
}
layer {
  name: "lstm2_unit_1"
  type: "LSTMUnit"
  bottom: "c_0"
  bottom: "gate_input_1"
  bottom: "cont_1"
  top: "c_1"
  top: "h_1"
}
layer {
  name: "lstm2_"
  type: "Split"
  bottom: "c_1"
  top: "c_T"
}
layer {
  name: "lstm2_h_concat"
  type: "Concat"
  bottom: "h_1"
  top: "h"
  concat_param {
    axis: 0
  }
}
layer {
  name: "h_pseudoloss"
  type: "Reduction"
  bottom: "h"
  top: "h_pseudoloss"
  loss_weight: 1
}
I0722 16:03:00.603782 19762 layer_factory.hpp:77] Creating layer lstm2_
I0722 16:03:00.603799 19762 net.cpp:91] Creating Layer lstm2_
I0722 16:03:00.603809 19762 net.cpp:399] lstm2_ -> x
I0722 16:03:00.603827 19762 net.cpp:399] lstm2_ -> cont
I0722 16:03:00.604826 19762 net.cpp:141] Setting up lstm2_
I0722 16:03:00.604845 19762 net.cpp:148] Top shape: 1 1 1501 (1501)
I0722 16:03:00.604856 19762 net.cpp:148] Top shape: 1 1 (1)
I0722 16:03:00.604862 19762 net.cpp:156] Memory required for data: 6008
I0722 16:03:00.604871 19762 layer_factory.hpp:77] Creating layer lstm2_
I0722 16:03:00.604885 19762 net.cpp:91] Creating Layer lstm2_
I0722 16:03:00.604898 19762 net.cpp:399] lstm2_ -> c_0
I0722 16:03:00.604917 19762 net.cpp:399] lstm2_ -> h_0
I0722 16:03:00.605895 19762 net.cpp:141] Setting up lstm2_
I0722 16:03:00.605911 19762 net.cpp:148] Top shape: 1 1 1000 (1000)
I0722 16:03:00.605916 19762 net.cpp:148] Top shape: 1 1 1000 (1000)
I0722 16:03:00.605919 19762 net.cpp:156] Memory required for data: 14008
I0722 16:03:00.605924 19762 layer_factory.hpp:77] Creating layer lstm2_cont_slice
I0722 16:03:00.605934 19762 net.cpp:91] Creating Layer lstm2_cont_slice
I0722 16:03:00.605939 19762 net.cpp:425] lstm2_cont_slice <- cont
I0722 16:03:00.605948 19762 net.cpp:399] lstm2_cont_slice -> cont_1
I0722 16:03:00.606061 19762 net.cpp:141] Setting up lstm2_cont_slice
I0722 16:03:00.606072 19762 net.cpp:148] Top shape: 1 1 (1)
I0722 16:03:00.606076 19762 net.cpp:156] Memory required for data: 14012
I0722 16:03:00.606081 19762 layer_factory.hpp:77] Creating layer cont_1_lstm2_cont_slice_0_split
I0722 16:03:00.606088 19762 net.cpp:91] Creating Layer cont_1_lstm2_cont_slice_0_split
I0722 16:03:00.606096 19762 net.cpp:425] cont_1_lstm2_cont_slice_0_split <- cont_1
I0722 16:03:00.606104 19762 net.cpp:399] cont_1_lstm2_cont_slice_0_split -> cont_1_lstm2_cont_slice_0_split_0
I0722 16:03:00.606113 19762 net.cpp:399] cont_1_lstm2_cont_slice_0_split -> cont_1_lstm2_cont_slice_0_split_1
I0722 16:03:00.607236 19762 net.cpp:141] Setting up cont_1_lstm2_cont_slice_0_split
I0722 16:03:00.607249 19762 net.cpp:148] Top shape: 1 1 (1)
I0722 16:03:00.607254 19762 net.cpp:148] Top shape: 1 1 (1)
I0722 16:03:00.607259 19762 net.cpp:156] Memory required for data: 14020
I0722 16:03:00.607262 19762 layer_factory.hpp:77] Creating layer lstm2_x_transform
I0722 16:03:00.607276 19762 net.cpp:91] Creating Layer lstm2_x_transform
I0722 16:03:00.607281 19762 net.cpp:425] lstm2_x_transform <- x
I0722 16:03:00.607290 19762 net.cpp:399] lstm2_x_transform -> W_xc_x
I0722 16:03:00.621598 19776 net.cpp:141] Setting up conv3
I0722 16:03:00.621651 19776 net.cpp:148] Top shape: 10 384 13 13 (648960)
I0722 16:03:00.621657 19776 net.cpp:156] Memory required for data: 56001080
I0722 16:03:00.621681 19776 layer_factory.hpp:77] Creating layer relu3
I0722 16:03:00.621701 19776 net.cpp:91] Creating Layer relu3
I0722 16:03:00.621706 19776 net.cpp:425] relu3 <- conv3
I0722 16:03:00.621721 19776 net.cpp:386] relu3 -> conv3 (in-place)
I0722 16:03:00.621773 19770 net.cpp:141] Setting up conv3
I0722 16:03:00.621795 19770 net.cpp:148] Top shape: 10 384 13 13 (648960)
I0722 16:03:00.621803 19770 net.cpp:156] Memory required for data: 56001080
I0722 16:03:00.621825 19770 layer_factory.hpp:77] Creating layer relu3
I0722 16:03:00.621843 19770 net.cpp:91] Creating Layer relu3
I0722 16:03:00.621853 19770 net.cpp:425] relu3 <- conv3
I0722 16:03:00.621865 19770 net.cpp:386] relu3 -> conv3 (in-place)
I0722 16:03:00.623471 19776 net.cpp:141] Setting up relu3
I0722 16:03:00.623489 19776 net.cpp:148] Top shape: 10 384 13 13 (648960)
I0722 16:03:00.623494 19776 net.cpp:156] Memory required for data: 58596920
I0722 16:03:00.623500 19776 layer_factory.hpp:77] Creating layer conv4
I0722 16:03:00.623519 19776 net.cpp:91] Creating Layer conv4
I0722 16:03:00.623525 19776 net.cpp:425] conv4 <- conv3
I0722 16:03:00.623538 19776 net.cpp:399] conv4 -> conv4
I0722 16:03:00.624295 19770 net.cpp:141] Setting up relu3
I0722 16:03:00.624317 19770 net.cpp:148] Top shape: 10 384 13 13 (648960)
I0722 16:03:00.624325 19770 net.cpp:156] Memory required for data: 58596920
I0722 16:03:00.624333 19770 layer_factory.hpp:77] Creating layer conv4
I0722 16:03:00.624351 19770 net.cpp:91] Creating Layer conv4
I0722 16:03:00.624361 19770 net.cpp:425] conv4 <- conv3
I0722 16:03:00.624373 19770 net.cpp:399] conv4 -> conv4
I0722 16:03:00.635560 19758 net.cpp:141] Setting up lstm2_x_transform
I0722 16:03:00.635607 19758 net.cpp:148] Top shape: 1 1 4000 (4000)
I0722 16:03:00.635612 19758 net.cpp:156] Memory required for data: 30020
I0722 16:03:00.635632 19758 layer_factory.hpp:77] Creating layer lstm2_W_xc_x_slice
I0722 16:03:00.635648 19758 net.cpp:91] Creating Layer lstm2_W_xc_x_slice
I0722 16:03:00.635654 19758 net.cpp:425] lstm2_W_xc_x_slice <- W_xc_x
I0722 16:03:00.635664 19758 net.cpp:399] lstm2_W_xc_x_slice -> W_xc_x_1
I0722 16:03:00.635923 19770 net.cpp:141] Setting up conv4
I0722 16:03:00.635949 19770 net.cpp:148] Top shape: 10 384 13 13 (648960)
I0722 16:03:00.635956 19770 net.cpp:156] Memory required for data: 61192760
I0722 16:03:00.635967 19770 layer_factory.hpp:77] Creating layer relu4
I0722 16:03:00.635972 19758 net.cpp:141] Setting up lstm2_W_xc_x_slice
I0722 16:03:00.635982 19770 net.cpp:91] Creating Layer relu4
I0722 16:03:00.635984 19758 net.cpp:148] Top shape: 1 1 4000 (4000)
I0722 16:03:00.635987 19770 net.cpp:425] relu4 <- conv4
I0722 16:03:00.635989 19758 net.cpp:156] Memory required for data: 46020
I0722 16:03:00.635995 19758 layer_factory.hpp:77] Creating layer lstm2_h_conted_0
I0722 16:03:00.635995 19770 net.cpp:386] relu4 -> conv4 (in-place)
I0722 16:03:00.636008 19758 net.cpp:91] Creating Layer lstm2_h_conted_0
I0722 16:03:00.636013 19758 net.cpp:425] lstm2_h_conted_0 <- h_0
I0722 16:03:00.636018 19758 net.cpp:425] lstm2_h_conted_0 <- cont_1_lstm2_cont_slice_0_split_0
I0722 16:03:00.636029 19758 net.cpp:399] lstm2_h_conted_0 -> h_conted_0
I0722 16:03:00.637020 19770 net.cpp:141] Setting up relu4
I0722 16:03:00.637034 19770 net.cpp:148] Top shape: 10 384 13 13 (648960)
I0722 16:03:00.637038 19770 net.cpp:156] Memory required for data: 63788600
I0722 16:03:00.637044 19770 layer_factory.hpp:77] Creating layer conv5
I0722 16:03:00.637043 19758 net.cpp:141] Setting up lstm2_h_conted_0
I0722 16:03:00.637055 19758 net.cpp:148] Top shape: 1 1 1000 (1000)
I0722 16:03:00.637059 19758 net.cpp:156] Memory required for data: 50020
I0722 16:03:00.637064 19758 layer_factory.hpp:77] Creating layer lstm2_transform_1
I0722 16:03:00.637066 19770 net.cpp:91] Creating Layer conv5
I0722 16:03:00.637073 19770 net.cpp:425] conv5 <- conv4
I0722 16:03:00.637079 19758 net.cpp:91] Creating Layer lstm2_transform_1
I0722 16:03:00.637084 19770 net.cpp:399] conv5 -> conv5
I0722 16:03:00.637086 19758 net.cpp:425] lstm2_transform_1 <- h_conted_0
I0722 16:03:00.637094 19758 net.cpp:399] lstm2_transform_1 -> W_hc_h_0
I0722 16:03:00.637125 19776 net.cpp:141] Setting up conv4
I0722 16:03:00.637143 19776 net.cpp:148] Top shape: 10 384 13 13 (648960)
I0722 16:03:00.637148 19776 net.cpp:156] Memory required for data: 61192760
I0722 16:03:00.637158 19776 layer_factory.hpp:77] Creating layer relu4
I0722 16:03:00.637169 19776 net.cpp:91] Creating Layer relu4
I0722 16:03:00.637176 19776 net.cpp:425] relu4 <- conv4
I0722 16:03:00.637181 19776 net.cpp:386] relu4 -> conv4 (in-place)
I0722 16:03:00.646739 19776 net.cpp:141] Setting up relu4
I0722 16:03:00.646760 19776 net.cpp:148] Top shape: 10 384 13 13 (648960)
I0722 16:03:00.646766 19776 net.cpp:156] Memory required for data: 63788600
I0722 16:03:00.646771 19776 layer_factory.hpp:77] Creating layer conv5
I0722 16:03:00.646781 19776 net.cpp:91] Creating Layer conv5
I0722 16:03:00.646787 19776 net.cpp:425] conv5 <- conv4
I0722 16:03:00.646798 19776 net.cpp:399] conv5 -> conv5
I0722 16:03:00.656855 19770 net.cpp:141] Setting up conv5
I0722 16:03:00.656878 19770 net.cpp:148] Top shape: 10 256 13 13 (432640)
I0722 16:03:00.656884 19770 net.cpp:156] Memory required for data: 65519160
I0722 16:03:00.656899 19770 layer_factory.hpp:77] Creating layer relu5
I0722 16:03:00.656909 19770 net.cpp:91] Creating Layer relu5
I0722 16:03:00.656914 19770 net.cpp:425] relu5 <- conv5
I0722 16:03:00.656924 19770 net.cpp:386] relu5 -> conv5 (in-place)
I0722 16:03:00.657774 19776 net.cpp:141] Setting up conv5
I0722 16:03:00.657788 19770 net.cpp:141] Setting up relu5
I0722 16:03:00.657799 19776 net.cpp:148] Top shape: 10 256 13 13 (432640)
I0722 16:03:00.657802 19770 net.cpp:148] Top shape: 10 256 13 13 (432640)
I0722 16:03:00.657810 19776 net.cpp:156] Memory required for data: 65519160
I0722 16:03:00.657814 19770 net.cpp:156] Memory required for data: 67249720
I0722 16:03:00.657819 19770 layer_factory.hpp:77] Creating layer pool5
I0722 16:03:00.657824 19776 layer_factory.hpp:77] Creating layer relu5
I0722 16:03:00.657833 19770 net.cpp:91] Creating Layer pool5
I0722 16:03:00.657833 19776 net.cpp:91] Creating Layer relu5
I0722 16:03:00.657840 19770 net.cpp:425] pool5 <- conv5
I0722 16:03:00.657845 19776 net.cpp:425] relu5 <- conv5
I0722 16:03:00.657847 19770 net.cpp:399] pool5 -> pool5
I0722 16:03:00.657851 19776 net.cpp:386] relu5 -> conv5 (in-place)
I0722 16:03:00.659142 19770 net.cpp:141] Setting up pool5
I0722 16:03:00.659157 19770 net.cpp:148] Top shape: 10 256 6 6 (92160)
I0722 16:03:00.659160 19770 net.cpp:156] Memory required for data: 67618360
I0722 16:03:00.659165 19770 layer_factory.hpp:77] Creating layer fc6
I0722 16:03:00.659180 19770 net.cpp:91] Creating Layer fc6
I0722 16:03:00.659185 19770 net.cpp:425] fc6 <- pool5
I0722 16:03:00.659191 19770 net.cpp:399] fc6 -> fc6
I0722 16:03:00.659204 19776 net.cpp:141] Setting up relu5
I0722 16:03:00.659217 19776 net.cpp:148] Top shape: 10 256 13 13 (432640)
I0722 16:03:00.659222 19776 net.cpp:156] Memory required for data: 67249720
I0722 16:03:00.659227 19776 layer_factory.hpp:77] Creating layer pool5
I0722 16:03:00.659238 19776 net.cpp:91] Creating Layer pool5
I0722 16:03:00.659245 19776 net.cpp:425] pool5 <- conv5
I0722 16:03:00.659250 19776 net.cpp:399] pool5 -> pool5
I0722 16:03:00.721035 19758 net.cpp:141] Setting up lstm2_transform_1
I0722 16:03:00.721086 19758 net.cpp:148] Top shape: 1 1 4000 (4000)
I0722 16:03:00.721093 19758 net.cpp:156] Memory required for data: 66020
I0722 16:03:00.721118 19758 layer_factory.hpp:77] Creating layer lstm2_gate_input_1
I0722 16:03:00.721138 19758 net.cpp:91] Creating Layer lstm2_gate_input_1
I0722 16:03:00.721146 19758 net.cpp:425] lstm2_gate_input_1 <- W_hc_h_0
I0722 16:03:00.721155 19758 net.cpp:425] lstm2_gate_input_1 <- W_xc_x_1
I0722 16:03:00.721164 19758 net.cpp:399] lstm2_gate_input_1 -> gate_input_1
I0722 16:03:00.724175 19776 net.cpp:141] Setting up pool5
I0722 16:03:00.724191 19758 net.cpp:141] Setting up lstm2_gate_input_1
I0722 16:03:00.724197 19776 net.cpp:148] Top shape: 10 256 6 6 (92160)
I0722 16:03:00.724213 19758 net.cpp:148] Top shape: 1 1 4000 (4000)
I0722 16:03:00.724216 19776 net.cpp:156] Memory required for data: 67618360
I0722 16:03:00.724218 19758 net.cpp:156] Memory required for data: 82020
I0722 16:03:00.724223 19776 layer_factory.hpp:77] Creating layer fc6
I0722 16:03:00.724226 19758 layer_factory.hpp:77] Creating layer lstm2_unit_1
I0722 16:03:00.724241 19758 net.cpp:91] Creating Layer lstm2_unit_1
I0722 16:03:00.724247 19758 net.cpp:425] lstm2_unit_1 <- c_0
I0722 16:03:00.724247 19776 net.cpp:91] Creating Layer fc6
I0722 16:03:00.724256 19758 net.cpp:425] lstm2_unit_1 <- gate_input_1
I0722 16:03:00.724256 19776 net.cpp:425] fc6 <- pool5
I0722 16:03:00.724264 19758 net.cpp:425] lstm2_unit_1 <- cont_1_lstm2_cont_slice_0_split_1
I0722 16:03:00.724272 19776 net.cpp:399] fc6 -> fc6
I0722 16:03:00.724273 19758 net.cpp:399] lstm2_unit_1 -> c_1
I0722 16:03:00.724283 19758 net.cpp:399] lstm2_unit_1 -> h_1
I0722 16:03:00.794200 19762 net.cpp:141] Setting up lstm2_x_transform
I0722 16:03:00.794247 19762 net.cpp:148] Top shape: 1 1 4000 (4000)
I0722 16:03:00.794253 19762 net.cpp:156] Memory required for data: 30020
I0722 16:03:00.794278 19762 layer_factory.hpp:77] Creating layer lstm2_W_xc_x_slice
I0722 16:03:00.794297 19762 net.cpp:91] Creating Layer lstm2_W_xc_x_slice
I0722 16:03:00.794304 19762 net.cpp:425] lstm2_W_xc_x_slice <- W_xc_x
I0722 16:03:00.794294 19758 net.cpp:141] Setting up lstm2_unit_1
I0722 16:03:00.794315 19762 net.cpp:399] lstm2_W_xc_x_slice -> W_xc_x_1
I0722 16:03:00.794328 19758 net.cpp:148] Top shape: 1 1 1000 (1000)
I0722 16:03:00.794337 19758 net.cpp:148] Top shape: 1 1 1000 (1000)
I0722 16:03:00.794340 19758 net.cpp:156] Memory required for data: 90020
I0722 16:03:00.794348 19758 layer_factory.hpp:77] Creating layer lstm2_
I0722 16:03:00.794361 19758 net.cpp:91] Creating Layer lstm2_
I0722 16:03:00.794368 19758 net.cpp:425] lstm2_ <- c_1
I0722 16:03:00.794379 19758 net.cpp:399] lstm2_ -> c_T
I0722 16:03:00.794483 19762 net.cpp:141] Setting up lstm2_W_xc_x_slice
I0722 16:03:00.794495 19762 net.cpp:148] Top shape: 1 1 4000 (4000)
I0722 16:03:00.794499 19762 net.cpp:156] Memory required for data: 46020
I0722 16:03:00.794504 19762 layer_factory.hpp:77] Creating layer lstm2_h_conted_0
I0722 16:03:00.794514 19762 net.cpp:91] Creating Layer lstm2_h_conted_0
I0722 16:03:00.794519 19762 net.cpp:425] lstm2_h_conted_0 <- h_0
I0722 16:03:00.794525 19762 net.cpp:425] lstm2_h_conted_0 <- cont_1_lstm2_cont_slice_0_split_0
I0722 16:03:00.794533 19762 net.cpp:399] lstm2_h_conted_0 -> h_conted_0
I0722 16:03:00.794530 19770 net.cpp:141] Setting up fc6
I0722 16:03:00.794539 19758 net.cpp:141] Setting up lstm2_
I0722 16:03:00.794549 19770 net.cpp:148] Top shape: 10 4096 (40960)
I0722 16:03:00.794551 19758 net.cpp:148] Top shape: 1 1 1000 (1000)
I0722 16:03:00.794554 19770 net.cpp:156] Memory required for data: 67782200
I0722 16:03:00.794555 19758 net.cpp:156] Memory required for data: 94020
I0722 16:03:00.794567 19758 layer_factory.hpp:77] Creating layer lstm2_h_concat
I0722 16:03:00.794571 19770 layer_factory.hpp:77] Creating layer relu6
I0722 16:03:00.794579 19758 net.cpp:91] Creating Layer lstm2_h_concat
I0722 16:03:00.794581 19770 net.cpp:91] Creating Layer relu6
I0722 16:03:00.794586 19758 net.cpp:425] lstm2_h_concat <- h_1
I0722 16:03:00.794589 19770 net.cpp:425] relu6 <- fc6
I0722 16:03:00.794594 19758 net.cpp:399] lstm2_h_concat -> h
I0722 16:03:00.794595 19770 net.cpp:386] relu6 -> fc6 (in-place)
I0722 16:03:00.794878 19758 net.cpp:141] Setting up lstm2_h_concat
I0722 16:03:00.794889 19758 net.cpp:148] Top shape: 1 1 1000 (1000)
I0722 16:03:00.794894 19758 net.cpp:156] Memory required for data: 98020
I0722 16:03:00.794898 19758 layer_factory.hpp:77] Creating layer h_pseudoloss
I0722 16:03:00.794911 19758 net.cpp:91] Creating Layer h_pseudoloss
I0722 16:03:00.794915 19758 net.cpp:425] h_pseudoloss <- h
I0722 16:03:00.794922 19758 net.cpp:399] h_pseudoloss -> h_pseudoloss
I0722 16:03:00.795269 19762 net.cpp:141] Setting up lstm2_h_conted_0
I0722 16:03:00.795282 19762 net.cpp:148] Top shape: 1 1 1000 (1000)
I0722 16:03:00.795286 19762 net.cpp:156] Memory required for data: 50020
I0722 16:03:00.795291 19762 layer_factory.hpp:77] Creating layer lstm2_transform_1
I0722 16:03:00.795300 19758 net.cpp:141] Setting up h_pseudoloss
I0722 16:03:00.795305 19762 net.cpp:91] Creating Layer lstm2_transform_1
I0722 16:03:00.795316 19758 net.cpp:148] Top shape: (1)
I0722 16:03:00.795320 19762 net.cpp:425] lstm2_transform_1 <- h_conted_0
I0722 16:03:00.795317 19770 net.cpp:141] Setting up relu6
I0722 16:03:00.795331 19762 net.cpp:399] lstm2_transform_1 -> W_hc_h_0
I0722 16:03:00.795321 19758 net.cpp:151]     with loss weight 1
I0722 16:03:00.795339 19770 net.cpp:148] Top shape: 10 4096 (40960)
I0722 16:03:00.795343 19758 net.cpp:156] Memory required for data: 98024
I0722 16:03:00.795346 19770 net.cpp:156] Memory required for data: 67946040
I0722 16:03:00.795348 19758 net.cpp:217] h_pseudoloss needs backward computation.
I0722 16:03:00.795351 19770 layer_factory.hpp:77] Creating layer drop6
I0722 16:03:00.795353 19758 net.cpp:217] lstm2_h_concat needs backward computation.
…
I0722 16:03:00.795404 19758 net.cpp:219] cont_1_lstm2_cont_slice_0_split does not need backward computation.
I0722 16:03:00.795409 19758 net.cpp:219] lstm2_cont_slice does not need backward computation.
I0722 16:03:00.795414 19758 net.cpp:219] lstm2_ does not need backward computation.
I0722 16:03:00.795418 19758 net.cpp:219] lstm2_ does not need backward computation.
I0722 16:03:00.795423 19758 net.cpp:261] This network produces output c_T
I0722 16:03:00.795428 19758 net.cpp:261] This network produces output h_pseudoloss
I0722 16:03:00.795444 19758 net.cpp:274] Network initialization done.
I0722 16:03:00.795480 19770 net.cpp:141] Setting up drop6
I0722 16:03:00.795488 19770 net.cpp:148] Top shape: 10 4096 (40960)
I0722 16:03:00.795493 19770 net.cpp:156] Memory required for data: 68109880
I0722 16:03:00.795497 19770 layer_factory.hpp:77] Creating layer fc7
I0722 16:03:00.795501 19758 recurrent_layer.cpp:150] Adding parameter 0: W_xc
I0722 16:03:00.795508 19758 recurrent_layer.cpp:150] Adding parameter 1: b_c
I0722 16:03:00.795512 19758 recurrent_layer.cpp:150] Adding parameter 2: W_hc
I0722 16:03:00.795536 19770 net.cpp:91] Creating Layer fc7
I0722 16:03:00.795542 19770 net.cpp:425] fc7 <- fc6
I0722 16:03:00.795548 19770 net.cpp:399] fc7 -> fc7
I0722 16:03:00.835640 19758 net.cpp:141] Setting up lstm2
I0722 16:03:00.835726 19758 net.cpp:148] Top shape: 1 1 1000 (1000)
I0722 16:03:00.835736 19758 net.cpp:156] Memory required for data: 36412
I0722 16:03:00.835811 19758 layer_factory.hpp:77] Creating layer predict
I0722 16:03:00.835863 19758 net.cpp:91] Creating Layer predict
I0722 16:03:00.835875 19758 net.cpp:425] predict <- lstm2
I0722 16:03:00.835891 19758 net.cpp:399] predict -> predict
I0722 16:03:00.839299 19762 net.cpp:141] Setting up lstm2_transform_1
I0722 16:03:00.839318 19762 net.cpp:148] Top shape: 1 1 4000 (4000)
I0722 16:03:00.839328 19762 net.cpp:156] Memory required for data: 66020
I0722 16:03:00.839344 19762 layer_factory.hpp:77] Creating layer lstm2_gate_input_1
I0722 16:03:00.839359 19762 net.cpp:91] Creating Layer lstm2_gate_input_1
I0722 16:03:00.839365 19762 net.cpp:425] lstm2_gate_input_1 <- W_hc_h_0
I0722 16:03:00.839371 19762 net.cpp:425] lstm2_gate_input_1 <- W_xc_x_1
I0722 16:03:00.839381 19762 net.cpp:399] lstm2_gate_input_1 -> gate_input_1
I0722 16:03:00.924919 19762 net.cpp:141] Setting up lstm2_gate_input_1
I0722 16:03:00.924967 19762 net.cpp:148] Top shape: 1 1 4000 (4000)
I0722 16:03:00.924973 19762 net.cpp:156] Memory required for data: 82020
I0722 16:03:00.924983 19762 layer_factory.hpp:77] Creating layer lstm2_unit_1
I0722 16:03:00.924999 19762 net.cpp:91] Creating Layer lstm2_unit_1
I0722 16:03:00.925007 19762 net.cpp:425] lstm2_unit_1 <- c_0
I0722 16:03:00.925037 19762 net.cpp:425] lstm2_unit_1 <- gate_input_1
I0722 16:03:00.925050 19762 net.cpp:425] lstm2_unit_1 <- cont_1_lstm2_cont_slice_0_split_1
I0722 16:03:00.925063 19762 net.cpp:399] lstm2_unit_1 -> c_1
I0722 16:03:00.925086 19762 net.cpp:399] lstm2_unit_1 -> h_1
I0722 16:03:00.929772 19762 net.cpp:141] Setting up lstm2_unit_1
I0722 16:03:00.929816 19762 net.cpp:148] Top shape: 1 1 1000 (1000)
I0722 16:03:00.929823 19762 net.cpp:148] Top shape: 1 1 1000 (1000)
I0722 16:03:00.929828 19762 net.cpp:156] Memory required for data: 90020
I0722 16:03:00.929817 19770 net.cpp:141] Setting up fc7
I0722 16:03:00.929837 19762 layer_factory.hpp:77] Creating layer lstm2_
I0722 16:03:00.929860 19770 net.cpp:148] Top shape: 10 4096 (40960)
I0722 16:03:00.929863 19762 net.cpp:91] Creating Layer lstm2_
I0722 16:03:00.929872 19762 net.cpp:425] lstm2_ <- c_1
I0722 16:03:00.929870 19770 net.cpp:156] Memory required for data: 68273720
I0722 16:03:00.929883 19762 net.cpp:399] lstm2_ -> c_T
I0722 16:03:00.929894 19770 layer_factory.hpp:77] Creating layer relu7
I0722 16:03:00.929911 19776 net.cpp:141] Setting up fc6
I0722 16:03:00.929919 19770 net.cpp:91] Creating Layer relu7
I0722 16:03:00.929939 19770 net.cpp:425] relu7 <- fc7
I0722 16:03:00.929939 19776 net.cpp:148] Top shape: 10 4096 (40960)
I0722 16:03:00.929957 19770 net.cpp:386] relu7 -> fc7 (in-place)
I0722 16:03:00.929960 19776 net.cpp:156] Memory required for data: 67782200
I0722 16:03:00.929983 19776 layer_factory.hpp:77] Creating layer relu6
I0722 16:03:00.929987 19762 net.cpp:141] Setting up lstm2_
I0722 16:03:00.929998 19762 net.cpp:148] Top shape: 1 1 1000 (1000)
I0722 16:03:00.930002 19762 net.cpp:156] Memory required for data: 94020
I0722 16:03:00.930003 19776 net.cpp:91] Creating Layer relu6
I0722 16:03:00.930007 19762 layer_factory.hpp:77] Creating layer lstm2_h_concat
I0722 16:03:00.930012 19776 net.cpp:425] relu6 <- fc6
I0722 16:03:00.930018 19762 net.cpp:91] Creating Layer lstm2_h_concat
I0722 16:03:00.930019 19776 net.cpp:386] relu6 -> fc6 (in-place)
I0722 16:03:00.930028 19762 net.cpp:425] lstm2_h_concat <- h_1
I0722 16:03:00.930050 19762 net.cpp:399] lstm2_h_concat -> h
I0722 16:03:00.930536 19776 net.cpp:141] Setting up relu6
I0722 16:03:00.930551 19776 net.cpp:148] Top shape: 10 4096 (40960)
I0722 16:03:00.930555 19776 net.cpp:156] Memory required for data: 67946040
I0722 16:03:00.930562 19776 layer_factory.hpp:77] Creating layer drop6
I0722 16:03:00.930573 19776 net.cpp:91] Creating Layer drop6
I0722 16:03:00.930578 19776 net.cpp:425] drop6 <- fc6
I0722 16:03:00.930588 19776 net.cpp:386] drop6 -> fc6 (in-place)
I0722 16:03:00.931988 19776 net.cpp:141] Setting up drop6
I0722 16:03:00.932000 19776 net.cpp:148] Top shape: 10 4096 (40960)
I0722 16:03:00.932004 19776 net.cpp:156] Memory required for data: 68109880
I0722 16:03:00.932009 19776 layer_factory.hpp:77] Creating layer fc7
I0722 16:03:00.932019 19776 net.cpp:91] Creating Layer fc7
I0722 16:03:00.932026 19776 net.cpp:425] fc7 <- fc6
I0722 16:03:00.932034 19776 net.cpp:399] fc7 -> fc7
I0722 16:03:00.932162 19762 net.cpp:141] Setting up lstm2_h_concat
I0722 16:03:00.932193 19762 net.cpp:148] Top shape: 1 1 1000 (1000)
I0722 16:03:00.932199 19762 net.cpp:156] Memory required for data: 98020
I0722 16:03:00.932205 19762 layer_factory.hpp:77] Creating layer h_pseudoloss
I0722 16:03:00.932220 19762 net.cpp:91] Creating Layer h_pseudoloss
I0722 16:03:00.932226 19762 net.cpp:425] h_pseudoloss <- h
I0722 16:03:00.932242 19762 net.cpp:399] h_pseudoloss -> h_pseudoloss
I0722 16:03:00.932281 19770 net.cpp:141] Setting up relu7
I0722 16:03:00.932298 19770 net.cpp:148] Top shape: 10 4096 (40960)
I0722 16:03:00.932307 19770 net.cpp:156] Memory required for data: 68437560
I0722 16:03:00.932314 19770 layer_factory.hpp:77] Creating layer drop7
I0722 16:03:00.932335 19770 net.cpp:91] Creating Layer drop7
I0722 16:03:00.932343 19770 net.cpp:425] drop7 <- fc7
I0722 16:03:00.932356 19770 net.cpp:386] drop7 -> fc7 (in-place)
I0722 16:03:00.961004 19770 net.cpp:141] Setting up drop7
I0722 16:03:00.961057 19770 net.cpp:148] Top shape: 10 4096 (40960)
I0722 16:03:00.961066 19770 net.cpp:156] Memory required for data: 68601400
I0722 16:03:00.961077 19770 layer_factory.hpp:77] Creating layer fc8
I0722 16:03:00.961099 19770 net.cpp:91] Creating Layer fc8
I0722 16:03:00.961109 19770 net.cpp:425] fc8 <- fc7
I0722 16:03:00.961133 19770 net.cpp:399] fc8 -> fc8
I0722 16:03:00.962944 19762 net.cpp:141] Setting up h_pseudoloss
I0722 16:03:00.962991 19762 net.cpp:148] Top shape: (1)
…
I0722 16:03:00.963101 19762 net.cpp:219] lstm2_ does not need backward computation.
I0722 16:03:00.963105 19762 net.cpp:261] This network produces output c_T
I0722 16:03:00.963111 19762 net.cpp:261] This network produces output h_pseudoloss
I0722 16:03:00.963134 19762 net.cpp:274] Network initialization done.
I0722 16:03:00.963191 19762 recurrent_layer.cpp:150] Adding parameter 0: W_xc
I0722 16:03:00.963199 19762 recurrent_layer.cpp:150] Adding parameter 1: b_c
I0722 16:03:00.963207 19762 recurrent_layer.cpp:150] Adding parameter 2: W_hc
I0722 16:03:00.976979 19762 net.cpp:141] Setting up lstm2
I0722 16:03:00.977025 19762 net.cpp:148] Top shape: 1 1 1000 (1000)
I0722 16:03:00.977030 19762 net.cpp:156] Memory required for data: 36412
I0722 16:03:00.977049 19762 layer_factory.hpp:77] Creating layer predict
I0722 16:03:00.977069 19762 net.cpp:91] Creating Layer predict
I0722 16:03:00.977077 19762 net.cpp:425] predict <- lstm2
I0722 16:03:00.977085 19762 net.cpp:399] predict -> predict
I0722 16:03:01.059563 19776 net.cpp:141] Setting up fc7
I0722 16:03:01.059592 19770 net.cpp:141] Setting up fc8
I0722 16:03:01.059612 19776 net.cpp:148] Top shape: 10 4096 (40960)
I0722 16:03:01.059612 19770 net.cpp:148] Top shape: 10 1000 (10000)
I0722 16:03:01.059619 19776 net.cpp:156] Memory required for data: 68273720
I0722 16:03:01.059622 19770 net.cpp:156] Memory required for data: 68641400
I0722 16:03:01.059636 19776 layer_factory.hpp:77] Creating layer relu7
I0722 16:03:01.059638 19770 layer_factory.hpp:77] Creating layer prob
I0722 16:03:01.059653 19776 net.cpp:91] Creating Layer relu7
I0722 16:03:01.059656 19770 net.cpp:91] Creating Layer prob
I0722 16:03:01.059660 19776 net.cpp:425] relu7 <- fc7
I0722 16:03:01.059666 19770 net.cpp:425] prob <- fc8
I0722 16:03:01.059671 19776 net.cpp:386] relu7 -> fc7 (in-place)
I0722 16:03:01.059679 19770 net.cpp:399] prob -> prob
I0722 16:03:01.061164 19776 net.cpp:141] Setting up relu7
I0722 16:03:01.061182 19776 net.cpp:148] Top shape: 10 4096 (40960)
I0722 16:03:01.061182 19770 net.cpp:141] Setting up prob
I0722 16:03:01.061197 19776 net.cpp:156] Memory required for data: 68437560
I0722 16:03:01.061209 19776 layer_factory.hpp:77] Creating layer drop7
I0722 16:03:01.061210 19770 net.cpp:148] Top shape: 10 1000 (10000)
I0722 16:03:01.061218 19770 net.cpp:156] Memory required for data: 68681400
I0722 16:03:01.061223 19776 net.cpp:91] Creating Layer drop7
I0722 16:03:01.061226 19770 net.cpp:219] prob does not need backward computation.
I0722 16:03:01.061229 19776 net.cpp:425] drop7 <- fc7
I0722 16:03:01.061234 19770 net.cpp:219] fc8 does not need backward computation.
I0722 16:03:01.061236 19776 net.cpp:386] drop7 -> fc7 (in-place)
I0722 16:03:01.061244 19770 net.cpp:219] drop7 does not need backward computation.
I0722 16:03:01.061251 19770 net.cpp:219] relu7 does not need backward computation.
I0722 16:03:01.061259 19770 net.cpp:219] fc7 does not need backward computation.
I0722 16:03:01.061265 19770 net.cpp:219] drop6 does not need backward computation.
I0722 16:03:01.061271 19770 net.cpp:219] relu6 does not need backward computation.
I0722 16:03:01.061277 19770 net.cpp:219] fc6 does not need backward computation.
I0722 16:03:01.061286 19770 net.cpp:219] pool5 does not need backward computation.
I0722 16:03:01.061293 19770 net.cpp:219] relu5 does not need backward computation.
I0722 16:03:01.061301 19770 net.cpp:219] conv5 does not need backward computation.
I0722 16:03:01.061309 19770 net.cpp:219] relu4 does not need backward computation.
I0722 16:03:01.061309 19776 net.cpp:141] Setting up drop7
I0722 16:03:01.061316 19770 net.cpp:219] conv4 does not need backward computation.
I0722 16:03:01.061321 19776 net.cpp:148] Top shape: 10 4096 (40960)
I0722 16:03:01.061326 19776 net.cpp:156] Memory required for data: 68601400
I0722 16:03:01.061326 19770 net.cpp:219] relu3 does not need backward computation.
I0722 16:03:01.061332 19776 layer_factory.hpp:77] Creating layer fc8
I0722 16:03:01.061334 19770 net.cpp:219] conv3 does not need backward computation.
I0722 16:03:01.061342 19776 net.cpp:91] Creating Layer fc8
I0722 16:03:01.061345 19770 net.cpp:219] norm2 does not need backward computation.
I0722 16:03:01.061347 19776 net.cpp:425] fc8 <- fc7
I0722 16:03:01.061357 19770 net.cpp:219] pool2 does not need backward computation.
I0722 16:03:01.061362 19776 net.cpp:399] fc8 -> fc8
I0722 16:03:01.061364 19770 net.cpp:219] relu2 does not need backward computation.
I0722 16:03:01.061372 19770 net.cpp:219] conv2 does not need backward computation.
I0722 16:03:01.061378 19770 net.cpp:219] norm1 does not need backward computation.
I0722 16:03:01.061385 19770 net.cpp:219] pool1 does not need backward computation.
I0722 16:03:01.061393 19770 net.cpp:219] relu1 does not need backward computation.
I0722 16:03:01.061398 19770 net.cpp:219] conv1 does not need backward computation.
I0722 16:03:01.061405 19770 net.cpp:219] data does not need backward computation.
I0722 16:03:01.061410 19770 net.cpp:261] This network produces output prob
I0722 16:03:01.061435 19770 net.cpp:274] Network initialization done.
I0722 16:03:01.074833 19776 net.cpp:141] Setting up fc8
I0722 16:03:01.074887 19776 net.cpp:148] Top shape: 10 1000 (10000)
I0722 16:03:01.074892 19776 net.cpp:156] Memory required for data: 68641400
I0722 16:03:01.074909 19776 layer_factory.hpp:77] Creating layer prob
I0722 16:03:01.074933 19776 net.cpp:91] Creating Layer prob
I0722 16:03:01.074940 19776 net.cpp:425] prob <- fc8
I0722 16:03:01.074957 19776 net.cpp:399] prob -> prob
I0722 16:03:01.075495 19776 net.cpp:141] Setting up prob
I0722 16:03:01.075510 19776 net.cpp:148] Top shape: 10 1000 (10000)
I0722 16:03:01.075515 19776 net.cpp:156] Memory required for data: 68681400
I0722 16:03:01.075520 19776 net.cpp:219] prob does not need backward computation.
I0722 16:03:01.075525 19776 net.cpp:219] fc8 does not need backward computation.
I0722 16:03:01.075530 19776 net.cpp:219] drop7 does not need backward computation.
I0722 16:03:01.075533 19776 net.cpp:219] relu7 does not need backward computation.
…
