…
Java HotSpot(TM) 64-Bit Server VM warning: You have loaded library /tmp/cvld1766248183152049765/libopencv_java310.xine1.so which might have disabled stack guard. The VM will try to fix the stack guard now.
It's highly recommended that you fix the library with 'execstack -c <libfile>', or link it with '-z noexecstack'.
WARNING: Logging before InitGoogleLogging() is written to STDERR
I0730 11:01:20.847053 28356 net.cpp:49] Initializing net from parameters: 
name: "CaffeNet"
state {
  phase: TEST
}
layer {
  name: "data"
  type: "Input"
  top: "data"
  input_param {
    shape {
      dim: 10
      dim: 3
      dim: 227
      dim: 227
    }
  }
}
layer {
  name: "conv1"
  type: "Convolution"
  bottom: "data"
  top: "conv1"
  convolution_param {
    num_output: 96
    kernel_size: 11
    stride: 4
  }
}
layer {
  name: "relu1"
  type: "ReLU"
  bottom: "conv1"
  top: "conv1"
}
layer {
  name: "pool1"
  type: "Pooling"
  bottom: "conv1"
  top: "pool1"
  pooling_param {
    pool: MAX
    kernel_size: 3
    stride: 2
  }
}
layer {
  name: "norm1"
  type: "LRN"
  bottom: "pool1"
  top: "norm1"
  lrn_param {
    local_size: 5
    alpha: 0.0001
    beta: 0.75
  }
}
layer {
  name: "conv2"
  type: "Convolution"
  bottom: "norm1"
  top: "conv2"
  convolution_param {
    num_output: 256
    pad: 2
    kernel_size: 5
    group: 2
  }
}
layer {
  name: "relu2"
  type: "ReLU"
  bottom: "conv2"
  top: "conv2"
}
layer {
  name: "pool2"
  type: "Pooling"
  bottom: "conv2"
  top: "pool2"
  pooling_param {
    pool: MAX
    kernel_size: 3
    stride: 2
  }
}
layer {
  name: "norm2"
  type: "LRN"
  bottom: "pool2"
  top: "norm2"
  lrn_param {
    local_size: 5
    alpha: 0.0001
    beta: 0.75
  }
}
layer {
  name: "conv3"
  type: "Convolution"
  bottom: "norm2"
  top: "conv3"
  convolution_param {
    num_output: 384
    pad: 1
    kernel_size: 3
  }
}
layer {
  name: "relu3"
  type: "ReLU"
  bottom: "conv3"
  top: "conv3"
}
layer {
  name: "conv4"
  type: "Convolution"
  bottom: "conv3"
  top: "conv4"
  convolution_param {
    num_output: 384
    pad: 1
    kernel_size: 3
    group: 2
  }
}
layer {
  name: "relu4"
  type: "ReLU"
  bottom: "conv4"
  top: "conv4"
}
layer {
  name: "conv5"
  type: "Convolution"
  bottom: "conv4"
  top: "conv5"
  convolution_param {
    num_output: 256
    pad: 1
    kernel_size: 3
    group: 2
  }
}
layer {
  name: "relu5"
  type: "ReLU"
  bottom: "conv5"
  top: "conv5"
}
layer {
  name: "pool5"
  type: "Pooling"
  bottom: "conv5"
  top: "pool5"
  pooling_param {
    pool: MAX
    kernel_size: 3
    stride: 2
  }
}
layer {
  name: "fc6"
  type: "InnerProduct"
  bottom: "pool5"
  top: "fc6"
  inner_product_param {
    num_output: 4096
  }
}
layer {
  name: "relu6"
  type: "ReLU"
  bottom: "fc6"
  top: "fc6"
}
layer {
  name: "drop6"
  type: "Dropout"
  bottom: "fc6"
  top: "fc6"
  dropout_param {
    dropout_ratio: 0.5
  }
}
layer {
  name: "fc7"
  type: "InnerProduct"
  bottom: "fc6"
  top: "fc7"
  inner_product_param {
    num_output: 4096
  }
}
layer {
  name: "relu7"
  type: "ReLU"
  bottom: "fc7"
  top: "fc7"
}
layer {
  name: "drop7"
  type: "Dropout"
  bottom: "fc7"
  top: "fc7"
  dropout_param {
    dropout_ratio: 0.5
  }
}
layer {
  name: "fc8"
  type: "InnerProduct"
  bottom: "fc7"
  top: "fc8"
  inner_product_param {
    num_output: 1000
  }
}
layer {
  name: "prob"
  type: "Softmax"
  bottom: "fc8"
  top: "prob"
}
I0730 11:01:20.847234 28356 layer_factory.hpp:77] Creating layer data
I0730 11:01:20.847261 28356 net.cpp:91] Creating Layer data
I0730 11:01:20.847270 28356 net.cpp:399] data -> data
I0730 11:01:21.352089 28356 net.cpp:141] Setting up data
I0730 11:01:21.352190 28356 net.cpp:148] Top shape: 10 3 227 227 (1545870)
I0730 11:01:21.352197 28356 net.cpp:156] Memory required for data: 6183480
I0730 11:01:21.352213 28356 layer_factory.hpp:77] Creating layer conv1
I0730 11:01:21.352238 28356 net.cpp:91] Creating Layer conv1
I0730 11:01:21.352246 28356 net.cpp:425] conv1 <- data
I0730 11:01:21.352258 28356 net.cpp:399] conv1 -> conv1
I0730 11:01:21.580421 28345 upgrade_proto.cpp:66] Attempting to upgrade input file specified using deprecated input fields: /tmp/cvld1766248183152049765/s2vt.words_to_preds.prototxt
I0730 11:01:21.580471 28345 upgrade_proto.cpp:69] Successfully upgraded file specified using deprecated input fields.
W0730 11:01:21.580478 28345 upgrade_proto.cpp:71] Note that future Caffe releases will only support input layers and not input fields.
I0730 11:01:21.580718 28345 net.cpp:49] Initializing net from parameters: 
name: "s2vt:features_to_lstm"
state {
  phase: TEST
}
layer {
  name: "input"
  type: "Input"
  top: "frames_fc7"
  top: "cont_sentence"
  top: "input_sentence"
  top: "stage_indicator"
  input_param {
    shape {
      dim: 1
      dim: 4096
    }
    shape {
      dim: 1
      dim: 1
    }
    shape {
      dim: 1
      dim: 1
    }
    shape {
      dim: 1
      dim: 1
    }
  }
}
layer {
  name: "embed_encoder"
  type: "InnerProduct"
  bottom: "frames_fc7"
  top: "embedded_in_frames"
  param {
    lr_mult: 1
    decay_mult: 1
  }
  param {
    lr_mult: 2
    decay_mult: 0
  }
  inner_product_param {
    num_output: 500
    weight_filler {
      type: "xavier"
    }
    bias_filler {
      type: "constant"
      value: 0.2
    }
  }
}
layer {
  name: "reshape_frames"
  type: "Reshape"
  bottom: "embedded_in_frames"
  top: "embedded_input_frames"
  reshape_param {
    shape {
      dim: 1
      dim: 1
      dim: 500
    }
  }
}
layer {
  name: "reshape_stage_indicator"
  type: "Reshape"
  bottom: "stage_indicator"
  top: "reshaped_stage_indicator"
  reshape_param {
    shape {
      dim: 1
      dim: 1
      dim: 1
    }
  }
}
layer {
  name: "embedding"
  type: "Embed"
  bottom: "input_sentence"
  top: "embedded_input_sentence"
  param {
    lr_mult: 1
  }
  embed_param {
    num_output: 500
    input_dim: 46168
    bias_term: false
    weight_filler {
      type: "uniform"
      min: -0.08
      max: 0.08
    }
  }
}
layer {
  name: "lstm1"
  type: "LSTM"
  bottom: "embedded_input_frames"
  bottom: "cont_sentence"
  top: "lstm1"
  recurrent_param {
    num_output: 1000
    weight_filler {
      type: "uniform"
      min: -0.08
      max: 0.08
    }
    bias_filler {
      type: "constant"
      value: 0
    }
  }
}
layer {
  name: "concat"
  type: "Concat"
  bottom: "lstm1"
  bottom: "embedded_input_sentence"
  bottom: "reshaped_stage_indicator"
  top: "lstm1_video_sequence"
  concat_param {
    concat_dim: 2
  }
}
layer {
  name: "lstm2"
  type: "LSTM"
  bottom: "lstm1_video_sequence"
  bottom: "cont_sentence"
  top: "lstm2"
  recurrent_param {
    num_output: 1000
    weight_filler {
      type: "uniform"
      min: -0.08
      max: 0.08
    }
    bias_filler {
      type: "constant"
      value: 0
    }
  }
}
layer {
  name: "predict"
  type: "InnerProduct"
  bottom: "lstm2"
  top: "predict"
  param {
    lr_mult: 1
    decay_mult: 1
  }
  param {
    lr_mult: 2
    decay_mult: 0
  }
  inner_product_param {
    num_output: 46168
    weight_filler {
      type: "uniform"
      min: -0.08
      max: 0.08
    }
    bias_filler {
      type: "constant"
      value: 0
    }
    axis: 2
  }
}
layer {
  name: "probs"
  type: "Softmax"
  bottom: "predict"
  top: "probs"
  softmax_param {
    axis: 2
  }
}
I0730 11:01:21.580813 28345 layer_factory.hpp:77] Creating layer input
I0730 11:01:21.580827 28345 net.cpp:91] Creating Layer input
I0730 11:01:21.580835 28345 net.cpp:399] input -> frames_fc7
I0730 11:01:21.580852 28345 net.cpp:399] input -> cont_sentence
I0730 11:01:21.580862 28345 net.cpp:399] input -> input_sentence
I0730 11:01:21.580871 28345 net.cpp:399] input -> stage_indicator
I0730 11:01:21.582304 28345 net.cpp:141] Setting up input
I0730 11:01:21.582325 28345 net.cpp:148] Top shape: 1 4096 (4096)
I0730 11:01:21.582332 28345 net.cpp:148] Top shape: 1 1 (1)
I0730 11:01:21.582337 28345 net.cpp:148] Top shape: 1 1 (1)
I0730 11:01:21.582343 28345 net.cpp:148] Top shape: 1 1 (1)
I0730 11:01:21.582347 28345 net.cpp:156] Memory required for data: 16396
I0730 11:01:21.582352 28345 layer_factory.hpp:77] Creating layer cont_sentence_input_1_split
I0730 11:01:21.582372 28345 net.cpp:91] Creating Layer cont_sentence_input_1_split
I0730 11:01:21.582378 28345 net.cpp:425] cont_sentence_input_1_split <- cont_sentence
I0730 11:01:21.582401 28345 net.cpp:399] cont_sentence_input_1_split -> cont_sentence_input_1_split_0
I0730 11:01:21.582412 28345 net.cpp:399] cont_sentence_input_1_split -> cont_sentence_input_1_split_1
I0730 11:01:21.582554 28345 net.cpp:141] Setting up cont_sentence_input_1_split
I0730 11:01:21.582573 28345 net.cpp:148] Top shape: 1 1 (1)
I0730 11:01:21.582586 28345 net.cpp:148] Top shape: 1 1 (1)
I0730 11:01:21.582592 28345 net.cpp:156] Memory required for data: 16404
I0730 11:01:21.582600 28345 layer_factory.hpp:77] Creating layer embed_encoder
I0730 11:01:21.582620 28345 net.cpp:91] Creating Layer embed_encoder
I0730 11:01:21.582630 28345 net.cpp:425] embed_encoder <- frames_fc7
I0730 11:01:21.582646 28345 net.cpp:399] embed_encoder -> embedded_in_frames
I0730 11:01:21.605962 28356 net.cpp:141] Setting up conv1
I0730 11:01:21.606007 28356 net.cpp:148] Top shape: 10 96 55 55 (2904000)
I0730 11:01:21.606014 28356 net.cpp:156] Memory required for data: 17799480
I0730 11:01:21.606040 28356 layer_factory.hpp:77] Creating layer relu1
I0730 11:01:21.606057 28356 net.cpp:91] Creating Layer relu1
I0730 11:01:21.606063 28356 net.cpp:425] relu1 <- conv1
I0730 11:01:21.606071 28356 net.cpp:386] relu1 -> conv1 (in-place)
I0730 11:01:21.606822 28356 net.cpp:141] Setting up relu1
I0730 11:01:21.606835 28356 net.cpp:148] Top shape: 10 96 55 55 (2904000)
I0730 11:01:21.606840 28356 net.cpp:156] Memory required for data: 29415480
I0730 11:01:21.606847 28356 layer_factory.hpp:77] Creating layer pool1
I0730 11:01:21.606858 28356 net.cpp:91] Creating Layer pool1
I0730 11:01:21.606863 28356 net.cpp:425] pool1 <- conv1
I0730 11:01:21.606873 28356 net.cpp:399] pool1 -> pool1
I0730 11:01:21.606938 28356 net.cpp:141] Setting up pool1
I0730 11:01:21.606950 28356 net.cpp:148] Top shape: 10 96 27 27 (699840)
I0730 11:01:21.606955 28356 net.cpp:156] Memory required for data: 32214840
I0730 11:01:21.606958 28356 layer_factory.hpp:77] Creating layer norm1
I0730 11:01:21.606982 28356 net.cpp:91] Creating Layer norm1
I0730 11:01:21.606987 28356 net.cpp:425] norm1 <- pool1
I0730 11:01:21.606995 28356 net.cpp:399] norm1 -> norm1
I0730 11:01:21.607744 28356 net.cpp:141] Setting up norm1
I0730 11:01:21.607758 28356 net.cpp:148] Top shape: 10 96 27 27 (699840)
I0730 11:01:21.607763 28356 net.cpp:156] Memory required for data: 35014200
I0730 11:01:21.607769 28356 layer_factory.hpp:77] Creating layer conv2
I0730 11:01:21.607782 28356 net.cpp:91] Creating Layer conv2
I0730 11:01:21.607787 28356 net.cpp:425] conv2 <- norm1
I0730 11:01:21.607795 28356 net.cpp:399] conv2 -> conv2
I0730 11:01:21.613313 28356 net.cpp:141] Setting up conv2
I0730 11:01:21.613353 28356 net.cpp:148] Top shape: 10 256 27 27 (1866240)
I0730 11:01:21.613358 28356 net.cpp:156] Memory required for data: 42479160
I0730 11:01:21.613378 28356 layer_factory.hpp:77] Creating layer relu2
I0730 11:01:21.613389 28356 net.cpp:91] Creating Layer relu2
I0730 11:01:21.613395 28356 net.cpp:425] relu2 <- conv2
I0730 11:01:21.613404 28356 net.cpp:386] relu2 -> conv2 (in-place)
I0730 11:01:21.614306 28345 net.cpp:141] Setting up embed_encoder
I0730 11:01:21.614315 28356 net.cpp:141] Setting up relu2
I0730 11:01:21.614328 28345 net.cpp:148] Top shape: 1 500 (500)
I0730 11:01:21.614329 28356 net.cpp:148] Top shape: 10 256 27 27 (1866240)
I0730 11:01:21.614333 28345 net.cpp:156] Memory required for data: 18404
I0730 11:01:21.614336 28356 net.cpp:156] Memory required for data: 49944120
I0730 11:01:21.614341 28356 layer_factory.hpp:77] Creating layer pool2
I0730 11:01:21.614351 28356 net.cpp:91] Creating Layer pool2
I0730 11:01:21.614349 28345 layer_factory.hpp:77] Creating layer reshape_frames
I0730 11:01:21.614354 28356 net.cpp:425] pool2 <- conv2
I0730 11:01:21.614373 28356 net.cpp:399] pool2 -> pool2
I0730 11:01:21.614377 28345 net.cpp:91] Creating Layer reshape_frames
I0730 11:01:21.614384 28345 net.cpp:425] reshape_frames <- embedded_in_frames
I0730 11:01:21.614395 28345 net.cpp:399] reshape_frames -> embedded_input_frames
I0730 11:01:21.614435 28356 net.cpp:141] Setting up pool2
I0730 11:01:21.614445 28356 net.cpp:148] Top shape: 10 256 13 13 (432640)
I0730 11:01:21.614449 28356 net.cpp:156] Memory required for data: 51674680
I0730 11:01:21.614454 28356 layer_factory.hpp:77] Creating layer norm2
I0730 11:01:21.614473 28356 net.cpp:91] Creating Layer norm2
I0730 11:01:21.614480 28356 net.cpp:425] norm2 <- pool2
I0730 11:01:21.614477 28345 net.cpp:141] Setting up reshape_frames
I0730 11:01:21.614488 28356 net.cpp:399] norm2 -> norm2
I0730 11:01:21.614495 28345 net.cpp:148] Top shape: 1 1 500 (500)
I0730 11:01:21.614498 28345 net.cpp:156] Memory required for data: 20404
I0730 11:01:21.614503 28345 layer_factory.hpp:77] Creating layer reshape_stage_indicator
I0730 11:01:21.614516 28345 net.cpp:91] Creating Layer reshape_stage_indicator
I0730 11:01:21.614521 28345 net.cpp:425] reshape_stage_indicator <- stage_indicator
I0730 11:01:21.614531 28345 net.cpp:399] reshape_stage_indicator -> reshaped_stage_indicator
I0730 11:01:21.614704 28345 net.cpp:141] Setting up reshape_stage_indicator
I0730 11:01:21.614730 28345 net.cpp:148] Top shape: 1 1 1 (1)
I0730 11:01:21.614735 28345 net.cpp:156] Memory required for data: 20408
I0730 11:01:21.614742 28345 layer_factory.hpp:77] Creating layer embedding
I0730 11:01:21.614754 28345 net.cpp:91] Creating Layer embedding
I0730 11:01:21.614760 28345 net.cpp:425] embedding <- input_sentence
I0730 11:01:21.614769 28345 net.cpp:399] embedding -> embedded_input_sentence
I0730 11:01:21.614861 28356 net.cpp:141] Setting up norm2
I0730 11:01:21.614874 28356 net.cpp:148] Top shape: 10 256 13 13 (432640)
I0730 11:01:21.614878 28356 net.cpp:156] Memory required for data: 53405240
I0730 11:01:21.614883 28356 layer_factory.hpp:77] Creating layer conv3
I0730 11:01:21.614903 28356 net.cpp:91] Creating Layer conv3
I0730 11:01:21.614908 28356 net.cpp:425] conv3 <- norm2
I0730 11:01:21.614915 28356 net.cpp:399] conv3 -> conv3
I0730 11:01:21.662258 28356 net.cpp:141] Setting up conv3
I0730 11:01:21.662307 28356 net.cpp:148] Top shape: 10 384 13 13 (648960)
I0730 11:01:21.662314 28356 net.cpp:156] Memory required for data: 56001080
I0730 11:01:21.662334 28356 layer_factory.hpp:77] Creating layer relu3
I0730 11:01:21.662348 28356 net.cpp:91] Creating Layer relu3
I0730 11:01:21.662354 28356 net.cpp:425] relu3 <- conv3
I0730 11:01:21.662364 28356 net.cpp:386] relu3 -> conv3 (in-place)
I0730 11:01:21.663928 28356 net.cpp:141] Setting up relu3
I0730 11:01:21.663962 28356 net.cpp:148] Top shape: 10 384 13 13 (648960)
I0730 11:01:21.663969 28356 net.cpp:156] Memory required for data: 58596920
I0730 11:01:21.663976 28356 layer_factory.hpp:77] Creating layer conv4
I0730 11:01:21.664000 28356 net.cpp:91] Creating Layer conv4
I0730 11:01:21.664006 28356 net.cpp:425] conv4 <- conv3
I0730 11:01:21.664016 28356 net.cpp:399] conv4 -> conv4
I0730 11:01:21.671305 28356 net.cpp:141] Setting up conv4
I0730 11:01:21.671350 28356 net.cpp:148] Top shape: 10 384 13 13 (648960)
I0730 11:01:21.671357 28356 net.cpp:156] Memory required for data: 61192760
I0730 11:01:21.671370 28356 layer_factory.hpp:77] Creating layer relu4
I0730 11:01:21.671385 28356 net.cpp:91] Creating Layer relu4
I0730 11:01:21.671391 28356 net.cpp:425] relu4 <- conv4
I0730 11:01:21.671401 28356 net.cpp:386] relu4 -> conv4 (in-place)
I0730 11:01:21.672163 28356 net.cpp:141] Setting up relu4
I0730 11:01:21.672176 28356 net.cpp:148] Top shape: 10 384 13 13 (648960)
I0730 11:01:21.672181 28356 net.cpp:156] Memory required for data: 63788600
I0730 11:01:21.672186 28356 layer_factory.hpp:77] Creating layer conv5
I0730 11:01:21.672201 28356 net.cpp:91] Creating Layer conv5
I0730 11:01:21.672207 28356 net.cpp:425] conv5 <- conv4
I0730 11:01:21.672214 28356 net.cpp:399] conv5 -> conv5
I0730 11:01:21.677884 28356 net.cpp:141] Setting up conv5
I0730 11:01:21.677919 28356 net.cpp:148] Top shape: 10 256 13 13 (432640)
I0730 11:01:21.677925 28356 net.cpp:156] Memory required for data: 65519160
I0730 11:01:21.677942 28356 layer_factory.hpp:77] Creating layer relu5
I0730 11:01:21.677953 28356 net.cpp:91] Creating Layer relu5
I0730 11:01:21.677959 28356 net.cpp:425] relu5 <- conv5
I0730 11:01:21.677969 28356 net.cpp:386] relu5 -> conv5 (in-place)
I0730 11:01:21.678747 28356 net.cpp:141] Setting up relu5
I0730 11:01:21.678762 28356 net.cpp:148] Top shape: 10 256 13 13 (432640)
I0730 11:01:21.678766 28356 net.cpp:156] Memory required for data: 67249720
I0730 11:01:21.678772 28356 layer_factory.hpp:77] Creating layer pool5
I0730 11:01:21.678783 28356 net.cpp:91] Creating Layer pool5
I0730 11:01:21.678789 28356 net.cpp:425] pool5 <- conv5
I0730 11:01:21.678797 28356 net.cpp:399] pool5 -> pool5
I0730 11:01:21.678867 28356 net.cpp:141] Setting up pool5
I0730 11:01:21.678877 28356 net.cpp:148] Top shape: 10 256 6 6 (92160)
I0730 11:01:21.678882 28356 net.cpp:156] Memory required for data: 67618360
I0730 11:01:21.678886 28356 layer_factory.hpp:77] Creating layer fc6
I0730 11:01:21.678899 28356 net.cpp:91] Creating Layer fc6
I0730 11:01:21.678903 28356 net.cpp:425] fc6 <- pool5
I0730 11:01:21.678913 28356 net.cpp:399] fc6 -> fc6
I0730 11:01:21.781589 28356 net.cpp:141] Setting up fc6
I0730 11:01:21.781635 28356 net.cpp:148] Top shape: 10 4096 (40960)
I0730 11:01:21.781641 28356 net.cpp:156] Memory required for data: 67782200
I0730 11:01:21.781656 28356 layer_factory.hpp:77] Creating layer relu6
I0730 11:01:21.781668 28356 net.cpp:91] Creating Layer relu6
I0730 11:01:21.781674 28356 net.cpp:425] relu6 <- fc6
I0730 11:01:21.781682 28356 net.cpp:386] relu6 -> fc6 (in-place)
I0730 11:01:21.782003 28356 net.cpp:141] Setting up relu6
I0730 11:01:21.782016 28356 net.cpp:148] Top shape: 10 4096 (40960)
I0730 11:01:21.782021 28356 net.cpp:156] Memory required for data: 67946040
I0730 11:01:21.782024 28356 layer_factory.hpp:77] Creating layer drop6
I0730 11:01:21.782034 28356 net.cpp:91] Creating Layer drop6
I0730 11:01:21.782042 28356 net.cpp:425] drop6 <- fc6
I0730 11:01:21.782048 28356 net.cpp:386] drop6 -> fc6 (in-place)
I0730 11:01:21.782104 28356 net.cpp:141] Setting up drop6
I0730 11:01:21.782114 28356 net.cpp:148] Top shape: 10 4096 (40960)
I0730 11:01:21.782119 28356 net.cpp:156] Memory required for data: 68109880
I0730 11:01:21.782122 28356 layer_factory.hpp:77] Creating layer fc7
I0730 11:01:21.782137 28356 net.cpp:91] Creating Layer fc7
I0730 11:01:21.782142 28356 net.cpp:425] fc7 <- fc6
I0730 11:01:21.782151 28356 net.cpp:399] fc7 -> fc7
I0730 11:01:21.829581 28356 net.cpp:141] Setting up fc7
I0730 11:01:21.829634 28356 net.cpp:148] Top shape: 10 4096 (40960)
I0730 11:01:21.829640 28356 net.cpp:156] Memory required for data: 68273720
I0730 11:01:21.829654 28356 layer_factory.hpp:77] Creating layer relu7
I0730 11:01:21.829668 28356 net.cpp:91] Creating Layer relu7
I0730 11:01:21.829674 28356 net.cpp:425] relu7 <- fc7
I0730 11:01:21.829681 28356 net.cpp:386] relu7 -> fc7 (in-place)
I0730 11:01:21.831157 28356 net.cpp:141] Setting up relu7
I0730 11:01:21.831174 28356 net.cpp:148] Top shape: 10 4096 (40960)
I0730 11:01:21.831179 28356 net.cpp:156] Memory required for data: 68437560
I0730 11:01:21.831184 28356 layer_factory.hpp:77] Creating layer drop7
I0730 11:01:21.831193 28356 net.cpp:91] Creating Layer drop7
I0730 11:01:21.831198 28356 net.cpp:425] drop7 <- fc7
I0730 11:01:21.831205 28356 net.cpp:386] drop7 -> fc7 (in-place)
I0730 11:01:21.831245 28356 net.cpp:141] Setting up drop7
I0730 11:01:21.831254 28356 net.cpp:148] Top shape: 10 4096 (40960)
I0730 11:01:21.831259 28356 net.cpp:156] Memory required for data: 68601400
I0730 11:01:21.831264 28356 layer_factory.hpp:77] Creating layer fc8
I0730 11:01:21.831275 28356 net.cpp:91] Creating Layer fc8
I0730 11:01:21.831280 28356 net.cpp:425] fc8 <- fc7
I0730 11:01:21.831287 28356 net.cpp:399] fc8 -> fc8
I0730 11:01:21.839032 28345 net.cpp:141] Setting up embedding
I0730 11:01:21.839090 28345 net.cpp:148] Top shape: 1 1 500 (500)
I0730 11:01:21.839097 28345 net.cpp:156] Memory required for data: 22408
I0730 11:01:21.839117 28345 layer_factory.hpp:77] Creating layer lstm1
I0730 11:01:21.839138 28345 net.cpp:91] Creating Layer lstm1
I0730 11:01:21.839148 28345 net.cpp:425] lstm1 <- embedded_input_frames
I0730 11:01:21.839155 28345 net.cpp:425] lstm1 <- cont_sentence_input_1_split_0
I0730 11:01:21.839164 28345 net.cpp:399] lstm1 -> lstm1
I0730 11:01:21.839189 28345 recurrent_layer.cpp:20] Initializing recurrent layer: assuming input batch contains 1 timesteps of 1 independent streams.
I0730 11:01:21.839558 28345 net.cpp:49] Initializing net from parameters: 
layer {
  name: "lstm1_"
  type: "Input"
  top: "x"
  top: "cont"
  input_param {
    shape {
      dim: 1
      dim: 1
      dim: 500
    }
    shape {
      dim: 1
      dim: 1
    }
  }
}
layer {
  name: "lstm1_"
  type: "Input"
  top: "c_0"
  top: "h_0"
  input_param {
    shape {
      dim: 1
      dim: 1
      dim: 1000
    }
    shape {
      dim: 1
      dim: 1
      dim: 1000
    }
  }
}
layer {
  name: "lstm1_cont_slice"
  type: "Slice"
  bottom: "cont"
  top: "cont_1"
  slice_param {
    axis: 0
  }
}
layer {
  name: "lstm1_x_transform"
  type: "InnerProduct"
  bottom: "x"
  top: "W_xc_x"
  param {
    name: "W_xc"
  }
  param {
    name: "b_c"
  }
  propagate_down: true
  inner_product_param {
    num_output: 4000
    bias_term: true
    weight_filler {
      type: "uniform"
      min: -0.08
      max: 0.08
    }
    bias_filler {
      type: "constant"
      value: 0
    }
    axis: 2
  }
}
layer {
  name: "lstm1_W_xc_x_slice"
  type: "Slice"
  bottom: "W_xc_x"
  top: "W_xc_x_1"
  slice_param {
    axis: 0
  }
}
layer {
  name: "lstm1_h_conted_0"
  type: "Scale"
  bottom: "h_0"
  bottom: "cont_1"
  top: "h_conted_0"
  scale_param {
    axis: 0
  }
}
layer {
  name: "lstm1_transform_1"
  type: "InnerProduct"
  bottom: "h_conted_0"
  top: "W_hc_h_0"
  param {
    name: "W_hc"
  }
  inner_product_param {
    num_output: 4000
    bias_term: false
    weight_filler {
      type: "uniform"
      min: -0.08
      max: 0.08
    }
    axis: 2
  }
}
layer {
  name: "lstm1_gate_input_1"
  type: "Eltwise"
  bottom: "W_hc_h_0"
  bottom: "W_xc_x_1"
  top: "gate_input_1"
  eltwise_param {
    operation: SUM
  }
}
layer {
  name: "lstm1_unit_1"
  type: "LSTMUnit"
  bottom: "c_0"
  bottom: "gate_input_1"
  bottom: "cont_1"
  top: "c_1"
  top: "h_1"
}
layer {
  name: "lstm1_"
  type: "Split"
  bottom: "c_1"
  top: "c_T"
}
layer {
  name: "lstm1_h_concat"
  type: "Concat"
  bottom: "h_1"
  top: "h"
  concat_param {
    axis: 0
  }
}
layer {
  name: "h_pseudoloss"
  type: "Reduction"
  bottom: "h"
  top: "h_pseudoloss"
  loss_weight: 1
}
I0730 11:01:21.839650 28345 layer_factory.hpp:77] Creating layer lstm1_
I0730 11:01:21.839663 28345 net.cpp:91] Creating Layer lstm1_
I0730 11:01:21.839669 28345 net.cpp:399] lstm1_ -> x
I0730 11:01:21.839680 28345 net.cpp:399] lstm1_ -> cont
I0730 11:01:21.839751 28345 net.cpp:141] Setting up lstm1_
I0730 11:01:21.839761 28345 net.cpp:148] Top shape: 1 1 500 (500)
I0730 11:01:21.839766 28345 net.cpp:148] Top shape: 1 1 (1)
I0730 11:01:21.839771 28345 net.cpp:156] Memory required for data: 2004
I0730 11:01:21.839776 28345 layer_factory.hpp:77] Creating layer lstm1_
I0730 11:01:21.839787 28345 net.cpp:91] Creating Layer lstm1_
I0730 11:01:21.839794 28345 net.cpp:399] lstm1_ -> c_0
I0730 11:01:21.839803 28345 net.cpp:399] lstm1_ -> h_0
I0730 11:01:21.839856 28345 net.cpp:141] Setting up lstm1_
I0730 11:01:21.839865 28345 net.cpp:148] Top shape: 1 1 1000 (1000)
I0730 11:01:21.839871 28345 net.cpp:148] Top shape: 1 1 1000 (1000)
I0730 11:01:21.839875 28345 net.cpp:156] Memory required for data: 10004
I0730 11:01:21.839880 28345 layer_factory.hpp:77] Creating layer lstm1_cont_slice
I0730 11:01:21.839889 28345 net.cpp:91] Creating Layer lstm1_cont_slice
I0730 11:01:21.839893 28345 net.cpp:425] lstm1_cont_slice <- cont
I0730 11:01:21.839902 28345 net.cpp:399] lstm1_cont_slice -> cont_1
I0730 11:01:21.839938 28345 net.cpp:141] Setting up lstm1_cont_slice
I0730 11:01:21.839948 28345 net.cpp:148] Top shape: 1 1 (1)
I0730 11:01:21.839952 28345 net.cpp:156] Memory required for data: 10008
I0730 11:01:21.839957 28345 layer_factory.hpp:77] Creating layer cont_1_lstm1_cont_slice_0_split
I0730 11:01:21.839964 28345 net.cpp:91] Creating Layer cont_1_lstm1_cont_slice_0_split
I0730 11:01:21.839969 28345 net.cpp:425] cont_1_lstm1_cont_slice_0_split <- cont_1
I0730 11:01:21.839975 28345 net.cpp:399] cont_1_lstm1_cont_slice_0_split -> cont_1_lstm1_cont_slice_0_split_0
I0730 11:01:21.839983 28345 net.cpp:399] cont_1_lstm1_cont_slice_0_split -> cont_1_lstm1_cont_slice_0_split_1
I0730 11:01:21.840031 28345 net.cpp:141] Setting up cont_1_lstm1_cont_slice_0_split
I0730 11:01:21.840039 28345 net.cpp:148] Top shape: 1 1 (1)
I0730 11:01:21.840045 28345 net.cpp:148] Top shape: 1 1 (1)
I0730 11:01:21.840049 28345 net.cpp:156] Memory required for data: 10016
I0730 11:01:21.840054 28345 layer_factory.hpp:77] Creating layer lstm1_x_transform
I0730 11:01:21.840066 28345 net.cpp:91] Creating Layer lstm1_x_transform
I0730 11:01:21.840071 28345 net.cpp:425] lstm1_x_transform <- x
I0730 11:01:21.840078 28345 net.cpp:399] lstm1_x_transform -> W_xc_x
I0730 11:01:21.844862 28356 net.cpp:141] Setting up fc8
I0730 11:01:21.844902 28356 net.cpp:148] Top shape: 10 1000 (10000)
I0730 11:01:21.844907 28356 net.cpp:156] Memory required for data: 68641400
I0730 11:01:21.844920 28356 layer_factory.hpp:77] Creating layer prob
I0730 11:01:21.844941 28356 net.cpp:91] Creating Layer prob
I0730 11:01:21.844949 28356 net.cpp:425] prob <- fc8
I0730 11:01:21.844959 28356 net.cpp:399] prob -> prob
I0730 11:01:21.845360 28356 net.cpp:141] Setting up prob
I0730 11:01:21.845373 28356 net.cpp:148] Top shape: 10 1000 (10000)
I0730 11:01:21.845379 28356 net.cpp:156] Memory required for data: 68681400
I0730 11:01:21.845384 28356 net.cpp:219] prob does not need backward computation.
I0730 11:01:21.845389 28356 net.cpp:219] fc8 does not need backward computation.
I0730 11:01:21.845393 28356 net.cpp:219] drop7 does not need backward computation.
I0730 11:01:21.845398 28356 net.cpp:219] relu7 does not need backward computation.
…
I0730 11:01:21.845468 28356 net.cpp:219] norm1 does not need backward computation.
I0730 11:01:21.845471 28356 net.cpp:219] pool1 does not need backward computation.
I0730 11:01:21.845476 28356 net.cpp:219] relu1 does not need backward computation.
I0730 11:01:21.845480 28356 net.cpp:219] conv1 does not need backward computation.
I0730 11:01:21.845484 28356 net.cpp:219] data does not need backward computation.
I0730 11:01:21.845489 28356 net.cpp:261] This network produces output prob
I0730 11:01:21.845510 28356 net.cpp:274] Network initialization done.
I0730 11:01:21.861335 28345 net.cpp:141] Setting up lstm1_x_transform
I0730 11:01:21.861377 28345 net.cpp:148] Top shape: 1 1 4000 (4000)
I0730 11:01:21.861382 28345 net.cpp:156] Memory required for data: 26016
I0730 11:01:21.861402 28345 layer_factory.hpp:77] Creating layer lstm1_W_xc_x_slice
I0730 11:01:21.861416 28345 net.cpp:91] Creating Layer lstm1_W_xc_x_slice
I0730 11:01:21.861423 28345 net.cpp:425] lstm1_W_xc_x_slice <- W_xc_x
I0730 11:01:21.861431 28345 net.cpp:399] lstm1_W_xc_x_slice -> W_xc_x_1
I0730 11:01:21.861479 28345 net.cpp:141] Setting up lstm1_W_xc_x_slice
I0730 11:01:21.861488 28345 net.cpp:148] Top shape: 1 1 4000 (4000)
I0730 11:01:21.861492 28345 net.cpp:156] Memory required for data: 42016
I0730 11:01:21.861497 28345 layer_factory.hpp:77] Creating layer lstm1_h_conted_0
I0730 11:01:21.861507 28345 net.cpp:91] Creating Layer lstm1_h_conted_0
I0730 11:01:21.861513 28345 net.cpp:425] lstm1_h_conted_0 <- h_0
I0730 11:01:21.861518 28345 net.cpp:425] lstm1_h_conted_0 <- cont_1_lstm1_cont_slice_0_split_0
I0730 11:01:21.861526 28345 net.cpp:399] lstm1_h_conted_0 -> h_conted_0
I0730 11:01:21.861670 28345 net.cpp:141] Setting up lstm1_h_conted_0
I0730 11:01:21.861688 28345 net.cpp:148] Top shape: 1 1 1000 (1000)
I0730 11:01:21.861696 28345 net.cpp:156] Memory required for data: 46016
I0730 11:01:21.861704 28345 layer_factory.hpp:77] Creating layer lstm1_transform_1
I0730 11:01:21.861722 28345 net.cpp:91] Creating Layer lstm1_transform_1
I0730 11:01:21.861732 28345 net.cpp:425] lstm1_transform_1 <- h_conted_0
I0730 11:01:21.861745 28345 net.cpp:399] lstm1_transform_1 -> W_hc_h_0
I0730 11:01:21.902479 28345 net.cpp:141] Setting up lstm1_transform_1
I0730 11:01:21.902536 28345 net.cpp:148] Top shape: 1 1 4000 (4000)
I0730 11:01:21.902542 28345 net.cpp:156] Memory required for data: 62016
I0730 11:01:21.902560 28345 layer_factory.hpp:77] Creating layer lstm1_gate_input_1
I0730 11:01:21.902581 28345 net.cpp:91] Creating Layer lstm1_gate_input_1
I0730 11:01:21.902588 28345 net.cpp:425] lstm1_gate_input_1 <- W_hc_h_0
I0730 11:01:21.902596 28345 net.cpp:425] lstm1_gate_input_1 <- W_xc_x_1
I0730 11:01:21.902604 28345 net.cpp:399] lstm1_gate_input_1 -> gate_input_1
I0730 11:01:21.902659 28345 net.cpp:141] Setting up lstm1_gate_input_1
I0730 11:01:21.902669 28345 net.cpp:148] Top shape: 1 1 4000 (4000)
I0730 11:01:21.902673 28345 net.cpp:156] Memory required for data: 78016
I0730 11:01:21.902678 28345 layer_factory.hpp:77] Creating layer lstm1_unit_1
I0730 11:01:21.902695 28345 net.cpp:91] Creating Layer lstm1_unit_1
I0730 11:01:21.902701 28345 net.cpp:425] lstm1_unit_1 <- c_0
I0730 11:01:21.902707 28345 net.cpp:425] lstm1_unit_1 <- gate_input_1
I0730 11:01:21.902712 28345 net.cpp:425] lstm1_unit_1 <- cont_1_lstm1_cont_slice_0_split_1
I0730 11:01:21.902721 28345 net.cpp:399] lstm1_unit_1 -> c_1
I0730 11:01:21.902730 28345 net.cpp:399] lstm1_unit_1 -> h_1
I0730 11:01:21.902792 28345 net.cpp:141] Setting up lstm1_unit_1
I0730 11:01:21.902801 28345 net.cpp:148] Top shape: 1 1 1000 (1000)
I0730 11:01:21.902807 28345 net.cpp:148] Top shape: 1 1 1000 (1000)
I0730 11:01:21.902812 28345 net.cpp:156] Memory required for data: 86016
I0730 11:01:21.902817 28345 layer_factory.hpp:77] Creating layer lstm1_
I0730 11:01:21.902824 28345 net.cpp:91] Creating Layer lstm1_
I0730 11:01:21.902828 28345 net.cpp:425] lstm1_ <- c_1
I0730 11:01:21.902835 28345 net.cpp:399] lstm1_ -> c_T
I0730 11:01:21.902868 28345 net.cpp:141] Setting up lstm1_
I0730 11:01:21.902875 28345 net.cpp:148] Top shape: 1 1 1000 (1000)
I0730 11:01:21.902880 28345 net.cpp:156] Memory required for data: 90016
I0730 11:01:21.902885 28345 layer_factory.hpp:77] Creating layer lstm1_h_concat
I0730 11:01:21.902911 28345 net.cpp:91] Creating Layer lstm1_h_concat
I0730 11:01:21.902918 28345 net.cpp:425] lstm1_h_concat <- h_1
I0730 11:01:21.902925 28345 net.cpp:399] lstm1_h_concat -> h
I0730 11:01:21.902959 28345 net.cpp:141] Setting up lstm1_h_concat
I0730 11:01:21.902967 28345 net.cpp:148] Top shape: 1 1 1000 (1000)
I0730 11:01:21.902971 28345 net.cpp:156] Memory required for data: 94016
I0730 11:01:21.902976 28345 layer_factory.hpp:77] Creating layer h_pseudoloss
I0730 11:01:21.902987 28345 net.cpp:91] Creating Layer h_pseudoloss
I0730 11:01:21.902992 28345 net.cpp:425] h_pseudoloss <- h
I0730 11:01:21.902998 28345 net.cpp:399] h_pseudoloss -> h_pseudoloss
I0730 11:01:21.903082 28345 net.cpp:141] Setting up h_pseudoloss
…
I0730 11:01:21.903195 28345 net.cpp:219] lstm1_ does not need backward computation.
I0730 11:01:21.903199 28345 net.cpp:261] This network produces output c_T
I0730 11:01:21.903203 28345 net.cpp:261] This network produces output h_pseudoloss
I0730 11:01:21.903220 28345 net.cpp:274] Network initialization done.
I0730 11:01:21.903282 28345 recurrent_layer.cpp:150] Adding parameter 0: W_xc
I0730 11:01:21.903288 28345 recurrent_layer.cpp:150] Adding parameter 1: b_c
I0730 11:01:21.903292 28345 recurrent_layer.cpp:150] Adding parameter 2: W_hc
I0730 11:01:21.903396 28345 net.cpp:141] Setting up lstm1
I0730 11:01:21.903409 28345 net.cpp:148] Top shape: 1 1 1000 (1000)
I0730 11:01:21.903414 28345 net.cpp:156] Memory required for data: 26408
I0730 11:01:21.903427 28345 layer_factory.hpp:77] Creating layer concat
I0730 11:01:21.903437 28345 net.cpp:91] Creating Layer concat
I0730 11:01:21.903445 28345 net.cpp:425] concat <- lstm1
I0730 11:01:21.903451 28345 net.cpp:425] concat <- embedded_input_sentence
I0730 11:01:21.903456 28345 net.cpp:425] concat <- reshaped_stage_indicator
I0730 11:01:21.903462 28345 net.cpp:399] concat -> lstm1_video_sequence
I0730 11:01:21.903496 28345 net.cpp:141] Setting up concat
I0730 11:01:21.903504 28345 net.cpp:148] Top shape: 1 1 1501 (1501)
I0730 11:01:21.903508 28345 net.cpp:156] Memory required for data: 32412
I0730 11:01:21.903513 28345 layer_factory.hpp:77] Creating layer lstm2
I0730 11:01:21.903527 28345 net.cpp:91] Creating Layer lstm2
I0730 11:01:21.903532 28345 net.cpp:425] lstm2 <- lstm1_video_sequence
I0730 11:01:21.903537 28345 net.cpp:425] lstm2 <- cont_sentence_input_1_split_1
I0730 11:01:21.903544 28345 net.cpp:399] lstm2 -> lstm2
I0730 11:01:21.903553 28345 recurrent_layer.cpp:20] Initializing recurrent layer: assuming input batch contains 1 timesteps of 1 independent streams.
I0730 11:01:21.903988 28345 net.cpp:49] Initializing net from parameters: 
layer {
  name: "lstm2_"
  type: "Input"
  top: "x"
  top: "cont"
  input_param {
    shape {
      dim: 1
      dim: 1
      dim: 1501
    }
    shape {
      dim: 1
      dim: 1
    }
  }
}
layer {
  name: "lstm2_"
  type: "Input"
  top: "c_0"
  top: "h_0"
  input_param {
    shape {
      dim: 1
      dim: 1
      dim: 1000
    }
    shape {
      dim: 1
      dim: 1
      dim: 1000
    }
  }
}
layer {
  name: "lstm2_cont_slice"
  type: "Slice"
  bottom: "cont"
  top: "cont_1"
  slice_param {
    axis: 0
  }
}
layer {
  name: "lstm2_x_transform"
  type: "InnerProduct"
  bottom: "x"
  top: "W_xc_x"
  param {
    name: "W_xc"
  }
  param {
    name: "b_c"
  }
  propagate_down: true
  inner_product_param {
    num_output: 4000
    bias_term: true
    weight_filler {
      type: "uniform"
      min: -0.08
      max: 0.08
    }
    bias_filler {
      type: "constant"
      value: 0
    }
    axis: 2
  }
}
layer {
  name: "lstm2_W_xc_x_slice"
  type: "Slice"
  bottom: "W_xc_x"
  top: "W_xc_x_1"
  slice_param {
    axis: 0
  }
}
layer {
  name: "lstm2_h_conted_0"
  type: "Scale"
  bottom: "h_0"
  bottom: "cont_1"
  top: "h_conted_0"
  scale_param {
    axis: 0
  }
}
layer {
  name: "lstm2_transform_1"
  type: "InnerProduct"
  bottom: "h_conted_0"
  top: "W_hc_h_0"
  param {
    name: "W_hc"
  }
  inner_product_param {
    num_output: 4000
    bias_term: false
    weight_filler {
      type: "uniform"
      min: -0.08
      max: 0.08
    }
    axis: 2
  }
}
layer {
  name: "lstm2_gate_input_1"
  type: "Eltwise"
  bottom: "W_hc_h_0"
  bottom: "W_xc_x_1"
  top: "gate_input_1"
  eltwise_param {
    operation: SUM
  }
}
layer {
  name: "lstm2_unit_1"
  type: "LSTMUnit"
  bottom: "c_0"
  bottom: "gate_input_1"
  bottom: "cont_1"
  top: "c_1"
  top: "h_1"
}
layer {
  name: "lstm2_"
  type: "Split"
  bottom: "c_1"
  top: "c_T"
}
layer {
  name: "lstm2_h_concat"
  type: "Concat"
  bottom: "h_1"
  top: "h"
  concat_param {
    axis: 0
  }
}
layer {
  name: "h_pseudoloss"
  type: "Reduction"
  bottom: "h"
  top: "h_pseudoloss"
  loss_weight: 1
}
I0730 11:01:21.904088 28345 layer_factory.hpp:77] Creating layer lstm2_
I0730 11:01:21.904103 28345 net.cpp:91] Creating Layer lstm2_
I0730 11:01:21.904109 28345 net.cpp:399] lstm2_ -> x
I0730 11:01:21.904119 28345 net.cpp:399] lstm2_ -> cont
I0730 11:01:21.904172 28345 net.cpp:141] Setting up lstm2_
I0730 11:01:21.904181 28345 net.cpp:148] Top shape: 1 1 1501 (1501)
I0730 11:01:21.904187 28345 net.cpp:148] Top shape: 1 1 (1)
I0730 11:01:21.904192 28345 net.cpp:156] Memory required for data: 6008
I0730 11:01:21.904196 28345 layer_factory.hpp:77] Creating layer lstm2_
I0730 11:01:21.904206 28345 net.cpp:91] Creating Layer lstm2_
I0730 11:01:21.904216 28345 net.cpp:399] lstm2_ -> c_0
I0730 11:01:21.904225 28345 net.cpp:399] lstm2_ -> h_0
I0730 11:01:21.904269 28345 net.cpp:141] Setting up lstm2_
I0730 11:01:21.904278 28345 net.cpp:148] Top shape: 1 1 1000 (1000)
I0730 11:01:21.904284 28345 net.cpp:148] Top shape: 1 1 1000 (1000)
I0730 11:01:21.904287 28345 net.cpp:156] Memory required for data: 14008
I0730 11:01:21.904292 28345 layer_factory.hpp:77] Creating layer lstm2_cont_slice
I0730 11:01:21.904302 28345 net.cpp:91] Creating Layer lstm2_cont_slice
I0730 11:01:21.904307 28345 net.cpp:425] lstm2_cont_slice <- cont
I0730 11:01:21.904314 28345 net.cpp:399] lstm2_cont_slice -> cont_1
I0730 11:01:21.904346 28345 net.cpp:141] Setting up lstm2_cont_slice
I0730 11:01:21.904355 28345 net.cpp:148] Top shape: 1 1 (1)
I0730 11:01:21.904359 28345 net.cpp:156] Memory required for data: 14012
I0730 11:01:21.904363 28345 layer_factory.hpp:77] Creating layer cont_1_lstm2_cont_slice_0_split
I0730 11:01:21.904372 28345 net.cpp:91] Creating Layer cont_1_lstm2_cont_slice_0_split
I0730 11:01:21.904377 28345 net.cpp:425] cont_1_lstm2_cont_slice_0_split <- cont_1
I0730 11:01:21.904383 28345 net.cpp:399] cont_1_lstm2_cont_slice_0_split -> cont_1_lstm2_cont_slice_0_split_0
I0730 11:01:21.904392 28345 net.cpp:399] cont_1_lstm2_cont_slice_0_split -> cont_1_lstm2_cont_slice_0_split_1
I0730 11:01:21.904438 28345 net.cpp:141] Setting up cont_1_lstm2_cont_slice_0_split
I0730 11:01:21.904448 28345 net.cpp:148] Top shape: 1 1 (1)
I0730 11:01:21.904453 28345 net.cpp:148] Top shape: 1 1 (1)
I0730 11:01:21.904458 28345 net.cpp:156] Memory required for data: 14020
I0730 11:01:21.904461 28345 layer_factory.hpp:77] Creating layer lstm2_x_transform
I0730 11:01:21.904474 28345 net.cpp:91] Creating Layer lstm2_x_transform
I0730 11:01:21.904479 28345 net.cpp:425] lstm2_x_transform <- x
I0730 11:01:21.904486 28345 net.cpp:399] lstm2_x_transform -> W_xc_x
I0730 11:01:21.962741 28345 net.cpp:141] Setting up lstm2_x_transform
I0730 11:01:21.962795 28345 net.cpp:148] Top shape: 1 1 4000 (4000)
I0730 11:01:21.962802 28345 net.cpp:156] Memory required for data: 30020
I0730 11:01:21.962821 28345 layer_factory.hpp:77] Creating layer lstm2_W_xc_x_slice
I0730 11:01:21.962844 28345 net.cpp:91] Creating Layer lstm2_W_xc_x_slice
I0730 11:01:21.962851 28345 net.cpp:425] lstm2_W_xc_x_slice <- W_xc_x
I0730 11:01:21.962860 28345 net.cpp:399] lstm2_W_xc_x_slice -> W_xc_x_1
I0730 11:01:21.962909 28345 net.cpp:141] Setting up lstm2_W_xc_x_slice
I0730 11:01:21.962919 28345 net.cpp:148] Top shape: 1 1 4000 (4000)
I0730 11:01:21.962924 28345 net.cpp:156] Memory required for data: 46020
I0730 11:01:21.962929 28345 layer_factory.hpp:77] Creating layer lstm2_h_conted_0
I0730 11:01:21.962939 28345 net.cpp:91] Creating Layer lstm2_h_conted_0
I0730 11:01:21.962944 28345 net.cpp:425] lstm2_h_conted_0 <- h_0
I0730 11:01:21.962950 28345 net.cpp:425] lstm2_h_conted_0 <- cont_1_lstm2_cont_slice_0_split_0
I0730 11:01:21.962957 28345 net.cpp:399] lstm2_h_conted_0 -> h_conted_0
I0730 11:01:21.963047 28345 net.cpp:141] Setting up lstm2_h_conted_0
I0730 11:01:21.963057 28345 net.cpp:148] Top shape: 1 1 1000 (1000)
I0730 11:01:21.963060 28345 net.cpp:156] Memory required for data: 50020
I0730 11:01:21.963065 28345 layer_factory.hpp:77] Creating layer lstm2_transform_1
I0730 11:01:21.963078 28345 net.cpp:91] Creating Layer lstm2_transform_1
I0730 11:01:21.963083 28345 net.cpp:425] lstm2_transform_1 <- h_conted_0
I0730 11:01:21.963089 28345 net.cpp:399] lstm2_transform_1 -> W_hc_h_0
I0730 11:01:22.002921 28345 net.cpp:141] Setting up lstm2_transform_1
I0730 11:01:22.002972 28345 net.cpp:148] Top shape: 1 1 4000 (4000)
I0730 11:01:22.002979 28345 net.cpp:156] Memory required for data: 66020
I0730 11:01:22.002996 28345 layer_factory.hpp:77] Creating layer lstm2_gate_input_1
I0730 11:01:22.003013 28345 net.cpp:91] Creating Layer lstm2_gate_input_1
I0730 11:01:22.003021 28345 net.cpp:425] lstm2_gate_input_1 <- W_hc_h_0
I0730 11:01:22.003028 28345 net.cpp:425] lstm2_gate_input_1 <- W_xc_x_1
I0730 11:01:22.003036 28345 net.cpp:399] lstm2_gate_input_1 -> gate_input_1
I0730 11:01:22.003084 28345 net.cpp:141] Setting up lstm2_gate_input_1
I0730 11:01:22.003094 28345 net.cpp:148] Top shape: 1 1 4000 (4000)
I0730 11:01:22.003098 28345 net.cpp:156] Memory required for data: 82020
I0730 11:01:22.003103 28345 layer_factory.hpp:77] Creating layer lstm2_unit_1
I0730 11:01:22.003113 28345 net.cpp:91] Creating Layer lstm2_unit_1
I0730 11:01:22.003118 28345 net.cpp:425] lstm2_unit_1 <- c_0
I0730 11:01:22.003123 28345 net.cpp:425] lstm2_unit_1 <- gate_input_1
I0730 11:01:22.003129 28345 net.cpp:425] lstm2_unit_1 <- cont_1_lstm2_cont_slice_0_split_1
I0730 11:01:22.003134 28345 net.cpp:399] lstm2_unit_1 -> c_1
I0730 11:01:22.003144 28345 net.cpp:399] lstm2_unit_1 -> h_1
I0730 11:01:22.003206 28345 net.cpp:141] Setting up lstm2_unit_1
I0730 11:01:22.003214 28345 net.cpp:148] Top shape: 1 1 1000 (1000)
I0730 11:01:22.003221 28345 net.cpp:148] Top shape: 1 1 1000 (1000)
I0730 11:01:22.003224 28345 net.cpp:156] Memory required for data: 90020
I0730 11:01:22.003229 28345 layer_factory.hpp:77] Creating layer lstm2_
I0730 11:01:22.003237 28345 net.cpp:91] Creating Layer lstm2_
I0730 11:01:22.003242 28345 net.cpp:425] lstm2_ <- c_1
I0730 11:01:22.003247 28345 net.cpp:399] lstm2_ -> c_T
I0730 11:01:22.003276 28345 net.cpp:141] Setting up lstm2_
I0730 11:01:22.003284 28345 net.cpp:148] Top shape: 1 1 1000 (1000)
I0730 11:01:22.003289 28345 net.cpp:156] Memory required for data: 94020
I0730 11:01:22.003293 28345 layer_factory.hpp:77] Creating layer lstm2_h_concat
I0730 11:01:22.003305 28345 net.cpp:91] Creating Layer lstm2_h_concat
I0730 11:01:22.003310 28345 net.cpp:425] lstm2_h_concat <- h_1
I0730 11:01:22.003317 28345 net.cpp:399] lstm2_h_concat -> h
I0730 11:01:22.003353 28345 net.cpp:141] Setting up lstm2_h_concat
I0730 11:01:22.003361 28345 net.cpp:148] Top shape: 1 1 1000 (1000)
I0730 11:01:22.003366 28345 net.cpp:156] Memory required for data: 98020
I0730 11:01:22.003371 28345 layer_factory.hpp:77] Creating layer h_pseudoloss
I0730 11:01:22.003379 28345 net.cpp:91] Creating Layer h_pseudoloss
I0730 11:01:22.003383 28345 net.cpp:425] h_pseudoloss <- h
I0730 11:01:22.003392 28345 net.cpp:399] h_pseudoloss -> h_pseudoloss
I0730 11:01:22.003473 28345 net.cpp:141] Setting up h_pseudoloss
…
