…
W0924 03:57:21.349427 13486 upgrade_proto.cpp:71] Note that future Caffe releases will only support input layers and not input fields.
I0924 03:57:21.349571 13466 net.cpp:49] Initializing net from parameters: 
name: "s2vt:features_to_lstm"
state {
  phase: TEST
}
layer {
  name: "input"
  type: "Input"
  top: "frames_fc7"
  top: "cont_sentence"
  top: "input_sentence"
  top: "stage_indicator"
  input_param {
    shape {
      dim: 1
      dim: 4096
    }
    shape {
      dim: 1
      dim: 1
    }
    shape {
      dim: 1
      dim: 1
    }
    shape {
      dim: 1
      dim: 1
    }
  }
}
layer {
  name: "embed_encoder"
  type: "InnerProduct"
  bottom: "frames_fc7"
  top: "embedded_in_frames"
  param {
    lr_mult: 1
    decay_mult: 1
  }
  param {
    lr_mult: 2
    decay_mult: 0
  }
  inner_product_param {
    num_output: 500
    weight_filler {
      type: "xavier"
    }
    bias_filler {
      type: "constant"
      value: 0.2
    }
  }
}
layer {
  name: "reshape_frames"
  type: "Reshape"
  bottom: "embedded_in_frames"
  top: "embedded_input_frames"
  reshape_param {
    shape {
      dim: 1
      dim: 1
      dim: 500
    }
  }
}
layer {
  name: "reshape_stage_indicator"
  type: "Reshape"
  bottom: "stage_indicator"
  top: "reshaped_stage_indicator"
  reshape_param {
    shape {
      dim: 1
      dim: 1
      dim: 1
    }
  }
}
layer {
  name: "embedding"
  type: "Embed"
  bottom: "input_sentence"
  top: "embedded_input_sentence"
  param {
    lr_mult: 1
  }
  embed_param {
    num_output: 500
    input_dim: 46168
    bias_term: false
    weight_filler {
      type: "uniform"
      min: -0.08
      max: 0.08
    }
  }
}
layer {
  name: "lstm1"
  type: "LSTM"
  bottom: "embedded_input_frames"
  bottom: "cont_sentence"
  top: "lstm1"
  recurrent_param {
    num_output: 1000
    weight_filler {
      type: "uniform"
      min: -0.08
      max: 0.08
    }
    bias_filler {
      type: "constant"
      value: 0
    }
  }
}
layer {
  name: "concat"
  type: "Concat"
  bottom: "lstm1"
  bottom: "embedded_input_sentence"
  bottom: "reshaped_stage_indicator"
  top: "lstm1_video_sequence"
  concat_param {
    concat_dim: 2
  }
}
layer {
  name: "lstm2"
  type: "LSTM"
  bottom: "lstm1_video_sequence"
  bottom: "cont_sentence"
  top: "lstm2"
  recurrent_param {
    num_output: 1000
    weight_filler {
      type: "uniform"
      min: -0.08
      max: 0.08
    }
    bias_filler {
      type: "constant"
      value: 0
    }
  }
}
layer {
  name: "predict"
  type: "InnerProduct"
  bottom: "lstm2"
  top: "predict"
  param {
    lr_mult: 1
    decay_mult: 1
  }
  param {
    lr_mult: 2
    decay_mult: 0
  }
  inner_product_param {
    num_output: 46168
    weight_filler {
      type: "uniform"
      min: -0.08
      max: 0.08
    }
    bias_filler {
      type: "constant"
      value: 0
    }
    axis: 2
  }
}
layer {
  name: "probs"
  type: "Softmax"
  bottom: "predict"
  top: "probs"
  softmax_param {
    axis: 2
  }
}
I0924 03:57:21.349597 13480 net.cpp:49] Initializing net from parameters: 
name: "s2vt:features_to_lstm"
state {
  phase: TEST
}
layer {
  name: "input"
  type: "Input"
  top: "frames_fc7"
  top: "cont_sentence"
  top: "input_sentence"
  top: "stage_indicator"
  input_param {
    shape {
      dim: 1
      dim: 4096
    }
    shape {
      dim: 1
      dim: 1
    }
    shape {
      dim: 1
      dim: 1
    }
    shape {
      dim: 1
      dim: 1
    }
  }
}
layer {
  name: "embed_encoder"
  type: "InnerProduct"
  bottom: "frames_fc7"
  top: "embedded_in_frames"
  param {
    lr_mult: 1
    decay_mult: 1
  }
  param {
    lr_mult: 2
    decay_mult: 0
  }
  inner_product_param {
    num_output: 500
    weight_filler {
      type: "xavier"
    }
    bias_filler {
      type: "constant"
      value: 0.2
    }
  }
}
layer {
  name: "reshape_frames"
  type: "Reshape"
  bottom: "embedded_in_frames"
  top: "embedded_input_frames"
  reshape_param {
    shape {
      dim: 1
      dim: 1
      dim: 500
    }
  }
}
layer {
  name: "reshape_stage_indicator"
  type: "Reshape"
  bottom: "stage_indicator"
  top: "reshaped_stage_indicator"
  reshape_param {
    shape {
      dim: 1
      dim: 1
      dim: 1
    }
  }
}
layer {
  name: "embedding"
  type: "Embed"
  bottom: "input_sentence"
  top: "embedded_input_sentence"
  param {
    lr_mult: 1
  }
  embed_param {
    num_output: 500
    input_dim: 46168
    bias_term: false
    weight_filler {
      type: "uniform"
      min: -0.08
      max: 0.08
    }
  }
}
layer {
  name: "lstm1"
  type: "LSTM"
  bottom: "embedded_input_frames"
  bottom: "cont_sentence"
  top: "lstm1"
  recurrent_param {
    num_output: 1000
    weight_filler {
      type: "uniform"
      min: -0.08
      max: 0.08
    }
    bias_filler {
      type: "constant"
      value: 0
    }
  }
}
layer {
  name: "concat"
  type: "Concat"
  bottom: "lstm1"
  bottom: "embedded_input_sentence"
  bottom: "reshaped_stage_indicator"
  top: "lstm1_video_sequence"
  concat_param {
    concat_dim: 2
  }
}
layer {
  name: "lstm2"
  type: "LSTM"
  bottom: "lstm1_video_sequence"
  bottom: "cont_sentence"
  top: "lstm2"
  recurrent_param {
    num_output: 1000
    weight_filler {
      type: "uniform"
      min: -0.08
      max: 0.08
    }
    bias_filler {
      type: "constant"
      value: 0
    }
  }
}
layer {
  name: "predict"
  type: "InnerProduct"
  bottom: "lstm2"
  top: "predict"
  param {
    lr_mult: 1
    decay_mult: 1
  }
  param {
    lr_mult: 2
    decay_mult: 0
  }
  inner_product_param {
    num_output: 46168
    weight_filler {
      type: "uniform"
      min: -0.08
      max: 0.08
    }
    bias_filler {
      type: "constant"
      value: 0
    }
    axis: 2
  }
}
layer {
  name: "probs"
  type: "Softmax"
  bottom: "predict"
  top: "probs"
  softmax_param {
    axis: 2
  }
}
I0924 03:57:21.349645 13517 net.cpp:49] Initializing net from parameters: 
name: "s2vt:features_to_lstm"
state {
  phase: TEST
}
layer {
  name: "input"
  type: "Input"
  top: "frames_fc7"
  top: "cont_sentence"
  top: "input_sentence"
  top: "stage_indicator"
  input_param {
    shape {
      dim: 1
      dim: 4096
    }
    shape {
      dim: 1
      dim: 1
    }
    shape {
      dim: 1
      dim: 1
    }
    shape {
      dim: 1
      dim: 1
    }
  }
}
layer {
  name: "embed_encoder"
  type: "InnerProduct"
  bottom: "frames_fc7"
  top: "embedded_in_frames"
  param {
    lr_mult: 1
    decay_mult: 1
  }
  param {
    lr_mult: 2
    decay_mult: 0
  }
  inner_product_param {
    num_output: 500
    weight_filler {
      type: "xavier"
    }
    bias_filler {
      type: "constant"
      value: 0.2
    }
  }
}
layer {
  name: "reshape_frames"
  type: "Reshape"
  bottom: "embedded_in_frames"
  top: "embedded_input_frames"
  reshape_param {
    shape {
      dim: 1
      dim: 1
      dim: 500
    }
  }
}
layer {
  name: "reshape_stage_indicator"
  type: "Reshape"
  bottom: "stage_indicator"
  top: "reshaped_stage_indicator"
  reshape_param {
    shape {
      dim: 1
      dim: 1
      dim: 1
    }
  }
}
layer {
  name: "embedding"
  type: "Embed"
  bottom: "input_sentence"
  top: "embedded_input_sentence"
  param {
    lr_mult: 1
  }
  embed_param {
    num_output: 500
    input_dim: 46168
    bias_term: false
    weight_filler {
      type: "uniform"
      min: -0.08
      max: 0.08
    }
  }
}
layer {
  name: "lstm1"
  type: "LSTM"
  bottom: "embedded_input_frames"
  bottom: "cont_sentence"
  top: "lstm1"
  recurrent_param {
    num_output: 1000
    weight_filler {
      type: "uniform"
      min: -0.08
      max: 0.08
    }
    bias_filler {
      type: "constant"
      value: 0
    }
  }
}
layer {
  name: "concat"
  type: "Concat"
  bottom: "lstm1"
  bottom: "embedded_input_sentence"
  bottom: "reshaped_stage_indicator"
  top: "lstm1_video_sequence"
  concat_param {
    concat_dim: 2
  }
}
layer {
  name: "lstm2"
  type: "LSTM"
  bottom: "lstm1_video_sequence"
  bottom: "cont_sentence"
  top: "lstm2"
  recurrent_param {
    num_output: 1000
    weight_filler {
      type: "uniform"
      min: -0.08
      max: 0.08
    }
    bias_filler {
      type: "constant"
      value: 0
    }
  }
}
layer {
  name: "predict"
  type: "InnerProduct"
  bottom: "lstm2"
  top: "predict"
  param {
    lr_mult: 1
    decay_mult: 1
  }
  param {
    lr_mult: 2
    decay_mult: 0
  }
  inner_product_param {
    num_output: 46168
    weight_filler {
      type: "uniform"
      min: -0.08
      max: 0.08
    }
    bias_filler {
      type: "constant"
      value: 0
    }
    axis: 2
  }
}
layer {
  name: "probs"
  type: "Softmax"
  bottom: "predict"
  top: "probs"
  softmax_param {
    axis: 2
  }
}
I0924 03:57:21.349645 13504 net.cpp:49] Initializing net from parameters: 
name: "s2vt:features_to_lstm"
state {
  phase: TEST
}
layer {
  name: "input"
  type: "Input"
  top: "frames_fc7"
  top: "cont_sentence"
  top: "input_sentence"
  top: "stage_indicator"
  input_param {
    shape {
      dim: 1
      dim: 4096
    }
    shape {
      dim: 1
      dim: 1
    }
    shape {
      dim: 1
      dim: 1
    }
    shape {
      dim: 1
      dim: 1
    }
  }
}
layer {
  name: "embed_encoder"
  type: "InnerProduct"
  bottom: "frames_fc7"
  top: "embedded_in_frames"
  param {
    lr_mult: 1
    decay_mult: 1
  }
  param {
    lr_mult: 2
    decay_mult: 0
  }
  inner_product_param {
    num_output: 500
    weight_filler {
      type: "xavier"
    }
    bias_filler {
      type: "constant"
      value: 0.2
    }
  }
}
layer {
  name: "reshape_frames"
  type: "Reshape"
  bottom: "embedded_in_frames"
  top: "embedded_input_frames"
  reshape_param {
    shape {
      dim: 1
      dim: 1
      dim: 500
    }
  }
}
layer {
  name: "reshape_stage_indicator"
  type: "Reshape"
  bottom: "stage_indicator"
  top: "reshaped_stage_indicator"
  reshape_param {
    shape {
      dim: 1
      dim: 1
      dim: 1
    }
  }
}
layer {
  name: "embedding"
  type: "Embed"
  bottom: "input_sentence"
  top: "embedded_input_sentence"
  param {
    lr_mult: 1
  }
  embed_param {
    num_output: 500
    input_dim: 46168
    bias_term: false
    weight_filler {
      type: "uniform"
      min: -0.08
      max: 0.08
    }
  }
}
layer {
  name: "lstm1"
  type: "LSTM"
  bottom: "embedded_input_frames"
  bottom: "cont_sentence"
  top: "lstm1"
  recurrent_param {
    num_output: 1000
    weight_filler {
      type: "uniform"
      min: -0.08
      max: 0.08
    }
    bias_filler {
      type: "constant"
      value: 0
    }
  }
}
layer {
  name: "concat"
  type: "Concat"
  bottom: "lstm1"
  bottom: "embedded_input_sentence"
  bottom: "reshaped_stage_indicator"
  top: "lstm1_video_sequence"
  concat_param {
    concat_dim: 2
  }
}
layer {
  name: "lstm2"
  type: "LSTM"
  bottom: "lstm1_video_sequence"
  bottom: "cont_sentence"
  top: "lstm2"
  recurrent_param {
    num_output: 1000
    weight_filler {
      type: "uniform"
      min: -0.08
      max: 0.08
    }
    bias_filler {
      type: "constant"
      value: 0
    }
  }
}
layer {
  name: "predict"
  type: "InnerProduct"
  bottom: "lstm2"
  top: "predict"
  param {
    lr_mult: 1
    decay_mult: 1
  }
  param {
    lr_mult: 2
    decay_mult: 0
  }
  inner_product_param {
    num_output: 46168
    weight_filler {
      type: "uniform"
      min: -0.08
      max: 0.08
    }
    bias_filler {
      type: "constant"
      value: 0
    }
    axis: 2
  }
}
layer {
  name: "probs"
  type: "Softmax"
  bottom: "predict"
  top: "probs"
  softmax_param {
    axis: 2
  }
}
I0924 03:57:21.349644 13462 net.cpp:49] Initializing net from parameters: 
name: "s2vt:features_to_lstm"
state {
  phase: TEST
}
layer {
  name: "input"
  type: "Input"
  top: "frames_fc7"
  top: "cont_sentence"
  top: "input_sentence"
  top: "stage_indicator"
  input_param {
    shape {
      dim: 1
      dim: 4096
    }
    shape {
      dim: 1
      dim: 1
    }
    shape {
      dim: 1
      dim: 1
    }
    shape {
      dim: 1
      dim: 1
    }
  }
}
layer {
  name: "embed_encoder"
  type: "InnerProduct"
  bottom: "frames_fc7"
  top: "embedded_in_frames"
  param {
    lr_mult: 1
    decay_mult: 1
  }
  param {
    lr_mult: 2
    decay_mult: 0
  }
  inner_product_param {
    num_output: 500
    weight_filler {
      type: "xavier"
    }
    bias_filler {
      type: "constant"
      value: 0.2
    }
  }
}
layer {
  name: "reshape_frames"
  type: "Reshape"
  bottom: "embedded_in_frames"
  top: "embedded_input_frames"
  reshape_param {
    shape {
      dim: 1
      dim: 1
      dim: 500
    }
  }
}
layer {
  name: "reshape_stage_indicator"
  type: "Reshape"
  bottom: "stage_indicator"
  top: "reshaped_stage_indicator"
  reshape_param {
    shape {
      dim: 1
      dim: 1
      dim: 1
    }
  }
}
layer {
  name: "embedding"
  type: "Embed"
  bottom: "input_sentence"
  top: "embedded_input_sentence"
  param {
    lr_mult: 1
  }
  embed_param {
    num_output: 500
    input_dim: 46168
    bias_term: false
    weight_filler {
      type: "uniform"
      min: -0.08
      max: 0.08
    }
  }
}
layer {
  name: "lstm1"
  type: "LSTM"
  bottom: "embedded_input_frames"
  bottom: "cont_sentence"
  top: "lstm1"
  recurrent_param {
    num_output: 1000
    weight_filler {
      type: "uniform"
      min: -0.08
      max: 0.08
    }
    bias_filler {
      type: "constant"
      value: 0
    }
  }
}
layer {
  name: "concat"
  type: "Concat"
  bottom: "lstm1"
  bottom: "embedded_input_sentence"
  bottom: "reshaped_stage_indicator"
  top: "lstm1_video_sequence"
  concat_param {
    concat_dim: 2
  }
}
layer {
  name: "lstm2"
  type: "LSTM"
  bottom: "lstm1_video_sequence"
  bottom: "cont_sentence"
  top: "lstm2"
  recurrent_param {
    num_output: 1000
    weight_filler {
      type: "uniform"
      min: -0.08
      max: 0.08
    }
    bias_filler {
      type: "constant"
      value: 0
    }
  }
}
layer {
  name: "predict"
  type: "InnerProduct"
  bottom: "lstm2"
  top: "predict"
  param {
    lr_mult: 1
    decay_mult: 1
  }
  param {
    lr_mult: 2
    decay_mult: 0
  }
  inner_product_param {
    num_output: 46168
    weight_filler {
      type: "uniform"
      min: -0.08
      max: 0.08
    }
    bias_filler {
      type: "constant"
      value: 0
    }
    axis: 2
  }
}
layer {
  name: "probs"
  type: "Softmax"
  bottom: "predict"
  top: "probs"
  softmax_param {
    axis: 2
  }
}
I0924 03:57:21.349664 13512 net.cpp:49] Initializing net from parameters: 
name: "s2vt:features_to_lstm"
state {
  phase: TEST
}
layer {
  name: "input"
  type: "Input"
  top: "frames_fc7"
  top: "cont_sentence"
  top: "input_sentence"
  top: "stage_indicator"
  input_param {
    shape {
      dim: 1
      dim: 4096
    }
    shape {
      dim: 1
      dim: 1
    }
    shape {
      dim: 1
      dim: 1
    }
    shape {
      dim: 1
      dim: 1
    }
  }
}
layer {
  name: "embed_encoder"
  type: "InnerProduct"
  bottom: "frames_fc7"
  top: "embedded_in_frames"
  param {
    lr_mult: 1
    decay_mult: 1
  }
  param {
    lr_mult: 2
    decay_mult: 0
  }
  inner_product_param {
    num_output: 500
    weight_filler {
      type: "xavier"
    }
    bias_filler {
      type: "constant"
      value: 0.2
    }
  }
}
layer {
  name: "reshape_frames"
  type: "Reshape"
  bottom: "embedded_in_frames"
  top: "embedded_input_frames"
  reshape_param {
    shape {
      dim: 1
      dim: 1
      dim: 500
    }
  }
}
layer {
  name: "reshape_stage_indicator"
  type: "Reshape"
  bottom: "stage_indicator"
  top: "reshaped_stage_indicator"
  reshape_param {
    shape {
      dim: 1
      dim: 1
      dim: 1
    }
  }
}
layer {
  name: "embedding"
  type: "Embed"
  bottom: "input_sentence"
  top: "embedded_input_sentence"
  param {
    lr_mult: 1
  }
  embed_param {
    num_output: 500
    input_dim: 46168
    bias_term: false
    weight_filler {
      type: "uniform"
      min: -0.08
      max: 0.08
    }
  }
}
layer {
  name: "lstm1"
  type: "LSTM"
  bottom: "embedded_input_frames"
  bottom: "cont_sentence"
  top: "lstm1"
  recurrent_param {
    num_output: 1000
    weight_filler {
      type: "uniform"
      min: -0.08
      max: 0.08
    }
    bias_filler {
      type: "constant"
      value: 0
    }
  }
}
layer {
  name: "concat"
  type: "Concat"
  bottom: "lstm1"
  bottom: "embedded_input_sentence"
  bottom: "reshaped_stage_indicator"
  top: "lstm1_video_sequence"
  concat_param {
    concat_dim: 2
  }
}
layer {
  name: "lstm2"
  type: "LSTM"
  bottom: "lstm1_video_sequence"
  bottom: "cont_sentence"
  top: "lstm2"
  recurrent_param {
    num_output: 1000
    weight_filler {
      type: "uniform"
      min: -0.08
      max: 0.08
    }
    bias_filler {
      type: "constant"
      value: 0
    }
  }
}
layer {
  name: "predict"
  type: "InnerProduct"
  bottom: "lstm2"
  top: "predict"
  param {
    lr_mult: 1
    decay_mult: 1
  }
  param {
    lr_mult: 2
    decay_mult: 0
  }
  inner_product_param {
    num_output: 46168
    weight_filler {
      type: "uniform"
      min: -0.08
      max: 0.08
    }
    bias_filler {
      type: "constant"
      value: 0
    }
    axis: 2
  }
}
layer {
  name: "probs"
  type: "Softmax"
  bottom: "predict"
  top: "probs"
  softmax_param {
    axis: 2
  }
}
I0924 03:57:21.349674 13468 net.cpp:49] Initializing net from parameters: 
name: "s2vt:features_to_lstm"
state {
  phase: TEST
}
layer {
  name: "input"
  type: "Input"
  top: "frames_fc7"
  top: "cont_sentence"
  top: "input_sentence"
  top: "stage_indicator"
  input_param {
    shape {
      dim: 1
      dim: 4096
    }
    shape {
      dim: 1
      dim: 1
    }
    shape {
      dim: 1
      dim: 1
    }
    shape {
      dim: 1
      dim: 1
    }
  }
}
layer {
  name: "embed_encoder"
  type: "InnerProduct"
  bottom: "frames_fc7"
  top: "embedded_in_frames"
  param {
    lr_mult: 1
    decay_mult: 1
  }
  param {
    lr_mult: 2
    decay_mult: 0
  }
  inner_product_param {
    num_output: 500
    weight_filler {
      type: "xavier"
    }
    bias_filler {
      type: "constant"
      value: 0.2
    }
  }
}
layer {
  name: "reshape_frames"
  type: "Reshape"
  bottom: "embedded_in_frames"
  top: "embedded_input_frames"
  reshape_param {
    shape {
      dim: 1
      dim: 1
      dim: 500
    }
  }
}
layer {
  name: "reshape_stage_indicator"
  type: "Reshape"
  bottom: "stage_indicator"
  top: "reshaped_stage_indicator"
  reshape_param {
    shape {
      dim: 1
      dim: 1
      dim: 1
    }
  }
}
layer {
  name: "embedding"
  type: "Embed"
  bottom: "input_sentence"
  top: "embedded_input_sentence"
  param {
    lr_mult: 1
  }
  embed_param {
    num_output: 500
    input_dim: 46168
    bias_term: false
    weight_filler {
      type: "uniform"
      min: -0.08
      max: 0.08
    }
  }
}
layer {
  name: "lstm1"
  type: "LSTM"
  bottom: "embedded_input_frames"
  bottom: "cont_sentence"
  top: "lstm1"
  recurrent_param {
    num_output: 1000
    weight_filler {
      type: "uniform"
      min: -0.08
      max: 0.08
    }
    bias_filler {
      type: "constant"
      value: 0
    }
  }
}
layer {
  name: "concat"
  type: "Concat"
  bottom: "lstm1"
  bottom: "embedded_input_sentence"
  bottom: "reshaped_stage_indicator"
  top: "lstm1_video_sequence"
  concat_param {
    concat_dim: 2
  }
}
layer {
  name: "lstm2"
  type: "LSTM"
  bottom: "lstm1_video_sequence"
  bottom: "cont_sentence"
  top: "lstm2"
  recurrent_param {
    num_output: 1000
    weight_filler {
      type: "uniform"
      min: -0.08
      max: 0.08
    }
    bias_filler {
      type: "constant"
      value: 0
    }
  }
}
layer {
  name: "predict"
  type: "InnerProduct"
  bottom: "lstm2"
  top: "predict"
  param {
    lr_mult: 1
    decay_mult: 1
  }
  param {
    lr_mult: 2
    decay_mult: 0
  }
  inner_product_param {
    num_output: 46168
    weight_filler {
      type: "uniform"
      min: -0.08
      max: 0.08
    }
    bias_filler {
      type: "constant"
      value: 0
    }
    axis: 2
  }
}
layer {
  name: "probs"
  type: "Softmax"
  bottom: "predict"
  top: "probs"
  softmax_param {
    axis: 2
  }
}
I0924 03:57:21.349710 13472 net.cpp:49] Initializing net from parameters: 
name: "s2vt:features_to_lstm"
state {
  phase: TEST
}
layer {
  name: "input"
  type: "Input"
  top: "frames_fc7"
  top: "cont_sentence"
  top: "input_sentence"
  top: "stage_indicator"
  input_param {
    shape {
      dim: 1
      dim: 4096
    }
    shape {
      dim: 1
      dim: 1
    }
    shape {
      dim: 1
      dim: 1
    }
    shape {
      dim: 1
      dim: 1
    }
  }
}
layer {
  name: "embed_encoder"
  type: "InnerProduct"
  bottom: "frames_fc7"
  top: "embedded_in_frames"
  param {
    lr_mult: 1
    decay_mult: 1
  }
  param {
    lr_mult: 2
    decay_mult: 0
  }
  inner_product_param {
    num_output: 500
    weight_filler {
      type: "xavier"
    }
    bias_filler {
      type: "constant"
      value: 0.2
    }
  }
}
layer {
  name: "reshape_frames"
  type: "Reshape"
  bottom: "embedded_in_frames"
  top: "embedded_input_frames"
  reshape_param {
    shape {
      dim: 1
      dim: 1
      dim: 500
    }
  }
}
layer {
  name: "reshape_stage_indicator"
  type: "Reshape"
  bottom: "stage_indicator"
  top: "reshaped_stage_indicator"
  reshape_param {
    shape {
      dim: 1
      dim: 1
      dim: 1
    }
  }
}
layer {
  name: "embedding"
  type: "Embed"
  bottom: "input_sentence"
  top: "embedded_input_sentence"
  param {
    lr_mult: 1
  }
  embed_param {
    num_output: 500
    input_dim: 46168
    bias_term: false
    weight_filler {
      type: "uniform"
      min: -0.08
      max: 0.08
    }
  }
}
layer {
  name: "lstm1"
  type: "LSTM"
  bottom: "embedded_input_frames"
  bottom: "cont_sentence"
  top: "lstm1"
  recurrent_param {
    num_output: 1000
    weight_filler {
      type: "uniform"
      min: -0.08
      max: 0.08
    }
    bias_filler {
      type: "constant"
      value: 0
    }
  }
}
layer {
  name: "concat"
  type: "Concat"
  bottom: "lstm1"
  bottom: "embedded_input_sentence"
  bottom: "reshaped_stage_indicator"
  top: "lstm1_video_sequence"
  concat_param {
    concat_dim: 2
  }
}
layer {
  name: "lstm2"
  type: "LSTM"
  bottom: "lstm1_video_sequence"
  bottom: "cont_sentence"
  top: "lstm2"
  recurrent_param {
    num_output: 1000
    weight_filler {
      type: "uniform"
      min: -0.08
      max: 0.08
    }
    bias_filler {
      type: "constant"
      value: 0
    }
  }
}
layer {
  name: "predict"
  type: "InnerProduct"
  bottom: "lstm2"
  top: "predict"
  param {
    lr_mult: 1
    decay_mult: 1
  }
  param {
    lr_mult: 2
    decay_mult: 0
  }
  inner_product_param {
    num_output: 46168
    weight_filler {
      type: "uniform"
      min: -0.08
      max: 0.08
    }
    bias_filler {
      type: "constant"
      value: 0
    }
    axis: 2
  }
}
layer {
  name: "probs"
  type: "Softmax"
  bottom: "predict"
  top: "probs"
  softmax_param {
    axis: 2
  }
}
I0924 03:57:21.349737 13480 layer_factory.hpp:77] Creating layer input
I0924 03:57:21.349730 13466 layer_factory.hpp:77] Creating layer input
I0924 03:57:21.349769 13486 net.cpp:49] Initializing net from parameters: 
name: "s2vt:features_to_lstm"
state {
  phase: TEST
}
layer {
  name: "input"
  type: "Input"
  top: "frames_fc7"
  top: "cont_sentence"
  top: "input_sentence"
  top: "stage_indicator"
  input_param {
    shape {
      dim: 1
      dim: 4096
    }
    shape {
      dim: 1
      dim: 1
    }
    shape {
      dim: 1
      dim: 1
    }
    shape {
      dim: 1
      dim: 1
    }
  }
}
layer {
  name: "embed_encoder"
  type: "InnerProduct"
  bottom: "frames_fc7"
  top: "embedded_in_frames"
  param {
    lr_mult: 1
    decay_mult: 1
  }
  param {
    lr_mult: 2
    decay_mult: 0
  }
  inner_product_param {
    num_output: 500
    weight_filler {
      type: "xavier"
    }
    bias_filler {
      type: "constant"
      value: 0.2
    }
  }
}
layer {
  name: "reshape_frames"
  type: "Reshape"
  bottom: "embedded_in_frames"
  top: "embedded_input_frames"
  reshape_param {
    shape {
      dim: 1
      dim: 1
      dim: 500
    }
  }
}
layer {
  name: "reshape_stage_indicator"
  type: "Reshape"
  bottom: "stage_indicator"
  top: "reshaped_stage_indicator"
  reshape_param {
    shape {
      dim: 1
      dim: 1
      dim: 1
    }
  }
}
layer {
  name: "embedding"
  type: "Embed"
  bottom: "input_sentence"
  top: "embedded_input_sentence"
  param {
    lr_mult: 1
  }
  embed_param {
    num_output: 500
    input_dim: 46168
    bias_term: false
    weight_filler {
      type: "uniform"
      min: -0.08
      max: 0.08
    }
  }
}
layer {
  name: "lstm1"
  type: "LSTM"
  bottom: "embedded_input_frames"
  bottom: "cont_sentence"
  top: "lstm1"
  recurrent_param {
    num_output: 1000
    weight_filler {
      type: "uniform"
      min: -0.08
      max: 0.08
    }
    bias_filler {
      type: "constant"
      value: 0
    }
  }
}
layer {
  name: "concat"
  type: "Concat"
  bottom: "lstm1"
  bottom: "embedded_input_sentence"
  bottom: "reshaped_stage_indicator"
  top: "lstm1_video_sequence"
  concat_param {
    concat_dim: 2
  }
}
layer {
  name: "lstm2"
  type: "LSTM"
  bottom: "lstm1_video_sequence"
  bottom: "cont_sentence"
  top: "lstm2"
  recurrent_param {
    num_output: 1000
    weight_filler {
      type: "uniform"
      min: -0.08
      max: 0.08
    }
    bias_filler {
      type: "constant"
      value: 0
    }
  }
}
layer {
  name: "predict"
  type: "InnerProduct"
  bottom: "lstm2"
  top: "predict"
  param {
    lr_mult: 1
    decay_mult: 1
  }
  param {
    lr_mult: 2
    decay_mult: 0
  }
  inner_product_param {
    num_output: 46168
    weight_filler {
      type: "uniform"
      min: -0.08
      max: 0.08
    }
    bias_filler {
      type: "constant"
      value: 0
    }
    axis: 2
  }
}
layer {
  name: "probs"
  type: "Softmax"
  bottom: "predict"
  top: "probs"
  softmax_param {
    axis: 2
  }
}
I0924 03:57:21.349776 13466 net.cpp:91] Creating Layer input
I0924 03:57:21.349784 13517 layer_factory.hpp:77] Creating layer input
I0924 03:57:21.349777 13480 net.cpp:91] Creating Layer input
I0924 03:57:21.349807 13462 layer_factory.hpp:77] Creating layer input
I0924 03:57:21.349822 13480 net.cpp:399] input -> frames_fc7
I0924 03:57:21.349784 13504 layer_factory.hpp:77] Creating layer input
…
I0924 03:57:21.349869 13466 net.cpp:399] input -> cont_sentence
I0924 03:57:21.349874 13468 net.cpp:91] Creating Layer input
I0924 03:57:21.349890 13517 net.cpp:399] input -> cont_sentence
I0924 03:57:21.349887 13504 net.cpp:399] input -> frames_fc7
I0924 03:57:21.349900 13486 layer_factory.hpp:77] Creating layer input
I0924 03:57:21.349835 13488 net.cpp:49] Initializing net from parameters: 
name: "CaffeNet"
state {
  phase: TEST
}
layer {
  name: "data"
  type: "Input"
  top: "data"
  input_param {
    shape {
      dim: 10
      dim: 3
      dim: 227
      dim: 227
    }
  }
}
layer {
  name: "conv1"
  type: "Convolution"
  bottom: "data"
  top: "conv1"
  convolution_param {
    num_output: 96
    kernel_size: 11
    stride: 4
  }
}
layer {
  name: "relu1"
  type: "ReLU"
  bottom: "conv1"
  top: "conv1"
}
layer {
  name: "pool1"
  type: "Pooling"
  bottom: "conv1"
  top: "pool1"
  pooling_param {
    pool: MAX
    kernel_size: 3
    stride: 2
  }
}
layer {
  name: "norm1"
  type: "LRN"
  bottom: "pool1"
  top: "norm1"
  lrn_param {
    local_size: 5
    alpha: 0.0001
    beta: 0.75
  }
}
layer {
  name: "conv2"
  type: "Convolution"
  bottom: "norm1"
  top: "conv2"
  convolution_param {
    num_output: 256
    pad: 2
    kernel_size: 5
    group: 2
  }
}
layer {
  name: "relu2"
  type: "ReLU"
  bottom: "conv2"
  top: "conv2"
}
layer {
  name: "pool2"
  type: "Pooling"
  bottom: "conv2"
  top: "pool2"
  pooling_param {
    pool: MAX
    kernel_size: 3
    stride: 2
  }
}
layer {
  name: "norm2"
  type: "LRN"
  bottom: "pool2"
  top: "norm2"
  lrn_param {
    local_size: 5
    alpha: 0.0001
    beta: 0.75
  }
}
layer {
  name: "conv3"
  type: "Convolution"
  bottom: "norm2"
  top: "conv3"
  convolution_param {
    num_output: 384
    pad: 1
    kernel_size: 3
  }
}
layer {
  name: "relu3"
  type: "ReLU"
  bottom: "conv3"
  top: "conv3"
}
layer {
  name: "conv4"
  type: "Convolution"
  bottom: "conv3"
  top: "conv4"
  convolution_param {
    num_output: 384
    pad: 1
    kernel_size: 3
    group: 2
  }
}
layer {
  name: "relu4"
  type: "ReLU"
  bottom: "conv4"
  top: "conv4"
}
layer {
  name: "conv5"
  type: "Convolution"
  bottom: "conv4"
  top: "conv5"
  convolution_param {
    num_output: 256
    pad: 1
    kernel_size: 3
    group: 2
  }
}
layer {
  name: "relu5"
  type: "ReLU"
  bottom: "conv5"
  top: "conv5"
}
layer {
  name: "pool5"
  type: "Pooling"
  bottom: "conv5"
  top: "pool5"
  pooling_param {
    pool: MAX
    kernel_size: 3
    stride: 2
  }
}
layer {
  name: "fc6"
  type: "InnerProduct"
  bottom: "pool5"
  top: "fc6"
  inner_product_param {
    num_output: 4096
  }
}
layer {
  name: "relu6"
  type: "ReLU"
  bottom: "fc6"
  top: "fc6"
}
layer {
  name: "drop6"
  type: "Dropout"
  bottom: "fc6"
  top: "fc6"
  dropout_param {
    dropout_ratio: 0.5
  }
}
layer {
  name: "fc7"
  type: "InnerProduct"
  bottom: "fc6"
  top: "fc7"
  inner_product_param {
    num_output: 4096
  }
}
layer {
  name: "relu7"
  type: "ReLU"
  bottom: "fc7"
  top: "fc7"
}
layer {
  name: "drop7"
  type: "Dropout"
  bottom: "fc7"
  top: "fc7"
  dropout_param {
    dropout_ratio: 0.5
  }
}
layer {
  name: "fc8"
  type: "InnerProduct"
  bottom: "fc7"
  top: "fc8"
  inner_product_param {
    num_output: 1000
  }
}
layer {
  name: "prob"
  type: "Softmax"
  bottom: "fc8"
  top: "prob"
}
I0924 03:57:21.349916 13472 layer_factory.hpp:77] Creating layer input
I0924 03:57:21.349900 13466 net.cpp:399] input -> input_sentence
I0924 03:57:21.349928 13486 net.cpp:91] Creating Layer input
I0924 03:57:21.349905 13512 net.cpp:399] input -> cont_sentence
I0924 03:57:21.349942 13466 net.cpp:399] input -> stage_indicator
I0924 03:57:21.349944 13486 net.cpp:399] input -> frames_fc7
…
I0924 03:57:21.350042 13462 net.cpp:399] input -> input_sentence
I0924 03:57:21.350067 13488 net.cpp:91] Creating Layer data
I0924 03:57:21.350046 13472 net.cpp:399] input -> input_sentence
I0924 03:57:21.350057 13468 net.cpp:399] input -> input_sentence
I0924 03:57:21.350077 13488 net.cpp:399] data -> data
I0924 03:57:21.350087 13462 net.cpp:399] input -> stage_indicator
I0924 03:57:21.350090 13472 net.cpp:399] input -> stage_indicator
I0924 03:57:21.350102 13468 net.cpp:399] input -> stage_indicator
I0924 03:57:22.385396 13504 net.cpp:141] Setting up input
I0924 03:57:22.385613 13504 net.cpp:148] Top shape: 1 4096 (4096)
I0924 03:57:22.385632 13504 net.cpp:148] Top shape: 1 1 (1)
I0924 03:57:22.385643 13504 net.cpp:148] Top shape: 1 1 (1)
I0924 03:57:22.385653 13504 net.cpp:148] Top shape: 1 1 (1)
I0924 03:57:22.385661 13504 net.cpp:156] Memory required for data: 16396
I0924 03:57:22.385692 13504 layer_factory.hpp:77] Creating layer cont_sentence_input_1_split
I0924 03:57:22.385805 13504 net.cpp:91] Creating Layer cont_sentence_input_1_split
I0924 03:57:22.385824 13504 net.cpp:425] cont_sentence_input_1_split <- cont_sentence
I0924 03:57:22.385859 13504 net.cpp:399] cont_sentence_input_1_split -> cont_sentence_input_1_split_0
I0924 03:57:22.385884 13504 net.cpp:399] cont_sentence_input_1_split -> cont_sentence_input_1_split_1
I0924 03:57:22.385954 13504 net.cpp:141] Setting up cont_sentence_input_1_split
I0924 03:57:22.385969 13504 net.cpp:148] Top shape: 1 1 (1)
I0924 03:57:22.385979 13504 net.cpp:148] Top shape: 1 1 (1)
I0924 03:57:22.385987 13504 net.cpp:156] Memory required for data: 16404
I0924 03:57:22.385995 13504 layer_factory.hpp:77] Creating layer embed_encoder
I0924 03:57:22.386024 13504 net.cpp:91] Creating Layer embed_encoder
I0924 03:57:22.386034 13504 net.cpp:425] embed_encoder <- frames_fc7
I0924 03:57:22.386049 13504 net.cpp:399] embed_encoder -> embedded_in_frames
I0924 03:57:22.391603 13488 net.cpp:141] Setting up data
I0924 03:57:22.391657 13488 net.cpp:148] Top shape: 10 3 227 227 (1545870)
I0924 03:57:22.391666 13488 net.cpp:156] Memory required for data: 6183480
I0924 03:57:22.391681 13488 layer_factory.hpp:77] Creating layer conv1
I0924 03:57:22.391728 13488 net.cpp:91] Creating Layer conv1
I0924 03:57:22.391738 13488 net.cpp:425] conv1 <- data
I0924 03:57:22.391755 13488 net.cpp:399] conv1 -> conv1
I0924 03:57:22.391986 13480 net.cpp:141] Setting up input
I0924 03:57:22.392024 13480 net.cpp:148] Top shape: 1 4096 (4096)
I0924 03:57:22.392032 13480 net.cpp:148] Top shape: 1 1 (1)
I0924 03:57:22.392038 13480 net.cpp:148] Top shape: 1 1 (1)
I0924 03:57:22.392045 13480 net.cpp:148] Top shape: 1 1 (1)
I0924 03:57:22.392048 13480 net.cpp:156] Memory required for data: 16396
I0924 03:57:22.392057 13480 layer_factory.hpp:77] Creating layer cont_sentence_input_1_split
I0924 03:57:22.392097 13480 net.cpp:91] Creating Layer cont_sentence_input_1_split
I0924 03:57:22.392104 13480 net.cpp:425] cont_sentence_input_1_split <- cont_sentence
I0924 03:57:22.392117 13480 net.cpp:399] cont_sentence_input_1_split -> cont_sentence_input_1_split_0
I0924 03:57:22.392130 13480 net.cpp:399] cont_sentence_input_1_split -> cont_sentence_input_1_split_1
I0924 03:57:22.392179 13480 net.cpp:141] Setting up cont_sentence_input_1_split
I0924 03:57:22.392189 13480 net.cpp:148] Top shape: 1 1 (1)
I0924 03:57:22.392194 13480 net.cpp:148] Top shape: 1 1 (1)
I0924 03:57:22.392199 13480 net.cpp:156] Memory required for data: 16404
I0924 03:57:22.392204 13480 layer_factory.hpp:77] Creating layer embed_encoder
I0924 03:57:22.392218 13480 net.cpp:91] Creating Layer embed_encoder
I0924 03:57:22.392223 13480 net.cpp:425] embed_encoder <- frames_fc7
I0924 03:57:22.392235 13480 net.cpp:399] embed_encoder -> embedded_in_frames
I0924 03:57:22.396621 13472 net.cpp:141] Setting up input
I0924 03:57:22.396669 13472 net.cpp:148] Top shape: 1 4096 (4096)
I0924 03:57:22.396682 13472 net.cpp:148] Top shape: 1 1 (1)
I0924 03:57:22.396690 13472 net.cpp:148] Top shape: 1 1 (1)
I0924 03:57:22.396700 13472 net.cpp:148] Top shape: 1 1 (1)
I0924 03:57:22.396706 13472 net.cpp:156] Memory required for data: 16396
I0924 03:57:22.396720 13472 layer_factory.hpp:77] Creating layer cont_sentence_input_1_split
I0924 03:57:22.396759 13472 net.cpp:91] Creating Layer cont_sentence_input_1_split
I0924 03:57:22.396769 13472 net.cpp:425] cont_sentence_input_1_split <- cont_sentence
I0924 03:57:22.396782 13472 net.cpp:399] cont_sentence_input_1_split -> cont_sentence_input_1_split_0
I0924 03:57:22.396816 13472 net.cpp:399] cont_sentence_input_1_split -> cont_sentence_input_1_split_1
I0924 03:57:22.404014 13468 net.cpp:141] Setting up input
I0924 03:57:22.404062 13468 net.cpp:148] Top shape: 1 4096 (4096)
I0924 03:57:22.404078 13468 net.cpp:148] Top shape: 1 1 (1)
I0924 03:57:22.404085 13468 net.cpp:148] Top shape: 1 1 (1)
I0924 03:57:22.404090 13468 net.cpp:148] Top shape: 1 1 (1)
I0924 03:57:22.404085 13472 net.cpp:141] Setting up cont_sentence_input_1_split
I0924 03:57:22.404100 13468 net.cpp:156] Memory required for data: 16396
I0924 03:57:22.404122 13472 net.cpp:148] Top shape: 1 1 (1)
I0924 03:57:22.404131 13472 net.cpp:148] Top shape: 1 1 (1)
I0924 03:57:22.404129 13468 layer_factory.hpp:77] Creating layer cont_sentence_input_1_split
I0924 03:57:22.404136 13472 net.cpp:156] Memory required for data: 16404
I0924 03:57:22.404145 13472 layer_factory.hpp:77] Creating layer embed_encoder
I0924 03:57:22.404151 13468 net.cpp:91] Creating Layer cont_sentence_input_1_split
I0924 03:57:22.404161 13468 net.cpp:425] cont_sentence_input_1_split <- cont_sentence
I0924 03:57:22.404187 13472 net.cpp:91] Creating Layer embed_encoder
I0924 03:57:22.404191 13468 net.cpp:399] cont_sentence_input_1_split -> cont_sentence_input_1_split_0
I0924 03:57:22.404204 13472 net.cpp:425] embed_encoder <- frames_fc7
I0924 03:57:22.404219 13468 net.cpp:399] cont_sentence_input_1_split -> cont_sentence_input_1_split_1
I0924 03:57:22.404223 13472 net.cpp:399] embed_encoder -> embedded_in_frames
I0924 03:57:22.404513 13486 net.cpp:141] Setting up input
I0924 03:57:22.404536 13486 net.cpp:148] Top shape: 1 4096 (4096)
I0924 03:57:22.404546 13486 net.cpp:148] Top shape: 1 1 (1)
I0924 03:57:22.404556 13486 net.cpp:148] Top shape: 1 1 (1)
I0924 03:57:22.404564 13486 net.cpp:148] Top shape: 1 1 (1)
I0924 03:57:22.404572 13486 net.cpp:156] Memory required for data: 16396
I0924 03:57:22.404570 13466 net.cpp:141] Setting up input
I0924 03:57:22.404580 13486 layer_factory.hpp:77] Creating layer cont_sentence_input_1_split
I0924 03:57:22.404588 13466 net.cpp:148] Top shape: 1 4096 (4096)
I0924 03:57:22.404595 13466 net.cpp:148] Top shape: 1 1 (1)
I0924 03:57:22.404597 13486 net.cpp:91] Creating Layer cont_sentence_input_1_split
I0924 03:57:22.404602 13466 net.cpp:148] Top shape: 1 1 (1)
I0924 03:57:22.404608 13466 net.cpp:148] Top shape: 1 1 (1)
I0924 03:57:22.404616 13466 net.cpp:156] Memory required for data: 16396
I0924 03:57:22.404613 13512 net.cpp:141] Setting up input
I0924 03:57:22.404626 13466 layer_factory.hpp:77] Creating layer cont_sentence_input_1_split
I0924 03:57:22.404605 13486 net.cpp:425] cont_sentence_input_1_split <- cont_sentence
I0924 03:57:22.404641 13466 net.cpp:91] Creating Layer cont_sentence_input_1_split
I0924 03:57:22.404642 13512 net.cpp:148] Top shape: 1 4096 (4096)
I0924 03:57:22.404647 13466 net.cpp:425] cont_sentence_input_1_split <- cont_sentence
I0924 03:57:22.404654 13486 net.cpp:399] cont_sentence_input_1_split -> cont_sentence_input_1_split_0
I0924 03:57:22.404656 13512 net.cpp:148] Top shape: 1 1 (1)
I0924 03:57:22.404657 13466 net.cpp:399] cont_sentence_input_1_split -> cont_sentence_input_1_split_0
I0924 03:57:22.404672 13512 net.cpp:148] Top shape: 1 1 (1)
I0924 03:57:22.404675 13486 net.cpp:399] cont_sentence_input_1_split -> cont_sentence_input_1_split_1
I0924 03:57:22.404683 13512 net.cpp:148] Top shape: 1 1 (1)
I0924 03:57:22.404685 13466 net.cpp:399] cont_sentence_input_1_split -> cont_sentence_input_1_split_1
I0924 03:57:22.404698 13512 net.cpp:156] Memory required for data: 16396
I0924 03:57:22.404719 13512 layer_factory.hpp:77] Creating layer cont_sentence_input_1_split
I0924 03:57:22.404737 13512 net.cpp:91] Creating Layer cont_sentence_input_1_split
I0924 03:57:22.404747 13512 net.cpp:425] cont_sentence_input_1_split <- cont_sentence
I0924 03:57:22.404757 13512 net.cpp:399] cont_sentence_input_1_split -> cont_sentence_input_1_split_0
I0924 03:57:22.404775 13512 net.cpp:399] cont_sentence_input_1_split -> cont_sentence_input_1_split_1
I0924 03:57:22.404824 13468 net.cpp:141] Setting up cont_sentence_input_1_split
I0924 03:57:22.404839 13468 net.cpp:148] Top shape: 1 1 (1)
I0924 03:57:22.404844 13468 net.cpp:148] Top shape: 1 1 (1)
I0924 03:57:22.404849 13468 net.cpp:156] Memory required for data: 16404
I0924 03:57:22.404855 13468 layer_factory.hpp:77] Creating layer embed_encoder
I0924 03:57:22.404893 13468 net.cpp:91] Creating Layer embed_encoder
I0924 03:57:22.404901 13468 net.cpp:425] embed_encoder <- frames_fc7
I0924 03:57:22.404911 13468 net.cpp:399] embed_encoder -> embedded_in_frames
I0924 03:57:22.404991 13517 net.cpp:141] Setting up input
I0924 03:57:22.405007 13517 net.cpp:148] Top shape: 1 4096 (4096)
I0924 03:57:22.405014 13517 net.cpp:148] Top shape: 1 1 (1)
I0924 03:57:22.405020 13517 net.cpp:148] Top shape: 1 1 (1)
I0924 03:57:22.405025 13517 net.cpp:148] Top shape: 1 1 (1)
I0924 03:57:22.405030 13517 net.cpp:156] Memory required for data: 16396
I0924 03:57:22.405038 13517 layer_factory.hpp:77] Creating layer cont_sentence_input_1_split
I0924 03:57:22.405047 13512 net.cpp:141] Setting up cont_sentence_input_1_split
I0924 03:57:22.405055 13517 net.cpp:91] Creating Layer cont_sentence_input_1_split
I0924 03:57:22.405064 13517 net.cpp:425] cont_sentence_input_1_split <- cont_sentence
I0924 03:57:22.405063 13512 net.cpp:148] Top shape: 1 1 (1)
I0924 03:57:22.405078 13517 net.cpp:399] cont_sentence_input_1_split -> cont_sentence_input_1_split_0
I0924 03:57:22.405083 13512 net.cpp:148] Top shape: 1 1 (1)
I0924 03:57:22.405091 13517 net.cpp:399] cont_sentence_input_1_split -> cont_sentence_input_1_split_1
I0924 03:57:22.405091 13512 net.cpp:156] Memory required for data: 16404
I0924 03:57:22.405107 13512 layer_factory.hpp:77] Creating layer embed_encoder
I0924 03:57:22.405125 13512 net.cpp:91] Creating Layer embed_encoder
I0924 03:57:22.405134 13512 net.cpp:425] embed_encoder <- frames_fc7
I0924 03:57:22.405146 13512 net.cpp:399] embed_encoder -> embedded_in_frames
I0924 03:57:22.409292 13466 net.cpp:141] Setting up cont_sentence_input_1_split
I0924 03:57:22.409349 13466 net.cpp:148] Top shape: 1 1 (1)
I0924 03:57:22.409373 13466 net.cpp:148] Top shape: 1 1 (1)
I0924 03:57:22.409369 13462 net.cpp:141] Setting up input
I0924 03:57:22.409397 13466 net.cpp:156] Memory required for data: 16404
I0924 03:57:22.409415 13462 net.cpp:148] Top shape: 1 4096 (4096)
I0924 03:57:22.409430 13486 net.cpp:141] Setting up cont_sentence_input_1_split
I0924 03:57:22.409416 13466 layer_factory.hpp:77] Creating layer embed_encoder
I0924 03:57:22.409456 13486 net.cpp:148] Top shape: 1 1 (1)
I0924 03:57:22.409440 13462 net.cpp:148] Top shape: 1 1 (1)
I0924 03:57:22.409466 13486 net.cpp:148] Top shape: 1 1 (1)
I0924 03:57:22.409471 13462 net.cpp:148] Top shape: 1 1 (1)
I0924 03:57:22.409474 13486 net.cpp:156] Memory required for data: 16404
I0924 03:57:22.409484 13462 net.cpp:148] Top shape: 1 1 (1)
I0924 03:57:22.409488 13486 layer_factory.hpp:77] Creating layer embed_encoder
I0924 03:57:22.409492 13462 net.cpp:156] Memory required for data: 16396
I0924 03:57:22.409509 13462 layer_factory.hpp:77] Creating layer cont_sentence_input_1_split
I0924 03:57:22.409512 13486 net.cpp:91] Creating Layer embed_encoder
I0924 03:57:22.409510 13466 net.cpp:91] Creating Layer embed_encoder
I0924 03:57:22.409523 13486 net.cpp:425] embed_encoder <- frames_fc7
I0924 03:57:22.409533 13466 net.cpp:425] embed_encoder <- frames_fc7
I0924 03:57:22.409548 13486 net.cpp:399] embed_encoder -> embedded_in_frames
I0924 03:57:22.409523 13462 net.cpp:91] Creating Layer cont_sentence_input_1_split
I0924 03:57:22.409569 13466 net.cpp:399] embed_encoder -> embedded_in_frames
I0924 03:57:22.409570 13462 net.cpp:425] cont_sentence_input_1_split <- cont_sentence
I0924 03:57:22.409605 13462 net.cpp:399] cont_sentence_input_1_split -> cont_sentence_input_1_split_0
I0924 03:57:22.409623 13462 net.cpp:399] cont_sentence_input_1_split -> cont_sentence_input_1_split_1
I0924 03:57:22.416798 13504 net.cpp:141] Setting up embed_encoder
I0924 03:57:22.416847 13504 net.cpp:148] Top shape: 1 500 (500)
I0924 03:57:22.416854 13504 net.cpp:156] Memory required for data: 18404
I0924 03:57:22.416883 13504 layer_factory.hpp:77] Creating layer reshape_frames
I0924 03:57:22.416918 13504 net.cpp:91] Creating Layer reshape_frames
I0924 03:57:22.416927 13504 net.cpp:425] reshape_frames <- embedded_in_frames
I0924 03:57:22.416939 13504 net.cpp:399] reshape_frames -> embedded_input_frames
I0924 03:57:22.416999 13504 net.cpp:141] Setting up reshape_frames
I0924 03:57:22.417011 13504 net.cpp:148] Top shape: 1 1 500 (500)
I0924 03:57:22.417016 13504 net.cpp:156] Memory required for data: 20404
I0924 03:57:22.417021 13504 layer_factory.hpp:77] Creating layer reshape_stage_indicator
I0924 03:57:22.417033 13504 net.cpp:91] Creating Layer reshape_stage_indicator
I0924 03:57:22.417038 13504 net.cpp:425] reshape_stage_indicator <- stage_indicator
I0924 03:57:22.417049 13504 net.cpp:399] reshape_stage_indicator -> reshaped_stage_indicator
I0924 03:57:22.417089 13504 net.cpp:141] Setting up reshape_stage_indicator
I0924 03:57:22.417098 13504 net.cpp:148] Top shape: 1 1 1 (1)
I0924 03:57:22.417104 13504 net.cpp:156] Memory required for data: 20408
I0924 03:57:22.417107 13504 layer_factory.hpp:77] Creating layer embedding
I0924 03:57:22.417121 13504 net.cpp:91] Creating Layer embedding
I0924 03:57:22.417127 13504 net.cpp:425] embedding <- input_sentence
I0924 03:57:22.417136 13504 net.cpp:399] embedding -> embedded_input_sentence
I0924 03:57:22.456188 13462 net.cpp:141] Setting up cont_sentence_input_1_split
I0924 03:57:22.456244 13462 net.cpp:148] Top shape: 1 1 (1)
I0924 03:57:22.456256 13462 net.cpp:148] Top shape: 1 1 (1)
I0924 03:57:22.456264 13462 net.cpp:156] Memory required for data: 16404
I0924 03:57:22.456276 13462 layer_factory.hpp:77] Creating layer embed_encoder
I0924 03:57:22.456310 13462 net.cpp:91] Creating Layer embed_encoder
I0924 03:57:22.456321 13462 net.cpp:425] embed_encoder <- frames_fc7
I0924 03:57:22.456346 13462 net.cpp:399] embed_encoder -> embedded_in_frames
I0924 03:57:22.491482 13517 net.cpp:141] Setting up cont_sentence_input_1_split
I0924 03:57:22.491535 13517 net.cpp:148] Top shape: 1 1 (1)
I0924 03:57:22.491547 13517 net.cpp:148] Top shape: 1 1 (1)
I0924 03:57:22.491555 13517 net.cpp:156] Memory required for data: 16404
I0924 03:57:22.491566 13517 layer_factory.hpp:77] Creating layer embed_encoder
I0924 03:57:22.491591 13517 net.cpp:91] Creating Layer embed_encoder
I0924 03:57:22.491600 13517 net.cpp:425] embed_encoder <- frames_fc7
I0924 03:57:22.491619 13517 net.cpp:399] embed_encoder -> embedded_in_frames
I0924 03:57:22.496047 13512 net.cpp:141] Setting up embed_encoder
I0924 03:57:22.496098 13512 net.cpp:148] Top shape: 1 500 (500)
I0924 03:57:22.496106 13512 net.cpp:156] Memory required for data: 18404
I0924 03:57:22.496134 13512 layer_factory.hpp:77] Creating layer reshape_frames
I0924 03:57:22.496160 13512 net.cpp:91] Creating Layer reshape_frames
I0924 03:57:22.496170 13512 net.cpp:425] reshape_frames <- embedded_in_frames
I0924 03:57:22.496184 13512 net.cpp:399] reshape_frames -> embedded_input_frames
I0924 03:57:22.496244 13512 net.cpp:141] Setting up reshape_frames
I0924 03:57:22.496258 13512 net.cpp:148] Top shape: 1 1 500 (500)
I0924 03:57:22.496263 13512 net.cpp:156] Memory required for data: 20404
I0924 03:57:22.496273 13512 layer_factory.hpp:77] Creating layer reshape_stage_indicator
I0924 03:57:22.496289 13512 net.cpp:91] Creating Layer reshape_stage_indicator
I0924 03:57:22.496299 13512 net.cpp:425] reshape_stage_indicator <- stage_indicator
I0924 03:57:22.496312 13512 net.cpp:399] reshape_stage_indicator -> reshaped_stage_indicator
I0924 03:57:22.496364 13512 net.cpp:141] Setting up reshape_stage_indicator
I0924 03:57:22.496377 13512 net.cpp:148] Top shape: 1 1 1 (1)
I0924 03:57:22.496384 13512 net.cpp:156] Memory required for data: 20408
I0924 03:57:22.496392 13512 layer_factory.hpp:77] Creating layer embedding
I0924 03:57:22.496408 13512 net.cpp:91] Creating Layer embedding
I0924 03:57:22.496417 13512 net.cpp:425] embedding <- input_sentence
I0924 03:57:22.496431 13512 net.cpp:399] embedding -> embedded_input_sentence
I0924 03:57:22.554873 13468 net.cpp:141] Setting up embed_encoder
I0924 03:57:22.554925 13468 net.cpp:148] Top shape: 1 500 (500)
I0924 03:57:22.554931 13468 net.cpp:156] Memory required for data: 18404
I0924 03:57:22.554952 13468 layer_factory.hpp:77] Creating layer reshape_frames
I0924 03:57:22.554970 13468 net.cpp:91] Creating Layer reshape_frames
I0924 03:57:22.554978 13468 net.cpp:425] reshape_frames <- embedded_in_frames
I0924 03:57:22.554999 13468 net.cpp:399] reshape_frames -> embedded_input_frames
I0924 03:57:22.555021 13480 net.cpp:141] Setting up embed_encoder
I0924 03:57:22.555053 13472 net.cpp:141] Setting up embed_encoder
I0924 03:57:22.555065 13480 net.cpp:148] Top shape: 1 500 (500)
I0924 03:57:22.555073 13472 net.cpp:148] Top shape: 1 500 (500)
I0924 03:57:22.555073 13480 net.cpp:156] Memory required for data: 18404
I0924 03:57:22.555078 13472 net.cpp:156] Memory required for data: 18404
I0924 03:57:22.555096 13472 layer_factory.hpp:77] Creating layer reshape_frames
I0924 03:57:22.555100 13466 net.cpp:141] Setting up embed_encoder
I0924 03:57:22.555102 13480 layer_factory.hpp:77] Creating layer reshape_frames
I0924 03:57:22.555125 13472 net.cpp:91] Creating Layer reshape_frames
I0924 03:57:22.555133 13480 net.cpp:91] Creating Layer reshape_frames
I0924 03:57:22.555126 13466 net.cpp:148] Top shape: 1 500 (500)
I0924 03:57:22.555142 13468 net.cpp:141] Setting up reshape_frames
I0924 03:57:22.555151 13466 net.cpp:156] Memory required for data: 18404
I0924 03:57:22.555145 13480 net.cpp:425] reshape_frames <- embedded_in_frames
I0924 03:57:22.555157 13468 net.cpp:148] Top shape: 1 1 500 (500)
I0924 03:57:22.555140 13472 net.cpp:425] reshape_frames <- embedded_in_frames
I0924 03:57:22.555165 13468 net.cpp:156] Memory required for data: 20404
I0924 03:57:22.555171 13468 layer_factory.hpp:77] Creating layer reshape_stage_indicator
I0924 03:57:22.555174 13472 net.cpp:399] reshape_frames -> embedded_input_frames
I0924 03:57:22.555176 13480 net.cpp:399] reshape_frames -> embedded_input_frames
I0924 03:57:22.555179 13466 layer_factory.hpp:77] Creating layer reshape_frames
I0924 03:57:22.555183 13468 net.cpp:91] Creating Layer reshape_stage_indicator
I0924 03:57:22.555189 13468 net.cpp:425] reshape_stage_indicator <- stage_indicator
I0924 03:57:22.555198 13468 net.cpp:399] reshape_stage_indicator -> reshaped_stage_indicator
I0924 03:57:22.555198 13466 net.cpp:91] Creating Layer reshape_frames
I0924 03:57:22.555210 13466 net.cpp:425] reshape_frames <- embedded_in_frames
I0924 03:57:22.555219 13466 net.cpp:399] reshape_frames -> embedded_input_frames
I0924 03:57:22.555253 13480 net.cpp:141] Setting up reshape_frames
I0924 03:57:22.555266 13480 net.cpp:148] Top shape: 1 1 500 (500)
I0924 03:57:22.555274 13480 net.cpp:156] Memory required for data: 20404
I0924 03:57:22.555280 13480 layer_factory.hpp:77] Creating layer reshape_stage_indicator
I0924 03:57:22.555285 13472 net.cpp:141] Setting up reshape_frames
I0924 03:57:22.555296 13472 net.cpp:148] Top shape: 1 1 500 (500)
I0924 03:57:22.555299 13480 net.cpp:91] Creating Layer reshape_stage_indicator
I0924 03:57:22.555300 13472 net.cpp:156] Memory required for data: 20404
I0924 03:57:22.555311 13480 net.cpp:425] reshape_stage_indicator <- stage_indicator
I0924 03:57:22.555316 13472 layer_factory.hpp:77] Creating layer reshape_stage_indicator
I0924 03:57:22.555325 13480 net.cpp:399] reshape_stage_indicator -> reshaped_stage_indicator
I0924 03:57:22.555327 13472 net.cpp:91] Creating Layer reshape_stage_indicator
I0924 03:57:22.555333 13472 net.cpp:425] reshape_stage_indicator <- stage_indicator
I0924 03:57:22.555354 13472 net.cpp:399] reshape_stage_indicator -> reshaped_stage_indicator
I0924 03:57:22.555356 13468 net.cpp:141] Setting up reshape_stage_indicator
I0924 03:57:22.555369 13468 net.cpp:148] Top shape: 1 1 1 (1)
I0924 03:57:22.555373 13468 net.cpp:156] Memory required for data: 20408
I0924 03:57:22.555379 13468 layer_factory.hpp:77] Creating layer embedding
I0924 03:57:22.555392 13468 net.cpp:91] Creating Layer embedding
I0924 03:57:22.555393 13466 net.cpp:141] Setting up reshape_frames
I0924 03:57:22.555397 13468 net.cpp:425] embedding <- input_sentence
I0924 03:57:22.555413 13466 net.cpp:148] Top shape: 1 1 500 (500)
I0924 03:57:22.555416 13468 net.cpp:399] embedding -> embedded_input_sentence
I0924 03:57:22.555419 13466 net.cpp:156] Memory required for data: 20404
I0924 03:57:22.555428 13466 layer_factory.hpp:77] Creating layer reshape_stage_indicator
I0924 03:57:22.555430 13472 net.cpp:141] Setting up reshape_stage_indicator
I0924 03:57:22.555441 13472 net.cpp:148] Top shape: 1 1 1 (1)
I0924 03:57:22.555438 13466 net.cpp:91] Creating Layer reshape_stage_indicator
I0924 03:57:22.555450 13472 net.cpp:156] Memory required for data: 20408
I0924 03:57:22.555455 13466 net.cpp:425] reshape_stage_indicator <- stage_indicator
I0924 03:57:22.555456 13472 layer_factory.hpp:77] Creating layer embedding
I0924 03:57:22.555469 13466 net.cpp:399] reshape_stage_indicator -> reshaped_stage_indicator
I0924 03:57:22.555474 13472 net.cpp:91] Creating Layer embedding
I0924 03:57:22.555470 13480 net.cpp:141] Setting up reshape_stage_indicator
I0924 03:57:22.555482 13472 net.cpp:425] embedding <- input_sentence
I0924 03:57:22.555496 13480 net.cpp:148] Top shape: 1 1 1 (1)
I0924 03:57:22.555505 13480 net.cpp:156] Memory required for data: 20408
I0924 03:57:22.555510 13472 net.cpp:399] embedding -> embedded_input_sentence
I0924 03:57:22.555512 13480 layer_factory.hpp:77] Creating layer embedding
I0924 03:57:22.555531 13480 net.cpp:91] Creating Layer embedding
I0924 03:57:22.555538 13480 net.cpp:425] embedding <- input_sentence
I0924 03:57:22.555551 13480 net.cpp:399] embedding -> embedded_input_sentence
I0924 03:57:22.555606 13466 net.cpp:141] Setting up reshape_stage_indicator
I0924 03:57:22.555624 13466 net.cpp:148] Top shape: 1 1 1 (1)
I0924 03:57:22.555630 13466 net.cpp:156] Memory required for data: 20408
I0924 03:57:22.555635 13466 layer_factory.hpp:77] Creating layer embedding
I0924 03:57:22.555644 13466 net.cpp:91] Creating Layer embedding
I0924 03:57:22.555649 13466 net.cpp:425] embedding <- input_sentence
I0924 03:57:22.555658 13466 net.cpp:399] embedding -> embedded_input_sentence
I0924 03:57:22.735472 13504 net.cpp:141] Setting up embedding
I0924 03:57:22.735537 13504 net.cpp:148] Top shape: 1 1 500 (500)
I0924 03:57:22.735550 13504 net.cpp:156] Memory required for data: 22408
I0924 03:57:22.735584 13504 layer_factory.hpp:77] Creating layer lstm1
I0924 03:57:22.735630 13504 net.cpp:91] Creating Layer lstm1
I0924 03:57:22.735647 13504 net.cpp:425] lstm1 <- embedded_input_frames
I0924 03:57:22.735663 13504 net.cpp:425] lstm1 <- cont_sentence_input_1_split_0
I0924 03:57:22.735682 13504 net.cpp:399] lstm1 -> lstm1
I0924 03:57:22.735726 13504 recurrent_layer.cpp:20] Initializing recurrent layer: assuming input batch contains 1 timesteps of 1 independent streams.
I0924 03:57:22.735745 13512 net.cpp:141] Setting up embedding
I0924 03:57:22.735783 13512 net.cpp:148] Top shape: 1 1 500 (500)
I0924 03:57:22.735790 13512 net.cpp:156] Memory required for data: 22408
I0924 03:57:22.735805 13512 layer_factory.hpp:77] Creating layer lstm1
I0924 03:57:22.735824 13512 net.cpp:91] Creating Layer lstm1
I0924 03:57:22.735831 13512 net.cpp:425] lstm1 <- embedded_input_frames
I0924 03:57:22.735847 13512 net.cpp:425] lstm1 <- cont_sentence_input_1_split_0
I0924 03:57:22.735857 13512 net.cpp:399] lstm1 -> lstm1
I0924 03:57:22.735873 13512 recurrent_layer.cpp:20] Initializing recurrent layer: assuming input batch contains 1 timesteps of 1 independent streams.
I0924 03:57:22.736449 13512 net.cpp:49] Initializing net from parameters: 
layer {
  name: "lstm1_"
  type: "Input"
  top: "x"
  top: "cont"
  input_param {
    shape {
      dim: 1
      dim: 1
      dim: 500
    }
    shape {
      dim: 1
      dim: 1
    }
  }
}
layer {
  name: "lstm1_"
  type: "Input"
  top: "c_0"
  top: "h_0"
  input_param {
    shape {
      dim: 1
      dim: 1
      dim: 1000
    }
    shape {
      dim: 1
      dim: 1
      dim: 1000
    }
  }
}
layer {
  name: "lstm1_cont_slice"
  type: "Slice"
  bottom: "cont"
  top: "cont_1"
  slice_param {
    axis: 0
  }
}
layer {
  name: "lstm1_x_transform"
  type: "InnerProduct"
  bottom: "x"
  top: "W_xc_x"
  param {
    name: "W_xc"
  }
  param {
    name: "b_c"
  }
  propagate_down: true
  inner_product_param {
    num_output: 4000
    bias_term: true
    weight_filler {
      type: "uniform"
      min: -0.08
      max: 0.08
    }
    bias_filler {
      type: "constant"
      value: 0
    }
    axis: 2
  }
}
layer {
  name: "lstm1_W_xc_x_slice"
  type: "Slice"
  bottom: "W_xc_x"
  top: "W_xc_x_1"
  slice_param {
    axis: 0
  }
}
layer {
  name: "lstm1_h_conted_0"
  type: "Scale"
  bottom: "h_0"
  bottom: "cont_1"
  top: "h_conted_0"
  scale_param {
    axis: 0
  }
}
layer {
  name: "lstm1_transform_1"
  type: "InnerProduct"
  bottom: "h_conted_0"
  top: "W_hc_h_0"
  param {
    name: "W_hc"
  }
  inner_product_param {
    num_output: 4000
    bias_term: false
    weight_filler {
      type: "uniform"
      min: -0.08
      max: 0.08
    }
    axis: 2
  }
}
layer {
  name: "lstm1_gate_input_1"
  type: "Eltwise"
  bottom: "W_hc_h_0"
  bottom: "W_xc_x_1"
  top: "gate_input_1"
  eltwise_param {
    operation: SUM
  }
}
layer {
  name: "lstm1_unit_1"
  type: "LSTMUnit"
  bottom: "c_0"
  bottom: "gate_input_1"
  bottom: "cont_1"
  top: "c_1"
  top: "h_1"
}
layer {
  name: "lstm1_"
  type: "Split"
  bottom: "c_1"
  top: "c_T"
}
layer {
  name: "lstm1_h_concat"
  type: "Concat"
  bottom: "h_1"
  top: "h"
  concat_param {
    axis: 0
  }
}
layer {
  name: "h_pseudoloss"
  type: "Reduction"
  bottom: "h"
  top: "h_pseudoloss"
  loss_weight: 1
}
I0924 03:57:22.736542 13512 layer_factory.hpp:77] Creating layer lstm1_
I0924 03:57:22.736555 13512 net.cpp:91] Creating Layer lstm1_
I0924 03:57:22.736562 13512 net.cpp:399] lstm1_ -> x
I0924 03:57:22.736573 13512 net.cpp:399] lstm1_ -> cont
I0924 03:57:22.739621 13504 net.cpp:49] Initializing net from parameters: 
layer {
  name: "lstm1_"
  type: "Input"
  top: "x"
  top: "cont"
  input_param {
    shape {
      dim: 1
      dim: 1
      dim: 500
    }
    shape {
      dim: 1
      dim: 1
    }
  }
}
layer {
  name: "lstm1_"
  type: "Input"
  top: "c_0"
  top: "h_0"
  input_param {
    shape {
      dim: 1
      dim: 1
      dim: 1000
    }
    shape {
      dim: 1
      dim: 1
      dim: 1000
    }
  }
}
layer {
  name: "lstm1_cont_slice"
  type: "Slice"
  bottom: "cont"
  top: "cont_1"
  slice_param {
    axis: 0
  }
}
layer {
  name: "lstm1_x_transform"
  type: "InnerProduct"
  bottom: "x"
  top: "W_xc_x"
  param {
    name: "W_xc"
  }
  param {
    name: "b_c"
  }
  propagate_down: true
  inner_product_param {
    num_output: 4000
    bias_term: true
    weight_filler {
      type: "uniform"
      min: -0.08
      max: 0.08
    }
    bias_filler {
      type: "constant"
      value: 0
    }
    axis: 2
  }
}
layer {
  name: "lstm1_W_xc_x_slice"
  type: "Slice"
  bottom: "W_xc_x"
  top: "W_xc_x_1"
  slice_param {
    axis: 0
  }
}
layer {
  name: "lstm1_h_conted_0"
  type: "Scale"
  bottom: "h_0"
  bottom: "cont_1"
  top: "h_conted_0"
  scale_param {
    axis: 0
  }
}
layer {
  name: "lstm1_transform_1"
  type: "InnerProduct"
  bottom: "h_conted_0"
  top: "W_hc_h_0"
  param {
    name: "W_hc"
  }
  inner_product_param {
    num_output: 4000
    bias_term: false
    weight_filler {
      type: "uniform"
      min: -0.08
      max: 0.08
    }
    axis: 2
  }
}
layer {
  name: "lstm1_gate_input_1"
  type: "Eltwise"
  bottom: "W_hc_h_0"
  bottom: "W_xc_x_1"
  top: "gate_input_1"
  eltwise_param {
    operation: SUM
  }
}
layer {
  name: "lstm1_unit_1"
  type: "LSTMUnit"
  bottom: "c_0"
  bottom: "gate_input_1"
  bottom: "cont_1"
  top: "c_1"
  top: "h_1"
}
layer {
  name: "lstm1_"
  type: "Split"
  bottom: "c_1"
  top: "c_T"
}
layer {
  name: "lstm1_h_concat"
  type: "Concat"
  bottom: "h_1"
  top: "h"
  concat_param {
    axis: 0
  }
}
layer {
  name: "h_pseudoloss"
  type: "Reduction"
  bottom: "h"
  top: "h_pseudoloss"
  loss_weight: 1
}
I0924 03:57:22.739794 13504 layer_factory.hpp:77] Creating layer lstm1_
I0924 03:57:22.739817 13504 net.cpp:91] Creating Layer lstm1_
I0924 03:57:22.739830 13504 net.cpp:399] lstm1_ -> x
I0924 03:57:22.739852 13504 net.cpp:399] lstm1_ -> cont
I0924 03:57:22.797158 13517 net.cpp:141] Setting up embed_encoder
I0924 03:57:22.797214 13517 net.cpp:148] Top shape: 1 500 (500)
I0924 03:57:22.797225 13517 net.cpp:156] Memory required for data: 18404
I0924 03:57:22.797257 13517 layer_factory.hpp:77] Creating layer reshape_frames
I0924 03:57:22.797288 13517 net.cpp:91] Creating Layer reshape_frames
I0924 03:57:22.797302 13517 net.cpp:425] reshape_frames <- embedded_in_frames
I0924 03:57:22.797317 13517 net.cpp:399] reshape_frames -> embedded_input_frames
I0924 03:57:22.797384 13517 net.cpp:141] Setting up reshape_frames
I0924 03:57:22.797400 13517 net.cpp:148] Top shape: 1 1 500 (500)
I0924 03:57:22.797408 13517 net.cpp:156] Memory required for data: 20404
I0924 03:57:22.797416 13517 layer_factory.hpp:77] Creating layer reshape_stage_indicator
I0924 03:57:22.797435 13517 net.cpp:91] Creating Layer reshape_stage_indicator
I0924 03:57:22.797446 13517 net.cpp:425] reshape_stage_indicator <- stage_indicator
I0924 03:57:22.797462 13517 net.cpp:399] reshape_stage_indicator -> reshaped_stage_indicator
I0924 03:57:22.797518 13517 net.cpp:141] Setting up reshape_stage_indicator
I0924 03:57:22.797533 13517 net.cpp:148] Top shape: 1 1 1 (1)
I0924 03:57:22.797541 13517 net.cpp:156] Memory required for data: 20408
I0924 03:57:22.797549 13517 layer_factory.hpp:77] Creating layer embedding
I0924 03:57:22.797569 13517 net.cpp:91] Creating Layer embedding
I0924 03:57:22.797576 13517 net.cpp:425] embedding <- input_sentence
I0924 03:57:22.797590 13517 net.cpp:399] embedding -> embedded_input_sentence
I0924 03:57:22.847003 13486 net.cpp:141] Setting up embed_encoder
I0924 03:57:22.847069 13486 net.cpp:148] Top shape: 1 500 (500)
I0924 03:57:22.847079 13486 net.cpp:156] Memory required for data: 18404
I0924 03:57:22.847115 13486 layer_factory.hpp:77] Creating layer reshape_frames
I0924 03:57:22.847146 13486 net.cpp:91] Creating Layer reshape_frames
I0924 03:57:22.847157 13486 net.cpp:425] reshape_frames <- embedded_in_frames
I0924 03:57:22.847172 13486 net.cpp:399] reshape_frames -> embedded_input_frames
I0924 03:57:22.847249 13486 net.cpp:141] Setting up reshape_frames
I0924 03:57:22.847264 13486 net.cpp:148] Top shape: 1 1 500 (500)
I0924 03:57:22.847270 13486 net.cpp:156] Memory required for data: 20404
I0924 03:57:22.847278 13486 layer_factory.hpp:77] Creating layer reshape_stage_indicator
I0924 03:57:22.847296 13486 net.cpp:91] Creating Layer reshape_stage_indicator
I0924 03:57:22.847306 13486 net.cpp:425] reshape_stage_indicator <- stage_indicator
I0924 03:57:22.847318 13486 net.cpp:399] reshape_stage_indicator -> reshaped_stage_indicator
I0924 03:57:22.847373 13486 net.cpp:141] Setting up reshape_stage_indicator
I0924 03:57:22.847388 13486 net.cpp:148] Top shape: 1 1 1 (1)
I0924 03:57:22.847394 13486 net.cpp:156] Memory required for data: 20408
I0924 03:57:22.847403 13486 layer_factory.hpp:77] Creating layer embedding
I0924 03:57:22.847420 13486 net.cpp:91] Creating Layer embedding
I0924 03:57:22.847429 13486 net.cpp:425] embedding <- input_sentence
I0924 03:57:22.847441 13486 net.cpp:399] embedding -> embedded_input_sentence
I0924 03:57:22.900097 13472 net.cpp:141] Setting up embedding
I0924 03:57:22.900658 13472 net.cpp:148] Top shape: 1 1 500 (500)
I0924 03:57:22.900812 13472 net.cpp:156] Memory required for data: 22408
I0924 03:57:22.900843 13472 layer_factory.hpp:77] Creating layer lstm1
I0924 03:57:22.900869 13472 net.cpp:91] Creating Layer lstm1
I0924 03:57:22.900878 13472 net.cpp:425] lstm1 <- embedded_input_frames
I0924 03:57:22.900913 13472 net.cpp:425] lstm1 <- cont_sentence_input_1_split_0
I0924 03:57:22.900928 13472 net.cpp:399] lstm1 -> lstm1
I0924 03:57:22.900949 13472 recurrent_layer.cpp:20] Initializing recurrent layer: assuming input batch contains 1 timesteps of 1 independent streams.
I0924 03:57:22.901289 13472 net.cpp:49] Initializing net from parameters: 
layer {
  name: "lstm1_"
  type: "Input"
  top: "x"
  top: "cont"
  input_param {
    shape {
      dim: 1
      dim: 1
      dim: 500
    }
    shape {
      dim: 1
      dim: 1
    }
  }
}
layer {
  name: "lstm1_"
  type: "Input"
  top: "c_0"
  top: "h_0"
  input_param {
    shape {
      dim: 1
      dim: 1
      dim: 1000
    }
    shape {
      dim: 1
      dim: 1
      dim: 1000
    }
  }
}
layer {
  name: "lstm1_cont_slice"
  type: "Slice"
  bottom: "cont"
  top: "cont_1"
  slice_param {
    axis: 0
  }
}
layer {
  name: "lstm1_x_transform"
  type: "InnerProduct"
  bottom: "x"
  top: "W_xc_x"
  param {
    name: "W_xc"
  }
  param {
    name: "b_c"
  }
  propagate_down: true
  inner_product_param {
    num_output: 4000
    bias_term: true
    weight_filler {
      type: "uniform"
      min: -0.08
      max: 0.08
    }
    bias_filler {
      type: "constant"
      value: 0
    }
    axis: 2
  }
}
layer {
  name: "lstm1_W_xc_x_slice"
  type: "Slice"
  bottom: "W_xc_x"
  top: "W_xc_x_1"
  slice_param {
    axis: 0
  }
}
layer {
  name: "lstm1_h_conted_0"
  type: "Scale"
  bottom: "h_0"
  bottom: "cont_1"
  top: "h_conted_0"
  scale_param {
    axis: 0
  }
}
layer {
  name: "lstm1_transform_1"
  type: "InnerProduct"
  bottom: "h_conted_0"
  top: "W_hc_h_0"
  param {
    name: "W_hc"
  }
  inner_product_param {
    num_output: 4000
    bias_term: false
    weight_filler {
      type: "uniform"
      min: -0.08
      max: 0.08
    }
    axis: 2
  }
}
layer {
  name: "lstm1_gate_input_1"
  type: "Eltwise"
  bottom: "W_hc_h_0"
  bottom: "W_xc_x_1"
  top: "gate_input_1"
  eltwise_param {
    operation: SUM
  }
}
layer {
  name: "lstm1_unit_1"
  type: "LSTMUnit"
  bottom: "c_0"
  bottom: "gate_input_1"
  bottom: "cont_1"
  top: "c_1"
  top: "h_1"
}
layer {
  name: "lstm1_"
  type: "Split"
  bottom: "c_1"
  top: "c_T"
}
layer {
  name: "lstm1_h_concat"
  type: "Concat"
  bottom: "h_1"
  top: "h"
  concat_param {
    axis: 0
  }
}
layer {
  name: "h_pseudoloss"
  type: "Reduction"
  bottom: "h"
  top: "h_pseudoloss"
  loss_weight: 1
}
I0924 03:57:22.901383 13472 layer_factory.hpp:77] Creating layer lstm1_
I0924 03:57:22.901397 13472 net.cpp:91] Creating Layer lstm1_
I0924 03:57:22.901404 13472 net.cpp:399] lstm1_ -> x
I0924 03:57:22.901417 13472 net.cpp:399] lstm1_ -> cont
I0924 03:57:22.900127 13504 net.cpp:141] Setting up lstm1_
I0924 03:57:22.902113 13504 net.cpp:148] Top shape: 1 1 500 (500)
I0924 03:57:22.902130 13504 net.cpp:148] Top shape: 1 1 (1)
I0924 03:57:22.902138 13504 net.cpp:156] Memory required for data: 2004
I0924 03:57:22.902148 13504 layer_factory.hpp:77] Creating layer lstm1_
I0924 03:57:22.902168 13504 net.cpp:91] Creating Layer lstm1_
I0924 03:57:22.902182 13504 net.cpp:399] lstm1_ -> c_0
I0924 03:57:22.902204 13504 net.cpp:399] lstm1_ -> h_0
I0924 03:57:22.965262 13512 net.cpp:141] Setting up lstm1_
I0924 03:57:22.965320 13512 net.cpp:148] Top shape: 1 1 500 (500)
I0924 03:57:22.965333 13512 net.cpp:148] Top shape: 1 1 (1)
I0924 03:57:22.965340 13512 net.cpp:156] Memory required for data: 2004
I0924 03:57:22.965353 13512 layer_factory.hpp:77] Creating layer lstm1_
I0924 03:57:22.965389 13512 net.cpp:91] Creating Layer lstm1_
I0924 03:57:22.965404 13512 net.cpp:399] lstm1_ -> c_0
I0924 03:57:22.965430 13512 net.cpp:399] lstm1_ -> h_0
I0924 03:57:22.965492 13462 net.cpp:141] Setting up embed_encoder
I0924 03:57:22.965512 13462 net.cpp:148] Top shape: 1 500 (500)
I0924 03:57:22.965520 13462 net.cpp:156] Memory required for data: 18404
I0924 03:57:22.965546 13462 layer_factory.hpp:77] Creating layer reshape_frames
I0924 03:57:22.965567 13462 net.cpp:91] Creating Layer reshape_frames
I0924 03:57:22.965579 13462 net.cpp:425] reshape_frames <- embedded_in_frames
I0924 03:57:22.965595 13462 net.cpp:399] reshape_frames -> embedded_input_frames
I0924 03:57:22.965602 13480 net.cpp:141] Setting up embedding
I0924 03:57:22.965582 13468 net.cpp:141] Setting up embedding
I0924 03:57:22.965648 13480 net.cpp:148] Top shape: 1 1 500 (500)
I0924 03:57:22.965654 13468 net.cpp:148] Top shape: 1 1 500 (500)
I0924 03:57:22.965659 13480 net.cpp:156] Memory required for data: 22408
I0924 03:57:22.965665 13468 net.cpp:156] Memory required for data: 22408
I0924 03:57:22.965656 13472 net.cpp:141] Setting up lstm1_
I0924 03:57:22.965687 13468 layer_factory.hpp:77] Creating layer lstm1
I0924 03:57:22.965698 13472 net.cpp:148] Top shape: 1 1 500 (500)
I0924 03:57:22.965698 13480 layer_factory.hpp:77] Creating layer lstm1
I0924 03:57:22.965733 13468 net.cpp:91] Creating Layer lstm1
I0924 03:57:22.965733 13472 net.cpp:148] Top shape: 1 1 (1)
I0924 03:57:22.965754 13480 net.cpp:91] Creating Layer lstm1
I0924 03:57:22.965749 13468 net.cpp:425] lstm1 <- embedded_input_frames
I0924 03:57:22.965764 13472 net.cpp:156] Memory required for data: 2004
I0924 03:57:22.965773 13480 net.cpp:425] lstm1 <- embedded_input_frames
I0924 03:57:22.965776 13468 net.cpp:425] lstm1 <- cont_sentence_input_1_split_0
I0924 03:57:22.965787 13480 net.cpp:425] lstm1 <- cont_sentence_input_1_split_0
I0924 03:57:22.965777 13472 layer_factory.hpp:77] Creating layer lstm1_
I0924 03:57:22.965803 13462 net.cpp:141] Setting up reshape_frames
I0924 03:57:22.965809 13480 net.cpp:399] lstm1 -> lstm1
I0924 03:57:22.965816 13468 net.cpp:399] lstm1 -> lstm1
I0924 03:57:22.965821 13462 net.cpp:148] Top shape: 1 1 500 (500)
I0924 03:57:22.965749 13512 net.cpp:141] Setting up lstm1_
I0924 03:57:22.965987 13468 recurrent_layer.cpp:20] Initializing recurrent layer: assuming input batch contains 1 timesteps of 1 independent streams.
I0924 03:57:22.965828 13472 net.cpp:91] Creating Layer lstm1_
I0924 03:57:22.965987 13462 net.cpp:156] Memory required for data: 20404
I0924 03:57:22.966023 13462 layer_factory.hpp:77] Creating layer reshape_stage_indicator
I0924 03:57:22.966034 13472 net.cpp:399] lstm1_ -> c_0
I0924 03:57:22.966002 13512 net.cpp:148] Top shape: 1 1 1000 (1000)
I0924 03:57:22.966040 13462 net.cpp:91] Creating Layer reshape_stage_indicator
I0924 03:57:22.966059 13512 net.cpp:148] Top shape: 1 1 1000 (1000)
I0924 03:57:22.966068 13512 net.cpp:156] Memory required for data: 10004
I0924 03:57:22.966071 13472 net.cpp:399] lstm1_ -> h_0
I0924 03:57:22.965837 13480 recurrent_layer.cpp:20] Initializing recurrent layer: assuming input batch contains 1 timesteps of 1 independent streams.
I0924 03:57:22.966078 13512 layer_factory.hpp:77] Creating layer lstm1_cont_slice
I0924 03:57:22.966130 13512 net.cpp:91] Creating Layer lstm1_cont_slice
I0924 03:57:22.966140 13512 net.cpp:425] lstm1_cont_slice <- cont
I0924 03:57:22.966156 13512 net.cpp:399] lstm1_cont_slice -> cont_1
I0924 03:57:22.966151 13504 net.cpp:141] Setting up lstm1_
I0924 03:57:22.966181 13504 net.cpp:148] Top shape: 1 1 1000 (1000)
I0924 03:57:22.966192 13504 net.cpp:148] Top shape: 1 1 1000 (1000)
I0924 03:57:22.966200 13504 net.cpp:156] Memory required for data: 10004
I0924 03:57:22.966210 13504 layer_factory.hpp:77] Creating layer lstm1_cont_slice
I0924 03:57:22.966229 13504 net.cpp:91] Creating Layer lstm1_cont_slice
I0924 03:57:22.966241 13504 net.cpp:425] lstm1_cont_slice <- cont
I0924 03:57:22.966258 13504 net.cpp:399] lstm1_cont_slice -> cont_1
I0924 03:57:22.966259 13472 net.cpp:141] Setting up lstm1_
I0924 03:57:22.966282 13472 net.cpp:148] Top shape: 1 1 1000 (1000)
I0924 03:57:22.966295 13472 net.cpp:148] Top shape: 1 1 1000 (1000)
I0924 03:57:22.966305 13472 net.cpp:156] Memory required for data: 10004
I0924 03:57:22.966315 13472 layer_factory.hpp:77] Creating layer lstm1_cont_slice
I0924 03:57:22.966334 13472 net.cpp:91] Creating Layer lstm1_cont_slice
I0924 03:57:22.966336 13504 net.cpp:141] Setting up lstm1_cont_slice
I0924 03:57:22.966346 13472 net.cpp:425] lstm1_cont_slice <- cont
I0924 03:57:22.966353 13504 net.cpp:148] Top shape: 1 1 (1)
I0924 03:57:22.966363 13504 net.cpp:156] Memory required for data: 10008
I0924 03:57:22.966368 13472 net.cpp:399] lstm1_cont_slice -> cont_1
I0924 03:57:22.966372 13504 layer_factory.hpp:77] Creating layer cont_1_lstm1_cont_slice_0_split
I0924 03:57:22.966405 13504 net.cpp:91] Creating Layer cont_1_lstm1_cont_slice_0_split
I0924 03:57:22.966416 13504 net.cpp:425] cont_1_lstm1_cont_slice_0_split <- cont_1
I0924 03:57:22.966429 13504 net.cpp:399] cont_1_lstm1_cont_slice_0_split -> cont_1_lstm1_cont_slice_0_split_0
I0924 03:57:22.966445 13504 net.cpp:399] cont_1_lstm1_cont_slice_0_split -> cont_1_lstm1_cont_slice_0_split_1
I0924 03:57:22.966460 13472 net.cpp:141] Setting up lstm1_cont_slice
I0924 03:57:22.966481 13472 net.cpp:148] Top shape: 1 1 (1)
I0924 03:57:22.966481 13468 net.cpp:49] Initializing net from parameters: 
layer {
  name: "lstm1_"
  type: "Input"
  top: "x"
  top: "cont"
  input_param {
    shape {
      dim: 1
      dim: 1
      dim: 500
    }
    shape {
      dim: 1
      dim: 1
    }
  }
}
layer {
  name: "lstm1_"
  type: "Input"
  top: "c_0"
  top: "h_0"
  input_param {
    shape {
      dim: 1
      dim: 1
      dim: 1000
    }
    shape {
      dim: 1
      dim: 1
      dim: 1000
    }
  }
}
layer {
  name: "lstm1_cont_slice"
  type: "Slice"
  bottom: "cont"
  top: "cont_1"
  slice_param {
    axis: 0
  }
}
layer {
  name: "lstm1_x_transform"
  type: "InnerProduct"
  bottom: "x"
  top: "W_xc_x"
  param {
    name: "W_xc"
  }
  param {
    name: "b_c"
  }
  propagate_down: true
  inner_product_param {
    num_output: 4000
    bias_term: true
    weight_filler {
      type: "uniform"
      min: -0.08
      max: 0.08
    }
    bias_filler {
      type: "constant"
      value: 0
    }
    axis: 2
  }
}
layer {
  name: "lstm1_W_xc_x_slice"
  type: "Slice"
  bottom: "W_xc_x"
  top: "W_xc_x_1"
  slice_param {
    axis: 0
  }
}
layer {
  name: "lstm1_h_conted_0"
  type: "Scale"
  bottom: "h_0"
  bottom: "cont_1"
  top: "h_conted_0"
  scale_param {
    axis: 0
  }
}
layer {
  name: "lstm1_transform_1"
  type: "InnerProduct"
  bottom: "h_conted_0"
  top: "W_hc_h_0"
  param {
    name: "W_hc"
  }
  inner_product_param {
    num_output: 4000
    bias_term: false
    weight_filler {
      type: "uniform"
      min: -0.08
      max: 0.08
    }
    axis: 2
  }
}
layer {
  name: "lstm1_gate_input_1"
  type: "Eltwise"
  bottom: "W_hc_h_0"
  bottom: "W_xc_x_1"
  top: "gate_input_1"
  eltwise_param {
    operation: SUM
  }
}
layer {
  name: "lstm1_unit_1"
  type: "LSTMUnit"
  bottom: "c_0"
  bottom: "gate_input_1"
  bottom: "cont_1"
  top: "c_1"
  top: "h_1"
}
layer {
  name: "lstm1_"
  type: "Split"
  bottom: "c_1"
  top: "c_T"
}
layer {
  name: "lstm1_h_concat"
  type: "Concat"
  bottom: "h_1"
  top: "h"
  concat_param {
    axis: 0
  }
}
layer {
  name: "h_pseudoloss"
  type: "Reduction"
  bottom: "h"
  top: "h_pseudoloss"
  loss_weight: 1
}
I0924 03:57:22.966492 13472 net.cpp:156] Memory required for data: 10008
I0924 03:57:22.966506 13472 layer_factory.hpp:77] Creating layer cont_1_lstm1_cont_slice_0_split
I0924 03:57:22.966527 13504 net.cpp:141] Setting up cont_1_lstm1_cont_slice_0_split
I0924 03:57:22.966531 13472 net.cpp:91] Creating Layer cont_1_lstm1_cont_slice_0_split
I0924 03:57:22.966543 13504 net.cpp:148] Top shape: 1 1 (1)
I0924 03:57:22.966544 13472 net.cpp:425] cont_1_lstm1_cont_slice_0_split <- cont_1
I0924 03:57:22.966567 13504 net.cpp:148] Top shape: 1 1 (1)
I0924 03:57:22.966579 13472 net.cpp:399] cont_1_lstm1_cont_slice_0_split -> cont_1_lstm1_cont_slice_0_split_0
I0924 03:57:22.966581 13504 net.cpp:156] Memory required for data: 10016
I0924 03:57:22.966619 13504 layer_factory.hpp:77] Creating layer lstm1_x_transform
I0924 03:57:22.966620 13472 net.cpp:399] cont_1_lstm1_cont_slice_0_split -> cont_1_lstm1_cont_slice_0_split_1
I0924 03:57:22.966640 13504 net.cpp:91] Creating Layer lstm1_x_transform
I0924 03:57:22.966645 13468 layer_factory.hpp:77] Creating layer lstm1_
I0924 03:57:22.966650 13504 net.cpp:425] lstm1_x_transform <- x
I0924 03:57:22.966665 13468 net.cpp:91] Creating Layer lstm1_
I0924 03:57:22.966670 13504 net.cpp:399] lstm1_x_transform -> W_xc_x
I0924 03:57:22.966677 13468 net.cpp:399] lstm1_ -> x
I0924 03:57:22.966696 13468 net.cpp:399] lstm1_ -> cont
I0924 03:57:22.966737 13472 net.cpp:141] Setting up cont_1_lstm1_cont_slice_0_split
I0924 03:57:22.966758 13472 net.cpp:148] Top shape: 1 1 (1)
I0924 03:57:22.966766 13472 net.cpp:148] Top shape: 1 1 (1)
I0924 03:57:22.966774 13472 net.cpp:156] Memory required for data: 10016
I0924 03:57:22.966781 13472 layer_factory.hpp:77] Creating layer lstm1_x_transform
I0924 03:57:22.966799 13472 net.cpp:91] Creating Layer lstm1_x_transform
I0924 03:57:22.966807 13472 net.cpp:425] lstm1_x_transform <- x
I0924 03:57:22.966805 13468 net.cpp:141] Setting up lstm1_
I0924 03:57:22.966830 13472 net.cpp:399] lstm1_x_transform -> W_xc_x
I0924 03:57:22.966840 13468 net.cpp:148] Top shape: 1 1 500 (500)
I0924 03:57:22.966073 13462 net.cpp:425] reshape_stage_indicator <- stage_indicator
I0924 03:57:22.966853 13468 net.cpp:148] Top shape: 1 1 (1)
I0924 03:57:22.966861 13468 net.cpp:156] Memory required for data: 2004
I0924 03:57:22.966868 13468 layer_factory.hpp:77] Creating layer lstm1_
I0924 03:57:22.966869 13462 net.cpp:399] reshape_stage_indicator -> reshaped_stage_indicator
I0924 03:57:22.966881 13468 net.cpp:91] Creating Layer lstm1_
I0924 03:57:22.966897 13468 net.cpp:399] lstm1_ -> c_0
I0924 03:57:22.966915 13468 net.cpp:399] lstm1_ -> h_0
I0924 03:57:22.967152 13480 net.cpp:49] Initializing net from parameters: 
layer {
  name: "lstm1_"
  type: "Input"
  top: "x"
  top: "cont"
  input_param {
    shape {
      dim: 1
      dim: 1
      dim: 500
    }
    shape {
      dim: 1
      dim: 1
    }
  }
}
layer {
  name: "lstm1_"
  type: "Input"
  top: "c_0"
  top: "h_0"
  input_param {
    shape {
      dim: 1
      dim: 1
      dim: 1000
    }
    shape {
      dim: 1
      dim: 1
      dim: 1000
    }
  }
}
layer {
  name: "lstm1_cont_slice"
  type: "Slice"
  bottom: "cont"
  top: "cont_1"
  slice_param {
    axis: 0
  }
}
layer {
  name: "lstm1_x_transform"
  type: "InnerProduct"
  bottom: "x"
  top: "W_xc_x"
  param {
    name: "W_xc"
  }
  param {
    name: "b_c"
  }
  propagate_down: true
  inner_product_param {
    num_output: 4000
    bias_term: true
    weight_filler {
      type: "uniform"
      min: -0.08
      max: 0.08
    }
    bias_filler {
      type: "constant"
      value: 0
    }
    axis: 2
  }
}
layer {
  name: "lstm1_W_xc_x_slice"
  type: "Slice"
  bottom: "W_xc_x"
  top: "W_xc_x_1"
  slice_param {
    axis: 0
  }
}
layer {
  name: "lstm1_h_conted_0"
  type: "Scale"
  bottom: "h_0"
  bottom: "cont_1"
  top: "h_conted_0"
  scale_param {
    axis: 0
  }
}
layer {
  name: "lstm1_transform_1"
  type: "InnerProduct"
  bottom: "h_conted_0"
  top: "W_hc_h_0"
  param {
    name: "W_hc"
  }
  inner_product_param {
    num_output: 4000
    bias_term: false
    weight_filler {
      type: "uniform"
      min: -0.08
      max: 0.08
    }
    axis: 2
  }
}
layer {
  name: "lstm1_gate_input_1"
  type: "Eltwise"
  bottom: "W_hc_h_0"
  bottom: "W_xc_x_1"
  top: "gate_input_1"
  eltwise_param {
    operation: SUM
  }
}
layer {
  name: "lstm1_unit_1"
  type: "LSTMUnit"
  bottom: "c_0"
  bottom: "gate_input_1"
  bottom: "cont_1"
  top: "c_1"
  top: "h_1"
}
layer {
  name: "lstm1_"
  type: "Split"
  bottom: "c_1"
  top: "c_T"
}
layer {
  name: "lstm1_h_concat"
  type: "Concat"
  bottom: "h_1"
  top: "h"
  concat_param {
    axis: 0
  }
}
layer {
  name: "h_pseudoloss"
  type: "Reduction"
  bottom: "h"
  top: "h_pseudoloss"
  loss_weight: 1
}
I0924 03:57:22.967236 13480 layer_factory.hpp:77] Creating layer lstm1_
I0924 03:57:22.967247 13480 net.cpp:91] Creating Layer lstm1_
I0924 03:57:22.967253 13480 net.cpp:399] lstm1_ -> x
I0924 03:57:22.967263 13480 net.cpp:399] lstm1_ -> cont
I0924 03:57:22.977452 13512 net.cpp:141] Setting up lstm1_cont_slice
I0924 03:57:22.977507 13512 net.cpp:148] Top shape: 1 1 (1)
I0924 03:57:22.977514 13512 net.cpp:156] Memory required for data: 10008
I0924 03:57:22.977521 13512 layer_factory.hpp:77] Creating layer cont_1_lstm1_cont_slice_0_split
I0924 03:57:22.977550 13512 net.cpp:91] Creating Layer cont_1_lstm1_cont_slice_0_split
I0924 03:57:22.977557 13512 net.cpp:425] cont_1_lstm1_cont_slice_0_split <- cont_1
I0924 03:57:22.977568 13512 net.cpp:399] cont_1_lstm1_cont_slice_0_split -> cont_1_lstm1_cont_slice_0_split_0
I0924 03:57:22.977584 13512 net.cpp:399] cont_1_lstm1_cont_slice_0_split -> cont_1_lstm1_cont_slice_0_split_1
I0924 03:57:22.977649 13512 net.cpp:141] Setting up cont_1_lstm1_cont_slice_0_split
I0924 03:57:22.977658 13512 net.cpp:148] Top shape: 1 1 (1)
I0924 03:57:22.977664 13512 net.cpp:148] Top shape: 1 1 (1)
I0924 03:57:22.977669 13512 net.cpp:156] Memory required for data: 10016
I0924 03:57:22.977674 13512 layer_factory.hpp:77] Creating layer lstm1_x_transform
I0924 03:57:22.977691 13512 net.cpp:91] Creating Layer lstm1_x_transform
I0924 03:57:22.977696 13512 net.cpp:425] lstm1_x_transform <- x
I0924 03:57:22.977705 13512 net.cpp:399] lstm1_x_transform -> W_xc_x
I0924 03:57:22.981981 13480 net.cpp:141] Setting up lstm1_
I0924 03:57:22.982031 13480 net.cpp:148] Top shape: 1 1 500 (500)
I0924 03:57:22.982043 13480 net.cpp:148] Top shape: 1 1 (1)
I0924 03:57:22.982049 13480 net.cpp:156] Memory required for data: 2004
I0924 03:57:22.982094 13466 net.cpp:141] Setting up embedding
I0924 03:57:22.982121 13462 net.cpp:141] Setting up reshape_stage_indicator
I0924 03:57:22.982132 13466 net.cpp:148] Top shape: 1 1 500 (500)
I0924 03:57:22.982138 13462 net.cpp:148] Top shape: 1 1 1 (1)
I0924 03:57:22.982138 13466 net.cpp:156] Memory required for data: 22408
I0924 03:57:22.982159 13462 net.cpp:156] Memory required for data: 20408
I0924 03:57:22.982170 13462 layer_factory.hpp:77] Creating layer embedding
I0924 03:57:22.982179 13466 layer_factory.hpp:77] Creating layer lstm1
I0924 03:57:22.982204 13466 net.cpp:91] Creating Layer lstm1
I0924 03:57:22.982205 13462 net.cpp:91] Creating Layer embedding
…
I0924 03:57:23.031390 13480 net.cpp:399] lstm1_ -> c_0
I0924 03:57:23.031431 13480 net.cpp:399] lstm1_ -> h_0
I0924 03:57:23.031915 13466 net.cpp:49] Initializing net from parameters: 
layer {
  name: "lstm1_"
  type: "Input"
  top: "x"
  top: "cont"
  input_param {
    shape {
      dim: 1
      dim: 1
      dim: 500
    }
    shape {
      dim: 1
      dim: 1
    }
  }
}
layer {
  name: "lstm1_"
  type: "Input"
  top: "c_0"
  top: "h_0"
  input_param {
    shape {
      dim: 1
      dim: 1
      dim: 1000
    }
    shape {
      dim: 1
      dim: 1
      dim: 1000
    }
  }
}
layer {
  name: "lstm1_cont_slice"
  type: "Slice"
  bottom: "cont"
  top: "cont_1"
  slice_param {
    axis: 0
  }
}
layer {
  name: "lstm1_x_transform"
  type: "InnerProduct"
  bottom: "x"
  top: "W_xc_x"
  param {
    name: "W_xc"
  }
  param {
    name: "b_c"
  }
  propagate_down: true
  inner_product_param {
    num_output: 4000
    bias_term: true
    weight_filler {
      type: "uniform"
      min: -0.08
      max: 0.08
    }
    bias_filler {
      type: "constant"
      value: 0
    }
    axis: 2
  }
}
layer {
  name: "lstm1_W_xc_x_slice"
  type: "Slice"
  bottom: "W_xc_x"
  top: "W_xc_x_1"
  slice_param {
    axis: 0
  }
}
layer {
  name: "lstm1_h_conted_0"
  type: "Scale"
  bottom: "h_0"
  bottom: "cont_1"
  top: "h_conted_0"
  scale_param {
    axis: 0
  }
}
layer {
  name: "lstm1_transform_1"
  type: "InnerProduct"
  bottom: "h_conted_0"
  top: "W_hc_h_0"
  param {
    name: "W_hc"
  }
  inner_product_param {
    num_output: 4000
    bias_term: false
    weight_filler {
      type: "uniform"
      min: -0.08
      max: 0.08
    }
    axis: 2
  }
}
layer {
  name: "lstm1_gate_input_1"
  type: "Eltwise"
  bottom: "W_hc_h_0"
  bottom: "W_xc_x_1"
  top: "gate_input_1"
  eltwise_param {
    operation: SUM
  }
}
layer {
  name: "lstm1_unit_1"
  type: "LSTMUnit"
  bottom: "c_0"
  bottom: "gate_input_1"
  bottom: "cont_1"
  top: "c_1"
  top: "h_1"
}
layer {
  name: "lstm1_"
  type: "Split"
  bottom: "c_1"
  top: "c_T"
}
layer {
  name: "lstm1_h_concat"
  type: "Concat"
  bottom: "h_1"
  top: "h"
  concat_param {
    axis: 0
  }
}
layer {
  name: "h_pseudoloss"
  type: "Reduction"
  bottom: "h"
  top: "h_pseudoloss"
  loss_weight: 1
}
I0924 03:57:23.032416 13466 layer_factory.hpp:77] Creating layer lstm1_
I0924 03:57:23.032447 13466 net.cpp:91] Creating Layer lstm1_
I0924 03:57:23.032460 13466 net.cpp:399] lstm1_ -> x
I0924 03:57:23.032490 13466 net.cpp:399] lstm1_ -> cont
I0924 03:57:23.039007 13466 net.cpp:141] Setting up lstm1_
I0924 03:57:23.039055 13466 net.cpp:148] Top shape: 1 1 500 (500)
I0924 03:57:23.039063 13466 net.cpp:148] Top shape: 1 1 (1)
I0924 03:57:23.039067 13466 net.cpp:156] Memory required for data: 2004
I0924 03:57:23.039079 13466 layer_factory.hpp:77] Creating layer lstm1_
I0924 03:57:23.039109 13466 net.cpp:91] Creating Layer lstm1_
I0924 03:57:23.039119 13466 net.cpp:399] lstm1_ -> c_0
I0924 03:57:23.039141 13466 net.cpp:399] lstm1_ -> h_0
I0924 03:57:23.039260 13466 net.cpp:141] Setting up lstm1_
I0924 03:57:23.039275 13466 net.cpp:148] Top shape: 1 1 1000 (1000)
I0924 03:57:23.039281 13466 net.cpp:148] Top shape: 1 1 1000 (1000)
I0924 03:57:23.039285 13466 net.cpp:156] Memory required for data: 10004
I0924 03:57:23.039289 13466 layer_factory.hpp:77] Creating layer lstm1_cont_slice
I0924 03:57:23.039302 13466 net.cpp:91] Creating Layer lstm1_cont_slice
I0924 03:57:23.039309 13466 net.cpp:425] lstm1_cont_slice <- cont
I0924 03:57:23.039312 13468 net.cpp:141] Setting up lstm1_
I0924 03:57:23.039340 13466 net.cpp:399] lstm1_cont_slice -> cont_1
I0924 03:57:23.039351 13468 net.cpp:148] Top shape: 1 1 1000 (1000)
I0924 03:57:23.039360 13468 net.cpp:148] Top shape: 1 1 1000 (1000)
I0924 03:57:23.039363 13468 net.cpp:156] Memory required for data: 10004
I0924 03:57:23.039371 13468 layer_factory.hpp:77] Creating layer lstm1_cont_slice
I0924 03:57:23.039391 13466 net.cpp:141] Setting up lstm1_cont_slice
I0924 03:57:23.039397 13468 net.cpp:91] Creating Layer lstm1_cont_slice
I0924 03:57:23.039405 13468 net.cpp:425] lstm1_cont_slice <- cont
I0924 03:57:23.039405 13466 net.cpp:148] Top shape: 1 1 (1)
I0924 03:57:23.039412 13466 net.cpp:156] Memory required for data: 10008
I0924 03:57:23.039417 13466 layer_factory.hpp:77] Creating layer cont_1_lstm1_cont_slice_0_split
I0924 03:57:23.039417 13468 net.cpp:399] lstm1_cont_slice -> cont_1
I0924 03:57:23.039427 13466 net.cpp:91] Creating Layer cont_1_lstm1_cont_slice_0_split
I0924 03:57:23.039433 13466 net.cpp:425] cont_1_lstm1_cont_slice_0_split <- cont_1
I0924 03:57:23.039440 13466 net.cpp:399] cont_1_lstm1_cont_slice_0_split -> cont_1_lstm1_cont_slice_0_split_0
I0924 03:57:23.039448 13466 net.cpp:399] cont_1_lstm1_cont_slice_0_split -> cont_1_lstm1_cont_slice_0_split_1
I0924 03:57:23.039494 13468 net.cpp:141] Setting up lstm1_cont_slice
I0924 03:57:23.039505 13468 net.cpp:148] Top shape: 1 1 (1)
I0924 03:57:23.039510 13468 net.cpp:156] Memory required for data: 10008
I0924 03:57:23.039515 13468 layer_factory.hpp:77] Creating layer cont_1_lstm1_cont_slice_0_split
I0924 03:57:23.039522 13468 net.cpp:91] Creating Layer cont_1_lstm1_cont_slice_0_split
I0924 03:57:23.039527 13468 net.cpp:425] cont_1_lstm1_cont_slice_0_split <- cont_1
I0924 03:57:23.039537 13468 net.cpp:399] cont_1_lstm1_cont_slice_0_split -> cont_1_lstm1_cont_slice_0_split_0
I0924 03:57:23.039546 13468 net.cpp:399] cont_1_lstm1_cont_slice_0_split -> cont_1_lstm1_cont_slice_0_split_1
I0924 03:57:23.039567 13504 net.cpp:141] Setting up lstm1_x_transform
I0924 03:57:23.039583 13504 net.cpp:148] Top shape: 1 1 4000 (4000)
I0924 03:57:23.039588 13504 net.cpp:156] Memory required for data: 26016
I0924 03:57:23.039604 13504 layer_factory.hpp:77] Creating layer lstm1_W_xc_x_slice
I0924 03:57:23.039615 13504 net.cpp:91] Creating Layer lstm1_W_xc_x_slice
I0924 03:57:23.039623 13504 net.cpp:425] lstm1_W_xc_x_slice <- W_xc_x
I0924 03:57:23.039630 13504 net.cpp:399] lstm1_W_xc_x_slice -> W_xc_x_1
I0924 03:57:23.039713 13512 net.cpp:141] Setting up lstm1_x_transform
I0924 03:57:23.039737 13512 net.cpp:148] Top shape: 1 1 4000 (4000)
I0924 03:57:23.039747 13512 net.cpp:156] Memory required for data: 26016
I0924 03:57:23.039772 13512 layer_factory.hpp:77] Creating layer lstm1_W_xc_x_slice
I0924 03:57:23.039788 13512 net.cpp:91] Creating Layer lstm1_W_xc_x_slice
I0924 03:57:23.039789 13466 net.cpp:141] Setting up cont_1_lstm1_cont_slice_0_split
I0924 03:57:23.039798 13512 net.cpp:425] lstm1_W_xc_x_slice <- W_xc_x
I0924 03:57:23.039804 13466 net.cpp:148] Top shape: 1 1 (1)
I0924 03:57:23.039811 13466 net.cpp:148] Top shape: 1 1 (1)
I0924 03:57:23.039818 13466 net.cpp:156] Memory required for data: 10016
I0924 03:57:23.039819 13512 net.cpp:399] lstm1_W_xc_x_slice -> W_xc_x_1
I0924 03:57:23.039822 13466 layer_factory.hpp:77] Creating layer lstm1_x_transform
I0924 03:57:23.039851 13468 net.cpp:141] Setting up cont_1_lstm1_cont_slice_0_split
I0924 03:57:23.039862 13468 net.cpp:148] Top shape: 1 1 (1)
I0924 03:57:23.039868 13468 net.cpp:148] Top shape: 1 1 (1)
I0924 03:57:23.039872 13468 net.cpp:156] Memory required for data: 10016
I0924 03:57:23.039872 13466 net.cpp:91] Creating Layer lstm1_x_transform
I0924 03:57:23.039880 13468 layer_factory.hpp:77] Creating layer lstm1_x_transform
I0924 03:57:23.039883 13466 net.cpp:425] lstm1_x_transform <- x
I0924 03:57:23.039894 13466 net.cpp:399] lstm1_x_transform -> W_xc_x
I0924 03:57:23.039898 13512 net.cpp:141] Setting up lstm1_W_xc_x_slice
I0924 03:57:23.039899 13468 net.cpp:91] Creating Layer lstm1_x_transform
I0924 03:57:23.039927 13512 net.cpp:148] Top shape: 1 1 4000 (4000)
I0924 03:57:23.039928 13468 net.cpp:425] lstm1_x_transform <- x
I0924 03:57:23.039942 13512 net.cpp:156] Memory required for data: 42016
I0924 03:57:23.039952 13512 layer_factory.hpp:77] Creating layer lstm1_h_conted_0
I0924 03:57:23.039955 13468 net.cpp:399] lstm1_x_transform -> W_xc_x
I0924 03:57:23.039980 13512 net.cpp:91] Creating Layer lstm1_h_conted_0
I0924 03:57:23.039990 13512 net.cpp:425] lstm1_h_conted_0 <- h_0
I0924 03:57:23.040002 13512 net.cpp:425] lstm1_h_conted_0 <- cont_1_lstm1_cont_slice_0_split_0
I0924 03:57:23.040010 13504 net.cpp:141] Setting up lstm1_W_xc_x_slice
I0924 03:57:23.040016 13512 net.cpp:399] lstm1_h_conted_0 -> h_conted_0
I0924 03:57:23.040030 13504 net.cpp:148] Top shape: 1 1 4000 (4000)
I0924 03:57:23.040040 13504 net.cpp:156] Memory required for data: 42016
I0924 03:57:23.040047 13504 layer_factory.hpp:77] Creating layer lstm1_h_conted_0
I0924 03:57:23.040063 13504 net.cpp:91] Creating Layer lstm1_h_conted_0
I0924 03:57:23.040069 13504 net.cpp:425] lstm1_h_conted_0 <- h_0
I0924 03:57:23.040076 13504 net.cpp:425] lstm1_h_conted_0 <- cont_1_lstm1_cont_slice_0_split_0
I0924 03:57:23.040084 13504 net.cpp:399] lstm1_h_conted_0 -> h_conted_0
I0924 03:57:23.040170 13480 net.cpp:141] Setting up lstm1_
I0924 03:57:23.040190 13480 net.cpp:148] Top shape: 1 1 1000 (1000)
I0924 03:57:23.040201 13480 net.cpp:148] Top shape: 1 1 1000 (1000)
I0924 03:57:23.040208 13480 net.cpp:156] Memory required for data: 10004
I0924 03:57:23.040215 13480 layer_factory.hpp:77] Creating layer lstm1_cont_slice
I0924 03:57:23.040227 13480 net.cpp:91] Creating Layer lstm1_cont_slice
I0924 03:57:23.040233 13480 net.cpp:425] lstm1_cont_slice <- cont
I0924 03:57:23.040241 13480 net.cpp:399] lstm1_cont_slice -> cont_1
I0924 03:57:23.040261 13472 net.cpp:141] Setting up lstm1_x_transform
I0924 03:57:23.040284 13472 net.cpp:148] Top shape: 1 1 4000 (4000)
I0924 03:57:23.040294 13472 net.cpp:156] Memory required for data: 26016
I0924 03:57:23.040314 13472 layer_factory.hpp:77] Creating layer lstm1_W_xc_x_slice
I0924 03:57:23.040330 13472 net.cpp:91] Creating Layer lstm1_W_xc_x_slice
I0924 03:57:23.040341 13472 net.cpp:425] lstm1_W_xc_x_slice <- W_xc_x
I0924 03:57:23.040355 13472 net.cpp:399] lstm1_W_xc_x_slice -> W_xc_x_1
I0924 03:57:23.044486 13517 net.cpp:141] Setting up embedding
I0924 03:57:23.044533 13517 net.cpp:148] Top shape: 1 1 500 (500)
I0924 03:57:23.044539 13517 net.cpp:156] Memory required for data: 22408
I0924 03:57:23.044558 13517 layer_factory.hpp:77] Creating layer lstm1
I0924 03:57:23.044579 13517 net.cpp:91] Creating Layer lstm1
I0924 03:57:23.044589 13517 net.cpp:425] lstm1 <- embedded_input_frames
I0924 03:57:23.044597 13517 net.cpp:425] lstm1 <- cont_sentence_input_1_split_0
I0924 03:57:23.044608 13517 net.cpp:399] lstm1 -> lstm1
I0924 03:57:23.044626 13517 recurrent_layer.cpp:20] Initializing recurrent layer: assuming input batch contains 1 timesteps of 1 independent streams.
I0924 03:57:23.044790 13480 net.cpp:141] Setting up lstm1_cont_slice
I0924 03:57:23.044803 13480 net.cpp:148] Top shape: 1 1 (1)
I0924 03:57:23.044809 13480 net.cpp:156] Memory required for data: 10008
I0924 03:57:23.044814 13480 layer_factory.hpp:77] Creating layer cont_1_lstm1_cont_slice_0_split
I0924 03:57:23.044824 13480 net.cpp:91] Creating Layer cont_1_lstm1_cont_slice_0_split
I0924 03:57:23.044831 13480 net.cpp:425] cont_1_lstm1_cont_slice_0_split <- cont_1
I0924 03:57:23.044841 13480 net.cpp:399] cont_1_lstm1_cont_slice_0_split -> cont_1_lstm1_cont_slice_0_split_0
I0924 03:57:23.044849 13480 net.cpp:399] cont_1_lstm1_cont_slice_0_split -> cont_1_lstm1_cont_slice_0_split_1
I0924 03:57:23.044903 13480 net.cpp:141] Setting up cont_1_lstm1_cont_slice_0_split
I0924 03:57:23.044914 13480 net.cpp:148] Top shape: 1 1 (1)
I0924 03:57:23.044919 13480 net.cpp:148] Top shape: 1 1 (1)
I0924 03:57:23.044915 13517 net.cpp:49] Initializing net from parameters: 
layer {
  name: "lstm1_"
  type: "Input"
  top: "x"
  top: "cont"
  input_param {
    shape {
      dim: 1
      dim: 1
      dim: 500
    }
    shape {
      dim: 1
      dim: 1
    }
  }
}
layer {
  name: "lstm1_"
  type: "Input"
  top: "c_0"
  top: "h_0"
  input_param {
    shape {
      dim: 1
      dim: 1
      dim: 1000
    }
    shape {
      dim: 1
      dim: 1
      dim: 1000
    }
  }
}
layer {
  name: "lstm1_cont_slice"
  type: "Slice"
  bottom: "cont"
  top: "cont_1"
  slice_param {
    axis: 0
  }
}
layer {
  name: "lstm1_x_transform"
  type: "InnerProduct"
  bottom: "x"
  top: "W_xc_x"
  param {
    name: "W_xc"
  }
  param {
    name: "b_c"
  }
  propagate_down: true
  inner_product_param {
    num_output: 4000
    bias_term: true
    weight_filler {
      type: "uniform"
      min: -0.08
      max: 0.08
    }
    bias_filler {
      type: "constant"
      value: 0
    }
    axis: 2
  }
}
layer {
  name: "lstm1_W_xc_x_slice"
  type: "Slice"
  bottom: "W_xc_x"
  top: "W_xc_x_1"
  slice_param {
    axis: 0
  }
}
layer {
  name: "lstm1_h_conted_0"
  type: "Scale"
  bottom: "h_0"
  bottom: "cont_1"
  top: "h_conted_0"
  scale_param {
    axis: 0
  }
}
layer {
  name: "lstm1_transform_1"
  type: "InnerProduct"
  bottom: "h_conted_0"
  top: "W_hc_h_0"
  param {
    name: "W_hc"
  }
  inner_product_param {
    num_output: 4000
    bias_term: false
    weight_filler {
      type: "uniform"
      min: -0.08
      max: 0.08
    }
    axis: 2
  }
}
layer {
  name: "lstm1_gate_input_1"
  type: "Eltwise"
  bottom: "W_hc_h_0"
  bottom: "W_xc_x_1"
  top: "gate_input_1"
  eltwise_param {
    operation: SUM
  }
}
layer {
  name: "lstm1_unit_1"
  type: "LSTMUnit"
  bottom: "c_0"
  bottom: "gate_input_1"
  bottom: "cont_1"
  top: "c_1"
  top: "h_1"
}
layer {
  name: "lstm1_"
  type: "Split"
  bottom: "c_1"
  top: "c_T"
}
layer {
  name: "lstm1_h_concat"
  type: "Concat"
  bottom: "h_1"
  top: "h"
  concat_param {
    axis: 0
  }
}
layer {
  name: "h_pseudoloss"
  type: "Reduction"
  bottom: "h"
  top: "h_pseudoloss"
  loss_weight: 1
}
I0924 03:57:23.044924 13480 net.cpp:156] Memory required for data: 10016
I0924 03:57:23.044946 13480 layer_factory.hpp:77] Creating layer lstm1_x_transform
I0924 03:57:23.044960 13480 net.cpp:91] Creating Layer lstm1_x_transform
I0924 03:57:23.044965 13480 net.cpp:425] lstm1_x_transform <- x
I0924 03:57:23.044976 13480 net.cpp:399] lstm1_x_transform -> W_xc_x
I0924 03:57:23.045017 13517 layer_factory.hpp:77] Creating layer lstm1_
I0924 03:57:23.045029 13517 net.cpp:91] Creating Layer lstm1_
I0924 03:57:23.045035 13517 net.cpp:399] lstm1_ -> x
I0924 03:57:23.045047 13517 net.cpp:399] lstm1_ -> cont
I0924 03:57:23.055161 13504 net.cpp:141] Setting up lstm1_h_conted_0
I0924 03:57:23.055214 13504 net.cpp:148] Top shape: 1 1 1000 (1000)
I0924 03:57:23.055223 13504 net.cpp:156] Memory required for data: 46016
I0924 03:57:23.055236 13504 layer_factory.hpp:77] Creating layer lstm1_transform_1
I0924 03:57:23.055269 13504 net.cpp:91] Creating Layer lstm1_transform_1
I0924 03:57:23.055281 13504 net.cpp:425] lstm1_transform_1 <- h_conted_0
I0924 03:57:23.055299 13504 net.cpp:399] lstm1_transform_1 -> W_hc_h_0
I0924 03:57:23.055349 13472 net.cpp:141] Setting up lstm1_W_xc_x_slice
I0924 03:57:23.055375 13472 net.cpp:148] Top shape: 1 1 4000 (4000)
I0924 03:57:23.055387 13472 net.cpp:156] Memory required for data: 42016
I0924 03:57:23.055397 13472 layer_factory.hpp:77] Creating layer lstm1_h_conted_0
I0924 03:57:23.055415 13472 net.cpp:91] Creating Layer lstm1_h_conted_0
I0924 03:57:23.055426 13472 net.cpp:425] lstm1_h_conted_0 <- h_0
I0924 03:57:23.055438 13472 net.cpp:425] lstm1_h_conted_0 <- cont_1_lstm1_cont_slice_0_split_0
I0924 03:57:23.055450 13472 net.cpp:399] lstm1_h_conted_0 -> h_conted_0
I0924 03:57:23.065069 13512 net.cpp:141] Setting up lstm1_h_conted_0
I0924 03:57:23.065122 13512 net.cpp:148] Top shape: 1 1 1000 (1000)
I0924 03:57:23.065129 13512 net.cpp:156] Memory required for data: 46016
I0924 03:57:23.065140 13512 layer_factory.hpp:77] Creating layer lstm1_transform_1
I0924 03:57:23.065150 13517 net.cpp:141] Setting up lstm1_
I0924 03:57:23.065163 13512 net.cpp:91] Creating Layer lstm1_transform_1
I0924 03:57:23.065173 13517 net.cpp:148] Top shape: 1 1 500 (500)
I0924 03:57:23.065193 13517 net.cpp:148] Top shape: 1 1 (1)
I0924 03:57:23.065201 13517 net.cpp:156] Memory required for data: 2004
I0924 03:57:23.065210 13517 layer_factory.hpp:77] Creating layer lstm1_
I0924 03:57:23.065235 13517 net.cpp:91] Creating Layer lstm1_
I0924 03:57:23.065250 13517 net.cpp:399] lstm1_ -> c_0
I0924 03:57:23.065274 13517 net.cpp:399] lstm1_ -> h_0
I0924 03:57:23.065173 13512 net.cpp:425] lstm1_transform_1 <- h_conted_0
I0924 03:57:23.065326 13512 net.cpp:399] lstm1_transform_1 -> W_hc_h_0
I0924 03:57:23.065382 13517 net.cpp:141] Setting up lstm1_
I0924 03:57:23.065397 13517 net.cpp:148] Top shape: 1 1 1000 (1000)
I0924 03:57:23.065407 13517 net.cpp:148] Top shape: 1 1 1000 (1000)
I0924 03:57:23.065414 13517 net.cpp:156] Memory required for data: 10004
I0924 03:57:23.065421 13517 layer_factory.hpp:77] Creating layer lstm1_cont_slice
I0924 03:57:23.065438 13517 net.cpp:91] Creating Layer lstm1_cont_slice
I0924 03:57:23.065445 13517 net.cpp:425] lstm1_cont_slice <- cont
I0924 03:57:23.065459 13517 net.cpp:399] lstm1_cont_slice -> cont_1
I0924 03:57:23.065449 13472 net.cpp:141] Setting up lstm1_h_conted_0
I0924 03:57:23.065491 13472 net.cpp:148] Top shape: 1 1 1000 (1000)
I0924 03:57:23.065500 13472 net.cpp:156] Memory required for data: 46016
I0924 03:57:23.065510 13472 layer_factory.hpp:77] Creating layer lstm1_transform_1
I0924 03:57:23.065531 13472 net.cpp:91] Creating Layer lstm1_transform_1
I0924 03:57:23.065541 13472 net.cpp:425] lstm1_transform_1 <- h_conted_0
I0924 03:57:23.065557 13472 net.cpp:399] lstm1_transform_1 -> W_hc_h_0
I0924 03:57:23.086633 13517 net.cpp:141] Setting up lstm1_cont_slice
I0924 03:57:23.086694 13517 net.cpp:148] Top shape: 1 1 (1)
I0924 03:57:23.086704 13517 net.cpp:156] Memory required for data: 10008
I0924 03:57:23.086715 13517 layer_factory.hpp:77] Creating layer cont_1_lstm1_cont_slice_0_split
I0924 03:57:23.086736 13517 net.cpp:91] Creating Layer cont_1_lstm1_cont_slice_0_split
I0924 03:57:23.086748 13517 net.cpp:425] cont_1_lstm1_cont_slice_0_split <- cont_1
I0924 03:57:23.086768 13517 net.cpp:399] cont_1_lstm1_cont_slice_0_split -> cont_1_lstm1_cont_slice_0_split_0
I0924 03:57:23.086788 13517 net.cpp:399] cont_1_lstm1_cont_slice_0_split -> cont_1_lstm1_cont_slice_0_split_1
I0924 03:57:23.097650 13480 net.cpp:141] Setting up lstm1_x_transform
I0924 03:57:23.098065 13480 net.cpp:148] Top shape: 1 1 4000 (4000)
I0924 03:57:23.098248 13480 net.cpp:156] Memory required for data: 26016
I0924 03:57:23.098439 13480 layer_factory.hpp:77] Creating layer lstm1_W_xc_x_slice
I0924 03:57:23.098613 13480 net.cpp:91] Creating Layer lstm1_W_xc_x_slice
I0924 03:57:23.098760 13480 net.cpp:425] lstm1_W_xc_x_slice <- W_xc_x
I0924 03:57:23.098901 13480 net.cpp:399] lstm1_W_xc_x_slice -> W_xc_x_1
I0924 03:57:23.099099 13480 net.cpp:141] Setting up lstm1_W_xc_x_slice
I0924 03:57:23.099295 13480 net.cpp:148] Top shape: 1 1 4000 (4000)
I0924 03:57:23.099427 13480 net.cpp:156] Memory required for data: 42016
I0924 03:57:23.099551 13480 layer_factory.hpp:77] Creating layer lstm1_h_conted_0
I0924 03:57:23.099575 13480 net.cpp:91] Creating Layer lstm1_h_conted_0
I0924 03:57:23.099583 13480 net.cpp:425] lstm1_h_conted_0 <- h_0
I0924 03:57:23.099593 13480 net.cpp:425] lstm1_h_conted_0 <- cont_1_lstm1_cont_slice_0_split_0
I0924 03:57:23.099604 13480 net.cpp:399] lstm1_h_conted_0 -> h_conted_0
I0924 03:57:23.099750 13480 net.cpp:141] Setting up lstm1_h_conted_0
I0924 03:57:23.099766 13480 net.cpp:148] Top shape: 1 1 1000 (1000)
I0924 03:57:23.099772 13480 net.cpp:156] Memory required for data: 46016
I0924 03:57:23.099781 13480 layer_factory.hpp:77] Creating layer lstm1_transform_1
I0924 03:57:23.099797 13480 net.cpp:91] Creating Layer lstm1_transform_1
I0924 03:57:23.099804 13480 net.cpp:425] lstm1_transform_1 <- h_conted_0
I0924 03:57:23.099819 13480 net.cpp:399] lstm1_transform_1 -> W_hc_h_0
I0924 03:57:23.109679 13517 net.cpp:141] Setting up cont_1_lstm1_cont_slice_0_split
I0924 03:57:23.109731 13517 net.cpp:148] Top shape: 1 1 (1)
I0924 03:57:23.109743 13517 net.cpp:148] Top shape: 1 1 (1)
I0924 03:57:23.109751 13517 net.cpp:156] Memory required for data: 10016
I0924 03:57:23.109763 13517 layer_factory.hpp:77] Creating layer lstm1_x_transform
I0924 03:57:23.109773 13486 net.cpp:141] Setting up embedding
I0924 03:57:23.109798 13517 net.cpp:91] Creating Layer lstm1_x_transform
I0924 03:57:23.109809 13517 net.cpp:425] lstm1_x_transform <- x
I0924 03:57:23.109813 13486 net.cpp:148] Top shape: 1 1 500 (500)
I0924 03:57:23.109823 13486 net.cpp:156] Memory required for data: 22408
I0924 03:57:23.109832 13517 net.cpp:399] lstm1_x_transform -> W_xc_x
I0924 03:57:23.109848 13486 layer_factory.hpp:77] Creating layer lstm1
I0924 03:57:23.109874 13486 net.cpp:91] Creating Layer lstm1
I0924 03:57:23.109884 13486 net.cpp:425] lstm1 <- embedded_input_frames
I0924 03:57:23.109895 13486 net.cpp:425] lstm1 <- cont_sentence_input_1_split_0
I0924 03:57:23.109908 13486 net.cpp:399] lstm1 -> lstm1
I0924 03:57:23.109938 13466 net.cpp:141] Setting up lstm1_x_transform
I0924 03:57:23.109959 13466 net.cpp:148] Top shape: 1 1 4000 (4000)
I0924 03:57:23.109967 13466 net.cpp:156] Memory required for data: 26016
I0924 03:57:23.109980 13486 recurrent_layer.cpp:20] Initializing recurrent layer: assuming input batch contains 1 timesteps of 1 independent streams.
I0924 03:57:23.110055 13504 net.cpp:141] Setting up lstm1_transform_1
I0924 03:57:23.110070 13504 net.cpp:148] Top shape: 1 1 4000 (4000)
I0924 03:57:23.110077 13504 net.cpp:156] Memory required for data: 62016
I0924 03:57:23.110093 13504 layer_factory.hpp:77] Creating layer lstm1_gate_input_1
I0924 03:57:23.110115 13504 net.cpp:91] Creating Layer lstm1_gate_input_1
I0924 03:57:23.110124 13504 net.cpp:425] lstm1_gate_input_1 <- W_hc_h_0
I0924 03:57:23.110134 13504 net.cpp:425] lstm1_gate_input_1 <- W_xc_x_1
I0924 03:57:23.110146 13504 net.cpp:399] lstm1_gate_input_1 -> gate_input_1
I0924 03:57:23.109985 13466 layer_factory.hpp:77] Creating layer lstm1_W_xc_x_slice
I0924 03:57:23.110191 13466 net.cpp:91] Creating Layer lstm1_W_xc_x_slice
I0924 03:57:23.110200 13466 net.cpp:425] lstm1_W_xc_x_slice <- W_xc_x
I0924 03:57:23.110218 13466 net.cpp:399] lstm1_W_xc_x_slice -> W_xc_x_1
I0924 03:57:23.110534 13486 net.cpp:49] Initializing net from parameters: 
layer {
  name: "lstm1_"
  type: "Input"
  top: "x"
  top: "cont"
  input_param {
    shape {
      dim: 1
      dim: 1
      dim: 500
    }
    shape {
      dim: 1
      dim: 1
    }
  }
}
layer {
  name: "lstm1_"
  type: "Input"
  top: "c_0"
  top: "h_0"
  input_param {
    shape {
      dim: 1
      dim: 1
      dim: 1000
    }
    shape {
      dim: 1
      dim: 1
      dim: 1000
    }
  }
}
layer {
  name: "lstm1_cont_slice"
  type: "Slice"
  bottom: "cont"
  top: "cont_1"
  slice_param {
    axis: 0
  }
}
layer {
  name: "lstm1_x_transform"
  type: "InnerProduct"
  bottom: "x"
  top: "W_xc_x"
  param {
    name: "W_xc"
  }
  param {
    name: "b_c"
  }
  propagate_down: true
  inner_product_param {
    num_output: 4000
    bias_term: true
    weight_filler {
      type: "uniform"
      min: -0.08
      max: 0.08
    }
    bias_filler {
      type: "constant"
      value: 0
    }
    axis: 2
  }
}
layer {
  name: "lstm1_W_xc_x_slice"
  type: "Slice"
  bottom: "W_xc_x"
  top: "W_xc_x_1"
  slice_param {
    axis: 0
  }
}
layer {
  name: "lstm1_h_conted_0"
  type: "Scale"
  bottom: "h_0"
  bottom: "cont_1"
  top: "h_conted_0"
  scale_param {
    axis: 0
  }
}
layer {
  name: "lstm1_transform_1"
  type: "InnerProduct"
  bottom: "h_conted_0"
  top: "W_hc_h_0"
  param {
    name: "W_hc"
  }
  inner_product_param {
    num_output: 4000
    bias_term: false
    weight_filler {
      type: "uniform"
      min: -0.08
      max: 0.08
    }
    axis: 2
  }
}
layer {
  name: "lstm1_gate_input_1"
  type: "Eltwise"
  bottom: "W_hc_h_0"
  bottom: "W_xc_x_1"
  top: "gate_input_1"
  eltwise_param {
    operation: SUM
  }
}
layer {
  name: "lstm1_unit_1"
  type: "LSTMUnit"
  bottom: "c_0"
  bottom: "gate_input_1"
  bottom: "cont_1"
  top: "c_1"
  top: "h_1"
}
layer {
  name: "lstm1_"
  type: "Split"
  bottom: "c_1"
  top: "c_T"
}
layer {
  name: "lstm1_h_concat"
  type: "Concat"
  bottom: "h_1"
  top: "h"
  concat_param {
    axis: 0
  }
}
layer {
  name: "h_pseudoloss"
  type: "Reduction"
  bottom: "h"
  top: "h_pseudoloss"
  loss_weight: 1
}
I0924 03:57:23.110693 13486 layer_factory.hpp:77] Creating layer lstm1_
I0924 03:57:23.110713 13486 net.cpp:91] Creating Layer lstm1_
I0924 03:57:23.110723 13486 net.cpp:399] lstm1_ -> x
I0924 03:57:23.110739 13486 net.cpp:399] lstm1_ -> cont
I0924 03:57:23.115543 13504 net.cpp:141] Setting up lstm1_gate_input_1
I0924 03:57:23.115583 13504 net.cpp:148] Top shape: 1 1 4000 (4000)
I0924 03:57:23.115592 13504 net.cpp:156] Memory required for data: 78016
I0924 03:57:23.115602 13504 layer_factory.hpp:77] Creating layer lstm1_unit_1
I0924 03:57:23.115624 13504 net.cpp:91] Creating Layer lstm1_unit_1
I0924 03:57:23.115634 13504 net.cpp:425] lstm1_unit_1 <- c_0
I0924 03:57:23.115648 13504 net.cpp:425] lstm1_unit_1 <- gate_input_1
I0924 03:57:23.115655 13504 net.cpp:425] lstm1_unit_1 <- cont_1_lstm1_cont_slice_0_split_1
I0924 03:57:23.115667 13504 net.cpp:399] lstm1_unit_1 -> c_1
I0924 03:57:23.115684 13504 net.cpp:399] lstm1_unit_1 -> h_1
I0924 03:57:23.115795 13504 net.cpp:141] Setting up lstm1_unit_1
I0924 03:57:23.115809 13504 net.cpp:148] Top shape: 1 1 1000 (1000)
I0924 03:57:23.115818 13504 net.cpp:148] Top shape: 1 1 1000 (1000)
I0924 03:57:23.115825 13504 net.cpp:156] Memory required for data: 86016
I0924 03:57:23.115833 13504 layer_factory.hpp:77] Creating layer lstm1_
I0924 03:57:23.115849 13504 net.cpp:91] Creating Layer lstm1_
I0924 03:57:23.115857 13504 net.cpp:425] lstm1_ <- c_1
I0924 03:57:23.115867 13504 net.cpp:399] lstm1_ -> c_T
I0924 03:57:23.115911 13504 net.cpp:141] Setting up lstm1_
I0924 03:57:23.115923 13504 net.cpp:148] Top shape: 1 1 1000 (1000)
I0924 03:57:23.115931 13504 net.cpp:156] Memory required for data: 90016
I0924 03:57:23.115937 13504 layer_factory.hpp:77] Creating layer lstm1_h_concat
I0924 03:57:23.115952 13504 net.cpp:91] Creating Layer lstm1_h_concat
I0924 03:57:23.115958 13504 net.cpp:425] lstm1_h_concat <- h_1
I0924 03:57:23.115974 13504 net.cpp:399] lstm1_h_concat -> h
I0924 03:57:23.116026 13504 net.cpp:141] Setting up lstm1_h_concat
I0924 03:57:23.116039 13504 net.cpp:148] Top shape: 1 1 1000 (1000)
I0924 03:57:23.116045 13504 net.cpp:156] Memory required for data: 94016
I0924 03:57:23.116052 13504 layer_factory.hpp:77] Creating layer h_pseudoloss
I0924 03:57:23.116071 13504 net.cpp:91] Creating Layer h_pseudoloss
I0924 03:57:23.116078 13504 net.cpp:425] h_pseudoloss <- h
I0924 03:57:23.116088 13504 net.cpp:399] h_pseudoloss -> h_pseudoloss
I0924 03:57:23.116220 13504 net.cpp:141] Setting up h_pseudoloss
…
I0924 03:57:23.116397 13504 net.cpp:219] lstm1_ does not need backward computation.
I0924 03:57:23.116403 13504 net.cpp:261] This network produces output c_T
I0924 03:57:23.116411 13504 net.cpp:261] This network produces output h_pseudoloss
I0924 03:57:23.116436 13504 net.cpp:274] Network initialization done.
I0924 03:57:23.116518 13504 recurrent_layer.cpp:150] Adding parameter 0: W_xc
I0924 03:57:23.116528 13504 recurrent_layer.cpp:150] Adding parameter 1: b_c
I0924 03:57:23.116534 13504 recurrent_layer.cpp:150] Adding parameter 2: W_hc
I0924 03:57:23.116680 13504 net.cpp:141] Setting up lstm1
I0924 03:57:23.116698 13504 net.cpp:148] Top shape: 1 1 1000 (1000)
I0924 03:57:23.116703 13504 net.cpp:156] Memory required for data: 26408
I0924 03:57:23.116724 13504 layer_factory.hpp:77] Creating layer concat
I0924 03:57:23.116737 13504 net.cpp:91] Creating Layer concat
I0924 03:57:23.116746 13504 net.cpp:425] concat <- lstm1
I0924 03:57:23.116756 13504 net.cpp:425] concat <- embedded_input_sentence
I0924 03:57:23.116765 13504 net.cpp:425] concat <- reshaped_stage_indicator
I0924 03:57:23.116775 13504 net.cpp:399] concat -> lstm1_video_sequence
I0924 03:57:23.116819 13504 net.cpp:141] Setting up concat
I0924 03:57:23.116832 13504 net.cpp:148] Top shape: 1 1 1501 (1501)
I0924 03:57:23.116838 13504 net.cpp:156] Memory required for data: 32412
I0924 03:57:23.116845 13504 layer_factory.hpp:77] Creating layer lstm2
I0924 03:57:23.116864 13504 net.cpp:91] Creating Layer lstm2
I0924 03:57:23.116871 13504 net.cpp:425] lstm2 <- lstm1_video_sequence
I0924 03:57:23.116880 13504 net.cpp:425] lstm2 <- cont_sentence_input_1_split_1
I0924 03:57:23.116891 13504 net.cpp:399] lstm2 -> lstm2
I0924 03:57:23.116905 13504 recurrent_layer.cpp:20] Initializing recurrent layer: assuming input batch contains 1 timesteps of 1 independent streams.
I0924 03:57:23.117269 13504 net.cpp:49] Initializing net from parameters: 
layer {
  name: "lstm2_"
  type: "Input"
  top: "x"
  top: "cont"
  input_param {
    shape {
      dim: 1
      dim: 1
      dim: 1501
    }
    shape {
      dim: 1
      dim: 1
    }
  }
}
layer {
  name: "lstm2_"
  type: "Input"
  top: "c_0"
  top: "h_0"
  input_param {
    shape {
      dim: 1
      dim: 1
      dim: 1000
    }
    shape {
      dim: 1
      dim: 1
      dim: 1000
    }
  }
}
layer {
  name: "lstm2_cont_slice"
  type: "Slice"
  bottom: "cont"
  top: "cont_1"
  slice_param {
    axis: 0
  }
}
layer {
  name: "lstm2_x_transform"
  type: "InnerProduct"
  bottom: "x"
  top: "W_xc_x"
  param {
    name: "W_xc"
  }
  param {
    name: "b_c"
  }
  propagate_down: true
  inner_product_param {
    num_output: 4000
    bias_term: true
    weight_filler {
      type: "uniform"
      min: -0.08
      max: 0.08
    }
    bias_filler {
      type: "constant"
      value: 0
    }
    axis: 2
  }
}
layer {
  name: "lstm2_W_xc_x_slice"
  type: "Slice"
  bottom: "W_xc_x"
  top: "W_xc_x_1"
  slice_param {
    axis: 0
  }
}
layer {
  name: "lstm2_h_conted_0"
  type: "Scale"
  bottom: "h_0"
  bottom: "cont_1"
  top: "h_conted_0"
  scale_param {
    axis: 0
  }
}
layer {
  name: "lstm2_transform_1"
  type: "InnerProduct"
  bottom: "h_conted_0"
  top: "W_hc_h_0"
  param {
    name: "W_hc"
  }
  inner_product_param {
    num_output: 4000
    bias_term: false
    weight_filler {
      type: "uniform"
      min: -0.08
      max: 0.08
    }
    axis: 2
  }
}
layer {
  name: "lstm2_gate_input_1"
  type: "Eltwise"
  bottom: "W_hc_h_0"
  bottom: "W_xc_x_1"
  top: "gate_input_1"
  eltwise_param {
    operation: SUM
  }
}
layer {
  name: "lstm2_unit_1"
  type: "LSTMUnit"
  bottom: "c_0"
  bottom: "gate_input_1"
  bottom: "cont_1"
  top: "c_1"
  top: "h_1"
}
layer {
  name: "lstm2_"
  type: "Split"
  bottom: "c_1"
  top: "c_T"
}
layer {
  name: "lstm2_h_concat"
  type: "Concat"
  bottom: "h_1"
  top: "h"
  concat_param {
    axis: 0
  }
}
layer {
  name: "h_pseudoloss"
  type: "Reduction"
  bottom: "h"
  top: "h_pseudoloss"
  loss_weight: 1
}
I0924 03:57:23.117393 13504 layer_factory.hpp:77] Creating layer lstm2_
I0924 03:57:23.117408 13504 net.cpp:91] Creating Layer lstm2_
I0924 03:57:23.117419 13504 net.cpp:399] lstm2_ -> x
I0924 03:57:23.117434 13504 net.cpp:399] lstm2_ -> cont
I0924 03:57:23.117511 13504 net.cpp:141] Setting up lstm2_
I0924 03:57:23.117527 13504 net.cpp:148] Top shape: 1 1 1501 (1501)
I0924 03:57:23.117535 13504 net.cpp:148] Top shape: 1 1 (1)
I0924 03:57:23.117542 13504 net.cpp:156] Memory required for data: 6008
I0924 03:57:23.117549 13504 layer_factory.hpp:77] Creating layer lstm2_
I0924 03:57:23.117561 13504 net.cpp:91] Creating Layer lstm2_
I0924 03:57:23.117574 13504 net.cpp:399] lstm2_ -> c_0
I0924 03:57:23.117589 13504 net.cpp:399] lstm2_ -> h_0
I0924 03:57:23.117666 13504 net.cpp:141] Setting up lstm2_
I0924 03:57:23.117681 13504 net.cpp:148] Top shape: 1 1 1000 (1000)
I0924 03:57:23.117691 13504 net.cpp:148] Top shape: 1 1 1000 (1000)
I0924 03:57:23.117697 13504 net.cpp:156] Memory required for data: 14008
I0924 03:57:23.117703 13504 layer_factory.hpp:77] Creating layer lstm2_cont_slice
I0924 03:57:23.117715 13504 net.cpp:91] Creating Layer lstm2_cont_slice
I0924 03:57:23.117722 13504 net.cpp:425] lstm2_cont_slice <- cont
I0924 03:57:23.117733 13504 net.cpp:399] lstm2_cont_slice -> cont_1
I0924 03:57:23.117782 13504 net.cpp:141] Setting up lstm2_cont_slice
I0924 03:57:23.117799 13504 net.cpp:148] Top shape: 1 1 (1)
I0924 03:57:23.117805 13504 net.cpp:156] Memory required for data: 14012
I0924 03:57:23.117812 13504 layer_factory.hpp:77] Creating layer cont_1_lstm2_cont_slice_0_split
I0924 03:57:23.117822 13504 net.cpp:91] Creating Layer cont_1_lstm2_cont_slice_0_split
I0924 03:57:23.117830 13504 net.cpp:425] cont_1_lstm2_cont_slice_0_split <- cont_1
I0924 03:57:23.117840 13504 net.cpp:399] cont_1_lstm2_cont_slice_0_split -> cont_1_lstm2_cont_slice_0_split_0
I0924 03:57:23.117851 13504 net.cpp:399] cont_1_lstm2_cont_slice_0_split -> cont_1_lstm2_cont_slice_0_split_1
I0924 03:57:23.117918 13504 net.cpp:141] Setting up cont_1_lstm2_cont_slice_0_split
I0924 03:57:23.117931 13504 net.cpp:148] Top shape: 1 1 (1)
I0924 03:57:23.117940 13504 net.cpp:148] Top shape: 1 1 (1)
I0924 03:57:23.117947 13504 net.cpp:156] Memory required for data: 14020
I0924 03:57:23.117954 13504 layer_factory.hpp:77] Creating layer lstm2_x_transform
I0924 03:57:23.117972 13504 net.cpp:91] Creating Layer lstm2_x_transform
I0924 03:57:23.117981 13504 net.cpp:425] lstm2_x_transform <- x
I0924 03:57:23.117993 13504 net.cpp:399] lstm2_x_transform -> W_xc_x
I0924 03:57:23.136777 13486 net.cpp:141] Setting up lstm1_
I0924 03:57:23.136811 13468 net.cpp:141] Setting up lstm1_x_transform
I0924 03:57:23.136831 13486 net.cpp:148] Top shape: 1 1 500 (500)
I0924 03:57:23.136833 13468 net.cpp:148] Top shape: 1 1 4000 (4000)
I0924 03:57:23.136839 13486 net.cpp:148] Top shape: 1 1 (1)
I0924 03:57:23.136840 13466 net.cpp:141] Setting up lstm1_W_xc_x_slice
I0924 03:57:23.136842 13468 net.cpp:156] Memory required for data: 26016
I0924 03:57:23.136859 13466 net.cpp:148] Top shape: 1 1 4000 (4000)
I0924 03:57:23.136844 13486 net.cpp:156] Memory required for data: 2004
I0924 03:57:23.136870 13466 net.cpp:156] Memory required for data: 42016
I0924 03:57:23.136879 13486 layer_factory.hpp:77] Creating layer lstm1_
I0924 03:57:23.136879 13466 layer_factory.hpp:77] Creating layer lstm1_h_conted_0
I0924 03:57:23.136891 13468 layer_factory.hpp:77] Creating layer lstm1_W_xc_x_slice
I0924 03:57:23.136901 13466 net.cpp:91] Creating Layer lstm1_h_conted_0
I0924 03:57:23.136904 13486 net.cpp:91] Creating Layer lstm1_
I0924 03:57:23.136909 13468 net.cpp:91] Creating Layer lstm1_W_xc_x_slice
I0924 03:57:23.136911 13466 net.cpp:425] lstm1_h_conted_0 <- h_0
I0924 03:57:23.136919 13468 net.cpp:425] lstm1_W_xc_x_slice <- W_xc_x
I0924 03:57:23.136914 13486 net.cpp:399] lstm1_ -> c_0
I0924 03:57:23.136935 13468 net.cpp:399] lstm1_W_xc_x_slice -> W_xc_x_1
I0924 03:57:23.136953 13486 net.cpp:399] lstm1_ -> h_0
I0924 03:57:23.137006 13468 net.cpp:141] Setting up lstm1_W_xc_x_slice
I0924 03:57:23.136926 13466 net.cpp:425] lstm1_h_conted_0 <- cont_1_lstm1_cont_slice_0_split_0
I0924 03:57:23.137025 13468 net.cpp:148] Top shape: 1 1 4000 (4000)
I0924 03:57:23.137032 13468 net.cpp:156] Memory required for data: 42016
I0924 03:57:23.137042 13468 layer_factory.hpp:77] Creating layer lstm1_h_conted_0
I0924 03:57:23.137051 13466 net.cpp:399] lstm1_h_conted_0 -> h_conted_0
I0924 03:57:23.137061 13468 net.cpp:91] Creating Layer lstm1_h_conted_0
I0924 03:57:23.137069 13468 net.cpp:425] lstm1_h_conted_0 <- h_0
I0924 03:57:23.137073 13486 net.cpp:141] Setting up lstm1_
I0924 03:57:23.137079 13468 net.cpp:425] lstm1_h_conted_0 <- cont_1_lstm1_cont_slice_0_split_0
I0924 03:57:23.137084 13486 net.cpp:148] Top shape: 1 1 1000 (1000)
I0924 03:57:23.137090 13486 net.cpp:148] Top shape: 1 1 1000 (1000)
I0924 03:57:23.137094 13486 net.cpp:156] Memory required for data: 10004
I0924 03:57:23.137092 13468 net.cpp:399] lstm1_h_conted_0 -> h_conted_0
I0924 03:57:23.137099 13486 layer_factory.hpp:77] Creating layer lstm1_cont_slice
I0924 03:57:23.137109 13486 net.cpp:91] Creating Layer lstm1_cont_slice
I0924 03:57:23.137114 13486 net.cpp:425] lstm1_cont_slice <- cont
I0924 03:57:23.137123 13486 net.cpp:399] lstm1_cont_slice -> cont_1
I0924 03:57:23.137225 13466 net.cpp:141] Setting up lstm1_h_conted_0
I0924 03:57:23.137238 13466 net.cpp:148] Top shape: 1 1 1000 (1000)
I0924 03:57:23.137243 13466 net.cpp:156] Memory required for data: 46016
I0924 03:57:23.137249 13466 layer_factory.hpp:77] Creating layer lstm1_transform_1
I0924 03:57:23.137250 13486 net.cpp:141] Setting up lstm1_cont_slice
I0924 03:57:23.137260 13486 net.cpp:148] Top shape: 1 1 (1)
I0924 03:57:23.137265 13486 net.cpp:156] Memory required for data: 10008
I0924 03:57:23.137269 13486 layer_factory.hpp:77] Creating layer cont_1_lstm1_cont_slice_0_split
I0924 03:57:23.137279 13486 net.cpp:91] Creating Layer cont_1_lstm1_cont_slice_0_split
I0924 03:57:23.137276 13466 net.cpp:91] Creating Layer lstm1_transform_1
I0924 03:57:23.137284 13486 net.cpp:425] cont_1_lstm1_cont_slice_0_split <- cont_1
I0924 03:57:23.137287 13466 net.cpp:425] lstm1_transform_1 <- h_conted_0
I0924 03:57:23.137290 13486 net.cpp:399] cont_1_lstm1_cont_slice_0_split -> cont_1_lstm1_cont_slice_0_split_0
I0924 03:57:23.137307 13466 net.cpp:399] lstm1_transform_1 -> W_hc_h_0
I0924 03:57:23.137311 13486 net.cpp:399] cont_1_lstm1_cont_slice_0_split -> cont_1_lstm1_cont_slice_0_split_1
I0924 03:57:23.137461 13468 net.cpp:141] Setting up lstm1_h_conted_0
I0924 03:57:23.137478 13468 net.cpp:148] Top shape: 1 1 1000 (1000)
I0924 03:57:23.137486 13468 net.cpp:156] Memory required for data: 46016
I0924 03:57:23.137493 13468 layer_factory.hpp:77] Creating layer lstm1_transform_1
I0924 03:57:23.137509 13468 net.cpp:91] Creating Layer lstm1_transform_1
I0924 03:57:23.137518 13468 net.cpp:425] lstm1_transform_1 <- h_conted_0
I0924 03:57:23.137531 13468 net.cpp:399] lstm1_transform_1 -> W_hc_h_0
I0924 03:57:23.144901 13486 net.cpp:141] Setting up cont_1_lstm1_cont_slice_0_split
I0924 03:57:23.144958 13486 net.cpp:148] Top shape: 1 1 (1)
I0924 03:57:23.144969 13486 net.cpp:148] Top shape: 1 1 (1)
I0924 03:57:23.144975 13486 net.cpp:156] Memory required for data: 10016
I0924 03:57:23.144986 13486 layer_factory.hpp:77] Creating layer lstm1_x_transform
I0924 03:57:23.145025 13486 net.cpp:91] Creating Layer lstm1_x_transform
I0924 03:57:23.145035 13486 net.cpp:425] lstm1_x_transform <- x
I0924 03:57:23.145053 13486 net.cpp:399] lstm1_x_transform -> W_xc_x
I0924 03:57:23.166853 13512 net.cpp:141] Setting up lstm1_transform_1
I0924 03:57:23.166900 13512 net.cpp:148] Top shape: 1 1 4000 (4000)
I0924 03:57:23.166906 13512 net.cpp:156] Memory required for data: 62016
I0924 03:57:23.166924 13512 layer_factory.hpp:77] Creating layer lstm1_gate_input_1
I0924 03:57:23.166947 13512 net.cpp:91] Creating Layer lstm1_gate_input_1
I0924 03:57:23.166954 13512 net.cpp:425] lstm1_gate_input_1 <- W_hc_h_0
I0924 03:57:23.166962 13512 net.cpp:425] lstm1_gate_input_1 <- W_xc_x_1
I0924 03:57:23.166970 13512 net.cpp:399] lstm1_gate_input_1 -> gate_input_1
I0924 03:57:23.166957 13472 net.cpp:141] Setting up lstm1_transform_1
I0924 03:57:23.167008 13472 net.cpp:148] Top shape: 1 1 4000 (4000)
I0924 03:57:23.167022 13472 net.cpp:156] Memory required for data: 62016
I0924 03:57:23.167047 13472 layer_factory.hpp:77] Creating layer lstm1_gate_input_1
I0924 03:57:23.167065 13480 net.cpp:141] Setting up lstm1_transform_1
I0924 03:57:23.167073 13472 net.cpp:91] Creating Layer lstm1_gate_input_1
I0924 03:57:23.167083 13480 net.cpp:148] Top shape: 1 1 4000 (4000)
I0924 03:57:23.167085 13472 net.cpp:425] lstm1_gate_input_1 <- W_hc_h_0
I0924 03:57:23.167089 13480 net.cpp:156] Memory required for data: 62016
I0924 03:57:23.167098 13472 net.cpp:425] lstm1_gate_input_1 <- W_xc_x_1
I0924 03:57:23.167101 13480 layer_factory.hpp:77] Creating layer lstm1_gate_input_1
I0924 03:57:23.167111 13472 net.cpp:399] lstm1_gate_input_1 -> gate_input_1
I0924 03:57:23.167114 13480 net.cpp:91] Creating Layer lstm1_gate_input_1
I0924 03:57:23.167141 13480 net.cpp:425] lstm1_gate_input_1 <- W_hc_h_0
I0924 03:57:23.167148 13480 net.cpp:425] lstm1_gate_input_1 <- W_xc_x_1
I0924 03:57:23.167163 13480 net.cpp:399] lstm1_gate_input_1 -> gate_input_1
I0924 03:57:23.167217 13472 net.cpp:141] Setting up lstm1_gate_input_1
I0924 03:57:23.167234 13472 net.cpp:148] Top shape: 1 1 4000 (4000)
I0924 03:57:23.167243 13472 net.cpp:156] Memory required for data: 78016
I0924 03:57:23.167250 13472 layer_factory.hpp:77] Creating layer lstm1_unit_1
I0924 03:57:23.167261 13512 net.cpp:141] Setting up lstm1_gate_input_1
I0924 03:57:23.167268 13472 net.cpp:91] Creating Layer lstm1_unit_1
I0924 03:57:23.167274 13512 net.cpp:148] Top shape: 1 1 4000 (4000)
I0924 03:57:23.167279 13472 net.cpp:425] lstm1_unit_1 <- c_0
I0924 03:57:23.167279 13512 net.cpp:156] Memory required for data: 78016
I0924 03:57:23.167297 13472 net.cpp:425] lstm1_unit_1 <- gate_input_1
I0924 03:57:23.167301 13512 layer_factory.hpp:77] Creating layer lstm1_unit_1
I0924 03:57:23.167307 13472 net.cpp:425] lstm1_unit_1 <- cont_1_lstm1_cont_slice_0_split_1
I0924 03:57:23.167312 13512 net.cpp:91] Creating Layer lstm1_unit_1
I0924 03:57:23.167318 13512 net.cpp:425] lstm1_unit_1 <- c_0
I0924 03:57:23.167320 13472 net.cpp:399] lstm1_unit_1 -> c_1
I0924 03:57:23.167325 13512 net.cpp:425] lstm1_unit_1 <- gate_input_1
I0924 03:57:23.167330 13512 net.cpp:425] lstm1_unit_1 <- cont_1_lstm1_cont_slice_0_split_1
I0924 03:57:23.167336 13472 net.cpp:399] lstm1_unit_1 -> h_1
I0924 03:57:23.167337 13480 net.cpp:141] Setting up lstm1_gate_input_1
I0924 03:57:23.167340 13512 net.cpp:399] lstm1_unit_1 -> c_1
I0924 03:57:23.167366 13480 net.cpp:148] Top shape: 1 1 4000 (4000)
I0924 03:57:23.167371 13480 net.cpp:156] Memory required for data: 78016
I0924 03:57:23.167374 13512 net.cpp:399] lstm1_unit_1 -> h_1
I0924 03:57:23.167376 13480 layer_factory.hpp:77] Creating layer lstm1_unit_1
I0924 03:57:23.167390 13480 net.cpp:91] Creating Layer lstm1_unit_1
I0924 03:57:23.167397 13480 net.cpp:425] lstm1_unit_1 <- c_0
I0924 03:57:23.167402 13480 net.cpp:425] lstm1_unit_1 <- gate_input_1
I0924 03:57:23.167407 13480 net.cpp:425] lstm1_unit_1 <- cont_1_lstm1_cont_slice_0_split_1
I0924 03:57:23.167407 13517 net.cpp:141] Setting up lstm1_x_transform
I0924 03:57:23.167414 13480 net.cpp:399] lstm1_unit_1 -> c_1
I0924 03:57:23.167423 13517 net.cpp:148] Top shape: 1 1 4000 (4000)
I0924 03:57:23.167429 13480 net.cpp:399] lstm1_unit_1 -> h_1
I0924 03:57:23.167433 13517 net.cpp:156] Memory required for data: 26016
I0924 03:57:23.167454 13517 layer_factory.hpp:77] Creating layer lstm1_W_xc_x_slice
I0924 03:57:23.167469 13517 net.cpp:91] Creating Layer lstm1_W_xc_x_slice
I0924 03:57:23.167475 13517 net.cpp:425] lstm1_W_xc_x_slice <- W_xc_x
I0924 03:57:23.167484 13517 net.cpp:399] lstm1_W_xc_x_slice -> W_xc_x_1
I0924 03:57:23.167533 13512 net.cpp:141] Setting up lstm1_unit_1
I0924 03:57:23.167546 13512 net.cpp:148] Top shape: 1 1 1000 (1000)
I0924 03:57:23.167551 13512 net.cpp:148] Top shape: 1 1 1000 (1000)
I0924 03:57:23.167556 13512 net.cpp:156] Memory required for data: 86016
I0924 03:57:23.167560 13512 layer_factory.hpp:77] Creating layer lstm1_
I0924 03:57:23.167569 13512 net.cpp:91] Creating Layer lstm1_
I0924 03:57:23.167573 13512 net.cpp:425] lstm1_ <- c_1
I0924 03:57:23.167580 13512 net.cpp:399] lstm1_ -> c_T
I0924 03:57:23.167598 13517 net.cpp:141] Setting up lstm1_W_xc_x_slice
I0924 03:57:23.167609 13517 net.cpp:148] Top shape: 1 1 4000 (4000)
I0924 03:57:23.167614 13517 net.cpp:156] Memory required for data: 42016
I0924 03:57:23.167619 13517 layer_factory.hpp:77] Creating layer lstm1_h_conted_0
I0924 03:57:23.167630 13517 net.cpp:91] Creating Layer lstm1_h_conted_0
I0924 03:57:23.167630 13512 net.cpp:141] Setting up lstm1_
I0924 03:57:23.167637 13517 net.cpp:425] lstm1_h_conted_0 <- h_0
I0924 03:57:23.167642 13512 net.cpp:148] Top shape: 1 1 1000 (1000)
I0924 03:57:23.167644 13517 net.cpp:425] lstm1_h_conted_0 <- cont_1_lstm1_cont_slice_0_split_0
I0924 03:57:23.167646 13512 net.cpp:156] Memory required for data: 90016
I0924 03:57:23.167651 13517 net.cpp:399] lstm1_h_conted_0 -> h_conted_0
I0924 03:57:23.167657 13480 net.cpp:141] Setting up lstm1_unit_1
I0924 03:57:23.167651 13512 layer_factory.hpp:77] Creating layer lstm1_h_concat
I0924 03:57:23.167672 13480 net.cpp:148] Top shape: 1 1 1000 (1000)
I0924 03:57:23.167680 13480 net.cpp:148] Top shape: 1 1 1000 (1000)
I0924 03:57:23.167683 13480 net.cpp:156] Memory required for data: 86016
I0924 03:57:23.167682 13512 net.cpp:91] Creating Layer lstm1_h_concat
I0924 03:57:23.167692 13480 layer_factory.hpp:77] Creating layer lstm1_
I0924 03:57:23.167695 13512 net.cpp:425] lstm1_h_concat <- h_1
I0924 03:57:23.167701 13480 net.cpp:91] Creating Layer lstm1_
I0924 03:57:23.167702 13512 net.cpp:399] lstm1_h_concat -> h
I0924 03:57:23.167706 13480 net.cpp:425] lstm1_ <- c_1
I0924 03:57:23.167713 13480 net.cpp:399] lstm1_ -> c_T
I0924 03:57:23.167778 13472 net.cpp:141] Setting up lstm1_unit_1
I0924 03:57:23.167793 13472 net.cpp:148] Top shape: 1 1 1000 (1000)
I0924 03:57:23.167799 13472 net.cpp:148] Top shape: 1 1 1000 (1000)
I0924 03:57:23.167804 13472 net.cpp:156] Memory required for data: 86016
I0924 03:57:23.167809 13472 layer_factory.hpp:77] Creating layer lstm1_
I0924 03:57:23.167815 13512 net.cpp:141] Setting up lstm1_h_concat
I0924 03:57:23.167817 13472 net.cpp:91] Creating Layer lstm1_
I0924 03:57:23.167829 13512 net.cpp:148] Top shape: 1 1 1000 (1000)
I0924 03:57:23.167834 13472 net.cpp:425] lstm1_ <- c_1
I0924 03:57:23.167834 13512 net.cpp:156] Memory required for data: 94016
I0924 03:57:23.167845 13472 net.cpp:399] lstm1_ -> c_T
I0924 03:57:23.167848 13512 layer_factory.hpp:77] Creating layer h_pseudoloss
I0924 03:57:23.167850 13480 net.cpp:141] Setting up lstm1_
I0924 03:57:23.167860 13480 net.cpp:148] Top shape: 1 1 1000 (1000)
I0924 03:57:23.167861 13512 net.cpp:91] Creating Layer h_pseudoloss
I0924 03:57:23.167865 13480 net.cpp:156] Memory required for data: 90016
I0924 03:57:23.167866 13512 net.cpp:425] h_pseudoloss <- h
I0924 03:57:23.167870 13480 layer_factory.hpp:77] Creating layer lstm1_h_concat
I0924 03:57:23.167875 13512 net.cpp:399] h_pseudoloss -> h_pseudoloss
I0924 03:57:23.167877 13480 net.cpp:91] Creating Layer lstm1_h_concat
I0924 03:57:23.167882 13480 net.cpp:425] lstm1_h_concat <- h_1
I0924 03:57:23.167891 13480 net.cpp:399] lstm1_h_concat -> h
I0924 03:57:23.168010 13517 net.cpp:141] Setting up lstm1_h_conted_0
I0924 03:57:23.168021 13517 net.cpp:148] Top shape: 1 1 1000 (1000)
I0924 03:57:23.168026 13517 net.cpp:156] Memory required for data: 46016
I0924 03:57:23.168031 13517 layer_factory.hpp:77] Creating layer lstm1_transform_1
I0924 03:57:23.168038 13480 net.cpp:141] Setting up lstm1_h_concat
I0924 03:57:23.168045 13517 net.cpp:91] Creating Layer lstm1_transform_1
I0924 03:57:23.168048 13480 net.cpp:148] Top shape: 1 1 1000 (1000)
I0924 03:57:23.168051 13517 net.cpp:425] lstm1_transform_1 <- h_conted_0
I0924 03:57:23.168052 13480 net.cpp:156] Memory required for data: 94016
I0924 03:57:23.168057 13480 layer_factory.hpp:77] Creating layer h_pseudoloss
I0924 03:57:23.168059 13517 net.cpp:399] lstm1_transform_1 -> W_hc_h_0
I0924 03:57:23.168068 13480 net.cpp:91] Creating Layer h_pseudoloss
I0924 03:57:23.168074 13480 net.cpp:425] h_pseudoloss <- h
…
I0924 03:57:23.176664 13472 net.cpp:219] lstm1_ does not need backward computation.
I0924 03:57:23.176668 13472 net.cpp:261] This network produces output c_T
I0924 03:57:23.176672 13472 net.cpp:261] This network produces output h_pseudoloss
I0924 03:57:23.176692 13472 net.cpp:274] Network initialization done.
I0924 03:57:23.176733 13472 recurrent_layer.cpp:150] Adding parameter 0: W_xc
I0924 03:57:23.176740 13472 recurrent_layer.cpp:150] Adding parameter 1: b_c
I0924 03:57:23.176744 13472 recurrent_layer.cpp:150] Adding parameter 2: W_hc
I0924 03:57:23.176841 13472 net.cpp:141] Setting up lstm1
I0924 03:57:23.176852 13472 net.cpp:148] Top shape: 1 1 1000 (1000)
I0924 03:57:23.176856 13472 net.cpp:156] Memory required for data: 26408
I0924 03:57:23.176872 13472 layer_factory.hpp:77] Creating layer concat
I0924 03:57:23.176880 13472 net.cpp:91] Creating Layer concat
I0924 03:57:23.176887 13472 net.cpp:425] concat <- lstm1
I0924 03:57:23.176893 13472 net.cpp:425] concat <- embedded_input_sentence
I0924 03:57:23.176898 13472 net.cpp:425] concat <- reshaped_stage_indicator
I0924 03:57:23.176905 13472 net.cpp:399] concat -> lstm1_video_sequence
I0924 03:57:23.176939 13472 net.cpp:141] Setting up concat
I0924 03:57:23.176949 13472 net.cpp:148] Top shape: 1 1 1501 (1501)
I0924 03:57:23.176952 13472 net.cpp:156] Memory required for data: 32412
I0924 03:57:23.176957 13472 layer_factory.hpp:77] Creating layer lstm2
I0924 03:57:23.176970 13472 net.cpp:91] Creating Layer lstm2
I0924 03:57:23.176975 13472 net.cpp:425] lstm2 <- lstm1_video_sequence
I0924 03:57:23.176981 13472 net.cpp:425] lstm2 <- cont_sentence_input_1_split_1
I0924 03:57:23.176988 13472 net.cpp:399] lstm2 -> lstm2
I0924 03:57:23.177000 13472 recurrent_layer.cpp:20] Initializing recurrent layer: assuming input batch contains 1 timesteps of 1 independent streams.
I0924 03:57:23.177269 13472 net.cpp:49] Initializing net from parameters: 
layer {
  name: "lstm2_"
  type: "Input"
  top: "x"
  top: "cont"
  input_param {
    shape {
      dim: 1
      dim: 1
      dim: 1501
    }
    shape {
      dim: 1
      dim: 1
    }
  }
}
layer {
  name: "lstm2_"
  type: "Input"
  top: "c_0"
  top: "h_0"
  input_param {
    shape {
      dim: 1
      dim: 1
      dim: 1000
    }
    shape {
      dim: 1
      dim: 1
      dim: 1000
    }
  }
}
layer {
  name: "lstm2_cont_slice"
  type: "Slice"
  bottom: "cont"
  top: "cont_1"
  slice_param {
    axis: 0
  }
}
layer {
  name: "lstm2_x_transform"
  type: "InnerProduct"
  bottom: "x"
  top: "W_xc_x"
  param {
    name: "W_xc"
  }
  param {
    name: "b_c"
  }
  propagate_down: true
  inner_product_param {
    num_output: 4000
    bias_term: true
    weight_filler {
      type: "uniform"
      min: -0.08
      max: 0.08
    }
    bias_filler {
      type: "constant"
      value: 0
    }
    axis: 2
  }
}
layer {
  name: "lstm2_W_xc_x_slice"
  type: "Slice"
  bottom: "W_xc_x"
  top: "W_xc_x_1"
  slice_param {
    axis: 0
  }
}
layer {
  name: "lstm2_h_conted_0"
  type: "Scale"
  bottom: "h_0"
  bottom: "cont_1"
  top: "h_conted_0"
  scale_param {
    axis: 0
  }
}
layer {
  name: "lstm2_transform_1"
  type: "InnerProduct"
  bottom: "h_conted_0"
  top: "W_hc_h_0"
  param {
    name: "W_hc"
  }
  inner_product_param {
    num_output: 4000
    bias_term: false
    weight_filler {
      type: "uniform"
      min: -0.08
      max: 0.08
    }
    axis: 2
  }
}
layer {
  name: "lstm2_gate_input_1"
  type: "Eltwise"
  bottom: "W_hc_h_0"
  bottom: "W_xc_x_1"
  top: "gate_input_1"
  eltwise_param {
    operation: SUM
  }
}
layer {
  name: "lstm2_unit_1"
  type: "LSTMUnit"
  bottom: "c_0"
  bottom: "gate_input_1"
  bottom: "cont_1"
  top: "c_1"
  top: "h_1"
}
layer {
  name: "lstm2_"
  type: "Split"
  bottom: "c_1"
  top: "c_T"
}
layer {
  name: "lstm2_h_concat"
  type: "Concat"
  bottom: "h_1"
  top: "h"
  concat_param {
    axis: 0
  }
}
layer {
  name: "h_pseudoloss"
  type: "Reduction"
  bottom: "h"
  top: "h_pseudoloss"
  loss_weight: 1
}
I0924 03:57:23.177362 13472 layer_factory.hpp:77] Creating layer lstm2_
I0924 03:57:23.177373 13472 net.cpp:91] Creating Layer lstm2_
I0924 03:57:23.177381 13472 net.cpp:399] lstm2_ -> x
I0924 03:57:23.177391 13472 net.cpp:399] lstm2_ -> cont
I0924 03:57:23.177443 13472 net.cpp:141] Setting up lstm2_
I0924 03:57:23.177453 13472 net.cpp:148] Top shape: 1 1 1501 (1501)
I0924 03:57:23.177460 13472 net.cpp:148] Top shape: 1 1 (1)
I0924 03:57:23.177464 13472 net.cpp:156] Memory required for data: 6008
I0924 03:57:23.177469 13472 layer_factory.hpp:77] Creating layer lstm2_
I0924 03:57:23.177477 13472 net.cpp:91] Creating Layer lstm2_
I0924 03:57:23.177484 13472 net.cpp:399] lstm2_ -> c_0
I0924 03:57:23.177492 13472 net.cpp:399] lstm2_ -> h_0
I0924 03:57:23.177541 13472 net.cpp:141] Setting up lstm2_
I0924 03:57:23.177551 13472 net.cpp:148] Top shape: 1 1 1000 (1000)
I0924 03:57:23.177556 13472 net.cpp:148] Top shape: 1 1 1000 (1000)
I0924 03:57:23.177561 13472 net.cpp:156] Memory required for data: 14008
I0924 03:57:23.177564 13472 layer_factory.hpp:77] Creating layer lstm2_cont_slice
I0924 03:57:23.177573 13472 net.cpp:91] Creating Layer lstm2_cont_slice
I0924 03:57:23.177578 13472 net.cpp:425] lstm2_cont_slice <- cont
I0924 03:57:23.177588 13472 net.cpp:399] lstm2_cont_slice -> cont_1
I0924 03:57:23.177621 13472 net.cpp:141] Setting up lstm2_cont_slice
I0924 03:57:23.177629 13472 net.cpp:148] Top shape: 1 1 (1)
I0924 03:57:23.177634 13472 net.cpp:156] Memory required for data: 14012
I0924 03:57:23.177639 13472 layer_factory.hpp:77] Creating layer cont_1_lstm2_cont_slice_0_split
I0924 03:57:23.177645 13472 net.cpp:91] Creating Layer cont_1_lstm2_cont_slice_0_split
I0924 03:57:23.177650 13472 net.cpp:425] cont_1_lstm2_cont_slice_0_split <- cont_1
I0924 03:57:23.177657 13472 net.cpp:399] cont_1_lstm2_cont_slice_0_split -> cont_1_lstm2_cont_slice_0_split_0
I0924 03:57:23.177664 13472 net.cpp:399] cont_1_lstm2_cont_slice_0_split -> cont_1_lstm2_cont_slice_0_split_1
I0924 03:57:23.177712 13472 net.cpp:141] Setting up cont_1_lstm2_cont_slice_0_split
I0924 03:57:23.177721 13472 net.cpp:148] Top shape: 1 1 (1)
I0924 03:57:23.177726 13472 net.cpp:148] Top shape: 1 1 (1)
I0924 03:57:23.177731 13472 net.cpp:156] Memory required for data: 14020
I0924 03:57:23.177734 13472 layer_factory.hpp:77] Creating layer lstm2_x_transform
I0924 03:57:23.177747 13472 net.cpp:91] Creating Layer lstm2_x_transform
I0924 03:57:23.177752 13472 net.cpp:425] lstm2_x_transform <- x
I0924 03:57:23.177759 13472 net.cpp:399] lstm2_x_transform -> W_xc_x
I0924 03:57:23.194326 13480 net.cpp:141] Setting up lstm1
I0924 03:57:23.194372 13480 net.cpp:148] Top shape: 1 1 1000 (1000)
I0924 03:57:23.194381 13480 net.cpp:156] Memory required for data: 26408
I0924 03:57:23.194409 13480 layer_factory.hpp:77] Creating layer concat
I0924 03:57:23.194433 13480 net.cpp:91] Creating Layer concat
I0924 03:57:23.194444 13480 net.cpp:425] concat <- lstm1
I0924 03:57:23.194458 13480 net.cpp:425] concat <- embedded_input_sentence
I0924 03:57:23.194447 13466 net.cpp:141] Setting up lstm1_transform_1
I0924 03:57:23.194468 13480 net.cpp:425] concat <- reshaped_stage_indicator
I0924 03:57:23.194488 13486 net.cpp:141] Setting up lstm1_x_transform
I0924 03:57:23.194496 13480 net.cpp:399] concat -> lstm1_video_sequence
I0924 03:57:23.194527 13486 net.cpp:148] Top shape: 1 1 4000 (4000)
I0924 03:57:23.194538 13486 net.cpp:156] Memory required for data: 26016
I0924 03:57:23.194568 13486 layer_factory.hpp:77] Creating layer lstm1_W_xc_x_slice
I0924 03:57:23.194582 13480 net.cpp:141] Setting up concat
I0924 03:57:23.194608 13486 net.cpp:91] Creating Layer lstm1_W_xc_x_slice
I0924 03:57:23.194612 13480 net.cpp:148] Top shape: 1 1 1501 (1501)
I0924 03:57:23.194628 13486 net.cpp:425] lstm1_W_xc_x_slice <- W_xc_x
I0924 03:57:23.194635 13480 net.cpp:156] Memory required for data: 32412
I0924 03:57:23.194644 13480 layer_factory.hpp:77] Creating layer lstm2
I0924 03:57:23.194646 13486 net.cpp:399] lstm1_W_xc_x_slice -> W_xc_x_1
I0924 03:57:23.194666 13480 net.cpp:91] Creating Layer lstm2
I0924 03:57:23.194675 13480 net.cpp:425] lstm2 <- lstm1_video_sequence
I0924 03:57:23.194685 13480 net.cpp:425] lstm2 <- cont_sentence_input_1_split_1
I0924 03:57:23.194697 13480 net.cpp:399] lstm2 -> lstm2
I0924 03:57:23.194715 13480 recurrent_layer.cpp:20] Initializing recurrent layer: assuming input batch contains 1 timesteps of 1 independent streams.
I0924 03:57:23.194761 13486 net.cpp:141] Setting up lstm1_W_xc_x_slice
I0924 03:57:23.194780 13486 net.cpp:148] Top shape: 1 1 4000 (4000)
I0924 03:57:23.194788 13486 net.cpp:156] Memory required for data: 42016
I0924 03:57:23.194797 13486 layer_factory.hpp:77] Creating layer lstm1_h_conted_0
I0924 03:57:23.194818 13486 net.cpp:91] Creating Layer lstm1_h_conted_0
I0924 03:57:23.194828 13486 net.cpp:425] lstm1_h_conted_0 <- h_0
I0924 03:57:23.194839 13486 net.cpp:425] lstm1_h_conted_0 <- cont_1_lstm1_cont_slice_0_split_0
I0924 03:57:23.194852 13486 net.cpp:399] lstm1_h_conted_0 -> h_conted_0
I0924 03:57:23.194859 13504 net.cpp:141] Setting up lstm2_x_transform
I0924 03:57:23.194875 13504 net.cpp:148] Top shape: 1 1 4000 (4000)
I0924 03:57:23.194883 13504 net.cpp:156] Memory required for data: 30020
I0924 03:57:23.194902 13504 layer_factory.hpp:77] Creating layer lstm2_W_xc_x_slice
I0924 03:57:23.194916 13504 net.cpp:91] Creating Layer lstm2_W_xc_x_slice
I0924 03:57:23.194926 13504 net.cpp:425] lstm2_W_xc_x_slice <- W_xc_x
I0924 03:57:23.194947 13504 net.cpp:399] lstm2_W_xc_x_slice -> W_xc_x_1
I0924 03:57:23.195019 13486 net.cpp:141] Setting up lstm1_h_conted_0
I0924 03:57:23.195037 13486 net.cpp:148] Top shape: 1 1 1000 (1000)
I0924 03:57:23.195044 13486 net.cpp:156] Memory required for data: 46016
I0924 03:57:23.195044 13504 net.cpp:141] Setting up lstm2_W_xc_x_slice
I0924 03:57:23.195053 13486 layer_factory.hpp:77] Creating layer lstm1_transform_1
I0924 03:57:23.195058 13504 net.cpp:148] Top shape: 1 1 4000 (4000)
I0924 03:57:23.195065 13504 net.cpp:156] Memory required for data: 46020
I0924 03:57:23.195073 13504 layer_factory.hpp:77] Creating layer lstm2_h_conted_0
I0924 03:57:23.195075 13486 net.cpp:91] Creating Layer lstm1_transform_1
I0924 03:57:23.195093 13486 net.cpp:425] lstm1_transform_1 <- h_conted_0
I0924 03:57:23.195094 13504 net.cpp:91] Creating Layer lstm2_h_conted_0
I0924 03:57:23.195119 13486 net.cpp:399] lstm1_transform_1 -> W_hc_h_0
I0924 03:57:23.195106 13480 net.cpp:49] Initializing net from parameters: 
layer {
  name: "lstm2_"
  type: "Input"
  top: "x"
  top: "cont"
  input_param {
    shape {
      dim: 1
      dim: 1
      dim: 1501
    }
    shape {
      dim: 1
      dim: 1
    }
  }
}
layer {
  name: "lstm2_"
  type: "Input"
  top: "c_0"
  top: "h_0"
  input_param {
    shape {
      dim: 1
      dim: 1
      dim: 1000
    }
    shape {
      dim: 1
      dim: 1
      dim: 1000
    }
  }
}
layer {
  name: "lstm2_cont_slice"
  type: "Slice"
  bottom: "cont"
  top: "cont_1"
  slice_param {
    axis: 0
  }
}
layer {
  name: "lstm2_x_transform"
  type: "InnerProduct"
  bottom: "x"
  top: "W_xc_x"
  param {
    name: "W_xc"
  }
  param {
    name: "b_c"
  }
  propagate_down: true
  inner_product_param {
    num_output: 4000
    bias_term: true
    weight_filler {
      type: "uniform"
      min: -0.08
      max: 0.08
    }
    bias_filler {
      type: "constant"
      value: 0
    }
    axis: 2
  }
}
layer {
  name: "lstm2_W_xc_x_slice"
  type: "Slice"
  bottom: "W_xc_x"
  top: "W_xc_x_1"
  slice_param {
    axis: 0
  }
}
layer {
  name: "lstm2_h_conted_0"
  type: "Scale"
  bottom: "h_0"
  bottom: "cont_1"
  top: "h_conted_0"
  scale_param {
    axis: 0
  }
}
layer {
  name: "lstm2_transform_1"
  type: "InnerProduct"
  bottom: "h_conted_0"
  top: "W_hc_h_0"
  param {
    name: "W_hc"
  }
  inner_product_param {
    num_output: 4000
    bias_term: false
    weight_filler {
      type: "uniform"
      min: -0.08
      max: 0.08
    }
    axis: 2
  }
}
layer {
  name: "lstm2_gate_input_1"
  type: "Eltwise"
  bottom: "W_hc_h_0"
  bottom: "W_xc_x_1"
  top: "gate_input_1"
  eltwise_param {
    operation: SUM
  }
}
layer {
  name: "lstm2_unit_1"
  type: "LSTMUnit"
  bottom: "c_0"
  bottom: "gate_input_1"
  bottom: "cont_1"
  top: "c_1"
  top: "h_1"
}
layer {
  name: "lstm2_"
  type: "Split"
  bottom: "c_1"
  top: "c_T"
}
layer {
  name: "lstm2_h_concat"
  type: "Concat"
  bottom: "h_1"
  top: "h"
  concat_param {
    axis: 0
  }
}
layer {
  name: "h_pseudoloss"
  type: "Reduction"
  bottom: "h"
  top: "h_pseudoloss"
  loss_weight: 1
}
I0924 03:57:23.195125 13504 net.cpp:425] lstm2_h_conted_0 <- h_0
I0924 03:57:23.195157 13504 net.cpp:425] lstm2_h_conted_0 <- cont_1_lstm2_cont_slice_0_split_0
I0924 03:57:23.195178 13504 net.cpp:399] lstm2_h_conted_0 -> h_conted_0
I0924 03:57:23.195271 13480 layer_factory.hpp:77] Creating layer lstm2_
I0924 03:57:23.195289 13480 net.cpp:91] Creating Layer lstm2_
I0924 03:57:23.195300 13480 net.cpp:399] lstm2_ -> x
I0924 03:57:23.195317 13480 net.cpp:399] lstm2_ -> cont
I0924 03:57:23.204159 13504 net.cpp:141] Setting up lstm2_h_conted_0
I0924 03:57:23.204227 13504 net.cpp:148] Top shape: 1 1 1000 (1000)
I0924 03:57:23.204246 13504 net.cpp:156] Memory required for data: 50020
I0924 03:57:23.204267 13504 layer_factory.hpp:77] Creating layer lstm2_transform_1
I0924 03:57:23.204308 13504 net.cpp:91] Creating Layer lstm2_transform_1
I0924 03:57:23.204329 13504 net.cpp:425] lstm2_transform_1 <- h_conted_0
I0924 03:57:23.204371 13504 net.cpp:399] lstm2_transform_1 -> W_hc_h_0
I0924 03:57:23.194494 13466 net.cpp:148] Top shape: 1 1 4000 (4000)
I0924 03:57:23.206650 13466 net.cpp:156] Memory required for data: 62016
I0924 03:57:23.206692 13466 layer_factory.hpp:77] Creating layer lstm1_gate_input_1
I0924 03:57:23.214004 13466 net.cpp:91] Creating Layer lstm1_gate_input_1
I0924 03:57:23.214053 13466 net.cpp:425] lstm1_gate_input_1 <- W_hc_h_0
I0924 03:57:23.214071 13466 net.cpp:425] lstm1_gate_input_1 <- W_xc_x_1
I0924 03:57:23.214094 13466 net.cpp:399] lstm1_gate_input_1 -> gate_input_1
I0924 03:57:23.215422 13480 net.cpp:141] Setting up lstm2_
I0924 03:57:23.215463 13480 net.cpp:148] Top shape: 1 1 1501 (1501)
I0924 03:57:23.215476 13480 net.cpp:148] Top shape: 1 1 (1)
I0924 03:57:23.215482 13480 net.cpp:156] Memory required for data: 6008
I0924 03:57:23.215495 13480 layer_factory.hpp:77] Creating layer lstm2_
I0924 03:57:23.215522 13480 net.cpp:91] Creating Layer lstm2_
I0924 03:57:23.215533 13480 net.cpp:399] lstm2_ -> c_0
I0924 03:57:23.215564 13480 net.cpp:399] lstm2_ -> h_0
I0924 03:57:23.215641 13480 net.cpp:141] Setting up lstm2_
I0924 03:57:23.215654 13480 net.cpp:148] Top shape: 1 1 1000 (1000)
I0924 03:57:23.215664 13480 net.cpp:148] Top shape: 1 1 1000 (1000)
I0924 03:57:23.215672 13480 net.cpp:156] Memory required for data: 14008
I0924 03:57:23.215679 13480 layer_factory.hpp:77] Creating layer lstm2_cont_slice
I0924 03:57:23.215699 13480 net.cpp:91] Creating Layer lstm2_cont_slice
I0924 03:57:23.215709 13480 net.cpp:425] lstm2_cont_slice <- cont
I0924 03:57:23.215723 13480 net.cpp:399] lstm2_cont_slice -> cont_1
I0924 03:57:23.215776 13480 net.cpp:141] Setting up lstm2_cont_slice
I0924 03:57:23.215791 13480 net.cpp:148] Top shape: 1 1 (1)
I0924 03:57:23.215800 13480 net.cpp:156] Memory required for data: 14012
I0924 03:57:23.215806 13480 layer_factory.hpp:77] Creating layer cont_1_lstm2_cont_slice_0_split
I0924 03:57:23.215818 13480 net.cpp:91] Creating Layer cont_1_lstm2_cont_slice_0_split
I0924 03:57:23.215826 13480 net.cpp:425] cont_1_lstm2_cont_slice_0_split <- cont_1
I0924 03:57:23.215843 13480 net.cpp:399] cont_1_lstm2_cont_slice_0_split -> cont_1_lstm2_cont_slice_0_split_0
I0924 03:57:23.215859 13480 net.cpp:399] cont_1_lstm2_cont_slice_0_split -> cont_1_lstm2_cont_slice_0_split_1
I0924 03:57:23.215932 13480 net.cpp:141] Setting up cont_1_lstm2_cont_slice_0_split
I0924 03:57:23.215946 13480 net.cpp:148] Top shape: 1 1 (1)
I0924 03:57:23.215958 13480 net.cpp:148] Top shape: 1 1 (1)
I0924 03:57:23.215965 13480 net.cpp:156] Memory required for data: 14020
I0924 03:57:23.215972 13480 layer_factory.hpp:77] Creating layer lstm2_x_transform
I0924 03:57:23.215993 13480 net.cpp:91] Creating Layer lstm2_x_transform
I0924 03:57:23.216003 13480 net.cpp:425] lstm2_x_transform <- x
I0924 03:57:23.216017 13480 net.cpp:399] lstm2_x_transform -> W_xc_x
I0924 03:57:23.231721 13512 net.cpp:141] Setting up lstm1
I0924 03:57:23.231770 13512 net.cpp:148] Top shape: 1 1 1000 (1000)
I0924 03:57:23.231778 13512 net.cpp:156] Memory required for data: 26408
I0924 03:57:23.231815 13512 layer_factory.hpp:77] Creating layer concat
I0924 03:57:23.231817 13466 net.cpp:141] Setting up lstm1_gate_input_1
I0924 03:57:23.231865 13466 net.cpp:148] Top shape: 1 1 4000 (4000)
I0924 03:57:23.231874 13466 net.cpp:156] Memory required for data: 78016
I0924 03:57:23.231885 13466 layer_factory.hpp:77] Creating layer lstm1_unit_1
I0924 03:57:23.231906 13466 net.cpp:91] Creating Layer lstm1_unit_1
I0924 03:57:23.231917 13466 net.cpp:425] lstm1_unit_1 <- c_0
I0924 03:57:23.231992 13466 net.cpp:425] lstm1_unit_1 <- gate_input_1
I0924 03:57:23.232004 13466 net.cpp:425] lstm1_unit_1 <- cont_1_lstm1_cont_slice_0_split_1
I0924 03:57:23.232018 13466 net.cpp:399] lstm1_unit_1 -> c_1
I0924 03:57:23.232038 13466 net.cpp:399] lstm1_unit_1 -> h_1
I0924 03:57:23.231839 13512 net.cpp:91] Creating Layer concat
I0924 03:57:23.232324 13512 net.cpp:425] concat <- lstm1
I0924 03:57:23.232339 13512 net.cpp:425] concat <- embedded_input_sentence
I0924 03:57:23.232349 13512 net.cpp:425] concat <- reshaped_stage_indicator
I0924 03:57:23.232362 13512 net.cpp:399] concat -> lstm1_video_sequence
I0924 03:57:23.235486 13466 net.cpp:141] Setting up lstm1_unit_1
I0924 03:57:23.235546 13466 net.cpp:148] Top shape: 1 1 1000 (1000)
I0924 03:57:23.235559 13466 net.cpp:148] Top shape: 1 1 1000 (1000)
I0924 03:57:23.235569 13466 net.cpp:156] Memory required for data: 86016
I0924 03:57:23.235566 13468 net.cpp:141] Setting up lstm1_transform_1
I0924 03:57:23.235584 13466 layer_factory.hpp:77] Creating layer lstm1_
I0924 03:57:23.235589 13512 net.cpp:141] Setting up concat
I0924 03:57:23.235605 13512 net.cpp:148] Top shape: 1 1 1501 (1501)
I0924 03:57:23.235605 13468 net.cpp:148] Top shape: 1 1 4000 (4000)
I0924 03:57:23.235608 13466 net.cpp:91] Creating Layer lstm1_
I0924 03:57:23.235618 13468 net.cpp:156] Memory required for data: 62016
I0924 03:57:23.235612 13512 net.cpp:156] Memory required for data: 32412
I0924 03:57:23.235630 13466 net.cpp:425] lstm1_ <- c_1
I0924 03:57:23.235635 13517 net.cpp:141] Setting up lstm1_transform_1
I0924 03:57:23.235642 13468 layer_factory.hpp:77] Creating layer lstm1_gate_input_1
I0924 03:57:23.235656 13466 net.cpp:399] lstm1_ -> c_T
I0924 03:57:23.235633 13512 layer_factory.hpp:77] Creating layer lstm2
I0924 03:57:23.235662 13517 net.cpp:148] Top shape: 1 1 4000 (4000)
I0924 03:57:23.235672 13517 net.cpp:156] Memory required for data: 62016
I0924 03:57:23.235678 13512 net.cpp:91] Creating Layer lstm2
I0924 03:57:23.235687 13512 net.cpp:425] lstm2 <- lstm1_video_sequence
I0924 03:57:23.235684 13468 net.cpp:91] Creating Layer lstm1_gate_input_1
I0924 03:57:23.235689 13517 layer_factory.hpp:77] Creating layer lstm1_gate_input_1
I0924 03:57:23.235695 13512 net.cpp:425] lstm2 <- cont_sentence_input_1_split_1
…
I0924 03:57:23.235750 13517 net.cpp:399] lstm1_gate_input_1 -> gate_input_1
I0924 03:57:23.236006 13512 net.cpp:49] Initializing net from parameters: 
layer {
  name: "lstm2_"
  type: "Input"
  top: "x"
  top: "cont"
  input_param {
    shape {
      dim: 1
      dim: 1
      dim: 1501
    }
    shape {
      dim: 1
      dim: 1
    }
  }
}
layer {
  name: "lstm2_"
  type: "Input"
  top: "c_0"
  top: "h_0"
  input_param {
    shape {
      dim: 1
      dim: 1
      dim: 1000
    }
    shape {
      dim: 1
      dim: 1
      dim: 1000
    }
  }
}
layer {
  name: "lstm2_cont_slice"
  type: "Slice"
  bottom: "cont"
  top: "cont_1"
  slice_param {
    axis: 0
  }
}
layer {
  name: "lstm2_x_transform"
  type: "InnerProduct"
  bottom: "x"
  top: "W_xc_x"
  param {
    name: "W_xc"
  }
  param {
    name: "b_c"
  }
  propagate_down: true
  inner_product_param {
    num_output: 4000
    bias_term: true
    weight_filler {
      type: "uniform"
      min: -0.08
      max: 0.08
    }
    bias_filler {
      type: "constant"
      value: 0
    }
    axis: 2
  }
}
layer {
  name: "lstm2_W_xc_x_slice"
  type: "Slice"
  bottom: "W_xc_x"
  top: "W_xc_x_1"
  slice_param {
    axis: 0
  }
}
layer {
  name: "lstm2_h_conted_0"
  type: "Scale"
  bottom: "h_0"
  bottom: "cont_1"
  top: "h_conted_0"
  scale_param {
    axis: 0
  }
}
layer {
  name: "lstm2_transform_1"
  type: "InnerProduct"
  bottom: "h_conted_0"
  top: "W_hc_h_0"
  param {
    name: "W_hc"
  }
  inner_product_param {
    num_output: 4000
    bias_term: false
    weight_filler {
      type: "uniform"
      min: -0.08
      max: 0.08
    }
    axis: 2
  }
}
layer {
  name: "lstm2_gate_input_1"
  type: "Eltwise"
  bottom: "W_hc_h_0"
  bottom: "W_xc_x_1"
  top: "gate_input_1"
  eltwise_param {
    operation: SUM
  }
}
layer {
  name: "lstm2_unit_1"
  type: "LSTMUnit"
  bottom: "c_0"
  bottom: "gate_input_1"
  bottom: "cont_1"
  top: "c_1"
  top: "h_1"
}
layer {
  name: "lstm2_"
  type: "Split"
  bottom: "c_1"
  top: "c_T"
}
layer {
  name: "lstm2_h_concat"
  type: "Concat"
  bottom: "h_1"
  top: "h"
  concat_param {
    axis: 0
  }
}
layer {
  name: "h_pseudoloss"
  type: "Reduction"
  bottom: "h"
  top: "h_pseudoloss"
  loss_weight: 1
}
I0924 03:57:23.236094 13512 layer_factory.hpp:77] Creating layer lstm2_
I0924 03:57:23.236107 13512 net.cpp:91] Creating Layer lstm2_
I0924 03:57:23.236114 13512 net.cpp:399] lstm2_ -> x
I0924 03:57:23.236124 13512 net.cpp:399] lstm2_ -> cont
I0924 03:57:23.237141 13466 net.cpp:141] Setting up lstm1_
I0924 03:57:23.237162 13466 net.cpp:148] Top shape: 1 1 1000 (1000)
…
I0924 03:59:03.268187 13888 layer_factory.hpp:77] Creating layer lstm2_
I0924 03:59:03.268191 13840 net.cpp:156] Memory required for data: 66020
I0924 03:59:03.268213 13888 net.cpp:91] Creating Layer lstm2_
I0924 03:59:03.268211 13838 net.cpp:141] Setting up h_pseudoloss
I0924 03:59:03.268234 13888 net.cpp:399] lstm2_ -> c_0
I0924 03:59:03.268214 13840 layer_factory.hpp:77] Creating layer lstm2_gate_input_1
I0924 03:59:03.268245 13838 net.cpp:148] Top shape: (1)
I0924 03:59:03.268260 13888 net.cpp:399] lstm2_ -> h_0
I0924 03:59:03.268260 13838 net.cpp:151]     with loss weight 1
I0924 03:59:03.268260 13840 net.cpp:91] Creating Layer lstm2_gate_input_1
I0924 03:59:03.268288 13838 net.cpp:156] Memory required for data: 98024
I0924 03:59:03.268292 13840 net.cpp:425] lstm2_gate_input_1 <- W_hc_h_0
I0924 03:59:03.268298 13838 net.cpp:217] h_pseudoloss needs backward computation.
I0924 03:59:03.268303 13840 net.cpp:425] lstm2_gate_input_1 <- W_xc_x_1
I0924 03:59:03.268301 13834 net.cpp:141] Setting up lstm2_
I0924 03:59:03.268307 13838 net.cpp:217] lstm2_h_concat needs backward computation.
I0924 03:59:03.268328 13834 net.cpp:148] Top shape: 1 1 1501 (1501)
I0924 03:59:03.268334 13838 net.cpp:219] lstm2_ does not need backward computation.
I0924 03:59:03.268319 13840 net.cpp:399] lstm2_gate_input_1 -> gate_input_1
I0924 03:59:03.268345 13834 net.cpp:148] Top shape: 1 1 (1)
I0924 03:59:03.268344 13838 net.cpp:217] lstm2_unit_1 needs backward computation.
I0924 03:59:03.268354 13834 net.cpp:156] Memory required for data: 6008
I0924 03:59:03.268378 13838 net.cpp:217] lstm2_gate_input_1 needs backward computation.
I0924 03:59:03.268383 13834 layer_factory.hpp:77] Creating layer lstm2_
I0924 03:59:03.268388 13838 net.cpp:217] lstm2_transform_1 needs backward computation.
I0924 03:59:03.268398 13834 net.cpp:91] Creating Layer lstm2_
I0924 03:59:03.268398 13888 net.cpp:141] Setting up lstm2_
I0924 03:59:03.268414 13834 net.cpp:399] lstm2_ -> c_0
I0924 03:59:03.268399 13838 net.cpp:219] lstm2_h_conted_0 does not need backward computation.
I0924 03:59:03.268427 13840 net.cpp:141] Setting up lstm2_gate_input_1
I0924 03:59:03.268432 13838 net.cpp:217] lstm2_W_xc_x_slice needs backward computation.
I0924 03:59:03.268438 13834 net.cpp:399] lstm2_ -> h_0
I0924 03:59:03.268442 13838 net.cpp:217] lstm2_x_transform needs backward computation.
I0924 03:59:03.268442 13840 net.cpp:148] Top shape: 1 1 4000 (4000)
I0924 03:59:03.268457 13838 net.cpp:219] cont_1_lstm2_cont_slice_0_split does not need backward computation.
I0924 03:59:03.268461 13840 net.cpp:156] Memory required for data: 82020
I0924 03:59:03.268468 13838 net.cpp:219] lstm2_cont_slice does not need backward computation.
I0924 03:59:03.268477 13838 net.cpp:219] lstm2_ does not need backward computation.
I0924 03:59:03.268462 13888 net.cpp:148] Top shape: 1 1 1000 (1000)
I0924 03:59:03.268486 13838 net.cpp:219] lstm2_ does not need backward computation.
I0924 03:59:03.268486 13840 layer_factory.hpp:77] Creating layer lstm2_unit_1
I0924 03:59:03.268497 13838 net.cpp:261] This network produces output c_T
I0924 03:59:03.268507 13838 net.cpp:261] This network produces output h_pseudoloss
I0924 03:59:03.268509 13888 net.cpp:148] Top shape: 1 1 1000 (1000)
I0924 03:59:03.268512 13840 net.cpp:91] Creating Layer lstm2_unit_1
I0924 03:59:03.268518 13888 net.cpp:156] Memory required for data: 14008
I0924 03:59:03.268527 13834 net.cpp:141] Setting up lstm2_
I0924 03:59:03.268537 13838 net.cpp:274] Network initialization done.
I0924 03:59:03.268520 13840 net.cpp:425] lstm2_unit_1 <- c_0
I0924 03:59:03.270972 13888 layer_factory.hpp:77] Creating layer lstm2_cont_slice
I0924 03:59:03.270978 13840 net.cpp:425] lstm2_unit_1 <- gate_input_1
I0924 03:59:03.270989 13834 net.cpp:148] Top shape: 1 1 1000 (1000)
I0924 03:59:03.270997 13840 net.cpp:425] lstm2_unit_1 <- cont_1_lstm2_cont_slice_0_split_1
I0924 03:59:03.271003 13834 net.cpp:148] Top shape: 1 1 1000 (1000)
I0924 03:59:03.271009 13888 net.cpp:91] Creating Layer lstm2_cont_slice
I0924 03:59:03.271010 13840 net.cpp:399] lstm2_unit_1 -> c_1
I0924 03:59:03.271010 13834 net.cpp:156] Memory required for data: 14008
I0924 03:59:03.271044 13834 layer_factory.hpp:77] Creating layer lstm2_cont_slice
I0924 03:59:03.271046 13840 net.cpp:399] lstm2_unit_1 -> h_1
I0924 03:59:03.271054 13838 recurrent_layer.cpp:150] Adding parameter 0: W_xc
I0924 03:59:03.271061 13834 net.cpp:91] Creating Layer lstm2_cont_slice
I0924 03:59:03.271065 13838 recurrent_layer.cpp:150] Adding parameter 1: b_c
I0924 03:59:03.271073 13838 recurrent_layer.cpp:150] Adding parameter 2: W_hc
I0924 03:59:03.271060 13888 net.cpp:425] lstm2_cont_slice <- cont
I0924 03:59:03.271083 13834 net.cpp:425] lstm2_cont_slice <- cont
I0924 03:59:03.271100 13834 net.cpp:399] lstm2_cont_slice -> cont_1
I0924 03:59:03.271108 13888 net.cpp:399] lstm2_cont_slice -> cont_1
I0924 03:59:03.275904 13834 net.cpp:141] Setting up lstm2_cont_slice
I0924 03:59:03.275935 13888 net.cpp:141] Setting up lstm2_cont_slice
I0924 03:59:03.275979 13834 net.cpp:148] Top shape: 1 1 (1)
I0924 03:59:03.275984 13888 net.cpp:148] Top shape: 1 1 (1)
I0924 03:59:03.275990 13834 net.cpp:156] Memory required for data: 14012
I0924 03:59:03.275995 13888 net.cpp:156] Memory required for data: 14012
I0924 03:59:03.276002 13834 layer_factory.hpp:77] Creating layer cont_1_lstm2_cont_slice_0_split
I0924 03:59:03.276003 13888 layer_factory.hpp:77] Creating layer cont_1_lstm2_cont_slice_0_split
I0924 03:59:03.276029 13888 net.cpp:91] Creating Layer cont_1_lstm2_cont_slice_0_split
I0924 03:59:03.276038 13888 net.cpp:425] cont_1_lstm2_cont_slice_0_split <- cont_1
I0924 03:59:03.276041 13834 net.cpp:91] Creating Layer cont_1_lstm2_cont_slice_0_split
I0924 03:59:03.276051 13888 net.cpp:399] cont_1_lstm2_cont_slice_0_split -> cont_1_lstm2_cont_slice_0_split_0
I0924 03:59:03.276053 13834 net.cpp:425] cont_1_lstm2_cont_slice_0_split <- cont_1
I0924 03:59:03.276065 13888 net.cpp:399] cont_1_lstm2_cont_slice_0_split -> cont_1_lstm2_cont_slice_0_split_1
I0924 03:59:03.276068 13834 net.cpp:399] cont_1_lstm2_cont_slice_0_split -> cont_1_lstm2_cont_slice_0_split_0
I0924 03:59:03.276096 13834 net.cpp:399] cont_1_lstm2_cont_slice_0_split -> cont_1_lstm2_cont_slice_0_split_1
I0924 03:59:03.276172 13888 net.cpp:141] Setting up cont_1_lstm2_cont_slice_0_split
I0924 03:59:03.276185 13888 net.cpp:148] Top shape: 1 1 (1)
I0924 03:59:03.276192 13888 net.cpp:148] Top shape: 1 1 (1)
I0924 03:59:03.276201 13888 net.cpp:156] Memory required for data: 14020
I0924 03:59:03.276209 13888 layer_factory.hpp:77] Creating layer lstm2_x_transform
I0924 03:59:03.276231 13888 net.cpp:91] Creating Layer lstm2_x_transform
I0924 03:59:03.276228 13840 net.cpp:141] Setting up lstm2_unit_1
I0924 03:59:03.276237 13888 net.cpp:425] lstm2_x_transform <- x
I0924 03:59:03.276245 13840 net.cpp:148] Top shape: 1 1 1000 (1000)
I0924 03:59:03.276247 13888 net.cpp:399] lstm2_x_transform -> W_xc_x
I0924 03:59:03.276257 13840 net.cpp:148] Top shape: 1 1 1000 (1000)
I0924 03:59:03.276263 13840 net.cpp:156] Memory required for data: 90020
I0924 03:59:03.276271 13840 layer_factory.hpp:77] Creating layer lstm2_
I0924 03:59:03.276283 13840 net.cpp:91] Creating Layer lstm2_
I0924 03:59:03.276290 13840 net.cpp:425] lstm2_ <- c_1
I0924 03:59:03.276305 13840 net.cpp:399] lstm2_ -> c_T
I0924 03:59:03.276358 13838 net.cpp:141] Setting up lstm2
I0924 03:59:03.276376 13838 net.cpp:148] Top shape: 1 1 1000 (1000)
I0924 03:59:03.276384 13838 net.cpp:156] Memory required for data: 36412
I0924 03:59:03.276410 13838 layer_factory.hpp:77] Creating layer predict
I0924 03:59:03.276427 13838 net.cpp:91] Creating Layer predict
I0924 03:59:03.276437 13838 net.cpp:425] predict <- lstm2
I0924 03:59:03.276450 13838 net.cpp:399] predict -> predict
I0924 03:59:03.288872 13884 net.cpp:141] Setting up lstm2_h_conted_0
I0924 03:59:03.288908 13840 net.cpp:141] Setting up lstm2_
I0924 03:59:03.288951 13840 net.cpp:148] Top shape: 1 1 1000 (1000)
I0924 03:59:03.288954 13884 net.cpp:148] Top shape: 1 1 1000 (1000)
I0924 03:59:03.288960 13840 net.cpp:156] Memory required for data: 94020
I0924 03:59:03.288978 13884 net.cpp:156] Memory required for data: 50020
I0924 03:59:03.288983 13840 layer_factory.hpp:77] Creating layer lstm2_h_concat
I0924 03:59:03.289012 13884 layer_factory.hpp:77] Creating layer lstm2_transform_1
I0924 03:59:03.289026 13840 net.cpp:91] Creating Layer lstm2_h_concat
I0924 03:59:03.289036 13840 net.cpp:425] lstm2_h_concat <- h_1
I0924 03:59:03.289048 13884 net.cpp:91] Creating Layer lstm2_transform_1
I0924 03:59:03.289053 13840 net.cpp:399] lstm2_h_concat -> h
I0924 03:59:03.289079 13884 net.cpp:425] lstm2_transform_1 <- h_conted_0
I0924 03:59:03.289149 13884 net.cpp:399] lstm2_transform_1 -> W_hc_h_0
I0924 03:59:03.370287 13840 net.cpp:141] Setting up lstm2_h_concat
I0924 03:59:03.370344 13840 net.cpp:148] Top shape: 1 1 1000 (1000)
I0924 03:59:03.370354 13840 net.cpp:156] Memory required for data: 98020
I0924 03:59:03.370365 13840 layer_factory.hpp:77] Creating layer h_pseudoloss
I0924 03:59:03.370394 13840 net.cpp:91] Creating Layer h_pseudoloss
I0924 03:59:03.370404 13840 net.cpp:425] h_pseudoloss <- h
I0924 03:59:03.370422 13840 net.cpp:399] h_pseudoloss -> h_pseudoloss
I0924 03:59:03.370436 13834 net.cpp:141] Setting up cont_1_lstm2_cont_slice_0_split
I0924 03:59:03.370471 13834 net.cpp:148] Top shape: 1 1 (1)
I0924 03:59:03.370492 13834 net.cpp:148] Top shape: 1 1 (1)
I0924 03:59:03.370507 13834 net.cpp:156] Memory required for data: 14020
I0924 03:59:03.370522 13834 layer_factory.hpp:77] Creating layer lstm2_x_transform
I0924 03:59:03.370563 13834 net.cpp:91] Creating Layer lstm2_x_transform
I0924 03:59:03.370581 13834 net.cpp:425] lstm2_x_transform <- x
I0924 03:59:03.370584 13840 net.cpp:141] Setting up h_pseudoloss
I0924 03:59:03.370632 13840 net.cpp:148] Top shape: (1)
…
I0924 03:59:03.370765 13840 net.cpp:219] lstm2_cont_slice does not need backward computation.
I0924 03:59:03.370771 13840 net.cpp:219] lstm2_ does not need backward computation.
I0924 03:59:03.370775 13840 net.cpp:219] lstm2_ does not need backward computation.
I0924 03:59:03.370779 13840 net.cpp:261] This network produces output c_T
I0924 03:59:03.370784 13840 net.cpp:261] This network produces output h_pseudoloss
I0924 03:59:03.370802 13840 net.cpp:274] Network initialization done.
I0924 03:59:03.370836 13888 net.cpp:141] Setting up lstm2_x_transform
I0924 03:59:03.370857 13888 net.cpp:148] Top shape: 1 1 4000 (4000)
I0924 03:59:03.370864 13888 net.cpp:156] Memory required for data: 30020
I0924 03:59:03.370872 13840 recurrent_layer.cpp:150] Adding parameter 0: W_xc
I0924 03:59:03.370884 13840 recurrent_layer.cpp:150] Adding parameter 1: b_c
I0924 03:59:03.370887 13888 layer_factory.hpp:77] Creating layer lstm2_W_xc_x_slice
I0924 03:59:03.370892 13840 recurrent_layer.cpp:150] Adding parameter 2: W_hc
I0924 03:59:03.370944 13888 net.cpp:91] Creating Layer lstm2_W_xc_x_slice
I0924 03:59:03.370961 13888 net.cpp:425] lstm2_W_xc_x_slice <- W_xc_x
I0924 03:59:03.370980 13888 net.cpp:399] lstm2_W_xc_x_slice -> W_xc_x_1
I0924 03:59:03.379333 13888 net.cpp:141] Setting up lstm2_W_xc_x_slice
I0924 03:59:03.379396 13888 net.cpp:148] Top shape: 1 1 4000 (4000)
I0924 03:59:03.379402 13888 net.cpp:156] Memory required for data: 46020
I0924 03:59:03.379411 13888 layer_factory.hpp:77] Creating layer lstm2_h_conted_0
I0924 03:59:03.379416 13858 net.cpp:141] Setting up predict
I0924 03:59:03.379436 13858 net.cpp:148] Top shape: 1 1 46168 (46168)
I0924 03:59:03.379436 13888 net.cpp:91] Creating Layer lstm2_h_conted_0
I0924 03:59:03.379441 13858 net.cpp:156] Memory required for data: 221084
I0924 03:59:03.379446 13888 net.cpp:425] lstm2_h_conted_0 <- h_0
I0924 03:59:03.379456 13888 net.cpp:425] lstm2_h_conted_0 <- cont_1_lstm2_cont_slice_0_split_0
I0924 03:59:03.379456 13858 layer_factory.hpp:77] Creating layer probs
I0924 03:59:03.379482 13858 net.cpp:91] Creating Layer probs
I0924 03:59:03.379488 13858 net.cpp:425] probs <- predict
I0924 03:59:03.379498 13858 net.cpp:399] probs -> probs
I0924 03:59:03.379535 13888 net.cpp:399] lstm2_h_conted_0 -> h_conted_0
I0924 03:59:03.390863 13840 net.cpp:141] Setting up lstm2
I0924 03:59:03.390920 13840 net.cpp:148] Top shape: 1 1 1000 (1000)
I0924 03:59:03.390928 13840 net.cpp:156] Memory required for data: 36412
I0924 03:59:03.390955 13840 layer_factory.hpp:77] Creating layer predict
I0924 03:59:03.390981 13840 net.cpp:91] Creating Layer predict
I0924 03:59:03.390990 13840 net.cpp:425] predict <- lstm2
I0924 03:59:03.391002 13840 net.cpp:399] predict -> predict
I0924 03:59:03.391016 13888 net.cpp:141] Setting up lstm2_h_conted_0
I0924 03:59:03.391063 13888 net.cpp:148] Top shape: 1 1 1000 (1000)
I0924 03:59:03.391069 13888 net.cpp:156] Memory required for data: 50020
I0924 03:59:03.391078 13888 layer_factory.hpp:77] Creating layer lstm2_transform_1
I0924 03:59:03.391103 13888 net.cpp:91] Creating Layer lstm2_transform_1
I0924 03:59:03.391111 13888 net.cpp:425] lstm2_transform_1 <- h_conted_0
I0924 03:59:03.391125 13888 net.cpp:399] lstm2_transform_1 -> W_hc_h_0
I0924 03:59:03.471194 13884 net.cpp:141] Setting up lstm2_transform_1
I0924 03:59:03.471249 13884 net.cpp:148] Top shape: 1 1 4000 (4000)
I0924 03:59:03.471256 13884 net.cpp:156] Memory required for data: 66020
I0924 03:59:03.471276 13884 layer_factory.hpp:77] Creating layer lstm2_gate_input_1
I0924 03:59:03.471294 13884 net.cpp:91] Creating Layer lstm2_gate_input_1
I0924 03:59:03.471302 13884 net.cpp:425] lstm2_gate_input_1 <- W_hc_h_0
I0924 03:59:03.471310 13884 net.cpp:425] lstm2_gate_input_1 <- W_xc_x_1
I0924 03:59:03.471323 13884 net.cpp:399] lstm2_gate_input_1 -> gate_input_1
I0924 03:59:03.471400 13884 net.cpp:141] Setting up lstm2_gate_input_1
I0924 03:59:03.471410 13884 net.cpp:148] Top shape: 1 1 4000 (4000)
I0924 03:59:03.471415 13884 net.cpp:156] Memory required for data: 82020
I0924 03:59:03.471420 13884 layer_factory.hpp:77] Creating layer lstm2_unit_1
I0924 03:59:03.471429 13884 net.cpp:91] Creating Layer lstm2_unit_1
I0924 03:59:03.471434 13884 net.cpp:425] lstm2_unit_1 <- c_0
I0924 03:59:03.471439 13884 net.cpp:425] lstm2_unit_1 <- gate_input_1
I0924 03:59:03.471446 13884 net.cpp:425] lstm2_unit_1 <- cont_1_lstm2_cont_slice_0_split_1
I0924 03:59:03.471451 13884 net.cpp:399] lstm2_unit_1 -> c_1
I0924 03:59:03.471463 13884 net.cpp:399] lstm2_unit_1 -> h_1
I0924 03:59:03.480406 13834 net.cpp:141] Setting up lstm2_x_transform
I0924 03:59:03.480430 13884 net.cpp:141] Setting up lstm2_unit_1
I0924 03:59:03.480451 13834 net.cpp:148] Top shape: 1 1 4000 (4000)
I0924 03:59:03.480458 13834 net.cpp:156] Memory required for data: 30020
I0924 03:59:03.480458 13884 net.cpp:148] Top shape: 1 1 1000 (1000)
I0924 03:59:03.480466 13884 net.cpp:148] Top shape: 1 1 1000 (1000)
I0924 03:59:03.480470 13884 net.cpp:156] Memory required for data: 90020
I0924 03:59:03.480476 13834 layer_factory.hpp:77] Creating layer lstm2_W_xc_x_slice
I0924 03:59:03.480478 13884 layer_factory.hpp:77] Creating layer lstm2_
I0924 03:59:03.480494 13834 net.cpp:91] Creating Layer lstm2_W_xc_x_slice
I0924 03:59:03.480494 13884 net.cpp:91] Creating Layer lstm2_
I0924 03:59:03.480501 13884 net.cpp:425] lstm2_ <- c_1
I0924 03:59:03.480501 13834 net.cpp:425] lstm2_W_xc_x_slice <- W_xc_x
I0924 03:59:03.480511 13884 net.cpp:399] lstm2_ -> c_T
I0924 03:59:03.480511 13834 net.cpp:399] lstm2_W_xc_x_slice -> W_xc_x_1
I0924 03:59:03.480593 13876 net.cpp:141] Setting up predict
I0924 03:59:03.480636 13876 net.cpp:148] Top shape: 1 1 46168 (46168)
I0924 03:59:03.480643 13876 net.cpp:156] Memory required for data: 221084
I0924 03:59:03.480654 13834 net.cpp:141] Setting up lstm2_W_xc_x_slice
I0924 03:59:03.480656 13876 layer_factory.hpp:77] Creating layer probs
I0924 03:59:03.480671 13834 net.cpp:148] Top shape: 1 1 4000 (4000)
I0924 03:59:03.480690 13834 net.cpp:156] Memory required for data: 46020
I0924 03:59:03.480690 13884 net.cpp:141] Setting up lstm2_
I0924 03:59:03.480695 13876 net.cpp:91] Creating Layer probs
I0924 03:59:03.480700 13884 net.cpp:148] Top shape: 1 1 1000 (1000)
I0924 03:59:03.480695 13834 layer_factory.hpp:77] Creating layer lstm2_h_conted_0
I0924 03:59:03.480706 13884 net.cpp:156] Memory required for data: 94020
I0924 03:59:03.480707 13876 net.cpp:425] probs <- predict
I0924 03:59:03.480718 13834 net.cpp:91] Creating Layer lstm2_h_conted_0
I0924 03:59:03.480716 13884 layer_factory.hpp:77] Creating layer lstm2_h_concat
I0924 03:59:03.480726 13834 net.cpp:425] lstm2_h_conted_0 <- h_0
I0924 03:59:03.480732 13876 net.cpp:399] probs -> probs
I0924 03:59:03.480739 13834 net.cpp:425] lstm2_h_conted_0 <- cont_1_lstm2_cont_slice_0_split_0
I0924 03:59:03.480739 13884 net.cpp:91] Creating Layer lstm2_h_concat
I0924 03:59:03.480752 13884 net.cpp:425] lstm2_h_concat <- h_1
I0924 03:59:03.480752 13834 net.cpp:399] lstm2_h_conted_0 -> h_conted_0
I0924 03:59:03.480767 13884 net.cpp:399] lstm2_h_concat -> h
I0924 03:59:03.484786 13884 net.cpp:141] Setting up lstm2_h_concat
I0924 03:59:03.484830 13884 net.cpp:148] Top shape: 1 1 1000 (1000)
I0924 03:59:03.484838 13884 net.cpp:156] Memory required for data: 98020
I0924 03:59:03.484845 13884 layer_factory.hpp:77] Creating layer h_pseudoloss
I0924 03:59:03.484872 13884 net.cpp:91] Creating Layer h_pseudoloss
I0924 03:59:03.484882 13884 net.cpp:425] h_pseudoloss <- h
I0924 03:59:03.484894 13884 net.cpp:399] h_pseudoloss -> h_pseudoloss
I0924 03:59:03.484925 13834 net.cpp:141] Setting up lstm2_h_conted_0
I0924 03:59:03.484946 13834 net.cpp:148] Top shape: 1 1 1000 (1000)
I0924 03:59:03.484951 13834 net.cpp:156] Memory required for data: 50020
I0924 03:59:03.484956 13834 layer_factory.hpp:77] Creating layer lstm2_transform_1
I0924 03:59:03.484972 13834 net.cpp:91] Creating Layer lstm2_transform_1
I0924 03:59:03.484978 13834 net.cpp:425] lstm2_transform_1 <- h_conted_0
I0924 03:59:03.484988 13834 net.cpp:399] lstm2_transform_1 -> W_hc_h_0
I0924 03:59:03.485059 13884 net.cpp:141] Setting up h_pseudoloss
…
I0924 03:59:03.485224 13884 net.cpp:219] lstm2_ does not need backward computation.
I0924 03:59:03.485230 13884 net.cpp:261] This network produces output c_T
I0924 03:59:03.485239 13884 net.cpp:261] This network produces output h_pseudoloss
I0924 03:59:03.485270 13884 net.cpp:274] Network initialization done.
I0924 03:59:03.485365 13884 recurrent_layer.cpp:150] Adding parameter 0: W_xc
I0924 03:59:03.485388 13884 recurrent_layer.cpp:150] Adding parameter 1: b_c
I0924 03:59:03.485396 13884 recurrent_layer.cpp:150] Adding parameter 2: W_hc
I0924 03:59:03.493196 13884 net.cpp:141] Setting up lstm2
I0924 03:59:03.493254 13884 net.cpp:148] Top shape: 1 1 1000 (1000)
I0924 03:59:03.493263 13884 net.cpp:156] Memory required for data: 36412
I0924 03:59:03.493295 13884 layer_factory.hpp:77] Creating layer predict
I0924 03:59:03.493322 13884 net.cpp:91] Creating Layer predict
I0924 03:59:03.493335 13884 net.cpp:425] predict <- lstm2
I0924 03:59:03.493351 13884 net.cpp:399] predict -> predict
I0924 03:59:03.576261 13888 net.cpp:141] Setting up lstm2_transform_1
I0924 03:59:03.576326 13888 net.cpp:148] Top shape: 1 1 4000 (4000)
I0924 03:59:03.576333 13834 net.cpp:141] Setting up lstm2_transform_1
I0924 03:59:03.576339 13888 net.cpp:156] Memory required for data: 66020
I0924 03:59:03.576362 13834 net.cpp:148] Top shape: 1 1 4000 (4000)
I0924 03:59:03.576369 13834 net.cpp:156] Memory required for data: 66020
I0924 03:59:03.576381 13834 layer_factory.hpp:77] Creating layer lstm2_gate_input_1
I0924 03:59:03.576382 13888 layer_factory.hpp:77] Creating layer lstm2_gate_input_1
I0924 03:59:03.576400 13834 net.cpp:91] Creating Layer lstm2_gate_input_1
I0924 03:59:03.576408 13834 net.cpp:425] lstm2_gate_input_1 <- W_hc_h_0
I0924 03:59:03.576411 13888 net.cpp:91] Creating Layer lstm2_gate_input_1
I0924 03:59:03.576416 13834 net.cpp:425] lstm2_gate_input_1 <- W_xc_x_1
I0924 03:59:03.576421 13888 net.cpp:425] lstm2_gate_input_1 <- W_hc_h_0
I0924 03:59:03.576424 13834 net.cpp:399] lstm2_gate_input_1 -> gate_input_1
I0924 03:59:03.576433 13888 net.cpp:425] lstm2_gate_input_1 <- W_xc_x_1
I0924 03:59:03.576452 13888 net.cpp:399] lstm2_gate_input_1 -> gate_input_1
I0924 03:59:03.579546 13834 net.cpp:141] Setting up lstm2_gate_input_1
I0924 03:59:03.579568 13834 net.cpp:148] Top shape: 1 1 4000 (4000)
I0924 03:59:03.579574 13834 net.cpp:156] Memory required for data: 82020
I0924 03:59:03.579579 13834 layer_factory.hpp:77] Creating layer lstm2_unit_1
I0924 03:59:03.579593 13834 net.cpp:91] Creating Layer lstm2_unit_1
I0924 03:59:03.579589 13888 net.cpp:141] Setting up lstm2_gate_input_1
I0924 03:59:03.579598 13834 net.cpp:425] lstm2_unit_1 <- c_0
I0924 03:59:03.579607 13834 net.cpp:425] lstm2_unit_1 <- gate_input_1
I0924 03:59:03.579612 13888 net.cpp:148] Top shape: 1 1 4000 (4000)
I0924 03:59:03.579630 13888 net.cpp:156] Memory required for data: 82020
I0924 03:59:03.579640 13888 layer_factory.hpp:77] Creating layer lstm2_unit_1
I0924 03:59:03.579612 13834 net.cpp:425] lstm2_unit_1 <- cont_1_lstm2_cont_slice_0_split_1
I0924 03:59:03.579660 13888 net.cpp:91] Creating Layer lstm2_unit_1
I0924 03:59:03.579663 13834 net.cpp:399] lstm2_unit_1 -> c_1
I0924 03:59:03.579679 13888 net.cpp:425] lstm2_unit_1 <- c_0
I0924 03:59:03.579690 13834 net.cpp:399] lstm2_unit_1 -> h_1
I0924 03:59:03.579694 13888 net.cpp:425] lstm2_unit_1 <- gate_input_1
I0924 03:59:03.579712 13844 net.cpp:141] Setting up predict
I0924 03:59:03.579720 13888 net.cpp:425] lstm2_unit_1 <- cont_1_lstm2_cont_slice_0_split_1
I0924 03:59:03.579737 13844 net.cpp:148] Top shape: 1 1 46168 (46168)
I0924 03:59:03.579744 13844 net.cpp:156] Memory required for data: 221084
I0924 03:59:03.579747 13888 net.cpp:399] lstm2_unit_1 -> c_1
I0924 03:59:03.579759 13844 layer_factory.hpp:77] Creating layer probs
I0924 03:59:03.579768 13888 net.cpp:399] lstm2_unit_1 -> h_1
I0924 03:59:03.579774 13844 net.cpp:91] Creating Layer probs
I0924 03:59:03.579784 13844 net.cpp:425] probs <- predict
I0924 03:59:03.579797 13844 net.cpp:399] probs -> probs
I0924 03:59:03.579799 13834 net.cpp:141] Setting up lstm2_unit_1
I0924 03:59:03.579813 13834 net.cpp:148] Top shape: 1 1 1000 (1000)
I0924 03:59:03.579819 13834 net.cpp:148] Top shape: 1 1 1000 (1000)
I0924 03:59:03.579823 13834 net.cpp:156] Memory required for data: 90020
I0924 03:59:03.579828 13834 layer_factory.hpp:77] Creating layer lstm2_
I0924 03:59:03.579838 13834 net.cpp:91] Creating Layer lstm2_
I0924 03:59:03.579843 13834 net.cpp:425] lstm2_ <- c_1
I0924 03:59:03.579850 13834 net.cpp:399] lstm2_ -> c_T
I0924 03:59:03.579939 13888 net.cpp:141] Setting up lstm2_unit_1
I0924 03:59:03.579958 13888 net.cpp:148] Top shape: 1 1 1000 (1000)
I0924 03:59:03.579970 13834 net.cpp:141] Setting up lstm2_
I0924 03:59:03.579972 13888 net.cpp:148] Top shape: 1 1 1000 (1000)
I0924 03:59:03.579988 13834 net.cpp:148] Top shape: 1 1 1000 (1000)
I0924 03:59:03.579991 13888 net.cpp:156] Memory required for data: 90020
I0924 03:59:03.579993 13834 net.cpp:156] Memory required for data: 94020
I0924 03:59:03.580008 13834 layer_factory.hpp:77] Creating layer lstm2_h_concat
I0924 03:59:03.580008 13888 layer_factory.hpp:77] Creating layer lstm2_
I0924 03:59:03.580023 13834 net.cpp:91] Creating Layer lstm2_h_concat
I0924 03:59:03.580027 13834 net.cpp:425] lstm2_h_concat <- h_1
I0924 03:59:03.580024 13888 net.cpp:91] Creating Layer lstm2_
I0924 03:59:03.580036 13834 net.cpp:399] lstm2_h_concat -> h
I0924 03:59:03.580040 13888 net.cpp:425] lstm2_ <- c_1
I0924 03:59:03.580060 13888 net.cpp:399] lstm2_ -> c_T
I0924 03:59:03.580626 13834 net.cpp:141] Setting up lstm2_h_concat
I0924 03:59:03.580636 13834 net.cpp:148] Top shape: 1 1 1000 (1000)
I0924 03:59:03.580639 13834 net.cpp:156] Memory required for data: 98020
I0924 03:59:03.580644 13834 layer_factory.hpp:77] Creating layer h_pseudoloss
I0924 03:59:03.580654 13834 net.cpp:91] Creating Layer h_pseudoloss
I0924 03:59:03.580658 13834 net.cpp:425] h_pseudoloss <- h
I0924 03:59:03.580668 13834 net.cpp:399] h_pseudoloss -> h_pseudoloss
I0924 03:59:03.580682 13888 net.cpp:141] Setting up lstm2_
I0924 03:59:03.580701 13888 net.cpp:148] Top shape: 1 1 1000 (1000)
I0924 03:59:03.580711 13888 net.cpp:156] Memory required for data: 94020
I0924 03:59:03.580724 13888 layer_factory.hpp:77] Creating layer lstm2_h_concat
I0924 03:59:03.580742 13888 net.cpp:91] Creating Layer lstm2_h_concat
I0924 03:59:03.580752 13888 net.cpp:425] lstm2_h_concat <- h_1
I0924 03:59:03.580767 13888 net.cpp:399] lstm2_h_concat -> h
I0924 03:59:03.580806 13834 net.cpp:141] Setting up h_pseudoloss
…
I0924 03:59:03.583621 13888 net.cpp:219] lstm2_ does not need backward computation.
I0924 03:59:03.583628 13888 net.cpp:261] This network produces output c_T
I0924 03:59:03.583638 13888 net.cpp:261] This network produces output h_pseudoloss
I0924 03:59:03.583668 13888 net.cpp:274] Network initialization done.
I0924 03:59:03.583755 13888 recurrent_layer.cpp:150] Adding parameter 0: W_xc
I0924 03:59:03.583766 13888 recurrent_layer.cpp:150] Adding parameter 1: b_c
I0924 03:59:03.583776 13888 recurrent_layer.cpp:150] Adding parameter 2: W_hc
I0924 03:59:03.672211 13888 net.cpp:141] Setting up lstm2
I0924 03:59:03.672269 13888 net.cpp:148] Top shape: 1 1 1000 (1000)
I0924 03:59:03.672278 13888 net.cpp:156] Memory required for data: 36412
I0924 03:59:03.672310 13888 layer_factory.hpp:77] Creating layer predict
I0924 03:59:03.672335 13888 net.cpp:91] Creating Layer predict
I0924 03:59:03.672348 13888 net.cpp:425] predict <- lstm2
I0924 03:59:03.672363 13888 net.cpp:399] predict -> predict
I0924 03:59:03.672438 13852 net.cpp:141] Setting up predict
I0924 03:59:03.672480 13852 net.cpp:148] Top shape: 1 1 46168 (46168)
I0924 03:59:03.672487 13852 net.cpp:156] Memory required for data: 221084
I0924 03:59:03.672500 13852 layer_factory.hpp:77] Creating layer probs
I0924 03:59:03.672518 13852 net.cpp:91] Creating Layer probs
I0924 03:59:03.672526 13852 net.cpp:425] probs <- predict
I0924 03:59:03.672536 13852 net.cpp:399] probs -> probs
I0924 03:59:03.755756 13838 net.cpp:141] Setting up predict
I0924 03:59:03.755805 13838 net.cpp:148] Top shape: 1 1 46168 (46168)
I0924 03:59:03.755811 13838 net.cpp:156] Memory required for data: 221084
I0924 03:59:03.755825 13838 layer_factory.hpp:77] Creating layer probs
I0924 03:59:03.755853 13838 net.cpp:91] Creating Layer probs
I0924 03:59:03.755861 13838 net.cpp:425] probs <- predict
I0924 03:59:03.755870 13838 net.cpp:399] probs -> probs
I0924 03:59:03.845062 13840 net.cpp:141] Setting up predict
I0924 03:59:03.845111 13840 net.cpp:148] Top shape: 1 1 46168 (46168)
I0924 03:59:03.845116 13840 net.cpp:156] Memory required for data: 221084
I0924 03:59:03.845130 13840 layer_factory.hpp:77] Creating layer probs
I0924 03:59:03.845145 13840 net.cpp:91] Creating Layer probs
I0924 03:59:03.845152 13840 net.cpp:425] probs <- predict
I0924 03:59:03.845162 13840 net.cpp:399] probs -> probs
I0924 03:59:03.863724 13838 net.cpp:141] Setting up probs
I0924 03:59:03.863775 13838 net.cpp:148] Top shape: 1 1 46168 (46168)
I0924 03:59:03.863785 13838 net.cpp:156] Memory required for data: 405756
I0924 03:59:03.863798 13838 net.cpp:219] probs does not need backward computation.
I0924 03:59:03.863811 13838 net.cpp:219] predict does not need backward computation.
I0924 03:59:03.863819 13838 net.cpp:219] lstm2 does not need backward computation.
I0924 03:59:03.863829 13838 net.cpp:219] concat does not need backward computation.
I0924 03:59:03.863839 13838 net.cpp:219] lstm1 does not need backward computation.
I0924 03:59:03.863848 13838 net.cpp:219] embedding does not need backward computation.
I0924 03:59:03.863853 13838 net.cpp:219] reshape_stage_indicator does not need backward computation.
I0924 03:59:03.863858 13838 net.cpp:219] reshape_frames does not need backward computation.
I0924 03:59:03.863870 13838 net.cpp:219] embed_encoder does not need backward computation.
I0924 03:59:03.863879 13838 net.cpp:219] cont_sentence_input_1_split does not need backward computation.
I0924 03:59:03.863885 13838 net.cpp:219] input does not need backward computation.
I0924 03:59:03.863890 13838 net.cpp:261] This network produces output probs
I0924 03:59:03.863908 13838 net.cpp:274] Network initialization done.
I0924 03:59:03.865401 13844 net.cpp:141] Setting up probs
I0924 03:59:03.865422 13844 net.cpp:148] Top shape: 1 1 46168 (46168)
I0924 03:59:03.865428 13844 net.cpp:156] Memory required for data: 405756
I0924 03:59:03.865434 13844 net.cpp:219] probs does not need backward computation.
I0924 03:59:03.865442 13844 net.cpp:219] predict does not need backward computation.
I0924 03:59:03.865453 13844 net.cpp:219] lstm2 does not need backward computation.
I0924 03:59:03.865463 13844 net.cpp:219] concat does not need backward computation.
I0924 03:59:03.865468 13844 net.cpp:219] lstm1 does not need backward computation.
I0924 03:59:03.865474 13844 net.cpp:219] embedding does not need backward computation.
I0924 03:59:03.865480 13844 net.cpp:219] reshape_stage_indicator does not need backward computation.
I0924 03:59:03.865489 13844 net.cpp:219] reshape_frames does not need backward computation.
I0924 03:59:03.865492 13840 net.cpp:141] Setting up probs
I0924 03:59:03.865497 13844 net.cpp:219] embed_encoder does not need backward computation.
I0924 03:59:03.865517 13840 net.cpp:148] Top shape: 1 1 46168 (46168)
I0924 03:59:03.865520 13844 net.cpp:219] cont_sentence_input_1_split does not need backward computation.
I0924 03:59:03.865526 13840 net.cpp:156] Memory required for data: 405756
I0924 03:59:03.865530 13844 net.cpp:219] input does not need backward computation.
I0924 03:59:03.865536 13840 net.cpp:219] probs does not need backward computation.
I0924 03:59:03.865537 13844 net.cpp:261] This network produces output probs
I0924 03:59:03.865550 13840 net.cpp:219] predict does not need backward computation.
I0924 03:59:03.865559 13840 net.cpp:219] lstm2 does not need backward computation.
I0924 03:59:03.865569 13840 net.cpp:219] concat does not need backward computation.
I0924 03:59:03.865581 13840 net.cpp:219] lstm1 does not need backward computation.
I0924 03:59:03.865577 13844 net.cpp:274] Network initialization done.
I0924 03:59:03.865594 13840 net.cpp:219] embedding does not need backward computation.
I0924 03:59:03.865594 13876 net.cpp:141] Setting up probs
I0924 03:59:03.865604 13840 net.cpp:219] reshape_stage_indicator does not need backward computation.
I0924 03:59:03.865623 13840 net.cpp:219] reshape_frames does not need backward computation.
I0924 03:59:03.865624 13876 net.cpp:148] Top shape: 1 1 46168 (46168)
I0924 03:59:03.865639 13840 net.cpp:219] embed_encoder does not need backward computation.
I0924 03:59:03.865644 13876 net.cpp:156] Memory required for data: 405756
I0924 03:59:03.865649 13840 net.cpp:219] cont_sentence_input_1_split does not need backward computation.
I0924 03:59:03.865655 13876 net.cpp:219] probs does not need backward computation.
I0924 03:59:03.865659 13840 net.cpp:219] input does not need backward computation.
…
I0924 03:59:03.865730 13876 net.cpp:219] reshape_frames does not need backward computation.
I0924 03:59:03.865741 13876 net.cpp:219] embed_encoder does not need backward computation.
I0924 03:59:03.865749 13876 net.cpp:219] cont_sentence_input_1_split does not need backward computation.
I0924 03:59:03.865756 13876 net.cpp:219] input does not need backward computation.
I0924 03:59:03.865759 13876 net.cpp:261] This network produces output probs
I0924 03:59:03.865794 13876 net.cpp:274] Network initialization done.
I0924 03:59:03.865864 13858 net.cpp:141] Setting up probs
I0924 03:59:03.865883 13858 net.cpp:148] Top shape: 1 1 46168 (46168)
I0924 03:59:03.865891 13858 net.cpp:156] Memory required for data: 405756
I0924 03:59:03.865900 13858 net.cpp:219] probs does not need backward computation.
I0924 03:59:03.865909 13858 net.cpp:219] predict does not need backward computation.
I0924 03:59:03.865918 13858 net.cpp:219] lstm2 does not need backward computation.
I0924 03:59:03.865928 13858 net.cpp:219] concat does not need backward computation.
I0924 03:59:03.865939 13858 net.cpp:219] lstm1 does not need backward computation.
I0924 03:59:03.865949 13858 net.cpp:219] embedding does not need backward computation.
I0924 03:59:03.865959 13858 net.cpp:219] reshape_stage_indicator does not need backward computation.
I0924 03:59:03.865969 13858 net.cpp:219] reshape_frames does not need backward computation.
I0924 03:59:03.865978 13858 net.cpp:219] embed_encoder does not need backward computation.
I0924 03:59:03.865988 13858 net.cpp:219] cont_sentence_input_1_split does not need backward computation.
I0924 03:59:03.866000 13858 net.cpp:219] input does not need backward computation.
I0924 03:59:03.866008 13858 net.cpp:261] This network produces output probs
I0924 03:59:03.866026 13852 net.cpp:141] Setting up probs
I0924 03:59:03.866032 13858 net.cpp:274] Network initialization done.
I0924 03:59:03.866051 13852 net.cpp:148] Top shape: 1 1 46168 (46168)
I0924 03:59:03.866058 13852 net.cpp:156] Memory required for data: 405756
I0924 03:59:03.866065 13852 net.cpp:219] probs does not need backward computation.
I0924 03:59:03.866070 13852 net.cpp:219] predict does not need backward computation.
I0924 03:59:03.866075 13852 net.cpp:219] lstm2 does not need backward computation.
I0924 03:59:03.866080 13852 net.cpp:219] concat does not need backward computation.
I0924 03:59:03.866087 13852 net.cpp:219] lstm1 does not need backward computation.
I0924 03:59:03.866097 13852 net.cpp:219] embedding does not need backward computation.
I0924 03:59:03.866106 13852 net.cpp:219] reshape_stage_indicator does not need backward computation.
I0924 03:59:03.866111 13852 net.cpp:219] reshape_frames does not need backward computation.
I0924 03:59:03.866116 13852 net.cpp:219] embed_encoder does not need backward computation.
I0924 03:59:03.866120 13852 net.cpp:219] cont_sentence_input_1_split does not need backward computation.
I0924 03:59:03.866127 13852 net.cpp:219] input does not need backward computation.
I0924 03:59:03.866130 13852 net.cpp:261] This network produces output probs
I0924 03:59:03.866147 13852 net.cpp:274] Network initialization done.
I0924 03:59:03.867558 13860 net.cpp:141] Setting up conv1
I0924 03:59:03.867594 13860 net.cpp:148] Top shape: 10 96 55 55 (2904000)
I0924 03:59:03.867606 13860 net.cpp:156] Memory required for data: 17799480
I0924 03:59:03.867636 13860 layer_factory.hpp:77] Creating layer relu1
I0924 03:59:03.867657 13860 net.cpp:91] Creating Layer relu1
I0924 03:59:03.867668 13860 net.cpp:425] relu1 <- conv1
I0924 03:59:03.867681 13860 net.cpp:386] relu1 -> conv1 (in-place)
I0924 03:59:03.868559 13860 net.cpp:141] Setting up relu1
I0924 03:59:03.868578 13860 net.cpp:148] Top shape: 10 96 55 55 (2904000)
I0924 03:59:03.868587 13860 net.cpp:156] Memory required for data: 29415480
I0924 03:59:03.868597 13860 layer_factory.hpp:77] Creating layer pool1
I0924 03:59:03.868618 13860 net.cpp:91] Creating Layer pool1
I0924 03:59:03.868626 13860 net.cpp:425] pool1 <- conv1
I0924 03:59:03.868639 13860 net.cpp:399] pool1 -> pool1
I0924 03:59:03.868809 13860 net.cpp:141] Setting up pool1
I0924 03:59:03.868827 13860 net.cpp:148] Top shape: 10 96 27 27 (699840)
I0924 03:59:03.868834 13860 net.cpp:156] Memory required for data: 32214840
I0924 03:59:03.868842 13860 layer_factory.hpp:77] Creating layer norm1
I0924 03:59:03.868867 13860 net.cpp:91] Creating Layer norm1
I0924 03:59:03.868875 13860 net.cpp:425] norm1 <- pool1
I0924 03:59:03.868902 13860 net.cpp:399] norm1 -> norm1
I0924 03:59:03.869807 13860 net.cpp:141] Setting up norm1
I0924 03:59:03.869829 13860 net.cpp:148] Top shape: 10 96 27 27 (699840)
I0924 03:59:03.869838 13860 net.cpp:156] Memory required for data: 35014200
I0924 03:59:03.869851 13860 layer_factory.hpp:77] Creating layer conv2
I0924 03:59:03.869902 13860 net.cpp:91] Creating Layer conv2
I0924 03:59:03.869913 13860 net.cpp:425] conv2 <- norm1
I0924 03:59:03.869931 13860 net.cpp:399] conv2 -> conv2
I0924 03:59:03.894204 13860 net.cpp:141] Setting up conv2
I0924 03:59:03.894752 13860 net.cpp:148] Top shape: 10 256 27 27 (1866240)
I0924 03:59:03.894771 13860 net.cpp:156] Memory required for data: 42479160
I0924 03:59:03.894801 13860 layer_factory.hpp:77] Creating layer relu2
I0924 03:59:03.894831 13860 net.cpp:91] Creating Layer relu2
I0924 03:59:03.894842 13860 net.cpp:425] relu2 <- conv2
I0924 03:59:03.894858 13860 net.cpp:386] relu2 -> conv2 (in-place)
I0924 03:59:03.896697 13860 net.cpp:141] Setting up relu2
I0924 03:59:03.896759 13860 net.cpp:148] Top shape: 10 256 27 27 (1866240)
I0924 03:59:03.896770 13860 net.cpp:156] Memory required for data: 49944120
I0924 03:59:03.896785 13860 layer_factory.hpp:77] Creating layer pool2
I0924 03:59:03.896816 13860 net.cpp:91] Creating Layer pool2
I0924 03:59:03.896828 13860 net.cpp:425] pool2 <- conv2
I0924 03:59:03.896845 13860 net.cpp:399] pool2 -> pool2
I0924 03:59:03.897574 13860 net.cpp:141] Setting up pool2
I0924 03:59:03.897596 13860 net.cpp:148] Top shape: 10 256 13 13 (432640)
I0924 03:59:03.897603 13860 net.cpp:156] Memory required for data: 51674680
I0924 03:59:03.897613 13860 layer_factory.hpp:77] Creating layer norm2
I0924 03:59:03.897632 13860 net.cpp:91] Creating Layer norm2
I0924 03:59:03.897642 13860 net.cpp:425] norm2 <- pool2
I0924 03:59:03.898141 13860 net.cpp:399] norm2 -> norm2
I0924 03:59:03.899708 13860 net.cpp:141] Setting up norm2
I0924 03:59:03.899766 13860 net.cpp:148] Top shape: 10 256 13 13 (432640)
I0924 03:59:03.899782 13860 net.cpp:156] Memory required for data: 53405240
I0924 03:59:03.899797 13860 layer_factory.hpp:77] Creating layer conv3
I0924 03:59:03.899845 13860 net.cpp:91] Creating Layer conv3
I0924 03:59:03.899857 13860 net.cpp:425] conv3 <- norm2
I0924 03:59:03.900382 13860 net.cpp:399] conv3 -> conv3
I0924 03:59:03.920454 13860 net.cpp:141] Setting up conv3
I0924 03:59:03.920526 13860 net.cpp:148] Top shape: 10 384 13 13 (648960)
I0924 03:59:03.920538 13860 net.cpp:156] Memory required for data: 56001080
I0924 03:59:03.920989 13860 layer_factory.hpp:77] Creating layer relu3
I0924 03:59:03.921028 13860 net.cpp:91] Creating Layer relu3
I0924 03:59:03.921039 13860 net.cpp:425] relu3 <- conv3
I0924 03:59:03.921061 13860 net.cpp:386] relu3 -> conv3 (in-place)
I0924 03:59:03.922948 13860 net.cpp:141] Setting up relu3
I0924 03:59:03.923022 13860 net.cpp:148] Top shape: 10 384 13 13 (648960)
I0924 03:59:03.923033 13860 net.cpp:156] Memory required for data: 58596920
I0924 03:59:03.923048 13860 layer_factory.hpp:77] Creating layer conv4
I0924 03:59:03.923791 13860 net.cpp:91] Creating Layer conv4
I0924 03:59:03.923813 13860 net.cpp:425] conv4 <- conv3
I0924 03:59:03.923831 13860 net.cpp:399] conv4 -> conv4
I0924 03:59:03.939299 13884 net.cpp:141] Setting up predict
I0924 03:59:03.939378 13884 net.cpp:148] Top shape: 1 1 46168 (46168)
I0924 03:59:03.939385 13884 net.cpp:156] Memory required for data: 221084
I0924 03:59:03.939407 13884 layer_factory.hpp:77] Creating layer probs
I0924 03:59:03.939437 13884 net.cpp:91] Creating Layer probs
I0924 03:59:03.939446 13884 net.cpp:425] probs <- predict
I0924 03:59:03.939460 13884 net.cpp:399] probs -> probs
I0924 03:59:03.942654 13884 net.cpp:141] Setting up probs
I0924 03:59:03.942725 13884 net.cpp:148] Top shape: 1 1 46168 (46168)
I0924 03:59:03.942733 13884 net.cpp:156] Memory required for data: 405756
I0924 03:59:03.942747 13884 net.cpp:219] probs does not need backward computation.
I0924 03:59:03.942757 13884 net.cpp:219] predict does not need backward computation.
I0924 03:59:03.942762 13884 net.cpp:219] lstm2 does not need backward computation.
I0924 03:59:03.942769 13884 net.cpp:219] concat does not need backward computation.
I0924 03:59:03.942775 13884 net.cpp:219] lstm1 does not need backward computation.
I0924 03:59:03.942781 13884 net.cpp:219] embedding does not need backward computation.
I0924 03:59:03.942786 13884 net.cpp:219] reshape_stage_indicator does not need backward computation.
I0924 03:59:03.942791 13884 net.cpp:219] reshape_frames does not need backward computation.
I0924 03:59:03.942797 13884 net.cpp:219] embed_encoder does not need backward computation.
I0924 03:59:03.942802 13884 net.cpp:219] cont_sentence_input_1_split does not need backward computation.
I0924 03:59:03.942807 13884 net.cpp:219] input does not need backward computation.
I0924 03:59:03.942811 13884 net.cpp:261] This network produces output probs
I0924 03:59:03.942833 13884 net.cpp:274] Network initialization done.
I0924 03:59:03.944401 13860 net.cpp:141] Setting up conv4
I0924 03:59:03.944458 13860 net.cpp:148] Top shape: 10 384 13 13 (648960)
I0924 03:59:03.944465 13860 net.cpp:156] Memory required for data: 61192760
I0924 03:59:03.944486 13860 layer_factory.hpp:77] Creating layer relu4
I0924 03:59:03.944510 13860 net.cpp:91] Creating Layer relu4
I0924 03:59:03.944519 13860 net.cpp:425] relu4 <- conv4
I0924 03:59:03.944532 13860 net.cpp:386] relu4 -> conv4 (in-place)
I0924 03:59:03.945627 13860 net.cpp:141] Setting up relu4
I0924 03:59:03.945653 13860 net.cpp:148] Top shape: 10 384 13 13 (648960)
I0924 03:59:03.945659 13860 net.cpp:156] Memory required for data: 63788600
I0924 03:59:03.945665 13860 layer_factory.hpp:77] Creating layer conv5
I0924 03:59:03.945694 13860 net.cpp:91] Creating Layer conv5
I0924 03:59:03.945701 13860 net.cpp:425] conv5 <- conv4
I0924 03:59:03.945713 13860 net.cpp:399] conv5 -> conv5
I0924 03:59:03.952826 13860 net.cpp:141] Setting up conv5
I0924 03:59:03.952893 13860 net.cpp:148] Top shape: 10 256 13 13 (432640)
I0924 03:59:03.952900 13860 net.cpp:156] Memory required for data: 65519160
I0924 03:59:03.953030 13860 layer_factory.hpp:77] Creating layer relu5
I0924 03:59:03.953091 13860 net.cpp:91] Creating Layer relu5
I0924 03:59:03.953101 13860 net.cpp:425] relu5 <- conv5
I0924 03:59:03.953115 13860 net.cpp:386] relu5 -> conv5 (in-place)
I0924 03:59:03.953601 13860 net.cpp:141] Setting up relu5
I0924 03:59:03.953621 13860 net.cpp:148] Top shape: 10 256 13 13 (432640)
I0924 03:59:03.953627 13860 net.cpp:156] Memory required for data: 67249720
I0924 03:59:03.953634 13860 layer_factory.hpp:77] Creating layer pool5
I0924 03:59:03.953650 13860 net.cpp:91] Creating Layer pool5
I0924 03:59:03.953656 13860 net.cpp:425] pool5 <- conv5
I0924 03:59:03.953665 13860 net.cpp:399] pool5 -> pool5
I0924 03:59:03.953810 13860 net.cpp:141] Setting up pool5
I0924 03:59:03.953824 13860 net.cpp:148] Top shape: 10 256 6 6 (92160)
I0924 03:59:03.953829 13860 net.cpp:156] Memory required for data: 67618360
I0924 03:59:03.953833 13860 layer_factory.hpp:77] Creating layer fc6
I0924 03:59:03.953853 13860 net.cpp:91] Creating Layer fc6
I0924 03:59:03.953858 13860 net.cpp:425] fc6 <- pool5
I0924 03:59:03.953866 13860 net.cpp:399] fc6 -> fc6
I0924 03:59:04.023069 13834 net.cpp:141] Setting up predict
I0924 03:59:04.023152 13834 net.cpp:148] Top shape: 1 1 46168 (46168)
I0924 03:59:04.023164 13834 net.cpp:156] Memory required for data: 221084
I0924 03:59:04.023188 13834 layer_factory.hpp:77] Creating layer probs
I0924 03:59:04.023222 13834 net.cpp:91] Creating Layer probs
I0924 03:59:04.023236 13834 net.cpp:425] probs <- predict
I0924 03:59:04.023254 13834 net.cpp:399] probs -> probs
I0924 03:59:04.024780 13834 net.cpp:141] Setting up probs
I0924 03:59:04.024857 13834 net.cpp:148] Top shape: 1 1 46168 (46168)
I0924 03:59:04.024868 13834 net.cpp:156] Memory required for data: 405756
I0924 03:59:04.024885 13834 net.cpp:219] probs does not need backward computation.
I0924 03:59:04.024899 13834 net.cpp:219] predict does not need backward computation.
I0924 03:59:04.024910 13834 net.cpp:219] lstm2 does not need backward computation.
I0924 03:59:04.024922 13834 net.cpp:219] concat does not need backward computation.
I0924 03:59:04.024932 13834 net.cpp:219] lstm1 does not need backward computation.
I0924 03:59:04.024945 13834 net.cpp:219] embedding does not need backward computation.
I0924 03:59:04.024956 13834 net.cpp:219] reshape_stage_indicator does not need backward computation.
I0924 03:59:04.024967 13834 net.cpp:219] reshape_frames does not need backward computation.
I0924 03:59:04.024978 13834 net.cpp:219] embed_encoder does not need backward computation.
I0924 03:59:04.024989 13834 net.cpp:219] cont_sentence_input_1_split does not need backward computation.
I0924 03:59:04.025001 13834 net.cpp:219] input does not need backward computation.
I0924 03:59:04.025009 13834 net.cpp:261] This network produces output probs
I0924 03:59:04.025045 13834 net.cpp:274] Network initialization done.
I0924 03:59:04.080842 13860 net.cpp:141] Setting up fc6
I0924 03:59:04.080904 13860 net.cpp:148] Top shape: 10 4096 (40960)
I0924 03:59:04.080910 13860 net.cpp:156] Memory required for data: 67782200
I0924 03:59:04.080927 13860 layer_factory.hpp:77] Creating layer relu6
I0924 03:59:04.081388 13860 net.cpp:91] Creating Layer relu6
I0924 03:59:04.081415 13860 net.cpp:425] relu6 <- fc6
I0924 03:59:04.081429 13860 net.cpp:386] relu6 -> fc6 (in-place)
I0924 03:59:04.082368 13860 net.cpp:141] Setting up relu6
I0924 03:59:04.082414 13860 net.cpp:148] Top shape: 10 4096 (40960)
I0924 03:59:04.082422 13860 net.cpp:156] Memory required for data: 67946040
I0924 03:59:04.082430 13860 layer_factory.hpp:77] Creating layer drop6
I0924 03:59:04.082973 13860 net.cpp:91] Creating Layer drop6
I0924 03:59:04.083003 13860 net.cpp:425] drop6 <- fc6
I0924 03:59:04.083019 13860 net.cpp:386] drop6 -> fc6 (in-place)
I0924 03:59:04.083195 13860 net.cpp:141] Setting up drop6
I0924 03:59:04.083209 13860 net.cpp:148] Top shape: 10 4096 (40960)
I0924 03:59:04.083214 13860 net.cpp:156] Memory required for data: 68109880
I0924 03:59:04.083220 13860 layer_factory.hpp:77] Creating layer fc7
I0924 03:59:04.083233 13860 net.cpp:91] Creating Layer fc7
I0924 03:59:04.083238 13860 net.cpp:425] fc7 <- fc6
I0924 03:59:04.083623 13860 net.cpp:399] fc7 -> fc7
I0924 03:59:04.144070 13860 net.cpp:141] Setting up fc7
I0924 03:59:04.144131 13860 net.cpp:148] Top shape: 10 4096 (40960)
I0924 03:59:04.144137 13860 net.cpp:156] Memory required for data: 68273720
I0924 03:59:04.144160 13860 layer_factory.hpp:77] Creating layer relu7
I0924 03:59:04.144179 13860 net.cpp:91] Creating Layer relu7
I0924 03:59:04.144188 13860 net.cpp:425] relu7 <- fc7
I0924 03:59:04.144197 13860 net.cpp:386] relu7 -> fc7 (in-place)
I0924 03:59:04.145448 13888 net.cpp:141] Setting up predict
I0924 03:59:04.145519 13888 net.cpp:148] Top shape: 1 1 46168 (46168)
I0924 03:59:04.145531 13888 net.cpp:156] Memory required for data: 221084
I0924 03:59:04.145558 13888 layer_factory.hpp:77] Creating layer probs
I0924 03:59:04.145583 13888 net.cpp:91] Creating Layer probs
I0924 03:59:04.145597 13888 net.cpp:425] probs <- predict
I0924 03:59:04.145615 13888 net.cpp:399] probs -> probs
I0924 03:59:04.146447 13860 net.cpp:141] Setting up relu7
I0924 03:59:04.146468 13860 net.cpp:148] Top shape: 10 4096 (40960)
I0924 03:59:04.146473 13860 net.cpp:156] Memory required for data: 68437560
I0924 03:59:04.146479 13860 layer_factory.hpp:77] Creating layer drop7
I0924 03:59:04.146986 13860 net.cpp:91] Creating Layer drop7
I0924 03:59:04.146999 13860 net.cpp:425] drop7 <- fc7
I0924 03:59:04.147011 13860 net.cpp:386] drop7 -> fc7 (in-place)
I0924 03:59:04.147068 13860 net.cpp:141] Setting up drop7
I0924 03:59:04.147078 13860 net.cpp:148] Top shape: 10 4096 (40960)
I0924 03:59:04.147083 13860 net.cpp:156] Memory required for data: 68601400
I0924 03:59:04.147089 13860 layer_factory.hpp:77] Creating layer fc8
I0924 03:59:04.147099 13860 net.cpp:91] Creating Layer fc8
I0924 03:59:04.147104 13860 net.cpp:425] fc8 <- fc7
I0924 03:59:04.147507 13860 net.cpp:399] fc8 -> fc8
I0924 03:59:04.147516 13888 net.cpp:141] Setting up probs
I0924 03:59:04.147541 13888 net.cpp:148] Top shape: 1 1 46168 (46168)
I0924 03:59:04.147552 13888 net.cpp:156] Memory required for data: 405756
I0924 03:59:04.147562 13888 net.cpp:219] probs does not need backward computation.
I0924 03:59:04.147575 13888 net.cpp:219] predict does not need backward computation.
I0924 03:59:04.147586 13888 net.cpp:219] lstm2 does not need backward computation.
I0924 03:59:04.147598 13888 net.cpp:219] concat does not need backward computation.
I0924 03:59:04.147609 13888 net.cpp:219] lstm1 does not need backward computation.
I0924 03:59:04.147622 13888 net.cpp:219] embedding does not need backward computation.
I0924 03:59:04.147634 13888 net.cpp:219] reshape_stage_indicator does not need backward computation.
I0924 03:59:04.147644 13888 net.cpp:219] reshape_frames does not need backward computation.
I0924 03:59:04.147655 13888 net.cpp:219] embed_encoder does not need backward computation.
I0924 03:59:04.147667 13888 net.cpp:219] cont_sentence_input_1_split does not need backward computation.
I0924 03:59:04.147677 13888 net.cpp:219] input does not need backward computation.
I0924 03:59:04.147686 13888 net.cpp:261] This network produces output probs
I0924 03:59:04.147721 13888 net.cpp:274] Network initialization done.
I0924 03:59:04.161931 13860 net.cpp:141] Setting up fc8
I0924 03:59:04.161989 13860 net.cpp:148] Top shape: 10 1000 (10000)
I0924 03:59:04.161995 13860 net.cpp:156] Memory required for data: 68641400
I0924 03:59:04.162011 13860 layer_factory.hpp:77] Creating layer prob
I0924 03:59:04.162036 13860 net.cpp:91] Creating Layer prob
I0924 03:59:04.162045 13860 net.cpp:425] prob <- fc8
I0924 03:59:04.162055 13860 net.cpp:399] prob -> prob
I0924 03:59:04.164530 13860 net.cpp:141] Setting up prob
I0924 03:59:04.164595 13860 net.cpp:148] Top shape: 10 1000 (10000)
I0924 03:59:04.164602 13860 net.cpp:156] Memory required for data: 68681400
I0924 03:59:04.164613 13860 net.cpp:219] prob does not need backward computation.
I0924 03:59:04.164621 13860 net.cpp:219] fc8 does not need backward computation.
I0924 03:59:04.164628 13860 net.cpp:219] drop7 does not need backward computation.
I0924 03:59:04.164631 13860 net.cpp:219] relu7 does not need backward computation.
…
