…
I0802 07:18:07.806520  6287 upgrade_proto.cpp:66] Attempting to upgrade input file specified using deprecated input fields: /tmp/cvld4253947759408253135/s2vt.words_to_preds.prototxt
I0802 07:18:07.806650  6287 upgrade_proto.cpp:69] Successfully upgraded file specified using deprecated input fields.
W0802 07:18:07.806660  6287 upgrade_proto.cpp:71] Note that future Caffe releases will only support input layers and not input fields.
I0802 07:18:07.806874  6297 net.cpp:49] Initializing net from parameters: 
name: "CaffeNet"
state {
  phase: TEST
}
layer {
  name: "data"
  type: "Input"
  top: "data"
  input_param {
    shape {
      dim: 10
      dim: 3
      dim: 227
      dim: 227
    }
  }
}
layer {
  name: "conv1"
  type: "Convolution"
  bottom: "data"
  top: "conv1"
  convolution_param {
    num_output: 96
    kernel_size: 11
    stride: 4
  }
}
layer {
  name: "relu1"
  type: "ReLU"
  bottom: "conv1"
  top: "conv1"
}
layer {
  name: "pool1"
  type: "Pooling"
  bottom: "conv1"
  top: "pool1"
  pooling_param {
    pool: MAX
    kernel_size: 3
    stride: 2
  }
}
layer {
  name: "norm1"
  type: "LRN"
  bottom: "pool1"
  top: "norm1"
  lrn_param {
    local_size: 5
    alpha: 0.0001
    beta: 0.75
  }
}
layer {
  name: "conv2"
  type: "Convolution"
  bottom: "norm1"
  top: "conv2"
  convolution_param {
    num_output: 256
    pad: 2
    kernel_size: 5
    group: 2
  }
}
layer {
  name: "relu2"
  type: "ReLU"
  bottom: "conv2"
  top: "conv2"
}
layer {
  name: "pool2"
  type: "Pooling"
  bottom: "conv2"
  top: "pool2"
  pooling_param {
    pool: MAX
    kernel_size: 3
    stride: 2
  }
}
layer {
  name: "norm2"
  type: "LRN"
  bottom: "pool2"
  top: "norm2"
  lrn_param {
    local_size: 5
    alpha: 0.0001
    beta: 0.75
  }
}
layer {
  name: "conv3"
  type: "Convolution"
  bottom: "norm2"
  top: "conv3"
  convolution_param {
    num_output: 384
    pad: 1
    kernel_size: 3
  }
}
layer {
  name: "relu3"
  type: "ReLU"
  bottom: "conv3"
  top: "conv3"
}
layer {
  name: "conv4"
  type: "Convolution"
  bottom: "conv3"
  top: "conv4"
  convolution_param {
    num_output: 384
    pad: 1
    kernel_size: 3
    group: 2
  }
}
layer {
  name: "relu4"
  type: "ReLU"
  bottom: "conv4"
  top: "conv4"
}
layer {
  name: "conv5"
  type: "Convolution"
  bottom: "conv4"
  top: "conv5"
  convolution_param {
    num_output: 256
    pad: 1
    kernel_size: 3
    group: 2
  }
}
layer {
  name: "relu5"
  type: "ReLU"
  bottom: "conv5"
  top: "conv5"
}
layer {
  name: "pool5"
  type: "Pooling"
  bottom: "conv5"
  top: "pool5"
  pooling_param {
    pool: MAX
    kernel_size: 3
    stride: 2
  }
}
layer {
  name: "fc6"
  type: "InnerProduct"
  bottom: "pool5"
  top: "fc6"
  inner_product_param {
    num_output: 4096
  }
}
layer {
  name: "relu6"
  type: "ReLU"
  bottom: "fc6"
  top: "fc6"
}
layer {
  name: "drop6"
  type: "Dropout"
  bottom: "fc6"
  top: "fc6"
  dropout_param {
    dropout_ratio: 0.5
  }
}
layer {
  name: "fc7"
  type: "InnerProduct"
  bottom: "fc6"
  top: "fc7"
  inner_product_param {
    num_output: 4096
  }
}
layer {
  name: "relu7"
  type: "ReLU"
  bottom: "fc7"
  top: "fc7"
}
layer {
  name: "drop7"
  type: "Dropout"
  bottom: "fc7"
  top: "fc7"
  dropout_param {
    dropout_ratio: 0.5
  }
}
layer {
  name: "fc8"
  type: "InnerProduct"
  bottom: "fc7"
  top: "fc8"
  inner_product_param {
    num_output: 1000
  }
}
layer {
  name: "prob"
  type: "Softmax"
  bottom: "fc8"
  top: "prob"
}
I0802 07:18:07.806951  6287 net.cpp:49] Initializing net from parameters: 
name: "s2vt:features_to_lstm"
state {
  phase: TEST
}
layer {
  name: "input"
  type: "Input"
  top: "frames_fc7"
  top: "cont_sentence"
  top: "input_sentence"
  top: "stage_indicator"
  input_param {
    shape {
      dim: 1
      dim: 4096
    }
    shape {
      dim: 1
      dim: 1
    }
    shape {
      dim: 1
      dim: 1
    }
    shape {
      dim: 1
      dim: 1
    }
  }
}
layer {
  name: "embed_encoder"
  type: "InnerProduct"
  bottom: "frames_fc7"
  top: "embedded_in_frames"
  param {
    lr_mult: 1
    decay_mult: 1
  }
  param {
    lr_mult: 2
    decay_mult: 0
  }
  inner_product_param {
    num_output: 500
    weight_filler {
      type: "xavier"
    }
    bias_filler {
      type: "constant"
      value: 0.2
    }
  }
}
layer {
  name: "reshape_frames"
  type: "Reshape"
  bottom: "embedded_in_frames"
  top: "embedded_input_frames"
  reshape_param {
    shape {
      dim: 1
      dim: 1
      dim: 500
    }
  }
}
layer {
  name: "reshape_stage_indicator"
  type: "Reshape"
  bottom: "stage_indicator"
  top: "reshaped_stage_indicator"
  reshape_param {
    shape {
      dim: 1
      dim: 1
      dim: 1
    }
  }
}
layer {
  name: "embedding"
  type: "Embed"
  bottom: "input_sentence"
  top: "embedded_input_sentence"
  param {
    lr_mult: 1
  }
  embed_param {
    num_output: 500
    input_dim: 46168
    bias_term: false
    weight_filler {
      type: "uniform"
      min: -0.08
      max: 0.08
    }
  }
}
layer {
  name: "lstm1"
  type: "LSTM"
  bottom: "embedded_input_frames"
  bottom: "cont_sentence"
  top: "lstm1"
  recurrent_param {
    num_output: 1000
    weight_filler {
      type: "uniform"
      min: -0.08
      max: 0.08
    }
    bias_filler {
      type: "constant"
      value: 0
    }
  }
}
layer {
  name: "concat"
  type: "Concat"
  bottom: "lstm1"
  bottom: "embedded_input_sentence"
  bottom: "reshaped_stage_indicator"
  top: "lstm1_video_sequence"
  concat_param {
    concat_dim: 2
  }
}
layer {
  name: "lstm2"
  type: "LSTM"
  bottom: "lstm1_video_sequence"
  bottom: "cont_sentence"
  top: "lstm2"
  recurrent_param {
    num_output: 1000
    weight_filler {
      type: "uniform"
      min: -0.08
      max: 0.08
    }
    bias_filler {
      type: "constant"
      value: 0
    }
  }
}
layer {
  name: "predict"
  type: "InnerProduct"
  bottom: "lstm2"
  top: "predict"
  param {
    lr_mult: 1
    decay_mult: 1
  }
  param {
    lr_mult: 2
    decay_mult: 0
  }
  inner_product_param {
    num_output: 46168
    weight_filler {
      type: "uniform"
      min: -0.08
      max: 0.08
    }
    bias_filler {
      type: "constant"
      value: 0
    }
    axis: 2
  }
}
layer {
  name: "probs"
  type: "Softmax"
  bottom: "predict"
  top: "probs"
  softmax_param {
    axis: 2
  }
}
I0802 07:18:07.807020  6297 layer_factory.hpp:77] Creating layer data
I0802 07:18:07.807049  6297 net.cpp:91] Creating Layer data
I0802 07:18:07.807060  6297 net.cpp:399] data -> data
I0802 07:18:07.807095  6287 layer_factory.hpp:77] Creating layer input
I0802 07:18:07.807113  6287 net.cpp:91] Creating Layer input
I0802 07:18:07.807121  6287 net.cpp:399] input -> frames_fc7
I0802 07:18:07.807140  6287 net.cpp:399] input -> cont_sentence
I0802 07:18:07.807154  6287 net.cpp:399] input -> input_sentence
I0802 07:18:07.807165  6287 net.cpp:399] input -> stage_indicator
I0802 07:18:08.383414  6297 net.cpp:141] Setting up data
I0802 07:18:08.383566  6297 net.cpp:148] Top shape: 10 3 227 227 (1545870)
I0802 07:18:08.383576  6297 net.cpp:156] Memory required for data: 6183480
I0802 07:18:08.383605  6297 layer_factory.hpp:77] Creating layer conv1
I0802 07:18:08.383592  6287 net.cpp:141] Setting up input
I0802 07:18:08.383643  6287 net.cpp:148] Top shape: 1 4096 (4096)
I0802 07:18:08.383646  6297 net.cpp:91] Creating Layer conv1
I0802 07:18:08.383651  6287 net.cpp:148] Top shape: 1 1 (1)
I0802 07:18:08.383658  6297 net.cpp:425] conv1 <- data
I0802 07:18:08.383659  6287 net.cpp:148] Top shape: 1 1 (1)
I0802 07:18:08.383680  6287 net.cpp:148] Top shape: 1 1 (1)
I0802 07:18:08.383680  6297 net.cpp:399] conv1 -> conv1
I0802 07:18:08.383685  6287 net.cpp:156] Memory required for data: 16396
I0802 07:18:08.383707  6287 layer_factory.hpp:77] Creating layer cont_sentence_input_1_split
I0802 07:18:08.383744  6287 net.cpp:91] Creating Layer cont_sentence_input_1_split
I0802 07:18:08.383751  6287 net.cpp:425] cont_sentence_input_1_split <- cont_sentence
I0802 07:18:08.383786  6287 net.cpp:399] cont_sentence_input_1_split -> cont_sentence_input_1_split_0
I0802 07:18:08.383802  6287 net.cpp:399] cont_sentence_input_1_split -> cont_sentence_input_1_split_1
I0802 07:18:08.383927  6287 net.cpp:141] Setting up cont_sentence_input_1_split
I0802 07:18:08.383939  6287 net.cpp:148] Top shape: 1 1 (1)
I0802 07:18:08.383945  6287 net.cpp:148] Top shape: 1 1 (1)
I0802 07:18:08.383950  6287 net.cpp:156] Memory required for data: 16404
I0802 07:18:08.383956  6287 layer_factory.hpp:77] Creating layer embed_encoder
I0802 07:18:08.383987  6287 net.cpp:91] Creating Layer embed_encoder
I0802 07:18:08.383993  6287 net.cpp:425] embed_encoder <- frames_fc7
I0802 07:18:08.384057  6287 net.cpp:399] embed_encoder -> embedded_in_frames
I0802 07:18:08.415920  6287 net.cpp:141] Setting up embed_encoder
I0802 07:18:08.415993  6287 net.cpp:148] Top shape: 1 500 (500)
I0802 07:18:08.416002  6287 net.cpp:156] Memory required for data: 18404
I0802 07:18:08.416052  6287 layer_factory.hpp:77] Creating layer reshape_frames
I0802 07:18:08.416124  6287 net.cpp:91] Creating Layer reshape_frames
I0802 07:18:08.416136  6287 net.cpp:425] reshape_frames <- embedded_in_frames
I0802 07:18:08.416153  6287 net.cpp:399] reshape_frames -> embedded_input_frames
I0802 07:18:08.418043  6287 net.cpp:141] Setting up reshape_frames
I0802 07:18:08.418067  6287 net.cpp:148] Top shape: 1 1 500 (500)
I0802 07:18:08.418073  6287 net.cpp:156] Memory required for data: 20404
I0802 07:18:08.418079  6287 layer_factory.hpp:77] Creating layer reshape_stage_indicator
I0802 07:18:08.418671  6287 net.cpp:91] Creating Layer reshape_stage_indicator
I0802 07:18:08.418692  6287 net.cpp:425] reshape_stage_indicator <- stage_indicator
I0802 07:18:08.418709  6287 net.cpp:399] reshape_stage_indicator -> reshaped_stage_indicator
I0802 07:18:08.425807  6287 net.cpp:141] Setting up reshape_stage_indicator
I0802 07:18:08.425830  6287 net.cpp:148] Top shape: 1 1 1 (1)
I0802 07:18:08.425837  6287 net.cpp:156] Memory required for data: 20408
I0802 07:18:08.425859  6287 layer_factory.hpp:77] Creating layer embedding
I0802 07:18:08.425876  6287 net.cpp:91] Creating Layer embedding
I0802 07:18:08.425884  6287 net.cpp:425] embedding <- input_sentence
I0802 07:18:08.426200  6287 net.cpp:399] embedding -> embedded_input_sentence
I0802 07:18:08.670931  6287 net.cpp:141] Setting up embedding
I0802 07:18:08.670987  6287 net.cpp:148] Top shape: 1 1 500 (500)
I0802 07:18:08.670994  6287 net.cpp:156] Memory required for data: 22408
I0802 07:18:08.671016  6287 layer_factory.hpp:77] Creating layer lstm1
I0802 07:18:08.671043  6287 net.cpp:91] Creating Layer lstm1
I0802 07:18:08.671053  6287 net.cpp:425] lstm1 <- embedded_input_frames
I0802 07:18:08.671062  6287 net.cpp:425] lstm1 <- cont_sentence_input_1_split_0
I0802 07:18:08.671072  6287 net.cpp:399] lstm1 -> lstm1
I0802 07:18:08.671118  6287 recurrent_layer.cpp:20] Initializing recurrent layer: assuming input batch contains 1 timesteps of 1 independent streams.
I0802 07:18:08.671906  6287 net.cpp:49] Initializing net from parameters: 
layer {
  name: "lstm1_"
  type: "Input"
  top: "x"
  top: "cont"
  input_param {
    shape {
      dim: 1
      dim: 1
      dim: 500
    }
    shape {
      dim: 1
      dim: 1
    }
  }
}
layer {
  name: "lstm1_"
  type: "Input"
  top: "c_0"
  top: "h_0"
  input_param {
    shape {
      dim: 1
      dim: 1
      dim: 1000
    }
    shape {
      dim: 1
      dim: 1
      dim: 1000
    }
  }
}
layer {
  name: "lstm1_cont_slice"
  type: "Slice"
  bottom: "cont"
  top: "cont_1"
  slice_param {
    axis: 0
  }
}
layer {
  name: "lstm1_x_transform"
  type: "InnerProduct"
  bottom: "x"
  top: "W_xc_x"
  param {
    name: "W_xc"
  }
  param {
    name: "b_c"
  }
  propagate_down: true
  inner_product_param {
    num_output: 4000
    bias_term: true
    weight_filler {
      type: "uniform"
      min: -0.08
      max: 0.08
    }
    bias_filler {
      type: "constant"
      value: 0
    }
    axis: 2
  }
}
layer {
  name: "lstm1_W_xc_x_slice"
  type: "Slice"
  bottom: "W_xc_x"
  top: "W_xc_x_1"
  slice_param {
    axis: 0
  }
}
layer {
  name: "lstm1_h_conted_0"
  type: "Scale"
  bottom: "h_0"
  bottom: "cont_1"
  top: "h_conted_0"
  scale_param {
    axis: 0
  }
}
layer {
  name: "lstm1_transform_1"
  type: "InnerProduct"
  bottom: "h_conted_0"
  top: "W_hc_h_0"
  param {
    name: "W_hc"
  }
  inner_product_param {
    num_output: 4000
    bias_term: false
    weight_filler {
      type: "uniform"
      min: -0.08
      max: 0.08
    }
    axis: 2
  }
}
layer {
  name: "lstm1_gate_input_1"
  type: "Eltwise"
  bottom: "W_hc_h_0"
  bottom: "W_xc_x_1"
  top: "gate_input_1"
  eltwise_param {
    operation: SUM
  }
}
layer {
  name: "lstm1_unit_1"
  type: "LSTMUnit"
  bottom: "c_0"
  bottom: "gate_input_1"
  bottom: "cont_1"
  top: "c_1"
  top: "h_1"
}
layer {
  name: "lstm1_"
  type: "Split"
  bottom: "c_1"
  top: "c_T"
}
layer {
  name: "lstm1_h_concat"
  type: "Concat"
  bottom: "h_1"
  top: "h"
  concat_param {
    axis: 0
  }
}
layer {
  name: "h_pseudoloss"
  type: "Reduction"
  bottom: "h"
  top: "h_pseudoloss"
  loss_weight: 1
}
I0802 07:18:08.672052  6287 layer_factory.hpp:77] Creating layer lstm1_
I0802 07:18:08.672070  6287 net.cpp:91] Creating Layer lstm1_
I0802 07:18:08.672076  6287 net.cpp:399] lstm1_ -> x
I0802 07:18:08.672091  6287 net.cpp:399] lstm1_ -> cont
I0802 07:18:08.680713  6287 net.cpp:141] Setting up lstm1_
I0802 07:18:08.680734  6287 net.cpp:148] Top shape: 1 1 500 (500)
I0802 07:18:08.680742  6287 net.cpp:148] Top shape: 1 1 (1)
I0802 07:18:08.680747  6287 net.cpp:156] Memory required for data: 2004
I0802 07:18:08.680752  6287 layer_factory.hpp:77] Creating layer lstm1_
I0802 07:18:08.680773  6287 net.cpp:91] Creating Layer lstm1_
I0802 07:18:08.680780  6287 net.cpp:399] lstm1_ -> c_0
I0802 07:18:08.680795  6287 net.cpp:399] lstm1_ -> h_0
I0802 07:18:08.680855  6287 net.cpp:141] Setting up lstm1_
I0802 07:18:08.680866  6287 net.cpp:148] Top shape: 1 1 1000 (1000)
I0802 07:18:08.680871  6287 net.cpp:148] Top shape: 1 1 1000 (1000)
I0802 07:18:08.680876  6287 net.cpp:156] Memory required for data: 10004
I0802 07:18:08.680881  6287 layer_factory.hpp:77] Creating layer lstm1_cont_slice
I0802 07:18:08.680892  6287 net.cpp:91] Creating Layer lstm1_cont_slice
I0802 07:18:08.680897  6287 net.cpp:425] lstm1_cont_slice <- cont
I0802 07:18:08.680905  6287 net.cpp:399] lstm1_cont_slice -> cont_1
I0802 07:18:08.680948  6287 net.cpp:141] Setting up lstm1_cont_slice
I0802 07:18:08.680958  6287 net.cpp:148] Top shape: 1 1 (1)
I0802 07:18:08.680963  6287 net.cpp:156] Memory required for data: 10008
I0802 07:18:08.680968  6287 layer_factory.hpp:77] Creating layer cont_1_lstm1_cont_slice_0_split
I0802 07:18:08.680977  6287 net.cpp:91] Creating Layer cont_1_lstm1_cont_slice_0_split
I0802 07:18:08.680982  6287 net.cpp:425] cont_1_lstm1_cont_slice_0_split <- cont_1
I0802 07:18:08.680994  6287 net.cpp:399] cont_1_lstm1_cont_slice_0_split -> cont_1_lstm1_cont_slice_0_split_0
I0802 07:18:08.681004  6287 net.cpp:399] cont_1_lstm1_cont_slice_0_split -> cont_1_lstm1_cont_slice_0_split_1
I0802 07:18:08.681059  6287 net.cpp:141] Setting up cont_1_lstm1_cont_slice_0_split
I0802 07:18:08.681068  6287 net.cpp:148] Top shape: 1 1 (1)
I0802 07:18:08.681078  6287 net.cpp:148] Top shape: 1 1 (1)
I0802 07:18:08.681083  6287 net.cpp:156] Memory required for data: 10016
I0802 07:18:08.681087  6287 layer_factory.hpp:77] Creating layer lstm1_x_transform
I0802 07:18:08.681099  6287 net.cpp:91] Creating Layer lstm1_x_transform
I0802 07:18:08.681104  6287 net.cpp:425] lstm1_x_transform <- x
I0802 07:18:08.681116  6287 net.cpp:399] lstm1_x_transform -> W_xc_x
I0802 07:18:08.705226  6287 net.cpp:141] Setting up lstm1_x_transform
I0802 07:18:08.705258  6287 net.cpp:148] Top shape: 1 1 4000 (4000)
I0802 07:18:08.705263  6287 net.cpp:156] Memory required for data: 26016
I0802 07:18:08.705281  6287 layer_factory.hpp:77] Creating layer lstm1_W_xc_x_slice
I0802 07:18:08.705292  6287 net.cpp:91] Creating Layer lstm1_W_xc_x_slice
I0802 07:18:08.705298  6287 net.cpp:425] lstm1_W_xc_x_slice <- W_xc_x
I0802 07:18:08.705324  6287 net.cpp:399] lstm1_W_xc_x_slice -> W_xc_x_1
I0802 07:18:08.708222  6287 net.cpp:141] Setting up lstm1_W_xc_x_slice
I0802 07:18:08.708245  6287 net.cpp:148] Top shape: 1 1 4000 (4000)
I0802 07:18:08.708250  6287 net.cpp:156] Memory required for data: 42016
I0802 07:18:08.708256  6287 layer_factory.hpp:77] Creating layer lstm1_h_conted_0
I0802 07:18:08.708267  6287 net.cpp:91] Creating Layer lstm1_h_conted_0
I0802 07:18:08.708273  6287 net.cpp:425] lstm1_h_conted_0 <- h_0
I0802 07:18:08.708281  6287 net.cpp:425] lstm1_h_conted_0 <- cont_1_lstm1_cont_slice_0_split_0
I0802 07:18:08.708297  6287 net.cpp:399] lstm1_h_conted_0 -> h_conted_0
I0802 07:18:08.713806  6287 net.cpp:141] Setting up lstm1_h_conted_0
I0802 07:18:08.713829  6287 net.cpp:148] Top shape: 1 1 1000 (1000)
I0802 07:18:08.713834  6287 net.cpp:156] Memory required for data: 46016
I0802 07:18:08.713840  6287 layer_factory.hpp:77] Creating layer lstm1_transform_1
I0802 07:18:08.713866  6287 net.cpp:91] Creating Layer lstm1_transform_1
I0802 07:18:08.713874  6287 net.cpp:425] lstm1_transform_1 <- h_conted_0
I0802 07:18:08.713884  6287 net.cpp:399] lstm1_transform_1 -> W_hc_h_0
I0802 07:18:08.742729  6297 net.cpp:141] Setting up conv1
I0802 07:18:08.742800  6297 net.cpp:148] Top shape: 10 96 55 55 (2904000)
I0802 07:18:08.742810  6297 net.cpp:156] Memory required for data: 17799480
I0802 07:18:08.742842  6297 layer_factory.hpp:77] Creating layer relu1
I0802 07:18:08.742868  6297 net.cpp:91] Creating Layer relu1
I0802 07:18:08.742878  6297 net.cpp:425] relu1 <- conv1
I0802 07:18:08.742890  6297 net.cpp:386] relu1 -> conv1 (in-place)
I0802 07:18:08.743571  6297 net.cpp:141] Setting up relu1
I0802 07:18:08.743592  6297 net.cpp:148] Top shape: 10 96 55 55 (2904000)
I0802 07:18:08.743600  6297 net.cpp:156] Memory required for data: 29415480
I0802 07:18:08.743609  6297 layer_factory.hpp:77] Creating layer pool1
I0802 07:18:08.743633  6297 net.cpp:91] Creating Layer pool1
I0802 07:18:08.743641  6297 net.cpp:425] pool1 <- conv1
I0802 07:18:08.743654  6297 net.cpp:399] pool1 -> pool1
I0802 07:18:08.743759  6297 net.cpp:141] Setting up pool1
I0802 07:18:08.743775  6297 net.cpp:148] Top shape: 10 96 27 27 (699840)
I0802 07:18:08.743783  6297 net.cpp:156] Memory required for data: 32214840
I0802 07:18:08.743790  6297 layer_factory.hpp:77] Creating layer norm1
I0802 07:18:08.743815  6297 net.cpp:91] Creating Layer norm1
I0802 07:18:08.743824  6297 net.cpp:425] norm1 <- pool1
I0802 07:18:08.743834  6297 net.cpp:399] norm1 -> norm1
I0802 07:18:08.744560  6297 net.cpp:141] Setting up norm1
I0802 07:18:08.744582  6297 net.cpp:148] Top shape: 10 96 27 27 (699840)
I0802 07:18:08.744590  6297 net.cpp:156] Memory required for data: 35014200
I0802 07:18:08.744598  6297 layer_factory.hpp:77] Creating layer conv2
I0802 07:18:08.744622  6297 net.cpp:91] Creating Layer conv2
I0802 07:18:08.744631  6297 net.cpp:425] conv2 <- norm1
I0802 07:18:08.744642  6297 net.cpp:399] conv2 -> conv2
I0802 07:18:08.749564  6297 net.cpp:141] Setting up conv2
I0802 07:18:08.749595  6297 net.cpp:148] Top shape: 10 256 27 27 (1866240)
I0802 07:18:08.749604  6297 net.cpp:156] Memory required for data: 42479160
I0802 07:18:08.749624  6297 layer_factory.hpp:77] Creating layer relu2
I0802 07:18:08.749644  6297 net.cpp:91] Creating Layer relu2
I0802 07:18:08.749651  6297 net.cpp:425] relu2 <- conv2
I0802 07:18:08.749670  6297 net.cpp:386] relu2 -> conv2 (in-place)
I0802 07:18:08.750339  6297 net.cpp:141] Setting up relu2
I0802 07:18:08.750352  6297 net.cpp:148] Top shape: 10 256 27 27 (1866240)
I0802 07:18:08.750357  6297 net.cpp:156] Memory required for data: 49944120
I0802 07:18:08.750362  6297 layer_factory.hpp:77] Creating layer pool2
I0802 07:18:08.750375  6297 net.cpp:91] Creating Layer pool2
I0802 07:18:08.750381  6297 net.cpp:425] pool2 <- conv2
I0802 07:18:08.750388  6297 net.cpp:399] pool2 -> pool2
I0802 07:18:08.750452  6297 net.cpp:141] Setting up pool2
I0802 07:18:08.750463  6297 net.cpp:148] Top shape: 10 256 13 13 (432640)
I0802 07:18:08.750466  6297 net.cpp:156] Memory required for data: 51674680
I0802 07:18:08.750474  6297 layer_factory.hpp:77] Creating layer norm2
I0802 07:18:08.750488  6297 net.cpp:91] Creating Layer norm2
I0802 07:18:08.750493  6297 net.cpp:425] norm2 <- pool2
I0802 07:18:08.750499  6297 net.cpp:399] norm2 -> norm2
I0802 07:18:08.750823  6297 net.cpp:141] Setting up norm2
I0802 07:18:08.750838  6297 net.cpp:148] Top shape: 10 256 13 13 (432640)
I0802 07:18:08.750844  6297 net.cpp:156] Memory required for data: 53405240
I0802 07:18:08.750850  6297 layer_factory.hpp:77] Creating layer conv3
I0802 07:18:08.750864  6297 net.cpp:91] Creating Layer conv3
I0802 07:18:08.750871  6297 net.cpp:425] conv3 <- norm2
I0802 07:18:08.750880  6297 net.cpp:399] conv3 -> conv3
I0802 07:18:08.755556  6297 net.cpp:141] Setting up conv3
I0802 07:18:08.755585  6297 net.cpp:148] Top shape: 10 384 13 13 (648960)
I0802 07:18:08.755594  6297 net.cpp:156] Memory required for data: 56001080
I0802 07:18:08.755611  6297 layer_factory.hpp:77] Creating layer relu3
I0802 07:18:08.755625  6297 net.cpp:91] Creating Layer relu3
I0802 07:18:08.755632  6297 net.cpp:425] relu3 <- conv3
I0802 07:18:08.755647  6297 net.cpp:386] relu3 -> conv3 (in-place)
I0802 07:18:08.756167  6297 net.cpp:141] Setting up relu3
I0802 07:18:08.756182  6297 net.cpp:148] Top shape: 10 384 13 13 (648960)
I0802 07:18:08.756187  6297 net.cpp:156] Memory required for data: 58596920
I0802 07:18:08.756192  6297 layer_factory.hpp:77] Creating layer conv4
I0802 07:18:08.756207  6297 net.cpp:91] Creating Layer conv4
I0802 07:18:08.756213  6297 net.cpp:425] conv4 <- conv3
I0802 07:18:08.756227  6297 net.cpp:399] conv4 -> conv4
I0802 07:18:08.758888  6287 net.cpp:141] Setting up lstm1_transform_1
I0802 07:18:08.758935  6287 net.cpp:148] Top shape: 1 1 4000 (4000)
I0802 07:18:08.758941  6287 net.cpp:156] Memory required for data: 62016
I0802 07:18:08.758965  6287 layer_factory.hpp:77] Creating layer lstm1_gate_input_1
I0802 07:18:08.758985  6287 net.cpp:91] Creating Layer lstm1_gate_input_1
I0802 07:18:08.758992  6287 net.cpp:425] lstm1_gate_input_1 <- W_hc_h_0
I0802 07:18:08.759001  6287 net.cpp:425] lstm1_gate_input_1 <- W_xc_x_1
I0802 07:18:08.759019  6287 net.cpp:399] lstm1_gate_input_1 -> gate_input_1
I0802 07:18:08.759637  6287 net.cpp:141] Setting up lstm1_gate_input_1
I0802 07:18:08.759649  6287 net.cpp:148] Top shape: 1 1 4000 (4000)
I0802 07:18:08.759654  6287 net.cpp:156] Memory required for data: 78016
I0802 07:18:08.759660  6287 layer_factory.hpp:77] Creating layer lstm1_unit_1
I0802 07:18:08.759668  6287 net.cpp:91] Creating Layer lstm1_unit_1
I0802 07:18:08.759675  6287 net.cpp:425] lstm1_unit_1 <- c_0
I0802 07:18:08.759680  6287 net.cpp:425] lstm1_unit_1 <- gate_input_1
I0802 07:18:08.759685  6287 net.cpp:425] lstm1_unit_1 <- cont_1_lstm1_cont_slice_0_split_1
I0802 07:18:08.759697  6287 net.cpp:399] lstm1_unit_1 -> c_1
I0802 07:18:08.759708  6287 net.cpp:399] lstm1_unit_1 -> h_1
I0802 07:18:08.759815  6287 net.cpp:141] Setting up lstm1_unit_1
I0802 07:18:08.759826  6287 net.cpp:148] Top shape: 1 1 1000 (1000)
I0802 07:18:08.759834  6287 net.cpp:148] Top shape: 1 1 1000 (1000)
I0802 07:18:08.759845  6287 net.cpp:156] Memory required for data: 86016
I0802 07:18:08.759850  6287 layer_factory.hpp:77] Creating layer lstm1_
I0802 07:18:08.759860  6287 net.cpp:91] Creating Layer lstm1_
I0802 07:18:08.759865  6287 net.cpp:425] lstm1_ <- c_1
I0802 07:18:08.759871  6287 net.cpp:399] lstm1_ -> c_T
I0802 07:18:08.760160  6287 net.cpp:141] Setting up lstm1_
I0802 07:18:08.760180  6287 net.cpp:148] Top shape: 1 1 1000 (1000)
I0802 07:18:08.760186  6287 net.cpp:156] Memory required for data: 90016
I0802 07:18:08.760192  6287 layer_factory.hpp:77] Creating layer lstm1_h_concat
I0802 07:18:08.760223  6287 net.cpp:91] Creating Layer lstm1_h_concat
I0802 07:18:08.760229  6287 net.cpp:425] lstm1_h_concat <- h_1
I0802 07:18:08.760237  6287 net.cpp:399] lstm1_h_concat -> h
I0802 07:18:08.760323  6287 net.cpp:141] Setting up lstm1_h_concat
I0802 07:18:08.760334  6287 net.cpp:148] Top shape: 1 1 1000 (1000)
I0802 07:18:08.760339  6287 net.cpp:156] Memory required for data: 94016
I0802 07:18:08.760344  6287 layer_factory.hpp:77] Creating layer h_pseudoloss
I0802 07:18:08.760371  6287 net.cpp:91] Creating Layer h_pseudoloss
I0802 07:18:08.760377  6287 net.cpp:425] h_pseudoloss <- h
I0802 07:18:08.760385  6287 net.cpp:399] h_pseudoloss -> h_pseudoloss
I0802 07:18:08.760496  6287 net.cpp:141] Setting up h_pseudoloss
…
I0802 07:18:08.760627  6287 net.cpp:219] lstm1_ does not need backward computation.
I0802 07:18:08.760630  6287 net.cpp:261] This network produces output c_T
I0802 07:18:08.760635  6287 net.cpp:261] This network produces output h_pseudoloss
I0802 07:18:08.760658  6287 net.cpp:274] Network initialization done.
I0802 07:18:08.760721  6287 recurrent_layer.cpp:150] Adding parameter 0: W_xc
I0802 07:18:08.760728  6287 recurrent_layer.cpp:150] Adding parameter 1: b_c
I0802 07:18:08.760733  6287 recurrent_layer.cpp:150] Adding parameter 2: W_hc
I0802 07:18:08.761358  6287 net.cpp:141] Setting up lstm1
I0802 07:18:08.761378  6287 net.cpp:148] Top shape: 1 1 1000 (1000)
I0802 07:18:08.761384  6287 net.cpp:156] Memory required for data: 26408
I0802 07:18:08.761399  6287 layer_factory.hpp:77] Creating layer concat
I0802 07:18:08.761443  6287 net.cpp:91] Creating Layer concat
I0802 07:18:08.761451  6287 net.cpp:425] concat <- lstm1
I0802 07:18:08.761459  6287 net.cpp:425] concat <- embedded_input_sentence
I0802 07:18:08.761466  6287 net.cpp:425] concat <- reshaped_stage_indicator
I0802 07:18:08.761472  6287 net.cpp:399] concat -> lstm1_video_sequence
I0802 07:18:08.761862  6287 net.cpp:141] Setting up concat
I0802 07:18:08.761873  6287 net.cpp:148] Top shape: 1 1 1501 (1501)
I0802 07:18:08.761878  6287 net.cpp:156] Memory required for data: 32412
I0802 07:18:08.761883  6287 layer_factory.hpp:77] Creating layer lstm2
I0802 07:18:08.761898  6287 net.cpp:91] Creating Layer lstm2
I0802 07:18:08.761903  6287 net.cpp:425] lstm2 <- lstm1_video_sequence
I0802 07:18:08.761909  6287 net.cpp:425] lstm2 <- cont_sentence_input_1_split_1
I0802 07:18:08.761917  6287 net.cpp:399] lstm2 -> lstm2
I0802 07:18:08.761929  6287 recurrent_layer.cpp:20] Initializing recurrent layer: assuming input batch contains 1 timesteps of 1 independent streams.
I0802 07:18:08.762228  6287 net.cpp:49] Initializing net from parameters: 
layer {
  name: "lstm2_"
  type: "Input"
  top: "x"
  top: "cont"
  input_param {
    shape {
      dim: 1
      dim: 1
      dim: 1501
    }
    shape {
      dim: 1
      dim: 1
    }
  }
}
layer {
  name: "lstm2_"
  type: "Input"
  top: "c_0"
  top: "h_0"
  input_param {
    shape {
      dim: 1
      dim: 1
      dim: 1000
    }
    shape {
      dim: 1
      dim: 1
      dim: 1000
    }
  }
}
layer {
  name: "lstm2_cont_slice"
  type: "Slice"
  bottom: "cont"
  top: "cont_1"
  slice_param {
    axis: 0
  }
}
layer {
  name: "lstm2_x_transform"
  type: "InnerProduct"
  bottom: "x"
  top: "W_xc_x"
  param {
    name: "W_xc"
  }
  param {
    name: "b_c"
  }
  propagate_down: true
  inner_product_param {
    num_output: 4000
    bias_term: true
    weight_filler {
      type: "uniform"
      min: -0.08
      max: 0.08
    }
    bias_filler {
      type: "constant"
      value: 0
    }
    axis: 2
  }
}
layer {
  name: "lstm2_W_xc_x_slice"
  type: "Slice"
  bottom: "W_xc_x"
  top: "W_xc_x_1"
  slice_param {
    axis: 0
  }
}
layer {
  name: "lstm2_h_conted_0"
  type: "Scale"
  bottom: "h_0"
  bottom: "cont_1"
  top: "h_conted_0"
  scale_param {
    axis: 0
  }
}
layer {
  name: "lstm2_transform_1"
  type: "InnerProduct"
  bottom: "h_conted_0"
  top: "W_hc_h_0"
  param {
    name: "W_hc"
  }
  inner_product_param {
    num_output: 4000
    bias_term: false
    weight_filler {
      type: "uniform"
      min: -0.08
      max: 0.08
    }
    axis: 2
  }
}
layer {
  name: "lstm2_gate_input_1"
  type: "Eltwise"
  bottom: "W_hc_h_0"
  bottom: "W_xc_x_1"
  top: "gate_input_1"
  eltwise_param {
    operation: SUM
  }
}
layer {
  name: "lstm2_unit_1"
  type: "LSTMUnit"
  bottom: "c_0"
  bottom: "gate_input_1"
  bottom: "cont_1"
  top: "c_1"
  top: "h_1"
}
layer {
  name: "lstm2_"
  type: "Split"
  bottom: "c_1"
  top: "c_T"
}
layer {
  name: "lstm2_h_concat"
  type: "Concat"
  bottom: "h_1"
  top: "h"
  concat_param {
    axis: 0
  }
}
layer {
  name: "h_pseudoloss"
  type: "Reduction"
  bottom: "h"
  top: "h_pseudoloss"
  loss_weight: 1
}
I0802 07:18:08.762331  6287 layer_factory.hpp:77] Creating layer lstm2_
I0802 07:18:08.762344  6287 net.cpp:91] Creating Layer lstm2_
I0802 07:18:08.762351  6287 net.cpp:399] lstm2_ -> x
I0802 07:18:08.762363  6287 net.cpp:399] lstm2_ -> cont
I0802 07:18:08.762370  6297 net.cpp:141] Setting up conv4
I0802 07:18:08.762392  6297 net.cpp:148] Top shape: 10 384 13 13 (648960)
I0802 07:18:08.762398  6297 net.cpp:156] Memory required for data: 61192760
I0802 07:18:08.762425  6297 layer_factory.hpp:77] Creating layer relu4
I0802 07:18:08.762431  6287 net.cpp:141] Setting up lstm2_
I0802 07:18:08.762440  6297 net.cpp:91] Creating Layer relu4
I0802 07:18:08.762442  6287 net.cpp:148] Top shape: 1 1 1501 (1501)
I0802 07:18:08.762449  6297 net.cpp:425] relu4 <- conv4
I0802 07:18:08.762449  6287 net.cpp:148] Top shape: 1 1 (1)
I0802 07:18:08.762454  6287 net.cpp:156] Memory required for data: 6008
I0802 07:18:08.762456  6297 net.cpp:386] relu4 -> conv4 (in-place)
I0802 07:18:08.762459  6287 layer_factory.hpp:77] Creating layer lstm2_
I0802 07:18:08.762470  6287 net.cpp:91] Creating Layer lstm2_
I0802 07:18:08.762475  6287 net.cpp:399] lstm2_ -> c_0
I0802 07:18:08.762491  6287 net.cpp:399] lstm2_ -> h_0
I0802 07:18:08.762955  6287 net.cpp:141] Setting up lstm2_
I0802 07:18:08.762967  6287 net.cpp:148] Top shape: 1 1 1000 (1000)
I0802 07:18:08.762974  6287 net.cpp:148] Top shape: 1 1 1000 (1000)
I0802 07:18:08.762977  6287 net.cpp:156] Memory required for data: 14008
I0802 07:18:08.762982  6287 layer_factory.hpp:77] Creating layer lstm2_cont_slice
I0802 07:18:08.763003  6287 net.cpp:91] Creating Layer lstm2_cont_slice
I0802 07:18:08.763010  6287 net.cpp:425] lstm2_cont_slice <- cont
I0802 07:18:08.763017  6287 net.cpp:399] lstm2_cont_slice -> cont_1
I0802 07:18:08.763067  6297 net.cpp:141] Setting up relu4
I0802 07:18:08.763084  6287 net.cpp:141] Setting up lstm2_cont_slice
I0802 07:18:08.763087  6297 net.cpp:148] Top shape: 10 384 13 13 (648960)
I0802 07:18:08.763099  6287 net.cpp:148] Top shape: 1 1 (1)
I0802 07:18:08.763100  6297 net.cpp:156] Memory required for data: 63788600
I0802 07:18:08.763104  6287 net.cpp:156] Memory required for data: 14012
I0802 07:18:08.763108  6297 layer_factory.hpp:77] Creating layer conv5
I0802 07:18:08.763109  6287 layer_factory.hpp:77] Creating layer cont_1_lstm2_cont_slice_0_split
I0802 07:18:08.763118  6287 net.cpp:91] Creating Layer cont_1_lstm2_cont_slice_0_split
I0802 07:18:08.763123  6287 net.cpp:425] cont_1_lstm2_cont_slice_0_split <- cont_1
I0802 07:18:08.763133  6297 net.cpp:91] Creating Layer conv5
I0802 07:18:08.763137  6287 net.cpp:399] cont_1_lstm2_cont_slice_0_split -> cont_1_lstm2_cont_slice_0_split_0
I0802 07:18:08.763139  6297 net.cpp:425] conv5 <- conv4
I0802 07:18:08.763151  6287 net.cpp:399] cont_1_lstm2_cont_slice_0_split -> cont_1_lstm2_cont_slice_0_split_1
I0802 07:18:08.763159  6297 net.cpp:399] conv5 -> conv5
I0802 07:18:08.763252  6287 net.cpp:141] Setting up cont_1_lstm2_cont_slice_0_split
I0802 07:18:08.763263  6287 net.cpp:148] Top shape: 1 1 (1)
I0802 07:18:08.763268  6287 net.cpp:148] Top shape: 1 1 (1)
I0802 07:18:08.763273  6287 net.cpp:156] Memory required for data: 14020
I0802 07:18:08.763278  6287 layer_factory.hpp:77] Creating layer lstm2_x_transform
I0802 07:18:08.763293  6287 net.cpp:91] Creating Layer lstm2_x_transform
I0802 07:18:08.763299  6287 net.cpp:425] lstm2_x_transform <- x
I0802 07:18:08.763308  6287 net.cpp:399] lstm2_x_transform -> W_xc_x
I0802 07:18:08.780304  6297 net.cpp:141] Setting up conv5
I0802 07:18:08.780350  6297 net.cpp:148] Top shape: 10 256 13 13 (432640)
I0802 07:18:08.780356  6297 net.cpp:156] Memory required for data: 65519160
I0802 07:18:08.780383  6297 layer_factory.hpp:77] Creating layer relu5
I0802 07:18:08.780401  6297 net.cpp:91] Creating Layer relu5
I0802 07:18:08.780410  6297 net.cpp:425] relu5 <- conv5
I0802 07:18:08.780419  6297 net.cpp:386] relu5 -> conv5 (in-place)
I0802 07:18:08.781126  6297 net.cpp:141] Setting up relu5
I0802 07:18:08.781154  6297 net.cpp:148] Top shape: 10 256 13 13 (432640)
I0802 07:18:08.781160  6297 net.cpp:156] Memory required for data: 67249720
I0802 07:18:08.781167  6297 layer_factory.hpp:77] Creating layer pool5
I0802 07:18:08.781182  6297 net.cpp:91] Creating Layer pool5
I0802 07:18:08.781188  6297 net.cpp:425] pool5 <- conv5
I0802 07:18:08.781195  6297 net.cpp:399] pool5 -> pool5
I0802 07:18:08.781286  6297 net.cpp:141] Setting up pool5
I0802 07:18:08.781297  6297 net.cpp:148] Top shape: 10 256 6 6 (92160)
I0802 07:18:08.781302  6297 net.cpp:156] Memory required for data: 67618360
I0802 07:18:08.781307  6297 layer_factory.hpp:77] Creating layer fc6
I0802 07:18:08.781325  6297 net.cpp:91] Creating Layer fc6
I0802 07:18:08.781330  6297 net.cpp:425] fc6 <- pool5
I0802 07:18:08.781338  6297 net.cpp:399] fc6 -> fc6
I0802 07:18:08.851608  6287 net.cpp:141] Setting up lstm2_x_transform
I0802 07:18:08.851658  6287 net.cpp:148] Top shape: 1 1 4000 (4000)
I0802 07:18:08.851665  6287 net.cpp:156] Memory required for data: 30020
I0802 07:18:08.851689  6287 layer_factory.hpp:77] Creating layer lstm2_W_xc_x_slice
I0802 07:18:08.851712  6287 net.cpp:91] Creating Layer lstm2_W_xc_x_slice
I0802 07:18:08.851719  6287 net.cpp:425] lstm2_W_xc_x_slice <- W_xc_x
I0802 07:18:08.851730  6287 net.cpp:399] lstm2_W_xc_x_slice -> W_xc_x_1
I0802 07:18:08.851779  6287 net.cpp:141] Setting up lstm2_W_xc_x_slice
I0802 07:18:08.851789  6287 net.cpp:148] Top shape: 1 1 4000 (4000)
I0802 07:18:08.851794  6287 net.cpp:156] Memory required for data: 46020
I0802 07:18:08.851799  6287 layer_factory.hpp:77] Creating layer lstm2_h_conted_0
I0802 07:18:08.851815  6287 net.cpp:91] Creating Layer lstm2_h_conted_0
I0802 07:18:08.851821  6287 net.cpp:425] lstm2_h_conted_0 <- h_0
I0802 07:18:08.851827  6287 net.cpp:425] lstm2_h_conted_0 <- cont_1_lstm2_cont_slice_0_split_0
I0802 07:18:08.851835  6287 net.cpp:399] lstm2_h_conted_0 -> h_conted_0
I0802 07:18:08.851943  6287 net.cpp:141] Setting up lstm2_h_conted_0
I0802 07:18:08.851953  6287 net.cpp:148] Top shape: 1 1 1000 (1000)
I0802 07:18:08.851958  6287 net.cpp:156] Memory required for data: 50020
I0802 07:18:08.851963  6287 layer_factory.hpp:77] Creating layer lstm2_transform_1
I0802 07:18:08.851980  6287 net.cpp:91] Creating Layer lstm2_transform_1
I0802 07:18:08.851986  6287 net.cpp:425] lstm2_transform_1 <- h_conted_0
I0802 07:18:08.851994  6287 net.cpp:399] lstm2_transform_1 -> W_hc_h_0
I0802 07:18:08.895426  6287 net.cpp:141] Setting up lstm2_transform_1
I0802 07:18:08.895475  6287 net.cpp:148] Top shape: 1 1 4000 (4000)
I0802 07:18:08.895481  6287 net.cpp:156] Memory required for data: 66020
I0802 07:18:08.895505  6287 layer_factory.hpp:77] Creating layer lstm2_gate_input_1
I0802 07:18:08.895527  6287 net.cpp:91] Creating Layer lstm2_gate_input_1
I0802 07:18:08.895535  6287 net.cpp:425] lstm2_gate_input_1 <- W_hc_h_0
I0802 07:18:08.895545  6287 net.cpp:425] lstm2_gate_input_1 <- W_xc_x_1
I0802 07:18:08.895556  6287 net.cpp:399] lstm2_gate_input_1 -> gate_input_1
I0802 07:18:08.895611  6287 net.cpp:141] Setting up lstm2_gate_input_1
I0802 07:18:08.895619  6287 net.cpp:148] Top shape: 1 1 4000 (4000)
I0802 07:18:08.895624  6287 net.cpp:156] Memory required for data: 82020
I0802 07:18:08.895628  6287 layer_factory.hpp:77] Creating layer lstm2_unit_1
I0802 07:18:08.895643  6287 net.cpp:91] Creating Layer lstm2_unit_1
I0802 07:18:08.895648  6287 net.cpp:425] lstm2_unit_1 <- c_0
I0802 07:18:08.895655  6287 net.cpp:425] lstm2_unit_1 <- gate_input_1
I0802 07:18:08.895661  6287 net.cpp:425] lstm2_unit_1 <- cont_1_lstm2_cont_slice_0_split_1
I0802 07:18:08.895668  6287 net.cpp:399] lstm2_unit_1 -> c_1
I0802 07:18:08.895678  6287 net.cpp:399] lstm2_unit_1 -> h_1
I0802 07:18:08.895751  6287 net.cpp:141] Setting up lstm2_unit_1
I0802 07:18:08.895761  6287 net.cpp:148] Top shape: 1 1 1000 (1000)
I0802 07:18:08.895767  6287 net.cpp:148] Top shape: 1 1 1000 (1000)
I0802 07:18:08.895771  6287 net.cpp:156] Memory required for data: 90020
I0802 07:18:08.895776  6287 layer_factory.hpp:77] Creating layer lstm2_
I0802 07:18:08.895787  6287 net.cpp:91] Creating Layer lstm2_
I0802 07:18:08.895792  6287 net.cpp:425] lstm2_ <- c_1
I0802 07:18:08.895802  6287 net.cpp:399] lstm2_ -> c_T
I0802 07:18:08.895889  6287 net.cpp:141] Setting up lstm2_
I0802 07:18:08.895901  6287 net.cpp:148] Top shape: 1 1 1000 (1000)
I0802 07:18:08.895905  6287 net.cpp:156] Memory required for data: 94020
I0802 07:18:08.895910  6287 layer_factory.hpp:77] Creating layer lstm2_h_concat
I0802 07:18:08.895921  6287 net.cpp:91] Creating Layer lstm2_h_concat
I0802 07:18:08.895927  6287 net.cpp:425] lstm2_h_concat <- h_1
I0802 07:18:08.895936  6287 net.cpp:399] lstm2_h_concat -> h
I0802 07:18:08.895997  6287 net.cpp:141] Setting up lstm2_h_concat
I0802 07:18:08.896015  6287 net.cpp:148] Top shape: 1 1 1000 (1000)
I0802 07:18:08.896020  6287 net.cpp:156] Memory required for data: 98020
I0802 07:18:08.896025  6287 layer_factory.hpp:77] Creating layer h_pseudoloss
I0802 07:18:08.896036  6287 net.cpp:91] Creating Layer h_pseudoloss
I0802 07:18:08.896041  6287 net.cpp:425] h_pseudoloss <- h
I0802 07:18:08.896049  6287 net.cpp:399] h_pseudoloss -> h_pseudoloss
I0802 07:18:08.896136  6297 net.cpp:141] Setting up fc6
I0802 07:18:08.896176  6297 net.cpp:148] Top shape: 10 4096 (40960)
I0802 07:18:08.896183  6297 net.cpp:156] Memory required for data: 67782200
I0802 07:18:08.896201  6297 layer_factory.hpp:77] Creating layer relu6
I0802 07:18:08.896219  6297 net.cpp:91] Creating Layer relu6
I0802 07:18:08.896225  6297 net.cpp:425] relu6 <- fc6
I0802 07:18:08.896229  6287 net.cpp:141] Setting up h_pseudoloss
I0802 07:18:08.896239  6297 net.cpp:386] relu6 -> fc6 (in-place)
…
I0802 07:18:08.896345  6287 net.cpp:219] lstm2_ does not need backward computation.
I0802 07:18:08.896348  6287 net.cpp:261] This network produces output c_T
I0802 07:18:08.896354  6287 net.cpp:261] This network produces output h_pseudoloss
I0802 07:18:08.896369  6287 net.cpp:274] Network initialization done.
I0802 07:18:08.896425  6287 recurrent_layer.cpp:150] Adding parameter 0: W_xc
I0802 07:18:08.896431  6287 recurrent_layer.cpp:150] Adding parameter 1: b_c
I0802 07:18:08.896435  6287 recurrent_layer.cpp:150] Adding parameter 2: W_hc
I0802 07:18:08.896649  6287 net.cpp:141] Setting up lstm2
I0802 07:18:08.896661  6287 net.cpp:148] Top shape: 1 1 1000 (1000)
I0802 07:18:08.896667  6287 net.cpp:156] Memory required for data: 36412
I0802 07:18:08.896682  6287 layer_factory.hpp:77] Creating layer predict
I0802 07:18:08.896695  6287 net.cpp:91] Creating Layer predict
I0802 07:18:08.896703  6287 net.cpp:425] predict <- lstm2
I0802 07:18:08.896709  6287 net.cpp:399] predict -> predict
I0802 07:18:08.896759  6297 net.cpp:141] Setting up relu6
I0802 07:18:08.896775  6297 net.cpp:148] Top shape: 10 4096 (40960)
I0802 07:18:08.896780  6297 net.cpp:156] Memory required for data: 67946040
I0802 07:18:08.896785  6297 layer_factory.hpp:77] Creating layer drop6
I0802 07:18:08.896796  6297 net.cpp:91] Creating Layer drop6
I0802 07:18:08.896801  6297 net.cpp:425] drop6 <- fc6
I0802 07:18:08.896809  6297 net.cpp:386] drop6 -> fc6 (in-place)
I0802 07:18:08.984398  6297 net.cpp:141] Setting up drop6
I0802 07:18:08.984459  6297 net.cpp:148] Top shape: 10 4096 (40960)
I0802 07:18:08.984470  6297 net.cpp:156] Memory required for data: 68109880
I0802 07:18:08.984485  6297 layer_factory.hpp:77] Creating layer fc7
I0802 07:18:08.984513  6297 net.cpp:91] Creating Layer fc7
I0802 07:18:08.984526  6297 net.cpp:425] fc7 <- fc6
I0802 07:18:08.984549  6297 net.cpp:399] fc7 -> fc7
I0802 07:18:09.040151  6297 net.cpp:141] Setting up fc7
I0802 07:18:09.040213  6297 net.cpp:148] Top shape: 10 4096 (40960)
I0802 07:18:09.040222  6297 net.cpp:156] Memory required for data: 68273720
I0802 07:18:09.040246  6297 layer_factory.hpp:77] Creating layer relu7
I0802 07:18:09.040269  6297 net.cpp:91] Creating Layer relu7
I0802 07:18:09.040280  6297 net.cpp:425] relu7 <- fc7
I0802 07:18:09.040300  6297 net.cpp:386] relu7 -> fc7 (in-place)
I0802 07:18:09.041501  6297 net.cpp:141] Setting up relu7
I0802 07:18:09.041523  6297 net.cpp:148] Top shape: 10 4096 (40960)
I0802 07:18:09.041535  6297 net.cpp:156] Memory required for data: 68437560
I0802 07:18:09.041546  6297 layer_factory.hpp:77] Creating layer drop7
I0802 07:18:09.041579  6297 net.cpp:91] Creating Layer drop7
I0802 07:18:09.041594  6297 net.cpp:425] drop7 <- fc7
I0802 07:18:09.041609  6297 net.cpp:386] drop7 -> fc7 (in-place)
I0802 07:18:09.041682  6297 net.cpp:141] Setting up drop7
I0802 07:18:09.041700  6297 net.cpp:148] Top shape: 10 4096 (40960)
I0802 07:18:09.041712  6297 net.cpp:156] Memory required for data: 68601400
I0802 07:18:09.041721  6297 layer_factory.hpp:77] Creating layer fc8
I0802 07:18:09.041741  6297 net.cpp:91] Creating Layer fc8
I0802 07:18:09.041754  6297 net.cpp:425] fc8 <- fc7
I0802 07:18:09.041777  6297 net.cpp:399] fc8 -> fc8
I0802 07:18:09.055290  6297 net.cpp:141] Setting up fc8
I0802 07:18:09.055352  6297 net.cpp:148] Top shape: 10 1000 (10000)
I0802 07:18:09.055362  6297 net.cpp:156] Memory required for data: 68641400
I0802 07:18:09.055384  6297 layer_factory.hpp:77] Creating layer prob
I0802 07:18:09.055411  6297 net.cpp:91] Creating Layer prob
I0802 07:18:09.055423  6297 net.cpp:425] prob <- fc8
I0802 07:18:09.055440  6297 net.cpp:399] prob -> prob
I0802 07:18:09.056166  6297 net.cpp:141] Setting up prob
I0802 07:18:09.056188  6297 net.cpp:148] Top shape: 10 1000 (10000)
I0802 07:18:09.056200  6297 net.cpp:156] Memory required for data: 68681400
I0802 07:18:09.056212  6297 net.cpp:219] prob does not need backward computation.
I0802 07:18:09.056223  6297 net.cpp:219] fc8 does not need backward computation.
I0802 07:18:09.056233  6297 net.cpp:219] drop7 does not need backward computation.
I0802 07:18:09.056244  6297 net.cpp:219] relu7 does not need backward computation.
…
