…
Java HotSpot(TM) 64-Bit Server VM warning: You have loaded library /tmp/cvld512068989148649172/libopencv_java310.xine1.so which might have disabled stack guard. The VM will try to fix the stack guard now.
It's highly recommended that you fix the library with 'execstack -c <libfile>', or link it with '-z noexecstack'.
WARNING: Logging before InitGoogleLogging() is written to STDERR
I0801 03:06:10.095270  7058 net.cpp:49] Initializing net from parameters: 
name: "CaffeNet"
state {
  phase: TEST
}
layer {
  name: "data"
  type: "Input"
  top: "data"
  input_param {
    shape {
      dim: 10
      dim: 3
      dim: 227
      dim: 227
    }
  }
}
layer {
  name: "conv1"
  type: "Convolution"
  bottom: "data"
  top: "conv1"
  convolution_param {
    num_output: 96
    kernel_size: 11
    stride: 4
  }
}
layer {
  name: "relu1"
  type: "ReLU"
  bottom: "conv1"
  top: "conv1"
}
layer {
  name: "pool1"
  type: "Pooling"
  bottom: "conv1"
  top: "pool1"
  pooling_param {
    pool: MAX
    kernel_size: 3
    stride: 2
  }
}
layer {
  name: "norm1"
  type: "LRN"
  bottom: "pool1"
  top: "norm1"
  lrn_param {
    local_size: 5
    alpha: 0.0001
    beta: 0.75
  }
}
layer {
  name: "conv2"
  type: "Convolution"
  bottom: "norm1"
  top: "conv2"
  convolution_param {
    num_output: 256
    pad: 2
    kernel_size: 5
    group: 2
  }
}
layer {
  name: "relu2"
  type: "ReLU"
  bottom: "conv2"
  top: "conv2"
}
layer {
  name: "pool2"
  type: "Pooling"
  bottom: "conv2"
  top: "pool2"
  pooling_param {
    pool: MAX
    kernel_size: 3
    stride: 2
  }
}
layer {
  name: "norm2"
  type: "LRN"
  bottom: "pool2"
  top: "norm2"
  lrn_param {
    local_size: 5
    alpha: 0.0001
    beta: 0.75
  }
}
layer {
  name: "conv3"
  type: "Convolution"
  bottom: "norm2"
  top: "conv3"
  convolution_param {
    num_output: 384
    pad: 1
    kernel_size: 3
  }
}
layer {
  name: "relu3"
  type: "ReLU"
  bottom: "conv3"
  top: "conv3"
}
layer {
  name: "conv4"
  type: "Convolution"
  bottom: "conv3"
  top: "conv4"
  convolution_param {
    num_output: 384
    pad: 1
    kernel_size: 3
    group: 2
  }
}
layer {
  name: "relu4"
  type: "ReLU"
  bottom: "conv4"
  top: "conv4"
}
layer {
  name: "conv5"
  type: "Convolution"
  bottom: "conv4"
  top: "conv5"
  convolution_param {
    num_output: 256
    pad: 1
    kernel_size: 3
    group: 2
  }
}
layer {
  name: "relu5"
  type: "ReLU"
  bottom: "conv5"
  top: "conv5"
}
layer {
  name: "pool5"
  type: "Pooling"
  bottom: "conv5"
  top: "pool5"
  pooling_param {
    pool: MAX
    kernel_size: 3
    stride: 2
  }
}
layer {
  name: "fc6"
  type: "InnerProduct"
  bottom: "pool5"
  top: "fc6"
  inner_product_param {
    num_output: 4096
  }
}
layer {
  name: "relu6"
  type: "ReLU"
  bottom: "fc6"
  top: "fc6"
}
layer {
  name: "drop6"
  type: "Dropout"
  bottom: "fc6"
  top: "fc6"
  dropout_param {
    dropout_ratio: 0.5
  }
}
layer {
  name: "fc7"
  type: "InnerProduct"
  bottom: "fc6"
  top: "fc7"
  inner_product_param {
    num_output: 4096
  }
}
layer {
  name: "relu7"
  type: "ReLU"
  bottom: "fc7"
  top: "fc7"
}
layer {
  name: "drop7"
  type: "Dropout"
  bottom: "fc7"
  top: "fc7"
  dropout_param {
    dropout_ratio: 0.5
  }
}
layer {
  name: "fc8"
  type: "InnerProduct"
  bottom: "fc7"
  top: "fc8"
  inner_product_param {
    num_output: 1000
  }
}
layer {
  name: "prob"
  type: "Softmax"
  bottom: "fc8"
  top: "prob"
}
I0801 03:06:10.095460  7058 layer_factory.hpp:77] Creating layer data
I0801 03:06:10.095484  7058 net.cpp:91] Creating Layer data
I0801 03:06:10.095495  7058 net.cpp:399] data -> data
I0801 03:06:10.565100  7058 net.cpp:141] Setting up data
I0801 03:06:10.565197  7058 net.cpp:148] Top shape: 10 3 227 227 (1545870)
I0801 03:06:10.565204  7058 net.cpp:156] Memory required for data: 6183480
I0801 03:06:10.565223  7058 layer_factory.hpp:77] Creating layer conv1
I0801 03:06:10.565253  7058 net.cpp:91] Creating Layer conv1
I0801 03:06:10.565263  7058 net.cpp:425] conv1 <- data
I0801 03:06:10.565276  7058 net.cpp:399] conv1 -> conv1
I0801 03:06:10.602414  7048 upgrade_proto.cpp:66] Attempting to upgrade input file specified using deprecated input fields: /tmp/cvld512068989148649172/s2vt.words_to_preds.prototxt
I0801 03:06:10.602469  7048 upgrade_proto.cpp:69] Successfully upgraded file specified using deprecated input fields.
W0801 03:06:10.602478  7048 upgrade_proto.cpp:71] Note that future Caffe releases will only support input layers and not input fields.
I0801 03:06:10.602752  7048 net.cpp:49] Initializing net from parameters: 
name: "s2vt:features_to_lstm"
state {
  phase: TEST
}
layer {
  name: "input"
  type: "Input"
  top: "frames_fc7"
  top: "cont_sentence"
  top: "input_sentence"
  top: "stage_indicator"
  input_param {
    shape {
      dim: 1
      dim: 4096
    }
    shape {
      dim: 1
      dim: 1
    }
    shape {
      dim: 1
      dim: 1
    }
    shape {
      dim: 1
      dim: 1
    }
  }
}
layer {
  name: "embed_encoder"
  type: "InnerProduct"
  bottom: "frames_fc7"
  top: "embedded_in_frames"
  param {
    lr_mult: 1
    decay_mult: 1
  }
  param {
    lr_mult: 2
    decay_mult: 0
  }
  inner_product_param {
    num_output: 500
    weight_filler {
      type: "xavier"
    }
    bias_filler {
      type: "constant"
      value: 0.2
    }
  }
}
layer {
  name: "reshape_frames"
  type: "Reshape"
  bottom: "embedded_in_frames"
  top: "embedded_input_frames"
  reshape_param {
    shape {
      dim: 1
      dim: 1
      dim: 500
    }
  }
}
layer {
  name: "reshape_stage_indicator"
  type: "Reshape"
  bottom: "stage_indicator"
  top: "reshaped_stage_indicator"
  reshape_param {
    shape {
      dim: 1
      dim: 1
      dim: 1
    }
  }
}
layer {
  name: "embedding"
  type: "Embed"
  bottom: "input_sentence"
  top: "embedded_input_sentence"
  param {
    lr_mult: 1
  }
  embed_param {
    num_output: 500
    input_dim: 46168
    bias_term: false
    weight_filler {
      type: "uniform"
      min: -0.08
      max: 0.08
    }
  }
}
layer {
  name: "lstm1"
  type: "LSTM"
  bottom: "embedded_input_frames"
  bottom: "cont_sentence"
  top: "lstm1"
  recurrent_param {
    num_output: 1000
    weight_filler {
      type: "uniform"
      min: -0.08
      max: 0.08
    }
    bias_filler {
      type: "constant"
      value: 0
    }
  }
}
layer {
  name: "concat"
  type: "Concat"
  bottom: "lstm1"
  bottom: "embedded_input_sentence"
  bottom: "reshaped_stage_indicator"
  top: "lstm1_video_sequence"
  concat_param {
    concat_dim: 2
  }
}
layer {
  name: "lstm2"
  type: "LSTM"
  bottom: "lstm1_video_sequence"
  bottom: "cont_sentence"
  top: "lstm2"
  recurrent_param {
    num_output: 1000
    weight_filler {
      type: "uniform"
      min: -0.08
      max: 0.08
    }
    bias_filler {
      type: "constant"
      value: 0
    }
  }
}
layer {
  name: "predict"
  type: "InnerProduct"
  bottom: "lstm2"
  top: "predict"
  param {
    lr_mult: 1
    decay_mult: 1
  }
  param {
    lr_mult: 2
    decay_mult: 0
  }
  inner_product_param {
    num_output: 46168
    weight_filler {
      type: "uniform"
      min: -0.08
      max: 0.08
    }
    bias_filler {
      type: "constant"
      value: 0
    }
    axis: 2
  }
}
layer {
  name: "probs"
  type: "Softmax"
  bottom: "predict"
  top: "probs"
  softmax_param {
    axis: 2
  }
}
I0801 03:06:10.602859  7048 layer_factory.hpp:77] Creating layer input
I0801 03:06:10.602874  7048 net.cpp:91] Creating Layer input
I0801 03:06:10.602882  7048 net.cpp:399] input -> frames_fc7
I0801 03:06:10.602903  7048 net.cpp:399] input -> cont_sentence
I0801 03:06:10.602913  7048 net.cpp:399] input -> input_sentence
I0801 03:06:10.602923  7048 net.cpp:399] input -> stage_indicator
I0801 03:06:10.603158  7048 net.cpp:141] Setting up input
I0801 03:06:10.603173  7048 net.cpp:148] Top shape: 1 4096 (4096)
I0801 03:06:10.603178  7048 net.cpp:148] Top shape: 1 1 (1)
I0801 03:06:10.603183  7048 net.cpp:148] Top shape: 1 1 (1)
I0801 03:06:10.603189  7048 net.cpp:148] Top shape: 1 1 (1)
I0801 03:06:10.603193  7048 net.cpp:156] Memory required for data: 16396
I0801 03:06:10.603199  7048 layer_factory.hpp:77] Creating layer cont_sentence_input_1_split
I0801 03:06:10.603217  7048 net.cpp:91] Creating Layer cont_sentence_input_1_split
I0801 03:06:10.603224  7048 net.cpp:425] cont_sentence_input_1_split <- cont_sentence
I0801 03:06:10.603242  7048 net.cpp:399] cont_sentence_input_1_split -> cont_sentence_input_1_split_0
I0801 03:06:10.603255  7048 net.cpp:399] cont_sentence_input_1_split -> cont_sentence_input_1_split_1
I0801 03:06:10.603390  7048 net.cpp:141] Setting up cont_sentence_input_1_split
I0801 03:06:10.603400  7048 net.cpp:148] Top shape: 1 1 (1)
I0801 03:06:10.603406  7048 net.cpp:148] Top shape: 1 1 (1)
I0801 03:06:10.603410  7048 net.cpp:156] Memory required for data: 16404
I0801 03:06:10.603415  7048 layer_factory.hpp:77] Creating layer embed_encoder
I0801 03:06:10.603433  7048 net.cpp:91] Creating Layer embed_encoder
I0801 03:06:10.603440  7048 net.cpp:425] embed_encoder <- frames_fc7
I0801 03:06:10.603448  7048 net.cpp:399] embed_encoder -> embedded_in_frames
I0801 03:06:10.626899  7048 net.cpp:141] Setting up embed_encoder
I0801 03:06:10.626966  7048 net.cpp:148] Top shape: 1 500 (500)
I0801 03:06:10.626979  7048 net.cpp:156] Memory required for data: 18404
I0801 03:06:10.627022  7048 layer_factory.hpp:77] Creating layer reshape_frames
I0801 03:06:10.627068  7048 net.cpp:91] Creating Layer reshape_frames
I0801 03:06:10.627082  7048 net.cpp:425] reshape_frames <- embedded_in_frames
I0801 03:06:10.627102  7048 net.cpp:399] reshape_frames -> embedded_input_frames
I0801 03:06:10.629675  7048 net.cpp:141] Setting up reshape_frames
I0801 03:06:10.629714  7048 net.cpp:148] Top shape: 1 1 500 (500)
I0801 03:06:10.629724  7048 net.cpp:156] Memory required for data: 20404
I0801 03:06:10.629735  7048 layer_factory.hpp:77] Creating layer reshape_stage_indicator
I0801 03:06:10.629760  7048 net.cpp:91] Creating Layer reshape_stage_indicator
I0801 03:06:10.629771  7048 net.cpp:425] reshape_stage_indicator <- stage_indicator
I0801 03:06:10.629798  7048 net.cpp:399] reshape_stage_indicator -> reshaped_stage_indicator
I0801 03:06:10.630102  7048 net.cpp:141] Setting up reshape_stage_indicator
I0801 03:06:10.630125  7048 net.cpp:148] Top shape: 1 1 1 (1)
I0801 03:06:10.630132  7048 net.cpp:156] Memory required for data: 20408
I0801 03:06:10.630142  7048 layer_factory.hpp:77] Creating layer embedding
I0801 03:06:10.630164  7048 net.cpp:91] Creating Layer embedding
I0801 03:06:10.630174  7048 net.cpp:425] embedding <- input_sentence
I0801 03:06:10.630195  7048 net.cpp:399] embedding -> embedded_input_sentence
I0801 03:06:10.839285  7058 net.cpp:141] Setting up conv1
I0801 03:06:10.839336  7058 net.cpp:148] Top shape: 10 96 55 55 (2904000)
I0801 03:06:10.839342  7058 net.cpp:156] Memory required for data: 17799480
I0801 03:06:10.839365  7058 layer_factory.hpp:77] Creating layer relu1
I0801 03:06:10.839385  7058 net.cpp:91] Creating Layer relu1
I0801 03:06:10.839391  7058 net.cpp:425] relu1 <- conv1
I0801 03:06:10.839399  7058 net.cpp:386] relu1 -> conv1 (in-place)
I0801 03:06:10.839826  7058 net.cpp:141] Setting up relu1
I0801 03:06:10.839839  7058 net.cpp:148] Top shape: 10 96 55 55 (2904000)
I0801 03:06:10.839844  7058 net.cpp:156] Memory required for data: 29415480
I0801 03:06:10.839850  7058 layer_factory.hpp:77] Creating layer pool1
I0801 03:06:10.839862  7058 net.cpp:91] Creating Layer pool1
I0801 03:06:10.839867  7058 net.cpp:425] pool1 <- conv1
I0801 03:06:10.839874  7058 net.cpp:399] pool1 -> pool1
I0801 03:06:10.839938  7058 net.cpp:141] Setting up pool1
I0801 03:06:10.839948  7058 net.cpp:148] Top shape: 10 96 27 27 (699840)
I0801 03:06:10.839953  7058 net.cpp:156] Memory required for data: 32214840
I0801 03:06:10.839958  7058 layer_factory.hpp:77] Creating layer norm1
I0801 03:06:10.839974  7058 net.cpp:91] Creating Layer norm1
I0801 03:06:10.839979  7058 net.cpp:425] norm1 <- pool1
I0801 03:06:10.839985  7058 net.cpp:399] norm1 -> norm1
I0801 03:06:10.840469  7058 net.cpp:141] Setting up norm1
I0801 03:06:10.840483  7058 net.cpp:148] Top shape: 10 96 27 27 (699840)
I0801 03:06:10.840488  7058 net.cpp:156] Memory required for data: 35014200
I0801 03:06:10.840494  7058 layer_factory.hpp:77] Creating layer conv2
I0801 03:06:10.840510  7058 net.cpp:91] Creating Layer conv2
I0801 03:06:10.840515  7058 net.cpp:425] conv2 <- norm1
I0801 03:06:10.840523  7058 net.cpp:399] conv2 -> conv2
I0801 03:06:10.843755  7058 net.cpp:141] Setting up conv2
I0801 03:06:10.843773  7058 net.cpp:148] Top shape: 10 256 27 27 (1866240)
I0801 03:06:10.843778  7058 net.cpp:156] Memory required for data: 42479160
I0801 03:06:10.843791  7058 layer_factory.hpp:77] Creating layer relu2
I0801 03:06:10.843799  7058 net.cpp:91] Creating Layer relu2
I0801 03:06:10.843804  7058 net.cpp:425] relu2 <- conv2
I0801 03:06:10.843811  7058 net.cpp:386] relu2 -> conv2 (in-place)
I0801 03:06:10.844280  7058 net.cpp:141] Setting up relu2
I0801 03:06:10.844292  7058 net.cpp:148] Top shape: 10 256 27 27 (1866240)
I0801 03:06:10.844297  7058 net.cpp:156] Memory required for data: 49944120
I0801 03:06:10.844302  7058 layer_factory.hpp:77] Creating layer pool2
I0801 03:06:10.844316  7058 net.cpp:91] Creating Layer pool2
I0801 03:06:10.844321  7058 net.cpp:425] pool2 <- conv2
I0801 03:06:10.844336  7058 net.cpp:399] pool2 -> pool2
I0801 03:06:10.844393  7058 net.cpp:141] Setting up pool2
I0801 03:06:10.844403  7058 net.cpp:148] Top shape: 10 256 13 13 (432640)
I0801 03:06:10.844406  7058 net.cpp:156] Memory required for data: 51674680
I0801 03:06:10.844411  7058 layer_factory.hpp:77] Creating layer norm2
I0801 03:06:10.844425  7058 net.cpp:91] Creating Layer norm2
I0801 03:06:10.844430  7058 net.cpp:425] norm2 <- pool2
I0801 03:06:10.844437  7058 net.cpp:399] norm2 -> norm2
I0801 03:06:10.844683  7058 net.cpp:141] Setting up norm2
I0801 03:06:10.844694  7058 net.cpp:148] Top shape: 10 256 13 13 (432640)
I0801 03:06:10.844698  7058 net.cpp:156] Memory required for data: 53405240
I0801 03:06:10.844703  7058 layer_factory.hpp:77] Creating layer conv3
I0801 03:06:10.844718  7058 net.cpp:91] Creating Layer conv3
I0801 03:06:10.844723  7058 net.cpp:425] conv3 <- norm2
I0801 03:06:10.844730  7058 net.cpp:399] conv3 -> conv3
I0801 03:06:10.848599  7058 net.cpp:141] Setting up conv3
I0801 03:06:10.848623  7058 net.cpp:148] Top shape: 10 384 13 13 (648960)
I0801 03:06:10.848629  7058 net.cpp:156] Memory required for data: 56001080
I0801 03:06:10.848641  7058 layer_factory.hpp:77] Creating layer relu3
I0801 03:06:10.848650  7058 net.cpp:91] Creating Layer relu3
I0801 03:06:10.848655  7058 net.cpp:425] relu3 <- conv3
I0801 03:06:10.848661  7058 net.cpp:386] relu3 -> conv3 (in-place)
I0801 03:06:10.849104  7058 net.cpp:141] Setting up relu3
I0801 03:06:10.849117  7058 net.cpp:148] Top shape: 10 384 13 13 (648960)
I0801 03:06:10.849122  7058 net.cpp:156] Memory required for data: 58596920
I0801 03:06:10.849126  7058 layer_factory.hpp:77] Creating layer conv4
I0801 03:06:10.849140  7058 net.cpp:91] Creating Layer conv4
I0801 03:06:10.849145  7058 net.cpp:425] conv4 <- conv3
I0801 03:06:10.849153  7058 net.cpp:399] conv4 -> conv4
I0801 03:06:10.853241  7058 net.cpp:141] Setting up conv4
I0801 03:06:10.853263  7058 net.cpp:148] Top shape: 10 384 13 13 (648960)
I0801 03:06:10.853268  7058 net.cpp:156] Memory required for data: 61192760
I0801 03:06:10.853277  7058 layer_factory.hpp:77] Creating layer relu4
I0801 03:06:10.853286  7058 net.cpp:91] Creating Layer relu4
I0801 03:06:10.853291  7058 net.cpp:425] relu4 <- conv4
I0801 03:06:10.853302  7058 net.cpp:386] relu4 -> conv4 (in-place)
I0801 03:06:10.853739  7058 net.cpp:141] Setting up relu4
I0801 03:06:10.853751  7058 net.cpp:148] Top shape: 10 384 13 13 (648960)
I0801 03:06:10.853756  7058 net.cpp:156] Memory required for data: 63788600
I0801 03:06:10.853761  7058 layer_factory.hpp:77] Creating layer conv5
I0801 03:06:10.853776  7058 net.cpp:91] Creating Layer conv5
I0801 03:06:10.853781  7058 net.cpp:425] conv5 <- conv4
I0801 03:06:10.853790  7058 net.cpp:399] conv5 -> conv5
I0801 03:06:10.857748  7058 net.cpp:141] Setting up conv5
I0801 03:06:10.857764  7058 net.cpp:148] Top shape: 10 256 13 13 (432640)
I0801 03:06:10.857770  7058 net.cpp:156] Memory required for data: 65519160
I0801 03:06:10.857782  7058 layer_factory.hpp:77] Creating layer relu5
I0801 03:06:10.857791  7058 net.cpp:91] Creating Layer relu5
I0801 03:06:10.857800  7058 net.cpp:425] relu5 <- conv5
I0801 03:06:10.857806  7058 net.cpp:386] relu5 -> conv5 (in-place)
I0801 03:06:10.858274  7058 net.cpp:141] Setting up relu5
I0801 03:06:10.858288  7058 net.cpp:148] Top shape: 10 256 13 13 (432640)
I0801 03:06:10.858291  7058 net.cpp:156] Memory required for data: 67249720
I0801 03:06:10.858297  7058 layer_factory.hpp:77] Creating layer pool5
I0801 03:06:10.858309  7058 net.cpp:91] Creating Layer pool5
I0801 03:06:10.858314  7058 net.cpp:425] pool5 <- conv5
I0801 03:06:10.858320  7058 net.cpp:399] pool5 -> pool5
I0801 03:06:10.858381  7058 net.cpp:141] Setting up pool5
I0801 03:06:10.858391  7058 net.cpp:148] Top shape: 10 256 6 6 (92160)
I0801 03:06:10.858394  7058 net.cpp:156] Memory required for data: 67618360
I0801 03:06:10.858399  7058 layer_factory.hpp:77] Creating layer fc6
I0801 03:06:10.858412  7058 net.cpp:91] Creating Layer fc6
I0801 03:06:10.858415  7058 net.cpp:425] fc6 <- pool5
I0801 03:06:10.858425  7058 net.cpp:399] fc6 -> fc6
I0801 03:06:10.922308  7048 net.cpp:141] Setting up embedding
I0801 03:06:10.922374  7048 net.cpp:148] Top shape: 1 1 500 (500)
I0801 03:06:10.922379  7048 net.cpp:156] Memory required for data: 22408
I0801 03:06:10.922397  7048 layer_factory.hpp:77] Creating layer lstm1
I0801 03:06:10.922417  7048 net.cpp:91] Creating Layer lstm1
I0801 03:06:10.922426  7048 net.cpp:425] lstm1 <- embedded_input_frames
I0801 03:06:10.922436  7048 net.cpp:425] lstm1 <- cont_sentence_input_1_split_0
I0801 03:06:10.922448  7048 net.cpp:399] lstm1 -> lstm1
I0801 03:06:10.922497  7048 recurrent_layer.cpp:20] Initializing recurrent layer: assuming input batch contains 1 timesteps of 1 independent streams.
I0801 03:06:10.922838  7048 net.cpp:49] Initializing net from parameters: 
layer {
  name: "lstm1_"
  type: "Input"
  top: "x"
  top: "cont"
  input_param {
    shape {
      dim: 1
      dim: 1
      dim: 500
    }
    shape {
      dim: 1
      dim: 1
    }
  }
}
layer {
  name: "lstm1_"
  type: "Input"
  top: "c_0"
  top: "h_0"
  input_param {
    shape {
      dim: 1
      dim: 1
      dim: 1000
    }
    shape {
      dim: 1
      dim: 1
      dim: 1000
    }
  }
}
layer {
  name: "lstm1_cont_slice"
  type: "Slice"
  bottom: "cont"
  top: "cont_1"
  slice_param {
    axis: 0
  }
}
layer {
  name: "lstm1_x_transform"
  type: "InnerProduct"
  bottom: "x"
  top: "W_xc_x"
  param {
    name: "W_xc"
  }
  param {
    name: "b_c"
  }
  propagate_down: true
  inner_product_param {
    num_output: 4000
    bias_term: true
    weight_filler {
      type: "uniform"
      min: -0.08
      max: 0.08
    }
    bias_filler {
      type: "constant"
      value: 0
    }
    axis: 2
  }
}
layer {
  name: "lstm1_W_xc_x_slice"
  type: "Slice"
  bottom: "W_xc_x"
  top: "W_xc_x_1"
  slice_param {
    axis: 0
  }
}
layer {
  name: "lstm1_h_conted_0"
  type: "Scale"
  bottom: "h_0"
  bottom: "cont_1"
  top: "h_conted_0"
  scale_param {
    axis: 0
  }
}
layer {
  name: "lstm1_transform_1"
  type: "InnerProduct"
  bottom: "h_conted_0"
  top: "W_hc_h_0"
  param {
    name: "W_hc"
  }
  inner_product_param {
    num_output: 4000
    bias_term: false
    weight_filler {
      type: "uniform"
      min: -0.08
      max: 0.08
    }
    axis: 2
  }
}
layer {
  name: "lstm1_gate_input_1"
  type: "Eltwise"
  bottom: "W_hc_h_0"
  bottom: "W_xc_x_1"
  top: "gate_input_1"
  eltwise_param {
    operation: SUM
  }
}
layer {
  name: "lstm1_unit_1"
  type: "LSTMUnit"
  bottom: "c_0"
  bottom: "gate_input_1"
  bottom: "cont_1"
  top: "c_1"
  top: "h_1"
}
layer {
  name: "lstm1_"
  type: "Split"
  bottom: "c_1"
  top: "c_T"
}
layer {
  name: "lstm1_h_concat"
  type: "Concat"
  bottom: "h_1"
  top: "h"
  concat_param {
    axis: 0
  }
}
layer {
  name: "h_pseudoloss"
  type: "Reduction"
  bottom: "h"
  top: "h_pseudoloss"
  loss_weight: 1
}
I0801 03:06:10.922924  7048 layer_factory.hpp:77] Creating layer lstm1_
I0801 03:06:10.922937  7048 net.cpp:91] Creating Layer lstm1_
I0801 03:06:10.922943  7048 net.cpp:399] lstm1_ -> x
I0801 03:06:10.922955  7048 net.cpp:399] lstm1_ -> cont
I0801 03:06:10.923017  7048 net.cpp:141] Setting up lstm1_
I0801 03:06:10.923025  7048 net.cpp:148] Top shape: 1 1 500 (500)
I0801 03:06:10.923032  7048 net.cpp:148] Top shape: 1 1 (1)
I0801 03:06:10.923035  7048 net.cpp:156] Memory required for data: 2004
I0801 03:06:10.923040  7048 layer_factory.hpp:77] Creating layer lstm1_
I0801 03:06:10.923048  7048 net.cpp:91] Creating Layer lstm1_
I0801 03:06:10.923056  7048 net.cpp:399] lstm1_ -> c_0
I0801 03:06:10.923066  7048 net.cpp:399] lstm1_ -> h_0
I0801 03:06:10.923115  7048 net.cpp:141] Setting up lstm1_
I0801 03:06:10.923125  7048 net.cpp:148] Top shape: 1 1 1000 (1000)
I0801 03:06:10.923130  7048 net.cpp:148] Top shape: 1 1 1000 (1000)
I0801 03:06:10.923133  7048 net.cpp:156] Memory required for data: 10004
I0801 03:06:10.923138  7048 layer_factory.hpp:77] Creating layer lstm1_cont_slice
I0801 03:06:10.923147  7048 net.cpp:91] Creating Layer lstm1_cont_slice
I0801 03:06:10.923151  7048 net.cpp:425] lstm1_cont_slice <- cont
I0801 03:06:10.923161  7048 net.cpp:399] lstm1_cont_slice -> cont_1
I0801 03:06:10.923192  7048 net.cpp:141] Setting up lstm1_cont_slice
I0801 03:06:10.923202  7048 net.cpp:148] Top shape: 1 1 (1)
I0801 03:06:10.923205  7048 net.cpp:156] Memory required for data: 10008
I0801 03:06:10.923209  7048 layer_factory.hpp:77] Creating layer cont_1_lstm1_cont_slice_0_split
I0801 03:06:10.923219  7048 net.cpp:91] Creating Layer cont_1_lstm1_cont_slice_0_split
I0801 03:06:10.923224  7048 net.cpp:425] cont_1_lstm1_cont_slice_0_split <- cont_1
I0801 03:06:10.923230  7048 net.cpp:399] cont_1_lstm1_cont_slice_0_split -> cont_1_lstm1_cont_slice_0_split_0
I0801 03:06:10.923238  7048 net.cpp:399] cont_1_lstm1_cont_slice_0_split -> cont_1_lstm1_cont_slice_0_split_1
I0801 03:06:10.923285  7048 net.cpp:141] Setting up cont_1_lstm1_cont_slice_0_split
I0801 03:06:10.923292  7048 net.cpp:148] Top shape: 1 1 (1)
I0801 03:06:10.923297  7048 net.cpp:148] Top shape: 1 1 (1)
I0801 03:06:10.923301  7048 net.cpp:156] Memory required for data: 10016
I0801 03:06:10.923305  7048 layer_factory.hpp:77] Creating layer lstm1_x_transform
I0801 03:06:10.923316  7048 net.cpp:91] Creating Layer lstm1_x_transform
I0801 03:06:10.923319  7048 net.cpp:425] lstm1_x_transform <- x
I0801 03:06:10.923326  7048 net.cpp:399] lstm1_x_transform -> W_xc_x
I0801 03:06:10.953739  7048 net.cpp:141] Setting up lstm1_x_transform
I0801 03:06:10.953783  7048 net.cpp:148] Top shape: 1 1 4000 (4000)
I0801 03:06:10.953790  7048 net.cpp:156] Memory required for data: 26016
I0801 03:06:10.953814  7048 layer_factory.hpp:77] Creating layer lstm1_W_xc_x_slice
I0801 03:06:10.953830  7048 net.cpp:91] Creating Layer lstm1_W_xc_x_slice
I0801 03:06:10.953837  7048 net.cpp:425] lstm1_W_xc_x_slice <- W_xc_x
I0801 03:06:10.953850  7048 net.cpp:399] lstm1_W_xc_x_slice -> W_xc_x_1
I0801 03:06:10.953905  7048 net.cpp:141] Setting up lstm1_W_xc_x_slice
I0801 03:06:10.953919  7048 net.cpp:148] Top shape: 1 1 4000 (4000)
I0801 03:06:10.953925  7048 net.cpp:156] Memory required for data: 42016
I0801 03:06:10.953933  7048 layer_factory.hpp:77] Creating layer lstm1_h_conted_0
I0801 03:06:10.953949  7048 net.cpp:91] Creating Layer lstm1_h_conted_0
I0801 03:06:10.953958  7048 net.cpp:425] lstm1_h_conted_0 <- h_0
I0801 03:06:10.953966  7048 net.cpp:425] lstm1_h_conted_0 <- cont_1_lstm1_cont_slice_0_split_0
I0801 03:06:10.953976  7048 net.cpp:399] lstm1_h_conted_0 -> h_conted_0
I0801 03:06:10.954098  7048 net.cpp:141] Setting up lstm1_h_conted_0
I0801 03:06:10.954111  7048 net.cpp:148] Top shape: 1 1 1000 (1000)
I0801 03:06:10.954118  7048 net.cpp:156] Memory required for data: 46016
I0801 03:06:10.954125  7048 layer_factory.hpp:77] Creating layer lstm1_transform_1
I0801 03:06:10.954151  7048 net.cpp:91] Creating Layer lstm1_transform_1
I0801 03:06:10.954159  7048 net.cpp:425] lstm1_transform_1 <- h_conted_0
I0801 03:06:10.954169  7048 net.cpp:399] lstm1_transform_1 -> W_hc_h_0
I0801 03:06:10.963987  7058 net.cpp:141] Setting up fc6
I0801 03:06:10.964066  7058 net.cpp:148] Top shape: 10 4096 (40960)
I0801 03:06:10.964076  7058 net.cpp:156] Memory required for data: 67782200
I0801 03:06:10.964092  7058 layer_factory.hpp:77] Creating layer relu6
I0801 03:06:10.964108  7058 net.cpp:91] Creating Layer relu6
I0801 03:06:10.964115  7058 net.cpp:425] relu6 <- fc6
I0801 03:06:10.964125  7058 net.cpp:386] relu6 -> fc6 (in-place)
I0801 03:06:10.964444  7058 net.cpp:141] Setting up relu6
I0801 03:06:10.964455  7058 net.cpp:148] Top shape: 10 4096 (40960)
I0801 03:06:10.964459  7058 net.cpp:156] Memory required for data: 67946040
I0801 03:06:10.964464  7058 layer_factory.hpp:77] Creating layer drop6
I0801 03:06:10.964493  7058 net.cpp:91] Creating Layer drop6
I0801 03:06:10.964498  7058 net.cpp:425] drop6 <- fc6
I0801 03:06:10.964505  7058 net.cpp:386] drop6 -> fc6 (in-place)
I0801 03:06:10.964553  7058 net.cpp:141] Setting up drop6
I0801 03:06:10.964561  7058 net.cpp:148] Top shape: 10 4096 (40960)
I0801 03:06:10.964565  7058 net.cpp:156] Memory required for data: 68109880
I0801 03:06:10.964570  7058 layer_factory.hpp:77] Creating layer fc7
I0801 03:06:10.964586  7058 net.cpp:91] Creating Layer fc7
I0801 03:06:10.964591  7058 net.cpp:425] fc7 <- fc6
I0801 03:06:10.964599  7058 net.cpp:399] fc7 -> fc7
I0801 03:06:11.003276  7048 net.cpp:141] Setting up lstm1_transform_1
I0801 03:06:11.003330  7048 net.cpp:148] Top shape: 1 1 4000 (4000)
I0801 03:06:11.003337  7048 net.cpp:156] Memory required for data: 62016
I0801 03:06:11.003358  7048 layer_factory.hpp:77] Creating layer lstm1_gate_input_1
I0801 03:06:11.003383  7048 net.cpp:91] Creating Layer lstm1_gate_input_1
I0801 03:06:11.003392  7048 net.cpp:425] lstm1_gate_input_1 <- W_hc_h_0
I0801 03:06:11.003402  7048 net.cpp:425] lstm1_gate_input_1 <- W_xc_x_1
I0801 03:06:11.003412  7048 net.cpp:399] lstm1_gate_input_1 -> gate_input_1
I0801 03:06:11.003476  7048 net.cpp:141] Setting up lstm1_gate_input_1
I0801 03:06:11.003487  7048 net.cpp:148] Top shape: 1 1 4000 (4000)
I0801 03:06:11.003492  7048 net.cpp:156] Memory required for data: 78016
I0801 03:06:11.003499  7048 layer_factory.hpp:77] Creating layer lstm1_unit_1
I0801 03:06:11.003509  7048 net.cpp:91] Creating Layer lstm1_unit_1
I0801 03:06:11.003515  7048 net.cpp:425] lstm1_unit_1 <- c_0
I0801 03:06:11.003522  7048 net.cpp:425] lstm1_unit_1 <- gate_input_1
I0801 03:06:11.003528  7048 net.cpp:425] lstm1_unit_1 <- cont_1_lstm1_cont_slice_0_split_1
I0801 03:06:11.003536  7048 net.cpp:399] lstm1_unit_1 -> c_1
I0801 03:06:11.003546  7048 net.cpp:399] lstm1_unit_1 -> h_1
I0801 03:06:11.003625  7048 net.cpp:141] Setting up lstm1_unit_1
I0801 03:06:11.003634  7048 net.cpp:148] Top shape: 1 1 1000 (1000)
I0801 03:06:11.003640  7048 net.cpp:148] Top shape: 1 1 1000 (1000)
I0801 03:06:11.003644  7048 net.cpp:156] Memory required for data: 86016
I0801 03:06:11.003649  7048 layer_factory.hpp:77] Creating layer lstm1_
I0801 03:06:11.003660  7048 net.cpp:91] Creating Layer lstm1_
I0801 03:06:11.003665  7048 net.cpp:425] lstm1_ <- c_1
I0801 03:06:11.003672  7048 net.cpp:399] lstm1_ -> c_T
I0801 03:06:11.003701  7048 net.cpp:141] Setting up lstm1_
I0801 03:06:11.003710  7048 net.cpp:148] Top shape: 1 1 1000 (1000)
I0801 03:06:11.003713  7048 net.cpp:156] Memory required for data: 90016
I0801 03:06:11.003718  7048 layer_factory.hpp:77] Creating layer lstm1_h_concat
I0801 03:06:11.003728  7048 net.cpp:91] Creating Layer lstm1_h_concat
I0801 03:06:11.003732  7048 net.cpp:425] lstm1_h_concat <- h_1
I0801 03:06:11.003742  7048 net.cpp:399] lstm1_h_concat -> h
I0801 03:06:11.003784  7048 net.cpp:141] Setting up lstm1_h_concat
I0801 03:06:11.003793  7048 net.cpp:148] Top shape: 1 1 1000 (1000)
I0801 03:06:11.003798  7048 net.cpp:156] Memory required for data: 94016
I0801 03:06:11.003803  7048 layer_factory.hpp:77] Creating layer h_pseudoloss
I0801 03:06:11.003816  7048 net.cpp:91] Creating Layer h_pseudoloss
I0801 03:06:11.003821  7048 net.cpp:425] h_pseudoloss <- h
I0801 03:06:11.003829  7048 net.cpp:399] h_pseudoloss -> h_pseudoloss
I0801 03:06:11.003921  7048 net.cpp:141] Setting up h_pseudoloss
…
I0801 03:06:11.004048  7048 net.cpp:219] lstm1_ does not need backward computation.
I0801 03:06:11.004052  7048 net.cpp:261] This network produces output c_T
I0801 03:06:11.004056  7048 net.cpp:261] This network produces output h_pseudoloss
I0801 03:06:11.004072  7048 net.cpp:274] Network initialization done.
I0801 03:06:11.004132  7048 recurrent_layer.cpp:150] Adding parameter 0: W_xc
I0801 03:06:11.004137  7048 recurrent_layer.cpp:150] Adding parameter 1: b_c
I0801 03:06:11.004142  7048 recurrent_layer.cpp:150] Adding parameter 2: W_hc
I0801 03:06:11.004252  7048 net.cpp:141] Setting up lstm1
I0801 03:06:11.004264  7048 net.cpp:148] Top shape: 1 1 1000 (1000)
I0801 03:06:11.004268  7048 net.cpp:156] Memory required for data: 26408
I0801 03:06:11.004282  7048 layer_factory.hpp:77] Creating layer concat
I0801 03:06:11.004292  7048 net.cpp:91] Creating Layer concat
I0801 03:06:11.004312  7048 net.cpp:425] concat <- lstm1
I0801 03:06:11.004318  7048 net.cpp:425] concat <- embedded_input_sentence
I0801 03:06:11.004324  7048 net.cpp:425] concat <- reshaped_stage_indicator
I0801 03:06:11.004330  7048 net.cpp:399] concat -> lstm1_video_sequence
I0801 03:06:11.004362  7048 net.cpp:141] Setting up concat
I0801 03:06:11.004370  7048 net.cpp:148] Top shape: 1 1 1501 (1501)
I0801 03:06:11.004374  7048 net.cpp:156] Memory required for data: 32412
I0801 03:06:11.004379  7048 layer_factory.hpp:77] Creating layer lstm2
I0801 03:06:11.004391  7048 net.cpp:91] Creating Layer lstm2
I0801 03:06:11.004396  7048 net.cpp:425] lstm2 <- lstm1_video_sequence
I0801 03:06:11.004402  7048 net.cpp:425] lstm2 <- cont_sentence_input_1_split_1
I0801 03:06:11.004410  7048 net.cpp:399] lstm2 -> lstm2
I0801 03:06:11.004418  7048 recurrent_layer.cpp:20] Initializing recurrent layer: assuming input batch contains 1 timesteps of 1 independent streams.
I0801 03:06:11.004649  7048 net.cpp:49] Initializing net from parameters: 
layer {
  name: "lstm2_"
  type: "Input"
  top: "x"
  top: "cont"
  input_param {
    shape {
      dim: 1
      dim: 1
      dim: 1501
    }
    shape {
      dim: 1
      dim: 1
    }
  }
}
layer {
  name: "lstm2_"
  type: "Input"
  top: "c_0"
  top: "h_0"
  input_param {
    shape {
      dim: 1
      dim: 1
      dim: 1000
    }
    shape {
      dim: 1
      dim: 1
      dim: 1000
    }
  }
}
layer {
  name: "lstm2_cont_slice"
  type: "Slice"
  bottom: "cont"
  top: "cont_1"
  slice_param {
    axis: 0
  }
}
layer {
  name: "lstm2_x_transform"
  type: "InnerProduct"
  bottom: "x"
  top: "W_xc_x"
  param {
    name: "W_xc"
  }
  param {
    name: "b_c"
  }
  propagate_down: true
  inner_product_param {
    num_output: 4000
    bias_term: true
    weight_filler {
      type: "uniform"
      min: -0.08
      max: 0.08
    }
    bias_filler {
      type: "constant"
      value: 0
    }
    axis: 2
  }
}
layer {
  name: "lstm2_W_xc_x_slice"
  type: "Slice"
  bottom: "W_xc_x"
  top: "W_xc_x_1"
  slice_param {
    axis: 0
  }
}
layer {
  name: "lstm2_h_conted_0"
  type: "Scale"
  bottom: "h_0"
  bottom: "cont_1"
  top: "h_conted_0"
  scale_param {
    axis: 0
  }
}
layer {
  name: "lstm2_transform_1"
  type: "InnerProduct"
  bottom: "h_conted_0"
  top: "W_hc_h_0"
  param {
    name: "W_hc"
  }
  inner_product_param {
    num_output: 4000
    bias_term: false
    weight_filler {
      type: "uniform"
      min: -0.08
      max: 0.08
    }
    axis: 2
  }
}
layer {
  name: "lstm2_gate_input_1"
  type: "Eltwise"
  bottom: "W_hc_h_0"
  bottom: "W_xc_x_1"
  top: "gate_input_1"
  eltwise_param {
    operation: SUM
  }
}
layer {
  name: "lstm2_unit_1"
  type: "LSTMUnit"
  bottom: "c_0"
  bottom: "gate_input_1"
  bottom: "cont_1"
  top: "c_1"
  top: "h_1"
}
layer {
  name: "lstm2_"
  type: "Split"
  bottom: "c_1"
  top: "c_T"
}
layer {
  name: "lstm2_h_concat"
  type: "Concat"
  bottom: "h_1"
  top: "h"
  concat_param {
    axis: 0
  }
}
layer {
  name: "h_pseudoloss"
  type: "Reduction"
  bottom: "h"
  top: "h_pseudoloss"
  loss_weight: 1
}
I0801 03:06:11.004730  7048 layer_factory.hpp:77] Creating layer lstm2_
I0801 03:06:11.004743  7048 net.cpp:91] Creating Layer lstm2_
I0801 03:06:11.004750  7048 net.cpp:399] lstm2_ -> x
I0801 03:06:11.004758  7048 net.cpp:399] lstm2_ -> cont
I0801 03:06:11.004812  7048 net.cpp:141] Setting up lstm2_
I0801 03:06:11.004820  7048 net.cpp:148] Top shape: 1 1 1501 (1501)
I0801 03:06:11.004827  7048 net.cpp:148] Top shape: 1 1 (1)
I0801 03:06:11.004830  7048 net.cpp:156] Memory required for data: 6008
I0801 03:06:11.004834  7048 layer_factory.hpp:77] Creating layer lstm2_
I0801 03:06:11.004843  7048 net.cpp:91] Creating Layer lstm2_
I0801 03:06:11.004851  7048 net.cpp:399] lstm2_ -> c_0
I0801 03:06:11.004860  7048 net.cpp:399] lstm2_ -> h_0
I0801 03:06:11.004906  7048 net.cpp:141] Setting up lstm2_
I0801 03:06:11.004914  7048 net.cpp:148] Top shape: 1 1 1000 (1000)
I0801 03:06:11.004920  7048 net.cpp:148] Top shape: 1 1 1000 (1000)
I0801 03:06:11.004923  7048 net.cpp:156] Memory required for data: 14008
I0801 03:06:11.004928  7048 layer_factory.hpp:77] Creating layer lstm2_cont_slice
I0801 03:06:11.004936  7048 net.cpp:91] Creating Layer lstm2_cont_slice
I0801 03:06:11.004941  7048 net.cpp:425] lstm2_cont_slice <- cont
I0801 03:06:11.004947  7048 net.cpp:399] lstm2_cont_slice -> cont_1
I0801 03:06:11.004981  7048 net.cpp:141] Setting up lstm2_cont_slice
I0801 03:06:11.004989  7048 net.cpp:148] Top shape: 1 1 (1)
I0801 03:06:11.004993  7048 net.cpp:156] Memory required for data: 14012
I0801 03:06:11.004998  7048 layer_factory.hpp:77] Creating layer cont_1_lstm2_cont_slice_0_split
I0801 03:06:11.005007  7048 net.cpp:91] Creating Layer cont_1_lstm2_cont_slice_0_split
I0801 03:06:11.005012  7048 net.cpp:425] cont_1_lstm2_cont_slice_0_split <- cont_1
I0801 03:06:11.005017  7048 net.cpp:399] cont_1_lstm2_cont_slice_0_split -> cont_1_lstm2_cont_slice_0_split_0
I0801 03:06:11.005024  7048 net.cpp:399] cont_1_lstm2_cont_slice_0_split -> cont_1_lstm2_cont_slice_0_split_1
I0801 03:06:11.005069  7048 net.cpp:141] Setting up cont_1_lstm2_cont_slice_0_split
I0801 03:06:11.005077  7048 net.cpp:148] Top shape: 1 1 (1)
I0801 03:06:11.005082  7048 net.cpp:148] Top shape: 1 1 (1)
I0801 03:06:11.005086  7048 net.cpp:156] Memory required for data: 14020
I0801 03:06:11.005090  7048 layer_factory.hpp:77] Creating layer lstm2_x_transform
I0801 03:06:11.005100  7048 net.cpp:91] Creating Layer lstm2_x_transform
I0801 03:06:11.005105  7048 net.cpp:425] lstm2_x_transform <- x
I0801 03:06:11.005113  7048 net.cpp:399] lstm2_x_transform -> W_xc_x
I0801 03:06:11.016078  7058 net.cpp:141] Setting up fc7
I0801 03:06:11.016121  7058 net.cpp:148] Top shape: 10 4096 (40960)
I0801 03:06:11.016127  7058 net.cpp:156] Memory required for data: 68273720
I0801 03:06:11.016142  7058 layer_factory.hpp:77] Creating layer relu7
I0801 03:06:11.016160  7058 net.cpp:91] Creating Layer relu7
I0801 03:06:11.016167  7058 net.cpp:425] relu7 <- fc7
I0801 03:06:11.016185  7058 net.cpp:386] relu7 -> fc7 (in-place)
I0801 03:06:11.016927  7058 net.cpp:141] Setting up relu7
I0801 03:06:11.016939  7058 net.cpp:148] Top shape: 10 4096 (40960)
I0801 03:06:11.016944  7058 net.cpp:156] Memory required for data: 68437560
I0801 03:06:11.016949  7058 layer_factory.hpp:77] Creating layer drop7
I0801 03:06:11.016960  7058 net.cpp:91] Creating Layer drop7
I0801 03:06:11.016965  7058 net.cpp:425] drop7 <- fc7
I0801 03:06:11.016976  7058 net.cpp:386] drop7 -> fc7 (in-place)
I0801 03:06:11.017020  7058 net.cpp:141] Setting up drop7
I0801 03:06:11.017030  7058 net.cpp:148] Top shape: 10 4096 (40960)
I0801 03:06:11.017033  7058 net.cpp:156] Memory required for data: 68601400
I0801 03:06:11.017038  7058 layer_factory.hpp:77] Creating layer fc8
I0801 03:06:11.017048  7058 net.cpp:91] Creating Layer fc8
I0801 03:06:11.017053  7058 net.cpp:425] fc8 <- fc7
I0801 03:06:11.017060  7058 net.cpp:399] fc8 -> fc8
I0801 03:06:11.028798  7058 net.cpp:141] Setting up fc8
I0801 03:06:11.028844  7058 net.cpp:148] Top shape: 10 1000 (10000)
I0801 03:06:11.028851  7058 net.cpp:156] Memory required for data: 68641400
I0801 03:06:11.028866  7058 layer_factory.hpp:77] Creating layer prob
I0801 03:06:11.028885  7058 net.cpp:91] Creating Layer prob
I0801 03:06:11.028893  7058 net.cpp:425] prob <- fc8
I0801 03:06:11.028903  7058 net.cpp:399] prob -> prob
I0801 03:06:11.029306  7058 net.cpp:141] Setting up prob
I0801 03:06:11.029317  7058 net.cpp:148] Top shape: 10 1000 (10000)
I0801 03:06:11.029322  7058 net.cpp:156] Memory required for data: 68681400
I0801 03:06:11.029327  7058 net.cpp:219] prob does not need backward computation.
I0801 03:06:11.029332  7058 net.cpp:219] fc8 does not need backward computation.
I0801 03:06:11.029337  7058 net.cpp:219] drop7 does not need backward computation.
I0801 03:06:11.029341  7058 net.cpp:219] relu7 does not need backward computation.
…
I0801 03:06:11.029409  7058 net.cpp:219] norm1 does not need backward computation.
I0801 03:06:11.029414  7058 net.cpp:219] pool1 does not need backward computation.
I0801 03:06:11.029418  7058 net.cpp:219] relu1 does not need backward computation.
I0801 03:06:11.029422  7058 net.cpp:219] conv1 does not need backward computation.
I0801 03:06:11.029427  7058 net.cpp:219] data does not need backward computation.
I0801 03:06:11.029430  7058 net.cpp:261] This network produces output prob
I0801 03:06:11.029450  7058 net.cpp:274] Network initialization done.
I0801 03:06:11.061168  7048 net.cpp:141] Setting up lstm2_x_transform
I0801 03:06:11.061214  7048 net.cpp:148] Top shape: 1 1 4000 (4000)
I0801 03:06:11.061220  7048 net.cpp:156] Memory required for data: 30020
I0801 03:06:11.061239  7048 layer_factory.hpp:77] Creating layer lstm2_W_xc_x_slice
I0801 03:06:11.061254  7048 net.cpp:91] Creating Layer lstm2_W_xc_x_slice
I0801 03:06:11.061261  7048 net.cpp:425] lstm2_W_xc_x_slice <- W_xc_x
I0801 03:06:11.061270  7048 net.cpp:399] lstm2_W_xc_x_slice -> W_xc_x_1
I0801 03:06:11.061318  7048 net.cpp:141] Setting up lstm2_W_xc_x_slice
I0801 03:06:11.061328  7048 net.cpp:148] Top shape: 1 1 4000 (4000)
I0801 03:06:11.061332  7048 net.cpp:156] Memory required for data: 46020
I0801 03:06:11.061336  7048 layer_factory.hpp:77] Creating layer lstm2_h_conted_0
I0801 03:06:11.061347  7048 net.cpp:91] Creating Layer lstm2_h_conted_0
I0801 03:06:11.061352  7048 net.cpp:425] lstm2_h_conted_0 <- h_0
I0801 03:06:11.061357  7048 net.cpp:425] lstm2_h_conted_0 <- cont_1_lstm2_cont_slice_0_split_0
I0801 03:06:11.061364  7048 net.cpp:399] lstm2_h_conted_0 -> h_conted_0
I0801 03:06:11.061457  7048 net.cpp:141] Setting up lstm2_h_conted_0
I0801 03:06:11.061466  7048 net.cpp:148] Top shape: 1 1 1000 (1000)
I0801 03:06:11.061470  7048 net.cpp:156] Memory required for data: 50020
I0801 03:06:11.061475  7048 layer_factory.hpp:77] Creating layer lstm2_transform_1
I0801 03:06:11.061487  7048 net.cpp:91] Creating Layer lstm2_transform_1
I0801 03:06:11.061491  7048 net.cpp:425] lstm2_transform_1 <- h_conted_0
I0801 03:06:11.061499  7048 net.cpp:399] lstm2_transform_1 -> W_hc_h_0
I0801 03:06:11.099388  7048 net.cpp:141] Setting up lstm2_transform_1
I0801 03:06:11.099444  7048 net.cpp:148] Top shape: 1 1 4000 (4000)
I0801 03:06:11.099450  7048 net.cpp:156] Memory required for data: 66020
I0801 03:06:11.099470  7048 layer_factory.hpp:77] Creating layer lstm2_gate_input_1
I0801 03:06:11.099489  7048 net.cpp:91] Creating Layer lstm2_gate_input_1
I0801 03:06:11.099496  7048 net.cpp:425] lstm2_gate_input_1 <- W_hc_h_0
I0801 03:06:11.099505  7048 net.cpp:425] lstm2_gate_input_1 <- W_xc_x_1
I0801 03:06:11.099512  7048 net.cpp:399] lstm2_gate_input_1 -> gate_input_1
I0801 03:06:11.099563  7048 net.cpp:141] Setting up lstm2_gate_input_1
I0801 03:06:11.099572  7048 net.cpp:148] Top shape: 1 1 4000 (4000)
I0801 03:06:11.099576  7048 net.cpp:156] Memory required for data: 82020
I0801 03:06:11.099581  7048 layer_factory.hpp:77] Creating layer lstm2_unit_1
I0801 03:06:11.099592  7048 net.cpp:91] Creating Layer lstm2_unit_1
I0801 03:06:11.099597  7048 net.cpp:425] lstm2_unit_1 <- c_0
I0801 03:06:11.099603  7048 net.cpp:425] lstm2_unit_1 <- gate_input_1
I0801 03:06:11.099608  7048 net.cpp:425] lstm2_unit_1 <- cont_1_lstm2_cont_slice_0_split_1
I0801 03:06:11.099616  7048 net.cpp:399] lstm2_unit_1 -> c_1
I0801 03:06:11.099632  7048 net.cpp:399] lstm2_unit_1 -> h_1
I0801 03:06:11.099695  7048 net.cpp:141] Setting up lstm2_unit_1
I0801 03:06:11.099704  7048 net.cpp:148] Top shape: 1 1 1000 (1000)
I0801 03:06:11.099710  7048 net.cpp:148] Top shape: 1 1 1000 (1000)
I0801 03:06:11.099714  7048 net.cpp:156] Memory required for data: 90020
I0801 03:06:11.099720  7048 layer_factory.hpp:77] Creating layer lstm2_
I0801 03:06:11.099727  7048 net.cpp:91] Creating Layer lstm2_
I0801 03:06:11.099731  7048 net.cpp:425] lstm2_ <- c_1
I0801 03:06:11.099738  7048 net.cpp:399] lstm2_ -> c_T
I0801 03:06:11.099769  7048 net.cpp:141] Setting up lstm2_
I0801 03:06:11.099777  7048 net.cpp:148] Top shape: 1 1 1000 (1000)
I0801 03:06:11.099781  7048 net.cpp:156] Memory required for data: 94020
I0801 03:06:11.099786  7048 layer_factory.hpp:77] Creating layer lstm2_h_concat
I0801 03:06:11.099798  7048 net.cpp:91] Creating Layer lstm2_h_concat
I0801 03:06:11.099803  7048 net.cpp:425] lstm2_h_concat <- h_1
I0801 03:06:11.099810  7048 net.cpp:399] lstm2_h_concat -> h
I0801 03:06:11.099846  7048 net.cpp:141] Setting up lstm2_h_concat
I0801 03:06:11.099854  7048 net.cpp:148] Top shape: 1 1 1000 (1000)
I0801 03:06:11.099859  7048 net.cpp:156] Memory required for data: 98020
I0801 03:06:11.099864  7048 layer_factory.hpp:77] Creating layer h_pseudoloss
I0801 03:06:11.099872  7048 net.cpp:91] Creating Layer h_pseudoloss
I0801 03:06:11.099877  7048 net.cpp:425] h_pseudoloss <- h
I0801 03:06:11.099886  7048 net.cpp:399] h_pseudoloss -> h_pseudoloss
I0801 03:06:11.099975  7048 net.cpp:141] Setting up h_pseudoloss
…
