…
2016-07-31 23:36:24.012 n.t.s.b.CVParticleBolt [INFO] [Timing] RequestID: 0 StreamID: home/peifeng/work/data/frame.320x240.jpg SequenceNr: 117 Leaving scale: 1470022584012 Size: 3530
2016-07-31 23:36:24.012 n.t.s.b.CVParticleBolt [INFO] [Timing] RequestID: 0 StreamID: home/peifeng/work/data/frame.320x240.jpg SequenceNr: 118 Leaving scale: 1470022584012 Size: 3530
2016-07-31 23:36:24.015 n.t.s.b.CVParticleBolt [INFO] [Timing] RequestID: 0 StreamID: home/peifeng/work/data/frame.320x240.jpg SequenceNr: 119 Leaving scale: 1470022584015 Size: 3530
2016-07-31 23:36:24.020 STDERR [INFO] I0731 23:36:24.020207 26334 net.cpp:141] Setting up conv1
2016-07-31 23:36:24.020 STDERR [INFO] I0731 23:36:24.020251 26334 net.cpp:148] Top shape: 10 96 55 55 (2904000)
2016-07-31 23:36:24.020 STDERR [INFO] I0731 23:36:24.020257 26334 net.cpp:156] Memory required for data: 17799480
2016-07-31 23:36:24.021 STDERR [INFO] I0731 23:36:24.020283 26334 layer_factory.hpp:77] Creating layer relu1
2016-07-31 23:36:24.021 STDERR [INFO] I0731 23:36:24.020309 26334 net.cpp:91] Creating Layer relu1
2016-07-31 23:36:24.021 STDERR [INFO] I0731 23:36:24.020316 26334 net.cpp:425] relu1 <- conv1
2016-07-31 23:36:24.021 STDERR [INFO] I0731 23:36:24.020324 26334 net.cpp:386] relu1 -> conv1 (in-place)
2016-07-31 23:36:24.021 STDERR [INFO] I0731 23:36:24.020756 26334 net.cpp:141] Setting up relu1
2016-07-31 23:36:24.021 STDERR [INFO] I0731 23:36:24.020767 26334 net.cpp:148] Top shape: 10 96 55 55 (2904000)
2016-07-31 23:36:24.021 STDERR [INFO] I0731 23:36:24.020772 26334 net.cpp:156] Memory required for data: 29415480
2016-07-31 23:36:24.021 STDERR [INFO] I0731 23:36:24.020778 26334 layer_factory.hpp:77] Creating layer pool1
2016-07-31 23:36:24.022 STDERR [INFO] I0731 23:36:24.020790 26334 net.cpp:91] Creating Layer pool1
2016-07-31 23:36:24.022 STDERR [INFO] I0731 23:36:24.020795 26334 net.cpp:425] pool1 <- conv1
2016-07-31 23:36:24.022 STDERR [INFO] I0731 23:36:24.020803 26334 net.cpp:399] pool1 -> pool1
2016-07-31 23:36:24.022 STDERR [INFO] I0731 23:36:24.020866 26334 net.cpp:141] Setting up pool1
2016-07-31 23:36:24.022 STDERR [INFO] I0731 23:36:24.020876 26334 net.cpp:148] Top shape: 10 96 27 27 (699840)
2016-07-31 23:36:24.022 STDERR [INFO] I0731 23:36:24.020880 26334 net.cpp:156] Memory required for data: 32214840
2016-07-31 23:36:24.022 STDERR [INFO] I0731 23:36:24.020895 26334 layer_factory.hpp:77] Creating layer norm1
2016-07-31 23:36:24.023 STDERR [INFO] I0731 23:36:24.020910 26334 net.cpp:91] Creating Layer norm1
2016-07-31 23:36:24.023 STDERR [INFO] I0731 23:36:24.020915 26334 net.cpp:425] norm1 <- pool1
2016-07-31 23:36:24.023 STDERR [INFO] I0731 23:36:24.020921 26334 net.cpp:399] norm1 -> norm1
2016-07-31 23:36:24.023 STDERR [INFO] I0731 23:36:24.021373 26334 net.cpp:141] Setting up norm1
2016-07-31 23:36:24.023 STDERR [INFO] I0731 23:36:24.021385 26334 net.cpp:148] Top shape: 10 96 27 27 (699840)
2016-07-31 23:36:24.023 STDERR [INFO] I0731 23:36:24.021390 26334 net.cpp:156] Memory required for data: 35014200
2016-07-31 23:36:24.023 STDERR [INFO] I0731 23:36:24.021395 26334 layer_factory.hpp:77] Creating layer conv2
2016-07-31 23:36:24.023 STDERR [INFO] I0731 23:36:24.021410 26334 net.cpp:91] Creating Layer conv2
2016-07-31 23:36:24.023 STDERR [INFO] I0731 23:36:24.021415 26334 net.cpp:425] conv2 <- norm1
2016-07-31 23:36:24.024 STDERR [INFO] I0731 23:36:24.021422 26334 net.cpp:399] conv2 -> conv2
2016-07-31 23:36:24.025 STDERR [INFO] I0731 23:36:24.025157 26334 net.cpp:141] Setting up conv2
2016-07-31 23:36:24.025 STDERR [INFO] I0731 23:36:24.025177 26334 net.cpp:148] Top shape: 10 256 27 27 (1866240)
2016-07-31 23:36:24.025 STDERR [INFO] I0731 23:36:24.025182 26334 net.cpp:156] Memory required for data: 42479160
2016-07-31 23:36:24.025 STDERR [INFO] I0731 23:36:24.025193 26334 layer_factory.hpp:77] Creating layer relu2
2016-07-31 23:36:24.025 STDERR [INFO] I0731 23:36:24.025202 26334 net.cpp:91] Creating Layer relu2
2016-07-31 23:36:24.025 STDERR [INFO] I0731 23:36:24.025208 26334 net.cpp:425] relu2 <- conv2
2016-07-31 23:36:24.026 STDERR [INFO] I0731 23:36:24.025214 26334 net.cpp:386] relu2 -> conv2 (in-place)
2016-07-31 23:36:24.026 STDERR [INFO] I0731 23:36:24.025632 26334 net.cpp:141] Setting up relu2
2016-07-31 23:36:24.026 STDERR [INFO] I0731 23:36:24.025645 26334 net.cpp:148] Top shape: 10 256 27 27 (1866240)
2016-07-31 23:36:24.026 STDERR [INFO] I0731 23:36:24.025650 26334 net.cpp:156] Memory required for data: 49944120
2016-07-31 23:36:24.026 STDERR [INFO] I0731 23:36:24.025656 26334 layer_factory.hpp:77] Creating layer pool2
2016-07-31 23:36:24.026 STDERR [INFO] I0731 23:36:24.025665 26334 net.cpp:91] Creating Layer pool2
2016-07-31 23:36:24.026 STDERR [INFO] I0731 23:36:24.025671 26334 net.cpp:425] pool2 <- conv2
2016-07-31 23:36:24.026 STDERR [INFO] I0731 23:36:24.025678 26334 net.cpp:399] pool2 -> pool2
2016-07-31 23:36:24.026 STDERR [INFO] I0731 23:36:24.025727 26334 net.cpp:141] Setting up pool2
2016-07-31 23:36:24.026 STDERR [INFO] I0731 23:36:24.025737 26334 net.cpp:148] Top shape: 10 256 13 13 (432640)
2016-07-31 23:36:24.026 STDERR [INFO] I0731 23:36:24.025740 26334 net.cpp:156] Memory required for data: 51674680
2016-07-31 23:36:24.027 STDERR [INFO] I0731 23:36:24.025745 26334 layer_factory.hpp:77] Creating layer norm2
2016-07-31 23:36:24.027 STDERR [INFO] I0731 23:36:24.025754 26334 net.cpp:91] Creating Layer norm2
2016-07-31 23:36:24.027 STDERR [INFO] I0731 23:36:24.025759 26334 net.cpp:425] norm2 <- pool2
2016-07-31 23:36:24.027 STDERR [INFO] I0731 23:36:24.025766 26334 net.cpp:399] norm2 -> norm2
2016-07-31 23:36:24.027 STDERR [INFO] I0731 23:36:24.025995 26334 net.cpp:141] Setting up norm2
2016-07-31 23:36:24.027 STDERR [INFO] I0731 23:36:24.026005 26334 net.cpp:148] Top shape: 10 256 13 13 (432640)
2016-07-31 23:36:24.027 STDERR [INFO] I0731 23:36:24.026010 26334 net.cpp:156] Memory required for data: 53405240
2016-07-31 23:36:24.027 STDERR [INFO] I0731 23:36:24.026015 26334 layer_factory.hpp:77] Creating layer conv3
2016-07-31 23:36:24.027 STDERR [INFO] I0731 23:36:24.026026 26334 net.cpp:91] Creating Layer conv3
2016-07-31 23:36:24.027 STDERR [INFO] I0731 23:36:24.026031 26334 net.cpp:425] conv3 <- norm2
2016-07-31 23:36:24.028 STDERR [INFO] I0731 23:36:24.026038 26334 net.cpp:399] conv3 -> conv3
2016-07-31 23:36:24.029 STDERR [INFO] I0731 23:36:24.029664 26334 net.cpp:141] Setting up conv3
2016-07-31 23:36:24.029 STDERR [INFO] I0731 23:36:24.029683 26334 net.cpp:148] Top shape: 10 384 13 13 (648960)
2016-07-31 23:36:24.030 STDERR [INFO] I0731 23:36:24.029690 26334 net.cpp:156] Memory required for data: 56001080
2016-07-31 23:36:24.030 STDERR [INFO] I0731 23:36:24.029700 26334 layer_factory.hpp:77] Creating layer relu3
2016-07-31 23:36:24.030 STDERR [INFO] I0731 23:36:24.029712 26334 net.cpp:91] Creating Layer relu3
2016-07-31 23:36:24.030 STDERR [INFO] I0731 23:36:24.029717 26334 net.cpp:425] relu3 <- conv3
2016-07-31 23:36:24.030 STDERR [INFO] I0731 23:36:24.029724 26334 net.cpp:386] relu3 -> conv3 (in-place)
2016-07-31 23:36:24.030 STDERR [INFO] I0731 23:36:24.030153 26334 net.cpp:141] Setting up relu3
2016-07-31 23:36:24.030 STDERR [INFO] I0731 23:36:24.030165 26334 net.cpp:148] Top shape: 10 384 13 13 (648960)
2016-07-31 23:36:24.030 STDERR [INFO] I0731 23:36:24.030170 26334 net.cpp:156] Memory required for data: 58596920
2016-07-31 23:36:24.030 STDERR [INFO] I0731 23:36:24.030175 26334 layer_factory.hpp:77] Creating layer conv4
2016-07-31 23:36:24.030 STDERR [INFO] I0731 23:36:24.030189 26334 net.cpp:91] Creating Layer conv4
2016-07-31 23:36:24.031 STDERR [INFO] I0731 23:36:24.030194 26334 net.cpp:425] conv4 <- conv3
2016-07-31 23:36:24.031 STDERR [INFO] I0731 23:36:24.030205 26334 net.cpp:399] conv4 -> conv4
2016-07-31 23:36:24.034 STDERR [INFO] I0731 23:36:24.034204 26334 net.cpp:141] Setting up conv4
2016-07-31 23:36:24.034 STDERR [INFO] I0731 23:36:24.034224 26334 net.cpp:148] Top shape: 10 384 13 13 (648960)
2016-07-31 23:36:24.034 STDERR [INFO] I0731 23:36:24.034229 26334 net.cpp:156] Memory required for data: 61192760
2016-07-31 23:36:24.034 STDERR [INFO] I0731 23:36:24.034238 26334 layer_factory.hpp:77] Creating layer relu4
2016-07-31 23:36:24.034 STDERR [INFO] I0731 23:36:24.034250 26334 net.cpp:91] Creating Layer relu4
2016-07-31 23:36:24.034 STDERR [INFO] I0731 23:36:24.034255 26334 net.cpp:425] relu4 <- conv4
2016-07-31 23:36:24.035 STDERR [INFO] I0731 23:36:24.034262 26334 net.cpp:386] relu4 -> conv4 (in-place)
2016-07-31 23:36:24.035 STDERR [INFO] I0731 23:36:24.034698 26334 net.cpp:141] Setting up relu4
2016-07-31 23:36:24.035 STDERR [INFO] I0731 23:36:24.034711 26334 net.cpp:148] Top shape: 10 384 13 13 (648960)
2016-07-31 23:36:24.035 STDERR [INFO] I0731 23:36:24.034715 26334 net.cpp:156] Memory required for data: 63788600
2016-07-31 23:36:24.035 STDERR [INFO] I0731 23:36:24.034721 26334 layer_factory.hpp:77] Creating layer conv5
2016-07-31 23:36:24.035 STDERR [INFO] I0731 23:36:24.034734 26334 net.cpp:91] Creating Layer conv5
2016-07-31 23:36:24.035 STDERR [INFO] I0731 23:36:24.034741 26334 net.cpp:425] conv5 <- conv4
2016-07-31 23:36:24.035 STDERR [INFO] I0731 23:36:24.034749 26334 net.cpp:399] conv5 -> conv5
2016-07-31 23:36:24.038 STDERR [INFO] I0731 23:36:24.038597 26334 net.cpp:141] Setting up conv5
2016-07-31 23:36:24.038 STDERR [INFO] I0731 23:36:24.038614 26334 net.cpp:148] Top shape: 10 256 13 13 (432640)
2016-07-31 23:36:24.038 STDERR [INFO] I0731 23:36:24.038619 26334 net.cpp:156] Memory required for data: 65519160
2016-07-31 23:36:24.039 STDERR [INFO] I0731 23:36:24.038631 26334 layer_factory.hpp:77] Creating layer relu5
2016-07-31 23:36:24.039 STDERR [INFO] I0731 23:36:24.038645 26334 net.cpp:91] Creating Layer relu5
2016-07-31 23:36:24.039 STDERR [INFO] I0731 23:36:24.038650 26334 net.cpp:425] relu5 <- conv5
2016-07-31 23:36:24.039 STDERR [INFO] I0731 23:36:24.038656 26334 net.cpp:386] relu5 -> conv5 (in-place)
2016-07-31 23:36:24.039 STDERR [INFO] I0731 23:36:24.039093 26334 net.cpp:141] Setting up relu5
2016-07-31 23:36:24.039 STDERR [INFO] I0731 23:36:24.039105 26334 net.cpp:148] Top shape: 10 256 13 13 (432640)
2016-07-31 23:36:24.039 STDERR [INFO] I0731 23:36:24.039109 26334 net.cpp:156] Memory required for data: 67249720
2016-07-31 23:36:24.039 STDERR [INFO] I0731 23:36:24.039115 26334 layer_factory.hpp:77] Creating layer pool5
2016-07-31 23:36:24.039 STDERR [INFO] I0731 23:36:24.039129 26334 net.cpp:91] Creating Layer pool5
2016-07-31 23:36:24.039 STDERR [INFO] I0731 23:36:24.039135 26334 net.cpp:425] pool5 <- conv5
2016-07-31 23:36:24.039 STDERR [INFO] I0731 23:36:24.039144 26334 net.cpp:399] pool5 -> pool5
2016-07-31 23:36:24.040 STDERR [INFO] I0731 23:36:24.039201 26334 net.cpp:141] Setting up pool5
2016-07-31 23:36:24.040 STDERR [INFO] I0731 23:36:24.039211 26334 net.cpp:148] Top shape: 10 256 6 6 (92160)
2016-07-31 23:36:24.040 STDERR [INFO] I0731 23:36:24.039214 26334 net.cpp:156] Memory required for data: 67618360
2016-07-31 23:36:24.040 STDERR [INFO] I0731 23:36:24.039219 26334 layer_factory.hpp:77] Creating layer fc6
2016-07-31 23:36:24.040 STDERR [INFO] I0731 23:36:24.039240 26334 net.cpp:91] Creating Layer fc6
2016-07-31 23:36:24.040 STDERR [INFO] I0731 23:36:24.039245 26334 net.cpp:425] fc6 <- pool5
…
2016-07-31 23:36:24.121 STDERR [INFO] I0731 23:36:24.105906 26324 net.cpp:91] Creating Layer input
2016-07-31 23:36:24.121 STDERR [INFO] I0731 23:36:24.105914 26324 net.cpp:399] input -> frames_fc7
2016-07-31 23:36:24.121 STDERR [INFO] I0731 23:36:24.105934 26324 net.cpp:399] input -> cont_sentence
2016-07-31 23:36:24.121 STDERR [INFO] I0731 23:36:24.105944 26324 net.cpp:399] input -> input_sentence
2016-07-31 23:36:24.121 STDERR [INFO] I0731 23:36:24.105954 26324 net.cpp:399] input -> stage_indicator
2016-07-31 23:36:24.122 STDERR [INFO] I0731 23:36:24.106075 26324 net.cpp:141] Setting up input
2016-07-31 23:36:24.122 STDERR [INFO] I0731 23:36:24.106086 26324 net.cpp:148] Top shape: 1 4096 (4096)
2016-07-31 23:36:24.122 STDERR [INFO] I0731 23:36:24.106092 26324 net.cpp:148] Top shape: 1 1 (1)
2016-07-31 23:36:24.122 STDERR [INFO] I0731 23:36:24.106098 26324 net.cpp:148] Top shape: 1 1 (1)
2016-07-31 23:36:24.122 STDERR [INFO] I0731 23:36:24.106103 26324 net.cpp:148] Top shape: 1 1 (1)
2016-07-31 23:36:24.122 STDERR [INFO] I0731 23:36:24.106107 26324 net.cpp:156] Memory required for data: 16396
2016-07-31 23:36:24.122 STDERR [INFO] I0731 23:36:24.106113 26324 layer_factory.hpp:77] Creating layer cont_sentence_input_1_split
2016-07-31 23:36:24.122 STDERR [INFO] I0731 23:36:24.106133 26324 net.cpp:91] Creating Layer cont_sentence_input_1_split
2016-07-31 23:36:24.122 STDERR [INFO] I0731 23:36:24.106139 26324 net.cpp:425] cont_sentence_input_1_split <- cont_sentence
2016-07-31 23:36:24.123 STDERR [INFO] I0731 23:36:24.106158 26324 net.cpp:399] cont_sentence_input_1_split -> cont_sentence_input_1_split_0
2016-07-31 23:36:24.123 STDERR [INFO] I0731 23:36:24.106168 26324 net.cpp:399] cont_sentence_input_1_split -> cont_sentence_input_1_split_1
2016-07-31 23:36:24.123 STDERR [INFO] I0731 23:36:24.106215 26324 net.cpp:141] Setting up cont_sentence_input_1_split
2016-07-31 23:36:24.123 STDERR [INFO] I0731 23:36:24.106223 26324 net.cpp:148] Top shape: 1 1 (1)
2016-07-31 23:36:24.123 STDERR [INFO] I0731 23:36:24.106228 26324 net.cpp:148] Top shape: 1 1 (1)
2016-07-31 23:36:24.123 STDERR [INFO] I0731 23:36:24.106232 26324 net.cpp:156] Memory required for data: 16404
2016-07-31 23:36:24.123 STDERR [INFO] I0731 23:36:24.106237 26324 layer_factory.hpp:77] Creating layer embed_encoder
2016-07-31 23:36:24.123 STDERR [INFO] I0731 23:36:24.106248 26324 net.cpp:91] Creating Layer embed_encoder
2016-07-31 23:36:24.124 STDERR [INFO] I0731 23:36:24.106252 26324 net.cpp:425] embed_encoder <- frames_fc7
2016-07-31 23:36:24.124 STDERR [INFO] I0731 23:36:24.106261 26324 net.cpp:399] embed_encoder -> embedded_in_frames
2016-07-31 23:36:24.126 STDERR [INFO] I0731 23:36:24.126775 26324 net.cpp:141] Setting up embed_encoder
2016-07-31 23:36:24.127 STDERR [INFO] I0731 23:36:24.126832 26324 net.cpp:148] Top shape: 1 500 (500)
2016-07-31 23:36:24.127 STDERR [INFO] I0731 23:36:24.126837 26324 net.cpp:156] Memory required for data: 18404
2016-07-31 23:36:24.127 STDERR [INFO] I0731 23:36:24.126859 26324 layer_factory.hpp:77] Creating layer reshape_frames
2016-07-31 23:36:24.127 STDERR [INFO] I0731 23:36:24.126894 26324 net.cpp:91] Creating Layer reshape_frames
2016-07-31 23:36:24.127 STDERR [INFO] I0731 23:36:24.126904 26324 net.cpp:425] reshape_frames <- embedded_in_frames
2016-07-31 23:36:24.127 STDERR [INFO] I0731 23:36:24.126914 26324 net.cpp:399] reshape_frames -> embedded_input_frames
2016-07-31 23:36:24.127 STDERR [INFO] I0731 23:36:24.126971 26324 net.cpp:141] Setting up reshape_frames
2016-07-31 23:36:24.127 STDERR [INFO] I0731 23:36:24.126979 26324 net.cpp:148] Top shape: 1 1 500 (500)
2016-07-31 23:36:24.127 STDERR [INFO] I0731 23:36:24.126984 26324 net.cpp:156] Memory required for data: 20404
2016-07-31 23:36:24.127 STDERR [INFO] I0731 23:36:24.126989 26324 layer_factory.hpp:77] Creating layer reshape_stage_indicator
2016-07-31 23:36:24.128 STDERR [INFO] I0731 23:36:24.126999 26324 net.cpp:91] Creating Layer reshape_stage_indicator
2016-07-31 23:36:24.128 STDERR [INFO] I0731 23:36:24.127004 26324 net.cpp:425] reshape_stage_indicator <- stage_indicator
2016-07-31 23:36:24.128 STDERR [INFO] I0731 23:36:24.127013 26324 net.cpp:399] reshape_stage_indicator -> reshaped_stage_indicator
2016-07-31 23:36:24.128 STDERR [INFO] I0731 23:36:24.127049 26324 net.cpp:141] Setting up reshape_stage_indicator
2016-07-31 23:36:24.128 STDERR [INFO] I0731 23:36:24.127059 26324 net.cpp:148] Top shape: 1 1 1 (1)
2016-07-31 23:36:24.128 STDERR [INFO] I0731 23:36:24.127073 26324 net.cpp:156] Memory required for data: 20408
2016-07-31 23:36:24.128 STDERR [INFO] I0731 23:36:24.127077 26324 layer_factory.hpp:77] Creating layer embedding
2016-07-31 23:36:24.128 STDERR [INFO] I0731 23:36:24.127095 26324 net.cpp:91] Creating Layer embedding
2016-07-31 23:36:24.128 STDERR [INFO] I0731 23:36:24.127100 26324 net.cpp:425] embedding <- input_sentence
2016-07-31 23:36:24.128 STDERR [INFO] I0731 23:36:24.127110 26324 net.cpp:399] embedding -> embedded_input_sentence
2016-07-31 23:36:24.167 STDERR [INFO] I0731 23:36:24.167258 26334 net.cpp:141] Setting up fc6
2016-07-31 23:36:24.167 STDERR [INFO] I0731 23:36:24.167307 26334 net.cpp:148] Top shape: 10 4096 (40960)
2016-07-31 23:36:24.167 STDERR [INFO] I0731 23:36:24.167314 26334 net.cpp:156] Memory required for data: 67782200
2016-07-31 23:36:24.168 STDERR [INFO] I0731 23:36:24.167328 26334 layer_factory.hpp:77] Creating layer relu6
2016-07-31 23:36:24.168 STDERR [INFO] I0731 23:36:24.167343 26334 net.cpp:91] Creating Layer relu6
2016-07-31 23:36:24.168 STDERR [INFO] I0731 23:36:24.167349 26334 net.cpp:425] relu6 <- fc6
2016-07-31 23:36:24.168 STDERR [INFO] I0731 23:36:24.167361 26334 net.cpp:386] relu6 -> fc6 (in-place)
2016-07-31 23:36:24.168 STDERR [INFO] I0731 23:36:24.167687 26334 net.cpp:141] Setting up relu6
2016-07-31 23:36:24.168 STDERR [INFO] I0731 23:36:24.167698 26334 net.cpp:148] Top shape: 10 4096 (40960)
2016-07-31 23:36:24.169 STDERR [INFO] I0731 23:36:24.167703 26334 net.cpp:156] Memory required for data: 67946040
2016-07-31 23:36:24.169 STDERR [INFO] I0731 23:36:24.167708 26334 layer_factory.hpp:77] Creating layer drop6
2016-07-31 23:36:24.169 STDERR [INFO] I0731 23:36:24.167721 26334 net.cpp:91] Creating Layer drop6
2016-07-31 23:36:24.169 STDERR [INFO] I0731 23:36:24.167726 26334 net.cpp:425] drop6 <- fc6
2016-07-31 23:36:24.169 STDERR [INFO] I0731 23:36:24.167732 26334 net.cpp:386] drop6 -> fc6 (in-place)
2016-07-31 23:36:24.169 STDERR [INFO] I0731 23:36:24.167780 26334 net.cpp:141] Setting up drop6
2016-07-31 23:36:24.169 STDERR [INFO] I0731 23:36:24.167789 26334 net.cpp:148] Top shape: 10 4096 (40960)
2016-07-31 23:36:24.169 STDERR [INFO] I0731 23:36:24.167793 26334 net.cpp:156] Memory required for data: 68109880
2016-07-31 23:36:24.169 STDERR [INFO] I0731 23:36:24.167798 26334 layer_factory.hpp:77] Creating layer fc7
2016-07-31 23:36:24.170 STDERR [INFO] I0731 23:36:24.167807 26334 net.cpp:91] Creating Layer fc7
2016-07-31 23:36:24.170 STDERR [INFO] I0731 23:36:24.167812 26334 net.cpp:425] fc7 <- fc6
…
2016-07-31 23:36:24.217 n.t.s.s.CVParticleSpout [INFO] [Timing] RequestID: 0 StreamID: home/peifeng/work/data/frame.320x240.jpg SequenceNr: 123 Leaving fetcher: 1470022584217 Size: 8702
2016-07-31 23:36:24.220 n.t.s.b.CVParticleBolt [INFO] [Timing] RequestID: 0 StreamID: home/peifeng/work/data/frame.320x240.jpg SequenceNr: 122 Leaving scale: 1470022584220 Size: 3530
2016-07-31 23:36:24.220 n.t.s.b.CVParticleBolt [INFO] [Timing] RequestID: 0 StreamID: home/peifeng/work/data/frame.320x240.jpg SequenceNr: 123 Entering scale: 1470022584220
2016-07-31 23:36:24.225 STDERR [INFO] I0731 23:36:24.225072 26334 net.cpp:141] Setting up fc7
2016-07-31 23:36:24.225 STDERR [INFO] I0731 23:36:24.225117 26334 net.cpp:148] Top shape: 10 4096 (40960)
2016-07-31 23:36:24.225 STDERR [INFO] I0731 23:36:24.225124 26334 net.cpp:156] Memory required for data: 68273720
2016-07-31 23:36:24.225 STDERR [INFO] I0731 23:36:24.225137 26334 layer_factory.hpp:77] Creating layer relu7
2016-07-31 23:36:24.225 STDERR [INFO] I0731 23:36:24.225157 26334 net.cpp:91] Creating Layer relu7
2016-07-31 23:36:24.226 STDERR [INFO] I0731 23:36:24.225163 26334 net.cpp:425] relu7 <- fc7
2016-07-31 23:36:24.226 STDERR [INFO] I0731 23:36:24.225172 26334 net.cpp:386] relu7 -> fc7 (in-place)
2016-07-31 23:36:24.226 n.t.s.b.CVParticleBolt [INFO] [Timing] RequestID: 0 StreamID: home/peifeng/work/data/frame.320x240.jpg SequenceNr: 123 Leaving scale: 1470022584226 Size: 3530
2016-07-31 23:36:24.226 STDERR [INFO] I0731 23:36:24.225951 26334 net.cpp:141] Setting up relu7
2016-07-31 23:36:24.226 STDERR [INFO] I0731 23:36:24.225975 26334 net.cpp:148] Top shape: 10 4096 (40960)
2016-07-31 23:36:24.226 STDERR [INFO] I0731 23:36:24.225980 26334 net.cpp:156] Memory required for data: 68437560
2016-07-31 23:36:24.226 STDERR [INFO] I0731 23:36:24.225986 26334 layer_factory.hpp:77] Creating layer drop7
2016-07-31 23:36:24.226 STDERR [INFO] I0731 23:36:24.225996 26334 net.cpp:91] Creating Layer drop7
2016-07-31 23:36:24.226 STDERR [INFO] I0731 23:36:24.226002 26334 net.cpp:425] drop7 <- fc7
2016-07-31 23:36:24.226 STDERR [INFO] I0731 23:36:24.226009 26334 net.cpp:386] drop7 -> fc7 (in-place)
2016-07-31 23:36:24.226 STDERR [INFO] I0731 23:36:24.226055 26334 net.cpp:141] Setting up drop7
2016-07-31 23:36:24.226 STDERR [INFO] I0731 23:36:24.226064 26334 net.cpp:148] Top shape: 10 4096 (40960)
2016-07-31 23:36:24.227 STDERR [INFO] I0731 23:36:24.226069 26334 net.cpp:156] Memory required for data: 68601400
2016-07-31 23:36:24.227 STDERR [INFO] I0731 23:36:24.226074 26334 layer_factory.hpp:77] Creating layer fc8
2016-07-31 23:36:24.227 STDERR [INFO] I0731 23:36:24.226085 26334 net.cpp:91] Creating Layer fc8
2016-07-31 23:36:24.227 STDERR [INFO] I0731 23:36:24.226090 26334 net.cpp:425] fc8 <- fc7
2016-07-31 23:36:24.227 STDERR [INFO] I0731 23:36:24.226100 26334 net.cpp:399] fc8 -> fc8
2016-07-31 23:36:24.238 STDERR [INFO] I0731 23:36:24.238001 26334 net.cpp:141] Setting up fc8
2016-07-31 23:36:24.238 STDERR [INFO] I0731 23:36:24.238044 26334 net.cpp:148] Top shape: 10 1000 (10000)
2016-07-31 23:36:24.238 STDERR [INFO] I0731 23:36:24.238050 26334 net.cpp:156] Memory required for data: 68641400
2016-07-31 23:36:24.238 STDERR [INFO] I0731 23:36:24.238065 26334 layer_factory.hpp:77] Creating layer prob
2016-07-31 23:36:24.238 STDERR [INFO] I0731 23:36:24.238086 26334 net.cpp:91] Creating Layer prob
2016-07-31 23:36:24.238 STDERR [INFO] I0731 23:36:24.238093 26334 net.cpp:425] prob <- fc8
2016-07-31 23:36:24.238 STDERR [INFO] I0731 23:36:24.238103 26334 net.cpp:399] prob -> prob
2016-07-31 23:36:24.239 STDERR [INFO] I0731 23:36:24.238530 26334 net.cpp:141] Setting up prob
2016-07-31 23:36:24.239 STDERR [INFO] I0731 23:36:24.238545 26334 net.cpp:148] Top shape: 10 1000 (10000)
2016-07-31 23:36:24.239 STDERR [INFO] I0731 23:36:24.238550 26334 net.cpp:156] Memory required for data: 68681400
2016-07-31 23:36:24.239 STDERR [INFO] I0731 23:36:24.238555 26334 net.cpp:219] prob does not need backward computation.
2016-07-31 23:36:24.239 STDERR [INFO] I0731 23:36:24.238561 26334 net.cpp:219] fc8 does not need backward computation.
2016-07-31 23:36:24.239 STDERR [INFO] I0731 23:36:24.238565 26334 net.cpp:219] drop7 does not need backward computation.
…
2016-07-31 23:36:24.357 STDERR [INFO] }
2016-07-31 23:36:24.357 STDERR [INFO] I0731 23:36:24.345516 26324 layer_factory.hpp:77] Creating layer lstm1_
2016-07-31 23:36:24.357 STDERR [INFO] I0731 23:36:24.345531 26324 net.cpp:91] Creating Layer lstm1_
2016-07-31 23:36:24.357 STDERR [INFO] I0731 23:36:24.345537 26324 net.cpp:399] lstm1_ -> x
2016-07-31 23:36:24.357 STDERR [INFO] I0731 23:36:24.345549 26324 net.cpp:399] lstm1_ -> cont
2016-07-31 23:36:24.357 STDERR [INFO] I0731 23:36:24.345613 26324 net.cpp:141] Setting up lstm1_
2016-07-31 23:36:24.357 STDERR [INFO] I0731 23:36:24.345623 26324 net.cpp:148] Top shape: 1 1 500 (500)
2016-07-31 23:36:24.357 STDERR [INFO] I0731 23:36:24.345629 26324 net.cpp:148] Top shape: 1 1 (1)
2016-07-31 23:36:24.358 STDERR [INFO] I0731 23:36:24.345633 26324 net.cpp:156] Memory required for data: 2004
2016-07-31 23:36:24.358 STDERR [INFO] I0731 23:36:24.345638 26324 layer_factory.hpp:77] Creating layer lstm1_
2016-07-31 23:36:24.358 STDERR [INFO] I0731 23:36:24.345650 26324 net.cpp:91] Creating Layer lstm1_
2016-07-31 23:36:24.358 STDERR [INFO] I0731 23:36:24.345659 26324 net.cpp:399] lstm1_ -> c_0
2016-07-31 23:36:24.358 STDERR [INFO] I0731 23:36:24.345669 26324 net.cpp:399] lstm1_ -> h_0
2016-07-31 23:36:24.358 STDERR [INFO] I0731 23:36:24.345718 26324 net.cpp:141] Setting up lstm1_
2016-07-31 23:36:24.358 STDERR [INFO] I0731 23:36:24.345729 26324 net.cpp:148] Top shape: 1 1 1000 (1000)
2016-07-31 23:36:24.358 STDERR [INFO] I0731 23:36:24.345736 26324 net.cpp:148] Top shape: 1 1 1000 (1000)
2016-07-31 23:36:24.358 STDERR [INFO] I0731 23:36:24.345739 26324 net.cpp:156] Memory required for data: 10004
2016-07-31 23:36:24.358 STDERR [INFO] I0731 23:36:24.345744 26324 layer_factory.hpp:77] Creating layer lstm1_cont_slice
2016-07-31 23:36:24.358 STDERR [INFO] I0731 23:36:24.345753 26324 net.cpp:91] Creating Layer lstm1_cont_slice
2016-07-31 23:36:24.358 STDERR [INFO] I0731 23:36:24.345758 26324 net.cpp:425] lstm1_cont_slice <- cont
2016-07-31 23:36:24.358 STDERR [INFO] I0731 23:36:24.345765 26324 net.cpp:399] lstm1_cont_slice -> cont_1
2016-07-31 23:36:24.359 STDERR [INFO] I0731 23:36:24.345801 26324 net.cpp:141] Setting up lstm1_cont_slice
2016-07-31 23:36:24.359 STDERR [INFO] I0731 23:36:24.345810 26324 net.cpp:148] Top shape: 1 1 (1)
2016-07-31 23:36:24.359 STDERR [INFO] I0731 23:36:24.345815 26324 net.cpp:156] Memory required for data: 10008
2016-07-31 23:36:24.359 STDERR [INFO] I0731 23:36:24.345819 26324 layer_factory.hpp:77] Creating layer cont_1_lstm1_cont_slice_0_split
2016-07-31 23:36:24.359 STDERR [INFO] I0731 23:36:24.345827 26324 net.cpp:91] Creating Layer cont_1_lstm1_cont_slice_0_split
2016-07-31 23:36:24.359 STDERR [INFO] I0731 23:36:24.345832 26324 net.cpp:425] cont_1_lstm1_cont_slice_0_split <- cont_1
2016-07-31 23:36:24.359 STDERR [INFO] I0731 23:36:24.345840 26324 net.cpp:399] cont_1_lstm1_cont_slice_0_split -> cont_1_lstm1_cont_slice_0_split_0
2016-07-31 23:36:24.359 STDERR [INFO] I0731 23:36:24.345849 26324 net.cpp:399] cont_1_lstm1_cont_slice_0_split -> cont_1_lstm1_cont_slice_0_split_1
2016-07-31 23:36:24.359 STDERR [INFO] I0731 23:36:24.345896 26324 net.cpp:141] Setting up cont_1_lstm1_cont_slice_0_split
2016-07-31 23:36:24.359 STDERR [INFO] I0731 23:36:24.345904 26324 net.cpp:148] Top shape: 1 1 (1)
2016-07-31 23:36:24.359 STDERR [INFO] I0731 23:36:24.345911 26324 net.cpp:148] Top shape: 1 1 (1)
2016-07-31 23:36:24.359 STDERR [INFO] I0731 23:36:24.345914 26324 net.cpp:156] Memory required for data: 10016
2016-07-31 23:36:24.359 STDERR [INFO] I0731 23:36:24.345918 26324 layer_factory.hpp:77] Creating layer lstm1_x_transform
2016-07-31 23:36:24.359 STDERR [INFO] I0731 23:36:24.345928 26324 net.cpp:91] Creating Layer lstm1_x_transform
2016-07-31 23:36:24.360 STDERR [INFO] I0731 23:36:24.345933 26324 net.cpp:425] lstm1_x_transform <- x
2016-07-31 23:36:24.360 STDERR [INFO] I0731 23:36:24.345942 26324 net.cpp:399] lstm1_x_transform -> W_xc_x
2016-07-31 23:36:24.365 STDERR [INFO] I0731 23:36:24.365140 26324 net.cpp:141] Setting up lstm1_x_transform
2016-07-31 23:36:24.365 STDERR [INFO] I0731 23:36:24.365181 26324 net.cpp:148] Top shape: 1 1 4000 (4000)
2016-07-31 23:36:24.365 STDERR [INFO] I0731 23:36:24.365188 26324 net.cpp:156] Memory required for data: 26016
2016-07-31 23:36:24.365 STDERR [INFO] I0731 23:36:24.365207 26324 layer_factory.hpp:77] Creating layer lstm1_W_xc_x_slice
2016-07-31 23:36:24.365 STDERR [INFO] I0731 23:36:24.365223 26324 net.cpp:91] Creating Layer lstm1_W_xc_x_slice
2016-07-31 23:36:24.365 STDERR [INFO] I0731 23:36:24.365229 26324 net.cpp:425] lstm1_W_xc_x_slice <- W_xc_x
2016-07-31 23:36:24.365 STDERR [INFO] I0731 23:36:24.365238 26324 net.cpp:399] lstm1_W_xc_x_slice -> W_xc_x_1
2016-07-31 23:36:24.365 STDERR [INFO] I0731 23:36:24.365283 26324 net.cpp:141] Setting up lstm1_W_xc_x_slice
2016-07-31 23:36:24.366 STDERR [INFO] I0731 23:36:24.365293 26324 net.cpp:148] Top shape: 1 1 4000 (4000)
2016-07-31 23:36:24.366 STDERR [INFO] I0731 23:36:24.365298 26324 net.cpp:156] Memory required for data: 42016
2016-07-31 23:36:24.366 STDERR [INFO] I0731 23:36:24.365303 26324 layer_factory.hpp:77] Creating layer lstm1_h_conted_0
2016-07-31 23:36:24.366 STDERR [INFO] I0731 23:36:24.365312 26324 net.cpp:91] Creating Layer lstm1_h_conted_0
2016-07-31 23:36:24.366 STDERR [INFO] I0731 23:36:24.365317 26324 net.cpp:425] lstm1_h_conted_0 <- h_0
2016-07-31 23:36:24.366 STDERR [INFO] I0731 23:36:24.365324 26324 net.cpp:425] lstm1_h_conted_0 <- cont_1_lstm1_cont_slice_0_split_0
2016-07-31 23:36:24.366 STDERR [INFO] I0731 23:36:24.365330 26324 net.cpp:399] lstm1_h_conted_0 -> h_conted_0
2016-07-31 23:36:24.366 STDERR [INFO] I0731 23:36:24.365430 26324 net.cpp:141] Setting up lstm1_h_conted_0
2016-07-31 23:36:24.366 STDERR [INFO] I0731 23:36:24.365440 26324 net.cpp:148] Top shape: 1 1 1000 (1000)
2016-07-31 23:36:24.366 STDERR [INFO] I0731 23:36:24.365444 26324 net.cpp:156] Memory required for data: 46016
2016-07-31 23:36:24.366 STDERR [INFO] I0731 23:36:24.365449 26324 layer_factory.hpp:77] Creating layer lstm1_transform_1
2016-07-31 23:36:24.366 STDERR [INFO] I0731 23:36:24.365461 26324 net.cpp:91] Creating Layer lstm1_transform_1
2016-07-31 23:36:24.366 STDERR [INFO] I0731 23:36:24.365466 26324 net.cpp:425] lstm1_transform_1 <- h_conted_0
…
2016-07-31 23:36:24.400 n.t.s.f.RefreshingImageFetcher$ImageReader [INFO] [Timing] RequestID: 0 StreamID: home/peifeng/work/data/frame.320x240.jpg SequenceNr: 127 Entering queue: 1470022584400
2016-07-31 23:36:24.404 n.t.s.s.CVParticleSpout [INFO] [Timing] RequestID: 0 StreamID: home/peifeng/work/data/frame.320x240.jpg SequenceNr: 124 Leaving fetcher: 1470022584404 Size: 8702
2016-07-31 23:36:24.404 n.t.s.b.CVParticleBolt [INFO] [Timing] RequestID: 0 StreamID: home/peifeng/work/data/frame.320x240.jpg SequenceNr: 124 Entering scale: 1470022584404
2016-07-31 23:36:24.404 STDERR [INFO] I0731 23:36:24.404470 26324 net.cpp:141] Setting up lstm1_transform_1
2016-07-31 23:36:24.405 STDERR [INFO] I0731 23:36:24.404518 26324 net.cpp:148] Top shape: 1 1 4000 (4000)
2016-07-31 23:36:24.405 STDERR [INFO] I0731 23:36:24.404525 26324 net.cpp:156] Memory required for data: 62016
2016-07-31 23:36:24.405 STDERR [INFO] I0731 23:36:24.404546 26324 layer_factory.hpp:77] Creating layer lstm1_gate_input_1
2016-07-31 23:36:24.405 STDERR [INFO] I0731 23:36:24.404568 26324 net.cpp:91] Creating Layer lstm1_gate_input_1
2016-07-31 23:36:24.405 STDERR [INFO] I0731 23:36:24.404575 26324 net.cpp:425] lstm1_gate_input_1 <- W_hc_h_0
2016-07-31 23:36:24.405 STDERR [INFO] I0731 23:36:24.404584 26324 net.cpp:425] lstm1_gate_input_1 <- W_xc_x_1
2016-07-31 23:36:24.405 STDERR [INFO] I0731 23:36:24.404592 26324 net.cpp:399] lstm1_gate_input_1 -> gate_input_1
2016-07-31 23:36:24.406 STDERR [INFO] I0731 23:36:24.404654 26324 net.cpp:141] Setting up lstm1_gate_input_1
2016-07-31 23:36:24.406 STDERR [INFO] I0731 23:36:24.404662 26324 net.cpp:148] Top shape: 1 1 4000 (4000)
2016-07-31 23:36:24.406 STDERR [INFO] I0731 23:36:24.404667 26324 net.cpp:156] Memory required for data: 78016
2016-07-31 23:36:24.406 STDERR [INFO] I0731 23:36:24.404671 26324 layer_factory.hpp:77] Creating layer lstm1_unit_1
2016-07-31 23:36:24.406 STDERR [INFO] I0731 23:36:24.404683 26324 net.cpp:91] Creating Layer lstm1_unit_1
2016-07-31 23:36:24.406 STDERR [INFO] I0731 23:36:24.404688 26324 net.cpp:425] lstm1_unit_1 <- c_0
2016-07-31 23:36:24.406 n.t.s.s.CVParticleSpout [INFO] [Timing] RequestID: 0 StreamID: home/peifeng/work/data/frame.320x240.jpg SequenceNr: 125 Leaving fetcher: 1470022584406 Size: 8702
2016-07-31 23:36:24.406 n.t.s.b.CVParticleBolt [INFO] [Timing] RequestID: 0 StreamID: home/peifeng/work/data/frame.320x240.jpg SequenceNr: 125 Entering scale: 1470022584406
2016-07-31 23:36:24.406 STDERR [INFO] I0731 23:36:24.404695 26324 net.cpp:425] lstm1_unit_1 <- gate_input_1
2016-07-31 23:36:24.406 STDERR [INFO] I0731 23:36:24.404700 26324 net.cpp:425] lstm1_unit_1 <- cont_1_lstm1_cont_slice_0_split_1
2016-07-31 23:36:24.406 STDERR [INFO] I0731 23:36:24.404706 26324 net.cpp:399] lstm1_unit_1 -> c_1
2016-07-31 23:36:24.407 STDERR [INFO] I0731 23:36:24.404714 26324 net.cpp:399] lstm1_unit_1 -> h_1
2016-07-31 23:36:24.407 STDERR [INFO] I0731 23:36:24.404777 26324 net.cpp:141] Setting up lstm1_unit_1
2016-07-31 23:36:24.407 STDERR [INFO] I0731 23:36:24.404785 26324 net.cpp:148] Top shape: 1 1 1000 (1000)
2016-07-31 23:36:24.407 STDERR [INFO] I0731 23:36:24.404791 26324 net.cpp:148] Top shape: 1 1 1000 (1000)
2016-07-31 23:36:24.407 STDERR [INFO] I0731 23:36:24.404795 26324 net.cpp:156] Memory required for data: 86016
2016-07-31 23:36:24.407 STDERR [INFO] I0731 23:36:24.404800 26324 layer_factory.hpp:77] Creating layer lstm1_
2016-07-31 23:36:24.407 STDERR [INFO] I0731 23:36:24.404809 26324 net.cpp:91] Creating Layer lstm1_
2016-07-31 23:36:24.407 STDERR [INFO] I0731 23:36:24.404814 26324 net.cpp:425] lstm1_ <- c_1
2016-07-31 23:36:24.407 STDERR [INFO] I0731 23:36:24.404820 26324 net.cpp:399] lstm1_ -> c_T
2016-07-31 23:36:24.407 STDERR [INFO] I0731 23:36:24.404850 26324 net.cpp:141] Setting up lstm1_
2016-07-31 23:36:24.407 STDERR [INFO] I0731 23:36:24.404857 26324 net.cpp:148] Top shape: 1 1 1000 (1000)
2016-07-31 23:36:24.407 STDERR [INFO] I0731 23:36:24.404861 26324 net.cpp:156] Memory required for data: 90016
2016-07-31 23:36:24.407 STDERR [INFO] I0731 23:36:24.404865 26324 layer_factory.hpp:77] Creating layer lstm1_h_concat
2016-07-31 23:36:24.407 STDERR [INFO] I0731 23:36:24.404889 26324 net.cpp:91] Creating Layer lstm1_h_concat
2016-07-31 23:36:24.408 STDERR [INFO] I0731 23:36:24.404896 26324 net.cpp:425] lstm1_h_concat <- h_1
2016-07-31 23:36:24.408 STDERR [INFO] I0731 23:36:24.404902 26324 net.cpp:399] lstm1_h_concat -> h
2016-07-31 23:36:24.408 STDERR [INFO] I0731 23:36:24.404938 26324 net.cpp:141] Setting up lstm1_h_concat
2016-07-31 23:36:24.408 STDERR [INFO] I0731 23:36:24.404947 26324 net.cpp:148] Top shape: 1 1 1000 (1000)
2016-07-31 23:36:24.408 STDERR [INFO] I0731 23:36:24.404952 26324 net.cpp:156] Memory required for data: 94016
2016-07-31 23:36:24.408 STDERR [INFO] I0731 23:36:24.404955 26324 layer_factory.hpp:77] Creating layer h_pseudoloss
2016-07-31 23:36:24.408 STDERR [INFO] I0731 23:36:24.404970 26324 net.cpp:91] Creating Layer h_pseudoloss
2016-07-31 23:36:24.408 STDERR [INFO] I0731 23:36:24.404975 26324 net.cpp:425] h_pseudoloss <- h
…
2016-07-31 23:36:24.423 STDERR [INFO] }
2016-07-31 23:36:24.423 STDERR [INFO] I0731 23:36:24.405905 26324 layer_factory.hpp:77] Creating layer lstm2_
2016-07-31 23:36:24.423 STDERR [INFO] I0731 23:36:24.405916 26324 net.cpp:91] Creating Layer lstm2_
2016-07-31 23:36:24.423 STDERR [INFO] I0731 23:36:24.405922 26324 net.cpp:399] lstm2_ -> x
2016-07-31 23:36:24.423 STDERR [INFO] I0731 23:36:24.405933 26324 net.cpp:399] lstm2_ -> cont
2016-07-31 23:36:24.423 STDERR [INFO] I0731 23:36:24.405985 26324 net.cpp:141] Setting up lstm2_
2016-07-31 23:36:24.423 STDERR [INFO] I0731 23:36:24.405994 26324 net.cpp:148] Top shape: 1 1 1501 (1501)
2016-07-31 23:36:24.423 STDERR [INFO] I0731 23:36:24.406000 26324 net.cpp:148] Top shape: 1 1 (1)
2016-07-31 23:36:24.423 STDERR [INFO] I0731 23:36:24.406004 26324 net.cpp:156] Memory required for data: 6008
2016-07-31 23:36:24.423 STDERR [INFO] I0731 23:36:24.406008 26324 layer_factory.hpp:77] Creating layer lstm2_
2016-07-31 23:36:24.423 STDERR [INFO] I0731 23:36:24.406018 26324 net.cpp:91] Creating Layer lstm2_
2016-07-31 23:36:24.423 STDERR [INFO] I0731 23:36:24.406023 26324 net.cpp:399] lstm2_ -> c_0
2016-07-31 23:36:24.424 STDERR [INFO] I0731 23:36:24.406033 26324 net.cpp:399] lstm2_ -> h_0
2016-07-31 23:36:24.424 STDERR [INFO] I0731 23:36:24.406077 26324 net.cpp:141] Setting up lstm2_
2016-07-31 23:36:24.424 STDERR [INFO] I0731 23:36:24.406086 26324 net.cpp:148] Top shape: 1 1 1000 (1000)
2016-07-31 23:36:24.424 STDERR [INFO] I0731 23:36:24.406091 26324 net.cpp:148] Top shape: 1 1 1000 (1000)
2016-07-31 23:36:24.424 STDERR [INFO] I0731 23:36:24.406095 26324 net.cpp:156] Memory required for data: 14008
2016-07-31 23:36:24.424 STDERR [INFO] I0731 23:36:24.406100 26324 layer_factory.hpp:77] Creating layer lstm2_cont_slice
2016-07-31 23:36:24.424 STDERR [INFO] I0731 23:36:24.406108 26324 net.cpp:91] Creating Layer lstm2_cont_slice
2016-07-31 23:36:24.424 STDERR [INFO] I0731 23:36:24.406113 26324 net.cpp:425] lstm2_cont_slice <- cont
2016-07-31 23:36:24.424 STDERR [INFO] I0731 23:36:24.406122 26324 net.cpp:399] lstm2_cont_slice -> cont_1
2016-07-31 23:36:24.424 STDERR [INFO] I0731 23:36:24.406153 26324 net.cpp:141] Setting up lstm2_cont_slice
2016-07-31 23:36:24.425 STDERR [INFO] I0731 23:36:24.406162 26324 net.cpp:148] Top shape: 1 1 (1)
2016-07-31 23:36:24.425 STDERR [INFO] I0731 23:36:24.406167 26324 net.cpp:156] Memory required for data: 14012
2016-07-31 23:36:24.425 STDERR [INFO] I0731 23:36:24.406170 26324 layer_factory.hpp:77] Creating layer cont_1_lstm2_cont_slice_0_split
2016-07-31 23:36:24.425 STDERR [INFO] I0731 23:36:24.406177 26324 net.cpp:91] Creating Layer cont_1_lstm2_cont_slice_0_split
2016-07-31 23:36:24.425 STDERR [INFO] I0731 23:36:24.406182 26324 net.cpp:425] cont_1_lstm2_cont_slice_0_split <- cont_1
2016-07-31 23:36:24.425 STDERR [INFO] I0731 23:36:24.406188 26324 net.cpp:399] cont_1_lstm2_cont_slice_0_split -> cont_1_lstm2_cont_slice_0_split_0
2016-07-31 23:36:24.425 STDERR [INFO] I0731 23:36:24.406198 26324 net.cpp:399] cont_1_lstm2_cont_slice_0_split -> cont_1_lstm2_cont_slice_0_split_1
2016-07-31 23:36:24.425 STDERR [INFO] I0731 23:36:24.406241 26324 net.cpp:141] Setting up cont_1_lstm2_cont_slice_0_split
2016-07-31 23:36:24.426 STDERR [INFO] I0731 23:36:24.406250 26324 net.cpp:148] Top shape: 1 1 (1)
2016-07-31 23:36:24.426 STDERR [INFO] I0731 23:36:24.406255 26324 net.cpp:148] Top shape: 1 1 (1)
2016-07-31 23:36:24.426 STDERR [INFO] I0731 23:36:24.406258 26324 net.cpp:156] Memory required for data: 14020
2016-07-31 23:36:24.426 STDERR [INFO] I0731 23:36:24.406263 26324 layer_factory.hpp:77] Creating layer lstm2_x_transform
2016-07-31 23:36:24.426 STDERR [INFO] I0731 23:36:24.406278 26324 net.cpp:91] Creating Layer lstm2_x_transform
2016-07-31 23:36:24.426 STDERR [INFO] I0731 23:36:24.406283 26324 net.cpp:425] lstm2_x_transform <- x
…
2016-07-31 23:36:24.448 STDERR [INFO] W0731 23:36:24.448431 26334 upgrade_proto.cpp:48] Note that future Caffe releases will only support transform_param messages for transformation fields.
2016-07-31 23:36:24.448 STDERR [INFO] I0731 23:36:24.448434 26334 upgrade_proto.cpp:52] Attempting to upgrade input file specified using deprecated V1LayerParameter: /tmp/cvld3900739313592925751/bvlc_reference_caffenet.caffemodel
2016-07-31 23:36:24.463 STDERR [INFO] I0731 23:36:24.463794 26324 net.cpp:141] Setting up lstm2_x_transform
2016-07-31 23:36:24.464 STDERR [INFO] I0731 23:36:24.463837 26324 net.cpp:148] Top shape: 1 1 4000 (4000)
2016-07-31 23:36:24.464 STDERR [INFO] I0731 23:36:24.463843 26324 net.cpp:156] Memory required for data: 30020
2016-07-31 23:36:24.464 STDERR [INFO] I0731 23:36:24.463865 26324 layer_factory.hpp:77] Creating layer lstm2_W_xc_x_slice
2016-07-31 23:36:24.464 STDERR [INFO] I0731 23:36:24.463886 26324 net.cpp:91] Creating Layer lstm2_W_xc_x_slice
2016-07-31 23:36:24.464 STDERR [INFO] I0731 23:36:24.463892 26324 net.cpp:425] lstm2_W_xc_x_slice <- W_xc_x
2016-07-31 23:36:24.464 STDERR [INFO] I0731 23:36:24.463901 26324 net.cpp:399] lstm2_W_xc_x_slice -> W_xc_x_1
2016-07-31 23:36:24.464 STDERR [INFO] I0731 23:36:24.463948 26324 net.cpp:141] Setting up lstm2_W_xc_x_slice
2016-07-31 23:36:24.464 STDERR [INFO] I0731 23:36:24.463958 26324 net.cpp:148] Top shape: 1 1 4000 (4000)
2016-07-31 23:36:24.464 STDERR [INFO] I0731 23:36:24.463961 26324 net.cpp:156] Memory required for data: 46020
2016-07-31 23:36:24.464 STDERR [INFO] I0731 23:36:24.463966 26324 layer_factory.hpp:77] Creating layer lstm2_h_conted_0
2016-07-31 23:36:24.464 STDERR [INFO] I0731 23:36:24.463979 26324 net.cpp:91] Creating Layer lstm2_h_conted_0
2016-07-31 23:36:24.464 STDERR [INFO] I0731 23:36:24.463984 26324 net.cpp:425] lstm2_h_conted_0 <- h_0
2016-07-31 23:36:24.465 STDERR [INFO] I0731 23:36:24.463991 26324 net.cpp:425] lstm2_h_conted_0 <- cont_1_lstm2_cont_slice_0_split_0
2016-07-31 23:36:24.465 STDERR [INFO] I0731 23:36:24.463997 26324 net.cpp:399] lstm2_h_conted_0 -> h_conted_0
2016-07-31 23:36:24.465 STDERR [INFO] I0731 23:36:24.464095 26324 net.cpp:141] Setting up lstm2_h_conted_0
2016-07-31 23:36:24.465 STDERR [INFO] I0731 23:36:24.464105 26324 net.cpp:148] Top shape: 1 1 1000 (1000)
2016-07-31 23:36:24.465 STDERR [INFO] I0731 23:36:24.464109 26324 net.cpp:156] Memory required for data: 50020
2016-07-31 23:36:24.465 STDERR [INFO] I0731 23:36:24.464114 26324 layer_factory.hpp:77] Creating layer lstm2_transform_1
2016-07-31 23:36:24.465 STDERR [INFO] I0731 23:36:24.464129 26324 net.cpp:91] Creating Layer lstm2_transform_1
2016-07-31 23:36:24.465 STDERR [INFO] I0731 23:36:24.464134 26324 net.cpp:425] lstm2_transform_1 <- h_conted_0
2016-07-31 23:36:24.465 STDERR [INFO] I0731 23:36:24.464143 26324 net.cpp:399] lstm2_transform_1 -> W_hc_h_0
2016-07-31 23:36:24.502 STDERR [INFO] I0731 23:36:24.501843 26324 net.cpp:141] Setting up lstm2_transform_1
2016-07-31 23:36:24.502 STDERR [INFO] I0731 23:36:24.501902 26324 net.cpp:148] Top shape: 1 1 4000 (4000)
2016-07-31 23:36:24.502 STDERR [INFO] I0731 23:36:24.501909 26324 net.cpp:156] Memory required for data: 66020
2016-07-31 23:36:24.502 STDERR [INFO] I0731 23:36:24.501932 26324 layer_factory.hpp:77] Creating layer lstm2_gate_input_1
2016-07-31 23:36:24.502 STDERR [INFO] I0731 23:36:24.501955 26324 net.cpp:91] Creating Layer lstm2_gate_input_1
2016-07-31 23:36:24.502 STDERR [INFO] I0731 23:36:24.501965 26324 net.cpp:425] lstm2_gate_input_1 <- W_hc_h_0
2016-07-31 23:36:24.502 STDERR [INFO] I0731 23:36:24.501973 26324 net.cpp:425] lstm2_gate_input_1 <- W_xc_x_1
2016-07-31 23:36:24.502 STDERR [INFO] I0731 23:36:24.501981 26324 net.cpp:399] lstm2_gate_input_1 -> gate_input_1
2016-07-31 23:36:24.503 STDERR [INFO] I0731 23:36:24.502030 26324 net.cpp:141] Setting up lstm2_gate_input_1
2016-07-31 23:36:24.503 STDERR [INFO] I0731 23:36:24.502039 26324 net.cpp:148] Top shape: 1 1 4000 (4000)
2016-07-31 23:36:24.503 STDERR [INFO] I0731 23:36:24.502043 26324 net.cpp:156] Memory required for data: 82020
2016-07-31 23:36:24.503 STDERR [INFO] I0731 23:36:24.502048 26324 layer_factory.hpp:77] Creating layer lstm2_unit_1
2016-07-31 23:36:24.503 STDERR [INFO] I0731 23:36:24.502060 26324 net.cpp:91] Creating Layer lstm2_unit_1
2016-07-31 23:36:24.503 STDERR [INFO] I0731 23:36:24.502065 26324 net.cpp:425] lstm2_unit_1 <- c_0
2016-07-31 23:36:24.503 STDERR [INFO] I0731 23:36:24.502070 26324 net.cpp:425] lstm2_unit_1 <- gate_input_1
2016-07-31 23:36:24.503 STDERR [INFO] I0731 23:36:24.502076 26324 net.cpp:425] lstm2_unit_1 <- cont_1_lstm2_cont_slice_0_split_1
2016-07-31 23:36:24.503 STDERR [INFO] I0731 23:36:24.502082 26324 net.cpp:399] lstm2_unit_1 -> c_1
2016-07-31 23:36:24.503 STDERR [INFO] I0731 23:36:24.502091 26324 net.cpp:399] lstm2_unit_1 -> h_1
2016-07-31 23:36:24.503 STDERR [INFO] I0731 23:36:24.502154 26324 net.cpp:141] Setting up lstm2_unit_1
2016-07-31 23:36:24.503 STDERR [INFO] I0731 23:36:24.502162 26324 net.cpp:148] Top shape: 1 1 1000 (1000)
2016-07-31 23:36:24.504 STDERR [INFO] I0731 23:36:24.502168 26324 net.cpp:148] Top shape: 1 1 1000 (1000)
2016-07-31 23:36:24.504 STDERR [INFO] I0731 23:36:24.502172 26324 net.cpp:156] Memory required for data: 90020
2016-07-31 23:36:24.504 STDERR [INFO] I0731 23:36:24.502177 26324 layer_factory.hpp:77] Creating layer lstm2_
2016-07-31 23:36:24.504 STDERR [INFO] I0731 23:36:24.502185 26324 net.cpp:91] Creating Layer lstm2_
2016-07-31 23:36:24.504 STDERR [INFO] I0731 23:36:24.502190 26324 net.cpp:425] lstm2_ <- c_1
2016-07-31 23:36:24.504 STDERR [INFO] I0731 23:36:24.502199 26324 net.cpp:399] lstm2_ -> c_T
2016-07-31 23:36:24.504 STDERR [INFO] I0731 23:36:24.502230 26324 net.cpp:141] Setting up lstm2_
2016-07-31 23:36:24.504 STDERR [INFO] I0731 23:36:24.502238 26324 net.cpp:148] Top shape: 1 1 1000 (1000)
2016-07-31 23:36:24.504 STDERR [INFO] I0731 23:36:24.502243 26324 net.cpp:156] Memory required for data: 94020
2016-07-31 23:36:24.504 STDERR [INFO] I0731 23:36:24.502246 26324 layer_factory.hpp:77] Creating layer lstm2_h_concat
2016-07-31 23:36:24.504 STDERR [INFO] I0731 23:36:24.502256 26324 net.cpp:91] Creating Layer lstm2_h_concat
2016-07-31 23:36:24.504 STDERR [INFO] I0731 23:36:24.502261 26324 net.cpp:425] lstm2_h_concat <- h_1
2016-07-31 23:36:24.504 STDERR [INFO] I0731 23:36:24.502270 26324 net.cpp:399] lstm2_h_concat -> h
2016-07-31 23:36:24.504 STDERR [INFO] I0731 23:36:24.502305 26324 net.cpp:141] Setting up lstm2_h_concat
2016-07-31 23:36:24.505 STDERR [INFO] I0731 23:36:24.502313 26324 net.cpp:148] Top shape: 1 1 1000 (1000)
2016-07-31 23:36:24.505 STDERR [INFO] I0731 23:36:24.502317 26324 net.cpp:156] Memory required for data: 98020
2016-07-31 23:36:24.505 STDERR [INFO] I0731 23:36:24.502322 26324 layer_factory.hpp:77] Creating layer h_pseudoloss
2016-07-31 23:36:24.505 STDERR [INFO] I0731 23:36:24.502331 26324 net.cpp:91] Creating Layer h_pseudoloss
2016-07-31 23:36:24.505 STDERR [INFO] I0731 23:36:24.502336 26324 net.cpp:425] h_pseudoloss <- h
…
