…
Java HotSpot(TM) 64-Bit Server VM warning: You have loaded library /tmp/cvld3900739313592925751/libopencv_java310.xine1.so which might have disabled stack guard. The VM will try to fix the stack guard now.
It's highly recommended that you fix the library with 'execstack -c <libfile>', or link it with '-z noexecstack'.
WARNING: Logging before InitGoogleLogging() is written to STDERR
I0731 23:36:23.364133 26334 net.cpp:49] Initializing net from parameters: 
name: "CaffeNet"
state {
  phase: TEST
}
layer {
  name: "data"
  type: "Input"
  top: "data"
  input_param {
    shape {
      dim: 10
      dim: 3
      dim: 227
      dim: 227
    }
  }
}
layer {
  name: "conv1"
  type: "Convolution"
  bottom: "data"
  top: "conv1"
  convolution_param {
    num_output: 96
    kernel_size: 11
    stride: 4
  }
}
layer {
  name: "relu1"
  type: "ReLU"
  bottom: "conv1"
  top: "conv1"
}
layer {
  name: "pool1"
  type: "Pooling"
  bottom: "conv1"
  top: "pool1"
  pooling_param {
    pool: MAX
    kernel_size: 3
    stride: 2
  }
}
layer {
  name: "norm1"
  type: "LRN"
  bottom: "pool1"
  top: "norm1"
  lrn_param {
    local_size: 5
    alpha: 0.0001
    beta: 0.75
  }
}
layer {
  name: "conv2"
  type: "Convolution"
  bottom: "norm1"
  top: "conv2"
  convolution_param {
    num_output: 256
    pad: 2
    kernel_size: 5
    group: 2
  }
}
layer {
  name: "relu2"
  type: "ReLU"
  bottom: "conv2"
  top: "conv2"
}
layer {
  name: "pool2"
  type: "Pooling"
  bottom: "conv2"
  top: "pool2"
  pooling_param {
    pool: MAX
    kernel_size: 3
    stride: 2
  }
}
layer {
  name: "norm2"
  type: "LRN"
  bottom: "pool2"
  top: "norm2"
  lrn_param {
    local_size: 5
    alpha: 0.0001
    beta: 0.75
  }
}
layer {
  name: "conv3"
  type: "Convolution"
  bottom: "norm2"
  top: "conv3"
  convolution_param {
    num_output: 384
    pad: 1
    kernel_size: 3
  }
}
layer {
  name: "relu3"
  type: "ReLU"
  bottom: "conv3"
  top: "conv3"
}
layer {
  name: "conv4"
  type: "Convolution"
  bottom: "conv3"
  top: "conv4"
  convolution_param {
    num_output: 384
    pad: 1
    kernel_size: 3
    group: 2
  }
}
layer {
  name: "relu4"
  type: "ReLU"
  bottom: "conv4"
  top: "conv4"
}
layer {
  name: "conv5"
  type: "Convolution"
  bottom: "conv4"
  top: "conv5"
  convolution_param {
    num_output: 256
    pad: 1
    kernel_size: 3
    group: 2
  }
}
layer {
  name: "relu5"
  type: "ReLU"
  bottom: "conv5"
  top: "conv5"
}
layer {
  name: "pool5"
  type: "Pooling"
  bottom: "conv5"
  top: "pool5"
  pooling_param {
    pool: MAX
    kernel_size: 3
    stride: 2
  }
}
layer {
  name: "fc6"
  type: "InnerProduct"
  bottom: "pool5"
  top: "fc6"
  inner_product_param {
    num_output: 4096
  }
}
layer {
  name: "relu6"
  type: "ReLU"
  bottom: "fc6"
  top: "fc6"
}
layer {
  name: "drop6"
  type: "Dropout"
  bottom: "fc6"
  top: "fc6"
  dropout_param {
    dropout_ratio: 0.5
  }
}
layer {
  name: "fc7"
  type: "InnerProduct"
  bottom: "fc6"
  top: "fc7"
  inner_product_param {
    num_output: 4096
  }
}
layer {
  name: "relu7"
  type: "ReLU"
  bottom: "fc7"
  top: "fc7"
}
layer {
  name: "drop7"
  type: "Dropout"
  bottom: "fc7"
  top: "fc7"
  dropout_param {
    dropout_ratio: 0.5
  }
}
layer {
  name: "fc8"
  type: "InnerProduct"
  bottom: "fc7"
  top: "fc8"
  inner_product_param {
    num_output: 1000
  }
}
layer {
  name: "prob"
  type: "Softmax"
  bottom: "fc8"
  top: "prob"
}
I0731 23:36:23.364320 26334 layer_factory.hpp:77] Creating layer data
I0731 23:36:23.364356 26334 net.cpp:91] Creating Layer data
I0731 23:36:23.364365 26334 net.cpp:399] data -> data
I0731 23:36:23.828289 26334 net.cpp:141] Setting up data
I0731 23:36:23.828414 26334 net.cpp:148] Top shape: 10 3 227 227 (1545870)
I0731 23:36:23.828423 26334 net.cpp:156] Memory required for data: 6183480
I0731 23:36:23.828439 26334 layer_factory.hpp:77] Creating layer conv1
I0731 23:36:23.828467 26334 net.cpp:91] Creating Layer conv1
I0731 23:36:23.828476 26334 net.cpp:425] conv1 <- data
I0731 23:36:23.828488 26334 net.cpp:399] conv1 -> conv1
I0731 23:36:24.020207 26334 net.cpp:141] Setting up conv1
I0731 23:36:24.020251 26334 net.cpp:148] Top shape: 10 96 55 55 (2904000)
I0731 23:36:24.020257 26334 net.cpp:156] Memory required for data: 17799480
I0731 23:36:24.020283 26334 layer_factory.hpp:77] Creating layer relu1
I0731 23:36:24.020309 26334 net.cpp:91] Creating Layer relu1
I0731 23:36:24.020316 26334 net.cpp:425] relu1 <- conv1
I0731 23:36:24.020324 26334 net.cpp:386] relu1 -> conv1 (in-place)
I0731 23:36:24.020756 26334 net.cpp:141] Setting up relu1
I0731 23:36:24.020767 26334 net.cpp:148] Top shape: 10 96 55 55 (2904000)
I0731 23:36:24.020772 26334 net.cpp:156] Memory required for data: 29415480
I0731 23:36:24.020778 26334 layer_factory.hpp:77] Creating layer pool1
I0731 23:36:24.020790 26334 net.cpp:91] Creating Layer pool1
I0731 23:36:24.020795 26334 net.cpp:425] pool1 <- conv1
I0731 23:36:24.020803 26334 net.cpp:399] pool1 -> pool1
I0731 23:36:24.020866 26334 net.cpp:141] Setting up pool1
I0731 23:36:24.020876 26334 net.cpp:148] Top shape: 10 96 27 27 (699840)
I0731 23:36:24.020880 26334 net.cpp:156] Memory required for data: 32214840
I0731 23:36:24.020895 26334 layer_factory.hpp:77] Creating layer norm1
I0731 23:36:24.020910 26334 net.cpp:91] Creating Layer norm1
I0731 23:36:24.020915 26334 net.cpp:425] norm1 <- pool1
I0731 23:36:24.020921 26334 net.cpp:399] norm1 -> norm1
I0731 23:36:24.021373 26334 net.cpp:141] Setting up norm1
I0731 23:36:24.021385 26334 net.cpp:148] Top shape: 10 96 27 27 (699840)
I0731 23:36:24.021390 26334 net.cpp:156] Memory required for data: 35014200
I0731 23:36:24.021395 26334 layer_factory.hpp:77] Creating layer conv2
I0731 23:36:24.021410 26334 net.cpp:91] Creating Layer conv2
I0731 23:36:24.021415 26334 net.cpp:425] conv2 <- norm1
I0731 23:36:24.021422 26334 net.cpp:399] conv2 -> conv2
I0731 23:36:24.025157 26334 net.cpp:141] Setting up conv2
I0731 23:36:24.025177 26334 net.cpp:148] Top shape: 10 256 27 27 (1866240)
I0731 23:36:24.025182 26334 net.cpp:156] Memory required for data: 42479160
I0731 23:36:24.025193 26334 layer_factory.hpp:77] Creating layer relu2
I0731 23:36:24.025202 26334 net.cpp:91] Creating Layer relu2
I0731 23:36:24.025208 26334 net.cpp:425] relu2 <- conv2
I0731 23:36:24.025214 26334 net.cpp:386] relu2 -> conv2 (in-place)
I0731 23:36:24.025632 26334 net.cpp:141] Setting up relu2
I0731 23:36:24.025645 26334 net.cpp:148] Top shape: 10 256 27 27 (1866240)
I0731 23:36:24.025650 26334 net.cpp:156] Memory required for data: 49944120
I0731 23:36:24.025656 26334 layer_factory.hpp:77] Creating layer pool2
I0731 23:36:24.025665 26334 net.cpp:91] Creating Layer pool2
I0731 23:36:24.025671 26334 net.cpp:425] pool2 <- conv2
I0731 23:36:24.025678 26334 net.cpp:399] pool2 -> pool2
I0731 23:36:24.025727 26334 net.cpp:141] Setting up pool2
I0731 23:36:24.025737 26334 net.cpp:148] Top shape: 10 256 13 13 (432640)
I0731 23:36:24.025740 26334 net.cpp:156] Memory required for data: 51674680
I0731 23:36:24.025745 26334 layer_factory.hpp:77] Creating layer norm2
I0731 23:36:24.025754 26334 net.cpp:91] Creating Layer norm2
I0731 23:36:24.025759 26334 net.cpp:425] norm2 <- pool2
I0731 23:36:24.025766 26334 net.cpp:399] norm2 -> norm2
I0731 23:36:24.025995 26334 net.cpp:141] Setting up norm2
I0731 23:36:24.026005 26334 net.cpp:148] Top shape: 10 256 13 13 (432640)
I0731 23:36:24.026010 26334 net.cpp:156] Memory required for data: 53405240
I0731 23:36:24.026015 26334 layer_factory.hpp:77] Creating layer conv3
I0731 23:36:24.026026 26334 net.cpp:91] Creating Layer conv3
I0731 23:36:24.026031 26334 net.cpp:425] conv3 <- norm2
I0731 23:36:24.026038 26334 net.cpp:399] conv3 -> conv3
I0731 23:36:24.029664 26334 net.cpp:141] Setting up conv3
I0731 23:36:24.029683 26334 net.cpp:148] Top shape: 10 384 13 13 (648960)
I0731 23:36:24.029690 26334 net.cpp:156] Memory required for data: 56001080
I0731 23:36:24.029700 26334 layer_factory.hpp:77] Creating layer relu3
I0731 23:36:24.029712 26334 net.cpp:91] Creating Layer relu3
I0731 23:36:24.029717 26334 net.cpp:425] relu3 <- conv3
I0731 23:36:24.029724 26334 net.cpp:386] relu3 -> conv3 (in-place)
I0731 23:36:24.030153 26334 net.cpp:141] Setting up relu3
I0731 23:36:24.030165 26334 net.cpp:148] Top shape: 10 384 13 13 (648960)
I0731 23:36:24.030170 26334 net.cpp:156] Memory required for data: 58596920
I0731 23:36:24.030175 26334 layer_factory.hpp:77] Creating layer conv4
I0731 23:36:24.030189 26334 net.cpp:91] Creating Layer conv4
I0731 23:36:24.030194 26334 net.cpp:425] conv4 <- conv3
I0731 23:36:24.030205 26334 net.cpp:399] conv4 -> conv4
I0731 23:36:24.034204 26334 net.cpp:141] Setting up conv4
I0731 23:36:24.034224 26334 net.cpp:148] Top shape: 10 384 13 13 (648960)
I0731 23:36:24.034229 26334 net.cpp:156] Memory required for data: 61192760
I0731 23:36:24.034238 26334 layer_factory.hpp:77] Creating layer relu4
I0731 23:36:24.034250 26334 net.cpp:91] Creating Layer relu4
I0731 23:36:24.034255 26334 net.cpp:425] relu4 <- conv4
I0731 23:36:24.034262 26334 net.cpp:386] relu4 -> conv4 (in-place)
I0731 23:36:24.034698 26334 net.cpp:141] Setting up relu4
I0731 23:36:24.034711 26334 net.cpp:148] Top shape: 10 384 13 13 (648960)
I0731 23:36:24.034715 26334 net.cpp:156] Memory required for data: 63788600
I0731 23:36:24.034721 26334 layer_factory.hpp:77] Creating layer conv5
I0731 23:36:24.034734 26334 net.cpp:91] Creating Layer conv5
I0731 23:36:24.034741 26334 net.cpp:425] conv5 <- conv4
I0731 23:36:24.034749 26334 net.cpp:399] conv5 -> conv5
I0731 23:36:24.038597 26334 net.cpp:141] Setting up conv5
I0731 23:36:24.038614 26334 net.cpp:148] Top shape: 10 256 13 13 (432640)
I0731 23:36:24.038619 26334 net.cpp:156] Memory required for data: 65519160
I0731 23:36:24.038631 26334 layer_factory.hpp:77] Creating layer relu5
I0731 23:36:24.038645 26334 net.cpp:91] Creating Layer relu5
I0731 23:36:24.038650 26334 net.cpp:425] relu5 <- conv5
I0731 23:36:24.038656 26334 net.cpp:386] relu5 -> conv5 (in-place)
I0731 23:36:24.039093 26334 net.cpp:141] Setting up relu5
I0731 23:36:24.039105 26334 net.cpp:148] Top shape: 10 256 13 13 (432640)
I0731 23:36:24.039109 26334 net.cpp:156] Memory required for data: 67249720
I0731 23:36:24.039115 26334 layer_factory.hpp:77] Creating layer pool5
I0731 23:36:24.039129 26334 net.cpp:91] Creating Layer pool5
I0731 23:36:24.039135 26334 net.cpp:425] pool5 <- conv5
I0731 23:36:24.039144 26334 net.cpp:399] pool5 -> pool5
I0731 23:36:24.039201 26334 net.cpp:141] Setting up pool5
I0731 23:36:24.039211 26334 net.cpp:148] Top shape: 10 256 6 6 (92160)
I0731 23:36:24.039214 26334 net.cpp:156] Memory required for data: 67618360
I0731 23:36:24.039219 26334 layer_factory.hpp:77] Creating layer fc6
I0731 23:36:24.039240 26334 net.cpp:91] Creating Layer fc6
I0731 23:36:24.039245 26334 net.cpp:425] fc6 <- pool5
I0731 23:36:24.039252 26334 net.cpp:399] fc6 -> fc6
I0731 23:36:24.105432 26324 upgrade_proto.cpp:66] Attempting to upgrade input file specified using deprecated input fields: /tmp/cvld3900739313592925751/s2vt.words_to_preds.prototxt
I0731 23:36:24.105500 26324 upgrade_proto.cpp:69] Successfully upgraded file specified using deprecated input fields.
W0731 23:36:24.105510 26324 upgrade_proto.cpp:71] Note that future Caffe releases will only support input layers and not input fields.
I0731 23:36:24.105773 26324 net.cpp:49] Initializing net from parameters: 
name: "s2vt:features_to_lstm"
state {
  phase: TEST
}
layer {
  name: "input"
  type: "Input"
  top: "frames_fc7"
  top: "cont_sentence"
  top: "input_sentence"
  top: "stage_indicator"
  input_param {
    shape {
      dim: 1
      dim: 4096
    }
    shape {
      dim: 1
      dim: 1
    }
    shape {
      dim: 1
      dim: 1
    }
    shape {
      dim: 1
      dim: 1
    }
  }
}
layer {
  name: "embed_encoder"
  type: "InnerProduct"
  bottom: "frames_fc7"
  top: "embedded_in_frames"
  param {
    lr_mult: 1
    decay_mult: 1
  }
  param {
    lr_mult: 2
    decay_mult: 0
  }
  inner_product_param {
    num_output: 500
    weight_filler {
      type: "xavier"
    }
    bias_filler {
      type: "constant"
      value: 0.2
    }
  }
}
layer {
  name: "reshape_frames"
  type: "Reshape"
  bottom: "embedded_in_frames"
  top: "embedded_input_frames"
  reshape_param {
    shape {
      dim: 1
      dim: 1
      dim: 500
    }
  }
}
layer {
  name: "reshape_stage_indicator"
  type: "Reshape"
  bottom: "stage_indicator"
  top: "reshaped_stage_indicator"
  reshape_param {
    shape {
      dim: 1
      dim: 1
      dim: 1
    }
  }
}
layer {
  name: "embedding"
  type: "Embed"
  bottom: "input_sentence"
  top: "embedded_input_sentence"
  param {
    lr_mult: 1
  }
  embed_param {
    num_output: 500
    input_dim: 46168
    bias_term: false
    weight_filler {
      type: "uniform"
      min: -0.08
      max: 0.08
    }
  }
}
layer {
  name: "lstm1"
  type: "LSTM"
  bottom: "embedded_input_frames"
  bottom: "cont_sentence"
  top: "lstm1"
  recurrent_param {
    num_output: 1000
    weight_filler {
      type: "uniform"
      min: -0.08
      max: 0.08
    }
    bias_filler {
      type: "constant"
      value: 0
    }
  }
}
layer {
  name: "concat"
  type: "Concat"
  bottom: "lstm1"
  bottom: "embedded_input_sentence"
  bottom: "reshaped_stage_indicator"
  top: "lstm1_video_sequence"
  concat_param {
    concat_dim: 2
  }
}
layer {
  name: "lstm2"
  type: "LSTM"
  bottom: "lstm1_video_sequence"
  bottom: "cont_sentence"
  top: "lstm2"
  recurrent_param {
    num_output: 1000
    weight_filler {
      type: "uniform"
      min: -0.08
      max: 0.08
    }
    bias_filler {
      type: "constant"
      value: 0
    }
  }
}
layer {
  name: "predict"
  type: "InnerProduct"
  bottom: "lstm2"
  top: "predict"
  param {
    lr_mult: 1
    decay_mult: 1
  }
  param {
    lr_mult: 2
    decay_mult: 0
  }
  inner_product_param {
    num_output: 46168
    weight_filler {
      type: "uniform"
      min: -0.08
      max: 0.08
    }
    bias_filler {
      type: "constant"
      value: 0
    }
    axis: 2
  }
}
layer {
  name: "probs"
  type: "Softmax"
  bottom: "predict"
  top: "probs"
  softmax_param {
    axis: 2
  }
}
I0731 23:36:24.105885 26324 layer_factory.hpp:77] Creating layer input
I0731 23:36:24.105906 26324 net.cpp:91] Creating Layer input
I0731 23:36:24.105914 26324 net.cpp:399] input -> frames_fc7
I0731 23:36:24.105934 26324 net.cpp:399] input -> cont_sentence
I0731 23:36:24.105944 26324 net.cpp:399] input -> input_sentence
I0731 23:36:24.105954 26324 net.cpp:399] input -> stage_indicator
I0731 23:36:24.106075 26324 net.cpp:141] Setting up input
I0731 23:36:24.106086 26324 net.cpp:148] Top shape: 1 4096 (4096)
I0731 23:36:24.106092 26324 net.cpp:148] Top shape: 1 1 (1)
I0731 23:36:24.106098 26324 net.cpp:148] Top shape: 1 1 (1)
I0731 23:36:24.106103 26324 net.cpp:148] Top shape: 1 1 (1)
I0731 23:36:24.106107 26324 net.cpp:156] Memory required for data: 16396
I0731 23:36:24.106113 26324 layer_factory.hpp:77] Creating layer cont_sentence_input_1_split
I0731 23:36:24.106133 26324 net.cpp:91] Creating Layer cont_sentence_input_1_split
I0731 23:36:24.106139 26324 net.cpp:425] cont_sentence_input_1_split <- cont_sentence
I0731 23:36:24.106158 26324 net.cpp:399] cont_sentence_input_1_split -> cont_sentence_input_1_split_0
I0731 23:36:24.106168 26324 net.cpp:399] cont_sentence_input_1_split -> cont_sentence_input_1_split_1
I0731 23:36:24.106215 26324 net.cpp:141] Setting up cont_sentence_input_1_split
I0731 23:36:24.106223 26324 net.cpp:148] Top shape: 1 1 (1)
I0731 23:36:24.106228 26324 net.cpp:148] Top shape: 1 1 (1)
I0731 23:36:24.106232 26324 net.cpp:156] Memory required for data: 16404
I0731 23:36:24.106237 26324 layer_factory.hpp:77] Creating layer embed_encoder
I0731 23:36:24.106248 26324 net.cpp:91] Creating Layer embed_encoder
I0731 23:36:24.106252 26324 net.cpp:425] embed_encoder <- frames_fc7
I0731 23:36:24.106261 26324 net.cpp:399] embed_encoder -> embedded_in_frames
I0731 23:36:24.126775 26324 net.cpp:141] Setting up embed_encoder
I0731 23:36:24.126832 26324 net.cpp:148] Top shape: 1 500 (500)
I0731 23:36:24.126837 26324 net.cpp:156] Memory required for data: 18404
I0731 23:36:24.126859 26324 layer_factory.hpp:77] Creating layer reshape_frames
I0731 23:36:24.126894 26324 net.cpp:91] Creating Layer reshape_frames
I0731 23:36:24.126904 26324 net.cpp:425] reshape_frames <- embedded_in_frames
I0731 23:36:24.126914 26324 net.cpp:399] reshape_frames -> embedded_input_frames
I0731 23:36:24.126971 26324 net.cpp:141] Setting up reshape_frames
I0731 23:36:24.126979 26324 net.cpp:148] Top shape: 1 1 500 (500)
I0731 23:36:24.126984 26324 net.cpp:156] Memory required for data: 20404
I0731 23:36:24.126989 26324 layer_factory.hpp:77] Creating layer reshape_stage_indicator
I0731 23:36:24.126999 26324 net.cpp:91] Creating Layer reshape_stage_indicator
I0731 23:36:24.127004 26324 net.cpp:425] reshape_stage_indicator <- stage_indicator
I0731 23:36:24.127013 26324 net.cpp:399] reshape_stage_indicator -> reshaped_stage_indicator
I0731 23:36:24.127049 26324 net.cpp:141] Setting up reshape_stage_indicator
I0731 23:36:24.127059 26324 net.cpp:148] Top shape: 1 1 1 (1)
I0731 23:36:24.127073 26324 net.cpp:156] Memory required for data: 20408
I0731 23:36:24.127077 26324 layer_factory.hpp:77] Creating layer embedding
I0731 23:36:24.127095 26324 net.cpp:91] Creating Layer embedding
I0731 23:36:24.127100 26324 net.cpp:425] embedding <- input_sentence
I0731 23:36:24.127110 26324 net.cpp:399] embedding -> embedded_input_sentence
I0731 23:36:24.167258 26334 net.cpp:141] Setting up fc6
I0731 23:36:24.167307 26334 net.cpp:148] Top shape: 10 4096 (40960)
I0731 23:36:24.167314 26334 net.cpp:156] Memory required for data: 67782200
I0731 23:36:24.167328 26334 layer_factory.hpp:77] Creating layer relu6
I0731 23:36:24.167343 26334 net.cpp:91] Creating Layer relu6
I0731 23:36:24.167349 26334 net.cpp:425] relu6 <- fc6
I0731 23:36:24.167361 26334 net.cpp:386] relu6 -> fc6 (in-place)
I0731 23:36:24.167687 26334 net.cpp:141] Setting up relu6
I0731 23:36:24.167698 26334 net.cpp:148] Top shape: 10 4096 (40960)
I0731 23:36:24.167703 26334 net.cpp:156] Memory required for data: 67946040
I0731 23:36:24.167708 26334 layer_factory.hpp:77] Creating layer drop6
I0731 23:36:24.167721 26334 net.cpp:91] Creating Layer drop6
I0731 23:36:24.167726 26334 net.cpp:425] drop6 <- fc6
I0731 23:36:24.167732 26334 net.cpp:386] drop6 -> fc6 (in-place)
I0731 23:36:24.167780 26334 net.cpp:141] Setting up drop6
I0731 23:36:24.167789 26334 net.cpp:148] Top shape: 10 4096 (40960)
I0731 23:36:24.167793 26334 net.cpp:156] Memory required for data: 68109880
I0731 23:36:24.167798 26334 layer_factory.hpp:77] Creating layer fc7
I0731 23:36:24.167807 26334 net.cpp:91] Creating Layer fc7
I0731 23:36:24.167812 26334 net.cpp:425] fc7 <- fc6
I0731 23:36:24.167824 26334 net.cpp:399] fc7 -> fc7
I0731 23:36:24.225072 26334 net.cpp:141] Setting up fc7
I0731 23:36:24.225117 26334 net.cpp:148] Top shape: 10 4096 (40960)
I0731 23:36:24.225124 26334 net.cpp:156] Memory required for data: 68273720
I0731 23:36:24.225137 26334 layer_factory.hpp:77] Creating layer relu7
I0731 23:36:24.225157 26334 net.cpp:91] Creating Layer relu7
I0731 23:36:24.225163 26334 net.cpp:425] relu7 <- fc7
I0731 23:36:24.225172 26334 net.cpp:386] relu7 -> fc7 (in-place)
I0731 23:36:24.225951 26334 net.cpp:141] Setting up relu7
I0731 23:36:24.225975 26334 net.cpp:148] Top shape: 10 4096 (40960)
I0731 23:36:24.225980 26334 net.cpp:156] Memory required for data: 68437560
I0731 23:36:24.225986 26334 layer_factory.hpp:77] Creating layer drop7
I0731 23:36:24.225996 26334 net.cpp:91] Creating Layer drop7
I0731 23:36:24.226002 26334 net.cpp:425] drop7 <- fc7
I0731 23:36:24.226009 26334 net.cpp:386] drop7 -> fc7 (in-place)
I0731 23:36:24.226055 26334 net.cpp:141] Setting up drop7
I0731 23:36:24.226064 26334 net.cpp:148] Top shape: 10 4096 (40960)
I0731 23:36:24.226069 26334 net.cpp:156] Memory required for data: 68601400
I0731 23:36:24.226074 26334 layer_factory.hpp:77] Creating layer fc8
I0731 23:36:24.226085 26334 net.cpp:91] Creating Layer fc8
I0731 23:36:24.226090 26334 net.cpp:425] fc8 <- fc7
I0731 23:36:24.226100 26334 net.cpp:399] fc8 -> fc8
I0731 23:36:24.238001 26334 net.cpp:141] Setting up fc8
I0731 23:36:24.238044 26334 net.cpp:148] Top shape: 10 1000 (10000)
I0731 23:36:24.238050 26334 net.cpp:156] Memory required for data: 68641400
I0731 23:36:24.238065 26334 layer_factory.hpp:77] Creating layer prob
I0731 23:36:24.238086 26334 net.cpp:91] Creating Layer prob
I0731 23:36:24.238093 26334 net.cpp:425] prob <- fc8
I0731 23:36:24.238103 26334 net.cpp:399] prob -> prob
I0731 23:36:24.238530 26334 net.cpp:141] Setting up prob
I0731 23:36:24.238545 26334 net.cpp:148] Top shape: 10 1000 (10000)
I0731 23:36:24.238550 26334 net.cpp:156] Memory required for data: 68681400
I0731 23:36:24.238555 26334 net.cpp:219] prob does not need backward computation.
I0731 23:36:24.238561 26334 net.cpp:219] fc8 does not need backward computation.
I0731 23:36:24.238565 26334 net.cpp:219] drop7 does not need backward computation.
I0731 23:36:24.238570 26334 net.cpp:219] relu7 does not need backward computation.
…
I0731 23:36:24.238643 26334 net.cpp:219] norm1 does not need backward computation.
I0731 23:36:24.238648 26334 net.cpp:219] pool1 does not need backward computation.
I0731 23:36:24.238653 26334 net.cpp:219] relu1 does not need backward computation.
I0731 23:36:24.238657 26334 net.cpp:219] conv1 does not need backward computation.
I0731 23:36:24.238662 26334 net.cpp:219] data does not need backward computation.
I0731 23:36:24.238667 26334 net.cpp:261] This network produces output prob
I0731 23:36:24.238689 26334 net.cpp:274] Network initialization done.
I0731 23:36:24.344861 26324 net.cpp:141] Setting up embedding
I0731 23:36:24.344929 26324 net.cpp:148] Top shape: 1 1 500 (500)
I0731 23:36:24.344935 26324 net.cpp:156] Memory required for data: 22408
I0731 23:36:24.344954 26324 layer_factory.hpp:77] Creating layer lstm1
I0731 23:36:24.344980 26324 net.cpp:91] Creating Layer lstm1
I0731 23:36:24.344987 26324 net.cpp:425] lstm1 <- embedded_input_frames
I0731 23:36:24.344996 26324 net.cpp:425] lstm1 <- cont_sentence_input_1_split_0
I0731 23:36:24.345005 26324 net.cpp:399] lstm1 -> lstm1
I0731 23:36:24.345033 26324 recurrent_layer.cpp:20] Initializing recurrent layer: assuming input batch contains 1 timesteps of 1 independent streams.
I0731 23:36:24.345408 26324 net.cpp:49] Initializing net from parameters: 
layer {
  name: "lstm1_"
  type: "Input"
  top: "x"
  top: "cont"
  input_param {
    shape {
      dim: 1
      dim: 1
      dim: 500
    }
    shape {
      dim: 1
      dim: 1
    }
  }
}
layer {
  name: "lstm1_"
  type: "Input"
  top: "c_0"
  top: "h_0"
  input_param {
    shape {
      dim: 1
      dim: 1
      dim: 1000
    }
    shape {
      dim: 1
      dim: 1
      dim: 1000
    }
  }
}
layer {
  name: "lstm1_cont_slice"
  type: "Slice"
  bottom: "cont"
  top: "cont_1"
  slice_param {
    axis: 0
  }
}
layer {
  name: "lstm1_x_transform"
  type: "InnerProduct"
  bottom: "x"
  top: "W_xc_x"
  param {
    name: "W_xc"
  }
  param {
    name: "b_c"
  }
  propagate_down: true
  inner_product_param {
    num_output: 4000
    bias_term: true
    weight_filler {
      type: "uniform"
      min: -0.08
      max: 0.08
    }
    bias_filler {
      type: "constant"
      value: 0
    }
    axis: 2
  }
}
layer {
  name: "lstm1_W_xc_x_slice"
  type: "Slice"
  bottom: "W_xc_x"
  top: "W_xc_x_1"
  slice_param {
    axis: 0
  }
}
layer {
  name: "lstm1_h_conted_0"
  type: "Scale"
  bottom: "h_0"
  bottom: "cont_1"
  top: "h_conted_0"
  scale_param {
    axis: 0
  }
}
layer {
  name: "lstm1_transform_1"
  type: "InnerProduct"
  bottom: "h_conted_0"
  top: "W_hc_h_0"
  param {
    name: "W_hc"
  }
  inner_product_param {
    num_output: 4000
    bias_term: false
    weight_filler {
      type: "uniform"
      min: -0.08
      max: 0.08
    }
    axis: 2
  }
}
layer {
  name: "lstm1_gate_input_1"
  type: "Eltwise"
  bottom: "W_hc_h_0"
  bottom: "W_xc_x_1"
  top: "gate_input_1"
  eltwise_param {
    operation: SUM
  }
}
layer {
  name: "lstm1_unit_1"
  type: "LSTMUnit"
  bottom: "c_0"
  bottom: "gate_input_1"
  bottom: "cont_1"
  top: "c_1"
  top: "h_1"
}
layer {
  name: "lstm1_"
  type: "Split"
  bottom: "c_1"
  top: "c_T"
}
layer {
  name: "lstm1_h_concat"
  type: "Concat"
  bottom: "h_1"
  top: "h"
  concat_param {
    axis: 0
  }
}
layer {
  name: "h_pseudoloss"
  type: "Reduction"
  bottom: "h"
  top: "h_pseudoloss"
  loss_weight: 1
}
I0731 23:36:24.345516 26324 layer_factory.hpp:77] Creating layer lstm1_
I0731 23:36:24.345531 26324 net.cpp:91] Creating Layer lstm1_
I0731 23:36:24.345537 26324 net.cpp:399] lstm1_ -> x
I0731 23:36:24.345549 26324 net.cpp:399] lstm1_ -> cont
I0731 23:36:24.345613 26324 net.cpp:141] Setting up lstm1_
I0731 23:36:24.345623 26324 net.cpp:148] Top shape: 1 1 500 (500)
I0731 23:36:24.345629 26324 net.cpp:148] Top shape: 1 1 (1)
I0731 23:36:24.345633 26324 net.cpp:156] Memory required for data: 2004
I0731 23:36:24.345638 26324 layer_factory.hpp:77] Creating layer lstm1_
I0731 23:36:24.345650 26324 net.cpp:91] Creating Layer lstm1_
I0731 23:36:24.345659 26324 net.cpp:399] lstm1_ -> c_0
I0731 23:36:24.345669 26324 net.cpp:399] lstm1_ -> h_0
I0731 23:36:24.345718 26324 net.cpp:141] Setting up lstm1_
I0731 23:36:24.345729 26324 net.cpp:148] Top shape: 1 1 1000 (1000)
I0731 23:36:24.345736 26324 net.cpp:148] Top shape: 1 1 1000 (1000)
I0731 23:36:24.345739 26324 net.cpp:156] Memory required for data: 10004
I0731 23:36:24.345744 26324 layer_factory.hpp:77] Creating layer lstm1_cont_slice
I0731 23:36:24.345753 26324 net.cpp:91] Creating Layer lstm1_cont_slice
I0731 23:36:24.345758 26324 net.cpp:425] lstm1_cont_slice <- cont
I0731 23:36:24.345765 26324 net.cpp:399] lstm1_cont_slice -> cont_1
I0731 23:36:24.345801 26324 net.cpp:141] Setting up lstm1_cont_slice
I0731 23:36:24.345810 26324 net.cpp:148] Top shape: 1 1 (1)
I0731 23:36:24.345815 26324 net.cpp:156] Memory required for data: 10008
I0731 23:36:24.345819 26324 layer_factory.hpp:77] Creating layer cont_1_lstm1_cont_slice_0_split
I0731 23:36:24.345827 26324 net.cpp:91] Creating Layer cont_1_lstm1_cont_slice_0_split
I0731 23:36:24.345832 26324 net.cpp:425] cont_1_lstm1_cont_slice_0_split <- cont_1
I0731 23:36:24.345840 26324 net.cpp:399] cont_1_lstm1_cont_slice_0_split -> cont_1_lstm1_cont_slice_0_split_0
I0731 23:36:24.345849 26324 net.cpp:399] cont_1_lstm1_cont_slice_0_split -> cont_1_lstm1_cont_slice_0_split_1
I0731 23:36:24.345896 26324 net.cpp:141] Setting up cont_1_lstm1_cont_slice_0_split
I0731 23:36:24.345904 26324 net.cpp:148] Top shape: 1 1 (1)
I0731 23:36:24.345911 26324 net.cpp:148] Top shape: 1 1 (1)
I0731 23:36:24.345914 26324 net.cpp:156] Memory required for data: 10016
I0731 23:36:24.345918 26324 layer_factory.hpp:77] Creating layer lstm1_x_transform
I0731 23:36:24.345928 26324 net.cpp:91] Creating Layer lstm1_x_transform
I0731 23:36:24.345933 26324 net.cpp:425] lstm1_x_transform <- x
I0731 23:36:24.345942 26324 net.cpp:399] lstm1_x_transform -> W_xc_x
I0731 23:36:24.365140 26324 net.cpp:141] Setting up lstm1_x_transform
I0731 23:36:24.365181 26324 net.cpp:148] Top shape: 1 1 4000 (4000)
I0731 23:36:24.365188 26324 net.cpp:156] Memory required for data: 26016
I0731 23:36:24.365207 26324 layer_factory.hpp:77] Creating layer lstm1_W_xc_x_slice
I0731 23:36:24.365223 26324 net.cpp:91] Creating Layer lstm1_W_xc_x_slice
I0731 23:36:24.365229 26324 net.cpp:425] lstm1_W_xc_x_slice <- W_xc_x
I0731 23:36:24.365238 26324 net.cpp:399] lstm1_W_xc_x_slice -> W_xc_x_1
I0731 23:36:24.365283 26324 net.cpp:141] Setting up lstm1_W_xc_x_slice
I0731 23:36:24.365293 26324 net.cpp:148] Top shape: 1 1 4000 (4000)
I0731 23:36:24.365298 26324 net.cpp:156] Memory required for data: 42016
I0731 23:36:24.365303 26324 layer_factory.hpp:77] Creating layer lstm1_h_conted_0
I0731 23:36:24.365312 26324 net.cpp:91] Creating Layer lstm1_h_conted_0
I0731 23:36:24.365317 26324 net.cpp:425] lstm1_h_conted_0 <- h_0
I0731 23:36:24.365324 26324 net.cpp:425] lstm1_h_conted_0 <- cont_1_lstm1_cont_slice_0_split_0
I0731 23:36:24.365330 26324 net.cpp:399] lstm1_h_conted_0 -> h_conted_0
I0731 23:36:24.365430 26324 net.cpp:141] Setting up lstm1_h_conted_0
I0731 23:36:24.365440 26324 net.cpp:148] Top shape: 1 1 1000 (1000)
I0731 23:36:24.365444 26324 net.cpp:156] Memory required for data: 46016
I0731 23:36:24.365449 26324 layer_factory.hpp:77] Creating layer lstm1_transform_1
I0731 23:36:24.365461 26324 net.cpp:91] Creating Layer lstm1_transform_1
I0731 23:36:24.365466 26324 net.cpp:425] lstm1_transform_1 <- h_conted_0
I0731 23:36:24.365474 26324 net.cpp:399] lstm1_transform_1 -> W_hc_h_0
I0731 23:36:24.404470 26324 net.cpp:141] Setting up lstm1_transform_1
I0731 23:36:24.404518 26324 net.cpp:148] Top shape: 1 1 4000 (4000)
I0731 23:36:24.404525 26324 net.cpp:156] Memory required for data: 62016
I0731 23:36:24.404546 26324 layer_factory.hpp:77] Creating layer lstm1_gate_input_1
I0731 23:36:24.404568 26324 net.cpp:91] Creating Layer lstm1_gate_input_1
I0731 23:36:24.404575 26324 net.cpp:425] lstm1_gate_input_1 <- W_hc_h_0
I0731 23:36:24.404584 26324 net.cpp:425] lstm1_gate_input_1 <- W_xc_x_1
I0731 23:36:24.404592 26324 net.cpp:399] lstm1_gate_input_1 -> gate_input_1
I0731 23:36:24.404654 26324 net.cpp:141] Setting up lstm1_gate_input_1
I0731 23:36:24.404662 26324 net.cpp:148] Top shape: 1 1 4000 (4000)
I0731 23:36:24.404667 26324 net.cpp:156] Memory required for data: 78016
I0731 23:36:24.404671 26324 layer_factory.hpp:77] Creating layer lstm1_unit_1
I0731 23:36:24.404683 26324 net.cpp:91] Creating Layer lstm1_unit_1
I0731 23:36:24.404688 26324 net.cpp:425] lstm1_unit_1 <- c_0
I0731 23:36:24.404695 26324 net.cpp:425] lstm1_unit_1 <- gate_input_1
I0731 23:36:24.404700 26324 net.cpp:425] lstm1_unit_1 <- cont_1_lstm1_cont_slice_0_split_1
I0731 23:36:24.404706 26324 net.cpp:399] lstm1_unit_1 -> c_1
I0731 23:36:24.404714 26324 net.cpp:399] lstm1_unit_1 -> h_1
I0731 23:36:24.404777 26324 net.cpp:141] Setting up lstm1_unit_1
I0731 23:36:24.404785 26324 net.cpp:148] Top shape: 1 1 1000 (1000)
I0731 23:36:24.404791 26324 net.cpp:148] Top shape: 1 1 1000 (1000)
I0731 23:36:24.404795 26324 net.cpp:156] Memory required for data: 86016
I0731 23:36:24.404800 26324 layer_factory.hpp:77] Creating layer lstm1_
I0731 23:36:24.404809 26324 net.cpp:91] Creating Layer lstm1_
I0731 23:36:24.404814 26324 net.cpp:425] lstm1_ <- c_1
I0731 23:36:24.404820 26324 net.cpp:399] lstm1_ -> c_T
I0731 23:36:24.404850 26324 net.cpp:141] Setting up lstm1_
I0731 23:36:24.404857 26324 net.cpp:148] Top shape: 1 1 1000 (1000)
I0731 23:36:24.404861 26324 net.cpp:156] Memory required for data: 90016
I0731 23:36:24.404865 26324 layer_factory.hpp:77] Creating layer lstm1_h_concat
I0731 23:36:24.404889 26324 net.cpp:91] Creating Layer lstm1_h_concat
I0731 23:36:24.404896 26324 net.cpp:425] lstm1_h_concat <- h_1
I0731 23:36:24.404902 26324 net.cpp:399] lstm1_h_concat -> h
I0731 23:36:24.404938 26324 net.cpp:141] Setting up lstm1_h_concat
I0731 23:36:24.404947 26324 net.cpp:148] Top shape: 1 1 1000 (1000)
I0731 23:36:24.404952 26324 net.cpp:156] Memory required for data: 94016
I0731 23:36:24.404955 26324 layer_factory.hpp:77] Creating layer h_pseudoloss
I0731 23:36:24.404970 26324 net.cpp:91] Creating Layer h_pseudoloss
I0731 23:36:24.404975 26324 net.cpp:425] h_pseudoloss <- h
I0731 23:36:24.404985 26324 net.cpp:399] h_pseudoloss -> h_pseudoloss
I0731 23:36:24.405086 26324 net.cpp:141] Setting up h_pseudoloss
…
I0731 23:36:24.405205 26324 net.cpp:219] lstm1_ does not need backward computation.
I0731 23:36:24.405208 26324 net.cpp:261] This network produces output c_T
I0731 23:36:24.405212 26324 net.cpp:261] This network produces output h_pseudoloss
I0731 23:36:24.405228 26324 net.cpp:274] Network initialization done.
I0731 23:36:24.405282 26324 recurrent_layer.cpp:150] Adding parameter 0: W_xc
I0731 23:36:24.405289 26324 recurrent_layer.cpp:150] Adding parameter 1: b_c
I0731 23:36:24.405293 26324 recurrent_layer.cpp:150] Adding parameter 2: W_hc
I0731 23:36:24.405405 26324 net.cpp:141] Setting up lstm1
I0731 23:36:24.405417 26324 net.cpp:148] Top shape: 1 1 1000 (1000)
I0731 23:36:24.405421 26324 net.cpp:156] Memory required for data: 26408
I0731 23:36:24.405434 26324 layer_factory.hpp:77] Creating layer concat
I0731 23:36:24.405442 26324 net.cpp:91] Creating Layer concat
I0731 23:36:24.405448 26324 net.cpp:425] concat <- lstm1
I0731 23:36:24.405454 26324 net.cpp:425] concat <- embedded_input_sentence
I0731 23:36:24.405460 26324 net.cpp:425] concat <- reshaped_stage_indicator
I0731 23:36:24.405467 26324 net.cpp:399] concat -> lstm1_video_sequence
I0731 23:36:24.405499 26324 net.cpp:141] Setting up concat
I0731 23:36:24.405508 26324 net.cpp:148] Top shape: 1 1 1501 (1501)
I0731 23:36:24.405511 26324 net.cpp:156] Memory required for data: 32412
I0731 23:36:24.405516 26324 layer_factory.hpp:77] Creating layer lstm2
I0731 23:36:24.405529 26324 net.cpp:91] Creating Layer lstm2
I0731 23:36:24.405534 26324 net.cpp:425] lstm2 <- lstm1_video_sequence
I0731 23:36:24.405539 26324 net.cpp:425] lstm2 <- cont_sentence_input_1_split_1
I0731 23:36:24.405546 26324 net.cpp:399] lstm2 -> lstm2
I0731 23:36:24.405555 26324 recurrent_layer.cpp:20] Initializing recurrent layer: assuming input batch contains 1 timesteps of 1 independent streams.
I0731 23:36:24.405818 26324 net.cpp:49] Initializing net from parameters: 
layer {
  name: "lstm2_"
  type: "Input"
  top: "x"
  top: "cont"
  input_param {
    shape {
      dim: 1
      dim: 1
      dim: 1501
    }
    shape {
      dim: 1
      dim: 1
    }
  }
}
layer {
  name: "lstm2_"
  type: "Input"
  top: "c_0"
  top: "h_0"
  input_param {
    shape {
      dim: 1
      dim: 1
      dim: 1000
    }
    shape {
      dim: 1
      dim: 1
      dim: 1000
    }
  }
}
layer {
  name: "lstm2_cont_slice"
  type: "Slice"
  bottom: "cont"
  top: "cont_1"
  slice_param {
    axis: 0
  }
}
layer {
  name: "lstm2_x_transform"
  type: "InnerProduct"
  bottom: "x"
  top: "W_xc_x"
  param {
    name: "W_xc"
  }
  param {
    name: "b_c"
  }
  propagate_down: true
  inner_product_param {
    num_output: 4000
    bias_term: true
    weight_filler {
      type: "uniform"
      min: -0.08
      max: 0.08
    }
    bias_filler {
      type: "constant"
      value: 0
    }
    axis: 2
  }
}
layer {
  name: "lstm2_W_xc_x_slice"
  type: "Slice"
  bottom: "W_xc_x"
  top: "W_xc_x_1"
  slice_param {
    axis: 0
  }
}
layer {
  name: "lstm2_h_conted_0"
  type: "Scale"
  bottom: "h_0"
  bottom: "cont_1"
  top: "h_conted_0"
  scale_param {
    axis: 0
  }
}
layer {
  name: "lstm2_transform_1"
  type: "InnerProduct"
  bottom: "h_conted_0"
  top: "W_hc_h_0"
  param {
    name: "W_hc"
  }
  inner_product_param {
    num_output: 4000
    bias_term: false
    weight_filler {
      type: "uniform"
      min: -0.08
      max: 0.08
    }
    axis: 2
  }
}
layer {
  name: "lstm2_gate_input_1"
  type: "Eltwise"
  bottom: "W_hc_h_0"
  bottom: "W_xc_x_1"
  top: "gate_input_1"
  eltwise_param {
    operation: SUM
  }
}
layer {
  name: "lstm2_unit_1"
  type: "LSTMUnit"
  bottom: "c_0"
  bottom: "gate_input_1"
  bottom: "cont_1"
  top: "c_1"
  top: "h_1"
}
layer {
  name: "lstm2_"
  type: "Split"
  bottom: "c_1"
  top: "c_T"
}
layer {
  name: "lstm2_h_concat"
  type: "Concat"
  bottom: "h_1"
  top: "h"
  concat_param {
    axis: 0
  }
}
layer {
  name: "h_pseudoloss"
  type: "Reduction"
  bottom: "h"
  top: "h_pseudoloss"
  loss_weight: 1
}
I0731 23:36:24.405905 26324 layer_factory.hpp:77] Creating layer lstm2_
I0731 23:36:24.405916 26324 net.cpp:91] Creating Layer lstm2_
I0731 23:36:24.405922 26324 net.cpp:399] lstm2_ -> x
I0731 23:36:24.405933 26324 net.cpp:399] lstm2_ -> cont
I0731 23:36:24.405985 26324 net.cpp:141] Setting up lstm2_
I0731 23:36:24.405994 26324 net.cpp:148] Top shape: 1 1 1501 (1501)
I0731 23:36:24.406000 26324 net.cpp:148] Top shape: 1 1 (1)
I0731 23:36:24.406004 26324 net.cpp:156] Memory required for data: 6008
I0731 23:36:24.406008 26324 layer_factory.hpp:77] Creating layer lstm2_
I0731 23:36:24.406018 26324 net.cpp:91] Creating Layer lstm2_
I0731 23:36:24.406023 26324 net.cpp:399] lstm2_ -> c_0
I0731 23:36:24.406033 26324 net.cpp:399] lstm2_ -> h_0
I0731 23:36:24.406077 26324 net.cpp:141] Setting up lstm2_
I0731 23:36:24.406086 26324 net.cpp:148] Top shape: 1 1 1000 (1000)
I0731 23:36:24.406091 26324 net.cpp:148] Top shape: 1 1 1000 (1000)
I0731 23:36:24.406095 26324 net.cpp:156] Memory required for data: 14008
I0731 23:36:24.406100 26324 layer_factory.hpp:77] Creating layer lstm2_cont_slice
I0731 23:36:24.406108 26324 net.cpp:91] Creating Layer lstm2_cont_slice
I0731 23:36:24.406113 26324 net.cpp:425] lstm2_cont_slice <- cont
I0731 23:36:24.406122 26324 net.cpp:399] lstm2_cont_slice -> cont_1
I0731 23:36:24.406153 26324 net.cpp:141] Setting up lstm2_cont_slice
I0731 23:36:24.406162 26324 net.cpp:148] Top shape: 1 1 (1)
I0731 23:36:24.406167 26324 net.cpp:156] Memory required for data: 14012
I0731 23:36:24.406170 26324 layer_factory.hpp:77] Creating layer cont_1_lstm2_cont_slice_0_split
I0731 23:36:24.406177 26324 net.cpp:91] Creating Layer cont_1_lstm2_cont_slice_0_split
I0731 23:36:24.406182 26324 net.cpp:425] cont_1_lstm2_cont_slice_0_split <- cont_1
I0731 23:36:24.406188 26324 net.cpp:399] cont_1_lstm2_cont_slice_0_split -> cont_1_lstm2_cont_slice_0_split_0
I0731 23:36:24.406198 26324 net.cpp:399] cont_1_lstm2_cont_slice_0_split -> cont_1_lstm2_cont_slice_0_split_1
I0731 23:36:24.406241 26324 net.cpp:141] Setting up cont_1_lstm2_cont_slice_0_split
I0731 23:36:24.406250 26324 net.cpp:148] Top shape: 1 1 (1)
I0731 23:36:24.406255 26324 net.cpp:148] Top shape: 1 1 (1)
I0731 23:36:24.406258 26324 net.cpp:156] Memory required for data: 14020
I0731 23:36:24.406263 26324 layer_factory.hpp:77] Creating layer lstm2_x_transform
I0731 23:36:24.406278 26324 net.cpp:91] Creating Layer lstm2_x_transform
I0731 23:36:24.406283 26324 net.cpp:425] lstm2_x_transform <- x
I0731 23:36:24.406291 26324 net.cpp:399] lstm2_x_transform -> W_xc_x
I0731 23:36:24.448387 26334 upgrade_proto.cpp:43] Attempting to upgrade input file specified using deprecated transformation parameters: /tmp/cvld3900739313592925751/bvlc_reference_caffenet.caffemodel
I0731 23:36:24.448424 26334 upgrade_proto.cpp:46] Successfully upgraded file specified using deprecated data transformation parameters.
W0731 23:36:24.448431 26334 upgrade_proto.cpp:48] Note that future Caffe releases will only support transform_param messages for transformation fields.
I0731 23:36:24.448434 26334 upgrade_proto.cpp:52] Attempting to upgrade input file specified using deprecated V1LayerParameter: /tmp/cvld3900739313592925751/bvlc_reference_caffenet.caffemodel
I0731 23:36:24.463794 26324 net.cpp:141] Setting up lstm2_x_transform
I0731 23:36:24.463837 26324 net.cpp:148] Top shape: 1 1 4000 (4000)
I0731 23:36:24.463843 26324 net.cpp:156] Memory required for data: 30020
I0731 23:36:24.463865 26324 layer_factory.hpp:77] Creating layer lstm2_W_xc_x_slice
I0731 23:36:24.463886 26324 net.cpp:91] Creating Layer lstm2_W_xc_x_slice
I0731 23:36:24.463892 26324 net.cpp:425] lstm2_W_xc_x_slice <- W_xc_x
I0731 23:36:24.463901 26324 net.cpp:399] lstm2_W_xc_x_slice -> W_xc_x_1
I0731 23:36:24.463948 26324 net.cpp:141] Setting up lstm2_W_xc_x_slice
I0731 23:36:24.463958 26324 net.cpp:148] Top shape: 1 1 4000 (4000)
I0731 23:36:24.463961 26324 net.cpp:156] Memory required for data: 46020
I0731 23:36:24.463966 26324 layer_factory.hpp:77] Creating layer lstm2_h_conted_0
I0731 23:36:24.463979 26324 net.cpp:91] Creating Layer lstm2_h_conted_0
I0731 23:36:24.463984 26324 net.cpp:425] lstm2_h_conted_0 <- h_0
I0731 23:36:24.463991 26324 net.cpp:425] lstm2_h_conted_0 <- cont_1_lstm2_cont_slice_0_split_0
I0731 23:36:24.463997 26324 net.cpp:399] lstm2_h_conted_0 -> h_conted_0
I0731 23:36:24.464095 26324 net.cpp:141] Setting up lstm2_h_conted_0
I0731 23:36:24.464105 26324 net.cpp:148] Top shape: 1 1 1000 (1000)
I0731 23:36:24.464109 26324 net.cpp:156] Memory required for data: 50020
I0731 23:36:24.464114 26324 layer_factory.hpp:77] Creating layer lstm2_transform_1
I0731 23:36:24.464129 26324 net.cpp:91] Creating Layer lstm2_transform_1
I0731 23:36:24.464134 26324 net.cpp:425] lstm2_transform_1 <- h_conted_0
I0731 23:36:24.464143 26324 net.cpp:399] lstm2_transform_1 -> W_hc_h_0
I0731 23:36:24.501843 26324 net.cpp:141] Setting up lstm2_transform_1
I0731 23:36:24.501902 26324 net.cpp:148] Top shape: 1 1 4000 (4000)
I0731 23:36:24.501909 26324 net.cpp:156] Memory required for data: 66020
I0731 23:36:24.501932 26324 layer_factory.hpp:77] Creating layer lstm2_gate_input_1
I0731 23:36:24.501955 26324 net.cpp:91] Creating Layer lstm2_gate_input_1
I0731 23:36:24.501965 26324 net.cpp:425] lstm2_gate_input_1 <- W_hc_h_0
I0731 23:36:24.501973 26324 net.cpp:425] lstm2_gate_input_1 <- W_xc_x_1
I0731 23:36:24.501981 26324 net.cpp:399] lstm2_gate_input_1 -> gate_input_1
I0731 23:36:24.502030 26324 net.cpp:141] Setting up lstm2_gate_input_1
I0731 23:36:24.502039 26324 net.cpp:148] Top shape: 1 1 4000 (4000)
I0731 23:36:24.502043 26324 net.cpp:156] Memory required for data: 82020
I0731 23:36:24.502048 26324 layer_factory.hpp:77] Creating layer lstm2_unit_1
I0731 23:36:24.502060 26324 net.cpp:91] Creating Layer lstm2_unit_1
I0731 23:36:24.502065 26324 net.cpp:425] lstm2_unit_1 <- c_0
I0731 23:36:24.502070 26324 net.cpp:425] lstm2_unit_1 <- gate_input_1
I0731 23:36:24.502076 26324 net.cpp:425] lstm2_unit_1 <- cont_1_lstm2_cont_slice_0_split_1
I0731 23:36:24.502082 26324 net.cpp:399] lstm2_unit_1 -> c_1
I0731 23:36:24.502091 26324 net.cpp:399] lstm2_unit_1 -> h_1
I0731 23:36:24.502154 26324 net.cpp:141] Setting up lstm2_unit_1
I0731 23:36:24.502162 26324 net.cpp:148] Top shape: 1 1 1000 (1000)
I0731 23:36:24.502168 26324 net.cpp:148] Top shape: 1 1 1000 (1000)
I0731 23:36:24.502172 26324 net.cpp:156] Memory required for data: 90020
I0731 23:36:24.502177 26324 layer_factory.hpp:77] Creating layer lstm2_
I0731 23:36:24.502185 26324 net.cpp:91] Creating Layer lstm2_
I0731 23:36:24.502190 26324 net.cpp:425] lstm2_ <- c_1
I0731 23:36:24.502199 26324 net.cpp:399] lstm2_ -> c_T
I0731 23:36:24.502230 26324 net.cpp:141] Setting up lstm2_
I0731 23:36:24.502238 26324 net.cpp:148] Top shape: 1 1 1000 (1000)
I0731 23:36:24.502243 26324 net.cpp:156] Memory required for data: 94020
I0731 23:36:24.502246 26324 layer_factory.hpp:77] Creating layer lstm2_h_concat
I0731 23:36:24.502256 26324 net.cpp:91] Creating Layer lstm2_h_concat
I0731 23:36:24.502261 26324 net.cpp:425] lstm2_h_concat <- h_1
I0731 23:36:24.502270 26324 net.cpp:399] lstm2_h_concat -> h
I0731 23:36:24.502305 26324 net.cpp:141] Setting up lstm2_h_concat
I0731 23:36:24.502313 26324 net.cpp:148] Top shape: 1 1 1000 (1000)
I0731 23:36:24.502317 26324 net.cpp:156] Memory required for data: 98020
I0731 23:36:24.502322 26324 layer_factory.hpp:77] Creating layer h_pseudoloss
I0731 23:36:24.502331 26324 net.cpp:91] Creating Layer h_pseudoloss
I0731 23:36:24.502336 26324 net.cpp:425] h_pseudoloss <- h
I0731 23:36:24.502342 26324 net.cpp:399] h_pseudoloss -> h_pseudoloss
I0731 23:36:24.502432 26324 net.cpp:141] Setting up h_pseudoloss
…
