…
Java HotSpot(TM) 64-Bit Server VM warning: You have loaded library /home/peifeng/work/run/storm102/data/workers/ef083753-0f19-43a9-8888-4ac2681dcce5/tmp/cvld2823232802750952781/libopencv_java310.xine1.so which might have disabled stack guard. The VM will try to fix the stack guard now.
It's highly recommended that you fix the library with 'execstack -c <libfile>', or link it with '-z noexecstack'.
WARNING: Logging before InitGoogleLogging() is written to STDERR
I0913 18:05:39.834107 20827 net.cpp:49] Initializing net from parameters: 
name: "GoogleNet"
state {
  phase: TEST
}
layer {
  name: "data"
  type: "Input"
  top: "data"
  input_param {
    shape {
      dim: 10
      dim: 3
      dim: 224
      dim: 224
    }
  }
}
layer {
  name: "conv1/7x7_s2"
  type: "Convolution"
  bottom: "data"
  top: "conv1/7x7_s2"
  param {
    lr_mult: 1
    decay_mult: 1
  }
  param {
    lr_mult: 2
    decay_mult: 0
  }
  convolution_param {
    num_output: 64
    pad: 3
    kernel_size: 7
    stride: 2
    weight_filler {
      type: "xavier"
      std: 0.1
    }
    bias_filler {
      type: "constant"
      value: 0.2
    }
  }
}
layer {
  name: "conv1/relu_7x7"
  type: "ReLU"
  bottom: "conv1/7x7_s2"
  top: "conv1/7x7_s2"
}
layer {
  name: "pool1/3x3_s2"
  type: "Pooling"
  bottom: "conv1/7x7_s2"
  top: "pool1/3x3_s2"
  pooling_param {
    pool: MAX
    kernel_size: 3
    stride: 2
  }
}
layer {
  name: "pool1/norm1"
  type: "LRN"
  bottom: "pool1/3x3_s2"
  top: "pool1/norm1"
  lrn_param {
    local_size: 5
    alpha: 0.0001
    beta: 0.75
  }
}
layer {
  name: "conv2/3x3_reduce"
  type: "Convolution"
  bottom: "pool1/norm1"
  top: "conv2/3x3_reduce"
  param {
    lr_mult: 1
    decay_mult: 1
  }
  param {
    lr_mult: 2
    decay_mult: 0
  }
  convolution_param {
    num_output: 64
    kernel_size: 1
    weight_filler {
      type: "xavier"
      std: 0.1
    }
    bias_filler {
      type: "constant"
      value: 0.2
    }
  }
}
layer {
  name: "conv2/relu_3x3_reduce"
  type: "ReLU"
  bottom: "conv2/3x3_reduce"
  top: "conv2/3x3_reduce"
}
layer {
  name: "conv2/3x3"
  type: "Convolution"
  bottom: "conv2/3x3_reduce"
  top: "conv2/3x3"
  param {
    lr_mult: 1
    decay_mult: 1
  }
  param {
    lr_mult: 2
    decay_mult: 0
  }
  convolution_param {
    num_output: 192
    pad: 1
    kernel_size: 3
    weight_filler {
      type: "xavier"
      std: 0.03
    }
    bias_filler {
      type: "constant"
      value: 0.2
    }
  }
}
layer {
  name: "conv2/relu_3x3"
  type: "ReLU"
  bottom: "conv2/3x3"
  top: "conv2/3x3"
}
layer {
  name: "conv2/norm2"
  type: "LRN"
  bottom: "conv2/3x3"
  top: "conv2/norm2"
  lrn_param {
    local_size: 5
    alpha: 0.0001
    beta: 0.75
  }
}
layer {
  name: "pool2/3x3_s2"
  type: "Pooling"
  bottom: "conv2/norm2"
  top: "pool2/3x3_s2"
  pooling_param {
    pool: MAX
    kernel_size: 3
    stride: 2
  }
}
layer {
  name: "inception_3a/1x1"
  type: "Convolution"
  bottom: "pool2/3x3_s2"
  top: "inception_3a/1x1"
  param {
    lr_mult: 1
    decay_mult: 1
  }
  param {
    lr_mult: 2
    decay_mult: 0
  }
  convolution_param {
    num_output: 64
    kernel_size: 1
    weight_filler {
      type: "xavier"
      std: 0.03
    }
    bias_filler {
      type: "constant"
      value: 0.2
    }
  }
}
layer {
  name: "inception_3a/relu_1x1"
  type: "ReLU"
  bottom: "inception_3a/1x1"
  top: "inception_3a/1x1"
}
layer {
  name: "inception_3a/3x3_reduce"
  type: "Convolution"
  bottom: "pool2/3x3_s2"
  top: "inception_3a/3x3_reduce"
  param {
    lr_mult: 1
    decay_mult: 1
  }
  param {
    lr_mult: 2
    decay_mult: 0
  }
  convolution_param {
    num_output: 96
    kernel_size: 1
    weight_filler {
      type: "xavier"
      std: 0.09
    }
    bias_filler {
      type: "constant"
      value: 0.2
    }
  }
}
layer {
  name: "inception_3a/relu_3x3_reduce"
  type: "ReLU"
  bottom: "inception_3a/3x3_reduce"
  top: "inception_3a/3x3_reduce"
}
layer {
  name: "inception_3a/3x3"
  type: "Convolution"
  bottom: "inception_3a/3x3_reduce"
  top: "inception_3a/3x3"
  param {
    lr_mult: 1
    decay_mult: 1
  }
  param {
    lr_mult: 2
    decay_mult: 0
  }
  convolution_param {
    num_output: 128
    pad: 1
    kernel_size: 3
    weight_filler {
      type: "xavier"
      std: 0.03
    }
    bias_filler {
      type: "constant"
      value: 0.2
    }
  }
}
layer {
  name: "inception_3a/relu_3x3"
  type: "ReLU"
  bottom: "inception_3a/3x3"
  top: "inception_3a/3x3"
}
layer {
  name: "inception_3a/5x5_reduce"
  type: "Convolution"
  bottom: "pool2/3x3_s2"
  top: "inception_3a/5x5_reduce"
  param {
    lr_mult: 1
    decay_mult: 1
  }
  param {
    lr_mult: 2
    decay_mult: 0
  }
  convolution_param {
    num_output: 16
    kernel_size: 1
    weight_filler {
      type: "xavier"
      std: 0.2
    }
    bias_filler {
      type: "constant"
      value: 0.2
    }
  }
}
layer {
  name: "inception_3a/relu_5x5_reduce"
  type: "ReLU"
  bottom: "inception_3a/5x5_reduce"
  top: "inception_3a/5x5_reduce"
}
layer {
  name: "inception_3a/5x5"
  type: "Convolution"
  bottom: "inception_3a/5x5_reduce"
  top: "inception_3a/5x5"
  param {
    lr_mult: 1
    decay_mult: 1
  }
  param {
    lr_mult: 2
    decay_mult: 0
  }
  convolution_param {
    num_output: 32
    pad: 2
    kernel_size: 5
    weight_filler {
      type: "xavier"
      std: 0.03
    }
    bias_filler {
      type: "constant"
      value: 0.2
    }
  }
}
layer {
  name: "inception_3a/relu_5x5"
  type: "ReLU"
  bottom: "inception_3a/5x5"
  top: "inception_3a/5x5"
}
layer {
  name: "inception_3a/pool"
  type: "Pooling"
  bottom: "pool2/3x3_s2"
  top: "inception_3a/pool"
  pooling_param {
    pool: MAX
    kernel_size: 3
    stride: 1
    pad: 1
  }
}
layer {
  name: "inception_3a/pool_proj"
  type: "Convolution"
  bottom: "inception_3a/pool"
  top: "inception_3a/pool_proj"
  param {
    lr_mult: 1
    decay_mult: 1
  }
  param {
    lr_mult: 2
    decay_mult: 0
  }
  convolution_param {
    num_output: 32
    kernel_size: 1
    weight_filler {
      type: "xavier"
      std: 0.1
    }
    bias_filler {
      type: "constant"
      value: 0.2
    }
  }
}
layer {
  name: "inception_3a/relu_pool_proj"
  type: "ReLU"
  bottom: "inception_3a/pool_proj"
  top: "inception_3a/pool_proj"
}
layer {
  name: "inception_3a/output"
  type: "Concat"
  bottom: "inception_3a/1x1"
  bottom: "inception_3a/3x3"
  bottom: "inception_3a/5x5"
  bottom: "inception_3a/pool_proj"
  top: "inception_3a/output"
}
layer {
  name: "inception_3b/1x1"
  type: "Convolution"
  bottom: "inception_3a/output"
  top: "inception_3b/1x1"
  param {
    lr_mult: 1
    decay_mult: 1
  }
  param {
    lr_mult: 2
    decay_mult: 0
  }
  convolution_param {
    num_output: 128
    kernel_size: 1
    weight_filler {
      type: "xavier"
      std: 0.03
    }
    bias_filler {
      type: "constant"
      value: 0.2
    }
  }
}
layer {
  name: "inception_3b/relu_1x1"
  type: "ReLU"
  bottom: "inception_3b/1x1"
  top: "inception_3b/1x1"
}
layer {
  name: "inception_3b/3x3_reduce"
  type: "Convolution"
  bottom: "inception_3a/output"
  top: "inception_3b/3x3_reduce"
  param {
    lr_mult: 1
    decay_mult: 1
  }
  param {
    lr_mult: 2
    decay_mult: 0
  }
  convolution_param {
    num_output: 128
    kernel_size: 1
    weight_filler {
      type: "xavier"
      std: 0.09
    }
    bias_filler {
      type: "constant"
      value: 0.2
    }
  }
}
layer {
  name: "inception_3b/relu_3x3_reduce"
  type: "ReLU"
  bottom: "inception_3b/3x3_reduce"
  top: "inception_3b/3x3_reduce"
}
layer {
  name: "inception_3b/3x3"
  type: "Convolution"
  bottom: "inception_3b/3x3_reduce"
  top: "inception_3b/3x3"
  param {
    lr_mult: 1
    decay_mult: 1
  }
  param {
    lr_mult: 2
    decay_mult: 0
  }
  convolution_param {
    num_output: 192
    pad: 1
    kernel_size: 3
    weight_filler {
      type: "xavier"
      std: 0.03
    }
    bias_filler {
      type: "constant"
      value: 0.2
    }
  }
}
layer {
  name: "inception_3b/relu_3x3"
  type: "ReLU"
  bottom: "inception_3b/3x3"
  top: "inception_3b/3x3"
}
layer {
  name: "inception_3b/5x5_reduce"
  type: "Convolution"
  bottom: "inception_3a/output"
  top: "inception_3b/5x5_reduce"
  param {
    lr_mult: 1
    decay_mult: 1
  }
  param {
    lr_mult: 2
    decay_mult: 0
  }
  convolution_param {
    num_output: 32
    kernel_size: 1
    weight_filler {
      type: "xavier"
      std: 0.2
    }
    bias_filler {
      type: "constant"
      value: 0.2
    }
  }
}
layer {
  name: "inception_3b/relu_5x5_reduce"
  type: "ReLU"
  bottom: "inception_3b/5x5_reduce"
  top: "inception_3b/5x5_reduce"
}
layer {
  name: "inception_3b/5x5"
  type: "Convolution"
  bottom: "inception_3b/5x5_reduce"
  top: "inception_3b/5x5"
  param {
    lr_mult: 1
    decay_mult: 1
  }
  param {
    lr_mult: 2
    decay_mult: 0
  }
  convolution_param {
    num_output: 96
    pad: 2
    kernel_size: 5
    weight_filler {
      type: "xavier"
      std: 0.03
    }
    bias_filler {
      type: "constant"
      value: 0.2
    }
  }
}
layer {
  name: "inception_3b/relu_5x5"
  type: "ReLU"
  bottom: "inception_3b/5x5"
  top: "inception_3b/5x5"
}
layer {
  name: "inception_3b/pool"
  type: "Pooling"
  bottom: "inception_3a/output"
  top: "inception_3b/pool"
  pooling_param {
    pool: MAX
    kernel_size: 3
    stride: 1
    pad: 1
  }
}
layer {
  name: "inception_3b/pool_proj"
  type: "Convolution"
  bottom: "inception_3b/pool"
  top: "inception_3b/pool_proj"
  param {
    lr_mult: 1
    decay_mult: 1
  }
  param {
    lr_mult: 2
    decay_mult: 0
  }
  convolution_param {
    num_output: 64
    kernel_size: 1
    weight_filler {
      type: "xavier"
      std: 0.1
    }
    bias_filler {
      type: "constant"
      value: 0.2
    }
  }
}
layer {
  name: "inception_3b/relu_pool_proj"
  type: "ReLU"
  bottom: "inception_3b/pool_proj"
  top: "inception_3b/pool_proj"
}
layer {
  name: "inception_3b/output"
  type: "Concat"
  bottom: "inception_3b/1x1"
  bottom: "inception_3b/3x3"
  bottom: "inception_3b/5x5"
  bottom: "inception_3b/pool_proj"
  top: "inception_3b/output"
}
layer {
  name: "pool3/3x3_s2"
  type: "Pooling"
  bottom: "inception_3b/output"
  top: "pool3/3x3_s2"
  pooling_param {
    pool: MAX
    kernel_size: 3
    stride: 2
  }
}
layer {
  name: "inception_4a/1x1"
  type: "Convolution"
  bottom: "pool3/3x3_s2"
  top: "inception_4a/1x1"
  param {
    lr_mult: 1
    decay_mult: 1
  }
  param {
    lr_mult: 2
    decay_mult: 0
  }
  convolution_param {
    num_output: 192
    kernel_size: 1
    weight_filler {
      type: "xavier"
      std: 0.03
    }
    bias_filler {
      type: "constant"
      value: 0.2
    }
  }
}
layer {
  name: "inception_4a/relu_1x1"
  type: "ReLU"
  bottom: "inception_4a/1x1"
  top: "inception_4a/1x1"
}
layer {
  name: "inception_4a/3x3_reduce"
  type: "Convolution"
  bottom: "pool3/3x3_s2"
  top: "inception_4a/3x3_reduce"
  param {
    lr_mult: 1
    decay_mult: 1
  }
  param {
    lr_mult: 2
    decay_mult: 0
  }
  convolution_param {
    num_output: 96
    kernel_size: 1
    weight_filler {
      type: "xavier"
      std: 0.09
    }
    bias_filler {
      type: "constant"
      value: 0.2
    }
  }
}
layer {
  name: "inception_4a/relu_3x3_reduce"
  type: "ReLU"
  bottom: "inception_4a/3x3_reduce"
  top: "inception_4a/3x3_reduce"
}
layer {
  name: "inception_4a/3x3"
  type: "Convolution"
  bottom: "inception_4a/3x3_reduce"
  top: "inception_4a/3x3"
  param {
    lr_mult: 1
    decay_mult: 1
  }
  param {
    lr_mult: 2
    decay_mult: 0
  }
  convolution_param {
    num_output: 208
    pad: 1
    kernel_size: 3
    weight_filler {
      type: "xavier"
      std: 0.03
    }
    bias_filler {
      type: "constant"
      value: 0.2
    }
  }
}
layer {
  name: "inception_4a/relu_3x3"
  type: "ReLU"
  bottom: "inception_4a/3x3"
  top: "inception_4a/3x3"
}
layer {
  name: "inception_4a/5x5_reduce"
  type: "Convolution"
  bottom: "pool3/3x3_s2"
  top: "inception_4a/5x5_reduce"
  param {
    lr_mult: 1
    decay_mult: 1
  }
  param {
    lr_mult: 2
    decay_mult: 0
  }
  convolution_param {
    num_output: 16
    kernel_size: 1
    weight_filler {
      type: "xavier"
      std: 0.2
    }
    bias_filler {
      type: "constant"
      value: 0.2
    }
  }
}
layer {
  name: "inception_4a/relu_5x5_reduce"
  type: "ReLU"
  bottom: "inception_4a/5x5_reduce"
  top: "inception_4a/5x5_reduce"
}
layer {
  name: "inception_4a/5x5"
  type: "Convolution"
  bottom: "inception_4a/5x5_reduce"
  top: "inception_4a/5x5"
  param {
    lr_mult: 1
    decay_mult: 1
  }
  param {
    lr_mult: 2
    decay_mult: 0
  }
  convolution_param {
    num_output: 48
    pad: 2
    kernel_size: 5
    weight_filler {
      type: "xavier"
      std: 0.03
    }
    bias_filler {
      type: "constant"
      value: 0.2
    }
  }
}
layer {
  name: "inception_4a/relu_5x5"
  type: "ReLU"
  bottom: "inception_4a/5x5"
  top: "inception_4a/5x5"
}
layer {
  name: "inception_4a/pool"
  type: "Pooling"
  bottom: "pool3/3x3_s2"
  top: "inception_4a/pool"
  pooling_param {
    pool: MAX
    kernel_size: 3
    stride: 1
    pad: 1
  }
}
layer {
  name: "inception_4a/pool_proj"
  type: "Convolution"
  bottom: "inception_4a/pool"
  top: "inception_4a/pool_proj"
  param {
    lr_mult: 1
    decay_mult: 1
  }
  param {
    lr_mult: 2
    decay_mult: 0
  }
  convolution_param {
    num_output: 64
    kernel_size: 1
    weight_filler {
      type: "xavier"
      std: 0.1
    }
    bias_filler {
      type: "constant"
      value: 0.2
    }
  }
}
layer {
  name: "inception_4a/relu_pool_proj"
  type: "ReLU"
  bottom: "inception_4a/pool_proj"
  top: "inception_4a/pool_proj"
}
layer {
  name: "inception_4a/output"
  type: "Concat"
  bottom: "inception_4a/1x1"
  bottom: "inception_4a/3x3"
  bottom: "inception_4a/5x5"
  bottom: "inception_4a/pool_proj"
  top: "inception_4a/output"
}
layer {
  name: "inception_4b/1x1"
  type: "Convolution"
  bottom: "inception_4a/output"
  top: "inception_4b/1x1"
  param {
    lr_mult: 1
    decay_mult: 1
  }
  param {
    lr_mult: 2
    decay_mult: 0
  }
  convolution_param {
    num_output: 160
    kernel_size: 1
    weight_filler {
      type: "xavier"
      std: 0.03
    }
    bias_filler {
      type: "constant"
      value: 0.2
    }
  }
}
layer {
  name: "inception_4b/relu_1x1"
  type: "ReLU"
  bottom: "inception_4b/1x1"
  top: "inception_4b/1x1"
}
layer {
  name: "inception_4b/3x3_reduce"
  type: "Convolution"
  bottom: "inception_4a/output"
  top: "inception_4b/3x3_reduce"
  param {
    lr_mult: 1
    decay_mult: 1
  }
  param {
    lr_mult: 2
    decay_mult: 0
  }
  convolution_param {
    num_output: 112
    kernel_size: 1
    weight_filler {
      type: "xavier"
      std: 0.09
    }
    bias_filler {
      type: "constant"
      value: 0.2
    }
  }
}
layer {
  name: "inception_4b/relu_3x3_reduce"
  type: "ReLU"
  bottom: "inception_4b/3x3_reduce"
  top: "inception_4b/3x3_reduce"
}
layer {
  name: "inception_4b/3x3"
  type: "Convolution"
  bottom: "inception_4b/3x3_reduce"
  top: "inception_4b/3x3"
  param {
    lr_mult: 1
    decay_mult: 1
  }
  param {
    lr_mult: 2
    decay_mult: 0
  }
  convolution_param {
    num_output: 224
    pad: 1
    kernel_size: 3
    weight_filler {
      type: "xavier"
      std: 0.03
    }
    bias_filler {
      type: "constant"
      value: 0.2
    }
  }
}
layer {
  name: "inception_4b/relu_3x3"
  type: "ReLU"
  bottom: "inception_4b/3x3"
  top: "inception_4b/3x3"
}
layer {
  name: "inception_4b/5x5_reduce"
  type: "Convolution"
  bottom: "inception_4a/output"
  top: "inception_4b/5x5_reduce"
  param {
    lr_mult: 1
    decay_mult: 1
  }
  param {
    lr_mult: 2
    decay_mult: 0
  }
  convolution_param {
    num_output: 24
    kernel_size: 1
    weight_filler {
      type: "xavier"
      std: 0.2
    }
    bias_filler {
      type: "constant"
      value: 0.2
    }
  }
}
layer {
  name: "inception_4b/relu_5x5_reduce"
  type: "ReLU"
  bottom: "inception_4b/5x5_reduce"
  top: "inception_4b/5x5_reduce"
}
layer {
  name: "inception_4b/5x5"
  type: "Convolution"
  bottom: "inception_4b/5x5_reduce"
  top: "inception_4b/5x5"
  param {
    lr_mult: 1
    decay_mult: 1
  }
  param {
    lr_mult: 2
    decay_mult: 0
  }
  convolution_param {
    num_output: 64
    pad: 2
    kernel_size: 5
    weight_filler {
      type: "xavier"
      std: 0.03
    }
    bias_filler {
      type: "constant"
      value: 0.2
    }
  }
}
layer {
  name: "inception_4b/relu_5x5"
  type: "ReLU"
  bottom: "inception_4b/5x5"
  top: "inception_4b/5x5"
}
layer {
  name: "inception_4b/pool"
  type: "Pooling"
  bottom: "inception_4a/output"
  top: "inception_4b/pool"
  pooling_param {
    pool: MAX
    kernel_size: 3
    stride: 1
    pad: 1
  }
}
layer {
  name: "inception_4b/pool_proj"
  type: "Convolution"
  bottom: "inception_4b/pool"
  top: "inception_4b/pool_proj"
  param {
    lr_mult: 1
    decay_mult: 1
  }
  param {
    lr_mult: 2
    decay_mult: 0
  }
  convolution_param {
    num_output: 64
    kernel_size: 1
    weight_filler {
      type: "xavier"
      std: 0.1
    }
    bias_filler {
      type: "constant"
      value: 0.2
    }
  }
}
layer {
  name: "inception_4b/relu_pool_proj"
  type: "ReLU"
  bottom: "inception_4b/pool_proj"
  top: "inception_4b/pool_proj"
}
layer {
  name: "inception_4b/output"
  type: "Concat"
  bottom: "inception_4b/1x1"
  bottom: "inception_4b/3x3"
  bottom: "inception_4b/5x5"
  bottom: "inception_4b/pool_proj"
  top: "inception_4b/output"
}
layer {
  name: "inception_4c/1x1"
  type: "Convolution"
  bottom: "inception_4b/output"
  top: "inception_4c/1x1"
  param {
    lr_mult: 1
    decay_mult: 1
  }
  param {
    lr_mult: 2
    decay_mult: 0
  }
  convolution_param {
    num_output: 128
    kernel_size: 1
    weight_filler {
      type: "xavier"
      std: 0.03
    }
    bias_filler {
      type: "constant"
      value: 0.2
    }
  }
}
layer {
  name: "inception_4c/relu_1x1"
  type: "ReLU"
  bottom: "inception_4c/1x1"
  top: "inception_4c/1x1"
}
layer {
  name: "inception_4c/3x3_reduce"
  type: "Convolution"
  bottom: "inception_4b/output"
  top: "inception_4c/3x3_reduce"
  param {
    lr_mult: 1
    decay_mult: 1
  }
  param {
    lr_mult: 2
    decay_mult: 0
  }
  convolution_param {
    num_output: 128
    kernel_size: 1
    weight_filler {
      type: "xavier"
      std: 0.09
    }
    bias_filler {
      type: "constant"
      value: 0.2
    }
  }
}
layer {
  name: "inception_4c/relu_3x3_reduce"
  type: "ReLU"
  bottom: "inception_4c/3x3_reduce"
  top: "inception_4c/3x3_reduce"
}
layer {
  name: "inception_4c/3x3"
  type: "Convolution"
  bottom: "inception_4c/3x3_reduce"
  top: "inception_4c/3x3"
  param {
    lr_mult: 1
    decay_mult: 1
  }
  param {
    lr_mult: 2
    decay_mult: 0
  }
  convolution_param {
    num_output: 256
    pad: 1
    kernel_size: 3
    weight_filler {
      type: "xavier"
      std: 0.03
    }
    bias_filler {
      type: "constant"
      value: 0.2
    }
  }
}
layer {
  name: "inception_4c/relu_3x3"
  type: "ReLU"
  bottom: "inception_4c/3x3"
  top: "inception_4c/3x3"
}
layer {
  name: "inception_4c/5x5_reduce"
  type: "Convolution"
  bottom: "inception_4b/output"
  top: "inception_4c/5x5_reduce"
  param {
    lr_mult: 1
    decay_mult: 1
  }
  param {
    lr_mult: 2
    decay_mult: 0
  }
  convolution_param {
    num_output: 24
    kernel_size: 1
    weight_filler {
      type: "xavier"
      std: 0.2
    }
    bias_filler {
      type: "constant"
      value: 0.2
    }
  }
}
layer {
  name: "inception_4c/relu_5x5_reduce"
  type: "ReLU"
  bottom: "inception_4c/5x5_reduce"
  top: "inception_4c/5x5_reduce"
}
layer {
  name: "inception_4c/5x5"
  type: "Convolution"
  bottom: "inception_4c/5x5_reduce"
  top: "inception_4c/5x5"
  param {
    lr_mult: 1
    decay_mult: 1
  }
  param {
    lr_mult: 2
    decay_mult: 0
  }
  convolution_param {
    num_output: 64
    pad: 2
    kernel_size: 5
    weight_filler {
      type: "xavier"
      std: 0.03
    }
    bias_filler {
      type: "constant"
      value: 0.2
    }
  }
}
layer {
  name: "inception_4c/relu_5x5"
  type: "ReLU"
  bottom: "inception_4c/5x5"
  top: "inception_4c/5x5"
}
layer {
  name: "inception_4c/pool"
  type: "Pooling"
  bottom: "inception_4b/output"
  top: "inception_4c/pool"
  pooling_param {
    pool: MAX
    kernel_size: 3
    stride: 1
    pad: 1
  }
}
layer {
  name: "inception_4c/pool_proj"
  type: "Convolution"
  bottom: "inception_4c/pool"
  top: "inception_4c/pool_proj"
  param {
    lr_mult: 1
    decay_mult: 1
  }
  param {
    lr_mult: 2
    decay_mult: 0
  }
  convolution_param {
    num_output: 64
    kernel_size: 1
    weight_filler {
      type: "xavier"
      std: 0.1
    }
    bias_filler {
      type: "constant"
      value: 0.2
    }
  }
}
layer {
  name: "inception_4c/relu_pool_proj"
  type: "ReLU"
  bottom: "inception_4c/pool_proj"
  top: "inception_4c/pool_proj"
}
layer {
  name: "inception_4c/output"
  type: "Concat"
  bottom: "inception_4c/1x1"
  bottom: "inception_4c/3x3"
  bottom: "inception_4c/5x5"
  bottom: "inception_4c/pool_proj"
  top: "inception_4c/output"
}
layer {
  name: "inception_4d/1x1"
  type: "Convolution"
  bottom: "inception_4c/output"
  top: "inception_4d/1x1"
  param {
    lr_mult: 1
    decay_mult: 1
  }
  param {
    lr_mult: 2
    decay_mult: 0
  }
  convolution_param {
    num_output: 112
    kernel_size: 1
    weight_filler {
      type: "xavier"
      std: 0.03
    }
    bias_filler {
      type: "constant"
      value: 0.2
    }
  }
}
layer {
  name: "inception_4d/relu_1x1"
  type: "ReLU"
  bottom: "inception_4d/1x1"
  top: "inception_4d/1x1"
}
layer {
  name: "inception_4d/3x3_reduce"
  type: "Convolution"
  bottom: "inception_4c/output"
  top: "inception_4d/3x3_reduce"
  param {
    lr_mult: 1
    decay_mult: 1
  }
  param {
    lr_mult: 2
    decay_mult: 0
  }
  convolution_param {
    num_output: 144
    kernel_size: 1
    weight_filler {
      type: "xavier"
      std: 0.09
    }
    bias_filler {
      type: "constant"
      value: 0.2
    }
  }
}
layer {
  name: "inception_4d/relu_3x3_reduce"
  type: "ReLU"
  bottom: "inception_4d/3x3_reduce"
  top: "inception_4d/3x3_reduce"
}
layer {
  name: "inception_4d/3x3"
  type: "Convolution"
  bottom: "inception_4d/3x3_reduce"
  top: "inception_4d/3x3"
  param {
    lr_mult: 1
    decay_mult: 1
  }
  param {
    lr_mult: 2
    decay_mult: 0
  }
  convolution_param {
    num_output: 288
    pad: 1
    kernel_size: 3
    weight_filler {
      type: "xavier"
      std: 0.03
    }
    bias_filler {
      type: "constant"
      value: 0.2
    }
  }
}
layer {
  name: "inception_4d/relu_3x3"
  type: "ReLU"
  bottom: "inception_4d/3x3"
  top: "inception_4d/3x3"
}
layer {
  name: "inception_4d/5x5_reduce"
  type: "Convolution"
  bottom: "inception_4c/output"
  top: "inception_4d/5x5_reduce"
  param {
    lr_mult: 1
    decay_mult: 1
  }
  param {
    lr_mult: 2
    decay_mult: 0
  }
  convolution_param {
    num_output: 32
    kernel_size: 1
    weight_filler {
      type: "xavier"
      std: 0.2
    }
    bias_filler {
      type: "constant"
      value: 0.2
    }
  }
}
layer {
  name: "inception_4d/relu_5x5_reduce"
  type: "ReLU"
  bottom: "inception_4d/5x5_reduce"
  top: "inception_4d/5x5_reduce"
}
layer {
  name: "inception_4d/5x5"
  type: "Convolution"
  bottom: "inception_4d/5x5_reduce"
  top: "inception_4d/5x5"
  param {
    lr_mult: 1
    decay_mult: 1
  }
  param {
    lr_mult: 2
    decay_mult: 0
  }
  convolution_param {
    num_output: 64
    pad: 2
    kernel_size: 5
    weight_filler {
      type: "xavier"
      std: 0.03
    }
    bias_filler {
      type: "constant"
      value: 0.2
    }
  }
}
layer {
  name: "inception_4d/relu_5x5"
  type: "ReLU"
  bottom: "inception_4d/5x5"
  top: "inception_4d/5x5"
}
layer {
  name: "inception_4d/pool"
  type: "Pooling"
  bottom: "inception_4c/output"
  top: "inception_4d/pool"
  pooling_param {
    pool: MAX
    kernel_size: 3
    stride: 1
    pad: 1
  }
}
layer {
  name: "inception_4d/pool_proj"
  type: "Convolution"
  bottom: "inception_4d/pool"
  top: "inception_4d/pool_proj"
  param {
    lr_mult: 1
    decay_mult: 1
  }
  param {
    lr_mult: 2
    decay_mult: 0
  }
  convolution_param {
    num_output: 64
    kernel_size: 1
    weight_filler {
      type: "xavier"
      std: 0.1
    }
    bias_filler {
      type: "constant"
      value: 0.2
    }
  }
}
layer {
  name: "inception_4d/relu_pool_proj"
  type: "ReLU"
  bottom: "inception_4d/pool_proj"
  top: "inception_4d/pool_proj"
}
layer {
  name: "inception_4d/output"
  type: "Concat"
  bottom: "inception_4d/1x1"
  bottom: "inception_4d/3x3"
  bottom: "inception_4d/5x5"
  bottom: "inception_4d/pool_proj"
  top: "inception_4d/output"
}
layer {
  name: "inception_4e/1x1"
  type: "Convolution"
  bottom: "inception_4d/output"
  top: "inception_4e/1x1"
  param {
    lr_mult: 1
    decay_mult: 1
  }
  param {
    lr_mult: 2
    decay_mult: 0
  }
  convolution_param {
    num_output: 256
    kernel_size: 1
    weight_filler {
      type: "xavier"
      std: 0.03
    }
    bias_filler {
      type: "constant"
      value: 0.2
    }
  }
}
layer {
  name: "inception_4e/relu_1x1"
  type: "ReLU"
  bottom: "inception_4e/1x1"
  top: "inception_4e/1x1"
}
layer {
  name: "inception_4e/3x3_reduce"
  type: "Convolution"
  bottom: "inception_4d/output"
  top: "inception_4e/3x3_reduce"
  param {
    lr_mult: 1
    decay_mult: 1
  }
  param {
    lr_mult: 2
    decay_mult: 0
  }
  convolution_param {
    num_output: 160
    kernel_size: 1
    weight_filler {
      type: "xavier"
      std: 0.09
    }
    bias_filler {
      type: "constant"
      value: 0.2
    }
  }
}
layer {
  name: "inception_4e/relu_3x3_reduce"
  type: "ReLU"
  bottom: "inception_4e/3x3_reduce"
  top: "inception_4e/3x3_reduce"
}
layer {
  name: "inception_4e/3x3"
  type: "Convolution"
  bottom: "inception_4e/3x3_reduce"
  top: "inception_4e/3x3"
  param {
    lr_mult: 1
    decay_mult: 1
  }
  param {
    lr_mult: 2
    decay_mult: 0
  }
  convolution_param {
    num_output: 320
    pad: 1
    kernel_size: 3
    weight_filler {
      type: "xavier"
      std: 0.03
    }
    bias_filler {
      type: "constant"
      value: 0.2
    }
  }
}
layer {
  name: "inception_4e/relu_3x3"
  type: "ReLU"
  bottom: "inception_4e/3x3"
  top: "inception_4e/3x3"
}
layer {
  name: "inception_4e/5x5_reduce"
  type: "Convolution"
  bottom: "inception_4d/output"
  top: "inception_4e/5x5_reduce"
  param {
    lr_mult: 1
    decay_mult: 1
  }
  param {
    lr_mult: 2
    decay_mult: 0
  }
  convolution_param {
    num_output: 32
    kernel_size: 1
    weight_filler {
      type: "xavier"
      std: 0.2
    }
    bias_filler {
      type: "constant"
      value: 0.2
    }
  }
}
layer {
  name: "inception_4e/relu_5x5_reduce"
  type: "ReLU"
  bottom: "inception_4e/5x5_reduce"
  top: "inception_4e/5x5_reduce"
}
layer {
  name: "inception_4e/5x5"
  type: "Convolution"
  bottom: "inception_4e/5x5_reduce"
  top: "inception_4e/5x5"
  param {
    lr_mult: 1
    decay_mult: 1
  }
  param {
    lr_mult: 2
    decay_mult: 0
  }
  convolution_param {
    num_output: 128
    pad: 2
    kernel_size: 5
    weight_filler {
      type: "xavier"
      std: 0.03
    }
    bias_filler {
      type: "constant"
      value: 0.2
    }
  }
}
layer {
  name: "inception_4e/relu_5x5"
  type: "ReLU"
  bottom: "inception_4e/5x5"
  top: "inception_4e/5x5"
}
layer {
  name: "inception_4e/pool"
  type: "Pooling"
  bottom: "inception_4d/output"
  top: "inception_4e/pool"
  pooling_param {
    pool: MAX
    kernel_size: 3
    stride: 1
    pad: 1
  }
}
layer {
  name: "inception_4e/pool_proj"
  type: "Convolution"
  bottom: "inception_4e/pool"
  top: "inception_4e/pool_proj"
  param {
    lr_mult: 1
    decay_mult: 1
  }
  param {
    lr_mult: 2
    decay_mult: 0
  }
  convolution_param {
    num_output: 128
    kernel_size: 1
    weight_filler {
      type: "xavier"
      std: 0.1
    }
    bias_filler {
      type: "constant"
      value: 0.2
    }
  }
}
layer {
  name: "inception_4e/relu_pool_proj"
  type: "ReLU"
  bottom: "inception_4e/pool_proj"
  top: "inception_4e/pool_proj"
}
layer {
  name: "inception_4e/output"
  type: "Concat"
  bottom: "inception_4e/1x1"
  bottom: "inception_4e/3x3"
  bottom: "inception_4e/5x5"
  bottom: "inception_4e/pool_proj"
  top: "inception_4e/output"
}
layer {
  name: "pool4/3x3_s2"
  type: "Pooling"
  bottom: "inception_4e/output"
  top: "pool4/3x3_s2"
  pooling_param {
    pool: MAX
    kernel_size: 3
    stride: 2
  }
}
layer {
  name: "inception_5a/1x1"
  type: "Convolution"
  bottom: "pool4/3x3_s2"
  top: "inception_5a/1x1"
  param {
    lr_mult: 1
    decay_mult: 1
  }
  param {
    lr_mult: 2
    decay_mult: 0
  }
  convolution_param {
    num_output: 256
    kernel_size: 1
    weight_filler {
      type: "xavier"
      std: 0.03
    }
    bias_filler {
      type: "constant"
      value: 0.2
    }
  }
}
layer {
  name: "inception_5a/relu_1x1"
  type: "ReLU"
  bottom: "inception_5a/1x1"
  top: "inception_5a/1x1"
}
layer {
  name: "inception_5a/3x3_reduce"
  type: "Convolution"
  bottom: "pool4/3x3_s2"
  top: "inception_5a/3x3_reduce"
  param {
    lr_mult: 1
    decay_mult: 1
  }
  param {
    lr_mult: 2
    decay_mult: 0
  }
  convolution_param {
    num_output: 160
    kernel_size: 1
    weight_filler {
      type: "xavier"
      std: 0.09
    }
    bias_filler {
      type: "constant"
      value: 0.2
    }
  }
}
layer {
  name: "inception_5a/relu_3x3_reduce"
  type: "ReLU"
  bottom: "inception_5a/3x3_reduce"
  top: "inception_5a/3x3_reduce"
}
layer {
  name: "inception_5a/3x3"
  type: "Convolution"
  bottom: "inception_5a/3x3_reduce"
  top: "inception_5a/3x3"
  param {
    lr_mult: 1
    decay_mult: 1
  }
  param {
    lr_mult: 2
    decay_mult: 0
  }
  convolution_param {
    num_output: 320
    pad: 1
    kernel_size: 3
    weight_filler {
      type: "xavier"
      std: 0.03
    }
    bias_filler {
      type: "constant"
      value: 0.2
    }
  }
}
layer {
  name: "inception_5a/relu_3x3"
  type: "ReLU"
  bottom: "inception_5a/3x3"
  top: "inception_5a/3x3"
}
layer {
  name: "inception_5a/5x5_reduce"
  type: "Convolution"
  bottom: "pool4/3x3_s2"
  top: "inception_5a/5x5_reduce"
  param {
    lr_mult: 1
    decay_mult: 1
  }
  param {
    lr_mult: 2
    decay_mult: 0
  }
  convolution_param {
    num_output: 32
    kernel_size: 1
    weight_filler {
      type: "xavier"
      std: 0.2
    }
    bias_filler {
      type: "constant"
      value: 0.2
    }
I0913 18:05:39.835062 20827 layer_factory.hpp:77] Creating layer data
I0913 18:05:39.835098 20827 net.cpp:91] Creating Layer data
I0913 18:05:39.835110 20827 net.cpp:399] data -> data
I0913 18:05:40.394459 20827 net.cpp:141] Setting up data
I0913 18:05:40.394541 20827 net.cpp:148] Top shape: 10 3 224 224 (1505280)
I0913 18:05:40.394548 20827 net.cpp:156] Memory required for data: 6021120
I0913 18:05:40.394573 20827 layer_factory.hpp:77] Creating layer conv1/7x7_s2
I0913 18:05:40.394619 20827 net.cpp:91] Creating Layer conv1/7x7_s2
I0913 18:05:40.394629 20827 net.cpp:425] conv1/7x7_s2 <- data
I0913 18:05:40.394645 20827 net.cpp:399] conv1/7x7_s2 -> conv1/7x7_s2
I0913 18:05:40.594075 20827 net.cpp:141] Setting up conv1/7x7_s2
I0913 18:05:40.594128 20827 net.cpp:148] Top shape: 10 64 112 112 (8028160)
I0913 18:05:40.594136 20827 net.cpp:156] Memory required for data: 38133760
I0913 18:05:40.594166 20827 layer_factory.hpp:77] Creating layer conv1/relu_7x7
I0913 18:05:40.594190 20827 net.cpp:91] Creating Layer conv1/relu_7x7
I0913 18:05:40.594198 20827 net.cpp:425] conv1/relu_7x7 <- conv1/7x7_s2
I0913 18:05:40.594208 20827 net.cpp:386] conv1/relu_7x7 -> conv1/7x7_s2 (in-place)
I0913 18:05:40.594632 20827 net.cpp:141] Setting up conv1/relu_7x7
I0913 18:05:40.594648 20827 net.cpp:148] Top shape: 10 64 112 112 (8028160)
I0913 18:05:40.594653 20827 net.cpp:156] Memory required for data: 70246400
I0913 18:05:40.594660 20827 layer_factory.hpp:77] Creating layer pool1/3x3_s2
I0913 18:05:40.594674 20827 net.cpp:91] Creating Layer pool1/3x3_s2
I0913 18:05:40.594681 20827 net.cpp:425] pool1/3x3_s2 <- conv1/7x7_s2
I0913 18:05:40.594689 20827 net.cpp:399] pool1/3x3_s2 -> pool1/3x3_s2
I0913 18:05:40.594769 20827 net.cpp:141] Setting up pool1/3x3_s2
I0913 18:05:40.594781 20827 net.cpp:148] Top shape: 10 64 56 56 (2007040)
I0913 18:05:40.594786 20827 net.cpp:156] Memory required for data: 78274560
I0913 18:05:40.594792 20827 layer_factory.hpp:77] Creating layer pool1/norm1
I0913 18:05:40.594810 20827 net.cpp:91] Creating Layer pool1/norm1
I0913 18:05:40.594816 20827 net.cpp:425] pool1/norm1 <- pool1/3x3_s2
I0913 18:05:40.594825 20827 net.cpp:399] pool1/norm1 -> pool1/norm1
I0913 18:05:40.595111 20827 net.cpp:141] Setting up pool1/norm1
I0913 18:05:40.595125 20827 net.cpp:148] Top shape: 10 64 56 56 (2007040)
I0913 18:05:40.595130 20827 net.cpp:156] Memory required for data: 86302720
I0913 18:05:40.595136 20827 layer_factory.hpp:77] Creating layer conv2/3x3_reduce
I0913 18:05:40.595158 20827 net.cpp:91] Creating Layer conv2/3x3_reduce
I0913 18:05:40.595165 20827 net.cpp:425] conv2/3x3_reduce <- pool1/norm1
I0913 18:05:40.595173 20827 net.cpp:399] conv2/3x3_reduce -> conv2/3x3_reduce
I0913 18:05:40.597398 20827 net.cpp:141] Setting up conv2/3x3_reduce
I0913 18:05:40.597419 20827 net.cpp:148] Top shape: 10 64 56 56 (2007040)
I0913 18:05:40.597425 20827 net.cpp:156] Memory required for data: 94330880
I0913 18:05:40.597439 20827 layer_factory.hpp:77] Creating layer conv2/relu_3x3_reduce
I0913 18:05:40.597450 20827 net.cpp:91] Creating Layer conv2/relu_3x3_reduce
I0913 18:05:40.597455 20827 net.cpp:425] conv2/relu_3x3_reduce <- conv2/3x3_reduce
I0913 18:05:40.597463 20827 net.cpp:386] conv2/relu_3x3_reduce -> conv2/3x3_reduce (in-place)
I0913 18:05:40.597872 20827 net.cpp:141] Setting up conv2/relu_3x3_reduce
I0913 18:05:40.597887 20827 net.cpp:148] Top shape: 10 64 56 56 (2007040)
I0913 18:05:40.597893 20827 net.cpp:156] Memory required for data: 102359040
I0913 18:05:40.597899 20827 layer_factory.hpp:77] Creating layer conv2/3x3
I0913 18:05:40.597914 20827 net.cpp:91] Creating Layer conv2/3x3
I0913 18:05:40.597920 20827 net.cpp:425] conv2/3x3 <- conv2/3x3_reduce
I0913 18:05:40.597929 20827 net.cpp:399] conv2/3x3 -> conv2/3x3
I0913 18:05:40.601238 20827 net.cpp:141] Setting up conv2/3x3
I0913 18:05:40.601260 20827 net.cpp:148] Top shape: 10 192 56 56 (6021120)
I0913 18:05:40.601266 20827 net.cpp:156] Memory required for data: 126443520
I0913 18:05:40.601280 20827 layer_factory.hpp:77] Creating layer conv2/relu_3x3
I0913 18:05:40.601291 20827 net.cpp:91] Creating Layer conv2/relu_3x3
I0913 18:05:40.601299 20827 net.cpp:425] conv2/relu_3x3 <- conv2/3x3
I0913 18:05:40.601305 20827 net.cpp:386] conv2/relu_3x3 -> conv2/3x3 (in-place)
I0913 18:05:40.601543 20827 net.cpp:141] Setting up conv2/relu_3x3
I0913 18:05:40.601557 20827 net.cpp:148] Top shape: 10 192 56 56 (6021120)
I0913 18:05:40.601562 20827 net.cpp:156] Memory required for data: 150528000
I0913 18:05:40.601568 20827 layer_factory.hpp:77] Creating layer conv2/norm2
I0913 18:05:40.601578 20827 net.cpp:91] Creating Layer conv2/norm2
I0913 18:05:40.601584 20827 net.cpp:425] conv2/norm2 <- conv2/3x3
I0913 18:05:40.601593 20827 net.cpp:399] conv2/norm2 -> conv2/norm2
I0913 18:05:40.602046 20827 net.cpp:141] Setting up conv2/norm2
I0913 18:05:40.602061 20827 net.cpp:148] Top shape: 10 192 56 56 (6021120)
I0913 18:05:40.602066 20827 net.cpp:156] Memory required for data: 174612480
I0913 18:05:40.602072 20827 layer_factory.hpp:77] Creating layer pool2/3x3_s2
I0913 18:05:40.602082 20827 net.cpp:91] Creating Layer pool2/3x3_s2
I0913 18:05:40.602088 20827 net.cpp:425] pool2/3x3_s2 <- conv2/norm2
I0913 18:05:40.602097 20827 net.cpp:399] pool2/3x3_s2 -> pool2/3x3_s2
I0913 18:05:40.602147 20827 net.cpp:141] Setting up pool2/3x3_s2
I0913 18:05:40.602157 20827 net.cpp:148] Top shape: 10 192 28 28 (1505280)
I0913 18:05:40.602162 20827 net.cpp:156] Memory required for data: 180633600
I0913 18:05:40.602169 20827 layer_factory.hpp:77] Creating layer pool2/3x3_s2_pool2/3x3_s2_0_split
I0913 18:05:40.602179 20827 net.cpp:91] Creating Layer pool2/3x3_s2_pool2/3x3_s2_0_split
I0913 18:05:40.602185 20827 net.cpp:425] pool2/3x3_s2_pool2/3x3_s2_0_split <- pool2/3x3_s2
I0913 18:05:40.602191 20827 net.cpp:399] pool2/3x3_s2_pool2/3x3_s2_0_split -> pool2/3x3_s2_pool2/3x3_s2_0_split_0
I0913 18:05:40.602202 20827 net.cpp:399] pool2/3x3_s2_pool2/3x3_s2_0_split -> pool2/3x3_s2_pool2/3x3_s2_0_split_1
I0913 18:05:40.602211 20827 net.cpp:399] pool2/3x3_s2_pool2/3x3_s2_0_split -> pool2/3x3_s2_pool2/3x3_s2_0_split_2
I0913 18:05:40.602221 20827 net.cpp:399] pool2/3x3_s2_pool2/3x3_s2_0_split -> pool2/3x3_s2_pool2/3x3_s2_0_split_3
I0913 18:05:40.602293 20827 net.cpp:141] Setting up pool2/3x3_s2_pool2/3x3_s2_0_split
I0913 18:05:40.602303 20827 net.cpp:148] Top shape: 10 192 28 28 (1505280)
I0913 18:05:40.602309 20827 net.cpp:148] Top shape: 10 192 28 28 (1505280)
I0913 18:05:40.602315 20827 net.cpp:148] Top shape: 10 192 28 28 (1505280)
I0913 18:05:40.602322 20827 net.cpp:148] Top shape: 10 192 28 28 (1505280)
I0913 18:05:40.602326 20827 net.cpp:156] Memory required for data: 204718080
I0913 18:05:40.602332 20827 layer_factory.hpp:77] Creating layer inception_3a/1x1
I0913 18:05:40.602346 20827 net.cpp:91] Creating Layer inception_3a/1x1
I0913 18:05:40.602352 20827 net.cpp:425] inception_3a/1x1 <- pool2/3x3_s2_pool2/3x3_s2_0_split_0
I0913 18:05:40.602378 20827 net.cpp:399] inception_3a/1x1 -> inception_3a/1x1
I0913 18:05:40.604492 20827 net.cpp:141] Setting up inception_3a/1x1
I0913 18:05:40.604513 20827 net.cpp:148] Top shape: 10 64 28 28 (501760)
I0913 18:05:40.604519 20827 net.cpp:156] Memory required for data: 206725120
I0913 18:05:40.604531 20827 layer_factory.hpp:77] Creating layer inception_3a/relu_1x1
I0913 18:05:40.604544 20827 net.cpp:91] Creating Layer inception_3a/relu_1x1
I0913 18:05:40.604552 20827 net.cpp:425] inception_3a/relu_1x1 <- inception_3a/1x1
I0913 18:05:40.604562 20827 net.cpp:386] inception_3a/relu_1x1 -> inception_3a/1x1 (in-place)
I0913 18:05:40.604993 20827 net.cpp:141] Setting up inception_3a/relu_1x1
I0913 18:05:40.605007 20827 net.cpp:148] Top shape: 10 64 28 28 (501760)
I0913 18:05:40.605012 20827 net.cpp:156] Memory required for data: 208732160
I0913 18:05:40.605018 20827 layer_factory.hpp:77] Creating layer inception_3a/3x3_reduce
I0913 18:05:40.605036 20827 net.cpp:91] Creating Layer inception_3a/3x3_reduce
I0913 18:05:40.605041 20827 net.cpp:425] inception_3a/3x3_reduce <- pool2/3x3_s2_pool2/3x3_s2_0_split_1
I0913 18:05:40.605051 20827 net.cpp:399] inception_3a/3x3_reduce -> inception_3a/3x3_reduce
I0913 18:05:40.607733 20827 net.cpp:141] Setting up inception_3a/3x3_reduce
I0913 18:05:40.607753 20827 net.cpp:148] Top shape: 10 96 28 28 (752640)
I0913 18:05:40.607759 20827 net.cpp:156] Memory required for data: 211742720
I0913 18:05:40.607777 20827 layer_factory.hpp:77] Creating layer inception_3a/relu_3x3_reduce
I0913 18:05:40.607789 20827 net.cpp:91] Creating Layer inception_3a/relu_3x3_reduce
I0913 18:05:40.607795 20827 net.cpp:425] inception_3a/relu_3x3_reduce <- inception_3a/3x3_reduce
I0913 18:05:40.607802 20827 net.cpp:386] inception_3a/relu_3x3_reduce -> inception_3a/3x3_reduce (in-place)
I0913 18:05:40.608088 20827 net.cpp:141] Setting up inception_3a/relu_3x3_reduce
I0913 18:05:40.608108 20827 net.cpp:148] Top shape: 10 96 28 28 (752640)
I0913 18:05:40.608115 20827 net.cpp:156] Memory required for data: 214753280
I0913 18:05:40.608121 20827 layer_factory.hpp:77] Creating layer inception_3a/3x3
I0913 18:05:40.608140 20827 net.cpp:91] Creating Layer inception_3a/3x3
I0913 18:05:40.608147 20827 net.cpp:425] inception_3a/3x3 <- inception_3a/3x3_reduce
I0913 18:05:40.608161 20827 net.cpp:399] inception_3a/3x3 -> inception_3a/3x3
I0913 18:05:40.610622 20827 net.cpp:141] Setting up inception_3a/3x3
I0913 18:05:40.610641 20827 net.cpp:148] Top shape: 10 128 28 28 (1003520)
I0913 18:05:40.610647 20827 net.cpp:156] Memory required for data: 218767360
I0913 18:05:40.610657 20827 layer_factory.hpp:77] Creating layer inception_3a/relu_3x3
I0913 18:05:40.610667 20827 net.cpp:91] Creating Layer inception_3a/relu_3x3
I0913 18:05:40.610674 20827 net.cpp:425] inception_3a/relu_3x3 <- inception_3a/3x3
I0913 18:05:40.610687 20827 net.cpp:386] inception_3a/relu_3x3 -> inception_3a/3x3 (in-place)
I0913 18:05:40.611135 20827 net.cpp:141] Setting up inception_3a/relu_3x3
I0913 18:05:40.611148 20827 net.cpp:148] Top shape: 10 128 28 28 (1003520)
I0913 18:05:40.611153 20827 net.cpp:156] Memory required for data: 222781440
I0913 18:05:40.611160 20827 layer_factory.hpp:77] Creating layer inception_3a/5x5_reduce
I0913 18:05:40.611177 20827 net.cpp:91] Creating Layer inception_3a/5x5_reduce
I0913 18:05:40.611184 20827 net.cpp:425] inception_3a/5x5_reduce <- pool2/3x3_s2_pool2/3x3_s2_0_split_2
I0913 18:05:40.611197 20827 net.cpp:399] inception_3a/5x5_reduce -> inception_3a/5x5_reduce
I0913 18:05:40.612601 20827 net.cpp:141] Setting up inception_3a/5x5_reduce
I0913 18:05:40.612619 20827 net.cpp:148] Top shape: 10 16 28 28 (125440)
I0913 18:05:40.612625 20827 net.cpp:156] Memory required for data: 223283200
I0913 18:05:40.612635 20827 layer_factory.hpp:77] Creating layer inception_3a/relu_5x5_reduce
I0913 18:05:40.612649 20827 net.cpp:91] Creating Layer inception_3a/relu_5x5_reduce
I0913 18:05:40.612656 20827 net.cpp:425] inception_3a/relu_5x5_reduce <- inception_3a/5x5_reduce
I0913 18:05:40.612664 20827 net.cpp:386] inception_3a/relu_5x5_reduce -> inception_3a/5x5_reduce (in-place)
I0913 18:05:40.613100 20827 net.cpp:141] Setting up inception_3a/relu_5x5_reduce
I0913 18:05:40.613113 20827 net.cpp:148] Top shape: 10 16 28 28 (125440)
I0913 18:05:40.613118 20827 net.cpp:156] Memory required for data: 223784960
I0913 18:05:40.613124 20827 layer_factory.hpp:77] Creating layer inception_3a/5x5
I0913 18:05:40.613144 20827 net.cpp:91] Creating Layer inception_3a/5x5
I0913 18:05:40.613152 20827 net.cpp:425] inception_3a/5x5 <- inception_3a/5x5_reduce
I0913 18:05:40.613162 20827 net.cpp:399] inception_3a/5x5 -> inception_3a/5x5
I0913 18:05:40.615314 20827 net.cpp:141] Setting up inception_3a/5x5
I0913 18:05:40.615334 20827 net.cpp:148] Top shape: 10 32 28 28 (250880)
I0913 18:05:40.615341 20827 net.cpp:156] Memory required for data: 224788480
I0913 18:05:40.615355 20827 layer_factory.hpp:77] Creating layer inception_3a/relu_5x5
I0913 18:05:40.615365 20827 net.cpp:91] Creating Layer inception_3a/relu_5x5
I0913 18:05:40.615371 20827 net.cpp:425] inception_3a/relu_5x5 <- inception_3a/5x5
I0913 18:05:40.615382 20827 net.cpp:386] inception_3a/relu_5x5 -> inception_3a/5x5 (in-place)
I0913 18:05:40.615643 20827 net.cpp:141] Setting up inception_3a/relu_5x5
I0913 18:05:40.615656 20827 net.cpp:148] Top shape: 10 32 28 28 (250880)
I0913 18:05:40.615663 20827 net.cpp:156] Memory required for data: 225792000
I0913 18:05:40.615669 20827 layer_factory.hpp:77] Creating layer inception_3a/pool
I0913 18:05:40.615682 20827 net.cpp:91] Creating Layer inception_3a/pool
I0913 18:05:40.615689 20827 net.cpp:425] inception_3a/pool <- pool2/3x3_s2_pool2/3x3_s2_0_split_3
I0913 18:05:40.615697 20827 net.cpp:399] inception_3a/pool -> inception_3a/pool
I0913 18:05:40.615767 20827 net.cpp:141] Setting up inception_3a/pool
I0913 18:05:40.615777 20827 net.cpp:148] Top shape: 10 192 28 28 (1505280)
I0913 18:05:40.615782 20827 net.cpp:156] Memory required for data: 231813120
I0913 18:05:40.615787 20827 layer_factory.hpp:77] Creating layer inception_3a/pool_proj
I0913 18:05:40.615803 20827 net.cpp:91] Creating Layer inception_3a/pool_proj
I0913 18:05:40.615809 20827 net.cpp:425] inception_3a/pool_proj <- inception_3a/pool
I0913 18:05:40.615823 20827 net.cpp:399] inception_3a/pool_proj -> inception_3a/pool_proj
I0913 18:05:40.617379 20827 net.cpp:141] Setting up inception_3a/pool_proj
I0913 18:05:40.617398 20827 net.cpp:148] Top shape: 10 32 28 28 (250880)
I0913 18:05:40.617404 20827 net.cpp:156] Memory required for data: 232816640
I0913 18:05:40.617421 20827 layer_factory.hpp:77] Creating layer inception_3a/relu_pool_proj
I0913 18:05:40.617431 20827 net.cpp:91] Creating Layer inception_3a/relu_pool_proj
I0913 18:05:40.617437 20827 net.cpp:425] inception_3a/relu_pool_proj <- inception_3a/pool_proj
I0913 18:05:40.617449 20827 net.cpp:386] inception_3a/relu_pool_proj -> inception_3a/pool_proj (in-place)
I0913 18:05:40.617897 20827 net.cpp:141] Setting up inception_3a/relu_pool_proj
I0913 18:05:40.617910 20827 net.cpp:148] Top shape: 10 32 28 28 (250880)
I0913 18:05:40.617916 20827 net.cpp:156] Memory required for data: 233820160
I0913 18:05:40.617921 20827 layer_factory.hpp:77] Creating layer inception_3a/output
I0913 18:05:40.617943 20827 net.cpp:91] Creating Layer inception_3a/output
I0913 18:05:40.617949 20827 net.cpp:425] inception_3a/output <- inception_3a/1x1
I0913 18:05:40.617955 20827 net.cpp:425] inception_3a/output <- inception_3a/3x3
I0913 18:05:40.617961 20827 net.cpp:425] inception_3a/output <- inception_3a/5x5
I0913 18:05:40.617967 20827 net.cpp:425] inception_3a/output <- inception_3a/pool_proj
I0913 18:05:40.617980 20827 net.cpp:399] inception_3a/output -> inception_3a/output
I0913 18:05:40.618023 20827 net.cpp:141] Setting up inception_3a/output
I0913 18:05:40.618037 20827 net.cpp:148] Top shape: 10 256 28 28 (2007040)
I0913 18:05:40.618042 20827 net.cpp:156] Memory required for data: 241848320
I0913 18:05:40.618048 20827 layer_factory.hpp:77] Creating layer inception_3a/output_inception_3a/output_0_split
I0913 18:05:40.618062 20827 net.cpp:91] Creating Layer inception_3a/output_inception_3a/output_0_split
I0913 18:05:40.618067 20827 net.cpp:425] inception_3a/output_inception_3a/output_0_split <- inception_3a/output
I0913 18:05:40.618073 20827 net.cpp:399] inception_3a/output_inception_3a/output_0_split -> inception_3a/output_inception_3a/output_0_split_0
I0913 18:05:40.618083 20827 net.cpp:399] inception_3a/output_inception_3a/output_0_split -> inception_3a/output_inception_3a/output_0_split_1
I0913 18:05:40.618096 20827 net.cpp:399] inception_3a/output_inception_3a/output_0_split -> inception_3a/output_inception_3a/output_0_split_2
I0913 18:05:40.618106 20827 net.cpp:399] inception_3a/output_inception_3a/output_0_split -> inception_3a/output_inception_3a/output_0_split_3
I0913 18:05:40.618204 20827 net.cpp:141] Setting up inception_3a/output_inception_3a/output_0_split
I0913 18:05:40.618214 20827 net.cpp:148] Top shape: 10 256 28 28 (2007040)
I0913 18:05:40.618221 20827 net.cpp:148] Top shape: 10 256 28 28 (2007040)
I0913 18:05:40.618227 20827 net.cpp:148] Top shape: 10 256 28 28 (2007040)
I0913 18:05:40.618233 20827 net.cpp:148] Top shape: 10 256 28 28 (2007040)
I0913 18:05:40.618237 20827 net.cpp:156] Memory required for data: 273960960
I0913 18:05:40.618242 20827 layer_factory.hpp:77] Creating layer inception_3b/1x1
I0913 18:05:40.618260 20827 net.cpp:91] Creating Layer inception_3b/1x1
I0913 18:05:40.618268 20827 net.cpp:425] inception_3b/1x1 <- inception_3a/output_inception_3a/output_0_split_0
I0913 18:05:40.618278 20827 net.cpp:399] inception_3b/1x1 -> inception_3b/1x1
I0913 18:05:40.619885 20827 net.cpp:141] Setting up inception_3b/1x1
I0913 18:05:40.619901 20827 net.cpp:148] Top shape: 10 128 28 28 (1003520)
I0913 18:05:40.619906 20827 net.cpp:156] Memory required for data: 277975040
I0913 18:05:40.619916 20827 layer_factory.hpp:77] Creating layer inception_3b/relu_1x1
I0913 18:05:40.619930 20827 net.cpp:91] Creating Layer inception_3b/relu_1x1
I0913 18:05:40.619937 20827 net.cpp:425] inception_3b/relu_1x1 <- inception_3b/1x1
I0913 18:05:40.619946 20827 net.cpp:386] inception_3b/relu_1x1 -> inception_3b/1x1 (in-place)
I0913 18:05:40.620398 20827 net.cpp:141] Setting up inception_3b/relu_1x1
I0913 18:05:40.620412 20827 net.cpp:148] Top shape: 10 128 28 28 (1003520)
I0913 18:05:40.620417 20827 net.cpp:156] Memory required for data: 281989120
I0913 18:05:40.620424 20827 layer_factory.hpp:77] Creating layer inception_3b/3x3_reduce
I0913 18:05:40.620445 20827 net.cpp:91] Creating Layer inception_3b/3x3_reduce
I0913 18:05:40.620450 20827 net.cpp:425] inception_3b/3x3_reduce <- inception_3a/output_inception_3a/output_0_split_1
I0913 18:05:40.620460 20827 net.cpp:399] inception_3b/3x3_reduce -> inception_3b/3x3_reduce
I0913 18:05:40.622292 20827 net.cpp:141] Setting up inception_3b/3x3_reduce
I0913 18:05:40.622311 20827 net.cpp:148] Top shape: 10 128 28 28 (1003520)
I0913 18:05:40.622318 20827 net.cpp:156] Memory required for data: 286003200
I0913 18:05:40.622326 20827 layer_factory.hpp:77] Creating layer inception_3b/relu_3x3_reduce
I0913 18:05:40.622336 20827 net.cpp:91] Creating Layer inception_3b/relu_3x3_reduce
I0913 18:05:40.622342 20827 net.cpp:425] inception_3b/relu_3x3_reduce <- inception_3b/3x3_reduce
I0913 18:05:40.622354 20827 net.cpp:386] inception_3b/relu_3x3_reduce -> inception_3b/3x3_reduce (in-place)
I0913 18:05:40.622612 20827 net.cpp:141] Setting up inception_3b/relu_3x3_reduce
I0913 18:05:40.622625 20827 net.cpp:148] Top shape: 10 128 28 28 (1003520)
I0913 18:05:40.622630 20827 net.cpp:156] Memory required for data: 290017280
I0913 18:05:40.622637 20827 layer_factory.hpp:77] Creating layer inception_3b/3x3
I0913 18:05:40.622655 20827 net.cpp:91] Creating Layer inception_3b/3x3
I0913 18:05:40.622663 20827 net.cpp:425] inception_3b/3x3 <- inception_3b/3x3_reduce
I0913 18:05:40.622671 20827 net.cpp:399] inception_3b/3x3 -> inception_3b/3x3
I0913 18:05:40.626888 20827 net.cpp:141] Setting up inception_3b/3x3
I0913 18:05:40.626909 20827 net.cpp:148] Top shape: 10 192 28 28 (1505280)
I0913 18:05:40.626914 20827 net.cpp:156] Memory required for data: 296038400
I0913 18:05:40.626924 20827 layer_factory.hpp:77] Creating layer inception_3b/relu_3x3
I0913 18:05:40.626937 20827 net.cpp:91] Creating Layer inception_3b/relu_3x3
I0913 18:05:40.626945 20827 net.cpp:425] inception_3b/relu_3x3 <- inception_3b/3x3
I0913 18:05:40.626956 20827 net.cpp:386] inception_3b/relu_3x3 -> inception_3b/3x3 (in-place)
I0913 18:05:40.627408 20827 net.cpp:141] Setting up inception_3b/relu_3x3
I0913 18:05:40.627423 20827 net.cpp:148] Top shape: 10 192 28 28 (1505280)
I0913 18:05:40.627427 20827 net.cpp:156] Memory required for data: 302059520
I0913 18:05:40.627434 20827 layer_factory.hpp:77] Creating layer inception_3b/5x5_reduce
I0913 18:05:40.627454 20827 net.cpp:91] Creating Layer inception_3b/5x5_reduce
I0913 18:05:40.627460 20827 net.cpp:425] inception_3b/5x5_reduce <- inception_3a/output_inception_3a/output_0_split_2
I0913 18:05:40.627470 20827 net.cpp:399] inception_3b/5x5_reduce -> inception_3b/5x5_reduce
I0913 18:05:40.628898 20827 net.cpp:141] Setting up inception_3b/5x5_reduce
I0913 18:05:40.628918 20827 net.cpp:148] Top shape: 10 32 28 28 (250880)
I0913 18:05:40.628923 20827 net.cpp:156] Memory required for data: 303063040
I0913 18:05:40.628933 20827 layer_factory.hpp:77] Creating layer inception_3b/relu_5x5_reduce
I0913 18:05:40.628947 20827 net.cpp:91] Creating Layer inception_3b/relu_5x5_reduce
I0913 18:05:40.628955 20827 net.cpp:425] inception_3b/relu_5x5_reduce <- inception_3b/5x5_reduce
I0913 18:05:40.628963 20827 net.cpp:386] inception_3b/relu_5x5_reduce -> inception_3b/5x5_reduce (in-place)
I0913 18:05:40.629400 20827 net.cpp:141] Setting up inception_3b/relu_5x5_reduce
I0913 18:05:40.629413 20827 net.cpp:148] Top shape: 10 32 28 28 (250880)
I0913 18:05:40.629420 20827 net.cpp:156] Memory required for data: 304066560
I0913 18:05:40.629426 20827 layer_factory.hpp:77] Creating layer inception_3b/5x5
I0913 18:05:40.629444 20827 net.cpp:91] Creating Layer inception_3b/5x5
I0913 18:05:40.629451 20827 net.cpp:425] inception_3b/5x5 <- inception_3b/5x5_reduce
I0913 18:05:40.629462 20827 net.cpp:399] inception_3b/5x5 -> inception_3b/5x5
I0913 18:05:40.632405 20827 net.cpp:141] Setting up inception_3b/5x5
I0913 18:05:40.632426 20827 net.cpp:148] Top shape: 10 96 28 28 (752640)
I0913 18:05:40.632431 20827 net.cpp:156] Memory required for data: 307077120
I0913 18:05:40.632441 20827 layer_factory.hpp:77] Creating layer inception_3b/relu_5x5
I0913 18:05:40.632455 20827 net.cpp:91] Creating Layer inception_3b/relu_5x5
I0913 18:05:40.632463 20827 net.cpp:425] inception_3b/relu_5x5 <- inception_3b/5x5
I0913 18:05:40.632472 20827 net.cpp:386] inception_3b/relu_5x5 -> inception_3b/5x5 (in-place)
I0913 18:05:40.632730 20827 net.cpp:141] Setting up inception_3b/relu_5x5
I0913 18:05:40.632742 20827 net.cpp:148] Top shape: 10 96 28 28 (752640)
I0913 18:05:40.632747 20827 net.cpp:156] Memory required for data: 310087680
I0913 18:05:40.632752 20827 layer_factory.hpp:77] Creating layer inception_3b/pool
I0913 18:05:40.632763 20827 net.cpp:91] Creating Layer inception_3b/pool
I0913 18:05:40.632768 20827 net.cpp:425] inception_3b/pool <- inception_3a/output_inception_3a/output_0_split_3
I0913 18:05:40.632781 20827 net.cpp:399] inception_3b/pool -> inception_3b/pool
I0913 18:05:40.632846 20827 net.cpp:141] Setting up inception_3b/pool
I0913 18:05:40.632856 20827 net.cpp:148] Top shape: 10 256 28 28 (2007040)
I0913 18:05:40.632861 20827 net.cpp:156] Memory required for data: 318115840
I0913 18:05:40.632868 20827 layer_factory.hpp:77] Creating layer inception_3b/pool_proj
I0913 18:05:40.632886 20827 net.cpp:91] Creating Layer inception_3b/pool_proj
I0913 18:05:40.632894 20827 net.cpp:425] inception_3b/pool_proj <- inception_3b/pool
I0913 18:05:40.632902 20827 net.cpp:399] inception_3b/pool_proj -> inception_3b/pool_proj
I0913 18:05:40.634588 20827 net.cpp:141] Setting up inception_3b/pool_proj
I0913 18:05:40.634606 20827 net.cpp:148] Top shape: 10 64 28 28 (501760)
I0913 18:05:40.634613 20827 net.cpp:156] Memory required for data: 320122880
I0913 18:05:40.634623 20827 layer_factory.hpp:77] Creating layer inception_3b/relu_pool_proj
I0913 18:05:40.634635 20827 net.cpp:91] Creating Layer inception_3b/relu_pool_proj
I0913 18:05:40.634642 20827 net.cpp:425] inception_3b/relu_pool_proj <- inception_3b/pool_proj
I0913 18:05:40.634652 20827 net.cpp:386] inception_3b/relu_pool_proj -> inception_3b/pool_proj (in-place)
I0913 18:05:40.635098 20827 net.cpp:141] Setting up inception_3b/relu_pool_proj
I0913 18:05:40.635113 20827 net.cpp:148] Top shape: 10 64 28 28 (501760)
I0913 18:05:40.635118 20827 net.cpp:156] Memory required for data: 322129920
I0913 18:05:40.635123 20827 layer_factory.hpp:77] Creating layer inception_3b/output
I0913 18:05:40.635134 20827 net.cpp:91] Creating Layer inception_3b/output
I0913 18:05:40.635140 20827 net.cpp:425] inception_3b/output <- inception_3b/1x1
I0913 18:05:40.635146 20827 net.cpp:425] inception_3b/output <- inception_3b/3x3
I0913 18:05:40.635152 20827 net.cpp:425] inception_3b/output <- inception_3b/5x5
I0913 18:05:40.635159 20827 net.cpp:425] inception_3b/output <- inception_3b/pool_proj
I0913 18:05:40.635169 20827 net.cpp:399] inception_3b/output -> inception_3b/output
I0913 18:05:40.635212 20827 net.cpp:141] Setting up inception_3b/output
I0913 18:05:40.635222 20827 net.cpp:148] Top shape: 10 480 28 28 (3763200)
I0913 18:05:40.635227 20827 net.cpp:156] Memory required for data: 337182720
I0913 18:05:40.635232 20827 layer_factory.hpp:77] Creating layer pool3/3x3_s2
I0913 18:05:40.635246 20827 net.cpp:91] Creating Layer pool3/3x3_s2
I0913 18:05:40.635253 20827 net.cpp:425] pool3/3x3_s2 <- inception_3b/output
I0913 18:05:40.635262 20827 net.cpp:399] pool3/3x3_s2 -> pool3/3x3_s2
I0913 18:05:40.635327 20827 net.cpp:141] Setting up pool3/3x3_s2
I0913 18:05:40.635340 20827 net.cpp:148] Top shape: 10 480 14 14 (940800)
I0913 18:05:40.635346 20827 net.cpp:156] Memory required for data: 340945920
I0913 18:05:40.635351 20827 layer_factory.hpp:77] Creating layer pool3/3x3_s2_pool3/3x3_s2_0_split
I0913 18:05:40.635361 20827 net.cpp:91] Creating Layer pool3/3x3_s2_pool3/3x3_s2_0_split
I0913 18:05:40.635366 20827 net.cpp:425] pool3/3x3_s2_pool3/3x3_s2_0_split <- pool3/3x3_s2
I0913 18:05:40.635373 20827 net.cpp:399] pool3/3x3_s2_pool3/3x3_s2_0_split -> pool3/3x3_s2_pool3/3x3_s2_0_split_0
I0913 18:05:40.635383 20827 net.cpp:399] pool3/3x3_s2_pool3/3x3_s2_0_split -> pool3/3x3_s2_pool3/3x3_s2_0_split_1
I0913 18:05:40.635392 20827 net.cpp:399] pool3/3x3_s2_pool3/3x3_s2_0_split -> pool3/3x3_s2_pool3/3x3_s2_0_split_2
I0913 18:05:40.635404 20827 net.cpp:399] pool3/3x3_s2_pool3/3x3_s2_0_split -> pool3/3x3_s2_pool3/3x3_s2_0_split_3
I0913 18:05:40.635498 20827 net.cpp:141] Setting up pool3/3x3_s2_pool3/3x3_s2_0_split
I0913 18:05:40.635507 20827 net.cpp:148] Top shape: 10 480 14 14 (940800)
I0913 18:05:40.635514 20827 net.cpp:148] Top shape: 10 480 14 14 (940800)
I0913 18:05:40.635520 20827 net.cpp:148] Top shape: 10 480 14 14 (940800)
I0913 18:05:40.635526 20827 net.cpp:148] Top shape: 10 480 14 14 (940800)
I0913 18:05:40.635530 20827 net.cpp:156] Memory required for data: 355998720
I0913 18:05:40.635535 20827 layer_factory.hpp:77] Creating layer inception_4a/1x1
I0913 18:05:40.635552 20827 net.cpp:91] Creating Layer inception_4a/1x1
I0913 18:05:40.635560 20827 net.cpp:425] inception_4a/1x1 <- pool3/3x3_s2_pool3/3x3_s2_0_split_0
I0913 18:05:40.635571 20827 net.cpp:399] inception_4a/1x1 -> inception_4a/1x1
I0913 18:05:40.637982 20827 net.cpp:141] Setting up inception_4a/1x1
I0913 18:05:40.638002 20827 net.cpp:148] Top shape: 10 192 14 14 (376320)
I0913 18:05:40.638007 20827 net.cpp:156] Memory required for data: 357504000
I0913 18:05:40.638017 20827 layer_factory.hpp:77] Creating layer inception_4a/relu_1x1
I0913 18:05:40.638030 20827 net.cpp:91] Creating Layer inception_4a/relu_1x1
I0913 18:05:40.638036 20827 net.cpp:425] inception_4a/relu_1x1 <- inception_4a/1x1
I0913 18:05:40.638044 20827 net.cpp:386] inception_4a/relu_1x1 -> inception_4a/1x1 (in-place)
I0913 18:05:40.638489 20827 net.cpp:141] Setting up inception_4a/relu_1x1
I0913 18:05:40.638502 20827 net.cpp:148] Top shape: 10 192 14 14 (376320)
I0913 18:05:40.638509 20827 net.cpp:156] Memory required for data: 359009280
I0913 18:05:40.638514 20827 layer_factory.hpp:77] Creating layer inception_4a/3x3_reduce
I0913 18:05:40.638530 20827 net.cpp:91] Creating Layer inception_4a/3x3_reduce
I0913 18:05:40.638542 20827 net.cpp:425] inception_4a/3x3_reduce <- pool3/3x3_s2_pool3/3x3_s2_0_split_1
I0913 18:05:40.638556 20827 net.cpp:399] inception_4a/3x3_reduce -> inception_4a/3x3_reduce
I0913 18:05:40.640640 20827 net.cpp:141] Setting up inception_4a/3x3_reduce
I0913 18:05:40.640683 20827 net.cpp:148] Top shape: 10 96 14 14 (188160)
I0913 18:05:40.640689 20827 net.cpp:156] Memory required for data: 359761920
I0913 18:05:40.640713 20827 layer_factory.hpp:77] Creating layer inception_4a/relu_3x3_reduce
I0913 18:05:40.640734 20827 net.cpp:91] Creating Layer inception_4a/relu_3x3_reduce
I0913 18:05:40.640743 20827 net.cpp:425] inception_4a/relu_3x3_reduce <- inception_4a/3x3_reduce
I0913 18:05:40.640753 20827 net.cpp:386] inception_4a/relu_3x3_reduce -> inception_4a/3x3_reduce (in-place)
I0913 18:05:40.641021 20827 net.cpp:141] Setting up inception_4a/relu_3x3_reduce
I0913 18:05:40.641033 20827 net.cpp:148] Top shape: 10 96 14 14 (188160)
I0913 18:05:40.641038 20827 net.cpp:156] Memory required for data: 360514560
I0913 18:05:40.641044 20827 layer_factory.hpp:77] Creating layer inception_4a/3x3
I0913 18:05:40.641067 20827 net.cpp:91] Creating Layer inception_4a/3x3
I0913 18:05:40.641074 20827 net.cpp:425] inception_4a/3x3 <- inception_4a/3x3_reduce
I0913 18:05:40.641088 20827 net.cpp:399] inception_4a/3x3 -> inception_4a/3x3
I0913 18:05:40.645012 20827 net.cpp:141] Setting up inception_4a/3x3
I0913 18:05:40.645030 20827 net.cpp:148] Top shape: 10 208 14 14 (407680)
I0913 18:05:40.645035 20827 net.cpp:156] Memory required for data: 362145280
I0913 18:05:40.645045 20827 layer_factory.hpp:77] Creating layer inception_4a/relu_3x3
I0913 18:05:40.645056 20827 net.cpp:91] Creating Layer inception_4a/relu_3x3
I0913 18:05:40.645062 20827 net.cpp:425] inception_4a/relu_3x3 <- inception_4a/3x3
I0913 18:05:40.645074 20827 net.cpp:386] inception_4a/relu_3x3 -> inception_4a/3x3 (in-place)
I0913 18:05:40.645529 20827 net.cpp:141] Setting up inception_4a/relu_3x3
I0913 18:05:40.645544 20827 net.cpp:148] Top shape: 10 208 14 14 (407680)
I0913 18:05:40.645550 20827 net.cpp:156] Memory required for data: 363776000
I0913 18:05:40.645555 20827 layer_factory.hpp:77] Creating layer inception_4a/5x5_reduce
I0913 18:05:40.645572 20827 net.cpp:91] Creating Layer inception_4a/5x5_reduce
I0913 18:05:40.645581 20827 net.cpp:425] inception_4a/5x5_reduce <- pool3/3x3_s2_pool3/3x3_s2_0_split_2
I0913 18:05:40.645593 20827 net.cpp:399] inception_4a/5x5_reduce -> inception_4a/5x5_reduce
I0913 18:05:40.647073 20827 net.cpp:141] Setting up inception_4a/5x5_reduce
I0913 18:05:40.647091 20827 net.cpp:148] Top shape: 10 16 14 14 (31360)
I0913 18:05:40.647097 20827 net.cpp:156] Memory required for data: 363901440
I0913 18:05:40.647109 20827 layer_factory.hpp:77] Creating layer inception_4a/relu_5x5_reduce
I0913 18:05:40.647122 20827 net.cpp:91] Creating Layer inception_4a/relu_5x5_reduce
I0913 18:05:40.647130 20827 net.cpp:425] inception_4a/relu_5x5_reduce <- inception_4a/5x5_reduce
I0913 18:05:40.647137 20827 net.cpp:386] inception_4a/relu_5x5_reduce -> inception_4a/5x5_reduce (in-place)
I0913 18:05:40.647584 20827 net.cpp:141] Setting up inception_4a/relu_5x5_reduce
I0913 18:05:40.647598 20827 net.cpp:148] Top shape: 10 16 14 14 (31360)
I0913 18:05:40.647603 20827 net.cpp:156] Memory required for data: 364026880
I0913 18:05:40.647609 20827 layer_factory.hpp:77] Creating layer inception_4a/5x5
I0913 18:05:40.647629 20827 net.cpp:91] Creating Layer inception_4a/5x5
I0913 18:05:40.647636 20827 net.cpp:425] inception_4a/5x5 <- inception_4a/5x5_reduce
I0913 18:05:40.647646 20827 net.cpp:399] inception_4a/5x5 -> inception_4a/5x5
I0913 18:05:40.649368 20827 net.cpp:141] Setting up inception_4a/5x5
I0913 18:05:40.649386 20827 net.cpp:148] Top shape: 10 48 14 14 (94080)
I0913 18:05:40.649392 20827 net.cpp:156] Memory required for data: 364403200
I0913 18:05:40.649401 20827 layer_factory.hpp:77] Creating layer inception_4a/relu_5x5
I0913 18:05:40.649416 20827 net.cpp:91] Creating Layer inception_4a/relu_5x5
I0913 18:05:40.649423 20827 net.cpp:425] inception_4a/relu_5x5 <- inception_4a/5x5
I0913 18:05:40.649431 20827 net.cpp:386] inception_4a/relu_5x5 -> inception_4a/5x5 (in-place)
I0913 18:05:40.649696 20827 net.cpp:141] Setting up inception_4a/relu_5x5
I0913 18:05:40.649709 20827 net.cpp:148] Top shape: 10 48 14 14 (94080)
I0913 18:05:40.649714 20827 net.cpp:156] Memory required for data: 364779520
I0913 18:05:40.649720 20827 layer_factory.hpp:77] Creating layer inception_4a/pool
I0913 18:05:40.649732 20827 net.cpp:91] Creating Layer inception_4a/pool
I0913 18:05:40.649739 20827 net.cpp:425] inception_4a/pool <- pool3/3x3_s2_pool3/3x3_s2_0_split_3
I0913 18:05:40.649750 20827 net.cpp:399] inception_4a/pool -> inception_4a/pool
I0913 18:05:40.649829 20827 net.cpp:141] Setting up inception_4a/pool
I0913 18:05:40.649839 20827 net.cpp:148] Top shape: 10 480 14 14 (940800)
I0913 18:05:40.649844 20827 net.cpp:156] Memory required for data: 368542720
I0913 18:05:40.649850 20827 layer_factory.hpp:77] Creating layer inception_4a/pool_proj
I0913 18:05:40.649869 20827 net.cpp:91] Creating Layer inception_4a/pool_proj
I0913 18:05:40.649876 20827 net.cpp:425] inception_4a/pool_proj <- inception_4a/pool
I0913 18:05:40.649886 20827 net.cpp:399] inception_4a/pool_proj -> inception_4a/pool_proj
I0913 18:05:40.651710 20827 net.cpp:141] Setting up inception_4a/pool_proj
I0913 18:05:40.651732 20827 net.cpp:148] Top shape: 10 64 14 14 (125440)
I0913 18:05:40.651738 20827 net.cpp:156] Memory required for data: 369044480
I0913 18:05:40.651748 20827 layer_factory.hpp:77] Creating layer inception_4a/relu_pool_proj
I0913 18:05:40.651758 20827 net.cpp:91] Creating Layer inception_4a/relu_pool_proj
I0913 18:05:40.651764 20827 net.cpp:425] inception_4a/relu_pool_proj <- inception_4a/pool_proj
I0913 18:05:40.651773 20827 net.cpp:386] inception_4a/relu_pool_proj -> inception_4a/pool_proj (in-place)
I0913 18:05:40.652228 20827 net.cpp:141] Setting up inception_4a/relu_pool_proj
I0913 18:05:40.652243 20827 net.cpp:148] Top shape: 10 64 14 14 (125440)
I0913 18:05:40.652248 20827 net.cpp:156] Memory required for data: 369546240
I0913 18:05:40.652254 20827 layer_factory.hpp:77] Creating layer inception_4a/output
I0913 18:05:40.652264 20827 net.cpp:91] Creating Layer inception_4a/output
I0913 18:05:40.652271 20827 net.cpp:425] inception_4a/output <- inception_4a/1x1
I0913 18:05:40.652277 20827 net.cpp:425] inception_4a/output <- inception_4a/3x3
I0913 18:05:40.652283 20827 net.cpp:425] inception_4a/output <- inception_4a/5x5
I0913 18:05:40.652289 20827 net.cpp:425] inception_4a/output <- inception_4a/pool_proj
I0913 18:05:40.652297 20827 net.cpp:399] inception_4a/output -> inception_4a/output
I0913 18:05:40.652349 20827 net.cpp:141] Setting up inception_4a/output
I0913 18:05:40.652360 20827 net.cpp:148] Top shape: 10 512 14 14 (1003520)
I0913 18:05:40.652365 20827 net.cpp:156] Memory required for data: 373560320
I0913 18:05:40.652371 20827 layer_factory.hpp:77] Creating layer inception_4a/output_inception_4a/output_0_split
I0913 18:05:40.652384 20827 net.cpp:91] Creating Layer inception_4a/output_inception_4a/output_0_split
I0913 18:05:40.652390 20827 net.cpp:425] inception_4a/output_inception_4a/output_0_split <- inception_4a/output
I0913 18:05:40.652397 20827 net.cpp:399] inception_4a/output_inception_4a/output_0_split -> inception_4a/output_inception_4a/output_0_split_0
I0913 18:05:40.652407 20827 net.cpp:399] inception_4a/output_inception_4a/output_0_split -> inception_4a/output_inception_4a/output_0_split_1
I0913 18:05:40.652416 20827 net.cpp:399] inception_4a/output_inception_4a/output_0_split -> inception_4a/output_inception_4a/output_0_split_2
I0913 18:05:40.652426 20827 net.cpp:399] inception_4a/output_inception_4a/output_0_split -> inception_4a/output_inception_4a/output_0_split_3
I0913 18:05:40.652523 20827 net.cpp:141] Setting up inception_4a/output_inception_4a/output_0_split
I0913 18:05:40.652532 20827 net.cpp:148] Top shape: 10 512 14 14 (1003520)
I0913 18:05:40.652539 20827 net.cpp:148] Top shape: 10 512 14 14 (1003520)
I0913 18:05:40.652545 20827 net.cpp:148] Top shape: 10 512 14 14 (1003520)
I0913 18:05:40.652551 20827 net.cpp:148] Top shape: 10 512 14 14 (1003520)
I0913 18:05:40.652556 20827 net.cpp:156] Memory required for data: 389616640
I0913 18:05:40.652561 20827 layer_factory.hpp:77] Creating layer inception_4b/1x1
I0913 18:05:40.652577 20827 net.cpp:91] Creating Layer inception_4b/1x1
I0913 18:05:40.652585 20827 net.cpp:425] inception_4b/1x1 <- inception_4a/output_inception_4a/output_0_split_0
I0913 18:05:40.652595 20827 net.cpp:399] inception_4b/1x1 -> inception_4b/1x1
I0913 18:05:40.654700 20827 net.cpp:141] Setting up inception_4b/1x1
I0913 18:05:40.654726 20827 net.cpp:148] Top shape: 10 160 14 14 (313600)
I0913 18:05:40.654731 20827 net.cpp:156] Memory required for data: 390871040
I0913 18:05:40.654742 20827 layer_factory.hpp:77] Creating layer inception_4b/relu_1x1
I0913 18:05:40.654773 20827 net.cpp:91] Creating Layer inception_4b/relu_1x1
I0913 18:05:40.654783 20827 net.cpp:425] inception_4b/relu_1x1 <- inception_4b/1x1
I0913 18:05:40.654790 20827 net.cpp:386] inception_4b/relu_1x1 -> inception_4b/1x1 (in-place)
I0913 18:05:40.655241 20827 net.cpp:141] Setting up inception_4b/relu_1x1
I0913 18:05:40.655256 20827 net.cpp:148] Top shape: 10 160 14 14 (313600)
I0913 18:05:40.655261 20827 net.cpp:156] Memory required for data: 392125440
I0913 18:05:40.655267 20827 layer_factory.hpp:77] Creating layer inception_4b/3x3_reduce
I0913 18:05:40.655287 20827 net.cpp:91] Creating Layer inception_4b/3x3_reduce
I0913 18:05:40.655293 20827 net.cpp:425] inception_4b/3x3_reduce <- inception_4a/output_inception_4a/output_0_split_1
I0913 18:05:40.655303 20827 net.cpp:399] inception_4b/3x3_reduce -> inception_4b/3x3_reduce
I0913 18:05:40.657428 20827 net.cpp:141] Setting up inception_4b/3x3_reduce
I0913 18:05:40.657449 20827 net.cpp:148] Top shape: 10 112 14 14 (219520)
I0913 18:05:40.657454 20827 net.cpp:156] Memory required for data: 393003520
I0913 18:05:40.657464 20827 layer_factory.hpp:77] Creating layer inception_4b/relu_3x3_reduce
I0913 18:05:40.657479 20827 net.cpp:91] Creating Layer inception_4b/relu_3x3_reduce
I0913 18:05:40.657486 20827 net.cpp:425] inception_4b/relu_3x3_reduce <- inception_4b/3x3_reduce
I0913 18:05:40.657496 20827 net.cpp:386] inception_4b/relu_3x3_reduce -> inception_4b/3x3_reduce (in-place)
I0913 18:05:40.657762 20827 net.cpp:141] Setting up inception_4b/relu_3x3_reduce
I0913 18:05:40.657774 20827 net.cpp:148] Top shape: 10 112 14 14 (219520)
I0913 18:05:40.657780 20827 net.cpp:156] Memory required for data: 393881600
I0913 18:05:40.657785 20827 layer_factory.hpp:77] Creating layer inception_4b/3x3
I0913 18:05:40.657804 20827 net.cpp:91] Creating Layer inception_4b/3x3
I0913 18:05:40.657810 20827 net.cpp:425] inception_4b/3x3 <- inception_4b/3x3_reduce
I0913 18:05:40.657821 20827 net.cpp:399] inception_4b/3x3 -> inception_4b/3x3
I0913 18:05:40.662425 20827 net.cpp:141] Setting up inception_4b/3x3
I0913 18:05:40.662446 20827 net.cpp:148] Top shape: 10 224 14 14 (439040)
I0913 18:05:40.662452 20827 net.cpp:156] Memory required for data: 395637760
I0913 18:05:40.662462 20827 layer_factory.hpp:77] Creating layer inception_4b/relu_3x3
I0913 18:05:40.662477 20827 net.cpp:91] Creating Layer inception_4b/relu_3x3
I0913 18:05:40.662483 20827 net.cpp:425] inception_4b/relu_3x3 <- inception_4b/3x3
I0913 18:05:40.662492 20827 net.cpp:386] inception_4b/relu_3x3 -> inception_4b/3x3 (in-place)
I0913 18:05:40.662956 20827 net.cpp:141] Setting up inception_4b/relu_3x3
I0913 18:05:40.662971 20827 net.cpp:148] Top shape: 10 224 14 14 (439040)
I0913 18:05:40.662976 20827 net.cpp:156] Memory required for data: 397393920
I0913 18:05:40.662982 20827 layer_factory.hpp:77] Creating layer inception_4b/5x5_reduce
I0913 18:05:40.663012 20827 net.cpp:91] Creating Layer inception_4b/5x5_reduce
I0913 18:05:40.663018 20827 net.cpp:425] inception_4b/5x5_reduce <- inception_4a/output_inception_4a/output_0_split_2
I0913 18:05:40.663033 20827 net.cpp:399] inception_4b/5x5_reduce -> inception_4b/5x5_reduce
I0913 18:05:40.664598 20827 net.cpp:141] Setting up inception_4b/5x5_reduce
I0913 18:05:40.664618 20827 net.cpp:148] Top shape: 10 24 14 14 (47040)
I0913 18:05:40.664624 20827 net.cpp:156] Memory required for data: 397582080
I0913 18:05:40.664634 20827 layer_factory.hpp:77] Creating layer inception_4b/relu_5x5_reduce
I0913 18:05:40.664647 20827 net.cpp:91] Creating Layer inception_4b/relu_5x5_reduce
I0913 18:05:40.664654 20827 net.cpp:425] inception_4b/relu_5x5_reduce <- inception_4b/5x5_reduce
I0913 18:05:40.664662 20827 net.cpp:386] inception_4b/relu_5x5_reduce -> inception_4b/5x5_reduce (in-place)
I0913 18:05:40.665107 20827 net.cpp:141] Setting up inception_4b/relu_5x5_reduce
I0913 18:05:40.665122 20827 net.cpp:148] Top shape: 10 24 14 14 (47040)
I0913 18:05:40.665127 20827 net.cpp:156] Memory required for data: 397770240
I0913 18:05:40.665133 20827 layer_factory.hpp:77] Creating layer inception_4b/5x5
I0913 18:05:40.665149 20827 net.cpp:91] Creating Layer inception_4b/5x5
I0913 18:05:40.665156 20827 net.cpp:425] inception_4b/5x5 <- inception_4b/5x5_reduce
I0913 18:05:40.665170 20827 net.cpp:399] inception_4b/5x5 -> inception_4b/5x5
I0913 18:05:40.667843 20827 net.cpp:141] Setting up inception_4b/5x5
I0913 18:05:40.667862 20827 net.cpp:148] Top shape: 10 64 14 14 (125440)
I0913 18:05:40.667868 20827 net.cpp:156] Memory required for data: 398272000
I0913 18:05:40.667878 20827 layer_factory.hpp:77] Creating layer inception_4b/relu_5x5
I0913 18:05:40.667893 20827 net.cpp:91] Creating Layer inception_4b/relu_5x5
I0913 18:05:40.667901 20827 net.cpp:425] inception_4b/relu_5x5 <- inception_4b/5x5
I0913 18:05:40.667909 20827 net.cpp:386] inception_4b/relu_5x5 -> inception_4b/5x5 (in-place)
I0913 18:05:40.668190 20827 net.cpp:141] Setting up inception_4b/relu_5x5
I0913 18:05:40.668202 20827 net.cpp:148] Top shape: 10 64 14 14 (125440)
I0913 18:05:40.668208 20827 net.cpp:156] Memory required for data: 398773760
I0913 18:05:40.668215 20827 layer_factory.hpp:77] Creating layer inception_4b/pool
I0913 18:05:40.668226 20827 net.cpp:91] Creating Layer inception_4b/pool
I0913 18:05:40.668232 20827 net.cpp:425] inception_4b/pool <- inception_4a/output_inception_4a/output_0_split_3
I0913 18:05:40.668244 20827 net.cpp:399] inception_4b/pool -> inception_4b/pool
I0913 18:05:40.668320 20827 net.cpp:141] Setting up inception_4b/pool
I0913 18:05:40.668331 20827 net.cpp:148] Top shape: 10 512 14 14 (1003520)
I0913 18:05:40.668336 20827 net.cpp:156] Memory required for data: 402787840
I0913 18:05:40.668342 20827 layer_factory.hpp:77] Creating layer inception_4b/pool_proj
I0913 18:05:40.668357 20827 net.cpp:91] Creating Layer inception_4b/pool_proj
I0913 18:05:40.668365 20827 net.cpp:425] inception_4b/pool_proj <- inception_4b/pool
I0913 18:05:40.668373 20827 net.cpp:399] inception_4b/pool_proj -> inception_4b/pool_proj
I0913 18:05:40.670241 20827 net.cpp:141] Setting up inception_4b/pool_proj
I0913 18:05:40.670263 20827 net.cpp:148] Top shape: 10 64 14 14 (125440)
I0913 18:05:40.670269 20827 net.cpp:156] Memory required for data: 403289600
I0913 18:05:40.670279 20827 layer_factory.hpp:77] Creating layer inception_4b/relu_pool_proj
I0913 18:05:40.670287 20827 net.cpp:91] Creating Layer inception_4b/relu_pool_proj
I0913 18:05:40.670295 20827 net.cpp:425] inception_4b/relu_pool_proj <- inception_4b/pool_proj
I0913 18:05:40.670302 20827 net.cpp:386] inception_4b/relu_pool_proj -> inception_4b/pool_proj (in-place)
I0913 18:05:40.670766 20827 net.cpp:141] Setting up inception_4b/relu_pool_proj
I0913 18:05:40.670780 20827 net.cpp:148] Top shape: 10 64 14 14 (125440)
I0913 18:05:40.670786 20827 net.cpp:156] Memory required for data: 403791360
I0913 18:05:40.670791 20827 layer_factory.hpp:77] Creating layer inception_4b/output
I0913 18:05:40.670801 20827 net.cpp:91] Creating Layer inception_4b/output
I0913 18:05:40.670807 20827 net.cpp:425] inception_4b/output <- inception_4b/1x1
I0913 18:05:40.670814 20827 net.cpp:425] inception_4b/output <- inception_4b/3x3
I0913 18:05:40.670820 20827 net.cpp:425] inception_4b/output <- inception_4b/5x5
I0913 18:05:40.670826 20827 net.cpp:425] inception_4b/output <- inception_4b/pool_proj
I0913 18:05:40.670835 20827 net.cpp:399] inception_4b/output -> inception_4b/output
I0913 18:05:40.670886 20827 net.cpp:141] Setting up inception_4b/output
I0913 18:05:40.670897 20827 net.cpp:148] Top shape: 10 512 14 14 (1003520)
I0913 18:05:40.670902 20827 net.cpp:156] Memory required for data: 407805440
I0913 18:05:40.670907 20827 layer_factory.hpp:77] Creating layer inception_4b/output_inception_4b/output_0_split
I0913 18:05:40.670920 20827 net.cpp:91] Creating Layer inception_4b/output_inception_4b/output_0_split
I0913 18:05:40.670925 20827 net.cpp:425] inception_4b/output_inception_4b/output_0_split <- inception_4b/output
I0913 18:05:40.670933 20827 net.cpp:399] inception_4b/output_inception_4b/output_0_split -> inception_4b/output_inception_4b/output_0_split_0
I0913 18:05:40.670943 20827 net.cpp:399] inception_4b/output_inception_4b/output_0_split -> inception_4b/output_inception_4b/output_0_split_1
I0913 18:05:40.670953 20827 net.cpp:399] inception_4b/output_inception_4b/output_0_split -> inception_4b/output_inception_4b/output_0_split_2
I0913 18:05:40.670961 20827 net.cpp:399] inception_4b/output_inception_4b/output_0_split -> inception_4b/output_inception_4b/output_0_split_3
I0913 18:05:40.671061 20827 net.cpp:141] Setting up inception_4b/output_inception_4b/output_0_split
I0913 18:05:40.671070 20827 net.cpp:148] Top shape: 10 512 14 14 (1003520)
I0913 18:05:40.671077 20827 net.cpp:148] Top shape: 10 512 14 14 (1003520)
I0913 18:05:40.671083 20827 net.cpp:148] Top shape: 10 512 14 14 (1003520)
I0913 18:05:40.671089 20827 net.cpp:148] Top shape: 10 512 14 14 (1003520)
I0913 18:05:40.671093 20827 net.cpp:156] Memory required for data: 423861760
I0913 18:05:40.671098 20827 layer_factory.hpp:77] Creating layer inception_4c/1x1
I0913 18:05:40.671116 20827 net.cpp:91] Creating Layer inception_4c/1x1
I0913 18:05:40.671123 20827 net.cpp:425] inception_4c/1x1 <- inception_4b/output_inception_4b/output_0_split_0
I0913 18:05:40.671135 20827 net.cpp:399] inception_4c/1x1 -> inception_4c/1x1
I0913 18:05:40.673135 20827 net.cpp:141] Setting up inception_4c/1x1
I0913 18:05:40.673159 20827 net.cpp:148] Top shape: 10 128 14 14 (250880)
I0913 18:05:40.673169 20827 net.cpp:156] Memory required for data: 424865280
I0913 18:05:40.673187 20827 layer_factory.hpp:77] Creating layer inception_4c/relu_1x1
I0913 18:05:40.673207 20827 net.cpp:91] Creating Layer inception_4c/relu_1x1
I0913 18:05:40.673219 20827 net.cpp:425] inception_4c/relu_1x1 <- inception_4c/1x1
I0913 18:05:40.673235 20827 net.cpp:386] inception_4c/relu_1x1 -> inception_4c/1x1 (in-place)
I0913 18:05:40.675348 20827 net.cpp:141] Setting up inception_4c/relu_1x1
I0913 18:05:40.675396 20827 net.cpp:148] Top shape: 10 128 14 14 (250880)
I0913 18:05:40.675408 20827 net.cpp:156] Memory required for data: 425868800
I0913 18:05:40.675421 20827 layer_factory.hpp:77] Creating layer inception_4c/3x3_reduce
I0913 18:05:40.675451 20827 net.cpp:91] Creating Layer inception_4c/3x3_reduce
I0913 18:05:40.675465 20827 net.cpp:425] inception_4c/3x3_reduce <- inception_4b/output_inception_4b/output_0_split_1
I0913 18:05:40.675498 20827 net.cpp:399] inception_4c/3x3_reduce -> inception_4c/3x3_reduce
I0913 18:05:40.678277 20827 net.cpp:141] Setting up inception_4c/3x3_reduce
I0913 18:05:40.678303 20827 net.cpp:148] Top shape: 10 128 14 14 (250880)
I0913 18:05:40.678314 20827 net.cpp:156] Memory required for data: 426872320
I0913 18:05:40.678334 20827 layer_factory.hpp:77] Creating layer inception_4c/relu_3x3_reduce
I0913 18:05:40.678352 20827 net.cpp:91] Creating Layer inception_4c/relu_3x3_reduce
I0913 18:05:40.678365 20827 net.cpp:425] inception_4c/relu_3x3_reduce <- inception_4c/3x3_reduce
I0913 18:05:40.678387 20827 net.cpp:386] inception_4c/relu_3x3_reduce -> inception_4c/3x3_reduce (in-place)
I0913 18:05:40.678858 20827 net.cpp:141] Setting up inception_4c/relu_3x3_reduce
I0913 18:05:40.678880 20827 net.cpp:148] Top shape: 10 128 14 14 (250880)
I0913 18:05:40.678890 20827 net.cpp:156] Memory required for data: 427875840
I0913 18:05:40.678902 20827 layer_factory.hpp:77] Creating layer inception_4c/3x3
I0913 18:05:40.678930 20827 net.cpp:91] Creating Layer inception_4c/3x3
I0913 18:05:40.678946 20827 net.cpp:425] inception_4c/3x3 <- inception_4c/3x3_reduce
I0913 18:05:40.678973 20827 net.cpp:399] inception_4c/3x3 -> inception_4c/3x3
I0913 18:05:40.684433 20827 net.cpp:141] Setting up inception_4c/3x3
I0913 18:05:40.684459 20827 net.cpp:148] Top shape: 10 256 14 14 (501760)
I0913 18:05:40.684470 20827 net.cpp:156] Memory required for data: 429882880
I0913 18:05:40.684489 20827 layer_factory.hpp:77] Creating layer inception_4c/relu_3x3
I0913 18:05:40.684514 20827 net.cpp:91] Creating Layer inception_4c/relu_3x3
I0913 18:05:40.684530 20827 net.cpp:425] inception_4c/relu_3x3 <- inception_4c/3x3
I0913 18:05:40.684550 20827 net.cpp:386] inception_4c/relu_3x3 -> inception_4c/3x3 (in-place)
I0913 18:05:40.685279 20827 net.cpp:141] Setting up inception_4c/relu_3x3
I0913 18:05:40.685302 20827 net.cpp:148] Top shape: 10 256 14 14 (501760)
I0913 18:05:40.685314 20827 net.cpp:156] Memory required for data: 431889920
I0913 18:05:40.685325 20827 layer_factory.hpp:77] Creating layer inception_4c/5x5_reduce
I0913 18:05:40.685353 20827 net.cpp:91] Creating Layer inception_4c/5x5_reduce
I0913 18:05:40.685366 20827 net.cpp:425] inception_4c/5x5_reduce <- inception_4b/output_inception_4b/output_0_split_2
I0913 18:05:40.685389 20827 net.cpp:399] inception_4c/5x5_reduce -> inception_4c/5x5_reduce
I0913 18:05:40.687288 20827 net.cpp:141] Setting up inception_4c/5x5_reduce
I0913 18:05:40.687319 20827 net.cpp:148] Top shape: 10 24 14 14 (47040)
I0913 18:05:40.687331 20827 net.cpp:156] Memory required for data: 432078080
I0913 18:05:40.687350 20827 layer_factory.hpp:77] Creating layer inception_4c/relu_5x5_reduce
I0913 18:05:40.687369 20827 net.cpp:91] Creating Layer inception_4c/relu_5x5_reduce
I0913 18:05:40.687381 20827 net.cpp:425] inception_4c/relu_5x5_reduce <- inception_4c/5x5_reduce
I0913 18:05:40.687394 20827 net.cpp:386] inception_4c/relu_5x5_reduce -> inception_4c/5x5_reduce (in-place)
I0913 18:05:40.688123 20827 net.cpp:141] Setting up inception_4c/relu_5x5_reduce
I0913 18:05:40.688150 20827 net.cpp:148] Top shape: 10 24 14 14 (47040)
I0913 18:05:40.688163 20827 net.cpp:156] Memory required for data: 432266240
I0913 18:05:40.688174 20827 layer_factory.hpp:77] Creating layer inception_4c/5x5
I0913 18:05:40.688205 20827 net.cpp:91] Creating Layer inception_4c/5x5
I0913 18:05:40.688220 20827 net.cpp:425] inception_4c/5x5 <- inception_4c/5x5_reduce
I0913 18:05:40.688240 20827 net.cpp:399] inception_4c/5x5 -> inception_4c/5x5
I0913 18:05:40.690810 20827 net.cpp:141] Setting up inception_4c/5x5
I0913 18:05:40.690834 20827 net.cpp:148] Top shape: 10 64 14 14 (125440)
I0913 18:05:40.690845 20827 net.cpp:156] Memory required for data: 432768000
I0913 18:05:40.690863 20827 layer_factory.hpp:77] Creating layer inception_4c/relu_5x5
I0913 18:05:40.690888 20827 net.cpp:91] Creating Layer inception_4c/relu_5x5
I0913 18:05:40.690903 20827 net.cpp:425] inception_4c/relu_5x5 <- inception_4c/5x5
I0913 18:05:40.690918 20827 net.cpp:386] inception_4c/relu_5x5 -> inception_4c/5x5 (in-place)
I0913 18:05:40.691375 20827 net.cpp:141] Setting up inception_4c/relu_5x5
I0913 18:05:40.691397 20827 net.cpp:148] Top shape: 10 64 14 14 (125440)
I0913 18:05:40.691408 20827 net.cpp:156] Memory required for data: 433269760
I0913 18:05:40.691421 20827 layer_factory.hpp:77] Creating layer inception_4c/pool
I0913 18:05:40.691439 20827 net.cpp:91] Creating Layer inception_4c/pool
I0913 18:05:40.691452 20827 net.cpp:425] inception_4c/pool <- inception_4b/output_inception_4b/output_0_split_3
I0913 18:05:40.691478 20827 net.cpp:399] inception_4c/pool -> inception_4c/pool
I0913 18:05:40.691611 20827 net.cpp:141] Setting up inception_4c/pool
I0913 18:05:40.691632 20827 net.cpp:148] Top shape: 10 512 14 14 (1003520)
I0913 18:05:40.691642 20827 net.cpp:156] Memory required for data: 437283840
I0913 18:05:40.691653 20827 layer_factory.hpp:77] Creating layer inception_4c/pool_proj
I0913 18:05:40.691687 20827 net.cpp:91] Creating Layer inception_4c/pool_proj
I0913 18:05:40.691702 20827 net.cpp:425] inception_4c/pool_proj <- inception_4c/pool
I0913 18:05:40.691722 20827 net.cpp:399] inception_4c/pool_proj -> inception_4c/pool_proj
I0913 18:05:40.695008 20827 net.cpp:141] Setting up inception_4c/pool_proj
I0913 18:05:40.695036 20827 net.cpp:148] Top shape: 10 64 14 14 (125440)
I0913 18:05:40.695049 20827 net.cpp:156] Memory required for data: 437785600
I0913 18:05:40.695099 20827 layer_factory.hpp:77] Creating layer inception_4c/relu_pool_proj
I0913 18:05:40.695119 20827 net.cpp:91] Creating Layer inception_4c/relu_pool_proj
I0913 18:05:40.695133 20827 net.cpp:425] inception_4c/relu_pool_proj <- inception_4c/pool_proj
I0913 18:05:40.695148 20827 net.cpp:386] inception_4c/relu_pool_proj -> inception_4c/pool_proj (in-place)
I0913 18:05:40.695868 20827 net.cpp:141] Setting up inception_4c/relu_pool_proj
I0913 18:05:40.695894 20827 net.cpp:148] Top shape: 10 64 14 14 (125440)
I0913 18:05:40.695907 20827 net.cpp:156] Memory required for data: 438287360
I0913 18:05:40.695919 20827 layer_factory.hpp:77] Creating layer inception_4c/output
I0913 18:05:40.695935 20827 net.cpp:91] Creating Layer inception_4c/output
I0913 18:05:40.695947 20827 net.cpp:425] inception_4c/output <- inception_4c/1x1
I0913 18:05:40.695961 20827 net.cpp:425] inception_4c/output <- inception_4c/3x3
I0913 18:05:40.695974 20827 net.cpp:425] inception_4c/output <- inception_4c/5x5
I0913 18:05:40.695986 20827 net.cpp:425] inception_4c/output <- inception_4c/pool_proj
I0913 18:05:40.696002 20827 net.cpp:399] inception_4c/output -> inception_4c/output
I0913 18:05:40.696094 20827 net.cpp:141] Setting up inception_4c/output
I0913 18:05:40.696115 20827 net.cpp:148] Top shape: 10 512 14 14 (1003520)
I0913 18:05:40.696125 20827 net.cpp:156] Memory required for data: 442301440
I0913 18:05:40.696136 20827 layer_factory.hpp:77] Creating layer inception_4c/output_inception_4c/output_0_split
I0913 18:05:40.696153 20827 net.cpp:91] Creating Layer inception_4c/output_inception_4c/output_0_split
I0913 18:05:40.696166 20827 net.cpp:425] inception_4c/output_inception_4c/output_0_split <- inception_4c/output
I0913 18:05:40.696187 20827 net.cpp:399] inception_4c/output_inception_4c/output_0_split -> inception_4c/output_inception_4c/output_0_split_0
I0913 18:05:40.696208 20827 net.cpp:399] inception_4c/output_inception_4c/output_0_split -> inception_4c/output_inception_4c/output_0_split_1
I0913 18:05:40.696228 20827 net.cpp:399] inception_4c/output_inception_4c/output_0_split -> inception_4c/output_inception_4c/output_0_split_2
I0913 18:05:40.696246 20827 net.cpp:399] inception_4c/output_inception_4c/output_0_split -> inception_4c/output_inception_4c/output_0_split_3
I0913 18:05:40.696457 20827 net.cpp:141] Setting up inception_4c/output_inception_4c/output_0_split
I0913 18:05:40.696478 20827 net.cpp:148] Top shape: 10 512 14 14 (1003520)
I0913 18:05:40.696492 20827 net.cpp:148] Top shape: 10 512 14 14 (1003520)
I0913 18:05:40.696506 20827 net.cpp:148] Top shape: 10 512 14 14 (1003520)
I0913 18:05:40.696518 20827 net.cpp:148] Top shape: 10 512 14 14 (1003520)
I0913 18:05:40.696527 20827 net.cpp:156] Memory required for data: 458357760
I0913 18:05:40.696539 20827 layer_factory.hpp:77] Creating layer inception_4d/1x1
I0913 18:05:40.696569 20827 net.cpp:91] Creating Layer inception_4d/1x1
I0913 18:05:40.696584 20827 net.cpp:425] inception_4d/1x1 <- inception_4c/output_inception_4c/output_0_split_0
I0913 18:05:40.696609 20827 net.cpp:399] inception_4d/1x1 -> inception_4d/1x1
I0913 18:05:40.699481 20827 net.cpp:141] Setting up inception_4d/1x1
I0913 18:05:40.699506 20827 net.cpp:148] Top shape: 10 112 14 14 (219520)
I0913 18:05:40.699517 20827 net.cpp:156] Memory required for data: 459235840
I0913 18:05:40.699537 20827 layer_factory.hpp:77] Creating layer inception_4d/relu_1x1
I0913 18:05:40.699554 20827 net.cpp:91] Creating Layer inception_4d/relu_1x1
I0913 18:05:40.699566 20827 net.cpp:425] inception_4d/relu_1x1 <- inception_4d/1x1
I0913 18:05:40.699582 20827 net.cpp:386] inception_4d/relu_1x1 -> inception_4d/1x1 (in-place)
I0913 18:05:40.700322 20827 net.cpp:141] Setting up inception_4d/relu_1x1
I0913 18:05:40.700346 20827 net.cpp:148] Top shape: 10 112 14 14 (219520)
I0913 18:05:40.700358 20827 net.cpp:156] Memory required for data: 460113920
I0913 18:05:40.700369 20827 layer_factory.hpp:77] Creating layer inception_4d/3x3_reduce
I0913 18:05:40.700404 20827 net.cpp:91] Creating Layer inception_4d/3x3_reduce
I0913 18:05:40.700419 20827 net.cpp:425] inception_4d/3x3_reduce <- inception_4c/output_inception_4c/output_0_split_1
I0913 18:05:40.700444 20827 net.cpp:399] inception_4d/3x3_reduce -> inception_4d/3x3_reduce
I0913 18:05:40.703034 20827 net.cpp:141] Setting up inception_4d/3x3_reduce
I0913 18:05:40.703058 20827 net.cpp:148] Top shape: 10 144 14 14 (282240)
I0913 18:05:40.703069 20827 net.cpp:156] Memory required for data: 461242880
I0913 18:05:40.703088 20827 layer_factory.hpp:77] Creating layer inception_4d/relu_3x3_reduce
I0913 18:05:40.703112 20827 net.cpp:91] Creating Layer inception_4d/relu_3x3_reduce
I0913 18:05:40.703127 20827 net.cpp:425] inception_4d/relu_3x3_reduce <- inception_4d/3x3_reduce
I0913 18:05:40.703148 20827 net.cpp:386] inception_4d/relu_3x3_reduce -> inception_4d/3x3_reduce (in-place)
I0913 18:05:40.703618 20827 net.cpp:141] Setting up inception_4d/relu_3x3_reduce
I0913 18:05:40.703639 20827 net.cpp:148] Top shape: 10 144 14 14 (282240)
I0913 18:05:40.703650 20827 net.cpp:156] Memory required for data: 462371840
I0913 18:05:40.703661 20827 layer_factory.hpp:77] Creating layer inception_4d/3x3
I0913 18:05:40.703691 20827 net.cpp:91] Creating Layer inception_4d/3x3
I0913 18:05:40.703707 20827 net.cpp:425] inception_4d/3x3 <- inception_4d/3x3_reduce
I0913 18:05:40.703732 20827 net.cpp:399] inception_4d/3x3 -> inception_4d/3x3
I0913 18:05:40.709906 20827 net.cpp:141] Setting up inception_4d/3x3
I0913 18:05:40.709936 20827 net.cpp:148] Top shape: 10 288 14 14 (564480)
I0913 18:05:40.709947 20827 net.cpp:156] Memory required for data: 464629760
I0913 18:05:40.709965 20827 layer_factory.hpp:77] Creating layer inception_4d/relu_3x3
I0913 18:05:40.709983 20827 net.cpp:91] Creating Layer inception_4d/relu_3x3
I0913 18:05:40.709996 20827 net.cpp:425] inception_4d/relu_3x3 <- inception_4d/3x3
I0913 18:05:40.710011 20827 net.cpp:386] inception_4d/relu_3x3 -> inception_4d/3x3 (in-place)
I0913 18:05:40.710732 20827 net.cpp:141] Setting up inception_4d/relu_3x3
I0913 18:05:40.710759 20827 net.cpp:148] Top shape: 10 288 14 14 (564480)
I0913 18:05:40.710772 20827 net.cpp:156] Memory required for data: 466887680
I0913 18:05:40.710783 20827 layer_factory.hpp:77] Creating layer inception_4d/5x5_reduce
I0913 18:05:40.710815 20827 net.cpp:91] Creating Layer inception_4d/5x5_reduce
I0913 18:05:40.710831 20827 net.cpp:425] inception_4d/5x5_reduce <- inception_4c/output_inception_4c/output_0_split_2
I0913 18:05:40.710852 20827 net.cpp:399] inception_4d/5x5_reduce -> inception_4d/5x5_reduce
I0913 18:05:40.712893 20827 net.cpp:141] Setting up inception_4d/5x5_reduce
I0913 18:05:40.712920 20827 net.cpp:148] Top shape: 10 32 14 14 (62720)
I0913 18:05:40.712931 20827 net.cpp:156] Memory required for data: 467138560
I0913 18:05:40.712951 20827 layer_factory.hpp:77] Creating layer inception_4d/relu_5x5_reduce
I0913 18:05:40.712970 20827 net.cpp:91] Creating Layer inception_4d/relu_5x5_reduce
I0913 18:05:40.712983 20827 net.cpp:425] inception_4d/relu_5x5_reduce <- inception_4d/5x5_reduce
I0913 18:05:40.713007 20827 net.cpp:386] inception_4d/relu_5x5_reduce -> inception_4d/5x5_reduce (in-place)
I0913 18:05:40.713753 20827 net.cpp:141] Setting up inception_4d/relu_5x5_reduce
I0913 18:05:40.713775 20827 net.cpp:148] Top shape: 10 32 14 14 (62720)
I0913 18:05:40.713786 20827 net.cpp:156] Memory required for data: 467389440
I0913 18:05:40.713798 20827 layer_factory.hpp:77] Creating layer inception_4d/5x5
I0913 18:05:40.713830 20827 net.cpp:91] Creating Layer inception_4d/5x5
I0913 18:05:40.713845 20827 net.cpp:425] inception_4d/5x5 <- inception_4d/5x5_reduce
I0913 18:05:40.713871 20827 net.cpp:399] inception_4d/5x5 -> inception_4d/5x5
I0913 18:05:40.716311 20827 net.cpp:141] Setting up inception_4d/5x5
I0913 18:05:40.716336 20827 net.cpp:148] Top shape: 10 64 14 14 (125440)
I0913 18:05:40.716347 20827 net.cpp:156] Memory required for data: 467891200
I0913 18:05:40.716367 20827 layer_factory.hpp:77] Creating layer inception_4d/relu_5x5
I0913 18:05:40.716392 20827 net.cpp:91] Creating Layer inception_4d/relu_5x5
I0913 18:05:40.716406 20827 net.cpp:425] inception_4d/relu_5x5 <- inception_4d/5x5
I0913 18:05:40.716423 20827 net.cpp:386] inception_4d/relu_5x5 -> inception_4d/5x5 (in-place)
I0913 18:05:40.716902 20827 net.cpp:141] Setting up inception_4d/relu_5x5
I0913 18:05:40.716923 20827 net.cpp:148] Top shape: 10 64 14 14 (125440)
I0913 18:05:40.716934 20827 net.cpp:156] Memory required for data: 468392960
I0913 18:05:40.716945 20827 layer_factory.hpp:77] Creating layer inception_4d/pool
I0913 18:05:40.716965 20827 net.cpp:91] Creating Layer inception_4d/pool
I0913 18:05:40.716979 20827 net.cpp:425] inception_4d/pool <- inception_4c/output_inception_4c/output_0_split_3
I0913 18:05:40.717005 20827 net.cpp:399] inception_4d/pool -> inception_4d/pool
I0913 18:05:40.717139 20827 net.cpp:141] Setting up inception_4d/pool
I0913 18:05:40.717160 20827 net.cpp:148] Top shape: 10 512 14 14 (1003520)
I0913 18:05:40.717170 20827 net.cpp:156] Memory required for data: 472407040
I0913 18:05:40.717181 20827 layer_factory.hpp:77] Creating layer inception_4d/pool_proj
I0913 18:05:40.717213 20827 net.cpp:91] Creating Layer inception_4d/pool_proj
I0913 18:05:40.717226 20827 net.cpp:425] inception_4d/pool_proj <- inception_4d/pool
I0913 18:05:40.717244 20827 net.cpp:399] inception_4d/pool_proj -> inception_4d/pool_proj
I0913 18:05:40.719719 20827 net.cpp:141] Setting up inception_4d/pool_proj
I0913 18:05:40.719743 20827 net.cpp:148] Top shape: 10 64 14 14 (125440)
I0913 18:05:40.719754 20827 net.cpp:156] Memory required for data: 472908800
I0913 18:05:40.719779 20827 layer_factory.hpp:77] Creating layer inception_4d/relu_pool_proj
I0913 18:05:40.719799 20827 net.cpp:91] Creating Layer inception_4d/relu_pool_proj
I0913 18:05:40.719815 20827 net.cpp:425] inception_4d/relu_pool_proj <- inception_4d/pool_proj
I0913 18:05:40.719835 20827 net.cpp:386] inception_4d/relu_pool_proj -> inception_4d/pool_proj (in-place)
I0913 18:05:40.720589 20827 net.cpp:141] Setting up inception_4d/relu_pool_proj
I0913 18:05:40.720619 20827 net.cpp:148] Top shape: 10 64 14 14 (125440)
I0913 18:05:40.720631 20827 net.cpp:156] Memory required for data: 473410560
I0913 18:05:40.720643 20827 layer_factory.hpp:77] Creating layer inception_4d/output
I0913 18:05:40.720660 20827 net.cpp:91] Creating Layer inception_4d/output
I0913 18:05:40.720674 20827 net.cpp:425] inception_4d/output <- inception_4d/1x1
I0913 18:05:40.720688 20827 net.cpp:425] inception_4d/output <- inception_4d/3x3
I0913 18:05:40.720701 20827 net.cpp:425] inception_4d/output <- inception_4d/5x5
I0913 18:05:40.720715 20827 net.cpp:425] inception_4d/output <- inception_4d/pool_proj
I0913 18:05:40.720736 20827 net.cpp:399] inception_4d/output -> inception_4d/output
I0913 18:05:40.720818 20827 net.cpp:141] Setting up inception_4d/output
I0913 18:05:40.720837 20827 net.cpp:148] Top shape: 10 528 14 14 (1034880)
I0913 18:05:40.720847 20827 net.cpp:156] Memory required for data: 477550080
I0913 18:05:40.720859 20827 layer_factory.hpp:77] Creating layer inception_4d/output_inception_4d/output_0_split
I0913 18:05:40.720883 20827 net.cpp:91] Creating Layer inception_4d/output_inception_4d/output_0_split
I0913 18:05:40.720897 20827 net.cpp:425] inception_4d/output_inception_4d/output_0_split <- inception_4d/output
I0913 18:05:40.720914 20827 net.cpp:399] inception_4d/output_inception_4d/output_0_split -> inception_4d/output_inception_4d/output_0_split_0
I0913 18:05:40.720940 20827 net.cpp:399] inception_4d/output_inception_4d/output_0_split -> inception_4d/output_inception_4d/output_0_split_1
I0913 18:05:40.720962 20827 net.cpp:399] inception_4d/output_inception_4d/output_0_split -> inception_4d/output_inception_4d/output_0_split_2
I0913 18:05:40.720981 20827 net.cpp:399] inception_4d/output_inception_4d/output_0_split -> inception_4d/output_inception_4d/output_0_split_3
I0913 18:05:40.721199 20827 net.cpp:141] Setting up inception_4d/output_inception_4d/output_0_split
I0913 18:05:40.721221 20827 net.cpp:148] Top shape: 10 528 14 14 (1034880)
I0913 18:05:40.721235 20827 net.cpp:148] Top shape: 10 528 14 14 (1034880)
I0913 18:05:40.721248 20827 net.cpp:148] Top shape: 10 528 14 14 (1034880)
I0913 18:05:40.721261 20827 net.cpp:148] Top shape: 10 528 14 14 (1034880)
I0913 18:05:40.721271 20827 net.cpp:156] Memory required for data: 494108160
I0913 18:05:40.721282 20827 layer_factory.hpp:77] Creating layer inception_4e/1x1
I0913 18:05:40.721309 20827 net.cpp:91] Creating Layer inception_4e/1x1
I0913 18:05:40.721324 20827 net.cpp:425] inception_4e/1x1 <- inception_4d/output_inception_4d/output_0_split_0
I0913 18:05:40.721351 20827 net.cpp:399] inception_4e/1x1 -> inception_4e/1x1
I0913 18:05:40.725782 20827 net.cpp:141] Setting up inception_4e/1x1
I0913 18:05:40.725808 20827 net.cpp:148] Top shape: 10 256 14 14 (501760)
I0913 18:05:40.725819 20827 net.cpp:156] Memory required for data: 496115200
I0913 18:05:40.725838 20827 layer_factory.hpp:77] Creating layer inception_4e/relu_1x1
I0913 18:05:40.725862 20827 net.cpp:91] Creating Layer inception_4e/relu_1x1
I0913 18:05:40.725878 20827 net.cpp:425] inception_4e/relu_1x1 <- inception_4e/1x1
I0913 18:05:40.725894 20827 net.cpp:386] inception_4e/relu_1x1 -> inception_4e/1x1 (in-place)
I0913 18:05:40.726626 20827 net.cpp:141] Setting up inception_4e/relu_1x1
I0913 18:05:40.726649 20827 net.cpp:148] Top shape: 10 256 14 14 (501760)
I0913 18:05:40.726660 20827 net.cpp:156] Memory required for data: 498122240
I0913 18:05:40.726672 20827 layer_factory.hpp:77] Creating layer inception_4e/3x3_reduce
I0913 18:05:40.726711 20827 net.cpp:91] Creating Layer inception_4e/3x3_reduce
I0913 18:05:40.726727 20827 net.cpp:425] inception_4e/3x3_reduce <- inception_4d/output_inception_4d/output_0_split_1
I0913 18:05:40.726747 20827 net.cpp:399] inception_4e/3x3_reduce -> inception_4e/3x3_reduce
I0913 18:05:40.729472 20827 net.cpp:141] Setting up inception_4e/3x3_reduce
I0913 18:05:40.729497 20827 net.cpp:148] Top shape: 10 160 14 14 (313600)
I0913 18:05:40.729508 20827 net.cpp:156] Memory required for data: 499376640
I0913 18:05:40.729526 20827 layer_factory.hpp:77] Creating layer inception_4e/relu_3x3_reduce
I0913 18:05:40.729545 20827 net.cpp:91] Creating Layer inception_4e/relu_3x3_reduce
I0913 18:05:40.729557 20827 net.cpp:425] inception_4e/relu_3x3_reduce <- inception_4e/3x3_reduce
I0913 18:05:40.729570 20827 net.cpp:386] inception_4e/relu_3x3_reduce -> inception_4e/3x3_reduce (in-place)
I0913 18:05:40.730031 20827 net.cpp:141] Setting up inception_4e/relu_3x3_reduce
I0913 18:05:40.730054 20827 net.cpp:148] Top shape: 10 160 14 14 (313600)
I0913 18:05:40.730065 20827 net.cpp:156] Memory required for data: 500631040
I0913 18:05:40.730077 20827 layer_factory.hpp:77] Creating layer inception_4e/3x3
I0913 18:05:40.730111 20827 net.cpp:91] Creating Layer inception_4e/3x3
I0913 18:05:40.730126 20827 net.cpp:425] inception_4e/3x3 <- inception_4e/3x3_reduce
I0913 18:05:40.730149 20827 net.cpp:399] inception_4e/3x3 -> inception_4e/3x3
I0913 18:05:40.737303 20827 net.cpp:141] Setting up inception_4e/3x3
I0913 18:05:40.737330 20827 net.cpp:148] Top shape: 10 320 14 14 (627200)
I0913 18:05:40.737341 20827 net.cpp:156] Memory required for data: 503139840
I0913 18:05:40.737360 20827 layer_factory.hpp:77] Creating layer inception_4e/relu_3x3
I0913 18:05:40.737385 20827 net.cpp:91] Creating Layer inception_4e/relu_3x3
I0913 18:05:40.737399 20827 net.cpp:425] inception_4e/relu_3x3 <- inception_4e/3x3
I0913 18:05:40.737416 20827 net.cpp:386] inception_4e/relu_3x3 -> inception_4e/3x3 (in-place)
I0913 18:05:40.738171 20827 net.cpp:141] Setting up inception_4e/relu_3x3
I0913 18:05:40.738194 20827 net.cpp:148] Top shape: 10 320 14 14 (627200)
I0913 18:05:40.738205 20827 net.cpp:156] Memory required for data: 505648640
I0913 18:05:40.738216 20827 layer_factory.hpp:77] Creating layer inception_4e/5x5_reduce
I0913 18:05:40.738253 20827 net.cpp:91] Creating Layer inception_4e/5x5_reduce
I0913 18:05:40.738268 20827 net.cpp:425] inception_4e/5x5_reduce <- inception_4d/output_inception_4d/output_0_split_2
I0913 18:05:40.738291 20827 net.cpp:399] inception_4e/5x5_reduce -> inception_4e/5x5_reduce
I0913 18:05:40.740280 20827 net.cpp:141] Setting up inception_4e/5x5_reduce
I0913 18:05:40.740304 20827 net.cpp:148] Top shape: 10 32 14 14 (62720)
I0913 18:05:40.740315 20827 net.cpp:156] Memory required for data: 505899520
I0913 18:05:40.740334 20827 layer_factory.hpp:77] Creating layer inception_4e/relu_5x5_reduce
I0913 18:05:40.740352 20827 net.cpp:91] Creating Layer inception_4e/relu_5x5_reduce
I0913 18:05:40.740365 20827 net.cpp:425] inception_4e/relu_5x5_reduce <- inception_4e/5x5_reduce
I0913 18:05:40.740386 20827 net.cpp:386] inception_4e/relu_5x5_reduce -> inception_4e/5x5_reduce (in-place)
I0913 18:05:40.741102 20827 net.cpp:141] Setting up inception_4e/relu_5x5_reduce
I0913 18:05:40.741127 20827 net.cpp:148] Top shape: 10 32 14 14 (62720)
I0913 18:05:40.741137 20827 net.cpp:156] Memory required for data: 506150400
I0913 18:05:40.741149 20827 layer_factory.hpp:77] Creating layer inception_4e/5x5
I0913 18:05:40.741178 20827 net.cpp:91] Creating Layer inception_4e/5x5
I0913 18:05:40.741194 20827 net.cpp:425] inception_4e/5x5 <- inception_4e/5x5_reduce
I0913 18:05:40.741221 20827 net.cpp:399] inception_4e/5x5 -> inception_4e/5x5
I0913 18:05:40.744894 20827 net.cpp:141] Setting up inception_4e/5x5
I0913 18:05:40.744918 20827 net.cpp:148] Top shape: 10 128 14 14 (250880)
I0913 18:05:40.744930 20827 net.cpp:156] Memory required for data: 507153920
I0913 18:05:40.744948 20827 layer_factory.hpp:77] Creating layer inception_4e/relu_5x5
I0913 18:05:40.744966 20827 net.cpp:91] Creating Layer inception_4e/relu_5x5
I0913 18:05:40.744978 20827 net.cpp:425] inception_4e/relu_5x5 <- inception_4e/5x5
I0913 18:05:40.744994 20827 net.cpp:386] inception_4e/relu_5x5 -> inception_4e/5x5 (in-place)
I0913 18:05:40.745478 20827 net.cpp:141] Setting up inception_4e/relu_5x5
I0913 18:05:40.745501 20827 net.cpp:148] Top shape: 10 128 14 14 (250880)
I0913 18:05:40.745512 20827 net.cpp:156] Memory required for data: 508157440
I0913 18:05:40.745523 20827 layer_factory.hpp:77] Creating layer inception_4e/pool
I0913 18:05:40.745548 20827 net.cpp:91] Creating Layer inception_4e/pool
I0913 18:05:40.745563 20827 net.cpp:425] inception_4e/pool <- inception_4d/output_inception_4d/output_0_split_3
I0913 18:05:40.745579 20827 net.cpp:399] inception_4e/pool -> inception_4e/pool
I0913 18:05:40.745723 20827 net.cpp:141] Setting up inception_4e/pool
I0913 18:05:40.745743 20827 net.cpp:148] Top shape: 10 528 14 14 (1034880)
I0913 18:05:40.745754 20827 net.cpp:156] Memory required for data: 512296960
I0913 18:05:40.745765 20827 layer_factory.hpp:77] Creating layer inception_4e/pool_proj
I0913 18:05:40.745795 20827 net.cpp:91] Creating Layer inception_4e/pool_proj
I0913 18:05:40.745808 20827 net.cpp:425] inception_4e/pool_proj <- inception_4e/pool
I0913 18:05:40.745832 20827 net.cpp:399] inception_4e/pool_proj -> inception_4e/pool_proj
I0913 18:05:40.748620 20827 net.cpp:141] Setting up inception_4e/pool_proj
I0913 18:05:40.748644 20827 net.cpp:148] Top shape: 10 128 14 14 (250880)
I0913 18:05:40.748656 20827 net.cpp:156] Memory required for data: 513300480
I0913 18:05:40.748672 20827 layer_factory.hpp:77] Creating layer inception_4e/relu_pool_proj
I0913 18:05:40.748695 20827 net.cpp:91] Creating Layer inception_4e/relu_pool_proj
I0913 18:05:40.748709 20827 net.cpp:425] inception_4e/relu_pool_proj <- inception_4e/pool_proj
I0913 18:05:40.748726 20827 net.cpp:386] inception_4e/relu_pool_proj -> inception_4e/pool_proj (in-place)
I0913 18:05:40.749470 20827 net.cpp:141] Setting up inception_4e/relu_pool_proj
I0913 18:05:40.749492 20827 net.cpp:148] Top shape: 10 128 14 14 (250880)
I0913 18:05:40.749505 20827 net.cpp:156] Memory required for data: 514304000
I0913 18:05:40.749516 20827 layer_factory.hpp:77] Creating layer inception_4e/output
I0913 18:05:40.749539 20827 net.cpp:91] Creating Layer inception_4e/output
I0913 18:05:40.749553 20827 net.cpp:425] inception_4e/output <- inception_4e/1x1
I0913 18:05:40.749568 20827 net.cpp:425] inception_4e/output <- inception_4e/3x3
I0913 18:05:40.749582 20827 net.cpp:425] inception_4e/output <- inception_4e/5x5
I0913 18:05:40.749593 20827 net.cpp:425] inception_4e/output <- inception_4e/pool_proj
I0913 18:05:40.749609 20827 net.cpp:399] inception_4e/output -> inception_4e/output
I0913 18:05:40.749696 20827 net.cpp:141] Setting up inception_4e/output
I0913 18:05:40.749716 20827 net.cpp:148] Top shape: 10 832 14 14 (1630720)
I0913 18:05:40.749725 20827 net.cpp:156] Memory required for data: 520826880
I0913 18:05:40.749737 20827 layer_factory.hpp:77] Creating layer pool4/3x3_s2
I0913 18:05:40.749760 20827 net.cpp:91] Creating Layer pool4/3x3_s2
I0913 18:05:40.749775 20827 net.cpp:425] pool4/3x3_s2 <- inception_4e/output
I0913 18:05:40.749792 20827 net.cpp:399] pool4/3x3_s2 -> pool4/3x3_s2
I0913 18:05:40.749929 20827 net.cpp:141] Setting up pool4/3x3_s2
I0913 18:05:40.749949 20827 net.cpp:148] Top shape: 10 832 7 7 (407680)
I0913 18:05:40.749959 20827 net.cpp:156] Memory required for data: 522457600
I0913 18:05:40.749970 20827 layer_factory.hpp:77] Creating layer pool4/3x3_s2_pool4/3x3_s2_0_split
I0913 18:05:40.749987 20827 net.cpp:91] Creating Layer pool4/3x3_s2_pool4/3x3_s2_0_split
I0913 18:05:40.749999 20827 net.cpp:425] pool4/3x3_s2_pool4/3x3_s2_0_split <- pool4/3x3_s2
I0913 18:05:40.750018 20827 net.cpp:399] pool4/3x3_s2_pool4/3x3_s2_0_split -> pool4/3x3_s2_pool4/3x3_s2_0_split_0
I0913 18:05:40.750039 20827 net.cpp:399] pool4/3x3_s2_pool4/3x3_s2_0_split -> pool4/3x3_s2_pool4/3x3_s2_0_split_1
I0913 18:05:40.750059 20827 net.cpp:399] pool4/3x3_s2_pool4/3x3_s2_0_split -> pool4/3x3_s2_pool4/3x3_s2_0_split_2
I0913 18:05:40.750078 20827 net.cpp:399] pool4/3x3_s2_pool4/3x3_s2_0_split -> pool4/3x3_s2_pool4/3x3_s2_0_split_3
I0913 18:05:40.750309 20827 net.cpp:141] Setting up pool4/3x3_s2_pool4/3x3_s2_0_split
I0913 18:05:40.750334 20827 net.cpp:148] Top shape: 10 832 7 7 (407680)
I0913 18:05:40.750349 20827 net.cpp:148] Top shape: 10 832 7 7 (407680)
I0913 18:05:40.750360 20827 net.cpp:148] Top shape: 10 832 7 7 (407680)
I0913 18:05:40.750373 20827 net.cpp:148] Top shape: 10 832 7 7 (407680)
I0913 18:05:40.750382 20827 net.cpp:156] Memory required for data: 528980480
I0913 18:05:40.750393 20827 layer_factory.hpp:77] Creating layer inception_5a/1x1
I0913 18:05:40.750423 20827 net.cpp:91] Creating Layer inception_5a/1x1
I0913 18:05:40.750438 20827 net.cpp:425] inception_5a/1x1 <- pool4/3x3_s2_pool4/3x3_s2_0_split_0
I0913 18:05:40.750458 20827 net.cpp:399] inception_5a/1x1 -> inception_5a/1x1
I0913 18:05:40.755507 20827 net.cpp:141] Setting up inception_5a/1x1
I0913 18:05:40.755532 20827 net.cpp:148] Top shape: 10 256 7 7 (125440)
I0913 18:05:40.755544 20827 net.cpp:156] Memory required for data: 529482240
I0913 18:05:40.755563 20827 layer_factory.hpp:77] Creating layer inception_5a/relu_1x1
I0913 18:05:40.755589 20827 net.cpp:91] Creating Layer inception_5a/relu_1x1
I0913 18:05:40.755604 20827 net.cpp:425] inception_5a/relu_1x1 <- inception_5a/1x1
I0913 18:05:40.755620 20827 net.cpp:386] inception_5a/relu_1x1 -> inception_5a/1x1 (in-place)
I0913 18:05:40.756381 20827 net.cpp:141] Setting up inception_5a/relu_1x1
I0913 18:05:40.756407 20827 net.cpp:148] Top shape: 10 256 7 7 (125440)
I0913 18:05:40.756418 20827 net.cpp:156] Memory required for data: 529984000
I0913 18:05:40.756438 20827 layer_factory.hpp:77] Creating layer inception_5a/3x3_reduce
I0913 18:05:40.756471 20827 net.cpp:91] Creating Layer inception_5a/3x3_reduce
I0913 18:05:40.756486 20827 net.cpp:425] inception_5a/3x3_reduce <- pool4/3x3_s2_pool4/3x3_s2_0_split_1
I0913 18:05:40.756508 20827 net.cpp:399] inception_5a/3x3_reduce -> inception_5a/3x3_reduce
I0913 18:05:40.760460 20827 net.cpp:141] Setting up inception_5a/3x3_reduce
I0913 18:05:40.760495 20827 net.cpp:148] Top shape: 10 160 7 7 (78400)
I0913 18:05:40.760506 20827 net.cpp:156] Memory required for data: 530297600
I0913 18:05:40.760526 20827 layer_factory.hpp:77] Creating layer inception_5a/relu_3x3_reduce
I0913 18:05:40.760545 20827 net.cpp:91] Creating Layer inception_5a/relu_3x3_reduce
I0913 18:05:40.760557 20827 net.cpp:425] inception_5a/relu_3x3_reduce <- inception_5a/3x3_reduce
I0913 18:05:40.760581 20827 net.cpp:386] inception_5a/relu_3x3_reduce -> inception_5a/3x3_reduce (in-place)
I0913 18:05:40.761075 20827 net.cpp:141] Setting up inception_5a/relu_3x3_reduce
I0913 18:05:40.761101 20827 net.cpp:148] Top shape: 10 160 7 7 (78400)
I0913 18:05:40.761113 20827 net.cpp:156] Memory required for data: 530611200
I0913 18:05:40.761124 20827 layer_factory.hpp:77] Creating layer inception_5a/3x3
I0913 18:05:40.761154 20827 net.cpp:91] Creating Layer inception_5a/3x3
I0913 18:05:40.761170 20827 net.cpp:425] inception_5a/3x3 <- inception_5a/3x3_reduce
I0913 18:05:40.761191 20827 net.cpp:399] inception_5a/3x3 -> inception_5a/3x3
I0913 18:05:40.769068 20827 net.cpp:141] Setting up inception_5a/3x3
I0913 18:05:40.769098 20827 net.cpp:148] Top shape: 10 320 7 7 (156800)
I0913 18:05:40.769110 20827 net.cpp:156] Memory required for data: 531238400
I0913 18:05:40.769130 20827 layer_factory.hpp:77] Creating layer inception_5a/relu_3x3
I0913 18:05:40.769147 20827 net.cpp:91] Creating Layer inception_5a/relu_3x3
I0913 18:05:40.769160 20827 net.cpp:425] inception_5a/relu_3x3 <- inception_5a/3x3
I0913 18:05:40.769178 20827 net.cpp:386] inception_5a/relu_3x3 -> inception_5a/3x3 (in-place)
I0913 18:05:40.769938 20827 net.cpp:141] Setting up inception_5a/relu_3x3
I0913 18:05:40.769963 20827 net.cpp:148] Top shape: 10 320 7 7 (156800)
I0913 18:05:40.769974 20827 net.cpp:156] Memory required for data: 531865600
I0913 18:05:40.769986 20827 layer_factory.hpp:77] Creating layer inception_5a/5x5_reduce
I0913 18:05:40.770015 20827 net.cpp:91] Creating Layer inception_5a/5x5_reduce
I0913 18:05:40.770030 20827 net.cpp:425] inception_5a/5x5_reduce <- pool4/3x3_s2_pool4/3x3_s2_0_split_2
I0913 18:05:40.770057 20827 net.cpp:399] inception_5a/5x5_reduce -> inception_5a/5x5_reduce
I0913 18:05:40.772209 20827 net.cpp:141] Setting up inception_5a/5x5_reduce
I0913 18:05:40.772234 20827 net.cpp:148] Top shape: 10 32 7 7 (15680)
I0913 18:05:40.772245 20827 net.cpp:156] Memory required for data: 531928320
I0913 18:05:40.772264 20827 layer_factory.hpp:77] Creating layer inception_5a/relu_5x5_reduce
I0913 18:05:40.772281 20827 net.cpp:91] Creating Layer inception_5a/relu_5x5_reduce
I0913 18:05:40.772294 20827 net.cpp:425] inception_5a/relu_5x5_reduce <- inception_5a/5x5_reduce
I0913 18:05:40.772313 20827 net.cpp:386] inception_5a/relu_5x5_reduce -> inception_5a/5x5_reduce (in-place)
I0913 18:05:40.773049 20827 net.cpp:141] Setting up inception_5a/relu_5x5_reduce
I0913 18:05:40.773072 20827 net.cpp:148] Top shape: 10 32 7 7 (15680)
I0913 18:05:40.773084 20827 net.cpp:156] Memory required for data: 531991040
I0913 18:05:40.773095 20827 layer_factory.hpp:77] Creating layer inception_5a/5x5
I0913 18:05:40.773123 20827 net.cpp:91] Creating Layer inception_5a/5x5
I0913 18:05:40.773139 20827 net.cpp:425] inception_5a/5x5 <- inception_5a/5x5_reduce
I0913 18:05:40.773166 20827 net.cpp:399] inception_5a/5x5 -> inception_5a/5x5
I0913 18:05:40.776113 20827 net.cpp:141] Setting up inception_5a/5x5
I0913 18:05:40.776137 20827 net.cpp:148] Top shape: 10 128 7 7 (62720)
I0913 18:05:40.776149 20827 net.cpp:156] Memory required for data: 532241920
I0913 18:05:40.776166 20827 layer_factory.hpp:77] Creating layer inception_5a/relu_5x5
I0913 18:05:40.776226 20827 net.cpp:91] Creating Layer inception_5a/relu_5x5
I0913 18:05:40.776243 20827 net.cpp:425] inception_5a/relu_5x5 <- inception_5a/5x5
I0913 18:05:40.776260 20827 net.cpp:386] inception_5a/relu_5x5 -> inception_5a/5x5 (in-place)
I0913 18:05:40.776747 20827 net.cpp:141] Setting up inception_5a/relu_5x5
I0913 18:05:40.776768 20827 net.cpp:148] Top shape: 10 128 7 7 (62720)
I0913 18:05:40.776779 20827 net.cpp:156] Memory required for data: 532492800
I0913 18:05:40.776792 20827 layer_factory.hpp:77] Creating layer inception_5a/pool
I0913 18:05:40.776813 20827 net.cpp:91] Creating Layer inception_5a/pool
I0913 18:05:40.776825 20827 net.cpp:425] inception_5a/pool <- pool4/3x3_s2_pool4/3x3_s2_0_split_3
I0913 18:05:40.776850 20827 net.cpp:399] inception_5a/pool -> inception_5a/pool
I0913 18:05:40.776996 20827 net.cpp:141] Setting up inception_5a/pool
I0913 18:05:40.777017 20827 net.cpp:148] Top shape: 10 832 7 7 (407680)
I0913 18:05:40.777027 20827 net.cpp:156] Memory required for data: 534123520
I0913 18:05:40.777040 20827 layer_factory.hpp:77] Creating layer inception_5a/pool_proj
I0913 18:05:40.777073 20827 net.cpp:91] Creating Layer inception_5a/pool_proj
I0913 18:05:40.777089 20827 net.cpp:425] inception_5a/pool_proj <- inception_5a/pool
I0913 18:05:40.777110 20827 net.cpp:399] inception_5a/pool_proj -> inception_5a/pool_proj
I0913 18:05:40.781026 20827 net.cpp:141] Setting up inception_5a/pool_proj
I0913 18:05:40.781051 20827 net.cpp:148] Top shape: 10 128 7 7 (62720)
I0913 18:05:40.781062 20827 net.cpp:156] Memory required for data: 534374400
I0913 18:05:40.781081 20827 layer_factory.hpp:77] Creating layer inception_5a/relu_pool_proj
I0913 18:05:40.781105 20827 net.cpp:91] Creating Layer inception_5a/relu_pool_proj
I0913 18:05:40.781121 20827 net.cpp:425] inception_5a/relu_pool_proj <- inception_5a/pool_proj
I0913 18:05:40.781136 20827 net.cpp:386] inception_5a/relu_pool_proj -> inception_5a/pool_proj (in-place)
I0913 18:05:40.781870 20827 net.cpp:141] Setting up inception_5a/relu_pool_proj
I0913 18:05:40.781893 20827 net.cpp:148] Top shape: 10 128 7 7 (62720)
I0913 18:05:40.781903 20827 net.cpp:156] Memory required for data: 534625280
I0913 18:05:40.781915 20827 layer_factory.hpp:77] Creating layer inception_5a/output
I0913 18:05:40.781939 20827 net.cpp:91] Creating Layer inception_5a/output
I0913 18:05:40.781954 20827 net.cpp:425] inception_5a/output <- inception_5a/1x1
I0913 18:05:40.781968 20827 net.cpp:425] inception_5a/output <- inception_5a/3x3
I0913 18:05:40.781981 20827 net.cpp:425] inception_5a/output <- inception_5a/5x5
I0913 18:05:40.781994 20827 net.cpp:425] inception_5a/output <- inception_5a/pool_proj
I0913 18:05:40.782011 20827 net.cpp:399] inception_5a/output -> inception_5a/output
I0913 18:05:40.782101 20827 net.cpp:141] Setting up inception_5a/output
I0913 18:05:40.782122 20827 net.cpp:148] Top shape: 10 832 7 7 (407680)
I0913 18:05:40.782132 20827 net.cpp:156] Memory required for data: 536256000
I0913 18:05:40.782143 20827 layer_factory.hpp:77] Creating layer inception_5a/output_inception_5a/output_0_split
I0913 18:05:40.782161 20827 net.cpp:91] Creating Layer inception_5a/output_inception_5a/output_0_split
I0913 18:05:40.782174 20827 net.cpp:425] inception_5a/output_inception_5a/output_0_split <- inception_5a/output
I0913 18:05:40.782197 20827 net.cpp:399] inception_5a/output_inception_5a/output_0_split -> inception_5a/output_inception_5a/output_0_split_0
I0913 18:05:40.782220 20827 net.cpp:399] inception_5a/output_inception_5a/output_0_split -> inception_5a/output_inception_5a/output_0_split_1
I0913 18:05:40.782241 20827 net.cpp:399] inception_5a/output_inception_5a/output_0_split -> inception_5a/output_inception_5a/output_0_split_2
I0913 18:05:40.782261 20827 net.cpp:399] inception_5a/output_inception_5a/output_0_split -> inception_5a/output_inception_5a/output_0_split_3
I0913 18:05:40.782505 20827 net.cpp:141] Setting up inception_5a/output_inception_5a/output_0_split
I0913 18:05:40.782526 20827 net.cpp:148] Top shape: 10 832 7 7 (407680)
I0913 18:05:40.782539 20827 net.cpp:148] Top shape: 10 832 7 7 (407680)
I0913 18:05:40.782552 20827 net.cpp:148] Top shape: 10 832 7 7 (407680)
I0913 18:05:40.782565 20827 net.cpp:148] Top shape: 10 832 7 7 (407680)
I0913 18:05:40.782574 20827 net.cpp:156] Memory required for data: 542778880
I0913 18:05:40.782587 20827 layer_factory.hpp:77] Creating layer inception_5b/1x1
I0913 18:05:40.782618 20827 net.cpp:91] Creating Layer inception_5b/1x1
I0913 18:05:40.782634 20827 net.cpp:425] inception_5b/1x1 <- inception_5a/output_inception_5a/output_0_split_0
I0913 18:05:40.782654 20827 net.cpp:399] inception_5b/1x1 -> inception_5b/1x1
I0913 18:05:40.788477 20827 net.cpp:141] Setting up inception_5b/1x1
I0913 18:05:40.788506 20827 net.cpp:148] Top shape: 10 384 7 7 (188160)
I0913 18:05:40.788519 20827 net.cpp:156] Memory required for data: 543531520
I0913 18:05:40.788537 20827 layer_factory.hpp:77] Creating layer inception_5b/relu_1x1
I0913 18:05:40.788553 20827 net.cpp:91] Creating Layer inception_5b/relu_1x1
I0913 18:05:40.788565 20827 net.cpp:425] inception_5b/relu_1x1 <- inception_5b/1x1
I0913 18:05:40.788580 20827 net.cpp:386] inception_5b/relu_1x1 -> inception_5b/1x1 (in-place)
I0913 18:05:40.789333 20827 net.cpp:141] Setting up inception_5b/relu_1x1
I0913 18:05:40.789362 20827 net.cpp:148] Top shape: 10 384 7 7 (188160)
I0913 18:05:40.789374 20827 net.cpp:156] Memory required for data: 544284160
I0913 18:05:40.789386 20827 layer_factory.hpp:77] Creating layer inception_5b/3x3_reduce
I0913 18:05:40.789414 20827 net.cpp:91] Creating Layer inception_5b/3x3_reduce
I0913 18:05:40.789429 20827 net.cpp:425] inception_5b/3x3_reduce <- inception_5a/output_inception_5a/output_0_split_1
I0913 18:05:40.789450 20827 net.cpp:399] inception_5b/3x3_reduce -> inception_5b/3x3_reduce
I0913 18:05:40.793645 20827 net.cpp:141] Setting up inception_5b/3x3_reduce
I0913 18:05:40.793673 20827 net.cpp:148] Top shape: 10 192 7 7 (94080)
I0913 18:05:40.793686 20827 net.cpp:156] Memory required for data: 544660480
I0913 18:05:40.793705 20827 layer_factory.hpp:77] Creating layer inception_5b/relu_3x3_reduce
I0913 18:05:40.793723 20827 net.cpp:91] Creating Layer inception_5b/relu_3x3_reduce
I0913 18:05:40.793736 20827 net.cpp:425] inception_5b/relu_3x3_reduce <- inception_5b/3x3_reduce
I0913 18:05:40.793752 20827 net.cpp:386] inception_5b/relu_3x3_reduce -> inception_5b/3x3_reduce (in-place)
I0913 18:05:40.794239 20827 net.cpp:141] Setting up inception_5b/relu_3x3_reduce
I0913 18:05:40.794261 20827 net.cpp:148] Top shape: 10 192 7 7 (94080)
I0913 18:05:40.794273 20827 net.cpp:156] Memory required for data: 545036800
I0913 18:05:40.794284 20827 layer_factory.hpp:77] Creating layer inception_5b/3x3
I0913 18:05:40.794312 20827 net.cpp:91] Creating Layer inception_5b/3x3
I0913 18:05:40.794327 20827 net.cpp:425] inception_5b/3x3 <- inception_5b/3x3_reduce
I0913 18:05:40.794361 20827 net.cpp:399] inception_5b/3x3 -> inception_5b/3x3
I0913 18:05:40.803596 20827 net.cpp:141] Setting up inception_5b/3x3
I0913 18:05:40.803633 20827 net.cpp:148] Top shape: 10 384 7 7 (188160)
I0913 18:05:40.803644 20827 net.cpp:156] Memory required for data: 545789440
I0913 18:05:40.803664 20827 layer_factory.hpp:77] Creating layer inception_5b/relu_3x3
I0913 18:05:40.803692 20827 net.cpp:91] Creating Layer inception_5b/relu_3x3
I0913 18:05:40.803706 20827 net.cpp:425] inception_5b/relu_3x3 <- inception_5b/3x3
I0913 18:05:40.803724 20827 net.cpp:386] inception_5b/relu_3x3 -> inception_5b/3x3 (in-place)
I0913 18:05:40.804471 20827 net.cpp:141] Setting up inception_5b/relu_3x3
I0913 18:05:40.804493 20827 net.cpp:148] Top shape: 10 384 7 7 (188160)
I0913 18:05:40.804504 20827 net.cpp:156] Memory required for data: 546542080
I0913 18:05:40.804515 20827 layer_factory.hpp:77] Creating layer inception_5b/5x5_reduce
I0913 18:05:40.804550 20827 net.cpp:91] Creating Layer inception_5b/5x5_reduce
I0913 18:05:40.804566 20827 net.cpp:425] inception_5b/5x5_reduce <- inception_5a/output_inception_5a/output_0_split_2
I0913 18:05:40.804589 20827 net.cpp:399] inception_5b/5x5_reduce -> inception_5b/5x5_reduce
I0913 18:05:40.806929 20827 net.cpp:141] Setting up inception_5b/5x5_reduce
I0913 18:05:40.806953 20827 net.cpp:148] Top shape: 10 48 7 7 (23520)
I0913 18:05:40.806964 20827 net.cpp:156] Memory required for data: 546636160
I0913 18:05:40.806982 20827 layer_factory.hpp:77] Creating layer inception_5b/relu_5x5_reduce
I0913 18:05:40.807005 20827 net.cpp:91] Creating Layer inception_5b/relu_5x5_reduce
I0913 18:05:40.807019 20827 net.cpp:425] inception_5b/relu_5x5_reduce <- inception_5b/5x5_reduce
I0913 18:05:40.807035 20827 net.cpp:386] inception_5b/relu_5x5_reduce -> inception_5b/5x5_reduce (in-place)
I0913 18:05:40.807781 20827 net.cpp:141] Setting up inception_5b/relu_5x5_reduce
I0913 18:05:40.807803 20827 net.cpp:148] Top shape: 10 48 7 7 (23520)
I0913 18:05:40.807814 20827 net.cpp:156] Memory required for data: 546730240
I0913 18:05:40.807826 20827 layer_factory.hpp:77] Creating layer inception_5b/5x5
I0913 18:05:40.807860 20827 net.cpp:91] Creating Layer inception_5b/5x5
I0913 18:05:40.807875 20827 net.cpp:425] inception_5b/5x5 <- inception_5b/5x5_reduce
I0913 18:05:40.807898 20827 net.cpp:399] inception_5b/5x5 -> inception_5b/5x5
I0913 18:05:40.811619 20827 net.cpp:141] Setting up inception_5b/5x5
I0913 18:05:40.811643 20827 net.cpp:148] Top shape: 10 128 7 7 (62720)
I0913 18:05:40.811655 20827 net.cpp:156] Memory required for data: 546981120
I0913 18:05:40.811674 20827 layer_factory.hpp:77] Creating layer inception_5b/relu_5x5
I0913 18:05:40.811703 20827 net.cpp:91] Creating Layer inception_5b/relu_5x5
I0913 18:05:40.811718 20827 net.cpp:425] inception_5b/relu_5x5 <- inception_5b/5x5
I0913 18:05:40.811734 20827 net.cpp:386] inception_5b/relu_5x5 -> inception_5b/5x5 (in-place)
I0913 18:05:40.812247 20827 net.cpp:141] Setting up inception_5b/relu_5x5
I0913 18:05:40.812273 20827 net.cpp:148] Top shape: 10 128 7 7 (62720)
I0913 18:05:40.812285 20827 net.cpp:156] Memory required for data: 547232000
I0913 18:05:40.812297 20827 layer_factory.hpp:77] Creating layer inception_5b/pool
I0913 18:05:40.812317 20827 net.cpp:91] Creating Layer inception_5b/pool
I0913 18:05:40.812331 20827 net.cpp:425] inception_5b/pool <- inception_5a/output_inception_5a/output_0_split_3
I0913 18:05:40.812353 20827 net.cpp:399] inception_5b/pool -> inception_5b/pool
I0913 18:05:40.812503 20827 net.cpp:141] Setting up inception_5b/pool
I0913 18:05:40.812528 20827 net.cpp:148] Top shape: 10 832 7 7 (407680)
I0913 18:05:40.812539 20827 net.cpp:156] Memory required for data: 548862720
I0913 18:05:40.812551 20827 layer_factory.hpp:77] Creating layer inception_5b/pool_proj
I0913 18:05:40.812572 20827 net.cpp:91] Creating Layer inception_5b/pool_proj
I0913 18:05:40.812587 20827 net.cpp:425] inception_5b/pool_proj <- inception_5b/pool
I0913 18:05:40.812613 20827 net.cpp:399] inception_5b/pool_proj -> inception_5b/pool_proj
I0913 18:05:40.816514 20827 net.cpp:141] Setting up inception_5b/pool_proj
I0913 18:05:40.816539 20827 net.cpp:148] Top shape: 10 128 7 7 (62720)
I0913 18:05:40.816550 20827 net.cpp:156] Memory required for data: 549113600
I0913 18:05:40.816567 20827 layer_factory.hpp:77] Creating layer inception_5b/relu_pool_proj
I0913 18:05:40.816592 20827 net.cpp:91] Creating Layer inception_5b/relu_pool_proj
I0913 18:05:40.816607 20827 net.cpp:425] inception_5b/relu_pool_proj <- inception_5b/pool_proj
I0913 18:05:40.816623 20827 net.cpp:386] inception_5b/relu_pool_proj -> inception_5b/pool_proj (in-place)
I0913 18:05:40.817353 20827 net.cpp:141] Setting up inception_5b/relu_pool_proj
I0913 18:05:40.817378 20827 net.cpp:148] Top shape: 10 128 7 7 (62720)
I0913 18:05:40.817389 20827 net.cpp:156] Memory required for data: 549364480
I0913 18:05:40.817400 20827 layer_factory.hpp:77] Creating layer inception_5b/output
I0913 18:05:40.817420 20827 net.cpp:91] Creating Layer inception_5b/output
I0913 18:05:40.817435 20827 net.cpp:425] inception_5b/output <- inception_5b/1x1
I0913 18:05:40.817448 20827 net.cpp:425] inception_5b/output <- inception_5b/3x3
I0913 18:05:40.817461 20827 net.cpp:425] inception_5b/output <- inception_5b/5x5
I0913 18:05:40.817473 20827 net.cpp:425] inception_5b/output <- inception_5b/pool_proj
I0913 18:05:40.817493 20827 net.cpp:399] inception_5b/output -> inception_5b/output
I0913 18:05:40.817581 20827 net.cpp:141] Setting up inception_5b/output
I0913 18:05:40.817600 20827 net.cpp:148] Top shape: 10 1024 7 7 (501760)
I0913 18:05:40.817611 20827 net.cpp:156] Memory required for data: 551371520
I0913 18:05:40.817622 20827 layer_factory.hpp:77] Creating layer pool5/7x7_s1
I0913 18:05:40.817646 20827 net.cpp:91] Creating Layer pool5/7x7_s1
I0913 18:05:40.817659 20827 net.cpp:425] pool5/7x7_s1 <- inception_5b/output
I0913 18:05:40.817677 20827 net.cpp:399] pool5/7x7_s1 -> pool5/7x7_s1
I0913 18:05:40.818281 20827 net.cpp:141] Setting up pool5/7x7_s1
I0913 18:05:40.818305 20827 net.cpp:148] Top shape: 10 1024 1 1 (10240)
I0913 18:05:40.818315 20827 net.cpp:156] Memory required for data: 551412480
I0913 18:05:40.818327 20827 layer_factory.hpp:77] Creating layer pool5/drop_7x7_s1
I0913 18:05:40.818356 20827 net.cpp:91] Creating Layer pool5/drop_7x7_s1
I0913 18:05:40.818370 20827 net.cpp:425] pool5/drop_7x7_s1 <- pool5/7x7_s1
I0913 18:05:40.818390 20827 net.cpp:386] pool5/drop_7x7_s1 -> pool5/7x7_s1 (in-place)
I0913 18:05:40.818481 20827 net.cpp:141] Setting up pool5/drop_7x7_s1
I0913 18:05:40.818500 20827 net.cpp:148] Top shape: 10 1024 1 1 (10240)
I0913 18:05:40.818511 20827 net.cpp:156] Memory required for data: 551453440
I0913 18:05:40.818521 20827 layer_factory.hpp:77] Creating layer loss3/classifier
I0913 18:05:40.818549 20827 net.cpp:91] Creating Layer loss3/classifier
I0913 18:05:40.818563 20827 net.cpp:425] loss3/classifier <- pool5/7x7_s1
I0913 18:05:40.818585 20827 net.cpp:399] loss3/classifier -> loss3/classifier
I0913 18:05:40.829960 20827 net.cpp:141] Setting up loss3/classifier
I0913 18:05:40.829988 20827 net.cpp:148] Top shape: 10 1000 (10000)
I0913 18:05:40.829998 20827 net.cpp:156] Memory required for data: 551493440
I0913 18:05:40.830018 20827 layer_factory.hpp:77] Creating layer prob
I0913 18:05:40.830036 20827 net.cpp:91] Creating Layer prob
I0913 18:05:40.830049 20827 net.cpp:425] prob <- loss3/classifier
I0913 18:05:40.830072 20827 net.cpp:399] prob -> prob
I0913 18:05:40.830919 20827 net.cpp:141] Setting up prob
I0913 18:05:40.830942 20827 net.cpp:148] Top shape: 10 1000 (10000)
I0913 18:05:40.830952 20827 net.cpp:156] Memory required for data: 551533440
I0913 18:05:40.830965 20827 net.cpp:219] prob does not need backward computation.
I0913 18:05:40.830976 20827 net.cpp:219] loss3/classifier does not need backward computation.
I0913 18:05:40.830986 20827 net.cpp:219] pool5/drop_7x7_s1 does not need backward computation.
I0913 18:05:40.830996 20827 net.cpp:219] pool5/7x7_s1 does not need backward computation.
…
