…
Java HotSpot(TM) 64-Bit Server VM warning: You have loaded library /tmp/cvld8242851247375421634/libopencv_java310.xine1.so which might have disabled stack guard. The VM will try to fix the stack guard now.
It's highly recommended that you fix the library with 'execstack -c <libfile>', or link it with '-z noexecstack'.
WARNING: Logging before InitGoogleLogging() is written to STDERR
I0715 00:34:50.615146 23204 net.cpp:49] Initializing net from parameters: 
name: "GoogleNet"
state {
  phase: TEST
}
layer {
  name: "data"
  type: "Input"
  top: "data"
  input_param {
    shape {
      dim: 10
      dim: 3
      dim: 224
      dim: 224
    }
  }
}
layer {
  name: "conv1/7x7_s2"
  type: "Convolution"
  bottom: "data"
  top: "conv1/7x7_s2"
  param {
    lr_mult: 1
    decay_mult: 1
  }
  param {
    lr_mult: 2
    decay_mult: 0
  }
  convolution_param {
    num_output: 64
    pad: 3
    kernel_size: 7
    stride: 2
    weight_filler {
      type: "xavier"
      std: 0.1
    }
    bias_filler {
      type: "constant"
      value: 0.2
    }
  }
}
layer {
  name: "conv1/relu_7x7"
  type: "ReLU"
  bottom: "conv1/7x7_s2"
  top: "conv1/7x7_s2"
}
layer {
  name: "pool1/3x3_s2"
  type: "Pooling"
  bottom: "conv1/7x7_s2"
  top: "pool1/3x3_s2"
  pooling_param {
    pool: MAX
    kernel_size: 3
    stride: 2
  }
}
layer {
  name: "pool1/norm1"
  type: "LRN"
  bottom: "pool1/3x3_s2"
  top: "pool1/norm1"
  lrn_param {
    local_size: 5
    alpha: 0.0001
    beta: 0.75
  }
}
layer {
  name: "conv2/3x3_reduce"
  type: "Convolution"
  bottom: "pool1/norm1"
  top: "conv2/3x3_reduce"
  param {
    lr_mult: 1
    decay_mult: 1
  }
  param {
    lr_mult: 2
    decay_mult: 0
  }
  convolution_param {
    num_output: 64
    kernel_size: 1
    weight_filler {
      type: "xavier"
      std: 0.1
    }
    bias_filler {
      type: "constant"
      value: 0.2
    }
  }
}
layer {
  name: "conv2/relu_3x3_reduce"
  type: "ReLU"
  bottom: "conv2/3x3_reduce"
  top: "conv2/3x3_reduce"
}
layer {
  name: "conv2/3x3"
  type: "Convolution"
  bottom: "conv2/3x3_reduce"
  top: "conv2/3x3"
  param {
    lr_mult: 1
    decay_mult: 1
  }
  param {
    lr_mult: 2
    decay_mult: 0
  }
  convolution_param {
    num_output: 192
    pad: 1
    kernel_size: 3
    weight_filler {
      type: "xavier"
      std: 0.03
    }
    bias_filler {
      type: "constant"
      value: 0.2
    }
  }
}
layer {
  name: "conv2/relu_3x3"
  type: "ReLU"
  bottom: "conv2/3x3"
  top: "conv2/3x3"
}
layer {
  name: "conv2/norm2"
  type: "LRN"
  bottom: "conv2/3x3"
  top: "conv2/norm2"
  lrn_param {
    local_size: 5
    alpha: 0.0001
    beta: 0.75
  }
}
layer {
  name: "pool2/3x3_s2"
  type: "Pooling"
  bottom: "conv2/norm2"
  top: "pool2/3x3_s2"
  pooling_param {
    pool: MAX
    kernel_size: 3
    stride: 2
  }
}
layer {
  name: "inception_3a/1x1"
  type: "Convolution"
  bottom: "pool2/3x3_s2"
  top: "inception_3a/1x1"
  param {
    lr_mult: 1
    decay_mult: 1
  }
  param {
    lr_mult: 2
    decay_mult: 0
  }
  convolution_param {
    num_output: 64
    kernel_size: 1
    weight_filler {
      type: "xavier"
      std: 0.03
    }
    bias_filler {
      type: "constant"
      value: 0.2
    }
  }
}
layer {
  name: "inception_3a/relu_1x1"
  type: "ReLU"
  bottom: "inception_3a/1x1"
  top: "inception_3a/1x1"
}
layer {
  name: "inception_3a/3x3_reduce"
  type: "Convolution"
  bottom: "pool2/3x3_s2"
  top: "inception_3a/3x3_reduce"
  param {
    lr_mult: 1
    decay_mult: 1
  }
  param {
    lr_mult: 2
    decay_mult: 0
  }
  convolution_param {
    num_output: 96
    kernel_size: 1
    weight_filler {
      type: "xavier"
      std: 0.09
    }
    bias_filler {
      type: "constant"
      value: 0.2
    }
  }
}
layer {
  name: "inception_3a/relu_3x3_reduce"
  type: "ReLU"
  bottom: "inception_3a/3x3_reduce"
  top: "inception_3a/3x3_reduce"
}
layer {
  name: "inception_3a/3x3"
  type: "Convolution"
  bottom: "inception_3a/3x3_reduce"
  top: "inception_3a/3x3"
  param {
    lr_mult: 1
    decay_mult: 1
  }
  param {
    lr_mult: 2
    decay_mult: 0
  }
  convolution_param {
    num_output: 128
    pad: 1
    kernel_size: 3
    weight_filler {
      type: "xavier"
      std: 0.03
    }
    bias_filler {
      type: "constant"
      value: 0.2
    }
  }
}
layer {
  name: "inception_3a/relu_3x3"
  type: "ReLU"
  bottom: "inception_3a/3x3"
  top: "inception_3a/3x3"
}
layer {
  name: "inception_3a/5x5_reduce"
  type: "Convolution"
  bottom: "pool2/3x3_s2"
  top: "inception_3a/5x5_reduce"
  param {
    lr_mult: 1
    decay_mult: 1
  }
  param {
    lr_mult: 2
    decay_mult: 0
  }
  convolution_param {
    num_output: 16
    kernel_size: 1
    weight_filler {
      type: "xavier"
      std: 0.2
    }
    bias_filler {
      type: "constant"
      value: 0.2
    }
  }
}
layer {
  name: "inception_3a/relu_5x5_reduce"
  type: "ReLU"
  bottom: "inception_3a/5x5_reduce"
  top: "inception_3a/5x5_reduce"
}
layer {
  name: "inception_3a/5x5"
  type: "Convolution"
  bottom: "inception_3a/5x5_reduce"
  top: "inception_3a/5x5"
  param {
    lr_mult: 1
    decay_mult: 1
  }
  param {
    lr_mult: 2
    decay_mult: 0
  }
  convolution_param {
    num_output: 32
    pad: 2
    kernel_size: 5
    weight_filler {
      type: "xavier"
      std: 0.03
    }
    bias_filler {
      type: "constant"
      value: 0.2
    }
  }
}
layer {
  name: "inception_3a/relu_5x5"
  type: "ReLU"
  bottom: "inception_3a/5x5"
  top: "inception_3a/5x5"
}
layer {
  name: "inception_3a/pool"
  type: "Pooling"
  bottom: "pool2/3x3_s2"
  top: "inception_3a/pool"
  pooling_param {
    pool: MAX
    kernel_size: 3
    stride: 1
    pad: 1
  }
}
layer {
  name: "inception_3a/pool_proj"
  type: "Convolution"
  bottom: "inception_3a/pool"
  top: "inception_3a/pool_proj"
  param {
    lr_mult: 1
    decay_mult: 1
  }
  param {
    lr_mult: 2
    decay_mult: 0
  }
  convolution_param {
    num_output: 32
    kernel_size: 1
    weight_filler {
      type: "xavier"
      std: 0.1
    }
    bias_filler {
      type: "constant"
      value: 0.2
    }
  }
}
layer {
  name: "inception_3a/relu_pool_proj"
  type: "ReLU"
  bottom: "inception_3a/pool_proj"
  top: "inception_3a/pool_proj"
}
layer {
  name: "inception_3a/output"
  type: "Concat"
  bottom: "inception_3a/1x1"
  bottom: "inception_3a/3x3"
  bottom: "inception_3a/5x5"
  bottom: "inception_3a/pool_proj"
  top: "inception_3a/output"
}
layer {
  name: "inception_3b/1x1"
  type: "Convolution"
  bottom: "inception_3a/output"
  top: "inception_3b/1x1"
  param {
    lr_mult: 1
    decay_mult: 1
  }
  param {
    lr_mult: 2
    decay_mult: 0
  }
  convolution_param {
    num_output: 128
    kernel_size: 1
    weight_filler {
      type: "xavier"
      std: 0.03
    }
    bias_filler {
      type: "constant"
      value: 0.2
    }
  }
}
layer {
  name: "inception_3b/relu_1x1"
  type: "ReLU"
  bottom: "inception_3b/1x1"
  top: "inception_3b/1x1"
}
layer {
  name: "inception_3b/3x3_reduce"
  type: "Convolution"
  bottom: "inception_3a/output"
  top: "inception_3b/3x3_reduce"
  param {
    lr_mult: 1
    decay_mult: 1
  }
  param {
    lr_mult: 2
    decay_mult: 0
  }
  convolution_param {
    num_output: 128
    kernel_size: 1
    weight_filler {
      type: "xavier"
      std: 0.09
    }
    bias_filler {
      type: "constant"
      value: 0.2
    }
  }
}
layer {
  name: "inception_3b/relu_3x3_reduce"
  type: "ReLU"
  bottom: "inception_3b/3x3_reduce"
  top: "inception_3b/3x3_reduce"
}
layer {
  name: "inception_3b/3x3"
  type: "Convolution"
  bottom: "inception_3b/3x3_reduce"
  top: "inception_3b/3x3"
  param {
    lr_mult: 1
    decay_mult: 1
  }
  param {
    lr_mult: 2
    decay_mult: 0
  }
  convolution_param {
    num_output: 192
    pad: 1
    kernel_size: 3
    weight_filler {
      type: "xavier"
      std: 0.03
    }
    bias_filler {
      type: "constant"
      value: 0.2
    }
  }
}
layer {
  name: "inception_3b/relu_3x3"
  type: "ReLU"
  bottom: "inception_3b/3x3"
  top: "inception_3b/3x3"
}
layer {
  name: "inception_3b/5x5_reduce"
  type: "Convolution"
  bottom: "inception_3a/output"
  top: "inception_3b/5x5_reduce"
  param {
    lr_mult: 1
    decay_mult: 1
  }
  param {
    lr_mult: 2
    decay_mult: 0
  }
  convolution_param {
    num_output: 32
    kernel_size: 1
    weight_filler {
      type: "xavier"
      std: 0.2
    }
    bias_filler {
      type: "constant"
      value: 0.2
    }
  }
}
layer {
  name: "inception_3b/relu_5x5_reduce"
  type: "ReLU"
  bottom: "inception_3b/5x5_reduce"
  top: "inception_3b/5x5_reduce"
}
layer {
  name: "inception_3b/5x5"
  type: "Convolution"
  bottom: "inception_3b/5x5_reduce"
  top: "inception_3b/5x5"
  param {
    lr_mult: 1
    decay_mult: 1
  }
  param {
    lr_mult: 2
    decay_mult: 0
  }
  convolution_param {
    num_output: 96
    pad: 2
    kernel_size: 5
    weight_filler {
      type: "xavier"
      std: 0.03
    }
    bias_filler {
      type: "constant"
      value: 0.2
    }
  }
}
layer {
  name: "inception_3b/relu_5x5"
  type: "ReLU"
  bottom: "inception_3b/5x5"
  top: "inception_3b/5x5"
}
layer {
  name: "inception_3b/pool"
  type: "Pooling"
  bottom: "inception_3a/output"
  top: "inception_3b/pool"
  pooling_param {
    pool: MAX
    kernel_size: 3
    stride: 1
    pad: 1
  }
}
layer {
  name: "inception_3b/pool_proj"
  type: "Convolution"
  bottom: "inception_3b/pool"
  top: "inception_3b/pool_proj"
  param {
    lr_mult: 1
    decay_mult: 1
  }
  param {
    lr_mult: 2
    decay_mult: 0
  }
  convolution_param {
    num_output: 64
    kernel_size: 1
    weight_filler {
      type: "xavier"
      std: 0.1
    }
    bias_filler {
      type: "constant"
      value: 0.2
    }
  }
}
layer {
  name: "inception_3b/relu_pool_proj"
  type: "ReLU"
  bottom: "inception_3b/pool_proj"
  top: "inception_3b/pool_proj"
}
layer {
  name: "inception_3b/output"
  type: "Concat"
  bottom: "inception_3b/1x1"
  bottom: "inception_3b/3x3"
  bottom: "inception_3b/5x5"
  bottom: "inception_3b/pool_proj"
  top: "inception_3b/output"
}
layer {
  name: "pool3/3x3_s2"
  type: "Pooling"
  bottom: "inception_3b/output"
  top: "pool3/3x3_s2"
  pooling_param {
    pool: MAX
    kernel_size: 3
    stride: 2
  }
}
layer {
  name: "inception_4a/1x1"
  type: "Convolution"
  bottom: "pool3/3x3_s2"
  top: "inception_4a/1x1"
  param {
    lr_mult: 1
    decay_mult: 1
  }
  param {
    lr_mult: 2
    decay_mult: 0
  }
  convolution_param {
    num_output: 192
    kernel_size: 1
    weight_filler {
      type: "xavier"
      std: 0.03
    }
    bias_filler {
      type: "constant"
      value: 0.2
    }
  }
}
layer {
  name: "inception_4a/relu_1x1"
  type: "ReLU"
  bottom: "inception_4a/1x1"
  top: "inception_4a/1x1"
}
layer {
  name: "inception_4a/3x3_reduce"
  type: "Convolution"
  bottom: "pool3/3x3_s2"
  top: "inception_4a/3x3_reduce"
  param {
    lr_mult: 1
    decay_mult: 1
  }
  param {
    lr_mult: 2
    decay_mult: 0
  }
  convolution_param {
    num_output: 96
    kernel_size: 1
    weight_filler {
      type: "xavier"
      std: 0.09
    }
    bias_filler {
      type: "constant"
      value: 0.2
    }
  }
}
layer {
  name: "inception_4a/relu_3x3_reduce"
  type: "ReLU"
  bottom: "inception_4a/3x3_reduce"
  top: "inception_4a/3x3_reduce"
}
layer {
  name: "inception_4a/3x3"
  type: "Convolution"
  bottom: "inception_4a/3x3_reduce"
  top: "inception_4a/3x3"
  param {
    lr_mult: 1
    decay_mult: 1
  }
  param {
    lr_mult: 2
    decay_mult: 0
  }
  convolution_param {
    num_output: 208
    pad: 1
    kernel_size: 3
    weight_filler {
      type: "xavier"
      std: 0.03
    }
    bias_filler {
      type: "constant"
      value: 0.2
    }
  }
}
layer {
  name: "inception_4a/relu_3x3"
  type: "ReLU"
  bottom: "inception_4a/3x3"
  top: "inception_4a/3x3"
}
layer {
  name: "inception_4a/5x5_reduce"
  type: "Convolution"
  bottom: "pool3/3x3_s2"
  top: "inception_4a/5x5_reduce"
  param {
    lr_mult: 1
    decay_mult: 1
  }
  param {
    lr_mult: 2
    decay_mult: 0
  }
  convolution_param {
    num_output: 16
    kernel_size: 1
    weight_filler {
      type: "xavier"
      std: 0.2
    }
    bias_filler {
      type: "constant"
      value: 0.2
    }
  }
}
layer {
  name: "inception_4a/relu_5x5_reduce"
  type: "ReLU"
  bottom: "inception_4a/5x5_reduce"
  top: "inception_4a/5x5_reduce"
}
layer {
  name: "inception_4a/5x5"
  type: "Convolution"
  bottom: "inception_4a/5x5_reduce"
  top: "inception_4a/5x5"
  param {
    lr_mult: 1
    decay_mult: 1
  }
  param {
    lr_mult: 2
    decay_mult: 0
  }
  convolution_param {
    num_output: 48
    pad: 2
    kernel_size: 5
    weight_filler {
      type: "xavier"
      std: 0.03
    }
    bias_filler {
      type: "constant"
      value: 0.2
    }
  }
}
layer {
  name: "inception_4a/relu_5x5"
  type: "ReLU"
  bottom: "inception_4a/5x5"
  top: "inception_4a/5x5"
}
layer {
  name: "inception_4a/pool"
  type: "Pooling"
  bottom: "pool3/3x3_s2"
  top: "inception_4a/pool"
  pooling_param {
    pool: MAX
    kernel_size: 3
    stride: 1
    pad: 1
  }
}
layer {
  name: "inception_4a/pool_proj"
  type: "Convolution"
  bottom: "inception_4a/pool"
  top: "inception_4a/pool_proj"
  param {
    lr_mult: 1
    decay_mult: 1
  }
  param {
    lr_mult: 2
    decay_mult: 0
  }
  convolution_param {
    num_output: 64
    kernel_size: 1
    weight_filler {
      type: "xavier"
      std: 0.1
    }
    bias_filler {
      type: "constant"
      value: 0.2
    }
  }
}
layer {
  name: "inception_4a/relu_pool_proj"
  type: "ReLU"
  bottom: "inception_4a/pool_proj"
  top: "inception_4a/pool_proj"
}
layer {
  name: "inception_4a/output"
  type: "Concat"
  bottom: "inception_4a/1x1"
  bottom: "inception_4a/3x3"
  bottom: "inception_4a/5x5"
  bottom: "inception_4a/pool_proj"
  top: "inception_4a/output"
}
layer {
  name: "inception_4b/1x1"
  type: "Convolution"
  bottom: "inception_4a/output"
  top: "inception_4b/1x1"
  param {
    lr_mult: 1
    decay_mult: 1
  }
  param {
    lr_mult: 2
    decay_mult: 0
  }
  convolution_param {
    num_output: 160
    kernel_size: 1
    weight_filler {
      type: "xavier"
      std: 0.03
    }
    bias_filler {
      type: "constant"
      value: 0.2
    }
  }
}
layer {
  name: "inception_4b/relu_1x1"
  type: "ReLU"
  bottom: "inception_4b/1x1"
  top: "inception_4b/1x1"
}
layer {
  name: "inception_4b/3x3_reduce"
  type: "Convolution"
  bottom: "inception_4a/output"
  top: "inception_4b/3x3_reduce"
  param {
    lr_mult: 1
    decay_mult: 1
  }
  param {
    lr_mult: 2
    decay_mult: 0
  }
  convolution_param {
    num_output: 112
    kernel_size: 1
    weight_filler {
      type: "xavier"
      std: 0.09
    }
    bias_filler {
      type: "constant"
      value: 0.2
    }
  }
}
layer {
  name: "inception_4b/relu_3x3_reduce"
  type: "ReLU"
  bottom: "inception_4b/3x3_reduce"
  top: "inception_4b/3x3_reduce"
}
layer {
  name: "inception_4b/3x3"
  type: "Convolution"
  bottom: "inception_4b/3x3_reduce"
  top: "inception_4b/3x3"
  param {
    lr_mult: 1
    decay_mult: 1
  }
  param {
    lr_mult: 2
    decay_mult: 0
  }
  convolution_param {
    num_output: 224
    pad: 1
    kernel_size: 3
    weight_filler {
      type: "xavier"
      std: 0.03
    }
    bias_filler {
      type: "constant"
      value: 0.2
    }
  }
}
layer {
  name: "inception_4b/relu_3x3"
  type: "ReLU"
  bottom: "inception_4b/3x3"
  top: "inception_4b/3x3"
}
layer {
  name: "inception_4b/5x5_reduce"
  type: "Convolution"
  bottom: "inception_4a/output"
  top: "inception_4b/5x5_reduce"
  param {
    lr_mult: 1
    decay_mult: 1
  }
  param {
    lr_mult: 2
    decay_mult: 0
  }
  convolution_param {
    num_output: 24
    kernel_size: 1
    weight_filler {
      type: "xavier"
      std: 0.2
    }
    bias_filler {
      type: "constant"
      value: 0.2
    }
  }
}
layer {
  name: "inception_4b/relu_5x5_reduce"
  type: "ReLU"
  bottom: "inception_4b/5x5_reduce"
  top: "inception_4b/5x5_reduce"
}
layer {
  name: "inception_4b/5x5"
  type: "Convolution"
  bottom: "inception_4b/5x5_reduce"
  top: "inception_4b/5x5"
  param {
    lr_mult: 1
    decay_mult: 1
  }
  param {
    lr_mult: 2
    decay_mult: 0
  }
  convolution_param {
    num_output: 64
    pad: 2
    kernel_size: 5
    weight_filler {
      type: "xavier"
      std: 0.03
    }
    bias_filler {
      type: "constant"
      value: 0.2
    }
  }
}
layer {
  name: "inception_4b/relu_5x5"
  type: "ReLU"
  bottom: "inception_4b/5x5"
  top: "inception_4b/5x5"
}
layer {
  name: "inception_4b/pool"
  type: "Pooling"
  bottom: "inception_4a/output"
  top: "inception_4b/pool"
  pooling_param {
    pool: MAX
    kernel_size: 3
    stride: 1
    pad: 1
  }
}
layer {
  name: "inception_4b/pool_proj"
  type: "Convolution"
  bottom: "inception_4b/pool"
  top: "inception_4b/pool_proj"
  param {
    lr_mult: 1
    decay_mult: 1
  }
  param {
    lr_mult: 2
    decay_mult: 0
  }
  convolution_param {
    num_output: 64
    kernel_size: 1
    weight_filler {
      type: "xavier"
      std: 0.1
    }
    bias_filler {
      type: "constant"
      value: 0.2
    }
  }
}
layer {
  name: "inception_4b/relu_pool_proj"
  type: "ReLU"
  bottom: "inception_4b/pool_proj"
  top: "inception_4b/pool_proj"
}
layer {
  name: "inception_4b/output"
  type: "Concat"
  bottom: "inception_4b/1x1"
  bottom: "inception_4b/3x3"
  bottom: "inception_4b/5x5"
  bottom: "inception_4b/pool_proj"
  top: "inception_4b/output"
}
layer {
  name: "inception_4c/1x1"
  type: "Convolution"
  bottom: "inception_4b/output"
  top: "inception_4c/1x1"
  param {
    lr_mult: 1
    decay_mult: 1
  }
  param {
    lr_mult: 2
    decay_mult: 0
  }
  convolution_param {
    num_output: 128
    kernel_size: 1
    weight_filler {
      type: "xavier"
      std: 0.03
    }
    bias_filler {
      type: "constant"
      value: 0.2
    }
  }
}
layer {
  name: "inception_4c/relu_1x1"
  type: "ReLU"
  bottom: "inception_4c/1x1"
  top: "inception_4c/1x1"
}
layer {
  name: "inception_4c/3x3_reduce"
  type: "Convolution"
  bottom: "inception_4b/output"
  top: "inception_4c/3x3_reduce"
  param {
    lr_mult: 1
    decay_mult: 1
  }
  param {
    lr_mult: 2
    decay_mult: 0
  }
  convolution_param {
    num_output: 128
    kernel_size: 1
    weight_filler {
      type: "xavier"
      std: 0.09
    }
    bias_filler {
      type: "constant"
      value: 0.2
    }
  }
}
layer {
  name: "inception_4c/relu_3x3_reduce"
  type: "ReLU"
  bottom: "inception_4c/3x3_reduce"
  top: "inception_4c/3x3_reduce"
}
layer {
  name: "inception_4c/3x3"
  type: "Convolution"
  bottom: "inception_4c/3x3_reduce"
  top: "inception_4c/3x3"
  param {
    lr_mult: 1
    decay_mult: 1
  }
  param {
    lr_mult: 2
    decay_mult: 0
  }
  convolution_param {
    num_output: 256
    pad: 1
    kernel_size: 3
    weight_filler {
      type: "xavier"
      std: 0.03
    }
    bias_filler {
      type: "constant"
      value: 0.2
    }
  }
}
layer {
  name: "inception_4c/relu_3x3"
  type: "ReLU"
  bottom: "inception_4c/3x3"
  top: "inception_4c/3x3"
}
layer {
  name: "inception_4c/5x5_reduce"
  type: "Convolution"
  bottom: "inception_4b/output"
  top: "inception_4c/5x5_reduce"
  param {
    lr_mult: 1
    decay_mult: 1
  }
  param {
    lr_mult: 2
    decay_mult: 0
  }
  convolution_param {
    num_output: 24
    kernel_size: 1
    weight_filler {
      type: "xavier"
      std: 0.2
    }
    bias_filler {
      type: "constant"
      value: 0.2
    }
  }
}
layer {
  name: "inception_4c/relu_5x5_reduce"
  type: "ReLU"
  bottom: "inception_4c/5x5_reduce"
  top: "inception_4c/5x5_reduce"
}
layer {
  name: "inception_4c/5x5"
  type: "Convolution"
  bottom: "inception_4c/5x5_reduce"
  top: "inception_4c/5x5"
  param {
    lr_mult: 1
    decay_mult: 1
  }
  param {
    lr_mult: 2
    decay_mult: 0
  }
  convolution_param {
    num_output: 64
    pad: 2
    kernel_size: 5
    weight_filler {
      type: "xavier"
      std: 0.03
    }
    bias_filler {
      type: "constant"
      value: 0.2
    }
  }
}
layer {
  name: "inception_4c/relu_5x5"
  type: "ReLU"
  bottom: "inception_4c/5x5"
  top: "inception_4c/5x5"
}
layer {
  name: "inception_4c/pool"
  type: "Pooling"
  bottom: "inception_4b/output"
  top: "inception_4c/pool"
  pooling_param {
    pool: MAX
    kernel_size: 3
    stride: 1
    pad: 1
  }
}
layer {
  name: "inception_4c/pool_proj"
  type: "Convolution"
  bottom: "inception_4c/pool"
  top: "inception_4c/pool_proj"
  param {
    lr_mult: 1
    decay_mult: 1
  }
  param {
    lr_mult: 2
    decay_mult: 0
  }
  convolution_param {
    num_output: 64
    kernel_size: 1
    weight_filler {
      type: "xavier"
      std: 0.1
    }
    bias_filler {
      type: "constant"
      value: 0.2
    }
  }
}
layer {
  name: "inception_4c/relu_pool_proj"
  type: "ReLU"
  bottom: "inception_4c/pool_proj"
  top: "inception_4c/pool_proj"
}
layer {
  name: "inception_4c/output"
  type: "Concat"
  bottom: "inception_4c/1x1"
  bottom: "inception_4c/3x3"
  bottom: "inception_4c/5x5"
  bottom: "inception_4c/pool_proj"
  top: "inception_4c/output"
}
layer {
  name: "inception_4d/1x1"
  type: "Convolution"
  bottom: "inception_4c/output"
  top: "inception_4d/1x1"
  param {
    lr_mult: 1
    decay_mult: 1
  }
  param {
    lr_mult: 2
    decay_mult: 0
  }
  convolution_param {
    num_output: 112
    kernel_size: 1
    weight_filler {
      type: "xavier"
      std: 0.03
    }
    bias_filler {
      type: "constant"
      value: 0.2
    }
  }
}
layer {
  name: "inception_4d/relu_1x1"
  type: "ReLU"
  bottom: "inception_4d/1x1"
  top: "inception_4d/1x1"
}
layer {
  name: "inception_4d/3x3_reduce"
  type: "Convolution"
  bottom: "inception_4c/output"
  top: "inception_4d/3x3_reduce"
  param {
    lr_mult: 1
    decay_mult: 1
  }
  param {
    lr_mult: 2
    decay_mult: 0
  }
  convolution_param {
    num_output: 144
    kernel_size: 1
    weight_filler {
      type: "xavier"
      std: 0.09
    }
    bias_filler {
      type: "constant"
      value: 0.2
    }
  }
}
layer {
  name: "inception_4d/relu_3x3_reduce"
  type: "ReLU"
  bottom: "inception_4d/3x3_reduce"
  top: "inception_4d/3x3_reduce"
}
layer {
  name: "inception_4d/3x3"
  type: "Convolution"
  bottom: "inception_4d/3x3_reduce"
  top: "inception_4d/3x3"
  param {
    lr_mult: 1
    decay_mult: 1
  }
  param {
    lr_mult: 2
    decay_mult: 0
  }
  convolution_param {
    num_output: 288
    pad: 1
    kernel_size: 3
    weight_filler {
      type: "xavier"
      std: 0.03
    }
    bias_filler {
      type: "constant"
      value: 0.2
    }
  }
}
layer {
  name: "inception_4d/relu_3x3"
  type: "ReLU"
  bottom: "inception_4d/3x3"
  top: "inception_4d/3x3"
}
layer {
  name: "inception_4d/5x5_reduce"
  type: "Convolution"
  bottom: "inception_4c/output"
  top: "inception_4d/5x5_reduce"
  param {
    lr_mult: 1
    decay_mult: 1
  }
  param {
    lr_mult: 2
    decay_mult: 0
  }
  convolution_param {
    num_output: 32
    kernel_size: 1
    weight_filler {
      type: "xavier"
      std: 0.2
    }
    bias_filler {
      type: "constant"
      value: 0.2
    }
  }
}
layer {
  name: "inception_4d/relu_5x5_reduce"
  type: "ReLU"
  bottom: "inception_4d/5x5_reduce"
  top: "inception_4d/5x5_reduce"
}
layer {
  name: "inception_4d/5x5"
  type: "Convolution"
  bottom: "inception_4d/5x5_reduce"
  top: "inception_4d/5x5"
  param {
    lr_mult: 1
    decay_mult: 1
  }
  param {
    lr_mult: 2
    decay_mult: 0
  }
  convolution_param {
    num_output: 64
    pad: 2
    kernel_size: 5
    weight_filler {
      type: "xavier"
      std: 0.03
    }
    bias_filler {
      type: "constant"
      value: 0.2
    }
  }
}
layer {
  name: "inception_4d/relu_5x5"
  type: "ReLU"
  bottom: "inception_4d/5x5"
  top: "inception_4d/5x5"
}
layer {
  name: "inception_4d/pool"
  type: "Pooling"
  bottom: "inception_4c/output"
  top: "inception_4d/pool"
  pooling_param {
    pool: MAX
    kernel_size: 3
    stride: 1
    pad: 1
  }
}
layer {
  name: "inception_4d/pool_proj"
  type: "Convolution"
  bottom: "inception_4d/pool"
  top: "inception_4d/pool_proj"
  param {
    lr_mult: 1
    decay_mult: 1
  }
  param {
    lr_mult: 2
    decay_mult: 0
  }
  convolution_param {
    num_output: 64
    kernel_size: 1
    weight_filler {
      type: "xavier"
      std: 0.1
    }
    bias_filler {
      type: "constant"
      value: 0.2
    }
  }
}
layer {
  name: "inception_4d/relu_pool_proj"
  type: "ReLU"
  bottom: "inception_4d/pool_proj"
  top: "inception_4d/pool_proj"
}
layer {
  name: "inception_4d/output"
  type: "Concat"
  bottom: "inception_4d/1x1"
  bottom: "inception_4d/3x3"
  bottom: "inception_4d/5x5"
  bottom: "inception_4d/pool_proj"
  top: "inception_4d/output"
}
layer {
  name: "inception_4e/1x1"
  type: "Convolution"
  bottom: "inception_4d/output"
  top: "inception_4e/1x1"
  param {
    lr_mult: 1
    decay_mult: 1
  }
  param {
    lr_mult: 2
    decay_mult: 0
  }
  convolution_param {
    num_output: 256
    kernel_size: 1
    weight_filler {
      type: "xavier"
      std: 0.03
    }
    bias_filler {
      type: "constant"
      value: 0.2
    }
  }
}
layer {
  name: "inception_4e/relu_1x1"
  type: "ReLU"
  bottom: "inception_4e/1x1"
  top: "inception_4e/1x1"
}
layer {
  name: "inception_4e/3x3_reduce"
  type: "Convolution"
  bottom: "inception_4d/output"
  top: "inception_4e/3x3_reduce"
  param {
    lr_mult: 1
    decay_mult: 1
  }
  param {
    lr_mult: 2
    decay_mult: 0
  }
  convolution_param {
    num_output: 160
    kernel_size: 1
    weight_filler {
      type: "xavier"
      std: 0.09
    }
    bias_filler {
      type: "constant"
      value: 0.2
    }
  }
}
layer {
  name: "inception_4e/relu_3x3_reduce"
  type: "ReLU"
  bottom: "inception_4e/3x3_reduce"
  top: "inception_4e/3x3_reduce"
}
layer {
  name: "inception_4e/3x3"
  type: "Convolution"
  bottom: "inception_4e/3x3_reduce"
  top: "inception_4e/3x3"
  param {
    lr_mult: 1
    decay_mult: 1
  }
  param {
    lr_mult: 2
    decay_mult: 0
  }
  convolution_param {
    num_output: 320
    pad: 1
    kernel_size: 3
    weight_filler {
      type: "xavier"
      std: 0.03
    }
    bias_filler {
      type: "constant"
      value: 0.2
    }
  }
}
layer {
  name: "inception_4e/relu_3x3"
  type: "ReLU"
  bottom: "inception_4e/3x3"
  top: "inception_4e/3x3"
}
layer {
  name: "inception_4e/5x5_reduce"
  type: "Convolution"
  bottom: "inception_4d/output"
  top: "inception_4e/5x5_reduce"
  param {
    lr_mult: 1
    decay_mult: 1
  }
  param {
    lr_mult: 2
    decay_mult: 0
  }
  convolution_param {
    num_output: 32
    kernel_size: 1
    weight_filler {
      type: "xavier"
      std: 0.2
    }
    bias_filler {
      type: "constant"
      value: 0.2
    }
  }
}
layer {
  name: "inception_4e/relu_5x5_reduce"
  type: "ReLU"
  bottom: "inception_4e/5x5_reduce"
  top: "inception_4e/5x5_reduce"
}
layer {
  name: "inception_4e/5x5"
  type: "Convolution"
  bottom: "inception_4e/5x5_reduce"
  top: "inception_4e/5x5"
  param {
    lr_mult: 1
    decay_mult: 1
  }
  param {
    lr_mult: 2
    decay_mult: 0
  }
  convolution_param {
    num_output: 128
    pad: 2
    kernel_size: 5
    weight_filler {
      type: "xavier"
      std: 0.03
    }
    bias_filler {
      type: "constant"
      value: 0.2
    }
  }
}
layer {
  name: "inception_4e/relu_5x5"
  type: "ReLU"
  bottom: "inception_4e/5x5"
  top: "inception_4e/5x5"
}
layer {
  name: "inception_4e/pool"
  type: "Pooling"
  bottom: "inception_4d/output"
  top: "inception_4e/pool"
  pooling_param {
    pool: MAX
    kernel_size: 3
    stride: 1
    pad: 1
  }
}
layer {
  name: "inception_4e/pool_proj"
  type: "Convolution"
  bottom: "inception_4e/pool"
  top: "inception_4e/pool_proj"
  param {
    lr_mult: 1
    decay_mult: 1
  }
  param {
    lr_mult: 2
    decay_mult: 0
  }
  convolution_param {
    num_output: 128
    kernel_size: 1
    weight_filler {
      type: "xavier"
      std: 0.1
    }
    bias_filler {
      type: "constant"
      value: 0.2
    }
  }
}
layer {
  name: "inception_4e/relu_pool_proj"
  type: "ReLU"
  bottom: "inception_4e/pool_proj"
  top: "inception_4e/pool_proj"
}
layer {
  name: "inception_4e/output"
  type: "Concat"
  bottom: "inception_4e/1x1"
  bottom: "inception_4e/3x3"
  bottom: "inception_4e/5x5"
  bottom: "inception_4e/pool_proj"
  top: "inception_4e/output"
}
layer {
  name: "pool4/3x3_s2"
  type: "Pooling"
  bottom: "inception_4e/output"
  top: "pool4/3x3_s2"
  pooling_param {
    pool: MAX
    kernel_size: 3
    stride: 2
  }
}
layer {
  name: "inception_5a/1x1"
  type: "Convolution"
  bottom: "pool4/3x3_s2"
  top: "inception_5a/1x1"
  param {
    lr_mult: 1
    decay_mult: 1
  }
  param {
    lr_mult: 2
    decay_mult: 0
  }
  convolution_param {
    num_output: 256
    kernel_size: 1
    weight_filler {
      type: "xavier"
      std: 0.03
    }
    bias_filler {
      type: "constant"
      value: 0.2
    }
  }
}
layer {
  name: "inception_5a/relu_1x1"
  type: "ReLU"
  bottom: "inception_5a/1x1"
  top: "inception_5a/1x1"
}
layer {
  name: "inception_5a/3x3_reduce"
  type: "Convolution"
  bottom: "pool4/3x3_s2"
  top: "inception_5a/3x3_reduce"
  param {
    lr_mult: 1
    decay_mult: 1
  }
  param {
    lr_mult: 2
    decay_mult: 0
  }
  convolution_param {
    num_output: 160
    kernel_size: 1
    weight_filler {
      type: "xavier"
      std: 0.09
    }
    bias_filler {
      type: "constant"
      value: 0.2
    }
  }
}
layer {
  name: "inception_5a/relu_3x3_reduce"
  type: "ReLU"
  bottom: "inception_5a/3x3_reduce"
  top: "inception_5a/3x3_reduce"
}
layer {
  name: "inception_5a/3x3"
  type: "Convolution"
  bottom: "inception_5a/3x3_reduce"
  top: "inception_5a/3x3"
  param {
    lr_mult: 1
    decay_mult: 1
  }
  param {
    lr_mult: 2
    decay_mult: 0
  }
  convolution_param {
    num_output: 320
    pad: 1
    kernel_size: 3
    weight_filler {
      type: "xavier"
      std: 0.03
    }
    bias_filler {
      type: "constant"
      value: 0.2
    }
  }
}
layer {
  name: "inception_5a/relu_3x3"
  type: "ReLU"
  bottom: "inception_5a/3x3"
  top: "inception_5a/3x3"
}
layer {
  name: "inception_5a/5x5_reduce"
  type: "Convolution"
  bottom: "pool4/3x3_s2"
  top: "inception_5a/5x5_reduce"
  param {
    lr_mult: 1
    decay_mult: 1
  }
  param {
    lr_mult: 2
    decay_mult: 0
  }
  convolution_param {
    num_output: 32
    kernel_size: 1
    weight_filler {
      type: "xavier"
      std: 0.2
    }
    bias_filler {
      type: "constant"
      value: 0.2
    }
I0715 00:34:50.615217 23200 net.cpp:49] Initializing net from parameters: 
name: "GoogleNet"
state {
  phase: TEST
}
layer {
  name: "data"
  type: "Input"
  top: "data"
  input_param {
    shape {
      dim: 10
      dim: 3
      dim: 224
      dim: 224
    }
  }
}
layer {
  name: "conv1/7x7_s2"
  type: "Convolution"
  bottom: "data"
  top: "conv1/7x7_s2"
  param {
    lr_mult: 1
    decay_mult: 1
  }
  param {
    lr_mult: 2
    decay_mult: 0
  }
  convolution_param {
    num_output: 64
    pad: 3
    kernel_size: 7
    stride: 2
    weight_filler {
      type: "xavier"
      std: 0.1
    }
    bias_filler {
      type: "constant"
      value: 0.2
    }
  }
}
layer {
  name: "conv1/relu_7x7"
  type: "ReLU"
  bottom: "conv1/7x7_s2"
  top: "conv1/7x7_s2"
}
layer {
  name: "pool1/3x3_s2"
  type: "Pooling"
  bottom: "conv1/7x7_s2"
  top: "pool1/3x3_s2"
  pooling_param {
    pool: MAX
    kernel_size: 3
    stride: 2
  }
}
layer {
  name: "pool1/norm1"
  type: "LRN"
  bottom: "pool1/3x3_s2"
  top: "pool1/norm1"
  lrn_param {
    local_size: 5
    alpha: 0.0001
    beta: 0.75
  }
}
layer {
  name: "conv2/3x3_reduce"
  type: "Convolution"
  bottom: "pool1/norm1"
  top: "conv2/3x3_reduce"
  param {
    lr_mult: 1
    decay_mult: 1
  }
  param {
    lr_mult: 2
    decay_mult: 0
  }
  convolution_param {
    num_output: 64
    kernel_size: 1
    weight_filler {
      type: "xavier"
      std: 0.1
    }
    bias_filler {
      type: "constant"
      value: 0.2
    }
  }
}
layer {
  name: "conv2/relu_3x3_reduce"
  type: "ReLU"
  bottom: "conv2/3x3_reduce"
  top: "conv2/3x3_reduce"
}
layer {
  name: "conv2/3x3"
  type: "Convolution"
  bottom: "conv2/3x3_reduce"
  top: "conv2/3x3"
  param {
    lr_mult: 1
    decay_mult: 1
  }
  param {
    lr_mult: 2
    decay_mult: 0
  }
  convolution_param {
    num_output: 192
    pad: 1
    kernel_size: 3
    weight_filler {
      type: "xavier"
      std: 0.03
    }
    bias_filler {
      type: "constant"
      value: 0.2
    }
  }
}
layer {
  name: "conv2/relu_3x3"
  type: "ReLU"
  bottom: "conv2/3x3"
  top: "conv2/3x3"
}
layer {
  name: "conv2/norm2"
  type: "LRN"
  bottom: "conv2/3x3"
  top: "conv2/norm2"
  lrn_param {
    local_size: 5
    alpha: 0.0001
    beta: 0.75
  }
}
layer {
  name: "pool2/3x3_s2"
  type: "Pooling"
  bottom: "conv2/norm2"
  top: "pool2/3x3_s2"
  pooling_param {
    pool: MAX
    kernel_size: 3
    stride: 2
  }
}
layer {
  name: "inception_3a/1x1"
  type: "Convolution"
  bottom: "pool2/3x3_s2"
  top: "inception_3a/1x1"
  param {
    lr_mult: 1
    decay_mult: 1
  }
  param {
    lr_mult: 2
    decay_mult: 0
  }
  convolution_param {
    num_output: 64
    kernel_size: 1
    weight_filler {
      type: "xavier"
      std: 0.03
    }
    bias_filler {
      type: "constant"
      value: 0.2
    }
  }
}
layer {
  name: "inception_3a/relu_1x1"
  type: "ReLU"
  bottom: "inception_3a/1x1"
  top: "inception_3a/1x1"
}
layer {
  name: "inception_3a/3x3_reduce"
  type: "Convolution"
  bottom: "pool2/3x3_s2"
  top: "inception_3a/3x3_reduce"
  param {
    lr_mult: 1
    decay_mult: 1
  }
  param {
    lr_mult: 2
    decay_mult: 0
  }
  convolution_param {
    num_output: 96
    kernel_size: 1
    weight_filler {
      type: "xavier"
      std: 0.09
    }
    bias_filler {
      type: "constant"
      value: 0.2
    }
  }
}
layer {
  name: "inception_3a/relu_3x3_reduce"
  type: "ReLU"
  bottom: "inception_3a/3x3_reduce"
  top: "inception_3a/3x3_reduce"
}
layer {
  name: "inception_3a/3x3"
  type: "Convolution"
  bottom: "inception_3a/3x3_reduce"
  top: "inception_3a/3x3"
  param {
    lr_mult: 1
    decay_mult: 1
  }
  param {
    lr_mult: 2
    decay_mult: 0
  }
  convolution_param {
    num_output: 128
    pad: 1
    kernel_size: 3
    weight_filler {
      type: "xavier"
      std: 0.03
    }
    bias_filler {
      type: "constant"
      value: 0.2
    }
  }
}
layer {
  name: "inception_3a/relu_3x3"
  type: "ReLU"
  bottom: "inception_3a/3x3"
  top: "inception_3a/3x3"
}
layer {
  name: "inception_3a/5x5_reduce"
  type: "Convolution"
  bottom: "pool2/3x3_s2"
  top: "inception_3a/5x5_reduce"
  param {
    lr_mult: 1
    decay_mult: 1
  }
  param {
    lr_mult: 2
    decay_mult: 0
  }
  convolution_param {
    num_output: 16
    kernel_size: 1
    weight_filler {
      type: "xavier"
      std: 0.2
    }
    bias_filler {
      type: "constant"
      value: 0.2
    }
  }
}
layer {
  name: "inception_3a/relu_5x5_reduce"
  type: "ReLU"
  bottom: "inception_3a/5x5_reduce"
  top: "inception_3a/5x5_reduce"
}
layer {
  name: "inception_3a/5x5"
  type: "Convolution"
  bottom: "inception_3a/5x5_reduce"
  top: "inception_3a/5x5"
  param {
    lr_mult: 1
    decay_mult: 1
  }
  param {
    lr_mult: 2
    decay_mult: 0
  }
  convolution_param {
    num_output: 32
    pad: 2
    kernel_size: 5
    weight_filler {
      type: "xavier"
      std: 0.03
    }
    bias_filler {
      type: "constant"
      value: 0.2
    }
  }
}
layer {
  name: "inception_3a/relu_5x5"
  type: "ReLU"
  bottom: "inception_3a/5x5"
  top: "inception_3a/5x5"
}
layer {
  name: "inception_3a/pool"
  type: "Pooling"
  bottom: "pool2/3x3_s2"
  top: "inception_3a/pool"
  pooling_param {
    pool: MAX
    kernel_size: 3
    stride: 1
    pad: 1
  }
}
layer {
  name: "inception_3a/pool_proj"
  type: "Convolution"
  bottom: "inception_3a/pool"
  top: "inception_3a/pool_proj"
  param {
    lr_mult: 1
    decay_mult: 1
  }
  param {
    lr_mult: 2
    decay_mult: 0
  }
  convolution_param {
    num_output: 32
    kernel_size: 1
    weight_filler {
      type: "xavier"
      std: 0.1
    }
    bias_filler {
      type: "constant"
      value: 0.2
    }
  }
}
layer {
  name: "inception_3a/relu_pool_proj"
  type: "ReLU"
  bottom: "inception_3a/pool_proj"
  top: "inception_3a/pool_proj"
}
layer {
  name: "inception_3a/output"
  type: "Concat"
  bottom: "inception_3a/1x1"
  bottom: "inception_3a/3x3"
  bottom: "inception_3a/5x5"
  bottom: "inception_3a/pool_proj"
  top: "inception_3a/output"
}
layer {
  name: "inception_3b/1x1"
  type: "Convolution"
  bottom: "inception_3a/output"
  top: "inception_3b/1x1"
  param {
    lr_mult: 1
    decay_mult: 1
  }
  param {
    lr_mult: 2
    decay_mult: 0
  }
  convolution_param {
    num_output: 128
    kernel_size: 1
    weight_filler {
      type: "xavier"
      std: 0.03
    }
    bias_filler {
      type: "constant"
      value: 0.2
    }
  }
}
layer {
  name: "inception_3b/relu_1x1"
  type: "ReLU"
  bottom: "inception_3b/1x1"
  top: "inception_3b/1x1"
}
layer {
  name: "inception_3b/3x3_reduce"
  type: "Convolution"
  bottom: "inception_3a/output"
  top: "inception_3b/3x3_reduce"
  param {
    lr_mult: 1
    decay_mult: 1
  }
  param {
    lr_mult: 2
    decay_mult: 0
  }
  convolution_param {
    num_output: 128
    kernel_size: 1
    weight_filler {
      type: "xavier"
      std: 0.09
    }
    bias_filler {
      type: "constant"
      value: 0.2
    }
  }
}
layer {
  name: "inception_3b/relu_3x3_reduce"
  type: "ReLU"
  bottom: "inception_3b/3x3_reduce"
  top: "inception_3b/3x3_reduce"
}
layer {
  name: "inception_3b/3x3"
  type: "Convolution"
  bottom: "inception_3b/3x3_reduce"
  top: "inception_3b/3x3"
  param {
    lr_mult: 1
    decay_mult: 1
  }
  param {
    lr_mult: 2
    decay_mult: 0
  }
  convolution_param {
    num_output: 192
    pad: 1
    kernel_size: 3
    weight_filler {
      type: "xavier"
      std: 0.03
    }
    bias_filler {
      type: "constant"
      value: 0.2
    }
  }
}
layer {
  name: "inception_3b/relu_3x3"
  type: "ReLU"
  bottom: "inception_3b/3x3"
  top: "inception_3b/3x3"
}
layer {
  name: "inception_3b/5x5_reduce"
  type: "Convolution"
  bottom: "inception_3a/output"
  top: "inception_3b/5x5_reduce"
  param {
    lr_mult: 1
    decay_mult: 1
  }
  param {
    lr_mult: 2
    decay_mult: 0
  }
  convolution_param {
    num_output: 32
    kernel_size: 1
    weight_filler {
      type: "xavier"
      std: 0.2
    }
    bias_filler {
      type: "constant"
      value: 0.2
    }
  }
}
layer {
  name: "inception_3b/relu_5x5_reduce"
  type: "ReLU"
  bottom: "inception_3b/5x5_reduce"
  top: "inception_3b/5x5_reduce"
}
layer {
  name: "inception_3b/5x5"
  type: "Convolution"
  bottom: "inception_3b/5x5_reduce"
  top: "inception_3b/5x5"
  param {
    lr_mult: 1
    decay_mult: 1
  }
  param {
    lr_mult: 2
    decay_mult: 0
  }
  convolution_param {
    num_output: 96
    pad: 2
    kernel_size: 5
    weight_filler {
      type: "xavier"
      std: 0.03
    }
    bias_filler {
      type: "constant"
      value: 0.2
    }
  }
}
layer {
  name: "inception_3b/relu_5x5"
  type: "ReLU"
  bottom: "inception_3b/5x5"
  top: "inception_3b/5x5"
}
layer {
  name: "inception_3b/pool"
  type: "Pooling"
  bottom: "inception_3a/output"
  top: "inception_3b/pool"
  pooling_param {
    pool: MAX
    kernel_size: 3
    stride: 1
    pad: 1
  }
}
layer {
  name: "inception_3b/pool_proj"
  type: "Convolution"
  bottom: "inception_3b/pool"
  top: "inception_3b/pool_proj"
  param {
    lr_mult: 1
    decay_mult: 1
  }
  param {
    lr_mult: 2
    decay_mult: 0
  }
  convolution_param {
    num_output: 64
    kernel_size: 1
    weight_filler {
      type: "xavier"
      std: 0.1
    }
    bias_filler {
      type: "constant"
      value: 0.2
    }
  }
}
layer {
  name: "inception_3b/relu_pool_proj"
  type: "ReLU"
  bottom: "inception_3b/pool_proj"
  top: "inception_3b/pool_proj"
}
layer {
  name: "inception_3b/output"
  type: "Concat"
  bottom: "inception_3b/1x1"
  bottom: "inception_3b/3x3"
  bottom: "inception_3b/5x5"
  bottom: "inception_3b/pool_proj"
  top: "inception_3b/output"
}
layer {
  name: "pool3/3x3_s2"
  type: "Pooling"
  bottom: "inception_3b/output"
  top: "pool3/3x3_s2"
  pooling_param {
    pool: MAX
    kernel_size: 3
    stride: 2
  }
}
layer {
  name: "inception_4a/1x1"
  type: "Convolution"
  bottom: "pool3/3x3_s2"
  top: "inception_4a/1x1"
  param {
    lr_mult: 1
    decay_mult: 1
  }
  param {
    lr_mult: 2
    decay_mult: 0
  }
  convolution_param {
    num_output: 192
    kernel_size: 1
    weight_filler {
      type: "xavier"
      std: 0.03
    }
    bias_filler {
      type: "constant"
      value: 0.2
    }
  }
}
layer {
  name: "inception_4a/relu_1x1"
  type: "ReLU"
  bottom: "inception_4a/1x1"
  top: "inception_4a/1x1"
}
layer {
  name: "inception_4a/3x3_reduce"
  type: "Convolution"
  bottom: "pool3/3x3_s2"
  top: "inception_4a/3x3_reduce"
  param {
    lr_mult: 1
    decay_mult: 1
  }
  param {
    lr_mult: 2
    decay_mult: 0
  }
  convolution_param {
    num_output: 96
    kernel_size: 1
    weight_filler {
      type: "xavier"
      std: 0.09
    }
    bias_filler {
      type: "constant"
      value: 0.2
    }
  }
}
layer {
  name: "inception_4a/relu_3x3_reduce"
  type: "ReLU"
  bottom: "inception_4a/3x3_reduce"
  top: "inception_4a/3x3_reduce"
}
layer {
  name: "inception_4a/3x3"
  type: "Convolution"
  bottom: "inception_4a/3x3_reduce"
  top: "inception_4a/3x3"
  param {
    lr_mult: 1
    decay_mult: 1
  }
  param {
    lr_mult: 2
    decay_mult: 0
  }
  convolution_param {
    num_output: 208
    pad: 1
    kernel_size: 3
    weight_filler {
      type: "xavier"
      std: 0.03
    }
    bias_filler {
      type: "constant"
      value: 0.2
    }
  }
}
layer {
  name: "inception_4a/relu_3x3"
  type: "ReLU"
  bottom: "inception_4a/3x3"
  top: "inception_4a/3x3"
}
layer {
  name: "inception_4a/5x5_reduce"
  type: "Convolution"
  bottom: "pool3/3x3_s2"
  top: "inception_4a/5x5_reduce"
  param {
    lr_mult: 1
    decay_mult: 1
  }
  param {
    lr_mult: 2
    decay_mult: 0
  }
  convolution_param {
    num_output: 16
    kernel_size: 1
    weight_filler {
      type: "xavier"
      std: 0.2
    }
    bias_filler {
      type: "constant"
      value: 0.2
    }
  }
}
layer {
  name: "inception_4a/relu_5x5_reduce"
  type: "ReLU"
  bottom: "inception_4a/5x5_reduce"
  top: "inception_4a/5x5_reduce"
}
layer {
  name: "inception_4a/5x5"
  type: "Convolution"
  bottom: "inception_4a/5x5_reduce"
  top: "inception_4a/5x5"
  param {
    lr_mult: 1
    decay_mult: 1
  }
  param {
    lr_mult: 2
    decay_mult: 0
  }
  convolution_param {
    num_output: 48
    pad: 2
    kernel_size: 5
    weight_filler {
      type: "xavier"
      std: 0.03
    }
    bias_filler {
      type: "constant"
      value: 0.2
    }
  }
}
layer {
  name: "inception_4a/relu_5x5"
  type: "ReLU"
  bottom: "inception_4a/5x5"
  top: "inception_4a/5x5"
}
layer {
  name: "inception_4a/pool"
  type: "Pooling"
  bottom: "pool3/3x3_s2"
  top: "inception_4a/pool"
  pooling_param {
    pool: MAX
    kernel_size: 3
    stride: 1
    pad: 1
  }
}
layer {
  name: "inception_4a/pool_proj"
  type: "Convolution"
  bottom: "inception_4a/pool"
  top: "inception_4a/pool_proj"
  param {
    lr_mult: 1
    decay_mult: 1
  }
  param {
    lr_mult: 2
    decay_mult: 0
  }
  convolution_param {
    num_output: 64
    kernel_size: 1
    weight_filler {
      type: "xavier"
      std: 0.1
    }
    bias_filler {
      type: "constant"
      value: 0.2
    }
  }
}
layer {
  name: "inception_4a/relu_pool_proj"
  type: "ReLU"
  bottom: "inception_4a/pool_proj"
  top: "inception_4a/pool_proj"
}
layer {
  name: "inception_4a/output"
  type: "Concat"
  bottom: "inception_4a/1x1"
  bottom: "inception_4a/3x3"
  bottom: "inception_4a/5x5"
  bottom: "inception_4a/pool_proj"
  top: "inception_4a/output"
}
layer {
  name: "inception_4b/1x1"
  type: "Convolution"
  bottom: "inception_4a/output"
  top: "inception_4b/1x1"
  param {
    lr_mult: 1
    decay_mult: 1
  }
  param {
    lr_mult: 2
    decay_mult: 0
  }
  convolution_param {
    num_output: 160
    kernel_size: 1
    weight_filler {
      type: "xavier"
      std: 0.03
    }
    bias_filler {
      type: "constant"
      value: 0.2
    }
  }
}
layer {
  name: "inception_4b/relu_1x1"
  type: "ReLU"
  bottom: "inception_4b/1x1"
  top: "inception_4b/1x1"
}
layer {
  name: "inception_4b/3x3_reduce"
  type: "Convolution"
  bottom: "inception_4a/output"
  top: "inception_4b/3x3_reduce"
  param {
    lr_mult: 1
    decay_mult: 1
  }
  param {
    lr_mult: 2
    decay_mult: 0
  }
  convolution_param {
    num_output: 112
    kernel_size: 1
    weight_filler {
      type: "xavier"
      std: 0.09
    }
    bias_filler {
      type: "constant"
      value: 0.2
    }
  }
}
layer {
  name: "inception_4b/relu_3x3_reduce"
  type: "ReLU"
  bottom: "inception_4b/3x3_reduce"
  top: "inception_4b/3x3_reduce"
}
layer {
  name: "inception_4b/3x3"
  type: "Convolution"
  bottom: "inception_4b/3x3_reduce"
  top: "inception_4b/3x3"
  param {
    lr_mult: 1
    decay_mult: 1
  }
  param {
    lr_mult: 2
    decay_mult: 0
  }
  convolution_param {
    num_output: 224
    pad: 1
    kernel_size: 3
    weight_filler {
      type: "xavier"
      std: 0.03
    }
    bias_filler {
      type: "constant"
      value: 0.2
    }
  }
}
layer {
  name: "inception_4b/relu_3x3"
  type: "ReLU"
  bottom: "inception_4b/3x3"
  top: "inception_4b/3x3"
}
layer {
  name: "inception_4b/5x5_reduce"
  type: "Convolution"
  bottom: "inception_4a/output"
  top: "inception_4b/5x5_reduce"
  param {
    lr_mult: 1
    decay_mult: 1
  }
  param {
    lr_mult: 2
    decay_mult: 0
  }
  convolution_param {
    num_output: 24
    kernel_size: 1
    weight_filler {
      type: "xavier"
      std: 0.2
    }
    bias_filler {
      type: "constant"
      value: 0.2
    }
  }
}
layer {
  name: "inception_4b/relu_5x5_reduce"
  type: "ReLU"
  bottom: "inception_4b/5x5_reduce"
  top: "inception_4b/5x5_reduce"
}
layer {
  name: "inception_4b/5x5"
  type: "Convolution"
  bottom: "inception_4b/5x5_reduce"
  top: "inception_4b/5x5"
  param {
    lr_mult: 1
    decay_mult: 1
  }
  param {
    lr_mult: 2
    decay_mult: 0
  }
  convolution_param {
    num_output: 64
    pad: 2
    kernel_size: 5
    weight_filler {
      type: "xavier"
      std: 0.03
    }
    bias_filler {
      type: "constant"
      value: 0.2
    }
  }
}
layer {
  name: "inception_4b/relu_5x5"
  type: "ReLU"
  bottom: "inception_4b/5x5"
  top: "inception_4b/5x5"
}
layer {
  name: "inception_4b/pool"
  type: "Pooling"
  bottom: "inception_4a/output"
  top: "inception_4b/pool"
  pooling_param {
    pool: MAX
    kernel_size: 3
    stride: 1
    pad: 1
  }
}
layer {
  name: "inception_4b/pool_proj"
  type: "Convolution"
  bottom: "inception_4b/pool"
  top: "inception_4b/pool_proj"
  param {
    lr_mult: 1
    decay_mult: 1
  }
  param {
    lr_mult: 2
    decay_mult: 0
  }
  convolution_param {
    num_output: 64
    kernel_size: 1
    weight_filler {
      type: "xavier"
      std: 0.1
    }
    bias_filler {
      type: "constant"
      value: 0.2
    }
  }
}
layer {
  name: "inception_4b/relu_pool_proj"
  type: "ReLU"
  bottom: "inception_4b/pool_proj"
  top: "inception_4b/pool_proj"
}
layer {
  name: "inception_4b/output"
  type: "Concat"
  bottom: "inception_4b/1x1"
  bottom: "inception_4b/3x3"
  bottom: "inception_4b/5x5"
  bottom: "inception_4b/pool_proj"
  top: "inception_4b/output"
}
layer {
  name: "inception_4c/1x1"
  type: "Convolution"
  bottom: "inception_4b/output"
  top: "inception_4c/1x1"
  param {
    lr_mult: 1
    decay_mult: 1
  }
  param {
    lr_mult: 2
    decay_mult: 0
  }
  convolution_param {
    num_output: 128
    kernel_size: 1
    weight_filler {
      type: "xavier"
      std: 0.03
    }
    bias_filler {
      type: "constant"
      value: 0.2
    }
  }
}
layer {
  name: "inception_4c/relu_1x1"
  type: "ReLU"
  bottom: "inception_4c/1x1"
  top: "inception_4c/1x1"
}
layer {
  name: "inception_4c/3x3_reduce"
  type: "Convolution"
  bottom: "inception_4b/output"
  top: "inception_4c/3x3_reduce"
  param {
    lr_mult: 1
    decay_mult: 1
  }
  param {
    lr_mult: 2
    decay_mult: 0
  }
  convolution_param {
    num_output: 128
    kernel_size: 1
    weight_filler {
      type: "xavier"
      std: 0.09
    }
    bias_filler {
      type: "constant"
      value: 0.2
    }
  }
}
layer {
  name: "inception_4c/relu_3x3_reduce"
  type: "ReLU"
  bottom: "inception_4c/3x3_reduce"
  top: "inception_4c/3x3_reduce"
}
layer {
  name: "inception_4c/3x3"
  type: "Convolution"
  bottom: "inception_4c/3x3_reduce"
  top: "inception_4c/3x3"
  param {
    lr_mult: 1
    decay_mult: 1
  }
  param {
    lr_mult: 2
    decay_mult: 0
  }
  convolution_param {
    num_output: 256
    pad: 1
    kernel_size: 3
    weight_filler {
      type: "xavier"
      std: 0.03
    }
    bias_filler {
      type: "constant"
      value: 0.2
    }
  }
}
layer {
  name: "inception_4c/relu_3x3"
  type: "ReLU"
  bottom: "inception_4c/3x3"
  top: "inception_4c/3x3"
}
layer {
  name: "inception_4c/5x5_reduce"
  type: "Convolution"
  bottom: "inception_4b/output"
  top: "inception_4c/5x5_reduce"
  param {
    lr_mult: 1
    decay_mult: 1
  }
  param {
    lr_mult: 2
    decay_mult: 0
  }
  convolution_param {
    num_output: 24
    kernel_size: 1
    weight_filler {
      type: "xavier"
      std: 0.2
    }
    bias_filler {
      type: "constant"
      value: 0.2
    }
  }
}
layer {
  name: "inception_4c/relu_5x5_reduce"
  type: "ReLU"
  bottom: "inception_4c/5x5_reduce"
  top: "inception_4c/5x5_reduce"
}
layer {
  name: "inception_4c/5x5"
  type: "Convolution"
  bottom: "inception_4c/5x5_reduce"
  top: "inception_4c/5x5"
  param {
    lr_mult: 1
    decay_mult: 1
  }
  param {
    lr_mult: 2
    decay_mult: 0
  }
  convolution_param {
    num_output: 64
    pad: 2
    kernel_size: 5
    weight_filler {
      type: "xavier"
      std: 0.03
    }
    bias_filler {
      type: "constant"
      value: 0.2
    }
  }
}
layer {
  name: "inception_4c/relu_5x5"
  type: "ReLU"
  bottom: "inception_4c/5x5"
  top: "inception_4c/5x5"
}
layer {
  name: "inception_4c/pool"
  type: "Pooling"
  bottom: "inception_4b/output"
  top: "inception_4c/pool"
  pooling_param {
    pool: MAX
    kernel_size: 3
    stride: 1
    pad: 1
  }
}
layer {
  name: "inception_4c/pool_proj"
  type: "Convolution"
  bottom: "inception_4c/pool"
  top: "inception_4c/pool_proj"
  param {
    lr_mult: 1
    decay_mult: 1
  }
  param {
    lr_mult: 2
    decay_mult: 0
  }
  convolution_param {
    num_output: 64
    kernel_size: 1
    weight_filler {
      type: "xavier"
      std: 0.1
    }
    bias_filler {
      type: "constant"
      value: 0.2
    }
  }
}
layer {
  name: "inception_4c/relu_pool_proj"
  type: "ReLU"
  bottom: "inception_4c/pool_proj"
  top: "inception_4c/pool_proj"
}
layer {
  name: "inception_4c/output"
  type: "Concat"
  bottom: "inception_4c/1x1"
  bottom: "inception_4c/3x3"
  bottom: "inception_4c/5x5"
  bottom: "inception_4c/pool_proj"
  top: "inception_4c/output"
}
layer {
  name: "inception_4d/1x1"
  type: "Convolution"
  bottom: "inception_4c/output"
  top: "inception_4d/1x1"
  param {
    lr_mult: 1
    decay_mult: 1
  }
  param {
    lr_mult: 2
    decay_mult: 0
  }
  convolution_param {
    num_output: 112
    kernel_size: 1
    weight_filler {
      type: "xavier"
      std: 0.03
    }
    bias_filler {
      type: "constant"
      value: 0.2
    }
  }
}
layer {
  name: "inception_4d/relu_1x1"
  type: "ReLU"
  bottom: "inception_4d/1x1"
  top: "inception_4d/1x1"
}
layer {
  name: "inception_4d/3x3_reduce"
  type: "Convolution"
  bottom: "inception_4c/output"
  top: "inception_4d/3x3_reduce"
  param {
    lr_mult: 1
    decay_mult: 1
  }
  param {
    lr_mult: 2
    decay_mult: 0
  }
  convolution_param {
    num_output: 144
    kernel_size: 1
    weight_filler {
      type: "xavier"
      std: 0.09
    }
    bias_filler {
      type: "constant"
      value: 0.2
    }
  }
}
layer {
  name: "inception_4d/relu_3x3_reduce"
  type: "ReLU"
  bottom: "inception_4d/3x3_reduce"
  top: "inception_4d/3x3_reduce"
}
layer {
  name: "inception_4d/3x3"
  type: "Convolution"
  bottom: "inception_4d/3x3_reduce"
  top: "inception_4d/3x3"
  param {
    lr_mult: 1
    decay_mult: 1
  }
  param {
    lr_mult: 2
    decay_mult: 0
  }
  convolution_param {
    num_output: 288
    pad: 1
    kernel_size: 3
    weight_filler {
      type: "xavier"
      std: 0.03
    }
    bias_filler {
      type: "constant"
      value: 0.2
    }
  }
}
layer {
  name: "inception_4d/relu_3x3"
  type: "ReLU"
  bottom: "inception_4d/3x3"
  top: "inception_4d/3x3"
}
layer {
  name: "inception_4d/5x5_reduce"
  type: "Convolution"
  bottom: "inception_4c/output"
  top: "inception_4d/5x5_reduce"
  param {
    lr_mult: 1
    decay_mult: 1
  }
  param {
    lr_mult: 2
    decay_mult: 0
  }
  convolution_param {
    num_output: 32
    kernel_size: 1
    weight_filler {
      type: "xavier"
      std: 0.2
    }
    bias_filler {
      type: "constant"
      value: 0.2
    }
  }
}
layer {
  name: "inception_4d/relu_5x5_reduce"
  type: "ReLU"
  bottom: "inception_4d/5x5_reduce"
  top: "inception_4d/5x5_reduce"
}
layer {
  name: "inception_4d/5x5"
  type: "Convolution"
  bottom: "inception_4d/5x5_reduce"
  top: "inception_4d/5x5"
  param {
    lr_mult: 1
    decay_mult: 1
  }
  param {
    lr_mult: 2
    decay_mult: 0
  }
  convolution_param {
    num_output: 64
    pad: 2
    kernel_size: 5
    weight_filler {
      type: "xavier"
      std: 0.03
    }
    bias_filler {
      type: "constant"
      value: 0.2
    }
  }
}
layer {
  name: "inception_4d/relu_5x5"
  type: "ReLU"
  bottom: "inception_4d/5x5"
  top: "inception_4d/5x5"
}
layer {
  name: "inception_4d/pool"
  type: "Pooling"
  bottom: "inception_4c/output"
  top: "inception_4d/pool"
  pooling_param {
    pool: MAX
    kernel_size: 3
    stride: 1
    pad: 1
  }
}
layer {
  name: "inception_4d/pool_proj"
  type: "Convolution"
  bottom: "inception_4d/pool"
  top: "inception_4d/pool_proj"
  param {
    lr_mult: 1
    decay_mult: 1
  }
  param {
    lr_mult: 2
    decay_mult: 0
  }
  convolution_param {
    num_output: 64
    kernel_size: 1
    weight_filler {
      type: "xavier"
      std: 0.1
    }
    bias_filler {
      type: "constant"
      value: 0.2
    }
  }
}
layer {
  name: "inception_4d/relu_pool_proj"
  type: "ReLU"
  bottom: "inception_4d/pool_proj"
  top: "inception_4d/pool_proj"
}
layer {
  name: "inception_4d/output"
  type: "Concat"
  bottom: "inception_4d/1x1"
  bottom: "inception_4d/3x3"
  bottom: "inception_4d/5x5"
  bottom: "inception_4d/pool_proj"
  top: "inception_4d/output"
}
layer {
  name: "inception_4e/1x1"
  type: "Convolution"
  bottom: "inception_4d/output"
  top: "inception_4e/1x1"
  param {
    lr_mult: 1
    decay_mult: 1
  }
  param {
    lr_mult: 2
    decay_mult: 0
  }
  convolution_param {
    num_output: 256
    kernel_size: 1
    weight_filler {
      type: "xavier"
      std: 0.03
    }
    bias_filler {
      type: "constant"
      value: 0.2
    }
  }
}
layer {
  name: "inception_4e/relu_1x1"
  type: "ReLU"
  bottom: "inception_4e/1x1"
  top: "inception_4e/1x1"
}
layer {
  name: "inception_4e/3x3_reduce"
  type: "Convolution"
  bottom: "inception_4d/output"
  top: "inception_4e/3x3_reduce"
  param {
    lr_mult: 1
    decay_mult: 1
  }
  param {
    lr_mult: 2
    decay_mult: 0
  }
  convolution_param {
    num_output: 160
    kernel_size: 1
    weight_filler {
      type: "xavier"
      std: 0.09
    }
    bias_filler {
      type: "constant"
      value: 0.2
    }
  }
}
layer {
  name: "inception_4e/relu_3x3_reduce"
  type: "ReLU"
  bottom: "inception_4e/3x3_reduce"
  top: "inception_4e/3x3_reduce"
}
layer {
  name: "inception_4e/3x3"
  type: "Convolution"
  bottom: "inception_4e/3x3_reduce"
  top: "inception_4e/3x3"
  param {
    lr_mult: 1
    decay_mult: 1
  }
  param {
    lr_mult: 2
    decay_mult: 0
  }
  convolution_param {
    num_output: 320
    pad: 1
    kernel_size: 3
    weight_filler {
      type: "xavier"
      std: 0.03
    }
    bias_filler {
      type: "constant"
      value: 0.2
    }
  }
}
layer {
  name: "inception_4e/relu_3x3"
  type: "ReLU"
  bottom: "inception_4e/3x3"
  top: "inception_4e/3x3"
}
layer {
  name: "inception_4e/5x5_reduce"
  type: "Convolution"
  bottom: "inception_4d/output"
  top: "inception_4e/5x5_reduce"
  param {
    lr_mult: 1
    decay_mult: 1
  }
  param {
    lr_mult: 2
    decay_mult: 0
  }
  convolution_param {
    num_output: 32
    kernel_size: 1
    weight_filler {
      type: "xavier"
      std: 0.2
    }
    bias_filler {
      type: "constant"
      value: 0.2
    }
  }
}
layer {
  name: "inception_4e/relu_5x5_reduce"
  type: "ReLU"
  bottom: "inception_4e/5x5_reduce"
  top: "inception_4e/5x5_reduce"
}
layer {
  name: "inception_4e/5x5"
  type: "Convolution"
  bottom: "inception_4e/5x5_reduce"
  top: "inception_4e/5x5"
  param {
    lr_mult: 1
    decay_mult: 1
  }
  param {
    lr_mult: 2
    decay_mult: 0
  }
  convolution_param {
    num_output: 128
    pad: 2
    kernel_size: 5
    weight_filler {
      type: "xavier"
      std: 0.03
    }
    bias_filler {
      type: "constant"
      value: 0.2
    }
  }
}
layer {
  name: "inception_4e/relu_5x5"
  type: "ReLU"
  bottom: "inception_4e/5x5"
  top: "inception_4e/5x5"
}
layer {
  name: "inception_4e/pool"
  type: "Pooling"
  bottom: "inception_4d/output"
  top: "inception_4e/pool"
  pooling_param {
    pool: MAX
    kernel_size: 3
    stride: 1
    pad: 1
  }
}
layer {
  name: "inception_4e/pool_proj"
  type: "Convolution"
  bottom: "inception_4e/pool"
  top: "inception_4e/pool_proj"
  param {
    lr_mult: 1
    decay_mult: 1
  }
  param {
    lr_mult: 2
    decay_mult: 0
  }
  convolution_param {
    num_output: 128
    kernel_size: 1
    weight_filler {
      type: "xavier"
      std: 0.1
    }
    bias_filler {
      type: "constant"
      value: 0.2
    }
  }
}
layer {
  name: "inception_4e/relu_pool_proj"
  type: "ReLU"
  bottom: "inception_4e/pool_proj"
  top: "inception_4e/pool_proj"
}
layer {
  name: "inception_4e/output"
  type: "Concat"
  bottom: "inception_4e/1x1"
  bottom: "inception_4e/3x3"
  bottom: "inception_4e/5x5"
  bottom: "inception_4e/pool_proj"
  top: "inception_4e/output"
}
layer {
  name: "pool4/3x3_s2"
  type: "Pooling"
  bottom: "inception_4e/output"
  top: "pool4/3x3_s2"
  pooling_param {
    pool: MAX
    kernel_size: 3
    stride: 2
  }
}
layer {
  name: "inception_5a/1x1"
  type: "Convolution"
  bottom: "pool4/3x3_s2"
  top: "inception_5a/1x1"
  param {
    lr_mult: 1
    decay_mult: 1
  }
  param {
    lr_mult: 2
    decay_mult: 0
  }
  convolution_param {
    num_output: 256
    kernel_size: 1
    weight_filler {
      type: "xavier"
      std: 0.03
    }
    bias_filler {
      type: "constant"
      value: 0.2
    }
  }
}
layer {
  name: "inception_5a/relu_1x1"
  type: "ReLU"
  bottom: "inception_5a/1x1"
  top: "inception_5a/1x1"
}
layer {
  name: "inception_5a/3x3_reduce"
  type: "Convolution"
  bottom: "pool4/3x3_s2"
  top: "inception_5a/3x3_reduce"
  param {
    lr_mult: 1
    decay_mult: 1
  }
  param {
    lr_mult: 2
    decay_mult: 0
  }
  convolution_param {
    num_output: 160
    kernel_size: 1
    weight_filler {
      type: "xavier"
      std: 0.09
    }
    bias_filler {
      type: "constant"
      value: 0.2
    }
  }
}
layer {
  name: "inception_5a/relu_3x3_reduce"
  type: "ReLU"
  bottom: "inception_5a/3x3_reduce"
  top: "inception_5a/3x3_reduce"
}
layer {
  name: "inception_5a/3x3"
  type: "Convolution"
  bottom: "inception_5a/3x3_reduce"
  top: "inception_5a/3x3"
  param {
    lr_mult: 1
    decay_mult: 1
  }
  param {
    lr_mult: 2
    decay_mult: 0
  }
  convolution_param {
    num_output: 320
    pad: 1
    kernel_size: 3
    weight_filler {
      type: "xavier"
      std: 0.03
    }
    bias_filler {
      type: "constant"
      value: 0.2
    }
  }
}
layer {
  name: "inception_5a/relu_3x3"
  type: "ReLU"
  bottom: "inception_5a/3x3"
  top: "inception_5a/3x3"
}
layer {
  name: "inception_5a/5x5_reduce"
  type: "Convolution"
  bottom: "pool4/3x3_s2"
  top: "inception_5a/5x5_reduce"
  param {
    lr_mult: 1
    decay_mult: 1
  }
  param {
    lr_mult: 2
    decay_mult: 0
  }
  convolution_param {
    num_output: 32
    kernel_size: 1
    weight_filler {
      type: "xavier"
      std: 0.2
    }
    bias_filler {
      type: "constant"
      value: 0.2
    }
I0715 00:34:50.616116 23200 layer_factory.hpp:77] Creating layer data
I0715 00:34:50.616117 23204 layer_factory.hpp:77] Creating layer data
I0715 00:34:50.616145 23204 net.cpp:91] Creating Layer data
I0715 00:34:50.616147 23200 net.cpp:91] Creating Layer data
I0715 00:34:50.616161 23204 net.cpp:399] data -> data
I0715 00:34:50.616164 23200 net.cpp:399] data -> data
I0715 00:34:51.217887 23200 net.cpp:141] Setting up data
I0715 00:34:51.217931 23204 net.cpp:141] Setting up data
I0715 00:34:51.217955 23200 net.cpp:148] Top shape: 10 3 224 224 (1505280)
I0715 00:34:51.217957 23204 net.cpp:148] Top shape: 10 3 224 224 (1505280)
I0715 00:34:51.217969 23200 net.cpp:156] Memory required for data: 6021120
I0715 00:34:51.217973 23204 net.cpp:156] Memory required for data: 6021120
I0715 00:34:51.217991 23200 layer_factory.hpp:77] Creating layer conv1/7x7_s2
I0715 00:34:51.217991 23204 layer_factory.hpp:77] Creating layer conv1/7x7_s2
I0715 00:34:51.218032 23200 net.cpp:91] Creating Layer conv1/7x7_s2
I0715 00:34:51.218032 23204 net.cpp:91] Creating Layer conv1/7x7_s2
I0715 00:34:51.218046 23200 net.cpp:425] conv1/7x7_s2 <- data
I0715 00:34:51.218047 23204 net.cpp:425] conv1/7x7_s2 <- data
I0715 00:34:51.218062 23200 net.cpp:399] conv1/7x7_s2 -> conv1/7x7_s2
I0715 00:34:51.218068 23204 net.cpp:399] conv1/7x7_s2 -> conv1/7x7_s2
I0715 00:34:51.456430 23200 net.cpp:141] Setting up conv1/7x7_s2
I0715 00:34:51.456501 23200 net.cpp:148] Top shape: 10 64 112 112 (8028160)
I0715 00:34:51.456507 23200 net.cpp:156] Memory required for data: 38133760
I0715 00:34:51.456517 23204 net.cpp:141] Setting up conv1/7x7_s2
I0715 00:34:51.456542 23200 layer_factory.hpp:77] Creating layer conv1/relu_7x7
I0715 00:34:51.456562 23204 net.cpp:148] Top shape: 10 64 112 112 (8028160)
I0715 00:34:51.456570 23204 net.cpp:156] Memory required for data: 38133760
I0715 00:34:51.456574 23200 net.cpp:91] Creating Layer conv1/relu_7x7
I0715 00:34:51.456583 23200 net.cpp:425] conv1/relu_7x7 <- conv1/7x7_s2
I0715 00:34:51.456593 23200 net.cpp:386] conv1/relu_7x7 -> conv1/7x7_s2 (in-place)
I0715 00:34:51.456593 23204 layer_factory.hpp:77] Creating layer conv1/relu_7x7
I0715 00:34:51.456615 23204 net.cpp:91] Creating Layer conv1/relu_7x7
I0715 00:34:51.456624 23204 net.cpp:425] conv1/relu_7x7 <- conv1/7x7_s2
I0715 00:34:51.456634 23204 net.cpp:386] conv1/relu_7x7 -> conv1/7x7_s2 (in-place)
I0715 00:34:51.457758 23200 net.cpp:141] Setting up conv1/relu_7x7
I0715 00:34:51.457774 23200 net.cpp:148] Top shape: 10 64 112 112 (8028160)
I0715 00:34:51.457779 23200 net.cpp:156] Memory required for data: 70246400
I0715 00:34:51.457785 23200 layer_factory.hpp:77] Creating layer pool1/3x3_s2
I0715 00:34:51.457785 23204 net.cpp:141] Setting up conv1/relu_7x7
I0715 00:34:51.457800 23200 net.cpp:91] Creating Layer pool1/3x3_s2
I0715 00:34:51.457806 23200 net.cpp:425] pool1/3x3_s2 <- conv1/7x7_s2
I0715 00:34:51.457808 23204 net.cpp:148] Top shape: 10 64 112 112 (8028160)
I0715 00:34:51.457819 23200 net.cpp:399] pool1/3x3_s2 -> pool1/3x3_s2
I0715 00:34:51.457823 23204 net.cpp:156] Memory required for data: 70246400
I0715 00:34:51.457830 23204 layer_factory.hpp:77] Creating layer pool1/3x3_s2
I0715 00:34:51.457842 23204 net.cpp:91] Creating Layer pool1/3x3_s2
I0715 00:34:51.457849 23204 net.cpp:425] pool1/3x3_s2 <- conv1/7x7_s2
I0715 00:34:51.457856 23204 net.cpp:399] pool1/3x3_s2 -> pool1/3x3_s2
I0715 00:34:51.457986 23204 net.cpp:141] Setting up pool1/3x3_s2
I0715 00:34:51.457999 23204 net.cpp:148] Top shape: 10 64 56 56 (2007040)
I0715 00:34:51.458004 23204 net.cpp:156] Memory required for data: 78274560
I0715 00:34:51.458009 23204 layer_factory.hpp:77] Creating layer pool1/norm1
I0715 00:34:51.458016 23200 net.cpp:141] Setting up pool1/3x3_s2
I0715 00:34:51.458030 23204 net.cpp:91] Creating Layer pool1/norm1
I0715 00:34:51.458037 23200 net.cpp:148] Top shape: 10 64 56 56 (2007040)
I0715 00:34:51.458037 23204 net.cpp:425] pool1/norm1 <- pool1/3x3_s2
I0715 00:34:51.458047 23200 net.cpp:156] Memory required for data: 78274560
I0715 00:34:51.458055 23200 layer_factory.hpp:77] Creating layer pool1/norm1
I0715 00:34:51.458053 23204 net.cpp:399] pool1/norm1 -> pool1/norm1
I0715 00:34:51.458070 23200 net.cpp:91] Creating Layer pool1/norm1
I0715 00:34:51.458076 23200 net.cpp:425] pool1/norm1 <- pool1/3x3_s2
I0715 00:34:51.458084 23200 net.cpp:399] pool1/norm1 -> pool1/norm1
I0715 00:34:51.459329 23204 net.cpp:141] Setting up pool1/norm1
I0715 00:34:51.459350 23204 net.cpp:148] Top shape: 10 64 56 56 (2007040)
I0715 00:34:51.459349 23200 net.cpp:141] Setting up pool1/norm1
I0715 00:34:51.459365 23204 net.cpp:156] Memory required for data: 86302720
I0715 00:34:51.459380 23204 layer_factory.hpp:77] Creating layer conv2/3x3_reduce
I0715 00:34:51.459383 23200 net.cpp:148] Top shape: 10 64 56 56 (2007040)
I0715 00:34:51.459389 23200 net.cpp:156] Memory required for data: 86302720
I0715 00:34:51.459396 23200 layer_factory.hpp:77] Creating layer conv2/3x3_reduce
I0715 00:34:51.459406 23204 net.cpp:91] Creating Layer conv2/3x3_reduce
I0715 00:34:51.459413 23204 net.cpp:425] conv2/3x3_reduce <- pool1/norm1
I0715 00:34:51.459414 23200 net.cpp:91] Creating Layer conv2/3x3_reduce
I0715 00:34:51.459420 23200 net.cpp:425] conv2/3x3_reduce <- pool1/norm1
I0715 00:34:51.459422 23204 net.cpp:399] conv2/3x3_reduce -> conv2/3x3_reduce
I0715 00:34:51.459430 23200 net.cpp:399] conv2/3x3_reduce -> conv2/3x3_reduce
I0715 00:34:51.465415 23204 net.cpp:141] Setting up conv2/3x3_reduce
I0715 00:34:51.465431 23200 net.cpp:141] Setting up conv2/3x3_reduce
I0715 00:34:51.465436 23204 net.cpp:148] Top shape: 10 64 56 56 (2007040)
I0715 00:34:51.465452 23204 net.cpp:156] Memory required for data: 94330880
I0715 00:34:51.465452 23200 net.cpp:148] Top shape: 10 64 56 56 (2007040)
I0715 00:34:51.465466 23200 net.cpp:156] Memory required for data: 94330880
I0715 00:34:51.465472 23204 layer_factory.hpp:77] Creating layer conv2/relu_3x3_reduce
I0715 00:34:51.465481 23200 layer_factory.hpp:77] Creating layer conv2/relu_3x3_reduce
I0715 00:34:51.465482 23204 net.cpp:91] Creating Layer conv2/relu_3x3_reduce
I0715 00:34:51.465489 23204 net.cpp:425] conv2/relu_3x3_reduce <- conv2/3x3_reduce
I0715 00:34:51.465495 23200 net.cpp:91] Creating Layer conv2/relu_3x3_reduce
I0715 00:34:51.465497 23204 net.cpp:386] conv2/relu_3x3_reduce -> conv2/3x3_reduce (in-place)
I0715 00:34:51.465502 23200 net.cpp:425] conv2/relu_3x3_reduce <- conv2/3x3_reduce
I0715 00:34:51.465510 23200 net.cpp:386] conv2/relu_3x3_reduce -> conv2/3x3_reduce (in-place)
I0715 00:34:51.466579 23204 net.cpp:141] Setting up conv2/relu_3x3_reduce
I0715 00:34:51.466598 23204 net.cpp:148] Top shape: 10 64 56 56 (2007040)
I0715 00:34:51.466603 23204 net.cpp:156] Memory required for data: 102359040
I0715 00:34:51.466609 23204 layer_factory.hpp:77] Creating layer conv2/3x3
I0715 00:34:51.466609 23200 net.cpp:141] Setting up conv2/relu_3x3_reduce
I0715 00:34:51.466622 23200 net.cpp:148] Top shape: 10 64 56 56 (2007040)
I0715 00:34:51.466626 23204 net.cpp:91] Creating Layer conv2/3x3
I0715 00:34:51.466627 23200 net.cpp:156] Memory required for data: 102359040
I0715 00:34:51.466636 23204 net.cpp:425] conv2/3x3 <- conv2/3x3_reduce
I0715 00:34:51.466640 23200 layer_factory.hpp:77] Creating layer conv2/3x3
I0715 00:34:51.466646 23204 net.cpp:399] conv2/3x3 -> conv2/3x3
I0715 00:34:51.466660 23200 net.cpp:91] Creating Layer conv2/3x3
I0715 00:34:51.466666 23200 net.cpp:425] conv2/3x3 <- conv2/3x3_reduce
I0715 00:34:51.466677 23200 net.cpp:399] conv2/3x3 -> conv2/3x3
I0715 00:34:51.473927 23204 net.cpp:141] Setting up conv2/3x3
I0715 00:34:51.473948 23204 net.cpp:148] Top shape: 10 192 56 56 (6021120)
I0715 00:34:51.473954 23204 net.cpp:156] Memory required for data: 126443520
I0715 00:34:51.473968 23204 layer_factory.hpp:77] Creating layer conv2/relu_3x3
I0715 00:34:51.473979 23204 net.cpp:91] Creating Layer conv2/relu_3x3
I0715 00:34:51.473985 23204 net.cpp:425] conv2/relu_3x3 <- conv2/3x3
I0715 00:34:51.473995 23204 net.cpp:386] conv2/relu_3x3 -> conv2/3x3 (in-place)
I0715 00:34:51.473995 23200 net.cpp:141] Setting up conv2/3x3
I0715 00:34:51.474011 23200 net.cpp:148] Top shape: 10 192 56 56 (6021120)
I0715 00:34:51.474017 23200 net.cpp:156] Memory required for data: 126443520
I0715 00:34:51.474030 23200 layer_factory.hpp:77] Creating layer conv2/relu_3x3
I0715 00:34:51.474045 23200 net.cpp:91] Creating Layer conv2/relu_3x3
I0715 00:34:51.474051 23200 net.cpp:425] conv2/relu_3x3 <- conv2/3x3
I0715 00:34:51.474058 23200 net.cpp:386] conv2/relu_3x3 -> conv2/3x3 (in-place)
I0715 00:34:51.475121 23204 net.cpp:141] Setting up conv2/relu_3x3
I0715 00:34:51.475139 23204 net.cpp:148] Top shape: 10 192 56 56 (6021120)
I0715 00:34:51.475145 23204 net.cpp:156] Memory required for data: 150528000
I0715 00:34:51.475145 23200 net.cpp:141] Setting up conv2/relu_3x3
I0715 00:34:51.475152 23204 layer_factory.hpp:77] Creating layer conv2/norm2
I0715 00:34:51.475167 23200 net.cpp:148] Top shape: 10 192 56 56 (6021120)
I0715 00:34:51.475167 23204 net.cpp:91] Creating Layer conv2/norm2
I0715 00:34:51.475174 23200 net.cpp:156] Memory required for data: 150528000
I0715 00:34:51.475180 23204 net.cpp:425] conv2/norm2 <- conv2/3x3
I0715 00:34:51.475181 23200 layer_factory.hpp:77] Creating layer conv2/norm2
I0715 00:34:51.475191 23204 net.cpp:399] conv2/norm2 -> conv2/norm2
I0715 00:34:51.475194 23200 net.cpp:91] Creating Layer conv2/norm2
I0715 00:34:51.475200 23200 net.cpp:425] conv2/norm2 <- conv2/3x3
I0715 00:34:51.475208 23200 net.cpp:399] conv2/norm2 -> conv2/norm2
I0715 00:34:51.476330 23204 net.cpp:141] Setting up conv2/norm2
I0715 00:34:51.476346 23204 net.cpp:148] Top shape: 10 192 56 56 (6021120)
I0715 00:34:51.476351 23204 net.cpp:156] Memory required for data: 174612480
I0715 00:34:51.476357 23204 layer_factory.hpp:77] Creating layer pool2/3x3_s2
I0715 00:34:51.476368 23204 net.cpp:91] Creating Layer pool2/3x3_s2
I0715 00:34:51.476374 23204 net.cpp:425] pool2/3x3_s2 <- conv2/norm2
I0715 00:34:51.476382 23204 net.cpp:399] pool2/3x3_s2 -> pool2/3x3_s2
I0715 00:34:51.476390 23200 net.cpp:141] Setting up conv2/norm2
I0715 00:34:51.476405 23200 net.cpp:148] Top shape: 10 192 56 56 (6021120)
I0715 00:34:51.476410 23200 net.cpp:156] Memory required for data: 174612480
I0715 00:34:51.476416 23200 layer_factory.hpp:77] Creating layer pool2/3x3_s2
I0715 00:34:51.476428 23200 net.cpp:91] Creating Layer pool2/3x3_s2
I0715 00:34:51.476433 23200 net.cpp:425] pool2/3x3_s2 <- conv2/norm2
I0715 00:34:51.476441 23200 net.cpp:399] pool2/3x3_s2 -> pool2/3x3_s2
I0715 00:34:51.476449 23204 net.cpp:141] Setting up pool2/3x3_s2
I0715 00:34:51.476459 23204 net.cpp:148] Top shape: 10 192 28 28 (1505280)
I0715 00:34:51.476464 23204 net.cpp:156] Memory required for data: 180633600
I0715 00:34:51.476469 23204 layer_factory.hpp:77] Creating layer pool2/3x3_s2_pool2/3x3_s2_0_split
I0715 00:34:51.476485 23204 net.cpp:91] Creating Layer pool2/3x3_s2_pool2/3x3_s2_0_split
I0715 00:34:51.476490 23204 net.cpp:425] pool2/3x3_s2_pool2/3x3_s2_0_split <- pool2/3x3_s2
I0715 00:34:51.476500 23204 net.cpp:399] pool2/3x3_s2_pool2/3x3_s2_0_split -> pool2/3x3_s2_pool2/3x3_s2_0_split_0
I0715 00:34:51.476505 23200 net.cpp:141] Setting up pool2/3x3_s2
I0715 00:34:51.476511 23204 net.cpp:399] pool2/3x3_s2_pool2/3x3_s2_0_split -> pool2/3x3_s2_pool2/3x3_s2_0_split_1
I0715 00:34:51.476516 23200 net.cpp:148] Top shape: 10 192 28 28 (1505280)
I0715 00:34:51.476519 23204 net.cpp:399] pool2/3x3_s2_pool2/3x3_s2_0_split -> pool2/3x3_s2_pool2/3x3_s2_0_split_2
I0715 00:34:51.476521 23200 net.cpp:156] Memory required for data: 180633600
I0715 00:34:51.476527 23200 layer_factory.hpp:77] Creating layer pool2/3x3_s2_pool2/3x3_s2_0_split
I0715 00:34:51.476529 23204 net.cpp:399] pool2/3x3_s2_pool2/3x3_s2_0_split -> pool2/3x3_s2_pool2/3x3_s2_0_split_3
I0715 00:34:51.476536 23200 net.cpp:91] Creating Layer pool2/3x3_s2_pool2/3x3_s2_0_split
I0715 00:34:51.476541 23200 net.cpp:425] pool2/3x3_s2_pool2/3x3_s2_0_split <- pool2/3x3_s2
I0715 00:34:51.476552 23200 net.cpp:399] pool2/3x3_s2_pool2/3x3_s2_0_split -> pool2/3x3_s2_pool2/3x3_s2_0_split_0
I0715 00:34:51.476562 23200 net.cpp:399] pool2/3x3_s2_pool2/3x3_s2_0_split -> pool2/3x3_s2_pool2/3x3_s2_0_split_1
I0715 00:34:51.476572 23200 net.cpp:399] pool2/3x3_s2_pool2/3x3_s2_0_split -> pool2/3x3_s2_pool2/3x3_s2_0_split_2
I0715 00:34:51.476579 23200 net.cpp:399] pool2/3x3_s2_pool2/3x3_s2_0_split -> pool2/3x3_s2_pool2/3x3_s2_0_split_3
I0715 00:34:51.476672 23204 net.cpp:141] Setting up pool2/3x3_s2_pool2/3x3_s2_0_split
I0715 00:34:51.476686 23204 net.cpp:148] Top shape: 10 192 28 28 (1505280)
I0715 00:34:51.476692 23204 net.cpp:148] Top shape: 10 192 28 28 (1505280)
I0715 00:34:51.476697 23204 net.cpp:148] Top shape: 10 192 28 28 (1505280)
I0715 00:34:51.476703 23204 net.cpp:148] Top shape: 10 192 28 28 (1505280)
I0715 00:34:51.476707 23204 net.cpp:156] Memory required for data: 204718080
I0715 00:34:51.476712 23204 layer_factory.hpp:77] Creating layer inception_3a/1x1
I0715 00:34:51.476732 23204 net.cpp:91] Creating Layer inception_3a/1x1
I0715 00:34:51.476730 23200 net.cpp:141] Setting up pool2/3x3_s2_pool2/3x3_s2_0_split
I0715 00:34:51.476742 23204 net.cpp:425] inception_3a/1x1 <- pool2/3x3_s2_pool2/3x3_s2_0_split_0
I0715 00:34:51.476750 23200 net.cpp:148] Top shape: 10 192 28 28 (1505280)
I0715 00:34:51.476758 23200 net.cpp:148] Top shape: 10 192 28 28 (1505280)
I0715 00:34:51.476763 23200 net.cpp:148] Top shape: 10 192 28 28 (1505280)
I0715 00:34:51.476769 23200 net.cpp:148] Top shape: 10 192 28 28 (1505280)
I0715 00:34:51.476769 23204 net.cpp:399] inception_3a/1x1 -> inception_3a/1x1
I0715 00:34:51.476773 23200 net.cpp:156] Memory required for data: 204718080
I0715 00:34:51.476779 23200 layer_factory.hpp:77] Creating layer inception_3a/1x1
I0715 00:34:51.476799 23200 net.cpp:91] Creating Layer inception_3a/1x1
I0715 00:34:51.476805 23200 net.cpp:425] inception_3a/1x1 <- pool2/3x3_s2_pool2/3x3_s2_0_split_0
I0715 00:34:51.476815 23200 net.cpp:399] inception_3a/1x1 -> inception_3a/1x1
I0715 00:34:51.483597 23204 net.cpp:141] Setting up inception_3a/1x1
I0715 00:34:51.483619 23204 net.cpp:148] Top shape: 10 64 28 28 (501760)
I0715 00:34:51.483625 23204 net.cpp:156] Memory required for data: 206725120
I0715 00:34:51.483628 23200 net.cpp:141] Setting up inception_3a/1x1
I0715 00:34:51.483636 23204 layer_factory.hpp:77] Creating layer inception_3a/relu_1x1
I0715 00:34:51.483645 23200 net.cpp:148] Top shape: 10 64 28 28 (501760)
I0715 00:34:51.483647 23204 net.cpp:91] Creating Layer inception_3a/relu_1x1
I0715 00:34:51.483651 23200 net.cpp:156] Memory required for data: 206725120
I0715 00:34:51.483654 23204 net.cpp:425] inception_3a/relu_1x1 <- inception_3a/1x1
I0715 00:34:51.483661 23200 layer_factory.hpp:77] Creating layer inception_3a/relu_1x1
I0715 00:34:51.483664 23204 net.cpp:386] inception_3a/relu_1x1 -> inception_3a/1x1 (in-place)
I0715 00:34:51.483671 23200 net.cpp:91] Creating Layer inception_3a/relu_1x1
I0715 00:34:51.483677 23200 net.cpp:425] inception_3a/relu_1x1 <- inception_3a/1x1
I0715 00:34:51.483690 23200 net.cpp:386] inception_3a/relu_1x1 -> inception_3a/1x1 (in-place)
I0715 00:34:51.484764 23204 net.cpp:141] Setting up inception_3a/relu_1x1
I0715 00:34:51.484782 23204 net.cpp:148] Top shape: 10 64 28 28 (501760)
I0715 00:34:51.484787 23204 net.cpp:156] Memory required for data: 208732160
I0715 00:34:51.484793 23204 layer_factory.hpp:77] Creating layer inception_3a/3x3_reduce
I0715 00:34:51.484792 23200 net.cpp:141] Setting up inception_3a/relu_1x1
I0715 00:34:51.484805 23200 net.cpp:148] Top shape: 10 64 28 28 (501760)
I0715 00:34:51.484810 23200 net.cpp:156] Memory required for data: 208732160
I0715 00:34:51.484812 23204 net.cpp:91] Creating Layer inception_3a/3x3_reduce
I0715 00:34:51.484817 23200 layer_factory.hpp:77] Creating layer inception_3a/3x3_reduce
I0715 00:34:51.484819 23204 net.cpp:425] inception_3a/3x3_reduce <- pool2/3x3_s2_pool2/3x3_s2_0_split_1
I0715 00:34:51.484832 23204 net.cpp:399] inception_3a/3x3_reduce -> inception_3a/3x3_reduce
I0715 00:34:51.484834 23200 net.cpp:91] Creating Layer inception_3a/3x3_reduce
I0715 00:34:51.484841 23200 net.cpp:425] inception_3a/3x3_reduce <- pool2/3x3_s2_pool2/3x3_s2_0_split_1
I0715 00:34:51.484853 23200 net.cpp:399] inception_3a/3x3_reduce -> inception_3a/3x3_reduce
I0715 00:34:51.490743 23204 net.cpp:141] Setting up inception_3a/3x3_reduce
I0715 00:34:51.490763 23204 net.cpp:148] Top shape: 10 96 28 28 (752640)
I0715 00:34:51.490769 23204 net.cpp:156] Memory required for data: 211742720
I0715 00:34:51.490787 23204 layer_factory.hpp:77] Creating layer inception_3a/relu_3x3_reduce
I0715 00:34:51.490797 23204 net.cpp:91] Creating Layer inception_3a/relu_3x3_reduce
I0715 00:34:51.490803 23204 net.cpp:425] inception_3a/relu_3x3_reduce <- inception_3a/3x3_reduce
I0715 00:34:51.490813 23204 net.cpp:386] inception_3a/relu_3x3_reduce -> inception_3a/3x3_reduce (in-place)
I0715 00:34:51.491567 23200 net.cpp:141] Setting up inception_3a/3x3_reduce
I0715 00:34:51.491586 23200 net.cpp:148] Top shape: 10 96 28 28 (752640)
I0715 00:34:51.491592 23200 net.cpp:156] Memory required for data: 211742720
I0715 00:34:51.491610 23200 layer_factory.hpp:77] Creating layer inception_3a/relu_3x3_reduce
I0715 00:34:51.491619 23200 net.cpp:91] Creating Layer inception_3a/relu_3x3_reduce
I0715 00:34:51.491626 23200 net.cpp:425] inception_3a/relu_3x3_reduce <- inception_3a/3x3_reduce
I0715 00:34:51.491633 23200 net.cpp:386] inception_3a/relu_3x3_reduce -> inception_3a/3x3_reduce (in-place)
I0715 00:34:51.491945 23204 net.cpp:141] Setting up inception_3a/relu_3x3_reduce
I0715 00:34:51.491962 23204 net.cpp:148] Top shape: 10 96 28 28 (752640)
I0715 00:34:51.491968 23204 net.cpp:156] Memory required for data: 214753280
I0715 00:34:51.491966 23200 net.cpp:141] Setting up inception_3a/relu_3x3_reduce
I0715 00:34:51.491976 23204 layer_factory.hpp:77] Creating layer inception_3a/3x3
I0715 00:34:51.491988 23200 net.cpp:148] Top shape: 10 96 28 28 (752640)
I0715 00:34:51.491994 23200 net.cpp:156] Memory required for data: 214753280
I0715 00:34:51.491999 23200 layer_factory.hpp:77] Creating layer inception_3a/3x3
I0715 00:34:51.492003 23204 net.cpp:91] Creating Layer inception_3a/3x3
I0715 00:34:51.492010 23204 net.cpp:425] inception_3a/3x3 <- inception_3a/3x3_reduce
I0715 00:34:51.492018 23200 net.cpp:91] Creating Layer inception_3a/3x3
I0715 00:34:51.492023 23204 net.cpp:399] inception_3a/3x3 -> inception_3a/3x3
I0715 00:34:51.492025 23200 net.cpp:425] inception_3a/3x3 <- inception_3a/3x3_reduce
I0715 00:34:51.492038 23200 net.cpp:399] inception_3a/3x3 -> inception_3a/3x3
I0715 00:34:51.498582 23200 net.cpp:141] Setting up inception_3a/3x3
I0715 00:34:51.498602 23200 net.cpp:148] Top shape: 10 128 28 28 (1003520)
I0715 00:34:51.498608 23200 net.cpp:156] Memory required for data: 218767360
I0715 00:34:51.498618 23200 layer_factory.hpp:77] Creating layer inception_3a/relu_3x3
I0715 00:34:51.498636 23200 net.cpp:91] Creating Layer inception_3a/relu_3x3
I0715 00:34:51.498642 23200 net.cpp:425] inception_3a/relu_3x3 <- inception_3a/3x3
I0715 00:34:51.498651 23200 net.cpp:386] inception_3a/relu_3x3 -> inception_3a/3x3 (in-place)
I0715 00:34:51.498944 23204 net.cpp:141] Setting up inception_3a/3x3
I0715 00:34:51.498961 23204 net.cpp:148] Top shape: 10 128 28 28 (1003520)
I0715 00:34:51.498967 23204 net.cpp:156] Memory required for data: 218767360
I0715 00:34:51.498977 23204 layer_factory.hpp:77] Creating layer inception_3a/relu_3x3
I0715 00:34:51.498986 23204 net.cpp:91] Creating Layer inception_3a/relu_3x3
I0715 00:34:51.498992 23204 net.cpp:425] inception_3a/relu_3x3 <- inception_3a/3x3
I0715 00:34:51.499003 23204 net.cpp:386] inception_3a/relu_3x3 -> inception_3a/3x3 (in-place)
I0715 00:34:51.499665 23200 net.cpp:141] Setting up inception_3a/relu_3x3
I0715 00:34:51.499680 23200 net.cpp:148] Top shape: 10 128 28 28 (1003520)
I0715 00:34:51.499685 23200 net.cpp:156] Memory required for data: 222781440
I0715 00:34:51.499691 23200 layer_factory.hpp:77] Creating layer inception_3a/5x5_reduce
I0715 00:34:51.499707 23200 net.cpp:91] Creating Layer inception_3a/5x5_reduce
I0715 00:34:51.499714 23200 net.cpp:425] inception_3a/5x5_reduce <- pool2/3x3_s2_pool2/3x3_s2_0_split_2
I0715 00:34:51.499727 23200 net.cpp:399] inception_3a/5x5_reduce -> inception_3a/5x5_reduce
I0715 00:34:51.500071 23204 net.cpp:141] Setting up inception_3a/relu_3x3
I0715 00:34:51.500088 23204 net.cpp:148] Top shape: 10 128 28 28 (1003520)
I0715 00:34:51.500093 23204 net.cpp:156] Memory required for data: 222781440
I0715 00:34:51.500099 23204 layer_factory.hpp:77] Creating layer inception_3a/5x5_reduce
I0715 00:34:51.500116 23204 net.cpp:91] Creating Layer inception_3a/5x5_reduce
I0715 00:34:51.500123 23204 net.cpp:425] inception_3a/5x5_reduce <- pool2/3x3_s2_pool2/3x3_s2_0_split_2
I0715 00:34:51.500136 23204 net.cpp:399] inception_3a/5x5_reduce -> inception_3a/5x5_reduce
I0715 00:34:51.504104 23200 net.cpp:141] Setting up inception_3a/5x5_reduce
I0715 00:34:51.504123 23200 net.cpp:148] Top shape: 10 16 28 28 (125440)
I0715 00:34:51.504129 23200 net.cpp:156] Memory required for data: 223283200
I0715 00:34:51.504139 23200 layer_factory.hpp:77] Creating layer inception_3a/relu_5x5_reduce
I0715 00:34:51.504151 23200 net.cpp:91] Creating Layer inception_3a/relu_5x5_reduce
I0715 00:34:51.504158 23200 net.cpp:425] inception_3a/relu_5x5_reduce <- inception_3a/5x5_reduce
I0715 00:34:51.504165 23200 net.cpp:386] inception_3a/relu_5x5_reduce -> inception_3a/5x5_reduce (in-place)
I0715 00:34:51.504931 23204 net.cpp:141] Setting up inception_3a/5x5_reduce
I0715 00:34:51.504951 23204 net.cpp:148] Top shape: 10 16 28 28 (125440)
I0715 00:34:51.504956 23204 net.cpp:156] Memory required for data: 223283200
I0715 00:34:51.504966 23204 layer_factory.hpp:77] Creating layer inception_3a/relu_5x5_reduce
I0715 00:34:51.504978 23204 net.cpp:91] Creating Layer inception_3a/relu_5x5_reduce
I0715 00:34:51.504984 23204 net.cpp:425] inception_3a/relu_5x5_reduce <- inception_3a/5x5_reduce
I0715 00:34:51.504992 23204 net.cpp:386] inception_3a/relu_5x5_reduce -> inception_3a/5x5_reduce (in-place)
I0715 00:34:51.505221 23200 net.cpp:141] Setting up inception_3a/relu_5x5_reduce
I0715 00:34:51.505235 23200 net.cpp:148] Top shape: 10 16 28 28 (125440)
I0715 00:34:51.505240 23200 net.cpp:156] Memory required for data: 223784960
I0715 00:34:51.505246 23200 layer_factory.hpp:77] Creating layer inception_3a/5x5
I0715 00:34:51.505262 23200 net.cpp:91] Creating Layer inception_3a/5x5
I0715 00:34:51.505270 23200 net.cpp:425] inception_3a/5x5 <- inception_3a/5x5_reduce
I0715 00:34:51.505282 23200 net.cpp:399] inception_3a/5x5 -> inception_3a/5x5
I0715 00:34:51.505298 23204 net.cpp:141] Setting up inception_3a/relu_5x5_reduce
I0715 00:34:51.505312 23204 net.cpp:148] Top shape: 10 16 28 28 (125440)
I0715 00:34:51.505317 23204 net.cpp:156] Memory required for data: 223784960
I0715 00:34:51.505322 23204 layer_factory.hpp:77] Creating layer inception_3a/5x5
I0715 00:34:51.505338 23204 net.cpp:91] Creating Layer inception_3a/5x5
I0715 00:34:51.505344 23204 net.cpp:425] inception_3a/5x5 <- inception_3a/5x5_reduce
I0715 00:34:51.505357 23204 net.cpp:399] inception_3a/5x5 -> inception_3a/5x5
I0715 00:34:51.511554 23204 net.cpp:141] Setting up inception_3a/5x5
I0715 00:34:51.511574 23204 net.cpp:148] Top shape: 10 32 28 28 (250880)
I0715 00:34:51.511580 23204 net.cpp:156] Memory required for data: 224788480
I0715 00:34:51.511592 23204 layer_factory.hpp:77] Creating layer inception_3a/relu_5x5
I0715 00:34:51.511606 23204 net.cpp:91] Creating Layer inception_3a/relu_5x5
I0715 00:34:51.511612 23204 net.cpp:425] inception_3a/relu_5x5 <- inception_3a/5x5
I0715 00:34:51.511620 23204 net.cpp:386] inception_3a/relu_5x5 -> inception_3a/5x5 (in-place)
I0715 00:34:51.512192 23200 net.cpp:141] Setting up inception_3a/5x5
I0715 00:34:51.512213 23200 net.cpp:148] Top shape: 10 32 28 28 (250880)
I0715 00:34:51.512219 23200 net.cpp:156] Memory required for data: 224788480
I0715 00:34:51.512230 23200 layer_factory.hpp:77] Creating layer inception_3a/relu_5x5
I0715 00:34:51.512239 23200 net.cpp:91] Creating Layer inception_3a/relu_5x5
I0715 00:34:51.512244 23200 net.cpp:425] inception_3a/relu_5x5 <- inception_3a/5x5
I0715 00:34:51.512253 23200 net.cpp:386] inception_3a/relu_5x5 -> inception_3a/5x5 (in-place)
I0715 00:34:51.513273 23200 net.cpp:141] Setting up inception_3a/relu_5x5
I0715 00:34:51.513288 23200 net.cpp:148] Top shape: 10 32 28 28 (250880)
I0715 00:34:51.513293 23200 net.cpp:156] Memory required for data: 225792000
I0715 00:34:51.513299 23200 layer_factory.hpp:77] Creating layer inception_3a/pool
I0715 00:34:51.513309 23200 net.cpp:91] Creating Layer inception_3a/pool
I0715 00:34:51.513317 23200 net.cpp:425] inception_3a/pool <- pool2/3x3_s2_pool2/3x3_s2_0_split_3
I0715 00:34:51.513321 23204 net.cpp:141] Setting up inception_3a/relu_5x5
I0715 00:34:51.513325 23200 net.cpp:399] inception_3a/pool -> inception_3a/pool
I0715 00:34:51.513339 23204 net.cpp:148] Top shape: 10 32 28 28 (250880)
I0715 00:34:51.513345 23204 net.cpp:156] Memory required for data: 225792000
I0715 00:34:51.513350 23204 layer_factory.hpp:77] Creating layer inception_3a/pool
I0715 00:34:51.513362 23204 net.cpp:91] Creating Layer inception_3a/pool
I0715 00:34:51.513368 23204 net.cpp:425] inception_3a/pool <- pool2/3x3_s2_pool2/3x3_s2_0_split_3
I0715 00:34:51.513377 23204 net.cpp:399] inception_3a/pool -> inception_3a/pool
I0715 00:34:51.513411 23200 net.cpp:141] Setting up inception_3a/pool
I0715 00:34:51.513422 23200 net.cpp:148] Top shape: 10 192 28 28 (1505280)
I0715 00:34:51.513427 23200 net.cpp:156] Memory required for data: 231813120
I0715 00:34:51.513432 23200 layer_factory.hpp:77] Creating layer inception_3a/pool_proj
I0715 00:34:51.513449 23200 net.cpp:91] Creating Layer inception_3a/pool_proj
I0715 00:34:51.513455 23200 net.cpp:425] inception_3a/pool_proj <- inception_3a/pool
I0715 00:34:51.513464 23200 net.cpp:399] inception_3a/pool_proj -> inception_3a/pool_proj
I0715 00:34:51.513468 23204 net.cpp:141] Setting up inception_3a/pool
I0715 00:34:51.513480 23204 net.cpp:148] Top shape: 10 192 28 28 (1505280)
I0715 00:34:51.513485 23204 net.cpp:156] Memory required for data: 231813120
I0715 00:34:51.513490 23204 layer_factory.hpp:77] Creating layer inception_3a/pool_proj
I0715 00:34:51.513509 23204 net.cpp:91] Creating Layer inception_3a/pool_proj
I0715 00:34:51.513514 23204 net.cpp:425] inception_3a/pool_proj <- inception_3a/pool
I0715 00:34:51.513526 23204 net.cpp:399] inception_3a/pool_proj -> inception_3a/pool_proj
I0715 00:34:51.518606 23200 net.cpp:141] Setting up inception_3a/pool_proj
I0715 00:34:51.518625 23200 net.cpp:148] Top shape: 10 32 28 28 (250880)
I0715 00:34:51.518631 23200 net.cpp:156] Memory required for data: 232816640
I0715 00:34:51.518646 23200 layer_factory.hpp:77] Creating layer inception_3a/relu_pool_proj
I0715 00:34:51.518659 23200 net.cpp:91] Creating Layer inception_3a/relu_pool_proj
I0715 00:34:51.518666 23200 net.cpp:425] inception_3a/relu_pool_proj <- inception_3a/pool_proj
I0715 00:34:51.518674 23200 net.cpp:386] inception_3a/relu_pool_proj -> inception_3a/pool_proj (in-place)
I0715 00:34:51.519178 23204 net.cpp:141] Setting up inception_3a/pool_proj
I0715 00:34:51.519186 23200 net.cpp:141] Setting up inception_3a/relu_pool_proj
I0715 00:34:51.519201 23204 net.cpp:148] Top shape: 10 32 28 28 (250880)
I0715 00:34:51.519204 23200 net.cpp:148] Top shape: 10 32 28 28 (250880)
I0715 00:34:51.519207 23204 net.cpp:156] Memory required for data: 232816640
I0715 00:34:51.519210 23200 net.cpp:156] Memory required for data: 233820160
I0715 00:34:51.519217 23200 layer_factory.hpp:77] Creating layer inception_3a/output
I0715 00:34:51.519224 23204 layer_factory.hpp:77] Creating layer inception_3a/relu_pool_proj
I0715 00:34:51.519234 23204 net.cpp:91] Creating Layer inception_3a/relu_pool_proj
I0715 00:34:51.519234 23200 net.cpp:91] Creating Layer inception_3a/output
I0715 00:34:51.519240 23204 net.cpp:425] inception_3a/relu_pool_proj <- inception_3a/pool_proj
I0715 00:34:51.519243 23200 net.cpp:425] inception_3a/output <- inception_3a/1x1
I0715 00:34:51.519249 23204 net.cpp:386] inception_3a/relu_pool_proj -> inception_3a/pool_proj (in-place)
I0715 00:34:51.519249 23200 net.cpp:425] inception_3a/output <- inception_3a/3x3
I0715 00:34:51.519263 23200 net.cpp:425] inception_3a/output <- inception_3a/5x5
I0715 00:34:51.519269 23200 net.cpp:425] inception_3a/output <- inception_3a/pool_proj
I0715 00:34:51.519281 23200 net.cpp:399] inception_3a/output -> inception_3a/output
I0715 00:34:51.519918 23200 net.cpp:141] Setting up inception_3a/output
I0715 00:34:51.519930 23200 net.cpp:148] Top shape: 10 256 28 28 (2007040)
I0715 00:34:51.519935 23200 net.cpp:156] Memory required for data: 241848320
I0715 00:34:51.519940 23200 layer_factory.hpp:77] Creating layer inception_3a/output_inception_3a/output_0_split
I0715 00:34:51.519950 23200 net.cpp:91] Creating Layer inception_3a/output_inception_3a/output_0_split
I0715 00:34:51.519955 23200 net.cpp:425] inception_3a/output_inception_3a/output_0_split <- inception_3a/output
I0715 00:34:51.519963 23200 net.cpp:399] inception_3a/output_inception_3a/output_0_split -> inception_3a/output_inception_3a/output_0_split_0
I0715 00:34:51.519973 23200 net.cpp:399] inception_3a/output_inception_3a/output_0_split -> inception_3a/output_inception_3a/output_0_split_1
I0715 00:34:51.519990 23200 net.cpp:399] inception_3a/output_inception_3a/output_0_split -> inception_3a/output_inception_3a/output_0_split_2
I0715 00:34:51.519999 23200 net.cpp:399] inception_3a/output_inception_3a/output_0_split -> inception_3a/output_inception_3a/output_0_split_3
I0715 00:34:51.520190 23200 net.cpp:141] Setting up inception_3a/output_inception_3a/output_0_split
I0715 00:34:51.520201 23200 net.cpp:148] Top shape: 10 256 28 28 (2007040)
I0715 00:34:51.520207 23200 net.cpp:148] Top shape: 10 256 28 28 (2007040)
I0715 00:34:51.520213 23200 net.cpp:148] Top shape: 10 256 28 28 (2007040)
I0715 00:34:51.520220 23200 net.cpp:148] Top shape: 10 256 28 28 (2007040)
I0715 00:34:51.520216 23204 net.cpp:141] Setting up inception_3a/relu_pool_proj
I0715 00:34:51.520223 23200 net.cpp:156] Memory required for data: 273960960
I0715 00:34:51.520229 23200 layer_factory.hpp:77] Creating layer inception_3b/1x1
I0715 00:34:51.520236 23204 net.cpp:148] Top shape: 10 32 28 28 (250880)
I0715 00:34:51.520241 23204 net.cpp:156] Memory required for data: 233820160
I0715 00:34:51.520246 23204 layer_factory.hpp:77] Creating layer inception_3a/output
I0715 00:34:51.520248 23200 net.cpp:91] Creating Layer inception_3b/1x1
I0715 00:34:51.520254 23200 net.cpp:425] inception_3b/1x1 <- inception_3a/output_inception_3a/output_0_split_0
I0715 00:34:51.520256 23204 net.cpp:91] Creating Layer inception_3a/output
I0715 00:34:51.520262 23204 net.cpp:425] inception_3a/output <- inception_3a/1x1
I0715 00:34:51.520265 23200 net.cpp:399] inception_3b/1x1 -> inception_3b/1x1
I0715 00:34:51.520268 23204 net.cpp:425] inception_3a/output <- inception_3a/3x3
I0715 00:34:51.520274 23204 net.cpp:425] inception_3a/output <- inception_3a/5x5
I0715 00:34:51.520280 23204 net.cpp:425] inception_3a/output <- inception_3a/pool_proj
I0715 00:34:51.520287 23204 net.cpp:399] inception_3a/output -> inception_3a/output
I0715 00:34:51.520489 23204 net.cpp:141] Setting up inception_3a/output
I0715 00:34:51.520501 23204 net.cpp:148] Top shape: 10 256 28 28 (2007040)
I0715 00:34:51.520506 23204 net.cpp:156] Memory required for data: 241848320
I0715 00:34:51.520511 23204 layer_factory.hpp:77] Creating layer inception_3a/output_inception_3a/output_0_split
I0715 00:34:51.520519 23204 net.cpp:91] Creating Layer inception_3a/output_inception_3a/output_0_split
I0715 00:34:51.520525 23204 net.cpp:425] inception_3a/output_inception_3a/output_0_split <- inception_3a/output
I0715 00:34:51.520535 23204 net.cpp:399] inception_3a/output_inception_3a/output_0_split -> inception_3a/output_inception_3a/output_0_split_0
I0715 00:34:51.520545 23204 net.cpp:399] inception_3a/output_inception_3a/output_0_split -> inception_3a/output_inception_3a/output_0_split_1
I0715 00:34:51.520553 23204 net.cpp:399] inception_3a/output_inception_3a/output_0_split -> inception_3a/output_inception_3a/output_0_split_2
I0715 00:34:51.520562 23204 net.cpp:399] inception_3a/output_inception_3a/output_0_split -> inception_3a/output_inception_3a/output_0_split_3
I0715 00:34:51.520663 23204 net.cpp:141] Setting up inception_3a/output_inception_3a/output_0_split
I0715 00:34:51.520673 23204 net.cpp:148] Top shape: 10 256 28 28 (2007040)
I0715 00:34:51.520679 23204 net.cpp:148] Top shape: 10 256 28 28 (2007040)
I0715 00:34:51.520685 23204 net.cpp:148] Top shape: 10 256 28 28 (2007040)
I0715 00:34:51.520690 23204 net.cpp:148] Top shape: 10 256 28 28 (2007040)
I0715 00:34:51.520695 23204 net.cpp:156] Memory required for data: 273960960
I0715 00:34:51.520699 23204 layer_factory.hpp:77] Creating layer inception_3b/1x1
I0715 00:34:51.520714 23204 net.cpp:91] Creating Layer inception_3b/1x1
I0715 00:34:51.520720 23204 net.cpp:425] inception_3b/1x1 <- inception_3a/output_inception_3a/output_0_split_0
I0715 00:34:51.520732 23204 net.cpp:399] inception_3b/1x1 -> inception_3b/1x1
I0715 00:34:51.524452 23200 net.cpp:141] Setting up inception_3b/1x1
I0715 00:34:51.524471 23200 net.cpp:148] Top shape: 10 128 28 28 (1003520)
I0715 00:34:51.524477 23200 net.cpp:156] Memory required for data: 277975040
I0715 00:34:51.524487 23200 layer_factory.hpp:77] Creating layer inception_3b/relu_1x1
I0715 00:34:51.524500 23200 net.cpp:91] Creating Layer inception_3b/relu_1x1
I0715 00:34:51.524507 23200 net.cpp:425] inception_3b/relu_1x1 <- inception_3b/1x1
I0715 00:34:51.524514 23200 net.cpp:386] inception_3b/relu_1x1 -> inception_3b/1x1 (in-place)
I0715 00:34:51.525689 23200 net.cpp:141] Setting up inception_3b/relu_1x1
I0715 00:34:51.525707 23200 net.cpp:148] Top shape: 10 128 28 28 (1003520)
I0715 00:34:51.525705 23204 net.cpp:141] Setting up inception_3b/1x1
I0715 00:34:51.525712 23200 net.cpp:156] Memory required for data: 281989120
I0715 00:34:51.525725 23204 net.cpp:148] Top shape: 10 128 28 28 (1003520)
I0715 00:34:51.525725 23200 layer_factory.hpp:77] Creating layer inception_3b/3x3_reduce
I0715 00:34:51.525733 23204 net.cpp:156] Memory required for data: 277975040
I0715 00:34:51.525743 23204 layer_factory.hpp:77] Creating layer inception_3b/relu_1x1
I0715 00:34:51.525753 23200 net.cpp:91] Creating Layer inception_3b/3x3_reduce
I0715 00:34:51.525753 23204 net.cpp:91] Creating Layer inception_3b/relu_1x1
I0715 00:34:51.525763 23200 net.cpp:425] inception_3b/3x3_reduce <- inception_3a/output_inception_3a/output_0_split_1
I0715 00:34:51.525768 23204 net.cpp:425] inception_3b/relu_1x1 <- inception_3b/1x1
I0715 00:34:51.525774 23200 net.cpp:399] inception_3b/3x3_reduce -> inception_3b/3x3_reduce
I0715 00:34:51.525775 23204 net.cpp:386] inception_3b/relu_1x1 -> inception_3b/1x1 (in-place)
I0715 00:34:51.526325 23204 net.cpp:141] Setting up inception_3b/relu_1x1
I0715 00:34:51.526340 23204 net.cpp:148] Top shape: 10 128 28 28 (1003520)
I0715 00:34:51.526345 23204 net.cpp:156] Memory required for data: 281989120
I0715 00:34:51.526350 23204 layer_factory.hpp:77] Creating layer inception_3b/3x3_reduce
I0715 00:34:51.526366 23204 net.cpp:91] Creating Layer inception_3b/3x3_reduce
I0715 00:34:51.526372 23204 net.cpp:425] inception_3b/3x3_reduce <- inception_3a/output_inception_3a/output_0_split_1
I0715 00:34:51.526384 23204 net.cpp:399] inception_3b/3x3_reduce -> inception_3b/3x3_reduce
I0715 00:34:51.530882 23200 net.cpp:141] Setting up inception_3b/3x3_reduce
I0715 00:34:51.530901 23200 net.cpp:148] Top shape: 10 128 28 28 (1003520)
I0715 00:34:51.530907 23200 net.cpp:156] Memory required for data: 286003200
I0715 00:34:51.530918 23200 layer_factory.hpp:77] Creating layer inception_3b/relu_3x3_reduce
I0715 00:34:51.530928 23200 net.cpp:91] Creating Layer inception_3b/relu_3x3_reduce
I0715 00:34:51.530935 23200 net.cpp:425] inception_3b/relu_3x3_reduce <- inception_3b/3x3_reduce
I0715 00:34:51.530946 23200 net.cpp:386] inception_3b/relu_3x3_reduce -> inception_3b/3x3_reduce (in-place)
I0715 00:34:51.532018 23200 net.cpp:141] Setting up inception_3b/relu_3x3_reduce
I0715 00:34:51.532037 23200 net.cpp:148] Top shape: 10 128 28 28 (1003520)
I0715 00:34:51.532042 23200 net.cpp:156] Memory required for data: 290017280
I0715 00:34:51.532047 23200 layer_factory.hpp:77] Creating layer inception_3b/3x3
I0715 00:34:51.532064 23200 net.cpp:91] Creating Layer inception_3b/3x3
I0715 00:34:51.532071 23200 net.cpp:425] inception_3b/3x3 <- inception_3b/3x3_reduce
I0715 00:34:51.532084 23200 net.cpp:399] inception_3b/3x3 -> inception_3b/3x3
I0715 00:34:51.532179 23204 net.cpp:141] Setting up inception_3b/3x3_reduce
I0715 00:34:51.532198 23204 net.cpp:148] Top shape: 10 128 28 28 (1003520)
I0715 00:34:51.532204 23204 net.cpp:156] Memory required for data: 286003200
I0715 00:34:51.532214 23204 layer_factory.hpp:77] Creating layer inception_3b/relu_3x3_reduce
I0715 00:34:51.532223 23204 net.cpp:91] Creating Layer inception_3b/relu_3x3_reduce
I0715 00:34:51.532229 23204 net.cpp:425] inception_3b/relu_3x3_reduce <- inception_3b/3x3_reduce
I0715 00:34:51.532238 23204 net.cpp:386] inception_3b/relu_3x3_reduce -> inception_3b/3x3_reduce (in-place)
I0715 00:34:51.533782 23204 net.cpp:141] Setting up inception_3b/relu_3x3_reduce
I0715 00:34:51.533799 23204 net.cpp:148] Top shape: 10 128 28 28 (1003520)
I0715 00:34:51.533804 23204 net.cpp:156] Memory required for data: 290017280
I0715 00:34:51.533810 23204 layer_factory.hpp:77] Creating layer inception_3b/3x3
I0715 00:34:51.533828 23204 net.cpp:91] Creating Layer inception_3b/3x3
I0715 00:34:51.533834 23204 net.cpp:425] inception_3b/3x3 <- inception_3b/3x3_reduce
I0715 00:34:51.533845 23204 net.cpp:399] inception_3b/3x3 -> inception_3b/3x3
I0715 00:34:51.539288 23200 net.cpp:141] Setting up inception_3b/3x3
I0715 00:34:51.539309 23200 net.cpp:148] Top shape: 10 192 28 28 (1505280)
I0715 00:34:51.539314 23200 net.cpp:156] Memory required for data: 296038400
I0715 00:34:51.539324 23200 layer_factory.hpp:77] Creating layer inception_3b/relu_3x3
I0715 00:34:51.539341 23200 net.cpp:91] Creating Layer inception_3b/relu_3x3
I0715 00:34:51.539347 23200 net.cpp:425] inception_3b/relu_3x3 <- inception_3b/3x3
I0715 00:34:51.539356 23200 net.cpp:386] inception_3b/relu_3x3 -> inception_3b/3x3 (in-place)
I0715 00:34:51.540699 23200 net.cpp:141] Setting up inception_3b/relu_3x3
I0715 00:34:51.540719 23200 net.cpp:148] Top shape: 10 192 28 28 (1505280)
I0715 00:34:51.540724 23200 net.cpp:156] Memory required for data: 302059520
I0715 00:34:51.540731 23200 layer_factory.hpp:77] Creating layer inception_3b/5x5_reduce
I0715 00:34:51.540760 23200 net.cpp:91] Creating Layer inception_3b/5x5_reduce
I0715 00:34:51.540769 23200 net.cpp:425] inception_3b/5x5_reduce <- inception_3a/output_inception_3a/output_0_split_2
I0715 00:34:51.540781 23200 net.cpp:399] inception_3b/5x5_reduce -> inception_3b/5x5_reduce
I0715 00:34:51.541085 23204 net.cpp:141] Setting up inception_3b/3x3
I0715 00:34:51.541101 23204 net.cpp:148] Top shape: 10 192 28 28 (1505280)
I0715 00:34:51.541107 23204 net.cpp:156] Memory required for data: 296038400
I0715 00:34:51.541117 23204 layer_factory.hpp:77] Creating layer inception_3b/relu_3x3
I0715 00:34:51.541132 23204 net.cpp:91] Creating Layer inception_3b/relu_3x3
I0715 00:34:51.541139 23204 net.cpp:425] inception_3b/relu_3x3 <- inception_3b/3x3
I0715 00:34:51.541148 23204 net.cpp:386] inception_3b/relu_3x3 -> inception_3b/3x3 (in-place)
I0715 00:34:51.542330 23204 net.cpp:141] Setting up inception_3b/relu_3x3
I0715 00:34:51.542347 23204 net.cpp:148] Top shape: 10 192 28 28 (1505280)
I0715 00:34:51.542352 23204 net.cpp:156] Memory required for data: 302059520
I0715 00:34:51.542358 23204 layer_factory.hpp:77] Creating layer inception_3b/5x5_reduce
I0715 00:34:51.542376 23204 net.cpp:91] Creating Layer inception_3b/5x5_reduce
I0715 00:34:51.542383 23204 net.cpp:425] inception_3b/5x5_reduce <- inception_3a/output_inception_3a/output_0_split_2
I0715 00:34:51.542393 23204 net.cpp:399] inception_3b/5x5_reduce -> inception_3b/5x5_reduce
I0715 00:34:51.545816 23200 net.cpp:141] Setting up inception_3b/5x5_reduce
I0715 00:34:51.545838 23200 net.cpp:148] Top shape: 10 32 28 28 (250880)
I0715 00:34:51.545845 23200 net.cpp:156] Memory required for data: 303063040
I0715 00:34:51.545855 23200 layer_factory.hpp:77] Creating layer inception_3b/relu_5x5_reduce
I0715 00:34:51.545864 23200 net.cpp:91] Creating Layer inception_3b/relu_5x5_reduce
I0715 00:34:51.545871 23200 net.cpp:425] inception_3b/relu_5x5_reduce <- inception_3b/5x5_reduce
I0715 00:34:51.545878 23200 net.cpp:386] inception_3b/relu_5x5_reduce -> inception_3b/5x5_reduce (in-place)
I0715 00:34:51.546967 23200 net.cpp:141] Setting up inception_3b/relu_5x5_reduce
I0715 00:34:51.546985 23200 net.cpp:148] Top shape: 10 32 28 28 (250880)
I0715 00:34:51.546990 23200 net.cpp:156] Memory required for data: 304066560
I0715 00:34:51.546996 23200 layer_factory.hpp:77] Creating layer inception_3b/5x5
I0715 00:34:51.547014 23200 net.cpp:91] Creating Layer inception_3b/5x5
I0715 00:34:51.547021 23200 net.cpp:425] inception_3b/5x5 <- inception_3b/5x5_reduce
I0715 00:34:51.547034 23200 net.cpp:399] inception_3b/5x5 -> inception_3b/5x5
I0715 00:34:51.547174 23204 net.cpp:141] Setting up inception_3b/5x5_reduce
I0715 00:34:51.547191 23204 net.cpp:148] Top shape: 10 32 28 28 (250880)
I0715 00:34:51.547196 23204 net.cpp:156] Memory required for data: 303063040
I0715 00:34:51.547206 23204 layer_factory.hpp:77] Creating layer inception_3b/relu_5x5_reduce
I0715 00:34:51.547215 23204 net.cpp:91] Creating Layer inception_3b/relu_5x5_reduce
I0715 00:34:51.547221 23204 net.cpp:425] inception_3b/relu_5x5_reduce <- inception_3b/5x5_reduce
I0715 00:34:51.547231 23204 net.cpp:386] inception_3b/relu_5x5_reduce -> inception_3b/5x5_reduce (in-place)
I0715 00:34:51.548746 23204 net.cpp:141] Setting up inception_3b/relu_5x5_reduce
I0715 00:34:51.548763 23204 net.cpp:148] Top shape: 10 32 28 28 (250880)
I0715 00:34:51.548768 23204 net.cpp:156] Memory required for data: 304066560
I0715 00:34:51.548774 23204 layer_factory.hpp:77] Creating layer inception_3b/5x5
I0715 00:34:51.548792 23204 net.cpp:91] Creating Layer inception_3b/5x5
I0715 00:34:51.548799 23204 net.cpp:425] inception_3b/5x5 <- inception_3b/5x5_reduce
I0715 00:34:51.548809 23204 net.cpp:399] inception_3b/5x5 -> inception_3b/5x5
I0715 00:34:51.553638 23200 net.cpp:141] Setting up inception_3b/5x5
I0715 00:34:51.553658 23200 net.cpp:148] Top shape: 10 96 28 28 (752640)
I0715 00:34:51.553663 23200 net.cpp:156] Memory required for data: 307077120
I0715 00:34:51.553673 23200 layer_factory.hpp:77] Creating layer inception_3b/relu_5x5
I0715 00:34:51.553686 23200 net.cpp:91] Creating Layer inception_3b/relu_5x5
I0715 00:34:51.553694 23200 net.cpp:425] inception_3b/relu_5x5 <- inception_3b/5x5
I0715 00:34:51.553701 23200 net.cpp:386] inception_3b/relu_5x5 -> inception_3b/5x5 (in-place)
I0715 00:34:51.554672 23204 net.cpp:141] Setting up inception_3b/5x5
I0715 00:34:51.554698 23204 net.cpp:148] Top shape: 10 96 28 28 (752640)
I0715 00:34:51.554705 23204 net.cpp:156] Memory required for data: 307077120
I0715 00:34:51.554715 23204 layer_factory.hpp:77] Creating layer inception_3b/relu_5x5
I0715 00:34:51.554724 23204 net.cpp:91] Creating Layer inception_3b/relu_5x5
I0715 00:34:51.554730 23204 net.cpp:425] inception_3b/relu_5x5 <- inception_3b/5x5
I0715 00:34:51.554741 23204 net.cpp:386] inception_3b/relu_5x5 -> inception_3b/5x5 (in-place)
I0715 00:34:51.554751 23200 net.cpp:141] Setting up inception_3b/relu_5x5
I0715 00:34:51.554766 23200 net.cpp:148] Top shape: 10 96 28 28 (752640)
I0715 00:34:51.554771 23200 net.cpp:156] Memory required for data: 310087680
I0715 00:34:51.554777 23200 layer_factory.hpp:77] Creating layer inception_3b/pool
I0715 00:34:51.554791 23200 net.cpp:91] Creating Layer inception_3b/pool
I0715 00:34:51.554797 23200 net.cpp:425] inception_3b/pool <- inception_3a/output_inception_3a/output_0_split_3
I0715 00:34:51.554806 23200 net.cpp:399] inception_3b/pool -> inception_3b/pool
I0715 00:34:51.555012 23200 net.cpp:141] Setting up inception_3b/pool
I0715 00:34:51.555024 23200 net.cpp:148] Top shape: 10 256 28 28 (2007040)
I0715 00:34:51.555029 23200 net.cpp:156] Memory required for data: 318115840
I0715 00:34:51.555035 23200 layer_factory.hpp:77] Creating layer inception_3b/pool_proj
I0715 00:34:51.555052 23200 net.cpp:91] Creating Layer inception_3b/pool_proj
I0715 00:34:51.555058 23200 net.cpp:425] inception_3b/pool_proj <- inception_3b/pool
I0715 00:34:51.555070 23200 net.cpp:399] inception_3b/pool_proj -> inception_3b/pool_proj
I0715 00:34:51.555336 23204 net.cpp:141] Setting up inception_3b/relu_5x5
I0715 00:34:51.555351 23204 net.cpp:148] Top shape: 10 96 28 28 (752640)
I0715 00:34:51.555356 23204 net.cpp:156] Memory required for data: 310087680
I0715 00:34:51.555362 23204 layer_factory.hpp:77] Creating layer inception_3b/pool
I0715 00:34:51.555371 23204 net.cpp:91] Creating Layer inception_3b/pool
I0715 00:34:51.555377 23204 net.cpp:425] inception_3b/pool <- inception_3a/output_inception_3a/output_0_split_3
I0715 00:34:51.555385 23204 net.cpp:399] inception_3b/pool -> inception_3b/pool
I0715 00:34:51.555464 23204 net.cpp:141] Setting up inception_3b/pool
I0715 00:34:51.555475 23204 net.cpp:148] Top shape: 10 256 28 28 (2007040)
I0715 00:34:51.555480 23204 net.cpp:156] Memory required for data: 318115840
I0715 00:34:51.555485 23204 layer_factory.hpp:77] Creating layer inception_3b/pool_proj
I0715 00:34:51.555500 23204 net.cpp:91] Creating Layer inception_3b/pool_proj
I0715 00:34:51.555506 23204 net.cpp:425] inception_3b/pool_proj <- inception_3b/pool
I0715 00:34:51.555518 23204 net.cpp:399] inception_3b/pool_proj -> inception_3b/pool_proj
I0715 00:34:51.560159 23200 net.cpp:141] Setting up inception_3b/pool_proj
I0715 00:34:51.560179 23200 net.cpp:148] Top shape: 10 64 28 28 (501760)
I0715 00:34:51.560185 23200 net.cpp:156] Memory required for data: 320122880
I0715 00:34:51.560195 23200 layer_factory.hpp:77] Creating layer inception_3b/relu_pool_proj
I0715 00:34:51.560204 23200 net.cpp:91] Creating Layer inception_3b/relu_pool_proj
I0715 00:34:51.560210 23200 net.cpp:425] inception_3b/relu_pool_proj <- inception_3b/pool_proj
I0715 00:34:51.560222 23200 net.cpp:386] inception_3b/relu_pool_proj -> inception_3b/pool_proj (in-place)
I0715 00:34:51.560531 23204 net.cpp:141] Setting up inception_3b/pool_proj
I0715 00:34:51.560547 23204 net.cpp:148] Top shape: 10 64 28 28 (501760)
I0715 00:34:51.560552 23204 net.cpp:156] Memory required for data: 320122880
I0715 00:34:51.560562 23204 layer_factory.hpp:77] Creating layer inception_3b/relu_pool_proj
I0715 00:34:51.560575 23204 net.cpp:91] Creating Layer inception_3b/relu_pool_proj
I0715 00:34:51.560581 23204 net.cpp:425] inception_3b/relu_pool_proj <- inception_3b/pool_proj
I0715 00:34:51.560590 23204 net.cpp:386] inception_3b/relu_pool_proj -> inception_3b/pool_proj (in-place)
I0715 00:34:51.561266 23200 net.cpp:141] Setting up inception_3b/relu_pool_proj
I0715 00:34:51.561285 23200 net.cpp:148] Top shape: 10 64 28 28 (501760)
I0715 00:34:51.561290 23200 net.cpp:156] Memory required for data: 322129920
I0715 00:34:51.561295 23200 layer_factory.hpp:77] Creating layer inception_3b/output
I0715 00:34:51.561305 23200 net.cpp:91] Creating Layer inception_3b/output
I0715 00:34:51.561311 23200 net.cpp:425] inception_3b/output <- inception_3b/1x1
I0715 00:34:51.561317 23200 net.cpp:425] inception_3b/output <- inception_3b/3x3
I0715 00:34:51.561323 23200 net.cpp:425] inception_3b/output <- inception_3b/5x5
I0715 00:34:51.561329 23200 net.cpp:425] inception_3b/output <- inception_3b/pool_proj
I0715 00:34:51.561336 23200 net.cpp:399] inception_3b/output -> inception_3b/output
I0715 00:34:51.561414 23200 net.cpp:141] Setting up inception_3b/output
I0715 00:34:51.561425 23200 net.cpp:148] Top shape: 10 480 28 28 (3763200)
I0715 00:34:51.561430 23200 net.cpp:156] Memory required for data: 337182720
I0715 00:34:51.561435 23200 layer_factory.hpp:77] Creating layer pool3/3x3_s2
I0715 00:34:51.561446 23200 net.cpp:91] Creating Layer pool3/3x3_s2
I0715 00:34:51.561452 23200 net.cpp:425] pool3/3x3_s2 <- inception_3b/output
I0715 00:34:51.561460 23200 net.cpp:399] pool3/3x3_s2 -> pool3/3x3_s2
I0715 00:34:51.561475 23204 net.cpp:141] Setting up inception_3b/relu_pool_proj
I0715 00:34:51.561491 23204 net.cpp:148] Top shape: 10 64 28 28 (501760)
I0715 00:34:51.561496 23204 net.cpp:156] Memory required for data: 322129920
I0715 00:34:51.561501 23204 layer_factory.hpp:77] Creating layer inception_3b/output
I0715 00:34:51.561513 23204 net.cpp:91] Creating Layer inception_3b/output
I0715 00:34:51.561519 23204 net.cpp:425] inception_3b/output <- inception_3b/1x1
I0715 00:34:51.561527 23204 net.cpp:425] inception_3b/output <- inception_3b/3x3
I0715 00:34:51.561532 23204 net.cpp:425] inception_3b/output <- inception_3b/5x5
I0715 00:34:51.561537 23200 net.cpp:141] Setting up pool3/3x3_s2
I0715 00:34:51.561538 23204 net.cpp:425] inception_3b/output <- inception_3b/pool_proj
I0715 00:34:51.561552 23200 net.cpp:148] Top shape: 10 480 14 14 (940800)
I0715 00:34:51.561558 23200 net.cpp:156] Memory required for data: 340945920
I0715 00:34:51.561558 23204 net.cpp:399] inception_3b/output -> inception_3b/output
I0715 00:34:51.561565 23200 layer_factory.hpp:77] Creating layer pool3/3x3_s2_pool3/3x3_s2_0_split
I0715 00:34:51.561574 23200 net.cpp:91] Creating Layer pool3/3x3_s2_pool3/3x3_s2_0_split
I0715 00:34:51.561579 23200 net.cpp:425] pool3/3x3_s2_pool3/3x3_s2_0_split <- pool3/3x3_s2
I0715 00:34:51.561590 23200 net.cpp:399] pool3/3x3_s2_pool3/3x3_s2_0_split -> pool3/3x3_s2_pool3/3x3_s2_0_split_0
I0715 00:34:51.561600 23200 net.cpp:399] pool3/3x3_s2_pool3/3x3_s2_0_split -> pool3/3x3_s2_pool3/3x3_s2_0_split_1
I0715 00:34:51.561609 23200 net.cpp:399] pool3/3x3_s2_pool3/3x3_s2_0_split -> pool3/3x3_s2_pool3/3x3_s2_0_split_2
I0715 00:34:51.561615 23204 net.cpp:141] Setting up inception_3b/output
I0715 00:34:51.561617 23200 net.cpp:399] pool3/3x3_s2_pool3/3x3_s2_0_split -> pool3/3x3_s2_pool3/3x3_s2_0_split_3
I0715 00:34:51.561626 23204 net.cpp:148] Top shape: 10 480 28 28 (3763200)
I0715 00:34:51.561631 23204 net.cpp:156] Memory required for data: 337182720
I0715 00:34:51.561636 23204 layer_factory.hpp:77] Creating layer pool3/3x3_s2
I0715 00:34:51.561648 23204 net.cpp:91] Creating Layer pool3/3x3_s2
I0715 00:34:51.561655 23204 net.cpp:425] pool3/3x3_s2 <- inception_3b/output
I0715 00:34:51.561661 23204 net.cpp:399] pool3/3x3_s2 -> pool3/3x3_s2
I0715 00:34:51.561731 23200 net.cpp:141] Setting up pool3/3x3_s2_pool3/3x3_s2_0_split
I0715 00:34:51.561741 23200 net.cpp:148] Top shape: 10 480 14 14 (940800)
I0715 00:34:51.561748 23200 net.cpp:148] Top shape: 10 480 14 14 (940800)
I0715 00:34:51.561753 23200 net.cpp:148] Top shape: 10 480 14 14 (940800)
I0715 00:34:51.561759 23200 net.cpp:148] Top shape: 10 480 14 14 (940800)
I0715 00:34:51.561764 23200 net.cpp:156] Memory required for data: 355998720
I0715 00:34:51.561769 23200 layer_factory.hpp:77] Creating layer inception_4a/1x1
I0715 00:34:51.561787 23200 net.cpp:91] Creating Layer inception_4a/1x1
I0715 00:34:51.561787 23204 net.cpp:141] Setting up pool3/3x3_s2
I0715 00:34:51.561794 23200 net.cpp:425] inception_4a/1x1 <- pool3/3x3_s2_pool3/3x3_s2_0_split_0
I0715 00:34:51.561803 23204 net.cpp:148] Top shape: 10 480 14 14 (940800)
I0715 00:34:51.561807 23200 net.cpp:399] inception_4a/1x1 -> inception_4a/1x1
I0715 00:34:51.561808 23204 net.cpp:156] Memory required for data: 340945920
I0715 00:34:51.561820 23204 layer_factory.hpp:77] Creating layer pool3/3x3_s2_pool3/3x3_s2_0_split
I0715 00:34:51.561830 23204 net.cpp:91] Creating Layer pool3/3x3_s2_pool3/3x3_s2_0_split
I0715 00:34:51.561836 23204 net.cpp:425] pool3/3x3_s2_pool3/3x3_s2_0_split <- pool3/3x3_s2
I0715 00:34:51.561842 23204 net.cpp:399] pool3/3x3_s2_pool3/3x3_s2_0_split -> pool3/3x3_s2_pool3/3x3_s2_0_split_0
I0715 00:34:51.561851 23204 net.cpp:399] pool3/3x3_s2_pool3/3x3_s2_0_split -> pool3/3x3_s2_pool3/3x3_s2_0_split_1
I0715 00:34:51.561859 23204 net.cpp:399] pool3/3x3_s2_pool3/3x3_s2_0_split -> pool3/3x3_s2_pool3/3x3_s2_0_split_2
I0715 00:34:51.561871 23204 net.cpp:399] pool3/3x3_s2_pool3/3x3_s2_0_split -> pool3/3x3_s2_pool3/3x3_s2_0_split_3
I0715 00:34:51.562177 23204 net.cpp:141] Setting up pool3/3x3_s2_pool3/3x3_s2_0_split
I0715 00:34:51.562191 23204 net.cpp:148] Top shape: 10 480 14 14 (940800)
I0715 00:34:51.562196 23204 net.cpp:148] Top shape: 10 480 14 14 (940800)
I0715 00:34:51.562202 23204 net.cpp:148] Top shape: 10 480 14 14 (940800)
I0715 00:34:51.562208 23204 net.cpp:148] Top shape: 10 480 14 14 (940800)
I0715 00:34:51.562212 23204 net.cpp:156] Memory required for data: 355998720
I0715 00:34:51.562217 23204 layer_factory.hpp:77] Creating layer inception_4a/1x1
I0715 00:34:51.562232 23204 net.cpp:91] Creating Layer inception_4a/1x1
I0715 00:34:51.562239 23204 net.cpp:425] inception_4a/1x1 <- pool3/3x3_s2_pool3/3x3_s2_0_split_0
I0715 00:34:51.562252 23204 net.cpp:399] inception_4a/1x1 -> inception_4a/1x1
I0715 00:34:51.567701 23200 net.cpp:141] Setting up inception_4a/1x1
I0715 00:34:51.567726 23200 net.cpp:148] Top shape: 10 192 14 14 (376320)
I0715 00:34:51.567733 23200 net.cpp:156] Memory required for data: 357504000
I0715 00:34:51.567744 23200 layer_factory.hpp:77] Creating layer inception_4a/relu_1x1
I0715 00:34:51.567754 23200 net.cpp:91] Creating Layer inception_4a/relu_1x1
I0715 00:34:51.567759 23200 net.cpp:425] inception_4a/relu_1x1 <- inception_4a/1x1
I0715 00:34:51.567767 23200 net.cpp:386] inception_4a/relu_1x1 -> inception_4a/1x1 (in-place)
I0715 00:34:51.568912 23200 net.cpp:141] Setting up inception_4a/relu_1x1
I0715 00:34:51.568929 23200 net.cpp:148] Top shape: 10 192 14 14 (376320)
I0715 00:34:51.568934 23200 net.cpp:156] Memory required for data: 359009280
I0715 00:34:51.568940 23200 layer_factory.hpp:77] Creating layer inception_4a/3x3_reduce
I0715 00:34:51.568958 23200 net.cpp:91] Creating Layer inception_4a/3x3_reduce
I0715 00:34:51.568965 23200 net.cpp:425] inception_4a/3x3_reduce <- pool3/3x3_s2_pool3/3x3_s2_0_split_1
I0715 00:34:51.568976 23200 net.cpp:399] inception_4a/3x3_reduce -> inception_4a/3x3_reduce
I0715 00:34:51.569392 23204 net.cpp:141] Setting up inception_4a/1x1
I0715 00:34:51.569411 23204 net.cpp:148] Top shape: 10 192 14 14 (376320)
I0715 00:34:51.569417 23204 net.cpp:156] Memory required for data: 357504000
I0715 00:34:51.569427 23204 layer_factory.hpp:77] Creating layer inception_4a/relu_1x1
I0715 00:34:51.569437 23204 net.cpp:91] Creating Layer inception_4a/relu_1x1
I0715 00:34:51.569444 23204 net.cpp:425] inception_4a/relu_1x1 <- inception_4a/1x1
I0715 00:34:51.569453 23204 net.cpp:386] inception_4a/relu_1x1 -> inception_4a/1x1 (in-place)
I0715 00:34:51.569721 23204 net.cpp:141] Setting up inception_4a/relu_1x1
I0715 00:34:51.569735 23204 net.cpp:148] Top shape: 10 192 14 14 (376320)
I0715 00:34:51.569739 23204 net.cpp:156] Memory required for data: 359009280
I0715 00:34:51.569744 23204 layer_factory.hpp:77] Creating layer inception_4a/3x3_reduce
I0715 00:34:51.569761 23204 net.cpp:91] Creating Layer inception_4a/3x3_reduce
I0715 00:34:51.569767 23204 net.cpp:425] inception_4a/3x3_reduce <- pool3/3x3_s2_pool3/3x3_s2_0_split_1
I0715 00:34:51.569780 23204 net.cpp:399] inception_4a/3x3_reduce -> inception_4a/3x3_reduce
I0715 00:34:51.574388 23200 net.cpp:141] Setting up inception_4a/3x3_reduce
I0715 00:34:51.574406 23200 net.cpp:148] Top shape: 10 96 14 14 (188160)
I0715 00:34:51.574412 23200 net.cpp:156] Memory required for data: 359761920
I0715 00:34:51.574432 23200 layer_factory.hpp:77] Creating layer inception_4a/relu_3x3_reduce
I0715 00:34:51.574442 23200 net.cpp:91] Creating Layer inception_4a/relu_3x3_reduce
I0715 00:34:51.574448 23200 net.cpp:425] inception_4a/relu_3x3_reduce <- inception_4a/3x3_reduce
I0715 00:34:51.574460 23200 net.cpp:386] inception_4a/relu_3x3_reduce -> inception_4a/3x3_reduce (in-place)
I0715 00:34:51.575304 23204 net.cpp:141] Setting up inception_4a/3x3_reduce
I0715 00:34:51.575322 23204 net.cpp:148] Top shape: 10 96 14 14 (188160)
I0715 00:34:51.575328 23204 net.cpp:156] Memory required for data: 359761920
I0715 00:34:51.575348 23204 layer_factory.hpp:77] Creating layer inception_4a/relu_3x3_reduce
I0715 00:34:51.575358 23204 net.cpp:91] Creating Layer inception_4a/relu_3x3_reduce
I0715 00:34:51.575364 23204 net.cpp:425] inception_4a/relu_3x3_reduce <- inception_4a/3x3_reduce
I0715 00:34:51.575378 23204 net.cpp:386] inception_4a/relu_3x3_reduce -> inception_4a/3x3_reduce (in-place)
I0715 00:34:51.575644 23200 net.cpp:141] Setting up inception_4a/relu_3x3_reduce
I0715 00:34:51.575659 23200 net.cpp:148] Top shape: 10 96 14 14 (188160)
I0715 00:34:51.575664 23200 net.cpp:156] Memory required for data: 360514560
I0715 00:34:51.575670 23200 layer_factory.hpp:77] Creating layer inception_4a/3x3
I0715 00:34:51.575687 23200 net.cpp:91] Creating Layer inception_4a/3x3
I0715 00:34:51.575697 23200 net.cpp:425] inception_4a/3x3 <- inception_4a/3x3_reduce
I0715 00:34:51.575707 23200 net.cpp:399] inception_4a/3x3 -> inception_4a/3x3
I0715 00:34:51.575940 23204 net.cpp:141] Setting up inception_4a/relu_3x3_reduce
I0715 00:34:51.575955 23204 net.cpp:148] Top shape: 10 96 14 14 (188160)
I0715 00:34:51.575961 23204 net.cpp:156] Memory required for data: 360514560
I0715 00:34:51.575966 23204 layer_factory.hpp:77] Creating layer inception_4a/3x3
I0715 00:34:51.575980 23204 net.cpp:91] Creating Layer inception_4a/3x3
I0715 00:34:51.575986 23204 net.cpp:425] inception_4a/3x3 <- inception_4a/3x3_reduce
I0715 00:34:51.575999 23204 net.cpp:399] inception_4a/3x3 -> inception_4a/3x3
I0715 00:34:51.581792 23200 net.cpp:141] Setting up inception_4a/3x3
I0715 00:34:51.581814 23200 net.cpp:148] Top shape: 10 208 14 14 (407680)
I0715 00:34:51.581820 23200 net.cpp:156] Memory required for data: 362145280
I0715 00:34:51.581830 23200 layer_factory.hpp:77] Creating layer inception_4a/relu_3x3
I0715 00:34:51.581840 23200 net.cpp:91] Creating Layer inception_4a/relu_3x3
I0715 00:34:51.581845 23200 net.cpp:425] inception_4a/relu_3x3 <- inception_4a/3x3
I0715 00:34:51.581857 23200 net.cpp:386] inception_4a/relu_3x3 -> inception_4a/3x3 (in-place)
I0715 00:34:51.582967 23200 net.cpp:141] Setting up inception_4a/relu_3x3
I0715 00:34:51.582983 23200 net.cpp:148] Top shape: 10 208 14 14 (407680)
I0715 00:34:51.582989 23200 net.cpp:156] Memory required for data: 363776000
I0715 00:34:51.582994 23200 layer_factory.hpp:77] Creating layer inception_4a/5x5_reduce
I0715 00:34:51.583012 23200 net.cpp:91] Creating Layer inception_4a/5x5_reduce
I0715 00:34:51.583022 23200 net.cpp:425] inception_4a/5x5_reduce <- pool3/3x3_s2_pool3/3x3_s2_0_split_2
I0715 00:34:51.583032 23200 net.cpp:399] inception_4a/5x5_reduce -> inception_4a/5x5_reduce
I0715 00:34:51.584692 23204 net.cpp:141] Setting up inception_4a/3x3
I0715 00:34:51.584710 23204 net.cpp:148] Top shape: 10 208 14 14 (407680)
I0715 00:34:51.584717 23204 net.cpp:156] Memory required for data: 362145280
I0715 00:34:51.584727 23204 layer_factory.hpp:77] Creating layer inception_4a/relu_3x3
I0715 00:34:51.584735 23204 net.cpp:91] Creating Layer inception_4a/relu_3x3
I0715 00:34:51.584743 23204 net.cpp:425] inception_4a/relu_3x3 <- inception_4a/3x3
I0715 00:34:51.584753 23204 net.cpp:386] inception_4a/relu_3x3 -> inception_4a/3x3 (in-place)
I0715 00:34:51.586607 23204 net.cpp:141] Setting up inception_4a/relu_3x3
I0715 00:34:51.586627 23204 net.cpp:148] Top shape: 10 208 14 14 (407680)
I0715 00:34:51.586632 23204 net.cpp:156] Memory required for data: 363776000
I0715 00:34:51.586637 23204 layer_factory.hpp:77] Creating layer inception_4a/5x5_reduce
I0715 00:34:51.586655 23204 net.cpp:91] Creating Layer inception_4a/5x5_reduce
I0715 00:34:51.586663 23204 net.cpp:425] inception_4a/5x5_reduce <- pool3/3x3_s2_pool3/3x3_s2_0_split_2
I0715 00:34:51.586673 23204 net.cpp:399] inception_4a/5x5_reduce -> inception_4a/5x5_reduce
I0715 00:34:51.587280 23200 net.cpp:141] Setting up inception_4a/5x5_reduce
I0715 00:34:51.587298 23200 net.cpp:148] Top shape: 10 16 14 14 (31360)
I0715 00:34:51.587304 23200 net.cpp:156] Memory required for data: 363901440
I0715 00:34:51.587314 23200 layer_factory.hpp:77] Creating layer inception_4a/relu_5x5_reduce
I0715 00:34:51.587327 23200 net.cpp:91] Creating Layer inception_4a/relu_5x5_reduce
I0715 00:34:51.587333 23200 net.cpp:425] inception_4a/relu_5x5_reduce <- inception_4a/5x5_reduce
I0715 00:34:51.587342 23200 net.cpp:386] inception_4a/relu_5x5_reduce -> inception_4a/5x5_reduce (in-place)
I0715 00:34:51.588465 23200 net.cpp:141] Setting up inception_4a/relu_5x5_reduce
I0715 00:34:51.588482 23200 net.cpp:148] Top shape: 10 16 14 14 (31360)
I0715 00:34:51.588488 23200 net.cpp:156] Memory required for data: 364026880
I0715 00:34:51.588493 23200 layer_factory.hpp:77] Creating layer inception_4a/5x5
I0715 00:34:51.588511 23200 net.cpp:91] Creating Layer inception_4a/5x5
I0715 00:34:51.588518 23200 net.cpp:425] inception_4a/5x5 <- inception_4a/5x5_reduce
I0715 00:34:51.588531 23200 net.cpp:399] inception_4a/5x5 -> inception_4a/5x5
I0715 00:34:51.592396 23204 net.cpp:141] Setting up inception_4a/5x5_reduce
I0715 00:34:51.592414 23204 net.cpp:148] Top shape: 10 16 14 14 (31360)
I0715 00:34:51.592420 23204 net.cpp:156] Memory required for data: 363901440
I0715 00:34:51.592430 23204 layer_factory.hpp:77] Creating layer inception_4a/relu_5x5_reduce
I0715 00:34:51.592442 23204 net.cpp:91] Creating Layer inception_4a/relu_5x5_reduce
I0715 00:34:51.592448 23204 net.cpp:425] inception_4a/relu_5x5_reduce <- inception_4a/5x5_reduce
I0715 00:34:51.592456 23204 net.cpp:386] inception_4a/relu_5x5_reduce -> inception_4a/5x5_reduce (in-place)
I0715 00:34:51.594282 23204 net.cpp:141] Setting up inception_4a/relu_5x5_reduce
I0715 00:34:51.594302 23204 net.cpp:148] Top shape: 10 16 14 14 (31360)
I0715 00:34:51.594308 23204 net.cpp:156] Memory required for data: 364026880
I0715 00:34:51.594313 23204 layer_factory.hpp:77] Creating layer inception_4a/5x5
I0715 00:34:51.594331 23204 net.cpp:91] Creating Layer inception_4a/5x5
I0715 00:34:51.594338 23204 net.cpp:425] inception_4a/5x5 <- inception_4a/5x5_reduce
I0715 00:34:51.594348 23204 net.cpp:399] inception_4a/5x5 -> inception_4a/5x5
I0715 00:34:51.594467 23200 net.cpp:141] Setting up inception_4a/5x5
I0715 00:34:51.594485 23200 net.cpp:148] Top shape: 10 48 14 14 (94080)
I0715 00:34:51.594490 23200 net.cpp:156] Memory required for data: 364403200
I0715 00:34:51.594499 23200 layer_factory.hpp:77] Creating layer inception_4a/relu_5x5
I0715 00:34:51.594512 23200 net.cpp:91] Creating Layer inception_4a/relu_5x5
I0715 00:34:51.594518 23200 net.cpp:425] inception_4a/relu_5x5 <- inception_4a/5x5
I0715 00:34:51.594527 23200 net.cpp:386] inception_4a/relu_5x5 -> inception_4a/5x5 (in-place)
I0715 00:34:51.595556 23200 net.cpp:141] Setting up inception_4a/relu_5x5
I0715 00:34:51.595576 23200 net.cpp:148] Top shape: 10 48 14 14 (94080)
I0715 00:34:51.595580 23200 net.cpp:156] Memory required for data: 364779520
I0715 00:34:51.595588 23200 layer_factory.hpp:77] Creating layer inception_4a/pool
I0715 00:34:51.595602 23200 net.cpp:91] Creating Layer inception_4a/pool
I0715 00:34:51.595609 23200 net.cpp:425] inception_4a/pool <- pool3/3x3_s2_pool3/3x3_s2_0_split_3
I0715 00:34:51.595618 23200 net.cpp:399] inception_4a/pool -> inception_4a/pool
I0715 00:34:51.595765 23200 net.cpp:141] Setting up inception_4a/pool
I0715 00:34:51.595777 23200 net.cpp:148] Top shape: 10 480 14 14 (940800)
I0715 00:34:51.595782 23200 net.cpp:156] Memory required for data: 368542720
I0715 00:34:51.595788 23200 layer_factory.hpp:77] Creating layer inception_4a/pool_proj
I0715 00:34:51.595805 23200 net.cpp:91] Creating Layer inception_4a/pool_proj
I0715 00:34:51.595813 23200 net.cpp:425] inception_4a/pool_proj <- inception_4a/pool
I0715 00:34:51.595824 23200 net.cpp:399] inception_4a/pool_proj -> inception_4a/pool_proj
I0715 00:34:51.599509 23204 net.cpp:141] Setting up inception_4a/5x5
I0715 00:34:51.599527 23204 net.cpp:148] Top shape: 10 48 14 14 (94080)
I0715 00:34:51.599534 23204 net.cpp:156] Memory required for data: 364403200
I0715 00:34:51.599542 23204 layer_factory.hpp:77] Creating layer inception_4a/relu_5x5
I0715 00:34:51.599555 23204 net.cpp:91] Creating Layer inception_4a/relu_5x5
I0715 00:34:51.599562 23204 net.cpp:425] inception_4a/relu_5x5 <- inception_4a/5x5
I0715 00:34:51.599570 23204 net.cpp:386] inception_4a/relu_5x5 -> inception_4a/5x5 (in-place)
I0715 00:34:51.600920 23204 net.cpp:141] Setting up inception_4a/relu_5x5
I0715 00:34:51.600920 23200 net.cpp:141] Setting up inception_4a/pool_proj
I0715 00:34:51.600939 23204 net.cpp:148] Top shape: 10 48 14 14 (94080)
I0715 00:34:51.600946 23200 net.cpp:148] Top shape: 10 64 14 14 (125440)
I0715 00:34:51.600949 23204 net.cpp:156] Memory required for data: 364779520
I0715 00:34:51.600955 23200 net.cpp:156] Memory required for data: 369044480
I0715 00:34:51.600960 23204 layer_factory.hpp:77] Creating layer inception_4a/pool
I0715 00:34:51.600966 23200 layer_factory.hpp:77] Creating layer inception_4a/relu_pool_proj
I0715 00:34:51.600970 23204 net.cpp:91] Creating Layer inception_4a/pool
I0715 00:34:51.600977 23204 net.cpp:425] inception_4a/pool <- pool3/3x3_s2_pool3/3x3_s2_0_split_3
I0715 00:34:51.600980 23200 net.cpp:91] Creating Layer inception_4a/relu_pool_proj
I0715 00:34:51.600986 23204 net.cpp:399] inception_4a/pool -> inception_4a/pool
I0715 00:34:51.600987 23200 net.cpp:425] inception_4a/relu_pool_proj <- inception_4a/pool_proj
I0715 00:34:51.600996 23200 net.cpp:386] inception_4a/relu_pool_proj -> inception_4a/pool_proj (in-place)
I0715 00:34:51.601272 23204 net.cpp:141] Setting up inception_4a/pool
I0715 00:34:51.601285 23204 net.cpp:148] Top shape: 10 480 14 14 (940800)
I0715 00:34:51.601289 23204 net.cpp:156] Memory required for data: 368542720
I0715 00:34:51.601295 23204 layer_factory.hpp:77] Creating layer inception_4a/pool_proj
I0715 00:34:51.601311 23204 net.cpp:91] Creating Layer inception_4a/pool_proj
I0715 00:34:51.601317 23204 net.cpp:425] inception_4a/pool_proj <- inception_4a/pool
I0715 00:34:51.601330 23204 net.cpp:399] inception_4a/pool_proj -> inception_4a/pool_proj
I0715 00:34:51.601634 23200 net.cpp:141] Setting up inception_4a/relu_pool_proj
I0715 00:34:51.601647 23200 net.cpp:148] Top shape: 10 64 14 14 (125440)
I0715 00:34:51.601652 23200 net.cpp:156] Memory required for data: 369546240
I0715 00:34:51.601658 23200 layer_factory.hpp:77] Creating layer inception_4a/output
I0715 00:34:51.601667 23200 net.cpp:91] Creating Layer inception_4a/output
I0715 00:34:51.601673 23200 net.cpp:425] inception_4a/output <- inception_4a/1x1
I0715 00:34:51.601680 23200 net.cpp:425] inception_4a/output <- inception_4a/3x3
I0715 00:34:51.601686 23200 net.cpp:425] inception_4a/output <- inception_4a/5x5
I0715 00:34:51.601691 23200 net.cpp:425] inception_4a/output <- inception_4a/pool_proj
I0715 00:34:51.601702 23200 net.cpp:399] inception_4a/output -> inception_4a/output
I0715 00:34:51.601757 23200 net.cpp:141] Setting up inception_4a/output
I0715 00:34:51.601770 23200 net.cpp:148] Top shape: 10 512 14 14 (1003520)
I0715 00:34:51.601775 23200 net.cpp:156] Memory required for data: 373560320
I0715 00:34:51.601780 23200 layer_factory.hpp:77] Creating layer inception_4a/output_inception_4a/output_0_split
I0715 00:34:51.601789 23200 net.cpp:91] Creating Layer inception_4a/output_inception_4a/output_0_split
I0715 00:34:51.601795 23200 net.cpp:425] inception_4a/output_inception_4a/output_0_split <- inception_4a/output
I0715 00:34:51.601802 23200 net.cpp:399] inception_4a/output_inception_4a/output_0_split -> inception_4a/output_inception_4a/output_0_split_0
I0715 00:34:51.601812 23200 net.cpp:399] inception_4a/output_inception_4a/output_0_split -> inception_4a/output_inception_4a/output_0_split_1
I0715 00:34:51.601825 23200 net.cpp:399] inception_4a/output_inception_4a/output_0_split -> inception_4a/output_inception_4a/output_0_split_2
I0715 00:34:51.601835 23200 net.cpp:399] inception_4a/output_inception_4a/output_0_split -> inception_4a/output_inception_4a/output_0_split_3
I0715 00:34:51.602627 23200 net.cpp:141] Setting up inception_4a/output_inception_4a/output_0_split
I0715 00:34:51.602640 23200 net.cpp:148] Top shape: 10 512 14 14 (1003520)
I0715 00:34:51.602646 23200 net.cpp:148] Top shape: 10 512 14 14 (1003520)
I0715 00:34:51.602653 23200 net.cpp:148] Top shape: 10 512 14 14 (1003520)
I0715 00:34:51.602658 23200 net.cpp:148] Top shape: 10 512 14 14 (1003520)
I0715 00:34:51.602661 23200 net.cpp:156] Memory required for data: 389616640
I0715 00:34:51.602666 23200 layer_factory.hpp:77] Creating layer inception_4b/1x1
I0715 00:34:51.602684 23200 net.cpp:91] Creating Layer inception_4b/1x1
I0715 00:34:51.602710 23200 net.cpp:425] inception_4b/1x1 <- inception_4a/output_inception_4a/output_0_split_0
I0715 00:34:51.602726 23200 net.cpp:399] inception_4b/1x1 -> inception_4b/1x1
I0715 00:34:51.605985 23204 net.cpp:141] Setting up inception_4a/pool_proj
I0715 00:34:51.606010 23204 net.cpp:148] Top shape: 10 64 14 14 (125440)
I0715 00:34:51.606017 23204 net.cpp:156] Memory required for data: 369044480
I0715 00:34:51.606029 23204 layer_factory.hpp:77] Creating layer inception_4a/relu_pool_proj
I0715 00:34:51.606037 23204 net.cpp:91] Creating Layer inception_4a/relu_pool_proj
I0715 00:34:51.606045 23204 net.cpp:425] inception_4a/relu_pool_proj <- inception_4a/pool_proj
I0715 00:34:51.606053 23204 net.cpp:386] inception_4a/relu_pool_proj -> inception_4a/pool_proj (in-place)
I0715 00:34:51.607836 23204 net.cpp:141] Setting up inception_4a/relu_pool_proj
I0715 00:34:51.607854 23204 net.cpp:148] Top shape: 10 64 14 14 (125440)
I0715 00:34:51.607859 23204 net.cpp:156] Memory required for data: 369546240
I0715 00:34:51.607866 23204 layer_factory.hpp:77] Creating layer inception_4a/output
I0715 00:34:51.607878 23204 net.cpp:91] Creating Layer inception_4a/output
I0715 00:34:51.607885 23204 net.cpp:425] inception_4a/output <- inception_4a/1x1
I0715 00:34:51.607892 23204 net.cpp:425] inception_4a/output <- inception_4a/3x3
I0715 00:34:51.607898 23204 net.cpp:425] inception_4a/output <- inception_4a/5x5
I0715 00:34:51.607904 23204 net.cpp:425] inception_4a/output <- inception_4a/pool_proj
I0715 00:34:51.607913 23204 net.cpp:399] inception_4a/output -> inception_4a/output
I0715 00:34:51.607978 23204 net.cpp:141] Setting up inception_4a/output
I0715 00:34:51.607990 23204 net.cpp:148] Top shape: 10 512 14 14 (1003520)
I0715 00:34:51.607995 23204 net.cpp:156] Memory required for data: 373560320
I0715 00:34:51.608000 23204 layer_factory.hpp:77] Creating layer inception_4a/output_inception_4a/output_0_split
I0715 00:34:51.608012 23204 net.cpp:91] Creating Layer inception_4a/output_inception_4a/output_0_split
I0715 00:34:51.608017 23204 net.cpp:425] inception_4a/output_inception_4a/output_0_split <- inception_4a/output
I0715 00:34:51.608027 23204 net.cpp:399] inception_4a/output_inception_4a/output_0_split -> inception_4a/output_inception_4a/output_0_split_0
I0715 00:34:51.608037 23204 net.cpp:399] inception_4a/output_inception_4a/output_0_split -> inception_4a/output_inception_4a/output_0_split_1
I0715 00:34:51.608047 23204 net.cpp:399] inception_4a/output_inception_4a/output_0_split -> inception_4a/output_inception_4a/output_0_split_2
I0715 00:34:51.608055 23204 net.cpp:399] inception_4a/output_inception_4a/output_0_split -> inception_4a/output_inception_4a/output_0_split_3
I0715 00:34:51.608184 23204 net.cpp:141] Setting up inception_4a/output_inception_4a/output_0_split
I0715 00:34:51.608196 23204 net.cpp:148] Top shape: 10 512 14 14 (1003520)
I0715 00:34:51.608204 23204 net.cpp:148] Top shape: 10 512 14 14 (1003520)
I0715 00:34:51.608211 23204 net.cpp:148] Top shape: 10 512 14 14 (1003520)
I0715 00:34:51.608217 23204 net.cpp:148] Top shape: 10 512 14 14 (1003520)
I0715 00:34:51.608220 23204 net.cpp:156] Memory required for data: 389616640
I0715 00:34:51.608219 23200 net.cpp:141] Setting up inception_4b/1x1
I0715 00:34:51.608225 23204 layer_factory.hpp:77] Creating layer inception_4b/1x1
I0715 00:34:51.608240 23200 net.cpp:148] Top shape: 10 160 14 14 (313600)
I0715 00:34:51.608247 23200 net.cpp:156] Memory required for data: 390871040
I0715 00:34:51.608249 23204 net.cpp:91] Creating Layer inception_4b/1x1
I0715 00:34:51.608256 23204 net.cpp:425] inception_4b/1x1 <- inception_4a/output_inception_4a/output_0_split_0
I0715 00:34:51.608256 23200 layer_factory.hpp:77] Creating layer inception_4b/relu_1x1
I0715 00:34:51.608268 23204 net.cpp:399] inception_4b/1x1 -> inception_4b/1x1
I0715 00:34:51.608269 23200 net.cpp:91] Creating Layer inception_4b/relu_1x1
I0715 00:34:51.608278 23200 net.cpp:425] inception_4b/relu_1x1 <- inception_4b/1x1
I0715 00:34:51.608286 23200 net.cpp:386] inception_4b/relu_1x1 -> inception_4b/1x1 (in-place)
I0715 00:34:51.608844 23200 net.cpp:141] Setting up inception_4b/relu_1x1
I0715 00:34:51.608865 23200 net.cpp:148] Top shape: 10 160 14 14 (313600)
I0715 00:34:51.608875 23200 net.cpp:156] Memory required for data: 392125440
I0715 00:34:51.608886 23200 layer_factory.hpp:77] Creating layer inception_4b/3x3_reduce
I0715 00:34:51.608916 23200 net.cpp:91] Creating Layer inception_4b/3x3_reduce
I0715 00:34:51.608924 23200 net.cpp:425] inception_4b/3x3_reduce <- inception_4a/output_inception_4a/output_0_split_1
I0715 00:34:51.608935 23200 net.cpp:399] inception_4b/3x3_reduce -> inception_4b/3x3_reduce
I0715 00:34:51.616276 23200 net.cpp:141] Setting up inception_4b/3x3_reduce
I0715 00:34:51.616314 23200 net.cpp:148] Top shape: 10 112 14 14 (219520)
I0715 00:34:51.616320 23200 net.cpp:156] Memory required for data: 393003520
I0715 00:34:51.616334 23200 layer_factory.hpp:77] Creating layer inception_4b/relu_3x3_reduce
I0715 00:34:51.616346 23200 net.cpp:91] Creating Layer inception_4b/relu_3x3_reduce
I0715 00:34:51.616354 23200 net.cpp:425] inception_4b/relu_3x3_reduce <- inception_4b/3x3_reduce
I0715 00:34:51.616364 23200 net.cpp:386] inception_4b/relu_3x3_reduce -> inception_4b/3x3_reduce (in-place)
I0715 00:34:51.617020 23204 net.cpp:141] Setting up inception_4b/1x1
I0715 00:34:51.617027 23200 net.cpp:141] Setting up inception_4b/relu_3x3_reduce
I0715 00:34:51.617053 23200 net.cpp:148] Top shape: 10 112 14 14 (219520)
I0715 00:34:51.617050 23204 net.cpp:148] Top shape: 10 160 14 14 (313600)
I0715 00:34:51.617058 23200 net.cpp:156] Memory required for data: 393881600
I0715 00:34:51.617069 23204 net.cpp:156] Memory required for data: 390871040
I0715 00:34:51.617070 23200 layer_factory.hpp:77] Creating layer inception_4b/3x3
I0715 00:34:51.617090 23204 layer_factory.hpp:77] Creating layer inception_4b/relu_1x1
I0715 00:34:51.617097 23200 net.cpp:91] Creating Layer inception_4b/3x3
I0715 00:34:51.617105 23200 net.cpp:425] inception_4b/3x3 <- inception_4b/3x3_reduce
I0715 00:34:51.617106 23204 net.cpp:91] Creating Layer inception_4b/relu_1x1
I0715 00:34:51.617120 23200 net.cpp:399] inception_4b/3x3 -> inception_4b/3x3
I0715 00:34:51.617118 23204 net.cpp:425] inception_4b/relu_1x1 <- inception_4b/1x1
I0715 00:34:51.617141 23204 net.cpp:386] inception_4b/relu_1x1 -> inception_4b/1x1 (in-place)
I0715 00:34:51.620015 23204 net.cpp:141] Setting up inception_4b/relu_1x1
I0715 00:34:51.620045 23204 net.cpp:148] Top shape: 10 160 14 14 (313600)
I0715 00:34:51.620052 23204 net.cpp:156] Memory required for data: 392125440
I0715 00:34:51.620059 23204 layer_factory.hpp:77] Creating layer inception_4b/3x3_reduce
I0715 00:34:51.620079 23204 net.cpp:91] Creating Layer inception_4b/3x3_reduce
I0715 00:34:51.620086 23204 net.cpp:425] inception_4b/3x3_reduce <- inception_4a/output_inception_4a/output_0_split_1
I0715 00:34:51.620097 23204 net.cpp:399] inception_4b/3x3_reduce -> inception_4b/3x3_reduce
I0715 00:34:51.624830 23204 net.cpp:141] Setting up inception_4b/3x3_reduce
I0715 00:34:51.624853 23204 net.cpp:148] Top shape: 10 112 14 14 (219520)
I0715 00:34:51.624860 23204 net.cpp:156] Memory required for data: 393003520
I0715 00:34:51.624871 23204 layer_factory.hpp:77] Creating layer inception_4b/relu_3x3_reduce
I0715 00:34:51.624886 23204 net.cpp:91] Creating Layer inception_4b/relu_3x3_reduce
I0715 00:34:51.624892 23204 net.cpp:425] inception_4b/relu_3x3_reduce <- inception_4b/3x3_reduce
I0715 00:34:51.624900 23204 net.cpp:386] inception_4b/relu_3x3_reduce -> inception_4b/3x3_reduce (in-place)
I0715 00:34:51.626696 23204 net.cpp:141] Setting up inception_4b/relu_3x3_reduce
I0715 00:34:51.626714 23204 net.cpp:148] Top shape: 10 112 14 14 (219520)
I0715 00:34:51.626720 23204 net.cpp:156] Memory required for data: 393881600
I0715 00:34:51.626725 23204 layer_factory.hpp:77] Creating layer inception_4b/3x3
I0715 00:34:51.626744 23204 net.cpp:91] Creating Layer inception_4b/3x3
I0715 00:34:51.626751 23204 net.cpp:425] inception_4b/3x3 <- inception_4b/3x3_reduce
I0715 00:34:51.626763 23204 net.cpp:399] inception_4b/3x3 -> inception_4b/3x3
I0715 00:34:51.626910 23200 net.cpp:141] Setting up inception_4b/3x3
I0715 00:34:51.626931 23200 net.cpp:148] Top shape: 10 224 14 14 (439040)
I0715 00:34:51.626937 23200 net.cpp:156] Memory required for data: 395637760
I0715 00:34:51.626948 23200 layer_factory.hpp:77] Creating layer inception_4b/relu_3x3
I0715 00:34:51.626962 23200 net.cpp:91] Creating Layer inception_4b/relu_3x3
I0715 00:34:51.626971 23200 net.cpp:425] inception_4b/relu_3x3 <- inception_4b/3x3
I0715 00:34:51.626979 23200 net.cpp:386] inception_4b/relu_3x3 -> inception_4b/3x3 (in-place)
I0715 00:34:51.628576 23200 net.cpp:141] Setting up inception_4b/relu_3x3
I0715 00:34:51.628593 23200 net.cpp:148] Top shape: 10 224 14 14 (439040)
I0715 00:34:51.628598 23200 net.cpp:156] Memory required for data: 397393920
I0715 00:34:51.628604 23200 layer_factory.hpp:77] Creating layer inception_4b/5x5_reduce
I0715 00:34:51.628635 23200 net.cpp:91] Creating Layer inception_4b/5x5_reduce
I0715 00:34:51.628643 23200 net.cpp:425] inception_4b/5x5_reduce <- inception_4a/output_inception_4a/output_0_split_2
I0715 00:34:51.628654 23200 net.cpp:399] inception_4b/5x5_reduce -> inception_4b/5x5_reduce
I0715 00:34:51.633568 23200 net.cpp:141] Setting up inception_4b/5x5_reduce
I0715 00:34:51.633589 23200 net.cpp:148] Top shape: 10 24 14 14 (47040)
I0715 00:34:51.633594 23200 net.cpp:156] Memory required for data: 397582080
I0715 00:34:51.633605 23200 layer_factory.hpp:77] Creating layer inception_4b/relu_5x5_reduce
I0715 00:34:51.633620 23200 net.cpp:91] Creating Layer inception_4b/relu_5x5_reduce
I0715 00:34:51.633626 23200 net.cpp:425] inception_4b/relu_5x5_reduce <- inception_4b/5x5_reduce
I0715 00:34:51.633635 23200 net.cpp:386] inception_4b/relu_5x5_reduce -> inception_4b/5x5_reduce (in-place)
I0715 00:34:51.634613 23204 net.cpp:141] Setting up inception_4b/3x3
I0715 00:34:51.634632 23204 net.cpp:148] Top shape: 10 224 14 14 (439040)
I0715 00:34:51.634639 23204 net.cpp:156] Memory required for data: 395637760
I0715 00:34:51.634655 23204 layer_factory.hpp:77] Creating layer inception_4b/relu_3x3
I0715 00:34:51.634665 23204 net.cpp:91] Creating Layer inception_4b/relu_3x3
I0715 00:34:51.634672 23204 net.cpp:425] inception_4b/relu_3x3 <- inception_4b/3x3
I0715 00:34:51.634694 23204 net.cpp:386] inception_4b/relu_3x3 -> inception_4b/3x3 (in-place)
I0715 00:34:51.634701 23200 net.cpp:141] Setting up inception_4b/relu_5x5_reduce
I0715 00:34:51.634716 23200 net.cpp:148] Top shape: 10 24 14 14 (47040)
I0715 00:34:51.634721 23200 net.cpp:156] Memory required for data: 397770240
I0715 00:34:51.634727 23200 layer_factory.hpp:77] Creating layer inception_4b/5x5
I0715 00:34:51.634747 23200 net.cpp:91] Creating Layer inception_4b/5x5
I0715 00:34:51.634754 23200 net.cpp:425] inception_4b/5x5 <- inception_4b/5x5_reduce
I0715 00:34:51.634764 23200 net.cpp:399] inception_4b/5x5 -> inception_4b/5x5
I0715 00:34:51.635310 23204 net.cpp:141] Setting up inception_4b/relu_3x3
I0715 00:34:51.635324 23204 net.cpp:148] Top shape: 10 224 14 14 (439040)
I0715 00:34:51.635329 23204 net.cpp:156] Memory required for data: 397393920
I0715 00:34:51.635335 23204 layer_factory.hpp:77] Creating layer inception_4b/5x5_reduce
I0715 00:34:51.635362 23204 net.cpp:91] Creating Layer inception_4b/5x5_reduce
I0715 00:34:51.635370 23204 net.cpp:425] inception_4b/5x5_reduce <- inception_4a/output_inception_4a/output_0_split_2
I0715 00:34:51.635382 23204 net.cpp:399] inception_4b/5x5_reduce -> inception_4b/5x5_reduce
I0715 00:34:51.640548 23200 net.cpp:141] Setting up inception_4b/5x5
I0715 00:34:51.640568 23200 net.cpp:148] Top shape: 10 64 14 14 (125440)
I0715 00:34:51.640573 23200 net.cpp:156] Memory required for data: 398272000
I0715 00:34:51.640583 23200 layer_factory.hpp:77] Creating layer inception_4b/relu_5x5
I0715 00:34:51.640602 23200 net.cpp:91] Creating Layer inception_4b/relu_5x5
I0715 00:34:51.640610 23200 net.cpp:425] inception_4b/relu_5x5 <- inception_4b/5x5
I0715 00:34:51.640620 23200 net.cpp:386] inception_4b/relu_5x5 -> inception_4b/5x5 (in-place)
I0715 00:34:51.640620 23204 net.cpp:141] Setting up inception_4b/5x5_reduce
I0715 00:34:51.640637 23204 net.cpp:148] Top shape: 10 24 14 14 (47040)
I0715 00:34:51.640642 23204 net.cpp:156] Memory required for data: 397582080
I0715 00:34:51.640653 23204 layer_factory.hpp:77] Creating layer inception_4b/relu_5x5_reduce
I0715 00:34:51.640662 23204 net.cpp:91] Creating Layer inception_4b/relu_5x5_reduce
I0715 00:34:51.640668 23204 net.cpp:425] inception_4b/relu_5x5_reduce <- inception_4b/5x5_reduce
I0715 00:34:51.640681 23204 net.cpp:386] inception_4b/relu_5x5_reduce -> inception_4b/5x5_reduce (in-place)
I0715 00:34:51.641818 23200 net.cpp:141] Setting up inception_4b/relu_5x5
I0715 00:34:51.641827 23204 net.cpp:141] Setting up inception_4b/relu_5x5_reduce
I0715 00:34:51.641831 23200 net.cpp:148] Top shape: 10 64 14 14 (125440)
I0715 00:34:51.641844 23204 net.cpp:148] Top shape: 10 24 14 14 (47040)
I0715 00:34:51.641845 23200 net.cpp:156] Memory required for data: 398773760
I0715 00:34:51.641852 23204 net.cpp:156] Memory required for data: 397770240
I0715 00:34:51.641857 23200 layer_factory.hpp:77] Creating layer inception_4b/pool
I0715 00:34:51.641860 23204 layer_factory.hpp:77] Creating layer inception_4b/5x5
I0715 00:34:51.641877 23200 net.cpp:91] Creating Layer inception_4b/pool
I0715 00:34:51.641885 23204 net.cpp:91] Creating Layer inception_4b/5x5
I0715 00:34:51.641885 23200 net.cpp:425] inception_4b/pool <- inception_4a/output_inception_4a/output_0_split_3
I0715 00:34:51.641894 23204 net.cpp:425] inception_4b/5x5 <- inception_4b/5x5_reduce
I0715 00:34:51.641901 23200 net.cpp:399] inception_4b/pool -> inception_4b/pool
I0715 00:34:51.641907 23204 net.cpp:399] inception_4b/5x5 -> inception_4b/5x5
I0715 00:34:51.642052 23200 net.cpp:141] Setting up inception_4b/pool
I0715 00:34:51.642066 23200 net.cpp:148] Top shape: 10 512 14 14 (1003520)
I0715 00:34:51.642071 23200 net.cpp:156] Memory required for data: 402787840
I0715 00:34:51.642076 23200 layer_factory.hpp:77] Creating layer inception_4b/pool_proj
I0715 00:34:51.642091 23200 net.cpp:91] Creating Layer inception_4b/pool_proj
I0715 00:34:51.642098 23200 net.cpp:425] inception_4b/pool_proj <- inception_4b/pool
I0715 00:34:51.642112 23200 net.cpp:399] inception_4b/pool_proj -> inception_4b/pool_proj
I0715 00:34:51.648248 23204 net.cpp:141] Setting up inception_4b/5x5
I0715 00:34:51.648262 23200 net.cpp:141] Setting up inception_4b/pool_proj
I0715 00:34:51.648267 23204 net.cpp:148] Top shape: 10 64 14 14 (125440)
I0715 00:34:51.648283 23200 net.cpp:148] Top shape: 10 64 14 14 (125440)
I0715 00:34:51.648283 23204 net.cpp:156] Memory required for data: 398272000
I0715 00:34:51.648290 23200 net.cpp:156] Memory required for data: 403289600
I0715 00:34:51.648299 23204 layer_factory.hpp:77] Creating layer inception_4b/relu_5x5
I0715 00:34:51.648301 23200 layer_factory.hpp:77] Creating layer inception_4b/relu_pool_proj
I0715 00:34:51.648319 23204 net.cpp:91] Creating Layer inception_4b/relu_5x5
I0715 00:34:51.648321 23200 net.cpp:91] Creating Layer inception_4b/relu_pool_proj
I0715 00:34:51.648325 23204 net.cpp:425] inception_4b/relu_5x5 <- inception_4b/5x5
I0715 00:34:51.648329 23200 net.cpp:425] inception_4b/relu_pool_proj <- inception_4b/pool_proj
I0715 00:34:51.648336 23200 net.cpp:386] inception_4b/relu_pool_proj -> inception_4b/pool_proj (in-place)
I0715 00:34:51.648336 23204 net.cpp:386] inception_4b/relu_5x5 -> inception_4b/5x5 (in-place)
I0715 00:34:51.649541 23204 net.cpp:141] Setting up inception_4b/relu_5x5
I0715 00:34:51.649547 23200 net.cpp:141] Setting up inception_4b/relu_pool_proj
I0715 00:34:51.649556 23204 net.cpp:148] Top shape: 10 64 14 14 (125440)
I0715 00:34:51.649562 23204 net.cpp:156] Memory required for data: 398773760
I0715 00:34:51.649562 23200 net.cpp:148] Top shape: 10 64 14 14 (125440)
I0715 00:34:51.649569 23204 layer_factory.hpp:77] Creating layer inception_4b/pool
I0715 00:34:51.649569 23200 net.cpp:156] Memory required for data: 403791360
I0715 00:34:51.649580 23204 net.cpp:91] Creating Layer inception_4b/pool
I0715 00:34:51.649581 23200 layer_factory.hpp:77] Creating layer inception_4b/output
I0715 00:34:51.649587 23204 net.cpp:425] inception_4b/pool <- inception_4a/output_inception_4a/output_0_split_3
I0715 00:34:51.649595 23200 net.cpp:91] Creating Layer inception_4b/output
I0715 00:34:51.649600 23204 net.cpp:399] inception_4b/pool -> inception_4b/pool
I0715 00:34:51.649602 23200 net.cpp:425] inception_4b/output <- inception_4b/1x1
I0715 00:34:51.649610 23200 net.cpp:425] inception_4b/output <- inception_4b/3x3
I0715 00:34:51.649616 23200 net.cpp:425] inception_4b/output <- inception_4b/5x5
I0715 00:34:51.649621 23200 net.cpp:425] inception_4b/output <- inception_4b/pool_proj
I0715 00:34:51.649628 23200 net.cpp:399] inception_4b/output -> inception_4b/output
I0715 00:34:51.649714 23200 net.cpp:141] Setting up inception_4b/output
I0715 00:34:51.649726 23200 net.cpp:148] Top shape: 10 512 14 14 (1003520)
I0715 00:34:51.649731 23200 net.cpp:156] Memory required for data: 407805440
I0715 00:34:51.649736 23200 layer_factory.hpp:77] Creating layer inception_4b/output_inception_4b/output_0_split
I0715 00:34:51.649745 23200 net.cpp:91] Creating Layer inception_4b/output_inception_4b/output_0_split
I0715 00:34:51.649751 23200 net.cpp:425] inception_4b/output_inception_4b/output_0_split <- inception_4b/output
I0715 00:34:51.649750 23204 net.cpp:141] Setting up inception_4b/pool
I0715 00:34:51.649762 23200 net.cpp:399] inception_4b/output_inception_4b/output_0_split -> inception_4b/output_inception_4b/output_0_split_0
I0715 00:34:51.649765 23204 net.cpp:148] Top shape: 10 512 14 14 (1003520)
I0715 00:34:51.649776 23204 net.cpp:156] Memory required for data: 402787840
I0715 00:34:51.649777 23200 net.cpp:399] inception_4b/output_inception_4b/output_0_split -> inception_4b/output_inception_4b/output_0_split_1
I0715 00:34:51.649781 23204 layer_factory.hpp:77] Creating layer inception_4b/pool_proj
I0715 00:34:51.649787 23200 net.cpp:399] inception_4b/output_inception_4b/output_0_split -> inception_4b/output_inception_4b/output_0_split_2
I0715 00:34:51.649796 23200 net.cpp:399] inception_4b/output_inception_4b/output_0_split -> inception_4b/output_inception_4b/output_0_split_3
I0715 00:34:51.649798 23204 net.cpp:91] Creating Layer inception_4b/pool_proj
I0715 00:34:51.649806 23204 net.cpp:425] inception_4b/pool_proj <- inception_4b/pool
I0715 00:34:51.649814 23204 net.cpp:399] inception_4b/pool_proj -> inception_4b/pool_proj
I0715 00:34:51.649931 23200 net.cpp:141] Setting up inception_4b/output_inception_4b/output_0_split
I0715 00:34:51.649945 23200 net.cpp:148] Top shape: 10 512 14 14 (1003520)
I0715 00:34:51.649952 23200 net.cpp:148] Top shape: 10 512 14 14 (1003520)
I0715 00:34:51.649958 23200 net.cpp:148] Top shape: 10 512 14 14 (1003520)
I0715 00:34:51.649963 23200 net.cpp:148] Top shape: 10 512 14 14 (1003520)
I0715 00:34:51.649968 23200 net.cpp:156] Memory required for data: 423861760
I0715 00:34:51.649973 23200 layer_factory.hpp:77] Creating layer inception_4c/1x1
I0715 00:34:51.649989 23200 net.cpp:91] Creating Layer inception_4c/1x1
I0715 00:34:51.649996 23200 net.cpp:425] inception_4c/1x1 <- inception_4b/output_inception_4b/output_0_split_0
I0715 00:34:51.650005 23200 net.cpp:399] inception_4c/1x1 -> inception_4c/1x1
I0715 00:34:51.655557 23204 net.cpp:141] Setting up inception_4b/pool_proj
I0715 00:34:51.655577 23204 net.cpp:148] Top shape: 10 64 14 14 (125440)
I0715 00:34:51.655583 23204 net.cpp:156] Memory required for data: 403289600
I0715 00:34:51.655593 23204 layer_factory.hpp:77] Creating layer inception_4b/relu_pool_proj
I0715 00:34:51.655607 23204 net.cpp:91] Creating Layer inception_4b/relu_pool_proj
I0715 00:34:51.655614 23204 net.cpp:425] inception_4b/relu_pool_proj <- inception_4b/pool_proj
I0715 00:34:51.655622 23204 net.cpp:386] inception_4b/relu_pool_proj -> inception_4b/pool_proj (in-place)
I0715 00:34:51.656590 23200 net.cpp:141] Setting up inception_4c/1x1
I0715 00:34:51.656610 23200 net.cpp:148] Top shape: 10 128 14 14 (250880)
I0715 00:34:51.656615 23200 net.cpp:156] Memory required for data: 424865280
I0715 00:34:51.656625 23200 layer_factory.hpp:77] Creating layer inception_4c/relu_1x1
…
I0715 00:34:51.788286 23204 net.cpp:148] Top shape: 10 128 14 14 (250880)
I0715 00:34:51.788291 23204 net.cpp:156] Memory required for data: 508157440
I0715 00:34:51.788296 23204 layer_factory.hpp:77] Creating layer inception_4e/pool
I0715 00:34:51.788311 23204 net.cpp:91] Creating Layer inception_4e/pool
I0715 00:34:51.788317 23204 net.cpp:425] inception_4e/pool <- inception_4d/output_inception_4d/output_0_split_3
I0715 00:34:51.788327 23204 net.cpp:399] inception_4e/pool -> inception_4e/pool
I0715 00:34:51.788653 23200 net.cpp:141] Setting up inception_4e/5x5_reduce
I0715 00:34:51.788671 23200 net.cpp:148] Top shape: 10 32 14 14 (62720)
I0715 00:34:51.788676 23200 net.cpp:156] Memory required for data: 505899520
I0715 00:34:51.788687 23200 layer_factory.hpp:77] Creating layer inception_4e/relu_5x5_reduce
I0715 00:34:51.788697 23204 net.cpp:141] Setting up inception_4e/pool
I0715 00:34:51.788700 23200 net.cpp:91] Creating Layer inception_4e/relu_5x5_reduce
I0715 00:34:51.788712 23204 net.cpp:148] Top shape: 10 528 14 14 (1034880)
I0715 00:34:51.788718 23200 net.cpp:425] inception_4e/relu_5x5_reduce <- inception_4e/5x5_reduce
I0715 00:34:51.788718 23204 net.cpp:156] Memory required for data: 512296960
I0715 00:34:51.788734 23200 net.cpp:386] inception_4e/relu_5x5_reduce -> inception_4e/5x5_reduce (in-place)
I0715 00:34:51.788734 23204 layer_factory.hpp:77] Creating layer inception_4e/pool_proj
I0715 00:34:51.788760 23204 net.cpp:91] Creating Layer inception_4e/pool_proj
I0715 00:34:51.788766 23204 net.cpp:425] inception_4e/pool_proj <- inception_4e/pool
I0715 00:34:51.788779 23204 net.cpp:399] inception_4e/pool_proj -> inception_4e/pool_proj
I0715 00:34:51.789985 23200 net.cpp:141] Setting up inception_4e/relu_5x5_reduce
I0715 00:34:51.790005 23200 net.cpp:148] Top shape: 10 32 14 14 (62720)
I0715 00:34:51.790010 23200 net.cpp:156] Memory required for data: 506150400
I0715 00:34:51.790016 23200 layer_factory.hpp:77] Creating layer inception_4e/5x5
I0715 00:34:51.790033 23200 net.cpp:91] Creating Layer inception_4e/5x5
I0715 00:34:51.790040 23200 net.cpp:425] inception_4e/5x5 <- inception_4e/5x5_reduce
I0715 00:34:51.790055 23200 net.cpp:399] inception_4e/5x5 -> inception_4e/5x5
I0715 00:34:51.794569 23204 net.cpp:141] Setting up inception_4e/pool_proj
I0715 00:34:51.794600 23204 net.cpp:148] Top shape: 10 128 14 14 (250880)
I0715 00:34:51.794606 23204 net.cpp:156] Memory required for data: 513300480
I0715 00:34:51.794615 23204 layer_factory.hpp:77] Creating layer inception_4e/relu_pool_proj
I0715 00:34:51.794627 23204 net.cpp:91] Creating Layer inception_4e/relu_pool_proj
I0715 00:34:51.794633 23204 net.cpp:425] inception_4e/relu_pool_proj <- inception_4e/pool_proj
I0715 00:34:51.794641 23204 net.cpp:386] inception_4e/relu_pool_proj -> inception_4e/pool_proj (in-place)
I0715 00:34:51.796772 23204 net.cpp:141] Setting up inception_4e/relu_pool_proj
I0715 00:34:51.796787 23204 net.cpp:148] Top shape: 10 128 14 14 (250880)
I0715 00:34:51.796804 23204 net.cpp:156] Memory required for data: 514304000
I0715 00:34:51.796810 23204 layer_factory.hpp:77] Creating layer inception_4e/output
I0715 00:34:51.796823 23204 net.cpp:91] Creating Layer inception_4e/output
I0715 00:34:51.796829 23204 net.cpp:425] inception_4e/output <- inception_4e/1x1
I0715 00:34:51.796836 23204 net.cpp:425] inception_4e/output <- inception_4e/3x3
I0715 00:34:51.796843 23204 net.cpp:425] inception_4e/output <- inception_4e/5x5
I0715 00:34:51.796847 23204 net.cpp:425] inception_4e/output <- inception_4e/pool_proj
I0715 00:34:51.796856 23204 net.cpp:399] inception_4e/output -> inception_4e/output
I0715 00:34:51.797054 23200 net.cpp:141] Setting up inception_4e/5x5
I0715 00:34:51.797070 23200 net.cpp:148] Top shape: 10 128 14 14 (250880)
I0715 00:34:51.797076 23200 net.cpp:156] Memory required for data: 507153920
I0715 00:34:51.797086 23200 layer_factory.hpp:77] Creating layer inception_4e/relu_5x5
I0715 00:34:51.797096 23200 net.cpp:91] Creating Layer inception_4e/relu_5x5
I0715 00:34:51.797101 23204 net.cpp:141] Setting up inception_4e/output
I0715 00:34:51.797102 23200 net.cpp:425] inception_4e/relu_5x5 <- inception_4e/5x5
I0715 00:34:51.797116 23204 net.cpp:148] Top shape: 10 832 14 14 (1630720)
I0715 00:34:51.797121 23204 net.cpp:156] Memory required for data: 520826880
I0715 00:34:51.797125 23204 layer_factory.hpp:77] Creating layer pool4/3x3_s2
I0715 00:34:51.797127 23200 net.cpp:386] inception_4e/relu_5x5 -> inception_4e/5x5 (in-place)
I0715 00:34:51.797142 23204 net.cpp:91] Creating Layer pool4/3x3_s2
I0715 00:34:51.797148 23204 net.cpp:425] pool4/3x3_s2 <- inception_4e/output
I0715 00:34:51.797155 23204 net.cpp:399] pool4/3x3_s2 -> pool4/3x3_s2
I0715 00:34:51.797438 23204 net.cpp:141] Setting up pool4/3x3_s2
I0715 00:34:51.797449 23204 net.cpp:148] Top shape: 10 832 7 7 (407680)
I0715 00:34:51.797453 23204 net.cpp:156] Memory required for data: 522457600
I0715 00:34:51.797459 23204 layer_factory.hpp:77] Creating layer pool4/3x3_s2_pool4/3x3_s2_0_split
I0715 00:34:51.797469 23204 net.cpp:91] Creating Layer pool4/3x3_s2_pool4/3x3_s2_0_split
I0715 00:34:51.797473 23204 net.cpp:425] pool4/3x3_s2_pool4/3x3_s2_0_split <- pool4/3x3_s2
I0715 00:34:51.797482 23204 net.cpp:399] pool4/3x3_s2_pool4/3x3_s2_0_split -> pool4/3x3_s2_pool4/3x3_s2_0_split_0
I0715 00:34:51.797492 23204 net.cpp:399] pool4/3x3_s2_pool4/3x3_s2_0_split -> pool4/3x3_s2_pool4/3x3_s2_0_split_1
I0715 00:34:51.797499 23204 net.cpp:399] pool4/3x3_s2_pool4/3x3_s2_0_split -> pool4/3x3_s2_pool4/3x3_s2_0_split_2
I0715 00:34:51.797507 23204 net.cpp:399] pool4/3x3_s2_pool4/3x3_s2_0_split -> pool4/3x3_s2_pool4/3x3_s2_0_split_3
I0715 00:34:51.797696 23204 net.cpp:141] Setting up pool4/3x3_s2_pool4/3x3_s2_0_split
I0715 00:34:51.797708 23204 net.cpp:148] Top shape: 10 832 7 7 (407680)
I0715 00:34:51.797713 23204 net.cpp:148] Top shape: 10 832 7 7 (407680)
I0715 00:34:51.797719 23204 net.cpp:148] Top shape: 10 832 7 7 (407680)
I0715 00:34:51.797724 23204 net.cpp:148] Top shape: 10 832 7 7 (407680)
I0715 00:34:51.797727 23204 net.cpp:156] Memory required for data: 528980480
I0715 00:34:51.797731 23204 layer_factory.hpp:77] Creating layer inception_5a/1x1
I0715 00:34:51.797729 23200 net.cpp:141] Setting up inception_4e/relu_5x5
I0715 00:34:51.797747 23200 net.cpp:148] Top shape: 10 128 14 14 (250880)
I0715 00:34:51.797750 23204 net.cpp:91] Creating Layer inception_5a/1x1
I0715 00:34:51.797752 23200 net.cpp:156] Memory required for data: 508157440
I0715 00:34:51.797757 23204 net.cpp:425] inception_5a/1x1 <- pool4/3x3_s2_pool4/3x3_s2_0_split_0
I0715 00:34:51.797760 23200 layer_factory.hpp:77] Creating layer inception_4e/pool
I0715 00:34:51.797767 23204 net.cpp:399] inception_5a/1x1 -> inception_5a/1x1
I0715 00:34:51.797770 23200 net.cpp:91] Creating Layer inception_4e/pool
I0715 00:34:51.797777 23200 net.cpp:425] inception_4e/pool <- inception_4d/output_inception_4d/output_0_split_3
I0715 00:34:51.797785 23200 net.cpp:399] inception_4e/pool -> inception_4e/pool
I0715 00:34:51.799625 23200 net.cpp:141] Setting up inception_4e/pool
I0715 00:34:51.799643 23200 net.cpp:148] Top shape: 10 528 14 14 (1034880)
I0715 00:34:51.799649 23200 net.cpp:156] Memory required for data: 512296960
I0715 00:34:51.799654 23200 layer_factory.hpp:77] Creating layer inception_4e/pool_proj
I0715 00:34:51.799671 23200 net.cpp:91] Creating Layer inception_4e/pool_proj
I0715 00:34:51.799679 23200 net.cpp:425] inception_4e/pool_proj <- inception_4e/pool
I0715 00:34:51.799690 23200 net.cpp:399] inception_4e/pool_proj -> inception_4e/pool_proj
I0715 00:34:51.806134 23204 net.cpp:141] Setting up inception_5a/1x1
I0715 00:34:51.806164 23204 net.cpp:148] Top shape: 10 256 7 7 (125440)
I0715 00:34:51.806170 23204 net.cpp:156] Memory required for data: 529482240
I0715 00:34:51.806183 23204 layer_factory.hpp:77] Creating layer inception_5a/relu_1x1
I0715 00:34:51.806193 23204 net.cpp:91] Creating Layer inception_5a/relu_1x1
I0715 00:34:51.806203 23204 net.cpp:425] inception_5a/relu_1x1 <- inception_5a/1x1
I0715 00:34:51.806216 23204 net.cpp:386] inception_5a/relu_1x1 -> inception_5a/1x1 (in-place)
I0715 00:34:51.807728 23200 net.cpp:141] Setting up inception_4e/pool_proj
I0715 00:34:51.807736 23204 net.cpp:141] Setting up inception_5a/relu_1x1
I0715 00:34:51.807757 23200 net.cpp:148] Top shape: 10 128 14 14 (250880)
I0715 00:34:51.807760 23204 net.cpp:148] Top shape: 10 256 7 7 (125440)
I0715 00:34:51.807770 23200 net.cpp:156] Memory required for data: 513300480
I0715 00:34:51.807773 23204 net.cpp:156] Memory required for data: 529984000
I0715 00:34:51.807782 23204 layer_factory.hpp:77] Creating layer inception_5a/3x3_reduce
I0715 00:34:51.807790 23200 layer_factory.hpp:77] Creating layer inception_4e/relu_pool_proj
I0715 00:34:51.807809 23204 net.cpp:91] Creating Layer inception_5a/3x3_reduce
I0715 00:34:51.807809 23200 net.cpp:91] Creating Layer inception_4e/relu_pool_proj
I0715 00:34:51.807827 23204 net.cpp:425] inception_5a/3x3_reduce <- pool4/3x3_s2_pool4/3x3_s2_0_split_1
I0715 00:34:51.807832 23200 net.cpp:425] inception_4e/relu_pool_proj <- inception_4e/pool_proj
I0715 00:34:51.807845 23200 net.cpp:386] inception_4e/relu_pool_proj -> inception_4e/pool_proj (in-place)
I0715 00:34:51.807852 23204 net.cpp:399] inception_5a/3x3_reduce -> inception_5a/3x3_reduce
I0715 00:34:51.810015 23200 net.cpp:141] Setting up inception_4e/relu_pool_proj
I0715 00:34:51.810041 23200 net.cpp:148] Top shape: 10 128 14 14 (250880)
I0715 00:34:51.810050 23200 net.cpp:156] Memory required for data: 514304000
I0715 00:34:51.810060 23200 layer_factory.hpp:77] Creating layer inception_4e/output
I0715 00:34:51.810077 23200 net.cpp:91] Creating Layer inception_4e/output
I0715 00:34:51.810087 23200 net.cpp:425] inception_4e/output <- inception_4e/1x1
I0715 00:34:51.810098 23200 net.cpp:425] inception_4e/output <- inception_4e/3x3
I0715 00:34:51.810108 23200 net.cpp:425] inception_4e/output <- inception_4e/5x5
I0715 00:34:51.810117 23200 net.cpp:425] inception_4e/output <- inception_4e/pool_proj
I0715 00:34:51.810128 23200 net.cpp:399] inception_4e/output -> inception_4e/output
I0715 00:34:51.810220 23200 net.cpp:141] Setting up inception_4e/output
I0715 00:34:51.810236 23200 net.cpp:148] Top shape: 10 832 14 14 (1630720)
I0715 00:34:51.810243 23200 net.cpp:156] Memory required for data: 520826880
I0715 00:34:51.810252 23200 layer_factory.hpp:77] Creating layer pool4/3x3_s2
I0715 00:34:51.810271 23200 net.cpp:91] Creating Layer pool4/3x3_s2
I0715 00:34:51.810281 23200 net.cpp:425] pool4/3x3_s2 <- inception_4e/output
I0715 00:34:51.810292 23200 net.cpp:399] pool4/3x3_s2 -> pool4/3x3_s2
I0715 00:34:51.810425 23200 net.cpp:141] Setting up pool4/3x3_s2
I0715 00:34:51.810441 23200 net.cpp:148] Top shape: 10 832 7 7 (407680)
I0715 00:34:51.810447 23200 net.cpp:156] Memory required for data: 522457600
I0715 00:34:51.810456 23200 layer_factory.hpp:77] Creating layer pool4/3x3_s2_pool4/3x3_s2_0_split
I0715 00:34:51.810468 23200 net.cpp:91] Creating Layer pool4/3x3_s2_pool4/3x3_s2_0_split
I0715 00:34:51.810477 23200 net.cpp:425] pool4/3x3_s2_pool4/3x3_s2_0_split <- pool4/3x3_s2
I0715 00:34:51.810490 23200 net.cpp:399] pool4/3x3_s2_pool4/3x3_s2_0_split -> pool4/3x3_s2_pool4/3x3_s2_0_split_0
I0715 00:34:51.810505 23200 net.cpp:399] pool4/3x3_s2_pool4/3x3_s2_0_split -> pool4/3x3_s2_pool4/3x3_s2_0_split_1
I0715 00:34:51.810518 23200 net.cpp:399] pool4/3x3_s2_pool4/3x3_s2_0_split -> pool4/3x3_s2_pool4/3x3_s2_0_split_2
I0715 00:34:51.810531 23200 net.cpp:399] pool4/3x3_s2_pool4/3x3_s2_0_split -> pool4/3x3_s2_pool4/3x3_s2_0_split_3
I0715 00:34:51.811251 23200 net.cpp:141] Setting up pool4/3x3_s2_pool4/3x3_s2_0_split
I0715 00:34:51.811272 23200 net.cpp:148] Top shape: 10 832 7 7 (407680)
I0715 00:34:51.811283 23200 net.cpp:148] Top shape: 10 832 7 7 (407680)
I0715 00:34:51.811292 23200 net.cpp:148] Top shape: 10 832 7 7 (407680)
I0715 00:34:51.811302 23200 net.cpp:148] Top shape: 10 832 7 7 (407680)
I0715 00:34:51.811309 23200 net.cpp:156] Memory required for data: 528980480
I0715 00:34:51.811317 23200 layer_factory.hpp:77] Creating layer inception_5a/1x1
I0715 00:34:51.811342 23200 net.cpp:91] Creating Layer inception_5a/1x1
I0715 00:34:51.811352 23200 net.cpp:425] inception_5a/1x1 <- pool4/3x3_s2_pool4/3x3_s2_0_split_0
I0715 00:34:51.811367 23200 net.cpp:399] inception_5a/1x1 -> inception_5a/1x1
I0715 00:34:51.816632 23204 net.cpp:141] Setting up inception_5a/3x3_reduce
I0715 00:34:51.816666 23204 net.cpp:148] Top shape: 10 160 7 7 (78400)
I0715 00:34:51.816675 23204 net.cpp:156] Memory required for data: 530297600
I0715 00:34:51.816694 23204 layer_factory.hpp:77] Creating layer inception_5a/relu_3x3_reduce
I0715 00:34:51.816715 23204 net.cpp:91] Creating Layer inception_5a/relu_3x3_reduce
I0715 00:34:51.816728 23204 net.cpp:425] inception_5a/relu_3x3_reduce <- inception_5a/3x3_reduce
I0715 00:34:51.816740 23204 net.cpp:386] inception_5a/relu_3x3_reduce -> inception_5a/3x3_reduce (in-place)
I0715 00:34:51.818395 23204 net.cpp:141] Setting up inception_5a/relu_3x3_reduce
I0715 00:34:51.818421 23204 net.cpp:148] Top shape: 10 160 7 7 (78400)
I0715 00:34:51.818431 23204 net.cpp:156] Memory required for data: 530611200
I0715 00:34:51.818440 23204 layer_factory.hpp:77] Creating layer inception_5a/3x3
I0715 00:34:51.818470 23204 net.cpp:91] Creating Layer inception_5a/3x3
I0715 00:34:51.818485 23204 net.cpp:425] inception_5a/3x3 <- inception_5a/3x3_reduce
I0715 00:34:51.818506 23204 net.cpp:399] inception_5a/3x3 -> inception_5a/3x3
I0715 00:34:51.822545 23200 net.cpp:141] Setting up inception_5a/1x1
I0715 00:34:51.822574 23200 net.cpp:148] Top shape: 10 256 7 7 (125440)
I0715 00:34:51.822587 23200 net.cpp:156] Memory required for data: 529482240
I0715 00:34:51.822604 23200 layer_factory.hpp:77] Creating layer inception_5a/relu_1x1
I0715 00:34:51.822619 23200 net.cpp:91] Creating Layer inception_5a/relu_1x1
I0715 00:34:51.822629 23200 net.cpp:425] inception_5a/relu_1x1 <- inception_5a/1x1
I0715 00:34:51.822643 23200 net.cpp:386] inception_5a/relu_1x1 -> inception_5a/1x1 (in-place)
I0715 00:34:51.823932 23200 net.cpp:141] Setting up inception_5a/relu_1x1
I0715 00:34:51.823959 23200 net.cpp:148] Top shape: 10 256 7 7 (125440)
I0715 00:34:51.823967 23200 net.cpp:156] Memory required for data: 529984000
I0715 00:34:51.823977 23200 layer_factory.hpp:77] Creating layer inception_5a/3x3_reduce
I0715 00:34:51.824003 23200 net.cpp:91] Creating Layer inception_5a/3x3_reduce
I0715 00:34:51.824014 23200 net.cpp:425] inception_5a/3x3_reduce <- pool4/3x3_s2_pool4/3x3_s2_0_split_1
I0715 00:34:51.824029 23200 net.cpp:399] inception_5a/3x3_reduce -> inception_5a/3x3_reduce
I0715 00:34:51.833431 23200 net.cpp:141] Setting up inception_5a/3x3_reduce
I0715 00:34:51.833459 23200 net.cpp:148] Top shape: 10 160 7 7 (78400)
I0715 00:34:51.833470 23200 net.cpp:156] Memory required for data: 530297600
I0715 00:34:51.833487 23200 layer_factory.hpp:77] Creating layer inception_5a/relu_3x3_reduce
I0715 00:34:51.833508 23200 net.cpp:91] Creating Layer inception_5a/relu_3x3_reduce
I0715 00:34:51.833518 23200 net.cpp:425] inception_5a/relu_3x3_reduce <- inception_5a/3x3_reduce
I0715 00:34:51.833531 23200 net.cpp:386] inception_5a/relu_3x3_reduce -> inception_5a/3x3_reduce (in-place)
I0715 00:34:51.834115 23204 net.cpp:141] Setting up inception_5a/3x3
I0715 00:34:51.834139 23204 net.cpp:148] Top shape: 10 320 7 7 (156800)
I0715 00:34:51.834149 23204 net.cpp:156] Memory required for data: 531238400
I0715 00:34:51.834167 23204 layer_factory.hpp:77] Creating layer inception_5a/relu_3x3
I0715 00:34:51.834182 23204 net.cpp:91] Creating Layer inception_5a/relu_3x3
I0715 00:34:51.834194 23204 net.cpp:425] inception_5a/relu_3x3 <- inception_5a/3x3
I0715 00:34:51.834214 23204 net.cpp:386] inception_5a/relu_3x3 -> inception_5a/3x3 (in-place)
I0715 00:34:51.835489 23204 net.cpp:141] Setting up inception_5a/relu_3x3
I0715 00:34:51.835489 23200 net.cpp:141] Setting up inception_5a/relu_3x3_reduce
I0715 00:34:51.835523 23204 net.cpp:148] Top shape: 10 320 7 7 (156800)
I0715 00:34:51.835523 23200 net.cpp:148] Top shape: 10 160 7 7 (78400)
I0715 00:34:51.835539 23204 net.cpp:156] Memory required for data: 531865600
I0715 00:34:51.835542 23200 net.cpp:156] Memory required for data: 530611200
I0715 00:34:51.835551 23200 layer_factory.hpp:77] Creating layer inception_5a/3x3
I0715 00:34:51.835551 23204 layer_factory.hpp:77] Creating layer inception_5a/5x5_reduce
I0715 00:34:51.835577 23200 net.cpp:91] Creating Layer inception_5a/3x3
I0715 00:34:51.835582 23204 net.cpp:91] Creating Layer inception_5a/5x5_reduce
I0715 00:34:51.835590 23200 net.cpp:425] inception_5a/3x3 <- inception_5a/3x3_reduce
I0715 00:34:51.835592 23204 net.cpp:425] inception_5a/5x5_reduce <- pool4/3x3_s2_pool4/3x3_s2_0_split_2
I0715 00:34:51.835615 23204 net.cpp:399] inception_5a/5x5_reduce -> inception_5a/5x5_reduce
I0715 00:34:51.835616 23200 net.cpp:399] inception_5a/3x3 -> inception_5a/3x3
I0715 00:34:51.841483 23204 net.cpp:141] Setting up inception_5a/5x5_reduce
I0715 00:34:51.841511 23204 net.cpp:148] Top shape: 10 32 7 7 (15680)
I0715 00:34:51.841519 23204 net.cpp:156] Memory required for data: 531928320
I0715 00:34:51.841534 23204 layer_factory.hpp:77] Creating layer inception_5a/relu_5x5_reduce
I0715 00:34:51.841553 23204 net.cpp:91] Creating Layer inception_5a/relu_5x5_reduce
I0715 00:34:51.841564 23204 net.cpp:425] inception_5a/relu_5x5_reduce <- inception_5a/5x5_reduce
I0715 00:34:51.841576 23204 net.cpp:386] inception_5a/relu_5x5_reduce -> inception_5a/5x5_reduce (in-place)
I0715 00:34:51.842702 23204 net.cpp:141] Setting up inception_5a/relu_5x5_reduce
I0715 00:34:51.842741 23204 net.cpp:148] Top shape: 10 32 7 7 (15680)
I0715 00:34:51.842749 23204 net.cpp:156] Memory required for data: 531991040
I0715 00:34:51.842758 23204 layer_factory.hpp:77] Creating layer inception_5a/5x5
I0715 00:34:51.842787 23204 net.cpp:91] Creating Layer inception_5a/5x5
I0715 00:34:51.842797 23204 net.cpp:425] inception_5a/5x5 <- inception_5a/5x5_reduce
I0715 00:34:51.842813 23204 net.cpp:399] inception_5a/5x5 -> inception_5a/5x5
I0715 00:34:51.849261 23200 net.cpp:141] Setting up inception_5a/3x3
I0715 00:34:51.849287 23200 net.cpp:148] Top shape: 10 320 7 7 (156800)
I0715 00:34:51.849298 23200 net.cpp:156] Memory required for data: 531238400
I0715 00:34:51.849318 23200 layer_factory.hpp:77] Creating layer inception_5a/relu_3x3
I0715 00:34:51.849339 23200 net.cpp:91] Creating Layer inception_5a/relu_3x3
I0715 00:34:51.849351 23200 net.cpp:425] inception_5a/relu_3x3 <- inception_5a/3x3
I0715 00:34:51.849365 23200 net.cpp:386] inception_5a/relu_3x3 -> inception_5a/3x3 (in-place)
I0715 00:34:51.850677 23200 net.cpp:141] Setting up inception_5a/relu_3x3
I0715 00:34:51.850711 23200 net.cpp:148] Top shape: 10 320 7 7 (156800)
I0715 00:34:51.850723 23200 net.cpp:156] Memory required for data: 531865600
I0715 00:34:51.850731 23200 layer_factory.hpp:77] Creating layer inception_5a/5x5_reduce
I0715 00:34:51.850764 23200 net.cpp:91] Creating Layer inception_5a/5x5_reduce
I0715 00:34:51.850777 23200 net.cpp:425] inception_5a/5x5_reduce <- pool4/3x3_s2_pool4/3x3_s2_0_split_2
I0715 00:34:51.850795 23200 net.cpp:399] inception_5a/5x5_reduce -> inception_5a/5x5_reduce
I0715 00:34:51.851284 23204 net.cpp:141] Setting up inception_5a/5x5
I0715 00:34:51.851308 23204 net.cpp:148] Top shape: 10 128 7 7 (62720)
I0715 00:34:51.851318 23204 net.cpp:156] Memory required for data: 532241920
I0715 00:34:51.851335 23204 layer_factory.hpp:77] Creating layer inception_5a/relu_5x5
I0715 00:34:51.851388 23204 net.cpp:91] Creating Layer inception_5a/relu_5x5
I0715 00:34:51.851404 23204 net.cpp:425] inception_5a/relu_5x5 <- inception_5a/5x5
I0715 00:34:51.851418 23204 net.cpp:386] inception_5a/relu_5x5 -> inception_5a/5x5 (in-place)
I0715 00:34:51.852023 23204 net.cpp:141] Setting up inception_5a/relu_5x5
I0715 00:34:51.852047 23204 net.cpp:148] Top shape: 10 128 7 7 (62720)
I0715 00:34:51.852056 23204 net.cpp:156] Memory required for data: 532492800
I0715 00:34:51.852066 23204 layer_factory.hpp:77] Creating layer inception_5a/pool
I0715 00:34:51.852082 23204 net.cpp:91] Creating Layer inception_5a/pool
I0715 00:34:51.852090 23204 net.cpp:425] inception_5a/pool <- pool4/3x3_s2_pool4/3x3_s2_0_split_3
I0715 00:34:51.852103 23204 net.cpp:399] inception_5a/pool -> inception_5a/pool
I0715 00:34:51.852301 23204 net.cpp:141] Setting up inception_5a/pool
I0715 00:34:51.852320 23204 net.cpp:148] Top shape: 10 832 7 7 (407680)
I0715 00:34:51.852329 23204 net.cpp:156] Memory required for data: 534123520
I0715 00:34:51.852339 23204 layer_factory.hpp:77] Creating layer inception_5a/pool_proj
I0715 00:34:51.852365 23204 net.cpp:91] Creating Layer inception_5a/pool_proj
I0715 00:34:51.852377 23204 net.cpp:425] inception_5a/pool_proj <- inception_5a/pool
I0715 00:34:51.852398 23204 net.cpp:399] inception_5a/pool_proj -> inception_5a/pool_proj
I0715 00:34:51.857090 23200 net.cpp:141] Setting up inception_5a/5x5_reduce
I0715 00:34:51.857118 23200 net.cpp:148] Top shape: 10 32 7 7 (15680)
I0715 00:34:51.857128 23200 net.cpp:156] Memory required for data: 531928320
I0715 00:34:51.857147 23200 layer_factory.hpp:77] Creating layer inception_5a/relu_5x5_reduce
I0715 00:34:51.857167 23200 net.cpp:91] Creating Layer inception_5a/relu_5x5_reduce
I0715 00:34:51.857179 23200 net.cpp:425] inception_5a/relu_5x5_reduce <- inception_5a/5x5_reduce
I0715 00:34:51.857194 23200 net.cpp:386] inception_5a/relu_5x5_reduce -> inception_5a/5x5_reduce (in-place)
I0715 00:34:51.858572 23200 net.cpp:141] Setting up inception_5a/relu_5x5_reduce
I0715 00:34:51.858597 23200 net.cpp:148] Top shape: 10 32 7 7 (15680)
I0715 00:34:51.858606 23200 net.cpp:156] Memory required for data: 531991040
I0715 00:34:51.858616 23200 layer_factory.hpp:77] Creating layer inception_5a/5x5
I0715 00:34:51.858644 23200 net.cpp:91] Creating Layer inception_5a/5x5
I0715 00:34:51.858656 23200 net.cpp:425] inception_5a/5x5 <- inception_5a/5x5_reduce
I0715 00:34:51.858696 23200 net.cpp:399] inception_5a/5x5 -> inception_5a/5x5
I0715 00:34:51.861639 23204 net.cpp:141] Setting up inception_5a/pool_proj
I0715 00:34:51.861663 23204 net.cpp:148] Top shape: 10 128 7 7 (62720)
I0715 00:34:51.861672 23204 net.cpp:156] Memory required for data: 534374400
I0715 00:34:51.861687 23204 layer_factory.hpp:77] Creating layer inception_5a/relu_pool_proj
I0715 00:34:51.861701 23204 net.cpp:91] Creating Layer inception_5a/relu_pool_proj
I0715 00:34:51.861711 23204 net.cpp:425] inception_5a/relu_pool_proj <- inception_5a/pool_proj
I0715 00:34:51.861726 23204 net.cpp:386] inception_5a/relu_pool_proj -> inception_5a/pool_proj (in-place)
I0715 00:34:51.862148 23204 net.cpp:141] Setting up inception_5a/relu_pool_proj
I0715 00:34:51.862167 23204 net.cpp:148] Top shape: 10 128 7 7 (62720)
I0715 00:34:51.862175 23204 net.cpp:156] Memory required for data: 534625280
I0715 00:34:51.862185 23204 layer_factory.hpp:77] Creating layer inception_5a/output
I0715 00:34:51.862203 23204 net.cpp:91] Creating Layer inception_5a/output
I0715 00:34:51.862213 23204 net.cpp:425] inception_5a/output <- inception_5a/1x1
I0715 00:34:51.862223 23204 net.cpp:425] inception_5a/output <- inception_5a/3x3
I0715 00:34:51.862233 23204 net.cpp:425] inception_5a/output <- inception_5a/5x5
I0715 00:34:51.862242 23204 net.cpp:425] inception_5a/output <- inception_5a/pool_proj
I0715 00:34:51.862253 23204 net.cpp:399] inception_5a/output -> inception_5a/output
I0715 00:34:51.862344 23204 net.cpp:141] Setting up inception_5a/output
I0715 00:34:51.862359 23204 net.cpp:148] Top shape: 10 832 7 7 (407680)
I0715 00:34:51.862366 23204 net.cpp:156] Memory required for data: 536256000
I0715 00:34:51.862375 23204 layer_factory.hpp:77] Creating layer inception_5a/output_inception_5a/output_0_split
I0715 00:34:51.862387 23204 net.cpp:91] Creating Layer inception_5a/output_inception_5a/output_0_split
I0715 00:34:51.862396 23204 net.cpp:425] inception_5a/output_inception_5a/output_0_split <- inception_5a/output
I0715 00:34:51.862413 23204 net.cpp:399] inception_5a/output_inception_5a/output_0_split -> inception_5a/output_inception_5a/output_0_split_0
I0715 00:34:51.862428 23204 net.cpp:399] inception_5a/output_inception_5a/output_0_split -> inception_5a/output_inception_5a/output_0_split_1
I0715 00:34:51.862443 23204 net.cpp:399] inception_5a/output_inception_5a/output_0_split -> inception_5a/output_inception_5a/output_0_split_2
I0715 00:34:51.862457 23204 net.cpp:399] inception_5a/output_inception_5a/output_0_split -> inception_5a/output_inception_5a/output_0_split_3
I0715 00:34:51.862912 23204 net.cpp:141] Setting up inception_5a/output_inception_5a/output_0_split
I0715 00:34:51.862932 23204 net.cpp:148] Top shape: 10 832 7 7 (407680)
I0715 00:34:51.862941 23204 net.cpp:148] Top shape: 10 832 7 7 (407680)
I0715 00:34:51.862946 23204 net.cpp:148] Top shape: 10 832 7 7 (407680)
I0715 00:34:51.862952 23204 net.cpp:148] Top shape: 10 832 7 7 (407680)
I0715 00:34:51.862957 23204 net.cpp:156] Memory required for data: 542778880
I0715 00:34:51.862962 23204 layer_factory.hpp:77] Creating layer inception_5b/1x1
I0715 00:34:51.862998 23204 net.cpp:91] Creating Layer inception_5b/1x1
I0715 00:34:51.863008 23204 net.cpp:425] inception_5b/1x1 <- inception_5a/output_inception_5a/output_0_split_0
I0715 00:34:51.863018 23204 net.cpp:399] inception_5b/1x1 -> inception_5b/1x1
I0715 00:34:51.866984 23200 net.cpp:141] Setting up inception_5a/5x5
I0715 00:34:51.867005 23200 net.cpp:148] Top shape: 10 128 7 7 (62720)
I0715 00:34:51.867012 23200 net.cpp:156] Memory required for data: 532241920
I0715 00:34:51.867023 23200 layer_factory.hpp:77] Creating layer inception_5a/relu_5x5
I0715 00:34:51.867059 23200 net.cpp:91] Creating Layer inception_5a/relu_5x5
I0715 00:34:51.867066 23200 net.cpp:425] inception_5a/relu_5x5 <- inception_5a/5x5
I0715 00:34:51.867075 23200 net.cpp:386] inception_5a/relu_5x5 -> inception_5a/5x5 (in-place)
I0715 00:34:51.867393 23200 net.cpp:141] Setting up inception_5a/relu_5x5
I0715 00:34:51.867408 23200 net.cpp:148] Top shape: 10 128 7 7 (62720)
I0715 00:34:51.867413 23200 net.cpp:156] Memory required for data: 532492800
I0715 00:34:51.867419 23200 layer_factory.hpp:77] Creating layer inception_5a/pool
I0715 00:34:51.867429 23200 net.cpp:91] Creating Layer inception_5a/pool
I0715 00:34:51.867435 23200 net.cpp:425] inception_5a/pool <- pool4/3x3_s2_pool4/3x3_s2_0_split_3
I0715 00:34:51.867444 23200 net.cpp:399] inception_5a/pool -> inception_5a/pool
I0715 00:34:51.867555 23200 net.cpp:141] Setting up inception_5a/pool
I0715 00:34:51.867568 23200 net.cpp:148] Top shape: 10 832 7 7 (407680)
I0715 00:34:51.867571 23200 net.cpp:156] Memory required for data: 534123520
I0715 00:34:51.867576 23200 layer_factory.hpp:77] Creating layer inception_5a/pool_proj
I0715 00:34:51.867594 23200 net.cpp:91] Creating Layer inception_5a/pool_proj
I0715 00:34:51.867600 23200 net.cpp:425] inception_5a/pool_proj <- inception_5a/pool
I0715 00:34:51.867612 23200 net.cpp:399] inception_5a/pool_proj -> inception_5a/pool_proj
I0715 00:34:51.874095 23204 net.cpp:141] Setting up inception_5b/1x1
I0715 00:34:51.874117 23204 net.cpp:148] Top shape: 10 384 7 7 (188160)
I0715 00:34:51.874125 23204 net.cpp:156] Memory required for data: 543531520
I0715 00:34:51.874136 23204 layer_factory.hpp:77] Creating layer inception_5b/relu_1x1
I0715 00:34:51.874146 23204 net.cpp:91] Creating Layer inception_5b/relu_1x1
I0715 00:34:51.874153 23204 net.cpp:425] inception_5b/relu_1x1 <- inception_5b/1x1
I0715 00:34:51.874166 23204 net.cpp:386] inception_5b/relu_1x1 -> inception_5b/1x1 (in-place)
I0715 00:34:51.875021 23200 net.cpp:141] Setting up inception_5a/pool_proj
I0715 00:34:51.875041 23200 net.cpp:148] Top shape: 10 128 7 7 (62720)
I0715 00:34:51.875046 23200 net.cpp:156] Memory required for data: 534374400
I0715 00:34:51.875056 23200 layer_factory.hpp:77] Creating layer inception_5a/relu_pool_proj
I0715 00:34:51.875066 23200 net.cpp:91] Creating Layer inception_5a/relu_pool_proj
I0715 00:34:51.875072 23200 net.cpp:425] inception_5a/relu_pool_proj <- inception_5a/pool_proj
I0715 00:34:51.875084 23200 net.cpp:386] inception_5a/relu_pool_proj -> inception_5a/pool_proj (in-place)
I0715 00:34:51.875423 23204 net.cpp:141] Setting up inception_5b/relu_1x1
I0715 00:34:51.875438 23204 net.cpp:148] Top shape: 10 384 7 7 (188160)
I0715 00:34:51.875443 23204 net.cpp:156] Memory required for data: 544284160
I0715 00:34:51.875452 23204 layer_factory.hpp:77] Creating layer inception_5b/3x3_reduce
I0715 00:34:51.875471 23204 net.cpp:91] Creating Layer inception_5b/3x3_reduce
I0715 00:34:51.875479 23204 net.cpp:425] inception_5b/3x3_reduce <- inception_5a/output_inception_5a/output_0_split_1
I0715 00:34:51.875493 23204 net.cpp:399] inception_5b/3x3_reduce -> inception_5b/3x3_reduce
I0715 00:34:51.875506 23200 net.cpp:141] Setting up inception_5a/relu_pool_proj
I0715 00:34:51.875519 23200 net.cpp:148] Top shape: 10 128 7 7 (62720)
I0715 00:34:51.875524 23200 net.cpp:156] Memory required for data: 534625280
I0715 00:34:51.875530 23200 layer_factory.hpp:77] Creating layer inception_5a/output
I0715 00:34:51.875542 23200 net.cpp:91] Creating Layer inception_5a/output
I0715 00:34:51.875550 23200 net.cpp:425] inception_5a/output <- inception_5a/1x1
I0715 00:34:51.875556 23200 net.cpp:425] inception_5a/output <- inception_5a/3x3
I0715 00:34:51.875562 23200 net.cpp:425] inception_5a/output <- inception_5a/5x5
I0715 00:34:51.875568 23200 net.cpp:425] inception_5a/output <- inception_5a/pool_proj
I0715 00:34:51.875576 23200 net.cpp:399] inception_5a/output -> inception_5a/output
I0715 00:34:51.875869 23200 net.cpp:141] Setting up inception_5a/output
I0715 00:34:51.875880 23200 net.cpp:148] Top shape: 10 832 7 7 (407680)
I0715 00:34:51.875885 23200 net.cpp:156] Memory required for data: 536256000
I0715 00:34:51.875891 23200 layer_factory.hpp:77] Creating layer inception_5a/output_inception_5a/output_0_split
I0715 00:34:51.875900 23200 net.cpp:91] Creating Layer inception_5a/output_inception_5a/output_0_split
I0715 00:34:51.875905 23200 net.cpp:425] inception_5a/output_inception_5a/output_0_split <- inception_5a/output
I0715 00:34:51.875917 23200 net.cpp:399] inception_5a/output_inception_5a/output_0_split -> inception_5a/output_inception_5a/output_0_split_0
I0715 00:34:51.875928 23200 net.cpp:399] inception_5a/output_inception_5a/output_0_split -> inception_5a/output_inception_5a/output_0_split_1
I0715 00:34:51.875937 23200 net.cpp:399] inception_5a/output_inception_5a/output_0_split -> inception_5a/output_inception_5a/output_0_split_2
I0715 00:34:51.875946 23200 net.cpp:399] inception_5a/output_inception_5a/output_0_split -> inception_5a/output_inception_5a/output_0_split_3
I0715 00:34:51.877308 23200 net.cpp:141] Setting up inception_5a/output_inception_5a/output_0_split
I0715 00:34:51.877326 23200 net.cpp:148] Top shape: 10 832 7 7 (407680)
I0715 00:34:51.877333 23200 net.cpp:148] Top shape: 10 832 7 7 (407680)
I0715 00:34:51.877338 23200 net.cpp:148] Top shape: 10 832 7 7 (407680)
I0715 00:34:51.877344 23200 net.cpp:148] Top shape: 10 832 7 7 (407680)
I0715 00:34:51.877349 23200 net.cpp:156] Memory required for data: 542778880
I0715 00:34:51.877354 23200 layer_factory.hpp:77] Creating layer inception_5b/1x1
I0715 00:34:51.877377 23200 net.cpp:91] Creating Layer inception_5b/1x1
I0715 00:34:51.877384 23200 net.cpp:425] inception_5b/1x1 <- inception_5a/output_inception_5a/output_0_split_0
I0715 00:34:51.877394 23200 net.cpp:399] inception_5b/1x1 -> inception_5b/1x1
I0715 00:34:51.881562 23204 net.cpp:141] Setting up inception_5b/3x3_reduce
I0715 00:34:51.881585 23204 net.cpp:148] Top shape: 10 192 7 7 (94080)
I0715 00:34:51.881592 23204 net.cpp:156] Memory required for data: 544660480
I0715 00:34:51.881603 23204 layer_factory.hpp:77] Creating layer inception_5b/relu_3x3_reduce
I0715 00:34:51.881613 23204 net.cpp:91] Creating Layer inception_5b/relu_3x3_reduce
I0715 00:34:51.881619 23204 net.cpp:425] inception_5b/relu_3x3_reduce <- inception_5b/3x3_reduce
I0715 00:34:51.881633 23204 net.cpp:386] inception_5b/relu_3x3_reduce -> inception_5b/3x3_reduce (in-place)
I0715 00:34:51.882958 23204 net.cpp:141] Setting up inception_5b/relu_3x3_reduce
I0715 00:34:51.882977 23204 net.cpp:148] Top shape: 10 192 7 7 (94080)
I0715 00:34:51.882982 23204 net.cpp:156] Memory required for data: 545036800
I0715 00:34:51.882988 23204 layer_factory.hpp:77] Creating layer inception_5b/3x3
I0715 00:34:51.883007 23204 net.cpp:91] Creating Layer inception_5b/3x3
I0715 00:34:51.883013 23204 net.cpp:425] inception_5b/3x3 <- inception_5b/3x3_reduce
I0715 00:34:51.883023 23204 net.cpp:399] inception_5b/3x3 -> inception_5b/3x3
I0715 00:34:51.886878 23200 net.cpp:141] Setting up inception_5b/1x1
I0715 00:34:51.886900 23200 net.cpp:148] Top shape: 10 384 7 7 (188160)
I0715 00:34:51.886906 23200 net.cpp:156] Memory required for data: 543531520
I0715 00:34:51.886917 23200 layer_factory.hpp:77] Creating layer inception_5b/relu_1x1
I0715 00:34:51.886927 23200 net.cpp:91] Creating Layer inception_5b/relu_1x1
I0715 00:34:51.886934 23200 net.cpp:425] inception_5b/relu_1x1 <- inception_5b/1x1
I0715 00:34:51.886945 23200 net.cpp:386] inception_5b/relu_1x1 -> inception_5b/1x1 (in-place)
I0715 00:34:51.887833 23200 net.cpp:141] Setting up inception_5b/relu_1x1
I0715 00:34:51.887851 23200 net.cpp:148] Top shape: 10 384 7 7 (188160)
I0715 00:34:51.887856 23200 net.cpp:156] Memory required for data: 544284160
I0715 00:34:51.887862 23200 layer_factory.hpp:77] Creating layer inception_5b/3x3_reduce
I0715 00:34:51.887879 23200 net.cpp:91] Creating Layer inception_5b/3x3_reduce
I0715 00:34:51.887887 23200 net.cpp:425] inception_5b/3x3_reduce <- inception_5a/output_inception_5a/output_0_split_1
I0715 00:34:51.887899 23200 net.cpp:399] inception_5b/3x3_reduce -> inception_5b/3x3_reduce
I0715 00:34:51.895048 23200 net.cpp:141] Setting up inception_5b/3x3_reduce
I0715 00:34:51.895069 23200 net.cpp:148] Top shape: 10 192 7 7 (94080)
I0715 00:34:51.895076 23200 net.cpp:156] Memory required for data: 544660480
I0715 00:34:51.895086 23200 layer_factory.hpp:77] Creating layer inception_5b/relu_3x3_reduce
I0715 00:34:51.895098 23200 net.cpp:91] Creating Layer inception_5b/relu_3x3_reduce
I0715 00:34:51.895105 23200 net.cpp:425] inception_5b/relu_3x3_reduce <- inception_5b/3x3_reduce
I0715 00:34:51.895113 23200 net.cpp:386] inception_5b/relu_3x3_reduce -> inception_5b/3x3_reduce (in-place)
I0715 00:34:51.896441 23204 net.cpp:141] Setting up inception_5b/3x3
I0715 00:34:51.896448 23200 net.cpp:141] Setting up inception_5b/relu_3x3_reduce
I0715 00:34:51.896461 23204 net.cpp:148] Top shape: 10 384 7 7 (188160)
I0715 00:34:51.896463 23200 net.cpp:148] Top shape: 10 192 7 7 (94080)
I0715 00:34:51.896467 23204 net.cpp:156] Memory required for data: 545789440
I0715 00:34:51.896469 23200 net.cpp:156] Memory required for data: 545036800
I0715 00:34:51.896476 23200 layer_factory.hpp:77] Creating layer inception_5b/3x3
I0715 00:34:51.896479 23204 layer_factory.hpp:77] Creating layer inception_5b/relu_3x3
I0715 00:34:51.896492 23204 net.cpp:91] Creating Layer inception_5b/relu_3x3
I0715 00:34:51.896492 23200 net.cpp:91] Creating Layer inception_5b/3x3
I0715 00:34:51.896499 23204 net.cpp:425] inception_5b/relu_3x3 <- inception_5b/3x3
I0715 00:34:51.896500 23200 net.cpp:425] inception_5b/3x3 <- inception_5b/3x3_reduce
I0715 00:34:51.896512 23204 net.cpp:386] inception_5b/relu_3x3 -> inception_5b/3x3 (in-place)
I0715 00:34:51.896522 23200 net.cpp:399] inception_5b/3x3 -> inception_5b/3x3
I0715 00:34:51.897245 23204 net.cpp:141] Setting up inception_5b/relu_3x3
I0715 00:34:51.897261 23204 net.cpp:148] Top shape: 10 384 7 7 (188160)
I0715 00:34:51.897266 23204 net.cpp:156] Memory required for data: 546542080
I0715 00:34:51.897272 23204 layer_factory.hpp:77] Creating layer inception_5b/5x5_reduce
I0715 00:34:51.897291 23204 net.cpp:91] Creating Layer inception_5b/5x5_reduce
I0715 00:34:51.897299 23204 net.cpp:425] inception_5b/5x5_reduce <- inception_5a/output_inception_5a/output_0_split_2
I0715 00:34:51.897308 23204 net.cpp:399] inception_5b/5x5_reduce -> inception_5b/5x5_reduce
I0715 00:34:51.902417 23204 net.cpp:141] Setting up inception_5b/5x5_reduce
I0715 00:34:51.902439 23204 net.cpp:148] Top shape: 10 48 7 7 (23520)
I0715 00:34:51.902444 23204 net.cpp:156] Memory required for data: 546636160
I0715 00:34:51.902456 23204 layer_factory.hpp:77] Creating layer inception_5b/relu_5x5_reduce
I0715 00:34:51.902464 23204 net.cpp:91] Creating Layer inception_5b/relu_5x5_reduce
I0715 00:34:51.902474 23204 net.cpp:425] inception_5b/relu_5x5_reduce <- inception_5b/5x5_reduce
I0715 00:34:51.902482 23204 net.cpp:386] inception_5b/relu_5x5_reduce -> inception_5b/5x5_reduce (in-place)
I0715 00:34:51.903378 23204 net.cpp:141] Setting up inception_5b/relu_5x5_reduce
I0715 00:34:51.903395 23204 net.cpp:148] Top shape: 10 48 7 7 (23520)
I0715 00:34:51.903401 23204 net.cpp:156] Memory required for data: 546730240
I0715 00:34:51.903406 23204 layer_factory.hpp:77] Creating layer inception_5b/5x5
I0715 00:34:51.903424 23204 net.cpp:91] Creating Layer inception_5b/5x5
I0715 00:34:51.903430 23204 net.cpp:425] inception_5b/5x5 <- inception_5b/5x5_reduce
I0715 00:34:51.903445 23204 net.cpp:399] inception_5b/5x5 -> inception_5b/5x5
I0715 00:34:51.909005 23200 net.cpp:141] Setting up inception_5b/3x3
I0715 00:34:51.909025 23200 net.cpp:148] Top shape: 10 384 7 7 (188160)
I0715 00:34:51.909031 23200 net.cpp:156] Memory required for data: 545789440
I0715 00:34:51.909042 23200 layer_factory.hpp:77] Creating layer inception_5b/relu_3x3
I0715 00:34:51.909063 23200 net.cpp:91] Creating Layer inception_5b/relu_3x3
I0715 00:34:51.909072 23200 net.cpp:425] inception_5b/relu_3x3 <- inception_5b/3x3
I0715 00:34:51.909080 23200 net.cpp:386] inception_5b/relu_3x3 -> inception_5b/3x3 (in-place)
I0715 00:34:51.910286 23200 net.cpp:141] Setting up inception_5b/relu_3x3
I0715 00:34:51.910302 23200 net.cpp:148] Top shape: 10 384 7 7 (188160)
I0715 00:34:51.910307 23200 net.cpp:156] Memory required for data: 546542080
I0715 00:34:51.910312 23200 layer_factory.hpp:77] Creating layer inception_5b/5x5_reduce
I0715 00:34:51.910331 23200 net.cpp:91] Creating Layer inception_5b/5x5_reduce
I0715 00:34:51.910337 23200 net.cpp:425] inception_5b/5x5_reduce <- inception_5a/output_inception_5a/output_0_split_2
I0715 00:34:51.910351 23200 net.cpp:399] inception_5b/5x5_reduce -> inception_5b/5x5_reduce
I0715 00:34:51.911567 23204 net.cpp:141] Setting up inception_5b/5x5
I0715 00:34:51.911588 23204 net.cpp:148] Top shape: 10 128 7 7 (62720)
I0715 00:34:51.911594 23204 net.cpp:156] Memory required for data: 546981120
I0715 00:34:51.911605 23204 layer_factory.hpp:77] Creating layer inception_5b/relu_5x5
I0715 00:34:51.911617 23204 net.cpp:91] Creating Layer inception_5b/relu_5x5
I0715 00:34:51.911624 23204 net.cpp:425] inception_5b/relu_5x5 <- inception_5b/5x5
I0715 00:34:51.911633 23204 net.cpp:386] inception_5b/relu_5x5 -> inception_5b/5x5 (in-place)
I0715 00:34:51.912940 23204 net.cpp:141] Setting up inception_5b/relu_5x5
I0715 00:34:51.912955 23204 net.cpp:148] Top shape: 10 128 7 7 (62720)
I0715 00:34:51.912961 23204 net.cpp:156] Memory required for data: 547232000
I0715 00:34:51.912966 23204 layer_factory.hpp:77] Creating layer inception_5b/pool
I0715 00:34:51.912981 23204 net.cpp:91] Creating Layer inception_5b/pool
I0715 00:34:51.912988 23204 net.cpp:425] inception_5b/pool <- inception_5a/output_inception_5a/output_0_split_3
I0715 00:34:51.912997 23204 net.cpp:399] inception_5b/pool -> inception_5b/pool
I0715 00:34:51.913662 23204 net.cpp:141] Setting up inception_5b/pool
I0715 00:34:51.913676 23204 net.cpp:148] Top shape: 10 832 7 7 (407680)
I0715 00:34:51.913681 23204 net.cpp:156] Memory required for data: 548862720
I0715 00:34:51.913686 23204 layer_factory.hpp:77] Creating layer inception_5b/pool_proj
I0715 00:34:51.913702 23204 net.cpp:91] Creating Layer inception_5b/pool_proj
I0715 00:34:51.913708 23204 net.cpp:425] inception_5b/pool_proj <- inception_5b/pool
I0715 00:34:51.913722 23204 net.cpp:399] inception_5b/pool_proj -> inception_5b/pool_proj
I0715 00:34:51.915323 23200 net.cpp:141] Setting up inception_5b/5x5_reduce
I0715 00:34:51.915343 23200 net.cpp:148] Top shape: 10 48 7 7 (23520)
I0715 00:34:51.915349 23200 net.cpp:156] Memory required for data: 546636160
I0715 00:34:51.915359 23200 layer_factory.hpp:77] Creating layer inception_5b/relu_5x5_reduce
I0715 00:34:51.915371 23200 net.cpp:91] Creating Layer inception_5b/relu_5x5_reduce
I0715 00:34:51.915379 23200 net.cpp:425] inception_5b/relu_5x5_reduce <- inception_5b/5x5_reduce
I0715 00:34:51.915387 23200 net.cpp:386] inception_5b/relu_5x5_reduce -> inception_5b/5x5_reduce (in-place)
I0715 00:34:51.916720 23200 net.cpp:141] Setting up inception_5b/relu_5x5_reduce
I0715 00:34:51.916740 23200 net.cpp:148] Top shape: 10 48 7 7 (23520)
I0715 00:34:51.916745 23200 net.cpp:156] Memory required for data: 546730240
I0715 00:34:51.916751 23200 layer_factory.hpp:77] Creating layer inception_5b/5x5
I0715 00:34:51.916769 23200 net.cpp:91] Creating Layer inception_5b/5x5
I0715 00:34:51.916776 23200 net.cpp:425] inception_5b/5x5 <- inception_5b/5x5_reduce
I0715 00:34:51.916786 23200 net.cpp:399] inception_5b/5x5 -> inception_5b/5x5
I0715 00:34:51.920519 23204 net.cpp:141] Setting up inception_5b/pool_proj
I0715 00:34:51.920541 23204 net.cpp:148] Top shape: 10 128 7 7 (62720)
I0715 00:34:51.920547 23204 net.cpp:156] Memory required for data: 549113600
I0715 00:34:51.920557 23204 layer_factory.hpp:77] Creating layer inception_5b/relu_pool_proj
I0715 00:34:51.920567 23204 net.cpp:91] Creating Layer inception_5b/relu_pool_proj
I0715 00:34:51.920572 23204 net.cpp:425] inception_5b/relu_pool_proj <- inception_5b/pool_proj
I0715 00:34:51.920585 23204 net.cpp:386] inception_5b/relu_pool_proj -> inception_5b/pool_proj (in-place)
I0715 00:34:51.922078 23204 net.cpp:141] Setting up inception_5b/relu_pool_proj
I0715 00:34:51.922094 23204 net.cpp:148] Top shape: 10 128 7 7 (62720)
I0715 00:34:51.922099 23204 net.cpp:156] Memory required for data: 549364480
I0715 00:34:51.922104 23204 layer_factory.hpp:77] Creating layer inception_5b/output
I0715 00:34:51.922116 23204 net.cpp:91] Creating Layer inception_5b/output
I0715 00:34:51.922122 23204 net.cpp:425] inception_5b/output <- inception_5b/1x1
I0715 00:34:51.922130 23204 net.cpp:425] inception_5b/output <- inception_5b/3x3
I0715 00:34:51.922137 23204 net.cpp:425] inception_5b/output <- inception_5b/5x5
I0715 00:34:51.922142 23204 net.cpp:425] inception_5b/output <- inception_5b/pool_proj
I0715 00:34:51.922149 23204 net.cpp:399] inception_5b/output -> inception_5b/output
I0715 00:34:51.922323 23204 net.cpp:141] Setting up inception_5b/output
I0715 00:34:51.922334 23204 net.cpp:148] Top shape: 10 1024 7 7 (501760)
I0715 00:34:51.922339 23204 net.cpp:156] Memory required for data: 551371520
I0715 00:34:51.922344 23204 layer_factory.hpp:77] Creating layer pool5/7x7_s1
I0715 00:34:51.922358 23204 net.cpp:91] Creating Layer pool5/7x7_s1
I0715 00:34:51.922364 23204 net.cpp:425] pool5/7x7_s1 <- inception_5b/output
I0715 00:34:51.922375 23204 net.cpp:399] pool5/7x7_s1 -> pool5/7x7_s1
I0715 00:34:51.923876 23204 net.cpp:141] Setting up pool5/7x7_s1
I0715 00:34:51.923893 23204 net.cpp:148] Top shape: 10 1024 1 1 (10240)
I0715 00:34:51.923899 23204 net.cpp:156] Memory required for data: 551412480
I0715 00:34:51.923904 23204 layer_factory.hpp:77] Creating layer pool5/drop_7x7_s1
I0715 00:34:51.923921 23204 net.cpp:91] Creating Layer pool5/drop_7x7_s1
I0715 00:34:51.923928 23204 net.cpp:425] pool5/drop_7x7_s1 <- pool5/7x7_s1
I0715 00:34:51.923945 23204 net.cpp:386] pool5/drop_7x7_s1 -> pool5/7x7_s1 (in-place)
I0715 00:34:51.923996 23204 net.cpp:141] Setting up pool5/drop_7x7_s1
I0715 00:34:51.924010 23204 net.cpp:148] Top shape: 10 1024 1 1 (10240)
I0715 00:34:51.924015 23204 net.cpp:156] Memory required for data: 551453440
I0715 00:34:51.924020 23204 layer_factory.hpp:77] Creating layer loss3/classifier
I0715 00:34:51.924036 23204 net.cpp:91] Creating Layer loss3/classifier
I0715 00:34:51.924042 23204 net.cpp:425] loss3/classifier <- pool5/7x7_s1
I0715 00:34:51.924054 23204 net.cpp:399] loss3/classifier -> loss3/classifier
I0715 00:34:51.924149 23200 net.cpp:141] Setting up inception_5b/5x5
I0715 00:34:51.924166 23200 net.cpp:148] Top shape: 10 128 7 7 (62720)
I0715 00:34:51.924172 23200 net.cpp:156] Memory required for data: 546981120
I0715 00:34:51.924182 23200 layer_factory.hpp:77] Creating layer inception_5b/relu_5x5
I0715 00:34:51.924195 23200 net.cpp:91] Creating Layer inception_5b/relu_5x5
I0715 00:34:51.924201 23200 net.cpp:425] inception_5b/relu_5x5 <- inception_5b/5x5
I0715 00:34:51.924209 23200 net.cpp:386] inception_5b/relu_5x5 -> inception_5b/5x5 (in-place)
I0715 00:34:51.928292 23200 net.cpp:141] Setting up inception_5b/relu_5x5
I0715 00:34:51.928321 23200 net.cpp:148] Top shape: 10 128 7 7 (62720)
I0715 00:34:51.928328 23200 net.cpp:156] Memory required for data: 547232000
I0715 00:34:51.928334 23200 layer_factory.hpp:77] Creating layer inception_5b/pool
I0715 00:34:51.928345 23200 net.cpp:91] Creating Layer inception_5b/pool
I0715 00:34:51.928352 23200 net.cpp:425] inception_5b/pool <- inception_5a/output_inception_5a/output_0_split_3
I0715 00:34:51.928361 23200 net.cpp:399] inception_5b/pool -> inception_5b/pool
I0715 00:34:51.928443 23200 net.cpp:141] Setting up inception_5b/pool
I0715 00:34:51.928454 23200 net.cpp:148] Top shape: 10 832 7 7 (407680)
I0715 00:34:51.928459 23200 net.cpp:156] Memory required for data: 548862720
I0715 00:34:51.928464 23200 layer_factory.hpp:77] Creating layer inception_5b/pool_proj
I0715 00:34:51.928483 23200 net.cpp:91] Creating Layer inception_5b/pool_proj
I0715 00:34:51.928490 23200 net.cpp:425] inception_5b/pool_proj <- inception_5b/pool
I0715 00:34:51.928503 23200 net.cpp:399] inception_5b/pool_proj -> inception_5b/pool_proj
I0715 00:34:51.932281 23200 net.cpp:141] Setting up inception_5b/pool_proj
I0715 00:34:51.932301 23200 net.cpp:148] Top shape: 10 128 7 7 (62720)
I0715 00:34:51.932307 23200 net.cpp:156] Memory required for data: 549113600
I0715 00:34:51.932318 23200 layer_factory.hpp:77] Creating layer inception_5b/relu_pool_proj
I0715 00:34:51.932332 23200 net.cpp:91] Creating Layer inception_5b/relu_pool_proj
I0715 00:34:51.932339 23200 net.cpp:425] inception_5b/relu_pool_proj <- inception_5b/pool_proj
I0715 00:34:51.932350 23200 net.cpp:386] inception_5b/relu_pool_proj -> inception_5b/pool_proj (in-place)
I0715 00:34:51.932672 23200 net.cpp:141] Setting up inception_5b/relu_pool_proj
I0715 00:34:51.932684 23200 net.cpp:148] Top shape: 10 128 7 7 (62720)
I0715 00:34:51.932689 23200 net.cpp:156] Memory required for data: 549364480
I0715 00:34:51.932695 23200 layer_factory.hpp:77] Creating layer inception_5b/output
I0715 00:34:51.932704 23200 net.cpp:91] Creating Layer inception_5b/output
I0715 00:34:51.932710 23200 net.cpp:425] inception_5b/output <- inception_5b/1x1
I0715 00:34:51.932721 23200 net.cpp:425] inception_5b/output <- inception_5b/3x3
I0715 00:34:51.932729 23200 net.cpp:425] inception_5b/output <- inception_5b/5x5
I0715 00:34:51.932734 23200 net.cpp:425] inception_5b/output <- inception_5b/pool_proj
I0715 00:34:51.932742 23200 net.cpp:399] inception_5b/output -> inception_5b/output
I0715 00:34:51.932788 23200 net.cpp:141] Setting up inception_5b/output
I0715 00:34:51.932798 23200 net.cpp:148] Top shape: 10 1024 7 7 (501760)
I0715 00:34:51.932803 23200 net.cpp:156] Memory required for data: 551371520
I0715 00:34:51.932808 23200 layer_factory.hpp:77] Creating layer pool5/7x7_s1
I0715 00:34:51.932816 23200 net.cpp:91] Creating Layer pool5/7x7_s1
I0715 00:34:51.932822 23200 net.cpp:425] pool5/7x7_s1 <- inception_5b/output
I0715 00:34:51.932833 23200 net.cpp:399] pool5/7x7_s1 -> pool5/7x7_s1
I0715 00:34:51.933949 23200 net.cpp:141] Setting up pool5/7x7_s1
I0715 00:34:51.933967 23200 net.cpp:148] Top shape: 10 1024 1 1 (10240)
I0715 00:34:51.933974 23200 net.cpp:156] Memory required for data: 551412480
I0715 00:34:51.933979 23200 layer_factory.hpp:77] Creating layer pool5/drop_7x7_s1
I0715 00:34:51.933991 23200 net.cpp:91] Creating Layer pool5/drop_7x7_s1
I0715 00:34:51.933997 23200 net.cpp:425] pool5/drop_7x7_s1 <- pool5/7x7_s1
I0715 00:34:51.934005 23200 net.cpp:386] pool5/drop_7x7_s1 -> pool5/7x7_s1 (in-place)
I0715 00:34:51.934042 23200 net.cpp:141] Setting up pool5/drop_7x7_s1
I0715 00:34:51.934051 23200 net.cpp:148] Top shape: 10 1024 1 1 (10240)
I0715 00:34:51.934056 23200 net.cpp:156] Memory required for data: 551453440
I0715 00:34:51.934061 23200 layer_factory.hpp:77] Creating layer loss3/classifier
I0715 00:34:51.934075 23200 net.cpp:91] Creating Layer loss3/classifier
I0715 00:34:51.934082 23200 net.cpp:425] loss3/classifier <- pool5/7x7_s1
I0715 00:34:51.934092 23200 net.cpp:399] loss3/classifier -> loss3/classifier
I0715 00:34:51.939827 23204 net.cpp:141] Setting up loss3/classifier
I0715 00:34:51.939849 23204 net.cpp:148] Top shape: 10 1000 (10000)
I0715 00:34:51.939856 23204 net.cpp:156] Memory required for data: 551493440
I0715 00:34:51.939867 23204 layer_factory.hpp:77] Creating layer prob
I0715 00:34:51.939877 23204 net.cpp:91] Creating Layer prob
I0715 00:34:51.939884 23204 net.cpp:425] prob <- loss3/classifier
I0715 00:34:51.939895 23204 net.cpp:399] prob -> prob
I0715 00:34:51.940376 23204 net.cpp:141] Setting up prob
I0715 00:34:51.940392 23204 net.cpp:148] Top shape: 10 1000 (10000)
I0715 00:34:51.940397 23204 net.cpp:156] Memory required for data: 551533440
I0715 00:34:51.940402 23204 net.cpp:219] prob does not need backward computation.
I0715 00:34:51.940408 23204 net.cpp:219] loss3/classifier does not need backward computation.
I0715 00:34:51.940412 23204 net.cpp:219] pool5/drop_7x7_s1 does not need backward computation.
I0715 00:34:51.940418 23204 net.cpp:219] pool5/7x7_s1 does not need backward computation.
…
