…
Java HotSpot(TM) 64-Bit Server VM warning: You have loaded library /home/peifeng/work/run/storm102/data/workers/60a62214-1cb5-4d8f-84b6-f1df0515dabb/tmp/cvld3275043009279265465/libopencv_java310.xine1.so which might have disabled stack guard. The VM will try to fix the stack guard now.
It's highly recommended that you fix the library with 'execstack -c <libfile>', or link it with '-z noexecstack'.
WARNING: Logging before InitGoogleLogging() is written to STDERR
I0913 17:46:00.229840 15161 net.cpp:49] Initializing net from parameters: 
name: "GoogleNet"
state {
  phase: TEST
}
layer {
  name: "data"
  type: "Input"
  top: "data"
  input_param {
    shape {
      dim: 10
      dim: 3
      dim: 224
      dim: 224
    }
  }
}
layer {
  name: "conv1/7x7_s2"
  type: "Convolution"
  bottom: "data"
  top: "conv1/7x7_s2"
  param {
    lr_mult: 1
    decay_mult: 1
  }
  param {
    lr_mult: 2
    decay_mult: 0
  }
  convolution_param {
    num_output: 64
    pad: 3
    kernel_size: 7
    stride: 2
    weight_filler {
      type: "xavier"
      std: 0.1
    }
    bias_filler {
      type: "constant"
      value: 0.2
    }
  }
}
layer {
  name: "conv1/relu_7x7"
  type: "ReLU"
  bottom: "conv1/7x7_s2"
  top: "conv1/7x7_s2"
}
layer {
  name: "pool1/3x3_s2"
  type: "Pooling"
  bottom: "conv1/7x7_s2"
  top: "pool1/3x3_s2"
  pooling_param {
    pool: MAX
    kernel_size: 3
    stride: 2
  }
}
layer {
  name: "pool1/norm1"
  type: "LRN"
  bottom: "pool1/3x3_s2"
  top: "pool1/norm1"
  lrn_param {
    local_size: 5
    alpha: 0.0001
    beta: 0.75
  }
}
layer {
  name: "conv2/3x3_reduce"
  type: "Convolution"
  bottom: "pool1/norm1"
  top: "conv2/3x3_reduce"
  param {
    lr_mult: 1
    decay_mult: 1
  }
  param {
    lr_mult: 2
    decay_mult: 0
  }
  convolution_param {
    num_output: 64
    kernel_size: 1
    weight_filler {
      type: "xavier"
      std: 0.1
    }
    bias_filler {
      type: "constant"
      value: 0.2
    }
  }
}
layer {
  name: "conv2/relu_3x3_reduce"
  type: "ReLU"
  bottom: "conv2/3x3_reduce"
  top: "conv2/3x3_reduce"
}
layer {
  name: "conv2/3x3"
  type: "Convolution"
  bottom: "conv2/3x3_reduce"
  top: "conv2/3x3"
  param {
    lr_mult: 1
    decay_mult: 1
  }
  param {
    lr_mult: 2
    decay_mult: 0
  }
  convolution_param {
    num_output: 192
    pad: 1
    kernel_size: 3
    weight_filler {
      type: "xavier"
      std: 0.03
    }
    bias_filler {
      type: "constant"
      value: 0.2
    }
  }
}
layer {
  name: "conv2/relu_3x3"
  type: "ReLU"
  bottom: "conv2/3x3"
  top: "conv2/3x3"
}
layer {
  name: "conv2/norm2"
  type: "LRN"
  bottom: "conv2/3x3"
  top: "conv2/norm2"
  lrn_param {
    local_size: 5
    alpha: 0.0001
    beta: 0.75
  }
}
layer {
  name: "pool2/3x3_s2"
  type: "Pooling"
  bottom: "conv2/norm2"
  top: "pool2/3x3_s2"
  pooling_param {
    pool: MAX
    kernel_size: 3
    stride: 2
  }
}
layer {
  name: "inception_3a/1x1"
  type: "Convolution"
  bottom: "pool2/3x3_s2"
  top: "inception_3a/1x1"
  param {
    lr_mult: 1
    decay_mult: 1
  }
  param {
    lr_mult: 2
    decay_mult: 0
  }
  convolution_param {
    num_output: 64
    kernel_size: 1
    weight_filler {
      type: "xavier"
      std: 0.03
    }
    bias_filler {
      type: "constant"
      value: 0.2
    }
  }
}
layer {
  name: "inception_3a/relu_1x1"
  type: "ReLU"
  bottom: "inception_3a/1x1"
  top: "inception_3a/1x1"
}
layer {
  name: "inception_3a/3x3_reduce"
  type: "Convolution"
  bottom: "pool2/3x3_s2"
  top: "inception_3a/3x3_reduce"
  param {
    lr_mult: 1
    decay_mult: 1
  }
  param {
    lr_mult: 2
    decay_mult: 0
  }
  convolution_param {
    num_output: 96
    kernel_size: 1
    weight_filler {
      type: "xavier"
      std: 0.09
    }
    bias_filler {
      type: "constant"
      value: 0.2
    }
  }
}
layer {
  name: "inception_3a/relu_3x3_reduce"
  type: "ReLU"
  bottom: "inception_3a/3x3_reduce"
  top: "inception_3a/3x3_reduce"
}
layer {
  name: "inception_3a/3x3"
  type: "Convolution"
  bottom: "inception_3a/3x3_reduce"
  top: "inception_3a/3x3"
  param {
    lr_mult: 1
    decay_mult: 1
  }
  param {
    lr_mult: 2
    decay_mult: 0
  }
  convolution_param {
    num_output: 128
    pad: 1
    kernel_size: 3
    weight_filler {
      type: "xavier"
      std: 0.03
    }
    bias_filler {
      type: "constant"
      value: 0.2
    }
  }
}
layer {
  name: "inception_3a/relu_3x3"
  type: "ReLU"
  bottom: "inception_3a/3x3"
  top: "inception_3a/3x3"
}
layer {
  name: "inception_3a/5x5_reduce"
  type: "Convolution"
  bottom: "pool2/3x3_s2"
  top: "inception_3a/5x5_reduce"
  param {
    lr_mult: 1
    decay_mult: 1
  }
  param {
    lr_mult: 2
    decay_mult: 0
  }
  convolution_param {
    num_output: 16
    kernel_size: 1
    weight_filler {
      type: "xavier"
      std: 0.2
    }
    bias_filler {
      type: "constant"
      value: 0.2
    }
  }
}
layer {
  name: "inception_3a/relu_5x5_reduce"
  type: "ReLU"
  bottom: "inception_3a/5x5_reduce"
  top: "inception_3a/5x5_reduce"
}
layer {
  name: "inception_3a/5x5"
  type: "Convolution"
  bottom: "inception_3a/5x5_reduce"
  top: "inception_3a/5x5"
  param {
    lr_mult: 1
    decay_mult: 1
  }
  param {
    lr_mult: 2
    decay_mult: 0
  }
  convolution_param {
    num_output: 32
    pad: 2
    kernel_size: 5
    weight_filler {
      type: "xavier"
      std: 0.03
    }
    bias_filler {
      type: "constant"
      value: 0.2
    }
  }
}
layer {
  name: "inception_3a/relu_5x5"
  type: "ReLU"
  bottom: "inception_3a/5x5"
  top: "inception_3a/5x5"
}
layer {
  name: "inception_3a/pool"
  type: "Pooling"
  bottom: "pool2/3x3_s2"
  top: "inception_3a/pool"
  pooling_param {
    pool: MAX
    kernel_size: 3
    stride: 1
    pad: 1
  }
}
layer {
  name: "inception_3a/pool_proj"
  type: "Convolution"
  bottom: "inception_3a/pool"
  top: "inception_3a/pool_proj"
  param {
    lr_mult: 1
    decay_mult: 1
  }
  param {
    lr_mult: 2
    decay_mult: 0
  }
  convolution_param {
    num_output: 32
    kernel_size: 1
    weight_filler {
      type: "xavier"
      std: 0.1
    }
    bias_filler {
      type: "constant"
      value: 0.2
    }
  }
}
layer {
  name: "inception_3a/relu_pool_proj"
  type: "ReLU"
  bottom: "inception_3a/pool_proj"
  top: "inception_3a/pool_proj"
}
layer {
  name: "inception_3a/output"
  type: "Concat"
  bottom: "inception_3a/1x1"
  bottom: "inception_3a/3x3"
  bottom: "inception_3a/5x5"
  bottom: "inception_3a/pool_proj"
  top: "inception_3a/output"
}
layer {
  name: "inception_3b/1x1"
  type: "Convolution"
  bottom: "inception_3a/output"
  top: "inception_3b/1x1"
  param {
    lr_mult: 1
    decay_mult: 1
  }
  param {
    lr_mult: 2
    decay_mult: 0
  }
  convolution_param {
    num_output: 128
    kernel_size: 1
    weight_filler {
      type: "xavier"
      std: 0.03
    }
    bias_filler {
      type: "constant"
      value: 0.2
    }
  }
}
layer {
  name: "inception_3b/relu_1x1"
  type: "ReLU"
  bottom: "inception_3b/1x1"
  top: "inception_3b/1x1"
}
layer {
  name: "inception_3b/3x3_reduce"
  type: "Convolution"
  bottom: "inception_3a/output"
  top: "inception_3b/3x3_reduce"
  param {
    lr_mult: 1
    decay_mult: 1
  }
  param {
    lr_mult: 2
    decay_mult: 0
  }
  convolution_param {
    num_output: 128
    kernel_size: 1
    weight_filler {
      type: "xavier"
      std: 0.09
    }
    bias_filler {
      type: "constant"
      value: 0.2
    }
  }
}
layer {
  name: "inception_3b/relu_3x3_reduce"
  type: "ReLU"
  bottom: "inception_3b/3x3_reduce"
  top: "inception_3b/3x3_reduce"
}
layer {
  name: "inception_3b/3x3"
  type: "Convolution"
  bottom: "inception_3b/3x3_reduce"
  top: "inception_3b/3x3"
  param {
    lr_mult: 1
    decay_mult: 1
  }
  param {
    lr_mult: 2
    decay_mult: 0
  }
  convolution_param {
    num_output: 192
    pad: 1
    kernel_size: 3
    weight_filler {
      type: "xavier"
      std: 0.03
    }
    bias_filler {
      type: "constant"
      value: 0.2
    }
  }
}
layer {
  name: "inception_3b/relu_3x3"
  type: "ReLU"
  bottom: "inception_3b/3x3"
  top: "inception_3b/3x3"
}
layer {
  name: "inception_3b/5x5_reduce"
  type: "Convolution"
  bottom: "inception_3a/output"
  top: "inception_3b/5x5_reduce"
  param {
    lr_mult: 1
    decay_mult: 1
  }
  param {
    lr_mult: 2
    decay_mult: 0
  }
  convolution_param {
    num_output: 32
    kernel_size: 1
    weight_filler {
      type: "xavier"
      std: 0.2
    }
    bias_filler {
      type: "constant"
      value: 0.2
    }
  }
}
layer {
  name: "inception_3b/relu_5x5_reduce"
  type: "ReLU"
  bottom: "inception_3b/5x5_reduce"
  top: "inception_3b/5x5_reduce"
}
layer {
  name: "inception_3b/5x5"
  type: "Convolution"
  bottom: "inception_3b/5x5_reduce"
  top: "inception_3b/5x5"
  param {
    lr_mult: 1
    decay_mult: 1
  }
  param {
    lr_mult: 2
    decay_mult: 0
  }
  convolution_param {
    num_output: 96
    pad: 2
    kernel_size: 5
    weight_filler {
      type: "xavier"
      std: 0.03
    }
    bias_filler {
      type: "constant"
      value: 0.2
    }
  }
}
layer {
  name: "inception_3b/relu_5x5"
  type: "ReLU"
  bottom: "inception_3b/5x5"
  top: "inception_3b/5x5"
}
layer {
  name: "inception_3b/pool"
  type: "Pooling"
  bottom: "inception_3a/output"
  top: "inception_3b/pool"
  pooling_param {
    pool: MAX
    kernel_size: 3
    stride: 1
    pad: 1
  }
}
layer {
  name: "inception_3b/pool_proj"
  type: "Convolution"
  bottom: "inception_3b/pool"
  top: "inception_3b/pool_proj"
  param {
    lr_mult: 1
    decay_mult: 1
  }
  param {
    lr_mult: 2
    decay_mult: 0
  }
  convolution_param {
    num_output: 64
    kernel_size: 1
    weight_filler {
      type: "xavier"
      std: 0.1
    }
    bias_filler {
      type: "constant"
      value: 0.2
    }
  }
}
layer {
  name: "inception_3b/relu_pool_proj"
  type: "ReLU"
  bottom: "inception_3b/pool_proj"
  top: "inception_3b/pool_proj"
}
layer {
  name: "inception_3b/output"
  type: "Concat"
  bottom: "inception_3b/1x1"
  bottom: "inception_3b/3x3"
  bottom: "inception_3b/5x5"
  bottom: "inception_3b/pool_proj"
  top: "inception_3b/output"
}
layer {
  name: "pool3/3x3_s2"
  type: "Pooling"
  bottom: "inception_3b/output"
  top: "pool3/3x3_s2"
  pooling_param {
    pool: MAX
    kernel_size: 3
    stride: 2
  }
}
layer {
  name: "inception_4a/1x1"
  type: "Convolution"
  bottom: "pool3/3x3_s2"
  top: "inception_4a/1x1"
  param {
    lr_mult: 1
    decay_mult: 1
  }
  param {
    lr_mult: 2
    decay_mult: 0
  }
  convolution_param {
    num_output: 192
    kernel_size: 1
    weight_filler {
      type: "xavier"
      std: 0.03
    }
    bias_filler {
      type: "constant"
      value: 0.2
    }
  }
}
layer {
  name: "inception_4a/relu_1x1"
  type: "ReLU"
  bottom: "inception_4a/1x1"
  top: "inception_4a/1x1"
}
layer {
  name: "inception_4a/3x3_reduce"
  type: "Convolution"
  bottom: "pool3/3x3_s2"
  top: "inception_4a/3x3_reduce"
  param {
    lr_mult: 1
    decay_mult: 1
  }
  param {
    lr_mult: 2
    decay_mult: 0
  }
  convolution_param {
    num_output: 96
    kernel_size: 1
    weight_filler {
      type: "xavier"
      std: 0.09
    }
    bias_filler {
      type: "constant"
      value: 0.2
    }
  }
}
layer {
  name: "inception_4a/relu_3x3_reduce"
  type: "ReLU"
  bottom: "inception_4a/3x3_reduce"
  top: "inception_4a/3x3_reduce"
}
layer {
  name: "inception_4a/3x3"
  type: "Convolution"
  bottom: "inception_4a/3x3_reduce"
  top: "inception_4a/3x3"
  param {
    lr_mult: 1
    decay_mult: 1
  }
  param {
    lr_mult: 2
    decay_mult: 0
  }
  convolution_param {
    num_output: 208
    pad: 1
    kernel_size: 3
    weight_filler {
      type: "xavier"
      std: 0.03
    }
    bias_filler {
      type: "constant"
      value: 0.2
    }
  }
}
layer {
  name: "inception_4a/relu_3x3"
  type: "ReLU"
  bottom: "inception_4a/3x3"
  top: "inception_4a/3x3"
}
layer {
  name: "inception_4a/5x5_reduce"
  type: "Convolution"
  bottom: "pool3/3x3_s2"
  top: "inception_4a/5x5_reduce"
  param {
    lr_mult: 1
    decay_mult: 1
  }
  param {
    lr_mult: 2
    decay_mult: 0
  }
  convolution_param {
    num_output: 16
    kernel_size: 1
    weight_filler {
      type: "xavier"
      std: 0.2
    }
    bias_filler {
      type: "constant"
      value: 0.2
    }
  }
}
layer {
  name: "inception_4a/relu_5x5_reduce"
  type: "ReLU"
  bottom: "inception_4a/5x5_reduce"
  top: "inception_4a/5x5_reduce"
}
layer {
  name: "inception_4a/5x5"
  type: "Convolution"
  bottom: "inception_4a/5x5_reduce"
  top: "inception_4a/5x5"
  param {
    lr_mult: 1
    decay_mult: 1
  }
  param {
    lr_mult: 2
    decay_mult: 0
  }
  convolution_param {
    num_output: 48
    pad: 2
    kernel_size: 5
    weight_filler {
      type: "xavier"
      std: 0.03
    }
    bias_filler {
      type: "constant"
      value: 0.2
    }
  }
}
layer {
  name: "inception_4a/relu_5x5"
  type: "ReLU"
  bottom: "inception_4a/5x5"
  top: "inception_4a/5x5"
}
layer {
  name: "inception_4a/pool"
  type: "Pooling"
  bottom: "pool3/3x3_s2"
  top: "inception_4a/pool"
  pooling_param {
    pool: MAX
    kernel_size: 3
    stride: 1
    pad: 1
  }
}
layer {
  name: "inception_4a/pool_proj"
  type: "Convolution"
  bottom: "inception_4a/pool"
  top: "inception_4a/pool_proj"
  param {
    lr_mult: 1
    decay_mult: 1
  }
  param {
    lr_mult: 2
    decay_mult: 0
  }
  convolution_param {
    num_output: 64
    kernel_size: 1
    weight_filler {
      type: "xavier"
      std: 0.1
    }
    bias_filler {
      type: "constant"
      value: 0.2
    }
  }
}
layer {
  name: "inception_4a/relu_pool_proj"
  type: "ReLU"
  bottom: "inception_4a/pool_proj"
  top: "inception_4a/pool_proj"
}
layer {
  name: "inception_4a/output"
  type: "Concat"
  bottom: "inception_4a/1x1"
  bottom: "inception_4a/3x3"
  bottom: "inception_4a/5x5"
  bottom: "inception_4a/pool_proj"
  top: "inception_4a/output"
}
layer {
  name: "inception_4b/1x1"
  type: "Convolution"
  bottom: "inception_4a/output"
  top: "inception_4b/1x1"
  param {
    lr_mult: 1
    decay_mult: 1
  }
  param {
    lr_mult: 2
    decay_mult: 0
  }
  convolution_param {
    num_output: 160
    kernel_size: 1
    weight_filler {
      type: "xavier"
      std: 0.03
    }
    bias_filler {
      type: "constant"
      value: 0.2
    }
  }
}
layer {
  name: "inception_4b/relu_1x1"
  type: "ReLU"
  bottom: "inception_4b/1x1"
  top: "inception_4b/1x1"
}
layer {
  name: "inception_4b/3x3_reduce"
  type: "Convolution"
  bottom: "inception_4a/output"
  top: "inception_4b/3x3_reduce"
  param {
    lr_mult: 1
    decay_mult: 1
  }
  param {
    lr_mult: 2
    decay_mult: 0
  }
  convolution_param {
    num_output: 112
    kernel_size: 1
    weight_filler {
      type: "xavier"
      std: 0.09
    }
    bias_filler {
      type: "constant"
      value: 0.2
    }
  }
}
layer {
  name: "inception_4b/relu_3x3_reduce"
  type: "ReLU"
  bottom: "inception_4b/3x3_reduce"
  top: "inception_4b/3x3_reduce"
}
layer {
  name: "inception_4b/3x3"
  type: "Convolution"
  bottom: "inception_4b/3x3_reduce"
  top: "inception_4b/3x3"
  param {
    lr_mult: 1
    decay_mult: 1
  }
  param {
    lr_mult: 2
    decay_mult: 0
  }
  convolution_param {
    num_output: 224
    pad: 1
    kernel_size: 3
    weight_filler {
      type: "xavier"
      std: 0.03
    }
    bias_filler {
      type: "constant"
      value: 0.2
    }
  }
}
layer {
  name: "inception_4b/relu_3x3"
  type: "ReLU"
  bottom: "inception_4b/3x3"
  top: "inception_4b/3x3"
}
layer {
  name: "inception_4b/5x5_reduce"
  type: "Convolution"
  bottom: "inception_4a/output"
  top: "inception_4b/5x5_reduce"
  param {
    lr_mult: 1
    decay_mult: 1
  }
  param {
    lr_mult: 2
    decay_mult: 0
  }
  convolution_param {
    num_output: 24
    kernel_size: 1
    weight_filler {
      type: "xavier"
      std: 0.2
    }
    bias_filler {
      type: "constant"
      value: 0.2
    }
  }
}
layer {
  name: "inception_4b/relu_5x5_reduce"
  type: "ReLU"
  bottom: "inception_4b/5x5_reduce"
  top: "inception_4b/5x5_reduce"
}
layer {
  name: "inception_4b/5x5"
  type: "Convolution"
  bottom: "inception_4b/5x5_reduce"
  top: "inception_4b/5x5"
  param {
    lr_mult: 1
    decay_mult: 1
  }
  param {
    lr_mult: 2
    decay_mult: 0
  }
  convolution_param {
    num_output: 64
    pad: 2
    kernel_size: 5
    weight_filler {
      type: "xavier"
      std: 0.03
    }
    bias_filler {
      type: "constant"
      value: 0.2
    }
  }
}
layer {
  name: "inception_4b/relu_5x5"
  type: "ReLU"
  bottom: "inception_4b/5x5"
  top: "inception_4b/5x5"
}
layer {
  name: "inception_4b/pool"
  type: "Pooling"
  bottom: "inception_4a/output"
  top: "inception_4b/pool"
  pooling_param {
    pool: MAX
    kernel_size: 3
    stride: 1
    pad: 1
  }
}
layer {
  name: "inception_4b/pool_proj"
  type: "Convolution"
  bottom: "inception_4b/pool"
  top: "inception_4b/pool_proj"
  param {
    lr_mult: 1
    decay_mult: 1
  }
  param {
    lr_mult: 2
    decay_mult: 0
  }
  convolution_param {
    num_output: 64
    kernel_size: 1
    weight_filler {
      type: "xavier"
      std: 0.1
    }
    bias_filler {
      type: "constant"
      value: 0.2
    }
  }
}
layer {
  name: "inception_4b/relu_pool_proj"
  type: "ReLU"
  bottom: "inception_4b/pool_proj"
  top: "inception_4b/pool_proj"
}
layer {
  name: "inception_4b/output"
  type: "Concat"
  bottom: "inception_4b/1x1"
  bottom: "inception_4b/3x3"
  bottom: "inception_4b/5x5"
  bottom: "inception_4b/pool_proj"
  top: "inception_4b/output"
}
layer {
  name: "inception_4c/1x1"
  type: "Convolution"
  bottom: "inception_4b/output"
  top: "inception_4c/1x1"
  param {
    lr_mult: 1
    decay_mult: 1
  }
  param {
    lr_mult: 2
    decay_mult: 0
  }
  convolution_param {
    num_output: 128
    kernel_size: 1
    weight_filler {
      type: "xavier"
      std: 0.03
    }
    bias_filler {
      type: "constant"
      value: 0.2
    }
  }
}
layer {
  name: "inception_4c/relu_1x1"
  type: "ReLU"
  bottom: "inception_4c/1x1"
  top: "inception_4c/1x1"
}
layer {
  name: "inception_4c/3x3_reduce"
  type: "Convolution"
  bottom: "inception_4b/output"
  top: "inception_4c/3x3_reduce"
  param {
    lr_mult: 1
    decay_mult: 1
  }
  param {
    lr_mult: 2
    decay_mult: 0
  }
  convolution_param {
    num_output: 128
    kernel_size: 1
    weight_filler {
      type: "xavier"
      std: 0.09
    }
    bias_filler {
      type: "constant"
      value: 0.2
    }
  }
}
layer {
  name: "inception_4c/relu_3x3_reduce"
  type: "ReLU"
  bottom: "inception_4c/3x3_reduce"
  top: "inception_4c/3x3_reduce"
}
layer {
  name: "inception_4c/3x3"
  type: "Convolution"
  bottom: "inception_4c/3x3_reduce"
  top: "inception_4c/3x3"
  param {
    lr_mult: 1
    decay_mult: 1
  }
  param {
    lr_mult: 2
    decay_mult: 0
  }
  convolution_param {
    num_output: 256
    pad: 1
    kernel_size: 3
    weight_filler {
      type: "xavier"
      std: 0.03
    }
    bias_filler {
      type: "constant"
      value: 0.2
    }
  }
}
layer {
  name: "inception_4c/relu_3x3"
  type: "ReLU"
  bottom: "inception_4c/3x3"
  top: "inception_4c/3x3"
}
layer {
  name: "inception_4c/5x5_reduce"
  type: "Convolution"
  bottom: "inception_4b/output"
  top: "inception_4c/5x5_reduce"
  param {
    lr_mult: 1
    decay_mult: 1
  }
  param {
    lr_mult: 2
    decay_mult: 0
  }
  convolution_param {
    num_output: 24
    kernel_size: 1
    weight_filler {
      type: "xavier"
      std: 0.2
    }
    bias_filler {
      type: "constant"
      value: 0.2
    }
  }
}
layer {
  name: "inception_4c/relu_5x5_reduce"
  type: "ReLU"
  bottom: "inception_4c/5x5_reduce"
  top: "inception_4c/5x5_reduce"
}
layer {
  name: "inception_4c/5x5"
  type: "Convolution"
  bottom: "inception_4c/5x5_reduce"
  top: "inception_4c/5x5"
  param {
    lr_mult: 1
    decay_mult: 1
  }
  param {
    lr_mult: 2
    decay_mult: 0
  }
  convolution_param {
    num_output: 64
    pad: 2
    kernel_size: 5
    weight_filler {
      type: "xavier"
      std: 0.03
    }
    bias_filler {
      type: "constant"
      value: 0.2
    }
  }
}
layer {
  name: "inception_4c/relu_5x5"
  type: "ReLU"
  bottom: "inception_4c/5x5"
  top: "inception_4c/5x5"
}
layer {
  name: "inception_4c/pool"
  type: "Pooling"
  bottom: "inception_4b/output"
  top: "inception_4c/pool"
  pooling_param {
    pool: MAX
    kernel_size: 3
    stride: 1
    pad: 1
  }
}
layer {
  name: "inception_4c/pool_proj"
  type: "Convolution"
  bottom: "inception_4c/pool"
  top: "inception_4c/pool_proj"
  param {
    lr_mult: 1
    decay_mult: 1
  }
  param {
    lr_mult: 2
    decay_mult: 0
  }
  convolution_param {
    num_output: 64
    kernel_size: 1
    weight_filler {
      type: "xavier"
      std: 0.1
    }
    bias_filler {
      type: "constant"
      value: 0.2
    }
  }
}
layer {
  name: "inception_4c/relu_pool_proj"
  type: "ReLU"
  bottom: "inception_4c/pool_proj"
  top: "inception_4c/pool_proj"
}
layer {
  name: "inception_4c/output"
  type: "Concat"
  bottom: "inception_4c/1x1"
  bottom: "inception_4c/3x3"
  bottom: "inception_4c/5x5"
  bottom: "inception_4c/pool_proj"
  top: "inception_4c/output"
}
layer {
  name: "inception_4d/1x1"
  type: "Convolution"
  bottom: "inception_4c/output"
  top: "inception_4d/1x1"
  param {
    lr_mult: 1
    decay_mult: 1
  }
  param {
    lr_mult: 2
    decay_mult: 0
  }
  convolution_param {
    num_output: 112
    kernel_size: 1
    weight_filler {
      type: "xavier"
      std: 0.03
    }
    bias_filler {
      type: "constant"
      value: 0.2
    }
  }
}
layer {
  name: "inception_4d/relu_1x1"
  type: "ReLU"
  bottom: "inception_4d/1x1"
  top: "inception_4d/1x1"
}
layer {
  name: "inception_4d/3x3_reduce"
  type: "Convolution"
  bottom: "inception_4c/output"
  top: "inception_4d/3x3_reduce"
  param {
    lr_mult: 1
    decay_mult: 1
  }
  param {
    lr_mult: 2
    decay_mult: 0
  }
  convolution_param {
    num_output: 144
    kernel_size: 1
    weight_filler {
      type: "xavier"
      std: 0.09
    }
    bias_filler {
      type: "constant"
      value: 0.2
    }
  }
}
layer {
  name: "inception_4d/relu_3x3_reduce"
  type: "ReLU"
  bottom: "inception_4d/3x3_reduce"
  top: "inception_4d/3x3_reduce"
}
layer {
  name: "inception_4d/3x3"
  type: "Convolution"
  bottom: "inception_4d/3x3_reduce"
  top: "inception_4d/3x3"
  param {
    lr_mult: 1
    decay_mult: 1
  }
  param {
    lr_mult: 2
    decay_mult: 0
  }
  convolution_param {
    num_output: 288
    pad: 1
    kernel_size: 3
    weight_filler {
      type: "xavier"
      std: 0.03
    }
    bias_filler {
      type: "constant"
      value: 0.2
    }
  }
}
layer {
  name: "inception_4d/relu_3x3"
  type: "ReLU"
  bottom: "inception_4d/3x3"
  top: "inception_4d/3x3"
}
layer {
  name: "inception_4d/5x5_reduce"
  type: "Convolution"
  bottom: "inception_4c/output"
  top: "inception_4d/5x5_reduce"
  param {
    lr_mult: 1
    decay_mult: 1
  }
  param {
    lr_mult: 2
    decay_mult: 0
  }
  convolution_param {
    num_output: 32
    kernel_size: 1
    weight_filler {
      type: "xavier"
      std: 0.2
    }
    bias_filler {
      type: "constant"
      value: 0.2
    }
  }
}
layer {
  name: "inception_4d/relu_5x5_reduce"
  type: "ReLU"
  bottom: "inception_4d/5x5_reduce"
  top: "inception_4d/5x5_reduce"
}
layer {
  name: "inception_4d/5x5"
  type: "Convolution"
  bottom: "inception_4d/5x5_reduce"
  top: "inception_4d/5x5"
  param {
    lr_mult: 1
    decay_mult: 1
  }
  param {
    lr_mult: 2
    decay_mult: 0
  }
  convolution_param {
    num_output: 64
    pad: 2
    kernel_size: 5
    weight_filler {
      type: "xavier"
      std: 0.03
    }
    bias_filler {
      type: "constant"
      value: 0.2
    }
  }
}
layer {
  name: "inception_4d/relu_5x5"
  type: "ReLU"
  bottom: "inception_4d/5x5"
  top: "inception_4d/5x5"
}
layer {
  name: "inception_4d/pool"
  type: "Pooling"
  bottom: "inception_4c/output"
  top: "inception_4d/pool"
  pooling_param {
    pool: MAX
    kernel_size: 3
    stride: 1
    pad: 1
  }
}
layer {
  name: "inception_4d/pool_proj"
  type: "Convolution"
  bottom: "inception_4d/pool"
  top: "inception_4d/pool_proj"
  param {
    lr_mult: 1
    decay_mult: 1
  }
  param {
    lr_mult: 2
    decay_mult: 0
  }
  convolution_param {
    num_output: 64
    kernel_size: 1
    weight_filler {
      type: "xavier"
      std: 0.1
    }
    bias_filler {
      type: "constant"
      value: 0.2
    }
  }
}
layer {
  name: "inception_4d/relu_pool_proj"
  type: "ReLU"
  bottom: "inception_4d/pool_proj"
  top: "inception_4d/pool_proj"
}
layer {
  name: "inception_4d/output"
  type: "Concat"
  bottom: "inception_4d/1x1"
  bottom: "inception_4d/3x3"
  bottom: "inception_4d/5x5"
  bottom: "inception_4d/pool_proj"
  top: "inception_4d/output"
}
layer {
  name: "inception_4e/1x1"
  type: "Convolution"
  bottom: "inception_4d/output"
  top: "inception_4e/1x1"
  param {
    lr_mult: 1
    decay_mult: 1
  }
  param {
    lr_mult: 2
    decay_mult: 0
  }
  convolution_param {
    num_output: 256
    kernel_size: 1
    weight_filler {
      type: "xavier"
      std: 0.03
    }
    bias_filler {
      type: "constant"
      value: 0.2
    }
  }
}
layer {
  name: "inception_4e/relu_1x1"
  type: "ReLU"
  bottom: "inception_4e/1x1"
  top: "inception_4e/1x1"
}
layer {
  name: "inception_4e/3x3_reduce"
  type: "Convolution"
  bottom: "inception_4d/output"
  top: "inception_4e/3x3_reduce"
  param {
    lr_mult: 1
    decay_mult: 1
  }
  param {
    lr_mult: 2
    decay_mult: 0
  }
  convolution_param {
    num_output: 160
    kernel_size: 1
    weight_filler {
      type: "xavier"
      std: 0.09
    }
    bias_filler {
      type: "constant"
      value: 0.2
    }
  }
}
layer {
  name: "inception_4e/relu_3x3_reduce"
  type: "ReLU"
  bottom: "inception_4e/3x3_reduce"
  top: "inception_4e/3x3_reduce"
}
layer {
  name: "inception_4e/3x3"
  type: "Convolution"
  bottom: "inception_4e/3x3_reduce"
  top: "inception_4e/3x3"
  param {
    lr_mult: 1
    decay_mult: 1
  }
  param {
    lr_mult: 2
    decay_mult: 0
  }
  convolution_param {
    num_output: 320
    pad: 1
    kernel_size: 3
    weight_filler {
      type: "xavier"
      std: 0.03
    }
    bias_filler {
      type: "constant"
      value: 0.2
    }
  }
}
layer {
  name: "inception_4e/relu_3x3"
  type: "ReLU"
  bottom: "inception_4e/3x3"
  top: "inception_4e/3x3"
}
layer {
  name: "inception_4e/5x5_reduce"
  type: "Convolution"
  bottom: "inception_4d/output"
  top: "inception_4e/5x5_reduce"
  param {
    lr_mult: 1
    decay_mult: 1
  }
  param {
    lr_mult: 2
    decay_mult: 0
  }
  convolution_param {
    num_output: 32
    kernel_size: 1
    weight_filler {
      type: "xavier"
      std: 0.2
    }
    bias_filler {
      type: "constant"
      value: 0.2
    }
  }
}
layer {
  name: "inception_4e/relu_5x5_reduce"
  type: "ReLU"
  bottom: "inception_4e/5x5_reduce"
  top: "inception_4e/5x5_reduce"
}
layer {
  name: "inception_4e/5x5"
  type: "Convolution"
  bottom: "inception_4e/5x5_reduce"
  top: "inception_4e/5x5"
  param {
    lr_mult: 1
    decay_mult: 1
  }
  param {
    lr_mult: 2
    decay_mult: 0
  }
  convolution_param {
    num_output: 128
    pad: 2
    kernel_size: 5
    weight_filler {
      type: "xavier"
      std: 0.03
    }
    bias_filler {
      type: "constant"
      value: 0.2
    }
  }
}
layer {
  name: "inception_4e/relu_5x5"
  type: "ReLU"
  bottom: "inception_4e/5x5"
  top: "inception_4e/5x5"
}
layer {
  name: "inception_4e/pool"
  type: "Pooling"
  bottom: "inception_4d/output"
  top: "inception_4e/pool"
  pooling_param {
    pool: MAX
    kernel_size: 3
    stride: 1
    pad: 1
  }
}
layer {
  name: "inception_4e/pool_proj"
  type: "Convolution"
  bottom: "inception_4e/pool"
  top: "inception_4e/pool_proj"
  param {
    lr_mult: 1
    decay_mult: 1
  }
  param {
    lr_mult: 2
    decay_mult: 0
  }
  convolution_param {
    num_output: 128
    kernel_size: 1
    weight_filler {
      type: "xavier"
      std: 0.1
    }
    bias_filler {
      type: "constant"
      value: 0.2
    }
  }
}
layer {
  name: "inception_4e/relu_pool_proj"
  type: "ReLU"
  bottom: "inception_4e/pool_proj"
  top: "inception_4e/pool_proj"
}
layer {
  name: "inception_4e/output"
  type: "Concat"
  bottom: "inception_4e/1x1"
  bottom: "inception_4e/3x3"
  bottom: "inception_4e/5x5"
  bottom: "inception_4e/pool_proj"
  top: "inception_4e/output"
}
layer {
  name: "pool4/3x3_s2"
  type: "Pooling"
  bottom: "inception_4e/output"
  top: "pool4/3x3_s2"
  pooling_param {
    pool: MAX
    kernel_size: 3
    stride: 2
  }
}
layer {
  name: "inception_5a/1x1"
  type: "Convolution"
  bottom: "pool4/3x3_s2"
  top: "inception_5a/1x1"
  param {
    lr_mult: 1
    decay_mult: 1
  }
  param {
    lr_mult: 2
    decay_mult: 0
  }
  convolution_param {
    num_output: 256
    kernel_size: 1
    weight_filler {
      type: "xavier"
      std: 0.03
    }
    bias_filler {
      type: "constant"
      value: 0.2
    }
  }
}
layer {
  name: "inception_5a/relu_1x1"
  type: "ReLU"
  bottom: "inception_5a/1x1"
  top: "inception_5a/1x1"
}
layer {
  name: "inception_5a/3x3_reduce"
  type: "Convolution"
  bottom: "pool4/3x3_s2"
  top: "inception_5a/3x3_reduce"
  param {
    lr_mult: 1
    decay_mult: 1
  }
  param {
    lr_mult: 2
    decay_mult: 0
  }
  convolution_param {
    num_output: 160
    kernel_size: 1
    weight_filler {
      type: "xavier"
      std: 0.09
    }
    bias_filler {
      type: "constant"
      value: 0.2
    }
  }
}
layer {
  name: "inception_5a/relu_3x3_reduce"
  type: "ReLU"
  bottom: "inception_5a/3x3_reduce"
  top: "inception_5a/3x3_reduce"
}
layer {
  name: "inception_5a/3x3"
  type: "Convolution"
  bottom: "inception_5a/3x3_reduce"
  top: "inception_5a/3x3"
  param {
    lr_mult: 1
    decay_mult: 1
  }
  param {
    lr_mult: 2
    decay_mult: 0
  }
  convolution_param {
    num_output: 320
    pad: 1
    kernel_size: 3
    weight_filler {
      type: "xavier"
      std: 0.03
    }
    bias_filler {
      type: "constant"
      value: 0.2
    }
  }
}
layer {
  name: "inception_5a/relu_3x3"
  type: "ReLU"
  bottom: "inception_5a/3x3"
  top: "inception_5a/3x3"
}
layer {
  name: "inception_5a/5x5_reduce"
  type: "Convolution"
  bottom: "pool4/3x3_s2"
  top: "inception_5a/5x5_reduce"
  param {
    lr_mult: 1
    decay_mult: 1
  }
  param {
    lr_mult: 2
    decay_mult: 0
  }
  convolution_param {
    num_output: 32
    kernel_size: 1
    weight_filler {
      type: "xavier"
      std: 0.2
    }
    bias_filler {
      type: "constant"
      value: 0.2
    }
I0913 17:46:00.230794 15161 layer_factory.hpp:77] Creating layer data
I0913 17:46:00.230826 15161 net.cpp:91] Creating Layer data
I0913 17:46:00.230839 15161 net.cpp:399] data -> data
I0913 17:46:00.716986 15161 net.cpp:141] Setting up data
I0913 17:46:00.717052 15161 net.cpp:148] Top shape: 10 3 224 224 (1505280)
I0913 17:46:00.717059 15161 net.cpp:156] Memory required for data: 6021120
I0913 17:46:00.717078 15161 layer_factory.hpp:77] Creating layer conv1/7x7_s2
I0913 17:46:00.717114 15161 net.cpp:91] Creating Layer conv1/7x7_s2
I0913 17:46:00.717123 15161 net.cpp:425] conv1/7x7_s2 <- data
I0913 17:46:00.717138 15161 net.cpp:399] conv1/7x7_s2 -> conv1/7x7_s2
I0913 17:46:00.891659 15161 net.cpp:141] Setting up conv1/7x7_s2
I0913 17:46:00.891703 15161 net.cpp:148] Top shape: 10 64 112 112 (8028160)
I0913 17:46:00.891710 15161 net.cpp:156] Memory required for data: 38133760
I0913 17:46:00.891734 15161 layer_factory.hpp:77] Creating layer conv1/relu_7x7
I0913 17:46:00.891752 15161 net.cpp:91] Creating Layer conv1/relu_7x7
I0913 17:46:00.891759 15161 net.cpp:425] conv1/relu_7x7 <- conv1/7x7_s2
I0913 17:46:00.891767 15161 net.cpp:386] conv1/relu_7x7 -> conv1/7x7_s2 (in-place)
I0913 17:46:00.892146 15161 net.cpp:141] Setting up conv1/relu_7x7
I0913 17:46:00.892160 15161 net.cpp:148] Top shape: 10 64 112 112 (8028160)
I0913 17:46:00.892165 15161 net.cpp:156] Memory required for data: 70246400
I0913 17:46:00.892170 15161 layer_factory.hpp:77] Creating layer pool1/3x3_s2
I0913 17:46:00.892184 15161 net.cpp:91] Creating Layer pool1/3x3_s2
I0913 17:46:00.892189 15161 net.cpp:425] pool1/3x3_s2 <- conv1/7x7_s2
I0913 17:46:00.892195 15161 net.cpp:399] pool1/3x3_s2 -> pool1/3x3_s2
I0913 17:46:00.892262 15161 net.cpp:141] Setting up pool1/3x3_s2
I0913 17:46:00.892272 15161 net.cpp:148] Top shape: 10 64 56 56 (2007040)
I0913 17:46:00.892277 15161 net.cpp:156] Memory required for data: 78274560
I0913 17:46:00.892282 15161 layer_factory.hpp:77] Creating layer pool1/norm1
I0913 17:46:00.892297 15161 net.cpp:91] Creating Layer pool1/norm1
I0913 17:46:00.892303 15161 net.cpp:425] pool1/norm1 <- pool1/3x3_s2
I0913 17:46:00.892310 15161 net.cpp:399] pool1/norm1 -> pool1/norm1
I0913 17:46:00.892549 15161 net.cpp:141] Setting up pool1/norm1
I0913 17:46:00.892560 15161 net.cpp:148] Top shape: 10 64 56 56 (2007040)
I0913 17:46:00.892565 15161 net.cpp:156] Memory required for data: 86302720
I0913 17:46:00.892570 15161 layer_factory.hpp:77] Creating layer conv2/3x3_reduce
I0913 17:46:00.892588 15161 net.cpp:91] Creating Layer conv2/3x3_reduce
I0913 17:46:00.892594 15161 net.cpp:425] conv2/3x3_reduce <- pool1/norm1
I0913 17:46:00.892602 15161 net.cpp:399] conv2/3x3_reduce -> conv2/3x3_reduce
I0913 17:46:00.894567 15161 net.cpp:141] Setting up conv2/3x3_reduce
I0913 17:46:00.894587 15161 net.cpp:148] Top shape: 10 64 56 56 (2007040)
I0913 17:46:00.894593 15161 net.cpp:156] Memory required for data: 94330880
I0913 17:46:00.894604 15161 layer_factory.hpp:77] Creating layer conv2/relu_3x3_reduce
I0913 17:46:00.894614 15161 net.cpp:91] Creating Layer conv2/relu_3x3_reduce
I0913 17:46:00.894619 15161 net.cpp:425] conv2/relu_3x3_reduce <- conv2/3x3_reduce
I0913 17:46:00.894626 15161 net.cpp:386] conv2/relu_3x3_reduce -> conv2/3x3_reduce (in-place)
I0913 17:46:00.894999 15161 net.cpp:141] Setting up conv2/relu_3x3_reduce
I0913 17:46:00.895011 15161 net.cpp:148] Top shape: 10 64 56 56 (2007040)
I0913 17:46:00.895016 15161 net.cpp:156] Memory required for data: 102359040
I0913 17:46:00.895022 15161 layer_factory.hpp:77] Creating layer conv2/3x3
I0913 17:46:00.895036 15161 net.cpp:91] Creating Layer conv2/3x3
I0913 17:46:00.895042 15161 net.cpp:425] conv2/3x3 <- conv2/3x3_reduce
I0913 17:46:00.895051 15161 net.cpp:399] conv2/3x3 -> conv2/3x3
I0913 17:46:00.898114 15161 net.cpp:141] Setting up conv2/3x3
I0913 17:46:00.898133 15161 net.cpp:148] Top shape: 10 192 56 56 (6021120)
I0913 17:46:00.898138 15161 net.cpp:156] Memory required for data: 126443520
I0913 17:46:00.898150 15161 layer_factory.hpp:77] Creating layer conv2/relu_3x3
I0913 17:46:00.898164 15161 net.cpp:91] Creating Layer conv2/relu_3x3
I0913 17:46:00.898170 15161 net.cpp:425] conv2/relu_3x3 <- conv2/3x3
I0913 17:46:00.898176 15161 net.cpp:386] conv2/relu_3x3 -> conv2/3x3 (in-place)
I0913 17:46:00.898411 15161 net.cpp:141] Setting up conv2/relu_3x3
I0913 17:46:00.898422 15161 net.cpp:148] Top shape: 10 192 56 56 (6021120)
I0913 17:46:00.898427 15161 net.cpp:156] Memory required for data: 150528000
I0913 17:46:00.898432 15161 layer_factory.hpp:77] Creating layer conv2/norm2
I0913 17:46:00.898443 15161 net.cpp:91] Creating Layer conv2/norm2
I0913 17:46:00.898448 15161 net.cpp:425] conv2/norm2 <- conv2/3x3
I0913 17:46:00.898455 15161 net.cpp:399] conv2/norm2 -> conv2/norm2
I0913 17:46:00.898879 15161 net.cpp:141] Setting up conv2/norm2
I0913 17:46:00.898890 15161 net.cpp:148] Top shape: 10 192 56 56 (6021120)
I0913 17:46:00.898895 15161 net.cpp:156] Memory required for data: 174612480
I0913 17:46:00.898900 15161 layer_factory.hpp:77] Creating layer pool2/3x3_s2
I0913 17:46:00.898913 15161 net.cpp:91] Creating Layer pool2/3x3_s2
I0913 17:46:00.898919 15161 net.cpp:425] pool2/3x3_s2 <- conv2/norm2
I0913 17:46:00.898928 15161 net.cpp:399] pool2/3x3_s2 -> pool2/3x3_s2
I0913 17:46:00.898973 15161 net.cpp:141] Setting up pool2/3x3_s2
I0913 17:46:00.898983 15161 net.cpp:148] Top shape: 10 192 28 28 (1505280)
I0913 17:46:00.898986 15161 net.cpp:156] Memory required for data: 180633600
I0913 17:46:00.898991 15161 layer_factory.hpp:77] Creating layer pool2/3x3_s2_pool2/3x3_s2_0_split
I0913 17:46:00.899009 15161 net.cpp:91] Creating Layer pool2/3x3_s2_pool2/3x3_s2_0_split
I0913 17:46:00.899014 15161 net.cpp:425] pool2/3x3_s2_pool2/3x3_s2_0_split <- pool2/3x3_s2
I0913 17:46:00.899020 15161 net.cpp:399] pool2/3x3_s2_pool2/3x3_s2_0_split -> pool2/3x3_s2_pool2/3x3_s2_0_split_0
I0913 17:46:00.899029 15161 net.cpp:399] pool2/3x3_s2_pool2/3x3_s2_0_split -> pool2/3x3_s2_pool2/3x3_s2_0_split_1
I0913 17:46:00.899037 15161 net.cpp:399] pool2/3x3_s2_pool2/3x3_s2_0_split -> pool2/3x3_s2_pool2/3x3_s2_0_split_2
I0913 17:46:00.899044 15161 net.cpp:399] pool2/3x3_s2_pool2/3x3_s2_0_split -> pool2/3x3_s2_pool2/3x3_s2_0_split_3
I0913 17:46:00.899128 15161 net.cpp:141] Setting up pool2/3x3_s2_pool2/3x3_s2_0_split
I0913 17:46:00.899139 15161 net.cpp:148] Top shape: 10 192 28 28 (1505280)
I0913 17:46:00.899145 15161 net.cpp:148] Top shape: 10 192 28 28 (1505280)
I0913 17:46:00.899150 15161 net.cpp:148] Top shape: 10 192 28 28 (1505280)
I0913 17:46:00.899155 15161 net.cpp:148] Top shape: 10 192 28 28 (1505280)
I0913 17:46:00.899158 15161 net.cpp:156] Memory required for data: 204718080
I0913 17:46:00.899163 15161 layer_factory.hpp:77] Creating layer inception_3a/1x1
I0913 17:46:00.899179 15161 net.cpp:91] Creating Layer inception_3a/1x1
I0913 17:46:00.899184 15161 net.cpp:425] inception_3a/1x1 <- pool2/3x3_s2_pool2/3x3_s2_0_split_0
I0913 17:46:00.899207 15161 net.cpp:399] inception_3a/1x1 -> inception_3a/1x1
I0913 17:46:00.901140 15161 net.cpp:141] Setting up inception_3a/1x1
I0913 17:46:00.901159 15161 net.cpp:148] Top shape: 10 64 28 28 (501760)
I0913 17:46:00.901163 15161 net.cpp:156] Memory required for data: 206725120
I0913 17:46:00.901172 15161 layer_factory.hpp:77] Creating layer inception_3a/relu_1x1
I0913 17:46:00.901182 15161 net.cpp:91] Creating Layer inception_3a/relu_1x1
I0913 17:46:00.901187 15161 net.cpp:425] inception_3a/relu_1x1 <- inception_3a/1x1
I0913 17:46:00.901198 15161 net.cpp:386] inception_3a/relu_1x1 -> inception_3a/1x1 (in-place)
I0913 17:46:00.901587 15161 net.cpp:141] Setting up inception_3a/relu_1x1
I0913 17:46:00.901600 15161 net.cpp:148] Top shape: 10 64 28 28 (501760)
I0913 17:46:00.901604 15161 net.cpp:156] Memory required for data: 208732160
I0913 17:46:00.901609 15161 layer_factory.hpp:77] Creating layer inception_3a/3x3_reduce
I0913 17:46:00.901626 15161 net.cpp:91] Creating Layer inception_3a/3x3_reduce
I0913 17:46:00.901633 15161 net.cpp:425] inception_3a/3x3_reduce <- pool2/3x3_s2_pool2/3x3_s2_0_split_1
I0913 17:46:00.901643 15161 net.cpp:399] inception_3a/3x3_reduce -> inception_3a/3x3_reduce
I0913 17:46:00.904052 15161 net.cpp:141] Setting up inception_3a/3x3_reduce
I0913 17:46:00.904076 15161 net.cpp:148] Top shape: 10 96 28 28 (752640)
I0913 17:46:00.904083 15161 net.cpp:156] Memory required for data: 211742720
I0913 17:46:00.904100 15161 layer_factory.hpp:77] Creating layer inception_3a/relu_3x3_reduce
I0913 17:46:00.904109 15161 net.cpp:91] Creating Layer inception_3a/relu_3x3_reduce
I0913 17:46:00.904114 15161 net.cpp:425] inception_3a/relu_3x3_reduce <- inception_3a/3x3_reduce
I0913 17:46:00.904124 15161 net.cpp:386] inception_3a/relu_3x3_reduce -> inception_3a/3x3_reduce (in-place)
I0913 17:46:00.904356 15161 net.cpp:141] Setting up inception_3a/relu_3x3_reduce
I0913 17:46:00.904366 15161 net.cpp:148] Top shape: 10 96 28 28 (752640)
I0913 17:46:00.904371 15161 net.cpp:156] Memory required for data: 214753280
I0913 17:46:00.904377 15161 layer_factory.hpp:77] Creating layer inception_3a/3x3
I0913 17:46:00.904402 15161 net.cpp:91] Creating Layer inception_3a/3x3
I0913 17:46:00.904407 15161 net.cpp:425] inception_3a/3x3 <- inception_3a/3x3_reduce
I0913 17:46:00.904417 15161 net.cpp:399] inception_3a/3x3 -> inception_3a/3x3
I0913 17:46:00.906596 15161 net.cpp:141] Setting up inception_3a/3x3
I0913 17:46:00.906617 15161 net.cpp:148] Top shape: 10 128 28 28 (1003520)
I0913 17:46:00.906623 15161 net.cpp:156] Memory required for data: 218767360
I0913 17:46:00.906632 15161 layer_factory.hpp:77] Creating layer inception_3a/relu_3x3
I0913 17:46:00.906644 15161 net.cpp:91] Creating Layer inception_3a/relu_3x3
I0913 17:46:00.906649 15161 net.cpp:425] inception_3a/relu_3x3 <- inception_3a/3x3
I0913 17:46:00.906656 15161 net.cpp:386] inception_3a/relu_3x3 -> inception_3a/3x3 (in-place)
I0913 17:46:00.907040 15161 net.cpp:141] Setting up inception_3a/relu_3x3
I0913 17:46:00.907052 15161 net.cpp:148] Top shape: 10 128 28 28 (1003520)
I0913 17:46:00.907059 15161 net.cpp:156] Memory required for data: 222781440
I0913 17:46:00.907065 15161 layer_factory.hpp:77] Creating layer inception_3a/5x5_reduce
I0913 17:46:00.907078 15161 net.cpp:91] Creating Layer inception_3a/5x5_reduce
I0913 17:46:00.907084 15161 net.cpp:425] inception_3a/5x5_reduce <- pool2/3x3_s2_pool2/3x3_s2_0_split_2
I0913 17:46:00.907096 15161 net.cpp:399] inception_3a/5x5_reduce -> inception_3a/5x5_reduce
I0913 17:46:00.908311 15161 net.cpp:141] Setting up inception_3a/5x5_reduce
I0913 17:46:00.908331 15161 net.cpp:148] Top shape: 10 16 28 28 (125440)
I0913 17:46:00.908336 15161 net.cpp:156] Memory required for data: 223283200
I0913 17:46:00.908345 15161 layer_factory.hpp:77] Creating layer inception_3a/relu_5x5_reduce
I0913 17:46:00.908354 15161 net.cpp:91] Creating Layer inception_3a/relu_5x5_reduce
I0913 17:46:00.908360 15161 net.cpp:425] inception_3a/relu_5x5_reduce <- inception_3a/5x5_reduce
I0913 17:46:00.908367 15161 net.cpp:386] inception_3a/relu_5x5_reduce -> inception_3a/5x5_reduce (in-place)
I0913 17:46:00.908766 15161 net.cpp:141] Setting up inception_3a/relu_5x5_reduce
I0913 17:46:00.908778 15161 net.cpp:148] Top shape: 10 16 28 28 (125440)
I0913 17:46:00.908783 15161 net.cpp:156] Memory required for data: 223784960
I0913 17:46:00.908788 15161 layer_factory.hpp:77] Creating layer inception_3a/5x5
I0913 17:46:00.908805 15161 net.cpp:91] Creating Layer inception_3a/5x5
I0913 17:46:00.908812 15161 net.cpp:425] inception_3a/5x5 <- inception_3a/5x5_reduce
I0913 17:46:00.908823 15161 net.cpp:399] inception_3a/5x5 -> inception_3a/5x5
I0913 17:46:00.911365 15161 net.cpp:141] Setting up inception_3a/5x5
I0913 17:46:00.911417 15161 net.cpp:148] Top shape: 10 32 28 28 (250880)
I0913 17:46:00.911423 15161 net.cpp:156] Memory required for data: 224788480
I0913 17:46:00.911442 15161 layer_factory.hpp:77] Creating layer inception_3a/relu_5x5
I0913 17:46:00.911461 15161 net.cpp:91] Creating Layer inception_3a/relu_5x5
I0913 17:46:00.911470 15161 net.cpp:425] inception_3a/relu_5x5 <- inception_3a/5x5
I0913 17:46:00.911486 15161 net.cpp:386] inception_3a/relu_5x5 -> inception_3a/5x5 (in-place)
I0913 17:46:00.911761 15161 net.cpp:141] Setting up inception_3a/relu_5x5
I0913 17:46:00.911777 15161 net.cpp:148] Top shape: 10 32 28 28 (250880)
I0913 17:46:00.911782 15161 net.cpp:156] Memory required for data: 225792000
I0913 17:46:00.911787 15161 layer_factory.hpp:77] Creating layer inception_3a/pool
I0913 17:46:00.911800 15161 net.cpp:91] Creating Layer inception_3a/pool
I0913 17:46:00.911808 15161 net.cpp:425] inception_3a/pool <- pool2/3x3_s2_pool2/3x3_s2_0_split_3
I0913 17:46:00.911815 15161 net.cpp:399] inception_3a/pool -> inception_3a/pool
I0913 17:46:00.911885 15161 net.cpp:141] Setting up inception_3a/pool
I0913 17:46:00.911896 15161 net.cpp:148] Top shape: 10 192 28 28 (1505280)
I0913 17:46:00.911901 15161 net.cpp:156] Memory required for data: 231813120
I0913 17:46:00.911906 15161 layer_factory.hpp:77] Creating layer inception_3a/pool_proj
I0913 17:46:00.911949 15161 net.cpp:91] Creating Layer inception_3a/pool_proj
I0913 17:46:00.911959 15161 net.cpp:425] inception_3a/pool_proj <- inception_3a/pool
I0913 17:46:00.911972 15161 net.cpp:399] inception_3a/pool_proj -> inception_3a/pool_proj
I0913 17:46:00.913563 15161 net.cpp:141] Setting up inception_3a/pool_proj
I0913 17:46:00.913584 15161 net.cpp:148] Top shape: 10 32 28 28 (250880)
I0913 17:46:00.913590 15161 net.cpp:156] Memory required for data: 232816640
I0913 17:46:00.913611 15161 layer_factory.hpp:77] Creating layer inception_3a/relu_pool_proj
I0913 17:46:00.913625 15161 net.cpp:91] Creating Layer inception_3a/relu_pool_proj
I0913 17:46:00.913630 15161 net.cpp:425] inception_3a/relu_pool_proj <- inception_3a/pool_proj
I0913 17:46:00.913640 15161 net.cpp:386] inception_3a/relu_pool_proj -> inception_3a/pool_proj (in-place)
I0913 17:46:00.914070 15161 net.cpp:141] Setting up inception_3a/relu_pool_proj
I0913 17:46:00.914085 15161 net.cpp:148] Top shape: 10 32 28 28 (250880)
I0913 17:46:00.914090 15161 net.cpp:156] Memory required for data: 233820160
I0913 17:46:00.914096 15161 layer_factory.hpp:77] Creating layer inception_3a/output
I0913 17:46:00.914124 15161 net.cpp:91] Creating Layer inception_3a/output
I0913 17:46:00.914131 15161 net.cpp:425] inception_3a/output <- inception_3a/1x1
I0913 17:46:00.914139 15161 net.cpp:425] inception_3a/output <- inception_3a/3x3
I0913 17:46:00.914145 15161 net.cpp:425] inception_3a/output <- inception_3a/5x5
I0913 17:46:00.914151 15161 net.cpp:425] inception_3a/output <- inception_3a/pool_proj
I0913 17:46:00.914158 15161 net.cpp:399] inception_3a/output -> inception_3a/output
I0913 17:46:00.914206 15161 net.cpp:141] Setting up inception_3a/output
I0913 17:46:00.914217 15161 net.cpp:148] Top shape: 10 256 28 28 (2007040)
I0913 17:46:00.914222 15161 net.cpp:156] Memory required for data: 241848320
I0913 17:46:00.914227 15161 layer_factory.hpp:77] Creating layer inception_3a/output_inception_3a/output_0_split
I0913 17:46:00.914237 15161 net.cpp:91] Creating Layer inception_3a/output_inception_3a/output_0_split
I0913 17:46:00.914242 15161 net.cpp:425] inception_3a/output_inception_3a/output_0_split <- inception_3a/output
I0913 17:46:00.914252 15161 net.cpp:399] inception_3a/output_inception_3a/output_0_split -> inception_3a/output_inception_3a/output_0_split_0
I0913 17:46:00.914263 15161 net.cpp:399] inception_3a/output_inception_3a/output_0_split -> inception_3a/output_inception_3a/output_0_split_1
I0913 17:46:00.914271 15161 net.cpp:399] inception_3a/output_inception_3a/output_0_split -> inception_3a/output_inception_3a/output_0_split_2
I0913 17:46:00.914280 15161 net.cpp:399] inception_3a/output_inception_3a/output_0_split -> inception_3a/output_inception_3a/output_0_split_3
I0913 17:46:00.914366 15161 net.cpp:141] Setting up inception_3a/output_inception_3a/output_0_split
I0913 17:46:00.914378 15161 net.cpp:148] Top shape: 10 256 28 28 (2007040)
I0913 17:46:00.914386 15161 net.cpp:148] Top shape: 10 256 28 28 (2007040)
I0913 17:46:00.914391 15161 net.cpp:148] Top shape: 10 256 28 28 (2007040)
I0913 17:46:00.914397 15161 net.cpp:148] Top shape: 10 256 28 28 (2007040)
I0913 17:46:00.914402 15161 net.cpp:156] Memory required for data: 273960960
I0913 17:46:00.914407 15161 layer_factory.hpp:77] Creating layer inception_3b/1x1
I0913 17:46:00.914423 15161 net.cpp:91] Creating Layer inception_3b/1x1
I0913 17:46:00.914430 15161 net.cpp:425] inception_3b/1x1 <- inception_3a/output_inception_3a/output_0_split_0
I0913 17:46:00.914440 15161 net.cpp:399] inception_3b/1x1 -> inception_3b/1x1
I0913 17:46:00.916436 15161 net.cpp:141] Setting up inception_3b/1x1
I0913 17:46:00.916456 15161 net.cpp:148] Top shape: 10 128 28 28 (1003520)
I0913 17:46:00.916462 15161 net.cpp:156] Memory required for data: 277975040
I0913 17:46:00.916472 15161 layer_factory.hpp:77] Creating layer inception_3b/relu_1x1
I0913 17:46:00.916481 15161 net.cpp:91] Creating Layer inception_3b/relu_1x1
I0913 17:46:00.916487 15161 net.cpp:425] inception_3b/relu_1x1 <- inception_3b/1x1
I0913 17:46:00.916496 15161 net.cpp:386] inception_3b/relu_1x1 -> inception_3b/1x1 (in-place)
I0913 17:46:00.917161 15161 net.cpp:141] Setting up inception_3b/relu_1x1
I0913 17:46:00.917187 15161 net.cpp:148] Top shape: 10 128 28 28 (1003520)
I0913 17:46:00.917196 15161 net.cpp:156] Memory required for data: 281989120
I0913 17:46:00.917207 15161 layer_factory.hpp:77] Creating layer inception_3b/3x3_reduce
I0913 17:46:00.917237 15161 net.cpp:91] Creating Layer inception_3b/3x3_reduce
I0913 17:46:00.917249 15161 net.cpp:425] inception_3b/3x3_reduce <- inception_3a/output_inception_3a/output_0_split_1
I0913 17:46:00.917271 15161 net.cpp:399] inception_3b/3x3_reduce -> inception_3b/3x3_reduce
I0913 17:46:00.920354 15161 net.cpp:141] Setting up inception_3b/3x3_reduce
I0913 17:46:00.920387 15161 net.cpp:148] Top shape: 10 128 28 28 (1003520)
I0913 17:46:00.920397 15161 net.cpp:156] Memory required for data: 286003200
I0913 17:46:00.920415 15161 layer_factory.hpp:77] Creating layer inception_3b/relu_3x3_reduce
I0913 17:46:00.920433 15161 net.cpp:91] Creating Layer inception_3b/relu_3x3_reduce
I0913 17:46:00.920444 15161 net.cpp:425] inception_3b/relu_3x3_reduce <- inception_3b/3x3_reduce
I0913 17:46:00.920464 15161 net.cpp:386] inception_3b/relu_3x3_reduce -> inception_3b/3x3_reduce (in-place)
I0913 17:46:00.920918 15161 net.cpp:141] Setting up inception_3b/relu_3x3_reduce
I0913 17:46:00.920944 15161 net.cpp:148] Top shape: 10 128 28 28 (1003520)
I0913 17:46:00.920953 15161 net.cpp:156] Memory required for data: 290017280
I0913 17:46:00.920964 15161 layer_factory.hpp:77] Creating layer inception_3b/3x3
I0913 17:46:00.920994 15161 net.cpp:91] Creating Layer inception_3b/3x3
I0913 17:46:00.921005 15161 net.cpp:425] inception_3b/3x3 <- inception_3b/3x3_reduce
I0913 17:46:00.921026 15161 net.cpp:399] inception_3b/3x3 -> inception_3b/3x3
I0913 17:46:00.925899 15161 net.cpp:141] Setting up inception_3b/3x3
I0913 17:46:00.925938 15161 net.cpp:148] Top shape: 10 192 28 28 (1505280)
I0913 17:46:00.925948 15161 net.cpp:156] Memory required for data: 296038400
I0913 17:46:00.925967 15161 layer_factory.hpp:77] Creating layer inception_3b/relu_3x3
I0913 17:46:00.925993 15161 net.cpp:91] Creating Layer inception_3b/relu_3x3
I0913 17:46:00.926002 15161 net.cpp:425] inception_3b/relu_3x3 <- inception_3b/3x3
I0913 17:46:00.926012 15161 net.cpp:386] inception_3b/relu_3x3 -> inception_3b/3x3 (in-place)
I0913 17:46:00.926416 15161 net.cpp:141] Setting up inception_3b/relu_3x3
I0913 17:46:00.926430 15161 net.cpp:148] Top shape: 10 192 28 28 (1505280)
I0913 17:46:00.926434 15161 net.cpp:156] Memory required for data: 302059520
I0913 17:46:00.926440 15161 layer_factory.hpp:77] Creating layer inception_3b/5x5_reduce
I0913 17:46:00.926461 15161 net.cpp:91] Creating Layer inception_3b/5x5_reduce
I0913 17:46:00.926467 15161 net.cpp:425] inception_3b/5x5_reduce <- inception_3a/output_inception_3a/output_0_split_2
I0913 17:46:00.926477 15161 net.cpp:399] inception_3b/5x5_reduce -> inception_3b/5x5_reduce
I0913 17:46:00.927770 15161 net.cpp:141] Setting up inception_3b/5x5_reduce
I0913 17:46:00.927788 15161 net.cpp:148] Top shape: 10 32 28 28 (250880)
I0913 17:46:00.927793 15161 net.cpp:156] Memory required for data: 303063040
I0913 17:46:00.927803 15161 layer_factory.hpp:77] Creating layer inception_3b/relu_5x5_reduce
I0913 17:46:00.927811 15161 net.cpp:91] Creating Layer inception_3b/relu_5x5_reduce
I0913 17:46:00.927817 15161 net.cpp:425] inception_3b/relu_5x5_reduce <- inception_3b/5x5_reduce
I0913 17:46:00.927824 15161 net.cpp:386] inception_3b/relu_5x5_reduce -> inception_3b/5x5_reduce (in-place)
I0913 17:46:00.928236 15161 net.cpp:141] Setting up inception_3b/relu_5x5_reduce
I0913 17:46:00.928249 15161 net.cpp:148] Top shape: 10 32 28 28 (250880)
I0913 17:46:00.928254 15161 net.cpp:156] Memory required for data: 304066560
I0913 17:46:00.928261 15161 layer_factory.hpp:77] Creating layer inception_3b/5x5
I0913 17:46:00.928278 15161 net.cpp:91] Creating Layer inception_3b/5x5
I0913 17:46:00.928284 15161 net.cpp:425] inception_3b/5x5 <- inception_3b/5x5_reduce
I0913 17:46:00.928297 15161 net.cpp:399] inception_3b/5x5 -> inception_3b/5x5
I0913 17:46:00.931030 15161 net.cpp:141] Setting up inception_3b/5x5
I0913 17:46:00.931052 15161 net.cpp:148] Top shape: 10 96 28 28 (752640)
I0913 17:46:00.931057 15161 net.cpp:156] Memory required for data: 307077120
I0913 17:46:00.931067 15161 layer_factory.hpp:77] Creating layer inception_3b/relu_5x5
I0913 17:46:00.931077 15161 net.cpp:91] Creating Layer inception_3b/relu_5x5
I0913 17:46:00.931083 15161 net.cpp:425] inception_3b/relu_5x5 <- inception_3b/5x5
I0913 17:46:00.931090 15161 net.cpp:386] inception_3b/relu_5x5 -> inception_3b/5x5 (in-place)
I0913 17:46:00.931318 15161 net.cpp:141] Setting up inception_3b/relu_5x5
I0913 17:46:00.931329 15161 net.cpp:148] Top shape: 10 96 28 28 (752640)
I0913 17:46:00.931334 15161 net.cpp:156] Memory required for data: 310087680
I0913 17:46:00.931342 15161 layer_factory.hpp:77] Creating layer inception_3b/pool
I0913 17:46:00.931362 15161 net.cpp:91] Creating Layer inception_3b/pool
I0913 17:46:00.931370 15161 net.cpp:425] inception_3b/pool <- inception_3a/output_inception_3a/output_0_split_3
I0913 17:46:00.931377 15161 net.cpp:399] inception_3b/pool -> inception_3b/pool
I0913 17:46:00.931443 15161 net.cpp:141] Setting up inception_3b/pool
I0913 17:46:00.931453 15161 net.cpp:148] Top shape: 10 256 28 28 (2007040)
I0913 17:46:00.931457 15161 net.cpp:156] Memory required for data: 318115840
I0913 17:46:00.931463 15161 layer_factory.hpp:77] Creating layer inception_3b/pool_proj
I0913 17:46:00.931479 15161 net.cpp:91] Creating Layer inception_3b/pool_proj
I0913 17:46:00.931485 15161 net.cpp:425] inception_3b/pool_proj <- inception_3b/pool
I0913 17:46:00.931495 15161 net.cpp:399] inception_3b/pool_proj -> inception_3b/pool_proj
I0913 17:46:00.933032 15161 net.cpp:141] Setting up inception_3b/pool_proj
I0913 17:46:00.933049 15161 net.cpp:148] Top shape: 10 64 28 28 (501760)
I0913 17:46:00.933054 15161 net.cpp:156] Memory required for data: 320122880
I0913 17:46:00.933064 15161 layer_factory.hpp:77] Creating layer inception_3b/relu_pool_proj
I0913 17:46:00.933073 15161 net.cpp:91] Creating Layer inception_3b/relu_pool_proj
I0913 17:46:00.933079 15161 net.cpp:425] inception_3b/relu_pool_proj <- inception_3b/pool_proj
I0913 17:46:00.933090 15161 net.cpp:386] inception_3b/relu_pool_proj -> inception_3b/pool_proj (in-place)
I0913 17:46:00.933485 15161 net.cpp:141] Setting up inception_3b/relu_pool_proj
I0913 17:46:00.933501 15161 net.cpp:148] Top shape: 10 64 28 28 (501760)
I0913 17:46:00.933509 15161 net.cpp:156] Memory required for data: 322129920
I0913 17:46:00.933518 15161 layer_factory.hpp:77] Creating layer inception_3b/output
I0913 17:46:00.933528 15161 net.cpp:91] Creating Layer inception_3b/output
I0913 17:46:00.933534 15161 net.cpp:425] inception_3b/output <- inception_3b/1x1
I0913 17:46:00.933540 15161 net.cpp:425] inception_3b/output <- inception_3b/3x3
I0913 17:46:00.933545 15161 net.cpp:425] inception_3b/output <- inception_3b/5x5
I0913 17:46:00.933552 15161 net.cpp:425] inception_3b/output <- inception_3b/pool_proj
I0913 17:46:00.933562 15161 net.cpp:399] inception_3b/output -> inception_3b/output
I0913 17:46:00.933604 15161 net.cpp:141] Setting up inception_3b/output
I0913 17:46:00.933614 15161 net.cpp:148] Top shape: 10 480 28 28 (3763200)
I0913 17:46:00.933619 15161 net.cpp:156] Memory required for data: 337182720
I0913 17:46:00.933624 15161 layer_factory.hpp:77] Creating layer pool3/3x3_s2
I0913 17:46:00.933631 15161 net.cpp:91] Creating Layer pool3/3x3_s2
I0913 17:46:00.933636 15161 net.cpp:425] pool3/3x3_s2 <- inception_3b/output
I0913 17:46:00.933646 15161 net.cpp:399] pool3/3x3_s2 -> pool3/3x3_s2
I0913 17:46:00.933707 15161 net.cpp:141] Setting up pool3/3x3_s2
I0913 17:46:00.933717 15161 net.cpp:148] Top shape: 10 480 14 14 (940800)
I0913 17:46:00.933722 15161 net.cpp:156] Memory required for data: 340945920
I0913 17:46:00.933727 15161 layer_factory.hpp:77] Creating layer pool3/3x3_s2_pool3/3x3_s2_0_split
I0913 17:46:00.933735 15161 net.cpp:91] Creating Layer pool3/3x3_s2_pool3/3x3_s2_0_split
I0913 17:46:00.933740 15161 net.cpp:425] pool3/3x3_s2_pool3/3x3_s2_0_split <- pool3/3x3_s2
I0913 17:46:00.933749 15161 net.cpp:399] pool3/3x3_s2_pool3/3x3_s2_0_split -> pool3/3x3_s2_pool3/3x3_s2_0_split_0
I0913 17:46:00.933758 15161 net.cpp:399] pool3/3x3_s2_pool3/3x3_s2_0_split -> pool3/3x3_s2_pool3/3x3_s2_0_split_1
I0913 17:46:00.933765 15161 net.cpp:399] pool3/3x3_s2_pool3/3x3_s2_0_split -> pool3/3x3_s2_pool3/3x3_s2_0_split_2
I0913 17:46:00.933773 15161 net.cpp:399] pool3/3x3_s2_pool3/3x3_s2_0_split -> pool3/3x3_s2_pool3/3x3_s2_0_split_3
I0913 17:46:00.933845 15161 net.cpp:141] Setting up pool3/3x3_s2_pool3/3x3_s2_0_split
I0913 17:46:00.933856 15161 net.cpp:148] Top shape: 10 480 14 14 (940800)
I0913 17:46:00.933862 15161 net.cpp:148] Top shape: 10 480 14 14 (940800)
I0913 17:46:00.933867 15161 net.cpp:148] Top shape: 10 480 14 14 (940800)
I0913 17:46:00.933872 15161 net.cpp:148] Top shape: 10 480 14 14 (940800)
I0913 17:46:00.933876 15161 net.cpp:156] Memory required for data: 355998720
I0913 17:46:00.933881 15161 layer_factory.hpp:77] Creating layer inception_4a/1x1
I0913 17:46:00.933897 15161 net.cpp:91] Creating Layer inception_4a/1x1
I0913 17:46:00.933903 15161 net.cpp:425] inception_4a/1x1 <- pool3/3x3_s2_pool3/3x3_s2_0_split_0
I0913 17:46:00.933912 15161 net.cpp:399] inception_4a/1x1 -> inception_4a/1x1
I0913 17:46:00.936097 15161 net.cpp:141] Setting up inception_4a/1x1
I0913 17:46:00.936120 15161 net.cpp:148] Top shape: 10 192 14 14 (376320)
I0913 17:46:00.936130 15161 net.cpp:156] Memory required for data: 357504000
I0913 17:46:00.936146 15161 layer_factory.hpp:77] Creating layer inception_4a/relu_1x1
I0913 17:46:00.936166 15161 net.cpp:91] Creating Layer inception_4a/relu_1x1
I0913 17:46:00.936177 15161 net.cpp:425] inception_4a/relu_1x1 <- inception_4a/1x1
I0913 17:46:00.936189 15161 net.cpp:386] inception_4a/relu_1x1 -> inception_4a/1x1 (in-place)
I0913 17:46:00.936820 15161 net.cpp:141] Setting up inception_4a/relu_1x1
I0913 17:46:00.936838 15161 net.cpp:148] Top shape: 10 192 14 14 (376320)
I0913 17:46:00.936849 15161 net.cpp:156] Memory required for data: 359009280
I0913 17:46:00.936859 15161 layer_factory.hpp:77] Creating layer inception_4a/3x3_reduce
I0913 17:46:00.936890 15161 net.cpp:91] Creating Layer inception_4a/3x3_reduce
I0913 17:46:00.936904 15161 net.cpp:425] inception_4a/3x3_reduce <- pool3/3x3_s2_pool3/3x3_s2_0_split_1
I0913 17:46:00.936923 15161 net.cpp:399] inception_4a/3x3_reduce -> inception_4a/3x3_reduce
I0913 17:46:00.938902 15161 net.cpp:141] Setting up inception_4a/3x3_reduce
I0913 17:46:00.938926 15161 net.cpp:148] Top shape: 10 96 14 14 (188160)
I0913 17:46:00.938931 15161 net.cpp:156] Memory required for data: 359761920
I0913 17:46:00.938961 15161 layer_factory.hpp:77] Creating layer inception_4a/relu_3x3_reduce
I0913 17:46:00.938977 15161 net.cpp:91] Creating Layer inception_4a/relu_3x3_reduce
I0913 17:46:00.938987 15161 net.cpp:425] inception_4a/relu_3x3_reduce <- inception_4a/3x3_reduce
I0913 17:46:00.939004 15161 net.cpp:386] inception_4a/relu_3x3_reduce -> inception_4a/3x3_reduce (in-place)
I0913 17:46:00.939316 15161 net.cpp:141] Setting up inception_4a/relu_3x3_reduce
I0913 17:46:00.939335 15161 net.cpp:148] Top shape: 10 96 14 14 (188160)
I0913 17:46:00.939342 15161 net.cpp:156] Memory required for data: 360514560
I0913 17:46:00.939350 15161 layer_factory.hpp:77] Creating layer inception_4a/3x3
I0913 17:46:00.939373 15161 net.cpp:91] Creating Layer inception_4a/3x3
I0913 17:46:00.939383 15161 net.cpp:425] inception_4a/3x3 <- inception_4a/3x3_reduce
I0913 17:46:00.939396 15161 net.cpp:399] inception_4a/3x3 -> inception_4a/3x3
I0913 17:46:00.943558 15161 net.cpp:141] Setting up inception_4a/3x3
I0913 17:46:00.943581 15161 net.cpp:148] Top shape: 10 208 14 14 (407680)
I0913 17:46:00.943593 15161 net.cpp:156] Memory required for data: 362145280
I0913 17:46:00.943614 15161 layer_factory.hpp:77] Creating layer inception_4a/relu_3x3
I0913 17:46:00.943634 15161 net.cpp:91] Creating Layer inception_4a/relu_3x3
I0913 17:46:00.943645 15161 net.cpp:425] inception_4a/relu_3x3 <- inception_4a/3x3
I0913 17:46:00.943656 15161 net.cpp:386] inception_4a/relu_3x3 -> inception_4a/3x3 (in-place)
I0913 17:46:00.944281 15161 net.cpp:141] Setting up inception_4a/relu_3x3
I0913 17:46:00.944305 15161 net.cpp:148] Top shape: 10 208 14 14 (407680)
I0913 17:46:00.944316 15161 net.cpp:156] Memory required for data: 363776000
I0913 17:46:00.944326 15161 layer_factory.hpp:77] Creating layer inception_4a/5x5_reduce
I0913 17:46:00.944353 15161 net.cpp:91] Creating Layer inception_4a/5x5_reduce
I0913 17:46:00.944370 15161 net.cpp:425] inception_4a/5x5_reduce <- pool3/3x3_s2_pool3/3x3_s2_0_split_2
I0913 17:46:00.944388 15161 net.cpp:399] inception_4a/5x5_reduce -> inception_4a/5x5_reduce
I0913 17:46:00.946518 15161 net.cpp:141] Setting up inception_4a/5x5_reduce
I0913 17:46:00.946543 15161 net.cpp:148] Top shape: 10 16 14 14 (31360)
I0913 17:46:00.946553 15161 net.cpp:156] Memory required for data: 363901440
I0913 17:46:00.946573 15161 layer_factory.hpp:77] Creating layer inception_4a/relu_5x5_reduce
I0913 17:46:00.946588 15161 net.cpp:91] Creating Layer inception_4a/relu_5x5_reduce
I0913 17:46:00.946601 15161 net.cpp:425] inception_4a/relu_5x5_reduce <- inception_4a/5x5_reduce
I0913 17:46:00.946614 15161 net.cpp:386] inception_4a/relu_5x5_reduce -> inception_4a/5x5_reduce (in-place)
I0913 17:46:00.947244 15161 net.cpp:141] Setting up inception_4a/relu_5x5_reduce
I0913 17:46:00.947264 15161 net.cpp:148] Top shape: 10 16 14 14 (31360)
I0913 17:46:00.947274 15161 net.cpp:156] Memory required for data: 364026880
I0913 17:46:00.947284 15161 layer_factory.hpp:77] Creating layer inception_4a/5x5
I0913 17:46:00.947314 15161 net.cpp:91] Creating Layer inception_4a/5x5
I0913 17:46:00.947329 15161 net.cpp:425] inception_4a/5x5 <- inception_4a/5x5_reduce
I0913 17:46:00.947350 15161 net.cpp:399] inception_4a/5x5 -> inception_4a/5x5
I0913 17:46:00.949142 15161 net.cpp:141] Setting up inception_4a/5x5
I0913 17:46:00.949164 15161 net.cpp:148] Top shape: 10 48 14 14 (94080)
I0913 17:46:00.949173 15161 net.cpp:156] Memory required for data: 364403200
I0913 17:46:00.949190 15161 layer_factory.hpp:77] Creating layer inception_4a/relu_5x5
I0913 17:46:00.949205 15161 net.cpp:91] Creating Layer inception_4a/relu_5x5
I0913 17:46:00.949216 15161 net.cpp:425] inception_4a/relu_5x5 <- inception_4a/5x5
I0913 17:46:00.949236 15161 net.cpp:386] inception_4a/relu_5x5 -> inception_4a/5x5 (in-place)
I0913 17:46:00.949631 15161 net.cpp:141] Setting up inception_4a/relu_5x5
I0913 17:46:00.949650 15161 net.cpp:148] Top shape: 10 48 14 14 (94080)
I0913 17:46:00.949659 15161 net.cpp:156] Memory required for data: 364779520
I0913 17:46:00.949669 15161 layer_factory.hpp:77] Creating layer inception_4a/pool
I0913 17:46:00.949692 15161 net.cpp:91] Creating Layer inception_4a/pool
I0913 17:46:00.949705 15161 net.cpp:425] inception_4a/pool <- pool3/3x3_s2_pool3/3x3_s2_0_split_3
I0913 17:46:00.949722 15161 net.cpp:399] inception_4a/pool -> inception_4a/pool
I0913 17:46:00.949829 15161 net.cpp:141] Setting up inception_4a/pool
I0913 17:46:00.949846 15161 net.cpp:148] Top shape: 10 480 14 14 (940800)
I0913 17:46:00.949856 15161 net.cpp:156] Memory required for data: 368542720
I0913 17:46:00.949867 15161 layer_factory.hpp:77] Creating layer inception_4a/pool_proj
I0913 17:46:00.949895 15161 net.cpp:91] Creating Layer inception_4a/pool_proj
I0913 17:46:00.949908 15161 net.cpp:425] inception_4a/pool_proj <- inception_4a/pool
I0913 17:46:00.949929 15161 net.cpp:399] inception_4a/pool_proj -> inception_4a/pool_proj
I0913 17:46:00.951961 15161 net.cpp:141] Setting up inception_4a/pool_proj
I0913 17:46:00.951982 15161 net.cpp:148] Top shape: 10 64 14 14 (125440)
I0913 17:46:00.951992 15161 net.cpp:156] Memory required for data: 369044480
I0913 17:46:00.952009 15161 layer_factory.hpp:77] Creating layer inception_4a/relu_pool_proj
I0913 17:46:00.952026 15161 net.cpp:91] Creating Layer inception_4a/relu_pool_proj
I0913 17:46:00.952038 15161 net.cpp:425] inception_4a/relu_pool_proj <- inception_4a/pool_proj
I0913 17:46:00.952056 15161 net.cpp:386] inception_4a/relu_pool_proj -> inception_4a/pool_proj (in-place)
I0913 17:46:00.952669 15161 net.cpp:141] Setting up inception_4a/relu_pool_proj
I0913 17:46:00.952689 15161 net.cpp:148] Top shape: 10 64 14 14 (125440)
I0913 17:46:00.952699 15161 net.cpp:156] Memory required for data: 369546240
I0913 17:46:00.952709 15161 layer_factory.hpp:77] Creating layer inception_4a/output
I0913 17:46:00.952726 15161 net.cpp:91] Creating Layer inception_4a/output
I0913 17:46:00.952739 15161 net.cpp:425] inception_4a/output <- inception_4a/1x1
I0913 17:46:00.952750 15161 net.cpp:425] inception_4a/output <- inception_4a/3x3
I0913 17:46:00.952769 15161 net.cpp:425] inception_4a/output <- inception_4a/5x5
I0913 17:46:00.952780 15161 net.cpp:425] inception_4a/output <- inception_4a/pool_proj
I0913 17:46:00.952793 15161 net.cpp:399] inception_4a/output -> inception_4a/output
I0913 17:46:00.952855 15161 net.cpp:141] Setting up inception_4a/output
I0913 17:46:00.952873 15161 net.cpp:148] Top shape: 10 512 14 14 (1003520)
I0913 17:46:00.952882 15161 net.cpp:156] Memory required for data: 373560320
I0913 17:46:00.952891 15161 layer_factory.hpp:77] Creating layer inception_4a/output_inception_4a/output_0_split
I0913 17:46:00.952914 15161 net.cpp:91] Creating Layer inception_4a/output_inception_4a/output_0_split
I0913 17:46:00.952926 15161 net.cpp:425] inception_4a/output_inception_4a/output_0_split <- inception_4a/output
I0913 17:46:00.952944 15161 net.cpp:399] inception_4a/output_inception_4a/output_0_split -> inception_4a/output_inception_4a/output_0_split_0
I0913 17:46:00.952962 15161 net.cpp:399] inception_4a/output_inception_4a/output_0_split -> inception_4a/output_inception_4a/output_0_split_1
I0913 17:46:00.952980 15161 net.cpp:399] inception_4a/output_inception_4a/output_0_split -> inception_4a/output_inception_4a/output_0_split_2
I0913 17:46:00.952997 15161 net.cpp:399] inception_4a/output_inception_4a/output_0_split -> inception_4a/output_inception_4a/output_0_split_3
I0913 17:46:00.953168 15161 net.cpp:141] Setting up inception_4a/output_inception_4a/output_0_split
I0913 17:46:00.953188 15161 net.cpp:148] Top shape: 10 512 14 14 (1003520)
I0913 17:46:00.953200 15161 net.cpp:148] Top shape: 10 512 14 14 (1003520)
I0913 17:46:00.953212 15161 net.cpp:148] Top shape: 10 512 14 14 (1003520)
I0913 17:46:00.953223 15161 net.cpp:148] Top shape: 10 512 14 14 (1003520)
I0913 17:46:00.953232 15161 net.cpp:156] Memory required for data: 389616640
I0913 17:46:00.953240 15161 layer_factory.hpp:77] Creating layer inception_4b/1x1
I0913 17:46:00.953269 15161 net.cpp:91] Creating Layer inception_4b/1x1
I0913 17:46:00.953280 15161 net.cpp:425] inception_4b/1x1 <- inception_4a/output_inception_4a/output_0_split_0
I0913 17:46:00.953305 15161 net.cpp:399] inception_4b/1x1 -> inception_4b/1x1
I0913 17:46:00.955819 15161 net.cpp:141] Setting up inception_4b/1x1
I0913 17:46:00.955843 15161 net.cpp:148] Top shape: 10 160 14 14 (313600)
I0913 17:46:00.955853 15161 net.cpp:156] Memory required for data: 390871040
I0913 17:46:00.955870 15161 layer_factory.hpp:77] Creating layer inception_4b/relu_1x1
I0913 17:46:00.955885 15161 net.cpp:91] Creating Layer inception_4b/relu_1x1
I0913 17:46:00.955898 15161 net.cpp:425] inception_4b/relu_1x1 <- inception_4b/1x1
I0913 17:46:00.955910 15161 net.cpp:386] inception_4b/relu_1x1 -> inception_4b/1x1 (in-place)
I0913 17:46:00.956550 15161 net.cpp:141] Setting up inception_4b/relu_1x1
I0913 17:46:00.956570 15161 net.cpp:148] Top shape: 10 160 14 14 (313600)
I0913 17:46:00.956580 15161 net.cpp:156] Memory required for data: 392125440
I0913 17:46:00.956593 15161 layer_factory.hpp:77] Creating layer inception_4b/3x3_reduce
I0913 17:46:00.956620 15161 net.cpp:91] Creating Layer inception_4b/3x3_reduce
I0913 17:46:00.956634 15161 net.cpp:425] inception_4b/3x3_reduce <- inception_4a/output_inception_4a/output_0_split_1
I0913 17:46:00.956658 15161 net.cpp:399] inception_4b/3x3_reduce -> inception_4b/3x3_reduce
I0913 17:46:00.958782 15161 net.cpp:141] Setting up inception_4b/3x3_reduce
I0913 17:46:00.958803 15161 net.cpp:148] Top shape: 10 112 14 14 (219520)
I0913 17:46:00.958812 15161 net.cpp:156] Memory required for data: 393003520
I0913 17:46:00.958833 15161 layer_factory.hpp:77] Creating layer inception_4b/relu_3x3_reduce
I0913 17:46:00.958849 15161 net.cpp:91] Creating Layer inception_4b/relu_3x3_reduce
I0913 17:46:00.958861 15161 net.cpp:425] inception_4b/relu_3x3_reduce <- inception_4b/3x3_reduce
I0913 17:46:00.958883 15161 net.cpp:386] inception_4b/relu_3x3_reduce -> inception_4b/3x3_reduce (in-place)
I0913 17:46:00.959287 15161 net.cpp:141] Setting up inception_4b/relu_3x3_reduce
I0913 17:46:00.959309 15161 net.cpp:148] Top shape: 10 112 14 14 (219520)
I0913 17:46:00.959319 15161 net.cpp:156] Memory required for data: 393881600
I0913 17:46:00.959329 15161 layer_factory.hpp:77] Creating layer inception_4b/3x3
I0913 17:46:00.959358 15161 net.cpp:91] Creating Layer inception_4b/3x3
I0913 17:46:00.959372 15161 net.cpp:425] inception_4b/3x3 <- inception_4b/3x3_reduce
I0913 17:46:00.959389 15161 net.cpp:399] inception_4b/3x3 -> inception_4b/3x3
I0913 17:46:00.963846 15161 net.cpp:141] Setting up inception_4b/3x3
I0913 17:46:00.963867 15161 net.cpp:148] Top shape: 10 224 14 14 (439040)
I0913 17:46:00.963877 15161 net.cpp:156] Memory required for data: 395637760
I0913 17:46:00.963896 15161 layer_factory.hpp:77] Creating layer inception_4b/relu_3x3
I0913 17:46:00.963912 15161 net.cpp:91] Creating Layer inception_4b/relu_3x3
I0913 17:46:00.963922 15161 net.cpp:425] inception_4b/relu_3x3 <- inception_4b/3x3
I0913 17:46:00.963942 15161 net.cpp:386] inception_4b/relu_3x3 -> inception_4b/3x3 (in-place)
I0913 17:46:00.964602 15161 net.cpp:141] Setting up inception_4b/relu_3x3
I0913 17:46:00.964622 15161 net.cpp:148] Top shape: 10 224 14 14 (439040)
I0913 17:46:00.964632 15161 net.cpp:156] Memory required for data: 397393920
I0913 17:46:00.964643 15161 layer_factory.hpp:77] Creating layer inception_4b/5x5_reduce
I0913 17:46:00.964692 15161 net.cpp:91] Creating Layer inception_4b/5x5_reduce
I0913 17:46:00.964707 15161 net.cpp:425] inception_4b/5x5_reduce <- inception_4a/output_inception_4a/output_0_split_2
I0913 17:46:00.964725 15161 net.cpp:399] inception_4b/5x5_reduce -> inception_4b/5x5_reduce
I0913 17:46:00.966409 15161 net.cpp:141] Setting up inception_4b/5x5_reduce
I0913 17:46:00.966430 15161 net.cpp:148] Top shape: 10 24 14 14 (47040)
I0913 17:46:00.966440 15161 net.cpp:156] Memory required for data: 397582080
I0913 17:46:00.966459 15161 layer_factory.hpp:77] Creating layer inception_4b/relu_5x5_reduce
I0913 17:46:00.966481 15161 net.cpp:91] Creating Layer inception_4b/relu_5x5_reduce
I0913 17:46:00.966495 15161 net.cpp:425] inception_4b/relu_5x5_reduce <- inception_4b/5x5_reduce
I0913 17:46:00.966507 15161 net.cpp:386] inception_4b/relu_5x5_reduce -> inception_4b/5x5_reduce (in-place)
I0913 17:46:00.967133 15161 net.cpp:141] Setting up inception_4b/relu_5x5_reduce
I0913 17:46:00.967152 15161 net.cpp:148] Top shape: 10 24 14 14 (47040)
I0913 17:46:00.967164 15161 net.cpp:156] Memory required for data: 397770240
I0913 17:46:00.967173 15161 layer_factory.hpp:77] Creating layer inception_4b/5x5
I0913 17:46:00.967206 15161 net.cpp:91] Creating Layer inception_4b/5x5
I0913 17:46:00.967221 15161 net.cpp:425] inception_4b/5x5 <- inception_4b/5x5_reduce
I0913 17:46:00.967239 15161 net.cpp:399] inception_4b/5x5 -> inception_4b/5x5
I0913 17:46:00.969910 15161 net.cpp:141] Setting up inception_4b/5x5
I0913 17:46:00.969933 15161 net.cpp:148] Top shape: 10 64 14 14 (125440)
I0913 17:46:00.969941 15161 net.cpp:156] Memory required for data: 398272000
I0913 17:46:00.969959 15161 layer_factory.hpp:77] Creating layer inception_4b/relu_5x5
I0913 17:46:00.969974 15161 net.cpp:91] Creating Layer inception_4b/relu_5x5
I0913 17:46:00.969982 15161 net.cpp:425] inception_4b/relu_5x5 <- inception_4b/5x5
I0913 17:46:00.969998 15161 net.cpp:386] inception_4b/relu_5x5 -> inception_4b/5x5 (in-place)
I0913 17:46:00.970389 15161 net.cpp:141] Setting up inception_4b/relu_5x5
I0913 17:46:00.970412 15161 net.cpp:148] Top shape: 10 64 14 14 (125440)
I0913 17:46:00.970422 15161 net.cpp:156] Memory required for data: 398773760
I0913 17:46:00.970434 15161 layer_factory.hpp:77] Creating layer inception_4b/pool
I0913 17:46:00.970453 15161 net.cpp:91] Creating Layer inception_4b/pool
I0913 17:46:00.970465 15161 net.cpp:425] inception_4b/pool <- inception_4a/output_inception_4a/output_0_split_3
I0913 17:46:00.970480 15161 net.cpp:399] inception_4b/pool -> inception_4b/pool
I0913 17:46:00.970592 15161 net.cpp:141] Setting up inception_4b/pool
I0913 17:46:00.970609 15161 net.cpp:148] Top shape: 10 512 14 14 (1003520)
I0913 17:46:00.970618 15161 net.cpp:156] Memory required for data: 402787840
I0913 17:46:00.970628 15161 layer_factory.hpp:77] Creating layer inception_4b/pool_proj
I0913 17:46:00.970664 15161 net.cpp:91] Creating Layer inception_4b/pool_proj
I0913 17:46:00.970677 15161 net.cpp:425] inception_4b/pool_proj <- inception_4b/pool
I0913 17:46:00.970702 15161 net.cpp:399] inception_4b/pool_proj -> inception_4b/pool_proj
I0913 17:46:00.972797 15161 net.cpp:141] Setting up inception_4b/pool_proj
I0913 17:46:00.972820 15161 net.cpp:148] Top shape: 10 64 14 14 (125440)
I0913 17:46:00.972829 15161 net.cpp:156] Memory required for data: 403289600
I0913 17:46:00.972846 15161 layer_factory.hpp:77] Creating layer inception_4b/relu_pool_proj
I0913 17:46:00.972862 15161 net.cpp:91] Creating Layer inception_4b/relu_pool_proj
I0913 17:46:00.972873 15161 net.cpp:425] inception_4b/relu_pool_proj <- inception_4b/pool_proj
I0913 17:46:00.972892 15161 net.cpp:386] inception_4b/relu_pool_proj -> inception_4b/pool_proj (in-place)
I0913 17:46:00.973518 15161 net.cpp:141] Setting up inception_4b/relu_pool_proj
I0913 17:46:00.973538 15161 net.cpp:148] Top shape: 10 64 14 14 (125440)
I0913 17:46:00.973547 15161 net.cpp:156] Memory required for data: 403791360
I0913 17:46:00.973557 15161 layer_factory.hpp:77] Creating layer inception_4b/output
I0913 17:46:00.973573 15161 net.cpp:91] Creating Layer inception_4b/output
I0913 17:46:00.973585 15161 net.cpp:425] inception_4b/output <- inception_4b/1x1
I0913 17:46:00.973598 15161 net.cpp:425] inception_4b/output <- inception_4b/3x3
I0913 17:46:00.973619 15161 net.cpp:425] inception_4b/output <- inception_4b/5x5
I0913 17:46:00.973630 15161 net.cpp:425] inception_4b/output <- inception_4b/pool_proj
I0913 17:46:00.973644 15161 net.cpp:399] inception_4b/output -> inception_4b/output
I0913 17:46:00.973708 15161 net.cpp:141] Setting up inception_4b/output
I0913 17:46:00.973726 15161 net.cpp:148] Top shape: 10 512 14 14 (1003520)
I0913 17:46:00.973734 15161 net.cpp:156] Memory required for data: 407805440
I0913 17:46:00.973743 15161 layer_factory.hpp:77] Creating layer inception_4b/output_inception_4b/output_0_split
I0913 17:46:00.973765 15161 net.cpp:91] Creating Layer inception_4b/output_inception_4b/output_0_split
I0913 17:46:00.973778 15161 net.cpp:425] inception_4b/output_inception_4b/output_0_split <- inception_4b/output
I0913 17:46:00.973791 15161 net.cpp:399] inception_4b/output_inception_4b/output_0_split -> inception_4b/output_inception_4b/output_0_split_0
I0913 17:46:00.973814 15161 net.cpp:399] inception_4b/output_inception_4b/output_0_split -> inception_4b/output_inception_4b/output_0_split_1
I0913 17:46:00.973831 15161 net.cpp:399] inception_4b/output_inception_4b/output_0_split -> inception_4b/output_inception_4b/output_0_split_2
I0913 17:46:00.973848 15161 net.cpp:399] inception_4b/output_inception_4b/output_0_split -> inception_4b/output_inception_4b/output_0_split_3
I0913 17:46:00.974017 15161 net.cpp:141] Setting up inception_4b/output_inception_4b/output_0_split
I0913 17:46:00.974035 15161 net.cpp:148] Top shape: 10 512 14 14 (1003520)
I0913 17:46:00.974046 15161 net.cpp:148] Top shape: 10 512 14 14 (1003520)
I0913 17:46:00.974057 15161 net.cpp:148] Top shape: 10 512 14 14 (1003520)
I0913 17:46:00.974069 15161 net.cpp:148] Top shape: 10 512 14 14 (1003520)
I0913 17:46:00.974077 15161 net.cpp:156] Memory required for data: 423861760
I0913 17:46:00.974086 15161 layer_factory.hpp:77] Creating layer inception_4c/1x1
I0913 17:46:00.974112 15161 net.cpp:91] Creating Layer inception_4c/1x1
I0913 17:46:00.974123 15161 net.cpp:425] inception_4c/1x1 <- inception_4b/output_inception_4b/output_0_split_0
I0913 17:46:00.974143 15161 net.cpp:399] inception_4c/1x1 -> inception_4c/1x1
I0913 17:46:00.976589 15161 net.cpp:141] Setting up inception_4c/1x1
I0913 17:46:00.976611 15161 net.cpp:148] Top shape: 10 128 14 14 (250880)
I0913 17:46:00.976621 15161 net.cpp:156] Memory required for data: 424865280
I0913 17:46:00.976639 15161 layer_factory.hpp:77] Creating layer inception_4c/relu_1x1
I0913 17:46:00.976662 15161 net.cpp:91] Creating Layer inception_4c/relu_1x1
I0913 17:46:00.976675 15161 net.cpp:425] inception_4c/relu_1x1 <- inception_4c/1x1
I0913 17:46:00.976689 15161 net.cpp:386] inception_4c/relu_1x1 -> inception_4c/1x1 (in-place)
I0913 17:46:00.977320 15161 net.cpp:141] Setting up inception_4c/relu_1x1
I0913 17:46:00.977340 15161 net.cpp:148] Top shape: 10 128 14 14 (250880)
I0913 17:46:00.977349 15161 net.cpp:156] Memory required for data: 425868800
I0913 17:46:00.977360 15161 layer_factory.hpp:77] Creating layer inception_4c/3x3_reduce
I0913 17:46:00.977391 15161 net.cpp:91] Creating Layer inception_4c/3x3_reduce
I0913 17:46:00.977402 15161 net.cpp:425] inception_4c/3x3_reduce <- inception_4b/output_inception_4b/output_0_split_1
I0913 17:46:00.977421 15161 net.cpp:399] inception_4c/3x3_reduce -> inception_4c/3x3_reduce
I0913 17:46:00.979593 15161 net.cpp:141] Setting up inception_4c/3x3_reduce
I0913 17:46:00.979612 15161 net.cpp:148] Top shape: 10 128 14 14 (250880)
I0913 17:46:00.979622 15161 net.cpp:156] Memory required for data: 426872320
I0913 17:46:00.979638 15161 layer_factory.hpp:77] Creating layer inception_4c/relu_3x3_reduce
I0913 17:46:00.979658 15161 net.cpp:91] Creating Layer inception_4c/relu_3x3_reduce
I0913 17:46:00.979671 15161 net.cpp:425] inception_4c/relu_3x3_reduce <- inception_4c/3x3_reduce
I0913 17:46:00.979683 15161 net.cpp:386] inception_4c/relu_3x3_reduce -> inception_4c/3x3_reduce (in-place)
I0913 17:46:00.980095 15161 net.cpp:141] Setting up inception_4c/relu_3x3_reduce
I0913 17:46:00.980114 15161 net.cpp:148] Top shape: 10 128 14 14 (250880)
I0913 17:46:00.980124 15161 net.cpp:156] Memory required for data: 427875840
I0913 17:46:00.980134 15161 layer_factory.hpp:77] Creating layer inception_4c/3x3
I0913 17:46:00.980165 15161 net.cpp:91] Creating Layer inception_4c/3x3
I0913 17:46:00.980180 15161 net.cpp:425] inception_4c/3x3 <- inception_4c/3x3_reduce
I0913 17:46:00.980197 15161 net.cpp:399] inception_4c/3x3 -> inception_4c/3x3
I0913 17:46:00.984906 15161 net.cpp:141] Setting up inception_4c/3x3
I0913 17:46:00.984928 15161 net.cpp:148] Top shape: 10 256 14 14 (501760)
I0913 17:46:00.984938 15161 net.cpp:156] Memory required for data: 429882880
I0913 17:46:00.984956 15161 layer_factory.hpp:77] Creating layer inception_4c/relu_3x3
I0913 17:46:00.984972 15161 net.cpp:91] Creating Layer inception_4c/relu_3x3
I0913 17:46:00.984982 15161 net.cpp:425] inception_4c/relu_3x3 <- inception_4c/3x3
I0913 17:46:00.985002 15161 net.cpp:386] inception_4c/relu_3x3 -> inception_4c/3x3 (in-place)
I0913 17:46:00.985641 15161 net.cpp:141] Setting up inception_4c/relu_3x3
I0913 17:46:00.985661 15161 net.cpp:148] Top shape: 10 256 14 14 (501760)
I0913 17:46:00.985671 15161 net.cpp:156] Memory required for data: 431889920
I0913 17:46:00.985680 15161 layer_factory.hpp:77] Creating layer inception_4c/5x5_reduce
I0913 17:46:00.985709 15161 net.cpp:91] Creating Layer inception_4c/5x5_reduce
I0913 17:46:00.985723 15161 net.cpp:425] inception_4c/5x5_reduce <- inception_4b/output_inception_4b/output_0_split_2
I0913 17:46:00.985743 15161 net.cpp:399] inception_4c/5x5_reduce -> inception_4c/5x5_reduce
I0913 17:46:00.987432 15161 net.cpp:141] Setting up inception_4c/5x5_reduce
I0913 17:46:00.987453 15161 net.cpp:148] Top shape: 10 24 14 14 (47040)
I0913 17:46:00.987463 15161 net.cpp:156] Memory required for data: 432078080
I0913 17:46:00.987484 15161 layer_factory.hpp:77] Creating layer inception_4c/relu_5x5_reduce
I0913 17:46:00.987500 15161 net.cpp:91] Creating Layer inception_4c/relu_5x5_reduce
I0913 17:46:00.987512 15161 net.cpp:425] inception_4c/relu_5x5_reduce <- inception_4c/5x5_reduce
I0913 17:46:00.987529 15161 net.cpp:386] inception_4c/relu_5x5_reduce -> inception_4c/5x5_reduce (in-place)
I0913 17:46:00.988154 15161 net.cpp:141] Setting up inception_4c/relu_5x5_reduce
I0913 17:46:00.988178 15161 net.cpp:148] Top shape: 10 24 14 14 (47040)
I0913 17:46:00.988183 15161 net.cpp:156] Memory required for data: 432266240
I0913 17:46:00.988188 15161 layer_factory.hpp:77] Creating layer inception_4c/5x5
I0913 17:46:00.988206 15161 net.cpp:91] Creating Layer inception_4c/5x5
I0913 17:46:00.988214 15161 net.cpp:425] inception_4c/5x5 <- inception_4c/5x5_reduce
I0913 17:46:00.988225 15161 net.cpp:399] inception_4c/5x5 -> inception_4c/5x5
I0913 17:46:00.990198 15161 net.cpp:141] Setting up inception_4c/5x5
I0913 17:46:00.990217 15161 net.cpp:148] Top shape: 10 64 14 14 (125440)
I0913 17:46:00.990222 15161 net.cpp:156] Memory required for data: 432768000
I0913 17:46:00.990232 15161 layer_factory.hpp:77] Creating layer inception_4c/relu_5x5
I0913 17:46:00.990242 15161 net.cpp:91] Creating Layer inception_4c/relu_5x5
I0913 17:46:00.990247 15161 net.cpp:425] inception_4c/relu_5x5 <- inception_4c/5x5
I0913 17:46:00.990257 15161 net.cpp:386] inception_4c/relu_5x5 -> inception_4c/5x5 (in-place)
I0913 17:46:00.990491 15161 net.cpp:141] Setting up inception_4c/relu_5x5
I0913 17:46:00.990502 15161 net.cpp:148] Top shape: 10 64 14 14 (125440)
I0913 17:46:00.990506 15161 net.cpp:156] Memory required for data: 433269760
I0913 17:46:00.990511 15161 layer_factory.hpp:77] Creating layer inception_4c/pool
I0913 17:46:00.990525 15161 net.cpp:91] Creating Layer inception_4c/pool
I0913 17:46:00.990530 15161 net.cpp:425] inception_4c/pool <- inception_4b/output_inception_4b/output_0_split_3
I0913 17:46:00.990537 15161 net.cpp:399] inception_4c/pool -> inception_4c/pool
I0913 17:46:00.990605 15161 net.cpp:141] Setting up inception_4c/pool
I0913 17:46:00.990614 15161 net.cpp:148] Top shape: 10 512 14 14 (1003520)
I0913 17:46:00.990618 15161 net.cpp:156] Memory required for data: 437283840
I0913 17:46:00.990623 15161 layer_factory.hpp:77] Creating layer inception_4c/pool_proj
I0913 17:46:00.990640 15161 net.cpp:91] Creating Layer inception_4c/pool_proj
I0913 17:46:00.990646 15161 net.cpp:425] inception_4c/pool_proj <- inception_4c/pool
I0913 17:46:00.990656 15161 net.cpp:399] inception_4c/pool_proj -> inception_4c/pool_proj
I0913 17:46:00.993053 15161 net.cpp:141] Setting up inception_4c/pool_proj
I0913 17:46:00.993072 15161 net.cpp:148] Top shape: 10 64 14 14 (125440)
I0913 17:46:00.993077 15161 net.cpp:156] Memory required for data: 437785600
I0913 17:46:00.993108 15161 layer_factory.hpp:77] Creating layer inception_4c/relu_pool_proj
I0913 17:46:00.993119 15161 net.cpp:91] Creating Layer inception_4c/relu_pool_proj
I0913 17:46:00.993124 15161 net.cpp:425] inception_4c/relu_pool_proj <- inception_4c/pool_proj
I0913 17:46:00.993134 15161 net.cpp:386] inception_4c/relu_pool_proj -> inception_4c/pool_proj (in-place)
I0913 17:46:00.993544 15161 net.cpp:141] Setting up inception_4c/relu_pool_proj
I0913 17:46:00.993557 15161 net.cpp:148] Top shape: 10 64 14 14 (125440)
I0913 17:46:00.993562 15161 net.cpp:156] Memory required for data: 438287360
I0913 17:46:00.993567 15161 layer_factory.hpp:77] Creating layer inception_4c/output
I0913 17:46:00.993577 15161 net.cpp:91] Creating Layer inception_4c/output
I0913 17:46:00.993582 15161 net.cpp:425] inception_4c/output <- inception_4c/1x1
I0913 17:46:00.993589 15161 net.cpp:425] inception_4c/output <- inception_4c/3x3
I0913 17:46:00.993595 15161 net.cpp:425] inception_4c/output <- inception_4c/5x5
I0913 17:46:00.993600 15161 net.cpp:425] inception_4c/output <- inception_4c/pool_proj
I0913 17:46:00.993609 15161 net.cpp:399] inception_4c/output -> inception_4c/output
I0913 17:46:00.993652 15161 net.cpp:141] Setting up inception_4c/output
I0913 17:46:00.993661 15161 net.cpp:148] Top shape: 10 512 14 14 (1003520)
I0913 17:46:00.993665 15161 net.cpp:156] Memory required for data: 442301440
I0913 17:46:00.993670 15161 layer_factory.hpp:77] Creating layer inception_4c/output_inception_4c/output_0_split
I0913 17:46:00.993683 15161 net.cpp:91] Creating Layer inception_4c/output_inception_4c/output_0_split
I0913 17:46:00.993688 15161 net.cpp:425] inception_4c/output_inception_4c/output_0_split <- inception_4c/output
I0913 17:46:00.993695 15161 net.cpp:399] inception_4c/output_inception_4c/output_0_split -> inception_4c/output_inception_4c/output_0_split_0
I0913 17:46:00.993705 15161 net.cpp:399] inception_4c/output_inception_4c/output_0_split -> inception_4c/output_inception_4c/output_0_split_1
I0913 17:46:00.993715 15161 net.cpp:399] inception_4c/output_inception_4c/output_0_split -> inception_4c/output_inception_4c/output_0_split_2
I0913 17:46:00.993722 15161 net.cpp:399] inception_4c/output_inception_4c/output_0_split -> inception_4c/output_inception_4c/output_0_split_3
I0913 17:46:00.993809 15161 net.cpp:141] Setting up inception_4c/output_inception_4c/output_0_split
I0913 17:46:00.993818 15161 net.cpp:148] Top shape: 10 512 14 14 (1003520)
I0913 17:46:00.993824 15161 net.cpp:148] Top shape: 10 512 14 14 (1003520)
I0913 17:46:00.993829 15161 net.cpp:148] Top shape: 10 512 14 14 (1003520)
I0913 17:46:00.993834 15161 net.cpp:148] Top shape: 10 512 14 14 (1003520)
I0913 17:46:00.993839 15161 net.cpp:156] Memory required for data: 458357760
I0913 17:46:00.993842 15161 layer_factory.hpp:77] Creating layer inception_4d/1x1
I0913 17:46:00.993858 15161 net.cpp:91] Creating Layer inception_4d/1x1
I0913 17:46:00.993865 15161 net.cpp:425] inception_4d/1x1 <- inception_4c/output_inception_4c/output_0_split_0
I0913 17:46:00.993876 15161 net.cpp:399] inception_4d/1x1 -> inception_4d/1x1
I0913 17:46:00.995573 15161 net.cpp:141] Setting up inception_4d/1x1
I0913 17:46:00.995591 15161 net.cpp:148] Top shape: 10 112 14 14 (219520)
I0913 17:46:00.995596 15161 net.cpp:156] Memory required for data: 459235840
I0913 17:46:00.995605 15161 layer_factory.hpp:77] Creating layer inception_4d/relu_1x1
I0913 17:46:00.995616 15161 net.cpp:91] Creating Layer inception_4d/relu_1x1
I0913 17:46:00.995622 15161 net.cpp:425] inception_4d/relu_1x1 <- inception_4d/1x1
I0913 17:46:00.995630 15161 net.cpp:386] inception_4d/relu_1x1 -> inception_4d/1x1 (in-place)
I0913 17:46:00.996042 15161 net.cpp:141] Setting up inception_4d/relu_1x1
I0913 17:46:00.996057 15161 net.cpp:148] Top shape: 10 112 14 14 (219520)
I0913 17:46:00.996062 15161 net.cpp:156] Memory required for data: 460113920
I0913 17:46:00.996068 15161 layer_factory.hpp:77] Creating layer inception_4d/3x3_reduce
I0913 17:46:00.996091 15161 net.cpp:91] Creating Layer inception_4d/3x3_reduce
I0913 17:46:00.996098 15161 net.cpp:425] inception_4d/3x3_reduce <- inception_4c/output_inception_4c/output_0_split_1
I0913 17:46:00.996110 15161 net.cpp:399] inception_4d/3x3_reduce -> inception_4d/3x3_reduce
I0913 17:46:00.998124 15161 net.cpp:141] Setting up inception_4d/3x3_reduce
I0913 17:46:00.998142 15161 net.cpp:148] Top shape: 10 144 14 14 (282240)
I0913 17:46:00.998147 15161 net.cpp:156] Memory required for data: 461242880
I0913 17:46:00.998155 15161 layer_factory.hpp:77] Creating layer inception_4d/relu_3x3_reduce
I0913 17:46:00.998164 15161 net.cpp:91] Creating Layer inception_4d/relu_3x3_reduce
I0913 17:46:00.998170 15161 net.cpp:425] inception_4d/relu_3x3_reduce <- inception_4d/3x3_reduce
I0913 17:46:00.998184 15161 net.cpp:386] inception_4d/relu_3x3_reduce -> inception_4d/3x3_reduce (in-place)
I0913 17:46:00.998430 15161 net.cpp:141] Setting up inception_4d/relu_3x3_reduce
I0913 17:46:00.998442 15161 net.cpp:148] Top shape: 10 144 14 14 (282240)
I0913 17:46:00.998446 15161 net.cpp:156] Memory required for data: 462371840
I0913 17:46:00.998451 15161 layer_factory.hpp:77] Creating layer inception_4d/3x3
I0913 17:46:00.998468 15161 net.cpp:91] Creating Layer inception_4d/3x3
I0913 17:46:00.998476 15161 net.cpp:425] inception_4d/3x3 <- inception_4d/3x3_reduce
I0913 17:46:00.998483 15161 net.cpp:399] inception_4d/3x3 -> inception_4d/3x3
I0913 17:46:01.003737 15161 net.cpp:141] Setting up inception_4d/3x3
I0913 17:46:01.003772 15161 net.cpp:148] Top shape: 10 288 14 14 (564480)
I0913 17:46:01.003777 15161 net.cpp:156] Memory required for data: 464629760
I0913 17:46:01.003789 15161 layer_factory.hpp:77] Creating layer inception_4d/relu_3x3
I0913 17:46:01.003801 15161 net.cpp:91] Creating Layer inception_4d/relu_3x3
I0913 17:46:01.003809 15161 net.cpp:425] inception_4d/relu_3x3 <- inception_4d/3x3
I0913 17:46:01.003820 15161 net.cpp:386] inception_4d/relu_3x3 -> inception_4d/3x3 (in-place)
I0913 17:46:01.004242 15161 net.cpp:141] Setting up inception_4d/relu_3x3
I0913 17:46:01.004256 15161 net.cpp:148] Top shape: 10 288 14 14 (564480)
I0913 17:46:01.004261 15161 net.cpp:156] Memory required for data: 466887680
I0913 17:46:01.004266 15161 layer_factory.hpp:77] Creating layer inception_4d/5x5_reduce
I0913 17:46:01.004292 15161 net.cpp:91] Creating Layer inception_4d/5x5_reduce
I0913 17:46:01.004297 15161 net.cpp:425] inception_4d/5x5_reduce <- inception_4c/output_inception_4c/output_0_split_2
I0913 17:46:01.004310 15161 net.cpp:399] inception_4d/5x5_reduce -> inception_4d/5x5_reduce
I0913 17:46:01.005748 15161 net.cpp:141] Setting up inception_4d/5x5_reduce
I0913 17:46:01.005765 15161 net.cpp:148] Top shape: 10 32 14 14 (62720)
I0913 17:46:01.005770 15161 net.cpp:156] Memory required for data: 467138560
I0913 17:46:01.005779 15161 layer_factory.hpp:77] Creating layer inception_4d/relu_5x5_reduce
I0913 17:46:01.005791 15161 net.cpp:91] Creating Layer inception_4d/relu_5x5_reduce
I0913 17:46:01.005797 15161 net.cpp:425] inception_4d/relu_5x5_reduce <- inception_4d/5x5_reduce
I0913 17:46:01.005805 15161 net.cpp:386] inception_4d/relu_5x5_reduce -> inception_4d/5x5_reduce (in-place)
I0913 17:46:01.006222 15161 net.cpp:141] Setting up inception_4d/relu_5x5_reduce
I0913 17:46:01.006234 15161 net.cpp:148] Top shape: 10 32 14 14 (62720)
I0913 17:46:01.006244 15161 net.cpp:156] Memory required for data: 467389440
I0913 17:46:01.006249 15161 layer_factory.hpp:77] Creating layer inception_4d/5x5
I0913 17:46:01.006263 15161 net.cpp:91] Creating Layer inception_4d/5x5
I0913 17:46:01.006268 15161 net.cpp:425] inception_4d/5x5 <- inception_4d/5x5_reduce
I0913 17:46:01.006280 15161 net.cpp:399] inception_4d/5x5 -> inception_4d/5x5
I0913 17:46:01.008131 15161 net.cpp:141] Setting up inception_4d/5x5
I0913 17:46:01.008152 15161 net.cpp:148] Top shape: 10 64 14 14 (125440)
I0913 17:46:01.008162 15161 net.cpp:156] Memory required for data: 467891200
I0913 17:46:01.008177 15161 layer_factory.hpp:77] Creating layer inception_4d/relu_5x5
I0913 17:46:01.008193 15161 net.cpp:91] Creating Layer inception_4d/relu_5x5
I0913 17:46:01.008203 15161 net.cpp:425] inception_4d/relu_5x5 <- inception_4d/5x5
I0913 17:46:01.008216 15161 net.cpp:386] inception_4d/relu_5x5 -> inception_4d/5x5 (in-place)
I0913 17:46:01.008673 15161 net.cpp:141] Setting up inception_4d/relu_5x5
I0913 17:46:01.008692 15161 net.cpp:148] Top shape: 10 64 14 14 (125440)
I0913 17:46:01.008702 15161 net.cpp:156] Memory required for data: 468392960
I0913 17:46:01.008713 15161 layer_factory.hpp:77] Creating layer inception_4d/pool
I0913 17:46:01.008734 15161 net.cpp:91] Creating Layer inception_4d/pool
I0913 17:46:01.008745 15161 net.cpp:425] inception_4d/pool <- inception_4c/output_inception_4c/output_0_split_3
I0913 17:46:01.008759 15161 net.cpp:399] inception_4d/pool -> inception_4d/pool
I0913 17:46:01.008877 15161 net.cpp:141] Setting up inception_4d/pool
I0913 17:46:01.008893 15161 net.cpp:148] Top shape: 10 512 14 14 (1003520)
I0913 17:46:01.008903 15161 net.cpp:156] Memory required for data: 472407040
I0913 17:46:01.008913 15161 layer_factory.hpp:77] Creating layer inception_4d/pool_proj
I0913 17:46:01.008939 15161 net.cpp:91] Creating Layer inception_4d/pool_proj
I0913 17:46:01.008952 15161 net.cpp:425] inception_4d/pool_proj <- inception_4d/pool
I0913 17:46:01.008973 15161 net.cpp:399] inception_4d/pool_proj -> inception_4d/pool_proj
I0913 17:46:01.011958 15161 net.cpp:141] Setting up inception_4d/pool_proj
I0913 17:46:01.011997 15161 net.cpp:148] Top shape: 10 64 14 14 (125440)
I0913 17:46:01.012004 15161 net.cpp:156] Memory required for data: 472908800
I0913 17:46:01.012019 15161 layer_factory.hpp:77] Creating layer inception_4d/relu_pool_proj
I0913 17:46:01.012033 15161 net.cpp:91] Creating Layer inception_4d/relu_pool_proj
I0913 17:46:01.012042 15161 net.cpp:425] inception_4d/relu_pool_proj <- inception_4d/pool_proj
I0913 17:46:01.012061 15161 net.cpp:386] inception_4d/relu_pool_proj -> inception_4d/pool_proj (in-place)
I0913 17:46:01.012854 15161 net.cpp:141] Setting up inception_4d/relu_pool_proj
I0913 17:46:01.012881 15161 net.cpp:148] Top shape: 10 64 14 14 (125440)
I0913 17:46:01.012892 15161 net.cpp:156] Memory required for data: 473410560
I0913 17:46:01.012902 15161 layer_factory.hpp:77] Creating layer inception_4d/output
I0913 17:46:01.012925 15161 net.cpp:91] Creating Layer inception_4d/output
I0913 17:46:01.012938 15161 net.cpp:425] inception_4d/output <- inception_4d/1x1
I0913 17:46:01.012951 15161 net.cpp:425] inception_4d/output <- inception_4d/3x3
I0913 17:46:01.012964 15161 net.cpp:425] inception_4d/output <- inception_4d/5x5
I0913 17:46:01.012975 15161 net.cpp:425] inception_4d/output <- inception_4d/pool_proj
I0913 17:46:01.012989 15161 net.cpp:399] inception_4d/output -> inception_4d/output
I0913 17:46:01.013093 15161 net.cpp:141] Setting up inception_4d/output
I0913 17:46:01.013111 15161 net.cpp:148] Top shape: 10 528 14 14 (1034880)
I0913 17:46:01.013120 15161 net.cpp:156] Memory required for data: 477550080
I0913 17:46:01.013129 15161 layer_factory.hpp:77] Creating layer inception_4d/output_inception_4d/output_0_split
I0913 17:46:01.013145 15161 net.cpp:91] Creating Layer inception_4d/output_inception_4d/output_0_split
I0913 17:46:01.013155 15161 net.cpp:425] inception_4d/output_inception_4d/output_0_split <- inception_4d/output
I0913 17:46:01.013175 15161 net.cpp:399] inception_4d/output_inception_4d/output_0_split -> inception_4d/output_inception_4d/output_0_split_0
I0913 17:46:01.013193 15161 net.cpp:399] inception_4d/output_inception_4d/output_0_split -> inception_4d/output_inception_4d/output_0_split_1
I0913 17:46:01.013211 15161 net.cpp:399] inception_4d/output_inception_4d/output_0_split -> inception_4d/output_inception_4d/output_0_split_2
I0913 17:46:01.013226 15161 net.cpp:399] inception_4d/output_inception_4d/output_0_split -> inception_4d/output_inception_4d/output_0_split_3
I0913 17:46:01.013416 15161 net.cpp:141] Setting up inception_4d/output_inception_4d/output_0_split
I0913 17:46:01.013434 15161 net.cpp:148] Top shape: 10 528 14 14 (1034880)
I0913 17:46:01.013445 15161 net.cpp:148] Top shape: 10 528 14 14 (1034880)
I0913 17:46:01.013456 15161 net.cpp:148] Top shape: 10 528 14 14 (1034880)
I0913 17:46:01.013466 15161 net.cpp:148] Top shape: 10 528 14 14 (1034880)
I0913 17:46:01.013473 15161 net.cpp:156] Memory required for data: 494108160
I0913 17:46:01.013484 15161 layer_factory.hpp:77] Creating layer inception_4e/1x1
I0913 17:46:01.013520 15161 net.cpp:91] Creating Layer inception_4e/1x1
I0913 17:46:01.013531 15161 net.cpp:425] inception_4e/1x1 <- inception_4d/output_inception_4d/output_0_split_0
I0913 17:46:01.013548 15161 net.cpp:399] inception_4e/1x1 -> inception_4e/1x1
I0913 17:46:01.019493 15161 net.cpp:141] Setting up inception_4e/1x1
I0913 17:46:01.019531 15161 net.cpp:148] Top shape: 10 256 14 14 (501760)
I0913 17:46:01.019542 15161 net.cpp:156] Memory required for data: 496115200
I0913 17:46:01.019561 15161 layer_factory.hpp:77] Creating layer inception_4e/relu_1x1
I0913 17:46:01.019577 15161 net.cpp:91] Creating Layer inception_4e/relu_1x1
I0913 17:46:01.019589 15161 net.cpp:425] inception_4e/relu_1x1 <- inception_4e/1x1
I0913 17:46:01.019610 15161 net.cpp:386] inception_4e/relu_1x1 -> inception_4e/1x1 (in-place)
I0913 17:46:01.020397 15161 net.cpp:141] Setting up inception_4e/relu_1x1
I0913 17:46:01.020424 15161 net.cpp:148] Top shape: 10 256 14 14 (501760)
I0913 17:46:01.020434 15161 net.cpp:156] Memory required for data: 498122240
I0913 17:46:01.020443 15161 layer_factory.hpp:77] Creating layer inception_4e/3x3_reduce
I0913 17:46:01.020473 15161 net.cpp:91] Creating Layer inception_4e/3x3_reduce
I0913 17:46:01.020486 15161 net.cpp:425] inception_4e/3x3_reduce <- inception_4d/output_inception_4d/output_0_split_1
I0913 17:46:01.020509 15161 net.cpp:399] inception_4e/3x3_reduce -> inception_4e/3x3_reduce
I0913 17:46:01.024381 15161 net.cpp:141] Setting up inception_4e/3x3_reduce
I0913 17:46:01.024412 15161 net.cpp:148] Top shape: 10 160 14 14 (313600)
I0913 17:46:01.024421 15161 net.cpp:156] Memory required for data: 499376640
I0913 17:46:01.024437 15161 layer_factory.hpp:77] Creating layer inception_4e/relu_3x3_reduce
I0913 17:46:01.024458 15161 net.cpp:91] Creating Layer inception_4e/relu_3x3_reduce
I0913 17:46:01.024469 15161 net.cpp:425] inception_4e/relu_3x3_reduce <- inception_4e/3x3_reduce
I0913 17:46:01.024482 15161 net.cpp:386] inception_4e/relu_3x3_reduce -> inception_4e/3x3_reduce (in-place)
I0913 17:46:01.024891 15161 net.cpp:141] Setting up inception_4e/relu_3x3_reduce
I0913 17:46:01.024911 15161 net.cpp:148] Top shape: 10 160 14 14 (313600)
I0913 17:46:01.024919 15161 net.cpp:156] Memory required for data: 500631040
I0913 17:46:01.024927 15161 layer_factory.hpp:77] Creating layer inception_4e/3x3
I0913 17:46:01.024952 15161 net.cpp:91] Creating Layer inception_4e/3x3
I0913 17:46:01.024963 15161 net.cpp:425] inception_4e/3x3 <- inception_4e/3x3_reduce
I0913 17:46:01.024981 15161 net.cpp:399] inception_4e/3x3 -> inception_4e/3x3
I0913 17:46:01.034632 15161 net.cpp:141] Setting up inception_4e/3x3
I0913 17:46:01.034665 15161 net.cpp:148] Top shape: 10 320 14 14 (627200)
I0913 17:46:01.034673 15161 net.cpp:156] Memory required for data: 503139840
I0913 17:46:01.034689 15161 layer_factory.hpp:77] Creating layer inception_4e/relu_3x3
I0913 17:46:01.034704 15161 net.cpp:91] Creating Layer inception_4e/relu_3x3
I0913 17:46:01.034714 15161 net.cpp:425] inception_4e/relu_3x3 <- inception_4e/3x3
I0913 17:46:01.034725 15161 net.cpp:386] inception_4e/relu_3x3 -> inception_4e/3x3 (in-place)
I0913 17:46:01.035416 15161 net.cpp:141] Setting up inception_4e/relu_3x3
I0913 17:46:01.035439 15161 net.cpp:148] Top shape: 10 320 14 14 (627200)
I0913 17:46:01.035446 15161 net.cpp:156] Memory required for data: 505648640
I0913 17:46:01.035455 15161 layer_factory.hpp:77] Creating layer inception_4e/5x5_reduce
I0913 17:46:01.035482 15161 net.cpp:91] Creating Layer inception_4e/5x5_reduce
I0913 17:46:01.035493 15161 net.cpp:425] inception_4e/5x5_reduce <- inception_4d/output_inception_4d/output_0_split_2
I0913 17:46:01.035512 15161 net.cpp:399] inception_4e/5x5_reduce -> inception_4e/5x5_reduce
I0913 17:46:01.037847 15161 net.cpp:141] Setting up inception_4e/5x5_reduce
I0913 17:46:01.037875 15161 net.cpp:148] Top shape: 10 32 14 14 (62720)
I0913 17:46:01.037883 15161 net.cpp:156] Memory required for data: 505899520
I0913 17:46:01.037899 15161 layer_factory.hpp:77] Creating layer inception_4e/relu_5x5_reduce
I0913 17:46:01.037916 15161 net.cpp:91] Creating Layer inception_4e/relu_5x5_reduce
I0913 17:46:01.037927 15161 net.cpp:425] inception_4e/relu_5x5_reduce <- inception_4e/5x5_reduce
I0913 17:46:01.037938 15161 net.cpp:386] inception_4e/relu_5x5_reduce -> inception_4e/5x5_reduce (in-place)
I0913 17:46:01.038527 15161 net.cpp:141] Setting up inception_4e/relu_5x5_reduce
I0913 17:46:01.038547 15161 net.cpp:148] Top shape: 10 32 14 14 (62720)
I0913 17:46:01.038555 15161 net.cpp:156] Memory required for data: 506150400
I0913 17:46:01.038563 15161 layer_factory.hpp:77] Creating layer inception_4e/5x5
I0913 17:46:01.038589 15161 net.cpp:91] Creating Layer inception_4e/5x5
I0913 17:46:01.038600 15161 net.cpp:425] inception_4e/5x5 <- inception_4e/5x5_reduce
I0913 17:46:01.038614 15161 net.cpp:399] inception_4e/5x5 -> inception_4e/5x5
I0913 17:46:01.043076 15161 net.cpp:141] Setting up inception_4e/5x5
I0913 17:46:01.043107 15161 net.cpp:148] Top shape: 10 128 14 14 (250880)
I0913 17:46:01.043114 15161 net.cpp:156] Memory required for data: 507153920
I0913 17:46:01.043128 15161 layer_factory.hpp:77] Creating layer inception_4e/relu_5x5
I0913 17:46:01.043143 15161 net.cpp:91] Creating Layer inception_4e/relu_5x5
I0913 17:46:01.043156 15161 net.cpp:425] inception_4e/relu_5x5 <- inception_4e/5x5
I0913 17:46:01.043167 15161 net.cpp:386] inception_4e/relu_5x5 -> inception_4e/5x5 (in-place)
I0913 17:46:01.043550 15161 net.cpp:141] Setting up inception_4e/relu_5x5
I0913 17:46:01.043568 15161 net.cpp:148] Top shape: 10 128 14 14 (250880)
I0913 17:46:01.043576 15161 net.cpp:156] Memory required for data: 508157440
I0913 17:46:01.043583 15161 layer_factory.hpp:77] Creating layer inception_4e/pool
I0913 17:46:01.043604 15161 net.cpp:91] Creating Layer inception_4e/pool
I0913 17:46:01.043614 15161 net.cpp:425] inception_4e/pool <- inception_4d/output_inception_4d/output_0_split_3
I0913 17:46:01.043627 15161 net.cpp:399] inception_4e/pool -> inception_4e/pool
I0913 17:46:01.043740 15161 net.cpp:141] Setting up inception_4e/pool
I0913 17:46:01.043754 15161 net.cpp:148] Top shape: 10 528 14 14 (1034880)
I0913 17:46:01.043761 15161 net.cpp:156] Memory required for data: 512296960
I0913 17:46:01.043769 15161 layer_factory.hpp:77] Creating layer inception_4e/pool_proj
I0913 17:46:01.043792 15161 net.cpp:91] Creating Layer inception_4e/pool_proj
I0913 17:46:01.043802 15161 net.cpp:425] inception_4e/pool_proj <- inception_4e/pool
I0913 17:46:01.043819 15161 net.cpp:399] inception_4e/pool_proj -> inception_4e/pool_proj
I0913 17:46:01.046649 15161 net.cpp:141] Setting up inception_4e/pool_proj
I0913 17:46:01.046679 15161 net.cpp:148] Top shape: 10 128 14 14 (250880)
I0913 17:46:01.046686 15161 net.cpp:156] Memory required for data: 513300480
I0913 17:46:01.046700 15161 layer_factory.hpp:77] Creating layer inception_4e/relu_pool_proj
I0913 17:46:01.046715 15161 net.cpp:91] Creating Layer inception_4e/relu_pool_proj
I0913 17:46:01.046723 15161 net.cpp:425] inception_4e/relu_pool_proj <- inception_4e/pool_proj
I0913 17:46:01.046741 15161 net.cpp:386] inception_4e/relu_pool_proj -> inception_4e/pool_proj (in-place)
I0913 17:46:01.047324 15161 net.cpp:141] Setting up inception_4e/relu_pool_proj
I0913 17:46:01.047344 15161 net.cpp:148] Top shape: 10 128 14 14 (250880)
I0913 17:46:01.047353 15161 net.cpp:156] Memory required for data: 514304000
I0913 17:46:01.047360 15161 layer_factory.hpp:77] Creating layer inception_4e/output
I0913 17:46:01.047384 15161 net.cpp:91] Creating Layer inception_4e/output
I0913 17:46:01.047390 15161 net.cpp:425] inception_4e/output <- inception_4e/1x1
I0913 17:46:01.047397 15161 net.cpp:425] inception_4e/output <- inception_4e/3x3
I0913 17:46:01.047404 15161 net.cpp:425] inception_4e/output <- inception_4e/5x5
I0913 17:46:01.047410 15161 net.cpp:425] inception_4e/output <- inception_4e/pool_proj
I0913 17:46:01.047420 15161 net.cpp:399] inception_4e/output -> inception_4e/output
I0913 17:46:01.047471 15161 net.cpp:141] Setting up inception_4e/output
I0913 17:46:01.047484 15161 net.cpp:148] Top shape: 10 832 14 14 (1630720)
I0913 17:46:01.047489 15161 net.cpp:156] Memory required for data: 520826880
I0913 17:46:01.047494 15161 layer_factory.hpp:77] Creating layer pool4/3x3_s2
I0913 17:46:01.047503 15161 net.cpp:91] Creating Layer pool4/3x3_s2
I0913 17:46:01.047509 15161 net.cpp:425] pool4/3x3_s2 <- inception_4e/output
I0913 17:46:01.047518 15161 net.cpp:399] pool4/3x3_s2 -> pool4/3x3_s2
I0913 17:46:01.047590 15161 net.cpp:141] Setting up pool4/3x3_s2
I0913 17:46:01.047600 15161 net.cpp:148] Top shape: 10 832 7 7 (407680)
I0913 17:46:01.047605 15161 net.cpp:156] Memory required for data: 522457600
I0913 17:46:01.047610 15161 layer_factory.hpp:77] Creating layer pool4/3x3_s2_pool4/3x3_s2_0_split
I0913 17:46:01.047618 15161 net.cpp:91] Creating Layer pool4/3x3_s2_pool4/3x3_s2_0_split
I0913 17:46:01.047623 15161 net.cpp:425] pool4/3x3_s2_pool4/3x3_s2_0_split <- pool4/3x3_s2
I0913 17:46:01.047634 15161 net.cpp:399] pool4/3x3_s2_pool4/3x3_s2_0_split -> pool4/3x3_s2_pool4/3x3_s2_0_split_0
I0913 17:46:01.047644 15161 net.cpp:399] pool4/3x3_s2_pool4/3x3_s2_0_split -> pool4/3x3_s2_pool4/3x3_s2_0_split_1
I0913 17:46:01.047653 15161 net.cpp:399] pool4/3x3_s2_pool4/3x3_s2_0_split -> pool4/3x3_s2_pool4/3x3_s2_0_split_2
I0913 17:46:01.047662 15161 net.cpp:399] pool4/3x3_s2_pool4/3x3_s2_0_split -> pool4/3x3_s2_pool4/3x3_s2_0_split_3
I0913 17:46:01.047771 15161 net.cpp:141] Setting up pool4/3x3_s2_pool4/3x3_s2_0_split
I0913 17:46:01.047781 15161 net.cpp:148] Top shape: 10 832 7 7 (407680)
I0913 17:46:01.047788 15161 net.cpp:148] Top shape: 10 832 7 7 (407680)
I0913 17:46:01.047794 15161 net.cpp:148] Top shape: 10 832 7 7 (407680)
I0913 17:46:01.047799 15161 net.cpp:148] Top shape: 10 832 7 7 (407680)
I0913 17:46:01.047804 15161 net.cpp:156] Memory required for data: 528980480
I0913 17:46:01.047808 15161 layer_factory.hpp:77] Creating layer inception_5a/1x1
I0913 17:46:01.047824 15161 net.cpp:91] Creating Layer inception_5a/1x1
I0913 17:46:01.047830 15161 net.cpp:425] inception_5a/1x1 <- pool4/3x3_s2_pool4/3x3_s2_0_split_0
I0913 17:46:01.047844 15161 net.cpp:399] inception_5a/1x1 -> inception_5a/1x1
I0913 17:46:01.052808 15161 net.cpp:141] Setting up inception_5a/1x1
I0913 17:46:01.052855 15161 net.cpp:148] Top shape: 10 256 7 7 (125440)
I0913 17:46:01.052865 15161 net.cpp:156] Memory required for data: 529482240
I0913 17:46:01.052886 15161 layer_factory.hpp:77] Creating layer inception_5a/relu_1x1
I0913 17:46:01.052908 15161 net.cpp:91] Creating Layer inception_5a/relu_1x1
I0913 17:46:01.052922 15161 net.cpp:425] inception_5a/relu_1x1 <- inception_5a/1x1
I0913 17:46:01.052942 15161 net.cpp:386] inception_5a/relu_1x1 -> inception_5a/1x1 (in-place)
I0913 17:46:01.053818 15161 net.cpp:141] Setting up inception_5a/relu_1x1
I0913 17:46:01.053840 15161 net.cpp:148] Top shape: 10 256 7 7 (125440)
I0913 17:46:01.053849 15161 net.cpp:156] Memory required for data: 529984000
I0913 17:46:01.053859 15161 layer_factory.hpp:77] Creating layer inception_5a/3x3_reduce
I0913 17:46:01.053894 15161 net.cpp:91] Creating Layer inception_5a/3x3_reduce
I0913 17:46:01.053908 15161 net.cpp:425] inception_5a/3x3_reduce <- pool4/3x3_s2_pool4/3x3_s2_0_split_1
I0913 17:46:01.053932 15161 net.cpp:399] inception_5a/3x3_reduce -> inception_5a/3x3_reduce
I0913 17:46:01.057632 15161 net.cpp:141] Setting up inception_5a/3x3_reduce
I0913 17:46:01.057660 15161 net.cpp:148] Top shape: 10 160 7 7 (78400)
I0913 17:46:01.057670 15161 net.cpp:156] Memory required for data: 530297600
I0913 17:46:01.057689 15161 layer_factory.hpp:77] Creating layer inception_5a/relu_3x3_reduce
I0913 17:46:01.057705 15161 net.cpp:91] Creating Layer inception_5a/relu_3x3_reduce
I0913 17:46:01.057718 15161 net.cpp:425] inception_5a/relu_3x3_reduce <- inception_5a/3x3_reduce
I0913 17:46:01.057731 15161 net.cpp:386] inception_5a/relu_3x3_reduce -> inception_5a/3x3_reduce (in-place)
I0913 17:46:01.058166 15161 net.cpp:141] Setting up inception_5a/relu_3x3_reduce
I0913 17:46:01.058185 15161 net.cpp:148] Top shape: 10 160 7 7 (78400)
I0913 17:46:01.058194 15161 net.cpp:156] Memory required for data: 530611200
I0913 17:46:01.058205 15161 layer_factory.hpp:77] Creating layer inception_5a/3x3
I0913 17:46:01.058233 15161 net.cpp:91] Creating Layer inception_5a/3x3
I0913 17:46:01.058246 15161 net.cpp:425] inception_5a/3x3 <- inception_5a/3x3_reduce
I0913 17:46:01.058270 15161 net.cpp:399] inception_5a/3x3 -> inception_5a/3x3
I0913 17:46:01.065125 15161 net.cpp:141] Setting up inception_5a/3x3
I0913 17:46:01.065152 15161 net.cpp:148] Top shape: 10 320 7 7 (156800)
I0913 17:46:01.065161 15161 net.cpp:156] Memory required for data: 531238400
I0913 17:46:01.065181 15161 layer_factory.hpp:77] Creating layer inception_5a/relu_3x3
I0913 17:46:01.065197 15161 net.cpp:91] Creating Layer inception_5a/relu_3x3
I0913 17:46:01.065209 15161 net.cpp:425] inception_5a/relu_3x3 <- inception_5a/3x3
I0913 17:46:01.065229 15161 net.cpp:386] inception_5a/relu_3x3 -> inception_5a/3x3 (in-place)
I0913 17:46:01.065888 15161 net.cpp:141] Setting up inception_5a/relu_3x3
I0913 17:46:01.065910 15161 net.cpp:148] Top shape: 10 320 7 7 (156800)
I0913 17:46:01.065922 15161 net.cpp:156] Memory required for data: 531865600
I0913 17:46:01.065930 15161 layer_factory.hpp:77] Creating layer inception_5a/5x5_reduce
I0913 17:46:01.065963 15161 net.cpp:91] Creating Layer inception_5a/5x5_reduce
I0913 17:46:01.065976 15161 net.cpp:425] inception_5a/5x5_reduce <- pool4/3x3_s2_pool4/3x3_s2_0_split_2
I0913 17:46:01.065996 15161 net.cpp:399] inception_5a/5x5_reduce -> inception_5a/5x5_reduce
I0913 17:46:01.067912 15161 net.cpp:141] Setting up inception_5a/5x5_reduce
I0913 17:46:01.067934 15161 net.cpp:148] Top shape: 10 32 7 7 (15680)
I0913 17:46:01.067945 15161 net.cpp:156] Memory required for data: 531928320
I0913 17:46:01.067961 15161 layer_factory.hpp:77] Creating layer inception_5a/relu_5x5_reduce
I0913 17:46:01.067983 15161 net.cpp:91] Creating Layer inception_5a/relu_5x5_reduce
I0913 17:46:01.067994 15161 net.cpp:425] inception_5a/relu_5x5_reduce <- inception_5a/5x5_reduce
I0913 17:46:01.068006 15161 net.cpp:386] inception_5a/relu_5x5_reduce -> inception_5a/5x5_reduce (in-place)
I0913 17:46:01.068665 15161 net.cpp:141] Setting up inception_5a/relu_5x5_reduce
I0913 17:46:01.068686 15161 net.cpp:148] Top shape: 10 32 7 7 (15680)
I0913 17:46:01.068696 15161 net.cpp:156] Memory required for data: 531991040
I0913 17:46:01.068706 15161 layer_factory.hpp:77] Creating layer inception_5a/5x5
I0913 17:46:01.068737 15161 net.cpp:91] Creating Layer inception_5a/5x5
I0913 17:46:01.068752 15161 net.cpp:425] inception_5a/5x5 <- inception_5a/5x5_reduce
I0913 17:46:01.068768 15161 net.cpp:399] inception_5a/5x5 -> inception_5a/5x5
I0913 17:46:01.071385 15161 net.cpp:141] Setting up inception_5a/5x5
I0913 17:46:01.071408 15161 net.cpp:148] Top shape: 10 128 7 7 (62720)
I0913 17:46:01.071418 15161 net.cpp:156] Memory required for data: 532241920
I0913 17:46:01.071434 15161 layer_factory.hpp:77] Creating layer inception_5a/relu_5x5
I0913 17:46:01.071490 15161 net.cpp:91] Creating Layer inception_5a/relu_5x5
I0913 17:46:01.071504 15161 net.cpp:425] inception_5a/relu_5x5 <- inception_5a/5x5
I0913 17:46:01.071518 15161 net.cpp:386] inception_5a/relu_5x5 -> inception_5a/5x5 (in-place)
I0913 17:46:01.071939 15161 net.cpp:141] Setting up inception_5a/relu_5x5
I0913 17:46:01.071959 15161 net.cpp:148] Top shape: 10 128 7 7 (62720)
I0913 17:46:01.071974 15161 net.cpp:156] Memory required for data: 532492800
I0913 17:46:01.071985 15161 layer_factory.hpp:77] Creating layer inception_5a/pool
I0913 17:46:01.072002 15161 net.cpp:91] Creating Layer inception_5a/pool
I0913 17:46:01.072015 15161 net.cpp:425] inception_5a/pool <- pool4/3x3_s2_pool4/3x3_s2_0_split_3
I0913 17:46:01.072029 15161 net.cpp:399] inception_5a/pool -> inception_5a/pool
I0913 17:46:01.072166 15161 net.cpp:141] Setting up inception_5a/pool
I0913 17:46:01.072204 15161 net.cpp:148] Top shape: 10 832 7 7 (407680)
I0913 17:46:01.072214 15161 net.cpp:156] Memory required for data: 534123520
I0913 17:46:01.072224 15161 layer_factory.hpp:77] Creating layer inception_5a/pool_proj
I0913 17:46:01.072253 15161 net.cpp:91] Creating Layer inception_5a/pool_proj
I0913 17:46:01.072266 15161 net.cpp:425] inception_5a/pool_proj <- inception_5a/pool
I0913 17:46:01.072288 15161 net.cpp:399] inception_5a/pool_proj -> inception_5a/pool_proj
I0913 17:46:01.075956 15161 net.cpp:141] Setting up inception_5a/pool_proj
I0913 17:46:01.075981 15161 net.cpp:148] Top shape: 10 128 7 7 (62720)
I0913 17:46:01.075991 15161 net.cpp:156] Memory required for data: 534374400
I0913 17:46:01.076010 15161 layer_factory.hpp:77] Creating layer inception_5a/relu_pool_proj
I0913 17:46:01.076026 15161 net.cpp:91] Creating Layer inception_5a/relu_pool_proj
I0913 17:46:01.076038 15161 net.cpp:425] inception_5a/relu_pool_proj <- inception_5a/pool_proj
I0913 17:46:01.076052 15161 net.cpp:386] inception_5a/relu_pool_proj -> inception_5a/pool_proj (in-place)
I0913 17:46:01.076699 15161 net.cpp:141] Setting up inception_5a/relu_pool_proj
I0913 17:46:01.076719 15161 net.cpp:148] Top shape: 10 128 7 7 (62720)
I0913 17:46:01.076730 15161 net.cpp:156] Memory required for data: 534625280
I0913 17:46:01.076740 15161 layer_factory.hpp:77] Creating layer inception_5a/output
I0913 17:46:01.076755 15161 net.cpp:91] Creating Layer inception_5a/output
I0913 17:46:01.076767 15161 net.cpp:425] inception_5a/output <- inception_5a/1x1
I0913 17:46:01.076779 15161 net.cpp:425] inception_5a/output <- inception_5a/3x3
I0913 17:46:01.076791 15161 net.cpp:425] inception_5a/output <- inception_5a/5x5
I0913 17:46:01.076802 15161 net.cpp:425] inception_5a/output <- inception_5a/pool_proj
I0913 17:46:01.076814 15161 net.cpp:399] inception_5a/output -> inception_5a/output
I0913 17:46:01.076894 15161 net.cpp:141] Setting up inception_5a/output
I0913 17:46:01.076911 15161 net.cpp:148] Top shape: 10 832 7 7 (407680)
I0913 17:46:01.076925 15161 net.cpp:156] Memory required for data: 536256000
I0913 17:46:01.076936 15161 layer_factory.hpp:77] Creating layer inception_5a/output_inception_5a/output_0_split
I0913 17:46:01.076951 15161 net.cpp:91] Creating Layer inception_5a/output_inception_5a/output_0_split
I0913 17:46:01.076961 15161 net.cpp:425] inception_5a/output_inception_5a/output_0_split <- inception_5a/output
I0913 17:46:01.076975 15161 net.cpp:399] inception_5a/output_inception_5a/output_0_split -> inception_5a/output_inception_5a/output_0_split_0
I0913 17:46:01.076993 15161 net.cpp:399] inception_5a/output_inception_5a/output_0_split -> inception_5a/output_inception_5a/output_0_split_1
I0913 17:46:01.077011 15161 net.cpp:399] inception_5a/output_inception_5a/output_0_split -> inception_5a/output_inception_5a/output_0_split_2
I0913 17:46:01.077034 15161 net.cpp:399] inception_5a/output_inception_5a/output_0_split -> inception_5a/output_inception_5a/output_0_split_3
I0913 17:46:01.077249 15161 net.cpp:141] Setting up inception_5a/output_inception_5a/output_0_split
I0913 17:46:01.077267 15161 net.cpp:148] Top shape: 10 832 7 7 (407680)
I0913 17:46:01.077280 15161 net.cpp:148] Top shape: 10 832 7 7 (407680)
I0913 17:46:01.077291 15161 net.cpp:148] Top shape: 10 832 7 7 (407680)
I0913 17:46:01.077302 15161 net.cpp:148] Top shape: 10 832 7 7 (407680)
I0913 17:46:01.077311 15161 net.cpp:156] Memory required for data: 542778880
I0913 17:46:01.077320 15161 layer_factory.hpp:77] Creating layer inception_5b/1x1
I0913 17:46:01.077349 15161 net.cpp:91] Creating Layer inception_5b/1x1
I0913 17:46:01.077363 15161 net.cpp:425] inception_5b/1x1 <- inception_5a/output_inception_5a/output_0_split_0
I0913 17:46:01.077383 15161 net.cpp:399] inception_5b/1x1 -> inception_5b/1x1
I0913 17:46:01.084331 15161 net.cpp:141] Setting up inception_5b/1x1
I0913 17:46:01.084642 15161 net.cpp:148] Top shape: 10 384 7 7 (188160)
I0913 17:46:01.084658 15161 net.cpp:156] Memory required for data: 543531520
I0913 17:46:01.084677 15161 layer_factory.hpp:77] Creating layer inception_5b/relu_1x1
I0913 17:46:01.084693 15161 net.cpp:91] Creating Layer inception_5b/relu_1x1
I0913 17:46:01.084705 15161 net.cpp:425] inception_5b/relu_1x1 <- inception_5b/1x1
I0913 17:46:01.084724 15161 net.cpp:386] inception_5b/relu_1x1 -> inception_5b/1x1 (in-place)
I0913 17:46:01.085326 15161 net.cpp:141] Setting up inception_5b/relu_1x1
I0913 17:46:01.085343 15161 net.cpp:148] Top shape: 10 384 7 7 (188160)
I0913 17:46:01.085351 15161 net.cpp:156] Memory required for data: 544284160
I0913 17:46:01.085361 15161 layer_factory.hpp:77] Creating layer inception_5b/3x3_reduce
I0913 17:46:01.085383 15161 net.cpp:91] Creating Layer inception_5b/3x3_reduce
I0913 17:46:01.085393 15161 net.cpp:425] inception_5b/3x3_reduce <- inception_5a/output_inception_5a/output_0_split_1
I0913 17:46:01.085412 15161 net.cpp:399] inception_5b/3x3_reduce -> inception_5b/3x3_reduce
I0913 17:46:01.090564 15161 net.cpp:141] Setting up inception_5b/3x3_reduce
I0913 17:46:01.090591 15161 net.cpp:148] Top shape: 10 192 7 7 (94080)
I0913 17:46:01.090602 15161 net.cpp:156] Memory required for data: 544660480
I0913 17:46:01.090620 15161 layer_factory.hpp:77] Creating layer inception_5b/relu_3x3_reduce
I0913 17:46:01.090634 15161 net.cpp:91] Creating Layer inception_5b/relu_3x3_reduce
I0913 17:46:01.090646 15161 net.cpp:425] inception_5b/relu_3x3_reduce <- inception_5b/3x3_reduce
I0913 17:46:01.090663 15161 net.cpp:386] inception_5b/relu_3x3_reduce -> inception_5b/3x3_reduce (in-place)
I0913 17:46:01.091061 15161 net.cpp:141] Setting up inception_5b/relu_3x3_reduce
I0913 17:46:01.091080 15161 net.cpp:148] Top shape: 10 192 7 7 (94080)
I0913 17:46:01.091089 15161 net.cpp:156] Memory required for data: 545036800
I0913 17:46:01.091099 15161 layer_factory.hpp:77] Creating layer inception_5b/3x3
I0913 17:46:01.091130 15161 net.cpp:91] Creating Layer inception_5b/3x3
I0913 17:46:01.091142 15161 net.cpp:425] inception_5b/3x3 <- inception_5b/3x3_reduce
I0913 17:46:01.091158 15161 net.cpp:399] inception_5b/3x3 -> inception_5b/3x3
I0913 17:46:01.103103 15161 net.cpp:141] Setting up inception_5b/3x3
I0913 17:46:01.103147 15161 net.cpp:148] Top shape: 10 384 7 7 (188160)
I0913 17:46:01.103157 15161 net.cpp:156] Memory required for data: 545789440
I0913 17:46:01.103175 15161 layer_factory.hpp:77] Creating layer inception_5b/relu_3x3
I0913 17:46:01.103193 15161 net.cpp:91] Creating Layer inception_5b/relu_3x3
I0913 17:46:01.103206 15161 net.cpp:425] inception_5b/relu_3x3 <- inception_5b/3x3
I0913 17:46:01.103224 15161 net.cpp:386] inception_5b/relu_3x3 -> inception_5b/3x3 (in-place)
I0913 17:46:01.103811 15161 net.cpp:141] Setting up inception_5b/relu_3x3
I0913 17:46:01.103832 15161 net.cpp:148] Top shape: 10 384 7 7 (188160)
I0913 17:46:01.103842 15161 net.cpp:156] Memory required for data: 546542080
I0913 17:46:01.103850 15161 layer_factory.hpp:77] Creating layer inception_5b/5x5_reduce
I0913 17:46:01.103878 15161 net.cpp:91] Creating Layer inception_5b/5x5_reduce
I0913 17:46:01.103889 15161 net.cpp:425] inception_5b/5x5_reduce <- inception_5a/output_inception_5a/output_0_split_2
I0913 17:46:01.103909 15161 net.cpp:399] inception_5b/5x5_reduce -> inception_5b/5x5_reduce
I0913 17:46:01.106623 15161 net.cpp:141] Setting up inception_5b/5x5_reduce
I0913 17:46:01.106648 15161 net.cpp:148] Top shape: 10 48 7 7 (23520)
I0913 17:46:01.106657 15161 net.cpp:156] Memory required for data: 546636160
I0913 17:46:01.106673 15161 layer_factory.hpp:77] Creating layer inception_5b/relu_5x5_reduce
I0913 17:46:01.106690 15161 net.cpp:91] Creating Layer inception_5b/relu_5x5_reduce
I0913 17:46:01.106703 15161 net.cpp:425] inception_5b/relu_5x5_reduce <- inception_5b/5x5_reduce
I0913 17:46:01.106722 15161 net.cpp:386] inception_5b/relu_5x5_reduce -> inception_5b/5x5_reduce (in-place)
I0913 17:46:01.107306 15161 net.cpp:141] Setting up inception_5b/relu_5x5_reduce
I0913 17:46:01.107326 15161 net.cpp:148] Top shape: 10 48 7 7 (23520)
I0913 17:46:01.107336 15161 net.cpp:156] Memory required for data: 546730240
I0913 17:46:01.107347 15161 layer_factory.hpp:77] Creating layer inception_5b/5x5
I0913 17:46:01.107372 15161 net.cpp:91] Creating Layer inception_5b/5x5
I0913 17:46:01.107383 15161 net.cpp:425] inception_5b/5x5 <- inception_5b/5x5_reduce
I0913 17:46:01.107400 15161 net.cpp:399] inception_5b/5x5 -> inception_5b/5x5
I0913 17:46:01.111734 15161 net.cpp:141] Setting up inception_5b/5x5
I0913 17:46:01.111759 15161 net.cpp:148] Top shape: 10 128 7 7 (62720)
I0913 17:46:01.111768 15161 net.cpp:156] Memory required for data: 546981120
I0913 17:46:01.111783 15161 layer_factory.hpp:77] Creating layer inception_5b/relu_5x5
I0913 17:46:01.111804 15161 net.cpp:91] Creating Layer inception_5b/relu_5x5
I0913 17:46:01.111814 15161 net.cpp:425] inception_5b/relu_5x5 <- inception_5b/5x5
I0913 17:46:01.111829 15161 net.cpp:386] inception_5b/relu_5x5 -> inception_5b/5x5 (in-place)
I0913 17:46:01.112192 15161 net.cpp:141] Setting up inception_5b/relu_5x5
I0913 17:46:01.112208 15161 net.cpp:148] Top shape: 10 128 7 7 (62720)
I0913 17:46:01.112215 15161 net.cpp:156] Memory required for data: 547232000
I0913 17:46:01.112223 15161 layer_factory.hpp:77] Creating layer inception_5b/pool
I0913 17:46:01.112242 15161 net.cpp:91] Creating Layer inception_5b/pool
I0913 17:46:01.112251 15161 net.cpp:425] inception_5b/pool <- inception_5a/output_inception_5a/output_0_split_3
I0913 17:46:01.112263 15161 net.cpp:399] inception_5b/pool -> inception_5b/pool
I0913 17:46:01.112375 15161 net.cpp:141] Setting up inception_5b/pool
I0913 17:46:01.112390 15161 net.cpp:148] Top shape: 10 832 7 7 (407680)
I0913 17:46:01.112396 15161 net.cpp:156] Memory required for data: 548862720
I0913 17:46:01.112404 15161 layer_factory.hpp:77] Creating layer inception_5b/pool_proj
I0913 17:46:01.112426 15161 net.cpp:91] Creating Layer inception_5b/pool_proj
I0913 17:46:01.112437 15161 net.cpp:425] inception_5b/pool_proj <- inception_5b/pool
I0913 17:46:01.112449 15161 net.cpp:399] inception_5b/pool_proj -> inception_5b/pool_proj
I0913 17:46:01.117060 15161 net.cpp:141] Setting up inception_5b/pool_proj
I0913 17:46:01.117094 15161 net.cpp:148] Top shape: 10 128 7 7 (62720)
I0913 17:46:01.117102 15161 net.cpp:156] Memory required for data: 549113600
I0913 17:46:01.117118 15161 layer_factory.hpp:77] Creating layer inception_5b/relu_pool_proj
I0913 17:46:01.117135 15161 net.cpp:91] Creating Layer inception_5b/relu_pool_proj
I0913 17:46:01.117146 15161 net.cpp:425] inception_5b/relu_pool_proj <- inception_5b/pool_proj
I0913 17:46:01.117162 15161 net.cpp:386] inception_5b/relu_pool_proj -> inception_5b/pool_proj (in-place)
I0913 17:46:01.117759 15161 net.cpp:141] Setting up inception_5b/relu_pool_proj
I0913 17:46:01.117779 15161 net.cpp:148] Top shape: 10 128 7 7 (62720)
I0913 17:46:01.117787 15161 net.cpp:156] Memory required for data: 549364480
I0913 17:46:01.117795 15161 layer_factory.hpp:77] Creating layer inception_5b/output
I0913 17:46:01.117810 15161 net.cpp:91] Creating Layer inception_5b/output
I0913 17:46:01.117818 15161 net.cpp:425] inception_5b/output <- inception_5b/1x1
I0913 17:46:01.117828 15161 net.cpp:425] inception_5b/output <- inception_5b/3x3
I0913 17:46:01.117837 15161 net.cpp:425] inception_5b/output <- inception_5b/5x5
I0913 17:46:01.117846 15161 net.cpp:425] inception_5b/output <- inception_5b/pool_proj
I0913 17:46:01.117861 15161 net.cpp:399] inception_5b/output -> inception_5b/output
I0913 17:46:01.117934 15161 net.cpp:141] Setting up inception_5b/output
I0913 17:46:01.117949 15161 net.cpp:148] Top shape: 10 1024 7 7 (501760)
I0913 17:46:01.117954 15161 net.cpp:156] Memory required for data: 551371520
I0913 17:46:01.117962 15161 layer_factory.hpp:77] Creating layer pool5/7x7_s1
I0913 17:46:01.117975 15161 net.cpp:91] Creating Layer pool5/7x7_s1
I0913 17:46:01.117983 15161 net.cpp:425] pool5/7x7_s1 <- inception_5b/output
I0913 17:46:01.118000 15161 net.cpp:399] pool5/7x7_s1 -> pool5/7x7_s1
I0913 17:46:01.118429 15161 net.cpp:141] Setting up pool5/7x7_s1
I0913 17:46:01.118445 15161 net.cpp:148] Top shape: 10 1024 1 1 (10240)
I0913 17:46:01.118453 15161 net.cpp:156] Memory required for data: 551412480
I0913 17:46:01.118460 15161 layer_factory.hpp:77] Creating layer pool5/drop_7x7_s1
I0913 17:46:01.118484 15161 net.cpp:91] Creating Layer pool5/drop_7x7_s1
I0913 17:46:01.118494 15161 net.cpp:425] pool5/drop_7x7_s1 <- pool5/7x7_s1
I0913 17:46:01.118504 15161 net.cpp:386] pool5/drop_7x7_s1 -> pool5/7x7_s1 (in-place)
I0913 17:46:01.118573 15161 net.cpp:141] Setting up pool5/drop_7x7_s1
I0913 17:46:01.118587 15161 net.cpp:148] Top shape: 10 1024 1 1 (10240)
I0913 17:46:01.118593 15161 net.cpp:156] Memory required for data: 551453440
I0913 17:46:01.118602 15161 layer_factory.hpp:77] Creating layer loss3/classifier
I0913 17:46:01.118624 15161 net.cpp:91] Creating Layer loss3/classifier
I0913 17:46:01.118633 15161 net.cpp:425] loss3/classifier <- pool5/7x7_s1
I0913 17:46:01.118651 15161 net.cpp:399] loss3/classifier -> loss3/classifier
I0913 17:46:01.133152 15161 net.cpp:141] Setting up loss3/classifier
I0913 17:46:01.133203 15161 net.cpp:148] Top shape: 10 1000 (10000)
I0913 17:46:01.133213 15161 net.cpp:156] Memory required for data: 551493440
I0913 17:46:01.133231 15161 layer_factory.hpp:77] Creating layer prob
I0913 17:46:01.133249 15161 net.cpp:91] Creating Layer prob
I0913 17:46:01.133262 15161 net.cpp:425] prob <- loss3/classifier
I0913 17:46:01.133275 15161 net.cpp:399] prob -> prob
I0913 17:46:01.134264 15161 net.cpp:141] Setting up prob
I0913 17:46:01.134286 15161 net.cpp:148] Top shape: 10 1000 (10000)
I0913 17:46:01.134295 15161 net.cpp:156] Memory required for data: 551533440
I0913 17:46:01.134304 15161 net.cpp:219] prob does not need backward computation.
I0913 17:46:01.134311 15161 net.cpp:219] loss3/classifier does not need backward computation.
I0913 17:46:01.134320 15161 net.cpp:219] pool5/drop_7x7_s1 does not need backward computation.
I0913 17:46:01.134327 15161 net.cpp:219] pool5/7x7_s1 does not need backward computation.
…
