…
Java HotSpot(TM) 64-Bit Server VM warning: You have loaded library /tmp/cvld3495780263507186240/libopencv_java310.xine1.so which might have disabled stack guard. The VM will try to fix the stack guard now.
It's highly recommended that you fix the library with 'execstack -c <libfile>', or link it with '-z noexecstack'.
WARNING: Logging before InitGoogleLogging() is written to STDERR
I0803 21:54:14.796344 24391 net.cpp:49] Initializing net from parameters: 
name: "GoogleNet"
state {
  phase: TEST
}
layer {
  name: "data"
  type: "Input"
  top: "data"
  input_param {
    shape {
      dim: 10
      dim: 3
      dim: 224
      dim: 224
    }
  }
}
layer {
  name: "conv1/7x7_s2"
  type: "Convolution"
  bottom: "data"
  top: "conv1/7x7_s2"
  param {
    lr_mult: 1
    decay_mult: 1
  }
  param {
    lr_mult: 2
    decay_mult: 0
  }
  convolution_param {
    num_output: 64
    pad: 3
    kernel_size: 7
    stride: 2
    weight_filler {
      type: "xavier"
      std: 0.1
    }
    bias_filler {
      type: "constant"
      value: 0.2
    }
  }
}
layer {
  name: "conv1/relu_7x7"
  type: "ReLU"
  bottom: "conv1/7x7_s2"
  top: "conv1/7x7_s2"
}
layer {
  name: "pool1/3x3_s2"
  type: "Pooling"
  bottom: "conv1/7x7_s2"
  top: "pool1/3x3_s2"
  pooling_param {
    pool: MAX
    kernel_size: 3
    stride: 2
  }
}
layer {
  name: "pool1/norm1"
  type: "LRN"
  bottom: "pool1/3x3_s2"
  top: "pool1/norm1"
  lrn_param {
    local_size: 5
    alpha: 0.0001
    beta: 0.75
  }
}
layer {
  name: "conv2/3x3_reduce"
  type: "Convolution"
  bottom: "pool1/norm1"
  top: "conv2/3x3_reduce"
  param {
    lr_mult: 1
    decay_mult: 1
  }
  param {
    lr_mult: 2
    decay_mult: 0
  }
  convolution_param {
    num_output: 64
    kernel_size: 1
    weight_filler {
      type: "xavier"
      std: 0.1
    }
    bias_filler {
      type: "constant"
      value: 0.2
    }
  }
}
layer {
  name: "conv2/relu_3x3_reduce"
  type: "ReLU"
  bottom: "conv2/3x3_reduce"
  top: "conv2/3x3_reduce"
}
layer {
  name: "conv2/3x3"
  type: "Convolution"
  bottom: "conv2/3x3_reduce"
  top: "conv2/3x3"
  param {
    lr_mult: 1
    decay_mult: 1
  }
  param {
    lr_mult: 2
    decay_mult: 0
  }
  convolution_param {
    num_output: 192
    pad: 1
    kernel_size: 3
    weight_filler {
      type: "xavier"
      std: 0.03
    }
    bias_filler {
      type: "constant"
      value: 0.2
    }
  }
}
layer {
  name: "conv2/relu_3x3"
  type: "ReLU"
  bottom: "conv2/3x3"
  top: "conv2/3x3"
}
layer {
  name: "conv2/norm2"
  type: "LRN"
  bottom: "conv2/3x3"
  top: "conv2/norm2"
  lrn_param {
    local_size: 5
    alpha: 0.0001
    beta: 0.75
  }
}
layer {
  name: "pool2/3x3_s2"
  type: "Pooling"
  bottom: "conv2/norm2"
  top: "pool2/3x3_s2"
  pooling_param {
    pool: MAX
    kernel_size: 3
    stride: 2
  }
}
layer {
  name: "inception_3a/1x1"
  type: "Convolution"
  bottom: "pool2/3x3_s2"
  top: "inception_3a/1x1"
  param {
    lr_mult: 1
    decay_mult: 1
  }
  param {
    lr_mult: 2
    decay_mult: 0
  }
  convolution_param {
    num_output: 64
    kernel_size: 1
    weight_filler {
      type: "xavier"
      std: 0.03
    }
    bias_filler {
      type: "constant"
      value: 0.2
    }
  }
}
layer {
  name: "inception_3a/relu_1x1"
  type: "ReLU"
  bottom: "inception_3a/1x1"
  top: "inception_3a/1x1"
}
layer {
  name: "inception_3a/3x3_reduce"
  type: "Convolution"
  bottom: "pool2/3x3_s2"
  top: "inception_3a/3x3_reduce"
  param {
    lr_mult: 1
    decay_mult: 1
  }
  param {
    lr_mult: 2
    decay_mult: 0
  }
  convolution_param {
    num_output: 96
    kernel_size: 1
    weight_filler {
      type: "xavier"
      std: 0.09
    }
    bias_filler {
      type: "constant"
      value: 0.2
    }
  }
}
layer {
  name: "inception_3a/relu_3x3_reduce"
  type: "ReLU"
  bottom: "inception_3a/3x3_reduce"
  top: "inception_3a/3x3_reduce"
}
layer {
  name: "inception_3a/3x3"
  type: "Convolution"
  bottom: "inception_3a/3x3_reduce"
  top: "inception_3a/3x3"
  param {
    lr_mult: 1
    decay_mult: 1
  }
  param {
    lr_mult: 2
    decay_mult: 0
  }
  convolution_param {
    num_output: 128
    pad: 1
    kernel_size: 3
    weight_filler {
      type: "xavier"
      std: 0.03
    }
    bias_filler {
      type: "constant"
      value: 0.2
    }
  }
}
layer {
  name: "inception_3a/relu_3x3"
  type: "ReLU"
  bottom: "inception_3a/3x3"
  top: "inception_3a/3x3"
}
layer {
  name: "inception_3a/5x5_reduce"
  type: "Convolution"
  bottom: "pool2/3x3_s2"
  top: "inception_3a/5x5_reduce"
  param {
    lr_mult: 1
    decay_mult: 1
  }
  param {
    lr_mult: 2
    decay_mult: 0
  }
  convolution_param {
    num_output: 16
    kernel_size: 1
    weight_filler {
      type: "xavier"
      std: 0.2
    }
    bias_filler {
      type: "constant"
      value: 0.2
    }
  }
}
layer {
  name: "inception_3a/relu_5x5_reduce"
  type: "ReLU"
  bottom: "inception_3a/5x5_reduce"
  top: "inception_3a/5x5_reduce"
}
layer {
  name: "inception_3a/5x5"
  type: "Convolution"
  bottom: "inception_3a/5x5_reduce"
  top: "inception_3a/5x5"
  param {
    lr_mult: 1
    decay_mult: 1
  }
  param {
    lr_mult: 2
    decay_mult: 0
  }
  convolution_param {
    num_output: 32
    pad: 2
    kernel_size: 5
    weight_filler {
      type: "xavier"
      std: 0.03
    }
    bias_filler {
      type: "constant"
      value: 0.2
    }
  }
}
layer {
  name: "inception_3a/relu_5x5"
  type: "ReLU"
  bottom: "inception_3a/5x5"
  top: "inception_3a/5x5"
}
layer {
  name: "inception_3a/pool"
  type: "Pooling"
  bottom: "pool2/3x3_s2"
  top: "inception_3a/pool"
  pooling_param {
    pool: MAX
    kernel_size: 3
    stride: 1
    pad: 1
  }
}
layer {
  name: "inception_3a/pool_proj"
  type: "Convolution"
  bottom: "inception_3a/pool"
  top: "inception_3a/pool_proj"
  param {
    lr_mult: 1
    decay_mult: 1
  }
  param {
    lr_mult: 2
    decay_mult: 0
  }
  convolution_param {
    num_output: 32
    kernel_size: 1
    weight_filler {
      type: "xavier"
      std: 0.1
    }
    bias_filler {
      type: "constant"
      value: 0.2
    }
  }
}
layer {
  name: "inception_3a/relu_pool_proj"
  type: "ReLU"
  bottom: "inception_3a/pool_proj"
  top: "inception_3a/pool_proj"
}
layer {
  name: "inception_3a/output"
  type: "Concat"
  bottom: "inception_3a/1x1"
  bottom: "inception_3a/3x3"
  bottom: "inception_3a/5x5"
  bottom: "inception_3a/pool_proj"
  top: "inception_3a/output"
}
layer {
  name: "inception_3b/1x1"
  type: "Convolution"
  bottom: "inception_3a/output"
  top: "inception_3b/1x1"
  param {
    lr_mult: 1
    decay_mult: 1
  }
  param {
    lr_mult: 2
    decay_mult: 0
  }
  convolution_param {
    num_output: 128
    kernel_size: 1
    weight_filler {
      type: "xavier"
      std: 0.03
    }
    bias_filler {
      type: "constant"
      value: 0.2
    }
  }
}
layer {
  name: "inception_3b/relu_1x1"
  type: "ReLU"
  bottom: "inception_3b/1x1"
  top: "inception_3b/1x1"
}
layer {
  name: "inception_3b/3x3_reduce"
  type: "Convolution"
  bottom: "inception_3a/output"
  top: "inception_3b/3x3_reduce"
  param {
    lr_mult: 1
    decay_mult: 1
  }
  param {
    lr_mult: 2
    decay_mult: 0
  }
  convolution_param {
    num_output: 128
    kernel_size: 1
    weight_filler {
      type: "xavier"
      std: 0.09
    }
    bias_filler {
      type: "constant"
      value: 0.2
    }
  }
}
layer {
  name: "inception_3b/relu_3x3_reduce"
  type: "ReLU"
  bottom: "inception_3b/3x3_reduce"
  top: "inception_3b/3x3_reduce"
}
layer {
  name: "inception_3b/3x3"
  type: "Convolution"
  bottom: "inception_3b/3x3_reduce"
  top: "inception_3b/3x3"
  param {
    lr_mult: 1
    decay_mult: 1
  }
  param {
    lr_mult: 2
    decay_mult: 0
  }
  convolution_param {
    num_output: 192
    pad: 1
    kernel_size: 3
    weight_filler {
      type: "xavier"
      std: 0.03
    }
    bias_filler {
      type: "constant"
      value: 0.2
    }
  }
}
layer {
  name: "inception_3b/relu_3x3"
  type: "ReLU"
  bottom: "inception_3b/3x3"
  top: "inception_3b/3x3"
}
layer {
  name: "inception_3b/5x5_reduce"
  type: "Convolution"
  bottom: "inception_3a/output"
  top: "inception_3b/5x5_reduce"
  param {
    lr_mult: 1
    decay_mult: 1
  }
  param {
    lr_mult: 2
    decay_mult: 0
  }
  convolution_param {
    num_output: 32
    kernel_size: 1
    weight_filler {
      type: "xavier"
      std: 0.2
    }
    bias_filler {
      type: "constant"
      value: 0.2
    }
  }
}
layer {
  name: "inception_3b/relu_5x5_reduce"
  type: "ReLU"
  bottom: "inception_3b/5x5_reduce"
  top: "inception_3b/5x5_reduce"
}
layer {
  name: "inception_3b/5x5"
  type: "Convolution"
  bottom: "inception_3b/5x5_reduce"
  top: "inception_3b/5x5"
  param {
    lr_mult: 1
    decay_mult: 1
  }
  param {
    lr_mult: 2
    decay_mult: 0
  }
  convolution_param {
    num_output: 96
    pad: 2
    kernel_size: 5
    weight_filler {
      type: "xavier"
      std: 0.03
    }
    bias_filler {
      type: "constant"
      value: 0.2
    }
  }
}
layer {
  name: "inception_3b/relu_5x5"
  type: "ReLU"
  bottom: "inception_3b/5x5"
  top: "inception_3b/5x5"
}
layer {
  name: "inception_3b/pool"
  type: "Pooling"
  bottom: "inception_3a/output"
  top: "inception_3b/pool"
  pooling_param {
    pool: MAX
    kernel_size: 3
    stride: 1
    pad: 1
  }
}
layer {
  name: "inception_3b/pool_proj"
  type: "Convolution"
  bottom: "inception_3b/pool"
  top: "inception_3b/pool_proj"
  param {
    lr_mult: 1
    decay_mult: 1
  }
  param {
    lr_mult: 2
    decay_mult: 0
  }
  convolution_param {
    num_output: 64
    kernel_size: 1
    weight_filler {
      type: "xavier"
      std: 0.1
    }
    bias_filler {
      type: "constant"
      value: 0.2
    }
  }
}
layer {
  name: "inception_3b/relu_pool_proj"
  type: "ReLU"
  bottom: "inception_3b/pool_proj"
  top: "inception_3b/pool_proj"
}
layer {
  name: "inception_3b/output"
  type: "Concat"
  bottom: "inception_3b/1x1"
  bottom: "inception_3b/3x3"
  bottom: "inception_3b/5x5"
  bottom: "inception_3b/pool_proj"
  top: "inception_3b/output"
}
layer {
  name: "pool3/3x3_s2"
  type: "Pooling"
  bottom: "inception_3b/output"
  top: "pool3/3x3_s2"
  pooling_param {
    pool: MAX
    kernel_size: 3
    stride: 2
  }
}
layer {
  name: "inception_4a/1x1"
  type: "Convolution"
  bottom: "pool3/3x3_s2"
  top: "inception_4a/1x1"
  param {
    lr_mult: 1
    decay_mult: 1
  }
  param {
    lr_mult: 2
    decay_mult: 0
  }
  convolution_param {
    num_output: 192
    kernel_size: 1
    weight_filler {
      type: "xavier"
      std: 0.03
    }
    bias_filler {
      type: "constant"
      value: 0.2
    }
  }
}
layer {
  name: "inception_4a/relu_1x1"
  type: "ReLU"
  bottom: "inception_4a/1x1"
  top: "inception_4a/1x1"
}
layer {
  name: "inception_4a/3x3_reduce"
  type: "Convolution"
  bottom: "pool3/3x3_s2"
  top: "inception_4a/3x3_reduce"
  param {
    lr_mult: 1
    decay_mult: 1
  }
  param {
    lr_mult: 2
    decay_mult: 0
  }
  convolution_param {
    num_output: 96
    kernel_size: 1
    weight_filler {
      type: "xavier"
      std: 0.09
    }
    bias_filler {
      type: "constant"
      value: 0.2
    }
  }
}
layer {
  name: "inception_4a/relu_3x3_reduce"
  type: "ReLU"
  bottom: "inception_4a/3x3_reduce"
  top: "inception_4a/3x3_reduce"
}
layer {
  name: "inception_4a/3x3"
  type: "Convolution"
  bottom: "inception_4a/3x3_reduce"
  top: "inception_4a/3x3"
  param {
    lr_mult: 1
    decay_mult: 1
  }
  param {
    lr_mult: 2
    decay_mult: 0
  }
  convolution_param {
    num_output: 208
    pad: 1
    kernel_size: 3
    weight_filler {
      type: "xavier"
      std: 0.03
    }
    bias_filler {
      type: "constant"
      value: 0.2
    }
  }
}
layer {
  name: "inception_4a/relu_3x3"
  type: "ReLU"
  bottom: "inception_4a/3x3"
  top: "inception_4a/3x3"
}
layer {
  name: "inception_4a/5x5_reduce"
  type: "Convolution"
  bottom: "pool3/3x3_s2"
  top: "inception_4a/5x5_reduce"
  param {
    lr_mult: 1
    decay_mult: 1
  }
  param {
    lr_mult: 2
    decay_mult: 0
  }
  convolution_param {
    num_output: 16
    kernel_size: 1
    weight_filler {
      type: "xavier"
      std: 0.2
    }
    bias_filler {
      type: "constant"
      value: 0.2
    }
  }
}
layer {
  name: "inception_4a/relu_5x5_reduce"
  type: "ReLU"
  bottom: "inception_4a/5x5_reduce"
  top: "inception_4a/5x5_reduce"
}
layer {
  name: "inception_4a/5x5"
  type: "Convolution"
  bottom: "inception_4a/5x5_reduce"
  top: "inception_4a/5x5"
  param {
    lr_mult: 1
    decay_mult: 1
  }
  param {
    lr_mult: 2
    decay_mult: 0
  }
  convolution_param {
    num_output: 48
    pad: 2
    kernel_size: 5
    weight_filler {
      type: "xavier"
      std: 0.03
    }
    bias_filler {
      type: "constant"
      value: 0.2
    }
  }
}
layer {
  name: "inception_4a/relu_5x5"
  type: "ReLU"
  bottom: "inception_4a/5x5"
  top: "inception_4a/5x5"
}
layer {
  name: "inception_4a/pool"
  type: "Pooling"
  bottom: "pool3/3x3_s2"
  top: "inception_4a/pool"
  pooling_param {
    pool: MAX
    kernel_size: 3
    stride: 1
    pad: 1
  }
}
layer {
  name: "inception_4a/pool_proj"
  type: "Convolution"
  bottom: "inception_4a/pool"
  top: "inception_4a/pool_proj"
  param {
    lr_mult: 1
    decay_mult: 1
  }
  param {
    lr_mult: 2
    decay_mult: 0
  }
  convolution_param {
    num_output: 64
    kernel_size: 1
    weight_filler {
      type: "xavier"
      std: 0.1
    }
    bias_filler {
      type: "constant"
      value: 0.2
    }
  }
}
layer {
  name: "inception_4a/relu_pool_proj"
  type: "ReLU"
  bottom: "inception_4a/pool_proj"
  top: "inception_4a/pool_proj"
}
layer {
  name: "inception_4a/output"
  type: "Concat"
  bottom: "inception_4a/1x1"
  bottom: "inception_4a/3x3"
  bottom: "inception_4a/5x5"
  bottom: "inception_4a/pool_proj"
  top: "inception_4a/output"
}
layer {
  name: "inception_4b/1x1"
  type: "Convolution"
  bottom: "inception_4a/output"
  top: "inception_4b/1x1"
  param {
    lr_mult: 1
    decay_mult: 1
  }
  param {
    lr_mult: 2
    decay_mult: 0
  }
  convolution_param {
    num_output: 160
    kernel_size: 1
    weight_filler {
      type: "xavier"
      std: 0.03
    }
    bias_filler {
      type: "constant"
      value: 0.2
    }
  }
}
layer {
  name: "inception_4b/relu_1x1"
  type: "ReLU"
  bottom: "inception_4b/1x1"
  top: "inception_4b/1x1"
}
layer {
  name: "inception_4b/3x3_reduce"
  type: "Convolution"
  bottom: "inception_4a/output"
  top: "inception_4b/3x3_reduce"
  param {
    lr_mult: 1
    decay_mult: 1
  }
  param {
    lr_mult: 2
    decay_mult: 0
  }
  convolution_param {
    num_output: 112
    kernel_size: 1
    weight_filler {
      type: "xavier"
      std: 0.09
    }
    bias_filler {
      type: "constant"
      value: 0.2
    }
  }
}
layer {
  name: "inception_4b/relu_3x3_reduce"
  type: "ReLU"
  bottom: "inception_4b/3x3_reduce"
  top: "inception_4b/3x3_reduce"
}
layer {
  name: "inception_4b/3x3"
  type: "Convolution"
  bottom: "inception_4b/3x3_reduce"
  top: "inception_4b/3x3"
  param {
    lr_mult: 1
    decay_mult: 1
  }
  param {
    lr_mult: 2
    decay_mult: 0
  }
  convolution_param {
    num_output: 224
    pad: 1
    kernel_size: 3
    weight_filler {
      type: "xavier"
      std: 0.03
    }
    bias_filler {
      type: "constant"
      value: 0.2
    }
  }
}
layer {
  name: "inception_4b/relu_3x3"
  type: "ReLU"
  bottom: "inception_4b/3x3"
  top: "inception_4b/3x3"
}
layer {
  name: "inception_4b/5x5_reduce"
  type: "Convolution"
  bottom: "inception_4a/output"
  top: "inception_4b/5x5_reduce"
  param {
    lr_mult: 1
    decay_mult: 1
  }
  param {
    lr_mult: 2
    decay_mult: 0
  }
  convolution_param {
    num_output: 24
    kernel_size: 1
    weight_filler {
      type: "xavier"
      std: 0.2
    }
    bias_filler {
      type: "constant"
      value: 0.2
    }
  }
}
layer {
  name: "inception_4b/relu_5x5_reduce"
  type: "ReLU"
  bottom: "inception_4b/5x5_reduce"
  top: "inception_4b/5x5_reduce"
}
layer {
  name: "inception_4b/5x5"
  type: "Convolution"
  bottom: "inception_4b/5x5_reduce"
  top: "inception_4b/5x5"
  param {
    lr_mult: 1
    decay_mult: 1
  }
  param {
    lr_mult: 2
    decay_mult: 0
  }
  convolution_param {
    num_output: 64
    pad: 2
    kernel_size: 5
    weight_filler {
      type: "xavier"
      std: 0.03
    }
    bias_filler {
      type: "constant"
      value: 0.2
    }
  }
}
layer {
  name: "inception_4b/relu_5x5"
  type: "ReLU"
  bottom: "inception_4b/5x5"
  top: "inception_4b/5x5"
}
layer {
  name: "inception_4b/pool"
  type: "Pooling"
  bottom: "inception_4a/output"
  top: "inception_4b/pool"
  pooling_param {
    pool: MAX
    kernel_size: 3
    stride: 1
    pad: 1
  }
}
layer {
  name: "inception_4b/pool_proj"
  type: "Convolution"
  bottom: "inception_4b/pool"
  top: "inception_4b/pool_proj"
  param {
    lr_mult: 1
    decay_mult: 1
  }
  param {
    lr_mult: 2
    decay_mult: 0
  }
  convolution_param {
    num_output: 64
    kernel_size: 1
    weight_filler {
      type: "xavier"
      std: 0.1
    }
    bias_filler {
      type: "constant"
      value: 0.2
    }
  }
}
layer {
  name: "inception_4b/relu_pool_proj"
  type: "ReLU"
  bottom: "inception_4b/pool_proj"
  top: "inception_4b/pool_proj"
}
layer {
  name: "inception_4b/output"
  type: "Concat"
  bottom: "inception_4b/1x1"
  bottom: "inception_4b/3x3"
  bottom: "inception_4b/5x5"
  bottom: "inception_4b/pool_proj"
  top: "inception_4b/output"
}
layer {
  name: "inception_4c/1x1"
  type: "Convolution"
  bottom: "inception_4b/output"
  top: "inception_4c/1x1"
  param {
    lr_mult: 1
    decay_mult: 1
  }
  param {
    lr_mult: 2
    decay_mult: 0
  }
  convolution_param {
    num_output: 128
    kernel_size: 1
    weight_filler {
      type: "xavier"
      std: 0.03
    }
    bias_filler {
      type: "constant"
      value: 0.2
    }
  }
}
layer {
  name: "inception_4c/relu_1x1"
  type: "ReLU"
  bottom: "inception_4c/1x1"
  top: "inception_4c/1x1"
}
layer {
  name: "inception_4c/3x3_reduce"
  type: "Convolution"
  bottom: "inception_4b/output"
  top: "inception_4c/3x3_reduce"
  param {
    lr_mult: 1
    decay_mult: 1
  }
  param {
    lr_mult: 2
    decay_mult: 0
  }
  convolution_param {
    num_output: 128
    kernel_size: 1
    weight_filler {
      type: "xavier"
      std: 0.09
    }
    bias_filler {
      type: "constant"
      value: 0.2
    }
  }
}
layer {
  name: "inception_4c/relu_3x3_reduce"
  type: "ReLU"
  bottom: "inception_4c/3x3_reduce"
  top: "inception_4c/3x3_reduce"
}
layer {
  name: "inception_4c/3x3"
  type: "Convolution"
  bottom: "inception_4c/3x3_reduce"
  top: "inception_4c/3x3"
  param {
    lr_mult: 1
    decay_mult: 1
  }
  param {
    lr_mult: 2
    decay_mult: 0
  }
  convolution_param {
    num_output: 256
    pad: 1
    kernel_size: 3
    weight_filler {
      type: "xavier"
      std: 0.03
    }
    bias_filler {
      type: "constant"
      value: 0.2
    }
  }
}
layer {
  name: "inception_4c/relu_3x3"
  type: "ReLU"
  bottom: "inception_4c/3x3"
  top: "inception_4c/3x3"
}
layer {
  name: "inception_4c/5x5_reduce"
  type: "Convolution"
  bottom: "inception_4b/output"
  top: "inception_4c/5x5_reduce"
  param {
    lr_mult: 1
    decay_mult: 1
  }
  param {
    lr_mult: 2
    decay_mult: 0
  }
  convolution_param {
    num_output: 24
    kernel_size: 1
    weight_filler {
      type: "xavier"
      std: 0.2
    }
    bias_filler {
      type: "constant"
      value: 0.2
    }
  }
}
layer {
  name: "inception_4c/relu_5x5_reduce"
  type: "ReLU"
  bottom: "inception_4c/5x5_reduce"
  top: "inception_4c/5x5_reduce"
}
layer {
  name: "inception_4c/5x5"
  type: "Convolution"
  bottom: "inception_4c/5x5_reduce"
  top: "inception_4c/5x5"
  param {
    lr_mult: 1
    decay_mult: 1
  }
  param {
    lr_mult: 2
    decay_mult: 0
  }
  convolution_param {
    num_output: 64
    pad: 2
    kernel_size: 5
    weight_filler {
      type: "xavier"
      std: 0.03
    }
    bias_filler {
      type: "constant"
      value: 0.2
    }
  }
}
layer {
  name: "inception_4c/relu_5x5"
  type: "ReLU"
  bottom: "inception_4c/5x5"
  top: "inception_4c/5x5"
}
layer {
  name: "inception_4c/pool"
  type: "Pooling"
  bottom: "inception_4b/output"
  top: "inception_4c/pool"
  pooling_param {
    pool: MAX
    kernel_size: 3
    stride: 1
    pad: 1
  }
}
layer {
  name: "inception_4c/pool_proj"
  type: "Convolution"
  bottom: "inception_4c/pool"
  top: "inception_4c/pool_proj"
  param {
    lr_mult: 1
    decay_mult: 1
  }
  param {
    lr_mult: 2
    decay_mult: 0
  }
  convolution_param {
    num_output: 64
    kernel_size: 1
    weight_filler {
      type: "xavier"
      std: 0.1
    }
    bias_filler {
      type: "constant"
      value: 0.2
    }
  }
}
layer {
  name: "inception_4c/relu_pool_proj"
  type: "ReLU"
  bottom: "inception_4c/pool_proj"
  top: "inception_4c/pool_proj"
}
layer {
  name: "inception_4c/output"
  type: "Concat"
  bottom: "inception_4c/1x1"
  bottom: "inception_4c/3x3"
  bottom: "inception_4c/5x5"
  bottom: "inception_4c/pool_proj"
  top: "inception_4c/output"
}
layer {
  name: "inception_4d/1x1"
  type: "Convolution"
  bottom: "inception_4c/output"
  top: "inception_4d/1x1"
  param {
    lr_mult: 1
    decay_mult: 1
  }
  param {
    lr_mult: 2
    decay_mult: 0
  }
  convolution_param {
    num_output: 112
    kernel_size: 1
    weight_filler {
      type: "xavier"
      std: 0.03
    }
    bias_filler {
      type: "constant"
      value: 0.2
    }
  }
}
layer {
  name: "inception_4d/relu_1x1"
  type: "ReLU"
  bottom: "inception_4d/1x1"
  top: "inception_4d/1x1"
}
layer {
  name: "inception_4d/3x3_reduce"
  type: "Convolution"
  bottom: "inception_4c/output"
  top: "inception_4d/3x3_reduce"
  param {
    lr_mult: 1
    decay_mult: 1
  }
  param {
    lr_mult: 2
    decay_mult: 0
  }
  convolution_param {
    num_output: 144
    kernel_size: 1
    weight_filler {
      type: "xavier"
      std: 0.09
    }
    bias_filler {
      type: "constant"
      value: 0.2
    }
  }
}
layer {
  name: "inception_4d/relu_3x3_reduce"
  type: "ReLU"
  bottom: "inception_4d/3x3_reduce"
  top: "inception_4d/3x3_reduce"
}
layer {
  name: "inception_4d/3x3"
  type: "Convolution"
  bottom: "inception_4d/3x3_reduce"
  top: "inception_4d/3x3"
  param {
    lr_mult: 1
    decay_mult: 1
  }
  param {
    lr_mult: 2
    decay_mult: 0
  }
  convolution_param {
    num_output: 288
    pad: 1
    kernel_size: 3
    weight_filler {
      type: "xavier"
      std: 0.03
    }
    bias_filler {
      type: "constant"
      value: 0.2
    }
  }
}
layer {
  name: "inception_4d/relu_3x3"
  type: "ReLU"
  bottom: "inception_4d/3x3"
  top: "inception_4d/3x3"
}
layer {
  name: "inception_4d/5x5_reduce"
  type: "Convolution"
  bottom: "inception_4c/output"
  top: "inception_4d/5x5_reduce"
  param {
    lr_mult: 1
    decay_mult: 1
  }
  param {
    lr_mult: 2
    decay_mult: 0
  }
  convolution_param {
    num_output: 32
    kernel_size: 1
    weight_filler {
      type: "xavier"
      std: 0.2
    }
    bias_filler {
      type: "constant"
      value: 0.2
    }
  }
}
layer {
  name: "inception_4d/relu_5x5_reduce"
  type: "ReLU"
  bottom: "inception_4d/5x5_reduce"
  top: "inception_4d/5x5_reduce"
}
layer {
  name: "inception_4d/5x5"
  type: "Convolution"
  bottom: "inception_4d/5x5_reduce"
  top: "inception_4d/5x5"
  param {
    lr_mult: 1
    decay_mult: 1
  }
  param {
    lr_mult: 2
    decay_mult: 0
  }
  convolution_param {
    num_output: 64
    pad: 2
    kernel_size: 5
    weight_filler {
      type: "xavier"
      std: 0.03
    }
    bias_filler {
      type: "constant"
      value: 0.2
    }
  }
}
layer {
  name: "inception_4d/relu_5x5"
  type: "ReLU"
  bottom: "inception_4d/5x5"
  top: "inception_4d/5x5"
}
layer {
  name: "inception_4d/pool"
  type: "Pooling"
  bottom: "inception_4c/output"
  top: "inception_4d/pool"
  pooling_param {
    pool: MAX
    kernel_size: 3
    stride: 1
    pad: 1
  }
}
layer {
  name: "inception_4d/pool_proj"
  type: "Convolution"
  bottom: "inception_4d/pool"
  top: "inception_4d/pool_proj"
  param {
    lr_mult: 1
    decay_mult: 1
  }
  param {
    lr_mult: 2
    decay_mult: 0
  }
  convolution_param {
    num_output: 64
    kernel_size: 1
    weight_filler {
      type: "xavier"
      std: 0.1
    }
    bias_filler {
      type: "constant"
      value: 0.2
    }
  }
}
layer {
  name: "inception_4d/relu_pool_proj"
  type: "ReLU"
  bottom: "inception_4d/pool_proj"
  top: "inception_4d/pool_proj"
}
layer {
  name: "inception_4d/output"
  type: "Concat"
  bottom: "inception_4d/1x1"
  bottom: "inception_4d/3x3"
  bottom: "inception_4d/5x5"
  bottom: "inception_4d/pool_proj"
  top: "inception_4d/output"
}
layer {
  name: "inception_4e/1x1"
  type: "Convolution"
  bottom: "inception_4d/output"
  top: "inception_4e/1x1"
  param {
    lr_mult: 1
    decay_mult: 1
  }
  param {
    lr_mult: 2
    decay_mult: 0
  }
  convolution_param {
    num_output: 256
    kernel_size: 1
    weight_filler {
      type: "xavier"
      std: 0.03
    }
    bias_filler {
      type: "constant"
      value: 0.2
    }
  }
}
layer {
  name: "inception_4e/relu_1x1"
  type: "ReLU"
  bottom: "inception_4e/1x1"
  top: "inception_4e/1x1"
}
layer {
  name: "inception_4e/3x3_reduce"
  type: "Convolution"
  bottom: "inception_4d/output"
  top: "inception_4e/3x3_reduce"
  param {
    lr_mult: 1
    decay_mult: 1
  }
  param {
    lr_mult: 2
    decay_mult: 0
  }
  convolution_param {
    num_output: 160
    kernel_size: 1
    weight_filler {
      type: "xavier"
      std: 0.09
    }
    bias_filler {
      type: "constant"
      value: 0.2
    }
  }
}
layer {
  name: "inception_4e/relu_3x3_reduce"
  type: "ReLU"
  bottom: "inception_4e/3x3_reduce"
  top: "inception_4e/3x3_reduce"
}
layer {
  name: "inception_4e/3x3"
  type: "Convolution"
  bottom: "inception_4e/3x3_reduce"
  top: "inception_4e/3x3"
  param {
    lr_mult: 1
    decay_mult: 1
  }
  param {
    lr_mult: 2
    decay_mult: 0
  }
  convolution_param {
    num_output: 320
    pad: 1
    kernel_size: 3
    weight_filler {
      type: "xavier"
      std: 0.03
    }
    bias_filler {
      type: "constant"
      value: 0.2
    }
  }
}
layer {
  name: "inception_4e/relu_3x3"
  type: "ReLU"
  bottom: "inception_4e/3x3"
  top: "inception_4e/3x3"
}
layer {
  name: "inception_4e/5x5_reduce"
  type: "Convolution"
  bottom: "inception_4d/output"
  top: "inception_4e/5x5_reduce"
  param {
    lr_mult: 1
    decay_mult: 1
  }
  param {
    lr_mult: 2
    decay_mult: 0
  }
  convolution_param {
    num_output: 32
    kernel_size: 1
    weight_filler {
      type: "xavier"
      std: 0.2
    }
    bias_filler {
      type: "constant"
      value: 0.2
    }
  }
}
layer {
  name: "inception_4e/relu_5x5_reduce"
  type: "ReLU"
  bottom: "inception_4e/5x5_reduce"
  top: "inception_4e/5x5_reduce"
}
layer {
  name: "inception_4e/5x5"
  type: "Convolution"
  bottom: "inception_4e/5x5_reduce"
  top: "inception_4e/5x5"
  param {
    lr_mult: 1
    decay_mult: 1
  }
  param {
    lr_mult: 2
    decay_mult: 0
  }
  convolution_param {
    num_output: 128
    pad: 2
    kernel_size: 5
    weight_filler {
      type: "xavier"
      std: 0.03
    }
    bias_filler {
      type: "constant"
      value: 0.2
    }
  }
}
layer {
  name: "inception_4e/relu_5x5"
  type: "ReLU"
  bottom: "inception_4e/5x5"
  top: "inception_4e/5x5"
}
layer {
  name: "inception_4e/pool"
  type: "Pooling"
  bottom: "inception_4d/output"
  top: "inception_4e/pool"
  pooling_param {
    pool: MAX
    kernel_size: 3
    stride: 1
    pad: 1
  }
}
layer {
  name: "inception_4e/pool_proj"
  type: "Convolution"
  bottom: "inception_4e/pool"
  top: "inception_4e/pool_proj"
  param {
    lr_mult: 1
    decay_mult: 1
  }
  param {
    lr_mult: 2
    decay_mult: 0
  }
  convolution_param {
    num_output: 128
    kernel_size: 1
    weight_filler {
      type: "xavier"
      std: 0.1
    }
    bias_filler {
      type: "constant"
      value: 0.2
    }
  }
}
layer {
  name: "inception_4e/relu_pool_proj"
  type: "ReLU"
  bottom: "inception_4e/pool_proj"
  top: "inception_4e/pool_proj"
}
layer {
  name: "inception_4e/output"
  type: "Concat"
  bottom: "inception_4e/1x1"
  bottom: "inception_4e/3x3"
  bottom: "inception_4e/5x5"
  bottom: "inception_4e/pool_proj"
  top: "inception_4e/output"
}
layer {
  name: "pool4/3x3_s2"
  type: "Pooling"
  bottom: "inception_4e/output"
  top: "pool4/3x3_s2"
  pooling_param {
    pool: MAX
    kernel_size: 3
    stride: 2
  }
}
layer {
  name: "inception_5a/1x1"
  type: "Convolution"
  bottom: "pool4/3x3_s2"
  top: "inception_5a/1x1"
  param {
    lr_mult: 1
    decay_mult: 1
  }
  param {
    lr_mult: 2
    decay_mult: 0
  }
  convolution_param {
    num_output: 256
    kernel_size: 1
    weight_filler {
      type: "xavier"
      std: 0.03
    }
    bias_filler {
      type: "constant"
      value: 0.2
    }
  }
}
layer {
  name: "inception_5a/relu_1x1"
  type: "ReLU"
  bottom: "inception_5a/1x1"
  top: "inception_5a/1x1"
}
layer {
  name: "inception_5a/3x3_reduce"
  type: "Convolution"
  bottom: "pool4/3x3_s2"
  top: "inception_5a/3x3_reduce"
  param {
    lr_mult: 1
    decay_mult: 1
  }
  param {
    lr_mult: 2
    decay_mult: 0
  }
  convolution_param {
    num_output: 160
    kernel_size: 1
    weight_filler {
      type: "xavier"
      std: 0.09
    }
    bias_filler {
      type: "constant"
      value: 0.2
    }
  }
}
layer {
  name: "inception_5a/relu_3x3_reduce"
  type: "ReLU"
  bottom: "inception_5a/3x3_reduce"
  top: "inception_5a/3x3_reduce"
}
layer {
  name: "inception_5a/3x3"
  type: "Convolution"
  bottom: "inception_5a/3x3_reduce"
  top: "inception_5a/3x3"
  param {
    lr_mult: 1
    decay_mult: 1
  }
  param {
    lr_mult: 2
    decay_mult: 0
  }
  convolution_param {
    num_output: 320
    pad: 1
    kernel_size: 3
    weight_filler {
      type: "xavier"
      std: 0.03
    }
    bias_filler {
      type: "constant"
      value: 0.2
    }
  }
}
layer {
  name: "inception_5a/relu_3x3"
  type: "ReLU"
  bottom: "inception_5a/3x3"
  top: "inception_5a/3x3"
}
layer {
  name: "inception_5a/5x5_reduce"
  type: "Convolution"
  bottom: "pool4/3x3_s2"
  top: "inception_5a/5x5_reduce"
  param {
    lr_mult: 1
    decay_mult: 1
  }
  param {
    lr_mult: 2
    decay_mult: 0
  }
  convolution_param {
    num_output: 32
    kernel_size: 1
    weight_filler {
      type: "xavier"
      std: 0.2
    }
    bias_filler {
      type: "constant"
      value: 0.2
    }
I0803 21:54:14.797370 24391 layer_factory.hpp:77] Creating layer data
I0803 21:54:14.797399 24391 net.cpp:91] Creating Layer data
I0803 21:54:14.797411 24391 net.cpp:399] data -> data
I0803 21:54:14.812780 24395 net.cpp:49] Initializing net from parameters: 
name: "GoogleNet"
state {
  phase: TEST
}
layer {
  name: "data"
  type: "Input"
  top: "data"
  input_param {
    shape {
      dim: 10
      dim: 3
      dim: 224
      dim: 224
    }
  }
}
layer {
  name: "conv1/7x7_s2"
  type: "Convolution"
  bottom: "data"
  top: "conv1/7x7_s2"
  param {
    lr_mult: 1
    decay_mult: 1
  }
  param {
    lr_mult: 2
    decay_mult: 0
  }
  convolution_param {
    num_output: 64
    pad: 3
    kernel_size: 7
    stride: 2
    weight_filler {
      type: "xavier"
      std: 0.1
    }
    bias_filler {
      type: "constant"
      value: 0.2
    }
  }
}
layer {
  name: "conv1/relu_7x7"
  type: "ReLU"
  bottom: "conv1/7x7_s2"
  top: "conv1/7x7_s2"
}
layer {
  name: "pool1/3x3_s2"
  type: "Pooling"
  bottom: "conv1/7x7_s2"
  top: "pool1/3x3_s2"
  pooling_param {
    pool: MAX
    kernel_size: 3
    stride: 2
  }
}
layer {
  name: "pool1/norm1"
  type: "LRN"
  bottom: "pool1/3x3_s2"
  top: "pool1/norm1"
  lrn_param {
    local_size: 5
    alpha: 0.0001
    beta: 0.75
  }
}
layer {
  name: "conv2/3x3_reduce"
  type: "Convolution"
  bottom: "pool1/norm1"
  top: "conv2/3x3_reduce"
  param {
    lr_mult: 1
    decay_mult: 1
  }
  param {
    lr_mult: 2
    decay_mult: 0
  }
  convolution_param {
    num_output: 64
    kernel_size: 1
    weight_filler {
      type: "xavier"
      std: 0.1
    }
    bias_filler {
      type: "constant"
      value: 0.2
    }
  }
}
layer {
  name: "conv2/relu_3x3_reduce"
  type: "ReLU"
  bottom: "conv2/3x3_reduce"
  top: "conv2/3x3_reduce"
}
layer {
  name: "conv2/3x3"
  type: "Convolution"
  bottom: "conv2/3x3_reduce"
  top: "conv2/3x3"
  param {
    lr_mult: 1
    decay_mult: 1
  }
  param {
    lr_mult: 2
    decay_mult: 0
  }
  convolution_param {
    num_output: 192
    pad: 1
    kernel_size: 3
    weight_filler {
      type: "xavier"
      std: 0.03
    }
    bias_filler {
      type: "constant"
      value: 0.2
    }
  }
}
layer {
  name: "conv2/relu_3x3"
  type: "ReLU"
  bottom: "conv2/3x3"
  top: "conv2/3x3"
}
layer {
  name: "conv2/norm2"
  type: "LRN"
  bottom: "conv2/3x3"
  top: "conv2/norm2"
  lrn_param {
    local_size: 5
    alpha: 0.0001
    beta: 0.75
  }
}
layer {
  name: "pool2/3x3_s2"
  type: "Pooling"
  bottom: "conv2/norm2"
  top: "pool2/3x3_s2"
  pooling_param {
    pool: MAX
    kernel_size: 3
    stride: 2
  }
}
layer {
  name: "inception_3a/1x1"
  type: "Convolution"
  bottom: "pool2/3x3_s2"
  top: "inception_3a/1x1"
  param {
    lr_mult: 1
    decay_mult: 1
  }
  param {
    lr_mult: 2
    decay_mult: 0
  }
  convolution_param {
    num_output: 64
    kernel_size: 1
    weight_filler {
      type: "xavier"
      std: 0.03
    }
    bias_filler {
      type: "constant"
      value: 0.2
    }
  }
}
layer {
  name: "inception_3a/relu_1x1"
  type: "ReLU"
  bottom: "inception_3a/1x1"
  top: "inception_3a/1x1"
}
layer {
  name: "inception_3a/3x3_reduce"
  type: "Convolution"
  bottom: "pool2/3x3_s2"
  top: "inception_3a/3x3_reduce"
  param {
    lr_mult: 1
    decay_mult: 1
  }
  param {
    lr_mult: 2
    decay_mult: 0
  }
  convolution_param {
    num_output: 96
    kernel_size: 1
    weight_filler {
      type: "xavier"
      std: 0.09
    }
    bias_filler {
      type: "constant"
      value: 0.2
    }
  }
}
layer {
  name: "inception_3a/relu_3x3_reduce"
  type: "ReLU"
  bottom: "inception_3a/3x3_reduce"
  top: "inception_3a/3x3_reduce"
}
layer {
  name: "inception_3a/3x3"
  type: "Convolution"
  bottom: "inception_3a/3x3_reduce"
  top: "inception_3a/3x3"
  param {
    lr_mult: 1
    decay_mult: 1
  }
  param {
    lr_mult: 2
    decay_mult: 0
  }
  convolution_param {
    num_output: 128
    pad: 1
    kernel_size: 3
    weight_filler {
      type: "xavier"
      std: 0.03
    }
    bias_filler {
      type: "constant"
      value: 0.2
    }
  }
}
layer {
  name: "inception_3a/relu_3x3"
  type: "ReLU"
  bottom: "inception_3a/3x3"
  top: "inception_3a/3x3"
}
layer {
  name: "inception_3a/5x5_reduce"
  type: "Convolution"
  bottom: "pool2/3x3_s2"
  top: "inception_3a/5x5_reduce"
  param {
    lr_mult: 1
    decay_mult: 1
  }
  param {
    lr_mult: 2
    decay_mult: 0
  }
  convolution_param {
    num_output: 16
    kernel_size: 1
    weight_filler {
      type: "xavier"
      std: 0.2
    }
    bias_filler {
      type: "constant"
      value: 0.2
    }
  }
}
layer {
  name: "inception_3a/relu_5x5_reduce"
  type: "ReLU"
  bottom: "inception_3a/5x5_reduce"
  top: "inception_3a/5x5_reduce"
}
layer {
  name: "inception_3a/5x5"
  type: "Convolution"
  bottom: "inception_3a/5x5_reduce"
  top: "inception_3a/5x5"
  param {
    lr_mult: 1
    decay_mult: 1
  }
  param {
    lr_mult: 2
    decay_mult: 0
  }
  convolution_param {
    num_output: 32
    pad: 2
    kernel_size: 5
    weight_filler {
      type: "xavier"
      std: 0.03
    }
    bias_filler {
      type: "constant"
      value: 0.2
    }
  }
}
layer {
  name: "inception_3a/relu_5x5"
  type: "ReLU"
  bottom: "inception_3a/5x5"
  top: "inception_3a/5x5"
}
layer {
  name: "inception_3a/pool"
  type: "Pooling"
  bottom: "pool2/3x3_s2"
  top: "inception_3a/pool"
  pooling_param {
    pool: MAX
    kernel_size: 3
    stride: 1
    pad: 1
  }
}
layer {
  name: "inception_3a/pool_proj"
  type: "Convolution"
  bottom: "inception_3a/pool"
  top: "inception_3a/pool_proj"
  param {
    lr_mult: 1
    decay_mult: 1
  }
  param {
    lr_mult: 2
    decay_mult: 0
  }
  convolution_param {
    num_output: 32
    kernel_size: 1
    weight_filler {
      type: "xavier"
      std: 0.1
    }
    bias_filler {
      type: "constant"
      value: 0.2
    }
  }
}
layer {
  name: "inception_3a/relu_pool_proj"
  type: "ReLU"
  bottom: "inception_3a/pool_proj"
  top: "inception_3a/pool_proj"
}
layer {
  name: "inception_3a/output"
  type: "Concat"
  bottom: "inception_3a/1x1"
  bottom: "inception_3a/3x3"
  bottom: "inception_3a/5x5"
  bottom: "inception_3a/pool_proj"
  top: "inception_3a/output"
}
layer {
  name: "inception_3b/1x1"
  type: "Convolution"
  bottom: "inception_3a/output"
  top: "inception_3b/1x1"
  param {
    lr_mult: 1
    decay_mult: 1
  }
  param {
    lr_mult: 2
    decay_mult: 0
  }
  convolution_param {
    num_output: 128
    kernel_size: 1
    weight_filler {
      type: "xavier"
      std: 0.03
    }
    bias_filler {
      type: "constant"
      value: 0.2
    }
  }
}
layer {
  name: "inception_3b/relu_1x1"
  type: "ReLU"
  bottom: "inception_3b/1x1"
  top: "inception_3b/1x1"
}
layer {
  name: "inception_3b/3x3_reduce"
  type: "Convolution"
  bottom: "inception_3a/output"
  top: "inception_3b/3x3_reduce"
  param {
    lr_mult: 1
    decay_mult: 1
  }
  param {
    lr_mult: 2
    decay_mult: 0
  }
  convolution_param {
    num_output: 128
    kernel_size: 1
    weight_filler {
      type: "xavier"
      std: 0.09
    }
    bias_filler {
      type: "constant"
      value: 0.2
    }
  }
}
layer {
  name: "inception_3b/relu_3x3_reduce"
  type: "ReLU"
  bottom: "inception_3b/3x3_reduce"
  top: "inception_3b/3x3_reduce"
}
layer {
  name: "inception_3b/3x3"
  type: "Convolution"
  bottom: "inception_3b/3x3_reduce"
  top: "inception_3b/3x3"
  param {
    lr_mult: 1
    decay_mult: 1
  }
  param {
    lr_mult: 2
    decay_mult: 0
  }
  convolution_param {
    num_output: 192
    pad: 1
    kernel_size: 3
    weight_filler {
      type: "xavier"
      std: 0.03
    }
    bias_filler {
      type: "constant"
      value: 0.2
    }
  }
}
layer {
  name: "inception_3b/relu_3x3"
  type: "ReLU"
  bottom: "inception_3b/3x3"
  top: "inception_3b/3x3"
}
layer {
  name: "inception_3b/5x5_reduce"
  type: "Convolution"
  bottom: "inception_3a/output"
  top: "inception_3b/5x5_reduce"
  param {
    lr_mult: 1
    decay_mult: 1
  }
  param {
    lr_mult: 2
    decay_mult: 0
  }
  convolution_param {
    num_output: 32
    kernel_size: 1
    weight_filler {
      type: "xavier"
      std: 0.2
    }
    bias_filler {
      type: "constant"
      value: 0.2
    }
  }
}
layer {
  name: "inception_3b/relu_5x5_reduce"
  type: "ReLU"
  bottom: "inception_3b/5x5_reduce"
  top: "inception_3b/5x5_reduce"
}
layer {
  name: "inception_3b/5x5"
  type: "Convolution"
  bottom: "inception_3b/5x5_reduce"
  top: "inception_3b/5x5"
  param {
    lr_mult: 1
    decay_mult: 1
  }
  param {
    lr_mult: 2
    decay_mult: 0
  }
  convolution_param {
    num_output: 96
    pad: 2
    kernel_size: 5
    weight_filler {
      type: "xavier"
      std: 0.03
    }
    bias_filler {
      type: "constant"
      value: 0.2
    }
  }
}
layer {
  name: "inception_3b/relu_5x5"
  type: "ReLU"
  bottom: "inception_3b/5x5"
  top: "inception_3b/5x5"
}
layer {
  name: "inception_3b/pool"
  type: "Pooling"
  bottom: "inception_3a/output"
  top: "inception_3b/pool"
  pooling_param {
    pool: MAX
    kernel_size: 3
    stride: 1
    pad: 1
  }
}
layer {
  name: "inception_3b/pool_proj"
  type: "Convolution"
  bottom: "inception_3b/pool"
  top: "inception_3b/pool_proj"
  param {
    lr_mult: 1
    decay_mult: 1
  }
  param {
    lr_mult: 2
    decay_mult: 0
  }
  convolution_param {
    num_output: 64
    kernel_size: 1
    weight_filler {
      type: "xavier"
      std: 0.1
    }
    bias_filler {
      type: "constant"
      value: 0.2
    }
  }
}
layer {
  name: "inception_3b/relu_pool_proj"
  type: "ReLU"
  bottom: "inception_3b/pool_proj"
  top: "inception_3b/pool_proj"
}
layer {
  name: "inception_3b/output"
  type: "Concat"
  bottom: "inception_3b/1x1"
  bottom: "inception_3b/3x3"
  bottom: "inception_3b/5x5"
  bottom: "inception_3b/pool_proj"
  top: "inception_3b/output"
}
layer {
  name: "pool3/3x3_s2"
  type: "Pooling"
  bottom: "inception_3b/output"
  top: "pool3/3x3_s2"
  pooling_param {
    pool: MAX
    kernel_size: 3
    stride: 2
  }
}
layer {
  name: "inception_4a/1x1"
  type: "Convolution"
  bottom: "pool3/3x3_s2"
  top: "inception_4a/1x1"
  param {
    lr_mult: 1
    decay_mult: 1
  }
  param {
    lr_mult: 2
    decay_mult: 0
  }
  convolution_param {
    num_output: 192
    kernel_size: 1
    weight_filler {
      type: "xavier"
      std: 0.03
    }
    bias_filler {
      type: "constant"
      value: 0.2
    }
  }
}
layer {
  name: "inception_4a/relu_1x1"
  type: "ReLU"
  bottom: "inception_4a/1x1"
  top: "inception_4a/1x1"
}
layer {
  name: "inception_4a/3x3_reduce"
  type: "Convolution"
  bottom: "pool3/3x3_s2"
  top: "inception_4a/3x3_reduce"
  param {
    lr_mult: 1
    decay_mult: 1
  }
  param {
    lr_mult: 2
    decay_mult: 0
  }
  convolution_param {
    num_output: 96
    kernel_size: 1
    weight_filler {
      type: "xavier"
      std: 0.09
    }
    bias_filler {
      type: "constant"
      value: 0.2
    }
  }
}
layer {
  name: "inception_4a/relu_3x3_reduce"
  type: "ReLU"
  bottom: "inception_4a/3x3_reduce"
  top: "inception_4a/3x3_reduce"
}
layer {
  name: "inception_4a/3x3"
  type: "Convolution"
  bottom: "inception_4a/3x3_reduce"
  top: "inception_4a/3x3"
  param {
    lr_mult: 1
    decay_mult: 1
  }
  param {
    lr_mult: 2
    decay_mult: 0
  }
  convolution_param {
    num_output: 208
    pad: 1
    kernel_size: 3
    weight_filler {
      type: "xavier"
      std: 0.03
    }
    bias_filler {
      type: "constant"
      value: 0.2
    }
  }
}
layer {
  name: "inception_4a/relu_3x3"
  type: "ReLU"
  bottom: "inception_4a/3x3"
  top: "inception_4a/3x3"
}
layer {
  name: "inception_4a/5x5_reduce"
  type: "Convolution"
  bottom: "pool3/3x3_s2"
  top: "inception_4a/5x5_reduce"
  param {
    lr_mult: 1
    decay_mult: 1
  }
  param {
    lr_mult: 2
    decay_mult: 0
  }
  convolution_param {
    num_output: 16
    kernel_size: 1
    weight_filler {
      type: "xavier"
      std: 0.2
    }
    bias_filler {
      type: "constant"
      value: 0.2
    }
  }
}
layer {
  name: "inception_4a/relu_5x5_reduce"
  type: "ReLU"
  bottom: "inception_4a/5x5_reduce"
  top: "inception_4a/5x5_reduce"
}
layer {
  name: "inception_4a/5x5"
  type: "Convolution"
  bottom: "inception_4a/5x5_reduce"
  top: "inception_4a/5x5"
  param {
    lr_mult: 1
    decay_mult: 1
  }
  param {
    lr_mult: 2
    decay_mult: 0
  }
  convolution_param {
    num_output: 48
    pad: 2
    kernel_size: 5
    weight_filler {
      type: "xavier"
      std: 0.03
    }
    bias_filler {
      type: "constant"
      value: 0.2
    }
  }
}
layer {
  name: "inception_4a/relu_5x5"
  type: "ReLU"
  bottom: "inception_4a/5x5"
  top: "inception_4a/5x5"
}
layer {
  name: "inception_4a/pool"
  type: "Pooling"
  bottom: "pool3/3x3_s2"
  top: "inception_4a/pool"
  pooling_param {
    pool: MAX
    kernel_size: 3
    stride: 1
    pad: 1
  }
}
layer {
  name: "inception_4a/pool_proj"
  type: "Convolution"
  bottom: "inception_4a/pool"
  top: "inception_4a/pool_proj"
  param {
    lr_mult: 1
    decay_mult: 1
  }
  param {
    lr_mult: 2
    decay_mult: 0
  }
  convolution_param {
    num_output: 64
    kernel_size: 1
    weight_filler {
      type: "xavier"
      std: 0.1
    }
    bias_filler {
      type: "constant"
      value: 0.2
    }
  }
}
layer {
  name: "inception_4a/relu_pool_proj"
  type: "ReLU"
  bottom: "inception_4a/pool_proj"
  top: "inception_4a/pool_proj"
}
layer {
  name: "inception_4a/output"
  type: "Concat"
  bottom: "inception_4a/1x1"
  bottom: "inception_4a/3x3"
  bottom: "inception_4a/5x5"
  bottom: "inception_4a/pool_proj"
  top: "inception_4a/output"
}
layer {
  name: "inception_4b/1x1"
  type: "Convolution"
  bottom: "inception_4a/output"
  top: "inception_4b/1x1"
  param {
    lr_mult: 1
    decay_mult: 1
  }
  param {
    lr_mult: 2
    decay_mult: 0
  }
  convolution_param {
    num_output: 160
    kernel_size: 1
    weight_filler {
      type: "xavier"
      std: 0.03
    }
    bias_filler {
      type: "constant"
      value: 0.2
    }
  }
}
layer {
  name: "inception_4b/relu_1x1"
  type: "ReLU"
  bottom: "inception_4b/1x1"
  top: "inception_4b/1x1"
}
layer {
  name: "inception_4b/3x3_reduce"
  type: "Convolution"
  bottom: "inception_4a/output"
  top: "inception_4b/3x3_reduce"
  param {
    lr_mult: 1
    decay_mult: 1
  }
  param {
    lr_mult: 2
    decay_mult: 0
  }
  convolution_param {
    num_output: 112
    kernel_size: 1
    weight_filler {
      type: "xavier"
      std: 0.09
    }
    bias_filler {
      type: "constant"
      value: 0.2
    }
  }
}
layer {
  name: "inception_4b/relu_3x3_reduce"
  type: "ReLU"
  bottom: "inception_4b/3x3_reduce"
  top: "inception_4b/3x3_reduce"
}
layer {
  name: "inception_4b/3x3"
  type: "Convolution"
  bottom: "inception_4b/3x3_reduce"
  top: "inception_4b/3x3"
  param {
    lr_mult: 1
    decay_mult: 1
  }
  param {
    lr_mult: 2
    decay_mult: 0
  }
  convolution_param {
    num_output: 224
    pad: 1
    kernel_size: 3
    weight_filler {
      type: "xavier"
      std: 0.03
    }
    bias_filler {
      type: "constant"
      value: 0.2
    }
  }
}
layer {
  name: "inception_4b/relu_3x3"
  type: "ReLU"
  bottom: "inception_4b/3x3"
  top: "inception_4b/3x3"
}
layer {
  name: "inception_4b/5x5_reduce"
  type: "Convolution"
  bottom: "inception_4a/output"
  top: "inception_4b/5x5_reduce"
  param {
    lr_mult: 1
    decay_mult: 1
  }
  param {
    lr_mult: 2
    decay_mult: 0
  }
  convolution_param {
    num_output: 24
    kernel_size: 1
    weight_filler {
      type: "xavier"
      std: 0.2
    }
    bias_filler {
      type: "constant"
      value: 0.2
    }
  }
}
layer {
  name: "inception_4b/relu_5x5_reduce"
  type: "ReLU"
  bottom: "inception_4b/5x5_reduce"
  top: "inception_4b/5x5_reduce"
}
layer {
  name: "inception_4b/5x5"
  type: "Convolution"
  bottom: "inception_4b/5x5_reduce"
  top: "inception_4b/5x5"
  param {
    lr_mult: 1
    decay_mult: 1
  }
  param {
    lr_mult: 2
    decay_mult: 0
  }
  convolution_param {
    num_output: 64
    pad: 2
    kernel_size: 5
    weight_filler {
      type: "xavier"
      std: 0.03
    }
    bias_filler {
      type: "constant"
      value: 0.2
    }
  }
}
layer {
  name: "inception_4b/relu_5x5"
  type: "ReLU"
  bottom: "inception_4b/5x5"
  top: "inception_4b/5x5"
}
layer {
  name: "inception_4b/pool"
  type: "Pooling"
  bottom: "inception_4a/output"
  top: "inception_4b/pool"
  pooling_param {
    pool: MAX
    kernel_size: 3
    stride: 1
    pad: 1
  }
}
layer {
  name: "inception_4b/pool_proj"
  type: "Convolution"
  bottom: "inception_4b/pool"
  top: "inception_4b/pool_proj"
  param {
    lr_mult: 1
    decay_mult: 1
  }
  param {
    lr_mult: 2
    decay_mult: 0
  }
  convolution_param {
    num_output: 64
    kernel_size: 1
    weight_filler {
      type: "xavier"
      std: 0.1
    }
    bias_filler {
      type: "constant"
      value: 0.2
    }
  }
}
layer {
  name: "inception_4b/relu_pool_proj"
  type: "ReLU"
  bottom: "inception_4b/pool_proj"
  top: "inception_4b/pool_proj"
}
layer {
  name: "inception_4b/output"
  type: "Concat"
  bottom: "inception_4b/1x1"
  bottom: "inception_4b/3x3"
  bottom: "inception_4b/5x5"
  bottom: "inception_4b/pool_proj"
  top: "inception_4b/output"
}
layer {
  name: "inception_4c/1x1"
  type: "Convolution"
  bottom: "inception_4b/output"
  top: "inception_4c/1x1"
  param {
    lr_mult: 1
    decay_mult: 1
  }
  param {
    lr_mult: 2
    decay_mult: 0
  }
  convolution_param {
    num_output: 128
    kernel_size: 1
    weight_filler {
      type: "xavier"
      std: 0.03
    }
    bias_filler {
      type: "constant"
      value: 0.2
    }
  }
}
layer {
  name: "inception_4c/relu_1x1"
  type: "ReLU"
  bottom: "inception_4c/1x1"
  top: "inception_4c/1x1"
}
layer {
  name: "inception_4c/3x3_reduce"
  type: "Convolution"
  bottom: "inception_4b/output"
  top: "inception_4c/3x3_reduce"
  param {
    lr_mult: 1
    decay_mult: 1
  }
  param {
    lr_mult: 2
    decay_mult: 0
  }
  convolution_param {
    num_output: 128
    kernel_size: 1
    weight_filler {
      type: "xavier"
      std: 0.09
    }
    bias_filler {
      type: "constant"
      value: 0.2
    }
  }
}
layer {
  name: "inception_4c/relu_3x3_reduce"
  type: "ReLU"
  bottom: "inception_4c/3x3_reduce"
  top: "inception_4c/3x3_reduce"
}
layer {
  name: "inception_4c/3x3"
  type: "Convolution"
  bottom: "inception_4c/3x3_reduce"
  top: "inception_4c/3x3"
  param {
    lr_mult: 1
    decay_mult: 1
  }
  param {
    lr_mult: 2
    decay_mult: 0
  }
  convolution_param {
    num_output: 256
    pad: 1
    kernel_size: 3
    weight_filler {
      type: "xavier"
      std: 0.03
    }
    bias_filler {
      type: "constant"
      value: 0.2
    }
  }
}
layer {
  name: "inception_4c/relu_3x3"
  type: "ReLU"
  bottom: "inception_4c/3x3"
  top: "inception_4c/3x3"
}
layer {
  name: "inception_4c/5x5_reduce"
  type: "Convolution"
  bottom: "inception_4b/output"
  top: "inception_4c/5x5_reduce"
  param {
    lr_mult: 1
    decay_mult: 1
  }
  param {
    lr_mult: 2
    decay_mult: 0
  }
  convolution_param {
    num_output: 24
    kernel_size: 1
    weight_filler {
      type: "xavier"
      std: 0.2
    }
    bias_filler {
      type: "constant"
      value: 0.2
    }
  }
}
layer {
  name: "inception_4c/relu_5x5_reduce"
  type: "ReLU"
  bottom: "inception_4c/5x5_reduce"
  top: "inception_4c/5x5_reduce"
}
layer {
  name: "inception_4c/5x5"
  type: "Convolution"
  bottom: "inception_4c/5x5_reduce"
  top: "inception_4c/5x5"
  param {
    lr_mult: 1
    decay_mult: 1
  }
  param {
    lr_mult: 2
    decay_mult: 0
  }
  convolution_param {
    num_output: 64
    pad: 2
    kernel_size: 5
    weight_filler {
      type: "xavier"
      std: 0.03
    }
    bias_filler {
      type: "constant"
      value: 0.2
    }
  }
}
layer {
  name: "inception_4c/relu_5x5"
  type: "ReLU"
  bottom: "inception_4c/5x5"
  top: "inception_4c/5x5"
}
layer {
  name: "inception_4c/pool"
  type: "Pooling"
  bottom: "inception_4b/output"
  top: "inception_4c/pool"
  pooling_param {
    pool: MAX
    kernel_size: 3
    stride: 1
    pad: 1
  }
}
layer {
  name: "inception_4c/pool_proj"
  type: "Convolution"
  bottom: "inception_4c/pool"
  top: "inception_4c/pool_proj"
  param {
    lr_mult: 1
    decay_mult: 1
  }
  param {
    lr_mult: 2
    decay_mult: 0
  }
  convolution_param {
    num_output: 64
    kernel_size: 1
    weight_filler {
      type: "xavier"
      std: 0.1
    }
    bias_filler {
      type: "constant"
      value: 0.2
    }
  }
}
layer {
  name: "inception_4c/relu_pool_proj"
  type: "ReLU"
  bottom: "inception_4c/pool_proj"
  top: "inception_4c/pool_proj"
}
layer {
  name: "inception_4c/output"
  type: "Concat"
  bottom: "inception_4c/1x1"
  bottom: "inception_4c/3x3"
  bottom: "inception_4c/5x5"
  bottom: "inception_4c/pool_proj"
  top: "inception_4c/output"
}
layer {
  name: "inception_4d/1x1"
  type: "Convolution"
  bottom: "inception_4c/output"
  top: "inception_4d/1x1"
  param {
    lr_mult: 1
    decay_mult: 1
  }
  param {
    lr_mult: 2
    decay_mult: 0
  }
  convolution_param {
    num_output: 112
    kernel_size: 1
    weight_filler {
      type: "xavier"
      std: 0.03
    }
    bias_filler {
      type: "constant"
      value: 0.2
    }
  }
}
layer {
  name: "inception_4d/relu_1x1"
  type: "ReLU"
  bottom: "inception_4d/1x1"
  top: "inception_4d/1x1"
}
layer {
  name: "inception_4d/3x3_reduce"
  type: "Convolution"
  bottom: "inception_4c/output"
  top: "inception_4d/3x3_reduce"
  param {
    lr_mult: 1
    decay_mult: 1
  }
  param {
    lr_mult: 2
    decay_mult: 0
  }
  convolution_param {
    num_output: 144
    kernel_size: 1
    weight_filler {
      type: "xavier"
      std: 0.09
    }
    bias_filler {
      type: "constant"
      value: 0.2
    }
  }
}
layer {
  name: "inception_4d/relu_3x3_reduce"
  type: "ReLU"
  bottom: "inception_4d/3x3_reduce"
  top: "inception_4d/3x3_reduce"
}
layer {
  name: "inception_4d/3x3"
  type: "Convolution"
  bottom: "inception_4d/3x3_reduce"
  top: "inception_4d/3x3"
  param {
    lr_mult: 1
    decay_mult: 1
  }
  param {
    lr_mult: 2
    decay_mult: 0
  }
  convolution_param {
    num_output: 288
    pad: 1
    kernel_size: 3
    weight_filler {
      type: "xavier"
      std: 0.03
    }
    bias_filler {
      type: "constant"
      value: 0.2
    }
  }
}
layer {
  name: "inception_4d/relu_3x3"
  type: "ReLU"
  bottom: "inception_4d/3x3"
  top: "inception_4d/3x3"
}
layer {
  name: "inception_4d/5x5_reduce"
  type: "Convolution"
  bottom: "inception_4c/output"
  top: "inception_4d/5x5_reduce"
  param {
    lr_mult: 1
    decay_mult: 1
  }
  param {
    lr_mult: 2
    decay_mult: 0
  }
  convolution_param {
    num_output: 32
    kernel_size: 1
    weight_filler {
      type: "xavier"
      std: 0.2
    }
    bias_filler {
      type: "constant"
      value: 0.2
    }
  }
}
layer {
  name: "inception_4d/relu_5x5_reduce"
  type: "ReLU"
  bottom: "inception_4d/5x5_reduce"
  top: "inception_4d/5x5_reduce"
}
layer {
  name: "inception_4d/5x5"
  type: "Convolution"
  bottom: "inception_4d/5x5_reduce"
  top: "inception_4d/5x5"
  param {
    lr_mult: 1
    decay_mult: 1
  }
  param {
    lr_mult: 2
    decay_mult: 0
  }
  convolution_param {
    num_output: 64
    pad: 2
    kernel_size: 5
    weight_filler {
      type: "xavier"
      std: 0.03
    }
    bias_filler {
      type: "constant"
      value: 0.2
    }
  }
}
layer {
  name: "inception_4d/relu_5x5"
  type: "ReLU"
  bottom: "inception_4d/5x5"
  top: "inception_4d/5x5"
}
layer {
  name: "inception_4d/pool"
  type: "Pooling"
  bottom: "inception_4c/output"
  top: "inception_4d/pool"
  pooling_param {
    pool: MAX
    kernel_size: 3
    stride: 1
    pad: 1
  }
}
layer {
  name: "inception_4d/pool_proj"
  type: "Convolution"
  bottom: "inception_4d/pool"
  top: "inception_4d/pool_proj"
  param {
    lr_mult: 1
    decay_mult: 1
  }
  param {
    lr_mult: 2
    decay_mult: 0
  }
  convolution_param {
    num_output: 64
    kernel_size: 1
    weight_filler {
      type: "xavier"
      std: 0.1
    }
    bias_filler {
      type: "constant"
      value: 0.2
    }
  }
}
layer {
  name: "inception_4d/relu_pool_proj"
  type: "ReLU"
  bottom: "inception_4d/pool_proj"
  top: "inception_4d/pool_proj"
}
layer {
  name: "inception_4d/output"
  type: "Concat"
  bottom: "inception_4d/1x1"
  bottom: "inception_4d/3x3"
  bottom: "inception_4d/5x5"
  bottom: "inception_4d/pool_proj"
  top: "inception_4d/output"
}
layer {
  name: "inception_4e/1x1"
  type: "Convolution"
  bottom: "inception_4d/output"
  top: "inception_4e/1x1"
  param {
    lr_mult: 1
    decay_mult: 1
  }
  param {
    lr_mult: 2
    decay_mult: 0
  }
  convolution_param {
    num_output: 256
    kernel_size: 1
    weight_filler {
      type: "xavier"
      std: 0.03
    }
    bias_filler {
      type: "constant"
      value: 0.2
    }
  }
}
layer {
  name: "inception_4e/relu_1x1"
  type: "ReLU"
  bottom: "inception_4e/1x1"
  top: "inception_4e/1x1"
}
layer {
  name: "inception_4e/3x3_reduce"
  type: "Convolution"
  bottom: "inception_4d/output"
  top: "inception_4e/3x3_reduce"
  param {
    lr_mult: 1
    decay_mult: 1
  }
  param {
    lr_mult: 2
    decay_mult: 0
  }
  convolution_param {
    num_output: 160
    kernel_size: 1
    weight_filler {
      type: "xavier"
      std: 0.09
    }
    bias_filler {
      type: "constant"
      value: 0.2
    }
  }
}
layer {
  name: "inception_4e/relu_3x3_reduce"
  type: "ReLU"
  bottom: "inception_4e/3x3_reduce"
  top: "inception_4e/3x3_reduce"
}
layer {
  name: "inception_4e/3x3"
  type: "Convolution"
  bottom: "inception_4e/3x3_reduce"
  top: "inception_4e/3x3"
  param {
    lr_mult: 1
    decay_mult: 1
  }
  param {
    lr_mult: 2
    decay_mult: 0
  }
  convolution_param {
    num_output: 320
    pad: 1
    kernel_size: 3
    weight_filler {
      type: "xavier"
      std: 0.03
    }
    bias_filler {
      type: "constant"
      value: 0.2
    }
  }
}
layer {
  name: "inception_4e/relu_3x3"
  type: "ReLU"
  bottom: "inception_4e/3x3"
  top: "inception_4e/3x3"
}
layer {
  name: "inception_4e/5x5_reduce"
  type: "Convolution"
  bottom: "inception_4d/output"
  top: "inception_4e/5x5_reduce"
  param {
    lr_mult: 1
    decay_mult: 1
  }
  param {
    lr_mult: 2
    decay_mult: 0
  }
  convolution_param {
    num_output: 32
    kernel_size: 1
    weight_filler {
      type: "xavier"
      std: 0.2
    }
    bias_filler {
      type: "constant"
      value: 0.2
    }
  }
}
layer {
  name: "inception_4e/relu_5x5_reduce"
  type: "ReLU"
  bottom: "inception_4e/5x5_reduce"
  top: "inception_4e/5x5_reduce"
}
layer {
  name: "inception_4e/5x5"
  type: "Convolution"
  bottom: "inception_4e/5x5_reduce"
  top: "inception_4e/5x5"
  param {
    lr_mult: 1
    decay_mult: 1
  }
  param {
    lr_mult: 2
    decay_mult: 0
  }
  convolution_param {
    num_output: 128
    pad: 2
    kernel_size: 5
    weight_filler {
      type: "xavier"
      std: 0.03
    }
    bias_filler {
      type: "constant"
      value: 0.2
    }
  }
}
layer {
  name: "inception_4e/relu_5x5"
  type: "ReLU"
  bottom: "inception_4e/5x5"
  top: "inception_4e/5x5"
}
layer {
  name: "inception_4e/pool"
  type: "Pooling"
  bottom: "inception_4d/output"
  top: "inception_4e/pool"
  pooling_param {
    pool: MAX
    kernel_size: 3
    stride: 1
    pad: 1
  }
}
layer {
  name: "inception_4e/pool_proj"
  type: "Convolution"
  bottom: "inception_4e/pool"
  top: "inception_4e/pool_proj"
  param {
    lr_mult: 1
    decay_mult: 1
  }
  param {
    lr_mult: 2
    decay_mult: 0
  }
  convolution_param {
    num_output: 128
    kernel_size: 1
    weight_filler {
      type: "xavier"
      std: 0.1
    }
    bias_filler {
      type: "constant"
      value: 0.2
    }
  }
}
layer {
  name: "inception_4e/relu_pool_proj"
  type: "ReLU"
  bottom: "inception_4e/pool_proj"
  top: "inception_4e/pool_proj"
}
layer {
  name: "inception_4e/output"
  type: "Concat"
  bottom: "inception_4e/1x1"
  bottom: "inception_4e/3x3"
  bottom: "inception_4e/5x5"
  bottom: "inception_4e/pool_proj"
  top: "inception_4e/output"
}
layer {
  name: "pool4/3x3_s2"
  type: "Pooling"
  bottom: "inception_4e/output"
  top: "pool4/3x3_s2"
  pooling_param {
    pool: MAX
    kernel_size: 3
    stride: 2
  }
}
layer {
  name: "inception_5a/1x1"
  type: "Convolution"
  bottom: "pool4/3x3_s2"
  top: "inception_5a/1x1"
  param {
    lr_mult: 1
    decay_mult: 1
  }
  param {
    lr_mult: 2
    decay_mult: 0
  }
  convolution_param {
    num_output: 256
    kernel_size: 1
    weight_filler {
      type: "xavier"
      std: 0.03
    }
    bias_filler {
      type: "constant"
      value: 0.2
    }
  }
}
layer {
  name: "inception_5a/relu_1x1"
  type: "ReLU"
  bottom: "inception_5a/1x1"
  top: "inception_5a/1x1"
}
layer {
  name: "inception_5a/3x3_reduce"
  type: "Convolution"
  bottom: "pool4/3x3_s2"
  top: "inception_5a/3x3_reduce"
  param {
    lr_mult: 1
    decay_mult: 1
  }
  param {
    lr_mult: 2
    decay_mult: 0
  }
  convolution_param {
    num_output: 160
    kernel_size: 1
    weight_filler {
      type: "xavier"
      std: 0.09
    }
    bias_filler {
      type: "constant"
      value: 0.2
    }
  }
}
layer {
  name: "inception_5a/relu_3x3_reduce"
  type: "ReLU"
  bottom: "inception_5a/3x3_reduce"
  top: "inception_5a/3x3_reduce"
}
layer {
  name: "inception_5a/3x3"
  type: "Convolution"
  bottom: "inception_5a/3x3_reduce"
  top: "inception_5a/3x3"
  param {
    lr_mult: 1
    decay_mult: 1
  }
  param {
    lr_mult: 2
    decay_mult: 0
  }
  convolution_param {
    num_output: 320
    pad: 1
    kernel_size: 3
    weight_filler {
      type: "xavier"
      std: 0.03
    }
    bias_filler {
      type: "constant"
      value: 0.2
    }
  }
}
layer {
  name: "inception_5a/relu_3x3"
  type: "ReLU"
  bottom: "inception_5a/3x3"
  top: "inception_5a/3x3"
}
layer {
  name: "inception_5a/5x5_reduce"
  type: "Convolution"
  bottom: "pool4/3x3_s2"
  top: "inception_5a/5x5_reduce"
  param {
    lr_mult: 1
    decay_mult: 1
  }
  param {
    lr_mult: 2
    decay_mult: 0
  }
  convolution_param {
    num_output: 32
    kernel_size: 1
    weight_filler {
      type: "xavier"
      std: 0.2
    }
    bias_filler {
      type: "constant"
      value: 0.2
    }
I0803 21:54:14.814087 24395 layer_factory.hpp:77] Creating layer data
I0803 21:54:14.814121 24395 net.cpp:91] Creating Layer data
I0803 21:54:14.814131 24395 net.cpp:399] data -> data
I0803 21:54:15.692616 24391 net.cpp:141] Setting up data
I0803 21:54:15.692713 24391 net.cpp:148] Top shape: 10 3 224 224 (1505280)
I0803 21:54:15.692721 24391 net.cpp:156] Memory required for data: 6021120
I0803 21:54:15.692747 24391 layer_factory.hpp:77] Creating layer conv1/7x7_s2
I0803 21:54:15.692793 24391 net.cpp:91] Creating Layer conv1/7x7_s2
I0803 21:54:15.692805 24391 net.cpp:425] conv1/7x7_s2 <- data
I0803 21:54:15.692824 24391 net.cpp:399] conv1/7x7_s2 -> conv1/7x7_s2
I0803 21:54:15.700156 24395 net.cpp:141] Setting up data
I0803 21:54:15.700207 24395 net.cpp:148] Top shape: 10 3 224 224 (1505280)
I0803 21:54:15.700217 24395 net.cpp:156] Memory required for data: 6021120
I0803 21:54:15.700227 24395 layer_factory.hpp:77] Creating layer conv1/7x7_s2
I0803 21:54:15.700256 24395 net.cpp:91] Creating Layer conv1/7x7_s2
I0803 21:54:15.700265 24395 net.cpp:425] conv1/7x7_s2 <- data
I0803 21:54:15.700278 24395 net.cpp:399] conv1/7x7_s2 -> conv1/7x7_s2
I0803 21:54:16.099566 24391 net.cpp:141] Setting up conv1/7x7_s2
I0803 21:54:16.099627 24391 net.cpp:148] Top shape: 10 64 112 112 (8028160)
I0803 21:54:16.099634 24391 net.cpp:156] Memory required for data: 38133760
I0803 21:54:16.099663 24391 layer_factory.hpp:77] Creating layer conv1/relu_7x7
I0803 21:54:16.099684 24391 net.cpp:91] Creating Layer conv1/relu_7x7
I0803 21:54:16.099692 24391 net.cpp:425] conv1/relu_7x7 <- conv1/7x7_s2
I0803 21:54:16.099702 24391 net.cpp:386] conv1/relu_7x7 -> conv1/7x7_s2 (in-place)
I0803 21:54:16.100150 24391 net.cpp:141] Setting up conv1/relu_7x7
I0803 21:54:16.100167 24391 net.cpp:148] Top shape: 10 64 112 112 (8028160)
I0803 21:54:16.100173 24391 net.cpp:156] Memory required for data: 70246400
I0803 21:54:16.100180 24391 layer_factory.hpp:77] Creating layer pool1/3x3_s2
I0803 21:54:16.100194 24391 net.cpp:91] Creating Layer pool1/3x3_s2
I0803 21:54:16.100201 24391 net.cpp:425] pool1/3x3_s2 <- conv1/7x7_s2
I0803 21:54:16.100211 24391 net.cpp:399] pool1/3x3_s2 -> pool1/3x3_s2
I0803 21:54:16.103595 24391 net.cpp:141] Setting up pool1/3x3_s2
I0803 21:54:16.103617 24391 net.cpp:148] Top shape: 10 64 56 56 (2007040)
I0803 21:54:16.103626 24391 net.cpp:156] Memory required for data: 78274560
I0803 21:54:16.103632 24391 layer_factory.hpp:77] Creating layer pool1/norm1
I0803 21:54:16.103654 24391 net.cpp:91] Creating Layer pool1/norm1
I0803 21:54:16.103662 24391 net.cpp:425] pool1/norm1 <- pool1/3x3_s2
I0803 21:54:16.103672 24391 net.cpp:399] pool1/norm1 -> pool1/norm1
I0803 21:54:16.104435 24391 net.cpp:141] Setting up pool1/norm1
I0803 21:54:16.104454 24391 net.cpp:148] Top shape: 10 64 56 56 (2007040)
I0803 21:54:16.104460 24391 net.cpp:156] Memory required for data: 86302720
I0803 21:54:16.104466 24391 layer_factory.hpp:77] Creating layer conv2/3x3_reduce
I0803 21:54:16.104488 24391 net.cpp:91] Creating Layer conv2/3x3_reduce
I0803 21:54:16.104496 24391 net.cpp:425] conv2/3x3_reduce <- pool1/norm1
I0803 21:54:16.104506 24391 net.cpp:399] conv2/3x3_reduce -> conv2/3x3_reduce
I0803 21:54:16.106392 24395 net.cpp:141] Setting up conv1/7x7_s2
I0803 21:54:16.106418 24395 net.cpp:148] Top shape: 10 64 112 112 (8028160)
I0803 21:54:16.106426 24395 net.cpp:156] Memory required for data: 38133760
I0803 21:54:16.106443 24395 layer_factory.hpp:77] Creating layer conv1/relu_7x7
I0803 21:54:16.106457 24395 net.cpp:91] Creating Layer conv1/relu_7x7
I0803 21:54:16.106465 24395 net.cpp:425] conv1/relu_7x7 <- conv1/7x7_s2
I0803 21:54:16.106474 24395 net.cpp:386] conv1/relu_7x7 -> conv1/7x7_s2 (in-place)
I0803 21:54:16.106974 24395 net.cpp:141] Setting up conv1/relu_7x7
I0803 21:54:16.106993 24395 net.cpp:148] Top shape: 10 64 112 112 (8028160)
I0803 21:54:16.106999 24395 net.cpp:156] Memory required for data: 70246400
I0803 21:54:16.107007 24395 layer_factory.hpp:77] Creating layer pool1/3x3_s2
I0803 21:54:16.107017 24395 net.cpp:91] Creating Layer pool1/3x3_s2
I0803 21:54:16.107024 24395 net.cpp:425] pool1/3x3_s2 <- conv1/7x7_s2
I0803 21:54:16.107033 24395 net.cpp:399] pool1/3x3_s2 -> pool1/3x3_s2
I0803 21:54:16.107210 24395 net.cpp:141] Setting up pool1/3x3_s2
I0803 21:54:16.107224 24395 net.cpp:148] Top shape: 10 64 56 56 (2007040)
I0803 21:54:16.107230 24395 net.cpp:156] Memory required for data: 78274560
I0803 21:54:16.107240 24395 layer_factory.hpp:77] Creating layer pool1/norm1
I0803 21:54:16.107252 24395 net.cpp:91] Creating Layer pool1/norm1
I0803 21:54:16.107259 24395 net.cpp:425] pool1/norm1 <- pool1/3x3_s2
I0803 21:54:16.107267 24395 net.cpp:399] pool1/norm1 -> pool1/norm1
I0803 21:54:16.108042 24391 net.cpp:141] Setting up conv2/3x3_reduce
I0803 21:54:16.108052 24395 net.cpp:141] Setting up pool1/norm1
I0803 21:54:16.108060 24391 net.cpp:148] Top shape: 10 64 56 56 (2007040)
I0803 21:54:16.108068 24395 net.cpp:148] Top shape: 10 64 56 56 (2007040)
I0803 21:54:16.108068 24391 net.cpp:156] Memory required for data: 94330880
I0803 21:54:16.108078 24395 net.cpp:156] Memory required for data: 86302720
I0803 21:54:16.108086 24395 layer_factory.hpp:77] Creating layer conv2/3x3_reduce
I0803 21:54:16.108093 24391 layer_factory.hpp:77] Creating layer conv2/relu_3x3_reduce
I0803 21:54:16.108101 24395 net.cpp:91] Creating Layer conv2/3x3_reduce
I0803 21:54:16.108104 24391 net.cpp:91] Creating Layer conv2/relu_3x3_reduce
I0803 21:54:16.108110 24395 net.cpp:425] conv2/3x3_reduce <- pool1/norm1
I0803 21:54:16.108111 24391 net.cpp:425] conv2/relu_3x3_reduce <- conv2/3x3_reduce
I0803 21:54:16.108120 24395 net.cpp:399] conv2/3x3_reduce -> conv2/3x3_reduce
I0803 21:54:16.108121 24391 net.cpp:386] conv2/relu_3x3_reduce -> conv2/3x3_reduce (in-place)
I0803 21:54:16.108728 24391 net.cpp:141] Setting up conv2/relu_3x3_reduce
I0803 21:54:16.108748 24391 net.cpp:148] Top shape: 10 64 56 56 (2007040)
I0803 21:54:16.108755 24391 net.cpp:156] Memory required for data: 102359040
I0803 21:54:16.108762 24391 layer_factory.hpp:77] Creating layer conv2/3x3
I0803 21:54:16.108783 24391 net.cpp:91] Creating Layer conv2/3x3
I0803 21:54:16.108790 24391 net.cpp:425] conv2/3x3 <- conv2/3x3_reduce
I0803 21:54:16.108801 24391 net.cpp:399] conv2/3x3 -> conv2/3x3
I0803 21:54:16.111677 24395 net.cpp:141] Setting up conv2/3x3_reduce
I0803 21:54:16.111698 24395 net.cpp:148] Top shape: 10 64 56 56 (2007040)
I0803 21:54:16.111706 24395 net.cpp:156] Memory required for data: 94330880
I0803 21:54:16.111721 24395 layer_factory.hpp:77] Creating layer conv2/relu_3x3_reduce
I0803 21:54:16.111732 24395 net.cpp:91] Creating Layer conv2/relu_3x3_reduce
I0803 21:54:16.111739 24395 net.cpp:425] conv2/relu_3x3_reduce <- conv2/3x3_reduce
I0803 21:54:16.111747 24395 net.cpp:386] conv2/relu_3x3_reduce -> conv2/3x3_reduce (in-place)
I0803 21:54:16.112182 24395 net.cpp:141] Setting up conv2/relu_3x3_reduce
I0803 21:54:16.112200 24395 net.cpp:148] Top shape: 10 64 56 56 (2007040)
I0803 21:54:16.112207 24395 net.cpp:156] Memory required for data: 102359040
I0803 21:54:16.112213 24395 layer_factory.hpp:77] Creating layer conv2/3x3
I0803 21:54:16.112232 24395 net.cpp:91] Creating Layer conv2/3x3
I0803 21:54:16.112239 24395 net.cpp:425] conv2/3x3 <- conv2/3x3_reduce
I0803 21:54:16.112251 24395 net.cpp:399] conv2/3x3 -> conv2/3x3
I0803 21:54:16.115520 24391 net.cpp:141] Setting up conv2/3x3
I0803 21:54:16.115542 24391 net.cpp:148] Top shape: 10 192 56 56 (6021120)
I0803 21:54:16.115550 24391 net.cpp:156] Memory required for data: 126443520
I0803 21:54:16.115566 24391 layer_factory.hpp:77] Creating layer conv2/relu_3x3
I0803 21:54:16.115582 24391 net.cpp:91] Creating Layer conv2/relu_3x3
I0803 21:54:16.115589 24391 net.cpp:425] conv2/relu_3x3 <- conv2/3x3
I0803 21:54:16.115598 24391 net.cpp:386] conv2/relu_3x3 -> conv2/3x3 (in-place)
I0803 21:54:16.115937 24391 net.cpp:141] Setting up conv2/relu_3x3
I0803 21:54:16.115952 24391 net.cpp:148] Top shape: 10 192 56 56 (6021120)
I0803 21:54:16.115957 24391 net.cpp:156] Memory required for data: 150528000
I0803 21:54:16.115964 24391 layer_factory.hpp:77] Creating layer conv2/norm2
I0803 21:54:16.115974 24391 net.cpp:91] Creating Layer conv2/norm2
I0803 21:54:16.115980 24391 net.cpp:425] conv2/norm2 <- conv2/3x3
I0803 21:54:16.115993 24391 net.cpp:399] conv2/norm2 -> conv2/norm2
I0803 21:54:16.116852 24391 net.cpp:141] Setting up conv2/norm2
I0803 21:54:16.116873 24391 net.cpp:148] Top shape: 10 192 56 56 (6021120)
I0803 21:54:16.116880 24391 net.cpp:156] Memory required for data: 174612480
I0803 21:54:16.116888 24391 layer_factory.hpp:77] Creating layer pool2/3x3_s2
I0803 21:54:16.116899 24391 net.cpp:91] Creating Layer pool2/3x3_s2
I0803 21:54:16.116905 24391 net.cpp:425] pool2/3x3_s2 <- conv2/norm2
I0803 21:54:16.116914 24391 net.cpp:399] pool2/3x3_s2 -> pool2/3x3_s2
I0803 21:54:16.117122 24391 net.cpp:141] Setting up pool2/3x3_s2
I0803 21:54:16.117136 24391 net.cpp:148] Top shape: 10 192 28 28 (1505280)
I0803 21:54:16.117141 24391 net.cpp:156] Memory required for data: 180633600
I0803 21:54:16.117147 24391 layer_factory.hpp:77] Creating layer pool2/3x3_s2_pool2/3x3_s2_0_split
I0803 21:54:16.117161 24391 net.cpp:91] Creating Layer pool2/3x3_s2_pool2/3x3_s2_0_split
I0803 21:54:16.117167 24391 net.cpp:425] pool2/3x3_s2_pool2/3x3_s2_0_split <- pool2/3x3_s2
I0803 21:54:16.117177 24391 net.cpp:399] pool2/3x3_s2_pool2/3x3_s2_0_split -> pool2/3x3_s2_pool2/3x3_s2_0_split_0
I0803 21:54:16.117188 24391 net.cpp:399] pool2/3x3_s2_pool2/3x3_s2_0_split -> pool2/3x3_s2_pool2/3x3_s2_0_split_1
I0803 21:54:16.117198 24391 net.cpp:399] pool2/3x3_s2_pool2/3x3_s2_0_split -> pool2/3x3_s2_pool2/3x3_s2_0_split_2
I0803 21:54:16.117209 24391 net.cpp:399] pool2/3x3_s2_pool2/3x3_s2_0_split -> pool2/3x3_s2_pool2/3x3_s2_0_split_3
I0803 21:54:16.117641 24395 net.cpp:141] Setting up conv2/3x3
I0803 21:54:16.117660 24395 net.cpp:148] Top shape: 10 192 56 56 (6021120)
I0803 21:54:16.117666 24395 net.cpp:156] Memory required for data: 126443520
I0803 21:54:16.117683 24395 layer_factory.hpp:77] Creating layer conv2/relu_3x3
I0803 21:54:16.117696 24395 net.cpp:91] Creating Layer conv2/relu_3x3
I0803 21:54:16.117697 24391 net.cpp:141] Setting up pool2/3x3_s2_pool2/3x3_s2_0_split
I0803 21:54:16.117702 24395 net.cpp:425] conv2/relu_3x3 <- conv2/3x3
I0803 21:54:16.117715 24391 net.cpp:148] Top shape: 10 192 28 28 (1505280)
I0803 21:54:16.117718 24395 net.cpp:386] conv2/relu_3x3 -> conv2/3x3 (in-place)
I0803 21:54:16.117723 24391 net.cpp:148] Top shape: 10 192 28 28 (1505280)
I0803 21:54:16.117732 24391 net.cpp:148] Top shape: 10 192 28 28 (1505280)
I0803 21:54:16.117738 24391 net.cpp:148] Top shape: 10 192 28 28 (1505280)
I0803 21:54:16.117743 24391 net.cpp:156] Memory required for data: 204718080
I0803 21:54:16.117749 24391 layer_factory.hpp:77] Creating layer inception_3a/1x1
I0803 21:54:16.117770 24391 net.cpp:91] Creating Layer inception_3a/1x1
I0803 21:54:16.117779 24391 net.cpp:425] inception_3a/1x1 <- pool2/3x3_s2_pool2/3x3_s2_0_split_0
I0803 21:54:16.117804 24391 net.cpp:399] inception_3a/1x1 -> inception_3a/1x1
I0803 21:54:16.118132 24395 net.cpp:141] Setting up conv2/relu_3x3
I0803 21:54:16.118147 24395 net.cpp:148] Top shape: 10 192 56 56 (6021120)
I0803 21:54:16.118154 24395 net.cpp:156] Memory required for data: 150528000
I0803 21:54:16.118160 24395 layer_factory.hpp:77] Creating layer conv2/norm2
I0803 21:54:16.118175 24395 net.cpp:91] Creating Layer conv2/norm2
I0803 21:54:16.118181 24395 net.cpp:425] conv2/norm2 <- conv2/3x3
I0803 21:54:16.118191 24395 net.cpp:399] conv2/norm2 -> conv2/norm2
I0803 21:54:16.118855 24395 net.cpp:141] Setting up conv2/norm2
I0803 21:54:16.118870 24395 net.cpp:148] Top shape: 10 192 56 56 (6021120)
I0803 21:54:16.118876 24395 net.cpp:156] Memory required for data: 174612480
I0803 21:54:16.118883 24395 layer_factory.hpp:77] Creating layer pool2/3x3_s2
I0803 21:54:16.118897 24395 net.cpp:91] Creating Layer pool2/3x3_s2
I0803 21:54:16.118904 24395 net.cpp:425] pool2/3x3_s2 <- conv2/norm2
I0803 21:54:16.118913 24395 net.cpp:399] pool2/3x3_s2 -> pool2/3x3_s2
I0803 21:54:16.119242 24395 net.cpp:141] Setting up pool2/3x3_s2
I0803 21:54:16.119256 24395 net.cpp:148] Top shape: 10 192 28 28 (1505280)
I0803 21:54:16.119261 24395 net.cpp:156] Memory required for data: 180633600
I0803 21:54:16.119267 24395 layer_factory.hpp:77] Creating layer pool2/3x3_s2_pool2/3x3_s2_0_split
I0803 21:54:16.119278 24395 net.cpp:91] Creating Layer pool2/3x3_s2_pool2/3x3_s2_0_split
I0803 21:54:16.119284 24395 net.cpp:425] pool2/3x3_s2_pool2/3x3_s2_0_split <- pool2/3x3_s2
I0803 21:54:16.119297 24395 net.cpp:399] pool2/3x3_s2_pool2/3x3_s2_0_split -> pool2/3x3_s2_pool2/3x3_s2_0_split_0
I0803 21:54:16.119308 24395 net.cpp:399] pool2/3x3_s2_pool2/3x3_s2_0_split -> pool2/3x3_s2_pool2/3x3_s2_0_split_1
I0803 21:54:16.119318 24395 net.cpp:399] pool2/3x3_s2_pool2/3x3_s2_0_split -> pool2/3x3_s2_pool2/3x3_s2_0_split_2
I0803 21:54:16.119333 24395 net.cpp:399] pool2/3x3_s2_pool2/3x3_s2_0_split -> pool2/3x3_s2_pool2/3x3_s2_0_split_3
I0803 21:54:16.119910 24395 net.cpp:141] Setting up pool2/3x3_s2_pool2/3x3_s2_0_split
I0803 21:54:16.119927 24395 net.cpp:148] Top shape: 10 192 28 28 (1505280)
I0803 21:54:16.119935 24395 net.cpp:148] Top shape: 10 192 28 28 (1505280)
I0803 21:54:16.119942 24395 net.cpp:148] Top shape: 10 192 28 28 (1505280)
I0803 21:54:16.119949 24395 net.cpp:148] Top shape: 10 192 28 28 (1505280)
I0803 21:54:16.119954 24395 net.cpp:156] Memory required for data: 204718080
I0803 21:54:16.119961 24395 layer_factory.hpp:77] Creating layer inception_3a/1x1
I0803 21:54:16.119974 24395 net.cpp:91] Creating Layer inception_3a/1x1
I0803 21:54:16.119982 24395 net.cpp:425] inception_3a/1x1 <- pool2/3x3_s2_pool2/3x3_s2_0_split_0
I0803 21:54:16.119997 24395 net.cpp:399] inception_3a/1x1 -> inception_3a/1x1
I0803 21:54:16.122339 24391 net.cpp:141] Setting up inception_3a/1x1
I0803 21:54:16.122359 24391 net.cpp:148] Top shape: 10 64 28 28 (501760)
I0803 21:54:16.122365 24391 net.cpp:156] Memory required for data: 206725120
I0803 21:54:16.122380 24391 layer_factory.hpp:77] Creating layer inception_3a/relu_1x1
I0803 21:54:16.122392 24391 net.cpp:91] Creating Layer inception_3a/relu_1x1
I0803 21:54:16.122400 24391 net.cpp:425] inception_3a/relu_1x1 <- inception_3a/1x1
I0803 21:54:16.122408 24391 net.cpp:386] inception_3a/relu_1x1 -> inception_3a/1x1 (in-place)
I0803 21:54:16.122773 24391 net.cpp:141] Setting up inception_3a/relu_1x1
I0803 21:54:16.122791 24391 net.cpp:148] Top shape: 10 64 28 28 (501760)
I0803 21:54:16.122797 24391 net.cpp:156] Memory required for data: 208732160
I0803 21:54:16.122803 24391 layer_factory.hpp:77] Creating layer inception_3a/3x3_reduce
I0803 21:54:16.122824 24391 net.cpp:91] Creating Layer inception_3a/3x3_reduce
I0803 21:54:16.122833 24391 net.cpp:425] inception_3a/3x3_reduce <- pool2/3x3_s2_pool2/3x3_s2_0_split_1
I0803 21:54:16.122843 24391 net.cpp:399] inception_3a/3x3_reduce -> inception_3a/3x3_reduce
I0803 21:54:16.126763 24395 net.cpp:141] Setting up inception_3a/1x1
I0803 21:54:16.126787 24395 net.cpp:148] Top shape: 10 64 28 28 (501760)
I0803 21:54:16.126794 24395 net.cpp:156] Memory required for data: 206725120
I0803 21:54:16.126806 24395 layer_factory.hpp:77] Creating layer inception_3a/relu_1x1
I0803 21:54:16.126818 24395 net.cpp:91] Creating Layer inception_3a/relu_1x1
I0803 21:54:16.126826 24395 net.cpp:425] inception_3a/relu_1x1 <- inception_3a/1x1
I0803 21:54:16.126839 24395 net.cpp:386] inception_3a/relu_1x1 -> inception_3a/1x1 (in-place)
I0803 21:54:16.127158 24395 net.cpp:141] Setting up inception_3a/relu_1x1
I0803 21:54:16.127176 24395 net.cpp:148] Top shape: 10 64 28 28 (501760)
I0803 21:54:16.127182 24395 net.cpp:156] Memory required for data: 208732160
I0803 21:54:16.127188 24395 layer_factory.hpp:77] Creating layer inception_3a/3x3_reduce
I0803 21:54:16.127207 24395 net.cpp:91] Creating Layer inception_3a/3x3_reduce
I0803 21:54:16.127215 24395 net.cpp:425] inception_3a/3x3_reduce <- pool2/3x3_s2_pool2/3x3_s2_0_split_1
I0803 21:54:16.127228 24395 net.cpp:399] inception_3a/3x3_reduce -> inception_3a/3x3_reduce
I0803 21:54:16.129637 24391 net.cpp:141] Setting up inception_3a/3x3_reduce
I0803 21:54:16.129659 24391 net.cpp:148] Top shape: 10 96 28 28 (752640)
I0803 21:54:16.129667 24391 net.cpp:156] Memory required for data: 211742720
I0803 21:54:16.129683 24391 layer_factory.hpp:77] Creating layer inception_3a/relu_3x3_reduce
I0803 21:54:16.129694 24391 net.cpp:91] Creating Layer inception_3a/relu_3x3_reduce
I0803 21:54:16.129701 24391 net.cpp:425] inception_3a/relu_3x3_reduce <- inception_3a/3x3_reduce
I0803 21:54:16.129714 24391 net.cpp:386] inception_3a/relu_3x3_reduce -> inception_3a/3x3_reduce (in-place)
I0803 21:54:16.130033 24391 net.cpp:141] Setting up inception_3a/relu_3x3_reduce
I0803 21:54:16.130046 24391 net.cpp:148] Top shape: 10 96 28 28 (752640)
I0803 21:54:16.130053 24391 net.cpp:156] Memory required for data: 214753280
I0803 21:54:16.130059 24391 layer_factory.hpp:77] Creating layer inception_3a/3x3
I0803 21:54:16.130084 24391 net.cpp:91] Creating Layer inception_3a/3x3
I0803 21:54:16.130090 24391 net.cpp:425] inception_3a/3x3 <- inception_3a/3x3_reduce
I0803 21:54:16.130102 24391 net.cpp:399] inception_3a/3x3 -> inception_3a/3x3
I0803 21:54:16.131537 24395 net.cpp:141] Setting up inception_3a/3x3_reduce
I0803 21:54:16.131558 24395 net.cpp:148] Top shape: 10 96 28 28 (752640)
I0803 21:54:16.131566 24395 net.cpp:156] Memory required for data: 211742720
I0803 21:54:16.131584 24395 layer_factory.hpp:77] Creating layer inception_3a/relu_3x3_reduce
I0803 21:54:16.131597 24395 net.cpp:91] Creating Layer inception_3a/relu_3x3_reduce
I0803 21:54:16.131603 24395 net.cpp:425] inception_3a/relu_3x3_reduce <- inception_3a/3x3_reduce
I0803 21:54:16.131614 24395 net.cpp:386] inception_3a/relu_3x3_reduce -> inception_3a/3x3_reduce (in-place)
I0803 21:54:16.131882 24395 net.cpp:141] Setting up inception_3a/relu_3x3_reduce
I0803 21:54:16.131896 24395 net.cpp:148] Top shape: 10 96 28 28 (752640)
I0803 21:54:16.131901 24395 net.cpp:156] Memory required for data: 214753280
I0803 21:54:16.131908 24395 layer_factory.hpp:77] Creating layer inception_3a/3x3
I0803 21:54:16.131930 24395 net.cpp:91] Creating Layer inception_3a/3x3
I0803 21:54:16.131938 24395 net.cpp:425] inception_3a/3x3 <- inception_3a/3x3_reduce
I0803 21:54:16.131949 24395 net.cpp:399] inception_3a/3x3 -> inception_3a/3x3
I0803 21:54:16.133996 24391 net.cpp:141] Setting up inception_3a/3x3
I0803 21:54:16.134016 24391 net.cpp:148] Top shape: 10 128 28 28 (1003520)
I0803 21:54:16.134023 24391 net.cpp:156] Memory required for data: 218767360
I0803 21:54:16.134034 24391 layer_factory.hpp:77] Creating layer inception_3a/relu_3x3
I0803 21:54:16.134049 24391 net.cpp:91] Creating Layer inception_3a/relu_3x3
I0803 21:54:16.134057 24391 net.cpp:425] inception_3a/relu_3x3 <- inception_3a/3x3
I0803 21:54:16.134066 24391 net.cpp:386] inception_3a/relu_3x3 -> inception_3a/3x3 (in-place)
I0803 21:54:16.134595 24391 net.cpp:141] Setting up inception_3a/relu_3x3
I0803 21:54:16.134613 24391 net.cpp:148] Top shape: 10 128 28 28 (1003520)
I0803 21:54:16.134619 24391 net.cpp:156] Memory required for data: 222781440
I0803 21:54:16.134626 24391 layer_factory.hpp:77] Creating layer inception_3a/5x5_reduce
I0803 21:54:16.134647 24391 net.cpp:91] Creating Layer inception_3a/5x5_reduce
I0803 21:54:16.134655 24391 net.cpp:425] inception_3a/5x5_reduce <- pool2/3x3_s2_pool2/3x3_s2_0_split_2
I0803 21:54:16.134666 24391 net.cpp:399] inception_3a/5x5_reduce -> inception_3a/5x5_reduce
I0803 21:54:16.136209 24395 net.cpp:141] Setting up inception_3a/3x3
I0803 21:54:16.136229 24395 net.cpp:148] Top shape: 10 128 28 28 (1003520)
I0803 21:54:16.136235 24395 net.cpp:156] Memory required for data: 218767360
I0803 21:54:16.136246 24395 layer_factory.hpp:77] Creating layer inception_3a/relu_3x3
I0803 21:54:16.136260 24395 net.cpp:91] Creating Layer inception_3a/relu_3x3
I0803 21:54:16.136267 24395 net.cpp:425] inception_3a/relu_3x3 <- inception_3a/3x3
I0803 21:54:16.136276 24395 net.cpp:386] inception_3a/relu_3x3 -> inception_3a/3x3 (in-place)
I0803 21:54:16.136816 24395 net.cpp:141] Setting up inception_3a/relu_3x3
I0803 21:54:16.136837 24395 net.cpp:148] Top shape: 10 128 28 28 (1003520)
I0803 21:54:16.136843 24395 net.cpp:156] Memory required for data: 222781440
I0803 21:54:16.136849 24395 layer_factory.hpp:77] Creating layer inception_3a/5x5_reduce
I0803 21:54:16.136869 24395 net.cpp:91] Creating Layer inception_3a/5x5_reduce
I0803 21:54:16.136876 24395 net.cpp:425] inception_3a/5x5_reduce <- pool2/3x3_s2_pool2/3x3_s2_0_split_2
I0803 21:54:16.136900 24395 net.cpp:399] inception_3a/5x5_reduce -> inception_3a/5x5_reduce
I0803 21:54:16.137895 24391 net.cpp:141] Setting up inception_3a/5x5_reduce
I0803 21:54:16.137915 24391 net.cpp:148] Top shape: 10 16 28 28 (125440)
I0803 21:54:16.137923 24391 net.cpp:156] Memory required for data: 223283200
I0803 21:54:16.137933 24391 layer_factory.hpp:77] Creating layer inception_3a/relu_5x5_reduce
I0803 21:54:16.137944 24391 net.cpp:91] Creating Layer inception_3a/relu_5x5_reduce
I0803 21:54:16.137951 24391 net.cpp:425] inception_3a/relu_5x5_reduce <- inception_3a/5x5_reduce
I0803 21:54:16.137960 24391 net.cpp:386] inception_3a/relu_5x5_reduce -> inception_3a/5x5_reduce (in-place)
I0803 21:54:16.138336 24391 net.cpp:141] Setting up inception_3a/relu_5x5_reduce
I0803 21:54:16.138350 24391 net.cpp:148] Top shape: 10 16 28 28 (125440)
I0803 21:54:16.138356 24391 net.cpp:156] Memory required for data: 223784960
I0803 21:54:16.138362 24391 layer_factory.hpp:77] Creating layer inception_3a/5x5
I0803 21:54:16.138381 24391 net.cpp:91] Creating Layer inception_3a/5x5
I0803 21:54:16.138388 24391 net.cpp:425] inception_3a/5x5 <- inception_3a/5x5_reduce
I0803 21:54:16.138402 24391 net.cpp:399] inception_3a/5x5 -> inception_3a/5x5
I0803 21:54:16.140036 24395 net.cpp:141] Setting up inception_3a/5x5_reduce
I0803 21:54:16.140055 24395 net.cpp:148] Top shape: 10 16 28 28 (125440)
I0803 21:54:16.140063 24395 net.cpp:156] Memory required for data: 223283200
I0803 21:54:16.140074 24395 layer_factory.hpp:77] Creating layer inception_3a/relu_5x5_reduce
I0803 21:54:16.140089 24395 net.cpp:91] Creating Layer inception_3a/relu_5x5_reduce
I0803 21:54:16.140096 24395 net.cpp:425] inception_3a/relu_5x5_reduce <- inception_3a/5x5_reduce
I0803 21:54:16.140106 24395 net.cpp:386] inception_3a/relu_5x5_reduce -> inception_3a/5x5_reduce (in-place)
I0803 21:54:16.140393 24395 net.cpp:141] Setting up inception_3a/relu_5x5_reduce
I0803 21:54:16.140406 24395 net.cpp:148] Top shape: 10 16 28 28 (125440)
I0803 21:54:16.140413 24395 net.cpp:156] Memory required for data: 223784960
I0803 21:54:16.140419 24395 layer_factory.hpp:77] Creating layer inception_3a/5x5
I0803 21:54:16.140441 24395 net.cpp:91] Creating Layer inception_3a/5x5
I0803 21:54:16.140450 24395 net.cpp:425] inception_3a/5x5 <- inception_3a/5x5_reduce
I0803 21:54:16.140462 24395 net.cpp:399] inception_3a/5x5 -> inception_3a/5x5
I0803 21:54:16.142549 24391 net.cpp:141] Setting up inception_3a/5x5
I0803 21:54:16.142570 24391 net.cpp:148] Top shape: 10 32 28 28 (250880)
I0803 21:54:16.142575 24391 net.cpp:156] Memory required for data: 224788480
I0803 21:54:16.142586 24391 layer_factory.hpp:77] Creating layer inception_3a/relu_5x5
I0803 21:54:16.142597 24391 net.cpp:91] Creating Layer inception_3a/relu_5x5
I0803 21:54:16.142604 24391 net.cpp:425] inception_3a/relu_5x5 <- inception_3a/5x5
I0803 21:54:16.142614 24391 net.cpp:386] inception_3a/relu_5x5 -> inception_3a/5x5 (in-place)
I0803 21:54:16.142946 24391 net.cpp:141] Setting up inception_3a/relu_5x5
I0803 21:54:16.142959 24391 net.cpp:148] Top shape: 10 32 28 28 (250880)
I0803 21:54:16.142966 24391 net.cpp:156] Memory required for data: 225792000
I0803 21:54:16.142972 24391 layer_factory.hpp:77] Creating layer inception_3a/pool
I0803 21:54:16.142985 24391 net.cpp:91] Creating Layer inception_3a/pool
I0803 21:54:16.142992 24391 net.cpp:425] inception_3a/pool <- pool2/3x3_s2_pool2/3x3_s2_0_split_3
I0803 21:54:16.143002 24391 net.cpp:399] inception_3a/pool -> inception_3a/pool
I0803 21:54:16.143450 24391 net.cpp:141] Setting up inception_3a/pool
I0803 21:54:16.143465 24391 net.cpp:148] Top shape: 10 192 28 28 (1505280)
I0803 21:54:16.143471 24391 net.cpp:156] Memory required for data: 231813120
I0803 21:54:16.143477 24391 layer_factory.hpp:77] Creating layer inception_3a/pool_proj
I0803 21:54:16.143498 24391 net.cpp:91] Creating Layer inception_3a/pool_proj
I0803 21:54:16.143507 24391 net.cpp:425] inception_3a/pool_proj <- inception_3a/pool
I0803 21:54:16.143522 24391 net.cpp:399] inception_3a/pool_proj -> inception_3a/pool_proj
I0803 21:54:16.144901 24395 net.cpp:141] Setting up inception_3a/5x5
I0803 21:54:16.144920 24395 net.cpp:148] Top shape: 10 32 28 28 (250880)
I0803 21:54:16.144927 24395 net.cpp:156] Memory required for data: 224788480
I0803 21:54:16.144942 24395 layer_factory.hpp:77] Creating layer inception_3a/relu_5x5
I0803 21:54:16.144953 24395 net.cpp:91] Creating Layer inception_3a/relu_5x5
I0803 21:54:16.144960 24395 net.cpp:425] inception_3a/relu_5x5 <- inception_3a/5x5
I0803 21:54:16.144973 24395 net.cpp:386] inception_3a/relu_5x5 -> inception_3a/5x5 (in-place)
I0803 21:54:16.145318 24395 net.cpp:141] Setting up inception_3a/relu_5x5
I0803 21:54:16.145333 24395 net.cpp:148] Top shape: 10 32 28 28 (250880)
I0803 21:54:16.145339 24395 net.cpp:156] Memory required for data: 225792000
I0803 21:54:16.145344 24395 layer_factory.hpp:77] Creating layer inception_3a/pool
I0803 21:54:16.145355 24395 net.cpp:91] Creating Layer inception_3a/pool
I0803 21:54:16.145362 24395 net.cpp:425] inception_3a/pool <- pool2/3x3_s2_pool2/3x3_s2_0_split_3
I0803 21:54:16.145375 24395 net.cpp:399] inception_3a/pool -> inception_3a/pool
I0803 21:54:16.145535 24395 net.cpp:141] Setting up inception_3a/pool
I0803 21:54:16.145548 24395 net.cpp:148] Top shape: 10 192 28 28 (1505280)
I0803 21:54:16.145555 24395 net.cpp:156] Memory required for data: 231813120
I0803 21:54:16.145560 24395 layer_factory.hpp:77] Creating layer inception_3a/pool_proj
I0803 21:54:16.145582 24395 net.cpp:91] Creating Layer inception_3a/pool_proj
I0803 21:54:16.145589 24395 net.cpp:425] inception_3a/pool_proj <- inception_3a/pool
I0803 21:54:16.145602 24395 net.cpp:399] inception_3a/pool_proj -> inception_3a/pool_proj
I0803 21:54:16.147335 24391 net.cpp:141] Setting up inception_3a/pool_proj
I0803 21:54:16.147353 24391 net.cpp:148] Top shape: 10 32 28 28 (250880)
I0803 21:54:16.147361 24391 net.cpp:156] Memory required for data: 232816640
I0803 21:54:16.147375 24391 layer_factory.hpp:77] Creating layer inception_3a/relu_pool_proj
I0803 21:54:16.147392 24391 net.cpp:91] Creating Layer inception_3a/relu_pool_proj
I0803 21:54:16.147398 24391 net.cpp:425] inception_3a/relu_pool_proj <- inception_3a/pool_proj
I0803 21:54:16.147408 24391 net.cpp:386] inception_3a/relu_pool_proj -> inception_3a/pool_proj (in-place)
I0803 21:54:16.148015 24391 net.cpp:141] Setting up inception_3a/relu_pool_proj
I0803 21:54:16.148033 24391 net.cpp:148] Top shape: 10 32 28 28 (250880)
I0803 21:54:16.148039 24391 net.cpp:156] Memory required for data: 233820160
I0803 21:54:16.148046 24391 layer_factory.hpp:77] Creating layer inception_3a/output
I0803 21:54:16.148072 24391 net.cpp:91] Creating Layer inception_3a/output
I0803 21:54:16.148079 24391 net.cpp:425] inception_3a/output <- inception_3a/1x1
I0803 21:54:16.148087 24391 net.cpp:425] inception_3a/output <- inception_3a/3x3
I0803 21:54:16.148094 24391 net.cpp:425] inception_3a/output <- inception_3a/5x5
I0803 21:54:16.148102 24391 net.cpp:425] inception_3a/output <- inception_3a/pool_proj
I0803 21:54:16.148110 24391 net.cpp:399] inception_3a/output -> inception_3a/output
I0803 21:54:16.148295 24391 net.cpp:141] Setting up inception_3a/output
I0803 21:54:16.148309 24391 net.cpp:148] Top shape: 10 256 28 28 (2007040)
I0803 21:54:16.148315 24391 net.cpp:156] Memory required for data: 241848320
I0803 21:54:16.148321 24391 layer_factory.hpp:77] Creating layer inception_3a/output_inception_3a/output_0_split
I0803 21:54:16.148344 24391 net.cpp:91] Creating Layer inception_3a/output_inception_3a/output_0_split
I0803 21:54:16.148351 24391 net.cpp:425] inception_3a/output_inception_3a/output_0_split <- inception_3a/output
I0803 21:54:16.148360 24391 net.cpp:399] inception_3a/output_inception_3a/output_0_split -> inception_3a/output_inception_3a/output_0_split_0
I0803 21:54:16.148373 24391 net.cpp:399] inception_3a/output_inception_3a/output_0_split -> inception_3a/output_inception_3a/output_0_split_1
I0803 21:54:16.148385 24391 net.cpp:399] inception_3a/output_inception_3a/output_0_split -> inception_3a/output_inception_3a/output_0_split_2
I0803 21:54:16.148394 24391 net.cpp:399] inception_3a/output_inception_3a/output_0_split -> inception_3a/output_inception_3a/output_0_split_3
I0803 21:54:16.148732 24391 net.cpp:141] Setting up inception_3a/output_inception_3a/output_0_split
I0803 21:54:16.148746 24391 net.cpp:148] Top shape: 10 256 28 28 (2007040)
I0803 21:54:16.148753 24391 net.cpp:148] Top shape: 10 256 28 28 (2007040)
I0803 21:54:16.148761 24391 net.cpp:148] Top shape: 10 256 28 28 (2007040)
I0803 21:54:16.148767 24391 net.cpp:148] Top shape: 10 256 28 28 (2007040)
I0803 21:54:16.148772 24391 net.cpp:156] Memory required for data: 273960960
I0803 21:54:16.148779 24391 layer_factory.hpp:77] Creating layer inception_3b/1x1
I0803 21:54:16.148797 24391 net.cpp:91] Creating Layer inception_3b/1x1
I0803 21:54:16.148804 24391 net.cpp:425] inception_3b/1x1 <- inception_3a/output_inception_3a/output_0_split_0
I0803 21:54:16.148818 24391 net.cpp:399] inception_3b/1x1 -> inception_3b/1x1
I0803 21:54:16.148862 24395 net.cpp:141] Setting up inception_3a/pool_proj
I0803 21:54:16.148882 24395 net.cpp:148] Top shape: 10 32 28 28 (250880)
I0803 21:54:16.148890 24395 net.cpp:156] Memory required for data: 232816640
I0803 21:54:16.148905 24395 layer_factory.hpp:77] Creating layer inception_3a/relu_pool_proj
I0803 21:54:16.148918 24395 net.cpp:91] Creating Layer inception_3a/relu_pool_proj
I0803 21:54:16.148926 24395 net.cpp:425] inception_3a/relu_pool_proj <- inception_3a/pool_proj
I0803 21:54:16.148934 24395 net.cpp:386] inception_3a/relu_pool_proj -> inception_3a/pool_proj (in-place)
I0803 21:54:16.149534 24395 net.cpp:141] Setting up inception_3a/relu_pool_proj
I0803 21:54:16.149550 24395 net.cpp:148] Top shape: 10 32 28 28 (250880)
I0803 21:54:16.149556 24395 net.cpp:156] Memory required for data: 233820160
I0803 21:54:16.149562 24395 layer_factory.hpp:77] Creating layer inception_3a/output
I0803 21:54:16.149575 24395 net.cpp:91] Creating Layer inception_3a/output
I0803 21:54:16.149582 24395 net.cpp:425] inception_3a/output <- inception_3a/1x1
I0803 21:54:16.149590 24395 net.cpp:425] inception_3a/output <- inception_3a/3x3
I0803 21:54:16.149597 24395 net.cpp:425] inception_3a/output <- inception_3a/5x5
I0803 21:54:16.149605 24395 net.cpp:425] inception_3a/output <- inception_3a/pool_proj
I0803 21:54:16.149612 24395 net.cpp:399] inception_3a/output -> inception_3a/output
I0803 21:54:16.149693 24395 net.cpp:141] Setting up inception_3a/output
I0803 21:54:16.149708 24395 net.cpp:148] Top shape: 10 256 28 28 (2007040)
I0803 21:54:16.149713 24395 net.cpp:156] Memory required for data: 241848320
I0803 21:54:16.149729 24395 layer_factory.hpp:77] Creating layer inception_3a/output_inception_3a/output_0_split
I0803 21:54:16.149739 24395 net.cpp:91] Creating Layer inception_3a/output_inception_3a/output_0_split
I0803 21:54:16.149744 24395 net.cpp:425] inception_3a/output_inception_3a/output_0_split <- inception_3a/output
I0803 21:54:16.149752 24395 net.cpp:399] inception_3a/output_inception_3a/output_0_split -> inception_3a/output_inception_3a/output_0_split_0
I0803 21:54:16.149763 24395 net.cpp:399] inception_3a/output_inception_3a/output_0_split -> inception_3a/output_inception_3a/output_0_split_1
I0803 21:54:16.149773 24395 net.cpp:399] inception_3a/output_inception_3a/output_0_split -> inception_3a/output_inception_3a/output_0_split_2
I0803 21:54:16.149787 24395 net.cpp:399] inception_3a/output_inception_3a/output_0_split -> inception_3a/output_inception_3a/output_0_split_3
I0803 21:54:16.149973 24395 net.cpp:141] Setting up inception_3a/output_inception_3a/output_0_split
I0803 21:54:16.149987 24395 net.cpp:148] Top shape: 10 256 28 28 (2007040)
I0803 21:54:16.149994 24395 net.cpp:148] Top shape: 10 256 28 28 (2007040)
I0803 21:54:16.150002 24395 net.cpp:148] Top shape: 10 256 28 28 (2007040)
I0803 21:54:16.150008 24395 net.cpp:148] Top shape: 10 256 28 28 (2007040)
I0803 21:54:16.150013 24395 net.cpp:156] Memory required for data: 273960960
I0803 21:54:16.150019 24395 layer_factory.hpp:77] Creating layer inception_3b/1x1
I0803 21:54:16.150039 24395 net.cpp:91] Creating Layer inception_3b/1x1
I0803 21:54:16.150046 24395 net.cpp:425] inception_3b/1x1 <- inception_3a/output_inception_3a/output_0_split_0
I0803 21:54:16.150058 24395 net.cpp:399] inception_3b/1x1 -> inception_3b/1x1
I0803 21:54:16.152537 24391 net.cpp:141] Setting up inception_3b/1x1
I0803 21:54:16.152556 24391 net.cpp:148] Top shape: 10 128 28 28 (1003520)
I0803 21:54:16.152564 24391 net.cpp:156] Memory required for data: 277975040
I0803 21:54:16.152575 24391 layer_factory.hpp:77] Creating layer inception_3b/relu_1x1
I0803 21:54:16.152590 24391 net.cpp:91] Creating Layer inception_3b/relu_1x1
I0803 21:54:16.152597 24391 net.cpp:425] inception_3b/relu_1x1 <- inception_3b/1x1
I0803 21:54:16.152606 24391 net.cpp:386] inception_3b/relu_1x1 -> inception_3b/1x1 (in-place)
I0803 21:54:16.152952 24391 net.cpp:141] Setting up inception_3b/relu_1x1
I0803 21:54:16.152966 24391 net.cpp:148] Top shape: 10 128 28 28 (1003520)
I0803 21:54:16.152972 24391 net.cpp:156] Memory required for data: 281989120
I0803 21:54:16.152979 24391 layer_factory.hpp:77] Creating layer inception_3b/3x3_reduce
I0803 21:54:16.152998 24391 net.cpp:91] Creating Layer inception_3b/3x3_reduce
I0803 21:54:16.153005 24391 net.cpp:425] inception_3b/3x3_reduce <- inception_3a/output_inception_3a/output_0_split_1
I0803 21:54:16.153020 24391 net.cpp:399] inception_3b/3x3_reduce -> inception_3b/3x3_reduce
I0803 21:54:16.153834 24395 net.cpp:141] Setting up inception_3b/1x1
I0803 21:54:16.153861 24395 net.cpp:148] Top shape: 10 128 28 28 (1003520)
I0803 21:54:16.153867 24395 net.cpp:156] Memory required for data: 277975040
I0803 21:54:16.153878 24395 layer_factory.hpp:77] Creating layer inception_3b/relu_1x1
I0803 21:54:16.153889 24395 net.cpp:91] Creating Layer inception_3b/relu_1x1
I0803 21:54:16.153897 24395 net.cpp:425] inception_3b/relu_1x1 <- inception_3b/1x1
I0803 21:54:16.153906 24395 net.cpp:386] inception_3b/relu_1x1 -> inception_3b/1x1 (in-place)
I0803 21:54:16.154258 24395 net.cpp:141] Setting up inception_3b/relu_1x1
I0803 21:54:16.154275 24395 net.cpp:148] Top shape: 10 128 28 28 (1003520)
I0803 21:54:16.154281 24395 net.cpp:156] Memory required for data: 281989120
I0803 21:54:16.154289 24395 layer_factory.hpp:77] Creating layer inception_3b/3x3_reduce
I0803 21:54:16.154304 24395 net.cpp:91] Creating Layer inception_3b/3x3_reduce
I0803 21:54:16.154312 24395 net.cpp:425] inception_3b/3x3_reduce <- inception_3a/output_inception_3a/output_0_split_1
I0803 21:54:16.154323 24395 net.cpp:399] inception_3b/3x3_reduce -> inception_3b/3x3_reduce
I0803 21:54:16.156041 24391 net.cpp:141] Setting up inception_3b/3x3_reduce
I0803 21:54:16.156060 24391 net.cpp:148] Top shape: 10 128 28 28 (1003520)
I0803 21:54:16.156067 24391 net.cpp:156] Memory required for data: 286003200
I0803 21:54:16.156078 24391 layer_factory.hpp:77] Creating layer inception_3b/relu_3x3_reduce
I0803 21:54:16.156093 24391 net.cpp:91] Creating Layer inception_3b/relu_3x3_reduce
I0803 21:54:16.156101 24391 net.cpp:425] inception_3b/relu_3x3_reduce <- inception_3b/3x3_reduce
I0803 21:54:16.156111 24391 net.cpp:386] inception_3b/relu_3x3_reduce -> inception_3b/3x3_reduce (in-place)
I0803 21:54:16.156427 24391 net.cpp:141] Setting up inception_3b/relu_3x3_reduce
I0803 21:54:16.156441 24391 net.cpp:148] Top shape: 10 128 28 28 (1003520)
I0803 21:54:16.156447 24391 net.cpp:156] Memory required for data: 290017280
I0803 21:54:16.156453 24391 layer_factory.hpp:77] Creating layer inception_3b/3x3
I0803 21:54:16.156477 24391 net.cpp:91] Creating Layer inception_3b/3x3
I0803 21:54:16.156486 24391 net.cpp:425] inception_3b/3x3 <- inception_3b/3x3_reduce
I0803 21:54:16.156500 24391 net.cpp:399] inception_3b/3x3 -> inception_3b/3x3
I0803 21:54:16.158879 24395 net.cpp:141] Setting up inception_3b/3x3_reduce
I0803 21:54:16.158900 24395 net.cpp:148] Top shape: 10 128 28 28 (1003520)
I0803 21:54:16.158908 24395 net.cpp:156] Memory required for data: 286003200
I0803 21:54:16.158920 24395 layer_factory.hpp:77] Creating layer inception_3b/relu_3x3_reduce
I0803 21:54:16.158929 24395 net.cpp:91] Creating Layer inception_3b/relu_3x3_reduce
I0803 21:54:16.158937 24395 net.cpp:425] inception_3b/relu_3x3_reduce <- inception_3b/3x3_reduce
I0803 21:54:16.158946 24395 net.cpp:386] inception_3b/relu_3x3_reduce -> inception_3b/3x3_reduce (in-place)
I0803 21:54:16.159214 24395 net.cpp:141] Setting up inception_3b/relu_3x3_reduce
I0803 21:54:16.159229 24395 net.cpp:148] Top shape: 10 128 28 28 (1003520)
I0803 21:54:16.159234 24395 net.cpp:156] Memory required for data: 290017280
I0803 21:54:16.159240 24395 layer_factory.hpp:77] Creating layer inception_3b/3x3
I0803 21:54:16.159261 24395 net.cpp:91] Creating Layer inception_3b/3x3
I0803 21:54:16.159268 24395 net.cpp:425] inception_3b/3x3 <- inception_3b/3x3_reduce
I0803 21:54:16.159279 24395 net.cpp:399] inception_3b/3x3 -> inception_3b/3x3
I0803 21:54:16.162294 24391 net.cpp:141] Setting up inception_3b/3x3
I0803 21:54:16.162315 24391 net.cpp:148] Top shape: 10 192 28 28 (1505280)
I0803 21:54:16.162322 24391 net.cpp:156] Memory required for data: 296038400
I0803 21:54:16.162333 24391 layer_factory.hpp:77] Creating layer inception_3b/relu_3x3
I0803 21:54:16.162353 24391 net.cpp:91] Creating Layer inception_3b/relu_3x3
I0803 21:54:16.162360 24391 net.cpp:425] inception_3b/relu_3x3 <- inception_3b/3x3
I0803 21:54:16.162372 24391 net.cpp:386] inception_3b/relu_3x3 -> inception_3b/3x3 (in-place)
I0803 21:54:16.162935 24391 net.cpp:141] Setting up inception_3b/relu_3x3
I0803 21:54:16.162952 24391 net.cpp:148] Top shape: 10 192 28 28 (1505280)
I0803 21:54:16.162958 24391 net.cpp:156] Memory required for data: 302059520
I0803 21:54:16.162966 24391 layer_factory.hpp:77] Creating layer inception_3b/5x5_reduce
I0803 21:54:16.162986 24391 net.cpp:91] Creating Layer inception_3b/5x5_reduce
I0803 21:54:16.162994 24391 net.cpp:425] inception_3b/5x5_reduce <- inception_3a/output_inception_3a/output_0_split_2
I0803 21:54:16.163005 24391 net.cpp:399] inception_3b/5x5_reduce -> inception_3b/5x5_reduce
I0803 21:54:16.166465 24395 net.cpp:141] Setting up inception_3b/3x3
I0803 21:54:16.166492 24395 net.cpp:148] Top shape: 10 192 28 28 (1505280)
I0803 21:54:16.166504 24395 net.cpp:156] Memory required for data: 296038400
I0803 21:54:16.166524 24395 layer_factory.hpp:77] Creating layer inception_3b/relu_3x3
I0803 21:54:16.166553 24395 net.cpp:91] Creating Layer inception_3b/relu_3x3
I0803 21:54:16.166564 24395 net.cpp:425] inception_3b/relu_3x3 <- inception_3b/3x3
I0803 21:54:16.166580 24395 net.cpp:386] inception_3b/relu_3x3 -> inception_3b/3x3 (in-place)
I0803 21:54:16.166630 24391 net.cpp:141] Setting up inception_3b/5x5_reduce
I0803 21:54:16.166647 24391 net.cpp:148] Top shape: 10 32 28 28 (250880)
I0803 21:54:16.166653 24391 net.cpp:156] Memory required for data: 303063040
I0803 21:54:16.166664 24391 layer_factory.hpp:77] Creating layer inception_3b/relu_5x5_reduce
I0803 21:54:16.166676 24391 net.cpp:91] Creating Layer inception_3b/relu_5x5_reduce
I0803 21:54:16.166682 24391 net.cpp:425] inception_3b/relu_5x5_reduce <- inception_3b/5x5_reduce
I0803 21:54:16.166695 24391 net.cpp:386] inception_3b/relu_5x5_reduce -> inception_3b/5x5_reduce (in-place)
I0803 21:54:16.166970 24391 net.cpp:141] Setting up inception_3b/relu_5x5_reduce
I0803 21:54:16.166985 24391 net.cpp:148] Top shape: 10 32 28 28 (250880)
I0803 21:54:16.166990 24391 net.cpp:156] Memory required for data: 304066560
I0803 21:54:16.166996 24391 layer_factory.hpp:77] Creating layer inception_3b/5x5
I0803 21:54:16.167014 24391 net.cpp:91] Creating Layer inception_3b/5x5
I0803 21:54:16.167021 24391 net.cpp:425] inception_3b/5x5 <- inception_3b/5x5_reduce
I0803 21:54:16.167035 24391 net.cpp:399] inception_3b/5x5 -> inception_3b/5x5
I0803 21:54:16.167480 24395 net.cpp:141] Setting up inception_3b/relu_3x3
I0803 21:54:16.167502 24395 net.cpp:148] Top shape: 10 192 28 28 (1505280)
I0803 21:54:16.167515 24395 net.cpp:156] Memory required for data: 302059520
I0803 21:54:16.167526 24395 layer_factory.hpp:77] Creating layer inception_3b/5x5_reduce
I0803 21:54:16.167553 24395 net.cpp:91] Creating Layer inception_3b/5x5_reduce
I0803 21:54:16.167565 24395 net.cpp:425] inception_3b/5x5_reduce <- inception_3a/output_inception_3a/output_0_split_2
I0803 21:54:16.167587 24395 net.cpp:399] inception_3b/5x5_reduce -> inception_3b/5x5_reduce
I0803 21:54:16.171906 24391 net.cpp:141] Setting up inception_3b/5x5
I0803 21:54:16.171926 24391 net.cpp:148] Top shape: 10 96 28 28 (752640)
I0803 21:54:16.171933 24391 net.cpp:156] Memory required for data: 307077120
I0803 21:54:16.171944 24391 layer_factory.hpp:77] Creating layer inception_3b/relu_5x5
I0803 21:54:16.171955 24391 net.cpp:91] Creating Layer inception_3b/relu_5x5
I0803 21:54:16.171963 24391 net.cpp:425] inception_3b/relu_5x5 <- inception_3b/5x5
I0803 21:54:16.171977 24391 net.cpp:386] inception_3b/relu_5x5 -> inception_3b/5x5 (in-place)
I0803 21:54:16.172416 24391 net.cpp:141] Setting up inception_3b/relu_5x5
I0803 21:54:16.172433 24391 net.cpp:148] Top shape: 10 96 28 28 (752640)
I0803 21:54:16.172440 24391 net.cpp:156] Memory required for data: 310087680
I0803 21:54:16.172446 24391 layer_factory.hpp:77] Creating layer inception_3b/pool
I0803 21:54:16.172448 24395 net.cpp:141] Setting up inception_3b/5x5_reduce
I0803 21:54:16.172457 24391 net.cpp:91] Creating Layer inception_3b/pool
I0803 21:54:16.172473 24391 net.cpp:425] inception_3b/pool <- inception_3a/output_inception_3a/output_0_split_3
I0803 21:54:16.172477 24395 net.cpp:148] Top shape: 10 32 28 28 (250880)
I0803 21:54:16.172483 24391 net.cpp:399] inception_3b/pool -> inception_3b/pool
I0803 21:54:16.172488 24395 net.cpp:156] Memory required for data: 303063040
I0803 21:54:16.172513 24395 layer_factory.hpp:77] Creating layer inception_3b/relu_5x5_reduce
I0803 21:54:16.172529 24395 net.cpp:91] Creating Layer inception_3b/relu_5x5_reduce
I0803 21:54:16.172541 24395 net.cpp:425] inception_3b/relu_5x5_reduce <- inception_3b/5x5_reduce
I0803 21:54:16.172559 24395 net.cpp:386] inception_3b/relu_5x5_reduce -> inception_3b/5x5_reduce (in-place)
I0803 21:54:16.172605 24391 net.cpp:141] Setting up inception_3b/pool
I0803 21:54:16.172618 24391 net.cpp:148] Top shape: 10 256 28 28 (2007040)
I0803 21:54:16.172623 24391 net.cpp:156] Memory required for data: 318115840
I0803 21:54:16.172631 24391 layer_factory.hpp:77] Creating layer inception_3b/pool_proj
I0803 21:54:16.172657 24391 net.cpp:91] Creating Layer inception_3b/pool_proj
I0803 21:54:16.172663 24391 net.cpp:425] inception_3b/pool_proj <- inception_3b/pool
I0803 21:54:16.172677 24391 net.cpp:399] inception_3b/pool_proj -> inception_3b/pool_proj
I0803 21:54:16.173197 24395 net.cpp:141] Setting up inception_3b/relu_5x5_reduce
I0803 21:54:16.173218 24395 net.cpp:148] Top shape: 10 32 28 28 (250880)
I0803 21:54:16.173228 24395 net.cpp:156] Memory required for data: 304066560
I0803 21:54:16.173251 24395 layer_factory.hpp:77] Creating layer inception_3b/5x5
I0803 21:54:16.173282 24395 net.cpp:91] Creating Layer inception_3b/5x5
I0803 21:54:16.173295 24395 net.cpp:425] inception_3b/5x5 <- inception_3b/5x5_reduce
I0803 21:54:16.173317 24395 net.cpp:399] inception_3b/5x5 -> inception_3b/5x5
I0803 21:54:16.176297 24391 net.cpp:141] Setting up inception_3b/pool_proj
I0803 21:54:16.176317 24391 net.cpp:148] Top shape: 10 64 28 28 (501760)
I0803 21:54:16.176324 24391 net.cpp:156] Memory required for data: 320122880
I0803 21:54:16.176336 24391 layer_factory.hpp:77] Creating layer inception_3b/relu_pool_proj
I0803 21:54:16.176345 24391 net.cpp:91] Creating Layer inception_3b/relu_pool_proj
I0803 21:54:16.176353 24391 net.cpp:425] inception_3b/relu_pool_proj <- inception_3b/pool_proj
I0803 21:54:16.176367 24391 net.cpp:386] inception_3b/relu_pool_proj -> inception_3b/pool_proj (in-place)
I0803 21:54:16.176925 24391 net.cpp:141] Setting up inception_3b/relu_pool_proj
I0803 21:54:16.176944 24391 net.cpp:148] Top shape: 10 64 28 28 (501760)
I0803 21:54:16.176949 24391 net.cpp:156] Memory required for data: 322129920
I0803 21:54:16.176956 24391 layer_factory.hpp:77] Creating layer inception_3b/output
I0803 21:54:16.176967 24391 net.cpp:91] Creating Layer inception_3b/output
I0803 21:54:16.176975 24391 net.cpp:425] inception_3b/output <- inception_3b/1x1
I0803 21:54:16.176985 24391 net.cpp:425] inception_3b/output <- inception_3b/3x3
I0803 21:54:16.176991 24391 net.cpp:425] inception_3b/output <- inception_3b/5x5
I0803 21:54:16.176998 24391 net.cpp:425] inception_3b/output <- inception_3b/pool_proj
I0803 21:54:16.177011 24391 net.cpp:399] inception_3b/output -> inception_3b/output
I0803 21:54:16.177358 24391 net.cpp:141] Setting up inception_3b/output
I0803 21:54:16.177372 24391 net.cpp:148] Top shape: 10 480 28 28 (3763200)
I0803 21:54:16.177378 24391 net.cpp:156] Memory required for data: 337182720
I0803 21:54:16.177384 24391 layer_factory.hpp:77] Creating layer pool3/3x3_s2
I0803 21:54:16.177399 24391 net.cpp:91] Creating Layer pool3/3x3_s2
I0803 21:54:16.177407 24391 net.cpp:425] pool3/3x3_s2 <- inception_3b/output
I0803 21:54:16.177415 24391 net.cpp:399] pool3/3x3_s2 -> pool3/3x3_s2
I0803 21:54:16.177731 24391 net.cpp:141] Setting up pool3/3x3_s2
I0803 21:54:16.177745 24391 net.cpp:148] Top shape: 10 480 14 14 (940800)
I0803 21:54:16.177752 24391 net.cpp:156] Memory required for data: 340945920
I0803 21:54:16.177757 24391 layer_factory.hpp:77] Creating layer pool3/3x3_s2_pool3/3x3_s2_0_split
I0803 21:54:16.177772 24391 net.cpp:91] Creating Layer pool3/3x3_s2_pool3/3x3_s2_0_split
I0803 21:54:16.177779 24391 net.cpp:425] pool3/3x3_s2_pool3/3x3_s2_0_split <- pool3/3x3_s2
I0803 21:54:16.177788 24391 net.cpp:399] pool3/3x3_s2_pool3/3x3_s2_0_split -> pool3/3x3_s2_pool3/3x3_s2_0_split_0
I0803 21:54:16.177800 24391 net.cpp:399] pool3/3x3_s2_pool3/3x3_s2_0_split -> pool3/3x3_s2_pool3/3x3_s2_0_split_1
I0803 21:54:16.177811 24391 net.cpp:399] pool3/3x3_s2_pool3/3x3_s2_0_split -> pool3/3x3_s2_pool3/3x3_s2_0_split_2
I0803 21:54:16.177820 24391 net.cpp:399] pool3/3x3_s2_pool3/3x3_s2_0_split -> pool3/3x3_s2_pool3/3x3_s2_0_split_3
I0803 21:54:16.178467 24391 net.cpp:141] Setting up pool3/3x3_s2_pool3/3x3_s2_0_split
I0803 21:54:16.178483 24391 net.cpp:148] Top shape: 10 480 14 14 (940800)
I0803 21:54:16.178491 24391 net.cpp:148] Top shape: 10 480 14 14 (940800)
I0803 21:54:16.178499 24391 net.cpp:148] Top shape: 10 480 14 14 (940800)
I0803 21:54:16.178506 24391 net.cpp:148] Top shape: 10 480 14 14 (940800)
I0803 21:54:16.178511 24391 net.cpp:156] Memory required for data: 355998720
I0803 21:54:16.178517 24391 layer_factory.hpp:77] Creating layer inception_4a/1x1
I0803 21:54:16.178537 24391 net.cpp:91] Creating Layer inception_4a/1x1
I0803 21:54:16.178544 24391 net.cpp:425] inception_4a/1x1 <- pool3/3x3_s2_pool3/3x3_s2_0_split_0
I0803 21:54:16.178555 24391 net.cpp:399] inception_4a/1x1 -> inception_4a/1x1
I0803 21:54:16.179020 24395 net.cpp:141] Setting up inception_3b/5x5
I0803 21:54:16.179039 24395 net.cpp:148] Top shape: 10 96 28 28 (752640)
I0803 21:54:16.179046 24395 net.cpp:156] Memory required for data: 307077120
I0803 21:54:16.179057 24395 layer_factory.hpp:77] Creating layer inception_3b/relu_5x5
I0803 21:54:16.179071 24395 net.cpp:91] Creating Layer inception_3b/relu_5x5
I0803 21:54:16.179080 24395 net.cpp:425] inception_3b/relu_5x5 <- inception_3b/5x5
I0803 21:54:16.179088 24395 net.cpp:386] inception_3b/relu_5x5 -> inception_3b/5x5 (in-place)
I0803 21:54:16.179455 24395 net.cpp:141] Setting up inception_3b/relu_5x5
I0803 21:54:16.179471 24395 net.cpp:148] Top shape: 10 96 28 28 (752640)
I0803 21:54:16.179477 24395 net.cpp:156] Memory required for data: 310087680
I0803 21:54:16.179484 24395 layer_factory.hpp:77] Creating layer inception_3b/pool
I0803 21:54:16.179499 24395 net.cpp:91] Creating Layer inception_3b/pool
I0803 21:54:16.179507 24395 net.cpp:425] inception_3b/pool <- inception_3a/output_inception_3a/output_0_split_3
I0803 21:54:16.179517 24395 net.cpp:399] inception_3b/pool -> inception_3b/pool
I0803 21:54:16.179632 24395 net.cpp:141] Setting up inception_3b/pool
I0803 21:54:16.179644 24395 net.cpp:148] Top shape: 10 256 28 28 (2007040)
I0803 21:54:16.179651 24395 net.cpp:156] Memory required for data: 318115840
I0803 21:54:16.179656 24395 layer_factory.hpp:77] Creating layer inception_3b/pool_proj
I0803 21:54:16.179674 24395 net.cpp:91] Creating Layer inception_3b/pool_proj
I0803 21:54:16.179682 24395 net.cpp:425] inception_3b/pool_proj <- inception_3b/pool
I0803 21:54:16.179697 24395 net.cpp:399] inception_3b/pool_proj -> inception_3b/pool_proj
I0803 21:54:16.182472 24395 net.cpp:141] Setting up inception_3b/pool_proj
I0803 21:54:16.182492 24395 net.cpp:148] Top shape: 10 64 28 28 (501760)
I0803 21:54:16.182499 24395 net.cpp:156] Memory required for data: 320122880
I0803 21:54:16.182510 24395 layer_factory.hpp:77] Creating layer inception_3b/relu_pool_proj
I0803 21:54:16.182521 24395 net.cpp:91] Creating Layer inception_3b/relu_pool_proj
I0803 21:54:16.182528 24395 net.cpp:425] inception_3b/relu_pool_proj <- inception_3b/pool_proj
I0803 21:54:16.182540 24395 net.cpp:386] inception_3b/relu_pool_proj -> inception_3b/pool_proj (in-place)
I0803 21:54:16.183114 24391 net.cpp:141] Setting up inception_4a/1x1
I0803 21:54:16.183135 24391 net.cpp:148] Top shape: 10 192 14 14 (376320)
I0803 21:54:16.183141 24391 net.cpp:156] Memory required for data: 357504000
I0803 21:54:16.183151 24395 net.cpp:141] Setting up inception_3b/relu_pool_proj
I0803 21:54:16.183152 24391 layer_factory.hpp:77] Creating layer inception_4a/relu_1x1
I0803 21:54:16.183167 24395 net.cpp:148] Top shape: 10 64 28 28 (501760)
I0803 21:54:16.183173 24391 net.cpp:91] Creating Layer inception_4a/relu_1x1
I0803 21:54:16.183174 24395 net.cpp:156] Memory required for data: 322129920
I0803 21:54:16.183184 24391 net.cpp:425] inception_4a/relu_1x1 <- inception_4a/1x1
I0803 21:54:16.183188 24395 layer_factory.hpp:77] Creating layer inception_3b/output
I0803 21:54:16.183194 24391 net.cpp:386] inception_4a/relu_1x1 -> inception_4a/1x1 (in-place)
I0803 21:54:16.183199 24395 net.cpp:91] Creating Layer inception_3b/output
I0803 21:54:16.183207 24395 net.cpp:425] inception_3b/output <- inception_3b/1x1
I0803 21:54:16.183214 24395 net.cpp:425] inception_3b/output <- inception_3b/3x3
I0803 21:54:16.183221 24395 net.cpp:425] inception_3b/output <- inception_3b/5x5
I0803 21:54:16.183228 24395 net.cpp:425] inception_3b/output <- inception_3b/pool_proj
I0803 21:54:16.183239 24395 net.cpp:399] inception_3b/output -> inception_3b/output
I0803 21:54:16.183449 24395 net.cpp:141] Setting up inception_3b/output
I0803 21:54:16.183461 24395 net.cpp:148] Top shape: 10 480 28 28 (3763200)
I0803 21:54:16.183467 24395 net.cpp:156] Memory required for data: 337182720
I0803 21:54:16.183473 24395 layer_factory.hpp:77] Creating layer pool3/3x3_s2
I0803 21:54:16.183487 24395 net.cpp:91] Creating Layer pool3/3x3_s2
I0803 21:54:16.183495 24395 net.cpp:425] pool3/3x3_s2 <- inception_3b/output
I0803 21:54:16.183506 24395 net.cpp:399] pool3/3x3_s2 -> pool3/3x3_s2
I0803 21:54:16.183545 24391 net.cpp:141] Setting up inception_4a/relu_1x1
I0803 21:54:16.183559 24391 net.cpp:148] Top shape: 10 192 14 14 (376320)
I0803 21:54:16.183565 24391 net.cpp:156] Memory required for data: 359009280
I0803 21:54:16.183571 24391 layer_factory.hpp:77] Creating layer inception_4a/3x3_reduce
I0803 21:54:16.183589 24391 net.cpp:91] Creating Layer inception_4a/3x3_reduce
I0803 21:54:16.183598 24391 net.cpp:425] inception_4a/3x3_reduce <- pool3/3x3_s2_pool3/3x3_s2_0_split_1
I0803 21:54:16.183611 24391 net.cpp:399] inception_4a/3x3_reduce -> inception_4a/3x3_reduce
I0803 21:54:16.183619 24395 net.cpp:141] Setting up pool3/3x3_s2
I0803 21:54:16.183635 24395 net.cpp:148] Top shape: 10 480 14 14 (940800)
I0803 21:54:16.183641 24395 net.cpp:156] Memory required for data: 340945920
I0803 21:54:16.183647 24395 layer_factory.hpp:77] Creating layer pool3/3x3_s2_pool3/3x3_s2_0_split
I0803 21:54:16.183658 24395 net.cpp:91] Creating Layer pool3/3x3_s2_pool3/3x3_s2_0_split
I0803 21:54:16.183665 24395 net.cpp:425] pool3/3x3_s2_pool3/3x3_s2_0_split <- pool3/3x3_s2
I0803 21:54:16.183672 24395 net.cpp:399] pool3/3x3_s2_pool3/3x3_s2_0_split -> pool3/3x3_s2_pool3/3x3_s2_0_split_0
I0803 21:54:16.183682 24395 net.cpp:399] pool3/3x3_s2_pool3/3x3_s2_0_split -> pool3/3x3_s2_pool3/3x3_s2_0_split_1
I0803 21:54:16.183692 24395 net.cpp:399] pool3/3x3_s2_pool3/3x3_s2_0_split -> pool3/3x3_s2_pool3/3x3_s2_0_split_2
I0803 21:54:16.183706 24395 net.cpp:399] pool3/3x3_s2_pool3/3x3_s2_0_split -> pool3/3x3_s2_pool3/3x3_s2_0_split_3
I0803 21:54:16.184139 24395 net.cpp:141] Setting up pool3/3x3_s2_pool3/3x3_s2_0_split
I0803 21:54:16.184154 24395 net.cpp:148] Top shape: 10 480 14 14 (940800)
I0803 21:54:16.184160 24395 net.cpp:148] Top shape: 10 480 14 14 (940800)
I0803 21:54:16.184167 24395 net.cpp:148] Top shape: 10 480 14 14 (940800)
I0803 21:54:16.184175 24395 net.cpp:148] Top shape: 10 480 14 14 (940800)
I0803 21:54:16.184180 24395 net.cpp:156] Memory required for data: 355998720
I0803 21:54:16.184186 24395 layer_factory.hpp:77] Creating layer inception_4a/1x1
I0803 21:54:16.184204 24395 net.cpp:91] Creating Layer inception_4a/1x1
I0803 21:54:16.184211 24395 net.cpp:425] inception_4a/1x1 <- pool3/3x3_s2_pool3/3x3_s2_0_split_0
I0803 21:54:16.184222 24395 net.cpp:399] inception_4a/1x1 -> inception_4a/1x1
I0803 21:54:16.187377 24391 net.cpp:141] Setting up inception_4a/3x3_reduce
I0803 21:54:16.187397 24391 net.cpp:148] Top shape: 10 96 14 14 (188160)
I0803 21:54:16.187403 24391 net.cpp:156] Memory required for data: 359761920
I0803 21:54:16.187428 24391 layer_factory.hpp:77] Creating layer inception_4a/relu_3x3_reduce
I0803 21:54:16.187440 24391 net.cpp:91] Creating Layer inception_4a/relu_3x3_reduce
I0803 21:54:16.187448 24391 net.cpp:425] inception_4a/relu_3x3_reduce <- inception_4a/3x3_reduce
I0803 21:54:16.187459 24391 net.cpp:386] inception_4a/relu_3x3_reduce -> inception_4a/3x3_reduce (in-place)
I0803 21:54:16.187860 24391 net.cpp:141] Setting up inception_4a/relu_3x3_reduce
I0803 21:54:16.187875 24391 net.cpp:148] Top shape: 10 96 14 14 (188160)
I0803 21:54:16.187881 24391 net.cpp:156] Memory required for data: 360514560
I0803 21:54:16.187887 24391 layer_factory.hpp:77] Creating layer inception_4a/3x3
I0803 21:54:16.187908 24391 net.cpp:91] Creating Layer inception_4a/3x3
I0803 21:54:16.187916 24391 net.cpp:425] inception_4a/3x3 <- inception_4a/3x3_reduce
I0803 21:54:16.187929 24391 net.cpp:399] inception_4a/3x3 -> inception_4a/3x3
I0803 21:54:16.188040 24395 net.cpp:141] Setting up inception_4a/1x1
I0803 21:54:16.188057 24395 net.cpp:148] Top shape: 10 192 14 14 (376320)
I0803 21:54:16.188063 24395 net.cpp:156] Memory required for data: 357504000
I0803 21:54:16.188074 24395 layer_factory.hpp:77] Creating layer inception_4a/relu_1x1
I0803 21:54:16.188089 24395 net.cpp:91] Creating Layer inception_4a/relu_1x1
I0803 21:54:16.188097 24395 net.cpp:425] inception_4a/relu_1x1 <- inception_4a/1x1
I0803 21:54:16.188112 24395 net.cpp:386] inception_4a/relu_1x1 -> inception_4a/1x1 (in-place)
I0803 21:54:16.188510 24395 net.cpp:141] Setting up inception_4a/relu_1x1
I0803 21:54:16.188524 24395 net.cpp:148] Top shape: 10 192 14 14 (376320)
I0803 21:54:16.188530 24395 net.cpp:156] Memory required for data: 359009280
I0803 21:54:16.188537 24395 layer_factory.hpp:77] Creating layer inception_4a/3x3_reduce
I0803 21:54:16.188556 24395 net.cpp:91] Creating Layer inception_4a/3x3_reduce
I0803 21:54:16.188565 24395 net.cpp:425] inception_4a/3x3_reduce <- pool3/3x3_s2_pool3/3x3_s2_0_split_1
I0803 21:54:16.188580 24395 net.cpp:399] inception_4a/3x3_reduce -> inception_4a/3x3_reduce
I0803 21:54:16.192966 24395 net.cpp:141] Setting up inception_4a/3x3_reduce
I0803 21:54:16.192986 24395 net.cpp:148] Top shape: 10 96 14 14 (188160)
I0803 21:54:16.192992 24395 net.cpp:156] Memory required for data: 359761920
I0803 21:54:16.193032 24395 layer_factory.hpp:77] Creating layer inception_4a/relu_3x3_reduce
I0803 21:54:16.193043 24395 net.cpp:91] Creating Layer inception_4a/relu_3x3_reduce
I0803 21:54:16.193050 24395 net.cpp:425] inception_4a/relu_3x3_reduce <- inception_4a/3x3_reduce
I0803 21:54:16.193059 24395 net.cpp:386] inception_4a/relu_3x3_reduce -> inception_4a/3x3_reduce (in-place)
I0803 21:54:16.193485 24395 net.cpp:141] Setting up inception_4a/relu_3x3_reduce
I0803 21:54:16.193502 24395 net.cpp:148] Top shape: 10 96 14 14 (188160)
I0803 21:54:16.193509 24395 net.cpp:156] Memory required for data: 360514560
I0803 21:54:16.193516 24395 layer_factory.hpp:77] Creating layer inception_4a/3x3
I0803 21:54:16.193534 24395 net.cpp:91] Creating Layer inception_4a/3x3
I0803 21:54:16.193542 24395 net.cpp:425] inception_4a/3x3 <- inception_4a/3x3_reduce
I0803 21:54:16.193557 24395 net.cpp:399] inception_4a/3x3 -> inception_4a/3x3
I0803 21:54:16.193578 24391 net.cpp:141] Setting up inception_4a/3x3
I0803 21:54:16.193594 24391 net.cpp:148] Top shape: 10 208 14 14 (407680)
I0803 21:54:16.193600 24391 net.cpp:156] Memory required for data: 362145280
I0803 21:54:16.193610 24391 layer_factory.hpp:77] Creating layer inception_4a/relu_3x3
I0803 21:54:16.193624 24391 net.cpp:91] Creating Layer inception_4a/relu_3x3
I0803 21:54:16.193631 24391 net.cpp:425] inception_4a/relu_3x3 <- inception_4a/3x3
I0803 21:54:16.193640 24391 net.cpp:386] inception_4a/relu_3x3 -> inception_4a/3x3 (in-place)
I0803 21:54:16.194252 24391 net.cpp:141] Setting up inception_4a/relu_3x3
I0803 21:54:16.194269 24391 net.cpp:148] Top shape: 10 208 14 14 (407680)
I0803 21:54:16.194275 24391 net.cpp:156] Memory required for data: 363776000
I0803 21:54:16.194283 24391 layer_factory.hpp:77] Creating layer inception_4a/5x5_reduce
I0803 21:54:16.194300 24391 net.cpp:91] Creating Layer inception_4a/5x5_reduce
I0803 21:54:16.194308 24391 net.cpp:425] inception_4a/5x5_reduce <- pool3/3x3_s2_pool3/3x3_s2_0_split_2
I0803 21:54:16.194324 24391 net.cpp:399] inception_4a/5x5_reduce -> inception_4a/5x5_reduce
I0803 21:54:16.198513 24391 net.cpp:141] Setting up inception_4a/5x5_reduce
I0803 21:54:16.198534 24391 net.cpp:148] Top shape: 10 16 14 14 (31360)
I0803 21:54:16.198540 24391 net.cpp:156] Memory required for data: 363901440
I0803 21:54:16.198550 24391 layer_factory.hpp:77] Creating layer inception_4a/relu_5x5_reduce
I0803 21:54:16.198568 24391 net.cpp:91] Creating Layer inception_4a/relu_5x5_reduce
I0803 21:54:16.198576 24391 net.cpp:425] inception_4a/relu_5x5_reduce <- inception_4a/5x5_reduce
I0803 21:54:16.198586 24391 net.cpp:386] inception_4a/relu_5x5_reduce -> inception_4a/5x5_reduce (in-place)
I0803 21:54:16.198976 24391 net.cpp:141] Setting up inception_4a/relu_5x5_reduce
I0803 21:54:16.198989 24391 net.cpp:148] Top shape: 10 16 14 14 (31360)
I0803 21:54:16.198995 24391 net.cpp:156] Memory required for data: 364026880
I0803 21:54:16.199002 24391 layer_factory.hpp:77] Creating layer inception_4a/5x5
I0803 21:54:16.199020 24391 net.cpp:91] Creating Layer inception_4a/5x5
I0803 21:54:16.199028 24391 net.cpp:425] inception_4a/5x5 <- inception_4a/5x5_reduce
I0803 21:54:16.199043 24391 net.cpp:399] inception_4a/5x5 -> inception_4a/5x5
I0803 21:54:16.199477 24395 net.cpp:141] Setting up inception_4a/3x3
I0803 21:54:16.199496 24395 net.cpp:148] Top shape: 10 208 14 14 (407680)
I0803 21:54:16.199502 24395 net.cpp:156] Memory required for data: 362145280
I0803 21:54:16.199519 24395 layer_factory.hpp:77] Creating layer inception_4a/relu_3x3
I0803 21:54:16.199530 24395 net.cpp:91] Creating Layer inception_4a/relu_3x3
I0803 21:54:16.199537 24395 net.cpp:425] inception_4a/relu_3x3 <- inception_4a/3x3
I0803 21:54:16.199550 24395 net.cpp:386] inception_4a/relu_3x3 -> inception_4a/3x3 (in-place)
I0803 21:54:16.200150 24395 net.cpp:141] Setting up inception_4a/relu_3x3
I0803 21:54:16.200168 24395 net.cpp:148] Top shape: 10 208 14 14 (407680)
I0803 21:54:16.200175 24395 net.cpp:156] Memory required for data: 363776000
I0803 21:54:16.200181 24395 layer_factory.hpp:77] Creating layer inception_4a/5x5_reduce
I0803 21:54:16.200199 24395 net.cpp:91] Creating Layer inception_4a/5x5_reduce
I0803 21:54:16.200207 24395 net.cpp:425] inception_4a/5x5_reduce <- pool3/3x3_s2_pool3/3x3_s2_0_split_2
I0803 21:54:16.200222 24395 net.cpp:399] inception_4a/5x5_reduce -> inception_4a/5x5_reduce
I0803 21:54:16.202899 24391 net.cpp:141] Setting up inception_4a/5x5
I0803 21:54:16.202919 24391 net.cpp:148] Top shape: 10 48 14 14 (94080)
I0803 21:54:16.202925 24391 net.cpp:156] Memory required for data: 364403200
I0803 21:54:16.202936 24391 layer_factory.hpp:77] Creating layer inception_4a/relu_5x5
I0803 21:54:16.202947 24391 net.cpp:91] Creating Layer inception_4a/relu_5x5
I0803 21:54:16.202955 24391 net.cpp:425] inception_4a/relu_5x5 <- inception_4a/5x5
I0803 21:54:16.202971 24391 net.cpp:386] inception_4a/relu_5x5 -> inception_4a/5x5 (in-place)
I0803 21:54:16.203357 24391 net.cpp:141] Setting up inception_4a/relu_5x5
I0803 21:54:16.203372 24391 net.cpp:148] Top shape: 10 48 14 14 (94080)
I0803 21:54:16.203377 24391 net.cpp:156] Memory required for data: 364779520
I0803 21:54:16.203383 24391 layer_factory.hpp:77] Creating layer inception_4a/pool
I0803 21:54:16.203397 24391 net.cpp:91] Creating Layer inception_4a/pool
I0803 21:54:16.203404 24391 net.cpp:425] inception_4a/pool <- pool3/3x3_s2_pool3/3x3_s2_0_split_3
I0803 21:54:16.203414 24391 net.cpp:399] inception_4a/pool -> inception_4a/pool
I0803 21:54:16.203577 24391 net.cpp:141] Setting up inception_4a/pool
I0803 21:54:16.203590 24391 net.cpp:148] Top shape: 10 480 14 14 (940800)
I0803 21:54:16.203596 24391 net.cpp:156] Memory required for data: 368542720
I0803 21:54:16.203603 24391 layer_factory.hpp:77] Creating layer inception_4a/pool_proj
I0803 21:54:16.203621 24391 net.cpp:91] Creating Layer inception_4a/pool_proj
I0803 21:54:16.203629 24391 net.cpp:425] inception_4a/pool_proj <- inception_4a/pool
I0803 21:54:16.203650 24391 net.cpp:399] inception_4a/pool_proj -> inception_4a/pool_proj
I0803 21:54:16.204372 24395 net.cpp:141] Setting up inception_4a/5x5_reduce
I0803 21:54:16.204391 24395 net.cpp:148] Top shape: 10 16 14 14 (31360)
I0803 21:54:16.204398 24395 net.cpp:156] Memory required for data: 363901440
I0803 21:54:16.204409 24395 layer_factory.hpp:77] Creating layer inception_4a/relu_5x5_reduce
I0803 21:54:16.204422 24395 net.cpp:91] Creating Layer inception_4a/relu_5x5_reduce
I0803 21:54:16.204430 24395 net.cpp:425] inception_4a/relu_5x5_reduce <- inception_4a/5x5_reduce
I0803 21:54:16.204439 24395 net.cpp:386] inception_4a/relu_5x5_reduce -> inception_4a/5x5_reduce (in-place)
I0803 21:54:16.204753 24395 net.cpp:141] Setting up inception_4a/relu_5x5_reduce
I0803 21:54:16.204767 24395 net.cpp:148] Top shape: 10 16 14 14 (31360)
I0803 21:54:16.204773 24395 net.cpp:156] Memory required for data: 364026880
I0803 21:54:16.204780 24395 layer_factory.hpp:77] Creating layer inception_4a/5x5
I0803 21:54:16.204802 24395 net.cpp:91] Creating Layer inception_4a/5x5
I0803 21:54:16.204809 24395 net.cpp:425] inception_4a/5x5 <- inception_4a/5x5_reduce
I0803 21:54:16.204820 24395 net.cpp:399] inception_4a/5x5 -> inception_4a/5x5
I0803 21:54:16.207223 24391 net.cpp:141] Setting up inception_4a/pool_proj
I0803 21:54:16.207243 24391 net.cpp:148] Top shape: 10 64 14 14 (125440)
I0803 21:54:16.207250 24391 net.cpp:156] Memory required for data: 369044480
I0803 21:54:16.207262 24391 layer_factory.hpp:77] Creating layer inception_4a/relu_pool_proj
I0803 21:54:16.207276 24391 net.cpp:91] Creating Layer inception_4a/relu_pool_proj
I0803 21:54:16.207284 24391 net.cpp:425] inception_4a/relu_pool_proj <- inception_4a/pool_proj
I0803 21:54:16.207294 24391 net.cpp:386] inception_4a/relu_pool_proj -> inception_4a/pool_proj (in-place)
I0803 21:54:16.207799 24391 net.cpp:141] Setting up inception_4a/relu_pool_proj
I0803 21:54:16.207816 24391 net.cpp:148] Top shape: 10 64 14 14 (125440)
I0803 21:54:16.207823 24391 net.cpp:156] Memory required for data: 369546240
I0803 21:54:16.207829 24391 layer_factory.hpp:77] Creating layer inception_4a/output
I0803 21:54:16.207844 24391 net.cpp:91] Creating Layer inception_4a/output
I0803 21:54:16.207851 24391 net.cpp:425] inception_4a/output <- inception_4a/1x1
I0803 21:54:16.207859 24391 net.cpp:425] inception_4a/output <- inception_4a/3x3
I0803 21:54:16.207866 24391 net.cpp:425] inception_4a/output <- inception_4a/5x5
I0803 21:54:16.207873 24391 net.cpp:425] inception_4a/output <- inception_4a/pool_proj
I0803 21:54:16.207881 24391 net.cpp:399] inception_4a/output -> inception_4a/output
I0803 21:54:16.207983 24391 net.cpp:141] Setting up inception_4a/output
I0803 21:54:16.207999 24391 net.cpp:148] Top shape: 10 512 14 14 (1003520)
I0803 21:54:16.208005 24391 net.cpp:156] Memory required for data: 373560320
I0803 21:54:16.208011 24391 layer_factory.hpp:77] Creating layer inception_4a/output_inception_4a/output_0_split
I0803 21:54:16.208021 24391 net.cpp:91] Creating Layer inception_4a/output_inception_4a/output_0_split
I0803 21:54:16.208029 24391 net.cpp:425] inception_4a/output_inception_4a/output_0_split <- inception_4a/output
I0803 21:54:16.208039 24391 net.cpp:399] inception_4a/output_inception_4a/output_0_split -> inception_4a/output_inception_4a/output_0_split_0
I0803 21:54:16.208051 24391 net.cpp:399] inception_4a/output_inception_4a/output_0_split -> inception_4a/output_inception_4a/output_0_split_1
I0803 21:54:16.208061 24391 net.cpp:399] inception_4a/output_inception_4a/output_0_split -> inception_4a/output_inception_4a/output_0_split_2
I0803 21:54:16.208072 24391 net.cpp:399] inception_4a/output_inception_4a/output_0_split -> inception_4a/output_inception_4a/output_0_split_3
I0803 21:54:16.208454 24391 net.cpp:141] Setting up inception_4a/output_inception_4a/output_0_split
I0803 21:54:16.208469 24391 net.cpp:148] Top shape: 10 512 14 14 (1003520)
I0803 21:54:16.208478 24391 net.cpp:148] Top shape: 10 512 14 14 (1003520)
I0803 21:54:16.208487 24391 net.cpp:148] Top shape: 10 512 14 14 (1003520)
I0803 21:54:16.208494 24391 net.cpp:148] Top shape: 10 512 14 14 (1003520)
I0803 21:54:16.208499 24391 net.cpp:156] Memory required for data: 389616640
I0803 21:54:16.208508 24391 layer_factory.hpp:77] Creating layer inception_4b/1x1
I0803 21:54:16.208537 24391 net.cpp:91] Creating Layer inception_4b/1x1
I0803 21:54:16.208546 24391 net.cpp:425] inception_4b/1x1 <- inception_4a/output_inception_4a/output_0_split_0
I0803 21:54:16.208560 24391 net.cpp:399] inception_4b/1x1 -> inception_4b/1x1
I0803 21:54:16.208580 24395 net.cpp:141] Setting up inception_4a/5x5
I0803 21:54:16.208595 24395 net.cpp:148] Top shape: 10 48 14 14 (94080)
I0803 21:54:16.208601 24395 net.cpp:156] Memory required for data: 364403200
I0803 21:54:16.208612 24395 layer_factory.hpp:77] Creating layer inception_4a/relu_5x5
I0803 21:54:16.208622 24395 net.cpp:91] Creating Layer inception_4a/relu_5x5
I0803 21:54:16.208629 24395 net.cpp:425] inception_4a/relu_5x5 <- inception_4a/5x5
I0803 21:54:16.208642 24395 net.cpp:386] inception_4a/relu_5x5 -> inception_4a/5x5 (in-place)
I0803 21:54:16.209075 24395 net.cpp:141] Setting up inception_4a/relu_5x5
I0803 21:54:16.209089 24395 net.cpp:148] Top shape: 10 48 14 14 (94080)
I0803 21:54:16.209095 24395 net.cpp:156] Memory required for data: 364779520
I0803 21:54:16.209101 24395 layer_factory.hpp:77] Creating layer inception_4a/pool
I0803 21:54:16.209116 24395 net.cpp:91] Creating Layer inception_4a/pool
I0803 21:54:16.209123 24395 net.cpp:425] inception_4a/pool <- pool3/3x3_s2_pool3/3x3_s2_0_split_3
I0803 21:54:16.209133 24395 net.cpp:399] inception_4a/pool -> inception_4a/pool
I0803 21:54:16.209345 24395 net.cpp:141] Setting up inception_4a/pool
I0803 21:54:16.209359 24395 net.cpp:148] Top shape: 10 480 14 14 (940800)
I0803 21:54:16.209365 24395 net.cpp:156] Memory required for data: 368542720
I0803 21:54:16.209372 24395 layer_factory.hpp:77] Creating layer inception_4a/pool_proj
I0803 21:54:16.209389 24395 net.cpp:91] Creating Layer inception_4a/pool_proj
I0803 21:54:16.209396 24395 net.cpp:425] inception_4a/pool_proj <- inception_4a/pool
I0803 21:54:16.209411 24395 net.cpp:399] inception_4a/pool_proj -> inception_4a/pool_proj
I0803 21:54:16.212224 24391 net.cpp:141] Setting up inception_4b/1x1
I0803 21:54:16.212242 24391 net.cpp:148] Top shape: 10 160 14 14 (313600)
I0803 21:54:16.212249 24391 net.cpp:156] Memory required for data: 390871040
I0803 21:54:16.212260 24391 layer_factory.hpp:77] Creating layer inception_4b/relu_1x1
I0803 21:54:16.212275 24391 net.cpp:91] Creating Layer inception_4b/relu_1x1
I0803 21:54:16.212282 24391 net.cpp:425] inception_4b/relu_1x1 <- inception_4b/1x1
I0803 21:54:16.212291 24391 net.cpp:386] inception_4b/relu_1x1 -> inception_4b/1x1 (in-place)
I0803 21:54:16.212340 24395 net.cpp:141] Setting up inception_4a/pool_proj
I0803 21:54:16.212359 24395 net.cpp:148] Top shape: 10 64 14 14 (125440)
I0803 21:54:16.212366 24395 net.cpp:156] Memory required for data: 369044480
I0803 21:54:16.212376 24395 layer_factory.hpp:77] Creating layer inception_4a/relu_pool_proj
I0803 21:54:16.212388 24395 net.cpp:91] Creating Layer inception_4a/relu_pool_proj
I0803 21:54:16.212394 24395 net.cpp:425] inception_4a/relu_pool_proj <- inception_4a/pool_proj
I0803 21:54:16.212404 24395 net.cpp:386] inception_4a/relu_pool_proj -> inception_4a/pool_proj (in-place)
I0803 21:54:16.212630 24391 net.cpp:141] Setting up inception_4b/relu_1x1
I0803 21:54:16.212644 24391 net.cpp:148] Top shape: 10 160 14 14 (313600)
I0803 21:54:16.212651 24391 net.cpp:156] Memory required for data: 392125440
I0803 21:54:16.212657 24391 layer_factory.hpp:77] Creating layer inception_4b/3x3_reduce
I0803 21:54:16.212677 24391 net.cpp:91] Creating Layer inception_4b/3x3_reduce
I0803 21:54:16.212685 24391 net.cpp:425] inception_4b/3x3_reduce <- inception_4a/output_inception_4a/output_0_split_1
I0803 21:54:16.212697 24391 net.cpp:399] inception_4b/3x3_reduce -> inception_4b/3x3_reduce
I0803 21:54:16.213081 24395 net.cpp:141] Setting up inception_4a/relu_pool_proj
I0803 21:54:16.213099 24395 net.cpp:148] Top shape: 10 64 14 14 (125440)
I0803 21:54:16.213105 24395 net.cpp:156] Memory required for data: 369546240
I0803 21:54:16.213112 24395 layer_factory.hpp:77] Creating layer inception_4a/output
I0803 21:54:16.213122 24395 net.cpp:91] Creating Layer inception_4a/output
I0803 21:54:16.213129 24395 net.cpp:425] inception_4a/output <- inception_4a/1x1
I0803 21:54:16.213138 24395 net.cpp:425] inception_4a/output <- inception_4a/3x3
I0803 21:54:16.213146 24395 net.cpp:425] inception_4a/output <- inception_4a/5x5
I0803 21:54:16.213152 24395 net.cpp:425] inception_4a/output <- inception_4a/pool_proj
I0803 21:54:16.213160 24395 net.cpp:399] inception_4a/output -> inception_4a/output
I0803 21:54:16.213285 24395 net.cpp:141] Setting up inception_4a/output
I0803 21:54:16.213299 24395 net.cpp:148] Top shape: 10 512 14 14 (1003520)
I0803 21:54:16.213305 24395 net.cpp:156] Memory required for data: 373560320
I0803 21:54:16.213311 24395 layer_factory.hpp:77] Creating layer inception_4a/output_inception_4a/output_0_split
I0803 21:54:16.213321 24395 net.cpp:91] Creating Layer inception_4a/output_inception_4a/output_0_split
I0803 21:54:16.213328 24395 net.cpp:425] inception_4a/output_inception_4a/output_0_split <- inception_4a/output
I0803 21:54:16.213337 24395 net.cpp:399] inception_4a/output_inception_4a/output_0_split -> inception_4a/output_inception_4a/output_0_split_0
I0803 21:54:16.213352 24395 net.cpp:399] inception_4a/output_inception_4a/output_0_split -> inception_4a/output_inception_4a/output_0_split_1
I0803 21:54:16.213364 24395 net.cpp:399] inception_4a/output_inception_4a/output_0_split -> inception_4a/output_inception_4a/output_0_split_2
I0803 21:54:16.213374 24395 net.cpp:399] inception_4a/output_inception_4a/output_0_split -> inception_4a/output_inception_4a/output_0_split_3
I0803 21:54:16.213553 24395 net.cpp:141] Setting up inception_4a/output_inception_4a/output_0_split
I0803 21:54:16.213565 24395 net.cpp:148] Top shape: 10 512 14 14 (1003520)
I0803 21:54:16.213573 24395 net.cpp:148] Top shape: 10 512 14 14 (1003520)
I0803 21:54:16.213580 24395 net.cpp:148] Top shape: 10 512 14 14 (1003520)
I0803 21:54:16.213587 24395 net.cpp:148] Top shape: 10 512 14 14 (1003520)
I0803 21:54:16.213593 24395 net.cpp:156] Memory required for data: 389616640
I0803 21:54:16.213598 24395 layer_factory.hpp:77] Creating layer inception_4b/1x1
I0803 21:54:16.213616 24395 net.cpp:91] Creating Layer inception_4b/1x1
I0803 21:54:16.213624 24395 net.cpp:425] inception_4b/1x1 <- inception_4a/output_inception_4a/output_0_split_0
I0803 21:54:16.213637 24395 net.cpp:399] inception_4b/1x1 -> inception_4b/1x1
I0803 21:54:16.216411 24391 net.cpp:141] Setting up inception_4b/3x3_reduce
I0803 21:54:16.216430 24391 net.cpp:148] Top shape: 10 112 14 14 (219520)
I0803 21:54:16.216437 24391 net.cpp:156] Memory required for data: 393003520
I0803 21:54:16.216447 24391 layer_factory.hpp:77] Creating layer inception_4b/relu_3x3_reduce
I0803 21:54:16.216461 24391 net.cpp:91] Creating Layer inception_4b/relu_3x3_reduce
I0803 21:54:16.216470 24391 net.cpp:425] inception_4b/relu_3x3_reduce <- inception_4b/3x3_reduce
I0803 21:54:16.216478 24391 net.cpp:386] inception_4b/relu_3x3_reduce -> inception_4b/3x3_reduce (in-place)
I0803 21:54:16.216856 24391 net.cpp:141] Setting up inception_4b/relu_3x3_reduce
I0803 21:54:16.216869 24391 net.cpp:148] Top shape: 10 112 14 14 (219520)
I0803 21:54:16.216876 24391 net.cpp:156] Memory required for data: 393881600
I0803 21:54:16.216881 24391 layer_factory.hpp:77] Creating layer inception_4b/3x3
I0803 21:54:16.216904 24391 net.cpp:91] Creating Layer inception_4b/3x3
I0803 21:54:16.216912 24391 net.cpp:425] inception_4b/3x3 <- inception_4b/3x3_reduce
I0803 21:54:16.216923 24391 net.cpp:399] inception_4b/3x3 -> inception_4b/3x3
I0803 21:54:16.219013 24395 net.cpp:141] Setting up inception_4b/1x1
I0803 21:54:16.219039 24395 net.cpp:148] Top shape: 10 160 14 14 (313600)
I0803 21:54:16.219048 24395 net.cpp:156] Memory required for data: 390871040
I0803 21:54:16.219059 24395 layer_factory.hpp:77] Creating layer inception_4b/relu_1x1
I0803 21:54:16.219072 24395 net.cpp:91] Creating Layer inception_4b/relu_1x1
I0803 21:54:16.219079 24395 net.cpp:425] inception_4b/relu_1x1 <- inception_4b/1x1
I0803 21:54:16.219091 24395 net.cpp:386] inception_4b/relu_1x1 -> inception_4b/1x1 (in-place)
I0803 21:54:16.219383 24395 net.cpp:141] Setting up inception_4b/relu_1x1
I0803 21:54:16.219401 24395 net.cpp:148] Top shape: 10 160 14 14 (313600)
I0803 21:54:16.219408 24395 net.cpp:156] Memory required for data: 392125440
I0803 21:54:16.219414 24395 layer_factory.hpp:77] Creating layer inception_4b/3x3_reduce
I0803 21:54:16.219432 24395 net.cpp:91] Creating Layer inception_4b/3x3_reduce
I0803 21:54:16.219440 24395 net.cpp:425] inception_4b/3x3_reduce <- inception_4a/output_inception_4a/output_0_split_1
I0803 21:54:16.219451 24395 net.cpp:399] inception_4b/3x3_reduce -> inception_4b/3x3_reduce
I0803 21:54:16.222831 24395 net.cpp:141] Setting up inception_4b/3x3_reduce
I0803 21:54:16.222851 24395 net.cpp:148] Top shape: 10 112 14 14 (219520)
I0803 21:54:16.222858 24395 net.cpp:156] Memory required for data: 393003520
I0803 21:54:16.222869 24395 layer_factory.hpp:77] Creating layer inception_4b/relu_3x3_reduce
I0803 21:54:16.222885 24395 net.cpp:91] Creating Layer inception_4b/relu_3x3_reduce
I0803 21:54:16.222893 24395 net.cpp:425] inception_4b/relu_3x3_reduce <- inception_4b/3x3_reduce
I0803 21:54:16.222903 24395 net.cpp:386] inception_4b/relu_3x3_reduce -> inception_4b/3x3_reduce (in-place)
I0803 21:54:16.223317 24395 net.cpp:141] Setting up inception_4b/relu_3x3_reduce
I0803 21:54:16.223333 24395 net.cpp:148] Top shape: 10 112 14 14 (219520)
I0803 21:54:16.223340 24395 net.cpp:156] Memory required for data: 393881600
I0803 21:54:16.223346 24395 layer_factory.hpp:77] Creating layer inception_4b/3x3
I0803 21:54:16.223369 24395 net.cpp:91] Creating Layer inception_4b/3x3
I0803 21:54:16.223377 24395 net.cpp:425] inception_4b/3x3 <- inception_4b/3x3_reduce
I0803 21:54:16.223388 24395 net.cpp:399] inception_4b/3x3 -> inception_4b/3x3
I0803 21:54:16.223537 24391 net.cpp:141] Setting up inception_4b/3x3
I0803 21:54:16.223554 24391 net.cpp:148] Top shape: 10 224 14 14 (439040)
I0803 21:54:16.223561 24391 net.cpp:156] Memory required for data: 395637760
I0803 21:54:16.223572 24391 layer_factory.hpp:77] Creating layer inception_4b/relu_3x3
I0803 21:54:16.223582 24391 net.cpp:91] Creating Layer inception_4b/relu_3x3
I0803 21:54:16.223590 24391 net.cpp:425] inception_4b/relu_3x3 <- inception_4b/3x3
I0803 21:54:16.223604 24391 net.cpp:386] inception_4b/relu_3x3 -> inception_4b/3x3 (in-place)
I0803 21:54:16.224203 24391 net.cpp:141] Setting up inception_4b/relu_3x3
I0803 21:54:16.224220 24391 net.cpp:148] Top shape: 10 224 14 14 (439040)
I0803 21:54:16.224226 24391 net.cpp:156] Memory required for data: 397393920
I0803 21:54:16.224233 24391 layer_factory.hpp:77] Creating layer inception_4b/5x5_reduce
I0803 21:54:16.224267 24391 net.cpp:91] Creating Layer inception_4b/5x5_reduce
I0803 21:54:16.224274 24391 net.cpp:425] inception_4b/5x5_reduce <- inception_4a/output_inception_4a/output_0_split_2
I0803 21:54:16.224287 24391 net.cpp:399] inception_4b/5x5_reduce -> inception_4b/5x5_reduce
I0803 21:54:16.228106 24391 net.cpp:141] Setting up inception_4b/5x5_reduce
I0803 21:54:16.228127 24391 net.cpp:148] Top shape: 10 24 14 14 (47040)
I0803 21:54:16.228133 24391 net.cpp:156] Memory required for data: 397582080
I0803 21:54:16.228144 24391 layer_factory.hpp:77] Creating layer inception_4b/relu_5x5_reduce
I0803 21:54:16.228155 24391 net.cpp:91] Creating Layer inception_4b/relu_5x5_reduce
I0803 21:54:16.228163 24391 net.cpp:425] inception_4b/relu_5x5_reduce <- inception_4b/5x5_reduce
I0803 21:54:16.228171 24391 net.cpp:386] inception_4b/relu_5x5_reduce -> inception_4b/5x5_reduce (in-place)
I0803 21:54:16.228539 24391 net.cpp:141] Setting up inception_4b/relu_5x5_reduce
I0803 21:54:16.228557 24391 net.cpp:148] Top shape: 10 24 14 14 (47040)
I0803 21:54:16.228564 24391 net.cpp:156] Memory required for data: 397770240
I0803 21:54:16.228571 24391 layer_factory.hpp:77] Creating layer inception_4b/5x5
I0803 21:54:16.228586 24391 net.cpp:91] Creating Layer inception_4b/5x5
I0803 21:54:16.228595 24391 net.cpp:425] inception_4b/5x5 <- inception_4b/5x5_reduce
I0803 21:54:16.228608 24391 net.cpp:399] inception_4b/5x5 -> inception_4b/5x5
I0803 21:54:16.230952 24395 net.cpp:141] Setting up inception_4b/3x3
I0803 21:54:16.230973 24395 net.cpp:148] Top shape: 10 224 14 14 (439040)
I0803 21:54:16.230980 24395 net.cpp:156] Memory required for data: 395637760
I0803 21:54:16.230991 24395 layer_factory.hpp:77] Creating layer inception_4b/relu_3x3
I0803 21:54:16.231003 24395 net.cpp:91] Creating Layer inception_4b/relu_3x3
I0803 21:54:16.231012 24395 net.cpp:425] inception_4b/relu_3x3 <- inception_4b/3x3
I0803 21:54:16.231022 24395 net.cpp:386] inception_4b/relu_3x3 -> inception_4b/3x3 (in-place)
I0803 21:54:16.231624 24395 net.cpp:141] Setting up inception_4b/relu_3x3
I0803 21:54:16.231642 24395 net.cpp:148] Top shape: 10 224 14 14 (439040)
I0803 21:54:16.231648 24395 net.cpp:156] Memory required for data: 397393920
I0803 21:54:16.231655 24395 layer_factory.hpp:77] Creating layer inception_4b/5x5_reduce
I0803 21:54:16.231685 24395 net.cpp:91] Creating Layer inception_4b/5x5_reduce
I0803 21:54:16.231693 24395 net.cpp:425] inception_4b/5x5_reduce <- inception_4a/output_inception_4a/output_0_split_2
I0803 21:54:16.231708 24395 net.cpp:399] inception_4b/5x5_reduce -> inception_4b/5x5_reduce
I0803 21:54:16.234203 24391 net.cpp:141] Setting up inception_4b/5x5
I0803 21:54:16.234226 24391 net.cpp:148] Top shape: 10 64 14 14 (125440)
I0803 21:54:16.234233 24391 net.cpp:156] Memory required for data: 398272000
I0803 21:54:16.234244 24391 layer_factory.hpp:77] Creating layer inception_4b/relu_5x5
I0803 21:54:16.234256 24391 net.cpp:91] Creating Layer inception_4b/relu_5x5
I0803 21:54:16.234263 24391 net.cpp:425] inception_4b/relu_5x5 <- inception_4b/5x5
I0803 21:54:16.234272 24391 net.cpp:386] inception_4b/relu_5x5 -> inception_4b/5x5 (in-place)
I0803 21:54:16.234647 24391 net.cpp:141] Setting up inception_4b/relu_5x5
I0803 21:54:16.234661 24391 net.cpp:148] Top shape: 10 64 14 14 (125440)
I0803 21:54:16.234668 24391 net.cpp:156] Memory required for data: 398773760
I0803 21:54:16.234674 24391 layer_factory.hpp:77] Creating layer inception_4b/pool
I0803 21:54:16.234685 24391 net.cpp:91] Creating Layer inception_4b/pool
I0803 21:54:16.234693 24391 net.cpp:425] inception_4b/pool <- inception_4a/output_inception_4a/output_0_split_3
I0803 21:54:16.234705 24391 net.cpp:399] inception_4b/pool -> inception_4b/pool
I0803 21:54:16.234897 24391 net.cpp:141] Setting up inception_4b/pool
I0803 21:54:16.234910 24391 net.cpp:148] Top shape: 10 512 14 14 (1003520)
I0803 21:54:16.234916 24391 net.cpp:156] Memory required for data: 402787840
I0803 21:54:16.234922 24391 layer_factory.hpp:77] Creating layer inception_4b/pool_proj
I0803 21:54:16.234943 24391 net.cpp:91] Creating Layer inception_4b/pool_proj
I0803 21:54:16.234951 24391 net.cpp:425] inception_4b/pool_proj <- inception_4b/pool
I0803 21:54:16.234961 24391 net.cpp:399] inception_4b/pool_proj -> inception_4b/pool_proj
I0803 21:54:16.235530 24395 net.cpp:141] Setting up inception_4b/5x5_reduce
I0803 21:54:16.235550 24395 net.cpp:148] Top shape: 10 24 14 14 (47040)
I0803 21:54:16.235556 24395 net.cpp:156] Memory required for data: 397582080
I0803 21:54:16.235569 24395 layer_factory.hpp:77] Creating layer inception_4b/relu_5x5_reduce
I0803 21:54:16.235584 24395 net.cpp:91] Creating Layer inception_4b/relu_5x5_reduce
I0803 21:54:16.235590 24395 net.cpp:425] inception_4b/relu_5x5_reduce <- inception_4b/5x5_reduce
I0803 21:54:16.235600 24395 net.cpp:386] inception_4b/relu_5x5_reduce -> inception_4b/5x5_reduce (in-place)
I0803 21:54:16.235961 24395 net.cpp:141] Setting up inception_4b/relu_5x5_reduce
I0803 21:54:16.235977 24395 net.cpp:148] Top shape: 10 24 14 14 (47040)
I0803 21:54:16.235985 24395 net.cpp:156] Memory required for data: 397770240
I0803 21:54:16.235991 24395 layer_factory.hpp:77] Creating layer inception_4b/5x5
I0803 21:54:16.236009 24395 net.cpp:91] Creating Layer inception_4b/5x5
I0803 21:54:16.236017 24395 net.cpp:425] inception_4b/5x5 <- inception_4b/5x5_reduce
I0803 21:54:16.236030 24395 net.cpp:399] inception_4b/5x5 -> inception_4b/5x5
I0803 21:54:16.239518 24391 net.cpp:141] Setting up inception_4b/pool_proj
I0803 21:54:16.239538 24391 net.cpp:148] Top shape: 10 64 14 14 (125440)
I0803 21:54:16.239544 24391 net.cpp:156] Memory required for data: 403289600
I0803 21:54:16.239555 24391 layer_factory.hpp:77] Creating layer inception_4b/relu_pool_proj
I0803 21:54:16.239567 24391 net.cpp:91] Creating Layer inception_4b/relu_pool_proj
I0803 21:54:16.239574 24391 net.cpp:425] inception_4b/relu_pool_proj <- inception_4b/pool_proj
I0803 21:54:16.239584 24391 net.cpp:386] inception_4b/relu_pool_proj -> inception_4b/pool_proj (in-place)
I0803 21:54:16.240118 24391 net.cpp:141] Setting up inception_4b/relu_pool_proj
I0803 21:54:16.240134 24391 net.cpp:148] Top shape: 10 64 14 14 (125440)
I0803 21:54:16.240141 24391 net.cpp:156] Memory required for data: 403791360
I0803 21:54:16.240147 24391 layer_factory.hpp:77] Creating layer inception_4b/output
I0803 21:54:16.240159 24391 net.cpp:91] Creating Layer inception_4b/output
I0803 21:54:16.240165 24391 net.cpp:425] inception_4b/output <- inception_4b/1x1
I0803 21:54:16.240173 24391 net.cpp:425] inception_4b/output <- inception_4b/3x3
I0803 21:54:16.240180 24391 net.cpp:425] inception_4b/output <- inception_4b/5x5
I0803 21:54:16.240187 24391 net.cpp:425] inception_4b/output <- inception_4b/pool_proj
I0803 21:54:16.240196 24391 net.cpp:399] inception_4b/output -> inception_4b/output
I0803 21:54:16.240317 24391 net.cpp:141] Setting up inception_4b/output
I0803 21:54:16.240331 24391 net.cpp:148] Top shape: 10 512 14 14 (1003520)
I0803 21:54:16.240337 24391 net.cpp:156] Memory required for data: 407805440
I0803 21:54:16.240344 24391 layer_factory.hpp:77] Creating layer inception_4b/output_inception_4b/output_0_split
I0803 21:54:16.240355 24391 net.cpp:91] Creating Layer inception_4b/output_inception_4b/output_0_split
I0803 21:54:16.240361 24391 net.cpp:425] inception_4b/output_inception_4b/output_0_split <- inception_4b/output
I0803 21:54:16.240373 24391 net.cpp:399] inception_4b/output_inception_4b/output_0_split -> inception_4b/output_inception_4b/output_0_split_0
I0803 21:54:16.240386 24391 net.cpp:399] inception_4b/output_inception_4b/output_0_split -> inception_4b/output_inception_4b/output_0_split_1
I0803 21:54:16.240396 24391 net.cpp:399] inception_4b/output_inception_4b/output_0_split -> inception_4b/output_inception_4b/output_0_split_2
I0803 21:54:16.240406 24391 net.cpp:399] inception_4b/output_inception_4b/output_0_split -> inception_4b/output_inception_4b/output_0_split_3
I0803 21:54:16.240849 24395 net.cpp:141] Setting up inception_4b/5x5
I0803 21:54:16.240859 24391 net.cpp:141] Setting up inception_4b/output_inception_4b/output_0_split
I0803 21:54:16.240866 24395 net.cpp:148] Top shape: 10 64 14 14 (125440)
I0803 21:54:16.240872 24391 net.cpp:148] Top shape: 10 512 14 14 (1003520)
I0803 21:54:16.240874 24395 net.cpp:156] Memory required for data: 398272000
I0803 21:54:16.240880 24391 net.cpp:148] Top shape: 10 512 14 14 (1003520)
I0803 21:54:16.240885 24395 layer_factory.hpp:77] Creating layer inception_4b/relu_5x5
I0803 21:54:16.240888 24391 net.cpp:148] Top shape: 10 512 14 14 (1003520)
I0803 21:54:16.240895 24391 net.cpp:148] Top shape: 10 512 14 14 (1003520)
I0803 21:54:16.240901 24391 net.cpp:156] Memory required for data: 423861760
I0803 21:54:16.240901 24395 net.cpp:91] Creating Layer inception_4b/relu_5x5
I0803 21:54:16.240907 24391 layer_factory.hpp:77] Creating layer inception_4c/1x1
I0803 21:54:16.240911 24395 net.cpp:425] inception_4b/relu_5x5 <- inception_4b/5x5
I0803 21:54:16.240921 24395 net.cpp:386] inception_4b/relu_5x5 -> inception_4b/5x5 (in-place)
I0803 21:54:16.240924 24391 net.cpp:91] Creating Layer inception_4c/1x1
I0803 21:54:16.240932 24391 net.cpp:425] inception_4c/1x1 <- inception_4b/output_inception_4b/output_0_split_0
I0803 21:54:16.240953 24391 net.cpp:399] inception_4c/1x1 -> inception_4c/1x1
I0803 21:54:16.241426 24395 net.cpp:141] Setting up inception_4b/relu_5x5
I0803 21:54:16.241446 24395 net.cpp:148] Top shape: 10 64 14 14 (125440)
I0803 21:54:16.241456 24395 net.cpp:156] Memory required for data: 398773760
I0803 21:54:16.241467 24395 layer_factory.hpp:77] Creating layer inception_4b/pool
I0803 21:54:16.241482 24395 net.cpp:91] Creating Layer inception_4b/pool
I0803 21:54:16.241488 24395 net.cpp:425] inception_4b/pool <- inception_4a/output_inception_4a/output_0_split_3
I0803 21:54:16.241503 24395 net.cpp:399] inception_4b/pool -> inception_4b/pool
I0803 21:54:16.241725 24395 net.cpp:141] Setting up inception_4b/pool
I0803 21:54:16.241739 24395 net.cpp:148] Top shape: 10 512 14 14 (1003520)
I0803 21:54:16.241745 24395 net.cpp:156] Memory required for data: 402787840
I0803 21:54:16.241751 24395 layer_factory.hpp:77] Creating layer inception_4b/pool_proj
I0803 21:54:16.241770 24395 net.cpp:91] Creating Layer inception_4b/pool_proj
I0803 21:54:16.241777 24395 net.cpp:425] inception_4b/pool_proj <- inception_4b/pool
I0803 21:54:16.241787 24395 net.cpp:399] inception_4b/pool_proj -> inception_4b/pool_proj
I0803 21:54:16.244500 24391 net.cpp:141] Setting up inception_4c/1x1
I0803 21:54:16.244519 24391 net.cpp:148] Top shape: 10 128 14 14 (250880)
I0803 21:54:16.244525 24391 net.cpp:156] Memory required for data: 424865280
I0803 21:54:16.244537 24391 layer_factory.hpp:77] Creating layer inception_4c/relu_1x1
I0803 21:54:16.244551 24391 net.cpp:91] Creating Layer inception_4c/relu_1x1
I0803 21:54:16.244559 24391 net.cpp:425] inception_4c/relu_1x1 <- inception_4c/1x1
I0803 21:54:16.244567 24391 net.cpp:386] inception_4c/relu_1x1 -> inception_4c/1x1 (in-place)
I0803 21:54:16.244901 24395 net.cpp:141] Setting up inception_4b/pool_proj
I0803 21:54:16.244918 24395 net.cpp:148] Top shape: 10 64 14 14 (125440)
I0803 21:54:16.244925 24395 net.cpp:156] Memory required for data: 403289600
I0803 21:54:16.244935 24395 layer_factory.hpp:77] Creating layer inception_4b/relu_pool_proj
I0803 21:54:16.244945 24391 net.cpp:141] Setting up inception_4c/relu_1x1
…
I0803 21:54:16.339576 24391 net.cpp:425] inception_4e/pool <- inception_4d/output_inception_4d/output_0_split_3
I0803 21:54:16.339584 24391 net.cpp:399] inception_4e/pool -> inception_4e/pool
I0803 21:54:16.339836 24391 net.cpp:141] Setting up inception_4e/pool
I0803 21:54:16.339849 24391 net.cpp:148] Top shape: 10 528 14 14 (1034880)
I0803 21:54:16.339855 24391 net.cpp:156] Memory required for data: 512296960
I0803 21:54:16.339861 24391 layer_factory.hpp:77] Creating layer inception_4e/pool_proj
I0803 21:54:16.339885 24391 net.cpp:91] Creating Layer inception_4e/pool_proj
I0803 21:54:16.339893 24391 net.cpp:425] inception_4e/pool_proj <- inception_4e/pool
I0803 21:54:16.339907 24391 net.cpp:399] inception_4e/pool_proj -> inception_4e/pool_proj
I0803 21:54:16.344110 24395 net.cpp:141] Setting up inception_4e/5x5
I0803 21:54:16.344128 24395 net.cpp:148] Top shape: 10 128 14 14 (250880)
I0803 21:54:16.344135 24395 net.cpp:156] Memory required for data: 507153920
I0803 21:54:16.344146 24395 layer_factory.hpp:77] Creating layer inception_4e/relu_5x5
I0803 21:54:16.344157 24395 net.cpp:91] Creating Layer inception_4e/relu_5x5
I0803 21:54:16.344166 24395 net.cpp:425] inception_4e/relu_5x5 <- inception_4e/5x5
I0803 21:54:16.344182 24395 net.cpp:386] inception_4e/relu_5x5 -> inception_4e/5x5 (in-place)
I0803 21:54:16.344667 24395 net.cpp:141] Setting up inception_4e/relu_5x5
I0803 21:54:16.344683 24395 net.cpp:148] Top shape: 10 128 14 14 (250880)
I0803 21:54:16.344689 24395 net.cpp:156] Memory required for data: 508157440
I0803 21:54:16.344696 24395 layer_factory.hpp:77] Creating layer inception_4e/pool
I0803 21:54:16.344709 24395 net.cpp:91] Creating Layer inception_4e/pool
I0803 21:54:16.344717 24395 net.cpp:425] inception_4e/pool <- inception_4d/output_inception_4d/output_0_split_3
I0803 21:54:16.344727 24395 net.cpp:399] inception_4e/pool -> inception_4e/pool
I0803 21:54:16.344751 24391 net.cpp:141] Setting up inception_4e/pool_proj
I0803 21:54:16.344768 24391 net.cpp:148] Top shape: 10 128 14 14 (250880)
I0803 21:54:16.344774 24391 net.cpp:156] Memory required for data: 513300480
I0803 21:54:16.344784 24391 layer_factory.hpp:77] Creating layer inception_4e/relu_pool_proj
I0803 21:54:16.344795 24391 net.cpp:91] Creating Layer inception_4e/relu_pool_proj
I0803 21:54:16.344806 24391 net.cpp:425] inception_4e/relu_pool_proj <- inception_4e/pool_proj
I0803 21:54:16.344815 24391 net.cpp:386] inception_4e/relu_pool_proj -> inception_4e/pool_proj (in-place)
I0803 21:54:16.345183 24395 net.cpp:141] Setting up inception_4e/pool
I0803 21:54:16.345197 24395 net.cpp:148] Top shape: 10 528 14 14 (1034880)
I0803 21:54:16.345202 24395 net.cpp:156] Memory required for data: 512296960
I0803 21:54:16.345208 24395 layer_factory.hpp:77] Creating layer inception_4e/pool_proj
I0803 21:54:16.345226 24395 net.cpp:91] Creating Layer inception_4e/pool_proj
I0803 21:54:16.345233 24395 net.cpp:425] inception_4e/pool_proj <- inception_4e/pool
I0803 21:54:16.345263 24395 net.cpp:399] inception_4e/pool_proj -> inception_4e/pool_proj
I0803 21:54:16.345413 24391 net.cpp:141] Setting up inception_4e/relu_pool_proj
I0803 21:54:16.345427 24391 net.cpp:148] Top shape: 10 128 14 14 (250880)
I0803 21:54:16.345434 24391 net.cpp:156] Memory required for data: 514304000
I0803 21:54:16.345440 24391 layer_factory.hpp:77] Creating layer inception_4e/output
I0803 21:54:16.345451 24391 net.cpp:91] Creating Layer inception_4e/output
I0803 21:54:16.345458 24391 net.cpp:425] inception_4e/output <- inception_4e/1x1
I0803 21:54:16.345466 24391 net.cpp:425] inception_4e/output <- inception_4e/3x3
I0803 21:54:16.345476 24391 net.cpp:425] inception_4e/output <- inception_4e/5x5
I0803 21:54:16.345484 24391 net.cpp:425] inception_4e/output <- inception_4e/pool_proj
I0803 21:54:16.345492 24391 net.cpp:399] inception_4e/output -> inception_4e/output
I0803 21:54:16.345661 24391 net.cpp:141] Setting up inception_4e/output
I0803 21:54:16.345674 24391 net.cpp:148] Top shape: 10 832 14 14 (1630720)
I0803 21:54:16.345680 24391 net.cpp:156] Memory required for data: 520826880
I0803 21:54:16.345687 24391 layer_factory.hpp:77] Creating layer pool4/3x3_s2
I0803 21:54:16.345700 24391 net.cpp:91] Creating Layer pool4/3x3_s2
I0803 21:54:16.345707 24391 net.cpp:425] pool4/3x3_s2 <- inception_4e/output
I0803 21:54:16.345716 24391 net.cpp:399] pool4/3x3_s2 -> pool4/3x3_s2
I0803 21:54:16.345960 24391 net.cpp:141] Setting up pool4/3x3_s2
I0803 21:54:16.345973 24391 net.cpp:148] Top shape: 10 832 7 7 (407680)
I0803 21:54:16.345979 24391 net.cpp:156] Memory required for data: 522457600
I0803 21:54:16.345985 24391 layer_factory.hpp:77] Creating layer pool4/3x3_s2_pool4/3x3_s2_0_split
I0803 21:54:16.345998 24391 net.cpp:91] Creating Layer pool4/3x3_s2_pool4/3x3_s2_0_split
I0803 21:54:16.346007 24391 net.cpp:425] pool4/3x3_s2_pool4/3x3_s2_0_split <- pool4/3x3_s2
I0803 21:54:16.346015 24391 net.cpp:399] pool4/3x3_s2_pool4/3x3_s2_0_split -> pool4/3x3_s2_pool4/3x3_s2_0_split_0
I0803 21:54:16.346026 24391 net.cpp:399] pool4/3x3_s2_pool4/3x3_s2_0_split -> pool4/3x3_s2_pool4/3x3_s2_0_split_1
I0803 21:54:16.346037 24391 net.cpp:399] pool4/3x3_s2_pool4/3x3_s2_0_split -> pool4/3x3_s2_pool4/3x3_s2_0_split_2
I0803 21:54:16.346046 24391 net.cpp:399] pool4/3x3_s2_pool4/3x3_s2_0_split -> pool4/3x3_s2_pool4/3x3_s2_0_split_3
I0803 21:54:16.346278 24391 net.cpp:141] Setting up pool4/3x3_s2_pool4/3x3_s2_0_split
I0803 21:54:16.346292 24391 net.cpp:148] Top shape: 10 832 7 7 (407680)
I0803 21:54:16.346298 24391 net.cpp:148] Top shape: 10 832 7 7 (407680)
I0803 21:54:16.346305 24391 net.cpp:148] Top shape: 10 832 7 7 (407680)
I0803 21:54:16.346312 24391 net.cpp:148] Top shape: 10 832 7 7 (407680)
I0803 21:54:16.346318 24391 net.cpp:156] Memory required for data: 528980480
I0803 21:54:16.346324 24391 layer_factory.hpp:77] Creating layer inception_5a/1x1
I0803 21:54:16.346343 24391 net.cpp:91] Creating Layer inception_5a/1x1
I0803 21:54:16.346350 24391 net.cpp:425] inception_5a/1x1 <- pool4/3x3_s2_pool4/3x3_s2_0_split_0
I0803 21:54:16.346361 24391 net.cpp:399] inception_5a/1x1 -> inception_5a/1x1
I0803 21:54:16.349490 24395 net.cpp:141] Setting up inception_4e/pool_proj
I0803 21:54:16.349511 24395 net.cpp:148] Top shape: 10 128 14 14 (250880)
I0803 21:54:16.349517 24395 net.cpp:156] Memory required for data: 513300480
I0803 21:54:16.349529 24395 layer_factory.hpp:77] Creating layer inception_4e/relu_pool_proj
I0803 21:54:16.349539 24395 net.cpp:91] Creating Layer inception_4e/relu_pool_proj
I0803 21:54:16.349547 24395 net.cpp:425] inception_4e/relu_pool_proj <- inception_4e/pool_proj
I0803 21:54:16.349560 24395 net.cpp:386] inception_4e/relu_pool_proj -> inception_4e/pool_proj (in-place)
I0803 21:54:16.350082 24395 net.cpp:141] Setting up inception_4e/relu_pool_proj
I0803 21:54:16.350097 24395 net.cpp:148] Top shape: 10 128 14 14 (250880)
I0803 21:54:16.350103 24395 net.cpp:156] Memory required for data: 514304000
I0803 21:54:16.350111 24395 layer_factory.hpp:77] Creating layer inception_4e/output
I0803 21:54:16.350121 24395 net.cpp:91] Creating Layer inception_4e/output
I0803 21:54:16.350127 24395 net.cpp:425] inception_4e/output <- inception_4e/1x1
I0803 21:54:16.350136 24395 net.cpp:425] inception_4e/output <- inception_4e/3x3
I0803 21:54:16.350142 24395 net.cpp:425] inception_4e/output <- inception_4e/5x5
I0803 21:54:16.350149 24395 net.cpp:425] inception_4e/output <- inception_4e/pool_proj
I0803 21:54:16.350162 24395 net.cpp:399] inception_4e/output -> inception_4e/output
I0803 21:54:16.350247 24395 net.cpp:141] Setting up inception_4e/output
I0803 21:54:16.350260 24395 net.cpp:148] Top shape: 10 832 14 14 (1630720)
I0803 21:54:16.350265 24395 net.cpp:156] Memory required for data: 520826880
I0803 21:54:16.350272 24395 layer_factory.hpp:77] Creating layer pool4/3x3_s2
I0803 21:54:16.350281 24395 net.cpp:91] Creating Layer pool4/3x3_s2
I0803 21:54:16.350288 24395 net.cpp:425] pool4/3x3_s2 <- inception_4e/output
I0803 21:54:16.350302 24395 net.cpp:399] pool4/3x3_s2 -> pool4/3x3_s2
I0803 21:54:16.350440 24395 net.cpp:141] Setting up pool4/3x3_s2
I0803 21:54:16.350452 24395 net.cpp:148] Top shape: 10 832 7 7 (407680)
I0803 21:54:16.350457 24395 net.cpp:156] Memory required for data: 522457600
I0803 21:54:16.350463 24395 layer_factory.hpp:77] Creating layer pool4/3x3_s2_pool4/3x3_s2_0_split
I0803 21:54:16.350473 24395 net.cpp:91] Creating Layer pool4/3x3_s2_pool4/3x3_s2_0_split
I0803 21:54:16.350481 24395 net.cpp:425] pool4/3x3_s2_pool4/3x3_s2_0_split <- pool4/3x3_s2
I0803 21:54:16.350492 24395 net.cpp:399] pool4/3x3_s2_pool4/3x3_s2_0_split -> pool4/3x3_s2_pool4/3x3_s2_0_split_0
I0803 21:54:16.350503 24395 net.cpp:399] pool4/3x3_s2_pool4/3x3_s2_0_split -> pool4/3x3_s2_pool4/3x3_s2_0_split_1
I0803 21:54:16.350514 24395 net.cpp:399] pool4/3x3_s2_pool4/3x3_s2_0_split -> pool4/3x3_s2_pool4/3x3_s2_0_split_2
I0803 21:54:16.350524 24395 net.cpp:399] pool4/3x3_s2_pool4/3x3_s2_0_split -> pool4/3x3_s2_pool4/3x3_s2_0_split_3
I0803 21:54:16.351024 24395 net.cpp:141] Setting up pool4/3x3_s2_pool4/3x3_s2_0_split
I0803 21:54:16.351038 24395 net.cpp:148] Top shape: 10 832 7 7 (407680)
I0803 21:54:16.351045 24395 net.cpp:148] Top shape: 10 832 7 7 (407680)
I0803 21:54:16.351052 24395 net.cpp:148] Top shape: 10 832 7 7 (407680)
I0803 21:54:16.351059 24395 net.cpp:148] Top shape: 10 832 7 7 (407680)
I0803 21:54:16.351064 24395 net.cpp:156] Memory required for data: 528980480
I0803 21:54:16.351071 24395 layer_factory.hpp:77] Creating layer inception_5a/1x1
I0803 21:54:16.351085 24395 net.cpp:91] Creating Layer inception_5a/1x1
I0803 21:54:16.351092 24395 net.cpp:425] inception_5a/1x1 <- pool4/3x3_s2_pool4/3x3_s2_0_split_0
I0803 21:54:16.351109 24395 net.cpp:399] inception_5a/1x1 -> inception_5a/1x1
I0803 21:54:16.353924 24391 net.cpp:141] Setting up inception_5a/1x1
I0803 21:54:16.353945 24391 net.cpp:148] Top shape: 10 256 7 7 (125440)
I0803 21:54:16.353951 24391 net.cpp:156] Memory required for data: 529482240
I0803 21:54:16.353962 24391 layer_factory.hpp:77] Creating layer inception_5a/relu_1x1
I0803 21:54:16.353972 24391 net.cpp:91] Creating Layer inception_5a/relu_1x1
I0803 21:54:16.353981 24391 net.cpp:425] inception_5a/relu_1x1 <- inception_5a/1x1
I0803 21:54:16.353992 24391 net.cpp:386] inception_5a/relu_1x1 -> inception_5a/1x1 (in-place)
I0803 21:54:16.354290 24391 net.cpp:141] Setting up inception_5a/relu_1x1
I0803 21:54:16.354303 24391 net.cpp:148] Top shape: 10 256 7 7 (125440)
I0803 21:54:16.354308 24391 net.cpp:156] Memory required for data: 529984000
I0803 21:54:16.354315 24391 layer_factory.hpp:77] Creating layer inception_5a/3x3_reduce
I0803 21:54:16.354333 24391 net.cpp:91] Creating Layer inception_5a/3x3_reduce
I0803 21:54:16.354341 24391 net.cpp:425] inception_5a/3x3_reduce <- pool4/3x3_s2_pool4/3x3_s2_0_split_1
I0803 21:54:16.354356 24391 net.cpp:399] inception_5a/3x3_reduce -> inception_5a/3x3_reduce
I0803 21:54:16.358355 24395 net.cpp:141] Setting up inception_5a/1x1
I0803 21:54:16.358373 24395 net.cpp:148] Top shape: 10 256 7 7 (125440)
I0803 21:54:16.358381 24395 net.cpp:156] Memory required for data: 529482240
I0803 21:54:16.358392 24395 layer_factory.hpp:77] Creating layer inception_5a/relu_1x1
I0803 21:54:16.358402 24395 net.cpp:91] Creating Layer inception_5a/relu_1x1
I0803 21:54:16.358409 24395 net.cpp:425] inception_5a/relu_1x1 <- inception_5a/1x1
I0803 21:54:16.358419 24395 net.cpp:386] inception_5a/relu_1x1 -> inception_5a/1x1 (in-place)
I0803 21:54:16.358767 24395 net.cpp:141] Setting up inception_5a/relu_1x1
I0803 21:54:16.358781 24395 net.cpp:148] Top shape: 10 256 7 7 (125440)
I0803 21:54:16.358788 24395 net.cpp:156] Memory required for data: 529984000
I0803 21:54:16.358793 24395 layer_factory.hpp:77] Creating layer inception_5a/3x3_reduce
I0803 21:54:16.358811 24395 net.cpp:91] Creating Layer inception_5a/3x3_reduce
I0803 21:54:16.358819 24395 net.cpp:425] inception_5a/3x3_reduce <- pool4/3x3_s2_pool4/3x3_s2_0_split_1
I0803 21:54:16.358834 24395 net.cpp:399] inception_5a/3x3_reduce -> inception_5a/3x3_reduce
I0803 21:54:16.360308 24391 net.cpp:141] Setting up inception_5a/3x3_reduce
I0803 21:54:16.360332 24391 net.cpp:148] Top shape: 10 160 7 7 (78400)
I0803 21:54:16.360338 24391 net.cpp:156] Memory required for data: 530297600
I0803 21:54:16.360350 24391 layer_factory.hpp:77] Creating layer inception_5a/relu_3x3_reduce
I0803 21:54:16.360360 24391 net.cpp:91] Creating Layer inception_5a/relu_3x3_reduce
I0803 21:54:16.360368 24391 net.cpp:425] inception_5a/relu_3x3_reduce <- inception_5a/3x3_reduce
I0803 21:54:16.360380 24391 net.cpp:386] inception_5a/relu_3x3_reduce -> inception_5a/3x3_reduce (in-place)
I0803 21:54:16.360966 24391 net.cpp:141] Setting up inception_5a/relu_3x3_reduce
I0803 21:54:16.360982 24391 net.cpp:148] Top shape: 10 160 7 7 (78400)
I0803 21:54:16.360988 24391 net.cpp:156] Memory required for data: 530611200
I0803 21:54:16.360996 24391 layer_factory.hpp:77] Creating layer inception_5a/3x3
I0803 21:54:16.361014 24391 net.cpp:91] Creating Layer inception_5a/3x3
I0803 21:54:16.361022 24391 net.cpp:425] inception_5a/3x3 <- inception_5a/3x3_reduce
I0803 21:54:16.361037 24391 net.cpp:399] inception_5a/3x3 -> inception_5a/3x3
I0803 21:54:16.364879 24395 net.cpp:141] Setting up inception_5a/3x3_reduce
I0803 21:54:16.364907 24395 net.cpp:148] Top shape: 10 160 7 7 (78400)
I0803 21:54:16.364919 24395 net.cpp:156] Memory required for data: 530297600
I0803 21:54:16.364935 24395 layer_factory.hpp:77] Creating layer inception_5a/relu_3x3_reduce
I0803 21:54:16.364948 24395 net.cpp:91] Creating Layer inception_5a/relu_3x3_reduce
I0803 21:54:16.364955 24395 net.cpp:425] inception_5a/relu_3x3_reduce <- inception_5a/3x3_reduce
I0803 21:54:16.364964 24395 net.cpp:386] inception_5a/relu_3x3_reduce -> inception_5a/3x3_reduce (in-place)
I0803 21:54:16.365284 24395 net.cpp:141] Setting up inception_5a/relu_3x3_reduce
I0803 21:54:16.365298 24395 net.cpp:148] Top shape: 10 160 7 7 (78400)
I0803 21:54:16.365304 24395 net.cpp:156] Memory required for data: 530611200
I0803 21:54:16.365311 24395 layer_factory.hpp:77] Creating layer inception_5a/3x3
I0803 21:54:16.365329 24395 net.cpp:91] Creating Layer inception_5a/3x3
I0803 21:54:16.365336 24395 net.cpp:425] inception_5a/3x3 <- inception_5a/3x3_reduce
I0803 21:54:16.365350 24395 net.cpp:399] inception_5a/3x3 -> inception_5a/3x3
I0803 21:54:16.369732 24391 net.cpp:141] Setting up inception_5a/3x3
I0803 21:54:16.369753 24391 net.cpp:148] Top shape: 10 320 7 7 (156800)
I0803 21:54:16.369760 24391 net.cpp:156] Memory required for data: 531238400
I0803 21:54:16.369772 24391 layer_factory.hpp:77] Creating layer inception_5a/relu_3x3
I0803 21:54:16.369797 24391 net.cpp:91] Creating Layer inception_5a/relu_3x3
I0803 21:54:16.369806 24391 net.cpp:425] inception_5a/relu_3x3 <- inception_5a/3x3
I0803 21:54:16.369815 24391 net.cpp:386] inception_5a/relu_3x3 -> inception_5a/3x3 (in-place)
I0803 21:54:16.370318 24391 net.cpp:141] Setting up inception_5a/relu_3x3
I0803 21:54:16.370337 24391 net.cpp:148] Top shape: 10 320 7 7 (156800)
I0803 21:54:16.370342 24391 net.cpp:156] Memory required for data: 531865600
I0803 21:54:16.370349 24391 layer_factory.hpp:77] Creating layer inception_5a/5x5_reduce
I0803 21:54:16.370370 24391 net.cpp:91] Creating Layer inception_5a/5x5_reduce
I0803 21:54:16.370378 24391 net.cpp:425] inception_5a/5x5_reduce <- pool4/3x3_s2_pool4/3x3_s2_0_split_2
I0803 21:54:16.370390 24391 net.cpp:399] inception_5a/5x5_reduce -> inception_5a/5x5_reduce
I0803 21:54:16.374518 24391 net.cpp:141] Setting up inception_5a/5x5_reduce
I0803 21:54:16.374542 24391 net.cpp:148] Top shape: 10 32 7 7 (15680)
I0803 21:54:16.374549 24391 net.cpp:156] Memory required for data: 531928320
I0803 21:54:16.374560 24391 layer_factory.hpp:77] Creating layer inception_5a/relu_5x5_reduce
I0803 21:54:16.374570 24391 net.cpp:91] Creating Layer inception_5a/relu_5x5_reduce
I0803 21:54:16.374578 24391 net.cpp:425] inception_5a/relu_5x5_reduce <- inception_5a/5x5_reduce
I0803 21:54:16.374588 24391 net.cpp:386] inception_5a/relu_5x5_reduce -> inception_5a/5x5_reduce (in-place)
I0803 21:54:16.374999 24391 net.cpp:141] Setting up inception_5a/relu_5x5_reduce
I0803 21:54:16.375015 24391 net.cpp:148] Top shape: 10 32 7 7 (15680)
I0803 21:54:16.375022 24391 net.cpp:156] Memory required for data: 531991040
I0803 21:54:16.375028 24391 layer_factory.hpp:77] Creating layer inception_5a/5x5
I0803 21:54:16.375046 24391 net.cpp:91] Creating Layer inception_5a/5x5
I0803 21:54:16.375054 24391 net.cpp:425] inception_5a/5x5 <- inception_5a/5x5_reduce
I0803 21:54:16.375066 24391 net.cpp:399] inception_5a/5x5 -> inception_5a/5x5
I0803 21:54:16.376667 24395 net.cpp:141] Setting up inception_5a/3x3
I0803 21:54:16.376698 24395 net.cpp:148] Top shape: 10 320 7 7 (156800)
I0803 21:54:16.376710 24395 net.cpp:156] Memory required for data: 531238400
I0803 21:54:16.376739 24395 layer_factory.hpp:77] Creating layer inception_5a/relu_3x3
I0803 21:54:16.376756 24395 net.cpp:91] Creating Layer inception_5a/relu_3x3
I0803 21:54:16.376768 24395 net.cpp:425] inception_5a/relu_3x3 <- inception_5a/3x3
I0803 21:54:16.376783 24395 net.cpp:386] inception_5a/relu_3x3 -> inception_5a/3x3 (in-place)
I0803 21:54:16.377663 24395 net.cpp:141] Setting up inception_5a/relu_3x3
I0803 21:54:16.377694 24395 net.cpp:148] Top shape: 10 320 7 7 (156800)
I0803 21:54:16.377707 24395 net.cpp:156] Memory required for data: 531865600
I0803 21:54:16.377718 24395 layer_factory.hpp:77] Creating layer inception_5a/5x5_reduce
I0803 21:54:16.377748 24395 net.cpp:91] Creating Layer inception_5a/5x5_reduce
I0803 21:54:16.377761 24395 net.cpp:425] inception_5a/5x5_reduce <- pool4/3x3_s2_pool4/3x3_s2_0_split_2
I0803 21:54:16.377781 24395 net.cpp:399] inception_5a/5x5_reduce -> inception_5a/5x5_reduce
I0803 21:54:16.379863 24391 net.cpp:141] Setting up inception_5a/5x5
I0803 21:54:16.379883 24391 net.cpp:148] Top shape: 10 128 7 7 (62720)
I0803 21:54:16.379889 24391 net.cpp:156] Memory required for data: 532241920
I0803 21:54:16.379900 24391 layer_factory.hpp:77] Creating layer inception_5a/relu_5x5
I0803 21:54:16.379940 24391 net.cpp:91] Creating Layer inception_5a/relu_5x5
I0803 21:54:16.379951 24391 net.cpp:425] inception_5a/relu_5x5 <- inception_5a/5x5
I0803 21:54:16.379959 24391 net.cpp:386] inception_5a/relu_5x5 -> inception_5a/5x5 (in-place)
I0803 21:54:16.380426 24391 net.cpp:141] Setting up inception_5a/relu_5x5
I0803 21:54:16.380444 24391 net.cpp:148] Top shape: 10 128 7 7 (62720)
I0803 21:54:16.380450 24391 net.cpp:156] Memory required for data: 532492800
I0803 21:54:16.380456 24391 layer_factory.hpp:77] Creating layer inception_5a/pool
I0803 21:54:16.380468 24391 net.cpp:91] Creating Layer inception_5a/pool
I0803 21:54:16.380475 24391 net.cpp:425] inception_5a/pool <- pool4/3x3_s2_pool4/3x3_s2_0_split_3
I0803 21:54:16.380488 24391 net.cpp:399] inception_5a/pool -> inception_5a/pool
I0803 21:54:16.380825 24391 net.cpp:141] Setting up inception_5a/pool
I0803 21:54:16.380841 24391 net.cpp:148] Top shape: 10 832 7 7 (407680)
I0803 21:54:16.380846 24391 net.cpp:156] Memory required for data: 534123520
I0803 21:54:16.380853 24391 layer_factory.hpp:77] Creating layer inception_5a/pool_proj
I0803 21:54:16.380872 24391 net.cpp:91] Creating Layer inception_5a/pool_proj
I0803 21:54:16.380879 24391 net.cpp:425] inception_5a/pool_proj <- inception_5a/pool
I0803 21:54:16.380893 24391 net.cpp:399] inception_5a/pool_proj -> inception_5a/pool_proj
I0803 21:54:16.384450 24395 net.cpp:141] Setting up inception_5a/5x5_reduce
I0803 21:54:16.384479 24395 net.cpp:148] Top shape: 10 32 7 7 (15680)
I0803 21:54:16.384491 24395 net.cpp:156] Memory required for data: 531928320
I0803 21:54:16.384511 24395 layer_factory.hpp:77] Creating layer inception_5a/relu_5x5_reduce
I0803 21:54:16.384534 24395 net.cpp:91] Creating Layer inception_5a/relu_5x5_reduce
I0803 21:54:16.384547 24395 net.cpp:425] inception_5a/relu_5x5_reduce <- inception_5a/5x5_reduce
I0803 21:54:16.384562 24395 net.cpp:386] inception_5a/relu_5x5_reduce -> inception_5a/5x5_reduce (in-place)
I0803 21:54:16.385152 24395 net.cpp:141] Setting up inception_5a/relu_5x5_reduce
I0803 21:54:16.385179 24395 net.cpp:148] Top shape: 10 32 7 7 (15680)
I0803 21:54:16.385191 24395 net.cpp:156] Memory required for data: 531991040
I0803 21:54:16.385203 24395 layer_factory.hpp:77] Creating layer inception_5a/5x5
I0803 21:54:16.385251 24395 net.cpp:91] Creating Layer inception_5a/5x5
I0803 21:54:16.385268 24395 net.cpp:425] inception_5a/5x5 <- inception_5a/5x5_reduce
I0803 21:54:16.385293 24395 net.cpp:399] inception_5a/5x5 -> inception_5a/5x5
I0803 21:54:16.387377 24391 net.cpp:141] Setting up inception_5a/pool_proj
I0803 21:54:16.387397 24391 net.cpp:148] Top shape: 10 128 7 7 (62720)
I0803 21:54:16.387403 24391 net.cpp:156] Memory required for data: 534374400
I0803 21:54:16.387413 24391 layer_factory.hpp:77] Creating layer inception_5a/relu_pool_proj
I0803 21:54:16.387428 24391 net.cpp:91] Creating Layer inception_5a/relu_pool_proj
I0803 21:54:16.387437 24391 net.cpp:425] inception_5a/relu_pool_proj <- inception_5a/pool_proj
I0803 21:54:16.387446 24391 net.cpp:386] inception_5a/relu_pool_proj -> inception_5a/pool_proj (in-place)
I0803 21:54:16.387944 24391 net.cpp:141] Setting up inception_5a/relu_pool_proj
I0803 21:54:16.387962 24391 net.cpp:148] Top shape: 10 128 7 7 (62720)
I0803 21:54:16.387969 24391 net.cpp:156] Memory required for data: 534625280
I0803 21:54:16.387975 24391 layer_factory.hpp:77] Creating layer inception_5a/output
I0803 21:54:16.387990 24391 net.cpp:91] Creating Layer inception_5a/output
I0803 21:54:16.387998 24391 net.cpp:425] inception_5a/output <- inception_5a/1x1
I0803 21:54:16.388006 24391 net.cpp:425] inception_5a/output <- inception_5a/3x3
I0803 21:54:16.388013 24391 net.cpp:425] inception_5a/output <- inception_5a/5x5
I0803 21:54:16.388020 24391 net.cpp:425] inception_5a/output <- inception_5a/pool_proj
I0803 21:54:16.388030 24391 net.cpp:399] inception_5a/output -> inception_5a/output
I0803 21:54:16.388123 24391 net.cpp:141] Setting up inception_5a/output
I0803 21:54:16.388136 24391 net.cpp:148] Top shape: 10 832 7 7 (407680)
I0803 21:54:16.388142 24391 net.cpp:156] Memory required for data: 536256000
I0803 21:54:16.388149 24391 layer_factory.hpp:77] Creating layer inception_5a/output_inception_5a/output_0_split
I0803 21:54:16.388164 24391 net.cpp:91] Creating Layer inception_5a/output_inception_5a/output_0_split
I0803 21:54:16.388171 24391 net.cpp:425] inception_5a/output_inception_5a/output_0_split <- inception_5a/output
I0803 21:54:16.388180 24391 net.cpp:399] inception_5a/output_inception_5a/output_0_split -> inception_5a/output_inception_5a/output_0_split_0
I0803 21:54:16.388195 24391 net.cpp:399] inception_5a/output_inception_5a/output_0_split -> inception_5a/output_inception_5a/output_0_split_1
I0803 21:54:16.388206 24391 net.cpp:399] inception_5a/output_inception_5a/output_0_split -> inception_5a/output_inception_5a/output_0_split_2
I0803 21:54:16.388216 24391 net.cpp:399] inception_5a/output_inception_5a/output_0_split -> inception_5a/output_inception_5a/output_0_split_3
I0803 21:54:16.388581 24391 net.cpp:141] Setting up inception_5a/output_inception_5a/output_0_split
I0803 21:54:16.388594 24391 net.cpp:148] Top shape: 10 832 7 7 (407680)
I0803 21:54:16.388602 24391 net.cpp:148] Top shape: 10 832 7 7 (407680)
I0803 21:54:16.388609 24391 net.cpp:148] Top shape: 10 832 7 7 (407680)
I0803 21:54:16.388617 24391 net.cpp:148] Top shape: 10 832 7 7 (407680)
I0803 21:54:16.388622 24391 net.cpp:156] Memory required for data: 542778880
I0803 21:54:16.388628 24391 layer_factory.hpp:77] Creating layer inception_5b/1x1
I0803 21:54:16.388648 24391 net.cpp:91] Creating Layer inception_5b/1x1
I0803 21:54:16.388654 24391 net.cpp:425] inception_5b/1x1 <- inception_5a/output_inception_5a/output_0_split_0
I0803 21:54:16.388665 24391 net.cpp:399] inception_5b/1x1 -> inception_5b/1x1
I0803 21:54:16.392668 24395 net.cpp:141] Setting up inception_5a/5x5
I0803 21:54:16.392695 24395 net.cpp:148] Top shape: 10 128 7 7 (62720)
I0803 21:54:16.392707 24395 net.cpp:156] Memory required for data: 532241920
I0803 21:54:16.392726 24395 layer_factory.hpp:77] Creating layer inception_5a/relu_5x5
I0803 21:54:16.392776 24395 net.cpp:91] Creating Layer inception_5a/relu_5x5
I0803 21:54:16.392789 24395 net.cpp:425] inception_5a/relu_5x5 <- inception_5a/5x5
I0803 21:54:16.392804 24395 net.cpp:386] inception_5a/relu_5x5 -> inception_5a/5x5 (in-place)
I0803 21:54:16.393278 24395 net.cpp:141] Setting up inception_5a/relu_5x5
I0803 21:54:16.393303 24395 net.cpp:148] Top shape: 10 128 7 7 (62720)
I0803 21:54:16.393316 24395 net.cpp:156] Memory required for data: 532492800
I0803 21:54:16.393327 24395 layer_factory.hpp:77] Creating layer inception_5a/pool
I0803 21:54:16.393350 24395 net.cpp:91] Creating Layer inception_5a/pool
I0803 21:54:16.393364 24395 net.cpp:425] inception_5a/pool <- pool4/3x3_s2_pool4/3x3_s2_0_split_3
I0803 21:54:16.393383 24395 net.cpp:399] inception_5a/pool -> inception_5a/pool
I0803 21:54:16.393600 24395 net.cpp:141] Setting up inception_5a/pool
I0803 21:54:16.393623 24395 net.cpp:148] Top shape: 10 832 7 7 (407680)
I0803 21:54:16.393635 24395 net.cpp:156] Memory required for data: 534123520
I0803 21:54:16.393645 24395 layer_factory.hpp:77] Creating layer inception_5a/pool_proj
I0803 21:54:16.393676 24395 net.cpp:91] Creating Layer inception_5a/pool_proj
I0803 21:54:16.393688 24395 net.cpp:425] inception_5a/pool_proj <- inception_5a/pool
I0803 21:54:16.393707 24395 net.cpp:399] inception_5a/pool_proj -> inception_5a/pool_proj
I0803 21:54:16.398824 24391 net.cpp:141] Setting up inception_5b/1x1
I0803 21:54:16.398844 24391 net.cpp:148] Top shape: 10 384 7 7 (188160)
I0803 21:54:16.398851 24391 net.cpp:156] Memory required for data: 543531520
I0803 21:54:16.398862 24391 layer_factory.hpp:77] Creating layer inception_5b/relu_1x1
I0803 21:54:16.398874 24391 net.cpp:91] Creating Layer inception_5b/relu_1x1
I0803 21:54:16.398881 24391 net.cpp:425] inception_5b/relu_1x1 <- inception_5b/1x1
I0803 21:54:16.398895 24391 net.cpp:386] inception_5b/relu_1x1 -> inception_5b/1x1 (in-place)
I0803 21:54:16.399274 24391 net.cpp:141] Setting up inception_5b/relu_1x1
I0803 21:54:16.399291 24391 net.cpp:148] Top shape: 10 384 7 7 (188160)
I0803 21:54:16.399297 24391 net.cpp:156] Memory required for data: 544284160
I0803 21:54:16.399304 24391 layer_factory.hpp:77] Creating layer inception_5b/3x3_reduce
I0803 21:54:16.399322 24391 net.cpp:91] Creating Layer inception_5b/3x3_reduce
I0803 21:54:16.399330 24391 net.cpp:425] inception_5b/3x3_reduce <- inception_5a/output_inception_5a/output_0_split_1
I0803 21:54:16.399343 24391 net.cpp:399] inception_5b/3x3_reduce -> inception_5b/3x3_reduce
I0803 21:54:16.402145 24395 net.cpp:141] Setting up inception_5a/pool_proj
I0803 21:54:16.402174 24395 net.cpp:148] Top shape: 10 128 7 7 (62720)
I0803 21:54:16.402186 24395 net.cpp:156] Memory required for data: 534374400
I0803 21:54:16.402206 24395 layer_factory.hpp:77] Creating layer inception_5a/relu_pool_proj
I0803 21:54:16.402227 24395 net.cpp:91] Creating Layer inception_5a/relu_pool_proj
I0803 21:54:16.402240 24395 net.cpp:425] inception_5a/relu_pool_proj <- inception_5a/pool_proj
I0803 21:54:16.402256 24395 net.cpp:386] inception_5a/relu_pool_proj -> inception_5a/pool_proj (in-place)
I0803 21:54:16.402858 24395 net.cpp:141] Setting up inception_5a/relu_pool_proj
I0803 21:54:16.402876 24395 net.cpp:148] Top shape: 10 128 7 7 (62720)
I0803 21:54:16.402884 24395 net.cpp:156] Memory required for data: 534625280
I0803 21:54:16.402889 24395 layer_factory.hpp:77] Creating layer inception_5a/output
I0803 21:54:16.402902 24395 net.cpp:91] Creating Layer inception_5a/output
I0803 21:54:16.402910 24395 net.cpp:425] inception_5a/output <- inception_5a/1x1
I0803 21:54:16.402920 24395 net.cpp:425] inception_5a/output <- inception_5a/3x3
I0803 21:54:16.402926 24395 net.cpp:425] inception_5a/output <- inception_5a/5x5
I0803 21:54:16.402933 24395 net.cpp:425] inception_5a/output <- inception_5a/pool_proj
I0803 21:54:16.402941 24395 net.cpp:399] inception_5a/output -> inception_5a/output
I0803 21:54:16.403084 24395 net.cpp:141] Setting up inception_5a/output
I0803 21:54:16.403100 24395 net.cpp:148] Top shape: 10 832 7 7 (407680)
I0803 21:54:16.403105 24395 net.cpp:156] Memory required for data: 536256000
I0803 21:54:16.403112 24395 layer_factory.hpp:77] Creating layer inception_5a/output_inception_5a/output_0_split
I0803 21:54:16.403122 24395 net.cpp:91] Creating Layer inception_5a/output_inception_5a/output_0_split
I0803 21:54:16.403128 24395 net.cpp:425] inception_5a/output_inception_5a/output_0_split <- inception_5a/output
I0803 21:54:16.403137 24395 net.cpp:399] inception_5a/output_inception_5a/output_0_split -> inception_5a/output_inception_5a/output_0_split_0
I0803 21:54:16.403149 24395 net.cpp:399] inception_5a/output_inception_5a/output_0_split -> inception_5a/output_inception_5a/output_0_split_1
I0803 21:54:16.403161 24395 net.cpp:399] inception_5a/output_inception_5a/output_0_split -> inception_5a/output_inception_5a/output_0_split_2
I0803 21:54:16.403182 24395 net.cpp:399] inception_5a/output_inception_5a/output_0_split -> inception_5a/output_inception_5a/output_0_split_3
I0803 21:54:16.403873 24395 net.cpp:141] Setting up inception_5a/output_inception_5a/output_0_split
I0803 21:54:16.403888 24395 net.cpp:148] Top shape: 10 832 7 7 (407680)
I0803 21:54:16.403897 24395 net.cpp:148] Top shape: 10 832 7 7 (407680)
I0803 21:54:16.403903 24395 net.cpp:148] Top shape: 10 832 7 7 (407680)
I0803 21:54:16.403910 24395 net.cpp:148] Top shape: 10 832 7 7 (407680)
I0803 21:54:16.403915 24395 net.cpp:156] Memory required for data: 542778880
I0803 21:54:16.403923 24395 layer_factory.hpp:77] Creating layer inception_5b/1x1
I0803 21:54:16.403944 24395 net.cpp:91] Creating Layer inception_5b/1x1
I0803 21:54:16.403951 24395 net.cpp:425] inception_5b/1x1 <- inception_5a/output_inception_5a/output_0_split_0
I0803 21:54:16.403962 24395 net.cpp:399] inception_5b/1x1 -> inception_5b/1x1
I0803 21:54:16.406675 24391 net.cpp:141] Setting up inception_5b/3x3_reduce
I0803 21:54:16.406695 24391 net.cpp:148] Top shape: 10 192 7 7 (94080)
I0803 21:54:16.406702 24391 net.cpp:156] Memory required for data: 544660480
I0803 21:54:16.406713 24391 layer_factory.hpp:77] Creating layer inception_5b/relu_3x3_reduce
I0803 21:54:16.406728 24391 net.cpp:91] Creating Layer inception_5b/relu_3x3_reduce
I0803 21:54:16.406736 24391 net.cpp:425] inception_5b/relu_3x3_reduce <- inception_5b/3x3_reduce
I0803 21:54:16.406746 24391 net.cpp:386] inception_5b/relu_3x3_reduce -> inception_5b/3x3_reduce (in-place)
I0803 21:54:16.407054 24391 net.cpp:141] Setting up inception_5b/relu_3x3_reduce
I0803 21:54:16.407068 24391 net.cpp:148] Top shape: 10 192 7 7 (94080)
I0803 21:54:16.407073 24391 net.cpp:156] Memory required for data: 545036800
I0803 21:54:16.407080 24391 layer_factory.hpp:77] Creating layer inception_5b/3x3
I0803 21:54:16.407099 24391 net.cpp:91] Creating Layer inception_5b/3x3
I0803 21:54:16.407107 24391 net.cpp:425] inception_5b/3x3 <- inception_5b/3x3_reduce
I0803 21:54:16.407124 24391 net.cpp:399] inception_5b/3x3 -> inception_5b/3x3
I0803 21:54:16.411463 24395 net.cpp:141] Setting up inception_5b/1x1
I0803 21:54:16.411484 24395 net.cpp:148] Top shape: 10 384 7 7 (188160)
I0803 21:54:16.411491 24395 net.cpp:156] Memory required for data: 543531520
I0803 21:54:16.411502 24395 layer_factory.hpp:77] Creating layer inception_5b/relu_1x1
I0803 21:54:16.411516 24395 net.cpp:91] Creating Layer inception_5b/relu_1x1
I0803 21:54:16.411525 24395 net.cpp:425] inception_5b/relu_1x1 <- inception_5b/1x1
I0803 21:54:16.411533 24395 net.cpp:386] inception_5b/relu_1x1 -> inception_5b/1x1 (in-place)
I0803 21:54:16.411840 24395 net.cpp:141] Setting up inception_5b/relu_1x1
I0803 21:54:16.411854 24395 net.cpp:148] Top shape: 10 384 7 7 (188160)
I0803 21:54:16.411860 24395 net.cpp:156] Memory required for data: 544284160
I0803 21:54:16.411866 24395 layer_factory.hpp:77] Creating layer inception_5b/3x3_reduce
I0803 21:54:16.411886 24395 net.cpp:91] Creating Layer inception_5b/3x3_reduce
I0803 21:54:16.411893 24395 net.cpp:425] inception_5b/3x3_reduce <- inception_5a/output_inception_5a/output_0_split_1
I0803 21:54:16.411906 24395 net.cpp:399] inception_5b/3x3_reduce -> inception_5b/3x3_reduce
I0803 21:54:16.417953 24391 net.cpp:141] Setting up inception_5b/3x3
I0803 21:54:16.417994 24391 net.cpp:148] Top shape: 10 384 7 7 (188160)
I0803 21:54:16.418001 24391 net.cpp:156] Memory required for data: 545789440
I0803 21:54:16.418015 24391 layer_factory.hpp:77] Creating layer inception_5b/relu_3x3
I0803 21:54:16.418033 24391 net.cpp:91] Creating Layer inception_5b/relu_3x3
I0803 21:54:16.418043 24391 net.cpp:425] inception_5b/relu_3x3 <- inception_5b/3x3
I0803 21:54:16.418053 24391 net.cpp:386] inception_5b/relu_3x3 -> inception_5b/3x3 (in-place)
I0803 21:54:16.418757 24391 net.cpp:141] Setting up inception_5b/relu_3x3
I0803 21:54:16.418772 24391 net.cpp:148] Top shape: 10 384 7 7 (188160)
I0803 21:54:16.418778 24391 net.cpp:156] Memory required for data: 546542080
I0803 21:54:16.418784 24391 layer_factory.hpp:77] Creating layer inception_5b/5x5_reduce
I0803 21:54:16.418809 24391 net.cpp:91] Creating Layer inception_5b/5x5_reduce
I0803 21:54:16.418817 24391 net.cpp:425] inception_5b/5x5_reduce <- inception_5a/output_inception_5a/output_0_split_2
I0803 21:54:16.418828 24391 net.cpp:399] inception_5b/5x5_reduce -> inception_5b/5x5_reduce
I0803 21:54:16.418894 24395 net.cpp:141] Setting up inception_5b/3x3_reduce
I0803 21:54:16.418921 24395 net.cpp:148] Top shape: 10 192 7 7 (94080)
I0803 21:54:16.418932 24395 net.cpp:156] Memory required for data: 544660480
I0803 21:54:16.418951 24395 layer_factory.hpp:77] Creating layer inception_5b/relu_3x3_reduce
I0803 21:54:16.418967 24395 net.cpp:91] Creating Layer inception_5b/relu_3x3_reduce
I0803 21:54:16.418980 24395 net.cpp:425] inception_5b/relu_3x3_reduce <- inception_5b/3x3_reduce
I0803 21:54:16.418995 24395 net.cpp:386] inception_5b/relu_3x3_reduce -> inception_5b/3x3_reduce (in-place)
I0803 21:54:16.419730 24395 net.cpp:141] Setting up inception_5b/relu_3x3_reduce
I0803 21:54:16.419764 24395 net.cpp:148] Top shape: 10 192 7 7 (94080)
I0803 21:54:16.419775 24395 net.cpp:156] Memory required for data: 545036800
I0803 21:54:16.419786 24395 layer_factory.hpp:77] Creating layer inception_5b/3x3
I0803 21:54:16.419812 24395 net.cpp:91] Creating Layer inception_5b/3x3
I0803 21:54:16.419826 24395 net.cpp:425] inception_5b/3x3 <- inception_5b/3x3_reduce
I0803 21:54:16.419843 24395 net.cpp:399] inception_5b/3x3 -> inception_5b/3x3
I0803 21:54:16.424238 24391 net.cpp:141] Setting up inception_5b/5x5_reduce
I0803 21:54:16.424263 24391 net.cpp:148] Top shape: 10 48 7 7 (23520)
I0803 21:54:16.424269 24391 net.cpp:156] Memory required for data: 546636160
I0803 21:54:16.424280 24391 layer_factory.hpp:77] Creating layer inception_5b/relu_5x5_reduce
I0803 21:54:16.424294 24391 net.cpp:91] Creating Layer inception_5b/relu_5x5_reduce
I0803 21:54:16.424301 24391 net.cpp:425] inception_5b/relu_5x5_reduce <- inception_5b/5x5_reduce
I0803 21:54:16.424311 24391 net.cpp:386] inception_5b/relu_5x5_reduce -> inception_5b/5x5_reduce (in-place)
I0803 21:54:16.424576 24391 net.cpp:141] Setting up inception_5b/relu_5x5_reduce
I0803 21:54:16.424588 24391 net.cpp:148] Top shape: 10 48 7 7 (23520)
I0803 21:54:16.424593 24391 net.cpp:156] Memory required for data: 546730240
I0803 21:54:16.424599 24391 layer_factory.hpp:77] Creating layer inception_5b/5x5
I0803 21:54:16.424618 24391 net.cpp:91] Creating Layer inception_5b/5x5
I0803 21:54:16.424626 24391 net.cpp:425] inception_5b/5x5 <- inception_5b/5x5_reduce
I0803 21:54:16.424636 24391 net.cpp:399] inception_5b/5x5 -> inception_5b/5x5
I0803 21:54:16.428429 24391 net.cpp:141] Setting up inception_5b/5x5
I0803 21:54:16.428452 24391 net.cpp:148] Top shape: 10 128 7 7 (62720)
I0803 21:54:16.428458 24391 net.cpp:156] Memory required for data: 546981120
I0803 21:54:16.428469 24391 layer_factory.hpp:77] Creating layer inception_5b/relu_5x5
I0803 21:54:16.428483 24391 net.cpp:91] Creating Layer inception_5b/relu_5x5
I0803 21:54:16.428489 24391 net.cpp:425] inception_5b/relu_5x5 <- inception_5b/5x5
I0803 21:54:16.428498 24391 net.cpp:386] inception_5b/relu_5x5 -> inception_5b/5x5 (in-place)
I0803 21:54:16.428807 24391 net.cpp:141] Setting up inception_5b/relu_5x5
I0803 21:54:16.428824 24391 net.cpp:148] Top shape: 10 128 7 7 (62720)
I0803 21:54:16.428830 24391 net.cpp:156] Memory required for data: 547232000
I0803 21:54:16.428835 24391 layer_factory.hpp:77] Creating layer inception_5b/pool
I0803 21:54:16.428850 24391 net.cpp:91] Creating Layer inception_5b/pool
I0803 21:54:16.428858 24391 net.cpp:425] inception_5b/pool <- inception_5a/output_inception_5a/output_0_split_3
I0803 21:54:16.428869 24391 net.cpp:399] inception_5b/pool -> inception_5b/pool
I0803 21:54:16.429014 24391 net.cpp:141] Setting up inception_5b/pool
I0803 21:54:16.429026 24391 net.cpp:148] Top shape: 10 832 7 7 (407680)
I0803 21:54:16.429031 24391 net.cpp:156] Memory required for data: 548862720
I0803 21:54:16.429040 24391 layer_factory.hpp:77] Creating layer inception_5b/pool_proj
I0803 21:54:16.429075 24391 net.cpp:91] Creating Layer inception_5b/pool_proj
I0803 21:54:16.429085 24391 net.cpp:425] inception_5b/pool_proj <- inception_5b/pool
I0803 21:54:16.429100 24391 net.cpp:399] inception_5b/pool_proj -> inception_5b/pool_proj
I0803 21:54:16.432725 24395 net.cpp:141] Setting up inception_5b/3x3
I0803 21:54:16.432749 24395 net.cpp:148] Top shape: 10 384 7 7 (188160)
I0803 21:54:16.432756 24395 net.cpp:156] Memory required for data: 545789440
I0803 21:54:16.432767 24395 layer_factory.hpp:77] Creating layer inception_5b/relu_3x3
I0803 21:54:16.432781 24395 net.cpp:91] Creating Layer inception_5b/relu_3x3
I0803 21:54:16.432790 24395 net.cpp:425] inception_5b/relu_3x3 <- inception_5b/3x3
I0803 21:54:16.432798 24395 net.cpp:386] inception_5b/relu_3x3 -> inception_5b/3x3 (in-place)
I0803 21:54:16.433457 24395 net.cpp:141] Setting up inception_5b/relu_3x3
I0803 21:54:16.433475 24395 net.cpp:148] Top shape: 10 384 7 7 (188160)
I0803 21:54:16.433482 24395 net.cpp:156] Memory required for data: 546542080
I0803 21:54:16.433490 24395 layer_factory.hpp:77] Creating layer inception_5b/5x5_reduce
I0803 21:54:16.433511 24395 net.cpp:91] Creating Layer inception_5b/5x5_reduce
I0803 21:54:16.433518 24395 net.cpp:425] inception_5b/5x5_reduce <- inception_5a/output_inception_5a/output_0_split_2
I0803 21:54:16.433534 24395 net.cpp:399] inception_5b/5x5_reduce -> inception_5b/5x5_reduce
I0803 21:54:16.435230 24391 net.cpp:141] Setting up inception_5b/pool_proj
I0803 21:54:16.435255 24391 net.cpp:148] Top shape: 10 128 7 7 (62720)
I0803 21:54:16.435261 24391 net.cpp:156] Memory required for data: 549113600
I0803 21:54:16.435271 24391 layer_factory.hpp:77] Creating layer inception_5b/relu_pool_proj
I0803 21:54:16.435286 24391 net.cpp:91] Creating Layer inception_5b/relu_pool_proj
I0803 21:54:16.435293 24391 net.cpp:425] inception_5b/relu_pool_proj <- inception_5b/pool_proj
I0803 21:54:16.435304 24391 net.cpp:386] inception_5b/relu_pool_proj -> inception_5b/pool_proj (in-place)
I0803 21:54:16.435889 24391 net.cpp:141] Setting up inception_5b/relu_pool_proj
I0803 21:54:16.435905 24391 net.cpp:148] Top shape: 10 128 7 7 (62720)
I0803 21:54:16.435911 24391 net.cpp:156] Memory required for data: 549364480
I0803 21:54:16.435916 24391 layer_factory.hpp:77] Creating layer inception_5b/output
I0803 21:54:16.435930 24391 net.cpp:91] Creating Layer inception_5b/output
I0803 21:54:16.435937 24391 net.cpp:425] inception_5b/output <- inception_5b/1x1
I0803 21:54:16.435945 24391 net.cpp:425] inception_5b/output <- inception_5b/3x3
I0803 21:54:16.435951 24391 net.cpp:425] inception_5b/output <- inception_5b/5x5
I0803 21:54:16.435957 24391 net.cpp:425] inception_5b/output <- inception_5b/pool_proj
I0803 21:54:16.435967 24391 net.cpp:399] inception_5b/output -> inception_5b/output
I0803 21:54:16.436094 24391 net.cpp:141] Setting up inception_5b/output
I0803 21:54:16.436105 24391 net.cpp:148] Top shape: 10 1024 7 7 (501760)
I0803 21:54:16.436110 24391 net.cpp:156] Memory required for data: 551371520
I0803 21:54:16.436116 24391 layer_factory.hpp:77] Creating layer pool5/7x7_s1
I0803 21:54:16.436125 24391 net.cpp:91] Creating Layer pool5/7x7_s1
I0803 21:54:16.436131 24391 net.cpp:425] pool5/7x7_s1 <- inception_5b/output
I0803 21:54:16.436142 24391 net.cpp:399] pool5/7x7_s1 -> pool5/7x7_s1
I0803 21:54:16.436750 24391 net.cpp:141] Setting up pool5/7x7_s1
I0803 21:54:16.436770 24391 net.cpp:148] Top shape: 10 1024 1 1 (10240)
I0803 21:54:16.436779 24391 net.cpp:156] Memory required for data: 551412480
I0803 21:54:16.436789 24391 layer_factory.hpp:77] Creating layer pool5/drop_7x7_s1
I0803 21:54:16.436820 24391 net.cpp:91] Creating Layer pool5/drop_7x7_s1
I0803 21:54:16.436832 24391 net.cpp:425] pool5/drop_7x7_s1 <- pool5/7x7_s1
I0803 21:54:16.436866 24391 net.cpp:386] pool5/drop_7x7_s1 -> pool5/7x7_s1 (in-place)
I0803 21:54:16.437369 24391 net.cpp:141] Setting up pool5/drop_7x7_s1
I0803 21:54:16.437389 24391 net.cpp:148] Top shape: 10 1024 1 1 (10240)
I0803 21:54:16.437399 24391 net.cpp:156] Memory required for data: 551453440
I0803 21:54:16.437409 24391 layer_factory.hpp:77] Creating layer loss3/classifier
I0803 21:54:16.437435 24391 net.cpp:91] Creating Layer loss3/classifier
I0803 21:54:16.437448 24391 net.cpp:425] loss3/classifier <- pool5/7x7_s1
I0803 21:54:16.437466 24391 net.cpp:399] loss3/classifier -> loss3/classifier
I0803 21:54:16.440572 24395 net.cpp:141] Setting up inception_5b/5x5_reduce
I0803 21:54:16.440593 24395 net.cpp:148] Top shape: 10 48 7 7 (23520)
I0803 21:54:16.440600 24395 net.cpp:156] Memory required for data: 546636160
I0803 21:54:16.440613 24395 layer_factory.hpp:77] Creating layer inception_5b/relu_5x5_reduce
I0803 21:54:16.440623 24395 net.cpp:91] Creating Layer inception_5b/relu_5x5_reduce
I0803 21:54:16.440631 24395 net.cpp:425] inception_5b/relu_5x5_reduce <- inception_5b/5x5_reduce
I0803 21:54:16.440644 24395 net.cpp:386] inception_5b/relu_5x5_reduce -> inception_5b/5x5_reduce (in-place)
I0803 21:54:16.440955 24395 net.cpp:141] Setting up inception_5b/relu_5x5_reduce
I0803 21:54:16.440968 24395 net.cpp:148] Top shape: 10 48 7 7 (23520)
I0803 21:54:16.440974 24395 net.cpp:156] Memory required for data: 546730240
I0803 21:54:16.440981 24395 layer_factory.hpp:77] Creating layer inception_5b/5x5
I0803 21:54:16.440999 24395 net.cpp:91] Creating Layer inception_5b/5x5
I0803 21:54:16.441006 24395 net.cpp:425] inception_5b/5x5 <- inception_5b/5x5_reduce
I0803 21:54:16.441021 24395 net.cpp:399] inception_5b/5x5 -> inception_5b/5x5
I0803 21:54:16.445101 24395 net.cpp:141] Setting up inception_5b/5x5
I0803 21:54:16.445122 24395 net.cpp:148] Top shape: 10 128 7 7 (62720)
I0803 21:54:16.445128 24395 net.cpp:156] Memory required for data: 546981120
I0803 21:54:16.445139 24395 layer_factory.hpp:77] Creating layer inception_5b/relu_5x5
I0803 21:54:16.445154 24395 net.cpp:91] Creating Layer inception_5b/relu_5x5
I0803 21:54:16.445163 24395 net.cpp:425] inception_5b/relu_5x5 <- inception_5b/5x5
I0803 21:54:16.445171 24395 net.cpp:386] inception_5b/relu_5x5 -> inception_5b/5x5 (in-place)
I0803 21:54:16.445495 24395 net.cpp:141] Setting up inception_5b/relu_5x5
I0803 21:54:16.445509 24395 net.cpp:148] Top shape: 10 128 7 7 (62720)
I0803 21:54:16.445515 24395 net.cpp:156] Memory required for data: 547232000
I0803 21:54:16.445530 24395 layer_factory.hpp:77] Creating layer inception_5b/pool
I0803 21:54:16.445543 24395 net.cpp:91] Creating Layer inception_5b/pool
I0803 21:54:16.445549 24395 net.cpp:425] inception_5b/pool <- inception_5a/output_inception_5a/output_0_split_3
I0803 21:54:16.445562 24395 net.cpp:399] inception_5b/pool -> inception_5b/pool
I0803 21:54:16.445719 24395 net.cpp:141] Setting up inception_5b/pool
I0803 21:54:16.445732 24395 net.cpp:148] Top shape: 10 832 7 7 (407680)
I0803 21:54:16.445737 24395 net.cpp:156] Memory required for data: 548862720
I0803 21:54:16.445744 24395 layer_factory.hpp:77] Creating layer inception_5b/pool_proj
I0803 21:54:16.445763 24395 net.cpp:91] Creating Layer inception_5b/pool_proj
I0803 21:54:16.445771 24395 net.cpp:425] inception_5b/pool_proj <- inception_5b/pool
I0803 21:54:16.445782 24395 net.cpp:399] inception_5b/pool_proj -> inception_5b/pool_proj
I0803 21:54:16.448127 24391 net.cpp:141] Setting up loss3/classifier
I0803 21:54:16.448161 24391 net.cpp:148] Top shape: 10 1000 (10000)
I0803 21:54:16.448168 24391 net.cpp:156] Memory required for data: 551493440
I0803 21:54:16.448179 24391 layer_factory.hpp:77] Creating layer prob
I0803 21:54:16.448194 24391 net.cpp:91] Creating Layer prob
I0803 21:54:16.448200 24391 net.cpp:425] prob <- loss3/classifier
I0803 21:54:16.448210 24391 net.cpp:399] prob -> prob
I0803 21:54:16.449601 24391 net.cpp:141] Setting up prob
I0803 21:54:16.449617 24391 net.cpp:148] Top shape: 10 1000 (10000)
I0803 21:54:16.449623 24391 net.cpp:156] Memory required for data: 551533440
I0803 21:54:16.449630 24391 net.cpp:219] prob does not need backward computation.
I0803 21:54:16.449635 24391 net.cpp:219] loss3/classifier does not need backward computation.
I0803 21:54:16.449640 24391 net.cpp:219] pool5/drop_7x7_s1 does not need backward computation.
I0803 21:54:16.449658 24391 net.cpp:219] pool5/7x7_s1 does not need backward computation.
…
I0803 21:54:16.450506 24391 net.cpp:219] pool1/3x3_s2 does not need backward computation.
I0803 21:54:16.450511 24391 net.cpp:219] conv1/relu_7x7 does not need backward computation.
I0803 21:54:16.450516 24391 net.cpp:219] conv1/7x7_s2 does not need backward computation.
I0803 21:54:16.450521 24391 net.cpp:219] data does not need backward computation.
I0803 21:54:16.450526 24391 net.cpp:261] This network produces output prob
I0803 21:54:16.450666 24391 net.cpp:274] Network initialization done.
I0803 21:54:16.450855 24395 net.cpp:141] Setting up inception_5b/pool_proj
I0803 21:54:16.450873 24395 net.cpp:148] Top shape: 10 128 7 7 (62720)
I0803 21:54:16.450880 24395 net.cpp:156] Memory required for data: 549113600
I0803 21:54:16.450891 24395 layer_factory.hpp:77] Creating layer inception_5b/relu_pool_proj
I0803 21:54:16.450901 24395 net.cpp:91] Creating Layer inception_5b/relu_pool_proj
I0803 21:54:16.450909 24395 net.cpp:425] inception_5b/relu_pool_proj <- inception_5b/pool_proj
I0803 21:54:16.450918 24395 net.cpp:386] inception_5b/relu_pool_proj -> inception_5b/pool_proj (in-place)
I0803 21:54:16.451467 24395 net.cpp:141] Setting up inception_5b/relu_pool_proj
I0803 21:54:16.451483 24395 net.cpp:148] Top shape: 10 128 7 7 (62720)
I0803 21:54:16.451488 24395 net.cpp:156] Memory required for data: 549364480
I0803 21:54:16.451494 24395 layer_factory.hpp:77] Creating layer inception_5b/output
I0803 21:54:16.451505 24395 net.cpp:91] Creating Layer inception_5b/output
I0803 21:54:16.451513 24395 net.cpp:425] inception_5b/output <- inception_5b/1x1
I0803 21:54:16.451520 24395 net.cpp:425] inception_5b/output <- inception_5b/3x3
I0803 21:54:16.451527 24395 net.cpp:425] inception_5b/output <- inception_5b/5x5
I0803 21:54:16.451534 24395 net.cpp:425] inception_5b/output <- inception_5b/pool_proj
I0803 21:54:16.451544 24395 net.cpp:399] inception_5b/output -> inception_5b/output
I0803 21:54:16.451639 24395 net.cpp:141] Setting up inception_5b/output
I0803 21:54:16.451653 24395 net.cpp:148] Top shape: 10 1024 7 7 (501760)
I0803 21:54:16.451658 24395 net.cpp:156] Memory required for data: 551371520
I0803 21:54:16.451664 24395 layer_factory.hpp:77] Creating layer pool5/7x7_s1
I0803 21:54:16.451675 24395 net.cpp:91] Creating Layer pool5/7x7_s1
I0803 21:54:16.451683 24395 net.cpp:425] pool5/7x7_s1 <- inception_5b/output
I0803 21:54:16.451696 24395 net.cpp:399] pool5/7x7_s1 -> pool5/7x7_s1
I0803 21:54:16.452078 24395 net.cpp:141] Setting up pool5/7x7_s1
I0803 21:54:16.452092 24395 net.cpp:148] Top shape: 10 1024 1 1 (10240)
I0803 21:54:16.452098 24395 net.cpp:156] Memory required for data: 551412480
I0803 21:54:16.452105 24395 layer_factory.hpp:77] Creating layer pool5/drop_7x7_s1
I0803 21:54:16.452116 24395 net.cpp:91] Creating Layer pool5/drop_7x7_s1
I0803 21:54:16.452126 24395 net.cpp:425] pool5/drop_7x7_s1 <- pool5/7x7_s1
I0803 21:54:16.452134 24395 net.cpp:386] pool5/drop_7x7_s1 -> pool5/7x7_s1 (in-place)
I0803 21:54:16.452222 24395 net.cpp:141] Setting up pool5/drop_7x7_s1
I0803 21:54:16.452235 24395 net.cpp:148] Top shape: 10 1024 1 1 (10240)
I0803 21:54:16.452240 24395 net.cpp:156] Memory required for data: 551453440
I0803 21:54:16.452247 24395 layer_factory.hpp:77] Creating layer loss3/classifier
I0803 21:54:16.452261 24395 net.cpp:91] Creating Layer loss3/classifier
I0803 21:54:16.452268 24395 net.cpp:425] loss3/classifier <- pool5/7x7_s1
I0803 21:54:16.452278 24395 net.cpp:399] loss3/classifier -> loss3/classifier
I0803 21:54:16.463778 24395 net.cpp:141] Setting up loss3/classifier
I0803 21:54:16.463802 24395 net.cpp:148] Top shape: 10 1000 (10000)
I0803 21:54:16.463809 24395 net.cpp:156] Memory required for data: 551493440
I0803 21:54:16.463820 24395 layer_factory.hpp:77] Creating layer prob
I0803 21:54:16.463831 24395 net.cpp:91] Creating Layer prob
I0803 21:54:16.463838 24395 net.cpp:425] prob <- loss3/classifier
I0803 21:54:16.463847 24395 net.cpp:399] prob -> prob
I0803 21:54:16.464709 24395 net.cpp:141] Setting up prob
I0803 21:54:16.464730 24395 net.cpp:148] Top shape: 10 1000 (10000)
I0803 21:54:16.464736 24395 net.cpp:156] Memory required for data: 551533440
I0803 21:54:16.464743 24395 net.cpp:219] prob does not need backward computation.
I0803 21:54:16.464751 24395 net.cpp:219] loss3/classifier does not need backward computation.
I0803 21:54:16.464756 24395 net.cpp:219] pool5/drop_7x7_s1 does not need backward computation.
I0803 21:54:16.464762 24395 net.cpp:219] pool5/7x7_s1 does not need backward computation.
…
