…
Java HotSpot(TM) 64-Bit Server VM warning: You have loaded library /tmp/cvld7266142144892048050/libopencv_java310.xine1.so which might have disabled stack guard. The VM will try to fix the stack guard now.
It's highly recommended that you fix the library with 'execstack -c <libfile>', or link it with '-z noexecstack'.
WARNING: Logging before InitGoogleLogging() is written to STDERR
I0731 23:14:49.261082 21038 net.cpp:49] Initializing net from parameters: 
name: "CaffeNet"
state {
  phase: TEST
}
layer {
  name: "data"
  type: "Input"
  top: "data"
  input_param {
    shape {
      dim: 10
      dim: 3
      dim: 227
      dim: 227
    }
  }
}
layer {
  name: "conv1"
  type: "Convolution"
  bottom: "data"
  top: "conv1"
  convolution_param {
    num_output: 96
    kernel_size: 11
    stride: 4
  }
}
layer {
  name: "relu1"
  type: "ReLU"
  bottom: "conv1"
  top: "conv1"
}
layer {
  name: "pool1"
  type: "Pooling"
  bottom: "conv1"
  top: "pool1"
  pooling_param {
    pool: MAX
    kernel_size: 3
    stride: 2
  }
}
layer {
  name: "norm1"
  type: "LRN"
  bottom: "pool1"
  top: "norm1"
  lrn_param {
    local_size: 5
    alpha: 0.0001
    beta: 0.75
  }
}
layer {
  name: "conv2"
  type: "Convolution"
  bottom: "norm1"
  top: "conv2"
  convolution_param {
    num_output: 256
    pad: 2
    kernel_size: 5
    group: 2
  }
}
layer {
  name: "relu2"
  type: "ReLU"
  bottom: "conv2"
  top: "conv2"
}
layer {
  name: "pool2"
  type: "Pooling"
  bottom: "conv2"
  top: "pool2"
  pooling_param {
    pool: MAX
    kernel_size: 3
    stride: 2
  }
}
layer {
  name: "norm2"
  type: "LRN"
  bottom: "pool2"
  top: "norm2"
  lrn_param {
    local_size: 5
    alpha: 0.0001
    beta: 0.75
  }
}
layer {
  name: "conv3"
  type: "Convolution"
  bottom: "norm2"
  top: "conv3"
  convolution_param {
    num_output: 384
    pad: 1
    kernel_size: 3
  }
}
layer {
  name: "relu3"
  type: "ReLU"
  bottom: "conv3"
  top: "conv3"
}
layer {
  name: "conv4"
  type: "Convolution"
  bottom: "conv3"
  top: "conv4"
  convolution_param {
    num_output: 384
    pad: 1
    kernel_size: 3
    group: 2
  }
}
layer {
  name: "relu4"
  type: "ReLU"
  bottom: "conv4"
  top: "conv4"
}
layer {
  name: "conv5"
  type: "Convolution"
  bottom: "conv4"
  top: "conv5"
  convolution_param {
    num_output: 256
    pad: 1
    kernel_size: 3
    group: 2
  }
}
layer {
  name: "relu5"
  type: "ReLU"
  bottom: "conv5"
  top: "conv5"
}
layer {
  name: "pool5"
  type: "Pooling"
  bottom: "conv5"
  top: "pool5"
  pooling_param {
    pool: MAX
    kernel_size: 3
    stride: 2
  }
}
layer {
  name: "fc6"
  type: "InnerProduct"
  bottom: "pool5"
  top: "fc6"
  inner_product_param {
    num_output: 4096
  }
}
layer {
  name: "relu6"
  type: "ReLU"
  bottom: "fc6"
  top: "fc6"
}
layer {
  name: "drop6"
  type: "Dropout"
  bottom: "fc6"
  top: "fc6"
  dropout_param {
    dropout_ratio: 0.5
  }
}
layer {
  name: "fc7"
  type: "InnerProduct"
  bottom: "fc6"
  top: "fc7"
  inner_product_param {
    num_output: 4096
  }
}
layer {
  name: "relu7"
  type: "ReLU"
  bottom: "fc7"
  top: "fc7"
}
layer {
  name: "drop7"
  type: "Dropout"
  bottom: "fc7"
  top: "fc7"
  dropout_param {
    dropout_ratio: 0.5
  }
}
layer {
  name: "fc8"
  type: "InnerProduct"
  bottom: "fc7"
  top: "fc8"
  inner_product_param {
    num_output: 1000
  }
}
layer {
  name: "prob"
  type: "Softmax"
  bottom: "fc8"
  top: "prob"
}
I0731 23:14:49.261293 21038 layer_factory.hpp:77] Creating layer data
I0731 23:14:49.261320 21038 net.cpp:91] Creating Layer data
I0731 23:14:49.261332 21038 net.cpp:399] data -> data
I0731 23:14:49.791525 21038 net.cpp:141] Setting up data
I0731 23:14:49.791638 21038 net.cpp:148] Top shape: 10 3 227 227 (1545870)
I0731 23:14:49.791646 21038 net.cpp:156] Memory required for data: 6183480
I0731 23:14:49.791667 21038 layer_factory.hpp:77] Creating layer conv1
I0731 23:14:49.791707 21038 net.cpp:91] Creating Layer conv1
I0731 23:14:49.791718 21038 net.cpp:425] conv1 <- data
I0731 23:14:49.791734 21038 net.cpp:399] conv1 -> conv1
I0731 23:14:50.015034 21038 net.cpp:141] Setting up conv1
I0731 23:14:50.015084 21038 net.cpp:148] Top shape: 10 96 55 55 (2904000)
I0731 23:14:50.015090 21038 net.cpp:156] Memory required for data: 17799480
I0731 23:14:50.015125 21038 layer_factory.hpp:77] Creating layer relu1
I0731 23:14:50.015146 21038 net.cpp:91] Creating Layer relu1
I0731 23:14:50.015153 21038 net.cpp:425] relu1 <- conv1
I0731 23:14:50.015161 21038 net.cpp:386] relu1 -> conv1 (in-place)
I0731 23:14:50.015676 21038 net.cpp:141] Setting up relu1
I0731 23:14:50.015691 21038 net.cpp:148] Top shape: 10 96 55 55 (2904000)
I0731 23:14:50.015697 21038 net.cpp:156] Memory required for data: 29415480
I0731 23:14:50.015702 21038 layer_factory.hpp:77] Creating layer pool1
I0731 23:14:50.015717 21038 net.cpp:91] Creating Layer pool1
I0731 23:14:50.015722 21038 net.cpp:425] pool1 <- conv1
I0731 23:14:50.015730 21038 net.cpp:399] pool1 -> pool1
I0731 23:14:50.015805 21038 net.cpp:141] Setting up pool1
I0731 23:14:50.015815 21038 net.cpp:148] Top shape: 10 96 27 27 (699840)
I0731 23:14:50.015820 21038 net.cpp:156] Memory required for data: 32214840
I0731 23:14:50.015826 21038 layer_factory.hpp:77] Creating layer norm1
I0731 23:14:50.015844 21038 net.cpp:91] Creating Layer norm1
I0731 23:14:50.015851 21038 net.cpp:425] norm1 <- pool1
I0731 23:14:50.015857 21038 net.cpp:399] norm1 -> norm1
I0731 23:14:50.016424 21038 net.cpp:141] Setting up norm1
I0731 23:14:50.016443 21038 net.cpp:148] Top shape: 10 96 27 27 (699840)
I0731 23:14:50.016448 21038 net.cpp:156] Memory required for data: 35014200
I0731 23:14:50.016453 21038 layer_factory.hpp:77] Creating layer conv2
I0731 23:14:50.016470 21038 net.cpp:91] Creating Layer conv2
I0731 23:14:50.016476 21038 net.cpp:425] conv2 <- norm1
I0731 23:14:50.016487 21038 net.cpp:399] conv2 -> conv2
I0731 23:14:50.021003 21038 net.cpp:141] Setting up conv2
I0731 23:14:50.021020 21038 net.cpp:148] Top shape: 10 256 27 27 (1866240)
I0731 23:14:50.021026 21038 net.cpp:156] Memory required for data: 42479160
I0731 23:14:50.021040 21038 layer_factory.hpp:77] Creating layer relu2
I0731 23:14:50.021049 21038 net.cpp:91] Creating Layer relu2
I0731 23:14:50.021054 21038 net.cpp:425] relu2 <- conv2
I0731 23:14:50.021064 21038 net.cpp:386] relu2 -> conv2 (in-place)
I0731 23:14:50.021564 21038 net.cpp:141] Setting up relu2
I0731 23:14:50.021579 21038 net.cpp:148] Top shape: 10 256 27 27 (1866240)
I0731 23:14:50.021584 21038 net.cpp:156] Memory required for data: 49944120
I0731 23:14:50.021589 21038 layer_factory.hpp:77] Creating layer pool2
I0731 23:14:50.021601 21038 net.cpp:91] Creating Layer pool2
I0731 23:14:50.021607 21038 net.cpp:425] pool2 <- conv2
I0731 23:14:50.021615 21038 net.cpp:399] pool2 -> pool2
I0731 23:14:50.021678 21038 net.cpp:141] Setting up pool2
I0731 23:14:50.021689 21038 net.cpp:148] Top shape: 10 256 13 13 (432640)
I0731 23:14:50.021693 21038 net.cpp:156] Memory required for data: 51674680
I0731 23:14:50.021699 21038 layer_factory.hpp:77] Creating layer norm2
I0731 23:14:50.021713 21038 net.cpp:91] Creating Layer norm2
I0731 23:14:50.021718 21038 net.cpp:425] norm2 <- pool2
I0731 23:14:50.021725 21038 net.cpp:399] norm2 -> norm2
I0731 23:14:50.022007 21038 net.cpp:141] Setting up norm2
I0731 23:14:50.022020 21038 net.cpp:148] Top shape: 10 256 13 13 (432640)
I0731 23:14:50.022025 21038 net.cpp:156] Memory required for data: 53405240
I0731 23:14:50.022030 21038 layer_factory.hpp:77] Creating layer conv3
I0731 23:14:50.022045 21038 net.cpp:91] Creating Layer conv3
I0731 23:14:50.022053 21038 net.cpp:425] conv3 <- norm2
I0731 23:14:50.022060 21038 net.cpp:399] conv3 -> conv3
I0731 23:14:50.026530 21038 net.cpp:141] Setting up conv3
I0731 23:14:50.026551 21038 net.cpp:148] Top shape: 10 384 13 13 (648960)
I0731 23:14:50.026556 21038 net.cpp:156] Memory required for data: 56001080
I0731 23:14:50.026569 21038 layer_factory.hpp:77] Creating layer relu3
I0731 23:14:50.026579 21038 net.cpp:91] Creating Layer relu3
I0731 23:14:50.026584 21038 net.cpp:425] relu3 <- conv3
I0731 23:14:50.026594 21038 net.cpp:386] relu3 -> conv3 (in-place)
I0731 23:14:50.027084 21038 net.cpp:141] Setting up relu3
I0731 23:14:50.027098 21038 net.cpp:148] Top shape: 10 384 13 13 (648960)
I0731 23:14:50.027103 21038 net.cpp:156] Memory required for data: 58596920
I0731 23:14:50.027109 21038 layer_factory.hpp:77] Creating layer conv4
I0731 23:14:50.027123 21038 net.cpp:91] Creating Layer conv4
I0731 23:14:50.027129 21038 net.cpp:425] conv4 <- conv3
I0731 23:14:50.027137 21038 net.cpp:399] conv4 -> conv4
I0731 23:14:50.031677 21038 net.cpp:141] Setting up conv4
I0731 23:14:50.031693 21038 net.cpp:148] Top shape: 10 384 13 13 (648960)
I0731 23:14:50.031698 21038 net.cpp:156] Memory required for data: 61192760
I0731 23:14:50.031708 21038 layer_factory.hpp:77] Creating layer relu4
I0731 23:14:50.031718 21038 net.cpp:91] Creating Layer relu4
I0731 23:14:50.031723 21038 net.cpp:425] relu4 <- conv4
I0731 23:14:50.031734 21038 net.cpp:386] relu4 -> conv4 (in-place)
I0731 23:14:50.032254 21038 net.cpp:141] Setting up relu4
I0731 23:14:50.032269 21038 net.cpp:148] Top shape: 10 384 13 13 (648960)
I0731 23:14:50.032274 21038 net.cpp:156] Memory required for data: 63788600
I0731 23:14:50.032280 21038 layer_factory.hpp:77] Creating layer conv5
I0731 23:14:50.032296 21038 net.cpp:91] Creating Layer conv5
I0731 23:14:50.032302 21038 net.cpp:425] conv5 <- conv4
I0731 23:14:50.032312 21038 net.cpp:399] conv5 -> conv5
I0731 23:14:50.036675 21038 net.cpp:141] Setting up conv5
I0731 23:14:50.036692 21038 net.cpp:148] Top shape: 10 256 13 13 (432640)
I0731 23:14:50.036697 21038 net.cpp:156] Memory required for data: 65519160
I0731 23:14:50.036711 21038 layer_factory.hpp:77] Creating layer relu5
I0731 23:14:50.036725 21038 net.cpp:91] Creating Layer relu5
I0731 23:14:50.036731 21038 net.cpp:425] relu5 <- conv5
I0731 23:14:50.036737 21038 net.cpp:386] relu5 -> conv5 (in-place)
I0731 23:14:50.037237 21038 net.cpp:141] Setting up relu5
I0731 23:14:50.037252 21038 net.cpp:148] Top shape: 10 256 13 13 (432640)
I0731 23:14:50.037257 21038 net.cpp:156] Memory required for data: 67249720
I0731 23:14:50.037263 21038 layer_factory.hpp:77] Creating layer pool5
I0731 23:14:50.037276 21038 net.cpp:91] Creating Layer pool5
I0731 23:14:50.037282 21038 net.cpp:425] pool5 <- conv5
I0731 23:14:50.037289 21038 net.cpp:399] pool5 -> pool5
I0731 23:14:50.037358 21038 net.cpp:141] Setting up pool5
I0731 23:14:50.037369 21038 net.cpp:148] Top shape: 10 256 6 6 (92160)
I0731 23:14:50.037372 21038 net.cpp:156] Memory required for data: 67618360
I0731 23:14:50.037377 21038 layer_factory.hpp:77] Creating layer fc6
I0731 23:14:50.037400 21038 net.cpp:91] Creating Layer fc6
I0731 23:14:50.037405 21038 net.cpp:425] fc6 <- pool5
I0731 23:14:50.037412 21038 net.cpp:399] fc6 -> fc6
I0731 23:14:50.150143 21038 net.cpp:141] Setting up fc6
I0731 23:14:50.150194 21038 net.cpp:148] Top shape: 10 4096 (40960)
I0731 23:14:50.150200 21038 net.cpp:156] Memory required for data: 67782200
I0731 23:14:50.150216 21038 layer_factory.hpp:77] Creating layer relu6
I0731 23:14:50.150234 21038 net.cpp:91] Creating Layer relu6
I0731 23:14:50.150241 21038 net.cpp:425] relu6 <- fc6
I0731 23:14:50.150255 21038 net.cpp:386] relu6 -> fc6 (in-place)
I0731 23:14:50.150602 21038 net.cpp:141] Setting up relu6
I0731 23:14:50.150614 21038 net.cpp:148] Top shape: 10 4096 (40960)
I0731 23:14:50.150619 21038 net.cpp:156] Memory required for data: 67946040
I0731 23:14:50.150625 21038 layer_factory.hpp:77] Creating layer drop6
I0731 23:14:50.150640 21038 net.cpp:91] Creating Layer drop6
I0731 23:14:50.150646 21038 net.cpp:425] drop6 <- fc6
I0731 23:14:50.150653 21038 net.cpp:386] drop6 -> fc6 (in-place)
I0731 23:14:50.150709 21038 net.cpp:141] Setting up drop6
I0731 23:14:50.150720 21038 net.cpp:148] Top shape: 10 4096 (40960)
I0731 23:14:50.150725 21038 net.cpp:156] Memory required for data: 68109880
I0731 23:14:50.150730 21038 layer_factory.hpp:77] Creating layer fc7
I0731 23:14:50.150741 21038 net.cpp:91] Creating Layer fc7
I0731 23:14:50.150746 21038 net.cpp:425] fc7 <- fc6
I0731 23:14:50.150760 21038 net.cpp:399] fc7 -> fc7
I0731 23:14:50.201097 21038 net.cpp:141] Setting up fc7
I0731 23:14:50.201148 21038 net.cpp:148] Top shape: 10 4096 (40960)
I0731 23:14:50.201153 21038 net.cpp:156] Memory required for data: 68273720
I0731 23:14:50.201169 21038 layer_factory.hpp:77] Creating layer relu7
I0731 23:14:50.201186 21038 net.cpp:91] Creating Layer relu7
I0731 23:14:50.201194 21038 net.cpp:425] relu7 <- fc7
I0731 23:14:50.201207 21038 net.cpp:386] relu7 -> fc7 (in-place)
I0731 23:14:50.202031 21038 net.cpp:141] Setting up relu7
I0731 23:14:50.202045 21038 net.cpp:148] Top shape: 10 4096 (40960)
I0731 23:14:50.202051 21038 net.cpp:156] Memory required for data: 68437560
I0731 23:14:50.202056 21038 layer_factory.hpp:77] Creating layer drop7
I0731 23:14:50.202067 21038 net.cpp:91] Creating Layer drop7
I0731 23:14:50.202074 21038 net.cpp:425] drop7 <- fc7
I0731 23:14:50.202082 21038 net.cpp:386] drop7 -> fc7 (in-place)
I0731 23:14:50.202126 21038 net.cpp:141] Setting up drop7
I0731 23:14:50.202134 21038 net.cpp:148] Top shape: 10 4096 (40960)
I0731 23:14:50.202139 21038 net.cpp:156] Memory required for data: 68601400
I0731 23:14:50.202143 21038 layer_factory.hpp:77] Creating layer fc8
I0731 23:14:50.202162 21038 net.cpp:91] Creating Layer fc8
I0731 23:14:50.202168 21038 net.cpp:425] fc8 <- fc7
I0731 23:14:50.202177 21038 net.cpp:399] fc8 -> fc8
I0731 23:14:50.214642 21038 net.cpp:141] Setting up fc8
I0731 23:14:50.214694 21038 net.cpp:148] Top shape: 10 1000 (10000)
I0731 23:14:50.214700 21038 net.cpp:156] Memory required for data: 68641400
I0731 23:14:50.214717 21038 layer_factory.hpp:77] Creating layer prob
I0731 23:14:50.214735 21038 net.cpp:91] Creating Layer prob
I0731 23:14:50.214742 21038 net.cpp:425] prob <- fc8
I0731 23:14:50.214754 21038 net.cpp:399] prob -> prob
I0731 23:14:50.215220 21038 net.cpp:141] Setting up prob
I0731 23:14:50.215234 21038 net.cpp:148] Top shape: 10 1000 (10000)
I0731 23:14:50.215239 21038 net.cpp:156] Memory required for data: 68681400
I0731 23:14:50.215245 21038 net.cpp:219] prob does not need backward computation.
I0731 23:14:50.215250 21038 net.cpp:219] fc8 does not need backward computation.
I0731 23:14:50.215255 21038 net.cpp:219] drop7 does not need backward computation.
I0731 23:14:50.215260 21038 net.cpp:219] relu7 does not need backward computation.
…
W0731 23:14:51.851230 21028 upgrade_proto.cpp:71] Note that future Caffe releases will only support input layers and not input fields.
I0731 23:14:51.851608 21028 net.cpp:49] Initializing net from parameters: 
name: "s2vt:features_to_lstm"
state {
  phase: TEST
}
layer {
  name: "input"
  type: "Input"
  top: "frames_fc7"
  top: "cont_sentence"
  top: "input_sentence"
  top: "stage_indicator"
  input_param {
    shape {
      dim: 1
      dim: 4096
    }
    shape {
      dim: 1
      dim: 1
    }
    shape {
      dim: 1
      dim: 1
    }
    shape {
      dim: 1
      dim: 1
    }
  }
}
layer {
  name: "embed_encoder"
  type: "InnerProduct"
  bottom: "frames_fc7"
  top: "embedded_in_frames"
  param {
    lr_mult: 1
    decay_mult: 1
  }
  param {
    lr_mult: 2
    decay_mult: 0
  }
  inner_product_param {
    num_output: 500
    weight_filler {
      type: "xavier"
    }
    bias_filler {
      type: "constant"
      value: 0.2
    }
  }
}
layer {
  name: "reshape_frames"
  type: "Reshape"
  bottom: "embedded_in_frames"
  top: "embedded_input_frames"
  reshape_param {
    shape {
      dim: 1
      dim: 1
      dim: 500
    }
  }
}
layer {
  name: "reshape_stage_indicator"
  type: "Reshape"
  bottom: "stage_indicator"
  top: "reshaped_stage_indicator"
  reshape_param {
    shape {
      dim: 1
      dim: 1
      dim: 1
    }
  }
}
layer {
  name: "embedding"
  type: "Embed"
  bottom: "input_sentence"
  top: "embedded_input_sentence"
  param {
    lr_mult: 1
  }
  embed_param {
    num_output: 500
    input_dim: 46168
    bias_term: false
    weight_filler {
      type: "uniform"
      min: -0.08
      max: 0.08
    }
  }
}
layer {
  name: "lstm1"
  type: "LSTM"
  bottom: "embedded_input_frames"
  bottom: "cont_sentence"
  top: "lstm1"
  recurrent_param {
    num_output: 1000
    weight_filler {
      type: "uniform"
      min: -0.08
      max: 0.08
    }
    bias_filler {
      type: "constant"
      value: 0
    }
  }
}
layer {
  name: "concat"
  type: "Concat"
  bottom: "lstm1"
  bottom: "embedded_input_sentence"
  bottom: "reshaped_stage_indicator"
  top: "lstm1_video_sequence"
  concat_param {
    concat_dim: 2
  }
}
layer {
  name: "lstm2"
  type: "LSTM"
  bottom: "lstm1_video_sequence"
  bottom: "cont_sentence"
  top: "lstm2"
  recurrent_param {
    num_output: 1000
    weight_filler {
      type: "uniform"
      min: -0.08
      max: 0.08
    }
    bias_filler {
      type: "constant"
      value: 0
    }
  }
}
layer {
  name: "predict"
  type: "InnerProduct"
  bottom: "lstm2"
  top: "predict"
  param {
    lr_mult: 1
    decay_mult: 1
  }
  param {
    lr_mult: 2
    decay_mult: 0
  }
  inner_product_param {
    num_output: 46168
    weight_filler {
      type: "uniform"
      min: -0.08
      max: 0.08
    }
    bias_filler {
      type: "constant"
      value: 0
    }
    axis: 2
  }
}
layer {
  name: "probs"
  type: "Softmax"
  bottom: "predict"
  top: "probs"
  softmax_param {
    axis: 2
  }
}
I0731 23:14:51.851770 21028 layer_factory.hpp:77] Creating layer input
I0731 23:14:51.851861 21028 net.cpp:91] Creating Layer input
I0731 23:14:51.851872 21028 net.cpp:399] input -> frames_fc7
I0731 23:14:51.851892 21028 net.cpp:399] input -> cont_sentence
I0731 23:14:51.851905 21028 net.cpp:399] input -> input_sentence
I0731 23:14:51.851917 21028 net.cpp:399] input -> stage_indicator
I0731 23:14:51.852236 21028 net.cpp:141] Setting up input
I0731 23:14:51.852264 21028 net.cpp:148] Top shape: 1 4096 (4096)
I0731 23:14:51.852272 21028 net.cpp:148] Top shape: 1 1 (1)
I0731 23:14:51.852278 21028 net.cpp:148] Top shape: 1 1 (1)
I0731 23:14:51.852284 21028 net.cpp:148] Top shape: 1 1 (1)
I0731 23:14:51.852289 21028 net.cpp:156] Memory required for data: 16396
I0731 23:14:51.852296 21028 layer_factory.hpp:77] Creating layer cont_sentence_input_1_split
I0731 23:14:51.852315 21028 net.cpp:91] Creating Layer cont_sentence_input_1_split
I0731 23:14:51.852322 21028 net.cpp:425] cont_sentence_input_1_split <- cont_sentence
I0731 23:14:51.852345 21028 net.cpp:399] cont_sentence_input_1_split -> cont_sentence_input_1_split_0
I0731 23:14:51.852356 21028 net.cpp:399] cont_sentence_input_1_split -> cont_sentence_input_1_split_1
I0731 23:14:51.852452 21028 net.cpp:141] Setting up cont_sentence_input_1_split
I0731 23:14:51.852465 21028 net.cpp:148] Top shape: 1 1 (1)
I0731 23:14:51.852473 21028 net.cpp:148] Top shape: 1 1 (1)
I0731 23:14:51.852476 21028 net.cpp:156] Memory required for data: 16404
I0731 23:14:51.852481 21028 layer_factory.hpp:77] Creating layer embed_encoder
I0731 23:14:51.852504 21028 net.cpp:91] Creating Layer embed_encoder
I0731 23:14:51.852510 21028 net.cpp:425] embed_encoder <- frames_fc7
I0731 23:14:51.852519 21028 net.cpp:399] embed_encoder -> embedded_in_frames
I0731 23:14:51.884222 21028 net.cpp:141] Setting up embed_encoder
I0731 23:14:51.884265 21028 net.cpp:148] Top shape: 1 500 (500)
I0731 23:14:51.884271 21028 net.cpp:156] Memory required for data: 18404
I0731 23:14:51.884292 21028 layer_factory.hpp:77] Creating layer reshape_frames
I0731 23:14:51.884333 21028 net.cpp:91] Creating Layer reshape_frames
I0731 23:14:51.884342 21028 net.cpp:425] reshape_frames <- embedded_in_frames
I0731 23:14:51.884353 21028 net.cpp:399] reshape_frames -> embedded_input_frames
I0731 23:14:51.885269 21028 net.cpp:141] Setting up reshape_frames
I0731 23:14:51.885282 21028 net.cpp:148] Top shape: 1 1 500 (500)
I0731 23:14:51.885288 21028 net.cpp:156] Memory required for data: 20404
I0731 23:14:51.885293 21028 layer_factory.hpp:77] Creating layer reshape_stage_indicator
I0731 23:14:51.885304 21028 net.cpp:91] Creating Layer reshape_stage_indicator
I0731 23:14:51.885310 21028 net.cpp:425] reshape_stage_indicator <- stage_indicator
I0731 23:14:51.885319 21028 net.cpp:399] reshape_stage_indicator -> reshaped_stage_indicator
I0731 23:14:51.891697 21028 net.cpp:141] Setting up reshape_stage_indicator
I0731 23:14:51.891721 21028 net.cpp:148] Top shape: 1 1 1 (1)
I0731 23:14:51.891726 21028 net.cpp:156] Memory required for data: 20408
I0731 23:14:51.891732 21028 layer_factory.hpp:77] Creating layer embedding
I0731 23:14:51.891746 21028 net.cpp:91] Creating Layer embedding
I0731 23:14:51.891752 21028 net.cpp:425] embedding <- input_sentence
I0731 23:14:51.891762 21028 net.cpp:399] embedding -> embedded_input_sentence
I0731 23:14:52.152189 21028 net.cpp:141] Setting up embedding
I0731 23:14:52.152235 21028 net.cpp:148] Top shape: 1 1 500 (500)
I0731 23:14:52.152241 21028 net.cpp:156] Memory required for data: 22408
I0731 23:14:52.152258 21028 layer_factory.hpp:77] Creating layer lstm1
I0731 23:14:52.152295 21028 net.cpp:91] Creating Layer lstm1
I0731 23:14:52.152304 21028 net.cpp:425] lstm1 <- embedded_input_frames
I0731 23:14:52.152313 21028 net.cpp:425] lstm1 <- cont_sentence_input_1_split_0
I0731 23:14:52.152323 21028 net.cpp:399] lstm1 -> lstm1
I0731 23:14:52.152351 21028 recurrent_layer.cpp:20] Initializing recurrent layer: assuming input batch contains 1 timesteps of 1 independent streams.
I0731 23:14:52.152778 21028 net.cpp:49] Initializing net from parameters: 
layer {
  name: "lstm1_"
  type: "Input"
  top: "x"
  top: "cont"
  input_param {
    shape {
      dim: 1
      dim: 1
      dim: 500
    }
    shape {
      dim: 1
      dim: 1
    }
  }
}
layer {
  name: "lstm1_"
  type: "Input"
  top: "c_0"
  top: "h_0"
  input_param {
    shape {
      dim: 1
      dim: 1
      dim: 1000
    }
    shape {
      dim: 1
      dim: 1
      dim: 1000
    }
  }
}
layer {
  name: "lstm1_cont_slice"
  type: "Slice"
  bottom: "cont"
  top: "cont_1"
  slice_param {
    axis: 0
  }
}
layer {
  name: "lstm1_x_transform"
  type: "InnerProduct"
  bottom: "x"
  top: "W_xc_x"
  param {
    name: "W_xc"
  }
  param {
    name: "b_c"
  }
  propagate_down: true
  inner_product_param {
    num_output: 4000
    bias_term: true
    weight_filler {
      type: "uniform"
      min: -0.08
      max: 0.08
    }
    bias_filler {
      type: "constant"
      value: 0
    }
    axis: 2
  }
}
layer {
  name: "lstm1_W_xc_x_slice"
  type: "Slice"
  bottom: "W_xc_x"
  top: "W_xc_x_1"
  slice_param {
    axis: 0
  }
}
layer {
  name: "lstm1_h_conted_0"
  type: "Scale"
  bottom: "h_0"
  bottom: "cont_1"
  top: "h_conted_0"
  scale_param {
    axis: 0
  }
}
layer {
  name: "lstm1_transform_1"
  type: "InnerProduct"
  bottom: "h_conted_0"
  top: "W_hc_h_0"
  param {
    name: "W_hc"
  }
  inner_product_param {
    num_output: 4000
    bias_term: false
    weight_filler {
      type: "uniform"
      min: -0.08
      max: 0.08
    }
    axis: 2
  }
}
layer {
  name: "lstm1_gate_input_1"
  type: "Eltwise"
  bottom: "W_hc_h_0"
  bottom: "W_xc_x_1"
  top: "gate_input_1"
  eltwise_param {
    operation: SUM
  }
}
layer {
  name: "lstm1_unit_1"
  type: "LSTMUnit"
  bottom: "c_0"
  bottom: "gate_input_1"
  bottom: "cont_1"
  top: "c_1"
  top: "h_1"
}
layer {
  name: "lstm1_"
  type: "Split"
  bottom: "c_1"
  top: "c_T"
}
layer {
  name: "lstm1_h_concat"
  type: "Concat"
  bottom: "h_1"
  top: "h"
  concat_param {
    axis: 0
  }
}
layer {
  name: "h_pseudoloss"
  type: "Reduction"
  bottom: "h"
  top: "h_pseudoloss"
  loss_weight: 1
}
I0731 23:14:52.152886 21028 layer_factory.hpp:77] Creating layer lstm1_
I0731 23:14:52.152904 21028 net.cpp:91] Creating Layer lstm1_
I0731 23:14:52.152910 21028 net.cpp:399] lstm1_ -> x
I0731 23:14:52.152923 21028 net.cpp:399] lstm1_ -> cont
I0731 23:14:52.153633 21028 net.cpp:141] Setting up lstm1_
I0731 23:14:52.153655 21028 net.cpp:148] Top shape: 1 1 500 (500)
I0731 23:14:52.153661 21028 net.cpp:148] Top shape: 1 1 (1)
I0731 23:14:52.153666 21028 net.cpp:156] Memory required for data: 2004
I0731 23:14:52.153671 21028 layer_factory.hpp:77] Creating layer lstm1_
I0731 23:14:52.153689 21028 net.cpp:91] Creating Layer lstm1_
I0731 23:14:52.153697 21028 net.cpp:399] lstm1_ -> c_0
I0731 23:14:52.153709 21028 net.cpp:399] lstm1_ -> h_0
I0731 23:14:52.153836 21028 net.cpp:141] Setting up lstm1_
I0731 23:14:52.153848 21028 net.cpp:148] Top shape: 1 1 1000 (1000)
I0731 23:14:52.153854 21028 net.cpp:148] Top shape: 1 1 1000 (1000)
I0731 23:14:52.153859 21028 net.cpp:156] Memory required for data: 10004
I0731 23:14:52.153864 21028 layer_factory.hpp:77] Creating layer lstm1_cont_slice
I0731 23:14:52.153874 21028 net.cpp:91] Creating Layer lstm1_cont_slice
I0731 23:14:52.153879 21028 net.cpp:425] lstm1_cont_slice <- cont
I0731 23:14:52.153890 21028 net.cpp:399] lstm1_cont_slice -> cont_1
I0731 23:14:52.153947 21028 net.cpp:141] Setting up lstm1_cont_slice
I0731 23:14:52.153959 21028 net.cpp:148] Top shape: 1 1 (1)
I0731 23:14:52.153964 21028 net.cpp:156] Memory required for data: 10008
I0731 23:14:52.153969 21028 layer_factory.hpp:77] Creating layer cont_1_lstm1_cont_slice_0_split
I0731 23:14:52.153977 21028 net.cpp:91] Creating Layer cont_1_lstm1_cont_slice_0_split
I0731 23:14:52.153982 21028 net.cpp:425] cont_1_lstm1_cont_slice_0_split <- cont_1
I0731 23:14:52.153990 21028 net.cpp:399] cont_1_lstm1_cont_slice_0_split -> cont_1_lstm1_cont_slice_0_split_0
I0731 23:14:52.153998 21028 net.cpp:399] cont_1_lstm1_cont_slice_0_split -> cont_1_lstm1_cont_slice_0_split_1
I0731 23:14:52.154063 21028 net.cpp:141] Setting up cont_1_lstm1_cont_slice_0_split
I0731 23:14:52.154073 21028 net.cpp:148] Top shape: 1 1 (1)
I0731 23:14:52.154080 21028 net.cpp:148] Top shape: 1 1 (1)
I0731 23:14:52.154084 21028 net.cpp:156] Memory required for data: 10016
I0731 23:14:52.154089 21028 layer_factory.hpp:77] Creating layer lstm1_x_transform
I0731 23:14:52.154104 21028 net.cpp:91] Creating Layer lstm1_x_transform
I0731 23:14:52.154109 21028 net.cpp:425] lstm1_x_transform <- x
I0731 23:14:52.154119 21028 net.cpp:399] lstm1_x_transform -> W_xc_x
I0731 23:14:52.177634 21028 net.cpp:141] Setting up lstm1_x_transform
I0731 23:14:52.177675 21028 net.cpp:148] Top shape: 1 1 4000 (4000)
I0731 23:14:52.177680 21028 net.cpp:156] Memory required for data: 26016
I0731 23:14:52.177700 21028 layer_factory.hpp:77] Creating layer lstm1_W_xc_x_slice
I0731 23:14:52.177714 21028 net.cpp:91] Creating Layer lstm1_W_xc_x_slice
I0731 23:14:52.177721 21028 net.cpp:425] lstm1_W_xc_x_slice <- W_xc_x
I0731 23:14:52.177733 21028 net.cpp:399] lstm1_W_xc_x_slice -> W_xc_x_1
I0731 23:14:52.177781 21028 net.cpp:141] Setting up lstm1_W_xc_x_slice
I0731 23:14:52.177791 21028 net.cpp:148] Top shape: 1 1 4000 (4000)
I0731 23:14:52.177796 21028 net.cpp:156] Memory required for data: 42016
I0731 23:14:52.177801 21028 layer_factory.hpp:77] Creating layer lstm1_h_conted_0
I0731 23:14:52.177830 21028 net.cpp:91] Creating Layer lstm1_h_conted_0
I0731 23:14:52.177837 21028 net.cpp:425] lstm1_h_conted_0 <- h_0
I0731 23:14:52.177845 21028 net.cpp:425] lstm1_h_conted_0 <- cont_1_lstm1_cont_slice_0_split_0
I0731 23:14:52.177856 21028 net.cpp:399] lstm1_h_conted_0 -> h_conted_0
I0731 23:14:52.177994 21028 net.cpp:141] Setting up lstm1_h_conted_0
I0731 23:14:52.178004 21028 net.cpp:148] Top shape: 1 1 1000 (1000)
I0731 23:14:52.178009 21028 net.cpp:156] Memory required for data: 46016
I0731 23:14:52.178014 21028 layer_factory.hpp:77] Creating layer lstm1_transform_1
I0731 23:14:52.178026 21028 net.cpp:91] Creating Layer lstm1_transform_1
I0731 23:14:52.178031 21028 net.cpp:425] lstm1_transform_1 <- h_conted_0
I0731 23:14:52.178043 21028 net.cpp:399] lstm1_transform_1 -> W_hc_h_0
I0731 23:14:52.220474 21028 net.cpp:141] Setting up lstm1_transform_1
I0731 23:14:52.220516 21028 net.cpp:148] Top shape: 1 1 4000 (4000)
I0731 23:14:52.220522 21028 net.cpp:156] Memory required for data: 62016
I0731 23:14:52.220541 21028 layer_factory.hpp:77] Creating layer lstm1_gate_input_1
I0731 23:14:52.220562 21028 net.cpp:91] Creating Layer lstm1_gate_input_1
I0731 23:14:52.220569 21028 net.cpp:425] lstm1_gate_input_1 <- W_hc_h_0
I0731 23:14:52.220579 21028 net.cpp:425] lstm1_gate_input_1 <- W_xc_x_1
I0731 23:14:52.220587 21028 net.cpp:399] lstm1_gate_input_1 -> gate_input_1
I0731 23:14:52.220655 21028 net.cpp:141] Setting up lstm1_gate_input_1
I0731 23:14:52.220666 21028 net.cpp:148] Top shape: 1 1 4000 (4000)
I0731 23:14:52.220670 21028 net.cpp:156] Memory required for data: 78016
I0731 23:14:52.220675 21028 layer_factory.hpp:77] Creating layer lstm1_unit_1
I0731 23:14:52.220685 21028 net.cpp:91] Creating Layer lstm1_unit_1
I0731 23:14:52.220690 21028 net.cpp:425] lstm1_unit_1 <- c_0
I0731 23:14:52.220696 21028 net.cpp:425] lstm1_unit_1 <- gate_input_1
I0731 23:14:52.220702 21028 net.cpp:425] lstm1_unit_1 <- cont_1_lstm1_cont_slice_0_split_1
I0731 23:14:52.220712 21028 net.cpp:399] lstm1_unit_1 -> c_1
I0731 23:14:52.220722 21028 net.cpp:399] lstm1_unit_1 -> h_1
I0731 23:14:52.220804 21028 net.cpp:141] Setting up lstm1_unit_1
I0731 23:14:52.220815 21028 net.cpp:148] Top shape: 1 1 1000 (1000)
I0731 23:14:52.220821 21028 net.cpp:148] Top shape: 1 1 1000 (1000)
I0731 23:14:52.220826 21028 net.cpp:156] Memory required for data: 86016
I0731 23:14:52.220830 21028 layer_factory.hpp:77] Creating layer lstm1_
I0731 23:14:52.220839 21028 net.cpp:91] Creating Layer lstm1_
I0731 23:14:52.220845 21028 net.cpp:425] lstm1_ <- c_1
I0731 23:14:52.220852 21028 net.cpp:399] lstm1_ -> c_T
I0731 23:14:52.220895 21028 net.cpp:141] Setting up lstm1_
I0731 23:14:52.220904 21028 net.cpp:148] Top shape: 1 1 1000 (1000)
I0731 23:14:52.220908 21028 net.cpp:156] Memory required for data: 90016
I0731 23:14:52.220913 21028 layer_factory.hpp:77] Creating layer lstm1_h_concat
I0731 23:14:52.220923 21028 net.cpp:91] Creating Layer lstm1_h_concat
I0731 23:14:52.220928 21028 net.cpp:425] lstm1_h_concat <- h_1
I0731 23:14:52.220937 21028 net.cpp:399] lstm1_h_concat -> h
I0731 23:14:52.220993 21028 net.cpp:141] Setting up lstm1_h_concat
I0731 23:14:52.221004 21028 net.cpp:148] Top shape: 1 1 1000 (1000)
I0731 23:14:52.221009 21028 net.cpp:156] Memory required for data: 94016
I0731 23:14:52.221014 21028 layer_factory.hpp:77] Creating layer h_pseudoloss
I0731 23:14:52.221029 21028 net.cpp:91] Creating Layer h_pseudoloss
I0731 23:14:52.221034 21028 net.cpp:425] h_pseudoloss <- h
I0731 23:14:52.221041 21028 net.cpp:399] h_pseudoloss -> h_pseudoloss
I0731 23:14:52.225255 21028 net.cpp:141] Setting up h_pseudoloss
…
I0731 23:14:52.225383 21028 net.cpp:219] lstm1_ does not need backward computation.
I0731 23:14:52.225388 21028 net.cpp:261] This network produces output c_T
I0731 23:14:52.225392 21028 net.cpp:261] This network produces output h_pseudoloss
I0731 23:14:52.225409 21028 net.cpp:274] Network initialization done.
I0731 23:14:52.225463 21028 recurrent_layer.cpp:150] Adding parameter 0: W_xc
I0731 23:14:52.225471 21028 recurrent_layer.cpp:150] Adding parameter 1: b_c
I0731 23:14:52.225476 21028 recurrent_layer.cpp:150] Adding parameter 2: W_hc
I0731 23:14:52.225596 21028 net.cpp:141] Setting up lstm1
I0731 23:14:52.225610 21028 net.cpp:148] Top shape: 1 1 1000 (1000)
I0731 23:14:52.225613 21028 net.cpp:156] Memory required for data: 26408
I0731 23:14:52.225627 21028 layer_factory.hpp:77] Creating layer concat
I0731 23:14:52.225637 21028 net.cpp:91] Creating Layer concat
I0731 23:14:52.225643 21028 net.cpp:425] concat <- lstm1
I0731 23:14:52.225651 21028 net.cpp:425] concat <- embedded_input_sentence
I0731 23:14:52.225657 21028 net.cpp:425] concat <- reshaped_stage_indicator
I0731 23:14:52.225664 21028 net.cpp:399] concat -> lstm1_video_sequence
I0731 23:14:52.225704 21028 net.cpp:141] Setting up concat
I0731 23:14:52.225713 21028 net.cpp:148] Top shape: 1 1 1501 (1501)
I0731 23:14:52.225718 21028 net.cpp:156] Memory required for data: 32412
I0731 23:14:52.225723 21028 layer_factory.hpp:77] Creating layer lstm2
I0731 23:14:52.225736 21028 net.cpp:91] Creating Layer lstm2
I0731 23:14:52.225741 21028 net.cpp:425] lstm2 <- lstm1_video_sequence
I0731 23:14:52.225749 21028 net.cpp:425] lstm2 <- cont_sentence_input_1_split_1
I0731 23:14:52.225755 21028 net.cpp:399] lstm2 -> lstm2
I0731 23:14:52.225766 21028 recurrent_layer.cpp:20] Initializing recurrent layer: assuming input batch contains 1 timesteps of 1 independent streams.
I0731 23:14:52.226039 21028 net.cpp:49] Initializing net from parameters: 
layer {
  name: "lstm2_"
  type: "Input"
  top: "x"
  top: "cont"
  input_param {
    shape {
      dim: 1
      dim: 1
      dim: 1501
    }
    shape {
      dim: 1
      dim: 1
    }
  }
}
layer {
  name: "lstm2_"
  type: "Input"
  top: "c_0"
  top: "h_0"
  input_param {
    shape {
      dim: 1
      dim: 1
      dim: 1000
    }
    shape {
      dim: 1
      dim: 1
      dim: 1000
    }
  }
}
layer {
  name: "lstm2_cont_slice"
  type: "Slice"
  bottom: "cont"
  top: "cont_1"
  slice_param {
    axis: 0
  }
}
layer {
  name: "lstm2_x_transform"
  type: "InnerProduct"
  bottom: "x"
  top: "W_xc_x"
  param {
    name: "W_xc"
  }
  param {
    name: "b_c"
  }
  propagate_down: true
  inner_product_param {
    num_output: 4000
    bias_term: true
    weight_filler {
      type: "uniform"
      min: -0.08
      max: 0.08
    }
    bias_filler {
      type: "constant"
      value: 0
    }
    axis: 2
  }
}
layer {
  name: "lstm2_W_xc_x_slice"
  type: "Slice"
  bottom: "W_xc_x"
  top: "W_xc_x_1"
  slice_param {
    axis: 0
  }
}
layer {
  name: "lstm2_h_conted_0"
  type: "Scale"
  bottom: "h_0"
  bottom: "cont_1"
  top: "h_conted_0"
  scale_param {
    axis: 0
  }
}
layer {
  name: "lstm2_transform_1"
  type: "InnerProduct"
  bottom: "h_conted_0"
  top: "W_hc_h_0"
  param {
    name: "W_hc"
  }
  inner_product_param {
    num_output: 4000
    bias_term: false
    weight_filler {
      type: "uniform"
      min: -0.08
      max: 0.08
    }
    axis: 2
  }
}
layer {
  name: "lstm2_gate_input_1"
  type: "Eltwise"
  bottom: "W_hc_h_0"
  bottom: "W_xc_x_1"
  top: "gate_input_1"
  eltwise_param {
    operation: SUM
  }
}
layer {
  name: "lstm2_unit_1"
  type: "LSTMUnit"
  bottom: "c_0"
  bottom: "gate_input_1"
  bottom: "cont_1"
  top: "c_1"
  top: "h_1"
}
layer {
  name: "lstm2_"
  type: "Split"
  bottom: "c_1"
  top: "c_T"
}
layer {
  name: "lstm2_h_concat"
  type: "Concat"
  bottom: "h_1"
  top: "h"
  concat_param {
    axis: 0
  }
}
layer {
  name: "h_pseudoloss"
  type: "Reduction"
  bottom: "h"
  top: "h_pseudoloss"
  loss_weight: 1
}
I0731 23:14:52.226135 21028 layer_factory.hpp:77] Creating layer lstm2_
I0731 23:14:52.226147 21028 net.cpp:91] Creating Layer lstm2_
I0731 23:14:52.226155 21028 net.cpp:399] lstm2_ -> x
I0731 23:14:52.226166 21028 net.cpp:399] lstm2_ -> cont
I0731 23:14:52.226230 21028 net.cpp:141] Setting up lstm2_
I0731 23:14:52.226240 21028 net.cpp:148] Top shape: 1 1 1501 (1501)
I0731 23:14:52.226248 21028 net.cpp:148] Top shape: 1 1 (1)
I0731 23:14:52.226253 21028 net.cpp:156] Memory required for data: 6008
I0731 23:14:52.226258 21028 layer_factory.hpp:77] Creating layer lstm2_
I0731 23:14:52.226267 21028 net.cpp:91] Creating Layer lstm2_
I0731 23:14:52.226276 21028 net.cpp:399] lstm2_ -> c_0
I0731 23:14:52.226287 21028 net.cpp:399] lstm2_ -> h_0
I0731 23:14:52.226346 21028 net.cpp:141] Setting up lstm2_
I0731 23:14:52.226356 21028 net.cpp:148] Top shape: 1 1 1000 (1000)
I0731 23:14:52.226361 21028 net.cpp:148] Top shape: 1 1 1000 (1000)
I0731 23:14:52.226366 21028 net.cpp:156] Memory required for data: 14008
I0731 23:14:52.226371 21028 layer_factory.hpp:77] Creating layer lstm2_cont_slice
I0731 23:14:52.226380 21028 net.cpp:91] Creating Layer lstm2_cont_slice
I0731 23:14:52.226385 21028 net.cpp:425] lstm2_cont_slice <- cont
I0731 23:14:52.226392 21028 net.cpp:399] lstm2_cont_slice -> cont_1
I0731 23:14:52.226429 21028 net.cpp:141] Setting up lstm2_cont_slice
I0731 23:14:52.226439 21028 net.cpp:148] Top shape: 1 1 (1)
I0731 23:14:52.226444 21028 net.cpp:156] Memory required for data: 14012
I0731 23:14:52.226449 21028 layer_factory.hpp:77] Creating layer cont_1_lstm2_cont_slice_0_split
I0731 23:14:52.226459 21028 net.cpp:91] Creating Layer cont_1_lstm2_cont_slice_0_split
I0731 23:14:52.226464 21028 net.cpp:425] cont_1_lstm2_cont_slice_0_split <- cont_1
I0731 23:14:52.226471 21028 net.cpp:399] cont_1_lstm2_cont_slice_0_split -> cont_1_lstm2_cont_slice_0_split_0
I0731 23:14:52.226482 21028 net.cpp:399] cont_1_lstm2_cont_slice_0_split -> cont_1_lstm2_cont_slice_0_split_1
I0731 23:14:52.226536 21028 net.cpp:141] Setting up cont_1_lstm2_cont_slice_0_split
I0731 23:14:52.226547 21028 net.cpp:148] Top shape: 1 1 (1)
I0731 23:14:52.226552 21028 net.cpp:148] Top shape: 1 1 (1)
I0731 23:14:52.226557 21028 net.cpp:156] Memory required for data: 14020
I0731 23:14:52.226562 21028 layer_factory.hpp:77] Creating layer lstm2_x_transform
I0731 23:14:52.226574 21028 net.cpp:91] Creating Layer lstm2_x_transform
I0731 23:14:52.226580 21028 net.cpp:425] lstm2_x_transform <- x
I0731 23:14:52.226588 21028 net.cpp:399] lstm2_x_transform -> W_xc_x
I0731 23:14:52.293848 21028 net.cpp:141] Setting up lstm2_x_transform
I0731 23:14:52.293898 21028 net.cpp:148] Top shape: 1 1 4000 (4000)
I0731 23:14:52.293905 21028 net.cpp:156] Memory required for data: 30020
I0731 23:14:52.293927 21028 layer_factory.hpp:77] Creating layer lstm2_W_xc_x_slice
I0731 23:14:52.293943 21028 net.cpp:91] Creating Layer lstm2_W_xc_x_slice
I0731 23:14:52.293951 21028 net.cpp:425] lstm2_W_xc_x_slice <- W_xc_x
I0731 23:14:52.293962 21028 net.cpp:399] lstm2_W_xc_x_slice -> W_xc_x_1
I0731 23:14:52.294020 21028 net.cpp:141] Setting up lstm2_W_xc_x_slice
I0731 23:14:52.294031 21028 net.cpp:148] Top shape: 1 1 4000 (4000)
I0731 23:14:52.294036 21028 net.cpp:156] Memory required for data: 46020
I0731 23:14:52.294041 21028 layer_factory.hpp:77] Creating layer lstm2_h_conted_0
I0731 23:14:52.294051 21028 net.cpp:91] Creating Layer lstm2_h_conted_0
I0731 23:14:52.294057 21028 net.cpp:425] lstm2_h_conted_0 <- h_0
I0731 23:14:52.294064 21028 net.cpp:425] lstm2_h_conted_0 <- cont_1_lstm2_cont_slice_0_split_0
I0731 23:14:52.294071 21028 net.cpp:399] lstm2_h_conted_0 -> h_conted_0
I0731 23:14:52.294178 21028 net.cpp:141] Setting up lstm2_h_conted_0
I0731 23:14:52.294188 21028 net.cpp:148] Top shape: 1 1 1000 (1000)
I0731 23:14:52.294193 21028 net.cpp:156] Memory required for data: 50020
I0731 23:14:52.294198 21028 layer_factory.hpp:77] Creating layer lstm2_transform_1
I0731 23:14:52.294211 21028 net.cpp:91] Creating Layer lstm2_transform_1
I0731 23:14:52.294216 21028 net.cpp:425] lstm2_transform_1 <- h_conted_0
I0731 23:14:52.294225 21028 net.cpp:399] lstm2_transform_1 -> W_hc_h_0
I0731 23:14:52.341425 21028 net.cpp:141] Setting up lstm2_transform_1
I0731 23:14:52.341480 21028 net.cpp:148] Top shape: 1 1 4000 (4000)
I0731 23:14:52.341486 21028 net.cpp:156] Memory required for data: 66020
I0731 23:14:52.341506 21028 layer_factory.hpp:77] Creating layer lstm2_gate_input_1
I0731 23:14:52.341524 21028 net.cpp:91] Creating Layer lstm2_gate_input_1
I0731 23:14:52.341531 21028 net.cpp:425] lstm2_gate_input_1 <- W_hc_h_0
I0731 23:14:52.341541 21028 net.cpp:425] lstm2_gate_input_1 <- W_xc_x_1
I0731 23:14:52.341548 21028 net.cpp:399] lstm2_gate_input_1 -> gate_input_1
I0731 23:14:52.341609 21028 net.cpp:141] Setting up lstm2_gate_input_1
I0731 23:14:52.341619 21028 net.cpp:148] Top shape: 1 1 4000 (4000)
I0731 23:14:52.341624 21028 net.cpp:156] Memory required for data: 82020
I0731 23:14:52.341629 21028 layer_factory.hpp:77] Creating layer lstm2_unit_1
I0731 23:14:52.341639 21028 net.cpp:91] Creating Layer lstm2_unit_1
I0731 23:14:52.341645 21028 net.cpp:425] lstm2_unit_1 <- c_0
I0731 23:14:52.341651 21028 net.cpp:425] lstm2_unit_1 <- gate_input_1
I0731 23:14:52.341657 21028 net.cpp:425] lstm2_unit_1 <- cont_1_lstm2_cont_slice_0_split_1
I0731 23:14:52.341665 21028 net.cpp:399] lstm2_unit_1 -> c_1
I0731 23:14:52.341675 21028 net.cpp:399] lstm2_unit_1 -> h_1
I0731 23:14:52.341748 21028 net.cpp:141] Setting up lstm2_unit_1
I0731 23:14:52.341758 21028 net.cpp:148] Top shape: 1 1 1000 (1000)
I0731 23:14:52.341764 21028 net.cpp:148] Top shape: 1 1 1000 (1000)
I0731 23:14:52.341769 21028 net.cpp:156] Memory required for data: 90020
I0731 23:14:52.341774 21028 layer_factory.hpp:77] Creating layer lstm2_
I0731 23:14:52.341783 21028 net.cpp:91] Creating Layer lstm2_
I0731 23:14:52.341787 21028 net.cpp:425] lstm2_ <- c_1
I0731 23:14:52.341795 21028 net.cpp:399] lstm2_ -> c_T
I0731 23:14:52.341830 21028 net.cpp:141] Setting up lstm2_
I0731 23:14:52.341840 21028 net.cpp:148] Top shape: 1 1 1000 (1000)
I0731 23:14:52.341843 21028 net.cpp:156] Memory required for data: 94020
I0731 23:14:52.341848 21028 layer_factory.hpp:77] Creating layer lstm2_h_concat
I0731 23:14:52.341862 21028 net.cpp:91] Creating Layer lstm2_h_concat
I0731 23:14:52.341867 21028 net.cpp:425] lstm2_h_concat <- h_1
I0731 23:14:52.341876 21028 net.cpp:399] lstm2_h_concat -> h
I0731 23:14:52.341917 21028 net.cpp:141] Setting up lstm2_h_concat
I0731 23:14:52.341927 21028 net.cpp:148] Top shape: 1 1 1000 (1000)
I0731 23:14:52.341935 21028 net.cpp:156] Memory required for data: 98020
I0731 23:14:52.341940 21028 layer_factory.hpp:77] Creating layer h_pseudoloss
I0731 23:14:52.341950 21028 net.cpp:91] Creating Layer h_pseudoloss
I0731 23:14:52.341955 21028 net.cpp:425] h_pseudoloss <- h
I0731 23:14:52.341964 21028 net.cpp:399] h_pseudoloss -> h_pseudoloss
I0731 23:14:52.342067 21028 net.cpp:141] Setting up h_pseudoloss
…
