…
Java HotSpot(TM) 64-Bit Server VM warning: You have loaded library /tmp/cvld6137869080996153654/libopencv_java310.xine1.so which might have disabled stack guard. The VM will try to fix the stack guard now.
It's highly recommended that you fix the library with 'execstack -c <libfile>', or link it with '-z noexecstack'.
WARNING: Logging before InitGoogleLogging() is written to STDERR
I0802 07:41:29.697394 18658 net.cpp:49] Initializing net from parameters: 
name: "CaffeNet"
state {
  phase: TEST
}
layer {
  name: "data"
  type: "Input"
  top: "data"
  input_param {
    shape {
      dim: 10
      dim: 3
      dim: 227
      dim: 227
    }
  }
}
layer {
  name: "conv1"
  type: "Convolution"
  bottom: "data"
  top: "conv1"
  convolution_param {
    num_output: 96
    kernel_size: 11
    stride: 4
  }
}
layer {
  name: "relu1"
  type: "ReLU"
  bottom: "conv1"
  top: "conv1"
}
layer {
  name: "pool1"
  type: "Pooling"
  bottom: "conv1"
  top: "pool1"
  pooling_param {
    pool: MAX
    kernel_size: 3
    stride: 2
  }
}
layer {
  name: "norm1"
  type: "LRN"
  bottom: "pool1"
  top: "norm1"
  lrn_param {
    local_size: 5
    alpha: 0.0001
    beta: 0.75
  }
}
layer {
  name: "conv2"
  type: "Convolution"
  bottom: "norm1"
  top: "conv2"
  convolution_param {
    num_output: 256
    pad: 2
    kernel_size: 5
    group: 2
  }
}
layer {
  name: "relu2"
  type: "ReLU"
  bottom: "conv2"
  top: "conv2"
}
layer {
  name: "pool2"
  type: "Pooling"
  bottom: "conv2"
  top: "pool2"
  pooling_param {
    pool: MAX
    kernel_size: 3
    stride: 2
  }
}
layer {
  name: "norm2"
  type: "LRN"
  bottom: "pool2"
  top: "norm2"
  lrn_param {
    local_size: 5
    alpha: 0.0001
    beta: 0.75
  }
}
layer {
  name: "conv3"
  type: "Convolution"
  bottom: "norm2"
  top: "conv3"
  convolution_param {
    num_output: 384
    pad: 1
    kernel_size: 3
  }
}
layer {
  name: "relu3"
  type: "ReLU"
  bottom: "conv3"
  top: "conv3"
}
layer {
  name: "conv4"
  type: "Convolution"
  bottom: "conv3"
  top: "conv4"
  convolution_param {
    num_output: 384
    pad: 1
    kernel_size: 3
    group: 2
  }
}
layer {
  name: "relu4"
  type: "ReLU"
  bottom: "conv4"
  top: "conv4"
}
layer {
  name: "conv5"
  type: "Convolution"
  bottom: "conv4"
  top: "conv5"
  convolution_param {
    num_output: 256
    pad: 1
    kernel_size: 3
    group: 2
  }
}
layer {
  name: "relu5"
  type: "ReLU"
  bottom: "conv5"
  top: "conv5"
}
layer {
  name: "pool5"
  type: "Pooling"
  bottom: "conv5"
  top: "pool5"
  pooling_param {
    pool: MAX
    kernel_size: 3
    stride: 2
  }
}
layer {
  name: "fc6"
  type: "InnerProduct"
  bottom: "pool5"
  top: "fc6"
  inner_product_param {
    num_output: 4096
  }
}
layer {
  name: "relu6"
  type: "ReLU"
  bottom: "fc6"
  top: "fc6"
}
layer {
  name: "drop6"
  type: "Dropout"
  bottom: "fc6"
  top: "fc6"
  dropout_param {
    dropout_ratio: 0.5
  }
}
layer {
  name: "fc7"
  type: "InnerProduct"
  bottom: "fc6"
  top: "fc7"
  inner_product_param {
    num_output: 4096
  }
}
layer {
  name: "relu7"
  type: "ReLU"
  bottom: "fc7"
  top: "fc7"
}
layer {
  name: "drop7"
  type: "Dropout"
  bottom: "fc7"
  top: "fc7"
  dropout_param {
    dropout_ratio: 0.5
  }
}
layer {
  name: "fc8"
  type: "InnerProduct"
  bottom: "fc7"
  top: "fc8"
  inner_product_param {
    num_output: 1000
  }
}
layer {
  name: "prob"
  type: "Softmax"
  bottom: "fc8"
  top: "prob"
}
I0802 07:41:29.697607 18658 layer_factory.hpp:77] Creating layer data
I0802 07:41:29.697633 18658 net.cpp:91] Creating Layer data
I0802 07:41:29.697643 18658 net.cpp:399] data -> data
I0802 07:41:30.218174 18658 net.cpp:141] Setting up data
I0802 07:41:30.218278 18658 net.cpp:148] Top shape: 10 3 227 227 (1545870)
I0802 07:41:30.218287 18658 net.cpp:156] Memory required for data: 6183480
I0802 07:41:30.218307 18658 layer_factory.hpp:77] Creating layer conv1
I0802 07:41:30.218338 18658 net.cpp:91] Creating Layer conv1
I0802 07:41:30.218348 18658 net.cpp:425] conv1 <- data
I0802 07:41:30.218364 18658 net.cpp:399] conv1 -> conv1
I0802 07:41:30.398128 18648 upgrade_proto.cpp:66] Attempting to upgrade input file specified using deprecated input fields: /tmp/cvld6137869080996153654/s2vt.words_to_preds.prototxt
I0802 07:41:30.398181 18648 upgrade_proto.cpp:69] Successfully upgraded file specified using deprecated input fields.
W0802 07:41:30.398190 18648 upgrade_proto.cpp:71] Note that future Caffe releases will only support input layers and not input fields.
I0802 07:41:30.398468 18648 net.cpp:49] Initializing net from parameters: 
name: "s2vt:features_to_lstm"
state {
  phase: TEST
}
layer {
  name: "input"
  type: "Input"
  top: "frames_fc7"
  top: "cont_sentence"
  top: "input_sentence"
  top: "stage_indicator"
  input_param {
    shape {
      dim: 1
      dim: 4096
    }
    shape {
      dim: 1
      dim: 1
    }
    shape {
      dim: 1
      dim: 1
    }
    shape {
      dim: 1
      dim: 1
    }
  }
}
layer {
  name: "embed_encoder"
  type: "InnerProduct"
  bottom: "frames_fc7"
  top: "embedded_in_frames"
  param {
    lr_mult: 1
    decay_mult: 1
  }
  param {
    lr_mult: 2
    decay_mult: 0
  }
  inner_product_param {
    num_output: 500
    weight_filler {
      type: "xavier"
    }
    bias_filler {
      type: "constant"
      value: 0.2
    }
  }
}
layer {
  name: "reshape_frames"
  type: "Reshape"
  bottom: "embedded_in_frames"
  top: "embedded_input_frames"
  reshape_param {
    shape {
      dim: 1
      dim: 1
      dim: 500
    }
  }
}
layer {
  name: "reshape_stage_indicator"
  type: "Reshape"
  bottom: "stage_indicator"
  top: "reshaped_stage_indicator"
  reshape_param {
    shape {
      dim: 1
      dim: 1
      dim: 1
    }
  }
}
layer {
  name: "embedding"
  type: "Embed"
  bottom: "input_sentence"
  top: "embedded_input_sentence"
  param {
    lr_mult: 1
  }
  embed_param {
    num_output: 500
    input_dim: 46168
    bias_term: false
    weight_filler {
      type: "uniform"
      min: -0.08
      max: 0.08
    }
  }
}
layer {
  name: "lstm1"
  type: "LSTM"
  bottom: "embedded_input_frames"
  bottom: "cont_sentence"
  top: "lstm1"
  recurrent_param {
    num_output: 1000
    weight_filler {
      type: "uniform"
      min: -0.08
      max: 0.08
    }
    bias_filler {
      type: "constant"
      value: 0
    }
  }
}
layer {
  name: "concat"
  type: "Concat"
  bottom: "lstm1"
  bottom: "embedded_input_sentence"
  bottom: "reshaped_stage_indicator"
  top: "lstm1_video_sequence"
  concat_param {
    concat_dim: 2
  }
}
layer {
  name: "lstm2"
  type: "LSTM"
  bottom: "lstm1_video_sequence"
  bottom: "cont_sentence"
  top: "lstm2"
  recurrent_param {
    num_output: 1000
    weight_filler {
      type: "uniform"
      min: -0.08
      max: 0.08
    }
    bias_filler {
      type: "constant"
      value: 0
    }
  }
}
layer {
  name: "predict"
  type: "InnerProduct"
  bottom: "lstm2"
  top: "predict"
  param {
    lr_mult: 1
    decay_mult: 1
  }
  param {
    lr_mult: 2
    decay_mult: 0
  }
  inner_product_param {
    num_output: 46168
    weight_filler {
      type: "uniform"
      min: -0.08
      max: 0.08
    }
    bias_filler {
      type: "constant"
      value: 0
    }
    axis: 2
  }
}
layer {
  name: "probs"
  type: "Softmax"
  bottom: "predict"
  top: "probs"
  softmax_param {
    axis: 2
  }
}
I0802 07:41:30.398578 18648 layer_factory.hpp:77] Creating layer input
I0802 07:41:30.398594 18648 net.cpp:91] Creating Layer input
I0802 07:41:30.398604 18648 net.cpp:399] input -> frames_fc7
I0802 07:41:30.398622 18648 net.cpp:399] input -> cont_sentence
I0802 07:41:30.398634 18648 net.cpp:399] input -> input_sentence
I0802 07:41:30.398645 18648 net.cpp:399] input -> stage_indicator
I0802 07:41:30.400218 18648 net.cpp:141] Setting up input
I0802 07:41:30.400240 18648 net.cpp:148] Top shape: 1 4096 (4096)
I0802 07:41:30.400249 18648 net.cpp:148] Top shape: 1 1 (1)
I0802 07:41:30.400254 18648 net.cpp:148] Top shape: 1 1 (1)
I0802 07:41:30.400260 18648 net.cpp:148] Top shape: 1 1 (1)
I0802 07:41:30.400265 18648 net.cpp:156] Memory required for data: 16396
I0802 07:41:30.400271 18648 layer_factory.hpp:77] Creating layer cont_sentence_input_1_split
I0802 07:41:30.400292 18648 net.cpp:91] Creating Layer cont_sentence_input_1_split
I0802 07:41:30.400300 18648 net.cpp:425] cont_sentence_input_1_split <- cont_sentence
I0802 07:41:30.400322 18648 net.cpp:399] cont_sentence_input_1_split -> cont_sentence_input_1_split_0
I0802 07:41:30.400336 18648 net.cpp:399] cont_sentence_input_1_split -> cont_sentence_input_1_split_1
I0802 07:41:30.400809 18648 net.cpp:141] Setting up cont_sentence_input_1_split
I0802 07:41:30.400825 18648 net.cpp:148] Top shape: 1 1 (1)
I0802 07:41:30.400831 18648 net.cpp:148] Top shape: 1 1 (1)
I0802 07:41:30.400835 18648 net.cpp:156] Memory required for data: 16404
I0802 07:41:30.400841 18648 layer_factory.hpp:77] Creating layer embed_encoder
I0802 07:41:30.400868 18648 net.cpp:91] Creating Layer embed_encoder
I0802 07:41:30.400876 18648 net.cpp:425] embed_encoder <- frames_fc7
I0802 07:41:30.400887 18648 net.cpp:399] embed_encoder -> embedded_in_frames
I0802 07:41:30.434481 18648 net.cpp:141] Setting up embed_encoder
I0802 07:41:30.434530 18648 net.cpp:148] Top shape: 1 500 (500)
I0802 07:41:30.434537 18648 net.cpp:156] Memory required for data: 18404
I0802 07:41:30.434566 18648 layer_factory.hpp:77] Creating layer reshape_frames
I0802 07:41:30.434600 18648 net.cpp:91] Creating Layer reshape_frames
I0802 07:41:30.434617 18648 net.cpp:425] reshape_frames <- embedded_in_frames
I0802 07:41:30.434633 18648 net.cpp:399] reshape_frames -> embedded_input_frames
I0802 07:41:30.435295 18648 net.cpp:141] Setting up reshape_frames
I0802 07:41:30.435317 18648 net.cpp:148] Top shape: 1 1 500 (500)
I0802 07:41:30.435322 18648 net.cpp:156] Memory required for data: 20404
I0802 07:41:30.435328 18648 layer_factory.hpp:77] Creating layer reshape_stage_indicator
I0802 07:41:30.435343 18648 net.cpp:91] Creating Layer reshape_stage_indicator
I0802 07:41:30.435350 18648 net.cpp:425] reshape_stage_indicator <- stage_indicator
I0802 07:41:30.435369 18648 net.cpp:399] reshape_stage_indicator -> reshaped_stage_indicator
I0802 07:41:30.437727 18648 net.cpp:141] Setting up reshape_stage_indicator
I0802 07:41:30.437750 18648 net.cpp:148] Top shape: 1 1 1 (1)
I0802 07:41:30.437755 18648 net.cpp:156] Memory required for data: 20408
I0802 07:41:30.437762 18648 layer_factory.hpp:77] Creating layer embedding
I0802 07:41:30.437777 18648 net.cpp:91] Creating Layer embedding
I0802 07:41:30.437783 18648 net.cpp:425] embedding <- input_sentence
I0802 07:41:30.437799 18648 net.cpp:399] embedding -> embedded_input_sentence
I0802 07:41:30.495640 18658 net.cpp:141] Setting up conv1
I0802 07:41:30.495697 18658 net.cpp:148] Top shape: 10 96 55 55 (2904000)
I0802 07:41:30.495704 18658 net.cpp:156] Memory required for data: 17799480
I0802 07:41:30.495729 18658 layer_factory.hpp:77] Creating layer relu1
I0802 07:41:30.495748 18658 net.cpp:91] Creating Layer relu1
I0802 07:41:30.495755 18658 net.cpp:425] relu1 <- conv1
I0802 07:41:30.495764 18658 net.cpp:386] relu1 -> conv1 (in-place)
I0802 07:41:30.496307 18658 net.cpp:141] Setting up relu1
I0802 07:41:30.496322 18658 net.cpp:148] Top shape: 10 96 55 55 (2904000)
I0802 07:41:30.496328 18658 net.cpp:156] Memory required for data: 29415480
I0802 07:41:30.496335 18658 layer_factory.hpp:77] Creating layer pool1
I0802 07:41:30.496351 18658 net.cpp:91] Creating Layer pool1
I0802 07:41:30.496358 18658 net.cpp:425] pool1 <- conv1
I0802 07:41:30.496371 18658 net.cpp:399] pool1 -> pool1
I0802 07:41:30.496456 18658 net.cpp:141] Setting up pool1
I0802 07:41:30.496469 18658 net.cpp:148] Top shape: 10 96 27 27 (699840)
I0802 07:41:30.496474 18658 net.cpp:156] Memory required for data: 32214840
I0802 07:41:30.496479 18658 layer_factory.hpp:77] Creating layer norm1
I0802 07:41:30.496498 18658 net.cpp:91] Creating Layer norm1
I0802 07:41:30.496505 18658 net.cpp:425] norm1 <- pool1
I0802 07:41:30.496512 18658 net.cpp:399] norm1 -> norm1
I0802 07:41:30.497072 18658 net.cpp:141] Setting up norm1
I0802 07:41:30.497087 18658 net.cpp:148] Top shape: 10 96 27 27 (699840)
I0802 07:41:30.497093 18658 net.cpp:156] Memory required for data: 35014200
I0802 07:41:30.497099 18658 layer_factory.hpp:77] Creating layer conv2
I0802 07:41:30.497119 18658 net.cpp:91] Creating Layer conv2
I0802 07:41:30.497126 18658 net.cpp:425] conv2 <- norm1
I0802 07:41:30.497134 18658 net.cpp:399] conv2 -> conv2
I0802 07:41:30.501011 18658 net.cpp:141] Setting up conv2
I0802 07:41:30.501049 18658 net.cpp:148] Top shape: 10 256 27 27 (1866240)
I0802 07:41:30.501056 18658 net.cpp:156] Memory required for data: 42479160
I0802 07:41:30.501075 18658 layer_factory.hpp:77] Creating layer relu2
I0802 07:41:30.501094 18658 net.cpp:91] Creating Layer relu2
I0802 07:41:30.501101 18658 net.cpp:425] relu2 <- conv2
I0802 07:41:30.501111 18658 net.cpp:386] relu2 -> conv2 (in-place)
I0802 07:41:30.501610 18658 net.cpp:141] Setting up relu2
I0802 07:41:30.501624 18658 net.cpp:148] Top shape: 10 256 27 27 (1866240)
I0802 07:41:30.501629 18658 net.cpp:156] Memory required for data: 49944120
I0802 07:41:30.501636 18658 layer_factory.hpp:77] Creating layer pool2
I0802 07:41:30.501646 18658 net.cpp:91] Creating Layer pool2
I0802 07:41:30.501652 18658 net.cpp:425] pool2 <- conv2
I0802 07:41:30.501662 18658 net.cpp:399] pool2 -> pool2
I0802 07:41:30.501729 18658 net.cpp:141] Setting up pool2
I0802 07:41:30.501739 18658 net.cpp:148] Top shape: 10 256 13 13 (432640)
I0802 07:41:30.501744 18658 net.cpp:156] Memory required for data: 51674680
I0802 07:41:30.501749 18658 layer_factory.hpp:77] Creating layer norm2
I0802 07:41:30.501761 18658 net.cpp:91] Creating Layer norm2
I0802 07:41:30.501767 18658 net.cpp:425] norm2 <- pool2
I0802 07:41:30.501778 18658 net.cpp:399] norm2 -> norm2
I0802 07:41:30.502058 18658 net.cpp:141] Setting up norm2
I0802 07:41:30.502074 18658 net.cpp:148] Top shape: 10 256 13 13 (432640)
I0802 07:41:30.502079 18658 net.cpp:156] Memory required for data: 53405240
I0802 07:41:30.502084 18658 layer_factory.hpp:77] Creating layer conv3
I0802 07:41:30.502099 18658 net.cpp:91] Creating Layer conv3
I0802 07:41:30.502104 18658 net.cpp:425] conv3 <- norm2
I0802 07:41:30.502116 18658 net.cpp:399] conv3 -> conv3
I0802 07:41:30.506321 18658 net.cpp:141] Setting up conv3
I0802 07:41:30.506343 18658 net.cpp:148] Top shape: 10 384 13 13 (648960)
I0802 07:41:30.506350 18658 net.cpp:156] Memory required for data: 56001080
I0802 07:41:30.506363 18658 layer_factory.hpp:77] Creating layer relu3
I0802 07:41:30.506378 18658 net.cpp:91] Creating Layer relu3
I0802 07:41:30.506384 18658 net.cpp:425] relu3 <- conv3
I0802 07:41:30.506392 18658 net.cpp:386] relu3 -> conv3 (in-place)
I0802 07:41:30.506876 18658 net.cpp:141] Setting up relu3
I0802 07:41:30.506891 18658 net.cpp:148] Top shape: 10 384 13 13 (648960)
I0802 07:41:30.506896 18658 net.cpp:156] Memory required for data: 58596920
I0802 07:41:30.506901 18658 layer_factory.hpp:77] Creating layer conv4
I0802 07:41:30.506918 18658 net.cpp:91] Creating Layer conv4
I0802 07:41:30.506924 18658 net.cpp:425] conv4 <- conv3
I0802 07:41:30.506933 18658 net.cpp:399] conv4 -> conv4
I0802 07:41:30.511428 18658 net.cpp:141] Setting up conv4
I0802 07:41:30.511453 18658 net.cpp:148] Top shape: 10 384 13 13 (648960)
I0802 07:41:30.511459 18658 net.cpp:156] Memory required for data: 61192760
I0802 07:41:30.511471 18658 layer_factory.hpp:77] Creating layer relu4
I0802 07:41:30.511482 18658 net.cpp:91] Creating Layer relu4
I0802 07:41:30.511487 18658 net.cpp:425] relu4 <- conv4
I0802 07:41:30.511499 18658 net.cpp:386] relu4 -> conv4 (in-place)
I0802 07:41:30.511994 18658 net.cpp:141] Setting up relu4
I0802 07:41:30.512019 18658 net.cpp:148] Top shape: 10 384 13 13 (648960)
I0802 07:41:30.512025 18658 net.cpp:156] Memory required for data: 63788600
I0802 07:41:30.512032 18658 layer_factory.hpp:77] Creating layer conv5
I0802 07:41:30.512048 18658 net.cpp:91] Creating Layer conv5
I0802 07:41:30.512055 18658 net.cpp:425] conv5 <- conv4
I0802 07:41:30.512063 18658 net.cpp:399] conv5 -> conv5
I0802 07:41:30.516386 18658 net.cpp:141] Setting up conv5
I0802 07:41:30.516407 18658 net.cpp:148] Top shape: 10 256 13 13 (432640)
I0802 07:41:30.516413 18658 net.cpp:156] Memory required for data: 65519160
I0802 07:41:30.516428 18658 layer_factory.hpp:77] Creating layer relu5
I0802 07:41:30.516438 18658 net.cpp:91] Creating Layer relu5
I0802 07:41:30.516443 18658 net.cpp:425] relu5 <- conv5
I0802 07:41:30.516455 18658 net.cpp:386] relu5 -> conv5 (in-place)
I0802 07:41:30.516958 18658 net.cpp:141] Setting up relu5
I0802 07:41:30.516973 18658 net.cpp:148] Top shape: 10 256 13 13 (432640)
I0802 07:41:30.516978 18658 net.cpp:156] Memory required for data: 67249720
I0802 07:41:30.516983 18658 layer_factory.hpp:77] Creating layer pool5
I0802 07:41:30.516994 18658 net.cpp:91] Creating Layer pool5
I0802 07:41:30.517000 18658 net.cpp:425] pool5 <- conv5
I0802 07:41:30.517011 18658 net.cpp:399] pool5 -> pool5
I0802 07:41:30.517081 18658 net.cpp:141] Setting up pool5
I0802 07:41:30.517091 18658 net.cpp:148] Top shape: 10 256 6 6 (92160)
I0802 07:41:30.517096 18658 net.cpp:156] Memory required for data: 67618360
I0802 07:41:30.517102 18658 layer_factory.hpp:77] Creating layer fc6
I0802 07:41:30.517115 18658 net.cpp:91] Creating Layer fc6
I0802 07:41:30.517122 18658 net.cpp:425] fc6 <- pool5
I0802 07:41:30.517132 18658 net.cpp:399] fc6 -> fc6
I0802 07:41:30.629678 18658 net.cpp:141] Setting up fc6
I0802 07:41:30.629729 18658 net.cpp:148] Top shape: 10 4096 (40960)
I0802 07:41:30.629736 18658 net.cpp:156] Memory required for data: 67782200
I0802 07:41:30.629752 18658 layer_factory.hpp:77] Creating layer relu6
I0802 07:41:30.629775 18658 net.cpp:91] Creating Layer relu6
I0802 07:41:30.629782 18658 net.cpp:425] relu6 <- fc6
I0802 07:41:30.629791 18658 net.cpp:386] relu6 -> fc6 (in-place)
I0802 07:41:30.630146 18658 net.cpp:141] Setting up relu6
I0802 07:41:30.630157 18658 net.cpp:148] Top shape: 10 4096 (40960)
I0802 07:41:30.630163 18658 net.cpp:156] Memory required for data: 67946040
I0802 07:41:30.630168 18658 layer_factory.hpp:77] Creating layer drop6
I0802 07:41:30.630180 18658 net.cpp:91] Creating Layer drop6
I0802 07:41:30.630185 18658 net.cpp:425] drop6 <- fc6
I0802 07:41:30.630198 18658 net.cpp:386] drop6 -> fc6 (in-place)
I0802 07:41:30.630250 18658 net.cpp:141] Setting up drop6
I0802 07:41:30.630262 18658 net.cpp:148] Top shape: 10 4096 (40960)
I0802 07:41:30.630269 18658 net.cpp:156] Memory required for data: 68109880
I0802 07:41:30.630273 18658 layer_factory.hpp:77] Creating layer fc7
I0802 07:41:30.630285 18658 net.cpp:91] Creating Layer fc7
I0802 07:41:30.630290 18658 net.cpp:425] fc7 <- fc6
I0802 07:41:30.630297 18658 net.cpp:399] fc7 -> fc7
I0802 07:41:30.680454 18658 net.cpp:141] Setting up fc7
I0802 07:41:30.680503 18658 net.cpp:148] Top shape: 10 4096 (40960)
I0802 07:41:30.680510 18658 net.cpp:156] Memory required for data: 68273720
I0802 07:41:30.680526 18658 layer_factory.hpp:77] Creating layer relu7
I0802 07:41:30.680584 18658 net.cpp:91] Creating Layer relu7
I0802 07:41:30.680595 18658 net.cpp:425] relu7 <- fc7
I0802 07:41:30.680605 18658 net.cpp:386] relu7 -> fc7 (in-place)
I0802 07:41:30.681452 18658 net.cpp:141] Setting up relu7
I0802 07:41:30.681466 18658 net.cpp:148] Top shape: 10 4096 (40960)
I0802 07:41:30.681471 18658 net.cpp:156] Memory required for data: 68437560
I0802 07:41:30.681478 18658 layer_factory.hpp:77] Creating layer drop7
I0802 07:41:30.681493 18658 net.cpp:91] Creating Layer drop7
I0802 07:41:30.681500 18658 net.cpp:425] drop7 <- fc7
I0802 07:41:30.681510 18658 net.cpp:386] drop7 -> fc7 (in-place)
I0802 07:41:30.681552 18658 net.cpp:141] Setting up drop7
I0802 07:41:30.681561 18658 net.cpp:148] Top shape: 10 4096 (40960)
I0802 07:41:30.681566 18658 net.cpp:156] Memory required for data: 68601400
I0802 07:41:30.681571 18658 layer_factory.hpp:77] Creating layer fc8
I0802 07:41:30.681584 18658 net.cpp:91] Creating Layer fc8
I0802 07:41:30.681591 18658 net.cpp:425] fc8 <- fc7
I0802 07:41:30.681601 18658 net.cpp:399] fc8 -> fc8
I0802 07:41:30.689950 18648 net.cpp:141] Setting up embedding
I0802 07:41:30.690001 18648 net.cpp:148] Top shape: 1 1 500 (500)
I0802 07:41:30.690006 18648 net.cpp:156] Memory required for data: 22408
I0802 07:41:30.690026 18648 layer_factory.hpp:77] Creating layer lstm1
I0802 07:41:30.690047 18648 net.cpp:91] Creating Layer lstm1
I0802 07:41:30.690055 18648 net.cpp:425] lstm1 <- embedded_input_frames
I0802 07:41:30.690065 18648 net.cpp:425] lstm1 <- cont_sentence_input_1_split_0
I0802 07:41:30.690079 18648 net.cpp:399] lstm1 -> lstm1
I0802 07:41:30.690115 18648 recurrent_layer.cpp:20] Initializing recurrent layer: assuming input batch contains 1 timesteps of 1 independent streams.
I0802 07:41:30.690536 18648 net.cpp:49] Initializing net from parameters: 
layer {
  name: "lstm1_"
  type: "Input"
  top: "x"
  top: "cont"
  input_param {
    shape {
      dim: 1
      dim: 1
      dim: 500
    }
    shape {
      dim: 1
      dim: 1
    }
  }
}
layer {
  name: "lstm1_"
  type: "Input"
  top: "c_0"
  top: "h_0"
  input_param {
    shape {
      dim: 1
      dim: 1
      dim: 1000
    }
    shape {
      dim: 1
      dim: 1
      dim: 1000
    }
  }
}
layer {
  name: "lstm1_cont_slice"
  type: "Slice"
  bottom: "cont"
  top: "cont_1"
  slice_param {
    axis: 0
  }
}
layer {
  name: "lstm1_x_transform"
  type: "InnerProduct"
  bottom: "x"
  top: "W_xc_x"
  param {
    name: "W_xc"
  }
  param {
    name: "b_c"
  }
  propagate_down: true
  inner_product_param {
    num_output: 4000
    bias_term: true
    weight_filler {
      type: "uniform"
      min: -0.08
      max: 0.08
    }
    bias_filler {
      type: "constant"
      value: 0
    }
    axis: 2
  }
}
layer {
  name: "lstm1_W_xc_x_slice"
  type: "Slice"
  bottom: "W_xc_x"
  top: "W_xc_x_1"
  slice_param {
    axis: 0
  }
}
layer {
  name: "lstm1_h_conted_0"
  type: "Scale"
  bottom: "h_0"
  bottom: "cont_1"
  top: "h_conted_0"
  scale_param {
    axis: 0
  }
}
layer {
  name: "lstm1_transform_1"
  type: "InnerProduct"
  bottom: "h_conted_0"
  top: "W_hc_h_0"
  param {
    name: "W_hc"
  }
  inner_product_param {
    num_output: 4000
    bias_term: false
    weight_filler {
      type: "uniform"
      min: -0.08
      max: 0.08
    }
    axis: 2
  }
}
layer {
  name: "lstm1_gate_input_1"
  type: "Eltwise"
  bottom: "W_hc_h_0"
  bottom: "W_xc_x_1"
  top: "gate_input_1"
  eltwise_param {
    operation: SUM
  }
}
layer {
  name: "lstm1_unit_1"
  type: "LSTMUnit"
  bottom: "c_0"
  bottom: "gate_input_1"
  bottom: "cont_1"
  top: "c_1"
  top: "h_1"
}
layer {
  name: "lstm1_"
  type: "Split"
  bottom: "c_1"
  top: "c_T"
}
layer {
  name: "lstm1_h_concat"
  type: "Concat"
  bottom: "h_1"
  top: "h"
  concat_param {
    axis: 0
  }
}
layer {
  name: "h_pseudoloss"
  type: "Reduction"
  bottom: "h"
  top: "h_pseudoloss"
  loss_weight: 1
}
I0802 07:41:30.690636 18648 layer_factory.hpp:77] Creating layer lstm1_
I0802 07:41:30.690651 18648 net.cpp:91] Creating Layer lstm1_
I0802 07:41:30.690659 18648 net.cpp:399] lstm1_ -> x
I0802 07:41:30.690671 18648 net.cpp:399] lstm1_ -> cont
I0802 07:41:30.690747 18648 net.cpp:141] Setting up lstm1_
I0802 07:41:30.690759 18648 net.cpp:148] Top shape: 1 1 500 (500)
I0802 07:41:30.690767 18648 net.cpp:148] Top shape: 1 1 (1)
I0802 07:41:30.690770 18648 net.cpp:156] Memory required for data: 2004
I0802 07:41:30.690776 18648 layer_factory.hpp:77] Creating layer lstm1_
I0802 07:41:30.690785 18648 net.cpp:91] Creating Layer lstm1_
I0802 07:41:30.690796 18648 net.cpp:399] lstm1_ -> c_0
I0802 07:41:30.690807 18648 net.cpp:399] lstm1_ -> h_0
I0802 07:41:30.690867 18648 net.cpp:141] Setting up lstm1_
I0802 07:41:30.690878 18648 net.cpp:148] Top shape: 1 1 1000 (1000)
I0802 07:41:30.690884 18648 net.cpp:148] Top shape: 1 1 1000 (1000)
I0802 07:41:30.690889 18648 net.cpp:156] Memory required for data: 10004
I0802 07:41:30.690894 18648 layer_factory.hpp:77] Creating layer lstm1_cont_slice
I0802 07:41:30.690903 18648 net.cpp:91] Creating Layer lstm1_cont_slice
I0802 07:41:30.690909 18648 net.cpp:425] lstm1_cont_slice <- cont
I0802 07:41:30.690920 18648 net.cpp:399] lstm1_cont_slice -> cont_1
I0802 07:41:30.690958 18648 net.cpp:141] Setting up lstm1_cont_slice
I0802 07:41:30.690968 18648 net.cpp:148] Top shape: 1 1 (1)
I0802 07:41:30.690973 18648 net.cpp:156] Memory required for data: 10008
I0802 07:41:30.690979 18648 layer_factory.hpp:77] Creating layer cont_1_lstm1_cont_slice_0_split
I0802 07:41:30.690992 18648 net.cpp:91] Creating Layer cont_1_lstm1_cont_slice_0_split
I0802 07:41:30.690997 18648 net.cpp:425] cont_1_lstm1_cont_slice_0_split <- cont_1
I0802 07:41:30.691005 18648 net.cpp:399] cont_1_lstm1_cont_slice_0_split -> cont_1_lstm1_cont_slice_0_split_0
I0802 07:41:30.691015 18648 net.cpp:399] cont_1_lstm1_cont_slice_0_split -> cont_1_lstm1_cont_slice_0_split_1
I0802 07:41:30.691069 18648 net.cpp:141] Setting up cont_1_lstm1_cont_slice_0_split
I0802 07:41:30.691078 18648 net.cpp:148] Top shape: 1 1 (1)
I0802 07:41:30.691085 18648 net.cpp:148] Top shape: 1 1 (1)
I0802 07:41:30.691089 18648 net.cpp:156] Memory required for data: 10016
I0802 07:41:30.691094 18648 layer_factory.hpp:77] Creating layer lstm1_x_transform
I0802 07:41:30.691105 18648 net.cpp:91] Creating Layer lstm1_x_transform
I0802 07:41:30.691110 18648 net.cpp:425] lstm1_x_transform <- x
I0802 07:41:30.691118 18648 net.cpp:399] lstm1_x_transform -> W_xc_x
I0802 07:41:30.696786 18658 net.cpp:141] Setting up fc8
I0802 07:41:30.696837 18658 net.cpp:148] Top shape: 10 1000 (10000)
I0802 07:41:30.696848 18658 net.cpp:156] Memory required for data: 68641400
I0802 07:41:30.696872 18658 layer_factory.hpp:77] Creating layer prob
I0802 07:41:30.696900 18658 net.cpp:91] Creating Layer prob
I0802 07:41:30.696913 18658 net.cpp:425] prob <- fc8
I0802 07:41:30.696929 18658 net.cpp:399] prob -> prob
I0802 07:41:30.697623 18658 net.cpp:141] Setting up prob
I0802 07:41:30.697645 18658 net.cpp:148] Top shape: 10 1000 (10000)
I0802 07:41:30.697654 18658 net.cpp:156] Memory required for data: 68681400
I0802 07:41:30.697664 18658 net.cpp:219] prob does not need backward computation.
I0802 07:41:30.697674 18658 net.cpp:219] fc8 does not need backward computation.
I0802 07:41:30.697684 18658 net.cpp:219] drop7 does not need backward computation.
I0802 07:41:30.697691 18658 net.cpp:219] relu7 does not need backward computation.
…
I0802 07:41:30.697834 18658 net.cpp:219] norm1 does not need backward computation.
I0802 07:41:30.697844 18658 net.cpp:219] pool1 does not need backward computation.
I0802 07:41:30.697854 18658 net.cpp:219] relu1 does not need backward computation.
I0802 07:41:30.697863 18658 net.cpp:219] conv1 does not need backward computation.
I0802 07:41:30.697872 18658 net.cpp:219] data does not need backward computation.
I0802 07:41:30.697880 18658 net.cpp:261] This network produces output prob
I0802 07:41:30.697922 18658 net.cpp:274] Network initialization done.
I0802 07:41:30.714015 18648 net.cpp:141] Setting up lstm1_x_transform
I0802 07:41:30.714059 18648 net.cpp:148] Top shape: 1 1 4000 (4000)
I0802 07:41:30.714066 18648 net.cpp:156] Memory required for data: 26016
I0802 07:41:30.714087 18648 layer_factory.hpp:77] Creating layer lstm1_W_xc_x_slice
I0802 07:41:30.714105 18648 net.cpp:91] Creating Layer lstm1_W_xc_x_slice
I0802 07:41:30.714113 18648 net.cpp:425] lstm1_W_xc_x_slice <- W_xc_x
I0802 07:41:30.714123 18648 net.cpp:399] lstm1_W_xc_x_slice -> W_xc_x_1
I0802 07:41:30.714171 18648 net.cpp:141] Setting up lstm1_W_xc_x_slice
I0802 07:41:30.714182 18648 net.cpp:148] Top shape: 1 1 4000 (4000)
I0802 07:41:30.714186 18648 net.cpp:156] Memory required for data: 42016
I0802 07:41:30.714191 18648 layer_factory.hpp:77] Creating layer lstm1_h_conted_0
I0802 07:41:30.714205 18648 net.cpp:91] Creating Layer lstm1_h_conted_0
I0802 07:41:30.714211 18648 net.cpp:425] lstm1_h_conted_0 <- h_0
I0802 07:41:30.714218 18648 net.cpp:425] lstm1_h_conted_0 <- cont_1_lstm1_cont_slice_0_split_0
I0802 07:41:30.714226 18648 net.cpp:399] lstm1_h_conted_0 -> h_conted_0
I0802 07:41:30.714336 18648 net.cpp:141] Setting up lstm1_h_conted_0
I0802 07:41:30.714346 18648 net.cpp:148] Top shape: 1 1 1000 (1000)
I0802 07:41:30.714351 18648 net.cpp:156] Memory required for data: 46016
I0802 07:41:30.714356 18648 layer_factory.hpp:77] Creating layer lstm1_transform_1
I0802 07:41:30.714372 18648 net.cpp:91] Creating Layer lstm1_transform_1
I0802 07:41:30.714378 18648 net.cpp:425] lstm1_transform_1 <- h_conted_0
I0802 07:41:30.714387 18648 net.cpp:399] lstm1_transform_1 -> W_hc_h_0
I0802 07:41:30.759276 18648 net.cpp:141] Setting up lstm1_transform_1
I0802 07:41:30.759327 18648 net.cpp:148] Top shape: 1 1 4000 (4000)
I0802 07:41:30.759333 18648 net.cpp:156] Memory required for data: 62016
I0802 07:41:30.759363 18648 layer_factory.hpp:77] Creating layer lstm1_gate_input_1
I0802 07:41:30.759385 18648 net.cpp:91] Creating Layer lstm1_gate_input_1
I0802 07:41:30.759393 18648 net.cpp:425] lstm1_gate_input_1 <- W_hc_h_0
I0802 07:41:30.759402 18648 net.cpp:425] lstm1_gate_input_1 <- W_xc_x_1
I0802 07:41:30.759410 18648 net.cpp:399] lstm1_gate_input_1 -> gate_input_1
I0802 07:41:30.759471 18648 net.cpp:141] Setting up lstm1_gate_input_1
I0802 07:41:30.759482 18648 net.cpp:148] Top shape: 1 1 4000 (4000)
I0802 07:41:30.759486 18648 net.cpp:156] Memory required for data: 78016
I0802 07:41:30.759491 18648 layer_factory.hpp:77] Creating layer lstm1_unit_1
I0802 07:41:30.759501 18648 net.cpp:91] Creating Layer lstm1_unit_1
I0802 07:41:30.759506 18648 net.cpp:425] lstm1_unit_1 <- c_0
I0802 07:41:30.759513 18648 net.cpp:425] lstm1_unit_1 <- gate_input_1
I0802 07:41:30.759519 18648 net.cpp:425] lstm1_unit_1 <- cont_1_lstm1_cont_slice_0_split_1
I0802 07:41:30.759526 18648 net.cpp:399] lstm1_unit_1 -> c_1
I0802 07:41:30.759536 18648 net.cpp:399] lstm1_unit_1 -> h_1
I0802 07:41:30.759608 18648 net.cpp:141] Setting up lstm1_unit_1
I0802 07:41:30.759616 18648 net.cpp:148] Top shape: 1 1 1000 (1000)
I0802 07:41:30.759624 18648 net.cpp:148] Top shape: 1 1 1000 (1000)
I0802 07:41:30.759627 18648 net.cpp:156] Memory required for data: 86016
I0802 07:41:30.759634 18648 layer_factory.hpp:77] Creating layer lstm1_
I0802 07:41:30.759644 18648 net.cpp:91] Creating Layer lstm1_
I0802 07:41:30.759659 18648 net.cpp:425] lstm1_ <- c_1
I0802 07:41:30.759666 18648 net.cpp:399] lstm1_ -> c_T
I0802 07:41:30.759701 18648 net.cpp:141] Setting up lstm1_
I0802 07:41:30.759709 18648 net.cpp:148] Top shape: 1 1 1000 (1000)
I0802 07:41:30.759714 18648 net.cpp:156] Memory required for data: 90016
I0802 07:41:30.759719 18648 layer_factory.hpp:77] Creating layer lstm1_h_concat
I0802 07:41:30.759728 18648 net.cpp:91] Creating Layer lstm1_h_concat
I0802 07:41:30.759733 18648 net.cpp:425] lstm1_h_concat <- h_1
I0802 07:41:30.759744 18648 net.cpp:399] lstm1_h_concat -> h
I0802 07:41:30.759793 18648 net.cpp:141] Setting up lstm1_h_concat
I0802 07:41:30.759802 18648 net.cpp:148] Top shape: 1 1 1000 (1000)
I0802 07:41:30.759807 18648 net.cpp:156] Memory required for data: 94016
I0802 07:41:30.759812 18648 layer_factory.hpp:77] Creating layer h_pseudoloss
I0802 07:41:30.759827 18648 net.cpp:91] Creating Layer h_pseudoloss
I0802 07:41:30.759834 18648 net.cpp:425] h_pseudoloss <- h
I0802 07:41:30.759840 18648 net.cpp:399] h_pseudoloss -> h_pseudoloss
I0802 07:41:30.759938 18648 net.cpp:141] Setting up h_pseudoloss
…
I0802 07:41:30.760076 18648 net.cpp:219] lstm1_ does not need backward computation.
I0802 07:41:30.760080 18648 net.cpp:261] This network produces output c_T
I0802 07:41:30.760087 18648 net.cpp:261] This network produces output h_pseudoloss
I0802 07:41:30.760102 18648 net.cpp:274] Network initialization done.
I0802 07:41:30.760159 18648 recurrent_layer.cpp:150] Adding parameter 0: W_xc
I0802 07:41:30.760166 18648 recurrent_layer.cpp:150] Adding parameter 1: b_c
I0802 07:41:30.760171 18648 recurrent_layer.cpp:150] Adding parameter 2: W_hc
I0802 07:41:30.760288 18648 net.cpp:141] Setting up lstm1
I0802 07:41:30.760303 18648 net.cpp:148] Top shape: 1 1 1000 (1000)
I0802 07:41:30.760308 18648 net.cpp:156] Memory required for data: 26408
I0802 07:41:30.760323 18648 layer_factory.hpp:77] Creating layer concat
I0802 07:41:30.760332 18648 net.cpp:91] Creating Layer concat
I0802 07:41:30.760340 18648 net.cpp:425] concat <- lstm1
I0802 07:41:30.760349 18648 net.cpp:425] concat <- embedded_input_sentence
I0802 07:41:30.760354 18648 net.cpp:425] concat <- reshaped_stage_indicator
I0802 07:41:30.760362 18648 net.cpp:399] concat -> lstm1_video_sequence
I0802 07:41:30.760399 18648 net.cpp:141] Setting up concat
I0802 07:41:30.760409 18648 net.cpp:148] Top shape: 1 1 1501 (1501)
I0802 07:41:30.760413 18648 net.cpp:156] Memory required for data: 32412
I0802 07:41:30.760419 18648 layer_factory.hpp:77] Creating layer lstm2
I0802 07:41:30.760432 18648 net.cpp:91] Creating Layer lstm2
I0802 07:41:30.760437 18648 net.cpp:425] lstm2 <- lstm1_video_sequence
I0802 07:41:30.760444 18648 net.cpp:425] lstm2 <- cont_sentence_input_1_split_1
I0802 07:41:30.760452 18648 net.cpp:399] lstm2 -> lstm2
I0802 07:41:30.760463 18648 recurrent_layer.cpp:20] Initializing recurrent layer: assuming input batch contains 1 timesteps of 1 independent streams.
I0802 07:41:30.760730 18648 net.cpp:49] Initializing net from parameters: 
layer {
  name: "lstm2_"
  type: "Input"
  top: "x"
  top: "cont"
  input_param {
    shape {
      dim: 1
      dim: 1
      dim: 1501
    }
    shape {
      dim: 1
      dim: 1
    }
  }
}
layer {
  name: "lstm2_"
  type: "Input"
  top: "c_0"
  top: "h_0"
  input_param {
    shape {
      dim: 1
      dim: 1
      dim: 1000
    }
    shape {
      dim: 1
      dim: 1
      dim: 1000
    }
  }
}
layer {
  name: "lstm2_cont_slice"
  type: "Slice"
  bottom: "cont"
  top: "cont_1"
  slice_param {
    axis: 0
  }
}
layer {
  name: "lstm2_x_transform"
  type: "InnerProduct"
  bottom: "x"
  top: "W_xc_x"
  param {
    name: "W_xc"
  }
  param {
    name: "b_c"
  }
  propagate_down: true
  inner_product_param {
    num_output: 4000
    bias_term: true
    weight_filler {
      type: "uniform"
      min: -0.08
      max: 0.08
    }
    bias_filler {
      type: "constant"
      value: 0
    }
    axis: 2
  }
}
layer {
  name: "lstm2_W_xc_x_slice"
  type: "Slice"
  bottom: "W_xc_x"
  top: "W_xc_x_1"
  slice_param {
    axis: 0
  }
}
layer {
  name: "lstm2_h_conted_0"
  type: "Scale"
  bottom: "h_0"
  bottom: "cont_1"
  top: "h_conted_0"
  scale_param {
    axis: 0
  }
}
layer {
  name: "lstm2_transform_1"
  type: "InnerProduct"
  bottom: "h_conted_0"
  top: "W_hc_h_0"
  param {
    name: "W_hc"
  }
  inner_product_param {
    num_output: 4000
    bias_term: false
    weight_filler {
      type: "uniform"
      min: -0.08
      max: 0.08
    }
    axis: 2
  }
}
layer {
  name: "lstm2_gate_input_1"
  type: "Eltwise"
  bottom: "W_hc_h_0"
  bottom: "W_xc_x_1"
  top: "gate_input_1"
  eltwise_param {
    operation: SUM
  }
}
layer {
  name: "lstm2_unit_1"
  type: "LSTMUnit"
  bottom: "c_0"
  bottom: "gate_input_1"
  bottom: "cont_1"
  top: "c_1"
  top: "h_1"
}
layer {
  name: "lstm2_"
  type: "Split"
  bottom: "c_1"
  top: "c_T"
}
layer {
  name: "lstm2_h_concat"
  type: "Concat"
  bottom: "h_1"
  top: "h"
  concat_param {
    axis: 0
  }
}
layer {
  name: "h_pseudoloss"
  type: "Reduction"
  bottom: "h"
  top: "h_pseudoloss"
  loss_weight: 1
}
I0802 07:41:30.760820 18648 layer_factory.hpp:77] Creating layer lstm2_
I0802 07:41:30.760833 18648 net.cpp:91] Creating Layer lstm2_
I0802 07:41:30.760841 18648 net.cpp:399] lstm2_ -> x
I0802 07:41:30.760854 18648 net.cpp:399] lstm2_ -> cont
I0802 07:41:30.760915 18648 net.cpp:141] Setting up lstm2_
I0802 07:41:30.760926 18648 net.cpp:148] Top shape: 1 1 1501 (1501)
I0802 07:41:30.760932 18648 net.cpp:148] Top shape: 1 1 (1)
I0802 07:41:30.760937 18648 net.cpp:156] Memory required for data: 6008
I0802 07:41:30.760942 18648 layer_factory.hpp:77] Creating layer lstm2_
I0802 07:41:30.760952 18648 net.cpp:91] Creating Layer lstm2_
I0802 07:41:30.760962 18648 net.cpp:399] lstm2_ -> c_0
I0802 07:41:30.760972 18648 net.cpp:399] lstm2_ -> h_0
I0802 07:41:30.761026 18648 net.cpp:141] Setting up lstm2_
I0802 07:41:30.761037 18648 net.cpp:148] Top shape: 1 1 1000 (1000)
I0802 07:41:30.761044 18648 net.cpp:148] Top shape: 1 1 1000 (1000)
I0802 07:41:30.761047 18648 net.cpp:156] Memory required for data: 14008
I0802 07:41:30.761052 18648 layer_factory.hpp:77] Creating layer lstm2_cont_slice
I0802 07:41:30.761061 18648 net.cpp:91] Creating Layer lstm2_cont_slice
I0802 07:41:30.761067 18648 net.cpp:425] lstm2_cont_slice <- cont
I0802 07:41:30.761075 18648 net.cpp:399] lstm2_cont_slice -> cont_1
I0802 07:41:30.761113 18648 net.cpp:141] Setting up lstm2_cont_slice
I0802 07:41:30.761123 18648 net.cpp:148] Top shape: 1 1 (1)
I0802 07:41:30.761128 18648 net.cpp:156] Memory required for data: 14012
I0802 07:41:30.761133 18648 layer_factory.hpp:77] Creating layer cont_1_lstm2_cont_slice_0_split
I0802 07:41:30.761142 18648 net.cpp:91] Creating Layer cont_1_lstm2_cont_slice_0_split
I0802 07:41:30.761148 18648 net.cpp:425] cont_1_lstm2_cont_slice_0_split <- cont_1
I0802 07:41:30.761155 18648 net.cpp:399] cont_1_lstm2_cont_slice_0_split -> cont_1_lstm2_cont_slice_0_split_0
I0802 07:41:30.761164 18648 net.cpp:399] cont_1_lstm2_cont_slice_0_split -> cont_1_lstm2_cont_slice_0_split_1
I0802 07:41:30.761216 18648 net.cpp:141] Setting up cont_1_lstm2_cont_slice_0_split
I0802 07:41:30.761225 18648 net.cpp:148] Top shape: 1 1 (1)
I0802 07:41:30.761231 18648 net.cpp:148] Top shape: 1 1 (1)
I0802 07:41:30.761235 18648 net.cpp:156] Memory required for data: 14020
I0802 07:41:30.761240 18648 layer_factory.hpp:77] Creating layer lstm2_x_transform
I0802 07:41:30.761251 18648 net.cpp:91] Creating Layer lstm2_x_transform
I0802 07:41:30.761256 18648 net.cpp:425] lstm2_x_transform <- x
I0802 07:41:30.761267 18648 net.cpp:399] lstm2_x_transform -> W_xc_x
I0802 07:41:30.827366 18648 net.cpp:141] Setting up lstm2_x_transform
I0802 07:41:30.827414 18648 net.cpp:148] Top shape: 1 1 4000 (4000)
I0802 07:41:30.827420 18648 net.cpp:156] Memory required for data: 30020
I0802 07:41:30.827443 18648 layer_factory.hpp:77] Creating layer lstm2_W_xc_x_slice
I0802 07:41:30.827462 18648 net.cpp:91] Creating Layer lstm2_W_xc_x_slice
I0802 07:41:30.827471 18648 net.cpp:425] lstm2_W_xc_x_slice <- W_xc_x
I0802 07:41:30.827486 18648 net.cpp:399] lstm2_W_xc_x_slice -> W_xc_x_1
I0802 07:41:30.827535 18648 net.cpp:141] Setting up lstm2_W_xc_x_slice
I0802 07:41:30.827548 18648 net.cpp:148] Top shape: 1 1 4000 (4000)
I0802 07:41:30.827553 18648 net.cpp:156] Memory required for data: 46020
I0802 07:41:30.827558 18648 layer_factory.hpp:77] Creating layer lstm2_h_conted_0
I0802 07:41:30.827569 18648 net.cpp:91] Creating Layer lstm2_h_conted_0
I0802 07:41:30.827574 18648 net.cpp:425] lstm2_h_conted_0 <- h_0
I0802 07:41:30.827582 18648 net.cpp:425] lstm2_h_conted_0 <- cont_1_lstm2_cont_slice_0_split_0
I0802 07:41:30.827592 18648 net.cpp:399] lstm2_h_conted_0 -> h_conted_0
I0802 07:41:30.827693 18648 net.cpp:141] Setting up lstm2_h_conted_0
I0802 07:41:30.827704 18648 net.cpp:148] Top shape: 1 1 1000 (1000)
I0802 07:41:30.827708 18648 net.cpp:156] Memory required for data: 50020
I0802 07:41:30.827714 18648 layer_factory.hpp:77] Creating layer lstm2_transform_1
I0802 07:41:30.827728 18648 net.cpp:91] Creating Layer lstm2_transform_1
I0802 07:41:30.827733 18648 net.cpp:425] lstm2_transform_1 <- h_conted_0
I0802 07:41:30.827744 18648 net.cpp:399] lstm2_transform_1 -> W_hc_h_0
I0802 07:41:30.871789 18648 net.cpp:141] Setting up lstm2_transform_1
I0802 07:41:30.871835 18648 net.cpp:148] Top shape: 1 1 4000 (4000)
I0802 07:41:30.871841 18648 net.cpp:156] Memory required for data: 66020
I0802 07:41:30.871860 18648 layer_factory.hpp:77] Creating layer lstm2_gate_input_1
I0802 07:41:30.871881 18648 net.cpp:91] Creating Layer lstm2_gate_input_1
I0802 07:41:30.871889 18648 net.cpp:425] lstm2_gate_input_1 <- W_hc_h_0
I0802 07:41:30.871899 18648 net.cpp:425] lstm2_gate_input_1 <- W_xc_x_1
I0802 07:41:30.871907 18648 net.cpp:399] lstm2_gate_input_1 -> gate_input_1
I0802 07:41:30.871961 18648 net.cpp:141] Setting up lstm2_gate_input_1
I0802 07:41:30.871971 18648 net.cpp:148] Top shape: 1 1 4000 (4000)
I0802 07:41:30.871975 18648 net.cpp:156] Memory required for data: 82020
I0802 07:41:30.871981 18648 layer_factory.hpp:77] Creating layer lstm2_unit_1
I0802 07:41:30.871990 18648 net.cpp:91] Creating Layer lstm2_unit_1
I0802 07:41:30.871996 18648 net.cpp:425] lstm2_unit_1 <- c_0
I0802 07:41:30.872002 18648 net.cpp:425] lstm2_unit_1 <- gate_input_1
I0802 07:41:30.872016 18648 net.cpp:425] lstm2_unit_1 <- cont_1_lstm2_cont_slice_0_split_1
I0802 07:41:30.872027 18648 net.cpp:399] lstm2_unit_1 -> c_1
I0802 07:41:30.872037 18648 net.cpp:399] lstm2_unit_1 -> h_1
I0802 07:41:30.872107 18648 net.cpp:141] Setting up lstm2_unit_1
I0802 07:41:30.872117 18648 net.cpp:148] Top shape: 1 1 1000 (1000)
I0802 07:41:30.872123 18648 net.cpp:148] Top shape: 1 1 1000 (1000)
I0802 07:41:30.872128 18648 net.cpp:156] Memory required for data: 90020
I0802 07:41:30.872133 18648 layer_factory.hpp:77] Creating layer lstm2_
I0802 07:41:30.872143 18648 net.cpp:91] Creating Layer lstm2_
I0802 07:41:30.872148 18648 net.cpp:425] lstm2_ <- c_1
I0802 07:41:30.872155 18648 net.cpp:399] lstm2_ -> c_T
I0802 07:41:30.872191 18648 net.cpp:141] Setting up lstm2_
I0802 07:41:30.872200 18648 net.cpp:148] Top shape: 1 1 1000 (1000)
I0802 07:41:30.872205 18648 net.cpp:156] Memory required for data: 94020
I0802 07:41:30.872210 18648 layer_factory.hpp:77] Creating layer lstm2_h_concat
I0802 07:41:30.872222 18648 net.cpp:91] Creating Layer lstm2_h_concat
I0802 07:41:30.872228 18648 net.cpp:425] lstm2_h_concat <- h_1
I0802 07:41:30.872236 18648 net.cpp:399] lstm2_h_concat -> h
I0802 07:41:30.872275 18648 net.cpp:141] Setting up lstm2_h_concat
I0802 07:41:30.872284 18648 net.cpp:148] Top shape: 1 1 1000 (1000)
I0802 07:41:30.872289 18648 net.cpp:156] Memory required for data: 98020
I0802 07:41:30.872294 18648 layer_factory.hpp:77] Creating layer h_pseudoloss
I0802 07:41:30.872303 18648 net.cpp:91] Creating Layer h_pseudoloss
I0802 07:41:30.872309 18648 net.cpp:425] h_pseudoloss <- h
I0802 07:41:30.872316 18648 net.cpp:399] h_pseudoloss -> h_pseudoloss
I0802 07:41:30.872411 18648 net.cpp:141] Setting up h_pseudoloss
…
