…
I0924 02:32:35.803843 28734 upgrade_proto.cpp:66] Attempting to upgrade input file specified using deprecated input fields: /home/peifeng/work/run/storm102/data/workers/6c3530d7-f91e-4de8-a735-7f157ba2b86b/tmp/cvld7837117821131252666/s2vt.words_to_preds.prototxt
I0924 02:32:35.803777 28754 upgrade_proto.cpp:66] Attempting to upgrade input file specified using deprecated input fields: /home/peifeng/work/run/storm102/data/workers/6c3530d7-f91e-4de8-a735-7f157ba2b86b/tmp/cvld7837117821131252666/s2vt.words_to_preds.prototxt
I0924 02:32:35.803900 28756 net.cpp:49] Initializing net from parameters: 
name: "CaffeNet"
state {
  phase: TEST
}
layer {
  name: "data"
  type: "Input"
  top: "data"
  input_param {
    shape {
      dim: 10
      dim: 3
      dim: 227
      dim: 227
    }
  }
}
layer {
  name: "conv1"
  type: "Convolution"
  bottom: "data"
  top: "conv1"
  convolution_param {
    num_output: 96
    kernel_size: 11
    stride: 4
  }
}
layer {
  name: "relu1"
  type: "ReLU"
  bottom: "conv1"
  top: "conv1"
}
layer {
  name: "pool1"
  type: "Pooling"
  bottom: "conv1"
  top: "pool1"
  pooling_param {
    pool: MAX
    kernel_size: 3
    stride: 2
  }
}
layer {
  name: "norm1"
  type: "LRN"
  bottom: "pool1"
  top: "norm1"
  lrn_param {
    local_size: 5
    alpha: 0.0001
    beta: 0.75
  }
}
layer {
  name: "conv2"
  type: "Convolution"
  bottom: "norm1"
  top: "conv2"
  convolution_param {
    num_output: 256
    pad: 2
    kernel_size: 5
    group: 2
  }
}
layer {
  name: "relu2"
  type: "ReLU"
  bottom: "conv2"
  top: "conv2"
}
layer {
  name: "pool2"
  type: "Pooling"
  bottom: "conv2"
  top: "pool2"
  pooling_param {
    pool: MAX
    kernel_size: 3
    stride: 2
  }
}
layer {
  name: "norm2"
  type: "LRN"
  bottom: "pool2"
  top: "norm2"
  lrn_param {
    local_size: 5
    alpha: 0.0001
    beta: 0.75
  }
}
layer {
  name: "conv3"
  type: "Convolution"
  bottom: "norm2"
  top: "conv3"
  convolution_param {
    num_output: 384
    pad: 1
    kernel_size: 3
  }
}
layer {
  name: "relu3"
  type: "ReLU"
  bottom: "conv3"
  top: "conv3"
}
layer {
  name: "conv4"
  type: "Convolution"
  bottom: "conv3"
  top: "conv4"
  convolution_param {
    num_output: 384
    pad: 1
    kernel_size: 3
    group: 2
  }
}
layer {
  name: "relu4"
  type: "ReLU"
  bottom: "conv4"
  top: "conv4"
}
layer {
  name: "conv5"
  type: "Convolution"
  bottom: "conv4"
  top: "conv5"
  convolution_param {
    num_output: 256
    pad: 1
    kernel_size: 3
    group: 2
  }
}
layer {
  name: "relu5"
  type: "ReLU"
  bottom: "conv5"
  top: "conv5"
}
layer {
  name: "pool5"
  type: "Pooling"
  bottom: "conv5"
  top: "pool5"
  pooling_param {
    pool: MAX
    kernel_size: 3
    stride: 2
  }
}
layer {
  name: "fc6"
  type: "InnerProduct"
  bottom: "pool5"
  top: "fc6"
  inner_product_param {
    num_output: 4096
  }
}
layer {
  name: "relu6"
  type: "ReLU"
  bottom: "fc6"
  top: "fc6"
}
layer {
  name: "drop6"
  type: "Dropout"
  bottom: "fc6"
  top: "fc6"
  dropout_param {
    dropout_ratio: 0.5
  }
}
layer {
  name: "fc7"
  type: "InnerProduct"
  bottom: "fc6"
  top: "fc7"
  inner_product_param {
    num_output: 4096
  }
}
layer {
  name: "relu7"
  type: "ReLU"
  bottom: "fc7"
  top: "fc7"
}
layer {
  name: "drop7"
  type: "Dropout"
  bottom: "fc7"
  top: "fc7"
  dropout_param {
    dropout_ratio: 0.5
  }
}
layer {
  name: "fc8"
  type: "InnerProduct"
  bottom: "fc7"
  top: "fc8"
  inner_product_param {
    num_output: 1000
  }
}
layer {
  name: "prob"
  type: "Softmax"
  bottom: "fc8"
  top: "prob"
}
I0924 02:32:35.803918 28734 upgrade_proto.cpp:69] Successfully upgraded file specified using deprecated input fields.
I0924 02:32:35.803920 28748 upgrade_proto.cpp:69] Successfully upgraded file specified using deprecated input fields.
I0924 02:32:35.803920 28730 upgrade_proto.cpp:69] Successfully upgraded file specified using deprecated input fields.
W0924 02:32:35.803943 28748 upgrade_proto.cpp:71] Note that future Caffe releases will only support input layers and not input fields.
…
I0924 02:32:35.804034 28756 net.cpp:91] Creating Layer data
I0924 02:32:35.804044 28756 net.cpp:399] data -> data
I0924 02:32:35.804282 28748 net.cpp:49] Initializing net from parameters: 
name: "s2vt:features_to_lstm"
state {
  phase: TEST
}
layer {
  name: "input"
  type: "Input"
  top: "frames_fc7"
  top: "cont_sentence"
  top: "input_sentence"
  top: "stage_indicator"
  input_param {
    shape {
      dim: 1
      dim: 4096
    }
    shape {
      dim: 1
      dim: 1
    }
    shape {
      dim: 1
      dim: 1
    }
    shape {
      dim: 1
      dim: 1
    }
  }
}
layer {
  name: "embed_encoder"
  type: "InnerProduct"
  bottom: "frames_fc7"
  top: "embedded_in_frames"
  param {
    lr_mult: 1
    decay_mult: 1
  }
  param {
    lr_mult: 2
    decay_mult: 0
  }
  inner_product_param {
    num_output: 500
    weight_filler {
      type: "xavier"
    }
    bias_filler {
      type: "constant"
      value: 0.2
    }
  }
}
layer {
  name: "reshape_frames"
  type: "Reshape"
  bottom: "embedded_in_frames"
  top: "embedded_input_frames"
  reshape_param {
    shape {
      dim: 1
      dim: 1
      dim: 500
    }
  }
}
layer {
  name: "reshape_stage_indicator"
  type: "Reshape"
  bottom: "stage_indicator"
  top: "reshaped_stage_indicator"
  reshape_param {
    shape {
      dim: 1
      dim: 1
      dim: 1
    }
  }
}
layer {
  name: "embedding"
  type: "Embed"
  bottom: "input_sentence"
  top: "embedded_input_sentence"
  param {
    lr_mult: 1
  }
  embed_param {
    num_output: 500
    input_dim: 46168
    bias_term: false
    weight_filler {
      type: "uniform"
      min: -0.08
      max: 0.08
    }
  }
}
layer {
  name: "lstm1"
  type: "LSTM"
  bottom: "embedded_input_frames"
  bottom: "cont_sentence"
  top: "lstm1"
  recurrent_param {
    num_output: 1000
    weight_filler {
      type: "uniform"
      min: -0.08
      max: 0.08
    }
    bias_filler {
      type: "constant"
      value: 0
    }
  }
}
layer {
  name: "concat"
  type: "Concat"
  bottom: "lstm1"
  bottom: "embedded_input_sentence"
  bottom: "reshaped_stage_indicator"
  top: "lstm1_video_sequence"
  concat_param {
    concat_dim: 2
  }
}
layer {
  name: "lstm2"
  type: "LSTM"
  bottom: "lstm1_video_sequence"
  bottom: "cont_sentence"
  top: "lstm2"
  recurrent_param {
    num_output: 1000
    weight_filler {
      type: "uniform"
      min: -0.08
      max: 0.08
    }
    bias_filler {
      type: "constant"
      value: 0
    }
  }
}
layer {
  name: "predict"
  type: "InnerProduct"
  bottom: "lstm2"
  top: "predict"
  param {
    lr_mult: 1
    decay_mult: 1
  }
  param {
    lr_mult: 2
    decay_mult: 0
  }
  inner_product_param {
    num_output: 46168
    weight_filler {
      type: "uniform"
      min: -0.08
      max: 0.08
    }
    bias_filler {
      type: "constant"
      value: 0
    }
    axis: 2
  }
}
layer {
  name: "probs"
  type: "Softmax"
  bottom: "predict"
  top: "probs"
  softmax_param {
    axis: 2
  }
}
I0924 02:32:35.804280 28730 net.cpp:49] Initializing net from parameters: 
name: "s2vt:features_to_lstm"
state {
  phase: TEST
}
layer {
  name: "input"
  type: "Input"
  top: "frames_fc7"
  top: "cont_sentence"
  top: "input_sentence"
  top: "stage_indicator"
  input_param {
    shape {
      dim: 1
      dim: 4096
    }
    shape {
      dim: 1
      dim: 1
    }
    shape {
      dim: 1
      dim: 1
    }
    shape {
      dim: 1
      dim: 1
    }
  }
}
layer {
  name: "embed_encoder"
  type: "InnerProduct"
  bottom: "frames_fc7"
  top: "embedded_in_frames"
  param {
    lr_mult: 1
    decay_mult: 1
  }
  param {
    lr_mult: 2
    decay_mult: 0
  }
  inner_product_param {
    num_output: 500
    weight_filler {
      type: "xavier"
    }
    bias_filler {
      type: "constant"
      value: 0.2
    }
  }
}
layer {
  name: "reshape_frames"
  type: "Reshape"
  bottom: "embedded_in_frames"
  top: "embedded_input_frames"
  reshape_param {
    shape {
      dim: 1
      dim: 1
      dim: 500
    }
  }
}
layer {
  name: "reshape_stage_indicator"
  type: "Reshape"
  bottom: "stage_indicator"
  top: "reshaped_stage_indicator"
  reshape_param {
    shape {
      dim: 1
      dim: 1
      dim: 1
    }
  }
}
layer {
  name: "embedding"
  type: "Embed"
  bottom: "input_sentence"
  top: "embedded_input_sentence"
  param {
    lr_mult: 1
  }
  embed_param {
    num_output: 500
    input_dim: 46168
    bias_term: false
    weight_filler {
      type: "uniform"
      min: -0.08
      max: 0.08
    }
  }
}
layer {
  name: "lstm1"
  type: "LSTM"
  bottom: "embedded_input_frames"
  bottom: "cont_sentence"
  top: "lstm1"
  recurrent_param {
    num_output: 1000
    weight_filler {
      type: "uniform"
      min: -0.08
      max: 0.08
    }
    bias_filler {
      type: "constant"
      value: 0
    }
  }
}
layer {
  name: "concat"
  type: "Concat"
  bottom: "lstm1"
  bottom: "embedded_input_sentence"
  bottom: "reshaped_stage_indicator"
  top: "lstm1_video_sequence"
  concat_param {
    concat_dim: 2
  }
}
layer {
  name: "lstm2"
  type: "LSTM"
  bottom: "lstm1_video_sequence"
  bottom: "cont_sentence"
  top: "lstm2"
  recurrent_param {
    num_output: 1000
    weight_filler {
      type: "uniform"
      min: -0.08
      max: 0.08
    }
    bias_filler {
      type: "constant"
      value: 0
    }
  }
}
layer {
  name: "predict"
  type: "InnerProduct"
  bottom: "lstm2"
  top: "predict"
  param {
    lr_mult: 1
    decay_mult: 1
  }
  param {
    lr_mult: 2
    decay_mult: 0
  }
  inner_product_param {
    num_output: 46168
    weight_filler {
      type: "uniform"
      min: -0.08
      max: 0.08
    }
    bias_filler {
      type: "constant"
      value: 0
    }
    axis: 2
  }
}
layer {
  name: "probs"
  type: "Softmax"
  bottom: "predict"
  top: "probs"
  softmax_param {
    axis: 2
  }
}
I0924 02:32:35.804283 28734 net.cpp:49] Initializing net from parameters: 
name: "s2vt:features_to_lstm"
state {
  phase: TEST
}
layer {
  name: "input"
  type: "Input"
  top: "frames_fc7"
  top: "cont_sentence"
  top: "input_sentence"
  top: "stage_indicator"
  input_param {
    shape {
      dim: 1
      dim: 4096
    }
    shape {
      dim: 1
      dim: 1
    }
    shape {
      dim: 1
      dim: 1
    }
    shape {
      dim: 1
      dim: 1
    }
  }
}
layer {
  name: "embed_encoder"
  type: "InnerProduct"
  bottom: "frames_fc7"
  top: "embedded_in_frames"
  param {
    lr_mult: 1
    decay_mult: 1
  }
  param {
    lr_mult: 2
    decay_mult: 0
  }
  inner_product_param {
    num_output: 500
    weight_filler {
      type: "xavier"
    }
    bias_filler {
      type: "constant"
      value: 0.2
    }
  }
}
layer {
  name: "reshape_frames"
  type: "Reshape"
  bottom: "embedded_in_frames"
  top: "embedded_input_frames"
  reshape_param {
    shape {
      dim: 1
      dim: 1
      dim: 500
    }
  }
}
layer {
  name: "reshape_stage_indicator"
  type: "Reshape"
  bottom: "stage_indicator"
  top: "reshaped_stage_indicator"
  reshape_param {
    shape {
      dim: 1
      dim: 1
      dim: 1
    }
  }
}
layer {
  name: "embedding"
  type: "Embed"
  bottom: "input_sentence"
  top: "embedded_input_sentence"
  param {
    lr_mult: 1
  }
  embed_param {
    num_output: 500
    input_dim: 46168
    bias_term: false
    weight_filler {
      type: "uniform"
      min: -0.08
      max: 0.08
    }
  }
}
layer {
  name: "lstm1"
  type: "LSTM"
  bottom: "embedded_input_frames"
  bottom: "cont_sentence"
  top: "lstm1"
  recurrent_param {
    num_output: 1000
    weight_filler {
      type: "uniform"
      min: -0.08
      max: 0.08
    }
    bias_filler {
      type: "constant"
      value: 0
    }
  }
}
layer {
  name: "concat"
  type: "Concat"
  bottom: "lstm1"
  bottom: "embedded_input_sentence"
  bottom: "reshaped_stage_indicator"
  top: "lstm1_video_sequence"
  concat_param {
    concat_dim: 2
  }
}
layer {
  name: "lstm2"
  type: "LSTM"
  bottom: "lstm1_video_sequence"
  bottom: "cont_sentence"
  top: "lstm2"
  recurrent_param {
    num_output: 1000
    weight_filler {
      type: "uniform"
      min: -0.08
      max: 0.08
    }
    bias_filler {
      type: "constant"
      value: 0
    }
  }
}
layer {
  name: "predict"
  type: "InnerProduct"
  bottom: "lstm2"
  top: "predict"
  param {
    lr_mult: 1
    decay_mult: 1
  }
  param {
    lr_mult: 2
    decay_mult: 0
  }
  inner_product_param {
    num_output: 46168
    weight_filler {
      type: "uniform"
      min: -0.08
      max: 0.08
    }
    bias_filler {
      type: "constant"
      value: 0
    }
    axis: 2
  }
}
layer {
  name: "probs"
  type: "Softmax"
  bottom: "predict"
  top: "probs"
  softmax_param {
    axis: 2
  }
}
I0924 02:32:35.804283 28754 net.cpp:49] Initializing net from parameters: 
name: "s2vt:features_to_lstm"
state {
  phase: TEST
}
layer {
  name: "input"
  type: "Input"
  top: "frames_fc7"
  top: "cont_sentence"
  top: "input_sentence"
  top: "stage_indicator"
  input_param {
    shape {
      dim: 1
      dim: 4096
    }
    shape {
      dim: 1
      dim: 1
    }
    shape {
      dim: 1
      dim: 1
    }
    shape {
      dim: 1
      dim: 1
    }
  }
}
layer {
  name: "embed_encoder"
  type: "InnerProduct"
  bottom: "frames_fc7"
  top: "embedded_in_frames"
  param {
    lr_mult: 1
    decay_mult: 1
  }
  param {
    lr_mult: 2
    decay_mult: 0
  }
  inner_product_param {
    num_output: 500
    weight_filler {
      type: "xavier"
    }
    bias_filler {
      type: "constant"
      value: 0.2
    }
  }
}
layer {
  name: "reshape_frames"
  type: "Reshape"
  bottom: "embedded_in_frames"
  top: "embedded_input_frames"
  reshape_param {
    shape {
      dim: 1
      dim: 1
      dim: 500
    }
  }
}
layer {
  name: "reshape_stage_indicator"
  type: "Reshape"
  bottom: "stage_indicator"
  top: "reshaped_stage_indicator"
  reshape_param {
    shape {
      dim: 1
      dim: 1
      dim: 1
    }
  }
}
layer {
  name: "embedding"
  type: "Embed"
  bottom: "input_sentence"
  top: "embedded_input_sentence"
  param {
    lr_mult: 1
  }
  embed_param {
    num_output: 500
    input_dim: 46168
    bias_term: false
    weight_filler {
      type: "uniform"
      min: -0.08
      max: 0.08
    }
  }
}
layer {
  name: "lstm1"
  type: "LSTM"
  bottom: "embedded_input_frames"
  bottom: "cont_sentence"
  top: "lstm1"
  recurrent_param {
    num_output: 1000
    weight_filler {
      type: "uniform"
      min: -0.08
      max: 0.08
    }
    bias_filler {
      type: "constant"
      value: 0
    }
  }
}
layer {
  name: "concat"
  type: "Concat"
  bottom: "lstm1"
  bottom: "embedded_input_sentence"
  bottom: "reshaped_stage_indicator"
  top: "lstm1_video_sequence"
  concat_param {
    concat_dim: 2
  }
}
layer {
  name: "lstm2"
  type: "LSTM"
  bottom: "lstm1_video_sequence"
  bottom: "cont_sentence"
  top: "lstm2"
  recurrent_param {
    num_output: 1000
    weight_filler {
      type: "uniform"
      min: -0.08
      max: 0.08
    }
    bias_filler {
      type: "constant"
      value: 0
    }
  }
}
layer {
  name: "predict"
  type: "InnerProduct"
  bottom: "lstm2"
  top: "predict"
  param {
    lr_mult: 1
    decay_mult: 1
  }
  param {
    lr_mult: 2
    decay_mult: 0
  }
  inner_product_param {
    num_output: 46168
    weight_filler {
      type: "uniform"
      min: -0.08
      max: 0.08
    }
    bias_filler {
      type: "constant"
      value: 0
    }
    axis: 2
  }
}
layer {
  name: "probs"
  type: "Softmax"
  bottom: "predict"
  top: "probs"
  softmax_param {
    axis: 2
  }
}
I0924 02:32:35.804433 28730 layer_factory.hpp:77] Creating layer input
I0924 02:32:35.804436 28734 layer_factory.hpp:77] Creating layer input
I0924 02:32:35.804436 28754 layer_factory.hpp:77] Creating layer input
I0924 02:32:35.804460 28730 net.cpp:91] Creating Layer input
I0924 02:32:35.804466 28734 net.cpp:91] Creating Layer input
I0924 02:32:35.804436 28748 layer_factory.hpp:77] Creating layer input
…
I0924 02:32:35.804544 28730 net.cpp:399] input -> input_sentence
I0924 02:32:35.804569 28748 net.cpp:399] input -> cont_sentence
I0924 02:32:35.804572 28734 net.cpp:399] input -> stage_indicator
I0924 02:32:35.804572 28754 net.cpp:399] input -> input_sentence
I0924 02:32:35.804585 28748 net.cpp:399] input -> input_sentence
I0924 02:32:35.804579 28730 net.cpp:399] input -> stage_indicator
I0924 02:32:35.804600 28754 net.cpp:399] input -> stage_indicator
I0924 02:32:35.804606 28748 net.cpp:399] input -> stage_indicator
I0924 02:32:36.374644 28756 net.cpp:141] Setting up data
I0924 02:32:36.374709 28756 net.cpp:148] Top shape: 10 3 227 227 (1545870)
I0924 02:32:36.374716 28756 net.cpp:156] Memory required for data: 6183480
I0924 02:32:36.374738 28756 layer_factory.hpp:77] Creating layer conv1
I0924 02:32:36.374781 28756 net.cpp:91] Creating Layer conv1
I0924 02:32:36.374795 28756 net.cpp:425] conv1 <- data
I0924 02:32:36.374809 28756 net.cpp:399] conv1 -> conv1
I0924 02:32:36.374893 28754 net.cpp:141] Setting up input
I0924 02:32:36.374912 28754 net.cpp:148] Top shape: 1 4096 (4096)
I0924 02:32:36.374919 28754 net.cpp:148] Top shape: 1 1 (1)
I0924 02:32:36.374924 28754 net.cpp:148] Top shape: 1 1 (1)
I0924 02:32:36.374930 28754 net.cpp:148] Top shape: 1 1 (1)
I0924 02:32:36.374934 28754 net.cpp:156] Memory required for data: 16396
I0924 02:32:36.374932 28734 net.cpp:141] Setting up input
I0924 02:32:36.374940 28754 layer_factory.hpp:77] Creating layer cont_sentence_input_1_split
I0924 02:32:36.374963 28734 net.cpp:148] Top shape: 1 4096 (4096)
I0924 02:32:36.374974 28734 net.cpp:148] Top shape: 1 1 (1)
I0924 02:32:36.374974 28754 net.cpp:91] Creating Layer cont_sentence_input_1_split
I0924 02:32:36.374991 28754 net.cpp:425] cont_sentence_input_1_split <- cont_sentence
I0924 02:32:36.375020 28754 net.cpp:399] cont_sentence_input_1_split -> cont_sentence_input_1_split_0
I0924 02:32:36.375032 28754 net.cpp:399] cont_sentence_input_1_split -> cont_sentence_input_1_split_1
I0924 02:32:36.375100 28754 net.cpp:141] Setting up cont_sentence_input_1_split
I0924 02:32:36.375115 28754 net.cpp:148] Top shape: 1 1 (1)
I0924 02:32:36.375123 28754 net.cpp:148] Top shape: 1 1 (1)
I0924 02:32:36.375126 28754 net.cpp:156] Memory required for data: 16404
I0924 02:32:36.375131 28754 layer_factory.hpp:77] Creating layer embed_encoder
I0924 02:32:36.375150 28754 net.cpp:91] Creating Layer embed_encoder
I0924 02:32:36.375149 28748 net.cpp:141] Setting up input
I0924 02:32:36.375156 28754 net.cpp:425] embed_encoder <- frames_fc7
I0924 02:32:36.375176 28748 net.cpp:148] Top shape: 1 4096 (4096)
I0924 02:32:36.375180 28754 net.cpp:399] embed_encoder -> embedded_in_frames
I0924 02:32:36.375193 28748 net.cpp:148] Top shape: 1 1 (1)
I0924 02:32:36.375196 28730 net.cpp:141] Setting up input
I0924 02:32:36.375205 28748 net.cpp:148] Top shape: 1 1 (1)
I0924 02:32:36.375212 28730 net.cpp:148] Top shape: 1 4096 (4096)
I0924 02:32:36.375216 28748 net.cpp:148] Top shape: 1 1 (1)
I0924 02:32:36.375222 28748 net.cpp:156] Memory required for data: 16396
I0924 02:32:36.375223 28730 net.cpp:148] Top shape: 1 1 (1)
I0924 02:32:36.375241 28748 layer_factory.hpp:77] Creating layer cont_sentence_input_1_split
I0924 02:32:36.375246 28730 net.cpp:148] Top shape: 1 1 (1)
I0924 02:32:36.375255 28730 net.cpp:148] Top shape: 1 1 (1)
I0924 02:32:36.375257 28748 net.cpp:91] Creating Layer cont_sentence_input_1_split
I0924 02:32:36.375263 28730 net.cpp:156] Memory required for data: 16396
I0924 02:32:36.375265 28748 net.cpp:425] cont_sentence_input_1_split <- cont_sentence
I0924 02:32:36.375272 28730 layer_factory.hpp:77] Creating layer cont_sentence_input_1_split
I0924 02:32:36.375277 28748 net.cpp:399] cont_sentence_input_1_split -> cont_sentence_input_1_split_0
I0924 02:32:36.375285 28730 net.cpp:91] Creating Layer cont_sentence_input_1_split
I0924 02:32:36.375293 28748 net.cpp:399] cont_sentence_input_1_split -> cont_sentence_input_1_split_1
I0924 02:32:36.375295 28730 net.cpp:425] cont_sentence_input_1_split <- cont_sentence
I0924 02:32:36.375306 28730 net.cpp:399] cont_sentence_input_1_split -> cont_sentence_input_1_split_0
I0924 02:32:36.375321 28730 net.cpp:399] cont_sentence_input_1_split -> cont_sentence_input_1_split_1
I0924 02:32:36.374990 28734 net.cpp:148] Top shape: 1 1 (1)
I0924 02:32:36.375584 28734 net.cpp:148] Top shape: 1 1 (1)
I0924 02:32:36.375594 28734 net.cpp:156] Memory required for data: 16396
I0924 02:32:36.375603 28734 layer_factory.hpp:77] Creating layer cont_sentence_input_1_split
I0924 02:32:36.375617 28734 net.cpp:91] Creating Layer cont_sentence_input_1_split
I0924 02:32:36.375627 28734 net.cpp:425] cont_sentence_input_1_split <- cont_sentence
I0924 02:32:36.375640 28734 net.cpp:399] cont_sentence_input_1_split -> cont_sentence_input_1_split_0
I0924 02:32:36.375656 28734 net.cpp:399] cont_sentence_input_1_split -> cont_sentence_input_1_split_1
I0924 02:32:36.379086 28730 net.cpp:141] Setting up cont_sentence_input_1_split
I0924 02:32:36.379124 28730 net.cpp:148] Top shape: 1 1 (1)
I0924 02:32:36.379132 28730 net.cpp:148] Top shape: 1 1 (1)
I0924 02:32:36.379135 28730 net.cpp:156] Memory required for data: 16404
I0924 02:32:36.379142 28730 layer_factory.hpp:77] Creating layer embed_encoder
I0924 02:32:36.379153 28734 net.cpp:141] Setting up cont_sentence_input_1_split
I0924 02:32:36.379163 28730 net.cpp:91] Creating Layer embed_encoder
I0924 02:32:36.379170 28730 net.cpp:425] embed_encoder <- frames_fc7
I0924 02:32:36.379174 28734 net.cpp:148] Top shape: 1 1 (1)
I0924 02:32:36.379181 28730 net.cpp:399] embed_encoder -> embedded_in_frames
I0924 02:32:36.379185 28734 net.cpp:148] Top shape: 1 1 (1)
I0924 02:32:36.379194 28734 net.cpp:156] Memory required for data: 16404
I0924 02:32:36.379201 28734 layer_factory.hpp:77] Creating layer embed_encoder
I0924 02:32:36.379218 28734 net.cpp:91] Creating Layer embed_encoder
I0924 02:32:36.379230 28734 net.cpp:425] embed_encoder <- frames_fc7
I0924 02:32:36.379242 28734 net.cpp:399] embed_encoder -> embedded_in_frames
I0924 02:32:36.388682 28748 net.cpp:141] Setting up cont_sentence_input_1_split
I0924 02:32:36.388739 28748 net.cpp:148] Top shape: 1 1 (1)
I0924 02:32:36.388752 28748 net.cpp:148] Top shape: 1 1 (1)
I0924 02:32:36.388759 28748 net.cpp:156] Memory required for data: 16404
I0924 02:32:36.388772 28748 layer_factory.hpp:77] Creating layer embed_encoder
I0924 02:32:36.388830 28748 net.cpp:91] Creating Layer embed_encoder
I0924 02:32:36.388846 28748 net.cpp:425] embed_encoder <- frames_fc7
I0924 02:32:36.388865 28748 net.cpp:399] embed_encoder -> embedded_in_frames
I0924 02:32:36.401718 28754 net.cpp:141] Setting up embed_encoder
I0924 02:32:36.401763 28754 net.cpp:148] Top shape: 1 500 (500)
I0924 02:32:36.401769 28754 net.cpp:156] Memory required for data: 18404
I0924 02:32:36.401793 28754 layer_factory.hpp:77] Creating layer reshape_frames
I0924 02:32:36.401819 28754 net.cpp:91] Creating Layer reshape_frames
I0924 02:32:36.401828 28754 net.cpp:425] reshape_frames <- embedded_in_frames
I0924 02:32:36.401837 28754 net.cpp:399] reshape_frames -> embedded_input_frames
I0924 02:32:36.401882 28754 net.cpp:141] Setting up reshape_frames
I0924 02:32:36.401890 28754 net.cpp:148] Top shape: 1 1 500 (500)
I0924 02:32:36.401895 28754 net.cpp:156] Memory required for data: 20404
I0924 02:32:36.401899 28754 layer_factory.hpp:77] Creating layer reshape_stage_indicator
I0924 02:32:36.401911 28754 net.cpp:91] Creating Layer reshape_stage_indicator
I0924 02:32:36.401917 28754 net.cpp:425] reshape_stage_indicator <- stage_indicator
I0924 02:32:36.401926 28754 net.cpp:399] reshape_stage_indicator -> reshaped_stage_indicator
I0924 02:32:36.401957 28754 net.cpp:141] Setting up reshape_stage_indicator
I0924 02:32:36.401965 28754 net.cpp:148] Top shape: 1 1 1 (1)
I0924 02:32:36.401969 28754 net.cpp:156] Memory required for data: 20408
I0924 02:32:36.401974 28754 layer_factory.hpp:77] Creating layer embedding
I0924 02:32:36.401988 28754 net.cpp:91] Creating Layer embedding
I0924 02:32:36.401993 28754 net.cpp:425] embedding <- input_sentence
I0924 02:32:36.402000 28754 net.cpp:399] embedding -> embedded_input_sentence
I0924 02:32:36.442869 28748 net.cpp:141] Setting up embed_encoder
I0924 02:32:36.442912 28734 net.cpp:141] Setting up embed_encoder
I0924 02:32:36.442972 28730 net.cpp:141] Setting up embed_encoder
I0924 02:32:36.443011 28734 net.cpp:148] Top shape: 1 500 (500)
I0924 02:32:36.443012 28730 net.cpp:148] Top shape: 1 500 (500)
I0924 02:32:36.443025 28734 net.cpp:156] Memory required for data: 18404
I0924 02:32:36.443028 28730 net.cpp:156] Memory required for data: 18404
I0924 02:32:36.443053 28730 layer_factory.hpp:77] Creating layer reshape_frames
I0924 02:32:36.443053 28734 layer_factory.hpp:77] Creating layer reshape_frames
I0924 02:32:36.443089 28734 net.cpp:91] Creating Layer reshape_frames
I0924 02:32:36.443020 28748 net.cpp:148] Top shape: 1 500 (500)
I0924 02:32:36.443106 28734 net.cpp:425] reshape_frames <- embedded_in_frames
I0924 02:32:36.443089 28730 net.cpp:91] Creating Layer reshape_frames
I0924 02:32:36.443125 28730 net.cpp:425] reshape_frames <- embedded_in_frames
I0924 02:32:36.443127 28734 net.cpp:399] reshape_frames -> embedded_input_frames
I0924 02:32:36.443140 28730 net.cpp:399] reshape_frames -> embedded_input_frames
I0924 02:32:36.443163 28748 net.cpp:156] Memory required for data: 18404
I0924 02:32:36.443184 28748 layer_factory.hpp:77] Creating layer reshape_frames
I0924 02:32:36.443205 28748 net.cpp:91] Creating Layer reshape_frames
I0924 02:32:36.443214 28748 net.cpp:425] reshape_frames <- embedded_in_frames
I0924 02:32:36.443226 28748 net.cpp:399] reshape_frames -> embedded_input_frames
I0924 02:32:36.443845 28734 net.cpp:141] Setting up reshape_frames
I0924 02:32:36.443863 28734 net.cpp:148] Top shape: 1 1 500 (500)
I0924 02:32:36.443871 28734 net.cpp:156] Memory required for data: 20404
I0924 02:32:36.443879 28734 layer_factory.hpp:77] Creating layer reshape_stage_indicator
I0924 02:32:36.443897 28734 net.cpp:91] Creating Layer reshape_stage_indicator
I0924 02:32:36.443907 28734 net.cpp:425] reshape_stage_indicator <- stage_indicator
I0924 02:32:36.443920 28734 net.cpp:399] reshape_stage_indicator -> reshaped_stage_indicator
I0924 02:32:36.443927 28730 net.cpp:141] Setting up reshape_frames
I0924 02:32:36.443943 28730 net.cpp:148] Top shape: 1 1 500 (500)
I0924 02:32:36.443949 28730 net.cpp:156] Memory required for data: 20404
I0924 02:32:36.443958 28730 layer_factory.hpp:77] Creating layer reshape_stage_indicator
I0924 02:32:36.443972 28730 net.cpp:91] Creating Layer reshape_stage_indicator
I0924 02:32:36.443980 28730 net.cpp:425] reshape_stage_indicator <- stage_indicator
I0924 02:32:36.443992 28730 net.cpp:399] reshape_stage_indicator -> reshaped_stage_indicator
I0924 02:32:36.444020 28748 net.cpp:141] Setting up reshape_frames
I0924 02:32:36.444033 28748 net.cpp:148] Top shape: 1 1 500 (500)
I0924 02:32:36.444041 28748 net.cpp:156] Memory required for data: 20404
I0924 02:32:36.444048 28748 layer_factory.hpp:77] Creating layer reshape_stage_indicator
I0924 02:32:36.444062 28748 net.cpp:91] Creating Layer reshape_stage_indicator
I0924 02:32:36.444070 28748 net.cpp:425] reshape_stage_indicator <- stage_indicator
I0924 02:32:36.444082 28748 net.cpp:399] reshape_stage_indicator -> reshaped_stage_indicator
I0924 02:32:36.445927 28734 net.cpp:141] Setting up reshape_stage_indicator
I0924 02:32:36.445945 28730 net.cpp:141] Setting up reshape_stage_indicator
I0924 02:32:36.445986 28730 net.cpp:148] Top shape: 1 1 1 (1)
I0924 02:32:36.445984 28748 net.cpp:141] Setting up reshape_stage_indicator
I0924 02:32:36.445988 28734 net.cpp:148] Top shape: 1 1 1 (1)
I0924 02:32:36.445993 28730 net.cpp:156] Memory required for data: 20408
I0924 02:32:36.446032 28748 net.cpp:148] Top shape: 1 1 1 (1)
I0924 02:32:36.446036 28734 net.cpp:156] Memory required for data: 20408
I0924 02:32:36.446043 28748 net.cpp:156] Memory required for data: 20408
I0924 02:32:36.446049 28730 layer_factory.hpp:77] Creating layer embedding
I0924 02:32:36.446051 28734 layer_factory.hpp:77] Creating layer embedding
I0924 02:32:36.446053 28748 layer_factory.hpp:77] Creating layer embedding
I0924 02:32:36.446090 28730 net.cpp:91] Creating Layer embedding
I0924 02:32:36.446100 28730 net.cpp:425] embedding <- input_sentence
I0924 02:32:36.446097 28734 net.cpp:91] Creating Layer embedding
I0924 02:32:36.446132 28730 net.cpp:399] embedding -> embedded_input_sentence
I0924 02:32:36.446137 28734 net.cpp:425] embedding <- input_sentence
I0924 02:32:36.446153 28748 net.cpp:91] Creating Layer embedding
I0924 02:32:36.446159 28734 net.cpp:399] embedding -> embedded_input_sentence
I0924 02:32:36.446168 28748 net.cpp:425] embedding <- input_sentence
I0924 02:32:36.446187 28748 net.cpp:399] embedding -> embedded_input_sentence
I0924 02:32:36.623028 28754 net.cpp:141] Setting up embedding
I0924 02:32:36.623075 28754 net.cpp:148] Top shape: 1 1 500 (500)
I0924 02:32:36.623080 28754 net.cpp:156] Memory required for data: 22408
I0924 02:32:36.623096 28754 layer_factory.hpp:77] Creating layer lstm1
I0924 02:32:36.623116 28754 net.cpp:91] Creating Layer lstm1
I0924 02:32:36.623124 28754 net.cpp:425] lstm1 <- embedded_input_frames
I0924 02:32:36.623133 28754 net.cpp:425] lstm1 <- cont_sentence_input_1_split_0
I0924 02:32:36.623143 28754 net.cpp:399] lstm1 -> lstm1
I0924 02:32:36.623177 28754 recurrent_layer.cpp:20] Initializing recurrent layer: assuming input batch contains 1 timesteps of 1 independent streams.
I0924 02:32:36.623509 28754 net.cpp:49] Initializing net from parameters: 
layer {
  name: "lstm1_"
  type: "Input"
  top: "x"
  top: "cont"
  input_param {
    shape {
      dim: 1
      dim: 1
      dim: 500
    }
    shape {
      dim: 1
      dim: 1
    }
  }
}
layer {
  name: "lstm1_"
  type: "Input"
  top: "c_0"
  top: "h_0"
  input_param {
    shape {
      dim: 1
      dim: 1
      dim: 1000
    }
    shape {
      dim: 1
      dim: 1
      dim: 1000
    }
  }
}
layer {
  name: "lstm1_cont_slice"
  type: "Slice"
  bottom: "cont"
  top: "cont_1"
  slice_param {
    axis: 0
  }
}
layer {
  name: "lstm1_x_transform"
  type: "InnerProduct"
  bottom: "x"
  top: "W_xc_x"
  param {
    name: "W_xc"
  }
  param {
    name: "b_c"
  }
  propagate_down: true
  inner_product_param {
    num_output: 4000
    bias_term: true
    weight_filler {
      type: "uniform"
      min: -0.08
      max: 0.08
    }
    bias_filler {
      type: "constant"
      value: 0
    }
    axis: 2
  }
}
layer {
  name: "lstm1_W_xc_x_slice"
  type: "Slice"
  bottom: "W_xc_x"
  top: "W_xc_x_1"
  slice_param {
    axis: 0
  }
}
layer {
  name: "lstm1_h_conted_0"
  type: "Scale"
  bottom: "h_0"
  bottom: "cont_1"
  top: "h_conted_0"
  scale_param {
    axis: 0
  }
}
layer {
  name: "lstm1_transform_1"
  type: "InnerProduct"
  bottom: "h_conted_0"
  top: "W_hc_h_0"
  param {
    name: "W_hc"
  }
  inner_product_param {
    num_output: 4000
    bias_term: false
    weight_filler {
      type: "uniform"
      min: -0.08
      max: 0.08
    }
    axis: 2
  }
}
layer {
  name: "lstm1_gate_input_1"
  type: "Eltwise"
  bottom: "W_hc_h_0"
  bottom: "W_xc_x_1"
  top: "gate_input_1"
  eltwise_param {
    operation: SUM
  }
}
layer {
  name: "lstm1_unit_1"
  type: "LSTMUnit"
  bottom: "c_0"
  bottom: "gate_input_1"
  bottom: "cont_1"
  top: "c_1"
  top: "h_1"
}
layer {
  name: "lstm1_"
  type: "Split"
  bottom: "c_1"
  top: "c_T"
}
layer {
  name: "lstm1_h_concat"
  type: "Concat"
  bottom: "h_1"
  top: "h"
  concat_param {
    axis: 0
  }
}
layer {
  name: "h_pseudoloss"
  type: "Reduction"
  bottom: "h"
  top: "h_pseudoloss"
  loss_weight: 1
}
I0924 02:32:36.623600 28754 layer_factory.hpp:77] Creating layer lstm1_
I0924 02:32:36.623610 28754 net.cpp:91] Creating Layer lstm1_
I0924 02:32:36.623617 28754 net.cpp:399] lstm1_ -> x
I0924 02:32:36.623628 28754 net.cpp:399] lstm1_ -> cont
I0924 02:32:36.625164 28754 net.cpp:141] Setting up lstm1_
I0924 02:32:36.625182 28754 net.cpp:148] Top shape: 1 1 500 (500)
I0924 02:32:36.625190 28754 net.cpp:148] Top shape: 1 1 (1)
I0924 02:32:36.625193 28754 net.cpp:156] Memory required for data: 2004
I0924 02:32:36.625198 28754 layer_factory.hpp:77] Creating layer lstm1_
I0924 02:32:36.625214 28754 net.cpp:91] Creating Layer lstm1_
I0924 02:32:36.625223 28754 net.cpp:399] lstm1_ -> c_0
I0924 02:32:36.625236 28754 net.cpp:399] lstm1_ -> h_0
I0924 02:32:36.627089 28754 net.cpp:141] Setting up lstm1_
I0924 02:32:36.627127 28754 net.cpp:148] Top shape: 1 1 1000 (1000)
I0924 02:32:36.627140 28754 net.cpp:148] Top shape: 1 1 1000 (1000)
I0924 02:32:36.627148 28754 net.cpp:156] Memory required for data: 10004
I0924 02:32:36.627158 28754 layer_factory.hpp:77] Creating layer lstm1_cont_slice
I0924 02:32:36.627178 28754 net.cpp:91] Creating Layer lstm1_cont_slice
I0924 02:32:36.627188 28754 net.cpp:425] lstm1_cont_slice <- cont
I0924 02:32:36.627203 28754 net.cpp:399] lstm1_cont_slice -> cont_1
I0924 02:32:36.635555 28754 net.cpp:141] Setting up lstm1_cont_slice
I0924 02:32:36.635606 28754 net.cpp:148] Top shape: 1 1 (1)
I0924 02:32:36.635614 28754 net.cpp:156] Memory required for data: 10008
I0924 02:32:36.635628 28754 layer_factory.hpp:77] Creating layer cont_1_lstm1_cont_slice_0_split
I0924 02:32:36.635653 28754 net.cpp:91] Creating Layer cont_1_lstm1_cont_slice_0_split
I0924 02:32:36.635664 28754 net.cpp:425] cont_1_lstm1_cont_slice_0_split <- cont_1
I0924 02:32:36.635691 28754 net.cpp:399] cont_1_lstm1_cont_slice_0_split -> cont_1_lstm1_cont_slice_0_split_0
I0924 02:32:36.635713 28754 net.cpp:399] cont_1_lstm1_cont_slice_0_split -> cont_1_lstm1_cont_slice_0_split_1
I0924 02:32:36.636659 28754 net.cpp:141] Setting up cont_1_lstm1_cont_slice_0_split
I0924 02:32:36.636677 28754 net.cpp:148] Top shape: 1 1 (1)
I0924 02:32:36.636687 28754 net.cpp:148] Top shape: 1 1 (1)
I0924 02:32:36.636695 28754 net.cpp:156] Memory required for data: 10016
I0924 02:32:36.636703 28754 layer_factory.hpp:77] Creating layer lstm1_x_transform
I0924 02:32:36.636729 28754 net.cpp:91] Creating Layer lstm1_x_transform
I0924 02:32:36.636739 28754 net.cpp:425] lstm1_x_transform <- x
I0924 02:32:36.636756 28754 net.cpp:399] lstm1_x_transform -> W_xc_x
I0924 02:32:36.678489 28754 net.cpp:141] Setting up lstm1_x_transform
I0924 02:32:36.678547 28754 net.cpp:148] Top shape: 1 1 4000 (4000)
I0924 02:32:36.678557 28754 net.cpp:156] Memory required for data: 26016
I0924 02:32:36.678591 28754 layer_factory.hpp:77] Creating layer lstm1_W_xc_x_slice
I0924 02:32:36.678638 28754 net.cpp:91] Creating Layer lstm1_W_xc_x_slice
I0924 02:32:36.678652 28754 net.cpp:425] lstm1_W_xc_x_slice <- W_xc_x
I0924 02:32:36.678665 28754 net.cpp:399] lstm1_W_xc_x_slice -> W_xc_x_1
I0924 02:32:36.689422 28754 net.cpp:141] Setting up lstm1_W_xc_x_slice
I0924 02:32:36.689477 28754 net.cpp:148] Top shape: 1 1 4000 (4000)
I0924 02:32:36.689487 28754 net.cpp:156] Memory required for data: 42016
I0924 02:32:36.689501 28754 layer_factory.hpp:77] Creating layer lstm1_h_conted_0
I0924 02:32:36.689507 28748 net.cpp:141] Setting up embedding
I0924 02:32:36.689540 28754 net.cpp:91] Creating Layer lstm1_h_conted_0
I0924 02:32:36.689549 28748 net.cpp:148] Top shape: 1 1 500 (500)
I0924 02:32:36.689554 28754 net.cpp:425] lstm1_h_conted_0 <- h_0
I0924 02:32:36.689560 28748 net.cpp:156] Memory required for data: 22408
I0924 02:32:36.689568 28754 net.cpp:425] lstm1_h_conted_0 <- cont_1_lstm1_cont_slice_0_split_0
I0924 02:32:36.689584 28748 layer_factory.hpp:77] Creating layer lstm1
I0924 02:32:36.689589 28754 net.cpp:399] lstm1_h_conted_0 -> h_conted_0
I0924 02:32:36.689615 28748 net.cpp:91] Creating Layer lstm1
I0924 02:32:36.689630 28748 net.cpp:425] lstm1 <- embedded_input_frames
I0924 02:32:36.689642 28748 net.cpp:425] lstm1 <- cont_sentence_input_1_split_0
I0924 02:32:36.689661 28748 net.cpp:399] lstm1 -> lstm1
I0924 02:32:36.689684 28748 recurrent_layer.cpp:20] Initializing recurrent layer: assuming input batch contains 1 timesteps of 1 independent streams.
I0924 02:32:36.689797 28754 net.cpp:141] Setting up lstm1_h_conted_0
I0924 02:32:36.689813 28754 net.cpp:148] Top shape: 1 1 1000 (1000)
I0924 02:32:36.689821 28754 net.cpp:156] Memory required for data: 46016
I0924 02:32:36.689829 28754 layer_factory.hpp:77] Creating layer lstm1_transform_1
I0924 02:32:36.689852 28754 net.cpp:91] Creating Layer lstm1_transform_1
I0924 02:32:36.689860 28754 net.cpp:425] lstm1_transform_1 <- h_conted_0
I0924 02:32:36.689874 28754 net.cpp:399] lstm1_transform_1 -> W_hc_h_0
I0924 02:32:36.690068 28748 net.cpp:49] Initializing net from parameters: 
layer {
  name: "lstm1_"
  type: "Input"
  top: "x"
  top: "cont"
  input_param {
    shape {
      dim: 1
      dim: 1
      dim: 500
    }
    shape {
      dim: 1
      dim: 1
    }
  }
}
layer {
  name: "lstm1_"
  type: "Input"
  top: "c_0"
  top: "h_0"
  input_param {
    shape {
      dim: 1
      dim: 1
      dim: 1000
    }
    shape {
      dim: 1
      dim: 1
      dim: 1000
    }
  }
}
layer {
  name: "lstm1_cont_slice"
  type: "Slice"
  bottom: "cont"
  top: "cont_1"
  slice_param {
    axis: 0
  }
}
layer {
  name: "lstm1_x_transform"
  type: "InnerProduct"
  bottom: "x"
  top: "W_xc_x"
  param {
    name: "W_xc"
  }
  param {
    name: "b_c"
  }
  propagate_down: true
  inner_product_param {
    num_output: 4000
    bias_term: true
    weight_filler {
      type: "uniform"
      min: -0.08
      max: 0.08
    }
    bias_filler {
      type: "constant"
      value: 0
    }
    axis: 2
  }
}
layer {
  name: "lstm1_W_xc_x_slice"
  type: "Slice"
  bottom: "W_xc_x"
  top: "W_xc_x_1"
  slice_param {
    axis: 0
  }
}
layer {
  name: "lstm1_h_conted_0"
  type: "Scale"
  bottom: "h_0"
  bottom: "cont_1"
  top: "h_conted_0"
  scale_param {
    axis: 0
  }
}
layer {
  name: "lstm1_transform_1"
  type: "InnerProduct"
  bottom: "h_conted_0"
  top: "W_hc_h_0"
  param {
    name: "W_hc"
  }
  inner_product_param {
    num_output: 4000
    bias_term: false
    weight_filler {
      type: "uniform"
      min: -0.08
      max: 0.08
    }
    axis: 2
  }
}
layer {
  name: "lstm1_gate_input_1"
  type: "Eltwise"
  bottom: "W_hc_h_0"
  bottom: "W_xc_x_1"
  top: "gate_input_1"
  eltwise_param {
    operation: SUM
  }
}
layer {
  name: "lstm1_unit_1"
  type: "LSTMUnit"
  bottom: "c_0"
  bottom: "gate_input_1"
  bottom: "cont_1"
  top: "c_1"
  top: "h_1"
}
layer {
  name: "lstm1_"
  type: "Split"
  bottom: "c_1"
  top: "c_T"
}
layer {
  name: "lstm1_h_concat"
  type: "Concat"
  bottom: "h_1"
  top: "h"
  concat_param {
    axis: 0
  }
}
layer {
  name: "h_pseudoloss"
  type: "Reduction"
  bottom: "h"
  top: "h_pseudoloss"
  loss_weight: 1
}
I0924 02:32:36.690198 28748 layer_factory.hpp:77] Creating layer lstm1_
I0924 02:32:36.690217 28748 net.cpp:91] Creating Layer lstm1_
I0924 02:32:36.690228 28748 net.cpp:399] lstm1_ -> x
I0924 02:32:36.690245 28748 net.cpp:399] lstm1_ -> cont
I0924 02:32:36.698415 28748 net.cpp:141] Setting up lstm1_
I0924 02:32:36.698458 28748 net.cpp:148] Top shape: 1 1 500 (500)
I0924 02:32:36.698467 28748 net.cpp:148] Top shape: 1 1 (1)
I0924 02:32:36.698470 28748 net.cpp:156] Memory required for data: 2004
I0924 02:32:36.698478 28748 layer_factory.hpp:77] Creating layer lstm1_
I0924 02:32:36.698498 28748 net.cpp:91] Creating Layer lstm1_
I0924 02:32:36.698508 28748 net.cpp:399] lstm1_ -> c_0
I0924 02:32:36.698526 28748 net.cpp:399] lstm1_ -> h_0
I0924 02:32:36.701584 28748 net.cpp:141] Setting up lstm1_
I0924 02:32:36.701609 28748 net.cpp:148] Top shape: 1 1 1000 (1000)
I0924 02:32:36.701617 28748 net.cpp:148] Top shape: 1 1 1000 (1000)
I0924 02:32:36.701620 28748 net.cpp:156] Memory required for data: 10004
I0924 02:32:36.701627 28748 layer_factory.hpp:77] Creating layer lstm1_cont_slice
I0924 02:32:36.701639 28748 net.cpp:91] Creating Layer lstm1_cont_slice
I0924 02:32:36.701645 28748 net.cpp:425] lstm1_cont_slice <- cont
I0924 02:32:36.701653 28748 net.cpp:399] lstm1_cont_slice -> cont_1
I0924 02:32:36.705302 28748 net.cpp:141] Setting up lstm1_cont_slice
I0924 02:32:36.705327 28748 net.cpp:148] Top shape: 1 1 (1)
I0924 02:32:36.705332 28748 net.cpp:156] Memory required for data: 10008
I0924 02:32:36.705338 28748 layer_factory.hpp:77] Creating layer cont_1_lstm1_cont_slice_0_split
I0924 02:32:36.705351 28748 net.cpp:91] Creating Layer cont_1_lstm1_cont_slice_0_split
I0924 02:32:36.705358 28748 net.cpp:425] cont_1_lstm1_cont_slice_0_split <- cont_1
I0924 02:32:36.705364 28748 net.cpp:399] cont_1_lstm1_cont_slice_0_split -> cont_1_lstm1_cont_slice_0_split_0
I0924 02:32:36.705374 28748 net.cpp:399] cont_1_lstm1_cont_slice_0_split -> cont_1_lstm1_cont_slice_0_split_1
I0924 02:32:36.705436 28748 net.cpp:141] Setting up cont_1_lstm1_cont_slice_0_split
I0924 02:32:36.705446 28748 net.cpp:148] Top shape: 1 1 (1)
I0924 02:32:36.705451 28748 net.cpp:148] Top shape: 1 1 (1)
I0924 02:32:36.705456 28748 net.cpp:156] Memory required for data: 10016
I0924 02:32:36.705461 28748 layer_factory.hpp:77] Creating layer lstm1_x_transform
I0924 02:32:36.705474 28748 net.cpp:91] Creating Layer lstm1_x_transform
I0924 02:32:36.705479 28748 net.cpp:425] lstm1_x_transform <- x
I0924 02:32:36.705492 28748 net.cpp:399] lstm1_x_transform -> W_xc_x
I0924 02:32:36.712234 28730 net.cpp:141] Setting up embedding
I0924 02:32:36.712285 28730 net.cpp:148] Top shape: 1 1 500 (500)
I0924 02:32:36.712294 28730 net.cpp:156] Memory required for data: 22408
I0924 02:32:36.712316 28730 layer_factory.hpp:77] Creating layer lstm1
I0924 02:32:36.712342 28730 net.cpp:91] Creating Layer lstm1
I0924 02:32:36.712352 28730 net.cpp:425] lstm1 <- embedded_input_frames
I0924 02:32:36.712363 28730 net.cpp:425] lstm1 <- cont_sentence_input_1_split_0
I0924 02:32:36.712375 28730 net.cpp:399] lstm1 -> lstm1
I0924 02:32:36.712395 28730 recurrent_layer.cpp:20] Initializing recurrent layer: assuming input batch contains 1 timesteps of 1 independent streams.
I0924 02:32:36.712769 28730 net.cpp:49] Initializing net from parameters: 
layer {
  name: "lstm1_"
  type: "Input"
  top: "x"
  top: "cont"
  input_param {
    shape {
      dim: 1
      dim: 1
      dim: 500
    }
    shape {
      dim: 1
      dim: 1
    }
  }
}
layer {
  name: "lstm1_"
  type: "Input"
  top: "c_0"
  top: "h_0"
  input_param {
    shape {
      dim: 1
      dim: 1
      dim: 1000
    }
    shape {
      dim: 1
      dim: 1
      dim: 1000
    }
  }
}
layer {
  name: "lstm1_cont_slice"
  type: "Slice"
  bottom: "cont"
  top: "cont_1"
  slice_param {
    axis: 0
  }
}
layer {
  name: "lstm1_x_transform"
  type: "InnerProduct"
  bottom: "x"
  top: "W_xc_x"
  param {
    name: "W_xc"
  }
  param {
    name: "b_c"
  }
  propagate_down: true
  inner_product_param {
    num_output: 4000
    bias_term: true
    weight_filler {
      type: "uniform"
      min: -0.08
      max: 0.08
    }
    bias_filler {
      type: "constant"
      value: 0
    }
    axis: 2
  }
}
layer {
  name: "lstm1_W_xc_x_slice"
  type: "Slice"
  bottom: "W_xc_x"
  top: "W_xc_x_1"
  slice_param {
    axis: 0
  }
}
layer {
  name: "lstm1_h_conted_0"
  type: "Scale"
  bottom: "h_0"
  bottom: "cont_1"
  top: "h_conted_0"
  scale_param {
    axis: 0
  }
}
layer {
  name: "lstm1_transform_1"
  type: "InnerProduct"
  bottom: "h_conted_0"
  top: "W_hc_h_0"
  param {
    name: "W_hc"
  }
  inner_product_param {
    num_output: 4000
    bias_term: false
    weight_filler {
      type: "uniform"
      min: -0.08
      max: 0.08
    }
    axis: 2
  }
}
layer {
  name: "lstm1_gate_input_1"
  type: "Eltwise"
  bottom: "W_hc_h_0"
  bottom: "W_xc_x_1"
  top: "gate_input_1"
  eltwise_param {
    operation: SUM
  }
}
layer {
  name: "lstm1_unit_1"
  type: "LSTMUnit"
  bottom: "c_0"
  bottom: "gate_input_1"
  bottom: "cont_1"
  top: "c_1"
  top: "h_1"
}
layer {
  name: "lstm1_"
  type: "Split"
  bottom: "c_1"
  top: "c_T"
}
layer {
  name: "lstm1_h_concat"
  type: "Concat"
  bottom: "h_1"
  top: "h"
  concat_param {
    axis: 0
  }
}
layer {
  name: "h_pseudoloss"
  type: "Reduction"
  bottom: "h"
  top: "h_pseudoloss"
  loss_weight: 1
}
I0924 02:32:36.712887 28730 layer_factory.hpp:77] Creating layer lstm1_
I0924 02:32:36.712904 28730 net.cpp:91] Creating Layer lstm1_
I0924 02:32:36.712914 28730 net.cpp:399] lstm1_ -> x
I0924 02:32:36.712929 28730 net.cpp:399] lstm1_ -> cont
I0924 02:32:36.715510 28730 net.cpp:141] Setting up lstm1_
I0924 02:32:36.715529 28730 net.cpp:148] Top shape: 1 1 500 (500)
I0924 02:32:36.715538 28730 net.cpp:148] Top shape: 1 1 (1)
I0924 02:32:36.715545 28730 net.cpp:156] Memory required for data: 2004
I0924 02:32:36.715553 28730 layer_factory.hpp:77] Creating layer lstm1_
I0924 02:32:36.715569 28730 net.cpp:91] Creating Layer lstm1_
I0924 02:32:36.715579 28730 net.cpp:399] lstm1_ -> c_0
I0924 02:32:36.715593 28730 net.cpp:399] lstm1_ -> h_0
I0924 02:32:36.717465 28730 net.cpp:141] Setting up lstm1_
I0924 02:32:36.717479 28730 net.cpp:148] Top shape: 1 1 1000 (1000)
I0924 02:32:36.717489 28730 net.cpp:148] Top shape: 1 1 1000 (1000)
I0924 02:32:36.717494 28730 net.cpp:156] Memory required for data: 10004
I0924 02:32:36.717501 28730 layer_factory.hpp:77] Creating layer lstm1_cont_slice
I0924 02:32:36.717514 28730 net.cpp:91] Creating Layer lstm1_cont_slice
I0924 02:32:36.717521 28730 net.cpp:425] lstm1_cont_slice <- cont
I0924 02:32:36.717535 28730 net.cpp:399] lstm1_cont_slice -> cont_1
I0924 02:32:36.719601 28730 net.cpp:141] Setting up lstm1_cont_slice
I0924 02:32:36.719619 28730 net.cpp:148] Top shape: 1 1 (1)
I0924 02:32:36.719625 28730 net.cpp:156] Memory required for data: 10008
I0924 02:32:36.719632 28730 layer_factory.hpp:77] Creating layer cont_1_lstm1_cont_slice_0_split
I0924 02:32:36.719643 28730 net.cpp:91] Creating Layer cont_1_lstm1_cont_slice_0_split
I0924 02:32:36.719650 28730 net.cpp:425] cont_1_lstm1_cont_slice_0_split <- cont_1
I0924 02:32:36.719660 28730 net.cpp:399] cont_1_lstm1_cont_slice_0_split -> cont_1_lstm1_cont_slice_0_split_0
I0924 02:32:36.719672 28730 net.cpp:399] cont_1_lstm1_cont_slice_0_split -> cont_1_lstm1_cont_slice_0_split_1
I0924 02:32:36.719740 28730 net.cpp:141] Setting up cont_1_lstm1_cont_slice_0_split
I0924 02:32:36.719751 28730 net.cpp:148] Top shape: 1 1 (1)
I0924 02:32:36.719759 28730 net.cpp:148] Top shape: 1 1 (1)
I0924 02:32:36.719766 28730 net.cpp:156] Memory required for data: 10016
I0924 02:32:36.719774 28730 layer_factory.hpp:77] Creating layer lstm1_x_transform
I0924 02:32:36.719791 28730 net.cpp:91] Creating Layer lstm1_x_transform
I0924 02:32:36.719799 28730 net.cpp:425] lstm1_x_transform <- x
I0924 02:32:36.719810 28730 net.cpp:399] lstm1_x_transform -> W_xc_x
I0924 02:32:36.734812 28748 net.cpp:141] Setting up lstm1_x_transform
I0924 02:32:36.734863 28748 net.cpp:148] Top shape: 1 1 4000 (4000)
I0924 02:32:36.734869 28748 net.cpp:156] Memory required for data: 26016
I0924 02:32:36.734887 28748 layer_factory.hpp:77] Creating layer lstm1_W_xc_x_slice
I0924 02:32:36.734902 28748 net.cpp:91] Creating Layer lstm1_W_xc_x_slice
I0924 02:32:36.734910 28748 net.cpp:425] lstm1_W_xc_x_slice <- W_xc_x
I0924 02:32:36.734928 28748 net.cpp:399] lstm1_W_xc_x_slice -> W_xc_x_1
I0924 02:32:36.738646 28748 net.cpp:141] Setting up lstm1_W_xc_x_slice
I0924 02:32:36.738684 28748 net.cpp:148] Top shape: 1 1 4000 (4000)
I0924 02:32:36.738695 28748 net.cpp:156] Memory required for data: 42016
I0924 02:32:36.738708 28748 layer_factory.hpp:77] Creating layer lstm1_h_conted_0
I0924 02:32:36.738729 28748 net.cpp:91] Creating Layer lstm1_h_conted_0
I0924 02:32:36.738739 28748 net.cpp:425] lstm1_h_conted_0 <- h_0
I0924 02:32:36.738752 28748 net.cpp:425] lstm1_h_conted_0 <- cont_1_lstm1_cont_slice_0_split_0
I0924 02:32:36.738765 28748 net.cpp:399] lstm1_h_conted_0 -> h_conted_0
I0924 02:32:36.741621 28748 net.cpp:141] Setting up lstm1_h_conted_0
I0924 02:32:36.741648 28748 net.cpp:148] Top shape: 1 1 1000 (1000)
I0924 02:32:36.741658 28748 net.cpp:156] Memory required for data: 46016
I0924 02:32:36.741668 28748 layer_factory.hpp:77] Creating layer lstm1_transform_1
I0924 02:32:36.741690 28748 net.cpp:91] Creating Layer lstm1_transform_1
I0924 02:32:36.741700 28748 net.cpp:425] lstm1_transform_1 <- h_conted_0
I0924 02:32:36.741724 28748 net.cpp:399] lstm1_transform_1 -> W_hc_h_0
I0924 02:32:36.741756 28754 net.cpp:141] Setting up lstm1_transform_1
I0924 02:32:36.741796 28754 net.cpp:148] Top shape: 1 1 4000 (4000)
I0924 02:32:36.741806 28754 net.cpp:156] Memory required for data: 62016
I0924 02:32:36.741829 28754 layer_factory.hpp:77] Creating layer lstm1_gate_input_1
I0924 02:32:36.741859 28754 net.cpp:91] Creating Layer lstm1_gate_input_1
I0924 02:32:36.741870 28754 net.cpp:425] lstm1_gate_input_1 <- W_hc_h_0
I0924 02:32:36.741881 28754 net.cpp:425] lstm1_gate_input_1 <- W_xc_x_1
I0924 02:32:36.741897 28754 net.cpp:399] lstm1_gate_input_1 -> gate_input_1
I0924 02:32:36.741924 28730 net.cpp:141] Setting up lstm1_x_transform
I0924 02:32:36.741942 28730 net.cpp:148] Top shape: 1 1 4000 (4000)
I0924 02:32:36.741947 28730 net.cpp:156] Memory required for data: 26016
I0924 02:32:36.741962 28730 layer_factory.hpp:77] Creating layer lstm1_W_xc_x_slice
I0924 02:32:36.741973 28730 net.cpp:91] Creating Layer lstm1_W_xc_x_slice
I0924 02:32:36.741979 28730 net.cpp:425] lstm1_W_xc_x_slice <- W_xc_x
I0924 02:32:36.741991 28730 net.cpp:399] lstm1_W_xc_x_slice -> W_xc_x_1
I0924 02:32:36.750043 28754 net.cpp:141] Setting up lstm1_gate_input_1
I0924 02:32:36.750075 28754 net.cpp:148] Top shape: 1 1 4000 (4000)
I0924 02:32:36.750084 28754 net.cpp:156] Memory required for data: 78016
I0924 02:32:36.750094 28754 layer_factory.hpp:77] Creating layer lstm1_unit_1
I0924 02:32:36.750126 28754 net.cpp:91] Creating Layer lstm1_unit_1
I0924 02:32:36.750136 28754 net.cpp:425] lstm1_unit_1 <- c_0
I0924 02:32:36.750147 28754 net.cpp:425] lstm1_unit_1 <- gate_input_1
I0924 02:32:36.750156 28754 net.cpp:425] lstm1_unit_1 <- cont_1_lstm1_cont_slice_0_split_1
I0924 02:32:36.750152 28730 net.cpp:141] Setting up lstm1_W_xc_x_slice
I0924 02:32:36.750169 28754 net.cpp:399] lstm1_unit_1 -> c_1
I0924 02:32:36.750197 28730 net.cpp:148] Top shape: 1 1 4000 (4000)
I0924 02:32:36.750205 28730 net.cpp:156] Memory required for data: 42016
I0924 02:32:36.750210 28754 net.cpp:399] lstm1_unit_1 -> h_1
I0924 02:32:36.750214 28730 layer_factory.hpp:77] Creating layer lstm1_h_conted_0
I0924 02:32:36.750233 28730 net.cpp:91] Creating Layer lstm1_h_conted_0
I0924 02:32:36.750241 28730 net.cpp:425] lstm1_h_conted_0 <- h_0
I0924 02:32:36.750248 28730 net.cpp:425] lstm1_h_conted_0 <- cont_1_lstm1_cont_slice_0_split_0
I0924 02:32:36.750267 28730 net.cpp:399] lstm1_h_conted_0 -> h_conted_0
I0924 02:32:36.750486 28754 net.cpp:141] Setting up lstm1_unit_1
I0924 02:32:36.750502 28754 net.cpp:148] Top shape: 1 1 1000 (1000)
I0924 02:32:36.750512 28754 net.cpp:148] Top shape: 1 1 1000 (1000)
I0924 02:32:36.750519 28754 net.cpp:156] Memory required for data: 86016
I0924 02:32:36.750527 28754 layer_factory.hpp:77] Creating layer lstm1_
I0924 02:32:36.750540 28754 net.cpp:91] Creating Layer lstm1_
I0924 02:32:36.750548 28754 net.cpp:425] lstm1_ <- c_1
I0924 02:32:36.750562 28754 net.cpp:399] lstm1_ -> c_T
I0924 02:32:36.754971 28754 net.cpp:141] Setting up lstm1_
I0924 02:32:36.754993 28754 net.cpp:148] Top shape: 1 1 1000 (1000)
I0924 02:32:36.755003 28754 net.cpp:156] Memory required for data: 90016
I0924 02:32:36.755012 28754 layer_factory.hpp:77] Creating layer lstm1_h_concat
I0924 02:32:36.755030 28754 net.cpp:91] Creating Layer lstm1_h_concat
I0924 02:32:36.755040 28754 net.cpp:425] lstm1_h_concat <- h_1
I0924 02:32:36.755054 28754 net.cpp:399] lstm1_h_concat -> h
I0924 02:32:36.755126 28730 net.cpp:141] Setting up lstm1_h_conted_0
I0924 02:32:36.755172 28730 net.cpp:148] Top shape: 1 1 1000 (1000)
I0924 02:32:36.755177 28730 net.cpp:156] Memory required for data: 46016
I0924 02:32:36.755187 28730 layer_factory.hpp:77] Creating layer lstm1_transform_1
I0924 02:32:36.755199 28754 net.cpp:141] Setting up lstm1_h_concat
I0924 02:32:36.755209 28730 net.cpp:91] Creating Layer lstm1_transform_1
I0924 02:32:36.755218 28754 net.cpp:148] Top shape: 1 1 1000 (1000)
I0924 02:32:36.755219 28730 net.cpp:425] lstm1_transform_1 <- h_conted_0
I0924 02:32:36.755231 28754 net.cpp:156] Memory required for data: 94016
I0924 02:32:36.755241 28754 layer_factory.hpp:77] Creating layer h_pseudoloss
I0924 02:32:36.755245 28730 net.cpp:399] lstm1_transform_1 -> W_hc_h_0
I0924 02:32:36.755265 28754 net.cpp:91] Creating Layer h_pseudoloss
I0924 02:32:36.755275 28754 net.cpp:425] h_pseudoloss <- h
…
I0924 02:32:36.763645 28754 net.cpp:219] lstm1_ does not need backward computation.
I0924 02:32:36.763653 28754 net.cpp:261] This network produces output c_T
I0924 02:32:36.763664 28754 net.cpp:261] This network produces output h_pseudoloss
I0924 02:32:36.763691 28754 net.cpp:274] Network initialization done.
I0924 02:32:36.763797 28754 recurrent_layer.cpp:150] Adding parameter 0: W_xc
I0924 02:32:36.763810 28754 recurrent_layer.cpp:150] Adding parameter 1: b_c
I0924 02:32:36.763818 28754 recurrent_layer.cpp:150] Adding parameter 2: W_hc
I0924 02:32:36.763983 28754 net.cpp:141] Setting up lstm1
I0924 02:32:36.763999 28754 net.cpp:148] Top shape: 1 1 1000 (1000)
I0924 02:32:36.764008 28754 net.cpp:156] Memory required for data: 26408
I0924 02:32:36.764031 28754 layer_factory.hpp:77] Creating layer concat
I0924 02:32:36.764055 28754 net.cpp:91] Creating Layer concat
I0924 02:32:36.764066 28754 net.cpp:425] concat <- lstm1
I0924 02:32:36.764077 28754 net.cpp:425] concat <- embedded_input_sentence
I0924 02:32:36.764086 28754 net.cpp:425] concat <- reshaped_stage_indicator
I0924 02:32:36.764098 28754 net.cpp:399] concat -> lstm1_video_sequence
I0924 02:32:36.764155 28754 net.cpp:141] Setting up concat
I0924 02:32:36.764169 28754 net.cpp:148] Top shape: 1 1 1501 (1501)
I0924 02:32:36.764178 28754 net.cpp:156] Memory required for data: 32412
I0924 02:32:36.764185 28754 layer_factory.hpp:77] Creating layer lstm2
I0924 02:32:36.764206 28754 net.cpp:91] Creating Layer lstm2
I0924 02:32:36.764215 28754 net.cpp:425] lstm2 <- lstm1_video_sequence
I0924 02:32:36.764225 28754 net.cpp:425] lstm2 <- cont_sentence_input_1_split_1
I0924 02:32:36.764237 28754 net.cpp:399] lstm2 -> lstm2
I0924 02:32:36.764255 28754 recurrent_layer.cpp:20] Initializing recurrent layer: assuming input batch contains 1 timesteps of 1 independent streams.
I0924 02:32:36.764636 28754 net.cpp:49] Initializing net from parameters: 
layer {
  name: "lstm2_"
  type: "Input"
  top: "x"
  top: "cont"
  input_param {
    shape {
      dim: 1
      dim: 1
      dim: 1501
    }
    shape {
      dim: 1
      dim: 1
    }
  }
}
layer {
  name: "lstm2_"
  type: "Input"
  top: "c_0"
  top: "h_0"
  input_param {
    shape {
      dim: 1
      dim: 1
      dim: 1000
    }
    shape {
      dim: 1
      dim: 1
      dim: 1000
    }
  }
}
layer {
  name: "lstm2_cont_slice"
  type: "Slice"
  bottom: "cont"
  top: "cont_1"
  slice_param {
    axis: 0
  }
}
layer {
  name: "lstm2_x_transform"
  type: "InnerProduct"
  bottom: "x"
  top: "W_xc_x"
  param {
    name: "W_xc"
  }
  param {
    name: "b_c"
  }
  propagate_down: true
  inner_product_param {
    num_output: 4000
    bias_term: true
    weight_filler {
      type: "uniform"
      min: -0.08
      max: 0.08
    }
    bias_filler {
      type: "constant"
      value: 0
    }
    axis: 2
  }
}
layer {
  name: "lstm2_W_xc_x_slice"
  type: "Slice"
  bottom: "W_xc_x"
  top: "W_xc_x_1"
  slice_param {
    axis: 0
  }
}
layer {
  name: "lstm2_h_conted_0"
  type: "Scale"
  bottom: "h_0"
  bottom: "cont_1"
  top: "h_conted_0"
  scale_param {
    axis: 0
  }
}
layer {
  name: "lstm2_transform_1"
  type: "InnerProduct"
  bottom: "h_conted_0"
  top: "W_hc_h_0"
  param {
    name: "W_hc"
  }
  inner_product_param {
    num_output: 4000
    bias_term: false
    weight_filler {
      type: "uniform"
      min: -0.08
      max: 0.08
    }
    axis: 2
  }
}
layer {
  name: "lstm2_gate_input_1"
  type: "Eltwise"
  bottom: "W_hc_h_0"
  bottom: "W_xc_x_1"
  top: "gate_input_1"
  eltwise_param {
    operation: SUM
  }
}
layer {
  name: "lstm2_unit_1"
  type: "LSTMUnit"
  bottom: "c_0"
  bottom: "gate_input_1"
  bottom: "cont_1"
  top: "c_1"
  top: "h_1"
}
layer {
  name: "lstm2_"
  type: "Split"
  bottom: "c_1"
  top: "c_T"
}
layer {
  name: "lstm2_h_concat"
  type: "Concat"
  bottom: "h_1"
  top: "h"
  concat_param {
    axis: 0
  }
}
layer {
  name: "h_pseudoloss"
  type: "Reduction"
  bottom: "h"
  top: "h_pseudoloss"
  loss_weight: 1
}
I0924 02:32:36.764768 28754 layer_factory.hpp:77] Creating layer lstm2_
I0924 02:32:36.764786 28754 net.cpp:91] Creating Layer lstm2_
I0924 02:32:36.764796 28754 net.cpp:399] lstm2_ -> x
I0924 02:32:36.764811 28754 net.cpp:399] lstm2_ -> cont
I0924 02:32:36.764888 28754 net.cpp:141] Setting up lstm2_
I0924 02:32:36.764902 28754 net.cpp:148] Top shape: 1 1 1501 (1501)
I0924 02:32:36.764912 28754 net.cpp:148] Top shape: 1 1 (1)
I0924 02:32:36.764919 28754 net.cpp:156] Memory required for data: 6008
I0924 02:32:36.764927 28754 layer_factory.hpp:77] Creating layer lstm2_
I0924 02:32:36.764945 28754 net.cpp:91] Creating Layer lstm2_
I0924 02:32:36.764955 28754 net.cpp:399] lstm2_ -> c_0
I0924 02:32:36.764971 28754 net.cpp:399] lstm2_ -> h_0
I0924 02:32:36.765039 28754 net.cpp:141] Setting up lstm2_
I0924 02:32:36.765053 28754 net.cpp:148] Top shape: 1 1 1000 (1000)
I0924 02:32:36.765061 28754 net.cpp:148] Top shape: 1 1 1000 (1000)
I0924 02:32:36.765069 28754 net.cpp:156] Memory required for data: 14008
I0924 02:32:36.765076 28754 layer_factory.hpp:77] Creating layer lstm2_cont_slice
I0924 02:32:36.765089 28754 net.cpp:91] Creating Layer lstm2_cont_slice
I0924 02:32:36.765096 28754 net.cpp:425] lstm2_cont_slice <- cont
I0924 02:32:36.765108 28754 net.cpp:399] lstm2_cont_slice -> cont_1
I0924 02:32:36.765156 28754 net.cpp:141] Setting up lstm2_cont_slice
I0924 02:32:36.765169 28754 net.cpp:148] Top shape: 1 1 (1)
I0924 02:32:36.765177 28754 net.cpp:156] Memory required for data: 14012
I0924 02:32:36.765183 28754 layer_factory.hpp:77] Creating layer cont_1_lstm2_cont_slice_0_split
I0924 02:32:36.765195 28754 net.cpp:91] Creating Layer cont_1_lstm2_cont_slice_0_split
I0924 02:32:36.765203 28754 net.cpp:425] cont_1_lstm2_cont_slice_0_split <- cont_1
I0924 02:32:36.765216 28754 net.cpp:399] cont_1_lstm2_cont_slice_0_split -> cont_1_lstm2_cont_slice_0_split_0
I0924 02:32:36.765229 28754 net.cpp:399] cont_1_lstm2_cont_slice_0_split -> cont_1_lstm2_cont_slice_0_split_1
I0924 02:32:36.765300 28754 net.cpp:141] Setting up cont_1_lstm2_cont_slice_0_split
I0924 02:32:36.765313 28754 net.cpp:148] Top shape: 1 1 (1)
I0924 02:32:36.765322 28754 net.cpp:148] Top shape: 1 1 (1)
I0924 02:32:36.765331 28754 net.cpp:156] Memory required for data: 14020
I0924 02:32:36.765337 28754 layer_factory.hpp:77] Creating layer lstm2_x_transform
I0924 02:32:36.765355 28754 net.cpp:91] Creating Layer lstm2_x_transform
I0924 02:32:36.765363 28754 net.cpp:425] lstm2_x_transform <- x
I0924 02:32:36.765378 28754 net.cpp:399] lstm2_x_transform -> W_xc_x
I0924 02:32:36.781062 28734 net.cpp:141] Setting up embedding
I0924 02:32:36.781111 28734 net.cpp:148] Top shape: 1 1 500 (500)
I0924 02:32:36.781116 28734 net.cpp:156] Memory required for data: 22408
I0924 02:32:36.781133 28734 layer_factory.hpp:77] Creating layer lstm1
I0924 02:32:36.781152 28734 net.cpp:91] Creating Layer lstm1
I0924 02:32:36.781159 28734 net.cpp:425] lstm1 <- embedded_input_frames
I0924 02:32:36.781167 28734 net.cpp:425] lstm1 <- cont_sentence_input_1_split_0
I0924 02:32:36.781178 28734 net.cpp:399] lstm1 -> lstm1
I0924 02:32:36.781195 28734 recurrent_layer.cpp:20] Initializing recurrent layer: assuming input batch contains 1 timesteps of 1 independent streams.
I0924 02:32:36.781394 28748 net.cpp:141] Setting up lstm1_transform_1
I0924 02:32:36.781411 28748 net.cpp:148] Top shape: 1 1 4000 (4000)
I0924 02:32:36.781416 28748 net.cpp:156] Memory required for data: 62016
I0924 02:32:36.781429 28748 layer_factory.hpp:77] Creating layer lstm1_gate_input_1
I0924 02:32:36.781452 28748 net.cpp:91] Creating Layer lstm1_gate_input_1
I0924 02:32:36.781460 28748 net.cpp:425] lstm1_gate_input_1 <- W_hc_h_0
I0924 02:32:36.781466 28748 net.cpp:425] lstm1_gate_input_1 <- W_xc_x_1
I0924 02:32:36.781473 28748 net.cpp:399] lstm1_gate_input_1 -> gate_input_1
I0924 02:32:36.781494 28734 net.cpp:49] Initializing net from parameters: 
layer {
  name: "lstm1_"
  type: "Input"
  top: "x"
  top: "cont"
  input_param {
    shape {
      dim: 1
      dim: 1
      dim: 500
    }
    shape {
      dim: 1
      dim: 1
    }
  }
}
layer {
  name: "lstm1_"
  type: "Input"
  top: "c_0"
  top: "h_0"
  input_param {
    shape {
      dim: 1
      dim: 1
      dim: 1000
    }
    shape {
      dim: 1
      dim: 1
      dim: 1000
    }
  }
}
layer {
  name: "lstm1_cont_slice"
  type: "Slice"
  bottom: "cont"
  top: "cont_1"
  slice_param {
    axis: 0
  }
}
layer {
  name: "lstm1_x_transform"
  type: "InnerProduct"
  bottom: "x"
  top: "W_xc_x"
  param {
    name: "W_xc"
  }
  param {
    name: "b_c"
  }
  propagate_down: true
  inner_product_param {
    num_output: 4000
    bias_term: true
    weight_filler {
      type: "uniform"
      min: -0.08
      max: 0.08
    }
    bias_filler {
      type: "constant"
      value: 0
    }
    axis: 2
  }
}
layer {
  name: "lstm1_W_xc_x_slice"
  type: "Slice"
  bottom: "W_xc_x"
  top: "W_xc_x_1"
  slice_param {
    axis: 0
  }
}
layer {
  name: "lstm1_h_conted_0"
  type: "Scale"
  bottom: "h_0"
  bottom: "cont_1"
  top: "h_conted_0"
  scale_param {
    axis: 0
  }
}
layer {
  name: "lstm1_transform_1"
  type: "InnerProduct"
  bottom: "h_conted_0"
  top: "W_hc_h_0"
  param {
    name: "W_hc"
  }
  inner_product_param {
    num_output: 4000
    bias_term: false
    weight_filler {
      type: "uniform"
      min: -0.08
      max: 0.08
    }
    axis: 2
  }
}
layer {
  name: "lstm1_gate_input_1"
  type: "Eltwise"
  bottom: "W_hc_h_0"
  bottom: "W_xc_x_1"
  top: "gate_input_1"
  eltwise_param {
    operation: SUM
  }
}
layer {
  name: "lstm1_unit_1"
  type: "LSTMUnit"
  bottom: "c_0"
  bottom: "gate_input_1"
  bottom: "cont_1"
  top: "c_1"
  top: "h_1"
}
layer {
  name: "lstm1_"
  type: "Split"
  bottom: "c_1"
  top: "c_T"
}
layer {
  name: "lstm1_h_concat"
  type: "Concat"
  bottom: "h_1"
  top: "h"
  concat_param {
    axis: 0
  }
}
layer {
  name: "h_pseudoloss"
  type: "Reduction"
  bottom: "h"
  top: "h_pseudoloss"
  loss_weight: 1
}
I0924 02:32:36.781582 28734 layer_factory.hpp:77] Creating layer lstm1_
I0924 02:32:36.781595 28734 net.cpp:91] Creating Layer lstm1_
I0924 02:32:36.781601 28734 net.cpp:399] lstm1_ -> x
I0924 02:32:36.781612 28734 net.cpp:399] lstm1_ -> cont
I0924 02:32:36.784238 28748 net.cpp:141] Setting up lstm1_gate_input_1
I0924 02:32:36.784282 28748 net.cpp:148] Top shape: 1 1 4000 (4000)
I0924 02:32:36.784288 28748 net.cpp:156] Memory required for data: 78016
I0924 02:32:36.784296 28748 layer_factory.hpp:77] Creating layer lstm1_unit_1
I0924 02:32:36.784312 28748 net.cpp:91] Creating Layer lstm1_unit_1
I0924 02:32:36.784319 28748 net.cpp:425] lstm1_unit_1 <- c_0
I0924 02:32:36.784328 28748 net.cpp:425] lstm1_unit_1 <- gate_input_1
I0924 02:32:36.784328 28734 net.cpp:141] Setting up lstm1_
I0924 02:32:36.784334 28748 net.cpp:425] lstm1_unit_1 <- cont_1_lstm1_cont_slice_0_split_1
I0924 02:32:36.784351 28734 net.cpp:148] Top shape: 1 1 500 (500)
I0924 02:32:36.784359 28734 net.cpp:148] Top shape: 1 1 (1)
I0924 02:32:36.784363 28748 net.cpp:399] lstm1_unit_1 -> c_1
I0924 02:32:36.784363 28734 net.cpp:156] Memory required for data: 2004
I0924 02:32:36.784380 28734 layer_factory.hpp:77] Creating layer lstm1_
I0924 02:32:36.784382 28748 net.cpp:399] lstm1_unit_1 -> h_1
I0924 02:32:36.784395 28734 net.cpp:91] Creating Layer lstm1_
I0924 02:32:36.784409 28734 net.cpp:399] lstm1_ -> c_0
I0924 02:32:36.784422 28734 net.cpp:399] lstm1_ -> h_0
I0924 02:32:36.784632 28734 net.cpp:141] Setting up lstm1_
I0924 02:32:36.784644 28734 net.cpp:148] Top shape: 1 1 1000 (1000)
I0924 02:32:36.784651 28734 net.cpp:148] Top shape: 1 1 1000 (1000)
I0924 02:32:36.784654 28734 net.cpp:156] Memory required for data: 10004
I0924 02:32:36.784659 28734 layer_factory.hpp:77] Creating layer lstm1_cont_slice
I0924 02:32:36.784672 28734 net.cpp:91] Creating Layer lstm1_cont_slice
I0924 02:32:36.784677 28734 net.cpp:425] lstm1_cont_slice <- cont
I0924 02:32:36.784685 28734 net.cpp:399] lstm1_cont_slice -> cont_1
I0924 02:32:36.784685 28748 net.cpp:141] Setting up lstm1_unit_1
I0924 02:32:36.784698 28748 net.cpp:148] Top shape: 1 1 1000 (1000)
I0924 02:32:36.784704 28748 net.cpp:148] Top shape: 1 1 1000 (1000)
I0924 02:32:36.784708 28748 net.cpp:156] Memory required for data: 86016
I0924 02:32:36.784713 28748 layer_factory.hpp:77] Creating layer lstm1_
I0924 02:32:36.784721 28748 net.cpp:91] Creating Layer lstm1_
I0924 02:32:36.784725 28748 net.cpp:425] lstm1_ <- c_1
I0924 02:32:36.784734 28748 net.cpp:399] lstm1_ -> c_T
I0924 02:32:36.785640 28748 net.cpp:141] Setting up lstm1_
I0924 02:32:36.785650 28748 net.cpp:148] Top shape: 1 1 1000 (1000)
I0924 02:32:36.785655 28748 net.cpp:156] Memory required for data: 90016
I0924 02:32:36.785660 28748 layer_factory.hpp:77] Creating layer lstm1_h_concat
I0924 02:32:36.785671 28748 net.cpp:91] Creating Layer lstm1_h_concat
I0924 02:32:36.785676 28748 net.cpp:425] lstm1_h_concat <- h_1
I0924 02:32:36.785683 28748 net.cpp:399] lstm1_h_concat -> h
I0924 02:32:36.785703 28734 net.cpp:141] Setting up lstm1_cont_slice
I0924 02:32:36.785720 28734 net.cpp:148] Top shape: 1 1 (1)
I0924 02:32:36.785724 28748 net.cpp:141] Setting up lstm1_h_concat
I0924 02:32:36.785725 28734 net.cpp:156] Memory required for data: 10008
I0924 02:32:36.785738 28748 net.cpp:148] Top shape: 1 1 1000 (1000)
I0924 02:32:36.785742 28734 layer_factory.hpp:77] Creating layer cont_1_lstm1_cont_slice_0_split
I0924 02:32:36.785742 28748 net.cpp:156] Memory required for data: 94016
I0924 02:32:36.785748 28748 layer_factory.hpp:77] Creating layer h_pseudoloss
I0924 02:32:36.785750 28734 net.cpp:91] Creating Layer cont_1_lstm1_cont_slice_0_split
I0924 02:32:36.785756 28734 net.cpp:425] cont_1_lstm1_cont_slice_0_split <- cont_1
I0924 02:32:36.785763 28748 net.cpp:91] Creating Layer h_pseudoloss
I0924 02:32:36.785768 28734 net.cpp:399] cont_1_lstm1_cont_slice_0_split -> cont_1_lstm1_cont_slice_0_split_0
I0924 02:32:36.785768 28748 net.cpp:425] h_pseudoloss <- h
I0924 02:32:36.785791 28748 net.cpp:399] h_pseudoloss -> h_pseudoloss
I0924 02:32:36.785792 28734 net.cpp:399] cont_1_lstm1_cont_slice_0_split -> cont_1_lstm1_cont_slice_0_split_1
I0924 02:32:36.791211 28734 net.cpp:141] Setting up cont_1_lstm1_cont_slice_0_split
I0924 02:32:36.791249 28734 net.cpp:148] Top shape: 1 1 (1)
I0924 02:32:36.791298 28734 net.cpp:148] Top shape: 1 1 (1)
I0924 02:32:36.791307 28734 net.cpp:156] Memory required for data: 10016
I0924 02:32:36.791317 28734 layer_factory.hpp:77] Creating layer lstm1_x_transform
I0924 02:32:36.791355 28734 net.cpp:91] Creating Layer lstm1_x_transform
I0924 02:32:36.791368 28734 net.cpp:425] lstm1_x_transform <- x
I0924 02:32:36.791385 28734 net.cpp:399] lstm1_x_transform -> W_xc_x
I0924 02:32:36.796532 28748 net.cpp:141] Setting up h_pseudoloss
…
I0924 02:32:36.796777 28748 net.cpp:219] lstm1_ does not need backward computation.
I0924 02:32:36.796784 28748 net.cpp:261] This network produces output c_T
I0924 02:32:36.796794 28748 net.cpp:261] This network produces output h_pseudoloss
I0924 02:32:36.800109 28748 net.cpp:274] Network initialization done.
I0924 02:32:36.800222 28748 recurrent_layer.cpp:150] Adding parameter 0: W_xc
I0924 02:32:36.800235 28748 recurrent_layer.cpp:150] Adding parameter 1: b_c
I0924 02:32:36.800243 28748 recurrent_layer.cpp:150] Adding parameter 2: W_hc
I0924 02:32:36.805246 28748 net.cpp:141] Setting up lstm1
I0924 02:32:36.805286 28748 net.cpp:148] Top shape: 1 1 1000 (1000)
I0924 02:32:36.805294 28748 net.cpp:156] Memory required for data: 26408
I0924 02:32:36.805320 28748 layer_factory.hpp:77] Creating layer concat
I0924 02:32:36.805340 28748 net.cpp:91] Creating Layer concat
I0924 02:32:36.805349 28748 net.cpp:425] concat <- lstm1
I0924 02:32:36.805361 28748 net.cpp:425] concat <- embedded_input_sentence
I0924 02:32:36.805368 28748 net.cpp:425] concat <- reshaped_stage_indicator
I0924 02:32:36.805380 28748 net.cpp:399] concat -> lstm1_video_sequence
I0924 02:32:36.812733 28748 net.cpp:141] Setting up concat
I0924 02:32:36.812772 28748 net.cpp:148] Top shape: 1 1 1501 (1501)
I0924 02:32:36.812780 28748 net.cpp:156] Memory required for data: 32412
I0924 02:32:36.812782 28730 net.cpp:141] Setting up lstm1_transform_1
I0924 02:32:36.812790 28748 layer_factory.hpp:77] Creating layer lstm2
I0924 02:32:36.812803 28730 net.cpp:148] Top shape: 1 1 4000 (4000)
I0924 02:32:36.812810 28730 net.cpp:156] Memory required for data: 62016
I0924 02:32:36.812816 28748 net.cpp:91] Creating Layer lstm2
I0924 02:32:36.812826 28748 net.cpp:425] lstm2 <- lstm1_video_sequence
I0924 02:32:36.812829 28730 layer_factory.hpp:77] Creating layer lstm1_gate_input_1
I0924 02:32:36.812836 28748 net.cpp:425] lstm2 <- cont_sentence_input_1_split_1
I0924 02:32:36.812849 28730 net.cpp:91] Creating Layer lstm1_gate_input_1
I0924 02:32:36.812850 28748 net.cpp:399] lstm2 -> lstm2
I0924 02:32:36.812866 28730 net.cpp:425] lstm1_gate_input_1 <- W_hc_h_0
I0924 02:32:36.812876 28730 net.cpp:425] lstm1_gate_input_1 <- W_xc_x_1
I0924 02:32:36.812881 28748 recurrent_layer.cpp:20] Initializing recurrent layer: assuming input batch contains 1 timesteps of 1 independent streams.
I0924 02:32:36.812887 28730 net.cpp:399] lstm1_gate_input_1 -> gate_input_1
I0924 02:32:36.813087 28730 net.cpp:141] Setting up lstm1_gate_input_1
I0924 02:32:36.813102 28730 net.cpp:148] Top shape: 1 1 4000 (4000)
I0924 02:32:36.813107 28730 net.cpp:156] Memory required for data: 78016
I0924 02:32:36.813115 28730 layer_factory.hpp:77] Creating layer lstm1_unit_1
I0924 02:32:36.813130 28730 net.cpp:91] Creating Layer lstm1_unit_1
I0924 02:32:36.813139 28730 net.cpp:425] lstm1_unit_1 <- c_0
I0924 02:32:36.813148 28730 net.cpp:425] lstm1_unit_1 <- gate_input_1
I0924 02:32:36.813156 28730 net.cpp:425] lstm1_unit_1 <- cont_1_lstm1_cont_slice_0_split_1
I0924 02:32:36.813166 28730 net.cpp:399] lstm1_unit_1 -> c_1
I0924 02:32:36.813179 28730 net.cpp:399] lstm1_unit_1 -> h_1
I0924 02:32:36.813251 28748 net.cpp:49] Initializing net from parameters: 
layer {
  name: "lstm2_"
  type: "Input"
  top: "x"
  top: "cont"
  input_param {
    shape {
      dim: 1
      dim: 1
      dim: 1501
    }
    shape {
      dim: 1
      dim: 1
    }
  }
}
layer {
  name: "lstm2_"
  type: "Input"
  top: "c_0"
  top: "h_0"
  input_param {
    shape {
      dim: 1
      dim: 1
      dim: 1000
    }
    shape {
      dim: 1
      dim: 1
      dim: 1000
    }
  }
}
layer {
  name: "lstm2_cont_slice"
  type: "Slice"
  bottom: "cont"
  top: "cont_1"
  slice_param {
    axis: 0
  }
}
layer {
  name: "lstm2_x_transform"
  type: "InnerProduct"
  bottom: "x"
  top: "W_xc_x"
  param {
    name: "W_xc"
  }
  param {
    name: "b_c"
  }
  propagate_down: true
  inner_product_param {
    num_output: 4000
    bias_term: true
    weight_filler {
      type: "uniform"
      min: -0.08
      max: 0.08
    }
    bias_filler {
      type: "constant"
      value: 0
    }
    axis: 2
  }
}
layer {
  name: "lstm2_W_xc_x_slice"
  type: "Slice"
  bottom: "W_xc_x"
  top: "W_xc_x_1"
  slice_param {
    axis: 0
  }
}
layer {
  name: "lstm2_h_conted_0"
  type: "Scale"
  bottom: "h_0"
  bottom: "cont_1"
  top: "h_conted_0"
  scale_param {
    axis: 0
  }
}
layer {
  name: "lstm2_transform_1"
  type: "InnerProduct"
  bottom: "h_conted_0"
  top: "W_hc_h_0"
  param {
    name: "W_hc"
  }
  inner_product_param {
    num_output: 4000
    bias_term: false
    weight_filler {
      type: "uniform"
      min: -0.08
      max: 0.08
    }
    axis: 2
  }
}
layer {
  name: "lstm2_gate_input_1"
  type: "Eltwise"
  bottom: "W_hc_h_0"
  bottom: "W_xc_x_1"
  top: "gate_input_1"
  eltwise_param {
    operation: SUM
  }
}
layer {
  name: "lstm2_unit_1"
  type: "LSTMUnit"
  bottom: "c_0"
  bottom: "gate_input_1"
  bottom: "cont_1"
  top: "c_1"
  top: "h_1"
}
layer {
  name: "lstm2_"
  type: "Split"
  bottom: "c_1"
  top: "c_T"
}
layer {
  name: "lstm2_h_concat"
  type: "Concat"
  bottom: "h_1"
  top: "h"
  concat_param {
    axis: 0
  }
}
layer {
  name: "h_pseudoloss"
  type: "Reduction"
  bottom: "h"
  top: "h_pseudoloss"
  loss_weight: 1
}
I0924 02:32:36.813392 28748 layer_factory.hpp:77] Creating layer lstm2_
I0924 02:32:36.813410 28748 net.cpp:91] Creating Layer lstm2_
I0924 02:32:36.813421 28748 net.cpp:399] lstm2_ -> x
I0924 02:32:36.813436 28748 net.cpp:399] lstm2_ -> cont
I0924 02:32:36.818999 28730 net.cpp:141] Setting up lstm1_unit_1
I0924 02:32:36.819021 28730 net.cpp:148] Top shape: 1 1 1000 (1000)
I0924 02:32:36.819020 28748 net.cpp:141] Setting up lstm2_
I0924 02:32:36.819033 28730 net.cpp:148] Top shape: 1 1 1000 (1000)
I0924 02:32:36.819041 28730 net.cpp:156] Memory required for data: 86016
I0924 02:32:36.819043 28748 net.cpp:148] Top shape: 1 1 1501 (1501)
I0924 02:32:36.819047 28730 layer_factory.hpp:77] Creating layer lstm1_
I0924 02:32:36.819056 28748 net.cpp:148] Top shape: 1 1 (1)
I0924 02:32:36.819061 28730 net.cpp:91] Creating Layer lstm1_
I0924 02:32:36.819064 28748 net.cpp:156] Memory required for data: 6008
I0924 02:32:36.819069 28730 net.cpp:425] lstm1_ <- c_1
I0924 02:32:36.819074 28748 layer_factory.hpp:77] Creating layer lstm2_
I0924 02:32:36.819080 28730 net.cpp:399] lstm1_ -> c_T
I0924 02:32:36.819092 28748 net.cpp:91] Creating Layer lstm2_
I0924 02:32:36.819113 28748 net.cpp:399] lstm2_ -> c_0
I0924 02:32:36.819133 28748 net.cpp:399] lstm2_ -> h_0
I0924 02:32:36.819144 28734 net.cpp:141] Setting up lstm1_x_transform
I0924 02:32:36.819159 28734 net.cpp:148] Top shape: 1 1 4000 (4000)
I0924 02:32:36.819169 28734 net.cpp:156] Memory required for data: 26016
I0924 02:32:36.819177 28730 net.cpp:141] Setting up lstm1_
I0924 02:32:36.819181 28734 layer_factory.hpp:77] Creating layer lstm1_W_xc_x_slice
I0924 02:32:36.819197 28730 net.cpp:148] Top shape: 1 1 1000 (1000)
I0924 02:32:36.819205 28730 net.cpp:156] Memory required for data: 90016
I0924 02:32:36.819212 28730 layer_factory.hpp:77] Creating layer lstm1_h_concat
I0924 02:32:36.819212 28734 net.cpp:91] Creating Layer lstm1_W_xc_x_slice
I0924 02:32:36.819224 28730 net.cpp:91] Creating Layer lstm1_h_concat
I0924 02:32:36.819226 28734 net.cpp:425] lstm1_W_xc_x_slice <- W_xc_x
I0924 02:32:36.819238 28730 net.cpp:425] lstm1_h_concat <- h_1
I0924 02:32:36.819249 28730 net.cpp:399] lstm1_h_concat -> h
I0924 02:32:36.819249 28734 net.cpp:399] lstm1_W_xc_x_slice -> W_xc_x_1
I0924 02:32:36.819275 28748 net.cpp:141] Setting up lstm2_
I0924 02:32:36.819293 28748 net.cpp:148] Top shape: 1 1 1000 (1000)
I0924 02:32:36.819303 28748 net.cpp:148] Top shape: 1 1 1000 (1000)
I0924 02:32:36.819308 28734 net.cpp:141] Setting up lstm1_W_xc_x_slice
I0924 02:32:36.819309 28748 net.cpp:156] Memory required for data: 14008
I0924 02:32:36.819324 28734 net.cpp:148] Top shape: 1 1 4000 (4000)
I0924 02:32:36.819325 28748 layer_factory.hpp:77] Creating layer lstm2_cont_slice
I0924 02:32:36.819336 28734 net.cpp:156] Memory required for data: 42016
I0924 02:32:36.819344 28734 layer_factory.hpp:77] Creating layer lstm1_h_conted_0
I0924 02:32:36.819355 28748 net.cpp:91] Creating Layer lstm2_cont_slice
I0924 02:32:36.819361 28734 net.cpp:91] Creating Layer lstm1_h_conted_0
I0924 02:32:36.819356 28730 net.cpp:141] Setting up lstm1_h_concat
I0924 02:32:36.819370 28748 net.cpp:425] lstm2_cont_slice <- cont
I0924 02:32:36.819377 28730 net.cpp:148] Top shape: 1 1 1000 (1000)
I0924 02:32:36.819370 28734 net.cpp:425] lstm1_h_conted_0 <- h_0
I0924 02:32:36.819386 28730 net.cpp:156] Memory required for data: 94016
I0924 02:32:36.819391 28734 net.cpp:425] lstm1_h_conted_0 <- cont_1_lstm1_cont_slice_0_split_0
I0924 02:32:36.819393 28730 layer_factory.hpp:77] Creating layer h_pseudoloss
I0924 02:32:36.819389 28748 net.cpp:399] lstm2_cont_slice -> cont_1
I0924 02:32:36.819406 28730 net.cpp:91] Creating Layer h_pseudoloss
I0924 02:32:36.819406 28734 net.cpp:399] lstm1_h_conted_0 -> h_conted_0
I0924 02:32:36.819412 28730 net.cpp:425] h_pseudoloss <- h
I0924 02:32:36.819423 28730 net.cpp:399] h_pseudoloss -> h_pseudoloss
I0924 02:32:36.819453 28748 net.cpp:141] Setting up lstm2_cont_slice
I0924 02:32:36.819470 28748 net.cpp:148] Top shape: 1 1 (1)
I0924 02:32:36.819478 28748 net.cpp:156] Memory required for data: 14012
I0924 02:32:36.819486 28748 layer_factory.hpp:77] Creating layer cont_1_lstm2_cont_slice_0_split
I0924 02:32:36.819504 28748 net.cpp:91] Creating Layer cont_1_lstm2_cont_slice_0_split
I0924 02:32:36.819509 28748 net.cpp:425] cont_1_lstm2_cont_slice_0_split <- cont_1
I0924 02:32:36.819516 28748 net.cpp:399] cont_1_lstm2_cont_slice_0_split -> cont_1_lstm2_cont_slice_0_split_0
I0924 02:32:36.819525 28748 net.cpp:399] cont_1_lstm2_cont_slice_0_split -> cont_1_lstm2_cont_slice_0_split_1
I0924 02:32:36.819596 28748 net.cpp:141] Setting up cont_1_lstm2_cont_slice_0_split
I0924 02:32:36.819605 28748 net.cpp:148] Top shape: 1 1 (1)
I0924 02:32:36.819612 28748 net.cpp:148] Top shape: 1 1 (1)
I0924 02:32:36.819615 28748 net.cpp:156] Memory required for data: 14020
I0924 02:32:36.819620 28748 layer_factory.hpp:77] Creating layer lstm2_x_transform
I0924 02:32:36.819635 28748 net.cpp:91] Creating Layer lstm2_x_transform
I0924 02:32:36.819645 28748 net.cpp:425] lstm2_x_transform <- x
I0924 02:32:36.819654 28748 net.cpp:399] lstm2_x_transform -> W_xc_x
I0924 02:32:36.819670 28730 net.cpp:141] Setting up h_pseudoloss
…
I0924 02:32:36.819820 28730 net.cpp:219] lstm1_ does not need backward computation.
I0924 02:32:36.819826 28730 net.cpp:261] This network produces output c_T
I0924 02:32:36.819833 28730 net.cpp:261] This network produces output h_pseudoloss
I0924 02:32:36.819854 28730 net.cpp:274] Network initialization done.
I0924 02:32:36.819910 28730 recurrent_layer.cpp:150] Adding parameter 0: W_xc
I0924 02:32:36.819918 28730 recurrent_layer.cpp:150] Adding parameter 1: b_c
I0924 02:32:36.819926 28730 recurrent_layer.cpp:150] Adding parameter 2: W_hc
I0924 02:32:36.830829 28734 net.cpp:141] Setting up lstm1_h_conted_0
I0924 02:32:36.830890 28734 net.cpp:148] Top shape: 1 1 1000 (1000)
I0924 02:32:36.830906 28734 net.cpp:156] Memory required for data: 46016
I0924 02:32:36.830924 28734 layer_factory.hpp:77] Creating layer lstm1_transform_1
I0924 02:32:36.830966 28734 net.cpp:91] Creating Layer lstm1_transform_1
I0924 02:32:36.830986 28734 net.cpp:425] lstm1_transform_1 <- h_conted_0
I0924 02:32:36.831007 28730 net.cpp:141] Setting up lstm1
I0924 02:32:36.831015 28734 net.cpp:399] lstm1_transform_1 -> W_hc_h_0
I0924 02:32:36.831024 28730 net.cpp:148] Top shape: 1 1 1000 (1000)
I0924 02:32:36.831032 28730 net.cpp:156] Memory required for data: 26408
I0924 02:32:36.831055 28730 layer_factory.hpp:77] Creating layer concat
I0924 02:32:36.831069 28730 net.cpp:91] Creating Layer concat
I0924 02:32:36.831079 28730 net.cpp:425] concat <- lstm1
I0924 02:32:36.831089 28730 net.cpp:425] concat <- embedded_input_sentence
I0924 02:32:36.831096 28730 net.cpp:425] concat <- reshaped_stage_indicator
I0924 02:32:36.831106 28730 net.cpp:399] concat -> lstm1_video_sequence
I0924 02:32:36.831162 28730 net.cpp:141] Setting up concat
I0924 02:32:36.831174 28730 net.cpp:148] Top shape: 1 1 1501 (1501)
I0924 02:32:36.831182 28730 net.cpp:156] Memory required for data: 32412
I0924 02:32:36.831188 28730 layer_factory.hpp:77] Creating layer lstm2
I0924 02:32:36.831205 28730 net.cpp:91] Creating Layer lstm2
I0924 02:32:36.831212 28730 net.cpp:425] lstm2 <- lstm1_video_sequence
I0924 02:32:36.831223 28730 net.cpp:425] lstm2 <- cont_sentence_input_1_split_1
I0924 02:32:36.831233 28730 net.cpp:399] lstm2 -> lstm2
I0924 02:32:36.831248 28730 recurrent_layer.cpp:20] Initializing recurrent layer: assuming input batch contains 1 timesteps of 1 independent streams.
I0924 02:32:36.831609 28730 net.cpp:49] Initializing net from parameters: 
layer {
  name: "lstm2_"
  type: "Input"
  top: "x"
  top: "cont"
  input_param {
    shape {
      dim: 1
      dim: 1
      dim: 1501
    }
    shape {
      dim: 1
      dim: 1
    }
  }
}
layer {
  name: "lstm2_"
  type: "Input"
  top: "c_0"
  top: "h_0"
  input_param {
    shape {
      dim: 1
      dim: 1
      dim: 1000
    }
    shape {
      dim: 1
      dim: 1
      dim: 1000
    }
  }
}
layer {
  name: "lstm2_cont_slice"
  type: "Slice"
  bottom: "cont"
  top: "cont_1"
  slice_param {
    axis: 0
  }
}
layer {
  name: "lstm2_x_transform"
  type: "InnerProduct"
  bottom: "x"
  top: "W_xc_x"
  param {
    name: "W_xc"
  }
  param {
    name: "b_c"
  }
  propagate_down: true
  inner_product_param {
    num_output: 4000
    bias_term: true
    weight_filler {
      type: "uniform"
      min: -0.08
      max: 0.08
    }
    bias_filler {
      type: "constant"
      value: 0
    }
    axis: 2
  }
}
layer {
  name: "lstm2_W_xc_x_slice"
  type: "Slice"
  bottom: "W_xc_x"
  top: "W_xc_x_1"
  slice_param {
    axis: 0
  }
}
layer {
  name: "lstm2_h_conted_0"
  type: "Scale"
  bottom: "h_0"
  bottom: "cont_1"
  top: "h_conted_0"
  scale_param {
    axis: 0
  }
}
layer {
  name: "lstm2_transform_1"
  type: "InnerProduct"
  bottom: "h_conted_0"
  top: "W_hc_h_0"
  param {
    name: "W_hc"
  }
  inner_product_param {
    num_output: 4000
    bias_term: false
    weight_filler {
      type: "uniform"
      min: -0.08
      max: 0.08
    }
    axis: 2
  }
}
layer {
  name: "lstm2_gate_input_1"
  type: "Eltwise"
  bottom: "W_hc_h_0"
  bottom: "W_xc_x_1"
  top: "gate_input_1"
  eltwise_param {
    operation: SUM
  }
}
layer {
  name: "lstm2_unit_1"
  type: "LSTMUnit"
  bottom: "c_0"
  bottom: "gate_input_1"
  bottom: "cont_1"
  top: "c_1"
  top: "h_1"
}
layer {
  name: "lstm2_"
  type: "Split"
  bottom: "c_1"
  top: "c_T"
}
layer {
  name: "lstm2_h_concat"
  type: "Concat"
  bottom: "h_1"
  top: "h"
  concat_param {
    axis: 0
  }
}
layer {
  name: "h_pseudoloss"
  type: "Reduction"
  bottom: "h"
  top: "h_pseudoloss"
  loss_weight: 1
}
I0924 02:32:36.831729 28730 layer_factory.hpp:77] Creating layer lstm2_
I0924 02:32:36.831744 28730 net.cpp:91] Creating Layer lstm2_
I0924 02:32:36.831754 28730 net.cpp:399] lstm2_ -> x
I0924 02:32:36.831769 28730 net.cpp:399] lstm2_ -> cont
I0924 02:32:36.842393 28730 net.cpp:141] Setting up lstm2_
I0924 02:32:36.842442 28730 net.cpp:148] Top shape: 1 1 1501 (1501)
I0924 02:32:36.842455 28730 net.cpp:148] Top shape: 1 1 (1)
I0924 02:32:36.842468 28730 net.cpp:156] Memory required for data: 6008
I0924 02:32:36.842481 28730 layer_factory.hpp:77] Creating layer lstm2_
I0924 02:32:36.842507 28730 net.cpp:91] Creating Layer lstm2_
I0924 02:32:36.842525 28730 net.cpp:399] lstm2_ -> c_0
I0924 02:32:36.842550 28730 net.cpp:399] lstm2_ -> h_0
I0924 02:32:36.842571 28754 net.cpp:141] Setting up lstm2_x_transform
I0924 02:32:36.842589 28754 net.cpp:148] Top shape: 1 1 4000 (4000)
I0924 02:32:36.842610 28754 net.cpp:156] Memory required for data: 30020
I0924 02:32:36.842627 28754 layer_factory.hpp:77] Creating layer lstm2_W_xc_x_slice
I0924 02:32:36.842638 28754 net.cpp:91] Creating Layer lstm2_W_xc_x_slice
I0924 02:32:36.842646 28754 net.cpp:425] lstm2_W_xc_x_slice <- W_xc_x
I0924 02:32:36.842654 28754 net.cpp:399] lstm2_W_xc_x_slice -> W_xc_x_1
I0924 02:32:36.842659 28730 net.cpp:141] Setting up lstm2_
I0924 02:32:36.842674 28730 net.cpp:148] Top shape: 1 1 1000 (1000)
I0924 02:32:36.842682 28730 net.cpp:148] Top shape: 1 1 1000 (1000)
I0924 02:32:36.842689 28730 net.cpp:156] Memory required for data: 14008
I0924 02:32:36.842697 28730 layer_factory.hpp:77] Creating layer lstm2_cont_slice
I0924 02:32:36.842712 28730 net.cpp:91] Creating Layer lstm2_cont_slice
I0924 02:32:36.842721 28730 net.cpp:425] lstm2_cont_slice <- cont
I0924 02:32:36.842736 28730 net.cpp:399] lstm2_cont_slice -> cont_1
I0924 02:32:36.844830 28754 net.cpp:141] Setting up lstm2_W_xc_x_slice
I0924 02:32:36.844869 28730 net.cpp:141] Setting up lstm2_cont_slice
I0924 02:32:36.844879 28754 net.cpp:148] Top shape: 1 1 4000 (4000)
I0924 02:32:36.844907 28754 net.cpp:156] Memory required for data: 46020
I0924 02:32:36.844905 28730 net.cpp:148] Top shape: 1 1 (1)
I0924 02:32:36.844929 28754 layer_factory.hpp:77] Creating layer lstm2_h_conted_0
I0924 02:32:36.844934 28730 net.cpp:156] Memory required for data: 14012
I0924 02:32:36.844945 28730 layer_factory.hpp:77] Creating layer cont_1_lstm2_cont_slice_0_split
I0924 02:32:36.844949 28754 net.cpp:91] Creating Layer lstm2_h_conted_0
I0924 02:32:36.844957 28754 net.cpp:425] lstm2_h_conted_0 <- h_0
I0924 02:32:36.844966 28754 net.cpp:425] lstm2_h_conted_0 <- cont_1_lstm2_cont_slice_0_split_0
I0924 02:32:36.844969 28730 net.cpp:91] Creating Layer cont_1_lstm2_cont_slice_0_split
I0924 02:32:36.844974 28754 net.cpp:399] lstm2_h_conted_0 -> h_conted_0
I0924 02:32:36.844981 28730 net.cpp:425] cont_1_lstm2_cont_slice_0_split <- cont_1
I0924 02:32:36.844995 28730 net.cpp:399] cont_1_lstm2_cont_slice_0_split -> cont_1_lstm2_cont_slice_0_split_0
I0924 02:32:36.845016 28730 net.cpp:399] cont_1_lstm2_cont_slice_0_split -> cont_1_lstm2_cont_slice_0_split_1
I0924 02:32:36.845810 28730 net.cpp:141] Setting up cont_1_lstm2_cont_slice_0_split
I0924 02:32:36.845824 28730 net.cpp:148] Top shape: 1 1 (1)
I0924 02:32:36.845832 28730 net.cpp:148] Top shape: 1 1 (1)
I0924 02:32:36.845839 28730 net.cpp:156] Memory required for data: 14020
I0924 02:32:36.845846 28730 layer_factory.hpp:77] Creating layer lstm2_x_transform
I0924 02:32:36.845867 28730 net.cpp:91] Creating Layer lstm2_x_transform
I0924 02:32:36.845875 28730 net.cpp:425] lstm2_x_transform <- x
I0924 02:32:36.845887 28730 net.cpp:399] lstm2_x_transform -> W_xc_x
I0924 02:32:36.846040 28754 net.cpp:141] Setting up lstm2_h_conted_0
I0924 02:32:36.846060 28754 net.cpp:148] Top shape: 1 1 1000 (1000)
I0924 02:32:36.846067 28754 net.cpp:156] Memory required for data: 50020
I0924 02:32:36.846076 28754 layer_factory.hpp:77] Creating layer lstm2_transform_1
I0924 02:32:36.846091 28754 net.cpp:91] Creating Layer lstm2_transform_1
I0924 02:32:36.846098 28754 net.cpp:425] lstm2_transform_1 <- h_conted_0
I0924 02:32:36.846110 28754 net.cpp:399] lstm2_transform_1 -> W_hc_h_0
I0924 02:32:36.892098 28734 net.cpp:141] Setting up lstm1_transform_1
I0924 02:32:36.892143 28734 net.cpp:148] Top shape: 1 1 4000 (4000)
I0924 02:32:36.892151 28734 net.cpp:156] Memory required for data: 62016
I0924 02:32:36.892174 28734 layer_factory.hpp:77] Creating layer lstm1_gate_input_1
I0924 02:32:36.892199 28734 net.cpp:91] Creating Layer lstm1_gate_input_1
I0924 02:32:36.892208 28734 net.cpp:425] lstm1_gate_input_1 <- W_hc_h_0
I0924 02:32:36.892220 28734 net.cpp:425] lstm1_gate_input_1 <- W_xc_x_1
I0924 02:32:36.892231 28734 net.cpp:399] lstm1_gate_input_1 -> gate_input_1
I0924 02:32:36.892989 28734 net.cpp:141] Setting up lstm1_gate_input_1
I0924 02:32:36.893003 28734 net.cpp:148] Top shape: 1 1 4000 (4000)
I0924 02:32:36.893010 28734 net.cpp:156] Memory required for data: 78016
I0924 02:32:36.893018 28734 layer_factory.hpp:77] Creating layer lstm1_unit_1
I0924 02:32:36.893029 28734 net.cpp:91] Creating Layer lstm1_unit_1
I0924 02:32:36.893038 28734 net.cpp:425] lstm1_unit_1 <- c_0
I0924 02:32:36.893045 28734 net.cpp:425] lstm1_unit_1 <- gate_input_1
I0924 02:32:36.893054 28734 net.cpp:425] lstm1_unit_1 <- cont_1_lstm1_cont_slice_0_split_1
I0924 02:32:36.893064 28734 net.cpp:399] lstm1_unit_1 -> c_1
I0924 02:32:36.893076 28734 net.cpp:399] lstm1_unit_1 -> h_1
I0924 02:32:36.893606 28734 net.cpp:141] Setting up lstm1_unit_1
I0924 02:32:36.893620 28734 net.cpp:148] Top shape: 1 1 1000 (1000)
I0924 02:32:36.893630 28734 net.cpp:148] Top shape: 1 1 1000 (1000)
I0924 02:32:36.893636 28734 net.cpp:156] Memory required for data: 86016
I0924 02:32:36.893643 28734 layer_factory.hpp:77] Creating layer lstm1_
I0924 02:32:36.893657 28734 net.cpp:91] Creating Layer lstm1_
I0924 02:32:36.893664 28734 net.cpp:425] lstm1_ <- c_1
I0924 02:32:36.893676 28734 net.cpp:399] lstm1_ -> c_T
I0924 02:32:36.894327 28734 net.cpp:141] Setting up lstm1_
I0924 02:32:36.894345 28734 net.cpp:148] Top shape: 1 1 1000 (1000)
I0924 02:32:36.894351 28734 net.cpp:156] Memory required for data: 90016
I0924 02:32:36.894358 28734 layer_factory.hpp:77] Creating layer lstm1_h_concat
I0924 02:32:36.894371 28734 net.cpp:91] Creating Layer lstm1_h_concat
I0924 02:32:36.894378 28734 net.cpp:425] lstm1_h_concat <- h_1
I0924 02:32:36.894395 28734 net.cpp:399] lstm1_h_concat -> h
I0924 02:32:36.896522 28734 net.cpp:141] Setting up lstm1_h_concat
I0924 02:32:36.896543 28734 net.cpp:148] Top shape: 1 1 1000 (1000)
I0924 02:32:36.896549 28734 net.cpp:156] Memory required for data: 94016
I0924 02:32:36.896556 28734 layer_factory.hpp:77] Creating layer h_pseudoloss
I0924 02:32:36.896569 28734 net.cpp:91] Creating Layer h_pseudoloss
I0924 02:32:36.896576 28734 net.cpp:425] h_pseudoloss <- h
I0924 02:32:36.896587 28734 net.cpp:399] h_pseudoloss -> h_pseudoloss
I0924 02:32:36.901026 28734 net.cpp:141] Setting up h_pseudoloss
…
I0924 02:32:36.901180 28734 net.cpp:217] lstm1_x_transform needs backward computation.
I0924 02:32:36.901190 28734 net.cpp:219] cont_1_lstm1_cont_slice_0_split does not need backward computation.
I0924 02:32:36.901198 28734 net.cpp:219] lstm1_cont_slice does not need backward computation.
I0924 02:32:36.901208 28734 net.cpp:219] lstm1_ does not need backward computation.
I0924 02:32:36.901217 28734 net.cpp:219] lstm1_ does not need backward computation.
I0924 02:32:36.901221 28748 net.cpp:141] Setting up lstm2_x_transform
I0924 02:32:36.901224 28734 net.cpp:261] This network produces output c_T
I0924 02:32:36.901242 28748 net.cpp:148] Top shape: 1 1 4000 (4000)
I0924 02:32:36.901242 28734 net.cpp:261] This network produces output h_pseudoloss
I0924 02:32:36.901253 28748 net.cpp:156] Memory required for data: 30020
I0924 02:32:36.901273 28748 layer_factory.hpp:77] Creating layer lstm2_W_xc_x_slice
I0924 02:32:36.901273 28734 net.cpp:274] Network initialization done.
I0924 02:32:36.901293 28748 net.cpp:91] Creating Layer lstm2_W_xc_x_slice
I0924 02:32:36.901302 28748 net.cpp:425] lstm2_W_xc_x_slice <- W_xc_x
I0924 02:32:36.901315 28748 net.cpp:399] lstm2_W_xc_x_slice -> W_xc_x_1
I0924 02:32:36.901350 28734 recurrent_layer.cpp:150] Adding parameter 0: W_xc
I0924 02:32:36.901360 28734 recurrent_layer.cpp:150] Adding parameter 1: b_c
I0924 02:32:36.901365 28734 recurrent_layer.cpp:150] Adding parameter 2: W_hc
I0924 02:32:36.902477 28748 net.cpp:141] Setting up lstm2_W_xc_x_slice
I0924 02:32:36.902499 28748 net.cpp:148] Top shape: 1 1 4000 (4000)
I0924 02:32:36.902508 28748 net.cpp:156] Memory required for data: 46020
I0924 02:32:36.902518 28748 layer_factory.hpp:77] Creating layer lstm2_h_conted_0
I0924 02:32:36.902544 28748 net.cpp:91] Creating Layer lstm2_h_conted_0
I0924 02:32:36.902554 28748 net.cpp:425] lstm2_h_conted_0 <- h_0
I0924 02:32:36.902565 28748 net.cpp:425] lstm2_h_conted_0 <- cont_1_lstm2_cont_slice_0_split_0
I0924 02:32:36.902577 28748 net.cpp:399] lstm2_h_conted_0 -> h_conted_0
I0924 02:32:36.902746 28734 net.cpp:141] Setting up lstm1
I0924 02:32:36.902765 28734 net.cpp:148] Top shape: 1 1 1000 (1000)
I0924 02:32:36.902775 28734 net.cpp:156] Memory required for data: 26408
I0924 02:32:36.902793 28734 layer_factory.hpp:77] Creating layer concat
I0924 02:32:36.902806 28734 net.cpp:91] Creating Layer concat
I0924 02:32:36.902811 28734 net.cpp:425] concat <- lstm1
I0924 02:32:36.902819 28734 net.cpp:425] concat <- embedded_input_sentence
I0924 02:32:36.902829 28734 net.cpp:425] concat <- reshaped_stage_indicator
I0924 02:32:36.902837 28734 net.cpp:399] concat -> lstm1_video_sequence
I0924 02:32:36.904731 28734 net.cpp:141] Setting up concat
I0924 02:32:36.904749 28734 net.cpp:148] Top shape: 1 1 1501 (1501)
I0924 02:32:36.904757 28734 net.cpp:156] Memory required for data: 32412
I0924 02:32:36.904767 28734 layer_factory.hpp:77] Creating layer lstm2
I0924 02:32:36.904785 28734 net.cpp:91] Creating Layer lstm2
I0924 02:32:36.904794 28734 net.cpp:425] lstm2 <- lstm1_video_sequence
I0924 02:32:36.904805 28734 net.cpp:425] lstm2 <- cont_sentence_input_1_split_1
I0924 02:32:36.904816 28748 net.cpp:141] Setting up lstm2_h_conted_0
I0924 02:32:36.904817 28734 net.cpp:399] lstm2 -> lstm2
I0924 02:32:36.904855 28748 net.cpp:148] Top shape: 1 1 1000 (1000)
I0924 02:32:36.904865 28748 net.cpp:156] Memory required for data: 50020
I0924 02:32:36.904863 28734 recurrent_layer.cpp:20] Initializing recurrent layer: assuming input batch contains 1 timesteps of 1 independent streams.
I0924 02:32:36.904876 28748 layer_factory.hpp:77] Creating layer lstm2_transform_1
I0924 02:32:36.904892 28748 net.cpp:91] Creating Layer lstm2_transform_1
I0924 02:32:36.904901 28748 net.cpp:425] lstm2_transform_1 <- h_conted_0
I0924 02:32:36.904914 28748 net.cpp:399] lstm2_transform_1 -> W_hc_h_0
I0924 02:32:36.905192 28734 net.cpp:49] Initializing net from parameters: 
layer {
  name: "lstm2_"
  type: "Input"
  top: "x"
  top: "cont"
  input_param {
    shape {
      dim: 1
      dim: 1
      dim: 1501
    }
    shape {
      dim: 1
      dim: 1
    }
  }
}
layer {
  name: "lstm2_"
  type: "Input"
  top: "c_0"
  top: "h_0"
  input_param {
    shape {
      dim: 1
      dim: 1
      dim: 1000
    }
    shape {
      dim: 1
      dim: 1
      dim: 1000
    }
  }
}
layer {
  name: "lstm2_cont_slice"
  type: "Slice"
  bottom: "cont"
  top: "cont_1"
  slice_param {
    axis: 0
  }
}
layer {
  name: "lstm2_x_transform"
  type: "InnerProduct"
  bottom: "x"
  top: "W_xc_x"
  param {
    name: "W_xc"
  }
  param {
    name: "b_c"
  }
  propagate_down: true
  inner_product_param {
    num_output: 4000
    bias_term: true
    weight_filler {
      type: "uniform"
      min: -0.08
      max: 0.08
    }
    bias_filler {
      type: "constant"
      value: 0
    }
    axis: 2
  }
}
layer {
  name: "lstm2_W_xc_x_slice"
  type: "Slice"
  bottom: "W_xc_x"
  top: "W_xc_x_1"
  slice_param {
    axis: 0
  }
}
layer {
  name: "lstm2_h_conted_0"
  type: "Scale"
  bottom: "h_0"
  bottom: "cont_1"
  top: "h_conted_0"
  scale_param {
    axis: 0
  }
}
layer {
  name: "lstm2_transform_1"
  type: "InnerProduct"
  bottom: "h_conted_0"
  top: "W_hc_h_0"
  param {
    name: "W_hc"
  }
  inner_product_param {
    num_output: 4000
    bias_term: false
    weight_filler {
      type: "uniform"
      min: -0.08
      max: 0.08
    }
    axis: 2
  }
}
layer {
  name: "lstm2_gate_input_1"
  type: "Eltwise"
  bottom: "W_hc_h_0"
  bottom: "W_xc_x_1"
  top: "gate_input_1"
  eltwise_param {
    operation: SUM
  }
}
layer {
  name: "lstm2_unit_1"
  type: "LSTMUnit"
  bottom: "c_0"
  bottom: "gate_input_1"
  bottom: "cont_1"
  top: "c_1"
  top: "h_1"
}
layer {
  name: "lstm2_"
  type: "Split"
  bottom: "c_1"
  top: "c_T"
}
layer {
  name: "lstm2_h_concat"
  type: "Concat"
  bottom: "h_1"
  top: "h"
  concat_param {
    axis: 0
  }
}
layer {
  name: "h_pseudoloss"
  type: "Reduction"
  bottom: "h"
  top: "h_pseudoloss"
  loss_weight: 1
}
I0924 02:32:36.905331 28734 layer_factory.hpp:77] Creating layer lstm2_
I0924 02:32:36.905349 28734 net.cpp:91] Creating Layer lstm2_
I0924 02:32:36.905361 28734 net.cpp:399] lstm2_ -> x
I0924 02:32:36.905381 28734 net.cpp:399] lstm2_ -> cont
I0924 02:32:36.916923 28754 net.cpp:141] Setting up lstm2_transform_1
I0924 02:32:36.916975 28754 net.cpp:148] Top shape: 1 1 4000 (4000)
I0924 02:32:36.916986 28754 net.cpp:156] Memory required for data: 66020
I0924 02:32:36.917011 28754 layer_factory.hpp:77] Creating layer lstm2_gate_input_1
I0924 02:32:36.917034 28754 net.cpp:91] Creating Layer lstm2_gate_input_1
I0924 02:32:36.917047 28754 net.cpp:425] lstm2_gate_input_1 <- W_hc_h_0
I0924 02:32:36.917057 28754 net.cpp:425] lstm2_gate_input_1 <- W_xc_x_1
I0924 02:32:36.917074 28754 net.cpp:399] lstm2_gate_input_1 -> gate_input_1
I0924 02:32:36.917112 28734 net.cpp:141] Setting up lstm2_
I0924 02:32:36.917132 28734 net.cpp:148] Top shape: 1 1 1501 (1501)
I0924 02:32:36.917142 28734 net.cpp:148] Top shape: 1 1 (1)
I0924 02:32:36.917145 28754 net.cpp:141] Setting up lstm2_gate_input_1
I0924 02:32:36.917150 28734 net.cpp:156] Memory required for data: 6008
I0924 02:32:36.917173 28734 layer_factory.hpp:77] Creating layer lstm2_
I0924 02:32:36.917176 28754 net.cpp:148] Top shape: 1 1 4000 (4000)
I0924 02:32:36.917186 28754 net.cpp:156] Memory required for data: 82020
I0924 02:32:36.917191 28734 net.cpp:91] Creating Layer lstm2_
I0924 02:32:36.917193 28754 layer_factory.hpp:77] Creating layer lstm2_unit_1
I0924 02:32:36.917204 28734 net.cpp:399] lstm2_ -> c_0
I0924 02:32:36.917207 28754 net.cpp:91] Creating Layer lstm2_unit_1
I0924 02:32:36.917217 28754 net.cpp:425] lstm2_unit_1 <- c_0
I0924 02:32:36.917222 28734 net.cpp:399] lstm2_ -> h_0
I0924 02:32:36.917227 28754 net.cpp:425] lstm2_unit_1 <- gate_input_1
I0924 02:32:36.917237 28754 net.cpp:425] lstm2_unit_1 <- cont_1_lstm2_cont_slice_0_split_1
I0924 02:32:36.917248 28754 net.cpp:399] lstm2_unit_1 -> c_1
I0924 02:32:36.917263 28754 net.cpp:399] lstm2_unit_1 -> h_1
I0924 02:32:36.917261 28730 net.cpp:141] Setting up lstm2_x_transform
I0924 02:32:36.917299 28730 net.cpp:148] Top shape: 1 1 4000 (4000)
I0924 02:32:36.917309 28730 net.cpp:156] Memory required for data: 30020
I0924 02:32:36.917330 28730 layer_factory.hpp:77] Creating layer lstm2_W_xc_x_slice
I0924 02:32:36.917346 28730 net.cpp:91] Creating Layer lstm2_W_xc_x_slice
I0924 02:32:36.917356 28730 net.cpp:425] lstm2_W_xc_x_slice <- W_xc_x
I0924 02:32:36.917371 28730 net.cpp:399] lstm2_W_xc_x_slice -> W_xc_x_1
I0924 02:32:36.917405 28754 net.cpp:141] Setting up lstm2_unit_1
I0924 02:32:36.917421 28754 net.cpp:148] Top shape: 1 1 1000 (1000)
I0924 02:32:36.917433 28754 net.cpp:148] Top shape: 1 1 1000 (1000)
I0924 02:32:36.917440 28754 net.cpp:156] Memory required for data: 90020
I0924 02:32:36.917448 28754 layer_factory.hpp:77] Creating layer lstm2_
I0924 02:32:36.917448 28734 net.cpp:141] Setting up lstm2_
I0924 02:32:36.917469 28754 net.cpp:91] Creating Layer lstm2_
I0924 02:32:36.917471 28734 net.cpp:148] Top shape: 1 1 1000 (1000)
I0924 02:32:36.917477 28754 net.cpp:425] lstm2_ <- c_1
I0924 02:32:36.917481 28734 net.cpp:148] Top shape: 1 1 1000 (1000)
I0924 02:32:36.917489 28734 net.cpp:156] Memory required for data: 14008
I0924 02:32:36.917490 28754 net.cpp:399] lstm2_ -> c_T
I0924 02:32:36.917492 28730 net.cpp:141] Setting up lstm2_W_xc_x_slice
I0924 02:32:36.917496 28734 layer_factory.hpp:77] Creating layer lstm2_cont_slice
I0924 02:32:36.917515 28730 net.cpp:148] Top shape: 1 1 4000 (4000)
I0924 02:32:36.917518 28734 net.cpp:91] Creating Layer lstm2_cont_slice
I0924 02:32:36.917523 28730 net.cpp:156] Memory required for data: 46020
I0924 02:32:36.917527 28734 net.cpp:425] lstm2_cont_slice <- cont
I0924 02:32:36.917532 28730 layer_factory.hpp:77] Creating layer lstm2_h_conted_0
I0924 02:32:36.917539 28734 net.cpp:399] lstm2_cont_slice -> cont_1
I0924 02:32:36.917548 28730 net.cpp:91] Creating Layer lstm2_h_conted_0
I0924 02:32:36.917558 28730 net.cpp:425] lstm2_h_conted_0 <- h_0
I0924 02:32:36.917569 28730 net.cpp:425] lstm2_h_conted_0 <- cont_1_lstm2_cont_slice_0_split_0
I0924 02:32:36.917582 28730 net.cpp:399] lstm2_h_conted_0 -> h_conted_0
I0924 02:32:36.925904 28754 net.cpp:141] Setting up lstm2_
I0924 02:32:36.925945 28734 net.cpp:141] Setting up lstm2_cont_slice
I0924 02:32:36.925953 28754 net.cpp:148] Top shape: 1 1 1000 (1000)
I0924 02:32:36.925963 28734 net.cpp:148] Top shape: 1 1 (1)
I0924 02:32:36.925964 28754 net.cpp:156] Memory required for data: 94020
I0924 02:32:36.925971 28734 net.cpp:156] Memory required for data: 14012
I0924 02:32:36.925976 28754 layer_factory.hpp:77] Creating layer lstm2_h_concat
I0924 02:32:36.925978 28734 layer_factory.hpp:77] Creating layer cont_1_lstm2_cont_slice_0_split
I0924 02:32:36.925995 28734 net.cpp:91] Creating Layer cont_1_lstm2_cont_slice_0_split
I0924 02:32:36.926002 28754 net.cpp:91] Creating Layer lstm2_h_concat
I0924 02:32:36.926007 28734 net.cpp:425] cont_1_lstm2_cont_slice_0_split <- cont_1
I0924 02:32:36.926013 28754 net.cpp:425] lstm2_h_concat <- h_1
I0924 02:32:36.926021 28734 net.cpp:399] cont_1_lstm2_cont_slice_0_split -> cont_1_lstm2_cont_slice_0_split_0
I0924 02:32:36.926028 28754 net.cpp:399] lstm2_h_concat -> h
I0924 02:32:36.926036 28734 net.cpp:399] cont_1_lstm2_cont_slice_0_split -> cont_1_lstm2_cont_slice_0_split_1
I0924 02:32:36.926082 28730 net.cpp:141] Setting up lstm2_h_conted_0
I0924 02:32:36.926097 28730 net.cpp:148] Top shape: 1 1 1000 (1000)
I0924 02:32:36.926102 28730 net.cpp:156] Memory required for data: 50020
I0924 02:32:36.926107 28730 layer_factory.hpp:77] Creating layer lstm2_transform_1
I0924 02:32:36.926120 28730 net.cpp:91] Creating Layer lstm2_transform_1
I0924 02:32:36.926126 28730 net.cpp:425] lstm2_transform_1 <- h_conted_0
I0924 02:32:36.926136 28730 net.cpp:399] lstm2_transform_1 -> W_hc_h_0
I0924 02:32:36.926144 28754 net.cpp:141] Setting up lstm2_h_concat
I0924 02:32:36.926159 28754 net.cpp:148] Top shape: 1 1 1000 (1000)
I0924 02:32:36.926167 28754 net.cpp:156] Memory required for data: 98020
I0924 02:32:36.926177 28754 layer_factory.hpp:77] Creating layer h_pseudoloss
I0924 02:32:36.926190 28754 net.cpp:91] Creating Layer h_pseudoloss
I0924 02:32:36.926198 28754 net.cpp:425] h_pseudoloss <- h
I0924 02:32:36.926215 28754 net.cpp:399] h_pseudoloss -> h_pseudoloss
I0924 02:32:36.933442 28734 net.cpp:141] Setting up cont_1_lstm2_cont_slice_0_split
I0924 02:32:36.933490 28734 net.cpp:148] Top shape: 1 1 (1)
I0924 02:32:36.933501 28734 net.cpp:148] Top shape: 1 1 (1)
I0924 02:32:36.933507 28734 net.cpp:156] Memory required for data: 14020
I0924 02:32:36.933518 28734 layer_factory.hpp:77] Creating layer lstm2_x_transform
I0924 02:32:36.933544 28734 net.cpp:91] Creating Layer lstm2_x_transform
I0924 02:32:36.933554 28734 net.cpp:425] lstm2_x_transform <- x
I0924 02:32:36.933573 28734 net.cpp:399] lstm2_x_transform -> W_xc_x
I0924 02:32:36.933698 28754 net.cpp:141] Setting up h_pseudoloss
…
I0924 02:32:36.933893 28754 net.cpp:219] lstm2_ does not need backward computation.
I0924 02:32:36.933900 28754 net.cpp:261] This network produces output c_T
I0924 02:32:36.933910 28754 net.cpp:261] This network produces output h_pseudoloss
I0924 02:32:36.933941 28754 net.cpp:274] Network initialization done.
I0924 02:32:36.934029 28754 recurrent_layer.cpp:150] Adding parameter 0: W_xc
I0924 02:32:36.934044 28754 recurrent_layer.cpp:150] Adding parameter 1: b_c
I0924 02:32:36.934053 28754 recurrent_layer.cpp:150] Adding parameter 2: W_hc
I0924 02:32:36.937260 28754 net.cpp:141] Setting up lstm2
I0924 02:32:36.937309 28754 net.cpp:148] Top shape: 1 1 1000 (1000)
I0924 02:32:36.937320 28754 net.cpp:156] Memory required for data: 36412
I0924 02:32:36.937353 28754 layer_factory.hpp:77] Creating layer predict
I0924 02:32:36.937381 28754 net.cpp:91] Creating Layer predict
I0924 02:32:36.937393 28754 net.cpp:425] predict <- lstm2
I0924 02:32:36.937409 28754 net.cpp:399] predict -> predict
I0924 02:32:36.951820 28748 net.cpp:141] Setting up lstm2_transform_1
I0924 02:32:36.951871 28748 net.cpp:148] Top shape: 1 1 4000 (4000)
I0924 02:32:36.951880 28748 net.cpp:156] Memory required for data: 66020
I0924 02:32:36.951905 28748 layer_factory.hpp:77] Creating layer lstm2_gate_input_1
I0924 02:32:36.951936 28748 net.cpp:91] Creating Layer lstm2_gate_input_1
I0924 02:32:36.951947 28748 net.cpp:425] lstm2_gate_input_1 <- W_hc_h_0
I0924 02:32:36.951958 28748 net.cpp:425] lstm2_gate_input_1 <- W_xc_x_1
I0924 02:32:36.951970 28748 net.cpp:399] lstm2_gate_input_1 -> gate_input_1
I0924 02:32:37.040879 28730 net.cpp:141] Setting up lstm2_transform_1
I0924 02:32:37.040943 28730 net.cpp:148] Top shape: 1 1 4000 (4000)
I0924 02:32:37.040953 28730 net.cpp:156] Memory required for data: 66020
I0924 02:32:37.040980 28730 layer_factory.hpp:77] Creating layer lstm2_gate_input_1
I0924 02:32:37.041005 28730 net.cpp:91] Creating Layer lstm2_gate_input_1
I0924 02:32:37.041014 28730 net.cpp:425] lstm2_gate_input_1 <- W_hc_h_0
I0924 02:32:37.041024 28730 net.cpp:425] lstm2_gate_input_1 <- W_xc_x_1
I0924 02:32:37.041039 28730 net.cpp:399] lstm2_gate_input_1 -> gate_input_1
I0924 02:32:37.041200 28730 net.cpp:141] Setting up lstm2_gate_input_1
I0924 02:32:37.041203 28748 net.cpp:141] Setting up lstm2_gate_input_1
I0924 02:32:37.041201 28734 net.cpp:141] Setting up lstm2_x_transform
I0924 02:32:37.041230 28748 net.cpp:148] Top shape: 1 1 4000 (4000)
I0924 02:32:37.041239 28734 net.cpp:148] Top shape: 1 1 4000 (4000)
I0924 02:32:37.041244 28748 net.cpp:156] Memory required for data: 82020
I0924 02:32:37.041221 28730 net.cpp:148] Top shape: 1 1 4000 (4000)
I0924 02:32:37.041249 28734 net.cpp:156] Memory required for data: 30020
I0924 02:32:37.041259 28730 net.cpp:156] Memory required for data: 82020
I0924 02:32:37.041254 28748 layer_factory.hpp:77] Creating layer lstm2_unit_1
I0924 02:32:37.041268 28730 layer_factory.hpp:77] Creating layer lstm2_unit_1
I0924 02:32:37.041273 28734 layer_factory.hpp:77] Creating layer lstm2_W_xc_x_slice
…
I0924 02:32:37.041312 28748 net.cpp:425] lstm2_unit_1 <- cont_1_lstm2_cont_slice_0_split_1
I0924 02:32:37.041319 28730 net.cpp:425] lstm2_unit_1 <- cont_1_lstm2_cont_slice_0_split_1
I0924 02:32:37.041326 28748 net.cpp:399] lstm2_unit_1 -> c_1
I0924 02:32:37.041330 28730 net.cpp:399] lstm2_unit_1 -> c_1
I0924 02:32:37.041321 28734 net.cpp:399] lstm2_W_xc_x_slice -> W_xc_x_1
I0924 02:32:37.041343 28730 net.cpp:399] lstm2_unit_1 -> h_1
I0924 02:32:37.041343 28748 net.cpp:399] lstm2_unit_1 -> h_1
I0924 02:32:37.041419 28734 net.cpp:141] Setting up lstm2_W_xc_x_slice
I0924 02:32:37.041435 28734 net.cpp:148] Top shape: 1 1 4000 (4000)
I0924 02:32:37.041442 28734 net.cpp:156] Memory required for data: 46020
I0924 02:32:37.041451 28734 layer_factory.hpp:77] Creating layer lstm2_h_conted_0
I0924 02:32:37.041463 28734 net.cpp:91] Creating Layer lstm2_h_conted_0
I0924 02:32:37.041471 28734 net.cpp:425] lstm2_h_conted_0 <- h_0
I0924 02:32:37.041481 28734 net.cpp:425] lstm2_h_conted_0 <- cont_1_lstm2_cont_slice_0_split_0
I0924 02:32:37.041493 28734 net.cpp:399] lstm2_h_conted_0 -> h_conted_0
I0924 02:32:37.041713 28748 net.cpp:141] Setting up lstm2_unit_1
I0924 02:32:37.041726 28748 net.cpp:148] Top shape: 1 1 1000 (1000)
I0924 02:32:37.041733 28748 net.cpp:148] Top shape: 1 1 1000 (1000)
I0924 02:32:37.041738 28748 net.cpp:156] Memory required for data: 90020
I0924 02:32:37.041743 28748 layer_factory.hpp:77] Creating layer lstm2_
I0924 02:32:37.041760 28748 net.cpp:91] Creating Layer lstm2_
I0924 02:32:37.041770 28748 net.cpp:425] lstm2_ <- c_1
I0924 02:32:37.041779 28748 net.cpp:399] lstm2_ -> c_T
I0924 02:32:37.041874 28734 net.cpp:141] Setting up lstm2_h_conted_0
I0924 02:32:37.041893 28734 net.cpp:148] Top shape: 1 1 1000 (1000)
I0924 02:32:37.041900 28734 net.cpp:156] Memory required for data: 50020
I0924 02:32:37.041908 28734 layer_factory.hpp:77] Creating layer lstm2_transform_1
I0924 02:32:37.041909 28748 net.cpp:141] Setting up lstm2_
I0924 02:32:37.041924 28748 net.cpp:148] Top shape: 1 1 1000 (1000)
I0924 02:32:37.041926 28734 net.cpp:91] Creating Layer lstm2_transform_1
I0924 02:32:37.041929 28748 net.cpp:156] Memory required for data: 94020
I0924 02:32:37.041941 28734 net.cpp:425] lstm2_transform_1 <- h_conted_0
I0924 02:32:37.041944 28748 layer_factory.hpp:77] Creating layer lstm2_h_concat
I0924 02:32:37.041960 28748 net.cpp:91] Creating Layer lstm2_h_concat
I0924 02:32:37.041960 28734 net.cpp:399] lstm2_transform_1 -> W_hc_h_0
I0924 02:32:37.041967 28748 net.cpp:425] lstm2_h_concat <- h_1
I0924 02:32:37.042002 28730 net.cpp:141] Setting up lstm2_unit_1
I0924 02:32:37.042011 28748 net.cpp:399] lstm2_h_concat -> h
I0924 02:32:37.042032 28730 net.cpp:148] Top shape: 1 1 1000 (1000)
I0924 02:32:37.042047 28730 net.cpp:148] Top shape: 1 1 1000 (1000)
I0924 02:32:37.042054 28730 net.cpp:156] Memory required for data: 90020
I0924 02:32:37.042064 28730 layer_factory.hpp:77] Creating layer lstm2_
I0924 02:32:37.042078 28730 net.cpp:91] Creating Layer lstm2_
I0924 02:32:37.042086 28730 net.cpp:425] lstm2_ <- c_1
I0924 02:32:37.042099 28730 net.cpp:399] lstm2_ -> c_T
I0924 02:32:37.042176 28748 net.cpp:141] Setting up lstm2_h_concat
I0924 02:32:37.042188 28748 net.cpp:148] Top shape: 1 1 1000 (1000)
I0924 02:32:37.042192 28748 net.cpp:156] Memory required for data: 98020
I0924 02:32:37.042197 28748 layer_factory.hpp:77] Creating layer h_pseudoloss
I0924 02:32:37.042207 28748 net.cpp:91] Creating Layer h_pseudoloss
I0924 02:32:37.042212 28748 net.cpp:425] h_pseudoloss <- h
I0924 02:32:37.042222 28748 net.cpp:399] h_pseudoloss -> h_pseudoloss
I0924 02:32:37.042220 28730 net.cpp:141] Setting up lstm2_
I0924 02:32:37.042245 28730 net.cpp:148] Top shape: 1 1 1000 (1000)
I0924 02:32:37.042253 28730 net.cpp:156] Memory required for data: 94020
I0924 02:32:37.042260 28730 layer_factory.hpp:77] Creating layer lstm2_h_concat
I0924 02:32:37.042279 28730 net.cpp:91] Creating Layer lstm2_h_concat
I0924 02:32:37.042286 28730 net.cpp:425] lstm2_h_concat <- h_1
I0924 02:32:37.042299 28730 net.cpp:399] lstm2_h_concat -> h
I0924 02:32:37.042414 28730 net.cpp:141] Setting up lstm2_h_concat
I0924 02:32:37.042430 28730 net.cpp:148] Top shape: 1 1 1000 (1000)
I0924 02:32:37.042438 28730 net.cpp:156] Memory required for data: 98020
I0924 02:32:37.042445 28730 layer_factory.hpp:77] Creating layer h_pseudoloss
I0924 02:32:37.042456 28730 net.cpp:91] Creating Layer h_pseudoloss
I0924 02:32:37.042464 28730 net.cpp:425] h_pseudoloss <- h
I0924 02:32:37.042518 28730 net.cpp:399] h_pseudoloss -> h_pseudoloss
I0924 02:32:37.052835 28748 net.cpp:141] Setting up h_pseudoloss
…
I0924 02:32:37.053206 28730 net.cpp:274] Network initialization done.
I0924 02:32:37.053211 28748 recurrent_layer.cpp:150] Adding parameter 0: W_xc
I0924 02:32:37.053223 28748 recurrent_layer.cpp:150] Adding parameter 1: b_c
I0924 02:32:37.053231 28748 recurrent_layer.cpp:150] Adding parameter 2: W_hc
I0924 02:32:37.053278 28730 recurrent_layer.cpp:150] Adding parameter 0: W_xc
I0924 02:32:37.053290 28730 recurrent_layer.cpp:150] Adding parameter 1: b_c
I0924 02:32:37.053297 28730 recurrent_layer.cpp:150] Adding parameter 2: W_hc
I0924 02:32:37.053907 28730 net.cpp:141] Setting up lstm2
I0924 02:32:37.053935 28730 net.cpp:148] Top shape: 1 1 1000 (1000)
I0924 02:32:37.053943 28730 net.cpp:156] Memory required for data: 36412
I0924 02:32:37.053971 28730 layer_factory.hpp:77] Creating layer predict
I0924 02:32:37.053983 28748 net.cpp:141] Setting up lstm2
I0924 02:32:37.053997 28730 net.cpp:91] Creating Layer predict
I0924 02:32:37.054003 28748 net.cpp:148] Top shape: 1 1 1000 (1000)
I0924 02:32:37.054008 28730 net.cpp:425] predict <- lstm2
I0924 02:32:37.054011 28748 net.cpp:156] Memory required for data: 36412
I0924 02:32:37.054024 28730 net.cpp:399] predict -> predict
I0924 02:32:37.054036 28748 layer_factory.hpp:77] Creating layer predict
I0924 02:32:37.054055 28748 net.cpp:91] Creating Layer predict
I0924 02:32:37.054065 28748 net.cpp:425] predict <- lstm2
I0924 02:32:37.054075 28748 net.cpp:399] predict -> predict
I0924 02:32:37.233111 28734 net.cpp:141] Setting up lstm2_transform_1
I0924 02:32:37.233172 28734 net.cpp:148] Top shape: 1 1 4000 (4000)
I0924 02:32:37.233180 28734 net.cpp:156] Memory required for data: 66020
I0924 02:32:37.233203 28734 layer_factory.hpp:77] Creating layer lstm2_gate_input_1
I0924 02:32:37.233227 28734 net.cpp:91] Creating Layer lstm2_gate_input_1
I0924 02:32:37.233234 28734 net.cpp:425] lstm2_gate_input_1 <- W_hc_h_0
I0924 02:32:37.233243 28734 net.cpp:425] lstm2_gate_input_1 <- W_xc_x_1
I0924 02:32:37.233256 28734 net.cpp:399] lstm2_gate_input_1 -> gate_input_1
I0924 02:32:37.233358 28734 net.cpp:141] Setting up lstm2_gate_input_1
I0924 02:32:37.233372 28734 net.cpp:148] Top shape: 1 1 4000 (4000)
I0924 02:32:37.233377 28734 net.cpp:156] Memory required for data: 82020
I0924 02:32:37.233383 28734 layer_factory.hpp:77] Creating layer lstm2_unit_1
I0924 02:32:37.233394 28734 net.cpp:91] Creating Layer lstm2_unit_1
I0924 02:32:37.233400 28734 net.cpp:425] lstm2_unit_1 <- c_0
I0924 02:32:37.233407 28734 net.cpp:425] lstm2_unit_1 <- gate_input_1
I0924 02:32:37.233414 28734 net.cpp:425] lstm2_unit_1 <- cont_1_lstm2_cont_slice_0_split_1
I0924 02:32:37.233424 28734 net.cpp:399] lstm2_unit_1 -> c_1
I0924 02:32:37.233434 28734 net.cpp:399] lstm2_unit_1 -> h_1
I0924 02:32:37.233579 28734 net.cpp:141] Setting up lstm2_unit_1
I0924 02:32:37.233592 28734 net.cpp:148] Top shape: 1 1 1000 (1000)
I0924 02:32:37.233597 28734 net.cpp:148] Top shape: 1 1 1000 (1000)
I0924 02:32:37.233603 28734 net.cpp:156] Memory required for data: 90020
I0924 02:32:37.233608 28734 layer_factory.hpp:77] Creating layer lstm2_
I0924 02:32:37.233618 28734 net.cpp:91] Creating Layer lstm2_
I0924 02:32:37.233623 28734 net.cpp:425] lstm2_ <- c_1
I0924 02:32:37.233631 28734 net.cpp:399] lstm2_ -> c_T
I0924 02:32:37.233675 28734 net.cpp:141] Setting up lstm2_
I0924 02:32:37.233685 28734 net.cpp:148] Top shape: 1 1 1000 (1000)
I0924 02:32:37.233690 28734 net.cpp:156] Memory required for data: 94020
I0924 02:32:37.233696 28734 layer_factory.hpp:77] Creating layer lstm2_h_concat
I0924 02:32:37.233706 28734 net.cpp:91] Creating Layer lstm2_h_concat
I0924 02:32:37.233711 28734 net.cpp:425] lstm2_h_concat <- h_1
I0924 02:32:37.233721 28734 net.cpp:399] lstm2_h_concat -> h
I0924 02:32:37.233765 28734 net.cpp:141] Setting up lstm2_h_concat
I0924 02:32:37.233775 28734 net.cpp:148] Top shape: 1 1 1000 (1000)
I0924 02:32:37.233779 28734 net.cpp:156] Memory required for data: 98020
I0924 02:32:37.233784 28734 layer_factory.hpp:77] Creating layer h_pseudoloss
I0924 02:32:37.233798 28734 net.cpp:91] Creating Layer h_pseudoloss
I0924 02:32:37.233803 28734 net.cpp:425] h_pseudoloss <- h
I0924 02:32:37.233810 28734 net.cpp:399] h_pseudoloss -> h_pseudoloss
I0924 02:32:37.233940 28734 net.cpp:141] Setting up h_pseudoloss
…
I0924 02:32:37.234050 28734 net.cpp:219] lstm2_ does not need backward computation.
I0924 02:32:37.234053 28734 net.cpp:261] This network produces output c_T
I0924 02:32:37.234060 28734 net.cpp:261] This network produces output h_pseudoloss
I0924 02:32:37.234077 28734 net.cpp:274] Network initialization done.
I0924 02:32:37.234140 28734 recurrent_layer.cpp:150] Adding parameter 0: W_xc
I0924 02:32:37.234148 28734 recurrent_layer.cpp:150] Adding parameter 1: b_c
I0924 02:32:37.234151 28734 recurrent_layer.cpp:150] Adding parameter 2: W_hc
I0924 02:32:37.234340 28734 net.cpp:141] Setting up lstm2
I0924 02:32:37.234352 28734 net.cpp:148] Top shape: 1 1 1000 (1000)
I0924 02:32:37.234357 28734 net.cpp:156] Memory required for data: 36412
I0924 02:32:37.234374 28734 layer_factory.hpp:77] Creating layer predict
I0924 02:32:37.234386 28734 net.cpp:91] Creating Layer predict
I0924 02:32:37.234393 28734 net.cpp:425] predict <- lstm2
I0924 02:32:37.234402 28734 net.cpp:399] predict -> predict
I0924 02:32:37.315970 28756 net.cpp:141] Setting up conv1
I0924 02:32:37.316032 28756 net.cpp:148] Top shape: 10 96 55 55 (2904000)
I0924 02:32:37.316042 28756 net.cpp:156] Memory required for data: 17799480
I0924 02:32:37.316071 28756 layer_factory.hpp:77] Creating layer relu1
I0924 02:32:37.316094 28756 net.cpp:91] Creating Layer relu1
I0924 02:32:37.316104 28756 net.cpp:425] relu1 <- conv1
I0924 02:32:37.316117 28756 net.cpp:386] relu1 -> conv1 (in-place)
I0924 02:32:37.316781 28756 net.cpp:141] Setting up relu1
I0924 02:32:37.316809 28756 net.cpp:148] Top shape: 10 96 55 55 (2904000)
I0924 02:32:37.316817 28756 net.cpp:156] Memory required for data: 29415480
I0924 02:32:37.316826 28756 layer_factory.hpp:77] Creating layer pool1
I0924 02:32:37.316845 28756 net.cpp:91] Creating Layer pool1
I0924 02:32:37.316854 28756 net.cpp:425] pool1 <- conv1
I0924 02:32:37.316869 28756 net.cpp:399] pool1 -> pool1
I0924 02:32:37.317046 28756 net.cpp:141] Setting up pool1
I0924 02:32:37.317062 28756 net.cpp:148] Top shape: 10 96 27 27 (699840)
I0924 02:32:37.317070 28756 net.cpp:156] Memory required for data: 32214840
I0924 02:32:37.317076 28756 layer_factory.hpp:77] Creating layer norm1
I0924 02:32:37.317102 28756 net.cpp:91] Creating Layer norm1
I0924 02:32:37.317111 28756 net.cpp:425] norm1 <- pool1
I0924 02:32:37.317121 28756 net.cpp:399] norm1 -> norm1
I0924 02:32:37.317498 28756 net.cpp:141] Setting up norm1
I0924 02:32:37.317514 28756 net.cpp:148] Top shape: 10 96 27 27 (699840)
I0924 02:32:37.317523 28756 net.cpp:156] Memory required for data: 35014200
I0924 02:32:37.317530 28756 layer_factory.hpp:77] Creating layer conv2
I0924 02:32:37.317550 28756 net.cpp:91] Creating Layer conv2
I0924 02:32:37.317558 28756 net.cpp:425] conv2 <- norm1
I0924 02:32:37.317569 28756 net.cpp:399] conv2 -> conv2
I0924 02:32:37.322919 28756 net.cpp:141] Setting up conv2
I0924 02:32:37.322978 28756 net.cpp:148] Top shape: 10 256 27 27 (1866240)
I0924 02:32:37.322986 28756 net.cpp:156] Memory required for data: 42479160
I0924 02:32:37.323019 28756 layer_factory.hpp:77] Creating layer relu2
I0924 02:32:37.323041 28756 net.cpp:91] Creating Layer relu2
I0924 02:32:37.323051 28756 net.cpp:425] relu2 <- conv2
I0924 02:32:37.323062 28756 net.cpp:386] relu2 -> conv2 (in-place)
I0924 02:32:37.323741 28756 net.cpp:141] Setting up relu2
I0924 02:32:37.323766 28756 net.cpp:148] Top shape: 10 256 27 27 (1866240)
I0924 02:32:37.323773 28756 net.cpp:156] Memory required for data: 49944120
I0924 02:32:37.323781 28756 layer_factory.hpp:77] Creating layer pool2
I0924 02:32:37.323796 28756 net.cpp:91] Creating Layer pool2
I0924 02:32:37.323803 28756 net.cpp:425] pool2 <- conv2
I0924 02:32:37.323814 28756 net.cpp:399] pool2 -> pool2
I0924 02:32:37.323923 28756 net.cpp:141] Setting up pool2
I0924 02:32:37.323937 28756 net.cpp:148] Top shape: 10 256 13 13 (432640)
I0924 02:32:37.323943 28756 net.cpp:156] Memory required for data: 51674680
I0924 02:32:37.323951 28756 layer_factory.hpp:77] Creating layer norm2
I0924 02:32:37.323973 28756 net.cpp:91] Creating Layer norm2
I0924 02:32:37.323982 28756 net.cpp:425] norm2 <- pool2
I0924 02:32:37.323994 28756 net.cpp:399] norm2 -> norm2
I0924 02:32:37.324368 28756 net.cpp:141] Setting up norm2
I0924 02:32:37.324383 28756 net.cpp:148] Top shape: 10 256 13 13 (432640)
I0924 02:32:37.324389 28756 net.cpp:156] Memory required for data: 53405240
I0924 02:32:37.324396 28756 layer_factory.hpp:77] Creating layer conv3
I0924 02:32:37.324417 28756 net.cpp:91] Creating Layer conv3
I0924 02:32:37.324425 28756 net.cpp:425] conv3 <- norm2
I0924 02:32:37.324436 28756 net.cpp:399] conv3 -> conv3
I0924 02:32:37.330067 28756 net.cpp:141] Setting up conv3
I0924 02:32:37.330119 28756 net.cpp:148] Top shape: 10 384 13 13 (648960)
I0924 02:32:37.330127 28756 net.cpp:156] Memory required for data: 56001080
I0924 02:32:37.330154 28756 layer_factory.hpp:77] Creating layer relu3
I0924 02:32:37.330179 28756 net.cpp:91] Creating Layer relu3
I0924 02:32:37.330189 28756 net.cpp:425] relu3 <- conv3
I0924 02:32:37.330201 28756 net.cpp:386] relu3 -> conv3 (in-place)
I0924 02:32:37.330521 28756 net.cpp:141] Setting up relu3
I0924 02:32:37.330536 28756 net.cpp:148] Top shape: 10 384 13 13 (648960)
I0924 02:32:37.330543 28756 net.cpp:156] Memory required for data: 58596920
I0924 02:32:37.330550 28756 layer_factory.hpp:77] Creating layer conv4
I0924 02:32:37.330567 28756 net.cpp:91] Creating Layer conv4
I0924 02:32:37.330575 28756 net.cpp:425] conv4 <- conv3
I0924 02:32:37.330590 28756 net.cpp:399] conv4 -> conv4
I0924 02:32:37.336689 28756 net.cpp:141] Setting up conv4
I0924 02:32:37.336748 28756 net.cpp:148] Top shape: 10 384 13 13 (648960)
I0924 02:32:37.336757 28756 net.cpp:156] Memory required for data: 61192760
I0924 02:32:37.336777 28756 layer_factory.hpp:77] Creating layer relu4
I0924 02:32:37.336797 28756 net.cpp:91] Creating Layer relu4
I0924 02:32:37.336807 28756 net.cpp:425] relu4 <- conv4
I0924 02:32:37.336822 28756 net.cpp:386] relu4 -> conv4 (in-place)
I0924 02:32:37.337373 28756 net.cpp:141] Setting up relu4
I0924 02:32:37.337389 28756 net.cpp:148] Top shape: 10 384 13 13 (648960)
I0924 02:32:37.337396 28756 net.cpp:156] Memory required for data: 63788600
I0924 02:32:37.337404 28756 layer_factory.hpp:77] Creating layer conv5
I0924 02:32:37.337426 28756 net.cpp:91] Creating Layer conv5
I0924 02:32:37.337435 28756 net.cpp:425] conv5 <- conv4
I0924 02:32:37.337450 28756 net.cpp:399] conv5 -> conv5
I0924 02:32:37.343327 28756 net.cpp:141] Setting up conv5
I0924 02:32:37.343741 28756 net.cpp:148] Top shape: 10 256 13 13 (432640)
I0924 02:32:37.343871 28756 net.cpp:156] Memory required for data: 65519160
I0924 02:32:37.344019 28756 layer_factory.hpp:77] Creating layer relu5
I0924 02:32:37.344199 28756 net.cpp:91] Creating Layer relu5
I0924 02:32:37.344323 28756 net.cpp:425] relu5 <- conv5
I0924 02:32:37.344447 28756 net.cpp:386] relu5 -> conv5 (in-place)
I0924 02:32:37.345162 28756 net.cpp:141] Setting up relu5
I0924 02:32:37.345407 28756 net.cpp:148] Top shape: 10 256 13 13 (432640)
I0924 02:32:37.345643 28756 net.cpp:156] Memory required for data: 67249720
I0924 02:32:37.345659 28756 layer_factory.hpp:77] Creating layer pool5
I0924 02:32:37.345679 28756 net.cpp:91] Creating Layer pool5
I0924 02:32:37.345690 28756 net.cpp:425] pool5 <- conv5
I0924 02:32:37.345701 28756 net.cpp:399] pool5 -> pool5
I0924 02:32:37.345820 28756 net.cpp:141] Setting up pool5
I0924 02:32:37.345835 28756 net.cpp:148] Top shape: 10 256 6 6 (92160)
I0924 02:32:37.345844 28756 net.cpp:156] Memory required for data: 67618360
I0924 02:32:37.345851 28756 layer_factory.hpp:77] Creating layer fc6
I0924 02:32:37.345873 28756 net.cpp:91] Creating Layer fc6
I0924 02:32:37.345882 28756 net.cpp:425] fc6 <- pool5
I0924 02:32:37.345895 28756 net.cpp:399] fc6 -> fc6
I0924 02:32:37.429952 28754 net.cpp:141] Setting up predict
I0924 02:32:37.430016 28754 net.cpp:148] Top shape: 1 1 46168 (46168)
I0924 02:32:37.430024 28754 net.cpp:156] Memory required for data: 221084
I0924 02:32:37.430042 28754 layer_factory.hpp:77] Creating layer probs
I0924 02:32:37.430063 28754 net.cpp:91] Creating Layer probs
I0924 02:32:37.430073 28754 net.cpp:425] probs <- predict
I0924 02:32:37.430085 28754 net.cpp:399] probs -> probs
I0924 02:32:37.430699 28754 net.cpp:141] Setting up probs
I0924 02:32:37.430716 28754 net.cpp:148] Top shape: 1 1 46168 (46168)
I0924 02:32:37.430722 28754 net.cpp:156] Memory required for data: 405756
I0924 02:32:37.430730 28754 net.cpp:219] probs does not need backward computation.
I0924 02:32:37.430737 28754 net.cpp:219] predict does not need backward computation.
I0924 02:32:37.430745 28754 net.cpp:219] lstm2 does not need backward computation.
I0924 02:32:37.430753 28754 net.cpp:219] concat does not need backward computation.
I0924 02:32:37.430763 28754 net.cpp:219] lstm1 does not need backward computation.
I0924 02:32:37.430770 28754 net.cpp:219] embedding does not need backward computation.
I0924 02:32:37.430778 28754 net.cpp:219] reshape_stage_indicator does not need backward computation.
I0924 02:32:37.430785 28754 net.cpp:219] reshape_frames does not need backward computation.
I0924 02:32:37.430794 28754 net.cpp:219] embed_encoder does not need backward computation.
I0924 02:32:37.430800 28754 net.cpp:219] cont_sentence_input_1_split does not need backward computation.
I0924 02:32:37.430809 28754 net.cpp:219] input does not need backward computation.
I0924 02:32:37.430814 28754 net.cpp:261] This network produces output probs
I0924 02:32:37.430838 28754 net.cpp:274] Network initialization done.
I0924 02:32:37.470829 28756 net.cpp:141] Setting up fc6
I0924 02:32:37.471263 28756 net.cpp:148] Top shape: 10 4096 (40960)
I0924 02:32:37.471436 28756 net.cpp:156] Memory required for data: 67782200
I0924 02:32:37.471573 28756 layer_factory.hpp:77] Creating layer relu6
I0924 02:32:37.471745 28756 net.cpp:91] Creating Layer relu6
I0924 02:32:37.471869 28756 net.cpp:425] relu6 <- fc6
I0924 02:32:37.471995 28756 net.cpp:386] relu6 -> fc6 (in-place)
I0924 02:32:37.473063 28756 net.cpp:141] Setting up relu6
I0924 02:32:37.473369 28756 net.cpp:148] Top shape: 10 4096 (40960)
I0924 02:32:37.473538 28756 net.cpp:156] Memory required for data: 67946040
I0924 02:32:37.473685 28756 layer_factory.hpp:77] Creating layer drop6
I0924 02:32:37.473815 28756 net.cpp:91] Creating Layer drop6
I0924 02:32:37.473945 28756 net.cpp:425] drop6 <- fc6
I0924 02:32:37.474079 28756 net.cpp:386] drop6 -> fc6 (in-place)
I0924 02:32:37.474490 28756 net.cpp:141] Setting up drop6
I0924 02:32:37.474656 28756 net.cpp:148] Top shape: 10 4096 (40960)
I0924 02:32:37.474797 28756 net.cpp:156] Memory required for data: 68109880
I0924 02:32:37.474923 28756 layer_factory.hpp:77] Creating layer fc7
I0924 02:32:37.475052 28756 net.cpp:91] Creating Layer fc7
I0924 02:32:37.475214 28756 net.cpp:425] fc7 <- fc6
I0924 02:32:37.475337 28756 net.cpp:399] fc7 -> fc7
I0924 02:32:37.523260 28756 net.cpp:141] Setting up fc7
I0924 02:32:37.523313 28756 net.cpp:148] Top shape: 10 4096 (40960)
I0924 02:32:37.523321 28756 net.cpp:156] Memory required for data: 68273720
I0924 02:32:37.523341 28756 layer_factory.hpp:77] Creating layer relu7
I0924 02:32:37.523362 28756 net.cpp:91] Creating Layer relu7
I0924 02:32:37.523375 28756 net.cpp:425] relu7 <- fc7
I0924 02:32:37.523392 28756 net.cpp:386] relu7 -> fc7 (in-place)
I0924 02:32:37.523895 28756 net.cpp:141] Setting up relu7
I0924 02:32:37.523922 28756 net.cpp:148] Top shape: 10 4096 (40960)
I0924 02:32:37.523933 28756 net.cpp:156] Memory required for data: 68437560
I0924 02:32:37.523943 28756 layer_factory.hpp:77] Creating layer drop7
I0924 02:32:37.523960 28756 net.cpp:91] Creating Layer drop7
I0924 02:32:37.523970 28756 net.cpp:425] drop7 <- fc7
I0924 02:32:37.523984 28756 net.cpp:386] drop7 -> fc7 (in-place)
I0924 02:32:37.524057 28756 net.cpp:141] Setting up drop7
I0924 02:32:37.524073 28756 net.cpp:148] Top shape: 10 4096 (40960)
I0924 02:32:37.524082 28756 net.cpp:156] Memory required for data: 68601400
I0924 02:32:37.524091 28756 layer_factory.hpp:77] Creating layer fc8
I0924 02:32:37.524107 28756 net.cpp:91] Creating Layer fc8
I0924 02:32:37.524123 28756 net.cpp:425] fc8 <- fc7
I0924 02:32:37.524137 28756 net.cpp:399] fc8 -> fc8
I0924 02:32:37.536315 28756 net.cpp:141] Setting up fc8
I0924 02:32:37.536370 28756 net.cpp:148] Top shape: 10 1000 (10000)
I0924 02:32:37.536377 28756 net.cpp:156] Memory required for data: 68641400
I0924 02:32:37.536396 28756 layer_factory.hpp:77] Creating layer prob
I0924 02:32:37.536418 28756 net.cpp:91] Creating Layer prob
I0924 02:32:37.536428 28756 net.cpp:425] prob <- fc8
I0924 02:32:37.536451 28756 net.cpp:399] prob -> prob
I0924 02:32:37.537443 28756 net.cpp:141] Setting up prob
I0924 02:32:37.537467 28756 net.cpp:148] Top shape: 10 1000 (10000)
I0924 02:32:37.537478 28756 net.cpp:156] Memory required for data: 68681400
I0924 02:32:37.537488 28756 net.cpp:219] prob does not need backward computation.
I0924 02:32:37.537502 28756 net.cpp:219] fc8 does not need backward computation.
I0924 02:32:37.537511 28756 net.cpp:219] drop7 does not need backward computation.
I0924 02:32:37.537519 28756 net.cpp:219] relu7 does not need backward computation.
…
I0924 02:32:37.537662 28756 net.cpp:219] norm1 does not need backward computation.
I0924 02:32:37.537670 28756 net.cpp:219] pool1 does not need backward computation.
I0924 02:32:37.537679 28756 net.cpp:219] relu1 does not need backward computation.
I0924 02:32:37.537691 28756 net.cpp:219] conv1 does not need backward computation.
I0924 02:32:37.537701 28756 net.cpp:219] data does not need backward computation.
I0924 02:32:37.537709 28756 net.cpp:261] This network produces output prob
I0924 02:32:37.537742 28756 net.cpp:274] Network initialization done.
I0924 02:32:37.594254 28748 net.cpp:141] Setting up predict
I0924 02:32:37.594676 28748 net.cpp:148] Top shape: 1 1 46168 (46168)
I0924 02:32:37.594691 28748 net.cpp:156] Memory required for data: 221084
I0924 02:32:37.594709 28748 layer_factory.hpp:77] Creating layer probs
I0924 02:32:37.594729 28748 net.cpp:91] Creating Layer probs
I0924 02:32:37.594739 28748 net.cpp:425] probs <- predict
I0924 02:32:37.594753 28748 net.cpp:399] probs -> probs
I0924 02:32:37.595666 28748 net.cpp:141] Setting up probs
I0924 02:32:37.595691 28748 net.cpp:148] Top shape: 1 1 46168 (46168)
I0924 02:32:37.595698 28748 net.cpp:156] Memory required for data: 405756
I0924 02:32:37.595706 28748 net.cpp:219] probs does not need backward computation.
I0924 02:32:37.595715 28748 net.cpp:219] predict does not need backward computation.
I0924 02:32:37.595722 28748 net.cpp:219] lstm2 does not need backward computation.
I0924 02:32:37.595731 28748 net.cpp:219] concat does not need backward computation.
I0924 02:32:37.595739 28748 net.cpp:219] lstm1 does not need backward computation.
I0924 02:32:37.595748 28748 net.cpp:219] embedding does not need backward computation.
I0924 02:32:37.595757 28748 net.cpp:219] reshape_stage_indicator does not need backward computation.
I0924 02:32:37.595764 28748 net.cpp:219] reshape_frames does not need backward computation.
I0924 02:32:37.595772 28748 net.cpp:219] embed_encoder does not need backward computation.
I0924 02:32:37.595780 28748 net.cpp:219] cont_sentence_input_1_split does not need backward computation.
I0924 02:32:37.595788 28748 net.cpp:219] input does not need backward computation.
I0924 02:32:37.595794 28748 net.cpp:261] This network produces output probs
I0924 02:32:37.595820 28748 net.cpp:274] Network initialization done.
I0924 02:32:37.610011 28730 net.cpp:141] Setting up predict
I0924 02:32:37.610060 28730 net.cpp:148] Top shape: 1 1 46168 (46168)
I0924 02:32:37.610066 28730 net.cpp:156] Memory required for data: 221084
I0924 02:32:37.610080 28730 layer_factory.hpp:77] Creating layer probs
I0924 02:32:37.610097 28730 net.cpp:91] Creating Layer probs
I0924 02:32:37.610105 28730 net.cpp:425] probs <- predict
I0924 02:32:37.610115 28730 net.cpp:399] probs -> probs
I0924 02:32:37.610843 28730 net.cpp:141] Setting up probs
I0924 02:32:37.610875 28730 net.cpp:148] Top shape: 1 1 46168 (46168)
I0924 02:32:37.610880 28730 net.cpp:156] Memory required for data: 405756
I0924 02:32:37.610888 28730 net.cpp:219] probs does not need backward computation.
I0924 02:32:37.610893 28730 net.cpp:219] predict does not need backward computation.
I0924 02:32:37.610899 28730 net.cpp:219] lstm2 does not need backward computation.
I0924 02:32:37.610904 28730 net.cpp:219] concat does not need backward computation.
I0924 02:32:37.610911 28730 net.cpp:219] lstm1 does not need backward computation.
I0924 02:32:37.610918 28730 net.cpp:219] embedding does not need backward computation.
I0924 02:32:37.610923 28730 net.cpp:219] reshape_stage_indicator does not need backward computation.
I0924 02:32:37.610927 28730 net.cpp:219] reshape_frames does not need backward computation.
I0924 02:32:37.610931 28730 net.cpp:219] embed_encoder does not need backward computation.
I0924 02:32:37.610936 28730 net.cpp:219] cont_sentence_input_1_split does not need backward computation.
I0924 02:32:37.610942 28730 net.cpp:219] input does not need backward computation.
I0924 02:32:37.610946 28730 net.cpp:261] This network produces output probs
I0924 02:32:37.610960 28730 net.cpp:274] Network initialization done.
I0924 02:32:37.699182 28734 net.cpp:141] Setting up predict
I0924 02:32:37.699231 28734 net.cpp:148] Top shape: 1 1 46168 (46168)
I0924 02:32:37.699239 28734 net.cpp:156] Memory required for data: 221084
I0924 02:32:37.699252 28734 layer_factory.hpp:77] Creating layer probs
I0924 02:32:37.699270 28734 net.cpp:91] Creating Layer probs
I0924 02:32:37.699276 28734 net.cpp:425] probs <- predict
I0924 02:32:37.699286 28734 net.cpp:399] probs -> probs
I0924 02:32:37.699776 28734 net.cpp:141] Setting up probs
I0924 02:32:37.699795 28734 net.cpp:148] Top shape: 1 1 46168 (46168)
I0924 02:32:37.699800 28734 net.cpp:156] Memory required for data: 405756
I0924 02:32:37.699807 28734 net.cpp:219] probs does not need backward computation.
I0924 02:32:37.699812 28734 net.cpp:219] predict does not need backward computation.
I0924 02:32:37.699817 28734 net.cpp:219] lstm2 does not need backward computation.
I0924 02:32:37.699823 28734 net.cpp:219] concat does not need backward computation.
…
W0924 02:34:07.991441 28969 upgrade_proto.cpp:71] Note that future Caffe releases will only support input layers and not input fields.
I0924 02:34:07.991694 28987 net.cpp:49] Initializing net from parameters: 
name: "s2vt:features_to_lstm"
state {
  phase: TEST
}
layer {
  name: "input"
  type: "Input"
  top: "frames_fc7"
  top: "cont_sentence"
  top: "input_sentence"
  top: "stage_indicator"
  input_param {
    shape {
      dim: 1
      dim: 4096
    }
    shape {
      dim: 1
      dim: 1
    }
    shape {
      dim: 1
      dim: 1
    }
    shape {
      dim: 1
      dim: 1
    }
  }
}
layer {
  name: "embed_encoder"
  type: "InnerProduct"
  bottom: "frames_fc7"
  top: "embedded_in_frames"
  param {
    lr_mult: 1
    decay_mult: 1
  }
  param {
    lr_mult: 2
    decay_mult: 0
  }
  inner_product_param {
    num_output: 500
    weight_filler {
      type: "xavier"
    }
    bias_filler {
      type: "constant"
      value: 0.2
    }
  }
}
layer {
  name: "reshape_frames"
  type: "Reshape"
  bottom: "embedded_in_frames"
  top: "embedded_input_frames"
  reshape_param {
    shape {
      dim: 1
      dim: 1
      dim: 500
    }
  }
}
layer {
  name: "reshape_stage_indicator"
  type: "Reshape"
  bottom: "stage_indicator"
  top: "reshaped_stage_indicator"
  reshape_param {
    shape {
      dim: 1
      dim: 1
      dim: 1
    }
  }
}
layer {
  name: "embedding"
  type: "Embed"
  bottom: "input_sentence"
  top: "embedded_input_sentence"
  param {
    lr_mult: 1
  }
  embed_param {
    num_output: 500
    input_dim: 46168
    bias_term: false
    weight_filler {
      type: "uniform"
      min: -0.08
      max: 0.08
    }
  }
}
layer {
  name: "lstm1"
  type: "LSTM"
  bottom: "embedded_input_frames"
  bottom: "cont_sentence"
  top: "lstm1"
  recurrent_param {
    num_output: 1000
    weight_filler {
      type: "uniform"
      min: -0.08
      max: 0.08
    }
    bias_filler {
      type: "constant"
      value: 0
    }
  }
}
layer {
  name: "concat"
  type: "Concat"
  bottom: "lstm1"
  bottom: "embedded_input_sentence"
  bottom: "reshaped_stage_indicator"
  top: "lstm1_video_sequence"
  concat_param {
    concat_dim: 2
  }
}
layer {
  name: "lstm2"
  type: "LSTM"
  bottom: "lstm1_video_sequence"
  bottom: "cont_sentence"
  top: "lstm2"
  recurrent_param {
    num_output: 1000
    weight_filler {
      type: "uniform"
      min: -0.08
      max: 0.08
    }
    bias_filler {
      type: "constant"
      value: 0
    }
  }
}
layer {
  name: "predict"
  type: "InnerProduct"
  bottom: "lstm2"
  top: "predict"
  param {
    lr_mult: 1
    decay_mult: 1
  }
  param {
    lr_mult: 2
    decay_mult: 0
  }
  inner_product_param {
    num_output: 46168
    weight_filler {
      type: "uniform"
      min: -0.08
      max: 0.08
    }
    bias_filler {
      type: "constant"
      value: 0
    }
    axis: 2
  }
}
layer {
  name: "probs"
  type: "Softmax"
  bottom: "predict"
  top: "probs"
  softmax_param {
    axis: 2
  }
}
I0924 02:34:07.991777 28969 net.cpp:49] Initializing net from parameters: 
name: "s2vt:features_to_lstm"
state {
  phase: TEST
}
layer {
  name: "input"
  type: "Input"
  top: "frames_fc7"
  top: "cont_sentence"
  top: "input_sentence"
  top: "stage_indicator"
  input_param {
    shape {
      dim: 1
      dim: 4096
    }
    shape {
      dim: 1
      dim: 1
    }
    shape {
      dim: 1
      dim: 1
    }
    shape {
      dim: 1
      dim: 1
    }
  }
}
layer {
  name: "embed_encoder"
  type: "InnerProduct"
  bottom: "frames_fc7"
  top: "embedded_in_frames"
  param {
    lr_mult: 1
    decay_mult: 1
  }
  param {
    lr_mult: 2
    decay_mult: 0
  }
  inner_product_param {
    num_output: 500
    weight_filler {
      type: "xavier"
    }
    bias_filler {
      type: "constant"
      value: 0.2
    }
  }
}
layer {
  name: "reshape_frames"
  type: "Reshape"
  bottom: "embedded_in_frames"
  top: "embedded_input_frames"
  reshape_param {
    shape {
      dim: 1
      dim: 1
      dim: 500
    }
  }
}
layer {
  name: "reshape_stage_indicator"
  type: "Reshape"
  bottom: "stage_indicator"
  top: "reshaped_stage_indicator"
  reshape_param {
    shape {
      dim: 1
      dim: 1
      dim: 1
    }
  }
}
layer {
  name: "embedding"
  type: "Embed"
  bottom: "input_sentence"
  top: "embedded_input_sentence"
  param {
    lr_mult: 1
  }
  embed_param {
    num_output: 500
    input_dim: 46168
    bias_term: false
    weight_filler {
      type: "uniform"
      min: -0.08
      max: 0.08
    }
  }
}
layer {
  name: "lstm1"
  type: "LSTM"
  bottom: "embedded_input_frames"
  bottom: "cont_sentence"
  top: "lstm1"
  recurrent_param {
    num_output: 1000
    weight_filler {
      type: "uniform"
      min: -0.08
      max: 0.08
    }
    bias_filler {
      type: "constant"
      value: 0
    }
  }
}
layer {
  name: "concat"
  type: "Concat"
  bottom: "lstm1"
  bottom: "embedded_input_sentence"
  bottom: "reshaped_stage_indicator"
  top: "lstm1_video_sequence"
  concat_param {
    concat_dim: 2
  }
}
layer {
  name: "lstm2"
  type: "LSTM"
  bottom: "lstm1_video_sequence"
  bottom: "cont_sentence"
  top: "lstm2"
  recurrent_param {
    num_output: 1000
    weight_filler {
      type: "uniform"
      min: -0.08
      max: 0.08
    }
    bias_filler {
      type: "constant"
      value: 0
    }
  }
}
layer {
  name: "predict"
  type: "InnerProduct"
  bottom: "lstm2"
  top: "predict"
  param {
    lr_mult: 1
    decay_mult: 1
  }
  param {
    lr_mult: 2
    decay_mult: 0
  }
  inner_product_param {
    num_output: 46168
    weight_filler {
      type: "uniform"
      min: -0.08
      max: 0.08
    }
    bias_filler {
      type: "constant"
      value: 0
    }
    axis: 2
  }
}
layer {
  name: "probs"
  type: "Softmax"
  bottom: "predict"
  top: "probs"
  softmax_param {
    axis: 2
  }
}
I0924 02:34:07.991809 28993 net.cpp:49] Initializing net from parameters: 
name: "s2vt:features_to_lstm"
state {
  phase: TEST
}
layer {
  name: "input"
  type: "Input"
  top: "frames_fc7"
  top: "cont_sentence"
  top: "input_sentence"
  top: "stage_indicator"
  input_param {
    shape {
      dim: 1
      dim: 4096
    }
    shape {
      dim: 1
      dim: 1
    }
    shape {
      dim: 1
      dim: 1
    }
    shape {
      dim: 1
      dim: 1
    }
  }
}
layer {
  name: "embed_encoder"
  type: "InnerProduct"
  bottom: "frames_fc7"
  top: "embedded_in_frames"
  param {
    lr_mult: 1
    decay_mult: 1
  }
  param {
    lr_mult: 2
    decay_mult: 0
  }
  inner_product_param {
    num_output: 500
    weight_filler {
      type: "xavier"
    }
    bias_filler {
      type: "constant"
      value: 0.2
    }
  }
}
layer {
  name: "reshape_frames"
  type: "Reshape"
  bottom: "embedded_in_frames"
  top: "embedded_input_frames"
  reshape_param {
    shape {
      dim: 1
      dim: 1
      dim: 500
    }
  }
}
layer {
  name: "reshape_stage_indicator"
  type: "Reshape"
  bottom: "stage_indicator"
  top: "reshaped_stage_indicator"
  reshape_param {
    shape {
      dim: 1
      dim: 1
      dim: 1
    }
  }
}
layer {
  name: "embedding"
  type: "Embed"
  bottom: "input_sentence"
  top: "embedded_input_sentence"
  param {
    lr_mult: 1
  }
  embed_param {
    num_output: 500
    input_dim: 46168
    bias_term: false
    weight_filler {
      type: "uniform"
      min: -0.08
      max: 0.08
    }
  }
}
layer {
  name: "lstm1"
  type: "LSTM"
  bottom: "embedded_input_frames"
  bottom: "cont_sentence"
  top: "lstm1"
  recurrent_param {
    num_output: 1000
    weight_filler {
      type: "uniform"
      min: -0.08
      max: 0.08
    }
    bias_filler {
      type: "constant"
      value: 0
    }
  }
}
layer {
  name: "concat"
  type: "Concat"
  bottom: "lstm1"
  bottom: "embedded_input_sentence"
  bottom: "reshaped_stage_indicator"
  top: "lstm1_video_sequence"
  concat_param {
    concat_dim: 2
  }
}
layer {
  name: "lstm2"
  type: "LSTM"
  bottom: "lstm1_video_sequence"
  bottom: "cont_sentence"
  top: "lstm2"
  recurrent_param {
    num_output: 1000
    weight_filler {
      type: "uniform"
      min: -0.08
      max: 0.08
    }
    bias_filler {
      type: "constant"
      value: 0
    }
  }
}
layer {
  name: "predict"
  type: "InnerProduct"
  bottom: "lstm2"
  top: "predict"
  param {
    lr_mult: 1
    decay_mult: 1
  }
  param {
    lr_mult: 2
    decay_mult: 0
  }
  inner_product_param {
    num_output: 46168
    weight_filler {
      type: "uniform"
      min: -0.08
      max: 0.08
    }
    bias_filler {
      type: "constant"
      value: 0
    }
    axis: 2
  }
}
layer {
  name: "probs"
  type: "Softmax"
  bottom: "predict"
  top: "probs"
  softmax_param {
    axis: 2
  }
}
I0924 02:34:07.991834 28987 layer_factory.hpp:77] Creating layer input
I0924 02:34:07.991863 28987 net.cpp:91] Creating Layer input
I0924 02:34:07.991873 28987 net.cpp:399] input -> frames_fc7
I0924 02:34:07.991909 28987 net.cpp:399] input -> cont_sentence
I0924 02:34:07.991924 28987 net.cpp:399] input -> input_sentence
I0924 02:34:07.991914 28969 layer_factory.hpp:77] Creating layer input
I0924 02:34:07.991914 28995 net.cpp:49] Initializing net from parameters: 
name: "CaffeNet"
state {
  phase: TEST
}
layer {
  name: "data"
  type: "Input"
  top: "data"
  input_param {
    shape {
      dim: 10
      dim: 3
      dim: 227
      dim: 227
    }
  }
}
layer {
  name: "conv1"
  type: "Convolution"
  bottom: "data"
  top: "conv1"
  convolution_param {
    num_output: 96
    kernel_size: 11
    stride: 4
  }
}
layer {
  name: "relu1"
  type: "ReLU"
  bottom: "conv1"
  top: "conv1"
}
layer {
  name: "pool1"
  type: "Pooling"
  bottom: "conv1"
  top: "pool1"
  pooling_param {
    pool: MAX
    kernel_size: 3
    stride: 2
  }
}
layer {
  name: "norm1"
  type: "LRN"
  bottom: "pool1"
  top: "norm1"
  lrn_param {
    local_size: 5
    alpha: 0.0001
    beta: 0.75
  }
}
layer {
  name: "conv2"
  type: "Convolution"
  bottom: "norm1"
  top: "conv2"
  convolution_param {
    num_output: 256
    pad: 2
    kernel_size: 5
    group: 2
  }
}
layer {
  name: "relu2"
  type: "ReLU"
  bottom: "conv2"
  top: "conv2"
}
layer {
  name: "pool2"
  type: "Pooling"
  bottom: "conv2"
  top: "pool2"
  pooling_param {
    pool: MAX
    kernel_size: 3
    stride: 2
  }
}
layer {
  name: "norm2"
  type: "LRN"
  bottom: "pool2"
  top: "norm2"
  lrn_param {
    local_size: 5
    alpha: 0.0001
    beta: 0.75
  }
}
layer {
  name: "conv3"
  type: "Convolution"
  bottom: "norm2"
  top: "conv3"
  convolution_param {
    num_output: 384
    pad: 1
    kernel_size: 3
  }
}
layer {
  name: "relu3"
  type: "ReLU"
  bottom: "conv3"
  top: "conv3"
}
layer {
  name: "conv4"
  type: "Convolution"
  bottom: "conv3"
  top: "conv4"
  convolution_param {
    num_output: 384
    pad: 1
    kernel_size: 3
    group: 2
  }
}
layer {
  name: "relu4"
  type: "ReLU"
  bottom: "conv4"
  top: "conv4"
}
layer {
  name: "conv5"
  type: "Convolution"
  bottom: "conv4"
  top: "conv5"
  convolution_param {
    num_output: 256
    pad: 1
    kernel_size: 3
    group: 2
  }
}
layer {
  name: "relu5"
  type: "ReLU"
  bottom: "conv5"
  top: "conv5"
}
layer {
  name: "pool5"
  type: "Pooling"
  bottom: "conv5"
  top: "pool5"
  pooling_param {
    pool: MAX
    kernel_size: 3
    stride: 2
  }
}
layer {
  name: "fc6"
  type: "InnerProduct"
  bottom: "pool5"
  top: "fc6"
  inner_product_param {
    num_output: 4096
  }
}
layer {
  name: "relu6"
  type: "ReLU"
  bottom: "fc6"
  top: "fc6"
}
layer {
  name: "drop6"
  type: "Dropout"
  bottom: "fc6"
  top: "fc6"
  dropout_param {
    dropout_ratio: 0.5
  }
}
layer {
  name: "fc7"
  type: "InnerProduct"
  bottom: "fc6"
  top: "fc7"
  inner_product_param {
    num_output: 4096
  }
}
layer {
  name: "relu7"
  type: "ReLU"
  bottom: "fc7"
  top: "fc7"
}
layer {
  name: "drop7"
  type: "Dropout"
  bottom: "fc7"
  top: "fc7"
  dropout_param {
    dropout_ratio: 0.5
  }
}
layer {
  name: "fc8"
  type: "InnerProduct"
  bottom: "fc7"
  top: "fc8"
  inner_product_param {
    num_output: 1000
  }
}
layer {
  name: "prob"
  type: "Softmax"
  bottom: "fc8"
  top: "prob"
}
I0924 02:34:07.991933 28987 net.cpp:399] input -> stage_indicator
I0924 02:34:07.991948 28969 net.cpp:91] Creating Layer input
I0924 02:34:07.991962 28969 net.cpp:399] input -> frames_fc7
I0924 02:34:07.991978 28993 layer_factory.hpp:77] Creating layer input
I0924 02:34:07.991983 28969 net.cpp:399] input -> cont_sentence
I0924 02:34:07.992000 28993 net.cpp:91] Creating Layer input
…
W0924 02:34:07.993782 28973 upgrade_proto.cpp:71] Note that future Caffe releases will only support input layers and not input fields.
I0924 02:34:07.993990 28973 net.cpp:49] Initializing net from parameters: 
name: "s2vt:features_to_lstm"
state {
  phase: TEST
}
layer {
  name: "input"
  type: "Input"
  top: "frames_fc7"
  top: "cont_sentence"
  top: "input_sentence"
  top: "stage_indicator"
  input_param {
    shape {
      dim: 1
      dim: 4096
    }
    shape {
      dim: 1
      dim: 1
    }
    shape {
      dim: 1
      dim: 1
    }
    shape {
      dim: 1
      dim: 1
    }
  }
}
layer {
  name: "embed_encoder"
  type: "InnerProduct"
  bottom: "frames_fc7"
  top: "embedded_in_frames"
  param {
    lr_mult: 1
    decay_mult: 1
  }
  param {
    lr_mult: 2
    decay_mult: 0
  }
  inner_product_param {
    num_output: 500
    weight_filler {
      type: "xavier"
    }
    bias_filler {
      type: "constant"
      value: 0.2
    }
  }
}
layer {
  name: "reshape_frames"
  type: "Reshape"
  bottom: "embedded_in_frames"
  top: "embedded_input_frames"
  reshape_param {
    shape {
      dim: 1
      dim: 1
      dim: 500
    }
  }
}
layer {
  name: "reshape_stage_indicator"
  type: "Reshape"
  bottom: "stage_indicator"
  top: "reshaped_stage_indicator"
  reshape_param {
    shape {
      dim: 1
      dim: 1
      dim: 1
    }
  }
}
layer {
  name: "embedding"
  type: "Embed"
  bottom: "input_sentence"
  top: "embedded_input_sentence"
  param {
    lr_mult: 1
  }
  embed_param {
    num_output: 500
    input_dim: 46168
    bias_term: false
    weight_filler {
      type: "uniform"
      min: -0.08
      max: 0.08
    }
  }
}
layer {
  name: "lstm1"
  type: "LSTM"
  bottom: "embedded_input_frames"
  bottom: "cont_sentence"
  top: "lstm1"
  recurrent_param {
    num_output: 1000
    weight_filler {
      type: "uniform"
      min: -0.08
      max: 0.08
    }
    bias_filler {
      type: "constant"
      value: 0
    }
  }
}
layer {
  name: "concat"
  type: "Concat"
  bottom: "lstm1"
  bottom: "embedded_input_sentence"
  bottom: "reshaped_stage_indicator"
  top: "lstm1_video_sequence"
  concat_param {
    concat_dim: 2
  }
}
layer {
  name: "lstm2"
  type: "LSTM"
  bottom: "lstm1_video_sequence"
  bottom: "cont_sentence"
  top: "lstm2"
  recurrent_param {
    num_output: 1000
    weight_filler {
      type: "uniform"
      min: -0.08
      max: 0.08
    }
    bias_filler {
      type: "constant"
      value: 0
    }
  }
}
layer {
  name: "predict"
  type: "InnerProduct"
  bottom: "lstm2"
  top: "predict"
  param {
    lr_mult: 1
    decay_mult: 1
  }
  param {
    lr_mult: 2
    decay_mult: 0
  }
  inner_product_param {
    num_output: 46168
    weight_filler {
      type: "uniform"
      min: -0.08
      max: 0.08
    }
    bias_filler {
      type: "constant"
      value: 0
    }
    axis: 2
  }
}
layer {
  name: "probs"
  type: "Softmax"
  bottom: "predict"
  top: "probs"
  softmax_param {
    axis: 2
  }
}
I0924 02:34:07.994071 28973 layer_factory.hpp:77] Creating layer input
I0924 02:34:07.994082 28973 net.cpp:91] Creating Layer input
I0924 02:34:07.994091 28973 net.cpp:399] input -> frames_fc7
I0924 02:34:07.994102 28973 net.cpp:399] input -> cont_sentence
I0924 02:34:07.994112 28973 net.cpp:399] input -> input_sentence
I0924 02:34:07.994122 28973 net.cpp:399] input -> stage_indicator
I0924 02:34:08.547097 28995 net.cpp:141] Setting up data
I0924 02:34:08.547176 28995 net.cpp:148] Top shape: 10 3 227 227 (1545870)
I0924 02:34:08.547188 28995 net.cpp:156] Memory required for data: 6183480
I0924 02:34:08.547206 28973 net.cpp:141] Setting up input
I0924 02:34:08.547214 28995 layer_factory.hpp:77] Creating layer conv1
I0924 02:34:08.547230 28973 net.cpp:148] Top shape: 1 4096 (4096)
I0924 02:34:08.547241 28973 net.cpp:148] Top shape: 1 1 (1)
I0924 02:34:08.547257 28973 net.cpp:148] Top shape: 1 1 (1)
I0924 02:34:08.547266 28973 net.cpp:148] Top shape: 1 1 (1)
I0924 02:34:08.547266 28995 net.cpp:91] Creating Layer conv1
I0924 02:34:08.547291 28973 net.cpp:156] Memory required for data: 16396
I0924 02:34:08.547300 28973 layer_factory.hpp:77] Creating layer cont_sentence_input_1_split
I0924 02:34:08.547302 28995 net.cpp:425] conv1 <- data
I0924 02:34:08.547327 28995 net.cpp:399] conv1 -> conv1
I0924 02:34:08.547327 28973 net.cpp:91] Creating Layer cont_sentence_input_1_split
I0924 02:34:08.548689 28973 net.cpp:425] cont_sentence_input_1_split <- cont_sentence
I0924 02:34:08.548729 28973 net.cpp:399] cont_sentence_input_1_split -> cont_sentence_input_1_split_0
I0924 02:34:08.548758 28973 net.cpp:399] cont_sentence_input_1_split -> cont_sentence_input_1_split_1
I0924 02:34:08.549105 28993 net.cpp:141] Setting up input
I0924 02:34:08.549127 28993 net.cpp:148] Top shape: 1 4096 (4096)
I0924 02:34:08.549139 28993 net.cpp:148] Top shape: 1 1 (1)
I0924 02:34:08.549146 28993 net.cpp:148] Top shape: 1 1 (1)
I0924 02:34:08.549155 28993 net.cpp:148] Top shape: 1 1 (1)
I0924 02:34:08.549161 28993 net.cpp:156] Memory required for data: 16396
…
I0924 02:34:09.043927 28993 net.cpp:425] lstm2_transform_1 <- h_conted_0
I0924 02:34:09.043946 28993 net.cpp:399] lstm2_transform_1 -> W_hc_h_0
I0924 02:34:09.054028 28969 net.cpp:141] Setting up lstm1_unit_1
I0924 02:34:09.054082 28969 net.cpp:148] Top shape: 1 1 1000 (1000)
I0924 02:34:09.054090 28969 net.cpp:148] Top shape: 1 1 1000 (1000)
I0924 02:34:09.054095 28969 net.cpp:156] Memory required for data: 86016
I0924 02:34:09.054105 28969 layer_factory.hpp:77] Creating layer lstm1_
I0924 02:34:09.054126 28969 net.cpp:91] Creating Layer lstm1_
I0924 02:34:09.054136 28969 net.cpp:425] lstm1_ <- c_1
I0924 02:34:09.054158 28969 net.cpp:399] lstm1_ -> c_T
I0924 02:34:09.056020 28969 net.cpp:141] Setting up lstm1_
I0924 02:34:09.056041 28969 net.cpp:148] Top shape: 1 1 1000 (1000)
I0924 02:34:09.056046 28969 net.cpp:156] Memory required for data: 90016
I0924 02:34:09.056052 28969 layer_factory.hpp:77] Creating layer lstm1_h_concat
I0924 02:34:09.056063 28969 net.cpp:91] Creating Layer lstm1_h_concat
I0924 02:34:09.056069 28969 net.cpp:425] lstm1_h_concat <- h_1
I0924 02:34:09.056078 28969 net.cpp:399] lstm1_h_concat -> h
I0924 02:34:09.056358 28969 net.cpp:141] Setting up lstm1_h_concat
I0924 02:34:09.056370 28969 net.cpp:148] Top shape: 1 1 1000 (1000)
I0924 02:34:09.056375 28969 net.cpp:156] Memory required for data: 94016
I0924 02:34:09.056380 28969 layer_factory.hpp:77] Creating layer h_pseudoloss
I0924 02:34:09.056390 28969 net.cpp:91] Creating Layer h_pseudoloss
I0924 02:34:09.056394 28969 net.cpp:425] h_pseudoloss <- h
I0924 02:34:09.056401 28969 net.cpp:399] h_pseudoloss -> h_pseudoloss
I0924 02:34:09.056558 28969 net.cpp:141] Setting up h_pseudoloss
…
I0924 02:34:09.056665 28969 net.cpp:219] lstm1_ does not need backward computation.
I0924 02:34:09.056669 28969 net.cpp:261] This network produces output c_T
I0924 02:34:09.056674 28969 net.cpp:261] This network produces output h_pseudoloss
I0924 02:34:09.056689 28969 net.cpp:274] Network initialization done.
I0924 02:34:09.056736 28969 recurrent_layer.cpp:150] Adding parameter 0: W_xc
I0924 02:34:09.056742 28969 recurrent_layer.cpp:150] Adding parameter 1: b_c
I0924 02:34:09.056747 28969 recurrent_layer.cpp:150] Adding parameter 2: W_hc
I0924 02:34:09.057242 28969 net.cpp:141] Setting up lstm1
I0924 02:34:09.057255 28969 net.cpp:148] Top shape: 1 1 1000 (1000)
I0924 02:34:09.057260 28969 net.cpp:156] Memory required for data: 26408
I0924 02:34:09.057274 28969 layer_factory.hpp:77] Creating layer concat
I0924 02:34:09.057283 28969 net.cpp:91] Creating Layer concat
I0924 02:34:09.057289 28969 net.cpp:425] concat <- lstm1
I0924 02:34:09.057296 28969 net.cpp:425] concat <- embedded_input_sentence
I0924 02:34:09.057302 28969 net.cpp:425] concat <- reshaped_stage_indicator
I0924 02:34:09.057309 28969 net.cpp:399] concat -> lstm1_video_sequence
I0924 02:34:09.057371 28969 net.cpp:141] Setting up concat
I0924 02:34:09.057384 28969 net.cpp:148] Top shape: 1 1 1501 (1501)
I0924 02:34:09.057387 28969 net.cpp:156] Memory required for data: 32412
I0924 02:34:09.057392 28969 layer_factory.hpp:77] Creating layer lstm2
I0924 02:34:09.057405 28969 net.cpp:91] Creating Layer lstm2
I0924 02:34:09.057410 28969 net.cpp:425] lstm2 <- lstm1_video_sequence
I0924 02:34:09.057417 28969 net.cpp:425] lstm2 <- cont_sentence_input_1_split_1
I0924 02:34:09.057425 28969 net.cpp:399] lstm2 -> lstm2
I0924 02:34:09.057435 28969 recurrent_layer.cpp:20] Initializing recurrent layer: assuming input batch contains 1 timesteps of 1 independent streams.
I0924 02:34:09.057678 28969 net.cpp:49] Initializing net from parameters: 
layer {
  name: "lstm2_"
  type: "Input"
  top: "x"
  top: "cont"
  input_param {
    shape {
      dim: 1
      dim: 1
      dim: 1501
    }
    shape {
      dim: 1
      dim: 1
    }
  }
}
layer {
  name: "lstm2_"
  type: "Input"
  top: "c_0"
  top: "h_0"
  input_param {
    shape {
      dim: 1
      dim: 1
      dim: 1000
    }
    shape {
      dim: 1
      dim: 1
      dim: 1000
    }
  }
}
layer {
  name: "lstm2_cont_slice"
  type: "Slice"
  bottom: "cont"
  top: "cont_1"
  slice_param {
    axis: 0
  }
}
layer {
  name: "lstm2_x_transform"
  type: "InnerProduct"
  bottom: "x"
  top: "W_xc_x"
  param {
    name: "W_xc"
  }
  param {
    name: "b_c"
  }
  propagate_down: true
  inner_product_param {
    num_output: 4000
    bias_term: true
    weight_filler {
      type: "uniform"
      min: -0.08
      max: 0.08
    }
    bias_filler {
      type: "constant"
      value: 0
    }
    axis: 2
  }
}
layer {
  name: "lstm2_W_xc_x_slice"
  type: "Slice"
  bottom: "W_xc_x"
  top: "W_xc_x_1"
  slice_param {
    axis: 0
  }
}
layer {
  name: "lstm2_h_conted_0"
  type: "Scale"
  bottom: "h_0"
  bottom: "cont_1"
  top: "h_conted_0"
  scale_param {
    axis: 0
  }
}
layer {
  name: "lstm2_transform_1"
  type: "InnerProduct"
  bottom: "h_conted_0"
  top: "W_hc_h_0"
  param {
    name: "W_hc"
  }
  inner_product_param {
    num_output: 4000
    bias_term: false
    weight_filler {
      type: "uniform"
      min: -0.08
      max: 0.08
    }
    axis: 2
  }
}
layer {
  name: "lstm2_gate_input_1"
  type: "Eltwise"
  bottom: "W_hc_h_0"
  bottom: "W_xc_x_1"
  top: "gate_input_1"
  eltwise_param {
    operation: SUM
  }
}
layer {
  name: "lstm2_unit_1"
  type: "LSTMUnit"
  bottom: "c_0"
  bottom: "gate_input_1"
  bottom: "cont_1"
  top: "c_1"
  top: "h_1"
}
layer {
  name: "lstm2_"
  type: "Split"
  bottom: "c_1"
  top: "c_T"
}
layer {
  name: "lstm2_h_concat"
  type: "Concat"
  bottom: "h_1"
  top: "h"
  concat_param {
    axis: 0
  }
}
layer {
  name: "h_pseudoloss"
  type: "Reduction"
  bottom: "h"
  top: "h_pseudoloss"
  loss_weight: 1
}
I0924 02:34:09.057765 28969 layer_factory.hpp:77] Creating layer lstm2_
I0924 02:34:09.057777 28969 net.cpp:91] Creating Layer lstm2_
I0924 02:34:09.057783 28969 net.cpp:399] lstm2_ -> x
I0924 02:34:09.057795 28969 net.cpp:399] lstm2_ -> cont
I0924 02:34:09.057989 28995 net.cpp:141] Setting up conv1
I0924 02:34:09.058008 28995 net.cpp:148] Top shape: 10 96 55 55 (2904000)
I0924 02:34:09.058014 28995 net.cpp:156] Memory required for data: 17799480
I0924 02:34:09.058028 28995 layer_factory.hpp:77] Creating layer relu1
I0924 02:34:09.058034 28969 net.cpp:141] Setting up lstm2_
I0924 02:34:09.058039 28995 net.cpp:91] Creating Layer relu1
I0924 02:34:09.058045 28969 net.cpp:148] Top shape: 1 1 1501 (1501)
I0924 02:34:09.058046 28995 net.cpp:425] relu1 <- conv1
I0924 02:34:09.058060 28969 net.cpp:148] Top shape: 1 1 (1)
I0924 02:34:09.058064 28969 net.cpp:156] Memory required for data: 6008
I0924 02:34:09.058066 28995 net.cpp:386] relu1 -> conv1 (in-place)
I0924 02:34:09.058070 28969 layer_factory.hpp:77] Creating layer lstm2_
I0924 02:34:09.058084 28969 net.cpp:91] Creating Layer lstm2_
I0924 02:34:09.058095 28969 net.cpp:399] lstm2_ -> c_0
I0924 02:34:09.058114 28969 net.cpp:399] lstm2_ -> h_0
I0924 02:34:09.058459 28969 net.cpp:141] Setting up lstm2_
I0924 02:34:09.058471 28969 net.cpp:148] Top shape: 1 1 1000 (1000)
I0924 02:34:09.058477 28969 net.cpp:148] Top shape: 1 1 1000 (1000)
I0924 02:34:09.058481 28969 net.cpp:156] Memory required for data: 14008
I0924 02:34:09.058485 28969 layer_factory.hpp:77] Creating layer lstm2_cont_slice
I0924 02:34:09.058495 28969 net.cpp:91] Creating Layer lstm2_cont_slice
I0924 02:34:09.058500 28969 net.cpp:425] lstm2_cont_slice <- cont
I0924 02:34:09.058507 28969 net.cpp:399] lstm2_cont_slice -> cont_1
I0924 02:34:09.058568 28969 net.cpp:141] Setting up lstm2_cont_slice
I0924 02:34:09.058578 28969 net.cpp:148] Top shape: 1 1 (1)
I0924 02:34:09.058578 28995 net.cpp:141] Setting up relu1
I0924 02:34:09.058583 28969 net.cpp:156] Memory required for data: 14012
I0924 02:34:09.058606 28995 net.cpp:148] Top shape: 10 96 55 55 (2904000)
I0924 02:34:09.058607 28969 layer_factory.hpp:77] Creating layer cont_1_lstm2_cont_slice_0_split
I0924 02:34:09.058616 28995 net.cpp:156] Memory required for data: 29415480
I0924 02:34:09.058622 28995 layer_factory.hpp:77] Creating layer pool1
I0924 02:34:09.058622 28969 net.cpp:91] Creating Layer cont_1_lstm2_cont_slice_0_split
I0924 02:34:09.058634 28969 net.cpp:425] cont_1_lstm2_cont_slice_0_split <- cont_1
I0924 02:34:09.058639 28995 net.cpp:91] Creating Layer pool1
I0924 02:34:09.058643 28995 net.cpp:425] pool1 <- conv1
I0924 02:34:09.058647 28969 net.cpp:399] cont_1_lstm2_cont_slice_0_split -> cont_1_lstm2_cont_slice_0_split_0
I0924 02:34:09.058652 28995 net.cpp:399] pool1 -> pool1
I0924 02:34:09.058657 28969 net.cpp:399] cont_1_lstm2_cont_slice_0_split -> cont_1_lstm2_cont_slice_0_split_1
I0924 02:34:09.058714 28969 net.cpp:141] Setting up cont_1_lstm2_cont_slice_0_split
I0924 02:34:09.058724 28969 net.cpp:148] Top shape: 1 1 (1)
I0924 02:34:09.058732 28969 net.cpp:148] Top shape: 1 1 (1)
I0924 02:34:09.058737 28969 net.cpp:156] Memory required for data: 14020
I0924 02:34:09.058742 28969 layer_factory.hpp:77] Creating layer lstm2_x_transform
I0924 02:34:09.058751 28969 net.cpp:91] Creating Layer lstm2_x_transform
I0924 02:34:09.058756 28969 net.cpp:425] lstm2_x_transform <- x
I0924 02:34:09.058768 28969 net.cpp:399] lstm2_x_transform -> W_xc_x
I0924 02:34:09.058768 28995 net.cpp:141] Setting up pool1
I0924 02:34:09.058781 28995 net.cpp:148] Top shape: 10 96 27 27 (699840)
I0924 02:34:09.058786 28995 net.cpp:156] Memory required for data: 32214840
I0924 02:34:09.058791 28995 layer_factory.hpp:77] Creating layer norm1
I0924 02:34:09.058809 28995 net.cpp:91] Creating Layer norm1
I0924 02:34:09.058814 28995 net.cpp:425] norm1 <- pool1
I0924 02:34:09.058821 28995 net.cpp:399] norm1 -> norm1
I0924 02:34:09.071162 28973 net.cpp:141] Setting up lstm1_transform_1
I0924 02:34:09.071208 28973 net.cpp:148] Top shape: 1 1 4000 (4000)
I0924 02:34:09.071214 28973 net.cpp:156] Memory required for data: 62016
I0924 02:34:09.071234 28973 layer_factory.hpp:77] Creating layer lstm1_gate_input_1
I0924 02:34:09.071252 28973 net.cpp:91] Creating Layer lstm1_gate_input_1
I0924 02:34:09.071259 28973 net.cpp:425] lstm1_gate_input_1 <- W_hc_h_0
I0924 02:34:09.071267 28973 net.cpp:425] lstm1_gate_input_1 <- W_xc_x_1
I0924 02:34:09.071275 28973 net.cpp:399] lstm1_gate_input_1 -> gate_input_1
I0924 02:34:09.071386 28995 net.cpp:141] Setting up norm1
I0924 02:34:09.071405 28995 net.cpp:148] Top shape: 10 96 27 27 (699840)
I0924 02:34:09.071411 28995 net.cpp:156] Memory required for data: 35014200
I0924 02:34:09.071413 28973 net.cpp:141] Setting up lstm1_gate_input_1
I0924 02:34:09.071418 28995 layer_factory.hpp:77] Creating layer conv2
I0924 02:34:09.071431 28973 net.cpp:148] Top shape: 1 1 4000 (4000)
I0924 02:34:09.071436 28973 net.cpp:156] Memory required for data: 78016
I0924 02:34:09.071441 28973 layer_factory.hpp:77] Creating layer lstm1_unit_1
I0924 02:34:09.071445 28995 net.cpp:91] Creating Layer conv2
I0924 02:34:09.071452 28995 net.cpp:425] conv2 <- norm1
I0924 02:34:09.071454 28973 net.cpp:91] Creating Layer lstm1_unit_1
I0924 02:34:09.071465 28973 net.cpp:425] lstm1_unit_1 <- c_0
I0924 02:34:09.071466 28995 net.cpp:399] conv2 -> conv2
I0924 02:34:09.071472 28973 net.cpp:425] lstm1_unit_1 <- gate_input_1
I0924 02:34:09.071478 28973 net.cpp:425] lstm1_unit_1 <- cont_1_lstm1_cont_slice_0_split_1
I0924 02:34:09.071485 28973 net.cpp:399] lstm1_unit_1 -> c_1
I0924 02:34:09.071494 28973 net.cpp:399] lstm1_unit_1 -> h_1
I0924 02:34:09.071576 28973 net.cpp:141] Setting up lstm1_unit_1
I0924 02:34:09.071588 28973 net.cpp:148] Top shape: 1 1 1000 (1000)
I0924 02:34:09.071594 28973 net.cpp:148] Top shape: 1 1 1000 (1000)
I0924 02:34:09.071599 28973 net.cpp:156] Memory required for data: 86016
I0924 02:34:09.071604 28973 layer_factory.hpp:77] Creating layer lstm1_
I0924 02:34:09.071611 28973 net.cpp:91] Creating Layer lstm1_
I0924 02:34:09.071616 28973 net.cpp:425] lstm1_ <- c_1
I0924 02:34:09.071624 28973 net.cpp:399] lstm1_ -> c_T
I0924 02:34:09.071727 28973 net.cpp:141] Setting up lstm1_
I0924 02:34:09.071738 28973 net.cpp:148] Top shape: 1 1 1000 (1000)
I0924 02:34:09.071741 28973 net.cpp:156] Memory required for data: 90016
I0924 02:34:09.071746 28973 layer_factory.hpp:77] Creating layer lstm1_h_concat
I0924 02:34:09.071758 28973 net.cpp:91] Creating Layer lstm1_h_concat
I0924 02:34:09.071763 28973 net.cpp:425] lstm1_h_concat <- h_1
I0924 02:34:09.071771 28973 net.cpp:399] lstm1_h_concat -> h
I0924 02:34:09.072664 28973 net.cpp:141] Setting up lstm1_h_concat
I0924 02:34:09.072679 28973 net.cpp:148] Top shape: 1 1 1000 (1000)
I0924 02:34:09.072685 28973 net.cpp:156] Memory required for data: 94016
I0924 02:34:09.072690 28973 layer_factory.hpp:77] Creating layer h_pseudoloss
I0924 02:34:09.072700 28973 net.cpp:91] Creating Layer h_pseudoloss
I0924 02:34:09.072705 28973 net.cpp:425] h_pseudoloss <- h
I0924 02:34:09.072715 28973 net.cpp:399] h_pseudoloss -> h_pseudoloss
I0924 02:34:09.072859 28973 net.cpp:141] Setting up h_pseudoloss
…
I0924 02:34:09.072967 28973 net.cpp:219] lstm1_ does not need backward computation.
I0924 02:34:09.072969 28973 net.cpp:261] This network produces output c_T
I0924 02:34:09.072974 28973 net.cpp:261] This network produces output h_pseudoloss
I0924 02:34:09.072993 28973 net.cpp:274] Network initialization done.
I0924 02:34:09.073041 28973 recurrent_layer.cpp:150] Adding parameter 0: W_xc
I0924 02:34:09.073047 28973 recurrent_layer.cpp:150] Adding parameter 1: b_c
I0924 02:34:09.073051 28973 recurrent_layer.cpp:150] Adding parameter 2: W_hc
I0924 02:34:09.073249 28973 net.cpp:141] Setting up lstm1
I0924 02:34:09.073261 28973 net.cpp:148] Top shape: 1 1 1000 (1000)
I0924 02:34:09.073266 28973 net.cpp:156] Memory required for data: 26408
I0924 02:34:09.073279 28973 layer_factory.hpp:77] Creating layer concat
I0924 02:34:09.073289 28973 net.cpp:91] Creating Layer concat
I0924 02:34:09.073295 28973 net.cpp:425] concat <- lstm1
I0924 02:34:09.073302 28973 net.cpp:425] concat <- embedded_input_sentence
I0924 02:34:09.073308 28973 net.cpp:425] concat <- reshaped_stage_indicator
I0924 02:34:09.073315 28973 net.cpp:399] concat -> lstm1_video_sequence
I0924 02:34:09.073467 28973 net.cpp:141] Setting up concat
I0924 02:34:09.073477 28973 net.cpp:148] Top shape: 1 1 1501 (1501)
I0924 02:34:09.073482 28973 net.cpp:156] Memory required for data: 32412
I0924 02:34:09.073487 28973 layer_factory.hpp:77] Creating layer lstm2
I0924 02:34:09.073498 28973 net.cpp:91] Creating Layer lstm2
I0924 02:34:09.073504 28973 net.cpp:425] lstm2 <- lstm1_video_sequence
I0924 02:34:09.073513 28973 net.cpp:425] lstm2 <- cont_sentence_input_1_split_1
I0924 02:34:09.073526 28973 net.cpp:399] lstm2 -> lstm2
I0924 02:34:09.073542 28973 recurrent_layer.cpp:20] Initializing recurrent layer: assuming input batch contains 1 timesteps of 1 independent streams.
I0924 02:34:09.073830 28973 net.cpp:49] Initializing net from parameters: 
layer {
  name: "lstm2_"
  type: "Input"
  top: "x"
  top: "cont"
  input_param {
    shape {
      dim: 1
      dim: 1
      dim: 1501
    }
    shape {
      dim: 1
      dim: 1
    }
  }
}
layer {
  name: "lstm2_"
  type: "Input"
  top: "c_0"
  top: "h_0"
  input_param {
    shape {
      dim: 1
      dim: 1
      dim: 1000
    }
    shape {
      dim: 1
      dim: 1
      dim: 1000
    }
  }
}
layer {
  name: "lstm2_cont_slice"
  type: "Slice"
  bottom: "cont"
  top: "cont_1"
  slice_param {
    axis: 0
  }
}
layer {
  name: "lstm2_x_transform"
  type: "InnerProduct"
  bottom: "x"
  top: "W_xc_x"
  param {
    name: "W_xc"
  }
  param {
    name: "b_c"
  }
  propagate_down: true
  inner_product_param {
    num_output: 4000
    bias_term: true
    weight_filler {
      type: "uniform"
      min: -0.08
      max: 0.08
    }
    bias_filler {
      type: "constant"
      value: 0
    }
    axis: 2
  }
}
layer {
  name: "lstm2_W_xc_x_slice"
  type: "Slice"
  bottom: "W_xc_x"
  top: "W_xc_x_1"
  slice_param {
    axis: 0
  }
}
layer {
  name: "lstm2_h_conted_0"
  type: "Scale"
  bottom: "h_0"
  bottom: "cont_1"
  top: "h_conted_0"
  scale_param {
    axis: 0
  }
}
layer {
  name: "lstm2_transform_1"
  type: "InnerProduct"
  bottom: "h_conted_0"
  top: "W_hc_h_0"
  param {
    name: "W_hc"
  }
  inner_product_param {
    num_output: 4000
    bias_term: false
    weight_filler {
      type: "uniform"
      min: -0.08
      max: 0.08
    }
    axis: 2
  }
}
layer {
  name: "lstm2_gate_input_1"
  type: "Eltwise"
  bottom: "W_hc_h_0"
  bottom: "W_xc_x_1"
  top: "gate_input_1"
  eltwise_param {
    operation: SUM
  }
}
layer {
  name: "lstm2_unit_1"
  type: "LSTMUnit"
  bottom: "c_0"
  bottom: "gate_input_1"
  bottom: "cont_1"
  top: "c_1"
  top: "h_1"
}
layer {
  name: "lstm2_"
  type: "Split"
  bottom: "c_1"
  top: "c_T"
}
layer {
  name: "lstm2_h_concat"
  type: "Concat"
  bottom: "h_1"
  top: "h"
  concat_param {
    axis: 0
  }
}
layer {
  name: "h_pseudoloss"
  type: "Reduction"
  bottom: "h"
  top: "h_pseudoloss"
  loss_weight: 1
}
I0924 02:34:09.073926 28973 layer_factory.hpp:77] Creating layer lstm2_
I0924 02:34:09.073938 28973 net.cpp:91] Creating Layer lstm2_
I0924 02:34:09.073945 28973 net.cpp:399] lstm2_ -> x
I0924 02:34:09.073956 28973 net.cpp:399] lstm2_ -> cont
I0924 02:34:09.074404 28973 net.cpp:141] Setting up lstm2_
I0924 02:34:09.074414 28973 net.cpp:148] Top shape: 1 1 1501 (1501)
I0924 02:34:09.074420 28973 net.cpp:148] Top shape: 1 1 (1)
I0924 02:34:09.074424 28973 net.cpp:156] Memory required for data: 6008
I0924 02:34:09.074429 28973 layer_factory.hpp:77] Creating layer lstm2_
I0924 02:34:09.074439 28973 net.cpp:91] Creating Layer lstm2_
I0924 02:34:09.074445 28973 net.cpp:399] lstm2_ -> c_0
I0924 02:34:09.074455 28973 net.cpp:399] lstm2_ -> h_0
I0924 02:34:09.074517 28973 net.cpp:141] Setting up lstm2_
I0924 02:34:09.074527 28973 net.cpp:148] Top shape: 1 1 1000 (1000)
I0924 02:34:09.074532 28973 net.cpp:148] Top shape: 1 1 1000 (1000)
I0924 02:34:09.074537 28973 net.cpp:156] Memory required for data: 14008
I0924 02:34:09.074540 28973 layer_factory.hpp:77] Creating layer lstm2_cont_slice
I0924 02:34:09.074549 28973 net.cpp:91] Creating Layer lstm2_cont_slice
I0924 02:34:09.074554 28973 net.cpp:425] lstm2_cont_slice <- cont
I0924 02:34:09.074561 28973 net.cpp:399] lstm2_cont_slice -> cont_1
I0924 02:34:09.074628 28987 net.cpp:141] Setting up lstm2_x_transform
I0924 02:34:09.074646 28987 net.cpp:148] Top shape: 1 1 4000 (4000)
I0924 02:34:09.074651 28987 net.cpp:156] Memory required for data: 30020
I0924 02:34:09.074653 28973 net.cpp:141] Setting up lstm2_cont_slice
I0924 02:34:09.074666 28987 layer_factory.hpp:77] Creating layer lstm2_W_xc_x_slice
I0924 02:34:09.074666 28973 net.cpp:148] Top shape: 1 1 (1)
I0924 02:34:09.074678 28973 net.cpp:156] Memory required for data: 14012
I0924 02:34:09.074679 28987 net.cpp:91] Creating Layer lstm2_W_xc_x_slice
I0924 02:34:09.074683 28973 layer_factory.hpp:77] Creating layer cont_1_lstm2_cont_slice_0_split
I0924 02:34:09.074686 28987 net.cpp:425] lstm2_W_xc_x_slice <- W_xc_x
I0924 02:34:09.074698 28973 net.cpp:91] Creating Layer cont_1_lstm2_cont_slice_0_split
I0924 02:34:09.074702 28987 net.cpp:399] lstm2_W_xc_x_slice -> W_xc_x_1
I0924 02:34:09.074703 28973 net.cpp:425] cont_1_lstm2_cont_slice_0_split <- cont_1
I0924 02:34:09.074717 28973 net.cpp:399] cont_1_lstm2_cont_slice_0_split -> cont_1_lstm2_cont_slice_0_split_0
I0924 02:34:09.074725 28973 net.cpp:399] cont_1_lstm2_cont_slice_0_split -> cont_1_lstm2_cont_slice_0_split_1
I0924 02:34:09.074787 28987 net.cpp:141] Setting up lstm2_W_xc_x_slice
I0924 02:34:09.074800 28987 net.cpp:148] Top shape: 1 1 4000 (4000)
I0924 02:34:09.074805 28987 net.cpp:156] Memory required for data: 46020
I0924 02:34:09.074810 28987 layer_factory.hpp:77] Creating layer lstm2_h_conted_0
I0924 02:34:09.074826 28987 net.cpp:91] Creating Layer lstm2_h_conted_0
I0924 02:34:09.074831 28987 net.cpp:425] lstm2_h_conted_0 <- h_0
I0924 02:34:09.074838 28987 net.cpp:425] lstm2_h_conted_0 <- cont_1_lstm2_cont_slice_0_split_0
I0924 02:34:09.074841 28973 net.cpp:141] Setting up cont_1_lstm2_cont_slice_0_split
I0924 02:34:09.074846 28987 net.cpp:399] lstm2_h_conted_0 -> h_conted_0
I0924 02:34:09.074851 28973 net.cpp:148] Top shape: 1 1 (1)
I0924 02:34:09.074856 28973 net.cpp:148] Top shape: 1 1 (1)
I0924 02:34:09.074861 28973 net.cpp:156] Memory required for data: 14020
I0924 02:34:09.074865 28973 layer_factory.hpp:77] Creating layer lstm2_x_transform
I0924 02:34:09.074875 28973 net.cpp:91] Creating Layer lstm2_x_transform
I0924 02:34:09.074880 28973 net.cpp:425] lstm2_x_transform <- x
I0924 02:34:09.074890 28973 net.cpp:399] lstm2_x_transform -> W_xc_x
I0924 02:34:09.090067 28987 net.cpp:141] Setting up lstm2_h_conted_0
I0924 02:34:09.090114 28987 net.cpp:148] Top shape: 1 1 1000 (1000)
I0924 02:34:09.090123 28987 net.cpp:156] Memory required for data: 50020
I0924 02:34:09.090136 28987 layer_factory.hpp:77] Creating layer lstm2_transform_1
I0924 02:34:09.090160 28987 net.cpp:91] Creating Layer lstm2_transform_1
I0924 02:34:09.090172 28987 net.cpp:425] lstm2_transform_1 <- h_conted_0
I0924 02:34:09.090188 28987 net.cpp:399] lstm2_transform_1 -> W_hc_h_0
I0924 02:34:09.091984 28995 net.cpp:141] Setting up conv2
I0924 02:34:09.092027 28995 net.cpp:148] Top shape: 10 256 27 27 (1866240)
I0924 02:34:09.092036 28995 net.cpp:156] Memory required for data: 42479160
I0924 02:34:09.092061 28995 layer_factory.hpp:77] Creating layer relu2
I0924 02:34:09.092082 28995 net.cpp:91] Creating Layer relu2
I0924 02:34:09.092092 28995 net.cpp:425] relu2 <- conv2
I0924 02:34:09.092103 28995 net.cpp:386] relu2 -> conv2 (in-place)
I0924 02:34:09.092700 28995 net.cpp:141] Setting up relu2
I0924 02:34:09.092717 28995 net.cpp:148] Top shape: 10 256 27 27 (1866240)
I0924 02:34:09.092725 28995 net.cpp:156] Memory required for data: 49944120
I0924 02:34:09.092733 28995 layer_factory.hpp:77] Creating layer pool2
I0924 02:34:09.092748 28995 net.cpp:91] Creating Layer pool2
I0924 02:34:09.092756 28995 net.cpp:425] pool2 <- conv2
I0924 02:34:09.092772 28995 net.cpp:399] pool2 -> pool2
I0924 02:34:09.092860 28995 net.cpp:141] Setting up pool2
I0924 02:34:09.092875 28995 net.cpp:148] Top shape: 10 256 13 13 (432640)
I0924 02:34:09.092883 28995 net.cpp:156] Memory required for data: 51674680
I0924 02:34:09.092891 28995 layer_factory.hpp:77] Creating layer norm2
I0924 02:34:09.092917 28995 net.cpp:91] Creating Layer norm2
I0924 02:34:09.092926 28995 net.cpp:425] norm2 <- pool2
I0924 02:34:09.092938 28995 net.cpp:399] norm2 -> norm2
I0924 02:34:09.093329 28995 net.cpp:141] Setting up norm2
I0924 02:34:09.093345 28995 net.cpp:148] Top shape: 10 256 13 13 (432640)
I0924 02:34:09.093353 28995 net.cpp:156] Memory required for data: 53405240
I0924 02:34:09.093361 28995 layer_factory.hpp:77] Creating layer conv3
I0924 02:34:09.093382 28995 net.cpp:91] Creating Layer conv3
I0924 02:34:09.093391 28995 net.cpp:425] conv3 <- norm2
I0924 02:34:09.093405 28995 net.cpp:399] conv3 -> conv3
I0924 02:34:09.104730 28993 net.cpp:141] Setting up lstm2_transform_1
I0924 02:34:09.104784 28993 net.cpp:148] Top shape: 1 1 4000 (4000)
I0924 02:34:09.104794 28993 net.cpp:156] Memory required for data: 66020
I0924 02:34:09.104825 28993 layer_factory.hpp:77] Creating layer lstm2_gate_input_1
I0924 02:34:09.104853 28993 net.cpp:91] Creating Layer lstm2_gate_input_1
I0924 02:34:09.104866 28993 net.cpp:425] lstm2_gate_input_1 <- W_hc_h_0
I0924 02:34:09.104878 28993 net.cpp:425] lstm2_gate_input_1 <- W_xc_x_1
I0924 02:34:09.104895 28993 net.cpp:399] lstm2_gate_input_1 -> gate_input_1
I0924 02:34:09.105103 28993 net.cpp:141] Setting up lstm2_gate_input_1
I0924 02:34:09.105120 28993 net.cpp:148] Top shape: 1 1 4000 (4000)
I0924 02:34:09.105129 28993 net.cpp:156] Memory required for data: 82020
I0924 02:34:09.105136 28993 layer_factory.hpp:77] Creating layer lstm2_unit_1
I0924 02:34:09.105151 28993 net.cpp:91] Creating Layer lstm2_unit_1
I0924 02:34:09.105160 28993 net.cpp:425] lstm2_unit_1 <- c_0
I0924 02:34:09.105170 28993 net.cpp:425] lstm2_unit_1 <- gate_input_1
I0924 02:34:09.105180 28993 net.cpp:425] lstm2_unit_1 <- cont_1_lstm2_cont_slice_0_split_1
I0924 02:34:09.105191 28993 net.cpp:399] lstm2_unit_1 -> c_1
I0924 02:34:09.105209 28993 net.cpp:399] lstm2_unit_1 -> h_1
I0924 02:34:09.106035 28993 net.cpp:141] Setting up lstm2_unit_1
I0924 02:34:09.106052 28993 net.cpp:148] Top shape: 1 1 1000 (1000)
I0924 02:34:09.106063 28993 net.cpp:148] Top shape: 1 1 1000 (1000)
I0924 02:34:09.106070 28993 net.cpp:156] Memory required for data: 90020
I0924 02:34:09.106078 28993 layer_factory.hpp:77] Creating layer lstm2_
I0924 02:34:09.106093 28993 net.cpp:91] Creating Layer lstm2_
I0924 02:34:09.106101 28993 net.cpp:425] lstm2_ <- c_1
I0924 02:34:09.106112 28993 net.cpp:399] lstm2_ -> c_T
I0924 02:34:09.106305 28993 net.cpp:141] Setting up lstm2_
I0924 02:34:09.106325 28993 net.cpp:148] Top shape: 1 1 1000 (1000)
I0924 02:34:09.106333 28993 net.cpp:156] Memory required for data: 94020
I0924 02:34:09.106343 28993 layer_factory.hpp:77] Creating layer lstm2_h_concat
I0924 02:34:09.106359 28993 net.cpp:91] Creating Layer lstm2_h_concat
I0924 02:34:09.106366 28993 net.cpp:425] lstm2_h_concat <- h_1
I0924 02:34:09.106381 28993 net.cpp:399] lstm2_h_concat -> h
I0924 02:34:09.106446 28993 net.cpp:141] Setting up lstm2_h_concat
I0924 02:34:09.106461 28993 net.cpp:148] Top shape: 1 1 1000 (1000)
I0924 02:34:09.106468 28993 net.cpp:156] Memory required for data: 98020
I0924 02:34:09.106477 28993 layer_factory.hpp:77] Creating layer h_pseudoloss
I0924 02:34:09.106494 28993 net.cpp:91] Creating Layer h_pseudoloss
I0924 02:34:09.106503 28993 net.cpp:425] h_pseudoloss <- h
I0924 02:34:09.106515 28993 net.cpp:399] h_pseudoloss -> h_pseudoloss
I0924 02:34:09.106698 28993 net.cpp:141] Setting up h_pseudoloss
…
I0924 02:34:09.106853 28993 net.cpp:219] lstm2_ does not need backward computation.
I0924 02:34:09.106859 28993 net.cpp:261] This network produces output c_T
I0924 02:34:09.106868 28993 net.cpp:261] This network produces output h_pseudoloss
I0924 02:34:09.106894 28993 net.cpp:274] Network initialization done.
I0924 02:34:09.106974 28993 recurrent_layer.cpp:150] Adding parameter 0: W_xc
I0924 02:34:09.106986 28993 recurrent_layer.cpp:150] Adding parameter 1: b_c
I0924 02:34:09.106992 28993 recurrent_layer.cpp:150] Adding parameter 2: W_hc
I0924 02:34:09.107707 28993 net.cpp:141] Setting up lstm2
I0924 02:34:09.107723 28993 net.cpp:148] Top shape: 1 1 1000 (1000)
I0924 02:34:09.107731 28993 net.cpp:156] Memory required for data: 36412
I0924 02:34:09.107756 28993 layer_factory.hpp:77] Creating layer predict
I0924 02:34:09.107777 28993 net.cpp:91] Creating Layer predict
I0924 02:34:09.107787 28993 net.cpp:425] predict <- lstm2
I0924 02:34:09.107800 28993 net.cpp:399] predict -> predict
I0924 02:34:09.218578 28987 net.cpp:141] Setting up lstm2_transform_1
I0924 02:34:09.218647 28987 net.cpp:148] Top shape: 1 1 4000 (4000)
I0924 02:34:09.218657 28987 net.cpp:156] Memory required for data: 66020
I0924 02:34:09.218680 28987 layer_factory.hpp:77] Creating layer lstm2_gate_input_1
I0924 02:34:09.218708 28987 net.cpp:91] Creating Layer lstm2_gate_input_1
I0924 02:34:09.218719 28987 net.cpp:425] lstm2_gate_input_1 <- W_hc_h_0
I0924 02:34:09.218734 28987 net.cpp:425] lstm2_gate_input_1 <- W_xc_x_1
I0924 02:34:09.218747 28987 net.cpp:399] lstm2_gate_input_1 -> gate_input_1
I0924 02:34:09.218883 28987 net.cpp:141] Setting up lstm2_gate_input_1
I0924 02:34:09.218901 28987 net.cpp:148] Top shape: 1 1 4000 (4000)
I0924 02:34:09.218910 28987 net.cpp:156] Memory required for data: 82020
I0924 02:34:09.218919 28987 layer_factory.hpp:77] Creating layer lstm2_unit_1
I0924 02:34:09.218940 28987 net.cpp:91] Creating Layer lstm2_unit_1
I0924 02:34:09.218950 28987 net.cpp:425] lstm2_unit_1 <- c_0
I0924 02:34:09.218960 28987 net.cpp:425] lstm2_unit_1 <- gate_input_1
I0924 02:34:09.218968 28987 net.cpp:425] lstm2_unit_1 <- cont_1_lstm2_cont_slice_0_split_1
I0924 02:34:09.218981 28987 net.cpp:399] lstm2_unit_1 -> c_1
I0924 02:34:09.218996 28987 net.cpp:399] lstm2_unit_1 -> h_1
I0924 02:34:09.219100 28973 net.cpp:141] Setting up lstm2_x_transform
I0924 02:34:09.219122 28973 net.cpp:148] Top shape: 1 1 4000 (4000)
I0924 02:34:09.219130 28973 net.cpp:156] Memory required for data: 30020
I0924 02:34:09.219148 28973 layer_factory.hpp:77] Creating layer lstm2_W_xc_x_slice
I0924 02:34:09.219164 28973 net.cpp:91] Creating Layer lstm2_W_xc_x_slice
I0924 02:34:09.219173 28973 net.cpp:425] lstm2_W_xc_x_slice <- W_xc_x
I0924 02:34:09.219197 28973 net.cpp:399] lstm2_W_xc_x_slice -> W_xc_x_1
I0924 02:34:09.219382 28969 net.cpp:141] Setting up lstm2_x_transform
I0924 02:34:09.219403 28969 net.cpp:148] Top shape: 1 1 4000 (4000)
I0924 02:34:09.219411 28969 net.cpp:156] Memory required for data: 30020
I0924 02:34:09.219418 28973 net.cpp:141] Setting up lstm2_W_xc_x_slice
I0924 02:34:09.219430 28969 layer_factory.hpp:77] Creating layer lstm2_W_xc_x_slice
I0924 02:34:09.219434 28973 net.cpp:148] Top shape: 1 1 4000 (4000)
I0924 02:34:09.219442 28973 net.cpp:156] Memory required for data: 46020
I0924 02:34:09.219445 28969 net.cpp:91] Creating Layer lstm2_W_xc_x_slice
I0924 02:34:09.219450 28973 layer_factory.hpp:77] Creating layer lstm2_h_conted_0
I0924 02:34:09.219455 28969 net.cpp:425] lstm2_W_xc_x_slice <- W_xc_x
I0924 02:34:09.219465 28973 net.cpp:91] Creating Layer lstm2_h_conted_0
I0924 02:34:09.219467 28969 net.cpp:399] lstm2_W_xc_x_slice -> W_xc_x_1
I0924 02:34:09.219473 28973 net.cpp:425] lstm2_h_conted_0 <- h_0
I0924 02:34:09.219482 28973 net.cpp:425] lstm2_h_conted_0 <- cont_1_lstm2_cont_slice_0_split_0
I0924 02:34:09.219494 28973 net.cpp:399] lstm2_h_conted_0 -> h_conted_0
I0924 02:34:09.219552 28969 net.cpp:141] Setting up lstm2_W_xc_x_slice
I0924 02:34:09.219568 28969 net.cpp:148] Top shape: 1 1 4000 (4000)
I0924 02:34:09.219574 28969 net.cpp:156] Memory required for data: 46020
I0924 02:34:09.219583 28969 layer_factory.hpp:77] Creating layer lstm2_h_conted_0
I0924 02:34:09.219595 28969 net.cpp:91] Creating Layer lstm2_h_conted_0
I0924 02:34:09.219604 28969 net.cpp:425] lstm2_h_conted_0 <- h_0
I0924 02:34:09.219612 28969 net.cpp:425] lstm2_h_conted_0 <- cont_1_lstm2_cont_slice_0_split_0
I0924 02:34:09.219625 28969 net.cpp:399] lstm2_h_conted_0 -> h_conted_0
I0924 02:34:09.219655 28995 net.cpp:141] Setting up conv3
I0924 02:34:09.219677 28995 net.cpp:148] Top shape: 10 384 13 13 (648960)
I0924 02:34:09.219687 28995 net.cpp:156] Memory required for data: 56001080
I0924 02:34:09.219725 28995 layer_factory.hpp:77] Creating layer relu3
I0924 02:34:09.219744 28995 net.cpp:91] Creating Layer relu3
I0924 02:34:09.219754 28995 net.cpp:425] relu3 <- conv3
I0924 02:34:09.219772 28995 net.cpp:386] relu3 -> conv3 (in-place)
I0924 02:34:09.219787 28969 net.cpp:141] Setting up lstm2_h_conted_0
I0924 02:34:09.219804 28969 net.cpp:148] Top shape: 1 1 1000 (1000)
I0924 02:34:09.219810 28969 net.cpp:156] Memory required for data: 50020
I0924 02:34:09.219818 28969 layer_factory.hpp:77] Creating layer lstm2_transform_1
I0924 02:34:09.219835 28969 net.cpp:91] Creating Layer lstm2_transform_1
I0924 02:34:09.219843 28969 net.cpp:425] lstm2_transform_1 <- h_conted_0
I0924 02:34:09.219856 28969 net.cpp:399] lstm2_transform_1 -> W_hc_h_0
I0924 02:34:09.220319 28973 net.cpp:141] Setting up lstm2_h_conted_0
I0924 02:34:09.220367 28973 net.cpp:148] Top shape: 1 1 1000 (1000)
I0924 02:34:09.220377 28973 net.cpp:156] Memory required for data: 50020
I0924 02:34:09.220386 28973 layer_factory.hpp:77] Creating layer lstm2_transform_1
I0924 02:34:09.220401 28973 net.cpp:91] Creating Layer lstm2_transform_1
I0924 02:34:09.220408 28973 net.cpp:425] lstm2_transform_1 <- h_conted_0
I0924 02:34:09.220425 28973 net.cpp:399] lstm2_transform_1 -> W_hc_h_0
I0924 02:34:09.230451 28995 net.cpp:141] Setting up relu3
I0924 02:34:09.230509 28995 net.cpp:148] Top shape: 10 384 13 13 (648960)
I0924 02:34:09.230517 28995 net.cpp:156] Memory required for data: 58596920
I0924 02:34:09.230530 28995 layer_factory.hpp:77] Creating layer conv4
I0924 02:34:09.230562 28995 net.cpp:91] Creating Layer conv4
I0924 02:34:09.230573 28995 net.cpp:425] conv4 <- conv3
I0924 02:34:09.230592 28995 net.cpp:399] conv4 -> conv4
I0924 02:34:09.239362 28987 net.cpp:141] Setting up lstm2_unit_1
I0924 02:34:09.239411 28987 net.cpp:148] Top shape: 1 1 1000 (1000)
I0924 02:34:09.239424 28987 net.cpp:148] Top shape: 1 1 1000 (1000)
I0924 02:34:09.239431 28987 net.cpp:156] Memory required for data: 90020
I0924 02:34:09.239441 28987 layer_factory.hpp:77] Creating layer lstm2_
I0924 02:34:09.239469 28987 net.cpp:91] Creating Layer lstm2_
I0924 02:34:09.239480 28987 net.cpp:425] lstm2_ <- c_1
I0924 02:34:09.239495 28987 net.cpp:399] lstm2_ -> c_T
I0924 02:34:09.249182 28987 net.cpp:141] Setting up lstm2_
I0924 02:34:09.249234 28987 net.cpp:148] Top shape: 1 1 1000 (1000)
I0924 02:34:09.249243 28987 net.cpp:156] Memory required for data: 94020
I0924 02:34:09.249256 28987 layer_factory.hpp:77] Creating layer lstm2_h_concat
I0924 02:34:09.249276 28987 net.cpp:91] Creating Layer lstm2_h_concat
I0924 02:34:09.249286 28987 net.cpp:425] lstm2_h_concat <- h_1
I0924 02:34:09.249318 28987 net.cpp:399] lstm2_h_concat -> h
I0924 02:34:09.250272 28995 net.cpp:141] Setting up conv4
I0924 02:34:09.250299 28995 net.cpp:148] Top shape: 10 384 13 13 (648960)
I0924 02:34:09.250304 28995 net.cpp:156] Memory required for data: 61192760
I0924 02:34:09.250321 28995 layer_factory.hpp:77] Creating layer relu4
I0924 02:34:09.250339 28995 net.cpp:91] Creating Layer relu4
I0924 02:34:09.250349 28995 net.cpp:425] relu4 <- conv4
I0924 02:34:09.250358 28995 net.cpp:386] relu4 -> conv4 (in-place)
I0924 02:34:09.250393 28987 net.cpp:141] Setting up lstm2_h_concat
I0924 02:34:09.250419 28987 net.cpp:148] Top shape: 1 1 1000 (1000)
I0924 02:34:09.250427 28987 net.cpp:156] Memory required for data: 98020
I0924 02:34:09.250434 28987 layer_factory.hpp:77] Creating layer h_pseudoloss
I0924 02:34:09.250448 28987 net.cpp:91] Creating Layer h_pseudoloss
I0924 02:34:09.250458 28987 net.cpp:425] h_pseudoloss <- h
I0924 02:34:09.250470 28987 net.cpp:399] h_pseudoloss -> h_pseudoloss
I0924 02:34:09.250936 28995 net.cpp:141] Setting up relu4
I0924 02:34:09.250963 28995 net.cpp:148] Top shape: 10 384 13 13 (648960)
I0924 02:34:09.250970 28995 net.cpp:156] Memory required for data: 63788600
I0924 02:34:09.250972 28987 net.cpp:141] Setting up h_pseudoloss
I0924 02:34:09.250977 28995 layer_factory.hpp:77] Creating layer conv5
I0924 02:34:09.250993 28987 net.cpp:148] Top shape: (1)
I0924 02:34:09.250999 28995 net.cpp:91] Creating Layer conv5
I0924 02:34:09.251005 28995 net.cpp:425] conv5 <- conv4
…
I0924 02:34:09.251145 28987 net.cpp:219] lstm2_ does not need backward computation.
I0924 02:34:09.251152 28987 net.cpp:261] This network produces output c_T
I0924 02:34:09.251159 28987 net.cpp:261] This network produces output h_pseudoloss
I0924 02:34:09.251186 28987 net.cpp:274] Network initialization done.
I0924 02:34:09.251253 28987 recurrent_layer.cpp:150] Adding parameter 0: W_xc
I0924 02:34:09.251262 28987 recurrent_layer.cpp:150] Adding parameter 1: b_c
I0924 02:34:09.251271 28987 recurrent_layer.cpp:150] Adding parameter 2: W_hc
I0924 02:34:09.252531 28987 net.cpp:141] Setting up lstm2
I0924 02:34:09.252550 28987 net.cpp:148] Top shape: 1 1 1000 (1000)
I0924 02:34:09.252558 28987 net.cpp:156] Memory required for data: 36412
I0924 02:34:09.252583 28987 layer_factory.hpp:77] Creating layer predict
I0924 02:34:09.252601 28987 net.cpp:91] Creating Layer predict
I0924 02:34:09.252611 28987 net.cpp:425] predict <- lstm2
I0924 02:34:09.252625 28987 net.cpp:399] predict -> predict
I0924 02:34:09.359938 28995 net.cpp:141] Setting up conv5
I0924 02:34:09.360014 28995 net.cpp:148] Top shape: 10 256 13 13 (432640)
I0924 02:34:09.360031 28995 net.cpp:156] Memory required for data: 65519160
I0924 02:34:09.360074 28995 layer_factory.hpp:77] Creating layer relu5
I0924 02:34:09.360113 28995 net.cpp:91] Creating Layer relu5
I0924 02:34:09.360133 28995 net.cpp:425] relu5 <- conv5
I0924 02:34:09.360154 28995 net.cpp:386] relu5 -> conv5 (in-place)
I0924 02:34:09.361161 28969 net.cpp:141] Setting up lstm2_transform_1
I0924 02:34:09.361184 28969 net.cpp:148] Top shape: 1 1 4000 (4000)
I0924 02:34:09.361192 28969 net.cpp:156] Memory required for data: 66020
I0924 02:34:09.361208 28969 layer_factory.hpp:77] Creating layer lstm2_gate_input_1
I0924 02:34:09.361227 28969 net.cpp:91] Creating Layer lstm2_gate_input_1
I0924 02:34:09.361235 28969 net.cpp:425] lstm2_gate_input_1 <- W_hc_h_0
I0924 02:34:09.361245 28969 net.cpp:425] lstm2_gate_input_1 <- W_xc_x_1
I0924 02:34:09.361263 28969 net.cpp:399] lstm2_gate_input_1 -> gate_input_1
I0924 02:34:09.361320 28969 net.cpp:141] Setting up lstm2_gate_input_1
I0924 02:34:09.361337 28969 net.cpp:148] Top shape: 1 1 4000 (4000)
I0924 02:34:09.361344 28969 net.cpp:156] Memory required for data: 82020
I0924 02:34:09.361351 28969 layer_factory.hpp:77] Creating layer lstm2_unit_1
I0924 02:34:09.361363 28969 net.cpp:91] Creating Layer lstm2_unit_1
I0924 02:34:09.361371 28969 net.cpp:425] lstm2_unit_1 <- c_0
I0924 02:34:09.361380 28969 net.cpp:425] lstm2_unit_1 <- gate_input_1
I0924 02:34:09.361388 28969 net.cpp:425] lstm2_unit_1 <- cont_1_lstm2_cont_slice_0_split_1
I0924 02:34:09.361398 28969 net.cpp:399] lstm2_unit_1 -> c_1
I0924 02:34:09.361412 28969 net.cpp:399] lstm2_unit_1 -> h_1
I0924 02:34:09.361510 28969 net.cpp:141] Setting up lstm2_unit_1
I0924 02:34:09.361524 28969 net.cpp:148] Top shape: 1 1 1000 (1000)
I0924 02:34:09.361534 28969 net.cpp:148] Top shape: 1 1 1000 (1000)
I0924 02:34:09.361541 28969 net.cpp:156] Memory required for data: 90020
I0924 02:34:09.361547 28969 layer_factory.hpp:77] Creating layer lstm2_
I0924 02:34:09.361559 28969 net.cpp:91] Creating Layer lstm2_
I0924 02:34:09.361567 28969 net.cpp:425] lstm2_ <- c_1
I0924 02:34:09.361577 28969 net.cpp:399] lstm2_ -> c_T
I0924 02:34:09.361623 28969 net.cpp:141] Setting up lstm2_
I0924 02:34:09.361634 28969 net.cpp:148] Top shape: 1 1 1000 (1000)
I0924 02:34:09.361641 28969 net.cpp:156] Memory required for data: 94020
I0924 02:34:09.361649 28969 layer_factory.hpp:77] Creating layer lstm2_h_concat
I0924 02:34:09.361670 28969 net.cpp:91] Creating Layer lstm2_h_concat
I0924 02:34:09.361678 28969 net.cpp:425] lstm2_h_concat <- h_1
I0924 02:34:09.361691 28969 net.cpp:399] lstm2_h_concat -> h
I0924 02:34:09.361740 28969 net.cpp:141] Setting up lstm2_h_concat
I0924 02:34:09.361752 28969 net.cpp:148] Top shape: 1 1 1000 (1000)
I0924 02:34:09.361759 28969 net.cpp:156] Memory required for data: 98020
I0924 02:34:09.361766 28969 layer_factory.hpp:77] Creating layer h_pseudoloss
I0924 02:34:09.361778 28969 net.cpp:91] Creating Layer h_pseudoloss
I0924 02:34:09.361785 28969 net.cpp:425] h_pseudoloss <- h
I0924 02:34:09.361800 28969 net.cpp:399] h_pseudoloss -> h_pseudoloss
I0924 02:34:09.361932 28969 net.cpp:141] Setting up h_pseudoloss
…
I0924 02:34:09.362077 28969 net.cpp:219] lstm2_ does not need backward computation.
I0924 02:34:09.362083 28969 net.cpp:261] This network produces output c_T
I0924 02:34:09.362090 28969 net.cpp:261] This network produces output h_pseudoloss
I0924 02:34:09.362117 28969 net.cpp:274] Network initialization done.
I0924 02:34:09.362185 28969 recurrent_layer.cpp:150] Adding parameter 0: W_xc
I0924 02:34:09.362193 28969 recurrent_layer.cpp:150] Adding parameter 1: b_c
I0924 02:34:09.362200 28969 recurrent_layer.cpp:150] Adding parameter 2: W_hc
I0924 02:34:09.362349 28969 net.cpp:141] Setting up lstm2
I0924 02:34:09.362363 28969 net.cpp:148] Top shape: 1 1 1000 (1000)
I0924 02:34:09.362370 28969 net.cpp:156] Memory required for data: 36412
I0924 02:34:09.362391 28969 layer_factory.hpp:77] Creating layer predict
I0924 02:34:09.362407 28969 net.cpp:91] Creating Layer predict
I0924 02:34:09.362416 28969 net.cpp:425] predict <- lstm2
I0924 02:34:09.362428 28969 net.cpp:399] predict -> predict
I0924 02:34:09.362435 28973 net.cpp:141] Setting up lstm2_transform_1
I0924 02:34:09.362458 28973 net.cpp:148] Top shape: 1 1 4000 (4000)
I0924 02:34:09.362467 28973 net.cpp:156] Memory required for data: 66020
I0924 02:34:09.362481 28973 layer_factory.hpp:77] Creating layer lstm2_gate_input_1
I0924 02:34:09.362499 28973 net.cpp:91] Creating Layer lstm2_gate_input_1
I0924 02:34:09.362509 28973 net.cpp:425] lstm2_gate_input_1 <- W_hc_h_0
I0924 02:34:09.362517 28973 net.cpp:425] lstm2_gate_input_1 <- W_xc_x_1
I0924 02:34:09.362529 28973 net.cpp:399] lstm2_gate_input_1 -> gate_input_1
I0924 02:34:09.447108 28995 net.cpp:141] Setting up relu5
I0924 02:34:09.447165 28995 net.cpp:148] Top shape: 10 256 13 13 (432640)
I0924 02:34:09.447175 28995 net.cpp:156] Memory required for data: 67249720
I0924 02:34:09.447187 28995 layer_factory.hpp:77] Creating layer pool5
I0924 02:34:09.447221 28995 net.cpp:91] Creating Layer pool5
I0924 02:34:09.447235 28995 net.cpp:425] pool5 <- conv5
I0924 02:34:09.447257 28995 net.cpp:399] pool5 -> pool5
I0924 02:34:09.447399 28995 net.cpp:141] Setting up pool5
I0924 02:34:09.447415 28995 net.cpp:148] Top shape: 10 256 6 6 (92160)
I0924 02:34:09.447422 28995 net.cpp:156] Memory required for data: 67618360
I0924 02:34:09.447430 28995 layer_factory.hpp:77] Creating layer fc6
I0924 02:34:09.447459 28995 net.cpp:91] Creating Layer fc6
I0924 02:34:09.447468 28995 net.cpp:425] fc6 <- pool5
I0924 02:34:09.447480 28995 net.cpp:399] fc6 -> fc6
I0924 02:34:09.454649 28973 net.cpp:141] Setting up lstm2_gate_input_1
I0924 02:34:09.454699 28973 net.cpp:148] Top shape: 1 1 4000 (4000)
I0924 02:34:09.454707 28973 net.cpp:156] Memory required for data: 82020
I0924 02:34:09.454720 28973 layer_factory.hpp:77] Creating layer lstm2_unit_1
I0924 02:34:09.454741 28973 net.cpp:91] Creating Layer lstm2_unit_1
I0924 02:34:09.454751 28973 net.cpp:425] lstm2_unit_1 <- c_0
I0924 02:34:09.454764 28973 net.cpp:425] lstm2_unit_1 <- gate_input_1
I0924 02:34:09.454774 28973 net.cpp:425] lstm2_unit_1 <- cont_1_lstm2_cont_slice_0_split_1
I0924 02:34:09.454797 28973 net.cpp:399] lstm2_unit_1 -> c_1
I0924 02:34:09.454816 28973 net.cpp:399] lstm2_unit_1 -> h_1
I0924 02:34:09.532999 28973 net.cpp:141] Setting up lstm2_unit_1
I0924 02:34:09.533056 28973 net.cpp:148] Top shape: 1 1 1000 (1000)
I0924 02:34:09.533067 28973 net.cpp:148] Top shape: 1 1 1000 (1000)
I0924 02:34:09.533073 28973 net.cpp:156] Memory required for data: 90020
I0924 02:34:09.533085 28973 layer_factory.hpp:77] Creating layer lstm2_
I0924 02:34:09.533104 28973 net.cpp:91] Creating Layer lstm2_
I0924 02:34:09.533115 28973 net.cpp:425] lstm2_ <- c_1
I0924 02:34:09.533131 28973 net.cpp:399] lstm2_ -> c_T
I0924 02:34:09.533196 28973 net.cpp:141] Setting up lstm2_
I0924 02:34:09.533212 28973 net.cpp:148] Top shape: 1 1 1000 (1000)
I0924 02:34:09.533218 28973 net.cpp:156] Memory required for data: 94020
I0924 02:34:09.533226 28973 layer_factory.hpp:77] Creating layer lstm2_h_concat
I0924 02:34:09.533246 28973 net.cpp:91] Creating Layer lstm2_h_concat
I0924 02:34:09.533253 28973 net.cpp:425] lstm2_h_concat <- h_1
I0924 02:34:09.533265 28973 net.cpp:399] lstm2_h_concat -> h
I0924 02:34:09.533321 28973 net.cpp:141] Setting up lstm2_h_concat
I0924 02:34:09.533336 28973 net.cpp:148] Top shape: 1 1 1000 (1000)
I0924 02:34:09.533342 28973 net.cpp:156] Memory required for data: 98020
I0924 02:34:09.533351 28973 layer_factory.hpp:77] Creating layer h_pseudoloss
I0924 02:34:09.533368 28973 net.cpp:91] Creating Layer h_pseudoloss
I0924 02:34:09.533377 28973 net.cpp:425] h_pseudoloss <- h
I0924 02:34:09.533390 28973 net.cpp:399] h_pseudoloss -> h_pseudoloss
I0924 02:34:09.533579 28973 net.cpp:141] Setting up h_pseudoloss
…
I0924 02:34:09.533766 28973 net.cpp:219] lstm2_ does not need backward computation.
I0924 02:34:09.533773 28973 net.cpp:261] This network produces output c_T
I0924 02:34:09.533782 28973 net.cpp:261] This network produces output h_pseudoloss
I0924 02:34:09.533815 28973 net.cpp:274] Network initialization done.
I0924 02:34:09.533896 28973 recurrent_layer.cpp:150] Adding parameter 0: W_xc
I0924 02:34:09.533910 28973 recurrent_layer.cpp:150] Adding parameter 1: b_c
I0924 02:34:09.533918 28973 recurrent_layer.cpp:150] Adding parameter 2: W_hc
I0924 02:34:09.534096 28973 net.cpp:141] Setting up lstm2
I0924 02:34:09.534116 28973 net.cpp:148] Top shape: 1 1 1000 (1000)
I0924 02:34:09.534124 28973 net.cpp:156] Memory required for data: 36412
I0924 02:34:09.534152 28973 layer_factory.hpp:77] Creating layer predict
I0924 02:34:09.534173 28973 net.cpp:91] Creating Layer predict
I0924 02:34:09.534186 28973 net.cpp:425] predict <- lstm2
I0924 02:34:09.534202 28973 net.cpp:399] predict -> predict
I0924 02:34:09.642724 28995 net.cpp:141] Setting up fc6
I0924 02:34:09.642798 28995 net.cpp:148] Top shape: 10 4096 (40960)
I0924 02:34:09.642810 28995 net.cpp:156] Memory required for data: 67782200
I0924 02:34:09.642838 28995 layer_factory.hpp:77] Creating layer relu6
I0924 02:34:09.642865 28995 net.cpp:91] Creating Layer relu6
I0924 02:34:09.642877 28995 net.cpp:425] relu6 <- fc6
I0924 02:34:09.642895 28995 net.cpp:386] relu6 -> fc6 (in-place)
I0924 02:34:09.643326 28993 net.cpp:141] Setting up predict
I0924 02:34:09.643345 28993 net.cpp:148] Top shape: 1 1 46168 (46168)
I0924 02:34:09.643350 28993 net.cpp:156] Memory required for data: 221084
I0924 02:34:09.643362 28993 layer_factory.hpp:77] Creating layer probs
I0924 02:34:09.643373 28993 net.cpp:91] Creating Layer probs
I0924 02:34:09.643379 28993 net.cpp:425] probs <- predict
I0924 02:34:09.643388 28993 net.cpp:399] probs -> probs
I0924 02:34:09.644282 28995 net.cpp:141] Setting up relu6
I0924 02:34:09.644306 28995 net.cpp:148] Top shape: 10 4096 (40960)
I0924 02:34:09.644315 28995 net.cpp:156] Memory required for data: 67946040
I0924 02:34:09.644318 28993 net.cpp:141] Setting up probs
I0924 02:34:09.644325 28995 layer_factory.hpp:77] Creating layer drop6
I0924 02:34:09.644332 28993 net.cpp:148] Top shape: 1 1 46168 (46168)
I0924 02:34:09.644337 28993 net.cpp:156] Memory required for data: 405756
I0924 02:34:09.644342 28993 net.cpp:219] probs does not need backward computation.
I0924 02:34:09.644347 28993 net.cpp:219] predict does not need backward computation.
I0924 02:34:09.644352 28993 net.cpp:219] lstm2 does not need backward computation.
I0924 02:34:09.644358 28993 net.cpp:219] concat does not need backward computation.
I0924 02:34:09.644359 28995 net.cpp:91] Creating Layer drop6
I0924 02:34:09.644363 28993 net.cpp:219] lstm1 does not need backward computation.
I0924 02:34:09.644381 28995 net.cpp:425] drop6 <- fc6
I0924 02:34:09.644385 28993 net.cpp:219] embedding does not need backward computation.
I0924 02:34:09.644392 28993 net.cpp:219] reshape_stage_indicator does not need backward computation.
I0924 02:34:09.644397 28993 net.cpp:219] reshape_frames does not need backward computation.
I0924 02:34:09.644395 28995 net.cpp:386] drop6 -> fc6 (in-place)
I0924 02:34:09.644402 28993 net.cpp:219] embed_encoder does not need backward computation.
I0924 02:34:09.644407 28993 net.cpp:219] cont_sentence_input_1_split does not need backward computation.
I0924 02:34:09.644412 28993 net.cpp:219] input does not need backward computation.
I0924 02:34:09.644417 28993 net.cpp:261] This network produces output probs
I0924 02:34:09.644443 28993 net.cpp:274] Network initialization done.
I0924 02:34:09.644475 28995 net.cpp:141] Setting up drop6
I0924 02:34:09.644493 28995 net.cpp:148] Top shape: 10 4096 (40960)
I0924 02:34:09.644501 28995 net.cpp:156] Memory required for data: 68109880
I0924 02:34:09.644510 28995 layer_factory.hpp:77] Creating layer fc7
I0924 02:34:09.644526 28995 net.cpp:91] Creating Layer fc7
I0924 02:34:09.644534 28995 net.cpp:425] fc7 <- fc6
I0924 02:34:09.644554 28995 net.cpp:399] fc7 -> fc7
I0924 02:34:09.706560 28995 net.cpp:141] Setting up fc7
I0924 02:34:09.706627 28995 net.cpp:148] Top shape: 10 4096 (40960)
I0924 02:34:09.706637 28995 net.cpp:156] Memory required for data: 68273720
I0924 02:34:09.706656 28995 layer_factory.hpp:77] Creating layer relu7
I0924 02:34:09.706676 28995 net.cpp:91] Creating Layer relu7
I0924 02:34:09.706684 28995 net.cpp:425] relu7 <- fc7
I0924 02:34:09.706701 28995 net.cpp:386] relu7 -> fc7 (in-place)
I0924 02:34:09.707903 28995 net.cpp:141] Setting up relu7
I0924 02:34:09.707931 28995 net.cpp:148] Top shape: 10 4096 (40960)
I0924 02:34:09.707938 28995 net.cpp:156] Memory required for data: 68437560
I0924 02:34:09.707947 28995 layer_factory.hpp:77] Creating layer drop7
I0924 02:34:09.707968 28995 net.cpp:91] Creating Layer drop7
I0924 02:34:09.707976 28995 net.cpp:425] drop7 <- fc7
I0924 02:34:09.707988 28995 net.cpp:386] drop7 -> fc7 (in-place)
I0924 02:34:09.708065 28995 net.cpp:141] Setting up drop7
I0924 02:34:09.708078 28995 net.cpp:148] Top shape: 10 4096 (40960)
I0924 02:34:09.708086 28995 net.cpp:156] Memory required for data: 68601400
I0924 02:34:09.708093 28995 layer_factory.hpp:77] Creating layer fc8
I0924 02:34:09.708106 28995 net.cpp:91] Creating Layer fc8
I0924 02:34:09.708113 28995 net.cpp:425] fc8 <- fc7
I0924 02:34:09.709266 28995 net.cpp:399] fc8 -> fc8
I0924 02:34:09.726207 28995 net.cpp:141] Setting up fc8
I0924 02:34:09.726778 28995 net.cpp:148] Top shape: 10 1000 (10000)
I0924 02:34:09.726941 28995 net.cpp:156] Memory required for data: 68641400
I0924 02:34:09.727114 28995 layer_factory.hpp:77] Creating layer prob
I0924 02:34:09.727334 28995 net.cpp:91] Creating Layer prob
I0924 02:34:09.727489 28995 net.cpp:425] prob <- fc8
I0924 02:34:09.727648 28995 net.cpp:399] prob -> prob
I0924 02:34:09.729133 28995 net.cpp:141] Setting up prob
I0924 02:34:09.729377 28995 net.cpp:148] Top shape: 10 1000 (10000)
I0924 02:34:09.729527 28995 net.cpp:156] Memory required for data: 68681400
I0924 02:34:09.729549 28995 net.cpp:219] prob does not need backward computation.
I0924 02:34:09.729562 28995 net.cpp:219] fc8 does not need backward computation.
I0924 02:34:09.729794 28995 net.cpp:219] drop7 does not need backward computation.
I0924 02:34:09.729815 28995 net.cpp:219] relu7 does not need backward computation.
…
