…
Java HotSpot(TM) 64-Bit Server VM warning: You have loaded library /home/peifeng/work/run/storm102/data/workers/3f2c552e-da36-4896-9ac4-0f381e3ce197/tmp/cvld2362668912644651225/libopencv_java310.xine1.so which might have disabled stack guard. The VM will try to fix the stack guard now.
It's highly recommended that you fix the library with 'execstack -c <libfile>', or link it with '-z noexecstack'.
WARNING: Logging before InitGoogleLogging() is written to STDERR
I0924 00:57:31.838474 29928 net.cpp:49] Initializing net from parameters: 
name: "GoogleNet"
state {
  phase: TEST
}
layer {
  name: "data"
  type: "Input"
  top: "data"
  input_param {
    shape {
      dim: 10
      dim: 3
      dim: 224
      dim: 224
    }
  }
}
layer {
  name: "conv1/7x7_s2"
  type: "Convolution"
  bottom: "data"
  top: "conv1/7x7_s2"
  param {
    lr_mult: 1
    decay_mult: 1
  }
  param {
    lr_mult: 2
    decay_mult: 0
  }
  convolution_param {
    num_output: 64
    pad: 3
    kernel_size: 7
    stride: 2
    weight_filler {
      type: "xavier"
      std: 0.1
    }
    bias_filler {
      type: "constant"
      value: 0.2
    }
  }
}
layer {
  name: "conv1/relu_7x7"
  type: "ReLU"
  bottom: "conv1/7x7_s2"
  top: "conv1/7x7_s2"
}
layer {
  name: "pool1/3x3_s2"
  type: "Pooling"
  bottom: "conv1/7x7_s2"
  top: "pool1/3x3_s2"
  pooling_param {
    pool: MAX
    kernel_size: 3
    stride: 2
  }
}
layer {
  name: "pool1/norm1"
  type: "LRN"
  bottom: "pool1/3x3_s2"
  top: "pool1/norm1"
  lrn_param {
    local_size: 5
    alpha: 0.0001
    beta: 0.75
  }
}
layer {
  name: "conv2/3x3_reduce"
  type: "Convolution"
  bottom: "pool1/norm1"
  top: "conv2/3x3_reduce"
  param {
    lr_mult: 1
    decay_mult: 1
  }
  param {
    lr_mult: 2
    decay_mult: 0
  }
  convolution_param {
    num_output: 64
    kernel_size: 1
    weight_filler {
      type: "xavier"
      std: 0.1
    }
    bias_filler {
      type: "constant"
      value: 0.2
    }
  }
}
layer {
  name: "conv2/relu_3x3_reduce"
  type: "ReLU"
  bottom: "conv2/3x3_reduce"
  top: "conv2/3x3_reduce"
}
layer {
  name: "conv2/3x3"
  type: "Convolution"
  bottom: "conv2/3x3_reduce"
  top: "conv2/3x3"
  param {
    lr_mult: 1
    decay_mult: 1
  }
  param {
    lr_mult: 2
    decay_mult: 0
  }
  convolution_param {
    num_output: 192
    pad: 1
    kernel_size: 3
    weight_filler {
      type: "xavier"
      std: 0.03
    }
    bias_filler {
      type: "constant"
      value: 0.2
    }
  }
}
layer {
  name: "conv2/relu_3x3"
  type: "ReLU"
  bottom: "conv2/3x3"
  top: "conv2/3x3"
}
layer {
  name: "conv2/norm2"
  type: "LRN"
  bottom: "conv2/3x3"
  top: "conv2/norm2"
  lrn_param {
    local_size: 5
    alpha: 0.0001
    beta: 0.75
  }
}
layer {
  name: "pool2/3x3_s2"
  type: "Pooling"
  bottom: "conv2/norm2"
  top: "pool2/3x3_s2"
  pooling_param {
    pool: MAX
    kernel_size: 3
    stride: 2
  }
}
layer {
  name: "inception_3a/1x1"
  type: "Convolution"
  bottom: "pool2/3x3_s2"
  top: "inception_3a/1x1"
  param {
    lr_mult: 1
    decay_mult: 1
  }
  param {
    lr_mult: 2
    decay_mult: 0
  }
  convolution_param {
    num_output: 64
    kernel_size: 1
    weight_filler {
      type: "xavier"
      std: 0.03
    }
    bias_filler {
      type: "constant"
      value: 0.2
    }
  }
}
layer {
  name: "inception_3a/relu_1x1"
  type: "ReLU"
  bottom: "inception_3a/1x1"
  top: "inception_3a/1x1"
}
layer {
  name: "inception_3a/3x3_reduce"
  type: "Convolution"
  bottom: "pool2/3x3_s2"
  top: "inception_3a/3x3_reduce"
  param {
    lr_mult: 1
    decay_mult: 1
  }
  param {
    lr_mult: 2
    decay_mult: 0
  }
  convolution_param {
    num_output: 96
    kernel_size: 1
    weight_filler {
      type: "xavier"
      std: 0.09
    }
    bias_filler {
      type: "constant"
      value: 0.2
    }
  }
}
layer {
  name: "inception_3a/relu_3x3_reduce"
  type: "ReLU"
  bottom: "inception_3a/3x3_reduce"
  top: "inception_3a/3x3_reduce"
}
layer {
  name: "inception_3a/3x3"
  type: "Convolution"
  bottom: "inception_3a/3x3_reduce"
  top: "inception_3a/3x3"
  param {
    lr_mult: 1
    decay_mult: 1
  }
  param {
    lr_mult: 2
    decay_mult: 0
  }
  convolution_param {
    num_output: 128
    pad: 1
    kernel_size: 3
    weight_filler {
      type: "xavier"
      std: 0.03
    }
    bias_filler {
      type: "constant"
      value: 0.2
    }
  }
}
layer {
  name: "inception_3a/relu_3x3"
  type: "ReLU"
  bottom: "inception_3a/3x3"
  top: "inception_3a/3x3"
}
layer {
  name: "inception_3a/5x5_reduce"
  type: "Convolution"
  bottom: "pool2/3x3_s2"
  top: "inception_3a/5x5_reduce"
  param {
    lr_mult: 1
    decay_mult: 1
  }
  param {
    lr_mult: 2
    decay_mult: 0
  }
  convolution_param {
    num_output: 16
    kernel_size: 1
    weight_filler {
      type: "xavier"
      std: 0.2
    }
    bias_filler {
      type: "constant"
      value: 0.2
    }
  }
}
layer {
  name: "inception_3a/relu_5x5_reduce"
  type: "ReLU"
  bottom: "inception_3a/5x5_reduce"
  top: "inception_3a/5x5_reduce"
}
layer {
  name: "inception_3a/5x5"
  type: "Convolution"
  bottom: "inception_3a/5x5_reduce"
  top: "inception_3a/5x5"
  param {
    lr_mult: 1
    decay_mult: 1
  }
  param {
    lr_mult: 2
    decay_mult: 0
  }
  convolution_param {
    num_output: 32
    pad: 2
    kernel_size: 5
    weight_filler {
      type: "xavier"
      std: 0.03
    }
    bias_filler {
      type: "constant"
      value: 0.2
    }
  }
}
layer {
  name: "inception_3a/relu_5x5"
  type: "ReLU"
  bottom: "inception_3a/5x5"
  top: "inception_3a/5x5"
}
layer {
  name: "inception_3a/pool"
  type: "Pooling"
  bottom: "pool2/3x3_s2"
  top: "inception_3a/pool"
  pooling_param {
    pool: MAX
    kernel_size: 3
    stride: 1
    pad: 1
  }
}
layer {
  name: "inception_3a/pool_proj"
  type: "Convolution"
  bottom: "inception_3a/pool"
  top: "inception_3a/pool_proj"
  param {
    lr_mult: 1
    decay_mult: 1
  }
  param {
    lr_mult: 2
    decay_mult: 0
  }
  convolution_param {
    num_output: 32
    kernel_size: 1
    weight_filler {
      type: "xavier"
      std: 0.1
    }
    bias_filler {
      type: "constant"
      value: 0.2
    }
  }
}
layer {
  name: "inception_3a/relu_pool_proj"
  type: "ReLU"
  bottom: "inception_3a/pool_proj"
  top: "inception_3a/pool_proj"
}
layer {
  name: "inception_3a/output"
  type: "Concat"
  bottom: "inception_3a/1x1"
  bottom: "inception_3a/3x3"
  bottom: "inception_3a/5x5"
  bottom: "inception_3a/pool_proj"
  top: "inception_3a/output"
}
layer {
  name: "inception_3b/1x1"
  type: "Convolution"
  bottom: "inception_3a/output"
  top: "inception_3b/1x1"
  param {
    lr_mult: 1
    decay_mult: 1
  }
  param {
    lr_mult: 2
    decay_mult: 0
  }
  convolution_param {
    num_output: 128
    kernel_size: 1
    weight_filler {
      type: "xavier"
      std: 0.03
    }
    bias_filler {
      type: "constant"
      value: 0.2
    }
  }
}
layer {
  name: "inception_3b/relu_1x1"
  type: "ReLU"
  bottom: "inception_3b/1x1"
  top: "inception_3b/1x1"
}
layer {
  name: "inception_3b/3x3_reduce"
  type: "Convolution"
  bottom: "inception_3a/output"
  top: "inception_3b/3x3_reduce"
  param {
    lr_mult: 1
    decay_mult: 1
  }
  param {
    lr_mult: 2
    decay_mult: 0
  }
  convolution_param {
    num_output: 128
    kernel_size: 1
    weight_filler {
      type: "xavier"
      std: 0.09
    }
    bias_filler {
      type: "constant"
      value: 0.2
    }
  }
}
layer {
  name: "inception_3b/relu_3x3_reduce"
  type: "ReLU"
  bottom: "inception_3b/3x3_reduce"
  top: "inception_3b/3x3_reduce"
}
layer {
  name: "inception_3b/3x3"
  type: "Convolution"
  bottom: "inception_3b/3x3_reduce"
  top: "inception_3b/3x3"
  param {
    lr_mult: 1
    decay_mult: 1
  }
  param {
    lr_mult: 2
    decay_mult: 0
  }
  convolution_param {
    num_output: 192
    pad: 1
    kernel_size: 3
    weight_filler {
      type: "xavier"
      std: 0.03
    }
    bias_filler {
      type: "constant"
      value: 0.2
    }
  }
}
layer {
  name: "inception_3b/relu_3x3"
  type: "ReLU"
  bottom: "inception_3b/3x3"
  top: "inception_3b/3x3"
}
layer {
  name: "inception_3b/5x5_reduce"
  type: "Convolution"
  bottom: "inception_3a/output"
  top: "inception_3b/5x5_reduce"
  param {
    lr_mult: 1
    decay_mult: 1
  }
  param {
    lr_mult: 2
    decay_mult: 0
  }
  convolution_param {
    num_output: 32
    kernel_size: 1
    weight_filler {
      type: "xavier"
      std: 0.2
    }
    bias_filler {
      type: "constant"
      value: 0.2
    }
  }
}
layer {
  name: "inception_3b/relu_5x5_reduce"
  type: "ReLU"
  bottom: "inception_3b/5x5_reduce"
  top: "inception_3b/5x5_reduce"
}
layer {
  name: "inception_3b/5x5"
  type: "Convolution"
  bottom: "inception_3b/5x5_reduce"
  top: "inception_3b/5x5"
  param {
    lr_mult: 1
    decay_mult: 1
  }
  param {
    lr_mult: 2
    decay_mult: 0
  }
  convolution_param {
    num_output: 96
    pad: 2
    kernel_size: 5
    weight_filler {
      type: "xavier"
      std: 0.03
    }
    bias_filler {
      type: "constant"
      value: 0.2
    }
  }
}
layer {
  name: "inception_3b/relu_5x5"
  type: "ReLU"
  bottom: "inception_3b/5x5"
  top: "inception_3b/5x5"
}
layer {
  name: "inception_3b/pool"
  type: "Pooling"
  bottom: "inception_3a/output"
  top: "inception_3b/pool"
  pooling_param {
    pool: MAX
    kernel_size: 3
    stride: 1
    pad: 1
  }
}
layer {
  name: "inception_3b/pool_proj"
  type: "Convolution"
  bottom: "inception_3b/pool"
  top: "inception_3b/pool_proj"
  param {
    lr_mult: 1
    decay_mult: 1
  }
  param {
    lr_mult: 2
    decay_mult: 0
  }
  convolution_param {
    num_output: 64
    kernel_size: 1
    weight_filler {
      type: "xavier"
      std: 0.1
    }
    bias_filler {
      type: "constant"
      value: 0.2
    }
  }
}
layer {
  name: "inception_3b/relu_pool_proj"
  type: "ReLU"
  bottom: "inception_3b/pool_proj"
  top: "inception_3b/pool_proj"
}
layer {
  name: "inception_3b/output"
  type: "Concat"
  bottom: "inception_3b/1x1"
  bottom: "inception_3b/3x3"
  bottom: "inception_3b/5x5"
  bottom: "inception_3b/pool_proj"
  top: "inception_3b/output"
}
layer {
  name: "pool3/3x3_s2"
  type: "Pooling"
  bottom: "inception_3b/output"
  top: "pool3/3x3_s2"
  pooling_param {
    pool: MAX
    kernel_size: 3
    stride: 2
  }
}
layer {
  name: "inception_4a/1x1"
  type: "Convolution"
  bottom: "pool3/3x3_s2"
  top: "inception_4a/1x1"
  param {
    lr_mult: 1
    decay_mult: 1
  }
  param {
    lr_mult: 2
    decay_mult: 0
  }
  convolution_param {
    num_output: 192
    kernel_size: 1
    weight_filler {
      type: "xavier"
      std: 0.03
    }
    bias_filler {
      type: "constant"
      value: 0.2
    }
  }
}
layer {
  name: "inception_4a/relu_1x1"
  type: "ReLU"
  bottom: "inception_4a/1x1"
  top: "inception_4a/1x1"
}
layer {
  name: "inception_4a/3x3_reduce"
  type: "Convolution"
  bottom: "pool3/3x3_s2"
  top: "inception_4a/3x3_reduce"
  param {
    lr_mult: 1
    decay_mult: 1
  }
  param {
    lr_mult: 2
    decay_mult: 0
  }
  convolution_param {
    num_output: 96
    kernel_size: 1
    weight_filler {
      type: "xavier"
      std: 0.09
    }
    bias_filler {
      type: "constant"
      value: 0.2
    }
  }
}
layer {
  name: "inception_4a/relu_3x3_reduce"
  type: "ReLU"
  bottom: "inception_4a/3x3_reduce"
  top: "inception_4a/3x3_reduce"
}
layer {
  name: "inception_4a/3x3"
  type: "Convolution"
  bottom: "inception_4a/3x3_reduce"
  top: "inception_4a/3x3"
  param {
    lr_mult: 1
    decay_mult: 1
  }
  param {
    lr_mult: 2
    decay_mult: 0
  }
  convolution_param {
    num_output: 208
    pad: 1
    kernel_size: 3
    weight_filler {
      type: "xavier"
      std: 0.03
    }
    bias_filler {
      type: "constant"
      value: 0.2
    }
  }
}
layer {
  name: "inception_4a/relu_3x3"
  type: "ReLU"
  bottom: "inception_4a/3x3"
  top: "inception_4a/3x3"
}
layer {
  name: "inception_4a/5x5_reduce"
  type: "Convolution"
  bottom: "pool3/3x3_s2"
  top: "inception_4a/5x5_reduce"
  param {
    lr_mult: 1
    decay_mult: 1
  }
  param {
    lr_mult: 2
    decay_mult: 0
  }
  convolution_param {
    num_output: 16
    kernel_size: 1
    weight_filler {
      type: "xavier"
      std: 0.2
    }
    bias_filler {
      type: "constant"
      value: 0.2
    }
  }
}
layer {
  name: "inception_4a/relu_5x5_reduce"
  type: "ReLU"
  bottom: "inception_4a/5x5_reduce"
  top: "inception_4a/5x5_reduce"
}
layer {
  name: "inception_4a/5x5"
  type: "Convolution"
  bottom: "inception_4a/5x5_reduce"
  top: "inception_4a/5x5"
  param {
    lr_mult: 1
    decay_mult: 1
  }
  param {
    lr_mult: 2
    decay_mult: 0
  }
  convolution_param {
    num_output: 48
    pad: 2
    kernel_size: 5
    weight_filler {
      type: "xavier"
      std: 0.03
    }
    bias_filler {
      type: "constant"
      value: 0.2
    }
  }
}
layer {
  name: "inception_4a/relu_5x5"
  type: "ReLU"
  bottom: "inception_4a/5x5"
  top: "inception_4a/5x5"
}
layer {
  name: "inception_4a/pool"
  type: "Pooling"
  bottom: "pool3/3x3_s2"
  top: "inception_4a/pool"
  pooling_param {
    pool: MAX
    kernel_size: 3
    stride: 1
    pad: 1
  }
}
layer {
  name: "inception_4a/pool_proj"
  type: "Convolution"
  bottom: "inception_4a/pool"
  top: "inception_4a/pool_proj"
  param {
    lr_mult: 1
    decay_mult: 1
  }
  param {
    lr_mult: 2
    decay_mult: 0
  }
  convolution_param {
    num_output: 64
    kernel_size: 1
    weight_filler {
      type: "xavier"
      std: 0.1
    }
    bias_filler {
      type: "constant"
      value: 0.2
    }
  }
}
layer {
  name: "inception_4a/relu_pool_proj"
  type: "ReLU"
  bottom: "inception_4a/pool_proj"
  top: "inception_4a/pool_proj"
}
layer {
  name: "inception_4a/output"
  type: "Concat"
  bottom: "inception_4a/1x1"
  bottom: "inception_4a/3x3"
  bottom: "inception_4a/5x5"
  bottom: "inception_4a/pool_proj"
  top: "inception_4a/output"
}
layer {
  name: "inception_4b/1x1"
  type: "Convolution"
  bottom: "inception_4a/output"
  top: "inception_4b/1x1"
  param {
    lr_mult: 1
    decay_mult: 1
  }
  param {
    lr_mult: 2
    decay_mult: 0
  }
  convolution_param {
    num_output: 160
    kernel_size: 1
    weight_filler {
      type: "xavier"
      std: 0.03
    }
    bias_filler {
      type: "constant"
      value: 0.2
    }
  }
}
layer {
  name: "inception_4b/relu_1x1"
  type: "ReLU"
  bottom: "inception_4b/1x1"
  top: "inception_4b/1x1"
}
layer {
  name: "inception_4b/3x3_reduce"
  type: "Convolution"
  bottom: "inception_4a/output"
  top: "inception_4b/3x3_reduce"
  param {
    lr_mult: 1
    decay_mult: 1
  }
  param {
    lr_mult: 2
    decay_mult: 0
  }
  convolution_param {
    num_output: 112
    kernel_size: 1
    weight_filler {
      type: "xavier"
      std: 0.09
    }
    bias_filler {
      type: "constant"
      value: 0.2
    }
  }
}
layer {
  name: "inception_4b/relu_3x3_reduce"
  type: "ReLU"
  bottom: "inception_4b/3x3_reduce"
  top: "inception_4b/3x3_reduce"
}
layer {
  name: "inception_4b/3x3"
  type: "Convolution"
  bottom: "inception_4b/3x3_reduce"
  top: "inception_4b/3x3"
  param {
    lr_mult: 1
    decay_mult: 1
  }
  param {
    lr_mult: 2
    decay_mult: 0
  }
  convolution_param {
    num_output: 224
    pad: 1
    kernel_size: 3
    weight_filler {
      type: "xavier"
      std: 0.03
    }
    bias_filler {
      type: "constant"
      value: 0.2
    }
  }
}
layer {
  name: "inception_4b/relu_3x3"
  type: "ReLU"
  bottom: "inception_4b/3x3"
  top: "inception_4b/3x3"
}
layer {
  name: "inception_4b/5x5_reduce"
  type: "Convolution"
  bottom: "inception_4a/output"
  top: "inception_4b/5x5_reduce"
  param {
    lr_mult: 1
    decay_mult: 1
  }
  param {
    lr_mult: 2
    decay_mult: 0
  }
  convolution_param {
    num_output: 24
    kernel_size: 1
    weight_filler {
      type: "xavier"
      std: 0.2
    }
    bias_filler {
      type: "constant"
      value: 0.2
    }
  }
}
layer {
  name: "inception_4b/relu_5x5_reduce"
  type: "ReLU"
  bottom: "inception_4b/5x5_reduce"
  top: "inception_4b/5x5_reduce"
}
layer {
  name: "inception_4b/5x5"
  type: "Convolution"
  bottom: "inception_4b/5x5_reduce"
  top: "inception_4b/5x5"
  param {
    lr_mult: 1
    decay_mult: 1
  }
  param {
    lr_mult: 2
    decay_mult: 0
  }
  convolution_param {
    num_output: 64
    pad: 2
    kernel_size: 5
    weight_filler {
      type: "xavier"
      std: 0.03
    }
    bias_filler {
      type: "constant"
      value: 0.2
    }
  }
}
layer {
  name: "inception_4b/relu_5x5"
  type: "ReLU"
  bottom: "inception_4b/5x5"
  top: "inception_4b/5x5"
}
layer {
  name: "inception_4b/pool"
  type: "Pooling"
  bottom: "inception_4a/output"
  top: "inception_4b/pool"
  pooling_param {
    pool: MAX
    kernel_size: 3
    stride: 1
    pad: 1
  }
}
layer {
  name: "inception_4b/pool_proj"
  type: "Convolution"
  bottom: "inception_4b/pool"
  top: "inception_4b/pool_proj"
  param {
    lr_mult: 1
    decay_mult: 1
  }
  param {
    lr_mult: 2
    decay_mult: 0
  }
  convolution_param {
    num_output: 64
    kernel_size: 1
    weight_filler {
      type: "xavier"
      std: 0.1
    }
    bias_filler {
      type: "constant"
      value: 0.2
    }
  }
}
layer {
  name: "inception_4b/relu_pool_proj"
  type: "ReLU"
  bottom: "inception_4b/pool_proj"
  top: "inception_4b/pool_proj"
}
layer {
  name: "inception_4b/output"
  type: "Concat"
  bottom: "inception_4b/1x1"
  bottom: "inception_4b/3x3"
  bottom: "inception_4b/5x5"
  bottom: "inception_4b/pool_proj"
  top: "inception_4b/output"
}
layer {
  name: "inception_4c/1x1"
  type: "Convolution"
  bottom: "inception_4b/output"
  top: "inception_4c/1x1"
  param {
    lr_mult: 1
    decay_mult: 1
  }
  param {
    lr_mult: 2
    decay_mult: 0
  }
  convolution_param {
    num_output: 128
    kernel_size: 1
    weight_filler {
      type: "xavier"
      std: 0.03
    }
    bias_filler {
      type: "constant"
      value: 0.2
    }
  }
}
layer {
  name: "inception_4c/relu_1x1"
  type: "ReLU"
  bottom: "inception_4c/1x1"
  top: "inception_4c/1x1"
}
layer {
  name: "inception_4c/3x3_reduce"
  type: "Convolution"
  bottom: "inception_4b/output"
  top: "inception_4c/3x3_reduce"
  param {
    lr_mult: 1
    decay_mult: 1
  }
  param {
    lr_mult: 2
    decay_mult: 0
  }
  convolution_param {
    num_output: 128
    kernel_size: 1
    weight_filler {
      type: "xavier"
      std: 0.09
    }
    bias_filler {
      type: "constant"
      value: 0.2
    }
  }
}
layer {
  name: "inception_4c/relu_3x3_reduce"
  type: "ReLU"
  bottom: "inception_4c/3x3_reduce"
  top: "inception_4c/3x3_reduce"
}
layer {
  name: "inception_4c/3x3"
  type: "Convolution"
  bottom: "inception_4c/3x3_reduce"
  top: "inception_4c/3x3"
  param {
    lr_mult: 1
    decay_mult: 1
  }
  param {
    lr_mult: 2
    decay_mult: 0
  }
  convolution_param {
    num_output: 256
    pad: 1
    kernel_size: 3
    weight_filler {
      type: "xavier"
      std: 0.03
    }
    bias_filler {
      type: "constant"
      value: 0.2
    }
  }
}
layer {
  name: "inception_4c/relu_3x3"
  type: "ReLU"
  bottom: "inception_4c/3x3"
  top: "inception_4c/3x3"
}
layer {
  name: "inception_4c/5x5_reduce"
  type: "Convolution"
  bottom: "inception_4b/output"
  top: "inception_4c/5x5_reduce"
  param {
    lr_mult: 1
    decay_mult: 1
  }
  param {
    lr_mult: 2
    decay_mult: 0
  }
  convolution_param {
    num_output: 24
    kernel_size: 1
    weight_filler {
      type: "xavier"
      std: 0.2
    }
    bias_filler {
      type: "constant"
      value: 0.2
    }
  }
}
layer {
  name: "inception_4c/relu_5x5_reduce"
  type: "ReLU"
  bottom: "inception_4c/5x5_reduce"
  top: "inception_4c/5x5_reduce"
}
layer {
  name: "inception_4c/5x5"
  type: "Convolution"
  bottom: "inception_4c/5x5_reduce"
  top: "inception_4c/5x5"
  param {
    lr_mult: 1
    decay_mult: 1
  }
  param {
    lr_mult: 2
    decay_mult: 0
  }
  convolution_param {
    num_output: 64
    pad: 2
    kernel_size: 5
    weight_filler {
      type: "xavier"
      std: 0.03
    }
    bias_filler {
      type: "constant"
      value: 0.2
    }
  }
}
layer {
  name: "inception_4c/relu_5x5"
  type: "ReLU"
  bottom: "inception_4c/5x5"
  top: "inception_4c/5x5"
}
layer {
  name: "inception_4c/pool"
  type: "Pooling"
  bottom: "inception_4b/output"
  top: "inception_4c/pool"
  pooling_param {
    pool: MAX
    kernel_size: 3
    stride: 1
    pad: 1
  }
}
layer {
  name: "inception_4c/pool_proj"
  type: "Convolution"
  bottom: "inception_4c/pool"
  top: "inception_4c/pool_proj"
  param {
    lr_mult: 1
    decay_mult: 1
  }
  param {
    lr_mult: 2
    decay_mult: 0
  }
  convolution_param {
    num_output: 64
    kernel_size: 1
    weight_filler {
      type: "xavier"
      std: 0.1
    }
    bias_filler {
      type: "constant"
      value: 0.2
    }
  }
}
layer {
  name: "inception_4c/relu_pool_proj"
  type: "ReLU"
  bottom: "inception_4c/pool_proj"
  top: "inception_4c/pool_proj"
}
layer {
  name: "inception_4c/output"
  type: "Concat"
  bottom: "inception_4c/1x1"
  bottom: "inception_4c/3x3"
  bottom: "inception_4c/5x5"
  bottom: "inception_4c/pool_proj"
  top: "inception_4c/output"
}
layer {
  name: "inception_4d/1x1"
  type: "Convolution"
  bottom: "inception_4c/output"
  top: "inception_4d/1x1"
  param {
    lr_mult: 1
    decay_mult: 1
  }
  param {
    lr_mult: 2
    decay_mult: 0
  }
  convolution_param {
    num_output: 112
    kernel_size: 1
    weight_filler {
      type: "xavier"
      std: 0.03
    }
    bias_filler {
      type: "constant"
      value: 0.2
    }
  }
}
layer {
  name: "inception_4d/relu_1x1"
  type: "ReLU"
  bottom: "inception_4d/1x1"
  top: "inception_4d/1x1"
}
layer {
  name: "inception_4d/3x3_reduce"
  type: "Convolution"
  bottom: "inception_4c/output"
  top: "inception_4d/3x3_reduce"
  param {
    lr_mult: 1
    decay_mult: 1
  }
  param {
    lr_mult: 2
    decay_mult: 0
  }
  convolution_param {
    num_output: 144
    kernel_size: 1
    weight_filler {
      type: "xavier"
      std: 0.09
    }
    bias_filler {
      type: "constant"
      value: 0.2
    }
  }
}
layer {
  name: "inception_4d/relu_3x3_reduce"
  type: "ReLU"
  bottom: "inception_4d/3x3_reduce"
  top: "inception_4d/3x3_reduce"
}
layer {
  name: "inception_4d/3x3"
  type: "Convolution"
  bottom: "inception_4d/3x3_reduce"
  top: "inception_4d/3x3"
  param {
    lr_mult: 1
    decay_mult: 1
  }
  param {
    lr_mult: 2
    decay_mult: 0
  }
  convolution_param {
    num_output: 288
    pad: 1
    kernel_size: 3
    weight_filler {
      type: "xavier"
      std: 0.03
    }
    bias_filler {
      type: "constant"
      value: 0.2
    }
  }
}
layer {
  name: "inception_4d/relu_3x3"
  type: "ReLU"
  bottom: "inception_4d/3x3"
  top: "inception_4d/3x3"
}
layer {
  name: "inception_4d/5x5_reduce"
  type: "Convolution"
  bottom: "inception_4c/output"
  top: "inception_4d/5x5_reduce"
  param {
    lr_mult: 1
    decay_mult: 1
  }
  param {
    lr_mult: 2
    decay_mult: 0
  }
  convolution_param {
    num_output: 32
    kernel_size: 1
    weight_filler {
      type: "xavier"
      std: 0.2
    }
    bias_filler {
      type: "constant"
      value: 0.2
    }
  }
}
layer {
  name: "inception_4d/relu_5x5_reduce"
  type: "ReLU"
  bottom: "inception_4d/5x5_reduce"
  top: "inception_4d/5x5_reduce"
}
layer {
  name: "inception_4d/5x5"
  type: "Convolution"
  bottom: "inception_4d/5x5_reduce"
  top: "inception_4d/5x5"
  param {
    lr_mult: 1
    decay_mult: 1
  }
  param {
    lr_mult: 2
    decay_mult: 0
  }
  convolution_param {
    num_output: 64
    pad: 2
    kernel_size: 5
    weight_filler {
      type: "xavier"
      std: 0.03
    }
    bias_filler {
      type: "constant"
      value: 0.2
    }
  }
}
layer {
  name: "inception_4d/relu_5x5"
  type: "ReLU"
  bottom: "inception_4d/5x5"
  top: "inception_4d/5x5"
}
layer {
  name: "inception_4d/pool"
  type: "Pooling"
  bottom: "inception_4c/output"
  top: "inception_4d/pool"
  pooling_param {
    pool: MAX
    kernel_size: 3
    stride: 1
    pad: 1
  }
}
layer {
  name: "inception_4d/pool_proj"
  type: "Convolution"
  bottom: "inception_4d/pool"
  top: "inception_4d/pool_proj"
  param {
    lr_mult: 1
    decay_mult: 1
  }
  param {
    lr_mult: 2
    decay_mult: 0
  }
  convolution_param {
    num_output: 64
    kernel_size: 1
    weight_filler {
      type: "xavier"
      std: 0.1
    }
    bias_filler {
      type: "constant"
      value: 0.2
    }
  }
}
layer {
  name: "inception_4d/relu_pool_proj"
  type: "ReLU"
  bottom: "inception_4d/pool_proj"
  top: "inception_4d/pool_proj"
}
layer {
  name: "inception_4d/output"
  type: "Concat"
  bottom: "inception_4d/1x1"
  bottom: "inception_4d/3x3"
  bottom: "inception_4d/5x5"
  bottom: "inception_4d/pool_proj"
  top: "inception_4d/output"
}
layer {
  name: "inception_4e/1x1"
  type: "Convolution"
  bottom: "inception_4d/output"
  top: "inception_4e/1x1"
  param {
    lr_mult: 1
    decay_mult: 1
  }
  param {
    lr_mult: 2
    decay_mult: 0
  }
  convolution_param {
    num_output: 256
    kernel_size: 1
    weight_filler {
      type: "xavier"
      std: 0.03
    }
    bias_filler {
      type: "constant"
      value: 0.2
    }
  }
}
layer {
  name: "inception_4e/relu_1x1"
  type: "ReLU"
  bottom: "inception_4e/1x1"
  top: "inception_4e/1x1"
}
layer {
  name: "inception_4e/3x3_reduce"
  type: "Convolution"
  bottom: "inception_4d/output"
  top: "inception_4e/3x3_reduce"
  param {
    lr_mult: 1
    decay_mult: 1
  }
  param {
    lr_mult: 2
    decay_mult: 0
  }
  convolution_param {
    num_output: 160
    kernel_size: 1
    weight_filler {
      type: "xavier"
      std: 0.09
    }
    bias_filler {
      type: "constant"
      value: 0.2
    }
  }
}
layer {
  name: "inception_4e/relu_3x3_reduce"
  type: "ReLU"
  bottom: "inception_4e/3x3_reduce"
  top: "inception_4e/3x3_reduce"
}
layer {
  name: "inception_4e/3x3"
  type: "Convolution"
  bottom: "inception_4e/3x3_reduce"
  top: "inception_4e/3x3"
  param {
    lr_mult: 1
    decay_mult: 1
  }
  param {
    lr_mult: 2
    decay_mult: 0
  }
  convolution_param {
    num_output: 320
    pad: 1
    kernel_size: 3
    weight_filler {
      type: "xavier"
      std: 0.03
    }
    bias_filler {
      type: "constant"
      value: 0.2
    }
  }
}
layer {
  name: "inception_4e/relu_3x3"
  type: "ReLU"
  bottom: "inception_4e/3x3"
  top: "inception_4e/3x3"
}
layer {
  name: "inception_4e/5x5_reduce"
  type: "Convolution"
  bottom: "inception_4d/output"
  top: "inception_4e/5x5_reduce"
  param {
    lr_mult: 1
    decay_mult: 1
  }
  param {
    lr_mult: 2
    decay_mult: 0
  }
  convolution_param {
    num_output: 32
    kernel_size: 1
    weight_filler {
      type: "xavier"
      std: 0.2
    }
    bias_filler {
      type: "constant"
      value: 0.2
    }
  }
}
layer {
  name: "inception_4e/relu_5x5_reduce"
  type: "ReLU"
  bottom: "inception_4e/5x5_reduce"
  top: "inception_4e/5x5_reduce"
}
layer {
  name: "inception_4e/5x5"
  type: "Convolution"
  bottom: "inception_4e/5x5_reduce"
  top: "inception_4e/5x5"
  param {
    lr_mult: 1
    decay_mult: 1
  }
  param {
    lr_mult: 2
    decay_mult: 0
  }
  convolution_param {
    num_output: 128
    pad: 2
    kernel_size: 5
    weight_filler {
      type: "xavier"
      std: 0.03
    }
    bias_filler {
      type: "constant"
      value: 0.2
    }
  }
}
layer {
  name: "inception_4e/relu_5x5"
  type: "ReLU"
  bottom: "inception_4e/5x5"
  top: "inception_4e/5x5"
}
layer {
  name: "inception_4e/pool"
  type: "Pooling"
  bottom: "inception_4d/output"
  top: "inception_4e/pool"
  pooling_param {
    pool: MAX
    kernel_size: 3
    stride: 1
    pad: 1
  }
}
layer {
  name: "inception_4e/pool_proj"
  type: "Convolution"
  bottom: "inception_4e/pool"
  top: "inception_4e/pool_proj"
  param {
    lr_mult: 1
    decay_mult: 1
  }
  param {
    lr_mult: 2
    decay_mult: 0
  }
  convolution_param {
    num_output: 128
    kernel_size: 1
    weight_filler {
      type: "xavier"
      std: 0.1
    }
    bias_filler {
      type: "constant"
      value: 0.2
    }
  }
}
layer {
  name: "inception_4e/relu_pool_proj"
  type: "ReLU"
  bottom: "inception_4e/pool_proj"
  top: "inception_4e/pool_proj"
}
layer {
  name: "inception_4e/output"
  type: "Concat"
  bottom: "inception_4e/1x1"
  bottom: "inception_4e/3x3"
  bottom: "inception_4e/5x5"
  bottom: "inception_4e/pool_proj"
  top: "inception_4e/output"
}
layer {
  name: "pool4/3x3_s2"
  type: "Pooling"
  bottom: "inception_4e/output"
  top: "pool4/3x3_s2"
  pooling_param {
    pool: MAX
    kernel_size: 3
    stride: 2
  }
}
layer {
  name: "inception_5a/1x1"
  type: "Convolution"
  bottom: "pool4/3x3_s2"
  top: "inception_5a/1x1"
  param {
    lr_mult: 1
    decay_mult: 1
  }
  param {
    lr_mult: 2
    decay_mult: 0
  }
  convolution_param {
    num_output: 256
    kernel_size: 1
    weight_filler {
      type: "xavier"
      std: 0.03
    }
    bias_filler {
      type: "constant"
      value: 0.2
    }
  }
}
layer {
  name: "inception_5a/relu_1x1"
  type: "ReLU"
  bottom: "inception_5a/1x1"
  top: "inception_5a/1x1"
}
layer {
  name: "inception_5a/3x3_reduce"
  type: "Convolution"
  bottom: "pool4/3x3_s2"
  top: "inception_5a/3x3_reduce"
  param {
    lr_mult: 1
    decay_mult: 1
  }
  param {
    lr_mult: 2
    decay_mult: 0
  }
  convolution_param {
    num_output: 160
    kernel_size: 1
    weight_filler {
      type: "xavier"
      std: 0.09
    }
    bias_filler {
      type: "constant"
      value: 0.2
    }
  }
}
layer {
  name: "inception_5a/relu_3x3_reduce"
  type: "ReLU"
  bottom: "inception_5a/3x3_reduce"
  top: "inception_5a/3x3_reduce"
}
layer {
  name: "inception_5a/3x3"
  type: "Convolution"
  bottom: "inception_5a/3x3_reduce"
  top: "inception_5a/3x3"
  param {
    lr_mult: 1
    decay_mult: 1
  }
  param {
    lr_mult: 2
    decay_mult: 0
  }
  convolution_param {
    num_output: 320
    pad: 1
    kernel_size: 3
    weight_filler {
      type: "xavier"
      std: 0.03
    }
    bias_filler {
      type: "constant"
      value: 0.2
    }
  }
}
layer {
  name: "inception_5a/relu_3x3"
  type: "ReLU"
  bottom: "inception_5a/3x3"
  top: "inception_5a/3x3"
}
layer {
  name: "inception_5a/5x5_reduce"
  type: "Convolution"
  bottom: "pool4/3x3_s2"
  top: "inception_5a/5x5_reduce"
  param {
    lr_mult: 1
    decay_mult: 1
  }
  param {
    lr_mult: 2
    decay_mult: 0
  }
  convolution_param {
    num_output: 32
    kernel_size: 1
    weight_filler {
      type: "xavier"
      std: 0.2
    }
    bias_filler {
      type: "constant"
      value: 0.2
    }
I0924 00:57:31.839442 29928 layer_factory.hpp:77] Creating layer data
I0924 00:57:31.839474 29928 net.cpp:91] Creating Layer data
I0924 00:57:31.839485 29928 net.cpp:399] data -> data
I0924 00:57:32.382154 29928 net.cpp:141] Setting up data
I0924 00:57:32.382239 29928 net.cpp:148] Top shape: 10 3 224 224 (1505280)
I0924 00:57:32.382248 29928 net.cpp:156] Memory required for data: 6021120
I0924 00:57:32.382272 29928 layer_factory.hpp:77] Creating layer conv1/7x7_s2
I0924 00:57:32.382313 29928 net.cpp:91] Creating Layer conv1/7x7_s2
I0924 00:57:32.382323 29928 net.cpp:425] conv1/7x7_s2 <- data
I0924 00:57:32.382340 29928 net.cpp:399] conv1/7x7_s2 -> conv1/7x7_s2
I0924 00:57:32.573680 29928 net.cpp:141] Setting up conv1/7x7_s2
I0924 00:57:32.573734 29928 net.cpp:148] Top shape: 10 64 112 112 (8028160)
I0924 00:57:32.573740 29928 net.cpp:156] Memory required for data: 38133760
I0924 00:57:32.573766 29928 layer_factory.hpp:77] Creating layer conv1/relu_7x7
I0924 00:57:32.573784 29928 net.cpp:91] Creating Layer conv1/relu_7x7
I0924 00:57:32.573791 29928 net.cpp:425] conv1/relu_7x7 <- conv1/7x7_s2
I0924 00:57:32.573799 29928 net.cpp:386] conv1/relu_7x7 -> conv1/7x7_s2 (in-place)
I0924 00:57:32.574239 29928 net.cpp:141] Setting up conv1/relu_7x7
I0924 00:57:32.574255 29928 net.cpp:148] Top shape: 10 64 112 112 (8028160)
I0924 00:57:32.574260 29928 net.cpp:156] Memory required for data: 70246400
I0924 00:57:32.574268 29928 layer_factory.hpp:77] Creating layer pool1/3x3_s2
I0924 00:57:32.574283 29928 net.cpp:91] Creating Layer pool1/3x3_s2
I0924 00:57:32.574288 29928 net.cpp:425] pool1/3x3_s2 <- conv1/7x7_s2
I0924 00:57:32.574296 29928 net.cpp:399] pool1/3x3_s2 -> pool1/3x3_s2
I0924 00:57:32.574381 29928 net.cpp:141] Setting up pool1/3x3_s2
I0924 00:57:32.574393 29928 net.cpp:148] Top shape: 10 64 56 56 (2007040)
I0924 00:57:32.574398 29928 net.cpp:156] Memory required for data: 78274560
I0924 00:57:32.574404 29928 layer_factory.hpp:77] Creating layer pool1/norm1
I0924 00:57:32.574432 29928 net.cpp:91] Creating Layer pool1/norm1
I0924 00:57:32.574441 29928 net.cpp:425] pool1/norm1 <- pool1/3x3_s2
I0924 00:57:32.574453 29928 net.cpp:399] pool1/norm1 -> pool1/norm1
I0924 00:57:32.574769 29928 net.cpp:141] Setting up pool1/norm1
I0924 00:57:32.574782 29928 net.cpp:148] Top shape: 10 64 56 56 (2007040)
I0924 00:57:32.574787 29928 net.cpp:156] Memory required for data: 86302720
I0924 00:57:32.574793 29928 layer_factory.hpp:77] Creating layer conv2/3x3_reduce
I0924 00:57:32.574815 29928 net.cpp:91] Creating Layer conv2/3x3_reduce
I0924 00:57:32.574821 29928 net.cpp:425] conv2/3x3_reduce <- pool1/norm1
I0924 00:57:32.574833 29928 net.cpp:399] conv2/3x3_reduce -> conv2/3x3_reduce
I0924 00:57:32.577055 29928 net.cpp:141] Setting up conv2/3x3_reduce
I0924 00:57:32.577078 29928 net.cpp:148] Top shape: 10 64 56 56 (2007040)
I0924 00:57:32.577085 29928 net.cpp:156] Memory required for data: 94330880
I0924 00:57:32.577100 29928 layer_factory.hpp:77] Creating layer conv2/relu_3x3_reduce
I0924 00:57:32.577113 29928 net.cpp:91] Creating Layer conv2/relu_3x3_reduce
I0924 00:57:32.577118 29928 net.cpp:425] conv2/relu_3x3_reduce <- conv2/3x3_reduce
I0924 00:57:32.577126 29928 net.cpp:386] conv2/relu_3x3_reduce -> conv2/3x3_reduce (in-place)
I0924 00:57:32.577553 29928 net.cpp:141] Setting up conv2/relu_3x3_reduce
I0924 00:57:32.577566 29928 net.cpp:148] Top shape: 10 64 56 56 (2007040)
I0924 00:57:32.577571 29928 net.cpp:156] Memory required for data: 102359040
I0924 00:57:32.577579 29928 layer_factory.hpp:77] Creating layer conv2/3x3
I0924 00:57:32.577596 29928 net.cpp:91] Creating Layer conv2/3x3
I0924 00:57:32.577603 29928 net.cpp:425] conv2/3x3 <- conv2/3x3_reduce
I0924 00:57:32.577615 29928 net.cpp:399] conv2/3x3 -> conv2/3x3
I0924 00:57:32.580976 29928 net.cpp:141] Setting up conv2/3x3
I0924 00:57:32.580998 29928 net.cpp:148] Top shape: 10 192 56 56 (6021120)
I0924 00:57:32.581004 29928 net.cpp:156] Memory required for data: 126443520
I0924 00:57:32.581022 29928 layer_factory.hpp:77] Creating layer conv2/relu_3x3
I0924 00:57:32.581032 29928 net.cpp:91] Creating Layer conv2/relu_3x3
I0924 00:57:32.581038 29928 net.cpp:425] conv2/relu_3x3 <- conv2/3x3
I0924 00:57:32.581048 29928 net.cpp:386] conv2/relu_3x3 -> conv2/3x3 (in-place)
I0924 00:57:32.581315 29928 net.cpp:141] Setting up conv2/relu_3x3
I0924 00:57:32.581329 29928 net.cpp:148] Top shape: 10 192 56 56 (6021120)
I0924 00:57:32.581334 29928 net.cpp:156] Memory required for data: 150528000
I0924 00:57:32.581339 29928 layer_factory.hpp:77] Creating layer conv2/norm2
I0924 00:57:32.581351 29928 net.cpp:91] Creating Layer conv2/norm2
I0924 00:57:32.581357 29928 net.cpp:425] conv2/norm2 <- conv2/3x3
I0924 00:57:32.581364 29928 net.cpp:399] conv2/norm2 -> conv2/norm2
I0924 00:57:32.581837 29928 net.cpp:141] Setting up conv2/norm2
I0924 00:57:32.581851 29928 net.cpp:148] Top shape: 10 192 56 56 (6021120)
I0924 00:57:32.581856 29928 net.cpp:156] Memory required for data: 174612480
I0924 00:57:32.581861 29928 layer_factory.hpp:77] Creating layer pool2/3x3_s2
I0924 00:57:32.581873 29928 net.cpp:91] Creating Layer pool2/3x3_s2
I0924 00:57:32.581879 29928 net.cpp:425] pool2/3x3_s2 <- conv2/norm2
I0924 00:57:32.581889 29928 net.cpp:399] pool2/3x3_s2 -> pool2/3x3_s2
I0924 00:57:32.581946 29928 net.cpp:141] Setting up pool2/3x3_s2
I0924 00:57:32.581956 29928 net.cpp:148] Top shape: 10 192 28 28 (1505280)
I0924 00:57:32.581961 29928 net.cpp:156] Memory required for data: 180633600
I0924 00:57:32.581967 29928 layer_factory.hpp:77] Creating layer pool2/3x3_s2_pool2/3x3_s2_0_split
I0924 00:57:32.581984 29928 net.cpp:91] Creating Layer pool2/3x3_s2_pool2/3x3_s2_0_split
I0924 00:57:32.581989 29928 net.cpp:425] pool2/3x3_s2_pool2/3x3_s2_0_split <- pool2/3x3_s2
I0924 00:57:32.581996 29928 net.cpp:399] pool2/3x3_s2_pool2/3x3_s2_0_split -> pool2/3x3_s2_pool2/3x3_s2_0_split_0
I0924 00:57:32.582018 29928 net.cpp:399] pool2/3x3_s2_pool2/3x3_s2_0_split -> pool2/3x3_s2_pool2/3x3_s2_0_split_1
I0924 00:57:32.582033 29928 net.cpp:399] pool2/3x3_s2_pool2/3x3_s2_0_split -> pool2/3x3_s2_pool2/3x3_s2_0_split_2
I0924 00:57:32.582042 29928 net.cpp:399] pool2/3x3_s2_pool2/3x3_s2_0_split -> pool2/3x3_s2_pool2/3x3_s2_0_split_3
I0924 00:57:32.582125 29928 net.cpp:141] Setting up pool2/3x3_s2_pool2/3x3_s2_0_split
I0924 00:57:32.582136 29928 net.cpp:148] Top shape: 10 192 28 28 (1505280)
I0924 00:57:32.582142 29928 net.cpp:148] Top shape: 10 192 28 28 (1505280)
I0924 00:57:32.582149 29928 net.cpp:148] Top shape: 10 192 28 28 (1505280)
I0924 00:57:32.582154 29928 net.cpp:148] Top shape: 10 192 28 28 (1505280)
I0924 00:57:32.582159 29928 net.cpp:156] Memory required for data: 204718080
I0924 00:57:32.582164 29928 layer_factory.hpp:77] Creating layer inception_3a/1x1
I0924 00:57:32.582182 29928 net.cpp:91] Creating Layer inception_3a/1x1
I0924 00:57:32.582188 29928 net.cpp:425] inception_3a/1x1 <- pool2/3x3_s2_pool2/3x3_s2_0_split_0
I0924 00:57:32.582213 29928 net.cpp:399] inception_3a/1x1 -> inception_3a/1x1
I0924 00:57:32.584329 29928 net.cpp:141] Setting up inception_3a/1x1
I0924 00:57:32.584352 29928 net.cpp:148] Top shape: 10 64 28 28 (501760)
I0924 00:57:32.584357 29928 net.cpp:156] Memory required for data: 206725120
I0924 00:57:32.584367 29928 layer_factory.hpp:77] Creating layer inception_3a/relu_1x1
I0924 00:57:32.584378 29928 net.cpp:91] Creating Layer inception_3a/relu_1x1
I0924 00:57:32.584384 29928 net.cpp:425] inception_3a/relu_1x1 <- inception_3a/1x1
I0924 00:57:32.584393 29928 net.cpp:386] inception_3a/relu_1x1 -> inception_3a/1x1 (in-place)
I0924 00:57:32.584820 29928 net.cpp:141] Setting up inception_3a/relu_1x1
I0924 00:57:32.584834 29928 net.cpp:148] Top shape: 10 64 28 28 (501760)
I0924 00:57:32.584839 29928 net.cpp:156] Memory required for data: 208732160
I0924 00:57:32.584844 29928 layer_factory.hpp:77] Creating layer inception_3a/3x3_reduce
I0924 00:57:32.584862 29928 net.cpp:91] Creating Layer inception_3a/3x3_reduce
I0924 00:57:32.584869 29928 net.cpp:425] inception_3a/3x3_reduce <- pool2/3x3_s2_pool2/3x3_s2_0_split_1
I0924 00:57:32.584882 29928 net.cpp:399] inception_3a/3x3_reduce -> inception_3a/3x3_reduce
I0924 00:57:32.587435 29928 net.cpp:141] Setting up inception_3a/3x3_reduce
I0924 00:57:32.587466 29928 net.cpp:148] Top shape: 10 96 28 28 (752640)
I0924 00:57:32.587473 29928 net.cpp:156] Memory required for data: 211742720
I0924 00:57:32.587489 29928 layer_factory.hpp:77] Creating layer inception_3a/relu_3x3_reduce
I0924 00:57:32.587499 29928 net.cpp:91] Creating Layer inception_3a/relu_3x3_reduce
I0924 00:57:32.587505 29928 net.cpp:425] inception_3a/relu_3x3_reduce <- inception_3a/3x3_reduce
I0924 00:57:32.587519 29928 net.cpp:386] inception_3a/relu_3x3_reduce -> inception_3a/3x3_reduce (in-place)
I0924 00:57:32.587784 29928 net.cpp:141] Setting up inception_3a/relu_3x3_reduce
I0924 00:57:32.587795 29928 net.cpp:148] Top shape: 10 96 28 28 (752640)
I0924 00:57:32.587800 29928 net.cpp:156] Memory required for data: 214753280
I0924 00:57:32.587805 29928 layer_factory.hpp:77] Creating layer inception_3a/3x3
I0924 00:57:32.587829 29928 net.cpp:91] Creating Layer inception_3a/3x3
I0924 00:57:32.587836 29928 net.cpp:425] inception_3a/3x3 <- inception_3a/3x3_reduce
I0924 00:57:32.587844 29928 net.cpp:399] inception_3a/3x3 -> inception_3a/3x3
I0924 00:57:32.590266 29928 net.cpp:141] Setting up inception_3a/3x3
I0924 00:57:32.590287 29928 net.cpp:148] Top shape: 10 128 28 28 (1003520)
I0924 00:57:32.590296 29928 net.cpp:156] Memory required for data: 218767360
I0924 00:57:32.590306 29928 layer_factory.hpp:77] Creating layer inception_3a/relu_3x3
I0924 00:57:32.590314 29928 net.cpp:91] Creating Layer inception_3a/relu_3x3
I0924 00:57:32.590320 29928 net.cpp:425] inception_3a/relu_3x3 <- inception_3a/3x3
I0924 00:57:32.590328 29928 net.cpp:386] inception_3a/relu_3x3 -> inception_3a/3x3 (in-place)
I0924 00:57:32.590782 29928 net.cpp:141] Setting up inception_3a/relu_3x3
I0924 00:57:32.590796 29928 net.cpp:148] Top shape: 10 128 28 28 (1003520)
I0924 00:57:32.590804 29928 net.cpp:156] Memory required for data: 222781440
I0924 00:57:32.590811 29928 layer_factory.hpp:77] Creating layer inception_3a/5x5_reduce
I0924 00:57:32.590826 29928 net.cpp:91] Creating Layer inception_3a/5x5_reduce
I0924 00:57:32.590831 29928 net.cpp:425] inception_3a/5x5_reduce <- pool2/3x3_s2_pool2/3x3_s2_0_split_2
I0924 00:57:32.590845 29928 net.cpp:399] inception_3a/5x5_reduce -> inception_3a/5x5_reduce
I0924 00:57:32.592249 29928 net.cpp:141] Setting up inception_3a/5x5_reduce
I0924 00:57:32.592269 29928 net.cpp:148] Top shape: 10 16 28 28 (125440)
I0924 00:57:32.592275 29928 net.cpp:156] Memory required for data: 223283200
I0924 00:57:32.592285 29928 layer_factory.hpp:77] Creating layer inception_3a/relu_5x5_reduce
I0924 00:57:32.592296 29928 net.cpp:91] Creating Layer inception_3a/relu_5x5_reduce
I0924 00:57:32.592303 29928 net.cpp:425] inception_3a/relu_5x5_reduce <- inception_3a/5x5_reduce
I0924 00:57:32.592314 29928 net.cpp:386] inception_3a/relu_5x5_reduce -> inception_3a/5x5_reduce (in-place)
I0924 00:57:32.592743 29928 net.cpp:141] Setting up inception_3a/relu_5x5_reduce
I0924 00:57:32.592757 29928 net.cpp:148] Top shape: 10 16 28 28 (125440)
I0924 00:57:32.592762 29928 net.cpp:156] Memory required for data: 223784960
I0924 00:57:32.592767 29928 layer_factory.hpp:77] Creating layer inception_3a/5x5
I0924 00:57:32.592784 29928 net.cpp:91] Creating Layer inception_3a/5x5
I0924 00:57:32.592790 29928 net.cpp:425] inception_3a/5x5 <- inception_3a/5x5_reduce
I0924 00:57:32.592803 29928 net.cpp:399] inception_3a/5x5 -> inception_3a/5x5
I0924 00:57:32.594883 29928 net.cpp:141] Setting up inception_3a/5x5
I0924 00:57:32.594910 29928 net.cpp:148] Top shape: 10 32 28 28 (250880)
I0924 00:57:32.594916 29928 net.cpp:156] Memory required for data: 224788480
I0924 00:57:32.594929 29928 layer_factory.hpp:77] Creating layer inception_3a/relu_5x5
I0924 00:57:32.594939 29928 net.cpp:91] Creating Layer inception_3a/relu_5x5
I0924 00:57:32.594945 29928 net.cpp:425] inception_3a/relu_5x5 <- inception_3a/5x5
I0924 00:57:32.594954 29928 net.cpp:386] inception_3a/relu_5x5 -> inception_3a/5x5 (in-place)
I0924 00:57:32.595232 29928 net.cpp:141] Setting up inception_3a/relu_5x5
I0924 00:57:32.595245 29928 net.cpp:148] Top shape: 10 32 28 28 (250880)
I0924 00:57:32.595250 29928 net.cpp:156] Memory required for data: 225792000
I0924 00:57:32.595257 29928 layer_factory.hpp:77] Creating layer inception_3a/pool
I0924 00:57:32.595268 29928 net.cpp:91] Creating Layer inception_3a/pool
I0924 00:57:32.595273 29928 net.cpp:425] inception_3a/pool <- pool2/3x3_s2_pool2/3x3_s2_0_split_3
I0924 00:57:32.595284 29928 net.cpp:399] inception_3a/pool -> inception_3a/pool
I0924 00:57:32.595347 29928 net.cpp:141] Setting up inception_3a/pool
I0924 00:57:32.595357 29928 net.cpp:148] Top shape: 10 192 28 28 (1505280)
I0924 00:57:32.595362 29928 net.cpp:156] Memory required for data: 231813120
I0924 00:57:32.595367 29928 layer_factory.hpp:77] Creating layer inception_3a/pool_proj
I0924 00:57:32.595386 29928 net.cpp:91] Creating Layer inception_3a/pool_proj
I0924 00:57:32.595392 29928 net.cpp:425] inception_3a/pool_proj <- inception_3a/pool
I0924 00:57:32.595403 29928 net.cpp:399] inception_3a/pool_proj -> inception_3a/pool_proj
I0924 00:57:32.596981 29928 net.cpp:141] Setting up inception_3a/pool_proj
I0924 00:57:32.597002 29928 net.cpp:148] Top shape: 10 32 28 28 (250880)
I0924 00:57:32.597007 29928 net.cpp:156] Memory required for data: 232816640
I0924 00:57:32.597025 29928 layer_factory.hpp:77] Creating layer inception_3a/relu_pool_proj
I0924 00:57:32.597041 29928 net.cpp:91] Creating Layer inception_3a/relu_pool_proj
I0924 00:57:32.597048 29928 net.cpp:425] inception_3a/relu_pool_proj <- inception_3a/pool_proj
I0924 00:57:32.597055 29928 net.cpp:386] inception_3a/relu_pool_proj -> inception_3a/pool_proj (in-place)
I0924 00:57:32.597497 29928 net.cpp:141] Setting up inception_3a/relu_pool_proj
I0924 00:57:32.597512 29928 net.cpp:148] Top shape: 10 32 28 28 (250880)
I0924 00:57:32.597517 29928 net.cpp:156] Memory required for data: 233820160
I0924 00:57:32.597522 29928 layer_factory.hpp:77] Creating layer inception_3a/output
I0924 00:57:32.597539 29928 net.cpp:91] Creating Layer inception_3a/output
I0924 00:57:32.597545 29928 net.cpp:425] inception_3a/output <- inception_3a/1x1
I0924 00:57:32.597553 29928 net.cpp:425] inception_3a/output <- inception_3a/3x3
I0924 00:57:32.597558 29928 net.cpp:425] inception_3a/output <- inception_3a/5x5
I0924 00:57:32.597563 29928 net.cpp:425] inception_3a/output <- inception_3a/pool_proj
I0924 00:57:32.597573 29928 net.cpp:399] inception_3a/output -> inception_3a/output
I0924 00:57:32.597620 29928 net.cpp:141] Setting up inception_3a/output
I0924 00:57:32.597630 29928 net.cpp:148] Top shape: 10 256 28 28 (2007040)
I0924 00:57:32.597635 29928 net.cpp:156] Memory required for data: 241848320
I0924 00:57:32.597640 29928 layer_factory.hpp:77] Creating layer inception_3a/output_inception_3a/output_0_split
I0924 00:57:32.597654 29928 net.cpp:91] Creating Layer inception_3a/output_inception_3a/output_0_split
I0924 00:57:32.597661 29928 net.cpp:425] inception_3a/output_inception_3a/output_0_split <- inception_3a/output
I0924 00:57:32.597667 29928 net.cpp:399] inception_3a/output_inception_3a/output_0_split -> inception_3a/output_inception_3a/output_0_split_0
I0924 00:57:32.597679 29928 net.cpp:399] inception_3a/output_inception_3a/output_0_split -> inception_3a/output_inception_3a/output_0_split_1
I0924 00:57:32.597688 29928 net.cpp:399] inception_3a/output_inception_3a/output_0_split -> inception_3a/output_inception_3a/output_0_split_2
I0924 00:57:32.597697 29928 net.cpp:399] inception_3a/output_inception_3a/output_0_split -> inception_3a/output_inception_3a/output_0_split_3
I0924 00:57:32.597782 29928 net.cpp:141] Setting up inception_3a/output_inception_3a/output_0_split
I0924 00:57:32.597792 29928 net.cpp:148] Top shape: 10 256 28 28 (2007040)
I0924 00:57:32.597798 29928 net.cpp:148] Top shape: 10 256 28 28 (2007040)
I0924 00:57:32.597805 29928 net.cpp:148] Top shape: 10 256 28 28 (2007040)
I0924 00:57:32.597810 29928 net.cpp:148] Top shape: 10 256 28 28 (2007040)
I0924 00:57:32.597815 29928 net.cpp:156] Memory required for data: 273960960
I0924 00:57:32.597820 29928 layer_factory.hpp:77] Creating layer inception_3b/1x1
I0924 00:57:32.597834 29928 net.cpp:91] Creating Layer inception_3b/1x1
I0924 00:57:32.597841 29928 net.cpp:425] inception_3b/1x1 <- inception_3a/output_inception_3a/output_0_split_0
I0924 00:57:32.597853 29928 net.cpp:399] inception_3b/1x1 -> inception_3b/1x1
I0924 00:57:32.599474 29928 net.cpp:141] Setting up inception_3b/1x1
I0924 00:57:32.599490 29928 net.cpp:148] Top shape: 10 128 28 28 (1003520)
I0924 00:57:32.599495 29928 net.cpp:156] Memory required for data: 277975040
I0924 00:57:32.599505 29928 layer_factory.hpp:77] Creating layer inception_3b/relu_1x1
I0924 00:57:32.599519 29928 net.cpp:91] Creating Layer inception_3b/relu_1x1
I0924 00:57:32.599525 29928 net.cpp:425] inception_3b/relu_1x1 <- inception_3b/1x1
I0924 00:57:32.599532 29928 net.cpp:386] inception_3b/relu_1x1 -> inception_3b/1x1 (in-place)
I0924 00:57:32.599959 29928 net.cpp:141] Setting up inception_3b/relu_1x1
I0924 00:57:32.599973 29928 net.cpp:148] Top shape: 10 128 28 28 (1003520)
I0924 00:57:32.599977 29928 net.cpp:156] Memory required for data: 281989120
I0924 00:57:32.599983 29928 layer_factory.hpp:77] Creating layer inception_3b/3x3_reduce
I0924 00:57:32.600004 29928 net.cpp:91] Creating Layer inception_3b/3x3_reduce
I0924 00:57:32.600011 29928 net.cpp:425] inception_3b/3x3_reduce <- inception_3a/output_inception_3a/output_0_split_1
I0924 00:57:32.600020 29928 net.cpp:399] inception_3b/3x3_reduce -> inception_3b/3x3_reduce
I0924 00:57:32.601830 29928 net.cpp:141] Setting up inception_3b/3x3_reduce
I0924 00:57:32.601850 29928 net.cpp:148] Top shape: 10 128 28 28 (1003520)
I0924 00:57:32.601856 29928 net.cpp:156] Memory required for data: 286003200
I0924 00:57:32.601866 29928 layer_factory.hpp:77] Creating layer inception_3b/relu_3x3_reduce
I0924 00:57:32.601879 29928 net.cpp:91] Creating Layer inception_3b/relu_3x3_reduce
I0924 00:57:32.601886 29928 net.cpp:425] inception_3b/relu_3x3_reduce <- inception_3b/3x3_reduce
I0924 00:57:32.601894 29928 net.cpp:386] inception_3b/relu_3x3_reduce -> inception_3b/3x3_reduce (in-place)
I0924 00:57:32.602152 29928 net.cpp:141] Setting up inception_3b/relu_3x3_reduce
I0924 00:57:32.602164 29928 net.cpp:148] Top shape: 10 128 28 28 (1003520)
I0924 00:57:32.602169 29928 net.cpp:156] Memory required for data: 290017280
I0924 00:57:32.602175 29928 layer_factory.hpp:77] Creating layer inception_3b/3x3
I0924 00:57:32.602192 29928 net.cpp:91] Creating Layer inception_3b/3x3
I0924 00:57:32.602200 29928 net.cpp:425] inception_3b/3x3 <- inception_3b/3x3_reduce
I0924 00:57:32.602208 29928 net.cpp:399] inception_3b/3x3 -> inception_3b/3x3
I0924 00:57:32.606462 29928 net.cpp:141] Setting up inception_3b/3x3
I0924 00:57:32.606488 29928 net.cpp:148] Top shape: 10 192 28 28 (1505280)
I0924 00:57:32.606494 29928 net.cpp:156] Memory required for data: 296038400
I0924 00:57:32.606504 29928 layer_factory.hpp:77] Creating layer inception_3b/relu_3x3
I0924 00:57:32.606528 29928 net.cpp:91] Creating Layer inception_3b/relu_3x3
I0924 00:57:32.606534 29928 net.cpp:425] inception_3b/relu_3x3 <- inception_3b/3x3
I0924 00:57:32.606545 29928 net.cpp:386] inception_3b/relu_3x3 -> inception_3b/3x3 (in-place)
I0924 00:57:32.607018 29928 net.cpp:141] Setting up inception_3b/relu_3x3
I0924 00:57:32.607033 29928 net.cpp:148] Top shape: 10 192 28 28 (1505280)
I0924 00:57:32.607038 29928 net.cpp:156] Memory required for data: 302059520
I0924 00:57:32.607045 29928 layer_factory.hpp:77] Creating layer inception_3b/5x5_reduce
I0924 00:57:32.607062 29928 net.cpp:91] Creating Layer inception_3b/5x5_reduce
I0924 00:57:32.607069 29928 net.cpp:425] inception_3b/5x5_reduce <- inception_3a/output_inception_3a/output_0_split_2
I0924 00:57:32.607079 29928 net.cpp:399] inception_3b/5x5_reduce -> inception_3b/5x5_reduce
I0924 00:57:32.608515 29928 net.cpp:141] Setting up inception_3b/5x5_reduce
I0924 00:57:32.608535 29928 net.cpp:148] Top shape: 10 32 28 28 (250880)
I0924 00:57:32.608539 29928 net.cpp:156] Memory required for data: 303063040
I0924 00:57:32.608549 29928 layer_factory.hpp:77] Creating layer inception_3b/relu_5x5_reduce
I0924 00:57:32.608563 29928 net.cpp:91] Creating Layer inception_3b/relu_5x5_reduce
I0924 00:57:32.608570 29928 net.cpp:425] inception_3b/relu_5x5_reduce <- inception_3b/5x5_reduce
I0924 00:57:32.608580 29928 net.cpp:386] inception_3b/relu_5x5_reduce -> inception_3b/5x5_reduce (in-place)
I0924 00:57:32.609014 29928 net.cpp:141] Setting up inception_3b/relu_5x5_reduce
I0924 00:57:32.609028 29928 net.cpp:148] Top shape: 10 32 28 28 (250880)
I0924 00:57:32.609033 29928 net.cpp:156] Memory required for data: 304066560
I0924 00:57:32.609038 29928 layer_factory.hpp:77] Creating layer inception_3b/5x5
I0924 00:57:32.609058 29928 net.cpp:91] Creating Layer inception_3b/5x5
I0924 00:57:32.609066 29928 net.cpp:425] inception_3b/5x5 <- inception_3b/5x5_reduce
I0924 00:57:32.609076 29928 net.cpp:399] inception_3b/5x5 -> inception_3b/5x5
I0924 00:57:32.612026 29928 net.cpp:141] Setting up inception_3b/5x5
I0924 00:57:32.612047 29928 net.cpp:148] Top shape: 10 96 28 28 (752640)
I0924 00:57:32.612053 29928 net.cpp:156] Memory required for data: 307077120
I0924 00:57:32.612062 29928 layer_factory.hpp:77] Creating layer inception_3b/relu_5x5
I0924 00:57:32.612076 29928 net.cpp:91] Creating Layer inception_3b/relu_5x5
I0924 00:57:32.612082 29928 net.cpp:425] inception_3b/relu_5x5 <- inception_3b/5x5
I0924 00:57:32.612089 29928 net.cpp:386] inception_3b/relu_5x5 -> inception_3b/5x5 (in-place)
I0924 00:57:32.612350 29928 net.cpp:141] Setting up inception_3b/relu_5x5
I0924 00:57:32.612362 29928 net.cpp:148] Top shape: 10 96 28 28 (752640)
I0924 00:57:32.612367 29928 net.cpp:156] Memory required for data: 310087680
I0924 00:57:32.612375 29928 layer_factory.hpp:77] Creating layer inception_3b/pool
I0924 00:57:32.612398 29928 net.cpp:91] Creating Layer inception_3b/pool
I0924 00:57:32.612408 29928 net.cpp:425] inception_3b/pool <- inception_3a/output_inception_3a/output_0_split_3
I0924 00:57:32.612421 29928 net.cpp:399] inception_3b/pool -> inception_3b/pool
I0924 00:57:32.612490 29928 net.cpp:141] Setting up inception_3b/pool
I0924 00:57:32.612501 29928 net.cpp:148] Top shape: 10 256 28 28 (2007040)
I0924 00:57:32.612505 29928 net.cpp:156] Memory required for data: 318115840
I0924 00:57:32.612510 29928 layer_factory.hpp:77] Creating layer inception_3b/pool_proj
I0924 00:57:32.612529 29928 net.cpp:91] Creating Layer inception_3b/pool_proj
I0924 00:57:32.612534 29928 net.cpp:425] inception_3b/pool_proj <- inception_3b/pool
I0924 00:57:32.612548 29928 net.cpp:399] inception_3b/pool_proj -> inception_3b/pool_proj
I0924 00:57:32.614253 29928 net.cpp:141] Setting up inception_3b/pool_proj
I0924 00:57:32.614272 29928 net.cpp:148] Top shape: 10 64 28 28 (501760)
I0924 00:57:32.614279 29928 net.cpp:156] Memory required for data: 320122880
I0924 00:57:32.614287 29928 layer_factory.hpp:77] Creating layer inception_3b/relu_pool_proj
I0924 00:57:32.614297 29928 net.cpp:91] Creating Layer inception_3b/relu_pool_proj
I0924 00:57:32.614303 29928 net.cpp:425] inception_3b/relu_pool_proj <- inception_3b/pool_proj
I0924 00:57:32.614313 29928 net.cpp:386] inception_3b/relu_pool_proj -> inception_3b/pool_proj (in-place)
I0924 00:57:32.614771 29928 net.cpp:141] Setting up inception_3b/relu_pool_proj
I0924 00:57:32.614786 29928 net.cpp:148] Top shape: 10 64 28 28 (501760)
I0924 00:57:32.614791 29928 net.cpp:156] Memory required for data: 322129920
I0924 00:57:32.614796 29928 layer_factory.hpp:77] Creating layer inception_3b/output
I0924 00:57:32.614807 29928 net.cpp:91] Creating Layer inception_3b/output
I0924 00:57:32.614814 29928 net.cpp:425] inception_3b/output <- inception_3b/1x1
I0924 00:57:32.614820 29928 net.cpp:425] inception_3b/output <- inception_3b/3x3
I0924 00:57:32.614826 29928 net.cpp:425] inception_3b/output <- inception_3b/5x5
I0924 00:57:32.614831 29928 net.cpp:425] inception_3b/output <- inception_3b/pool_proj
I0924 00:57:32.614841 29928 net.cpp:399] inception_3b/output -> inception_3b/output
I0924 00:57:32.614888 29928 net.cpp:141] Setting up inception_3b/output
I0924 00:57:32.614897 29928 net.cpp:148] Top shape: 10 480 28 28 (3763200)
I0924 00:57:32.614902 29928 net.cpp:156] Memory required for data: 337182720
I0924 00:57:32.614909 29928 layer_factory.hpp:77] Creating layer pool3/3x3_s2
I0924 00:57:32.614923 29928 net.cpp:91] Creating Layer pool3/3x3_s2
I0924 00:57:32.614929 29928 net.cpp:425] pool3/3x3_s2 <- inception_3b/output
I0924 00:57:32.614936 29928 net.cpp:399] pool3/3x3_s2 -> pool3/3x3_s2
I0924 00:57:32.615005 29928 net.cpp:141] Setting up pool3/3x3_s2
I0924 00:57:32.615018 29928 net.cpp:148] Top shape: 10 480 14 14 (940800)
I0924 00:57:32.615022 29928 net.cpp:156] Memory required for data: 340945920
I0924 00:57:32.615027 29928 layer_factory.hpp:77] Creating layer pool3/3x3_s2_pool3/3x3_s2_0_split
I0924 00:57:32.615036 29928 net.cpp:91] Creating Layer pool3/3x3_s2_pool3/3x3_s2_0_split
I0924 00:57:32.615041 29928 net.cpp:425] pool3/3x3_s2_pool3/3x3_s2_0_split <- pool3/3x3_s2
I0924 00:57:32.615048 29928 net.cpp:399] pool3/3x3_s2_pool3/3x3_s2_0_split -> pool3/3x3_s2_pool3/3x3_s2_0_split_0
I0924 00:57:32.615057 29928 net.cpp:399] pool3/3x3_s2_pool3/3x3_s2_0_split -> pool3/3x3_s2_pool3/3x3_s2_0_split_1
I0924 00:57:32.615072 29928 net.cpp:399] pool3/3x3_s2_pool3/3x3_s2_0_split -> pool3/3x3_s2_pool3/3x3_s2_0_split_2
I0924 00:57:32.615080 29928 net.cpp:399] pool3/3x3_s2_pool3/3x3_s2_0_split -> pool3/3x3_s2_pool3/3x3_s2_0_split_3
I0924 00:57:32.615170 29928 net.cpp:141] Setting up pool3/3x3_s2_pool3/3x3_s2_0_split
I0924 00:57:32.615180 29928 net.cpp:148] Top shape: 10 480 14 14 (940800)
I0924 00:57:32.615185 29928 net.cpp:148] Top shape: 10 480 14 14 (940800)
I0924 00:57:32.615191 29928 net.cpp:148] Top shape: 10 480 14 14 (940800)
I0924 00:57:32.615196 29928 net.cpp:148] Top shape: 10 480 14 14 (940800)
I0924 00:57:32.615201 29928 net.cpp:156] Memory required for data: 355998720
I0924 00:57:32.615206 29928 layer_factory.hpp:77] Creating layer inception_4a/1x1
I0924 00:57:32.615222 29928 net.cpp:91] Creating Layer inception_4a/1x1
I0924 00:57:32.615228 29928 net.cpp:425] inception_4a/1x1 <- pool3/3x3_s2_pool3/3x3_s2_0_split_0
I0924 00:57:32.615241 29928 net.cpp:399] inception_4a/1x1 -> inception_4a/1x1
I0924 00:57:32.617586 29928 net.cpp:141] Setting up inception_4a/1x1
I0924 00:57:32.617609 29928 net.cpp:148] Top shape: 10 192 14 14 (376320)
I0924 00:57:32.617614 29928 net.cpp:156] Memory required for data: 357504000
I0924 00:57:32.617624 29928 layer_factory.hpp:77] Creating layer inception_4a/relu_1x1
I0924 00:57:32.617640 29928 net.cpp:91] Creating Layer inception_4a/relu_1x1
I0924 00:57:32.617645 29928 net.cpp:425] inception_4a/relu_1x1 <- inception_4a/1x1
I0924 00:57:32.617653 29928 net.cpp:386] inception_4a/relu_1x1 -> inception_4a/1x1 (in-place)
I0924 00:57:32.618104 29928 net.cpp:141] Setting up inception_4a/relu_1x1
I0924 00:57:32.618119 29928 net.cpp:148] Top shape: 10 192 14 14 (376320)
I0924 00:57:32.618124 29928 net.cpp:156] Memory required for data: 359009280
I0924 00:57:32.618129 29928 layer_factory.hpp:77] Creating layer inception_4a/3x3_reduce
I0924 00:57:32.618151 29928 net.cpp:91] Creating Layer inception_4a/3x3_reduce
I0924 00:57:32.618158 29928 net.cpp:425] inception_4a/3x3_reduce <- pool3/3x3_s2_pool3/3x3_s2_0_split_1
I0924 00:57:32.618168 29928 net.cpp:399] inception_4a/3x3_reduce -> inception_4a/3x3_reduce
I0924 00:57:32.620249 29928 net.cpp:141] Setting up inception_4a/3x3_reduce
I0924 00:57:32.620280 29928 net.cpp:148] Top shape: 10 96 14 14 (188160)
I0924 00:57:32.620286 29928 net.cpp:156] Memory required for data: 359761920
I0924 00:57:32.620311 29928 layer_factory.hpp:77] Creating layer inception_4a/relu_3x3_reduce
I0924 00:57:32.620326 29928 net.cpp:91] Creating Layer inception_4a/relu_3x3_reduce
I0924 00:57:32.620334 29928 net.cpp:425] inception_4a/relu_3x3_reduce <- inception_4a/3x3_reduce
I0924 00:57:32.620343 29928 net.cpp:386] inception_4a/relu_3x3_reduce -> inception_4a/3x3_reduce (in-place)
I0924 00:57:32.620602 29928 net.cpp:141] Setting up inception_4a/relu_3x3_reduce
I0924 00:57:32.620615 29928 net.cpp:148] Top shape: 10 96 14 14 (188160)
I0924 00:57:32.620620 29928 net.cpp:156] Memory required for data: 360514560
I0924 00:57:32.620625 29928 layer_factory.hpp:77] Creating layer inception_4a/3x3
I0924 00:57:32.620648 29928 net.cpp:91] Creating Layer inception_4a/3x3
I0924 00:57:32.620654 29928 net.cpp:425] inception_4a/3x3 <- inception_4a/3x3_reduce
I0924 00:57:32.620664 29928 net.cpp:399] inception_4a/3x3 -> inception_4a/3x3
I0924 00:57:32.624542 29928 net.cpp:141] Setting up inception_4a/3x3
I0924 00:57:32.624558 29928 net.cpp:148] Top shape: 10 208 14 14 (407680)
I0924 00:57:32.624564 29928 net.cpp:156] Memory required for data: 362145280
I0924 00:57:32.624577 29928 layer_factory.hpp:77] Creating layer inception_4a/relu_3x3
I0924 00:57:32.624586 29928 net.cpp:91] Creating Layer inception_4a/relu_3x3
I0924 00:57:32.624593 29928 net.cpp:425] inception_4a/relu_3x3 <- inception_4a/3x3
I0924 00:57:32.624600 29928 net.cpp:386] inception_4a/relu_3x3 -> inception_4a/3x3 (in-place)
I0924 00:57:32.625057 29928 net.cpp:141] Setting up inception_4a/relu_3x3
I0924 00:57:32.625072 29928 net.cpp:148] Top shape: 10 208 14 14 (407680)
I0924 00:57:32.625077 29928 net.cpp:156] Memory required for data: 363776000
I0924 00:57:32.625082 29928 layer_factory.hpp:77] Creating layer inception_4a/5x5_reduce
I0924 00:57:32.625099 29928 net.cpp:91] Creating Layer inception_4a/5x5_reduce
I0924 00:57:32.625107 29928 net.cpp:425] inception_4a/5x5_reduce <- pool3/3x3_s2_pool3/3x3_s2_0_split_2
I0924 00:57:32.625119 29928 net.cpp:399] inception_4a/5x5_reduce -> inception_4a/5x5_reduce
I0924 00:57:32.626605 29928 net.cpp:141] Setting up inception_4a/5x5_reduce
I0924 00:57:32.626621 29928 net.cpp:148] Top shape: 10 16 14 14 (31360)
I0924 00:57:32.626629 29928 net.cpp:156] Memory required for data: 363901440
I0924 00:57:32.626639 29928 layer_factory.hpp:77] Creating layer inception_4a/relu_5x5_reduce
I0924 00:57:32.626651 29928 net.cpp:91] Creating Layer inception_4a/relu_5x5_reduce
I0924 00:57:32.626657 29928 net.cpp:425] inception_4a/relu_5x5_reduce <- inception_4a/5x5_reduce
I0924 00:57:32.626664 29928 net.cpp:386] inception_4a/relu_5x5_reduce -> inception_4a/5x5_reduce (in-place)
I0924 00:57:32.627109 29928 net.cpp:141] Setting up inception_4a/relu_5x5_reduce
I0924 00:57:32.627122 29928 net.cpp:148] Top shape: 10 16 14 14 (31360)
I0924 00:57:32.627130 29928 net.cpp:156] Memory required for data: 364026880
I0924 00:57:32.627135 29928 layer_factory.hpp:77] Creating layer inception_4a/5x5
I0924 00:57:32.627151 29928 net.cpp:91] Creating Layer inception_4a/5x5
I0924 00:57:32.627157 29928 net.cpp:425] inception_4a/5x5 <- inception_4a/5x5_reduce
I0924 00:57:32.627171 29928 net.cpp:399] inception_4a/5x5 -> inception_4a/5x5
I0924 00:57:32.628906 29928 net.cpp:141] Setting up inception_4a/5x5
I0924 00:57:32.628921 29928 net.cpp:148] Top shape: 10 48 14 14 (94080)
I0924 00:57:32.628926 29928 net.cpp:156] Memory required for data: 364403200
I0924 00:57:32.628936 29928 layer_factory.hpp:77] Creating layer inception_4a/relu_5x5
I0924 00:57:32.628950 29928 net.cpp:91] Creating Layer inception_4a/relu_5x5
I0924 00:57:32.628957 29928 net.cpp:425] inception_4a/relu_5x5 <- inception_4a/5x5
I0924 00:57:32.628965 29928 net.cpp:386] inception_4a/relu_5x5 -> inception_4a/5x5 (in-place)
I0924 00:57:32.629223 29928 net.cpp:141] Setting up inception_4a/relu_5x5
I0924 00:57:32.629236 29928 net.cpp:148] Top shape: 10 48 14 14 (94080)
I0924 00:57:32.629241 29928 net.cpp:156] Memory required for data: 364779520
I0924 00:57:32.629246 29928 layer_factory.hpp:77] Creating layer inception_4a/pool
I0924 00:57:32.629256 29928 net.cpp:91] Creating Layer inception_4a/pool
I0924 00:57:32.629262 29928 net.cpp:425] inception_4a/pool <- pool3/3x3_s2_pool3/3x3_s2_0_split_3
I0924 00:57:32.629274 29928 net.cpp:399] inception_4a/pool -> inception_4a/pool
I0924 00:57:32.629341 29928 net.cpp:141] Setting up inception_4a/pool
I0924 00:57:32.629351 29928 net.cpp:148] Top shape: 10 480 14 14 (940800)
I0924 00:57:32.629356 29928 net.cpp:156] Memory required for data: 368542720
I0924 00:57:32.629361 29928 layer_factory.hpp:77] Creating layer inception_4a/pool_proj
I0924 00:57:32.629380 29928 net.cpp:91] Creating Layer inception_4a/pool_proj
I0924 00:57:32.629386 29928 net.cpp:425] inception_4a/pool_proj <- inception_4a/pool
I0924 00:57:32.629395 29928 net.cpp:399] inception_4a/pool_proj -> inception_4a/pool_proj
I0924 00:57:32.631250 29928 net.cpp:141] Setting up inception_4a/pool_proj
I0924 00:57:32.631270 29928 net.cpp:148] Top shape: 10 64 14 14 (125440)
I0924 00:57:32.631276 29928 net.cpp:156] Memory required for data: 369044480
I0924 00:57:32.631286 29928 layer_factory.hpp:77] Creating layer inception_4a/relu_pool_proj
I0924 00:57:32.631299 29928 net.cpp:91] Creating Layer inception_4a/relu_pool_proj
I0924 00:57:32.631304 29928 net.cpp:425] inception_4a/relu_pool_proj <- inception_4a/pool_proj
I0924 00:57:32.631315 29928 net.cpp:386] inception_4a/relu_pool_proj -> inception_4a/pool_proj (in-place)
I0924 00:57:32.631758 29928 net.cpp:141] Setting up inception_4a/relu_pool_proj
I0924 00:57:32.631772 29928 net.cpp:148] Top shape: 10 64 14 14 (125440)
I0924 00:57:32.631778 29928 net.cpp:156] Memory required for data: 369546240
I0924 00:57:32.631783 29928 layer_factory.hpp:77] Creating layer inception_4a/output
I0924 00:57:32.631793 29928 net.cpp:91] Creating Layer inception_4a/output
I0924 00:57:32.631798 29928 net.cpp:425] inception_4a/output <- inception_4a/1x1
I0924 00:57:32.631804 29928 net.cpp:425] inception_4a/output <- inception_4a/3x3
I0924 00:57:32.631810 29928 net.cpp:425] inception_4a/output <- inception_4a/5x5
I0924 00:57:32.631816 29928 net.cpp:425] inception_4a/output <- inception_4a/pool_proj
I0924 00:57:32.631826 29928 net.cpp:399] inception_4a/output -> inception_4a/output
I0924 00:57:32.631881 29928 net.cpp:141] Setting up inception_4a/output
I0924 00:57:32.631893 29928 net.cpp:148] Top shape: 10 512 14 14 (1003520)
I0924 00:57:32.631898 29928 net.cpp:156] Memory required for data: 373560320
I0924 00:57:32.631903 29928 layer_factory.hpp:77] Creating layer inception_4a/output_inception_4a/output_0_split
I0924 00:57:32.631918 29928 net.cpp:91] Creating Layer inception_4a/output_inception_4a/output_0_split
I0924 00:57:32.631924 29928 net.cpp:425] inception_4a/output_inception_4a/output_0_split <- inception_4a/output
I0924 00:57:32.631932 29928 net.cpp:399] inception_4a/output_inception_4a/output_0_split -> inception_4a/output_inception_4a/output_0_split_0
I0924 00:57:32.631942 29928 net.cpp:399] inception_4a/output_inception_4a/output_0_split -> inception_4a/output_inception_4a/output_0_split_1
I0924 00:57:32.631954 29928 net.cpp:399] inception_4a/output_inception_4a/output_0_split -> inception_4a/output_inception_4a/output_0_split_2
I0924 00:57:32.631963 29928 net.cpp:399] inception_4a/output_inception_4a/output_0_split -> inception_4a/output_inception_4a/output_0_split_3
I0924 00:57:32.632058 29928 net.cpp:141] Setting up inception_4a/output_inception_4a/output_0_split
I0924 00:57:32.632069 29928 net.cpp:148] Top shape: 10 512 14 14 (1003520)
I0924 00:57:32.632076 29928 net.cpp:148] Top shape: 10 512 14 14 (1003520)
I0924 00:57:32.632081 29928 net.cpp:148] Top shape: 10 512 14 14 (1003520)
I0924 00:57:32.632086 29928 net.cpp:148] Top shape: 10 512 14 14 (1003520)
I0924 00:57:32.632091 29928 net.cpp:156] Memory required for data: 389616640
I0924 00:57:32.632096 29928 layer_factory.hpp:77] Creating layer inception_4b/1x1
I0924 00:57:32.632112 29928 net.cpp:91] Creating Layer inception_4b/1x1
I0924 00:57:32.632117 29928 net.cpp:425] inception_4b/1x1 <- inception_4a/output_inception_4a/output_0_split_0
I0924 00:57:32.632129 29928 net.cpp:399] inception_4b/1x1 -> inception_4b/1x1
I0924 00:57:32.634215 29928 net.cpp:141] Setting up inception_4b/1x1
I0924 00:57:32.634239 29928 net.cpp:148] Top shape: 10 160 14 14 (313600)
I0924 00:57:32.634245 29928 net.cpp:156] Memory required for data: 390871040
I0924 00:57:32.634258 29928 layer_factory.hpp:77] Creating layer inception_4b/relu_1x1
I0924 00:57:32.634268 29928 net.cpp:91] Creating Layer inception_4b/relu_1x1
I0924 00:57:32.634274 29928 net.cpp:425] inception_4b/relu_1x1 <- inception_4b/1x1
I0924 00:57:32.634284 29928 net.cpp:386] inception_4b/relu_1x1 -> inception_4b/1x1 (in-place)
I0924 00:57:32.634732 29928 net.cpp:141] Setting up inception_4b/relu_1x1
I0924 00:57:32.634749 29928 net.cpp:148] Top shape: 10 160 14 14 (313600)
I0924 00:57:32.634754 29928 net.cpp:156] Memory required for data: 392125440
I0924 00:57:32.634760 29928 layer_factory.hpp:77] Creating layer inception_4b/3x3_reduce
I0924 00:57:32.634776 29928 net.cpp:91] Creating Layer inception_4b/3x3_reduce
I0924 00:57:32.634783 29928 net.cpp:425] inception_4b/3x3_reduce <- inception_4a/output_inception_4a/output_0_split_1
I0924 00:57:32.634793 29928 net.cpp:399] inception_4b/3x3_reduce -> inception_4b/3x3_reduce
I0924 00:57:32.636904 29928 net.cpp:141] Setting up inception_4b/3x3_reduce
I0924 00:57:32.636924 29928 net.cpp:148] Top shape: 10 112 14 14 (219520)
I0924 00:57:32.636929 29928 net.cpp:156] Memory required for data: 393003520
I0924 00:57:32.636939 29928 layer_factory.hpp:77] Creating layer inception_4b/relu_3x3_reduce
I0924 00:57:32.636951 29928 net.cpp:91] Creating Layer inception_4b/relu_3x3_reduce
I0924 00:57:32.636958 29928 net.cpp:425] inception_4b/relu_3x3_reduce <- inception_4b/3x3_reduce
I0924 00:57:32.636966 29928 net.cpp:386] inception_4b/relu_3x3_reduce -> inception_4b/3x3_reduce (in-place)
I0924 00:57:32.637233 29928 net.cpp:141] Setting up inception_4b/relu_3x3_reduce
I0924 00:57:32.637245 29928 net.cpp:148] Top shape: 10 112 14 14 (219520)
I0924 00:57:32.637250 29928 net.cpp:156] Memory required for data: 393881600
I0924 00:57:32.637255 29928 layer_factory.hpp:77] Creating layer inception_4b/3x3
I0924 00:57:32.637280 29928 net.cpp:91] Creating Layer inception_4b/3x3
I0924 00:57:32.637293 29928 net.cpp:425] inception_4b/3x3 <- inception_4b/3x3_reduce
I0924 00:57:32.637307 29928 net.cpp:399] inception_4b/3x3 -> inception_4b/3x3
I0924 00:57:32.641755 29928 net.cpp:141] Setting up inception_4b/3x3
I0924 00:57:32.641777 29928 net.cpp:148] Top shape: 10 224 14 14 (439040)
I0924 00:57:32.641783 29928 net.cpp:156] Memory required for data: 395637760
I0924 00:57:32.641793 29928 layer_factory.hpp:77] Creating layer inception_4b/relu_3x3
I0924 00:57:32.641805 29928 net.cpp:91] Creating Layer inception_4b/relu_3x3
I0924 00:57:32.641811 29928 net.cpp:425] inception_4b/relu_3x3 <- inception_4b/3x3
I0924 00:57:32.641819 29928 net.cpp:386] inception_4b/relu_3x3 -> inception_4b/3x3 (in-place)
I0924 00:57:32.642283 29928 net.cpp:141] Setting up inception_4b/relu_3x3
I0924 00:57:32.642297 29928 net.cpp:148] Top shape: 10 224 14 14 (439040)
I0924 00:57:32.642302 29928 net.cpp:156] Memory required for data: 397393920
I0924 00:57:32.642308 29928 layer_factory.hpp:77] Creating layer inception_4b/5x5_reduce
I0924 00:57:32.642345 29928 net.cpp:91] Creating Layer inception_4b/5x5_reduce
I0924 00:57:32.642354 29928 net.cpp:425] inception_4b/5x5_reduce <- inception_4a/output_inception_4a/output_0_split_2
I0924 00:57:32.642365 29928 net.cpp:399] inception_4b/5x5_reduce -> inception_4b/5x5_reduce
I0924 00:57:32.643944 29928 net.cpp:141] Setting up inception_4b/5x5_reduce
I0924 00:57:32.643965 29928 net.cpp:148] Top shape: 10 24 14 14 (47040)
I0924 00:57:32.643971 29928 net.cpp:156] Memory required for data: 397582080
I0924 00:57:32.643981 29928 layer_factory.hpp:77] Creating layer inception_4b/relu_5x5_reduce
I0924 00:57:32.643996 29928 net.cpp:91] Creating Layer inception_4b/relu_5x5_reduce
I0924 00:57:32.644002 29928 net.cpp:425] inception_4b/relu_5x5_reduce <- inception_4b/5x5_reduce
I0924 00:57:32.644011 29928 net.cpp:386] inception_4b/relu_5x5_reduce -> inception_4b/5x5_reduce (in-place)
I0924 00:57:32.644472 29928 net.cpp:141] Setting up inception_4b/relu_5x5_reduce
I0924 00:57:32.644486 29928 net.cpp:148] Top shape: 10 24 14 14 (47040)
I0924 00:57:32.644491 29928 net.cpp:156] Memory required for data: 397770240
I0924 00:57:32.644497 29928 layer_factory.hpp:77] Creating layer inception_4b/5x5
I0924 00:57:32.644515 29928 net.cpp:91] Creating Layer inception_4b/5x5
I0924 00:57:32.644521 29928 net.cpp:425] inception_4b/5x5 <- inception_4b/5x5_reduce
I0924 00:57:32.644536 29928 net.cpp:399] inception_4b/5x5 -> inception_4b/5x5
I0924 00:57:32.647217 29928 net.cpp:141] Setting up inception_4b/5x5
I0924 00:57:32.647238 29928 net.cpp:148] Top shape: 10 64 14 14 (125440)
I0924 00:57:32.647244 29928 net.cpp:156] Memory required for data: 398272000
I0924 00:57:32.647254 29928 layer_factory.hpp:77] Creating layer inception_4b/relu_5x5
I0924 00:57:32.647264 29928 net.cpp:91] Creating Layer inception_4b/relu_5x5
I0924 00:57:32.647269 29928 net.cpp:425] inception_4b/relu_5x5 <- inception_4b/5x5
I0924 00:57:32.647281 29928 net.cpp:386] inception_4b/relu_5x5 -> inception_4b/5x5 (in-place)
I0924 00:57:32.647549 29928 net.cpp:141] Setting up inception_4b/relu_5x5
I0924 00:57:32.647562 29928 net.cpp:148] Top shape: 10 64 14 14 (125440)
I0924 00:57:32.647567 29928 net.cpp:156] Memory required for data: 398773760
I0924 00:57:32.647572 29928 layer_factory.hpp:77] Creating layer inception_4b/pool
I0924 00:57:32.647584 29928 net.cpp:91] Creating Layer inception_4b/pool
I0924 00:57:32.647590 29928 net.cpp:425] inception_4b/pool <- inception_4a/output_inception_4a/output_0_split_3
I0924 00:57:32.647598 29928 net.cpp:399] inception_4b/pool -> inception_4b/pool
I0924 00:57:32.647675 29928 net.cpp:141] Setting up inception_4b/pool
I0924 00:57:32.647686 29928 net.cpp:148] Top shape: 10 512 14 14 (1003520)
I0924 00:57:32.647691 29928 net.cpp:156] Memory required for data: 402787840
I0924 00:57:32.647696 29928 layer_factory.hpp:77] Creating layer inception_4b/pool_proj
I0924 00:57:32.647714 29928 net.cpp:91] Creating Layer inception_4b/pool_proj
I0924 00:57:32.647721 29928 net.cpp:425] inception_4b/pool_proj <- inception_4b/pool
I0924 00:57:32.647732 29928 net.cpp:399] inception_4b/pool_proj -> inception_4b/pool_proj
I0924 00:57:32.649617 29928 net.cpp:141] Setting up inception_4b/pool_proj
I0924 00:57:32.649637 29928 net.cpp:148] Top shape: 10 64 14 14 (125440)
I0924 00:57:32.649643 29928 net.cpp:156] Memory required for data: 403289600
I0924 00:57:32.649652 29928 layer_factory.hpp:77] Creating layer inception_4b/relu_pool_proj
I0924 00:57:32.649664 29928 net.cpp:91] Creating Layer inception_4b/relu_pool_proj
I0924 00:57:32.649670 29928 net.cpp:425] inception_4b/relu_pool_proj <- inception_4b/pool_proj
I0924 00:57:32.649682 29928 net.cpp:386] inception_4b/relu_pool_proj -> inception_4b/pool_proj (in-place)
I0924 00:57:32.650142 29928 net.cpp:141] Setting up inception_4b/relu_pool_proj
I0924 00:57:32.650156 29928 net.cpp:148] Top shape: 10 64 14 14 (125440)
I0924 00:57:32.650161 29928 net.cpp:156] Memory required for data: 403791360
I0924 00:57:32.650166 29928 layer_factory.hpp:77] Creating layer inception_4b/output
I0924 00:57:32.650177 29928 net.cpp:91] Creating Layer inception_4b/output
I0924 00:57:32.650183 29928 net.cpp:425] inception_4b/output <- inception_4b/1x1
I0924 00:57:32.650189 29928 net.cpp:425] inception_4b/output <- inception_4b/3x3
I0924 00:57:32.650195 29928 net.cpp:425] inception_4b/output <- inception_4b/5x5
I0924 00:57:32.650200 29928 net.cpp:425] inception_4b/output <- inception_4b/pool_proj
I0924 00:57:32.650212 29928 net.cpp:399] inception_4b/output -> inception_4b/output
I0924 00:57:32.650257 29928 net.cpp:141] Setting up inception_4b/output
I0924 00:57:32.650270 29928 net.cpp:148] Top shape: 10 512 14 14 (1003520)
I0924 00:57:32.650275 29928 net.cpp:156] Memory required for data: 407805440
I0924 00:57:32.650280 29928 layer_factory.hpp:77] Creating layer inception_4b/output_inception_4b/output_0_split
I0924 00:57:32.650296 29928 net.cpp:91] Creating Layer inception_4b/output_inception_4b/output_0_split
I0924 00:57:32.650305 29928 net.cpp:425] inception_4b/output_inception_4b/output_0_split <- inception_4b/output
I0924 00:57:32.650318 29928 net.cpp:399] inception_4b/output_inception_4b/output_0_split -> inception_4b/output_inception_4b/output_0_split_0
I0924 00:57:32.650334 29928 net.cpp:399] inception_4b/output_inception_4b/output_0_split -> inception_4b/output_inception_4b/output_0_split_1
I0924 00:57:32.650367 29928 net.cpp:399] inception_4b/output_inception_4b/output_0_split -> inception_4b/output_inception_4b/output_0_split_2
I0924 00:57:32.650384 29928 net.cpp:399] inception_4b/output_inception_4b/output_0_split -> inception_4b/output_inception_4b/output_0_split_3
I0924 00:57:32.650493 29928 net.cpp:141] Setting up inception_4b/output_inception_4b/output_0_split
I0924 00:57:32.650504 29928 net.cpp:148] Top shape: 10 512 14 14 (1003520)
I0924 00:57:32.650511 29928 net.cpp:148] Top shape: 10 512 14 14 (1003520)
I0924 00:57:32.650517 29928 net.cpp:148] Top shape: 10 512 14 14 (1003520)
I0924 00:57:32.650522 29928 net.cpp:148] Top shape: 10 512 14 14 (1003520)
I0924 00:57:32.650527 29928 net.cpp:156] Memory required for data: 423861760
I0924 00:57:32.650532 29928 layer_factory.hpp:77] Creating layer inception_4c/1x1
I0924 00:57:32.650549 29928 net.cpp:91] Creating Layer inception_4c/1x1
I0924 00:57:32.650555 29928 net.cpp:425] inception_4c/1x1 <- inception_4b/output_inception_4b/output_0_split_0
I0924 00:57:32.650568 29928 net.cpp:399] inception_4c/1x1 -> inception_4c/1x1
I0924 00:57:32.656394 29928 net.cpp:141] Setting up inception_4c/1x1
I0924 00:57:32.656446 29928 net.cpp:148] Top shape: 10 128 14 14 (250880)
I0924 00:57:32.656453 29928 net.cpp:156] Memory required for data: 424865280
I0924 00:57:32.656471 29928 layer_factory.hpp:77] Creating layer inception_4c/relu_1x1
I0924 00:57:32.656488 29928 net.cpp:91] Creating Layer inception_4c/relu_1x1
I0924 00:57:32.656497 29928 net.cpp:425] inception_4c/relu_1x1 <- inception_4c/1x1
I0924 00:57:32.656509 29928 net.cpp:386] inception_4c/relu_1x1 -> inception_4c/1x1 (in-place)
I0924 00:57:32.657218 29928 net.cpp:141] Setting up inception_4c/relu_1x1
I0924 00:57:32.657232 29928 net.cpp:148] Top shape: 10 128 14 14 (250880)
I0924 00:57:32.657238 29928 net.cpp:156] Memory required for data: 425868800
I0924 00:57:32.657243 29928 layer_factory.hpp:77] Creating layer inception_4c/3x3_reduce
I0924 00:57:32.657268 29928 net.cpp:91] Creating Layer inception_4c/3x3_reduce
I0924 00:57:32.657275 29928 net.cpp:425] inception_4c/3x3_reduce <- inception_4b/output_inception_4b/output_0_split_1
I0924 00:57:32.657290 29928 net.cpp:399] inception_4c/3x3_reduce -> inception_4c/3x3_reduce
I0924 00:57:32.659860 29928 net.cpp:141] Setting up inception_4c/3x3_reduce
I0924 00:57:32.659891 29928 net.cpp:148] Top shape: 10 128 14 14 (250880)
I0924 00:57:32.659900 29928 net.cpp:156] Memory required for data: 426872320
I0924 00:57:32.659915 29928 layer_factory.hpp:77] Creating layer inception_4c/relu_3x3_reduce
I0924 00:57:32.659929 29928 net.cpp:91] Creating Layer inception_4c/relu_3x3_reduce
I0924 00:57:32.659939 29928 net.cpp:425] inception_4c/relu_3x3_reduce <- inception_4c/3x3_reduce
I0924 00:57:32.659953 29928 net.cpp:386] inception_4c/relu_3x3_reduce -> inception_4c/3x3_reduce (in-place)
I0924 00:57:32.660328 29928 net.cpp:141] Setting up inception_4c/relu_3x3_reduce
I0924 00:57:32.660346 29928 net.cpp:148] Top shape: 10 128 14 14 (250880)
I0924 00:57:32.660354 29928 net.cpp:156] Memory required for data: 427875840
I0924 00:57:32.660363 29928 layer_factory.hpp:77] Creating layer inception_4c/3x3
I0924 00:57:32.660393 29928 net.cpp:91] Creating Layer inception_4c/3x3
I0924 00:57:32.660405 29928 net.cpp:425] inception_4c/3x3 <- inception_4c/3x3_reduce
I0924 00:57:32.660423 29928 net.cpp:399] inception_4c/3x3 -> inception_4c/3x3
I0924 00:57:32.665557 29928 net.cpp:141] Setting up inception_4c/3x3
I0924 00:57:32.665591 29928 net.cpp:148] Top shape: 10 256 14 14 (501760)
I0924 00:57:32.665597 29928 net.cpp:156] Memory required for data: 429882880
I0924 00:57:32.665613 29928 layer_factory.hpp:77] Creating layer inception_4c/relu_3x3
I0924 00:57:32.665628 29928 net.cpp:91] Creating Layer inception_4c/relu_3x3
I0924 00:57:32.665637 29928 net.cpp:425] inception_4c/relu_3x3 <- inception_4c/3x3
I0924 00:57:32.665649 29928 net.cpp:386] inception_4c/relu_3x3 -> inception_4c/3x3 (in-place)
I0924 00:57:32.666110 29928 net.cpp:141] Setting up inception_4c/relu_3x3
I0924 00:57:32.666126 29928 net.cpp:148] Top shape: 10 256 14 14 (501760)
I0924 00:57:32.666131 29928 net.cpp:156] Memory required for data: 431889920
I0924 00:57:32.666136 29928 layer_factory.hpp:77] Creating layer inception_4c/5x5_reduce
I0924 00:57:32.666155 29928 net.cpp:91] Creating Layer inception_4c/5x5_reduce
I0924 00:57:32.666162 29928 net.cpp:425] inception_4c/5x5_reduce <- inception_4b/output_inception_4b/output_0_split_2
I0924 00:57:32.666172 29928 net.cpp:399] inception_4c/5x5_reduce -> inception_4c/5x5_reduce
I0924 00:57:32.667759 29928 net.cpp:141] Setting up inception_4c/5x5_reduce
I0924 00:57:32.667780 29928 net.cpp:148] Top shape: 10 24 14 14 (47040)
I0924 00:57:32.667786 29928 net.cpp:156] Memory required for data: 432078080
I0924 00:57:32.667795 29928 layer_factory.hpp:77] Creating layer inception_4c/relu_5x5_reduce
I0924 00:57:32.667811 29928 net.cpp:91] Creating Layer inception_4c/relu_5x5_reduce
I0924 00:57:32.667819 29928 net.cpp:425] inception_4c/relu_5x5_reduce <- inception_4c/5x5_reduce
I0924 00:57:32.667825 29928 net.cpp:386] inception_4c/relu_5x5_reduce -> inception_4c/5x5_reduce (in-place)
I0924 00:57:32.668284 29928 net.cpp:141] Setting up inception_4c/relu_5x5_reduce
I0924 00:57:32.668298 29928 net.cpp:148] Top shape: 10 24 14 14 (47040)
I0924 00:57:32.668303 29928 net.cpp:156] Memory required for data: 432266240
I0924 00:57:32.668309 29928 layer_factory.hpp:77] Creating layer inception_4c/5x5
I0924 00:57:32.668332 29928 net.cpp:91] Creating Layer inception_4c/5x5
I0924 00:57:32.668339 29928 net.cpp:425] inception_4c/5x5 <- inception_4c/5x5_reduce
I0924 00:57:32.668349 29928 net.cpp:399] inception_4c/5x5 -> inception_4c/5x5
I0924 00:57:32.670519 29928 net.cpp:141] Setting up inception_4c/5x5
I0924 00:57:32.670538 29928 net.cpp:148] Top shape: 10 64 14 14 (125440)
I0924 00:57:32.670543 29928 net.cpp:156] Memory required for data: 432768000
I0924 00:57:32.670553 29928 layer_factory.hpp:77] Creating layer inception_4c/relu_5x5
I0924 00:57:32.670562 29928 net.cpp:91] Creating Layer inception_4c/relu_5x5
I0924 00:57:32.670569 29928 net.cpp:425] inception_4c/relu_5x5 <- inception_4c/5x5
I0924 00:57:32.670579 29928 net.cpp:386] inception_4c/relu_5x5 -> inception_4c/5x5 (in-place)
I0924 00:57:32.670861 29928 net.cpp:141] Setting up inception_4c/relu_5x5
I0924 00:57:32.670873 29928 net.cpp:148] Top shape: 10 64 14 14 (125440)
I0924 00:57:32.670878 29928 net.cpp:156] Memory required for data: 433269760
I0924 00:57:32.670883 29928 layer_factory.hpp:77] Creating layer inception_4c/pool
I0924 00:57:32.670897 29928 net.cpp:91] Creating Layer inception_4c/pool
I0924 00:57:32.670904 29928 net.cpp:425] inception_4c/pool <- inception_4b/output_inception_4b/output_0_split_3
I0924 00:57:32.670912 29928 net.cpp:399] inception_4c/pool -> inception_4c/pool
I0924 00:57:32.670992 29928 net.cpp:141] Setting up inception_4c/pool
I0924 00:57:32.671003 29928 net.cpp:148] Top shape: 10 512 14 14 (1003520)
I0924 00:57:32.671007 29928 net.cpp:156] Memory required for data: 437283840
I0924 00:57:32.671012 29928 layer_factory.hpp:77] Creating layer inception_4c/pool_proj
I0924 00:57:32.671030 29928 net.cpp:91] Creating Layer inception_4c/pool_proj
I0924 00:57:32.671036 29928 net.cpp:425] inception_4c/pool_proj <- inception_4c/pool
I0924 00:57:32.671049 29928 net.cpp:399] inception_4c/pool_proj -> inception_4c/pool_proj
I0924 00:57:32.673655 29928 net.cpp:141] Setting up inception_4c/pool_proj
I0924 00:57:32.673676 29928 net.cpp:148] Top shape: 10 64 14 14 (125440)
I0924 00:57:32.673681 29928 net.cpp:156] Memory required for data: 437785600
I0924 00:57:32.673712 29928 layer_factory.hpp:77] Creating layer inception_4c/relu_pool_proj
I0924 00:57:32.673725 29928 net.cpp:91] Creating Layer inception_4c/relu_pool_proj
I0924 00:57:32.673732 29928 net.cpp:425] inception_4c/relu_pool_proj <- inception_4c/pool_proj
I0924 00:57:32.673739 29928 net.cpp:386] inception_4c/relu_pool_proj -> inception_4c/pool_proj (in-place)
I0924 00:57:32.674196 29928 net.cpp:141] Setting up inception_4c/relu_pool_proj
I0924 00:57:32.674211 29928 net.cpp:148] Top shape: 10 64 14 14 (125440)
I0924 00:57:32.674216 29928 net.cpp:156] Memory required for data: 438287360
I0924 00:57:32.674221 29928 layer_factory.hpp:77] Creating layer inception_4c/output
I0924 00:57:32.674231 29928 net.cpp:91] Creating Layer inception_4c/output
I0924 00:57:32.674235 29928 net.cpp:425] inception_4c/output <- inception_4c/1x1
I0924 00:57:32.674242 29928 net.cpp:425] inception_4c/output <- inception_4c/3x3
I0924 00:57:32.674247 29928 net.cpp:425] inception_4c/output <- inception_4c/5x5
I0924 00:57:32.674253 29928 net.cpp:425] inception_4c/output <- inception_4c/pool_proj
I0924 00:57:32.674263 29928 net.cpp:399] inception_4c/output -> inception_4c/output
I0924 00:57:32.674312 29928 net.cpp:141] Setting up inception_4c/output
I0924 00:57:32.674322 29928 net.cpp:148] Top shape: 10 512 14 14 (1003520)
I0924 00:57:32.674327 29928 net.cpp:156] Memory required for data: 442301440
I0924 00:57:32.674332 29928 layer_factory.hpp:77] Creating layer inception_4c/output_inception_4c/output_0_split
I0924 00:57:32.674346 29928 net.cpp:91] Creating Layer inception_4c/output_inception_4c/output_0_split
I0924 00:57:32.674352 29928 net.cpp:425] inception_4c/output_inception_4c/output_0_split <- inception_4c/output
I0924 00:57:32.674360 29928 net.cpp:399] inception_4c/output_inception_4c/output_0_split -> inception_4c/output_inception_4c/output_0_split_0
I0924 00:57:32.674371 29928 net.cpp:399] inception_4c/output_inception_4c/output_0_split -> inception_4c/output_inception_4c/output_0_split_1
I0924 00:57:32.674381 29928 net.cpp:399] inception_4c/output_inception_4c/output_0_split -> inception_4c/output_inception_4c/output_0_split_2
I0924 00:57:32.674389 29928 net.cpp:399] inception_4c/output_inception_4c/output_0_split -> inception_4c/output_inception_4c/output_0_split_3
I0924 00:57:32.674492 29928 net.cpp:141] Setting up inception_4c/output_inception_4c/output_0_split
I0924 00:57:32.674502 29928 net.cpp:148] Top shape: 10 512 14 14 (1003520)
I0924 00:57:32.674509 29928 net.cpp:148] Top shape: 10 512 14 14 (1003520)
I0924 00:57:32.674515 29928 net.cpp:148] Top shape: 10 512 14 14 (1003520)
I0924 00:57:32.674520 29928 net.cpp:148] Top shape: 10 512 14 14 (1003520)
I0924 00:57:32.674525 29928 net.cpp:156] Memory required for data: 458357760
I0924 00:57:32.674530 29928 layer_factory.hpp:77] Creating layer inception_4d/1x1
I0924 00:57:32.674547 29928 net.cpp:91] Creating Layer inception_4d/1x1
I0924 00:57:32.674553 29928 net.cpp:425] inception_4d/1x1 <- inception_4c/output_inception_4c/output_0_split_0
I0924 00:57:32.674566 29928 net.cpp:399] inception_4d/1x1 -> inception_4d/1x1
I0924 00:57:32.676488 29928 net.cpp:141] Setting up inception_4d/1x1
I0924 00:57:32.676509 29928 net.cpp:148] Top shape: 10 112 14 14 (219520)
I0924 00:57:32.676514 29928 net.cpp:156] Memory required for data: 459235840
I0924 00:57:32.676524 29928 layer_factory.hpp:77] Creating layer inception_4d/relu_1x1
I0924 00:57:32.676537 29928 net.cpp:91] Creating Layer inception_4d/relu_1x1
I0924 00:57:32.676544 29928 net.cpp:425] inception_4d/relu_1x1 <- inception_4d/1x1
I0924 00:57:32.676553 29928 net.cpp:386] inception_4d/relu_1x1 -> inception_4d/1x1 (in-place)
I0924 00:57:32.677001 29928 net.cpp:141] Setting up inception_4d/relu_1x1
I0924 00:57:32.677016 29928 net.cpp:148] Top shape: 10 112 14 14 (219520)
I0924 00:57:32.677021 29928 net.cpp:156] Memory required for data: 460113920
I0924 00:57:32.677026 29928 layer_factory.hpp:77] Creating layer inception_4d/3x3_reduce
I0924 00:57:32.677044 29928 net.cpp:91] Creating Layer inception_4d/3x3_reduce
I0924 00:57:32.677052 29928 net.cpp:425] inception_4d/3x3_reduce <- inception_4c/output_inception_4c/output_0_split_1
I0924 00:57:32.677062 29928 net.cpp:399] inception_4d/3x3_reduce -> inception_4d/3x3_reduce
I0924 00:57:32.679353 29928 net.cpp:141] Setting up inception_4d/3x3_reduce
I0924 00:57:32.679374 29928 net.cpp:148] Top shape: 10 144 14 14 (282240)
I0924 00:57:32.679380 29928 net.cpp:156] Memory required for data: 461242880
I0924 00:57:32.679389 29928 layer_factory.hpp:77] Creating layer inception_4d/relu_3x3_reduce
I0924 00:57:32.679405 29928 net.cpp:91] Creating Layer inception_4d/relu_3x3_reduce
I0924 00:57:32.679412 29928 net.cpp:425] inception_4d/relu_3x3_reduce <- inception_4d/3x3_reduce
I0924 00:57:32.679422 29928 net.cpp:386] inception_4d/relu_3x3_reduce -> inception_4d/3x3_reduce (in-place)
I0924 00:57:32.679697 29928 net.cpp:141] Setting up inception_4d/relu_3x3_reduce
I0924 00:57:32.679709 29928 net.cpp:148] Top shape: 10 144 14 14 (282240)
I0924 00:57:32.679713 29928 net.cpp:156] Memory required for data: 462371840
I0924 00:57:32.679719 29928 layer_factory.hpp:77] Creating layer inception_4d/3x3
I0924 00:57:32.679736 29928 net.cpp:91] Creating Layer inception_4d/3x3
I0924 00:57:32.679743 29928 net.cpp:425] inception_4d/3x3 <- inception_4d/3x3_reduce
I0924 00:57:32.679754 29928 net.cpp:399] inception_4d/3x3 -> inception_4d/3x3
I0924 00:57:32.685976 29928 net.cpp:141] Setting up inception_4d/3x3
I0924 00:57:32.686000 29928 net.cpp:148] Top shape: 10 288 14 14 (564480)
I0924 00:57:32.686007 29928 net.cpp:156] Memory required for data: 464629760
I0924 00:57:32.686020 29928 layer_factory.hpp:77] Creating layer inception_4d/relu_3x3
I0924 00:57:32.686041 29928 net.cpp:91] Creating Layer inception_4d/relu_3x3
I0924 00:57:32.686048 29928 net.cpp:425] inception_4d/relu_3x3 <- inception_4d/3x3
I0924 00:57:32.686056 29928 net.cpp:386] inception_4d/relu_3x3 -> inception_4d/3x3 (in-place)
I0924 00:57:32.686522 29928 net.cpp:141] Setting up inception_4d/relu_3x3
I0924 00:57:32.686535 29928 net.cpp:148] Top shape: 10 288 14 14 (564480)
I0924 00:57:32.686540 29928 net.cpp:156] Memory required for data: 466887680
I0924 00:57:32.686547 29928 layer_factory.hpp:77] Creating layer inception_4d/5x5_reduce
I0924 00:57:32.686568 29928 net.cpp:91] Creating Layer inception_4d/5x5_reduce
I0924 00:57:32.686575 29928 net.cpp:425] inception_4d/5x5_reduce <- inception_4c/output_inception_4c/output_0_split_2
I0924 00:57:32.686585 29928 net.cpp:399] inception_4d/5x5_reduce -> inception_4d/5x5_reduce
I0924 00:57:32.688225 29928 net.cpp:141] Setting up inception_4d/5x5_reduce
I0924 00:57:32.688246 29928 net.cpp:148] Top shape: 10 32 14 14 (62720)
I0924 00:57:32.688251 29928 net.cpp:156] Memory required for data: 467138560
I0924 00:57:32.688261 29928 layer_factory.hpp:77] Creating layer inception_4d/relu_5x5_reduce
I0924 00:57:32.688274 29928 net.cpp:91] Creating Layer inception_4d/relu_5x5_reduce
I0924 00:57:32.688282 29928 net.cpp:425] inception_4d/relu_5x5_reduce <- inception_4d/5x5_reduce
I0924 00:57:32.688289 29928 net.cpp:386] inception_4d/relu_5x5_reduce -> inception_4d/5x5_reduce (in-place)
I0924 00:57:32.688740 29928 net.cpp:141] Setting up inception_4d/relu_5x5_reduce
I0924 00:57:32.688755 29928 net.cpp:148] Top shape: 10 32 14 14 (62720)
I0924 00:57:32.688760 29928 net.cpp:156] Memory required for data: 467389440
I0924 00:57:32.688766 29928 layer_factory.hpp:77] Creating layer inception_4d/5x5
I0924 00:57:32.688784 29928 net.cpp:91] Creating Layer inception_4d/5x5
I0924 00:57:32.688796 29928 net.cpp:425] inception_4d/5x5 <- inception_4d/5x5_reduce
I0924 00:57:32.688805 29928 net.cpp:399] inception_4d/5x5 -> inception_4d/5x5
I0924 00:57:32.690907 29928 net.cpp:141] Setting up inception_4d/5x5
I0924 00:57:32.690927 29928 net.cpp:148] Top shape: 10 64 14 14 (125440)
I0924 00:57:32.690932 29928 net.cpp:156] Memory required for data: 467891200
I0924 00:57:32.690942 29928 layer_factory.hpp:77] Creating layer inception_4d/relu_5x5
I0924 00:57:32.690958 29928 net.cpp:91] Creating Layer inception_4d/relu_5x5
I0924 00:57:32.690963 29928 net.cpp:425] inception_4d/relu_5x5 <- inception_4d/5x5
I0924 00:57:32.690975 29928 net.cpp:386] inception_4d/relu_5x5 -> inception_4d/5x5 (in-place)
I0924 00:57:32.691246 29928 net.cpp:141] Setting up inception_4d/relu_5x5
I0924 00:57:32.691257 29928 net.cpp:148] Top shape: 10 64 14 14 (125440)
I0924 00:57:32.691262 29928 net.cpp:156] Memory required for data: 468392960
I0924 00:57:32.691267 29928 layer_factory.hpp:77] Creating layer inception_4d/pool
I0924 00:57:32.691280 29928 net.cpp:91] Creating Layer inception_4d/pool
I0924 00:57:32.691287 29928 net.cpp:425] inception_4d/pool <- inception_4c/output_inception_4c/output_0_split_3
I0924 00:57:32.691294 29928 net.cpp:399] inception_4d/pool -> inception_4d/pool
I0924 00:57:32.691373 29928 net.cpp:141] Setting up inception_4d/pool
I0924 00:57:32.691385 29928 net.cpp:148] Top shape: 10 512 14 14 (1003520)
I0924 00:57:32.691390 29928 net.cpp:156] Memory required for data: 472407040
I0924 00:57:32.691395 29928 layer_factory.hpp:77] Creating layer inception_4d/pool_proj
I0924 00:57:32.691411 29928 net.cpp:91] Creating Layer inception_4d/pool_proj
I0924 00:57:32.691416 29928 net.cpp:425] inception_4d/pool_proj <- inception_4d/pool
I0924 00:57:32.691428 29928 net.cpp:399] inception_4d/pool_proj -> inception_4d/pool_proj
I0924 00:57:32.693373 29928 net.cpp:141] Setting up inception_4d/pool_proj
I0924 00:57:32.693395 29928 net.cpp:148] Top shape: 10 64 14 14 (125440)
I0924 00:57:32.693402 29928 net.cpp:156] Memory required for data: 472908800
I0924 00:57:32.693413 29928 layer_factory.hpp:77] Creating layer inception_4d/relu_pool_proj
I0924 00:57:32.693421 29928 net.cpp:91] Creating Layer inception_4d/relu_pool_proj
I0924 00:57:32.693428 29928 net.cpp:425] inception_4d/relu_pool_proj <- inception_4d/pool_proj
I0924 00:57:32.693435 29928 net.cpp:386] inception_4d/relu_pool_proj -> inception_4d/pool_proj (in-place)
I0924 00:57:32.693897 29928 net.cpp:141] Setting up inception_4d/relu_pool_proj
I0924 00:57:32.693912 29928 net.cpp:148] Top shape: 10 64 14 14 (125440)
I0924 00:57:32.693918 29928 net.cpp:156] Memory required for data: 473410560
I0924 00:57:32.693923 29928 layer_factory.hpp:77] Creating layer inception_4d/output
I0924 00:57:32.693933 29928 net.cpp:91] Creating Layer inception_4d/output
I0924 00:57:32.693938 29928 net.cpp:425] inception_4d/output <- inception_4d/1x1
I0924 00:57:32.693944 29928 net.cpp:425] inception_4d/output <- inception_4d/3x3
I0924 00:57:32.693950 29928 net.cpp:425] inception_4d/output <- inception_4d/5x5
I0924 00:57:32.693956 29928 net.cpp:425] inception_4d/output <- inception_4d/pool_proj
I0924 00:57:32.693964 29928 net.cpp:399] inception_4d/output -> inception_4d/output
I0924 00:57:32.694017 29928 net.cpp:141] Setting up inception_4d/output
I0924 00:57:32.694028 29928 net.cpp:148] Top shape: 10 528 14 14 (1034880)
I0924 00:57:32.694032 29928 net.cpp:156] Memory required for data: 477550080
I0924 00:57:32.694037 29928 layer_factory.hpp:77] Creating layer inception_4d/output_inception_4d/output_0_split
I0924 00:57:32.694049 29928 net.cpp:91] Creating Layer inception_4d/output_inception_4d/output_0_split
I0924 00:57:32.694057 29928 net.cpp:425] inception_4d/output_inception_4d/output_0_split <- inception_4d/output
I0924 00:57:32.694066 29928 net.cpp:399] inception_4d/output_inception_4d/output_0_split -> inception_4d/output_inception_4d/output_0_split_0
I0924 00:57:32.694074 29928 net.cpp:399] inception_4d/output_inception_4d/output_0_split -> inception_4d/output_inception_4d/output_0_split_1
I0924 00:57:32.694083 29928 net.cpp:399] inception_4d/output_inception_4d/output_0_split -> inception_4d/output_inception_4d/output_0_split_2
I0924 00:57:32.694092 29928 net.cpp:399] inception_4d/output_inception_4d/output_0_split -> inception_4d/output_inception_4d/output_0_split_3
I0924 00:57:32.694205 29928 net.cpp:141] Setting up inception_4d/output_inception_4d/output_0_split
I0924 00:57:32.694216 29928 net.cpp:148] Top shape: 10 528 14 14 (1034880)
I0924 00:57:32.694222 29928 net.cpp:148] Top shape: 10 528 14 14 (1034880)
I0924 00:57:32.694228 29928 net.cpp:148] Top shape: 10 528 14 14 (1034880)
I0924 00:57:32.694233 29928 net.cpp:148] Top shape: 10 528 14 14 (1034880)
I0924 00:57:32.694238 29928 net.cpp:156] Memory required for data: 494108160
I0924 00:57:32.694243 29928 layer_factory.hpp:77] Creating layer inception_4e/1x1
I0924 00:57:32.694260 29928 net.cpp:91] Creating Layer inception_4e/1x1
I0924 00:57:32.694267 29928 net.cpp:425] inception_4e/1x1 <- inception_4d/output_inception_4d/output_0_split_0
I0924 00:57:32.694278 29928 net.cpp:399] inception_4e/1x1 -> inception_4e/1x1
I0924 00:57:32.697825 29928 net.cpp:141] Setting up inception_4e/1x1
I0924 00:57:32.697846 29928 net.cpp:148] Top shape: 10 256 14 14 (501760)
I0924 00:57:32.697852 29928 net.cpp:156] Memory required for data: 496115200
I0924 00:57:32.697865 29928 layer_factory.hpp:77] Creating layer inception_4e/relu_1x1
I0924 00:57:32.697880 29928 net.cpp:91] Creating Layer inception_4e/relu_1x1
I0924 00:57:32.697885 29928 net.cpp:425] inception_4e/relu_1x1 <- inception_4e/1x1
I0924 00:57:32.697895 29928 net.cpp:386] inception_4e/relu_1x1 -> inception_4e/1x1 (in-place)
I0924 00:57:32.698366 29928 net.cpp:141] Setting up inception_4e/relu_1x1
I0924 00:57:32.698380 29928 net.cpp:148] Top shape: 10 256 14 14 (501760)
I0924 00:57:32.698385 29928 net.cpp:156] Memory required for data: 498122240
I0924 00:57:32.698390 29928 layer_factory.hpp:77] Creating layer inception_4e/3x3_reduce
I0924 00:57:32.698410 29928 net.cpp:91] Creating Layer inception_4e/3x3_reduce
I0924 00:57:32.698416 29928 net.cpp:425] inception_4e/3x3_reduce <- inception_4d/output_inception_4d/output_0_split_1
I0924 00:57:32.698426 29928 net.cpp:399] inception_4e/3x3_reduce -> inception_4e/3x3_reduce
I0924 00:57:32.700815 29928 net.cpp:141] Setting up inception_4e/3x3_reduce
I0924 00:57:32.700835 29928 net.cpp:148] Top shape: 10 160 14 14 (313600)
I0924 00:57:32.700840 29928 net.cpp:156] Memory required for data: 499376640
I0924 00:57:32.700850 29928 layer_factory.hpp:77] Creating layer inception_4e/relu_3x3_reduce
I0924 00:57:32.700865 29928 net.cpp:91] Creating Layer inception_4e/relu_3x3_reduce
I0924 00:57:32.700872 29928 net.cpp:425] inception_4e/relu_3x3_reduce <- inception_4e/3x3_reduce
I0924 00:57:32.700881 29928 net.cpp:386] inception_4e/relu_3x3_reduce -> inception_4e/3x3_reduce (in-place)
I0924 00:57:32.701153 29928 net.cpp:141] Setting up inception_4e/relu_3x3_reduce
I0924 00:57:32.701169 29928 net.cpp:148] Top shape: 10 160 14 14 (313600)
I0924 00:57:32.701174 29928 net.cpp:156] Memory required for data: 500631040
I0924 00:57:32.701179 29928 layer_factory.hpp:77] Creating layer inception_4e/3x3
I0924 00:57:32.701198 29928 net.cpp:91] Creating Layer inception_4e/3x3
I0924 00:57:32.701205 29928 net.cpp:425] inception_4e/3x3 <- inception_4e/3x3_reduce
I0924 00:57:32.701215 29928 net.cpp:399] inception_4e/3x3 -> inception_4e/3x3
I0924 00:57:32.707795 29928 net.cpp:141] Setting up inception_4e/3x3
I0924 00:57:32.707818 29928 net.cpp:148] Top shape: 10 320 14 14 (627200)
I0924 00:57:32.707823 29928 net.cpp:156] Memory required for data: 503139840
I0924 00:57:32.707834 29928 layer_factory.hpp:77] Creating layer inception_4e/relu_3x3
I0924 00:57:32.707847 29928 net.cpp:91] Creating Layer inception_4e/relu_3x3
I0924 00:57:32.707854 29928 net.cpp:425] inception_4e/relu_3x3 <- inception_4e/3x3
I0924 00:57:32.707864 29928 net.cpp:386] inception_4e/relu_3x3 -> inception_4e/3x3 (in-place)
I0924 00:57:32.708341 29928 net.cpp:141] Setting up inception_4e/relu_3x3
I0924 00:57:32.708355 29928 net.cpp:148] Top shape: 10 320 14 14 (627200)
I0924 00:57:32.708360 29928 net.cpp:156] Memory required for data: 505648640
I0924 00:57:32.708365 29928 layer_factory.hpp:77] Creating layer inception_4e/5x5_reduce
I0924 00:57:32.708381 29928 net.cpp:91] Creating Layer inception_4e/5x5_reduce
I0924 00:57:32.708389 29928 net.cpp:425] inception_4e/5x5_reduce <- inception_4d/output_inception_4d/output_0_split_2
I0924 00:57:32.708398 29928 net.cpp:399] inception_4e/5x5_reduce -> inception_4e/5x5_reduce
I0924 00:57:32.710034 29928 net.cpp:141] Setting up inception_4e/5x5_reduce
I0924 00:57:32.710053 29928 net.cpp:148] Top shape: 10 32 14 14 (62720)
I0924 00:57:32.710059 29928 net.cpp:156] Memory required for data: 505899520
I0924 00:57:32.710068 29928 layer_factory.hpp:77] Creating layer inception_4e/relu_5x5_reduce
I0924 00:57:32.710084 29928 net.cpp:91] Creating Layer inception_4e/relu_5x5_reduce
I0924 00:57:32.710093 29928 net.cpp:425] inception_4e/relu_5x5_reduce <- inception_4e/5x5_reduce
I0924 00:57:32.710099 29928 net.cpp:386] inception_4e/relu_5x5_reduce -> inception_4e/5x5_reduce (in-place)
I0924 00:57:32.710563 29928 net.cpp:141] Setting up inception_4e/relu_5x5_reduce
I0924 00:57:32.710577 29928 net.cpp:148] Top shape: 10 32 14 14 (62720)
I0924 00:57:32.710582 29928 net.cpp:156] Memory required for data: 506150400
I0924 00:57:32.710587 29928 layer_factory.hpp:77] Creating layer inception_4e/5x5
I0924 00:57:32.710618 29928 net.cpp:91] Creating Layer inception_4e/5x5
I0924 00:57:32.710625 29928 net.cpp:425] inception_4e/5x5 <- inception_4e/5x5_reduce
I0924 00:57:32.710635 29928 net.cpp:399] inception_4e/5x5 -> inception_4e/5x5
I0924 00:57:32.713973 29928 net.cpp:141] Setting up inception_4e/5x5
I0924 00:57:32.714002 29928 net.cpp:148] Top shape: 10 128 14 14 (250880)
I0924 00:57:32.714009 29928 net.cpp:156] Memory required for data: 507153920
I0924 00:57:32.714020 29928 layer_factory.hpp:77] Creating layer inception_4e/relu_5x5
I0924 00:57:32.714033 29928 net.cpp:91] Creating Layer inception_4e/relu_5x5
I0924 00:57:32.714041 29928 net.cpp:425] inception_4e/relu_5x5 <- inception_4e/5x5
I0924 00:57:32.714049 29928 net.cpp:386] inception_4e/relu_5x5 -> inception_4e/5x5 (in-place)
I0924 00:57:32.714323 29928 net.cpp:141] Setting up inception_4e/relu_5x5
I0924 00:57:32.714336 29928 net.cpp:148] Top shape: 10 128 14 14 (250880)
I0924 00:57:32.714340 29928 net.cpp:156] Memory required for data: 508157440
I0924 00:57:32.714346 29928 layer_factory.hpp:77] Creating layer inception_4e/pool
I0924 00:57:32.714359 29928 net.cpp:91] Creating Layer inception_4e/pool
I0924 00:57:32.714366 29928 net.cpp:425] inception_4e/pool <- inception_4d/output_inception_4d/output_0_split_3
I0924 00:57:32.714375 29928 net.cpp:399] inception_4e/pool -> inception_4e/pool
I0924 00:57:32.714459 29928 net.cpp:141] Setting up inception_4e/pool
I0924 00:57:32.714470 29928 net.cpp:148] Top shape: 10 528 14 14 (1034880)
I0924 00:57:32.714474 29928 net.cpp:156] Memory required for data: 512296960
I0924 00:57:32.714479 29928 layer_factory.hpp:77] Creating layer inception_4e/pool_proj
I0924 00:57:32.714498 29928 net.cpp:91] Creating Layer inception_4e/pool_proj
I0924 00:57:32.714510 29928 net.cpp:425] inception_4e/pool_proj <- inception_4e/pool
I0924 00:57:32.714519 29928 net.cpp:399] inception_4e/pool_proj -> inception_4e/pool_proj
I0924 00:57:32.716857 29928 net.cpp:141] Setting up inception_4e/pool_proj
I0924 00:57:32.716878 29928 net.cpp:148] Top shape: 10 128 14 14 (250880)
I0924 00:57:32.716884 29928 net.cpp:156] Memory required for data: 513300480
I0924 00:57:32.716895 29928 layer_factory.hpp:77] Creating layer inception_4e/relu_pool_proj
I0924 00:57:32.716909 29928 net.cpp:91] Creating Layer inception_4e/relu_pool_proj
I0924 00:57:32.716917 29928 net.cpp:425] inception_4e/relu_pool_proj <- inception_4e/pool_proj
I0924 00:57:32.716923 29928 net.cpp:386] inception_4e/relu_pool_proj -> inception_4e/pool_proj (in-place)
I0924 00:57:32.717416 29928 net.cpp:141] Setting up inception_4e/relu_pool_proj
I0924 00:57:32.717429 29928 net.cpp:148] Top shape: 10 128 14 14 (250880)
I0924 00:57:32.717434 29928 net.cpp:156] Memory required for data: 514304000
I0924 00:57:32.717439 29928 layer_factory.hpp:77] Creating layer inception_4e/output
I0924 00:57:32.717453 29928 net.cpp:91] Creating Layer inception_4e/output
I0924 00:57:32.717460 29928 net.cpp:425] inception_4e/output <- inception_4e/1x1
I0924 00:57:32.717468 29928 net.cpp:425] inception_4e/output <- inception_4e/3x3
I0924 00:57:32.717473 29928 net.cpp:425] inception_4e/output <- inception_4e/5x5
I0924 00:57:32.717479 29928 net.cpp:425] inception_4e/output <- inception_4e/pool_proj
I0924 00:57:32.717486 29928 net.cpp:399] inception_4e/output -> inception_4e/output
I0924 00:57:32.717540 29928 net.cpp:141] Setting up inception_4e/output
I0924 00:57:32.717550 29928 net.cpp:148] Top shape: 10 832 14 14 (1630720)
I0924 00:57:32.717555 29928 net.cpp:156] Memory required for data: 520826880
I0924 00:57:32.717561 29928 layer_factory.hpp:77] Creating layer pool4/3x3_s2
I0924 00:57:32.717568 29928 net.cpp:91] Creating Layer pool4/3x3_s2
I0924 00:57:32.717573 29928 net.cpp:425] pool4/3x3_s2 <- inception_4e/output
I0924 00:57:32.717586 29928 net.cpp:399] pool4/3x3_s2 -> pool4/3x3_s2
I0924 00:57:32.717655 29928 net.cpp:141] Setting up pool4/3x3_s2
I0924 00:57:32.717666 29928 net.cpp:148] Top shape: 10 832 7 7 (407680)
I0924 00:57:32.717670 29928 net.cpp:156] Memory required for data: 522457600
I0924 00:57:32.717675 29928 layer_factory.hpp:77] Creating layer pool4/3x3_s2_pool4/3x3_s2_0_split
I0924 00:57:32.717691 29928 net.cpp:91] Creating Layer pool4/3x3_s2_pool4/3x3_s2_0_split
I0924 00:57:32.717697 29928 net.cpp:425] pool4/3x3_s2_pool4/3x3_s2_0_split <- pool4/3x3_s2
I0924 00:57:32.717705 29928 net.cpp:399] pool4/3x3_s2_pool4/3x3_s2_0_split -> pool4/3x3_s2_pool4/3x3_s2_0_split_0
I0924 00:57:32.717716 29928 net.cpp:399] pool4/3x3_s2_pool4/3x3_s2_0_split -> pool4/3x3_s2_pool4/3x3_s2_0_split_1
I0924 00:57:32.717725 29928 net.cpp:399] pool4/3x3_s2_pool4/3x3_s2_0_split -> pool4/3x3_s2_pool4/3x3_s2_0_split_2
I0924 00:57:32.717735 29928 net.cpp:399] pool4/3x3_s2_pool4/3x3_s2_0_split -> pool4/3x3_s2_pool4/3x3_s2_0_split_3
I0924 00:57:32.717840 29928 net.cpp:141] Setting up pool4/3x3_s2_pool4/3x3_s2_0_split
I0924 00:57:32.717850 29928 net.cpp:148] Top shape: 10 832 7 7 (407680)
I0924 00:57:32.717857 29928 net.cpp:148] Top shape: 10 832 7 7 (407680)
I0924 00:57:32.717862 29928 net.cpp:148] Top shape: 10 832 7 7 (407680)
I0924 00:57:32.717869 29928 net.cpp:148] Top shape: 10 832 7 7 (407680)
I0924 00:57:32.717872 29928 net.cpp:156] Memory required for data: 528980480
I0924 00:57:32.717878 29928 layer_factory.hpp:77] Creating layer inception_5a/1x1
I0924 00:57:32.717895 29928 net.cpp:91] Creating Layer inception_5a/1x1
I0924 00:57:32.717901 29928 net.cpp:425] inception_5a/1x1 <- pool4/3x3_s2_pool4/3x3_s2_0_split_0
I0924 00:57:32.717921 29928 net.cpp:399] inception_5a/1x1 -> inception_5a/1x1
I0924 00:57:32.721946 29928 net.cpp:141] Setting up inception_5a/1x1
I0924 00:57:32.721969 29928 net.cpp:148] Top shape: 10 256 7 7 (125440)
I0924 00:57:32.721976 29928 net.cpp:156] Memory required for data: 529482240
I0924 00:57:32.721984 29928 layer_factory.hpp:77] Creating layer inception_5a/relu_1x1
I0924 00:57:32.721997 29928 net.cpp:91] Creating Layer inception_5a/relu_1x1
I0924 00:57:32.722002 29928 net.cpp:425] inception_5a/relu_1x1 <- inception_5a/1x1
I0924 00:57:32.722012 29928 net.cpp:386] inception_5a/relu_1x1 -> inception_5a/1x1 (in-place)
I0924 00:57:32.722471 29928 net.cpp:141] Setting up inception_5a/relu_1x1
I0924 00:57:32.722489 29928 net.cpp:148] Top shape: 10 256 7 7 (125440)
I0924 00:57:32.722494 29928 net.cpp:156] Memory required for data: 529984000
I0924 00:57:32.722501 29928 layer_factory.hpp:77] Creating layer inception_5a/3x3_reduce
I0924 00:57:32.722517 29928 net.cpp:91] Creating Layer inception_5a/3x3_reduce
I0924 00:57:32.722524 29928 net.cpp:425] inception_5a/3x3_reduce <- pool4/3x3_s2_pool4/3x3_s2_0_split_1
I0924 00:57:32.722534 29928 net.cpp:399] inception_5a/3x3_reduce -> inception_5a/3x3_reduce
I0924 00:57:32.726071 29928 net.cpp:141] Setting up inception_5a/3x3_reduce
I0924 00:57:32.726092 29928 net.cpp:148] Top shape: 10 160 7 7 (78400)
I0924 00:57:32.726099 29928 net.cpp:156] Memory required for data: 530297600
I0924 00:57:32.726107 29928 layer_factory.hpp:77] Creating layer inception_5a/relu_3x3_reduce
I0924 00:57:32.726124 29928 net.cpp:91] Creating Layer inception_5a/relu_3x3_reduce
I0924 00:57:32.726130 29928 net.cpp:425] inception_5a/relu_3x3_reduce <- inception_5a/3x3_reduce
I0924 00:57:32.726138 29928 net.cpp:386] inception_5a/relu_3x3_reduce -> inception_5a/3x3_reduce (in-place)
I0924 00:57:32.726419 29928 net.cpp:141] Setting up inception_5a/relu_3x3_reduce
I0924 00:57:32.726434 29928 net.cpp:148] Top shape: 10 160 7 7 (78400)
I0924 00:57:32.726439 29928 net.cpp:156] Memory required for data: 530611200
I0924 00:57:32.726444 29928 layer_factory.hpp:77] Creating layer inception_5a/3x3
I0924 00:57:32.726462 29928 net.cpp:91] Creating Layer inception_5a/3x3
I0924 00:57:32.726469 29928 net.cpp:425] inception_5a/3x3 <- inception_5a/3x3_reduce
I0924 00:57:32.726480 29928 net.cpp:399] inception_5a/3x3 -> inception_5a/3x3
I0924 00:57:32.733592 29928 net.cpp:141] Setting up inception_5a/3x3
I0924 00:57:32.733618 29928 net.cpp:148] Top shape: 10 320 7 7 (156800)
I0924 00:57:32.733623 29928 net.cpp:156] Memory required for data: 531238400
I0924 00:57:32.733634 29928 layer_factory.hpp:77] Creating layer inception_5a/relu_3x3
I0924 00:57:32.733649 29928 net.cpp:91] Creating Layer inception_5a/relu_3x3
I0924 00:57:32.733656 29928 net.cpp:425] inception_5a/relu_3x3 <- inception_5a/3x3
I0924 00:57:32.733664 29928 net.cpp:386] inception_5a/relu_3x3 -> inception_5a/3x3 (in-place)
I0924 00:57:32.734148 29928 net.cpp:141] Setting up inception_5a/relu_3x3
I0924 00:57:32.734161 29928 net.cpp:148] Top shape: 10 320 7 7 (156800)
I0924 00:57:32.734166 29928 net.cpp:156] Memory required for data: 531865600
I0924 00:57:32.734171 29928 layer_factory.hpp:77] Creating layer inception_5a/5x5_reduce
I0924 00:57:32.734189 29928 net.cpp:91] Creating Layer inception_5a/5x5_reduce
I0924 00:57:32.734200 29928 net.cpp:425] inception_5a/5x5_reduce <- pool4/3x3_s2_pool4/3x3_s2_0_split_2
I0924 00:57:32.734210 29928 net.cpp:399] inception_5a/5x5_reduce -> inception_5a/5x5_reduce
I0924 00:57:32.735992 29928 net.cpp:141] Setting up inception_5a/5x5_reduce
I0924 00:57:32.736016 29928 net.cpp:148] Top shape: 10 32 7 7 (15680)
I0924 00:57:32.736021 29928 net.cpp:156] Memory required for data: 531928320
I0924 00:57:32.736033 29928 layer_factory.hpp:77] Creating layer inception_5a/relu_5x5_reduce
I0924 00:57:32.736044 29928 net.cpp:91] Creating Layer inception_5a/relu_5x5_reduce
I0924 00:57:32.736050 29928 net.cpp:425] inception_5a/relu_5x5_reduce <- inception_5a/5x5_reduce
I0924 00:57:32.736058 29928 net.cpp:386] inception_5a/relu_5x5_reduce -> inception_5a/5x5_reduce (in-place)
I0924 00:57:32.736523 29928 net.cpp:141] Setting up inception_5a/relu_5x5_reduce
I0924 00:57:32.736539 29928 net.cpp:148] Top shape: 10 32 7 7 (15680)
I0924 00:57:32.736544 29928 net.cpp:156] Memory required for data: 531991040
I0924 00:57:32.736551 29928 layer_factory.hpp:77] Creating layer inception_5a/5x5
I0924 00:57:32.736567 29928 net.cpp:91] Creating Layer inception_5a/5x5
I0924 00:57:32.736574 29928 net.cpp:425] inception_5a/5x5 <- inception_5a/5x5_reduce
I0924 00:57:32.736584 29928 net.cpp:399] inception_5a/5x5 -> inception_5a/5x5
I0924 00:57:32.739157 29928 net.cpp:141] Setting up inception_5a/5x5
I0924 00:57:32.739178 29928 net.cpp:148] Top shape: 10 128 7 7 (62720)
I0924 00:57:32.739184 29928 net.cpp:156] Memory required for data: 532241920
I0924 00:57:32.739193 29928 layer_factory.hpp:77] Creating layer inception_5a/relu_5x5
I0924 00:57:32.739229 29928 net.cpp:91] Creating Layer inception_5a/relu_5x5
I0924 00:57:32.739236 29928 net.cpp:425] inception_5a/relu_5x5 <- inception_5a/5x5
I0924 00:57:32.739244 29928 net.cpp:386] inception_5a/relu_5x5 -> inception_5a/5x5 (in-place)
I0924 00:57:32.739521 29928 net.cpp:141] Setting up inception_5a/relu_5x5
I0924 00:57:32.739532 29928 net.cpp:148] Top shape: 10 128 7 7 (62720)
I0924 00:57:32.739537 29928 net.cpp:156] Memory required for data: 532492800
I0924 00:57:32.739543 29928 layer_factory.hpp:77] Creating layer inception_5a/pool
I0924 00:57:32.739555 29928 net.cpp:91] Creating Layer inception_5a/pool
I0924 00:57:32.739562 29928 net.cpp:425] inception_5a/pool <- pool4/3x3_s2_pool4/3x3_s2_0_split_3
I0924 00:57:32.739573 29928 net.cpp:399] inception_5a/pool -> inception_5a/pool
I0924 00:57:32.739655 29928 net.cpp:141] Setting up inception_5a/pool
I0924 00:57:32.739665 29928 net.cpp:148] Top shape: 10 832 7 7 (407680)
I0924 00:57:32.739670 29928 net.cpp:156] Memory required for data: 534123520
I0924 00:57:32.739677 29928 layer_factory.hpp:77] Creating layer inception_5a/pool_proj
I0924 00:57:32.739696 29928 net.cpp:91] Creating Layer inception_5a/pool_proj
I0924 00:57:32.739702 29928 net.cpp:425] inception_5a/pool_proj <- inception_5a/pool
I0924 00:57:32.739711 29928 net.cpp:399] inception_5a/pool_proj -> inception_5a/pool_proj
I0924 00:57:32.743043 29928 net.cpp:141] Setting up inception_5a/pool_proj
I0924 00:57:32.743065 29928 net.cpp:148] Top shape: 10 128 7 7 (62720)
I0924 00:57:32.743072 29928 net.cpp:156] Memory required for data: 534374400
I0924 00:57:32.743082 29928 layer_factory.hpp:77] Creating layer inception_5a/relu_pool_proj
I0924 00:57:32.743093 29928 net.cpp:91] Creating Layer inception_5a/relu_pool_proj
I0924 00:57:32.743100 29928 net.cpp:425] inception_5a/relu_pool_proj <- inception_5a/pool_proj
I0924 00:57:32.743108 29928 net.cpp:386] inception_5a/relu_pool_proj -> inception_5a/pool_proj (in-place)
I0924 00:57:32.743582 29928 net.cpp:141] Setting up inception_5a/relu_pool_proj
I0924 00:57:32.743595 29928 net.cpp:148] Top shape: 10 128 7 7 (62720)
I0924 00:57:32.743600 29928 net.cpp:156] Memory required for data: 534625280
I0924 00:57:32.743605 29928 layer_factory.hpp:77] Creating layer inception_5a/output
I0924 00:57:32.743621 29928 net.cpp:91] Creating Layer inception_5a/output
I0924 00:57:32.743628 29928 net.cpp:425] inception_5a/output <- inception_5a/1x1
I0924 00:57:32.743634 29928 net.cpp:425] inception_5a/output <- inception_5a/3x3
I0924 00:57:32.743640 29928 net.cpp:425] inception_5a/output <- inception_5a/5x5
I0924 00:57:32.743646 29928 net.cpp:425] inception_5a/output <- inception_5a/pool_proj
I0924 00:57:32.743654 29928 net.cpp:399] inception_5a/output -> inception_5a/output
I0924 00:57:32.743711 29928 net.cpp:141] Setting up inception_5a/output
I0924 00:57:32.743722 29928 net.cpp:148] Top shape: 10 832 7 7 (407680)
I0924 00:57:32.743727 29928 net.cpp:156] Memory required for data: 536256000
I0924 00:57:32.743732 29928 layer_factory.hpp:77] Creating layer inception_5a/output_inception_5a/output_0_split
I0924 00:57:32.743741 29928 net.cpp:91] Creating Layer inception_5a/output_inception_5a/output_0_split
I0924 00:57:32.743747 29928 net.cpp:425] inception_5a/output_inception_5a/output_0_split <- inception_5a/output
I0924 00:57:32.743757 29928 net.cpp:399] inception_5a/output_inception_5a/output_0_split -> inception_5a/output_inception_5a/output_0_split_0
I0924 00:57:32.743767 29928 net.cpp:399] inception_5a/output_inception_5a/output_0_split -> inception_5a/output_inception_5a/output_0_split_1
I0924 00:57:32.743775 29928 net.cpp:399] inception_5a/output_inception_5a/output_0_split -> inception_5a/output_inception_5a/output_0_split_2
I0924 00:57:32.743784 29928 net.cpp:399] inception_5a/output_inception_5a/output_0_split -> inception_5a/output_inception_5a/output_0_split_3
I0924 00:57:32.743901 29928 net.cpp:141] Setting up inception_5a/output_inception_5a/output_0_split
I0924 00:57:32.743914 29928 net.cpp:148] Top shape: 10 832 7 7 (407680)
I0924 00:57:32.743921 29928 net.cpp:148] Top shape: 10 832 7 7 (407680)
I0924 00:57:32.743927 29928 net.cpp:148] Top shape: 10 832 7 7 (407680)
I0924 00:57:32.743932 29928 net.cpp:148] Top shape: 10 832 7 7 (407680)
I0924 00:57:32.743937 29928 net.cpp:156] Memory required for data: 542778880
I0924 00:57:32.743942 29928 layer_factory.hpp:77] Creating layer inception_5b/1x1
I0924 00:57:32.743959 29928 net.cpp:91] Creating Layer inception_5b/1x1
I0924 00:57:32.743965 29928 net.cpp:425] inception_5b/1x1 <- inception_5a/output_inception_5a/output_0_split_0
I0924 00:57:32.743974 29928 net.cpp:399] inception_5b/1x1 -> inception_5b/1x1
I0924 00:57:32.749018 29928 net.cpp:141] Setting up inception_5b/1x1
I0924 00:57:32.749043 29928 net.cpp:148] Top shape: 10 384 7 7 (188160)
I0924 00:57:32.749049 29928 net.cpp:156] Memory required for data: 543531520
I0924 00:57:32.749058 29928 layer_factory.hpp:77] Creating layer inception_5b/relu_1x1
I0924 00:57:32.749068 29928 net.cpp:91] Creating Layer inception_5b/relu_1x1
I0924 00:57:32.749074 29928 net.cpp:425] inception_5b/relu_1x1 <- inception_5b/1x1
I0924 00:57:32.749081 29928 net.cpp:386] inception_5b/relu_1x1 -> inception_5b/1x1 (in-place)
I0924 00:57:32.749548 29928 net.cpp:141] Setting up inception_5b/relu_1x1
I0924 00:57:32.749564 29928 net.cpp:148] Top shape: 10 384 7 7 (188160)
I0924 00:57:32.749570 29928 net.cpp:156] Memory required for data: 544284160
I0924 00:57:32.749577 29928 layer_factory.hpp:77] Creating layer inception_5b/3x3_reduce
I0924 00:57:32.749596 29928 net.cpp:91] Creating Layer inception_5b/3x3_reduce
I0924 00:57:32.749603 29928 net.cpp:425] inception_5b/3x3_reduce <- inception_5a/output_inception_5a/output_0_split_1
I0924 00:57:32.749614 29928 net.cpp:399] inception_5b/3x3_reduce -> inception_5b/3x3_reduce
I0924 00:57:32.753399 29928 net.cpp:141] Setting up inception_5b/3x3_reduce
I0924 00:57:32.753422 29928 net.cpp:148] Top shape: 10 192 7 7 (94080)
I0924 00:57:32.753427 29928 net.cpp:156] Memory required for data: 544660480
I0924 00:57:32.753439 29928 layer_factory.hpp:77] Creating layer inception_5b/relu_3x3_reduce
I0924 00:57:32.753448 29928 net.cpp:91] Creating Layer inception_5b/relu_3x3_reduce
I0924 00:57:32.753455 29928 net.cpp:425] inception_5b/relu_3x3_reduce <- inception_5b/3x3_reduce
I0924 00:57:32.753466 29928 net.cpp:386] inception_5b/relu_3x3_reduce -> inception_5b/3x3_reduce (in-place)
I0924 00:57:32.753746 29928 net.cpp:141] Setting up inception_5b/relu_3x3_reduce
I0924 00:57:32.753759 29928 net.cpp:148] Top shape: 10 192 7 7 (94080)
I0924 00:57:32.753764 29928 net.cpp:156] Memory required for data: 545036800
I0924 00:57:32.753769 29928 layer_factory.hpp:77] Creating layer inception_5b/3x3
I0924 00:57:32.753788 29928 net.cpp:91] Creating Layer inception_5b/3x3
I0924 00:57:32.753795 29928 net.cpp:425] inception_5b/3x3 <- inception_5b/3x3_reduce
I0924 00:57:32.753808 29928 net.cpp:399] inception_5b/3x3 -> inception_5b/3x3
I0924 00:57:32.762562 29928 net.cpp:141] Setting up inception_5b/3x3
I0924 00:57:32.762588 29928 net.cpp:148] Top shape: 10 384 7 7 (188160)
I0924 00:57:32.762593 29928 net.cpp:156] Memory required for data: 545789440
I0924 00:57:32.762612 29928 layer_factory.hpp:77] Creating layer inception_5b/relu_3x3
I0924 00:57:32.762625 29928 net.cpp:91] Creating Layer inception_5b/relu_3x3
I0924 00:57:32.762634 29928 net.cpp:425] inception_5b/relu_3x3 <- inception_5b/3x3
I0924 00:57:32.762640 29928 net.cpp:386] inception_5b/relu_3x3 -> inception_5b/3x3 (in-place)
I0924 00:57:32.763123 29928 net.cpp:141] Setting up inception_5b/relu_3x3
I0924 00:57:32.763137 29928 net.cpp:148] Top shape: 10 384 7 7 (188160)
I0924 00:57:32.763142 29928 net.cpp:156] Memory required for data: 546542080
I0924 00:57:32.763147 29928 layer_factory.hpp:77] Creating layer inception_5b/5x5_reduce
I0924 00:57:32.763164 29928 net.cpp:91] Creating Layer inception_5b/5x5_reduce
I0924 00:57:32.763170 29928 net.cpp:425] inception_5b/5x5_reduce <- inception_5a/output_inception_5a/output_0_split_2
I0924 00:57:32.763185 29928 net.cpp:399] inception_5b/5x5_reduce -> inception_5b/5x5_reduce
I0924 00:57:32.765131 29928 net.cpp:141] Setting up inception_5b/5x5_reduce
I0924 00:57:32.765151 29928 net.cpp:148] Top shape: 10 48 7 7 (23520)
I0924 00:57:32.765156 29928 net.cpp:156] Memory required for data: 546636160
I0924 00:57:32.765166 29928 layer_factory.hpp:77] Creating layer inception_5b/relu_5x5_reduce
I0924 00:57:32.765182 29928 net.cpp:91] Creating Layer inception_5b/relu_5x5_reduce
I0924 00:57:32.765190 29928 net.cpp:425] inception_5b/relu_5x5_reduce <- inception_5b/5x5_reduce
I0924 00:57:32.765198 29928 net.cpp:386] inception_5b/relu_5x5_reduce -> inception_5b/5x5_reduce (in-place)
I0924 00:57:32.765661 29928 net.cpp:141] Setting up inception_5b/relu_5x5_reduce
I0924 00:57:32.765676 29928 net.cpp:148] Top shape: 10 48 7 7 (23520)
I0924 00:57:32.765681 29928 net.cpp:156] Memory required for data: 546730240
I0924 00:57:32.765686 29928 layer_factory.hpp:77] Creating layer inception_5b/5x5
I0924 00:57:32.765703 29928 net.cpp:91] Creating Layer inception_5b/5x5
I0924 00:57:32.765710 29928 net.cpp:425] inception_5b/5x5 <- inception_5b/5x5_reduce
I0924 00:57:32.765722 29928 net.cpp:399] inception_5b/5x5 -> inception_5b/5x5
I0924 00:57:32.769029 29928 net.cpp:141] Setting up inception_5b/5x5
I0924 00:57:32.769049 29928 net.cpp:148] Top shape: 10 128 7 7 (62720)
I0924 00:57:32.769055 29928 net.cpp:156] Memory required for data: 546981120
I0924 00:57:32.769065 29928 layer_factory.hpp:77] Creating layer inception_5b/relu_5x5
I0924 00:57:32.769078 29928 net.cpp:91] Creating Layer inception_5b/relu_5x5
I0924 00:57:32.769085 29928 net.cpp:425] inception_5b/relu_5x5 <- inception_5b/5x5
I0924 00:57:32.769093 29928 net.cpp:386] inception_5b/relu_5x5 -> inception_5b/5x5 (in-place)
I0924 00:57:32.769376 29928 net.cpp:141] Setting up inception_5b/relu_5x5
I0924 00:57:32.769390 29928 net.cpp:148] Top shape: 10 128 7 7 (62720)
I0924 00:57:32.769395 29928 net.cpp:156] Memory required for data: 547232000
I0924 00:57:32.769403 29928 layer_factory.hpp:77] Creating layer inception_5b/pool
I0924 00:57:32.769415 29928 net.cpp:91] Creating Layer inception_5b/pool
I0924 00:57:32.769421 29928 net.cpp:425] inception_5b/pool <- inception_5a/output_inception_5a/output_0_split_3
I0924 00:57:32.769429 29928 net.cpp:399] inception_5b/pool -> inception_5b/pool
I0924 00:57:32.769520 29928 net.cpp:141] Setting up inception_5b/pool
I0924 00:57:32.769531 29928 net.cpp:148] Top shape: 10 832 7 7 (407680)
I0924 00:57:32.769536 29928 net.cpp:156] Memory required for data: 548862720
I0924 00:57:32.769541 29928 layer_factory.hpp:77] Creating layer inception_5b/pool_proj
I0924 00:57:32.769556 29928 net.cpp:91] Creating Layer inception_5b/pool_proj
I0924 00:57:32.769563 29928 net.cpp:425] inception_5b/pool_proj <- inception_5b/pool
I0924 00:57:32.769575 29928 net.cpp:399] inception_5b/pool_proj -> inception_5b/pool_proj
I0924 00:57:32.772955 29928 net.cpp:141] Setting up inception_5b/pool_proj
I0924 00:57:32.772977 29928 net.cpp:148] Top shape: 10 128 7 7 (62720)
I0924 00:57:32.772984 29928 net.cpp:156] Memory required for data: 549113600
I0924 00:57:32.772994 29928 layer_factory.hpp:77] Creating layer inception_5b/relu_pool_proj
I0924 00:57:32.773010 29928 net.cpp:91] Creating Layer inception_5b/relu_pool_proj
I0924 00:57:32.773016 29928 net.cpp:425] inception_5b/relu_pool_proj <- inception_5b/pool_proj
I0924 00:57:32.773026 29928 net.cpp:386] inception_5b/relu_pool_proj -> inception_5b/pool_proj (in-place)
I0924 00:57:32.773499 29928 net.cpp:141] Setting up inception_5b/relu_pool_proj
I0924 00:57:32.773512 29928 net.cpp:148] Top shape: 10 128 7 7 (62720)
I0924 00:57:32.773517 29928 net.cpp:156] Memory required for data: 549364480
I0924 00:57:32.773524 29928 layer_factory.hpp:77] Creating layer inception_5b/output
I0924 00:57:32.773537 29928 net.cpp:91] Creating Layer inception_5b/output
I0924 00:57:32.773545 29928 net.cpp:425] inception_5b/output <- inception_5b/1x1
I0924 00:57:32.773551 29928 net.cpp:425] inception_5b/output <- inception_5b/3x3
I0924 00:57:32.773557 29928 net.cpp:425] inception_5b/output <- inception_5b/5x5
I0924 00:57:32.773563 29928 net.cpp:425] inception_5b/output <- inception_5b/pool_proj
I0924 00:57:32.773572 29928 net.cpp:399] inception_5b/output -> inception_5b/output
I0924 00:57:32.773627 29928 net.cpp:141] Setting up inception_5b/output
I0924 00:57:32.773638 29928 net.cpp:148] Top shape: 10 1024 7 7 (501760)
I0924 00:57:32.773643 29928 net.cpp:156] Memory required for data: 551371520
I0924 00:57:32.773648 29928 layer_factory.hpp:77] Creating layer pool5/7x7_s1
I0924 00:57:32.773663 29928 net.cpp:91] Creating Layer pool5/7x7_s1
I0924 00:57:32.773669 29928 net.cpp:425] pool5/7x7_s1 <- inception_5b/output
I0924 00:57:32.773676 29928 net.cpp:399] pool5/7x7_s1 -> pool5/7x7_s1
I0924 00:57:32.774056 29928 net.cpp:141] Setting up pool5/7x7_s1
I0924 00:57:32.774070 29928 net.cpp:148] Top shape: 10 1024 1 1 (10240)
I0924 00:57:32.774075 29928 net.cpp:156] Memory required for data: 551412480
I0924 00:57:32.774080 29928 layer_factory.hpp:77] Creating layer pool5/drop_7x7_s1
I0924 00:57:32.774091 29928 net.cpp:91] Creating Layer pool5/drop_7x7_s1
I0924 00:57:32.774096 29928 net.cpp:425] pool5/drop_7x7_s1 <- pool5/7x7_s1
I0924 00:57:32.774106 29928 net.cpp:386] pool5/drop_7x7_s1 -> pool5/7x7_s1 (in-place)
I0924 00:57:32.774160 29928 net.cpp:141] Setting up pool5/drop_7x7_s1
I0924 00:57:32.774171 29928 net.cpp:148] Top shape: 10 1024 1 1 (10240)
I0924 00:57:32.774175 29928 net.cpp:156] Memory required for data: 551453440
I0924 00:57:32.774180 29928 layer_factory.hpp:77] Creating layer loss3/classifier
I0924 00:57:32.774206 29928 net.cpp:91] Creating Layer loss3/classifier
I0924 00:57:32.774212 29928 net.cpp:425] loss3/classifier <- pool5/7x7_s1
I0924 00:57:32.774224 29928 net.cpp:399] loss3/classifier -> loss3/classifier
I0924 00:57:32.785142 29928 net.cpp:141] Setting up loss3/classifier
I0924 00:57:32.785171 29928 net.cpp:148] Top shape: 10 1000 (10000)
I0924 00:57:32.785176 29928 net.cpp:156] Memory required for data: 551493440
I0924 00:57:32.785187 29928 layer_factory.hpp:77] Creating layer prob
I0924 00:57:32.785197 29928 net.cpp:91] Creating Layer prob
I0924 00:57:32.785203 29928 net.cpp:425] prob <- loss3/classifier
I0924 00:57:32.785212 29928 net.cpp:399] prob -> prob
I0924 00:57:32.785873 29928 net.cpp:141] Setting up prob
I0924 00:57:32.785892 29928 net.cpp:148] Top shape: 10 1000 (10000)
I0924 00:57:32.785900 29928 net.cpp:156] Memory required for data: 551533440
I0924 00:57:32.785907 29928 net.cpp:219] prob does not need backward computation.
I0924 00:57:32.785912 29928 net.cpp:219] loss3/classifier does not need backward computation.
I0924 00:57:32.785917 29928 net.cpp:219] pool5/drop_7x7_s1 does not need backward computation.
I0924 00:57:32.785922 29928 net.cpp:219] pool5/7x7_s1 does not need backward computation.
…
