…
Java HotSpot(TM) 64-Bit Server VM warning: You have loaded library /home/peifeng/work/run/storm102/data/workers/4437b797-d55f-4862-8f50-67616e38d37e/tmp/cvld3190732766213793169/libopencv_java310.xine1.so which might have disabled stack guard. The VM will try to fix the stack guard now.
It's highly recommended that you fix the library with 'execstack -c <libfile>', or link it with '-z noexecstack'.
WARNING: Logging before InitGoogleLogging() is written to STDERR
I0903 16:42:04.818019 29409 net.cpp:49] Initializing net from parameters: 
name: "GoogleNet"
state {
  phase: TEST
}
layer {
  name: "data"
  type: "Input"
  top: "data"
  input_param {
    shape {
      dim: 10
      dim: 3
      dim: 224
      dim: 224
    }
  }
}
layer {
  name: "conv1/7x7_s2"
  type: "Convolution"
  bottom: "data"
  top: "conv1/7x7_s2"
  param {
    lr_mult: 1
    decay_mult: 1
  }
  param {
    lr_mult: 2
    decay_mult: 0
  }
  convolution_param {
    num_output: 64
    pad: 3
    kernel_size: 7
    stride: 2
    weight_filler {
      type: "xavier"
      std: 0.1
    }
    bias_filler {
      type: "constant"
      value: 0.2
    }
  }
}
layer {
  name: "conv1/relu_7x7"
  type: "ReLU"
  bottom: "conv1/7x7_s2"
  top: "conv1/7x7_s2"
}
layer {
  name: "pool1/3x3_s2"
  type: "Pooling"
  bottom: "conv1/7x7_s2"
  top: "pool1/3x3_s2"
  pooling_param {
    pool: MAX
    kernel_size: 3
    stride: 2
  }
}
layer {
  name: "pool1/norm1"
  type: "LRN"
  bottom: "pool1/3x3_s2"
  top: "pool1/norm1"
  lrn_param {
    local_size: 5
    alpha: 0.0001
    beta: 0.75
  }
}
layer {
  name: "conv2/3x3_reduce"
  type: "Convolution"
  bottom: "pool1/norm1"
  top: "conv2/3x3_reduce"
  param {
    lr_mult: 1
    decay_mult: 1
  }
  param {
    lr_mult: 2
    decay_mult: 0
  }
  convolution_param {
    num_output: 64
    kernel_size: 1
    weight_filler {
      type: "xavier"
      std: 0.1
    }
    bias_filler {
      type: "constant"
      value: 0.2
    }
  }
}
layer {
  name: "conv2/relu_3x3_reduce"
  type: "ReLU"
  bottom: "conv2/3x3_reduce"
  top: "conv2/3x3_reduce"
}
layer {
  name: "conv2/3x3"
  type: "Convolution"
  bottom: "conv2/3x3_reduce"
  top: "conv2/3x3"
  param {
    lr_mult: 1
    decay_mult: 1
  }
  param {
    lr_mult: 2
    decay_mult: 0
  }
  convolution_param {
    num_output: 192
    pad: 1
    kernel_size: 3
    weight_filler {
      type: "xavier"
      std: 0.03
    }
    bias_filler {
      type: "constant"
      value: 0.2
    }
  }
}
layer {
  name: "conv2/relu_3x3"
  type: "ReLU"
  bottom: "conv2/3x3"
  top: "conv2/3x3"
}
layer {
  name: "conv2/norm2"
  type: "LRN"
  bottom: "conv2/3x3"
  top: "conv2/norm2"
  lrn_param {
    local_size: 5
    alpha: 0.0001
    beta: 0.75
  }
}
layer {
  name: "pool2/3x3_s2"
  type: "Pooling"
  bottom: "conv2/norm2"
  top: "pool2/3x3_s2"
  pooling_param {
    pool: MAX
    kernel_size: 3
    stride: 2
  }
}
layer {
  name: "inception_3a/1x1"
  type: "Convolution"
  bottom: "pool2/3x3_s2"
  top: "inception_3a/1x1"
  param {
    lr_mult: 1
    decay_mult: 1
  }
  param {
    lr_mult: 2
    decay_mult: 0
  }
  convolution_param {
    num_output: 64
    kernel_size: 1
    weight_filler {
      type: "xavier"
      std: 0.03
    }
    bias_filler {
      type: "constant"
      value: 0.2
    }
  }
}
layer {
  name: "inception_3a/relu_1x1"
  type: "ReLU"
  bottom: "inception_3a/1x1"
  top: "inception_3a/1x1"
}
layer {
  name: "inception_3a/3x3_reduce"
  type: "Convolution"
  bottom: "pool2/3x3_s2"
  top: "inception_3a/3x3_reduce"
  param {
    lr_mult: 1
    decay_mult: 1
  }
  param {
    lr_mult: 2
    decay_mult: 0
  }
  convolution_param {
    num_output: 96
    kernel_size: 1
    weight_filler {
      type: "xavier"
      std: 0.09
    }
    bias_filler {
      type: "constant"
      value: 0.2
    }
  }
}
layer {
  name: "inception_3a/relu_3x3_reduce"
  type: "ReLU"
  bottom: "inception_3a/3x3_reduce"
  top: "inception_3a/3x3_reduce"
}
layer {
  name: "inception_3a/3x3"
  type: "Convolution"
  bottom: "inception_3a/3x3_reduce"
  top: "inception_3a/3x3"
  param {
    lr_mult: 1
    decay_mult: 1
  }
  param {
    lr_mult: 2
    decay_mult: 0
  }
  convolution_param {
    num_output: 128
    pad: 1
    kernel_size: 3
    weight_filler {
      type: "xavier"
      std: 0.03
    }
    bias_filler {
      type: "constant"
      value: 0.2
    }
  }
}
layer {
  name: "inception_3a/relu_3x3"
  type: "ReLU"
  bottom: "inception_3a/3x3"
  top: "inception_3a/3x3"
}
layer {
  name: "inception_3a/5x5_reduce"
  type: "Convolution"
  bottom: "pool2/3x3_s2"
  top: "inception_3a/5x5_reduce"
  param {
    lr_mult: 1
    decay_mult: 1
  }
  param {
    lr_mult: 2
    decay_mult: 0
  }
  convolution_param {
    num_output: 16
    kernel_size: 1
    weight_filler {
      type: "xavier"
      std: 0.2
    }
    bias_filler {
      type: "constant"
      value: 0.2
    }
  }
}
layer {
  name: "inception_3a/relu_5x5_reduce"
  type: "ReLU"
  bottom: "inception_3a/5x5_reduce"
  top: "inception_3a/5x5_reduce"
}
layer {
  name: "inception_3a/5x5"
  type: "Convolution"
  bottom: "inception_3a/5x5_reduce"
  top: "inception_3a/5x5"
  param {
    lr_mult: 1
    decay_mult: 1
  }
  param {
    lr_mult: 2
    decay_mult: 0
  }
  convolution_param {
    num_output: 32
    pad: 2
    kernel_size: 5
    weight_filler {
      type: "xavier"
      std: 0.03
    }
    bias_filler {
      type: "constant"
      value: 0.2
    }
  }
}
layer {
  name: "inception_3a/relu_5x5"
  type: "ReLU"
  bottom: "inception_3a/5x5"
  top: "inception_3a/5x5"
}
layer {
  name: "inception_3a/pool"
  type: "Pooling"
  bottom: "pool2/3x3_s2"
  top: "inception_3a/pool"
  pooling_param {
    pool: MAX
    kernel_size: 3
    stride: 1
    pad: 1
  }
}
layer {
  name: "inception_3a/pool_proj"
  type: "Convolution"
  bottom: "inception_3a/pool"
  top: "inception_3a/pool_proj"
  param {
    lr_mult: 1
    decay_mult: 1
  }
  param {
    lr_mult: 2
    decay_mult: 0
  }
  convolution_param {
    num_output: 32
    kernel_size: 1
    weight_filler {
      type: "xavier"
      std: 0.1
    }
    bias_filler {
      type: "constant"
      value: 0.2
    }
  }
}
layer {
  name: "inception_3a/relu_pool_proj"
  type: "ReLU"
  bottom: "inception_3a/pool_proj"
  top: "inception_3a/pool_proj"
}
layer {
  name: "inception_3a/output"
  type: "Concat"
  bottom: "inception_3a/1x1"
  bottom: "inception_3a/3x3"
  bottom: "inception_3a/5x5"
  bottom: "inception_3a/pool_proj"
  top: "inception_3a/output"
}
layer {
  name: "inception_3b/1x1"
  type: "Convolution"
  bottom: "inception_3a/output"
  top: "inception_3b/1x1"
  param {
    lr_mult: 1
    decay_mult: 1
  }
  param {
    lr_mult: 2
    decay_mult: 0
  }
  convolution_param {
    num_output: 128
    kernel_size: 1
    weight_filler {
      type: "xavier"
      std: 0.03
    }
    bias_filler {
      type: "constant"
      value: 0.2
    }
  }
}
layer {
  name: "inception_3b/relu_1x1"
  type: "ReLU"
  bottom: "inception_3b/1x1"
  top: "inception_3b/1x1"
}
layer {
  name: "inception_3b/3x3_reduce"
  type: "Convolution"
  bottom: "inception_3a/output"
  top: "inception_3b/3x3_reduce"
  param {
    lr_mult: 1
    decay_mult: 1
  }
  param {
    lr_mult: 2
    decay_mult: 0
  }
  convolution_param {
    num_output: 128
    kernel_size: 1
    weight_filler {
      type: "xavier"
      std: 0.09
    }
    bias_filler {
      type: "constant"
      value: 0.2
    }
  }
}
layer {
  name: "inception_3b/relu_3x3_reduce"
  type: "ReLU"
  bottom: "inception_3b/3x3_reduce"
  top: "inception_3b/3x3_reduce"
}
layer {
  name: "inception_3b/3x3"
  type: "Convolution"
  bottom: "inception_3b/3x3_reduce"
  top: "inception_3b/3x3"
  param {
    lr_mult: 1
    decay_mult: 1
  }
  param {
    lr_mult: 2
    decay_mult: 0
  }
  convolution_param {
    num_output: 192
    pad: 1
    kernel_size: 3
    weight_filler {
      type: "xavier"
      std: 0.03
    }
    bias_filler {
      type: "constant"
      value: 0.2
    }
  }
}
layer {
  name: "inception_3b/relu_3x3"
  type: "ReLU"
  bottom: "inception_3b/3x3"
  top: "inception_3b/3x3"
}
layer {
  name: "inception_3b/5x5_reduce"
  type: "Convolution"
  bottom: "inception_3a/output"
  top: "inception_3b/5x5_reduce"
  param {
    lr_mult: 1
    decay_mult: 1
  }
  param {
    lr_mult: 2
    decay_mult: 0
  }
  convolution_param {
    num_output: 32
    kernel_size: 1
    weight_filler {
      type: "xavier"
      std: 0.2
    }
    bias_filler {
      type: "constant"
      value: 0.2
    }
  }
}
layer {
  name: "inception_3b/relu_5x5_reduce"
  type: "ReLU"
  bottom: "inception_3b/5x5_reduce"
  top: "inception_3b/5x5_reduce"
}
layer {
  name: "inception_3b/5x5"
  type: "Convolution"
  bottom: "inception_3b/5x5_reduce"
  top: "inception_3b/5x5"
  param {
    lr_mult: 1
    decay_mult: 1
  }
  param {
    lr_mult: 2
    decay_mult: 0
  }
  convolution_param {
    num_output: 96
    pad: 2
    kernel_size: 5
    weight_filler {
      type: "xavier"
      std: 0.03
    }
    bias_filler {
      type: "constant"
      value: 0.2
    }
  }
}
layer {
  name: "inception_3b/relu_5x5"
  type: "ReLU"
  bottom: "inception_3b/5x5"
  top: "inception_3b/5x5"
}
layer {
  name: "inception_3b/pool"
  type: "Pooling"
  bottom: "inception_3a/output"
  top: "inception_3b/pool"
  pooling_param {
    pool: MAX
    kernel_size: 3
    stride: 1
    pad: 1
  }
}
layer {
  name: "inception_3b/pool_proj"
  type: "Convolution"
  bottom: "inception_3b/pool"
  top: "inception_3b/pool_proj"
  param {
    lr_mult: 1
    decay_mult: 1
  }
  param {
    lr_mult: 2
    decay_mult: 0
  }
  convolution_param {
    num_output: 64
    kernel_size: 1
    weight_filler {
      type: "xavier"
      std: 0.1
    }
    bias_filler {
      type: "constant"
      value: 0.2
    }
  }
}
layer {
  name: "inception_3b/relu_pool_proj"
  type: "ReLU"
  bottom: "inception_3b/pool_proj"
  top: "inception_3b/pool_proj"
}
layer {
  name: "inception_3b/output"
  type: "Concat"
  bottom: "inception_3b/1x1"
  bottom: "inception_3b/3x3"
  bottom: "inception_3b/5x5"
  bottom: "inception_3b/pool_proj"
  top: "inception_3b/output"
}
layer {
  name: "pool3/3x3_s2"
  type: "Pooling"
  bottom: "inception_3b/output"
  top: "pool3/3x3_s2"
  pooling_param {
    pool: MAX
    kernel_size: 3
    stride: 2
  }
}
layer {
  name: "inception_4a/1x1"
  type: "Convolution"
  bottom: "pool3/3x3_s2"
  top: "inception_4a/1x1"
  param {
    lr_mult: 1
    decay_mult: 1
  }
  param {
    lr_mult: 2
    decay_mult: 0
  }
  convolution_param {
    num_output: 192
    kernel_size: 1
    weight_filler {
      type: "xavier"
      std: 0.03
    }
    bias_filler {
      type: "constant"
      value: 0.2
    }
  }
}
layer {
  name: "inception_4a/relu_1x1"
  type: "ReLU"
  bottom: "inception_4a/1x1"
  top: "inception_4a/1x1"
}
layer {
  name: "inception_4a/3x3_reduce"
  type: "Convolution"
  bottom: "pool3/3x3_s2"
  top: "inception_4a/3x3_reduce"
  param {
    lr_mult: 1
    decay_mult: 1
  }
  param {
    lr_mult: 2
    decay_mult: 0
  }
  convolution_param {
    num_output: 96
    kernel_size: 1
    weight_filler {
      type: "xavier"
      std: 0.09
    }
    bias_filler {
      type: "constant"
      value: 0.2
    }
  }
}
layer {
  name: "inception_4a/relu_3x3_reduce"
  type: "ReLU"
  bottom: "inception_4a/3x3_reduce"
  top: "inception_4a/3x3_reduce"
}
layer {
  name: "inception_4a/3x3"
  type: "Convolution"
  bottom: "inception_4a/3x3_reduce"
  top: "inception_4a/3x3"
  param {
    lr_mult: 1
    decay_mult: 1
  }
  param {
    lr_mult: 2
    decay_mult: 0
  }
  convolution_param {
    num_output: 208
    pad: 1
    kernel_size: 3
    weight_filler {
      type: "xavier"
      std: 0.03
    }
    bias_filler {
      type: "constant"
      value: 0.2
    }
  }
}
layer {
  name: "inception_4a/relu_3x3"
  type: "ReLU"
  bottom: "inception_4a/3x3"
  top: "inception_4a/3x3"
}
layer {
  name: "inception_4a/5x5_reduce"
  type: "Convolution"
  bottom: "pool3/3x3_s2"
  top: "inception_4a/5x5_reduce"
  param {
    lr_mult: 1
    decay_mult: 1
  }
  param {
    lr_mult: 2
    decay_mult: 0
  }
  convolution_param {
    num_output: 16
    kernel_size: 1
    weight_filler {
      type: "xavier"
      std: 0.2
    }
    bias_filler {
      type: "constant"
      value: 0.2
    }
  }
}
layer {
  name: "inception_4a/relu_5x5_reduce"
  type: "ReLU"
  bottom: "inception_4a/5x5_reduce"
  top: "inception_4a/5x5_reduce"
}
layer {
  name: "inception_4a/5x5"
  type: "Convolution"
  bottom: "inception_4a/5x5_reduce"
  top: "inception_4a/5x5"
  param {
    lr_mult: 1
    decay_mult: 1
  }
  param {
    lr_mult: 2
    decay_mult: 0
  }
  convolution_param {
    num_output: 48
    pad: 2
    kernel_size: 5
    weight_filler {
      type: "xavier"
      std: 0.03
    }
    bias_filler {
      type: "constant"
      value: 0.2
    }
  }
}
layer {
  name: "inception_4a/relu_5x5"
  type: "ReLU"
  bottom: "inception_4a/5x5"
  top: "inception_4a/5x5"
}
layer {
  name: "inception_4a/pool"
  type: "Pooling"
  bottom: "pool3/3x3_s2"
  top: "inception_4a/pool"
  pooling_param {
    pool: MAX
    kernel_size: 3
    stride: 1
    pad: 1
  }
}
layer {
  name: "inception_4a/pool_proj"
  type: "Convolution"
  bottom: "inception_4a/pool"
  top: "inception_4a/pool_proj"
  param {
    lr_mult: 1
    decay_mult: 1
  }
  param {
    lr_mult: 2
    decay_mult: 0
  }
  convolution_param {
    num_output: 64
    kernel_size: 1
    weight_filler {
      type: "xavier"
      std: 0.1
    }
    bias_filler {
      type: "constant"
      value: 0.2
    }
  }
}
layer {
  name: "inception_4a/relu_pool_proj"
  type: "ReLU"
  bottom: "inception_4a/pool_proj"
  top: "inception_4a/pool_proj"
}
layer {
  name: "inception_4a/output"
  type: "Concat"
  bottom: "inception_4a/1x1"
  bottom: "inception_4a/3x3"
  bottom: "inception_4a/5x5"
  bottom: "inception_4a/pool_proj"
  top: "inception_4a/output"
}
layer {
  name: "inception_4b/1x1"
  type: "Convolution"
  bottom: "inception_4a/output"
  top: "inception_4b/1x1"
  param {
    lr_mult: 1
    decay_mult: 1
  }
  param {
    lr_mult: 2
    decay_mult: 0
  }
  convolution_param {
    num_output: 160
    kernel_size: 1
    weight_filler {
      type: "xavier"
      std: 0.03
    }
    bias_filler {
      type: "constant"
      value: 0.2
    }
  }
}
layer {
  name: "inception_4b/relu_1x1"
  type: "ReLU"
  bottom: "inception_4b/1x1"
  top: "inception_4b/1x1"
}
layer {
  name: "inception_4b/3x3_reduce"
  type: "Convolution"
  bottom: "inception_4a/output"
  top: "inception_4b/3x3_reduce"
  param {
    lr_mult: 1
    decay_mult: 1
  }
  param {
    lr_mult: 2
    decay_mult: 0
  }
  convolution_param {
    num_output: 112
    kernel_size: 1
    weight_filler {
      type: "xavier"
      std: 0.09
    }
    bias_filler {
      type: "constant"
      value: 0.2
    }
  }
}
layer {
  name: "inception_4b/relu_3x3_reduce"
  type: "ReLU"
  bottom: "inception_4b/3x3_reduce"
  top: "inception_4b/3x3_reduce"
}
layer {
  name: "inception_4b/3x3"
  type: "Convolution"
  bottom: "inception_4b/3x3_reduce"
  top: "inception_4b/3x3"
  param {
    lr_mult: 1
    decay_mult: 1
  }
  param {
    lr_mult: 2
    decay_mult: 0
  }
  convolution_param {
    num_output: 224
    pad: 1
    kernel_size: 3
    weight_filler {
      type: "xavier"
      std: 0.03
    }
    bias_filler {
      type: "constant"
      value: 0.2
    }
  }
}
layer {
  name: "inception_4b/relu_3x3"
  type: "ReLU"
  bottom: "inception_4b/3x3"
  top: "inception_4b/3x3"
}
layer {
  name: "inception_4b/5x5_reduce"
  type: "Convolution"
  bottom: "inception_4a/output"
  top: "inception_4b/5x5_reduce"
  param {
    lr_mult: 1
    decay_mult: 1
  }
  param {
    lr_mult: 2
    decay_mult: 0
  }
  convolution_param {
    num_output: 24
    kernel_size: 1
    weight_filler {
      type: "xavier"
      std: 0.2
    }
    bias_filler {
      type: "constant"
      value: 0.2
    }
  }
}
layer {
  name: "inception_4b/relu_5x5_reduce"
  type: "ReLU"
  bottom: "inception_4b/5x5_reduce"
  top: "inception_4b/5x5_reduce"
}
layer {
  name: "inception_4b/5x5"
  type: "Convolution"
  bottom: "inception_4b/5x5_reduce"
  top: "inception_4b/5x5"
  param {
    lr_mult: 1
    decay_mult: 1
  }
  param {
    lr_mult: 2
    decay_mult: 0
  }
  convolution_param {
    num_output: 64
    pad: 2
    kernel_size: 5
    weight_filler {
      type: "xavier"
      std: 0.03
    }
    bias_filler {
      type: "constant"
      value: 0.2
    }
  }
}
layer {
  name: "inception_4b/relu_5x5"
  type: "ReLU"
  bottom: "inception_4b/5x5"
  top: "inception_4b/5x5"
}
layer {
  name: "inception_4b/pool"
  type: "Pooling"
  bottom: "inception_4a/output"
  top: "inception_4b/pool"
  pooling_param {
    pool: MAX
    kernel_size: 3
    stride: 1
    pad: 1
  }
}
layer {
  name: "inception_4b/pool_proj"
  type: "Convolution"
  bottom: "inception_4b/pool"
  top: "inception_4b/pool_proj"
  param {
    lr_mult: 1
    decay_mult: 1
  }
  param {
    lr_mult: 2
    decay_mult: 0
  }
  convolution_param {
    num_output: 64
    kernel_size: 1
    weight_filler {
      type: "xavier"
      std: 0.1
    }
    bias_filler {
      type: "constant"
      value: 0.2
    }
  }
}
layer {
  name: "inception_4b/relu_pool_proj"
  type: "ReLU"
  bottom: "inception_4b/pool_proj"
  top: "inception_4b/pool_proj"
}
layer {
  name: "inception_4b/output"
  type: "Concat"
  bottom: "inception_4b/1x1"
  bottom: "inception_4b/3x3"
  bottom: "inception_4b/5x5"
  bottom: "inception_4b/pool_proj"
  top: "inception_4b/output"
}
layer {
  name: "inception_4c/1x1"
  type: "Convolution"
  bottom: "inception_4b/output"
  top: "inception_4c/1x1"
  param {
    lr_mult: 1
    decay_mult: 1
  }
  param {
    lr_mult: 2
    decay_mult: 0
  }
  convolution_param {
    num_output: 128
    kernel_size: 1
    weight_filler {
      type: "xavier"
      std: 0.03
    }
    bias_filler {
      type: "constant"
      value: 0.2
    }
  }
}
layer {
  name: "inception_4c/relu_1x1"
  type: "ReLU"
  bottom: "inception_4c/1x1"
  top: "inception_4c/1x1"
}
layer {
  name: "inception_4c/3x3_reduce"
  type: "Convolution"
  bottom: "inception_4b/output"
  top: "inception_4c/3x3_reduce"
  param {
    lr_mult: 1
    decay_mult: 1
  }
  param {
    lr_mult: 2
    decay_mult: 0
  }
  convolution_param {
    num_output: 128
    kernel_size: 1
    weight_filler {
      type: "xavier"
      std: 0.09
    }
    bias_filler {
      type: "constant"
      value: 0.2
    }
  }
}
layer {
  name: "inception_4c/relu_3x3_reduce"
  type: "ReLU"
  bottom: "inception_4c/3x3_reduce"
  top: "inception_4c/3x3_reduce"
}
layer {
  name: "inception_4c/3x3"
  type: "Convolution"
  bottom: "inception_4c/3x3_reduce"
  top: "inception_4c/3x3"
  param {
    lr_mult: 1
    decay_mult: 1
  }
  param {
    lr_mult: 2
    decay_mult: 0
  }
  convolution_param {
    num_output: 256
    pad: 1
    kernel_size: 3
    weight_filler {
      type: "xavier"
      std: 0.03
    }
    bias_filler {
      type: "constant"
      value: 0.2
    }
  }
}
layer {
  name: "inception_4c/relu_3x3"
  type: "ReLU"
  bottom: "inception_4c/3x3"
  top: "inception_4c/3x3"
}
layer {
  name: "inception_4c/5x5_reduce"
  type: "Convolution"
  bottom: "inception_4b/output"
  top: "inception_4c/5x5_reduce"
  param {
    lr_mult: 1
    decay_mult: 1
  }
  param {
    lr_mult: 2
    decay_mult: 0
  }
  convolution_param {
    num_output: 24
    kernel_size: 1
    weight_filler {
      type: "xavier"
      std: 0.2
    }
    bias_filler {
      type: "constant"
      value: 0.2
    }
  }
}
layer {
  name: "inception_4c/relu_5x5_reduce"
  type: "ReLU"
  bottom: "inception_4c/5x5_reduce"
  top: "inception_4c/5x5_reduce"
}
layer {
  name: "inception_4c/5x5"
  type: "Convolution"
  bottom: "inception_4c/5x5_reduce"
  top: "inception_4c/5x5"
  param {
    lr_mult: 1
    decay_mult: 1
  }
  param {
    lr_mult: 2
    decay_mult: 0
  }
  convolution_param {
    num_output: 64
    pad: 2
    kernel_size: 5
    weight_filler {
      type: "xavier"
      std: 0.03
    }
    bias_filler {
      type: "constant"
      value: 0.2
    }
  }
}
layer {
  name: "inception_4c/relu_5x5"
  type: "ReLU"
  bottom: "inception_4c/5x5"
  top: "inception_4c/5x5"
}
layer {
  name: "inception_4c/pool"
  type: "Pooling"
  bottom: "inception_4b/output"
  top: "inception_4c/pool"
  pooling_param {
    pool: MAX
    kernel_size: 3
    stride: 1
    pad: 1
  }
}
layer {
  name: "inception_4c/pool_proj"
  type: "Convolution"
  bottom: "inception_4c/pool"
  top: "inception_4c/pool_proj"
  param {
    lr_mult: 1
    decay_mult: 1
  }
  param {
    lr_mult: 2
    decay_mult: 0
  }
  convolution_param {
    num_output: 64
    kernel_size: 1
    weight_filler {
      type: "xavier"
      std: 0.1
    }
    bias_filler {
      type: "constant"
      value: 0.2
    }
  }
}
layer {
  name: "inception_4c/relu_pool_proj"
  type: "ReLU"
  bottom: "inception_4c/pool_proj"
  top: "inception_4c/pool_proj"
}
layer {
  name: "inception_4c/output"
  type: "Concat"
  bottom: "inception_4c/1x1"
  bottom: "inception_4c/3x3"
  bottom: "inception_4c/5x5"
  bottom: "inception_4c/pool_proj"
  top: "inception_4c/output"
}
layer {
  name: "inception_4d/1x1"
  type: "Convolution"
  bottom: "inception_4c/output"
  top: "inception_4d/1x1"
  param {
    lr_mult: 1
    decay_mult: 1
  }
  param {
    lr_mult: 2
    decay_mult: 0
  }
  convolution_param {
    num_output: 112
    kernel_size: 1
    weight_filler {
      type: "xavier"
      std: 0.03
    }
    bias_filler {
      type: "constant"
      value: 0.2
    }
  }
}
layer {
  name: "inception_4d/relu_1x1"
  type: "ReLU"
  bottom: "inception_4d/1x1"
  top: "inception_4d/1x1"
}
layer {
  name: "inception_4d/3x3_reduce"
  type: "Convolution"
  bottom: "inception_4c/output"
  top: "inception_4d/3x3_reduce"
  param {
    lr_mult: 1
    decay_mult: 1
  }
  param {
    lr_mult: 2
    decay_mult: 0
  }
  convolution_param {
    num_output: 144
    kernel_size: 1
    weight_filler {
      type: "xavier"
      std: 0.09
    }
    bias_filler {
      type: "constant"
      value: 0.2
    }
  }
}
layer {
  name: "inception_4d/relu_3x3_reduce"
  type: "ReLU"
  bottom: "inception_4d/3x3_reduce"
  top: "inception_4d/3x3_reduce"
}
layer {
  name: "inception_4d/3x3"
  type: "Convolution"
  bottom: "inception_4d/3x3_reduce"
  top: "inception_4d/3x3"
  param {
    lr_mult: 1
    decay_mult: 1
  }
  param {
    lr_mult: 2
    decay_mult: 0
  }
  convolution_param {
    num_output: 288
    pad: 1
    kernel_size: 3
    weight_filler {
      type: "xavier"
      std: 0.03
    }
    bias_filler {
      type: "constant"
      value: 0.2
    }
  }
}
layer {
  name: "inception_4d/relu_3x3"
  type: "ReLU"
  bottom: "inception_4d/3x3"
  top: "inception_4d/3x3"
}
layer {
  name: "inception_4d/5x5_reduce"
  type: "Convolution"
  bottom: "inception_4c/output"
  top: "inception_4d/5x5_reduce"
  param {
    lr_mult: 1
    decay_mult: 1
  }
  param {
    lr_mult: 2
    decay_mult: 0
  }
  convolution_param {
    num_output: 32
    kernel_size: 1
    weight_filler {
      type: "xavier"
      std: 0.2
    }
    bias_filler {
      type: "constant"
      value: 0.2
    }
  }
}
layer {
  name: "inception_4d/relu_5x5_reduce"
  type: "ReLU"
  bottom: "inception_4d/5x5_reduce"
  top: "inception_4d/5x5_reduce"
}
layer {
  name: "inception_4d/5x5"
  type: "Convolution"
  bottom: "inception_4d/5x5_reduce"
  top: "inception_4d/5x5"
  param {
    lr_mult: 1
    decay_mult: 1
  }
  param {
    lr_mult: 2
    decay_mult: 0
  }
  convolution_param {
    num_output: 64
    pad: 2
    kernel_size: 5
    weight_filler {
      type: "xavier"
      std: 0.03
    }
    bias_filler {
      type: "constant"
      value: 0.2
    }
  }
}
layer {
  name: "inception_4d/relu_5x5"
  type: "ReLU"
  bottom: "inception_4d/5x5"
  top: "inception_4d/5x5"
}
layer {
  name: "inception_4d/pool"
  type: "Pooling"
  bottom: "inception_4c/output"
  top: "inception_4d/pool"
  pooling_param {
    pool: MAX
    kernel_size: 3
    stride: 1
    pad: 1
  }
}
layer {
  name: "inception_4d/pool_proj"
  type: "Convolution"
  bottom: "inception_4d/pool"
  top: "inception_4d/pool_proj"
  param {
    lr_mult: 1
    decay_mult: 1
  }
  param {
    lr_mult: 2
    decay_mult: 0
  }
  convolution_param {
    num_output: 64
    kernel_size: 1
    weight_filler {
      type: "xavier"
      std: 0.1
    }
    bias_filler {
      type: "constant"
      value: 0.2
    }
  }
}
layer {
  name: "inception_4d/relu_pool_proj"
  type: "ReLU"
  bottom: "inception_4d/pool_proj"
  top: "inception_4d/pool_proj"
}
layer {
  name: "inception_4d/output"
  type: "Concat"
  bottom: "inception_4d/1x1"
  bottom: "inception_4d/3x3"
  bottom: "inception_4d/5x5"
  bottom: "inception_4d/pool_proj"
  top: "inception_4d/output"
}
layer {
  name: "inception_4e/1x1"
  type: "Convolution"
  bottom: "inception_4d/output"
  top: "inception_4e/1x1"
  param {
    lr_mult: 1
    decay_mult: 1
  }
  param {
    lr_mult: 2
    decay_mult: 0
  }
  convolution_param {
    num_output: 256
    kernel_size: 1
    weight_filler {
      type: "xavier"
      std: 0.03
    }
    bias_filler {
      type: "constant"
      value: 0.2
    }
  }
}
layer {
  name: "inception_4e/relu_1x1"
  type: "ReLU"
  bottom: "inception_4e/1x1"
  top: "inception_4e/1x1"
}
layer {
  name: "inception_4e/3x3_reduce"
  type: "Convolution"
  bottom: "inception_4d/output"
  top: "inception_4e/3x3_reduce"
  param {
    lr_mult: 1
    decay_mult: 1
  }
  param {
    lr_mult: 2
    decay_mult: 0
  }
  convolution_param {
    num_output: 160
    kernel_size: 1
    weight_filler {
      type: "xavier"
      std: 0.09
    }
    bias_filler {
      type: "constant"
      value: 0.2
    }
  }
}
layer {
  name: "inception_4e/relu_3x3_reduce"
  type: "ReLU"
  bottom: "inception_4e/3x3_reduce"
  top: "inception_4e/3x3_reduce"
}
layer {
  name: "inception_4e/3x3"
  type: "Convolution"
  bottom: "inception_4e/3x3_reduce"
  top: "inception_4e/3x3"
  param {
    lr_mult: 1
    decay_mult: 1
  }
  param {
    lr_mult: 2
    decay_mult: 0
  }
  convolution_param {
    num_output: 320
    pad: 1
    kernel_size: 3
    weight_filler {
      type: "xavier"
      std: 0.03
    }
    bias_filler {
      type: "constant"
      value: 0.2
    }
  }
}
layer {
  name: "inception_4e/relu_3x3"
  type: "ReLU"
  bottom: "inception_4e/3x3"
  top: "inception_4e/3x3"
}
layer {
  name: "inception_4e/5x5_reduce"
  type: "Convolution"
  bottom: "inception_4d/output"
  top: "inception_4e/5x5_reduce"
  param {
    lr_mult: 1
    decay_mult: 1
  }
  param {
    lr_mult: 2
    decay_mult: 0
  }
  convolution_param {
    num_output: 32
    kernel_size: 1
    weight_filler {
      type: "xavier"
      std: 0.2
    }
    bias_filler {
      type: "constant"
      value: 0.2
    }
  }
}
layer {
  name: "inception_4e/relu_5x5_reduce"
  type: "ReLU"
  bottom: "inception_4e/5x5_reduce"
  top: "inception_4e/5x5_reduce"
}
layer {
  name: "inception_4e/5x5"
  type: "Convolution"
  bottom: "inception_4e/5x5_reduce"
  top: "inception_4e/5x5"
  param {
    lr_mult: 1
    decay_mult: 1
  }
  param {
    lr_mult: 2
    decay_mult: 0
  }
  convolution_param {
    num_output: 128
    pad: 2
    kernel_size: 5
    weight_filler {
      type: "xavier"
      std: 0.03
    }
    bias_filler {
      type: "constant"
      value: 0.2
    }
  }
}
layer {
  name: "inception_4e/relu_5x5"
  type: "ReLU"
  bottom: "inception_4e/5x5"
  top: "inception_4e/5x5"
}
layer {
  name: "inception_4e/pool"
  type: "Pooling"
  bottom: "inception_4d/output"
  top: "inception_4e/pool"
  pooling_param {
    pool: MAX
    kernel_size: 3
    stride: 1
    pad: 1
  }
}
layer {
  name: "inception_4e/pool_proj"
  type: "Convolution"
  bottom: "inception_4e/pool"
  top: "inception_4e/pool_proj"
  param {
    lr_mult: 1
    decay_mult: 1
  }
  param {
    lr_mult: 2
    decay_mult: 0
  }
  convolution_param {
    num_output: 128
    kernel_size: 1
    weight_filler {
      type: "xavier"
      std: 0.1
    }
    bias_filler {
      type: "constant"
      value: 0.2
    }
  }
}
layer {
  name: "inception_4e/relu_pool_proj"
  type: "ReLU"
  bottom: "inception_4e/pool_proj"
  top: "inception_4e/pool_proj"
}
layer {
  name: "inception_4e/output"
  type: "Concat"
  bottom: "inception_4e/1x1"
  bottom: "inception_4e/3x3"
  bottom: "inception_4e/5x5"
  bottom: "inception_4e/pool_proj"
  top: "inception_4e/output"
}
layer {
  name: "pool4/3x3_s2"
  type: "Pooling"
  bottom: "inception_4e/output"
  top: "pool4/3x3_s2"
  pooling_param {
    pool: MAX
    kernel_size: 3
    stride: 2
  }
}
layer {
  name: "inception_5a/1x1"
  type: "Convolution"
  bottom: "pool4/3x3_s2"
  top: "inception_5a/1x1"
  param {
    lr_mult: 1
    decay_mult: 1
  }
  param {
    lr_mult: 2
    decay_mult: 0
  }
  convolution_param {
    num_output: 256
    kernel_size: 1
    weight_filler {
      type: "xavier"
      std: 0.03
    }
    bias_filler {
      type: "constant"
      value: 0.2
    }
  }
}
layer {
  name: "inception_5a/relu_1x1"
  type: "ReLU"
  bottom: "inception_5a/1x1"
  top: "inception_5a/1x1"
}
layer {
  name: "inception_5a/3x3_reduce"
  type: "Convolution"
  bottom: "pool4/3x3_s2"
  top: "inception_5a/3x3_reduce"
  param {
    lr_mult: 1
    decay_mult: 1
  }
  param {
    lr_mult: 2
    decay_mult: 0
  }
  convolution_param {
    num_output: 160
    kernel_size: 1
    weight_filler {
      type: "xavier"
      std: 0.09
    }
    bias_filler {
      type: "constant"
      value: 0.2
    }
  }
}
layer {
  name: "inception_5a/relu_3x3_reduce"
  type: "ReLU"
  bottom: "inception_5a/3x3_reduce"
  top: "inception_5a/3x3_reduce"
}
layer {
  name: "inception_5a/3x3"
  type: "Convolution"
  bottom: "inception_5a/3x3_reduce"
  top: "inception_5a/3x3"
  param {
    lr_mult: 1
    decay_mult: 1
  }
  param {
    lr_mult: 2
    decay_mult: 0
  }
  convolution_param {
    num_output: 320
    pad: 1
    kernel_size: 3
    weight_filler {
      type: "xavier"
      std: 0.03
    }
    bias_filler {
      type: "constant"
      value: 0.2
    }
  }
}
layer {
  name: "inception_5a/relu_3x3"
  type: "ReLU"
  bottom: "inception_5a/3x3"
  top: "inception_5a/3x3"
}
layer {
  name: "inception_5a/5x5_reduce"
  type: "Convolution"
  bottom: "pool4/3x3_s2"
  top: "inception_5a/5x5_reduce"
  param {
    lr_mult: 1
    decay_mult: 1
  }
  param {
    lr_mult: 2
    decay_mult: 0
  }
  convolution_param {
    num_output: 32
    kernel_size: 1
    weight_filler {
      type: "xavier"
      std: 0.2
    }
    bias_filler {
      type: "constant"
      value: 0.2
    }
I0903 16:42:04.819092 29409 layer_factory.hpp:77] Creating layer data
I0903 16:42:04.819123 29409 net.cpp:91] Creating Layer data
I0903 16:42:04.819134 29409 net.cpp:399] data -> data
I0903 16:42:04.826086 29413 net.cpp:49] Initializing net from parameters: 
name: "GoogleNet"
state {
  phase: TEST
}
layer {
  name: "data"
  type: "Input"
  top: "data"
  input_param {
    shape {
      dim: 10
      dim: 3
      dim: 224
      dim: 224
    }
  }
}
layer {
  name: "conv1/7x7_s2"
  type: "Convolution"
  bottom: "data"
  top: "conv1/7x7_s2"
  param {
    lr_mult: 1
    decay_mult: 1
  }
  param {
    lr_mult: 2
    decay_mult: 0
  }
  convolution_param {
    num_output: 64
    pad: 3
    kernel_size: 7
    stride: 2
    weight_filler {
      type: "xavier"
      std: 0.1
    }
    bias_filler {
      type: "constant"
      value: 0.2
    }
  }
}
layer {
  name: "conv1/relu_7x7"
  type: "ReLU"
  bottom: "conv1/7x7_s2"
  top: "conv1/7x7_s2"
}
layer {
  name: "pool1/3x3_s2"
  type: "Pooling"
  bottom: "conv1/7x7_s2"
  top: "pool1/3x3_s2"
  pooling_param {
    pool: MAX
    kernel_size: 3
    stride: 2
  }
}
layer {
  name: "pool1/norm1"
  type: "LRN"
  bottom: "pool1/3x3_s2"
  top: "pool1/norm1"
  lrn_param {
    local_size: 5
    alpha: 0.0001
    beta: 0.75
  }
}
layer {
  name: "conv2/3x3_reduce"
  type: "Convolution"
  bottom: "pool1/norm1"
  top: "conv2/3x3_reduce"
  param {
    lr_mult: 1
    decay_mult: 1
  }
  param {
    lr_mult: 2
    decay_mult: 0
  }
  convolution_param {
    num_output: 64
    kernel_size: 1
    weight_filler {
      type: "xavier"
      std: 0.1
    }
    bias_filler {
      type: "constant"
      value: 0.2
    }
  }
}
layer {
  name: "conv2/relu_3x3_reduce"
  type: "ReLU"
  bottom: "conv2/3x3_reduce"
  top: "conv2/3x3_reduce"
}
layer {
  name: "conv2/3x3"
  type: "Convolution"
  bottom: "conv2/3x3_reduce"
  top: "conv2/3x3"
  param {
    lr_mult: 1
    decay_mult: 1
  }
  param {
    lr_mult: 2
    decay_mult: 0
  }
  convolution_param {
    num_output: 192
    pad: 1
    kernel_size: 3
    weight_filler {
      type: "xavier"
      std: 0.03
    }
    bias_filler {
      type: "constant"
      value: 0.2
    }
  }
}
layer {
  name: "conv2/relu_3x3"
  type: "ReLU"
  bottom: "conv2/3x3"
  top: "conv2/3x3"
}
layer {
  name: "conv2/norm2"
  type: "LRN"
  bottom: "conv2/3x3"
  top: "conv2/norm2"
  lrn_param {
    local_size: 5
    alpha: 0.0001
    beta: 0.75
  }
}
layer {
  name: "pool2/3x3_s2"
  type: "Pooling"
  bottom: "conv2/norm2"
  top: "pool2/3x3_s2"
  pooling_param {
    pool: MAX
    kernel_size: 3
    stride: 2
  }
}
layer {
  name: "inception_3a/1x1"
  type: "Convolution"
  bottom: "pool2/3x3_s2"
  top: "inception_3a/1x1"
  param {
    lr_mult: 1
    decay_mult: 1
  }
  param {
    lr_mult: 2
    decay_mult: 0
  }
  convolution_param {
    num_output: 64
    kernel_size: 1
    weight_filler {
      type: "xavier"
      std: 0.03
    }
    bias_filler {
      type: "constant"
      value: 0.2
    }
  }
}
layer {
  name: "inception_3a/relu_1x1"
  type: "ReLU"
  bottom: "inception_3a/1x1"
  top: "inception_3a/1x1"
}
layer {
  name: "inception_3a/3x3_reduce"
  type: "Convolution"
  bottom: "pool2/3x3_s2"
  top: "inception_3a/3x3_reduce"
  param {
    lr_mult: 1
    decay_mult: 1
  }
  param {
    lr_mult: 2
    decay_mult: 0
  }
  convolution_param {
    num_output: 96
    kernel_size: 1
    weight_filler {
      type: "xavier"
      std: 0.09
    }
    bias_filler {
      type: "constant"
      value: 0.2
    }
  }
}
layer {
  name: "inception_3a/relu_3x3_reduce"
  type: "ReLU"
  bottom: "inception_3a/3x3_reduce"
  top: "inception_3a/3x3_reduce"
}
layer {
  name: "inception_3a/3x3"
  type: "Convolution"
  bottom: "inception_3a/3x3_reduce"
  top: "inception_3a/3x3"
  param {
    lr_mult: 1
    decay_mult: 1
  }
  param {
    lr_mult: 2
    decay_mult: 0
  }
  convolution_param {
    num_output: 128
    pad: 1
    kernel_size: 3
    weight_filler {
      type: "xavier"
      std: 0.03
    }
    bias_filler {
      type: "constant"
      value: 0.2
    }
  }
}
layer {
  name: "inception_3a/relu_3x3"
  type: "ReLU"
  bottom: "inception_3a/3x3"
  top: "inception_3a/3x3"
}
layer {
  name: "inception_3a/5x5_reduce"
  type: "Convolution"
  bottom: "pool2/3x3_s2"
  top: "inception_3a/5x5_reduce"
  param {
    lr_mult: 1
    decay_mult: 1
  }
  param {
    lr_mult: 2
    decay_mult: 0
  }
  convolution_param {
    num_output: 16
    kernel_size: 1
    weight_filler {
      type: "xavier"
      std: 0.2
    }
    bias_filler {
      type: "constant"
      value: 0.2
    }
  }
}
layer {
  name: "inception_3a/relu_5x5_reduce"
  type: "ReLU"
  bottom: "inception_3a/5x5_reduce"
  top: "inception_3a/5x5_reduce"
}
layer {
  name: "inception_3a/5x5"
  type: "Convolution"
  bottom: "inception_3a/5x5_reduce"
  top: "inception_3a/5x5"
  param {
    lr_mult: 1
    decay_mult: 1
  }
  param {
    lr_mult: 2
    decay_mult: 0
  }
  convolution_param {
    num_output: 32
    pad: 2
    kernel_size: 5
    weight_filler {
      type: "xavier"
      std: 0.03
    }
    bias_filler {
      type: "constant"
      value: 0.2
    }
  }
}
layer {
  name: "inception_3a/relu_5x5"
  type: "ReLU"
  bottom: "inception_3a/5x5"
  top: "inception_3a/5x5"
}
layer {
  name: "inception_3a/pool"
  type: "Pooling"
  bottom: "pool2/3x3_s2"
  top: "inception_3a/pool"
  pooling_param {
    pool: MAX
    kernel_size: 3
    stride: 1
    pad: 1
  }
}
layer {
  name: "inception_3a/pool_proj"
  type: "Convolution"
  bottom: "inception_3a/pool"
  top: "inception_3a/pool_proj"
  param {
    lr_mult: 1
    decay_mult: 1
  }
  param {
    lr_mult: 2
    decay_mult: 0
  }
  convolution_param {
    num_output: 32
    kernel_size: 1
    weight_filler {
      type: "xavier"
      std: 0.1
    }
    bias_filler {
      type: "constant"
      value: 0.2
    }
  }
}
layer {
  name: "inception_3a/relu_pool_proj"
  type: "ReLU"
  bottom: "inception_3a/pool_proj"
  top: "inception_3a/pool_proj"
}
layer {
  name: "inception_3a/output"
  type: "Concat"
  bottom: "inception_3a/1x1"
  bottom: "inception_3a/3x3"
  bottom: "inception_3a/5x5"
  bottom: "inception_3a/pool_proj"
  top: "inception_3a/output"
}
layer {
  name: "inception_3b/1x1"
  type: "Convolution"
  bottom: "inception_3a/output"
  top: "inception_3b/1x1"
  param {
    lr_mult: 1
    decay_mult: 1
  }
  param {
    lr_mult: 2
    decay_mult: 0
  }
  convolution_param {
    num_output: 128
    kernel_size: 1
    weight_filler {
      type: "xavier"
      std: 0.03
    }
    bias_filler {
      type: "constant"
      value: 0.2
    }
  }
}
layer {
  name: "inception_3b/relu_1x1"
  type: "ReLU"
  bottom: "inception_3b/1x1"
  top: "inception_3b/1x1"
}
layer {
  name: "inception_3b/3x3_reduce"
  type: "Convolution"
  bottom: "inception_3a/output"
  top: "inception_3b/3x3_reduce"
  param {
    lr_mult: 1
    decay_mult: 1
  }
  param {
    lr_mult: 2
    decay_mult: 0
  }
  convolution_param {
    num_output: 128
    kernel_size: 1
    weight_filler {
      type: "xavier"
      std: 0.09
    }
    bias_filler {
      type: "constant"
      value: 0.2
    }
  }
}
layer {
  name: "inception_3b/relu_3x3_reduce"
  type: "ReLU"
  bottom: "inception_3b/3x3_reduce"
  top: "inception_3b/3x3_reduce"
}
layer {
  name: "inception_3b/3x3"
  type: "Convolution"
  bottom: "inception_3b/3x3_reduce"
  top: "inception_3b/3x3"
  param {
    lr_mult: 1
    decay_mult: 1
  }
  param {
    lr_mult: 2
    decay_mult: 0
  }
  convolution_param {
    num_output: 192
    pad: 1
    kernel_size: 3
    weight_filler {
      type: "xavier"
      std: 0.03
    }
    bias_filler {
      type: "constant"
      value: 0.2
    }
  }
}
layer {
  name: "inception_3b/relu_3x3"
  type: "ReLU"
  bottom: "inception_3b/3x3"
  top: "inception_3b/3x3"
}
layer {
  name: "inception_3b/5x5_reduce"
  type: "Convolution"
  bottom: "inception_3a/output"
  top: "inception_3b/5x5_reduce"
  param {
    lr_mult: 1
    decay_mult: 1
  }
  param {
    lr_mult: 2
    decay_mult: 0
  }
  convolution_param {
    num_output: 32
    kernel_size: 1
    weight_filler {
      type: "xavier"
      std: 0.2
    }
    bias_filler {
      type: "constant"
      value: 0.2
    }
  }
}
layer {
  name: "inception_3b/relu_5x5_reduce"
  type: "ReLU"
  bottom: "inception_3b/5x5_reduce"
  top: "inception_3b/5x5_reduce"
}
layer {
  name: "inception_3b/5x5"
  type: "Convolution"
  bottom: "inception_3b/5x5_reduce"
  top: "inception_3b/5x5"
  param {
    lr_mult: 1
    decay_mult: 1
  }
  param {
    lr_mult: 2
    decay_mult: 0
  }
  convolution_param {
    num_output: 96
    pad: 2
    kernel_size: 5
    weight_filler {
      type: "xavier"
      std: 0.03
    }
    bias_filler {
      type: "constant"
      value: 0.2
    }
  }
}
layer {
  name: "inception_3b/relu_5x5"
  type: "ReLU"
  bottom: "inception_3b/5x5"
  top: "inception_3b/5x5"
}
layer {
  name: "inception_3b/pool"
  type: "Pooling"
  bottom: "inception_3a/output"
  top: "inception_3b/pool"
  pooling_param {
    pool: MAX
    kernel_size: 3
    stride: 1
    pad: 1
  }
}
layer {
  name: "inception_3b/pool_proj"
  type: "Convolution"
  bottom: "inception_3b/pool"
  top: "inception_3b/pool_proj"
  param {
    lr_mult: 1
    decay_mult: 1
  }
  param {
    lr_mult: 2
    decay_mult: 0
  }
  convolution_param {
    num_output: 64
    kernel_size: 1
    weight_filler {
      type: "xavier"
      std: 0.1
    }
    bias_filler {
      type: "constant"
      value: 0.2
    }
  }
}
layer {
  name: "inception_3b/relu_pool_proj"
  type: "ReLU"
  bottom: "inception_3b/pool_proj"
  top: "inception_3b/pool_proj"
}
layer {
  name: "inception_3b/output"
  type: "Concat"
  bottom: "inception_3b/1x1"
  bottom: "inception_3b/3x3"
  bottom: "inception_3b/5x5"
  bottom: "inception_3b/pool_proj"
  top: "inception_3b/output"
}
layer {
  name: "pool3/3x3_s2"
  type: "Pooling"
  bottom: "inception_3b/output"
  top: "pool3/3x3_s2"
  pooling_param {
    pool: MAX
    kernel_size: 3
    stride: 2
  }
}
layer {
  name: "inception_4a/1x1"
  type: "Convolution"
  bottom: "pool3/3x3_s2"
  top: "inception_4a/1x1"
  param {
    lr_mult: 1
    decay_mult: 1
  }
  param {
    lr_mult: 2
    decay_mult: 0
  }
  convolution_param {
    num_output: 192
    kernel_size: 1
    weight_filler {
      type: "xavier"
      std: 0.03
    }
    bias_filler {
      type: "constant"
      value: 0.2
    }
  }
}
layer {
  name: "inception_4a/relu_1x1"
  type: "ReLU"
  bottom: "inception_4a/1x1"
  top: "inception_4a/1x1"
}
layer {
  name: "inception_4a/3x3_reduce"
  type: "Convolution"
  bottom: "pool3/3x3_s2"
  top: "inception_4a/3x3_reduce"
  param {
    lr_mult: 1
    decay_mult: 1
  }
  param {
    lr_mult: 2
    decay_mult: 0
  }
  convolution_param {
    num_output: 96
    kernel_size: 1
    weight_filler {
      type: "xavier"
      std: 0.09
    }
    bias_filler {
      type: "constant"
      value: 0.2
    }
  }
}
layer {
  name: "inception_4a/relu_3x3_reduce"
  type: "ReLU"
  bottom: "inception_4a/3x3_reduce"
  top: "inception_4a/3x3_reduce"
}
layer {
  name: "inception_4a/3x3"
  type: "Convolution"
  bottom: "inception_4a/3x3_reduce"
  top: "inception_4a/3x3"
  param {
    lr_mult: 1
    decay_mult: 1
  }
  param {
    lr_mult: 2
    decay_mult: 0
  }
  convolution_param {
    num_output: 208
    pad: 1
    kernel_size: 3
    weight_filler {
      type: "xavier"
      std: 0.03
    }
    bias_filler {
      type: "constant"
      value: 0.2
    }
  }
}
layer {
  name: "inception_4a/relu_3x3"
  type: "ReLU"
  bottom: "inception_4a/3x3"
  top: "inception_4a/3x3"
}
layer {
  name: "inception_4a/5x5_reduce"
  type: "Convolution"
  bottom: "pool3/3x3_s2"
  top: "inception_4a/5x5_reduce"
  param {
    lr_mult: 1
    decay_mult: 1
  }
  param {
    lr_mult: 2
    decay_mult: 0
  }
  convolution_param {
    num_output: 16
    kernel_size: 1
    weight_filler {
      type: "xavier"
      std: 0.2
    }
    bias_filler {
      type: "constant"
      value: 0.2
    }
  }
}
layer {
  name: "inception_4a/relu_5x5_reduce"
  type: "ReLU"
  bottom: "inception_4a/5x5_reduce"
  top: "inception_4a/5x5_reduce"
}
layer {
  name: "inception_4a/5x5"
  type: "Convolution"
  bottom: "inception_4a/5x5_reduce"
  top: "inception_4a/5x5"
  param {
    lr_mult: 1
    decay_mult: 1
  }
  param {
    lr_mult: 2
    decay_mult: 0
  }
  convolution_param {
    num_output: 48
    pad: 2
    kernel_size: 5
    weight_filler {
      type: "xavier"
      std: 0.03
    }
    bias_filler {
      type: "constant"
      value: 0.2
    }
  }
}
layer {
  name: "inception_4a/relu_5x5"
  type: "ReLU"
  bottom: "inception_4a/5x5"
  top: "inception_4a/5x5"
}
layer {
  name: "inception_4a/pool"
  type: "Pooling"
  bottom: "pool3/3x3_s2"
  top: "inception_4a/pool"
  pooling_param {
    pool: MAX
    kernel_size: 3
    stride: 1
    pad: 1
  }
}
layer {
  name: "inception_4a/pool_proj"
  type: "Convolution"
  bottom: "inception_4a/pool"
  top: "inception_4a/pool_proj"
  param {
    lr_mult: 1
    decay_mult: 1
  }
  param {
    lr_mult: 2
    decay_mult: 0
  }
  convolution_param {
    num_output: 64
    kernel_size: 1
    weight_filler {
      type: "xavier"
      std: 0.1
    }
    bias_filler {
      type: "constant"
      value: 0.2
    }
  }
}
layer {
  name: "inception_4a/relu_pool_proj"
  type: "ReLU"
  bottom: "inception_4a/pool_proj"
  top: "inception_4a/pool_proj"
}
layer {
  name: "inception_4a/output"
  type: "Concat"
  bottom: "inception_4a/1x1"
  bottom: "inception_4a/3x3"
  bottom: "inception_4a/5x5"
  bottom: "inception_4a/pool_proj"
  top: "inception_4a/output"
}
layer {
  name: "inception_4b/1x1"
  type: "Convolution"
  bottom: "inception_4a/output"
  top: "inception_4b/1x1"
  param {
    lr_mult: 1
    decay_mult: 1
  }
  param {
    lr_mult: 2
    decay_mult: 0
  }
  convolution_param {
    num_output: 160
    kernel_size: 1
    weight_filler {
      type: "xavier"
      std: 0.03
    }
    bias_filler {
      type: "constant"
      value: 0.2
    }
  }
}
layer {
  name: "inception_4b/relu_1x1"
  type: "ReLU"
  bottom: "inception_4b/1x1"
  top: "inception_4b/1x1"
}
layer {
  name: "inception_4b/3x3_reduce"
  type: "Convolution"
  bottom: "inception_4a/output"
  top: "inception_4b/3x3_reduce"
  param {
    lr_mult: 1
    decay_mult: 1
  }
  param {
    lr_mult: 2
    decay_mult: 0
  }
  convolution_param {
    num_output: 112
    kernel_size: 1
    weight_filler {
      type: "xavier"
      std: 0.09
    }
    bias_filler {
      type: "constant"
      value: 0.2
    }
  }
}
layer {
  name: "inception_4b/relu_3x3_reduce"
  type: "ReLU"
  bottom: "inception_4b/3x3_reduce"
  top: "inception_4b/3x3_reduce"
}
layer {
  name: "inception_4b/3x3"
  type: "Convolution"
  bottom: "inception_4b/3x3_reduce"
  top: "inception_4b/3x3"
  param {
    lr_mult: 1
    decay_mult: 1
  }
  param {
    lr_mult: 2
    decay_mult: 0
  }
  convolution_param {
    num_output: 224
    pad: 1
    kernel_size: 3
    weight_filler {
      type: "xavier"
      std: 0.03
    }
    bias_filler {
      type: "constant"
      value: 0.2
    }
  }
}
layer {
  name: "inception_4b/relu_3x3"
  type: "ReLU"
  bottom: "inception_4b/3x3"
  top: "inception_4b/3x3"
}
layer {
  name: "inception_4b/5x5_reduce"
  type: "Convolution"
  bottom: "inception_4a/output"
  top: "inception_4b/5x5_reduce"
  param {
    lr_mult: 1
    decay_mult: 1
  }
  param {
    lr_mult: 2
    decay_mult: 0
  }
  convolution_param {
    num_output: 24
    kernel_size: 1
    weight_filler {
      type: "xavier"
      std: 0.2
    }
    bias_filler {
      type: "constant"
      value: 0.2
    }
  }
}
layer {
  name: "inception_4b/relu_5x5_reduce"
  type: "ReLU"
  bottom: "inception_4b/5x5_reduce"
  top: "inception_4b/5x5_reduce"
}
layer {
  name: "inception_4b/5x5"
  type: "Convolution"
  bottom: "inception_4b/5x5_reduce"
  top: "inception_4b/5x5"
  param {
    lr_mult: 1
    decay_mult: 1
  }
  param {
    lr_mult: 2
    decay_mult: 0
  }
  convolution_param {
    num_output: 64
    pad: 2
    kernel_size: 5
    weight_filler {
      type: "xavier"
      std: 0.03
    }
    bias_filler {
      type: "constant"
      value: 0.2
    }
  }
}
layer {
  name: "inception_4b/relu_5x5"
  type: "ReLU"
  bottom: "inception_4b/5x5"
  top: "inception_4b/5x5"
}
layer {
  name: "inception_4b/pool"
  type: "Pooling"
  bottom: "inception_4a/output"
  top: "inception_4b/pool"
  pooling_param {
    pool: MAX
    kernel_size: 3
    stride: 1
    pad: 1
  }
}
layer {
  name: "inception_4b/pool_proj"
  type: "Convolution"
  bottom: "inception_4b/pool"
  top: "inception_4b/pool_proj"
  param {
    lr_mult: 1
    decay_mult: 1
  }
  param {
    lr_mult: 2
    decay_mult: 0
  }
  convolution_param {
    num_output: 64
    kernel_size: 1
    weight_filler {
      type: "xavier"
      std: 0.1
    }
    bias_filler {
      type: "constant"
      value: 0.2
    }
  }
}
layer {
  name: "inception_4b/relu_pool_proj"
  type: "ReLU"
  bottom: "inception_4b/pool_proj"
  top: "inception_4b/pool_proj"
}
layer {
  name: "inception_4b/output"
  type: "Concat"
  bottom: "inception_4b/1x1"
  bottom: "inception_4b/3x3"
  bottom: "inception_4b/5x5"
  bottom: "inception_4b/pool_proj"
  top: "inception_4b/output"
}
layer {
  name: "inception_4c/1x1"
  type: "Convolution"
  bottom: "inception_4b/output"
  top: "inception_4c/1x1"
  param {
    lr_mult: 1
    decay_mult: 1
  }
  param {
    lr_mult: 2
    decay_mult: 0
  }
  convolution_param {
    num_output: 128
    kernel_size: 1
    weight_filler {
      type: "xavier"
      std: 0.03
    }
    bias_filler {
      type: "constant"
      value: 0.2
    }
  }
}
layer {
  name: "inception_4c/relu_1x1"
  type: "ReLU"
  bottom: "inception_4c/1x1"
  top: "inception_4c/1x1"
}
layer {
  name: "inception_4c/3x3_reduce"
  type: "Convolution"
  bottom: "inception_4b/output"
  top: "inception_4c/3x3_reduce"
  param {
    lr_mult: 1
    decay_mult: 1
  }
  param {
    lr_mult: 2
    decay_mult: 0
  }
  convolution_param {
    num_output: 128
    kernel_size: 1
    weight_filler {
      type: "xavier"
      std: 0.09
    }
    bias_filler {
      type: "constant"
      value: 0.2
    }
  }
}
layer {
  name: "inception_4c/relu_3x3_reduce"
  type: "ReLU"
  bottom: "inception_4c/3x3_reduce"
  top: "inception_4c/3x3_reduce"
}
layer {
  name: "inception_4c/3x3"
  type: "Convolution"
  bottom: "inception_4c/3x3_reduce"
  top: "inception_4c/3x3"
  param {
    lr_mult: 1
    decay_mult: 1
  }
  param {
    lr_mult: 2
    decay_mult: 0
  }
  convolution_param {
    num_output: 256
    pad: 1
    kernel_size: 3
    weight_filler {
      type: "xavier"
      std: 0.03
    }
    bias_filler {
      type: "constant"
      value: 0.2
    }
  }
}
layer {
  name: "inception_4c/relu_3x3"
  type: "ReLU"
  bottom: "inception_4c/3x3"
  top: "inception_4c/3x3"
}
layer {
  name: "inception_4c/5x5_reduce"
  type: "Convolution"
  bottom: "inception_4b/output"
  top: "inception_4c/5x5_reduce"
  param {
    lr_mult: 1
    decay_mult: 1
  }
  param {
    lr_mult: 2
    decay_mult: 0
  }
  convolution_param {
    num_output: 24
    kernel_size: 1
    weight_filler {
      type: "xavier"
      std: 0.2
    }
    bias_filler {
      type: "constant"
      value: 0.2
    }
  }
}
layer {
  name: "inception_4c/relu_5x5_reduce"
  type: "ReLU"
  bottom: "inception_4c/5x5_reduce"
  top: "inception_4c/5x5_reduce"
}
layer {
  name: "inception_4c/5x5"
  type: "Convolution"
  bottom: "inception_4c/5x5_reduce"
  top: "inception_4c/5x5"
  param {
    lr_mult: 1
    decay_mult: 1
  }
  param {
    lr_mult: 2
    decay_mult: 0
  }
  convolution_param {
    num_output: 64
    pad: 2
    kernel_size: 5
    weight_filler {
      type: "xavier"
      std: 0.03
    }
    bias_filler {
      type: "constant"
      value: 0.2
    }
  }
}
layer {
  name: "inception_4c/relu_5x5"
  type: "ReLU"
  bottom: "inception_4c/5x5"
  top: "inception_4c/5x5"
}
layer {
  name: "inception_4c/pool"
  type: "Pooling"
  bottom: "inception_4b/output"
  top: "inception_4c/pool"
  pooling_param {
    pool: MAX
    kernel_size: 3
    stride: 1
    pad: 1
  }
}
layer {
  name: "inception_4c/pool_proj"
  type: "Convolution"
  bottom: "inception_4c/pool"
  top: "inception_4c/pool_proj"
  param {
    lr_mult: 1
    decay_mult: 1
  }
  param {
    lr_mult: 2
    decay_mult: 0
  }
  convolution_param {
    num_output: 64
    kernel_size: 1
    weight_filler {
      type: "xavier"
      std: 0.1
    }
    bias_filler {
      type: "constant"
      value: 0.2
    }
  }
}
layer {
  name: "inception_4c/relu_pool_proj"
  type: "ReLU"
  bottom: "inception_4c/pool_proj"
  top: "inception_4c/pool_proj"
}
layer {
  name: "inception_4c/output"
  type: "Concat"
  bottom: "inception_4c/1x1"
  bottom: "inception_4c/3x3"
  bottom: "inception_4c/5x5"
  bottom: "inception_4c/pool_proj"
  top: "inception_4c/output"
}
layer {
  name: "inception_4d/1x1"
  type: "Convolution"
  bottom: "inception_4c/output"
  top: "inception_4d/1x1"
  param {
    lr_mult: 1
    decay_mult: 1
  }
  param {
    lr_mult: 2
    decay_mult: 0
  }
  convolution_param {
    num_output: 112
    kernel_size: 1
    weight_filler {
      type: "xavier"
      std: 0.03
    }
    bias_filler {
      type: "constant"
      value: 0.2
    }
  }
}
layer {
  name: "inception_4d/relu_1x1"
  type: "ReLU"
  bottom: "inception_4d/1x1"
  top: "inception_4d/1x1"
}
layer {
  name: "inception_4d/3x3_reduce"
  type: "Convolution"
  bottom: "inception_4c/output"
  top: "inception_4d/3x3_reduce"
  param {
    lr_mult: 1
    decay_mult: 1
  }
  param {
    lr_mult: 2
    decay_mult: 0
  }
  convolution_param {
    num_output: 144
    kernel_size: 1
    weight_filler {
      type: "xavier"
      std: 0.09
    }
    bias_filler {
      type: "constant"
      value: 0.2
    }
  }
}
layer {
  name: "inception_4d/relu_3x3_reduce"
  type: "ReLU"
  bottom: "inception_4d/3x3_reduce"
  top: "inception_4d/3x3_reduce"
}
layer {
  name: "inception_4d/3x3"
  type: "Convolution"
  bottom: "inception_4d/3x3_reduce"
  top: "inception_4d/3x3"
  param {
    lr_mult: 1
    decay_mult: 1
  }
  param {
    lr_mult: 2
    decay_mult: 0
  }
  convolution_param {
    num_output: 288
    pad: 1
    kernel_size: 3
    weight_filler {
      type: "xavier"
      std: 0.03
    }
    bias_filler {
      type: "constant"
      value: 0.2
    }
  }
}
layer {
  name: "inception_4d/relu_3x3"
  type: "ReLU"
  bottom: "inception_4d/3x3"
  top: "inception_4d/3x3"
}
layer {
  name: "inception_4d/5x5_reduce"
  type: "Convolution"
  bottom: "inception_4c/output"
  top: "inception_4d/5x5_reduce"
  param {
    lr_mult: 1
    decay_mult: 1
  }
  param {
    lr_mult: 2
    decay_mult: 0
  }
  convolution_param {
    num_output: 32
    kernel_size: 1
    weight_filler {
      type: "xavier"
      std: 0.2
    }
    bias_filler {
      type: "constant"
      value: 0.2
    }
  }
}
layer {
  name: "inception_4d/relu_5x5_reduce"
  type: "ReLU"
  bottom: "inception_4d/5x5_reduce"
  top: "inception_4d/5x5_reduce"
}
layer {
  name: "inception_4d/5x5"
  type: "Convolution"
  bottom: "inception_4d/5x5_reduce"
  top: "inception_4d/5x5"
  param {
    lr_mult: 1
    decay_mult: 1
  }
  param {
    lr_mult: 2
    decay_mult: 0
  }
  convolution_param {
    num_output: 64
    pad: 2
    kernel_size: 5
    weight_filler {
      type: "xavier"
      std: 0.03
    }
    bias_filler {
      type: "constant"
      value: 0.2
    }
  }
}
layer {
  name: "inception_4d/relu_5x5"
  type: "ReLU"
  bottom: "inception_4d/5x5"
  top: "inception_4d/5x5"
}
layer {
  name: "inception_4d/pool"
  type: "Pooling"
  bottom: "inception_4c/output"
  top: "inception_4d/pool"
  pooling_param {
    pool: MAX
    kernel_size: 3
    stride: 1
    pad: 1
  }
}
layer {
  name: "inception_4d/pool_proj"
  type: "Convolution"
  bottom: "inception_4d/pool"
  top: "inception_4d/pool_proj"
  param {
    lr_mult: 1
    decay_mult: 1
  }
  param {
    lr_mult: 2
    decay_mult: 0
  }
  convolution_param {
    num_output: 64
    kernel_size: 1
    weight_filler {
      type: "xavier"
      std: 0.1
    }
    bias_filler {
      type: "constant"
      value: 0.2
    }
  }
}
layer {
  name: "inception_4d/relu_pool_proj"
  type: "ReLU"
  bottom: "inception_4d/pool_proj"
  top: "inception_4d/pool_proj"
}
layer {
  name: "inception_4d/output"
  type: "Concat"
  bottom: "inception_4d/1x1"
  bottom: "inception_4d/3x3"
  bottom: "inception_4d/5x5"
  bottom: "inception_4d/pool_proj"
  top: "inception_4d/output"
}
layer {
  name: "inception_4e/1x1"
  type: "Convolution"
  bottom: "inception_4d/output"
  top: "inception_4e/1x1"
  param {
    lr_mult: 1
    decay_mult: 1
  }
  param {
    lr_mult: 2
    decay_mult: 0
  }
  convolution_param {
    num_output: 256
    kernel_size: 1
    weight_filler {
      type: "xavier"
      std: 0.03
    }
    bias_filler {
      type: "constant"
      value: 0.2
    }
  }
}
layer {
  name: "inception_4e/relu_1x1"
  type: "ReLU"
  bottom: "inception_4e/1x1"
  top: "inception_4e/1x1"
}
layer {
  name: "inception_4e/3x3_reduce"
  type: "Convolution"
  bottom: "inception_4d/output"
  top: "inception_4e/3x3_reduce"
  param {
    lr_mult: 1
    decay_mult: 1
  }
  param {
    lr_mult: 2
    decay_mult: 0
  }
  convolution_param {
    num_output: 160
    kernel_size: 1
    weight_filler {
      type: "xavier"
      std: 0.09
    }
    bias_filler {
      type: "constant"
      value: 0.2
    }
  }
}
layer {
  name: "inception_4e/relu_3x3_reduce"
  type: "ReLU"
  bottom: "inception_4e/3x3_reduce"
  top: "inception_4e/3x3_reduce"
}
layer {
  name: "inception_4e/3x3"
  type: "Convolution"
  bottom: "inception_4e/3x3_reduce"
  top: "inception_4e/3x3"
  param {
    lr_mult: 1
    decay_mult: 1
  }
  param {
    lr_mult: 2
    decay_mult: 0
  }
  convolution_param {
    num_output: 320
    pad: 1
    kernel_size: 3
    weight_filler {
      type: "xavier"
      std: 0.03
    }
    bias_filler {
      type: "constant"
      value: 0.2
    }
  }
}
layer {
  name: "inception_4e/relu_3x3"
  type: "ReLU"
  bottom: "inception_4e/3x3"
  top: "inception_4e/3x3"
}
layer {
  name: "inception_4e/5x5_reduce"
  type: "Convolution"
  bottom: "inception_4d/output"
  top: "inception_4e/5x5_reduce"
  param {
    lr_mult: 1
    decay_mult: 1
  }
  param {
    lr_mult: 2
    decay_mult: 0
  }
  convolution_param {
    num_output: 32
    kernel_size: 1
    weight_filler {
      type: "xavier"
      std: 0.2
    }
    bias_filler {
      type: "constant"
      value: 0.2
    }
  }
}
layer {
  name: "inception_4e/relu_5x5_reduce"
  type: "ReLU"
  bottom: "inception_4e/5x5_reduce"
  top: "inception_4e/5x5_reduce"
}
layer {
  name: "inception_4e/5x5"
  type: "Convolution"
  bottom: "inception_4e/5x5_reduce"
  top: "inception_4e/5x5"
  param {
    lr_mult: 1
    decay_mult: 1
  }
  param {
    lr_mult: 2
    decay_mult: 0
  }
  convolution_param {
    num_output: 128
    pad: 2
    kernel_size: 5
    weight_filler {
      type: "xavier"
      std: 0.03
    }
    bias_filler {
      type: "constant"
      value: 0.2
    }
  }
}
layer {
  name: "inception_4e/relu_5x5"
  type: "ReLU"
  bottom: "inception_4e/5x5"
  top: "inception_4e/5x5"
}
layer {
  name: "inception_4e/pool"
  type: "Pooling"
  bottom: "inception_4d/output"
  top: "inception_4e/pool"
  pooling_param {
    pool: MAX
    kernel_size: 3
    stride: 1
    pad: 1
  }
}
layer {
  name: "inception_4e/pool_proj"
  type: "Convolution"
  bottom: "inception_4e/pool"
  top: "inception_4e/pool_proj"
  param {
    lr_mult: 1
    decay_mult: 1
  }
  param {
    lr_mult: 2
    decay_mult: 0
  }
  convolution_param {
    num_output: 128
    kernel_size: 1
    weight_filler {
      type: "xavier"
      std: 0.1
    }
    bias_filler {
      type: "constant"
      value: 0.2
    }
  }
}
layer {
  name: "inception_4e/relu_pool_proj"
  type: "ReLU"
  bottom: "inception_4e/pool_proj"
  top: "inception_4e/pool_proj"
}
layer {
  name: "inception_4e/output"
  type: "Concat"
  bottom: "inception_4e/1x1"
  bottom: "inception_4e/3x3"
  bottom: "inception_4e/5x5"
  bottom: "inception_4e/pool_proj"
  top: "inception_4e/output"
}
layer {
  name: "pool4/3x3_s2"
  type: "Pooling"
  bottom: "inception_4e/output"
  top: "pool4/3x3_s2"
  pooling_param {
    pool: MAX
    kernel_size: 3
    stride: 2
  }
}
layer {
  name: "inception_5a/1x1"
  type: "Convolution"
  bottom: "pool4/3x3_s2"
  top: "inception_5a/1x1"
  param {
    lr_mult: 1
    decay_mult: 1
  }
  param {
    lr_mult: 2
    decay_mult: 0
  }
  convolution_param {
    num_output: 256
    kernel_size: 1
    weight_filler {
      type: "xavier"
      std: 0.03
    }
    bias_filler {
      type: "constant"
      value: 0.2
    }
  }
}
layer {
  name: "inception_5a/relu_1x1"
  type: "ReLU"
  bottom: "inception_5a/1x1"
  top: "inception_5a/1x1"
}
layer {
  name: "inception_5a/3x3_reduce"
  type: "Convolution"
  bottom: "pool4/3x3_s2"
  top: "inception_5a/3x3_reduce"
  param {
    lr_mult: 1
    decay_mult: 1
  }
  param {
    lr_mult: 2
    decay_mult: 0
  }
  convolution_param {
    num_output: 160
    kernel_size: 1
    weight_filler {
      type: "xavier"
      std: 0.09
    }
    bias_filler {
      type: "constant"
      value: 0.2
    }
  }
}
layer {
  name: "inception_5a/relu_3x3_reduce"
  type: "ReLU"
  bottom: "inception_5a/3x3_reduce"
  top: "inception_5a/3x3_reduce"
}
layer {
  name: "inception_5a/3x3"
  type: "Convolution"
  bottom: "inception_5a/3x3_reduce"
  top: "inception_5a/3x3"
  param {
    lr_mult: 1
    decay_mult: 1
  }
  param {
    lr_mult: 2
    decay_mult: 0
  }
  convolution_param {
    num_output: 320
    pad: 1
    kernel_size: 3
    weight_filler {
      type: "xavier"
      std: 0.03
    }
    bias_filler {
      type: "constant"
      value: 0.2
    }
  }
}
layer {
  name: "inception_5a/relu_3x3"
  type: "ReLU"
  bottom: "inception_5a/3x3"
  top: "inception_5a/3x3"
}
layer {
  name: "inception_5a/5x5_reduce"
  type: "Convolution"
  bottom: "pool4/3x3_s2"
  top: "inception_5a/5x5_reduce"
  param {
    lr_mult: 1
    decay_mult: 1
  }
  param {
    lr_mult: 2
    decay_mult: 0
  }
  convolution_param {
    num_output: 32
    kernel_size: 1
    weight_filler {
      type: "xavier"
      std: 0.2
    }
    bias_filler {
      type: "constant"
      value: 0.2
    }
I0903 16:42:04.826959 29413 layer_factory.hpp:77] Creating layer data
I0903 16:42:04.826979 29413 net.cpp:91] Creating Layer data
I0903 16:42:04.826987 29413 net.cpp:399] data -> data
I0903 16:42:05.728791 29409 net.cpp:141] Setting up data
I0903 16:42:05.728868 29409 net.cpp:148] Top shape: 10 3 224 224 (1505280)
I0903 16:42:05.728875 29409 net.cpp:156] Memory required for data: 6021120
I0903 16:42:05.728899 29409 layer_factory.hpp:77] Creating layer conv1/7x7_s2
I0903 16:42:05.728941 29409 net.cpp:91] Creating Layer conv1/7x7_s2
I0903 16:42:05.728951 29409 net.cpp:425] conv1/7x7_s2 <- data
I0903 16:42:05.728967 29409 net.cpp:399] conv1/7x7_s2 -> conv1/7x7_s2
I0903 16:42:05.730520 29413 net.cpp:141] Setting up data
I0903 16:42:05.730545 29413 net.cpp:148] Top shape: 10 3 224 224 (1505280)
I0903 16:42:05.730554 29413 net.cpp:156] Memory required for data: 6021120
I0903 16:42:05.730564 29413 layer_factory.hpp:77] Creating layer conv1/7x7_s2
I0903 16:42:05.730587 29413 net.cpp:91] Creating Layer conv1/7x7_s2
I0903 16:42:05.730597 29413 net.cpp:425] conv1/7x7_s2 <- data
I0903 16:42:05.730612 29413 net.cpp:399] conv1/7x7_s2 -> conv1/7x7_s2
I0903 16:42:06.035871 29409 net.cpp:141] Setting up conv1/7x7_s2
I0903 16:42:06.035925 29409 net.cpp:148] Top shape: 10 64 112 112 (8028160)
I0903 16:42:06.035933 29409 net.cpp:156] Memory required for data: 38133760
I0903 16:42:06.035961 29409 layer_factory.hpp:77] Creating layer conv1/relu_7x7
I0903 16:42:06.035982 29409 net.cpp:91] Creating Layer conv1/relu_7x7
I0903 16:42:06.035989 29409 net.cpp:425] conv1/relu_7x7 <- conv1/7x7_s2
I0903 16:42:06.035998 29409 net.cpp:386] conv1/relu_7x7 -> conv1/7x7_s2 (in-place)
I0903 16:42:06.036541 29409 net.cpp:141] Setting up conv1/relu_7x7
I0903 16:42:06.036556 29409 net.cpp:148] Top shape: 10 64 112 112 (8028160)
I0903 16:42:06.036561 29409 net.cpp:156] Memory required for data: 70246400
I0903 16:42:06.036566 29409 layer_factory.hpp:77] Creating layer pool1/3x3_s2
I0903 16:42:06.036581 29409 net.cpp:91] Creating Layer pool1/3x3_s2
I0903 16:42:06.036586 29409 net.cpp:425] pool1/3x3_s2 <- conv1/7x7_s2
I0903 16:42:06.036593 29409 net.cpp:399] pool1/3x3_s2 -> pool1/3x3_s2
I0903 16:42:06.036756 29409 net.cpp:141] Setting up pool1/3x3_s2
I0903 16:42:06.036768 29409 net.cpp:148] Top shape: 10 64 56 56 (2007040)
I0903 16:42:06.036772 29409 net.cpp:156] Memory required for data: 78274560
I0903 16:42:06.036777 29409 layer_factory.hpp:77] Creating layer pool1/norm1
I0903 16:42:06.036797 29409 net.cpp:91] Creating Layer pool1/norm1
I0903 16:42:06.036800 29409 net.cpp:425] pool1/norm1 <- pool1/3x3_s2
I0903 16:42:06.036808 29409 net.cpp:399] pool1/norm1 -> pool1/norm1
I0903 16:42:06.036846 29413 net.cpp:141] Setting up conv1/7x7_s2
I0903 16:42:06.036867 29413 net.cpp:148] Top shape: 10 64 112 112 (8028160)
I0903 16:42:06.036873 29413 net.cpp:156] Memory required for data: 38133760
I0903 16:42:06.036888 29413 layer_factory.hpp:77] Creating layer conv1/relu_7x7
I0903 16:42:06.036900 29413 net.cpp:91] Creating Layer conv1/relu_7x7
I0903 16:42:06.036908 29413 net.cpp:425] conv1/relu_7x7 <- conv1/7x7_s2
I0903 16:42:06.036921 29413 net.cpp:386] conv1/relu_7x7 -> conv1/7x7_s2 (in-place)
I0903 16:42:06.037334 29409 net.cpp:141] Setting up pool1/norm1
I0903 16:42:06.037348 29409 net.cpp:148] Top shape: 10 64 56 56 (2007040)
I0903 16:42:06.037353 29409 net.cpp:156] Memory required for data: 86302720
I0903 16:42:06.037358 29409 layer_factory.hpp:77] Creating layer conv2/3x3_reduce
I0903 16:42:06.037379 29409 net.cpp:91] Creating Layer conv2/3x3_reduce
I0903 16:42:06.037384 29409 net.cpp:425] conv2/3x3_reduce <- pool1/norm1
I0903 16:42:06.037385 29413 net.cpp:141] Setting up conv1/relu_7x7
I0903 16:42:06.037392 29409 net.cpp:399] conv2/3x3_reduce -> conv2/3x3_reduce
I0903 16:42:06.037403 29413 net.cpp:148] Top shape: 10 64 112 112 (8028160)
I0903 16:42:06.037408 29413 net.cpp:156] Memory required for data: 70246400
I0903 16:42:06.037415 29413 layer_factory.hpp:77] Creating layer pool1/3x3_s2
I0903 16:42:06.037423 29413 net.cpp:91] Creating Layer pool1/3x3_s2
I0903 16:42:06.037428 29413 net.cpp:425] pool1/3x3_s2 <- conv1/7x7_s2
I0903 16:42:06.037436 29413 net.cpp:399] pool1/3x3_s2 -> pool1/3x3_s2
I0903 16:42:06.037593 29413 net.cpp:141] Setting up pool1/3x3_s2
I0903 16:42:06.037605 29413 net.cpp:148] Top shape: 10 64 56 56 (2007040)
I0903 16:42:06.037609 29413 net.cpp:156] Memory required for data: 78274560
I0903 16:42:06.037614 29413 layer_factory.hpp:77] Creating layer pool1/norm1
I0903 16:42:06.037626 29413 net.cpp:91] Creating Layer pool1/norm1
I0903 16:42:06.037636 29413 net.cpp:425] pool1/norm1 <- pool1/3x3_s2
I0903 16:42:06.037647 29413 net.cpp:399] pool1/norm1 -> pool1/norm1
I0903 16:42:06.039028 29413 net.cpp:141] Setting up pool1/norm1
I0903 16:42:06.039043 29413 net.cpp:148] Top shape: 10 64 56 56 (2007040)
I0903 16:42:06.039048 29413 net.cpp:156] Memory required for data: 86302720
I0903 16:42:06.039053 29413 layer_factory.hpp:77] Creating layer conv2/3x3_reduce
I0903 16:42:06.039067 29413 net.cpp:91] Creating Layer conv2/3x3_reduce
I0903 16:42:06.039072 29413 net.cpp:425] conv2/3x3_reduce <- pool1/norm1
I0903 16:42:06.039080 29413 net.cpp:399] conv2/3x3_reduce -> conv2/3x3_reduce
I0903 16:42:06.041587 29409 net.cpp:141] Setting up conv2/3x3_reduce
I0903 16:42:06.041606 29409 net.cpp:148] Top shape: 10 64 56 56 (2007040)
I0903 16:42:06.041611 29409 net.cpp:156] Memory required for data: 94330880
I0903 16:42:06.041623 29409 layer_factory.hpp:77] Creating layer conv2/relu_3x3_reduce
I0903 16:42:06.041633 29409 net.cpp:91] Creating Layer conv2/relu_3x3_reduce
I0903 16:42:06.041638 29409 net.cpp:425] conv2/relu_3x3_reduce <- conv2/3x3_reduce
I0903 16:42:06.041646 29409 net.cpp:386] conv2/relu_3x3_reduce -> conv2/3x3_reduce (in-place)
I0903 16:42:06.042170 29409 net.cpp:141] Setting up conv2/relu_3x3_reduce
I0903 16:42:06.042184 29409 net.cpp:148] Top shape: 10 64 56 56 (2007040)
I0903 16:42:06.042189 29409 net.cpp:156] Memory required for data: 102359040
I0903 16:42:06.042196 29409 layer_factory.hpp:77] Creating layer conv2/3x3
I0903 16:42:06.042209 29409 net.cpp:91] Creating Layer conv2/3x3
I0903 16:42:06.042214 29409 net.cpp:425] conv2/3x3 <- conv2/3x3_reduce
I0903 16:42:06.042224 29409 net.cpp:399] conv2/3x3 -> conv2/3x3
I0903 16:42:06.043861 29413 net.cpp:141] Setting up conv2/3x3_reduce
I0903 16:42:06.043892 29413 net.cpp:148] Top shape: 10 64 56 56 (2007040)
I0903 16:42:06.043898 29413 net.cpp:156] Memory required for data: 94330880
I0903 16:42:06.043911 29413 layer_factory.hpp:77] Creating layer conv2/relu_3x3_reduce
I0903 16:42:06.043920 29413 net.cpp:91] Creating Layer conv2/relu_3x3_reduce
I0903 16:42:06.043926 29413 net.cpp:425] conv2/relu_3x3_reduce <- conv2/3x3_reduce
I0903 16:42:06.043933 29413 net.cpp:386] conv2/relu_3x3_reduce -> conv2/3x3_reduce (in-place)
I0903 16:42:06.044322 29413 net.cpp:141] Setting up conv2/relu_3x3_reduce
I0903 16:42:06.044337 29413 net.cpp:148] Top shape: 10 64 56 56 (2007040)
I0903 16:42:06.044342 29413 net.cpp:156] Memory required for data: 102359040
I0903 16:42:06.044347 29413 layer_factory.hpp:77] Creating layer conv2/3x3
I0903 16:42:06.044361 29413 net.cpp:91] Creating Layer conv2/3x3
I0903 16:42:06.044366 29413 net.cpp:425] conv2/3x3 <- conv2/3x3_reduce
I0903 16:42:06.044376 29413 net.cpp:399] conv2/3x3 -> conv2/3x3
I0903 16:42:06.047736 29409 net.cpp:141] Setting up conv2/3x3
I0903 16:42:06.047766 29409 net.cpp:148] Top shape: 10 192 56 56 (6021120)
I0903 16:42:06.047772 29409 net.cpp:156] Memory required for data: 126443520
I0903 16:42:06.047785 29409 layer_factory.hpp:77] Creating layer conv2/relu_3x3
I0903 16:42:06.047796 29409 net.cpp:91] Creating Layer conv2/relu_3x3
I0903 16:42:06.047801 29409 net.cpp:425] conv2/relu_3x3 <- conv2/3x3
I0903 16:42:06.047808 29409 net.cpp:386] conv2/relu_3x3 -> conv2/3x3 (in-place)
I0903 16:42:06.048183 29409 net.cpp:141] Setting up conv2/relu_3x3
I0903 16:42:06.048197 29409 net.cpp:148] Top shape: 10 192 56 56 (6021120)
I0903 16:42:06.048202 29409 net.cpp:156] Memory required for data: 150528000
I0903 16:42:06.048207 29409 layer_factory.hpp:77] Creating layer conv2/norm2
I0903 16:42:06.048216 29409 net.cpp:91] Creating Layer conv2/norm2
I0903 16:42:06.048221 29409 net.cpp:425] conv2/norm2 <- conv2/3x3
I0903 16:42:06.048229 29409 net.cpp:399] conv2/norm2 -> conv2/norm2
I0903 16:42:06.048863 29413 net.cpp:141] Setting up conv2/3x3
I0903 16:42:06.048879 29413 net.cpp:148] Top shape: 10 192 56 56 (6021120)
I0903 16:42:06.048884 29413 net.cpp:156] Memory required for data: 126443520
I0903 16:42:06.048909 29413 layer_factory.hpp:77] Creating layer conv2/relu_3x3
I0903 16:42:06.048918 29409 net.cpp:141] Setting up conv2/norm2
I0903 16:42:06.048921 29413 net.cpp:91] Creating Layer conv2/relu_3x3
I0903 16:42:06.048933 29409 net.cpp:148] Top shape: 10 192 56 56 (6021120)
I0903 16:42:06.048934 29413 net.cpp:425] conv2/relu_3x3 <- conv2/3x3
I0903 16:42:06.048940 29409 net.cpp:156] Memory required for data: 174612480
I0903 16:42:06.048946 29409 layer_factory.hpp:77] Creating layer pool2/3x3_s2
I0903 16:42:06.048948 29413 net.cpp:386] conv2/relu_3x3 -> conv2/3x3 (in-place)
I0903 16:42:06.048959 29409 net.cpp:91] Creating Layer pool2/3x3_s2
I0903 16:42:06.048964 29409 net.cpp:425] pool2/3x3_s2 <- conv2/norm2
I0903 16:42:06.048974 29409 net.cpp:399] pool2/3x3_s2 -> pool2/3x3_s2
I0903 16:42:06.049211 29409 net.cpp:141] Setting up pool2/3x3_s2
I0903 16:42:06.049222 29409 net.cpp:148] Top shape: 10 192 28 28 (1505280)
I0903 16:42:06.049226 29409 net.cpp:156] Memory required for data: 180633600
I0903 16:42:06.049232 29409 layer_factory.hpp:77] Creating layer pool2/3x3_s2_pool2/3x3_s2_0_split
I0903 16:42:06.049252 29409 net.cpp:91] Creating Layer pool2/3x3_s2_pool2/3x3_s2_0_split
I0903 16:42:06.049257 29409 net.cpp:425] pool2/3x3_s2_pool2/3x3_s2_0_split <- pool2/3x3_s2
I0903 16:42:06.049263 29409 net.cpp:399] pool2/3x3_s2_pool2/3x3_s2_0_split -> pool2/3x3_s2_pool2/3x3_s2_0_split_0
I0903 16:42:06.049264 29413 net.cpp:141] Setting up conv2/relu_3x3
I0903 16:42:06.049276 29409 net.cpp:399] pool2/3x3_s2_pool2/3x3_s2_0_split -> pool2/3x3_s2_pool2/3x3_s2_0_split_1
I0903 16:42:06.049276 29413 net.cpp:148] Top shape: 10 192 56 56 (6021120)
I0903 16:42:06.049288 29409 net.cpp:399] pool2/3x3_s2_pool2/3x3_s2_0_split -> pool2/3x3_s2_pool2/3x3_s2_0_split_2
I0903 16:42:06.049289 29413 net.cpp:156] Memory required for data: 150528000
I0903 16:42:06.049299 29409 net.cpp:399] pool2/3x3_s2_pool2/3x3_s2_0_split -> pool2/3x3_s2_pool2/3x3_s2_0_split_3
I0903 16:42:06.049299 29413 layer_factory.hpp:77] Creating layer conv2/norm2
I0903 16:42:06.049310 29413 net.cpp:91] Creating Layer conv2/norm2
I0903 16:42:06.049315 29413 net.cpp:425] conv2/norm2 <- conv2/3x3
I0903 16:42:06.049324 29413 net.cpp:399] conv2/norm2 -> conv2/norm2
I0903 16:42:06.049782 29409 net.cpp:141] Setting up pool2/3x3_s2_pool2/3x3_s2_0_split
I0903 16:42:06.049800 29409 net.cpp:148] Top shape: 10 192 28 28 (1505280)
I0903 16:42:06.049808 29409 net.cpp:148] Top shape: 10 192 28 28 (1505280)
I0903 16:42:06.049813 29409 net.cpp:148] Top shape: 10 192 28 28 (1505280)
I0903 16:42:06.049818 29409 net.cpp:148] Top shape: 10 192 28 28 (1505280)
I0903 16:42:06.049821 29409 net.cpp:156] Memory required for data: 204718080
I0903 16:42:06.049826 29409 layer_factory.hpp:77] Creating layer inception_3a/1x1
I0903 16:42:06.049841 29409 net.cpp:91] Creating Layer inception_3a/1x1
I0903 16:42:06.049847 29409 net.cpp:425] inception_3a/1x1 <- pool2/3x3_s2_pool2/3x3_s2_0_split_0
I0903 16:42:06.049875 29409 net.cpp:399] inception_3a/1x1 -> inception_3a/1x1
I0903 16:42:06.050065 29413 net.cpp:141] Setting up conv2/norm2
I0903 16:42:06.050082 29413 net.cpp:148] Top shape: 10 192 56 56 (6021120)
I0903 16:42:06.050087 29413 net.cpp:156] Memory required for data: 174612480
I0903 16:42:06.050093 29413 layer_factory.hpp:77] Creating layer pool2/3x3_s2
I0903 16:42:06.050102 29413 net.cpp:91] Creating Layer pool2/3x3_s2
I0903 16:42:06.050107 29413 net.cpp:425] pool2/3x3_s2 <- conv2/norm2
I0903 16:42:06.050118 29413 net.cpp:399] pool2/3x3_s2 -> pool2/3x3_s2
I0903 16:42:06.050312 29413 net.cpp:141] Setting up pool2/3x3_s2
I0903 16:42:06.050323 29413 net.cpp:148] Top shape: 10 192 28 28 (1505280)
I0903 16:42:06.050328 29413 net.cpp:156] Memory required for data: 180633600
I0903 16:42:06.050333 29413 layer_factory.hpp:77] Creating layer pool2/3x3_s2_pool2/3x3_s2_0_split
I0903 16:42:06.050341 29413 net.cpp:91] Creating Layer pool2/3x3_s2_pool2/3x3_s2_0_split
I0903 16:42:06.050346 29413 net.cpp:425] pool2/3x3_s2_pool2/3x3_s2_0_split <- pool2/3x3_s2
I0903 16:42:06.050355 29413 net.cpp:399] pool2/3x3_s2_pool2/3x3_s2_0_split -> pool2/3x3_s2_pool2/3x3_s2_0_split_0
I0903 16:42:06.050365 29413 net.cpp:399] pool2/3x3_s2_pool2/3x3_s2_0_split -> pool2/3x3_s2_pool2/3x3_s2_0_split_1
I0903 16:42:06.050374 29413 net.cpp:399] pool2/3x3_s2_pool2/3x3_s2_0_split -> pool2/3x3_s2_pool2/3x3_s2_0_split_2
I0903 16:42:06.050380 29413 net.cpp:399] pool2/3x3_s2_pool2/3x3_s2_0_split -> pool2/3x3_s2_pool2/3x3_s2_0_split_3
I0903 16:42:06.050570 29413 net.cpp:141] Setting up pool2/3x3_s2_pool2/3x3_s2_0_split
I0903 16:42:06.050581 29413 net.cpp:148] Top shape: 10 192 28 28 (1505280)
I0903 16:42:06.050587 29413 net.cpp:148] Top shape: 10 192 28 28 (1505280)
I0903 16:42:06.050592 29413 net.cpp:148] Top shape: 10 192 28 28 (1505280)
I0903 16:42:06.050597 29413 net.cpp:148] Top shape: 10 192 28 28 (1505280)
I0903 16:42:06.050601 29413 net.cpp:156] Memory required for data: 204718080
I0903 16:42:06.050606 29413 layer_factory.hpp:77] Creating layer inception_3a/1x1
I0903 16:42:06.050623 29413 net.cpp:91] Creating Layer inception_3a/1x1
I0903 16:42:06.050628 29413 net.cpp:425] inception_3a/1x1 <- pool2/3x3_s2_pool2/3x3_s2_0_split_0
I0903 16:42:06.050648 29413 net.cpp:399] inception_3a/1x1 -> inception_3a/1x1
I0903 16:42:06.053527 29409 net.cpp:141] Setting up inception_3a/1x1
I0903 16:42:06.053545 29409 net.cpp:148] Top shape: 10 64 28 28 (501760)
I0903 16:42:06.053550 29409 net.cpp:156] Memory required for data: 206725120
I0903 16:42:06.053560 29409 layer_factory.hpp:77] Creating layer inception_3a/relu_1x1
I0903 16:42:06.053578 29409 net.cpp:91] Creating Layer inception_3a/relu_1x1
I0903 16:42:06.053585 29409 net.cpp:425] inception_3a/relu_1x1 <- inception_3a/1x1
I0903 16:42:06.053596 29409 net.cpp:386] inception_3a/relu_1x1 -> inception_3a/1x1 (in-place)
I0903 16:42:06.054162 29409 net.cpp:141] Setting up inception_3a/relu_1x1
I0903 16:42:06.054177 29409 net.cpp:148] Top shape: 10 64 28 28 (501760)
I0903 16:42:06.054183 29409 net.cpp:156] Memory required for data: 208732160
I0903 16:42:06.054188 29409 layer_factory.hpp:77] Creating layer inception_3a/3x3_reduce
I0903 16:42:06.054217 29409 net.cpp:91] Creating Layer inception_3a/3x3_reduce
I0903 16:42:06.054224 29409 net.cpp:425] inception_3a/3x3_reduce <- pool2/3x3_s2_pool2/3x3_s2_0_split_1
I0903 16:42:06.054232 29409 net.cpp:399] inception_3a/3x3_reduce -> inception_3a/3x3_reduce
I0903 16:42:06.055181 29413 net.cpp:141] Setting up inception_3a/1x1
I0903 16:42:06.055199 29413 net.cpp:148] Top shape: 10 64 28 28 (501760)
I0903 16:42:06.055204 29413 net.cpp:156] Memory required for data: 206725120
I0903 16:42:06.055214 29413 layer_factory.hpp:77] Creating layer inception_3a/relu_1x1
I0903 16:42:06.055223 29413 net.cpp:91] Creating Layer inception_3a/relu_1x1
I0903 16:42:06.055229 29413 net.cpp:425] inception_3a/relu_1x1 <- inception_3a/1x1
I0903 16:42:06.055239 29413 net.cpp:386] inception_3a/relu_1x1 -> inception_3a/1x1 (in-place)
I0903 16:42:06.055752 29413 net.cpp:141] Setting up inception_3a/relu_1x1
I0903 16:42:06.055768 29413 net.cpp:148] Top shape: 10 64 28 28 (501760)
I0903 16:42:06.055773 29413 net.cpp:156] Memory required for data: 208732160
I0903 16:42:06.055778 29413 layer_factory.hpp:77] Creating layer inception_3a/3x3_reduce
I0903 16:42:06.055794 29413 net.cpp:91] Creating Layer inception_3a/3x3_reduce
I0903 16:42:06.055800 29413 net.cpp:425] inception_3a/3x3_reduce <- pool2/3x3_s2_pool2/3x3_s2_0_split_1
I0903 16:42:06.055812 29413 net.cpp:399] inception_3a/3x3_reduce -> inception_3a/3x3_reduce
I0903 16:42:06.060276 29409 net.cpp:141] Setting up inception_3a/3x3_reduce
I0903 16:42:06.060294 29409 net.cpp:148] Top shape: 10 96 28 28 (752640)
I0903 16:42:06.060299 29409 net.cpp:156] Memory required for data: 211742720
I0903 16:42:06.060317 29409 layer_factory.hpp:77] Creating layer inception_3a/relu_3x3_reduce
I0903 16:42:06.060326 29409 net.cpp:91] Creating Layer inception_3a/relu_3x3_reduce
I0903 16:42:06.060333 29409 net.cpp:425] inception_3a/relu_3x3_reduce <- inception_3a/3x3_reduce
I0903 16:42:06.060339 29409 net.cpp:386] inception_3a/relu_3x3_reduce -> inception_3a/3x3_reduce (in-place)
I0903 16:42:06.060735 29409 net.cpp:141] Setting up inception_3a/relu_3x3_reduce
I0903 16:42:06.060747 29409 net.cpp:148] Top shape: 10 96 28 28 (752640)
I0903 16:42:06.060752 29409 net.cpp:156] Memory required for data: 214753280
I0903 16:42:06.060757 29409 layer_factory.hpp:77] Creating layer inception_3a/3x3
I0903 16:42:06.060775 29409 net.cpp:91] Creating Layer inception_3a/3x3
I0903 16:42:06.060781 29409 net.cpp:425] inception_3a/3x3 <- inception_3a/3x3_reduce
I0903 16:42:06.060793 29409 net.cpp:399] inception_3a/3x3 -> inception_3a/3x3
I0903 16:42:06.061089 29413 net.cpp:141] Setting up inception_3a/3x3_reduce
I0903 16:42:06.061106 29413 net.cpp:148] Top shape: 10 96 28 28 (752640)
I0903 16:42:06.061111 29413 net.cpp:156] Memory required for data: 211742720
I0903 16:42:06.061125 29413 layer_factory.hpp:77] Creating layer inception_3a/relu_3x3_reduce
I0903 16:42:06.061134 29413 net.cpp:91] Creating Layer inception_3a/relu_3x3_reduce
I0903 16:42:06.061139 29413 net.cpp:425] inception_3a/relu_3x3_reduce <- inception_3a/3x3_reduce
I0903 16:42:06.061146 29413 net.cpp:386] inception_3a/relu_3x3_reduce -> inception_3a/3x3_reduce (in-place)
I0903 16:42:06.061532 29413 net.cpp:141] Setting up inception_3a/relu_3x3_reduce
I0903 16:42:06.061545 29413 net.cpp:148] Top shape: 10 96 28 28 (752640)
I0903 16:42:06.061550 29413 net.cpp:156] Memory required for data: 214753280
I0903 16:42:06.061555 29413 layer_factory.hpp:77] Creating layer inception_3a/3x3
I0903 16:42:06.061578 29413 net.cpp:91] Creating Layer inception_3a/3x3
I0903 16:42:06.061583 29413 net.cpp:425] inception_3a/3x3 <- inception_3a/3x3_reduce
I0903 16:42:06.061592 29413 net.cpp:399] inception_3a/3x3 -> inception_3a/3x3
I0903 16:42:06.064272 29409 net.cpp:141] Setting up inception_3a/3x3
I0903 16:42:06.064290 29409 net.cpp:148] Top shape: 10 128 28 28 (1003520)
I0903 16:42:06.064294 29409 net.cpp:156] Memory required for data: 218767360
I0903 16:42:06.064303 29409 layer_factory.hpp:77] Creating layer inception_3a/relu_3x3
I0903 16:42:06.064313 29409 net.cpp:91] Creating Layer inception_3a/relu_3x3
I0903 16:42:06.064318 29409 net.cpp:425] inception_3a/relu_3x3 <- inception_3a/3x3
I0903 16:42:06.064328 29409 net.cpp:386] inception_3a/relu_3x3 -> inception_3a/3x3 (in-place)
I0903 16:42:06.064921 29409 net.cpp:141] Setting up inception_3a/relu_3x3
I0903 16:42:06.064936 29409 net.cpp:148] Top shape: 10 128 28 28 (1003520)
I0903 16:42:06.064941 29409 net.cpp:156] Memory required for data: 222781440
I0903 16:42:06.064940 29413 net.cpp:141] Setting up inception_3a/3x3
I0903 16:42:06.064947 29409 layer_factory.hpp:77] Creating layer inception_3a/5x5_reduce
I0903 16:42:06.064959 29413 net.cpp:148] Top shape: 10 128 28 28 (1003520)
I0903 16:42:06.064963 29413 net.cpp:156] Memory required for data: 218767360
I0903 16:42:06.064970 29409 net.cpp:91] Creating Layer inception_3a/5x5_reduce
I0903 16:42:06.064975 29413 layer_factory.hpp:77] Creating layer inception_3a/relu_3x3
I0903 16:42:06.064975 29409 net.cpp:425] inception_3a/5x5_reduce <- pool2/3x3_s2_pool2/3x3_s2_0_split_2
I0903 16:42:06.064986 29413 net.cpp:91] Creating Layer inception_3a/relu_3x3
I0903 16:42:06.064990 29409 net.cpp:399] inception_3a/5x5_reduce -> inception_3a/5x5_reduce
I0903 16:42:06.064991 29413 net.cpp:425] inception_3a/relu_3x3 <- inception_3a/3x3
I0903 16:42:06.064999 29413 net.cpp:386] inception_3a/relu_3x3 -> inception_3a/3x3 (in-place)
I0903 16:42:06.065572 29413 net.cpp:141] Setting up inception_3a/relu_3x3
I0903 16:42:06.065585 29413 net.cpp:148] Top shape: 10 128 28 28 (1003520)
I0903 16:42:06.065590 29413 net.cpp:156] Memory required for data: 222781440
I0903 16:42:06.065595 29413 layer_factory.hpp:77] Creating layer inception_3a/5x5_reduce
I0903 16:42:06.065610 29413 net.cpp:91] Creating Layer inception_3a/5x5_reduce
I0903 16:42:06.065616 29413 net.cpp:425] inception_3a/5x5_reduce <- pool2/3x3_s2_pool2/3x3_s2_0_split_2
I0903 16:42:06.065629 29413 net.cpp:399] inception_3a/5x5_reduce -> inception_3a/5x5_reduce
I0903 16:42:06.067813 29409 net.cpp:141] Setting up inception_3a/5x5_reduce
I0903 16:42:06.067829 29409 net.cpp:148] Top shape: 10 16 28 28 (125440)
I0903 16:42:06.067834 29409 net.cpp:156] Memory required for data: 223283200
I0903 16:42:06.067843 29409 layer_factory.hpp:77] Creating layer inception_3a/relu_5x5_reduce
I0903 16:42:06.067852 29409 net.cpp:91] Creating Layer inception_3a/relu_5x5_reduce
I0903 16:42:06.067858 29409 net.cpp:425] inception_3a/relu_5x5_reduce <- inception_3a/5x5_reduce
I0903 16:42:06.067868 29409 net.cpp:386] inception_3a/relu_5x5_reduce -> inception_3a/5x5_reduce (in-place)
I0903 16:42:06.068356 29413 net.cpp:141] Setting up inception_3a/5x5_reduce
I0903 16:42:06.068369 29413 net.cpp:148] Top shape: 10 16 28 28 (125440)
I0903 16:42:06.068374 29413 net.cpp:156] Memory required for data: 223283200
I0903 16:42:06.068383 29413 layer_factory.hpp:77] Creating layer inception_3a/relu_5x5_reduce
I0903 16:42:06.068388 29409 net.cpp:141] Setting up inception_3a/relu_5x5_reduce
I0903 16:42:06.068392 29413 net.cpp:91] Creating Layer inception_3a/relu_5x5_reduce
I0903 16:42:06.068405 29413 net.cpp:425] inception_3a/relu_5x5_reduce <- inception_3a/5x5_reduce
I0903 16:42:06.068408 29409 net.cpp:148] Top shape: 10 16 28 28 (125440)
I0903 16:42:06.068413 29409 net.cpp:156] Memory required for data: 223784960
I0903 16:42:06.068418 29413 net.cpp:386] inception_3a/relu_5x5_reduce -> inception_3a/5x5_reduce (in-place)
I0903 16:42:06.068418 29409 layer_factory.hpp:77] Creating layer inception_3a/5x5
I0903 16:42:06.068434 29409 net.cpp:91] Creating Layer inception_3a/5x5
I0903 16:42:06.068440 29409 net.cpp:425] inception_3a/5x5 <- inception_3a/5x5_reduce
I0903 16:42:06.068449 29409 net.cpp:399] inception_3a/5x5 -> inception_3a/5x5
I0903 16:42:06.068956 29413 net.cpp:141] Setting up inception_3a/relu_5x5_reduce
I0903 16:42:06.068969 29413 net.cpp:148] Top shape: 10 16 28 28 (125440)
I0903 16:42:06.068974 29413 net.cpp:156] Memory required for data: 223784960
I0903 16:42:06.068979 29413 layer_factory.hpp:77] Creating layer inception_3a/5x5
I0903 16:42:06.068995 29413 net.cpp:91] Creating Layer inception_3a/5x5
I0903 16:42:06.069001 29413 net.cpp:425] inception_3a/5x5 <- inception_3a/5x5_reduce
I0903 16:42:06.069015 29413 net.cpp:399] inception_3a/5x5 -> inception_3a/5x5
I0903 16:42:06.072000 29409 net.cpp:141] Setting up inception_3a/5x5
I0903 16:42:06.072018 29409 net.cpp:148] Top shape: 10 32 28 28 (250880)
I0903 16:42:06.072023 29409 net.cpp:156] Memory required for data: 224788480
I0903 16:42:06.072032 29409 layer_factory.hpp:77] Creating layer inception_3a/relu_5x5
I0903 16:42:06.072046 29409 net.cpp:91] Creating Layer inception_3a/relu_5x5
I0903 16:42:06.072052 29409 net.cpp:425] inception_3a/relu_5x5 <- inception_3a/5x5
I0903 16:42:06.072058 29409 net.cpp:386] inception_3a/relu_5x5 -> inception_3a/5x5 (in-place)
I0903 16:42:06.072430 29409 net.cpp:141] Setting up inception_3a/relu_5x5
I0903 16:42:06.072443 29409 net.cpp:148] Top shape: 10 32 28 28 (250880)
I0903 16:42:06.072448 29409 net.cpp:156] Memory required for data: 225792000
I0903 16:42:06.072453 29409 layer_factory.hpp:77] Creating layer inception_3a/pool
I0903 16:42:06.072464 29409 net.cpp:91] Creating Layer inception_3a/pool
I0903 16:42:06.072469 29409 net.cpp:425] inception_3a/pool <- pool2/3x3_s2_pool2/3x3_s2_0_split_3
I0903 16:42:06.072480 29409 net.cpp:399] inception_3a/pool -> inception_3a/pool
I0903 16:42:06.072710 29413 net.cpp:141] Setting up inception_3a/5x5
I0903 16:42:06.072726 29413 net.cpp:148] Top shape: 10 32 28 28 (250880)
I0903 16:42:06.072731 29413 net.cpp:156] Memory required for data: 224788480
I0903 16:42:06.072743 29413 layer_factory.hpp:77] Creating layer inception_3a/relu_5x5
I0903 16:42:06.072742 29409 net.cpp:141] Setting up inception_3a/pool
I0903 16:42:06.072756 29413 net.cpp:91] Creating Layer inception_3a/relu_5x5
I0903 16:42:06.072759 29409 net.cpp:148] Top shape: 10 192 28 28 (1505280)
I0903 16:42:06.072762 29413 net.cpp:425] inception_3a/relu_5x5 <- inception_3a/5x5
I0903 16:42:06.072764 29409 net.cpp:156] Memory required for data: 231813120
I0903 16:42:06.072769 29409 layer_factory.hpp:77] Creating layer inception_3a/pool_proj
I0903 16:42:06.072772 29413 net.cpp:386] inception_3a/relu_5x5 -> inception_3a/5x5 (in-place)
I0903 16:42:06.072787 29409 net.cpp:91] Creating Layer inception_3a/pool_proj
I0903 16:42:06.072793 29409 net.cpp:425] inception_3a/pool_proj <- inception_3a/pool
I0903 16:42:06.072803 29409 net.cpp:399] inception_3a/pool_proj -> inception_3a/pool_proj
I0903 16:42:06.073148 29413 net.cpp:141] Setting up inception_3a/relu_5x5
I0903 16:42:06.073159 29413 net.cpp:148] Top shape: 10 32 28 28 (250880)
I0903 16:42:06.073164 29413 net.cpp:156] Memory required for data: 225792000
I0903 16:42:06.073168 29413 layer_factory.hpp:77] Creating layer inception_3a/pool
I0903 16:42:06.073181 29413 net.cpp:91] Creating Layer inception_3a/pool
I0903 16:42:06.073187 29413 net.cpp:425] inception_3a/pool <- pool2/3x3_s2_pool2/3x3_s2_0_split_3
I0903 16:42:06.073195 29413 net.cpp:399] inception_3a/pool -> inception_3a/pool
I0903 16:42:06.073381 29413 net.cpp:141] Setting up inception_3a/pool
I0903 16:42:06.073393 29413 net.cpp:148] Top shape: 10 192 28 28 (1505280)
I0903 16:42:06.073397 29413 net.cpp:156] Memory required for data: 231813120
I0903 16:42:06.073402 29413 layer_factory.hpp:77] Creating layer inception_3a/pool_proj
I0903 16:42:06.073418 29413 net.cpp:91] Creating Layer inception_3a/pool_proj
I0903 16:42:06.073424 29413 net.cpp:425] inception_3a/pool_proj <- inception_3a/pool
I0903 16:42:06.073434 29413 net.cpp:399] inception_3a/pool_proj -> inception_3a/pool_proj
I0903 16:42:06.075873 29409 net.cpp:141] Setting up inception_3a/pool_proj
I0903 16:42:06.075896 29409 net.cpp:148] Top shape: 10 32 28 28 (250880)
I0903 16:42:06.075901 29409 net.cpp:156] Memory required for data: 232816640
I0903 16:42:06.075914 29409 layer_factory.hpp:77] Creating layer inception_3a/relu_pool_proj
I0903 16:42:06.075923 29409 net.cpp:91] Creating Layer inception_3a/relu_pool_proj
I0903 16:42:06.075929 29409 net.cpp:425] inception_3a/relu_pool_proj <- inception_3a/pool_proj
I0903 16:42:06.075942 29409 net.cpp:386] inception_3a/relu_pool_proj -> inception_3a/pool_proj (in-place)
I0903 16:42:06.076524 29409 net.cpp:141] Setting up inception_3a/relu_pool_proj
I0903 16:42:06.076539 29409 net.cpp:148] Top shape: 10 32 28 28 (250880)
I0903 16:42:06.076545 29409 net.cpp:156] Memory required for data: 233820160
I0903 16:42:06.076550 29409 layer_factory.hpp:77] Creating layer inception_3a/output
I0903 16:42:06.076573 29409 net.cpp:91] Creating Layer inception_3a/output
I0903 16:42:06.076580 29409 net.cpp:425] inception_3a/output <- inception_3a/1x1
I0903 16:42:06.076586 29409 net.cpp:425] inception_3a/output <- inception_3a/3x3
I0903 16:42:06.076591 29409 net.cpp:425] inception_3a/output <- inception_3a/5x5
I0903 16:42:06.076596 29409 net.cpp:425] inception_3a/output <- inception_3a/pool_proj
I0903 16:42:06.076606 29409 net.cpp:399] inception_3a/output -> inception_3a/output
I0903 16:42:06.076647 29413 net.cpp:141] Setting up inception_3a/pool_proj
I0903 16:42:06.076660 29413 net.cpp:148] Top shape: 10 32 28 28 (250880)
I0903 16:42:06.076665 29413 net.cpp:156] Memory required for data: 232816640
I0903 16:42:06.076678 29409 net.cpp:141] Setting up inception_3a/output
I0903 16:42:06.076679 29413 layer_factory.hpp:77] Creating layer inception_3a/relu_pool_proj
I0903 16:42:06.076690 29409 net.cpp:148] Top shape: 10 256 28 28 (2007040)
I0903 16:42:06.076695 29409 net.cpp:156] Memory required for data: 241848320
I0903 16:42:06.076699 29413 net.cpp:91] Creating Layer inception_3a/relu_pool_proj
I0903 16:42:06.076700 29409 layer_factory.hpp:77] Creating layer inception_3a/output_inception_3a/output_0_split
I0903 16:42:06.076710 29413 net.cpp:425] inception_3a/relu_pool_proj <- inception_3a/pool_proj
I0903 16:42:06.076717 29413 net.cpp:386] inception_3a/relu_pool_proj -> inception_3a/pool_proj (in-place)
I0903 16:42:06.076722 29409 net.cpp:91] Creating Layer inception_3a/output_inception_3a/output_0_split
I0903 16:42:06.076728 29409 net.cpp:425] inception_3a/output_inception_3a/output_0_split <- inception_3a/output
I0903 16:42:06.076735 29409 net.cpp:399] inception_3a/output_inception_3a/output_0_split -> inception_3a/output_inception_3a/output_0_split_0
I0903 16:42:06.076745 29409 net.cpp:399] inception_3a/output_inception_3a/output_0_split -> inception_3a/output_inception_3a/output_0_split_1
I0903 16:42:06.076755 29409 net.cpp:399] inception_3a/output_inception_3a/output_0_split -> inception_3a/output_inception_3a/output_0_split_2
I0903 16:42:06.076762 29409 net.cpp:399] inception_3a/output_inception_3a/output_0_split -> inception_3a/output_inception_3a/output_0_split_3
I0903 16:42:06.077255 29409 net.cpp:141] Setting up inception_3a/output_inception_3a/output_0_split
I0903 16:42:06.077267 29409 net.cpp:148] Top shape: 10 256 28 28 (2007040)
I0903 16:42:06.077273 29409 net.cpp:148] Top shape: 10 256 28 28 (2007040)
I0903 16:42:06.077278 29409 net.cpp:148] Top shape: 10 256 28 28 (2007040)
I0903 16:42:06.077283 29409 net.cpp:148] Top shape: 10 256 28 28 (2007040)
I0903 16:42:06.077281 29413 net.cpp:141] Setting up inception_3a/relu_pool_proj
I0903 16:42:06.077287 29409 net.cpp:156] Memory required for data: 273960960
I0903 16:42:06.077297 29413 net.cpp:148] Top shape: 10 32 28 28 (250880)
I0903 16:42:06.077298 29409 layer_factory.hpp:77] Creating layer inception_3b/1x1
I0903 16:42:06.077303 29413 net.cpp:156] Memory required for data: 233820160
I0903 16:42:06.077308 29413 layer_factory.hpp:77] Creating layer inception_3a/output
I0903 16:42:06.077316 29409 net.cpp:91] Creating Layer inception_3b/1x1
I0903 16:42:06.077321 29413 net.cpp:91] Creating Layer inception_3a/output
I0903 16:42:06.077322 29409 net.cpp:425] inception_3b/1x1 <- inception_3a/output_inception_3a/output_0_split_0
I0903 16:42:06.077327 29413 net.cpp:425] inception_3a/output <- inception_3a/1x1
I0903 16:42:06.077332 29409 net.cpp:399] inception_3b/1x1 -> inception_3b/1x1
I0903 16:42:06.077333 29413 net.cpp:425] inception_3a/output <- inception_3a/3x3
I0903 16:42:06.077339 29413 net.cpp:425] inception_3a/output <- inception_3a/5x5
I0903 16:42:06.077344 29413 net.cpp:425] inception_3a/output <- inception_3a/pool_proj
I0903 16:42:06.077350 29413 net.cpp:399] inception_3a/output -> inception_3a/output
I0903 16:42:06.077463 29413 net.cpp:141] Setting up inception_3a/output
I0903 16:42:06.077476 29413 net.cpp:148] Top shape: 10 256 28 28 (2007040)
I0903 16:42:06.077479 29413 net.cpp:156] Memory required for data: 241848320
I0903 16:42:06.077484 29413 layer_factory.hpp:77] Creating layer inception_3a/output_inception_3a/output_0_split
I0903 16:42:06.077497 29413 net.cpp:91] Creating Layer inception_3a/output_inception_3a/output_0_split
I0903 16:42:06.077502 29413 net.cpp:425] inception_3a/output_inception_3a/output_0_split <- inception_3a/output
I0903 16:42:06.077512 29413 net.cpp:399] inception_3a/output_inception_3a/output_0_split -> inception_3a/output_inception_3a/output_0_split_0
I0903 16:42:06.077520 29413 net.cpp:399] inception_3a/output_inception_3a/output_0_split -> inception_3a/output_inception_3a/output_0_split_1
I0903 16:42:06.077528 29413 net.cpp:399] inception_3a/output_inception_3a/output_0_split -> inception_3a/output_inception_3a/output_0_split_2
I0903 16:42:06.077535 29413 net.cpp:399] inception_3a/output_inception_3a/output_0_split -> inception_3a/output_inception_3a/output_0_split_3
I0903 16:42:06.077890 29413 net.cpp:141] Setting up inception_3a/output_inception_3a/output_0_split
I0903 16:42:06.077901 29413 net.cpp:148] Top shape: 10 256 28 28 (2007040)
I0903 16:42:06.077908 29413 net.cpp:148] Top shape: 10 256 28 28 (2007040)
I0903 16:42:06.077913 29413 net.cpp:148] Top shape: 10 256 28 28 (2007040)
I0903 16:42:06.077917 29413 net.cpp:148] Top shape: 10 256 28 28 (2007040)
I0903 16:42:06.077921 29413 net.cpp:156] Memory required for data: 273960960
I0903 16:42:06.077926 29413 layer_factory.hpp:77] Creating layer inception_3b/1x1
I0903 16:42:06.077941 29413 net.cpp:91] Creating Layer inception_3b/1x1
I0903 16:42:06.077947 29413 net.cpp:425] inception_3b/1x1 <- inception_3a/output_inception_3a/output_0_split_0
I0903 16:42:06.077957 29413 net.cpp:399] inception_3b/1x1 -> inception_3b/1x1
I0903 16:42:06.080224 29409 net.cpp:141] Setting up inception_3b/1x1
I0903 16:42:06.080240 29409 net.cpp:148] Top shape: 10 128 28 28 (1003520)
I0903 16:42:06.080245 29409 net.cpp:156] Memory required for data: 277975040
I0903 16:42:06.080255 29409 layer_factory.hpp:77] Creating layer inception_3b/relu_1x1
I0903 16:42:06.080267 29409 net.cpp:91] Creating Layer inception_3b/relu_1x1
I0903 16:42:06.080273 29409 net.cpp:425] inception_3b/relu_1x1 <- inception_3b/1x1
I0903 16:42:06.080281 29409 net.cpp:386] inception_3b/relu_1x1 -> inception_3b/1x1 (in-place)
I0903 16:42:06.080829 29409 net.cpp:141] Setting up inception_3b/relu_1x1
I0903 16:42:06.080847 29409 net.cpp:148] Top shape: 10 128 28 28 (1003520)
I0903 16:42:06.080852 29409 net.cpp:156] Memory required for data: 281989120
I0903 16:42:06.080858 29409 layer_factory.hpp:77] Creating layer inception_3b/3x3_reduce
I0903 16:42:06.080873 29409 net.cpp:91] Creating Layer inception_3b/3x3_reduce
I0903 16:42:06.080879 29409 net.cpp:425] inception_3b/3x3_reduce <- inception_3a/output_inception_3a/output_0_split_1
I0903 16:42:06.080888 29409 net.cpp:399] inception_3b/3x3_reduce -> inception_3b/3x3_reduce
I0903 16:42:06.080886 29413 net.cpp:141] Setting up inception_3b/1x1
I0903 16:42:06.080905 29413 net.cpp:148] Top shape: 10 128 28 28 (1003520)
I0903 16:42:06.080915 29413 net.cpp:156] Memory required for data: 277975040
I0903 16:42:06.080925 29413 layer_factory.hpp:77] Creating layer inception_3b/relu_1x1
I0903 16:42:06.080934 29413 net.cpp:91] Creating Layer inception_3b/relu_1x1
I0903 16:42:06.080940 29413 net.cpp:425] inception_3b/relu_1x1 <- inception_3b/1x1
I0903 16:42:06.080950 29413 net.cpp:386] inception_3b/relu_1x1 -> inception_3b/1x1 (in-place)
I0903 16:42:06.081472 29413 net.cpp:141] Setting up inception_3b/relu_1x1
I0903 16:42:06.081485 29413 net.cpp:148] Top shape: 10 128 28 28 (1003520)
I0903 16:42:06.081490 29413 net.cpp:156] Memory required for data: 281989120
I0903 16:42:06.081496 29413 layer_factory.hpp:77] Creating layer inception_3b/3x3_reduce
I0903 16:42:06.081514 29413 net.cpp:91] Creating Layer inception_3b/3x3_reduce
I0903 16:42:06.081521 29413 net.cpp:425] inception_3b/3x3_reduce <- inception_3a/output_inception_3a/output_0_split_1
I0903 16:42:06.081532 29413 net.cpp:399] inception_3b/3x3_reduce -> inception_3b/3x3_reduce
I0903 16:42:06.083950 29409 net.cpp:141] Setting up inception_3b/3x3_reduce
I0903 16:42:06.083966 29409 net.cpp:148] Top shape: 10 128 28 28 (1003520)
I0903 16:42:06.083971 29409 net.cpp:156] Memory required for data: 286003200
I0903 16:42:06.083981 29409 layer_factory.hpp:77] Creating layer inception_3b/relu_3x3_reduce
I0903 16:42:06.083992 29409 net.cpp:91] Creating Layer inception_3b/relu_3x3_reduce
I0903 16:42:06.083998 29409 net.cpp:425] inception_3b/relu_3x3_reduce <- inception_3b/3x3_reduce
I0903 16:42:06.084005 29409 net.cpp:386] inception_3b/relu_3x3_reduce -> inception_3b/3x3_reduce (in-place)
I0903 16:42:06.084321 29413 net.cpp:141] Setting up inception_3b/3x3_reduce
I0903 16:42:06.084336 29413 net.cpp:148] Top shape: 10 128 28 28 (1003520)
I0903 16:42:06.084342 29413 net.cpp:156] Memory required for data: 286003200
I0903 16:42:06.084350 29413 layer_factory.hpp:77] Creating layer inception_3b/relu_3x3_reduce
I0903 16:42:06.084357 29409 net.cpp:141] Setting up inception_3b/relu_3x3_reduce
I0903 16:42:06.084362 29413 net.cpp:91] Creating Layer inception_3b/relu_3x3_reduce
I0903 16:42:06.084374 29409 net.cpp:148] Top shape: 10 128 28 28 (1003520)
I0903 16:42:06.084375 29413 net.cpp:425] inception_3b/relu_3x3_reduce <- inception_3b/3x3_reduce
I0903 16:42:06.084379 29409 net.cpp:156] Memory required for data: 290017280
I0903 16:42:06.084383 29413 net.cpp:386] inception_3b/relu_3x3_reduce -> inception_3b/3x3_reduce (in-place)
I0903 16:42:06.084384 29409 layer_factory.hpp:77] Creating layer inception_3b/3x3
I0903 16:42:06.084409 29409 net.cpp:91] Creating Layer inception_3b/3x3
I0903 16:42:06.084415 29409 net.cpp:425] inception_3b/3x3 <- inception_3b/3x3_reduce
I0903 16:42:06.084426 29409 net.cpp:399] inception_3b/3x3 -> inception_3b/3x3
I0903 16:42:06.084749 29413 net.cpp:141] Setting up inception_3b/relu_3x3_reduce
I0903 16:42:06.084760 29413 net.cpp:148] Top shape: 10 128 28 28 (1003520)
I0903 16:42:06.084765 29413 net.cpp:156] Memory required for data: 290017280
I0903 16:42:06.084770 29413 layer_factory.hpp:77] Creating layer inception_3b/3x3
I0903 16:42:06.084787 29413 net.cpp:91] Creating Layer inception_3b/3x3
I0903 16:42:06.084794 29413 net.cpp:425] inception_3b/3x3 <- inception_3b/3x3_reduce
I0903 16:42:06.084803 29413 net.cpp:399] inception_3b/3x3 -> inception_3b/3x3
I0903 16:42:06.089969 29409 net.cpp:141] Setting up inception_3b/3x3
I0903 16:42:06.089994 29409 net.cpp:148] Top shape: 10 192 28 28 (1505280)
I0903 16:42:06.090000 29409 net.cpp:156] Memory required for data: 296038400
I0903 16:42:06.090009 29409 layer_factory.hpp:77] Creating layer inception_3b/relu_3x3
I0903 16:42:06.090029 29409 net.cpp:91] Creating Layer inception_3b/relu_3x3
I0903 16:42:06.090034 29409 net.cpp:425] inception_3b/relu_3x3 <- inception_3b/3x3
I0903 16:42:06.090042 29409 net.cpp:386] inception_3b/relu_3x3 -> inception_3b/3x3 (in-place)
I0903 16:42:06.090665 29409 net.cpp:141] Setting up inception_3b/relu_3x3
I0903 16:42:06.090682 29409 net.cpp:148] Top shape: 10 192 28 28 (1505280)
I0903 16:42:06.090685 29409 net.cpp:156] Memory required for data: 302059520
I0903 16:42:06.090692 29409 layer_factory.hpp:77] Creating layer inception_3b/5x5_reduce
I0903 16:42:06.090710 29409 net.cpp:91] Creating Layer inception_3b/5x5_reduce
I0903 16:42:06.090716 29409 net.cpp:425] inception_3b/5x5_reduce <- inception_3a/output_inception_3a/output_0_split_2
I0903 16:42:06.090728 29409 net.cpp:399] inception_3b/5x5_reduce -> inception_3b/5x5_reduce
I0903 16:42:06.090764 29413 net.cpp:141] Setting up inception_3b/3x3
I0903 16:42:06.090780 29413 net.cpp:148] Top shape: 10 192 28 28 (1505280)
I0903 16:42:06.090786 29413 net.cpp:156] Memory required for data: 296038400
I0903 16:42:06.090796 29413 layer_factory.hpp:77] Creating layer inception_3b/relu_3x3
I0903 16:42:06.090811 29413 net.cpp:91] Creating Layer inception_3b/relu_3x3
I0903 16:42:06.090816 29413 net.cpp:425] inception_3b/relu_3x3 <- inception_3b/3x3
I0903 16:42:06.090826 29413 net.cpp:386] inception_3b/relu_3x3 -> inception_3b/3x3 (in-place)
I0903 16:42:06.091379 29413 net.cpp:141] Setting up inception_3b/relu_3x3
I0903 16:42:06.091393 29413 net.cpp:148] Top shape: 10 192 28 28 (1505280)
I0903 16:42:06.091398 29413 net.cpp:156] Memory required for data: 302059520
I0903 16:42:06.091403 29413 layer_factory.hpp:77] Creating layer inception_3b/5x5_reduce
I0903 16:42:06.091420 29413 net.cpp:91] Creating Layer inception_3b/5x5_reduce
I0903 16:42:06.091426 29413 net.cpp:425] inception_3b/5x5_reduce <- inception_3a/output_inception_3a/output_0_split_2
I0903 16:42:06.091437 29413 net.cpp:399] inception_3b/5x5_reduce -> inception_3b/5x5_reduce
I0903 16:42:06.093777 29409 net.cpp:141] Setting up inception_3b/5x5_reduce
I0903 16:42:06.093796 29409 net.cpp:148] Top shape: 10 32 28 28 (250880)
I0903 16:42:06.093801 29409 net.cpp:156] Memory required for data: 303063040
I0903 16:42:06.093809 29409 layer_factory.hpp:77] Creating layer inception_3b/relu_5x5_reduce
I0903 16:42:06.093818 29409 net.cpp:91] Creating Layer inception_3b/relu_5x5_reduce
I0903 16:42:06.093823 29409 net.cpp:425] inception_3b/relu_5x5_reduce <- inception_3b/5x5_reduce
I0903 16:42:06.093833 29409 net.cpp:386] inception_3b/relu_5x5_reduce -> inception_3b/5x5_reduce (in-place)
I0903 16:42:06.094374 29409 net.cpp:141] Setting up inception_3b/relu_5x5_reduce
I0903 16:42:06.094389 29409 net.cpp:148] Top shape: 10 32 28 28 (250880)
I0903 16:42:06.094394 29409 net.cpp:156] Memory required for data: 304066560
I0903 16:42:06.094399 29409 layer_factory.hpp:77] Creating layer inception_3b/5x5
I0903 16:42:06.094414 29409 net.cpp:91] Creating Layer inception_3b/5x5
I0903 16:42:06.094420 29409 net.cpp:425] inception_3b/5x5 <- inception_3b/5x5_reduce
I0903 16:42:06.094432 29409 net.cpp:399] inception_3b/5x5 -> inception_3b/5x5
I0903 16:42:06.094455 29413 net.cpp:141] Setting up inception_3b/5x5_reduce
I0903 16:42:06.094470 29413 net.cpp:148] Top shape: 10 32 28 28 (250880)
I0903 16:42:06.094475 29413 net.cpp:156] Memory required for data: 303063040
I0903 16:42:06.094483 29413 layer_factory.hpp:77] Creating layer inception_3b/relu_5x5_reduce
I0903 16:42:06.094494 29413 net.cpp:91] Creating Layer inception_3b/relu_5x5_reduce
I0903 16:42:06.094501 29413 net.cpp:425] inception_3b/relu_5x5_reduce <- inception_3b/5x5_reduce
I0903 16:42:06.094507 29413 net.cpp:386] inception_3b/relu_5x5_reduce -> inception_3b/5x5_reduce (in-place)
I0903 16:42:06.095044 29413 net.cpp:141] Setting up inception_3b/relu_5x5_reduce
I0903 16:42:06.095058 29413 net.cpp:148] Top shape: 10 32 28 28 (250880)
I0903 16:42:06.095063 29413 net.cpp:156] Memory required for data: 304066560
I0903 16:42:06.095068 29413 layer_factory.hpp:77] Creating layer inception_3b/5x5
I0903 16:42:06.095084 29413 net.cpp:91] Creating Layer inception_3b/5x5
I0903 16:42:06.095090 29413 net.cpp:425] inception_3b/5x5 <- inception_3b/5x5_reduce
I0903 16:42:06.095101 29413 net.cpp:399] inception_3b/5x5 -> inception_3b/5x5
I0903 16:42:06.099352 29409 net.cpp:141] Setting up inception_3b/5x5
I0903 16:42:06.099377 29409 net.cpp:148] Top shape: 10 96 28 28 (752640)
I0903 16:42:06.099382 29409 net.cpp:156] Memory required for data: 307077120
I0903 16:42:06.099395 29409 layer_factory.hpp:77] Creating layer inception_3b/relu_5x5
I0903 16:42:06.099405 29409 net.cpp:91] Creating Layer inception_3b/relu_5x5
I0903 16:42:06.099409 29409 net.cpp:425] inception_3b/relu_5x5 <- inception_3b/5x5
I0903 16:42:06.099419 29409 net.cpp:386] inception_3b/relu_5x5 -> inception_3b/5x5 (in-place)
I0903 16:42:06.099789 29409 net.cpp:141] Setting up inception_3b/relu_5x5
I0903 16:42:06.099802 29409 net.cpp:148] Top shape: 10 96 28 28 (752640)
I0903 16:42:06.099805 29409 net.cpp:156] Memory required for data: 310087680
I0903 16:42:06.099810 29409 layer_factory.hpp:77] Creating layer inception_3b/pool
I0903 16:42:06.099827 29409 net.cpp:91] Creating Layer inception_3b/pool
I0903 16:42:06.099833 29409 net.cpp:425] inception_3b/pool <- inception_3a/output_inception_3a/output_0_split_3
I0903 16:42:06.099840 29409 net.cpp:399] inception_3b/pool -> inception_3b/pool
I0903 16:42:06.099900 29413 net.cpp:141] Setting up inception_3b/5x5
I0903 16:42:06.099915 29413 net.cpp:148] Top shape: 10 96 28 28 (752640)
I0903 16:42:06.099920 29413 net.cpp:156] Memory required for data: 307077120
I0903 16:42:06.099930 29413 layer_factory.hpp:77] Creating layer inception_3b/relu_5x5
I0903 16:42:06.099941 29413 net.cpp:91] Creating Layer inception_3b/relu_5x5
I0903 16:42:06.099947 29413 net.cpp:425] inception_3b/relu_5x5 <- inception_3b/5x5
I0903 16:42:06.099954 29413 net.cpp:386] inception_3b/relu_5x5 -> inception_3b/5x5 (in-place)
I0903 16:42:06.099967 29409 net.cpp:141] Setting up inception_3b/pool
I0903 16:42:06.099979 29409 net.cpp:148] Top shape: 10 256 28 28 (2007040)
I0903 16:42:06.099983 29409 net.cpp:156] Memory required for data: 318115840
I0903 16:42:06.099988 29409 layer_factory.hpp:77] Creating layer inception_3b/pool_proj
I0903 16:42:06.100004 29409 net.cpp:91] Creating Layer inception_3b/pool_proj
I0903 16:42:06.100011 29409 net.cpp:425] inception_3b/pool_proj <- inception_3b/pool
I0903 16:42:06.100021 29409 net.cpp:399] inception_3b/pool_proj -> inception_3b/pool_proj
I0903 16:42:06.100327 29413 net.cpp:141] Setting up inception_3b/relu_5x5
I0903 16:42:06.100340 29413 net.cpp:148] Top shape: 10 96 28 28 (752640)
I0903 16:42:06.100344 29413 net.cpp:156] Memory required for data: 310087680
I0903 16:42:06.100349 29413 layer_factory.hpp:77] Creating layer inception_3b/pool
I0903 16:42:06.100361 29413 net.cpp:91] Creating Layer inception_3b/pool
I0903 16:42:06.100368 29413 net.cpp:425] inception_3b/pool <- inception_3a/output_inception_3a/output_0_split_3
I0903 16:42:06.100378 29413 net.cpp:399] inception_3b/pool -> inception_3b/pool
I0903 16:42:06.100574 29413 net.cpp:141] Setting up inception_3b/pool
I0903 16:42:06.100585 29413 net.cpp:148] Top shape: 10 256 28 28 (2007040)
I0903 16:42:06.100589 29413 net.cpp:156] Memory required for data: 318115840
I0903 16:42:06.100594 29413 layer_factory.hpp:77] Creating layer inception_3b/pool_proj
I0903 16:42:06.100612 29413 net.cpp:91] Creating Layer inception_3b/pool_proj
I0903 16:42:06.100618 29413 net.cpp:425] inception_3b/pool_proj <- inception_3b/pool
I0903 16:42:06.100626 29413 net.cpp:399] inception_3b/pool_proj -> inception_3b/pool_proj
I0903 16:42:06.103057 29409 net.cpp:141] Setting up inception_3b/pool_proj
I0903 16:42:06.103073 29409 net.cpp:148] Top shape: 10 64 28 28 (501760)
I0903 16:42:06.103078 29409 net.cpp:156] Memory required for data: 320122880
I0903 16:42:06.103087 29409 layer_factory.hpp:77] Creating layer inception_3b/relu_pool_proj
I0903 16:42:06.103096 29409 net.cpp:91] Creating Layer inception_3b/relu_pool_proj
I0903 16:42:06.103102 29409 net.cpp:425] inception_3b/relu_pool_proj <- inception_3b/pool_proj
I0903 16:42:06.103109 29409 net.cpp:386] inception_3b/relu_pool_proj -> inception_3b/pool_proj (in-place)
I0903 16:42:06.103713 29409 net.cpp:141] Setting up inception_3b/relu_pool_proj
I0903 16:42:06.103729 29409 net.cpp:148] Top shape: 10 64 28 28 (501760)
I0903 16:42:06.103734 29409 net.cpp:156] Memory required for data: 322129920
I0903 16:42:06.103739 29409 layer_factory.hpp:77] Creating layer inception_3b/output
I0903 16:42:06.103749 29409 net.cpp:91] Creating Layer inception_3b/output
I0903 16:42:06.103754 29409 net.cpp:425] inception_3b/output <- inception_3b/1x1
I0903 16:42:06.103760 29409 net.cpp:425] inception_3b/output <- inception_3b/3x3
I0903 16:42:06.103765 29409 net.cpp:425] inception_3b/output <- inception_3b/5x5
I0903 16:42:06.103770 29409 net.cpp:425] inception_3b/output <- inception_3b/pool_proj
I0903 16:42:06.103780 29409 net.cpp:399] inception_3b/output -> inception_3b/output
I0903 16:42:06.103811 29413 net.cpp:141] Setting up inception_3b/pool_proj
I0903 16:42:06.103826 29413 net.cpp:148] Top shape: 10 64 28 28 (501760)
I0903 16:42:06.103830 29413 net.cpp:156] Memory required for data: 320122880
I0903 16:42:06.103840 29413 layer_factory.hpp:77] Creating layer inception_3b/relu_pool_proj
I0903 16:42:06.103849 29413 net.cpp:91] Creating Layer inception_3b/relu_pool_proj
I0903 16:42:06.103854 29413 net.cpp:425] inception_3b/relu_pool_proj <- inception_3b/pool_proj
I0903 16:42:06.103857 29409 net.cpp:141] Setting up inception_3b/output
I0903 16:42:06.103865 29413 net.cpp:386] inception_3b/relu_pool_proj -> inception_3b/pool_proj (in-place)
I0903 16:42:06.103868 29409 net.cpp:148] Top shape: 10 480 28 28 (3763200)
I0903 16:42:06.103873 29409 net.cpp:156] Memory required for data: 337182720
I0903 16:42:06.103878 29409 layer_factory.hpp:77] Creating layer pool3/3x3_s2
I0903 16:42:06.103886 29409 net.cpp:91] Creating Layer pool3/3x3_s2
I0903 16:42:06.103891 29409 net.cpp:425] pool3/3x3_s2 <- inception_3b/output
I0903 16:42:06.103902 29409 net.cpp:399] pool3/3x3_s2 -> pool3/3x3_s2
I0903 16:42:06.104300 29409 net.cpp:141] Setting up pool3/3x3_s2
I0903 16:42:06.104311 29409 net.cpp:148] Top shape: 10 480 14 14 (940800)
I0903 16:42:06.104316 29409 net.cpp:156] Memory required for data: 340945920
I0903 16:42:06.104321 29409 layer_factory.hpp:77] Creating layer pool3/3x3_s2_pool3/3x3_s2_0_split
I0903 16:42:06.104336 29409 net.cpp:91] Creating Layer pool3/3x3_s2_pool3/3x3_s2_0_split
I0903 16:42:06.104341 29409 net.cpp:425] pool3/3x3_s2_pool3/3x3_s2_0_split <- pool3/3x3_s2
I0903 16:42:06.104348 29409 net.cpp:399] pool3/3x3_s2_pool3/3x3_s2_0_split -> pool3/3x3_s2_pool3/3x3_s2_0_split_0
I0903 16:42:06.104357 29409 net.cpp:399] pool3/3x3_s2_pool3/3x3_s2_0_split -> pool3/3x3_s2_pool3/3x3_s2_0_split_1
I0903 16:42:06.104362 29413 net.cpp:141] Setting up inception_3b/relu_pool_proj
I0903 16:42:06.104367 29409 net.cpp:399] pool3/3x3_s2_pool3/3x3_s2_0_split -> pool3/3x3_s2_pool3/3x3_s2_0_split_2
I0903 16:42:06.104378 29413 net.cpp:148] Top shape: 10 64 28 28 (501760)
I0903 16:42:06.104382 29409 net.cpp:399] pool3/3x3_s2_pool3/3x3_s2_0_split -> pool3/3x3_s2_pool3/3x3_s2_0_split_3
I0903 16:42:06.104383 29413 net.cpp:156] Memory required for data: 322129920
I0903 16:42:06.104395 29413 layer_factory.hpp:77] Creating layer inception_3b/output
I0903 16:42:06.104405 29413 net.cpp:91] Creating Layer inception_3b/output
I0903 16:42:06.104410 29413 net.cpp:425] inception_3b/output <- inception_3b/1x1
I0903 16:42:06.104416 29413 net.cpp:425] inception_3b/output <- inception_3b/3x3
I0903 16:42:06.104423 29413 net.cpp:425] inception_3b/output <- inception_3b/5x5
I0903 16:42:06.104426 29413 net.cpp:425] inception_3b/output <- inception_3b/pool_proj
I0903 16:42:06.104437 29413 net.cpp:399] inception_3b/output -> inception_3b/output
I0903 16:42:06.104531 29413 net.cpp:141] Setting up inception_3b/output
I0903 16:42:06.104542 29413 net.cpp:148] Top shape: 10 480 28 28 (3763200)
I0903 16:42:06.104547 29413 net.cpp:156] Memory required for data: 337182720
I0903 16:42:06.104552 29413 layer_factory.hpp:77] Creating layer pool3/3x3_s2
I0903 16:42:06.104563 29413 net.cpp:91] Creating Layer pool3/3x3_s2
I0903 16:42:06.104569 29413 net.cpp:425] pool3/3x3_s2 <- inception_3b/output
I0903 16:42:06.104576 29413 net.cpp:399] pool3/3x3_s2 -> pool3/3x3_s2
I0903 16:42:06.104600 29409 net.cpp:141] Setting up pool3/3x3_s2_pool3/3x3_s2_0_split
I0903 16:42:06.104612 29409 net.cpp:148] Top shape: 10 480 14 14 (940800)
I0903 16:42:06.104619 29409 net.cpp:148] Top shape: 10 480 14 14 (940800)
I0903 16:42:06.104624 29409 net.cpp:148] Top shape: 10 480 14 14 (940800)
I0903 16:42:06.104629 29409 net.cpp:148] Top shape: 10 480 14 14 (940800)
I0903 16:42:06.104632 29409 net.cpp:156] Memory required for data: 355998720
I0903 16:42:06.104636 29409 layer_factory.hpp:77] Creating layer inception_4a/1x1
I0903 16:42:06.104661 29409 net.cpp:91] Creating Layer inception_4a/1x1
I0903 16:42:06.104667 29409 net.cpp:425] inception_4a/1x1 <- pool3/3x3_s2_pool3/3x3_s2_0_split_0
I0903 16:42:06.104676 29409 net.cpp:399] inception_4a/1x1 -> inception_4a/1x1
I0903 16:42:06.104677 29413 net.cpp:141] Setting up pool3/3x3_s2
I0903 16:42:06.104689 29413 net.cpp:148] Top shape: 10 480 14 14 (940800)
I0903 16:42:06.104693 29413 net.cpp:156] Memory required for data: 340945920
I0903 16:42:06.104698 29413 layer_factory.hpp:77] Creating layer pool3/3x3_s2_pool3/3x3_s2_0_split
I0903 16:42:06.104710 29413 net.cpp:91] Creating Layer pool3/3x3_s2_pool3/3x3_s2_0_split
I0903 16:42:06.104715 29413 net.cpp:425] pool3/3x3_s2_pool3/3x3_s2_0_split <- pool3/3x3_s2
I0903 16:42:06.104724 29413 net.cpp:399] pool3/3x3_s2_pool3/3x3_s2_0_split -> pool3/3x3_s2_pool3/3x3_s2_0_split_0
I0903 16:42:06.104732 29413 net.cpp:399] pool3/3x3_s2_pool3/3x3_s2_0_split -> pool3/3x3_s2_pool3/3x3_s2_0_split_1
I0903 16:42:06.104740 29413 net.cpp:399] pool3/3x3_s2_pool3/3x3_s2_0_split -> pool3/3x3_s2_pool3/3x3_s2_0_split_2
I0903 16:42:06.104748 29413 net.cpp:399] pool3/3x3_s2_pool3/3x3_s2_0_split -> pool3/3x3_s2_pool3/3x3_s2_0_split_3
I0903 16:42:06.105053 29413 net.cpp:141] Setting up pool3/3x3_s2_pool3/3x3_s2_0_split
I0903 16:42:06.105065 29413 net.cpp:148] Top shape: 10 480 14 14 (940800)
I0903 16:42:06.105070 29413 net.cpp:148] Top shape: 10 480 14 14 (940800)
I0903 16:42:06.105077 29413 net.cpp:148] Top shape: 10 480 14 14 (940800)
I0903 16:42:06.105082 29413 net.cpp:148] Top shape: 10 480 14 14 (940800)
I0903 16:42:06.105085 29413 net.cpp:156] Memory required for data: 355998720
I0903 16:42:06.105089 29413 layer_factory.hpp:77] Creating layer inception_4a/1x1
I0903 16:42:06.105105 29413 net.cpp:91] Creating Layer inception_4a/1x1
I0903 16:42:06.105111 29413 net.cpp:425] inception_4a/1x1 <- pool3/3x3_s2_pool3/3x3_s2_0_split_0
I0903 16:42:06.105120 29413 net.cpp:399] inception_4a/1x1 -> inception_4a/1x1
I0903 16:42:06.107990 29409 net.cpp:141] Setting up inception_4a/1x1
I0903 16:42:06.108007 29409 net.cpp:148] Top shape: 10 192 14 14 (376320)
I0903 16:42:06.108012 29409 net.cpp:156] Memory required for data: 357504000
I0903 16:42:06.108022 29409 layer_factory.hpp:77] Creating layer inception_4a/relu_1x1
I0903 16:42:06.108031 29409 net.cpp:91] Creating Layer inception_4a/relu_1x1
I0903 16:42:06.108036 29409 net.cpp:425] inception_4a/relu_1x1 <- inception_4a/1x1
I0903 16:42:06.108043 29409 net.cpp:386] inception_4a/relu_1x1 -> inception_4a/1x1 (in-place)
I0903 16:42:06.108572 29413 net.cpp:141] Setting up inception_4a/1x1
I0903 16:42:06.108588 29409 net.cpp:141] Setting up inception_4a/relu_1x1
I0903 16:42:06.108592 29413 net.cpp:148] Top shape: 10 192 14 14 (376320)
I0903 16:42:06.108603 29409 net.cpp:148] Top shape: 10 192 14 14 (376320)
I0903 16:42:06.108603 29413 net.cpp:156] Memory required for data: 357504000
I0903 16:42:06.108611 29409 net.cpp:156] Memory required for data: 359009280
I0903 16:42:06.108618 29409 layer_factory.hpp:77] Creating layer inception_4a/3x3_reduce
I0903 16:42:06.108620 29413 layer_factory.hpp:77] Creating layer inception_4a/relu_1x1
I0903 16:42:06.108630 29413 net.cpp:91] Creating Layer inception_4a/relu_1x1
I0903 16:42:06.108634 29409 net.cpp:91] Creating Layer inception_4a/3x3_reduce
I0903 16:42:06.108640 29409 net.cpp:425] inception_4a/3x3_reduce <- pool3/3x3_s2_pool3/3x3_s2_0_split_1
I0903 16:42:06.108641 29413 net.cpp:425] inception_4a/relu_1x1 <- inception_4a/1x1
I0903 16:42:06.108652 29409 net.cpp:399] inception_4a/3x3_reduce -> inception_4a/3x3_reduce
I0903 16:42:06.108661 29413 net.cpp:386] inception_4a/relu_1x1 -> inception_4a/1x1 (in-place)
I0903 16:42:06.109282 29413 net.cpp:141] Setting up inception_4a/relu_1x1
I0903 16:42:06.109294 29413 net.cpp:148] Top shape: 10 192 14 14 (376320)
I0903 16:42:06.109299 29413 net.cpp:156] Memory required for data: 359009280
I0903 16:42:06.109304 29413 layer_factory.hpp:77] Creating layer inception_4a/3x3_reduce
I0903 16:42:06.109321 29413 net.cpp:91] Creating Layer inception_4a/3x3_reduce
I0903 16:42:06.109328 29413 net.cpp:425] inception_4a/3x3_reduce <- pool3/3x3_s2_pool3/3x3_s2_0_split_1
I0903 16:42:06.109339 29413 net.cpp:399] inception_4a/3x3_reduce -> inception_4a/3x3_reduce
I0903 16:42:06.112007 29409 net.cpp:141] Setting up inception_4a/3x3_reduce
I0903 16:42:06.112031 29409 net.cpp:148] Top shape: 10 96 14 14 (188160)
I0903 16:42:06.112036 29409 net.cpp:156] Memory required for data: 359761920
I0903 16:42:06.112056 29409 layer_factory.hpp:77] Creating layer inception_4a/relu_3x3_reduce
I0903 16:42:06.112078 29409 net.cpp:91] Creating Layer inception_4a/relu_3x3_reduce
I0903 16:42:06.112087 29409 net.cpp:425] inception_4a/relu_3x3_reduce <- inception_4a/3x3_reduce
I0903 16:42:06.112094 29409 net.cpp:386] inception_4a/relu_3x3_reduce -> inception_4a/3x3_reduce (in-place)
I0903 16:42:06.112401 29413 net.cpp:141] Setting up inception_4a/3x3_reduce
I0903 16:42:06.112416 29413 net.cpp:148] Top shape: 10 96 14 14 (188160)
I0903 16:42:06.112421 29413 net.cpp:156] Memory required for data: 359761920
I0903 16:42:06.112427 29409 net.cpp:141] Setting up inception_4a/relu_3x3_reduce
I0903 16:42:06.112439 29409 net.cpp:148] Top shape: 10 96 14 14 (188160)
I0903 16:42:06.112442 29413 layer_factory.hpp:77] Creating layer inception_4a/relu_3x3_reduce
I0903 16:42:06.112444 29409 net.cpp:156] Memory required for data: 360514560
I0903 16:42:06.112449 29409 layer_factory.hpp:77] Creating layer inception_4a/3x3
I0903 16:42:06.112452 29413 net.cpp:91] Creating Layer inception_4a/relu_3x3_reduce
I0903 16:42:06.112457 29413 net.cpp:425] inception_4a/relu_3x3_reduce <- inception_4a/3x3_reduce
I0903 16:42:06.112467 29409 net.cpp:91] Creating Layer inception_4a/3x3
I0903 16:42:06.112465 29413 net.cpp:386] inception_4a/relu_3x3_reduce -> inception_4a/3x3_reduce (in-place)
I0903 16:42:06.112476 29409 net.cpp:425] inception_4a/3x3 <- inception_4a/3x3_reduce
I0903 16:42:06.112488 29409 net.cpp:399] inception_4a/3x3 -> inception_4a/3x3
I0903 16:42:06.112838 29413 net.cpp:141] Setting up inception_4a/relu_3x3_reduce
I0903 16:42:06.112850 29413 net.cpp:148] Top shape: 10 96 14 14 (188160)
I0903 16:42:06.112854 29413 net.cpp:156] Memory required for data: 360514560
I0903 16:42:06.112860 29413 layer_factory.hpp:77] Creating layer inception_4a/3x3
I0903 16:42:06.112877 29413 net.cpp:91] Creating Layer inception_4a/3x3
I0903 16:42:06.112884 29413 net.cpp:425] inception_4a/3x3 <- inception_4a/3x3_reduce
I0903 16:42:06.112895 29413 net.cpp:399] inception_4a/3x3 -> inception_4a/3x3
I0903 16:42:06.117293 29409 net.cpp:141] Setting up inception_4a/3x3
I0903 16:42:06.117312 29409 net.cpp:148] Top shape: 10 208 14 14 (407680)
I0903 16:42:06.117318 29409 net.cpp:156] Memory required for data: 362145280
I0903 16:42:06.117326 29409 layer_factory.hpp:77] Creating layer inception_4a/relu_3x3
I0903 16:42:06.117336 29409 net.cpp:91] Creating Layer inception_4a/relu_3x3
I0903 16:42:06.117341 29409 net.cpp:425] inception_4a/relu_3x3 <- inception_4a/3x3
I0903 16:42:06.117352 29409 net.cpp:386] inception_4a/relu_3x3 -> inception_4a/3x3 (in-place)
I0903 16:42:06.117979 29409 net.cpp:141] Setting up inception_4a/relu_3x3
I0903 16:42:06.117995 29409 net.cpp:148] Top shape: 10 208 14 14 (407680)
I0903 16:42:06.117998 29409 net.cpp:156] Memory required for data: 363776000
I0903 16:42:06.118005 29409 layer_factory.hpp:77] Creating layer inception_4a/5x5_reduce
I0903 16:42:06.118021 29409 net.cpp:91] Creating Layer inception_4a/5x5_reduce
I0903 16:42:06.118028 29409 net.cpp:425] inception_4a/5x5_reduce <- pool3/3x3_s2_pool3/3x3_s2_0_split_2
I0903 16:42:06.118039 29409 net.cpp:399] inception_4a/5x5_reduce -> inception_4a/5x5_reduce
I0903 16:42:06.118753 29413 net.cpp:141] Setting up inception_4a/3x3
I0903 16:42:06.118769 29413 net.cpp:148] Top shape: 10 208 14 14 (407680)
I0903 16:42:06.118775 29413 net.cpp:156] Memory required for data: 362145280
I0903 16:42:06.118784 29413 layer_factory.hpp:77] Creating layer inception_4a/relu_3x3
I0903 16:42:06.118793 29413 net.cpp:91] Creating Layer inception_4a/relu_3x3
I0903 16:42:06.118799 29413 net.cpp:425] inception_4a/relu_3x3 <- inception_4a/3x3
I0903 16:42:06.118813 29413 net.cpp:386] inception_4a/relu_3x3 -> inception_4a/3x3 (in-place)
I0903 16:42:06.119344 29413 net.cpp:141] Setting up inception_4a/relu_3x3
I0903 16:42:06.119359 29413 net.cpp:148] Top shape: 10 208 14 14 (407680)
I0903 16:42:06.119364 29413 net.cpp:156] Memory required for data: 363776000
I0903 16:42:06.119369 29413 layer_factory.hpp:77] Creating layer inception_4a/5x5_reduce
I0903 16:42:06.119386 29413 net.cpp:91] Creating Layer inception_4a/5x5_reduce
I0903 16:42:06.119392 29413 net.cpp:425] inception_4a/5x5_reduce <- pool3/3x3_s2_pool3/3x3_s2_0_split_2
I0903 16:42:06.119405 29413 net.cpp:399] inception_4a/5x5_reduce -> inception_4a/5x5_reduce
I0903 16:42:06.121170 29409 net.cpp:141] Setting up inception_4a/5x5_reduce
I0903 16:42:06.121192 29409 net.cpp:148] Top shape: 10 16 14 14 (31360)
I0903 16:42:06.121198 29409 net.cpp:156] Memory required for data: 363901440
I0903 16:42:06.121208 29409 layer_factory.hpp:77] Creating layer inception_4a/relu_5x5_reduce
I0903 16:42:06.121217 29409 net.cpp:91] Creating Layer inception_4a/relu_5x5_reduce
I0903 16:42:06.121223 29409 net.cpp:425] inception_4a/relu_5x5_reduce <- inception_4a/5x5_reduce
I0903 16:42:06.121230 29409 net.cpp:386] inception_4a/relu_5x5_reduce -> inception_4a/5x5_reduce (in-place)
I0903 16:42:06.121836 29409 net.cpp:141] Setting up inception_4a/relu_5x5_reduce
I0903 16:42:06.121852 29409 net.cpp:148] Top shape: 10 16 14 14 (31360)
I0903 16:42:06.121857 29409 net.cpp:156] Memory required for data: 364026880
I0903 16:42:06.121863 29409 layer_factory.hpp:77] Creating layer inception_4a/5x5
I0903 16:42:06.121881 29409 net.cpp:91] Creating Layer inception_4a/5x5
I0903 16:42:06.121887 29409 net.cpp:425] inception_4a/5x5 <- inception_4a/5x5_reduce
I0903 16:42:06.121896 29409 net.cpp:399] inception_4a/5x5 -> inception_4a/5x5
I0903 16:42:06.122766 29413 net.cpp:141] Setting up inception_4a/5x5_reduce
I0903 16:42:06.122786 29413 net.cpp:148] Top shape: 10 16 14 14 (31360)
I0903 16:42:06.122791 29413 net.cpp:156] Memory required for data: 363901440
I0903 16:42:06.122802 29413 layer_factory.hpp:77] Creating layer inception_4a/relu_5x5_reduce
I0903 16:42:06.122810 29413 net.cpp:91] Creating Layer inception_4a/relu_5x5_reduce
I0903 16:42:06.122817 29413 net.cpp:425] inception_4a/relu_5x5_reduce <- inception_4a/5x5_reduce
I0903 16:42:06.122823 29413 net.cpp:386] inception_4a/relu_5x5_reduce -> inception_4a/5x5_reduce (in-place)
I0903 16:42:06.123299 29413 net.cpp:141] Setting up inception_4a/relu_5x5_reduce
I0903 16:42:06.123314 29413 net.cpp:148] Top shape: 10 16 14 14 (31360)
I0903 16:42:06.123319 29413 net.cpp:156] Memory required for data: 364026880
I0903 16:42:06.123324 29413 layer_factory.hpp:77] Creating layer inception_4a/5x5
I0903 16:42:06.123342 29413 net.cpp:91] Creating Layer inception_4a/5x5
I0903 16:42:06.123348 29413 net.cpp:425] inception_4a/5x5 <- inception_4a/5x5_reduce
I0903 16:42:06.123359 29413 net.cpp:399] inception_4a/5x5 -> inception_4a/5x5
I0903 16:42:06.126103 29409 net.cpp:141] Setting up inception_4a/5x5
I0903 16:42:06.126122 29409 net.cpp:148] Top shape: 10 48 14 14 (94080)
I0903 16:42:06.126127 29409 net.cpp:156] Memory required for data: 364403200
I0903 16:42:06.126137 29409 layer_factory.hpp:77] Creating layer inception_4a/relu_5x5
I0903 16:42:06.126149 29409 net.cpp:91] Creating Layer inception_4a/relu_5x5
I0903 16:42:06.126155 29409 net.cpp:425] inception_4a/relu_5x5 <- inception_4a/5x5
I0903 16:42:06.126164 29409 net.cpp:386] inception_4a/relu_5x5 -> inception_4a/5x5 (in-place)
I0903 16:42:06.126544 29409 net.cpp:141] Setting up inception_4a/relu_5x5
I0903 16:42:06.126557 29409 net.cpp:148] Top shape: 10 48 14 14 (94080)
I0903 16:42:06.126561 29409 net.cpp:156] Memory required for data: 364779520
I0903 16:42:06.126566 29409 layer_factory.hpp:77] Creating layer inception_4a/pool
I0903 16:42:06.126581 29409 net.cpp:91] Creating Layer inception_4a/pool
I0903 16:42:06.126587 29409 net.cpp:425] inception_4a/pool <- pool3/3x3_s2_pool3/3x3_s2_0_split_3
I0903 16:42:06.126595 29409 net.cpp:399] inception_4a/pool -> inception_4a/pool
I0903 16:42:06.126683 29413 net.cpp:141] Setting up inception_4a/5x5
I0903 16:42:06.126696 29413 net.cpp:148] Top shape: 10 48 14 14 (94080)
I0903 16:42:06.126700 29413 net.cpp:156] Memory required for data: 364403200
I0903 16:42:06.126709 29413 layer_factory.hpp:77] Creating layer inception_4a/relu_5x5
I0903 16:42:06.126719 29413 net.cpp:91] Creating Layer inception_4a/relu_5x5
I0903 16:42:06.126724 29413 net.cpp:425] inception_4a/relu_5x5 <- inception_4a/5x5
I0903 16:42:06.126734 29413 net.cpp:386] inception_4a/relu_5x5 -> inception_4a/5x5 (in-place)
I0903 16:42:06.126737 29409 net.cpp:141] Setting up inception_4a/pool
I0903 16:42:06.126749 29409 net.cpp:148] Top shape: 10 480 14 14 (940800)
I0903 16:42:06.126754 29409 net.cpp:156] Memory required for data: 368542720
I0903 16:42:06.126759 29409 layer_factory.hpp:77] Creating layer inception_4a/pool_proj
I0903 16:42:06.126775 29409 net.cpp:91] Creating Layer inception_4a/pool_proj
I0903 16:42:06.126780 29409 net.cpp:425] inception_4a/pool_proj <- inception_4a/pool
I0903 16:42:06.126791 29409 net.cpp:399] inception_4a/pool_proj -> inception_4a/pool_proj
I0903 16:42:06.127116 29413 net.cpp:141] Setting up inception_4a/relu_5x5
I0903 16:42:06.127128 29413 net.cpp:148] Top shape: 10 48 14 14 (94080)
I0903 16:42:06.127132 29413 net.cpp:156] Memory required for data: 364779520
I0903 16:42:06.127137 29413 layer_factory.hpp:77] Creating layer inception_4a/pool
I0903 16:42:06.127151 29413 net.cpp:91] Creating Layer inception_4a/pool
I0903 16:42:06.127157 29413 net.cpp:425] inception_4a/pool <- pool3/3x3_s2_pool3/3x3_s2_0_split_3
I0903 16:42:06.127164 29413 net.cpp:399] inception_4a/pool -> inception_4a/pool
I0903 16:42:06.127363 29413 net.cpp:141] Setting up inception_4a/pool
I0903 16:42:06.127374 29413 net.cpp:148] Top shape: 10 480 14 14 (940800)
I0903 16:42:06.127378 29413 net.cpp:156] Memory required for data: 368542720
I0903 16:42:06.127383 29413 layer_factory.hpp:77] Creating layer inception_4a/pool_proj
I0903 16:42:06.127400 29413 net.cpp:91] Creating Layer inception_4a/pool_proj
I0903 16:42:06.127406 29413 net.cpp:425] inception_4a/pool_proj <- inception_4a/pool
I0903 16:42:06.127414 29413 net.cpp:399] inception_4a/pool_proj -> inception_4a/pool_proj
I0903 16:42:06.129684 29409 net.cpp:141] Setting up inception_4a/pool_proj
I0903 16:42:06.129701 29409 net.cpp:148] Top shape: 10 64 14 14 (125440)
I0903 16:42:06.129706 29409 net.cpp:156] Memory required for data: 369044480
I0903 16:42:06.129715 29409 layer_factory.hpp:77] Creating layer inception_4a/relu_pool_proj
I0903 16:42:06.129729 29409 net.cpp:91] Creating Layer inception_4a/relu_pool_proj
I0903 16:42:06.129734 29409 net.cpp:425] inception_4a/relu_pool_proj <- inception_4a/pool_proj
I0903 16:42:06.129741 29409 net.cpp:386] inception_4a/relu_pool_proj -> inception_4a/pool_proj (in-place)
I0903 16:42:06.130329 29409 net.cpp:141] Setting up inception_4a/relu_pool_proj
I0903 16:42:06.130344 29409 net.cpp:148] Top shape: 10 64 14 14 (125440)
I0903 16:42:06.130348 29409 net.cpp:156] Memory required for data: 369546240
I0903 16:42:06.130353 29409 layer_factory.hpp:77] Creating layer inception_4a/output
I0903 16:42:06.130367 29409 net.cpp:91] Creating Layer inception_4a/output
I0903 16:42:06.130373 29409 net.cpp:425] inception_4a/output <- inception_4a/1x1
I0903 16:42:06.130379 29409 net.cpp:425] inception_4a/output <- inception_4a/3x3
I0903 16:42:06.130385 29409 net.cpp:425] inception_4a/output <- inception_4a/5x5
I0903 16:42:06.130390 29409 net.cpp:425] inception_4a/output <- inception_4a/pool_proj
I0903 16:42:06.130398 29409 net.cpp:399] inception_4a/output -> inception_4a/output
I0903 16:42:06.130417 29413 net.cpp:141] Setting up inception_4a/pool_proj
I0903 16:42:06.130432 29413 net.cpp:148] Top shape: 10 64 14 14 (125440)
I0903 16:42:06.130437 29413 net.cpp:156] Memory required for data: 369044480
I0903 16:42:06.130446 29413 layer_factory.hpp:77] Creating layer inception_4a/relu_pool_proj
I0903 16:42:06.130458 29413 net.cpp:91] Creating Layer inception_4a/relu_pool_proj
I0903 16:42:06.130465 29413 net.cpp:425] inception_4a/relu_pool_proj <- inception_4a/pool_proj
I0903 16:42:06.130466 29409 net.cpp:141] Setting up inception_4a/output
I0903 16:42:06.130472 29413 net.cpp:386] inception_4a/relu_pool_proj -> inception_4a/pool_proj (in-place)
I0903 16:42:06.130477 29409 net.cpp:148] Top shape: 10 512 14 14 (1003520)
I0903 16:42:06.130482 29409 net.cpp:156] Memory required for data: 373560320
I0903 16:42:06.130488 29409 layer_factory.hpp:77] Creating layer inception_4a/output_inception_4a/output_0_split
I0903 16:42:06.130501 29409 net.cpp:91] Creating Layer inception_4a/output_inception_4a/output_0_split
I0903 16:42:06.130507 29409 net.cpp:425] inception_4a/output_inception_4a/output_0_split <- inception_4a/output
I0903 16:42:06.130516 29409 net.cpp:399] inception_4a/output_inception_4a/output_0_split -> inception_4a/output_inception_4a/output_0_split_0
I0903 16:42:06.130525 29409 net.cpp:399] inception_4a/output_inception_4a/output_0_split -> inception_4a/output_inception_4a/output_0_split_1
I0903 16:42:06.130533 29409 net.cpp:399] inception_4a/output_inception_4a/output_0_split -> inception_4a/output_inception_4a/output_0_split_2
I0903 16:42:06.130542 29409 net.cpp:399] inception_4a/output_inception_4a/output_0_split -> inception_4a/output_inception_4a/output_0_split_3
I0903 16:42:06.130991 29409 net.cpp:141] Setting up inception_4a/output_inception_4a/output_0_split
I0903 16:42:06.131002 29409 net.cpp:148] Top shape: 10 512 14 14 (1003520)
I0903 16:42:06.131008 29409 net.cpp:148] Top shape: 10 512 14 14 (1003520)
I0903 16:42:06.131013 29409 net.cpp:148] Top shape: 10 512 14 14 (1003520)
I0903 16:42:06.131018 29409 net.cpp:148] Top shape: 10 512 14 14 (1003520)
I0903 16:42:06.131022 29409 net.cpp:156] Memory required for data: 389616640
I0903 16:42:06.131021 29413 net.cpp:141] Setting up inception_4a/relu_pool_proj
I0903 16:42:06.131027 29409 layer_factory.hpp:77] Creating layer inception_4b/1x1
I0903 16:42:06.131033 29413 net.cpp:148] Top shape: 10 64 14 14 (125440)
I0903 16:42:06.131038 29413 net.cpp:156] Memory required for data: 369546240
I0903 16:42:06.131043 29409 net.cpp:91] Creating Layer inception_4b/1x1
I0903 16:42:06.131043 29413 layer_factory.hpp:77] Creating layer inception_4a/output
I0903 16:42:06.131053 29409 net.cpp:425] inception_4b/1x1 <- inception_4a/output_inception_4a/output_0_split_0
I0903 16:42:06.131063 29413 net.cpp:91] Creating Layer inception_4a/output
I0903 16:42:06.131064 29409 net.cpp:399] inception_4b/1x1 -> inception_4b/1x1
I0903 16:42:06.131073 29413 net.cpp:425] inception_4a/output <- inception_4a/1x1
I0903 16:42:06.131080 29413 net.cpp:425] inception_4a/output <- inception_4a/3x3
I0903 16:42:06.131086 29413 net.cpp:425] inception_4a/output <- inception_4a/5x5
I0903 16:42:06.131091 29413 net.cpp:425] inception_4a/output <- inception_4a/pool_proj
I0903 16:42:06.131098 29413 net.cpp:399] inception_4a/output -> inception_4a/output
I0903 16:42:06.131217 29413 net.cpp:141] Setting up inception_4a/output
I0903 16:42:06.131228 29413 net.cpp:148] Top shape: 10 512 14 14 (1003520)
I0903 16:42:06.131232 29413 net.cpp:156] Memory required for data: 373560320
I0903 16:42:06.131237 29413 layer_factory.hpp:77] Creating layer inception_4a/output_inception_4a/output_0_split
I0903 16:42:06.131247 29413 net.cpp:91] Creating Layer inception_4a/output_inception_4a/output_0_split
I0903 16:42:06.131252 29413 net.cpp:425] inception_4a/output_inception_4a/output_0_split <- inception_4a/output
I0903 16:42:06.131259 29413 net.cpp:399] inception_4a/output_inception_4a/output_0_split -> inception_4a/output_inception_4a/output_0_split_0
I0903 16:42:06.131268 29413 net.cpp:399] inception_4a/output_inception_4a/output_0_split -> inception_4a/output_inception_4a/output_0_split_1
I0903 16:42:06.131278 29413 net.cpp:399] inception_4a/output_inception_4a/output_0_split -> inception_4a/output_inception_4a/output_0_split_2
I0903 16:42:06.131285 29413 net.cpp:399] inception_4a/output_inception_4a/output_0_split -> inception_4a/output_inception_4a/output_0_split_3
I0903 16:42:06.131623 29413 net.cpp:141] Setting up inception_4a/output_inception_4a/output_0_split
I0903 16:42:06.131635 29413 net.cpp:148] Top shape: 10 512 14 14 (1003520)
I0903 16:42:06.131641 29413 net.cpp:148] Top shape: 10 512 14 14 (1003520)
I0903 16:42:06.131646 29413 net.cpp:148] Top shape: 10 512 14 14 (1003520)
I0903 16:42:06.131651 29413 net.cpp:148] Top shape: 10 512 14 14 (1003520)
I0903 16:42:06.131655 29413 net.cpp:156] Memory required for data: 389616640
I0903 16:42:06.131660 29413 layer_factory.hpp:77] Creating layer inception_4b/1x1
I0903 16:42:06.131675 29413 net.cpp:91] Creating Layer inception_4b/1x1
I0903 16:42:06.131681 29413 net.cpp:425] inception_4b/1x1 <- inception_4a/output_inception_4a/output_0_split_0
I0903 16:42:06.131691 29413 net.cpp:399] inception_4b/1x1 -> inception_4b/1x1
I0903 16:42:06.134438 29409 net.cpp:141] Setting up inception_4b/1x1
I0903 16:42:06.134459 29409 net.cpp:148] Top shape: 10 160 14 14 (313600)
I0903 16:42:06.134464 29409 net.cpp:156] Memory required for data: 390871040
I0903 16:42:06.134474 29409 layer_factory.hpp:77] Creating layer inception_4b/relu_1x1
I0903 16:42:06.134486 29409 net.cpp:91] Creating Layer inception_4b/relu_1x1
I0903 16:42:06.134493 29409 net.cpp:425] inception_4b/relu_1x1 <- inception_4b/1x1
I0903 16:42:06.134502 29409 net.cpp:386] inception_4b/relu_1x1 -> inception_4b/1x1 (in-place)
I0903 16:42:06.135061 29409 net.cpp:141] Setting up inception_4b/relu_1x1
I0903 16:42:06.135077 29409 net.cpp:148] Top shape: 10 160 14 14 (313600)
I0903 16:42:06.135082 29409 net.cpp:156] Memory required for data: 392125440
I0903 16:42:06.135087 29409 layer_factory.hpp:77] Creating layer inception_4b/3x3_reduce
I0903 16:42:06.135104 29409 net.cpp:91] Creating Layer inception_4b/3x3_reduce
I0903 16:42:06.135110 29409 net.cpp:425] inception_4b/3x3_reduce <- inception_4a/output_inception_4a/output_0_split_1
I0903 16:42:06.135120 29409 net.cpp:399] inception_4b/3x3_reduce -> inception_4b/3x3_reduce
I0903 16:42:06.135195 29413 net.cpp:141] Setting up inception_4b/1x1
I0903 16:42:06.135212 29413 net.cpp:148] Top shape: 10 160 14 14 (313600)
I0903 16:42:06.135218 29413 net.cpp:156] Memory required for data: 390871040
I0903 16:42:06.135227 29413 layer_factory.hpp:77] Creating layer inception_4b/relu_1x1
I0903 16:42:06.135236 29413 net.cpp:91] Creating Layer inception_4b/relu_1x1
I0903 16:42:06.135242 29413 net.cpp:425] inception_4b/relu_1x1 <- inception_4b/1x1
I0903 16:42:06.135249 29413 net.cpp:386] inception_4b/relu_1x1 -> inception_4b/1x1 (in-place)
I0903 16:42:06.135809 29413 net.cpp:141] Setting up inception_4b/relu_1x1
I0903 16:42:06.135823 29413 net.cpp:148] Top shape: 10 160 14 14 (313600)
I0903 16:42:06.135828 29413 net.cpp:156] Memory required for data: 392125440
I0903 16:42:06.135833 29413 layer_factory.hpp:77] Creating layer inception_4b/3x3_reduce
I0903 16:42:06.135850 29413 net.cpp:91] Creating Layer inception_4b/3x3_reduce
I0903 16:42:06.135855 29413 net.cpp:425] inception_4b/3x3_reduce <- inception_4a/output_inception_4a/output_0_split_1
I0903 16:42:06.135867 29413 net.cpp:399] inception_4b/3x3_reduce -> inception_4b/3x3_reduce
I0903 16:42:06.138577 29409 net.cpp:141] Setting up inception_4b/3x3_reduce
I0903 16:42:06.138594 29409 net.cpp:148] Top shape: 10 112 14 14 (219520)
I0903 16:42:06.138599 29409 net.cpp:156] Memory required for data: 393003520
I0903 16:42:06.138608 29409 layer_factory.hpp:77] Creating layer inception_4b/relu_3x3_reduce
I0903 16:42:06.138617 29409 net.cpp:91] Creating Layer inception_4b/relu_3x3_reduce
I0903 16:42:06.138625 29409 net.cpp:425] inception_4b/relu_3x3_reduce <- inception_4b/3x3_reduce
I0903 16:42:06.138633 29409 net.cpp:386] inception_4b/relu_3x3_reduce -> inception_4b/3x3_reduce (in-place)
I0903 16:42:06.138917 29413 net.cpp:141] Setting up inception_4b/3x3_reduce
I0903 16:42:06.138934 29413 net.cpp:148] Top shape: 10 112 14 14 (219520)
I0903 16:42:06.138939 29413 net.cpp:156] Memory required for data: 393003520
I0903 16:42:06.138948 29413 layer_factory.hpp:77] Creating layer inception_4b/relu_3x3_reduce
I0903 16:42:06.138954 29409 net.cpp:141] Setting up inception_4b/relu_3x3_reduce
I0903 16:42:06.138960 29413 net.cpp:91] Creating Layer inception_4b/relu_3x3_reduce
I0903 16:42:06.138967 29409 net.cpp:148] Top shape: 10 112 14 14 (219520)
I0903 16:42:06.138967 29413 net.cpp:425] inception_4b/relu_3x3_reduce <- inception_4b/3x3_reduce
I0903 16:42:06.138972 29409 net.cpp:156] Memory required for data: 393881600
I0903 16:42:06.138975 29413 net.cpp:386] inception_4b/relu_3x3_reduce -> inception_4b/3x3_reduce (in-place)
I0903 16:42:06.138978 29409 layer_factory.hpp:77] Creating layer inception_4b/3x3
I0903 16:42:06.138995 29409 net.cpp:91] Creating Layer inception_4b/3x3
I0903 16:42:06.139001 29409 net.cpp:425] inception_4b/3x3 <- inception_4b/3x3_reduce
I0903 16:42:06.139009 29409 net.cpp:399] inception_4b/3x3 -> inception_4b/3x3
I0903 16:42:06.139351 29413 net.cpp:141] Setting up inception_4b/relu_3x3_reduce
I0903 16:42:06.139364 29413 net.cpp:148] Top shape: 10 112 14 14 (219520)
I0903 16:42:06.139369 29413 net.cpp:156] Memory required for data: 393881600
I0903 16:42:06.139374 29413 layer_factory.hpp:77] Creating layer inception_4b/3x3
I0903 16:42:06.139392 29413 net.cpp:91] Creating Layer inception_4b/3x3
I0903 16:42:06.139399 29413 net.cpp:425] inception_4b/3x3 <- inception_4b/3x3_reduce
I0903 16:42:06.139407 29413 net.cpp:399] inception_4b/3x3 -> inception_4b/3x3
I0903 16:42:06.144726 29409 net.cpp:141] Setting up inception_4b/3x3
I0903 16:42:06.144748 29409 net.cpp:148] Top shape: 10 224 14 14 (439040)
I0903 16:42:06.144754 29409 net.cpp:156] Memory required for data: 395637760
I0903 16:42:06.144765 29409 layer_factory.hpp:77] Creating layer inception_4b/relu_3x3
I0903 16:42:06.144775 29409 net.cpp:91] Creating Layer inception_4b/relu_3x3
I0903 16:42:06.144781 29409 net.cpp:425] inception_4b/relu_3x3 <- inception_4b/3x3
I0903 16:42:06.144791 29409 net.cpp:386] inception_4b/relu_3x3 -> inception_4b/3x3 (in-place)
I0903 16:42:06.145359 29409 net.cpp:141] Setting up inception_4b/relu_3x3
I0903 16:42:06.145373 29409 net.cpp:148] Top shape: 10 224 14 14 (439040)
I0903 16:42:06.145378 29409 net.cpp:156] Memory required for data: 397393920
I0903 16:42:06.145383 29409 layer_factory.hpp:77] Creating layer inception_4b/5x5_reduce
I0903 16:42:06.145412 29409 net.cpp:91] Creating Layer inception_4b/5x5_reduce
I0903 16:42:06.145419 29409 net.cpp:425] inception_4b/5x5_reduce <- inception_4a/output_inception_4a/output_0_split_2
I0903 16:42:06.145437 29409 net.cpp:399] inception_4b/5x5_reduce -> inception_4b/5x5_reduce
I0903 16:42:06.145864 29413 net.cpp:141] Setting up inception_4b/3x3
I0903 16:42:06.145882 29413 net.cpp:148] Top shape: 10 224 14 14 (439040)
I0903 16:42:06.145887 29413 net.cpp:156] Memory required for data: 395637760
I0903 16:42:06.145897 29413 layer_factory.hpp:77] Creating layer inception_4b/relu_3x3
I0903 16:42:06.145910 29413 net.cpp:91] Creating Layer inception_4b/relu_3x3
I0903 16:42:06.145916 29413 net.cpp:425] inception_4b/relu_3x3 <- inception_4b/3x3
I0903 16:42:06.145923 29413 net.cpp:386] inception_4b/relu_3x3 -> inception_4b/3x3 (in-place)
I0903 16:42:06.146466 29413 net.cpp:141] Setting up inception_4b/relu_3x3
I0903 16:42:06.146481 29413 net.cpp:148] Top shape: 10 224 14 14 (439040)
I0903 16:42:06.146486 29413 net.cpp:156] Memory required for data: 397393920
I0903 16:42:06.146492 29413 layer_factory.hpp:77] Creating layer inception_4b/5x5_reduce
I0903 16:42:06.146520 29413 net.cpp:91] Creating Layer inception_4b/5x5_reduce
I0903 16:42:06.146527 29413 net.cpp:425] inception_4b/5x5_reduce <- inception_4a/output_inception_4a/output_0_split_2
I0903 16:42:06.146538 29413 net.cpp:399] inception_4b/5x5_reduce -> inception_4b/5x5_reduce
I0903 16:42:06.148774 29409 net.cpp:141] Setting up inception_4b/5x5_reduce
I0903 16:42:06.148790 29409 net.cpp:148] Top shape: 10 24 14 14 (47040)
I0903 16:42:06.148795 29409 net.cpp:156] Memory required for data: 397582080
I0903 16:42:06.148805 29409 layer_factory.hpp:77] Creating layer inception_4b/relu_5x5_reduce
I0903 16:42:06.148814 29409 net.cpp:91] Creating Layer inception_4b/relu_5x5_reduce
I0903 16:42:06.148820 29409 net.cpp:425] inception_4b/relu_5x5_reduce <- inception_4b/5x5_reduce
I0903 16:42:06.148829 29409 net.cpp:386] inception_4b/relu_5x5_reduce -> inception_4b/5x5_reduce (in-place)
I0903 16:42:06.149371 29409 net.cpp:141] Setting up inception_4b/relu_5x5_reduce
I0903 16:42:06.149386 29409 net.cpp:148] Top shape: 10 24 14 14 (47040)
I0903 16:42:06.149391 29409 net.cpp:156] Memory required for data: 397770240
I0903 16:42:06.149396 29409 layer_factory.hpp:77] Creating layer inception_4b/5x5
I0903 16:42:06.149412 29409 net.cpp:91] Creating Layer inception_4b/5x5
I0903 16:42:06.149418 29409 net.cpp:425] inception_4b/5x5 <- inception_4b/5x5_reduce
I0903 16:42:06.149430 29409 net.cpp:399] inception_4b/5x5 -> inception_4b/5x5
I0903 16:42:06.149534 29413 net.cpp:141] Setting up inception_4b/5x5_reduce
I0903 16:42:06.149549 29413 net.cpp:148] Top shape: 10 24 14 14 (47040)
I0903 16:42:06.149554 29413 net.cpp:156] Memory required for data: 397582080
I0903 16:42:06.149564 29413 layer_factory.hpp:77] Creating layer inception_4b/relu_5x5_reduce
I0903 16:42:06.149574 29413 net.cpp:91] Creating Layer inception_4b/relu_5x5_reduce
I0903 16:42:06.149580 29413 net.cpp:425] inception_4b/relu_5x5_reduce <- inception_4b/5x5_reduce
I0903 16:42:06.149586 29413 net.cpp:386] inception_4b/relu_5x5_reduce -> inception_4b/5x5_reduce (in-place)
I0903 16:42:06.150110 29413 net.cpp:141] Setting up inception_4b/relu_5x5_reduce
I0903 16:42:06.150125 29413 net.cpp:148] Top shape: 10 24 14 14 (47040)
I0903 16:42:06.150130 29413 net.cpp:156] Memory required for data: 397770240
I0903 16:42:06.150135 29413 layer_factory.hpp:77] Creating layer inception_4b/5x5
I0903 16:42:06.150151 29413 net.cpp:91] Creating Layer inception_4b/5x5
I0903 16:42:06.150156 29413 net.cpp:425] inception_4b/5x5 <- inception_4b/5x5_reduce
I0903 16:42:06.150167 29413 net.cpp:399] inception_4b/5x5 -> inception_4b/5x5
I0903 16:42:06.154453 29409 net.cpp:141] Setting up inception_4b/5x5
I0903 16:42:06.154474 29409 net.cpp:148] Top shape: 10 64 14 14 (125440)
I0903 16:42:06.154479 29409 net.cpp:156] Memory required for data: 398272000
I0903 16:42:06.154489 29409 layer_factory.hpp:77] Creating layer inception_4b/relu_5x5
I0903 16:42:06.154503 29409 net.cpp:91] Creating Layer inception_4b/relu_5x5
I0903 16:42:06.154510 29409 net.cpp:425] inception_4b/relu_5x5 <- inception_4b/5x5
I0903 16:42:06.154516 29409 net.cpp:386] inception_4b/relu_5x5 -> inception_4b/5x5 (in-place)
I0903 16:42:06.154810 29413 net.cpp:141] Setting up inception_4b/5x5
I0903 16:42:06.154824 29413 net.cpp:148] Top shape: 10 64 14 14 (125440)
I0903 16:42:06.154829 29413 net.cpp:156] Memory required for data: 398272000
I0903 16:42:06.154839 29413 layer_factory.hpp:77] Creating layer inception_4b/relu_5x5
I0903 16:42:06.154850 29413 net.cpp:91] Creating Layer inception_4b/relu_5x5
I0903 16:42:06.154856 29413 net.cpp:425] inception_4b/relu_5x5 <- inception_4b/5x5
I0903 16:42:06.154863 29413 net.cpp:386] inception_4b/relu_5x5 -> inception_4b/5x5 (in-place)
I0903 16:42:06.154866 29409 net.cpp:141] Setting up inception_4b/relu_5x5
I0903 16:42:06.154878 29409 net.cpp:148] Top shape: 10 64 14 14 (125440)
I0903 16:42:06.154883 29409 net.cpp:156] Memory required for data: 398773760
I0903 16:42:06.154888 29409 layer_factory.hpp:77] Creating layer inception_4b/pool
I0903 16:42:06.154899 29409 net.cpp:91] Creating Layer inception_4b/pool
I0903 16:42:06.154906 29409 net.cpp:425] inception_4b/pool <- inception_4a/output_inception_4a/output_0_split_3
I0903 16:42:06.154916 29409 net.cpp:399] inception_4b/pool -> inception_4b/pool
I0903 16:42:06.155131 29409 net.cpp:141] Setting up inception_4b/pool
I0903 16:42:06.155143 29409 net.cpp:148] Top shape: 10 512 14 14 (1003520)
I0903 16:42:06.155146 29409 net.cpp:156] Memory required for data: 402787840
I0903 16:42:06.155153 29409 layer_factory.hpp:77] Creating layer inception_4b/pool_proj
I0903 16:42:06.155167 29409 net.cpp:91] Creating Layer inception_4b/pool_proj
I0903 16:42:06.155174 29409 net.cpp:425] inception_4b/pool_proj <- inception_4b/pool
I0903 16:42:06.155184 29409 net.cpp:399] inception_4b/pool_proj -> inception_4b/pool_proj
I0903 16:42:06.155192 29413 net.cpp:141] Setting up inception_4b/relu_5x5
I0903 16:42:06.155205 29413 net.cpp:148] Top shape: 10 64 14 14 (125440)
I0903 16:42:06.155210 29413 net.cpp:156] Memory required for data: 398773760
I0903 16:42:06.155215 29413 layer_factory.hpp:77] Creating layer inception_4b/pool
I0903 16:42:06.155225 29413 net.cpp:91] Creating Layer inception_4b/pool
I0903 16:42:06.155230 29413 net.cpp:425] inception_4b/pool <- inception_4a/output_inception_4a/output_0_split_3
I0903 16:42:06.155241 29413 net.cpp:399] inception_4b/pool -> inception_4b/pool
I0903 16:42:06.155484 29413 net.cpp:141] Setting up inception_4b/pool
I0903 16:42:06.155495 29413 net.cpp:148] Top shape: 10 512 14 14 (1003520)
I0903 16:42:06.155499 29413 net.cpp:156] Memory required for data: 402787840
I0903 16:42:06.155505 29413 layer_factory.hpp:77] Creating layer inception_4b/pool_proj
I0903 16:42:06.155520 29413 net.cpp:91] Creating Layer inception_4b/pool_proj
I0903 16:42:06.155526 29413 net.cpp:425] inception_4b/pool_proj <- inception_4b/pool
I0903 16:42:06.155537 29413 net.cpp:399] inception_4b/pool_proj -> inception_4b/pool_proj
I0903 16:42:06.158136 29409 net.cpp:141] Setting up inception_4b/pool_proj
I0903 16:42:06.158155 29409 net.cpp:148] Top shape: 10 64 14 14 (125440)
I0903 16:42:06.158160 29409 net.cpp:156] Memory required for data: 403289600
I0903 16:42:06.158169 29409 layer_factory.hpp:77] Creating layer inception_4b/relu_pool_proj
I0903 16:42:06.158179 29409 net.cpp:91] Creating Layer inception_4b/relu_pool_proj
I0903 16:42:06.158185 29409 net.cpp:425] inception_4b/relu_pool_proj <- inception_4b/pool_proj
I0903 16:42:06.158192 29409 net.cpp:386] inception_4b/relu_pool_proj -> inception_4b/pool_proj (in-place)
I0903 16:42:06.158824 29409 net.cpp:141] Setting up inception_4b/relu_pool_proj
I0903 16:42:06.158838 29409 net.cpp:148] Top shape: 10 64 14 14 (125440)
I0903 16:42:06.158843 29409 net.cpp:156] Memory required for data: 403791360
I0903 16:42:06.158849 29409 layer_factory.hpp:77] Creating layer inception_4b/output
I0903 16:42:06.158857 29409 net.cpp:91] Creating Layer inception_4b/output
I0903 16:42:06.158864 29409 net.cpp:425] inception_4b/output <- inception_4b/1x1
I0903 16:42:06.158869 29409 net.cpp:425] inception_4b/output <- inception_4b/3x3
I0903 16:42:06.158874 29409 net.cpp:425] inception_4b/output <- inception_4b/5x5
I0903 16:42:06.158879 29409 net.cpp:425] inception_4b/output <- inception_4b/pool_proj
I0903 16:42:06.158886 29409 net.cpp:399] inception_4b/output -> inception_4b/output
I0903 16:42:06.158885 29413 net.cpp:141] Setting up inception_4b/pool_proj
I0903 16:42:06.158901 29413 net.cpp:148] Top shape: 10 64 14 14 (125440)
I0903 16:42:06.158906 29413 net.cpp:156] Memory required for data: 403289600
I0903 16:42:06.158916 29413 layer_factory.hpp:77] Creating layer inception_4b/relu_pool_proj
I0903 16:42:06.158926 29413 net.cpp:91] Creating Layer inception_4b/relu_pool_proj
I0903 16:42:06.158931 29413 net.cpp:425] inception_4b/relu_pool_proj <- inception_4b/pool_proj
I0903 16:42:06.158941 29413 net.cpp:386] inception_4b/relu_pool_proj -> inception_4b/pool_proj (in-place)
I0903 16:42:06.158962 29409 net.cpp:141] Setting up inception_4b/output
I0903 16:42:06.158972 29409 net.cpp:148] Top shape: 10 512 14 14 (1003520)
I0903 16:42:06.158977 29409 net.cpp:156] Memory required for data: 407805440
I0903 16:42:06.158982 29409 layer_factory.hpp:77] Creating layer inception_4b/output_inception_4b/output_0_split
I0903 16:42:06.158993 29409 net.cpp:91] Creating Layer inception_4b/output_inception_4b/output_0_split
I0903 16:42:06.158996 29409 net.cpp:425] inception_4b/output_inception_4b/output_0_split <- inception_4b/output
I0903 16:42:06.159006 29409 net.cpp:399] inception_4b/output_inception_4b/output_0_split -> inception_4b/output_inception_4b/output_0_split_0
I0903 16:42:06.159015 29409 net.cpp:399] inception_4b/output_inception_4b/output_0_split -> inception_4b/output_inception_4b/output_0_split_1
I0903 16:42:06.159024 29409 net.cpp:399] inception_4b/output_inception_4b/output_0_split -> inception_4b/output_inception_4b/output_0_split_2
I0903 16:42:06.159031 29409 net.cpp:399] inception_4b/output_inception_4b/output_0_split -> inception_4b/output_inception_4b/output_0_split_3
I0903 16:42:06.159482 29413 net.cpp:141] Setting up inception_4b/relu_pool_proj
I0903 16:42:06.159495 29413 net.cpp:148] Top shape: 10 64 14 14 (125440)
I0903 16:42:06.159495 29409 net.cpp:141] Setting up inception_4b/output_inception_4b/output_0_split
I0903 16:42:06.159499 29413 net.cpp:156] Memory required for data: 403791360
I0903 16:42:06.159512 29409 net.cpp:148] Top shape: 10 512 14 14 (1003520)
I0903 16:42:06.159512 29413 layer_factory.hpp:77] Creating layer inception_4b/output
I0903 16:42:06.159518 29409 net.cpp:148] Top shape: 10 512 14 14 (1003520)
I0903 16:42:06.159521 29413 net.cpp:91] Creating Layer inception_4b/output
I0903 16:42:06.159523 29409 net.cpp:148] Top shape: 10 512 14 14 (1003520)
I0903 16:42:06.159530 29413 net.cpp:425] inception_4b/output <- inception_4b/1x1
I0903 16:42:06.159534 29409 net.cpp:148] Top shape: 10 512 14 14 (1003520)
I0903 16:42:06.159538 29413 net.cpp:425] inception_4b/output <- inception_4b/3x3
I0903 16:42:06.159539 29409 net.cpp:156] Memory required for data: 423861760
I0903 16:42:06.159544 29413 net.cpp:425] inception_4b/output <- inception_4b/5x5
…
I0903 16:42:06.248540 29413 net.cpp:148] Top shape: 10 128 14 14 (250880)
I0903 16:42:06.248548 29413 net.cpp:156] Memory required for data: 508157440
I0903 16:42:06.248554 29413 layer_factory.hpp:77] Creating layer inception_4e/pool
I0903 16:42:06.248566 29413 net.cpp:91] Creating Layer inception_4e/pool
I0903 16:42:06.248572 29413 net.cpp:425] inception_4e/pool <- inception_4d/output_inception_4d/output_0_split_3
I0903 16:42:06.248579 29413 net.cpp:399] inception_4e/pool -> inception_4e/pool
I0903 16:42:06.248715 29413 net.cpp:141] Setting up inception_4e/pool
I0903 16:42:06.248726 29413 net.cpp:148] Top shape: 10 528 14 14 (1034880)
I0903 16:42:06.248730 29413 net.cpp:156] Memory required for data: 512296960
I0903 16:42:06.248735 29413 layer_factory.hpp:77] Creating layer inception_4e/pool_proj
I0903 16:42:06.248750 29413 net.cpp:91] Creating Layer inception_4e/pool_proj
I0903 16:42:06.248756 29413 net.cpp:425] inception_4e/pool_proj <- inception_4e/pool
I0903 16:42:06.248769 29413 net.cpp:399] inception_4e/pool_proj -> inception_4e/pool_proj
I0903 16:42:06.250674 29409 net.cpp:141] Setting up inception_4e/5x5_reduce
I0903 16:42:06.250691 29409 net.cpp:148] Top shape: 10 32 14 14 (62720)
I0903 16:42:06.250696 29409 net.cpp:156] Memory required for data: 505899520
I0903 16:42:06.250706 29409 layer_factory.hpp:77] Creating layer inception_4e/relu_5x5_reduce
I0903 16:42:06.250717 29409 net.cpp:91] Creating Layer inception_4e/relu_5x5_reduce
I0903 16:42:06.250725 29409 net.cpp:425] inception_4e/relu_5x5_reduce <- inception_4e/5x5_reduce
I0903 16:42:06.250731 29409 net.cpp:386] inception_4e/relu_5x5_reduce -> inception_4e/5x5_reduce (in-place)
I0903 16:42:06.251335 29409 net.cpp:141] Setting up inception_4e/relu_5x5_reduce
I0903 16:42:06.251350 29409 net.cpp:148] Top shape: 10 32 14 14 (62720)
I0903 16:42:06.251358 29409 net.cpp:156] Memory required for data: 506150400
I0903 16:42:06.251363 29409 layer_factory.hpp:77] Creating layer inception_4e/5x5
I0903 16:42:06.251376 29409 net.cpp:91] Creating Layer inception_4e/5x5
I0903 16:42:06.251382 29409 net.cpp:425] inception_4e/5x5 <- inception_4e/5x5_reduce
I0903 16:42:06.251395 29409 net.cpp:399] inception_4e/5x5 -> inception_4e/5x5
I0903 16:42:06.253500 29413 net.cpp:141] Setting up inception_4e/pool_proj
I0903 16:42:06.253520 29413 net.cpp:148] Top shape: 10 128 14 14 (250880)
I0903 16:42:06.253525 29413 net.cpp:156] Memory required for data: 513300480
I0903 16:42:06.253533 29413 layer_factory.hpp:77] Creating layer inception_4e/relu_pool_proj
I0903 16:42:06.253542 29413 net.cpp:91] Creating Layer inception_4e/relu_pool_proj
I0903 16:42:06.253548 29413 net.cpp:425] inception_4e/relu_pool_proj <- inception_4e/pool_proj
I0903 16:42:06.253558 29413 net.cpp:386] inception_4e/relu_pool_proj -> inception_4e/pool_proj (in-place)
I0903 16:42:06.253998 29413 net.cpp:141] Setting up inception_4e/relu_pool_proj
I0903 16:42:06.254014 29413 net.cpp:148] Top shape: 10 128 14 14 (250880)
I0903 16:42:06.254019 29413 net.cpp:156] Memory required for data: 514304000
I0903 16:42:06.254024 29413 layer_factory.hpp:77] Creating layer inception_4e/output
I0903 16:42:06.254040 29413 net.cpp:91] Creating Layer inception_4e/output
I0903 16:42:06.254045 29413 net.cpp:425] inception_4e/output <- inception_4e/1x1
I0903 16:42:06.254052 29413 net.cpp:425] inception_4e/output <- inception_4e/3x3
I0903 16:42:06.254057 29413 net.cpp:425] inception_4e/output <- inception_4e/5x5
I0903 16:42:06.254063 29413 net.cpp:425] inception_4e/output <- inception_4e/pool_proj
I0903 16:42:06.254070 29413 net.cpp:399] inception_4e/output -> inception_4e/output
I0903 16:42:06.254194 29413 net.cpp:141] Setting up inception_4e/output
I0903 16:42:06.254205 29413 net.cpp:148] Top shape: 10 832 14 14 (1630720)
I0903 16:42:06.254209 29413 net.cpp:156] Memory required for data: 520826880
I0903 16:42:06.254215 29413 layer_factory.hpp:77] Creating layer pool4/3x3_s2
I0903 16:42:06.254227 29413 net.cpp:91] Creating Layer pool4/3x3_s2
I0903 16:42:06.254232 29413 net.cpp:425] pool4/3x3_s2 <- inception_4e/output
I0903 16:42:06.254240 29413 net.cpp:399] pool4/3x3_s2 -> pool4/3x3_s2
I0903 16:42:06.254708 29413 net.cpp:141] Setting up pool4/3x3_s2
I0903 16:42:06.254719 29413 net.cpp:148] Top shape: 10 832 7 7 (407680)
I0903 16:42:06.254724 29413 net.cpp:156] Memory required for data: 522457600
I0903 16:42:06.254729 29413 layer_factory.hpp:77] Creating layer pool4/3x3_s2_pool4/3x3_s2_0_split
I0903 16:42:06.254742 29413 net.cpp:91] Creating Layer pool4/3x3_s2_pool4/3x3_s2_0_split
I0903 16:42:06.254747 29413 net.cpp:425] pool4/3x3_s2_pool4/3x3_s2_0_split <- pool4/3x3_s2
I0903 16:42:06.254753 29413 net.cpp:399] pool4/3x3_s2_pool4/3x3_s2_0_split -> pool4/3x3_s2_pool4/3x3_s2_0_split_0
I0903 16:42:06.254762 29413 net.cpp:399] pool4/3x3_s2_pool4/3x3_s2_0_split -> pool4/3x3_s2_pool4/3x3_s2_0_split_1
I0903 16:42:06.254770 29413 net.cpp:399] pool4/3x3_s2_pool4/3x3_s2_0_split -> pool4/3x3_s2_pool4/3x3_s2_0_split_2
I0903 16:42:06.254777 29413 net.cpp:399] pool4/3x3_s2_pool4/3x3_s2_0_split -> pool4/3x3_s2_pool4/3x3_s2_0_split_3
I0903 16:42:06.255229 29413 net.cpp:141] Setting up pool4/3x3_s2_pool4/3x3_s2_0_split
I0903 16:42:06.255242 29413 net.cpp:148] Top shape: 10 832 7 7 (407680)
I0903 16:42:06.255249 29413 net.cpp:148] Top shape: 10 832 7 7 (407680)
I0903 16:42:06.255254 29413 net.cpp:148] Top shape: 10 832 7 7 (407680)
I0903 16:42:06.255259 29413 net.cpp:148] Top shape: 10 832 7 7 (407680)
I0903 16:42:06.255264 29413 net.cpp:156] Memory required for data: 528980480
I0903 16:42:06.255269 29413 layer_factory.hpp:77] Creating layer inception_5a/1x1
I0903 16:42:06.255285 29413 net.cpp:91] Creating Layer inception_5a/1x1
I0903 16:42:06.255290 29413 net.cpp:425] inception_5a/1x1 <- pool4/3x3_s2_pool4/3x3_s2_0_split_0
I0903 16:42:06.255298 29413 net.cpp:399] inception_5a/1x1 -> inception_5a/1x1
I0903 16:42:06.257109 29409 net.cpp:141] Setting up inception_4e/5x5
I0903 16:42:06.257128 29409 net.cpp:148] Top shape: 10 128 14 14 (250880)
I0903 16:42:06.257133 29409 net.cpp:156] Memory required for data: 507153920
I0903 16:42:06.257141 29409 layer_factory.hpp:77] Creating layer inception_4e/relu_5x5
I0903 16:42:06.257150 29409 net.cpp:91] Creating Layer inception_4e/relu_5x5
I0903 16:42:06.257156 29409 net.cpp:425] inception_4e/relu_5x5 <- inception_4e/5x5
I0903 16:42:06.257164 29409 net.cpp:386] inception_4e/relu_5x5 -> inception_4e/5x5 (in-place)
I0903 16:42:06.257596 29409 net.cpp:141] Setting up inception_4e/relu_5x5
I0903 16:42:06.257607 29409 net.cpp:148] Top shape: 10 128 14 14 (250880)
I0903 16:42:06.257611 29409 net.cpp:156] Memory required for data: 508157440
I0903 16:42:06.257616 29409 layer_factory.hpp:77] Creating layer inception_4e/pool
I0903 16:42:06.257628 29409 net.cpp:91] Creating Layer inception_4e/pool
I0903 16:42:06.257634 29409 net.cpp:425] inception_4e/pool <- inception_4d/output_inception_4d/output_0_split_3
I0903 16:42:06.257642 29409 net.cpp:399] inception_4e/pool -> inception_4e/pool
I0903 16:42:06.257768 29409 net.cpp:141] Setting up inception_4e/pool
I0903 16:42:06.257779 29409 net.cpp:148] Top shape: 10 528 14 14 (1034880)
I0903 16:42:06.257783 29409 net.cpp:156] Memory required for data: 512296960
I0903 16:42:06.257788 29409 layer_factory.hpp:77] Creating layer inception_4e/pool_proj
I0903 16:42:06.257803 29409 net.cpp:91] Creating Layer inception_4e/pool_proj
I0903 16:42:06.257808 29409 net.cpp:425] inception_4e/pool_proj <- inception_4e/pool
I0903 16:42:06.257820 29409 net.cpp:399] inception_4e/pool_proj -> inception_4e/pool_proj
I0903 16:42:06.261240 29409 net.cpp:141] Setting up inception_4e/pool_proj
I0903 16:42:06.261270 29409 net.cpp:148] Top shape: 10 128 14 14 (250880)
I0903 16:42:06.261279 29409 net.cpp:156] Memory required for data: 513300480
I0903 16:42:06.261302 29409 layer_factory.hpp:77] Creating layer inception_4e/relu_pool_proj
I0903 16:42:06.261320 29409 net.cpp:91] Creating Layer inception_4e/relu_pool_proj
I0903 16:42:06.261332 29409 net.cpp:425] inception_4e/relu_pool_proj <- inception_4e/pool_proj
I0903 16:42:06.261349 29409 net.cpp:386] inception_4e/relu_pool_proj -> inception_4e/pool_proj (in-place)
I0903 16:42:06.262151 29409 net.cpp:141] Setting up inception_4e/relu_pool_proj
I0903 16:42:06.262166 29413 net.cpp:141] Setting up inception_5a/1x1
I0903 16:42:06.262171 29409 net.cpp:148] Top shape: 10 128 14 14 (250880)
I0903 16:42:06.262186 29413 net.cpp:148] Top shape: 10 256 7 7 (125440)
I0903 16:42:06.262190 29413 net.cpp:156] Memory required for data: 529482240
I0903 16:42:06.262189 29409 net.cpp:156] Memory required for data: 514304000
I0903 16:42:06.262202 29413 layer_factory.hpp:77] Creating layer inception_5a/relu_1x1
I0903 16:42:06.262200 29409 layer_factory.hpp:77] Creating layer inception_4e/output
I0903 16:42:06.262212 29413 net.cpp:91] Creating Layer inception_5a/relu_1x1
I0903 16:42:06.262217 29409 net.cpp:91] Creating Layer inception_4e/output
I0903 16:42:06.262220 29413 net.cpp:425] inception_5a/relu_1x1 <- inception_5a/1x1
I0903 16:42:06.262228 29413 net.cpp:386] inception_5a/relu_1x1 -> inception_5a/1x1 (in-place)
I0903 16:42:06.262228 29409 net.cpp:425] inception_4e/output <- inception_4e/1x1
I0903 16:42:06.262244 29409 net.cpp:425] inception_4e/output <- inception_4e/3x3
I0903 16:42:06.262256 29409 net.cpp:425] inception_4e/output <- inception_4e/5x5
I0903 16:42:06.262266 29409 net.cpp:425] inception_4e/output <- inception_4e/pool_proj
I0903 16:42:06.262285 29409 net.cpp:399] inception_4e/output -> inception_4e/output
I0903 16:42:06.262650 29409 net.cpp:141] Setting up inception_4e/output
I0903 16:42:06.262667 29409 net.cpp:148] Top shape: 10 832 14 14 (1630720)
I0903 16:42:06.262676 29409 net.cpp:156] Memory required for data: 520826880
I0903 16:42:06.262686 29409 layer_factory.hpp:77] Creating layer pool4/3x3_s2
I0903 16:42:06.262706 29409 net.cpp:91] Creating Layer pool4/3x3_s2
I0903 16:42:06.262717 29409 net.cpp:425] pool4/3x3_s2 <- inception_4e/output
I0903 16:42:06.262732 29409 net.cpp:399] pool4/3x3_s2 -> pool4/3x3_s2
I0903 16:42:06.262744 29413 net.cpp:141] Setting up inception_5a/relu_1x1
I0903 16:42:06.262758 29413 net.cpp:148] Top shape: 10 256 7 7 (125440)
I0903 16:42:06.262761 29413 net.cpp:156] Memory required for data: 529984000
I0903 16:42:06.262766 29413 layer_factory.hpp:77] Creating layer inception_5a/3x3_reduce
I0903 16:42:06.262784 29413 net.cpp:91] Creating Layer inception_5a/3x3_reduce
I0903 16:42:06.262790 29413 net.cpp:425] inception_5a/3x3_reduce <- pool4/3x3_s2_pool4/3x3_s2_0_split_1
I0903 16:42:06.262804 29413 net.cpp:399] inception_5a/3x3_reduce -> inception_5a/3x3_reduce
I0903 16:42:06.263021 29409 net.cpp:141] Setting up pool4/3x3_s2
I0903 16:42:06.263039 29409 net.cpp:148] Top shape: 10 832 7 7 (407680)
I0903 16:42:06.263048 29409 net.cpp:156] Memory required for data: 522457600
I0903 16:42:06.263057 29409 layer_factory.hpp:77] Creating layer pool4/3x3_s2_pool4/3x3_s2_0_split
I0903 16:42:06.263072 29409 net.cpp:91] Creating Layer pool4/3x3_s2_pool4/3x3_s2_0_split
I0903 16:42:06.263082 29409 net.cpp:425] pool4/3x3_s2_pool4/3x3_s2_0_split <- pool4/3x3_s2
I0903 16:42:06.263099 29409 net.cpp:399] pool4/3x3_s2_pool4/3x3_s2_0_split -> pool4/3x3_s2_pool4/3x3_s2_0_split_0
I0903 16:42:06.263118 29409 net.cpp:399] pool4/3x3_s2_pool4/3x3_s2_0_split -> pool4/3x3_s2_pool4/3x3_s2_0_split_1
I0903 16:42:06.263134 29409 net.cpp:399] pool4/3x3_s2_pool4/3x3_s2_0_split -> pool4/3x3_s2_pool4/3x3_s2_0_split_2
I0903 16:42:06.263149 29409 net.cpp:399] pool4/3x3_s2_pool4/3x3_s2_0_split -> pool4/3x3_s2_pool4/3x3_s2_0_split_3
I0903 16:42:06.264400 29409 net.cpp:141] Setting up pool4/3x3_s2_pool4/3x3_s2_0_split
I0903 16:42:06.264422 29409 net.cpp:148] Top shape: 10 832 7 7 (407680)
I0903 16:42:06.264436 29409 net.cpp:148] Top shape: 10 832 7 7 (407680)
I0903 16:42:06.264446 29409 net.cpp:148] Top shape: 10 832 7 7 (407680)
I0903 16:42:06.264458 29409 net.cpp:148] Top shape: 10 832 7 7 (407680)
I0903 16:42:06.264467 29409 net.cpp:156] Memory required for data: 528980480
I0903 16:42:06.264475 29409 layer_factory.hpp:77] Creating layer inception_5a/1x1
I0903 16:42:06.264504 29409 net.cpp:91] Creating Layer inception_5a/1x1
I0903 16:42:06.264518 29409 net.cpp:425] inception_5a/1x1 <- pool4/3x3_s2_pool4/3x3_s2_0_split_0
I0903 16:42:06.264535 29409 net.cpp:399] inception_5a/1x1 -> inception_5a/1x1
I0903 16:42:06.268245 29413 net.cpp:141] Setting up inception_5a/3x3_reduce
I0903 16:42:06.268281 29413 net.cpp:148] Top shape: 10 160 7 7 (78400)
I0903 16:42:06.268291 29413 net.cpp:156] Memory required for data: 530297600
I0903 16:42:06.268306 29413 layer_factory.hpp:77] Creating layer inception_5a/relu_3x3_reduce
I0903 16:42:06.268318 29413 net.cpp:91] Creating Layer inception_5a/relu_3x3_reduce
I0903 16:42:06.268326 29413 net.cpp:425] inception_5a/relu_3x3_reduce <- inception_5a/3x3_reduce
I0903 16:42:06.268337 29413 net.cpp:386] inception_5a/relu_3x3_reduce -> inception_5a/3x3_reduce (in-place)
I0903 16:42:06.268662 29413 net.cpp:141] Setting up inception_5a/relu_3x3_reduce
I0903 16:42:06.268674 29413 net.cpp:148] Top shape: 10 160 7 7 (78400)
I0903 16:42:06.268679 29413 net.cpp:156] Memory required for data: 530611200
I0903 16:42:06.268684 29413 layer_factory.hpp:77] Creating layer inception_5a/3x3
I0903 16:42:06.268704 29413 net.cpp:91] Creating Layer inception_5a/3x3
I0903 16:42:06.268710 29413 net.cpp:425] inception_5a/3x3 <- inception_5a/3x3_reduce
I0903 16:42:06.268719 29413 net.cpp:399] inception_5a/3x3 -> inception_5a/3x3
I0903 16:42:06.271507 29409 net.cpp:141] Setting up inception_5a/1x1
I0903 16:42:06.271529 29409 net.cpp:148] Top shape: 10 256 7 7 (125440)
I0903 16:42:06.271538 29409 net.cpp:156] Memory required for data: 529482240
I0903 16:42:06.271559 29409 layer_factory.hpp:77] Creating layer inception_5a/relu_1x1
I0903 16:42:06.271575 29409 net.cpp:91] Creating Layer inception_5a/relu_1x1
I0903 16:42:06.271595 29409 net.cpp:425] inception_5a/relu_1x1 <- inception_5a/1x1
I0903 16:42:06.271610 29409 net.cpp:386] inception_5a/relu_1x1 -> inception_5a/1x1 (in-place)
I0903 16:42:06.272233 29409 net.cpp:141] Setting up inception_5a/relu_1x1
I0903 16:42:06.272253 29409 net.cpp:148] Top shape: 10 256 7 7 (125440)
I0903 16:42:06.272261 29409 net.cpp:156] Memory required for data: 529984000
I0903 16:42:06.272271 29409 layer_factory.hpp:77] Creating layer inception_5a/3x3_reduce
I0903 16:42:06.272300 29409 net.cpp:91] Creating Layer inception_5a/3x3_reduce
I0903 16:42:06.272313 29409 net.cpp:425] inception_5a/3x3_reduce <- pool4/3x3_s2_pool4/3x3_s2_0_split_1
I0903 16:42:06.272338 29409 net.cpp:399] inception_5a/3x3_reduce -> inception_5a/3x3_reduce
I0903 16:42:06.277534 29413 net.cpp:141] Setting up inception_5a/3x3
I0903 16:42:06.277565 29413 net.cpp:148] Top shape: 10 320 7 7 (156800)
I0903 16:42:06.277570 29413 net.cpp:156] Memory required for data: 531238400
I0903 16:42:06.277581 29413 layer_factory.hpp:77] Creating layer inception_5a/relu_3x3
I0903 16:42:06.277593 29413 net.cpp:91] Creating Layer inception_5a/relu_3x3
I0903 16:42:06.277601 29413 net.cpp:425] inception_5a/relu_3x3 <- inception_5a/3x3
I0903 16:42:06.277609 29413 net.cpp:386] inception_5a/relu_3x3 -> inception_5a/3x3 (in-place)
I0903 16:42:06.278098 29409 net.cpp:141] Setting up inception_5a/3x3_reduce
I0903 16:42:06.278118 29409 net.cpp:148] Top shape: 10 160 7 7 (78400)
I0903 16:42:06.278127 29409 net.cpp:156] Memory required for data: 530297600
I0903 16:42:06.278146 29409 layer_factory.hpp:77] Creating layer inception_5a/relu_3x3_reduce
I0903 16:42:06.278179 29409 net.cpp:91] Creating Layer inception_5a/relu_3x3_reduce
I0903 16:42:06.278183 29413 net.cpp:141] Setting up inception_5a/relu_3x3
I0903 16:42:06.278198 29413 net.cpp:148] Top shape: 10 320 7 7 (156800)
I0903 16:42:06.278195 29409 net.cpp:425] inception_5a/relu_3x3_reduce <- inception_5a/3x3_reduce
I0903 16:42:06.278203 29413 net.cpp:156] Memory required for data: 531865600
I0903 16:42:06.278208 29413 layer_factory.hpp:77] Creating layer inception_5a/5x5_reduce
I0903 16:42:06.278213 29409 net.cpp:386] inception_5a/relu_3x3_reduce -> inception_5a/3x3_reduce (in-place)
I0903 16:42:06.278228 29413 net.cpp:91] Creating Layer inception_5a/5x5_reduce
I0903 16:42:06.278234 29413 net.cpp:425] inception_5a/5x5_reduce <- pool4/3x3_s2_pool4/3x3_s2_0_split_2
I0903 16:42:06.278244 29413 net.cpp:399] inception_5a/5x5_reduce -> inception_5a/5x5_reduce
I0903 16:42:06.278870 29409 net.cpp:141] Setting up inception_5a/relu_3x3_reduce
I0903 16:42:06.278889 29409 net.cpp:148] Top shape: 10 160 7 7 (78400)
I0903 16:42:06.278898 29409 net.cpp:156] Memory required for data: 530611200
I0903 16:42:06.278908 29409 layer_factory.hpp:77] Creating layer inception_5a/3x3
I0903 16:42:06.278934 29409 net.cpp:91] Creating Layer inception_5a/3x3
I0903 16:42:06.278949 29409 net.cpp:425] inception_5a/3x3 <- inception_5a/3x3_reduce
I0903 16:42:06.278970 29409 net.cpp:399] inception_5a/3x3 -> inception_5a/3x3
I0903 16:42:06.282272 29413 net.cpp:141] Setting up inception_5a/5x5_reduce
I0903 16:42:06.282297 29413 net.cpp:148] Top shape: 10 32 7 7 (15680)
I0903 16:42:06.282304 29413 net.cpp:156] Memory required for data: 531928320
I0903 16:42:06.282313 29413 layer_factory.hpp:77] Creating layer inception_5a/relu_5x5_reduce
I0903 16:42:06.282326 29413 net.cpp:91] Creating Layer inception_5a/relu_5x5_reduce
I0903 16:42:06.282333 29413 net.cpp:425] inception_5a/relu_5x5_reduce <- inception_5a/5x5_reduce
I0903 16:42:06.282342 29413 net.cpp:386] inception_5a/relu_5x5_reduce -> inception_5a/5x5_reduce (in-place)
I0903 16:42:06.282801 29413 net.cpp:141] Setting up inception_5a/relu_5x5_reduce
I0903 16:42:06.282814 29413 net.cpp:148] Top shape: 10 32 7 7 (15680)
I0903 16:42:06.282819 29413 net.cpp:156] Memory required for data: 531991040
I0903 16:42:06.282824 29413 layer_factory.hpp:77] Creating layer inception_5a/5x5
I0903 16:42:06.282840 29413 net.cpp:91] Creating Layer inception_5a/5x5
I0903 16:42:06.282846 29413 net.cpp:425] inception_5a/5x5 <- inception_5a/5x5_reduce
I0903 16:42:06.282858 29413 net.cpp:399] inception_5a/5x5 -> inception_5a/5x5
I0903 16:42:06.286808 29413 net.cpp:141] Setting up inception_5a/5x5
I0903 16:42:06.286839 29413 net.cpp:148] Top shape: 10 128 7 7 (62720)
I0903 16:42:06.286844 29413 net.cpp:156] Memory required for data: 532241920
I0903 16:42:06.286855 29413 layer_factory.hpp:77] Creating layer inception_5a/relu_5x5
I0903 16:42:06.286895 29413 net.cpp:91] Creating Layer inception_5a/relu_5x5
I0903 16:42:06.286905 29413 net.cpp:425] inception_5a/relu_5x5 <- inception_5a/5x5
I0903 16:42:06.286912 29413 net.cpp:386] inception_5a/relu_5x5 -> inception_5a/5x5 (in-place)
I0903 16:42:06.287268 29413 net.cpp:141] Setting up inception_5a/relu_5x5
I0903 16:42:06.287281 29413 net.cpp:148] Top shape: 10 128 7 7 (62720)
I0903 16:42:06.287286 29413 net.cpp:156] Memory required for data: 532492800
I0903 16:42:06.287291 29413 layer_factory.hpp:77] Creating layer inception_5a/pool
I0903 16:42:06.287302 29413 net.cpp:91] Creating Layer inception_5a/pool
I0903 16:42:06.287308 29413 net.cpp:425] inception_5a/pool <- pool4/3x3_s2_pool4/3x3_s2_0_split_3
I0903 16:42:06.287318 29413 net.cpp:399] inception_5a/pool -> inception_5a/pool
I0903 16:42:06.287577 29413 net.cpp:141] Setting up inception_5a/pool
I0903 16:42:06.287590 29413 net.cpp:148] Top shape: 10 832 7 7 (407680)
I0903 16:42:06.287593 29413 net.cpp:156] Memory required for data: 534123520
I0903 16:42:06.287598 29413 layer_factory.hpp:77] Creating layer inception_5a/pool_proj
I0903 16:42:06.287616 29413 net.cpp:91] Creating Layer inception_5a/pool_proj
I0903 16:42:06.287621 29413 net.cpp:425] inception_5a/pool_proj <- inception_5a/pool
I0903 16:42:06.287629 29413 net.cpp:399] inception_5a/pool_proj -> inception_5a/pool_proj
I0903 16:42:06.288090 29409 net.cpp:141] Setting up inception_5a/3x3
I0903 16:42:06.288106 29409 net.cpp:148] Top shape: 10 320 7 7 (156800)
I0903 16:42:06.288111 29409 net.cpp:156] Memory required for data: 531238400
I0903 16:42:06.288125 29409 layer_factory.hpp:77] Creating layer inception_5a/relu_3x3
I0903 16:42:06.288135 29409 net.cpp:91] Creating Layer inception_5a/relu_3x3
I0903 16:42:06.288142 29409 net.cpp:425] inception_5a/relu_3x3 <- inception_5a/3x3
I0903 16:42:06.288149 29409 net.cpp:386] inception_5a/relu_3x3 -> inception_5a/3x3 (in-place)
I0903 16:42:06.288755 29409 net.cpp:141] Setting up inception_5a/relu_3x3
I0903 16:42:06.288774 29409 net.cpp:148] Top shape: 10 320 7 7 (156800)
I0903 16:42:06.288779 29409 net.cpp:156] Memory required for data: 531865600
I0903 16:42:06.288784 29409 layer_factory.hpp:77] Creating layer inception_5a/5x5_reduce
I0903 16:42:06.288800 29409 net.cpp:91] Creating Layer inception_5a/5x5_reduce
I0903 16:42:06.288807 29409 net.cpp:425] inception_5a/5x5_reduce <- pool4/3x3_s2_pool4/3x3_s2_0_split_2
I0903 16:42:06.288817 29409 net.cpp:399] inception_5a/5x5_reduce -> inception_5a/5x5_reduce
I0903 16:42:06.292426 29409 net.cpp:141] Setting up inception_5a/5x5_reduce
I0903 16:42:06.292443 29409 net.cpp:148] Top shape: 10 32 7 7 (15680)
I0903 16:42:06.292448 29409 net.cpp:156] Memory required for data: 531928320
I0903 16:42:06.292457 29409 layer_factory.hpp:77] Creating layer inception_5a/relu_5x5_reduce
I0903 16:42:06.292469 29409 net.cpp:91] Creating Layer inception_5a/relu_5x5_reduce
I0903 16:42:06.292476 29409 net.cpp:425] inception_5a/relu_5x5_reduce <- inception_5a/5x5_reduce
I0903 16:42:06.292484 29409 net.cpp:386] inception_5a/relu_5x5_reduce -> inception_5a/5x5_reduce (in-place)
I0903 16:42:06.293084 29409 net.cpp:141] Setting up inception_5a/relu_5x5_reduce
I0903 16:42:06.293099 29409 net.cpp:148] Top shape: 10 32 7 7 (15680)
I0903 16:42:06.293104 29409 net.cpp:156] Memory required for data: 531991040
I0903 16:42:06.293109 29409 layer_factory.hpp:77] Creating layer inception_5a/5x5
I0903 16:42:06.293128 29409 net.cpp:91] Creating Layer inception_5a/5x5
I0903 16:42:06.293134 29409 net.cpp:425] inception_5a/5x5 <- inception_5a/5x5_reduce
I0903 16:42:06.293143 29409 net.cpp:399] inception_5a/5x5 -> inception_5a/5x5
I0903 16:42:06.293262 29413 net.cpp:141] Setting up inception_5a/pool_proj
I0903 16:42:06.293277 29413 net.cpp:148] Top shape: 10 128 7 7 (62720)
I0903 16:42:06.293282 29413 net.cpp:156] Memory required for data: 534374400
I0903 16:42:06.293292 29413 layer_factory.hpp:77] Creating layer inception_5a/relu_pool_proj
I0903 16:42:06.293301 29413 net.cpp:91] Creating Layer inception_5a/relu_pool_proj
I0903 16:42:06.293308 29413 net.cpp:425] inception_5a/relu_pool_proj <- inception_5a/pool_proj
I0903 16:42:06.293316 29413 net.cpp:386] inception_5a/relu_pool_proj -> inception_5a/pool_proj (in-place)
I0903 16:42:06.293922 29413 net.cpp:141] Setting up inception_5a/relu_pool_proj
I0903 16:42:06.293937 29413 net.cpp:148] Top shape: 10 128 7 7 (62720)
I0903 16:42:06.293942 29413 net.cpp:156] Memory required for data: 534625280
I0903 16:42:06.293947 29413 layer_factory.hpp:77] Creating layer inception_5a/output
I0903 16:42:06.293961 29413 net.cpp:91] Creating Layer inception_5a/output
I0903 16:42:06.293967 29413 net.cpp:425] inception_5a/output <- inception_5a/1x1
I0903 16:42:06.293972 29413 net.cpp:425] inception_5a/output <- inception_5a/3x3
I0903 16:42:06.293978 29413 net.cpp:425] inception_5a/output <- inception_5a/5x5
I0903 16:42:06.293983 29413 net.cpp:425] inception_5a/output <- inception_5a/pool_proj
I0903 16:42:06.293990 29413 net.cpp:399] inception_5a/output -> inception_5a/output
I0903 16:42:06.294109 29413 net.cpp:141] Setting up inception_5a/output
I0903 16:42:06.294126 29413 net.cpp:148] Top shape: 10 832 7 7 (407680)
I0903 16:42:06.294134 29413 net.cpp:156] Memory required for data: 536256000
I0903 16:42:06.294142 29413 layer_factory.hpp:77] Creating layer inception_5a/output_inception_5a/output_0_split
I0903 16:42:06.294160 29413 net.cpp:91] Creating Layer inception_5a/output_inception_5a/output_0_split
I0903 16:42:06.294167 29413 net.cpp:425] inception_5a/output_inception_5a/output_0_split <- inception_5a/output
I0903 16:42:06.294173 29413 net.cpp:399] inception_5a/output_inception_5a/output_0_split -> inception_5a/output_inception_5a/output_0_split_0
I0903 16:42:06.294184 29413 net.cpp:399] inception_5a/output_inception_5a/output_0_split -> inception_5a/output_inception_5a/output_0_split_1
I0903 16:42:06.294193 29413 net.cpp:399] inception_5a/output_inception_5a/output_0_split -> inception_5a/output_inception_5a/output_0_split_2
I0903 16:42:06.294201 29413 net.cpp:399] inception_5a/output_inception_5a/output_0_split -> inception_5a/output_inception_5a/output_0_split_3
I0903 16:42:06.294409 29413 net.cpp:141] Setting up inception_5a/output_inception_5a/output_0_split
I0903 16:42:06.294420 29413 net.cpp:148] Top shape: 10 832 7 7 (407680)
I0903 16:42:06.294426 29413 net.cpp:148] Top shape: 10 832 7 7 (407680)
I0903 16:42:06.294431 29413 net.cpp:148] Top shape: 10 832 7 7 (407680)
I0903 16:42:06.294436 29413 net.cpp:148] Top shape: 10 832 7 7 (407680)
I0903 16:42:06.294440 29413 net.cpp:156] Memory required for data: 542778880
I0903 16:42:06.294445 29413 layer_factory.hpp:77] Creating layer inception_5b/1x1
I0903 16:42:06.294461 29413 net.cpp:91] Creating Layer inception_5b/1x1
I0903 16:42:06.294466 29413 net.cpp:425] inception_5b/1x1 <- inception_5a/output_inception_5a/output_0_split_0
I0903 16:42:06.294477 29413 net.cpp:399] inception_5b/1x1 -> inception_5b/1x1
I0903 16:42:06.297551 29409 net.cpp:141] Setting up inception_5a/5x5
I0903 16:42:06.297569 29409 net.cpp:148] Top shape: 10 128 7 7 (62720)
I0903 16:42:06.297575 29409 net.cpp:156] Memory required for data: 532241920
I0903 16:42:06.297585 29409 layer_factory.hpp:77] Creating layer inception_5a/relu_5x5
I0903 16:42:06.297617 29409 net.cpp:91] Creating Layer inception_5a/relu_5x5
I0903 16:42:06.297624 29409 net.cpp:425] inception_5a/relu_5x5 <- inception_5a/5x5
I0903 16:42:06.297631 29409 net.cpp:386] inception_5a/relu_5x5 -> inception_5a/5x5 (in-place)
I0903 16:42:06.297893 29409 net.cpp:141] Setting up inception_5a/relu_5x5
I0903 16:42:06.297904 29409 net.cpp:148] Top shape: 10 128 7 7 (62720)
I0903 16:42:06.297909 29409 net.cpp:156] Memory required for data: 532492800
I0903 16:42:06.297914 29409 layer_factory.hpp:77] Creating layer inception_5a/pool
I0903 16:42:06.297927 29409 net.cpp:91] Creating Layer inception_5a/pool
I0903 16:42:06.297933 29409 net.cpp:425] inception_5a/pool <- pool4/3x3_s2_pool4/3x3_s2_0_split_3
I0903 16:42:06.297942 29409 net.cpp:399] inception_5a/pool -> inception_5a/pool
I0903 16:42:06.298069 29409 net.cpp:141] Setting up inception_5a/pool
I0903 16:42:06.298079 29409 net.cpp:148] Top shape: 10 832 7 7 (407680)
I0903 16:42:06.298084 29409 net.cpp:156] Memory required for data: 534123520
I0903 16:42:06.298087 29409 layer_factory.hpp:77] Creating layer inception_5a/pool_proj
I0903 16:42:06.298105 29409 net.cpp:91] Creating Layer inception_5a/pool_proj
I0903 16:42:06.298111 29409 net.cpp:425] inception_5a/pool_proj <- inception_5a/pool
I0903 16:42:06.298120 29409 net.cpp:399] inception_5a/pool_proj -> inception_5a/pool_proj
I0903 16:42:06.300801 29413 net.cpp:141] Setting up inception_5b/1x1
I0903 16:42:06.300819 29413 net.cpp:148] Top shape: 10 384 7 7 (188160)
I0903 16:42:06.300824 29413 net.cpp:156] Memory required for data: 543531520
I0903 16:42:06.300834 29413 layer_factory.hpp:77] Creating layer inception_5b/relu_1x1
I0903 16:42:06.300848 29413 net.cpp:91] Creating Layer inception_5b/relu_1x1
I0903 16:42:06.300854 29413 net.cpp:425] inception_5b/relu_1x1 <- inception_5b/1x1
I0903 16:42:06.300861 29413 net.cpp:386] inception_5b/relu_1x1 -> inception_5b/1x1 (in-place)
I0903 16:42:06.301367 29413 net.cpp:141] Setting up inception_5b/relu_1x1
I0903 16:42:06.301384 29413 net.cpp:148] Top shape: 10 384 7 7 (188160)
I0903 16:42:06.301388 29413 net.cpp:156] Memory required for data: 544284160
I0903 16:42:06.301394 29413 layer_factory.hpp:77] Creating layer inception_5b/3x3_reduce
I0903 16:42:06.301414 29413 net.cpp:91] Creating Layer inception_5b/3x3_reduce
I0903 16:42:06.301419 29413 net.cpp:425] inception_5b/3x3_reduce <- inception_5a/output_inception_5a/output_0_split_1
I0903 16:42:06.301429 29413 net.cpp:399] inception_5b/3x3_reduce -> inception_5b/3x3_reduce
I0903 16:42:06.304055 29409 net.cpp:141] Setting up inception_5a/pool_proj
I0903 16:42:06.304082 29409 net.cpp:148] Top shape: 10 128 7 7 (62720)
I0903 16:42:06.304088 29409 net.cpp:156] Memory required for data: 534374400
I0903 16:42:06.304098 29409 layer_factory.hpp:77] Creating layer inception_5a/relu_pool_proj
I0903 16:42:06.304107 29409 net.cpp:91] Creating Layer inception_5a/relu_pool_proj
I0903 16:42:06.304113 29409 net.cpp:425] inception_5a/relu_pool_proj <- inception_5a/pool_proj
I0903 16:42:06.304124 29409 net.cpp:386] inception_5a/relu_pool_proj -> inception_5a/pool_proj (in-place)
I0903 16:42:06.304589 29409 net.cpp:141] Setting up inception_5a/relu_pool_proj
I0903 16:42:06.304605 29409 net.cpp:148] Top shape: 10 128 7 7 (62720)
I0903 16:42:06.304610 29409 net.cpp:156] Memory required for data: 534625280
I0903 16:42:06.304615 29409 layer_factory.hpp:77] Creating layer inception_5a/output
I0903 16:42:06.304623 29409 net.cpp:91] Creating Layer inception_5a/output
I0903 16:42:06.304628 29409 net.cpp:425] inception_5a/output <- inception_5a/1x1
I0903 16:42:06.304636 29409 net.cpp:425] inception_5a/output <- inception_5a/3x3
I0903 16:42:06.304641 29409 net.cpp:425] inception_5a/output <- inception_5a/5x5
I0903 16:42:06.304646 29409 net.cpp:425] inception_5a/output <- inception_5a/pool_proj
I0903 16:42:06.304656 29409 net.cpp:399] inception_5a/output -> inception_5a/output
I0903 16:42:06.304734 29409 net.cpp:141] Setting up inception_5a/output
I0903 16:42:06.304745 29409 net.cpp:148] Top shape: 10 832 7 7 (407680)
I0903 16:42:06.304749 29409 net.cpp:156] Memory required for data: 536256000
I0903 16:42:06.304755 29409 layer_factory.hpp:77] Creating layer inception_5a/output_inception_5a/output_0_split
I0903 16:42:06.304769 29409 net.cpp:91] Creating Layer inception_5a/output_inception_5a/output_0_split
I0903 16:42:06.304774 29409 net.cpp:425] inception_5a/output_inception_5a/output_0_split <- inception_5a/output
I0903 16:42:06.304780 29409 net.cpp:399] inception_5a/output_inception_5a/output_0_split -> inception_5a/output_inception_5a/output_0_split_0
I0903 16:42:06.304790 29409 net.cpp:399] inception_5a/output_inception_5a/output_0_split -> inception_5a/output_inception_5a/output_0_split_1
I0903 16:42:06.304800 29409 net.cpp:399] inception_5a/output_inception_5a/output_0_split -> inception_5a/output_inception_5a/output_0_split_2
I0903 16:42:06.304807 29409 net.cpp:399] inception_5a/output_inception_5a/output_0_split -> inception_5a/output_inception_5a/output_0_split_3
I0903 16:42:06.305048 29409 net.cpp:141] Setting up inception_5a/output_inception_5a/output_0_split
I0903 16:42:06.305063 29409 net.cpp:148] Top shape: 10 832 7 7 (407680)
I0903 16:42:06.305068 29409 net.cpp:148] Top shape: 10 832 7 7 (407680)
I0903 16:42:06.305073 29409 net.cpp:148] Top shape: 10 832 7 7 (407680)
I0903 16:42:06.305078 29409 net.cpp:148] Top shape: 10 832 7 7 (407680)
I0903 16:42:06.305083 29409 net.cpp:156] Memory required for data: 542778880
I0903 16:42:06.305088 29409 layer_factory.hpp:77] Creating layer inception_5b/1x1
I0903 16:42:06.305102 29409 net.cpp:91] Creating Layer inception_5b/1x1
I0903 16:42:06.305109 29409 net.cpp:425] inception_5b/1x1 <- inception_5a/output_inception_5a/output_0_split_0
I0903 16:42:06.305116 29409 net.cpp:399] inception_5b/1x1 -> inception_5b/1x1
I0903 16:42:06.307900 29413 net.cpp:141] Setting up inception_5b/3x3_reduce
I0903 16:42:06.307917 29413 net.cpp:148] Top shape: 10 192 7 7 (94080)
I0903 16:42:06.307922 29413 net.cpp:156] Memory required for data: 544660480
I0903 16:42:06.307932 29413 layer_factory.hpp:77] Creating layer inception_5b/relu_3x3_reduce
I0903 16:42:06.307945 29413 net.cpp:91] Creating Layer inception_5b/relu_3x3_reduce
I0903 16:42:06.307950 29413 net.cpp:425] inception_5b/relu_3x3_reduce <- inception_5b/3x3_reduce
I0903 16:42:06.307957 29413 net.cpp:386] inception_5b/relu_3x3_reduce -> inception_5b/3x3_reduce (in-place)
I0903 16:42:06.308259 29413 net.cpp:141] Setting up inception_5b/relu_3x3_reduce
I0903 16:42:06.308272 29413 net.cpp:148] Top shape: 10 192 7 7 (94080)
I0903 16:42:06.308277 29413 net.cpp:156] Memory required for data: 545036800
I0903 16:42:06.308282 29413 layer_factory.hpp:77] Creating layer inception_5b/3x3
I0903 16:42:06.308300 29413 net.cpp:91] Creating Layer inception_5b/3x3
I0903 16:42:06.308306 29413 net.cpp:425] inception_5b/3x3 <- inception_5b/3x3_reduce
I0903 16:42:06.308316 29413 net.cpp:399] inception_5b/3x3 -> inception_5b/3x3
I0903 16:42:06.311938 29409 net.cpp:141] Setting up inception_5b/1x1
I0903 16:42:06.311964 29409 net.cpp:148] Top shape: 10 384 7 7 (188160)
I0903 16:42:06.311969 29409 net.cpp:156] Memory required for data: 543531520
I0903 16:42:06.311980 29409 layer_factory.hpp:77] Creating layer inception_5b/relu_1x1
I0903 16:42:06.311992 29409 net.cpp:91] Creating Layer inception_5b/relu_1x1
I0903 16:42:06.312000 29409 net.cpp:425] inception_5b/relu_1x1 <- inception_5b/1x1
I0903 16:42:06.312007 29409 net.cpp:386] inception_5b/relu_1x1 -> inception_5b/1x1 (in-place)
I0903 16:42:06.312463 29409 net.cpp:141] Setting up inception_5b/relu_1x1
I0903 16:42:06.312479 29409 net.cpp:148] Top shape: 10 384 7 7 (188160)
I0903 16:42:06.312484 29409 net.cpp:156] Memory required for data: 544284160
I0903 16:42:06.312489 29409 layer_factory.hpp:77] Creating layer inception_5b/3x3_reduce
I0903 16:42:06.312510 29409 net.cpp:91] Creating Layer inception_5b/3x3_reduce
I0903 16:42:06.312515 29409 net.cpp:425] inception_5b/3x3_reduce <- inception_5a/output_inception_5a/output_0_split_1
I0903 16:42:06.312525 29409 net.cpp:399] inception_5b/3x3_reduce -> inception_5b/3x3_reduce
I0903 16:42:06.317212 29409 net.cpp:141] Setting up inception_5b/3x3_reduce
I0903 16:42:06.317231 29409 net.cpp:148] Top shape: 10 192 7 7 (94080)
I0903 16:42:06.317236 29409 net.cpp:156] Memory required for data: 544660480
I0903 16:42:06.317245 29409 layer_factory.hpp:77] Creating layer inception_5b/relu_3x3_reduce
I0903 16:42:06.317265 29409 net.cpp:91] Creating Layer inception_5b/relu_3x3_reduce
I0903 16:42:06.317271 29409 net.cpp:425] inception_5b/relu_3x3_reduce <- inception_5b/3x3_reduce
I0903 16:42:06.317278 29409 net.cpp:386] inception_5b/relu_3x3_reduce -> inception_5b/3x3_reduce (in-place)
I0903 16:42:06.317700 29409 net.cpp:141] Setting up inception_5b/relu_3x3_reduce
I0903 16:42:06.317714 29409 net.cpp:148] Top shape: 10 192 7 7 (94080)
I0903 16:42:06.317719 29409 net.cpp:156] Memory required for data: 545036800
I0903 16:42:06.317724 29409 layer_factory.hpp:77] Creating layer inception_5b/3x3
I0903 16:42:06.317740 29409 net.cpp:91] Creating Layer inception_5b/3x3
I0903 16:42:06.317746 29409 net.cpp:425] inception_5b/3x3 <- inception_5b/3x3_reduce
I0903 16:42:06.317756 29409 net.cpp:399] inception_5b/3x3 -> inception_5b/3x3
I0903 16:42:06.317873 29413 net.cpp:141] Setting up inception_5b/3x3
I0903 16:42:06.317888 29413 net.cpp:148] Top shape: 10 384 7 7 (188160)
I0903 16:42:06.317893 29413 net.cpp:156] Memory required for data: 545789440
I0903 16:42:06.317904 29413 layer_factory.hpp:77] Creating layer inception_5b/relu_3x3
I0903 16:42:06.317915 29413 net.cpp:91] Creating Layer inception_5b/relu_3x3
I0903 16:42:06.317922 29413 net.cpp:425] inception_5b/relu_3x3 <- inception_5b/3x3
I0903 16:42:06.317930 29413 net.cpp:386] inception_5b/relu_3x3 -> inception_5b/3x3 (in-place)
I0903 16:42:06.318547 29413 net.cpp:141] Setting up inception_5b/relu_3x3
I0903 16:42:06.318562 29413 net.cpp:148] Top shape: 10 384 7 7 (188160)
I0903 16:42:06.318568 29413 net.cpp:156] Memory required for data: 546542080
I0903 16:42:06.318574 29413 layer_factory.hpp:77] Creating layer inception_5b/5x5_reduce
I0903 16:42:06.318588 29413 net.cpp:91] Creating Layer inception_5b/5x5_reduce
I0903 16:42:06.318593 29413 net.cpp:425] inception_5b/5x5_reduce <- inception_5a/output_inception_5a/output_0_split_2
I0903 16:42:06.318605 29413 net.cpp:399] inception_5b/5x5_reduce -> inception_5b/5x5_reduce
I0903 16:42:06.322842 29413 net.cpp:141] Setting up inception_5b/5x5_reduce
I0903 16:42:06.322863 29413 net.cpp:148] Top shape: 10 48 7 7 (23520)
I0903 16:42:06.322870 29413 net.cpp:156] Memory required for data: 546636160
I0903 16:42:06.322878 29413 layer_factory.hpp:77] Creating layer inception_5b/relu_5x5_reduce
I0903 16:42:06.322892 29413 net.cpp:91] Creating Layer inception_5b/relu_5x5_reduce
I0903 16:42:06.322899 29413 net.cpp:425] inception_5b/relu_5x5_reduce <- inception_5b/5x5_reduce
I0903 16:42:06.322906 29413 net.cpp:386] inception_5b/relu_5x5_reduce -> inception_5b/5x5_reduce (in-place)
I0903 16:42:06.323374 29413 net.cpp:141] Setting up inception_5b/relu_5x5_reduce
I0903 16:42:06.323390 29413 net.cpp:148] Top shape: 10 48 7 7 (23520)
I0903 16:42:06.323395 29413 net.cpp:156] Memory required for data: 546730240
I0903 16:42:06.323400 29413 layer_factory.hpp:77] Creating layer inception_5b/5x5
I0903 16:42:06.323420 29413 net.cpp:91] Creating Layer inception_5b/5x5
I0903 16:42:06.323426 29413 net.cpp:425] inception_5b/5x5 <- inception_5b/5x5_reduce
I0903 16:42:06.323434 29413 net.cpp:399] inception_5b/5x5 -> inception_5b/5x5
I0903 16:42:06.327829 29413 net.cpp:141] Setting up inception_5b/5x5
I0903 16:42:06.327848 29413 net.cpp:148] Top shape: 10 128 7 7 (62720)
I0903 16:42:06.327853 29413 net.cpp:156] Memory required for data: 546981120
I0903 16:42:06.327862 29413 layer_factory.hpp:77] Creating layer inception_5b/relu_5x5
I0903 16:42:06.327882 29413 net.cpp:91] Creating Layer inception_5b/relu_5x5
I0903 16:42:06.327889 29413 net.cpp:425] inception_5b/relu_5x5 <- inception_5b/5x5
I0903 16:42:06.327896 29413 net.cpp:386] inception_5b/relu_5x5 -> inception_5b/5x5 (in-place)
I0903 16:42:06.327953 29409 net.cpp:141] Setting up inception_5b/3x3
I0903 16:42:06.327970 29409 net.cpp:148] Top shape: 10 384 7 7 (188160)
I0903 16:42:06.327975 29409 net.cpp:156] Memory required for data: 545789440
I0903 16:42:06.327985 29409 layer_factory.hpp:77] Creating layer inception_5b/relu_3x3
I0903 16:42:06.327996 29409 net.cpp:91] Creating Layer inception_5b/relu_3x3
I0903 16:42:06.328002 29409 net.cpp:425] inception_5b/relu_3x3 <- inception_5b/3x3
I0903 16:42:06.328009 29409 net.cpp:386] inception_5b/relu_3x3 -> inception_5b/3x3 (in-place)
I0903 16:42:06.328246 29413 net.cpp:141] Setting up inception_5b/relu_5x5
I0903 16:42:06.328258 29413 net.cpp:148] Top shape: 10 128 7 7 (62720)
I0903 16:42:06.328263 29413 net.cpp:156] Memory required for data: 547232000
I0903 16:42:06.328269 29413 layer_factory.hpp:77] Creating layer inception_5b/pool
I0903 16:42:06.328280 29413 net.cpp:91] Creating Layer inception_5b/pool
I0903 16:42:06.328286 29413 net.cpp:425] inception_5b/pool <- inception_5a/output_inception_5a/output_0_split_3
I0903 16:42:06.328297 29413 net.cpp:399] inception_5b/pool -> inception_5b/pool
I0903 16:42:06.328547 29413 net.cpp:141] Setting up inception_5b/pool
I0903 16:42:06.328563 29413 net.cpp:148] Top shape: 10 832 7 7 (407680)
I0903 16:42:06.328570 29413 net.cpp:156] Memory required for data: 548862720
I0903 16:42:06.328579 29413 layer_factory.hpp:77] Creating layer inception_5b/pool_proj
I0903 16:42:06.328603 29413 net.cpp:91] Creating Layer inception_5b/pool_proj
I0903 16:42:06.328609 29413 net.cpp:425] inception_5b/pool_proj <- inception_5b/pool
I0903 16:42:06.328620 29413 net.cpp:399] inception_5b/pool_proj -> inception_5b/pool_proj
I0903 16:42:06.328625 29409 net.cpp:141] Setting up inception_5b/relu_3x3
I0903 16:42:06.328639 29409 net.cpp:148] Top shape: 10 384 7 7 (188160)
I0903 16:42:06.328642 29409 net.cpp:156] Memory required for data: 546542080
I0903 16:42:06.328647 29409 layer_factory.hpp:77] Creating layer inception_5b/5x5_reduce
I0903 16:42:06.328663 29409 net.cpp:91] Creating Layer inception_5b/5x5_reduce
I0903 16:42:06.328670 29409 net.cpp:425] inception_5b/5x5_reduce <- inception_5a/output_inception_5a/output_0_split_2
I0903 16:42:06.328682 29409 net.cpp:399] inception_5b/5x5_reduce -> inception_5b/5x5_reduce
I0903 16:42:06.332952 29409 net.cpp:141] Setting up inception_5b/5x5_reduce
I0903 16:42:06.332969 29409 net.cpp:148] Top shape: 10 48 7 7 (23520)
I0903 16:42:06.332974 29409 net.cpp:156] Memory required for data: 546636160
I0903 16:42:06.332983 29409 layer_factory.hpp:77] Creating layer inception_5b/relu_5x5_reduce
I0903 16:42:06.332995 29409 net.cpp:91] Creating Layer inception_5b/relu_5x5_reduce
I0903 16:42:06.333003 29409 net.cpp:425] inception_5b/relu_5x5_reduce <- inception_5b/5x5_reduce
I0903 16:42:06.333009 29409 net.cpp:386] inception_5b/relu_5x5_reduce -> inception_5b/5x5_reduce (in-place)
I0903 16:42:06.333603 29409 net.cpp:141] Setting up inception_5b/relu_5x5_reduce
I0903 16:42:06.333618 29409 net.cpp:148] Top shape: 10 48 7 7 (23520)
I0903 16:42:06.333623 29409 net.cpp:156] Memory required for data: 546730240
I0903 16:42:06.333628 29409 layer_factory.hpp:77] Creating layer inception_5b/5x5
I0903 16:42:06.333644 29409 net.cpp:91] Creating Layer inception_5b/5x5
I0903 16:42:06.333650 29409 net.cpp:425] inception_5b/5x5 <- inception_5b/5x5_reduce
I0903 16:42:06.333662 29409 net.cpp:399] inception_5b/5x5 -> inception_5b/5x5
I0903 16:42:06.333847 29413 net.cpp:141] Setting up inception_5b/pool_proj
I0903 16:42:06.333863 29413 net.cpp:148] Top shape: 10 128 7 7 (62720)
I0903 16:42:06.333868 29413 net.cpp:156] Memory required for data: 549113600
I0903 16:42:06.333878 29413 layer_factory.hpp:77] Creating layer inception_5b/relu_pool_proj
I0903 16:42:06.333890 29413 net.cpp:91] Creating Layer inception_5b/relu_pool_proj
I0903 16:42:06.333896 29413 net.cpp:425] inception_5b/relu_pool_proj <- inception_5b/pool_proj
I0903 16:42:06.333905 29413 net.cpp:386] inception_5b/relu_pool_proj -> inception_5b/pool_proj (in-place)
I0903 16:42:06.334556 29413 net.cpp:141] Setting up inception_5b/relu_pool_proj
I0903 16:42:06.334571 29413 net.cpp:148] Top shape: 10 128 7 7 (62720)
I0903 16:42:06.334576 29413 net.cpp:156] Memory required for data: 549364480
I0903 16:42:06.334581 29413 layer_factory.hpp:77] Creating layer inception_5b/output
I0903 16:42:06.334591 29413 net.cpp:91] Creating Layer inception_5b/output
I0903 16:42:06.334596 29413 net.cpp:425] inception_5b/output <- inception_5b/1x1
I0903 16:42:06.334604 29413 net.cpp:425] inception_5b/output <- inception_5b/3x3
I0903 16:42:06.334609 29413 net.cpp:425] inception_5b/output <- inception_5b/5x5
I0903 16:42:06.334614 29413 net.cpp:425] inception_5b/output <- inception_5b/pool_proj
I0903 16:42:06.334625 29413 net.cpp:399] inception_5b/output -> inception_5b/output
I0903 16:42:06.334720 29413 net.cpp:141] Setting up inception_5b/output
I0903 16:42:06.334731 29413 net.cpp:148] Top shape: 10 1024 7 7 (501760)
I0903 16:42:06.334735 29413 net.cpp:156] Memory required for data: 551371520
I0903 16:42:06.334740 29413 layer_factory.hpp:77] Creating layer pool5/7x7_s1
I0903 16:42:06.334751 29413 net.cpp:91] Creating Layer pool5/7x7_s1
I0903 16:42:06.334758 29413 net.cpp:425] pool5/7x7_s1 <- inception_5b/output
I0903 16:42:06.334765 29413 net.cpp:399] pool5/7x7_s1 -> pool5/7x7_s1
I0903 16:42:06.335157 29413 net.cpp:141] Setting up pool5/7x7_s1
I0903 16:42:06.335170 29413 net.cpp:148] Top shape: 10 1024 1 1 (10240)
I0903 16:42:06.335175 29413 net.cpp:156] Memory required for data: 551412480
I0903 16:42:06.335180 29413 layer_factory.hpp:77] Creating layer pool5/drop_7x7_s1
I0903 16:42:06.335192 29413 net.cpp:91] Creating Layer pool5/drop_7x7_s1
I0903 16:42:06.335198 29413 net.cpp:425] pool5/drop_7x7_s1 <- pool5/7x7_s1
I0903 16:42:06.335204 29413 net.cpp:386] pool5/drop_7x7_s1 -> pool5/7x7_s1 (in-place)
I0903 16:42:06.335286 29413 net.cpp:141] Setting up pool5/drop_7x7_s1
I0903 16:42:06.335296 29413 net.cpp:148] Top shape: 10 1024 1 1 (10240)
I0903 16:42:06.335300 29413 net.cpp:156] Memory required for data: 551453440
I0903 16:42:06.335305 29413 layer_factory.hpp:77] Creating layer loss3/classifier
I0903 16:42:06.335331 29413 net.cpp:91] Creating Layer loss3/classifier
I0903 16:42:06.335336 29413 net.cpp:425] loss3/classifier <- pool5/7x7_s1
I0903 16:42:06.335346 29413 net.cpp:399] loss3/classifier -> loss3/classifier
I0903 16:42:06.339706 29409 net.cpp:141] Setting up inception_5b/5x5
I0903 16:42:06.339728 29409 net.cpp:148] Top shape: 10 128 7 7 (62720)
I0903 16:42:06.339733 29409 net.cpp:156] Memory required for data: 546981120
I0903 16:42:06.339743 29409 layer_factory.hpp:77] Creating layer inception_5b/relu_5x5
I0903 16:42:06.339751 29409 net.cpp:91] Creating Layer inception_5b/relu_5x5
I0903 16:42:06.339757 29409 net.cpp:425] inception_5b/relu_5x5 <- inception_5b/5x5
I0903 16:42:06.339769 29409 net.cpp:386] inception_5b/relu_5x5 -> inception_5b/5x5 (in-place)
I0903 16:42:06.340039 29409 net.cpp:141] Setting up inception_5b/relu_5x5
I0903 16:42:06.340052 29409 net.cpp:148] Top shape: 10 128 7 7 (62720)
I0903 16:42:06.340057 29409 net.cpp:156] Memory required for data: 547232000
I0903 16:42:06.340062 29409 layer_factory.hpp:77] Creating layer inception_5b/pool
I0903 16:42:06.340080 29409 net.cpp:91] Creating Layer inception_5b/pool
I0903 16:42:06.340087 29409 net.cpp:425] inception_5b/pool <- inception_5a/output_inception_5a/output_0_split_3
I0903 16:42:06.340095 29409 net.cpp:399] inception_5b/pool -> inception_5b/pool
I0903 16:42:06.340234 29409 net.cpp:141] Setting up inception_5b/pool
I0903 16:42:06.340245 29409 net.cpp:148] Top shape: 10 832 7 7 (407680)
I0903 16:42:06.340250 29409 net.cpp:156] Memory required for data: 548862720
I0903 16:42:06.340255 29409 layer_factory.hpp:77] Creating layer inception_5b/pool_proj
I0903 16:42:06.340267 29409 net.cpp:91] Creating Layer inception_5b/pool_proj
I0903 16:42:06.340272 29409 net.cpp:425] inception_5b/pool_proj <- inception_5b/pool
I0903 16:42:06.340284 29409 net.cpp:399] inception_5b/pool_proj -> inception_5b/pool_proj
I0903 16:42:06.344163 29409 net.cpp:141] Setting up inception_5b/pool_proj
I0903 16:42:06.344182 29409 net.cpp:148] Top shape: 10 128 7 7 (62720)
I0903 16:42:06.344187 29409 net.cpp:156] Memory required for data: 549113600
I0903 16:42:06.344195 29409 layer_factory.hpp:77] Creating layer inception_5b/relu_pool_proj
I0903 16:42:06.344208 29409 net.cpp:91] Creating Layer inception_5b/relu_pool_proj
I0903 16:42:06.344215 29409 net.cpp:425] inception_5b/relu_pool_proj <- inception_5b/pool_proj
I0903 16:42:06.344223 29409 net.cpp:386] inception_5b/relu_pool_proj -> inception_5b/pool_proj (in-place)
I0903 16:42:06.344681 29409 net.cpp:141] Setting up inception_5b/relu_pool_proj
I0903 16:42:06.344697 29409 net.cpp:148] Top shape: 10 128 7 7 (62720)
I0903 16:42:06.344702 29409 net.cpp:156] Memory required for data: 549364480
I0903 16:42:06.344707 29409 layer_factory.hpp:77] Creating layer inception_5b/output
I0903 16:42:06.344719 29409 net.cpp:91] Creating Layer inception_5b/output
I0903 16:42:06.344725 29409 net.cpp:425] inception_5b/output <- inception_5b/1x1
I0903 16:42:06.344732 29409 net.cpp:425] inception_5b/output <- inception_5b/3x3
I0903 16:42:06.344738 29409 net.cpp:425] inception_5b/output <- inception_5b/5x5
I0903 16:42:06.344743 29409 net.cpp:425] inception_5b/output <- inception_5b/pool_proj
I0903 16:42:06.344749 29409 net.cpp:399] inception_5b/output -> inception_5b/output
I0903 16:42:06.344833 29409 net.cpp:141] Setting up inception_5b/output
I0903 16:42:06.344844 29409 net.cpp:148] Top shape: 10 1024 7 7 (501760)
I0903 16:42:06.344848 29409 net.cpp:156] Memory required for data: 551371520
I0903 16:42:06.344852 29409 layer_factory.hpp:77] Creating layer pool5/7x7_s1
I0903 16:42:06.344861 29409 net.cpp:91] Creating Layer pool5/7x7_s1
I0903 16:42:06.344866 29409 net.cpp:425] pool5/7x7_s1 <- inception_5b/output
I0903 16:42:06.344876 29409 net.cpp:399] pool5/7x7_s1 -> pool5/7x7_s1
I0903 16:42:06.345206 29409 net.cpp:141] Setting up pool5/7x7_s1
I0903 16:42:06.345217 29409 net.cpp:148] Top shape: 10 1024 1 1 (10240)
I0903 16:42:06.345221 29409 net.cpp:156] Memory required for data: 551412480
I0903 16:42:06.345227 29409 layer_factory.hpp:77] Creating layer pool5/drop_7x7_s1
I0903 16:42:06.345235 29409 net.cpp:91] Creating Layer pool5/drop_7x7_s1
I0903 16:42:06.345240 29409 net.cpp:425] pool5/drop_7x7_s1 <- pool5/7x7_s1
I0903 16:42:06.345250 29409 net.cpp:386] pool5/drop_7x7_s1 -> pool5/7x7_s1 (in-place)
I0903 16:42:06.345324 29409 net.cpp:141] Setting up pool5/drop_7x7_s1
I0903 16:42:06.345335 29409 net.cpp:148] Top shape: 10 1024 1 1 (10240)
I0903 16:42:06.345340 29409 net.cpp:156] Memory required for data: 551453440
I0903 16:42:06.345343 29409 layer_factory.hpp:77] Creating layer loss3/classifier
I0903 16:42:06.345358 29409 net.cpp:91] Creating Layer loss3/classifier
I0903 16:42:06.345365 29409 net.cpp:425] loss3/classifier <- pool5/7x7_s1
I0903 16:42:06.345373 29409 net.cpp:399] loss3/classifier -> loss3/classifier
I0903 16:42:06.348078 29413 net.cpp:141] Setting up loss3/classifier
I0903 16:42:06.348099 29413 net.cpp:148] Top shape: 10 1000 (10000)
I0903 16:42:06.348105 29413 net.cpp:156] Memory required for data: 551493440
I0903 16:42:06.348116 29413 layer_factory.hpp:77] Creating layer prob
I0903 16:42:06.348127 29413 net.cpp:91] Creating Layer prob
I0903 16:42:06.348134 29413 net.cpp:425] prob <- loss3/classifier
I0903 16:42:06.348142 29413 net.cpp:399] prob -> prob
I0903 16:42:06.348948 29413 net.cpp:141] Setting up prob
I0903 16:42:06.348963 29413 net.cpp:148] Top shape: 10 1000 (10000)
I0903 16:42:06.348968 29413 net.cpp:156] Memory required for data: 551533440
I0903 16:42:06.348975 29413 net.cpp:219] prob does not need backward computation.
I0903 16:42:06.348980 29413 net.cpp:219] loss3/classifier does not need backward computation.
I0903 16:42:06.348987 29413 net.cpp:219] pool5/drop_7x7_s1 does not need backward computation.
I0903 16:42:06.348996 29413 net.cpp:219] pool5/7x7_s1 does not need backward computation.
…
