…
2016-07-13 13:33:32.411 n.t.s.b.CVParticleBolt [INFO] [Timing] RequestID: 0 StreamID: home/peifeng/work/data/frame.320x240.jpg SequenceNr: 44 Leaving scale: 1468431212411 Size: 3530
2016-07-13 13:33:32.411 n.t.s.b.CVParticleBolt [INFO] [Timing] RequestID: 0 StreamID: home/peifeng/work/data/frame.320x240.jpg SequenceNr: 45 Entering scale: 1468431212411
2016-07-13 13:33:32.416 n.t.s.b.CVParticleBolt [INFO] [Timing] RequestID: 0 StreamID: home/peifeng/work/data/frame.320x240.jpg SequenceNr: 45 Leaving scale: 1468431212416 Size: 3530
2016-07-13 13:33:32.509 STDERR [INFO] I0713 13:33:32.509340 23309 net.cpp:141] Setting up conv1/7x7_s2
2016-07-13 13:33:32.510 STDERR [INFO] I0713 13:33:32.509400 23309 net.cpp:148] Top shape: 10 64 112 112 (8028160)
2016-07-13 13:33:32.510 STDERR [INFO] I0713 13:33:32.509407 23309 net.cpp:156] Memory required for data: 38133760
2016-07-13 13:33:32.510 STDERR [INFO] I0713 13:33:32.509438 23309 layer_factory.hpp:77] Creating layer conv1/relu_7x7
2016-07-13 13:33:32.510 STDERR [INFO] I0713 13:33:32.509459 23309 net.cpp:91] Creating Layer conv1/relu_7x7
2016-07-13 13:33:32.510 STDERR [INFO] I0713 13:33:32.509466 23309 net.cpp:425] conv1/relu_7x7 <- conv1/7x7_s2
2016-07-13 13:33:32.510 STDERR [INFO] I0713 13:33:32.509475 23309 net.cpp:386] conv1/relu_7x7 -> conv1/7x7_s2 (in-place)
2016-07-13 13:33:32.511 STDERR [INFO] I0713 13:33:32.510159 23309 net.cpp:141] Setting up conv1/relu_7x7
2016-07-13 13:33:32.511 STDERR [INFO] I0713 13:33:32.510174 23309 net.cpp:148] Top shape: 10 64 112 112 (8028160)
2016-07-13 13:33:32.511 STDERR [INFO] I0713 13:33:32.510179 23309 net.cpp:156] Memory required for data: 70246400
2016-07-13 13:33:32.511 STDERR [INFO] I0713 13:33:32.510184 23309 layer_factory.hpp:77] Creating layer pool1/3x3_s2
2016-07-13 13:33:32.511 STDERR [INFO] I0713 13:33:32.510197 23309 net.cpp:91] Creating Layer pool1/3x3_s2
2016-07-13 13:33:32.511 STDERR [INFO] I0713 13:33:32.510202 23309 net.cpp:425] pool1/3x3_s2 <- conv1/7x7_s2
2016-07-13 13:33:32.511 STDERR [INFO] I0713 13:33:32.510210 23309 net.cpp:399] pool1/3x3_s2 -> pool1/3x3_s2
2016-07-13 13:33:32.511 STDERR [INFO] I0713 13:33:32.510284 23309 net.cpp:141] Setting up pool1/3x3_s2
2016-07-13 13:33:32.511 STDERR [INFO] I0713 13:33:32.510295 23309 net.cpp:148] Top shape: 10 64 56 56 (2007040)
2016-07-13 13:33:32.511 STDERR [INFO] I0713 13:33:32.510299 23309 net.cpp:156] Memory required for data: 78274560
2016-07-13 13:33:32.512 STDERR [INFO] I0713 13:33:32.510310 23309 layer_factory.hpp:77] Creating layer pool1/norm1
2016-07-13 13:33:32.512 STDERR [INFO] I0713 13:33:32.510326 23309 net.cpp:91] Creating Layer pool1/norm1
2016-07-13 13:33:32.512 STDERR [INFO] I0713 13:33:32.510331 23309 net.cpp:425] pool1/norm1 <- pool1/3x3_s2
2016-07-13 13:33:32.512 STDERR [INFO] I0713 13:33:32.510337 23309 net.cpp:399] pool1/norm1 -> pool1/norm1
2016-07-13 13:33:32.512 STDERR [INFO] I0713 13:33:32.511070 23309 net.cpp:141] Setting up pool1/norm1
2016-07-13 13:33:32.512 STDERR [INFO] I0713 13:33:32.511085 23309 net.cpp:148] Top shape: 10 64 56 56 (2007040)
2016-07-13 13:33:32.512 STDERR [INFO] I0713 13:33:32.511088 23309 net.cpp:156] Memory required for data: 86302720
2016-07-13 13:33:32.512 STDERR [INFO] I0713 13:33:32.511093 23309 layer_factory.hpp:77] Creating layer conv2/3x3_reduce
2016-07-13 13:33:32.512 STDERR [INFO] I0713 13:33:32.511116 23309 net.cpp:91] Creating Layer conv2/3x3_reduce
2016-07-13 13:33:32.513 STDERR [INFO] I0713 13:33:32.511121 23309 net.cpp:425] conv2/3x3_reduce <- pool1/norm1
2016-07-13 13:33:32.513 STDERR [INFO] I0713 13:33:32.511128 23309 net.cpp:399] conv2/3x3_reduce -> conv2/3x3_reduce
2016-07-13 13:33:32.513 STDERR [INFO] I0713 13:33:32.513561 23309 net.cpp:141] Setting up conv2/3x3_reduce
2016-07-13 13:33:32.513 STDERR [INFO] I0713 13:33:32.513578 23309 net.cpp:148] Top shape: 10 64 56 56 (2007040)
2016-07-13 13:33:32.513 STDERR [INFO] I0713 13:33:32.513583 23309 net.cpp:156] Memory required for data: 94330880
2016-07-13 13:33:32.514 STDERR [INFO] I0713 13:33:32.513594 23309 layer_factory.hpp:77] Creating layer conv2/relu_3x3_reduce
2016-07-13 13:33:32.514 STDERR [INFO] I0713 13:33:32.513603 23309 net.cpp:91] Creating Layer conv2/relu_3x3_reduce
2016-07-13 13:33:32.514 STDERR [INFO] I0713 13:33:32.513609 23309 net.cpp:425] conv2/relu_3x3_reduce <- conv2/3x3_reduce
2016-07-13 13:33:32.514 STDERR [INFO] I0713 13:33:32.513617 23309 net.cpp:386] conv2/relu_3x3_reduce -> conv2/3x3_reduce (in-place)
2016-07-13 13:33:32.514 STDERR [INFO] I0713 13:33:32.514250 23309 net.cpp:141] Setting up conv2/relu_3x3_reduce
2016-07-13 13:33:32.514 STDERR [INFO] I0713 13:33:32.514262 23309 net.cpp:148] Top shape: 10 64 56 56 (2007040)
2016-07-13 13:33:32.514 STDERR [INFO] I0713 13:33:32.514267 23309 net.cpp:156] Memory required for data: 102359040
2016-07-13 13:33:32.514 STDERR [INFO] I0713 13:33:32.514272 23309 layer_factory.hpp:77] Creating layer conv2/3x3
2016-07-13 13:33:32.514 STDERR [INFO] I0713 13:33:32.514286 23309 net.cpp:91] Creating Layer conv2/3x3
2016-07-13 13:33:32.515 STDERR [INFO] I0713 13:33:32.514292 23309 net.cpp:425] conv2/3x3 <- conv2/3x3_reduce
2016-07-13 13:33:32.515 STDERR [INFO] I0713 13:33:32.514298 23309 net.cpp:399] conv2/3x3 -> conv2/3x3
2016-07-13 13:33:32.518 STDERR [INFO] I0713 13:33:32.518365 23309 net.cpp:141] Setting up conv2/3x3
2016-07-13 13:33:32.518 STDERR [INFO] I0713 13:33:32.518383 23309 net.cpp:148] Top shape: 10 192 56 56 (6021120)
2016-07-13 13:33:32.518 STDERR [INFO] I0713 13:33:32.518388 23309 net.cpp:156] Memory required for data: 126443520
2016-07-13 13:33:32.518 STDERR [INFO] I0713 13:33:32.518399 23309 layer_factory.hpp:77] Creating layer conv2/relu_3x3
2016-07-13 13:33:32.519 STDERR [INFO] I0713 13:33:32.518409 23309 net.cpp:91] Creating Layer conv2/relu_3x3
2016-07-13 13:33:32.519 STDERR [INFO] I0713 13:33:32.518414 23309 net.cpp:425] conv2/relu_3x3 <- conv2/3x3
2016-07-13 13:33:32.519 STDERR [INFO] I0713 13:33:32.518420 23309 net.cpp:386] conv2/relu_3x3 -> conv2/3x3 (in-place)
2016-07-13 13:33:32.519 STDERR [INFO] I0713 13:33:32.518617 23309 net.cpp:141] Setting up conv2/relu_3x3
2016-07-13 13:33:32.519 STDERR [INFO] I0713 13:33:32.518628 23309 net.cpp:148] Top shape: 10 192 56 56 (6021120)
2016-07-13 13:33:32.519 STDERR [INFO] I0713 13:33:32.518633 23309 net.cpp:156] Memory required for data: 150528000
2016-07-13 13:33:32.520 STDERR [INFO] I0713 13:33:32.518638 23309 layer_factory.hpp:77] Creating layer conv2/norm2
2016-07-13 13:33:32.520 STDERR [INFO] I0713 13:33:32.518647 23309 net.cpp:91] Creating Layer conv2/norm2
2016-07-13 13:33:32.520 STDERR [INFO] I0713 13:33:32.518651 23309 net.cpp:425] conv2/norm2 <- conv2/3x3
2016-07-13 13:33:32.520 STDERR [INFO] I0713 13:33:32.518658 23309 net.cpp:399] conv2/norm2 -> conv2/norm2
2016-07-13 13:33:32.520 STDERR [INFO] I0713 13:33:32.519326 23309 net.cpp:141] Setting up conv2/norm2
2016-07-13 13:33:32.520 STDERR [INFO] I0713 13:33:32.519340 23309 net.cpp:148] Top shape: 10 192 56 56 (6021120)
2016-07-13 13:33:32.520 STDERR [INFO] I0713 13:33:32.519343 23309 net.cpp:156] Memory required for data: 174612480
2016-07-13 13:33:32.520 STDERR [INFO] I0713 13:33:32.519350 23309 layer_factory.hpp:77] Creating layer pool2/3x3_s2
2016-07-13 13:33:32.520 STDERR [INFO] I0713 13:33:32.519358 23309 net.cpp:91] Creating Layer pool2/3x3_s2
2016-07-13 13:33:32.520 STDERR [INFO] I0713 13:33:32.519362 23309 net.cpp:425] pool2/3x3_s2 <- conv2/norm2
2016-07-13 13:33:32.521 STDERR [INFO] I0713 13:33:32.519369 23309 net.cpp:399] pool2/3x3_s2 -> pool2/3x3_s2
2016-07-13 13:33:32.521 STDERR [INFO] I0713 13:33:32.519428 23309 net.cpp:141] Setting up pool2/3x3_s2
2016-07-13 13:33:32.521 STDERR [INFO] I0713 13:33:32.519436 23309 net.cpp:148] Top shape: 10 192 28 28 (1505280)
2016-07-13 13:33:32.521 STDERR [INFO] I0713 13:33:32.519440 23309 net.cpp:156] Memory required for data: 180633600
2016-07-13 13:33:32.521 STDERR [INFO] I0713 13:33:32.519445 23309 layer_factory.hpp:77] Creating layer pool2/3x3_s2_pool2/3x3_s2_0_split
2016-07-13 13:33:32.521 STDERR [INFO] I0713 13:33:32.519462 23309 net.cpp:91] Creating Layer pool2/3x3_s2_pool2/3x3_s2_0_split
2016-07-13 13:33:32.521 STDERR [INFO] I0713 13:33:32.519467 23309 net.cpp:425] pool2/3x3_s2_pool2/3x3_s2_0_split <- pool2/3x3_s2
2016-07-13 13:33:32.521 STDERR [INFO] I0713 13:33:32.519474 23309 net.cpp:399] pool2/3x3_s2_pool2/3x3_s2_0_split -> pool2/3x3_s2_pool2/3x3_s2_0_split_0
2016-07-13 13:33:32.521 STDERR [INFO] I0713 13:33:32.519484 23309 net.cpp:399] pool2/3x3_s2_pool2/3x3_s2_0_split -> pool2/3x3_s2_pool2/3x3_s2_0_split_1
2016-07-13 13:33:32.521 STDERR [INFO] I0713 13:33:32.519491 23309 net.cpp:399] pool2/3x3_s2_pool2/3x3_s2_0_split -> pool2/3x3_s2_pool2/3x3_s2_0_split_2
2016-07-13 13:33:32.522 STDERR [INFO] I0713 13:33:32.519498 23309 net.cpp:399] pool2/3x3_s2_pool2/3x3_s2_0_split -> pool2/3x3_s2_pool2/3x3_s2_0_split_3
2016-07-13 13:33:32.522 STDERR [INFO] I0713 13:33:32.519562 23309 net.cpp:141] Setting up pool2/3x3_s2_pool2/3x3_s2_0_split
2016-07-13 13:33:32.522 STDERR [INFO] I0713 13:33:32.519572 23309 net.cpp:148] Top shape: 10 192 28 28 (1505280)
2016-07-13 13:33:32.522 STDERR [INFO] I0713 13:33:32.519577 23309 net.cpp:148] Top shape: 10 192 28 28 (1505280)
2016-07-13 13:33:32.522 STDERR [INFO] I0713 13:33:32.519582 23309 net.cpp:148] Top shape: 10 192 28 28 (1505280)
2016-07-13 13:33:32.522 STDERR [INFO] I0713 13:33:32.519587 23309 net.cpp:148] Top shape: 10 192 28 28 (1505280)
2016-07-13 13:33:32.522 STDERR [INFO] I0713 13:33:32.519592 23309 net.cpp:156] Memory required for data: 204718080
2016-07-13 13:33:32.522 STDERR [INFO] I0713 13:33:32.519595 23309 layer_factory.hpp:77] Creating layer inception_3a/1x1
2016-07-13 13:33:32.522 STDERR [INFO] I0713 13:33:32.519608 23309 net.cpp:91] Creating Layer inception_3a/1x1
2016-07-13 13:33:32.523 STDERR [INFO] I0713 13:33:32.519613 23309 net.cpp:425] inception_3a/1x1 <- pool2/3x3_s2_pool2/3x3_s2_0_split_0
2016-07-13 13:33:32.523 STDERR [INFO] I0713 13:33:32.519636 23309 net.cpp:399] inception_3a/1x1 -> inception_3a/1x1
2016-07-13 13:33:32.523 STDERR [INFO] I0713 13:33:32.522923 23309 net.cpp:141] Setting up inception_3a/1x1
2016-07-13 13:33:32.523 STDERR [INFO] I0713 13:33:32.522938 23309 net.cpp:148] Top shape: 10 64 28 28 (501760)
2016-07-13 13:33:32.523 STDERR [INFO] I0713 13:33:32.522943 23309 net.cpp:156] Memory required for data: 206725120
2016-07-13 13:33:32.523 STDERR [INFO] I0713 13:33:32.522951 23309 layer_factory.hpp:77] Creating layer inception_3a/relu_1x1
2016-07-13 13:33:32.523 STDERR [INFO] I0713 13:33:32.522959 23309 net.cpp:91] Creating Layer inception_3a/relu_1x1
2016-07-13 13:33:32.523 STDERR [INFO] I0713 13:33:32.522964 23309 net.cpp:425] inception_3a/relu_1x1 <- inception_3a/1x1
2016-07-13 13:33:32.523 STDERR [INFO] I0713 13:33:32.522970 23309 net.cpp:386] inception_3a/relu_1x1 -> inception_3a/1x1 (in-place)
2016-07-13 13:33:32.523 STDERR [INFO] I0713 13:33:32.523192 23309 net.cpp:141] Setting up inception_3a/relu_1x1
2016-07-13 13:33:32.524 STDERR [INFO] I0713 13:33:32.523205 23309 net.cpp:148] Top shape: 10 64 28 28 (501760)
2016-07-13 13:33:32.524 STDERR [INFO] I0713 13:33:32.523210 23309 net.cpp:156] Memory required for data: 208732160
2016-07-13 13:33:32.524 STDERR [INFO] I0713 13:33:32.523214 23309 layer_factory.hpp:77] Creating layer inception_3a/3x3_reduce
2016-07-13 13:33:32.524 STDERR [INFO] I0713 13:33:32.523229 23309 net.cpp:91] Creating Layer inception_3a/3x3_reduce
2016-07-13 13:33:32.524 STDERR [INFO] I0713 13:33:32.523236 23309 net.cpp:425] inception_3a/3x3_reduce <- pool2/3x3_s2_pool2/3x3_s2_0_split_1
2016-07-13 13:33:32.524 STDERR [INFO] I0713 13:33:32.523243 23309 net.cpp:399] inception_3a/3x3_reduce -> inception_3a/3x3_reduce
2016-07-13 13:33:32.526 STDERR [INFO] I0713 13:33:32.526137 23309 net.cpp:141] Setting up inception_3a/3x3_reduce
2016-07-13 13:33:32.526 STDERR [INFO] I0713 13:33:32.526154 23309 net.cpp:148] Top shape: 10 96 28 28 (752640)
2016-07-13 13:33:32.526 STDERR [INFO] I0713 13:33:32.526161 23309 net.cpp:156] Memory required for data: 211742720
2016-07-13 13:33:32.526 STDERR [INFO] I0713 13:33:32.526173 23309 layer_factory.hpp:77] Creating layer inception_3a/relu_3x3_reduce
2016-07-13 13:33:32.526 STDERR [INFO] I0713 13:33:32.526182 23309 net.cpp:91] Creating Layer inception_3a/relu_3x3_reduce
2016-07-13 13:33:32.526 STDERR [INFO] I0713 13:33:32.526187 23309 net.cpp:425] inception_3a/relu_3x3_reduce <- inception_3a/3x3_reduce
2016-07-13 13:33:32.527 STDERR [INFO] I0713 13:33:32.526193 23309 net.cpp:386] inception_3a/relu_3x3_reduce -> inception_3a/3x3_reduce (in-place)
2016-07-13 13:33:32.527 STDERR [INFO] I0713 13:33:32.526401 23309 net.cpp:141] Setting up inception_3a/relu_3x3_reduce
2016-07-13 13:33:32.527 STDERR [INFO] I0713 13:33:32.526412 23309 net.cpp:148] Top shape: 10 96 28 28 (752640)
2016-07-13 13:33:32.527 STDERR [INFO] I0713 13:33:32.526415 23309 net.cpp:156] Memory required for data: 214753280
2016-07-13 13:33:32.527 STDERR [INFO] I0713 13:33:32.526420 23309 layer_factory.hpp:77] Creating layer inception_3a/3x3
2016-07-13 13:33:32.527 STDERR [INFO] I0713 13:33:32.526437 23309 net.cpp:91] Creating Layer inception_3a/3x3
2016-07-13 13:33:32.527 STDERR [INFO] I0713 13:33:32.526443 23309 net.cpp:425] inception_3a/3x3 <- inception_3a/3x3_reduce
2016-07-13 13:33:32.527 STDERR [INFO] I0713 13:33:32.526453 23309 net.cpp:399] inception_3a/3x3 -> inception_3a/3x3
2016-07-13 13:33:32.529 STDERR [INFO] I0713 13:33:32.529031 23309 net.cpp:141] Setting up inception_3a/3x3
2016-07-13 13:33:32.529 STDERR [INFO] I0713 13:33:32.529047 23309 net.cpp:148] Top shape: 10 128 28 28 (1003520)
2016-07-13 13:33:32.529 STDERR [INFO] I0713 13:33:32.529052 23309 net.cpp:156] Memory required for data: 218767360
2016-07-13 13:33:32.530 STDERR [INFO] I0713 13:33:32.529062 23309 layer_factory.hpp:77] Creating layer inception_3a/relu_3x3
2016-07-13 13:33:32.530 STDERR [INFO] I0713 13:33:32.529079 23309 net.cpp:91] Creating Layer inception_3a/relu_3x3
2016-07-13 13:33:32.530 STDERR [INFO] I0713 13:33:32.529084 23309 net.cpp:425] inception_3a/relu_3x3 <- inception_3a/3x3
2016-07-13 13:33:32.530 STDERR [INFO] I0713 13:33:32.529094 23309 net.cpp:386] inception_3a/relu_3x3 -> inception_3a/3x3 (in-place)
2016-07-13 13:33:32.530 STDERR [INFO] I0713 13:33:32.529744 23309 net.cpp:141] Setting up inception_3a/relu_3x3
2016-07-13 13:33:32.530 STDERR [INFO] I0713 13:33:32.529757 23309 net.cpp:148] Top shape: 10 128 28 28 (1003520)
2016-07-13 13:33:32.531 STDERR [INFO] I0713 13:33:32.529760 23309 net.cpp:156] Memory required for data: 222781440
2016-07-13 13:33:32.531 STDERR [INFO] I0713 13:33:32.529765 23309 layer_factory.hpp:77] Creating layer inception_3a/5x5_reduce
2016-07-13 13:33:32.531 STDERR [INFO] I0713 13:33:32.529781 23309 net.cpp:91] Creating Layer inception_3a/5x5_reduce
2016-07-13 13:33:32.531 STDERR [INFO] I0713 13:33:32.529786 23309 net.cpp:425] inception_3a/5x5_reduce <- pool2/3x3_s2_pool2/3x3_s2_0_split_2
2016-07-13 13:33:32.531 STDERR [INFO] I0713 13:33:32.529798 23309 net.cpp:399] inception_3a/5x5_reduce -> inception_3a/5x5_reduce
2016-07-13 13:33:32.531 STDERR [INFO] I0713 13:33:32.531787 23309 net.cpp:141] Setting up inception_3a/5x5_reduce
2016-07-13 13:33:32.532 STDERR [INFO] I0713 13:33:32.531805 23309 net.cpp:148] Top shape: 10 16 28 28 (125440)
2016-07-13 13:33:32.532 STDERR [INFO] I0713 13:33:32.531810 23309 net.cpp:156] Memory required for data: 223283200
2016-07-13 13:33:32.532 STDERR [INFO] I0713 13:33:32.531818 23309 layer_factory.hpp:77] Creating layer inception_3a/relu_5x5_reduce
2016-07-13 13:33:32.532 STDERR [INFO] I0713 13:33:32.531828 23309 net.cpp:91] Creating Layer inception_3a/relu_5x5_reduce
2016-07-13 13:33:32.532 STDERR [INFO] I0713 13:33:32.531833 23309 net.cpp:425] inception_3a/relu_5x5_reduce <- inception_3a/5x5_reduce
2016-07-13 13:33:32.532 STDERR [INFO] I0713 13:33:32.531842 23309 net.cpp:386] inception_3a/relu_5x5_reduce -> inception_3a/5x5_reduce (in-place)
2016-07-13 13:33:32.532 STDERR [INFO] I0713 13:33:32.532078 23309 net.cpp:141] Setting up inception_3a/relu_5x5_reduce
2016-07-13 13:33:32.532 STDERR [INFO] I0713 13:33:32.532089 23309 net.cpp:148] Top shape: 10 16 28 28 (125440)
2016-07-13 13:33:32.532 STDERR [INFO] I0713 13:33:32.532094 23309 net.cpp:156] Memory required for data: 223784960
2016-07-13 13:33:32.532 STDERR [INFO] I0713 13:33:32.532099 23309 layer_factory.hpp:77] Creating layer inception_3a/5x5
2016-07-13 13:33:32.533 STDERR [INFO] I0713 13:33:32.532119 23309 net.cpp:91] Creating Layer inception_3a/5x5
2016-07-13 13:33:32.533 STDERR [INFO] I0713 13:33:32.532124 23309 net.cpp:425] inception_3a/5x5 <- inception_3a/5x5_reduce
2016-07-13 13:33:32.533 STDERR [INFO] I0713 13:33:32.532132 23309 net.cpp:399] inception_3a/5x5 -> inception_3a/5x5
2016-07-13 13:33:32.535 STDERR [INFO] I0713 13:33:32.535236 23309 net.cpp:141] Setting up inception_3a/5x5
2016-07-13 13:33:32.535 STDERR [INFO] I0713 13:33:32.535254 23309 net.cpp:148] Top shape: 10 32 28 28 (250880)
2016-07-13 13:33:32.535 STDERR [INFO] I0713 13:33:32.535259 23309 net.cpp:156] Memory required for data: 224788480
2016-07-13 13:33:32.535 STDERR [INFO] I0713 13:33:32.535271 23309 layer_factory.hpp:77] Creating layer inception_3a/relu_5x5
2016-07-13 13:33:32.535 STDERR [INFO] I0713 13:33:32.535281 23309 net.cpp:91] Creating Layer inception_3a/relu_5x5
2016-07-13 13:33:32.536 STDERR [INFO] I0713 13:33:32.535286 23309 net.cpp:425] inception_3a/relu_5x5 <- inception_3a/5x5
2016-07-13 13:33:32.536 STDERR [INFO] I0713 13:33:32.535295 23309 net.cpp:386] inception_3a/relu_5x5 -> inception_3a/5x5 (in-place)
2016-07-13 13:33:32.536 STDERR [INFO] I0713 13:33:32.535521 23309 net.cpp:141] Setting up inception_3a/relu_5x5
2016-07-13 13:33:32.536 STDERR [INFO] I0713 13:33:32.535533 23309 net.cpp:148] Top shape: 10 32 28 28 (250880)
2016-07-13 13:33:32.536 STDERR [INFO] I0713 13:33:32.535537 23309 net.cpp:156] Memory required for data: 225792000
2016-07-13 13:33:32.536 STDERR [INFO] I0713 13:33:32.535542 23309 layer_factory.hpp:77] Creating layer inception_3a/pool
2016-07-13 13:33:32.536 STDERR [INFO] I0713 13:33:32.535554 23309 net.cpp:91] Creating Layer inception_3a/pool
2016-07-13 13:33:32.536 STDERR [INFO] I0713 13:33:32.535559 23309 net.cpp:425] inception_3a/pool <- pool2/3x3_s2_pool2/3x3_s2_0_split_3
2016-07-13 13:33:32.536 STDERR [INFO] I0713 13:33:32.535567 23309 net.cpp:399] inception_3a/pool -> inception_3a/pool
2016-07-13 13:33:32.536 STDERR [INFO] I0713 13:33:32.535624 23309 net.cpp:141] Setting up inception_3a/pool
2016-07-13 13:33:32.537 STDERR [INFO] I0713 13:33:32.535634 23309 net.cpp:148] Top shape: 10 192 28 28 (1505280)
2016-07-13 13:33:32.537 STDERR [INFO] I0713 13:33:32.535637 23309 net.cpp:156] Memory required for data: 231813120
2016-07-13 13:33:32.537 STDERR [INFO] I0713 13:33:32.535642 23309 layer_factory.hpp:77] Creating layer inception_3a/pool_proj
2016-07-13 13:33:32.537 STDERR [INFO] I0713 13:33:32.535657 23309 net.cpp:91] Creating Layer inception_3a/pool_proj
2016-07-13 13:33:32.537 STDERR [INFO] I0713 13:33:32.535662 23309 net.cpp:425] inception_3a/pool_proj <- inception_3a/pool
2016-07-13 13:33:32.537 STDERR [INFO] I0713 13:33:32.535670 23309 net.cpp:399] inception_3a/pool_proj -> inception_3a/pool_proj
2016-07-13 13:33:32.537 STDERR [INFO] I0713 13:33:32.537580 23309 net.cpp:141] Setting up inception_3a/pool_proj
2016-07-13 13:33:32.537 STDERR [INFO] I0713 13:33:32.537595 23309 net.cpp:148] Top shape: 10 32 28 28 (250880)
2016-07-13 13:33:32.537 STDERR [INFO] I0713 13:33:32.537598 23309 net.cpp:156] Memory required for data: 232816640
2016-07-13 13:33:32.538 STDERR [INFO] I0713 13:33:32.537612 23309 layer_factory.hpp:77] Creating layer inception_3a/relu_pool_proj
2016-07-13 13:33:32.538 STDERR [INFO] I0713 13:33:32.537621 23309 net.cpp:91] Creating Layer inception_3a/relu_pool_proj
2016-07-13 13:33:32.538 STDERR [INFO] I0713 13:33:32.537626 23309 net.cpp:425] inception_3a/relu_pool_proj <- inception_3a/pool_proj
2016-07-13 13:33:32.538 STDERR [INFO] I0713 13:33:32.537636 23309 net.cpp:386] inception_3a/relu_pool_proj -> inception_3a/pool_proj (in-place)
2016-07-13 13:33:32.538 STDERR [INFO] I0713 13:33:32.538283 23309 net.cpp:141] Setting up inception_3a/relu_pool_proj
2016-07-13 13:33:32.538 STDERR [INFO] I0713 13:33:32.538295 23309 net.cpp:148] Top shape: 10 32 28 28 (250880)
2016-07-13 13:33:32.538 STDERR [INFO] I0713 13:33:32.538300 23309 net.cpp:156] Memory required for data: 233820160
2016-07-13 13:33:32.539 STDERR [INFO] I0713 13:33:32.538305 23309 layer_factory.hpp:77] Creating layer inception_3a/output
2016-07-13 13:33:32.539 STDERR [INFO] I0713 13:33:32.538321 23309 net.cpp:91] Creating Layer inception_3a/output
2016-07-13 13:33:32.539 STDERR [INFO] I0713 13:33:32.538326 23309 net.cpp:425] inception_3a/output <- inception_3a/1x1
2016-07-13 13:33:32.539 STDERR [INFO] I0713 13:33:32.538332 23309 net.cpp:425] inception_3a/output <- inception_3a/3x3
2016-07-13 13:33:32.539 STDERR [INFO] I0713 13:33:32.538337 23309 net.cpp:425] inception_3a/output <- inception_3a/5x5
2016-07-13 13:33:32.539 STDERR [INFO] I0713 13:33:32.538343 23309 net.cpp:425] inception_3a/output <- inception_3a/pool_proj
2016-07-13 13:33:32.539 STDERR [INFO] I0713 13:33:32.538353 23309 net.cpp:399] inception_3a/output -> inception_3a/output
2016-07-13 13:33:32.539 STDERR [INFO] I0713 13:33:32.538396 23309 net.cpp:141] Setting up inception_3a/output
2016-07-13 13:33:32.539 STDERR [INFO] I0713 13:33:32.538408 23309 net.cpp:148] Top shape: 10 256 28 28 (2007040)
2016-07-13 13:33:32.539 STDERR [INFO] I0713 13:33:32.538411 23309 net.cpp:156] Memory required for data: 241848320
2016-07-13 13:33:32.539 STDERR [INFO] I0713 13:33:32.538415 23309 layer_factory.hpp:77] Creating layer inception_3a/output_inception_3a/output_0_split
2016-07-13 13:33:32.540 STDERR [INFO] I0713 13:33:32.538424 23309 net.cpp:91] Creating Layer inception_3a/output_inception_3a/output_0_split
…
2016-07-13 13:33:32.540 STDERR [INFO] I0713 13:33:32.538441 23309 net.cpp:399] inception_3a/output_inception_3a/output_0_split -> inception_3a/output_inception_3a/output_0_split_1
2016-07-13 13:33:32.540 STDERR [INFO] I0713 13:33:32.538450 23309 net.cpp:399] inception_3a/output_inception_3a/output_0_split -> inception_3a/output_inception_3a/output_0_split_2
2016-07-13 13:33:32.540 STDERR [INFO] I0713 13:33:32.538460 23309 net.cpp:399] inception_3a/output_inception_3a/output_0_split -> inception_3a/output_inception_3a/output_0_split_3
2016-07-13 13:33:32.540 STDERR [INFO] I0713 13:33:32.538534 23309 net.cpp:141] Setting up inception_3a/output_inception_3a/output_0_split
2016-07-13 13:33:32.540 STDERR [INFO] I0713 13:33:32.538542 23309 net.cpp:148] Top shape: 10 256 28 28 (2007040)
2016-07-13 13:33:32.540 STDERR [INFO] I0713 13:33:32.538547 23309 net.cpp:148] Top shape: 10 256 28 28 (2007040)
2016-07-13 13:33:32.540 STDERR [INFO] I0713 13:33:32.538552 23309 net.cpp:148] Top shape: 10 256 28 28 (2007040)
2016-07-13 13:33:32.540 STDERR [INFO] I0713 13:33:32.538558 23309 net.cpp:148] Top shape: 10 256 28 28 (2007040)
2016-07-13 13:33:32.541 STDERR [INFO] I0713 13:33:32.538561 23309 net.cpp:156] Memory required for data: 273960960
2016-07-13 13:33:32.541 STDERR [INFO] I0713 13:33:32.538565 23309 layer_factory.hpp:77] Creating layer inception_3b/1x1
2016-07-13 13:33:32.541 STDERR [INFO] I0713 13:33:32.538580 23309 net.cpp:91] Creating Layer inception_3b/1x1
2016-07-13 13:33:32.541 STDERR [INFO] I0713 13:33:32.538585 23309 net.cpp:425] inception_3b/1x1 <- inception_3a/output_inception_3a/output_0_split_0
2016-07-13 13:33:32.541 STDERR [INFO] I0713 13:33:32.538595 23309 net.cpp:399] inception_3b/1x1 -> inception_3b/1x1
2016-07-13 13:33:32.541 STDERR [INFO] I0713 13:33:32.540729 23309 net.cpp:141] Setting up inception_3b/1x1
2016-07-13 13:33:32.541 STDERR [INFO] I0713 13:33:32.540742 23309 net.cpp:148] Top shape: 10 128 28 28 (1003520)
2016-07-13 13:33:32.541 STDERR [INFO] I0713 13:33:32.540747 23309 net.cpp:156] Memory required for data: 277975040
2016-07-13 13:33:32.541 STDERR [INFO] I0713 13:33:32.540768 23309 layer_factory.hpp:77] Creating layer inception_3b/relu_1x1
2016-07-13 13:33:32.541 STDERR [INFO] I0713 13:33:32.540776 23309 net.cpp:91] Creating Layer inception_3b/relu_1x1
2016-07-13 13:33:32.542 STDERR [INFO] I0713 13:33:32.540781 23309 net.cpp:425] inception_3b/relu_1x1 <- inception_3b/1x1
2016-07-13 13:33:32.542 STDERR [INFO] I0713 13:33:32.540791 23309 net.cpp:386] inception_3b/relu_1x1 -> inception_3b/1x1 (in-place)
2016-07-13 13:33:32.542 STDERR [INFO] I0713 13:33:32.540997 23309 net.cpp:141] Setting up inception_3b/relu_1x1
2016-07-13 13:33:32.542 STDERR [INFO] I0713 13:33:32.541007 23309 net.cpp:148] Top shape: 10 128 28 28 (1003520)
2016-07-13 13:33:32.542 STDERR [INFO] I0713 13:33:32.541012 23309 net.cpp:156] Memory required for data: 281989120
2016-07-13 13:33:32.542 STDERR [INFO] I0713 13:33:32.541016 23309 layer_factory.hpp:77] Creating layer inception_3b/3x3_reduce
2016-07-13 13:33:32.542 STDERR [INFO] I0713 13:33:32.541034 23309 net.cpp:91] Creating Layer inception_3b/3x3_reduce
2016-07-13 13:33:32.542 STDERR [INFO] I0713 13:33:32.541039 23309 net.cpp:425] inception_3b/3x3_reduce <- inception_3a/output_inception_3a/output_0_split_1
2016-07-13 13:33:32.542 STDERR [INFO] I0713 13:33:32.541048 23309 net.cpp:399] inception_3b/3x3_reduce -> inception_3b/3x3_reduce
2016-07-13 13:33:32.543 STDERR [INFO] I0713 13:33:32.543164 23309 net.cpp:141] Setting up inception_3b/3x3_reduce
2016-07-13 13:33:32.543 STDERR [INFO] I0713 13:33:32.543181 23309 net.cpp:148] Top shape: 10 128 28 28 (1003520)
2016-07-13 13:33:32.543 STDERR [INFO] I0713 13:33:32.543200 23309 net.cpp:156] Memory required for data: 286003200
2016-07-13 13:33:32.543 STDERR [INFO] I0713 13:33:32.543208 23309 layer_factory.hpp:77] Creating layer inception_3b/relu_3x3_reduce
2016-07-13 13:33:32.543 STDERR [INFO] I0713 13:33:32.543220 23309 net.cpp:91] Creating Layer inception_3b/relu_3x3_reduce
2016-07-13 13:33:32.543 STDERR [INFO] I0713 13:33:32.543226 23309 net.cpp:425] inception_3b/relu_3x3_reduce <- inception_3b/3x3_reduce
2016-07-13 13:33:32.543 STDERR [INFO] I0713 13:33:32.543236 23309 net.cpp:386] inception_3b/relu_3x3_reduce -> inception_3b/3x3_reduce (in-place)
2016-07-13 13:33:32.544 STDERR [INFO] I0713 13:33:32.543473 23309 net.cpp:141] Setting up inception_3b/relu_3x3_reduce
2016-07-13 13:33:32.544 STDERR [INFO] I0713 13:33:32.543483 23309 net.cpp:148] Top shape: 10 128 28 28 (1003520)
2016-07-13 13:33:32.544 STDERR [INFO] I0713 13:33:32.543488 23309 net.cpp:156] Memory required for data: 290017280
2016-07-13 13:33:32.544 STDERR [INFO] I0713 13:33:32.543493 23309 layer_factory.hpp:77] Creating layer inception_3b/3x3
2016-07-13 13:33:32.544 STDERR [INFO] I0713 13:33:32.543510 23309 net.cpp:91] Creating Layer inception_3b/3x3
2016-07-13 13:33:32.544 STDERR [INFO] I0713 13:33:32.543515 23309 net.cpp:425] inception_3b/3x3 <- inception_3b/3x3_reduce
2016-07-13 13:33:32.544 STDERR [INFO] I0713 13:33:32.543526 23309 net.cpp:399] inception_3b/3x3 -> inception_3b/3x3
2016-07-13 13:33:32.548 STDERR [INFO] I0713 13:33:32.548091 23309 net.cpp:141] Setting up inception_3b/3x3
2016-07-13 13:33:32.548 STDERR [INFO] I0713 13:33:32.548110 23309 net.cpp:148] Top shape: 10 192 28 28 (1505280)
2016-07-13 13:33:32.548 STDERR [INFO] I0713 13:33:32.548115 23309 net.cpp:156] Memory required for data: 296038400
2016-07-13 13:33:32.548 STDERR [INFO] I0713 13:33:32.548136 23309 layer_factory.hpp:77] Creating layer inception_3b/relu_3x3
2016-07-13 13:33:32.548 STDERR [INFO] I0713 13:33:32.548149 23309 net.cpp:91] Creating Layer inception_3b/relu_3x3
2016-07-13 13:33:32.548 STDERR [INFO] I0713 13:33:32.548154 23309 net.cpp:425] inception_3b/relu_3x3 <- inception_3b/3x3
2016-07-13 13:33:32.548 STDERR [INFO] I0713 13:33:32.548166 23309 net.cpp:386] inception_3b/relu_3x3 -> inception_3b/3x3 (in-place)
2016-07-13 13:33:32.548 STDERR [INFO] I0713 13:33:32.548845 23309 net.cpp:141] Setting up inception_3b/relu_3x3
2016-07-13 13:33:32.548 STDERR [INFO] I0713 13:33:32.548859 23309 net.cpp:148] Top shape: 10 192 28 28 (1505280)
2016-07-13 13:33:32.549 STDERR [INFO] I0713 13:33:32.548864 23309 net.cpp:156] Memory required for data: 302059520
2016-07-13 13:33:32.549 STDERR [INFO] I0713 13:33:32.548869 23309 layer_factory.hpp:77] Creating layer inception_3b/5x5_reduce
2016-07-13 13:33:32.549 STDERR [INFO] I0713 13:33:32.548887 23309 net.cpp:91] Creating Layer inception_3b/5x5_reduce
2016-07-13 13:33:32.549 STDERR [INFO] I0713 13:33:32.548892 23309 net.cpp:425] inception_3b/5x5_reduce <- inception_3a/output_inception_3a/output_0_split_2
2016-07-13 13:33:32.549 STDERR [INFO] I0713 13:33:32.548902 23309 net.cpp:399] inception_3b/5x5_reduce -> inception_3b/5x5_reduce
2016-07-13 13:33:32.550 STDERR [INFO] I0713 13:33:32.550851 23309 net.cpp:141] Setting up inception_3b/5x5_reduce
2016-07-13 13:33:32.551 STDERR [INFO] I0713 13:33:32.550868 23309 net.cpp:148] Top shape: 10 32 28 28 (250880)
2016-07-13 13:33:32.551 STDERR [INFO] I0713 13:33:32.550884 23309 net.cpp:156] Memory required for data: 303063040
2016-07-13 13:33:32.551 STDERR [INFO] I0713 13:33:32.550894 23309 layer_factory.hpp:77] Creating layer inception_3b/relu_5x5_reduce
2016-07-13 13:33:32.551 STDERR [INFO] I0713 13:33:32.550902 23309 net.cpp:91] Creating Layer inception_3b/relu_5x5_reduce
2016-07-13 13:33:32.551 STDERR [INFO] I0713 13:33:32.550907 23309 net.cpp:425] inception_3b/relu_5x5_reduce <- inception_3b/5x5_reduce
2016-07-13 13:33:32.551 STDERR [INFO] I0713 13:33:32.550917 23309 net.cpp:386] inception_3b/relu_5x5_reduce -> inception_3b/5x5_reduce (in-place)
2016-07-13 13:33:32.551 STDERR [INFO] I0713 13:33:32.551157 23309 net.cpp:141] Setting up inception_3b/relu_5x5_reduce
2016-07-13 13:33:32.551 STDERR [INFO] I0713 13:33:32.551168 23309 net.cpp:148] Top shape: 10 32 28 28 (250880)
2016-07-13 13:33:32.551 STDERR [INFO] I0713 13:33:32.551172 23309 net.cpp:156] Memory required for data: 304066560
2016-07-13 13:33:32.551 STDERR [INFO] I0713 13:33:32.551178 23309 layer_factory.hpp:77] Creating layer inception_3b/5x5
2016-07-13 13:33:32.551 STDERR [INFO] I0713 13:33:32.551198 23309 net.cpp:91] Creating Layer inception_3b/5x5
2016-07-13 13:33:32.551 STDERR [INFO] I0713 13:33:32.551203 23309 net.cpp:425] inception_3b/5x5 <- inception_3b/5x5_reduce
2016-07-13 13:33:32.551 STDERR [INFO] I0713 13:33:32.551211 23309 net.cpp:399] inception_3b/5x5 -> inception_3b/5x5
2016-07-13 13:33:32.554 STDERR [INFO] I0713 13:33:32.554769 23309 net.cpp:141] Setting up inception_3b/5x5
2016-07-13 13:33:32.555 STDERR [INFO] I0713 13:33:32.554798 23309 net.cpp:148] Top shape: 10 96 28 28 (752640)
2016-07-13 13:33:32.555 STDERR [INFO] I0713 13:33:32.554805 23309 net.cpp:156] Memory required for data: 307077120
2016-07-13 13:33:32.555 STDERR [INFO] I0713 13:33:32.554813 23309 layer_factory.hpp:77] Creating layer inception_3b/relu_5x5
2016-07-13 13:33:32.555 STDERR [INFO] I0713 13:33:32.554824 23309 net.cpp:91] Creating Layer inception_3b/relu_5x5
2016-07-13 13:33:32.555 STDERR [INFO] I0713 13:33:32.554831 23309 net.cpp:425] inception_3b/relu_5x5 <- inception_3b/5x5
2016-07-13 13:33:32.555 STDERR [INFO] I0713 13:33:32.554841 23309 net.cpp:386] inception_3b/relu_5x5 -> inception_3b/5x5 (in-place)
2016-07-13 13:33:32.555 STDERR [INFO] I0713 13:33:32.555064 23309 net.cpp:141] Setting up inception_3b/relu_5x5
2016-07-13 13:33:32.555 STDERR [INFO] I0713 13:33:32.555078 23309 net.cpp:148] Top shape: 10 96 28 28 (752640)
2016-07-13 13:33:32.555 STDERR [INFO] I0713 13:33:32.555083 23309 net.cpp:156] Memory required for data: 310087680
2016-07-13 13:33:32.555 STDERR [INFO] I0713 13:33:32.555088 23309 layer_factory.hpp:77] Creating layer inception_3b/pool
2016-07-13 13:33:32.555 STDERR [INFO] I0713 13:33:32.555096 23309 net.cpp:91] Creating Layer inception_3b/pool
2016-07-13 13:33:32.555 STDERR [INFO] I0713 13:33:32.555102 23309 net.cpp:425] inception_3b/pool <- inception_3a/output_inception_3a/output_0_split_3
2016-07-13 13:33:32.555 STDERR [INFO] I0713 13:33:32.555109 23309 net.cpp:399] inception_3b/pool -> inception_3b/pool
2016-07-13 13:33:32.555 STDERR [INFO] I0713 13:33:32.555171 23309 net.cpp:141] Setting up inception_3b/pool
2016-07-13 13:33:32.555 STDERR [INFO] I0713 13:33:32.555179 23309 net.cpp:148] Top shape: 10 256 28 28 (2007040)
2016-07-13 13:33:32.555 STDERR [INFO] I0713 13:33:32.555184 23309 net.cpp:156] Memory required for data: 318115840
2016-07-13 13:33:32.555 STDERR [INFO] I0713 13:33:32.555189 23309 layer_factory.hpp:77] Creating layer inception_3b/pool_proj
2016-07-13 13:33:32.555 STDERR [INFO] I0713 13:33:32.555205 23309 net.cpp:91] Creating Layer inception_3b/pool_proj
2016-07-13 13:33:32.555 STDERR [INFO] I0713 13:33:32.555212 23309 net.cpp:425] inception_3b/pool_proj <- inception_3b/pool
2016-07-13 13:33:32.556 STDERR [INFO] I0713 13:33:32.555222 23309 net.cpp:399] inception_3b/pool_proj -> inception_3b/pool_proj
2016-07-13 13:33:32.557 STDERR [INFO] I0713 13:33:32.557346 23309 net.cpp:141] Setting up inception_3b/pool_proj
2016-07-13 13:33:32.557 STDERR [INFO] I0713 13:33:32.557363 23309 net.cpp:148] Top shape: 10 64 28 28 (501760)
2016-07-13 13:33:32.557 STDERR [INFO] I0713 13:33:32.557382 23309 net.cpp:156] Memory required for data: 320122880
2016-07-13 13:33:32.557 STDERR [INFO] I0713 13:33:32.557391 23309 layer_factory.hpp:77] Creating layer inception_3b/relu_pool_proj
2016-07-13 13:33:32.557 STDERR [INFO] I0713 13:33:32.557409 23309 net.cpp:91] Creating Layer inception_3b/relu_pool_proj
2016-07-13 13:33:32.557 STDERR [INFO] I0713 13:33:32.557413 23309 net.cpp:425] inception_3b/relu_pool_proj <- inception_3b/pool_proj
2016-07-13 13:33:32.557 STDERR [INFO] I0713 13:33:32.557421 23309 net.cpp:386] inception_3b/relu_pool_proj -> inception_3b/pool_proj (in-place)
2016-07-13 13:33:32.558 STDERR [INFO] I0713 13:33:32.558132 23309 net.cpp:141] Setting up inception_3b/relu_pool_proj
2016-07-13 13:33:32.558 STDERR [INFO] I0713 13:33:32.558148 23309 net.cpp:148] Top shape: 10 64 28 28 (501760)
2016-07-13 13:33:32.558 STDERR [INFO] I0713 13:33:32.558153 23309 net.cpp:156] Memory required for data: 322129920
2016-07-13 13:33:32.558 STDERR [INFO] I0713 13:33:32.558158 23309 layer_factory.hpp:77] Creating layer inception_3b/output
2016-07-13 13:33:32.558 STDERR [INFO] I0713 13:33:32.558171 23309 net.cpp:91] Creating Layer inception_3b/output
2016-07-13 13:33:32.558 STDERR [INFO] I0713 13:33:32.558177 23309 net.cpp:425] inception_3b/output <- inception_3b/1x1
2016-07-13 13:33:32.558 STDERR [INFO] I0713 13:33:32.558183 23309 net.cpp:425] inception_3b/output <- inception_3b/3x3
2016-07-13 13:33:32.558 STDERR [INFO] I0713 13:33:32.558188 23309 net.cpp:425] inception_3b/output <- inception_3b/5x5
2016-07-13 13:33:32.558 STDERR [INFO] I0713 13:33:32.558193 23309 net.cpp:425] inception_3b/output <- inception_3b/pool_proj
2016-07-13 13:33:32.558 STDERR [INFO] I0713 13:33:32.558200 23309 net.cpp:399] inception_3b/output -> inception_3b/output
2016-07-13 13:33:32.558 STDERR [INFO] I0713 13:33:32.558243 23309 net.cpp:141] Setting up inception_3b/output
2016-07-13 13:33:32.558 STDERR [INFO] I0713 13:33:32.558251 23309 net.cpp:148] Top shape: 10 480 28 28 (3763200)
2016-07-13 13:33:32.558 STDERR [INFO] I0713 13:33:32.558255 23309 net.cpp:156] Memory required for data: 337182720
2016-07-13 13:33:32.558 STDERR [INFO] I0713 13:33:32.558259 23309 layer_factory.hpp:77] Creating layer pool3/3x3_s2
2016-07-13 13:33:32.559 STDERR [INFO] I0713 13:33:32.558267 23309 net.cpp:91] Creating Layer pool3/3x3_s2
2016-07-13 13:33:32.559 STDERR [INFO] I0713 13:33:32.558272 23309 net.cpp:425] pool3/3x3_s2 <- inception_3b/output
2016-07-13 13:33:32.559 STDERR [INFO] I0713 13:33:32.558282 23309 net.cpp:399] pool3/3x3_s2 -> pool3/3x3_s2
2016-07-13 13:33:32.559 STDERR [INFO] I0713 13:33:32.558341 23309 net.cpp:141] Setting up pool3/3x3_s2
2016-07-13 13:33:32.559 STDERR [INFO] I0713 13:33:32.558351 23309 net.cpp:148] Top shape: 10 480 14 14 (940800)
2016-07-13 13:33:32.559 STDERR [INFO] I0713 13:33:32.558354 23309 net.cpp:156] Memory required for data: 340945920
2016-07-13 13:33:32.559 STDERR [INFO] I0713 13:33:32.558359 23309 layer_factory.hpp:77] Creating layer pool3/3x3_s2_pool3/3x3_s2_0_split
2016-07-13 13:33:32.559 STDERR [INFO] I0713 13:33:32.558370 23309 net.cpp:91] Creating Layer pool3/3x3_s2_pool3/3x3_s2_0_split
2016-07-13 13:33:32.559 STDERR [INFO] I0713 13:33:32.558374 23309 net.cpp:425] pool3/3x3_s2_pool3/3x3_s2_0_split <- pool3/3x3_s2
2016-07-13 13:33:32.559 STDERR [INFO] I0713 13:33:32.558382 23309 net.cpp:399] pool3/3x3_s2_pool3/3x3_s2_0_split -> pool3/3x3_s2_pool3/3x3_s2_0_split_0
2016-07-13 13:33:32.559 STDERR [INFO] I0713 13:33:32.558388 23309 net.cpp:399] pool3/3x3_s2_pool3/3x3_s2_0_split -> pool3/3x3_s2_pool3/3x3_s2_0_split_1
2016-07-13 13:33:32.559 STDERR [INFO] I0713 13:33:32.558396 23309 net.cpp:399] pool3/3x3_s2_pool3/3x3_s2_0_split -> pool3/3x3_s2_pool3/3x3_s2_0_split_2
2016-07-13 13:33:32.559 STDERR [INFO] I0713 13:33:32.558403 23309 net.cpp:399] pool3/3x3_s2_pool3/3x3_s2_0_split -> pool3/3x3_s2_pool3/3x3_s2_0_split_3
2016-07-13 13:33:32.559 STDERR [INFO] I0713 13:33:32.558483 23309 net.cpp:141] Setting up pool3/3x3_s2_pool3/3x3_s2_0_split
2016-07-13 13:33:32.559 STDERR [INFO] I0713 13:33:32.558492 23309 net.cpp:148] Top shape: 10 480 14 14 (940800)
2016-07-13 13:33:32.559 STDERR [INFO] I0713 13:33:32.558498 23309 net.cpp:148] Top shape: 10 480 14 14 (940800)
2016-07-13 13:33:32.559 STDERR [INFO] I0713 13:33:32.558503 23309 net.cpp:148] Top shape: 10 480 14 14 (940800)
2016-07-13 13:33:32.559 STDERR [INFO] I0713 13:33:32.558509 23309 net.cpp:148] Top shape: 10 480 14 14 (940800)
2016-07-13 13:33:32.559 STDERR [INFO] I0713 13:33:32.558513 23309 net.cpp:156] Memory required for data: 355998720
2016-07-13 13:33:32.559 STDERR [INFO] I0713 13:33:32.558517 23309 layer_factory.hpp:77] Creating layer inception_4a/1x1
2016-07-13 13:33:32.559 STDERR [INFO] I0713 13:33:32.558533 23309 net.cpp:91] Creating Layer inception_4a/1x1
2016-07-13 13:33:32.559 STDERR [INFO] I0713 13:33:32.558539 23309 net.cpp:425] inception_4a/1x1 <- pool3/3x3_s2_pool3/3x3_s2_0_split_0
2016-07-13 13:33:32.560 STDERR [INFO] I0713 13:33:32.558549 23309 net.cpp:399] inception_4a/1x1 -> inception_4a/1x1
2016-07-13 13:33:32.561 STDERR [INFO] I0713 13:33:32.561795 23309 net.cpp:141] Setting up inception_4a/1x1
2016-07-13 13:33:32.562 STDERR [INFO] I0713 13:33:32.561831 23309 net.cpp:148] Top shape: 10 192 14 14 (376320)
2016-07-13 13:33:32.562 STDERR [INFO] I0713 13:33:32.561837 23309 net.cpp:156] Memory required for data: 357504000
2016-07-13 13:33:32.562 STDERR [INFO] I0713 13:33:32.561846 23309 layer_factory.hpp:77] Creating layer inception_4a/relu_1x1
2016-07-13 13:33:32.562 STDERR [INFO] I0713 13:33:32.561856 23309 net.cpp:91] Creating Layer inception_4a/relu_1x1
2016-07-13 13:33:32.562 STDERR [INFO] I0713 13:33:32.561861 23309 net.cpp:425] inception_4a/relu_1x1 <- inception_4a/1x1
2016-07-13 13:33:32.563 STDERR [INFO] I0713 13:33:32.561869 23309 net.cpp:386] inception_4a/relu_1x1 -> inception_4a/1x1 (in-place)
2016-07-13 13:33:32.563 STDERR [INFO] I0713 13:33:32.562104 23309 net.cpp:141] Setting up inception_4a/relu_1x1
2016-07-13 13:33:32.563 STDERR [INFO] I0713 13:33:32.562115 23309 net.cpp:148] Top shape: 10 192 14 14 (376320)
2016-07-13 13:33:32.563 STDERR [INFO] I0713 13:33:32.562120 23309 net.cpp:156] Memory required for data: 359009280
2016-07-13 13:33:32.563 STDERR [INFO] I0713 13:33:32.562124 23309 layer_factory.hpp:77] Creating layer inception_4a/3x3_reduce
2016-07-13 13:33:32.563 STDERR [INFO] I0713 13:33:32.562140 23309 net.cpp:91] Creating Layer inception_4a/3x3_reduce
2016-07-13 13:33:32.563 STDERR [INFO] I0713 13:33:32.562146 23309 net.cpp:425] inception_4a/3x3_reduce <- pool3/3x3_s2_pool3/3x3_s2_0_split_1
2016-07-13 13:33:32.563 STDERR [INFO] I0713 13:33:32.562161 23309 net.cpp:399] inception_4a/3x3_reduce -> inception_4a/3x3_reduce
2016-07-13 13:33:32.564 STDERR [INFO] I0713 13:33:32.564888 23309 net.cpp:141] Setting up inception_4a/3x3_reduce
2016-07-13 13:33:32.565 STDERR [INFO] I0713 13:33:32.564908 23309 net.cpp:148] Top shape: 10 96 14 14 (188160)
2016-07-13 13:33:32.565 STDERR [INFO] I0713 13:33:32.564915 23309 net.cpp:156] Memory required for data: 359761920
2016-07-13 13:33:32.565 STDERR [INFO] I0713 13:33:32.564932 23309 layer_factory.hpp:77] Creating layer inception_4a/relu_3x3_reduce
2016-07-13 13:33:32.565 STDERR [INFO] I0713 13:33:32.564946 23309 net.cpp:91] Creating Layer inception_4a/relu_3x3_reduce
2016-07-13 13:33:32.565 STDERR [INFO] I0713 13:33:32.564951 23309 net.cpp:425] inception_4a/relu_3x3_reduce <- inception_4a/3x3_reduce
2016-07-13 13:33:32.565 STDERR [INFO] I0713 13:33:32.564960 23309 net.cpp:386] inception_4a/relu_3x3_reduce -> inception_4a/3x3_reduce (in-place)
2016-07-13 13:33:32.565 STDERR [INFO] I0713 13:33:32.565186 23309 net.cpp:141] Setting up inception_4a/relu_3x3_reduce
2016-07-13 13:33:32.565 STDERR [INFO] I0713 13:33:32.565197 23309 net.cpp:148] Top shape: 10 96 14 14 (188160)
2016-07-13 13:33:32.565 STDERR [INFO] I0713 13:33:32.565201 23309 net.cpp:156] Memory required for data: 360514560
2016-07-13 13:33:32.565 STDERR [INFO] I0713 13:33:32.565207 23309 layer_factory.hpp:77] Creating layer inception_4a/3x3
2016-07-13 13:33:32.565 STDERR [INFO] I0713 13:33:32.565223 23309 net.cpp:91] Creating Layer inception_4a/3x3
2016-07-13 13:33:32.565 STDERR [INFO] I0713 13:33:32.565229 23309 net.cpp:425] inception_4a/3x3 <- inception_4a/3x3_reduce
2016-07-13 13:33:32.565 STDERR [INFO] I0713 13:33:32.565239 23309 net.cpp:399] inception_4a/3x3 -> inception_4a/3x3
2016-07-13 13:33:32.569 STDERR [INFO] I0713 13:33:32.569577 23309 net.cpp:141] Setting up inception_4a/3x3
2016-07-13 13:33:32.569 STDERR [INFO] I0713 13:33:32.569597 23309 net.cpp:148] Top shape: 10 208 14 14 (407680)
2016-07-13 13:33:32.569 STDERR [INFO] I0713 13:33:32.569602 23309 net.cpp:156] Memory required for data: 362145280
2016-07-13 13:33:32.569 STDERR [INFO] I0713 13:33:32.569612 23309 layer_factory.hpp:77] Creating layer inception_4a/relu_3x3
2016-07-13 13:33:32.569 STDERR [INFO] I0713 13:33:32.569622 23309 net.cpp:91] Creating Layer inception_4a/relu_3x3
2016-07-13 13:33:32.569 STDERR [INFO] I0713 13:33:32.569628 23309 net.cpp:425] inception_4a/relu_3x3 <- inception_4a/3x3
2016-07-13 13:33:32.570 STDERR [INFO] I0713 13:33:32.569634 23309 net.cpp:386] inception_4a/relu_3x3 -> inception_4a/3x3 (in-place)
2016-07-13 13:33:32.570 STDERR [INFO] I0713 13:33:32.570350 23309 net.cpp:141] Setting up inception_4a/relu_3x3
2016-07-13 13:33:32.570 STDERR [INFO] I0713 13:33:32.570366 23309 net.cpp:148] Top shape: 10 208 14 14 (407680)
2016-07-13 13:33:32.570 STDERR [INFO] I0713 13:33:32.570371 23309 net.cpp:156] Memory required for data: 363776000
2016-07-13 13:33:32.570 STDERR [INFO] I0713 13:33:32.570376 23309 layer_factory.hpp:77] Creating layer inception_4a/5x5_reduce
2016-07-13 13:33:32.570 STDERR [INFO] I0713 13:33:32.570394 23309 net.cpp:91] Creating Layer inception_4a/5x5_reduce
2016-07-13 13:33:32.570 STDERR [INFO] I0713 13:33:32.570400 23309 net.cpp:425] inception_4a/5x5_reduce <- pool3/3x3_s2_pool3/3x3_s2_0_split_2
2016-07-13 13:33:32.570 STDERR [INFO] I0713 13:33:32.570411 23309 net.cpp:399] inception_4a/5x5_reduce -> inception_4a/5x5_reduce
2016-07-13 13:33:32.572 STDERR [INFO] I0713 13:33:32.572473 23309 net.cpp:141] Setting up inception_4a/5x5_reduce
2016-07-13 13:33:32.572 STDERR [INFO] I0713 13:33:32.572501 23309 net.cpp:148] Top shape: 10 16 14 14 (31360)
2016-07-13 13:33:32.572 STDERR [INFO] I0713 13:33:32.572507 23309 net.cpp:156] Memory required for data: 363901440
2016-07-13 13:33:32.572 STDERR [INFO] I0713 13:33:32.572517 23309 layer_factory.hpp:77] Creating layer inception_4a/relu_5x5_reduce
2016-07-13 13:33:32.572 STDERR [INFO] I0713 13:33:32.572530 23309 net.cpp:91] Creating Layer inception_4a/relu_5x5_reduce
2016-07-13 13:33:32.572 STDERR [INFO] I0713 13:33:32.572536 23309 net.cpp:425] inception_4a/relu_5x5_reduce <- inception_4a/5x5_reduce
2016-07-13 13:33:32.572 STDERR [INFO] I0713 13:33:32.572546 23309 net.cpp:386] inception_4a/relu_5x5_reduce -> inception_4a/5x5_reduce (in-place)
2016-07-13 13:33:32.573 STDERR [INFO] I0713 13:33:32.572774 23309 net.cpp:141] Setting up inception_4a/relu_5x5_reduce
2016-07-13 13:33:32.573 STDERR [INFO] I0713 13:33:32.572787 23309 net.cpp:148] Top shape: 10 16 14 14 (31360)
2016-07-13 13:33:32.573 STDERR [INFO] I0713 13:33:32.572791 23309 net.cpp:156] Memory required for data: 364026880
2016-07-13 13:33:32.573 STDERR [INFO] I0713 13:33:32.572795 23309 layer_factory.hpp:77] Creating layer inception_4a/5x5
2016-07-13 13:33:32.573 STDERR [INFO] I0713 13:33:32.572813 23309 net.cpp:91] Creating Layer inception_4a/5x5
2016-07-13 13:33:32.573 STDERR [INFO] I0713 13:33:32.572818 23309 net.cpp:425] inception_4a/5x5 <- inception_4a/5x5_reduce
2016-07-13 13:33:32.573 STDERR [INFO] I0713 13:33:32.572829 23309 net.cpp:399] inception_4a/5x5 -> inception_4a/5x5
2016-07-13 13:33:32.575 STDERR [INFO] I0713 13:33:32.575016 23309 net.cpp:141] Setting up inception_4a/5x5
2016-07-13 13:33:32.575 STDERR [INFO] I0713 13:33:32.575033 23309 net.cpp:148] Top shape: 10 48 14 14 (94080)
2016-07-13 13:33:32.575 STDERR [INFO] I0713 13:33:32.575038 23309 net.cpp:156] Memory required for data: 364403200
2016-07-13 13:33:32.575 STDERR [INFO] I0713 13:33:32.575047 23309 layer_factory.hpp:77] Creating layer inception_4a/relu_5x5
2016-07-13 13:33:32.575 STDERR [INFO] I0713 13:33:32.575057 23309 net.cpp:91] Creating Layer inception_4a/relu_5x5
2016-07-13 13:33:32.575 STDERR [INFO] I0713 13:33:32.575062 23309 net.cpp:425] inception_4a/relu_5x5 <- inception_4a/5x5
2016-07-13 13:33:32.575 STDERR [INFO] I0713 13:33:32.575073 23309 net.cpp:386] inception_4a/relu_5x5 -> inception_4a/5x5 (in-place)
2016-07-13 13:33:32.575 STDERR [INFO] I0713 13:33:32.575316 23309 net.cpp:141] Setting up inception_4a/relu_5x5
2016-07-13 13:33:32.575 STDERR [INFO] I0713 13:33:32.575330 23309 net.cpp:148] Top shape: 10 48 14 14 (94080)
2016-07-13 13:33:32.575 STDERR [INFO] I0713 13:33:32.575335 23309 net.cpp:156] Memory required for data: 364779520
2016-07-13 13:33:32.575 STDERR [INFO] I0713 13:33:32.575340 23309 layer_factory.hpp:77] Creating layer inception_4a/pool
2016-07-13 13:33:32.575 STDERR [INFO] I0713 13:33:32.575350 23309 net.cpp:91] Creating Layer inception_4a/pool
2016-07-13 13:33:32.575 STDERR [INFO] I0713 13:33:32.575356 23309 net.cpp:425] inception_4a/pool <- pool3/3x3_s2_pool3/3x3_s2_0_split_3
2016-07-13 13:33:32.575 STDERR [INFO] I0713 13:33:32.575362 23309 net.cpp:399] inception_4a/pool -> inception_4a/pool
2016-07-13 13:33:32.575 STDERR [INFO] I0713 13:33:32.575426 23309 net.cpp:141] Setting up inception_4a/pool
2016-07-13 13:33:32.575 STDERR [INFO] I0713 13:33:32.575435 23309 net.cpp:148] Top shape: 10 480 14 14 (940800)
2016-07-13 13:33:32.575 STDERR [INFO] I0713 13:33:32.575439 23309 net.cpp:156] Memory required for data: 368542720
2016-07-13 13:33:32.575 STDERR [INFO] I0713 13:33:32.575444 23309 layer_factory.hpp:77] Creating layer inception_4a/pool_proj
2016-07-13 13:33:32.576 STDERR [INFO] I0713 13:33:32.575460 23309 net.cpp:91] Creating Layer inception_4a/pool_proj
2016-07-13 13:33:32.576 STDERR [INFO] I0713 13:33:32.575465 23309 net.cpp:425] inception_4a/pool_proj <- inception_4a/pool
2016-07-13 13:33:32.576 STDERR [INFO] I0713 13:33:32.575475 23309 net.cpp:399] inception_4a/pool_proj -> inception_4a/pool_proj
2016-07-13 13:33:32.577 STDERR [INFO] I0713 13:33:32.577685 23309 net.cpp:141] Setting up inception_4a/pool_proj
2016-07-13 13:33:32.577 STDERR [INFO] I0713 13:33:32.577702 23309 net.cpp:148] Top shape: 10 64 14 14 (125440)
2016-07-13 13:33:32.577 STDERR [INFO] I0713 13:33:32.577707 23309 net.cpp:156] Memory required for data: 369044480
2016-07-13 13:33:32.577 STDERR [INFO] I0713 13:33:32.577714 23309 layer_factory.hpp:77] Creating layer inception_4a/relu_pool_proj
2016-07-13 13:33:32.578 STDERR [INFO] I0713 13:33:32.577726 23309 net.cpp:91] Creating Layer inception_4a/relu_pool_proj
2016-07-13 13:33:32.578 STDERR [INFO] I0713 13:33:32.577731 23309 net.cpp:425] inception_4a/relu_pool_proj <- inception_4a/pool_proj
2016-07-13 13:33:32.578 STDERR [INFO] I0713 13:33:32.577739 23309 net.cpp:386] inception_4a/relu_pool_proj -> inception_4a/pool_proj (in-place)
2016-07-13 13:33:32.578 STDERR [INFO] I0713 13:33:32.578425 23309 net.cpp:141] Setting up inception_4a/relu_pool_proj
2016-07-13 13:33:32.578 STDERR [INFO] I0713 13:33:32.578440 23309 net.cpp:148] Top shape: 10 64 14 14 (125440)
2016-07-13 13:33:32.578 STDERR [INFO] I0713 13:33:32.578444 23309 net.cpp:156] Memory required for data: 369546240
2016-07-13 13:33:32.578 STDERR [INFO] I0713 13:33:32.578449 23309 layer_factory.hpp:77] Creating layer inception_4a/output
2016-07-13 13:33:32.578 STDERR [INFO] I0713 13:33:32.578464 23309 net.cpp:91] Creating Layer inception_4a/output
2016-07-13 13:33:32.578 STDERR [INFO] I0713 13:33:32.578469 23309 net.cpp:425] inception_4a/output <- inception_4a/1x1
2016-07-13 13:33:32.578 STDERR [INFO] I0713 13:33:32.578474 23309 net.cpp:425] inception_4a/output <- inception_4a/3x3
2016-07-13 13:33:32.578 STDERR [INFO] I0713 13:33:32.578480 23309 net.cpp:425] inception_4a/output <- inception_4a/5x5
2016-07-13 13:33:32.578 STDERR [INFO] I0713 13:33:32.578485 23309 net.cpp:425] inception_4a/output <- inception_4a/pool_proj
2016-07-13 13:33:32.578 STDERR [INFO] I0713 13:33:32.578490 23309 net.cpp:399] inception_4a/output -> inception_4a/output
2016-07-13 13:33:32.578 STDERR [INFO] I0713 13:33:32.578534 23309 net.cpp:141] Setting up inception_4a/output
2016-07-13 13:33:32.578 STDERR [INFO] I0713 13:33:32.578544 23309 net.cpp:148] Top shape: 10 512 14 14 (1003520)
2016-07-13 13:33:32.579 STDERR [INFO] I0713 13:33:32.578548 23309 net.cpp:156] Memory required for data: 373560320
2016-07-13 13:33:32.579 STDERR [INFO] I0713 13:33:32.578552 23309 layer_factory.hpp:77] Creating layer inception_4a/output_inception_4a/output_0_split
2016-07-13 13:33:32.579 STDERR [INFO] I0713 13:33:32.578562 23309 net.cpp:91] Creating Layer inception_4a/output_inception_4a/output_0_split
…
2016-07-13 13:33:32.579 STDERR [INFO] I0713 13:33:32.578583 23309 net.cpp:399] inception_4a/output_inception_4a/output_0_split -> inception_4a/output_inception_4a/output_0_split_1
2016-07-13 13:33:32.579 STDERR [INFO] I0713 13:33:32.578590 23309 net.cpp:399] inception_4a/output_inception_4a/output_0_split -> inception_4a/output_inception_4a/output_0_split_2
2016-07-13 13:33:32.579 STDERR [INFO] I0713 13:33:32.578598 23309 net.cpp:399] inception_4a/output_inception_4a/output_0_split -> inception_4a/output_inception_4a/output_0_split_3
2016-07-13 13:33:32.579 STDERR [INFO] I0713 13:33:32.578676 23309 net.cpp:141] Setting up inception_4a/output_inception_4a/output_0_split
2016-07-13 13:33:32.579 STDERR [INFO] I0713 13:33:32.578694 23309 net.cpp:148] Top shape: 10 512 14 14 (1003520)
2016-07-13 13:33:32.579 STDERR [INFO] I0713 13:33:32.578701 23309 net.cpp:148] Top shape: 10 512 14 14 (1003520)
2016-07-13 13:33:32.579 STDERR [INFO] I0713 13:33:32.578706 23309 net.cpp:148] Top shape: 10 512 14 14 (1003520)
2016-07-13 13:33:32.579 STDERR [INFO] I0713 13:33:32.578711 23309 net.cpp:148] Top shape: 10 512 14 14 (1003520)
2016-07-13 13:33:32.579 STDERR [INFO] I0713 13:33:32.578716 23309 net.cpp:156] Memory required for data: 389616640
2016-07-13 13:33:32.579 STDERR [INFO] I0713 13:33:32.578719 23309 layer_factory.hpp:77] Creating layer inception_4b/1x1
2016-07-13 13:33:32.579 STDERR [INFO] I0713 13:33:32.578735 23309 net.cpp:91] Creating Layer inception_4b/1x1
2016-07-13 13:33:32.579 STDERR [INFO] I0713 13:33:32.578740 23309 net.cpp:425] inception_4b/1x1 <- inception_4a/output_inception_4a/output_0_split_0
2016-07-13 13:33:32.579 STDERR [INFO] I0713 13:33:32.578747 23309 net.cpp:399] inception_4b/1x1 -> inception_4b/1x1
2016-07-13 13:33:32.581 STDERR [INFO] I0713 13:33:32.581297 23309 net.cpp:141] Setting up inception_4b/1x1
2016-07-13 13:33:32.581 STDERR [INFO] I0713 13:33:32.581315 23309 net.cpp:148] Top shape: 10 160 14 14 (313600)
2016-07-13 13:33:32.581 STDERR [INFO] I0713 13:33:32.581318 23309 net.cpp:156] Memory required for data: 390871040
2016-07-13 13:33:32.581 STDERR [INFO] I0713 13:33:32.581327 23309 layer_factory.hpp:77] Creating layer inception_4b/relu_1x1
2016-07-13 13:33:32.581 STDERR [INFO] I0713 13:33:32.581339 23309 net.cpp:91] Creating Layer inception_4b/relu_1x1
2016-07-13 13:33:32.581 STDERR [INFO] I0713 13:33:32.581346 23309 net.cpp:425] inception_4b/relu_1x1 <- inception_4b/1x1
2016-07-13 13:33:32.581 STDERR [INFO] I0713 13:33:32.581351 23309 net.cpp:386] inception_4b/relu_1x1 -> inception_4b/1x1 (in-place)
2016-07-13 13:33:32.581 STDERR [INFO] I0713 13:33:32.581576 23309 net.cpp:141] Setting up inception_4b/relu_1x1
2016-07-13 13:33:32.581 STDERR [INFO] I0713 13:33:32.581586 23309 net.cpp:148] Top shape: 10 160 14 14 (313600)
2016-07-13 13:33:32.581 STDERR [INFO] I0713 13:33:32.581590 23309 net.cpp:156] Memory required for data: 392125440
2016-07-13 13:33:32.581 STDERR [INFO] I0713 13:33:32.581595 23309 layer_factory.hpp:77] Creating layer inception_4b/3x3_reduce
2016-07-13 13:33:32.581 STDERR [INFO] I0713 13:33:32.581611 23309 net.cpp:91] Creating Layer inception_4b/3x3_reduce
2016-07-13 13:33:32.581 STDERR [INFO] I0713 13:33:32.581617 23309 net.cpp:425] inception_4b/3x3_reduce <- inception_4a/output_inception_4a/output_0_split_1
2016-07-13 13:33:32.582 STDERR [INFO] I0713 13:33:32.581627 23309 net.cpp:399] inception_4b/3x3_reduce -> inception_4b/3x3_reduce
2016-07-13 13:33:32.584 STDERR [INFO] I0713 13:33:32.584045 23309 net.cpp:141] Setting up inception_4b/3x3_reduce
2016-07-13 13:33:32.584 STDERR [INFO] I0713 13:33:32.584062 23309 net.cpp:148] Top shape: 10 112 14 14 (219520)
2016-07-13 13:33:32.584 STDERR [INFO] I0713 13:33:32.584067 23309 net.cpp:156] Memory required for data: 393003520
2016-07-13 13:33:32.584 STDERR [INFO] I0713 13:33:32.584076 23309 layer_factory.hpp:77] Creating layer inception_4b/relu_3x3_reduce
2016-07-13 13:33:32.584 STDERR [INFO] I0713 13:33:32.584089 23309 net.cpp:91] Creating Layer inception_4b/relu_3x3_reduce
2016-07-13 13:33:32.584 STDERR [INFO] I0713 13:33:32.584095 23309 net.cpp:425] inception_4b/relu_3x3_reduce <- inception_4b/3x3_reduce
2016-07-13 13:33:32.584 STDERR [INFO] I0713 13:33:32.584100 23309 net.cpp:386] inception_4b/relu_3x3_reduce -> inception_4b/3x3_reduce (in-place)
2016-07-13 13:33:32.584 STDERR [INFO] I0713 13:33:32.584322 23309 net.cpp:141] Setting up inception_4b/relu_3x3_reduce
2016-07-13 13:33:32.584 STDERR [INFO] I0713 13:33:32.584333 23309 net.cpp:148] Top shape: 10 112 14 14 (219520)
2016-07-13 13:33:32.584 STDERR [INFO] I0713 13:33:32.584337 23309 net.cpp:156] Memory required for data: 393881600
2016-07-13 13:33:32.584 STDERR [INFO] I0713 13:33:32.584342 23309 layer_factory.hpp:77] Creating layer inception_4b/3x3
2016-07-13 13:33:32.584 STDERR [INFO] I0713 13:33:32.584359 23309 net.cpp:91] Creating Layer inception_4b/3x3
2016-07-13 13:33:32.584 STDERR [INFO] I0713 13:33:32.584364 23309 net.cpp:425] inception_4b/3x3 <- inception_4b/3x3_reduce
2016-07-13 13:33:32.584 STDERR [INFO] I0713 13:33:32.584374 23309 net.cpp:399] inception_4b/3x3 -> inception_4b/3x3
2016-07-13 13:33:32.589 STDERR [INFO] I0713 13:33:32.589428 23309 net.cpp:141] Setting up inception_4b/3x3
2016-07-13 13:33:32.589 STDERR [INFO] I0713 13:33:32.589447 23309 net.cpp:148] Top shape: 10 224 14 14 (439040)
2016-07-13 13:33:32.589 STDERR [INFO] I0713 13:33:32.589464 23309 net.cpp:156] Memory required for data: 395637760
2016-07-13 13:33:32.589 STDERR [INFO] I0713 13:33:32.589475 23309 layer_factory.hpp:77] Creating layer inception_4b/relu_3x3
2016-07-13 13:33:32.589 STDERR [INFO] I0713 13:33:32.589484 23309 net.cpp:91] Creating Layer inception_4b/relu_3x3
2016-07-13 13:33:32.589 STDERR [INFO] I0713 13:33:32.589489 23309 net.cpp:425] inception_4b/relu_3x3 <- inception_4b/3x3
2016-07-13 13:33:32.589 STDERR [INFO] I0713 13:33:32.589499 23309 net.cpp:386] inception_4b/relu_3x3 -> inception_4b/3x3 (in-place)
2016-07-13 13:33:32.590 STDERR [INFO] I0713 13:33:32.590217 23309 net.cpp:141] Setting up inception_4b/relu_3x3
2016-07-13 13:33:32.590 STDERR [INFO] I0713 13:33:32.590232 23309 net.cpp:148] Top shape: 10 224 14 14 (439040)
2016-07-13 13:33:32.590 STDERR [INFO] I0713 13:33:32.590236 23309 net.cpp:156] Memory required for data: 397393920
2016-07-13 13:33:32.590 STDERR [INFO] I0713 13:33:32.590241 23309 layer_factory.hpp:77] Creating layer inception_4b/5x5_reduce
2016-07-13 13:33:32.590 STDERR [INFO] I0713 13:33:32.590281 23309 net.cpp:91] Creating Layer inception_4b/5x5_reduce
2016-07-13 13:33:32.590 STDERR [INFO] I0713 13:33:32.590287 23309 net.cpp:425] inception_4b/5x5_reduce <- inception_4a/output_inception_4a/output_0_split_2
2016-07-13 13:33:32.590 STDERR [INFO] I0713 13:33:32.590296 23309 net.cpp:399] inception_4b/5x5_reduce -> inception_4b/5x5_reduce
2016-07-13 13:33:32.592 STDERR [INFO] I0713 13:33:32.592360 23309 net.cpp:141] Setting up inception_4b/5x5_reduce
2016-07-13 13:33:32.592 STDERR [INFO] I0713 13:33:32.592376 23309 net.cpp:148] Top shape: 10 24 14 14 (47040)
2016-07-13 13:33:32.592 STDERR [INFO] I0713 13:33:32.592393 23309 net.cpp:156] Memory required for data: 397582080
2016-07-13 13:33:32.592 STDERR [INFO] I0713 13:33:32.592402 23309 layer_factory.hpp:77] Creating layer inception_4b/relu_5x5_reduce
2016-07-13 13:33:32.592 STDERR [INFO] I0713 13:33:32.592417 23309 net.cpp:91] Creating Layer inception_4b/relu_5x5_reduce
2016-07-13 13:33:32.592 STDERR [INFO] I0713 13:33:32.592422 23309 net.cpp:425] inception_4b/relu_5x5_reduce <- inception_4b/5x5_reduce
2016-07-13 13:33:32.592 STDERR [INFO] I0713 13:33:32.592427 23309 net.cpp:386] inception_4b/relu_5x5_reduce -> inception_4b/5x5_reduce (in-place)
2016-07-13 13:33:32.592 STDERR [INFO] I0713 13:33:32.592658 23309 net.cpp:141] Setting up inception_4b/relu_5x5_reduce
2016-07-13 13:33:32.592 STDERR [INFO] I0713 13:33:32.592667 23309 net.cpp:148] Top shape: 10 24 14 14 (47040)
2016-07-13 13:33:32.592 STDERR [INFO] I0713 13:33:32.592671 23309 net.cpp:156] Memory required for data: 397770240
2016-07-13 13:33:32.592 STDERR [INFO] I0713 13:33:32.592676 23309 layer_factory.hpp:77] Creating layer inception_4b/5x5
2016-07-13 13:33:32.593 STDERR [INFO] I0713 13:33:32.592692 23309 net.cpp:91] Creating Layer inception_4b/5x5
2016-07-13 13:33:32.593 STDERR [INFO] I0713 13:33:32.592697 23309 net.cpp:425] inception_4b/5x5 <- inception_4b/5x5_reduce
2016-07-13 13:33:32.593 STDERR [INFO] I0713 13:33:32.592705 23309 net.cpp:399] inception_4b/5x5 -> inception_4b/5x5
2016-07-13 13:33:32.595 STDERR [INFO] I0713 13:33:32.595907 23309 net.cpp:141] Setting up inception_4b/5x5
2016-07-13 13:33:32.596 STDERR [INFO] I0713 13:33:32.595924 23309 net.cpp:148] Top shape: 10 64 14 14 (125440)
2016-07-13 13:33:32.596 STDERR [INFO] I0713 13:33:32.595929 23309 net.cpp:156] Memory required for data: 398272000
2016-07-13 13:33:32.596 STDERR [INFO] I0713 13:33:32.595950 23309 layer_factory.hpp:77] Creating layer inception_4b/relu_5x5
2016-07-13 13:33:32.596 STDERR [INFO] I0713 13:33:32.595960 23309 net.cpp:91] Creating Layer inception_4b/relu_5x5
2016-07-13 13:33:32.596 STDERR [INFO] I0713 13:33:32.595965 23309 net.cpp:425] inception_4b/relu_5x5 <- inception_4b/5x5
2016-07-13 13:33:32.596 STDERR [INFO] I0713 13:33:32.595975 23309 net.cpp:386] inception_4b/relu_5x5 -> inception_4b/5x5 (in-place)
2016-07-13 13:33:32.596 STDERR [INFO] I0713 13:33:32.596195 23309 net.cpp:141] Setting up inception_4b/relu_5x5
2016-07-13 13:33:32.596 STDERR [INFO] I0713 13:33:32.596209 23309 net.cpp:148] Top shape: 10 64 14 14 (125440)
2016-07-13 13:33:32.596 STDERR [INFO] I0713 13:33:32.596212 23309 net.cpp:156] Memory required for data: 398773760
2016-07-13 13:33:32.596 STDERR [INFO] I0713 13:33:32.596217 23309 layer_factory.hpp:77] Creating layer inception_4b/pool
2016-07-13 13:33:32.596 STDERR [INFO] I0713 13:33:32.596226 23309 net.cpp:91] Creating Layer inception_4b/pool
2016-07-13 13:33:32.596 STDERR [INFO] I0713 13:33:32.596231 23309 net.cpp:425] inception_4b/pool <- inception_4a/output_inception_4a/output_0_split_3
2016-07-13 13:33:32.596 STDERR [INFO] I0713 13:33:32.596238 23309 net.cpp:399] inception_4b/pool -> inception_4b/pool
2016-07-13 13:33:32.596 STDERR [INFO] I0713 13:33:32.596318 23309 net.cpp:141] Setting up inception_4b/pool
2016-07-13 13:33:32.596 STDERR [INFO] I0713 13:33:32.596328 23309 net.cpp:148] Top shape: 10 512 14 14 (1003520)
2016-07-13 13:33:32.596 STDERR [INFO] I0713 13:33:32.596331 23309 net.cpp:156] Memory required for data: 402787840
2016-07-13 13:33:32.596 STDERR [INFO] I0713 13:33:32.596336 23309 layer_factory.hpp:77] Creating layer inception_4b/pool_proj
2016-07-13 13:33:32.596 STDERR [INFO] I0713 13:33:32.596352 23309 net.cpp:91] Creating Layer inception_4b/pool_proj
2016-07-13 13:33:32.596 STDERR [INFO] I0713 13:33:32.596357 23309 net.cpp:425] inception_4b/pool_proj <- inception_4b/pool
2016-07-13 13:33:32.597 STDERR [INFO] I0713 13:33:32.596367 23309 net.cpp:399] inception_4b/pool_proj -> inception_4b/pool_proj
2016-07-13 13:33:32.598 STDERR [INFO] I0713 13:33:32.598588 23309 net.cpp:141] Setting up inception_4b/pool_proj
2016-07-13 13:33:32.598 STDERR [INFO] I0713 13:33:32.598604 23309 net.cpp:148] Top shape: 10 64 14 14 (125440)
2016-07-13 13:33:32.598 STDERR [INFO] I0713 13:33:32.598623 23309 net.cpp:156] Memory required for data: 403289600
2016-07-13 13:33:32.598 STDERR [INFO] I0713 13:33:32.598631 23309 layer_factory.hpp:77] Creating layer inception_4b/relu_pool_proj
2016-07-13 13:33:32.598 STDERR [INFO] I0713 13:33:32.598640 23309 net.cpp:91] Creating Layer inception_4b/relu_pool_proj
2016-07-13 13:33:32.598 STDERR [INFO] I0713 13:33:32.598645 23309 net.cpp:425] inception_4b/relu_pool_proj <- inception_4b/pool_proj
2016-07-13 13:33:32.599 STDERR [INFO] I0713 13:33:32.598654 23309 net.cpp:386] inception_4b/relu_pool_proj -> inception_4b/pool_proj (in-place)
2016-07-13 13:33:32.599 STDERR [INFO] I0713 13:33:32.599362 23309 net.cpp:141] Setting up inception_4b/relu_pool_proj
2016-07-13 13:33:32.599 STDERR [INFO] I0713 13:33:32.599377 23309 net.cpp:148] Top shape: 10 64 14 14 (125440)
2016-07-13 13:33:32.599 STDERR [INFO] I0713 13:33:32.599382 23309 net.cpp:156] Memory required for data: 403791360
2016-07-13 13:33:32.599 STDERR [INFO] I0713 13:33:32.599387 23309 layer_factory.hpp:77] Creating layer inception_4b/output
2016-07-13 13:33:32.599 STDERR [INFO] I0713 13:33:32.599396 23309 net.cpp:91] Creating Layer inception_4b/output
2016-07-13 13:33:32.599 STDERR [INFO] I0713 13:33:32.599400 23309 net.cpp:425] inception_4b/output <- inception_4b/1x1
2016-07-13 13:33:32.599 STDERR [INFO] I0713 13:33:32.599421 23309 net.cpp:425] inception_4b/output <- inception_4b/3x3
2016-07-13 13:33:32.599 STDERR [INFO] I0713 13:33:32.599428 23309 net.cpp:425] inception_4b/output <- inception_4b/5x5
2016-07-13 13:33:32.599 STDERR [INFO] I0713 13:33:32.599434 23309 net.cpp:425] inception_4b/output <- inception_4b/pool_proj
2016-07-13 13:33:32.599 STDERR [INFO] I0713 13:33:32.599441 23309 net.cpp:399] inception_4b/output -> inception_4b/output
2016-07-13 13:33:32.599 STDERR [INFO] I0713 13:33:32.599483 23309 net.cpp:141] Setting up inception_4b/output
2016-07-13 13:33:32.600 STDERR [INFO] I0713 13:33:32.599491 23309 net.cpp:148] Top shape: 10 512 14 14 (1003520)
2016-07-13 13:33:32.600 STDERR [INFO] I0713 13:33:32.599495 23309 net.cpp:156] Memory required for data: 407805440
2016-07-13 13:33:32.600 STDERR [INFO] I0713 13:33:32.599500 23309 layer_factory.hpp:77] Creating layer inception_4b/output_inception_4b/output_0_split
2016-07-13 13:33:32.600 STDERR [INFO] I0713 13:33:32.599514 23309 net.cpp:91] Creating Layer inception_4b/output_inception_4b/output_0_split
…
2016-07-13 13:33:32.600 STDERR [INFO] I0713 13:33:32.599535 23309 net.cpp:399] inception_4b/output_inception_4b/output_0_split -> inception_4b/output_inception_4b/output_0_split_1
2016-07-13 13:33:32.600 STDERR [INFO] I0713 13:33:32.599544 23309 net.cpp:399] inception_4b/output_inception_4b/output_0_split -> inception_4b/output_inception_4b/output_0_split_2
2016-07-13 13:33:32.600 STDERR [INFO] I0713 13:33:32.599551 23309 net.cpp:399] inception_4b/output_inception_4b/output_0_split -> inception_4b/output_inception_4b/output_0_split_3
2016-07-13 13:33:32.600 STDERR [INFO] I0713 13:33:32.599637 23309 net.cpp:141] Setting up inception_4b/output_inception_4b/output_0_split
2016-07-13 13:33:32.601 STDERR [INFO] I0713 13:33:32.599647 23309 net.cpp:148] Top shape: 10 512 14 14 (1003520)
2016-07-13 13:33:32.601 STDERR [INFO] I0713 13:33:32.599653 23309 net.cpp:148] Top shape: 10 512 14 14 (1003520)
2016-07-13 13:33:32.600 n.t.s.f.RefreshingImageFetcher$ImageReader [INFO] [Timing] RequestID: 0 StreamID: home/peifeng/work/data/frame.320x240.jpg SequenceNr: 46 Entering queue: 1468431212600
2016-07-13 13:33:32.601 STDERR [INFO] I0713 13:33:32.599658 23309 net.cpp:148] Top shape: 10 512 14 14 (1003520)
2016-07-13 13:33:32.601 STDERR [INFO] I0713 13:33:32.599663 23309 net.cpp:148] Top shape: 10 512 14 14 (1003520)
2016-07-13 13:33:32.601 STDERR [INFO] I0713 13:33:32.599666 23309 net.cpp:156] Memory required for data: 423861760
2016-07-13 13:33:32.601 STDERR [INFO] I0713 13:33:32.599671 23309 layer_factory.hpp:77] Creating layer inception_4c/1x1
2016-07-13 13:33:32.601 STDERR [INFO] I0713 13:33:32.599685 23309 net.cpp:91] Creating Layer inception_4c/1x1
2016-07-13 13:33:32.601 STDERR [INFO] I0713 13:33:32.599691 23309 net.cpp:425] inception_4c/1x1 <- inception_4b/output_inception_4b/output_0_split_0
2016-07-13 13:33:32.601 STDERR [INFO] I0713 13:33:32.599702 23309 net.cpp:399] inception_4c/1x1 -> inception_4c/1x1
2016-07-13 13:33:32.601 n.t.s.f.RefreshingImageFetcher$ImageReader [INFO] [Timing] RequestID: 0 StreamID: home/peifeng/work/data/frame.320x240.jpg SequenceNr: 47 Entering queue: 1468431212601
2016-07-13 13:33:32.602 STDERR [INFO] I0713 13:33:32.602205 23309 net.cpp:141] Setting up inception_4c/1x1
2016-07-13 13:33:32.602 STDERR [INFO] I0713 13:33:32.602224 23309 net.cpp:148] Top shape: 10 128 14 14 (250880)
2016-07-13 13:33:32.602 STDERR [INFO] I0713 13:33:32.602229 23309 net.cpp:156] Memory required for data: 424865280
2016-07-13 13:33:32.602 STDERR [INFO] I0713 13:33:32.602250 23309 layer_factory.hpp:77] Creating layer inception_4c/relu_1x1
2016-07-13 13:33:32.602 STDERR [INFO] I0713 13:33:32.602262 23309 net.cpp:91] Creating Layer inception_4c/relu_1x1
2016-07-13 13:33:32.602 STDERR [INFO] I0713 13:33:32.602268 23309 net.cpp:425] inception_4c/relu_1x1 <- inception_4c/1x1
2016-07-13 13:33:32.602 STDERR [INFO] I0713 13:33:32.602275 23309 net.cpp:386] inception_4c/relu_1x1 -> inception_4c/1x1 (in-place)
2016-07-13 13:33:32.602 STDERR [INFO] I0713 13:33:32.602520 23309 net.cpp:141] Setting up inception_4c/relu_1x1
2016-07-13 13:33:32.602 STDERR [INFO] I0713 13:33:32.602531 23309 net.cpp:148] Top shape: 10 128 14 14 (250880)
2016-07-13 13:33:32.602 STDERR [INFO] I0713 13:33:32.602536 23309 net.cpp:156] Memory required for data: 425868800
2016-07-13 13:33:32.602 STDERR [INFO] I0713 13:33:32.602541 23309 layer_factory.hpp:77] Creating layer inception_4c/3x3_reduce
2016-07-13 13:33:32.602 STDERR [INFO] I0713 13:33:32.602558 23309 net.cpp:91] Creating Layer inception_4c/3x3_reduce
2016-07-13 13:33:32.602 STDERR [INFO] I0713 13:33:32.602563 23309 net.cpp:425] inception_4c/3x3_reduce <- inception_4b/output_inception_4b/output_0_split_1
2016-07-13 13:33:32.603 STDERR [INFO] I0713 13:33:32.602572 23309 net.cpp:399] inception_4c/3x3_reduce -> inception_4c/3x3_reduce
2016-07-13 13:33:32.605 STDERR [INFO] I0713 13:33:32.605168 23309 net.cpp:141] Setting up inception_4c/3x3_reduce
2016-07-13 13:33:32.605 STDERR [INFO] I0713 13:33:32.605185 23309 net.cpp:148] Top shape: 10 128 14 14 (250880)
2016-07-13 13:33:32.605 STDERR [INFO] I0713 13:33:32.605201 23309 net.cpp:156] Memory required for data: 426872320
2016-07-13 13:33:32.605 STDERR [INFO] I0713 13:33:32.605211 23309 layer_factory.hpp:77] Creating layer inception_4c/relu_3x3_reduce
2016-07-13 13:33:32.605 STDERR [INFO] I0713 13:33:32.605222 23309 net.cpp:91] Creating Layer inception_4c/relu_3x3_reduce
2016-07-13 13:33:32.605 STDERR [INFO] I0713 13:33:32.605228 23309 net.cpp:425] inception_4c/relu_3x3_reduce <- inception_4c/3x3_reduce
2016-07-13 13:33:32.605 STDERR [INFO] I0713 13:33:32.605234 23309 net.cpp:386] inception_4c/relu_3x3_reduce -> inception_4c/3x3_reduce (in-place)
2016-07-13 13:33:32.605 STDERR [INFO] I0713 13:33:32.605458 23309 net.cpp:141] Setting up inception_4c/relu_3x3_reduce
2016-07-13 13:33:32.605 STDERR [INFO] I0713 13:33:32.605469 23309 net.cpp:148] Top shape: 10 128 14 14 (250880)
2016-07-13 13:33:32.605 STDERR [INFO] I0713 13:33:32.605474 23309 net.cpp:156] Memory required for data: 427875840
2016-07-13 13:33:32.605 STDERR [INFO] I0713 13:33:32.605479 23309 layer_factory.hpp:77] Creating layer inception_4c/3x3
2016-07-13 13:33:32.605 STDERR [INFO] I0713 13:33:32.605497 23309 net.cpp:91] Creating Layer inception_4c/3x3
2016-07-13 13:33:32.605 STDERR [INFO] I0713 13:33:32.605504 23309 net.cpp:425] inception_4c/3x3 <- inception_4c/3x3_reduce
2016-07-13 13:33:32.605 STDERR [INFO] I0713 13:33:32.605510 23309 net.cpp:399] inception_4c/3x3 -> inception_4c/3x3
2016-07-13 13:33:32.607 n.t.s.s.CVParticleSpout [INFO] [Timing] RequestID: 0 StreamID: home/peifeng/work/data/frame.320x240.jpg SequenceNr: 46 Leaving fetcher: 1468431212607 Size: 8702
2016-07-13 13:33:32.607 n.t.s.b.CVParticleBolt [INFO] [Timing] RequestID: 0 StreamID: home/peifeng/work/data/frame.320x240.jpg SequenceNr: 46 Entering scale: 1468431212607
2016-07-13 13:33:32.610 STDERR [INFO] I0713 13:33:32.610890 23309 net.cpp:141] Setting up inception_4c/3x3
2016-07-13 13:33:32.611 STDERR [INFO] I0713 13:33:32.610913 23309 net.cpp:148] Top shape: 10 256 14 14 (501760)
2016-07-13 13:33:32.611 STDERR [INFO] I0713 13:33:32.610918 23309 net.cpp:156] Memory required for data: 429882880
2016-07-13 13:33:32.611 STDERR [INFO] I0713 13:33:32.610927 23309 layer_factory.hpp:77] Creating layer inception_4c/relu_3x3
2016-07-13 13:33:32.611 STDERR [INFO] I0713 13:33:32.610937 23309 net.cpp:91] Creating Layer inception_4c/relu_3x3
2016-07-13 13:33:32.611 STDERR [INFO] I0713 13:33:32.610944 23309 net.cpp:425] inception_4c/relu_3x3 <- inception_4c/3x3
2016-07-13 13:33:32.611 STDERR [INFO] I0713 13:33:32.610955 23309 net.cpp:386] inception_4c/relu_3x3 -> inception_4c/3x3 (in-place)
2016-07-13 13:33:32.611 n.t.s.s.CVParticleSpout [INFO] [Timing] RequestID: 0 StreamID: home/peifeng/work/data/frame.320x240.jpg SequenceNr: 47 Leaving fetcher: 1468431212611 Size: 8702
2016-07-13 13:33:32.611 STDERR [INFO] I0713 13:33:32.611723 23309 net.cpp:141] Setting up inception_4c/relu_3x3
2016-07-13 13:33:32.611 STDERR [INFO] I0713 13:33:32.611740 23309 net.cpp:148] Top shape: 10 256 14 14 (501760)
2016-07-13 13:33:32.611 STDERR [INFO] I0713 13:33:32.611745 23309 net.cpp:156] Memory required for data: 431889920
2016-07-13 13:33:32.611 STDERR [INFO] I0713 13:33:32.611752 23309 layer_factory.hpp:77] Creating layer inception_4c/5x5_reduce
2016-07-13 13:33:32.611 STDERR [INFO] I0713 13:33:32.611770 23309 net.cpp:91] Creating Layer inception_4c/5x5_reduce
2016-07-13 13:33:32.612 STDERR [INFO] I0713 13:33:32.611776 23309 net.cpp:425] inception_4c/5x5_reduce <- inception_4b/output_inception_4b/output_0_split_2
2016-07-13 13:33:32.612 STDERR [INFO] I0713 13:33:32.611788 23309 net.cpp:399] inception_4c/5x5_reduce -> inception_4c/5x5_reduce
2016-07-13 13:33:32.612 n.t.s.b.CVParticleBolt [INFO] [Timing] RequestID: 0 StreamID: home/peifeng/work/data/frame.320x240.jpg SequenceNr: 46 Leaving scale: 1468431212612 Size: 3530
2016-07-13 13:33:32.612 n.t.s.b.CVParticleBolt [INFO] [Timing] RequestID: 0 StreamID: home/peifeng/work/data/frame.320x240.jpg SequenceNr: 47 Entering scale: 1468431212612
2016-07-13 13:33:32.614 STDERR [INFO] I0713 13:33:32.614133 23309 net.cpp:141] Setting up inception_4c/5x5_reduce
2016-07-13 13:33:32.614 STDERR [INFO] I0713 13:33:32.614157 23309 net.cpp:148] Top shape: 10 24 14 14 (47040)
2016-07-13 13:33:32.614 STDERR [INFO] I0713 13:33:32.614162 23309 net.cpp:156] Memory required for data: 432078080
2016-07-13 13:33:32.614 STDERR [INFO] I0713 13:33:32.614172 23309 layer_factory.hpp:77] Creating layer inception_4c/relu_5x5_reduce
2016-07-13 13:33:32.614 STDERR [INFO] I0713 13:33:32.614181 23309 net.cpp:91] Creating Layer inception_4c/relu_5x5_reduce
2016-07-13 13:33:32.614 STDERR [INFO] I0713 13:33:32.614187 23309 net.cpp:425] inception_4c/relu_5x5_reduce <- inception_4c/5x5_reduce
2016-07-13 13:33:32.614 STDERR [INFO] I0713 13:33:32.614194 23309 net.cpp:386] inception_4c/relu_5x5_reduce -> inception_4c/5x5_reduce (in-place)
2016-07-13 13:33:32.614 STDERR [INFO] I0713 13:33:32.614436 23309 net.cpp:141] Setting up inception_4c/relu_5x5_reduce
2016-07-13 13:33:32.614 STDERR [INFO] I0713 13:33:32.614447 23309 net.cpp:148] Top shape: 10 24 14 14 (47040)
2016-07-13 13:33:32.614 STDERR [INFO] I0713 13:33:32.614451 23309 net.cpp:156] Memory required for data: 432266240
2016-07-13 13:33:32.614 STDERR [INFO] I0713 13:33:32.614456 23309 layer_factory.hpp:77] Creating layer inception_4c/5x5
2016-07-13 13:33:32.614 STDERR [INFO] I0713 13:33:32.614471 23309 net.cpp:91] Creating Layer inception_4c/5x5
2016-07-13 13:33:32.614 STDERR [INFO] I0713 13:33:32.614477 23309 net.cpp:425] inception_4c/5x5 <- inception_4c/5x5_reduce
2016-07-13 13:33:32.614 STDERR [INFO] I0713 13:33:32.614488 23309 net.cpp:399] inception_4c/5x5 -> inception_4c/5x5
2016-07-13 13:33:32.617 STDERR [INFO] I0713 13:33:32.617585 23309 net.cpp:141] Setting up inception_4c/5x5
2016-07-13 13:33:32.617 STDERR [INFO] I0713 13:33:32.617609 23309 net.cpp:148] Top shape: 10 64 14 14 (125440)
2016-07-13 13:33:32.617 STDERR [INFO] I0713 13:33:32.617614 23309 net.cpp:156] Memory required for data: 432768000
2016-07-13 13:33:32.618 STDERR [INFO] I0713 13:33:32.617622 23309 layer_factory.hpp:77] Creating layer inception_4c/relu_5x5
2016-07-13 13:33:32.618 STDERR [INFO] I0713 13:33:32.617633 23309 net.cpp:91] Creating Layer inception_4c/relu_5x5
2016-07-13 13:33:32.618 STDERR [INFO] I0713 13:33:32.617638 23309 net.cpp:425] inception_4c/relu_5x5 <- inception_4c/5x5
2016-07-13 13:33:32.618 STDERR [INFO] I0713 13:33:32.617646 23309 net.cpp:386] inception_4c/relu_5x5 -> inception_4c/5x5 (in-place)
2016-07-13 13:33:32.618 STDERR [INFO] I0713 13:33:32.617894 23309 net.cpp:141] Setting up inception_4c/relu_5x5
2016-07-13 13:33:32.618 STDERR [INFO] I0713 13:33:32.617905 23309 net.cpp:148] Top shape: 10 64 14 14 (125440)
2016-07-13 13:33:32.618 STDERR [INFO] I0713 13:33:32.617910 23309 net.cpp:156] Memory required for data: 433269760
2016-07-13 13:33:32.618 STDERR [INFO] I0713 13:33:32.617915 23309 layer_factory.hpp:77] Creating layer inception_4c/pool
2016-07-13 13:33:32.618 STDERR [INFO] I0713 13:33:32.617928 23309 net.cpp:91] Creating Layer inception_4c/pool
2016-07-13 13:33:32.618 STDERR [INFO] I0713 13:33:32.617933 23309 net.cpp:425] inception_4c/pool <- inception_4b/output_inception_4b/output_0_split_3
2016-07-13 13:33:32.618 STDERR [INFO] I0713 13:33:32.617940 23309 net.cpp:399] inception_4c/pool -> inception_4c/pool
2016-07-13 13:33:32.618 STDERR [INFO] I0713 13:33:32.618015 23309 net.cpp:141] Setting up inception_4c/pool
2016-07-13 13:33:32.618 STDERR [INFO] I0713 13:33:32.618023 23309 net.cpp:148] Top shape: 10 512 14 14 (1003520)
2016-07-13 13:33:32.618 STDERR [INFO] I0713 13:33:32.618027 23309 net.cpp:156] Memory required for data: 437283840
2016-07-13 13:33:32.618 STDERR [INFO] I0713 13:33:32.618032 23309 layer_factory.hpp:77] Creating layer inception_4c/pool_proj
2016-07-13 13:33:32.618 STDERR [INFO] I0713 13:33:32.618049 23309 net.cpp:91] Creating Layer inception_4c/pool_proj
2016-07-13 13:33:32.618 STDERR [INFO] I0713 13:33:32.618054 23309 net.cpp:425] inception_4c/pool_proj <- inception_4c/pool
2016-07-13 13:33:32.618 STDERR [INFO] I0713 13:33:32.618065 23309 net.cpp:399] inception_4c/pool_proj -> inception_4c/pool_proj
2016-07-13 13:33:32.618 n.t.s.b.CVParticleBolt [INFO] [Timing] RequestID: 0 StreamID: home/peifeng/work/data/frame.320x240.jpg SequenceNr: 47 Leaving scale: 1468431212618 Size: 3530
2016-07-13 13:33:32.621 STDERR [INFO] I0713 13:33:32.621776 23309 net.cpp:141] Setting up inception_4c/pool_proj
2016-07-13 13:33:32.622 STDERR [INFO] I0713 13:33:32.621798 23309 net.cpp:148] Top shape: 10 64 14 14 (125440)
2016-07-13 13:33:32.622 STDERR [INFO] I0713 13:33:32.621804 23309 net.cpp:156] Memory required for data: 437785600
2016-07-13 13:33:32.622 STDERR [INFO] I0713 13:33:32.621832 23309 layer_factory.hpp:77] Creating layer inception_4c/relu_pool_proj
2016-07-13 13:33:32.622 STDERR [INFO] I0713 13:33:32.621845 23309 net.cpp:91] Creating Layer inception_4c/relu_pool_proj
2016-07-13 13:33:32.622 STDERR [INFO] I0713 13:33:32.621850 23309 net.cpp:425] inception_4c/relu_pool_proj <- inception_4c/pool_proj
2016-07-13 13:33:32.622 STDERR [INFO] I0713 13:33:32.621860 23309 net.cpp:386] inception_4c/relu_pool_proj -> inception_4c/pool_proj (in-place)
2016-07-13 13:33:32.622 STDERR [INFO] I0713 13:33:32.622613 23309 net.cpp:141] Setting up inception_4c/relu_pool_proj
2016-07-13 13:33:32.622 STDERR [INFO] I0713 13:33:32.622630 23309 net.cpp:148] Top shape: 10 64 14 14 (125440)
2016-07-13 13:33:32.622 STDERR [INFO] I0713 13:33:32.622635 23309 net.cpp:156] Memory required for data: 438287360
2016-07-13 13:33:32.622 STDERR [INFO] I0713 13:33:32.622640 23309 layer_factory.hpp:77] Creating layer inception_4c/output
2016-07-13 13:33:32.622 STDERR [INFO] I0713 13:33:32.622654 23309 net.cpp:91] Creating Layer inception_4c/output
2016-07-13 13:33:32.622 STDERR [INFO] I0713 13:33:32.622660 23309 net.cpp:425] inception_4c/output <- inception_4c/1x1
2016-07-13 13:33:32.622 STDERR [INFO] I0713 13:33:32.622668 23309 net.cpp:425] inception_4c/output <- inception_4c/3x3
2016-07-13 13:33:32.623 STDERR [INFO] I0713 13:33:32.622673 23309 net.cpp:425] inception_4c/output <- inception_4c/5x5
2016-07-13 13:33:32.623 STDERR [INFO] I0713 13:33:32.622678 23309 net.cpp:425] inception_4c/output <- inception_4c/pool_proj
2016-07-13 13:33:32.623 STDERR [INFO] I0713 13:33:32.622701 23309 net.cpp:399] inception_4c/output -> inception_4c/output
2016-07-13 13:33:32.623 STDERR [INFO] I0713 13:33:32.622759 23309 net.cpp:141] Setting up inception_4c/output
2016-07-13 13:33:32.623 STDERR [INFO] I0713 13:33:32.622769 23309 net.cpp:148] Top shape: 10 512 14 14 (1003520)
2016-07-13 13:33:32.623 STDERR [INFO] I0713 13:33:32.622773 23309 net.cpp:156] Memory required for data: 442301440
2016-07-13 13:33:32.623 STDERR [INFO] I0713 13:33:32.622778 23309 layer_factory.hpp:77] Creating layer inception_4c/output_inception_4c/output_0_split
2016-07-13 13:33:32.623 STDERR [INFO] I0713 13:33:32.622792 23309 net.cpp:91] Creating Layer inception_4c/output_inception_4c/output_0_split
…
2016-07-13 13:33:32.623 STDERR [INFO] I0713 13:33:32.622812 23309 net.cpp:399] inception_4c/output_inception_4c/output_0_split -> inception_4c/output_inception_4c/output_0_split_1
2016-07-13 13:33:32.623 STDERR [INFO] I0713 13:33:32.622822 23309 net.cpp:399] inception_4c/output_inception_4c/output_0_split -> inception_4c/output_inception_4c/output_0_split_2
2016-07-13 13:33:32.623 STDERR [INFO] I0713 13:33:32.622831 23309 net.cpp:399] inception_4c/output_inception_4c/output_0_split -> inception_4c/output_inception_4c/output_0_split_3
2016-07-13 13:33:32.623 STDERR [INFO] I0713 13:33:32.622927 23309 net.cpp:141] Setting up inception_4c/output_inception_4c/output_0_split
2016-07-13 13:33:32.623 STDERR [INFO] I0713 13:33:32.622936 23309 net.cpp:148] Top shape: 10 512 14 14 (1003520)
2016-07-13 13:33:32.623 STDERR [INFO] I0713 13:33:32.622942 23309 net.cpp:148] Top shape: 10 512 14 14 (1003520)
2016-07-13 13:33:32.623 STDERR [INFO] I0713 13:33:32.622947 23309 net.cpp:148] Top shape: 10 512 14 14 (1003520)
2016-07-13 13:33:32.623 STDERR [INFO] I0713 13:33:32.622953 23309 net.cpp:148] Top shape: 10 512 14 14 (1003520)
2016-07-13 13:33:32.623 STDERR [INFO] I0713 13:33:32.622956 23309 net.cpp:156] Memory required for data: 458357760
2016-07-13 13:33:32.623 STDERR [INFO] I0713 13:33:32.622961 23309 layer_factory.hpp:77] Creating layer inception_4d/1x1
2016-07-13 13:33:32.624 STDERR [INFO] I0713 13:33:32.622977 23309 net.cpp:91] Creating Layer inception_4d/1x1
2016-07-13 13:33:32.624 STDERR [INFO] I0713 13:33:32.622982 23309 net.cpp:425] inception_4d/1x1 <- inception_4c/output_inception_4c/output_0_split_0
2016-07-13 13:33:32.624 STDERR [INFO] I0713 13:33:32.622993 23309 net.cpp:399] inception_4d/1x1 -> inception_4d/1x1
2016-07-13 13:33:32.625 STDERR [INFO] I0713 13:33:32.625767 23309 net.cpp:141] Setting up inception_4d/1x1
2016-07-13 13:33:32.626 STDERR [INFO] I0713 13:33:32.625788 23309 net.cpp:148] Top shape: 10 112 14 14 (219520)
2016-07-13 13:33:32.626 STDERR [INFO] I0713 13:33:32.625793 23309 net.cpp:156] Memory required for data: 459235840
2016-07-13 13:33:32.626 STDERR [INFO] I0713 13:33:32.625803 23309 layer_factory.hpp:77] Creating layer inception_4d/relu_1x1
2016-07-13 13:33:32.626 STDERR [INFO] I0713 13:33:32.625813 23309 net.cpp:91] Creating Layer inception_4d/relu_1x1
2016-07-13 13:33:32.626 STDERR [INFO] I0713 13:33:32.625819 23309 net.cpp:425] inception_4d/relu_1x1 <- inception_4d/1x1
2016-07-13 13:33:32.626 STDERR [INFO] I0713 13:33:32.625826 23309 net.cpp:386] inception_4d/relu_1x1 -> inception_4d/1x1 (in-place)
2016-07-13 13:33:32.626 STDERR [INFO] I0713 13:33:32.626070 23309 net.cpp:141] Setting up inception_4d/relu_1x1
2016-07-13 13:33:32.626 STDERR [INFO] I0713 13:33:32.626080 23309 net.cpp:148] Top shape: 10 112 14 14 (219520)
2016-07-13 13:33:32.626 STDERR [INFO] I0713 13:33:32.626085 23309 net.cpp:156] Memory required for data: 460113920
2016-07-13 13:33:32.626 STDERR [INFO] I0713 13:33:32.626091 23309 layer_factory.hpp:77] Creating layer inception_4d/3x3_reduce
2016-07-13 13:33:32.626 STDERR [INFO] I0713 13:33:32.626106 23309 net.cpp:91] Creating Layer inception_4d/3x3_reduce
2016-07-13 13:33:32.626 STDERR [INFO] I0713 13:33:32.626112 23309 net.cpp:425] inception_4d/3x3_reduce <- inception_4c/output_inception_4c/output_0_split_1
2016-07-13 13:33:32.626 STDERR [INFO] I0713 13:33:32.626123 23309 net.cpp:399] inception_4d/3x3_reduce -> inception_4d/3x3_reduce
2016-07-13 13:33:32.629 STDERR [INFO] I0713 13:33:32.628934 23309 net.cpp:141] Setting up inception_4d/3x3_reduce
2016-07-13 13:33:32.629 STDERR [INFO] I0713 13:33:32.628953 23309 net.cpp:148] Top shape: 10 144 14 14 (282240)
2016-07-13 13:33:32.629 STDERR [INFO] I0713 13:33:32.628958 23309 net.cpp:156] Memory required for data: 461242880
2016-07-13 13:33:32.629 STDERR [INFO] I0713 13:33:32.628968 23309 layer_factory.hpp:77] Creating layer inception_4d/relu_3x3_reduce
2016-07-13 13:33:32.629 STDERR [INFO] I0713 13:33:32.628978 23309 net.cpp:91] Creating Layer inception_4d/relu_3x3_reduce
2016-07-13 13:33:32.629 STDERR [INFO] I0713 13:33:32.628983 23309 net.cpp:425] inception_4d/relu_3x3_reduce <- inception_4d/3x3_reduce
2016-07-13 13:33:32.629 STDERR [INFO] I0713 13:33:32.628993 23309 net.cpp:386] inception_4d/relu_3x3_reduce -> inception_4d/3x3_reduce (in-place)
2016-07-13 13:33:32.629 STDERR [INFO] I0713 13:33:32.629231 23309 net.cpp:141] Setting up inception_4d/relu_3x3_reduce
2016-07-13 13:33:32.629 STDERR [INFO] I0713 13:33:32.629242 23309 net.cpp:148] Top shape: 10 144 14 14 (282240)
2016-07-13 13:33:32.629 STDERR [INFO] I0713 13:33:32.629250 23309 net.cpp:156] Memory required for data: 462371840
2016-07-13 13:33:32.629 STDERR [INFO] I0713 13:33:32.629254 23309 layer_factory.hpp:77] Creating layer inception_4d/3x3
2016-07-13 13:33:32.629 STDERR [INFO] I0713 13:33:32.629268 23309 net.cpp:91] Creating Layer inception_4d/3x3
2016-07-13 13:33:32.629 STDERR [INFO] I0713 13:33:32.629274 23309 net.cpp:425] inception_4d/3x3 <- inception_4d/3x3_reduce
2016-07-13 13:33:32.629 STDERR [INFO] I0713 13:33:32.629289 23309 net.cpp:399] inception_4d/3x3 -> inception_4d/3x3
2016-07-13 13:33:32.635 STDERR [INFO] I0713 13:33:32.635705 23309 net.cpp:141] Setting up inception_4d/3x3
2016-07-13 13:33:32.635 STDERR [INFO] I0713 13:33:32.635743 23309 net.cpp:148] Top shape: 10 288 14 14 (564480)
2016-07-13 13:33:32.636 STDERR [INFO] I0713 13:33:32.635748 23309 net.cpp:156] Memory required for data: 464629760
2016-07-13 13:33:32.636 STDERR [INFO] I0713 13:33:32.635759 23309 layer_factory.hpp:77] Creating layer inception_4d/relu_3x3
2016-07-13 13:33:32.636 STDERR [INFO] I0713 13:33:32.635773 23309 net.cpp:91] Creating Layer inception_4d/relu_3x3
2016-07-13 13:33:32.636 STDERR [INFO] I0713 13:33:32.635781 23309 net.cpp:425] inception_4d/relu_3x3 <- inception_4d/3x3
2016-07-13 13:33:32.636 STDERR [INFO] I0713 13:33:32.635788 23309 net.cpp:386] inception_4d/relu_3x3 -> inception_4d/3x3 (in-place)
2016-07-13 13:33:32.636 STDERR [INFO] I0713 13:33:32.636528 23309 net.cpp:141] Setting up inception_4d/relu_3x3
2016-07-13 13:33:32.636 STDERR [INFO] I0713 13:33:32.636548 23309 net.cpp:148] Top shape: 10 288 14 14 (564480)
2016-07-13 13:33:32.636 STDERR [INFO] I0713 13:33:32.636554 23309 net.cpp:156] Memory required for data: 466887680
2016-07-13 13:33:32.636 STDERR [INFO] I0713 13:33:32.636559 23309 layer_factory.hpp:77] Creating layer inception_4d/5x5_reduce
2016-07-13 13:33:32.636 STDERR [INFO] I0713 13:33:32.636575 23309 net.cpp:91] Creating Layer inception_4d/5x5_reduce
2016-07-13 13:33:32.636 STDERR [INFO] I0713 13:33:32.636581 23309 net.cpp:425] inception_4d/5x5_reduce <- inception_4c/output_inception_4c/output_0_split_2
2016-07-13 13:33:32.636 STDERR [INFO] I0713 13:33:32.636591 23309 net.cpp:399] inception_4d/5x5_reduce -> inception_4d/5x5_reduce
2016-07-13 13:33:32.638 STDERR [INFO] I0713 13:33:32.638849 23309 net.cpp:141] Setting up inception_4d/5x5_reduce
2016-07-13 13:33:32.639 STDERR [INFO] I0713 13:33:32.638867 23309 net.cpp:148] Top shape: 10 32 14 14 (62720)
2016-07-13 13:33:32.639 STDERR [INFO] I0713 13:33:32.638872 23309 net.cpp:156] Memory required for data: 467138560
2016-07-13 13:33:32.639 STDERR [INFO] I0713 13:33:32.638881 23309 layer_factory.hpp:77] Creating layer inception_4d/relu_5x5_reduce
2016-07-13 13:33:32.639 STDERR [INFO] I0713 13:33:32.638891 23309 net.cpp:91] Creating Layer inception_4d/relu_5x5_reduce
2016-07-13 13:33:32.639 STDERR [INFO] I0713 13:33:32.638896 23309 net.cpp:425] inception_4d/relu_5x5_reduce <- inception_4d/5x5_reduce
2016-07-13 13:33:32.639 STDERR [INFO] I0713 13:33:32.638903 23309 net.cpp:386] inception_4d/relu_5x5_reduce -> inception_4d/5x5_reduce (in-place)
2016-07-13 13:33:32.639 STDERR [INFO] I0713 13:33:32.639143 23309 net.cpp:141] Setting up inception_4d/relu_5x5_reduce
2016-07-13 13:33:32.639 STDERR [INFO] I0713 13:33:32.639154 23309 net.cpp:148] Top shape: 10 32 14 14 (62720)
2016-07-13 13:33:32.639 STDERR [INFO] I0713 13:33:32.639159 23309 net.cpp:156] Memory required for data: 467389440
2016-07-13 13:33:32.639 STDERR [INFO] I0713 13:33:32.639164 23309 layer_factory.hpp:77] Creating layer inception_4d/5x5
2016-07-13 13:33:32.639 STDERR [INFO] I0713 13:33:32.639180 23309 net.cpp:91] Creating Layer inception_4d/5x5
2016-07-13 13:33:32.639 STDERR [INFO] I0713 13:33:32.639186 23309 net.cpp:425] inception_4d/5x5 <- inception_4d/5x5_reduce
2016-07-13 13:33:32.639 STDERR [INFO] I0713 13:33:32.639197 23309 net.cpp:399] inception_4d/5x5 -> inception_4d/5x5
2016-07-13 13:33:32.641 STDERR [INFO] I0713 13:33:32.641677 23309 net.cpp:141] Setting up inception_4d/5x5
2016-07-13 13:33:32.641 STDERR [INFO] I0713 13:33:32.641710 23309 net.cpp:148] Top shape: 10 64 14 14 (125440)
2016-07-13 13:33:32.641 STDERR [INFO] I0713 13:33:32.641716 23309 net.cpp:156] Memory required for data: 467891200
2016-07-13 13:33:32.641 STDERR [INFO] I0713 13:33:32.641731 23309 layer_factory.hpp:77] Creating layer inception_4d/relu_5x5
2016-07-13 13:33:32.642 STDERR [INFO] I0713 13:33:32.641739 23309 net.cpp:91] Creating Layer inception_4d/relu_5x5
2016-07-13 13:33:32.642 STDERR [INFO] I0713 13:33:32.641746 23309 net.cpp:425] inception_4d/relu_5x5 <- inception_4d/5x5
2016-07-13 13:33:32.642 STDERR [INFO] I0713 13:33:32.641752 23309 net.cpp:386] inception_4d/relu_5x5 -> inception_4d/5x5 (in-place)
2016-07-13 13:33:32.642 STDERR [INFO] I0713 13:33:32.642000 23309 net.cpp:141] Setting up inception_4d/relu_5x5
2016-07-13 13:33:32.642 STDERR [INFO] I0713 13:33:32.642011 23309 net.cpp:148] Top shape: 10 64 14 14 (125440)
2016-07-13 13:33:32.642 STDERR [INFO] I0713 13:33:32.642016 23309 net.cpp:156] Memory required for data: 468392960
2016-07-13 13:33:32.642 STDERR [INFO] I0713 13:33:32.642021 23309 layer_factory.hpp:77] Creating layer inception_4d/pool
2016-07-13 13:33:32.642 STDERR [INFO] I0713 13:33:32.642032 23309 net.cpp:91] Creating Layer inception_4d/pool
2016-07-13 13:33:32.642 STDERR [INFO] I0713 13:33:32.642037 23309 net.cpp:425] inception_4d/pool <- inception_4c/output_inception_4c/output_0_split_3
2016-07-13 13:33:32.642 STDERR [INFO] I0713 13:33:32.642047 23309 net.cpp:399] inception_4d/pool -> inception_4d/pool
2016-07-13 13:33:32.642 STDERR [INFO] I0713 13:33:32.642117 23309 net.cpp:141] Setting up inception_4d/pool
2016-07-13 13:33:32.642 STDERR [INFO] I0713 13:33:32.642129 23309 net.cpp:148] Top shape: 10 512 14 14 (1003520)
2016-07-13 13:33:32.642 STDERR [INFO] I0713 13:33:32.642133 23309 net.cpp:156] Memory required for data: 472407040
2016-07-13 13:33:32.642 STDERR [INFO] I0713 13:33:32.642138 23309 layer_factory.hpp:77] Creating layer inception_4d/pool_proj
2016-07-13 13:33:32.642 STDERR [INFO] I0713 13:33:32.642154 23309 net.cpp:91] Creating Layer inception_4d/pool_proj
2016-07-13 13:33:32.642 STDERR [INFO] I0713 13:33:32.642159 23309 net.cpp:425] inception_4d/pool_proj <- inception_4d/pool
2016-07-13 13:33:32.643 STDERR [INFO] I0713 13:33:32.642168 23309 net.cpp:399] inception_4d/pool_proj -> inception_4d/pool_proj
2016-07-13 13:33:32.644 STDERR [INFO] I0713 13:33:32.644518 23309 net.cpp:141] Setting up inception_4d/pool_proj
2016-07-13 13:33:32.644 STDERR [INFO] I0713 13:33:32.644536 23309 net.cpp:148] Top shape: 10 64 14 14 (125440)
2016-07-13 13:33:32.645 STDERR [INFO] I0713 13:33:32.644541 23309 net.cpp:156] Memory required for data: 472908800
2016-07-13 13:33:32.645 STDERR [INFO] I0713 13:33:32.644549 23309 layer_factory.hpp:77] Creating layer inception_4d/relu_pool_proj
2016-07-13 13:33:32.645 STDERR [INFO] I0713 13:33:32.644557 23309 net.cpp:91] Creating Layer inception_4d/relu_pool_proj
2016-07-13 13:33:32.646 STDERR [INFO] I0713 13:33:32.644563 23309 net.cpp:425] inception_4d/relu_pool_proj <- inception_4d/pool_proj
2016-07-13 13:33:32.646 STDERR [INFO] I0713 13:33:32.644573 23309 net.cpp:386] inception_4d/relu_pool_proj -> inception_4d/pool_proj (in-place)
2016-07-13 13:33:32.646 STDERR [INFO] I0713 13:33:32.645282 23309 net.cpp:141] Setting up inception_4d/relu_pool_proj
2016-07-13 13:33:32.646 STDERR [INFO] I0713 13:33:32.645294 23309 net.cpp:148] Top shape: 10 64 14 14 (125440)
2016-07-13 13:33:32.646 STDERR [INFO] I0713 13:33:32.645299 23309 net.cpp:156] Memory required for data: 473410560
2016-07-13 13:33:32.646 STDERR [INFO] I0713 13:33:32.645303 23309 layer_factory.hpp:77] Creating layer inception_4d/output
2016-07-13 13:33:32.646 STDERR [INFO] I0713 13:33:32.645313 23309 net.cpp:91] Creating Layer inception_4d/output
2016-07-13 13:33:32.646 STDERR [INFO] I0713 13:33:32.645318 23309 net.cpp:425] inception_4d/output <- inception_4d/1x1
2016-07-13 13:33:32.646 STDERR [INFO] I0713 13:33:32.645324 23309 net.cpp:425] inception_4d/output <- inception_4d/3x3
2016-07-13 13:33:32.647 STDERR [INFO] I0713 13:33:32.645329 23309 net.cpp:425] inception_4d/output <- inception_4d/5x5
2016-07-13 13:33:32.647 STDERR [INFO] I0713 13:33:32.645334 23309 net.cpp:425] inception_4d/output <- inception_4d/pool_proj
2016-07-13 13:33:32.647 STDERR [INFO] I0713 13:33:32.645344 23309 net.cpp:399] inception_4d/output -> inception_4d/output
2016-07-13 13:33:32.647 STDERR [INFO] I0713 13:33:32.645387 23309 net.cpp:141] Setting up inception_4d/output
2016-07-13 13:33:32.647 STDERR [INFO] I0713 13:33:32.645400 23309 net.cpp:148] Top shape: 10 528 14 14 (1034880)
2016-07-13 13:33:32.647 STDERR [INFO] I0713 13:33:32.645404 23309 net.cpp:156] Memory required for data: 477550080
2016-07-13 13:33:32.647 STDERR [INFO] I0713 13:33:32.645408 23309 layer_factory.hpp:77] Creating layer inception_4d/output_inception_4d/output_0_split
2016-07-13 13:33:32.647 STDERR [INFO] I0713 13:33:32.645417 23309 net.cpp:91] Creating Layer inception_4d/output_inception_4d/output_0_split
…
2016-07-13 13:33:32.647 STDERR [INFO] I0713 13:33:32.645437 23309 net.cpp:399] inception_4d/output_inception_4d/output_0_split -> inception_4d/output_inception_4d/output_0_split_1
2016-07-13 13:33:32.648 STDERR [INFO] I0713 13:33:32.645448 23309 net.cpp:399] inception_4d/output_inception_4d/output_0_split -> inception_4d/output_inception_4d/output_0_split_2
2016-07-13 13:33:32.648 STDERR [INFO] I0713 13:33:32.645457 23309 net.cpp:399] inception_4d/output_inception_4d/output_0_split -> inception_4d/output_inception_4d/output_0_split_3
2016-07-13 13:33:32.648 STDERR [INFO] I0713 13:33:32.645551 23309 net.cpp:141] Setting up inception_4d/output_inception_4d/output_0_split
2016-07-13 13:33:32.648 STDERR [INFO] I0713 13:33:32.645560 23309 net.cpp:148] Top shape: 10 528 14 14 (1034880)
2016-07-13 13:33:32.648 STDERR [INFO] I0713 13:33:32.645565 23309 net.cpp:148] Top shape: 10 528 14 14 (1034880)
2016-07-13 13:33:32.648 STDERR [INFO] I0713 13:33:32.645570 23309 net.cpp:148] Top shape: 10 528 14 14 (1034880)
2016-07-13 13:33:32.648 STDERR [INFO] I0713 13:33:32.645576 23309 net.cpp:148] Top shape: 10 528 14 14 (1034880)
2016-07-13 13:33:32.648 STDERR [INFO] I0713 13:33:32.645579 23309 net.cpp:156] Memory required for data: 494108160
2016-07-13 13:33:32.648 STDERR [INFO] I0713 13:33:32.645583 23309 layer_factory.hpp:77] Creating layer inception_4e/1x1
2016-07-13 13:33:32.648 STDERR [INFO] I0713 13:33:32.645599 23309 net.cpp:91] Creating Layer inception_4e/1x1
2016-07-13 13:33:32.648 STDERR [INFO] I0713 13:33:32.645606 23309 net.cpp:425] inception_4e/1x1 <- inception_4d/output_inception_4d/output_0_split_0
2016-07-13 13:33:32.648 STDERR [INFO] I0713 13:33:32.645614 23309 net.cpp:399] inception_4e/1x1 -> inception_4e/1x1
2016-07-13 13:33:32.650 STDERR [INFO] I0713 13:33:32.650260 23309 net.cpp:141] Setting up inception_4e/1x1
2016-07-13 13:33:32.650 STDERR [INFO] I0713 13:33:32.650277 23309 net.cpp:148] Top shape: 10 256 14 14 (501760)
2016-07-13 13:33:32.650 STDERR [INFO] I0713 13:33:32.650282 23309 net.cpp:156] Memory required for data: 496115200
2016-07-13 13:33:32.650 STDERR [INFO] I0713 13:33:32.650291 23309 layer_factory.hpp:77] Creating layer inception_4e/relu_1x1
2016-07-13 13:33:32.650 STDERR [INFO] I0713 13:33:32.650303 23309 net.cpp:91] Creating Layer inception_4e/relu_1x1
2016-07-13 13:33:32.651 STDERR [INFO] I0713 13:33:32.650310 23309 net.cpp:425] inception_4e/relu_1x1 <- inception_4e/1x1
2016-07-13 13:33:32.651 STDERR [INFO] I0713 13:33:32.650316 23309 net.cpp:386] inception_4e/relu_1x1 -> inception_4e/1x1 (in-place)
2016-07-13 13:33:32.651 STDERR [INFO] I0713 13:33:32.650569 23309 net.cpp:141] Setting up inception_4e/relu_1x1
2016-07-13 13:33:32.651 STDERR [INFO] I0713 13:33:32.650581 23309 net.cpp:148] Top shape: 10 256 14 14 (501760)
2016-07-13 13:33:32.651 STDERR [INFO] I0713 13:33:32.650586 23309 net.cpp:156] Memory required for data: 498122240
2016-07-13 13:33:32.651 STDERR [INFO] I0713 13:33:32.650591 23309 layer_factory.hpp:77] Creating layer inception_4e/3x3_reduce
2016-07-13 13:33:32.651 STDERR [INFO] I0713 13:33:32.650607 23309 net.cpp:91] Creating Layer inception_4e/3x3_reduce
2016-07-13 13:33:32.651 STDERR [INFO] I0713 13:33:32.650614 23309 net.cpp:425] inception_4e/3x3_reduce <- inception_4d/output_inception_4d/output_0_split_1
2016-07-13 13:33:32.651 STDERR [INFO] I0713 13:33:32.650624 23309 net.cpp:399] inception_4e/3x3_reduce -> inception_4e/3x3_reduce
2016-07-13 13:33:32.653 STDERR [INFO] I0713 13:33:32.653331 23309 net.cpp:141] Setting up inception_4e/3x3_reduce
2016-07-13 13:33:32.653 STDERR [INFO] I0713 13:33:32.653362 23309 net.cpp:148] Top shape: 10 160 14 14 (313600)
2016-07-13 13:33:32.653 STDERR [INFO] I0713 13:33:32.653367 23309 net.cpp:156] Memory required for data: 499376640
2016-07-13 13:33:32.653 STDERR [INFO] I0713 13:33:32.653378 23309 layer_factory.hpp:77] Creating layer inception_4e/relu_3x3_reduce
2016-07-13 13:33:32.653 STDERR [INFO] I0713 13:33:32.653389 23309 net.cpp:91] Creating Layer inception_4e/relu_3x3_reduce
2016-07-13 13:33:32.653 STDERR [INFO] I0713 13:33:32.653395 23309 net.cpp:425] inception_4e/relu_3x3_reduce <- inception_4e/3x3_reduce
2016-07-13 13:33:32.653 STDERR [INFO] I0713 13:33:32.653403 23309 net.cpp:386] inception_4e/relu_3x3_reduce -> inception_4e/3x3_reduce (in-place)
2016-07-13 13:33:32.653 STDERR [INFO] I0713 13:33:32.653647 23309 net.cpp:141] Setting up inception_4e/relu_3x3_reduce
2016-07-13 13:33:32.653 STDERR [INFO] I0713 13:33:32.653658 23309 net.cpp:148] Top shape: 10 160 14 14 (313600)
2016-07-13 13:33:32.653 STDERR [INFO] I0713 13:33:32.653662 23309 net.cpp:156] Memory required for data: 500631040
2016-07-13 13:33:32.654 STDERR [INFO] I0713 13:33:32.653668 23309 layer_factory.hpp:77] Creating layer inception_4e/3x3
2016-07-13 13:33:32.654 STDERR [INFO] I0713 13:33:32.653686 23309 net.cpp:91] Creating Layer inception_4e/3x3
2016-07-13 13:33:32.654 STDERR [INFO] I0713 13:33:32.653692 23309 net.cpp:425] inception_4e/3x3 <- inception_4e/3x3_reduce
2016-07-13 13:33:32.654 STDERR [INFO] I0713 13:33:32.653702 23309 net.cpp:399] inception_4e/3x3 -> inception_4e/3x3
2016-07-13 13:33:32.660 STDERR [INFO] I0713 13:33:32.660624 23309 net.cpp:141] Setting up inception_4e/3x3
2016-07-13 13:33:32.660 STDERR [INFO] I0713 13:33:32.660645 23309 net.cpp:148] Top shape: 10 320 14 14 (627200)
2016-07-13 13:33:32.660 STDERR [INFO] I0713 13:33:32.660656 23309 net.cpp:156] Memory required for data: 503139840
2016-07-13 13:33:32.660 STDERR [INFO] I0713 13:33:32.660666 23309 layer_factory.hpp:77] Creating layer inception_4e/relu_3x3
2016-07-13 13:33:32.660 STDERR [INFO] I0713 13:33:32.660679 23309 net.cpp:91] Creating Layer inception_4e/relu_3x3
2016-07-13 13:33:32.661 STDERR [INFO] I0713 13:33:32.660684 23309 net.cpp:425] inception_4e/relu_3x3 <- inception_4e/3x3
2016-07-13 13:33:32.661 STDERR [INFO] I0713 13:33:32.660692 23309 net.cpp:386] inception_4e/relu_3x3 -> inception_4e/3x3 (in-place)
2016-07-13 13:33:32.661 STDERR [INFO] I0713 13:33:32.661408 23309 net.cpp:141] Setting up inception_4e/relu_3x3
2016-07-13 13:33:32.661 STDERR [INFO] I0713 13:33:32.661423 23309 net.cpp:148] Top shape: 10 320 14 14 (627200)
2016-07-13 13:33:32.661 STDERR [INFO] I0713 13:33:32.661428 23309 net.cpp:156] Memory required for data: 505648640
2016-07-13 13:33:32.661 STDERR [INFO] I0713 13:33:32.661433 23309 layer_factory.hpp:77] Creating layer inception_4e/5x5_reduce
2016-07-13 13:33:32.661 STDERR [INFO] I0713 13:33:32.661450 23309 net.cpp:91] Creating Layer inception_4e/5x5_reduce
2016-07-13 13:33:32.661 STDERR [INFO] I0713 13:33:32.661456 23309 net.cpp:425] inception_4e/5x5_reduce <- inception_4d/output_inception_4d/output_0_split_2
2016-07-13 13:33:32.661 STDERR [INFO] I0713 13:33:32.661465 23309 net.cpp:399] inception_4e/5x5_reduce -> inception_4e/5x5_reduce
2016-07-13 13:33:32.663 STDERR [INFO] I0713 13:33:32.663702 23309 net.cpp:141] Setting up inception_4e/5x5_reduce
2016-07-13 13:33:32.663 STDERR [INFO] I0713 13:33:32.663717 23309 net.cpp:148] Top shape: 10 32 14 14 (62720)
2016-07-13 13:33:32.663 STDERR [INFO] I0713 13:33:32.663722 23309 net.cpp:156] Memory required for data: 505899520
2016-07-13 13:33:32.663 STDERR [INFO] I0713 13:33:32.663732 23309 layer_factory.hpp:77] Creating layer inception_4e/relu_5x5_reduce
2016-07-13 13:33:32.664 STDERR [INFO] I0713 13:33:32.663743 23309 net.cpp:91] Creating Layer inception_4e/relu_5x5_reduce
2016-07-13 13:33:32.664 STDERR [INFO] I0713 13:33:32.663749 23309 net.cpp:425] inception_4e/relu_5x5_reduce <- inception_4e/5x5_reduce
2016-07-13 13:33:32.664 STDERR [INFO] I0713 13:33:32.663756 23309 net.cpp:386] inception_4e/relu_5x5_reduce -> inception_4e/5x5_reduce (in-place)
2016-07-13 13:33:32.664 STDERR [INFO] I0713 13:33:32.663991 23309 net.cpp:141] Setting up inception_4e/relu_5x5_reduce
2016-07-13 13:33:32.664 STDERR [INFO] I0713 13:33:32.664002 23309 net.cpp:148] Top shape: 10 32 14 14 (62720)
2016-07-13 13:33:32.664 STDERR [INFO] I0713 13:33:32.664006 23309 net.cpp:156] Memory required for data: 506150400
2016-07-13 13:33:32.664 STDERR [INFO] I0713 13:33:32.664011 23309 layer_factory.hpp:77] Creating layer inception_4e/5x5
2016-07-13 13:33:32.664 STDERR [INFO] I0713 13:33:32.664036 23309 net.cpp:91] Creating Layer inception_4e/5x5
2016-07-13 13:33:32.664 STDERR [INFO] I0713 13:33:32.664042 23309 net.cpp:425] inception_4e/5x5 <- inception_4e/5x5_reduce
2016-07-13 13:33:32.664 STDERR [INFO] I0713 13:33:32.664052 23309 net.cpp:399] inception_4e/5x5 -> inception_4e/5x5
2016-07-13 13:33:32.667 STDERR [INFO] I0713 13:33:32.667902 23309 net.cpp:141] Setting up inception_4e/5x5
2016-07-13 13:33:32.668 STDERR [INFO] I0713 13:33:32.667922 23309 net.cpp:148] Top shape: 10 128 14 14 (250880)
2016-07-13 13:33:32.668 STDERR [INFO] I0713 13:33:32.667927 23309 net.cpp:156] Memory required for data: 507153920
2016-07-13 13:33:32.668 STDERR [INFO] I0713 13:33:32.667935 23309 layer_factory.hpp:77] Creating layer inception_4e/relu_5x5
2016-07-13 13:33:32.668 STDERR [INFO] I0713 13:33:32.667948 23309 net.cpp:91] Creating Layer inception_4e/relu_5x5
2016-07-13 13:33:32.668 STDERR [INFO] I0713 13:33:32.667953 23309 net.cpp:425] inception_4e/relu_5x5 <- inception_4e/5x5
2016-07-13 13:33:32.668 STDERR [INFO] I0713 13:33:32.667960 23309 net.cpp:386] inception_4e/relu_5x5 -> inception_4e/5x5 (in-place)
2016-07-13 13:33:32.668 STDERR [INFO] I0713 13:33:32.668197 23309 net.cpp:141] Setting up inception_4e/relu_5x5
2016-07-13 13:33:32.668 STDERR [INFO] I0713 13:33:32.668207 23309 net.cpp:148] Top shape: 10 128 14 14 (250880)
2016-07-13 13:33:32.668 STDERR [INFO] I0713 13:33:32.668211 23309 net.cpp:156] Memory required for data: 508157440
2016-07-13 13:33:32.668 STDERR [INFO] I0713 13:33:32.668216 23309 layer_factory.hpp:77] Creating layer inception_4e/pool
2016-07-13 13:33:32.668 STDERR [INFO] I0713 13:33:32.668225 23309 net.cpp:91] Creating Layer inception_4e/pool
2016-07-13 13:33:32.668 STDERR [INFO] I0713 13:33:32.668229 23309 net.cpp:425] inception_4e/pool <- inception_4d/output_inception_4d/output_0_split_3
2016-07-13 13:33:32.668 STDERR [INFO] I0713 13:33:32.668241 23309 net.cpp:399] inception_4e/pool -> inception_4e/pool
2016-07-13 13:33:32.668 STDERR [INFO] I0713 13:33:32.668309 23309 net.cpp:141] Setting up inception_4e/pool
2016-07-13 13:33:32.668 STDERR [INFO] I0713 13:33:32.668318 23309 net.cpp:148] Top shape: 10 528 14 14 (1034880)
2016-07-13 13:33:32.668 STDERR [INFO] I0713 13:33:32.668323 23309 net.cpp:156] Memory required for data: 512296960
2016-07-13 13:33:32.668 STDERR [INFO] I0713 13:33:32.668328 23309 layer_factory.hpp:77] Creating layer inception_4e/pool_proj
2016-07-13 13:33:32.668 STDERR [INFO] I0713 13:33:32.668347 23309 net.cpp:91] Creating Layer inception_4e/pool_proj
2016-07-13 13:33:32.668 STDERR [INFO] I0713 13:33:32.668354 23309 net.cpp:425] inception_4e/pool_proj <- inception_4e/pool
2016-07-13 13:33:32.669 STDERR [INFO] I0713 13:33:32.668360 23309 net.cpp:399] inception_4e/pool_proj -> inception_4e/pool_proj
2016-07-13 13:33:32.671 STDERR [INFO] I0713 13:33:32.671079 23309 net.cpp:141] Setting up inception_4e/pool_proj
2016-07-13 13:33:32.671 STDERR [INFO] I0713 13:33:32.671100 23309 net.cpp:148] Top shape: 10 128 14 14 (250880)
2016-07-13 13:33:32.671 STDERR [INFO] I0713 13:33:32.671105 23309 net.cpp:156] Memory required for data: 513300480
2016-07-13 13:33:32.671 STDERR [INFO] I0713 13:33:32.671115 23309 layer_factory.hpp:77] Creating layer inception_4e/relu_pool_proj
2016-07-13 13:33:32.671 STDERR [INFO] I0713 13:33:32.671128 23309 net.cpp:91] Creating Layer inception_4e/relu_pool_proj
2016-07-13 13:33:32.671 STDERR [INFO] I0713 13:33:32.671134 23309 net.cpp:425] inception_4e/relu_pool_proj <- inception_4e/pool_proj
2016-07-13 13:33:32.671 STDERR [INFO] I0713 13:33:32.671142 23309 net.cpp:386] inception_4e/relu_pool_proj -> inception_4e/pool_proj (in-place)
2016-07-13 13:33:32.671 STDERR [INFO] I0713 13:33:32.671903 23309 net.cpp:141] Setting up inception_4e/relu_pool_proj
2016-07-13 13:33:32.672 STDERR [INFO] I0713 13:33:32.671922 23309 net.cpp:148] Top shape: 10 128 14 14 (250880)
2016-07-13 13:33:32.672 STDERR [INFO] I0713 13:33:32.671927 23309 net.cpp:156] Memory required for data: 514304000
2016-07-13 13:33:32.672 STDERR [INFO] I0713 13:33:32.671932 23309 layer_factory.hpp:77] Creating layer inception_4e/output
2016-07-13 13:33:32.672 STDERR [INFO] I0713 13:33:32.671942 23309 net.cpp:91] Creating Layer inception_4e/output
2016-07-13 13:33:32.672 STDERR [INFO] I0713 13:33:32.671947 23309 net.cpp:425] inception_4e/output <- inception_4e/1x1
2016-07-13 13:33:32.672 STDERR [INFO] I0713 13:33:32.671954 23309 net.cpp:425] inception_4e/output <- inception_4e/3x3
2016-07-13 13:33:32.672 STDERR [INFO] I0713 13:33:32.671959 23309 net.cpp:425] inception_4e/output <- inception_4e/5x5
2016-07-13 13:33:32.672 STDERR [INFO] I0713 13:33:32.671964 23309 net.cpp:425] inception_4e/output <- inception_4e/pool_proj
2016-07-13 13:33:32.672 STDERR [INFO] I0713 13:33:32.671972 23309 net.cpp:399] inception_4e/output -> inception_4e/output
2016-07-13 13:33:32.672 STDERR [INFO] I0713 13:33:32.672030 23309 net.cpp:141] Setting up inception_4e/output
2016-07-13 13:33:32.672 STDERR [INFO] I0713 13:33:32.672040 23309 net.cpp:148] Top shape: 10 832 14 14 (1630720)
2016-07-13 13:33:32.672 STDERR [INFO] I0713 13:33:32.672044 23309 net.cpp:156] Memory required for data: 520826880
2016-07-13 13:33:32.672 STDERR [INFO] I0713 13:33:32.672049 23309 layer_factory.hpp:77] Creating layer pool4/3x3_s2
2016-07-13 13:33:32.672 STDERR [INFO] I0713 13:33:32.672060 23309 net.cpp:91] Creating Layer pool4/3x3_s2
2016-07-13 13:33:32.672 STDERR [INFO] I0713 13:33:32.672065 23309 net.cpp:425] pool4/3x3_s2 <- inception_4e/output
2016-07-13 13:33:32.672 STDERR [INFO] I0713 13:33:32.672071 23309 net.cpp:399] pool4/3x3_s2 -> pool4/3x3_s2
2016-07-13 13:33:32.672 STDERR [INFO] I0713 13:33:32.672137 23309 net.cpp:141] Setting up pool4/3x3_s2
2016-07-13 13:33:32.672 STDERR [INFO] I0713 13:33:32.672147 23309 net.cpp:148] Top shape: 10 832 7 7 (407680)
2016-07-13 13:33:32.673 STDERR [INFO] I0713 13:33:32.672152 23309 net.cpp:156] Memory required for data: 522457600
2016-07-13 13:33:32.673 STDERR [INFO] I0713 13:33:32.672155 23309 layer_factory.hpp:77] Creating layer pool4/3x3_s2_pool4/3x3_s2_0_split
2016-07-13 13:33:32.673 STDERR [INFO] I0713 13:33:32.672165 23309 net.cpp:91] Creating Layer pool4/3x3_s2_pool4/3x3_s2_0_split
2016-07-13 13:33:32.673 STDERR [INFO] I0713 13:33:32.672169 23309 net.cpp:425] pool4/3x3_s2_pool4/3x3_s2_0_split <- pool4/3x3_s2
2016-07-13 13:33:32.673 STDERR [INFO] I0713 13:33:32.672176 23309 net.cpp:399] pool4/3x3_s2_pool4/3x3_s2_0_split -> pool4/3x3_s2_pool4/3x3_s2_0_split_0
2016-07-13 13:33:32.673 STDERR [INFO] I0713 13:33:32.672188 23309 net.cpp:399] pool4/3x3_s2_pool4/3x3_s2_0_split -> pool4/3x3_s2_pool4/3x3_s2_0_split_1
2016-07-13 13:33:32.673 STDERR [INFO] I0713 13:33:32.672196 23309 net.cpp:399] pool4/3x3_s2_pool4/3x3_s2_0_split -> pool4/3x3_s2_pool4/3x3_s2_0_split_2
2016-07-13 13:33:32.673 STDERR [INFO] I0713 13:33:32.672204 23309 net.cpp:399] pool4/3x3_s2_pool4/3x3_s2_0_split -> pool4/3x3_s2_pool4/3x3_s2_0_split_3
2016-07-13 13:33:32.673 STDERR [INFO] I0713 13:33:32.672302 23309 net.cpp:141] Setting up pool4/3x3_s2_pool4/3x3_s2_0_split
2016-07-13 13:33:32.673 STDERR [INFO] I0713 13:33:32.672312 23309 net.cpp:148] Top shape: 10 832 7 7 (407680)
2016-07-13 13:33:32.673 STDERR [INFO] I0713 13:33:32.672317 23309 net.cpp:148] Top shape: 10 832 7 7 (407680)
2016-07-13 13:33:32.673 STDERR [INFO] I0713 13:33:32.672322 23309 net.cpp:148] Top shape: 10 832 7 7 (407680)
2016-07-13 13:33:32.673 STDERR [INFO] I0713 13:33:32.672327 23309 net.cpp:148] Top shape: 10 832 7 7 (407680)
2016-07-13 13:33:32.673 STDERR [INFO] I0713 13:33:32.672332 23309 net.cpp:156] Memory required for data: 528980480
2016-07-13 13:33:32.673 STDERR [INFO] I0713 13:33:32.672336 23309 layer_factory.hpp:77] Creating layer inception_5a/1x1
2016-07-13 13:33:32.673 STDERR [INFO] I0713 13:33:32.672358 23309 net.cpp:91] Creating Layer inception_5a/1x1
2016-07-13 13:33:32.673 STDERR [INFO] I0713 13:33:32.672364 23309 net.cpp:425] inception_5a/1x1 <- pool4/3x3_s2_pool4/3x3_s2_0_split_0
2016-07-13 13:33:32.673 STDERR [INFO] I0713 13:33:32.672372 23309 net.cpp:399] inception_5a/1x1 -> inception_5a/1x1
2016-07-13 13:33:32.677 STDERR [INFO] I0713 13:33:32.677557 23309 net.cpp:141] Setting up inception_5a/1x1
2016-07-13 13:33:32.677 STDERR [INFO] I0713 13:33:32.677583 23309 net.cpp:148] Top shape: 10 256 7 7 (125440)
2016-07-13 13:33:32.677 STDERR [INFO] I0713 13:33:32.677588 23309 net.cpp:156] Memory required for data: 529482240
2016-07-13 13:33:32.677 STDERR [INFO] I0713 13:33:32.677609 23309 layer_factory.hpp:77] Creating layer inception_5a/relu_1x1
2016-07-13 13:33:32.677 STDERR [INFO] I0713 13:33:32.677620 23309 net.cpp:91] Creating Layer inception_5a/relu_1x1
2016-07-13 13:33:32.678 STDERR [INFO] I0713 13:33:32.677626 23309 net.cpp:425] inception_5a/relu_1x1 <- inception_5a/1x1
2016-07-13 13:33:32.678 STDERR [INFO] I0713 13:33:32.677639 23309 net.cpp:386] inception_5a/relu_1x1 -> inception_5a/1x1 (in-place)
2016-07-13 13:33:32.678 STDERR [INFO] I0713 13:33:32.677881 23309 net.cpp:141] Setting up inception_5a/relu_1x1
2016-07-13 13:33:32.678 STDERR [INFO] I0713 13:33:32.677896 23309 net.cpp:148] Top shape: 10 256 7 7 (125440)
2016-07-13 13:33:32.678 STDERR [INFO] I0713 13:33:32.677899 23309 net.cpp:156] Memory required for data: 529984000
2016-07-13 13:33:32.678 STDERR [INFO] I0713 13:33:32.677904 23309 layer_factory.hpp:77] Creating layer inception_5a/3x3_reduce
2016-07-13 13:33:32.678 STDERR [INFO] I0713 13:33:32.677923 23309 net.cpp:91] Creating Layer inception_5a/3x3_reduce
2016-07-13 13:33:32.678 STDERR [INFO] I0713 13:33:32.677929 23309 net.cpp:425] inception_5a/3x3_reduce <- pool4/3x3_s2_pool4/3x3_s2_0_split_1
2016-07-13 13:33:32.678 STDERR [INFO] I0713 13:33:32.677938 23309 net.cpp:399] inception_5a/3x3_reduce -> inception_5a/3x3_reduce
2016-07-13 13:33:32.682 STDERR [INFO] I0713 13:33:32.682358 23309 net.cpp:141] Setting up inception_5a/3x3_reduce
2016-07-13 13:33:32.682 STDERR [INFO] I0713 13:33:32.682382 23309 net.cpp:148] Top shape: 10 160 7 7 (78400)
2016-07-13 13:33:32.682 STDERR [INFO] I0713 13:33:32.682387 23309 net.cpp:156] Memory required for data: 530297600
2016-07-13 13:33:32.682 STDERR [INFO] I0713 13:33:32.682397 23309 layer_factory.hpp:77] Creating layer inception_5a/relu_3x3_reduce
2016-07-13 13:33:32.682 STDERR [INFO] I0713 13:33:32.682409 23309 net.cpp:91] Creating Layer inception_5a/relu_3x3_reduce
2016-07-13 13:33:32.682 STDERR [INFO] I0713 13:33:32.682415 23309 net.cpp:425] inception_5a/relu_3x3_reduce <- inception_5a/3x3_reduce
2016-07-13 13:33:32.682 STDERR [INFO] I0713 13:33:32.682423 23309 net.cpp:386] inception_5a/relu_3x3_reduce -> inception_5a/3x3_reduce (in-place)
2016-07-13 13:33:32.682 STDERR [INFO] I0713 13:33:32.682669 23309 net.cpp:141] Setting up inception_5a/relu_3x3_reduce
2016-07-13 13:33:32.682 STDERR [INFO] I0713 13:33:32.682680 23309 net.cpp:148] Top shape: 10 160 7 7 (78400)
2016-07-13 13:33:32.682 STDERR [INFO] I0713 13:33:32.682684 23309 net.cpp:156] Memory required for data: 530611200
2016-07-13 13:33:32.683 STDERR [INFO] I0713 13:33:32.682700 23309 layer_factory.hpp:77] Creating layer inception_5a/3x3
2016-07-13 13:33:32.683 STDERR [INFO] I0713 13:33:32.682720 23309 net.cpp:91] Creating Layer inception_5a/3x3
2016-07-13 13:33:32.683 STDERR [INFO] I0713 13:33:32.682728 23309 net.cpp:425] inception_5a/3x3 <- inception_5a/3x3_reduce
2016-07-13 13:33:32.683 STDERR [INFO] I0713 13:33:32.682735 23309 net.cpp:399] inception_5a/3x3 -> inception_5a/3x3
2016-07-13 13:33:32.691 STDERR [INFO] I0713 13:33:32.691355 23309 net.cpp:141] Setting up inception_5a/3x3
2016-07-13 13:33:32.691 STDERR [INFO] I0713 13:33:32.691401 23309 net.cpp:148] Top shape: 10 320 7 7 (156800)
2016-07-13 13:33:32.691 STDERR [INFO] I0713 13:33:32.691406 23309 net.cpp:156] Memory required for data: 531238400
2016-07-13 13:33:32.691 STDERR [INFO] I0713 13:33:32.691417 23309 layer_factory.hpp:77] Creating layer inception_5a/relu_3x3
2016-07-13 13:33:32.691 STDERR [INFO] I0713 13:33:32.691428 23309 net.cpp:91] Creating Layer inception_5a/relu_3x3
2016-07-13 13:33:32.691 STDERR [INFO] I0713 13:33:32.691434 23309 net.cpp:425] inception_5a/relu_3x3 <- inception_5a/3x3
2016-07-13 13:33:32.691 STDERR [INFO] I0713 13:33:32.691442 23309 net.cpp:386] inception_5a/relu_3x3 -> inception_5a/3x3 (in-place)
2016-07-13 13:33:32.692 STDERR [INFO] I0713 13:33:32.692381 23309 net.cpp:141] Setting up inception_5a/relu_3x3
2016-07-13 13:33:32.692 STDERR [INFO] I0713 13:33:32.692442 23309 net.cpp:148] Top shape: 10 320 7 7 (156800)
2016-07-13 13:33:32.692 STDERR [INFO] I0713 13:33:32.692454 23309 net.cpp:156] Memory required for data: 531865600
2016-07-13 13:33:32.692 STDERR [INFO] I0713 13:33:32.692471 23309 layer_factory.hpp:77] Creating layer inception_5a/5x5_reduce
2016-07-13 13:33:32.692 STDERR [INFO] I0713 13:33:32.692517 23309 net.cpp:91] Creating Layer inception_5a/5x5_reduce
2016-07-13 13:33:32.692 STDERR [INFO] I0713 13:33:32.692535 23309 net.cpp:425] inception_5a/5x5_reduce <- pool4/3x3_s2_pool4/3x3_s2_0_split_2
2016-07-13 13:33:32.692 STDERR [INFO] I0713 13:33:32.692565 23309 net.cpp:399] inception_5a/5x5_reduce -> inception_5a/5x5_reduce
2016-07-13 13:33:32.699 STDERR [INFO] I0713 13:33:32.699152 23309 net.cpp:141] Setting up inception_5a/5x5_reduce
2016-07-13 13:33:32.699 STDERR [INFO] I0713 13:33:32.699201 23309 net.cpp:148] Top shape: 10 32 7 7 (15680)
2016-07-13 13:33:32.699 STDERR [INFO] I0713 13:33:32.699213 23309 net.cpp:156] Memory required for data: 531928320
2016-07-13 13:33:32.699 STDERR [INFO] I0713 13:33:32.699234 23309 layer_factory.hpp:77] Creating layer inception_5a/relu_5x5_reduce
2016-07-13 13:33:32.699 STDERR [INFO] I0713 13:33:32.699264 23309 net.cpp:91] Creating Layer inception_5a/relu_5x5_reduce
2016-07-13 13:33:32.699 STDERR [INFO] I0713 13:33:32.699278 23309 net.cpp:425] inception_5a/relu_5x5_reduce <- inception_5a/5x5_reduce
2016-07-13 13:33:32.699 STDERR [INFO] I0713 13:33:32.699295 23309 net.cpp:386] inception_5a/relu_5x5_reduce -> inception_5a/5x5_reduce (in-place)
2016-07-13 13:33:32.699 STDERR [INFO] I0713 13:33:32.699831 23309 net.cpp:141] Setting up inception_5a/relu_5x5_reduce
2016-07-13 13:33:32.699 STDERR [INFO] I0713 13:33:32.699858 23309 net.cpp:148] Top shape: 10 32 7 7 (15680)
2016-07-13 13:33:32.699 STDERR [INFO] I0713 13:33:32.699867 23309 net.cpp:156] Memory required for data: 531991040
2016-07-13 13:33:32.700 STDERR [INFO] I0713 13:33:32.699877 23309 layer_factory.hpp:77] Creating layer inception_5a/5x5
2016-07-13 13:33:32.700 STDERR [INFO] I0713 13:33:32.699925 23309 net.cpp:91] Creating Layer inception_5a/5x5
2016-07-13 13:33:32.700 STDERR [INFO] I0713 13:33:32.699941 23309 net.cpp:425] inception_5a/5x5 <- inception_5a/5x5_reduce
2016-07-13 13:33:32.700 STDERR [INFO] I0713 13:33:32.699962 23309 net.cpp:399] inception_5a/5x5 -> inception_5a/5x5
2016-07-13 13:33:32.706 STDERR [INFO] I0713 13:33:32.706179 23309 net.cpp:141] Setting up inception_5a/5x5
2016-07-13 13:33:32.707 STDERR [INFO] I0713 13:33:32.706218 23309 net.cpp:148] Top shape: 10 128 7 7 (62720)
2016-07-13 13:33:32.707 STDERR [INFO] I0713 13:33:32.706230 23309 net.cpp:156] Memory required for data: 532241920
2016-07-13 13:33:32.707 STDERR [INFO] I0713 13:33:32.706249 23309 layer_factory.hpp:77] Creating layer inception_5a/relu_5x5
2016-07-13 13:33:32.707 STDERR [INFO] I0713 13:33:32.706342 23309 net.cpp:91] Creating Layer inception_5a/relu_5x5
2016-07-13 13:33:32.707 STDERR [INFO] I0713 13:33:32.706359 23309 net.cpp:425] inception_5a/relu_5x5 <- inception_5a/5x5
2016-07-13 13:33:32.707 STDERR [INFO] I0713 13:33:32.706377 23309 net.cpp:386] inception_5a/relu_5x5 -> inception_5a/5x5 (in-place)
2016-07-13 13:33:32.707 STDERR [INFO] I0713 13:33:32.706910 23309 net.cpp:141] Setting up inception_5a/relu_5x5
2016-07-13 13:33:32.707 STDERR [INFO] I0713 13:33:32.706943 23309 net.cpp:148] Top shape: 10 128 7 7 (62720)
2016-07-13 13:33:32.707 STDERR [INFO] I0713 13:33:32.706953 23309 net.cpp:156] Memory required for data: 532492800
2016-07-13 13:33:32.707 STDERR [INFO] I0713 13:33:32.706960 23309 layer_factory.hpp:77] Creating layer inception_5a/pool
2016-07-13 13:33:32.707 STDERR [INFO] I0713 13:33:32.706982 23309 net.cpp:91] Creating Layer inception_5a/pool
2016-07-13 13:33:32.707 STDERR [INFO] I0713 13:33:32.706993 23309 net.cpp:425] inception_5a/pool <- pool4/3x3_s2_pool4/3x3_s2_0_split_3
2016-07-13 13:33:32.708 STDERR [INFO] I0713 13:33:32.707011 23309 net.cpp:399] inception_5a/pool -> inception_5a/pool
2016-07-13 13:33:32.708 STDERR [INFO] I0713 13:33:32.707140 23309 net.cpp:141] Setting up inception_5a/pool
2016-07-13 13:33:32.708 STDERR [INFO] I0713 13:33:32.707160 23309 net.cpp:148] Top shape: 10 832 7 7 (407680)
2016-07-13 13:33:32.708 STDERR [INFO] I0713 13:33:32.707166 23309 net.cpp:156] Memory required for data: 534123520
2016-07-13 13:33:32.708 STDERR [INFO] I0713 13:33:32.707173 23309 layer_factory.hpp:77] Creating layer inception_5a/pool_proj
2016-07-13 13:33:32.708 STDERR [INFO] I0713 13:33:32.707192 23309 net.cpp:91] Creating Layer inception_5a/pool_proj
2016-07-13 13:33:32.708 STDERR [INFO] I0713 13:33:32.707204 23309 net.cpp:425] inception_5a/pool_proj <- inception_5a/pool
2016-07-13 13:33:32.708 STDERR [INFO] I0713 13:33:32.707250 23309 net.cpp:399] inception_5a/pool_proj -> inception_5a/pool_proj
2016-07-13 13:33:32.714 STDERR [INFO] I0713 13:33:32.714172 23309 net.cpp:141] Setting up inception_5a/pool_proj
2016-07-13 13:33:32.714 STDERR [INFO] I0713 13:33:32.714202 23309 net.cpp:148] Top shape: 10 128 7 7 (62720)
2016-07-13 13:33:32.714 STDERR [INFO] I0713 13:33:32.714210 23309 net.cpp:156] Memory required for data: 534374400
2016-07-13 13:33:32.714 STDERR [INFO] I0713 13:33:32.714224 23309 layer_factory.hpp:77] Creating layer inception_5a/relu_pool_proj
2016-07-13 13:33:32.714 STDERR [INFO] I0713 13:33:32.714236 23309 net.cpp:91] Creating Layer inception_5a/relu_pool_proj
2016-07-13 13:33:32.714 STDERR [INFO] I0713 13:33:32.714244 23309 net.cpp:425] inception_5a/relu_pool_proj <- inception_5a/pool_proj
2016-07-13 13:33:32.714 STDERR [INFO] I0713 13:33:32.714258 23309 net.cpp:386] inception_5a/relu_pool_proj -> inception_5a/pool_proj (in-place)
2016-07-13 13:33:32.715 STDERR [INFO] I0713 13:33:32.715332 23309 net.cpp:141] Setting up inception_5a/relu_pool_proj
2016-07-13 13:33:32.715 STDERR [INFO] I0713 13:33:32.715358 23309 net.cpp:148] Top shape: 10 128 7 7 (62720)
2016-07-13 13:33:32.715 STDERR [INFO] I0713 13:33:32.715364 23309 net.cpp:156] Memory required for data: 534625280
2016-07-13 13:33:32.715 STDERR [INFO] I0713 13:33:32.715373 23309 layer_factory.hpp:77] Creating layer inception_5a/output
2016-07-13 13:33:32.715 STDERR [INFO] I0713 13:33:32.715390 23309 net.cpp:91] Creating Layer inception_5a/output
2016-07-13 13:33:32.715 STDERR [INFO] I0713 13:33:32.715399 23309 net.cpp:425] inception_5a/output <- inception_5a/1x1
2016-07-13 13:33:32.715 STDERR [INFO] I0713 13:33:32.715409 23309 net.cpp:425] inception_5a/output <- inception_5a/3x3
2016-07-13 13:33:32.715 STDERR [INFO] I0713 13:33:32.715417 23309 net.cpp:425] inception_5a/output <- inception_5a/5x5
2016-07-13 13:33:32.715 STDERR [INFO] I0713 13:33:32.715425 23309 net.cpp:425] inception_5a/output <- inception_5a/pool_proj
2016-07-13 13:33:32.715 STDERR [INFO] I0713 13:33:32.715435 23309 net.cpp:399] inception_5a/output -> inception_5a/output
2016-07-13 13:33:32.716 STDERR [INFO] I0713 13:33:32.715509 23309 net.cpp:141] Setting up inception_5a/output
2016-07-13 13:33:32.716 STDERR [INFO] I0713 13:33:32.715524 23309 net.cpp:148] Top shape: 10 832 7 7 (407680)
2016-07-13 13:33:32.716 STDERR [INFO] I0713 13:33:32.715531 23309 net.cpp:156] Memory required for data: 536256000
2016-07-13 13:33:32.716 STDERR [INFO] I0713 13:33:32.715538 23309 layer_factory.hpp:77] Creating layer inception_5a/output_inception_5a/output_0_split
2016-07-13 13:33:32.716 STDERR [INFO] I0713 13:33:32.715555 23309 net.cpp:91] Creating Layer inception_5a/output_inception_5a/output_0_split
…
2016-07-13 13:33:32.716 STDERR [INFO] I0713 13:33:32.715590 23309 net.cpp:399] inception_5a/output_inception_5a/output_0_split -> inception_5a/output_inception_5a/output_0_split_1
2016-07-13 13:33:32.716 STDERR [INFO] I0713 13:33:32.715601 23309 net.cpp:399] inception_5a/output_inception_5a/output_0_split -> inception_5a/output_inception_5a/output_0_split_2
2016-07-13 13:33:32.716 STDERR [INFO] I0713 13:33:32.715613 23309 net.cpp:399] inception_5a/output_inception_5a/output_0_split -> inception_5a/output_inception_5a/output_0_split_3
2016-07-13 13:33:32.716 STDERR [INFO] I0713 13:33:32.715770 23309 net.cpp:141] Setting up inception_5a/output_inception_5a/output_0_split
2016-07-13 13:33:32.716 STDERR [INFO] I0713 13:33:32.715788 23309 net.cpp:148] Top shape: 10 832 7 7 (407680)
2016-07-13 13:33:32.716 STDERR [INFO] I0713 13:33:32.715796 23309 net.cpp:148] Top shape: 10 832 7 7 (407680)
2016-07-13 13:33:32.716 STDERR [INFO] I0713 13:33:32.715806 23309 net.cpp:148] Top shape: 10 832 7 7 (407680)
2016-07-13 13:33:32.716 STDERR [INFO] I0713 13:33:32.715812 23309 net.cpp:148] Top shape: 10 832 7 7 (407680)
2016-07-13 13:33:32.716 STDERR [INFO] I0713 13:33:32.715818 23309 net.cpp:156] Memory required for data: 542778880
2016-07-13 13:33:32.716 STDERR [INFO] I0713 13:33:32.715826 23309 layer_factory.hpp:77] Creating layer inception_5b/1x1
2016-07-13 13:33:32.717 STDERR [INFO] I0713 13:33:32.715842 23309 net.cpp:91] Creating Layer inception_5b/1x1
2016-07-13 13:33:32.717 STDERR [INFO] I0713 13:33:32.715849 23309 net.cpp:425] inception_5b/1x1 <- inception_5a/output_inception_5a/output_0_split_0
2016-07-13 13:33:32.717 STDERR [INFO] I0713 13:33:32.715867 23309 net.cpp:399] inception_5b/1x1 -> inception_5b/1x1
2016-07-13 13:33:32.723 STDERR [INFO] I0713 13:33:32.723713 23309 net.cpp:141] Setting up inception_5b/1x1
2016-07-13 13:33:32.723 STDERR [INFO] I0713 13:33:32.723743 23309 net.cpp:148] Top shape: 10 384 7 7 (188160)
2016-07-13 13:33:32.724 STDERR [INFO] I0713 13:33:32.723752 23309 net.cpp:156] Memory required for data: 543531520
2016-07-13 13:33:32.724 STDERR [INFO] I0713 13:33:32.723764 23309 layer_factory.hpp:77] Creating layer inception_5b/relu_1x1
2016-07-13 13:33:32.724 STDERR [INFO] I0713 13:33:32.723776 23309 net.cpp:91] Creating Layer inception_5b/relu_1x1
2016-07-13 13:33:32.724 STDERR [INFO] I0713 13:33:32.723784 23309 net.cpp:425] inception_5b/relu_1x1 <- inception_5b/1x1
2016-07-13 13:33:32.724 STDERR [INFO] I0713 13:33:32.723798 23309 net.cpp:386] inception_5b/relu_1x1 -> inception_5b/1x1 (in-place)
2016-07-13 13:33:32.724 STDERR [INFO] I0713 13:33:32.724139 23309 net.cpp:141] Setting up inception_5b/relu_1x1
2016-07-13 13:33:32.724 STDERR [INFO] I0713 13:33:32.724156 23309 net.cpp:148] Top shape: 10 384 7 7 (188160)
2016-07-13 13:33:32.724 STDERR [INFO] I0713 13:33:32.724162 23309 net.cpp:156] Memory required for data: 544284160
2016-07-13 13:33:32.724 STDERR [INFO] I0713 13:33:32.724169 23309 layer_factory.hpp:77] Creating layer inception_5b/3x3_reduce
2016-07-13 13:33:32.724 STDERR [INFO] I0713 13:33:32.724189 23309 net.cpp:91] Creating Layer inception_5b/3x3_reduce
2016-07-13 13:33:32.724 STDERR [INFO] I0713 13:33:32.724200 23309 net.cpp:425] inception_5b/3x3_reduce <- inception_5a/output_inception_5a/output_0_split_1
2016-07-13 13:33:32.724 STDERR [INFO] I0713 13:33:32.724212 23309 net.cpp:399] inception_5b/3x3_reduce -> inception_5b/3x3_reduce
2016-07-13 13:33:32.730 STDERR [INFO] I0713 13:33:32.730229 23309 net.cpp:141] Setting up inception_5b/3x3_reduce
2016-07-13 13:33:32.730 STDERR [INFO] I0713 13:33:32.730255 23309 net.cpp:148] Top shape: 10 192 7 7 (94080)
2016-07-13 13:33:32.730 STDERR [INFO] I0713 13:33:32.730262 23309 net.cpp:156] Memory required for data: 544660480
2016-07-13 13:33:32.730 STDERR [INFO] I0713 13:33:32.730275 23309 layer_factory.hpp:77] Creating layer inception_5b/relu_3x3_reduce
2016-07-13 13:33:32.730 STDERR [INFO] I0713 13:33:32.730286 23309 net.cpp:91] Creating Layer inception_5b/relu_3x3_reduce
2016-07-13 13:33:32.730 STDERR [INFO] I0713 13:33:32.730294 23309 net.cpp:425] inception_5b/relu_3x3_reduce <- inception_5b/3x3_reduce
2016-07-13 13:33:32.730 STDERR [INFO] I0713 13:33:32.730310 23309 net.cpp:386] inception_5b/relu_3x3_reduce -> inception_5b/3x3_reduce (in-place)
2016-07-13 13:33:32.730 STDERR [INFO] I0713 13:33:32.730659 23309 net.cpp:141] Setting up inception_5b/relu_3x3_reduce
2016-07-13 13:33:32.730 STDERR [INFO] I0713 13:33:32.730679 23309 net.cpp:148] Top shape: 10 192 7 7 (94080)
2016-07-13 13:33:32.731 STDERR [INFO] I0713 13:33:32.730684 23309 net.cpp:156] Memory required for data: 545036800
2016-07-13 13:33:32.731 STDERR [INFO] I0713 13:33:32.730705 23309 layer_factory.hpp:77] Creating layer inception_5b/3x3
2016-07-13 13:33:32.731 STDERR [INFO] I0713 13:33:32.730741 23309 net.cpp:91] Creating Layer inception_5b/3x3
2016-07-13 13:33:32.731 STDERR [INFO] I0713 13:33:32.730751 23309 net.cpp:425] inception_5b/3x3 <- inception_5b/3x3_reduce
2016-07-13 13:33:32.731 STDERR [INFO] I0713 13:33:32.730762 23309 net.cpp:399] inception_5b/3x3 -> inception_5b/3x3
2016-07-13 13:33:32.742 STDERR [INFO] I0713 13:33:32.742133 23309 net.cpp:141] Setting up inception_5b/3x3
2016-07-13 13:33:32.742 STDERR [INFO] I0713 13:33:32.742158 23309 net.cpp:148] Top shape: 10 384 7 7 (188160)
2016-07-13 13:33:32.742 STDERR [INFO] I0713 13:33:32.742166 23309 net.cpp:156] Memory required for data: 545789440
2016-07-13 13:33:32.742 STDERR [INFO] I0713 13:33:32.742177 23309 layer_factory.hpp:77] Creating layer inception_5b/relu_3x3
2016-07-13 13:33:32.742 STDERR [INFO] I0713 13:33:32.742193 23309 net.cpp:91] Creating Layer inception_5b/relu_3x3
2016-07-13 13:33:32.742 STDERR [INFO] I0713 13:33:32.742202 23309 net.cpp:425] inception_5b/relu_3x3 <- inception_5b/3x3
2016-07-13 13:33:32.742 STDERR [INFO] I0713 13:33:32.742224 23309 net.cpp:386] inception_5b/relu_3x3 -> inception_5b/3x3 (in-place)
2016-07-13 13:33:32.743 STDERR [INFO] I0713 13:33:32.743141 23309 net.cpp:141] Setting up inception_5b/relu_3x3
2016-07-13 13:33:32.743 STDERR [INFO] I0713 13:33:32.743161 23309 net.cpp:148] Top shape: 10 384 7 7 (188160)
2016-07-13 13:33:32.743 STDERR [INFO] I0713 13:33:32.743167 23309 net.cpp:156] Memory required for data: 546542080
2016-07-13 13:33:32.743 STDERR [INFO] I0713 13:33:32.743173 23309 layer_factory.hpp:77] Creating layer inception_5b/5x5_reduce
2016-07-13 13:33:32.743 STDERR [INFO] I0713 13:33:32.743206 23309 net.cpp:91] Creating Layer inception_5b/5x5_reduce
2016-07-13 13:33:32.743 STDERR [INFO] I0713 13:33:32.743214 23309 net.cpp:425] inception_5b/5x5_reduce <- inception_5a/output_inception_5a/output_0_split_2
2016-07-13 13:33:32.743 STDERR [INFO] I0713 13:33:32.743228 23309 net.cpp:399] inception_5b/5x5_reduce -> inception_5b/5x5_reduce
2016-07-13 13:33:32.746 STDERR [INFO] I0713 13:33:32.746325 23309 net.cpp:141] Setting up inception_5b/5x5_reduce
2016-07-13 13:33:32.746 STDERR [INFO] I0713 13:33:32.746346 23309 net.cpp:148] Top shape: 10 48 7 7 (23520)
2016-07-13 13:33:32.746 STDERR [INFO] I0713 13:33:32.746352 23309 net.cpp:156] Memory required for data: 546636160
2016-07-13 13:33:32.746 STDERR [INFO] I0713 13:33:32.746363 23309 layer_factory.hpp:77] Creating layer inception_5b/relu_5x5_reduce
2016-07-13 13:33:32.746 STDERR [INFO] I0713 13:33:32.746374 23309 net.cpp:91] Creating Layer inception_5b/relu_5x5_reduce
2016-07-13 13:33:32.746 STDERR [INFO] I0713 13:33:32.746397 23309 net.cpp:425] inception_5b/relu_5x5_reduce <- inception_5b/5x5_reduce
2016-07-13 13:33:32.746 STDERR [INFO] I0713 13:33:32.746404 23309 net.cpp:386] inception_5b/relu_5x5_reduce -> inception_5b/5x5_reduce (in-place)
2016-07-13 13:33:32.746 STDERR [INFO] I0713 13:33:32.746721 23309 net.cpp:141] Setting up inception_5b/relu_5x5_reduce
2016-07-13 13:33:32.746 STDERR [INFO] I0713 13:33:32.746734 23309 net.cpp:148] Top shape: 10 48 7 7 (23520)
2016-07-13 13:33:32.746 STDERR [INFO] I0713 13:33:32.746740 23309 net.cpp:156] Memory required for data: 546730240
2016-07-13 13:33:32.747 STDERR [INFO] I0713 13:33:32.746745 23309 layer_factory.hpp:77] Creating layer inception_5b/5x5
2016-07-13 13:33:32.747 STDERR [INFO] I0713 13:33:32.746762 23309 net.cpp:91] Creating Layer inception_5b/5x5
2016-07-13 13:33:32.747 STDERR [INFO] I0713 13:33:32.746769 23309 net.cpp:425] inception_5b/5x5 <- inception_5b/5x5_reduce
2016-07-13 13:33:32.747 STDERR [INFO] I0713 13:33:32.746783 23309 net.cpp:399] inception_5b/5x5 -> inception_5b/5x5
2016-07-13 13:33:32.751 STDERR [INFO] I0713 13:33:32.751626 23309 net.cpp:141] Setting up inception_5b/5x5
2016-07-13 13:33:32.751 STDERR [INFO] I0713 13:33:32.751647 23309 net.cpp:148] Top shape: 10 128 7 7 (62720)
2016-07-13 13:33:32.751 STDERR [INFO] I0713 13:33:32.751654 23309 net.cpp:156] Memory required for data: 546981120
2016-07-13 13:33:32.751 STDERR [INFO] I0713 13:33:32.751665 23309 layer_factory.hpp:77] Creating layer inception_5b/relu_5x5
2016-07-13 13:33:32.752 STDERR [INFO] I0713 13:33:32.751693 23309 net.cpp:91] Creating Layer inception_5b/relu_5x5
2016-07-13 13:33:32.752 STDERR [INFO] I0713 13:33:32.751700 23309 net.cpp:425] inception_5b/relu_5x5 <- inception_5b/5x5
2016-07-13 13:33:32.752 STDERR [INFO] I0713 13:33:32.751713 23309 net.cpp:386] inception_5b/relu_5x5 -> inception_5b/5x5 (in-place)
2016-07-13 13:33:32.752 STDERR [INFO] I0713 13:33:32.752009 23309 net.cpp:141] Setting up inception_5b/relu_5x5
2016-07-13 13:33:32.752 STDERR [INFO] I0713 13:33:32.752023 23309 net.cpp:148] Top shape: 10 128 7 7 (62720)
2016-07-13 13:33:32.752 STDERR [INFO] I0713 13:33:32.752028 23309 net.cpp:156] Memory required for data: 547232000
2016-07-13 13:33:32.752 STDERR [INFO] I0713 13:33:32.752034 23309 layer_factory.hpp:77] Creating layer inception_5b/pool
2016-07-13 13:33:32.752 STDERR [INFO] I0713 13:33:32.752048 23309 net.cpp:91] Creating Layer inception_5b/pool
2016-07-13 13:33:32.752 STDERR [INFO] I0713 13:33:32.752053 23309 net.cpp:425] inception_5b/pool <- inception_5a/output_inception_5a/output_0_split_3
2016-07-13 13:33:32.752 STDERR [INFO] I0713 13:33:32.752063 23309 net.cpp:399] inception_5b/pool -> inception_5b/pool
2016-07-13 13:33:32.752 STDERR [INFO] I0713 13:33:32.752164 23309 net.cpp:141] Setting up inception_5b/pool
2016-07-13 13:33:32.752 STDERR [INFO] I0713 13:33:32.752177 23309 net.cpp:148] Top shape: 10 832 7 7 (407680)
2016-07-13 13:33:32.752 STDERR [INFO] I0713 13:33:32.752182 23309 net.cpp:156] Memory required for data: 548862720
2016-07-13 13:33:32.752 STDERR [INFO] I0713 13:33:32.752187 23309 layer_factory.hpp:77] Creating layer inception_5b/pool_proj
2016-07-13 13:33:32.752 STDERR [INFO] I0713 13:33:32.752204 23309 net.cpp:91] Creating Layer inception_5b/pool_proj
2016-07-13 13:33:32.752 STDERR [INFO] I0713 13:33:32.752212 23309 net.cpp:425] inception_5b/pool_proj <- inception_5b/pool
2016-07-13 13:33:32.752 STDERR [INFO] I0713 13:33:32.752223 23309 net.cpp:399] inception_5b/pool_proj -> inception_5b/pool_proj
2016-07-13 13:33:32.757 STDERR [INFO] I0713 13:33:32.757030 23309 net.cpp:141] Setting up inception_5b/pool_proj
2016-07-13 13:33:32.757 STDERR [INFO] I0713 13:33:32.757052 23309 net.cpp:148] Top shape: 10 128 7 7 (62720)
2016-07-13 13:33:32.757 STDERR [INFO] I0713 13:33:32.757058 23309 net.cpp:156] Memory required for data: 549113600
2016-07-13 13:33:32.757 STDERR [INFO] I0713 13:33:32.757069 23309 layer_factory.hpp:77] Creating layer inception_5b/relu_pool_proj
2016-07-13 13:33:32.757 STDERR [INFO] I0713 13:33:32.757083 23309 net.cpp:91] Creating Layer inception_5b/relu_pool_proj
2016-07-13 13:33:32.757 STDERR [INFO] I0713 13:33:32.757091 23309 net.cpp:425] inception_5b/relu_pool_proj <- inception_5b/pool_proj
2016-07-13 13:33:32.757 STDERR [INFO] I0713 13:33:32.757098 23309 net.cpp:386] inception_5b/relu_pool_proj -> inception_5b/pool_proj (in-place)
2016-07-13 13:33:32.758 STDERR [INFO] I0713 13:33:32.757969 23309 net.cpp:141] Setting up inception_5b/relu_pool_proj
2016-07-13 13:33:32.758 STDERR [INFO] I0713 13:33:32.757988 23309 net.cpp:148] Top shape: 10 128 7 7 (62720)
2016-07-13 13:33:32.758 STDERR [INFO] I0713 13:33:32.757994 23309 net.cpp:156] Memory required for data: 549364480
2016-07-13 13:33:32.758 STDERR [INFO] I0713 13:33:32.758000 23309 layer_factory.hpp:77] Creating layer inception_5b/output
2016-07-13 13:33:32.758 STDERR [INFO] I0713 13:33:32.758013 23309 net.cpp:91] Creating Layer inception_5b/output
2016-07-13 13:33:32.758 STDERR [INFO] I0713 13:33:32.758019 23309 net.cpp:425] inception_5b/output <- inception_5b/1x1
2016-07-13 13:33:32.758 STDERR [INFO] I0713 13:33:32.758026 23309 net.cpp:425] inception_5b/output <- inception_5b/3x3
2016-07-13 13:33:32.758 STDERR [INFO] I0713 13:33:32.758033 23309 net.cpp:425] inception_5b/output <- inception_5b/5x5
2016-07-13 13:33:32.758 STDERR [INFO] I0713 13:33:32.758038 23309 net.cpp:425] inception_5b/output <- inception_5b/pool_proj
2016-07-13 13:33:32.758 STDERR [INFO] I0713 13:33:32.758045 23309 net.cpp:399] inception_5b/output -> inception_5b/output
2016-07-13 13:33:32.758 STDERR [INFO] I0713 13:33:32.758110 23309 net.cpp:141] Setting up inception_5b/output
2016-07-13 13:33:32.758 STDERR [INFO] I0713 13:33:32.758121 23309 net.cpp:148] Top shape: 10 1024 7 7 (501760)
2016-07-13 13:33:32.758 STDERR [INFO] I0713 13:33:32.758126 23309 net.cpp:156] Memory required for data: 551371520
2016-07-13 13:33:32.758 STDERR [INFO] I0713 13:33:32.758131 23309 layer_factory.hpp:77] Creating layer pool5/7x7_s1
2016-07-13 13:33:32.758 STDERR [INFO] I0713 13:33:32.758141 23309 net.cpp:91] Creating Layer pool5/7x7_s1
2016-07-13 13:33:32.758 STDERR [INFO] I0713 13:33:32.758147 23309 net.cpp:425] pool5/7x7_s1 <- inception_5b/output
2016-07-13 13:33:32.758 STDERR [INFO] I0713 13:33:32.758157 23309 net.cpp:399] pool5/7x7_s1 -> pool5/7x7_s1
2016-07-13 13:33:32.759 STDERR [INFO] I0713 13:33:32.758523 23309 net.cpp:141] Setting up pool5/7x7_s1
2016-07-13 13:33:32.759 STDERR [INFO] I0713 13:33:32.758541 23309 net.cpp:148] Top shape: 10 1024 1 1 (10240)
2016-07-13 13:33:32.759 STDERR [INFO] I0713 13:33:32.758546 23309 net.cpp:156] Memory required for data: 551412480
2016-07-13 13:33:32.759 STDERR [INFO] I0713 13:33:32.758553 23309 layer_factory.hpp:77] Creating layer pool5/drop_7x7_s1
2016-07-13 13:33:32.759 STDERR [INFO] I0713 13:33:32.758563 23309 net.cpp:91] Creating Layer pool5/drop_7x7_s1
2016-07-13 13:33:32.759 STDERR [INFO] I0713 13:33:32.758569 23309 net.cpp:425] pool5/drop_7x7_s1 <- pool5/7x7_s1
2016-07-13 13:33:32.759 STDERR [INFO] I0713 13:33:32.758576 23309 net.cpp:386] pool5/drop_7x7_s1 -> pool5/7x7_s1 (in-place)
2016-07-13 13:33:32.759 STDERR [INFO] I0713 13:33:32.758641 23309 net.cpp:141] Setting up pool5/drop_7x7_s1
2016-07-13 13:33:32.759 STDERR [INFO] I0713 13:33:32.758651 23309 net.cpp:148] Top shape: 10 1024 1 1 (10240)
2016-07-13 13:33:32.759 STDERR [INFO] I0713 13:33:32.758656 23309 net.cpp:156] Memory required for data: 551453440
2016-07-13 13:33:32.759 STDERR [INFO] I0713 13:33:32.758661 23309 layer_factory.hpp:77] Creating layer loss3/classifier
2016-07-13 13:33:32.759 STDERR [INFO] I0713 13:33:32.758683 23309 net.cpp:91] Creating Layer loss3/classifier
2016-07-13 13:33:32.759 STDERR [INFO] I0713 13:33:32.758697 23309 net.cpp:425] loss3/classifier <- pool5/7x7_s1
2016-07-13 13:33:32.759 STDERR [INFO] I0713 13:33:32.758707 23309 net.cpp:399] loss3/classifier -> loss3/classifier
2016-07-13 13:33:32.770 STDERR [INFO] I0713 13:33:32.770602 23309 net.cpp:141] Setting up loss3/classifier
2016-07-13 13:33:32.770 STDERR [INFO] I0713 13:33:32.770625 23309 net.cpp:148] Top shape: 10 1000 (10000)
2016-07-13 13:33:32.770 STDERR [INFO] I0713 13:33:32.770630 23309 net.cpp:156] Memory required for data: 551493440
2016-07-13 13:33:32.770 STDERR [INFO] I0713 13:33:32.770642 23309 layer_factory.hpp:77] Creating layer prob
2016-07-13 13:33:32.770 STDERR [INFO] I0713 13:33:32.770658 23309 net.cpp:91] Creating Layer prob
2016-07-13 13:33:32.771 STDERR [INFO] I0713 13:33:32.770663 23309 net.cpp:425] prob <- loss3/classifier
2016-07-13 13:33:32.771 STDERR [INFO] I0713 13:33:32.770673 23309 net.cpp:399] prob -> prob
2016-07-13 13:33:32.771 STDERR [INFO] I0713 13:33:32.771791 23309 net.cpp:141] Setting up prob
2016-07-13 13:33:32.771 STDERR [INFO] I0713 13:33:32.771811 23309 net.cpp:148] Top shape: 10 1000 (10000)
2016-07-13 13:33:32.771 STDERR [INFO] I0713 13:33:32.771816 23309 net.cpp:156] Memory required for data: 551533440
2016-07-13 13:33:32.772 STDERR [INFO] I0713 13:33:32.771821 23309 net.cpp:219] prob does not need backward computation.
2016-07-13 13:33:32.772 STDERR [INFO] I0713 13:33:32.771827 23309 net.cpp:219] loss3/classifier does not need backward computation.
2016-07-13 13:33:32.772 STDERR [INFO] I0713 13:33:32.771832 23309 net.cpp:219] pool5/drop_7x7_s1 does not need backward computation.
…
